…
I0322 00:21:03.540711  5754 net.cpp:313] The NetState phase (0) differed from the phase (1) specified by a rule in layer mnist
I0322 00:21:03.540781  5754 net.cpp:313] The NetState phase (0) differed from the phase (1) specified by a rule in layer accuracy
I0322 00:21:03.540985  5754 net.cpp:49] Initializing net from parameters: 
name: "LeNet"
state {
  phase: TRAIN
}
layer {
  name: "mnist"
  type: "Data"
  top: "data"
  top: "label"
  include {
    phase: TRAIN
  }
  transform_param {
    scale: 0.00390625
  }
  data_param {
    source: "examples/mnist/mnist_train_lmdb"
    batch_size: 64
    backend: LMDB
  }
}
layer {
  name: "conv0"
  type: "Convolution"
  bottom: "data"
  top: "conv0"
  param {
    lr_mult: 1
  }
  param {
    lr_mult: 2
  }
  convolution_param {
    num_output: 50
    kernel_size: 5
    stride: 1
    weight_filler {
      type: "xavier"
    }
    bias_filler {
      type: "constant"
    }
  }
}
layer {
  name: "pool0"
  type: "Pooling"
  bottom: "conv0"
  top: "pool0"
  pooling_param {
    pool: MAX
    kernel_size: 2
    stride: 2
  }
}
layer {
  name: "conv1"
  type: "Convolution"
  bottom: "pool0"
  top: "conv1"
  param {
    lr_mult: 1
  }
  param {
    lr_mult: 2
  }
  convolution_param {
    num_output: 50
    kernel_size: 5
    stride: 1
    weight_filler {
      type: "xavier"
    }
    bias_filler {
      type: "constant"
    }
  }
}
layer {
  name: "pool1"
  type: "Pooling"
  bottom: "conv1"
  top: "pool1"
  pooling_param {
    pool: MAX
    kernel_size: 2
    stride: 2
  }
}
layer {
  name: "ip1"
  type: "InnerProduct"
  bottom: "pool1"
  top: "ip1"
  param {
    lr_mult: 1
  }
  param {
    lr_mult: 2
  }
  inner_product_param {
    num_output: 500
    weight_filler {
      type: "xavier"
    }
    bias_filler {
      type: "constant"
    }
  }
}
layer {
  name: "relu1"
  type: "ReLU"
  bottom: "ip1"
  top: "ip1"
}
layer {
  name: "ip2"
  type: "InnerProduct"
  bottom: "ip1"
  top: "ip2"
  param {
    lr_mult: 1
  }
  param {
    lr_mult: 2
  }
  inner_product_param {
    num_output: 10
    weight_filler {
      type: "xavier"
    }
    bias_filler {
      type: "constant"
    }
  }
}
layer {
  name: "loss"
  type: "SoftmaxWithLoss"
  bottom: "ip2"
  bottom: "label"
  top: "loss"
}
I0322 00:21:03.541541  5754 layer_factory.hpp:77] Creating layer mnist
I0322 00:21:03.543108  5754 net.cpp:91] Creating Layer mnist
I0322 00:21:03.543162  5754 net.cpp:399] mnist -> data
I0322 00:21:03.543319  5754 net.cpp:399] mnist -> label
I0322 00:21:03.547633  5787 db_lmdb.cpp:35] Opened lmdb examples/mnist/mnist_train_lmdb
I0322 00:21:03.548162  5754 data_layer.cpp:41] output data size: 64,1,28,28
I0322 00:21:03.548697  5754 base_data_layer.cpp:69] Initializing prefetch
I0322 00:21:03.548785  5754 base_data_layer.cpp:72] Prefetch initialized.
I0322 00:21:03.548817  5754 net.cpp:141] Setting up mnist
I0322 00:21:03.548871  5754 net.cpp:148] Top shape: 64 1 28 28 (50176)
I0322 00:21:03.548905  5754 net.cpp:148] Top shape: 64 (64)
I0322 00:21:03.548930  5754 net.cpp:156] Memory required for data: 200960
I0322 00:21:03.548975  5754 layer_factory.hpp:77] Creating layer conv0
I0322 00:21:03.549048  5754 net.cpp:91] Creating Layer conv0
I0322 00:21:03.549090  5754 net.cpp:425] conv0 <- data
I0322 00:21:03.549165  5754 net.cpp:399] conv0 -> conv0
I0322 00:21:03.549628  5754 net.cpp:141] Setting up conv0
I0322 00:21:03.549669  5754 net.cpp:148] Top shape: 64 50 24 24 (1843200)
I0322 00:21:03.549695  5754 net.cpp:156] Memory required for data: 7573760
I0322 00:21:03.549789  5754 layer_factory.hpp:77] Creating layer pool0
I0322 00:21:03.549852  5754 net.cpp:91] Creating Layer pool0
I0322 00:21:03.549896  5754 net.cpp:425] pool0 <- conv0
I0322 00:21:03.549975  5754 net.cpp:399] pool0 -> pool0
I0322 00:21:03.550068  5754 net.cpp:141] Setting up pool0
I0322 00:21:03.550103  5754 net.cpp:148] Top shape: 64 50 12 12 (460800)
I0322 00:21:03.550129  5754 net.cpp:156] Memory required for data: 9416960
I0322 00:21:03.550158  5754 layer_factory.hpp:77] Creating layer conv1
I0322 00:21:03.550209  5754 net.cpp:91] Creating Layer conv1
I0322 00:21:03.550241  5754 net.cpp:425] conv1 <- pool0
I0322 00:21:03.550292  5754 net.cpp:399] conv1 -> conv1
I0322 00:21:03.552531  5788 data_layer.cpp:102] Prefetch batch: 2 ms.
I0322 00:21:03.554364  5788 data_layer.cpp:103]      Read time: 0.264 ms.
I0322 00:21:03.554438  5788 data_layer.cpp:104] Transform time: 1.096 ms.
I0322 00:21:03.556668  5788 data_layer.cpp:102] Prefetch batch: 2 ms.
I0322 00:21:03.558670  5788 data_layer.cpp:103]      Read time: 0.265 ms.
I0322 00:21:03.558733  5788 data_layer.cpp:104] Transform time: 1.223 ms.
I0322 00:21:03.561719  5788 data_layer.cpp:102] Prefetch batch: 2 ms.
I0322 00:21:03.563071  5788 data_layer.cpp:103]      Read time: 0.287 ms.
I0322 00:21:03.563127  5788 data_layer.cpp:104] Transform time: 1.943 ms.
I0322 00:21:03.556947  5754 net.cpp:141] Setting up conv1
I0322 00:21:03.566751  5754 net.cpp:148] Top shape: 64 50 8 8 (204800)
I0322 00:21:03.566763  5754 net.cpp:156] Memory required for data: 10236160
I0322 00:21:03.566802  5754 layer_factory.hpp:77] Creating layer pool1
I0322 00:21:03.566828  5754 net.cpp:91] Creating Layer pool1
I0322 00:21:03.566839  5754 net.cpp:425] pool1 <- conv1
I0322 00:21:03.566859  5754 net.cpp:399] pool1 -> pool1
I0322 00:21:03.566892  5754 net.cpp:141] Setting up pool1
I0322 00:21:03.566906  5754 net.cpp:148] Top shape: 64 50 4 4 (51200)
I0322 00:21:03.566915  5754 net.cpp:156] Memory required for data: 10440960
I0322 00:21:03.566921  5754 layer_factory.hpp:77] Creating layer ip1
I0322 00:21:03.566948  5754 net.cpp:91] Creating Layer ip1
I0322 00:21:03.566961  5754 net.cpp:425] ip1 <- pool1
I0322 00:21:03.566987  5754 net.cpp:399] ip1 -> ip1
I0322 00:21:03.617213  5754 net.cpp:141] Setting up ip1
I0322 00:21:03.617266  5754 net.cpp:148] Top shape: 64 500 (32000)
I0322 00:21:03.617272  5754 net.cpp:156] Memory required for data: 10568960
I0322 00:21:03.617328  5754 layer_factory.hpp:77] Creating layer relu1
I0322 00:21:03.617373  5754 net.cpp:91] Creating Layer relu1
I0322 00:21:03.617391  5754 net.cpp:425] relu1 <- ip1
I0322 00:21:03.617419  5754 net.cpp:386] relu1 -> ip1 (in-place)
I0322 00:21:03.617449  5754 net.cpp:141] Setting up relu1
I0322 00:21:03.617458  5754 net.cpp:148] Top shape: 64 500 (32000)
I0322 00:21:03.617463  5754 net.cpp:156] Memory required for data: 10696960
I0322 00:21:03.617470  5754 layer_factory.hpp:77] Creating layer ip2
I0322 00:21:03.617496  5754 net.cpp:91] Creating Layer ip2
I0322 00:21:03.617506  5754 net.cpp:425] ip2 <- ip1
I0322 00:21:03.617527  5754 net.cpp:399] ip2 -> ip2
I0322 00:21:03.617941  5754 net.cpp:141] Setting up ip2
I0322 00:21:03.617955  5754 net.cpp:148] Top shape: 64 10 (640)
I0322 00:21:03.617961  5754 net.cpp:156] Memory required for data: 10699520
I0322 00:21:03.617982  5754 layer_factory.hpp:77] Creating layer loss
I0322 00:21:03.618023  5754 net.cpp:91] Creating Layer loss
I0322 00:21:03.618034  5754 net.cpp:425] loss <- ip2
I0322 00:21:03.618052  5754 net.cpp:425] loss <- label
I0322 00:21:03.618072  5754 net.cpp:399] loss -> loss
I0322 00:21:03.618114  5754 layer_factory.hpp:77] Creating layer loss
…
I0322 00:21:03.619556  5754 solver.cpp:181] Creating test net (#0) specified by net file: ECE595/mnist/train_test/lenet_train_test2.prototxt
I0322 00:21:03.619694  5754 net.cpp:313] The NetState phase (1) differed from the phase (0) specified by a rule in layer mnist
I0322 00:21:03.619973  5754 net.cpp:49] Initializing net from parameters: 
name: "LeNet"
state {
  phase: TEST
}
layer {
  name: "mnist"
  type: "Data"
  top: "data"
  top: "label"
  include {
    phase: TEST
  }
  transform_param {
    scale: 0.00390625
  }
  data_param {
    source: "examples/mnist/mnist_test_lmdb"
    batch_size: 100
    backend: LMDB
  }
}
layer {
  name: "conv0"
  type: "Convolution"
  bottom: "data"
  top: "conv0"
  param {
    lr_mult: 1
  }
  param {
    lr_mult: 2
  }
  convolution_param {
    num_output: 50
    kernel_size: 5
    stride: 1
    weight_filler {
      type: "xavier"
    }
    bias_filler {
      type: "constant"
    }
  }
}
layer {
  name: "pool0"
  type: "Pooling"
  bottom: "conv0"
  top: "pool0"
  pooling_param {
    pool: MAX
    kernel_size: 2
    stride: 2
  }
}
layer {
  name: "conv1"
  type: "Convolution"
  bottom: "pool0"
  top: "conv1"
  param {
    lr_mult: 1
  }
  param {
    lr_mult: 2
  }
  convolution_param {
    num_output: 50
    kernel_size: 5
    stride: 1
    weight_filler {
      type: "xavier"
    }
    bias_filler {
      type: "constant"
    }
  }
}
layer {
  name: "pool1"
  type: "Pooling"
  bottom: "conv1"
  top: "pool1"
  pooling_param {
    pool: MAX
    kernel_size: 2
    stride: 2
  }
}
layer {
  name: "ip1"
  type: "InnerProduct"
  bottom: "pool1"
  top: "ip1"
  param {
    lr_mult: 1
  }
  param {
    lr_mult: 2
  }
  inner_product_param {
    num_output: 500
    weight_filler {
      type: "xavier"
    }
    bias_filler {
      type: "constant"
    }
  }
}
layer {
  name: "relu1"
  type: "ReLU"
  bottom: "ip1"
  top: "ip1"
}
layer {
  name: "ip2"
  type: "InnerProduct"
  bottom: "ip1"
  top: "ip2"
  param {
    lr_mult: 1
  }
  param {
    lr_mult: 2
  }
  inner_product_param {
    num_output: 10
    weight_filler {
      type: "xavier"
    }
    bias_filler {
      type: "constant"
    }
  }
}
layer {
  name: "accuracy"
  type: "Accuracy"
  bottom: "ip2"
  bottom: "label"
  top: "accuracy"
  include {
    phase: TEST
  }
}
layer {
  name: "loss"
  type: "SoftmaxWithLoss"
  bottom: "ip2"
  bottom: "label"
  top: "loss"
}
I0322 00:21:03.620419  5754 layer_factory.hpp:77] Creating layer mnist
I0322 00:21:03.620908  5754 net.cpp:91] Creating Layer mnist
I0322 00:21:03.620947  5754 net.cpp:399] mnist -> data
I0322 00:21:03.620997  5754 net.cpp:399] mnist -> label
I0322 00:21:03.624845  5789 db_lmdb.cpp:35] Opened lmdb examples/mnist/mnist_test_lmdb
I0322 00:21:03.625385  5754 data_layer.cpp:41] output data size: 100,1,28,28
I0322 00:21:03.625877  5754 base_data_layer.cpp:69] Initializing prefetch
I0322 00:21:03.625929  5754 base_data_layer.cpp:72] Prefetch initialized.
I0322 00:21:03.625938  5754 net.cpp:141] Setting up mnist
I0322 00:21:03.625952  5754 net.cpp:148] Top shape: 100 1 28 28 (78400)
I0322 00:21:03.625962  5754 net.cpp:148] Top shape: 100 (100)
I0322 00:21:03.625972  5754 net.cpp:156] Memory required for data: 314000
I0322 00:21:03.625988  5754 layer_factory.hpp:77] Creating layer label_mnist_1_split
I0322 00:21:03.626057  5754 net.cpp:91] Creating Layer label_mnist_1_split
I0322 00:21:03.626072  5754 net.cpp:425] label_mnist_1_split <- label
I0322 00:21:03.626096  5754 net.cpp:399] label_mnist_1_split -> label_mnist_1_split_0
I0322 00:21:03.626137  5754 net.cpp:399] label_mnist_1_split -> label_mnist_1_split_1
I0322 00:21:03.626168  5754 net.cpp:141] Setting up label_mnist_1_split
I0322 00:21:03.626181  5754 net.cpp:148] Top shape: 100 (100)
I0322 00:21:03.626193  5754 net.cpp:148] Top shape: 100 (100)
I0322 00:21:03.626199  5754 net.cpp:156] Memory required for data: 314800
I0322 00:21:03.626209  5754 layer_factory.hpp:77] Creating layer conv0
I0322 00:21:03.626246  5754 net.cpp:91] Creating Layer conv0
I0322 00:21:03.626258  5754 net.cpp:425] conv0 <- data
I0322 00:21:03.626288  5754 net.cpp:399] conv0 -> conv0
I0322 00:21:03.626484  5754 net.cpp:141] Setting up conv0
I0322 00:21:03.626502  5754 net.cpp:148] Top shape: 100 50 24 24 (2880000)
I0322 00:21:03.626507  5754 net.cpp:156] Memory required for data: 11834800
I0322 00:21:03.626549  5754 layer_factory.hpp:77] Creating layer pool0
I0322 00:21:03.626581  5754 net.cpp:91] Creating Layer pool0
I0322 00:21:03.626596  5754 net.cpp:425] pool0 <- conv0
I0322 00:21:03.626618  5754 net.cpp:399] pool0 -> pool0
I0322 00:21:03.626655  5754 net.cpp:141] Setting up pool0
I0322 00:21:03.626672  5754 net.cpp:148] Top shape: 100 50 12 12 (720000)
I0322 00:21:03.626679  5754 net.cpp:156] Memory required for data: 14714800
I0322 00:21:03.626688  5754 layer_factory.hpp:77] Creating layer conv1
I0322 00:21:03.626727  5754 net.cpp:91] Creating Layer conv1
I0322 00:21:03.626760  5754 net.cpp:425] conv1 <- pool0
I0322 00:21:03.626788  5754 net.cpp:399] conv1 -> conv1
I0322 00:21:03.630133  5790 data_layer.cpp:102] Prefetch batch: 4 ms.
I0322 00:21:03.630177  5790 data_layer.cpp:103]      Read time: 0.414 ms.
I0322 00:21:03.630193  5790 data_layer.cpp:104] Transform time: 2.743 ms.
I0322 00:21:03.631361  5754 net.cpp:141] Setting up conv1
I0322 00:21:03.631384  5754 net.cpp:148] Top shape: 100 50 8 8 (320000)
I0322 00:21:03.631391  5754 net.cpp:156] Memory required for data: 15994800
I0322 00:21:03.631422  5754 layer_factory.hpp:77] Creating layer pool1
I0322 00:21:03.631450  5754 net.cpp:91] Creating Layer pool1
I0322 00:21:03.631464  5754 net.cpp:425] pool1 <- conv1
I0322 00:21:03.631486  5754 net.cpp:399] pool1 -> pool1
I0322 00:21:03.631520  5754 net.cpp:141] Setting up pool1
I0322 00:21:03.631533  5754 net.cpp:148] Top shape: 100 50 4 4 (80000)
I0322 00:21:03.631541  5754 net.cpp:156] Memory required for data: 16314800
I0322 00:21:03.631551  5754 layer_factory.hpp:77] Creating layer ip1
I0322 00:21:03.631578  5754 net.cpp:91] Creating Layer ip1
I0322 00:21:03.631590  5754 net.cpp:425] ip1 <- pool1
I0322 00:21:03.631618  5754 net.cpp:399] ip1 -> ip1
I0322 00:21:03.634146  5790 data_layer.cpp:102] Prefetch batch: 3 ms.
I0322 00:21:03.634173  5790 data_layer.cpp:103]      Read time: 0.356 ms.
I0322 00:21:03.634187  5790 data_layer.cpp:104] Transform time: 2.646 ms.
I0322 00:21:03.638124  5790 data_layer.cpp:102] Prefetch batch: 3 ms.
I0322 00:21:03.638149  5790 data_layer.cpp:103]      Read time: 0.363 ms.
I0322 00:21:03.638162  5790 data_layer.cpp:104] Transform time: 2.639 ms.
I0322 00:21:03.659742  5754 net.cpp:141] Setting up ip1
I0322 00:21:03.659804  5754 net.cpp:148] Top shape: 100 500 (50000)
I0322 00:21:03.659811  5754 net.cpp:156] Memory required for data: 16514800
I0322 00:21:03.659868  5754 layer_factory.hpp:77] Creating layer relu1
I0322 00:21:03.659919  5754 net.cpp:91] Creating Layer relu1
I0322 00:21:03.659939  5754 net.cpp:425] relu1 <- ip1
I0322 00:21:03.659965  5754 net.cpp:386] relu1 -> ip1 (in-place)
I0322 00:21:03.659993  5754 net.cpp:141] Setting up relu1
I0322 00:21:03.660003  5754 net.cpp:148] Top shape: 100 500 (50000)
I0322 00:21:03.660009  5754 net.cpp:156] Memory required for data: 16714800
I0322 00:21:03.660017  5754 layer_factory.hpp:77] Creating layer ip2
I0322 00:21:03.660053  5754 net.cpp:91] Creating Layer ip2
I0322 00:21:03.660063  5754 net.cpp:425] ip2 <- ip1
I0322 00:21:03.660089  5754 net.cpp:399] ip2 -> ip2
I0322 00:21:03.660552  5754 net.cpp:141] Setting up ip2
I0322 00:21:03.660570  5754 net.cpp:148] Top shape: 100 10 (1000)
I0322 00:21:03.660578  5754 net.cpp:156] Memory required for data: 16718800
I0322 00:21:03.660612  5754 layer_factory.hpp:77] Creating layer ip2_ip2_0_split
I0322 00:21:03.660630  5754 net.cpp:91] Creating Layer ip2_ip2_0_split
I0322 00:21:03.660640  5754 net.cpp:425] ip2_ip2_0_split <- ip2
I0322 00:21:03.660658  5754 net.cpp:399] ip2_ip2_0_split -> ip2_ip2_0_split_0
I0322 00:21:03.660681  5754 net.cpp:399] ip2_ip2_0_split -> ip2_ip2_0_split_1
I0322 00:21:03.660704  5754 net.cpp:141] Setting up ip2_ip2_0_split
I0322 00:21:03.660717  5754 net.cpp:148] Top shape: 100 10 (1000)
I0322 00:21:03.660724  5754 net.cpp:148] Top shape: 100 10 (1000)
I0322 00:21:03.660730  5754 net.cpp:156] Memory required for data: 16726800
I0322 00:21:03.660738  5754 layer_factory.hpp:77] Creating layer accuracy
I0322 00:21:03.660778  5754 net.cpp:91] Creating Layer accuracy
I0322 00:21:03.660789  5754 net.cpp:425] accuracy <- ip2_ip2_0_split_0
I0322 00:21:03.660805  5754 net.cpp:425] accuracy <- label_mnist_1_split_0
I0322 00:21:03.660822  5754 net.cpp:399] accuracy -> accuracy
…
