…
I0415 18:42:09.654955 11379 net.cpp:313] The NetState phase (0) differed from the phase (1) specified by a rule in layer mnist
I0415 18:42:09.655009 11379 net.cpp:313] The NetState phase (0) differed from the phase (1) specified by a rule in layer accuracy
I0415 18:42:09.655176 11379 net.cpp:49] Initializing net from parameters: 
name: "LeNet"
state {
  phase: TRAIN
}
layer {
  name: "mnist"
  type: "Data"
  top: "data"
  top: "label"
  include {
    phase: TRAIN
  }
  transform_param {
    scale: 0.00390625
  }
  data_param {
    source: "examples/mnist/mnist_train_lmdb"
    batch_size: 64
    backend: LMDB
  }
}
layer {
  name: "conv0"
  type: "Convolution"
  bottom: "data"
  top: "conv0"
  param {
    lr_mult: 1
  }
  param {
    lr_mult: 2
  }
  convolution_param {
    num_output: 100
    kernel_size: 5
    stride: 1
    weight_filler {
      type: "xavier"
    }
    bias_filler {
      type: "constant"
    }
  }
}
layer {
  name: "pool0"
  type: "Pooling"
  bottom: "conv0"
  top: "pool0"
  pooling_param {
    pool: MAX
    kernel_size: 2
    stride: 2
  }
}
layer {
  name: "conv1"
  type: "Convolution"
  bottom: "pool0"
  top: "conv1"
  param {
    lr_mult: 1
  }
  param {
    lr_mult: 2
  }
  convolution_param {
    num_output: 100
    kernel_size: 5
    stride: 1
    weight_filler {
      type: "xavier"
    }
    bias_filler {
      type: "constant"
    }
  }
}
layer {
  name: "pool1"
  type: "Pooling"
  bottom: "conv1"
  top: "pool1"
  pooling_param {
    pool: MAX
    kernel_size: 2
    stride: 2
  }
}
layer {
  name: "ip1"
  type: "InnerProduct"
  bottom: "pool1"
  top: "ip1"
  param {
    lr_mult: 1
  }
  param {
    lr_mult: 2
  }
  inner_product_param {
    num_output: 100
    weight_filler {
      type: "xavier"
    }
    bias_filler {
      type: "constant"
    }
  }
}
layer {
  name: "relu1"
  type: "ReLU"
  bottom: "ip1"
  top: "ip1"
}
layer {
  name: "ip2"
  type: "InnerProduct"
  bottom: "ip1"
  top: "ip2"
  param {
    lr_mult: 1
  }
  param {
    lr_mult: 2
  }
  inner_product_param {
    num_output: 10
    weight_filler {
      type: "xavier"
    }
    bias_filler {
      type: "constant"
    }
  }
}
layer {
  name: "relu2"
  type: "ReLU"
  bottom: "ip2"
  top: "ip2"
}
layer {
  name: "loss"
  type: "SoftmaxWithLoss"
  bottom: "ip2"
  bottom: "label"
  top: "loss"
}
I0415 18:42:09.655617 11379 layer_factory.hpp:77] Creating layer mnist
I0415 18:42:09.656913 11379 net.cpp:91] Creating Layer mnist
I0415 18:42:09.656955 11379 net.cpp:399] mnist -> data
I0415 18:42:09.657083 11379 net.cpp:399] mnist -> label
I0415 18:42:09.660569 11412 db_lmdb.cpp:35] Opened lmdb examples/mnist/mnist_train_lmdb
I0415 18:42:09.661264 11379 data_layer.cpp:41] output data size: 64,1,28,28
I0415 18:42:09.661695 11379 base_data_layer.cpp:69] Initializing prefetch
I0415 18:42:09.661757 11379 base_data_layer.cpp:72] Prefetch initialized.
I0415 18:42:09.661777 11379 net.cpp:141] Setting up mnist
I0415 18:42:09.661808 11379 net.cpp:148] Top shape: 64 1 28 28 (50176)
I0415 18:42:09.661829 11379 net.cpp:148] Top shape: 64 (64)
I0415 18:42:09.661837 11379 net.cpp:156] Memory required for data: 200960
I0415 18:42:09.661859 11379 layer_factory.hpp:77] Creating layer conv0
I0415 18:42:09.661906 11379 net.cpp:91] Creating Layer conv0
I0415 18:42:09.661931 11379 net.cpp:425] conv0 <- data
I0415 18:42:09.661978 11379 net.cpp:399] conv0 -> conv0
I0415 18:42:09.662402 11379 net.cpp:141] Setting up conv0
I0415 18:42:09.662427 11379 net.cpp:148] Top shape: 64 100 24 24 (3686400)
I0415 18:42:09.662436 11379 net.cpp:156] Memory required for data: 14946560
I0415 18:42:09.662535 11379 layer_factory.hpp:77] Creating layer pool0
I0415 18:42:09.662577 11379 net.cpp:91] Creating Layer pool0
I0415 18:42:09.662590 11379 net.cpp:425] pool0 <- conv0
I0415 18:42:09.662626 11379 net.cpp:399] pool0 -> pool0
I0415 18:42:09.662705 11379 net.cpp:141] Setting up pool0
I0415 18:42:09.662736 11379 net.cpp:148] Top shape: 64 100 12 12 (921600)
I0415 18:42:09.662755 11379 net.cpp:156] Memory required for data: 18632960
I0415 18:42:09.662776 11379 layer_factory.hpp:77] Creating layer conv1
I0415 18:42:09.662819 11379 net.cpp:91] Creating Layer conv1
I0415 18:42:09.662843 11379 net.cpp:425] conv1 <- pool0
I0415 18:42:09.662885 11379 net.cpp:399] conv1 -> conv1
I0415 18:42:09.666290 11413 data_layer.cpp:102] Prefetch batch: 1 ms.
I0415 18:42:09.668103 11413 data_layer.cpp:103]      Read time: 0.212 ms.
I0415 18:42:09.668148 11413 data_layer.cpp:104] Transform time: 1.034 ms.
I0415 18:42:09.671661 11413 data_layer.cpp:102] Prefetch batch: 3 ms.
I0415 18:42:09.671910 11413 data_layer.cpp:103]      Read time: 0.215 ms.
I0415 18:42:09.671941 11413 data_layer.cpp:104] Transform time: 1.302 ms.
I0415 18:42:09.675400 11413 data_layer.cpp:102] Prefetch batch: 3 ms.
I0415 18:42:09.675823 11413 data_layer.cpp:103]      Read time: 0.214 ms.
I0415 18:42:09.675855 11413 data_layer.cpp:104] Transform time: 1.038 ms.
I0415 18:42:09.695129 11379 net.cpp:141] Setting up conv1
I0415 18:42:09.695152 11379 net.cpp:148] Top shape: 64 100 8 8 (409600)
I0415 18:42:09.695163 11379 net.cpp:156] Memory required for data: 20271360
I0415 18:42:09.695200 11379 layer_factory.hpp:77] Creating layer pool1
I0415 18:42:09.695230 11379 net.cpp:91] Creating Layer pool1
I0415 18:42:09.695243 11379 net.cpp:425] pool1 <- conv1
I0415 18:42:09.695272 11379 net.cpp:399] pool1 -> pool1
I0415 18:42:09.695313 11379 net.cpp:141] Setting up pool1
I0415 18:42:09.695330 11379 net.cpp:148] Top shape: 64 100 4 4 (102400)
I0415 18:42:09.695340 11379 net.cpp:156] Memory required for data: 20680960
I0415 18:42:09.695353 11379 layer_factory.hpp:77] Creating layer ip1
I0415 18:42:09.695385 11379 net.cpp:91] Creating Layer ip1
I0415 18:42:09.695399 11379 net.cpp:425] ip1 <- pool1
I0415 18:42:09.695430 11379 net.cpp:399] ip1 -> ip1
I0415 18:42:09.722744 11379 net.cpp:141] Setting up ip1
I0415 18:42:09.722764 11379 net.cpp:148] Top shape: 64 100 (6400)
I0415 18:42:09.722774 11379 net.cpp:156] Memory required for data: 20706560
I0415 18:42:09.722813 11379 layer_factory.hpp:77] Creating layer relu1
I0415 18:42:09.722839 11379 net.cpp:91] Creating Layer relu1
I0415 18:42:09.722853 11379 net.cpp:425] relu1 <- ip1
I0415 18:42:09.722878 11379 net.cpp:386] relu1 -> ip1 (in-place)
I0415 18:42:09.722903 11379 net.cpp:141] Setting up relu1
I0415 18:42:09.722918 11379 net.cpp:148] Top shape: 64 100 (6400)
I0415 18:42:09.722928 11379 net.cpp:156] Memory required for data: 20732160
I0415 18:42:09.722940 11379 layer_factory.hpp:77] Creating layer ip2
I0415 18:42:09.722965 11379 net.cpp:91] Creating Layer ip2
I0415 18:42:09.722977 11379 net.cpp:425] ip2 <- ip1
I0415 18:42:09.723006 11379 net.cpp:399] ip2 -> ip2
I0415 18:42:09.723156 11379 net.cpp:141] Setting up ip2
I0415 18:42:09.723175 11379 net.cpp:148] Top shape: 64 10 (640)
I0415 18:42:09.723184 11379 net.cpp:156] Memory required for data: 20734720
I0415 18:42:09.723209 11379 layer_factory.hpp:77] Creating layer relu2
I0415 18:42:09.723234 11379 net.cpp:91] Creating Layer relu2
I0415 18:42:09.723248 11379 net.cpp:425] relu2 <- ip2
I0415 18:42:09.723271 11379 net.cpp:386] relu2 -> ip2 (in-place)
I0415 18:42:09.723296 11379 net.cpp:141] Setting up relu2
I0415 18:42:09.723310 11379 net.cpp:148] Top shape: 64 10 (640)
I0415 18:42:09.723320 11379 net.cpp:156] Memory required for data: 20737280
I0415 18:42:09.723332 11379 layer_factory.hpp:77] Creating layer loss
I0415 18:42:09.723358 11379 net.cpp:91] Creating Layer loss
I0415 18:42:09.723372 11379 net.cpp:425] loss <- ip2
I0415 18:42:09.729547 11379 net.cpp:425] loss <- label
I0415 18:42:09.729575 11379 net.cpp:399] loss -> loss
I0415 18:42:09.729629 11379 layer_factory.hpp:77] Creating layer loss
…
I0415 18:42:09.731139 11379 solver.cpp:181] Creating test net (#0) specified by net file: ECE595/mnist/train_test/var_num_feature/lenet_train_test_featuresize100.prototxt
I0415 18:42:09.731235 11379 net.cpp:313] The NetState phase (1) differed from the phase (0) specified by a rule in layer mnist
I0415 18:42:09.731457 11379 net.cpp:49] Initializing net from parameters: 
name: "LeNet"
state {
  phase: TEST
}
layer {
  name: "mnist"
  type: "Data"
  top: "data"
  top: "label"
  include {
    phase: TEST
  }
  transform_param {
    scale: 0.00390625
  }
  data_param {
    source: "examples/mnist/mnist_test_lmdb"
    batch_size: 100
    backend: LMDB
  }
}
layer {
  name: "conv0"
  type: "Convolution"
  bottom: "data"
  top: "conv0"
  param {
    lr_mult: 1
  }
  param {
    lr_mult: 2
  }
  convolution_param {
    num_output: 100
    kernel_size: 5
    stride: 1
    weight_filler {
      type: "xavier"
    }
    bias_filler {
      type: "constant"
    }
  }
}
layer {
  name: "pool0"
  type: "Pooling"
  bottom: "conv0"
  top: "pool0"
  pooling_param {
    pool: MAX
    kernel_size: 2
    stride: 2
  }
}
layer {
  name: "conv1"
  type: "Convolution"
  bottom: "pool0"
  top: "conv1"
  param {
    lr_mult: 1
  }
  param {
    lr_mult: 2
  }
  convolution_param {
    num_output: 100
    kernel_size: 5
    stride: 1
    weight_filler {
      type: "xavier"
    }
    bias_filler {
      type: "constant"
    }
  }
}
layer {
  name: "pool1"
  type: "Pooling"
  bottom: "conv1"
  top: "pool1"
  pooling_param {
    pool: MAX
    kernel_size: 2
    stride: 2
  }
}
layer {
  name: "ip1"
  type: "InnerProduct"
  bottom: "pool1"
  top: "ip1"
  param {
    lr_mult: 1
  }
  param {
    lr_mult: 2
  }
  inner_product_param {
    num_output: 100
    weight_filler {
      type: "xavier"
    }
    bias_filler {
      type: "constant"
    }
  }
}
layer {
  name: "relu1"
  type: "ReLU"
  bottom: "ip1"
  top: "ip1"
}
layer {
  name: "ip2"
  type: "InnerProduct"
  bottom: "ip1"
  top: "ip2"
  param {
    lr_mult: 1
  }
  param {
    lr_mult: 2
  }
  inner_product_param {
    num_output: 10
    weight_filler {
      type: "xavier"
    }
    bias_filler {
      type: "constant"
    }
  }
}
layer {
  name: "relu2"
  type: "ReLU"
  bottom: "ip2"
  top: "ip2"
}
layer {
  name: "accuracy"
  type: "Accuracy"
  bottom: "ip2"
  bottom: "label"
  top: "accuracy"
  include {
    phase: TEST
  }
}
layer {
  name: "loss"
  type: "SoftmaxWithLoss"
  bottom: "ip2"
  bottom: "label"
  top: "loss"
}
I0415 18:42:09.731822 11379 layer_factory.hpp:77] Creating layer mnist
I0415 18:42:09.732170 11379 net.cpp:91] Creating Layer mnist
I0415 18:42:09.732198 11379 net.cpp:399] mnist -> data
I0415 18:42:09.732244 11379 net.cpp:399] mnist -> label
I0415 18:42:09.735597 11414 db_lmdb.cpp:35] Opened lmdb examples/mnist/mnist_test_lmdb
I0415 18:42:09.736074 11379 data_layer.cpp:41] output data size: 100,1,28,28
I0415 18:42:09.736652 11379 base_data_layer.cpp:69] Initializing prefetch
I0415 18:42:09.736714 11379 base_data_layer.cpp:72] Prefetch initialized.
I0415 18:42:09.736730 11379 net.cpp:141] Setting up mnist
I0415 18:42:09.736745 11379 net.cpp:148] Top shape: 100 1 28 28 (78400)
I0415 18:42:09.736757 11379 net.cpp:148] Top shape: 100 (100)
I0415 18:42:09.736764 11379 net.cpp:156] Memory required for data: 314000
I0415 18:42:09.736779 11379 layer_factory.hpp:77] Creating layer label_mnist_1_split
I0415 18:42:09.736812 11379 net.cpp:91] Creating Layer label_mnist_1_split
I0415 18:42:09.736831 11379 net.cpp:425] label_mnist_1_split <- label
I0415 18:42:09.736861 11379 net.cpp:399] label_mnist_1_split -> label_mnist_1_split_0
I0415 18:42:09.736898 11379 net.cpp:399] label_mnist_1_split -> label_mnist_1_split_1
I0415 18:42:09.736937 11379 net.cpp:141] Setting up label_mnist_1_split
I0415 18:42:09.736958 11379 net.cpp:148] Top shape: 100 (100)
I0415 18:42:09.736970 11379 net.cpp:148] Top shape: 100 (100)
I0415 18:42:09.736977 11379 net.cpp:156] Memory required for data: 314800
I0415 18:42:09.736986 11379 layer_factory.hpp:77] Creating layer conv0
I0415 18:42:09.737023 11379 net.cpp:91] Creating Layer conv0
I0415 18:42:09.737041 11379 net.cpp:425] conv0 <- data
I0415 18:42:09.737074 11379 net.cpp:399] conv0 -> conv0
I0415 18:42:09.737422 11379 net.cpp:141] Setting up conv0
I0415 18:42:09.737447 11379 net.cpp:148] Top shape: 100 100 24 24 (5760000)
I0415 18:42:09.737455 11379 net.cpp:156] Memory required for data: 23354800
I0415 18:42:09.737499 11379 layer_factory.hpp:77] Creating layer pool0
I0415 18:42:09.737532 11379 net.cpp:91] Creating Layer pool0
I0415 18:42:09.737551 11379 net.cpp:425] pool0 <- conv0
I0415 18:42:09.737576 11379 net.cpp:399] pool0 -> pool0
I0415 18:42:09.737613 11379 net.cpp:141] Setting up pool0
I0415 18:42:09.737651 11379 net.cpp:148] Top shape: 100 100 12 12 (1440000)
I0415 18:42:09.737671 11379 net.cpp:156] Memory required for data: 29114800
I0415 18:42:09.737692 11379 layer_factory.hpp:77] Creating layer conv1
I0415 18:42:09.737746 11379 net.cpp:91] Creating Layer conv1
I0415 18:42:09.737783 11379 net.cpp:425] conv1 <- pool0
I0415 18:42:09.737828 11379 net.cpp:399] conv1 -> conv1
I0415 18:42:09.742812 11415 data_layer.cpp:102] Prefetch batch: 3 ms.
I0415 18:42:09.742830 11415 data_layer.cpp:103]      Read time: 1.15 ms.
I0415 18:42:09.742838 11415 data_layer.cpp:104] Transform time: 1.579 ms.
I0415 18:42:09.744482 11415 data_layer.cpp:102] Prefetch batch: 1 ms.
I0415 18:42:09.744493 11415 data_layer.cpp:103]      Read time: 0.169 ms.
I0415 18:42:09.744501 11415 data_layer.cpp:104] Transform time: 1.009 ms.
I0415 18:42:09.746170 11415 data_layer.cpp:102] Prefetch batch: 1 ms.
I0415 18:42:09.746179 11415 data_layer.cpp:103]      Read time: 0.148 ms.
I0415 18:42:09.746188 11415 data_layer.cpp:104] Transform time: 0.98 ms.
I0415 18:42:09.755169 11379 net.cpp:141] Setting up conv1
I0415 18:42:09.755184 11379 net.cpp:148] Top shape: 100 100 8 8 (640000)
I0415 18:42:09.755188 11379 net.cpp:156] Memory required for data: 31674800
I0415 18:42:09.755211 11379 layer_factory.hpp:77] Creating layer pool1
I0415 18:42:09.755228 11379 net.cpp:91] Creating Layer pool1
I0415 18:42:09.755236 11379 net.cpp:425] pool1 <- conv1
I0415 18:42:09.755252 11379 net.cpp:399] pool1 -> pool1
I0415 18:42:09.755278 11379 net.cpp:141] Setting up pool1
I0415 18:42:09.755288 11379 net.cpp:148] Top shape: 100 100 4 4 (160000)
I0415 18:42:09.755293 11379 net.cpp:156] Memory required for data: 32314800
I0415 18:42:09.755300 11379 layer_factory.hpp:77] Creating layer ip1
I0415 18:42:09.755318 11379 net.cpp:91] Creating Layer ip1
I0415 18:42:09.755326 11379 net.cpp:425] ip1 <- pool1
I0415 18:42:09.755343 11379 net.cpp:399] ip1 -> ip1
I0415 18:42:09.764014 11379 net.cpp:141] Setting up ip1
I0415 18:42:09.764027 11379 net.cpp:148] Top shape: 100 100 (10000)
I0415 18:42:09.764031 11379 net.cpp:156] Memory required for data: 32354800
I0415 18:42:09.764053 11379 layer_factory.hpp:77] Creating layer relu1
I0415 18:42:09.764072 11379 net.cpp:91] Creating Layer relu1
I0415 18:42:09.764081 11379 net.cpp:425] relu1 <- ip1
I0415 18:42:09.764096 11379 net.cpp:386] relu1 -> ip1 (in-place)
I0415 18:42:09.764111 11379 net.cpp:141] Setting up relu1
I0415 18:42:09.764119 11379 net.cpp:148] Top shape: 100 100 (10000)
I0415 18:42:09.764123 11379 net.cpp:156] Memory required for data: 32394800
I0415 18:42:09.764129 11379 layer_factory.hpp:77] Creating layer ip2
I0415 18:42:09.764147 11379 net.cpp:91] Creating Layer ip2
I0415 18:42:09.764155 11379 net.cpp:425] ip2 <- ip1
I0415 18:42:09.764174 11379 net.cpp:399] ip2 -> ip2
I0415 18:42:09.764292 11379 net.cpp:141] Setting up ip2
I0415 18:42:09.764303 11379 net.cpp:148] Top shape: 100 10 (1000)
I0415 18:42:09.764307 11379 net.cpp:156] Memory required for data: 32398800
I0415 18:42:09.764320 11379 layer_factory.hpp:77] Creating layer relu2
I0415 18:42:09.764333 11379 net.cpp:91] Creating Layer relu2
I0415 18:42:09.764339 11379 net.cpp:425] relu2 <- ip2
I0415 18:42:09.764353 11379 net.cpp:386] relu2 -> ip2 (in-place)
I0415 18:42:09.764366 11379 net.cpp:141] Setting up relu2
I0415 18:42:09.764374 11379 net.cpp:148] Top shape: 100 10 (1000)
I0415 18:42:09.764379 11379 net.cpp:156] Memory required for data: 32402800
I0415 18:42:09.764389 11379 layer_factory.hpp:77] Creating layer ip2_relu2_0_split
I0415 18:42:09.764415 11379 net.cpp:91] Creating Layer ip2_relu2_0_split
I0415 18:42:09.764422 11379 net.cpp:425] ip2_relu2_0_split <- ip2
I0415 18:42:09.764439 11379 net.cpp:399] ip2_relu2_0_split -> ip2_relu2_0_split_0
I0415 18:42:09.764456 11379 net.cpp:399] ip2_relu2_0_split -> ip2_relu2_0_split_1
I0415 18:42:09.764487 11379 net.cpp:141] Setting up ip2_relu2_0_split
I0415 18:42:09.764494 11379 net.cpp:148] Top shape: 100 10 (1000)
I0415 18:42:09.764500 11379 net.cpp:148] Top shape: 100 10 (1000)
I0415 18:42:09.764505 11379 net.cpp:156] Memory required for data: 32410800
I0415 18:42:09.764511 11379 layer_factory.hpp:77] Creating layer accuracy
I0415 18:42:09.764541 11379 net.cpp:91] Creating Layer accuracy
I0415 18:42:09.764549 11379 net.cpp:425] accuracy <- ip2_relu2_0_split_0
I0415 18:42:09.764561 11379 net.cpp:425] accuracy <- label_mnist_1_split_0
I0415 18:42:09.764576 11379 net.cpp:399] accuracy -> accuracy
…
