…
I0425 15:24:52.258940 20186 net.cpp:313] The NetState phase (0) differed from the phase (1) specified by a rule in layer mnist
I0425 15:24:52.259790 20186 net.cpp:313] The NetState phase (0) differed from the phase (1) specified by a rule in layer accuracy
I0425 15:24:52.260399 20186 net.cpp:49] Initializing net from parameters: 
name: "LeNet"
state {
  phase: TRAIN
}
layer {
  name: "mnist"
  type: "Data"
  top: "data"
  top: "label"
  include {
    phase: TRAIN
  }
  transform_param {
    scale: 0.00390625
  }
  data_param {
    source: "examples/mnist/mnist_train_lmdb"
    batch_size: 64
    backend: LMDB
  }
}
layer {
  name: "conv0"
  type: "Convolution"
  bottom: "data"
  top: "conv0"
  param {
    lr_mult: 1
  }
  param {
    lr_mult: 2
  }
  convolution_param {
    num_output: 10
    kernel_size: 5
    stride: 1
    weight_filler {
      type: "xavier"
    }
    bias_filler {
      type: "constant"
    }
  }
}
layer {
  name: "pool0"
  type: "Pooling"
  bottom: "conv0"
  top: "pool0"
  pooling_param {
    pool: MAX
    kernel_size: 2
    stride: 2
  }
}
layer {
  name: "conv1"
  type: "Convolution"
  bottom: "pool0"
  top: "conv1"
  param {
    lr_mult: 1
  }
  param {
    lr_mult: 2
  }
  convolution_param {
    num_output: 10
    kernel_size: 5
    stride: 1
    weight_filler {
      type: "xavier"
    }
    bias_filler {
      type: "constant"
    }
  }
}
layer {
  name: "pool1"
  type: "Pooling"
  bottom: "conv1"
  top: "pool1"
  pooling_param {
    pool: MAX
    kernel_size: 2
    stride: 2
  }
}
layer {
  name: "ip1"
  type: "InnerProduct"
  bottom: "pool1"
  top: "ip1"
  param {
    lr_mult: 1
  }
  param {
    lr_mult: 2
  }
  inner_product_param {
    num_output: 100
    weight_filler {
      type: "xavier"
    }
    bias_filler {
      type: "constant"
    }
  }
}
layer {
  name: "relu1"
  type: "ReLU"
  bottom: "ip1"
  top: "ip1"
}
layer {
  name: "ip2"
  type: "InnerProduct"
  bottom: "ip1"
  top: "ip2"
  param {
    lr_mult: 1
  }
  param {
    lr_mult: 2
  }
  inner_product_param {
    num_output: 10
    weight_filler {
      type: "xavier"
    }
    bias_filler {
      type: "constant"
    }
  }
}
layer {
  name: "relu2"
  type: "ReLU"
  bottom: "ip2"
  top: "ip2"
}
layer {
  name: "loss"
  type: "SoftmaxWithLoss"
  bottom: "ip2"
  bottom: "label"
  top: "loss"
}
I0425 15:24:52.262292 20186 layer_factory.hpp:77] Creating layer mnist
I0425 15:24:52.266661 20186 net.cpp:91] Creating Layer mnist
I0425 15:24:52.270051 20186 net.cpp:399] mnist -> data
I0425 15:24:52.270460 20186 net.cpp:399] mnist -> label
I0425 15:24:52.273099 20219 db_lmdb.cpp:35] Opened lmdb examples/mnist/mnist_train_lmdb
I0425 15:24:52.273998 20186 data_layer.cpp:41] output data size: 64,1,28,28
I0425 15:24:52.274837 20186 base_data_layer.cpp:69] Initializing prefetch
I0425 15:24:52.274992 20186 base_data_layer.cpp:72] Prefetch initialized.
I0425 15:24:52.275032 20186 net.cpp:141] Setting up mnist
I0425 15:24:52.275115 20186 net.cpp:148] Top shape: 64 1 28 28 (50176)
I0425 15:24:52.275161 20186 net.cpp:148] Top shape: 64 (64)
I0425 15:24:52.275190 20186 net.cpp:156] Memory required for data: 200960
I0425 15:24:52.275254 20186 layer_factory.hpp:77] Creating layer conv0
I0425 15:24:52.275379 20186 net.cpp:91] Creating Layer conv0
I0425 15:24:52.275434 20186 net.cpp:425] conv0 <- data
I0425 15:24:52.275563 20186 net.cpp:399] conv0 -> conv0
I0425 15:24:52.276118 20186 net.cpp:141] Setting up conv0
I0425 15:24:52.276175 20186 net.cpp:148] Top shape: 64 10 24 24 (368640)
I0425 15:24:52.276204 20186 net.cpp:156] Memory required for data: 1675520
I0425 15:24:52.276403 20186 layer_factory.hpp:77] Creating layer pool0
I0425 15:24:52.276492 20186 net.cpp:91] Creating Layer pool0
I0425 15:24:52.276533 20186 net.cpp:425] pool0 <- conv0
I0425 15:24:52.276648 20186 net.cpp:399] pool0 -> pool0
I0425 15:24:52.276795 20186 net.cpp:141] Setting up pool0
I0425 15:24:52.276847 20186 net.cpp:148] Top shape: 64 10 12 12 (92160)
I0425 15:24:52.276882 20186 net.cpp:156] Memory required for data: 2044160
I0425 15:24:52.276921 20186 layer_factory.hpp:77] Creating layer conv1
I0425 15:24:52.277009 20186 net.cpp:91] Creating Layer conv1
I0425 15:24:52.277053 20186 net.cpp:425] conv1 <- pool0
I0425 15:24:52.277137 20186 net.cpp:399] conv1 -> conv1
I0425 15:24:52.278046 20186 net.cpp:141] Setting up conv1
I0425 15:24:52.278101 20186 net.cpp:148] Top shape: 64 10 8 8 (40960)
I0425 15:24:52.278131 20186 net.cpp:156] Memory required for data: 2208000
I0425 15:24:52.278236 20186 layer_factory.hpp:77] Creating layer pool1
I0425 15:24:52.278312 20186 net.cpp:91] Creating Layer pool1
I0425 15:24:52.278347 20186 net.cpp:425] pool1 <- conv1
I0425 15:24:52.278414 20186 net.cpp:399] pool1 -> pool1
I0425 15:24:52.278518 20186 net.cpp:141] Setting up pool1
I0425 15:24:52.278565 20186 net.cpp:148] Top shape: 64 10 4 4 (10240)
I0425 15:24:52.278595 20186 net.cpp:156] Memory required for data: 2248960
I0425 15:24:52.278647 20186 layer_factory.hpp:77] Creating layer ip1
I0425 15:24:52.278728 20186 net.cpp:91] Creating Layer ip1
I0425 15:24:52.278769 20186 net.cpp:425] ip1 <- pool1
I0425 15:24:52.281139 20186 net.cpp:399] ip1 -> ip1
I0425 15:24:52.283671 20220 data_layer.cpp:102] Prefetch batch: 5 ms.
I0425 15:24:52.287686 20220 data_layer.cpp:103]      Read time: 0.55 ms.
I0425 15:24:52.287806 20220 data_layer.cpp:104] Transform time: 3.034 ms.
I0425 15:24:52.285488 20186 net.cpp:141] Setting up ip1
I0425 15:24:52.289130 20186 net.cpp:148] Top shape: 64 100 (6400)
I0425 15:24:52.289222 20186 net.cpp:156] Memory required for data: 2274560
I0425 15:24:52.289366 20186 layer_factory.hpp:77] Creating layer relu1
I0425 15:24:52.289561 20186 net.cpp:91] Creating Layer relu1
I0425 15:24:52.289710 20186 net.cpp:425] relu1 <- ip1
I0425 15:24:52.289842 20186 net.cpp:386] relu1 -> ip1 (in-place)
I0425 15:24:52.290012 20186 net.cpp:141] Setting up relu1
I0425 15:24:52.290154 20186 net.cpp:148] Top shape: 64 100 (6400)
I0425 15:24:52.290238 20186 net.cpp:156] Memory required for data: 2300160
I0425 15:24:52.290315 20186 layer_factory.hpp:77] Creating layer ip2
I0425 15:24:52.290441 20186 net.cpp:91] Creating Layer ip2
I0425 15:24:52.290565 20186 net.cpp:425] ip2 <- ip1
I0425 15:24:52.290722 20186 net.cpp:399] ip2 -> ip2
I0425 15:24:52.291260 20186 net.cpp:141] Setting up ip2
I0425 15:24:52.291775 20186 net.cpp:148] Top shape: 64 10 (640)
I0425 15:24:52.291868 20186 net.cpp:156] Memory required for data: 2302720
I0425 15:24:52.291987 20186 layer_factory.hpp:77] Creating layer relu2
I0425 15:24:52.292150 20186 net.cpp:91] Creating Layer relu2
I0425 15:24:52.292276 20186 net.cpp:425] relu2 <- ip2
I0425 15:24:52.292399 20186 net.cpp:386] relu2 -> ip2 (in-place)
I0425 15:24:52.292560 20186 net.cpp:141] Setting up relu2
I0425 15:24:52.292706 20186 net.cpp:148] Top shape: 64 10 (640)
I0425 15:24:52.292788 20186 net.cpp:156] Memory required for data: 2305280
I0425 15:24:52.292867 20186 layer_factory.hpp:77] Creating layer loss
I0425 15:24:52.292994 20186 net.cpp:91] Creating Layer loss
I0425 15:24:52.293125 20186 net.cpp:425] loss <- ip2
I0425 15:24:52.293241 20186 net.cpp:425] loss <- label
I0425 15:24:52.293396 20186 net.cpp:399] loss -> loss
I0425 15:24:52.293759 20186 layer_factory.hpp:77] Creating layer loss
…
I0425 15:24:52.297931 20186 solver.cpp:181] Creating test net (#0) specified by net file: ECE595/mnist/train_test/var_num_feature/lenet_train_test_featuresize10.prototxt
I0425 15:24:52.299509 20186 net.cpp:313] The NetState phase (1) differed from the phase (0) specified by a rule in layer mnist
I0425 15:24:52.300359 20186 net.cpp:49] Initializing net from parameters: 
name: "LeNet"
state {
  phase: TEST
}
layer {
  name: "mnist"
  type: "Data"
  top: "data"
  top: "label"
  include {
    phase: TEST
  }
  transform_param {
    scale: 0.00390625
  }
  data_param {
    source: "examples/mnist/mnist_test_lmdb"
    batch_size: 100
    backend: LMDB
  }
}
layer {
  name: "conv0"
  type: "Convolution"
  bottom: "data"
  top: "conv0"
  param {
    lr_mult: 1
  }
  param {
    lr_mult: 2
  }
  convolution_param {
    num_output: 10
    kernel_size: 5
    stride: 1
    weight_filler {
      type: "xavier"
    }
    bias_filler {
      type: "constant"
    }
  }
}
layer {
  name: "pool0"
  type: "Pooling"
  bottom: "conv0"
  top: "pool0"
  pooling_param {
    pool: MAX
    kernel_size: 2
    stride: 2
  }
}
layer {
  name: "conv1"
  type: "Convolution"
  bottom: "pool0"
  top: "conv1"
  param {
    lr_mult: 1
  }
  param {
    lr_mult: 2
  }
  convolution_param {
    num_output: 10
    kernel_size: 5
    stride: 1
    weight_filler {
      type: "xavier"
    }
    bias_filler {
      type: "constant"
    }
  }
}
layer {
  name: "pool1"
  type: "Pooling"
  bottom: "conv1"
  top: "pool1"
  pooling_param {
    pool: MAX
    kernel_size: 2
    stride: 2
  }
}
layer {
  name: "ip1"
  type: "InnerProduct"
  bottom: "pool1"
  top: "ip1"
  param {
    lr_mult: 1
  }
  param {
    lr_mult: 2
  }
  inner_product_param {
    num_output: 100
    weight_filler {
      type: "xavier"
    }
    bias_filler {
      type: "constant"
    }
  }
}
layer {
  name: "relu1"
  type: "ReLU"
  bottom: "ip1"
  top: "ip1"
}
layer {
  name: "ip2"
  type: "InnerProduct"
  bottom: "ip1"
  top: "ip2"
  param {
    lr_mult: 1
  }
  param {
    lr_mult: 2
  }
  inner_product_param {
    num_output: 10
    weight_filler {
      type: "xavier"
    }
    bias_filler {
      type: "constant"
    }
  }
}
layer {
  name: "relu2"
  type: "ReLU"
  bottom: "ip2"
  top: "ip2"
}
layer {
  name: "accuracy"
  type: "Accuracy"
  bottom: "ip2"
  bottom: "label"
  top: "accuracy"
  include {
    phase: TEST
  }
}
layer {
  name: "loss"
  type: "SoftmaxWithLoss"
  bottom: "ip2"
  bottom: "label"
  top: "loss"
}
I0425 15:24:52.302212 20186 layer_factory.hpp:77] Creating layer mnist
I0425 15:24:52.306308 20186 net.cpp:91] Creating Layer mnist
I0425 15:24:52.306457 20186 net.cpp:399] mnist -> data
I0425 15:24:52.302225 20220 data_layer.cpp:102] Prefetch batch: 4 ms.
I0425 15:24:52.306635 20220 data_layer.cpp:103]      Read time: 0.548 ms.
I0425 15:24:52.306710 20220 data_layer.cpp:104] Transform time: 2.66 ms.
I0425 15:24:52.306784 20186 net.cpp:399] mnist -> label
I0425 15:24:52.308292 20221 db_lmdb.cpp:35] Opened lmdb examples/mnist/mnist_test_lmdb
I0425 15:24:52.308831 20186 data_layer.cpp:41] output data size: 100,1,28,28
I0425 15:24:52.310014 20186 base_data_layer.cpp:69] Initializing prefetch
I0425 15:24:52.310144 20186 base_data_layer.cpp:72] Prefetch initialized.
I0425 15:24:52.310178 20186 net.cpp:141] Setting up mnist
I0425 15:24:52.310222 20186 net.cpp:148] Top shape: 100 1 28 28 (78400)
I0425 15:24:52.310263 20186 net.cpp:148] Top shape: 100 (100)
I0425 15:24:52.310292 20186 net.cpp:156] Memory required for data: 314000
I0425 15:24:52.310343 20186 layer_factory.hpp:77] Creating layer label_mnist_1_split
I0425 15:24:52.310432 20186 net.cpp:91] Creating Layer label_mnist_1_split
I0425 15:24:52.310479 20186 net.cpp:425] label_mnist_1_split <- label
I0425 15:24:52.310550 20186 net.cpp:399] label_mnist_1_split -> label_mnist_1_split_0
I0425 15:24:52.310650 20186 net.cpp:399] label_mnist_1_split -> label_mnist_1_split_1
I0425 15:24:52.310742 20186 net.cpp:141] Setting up label_mnist_1_split
I0425 15:24:52.311189 20186 net.cpp:148] Top shape: 100 (100)
I0425 15:24:52.311298 20186 net.cpp:148] Top shape: 100 (100)
I0425 15:24:52.311389 20186 net.cpp:156] Memory required for data: 314800
I0425 15:24:52.311470 20186 layer_factory.hpp:77] Creating layer conv0
I0425 15:24:52.311758 20186 net.cpp:91] Creating Layer conv0
I0425 15:24:52.311877 20186 net.cpp:425] conv0 <- data
I0425 15:24:52.312042 20186 net.cpp:399] conv0 -> conv0
I0425 15:24:52.312549 20186 net.cpp:141] Setting up conv0
I0425 15:24:52.313033 20186 net.cpp:148] Top shape: 100 10 24 24 (576000)
I0425 15:24:52.313136 20186 net.cpp:156] Memory required for data: 2618800
I0425 15:24:52.313311 20186 layer_factory.hpp:77] Creating layer pool0
I0425 15:24:52.313539 20186 net.cpp:91] Creating Layer pool0
I0425 15:24:52.313683 20186 net.cpp:425] pool0 <- conv0
I0425 15:24:52.313832 20186 net.cpp:399] pool0 -> pool0
I0425 15:24:52.314072 20186 net.cpp:141] Setting up pool0
I0425 15:24:52.314275 20186 net.cpp:148] Top shape: 100 10 12 12 (144000)
I0425 15:24:52.314370 20186 net.cpp:156] Memory required for data: 3194800
I0425 15:24:52.314460 20186 layer_factory.hpp:77] Creating layer conv1
I0425 15:24:52.314745 20186 net.cpp:91] Creating Layer conv1
I0425 15:24:52.314841 20186 net.cpp:425] conv1 <- pool0
I0425 15:24:52.315003 20186 net.cpp:399] conv1 -> conv1
I0425 15:24:52.316506 20186 net.cpp:141] Setting up conv1
I0425 15:24:52.317005 20186 net.cpp:148] Top shape: 100 10 8 8 (64000)
I0425 15:24:52.317096 20186 net.cpp:156] Memory required for data: 3450800
I0425 15:24:52.317240 20186 layer_factory.hpp:77] Creating layer pool1
I0425 15:24:52.317430 20186 net.cpp:91] Creating Layer pool1
I0425 15:24:52.317555 20186 net.cpp:425] pool1 <- conv1
I0425 15:24:52.317705 20186 net.cpp:399] pool1 -> pool1
I0425 15:24:52.317924 20186 net.cpp:141] Setting up pool1
I0425 15:24:52.318106 20186 net.cpp:148] Top shape: 100 10 4 4 (16000)
I0425 15:24:52.318192 20186 net.cpp:156] Memory required for data: 3514800
I0425 15:24:52.318267 20186 layer_factory.hpp:77] Creating layer ip1
I0425 15:24:52.318398 20186 net.cpp:91] Creating Layer ip1
I0425 15:24:52.318533 20186 net.cpp:425] ip1 <- pool1
I0425 15:24:52.318713 20186 net.cpp:399] ip1 -> ip1
I0425 15:24:52.323508 20186 net.cpp:141] Setting up ip1
I0425 15:24:52.326747 20186 net.cpp:148] Top shape: 100 100 (10000)
I0425 15:24:52.326875 20186 net.cpp:156] Memory required for data: 3554800
I0425 15:24:52.326647 20222 data_layer.cpp:102] Prefetch batch: 13 ms.
I0425 15:24:52.327064 20222 data_layer.cpp:103]      Read time: 0.872 ms.
I0425 15:24:52.327024 20186 layer_factory.hpp:77] Creating layer relu1
I0425 15:24:52.327175 20222 data_layer.cpp:104] Transform time: 4.208 ms.
I0425 15:24:52.327260 20186 net.cpp:91] Creating Layer relu1
I0425 15:24:52.327391 20186 net.cpp:425] relu1 <- ip1
I0425 15:24:52.327512 20186 net.cpp:386] relu1 -> ip1 (in-place)
I0425 15:24:52.327706 20186 net.cpp:141] Setting up relu1
I0425 15:24:52.327862 20186 net.cpp:148] Top shape: 100 100 (10000)
I0425 15:24:52.327942 20186 net.cpp:156] Memory required for data: 3594800
I0425 15:24:52.328018 20186 layer_factory.hpp:77] Creating layer ip2
I0425 15:24:52.328168 20186 net.cpp:91] Creating Layer ip2
I0425 15:24:52.328346 20186 net.cpp:425] ip2 <- ip1
I0425 15:24:52.328493 20186 net.cpp:399] ip2 -> ip2
I0425 15:24:52.329061 20186 net.cpp:141] Setting up ip2
I0425 15:24:52.329571 20186 net.cpp:148] Top shape: 100 10 (1000)
I0425 15:24:52.329675 20186 net.cpp:156] Memory required for data: 3598800
I0425 15:24:52.329792 20186 layer_factory.hpp:77] Creating layer relu2
I0425 15:24:52.329949 20186 net.cpp:91] Creating Layer relu2
I0425 15:24:52.330075 20186 net.cpp:425] relu2 <- ip2
I0425 15:24:52.330196 20186 net.cpp:386] relu2 -> ip2 (in-place)
I0425 15:24:52.330361 20186 net.cpp:141] Setting up relu2
I0425 15:24:52.330487 20186 net.cpp:148] Top shape: 100 10 (1000)
I0425 15:24:52.330565 20186 net.cpp:156] Memory required for data: 3602800
I0425 15:24:52.330662 20186 layer_factory.hpp:77] Creating layer ip2_relu2_0_split
I0425 15:24:52.330770 20186 net.cpp:91] Creating Layer ip2_relu2_0_split
I0425 15:24:52.330880 20186 net.cpp:425] ip2_relu2_0_split <- ip2
I0425 15:24:52.331013 20186 net.cpp:399] ip2_relu2_0_split -> ip2_relu2_0_split_0
I0425 15:24:52.331194 20186 net.cpp:399] ip2_relu2_0_split -> ip2_relu2_0_split_1
I0425 15:24:52.331380 20186 net.cpp:141] Setting up ip2_relu2_0_split
I0425 15:24:52.331537 20186 net.cpp:148] Top shape: 100 10 (1000)
I0425 15:24:52.331655 20186 net.cpp:148] Top shape: 100 10 (1000)
I0425 15:24:52.331742 20186 net.cpp:156] Memory required for data: 3610800
I0425 15:24:52.331820 20186 layer_factory.hpp:77] Creating layer accuracy
I0425 15:24:52.331954 20186 net.cpp:91] Creating Layer accuracy
I0425 15:24:52.332087 20186 net.cpp:425] accuracy <- ip2_relu2_0_split_0
I0425 15:24:52.332201 20186 net.cpp:425] accuracy <- label_mnist_1_split_0
I0425 15:24:52.332356 20186 net.cpp:399] accuracy -> accuracy
…
