…
I0425 15:26:50.815239 20249 net.cpp:313] The NetState phase (0) differed from the phase (1) specified by a rule in layer mnist
I0425 15:26:50.815292 20249 net.cpp:313] The NetState phase (0) differed from the phase (1) specified by a rule in layer accuracy
I0425 15:26:50.815459 20249 net.cpp:49] Initializing net from parameters: 
name: "LeNet"
state {
  phase: TRAIN
}
layer {
  name: "mnist"
  type: "Data"
  top: "data"
  top: "label"
  include {
    phase: TRAIN
  }
  transform_param {
    scale: 0.00390625
  }
  data_param {
    source: "examples/mnist/mnist_train_lmdb"
    batch_size: 64
    backend: LMDB
  }
}
layer {
  name: "conv0"
  type: "Convolution"
  bottom: "data"
  top: "conv0"
  param {
    lr_mult: 1
  }
  param {
    lr_mult: 2
  }
  convolution_param {
    num_output: 25
    kernel_size: 5
    stride: 1
    weight_filler {
      type: "xavier"
    }
    bias_filler {
      type: "constant"
    }
  }
}
layer {
  name: "pool0"
  type: "Pooling"
  bottom: "conv0"
  top: "pool0"
  pooling_param {
    pool: MAX
    kernel_size: 2
    stride: 2
  }
}
layer {
  name: "conv1"
  type: "Convolution"
  bottom: "pool0"
  top: "conv1"
  param {
    lr_mult: 1
  }
  param {
    lr_mult: 2
  }
  convolution_param {
    num_output: 25
    kernel_size: 5
    stride: 1
    weight_filler {
      type: "xavier"
    }
    bias_filler {
      type: "constant"
    }
  }
}
layer {
  name: "pool1"
  type: "Pooling"
  bottom: "conv1"
  top: "pool1"
  pooling_param {
    pool: MAX
    kernel_size: 2
    stride: 2
  }
}
layer {
  name: "ip1"
  type: "InnerProduct"
  bottom: "pool1"
  top: "ip1"
  param {
    lr_mult: 1
  }
  param {
    lr_mult: 2
  }
  inner_product_param {
    num_output: 100
    weight_filler {
      type: "xavier"
    }
    bias_filler {
      type: "constant"
    }
  }
}
layer {
  name: "relu1"
  type: "ReLU"
  bottom: "ip1"
  top: "ip1"
}
layer {
  name: "ip2"
  type: "InnerProduct"
  bottom: "ip1"
  top: "ip2"
  param {
    lr_mult: 1
  }
  param {
    lr_mult: 2
  }
  inner_product_param {
    num_output: 10
    weight_filler {
      type: "xavier"
    }
    bias_filler {
      type: "constant"
    }
  }
}
layer {
  name: "relu2"
  type: "ReLU"
  bottom: "ip2"
  top: "ip2"
}
layer {
  name: "loss"
  type: "SoftmaxWithLoss"
  bottom: "ip2"
  bottom: "label"
  top: "loss"
}
I0425 15:26:50.815987 20249 layer_factory.hpp:77] Creating layer mnist
I0425 15:26:50.817327 20249 net.cpp:91] Creating Layer mnist
I0425 15:26:50.817369 20249 net.cpp:399] mnist -> data
I0425 15:26:50.817497 20249 net.cpp:399] mnist -> label
I0425 15:26:50.820919 20282 db_lmdb.cpp:35] Opened lmdb examples/mnist/mnist_train_lmdb
I0425 15:26:50.821591 20249 data_layer.cpp:41] output data size: 64,1,28,28
I0425 15:26:50.822024 20249 base_data_layer.cpp:69] Initializing prefetch
I0425 15:26:50.822085 20249 base_data_layer.cpp:72] Prefetch initialized.
I0425 15:26:50.822103 20249 net.cpp:141] Setting up mnist
I0425 15:26:50.822135 20249 net.cpp:148] Top shape: 64 1 28 28 (50176)
I0425 15:26:50.822155 20249 net.cpp:148] Top shape: 64 (64)
I0425 15:26:50.822165 20249 net.cpp:156] Memory required for data: 200960
I0425 15:26:50.822186 20249 layer_factory.hpp:77] Creating layer conv0
I0425 15:26:50.822238 20249 net.cpp:91] Creating Layer conv0
I0425 15:26:50.822263 20249 net.cpp:425] conv0 <- data
I0425 15:26:50.822309 20249 net.cpp:399] conv0 -> conv0
I0425 15:26:50.822569 20249 net.cpp:141] Setting up conv0
I0425 15:26:50.822593 20249 net.cpp:148] Top shape: 64 25 24 24 (921600)
I0425 15:26:50.822600 20249 net.cpp:156] Memory required for data: 3887360
I0425 15:26:50.822671 20249 layer_factory.hpp:77] Creating layer pool0
I0425 15:26:50.822707 20249 net.cpp:91] Creating Layer pool0
I0425 15:26:50.822726 20249 net.cpp:425] pool0 <- conv0
I0425 15:26:50.822762 20249 net.cpp:399] pool0 -> pool0
I0425 15:26:50.822847 20249 net.cpp:141] Setting up pool0
I0425 15:26:50.822878 20249 net.cpp:148] Top shape: 64 25 12 12 (230400)
I0425 15:26:50.822896 20249 net.cpp:156] Memory required for data: 4808960
I0425 15:26:50.822916 20249 layer_factory.hpp:77] Creating layer conv1
I0425 15:26:50.822957 20249 net.cpp:91] Creating Layer conv1
I0425 15:26:50.822981 20249 net.cpp:425] conv1 <- pool0
I0425 15:26:50.823022 20249 net.cpp:399] conv1 -> conv1
I0425 15:26:50.824529 20249 net.cpp:141] Setting up conv1
I0425 15:26:50.824563 20249 net.cpp:148] Top shape: 64 25 8 8 (102400)
I0425 15:26:50.824581 20249 net.cpp:156] Memory required for data: 5218560
I0425 15:26:50.824627 20249 layer_factory.hpp:77] Creating layer pool1
I0425 15:26:50.824671 20249 net.cpp:91] Creating Layer pool1
I0425 15:26:50.824694 20249 net.cpp:425] pool1 <- conv1
I0425 15:26:50.824733 20249 net.cpp:399] pool1 -> pool1
I0425 15:26:50.824790 20249 net.cpp:141] Setting up pool1
I0425 15:26:50.824817 20249 net.cpp:148] Top shape: 64 25 4 4 (25600)
I0425 15:26:50.824834 20249 net.cpp:156] Memory required for data: 5320960
I0425 15:26:50.824856 20249 layer_factory.hpp:77] Creating layer ip1
I0425 15:26:50.824894 20249 net.cpp:91] Creating Layer ip1
I0425 15:26:50.824918 20249 net.cpp:425] ip1 <- pool1
I0425 15:26:50.824959 20249 net.cpp:399] ip1 -> ip1
I0425 15:26:50.826510 20283 data_layer.cpp:102] Prefetch batch: 1 ms.
I0425 15:26:50.828358 20283 data_layer.cpp:103]      Read time: 0.213 ms.
I0425 15:26:50.828404 20283 data_layer.cpp:104] Transform time: 1.045 ms.
I0425 15:26:50.828666 20249 net.cpp:141] Setting up ip1
I0425 15:26:50.828711 20249 net.cpp:148] Top shape: 64 100 (6400)
I0425 15:26:50.828732 20249 net.cpp:156] Memory required for data: 5346560
I0425 15:26:50.828778 20249 layer_factory.hpp:77] Creating layer relu1
I0425 15:26:50.828814 20249 net.cpp:91] Creating Layer relu1
I0425 15:26:50.828836 20249 net.cpp:425] relu1 <- ip1
I0425 15:26:50.828871 20249 net.cpp:386] relu1 -> ip1 (in-place)
I0425 15:26:50.828907 20249 net.cpp:141] Setting up relu1
I0425 15:26:50.828933 20249 net.cpp:148] Top shape: 64 100 (6400)
I0425 15:26:50.828948 20249 net.cpp:156] Memory required for data: 5372160
I0425 15:26:50.828969 20249 layer_factory.hpp:77] Creating layer ip2
I0425 15:26:50.829000 20249 net.cpp:91] Creating Layer ip2
I0425 15:26:50.829021 20249 net.cpp:425] ip2 <- ip1
I0425 15:26:50.829059 20249 net.cpp:399] ip2 -> ip2
I0425 15:26:50.829221 20249 net.cpp:141] Setting up ip2
I0425 15:26:50.829248 20249 net.cpp:148] Top shape: 64 10 (640)
I0425 15:26:50.829265 20249 net.cpp:156] Memory required for data: 5374720
I0425 15:26:50.829299 20249 layer_factory.hpp:77] Creating layer relu2
I0425 15:26:50.829332 20249 net.cpp:91] Creating Layer relu2
I0425 15:26:50.829355 20249 net.cpp:425] relu2 <- ip2
I0425 15:26:50.829391 20249 net.cpp:386] relu2 -> ip2 (in-place)
I0425 15:26:50.829424 20249 net.cpp:141] Setting up relu2
I0425 15:26:50.829447 20249 net.cpp:148] Top shape: 64 10 (640)
I0425 15:26:50.829466 20249 net.cpp:156] Memory required for data: 5377280
I0425 15:26:50.829490 20249 layer_factory.hpp:77] Creating layer loss
I0425 15:26:50.829525 20249 net.cpp:91] Creating Layer loss
I0425 15:26:50.829547 20249 net.cpp:425] loss <- ip2
I0425 15:26:50.829576 20249 net.cpp:425] loss <- label
I0425 15:26:50.829609 20249 net.cpp:399] loss -> loss
I0425 15:26:50.829664 20249 layer_factory.hpp:77] Creating layer loss
…
I0425 15:26:50.830992 20249 solver.cpp:181] Creating test net (#0) specified by net file: ECE595/mnist/train_test/var_num_feature/lenet_train_test_featuresize25.prototxt
I0425 15:26:50.831101 20249 net.cpp:313] The NetState phase (1) differed from the phase (0) specified by a rule in layer mnist
I0425 15:26:50.831329 20249 net.cpp:49] Initializing net from parameters: 
name: "LeNet"
state {
  phase: TEST
}
layer {
  name: "mnist"
  type: "Data"
  top: "data"
  top: "label"
  include {
    phase: TEST
  }
  transform_param {
    scale: 0.00390625
  }
  data_param {
    source: "examples/mnist/mnist_test_lmdb"
    batch_size: 100
    backend: LMDB
  }
}
layer {
  name: "conv0"
  type: "Convolution"
  bottom: "data"
  top: "conv0"
  param {
    lr_mult: 1
  }
  param {
    lr_mult: 2
  }
  convolution_param {
    num_output: 25
    kernel_size: 5
    stride: 1
    weight_filler {
      type: "xavier"
    }
    bias_filler {
      type: "constant"
    }
  }
}
layer {
  name: "pool0"
  type: "Pooling"
  bottom: "conv0"
  top: "pool0"
  pooling_param {
    pool: MAX
    kernel_size: 2
    stride: 2
  }
}
layer {
  name: "conv1"
  type: "Convolution"
  bottom: "pool0"
  top: "conv1"
  param {
    lr_mult: 1
  }
  param {
    lr_mult: 2
  }
  convolution_param {
    num_output: 25
    kernel_size: 5
    stride: 1
    weight_filler {
      type: "xavier"
    }
    bias_filler {
      type: "constant"
    }
  }
}
layer {
  name: "pool1"
  type: "Pooling"
  bottom: "conv1"
  top: "pool1"
  pooling_param {
    pool: MAX
    kernel_size: 2
    stride: 2
  }
}
layer {
  name: "ip1"
  type: "InnerProduct"
  bottom: "pool1"
  top: "ip1"
  param {
    lr_mult: 1
  }
  param {
    lr_mult: 2
  }
  inner_product_param {
    num_output: 100
    weight_filler {
      type: "xavier"
    }
    bias_filler {
      type: "constant"
    }
  }
}
layer {
  name: "relu1"
  type: "ReLU"
  bottom: "ip1"
  top: "ip1"
}
layer {
  name: "ip2"
  type: "InnerProduct"
  bottom: "ip1"
  top: "ip2"
  param {
    lr_mult: 1
  }
  param {
    lr_mult: 2
  }
  inner_product_param {
    num_output: 10
    weight_filler {
      type: "xavier"
    }
    bias_filler {
      type: "constant"
    }
  }
}
layer {
  name: "relu2"
  type: "ReLU"
  bottom: "ip2"
  top: "ip2"
}
layer {
  name: "accuracy"
  type: "Accuracy"
  bottom: "ip2"
  bottom: "label"
  top: "accuracy"
  include {
    phase: TEST
  }
}
layer {
  name: "loss"
  type: "SoftmaxWithLoss"
  bottom: "ip2"
  bottom: "label"
  top: "loss"
}
I0425 15:26:50.831614 20283 data_layer.cpp:102] Prefetch batch: 3 ms.
I0425 15:26:50.831792 20249 layer_factory.hpp:77] Creating layer mnist
I0425 15:26:50.832216 20283 data_layer.cpp:103]      Read time: 0.218 ms.
I0425 15:26:50.832258 20283 data_layer.cpp:104] Transform time: 1.376 ms.
I0425 15:26:50.832617 20249 net.cpp:91] Creating Layer mnist
I0425 15:26:50.832665 20249 net.cpp:399] mnist -> data
I0425 15:26:50.832717 20249 net.cpp:399] mnist -> label
I0425 15:26:50.835496 20283 data_layer.cpp:102] Prefetch batch: 3 ms.
I0425 15:26:50.835512 20283 data_layer.cpp:103]      Read time: 0.206 ms.
I0425 15:26:50.835525 20283 data_layer.cpp:104] Transform time: 1.042 ms.
I0425 15:26:50.838199 20284 db_lmdb.cpp:35] Opened lmdb examples/mnist/mnist_test_lmdb
I0425 15:26:50.838510 20249 data_layer.cpp:41] output data size: 100,1,28,28
I0425 15:26:50.839032 20249 base_data_layer.cpp:69] Initializing prefetch
I0425 15:26:50.839522 20249 base_data_layer.cpp:72] Prefetch initialized.
I0425 15:26:50.839545 20249 net.cpp:141] Setting up mnist
I0425 15:26:50.839568 20249 net.cpp:148] Top shape: 100 1 28 28 (78400)
I0425 15:26:50.839594 20249 net.cpp:148] Top shape: 100 (100)
I0425 15:26:50.839612 20249 net.cpp:156] Memory required for data: 314000
I0425 15:26:50.839637 20249 layer_factory.hpp:77] Creating layer label_mnist_1_split
I0425 15:26:50.839694 20249 net.cpp:91] Creating Layer label_mnist_1_split
I0425 15:26:50.839720 20249 net.cpp:425] label_mnist_1_split <- label
I0425 15:26:50.839759 20249 net.cpp:399] label_mnist_1_split -> label_mnist_1_split_0
I0425 15:26:50.839805 20249 net.cpp:399] label_mnist_1_split -> label_mnist_1_split_1
I0425 15:26:50.839851 20249 net.cpp:141] Setting up label_mnist_1_split
I0425 15:26:50.839879 20249 net.cpp:148] Top shape: 100 (100)
I0425 15:26:50.839901 20249 net.cpp:148] Top shape: 100 (100)
I0425 15:26:50.839918 20249 net.cpp:156] Memory required for data: 314800
I0425 15:26:50.839942 20249 layer_factory.hpp:77] Creating layer conv0
I0425 15:26:50.839999 20249 net.cpp:91] Creating Layer conv0
I0425 15:26:50.840025 20249 net.cpp:425] conv0 <- data
I0425 15:26:50.840081 20249 net.cpp:399] conv0 -> conv0
I0425 15:26:50.840284 20249 net.cpp:141] Setting up conv0
I0425 15:26:50.840315 20249 net.cpp:148] Top shape: 100 25 24 24 (1440000)
I0425 15:26:50.840333 20249 net.cpp:156] Memory required for data: 6074800
I0425 15:26:50.840389 20249 layer_factory.hpp:77] Creating layer pool0
I0425 15:26:50.840427 20249 net.cpp:91] Creating Layer pool0
I0425 15:26:50.840450 20249 net.cpp:425] pool0 <- conv0
I0425 15:26:50.840490 20249 net.cpp:399] pool0 -> pool0
I0425 15:26:50.840546 20249 net.cpp:141] Setting up pool0
I0425 15:26:50.840574 20249 net.cpp:148] Top shape: 100 25 12 12 (360000)
I0425 15:26:50.840590 20249 net.cpp:156] Memory required for data: 7514800
I0425 15:26:50.840610 20249 layer_factory.hpp:77] Creating layer conv1
I0425 15:26:50.840658 20249 net.cpp:91] Creating Layer conv1
I0425 15:26:50.840682 20249 net.cpp:425] conv1 <- pool0
I0425 15:26:50.840723 20249 net.cpp:399] conv1 -> conv1
I0425 15:26:50.842252 20249 net.cpp:141] Setting up conv1
I0425 15:26:50.842283 20249 net.cpp:148] Top shape: 100 25 8 8 (160000)
I0425 15:26:50.842301 20249 net.cpp:156] Memory required for data: 8154800
I0425 15:26:50.842348 20249 layer_factory.hpp:77] Creating layer pool1
I0425 15:26:50.842384 20249 net.cpp:91] Creating Layer pool1
I0425 15:26:50.842407 20249 net.cpp:425] pool1 <- conv1
I0425 15:26:50.842443 20249 net.cpp:399] pool1 -> pool1
I0425 15:26:50.842499 20249 net.cpp:141] Setting up pool1
I0425 15:26:50.842525 20249 net.cpp:148] Top shape: 100 25 4 4 (40000)
I0425 15:26:50.842541 20249 net.cpp:156] Memory required for data: 8314800
I0425 15:26:50.842578 20249 layer_factory.hpp:77] Creating layer ip1
I0425 15:26:50.842615 20249 net.cpp:91] Creating Layer ip1
I0425 15:26:50.842638 20249 net.cpp:425] ip1 <- pool1
I0425 15:26:50.842679 20249 net.cpp:399] ip1 -> ip1
I0425 15:26:50.846321 20249 net.cpp:141] Setting up ip1
I0425 15:26:50.847002 20249 net.cpp:148] Top shape: 100 100 (10000)
I0425 15:26:50.847038 20249 net.cpp:156] Memory required for data: 8354800
I0425 15:26:50.847093 20249 layer_factory.hpp:77] Creating layer relu1
I0425 15:26:50.847168 20249 net.cpp:91] Creating Layer relu1
I0425 15:26:50.847214 20249 net.cpp:425] relu1 <- ip1
I0425 15:26:50.847265 20249 net.cpp:386] relu1 -> ip1 (in-place)
I0425 15:26:50.847331 20249 net.cpp:141] Setting up relu1
I0425 15:26:50.847379 20249 net.cpp:148] Top shape: 100 100 (10000)
I0425 15:26:50.847409 20249 net.cpp:156] Memory required for data: 8394800
I0425 15:26:50.847439 20249 layer_factory.hpp:77] Creating layer ip2
I0425 15:26:50.847529 20249 net.cpp:91] Creating Layer ip2
I0425 15:26:50.847568 20249 net.cpp:425] ip2 <- ip1
I0425 15:26:50.847626 20249 net.cpp:399] ip2 -> ip2
I0425 15:26:50.847844 20249 net.cpp:141] Setting up ip2
I0425 15:26:50.848058 20249 net.cpp:148] Top shape: 100 10 (1000)
I0425 15:26:50.848110 20249 net.cpp:156] Memory required for data: 8398800
I0425 15:26:50.848155 20249 layer_factory.hpp:77] Creating layer relu2
I0425 15:26:50.848214 20249 net.cpp:91] Creating Layer relu2
I0425 15:26:50.848261 20249 net.cpp:425] relu2 <- ip2
I0425 15:26:50.848311 20249 net.cpp:386] relu2 -> ip2 (in-place)
I0425 15:26:50.848374 20249 net.cpp:141] Setting up relu2
I0425 15:26:50.848423 20249 net.cpp:148] Top shape: 100 10 (1000)
I0425 15:26:50.848453 20249 net.cpp:156] Memory required for data: 8402800
I0425 15:26:50.848484 20249 layer_factory.hpp:77] Creating layer ip2_relu2_0_split
I0425 15:26:50.848529 20249 net.cpp:91] Creating Layer ip2_relu2_0_split
I0425 15:26:50.848570 20249 net.cpp:425] ip2_relu2_0_split <- ip2
I0425 15:26:50.848618 20249 net.cpp:399] ip2_relu2_0_split -> ip2_relu2_0_split_0
I0425 15:26:50.848681 20249 net.cpp:399] ip2_relu2_0_split -> ip2_relu2_0_split_1
I0425 15:26:50.848753 20249 net.cpp:141] Setting up ip2_relu2_0_split
I0425 15:26:50.848814 20249 net.cpp:148] Top shape: 100 10 (1000)
I0425 15:26:50.848848 20249 net.cpp:148] Top shape: 100 10 (1000)
I0425 15:26:50.848877 20249 net.cpp:156] Memory required for data: 8410800
I0425 15:26:50.848907 20249 layer_factory.hpp:77] Creating layer accuracy
I0425 15:26:50.848958 20249 net.cpp:91] Creating Layer accuracy
I0425 15:26:50.849011 20249 net.cpp:425] accuracy <- ip2_relu2_0_split_0
I0425 15:26:50.849056 20249 net.cpp:425] accuracy <- label_mnist_1_split_0
I0425 15:26:50.849109 20249 net.cpp:399] accuracy -> accuracy
…
