…
I0415 18:40:38.523540 11290 net.cpp:313] The NetState phase (0) differed from the phase (1) specified by a rule in layer mnist
I0415 18:40:38.523617 11290 net.cpp:313] The NetState phase (0) differed from the phase (1) specified by a rule in layer accuracy
I0415 18:40:38.523818 11290 net.cpp:49] Initializing net from parameters: 
name: "LeNet"
state {
  phase: TRAIN
}
layer {
  name: "mnist"
  type: "Data"
  top: "data"
  top: "label"
  include {
    phase: TRAIN
  }
  transform_param {
    scale: 0.00390625
  }
  data_param {
    source: "examples/mnist/mnist_train_lmdb"
    batch_size: 64
    backend: LMDB
  }
}
layer {
  name: "conv0"
  type: "Convolution"
  bottom: "data"
  top: "conv0"
  param {
    lr_mult: 1
  }
  param {
    lr_mult: 2
  }
  convolution_param {
    num_output: 25
    kernel_size: 5
    stride: 1
    weight_filler {
      type: "xavier"
    }
    bias_filler {
      type: "constant"
    }
  }
}
layer {
  name: "pool0"
  type: "Pooling"
  bottom: "conv0"
  top: "pool0"
  pooling_param {
    pool: MAX
    kernel_size: 2
    stride: 2
  }
}
layer {
  name: "conv1"
  type: "Convolution"
  bottom: "pool0"
  top: "conv1"
  param {
    lr_mult: 1
  }
  param {
    lr_mult: 2
  }
  convolution_param {
    num_output: 25
    kernel_size: 5
    stride: 1
    weight_filler {
      type: "xavier"
    }
    bias_filler {
      type: "constant"
    }
  }
}
layer {
  name: "pool1"
  type: "Pooling"
  bottom: "conv1"
  top: "pool1"
  pooling_param {
    pool: MAX
    kernel_size: 2
    stride: 2
  }
}
layer {
  name: "ip1"
  type: "InnerProduct"
  bottom: "pool1"
  top: "ip1"
  param {
    lr_mult: 1
  }
  param {
    lr_mult: 2
  }
  inner_product_param {
    num_output: 100
    weight_filler {
      type: "xavier"
    }
    bias_filler {
      type: "constant"
    }
  }
}
layer {
  name: "relu1"
  type: "ReLU"
  bottom: "ip1"
  top: "ip1"
}
layer {
  name: "ip2"
  type: "InnerProduct"
  bottom: "ip1"
  top: "ip2"
  param {
    lr_mult: 1
  }
  param {
    lr_mult: 2
  }
  inner_product_param {
    num_output: 10
    weight_filler {
      type: "xavier"
    }
    bias_filler {
      type: "constant"
    }
  }
}
layer {
  name: "relu2"
  type: "ReLU"
  bottom: "ip2"
  top: "ip2"
}
layer {
  name: "loss"
  type: "SoftmaxWithLoss"
  bottom: "ip2"
  bottom: "label"
  top: "loss"
}
I0415 18:40:38.524473 11290 layer_factory.hpp:77] Creating layer mnist
I0415 18:40:38.525975 11290 net.cpp:91] Creating Layer mnist
I0415 18:40:38.526039 11290 net.cpp:399] mnist -> data
I0415 18:40:38.526178 11290 net.cpp:399] mnist -> label
I0415 18:40:38.528815 11323 db_lmdb.cpp:35] Opened lmdb examples/mnist/mnist_train_lmdb
I0415 18:40:38.529299 11290 data_layer.cpp:41] output data size: 64,1,28,28
I0415 18:40:38.529721 11290 base_data_layer.cpp:69] Initializing prefetch
I0415 18:40:38.529785 11290 base_data_layer.cpp:72] Prefetch initialized.
I0415 18:40:38.529803 11290 net.cpp:141] Setting up mnist
I0415 18:40:38.529844 11290 net.cpp:148] Top shape: 64 1 28 28 (50176)
I0415 18:40:38.529865 11290 net.cpp:148] Top shape: 64 (64)
I0415 18:40:38.529880 11290 net.cpp:156] Memory required for data: 200960
I0415 18:40:38.529908 11290 layer_factory.hpp:77] Creating layer conv0
I0415 18:40:38.529966 11290 net.cpp:91] Creating Layer conv0
I0415 18:40:38.529992 11290 net.cpp:425] conv0 <- data
I0415 18:40:38.530050 11290 net.cpp:399] conv0 -> conv0
I0415 18:40:38.530341 11290 net.cpp:141] Setting up conv0
I0415 18:40:38.530369 11290 net.cpp:148] Top shape: 64 25 24 24 (921600)
I0415 18:40:38.530383 11290 net.cpp:156] Memory required for data: 3887360
I0415 18:40:38.530479 11290 layer_factory.hpp:77] Creating layer pool0
I0415 18:40:38.530519 11290 net.cpp:91] Creating Layer pool0
I0415 18:40:38.530544 11290 net.cpp:425] pool0 <- conv0
I0415 18:40:38.530582 11290 net.cpp:399] pool0 -> pool0
I0415 18:40:38.530664 11290 net.cpp:141] Setting up pool0
I0415 18:40:38.530700 11290 net.cpp:148] Top shape: 64 25 12 12 (230400)
I0415 18:40:38.530724 11290 net.cpp:156] Memory required for data: 4808960
I0415 18:40:38.530750 11290 layer_factory.hpp:77] Creating layer conv1
I0415 18:40:38.530802 11290 net.cpp:91] Creating Layer conv1
I0415 18:40:38.530833 11290 net.cpp:425] conv1 <- pool0
I0415 18:40:38.530882 11290 net.cpp:399] conv1 -> conv1
I0415 18:40:38.532662 11290 net.cpp:141] Setting up conv1
I0415 18:40:38.532704 11290 net.cpp:148] Top shape: 64 25 8 8 (102400)
I0415 18:40:38.532727 11290 net.cpp:156] Memory required for data: 5218560
I0415 18:40:38.532779 11290 layer_factory.hpp:77] Creating layer pool1
I0415 18:40:38.532824 11290 net.cpp:91] Creating Layer pool1
I0415 18:40:38.532850 11290 net.cpp:425] pool1 <- conv1
I0415 18:40:38.532897 11290 net.cpp:399] pool1 -> pool1
I0415 18:40:38.532958 11290 net.cpp:141] Setting up pool1
I0415 18:40:38.532989 11290 net.cpp:148] Top shape: 64 25 4 4 (25600)
I0415 18:40:38.533010 11290 net.cpp:156] Memory required for data: 5320960
I0415 18:40:38.533035 11290 layer_factory.hpp:77] Creating layer ip1
I0415 18:40:38.533077 11290 net.cpp:91] Creating Layer ip1
I0415 18:40:38.533104 11290 net.cpp:425] ip1 <- pool1
I0415 18:40:38.533150 11290 net.cpp:399] ip1 -> ip1
I0415 18:40:38.534852 11324 data_layer.cpp:102] Prefetch batch: 2 ms.
I0415 18:40:38.536911 11324 data_layer.cpp:103]      Read time: 0.468 ms.
I0415 18:40:38.536960 11324 data_layer.cpp:104] Transform time: 1.18 ms.
I0415 18:40:38.537365 11290 net.cpp:141] Setting up ip1
I0415 18:40:38.537924 11290 net.cpp:148] Top shape: 64 100 (6400)
I0415 18:40:38.537966 11290 net.cpp:156] Memory required for data: 5346560
I0415 18:40:38.538031 11290 layer_factory.hpp:77] Creating layer relu1
I0415 18:40:38.538120 11290 net.cpp:91] Creating Layer relu1
I0415 18:40:38.538178 11290 net.cpp:425] relu1 <- ip1
I0415 18:40:38.538234 11290 net.cpp:386] relu1 -> ip1 (in-place)
I0415 18:40:38.538308 11290 net.cpp:141] Setting up relu1
I0415 18:40:38.538369 11290 net.cpp:148] Top shape: 64 100 (6400)
I0415 18:40:38.538408 11290 net.cpp:156] Memory required for data: 5372160
I0415 18:40:38.538472 11290 layer_factory.hpp:77] Creating layer ip2
I0415 18:40:38.538521 11290 net.cpp:91] Creating Layer ip2
I0415 18:40:38.538579 11290 net.cpp:425] ip2 <- ip1
I0415 18:40:38.538642 11290 net.cpp:399] ip2 -> ip2
I0415 18:40:38.538871 11290 net.cpp:141] Setting up ip2
I0415 18:40:38.539083 11290 net.cpp:148] Top shape: 64 10 (640)
I0415 18:40:38.539124 11290 net.cpp:156] Memory required for data: 5374720
I0415 18:40:38.539175 11290 layer_factory.hpp:77] Creating layer relu2
I0415 18:40:38.539247 11290 net.cpp:91] Creating Layer relu2
I0415 18:40:38.539302 11290 net.cpp:425] relu2 <- ip2
I0415 18:40:38.539360 11290 net.cpp:386] relu2 -> ip2 (in-place)
I0415 18:40:38.539433 11290 net.cpp:141] Setting up relu2
I0415 18:40:38.539502 11324 data_layer.cpp:102] Prefetch batch: 2 ms.
I0415 18:40:38.539525 11324 data_layer.cpp:103]      Read time: 0.239 ms.
I0415 18:40:38.539507 11290 net.cpp:148] Top shape: 64 10 (640)
I0415 18:40:38.541113 11324 data_layer.cpp:104] Transform time: 1.683 ms.
I0415 18:40:38.541134 11290 net.cpp:156] Memory required for data: 5377280
I0415 18:40:38.541174 11290 layer_factory.hpp:77] Creating layer loss
I0415 18:40:38.541214 11290 net.cpp:91] Creating Layer loss
I0415 18:40:38.541241 11290 net.cpp:425] loss <- ip2
I0415 18:40:38.541277 11290 net.cpp:425] loss <- label
I0415 18:40:38.541317 11290 net.cpp:399] loss -> loss
…
I0415 18:40:38.542938 11290 solver.cpp:181] Creating test net (#0) specified by net file: ECE595/mnist/train_test/var_num_feature/lenet_train_test_featuresize25.prototxt
I0415 18:40:38.543062 11290 net.cpp:313] The NetState phase (1) differed from the phase (0) specified by a rule in layer mnist
I0415 18:40:38.543321 11290 net.cpp:49] Initializing net from parameters: 
name: "LeNet"
state {
  phase: TEST
}
layer {
  name: "mnist"
  type: "Data"
  top: "data"
  top: "label"
  include {
    phase: TEST
  }
  transform_param {
    scale: 0.00390625
  }
  data_param {
    source: "examples/mnist/mnist_test_lmdb"
    batch_size: 100
    backend: LMDB
  }
}
layer {
  name: "conv0"
  type: "Convolution"
  bottom: "data"
  top: "conv0"
  param {
    lr_mult: 1
  }
  param {
    lr_mult: 2
  }
  convolution_param {
    num_output: 25
    kernel_size: 5
    stride: 1
    weight_filler {
      type: "xavier"
    }
    bias_filler {
      type: "constant"
    }
  }
}
layer {
  name: "pool0"
  type: "Pooling"
  bottom: "conv0"
  top: "pool0"
  pooling_param {
    pool: MAX
    kernel_size: 2
    stride: 2
  }
}
layer {
  name: "conv1"
  type: "Convolution"
  bottom: "pool0"
  top: "conv1"
  param {
    lr_mult: 1
  }
  param {
    lr_mult: 2
  }
  convolution_param {
    num_output: 25
    kernel_size: 5
    stride: 1
    weight_filler {
      type: "xavier"
    }
    bias_filler {
      type: "constant"
    }
  }
}
layer {
  name: "pool1"
  type: "Pooling"
  bottom: "conv1"
  top: "pool1"
  pooling_param {
    pool: MAX
    kernel_size: 2
    stride: 2
  }
}
layer {
  name: "ip1"
  type: "InnerProduct"
  bottom: "pool1"
  top: "ip1"
  param {
    lr_mult: 1
  }
  param {
    lr_mult: 2
  }
  inner_product_param {
    num_output: 100
    weight_filler {
      type: "xavier"
    }
    bias_filler {
      type: "constant"
    }
  }
}
layer {
  name: "relu1"
  type: "ReLU"
  bottom: "ip1"
  top: "ip1"
}
layer {
  name: "ip2"
  type: "InnerProduct"
  bottom: "ip1"
  top: "ip2"
  param {
    lr_mult: 1
  }
  param {
    lr_mult: 2
  }
  inner_product_param {
    num_output: 10
    weight_filler {
      type: "xavier"
    }
    bias_filler {
      type: "constant"
    }
  }
}
layer {
  name: "relu2"
  type: "ReLU"
  bottom: "ip2"
  top: "ip2"
}
layer {
  name: "accuracy"
  type: "Accuracy"
  bottom: "ip2"
  bottom: "label"
  top: "accuracy"
  include {
    phase: TEST
  }
}
layer {
  name: "loss"
  type: "SoftmaxWithLoss"
  bottom: "ip2"
  bottom: "label"
  top: "loss"
}
I0415 18:40:38.543865 11290 layer_factory.hpp:77] Creating layer mnist
I0415 18:40:38.545058 11290 net.cpp:91] Creating Layer mnist
I0415 18:40:38.545132 11290 net.cpp:399] mnist -> data
I0415 18:40:38.545161 11324 data_layer.cpp:102] Prefetch batch: 1 ms.
I0415 18:40:38.545218 11324 data_layer.cpp:103]      Read time: 0.239 ms.
I0415 18:40:38.545253 11324 data_layer.cpp:104] Transform time: 1.168 ms.
I0415 18:40:38.545238 11290 net.cpp:399] mnist -> label
I0415 18:40:38.547839 11325 db_lmdb.cpp:35] Opened lmdb examples/mnist/mnist_test_lmdb
I0415 18:40:38.548199 11290 data_layer.cpp:41] output data size: 100,1,28,28
I0415 18:40:38.548800 11290 base_data_layer.cpp:69] Initializing prefetch
I0415 18:40:38.548859 11290 base_data_layer.cpp:72] Prefetch initialized.
I0415 18:40:38.548877 11290 net.cpp:141] Setting up mnist
I0415 18:40:38.548893 11290 net.cpp:148] Top shape: 100 1 28 28 (78400)
I0415 18:40:38.548913 11290 net.cpp:148] Top shape: 100 (100)
I0415 18:40:38.548928 11290 net.cpp:156] Memory required for data: 314000
I0415 18:40:38.548945 11290 layer_factory.hpp:77] Creating layer label_mnist_1_split
I0415 18:40:38.548988 11290 net.cpp:91] Creating Layer label_mnist_1_split
I0415 18:40:38.549007 11290 net.cpp:425] label_mnist_1_split <- label
I0415 18:40:38.549044 11290 net.cpp:399] label_mnist_1_split -> label_mnist_1_split_0
I0415 18:40:38.549085 11290 net.cpp:399] label_mnist_1_split -> label_mnist_1_split_1
I0415 18:40:38.549127 11290 net.cpp:141] Setting up label_mnist_1_split
I0415 18:40:38.549151 11290 net.cpp:148] Top shape: 100 (100)
I0415 18:40:38.549170 11290 net.cpp:148] Top shape: 100 (100)
I0415 18:40:38.549183 11290 net.cpp:156] Memory required for data: 314800
I0415 18:40:38.549196 11290 layer_factory.hpp:77] Creating layer conv0
I0415 18:40:38.549247 11290 net.cpp:91] Creating Layer conv0
I0415 18:40:38.549268 11290 net.cpp:425] conv0 <- data
I0415 18:40:38.549310 11290 net.cpp:399] conv0 -> conv0
I0415 18:40:38.549532 11290 net.cpp:141] Setting up conv0
I0415 18:40:38.549574 11290 net.cpp:148] Top shape: 100 25 24 24 (1440000)
I0415 18:40:38.549597 11290 net.cpp:156] Memory required for data: 6074800
I0415 18:40:38.549660 11290 layer_factory.hpp:77] Creating layer pool0
I0415 18:40:38.549710 11290 net.cpp:91] Creating Layer pool0
I0415 18:40:38.549739 11290 net.cpp:425] pool0 <- conv0
I0415 18:40:38.549787 11290 net.cpp:399] pool0 -> pool0
I0415 18:40:38.549850 11290 net.cpp:141] Setting up pool0
I0415 18:40:38.549881 11290 net.cpp:148] Top shape: 100 25 12 12 (360000)
I0415 18:40:38.549904 11290 net.cpp:156] Memory required for data: 7514800
I0415 18:40:38.549929 11290 layer_factory.hpp:77] Creating layer conv1
I0415 18:40:38.549993 11290 net.cpp:91] Creating Layer conv1
I0415 18:40:38.550022 11290 net.cpp:425] conv1 <- pool0
I0415 18:40:38.550078 11290 net.cpp:399] conv1 -> conv1
I0415 18:40:38.552219 11290 net.cpp:141] Setting up conv1
I0415 18:40:38.552675 11290 net.cpp:148] Top shape: 100 25 8 8 (160000)
I0415 18:40:38.552716 11290 net.cpp:156] Memory required for data: 8154800
I0415 18:40:38.552780 11290 layer_factory.hpp:77] Creating layer pool1
I0415 18:40:38.552870 11290 net.cpp:91] Creating Layer pool1
I0415 18:40:38.552928 11290 net.cpp:425] pool1 <- conv1
I0415 18:40:38.552986 11290 net.cpp:399] pool1 -> pool1
I0415 18:40:38.553086 11290 net.cpp:141] Setting up pool1
I0415 18:40:38.553167 11290 net.cpp:148] Top shape: 100 25 4 4 (40000)
I0415 18:40:38.553205 11290 net.cpp:156] Memory required for data: 8314800
I0415 18:40:38.553241 11290 layer_factory.hpp:77] Creating layer ip1
I0415 18:40:38.553299 11290 net.cpp:91] Creating Layer ip1
I0415 18:40:38.553367 11290 net.cpp:425] ip1 <- pool1
I0415 18:40:38.553431 11290 net.cpp:399] ip1 -> ip1
I0415 18:40:38.555461 11326 data_layer.cpp:102] Prefetch batch: 3 ms.
I0415 18:40:38.557937 11326 data_layer.cpp:103]      Read time: 0.363 ms.
I0415 18:40:38.557982 11326 data_layer.cpp:104] Transform time: 1.832 ms.
I0415 18:40:38.561607 11326 data_layer.cpp:102] Prefetch batch: 3 ms.
I0415 18:40:38.557708 11290 net.cpp:141] Setting up ip1
I0415 18:40:38.564313 11326 data_layer.cpp:103]      Read time: 0.366 ms.
I0415 18:40:38.564347 11290 net.cpp:148] Top shape: 100 100 (10000)
I0415 18:40:38.564366 11326 data_layer.cpp:104] Transform time: 1.825 ms.
I0415 18:40:38.564388 11290 net.cpp:156] Memory required for data: 8354800
I0415 18:40:38.564471 11290 layer_factory.hpp:77] Creating layer relu1
I0415 18:40:38.564507 11290 net.cpp:91] Creating Layer relu1
I0415 18:40:38.564534 11290 net.cpp:425] relu1 <- ip1
I0415 18:40:38.564576 11290 net.cpp:386] relu1 -> ip1 (in-place)
I0415 18:40:38.564618 11290 net.cpp:141] Setting up relu1
I0415 18:40:38.564649 11290 net.cpp:148] Top shape: 100 100 (10000)
I0415 18:40:38.564677 11290 net.cpp:156] Memory required for data: 8394800
I0415 18:40:38.564700 11290 layer_factory.hpp:77] Creating layer ip2
I0415 18:40:38.564749 11290 net.cpp:91] Creating Layer ip2
I0415 18:40:38.564775 11290 net.cpp:425] ip2 <- ip1
I0415 18:40:38.564824 11290 net.cpp:399] ip2 -> ip2
I0415 18:40:38.565029 11290 net.cpp:141] Setting up ip2
I0415 18:40:38.565068 11290 net.cpp:148] Top shape: 100 10 (1000)
I0415 18:40:38.565094 11290 net.cpp:156] Memory required for data: 8398800
I0415 18:40:38.565135 11290 layer_factory.hpp:77] Creating layer relu2
I0415 18:40:38.565173 11290 net.cpp:91] Creating Layer relu2
I0415 18:40:38.565199 11290 net.cpp:425] relu2 <- ip2
I0415 18:40:38.565241 11290 net.cpp:386] relu2 -> ip2 (in-place)
I0415 18:40:38.565282 11290 net.cpp:141] Setting up relu2
I0415 18:40:38.565309 11290 net.cpp:148] Top shape: 100 10 (1000)
I0415 18:40:38.565327 11290 net.cpp:156] Memory required for data: 8402800
I0415 18:40:38.565351 11290 layer_factory.hpp:77] Creating layer ip2_relu2_0_split
I0415 18:40:38.565382 11290 net.cpp:91] Creating Layer ip2_relu2_0_split
I0415 18:40:38.565407 11290 net.cpp:425] ip2_relu2_0_split <- ip2
I0415 18:40:38.565459 11290 net.cpp:399] ip2_relu2_0_split -> ip2_relu2_0_split_0
I0415 18:40:38.565506 11290 net.cpp:399] ip2_relu2_0_split -> ip2_relu2_0_split_1
I0415 18:40:38.565557 11290 net.cpp:141] Setting up ip2_relu2_0_split
I0415 18:40:38.565587 11290 net.cpp:148] Top shape: 100 10 (1000)
I0415 18:40:38.565613 11290 net.cpp:148] Top shape: 100 10 (1000)
I0415 18:40:38.565632 11290 net.cpp:156] Memory required for data: 8410800
I0415 18:40:38.565657 11290 layer_factory.hpp:77] Creating layer accuracy
I0415 18:40:38.565701 11290 net.cpp:91] Creating Layer accuracy
I0415 18:40:38.565731 11290 net.cpp:425] accuracy <- ip2_relu2_0_split_0
I0415 18:40:38.565767 11290 net.cpp:425] accuracy <- label_mnist_1_split_0
I0415 18:40:38.565805 11290 net.cpp:399] accuracy -> accuracy
…
