…
I0425 14:14:26.015951 18708 net.cpp:313] The NetState phase (0) differed from the phase (1) specified by a rule in layer mnist
I0425 14:14:26.016091 18708 net.cpp:313] The NetState phase (0) differed from the phase (1) specified by a rule in layer accuracy
I0425 14:14:26.016520 18708 net.cpp:49] Initializing net from parameters: 
name: "LeNet"
state {
  phase: TRAIN
}
layer {
  name: "mnist"
  type: "Data"
  top: "data"
  top: "label"
  include {
    phase: TRAIN
  }
  transform_param {
    scale: 0.00390625
  }
  data_param {
    source: "examples/mnist/mnist_train_lmdb"
    batch_size: 64
    backend: LMDB
  }
}
layer {
  name: "conv0"
  type: "Convolution"
  bottom: "data"
  top: "conv0"
  param {
    lr_mult: 1
  }
  param {
    lr_mult: 2
  }
  convolution_param {
    num_output: 100
    kernel_size: 5
    stride: 1
    weight_filler {
      type: "xavier"
    }
    bias_filler {
      type: "constant"
    }
  }
}
layer {
  name: "pool0"
  type: "Pooling"
  bottom: "conv0"
  top: "pool0"
  pooling_param {
    pool: MAX
    kernel_size: 2
    stride: 2
  }
}
layer {
  name: "conv1"
  type: "Convolution"
  bottom: "pool0"
  top: "conv1"
  param {
    lr_mult: 1
  }
  param {
    lr_mult: 2
  }
  convolution_param {
    num_output: 100
    kernel_size: 5
    stride: 1
    weight_filler {
      type: "xavier"
    }
    bias_filler {
      type: "constant"
    }
  }
}
layer {
  name: "pool1"
  type: "Pooling"
  bottom: "conv1"
  top: "pool1"
  pooling_param {
    pool: MAX
    kernel_size: 2
    stride: 2
  }
}
layer {
  name: "ip1"
  type: "InnerProduct"
  bottom: "pool1"
  top: "ip1"
  param {
    lr_mult: 1
  }
  param {
    lr_mult: 2
  }
  inner_product_param {
    num_output: 100
    weight_filler {
      type: "xavier"
    }
    bias_filler {
      type: "constant"
    }
  }
}
layer {
  name: "relu1"
  type: "ReLU"
  bottom: "ip1"
  top: "ip1"
}
layer {
  name: "ip2"
  type: "InnerProduct"
  bottom: "ip1"
  top: "ip2"
  param {
    lr_mult: 1
  }
  param {
    lr_mult: 2
  }
  inner_product_param {
    num_output: 10
    weight_filler {
      type: "xavier"
    }
    bias_filler {
      type: "constant"
    }
  }
}
layer {
  name: "relu2"
  type: "ReLU"
  bottom: "ip2"
  top: "ip2"
}
layer {
  name: "loss"
  type: "SoftmaxWithLoss"
  bottom: "ip2"
  bottom: "label"
  top: "loss"
}
I0425 14:14:26.017601 18708 layer_factory.hpp:77] Creating layer mnist
I0425 14:14:26.020750 18708 net.cpp:91] Creating Layer mnist
I0425 14:14:26.020849 18708 net.cpp:399] mnist -> data
I0425 14:14:26.021121 18708 net.cpp:399] mnist -> label
I0425 14:14:26.027067 18744 db_lmdb.cpp:35] Opened lmdb examples/mnist/mnist_train_lmdb
I0425 14:14:26.027735 18708 data_layer.cpp:41] output data size: 64,1,28,28
I0425 14:14:26.028547 18708 base_data_layer.cpp:69] Initializing prefetch
I0425 14:14:26.029322 18708 base_data_layer.cpp:72] Prefetch initialized.
I0425 14:14:26.029361 18708 net.cpp:141] Setting up mnist
I0425 14:14:26.029439 18708 net.cpp:148] Top shape: 64 1 28 28 (50176)
I0425 14:14:26.029477 18708 net.cpp:148] Top shape: 64 (64)
I0425 14:14:26.029497 18708 net.cpp:156] Memory required for data: 200960
I0425 14:14:26.029551 18708 layer_factory.hpp:77] Creating layer conv0
I0425 14:14:26.029685 18708 net.cpp:91] Creating Layer conv0
I0425 14:14:26.029736 18708 net.cpp:425] conv0 <- data
I0425 14:14:26.029863 18708 net.cpp:399] conv0 -> conv0
I0425 14:14:26.031087 18708 net.cpp:141] Setting up conv0
I0425 14:14:26.031190 18708 net.cpp:148] Top shape: 64 100 24 24 (3686400)
I0425 14:14:26.031250 18708 net.cpp:156] Memory required for data: 14946560
I0425 14:14:26.031464 18708 layer_factory.hpp:77] Creating layer pool0
I0425 14:14:26.031574 18708 net.cpp:91] Creating Layer pool0
I0425 14:14:26.031664 18708 net.cpp:425] pool0 <- conv0
I0425 14:14:26.031785 18708 net.cpp:399] pool0 -> pool0
I0425 14:14:26.031951 18708 net.cpp:141] Setting up pool0
I0425 14:14:26.032033 18708 net.cpp:148] Top shape: 64 100 12 12 (921600)
I0425 14:14:26.032083 18708 net.cpp:156] Memory required for data: 18632960
I0425 14:14:26.032136 18708 layer_factory.hpp:77] Creating layer conv1
I0425 14:14:26.032263 18708 net.cpp:91] Creating Layer conv1
I0425 14:14:26.032326 18708 net.cpp:425] conv1 <- pool0
I0425 14:14:26.032438 18708 net.cpp:399] conv1 -> conv1
I0425 14:14:26.035753 18745 data_layer.cpp:102] Prefetch batch: 3 ms.
I0425 14:14:26.036454 18745 data_layer.cpp:103]      Read time: 0.227 ms.
I0425 14:14:26.036510 18745 data_layer.cpp:104] Transform time: 1.12 ms.
I0425 14:14:26.039901 18745 data_layer.cpp:102] Prefetch batch: 3 ms.
I0425 14:14:26.041363 18745 data_layer.cpp:103]      Read time: 0.232 ms.
I0425 14:14:26.041399 18745 data_layer.cpp:104] Transform time: 2.172 ms.
I0425 14:14:26.043898 18745 data_layer.cpp:102] Prefetch batch: 2 ms.
I0425 14:14:26.046259 18745 data_layer.cpp:103]      Read time: 0.227 ms.
I0425 14:14:26.046299 18745 data_layer.cpp:104] Transform time: 1.287 ms.
I0425 14:14:26.090487 18708 net.cpp:141] Setting up conv1
I0425 14:14:26.090533 18708 net.cpp:148] Top shape: 64 100 8 8 (409600)
I0425 14:14:26.090546 18708 net.cpp:156] Memory required for data: 20271360
I0425 14:14:26.090620 18708 layer_factory.hpp:77] Creating layer pool1
I0425 14:14:26.090682 18708 net.cpp:91] Creating Layer pool1
I0425 14:14:26.090708 18708 net.cpp:425] pool1 <- conv1
I0425 14:14:26.090756 18708 net.cpp:399] pool1 -> pool1
I0425 14:14:26.090831 18708 net.cpp:141] Setting up pool1
I0425 14:14:26.090862 18708 net.cpp:148] Top shape: 64 100 4 4 (102400)
I0425 14:14:26.090875 18708 net.cpp:156] Memory required for data: 20680960
I0425 14:14:26.090895 18708 layer_factory.hpp:77] Creating layer ip1
I0425 14:14:26.090947 18708 net.cpp:91] Creating Layer ip1
I0425 14:14:26.090971 18708 net.cpp:425] ip1 <- pool1
I0425 14:14:26.091022 18708 net.cpp:399] ip1 -> ip1
I0425 14:14:26.116057 18708 net.cpp:141] Setting up ip1
I0425 14:14:26.116094 18708 net.cpp:148] Top shape: 64 100 (6400)
I0425 14:14:26.116107 18708 net.cpp:156] Memory required for data: 20706560
I0425 14:14:26.116168 18708 layer_factory.hpp:77] Creating layer relu1
I0425 14:14:26.116220 18708 net.cpp:91] Creating Layer relu1
I0425 14:14:26.116245 18708 net.cpp:425] relu1 <- ip1
I0425 14:14:26.116288 18708 net.cpp:386] relu1 -> ip1 (in-place)
I0425 14:14:26.116335 18708 net.cpp:141] Setting up relu1
I0425 14:14:26.116358 18708 net.cpp:148] Top shape: 64 100 (6400)
I0425 14:14:26.116370 18708 net.cpp:156] Memory required for data: 20732160
I0425 14:14:26.116389 18708 layer_factory.hpp:77] Creating layer ip2
I0425 14:14:26.116432 18708 net.cpp:91] Creating Layer ip2
I0425 14:14:26.116454 18708 net.cpp:425] ip2 <- ip1
I0425 14:14:26.116504 18708 net.cpp:399] ip2 -> ip2
I0425 14:14:26.116786 18708 net.cpp:141] Setting up ip2
I0425 14:14:26.116818 18708 net.cpp:148] Top shape: 64 10 (640)
I0425 14:14:26.116832 18708 net.cpp:156] Memory required for data: 20734720
I0425 14:14:26.116873 18708 layer_factory.hpp:77] Creating layer relu2
I0425 14:14:26.116915 18708 net.cpp:91] Creating Layer relu2
I0425 14:14:26.116940 18708 net.cpp:425] relu2 <- ip2
I0425 14:14:26.116979 18708 net.cpp:386] relu2 -> ip2 (in-place)
I0425 14:14:26.117019 18708 net.cpp:141] Setting up relu2
I0425 14:14:26.117043 18708 net.cpp:148] Top shape: 64 10 (640)
I0425 14:14:26.117053 18708 net.cpp:156] Memory required for data: 20737280
I0425 14:14:26.117069 18708 layer_factory.hpp:77] Creating layer loss
I0425 14:14:26.117115 18708 net.cpp:91] Creating Layer loss
I0425 14:14:26.117139 18708 net.cpp:425] loss <- ip2
I0425 14:14:26.117173 18708 net.cpp:425] loss <- label
I0425 14:14:26.117214 18708 net.cpp:399] loss -> loss
I0425 14:14:26.117313 18708 layer_factory.hpp:77] Creating layer loss
…
I0425 14:14:26.119123 18708 solver.cpp:181] Creating test net (#0) specified by net file: ECE595/mnist/train_test/var_num_feature/lenet_train_test_featuresize100.prototxt
I0425 14:14:26.119289 18708 net.cpp:313] The NetState phase (1) differed from the phase (0) specified by a rule in layer mnist
I0425 14:14:26.119628 18708 net.cpp:49] Initializing net from parameters: 
name: "LeNet"
state {
  phase: TEST
}
layer {
  name: "mnist"
  type: "Data"
  top: "data"
  top: "label"
  include {
    phase: TEST
  }
  transform_param {
    scale: 0.00390625
  }
  data_param {
    source: "examples/mnist/mnist_test_lmdb"
    batch_size: 100
    backend: LMDB
  }
}
layer {
  name: "conv0"
  type: "Convolution"
  bottom: "data"
  top: "conv0"
  param {
    lr_mult: 1
  }
  param {
    lr_mult: 2
  }
  convolution_param {
    num_output: 100
    kernel_size: 5
    stride: 1
    weight_filler {
      type: "xavier"
    }
    bias_filler {
      type: "constant"
    }
  }
}
layer {
  name: "pool0"
  type: "Pooling"
  bottom: "conv0"
  top: "pool0"
  pooling_param {
    pool: MAX
    kernel_size: 2
    stride: 2
  }
}
layer {
  name: "conv1"
  type: "Convolution"
  bottom: "pool0"
  top: "conv1"
  param {
    lr_mult: 1
  }
  param {
    lr_mult: 2
  }
  convolution_param {
    num_output: 100
    kernel_size: 5
    stride: 1
    weight_filler {
      type: "xavier"
    }
    bias_filler {
      type: "constant"
    }
  }
}
layer {
  name: "pool1"
  type: "Pooling"
  bottom: "conv1"
  top: "pool1"
  pooling_param {
    pool: MAX
    kernel_size: 2
    stride: 2
  }
}
layer {
  name: "ip1"
  type: "InnerProduct"
  bottom: "pool1"
  top: "ip1"
  param {
    lr_mult: 1
  }
  param {
    lr_mult: 2
  }
  inner_product_param {
    num_output: 100
    weight_filler {
      type: "xavier"
    }
    bias_filler {
      type: "constant"
    }
  }
}
layer {
  name: "relu1"
  type: "ReLU"
  bottom: "ip1"
  top: "ip1"
}
layer {
  name: "ip2"
  type: "InnerProduct"
  bottom: "ip1"
  top: "ip2"
  param {
    lr_mult: 1
  }
  param {
    lr_mult: 2
  }
  inner_product_param {
    num_output: 10
    weight_filler {
      type: "xavier"
    }
    bias_filler {
      type: "constant"
    }
  }
}
layer {
  name: "relu2"
  type: "ReLU"
  bottom: "ip2"
  top: "ip2"
}
layer {
  name: "accuracy"
  type: "Accuracy"
  bottom: "ip2"
  bottom: "label"
  top: "accuracy"
  include {
    phase: TEST
  }
}
layer {
  name: "loss"
  type: "SoftmaxWithLoss"
  bottom: "ip2"
  bottom: "label"
  top: "loss"
}
I0425 14:14:26.120206 18708 layer_factory.hpp:77] Creating layer mnist
I0425 14:14:26.120666 18708 net.cpp:91] Creating Layer mnist
I0425 14:14:26.120720 18708 net.cpp:399] mnist -> data
I0425 14:14:26.120807 18708 net.cpp:399] mnist -> label
I0425 14:14:26.124302 18746 db_lmdb.cpp:35] Opened lmdb examples/mnist/mnist_test_lmdb
I0425 14:14:26.124819 18708 data_layer.cpp:41] output data size: 100,1,28,28
I0425 14:14:26.125756 18708 base_data_layer.cpp:69] Initializing prefetch
I0425 14:14:26.125879 18708 base_data_layer.cpp:72] Prefetch initialized.
I0425 14:14:26.125900 18708 net.cpp:141] Setting up mnist
I0425 14:14:26.125938 18708 net.cpp:148] Top shape: 100 1 28 28 (78400)
I0425 14:14:26.125960 18708 net.cpp:148] Top shape: 100 (100)
I0425 14:14:26.125974 18708 net.cpp:156] Memory required for data: 314000
I0425 14:14:26.126004 18708 layer_factory.hpp:77] Creating layer label_mnist_1_split
I0425 14:14:26.126260 18708 net.cpp:91] Creating Layer label_mnist_1_split
I0425 14:14:26.126288 18708 net.cpp:425] label_mnist_1_split <- label
I0425 14:14:26.126343 18708 net.cpp:399] label_mnist_1_split -> label_mnist_1_split_0
I0425 14:14:26.126413 18708 net.cpp:399] label_mnist_1_split -> label_mnist_1_split_1
I0425 14:14:26.126499 18708 net.cpp:141] Setting up label_mnist_1_split
I0425 14:14:26.126533 18708 net.cpp:148] Top shape: 100 (100)
I0425 14:14:26.126556 18708 net.cpp:148] Top shape: 100 (100)
I0425 14:14:26.126572 18708 net.cpp:156] Memory required for data: 314800
I0425 14:14:26.126600 18708 layer_factory.hpp:77] Creating layer conv0
I0425 14:14:26.126724 18708 net.cpp:91] Creating Layer conv0
I0425 14:14:26.126758 18708 net.cpp:425] conv0 <- data
I0425 14:14:26.126842 18708 net.cpp:399] conv0 -> conv0
I0425 14:14:26.127491 18708 net.cpp:141] Setting up conv0
I0425 14:14:26.127540 18708 net.cpp:148] Top shape: 100 100 24 24 (5760000)
I0425 14:14:26.127557 18708 net.cpp:156] Memory required for data: 23354800
I0425 14:14:26.127662 18708 layer_factory.hpp:77] Creating layer pool0
I0425 14:14:26.127725 18708 net.cpp:91] Creating Layer pool0
I0425 14:14:26.127751 18708 net.cpp:425] pool0 <- conv0
I0425 14:14:26.127810 18708 net.cpp:399] pool0 -> pool0
I0425 14:14:26.127818 18747 data_layer.cpp:102] Prefetch batch: 1 ms.
I0425 14:14:26.127840 18747 data_layer.cpp:103]      Read time: 0.18 ms.
I0425 14:14:26.127846 18747 data_layer.cpp:104] Transform time: 1.034 ms.
I0425 14:14:26.127895 18708 net.cpp:141] Setting up pool0
I0425 14:14:26.127933 18708 net.cpp:148] Top shape: 100 100 12 12 (1440000)
I0425 14:14:26.127950 18708 net.cpp:156] Memory required for data: 29114800
I0425 14:14:26.127974 18708 layer_factory.hpp:77] Creating layer conv1
I0425 14:14:26.128057 18708 net.cpp:91] Creating Layer conv1
I0425 14:14:26.128092 18708 net.cpp:425] conv1 <- pool0
I0425 14:14:26.128161 18708 net.cpp:399] conv1 -> conv1
I0425 14:14:26.129338 18747 data_layer.cpp:102] Prefetch batch: 1 ms.
I0425 14:14:26.129350 18747 data_layer.cpp:103]      Read time: 0.148 ms.
I0425 14:14:26.129356 18747 data_layer.cpp:104] Transform time: 1.02 ms.
I0425 14:14:26.131057 18747 data_layer.cpp:102] Prefetch batch: 1 ms.
I0425 14:14:26.131067 18747 data_layer.cpp:103]      Read time: 0.15 ms.
I0425 14:14:26.131072 18747 data_layer.cpp:104] Transform time: 1.042 ms.
I0425 14:14:26.167493 18708 net.cpp:141] Setting up conv1
I0425 14:14:26.167543 18708 net.cpp:148] Top shape: 100 100 8 8 (640000)
I0425 14:14:26.167557 18708 net.cpp:156] Memory required for data: 31674800
I0425 14:14:26.167629 18708 layer_factory.hpp:77] Creating layer pool1
I0425 14:14:26.167677 18708 net.cpp:91] Creating Layer pool1
I0425 14:14:26.167702 18708 net.cpp:425] pool1 <- conv1
I0425 14:14:26.167747 18708 net.cpp:399] pool1 -> pool1
I0425 14:14:26.167821 18708 net.cpp:141] Setting up pool1
I0425 14:14:26.167850 18708 net.cpp:148] Top shape: 100 100 4 4 (160000)
I0425 14:14:26.167863 18708 net.cpp:156] Memory required for data: 32314800
I0425 14:14:26.167882 18708 layer_factory.hpp:77] Creating layer ip1
I0425 14:14:26.167935 18708 net.cpp:91] Creating Layer ip1
I0425 14:14:26.167959 18708 net.cpp:425] ip1 <- pool1
I0425 14:14:26.168009 18708 net.cpp:399] ip1 -> ip1
I0425 14:14:26.193054 18708 net.cpp:141] Setting up ip1
I0425 14:14:26.193094 18708 net.cpp:148] Top shape: 100 100 (10000)
I0425 14:14:26.193105 18708 net.cpp:156] Memory required for data: 32354800
I0425 14:14:26.193166 18708 layer_factory.hpp:77] Creating layer relu1
I0425 14:14:26.193225 18708 net.cpp:91] Creating Layer relu1
I0425 14:14:26.193261 18708 net.cpp:425] relu1 <- ip1
I0425 14:14:26.193305 18708 net.cpp:386] relu1 -> ip1 (in-place)
I0425 14:14:26.193351 18708 net.cpp:141] Setting up relu1
I0425 14:14:26.193373 18708 net.cpp:148] Top shape: 100 100 (10000)
I0425 14:14:26.193387 18708 net.cpp:156] Memory required for data: 32394800
I0425 14:14:26.193405 18708 layer_factory.hpp:77] Creating layer ip2
I0425 14:14:26.193456 18708 net.cpp:91] Creating Layer ip2
I0425 14:14:26.193480 18708 net.cpp:425] ip2 <- ip1
I0425 14:14:26.193536 18708 net.cpp:399] ip2 -> ip2
I0425 14:14:26.193864 18708 net.cpp:141] Setting up ip2
I0425 14:14:26.193897 18708 net.cpp:148] Top shape: 100 10 (1000)
I0425 14:14:26.193912 18708 net.cpp:156] Memory required for data: 32398800
I0425 14:14:26.193950 18708 layer_factory.hpp:77] Creating layer relu2
I0425 14:14:26.193984 18708 net.cpp:91] Creating Layer relu2
I0425 14:14:26.194006 18708 net.cpp:425] relu2 <- ip2
I0425 14:14:26.194047 18708 net.cpp:386] relu2 -> ip2 (in-place)
I0425 14:14:26.194088 18708 net.cpp:141] Setting up relu2
I0425 14:14:26.194110 18708 net.cpp:148] Top shape: 100 10 (1000)
I0425 14:14:26.194123 18708 net.cpp:156] Memory required for data: 32402800
I0425 14:14:26.194142 18708 layer_factory.hpp:77] Creating layer ip2_relu2_0_split
I0425 14:14:26.194175 18708 net.cpp:91] Creating Layer ip2_relu2_0_split
I0425 14:14:26.194191 18708 net.cpp:425] ip2_relu2_0_split <- ip2
I0425 14:14:26.194236 18708 net.cpp:399] ip2_relu2_0_split -> ip2_relu2_0_split_0
I0425 14:14:26.194284 18708 net.cpp:399] ip2_relu2_0_split -> ip2_relu2_0_split_1
I0425 14:14:26.194334 18708 net.cpp:141] Setting up ip2_relu2_0_split
I0425 14:14:26.194361 18708 net.cpp:148] Top shape: 100 10 (1000)
I0425 14:14:26.194380 18708 net.cpp:148] Top shape: 100 10 (1000)
I0425 14:14:26.194392 18708 net.cpp:156] Memory required for data: 32410800
I0425 14:14:26.194411 18708 layer_factory.hpp:77] Creating layer accuracy
I0425 14:14:26.194460 18708 net.cpp:91] Creating Layer accuracy
I0425 14:14:26.194484 18708 net.cpp:425] accuracy <- ip2_relu2_0_split_0
I0425 14:14:26.194519 18708 net.cpp:425] accuracy <- label_mnist_1_split_0
I0425 14:14:26.194556 18708 net.cpp:399] accuracy -> accuracy
…
