…
I0417 21:05:15.872763  4341 net.cpp:313] The NetState phase (0) differed from the phase (1) specified by a rule in layer mnist
I0417 21:05:15.872903  4341 net.cpp:313] The NetState phase (0) differed from the phase (1) specified by a rule in layer accuracy
I0417 21:05:15.873328  4341 net.cpp:49] Initializing net from parameters: 
name: "LeNet"
state {
  phase: TRAIN
}
layer {
  name: "mnist"
  type: "Data"
  top: "data"
  top: "label"
  include {
    phase: TRAIN
  }
  transform_param {
    scale: 0.00390625
  }
  data_param {
    source: "examples/mnist/mnist_train_lmdb"
    batch_size: 64
    backend: LMDB
  }
}
layer {
  name: "conv0"
  type: "Convolution"
  bottom: "data"
  top: "conv0"
  param {
    lr_mult: 1
  }
  param {
    lr_mult: 2
  }
  convolution_param {
    num_output: 150
    kernel_size: 5
    stride: 1
    weight_filler {
      type: "xavier"
    }
    bias_filler {
      type: "constant"
    }
  }
}
layer {
  name: "pool0"
  type: "Pooling"
  bottom: "conv0"
  top: "pool0"
  pooling_param {
    pool: MAX
    kernel_size: 2
    stride: 2
  }
}
layer {
  name: "conv1"
  type: "Convolution"
  bottom: "pool0"
  top: "conv1"
  param {
    lr_mult: 1
  }
  param {
    lr_mult: 2
  }
  convolution_param {
    num_output: 150
    kernel_size: 5
    stride: 1
    weight_filler {
      type: "xavier"
    }
    bias_filler {
      type: "constant"
    }
  }
}
layer {
  name: "pool1"
  type: "Pooling"
  bottom: "conv1"
  top: "pool1"
  pooling_param {
    pool: MAX
    kernel_size: 2
    stride: 2
  }
}
layer {
  name: "ip1"
  type: "InnerProduct"
  bottom: "pool1"
  top: "ip1"
  param {
    lr_mult: 1
  }
  param {
    lr_mult: 2
  }
  inner_product_param {
    num_output: 100
    weight_filler {
      type: "xavier"
    }
    bias_filler {
      type: "constant"
    }
  }
}
layer {
  name: "relu1"
  type: "ReLU"
  bottom: "ip1"
  top: "ip1"
}
layer {
  name: "ip2"
  type: "InnerProduct"
  bottom: "ip1"
  top: "ip2"
  param {
    lr_mult: 1
  }
  param {
    lr_mult: 2
  }
  inner_product_param {
    num_output: 10
    weight_filler {
      type: "xavier"
    }
    bias_filler {
      type: "constant"
    }
  }
}
layer {
  name: "relu2"
  type: "ReLU"
  bottom: "ip2"
  top: "ip2"
}
layer {
  name: "loss"
  type: "SoftmaxWithLoss"
  bottom: "ip2"
  bottom: "label"
  top: "loss"
}
I0417 21:05:15.876375  4341 layer_factory.hpp:77] Creating layer mnist
I0417 21:05:15.881645  4341 net.cpp:91] Creating Layer mnist
I0417 21:05:15.881750  4341 net.cpp:399] mnist -> data
I0417 21:05:15.882017  4341 net.cpp:399] mnist -> label
I0417 21:05:15.885741  4374 db_lmdb.cpp:35] Opened lmdb examples/mnist/mnist_train_lmdb
I0417 21:05:15.886492  4341 data_layer.cpp:41] output data size: 64,1,28,28
I0417 21:05:15.888031  4341 base_data_layer.cpp:69] Initializing prefetch
I0417 21:05:15.888202  4341 base_data_layer.cpp:72] Prefetch initialized.
I0417 21:05:15.888244  4341 net.cpp:141] Setting up mnist
I0417 21:05:15.888352  4341 net.cpp:148] Top shape: 64 1 28 28 (50176)
I0417 21:05:15.888415  4341 net.cpp:148] Top shape: 64 (64)
I0417 21:05:15.888450  4341 net.cpp:156] Memory required for data: 200960
I0417 21:05:15.888514  4341 layer_factory.hpp:77] Creating layer conv0
I0417 21:05:15.888638  4341 net.cpp:91] Creating Layer conv0
I0417 21:05:15.888694  4341 net.cpp:425] conv0 <- data
I0417 21:05:15.888815  4341 net.cpp:399] conv0 -> conv0
I0417 21:05:15.890213  4341 net.cpp:141] Setting up conv0
I0417 21:05:15.890264  4341 net.cpp:148] Top shape: 64 150 24 24 (5529600)
I0417 21:05:15.890288  4341 net.cpp:156] Memory required for data: 22319360
I0417 21:05:15.890486  4341 layer_factory.hpp:77] Creating layer pool0
I0417 21:05:15.890568  4341 net.cpp:91] Creating Layer pool0
I0417 21:05:15.890601  4341 net.cpp:425] pool0 <- conv0
I0417 21:05:15.890694  4341 net.cpp:399] pool0 -> pool0
I0417 21:05:15.890827  4341 net.cpp:141] Setting up pool0
I0417 21:05:15.890873  4341 net.cpp:148] Top shape: 64 150 12 12 (1382400)
I0417 21:05:15.890900  4341 net.cpp:156] Memory required for data: 27848960
I0417 21:05:15.890933  4341 layer_factory.hpp:77] Creating layer conv1
I0417 21:05:15.891016  4341 net.cpp:91] Creating Layer conv1
I0417 21:05:15.891049  4341 net.cpp:425] conv1 <- pool0
I0417 21:05:15.891165  4341 net.cpp:399] conv1 -> conv1
I0417 21:05:15.895746  4375 data_layer.cpp:102] Prefetch batch: 4 ms.
I0417 21:05:15.895823  4375 data_layer.cpp:103]      Read time: 0.554 ms.
I0417 21:05:15.895855  4375 data_layer.cpp:104] Transform time: 2.688 ms.
I0417 21:05:15.906891  4375 data_layer.cpp:102] Prefetch batch: 10 ms.
I0417 21:05:15.906929  4375 data_layer.cpp:103]      Read time: 0.551 ms.
I0417 21:05:15.906955  4375 data_layer.cpp:104] Transform time: 9.153 ms.
I0417 21:05:15.918004  4375 data_layer.cpp:102] Prefetch batch: 10 ms.
I0417 21:05:15.918040  4375 data_layer.cpp:103]      Read time: 0.523 ms.
I0417 21:05:15.918064  4375 data_layer.cpp:104] Transform time: 9.2 ms.
I0417 21:05:16.016305  4341 net.cpp:141] Setting up conv1
I0417 21:05:16.016366  4341 net.cpp:148] Top shape: 64 150 8 8 (614400)
I0417 21:05:16.016381  4341 net.cpp:156] Memory required for data: 30306560
I0417 21:05:16.016445  4341 layer_factory.hpp:77] Creating layer pool1
I0417 21:05:16.016502  4341 net.cpp:91] Creating Layer pool1
I0417 21:05:16.016528  4341 net.cpp:425] pool1 <- conv1
I0417 21:05:16.016577  4341 net.cpp:399] pool1 -> pool1
I0417 21:05:16.016652  4341 net.cpp:141] Setting up pool1
I0417 21:05:16.016681  4341 net.cpp:148] Top shape: 64 150 4 4 (153600)
I0417 21:05:16.016695  4341 net.cpp:156] Memory required for data: 30920960
I0417 21:05:16.016715  4341 layer_factory.hpp:77] Creating layer ip1
I0417 21:05:16.016765  4341 net.cpp:91] Creating Layer ip1
I0417 21:05:16.016789  4341 net.cpp:425] ip1 <- pool1
I0417 21:05:16.016840  4341 net.cpp:399] ip1 -> ip1
I0417 21:05:16.054543  4341 net.cpp:141] Setting up ip1
I0417 21:05:16.054580  4341 net.cpp:148] Top shape: 64 100 (6400)
I0417 21:05:16.054592  4341 net.cpp:156] Memory required for data: 30946560
I0417 21:05:16.054653  4341 layer_factory.hpp:77] Creating layer relu1
I0417 21:05:16.054700  4341 net.cpp:91] Creating Layer relu1
I0417 21:05:16.054724  4341 net.cpp:425] relu1 <- ip1
I0417 21:05:16.054766  4341 net.cpp:386] relu1 -> ip1 (in-place)
I0417 21:05:16.054812  4341 net.cpp:141] Setting up relu1
I0417 21:05:16.054834  4341 net.cpp:148] Top shape: 64 100 (6400)
I0417 21:05:16.054847  4341 net.cpp:156] Memory required for data: 30972160
I0417 21:05:16.054865  4341 layer_factory.hpp:77] Creating layer ip2
I0417 21:05:16.054908  4341 net.cpp:91] Creating Layer ip2
I0417 21:05:16.054929  4341 net.cpp:425] ip2 <- ip1
I0417 21:05:16.054977  4341 net.cpp:399] ip2 -> ip2
I0417 21:05:16.055244  4341 net.cpp:141] Setting up ip2
I0417 21:05:16.055276  4341 net.cpp:148] Top shape: 64 10 (640)
I0417 21:05:16.055290  4341 net.cpp:156] Memory required for data: 30974720
I0417 21:05:16.055338  4341 layer_factory.hpp:77] Creating layer relu2
I0417 21:05:16.055385  4341 net.cpp:91] Creating Layer relu2
I0417 21:05:16.055408  4341 net.cpp:425] relu2 <- ip2
I0417 21:05:16.055447  4341 net.cpp:386] relu2 -> ip2 (in-place)
I0417 21:05:16.055490  4341 net.cpp:141] Setting up relu2
I0417 21:05:16.055510  4341 net.cpp:148] Top shape: 64 10 (640)
I0417 21:05:16.055519  4341 net.cpp:156] Memory required for data: 30977280
I0417 21:05:16.055536  4341 layer_factory.hpp:77] Creating layer loss
I0417 21:05:16.055584  4341 net.cpp:91] Creating Layer loss
I0417 21:05:16.055608  4341 net.cpp:425] loss <- ip2
I0417 21:05:16.055642  4341 net.cpp:425] loss <- label
I0417 21:05:16.055681  4341 net.cpp:399] loss -> loss
I0417 21:05:16.055775  4341 layer_factory.hpp:77] Creating layer loss
…
I0417 21:05:16.057657  4341 solver.cpp:181] Creating test net (#0) specified by net file: ECE595/mnist/train_test/var_num_feature/lenet_train_test_featuresize150.prototxt
I0417 21:05:16.057824  4341 net.cpp:313] The NetState phase (1) differed from the phase (0) specified by a rule in layer mnist
I0417 21:05:16.058152  4341 net.cpp:49] Initializing net from parameters: 
name: "LeNet"
state {
  phase: TEST
}
layer {
  name: "mnist"
  type: "Data"
  top: "data"
  top: "label"
  include {
    phase: TEST
  }
  transform_param {
    scale: 0.00390625
  }
  data_param {
    source: "examples/mnist/mnist_test_lmdb"
    batch_size: 100
    backend: LMDB
  }
}
layer {
  name: "conv0"
  type: "Convolution"
  bottom: "data"
  top: "conv0"
  param {
    lr_mult: 1
  }
  param {
    lr_mult: 2
  }
  convolution_param {
    num_output: 150
    kernel_size: 5
    stride: 1
    weight_filler {
      type: "xavier"
    }
    bias_filler {
      type: "constant"
    }
  }
}
layer {
  name: "pool0"
  type: "Pooling"
  bottom: "conv0"
  top: "pool0"
  pooling_param {
    pool: MAX
    kernel_size: 2
    stride: 2
  }
}
layer {
  name: "conv1"
  type: "Convolution"
  bottom: "pool0"
  top: "conv1"
  param {
    lr_mult: 1
  }
  param {
    lr_mult: 2
  }
  convolution_param {
    num_output: 150
    kernel_size: 5
    stride: 1
    weight_filler {
      type: "xavier"
    }
    bias_filler {
      type: "constant"
    }
  }
}
layer {
  name: "pool1"
  type: "Pooling"
  bottom: "conv1"
  top: "pool1"
  pooling_param {
    pool: MAX
    kernel_size: 2
    stride: 2
  }
}
layer {
  name: "ip1"
  type: "InnerProduct"
  bottom: "pool1"
  top: "ip1"
  param {
    lr_mult: 1
  }
  param {
    lr_mult: 2
  }
  inner_product_param {
    num_output: 100
    weight_filler {
      type: "xavier"
    }
    bias_filler {
      type: "constant"
    }
  }
}
layer {
  name: "relu1"
  type: "ReLU"
  bottom: "ip1"
  top: "ip1"
}
layer {
  name: "ip2"
  type: "InnerProduct"
  bottom: "ip1"
  top: "ip2"
  param {
    lr_mult: 1
  }
  param {
    lr_mult: 2
  }
  inner_product_param {
    num_output: 10
    weight_filler {
      type: "xavier"
    }
    bias_filler {
      type: "constant"
    }
  }
}
layer {
  name: "relu2"
  type: "ReLU"
  bottom: "ip2"
  top: "ip2"
}
layer {
  name: "accuracy"
  type: "Accuracy"
  bottom: "ip2"
  bottom: "label"
  top: "accuracy"
  include {
    phase: TEST
  }
}
layer {
  name: "loss"
  type: "SoftmaxWithLoss"
  bottom: "ip2"
  bottom: "label"
  top: "loss"
}
I0417 21:05:16.058729  4341 layer_factory.hpp:77] Creating layer mnist
I0417 21:05:16.059183  4341 net.cpp:91] Creating Layer mnist
I0417 21:05:16.059234  4341 net.cpp:399] mnist -> data
I0417 21:05:16.059310  4341 net.cpp:399] mnist -> label
I0417 21:05:16.063205  4376 db_lmdb.cpp:35] Opened lmdb examples/mnist/mnist_test_lmdb
I0417 21:05:16.063834  4341 data_layer.cpp:41] output data size: 100,1,28,28
I0417 21:05:16.064931  4341 base_data_layer.cpp:69] Initializing prefetch
I0417 21:05:16.065863  4341 base_data_layer.cpp:72] Prefetch initialized.
I0417 21:05:16.065886  4341 net.cpp:141] Setting up mnist
I0417 21:05:16.065917  4341 net.cpp:148] Top shape: 100 1 28 28 (78400)
I0417 21:05:16.065937  4341 net.cpp:148] Top shape: 100 (100)
I0417 21:05:16.065948  4341 net.cpp:156] Memory required for data: 314000
I0417 21:05:16.065976  4341 layer_factory.hpp:77] Creating layer label_mnist_1_split
I0417 21:05:16.066059  4341 net.cpp:91] Creating Layer label_mnist_1_split
I0417 21:05:16.066088  4341 net.cpp:425] label_mnist_1_split <- label
I0417 21:05:16.066153  4341 net.cpp:399] label_mnist_1_split -> label_mnist_1_split_0
I0417 21:05:16.066224  4341 net.cpp:399] label_mnist_1_split -> label_mnist_1_split_1
I0417 21:05:16.066298  4341 net.cpp:141] Setting up label_mnist_1_split
I0417 21:05:16.066334  4341 net.cpp:148] Top shape: 100 (100)
I0417 21:05:16.066352  4341 net.cpp:148] Top shape: 100 (100)
I0417 21:05:16.066370  4341 net.cpp:156] Memory required for data: 314800
I0417 21:05:16.066390  4341 layer_factory.hpp:77] Creating layer conv0
I0417 21:05:16.066486  4341 net.cpp:91] Creating Layer conv0
I0417 21:05:16.066517  4341 net.cpp:425] conv0 <- data
I0417 21:05:16.066581  4341 net.cpp:399] conv0 -> conv0
I0417 21:05:16.067471  4341 net.cpp:141] Setting up conv0
I0417 21:05:16.067523  4341 net.cpp:148] Top shape: 100 150 24 24 (8640000)
I0417 21:05:16.067539  4341 net.cpp:156] Memory required for data: 34874800
I0417 21:05:16.067633  4341 layer_factory.hpp:77] Creating layer pool0
I0417 21:05:16.067697  4341 net.cpp:91] Creating Layer pool0
I0417 21:05:16.067720  4341 net.cpp:425] pool0 <- conv0
I0417 21:05:16.067780  4341 net.cpp:399] pool0 -> pool0
I0417 21:05:16.067857  4341 net.cpp:141] Setting up pool0
I0417 21:05:16.067886  4341 net.cpp:148] Top shape: 100 150 12 12 (2160000)
I0417 21:05:16.067900  4341 net.cpp:156] Memory required for data: 43514800
I0417 21:05:16.067920  4341 layer_factory.hpp:77] Creating layer conv1
I0417 21:05:16.067991  4341 net.cpp:91] Creating Layer conv1
I0417 21:05:16.068017  4341 net.cpp:425] conv1 <- pool0
I0417 21:05:16.068073  4341 net.cpp:399] conv1 -> conv1
I0417 21:05:16.070298  4377 data_layer.cpp:102] Prefetch batch: 4 ms.
I0417 21:05:16.070338  4377 data_layer.cpp:103]      Read time: 0.468 ms.
I0417 21:05:16.070351  4377 data_layer.cpp:104] Transform time: 2.636 ms.
I0417 21:05:16.074422  4377 data_layer.cpp:102] Prefetch batch: 4 ms.
I0417 21:05:16.074445  4377 data_layer.cpp:103]      Read time: 0.423 ms.
I0417 21:05:16.074457  4377 data_layer.cpp:104] Transform time: 2.532 ms.
I0417 21:05:16.078500  4377 data_layer.cpp:102] Prefetch batch: 4 ms.
I0417 21:05:16.078524  4377 data_layer.cpp:103]      Read time: 0.43 ms.
I0417 21:05:16.078536  4377 data_layer.cpp:104] Transform time: 2.516 ms.
I0417 21:05:16.157209  4341 net.cpp:141] Setting up conv1
I0417 21:05:16.157250  4341 net.cpp:148] Top shape: 100 150 8 8 (960000)
I0417 21:05:16.157261  4341 net.cpp:156] Memory required for data: 47354800
I0417 21:05:16.157327  4341 layer_factory.hpp:77] Creating layer pool1
I0417 21:05:16.157383  4341 net.cpp:91] Creating Layer pool1
I0417 21:05:16.157409  4341 net.cpp:425] pool1 <- conv1
I0417 21:05:16.157474  4341 net.cpp:399] pool1 -> pool1
I0417 21:05:16.157552  4341 net.cpp:141] Setting up pool1
I0417 21:05:16.157580  4341 net.cpp:148] Top shape: 100 150 4 4 (240000)
I0417 21:05:16.157591  4341 net.cpp:156] Memory required for data: 48314800
I0417 21:05:16.157608  4341 layer_factory.hpp:77] Creating layer ip1
I0417 21:05:16.157652  4341 net.cpp:91] Creating Layer ip1
I0417 21:05:16.157675  4341 net.cpp:425] ip1 <- pool1
I0417 21:05:16.157728  4341 net.cpp:399] ip1 -> ip1
I0417 21:05:16.195467  4341 net.cpp:141] Setting up ip1
I0417 21:05:16.195504  4341 net.cpp:148] Top shape: 100 100 (10000)
I0417 21:05:16.195516  4341 net.cpp:156] Memory required for data: 48354800
I0417 21:05:16.195576  4341 layer_factory.hpp:77] Creating layer relu1
I0417 21:05:16.195644  4341 net.cpp:91] Creating Layer relu1
I0417 21:05:16.195670  4341 net.cpp:425] relu1 <- ip1
I0417 21:05:16.195713  4341 net.cpp:386] relu1 -> ip1 (in-place)
I0417 21:05:16.195757  4341 net.cpp:141] Setting up relu1
I0417 21:05:16.195778  4341 net.cpp:148] Top shape: 100 100 (10000)
I0417 21:05:16.195791  4341 net.cpp:156] Memory required for data: 48394800
I0417 21:05:16.195809  4341 layer_factory.hpp:77] Creating layer ip2
I0417 21:05:16.195865  4341 net.cpp:91] Creating Layer ip2
I0417 21:05:16.195889  4341 net.cpp:425] ip2 <- ip1
I0417 21:05:16.195937  4341 net.cpp:399] ip2 -> ip2
I0417 21:05:16.196228  4341 net.cpp:141] Setting up ip2
I0417 21:05:16.196260  4341 net.cpp:148] Top shape: 100 10 (1000)
I0417 21:05:16.196274  4341 net.cpp:156] Memory required for data: 48398800
I0417 21:05:16.196313  4341 layer_factory.hpp:77] Creating layer relu2
I0417 21:05:16.196349  4341 net.cpp:91] Creating Layer relu2
I0417 21:05:16.196372  4341 net.cpp:425] relu2 <- ip2
I0417 21:05:16.196414  4341 net.cpp:386] relu2 -> ip2 (in-place)
I0417 21:05:16.196465  4341 net.cpp:141] Setting up relu2
I0417 21:05:16.196488  4341 net.cpp:148] Top shape: 100 10 (1000)
I0417 21:05:16.196504  4341 net.cpp:156] Memory required for data: 48402800
I0417 21:05:16.196524  4341 layer_factory.hpp:77] Creating layer ip2_relu2_0_split
I0417 21:05:16.196555  4341 net.cpp:91] Creating Layer ip2_relu2_0_split
I0417 21:05:16.196575  4341 net.cpp:425] ip2_relu2_0_split <- ip2
I0417 21:05:16.196614  4341 net.cpp:399] ip2_relu2_0_split -> ip2_relu2_0_split_0
I0417 21:05:16.196660  4341 net.cpp:399] ip2_relu2_0_split -> ip2_relu2_0_split_1
I0417 21:05:16.196709  4341 net.cpp:141] Setting up ip2_relu2_0_split
I0417 21:05:16.196735  4341 net.cpp:148] Top shape: 100 10 (1000)
I0417 21:05:16.196753  4341 net.cpp:148] Top shape: 100 10 (1000)
I0417 21:05:16.196766  4341 net.cpp:156] Memory required for data: 48410800
I0417 21:05:16.196787  4341 layer_factory.hpp:77] Creating layer accuracy
I0417 21:05:16.196841  4341 net.cpp:91] Creating Layer accuracy
I0417 21:05:16.196864  4341 net.cpp:425] accuracy <- ip2_relu2_0_split_0
I0417 21:05:16.196900  4341 net.cpp:425] accuracy <- label_mnist_1_split_0
I0417 21:05:16.196936  4341 net.cpp:399] accuracy -> accuracy
…
