…
I0425 14:07:19.898615 18365 net.cpp:313] The NetState phase (0) differed from the phase (1) specified by a rule in layer mnist
I0425 14:07:19.898754 18365 net.cpp:313] The NetState phase (0) differed from the phase (1) specified by a rule in layer accuracy
I0425 14:07:19.899194 18365 net.cpp:49] Initializing net from parameters: 
name: "LeNet"
state {
  phase: TRAIN
}
layer {
  name: "mnist"
  type: "Data"
  top: "data"
  top: "label"
  include {
    phase: TRAIN
  }
  transform_param {
    scale: 0.00390625
  }
  data_param {
    source: "examples/mnist/mnist_train_lmdb"
    batch_size: 64
    backend: LMDB
  }
}
layer {
  name: "conv0"
  type: "Convolution"
  bottom: "data"
  top: "conv0"
  param {
    lr_mult: 1
  }
  param {
    lr_mult: 2
  }
  convolution_param {
    num_output: 50
    kernel_size: 5
    stride: 1
    weight_filler {
      type: "xavier"
    }
    bias_filler {
      type: "constant"
    }
  }
}
layer {
  name: "pool0"
  type: "Pooling"
  bottom: "conv0"
  top: "pool0"
  pooling_param {
    pool: MAX
    kernel_size: 2
    stride: 2
  }
}
layer {
  name: "conv1"
  type: "Convolution"
  bottom: "pool0"
  top: "conv1"
  param {
    lr_mult: 1
  }
  param {
    lr_mult: 2
  }
  convolution_param {
    num_output: 50
    kernel_size: 5
    stride: 1
    weight_filler {
      type: "xavier"
    }
    bias_filler {
      type: "constant"
    }
  }
}
layer {
  name: "pool1"
  type: "Pooling"
  bottom: "conv1"
  top: "pool1"
  pooling_param {
    pool: MAX
    kernel_size: 2
    stride: 2
  }
}
layer {
  name: "ip1"
  type: "InnerProduct"
  bottom: "pool1"
  top: "ip1"
  param {
    lr_mult: 1
  }
  param {
    lr_mult: 2
  }
  inner_product_param {
    num_output: 100
    weight_filler {
      type: "xavier"
    }
    bias_filler {
      type: "constant"
    }
  }
}
layer {
  name: "relu1"
  type: "ReLU"
  bottom: "ip1"
  top: "ip1"
}
layer {
  name: "ip2"
  type: "InnerProduct"
  bottom: "ip1"
  top: "ip2"
  param {
    lr_mult: 1
  }
  param {
    lr_mult: 2
  }
  inner_product_param {
    num_output: 10
    weight_filler {
      type: "xavier"
    }
    bias_filler {
      type: "constant"
    }
  }
}
layer {
  name: "relu2"
  type: "ReLU"
  bottom: "ip2"
  top: "ip2"
}
layer {
  name: "loss"
  type: "SoftmaxWithLoss"
  bottom: "ip2"
  bottom: "label"
  top: "loss"
}
I0425 14:07:19.900279 18365 layer_factory.hpp:77] Creating layer mnist
I0425 14:07:19.903458 18365 net.cpp:91] Creating Layer mnist
I0425 14:07:19.903568 18365 net.cpp:399] mnist -> data
I0425 14:07:19.903843 18365 net.cpp:399] mnist -> label
I0425 14:07:19.906571 18398 db_lmdb.cpp:35] Opened lmdb examples/mnist/mnist_train_lmdb
I0425 14:07:19.907191 18365 data_layer.cpp:41] output data size: 64,1,28,28
I0425 14:07:19.908169 18365 base_data_layer.cpp:69] Initializing prefetch
I0425 14:07:19.908969 18365 base_data_layer.cpp:72] Prefetch initialized.
I0425 14:07:19.909013 18365 net.cpp:141] Setting up mnist
I0425 14:07:19.909106 18365 net.cpp:148] Top shape: 64 1 28 28 (50176)
I0425 14:07:19.909154 18365 net.cpp:148] Top shape: 64 (64)
I0425 14:07:19.909185 18365 net.cpp:156] Memory required for data: 200960
I0425 14:07:19.909250 18365 layer_factory.hpp:77] Creating layer conv0
I0425 14:07:19.909389 18365 net.cpp:91] Creating Layer conv0
I0425 14:07:19.909451 18365 net.cpp:425] conv0 <- data
I0425 14:07:19.909600 18365 net.cpp:399] conv0 -> conv0
I0425 14:07:19.910382 18365 net.cpp:141] Setting up conv0
I0425 14:07:19.910434 18365 net.cpp:148] Top shape: 64 50 24 24 (1843200)
I0425 14:07:19.910456 18365 net.cpp:156] Memory required for data: 7573760
I0425 14:07:19.910648 18365 layer_factory.hpp:77] Creating layer pool0
I0425 14:07:19.910727 18365 net.cpp:91] Creating Layer pool0
I0425 14:07:19.910763 18365 net.cpp:425] pool0 <- conv0
I0425 14:07:19.910852 18365 net.cpp:399] pool0 -> pool0
I0425 14:07:19.910982 18365 net.cpp:141] Setting up pool0
I0425 14:07:19.911027 18365 net.cpp:148] Top shape: 64 50 12 12 (460800)
I0425 14:07:19.911052 18365 net.cpp:156] Memory required for data: 9416960
I0425 14:07:19.911083 18365 layer_factory.hpp:77] Creating layer conv1
I0425 14:07:19.911164 18365 net.cpp:91] Creating Layer conv1
I0425 14:07:19.911197 18365 net.cpp:425] conv1 <- pool0
I0425 14:07:19.911272 18365 net.cpp:399] conv1 -> conv1
I0425 14:07:19.916651 18399 data_layer.cpp:102] Prefetch batch: 4 ms.
I0425 14:07:19.916721 18399 data_layer.cpp:103]      Read time: 0.634 ms.
I0425 14:07:19.916754 18399 data_layer.cpp:104] Transform time: 2.727 ms.
I0425 14:07:19.928192 18399 data_layer.cpp:102] Prefetch batch: 11 ms.
I0425 14:07:19.928231 18399 data_layer.cpp:103]      Read time: 0.613 ms.
I0425 14:07:19.928256 18399 data_layer.cpp:104] Transform time: 9.508 ms.
I0425 14:07:19.931474 18365 net.cpp:141] Setting up conv1
I0425 14:07:19.931535 18365 net.cpp:148] Top shape: 64 50 8 8 (204800)
I0425 14:07:19.931560 18365 net.cpp:156] Memory required for data: 10236160
I0425 14:07:19.931654 18365 layer_factory.hpp:77] Creating layer pool1
I0425 14:07:19.931731 18365 net.cpp:91] Creating Layer pool1
I0425 14:07:19.931767 18365 net.cpp:425] pool1 <- conv1
I0425 14:07:19.931836 18365 net.cpp:399] pool1 -> pool1
I0425 14:07:19.931938 18365 net.cpp:141] Setting up pool1
I0425 14:07:19.931978 18365 net.cpp:148] Top shape: 64 50 4 4 (51200)
I0425 14:07:19.932001 18365 net.cpp:156] Memory required for data: 10440960
I0425 14:07:19.932032 18365 layer_factory.hpp:77] Creating layer ip1
I0425 14:07:19.932101 18365 net.cpp:91] Creating Layer ip1
I0425 14:07:19.932133 18365 net.cpp:425] ip1 <- pool1
I0425 14:07:19.932204 18365 net.cpp:399] ip1 -> ip1
I0425 14:07:19.939083 18399 data_layer.cpp:102] Prefetch batch: 10 ms.
I0425 14:07:19.939119 18399 data_layer.cpp:103]      Read time: 0.607 ms.
I0425 14:07:19.939143 18399 data_layer.cpp:104] Transform time: 2.702 ms.
I0425 14:07:19.953393 18365 net.cpp:141] Setting up ip1
I0425 14:07:19.953438 18365 net.cpp:148] Top shape: 64 100 (6400)
I0425 14:07:19.953451 18365 net.cpp:156] Memory required for data: 10466560
I0425 14:07:19.953523 18365 layer_factory.hpp:77] Creating layer relu1
I0425 14:07:19.953572 18365 net.cpp:91] Creating Layer relu1
I0425 14:07:19.953594 18365 net.cpp:425] relu1 <- ip1
I0425 14:07:19.953634 18365 net.cpp:386] relu1 -> ip1 (in-place)
I0425 14:07:19.953681 18365 net.cpp:141] Setting up relu1
I0425 14:07:19.953701 18365 net.cpp:148] Top shape: 64 100 (6400)
I0425 14:07:19.953713 18365 net.cpp:156] Memory required for data: 10492160
I0425 14:07:19.953730 18365 layer_factory.hpp:77] Creating layer ip2
I0425 14:07:19.953773 18365 net.cpp:91] Creating Layer ip2
I0425 14:07:19.953795 18365 net.cpp:425] ip2 <- ip1
I0425 14:07:19.953843 18365 net.cpp:399] ip2 -> ip2
I0425 14:07:19.954110 18365 net.cpp:141] Setting up ip2
I0425 14:07:19.954143 18365 net.cpp:148] Top shape: 64 10 (640)
I0425 14:07:19.954157 18365 net.cpp:156] Memory required for data: 10494720
I0425 14:07:19.954196 18365 layer_factory.hpp:77] Creating layer relu2
I0425 14:07:19.954241 18365 net.cpp:91] Creating Layer relu2
I0425 14:07:19.954263 18365 net.cpp:425] relu2 <- ip2
I0425 14:07:19.954305 18365 net.cpp:386] relu2 -> ip2 (in-place)
I0425 14:07:19.954349 18365 net.cpp:141] Setting up relu2
I0425 14:07:19.954370 18365 net.cpp:148] Top shape: 64 10 (640)
I0425 14:07:19.954383 18365 net.cpp:156] Memory required for data: 10497280
I0425 14:07:19.954401 18365 layer_factory.hpp:77] Creating layer loss
I0425 14:07:19.954447 18365 net.cpp:91] Creating Layer loss
I0425 14:07:19.954469 18365 net.cpp:425] loss <- ip2
I0425 14:07:19.954517 18365 net.cpp:425] loss <- label
I0425 14:07:19.954561 18365 net.cpp:399] loss -> loss
I0425 14:07:19.954664 18365 layer_factory.hpp:77] Creating layer loss
…
I0425 14:07:19.956490 18365 solver.cpp:181] Creating test net (#0) specified by net file: ECE595/mnist/train_test/var_num_feature/lenet_train_test_featuresize50.prototxt
I0425 14:07:19.956681 18365 net.cpp:313] The NetState phase (1) differed from the phase (0) specified by a rule in layer mnist
I0425 14:07:19.957012 18365 net.cpp:49] Initializing net from parameters: 
name: "LeNet"
state {
  phase: TEST
}
layer {
  name: "mnist"
  type: "Data"
  top: "data"
  top: "label"
  include {
    phase: TEST
  }
  transform_param {
    scale: 0.00390625
  }
  data_param {
    source: "examples/mnist/mnist_test_lmdb"
    batch_size: 100
    backend: LMDB
  }
}
layer {
  name: "conv0"
  type: "Convolution"
  bottom: "data"
  top: "conv0"
  param {
    lr_mult: 1
  }
  param {
    lr_mult: 2
  }
  convolution_param {
    num_output: 50
    kernel_size: 5
    stride: 1
    weight_filler {
      type: "xavier"
    }
    bias_filler {
      type: "constant"
    }
  }
}
layer {
  name: "pool0"
  type: "Pooling"
  bottom: "conv0"
  top: "pool0"
  pooling_param {
    pool: MAX
    kernel_size: 2
    stride: 2
  }
}
layer {
  name: "conv1"
  type: "Convolution"
  bottom: "pool0"
  top: "conv1"
  param {
    lr_mult: 1
  }
  param {
    lr_mult: 2
  }
  convolution_param {
    num_output: 50
    kernel_size: 5
    stride: 1
    weight_filler {
      type: "xavier"
    }
    bias_filler {
      type: "constant"
    }
  }
}
layer {
  name: "pool1"
  type: "Pooling"
  bottom: "conv1"
  top: "pool1"
  pooling_param {
    pool: MAX
    kernel_size: 2
    stride: 2
  }
}
layer {
  name: "ip1"
  type: "InnerProduct"
  bottom: "pool1"
  top: "ip1"
  param {
    lr_mult: 1
  }
  param {
    lr_mult: 2
  }
  inner_product_param {
    num_output: 100
    weight_filler {
      type: "xavier"
    }
    bias_filler {
      type: "constant"
    }
  }
}
layer {
  name: "relu1"
  type: "ReLU"
  bottom: "ip1"
  top: "ip1"
}
layer {
  name: "ip2"
  type: "InnerProduct"
  bottom: "ip1"
  top: "ip2"
  param {
    lr_mult: 1
  }
  param {
    lr_mult: 2
  }
  inner_product_param {
    num_output: 10
    weight_filler {
      type: "xavier"
    }
    bias_filler {
      type: "constant"
    }
  }
}
layer {
  name: "relu2"
  type: "ReLU"
  bottom: "ip2"
  top: "ip2"
}
layer {
  name: "accuracy"
  type: "Accuracy"
  bottom: "ip2"
  bottom: "label"
  top: "accuracy"
  include {
    phase: TEST
  }
}
layer {
  name: "loss"
  type: "SoftmaxWithLoss"
  bottom: "ip2"
  bottom: "label"
  top: "loss"
}
I0425 14:07:19.957576 18365 layer_factory.hpp:77] Creating layer mnist
I0425 14:07:19.958066 18365 net.cpp:91] Creating Layer mnist
I0425 14:07:19.958125 18365 net.cpp:399] mnist -> data
I0425 14:07:19.958209 18365 net.cpp:399] mnist -> label
I0425 14:07:19.961881 18400 db_lmdb.cpp:35] Opened lmdb examples/mnist/mnist_test_lmdb
I0425 14:07:19.962417 18365 data_layer.cpp:41] output data size: 100,1,28,28
I0425 14:07:19.963404 18365 base_data_layer.cpp:69] Initializing prefetch
I0425 14:07:19.963508 18365 base_data_layer.cpp:72] Prefetch initialized.
I0425 14:07:19.963532 18365 net.cpp:141] Setting up mnist
I0425 14:07:19.963567 18365 net.cpp:148] Top shape: 100 1 28 28 (78400)
I0425 14:07:19.963603 18365 net.cpp:148] Top shape: 100 (100)
I0425 14:07:19.963634 18365 net.cpp:156] Memory required for data: 314000
I0425 14:07:19.963668 18365 layer_factory.hpp:77] Creating layer label_mnist_1_split
I0425 14:07:19.963747 18365 net.cpp:91] Creating Layer label_mnist_1_split
I0425 14:07:19.963784 18365 net.cpp:425] label_mnist_1_split <- label
I0425 14:07:19.963840 18365 net.cpp:399] label_mnist_1_split -> label_mnist_1_split_0
I0425 14:07:19.963922 18365 net.cpp:399] label_mnist_1_split -> label_mnist_1_split_1
I0425 14:07:19.964005 18365 net.cpp:141] Setting up label_mnist_1_split
I0425 14:07:19.964043 18365 net.cpp:148] Top shape: 100 (100)
I0425 14:07:19.964068 18365 net.cpp:148] Top shape: 100 (100)
I0425 14:07:19.964087 18365 net.cpp:156] Memory required for data: 314800
I0425 14:07:19.964112 18365 layer_factory.hpp:77] Creating layer conv0
I0425 14:07:19.964197 18365 net.cpp:91] Creating Layer conv0
I0425 14:07:19.964231 18365 net.cpp:425] conv0 <- data
I0425 14:07:19.964298 18365 net.cpp:399] conv0 -> conv0
I0425 14:07:19.964771 18365 net.cpp:141] Setting up conv0
I0425 14:07:19.964818 18365 net.cpp:148] Top shape: 100 50 24 24 (2880000)
I0425 14:07:19.964838 18365 net.cpp:156] Memory required for data: 11834800
I0425 14:07:19.964932 18365 layer_factory.hpp:77] Creating layer pool0
I0425 14:07:19.964993 18365 net.cpp:91] Creating Layer pool0
I0425 14:07:19.965023 18365 net.cpp:425] pool0 <- conv0
I0425 14:07:19.965098 18365 net.cpp:399] pool0 -> pool0
I0425 14:07:19.965189 18365 net.cpp:141] Setting up pool0
I0425 14:07:19.965224 18365 net.cpp:148] Top shape: 100 50 12 12 (720000)
I0425 14:07:19.965245 18365 net.cpp:156] Memory required for data: 14714800
I0425 14:07:19.965267 18365 layer_factory.hpp:77] Creating layer conv1
I0425 14:07:19.965342 18401 data_layer.cpp:102] Prefetch batch: 1 ms.
I0425 14:07:19.965358 18365 net.cpp:91] Creating Layer conv1
I0425 14:07:19.965365 18401 data_layer.cpp:103]      Read time: 0.234 ms.
I0425 14:07:19.965389 18401 data_layer.cpp:104] Transform time: 1.065 ms.
I0425 14:07:19.965390 18365 net.cpp:425] conv1 <- pool0
I0425 14:07:19.965448 18365 net.cpp:399] conv1 -> conv1
I0425 14:07:19.967058 18401 data_layer.cpp:102] Prefetch batch: 1 ms.
I0425 14:07:19.967072 18401 data_layer.cpp:103]      Read time: 0.191 ms.
I0425 14:07:19.967077 18401 data_layer.cpp:104] Transform time: 1.011 ms.
I0425 14:07:19.968731 18401 data_layer.cpp:102] Prefetch batch: 1 ms.
I0425 14:07:19.968741 18401 data_layer.cpp:103]      Read time: 0.151 ms.
I0425 14:07:19.968746 18401 data_layer.cpp:104] Transform time: 1.015 ms.
I0425 14:07:19.975816 18365 net.cpp:141] Setting up conv1
I0425 14:07:19.975854 18365 net.cpp:148] Top shape: 100 50 8 8 (320000)
I0425 14:07:19.975867 18365 net.cpp:156] Memory required for data: 15994800
I0425 14:07:19.975929 18365 layer_factory.hpp:77] Creating layer pool1
I0425 14:07:19.975975 18365 net.cpp:91] Creating Layer pool1
I0425 14:07:19.976001 18365 net.cpp:425] pool1 <- conv1
I0425 14:07:19.976053 18365 net.cpp:399] pool1 -> pool1
I0425 14:07:19.976128 18365 net.cpp:141] Setting up pool1
I0425 14:07:19.976156 18365 net.cpp:148] Top shape: 100 50 4 4 (80000)
I0425 14:07:19.976171 18365 net.cpp:156] Memory required for data: 16314800
I0425 14:07:19.976189 18365 layer_factory.hpp:77] Creating layer ip1
I0425 14:07:19.976235 18365 net.cpp:91] Creating Layer ip1
I0425 14:07:19.976259 18365 net.cpp:425] ip1 <- pool1
I0425 14:07:19.976308 18365 net.cpp:399] ip1 -> ip1
I0425 14:07:19.988909 18365 net.cpp:141] Setting up ip1
I0425 14:07:19.988946 18365 net.cpp:148] Top shape: 100 100 (10000)
I0425 14:07:19.988958 18365 net.cpp:156] Memory required for data: 16354800
I0425 14:07:19.989018 18365 layer_factory.hpp:77] Creating layer relu1
I0425 14:07:19.989058 18365 net.cpp:91] Creating Layer relu1
I0425 14:07:19.989097 18365 net.cpp:425] relu1 <- ip1
I0425 14:07:19.989140 18365 net.cpp:386] relu1 -> ip1 (in-place)
I0425 14:07:19.989187 18365 net.cpp:141] Setting up relu1
I0425 14:07:19.989208 18365 net.cpp:148] Top shape: 100 100 (10000)
I0425 14:07:19.989222 18365 net.cpp:156] Memory required for data: 16394800
I0425 14:07:19.989240 18365 layer_factory.hpp:77] Creating layer ip2
I0425 14:07:19.989307 18365 net.cpp:91] Creating Layer ip2
I0425 14:07:19.989344 18365 net.cpp:425] ip2 <- ip1
I0425 14:07:19.989398 18365 net.cpp:399] ip2 -> ip2
I0425 14:07:19.989692 18365 net.cpp:141] Setting up ip2
I0425 14:07:19.989727 18365 net.cpp:148] Top shape: 100 10 (1000)
I0425 14:07:19.989742 18365 net.cpp:156] Memory required for data: 16398800
I0425 14:07:19.989780 18365 layer_factory.hpp:77] Creating layer relu2
I0425 14:07:19.989815 18365 net.cpp:91] Creating Layer relu2
I0425 14:07:19.989835 18365 net.cpp:425] relu2 <- ip2
I0425 14:07:19.989883 18365 net.cpp:386] relu2 -> ip2 (in-place)
I0425 14:07:19.989925 18365 net.cpp:141] Setting up relu2
I0425 14:07:19.989948 18365 net.cpp:148] Top shape: 100 10 (1000)
I0425 14:07:19.989959 18365 net.cpp:156] Memory required for data: 16402800
I0425 14:07:19.989976 18365 layer_factory.hpp:77] Creating layer ip2_relu2_0_split
I0425 14:07:19.990008 18365 net.cpp:91] Creating Layer ip2_relu2_0_split
I0425 14:07:19.990028 18365 net.cpp:425] ip2_relu2_0_split <- ip2
I0425 14:07:19.990066 18365 net.cpp:399] ip2_relu2_0_split -> ip2_relu2_0_split_0
I0425 14:07:19.990108 18365 net.cpp:399] ip2_relu2_0_split -> ip2_relu2_0_split_1
I0425 14:07:19.990160 18365 net.cpp:141] Setting up ip2_relu2_0_split
I0425 14:07:19.990186 18365 net.cpp:148] Top shape: 100 10 (1000)
I0425 14:07:19.990206 18365 net.cpp:148] Top shape: 100 10 (1000)
I0425 14:07:19.990217 18365 net.cpp:156] Memory required for data: 16410800
I0425 14:07:19.990234 18365 layer_factory.hpp:77] Creating layer accuracy
I0425 14:07:19.990283 18365 net.cpp:91] Creating Layer accuracy
I0425 14:07:19.990305 18365 net.cpp:425] accuracy <- ip2_relu2_0_split_0
I0425 14:07:19.990339 18365 net.cpp:425] accuracy <- label_mnist_1_split_0
I0425 14:07:19.990378 18365 net.cpp:399] accuracy -> accuracy
…
