…
I0417 20:52:31.247520  2691 net.cpp:313] The NetState phase (0) differed from the phase (1) specified by a rule in layer mnist
I0417 20:52:31.247661  2691 net.cpp:313] The NetState phase (0) differed from the phase (1) specified by a rule in layer accuracy
I0417 20:52:31.248091  2691 net.cpp:49] Initializing net from parameters: 
name: "LeNet"
state {
  phase: TRAIN
}
layer {
  name: "mnist"
  type: "Data"
  top: "data"
  top: "label"
  include {
    phase: TRAIN
  }
  transform_param {
    scale: 0.00390625
  }
  data_param {
    source: "examples/mnist/mnist_train_lmdb"
    batch_size: 64
    backend: LMDB
  }
}
layer {
  name: "conv0"
  type: "Convolution"
  bottom: "data"
  top: "conv0"
  param {
    lr_mult: 1
  }
  param {
    lr_mult: 2
  }
  convolution_param {
    num_output: 100
    kernel_size: 5
    stride: 1
    weight_filler {
      type: "xavier"
    }
    bias_filler {
      type: "constant"
    }
  }
}
layer {
  name: "pool0"
  type: "Pooling"
  bottom: "conv0"
  top: "pool0"
  pooling_param {
    pool: MAX
    kernel_size: 2
    stride: 2
  }
}
layer {
  name: "conv1"
  type: "Convolution"
  bottom: "pool0"
  top: "conv1"
  param {
    lr_mult: 1
  }
  param {
    lr_mult: 2
  }
  convolution_param {
    num_output: 100
    kernel_size: 5
    stride: 1
    weight_filler {
      type: "xavier"
    }
    bias_filler {
      type: "constant"
    }
  }
}
layer {
  name: "pool1"
  type: "Pooling"
  bottom: "conv1"
  top: "pool1"
  pooling_param {
    pool: MAX
    kernel_size: 2
    stride: 2
  }
}
layer {
  name: "ip1"
  type: "InnerProduct"
  bottom: "pool1"
  top: "ip1"
  param {
    lr_mult: 1
  }
  param {
    lr_mult: 2
  }
  inner_product_param {
    num_output: 100
    weight_filler {
      type: "xavier"
    }
    bias_filler {
      type: "constant"
    }
  }
}
layer {
  name: "relu1"
  type: "ReLU"
  bottom: "ip1"
  top: "ip1"
}
layer {
  name: "ip2"
  type: "InnerProduct"
  bottom: "ip1"
  top: "ip2"
  param {
    lr_mult: 1
  }
  param {
    lr_mult: 2
  }
  inner_product_param {
    num_output: 10
    weight_filler {
      type: "xavier"
    }
    bias_filler {
      type: "constant"
    }
  }
}
layer {
  name: "relu2"
  type: "ReLU"
  bottom: "ip2"
  top: "ip2"
}
layer {
  name: "loss"
  type: "SoftmaxWithLoss"
  bottom: "ip2"
  bottom: "label"
  top: "loss"
}
I0417 20:52:31.251274  2691 layer_factory.hpp:77] Creating layer mnist
I0417 20:52:31.255568  2691 net.cpp:91] Creating Layer mnist
I0417 20:52:31.255674  2691 net.cpp:399] mnist -> data
I0417 20:52:31.255944  2691 net.cpp:399] mnist -> label
I0417 20:52:31.259390  2724 db_lmdb.cpp:35] Opened lmdb examples/mnist/mnist_train_lmdb
I0417 20:52:31.260083  2691 data_layer.cpp:41] output data size: 64,1,28,28
I0417 20:52:31.262171  2691 base_data_layer.cpp:69] Initializing prefetch
I0417 20:52:31.262303  2691 base_data_layer.cpp:72] Prefetch initialized.
I0417 20:52:31.262347  2691 net.cpp:141] Setting up mnist
I0417 20:52:31.262445  2691 net.cpp:148] Top shape: 64 1 28 28 (50176)
I0417 20:52:31.262492  2691 net.cpp:148] Top shape: 64 (64)
I0417 20:52:31.262521  2691 net.cpp:156] Memory required for data: 200960
I0417 20:52:31.263348  2691 layer_factory.hpp:77] Creating layer conv0
I0417 20:52:31.263506  2691 net.cpp:91] Creating Layer conv0
I0417 20:52:31.263564  2691 net.cpp:425] conv0 <- data
I0417 20:52:31.263990  2691 net.cpp:399] conv0 -> conv0
I0417 20:52:31.265425  2725 data_layer.cpp:102] Prefetch batch: 2 ms.
I0417 20:52:31.265485  2725 data_layer.cpp:103]      Read time: 0.257 ms.
I0417 20:52:31.265516  2725 data_layer.cpp:104] Transform time: 1.196 ms.
I0417 20:52:31.265775  2691 net.cpp:141] Setting up conv0
I0417 20:52:31.266715  2691 net.cpp:148] Top shape: 64 100 24 24 (3686400)
I0417 20:52:31.266832  2691 net.cpp:156] Memory required for data: 14946560
I0417 20:52:31.267081  2691 layer_factory.hpp:77] Creating layer pool0
I0417 20:52:31.267609  2691 net.cpp:91] Creating Layer pool0
I0417 20:52:31.267732  2691 net.cpp:425] pool0 <- conv0
I0417 20:52:31.267930  2691 net.cpp:399] pool0 -> pool0
I0417 20:52:31.268246  2691 net.cpp:141] Setting up pool0
I0417 20:52:31.268293  2725 data_layer.cpp:102] Prefetch batch: 2 ms.
I0417 20:52:31.268591  2691 net.cpp:148] Top shape: 64 100 12 12 (921600)
I0417 20:52:31.268592  2725 data_layer.cpp:103]      Read time: 0.255 ms.
I0417 20:52:31.268666  2725 data_layer.cpp:104] Transform time: 1.123 ms.
I0417 20:52:31.268638  2691 net.cpp:156] Memory required for data: 18632960
I0417 20:52:31.268792  2691 layer_factory.hpp:77] Creating layer conv1
I0417 20:52:31.269011  2691 net.cpp:91] Creating Layer conv1
I0417 20:52:31.269218  2691 net.cpp:425] conv1 <- pool0
I0417 20:52:31.269371  2691 net.cpp:399] conv1 -> conv1
I0417 20:52:31.271450  2725 data_layer.cpp:102] Prefetch batch: 2 ms.
I0417 20:52:31.271487  2725 data_layer.cpp:103]      Read time: 0.275 ms.
I0417 20:52:31.271509  2725 data_layer.cpp:104] Transform time: 1.155 ms.
I0417 20:52:31.329360  2691 net.cpp:141] Setting up conv1
I0417 20:52:31.329414  2691 net.cpp:148] Top shape: 64 100 8 8 (409600)
I0417 20:52:31.329428  2691 net.cpp:156] Memory required for data: 20271360
I0417 20:52:31.329493  2691 layer_factory.hpp:77] Creating layer pool1
I0417 20:52:31.329548  2691 net.cpp:91] Creating Layer pool1
I0417 20:52:31.329574  2691 net.cpp:425] pool1 <- conv1
I0417 20:52:31.329622  2691 net.cpp:399] pool1 -> pool1
I0417 20:52:31.329696  2691 net.cpp:141] Setting up pool1
I0417 20:52:31.329726  2691 net.cpp:148] Top shape: 64 100 4 4 (102400)
I0417 20:52:31.329741  2691 net.cpp:156] Memory required for data: 20680960
I0417 20:52:31.329761  2691 layer_factory.hpp:77] Creating layer ip1
I0417 20:52:31.329813  2691 net.cpp:91] Creating Layer ip1
I0417 20:52:31.329838  2691 net.cpp:425] ip1 <- pool1
I0417 20:52:31.329888  2691 net.cpp:399] ip1 -> ip1
I0417 20:52:31.355067  2691 net.cpp:141] Setting up ip1
I0417 20:52:31.355103  2691 net.cpp:148] Top shape: 64 100 (6400)
I0417 20:52:31.355115  2691 net.cpp:156] Memory required for data: 20706560
I0417 20:52:31.355176  2691 layer_factory.hpp:77] Creating layer relu1
I0417 20:52:31.355226  2691 net.cpp:91] Creating Layer relu1
I0417 20:52:31.355250  2691 net.cpp:425] relu1 <- ip1
I0417 20:52:31.355293  2691 net.cpp:386] relu1 -> ip1 (in-place)
I0417 20:52:31.355340  2691 net.cpp:141] Setting up relu1
I0417 20:52:31.355362  2691 net.cpp:148] Top shape: 64 100 (6400)
I0417 20:52:31.355376  2691 net.cpp:156] Memory required for data: 20732160
I0417 20:52:31.355403  2691 layer_factory.hpp:77] Creating layer ip2
I0417 20:52:31.355448  2691 net.cpp:91] Creating Layer ip2
I0417 20:52:31.355469  2691 net.cpp:425] ip2 <- ip1
I0417 20:52:31.355515  2691 net.cpp:399] ip2 -> ip2
I0417 20:52:31.355784  2691 net.cpp:141] Setting up ip2
I0417 20:52:31.355816  2691 net.cpp:148] Top shape: 64 10 (640)
I0417 20:52:31.355831  2691 net.cpp:156] Memory required for data: 20734720
I0417 20:52:31.355871  2691 layer_factory.hpp:77] Creating layer relu2
I0417 20:52:31.355917  2691 net.cpp:91] Creating Layer relu2
I0417 20:52:31.355942  2691 net.cpp:425] relu2 <- ip2
I0417 20:52:31.355981  2691 net.cpp:386] relu2 -> ip2 (in-place)
I0417 20:52:31.356053  2691 net.cpp:141] Setting up relu2
I0417 20:52:31.356079  2691 net.cpp:148] Top shape: 64 10 (640)
I0417 20:52:31.356092  2691 net.cpp:156] Memory required for data: 20737280
I0417 20:52:31.356112  2691 layer_factory.hpp:77] Creating layer loss
I0417 20:52:31.356161  2691 net.cpp:91] Creating Layer loss
I0417 20:52:31.356184  2691 net.cpp:425] loss <- ip2
I0417 20:52:31.356220  2691 net.cpp:425] loss <- label
I0417 20:52:31.356261  2691 net.cpp:399] loss -> loss
I0417 20:52:31.356358  2691 layer_factory.hpp:77] Creating layer loss
…
I0417 20:52:31.358296  2691 solver.cpp:181] Creating test net (#0) specified by net file: ECE595/mnist/train_test/var_num_feature/lenet_train_test_featuresize100.prototxt
I0417 20:52:31.358487  2691 net.cpp:313] The NetState phase (1) differed from the phase (0) specified by a rule in layer mnist
I0417 20:52:31.358825  2691 net.cpp:49] Initializing net from parameters: 
name: "LeNet"
state {
  phase: TEST
}
layer {
  name: "mnist"
  type: "Data"
  top: "data"
  top: "label"
  include {
    phase: TEST
  }
  transform_param {
    scale: 0.00390625
  }
  data_param {
    source: "examples/mnist/mnist_test_lmdb"
    batch_size: 100
    backend: LMDB
  }
}
layer {
  name: "conv0"
  type: "Convolution"
  bottom: "data"
  top: "conv0"
  param {
    lr_mult: 1
  }
  param {
    lr_mult: 2
  }
  convolution_param {
    num_output: 100
    kernel_size: 5
    stride: 1
    weight_filler {
      type: "xavier"
    }
    bias_filler {
      type: "constant"
    }
  }
}
layer {
  name: "pool0"
  type: "Pooling"
  bottom: "conv0"
  top: "pool0"
  pooling_param {
    pool: MAX
    kernel_size: 2
    stride: 2
  }
}
layer {
  name: "conv1"
  type: "Convolution"
  bottom: "pool0"
  top: "conv1"
  param {
    lr_mult: 1
  }
  param {
    lr_mult: 2
  }
  convolution_param {
    num_output: 100
    kernel_size: 5
    stride: 1
    weight_filler {
      type: "xavier"
    }
    bias_filler {
      type: "constant"
    }
  }
}
layer {
  name: "pool1"
  type: "Pooling"
  bottom: "conv1"
  top: "pool1"
  pooling_param {
    pool: MAX
    kernel_size: 2
    stride: 2
  }
}
layer {
  name: "ip1"
  type: "InnerProduct"
  bottom: "pool1"
  top: "ip1"
  param {
    lr_mult: 1
  }
  param {
    lr_mult: 2
  }
  inner_product_param {
    num_output: 100
    weight_filler {
      type: "xavier"
    }
    bias_filler {
      type: "constant"
    }
  }
}
layer {
  name: "relu1"
  type: "ReLU"
  bottom: "ip1"
  top: "ip1"
}
layer {
  name: "ip2"
  type: "InnerProduct"
  bottom: "ip1"
  top: "ip2"
  param {
    lr_mult: 1
  }
  param {
    lr_mult: 2
  }
  inner_product_param {
    num_output: 10
    weight_filler {
      type: "xavier"
    }
    bias_filler {
      type: "constant"
    }
  }
}
layer {
  name: "relu2"
  type: "ReLU"
  bottom: "ip2"
  top: "ip2"
}
layer {
  name: "accuracy"
  type: "Accuracy"
  bottom: "ip2"
  bottom: "label"
  top: "accuracy"
  include {
    phase: TEST
  }
}
layer {
  name: "loss"
  type: "SoftmaxWithLoss"
  bottom: "ip2"
  bottom: "label"
  top: "loss"
}
I0417 20:52:31.359403  2691 layer_factory.hpp:77] Creating layer mnist
I0417 20:52:31.359884  2691 net.cpp:91] Creating Layer mnist
I0417 20:52:31.359937  2691 net.cpp:399] mnist -> data
I0417 20:52:31.360019  2691 net.cpp:399] mnist -> label
I0417 20:52:31.363939  2726 db_lmdb.cpp:35] Opened lmdb examples/mnist/mnist_test_lmdb
I0417 20:52:31.364527  2691 data_layer.cpp:41] output data size: 100,1,28,28
I0417 20:52:31.365612  2691 base_data_layer.cpp:69] Initializing prefetch
I0417 20:52:31.365712  2691 base_data_layer.cpp:72] Prefetch initialized.
I0417 20:52:31.365736  2691 net.cpp:141] Setting up mnist
I0417 20:52:31.365803  2691 net.cpp:148] Top shape: 100 1 28 28 (78400)
I0417 20:52:31.365836  2691 net.cpp:148] Top shape: 100 (100)
I0417 20:52:31.365851  2691 net.cpp:156] Memory required for data: 314000
I0417 20:52:31.365885  2691 layer_factory.hpp:77] Creating layer label_mnist_1_split
I0417 20:52:31.365962  2691 net.cpp:91] Creating Layer label_mnist_1_split
I0417 20:52:31.365995  2691 net.cpp:425] label_mnist_1_split <- label
I0417 20:52:31.366047  2691 net.cpp:399] label_mnist_1_split -> label_mnist_1_split_0
I0417 20:52:31.366114  2691 net.cpp:399] label_mnist_1_split -> label_mnist_1_split_1
I0417 20:52:31.366185  2691 net.cpp:141] Setting up label_mnist_1_split
I0417 20:52:31.366221  2691 net.cpp:148] Top shape: 100 (100)
I0417 20:52:31.366242  2691 net.cpp:148] Top shape: 100 (100)
I0417 20:52:31.366259  2691 net.cpp:156] Memory required for data: 314800
I0417 20:52:31.366281  2691 layer_factory.hpp:77] Creating layer conv0
I0417 20:52:31.366372  2691 net.cpp:91] Creating Layer conv0
I0417 20:52:31.366405  2691 net.cpp:425] conv0 <- data
I0417 20:52:31.366497  2691 net.cpp:399] conv0 -> conv0
I0417 20:52:31.367188  2691 net.cpp:141] Setting up conv0
I0417 20:52:31.367244  2691 net.cpp:148] Top shape: 100 100 24 24 (5760000)
I0417 20:52:31.367257  2691 net.cpp:156] Memory required for data: 23354800
I0417 20:52:31.367347  2691 layer_factory.hpp:77] Creating layer pool0
I0417 20:52:31.367346  2727 data_layer.cpp:102] Prefetch batch: 1 ms.
I0417 20:52:31.367388  2727 data_layer.cpp:103]      Read time: 0.173 ms.
I0417 20:52:31.367393  2727 data_layer.cpp:104] Transform time: 1.014 ms.
I0417 20:52:31.367413  2691 net.cpp:91] Creating Layer pool0
I0417 20:52:31.367439  2691 net.cpp:425] pool0 <- conv0
I0417 20:52:31.367506  2691 net.cpp:399] pool0 -> pool0
I0417 20:52:31.367590  2691 net.cpp:141] Setting up pool0
I0417 20:52:31.367625  2691 net.cpp:148] Top shape: 100 100 12 12 (1440000)
I0417 20:52:31.367640  2691 net.cpp:156] Memory required for data: 29114800
I0417 20:52:31.367661  2691 layer_factory.hpp:77] Creating layer conv1
I0417 20:52:31.367734  2691 net.cpp:91] Creating Layer conv1
I0417 20:52:31.367761  2691 net.cpp:425] conv1 <- pool0
I0417 20:52:31.367815  2691 net.cpp:399] conv1 -> conv1
I0417 20:52:31.368867  2727 data_layer.cpp:102] Prefetch batch: 1 ms.
I0417 20:52:31.368881  2727 data_layer.cpp:103]      Read time: 0.164 ms.
I0417 20:52:31.368886  2727 data_layer.cpp:104] Transform time: 0.954 ms.
I0417 20:52:31.370518  2727 data_layer.cpp:102] Prefetch batch: 1 ms.
I0417 20:52:31.370529  2727 data_layer.cpp:103]      Read time: 0.151 ms.
I0417 20:52:31.370534  2727 data_layer.cpp:104] Transform time: 0.988 ms.
I0417 20:52:31.407024  2691 net.cpp:141] Setting up conv1
I0417 20:52:31.407075  2691 net.cpp:148] Top shape: 100 100 8 8 (640000)
I0417 20:52:31.407088  2691 net.cpp:156] Memory required for data: 31674800
I0417 20:52:31.407151  2691 layer_factory.hpp:77] Creating layer pool1
I0417 20:52:31.407199  2691 net.cpp:91] Creating Layer pool1
I0417 20:52:31.407224  2691 net.cpp:425] pool1 <- conv1
I0417 20:52:31.407270  2691 net.cpp:399] pool1 -> pool1
I0417 20:52:31.407342  2691 net.cpp:141] Setting up pool1
I0417 20:52:31.407371  2691 net.cpp:148] Top shape: 100 100 4 4 (160000)
I0417 20:52:31.407385  2691 net.cpp:156] Memory required for data: 32314800
I0417 20:52:31.407404  2691 layer_factory.hpp:77] Creating layer ip1
I0417 20:52:31.407465  2691 net.cpp:91] Creating Layer ip1
I0417 20:52:31.407492  2691 net.cpp:425] ip1 <- pool1
I0417 20:52:31.407546  2691 net.cpp:399] ip1 -> ip1
I0417 20:52:31.432667  2691 net.cpp:141] Setting up ip1
I0417 20:52:31.432703  2691 net.cpp:148] Top shape: 100 100 (10000)
I0417 20:52:31.432715  2691 net.cpp:156] Memory required for data: 32354800
I0417 20:52:31.432775  2691 layer_factory.hpp:77] Creating layer relu1
I0417 20:52:31.432832  2691 net.cpp:91] Creating Layer relu1
I0417 20:52:31.432862  2691 net.cpp:425] relu1 <- ip1
I0417 20:52:31.432904  2691 net.cpp:386] relu1 -> ip1 (in-place)
I0417 20:52:31.432948  2691 net.cpp:141] Setting up relu1
I0417 20:52:31.432970  2691 net.cpp:148] Top shape: 100 100 (10000)
I0417 20:52:31.432983  2691 net.cpp:156] Memory required for data: 32394800
I0417 20:52:31.433001  2691 layer_factory.hpp:77] Creating layer ip2
I0417 20:52:31.433051  2691 net.cpp:91] Creating Layer ip2
I0417 20:52:31.433075  2691 net.cpp:425] ip2 <- ip1
I0417 20:52:31.433130  2691 net.cpp:399] ip2 -> ip2
I0417 20:52:31.433420  2691 net.cpp:141] Setting up ip2
I0417 20:52:31.433462  2691 net.cpp:148] Top shape: 100 10 (1000)
I0417 20:52:31.433480  2691 net.cpp:156] Memory required for data: 32398800
I0417 20:52:31.433519  2691 layer_factory.hpp:77] Creating layer relu2
I0417 20:52:31.433557  2691 net.cpp:91] Creating Layer relu2
I0417 20:52:31.433579  2691 net.cpp:425] relu2 <- ip2
I0417 20:52:31.433619  2691 net.cpp:386] relu2 -> ip2 (in-place)
I0417 20:52:31.433661  2691 net.cpp:141] Setting up relu2
I0417 20:52:31.433683  2691 net.cpp:148] Top shape: 100 10 (1000)
I0417 20:52:31.433694  2691 net.cpp:156] Memory required for data: 32402800
I0417 20:52:31.433712  2691 layer_factory.hpp:77] Creating layer ip2_relu2_0_split
I0417 20:52:31.433743  2691 net.cpp:91] Creating Layer ip2_relu2_0_split
I0417 20:52:31.433763  2691 net.cpp:425] ip2_relu2_0_split <- ip2
I0417 20:52:31.433807  2691 net.cpp:399] ip2_relu2_0_split -> ip2_relu2_0_split_0
I0417 20:52:31.433851  2691 net.cpp:399] ip2_relu2_0_split -> ip2_relu2_0_split_1
I0417 20:52:31.433900  2691 net.cpp:141] Setting up ip2_relu2_0_split
I0417 20:52:31.433928  2691 net.cpp:148] Top shape: 100 10 (1000)
I0417 20:52:31.433946  2691 net.cpp:148] Top shape: 100 10 (1000)
I0417 20:52:31.433959  2691 net.cpp:156] Memory required for data: 32410800
I0417 20:52:31.433979  2691 layer_factory.hpp:77] Creating layer accuracy
I0417 20:52:31.434026  2691 net.cpp:91] Creating Layer accuracy
I0417 20:52:31.434051  2691 net.cpp:425] accuracy <- ip2_relu2_0_split_0
I0417 20:52:31.434085  2691 net.cpp:425] accuracy <- label_mnist_1_split_0
I0417 20:52:31.434121  2691 net.cpp:399] accuracy -> accuracy
…
