…
I0425 14:00:49.106065 18171 net.cpp:313] The NetState phase (0) differed from the phase (1) specified by a rule in layer mnist
I0425 14:00:49.106184 18171 net.cpp:313] The NetState phase (0) differed from the phase (1) specified by a rule in layer accuracy
I0425 14:00:49.106453 18171 net.cpp:49] Initializing net from parameters: 
name: "LeNet"
state {
  phase: TRAIN
}
layer {
  name: "mnist"
  type: "Data"
  top: "data"
  top: "label"
  include {
    phase: TRAIN
  }
  transform_param {
    scale: 0.00390625
  }
  data_param {
    source: "examples/mnist/mnist_train_lmdb"
    batch_size: 64
    backend: LMDB
  }
}
layer {
  name: "conv0"
  type: "Convolution"
  bottom: "data"
  top: "conv0"
  param {
    lr_mult: 1
  }
  param {
    lr_mult: 2
  }
  convolution_param {
    num_output: 10
    kernel_size: 5
    stride: 1
    weight_filler {
      type: "xavier"
    }
    bias_filler {
      type: "constant"
    }
  }
}
layer {
  name: "pool0"
  type: "Pooling"
  bottom: "conv0"
  top: "pool0"
  pooling_param {
    pool: MAX
    kernel_size: 2
    stride: 2
  }
}
layer {
  name: "conv1"
  type: "Convolution"
  bottom: "pool0"
  top: "conv1"
  param {
    lr_mult: 1
  }
  param {
    lr_mult: 2
  }
  convolution_param {
    num_output: 10
    kernel_size: 5
    stride: 1
    weight_filler {
      type: "xavier"
    }
    bias_filler {
      type: "constant"
    }
  }
}
layer {
  name: "pool1"
  type: "Pooling"
  bottom: "conv1"
  top: "pool1"
  pooling_param {
    pool: MAX
    kernel_size: 2
    stride: 2
  }
}
layer {
  name: "ip1"
  type: "InnerProduct"
  bottom: "pool1"
  top: "ip1"
  param {
    lr_mult: 1
  }
  param {
    lr_mult: 2
  }
  inner_product_param {
    num_output: 100
    weight_filler {
      type: "xavier"
    }
    bias_filler {
      type: "constant"
    }
  }
}
layer {
  name: "relu1"
  type: "ReLU"
  bottom: "ip1"
  top: "ip1"
}
layer {
  name: "ip2"
  type: "InnerProduct"
  bottom: "ip1"
  top: "ip2"
  param {
    lr_mult: 1
  }
  param {
    lr_mult: 2
  }
  inner_product_param {
    num_output: 10
    weight_filler {
      type: "xavier"
    }
    bias_filler {
      type: "constant"
    }
  }
}
layer {
  name: "relu2"
  type: "ReLU"
  bottom: "ip2"
  top: "ip2"
}
layer {
  name: "loss"
  type: "SoftmaxWithLoss"
  bottom: "ip2"
  bottom: "label"
  top: "loss"
}
I0425 14:00:49.107373 18171 layer_factory.hpp:77] Creating layer mnist
I0425 14:00:49.109683 18171 net.cpp:91] Creating Layer mnist
I0425 14:00:49.109798 18171 net.cpp:399] mnist -> data
I0425 14:00:49.110049 18171 net.cpp:399] mnist -> label
I0425 14:00:49.175146 18204 db_lmdb.cpp:35] Opened lmdb examples/mnist/mnist_train_lmdb
I0425 14:00:49.249620 18171 data_layer.cpp:41] output data size: 64,1,28,28
I0425 14:00:49.250291 18171 base_data_layer.cpp:69] Initializing prefetch
I0425 14:00:49.250392 18171 base_data_layer.cpp:72] Prefetch initialized.
I0425 14:00:49.250423 18171 net.cpp:141] Setting up mnist
I0425 14:00:49.250510 18171 net.cpp:148] Top shape: 64 1 28 28 (50176)
I0425 14:00:49.250555 18171 net.cpp:148] Top shape: 64 (64)
I0425 14:00:49.250607 18171 net.cpp:156] Memory required for data: 200960
I0425 14:00:49.250669 18171 layer_factory.hpp:77] Creating layer conv0
I0425 14:00:49.250798 18171 net.cpp:91] Creating Layer conv0
I0425 14:00:49.250852 18171 net.cpp:425] conv0 <- data
I0425 14:00:49.250975 18171 net.cpp:399] conv0 -> conv0
I0425 14:00:49.251410 18171 net.cpp:141] Setting up conv0
I0425 14:00:49.251459 18171 net.cpp:148] Top shape: 64 10 24 24 (368640)
I0425 14:00:49.251482 18171 net.cpp:156] Memory required for data: 1675520
I0425 14:00:49.251651 18171 layer_factory.hpp:77] Creating layer pool0
I0425 14:00:49.251746 18171 net.cpp:91] Creating Layer pool0
I0425 14:00:49.251783 18171 net.cpp:425] pool0 <- conv0
I0425 14:00:49.251870 18171 net.cpp:399] pool0 -> pool0
I0425 14:00:49.251991 18171 net.cpp:141] Setting up pool0
I0425 14:00:49.252038 18171 net.cpp:148] Top shape: 64 10 12 12 (92160)
I0425 14:00:49.252063 18171 net.cpp:156] Memory required for data: 2044160
I0425 14:00:49.252097 18171 layer_factory.hpp:77] Creating layer conv1
I0425 14:00:49.252173 18171 net.cpp:91] Creating Layer conv1
I0425 14:00:49.252210 18171 net.cpp:425] conv1 <- pool0
I0425 14:00:49.252284 18171 net.cpp:399] conv1 -> conv1
I0425 14:00:49.252908 18171 net.cpp:141] Setting up conv1
I0425 14:00:49.252956 18171 net.cpp:148] Top shape: 64 10 8 8 (40960)
I0425 14:00:49.252985 18171 net.cpp:156] Memory required for data: 2208000
I0425 14:00:49.253067 18171 layer_factory.hpp:77] Creating layer pool1
I0425 14:00:49.253134 18171 net.cpp:91] Creating Layer pool1
I0425 14:00:49.253168 18171 net.cpp:425] pool1 <- conv1
I0425 14:00:49.253234 18171 net.cpp:399] pool1 -> pool1
I0425 14:00:49.253327 18171 net.cpp:141] Setting up pool1
I0425 14:00:49.253374 18171 net.cpp:148] Top shape: 64 10 4 4 (10240)
I0425 14:00:49.253401 18171 net.cpp:156] Memory required for data: 2248960
I0425 14:00:49.253437 18171 layer_factory.hpp:77] Creating layer ip1
I0425 14:00:49.253415 18205 data_layer.cpp:102] Prefetch batch: 2 ms.
I0425 14:00:49.253505 18205 data_layer.cpp:103]      Read time: 0.256 ms.
I0425 14:00:49.253514 18171 net.cpp:91] Creating Layer ip1
I0425 14:00:49.253530 18205 data_layer.cpp:104] Transform time: 1.768 ms.
I0425 14:00:49.253549 18171 net.cpp:425] ip1 <- pool1
I0425 14:00:49.253605 18171 net.cpp:399] ip1 -> ip1
I0425 14:00:49.253767 18205 blocking_queue.cpp:50] Waiting for data
I0425 14:00:49.256280 18171 net.cpp:141] Setting up ip1
I0425 14:00:49.256327 18171 net.cpp:148] Top shape: 64 100 (6400)
I0425 14:00:49.256351 18171 net.cpp:156] Memory required for data: 2274560
I0425 14:00:49.256431 18171 layer_factory.hpp:77] Creating layer relu1
I0425 14:00:49.256497 18171 net.cpp:91] Creating Layer relu1
I0425 14:00:49.256533 18171 net.cpp:425] relu1 <- ip1
I0425 14:00:49.256628 18171 net.cpp:386] relu1 -> ip1 (in-place)
I0425 14:00:49.256700 18171 net.cpp:141] Setting up relu1
I0425 14:00:49.256742 18171 net.cpp:148] Top shape: 64 100 (6400)
I0425 14:00:49.256764 18171 net.cpp:156] Memory required for data: 2300160
I0425 14:00:49.256798 18171 layer_factory.hpp:77] Creating layer ip2
I0425 14:00:49.256860 18171 net.cpp:91] Creating Layer ip2
I0425 14:00:49.256892 18171 net.cpp:425] ip2 <- ip1
I0425 14:00:49.256969 18171 net.cpp:399] ip2 -> ip2
I0425 14:00:49.257299 18171 net.cpp:141] Setting up ip2
I0425 14:00:49.257341 18171 net.cpp:148] Top shape: 64 10 (640)
I0425 14:00:49.257365 18171 net.cpp:156] Memory required for data: 2302720
I0425 14:00:49.257422 18171 layer_factory.hpp:77] Creating layer relu2
I0425 14:00:49.257480 18171 net.cpp:91] Creating Layer relu2
I0425 14:00:49.257519 18171 net.cpp:425] relu2 <- ip2
I0425 14:00:49.257607 18171 net.cpp:386] relu2 -> ip2 (in-place)
I0425 14:00:49.257674 18171 net.cpp:141] Setting up relu2
I0425 14:00:49.257705 18171 net.cpp:148] Top shape: 64 10 (640)
I0425 14:00:49.257730 18171 net.cpp:156] Memory required for data: 2305280
I0425 14:00:49.257773 18171 layer_factory.hpp:77] Creating layer loss
I0425 14:00:49.257840 18171 net.cpp:91] Creating Layer loss
I0425 14:00:49.257874 18171 net.cpp:425] loss <- ip2
I0425 14:00:49.257931 18171 net.cpp:425] loss <- label
I0425 14:00:49.257989 18171 net.cpp:399] loss -> loss
I0425 14:00:49.258092 18171 layer_factory.hpp:77] Creating layer loss
…
I0425 14:00:49.475318 18171 solver.cpp:181] Creating test net (#0) specified by net file: ECE595/mnist/train_test/var_num_feature/lenet_train_test_featuresize10.prototxt
I0425 14:00:49.475602 18171 net.cpp:313] The NetState phase (1) differed from the phase (0) specified by a rule in layer mnist
I0425 14:00:49.476003 18171 net.cpp:49] Initializing net from parameters: 
name: "LeNet"
state {
  phase: TEST
}
layer {
  name: "mnist"
  type: "Data"
  top: "data"
  top: "label"
  include {
    phase: TEST
  }
  transform_param {
    scale: 0.00390625
  }
  data_param {
    source: "examples/mnist/mnist_test_lmdb"
    batch_size: 100
    backend: LMDB
  }
}
layer {
  name: "conv0"
  type: "Convolution"
  bottom: "data"
  top: "conv0"
  param {
    lr_mult: 1
  }
  param {
    lr_mult: 2
  }
  convolution_param {
    num_output: 10
    kernel_size: 5
    stride: 1
    weight_filler {
      type: "xavier"
    }
    bias_filler {
      type: "constant"
    }
  }
}
layer {
  name: "pool0"
  type: "Pooling"
  bottom: "conv0"
  top: "pool0"
  pooling_param {
    pool: MAX
    kernel_size: 2
    stride: 2
  }
}
layer {
  name: "conv1"
  type: "Convolution"
  bottom: "pool0"
  top: "conv1"
  param {
    lr_mult: 1
  }
  param {
    lr_mult: 2
  }
  convolution_param {
    num_output: 10
    kernel_size: 5
    stride: 1
    weight_filler {
      type: "xavier"
    }
    bias_filler {
      type: "constant"
    }
  }
}
layer {
  name: "pool1"
  type: "Pooling"
  bottom: "conv1"
  top: "pool1"
  pooling_param {
    pool: MAX
    kernel_size: 2
    stride: 2
  }
}
layer {
  name: "ip1"
  type: "InnerProduct"
  bottom: "pool1"
  top: "ip1"
  param {
    lr_mult: 1
  }
  param {
    lr_mult: 2
  }
  inner_product_param {
    num_output: 100
    weight_filler {
      type: "xavier"
    }
    bias_filler {
      type: "constant"
    }
  }
}
layer {
  name: "relu1"
  type: "ReLU"
  bottom: "ip1"
  top: "ip1"
}
layer {
  name: "ip2"
  type: "InnerProduct"
  bottom: "ip1"
  top: "ip2"
  param {
    lr_mult: 1
  }
  param {
    lr_mult: 2
  }
  inner_product_param {
    num_output: 10
    weight_filler {
      type: "xavier"
    }
    bias_filler {
      type: "constant"
    }
  }
}
layer {
  name: "relu2"
  type: "ReLU"
  bottom: "ip2"
  top: "ip2"
}
layer {
  name: "accuracy"
  type: "Accuracy"
  bottom: "ip2"
  bottom: "label"
  top: "accuracy"
  include {
    phase: TEST
  }
}
layer {
  name: "loss"
  type: "SoftmaxWithLoss"
  bottom: "ip2"
  bottom: "label"
  top: "loss"
}
I0425 14:00:49.476817 18171 layer_factory.hpp:77] Creating layer mnist
I0425 14:00:49.478036 18171 net.cpp:91] Creating Layer mnist
I0425 14:00:49.478117 18171 net.cpp:399] mnist -> data
I0425 14:00:49.478240 18171 net.cpp:399] mnist -> label
I0425 14:00:49.509894 18206 db_lmdb.cpp:35] Opened lmdb examples/mnist/mnist_test_lmdb
I0425 14:00:49.599496 18171 data_layer.cpp:41] output data size: 100,1,28,28
I0425 14:00:49.600440 18171 base_data_layer.cpp:69] Initializing prefetch
I0425 14:00:49.600563 18171 base_data_layer.cpp:72] Prefetch initialized.
I0425 14:00:49.600590 18171 net.cpp:141] Setting up mnist
I0425 14:00:49.600636 18171 net.cpp:148] Top shape: 100 1 28 28 (78400)
I0425 14:00:49.600672 18171 net.cpp:148] Top shape: 100 (100)
I0425 14:00:49.600697 18171 net.cpp:156] Memory required for data: 314000
I0425 14:00:49.600760 18171 layer_factory.hpp:77] Creating layer label_mnist_1_split
I0425 14:00:49.600849 18171 net.cpp:91] Creating Layer label_mnist_1_split
I0425 14:00:49.600890 18171 net.cpp:425] label_mnist_1_split <- label
I0425 14:00:49.600960 18171 net.cpp:399] label_mnist_1_split -> label_mnist_1_split_0
I0425 14:00:49.601034 18171 net.cpp:399] label_mnist_1_split -> label_mnist_1_split_1
I0425 14:00:49.601114 18171 net.cpp:141] Setting up label_mnist_1_split
I0425 14:00:49.601158 18171 net.cpp:148] Top shape: 100 (100)
I0425 14:00:49.601192 18171 net.cpp:148] Top shape: 100 (100)
I0425 14:00:49.601214 18171 net.cpp:156] Memory required for data: 314800
I0425 14:00:49.601248 18171 layer_factory.hpp:77] Creating layer conv0
I0425 14:00:49.601342 18171 net.cpp:91] Creating Layer conv0
I0425 14:00:49.601378 18171 net.cpp:425] conv0 <- data
I0425 14:00:49.601459 18171 net.cpp:399] conv0 -> conv0
I0425 14:00:49.601763 18171 net.cpp:141] Setting up conv0
I0425 14:00:49.601816 18171 net.cpp:148] Top shape: 100 10 24 24 (576000)
I0425 14:00:49.601843 18171 net.cpp:156] Memory required for data: 2618800
I0425 14:00:49.601950 18171 layer_factory.hpp:77] Creating layer pool0
I0425 14:00:49.602026 18171 net.cpp:91] Creating Layer pool0
I0425 14:00:49.602067 18171 net.cpp:425] pool0 <- conv0
I0425 14:00:49.602133 18171 net.cpp:399] pool0 -> pool0
I0425 14:00:49.602236 18171 net.cpp:141] Setting up pool0
I0425 14:00:49.602277 18171 net.cpp:148] Top shape: 100 10 12 12 (144000)
I0425 14:00:49.602303 18171 net.cpp:156] Memory required for data: 3194800
I0425 14:00:49.602336 18171 layer_factory.hpp:77] Creating layer conv1
I0425 14:00:49.602427 18171 net.cpp:91] Creating Layer conv1
I0425 14:00:49.602463 18171 net.cpp:425] conv1 <- pool0
I0425 14:00:49.602565 18171 net.cpp:399] conv1 -> conv1
I0425 14:00:49.603181 18171 net.cpp:141] Setting up conv1
I0425 14:00:49.603231 18171 net.cpp:148] Top shape: 100 10 8 8 (64000)
I0425 14:00:49.603256 18171 net.cpp:156] Memory required for data: 3450800
I0425 14:00:49.603344 18171 layer_factory.hpp:77] Creating layer pool1
I0425 14:00:49.603413 18171 net.cpp:91] Creating Layer pool1
I0425 14:00:49.603451 18171 net.cpp:425] pool1 <- conv1
I0425 14:00:49.603533 18171 net.cpp:399] pool1 -> pool1
I0425 14:00:49.603636 18171 net.cpp:141] Setting up pool1
I0425 14:00:49.603679 18171 net.cpp:148] Top shape: 100 10 4 4 (16000)
I0425 14:00:49.603750 18171 net.cpp:156] Memory required for data: 3514800
I0425 14:00:49.603786 18171 layer_factory.hpp:77] Creating layer ip1
I0425 14:00:49.603857 18171 net.cpp:91] Creating Layer ip1
I0425 14:00:49.603898 18171 net.cpp:425] ip1 <- pool1
I0425 14:00:49.603976 18171 net.cpp:399] ip1 -> ip1
I0425 14:00:49.605036 18207 data_layer.cpp:102] Prefetch batch: 4 ms.
I0425 14:00:49.605090 18207 data_layer.cpp:103]      Read time: 0.519 ms.
I0425 14:00:49.605108 18207 data_layer.cpp:104] Transform time: 2.787 ms.
I0425 14:00:49.606726 18171 net.cpp:141] Setting up ip1
I0425 14:00:49.606803 18171 net.cpp:148] Top shape: 100 100 (10000)
I0425 14:00:49.606825 18171 net.cpp:156] Memory required for data: 3554800
I0425 14:00:49.606910 18171 layer_factory.hpp:77] Creating layer relu1
I0425 14:00:49.606966 18171 net.cpp:91] Creating Layer relu1
I0425 14:00:49.606999 18171 net.cpp:425] relu1 <- ip1
I0425 14:00:49.607059 18171 net.cpp:386] relu1 -> ip1 (in-place)
I0425 14:00:49.607121 18171 net.cpp:141] Setting up relu1
I0425 14:00:49.607152 18171 net.cpp:148] Top shape: 100 100 (10000)
I0425 14:00:49.607175 18171 net.cpp:156] Memory required for data: 3594800
I0425 14:00:49.607208 18171 layer_factory.hpp:77] Creating layer ip2
I0425 14:00:49.607303 18171 net.cpp:91] Creating Layer ip2
I0425 14:00:49.607336 18171 net.cpp:425] ip2 <- ip1
I0425 14:00:49.607414 18171 net.cpp:399] ip2 -> ip2
I0425 14:00:49.607748 18171 net.cpp:141] Setting up ip2
I0425 14:00:49.607795 18171 net.cpp:148] Top shape: 100 10 (1000)
I0425 14:00:49.607851 18171 net.cpp:156] Memory required for data: 3598800
I0425 14:00:49.607915 18171 layer_factory.hpp:77] Creating layer relu2
I0425 14:00:49.607975 18171 net.cpp:91] Creating Layer relu2
I0425 14:00:49.608008 18171 net.cpp:425] relu2 <- ip2
I0425 14:00:49.608075 18171 net.cpp:386] relu2 -> ip2 (in-place)
I0425 14:00:49.608136 18171 net.cpp:141] Setting up relu2
I0425 14:00:49.608168 18171 net.cpp:148] Top shape: 100 10 (1000)
I0425 14:00:49.608191 18171 net.cpp:156] Memory required for data: 3602800
I0425 14:00:49.608224 18171 layer_factory.hpp:77] Creating layer ip2_relu2_0_split
I0425 14:00:49.608270 18171 net.cpp:91] Creating Layer ip2_relu2_0_split
I0425 14:00:49.608301 18171 net.cpp:425] ip2_relu2_0_split <- ip2
I0425 14:00:49.608366 18171 net.cpp:399] ip2_relu2_0_split -> ip2_relu2_0_split_0
I0425 14:00:49.608438 18171 net.cpp:399] ip2_relu2_0_split -> ip2_relu2_0_split_1
I0425 14:00:49.608523 18171 net.cpp:141] Setting up ip2_relu2_0_split
I0425 14:00:49.608564 18171 net.cpp:148] Top shape: 100 10 (1000)
I0425 14:00:49.608600 18171 net.cpp:148] Top shape: 100 10 (1000)
I0425 14:00:49.608621 18171 net.cpp:156] Memory required for data: 3610800
I0425 14:00:49.608657 18171 layer_factory.hpp:77] Creating layer accuracy
I0425 14:00:49.608721 18171 net.cpp:91] Creating Layer accuracy
I0425 14:00:49.608767 18171 net.cpp:425] accuracy <- ip2_relu2_0_split_0
I0425 14:00:49.608824 18171 net.cpp:425] accuracy <- label_mnist_1_split_0
I0425 14:00:49.608888 18171 net.cpp:399] accuracy -> accuracy
…
