…
I0415 18:43:53.865522 11438 net.cpp:313] The NetState phase (0) differed from the phase (1) specified by a rule in layer mnist
I0415 18:43:53.865576 11438 net.cpp:313] The NetState phase (0) differed from the phase (1) specified by a rule in layer accuracy
I0415 18:43:53.865741 11438 net.cpp:49] Initializing net from parameters: 
name: "LeNet"
state {
  phase: TRAIN
}
layer {
  name: "mnist"
  type: "Data"
  top: "data"
  top: "label"
  include {
    phase: TRAIN
  }
  transform_param {
    scale: 0.00390625
  }
  data_param {
    source: "examples/mnist/mnist_train_lmdb"
    batch_size: 64
    backend: LMDB
  }
}
layer {
  name: "conv0"
  type: "Convolution"
  bottom: "data"
  top: "conv0"
  param {
    lr_mult: 1
  }
  param {
    lr_mult: 2
  }
  convolution_param {
    num_output: 150
    kernel_size: 5
    stride: 1
    weight_filler {
      type: "xavier"
    }
    bias_filler {
      type: "constant"
    }
  }
}
layer {
  name: "pool0"
  type: "Pooling"
  bottom: "conv0"
  top: "pool0"
  pooling_param {
    pool: MAX
    kernel_size: 2
    stride: 2
  }
}
layer {
  name: "conv1"
  type: "Convolution"
  bottom: "pool0"
  top: "conv1"
  param {
    lr_mult: 1
  }
  param {
    lr_mult: 2
  }
  convolution_param {
    num_output: 150
    kernel_size: 5
    stride: 1
    weight_filler {
      type: "xavier"
    }
    bias_filler {
      type: "constant"
    }
  }
}
layer {
  name: "pool1"
  type: "Pooling"
  bottom: "conv1"
  top: "pool1"
  pooling_param {
    pool: MAX
    kernel_size: 2
    stride: 2
  }
}
layer {
  name: "ip1"
  type: "InnerProduct"
  bottom: "pool1"
  top: "ip1"
  param {
    lr_mult: 1
  }
  param {
    lr_mult: 2
  }
  inner_product_param {
    num_output: 100
    weight_filler {
      type: "xavier"
    }
    bias_filler {
      type: "constant"
    }
  }
}
layer {
  name: "relu1"
  type: "ReLU"
  bottom: "ip1"
  top: "ip1"
}
layer {
  name: "ip2"
  type: "InnerProduct"
  bottom: "ip1"
  top: "ip2"
  param {
    lr_mult: 1
  }
  param {
    lr_mult: 2
  }
  inner_product_param {
    num_output: 10
    weight_filler {
      type: "xavier"
    }
    bias_filler {
      type: "constant"
    }
  }
}
layer {
  name: "relu2"
  type: "ReLU"
  bottom: "ip2"
  top: "ip2"
}
layer {
  name: "loss"
  type: "SoftmaxWithLoss"
  bottom: "ip2"
  bottom: "label"
  top: "loss"
}
I0415 18:43:53.866178 11438 layer_factory.hpp:77] Creating layer mnist
I0415 18:43:53.867503 11438 net.cpp:91] Creating Layer mnist
I0415 18:43:53.867564 11438 net.cpp:399] mnist -> data
I0415 18:43:53.867692 11438 net.cpp:399] mnist -> label
I0415 18:43:53.871213 11471 db_lmdb.cpp:35] Opened lmdb examples/mnist/mnist_train_lmdb
I0415 18:43:53.871942 11438 data_layer.cpp:41] output data size: 64,1,28,28
I0415 18:43:53.872354 11438 base_data_layer.cpp:69] Initializing prefetch
I0415 18:43:53.872452 11438 base_data_layer.cpp:72] Prefetch initialized.
I0415 18:43:53.872470 11438 net.cpp:141] Setting up mnist
I0415 18:43:53.872503 11438 net.cpp:148] Top shape: 64 1 28 28 (50176)
I0415 18:43:53.872524 11438 net.cpp:148] Top shape: 64 (64)
I0415 18:43:53.872531 11438 net.cpp:156] Memory required for data: 200960
I0415 18:43:53.872552 11438 layer_factory.hpp:77] Creating layer conv0
I0415 18:43:53.872599 11438 net.cpp:91] Creating Layer conv0
I0415 18:43:53.872644 11438 net.cpp:425] conv0 <- data
I0415 18:43:53.872709 11438 net.cpp:399] conv0 -> conv0
I0415 18:43:53.873267 11438 net.cpp:141] Setting up conv0
I0415 18:43:53.873301 11438 net.cpp:148] Top shape: 64 150 24 24 (5529600)
I0415 18:43:53.873327 11438 net.cpp:156] Memory required for data: 22319360
I0415 18:43:53.873430 11438 layer_factory.hpp:77] Creating layer pool0
I0415 18:43:53.873476 11438 net.cpp:91] Creating Layer pool0
I0415 18:43:53.873500 11438 net.cpp:425] pool0 <- conv0
I0415 18:43:53.873548 11438 net.cpp:399] pool0 -> pool0
I0415 18:43:53.873615 11438 net.cpp:141] Setting up pool0
I0415 18:43:53.873646 11438 net.cpp:148] Top shape: 64 150 12 12 (1382400)
I0415 18:43:53.873666 11438 net.cpp:156] Memory required for data: 27848960
I0415 18:43:53.873687 11438 layer_factory.hpp:77] Creating layer conv1
I0415 18:43:53.873730 11438 net.cpp:91] Creating Layer conv1
I0415 18:43:53.873754 11438 net.cpp:425] conv1 <- pool0
I0415 18:43:53.873814 11438 net.cpp:399] conv1 -> conv1
I0415 18:43:53.878708 11472 data_layer.cpp:102] Prefetch batch: 3 ms.
I0415 18:43:53.878949 11472 data_layer.cpp:103]      Read time: 0.216 ms.
I0415 18:43:53.878989 11472 data_layer.cpp:104] Transform time: 1.038 ms.
I0415 18:43:53.882136 11472 data_layer.cpp:102] Prefetch batch: 3 ms.
I0415 18:43:53.882843 11472 data_layer.cpp:103]      Read time: 0.213 ms.
I0415 18:43:53.882877 11472 data_layer.cpp:104] Transform time: 1.118 ms.
I0415 18:43:53.886766 11472 data_layer.cpp:102] Prefetch batch: 3 ms.
I0415 18:43:53.886806 11472 data_layer.cpp:103]      Read time: 0.217 ms.
I0415 18:43:53.886837 11472 data_layer.cpp:104] Transform time: 1.042 ms.
I0415 18:43:53.964252 11438 net.cpp:141] Setting up conv1
I0415 18:43:53.964293 11438 net.cpp:148] Top shape: 64 150 8 8 (614400)
I0415 18:43:53.964304 11438 net.cpp:156] Memory required for data: 30306560
I0415 18:43:53.964352 11438 layer_factory.hpp:77] Creating layer pool1
I0415 18:43:53.964395 11438 net.cpp:91] Creating Layer pool1
I0415 18:43:53.964414 11438 net.cpp:425] pool1 <- conv1
I0415 18:43:53.964450 11438 net.cpp:399] pool1 -> pool1
I0415 18:43:53.964504 11438 net.cpp:141] Setting up pool1
I0415 18:43:53.964524 11438 net.cpp:148] Top shape: 64 150 4 4 (153600)
I0415 18:43:53.964534 11438 net.cpp:156] Memory required for data: 30920960
I0415 18:43:53.964548 11438 layer_factory.hpp:77] Creating layer ip1
I0415 18:43:53.964586 11438 net.cpp:91] Creating Layer ip1
I0415 18:43:53.964602 11438 net.cpp:425] ip1 <- pool1
I0415 18:43:53.964638 11438 net.cpp:399] ip1 -> ip1
I0415 18:43:53.991312 11438 net.cpp:141] Setting up ip1
I0415 18:43:53.991338 11438 net.cpp:148] Top shape: 64 100 (6400)
I0415 18:43:53.991346 11438 net.cpp:156] Memory required for data: 30946560
I0415 18:43:53.991389 11438 layer_factory.hpp:77] Creating layer relu1
I0415 18:43:53.991423 11438 net.cpp:91] Creating Layer relu1
I0415 18:43:53.991441 11438 net.cpp:425] relu1 <- ip1
I0415 18:43:53.991468 11438 net.cpp:386] relu1 -> ip1 (in-place)
I0415 18:43:53.991500 11438 net.cpp:141] Setting up relu1
I0415 18:43:53.991515 11438 net.cpp:148] Top shape: 64 100 (6400)
I0415 18:43:53.991524 11438 net.cpp:156] Memory required for data: 30972160
I0415 18:43:53.991539 11438 layer_factory.hpp:77] Creating layer ip2
I0415 18:43:53.991567 11438 net.cpp:91] Creating Layer ip2
I0415 18:43:53.991583 11438 net.cpp:425] ip2 <- ip1
I0415 18:43:53.991617 11438 net.cpp:399] ip2 -> ip2
I0415 18:43:53.991806 11438 net.cpp:141] Setting up ip2
I0415 18:43:53.991827 11438 net.cpp:148] Top shape: 64 10 (640)
I0415 18:43:53.991837 11438 net.cpp:156] Memory required for data: 30974720
I0415 18:43:53.991865 11438 layer_factory.hpp:77] Creating layer relu2
I0415 18:43:53.991895 11438 net.cpp:91] Creating Layer relu2
I0415 18:43:53.991911 11438 net.cpp:425] relu2 <- ip2
I0415 18:43:53.991940 11438 net.cpp:386] relu2 -> ip2 (in-place)
I0415 18:43:53.991969 11438 net.cpp:141] Setting up relu2
I0415 18:43:53.991984 11438 net.cpp:148] Top shape: 64 10 (640)
I0415 18:43:53.991993 11438 net.cpp:156] Memory required for data: 30977280
I0415 18:43:53.992007 11438 layer_factory.hpp:77] Creating layer loss
I0415 18:43:53.992038 11438 net.cpp:91] Creating Layer loss
I0415 18:43:53.992054 11438 net.cpp:425] loss <- ip2
I0415 18:43:53.992079 11438 net.cpp:425] loss <- label
I0415 18:43:53.992106 11438 net.cpp:399] loss -> loss
I0415 18:43:53.992174 11438 layer_factory.hpp:77] Creating layer loss
…
I0415 18:43:53.993742 11438 solver.cpp:181] Creating test net (#0) specified by net file: ECE595/mnist/train_test/var_num_feature/lenet_train_test_featuresize150.prototxt
I0415 18:43:53.993863 11438 net.cpp:313] The NetState phase (1) differed from the phase (0) specified by a rule in layer mnist
I0415 18:43:53.994096 11438 net.cpp:49] Initializing net from parameters: 
name: "LeNet"
state {
  phase: TEST
}
layer {
  name: "mnist"
  type: "Data"
  top: "data"
  top: "label"
  include {
    phase: TEST
  }
  transform_param {
    scale: 0.00390625
  }
  data_param {
    source: "examples/mnist/mnist_test_lmdb"
    batch_size: 100
    backend: LMDB
  }
}
layer {
  name: "conv0"
  type: "Convolution"
  bottom: "data"
  top: "conv0"
  param {
    lr_mult: 1
  }
  param {
    lr_mult: 2
  }
  convolution_param {
    num_output: 150
    kernel_size: 5
    stride: 1
    weight_filler {
      type: "xavier"
    }
    bias_filler {
      type: "constant"
    }
  }
}
layer {
  name: "pool0"
  type: "Pooling"
  bottom: "conv0"
  top: "pool0"
  pooling_param {
    pool: MAX
    kernel_size: 2
    stride: 2
  }
}
layer {
  name: "conv1"
  type: "Convolution"
  bottom: "pool0"
  top: "conv1"
  param {
    lr_mult: 1
  }
  param {
    lr_mult: 2
  }
  convolution_param {
    num_output: 150
    kernel_size: 5
    stride: 1
    weight_filler {
      type: "xavier"
    }
    bias_filler {
      type: "constant"
    }
  }
}
layer {
  name: "pool1"
  type: "Pooling"
  bottom: "conv1"
  top: "pool1"
  pooling_param {
    pool: MAX
    kernel_size: 2
    stride: 2
  }
}
layer {
  name: "ip1"
  type: "InnerProduct"
  bottom: "pool1"
  top: "ip1"
  param {
    lr_mult: 1
  }
  param {
    lr_mult: 2
  }
  inner_product_param {
    num_output: 100
    weight_filler {
      type: "xavier"
    }
    bias_filler {
      type: "constant"
    }
  }
}
layer {
  name: "relu1"
  type: "ReLU"
  bottom: "ip1"
  top: "ip1"
}
layer {
  name: "ip2"
  type: "InnerProduct"
  bottom: "ip1"
  top: "ip2"
  param {
    lr_mult: 1
  }
  param {
    lr_mult: 2
  }
  inner_product_param {
    num_output: 10
    weight_filler {
      type: "xavier"
    }
    bias_filler {
      type: "constant"
    }
  }
}
layer {
  name: "relu2"
  type: "ReLU"
  bottom: "ip2"
  top: "ip2"
}
layer {
  name: "accuracy"
  type: "Accuracy"
  bottom: "ip2"
  bottom: "label"
  top: "accuracy"
  include {
    phase: TEST
  }
}
layer {
  name: "loss"
  type: "SoftmaxWithLoss"
  bottom: "ip2"
  bottom: "label"
  top: "loss"
}
I0415 18:43:53.994503 11438 layer_factory.hpp:77] Creating layer mnist
I0415 18:43:53.994825 11438 net.cpp:91] Creating Layer mnist
I0415 18:43:53.994859 11438 net.cpp:399] mnist -> data
I0415 18:43:53.994917 11438 net.cpp:399] mnist -> label
I0415 18:43:53.998656 11473 db_lmdb.cpp:35] Opened lmdb examples/mnist/mnist_test_lmdb
I0415 18:43:53.999119 11438 data_layer.cpp:41] output data size: 100,1,28,28
I0415 18:43:53.999856 11438 base_data_layer.cpp:69] Initializing prefetch
I0415 18:43:53.999932 11438 base_data_layer.cpp:72] Prefetch initialized.
I0415 18:43:53.999946 11438 net.cpp:141] Setting up mnist
I0415 18:43:53.999969 11438 net.cpp:148] Top shape: 100 1 28 28 (78400)
I0415 18:43:53.999985 11438 net.cpp:148] Top shape: 100 (100)
I0415 18:43:53.999994 11438 net.cpp:156] Memory required for data: 314000
I0415 18:43:54.000015 11438 layer_factory.hpp:77] Creating layer label_mnist_1_split
I0415 18:43:54.000116 11438 net.cpp:91] Creating Layer label_mnist_1_split
I0415 18:43:54.000138 11438 net.cpp:425] label_mnist_1_split <- label
I0415 18:43:54.000190 11438 net.cpp:399] label_mnist_1_split -> label_mnist_1_split_0
I0415 18:43:54.000265 11438 net.cpp:399] label_mnist_1_split -> label_mnist_1_split_1
I0415 18:43:54.000330 11438 net.cpp:141] Setting up label_mnist_1_split
I0415 18:43:54.000356 11438 net.cpp:148] Top shape: 100 (100)
I0415 18:43:54.000370 11438 net.cpp:148] Top shape: 100 (100)
I0415 18:43:54.000380 11438 net.cpp:156] Memory required for data: 314800
I0415 18:43:54.000394 11438 layer_factory.hpp:77] Creating layer conv0
I0415 18:43:54.000464 11438 net.cpp:91] Creating Layer conv0
I0415 18:43:54.000486 11438 net.cpp:425] conv0 <- data
I0415 18:43:54.000531 11438 net.cpp:399] conv0 -> conv0
I0415 18:43:54.001155 11438 net.cpp:141] Setting up conv0
I0415 18:43:54.001195 11438 net.cpp:148] Top shape: 100 150 24 24 (8640000)
I0415 18:43:54.001209 11438 net.cpp:156] Memory required for data: 34874800
I0415 18:43:54.001273 11438 layer_factory.hpp:77] Creating layer pool0
I0415 18:43:54.001318 11438 net.cpp:91] Creating Layer pool0
I0415 18:43:54.001338 11438 net.cpp:425] pool0 <- conv0
I0415 18:43:54.001381 11438 net.cpp:399] pool0 -> pool0
I0415 18:43:54.001440 11438 net.cpp:141] Setting up pool0
I0415 18:43:54.001469 11438 net.cpp:148] Top shape: 100 150 12 12 (2160000)
I0415 18:43:54.001479 11438 net.cpp:156] Memory required for data: 43514800
I0415 18:43:54.001494 11438 layer_factory.hpp:77] Creating layer conv1
I0415 18:43:54.001546 11438 net.cpp:91] Creating Layer conv1
I0415 18:43:54.001565 11438 net.cpp:425] conv1 <- pool0
I0415 18:43:54.001605 11438 net.cpp:399] conv1 -> conv1
I0415 18:43:54.004580 11474 data_layer.cpp:102] Prefetch batch: 4 ms.
I0415 18:43:54.004643 11474 data_layer.cpp:103]      Read time: 0.451 ms.
I0415 18:43:54.004659 11474 data_layer.cpp:104] Transform time: 2.799 ms.
I0415 18:43:54.008854 11474 data_layer.cpp:102] Prefetch batch: 4 ms.
I0415 18:43:54.008880 11474 data_layer.cpp:103]      Read time: 0.386 ms.
I0415 18:43:54.008893 11474 data_layer.cpp:104] Transform time: 2.709 ms.
I0415 18:43:54.013048 11474 data_layer.cpp:102] Prefetch batch: 4 ms.
I0415 18:43:54.013073 11474 data_layer.cpp:103]      Read time: 0.388 ms.
I0415 18:43:54.013087 11474 data_layer.cpp:104] Transform time: 2.695 ms.
I0415 18:43:54.064463 11438 net.cpp:141] Setting up conv1
I0415 18:43:54.064492 11438 net.cpp:148] Top shape: 100 150 8 8 (960000)
I0415 18:43:54.064502 11438 net.cpp:156] Memory required for data: 47354800
I0415 18:43:54.064548 11438 layer_factory.hpp:77] Creating layer pool1
I0415 18:43:54.064586 11438 net.cpp:91] Creating Layer pool1
I0415 18:43:54.064604 11438 net.cpp:425] pool1 <- conv1
I0415 18:43:54.064640 11438 net.cpp:399] pool1 -> pool1
I0415 18:43:54.064693 11438 net.cpp:141] Setting up pool1
I0415 18:43:54.064713 11438 net.cpp:148] Top shape: 100 150 4 4 (240000)
I0415 18:43:54.064723 11438 net.cpp:156] Memory required for data: 48314800
I0415 18:43:54.064736 11438 layer_factory.hpp:77] Creating layer ip1
I0415 18:43:54.064769 11438 net.cpp:91] Creating Layer ip1
I0415 18:43:54.064785 11438 net.cpp:425] ip1 <- pool1
I0415 18:43:54.064826 11438 net.cpp:399] ip1 -> ip1
I0415 18:43:54.091442 11438 net.cpp:141] Setting up ip1
I0415 18:43:54.091475 11438 net.cpp:148] Top shape: 100 100 (10000)
I0415 18:43:54.091483 11438 net.cpp:156] Memory required for data: 48354800
I0415 18:43:54.091532 11438 layer_factory.hpp:77] Creating layer relu1
I0415 18:43:54.091576 11438 net.cpp:91] Creating Layer relu1
I0415 18:43:54.091593 11438 net.cpp:425] relu1 <- ip1
I0415 18:43:54.091624 11438 net.cpp:386] relu1 -> ip1 (in-place)
I0415 18:43:54.091655 11438 net.cpp:141] Setting up relu1
I0415 18:43:54.091670 11438 net.cpp:148] Top shape: 100 100 (10000)
I0415 18:43:54.091680 11438 net.cpp:156] Memory required for data: 48394800
I0415 18:43:54.091692 11438 layer_factory.hpp:77] Creating layer ip2
I0415 18:43:54.091733 11438 net.cpp:91] Creating Layer ip2
I0415 18:43:54.091750 11438 net.cpp:425] ip2 <- ip1
I0415 18:43:54.091785 11438 net.cpp:399] ip2 -> ip2
I0415 18:43:54.091990 11438 net.cpp:141] Setting up ip2
I0415 18:43:54.092013 11438 net.cpp:148] Top shape: 100 10 (1000)
I0415 18:43:54.092022 11438 net.cpp:156] Memory required for data: 48398800
I0415 18:43:54.092051 11438 layer_factory.hpp:77] Creating layer relu2
I0415 18:43:54.092075 11438 net.cpp:91] Creating Layer relu2
I0415 18:43:54.092092 11438 net.cpp:425] relu2 <- ip2
I0415 18:43:54.092118 11438 net.cpp:386] relu2 -> ip2 (in-place)
I0415 18:43:54.092149 11438 net.cpp:141] Setting up relu2
I0415 18:43:54.092164 11438 net.cpp:148] Top shape: 100 10 (1000)
I0415 18:43:54.092172 11438 net.cpp:156] Memory required for data: 48402800
I0415 18:43:54.092185 11438 layer_factory.hpp:77] Creating layer ip2_relu2_0_split
I0415 18:43:54.092207 11438 net.cpp:91] Creating Layer ip2_relu2_0_split
I0415 18:43:54.092221 11438 net.cpp:425] ip2_relu2_0_split <- ip2
I0415 18:43:54.092248 11438 net.cpp:399] ip2_relu2_0_split -> ip2_relu2_0_split_0
I0415 18:43:54.092278 11438 net.cpp:399] ip2_relu2_0_split -> ip2_relu2_0_split_1
I0415 18:43:54.092315 11438 net.cpp:141] Setting up ip2_relu2_0_split
I0415 18:43:54.092334 11438 net.cpp:148] Top shape: 100 10 (1000)
I0415 18:43:54.092346 11438 net.cpp:148] Top shape: 100 10 (1000)
I0415 18:43:54.092355 11438 net.cpp:156] Memory required for data: 48410800
I0415 18:43:54.092368 11438 layer_factory.hpp:77] Creating layer accuracy
I0415 18:43:54.092406 11438 net.cpp:91] Creating Layer accuracy
I0415 18:43:54.092424 11438 net.cpp:425] accuracy <- ip2_relu2_0_split_0
I0415 18:43:54.092456 11438 net.cpp:425] accuracy <- label_mnist_1_split_0
I0415 18:43:54.092485 11438 net.cpp:399] accuracy -> accuracy
…
