…
I0417 20:45:20.851990  2556 net.cpp:313] The NetState phase (0) differed from the phase (1) specified by a rule in layer mnist
I0417 20:45:20.852044  2556 net.cpp:313] The NetState phase (0) differed from the phase (1) specified by a rule in layer accuracy
I0417 20:45:20.852213  2556 net.cpp:49] Initializing net from parameters: 
name: "LeNet"
state {
  phase: TRAIN
}
layer {
  name: "mnist"
  type: "Data"
  top: "data"
  top: "label"
  include {
    phase: TRAIN
  }
  transform_param {
    scale: 0.00390625
  }
  data_param {
    source: "examples/mnist/mnist_train_lmdb"
    batch_size: 64
    backend: LMDB
  }
}
layer {
  name: "conv0"
  type: "Convolution"
  bottom: "data"
  top: "conv0"
  param {
    lr_mult: 1
  }
  param {
    lr_mult: 2
  }
  convolution_param {
    num_output: 50
    kernel_size: 5
    stride: 1
    weight_filler {
      type: "xavier"
    }
    bias_filler {
      type: "constant"
    }
  }
}
layer {
  name: "pool0"
  type: "Pooling"
  bottom: "conv0"
  top: "pool0"
  pooling_param {
    pool: MAX
    kernel_size: 2
    stride: 2
  }
}
layer {
  name: "conv1"
  type: "Convolution"
  bottom: "pool0"
  top: "conv1"
  param {
    lr_mult: 1
  }
  param {
    lr_mult: 2
  }
  convolution_param {
    num_output: 50
    kernel_size: 5
    stride: 1
    weight_filler {
      type: "xavier"
    }
    bias_filler {
      type: "constant"
    }
  }
}
layer {
  name: "pool1"
  type: "Pooling"
  bottom: "conv1"
  top: "pool1"
  pooling_param {
    pool: MAX
    kernel_size: 2
    stride: 2
  }
}
layer {
  name: "ip1"
  type: "InnerProduct"
  bottom: "pool1"
  top: "ip1"
  param {
    lr_mult: 1
  }
  param {
    lr_mult: 2
  }
  inner_product_param {
    num_output: 100
    weight_filler {
      type: "xavier"
    }
    bias_filler {
      type: "constant"
    }
  }
}
layer {
  name: "relu1"
  type: "ReLU"
  bottom: "ip1"
  top: "ip1"
}
layer {
  name: "ip2"
  type: "InnerProduct"
  bottom: "ip1"
  top: "ip2"
  param {
    lr_mult: 1
  }
  param {
    lr_mult: 2
  }
  inner_product_param {
    num_output: 10
    weight_filler {
      type: "xavier"
    }
    bias_filler {
      type: "constant"
    }
  }
}
layer {
  name: "relu2"
  type: "ReLU"
  bottom: "ip2"
  top: "ip2"
}
layer {
  name: "loss"
  type: "SoftmaxWithLoss"
  bottom: "ip2"
  bottom: "label"
  top: "loss"
}
I0417 20:45:20.852653  2556 layer_factory.hpp:77] Creating layer mnist
I0417 20:45:20.853930  2556 net.cpp:91] Creating Layer mnist
I0417 20:45:20.853972  2556 net.cpp:399] mnist -> data
I0417 20:45:20.854099  2556 net.cpp:399] mnist -> label
I0417 20:45:20.859505  2591 db_lmdb.cpp:35] Opened lmdb examples/mnist/mnist_train_lmdb
I0417 20:45:20.860496  2556 data_layer.cpp:41] output data size: 64,1,28,28
I0417 20:45:20.860960  2556 base_data_layer.cpp:69] Initializing prefetch
I0417 20:45:20.861024  2556 base_data_layer.cpp:72] Prefetch initialized.
I0417 20:45:20.861043  2556 net.cpp:141] Setting up mnist
I0417 20:45:20.861074  2556 net.cpp:148] Top shape: 64 1 28 28 (50176)
I0417 20:45:20.861094  2556 net.cpp:148] Top shape: 64 (64)
I0417 20:45:20.861102  2556 net.cpp:156] Memory required for data: 200960
I0417 20:45:20.861124  2556 layer_factory.hpp:77] Creating layer conv0
I0417 20:45:20.861171  2556 net.cpp:91] Creating Layer conv0
I0417 20:45:20.861196  2556 net.cpp:425] conv0 <- data
I0417 20:45:20.861243  2556 net.cpp:399] conv0 -> conv0
I0417 20:45:20.861685  2556 net.cpp:141] Setting up conv0
I0417 20:45:20.861752  2556 net.cpp:148] Top shape: 64 50 24 24 (1843200)
I0417 20:45:20.861773  2556 net.cpp:156] Memory required for data: 7573760
I0417 20:45:20.862030  2556 layer_factory.hpp:77] Creating layer pool0
I0417 20:45:20.862145  2556 net.cpp:91] Creating Layer pool0
I0417 20:45:20.862184  2556 net.cpp:425] pool0 <- conv0
I0417 20:45:20.862282  2556 net.cpp:399] pool0 -> pool0
I0417 20:45:20.862440  2556 net.cpp:141] Setting up pool0
I0417 20:45:20.862484  2556 net.cpp:148] Top shape: 64 50 12 12 (460800)
I0417 20:45:20.862505  2556 net.cpp:156] Memory required for data: 9416960
I0417 20:45:20.862534  2556 layer_factory.hpp:77] Creating layer conv1
I0417 20:45:20.862640  2556 net.cpp:91] Creating Layer conv1
I0417 20:45:20.862673  2556 net.cpp:425] conv1 <- pool0
I0417 20:45:20.862746  2556 net.cpp:399] conv1 -> conv1
I0417 20:45:20.877549  2556 net.cpp:141] Setting up conv1
I0417 20:45:20.879412  2592 data_layer.cpp:102] Prefetch batch: 15 ms.
I0417 20:45:20.879454  2592 data_layer.cpp:103]      Read time: 0.3 ms.
I0417 20:45:20.879467  2592 data_layer.cpp:104] Transform time: 1.044 ms.
I0417 20:45:20.881197  2592 data_layer.cpp:102] Prefetch batch: 1 ms.
I0417 20:45:20.881211  2592 data_layer.cpp:103]      Read time: 0.224 ms.
I0417 20:45:20.881220  2592 data_layer.cpp:104] Transform time: 1.032 ms.
I0417 20:45:20.882812  2556 net.cpp:148] Top shape: 64 50 8 8 (204800)
I0417 20:45:20.882899  2592 data_layer.cpp:102] Prefetch batch: 1 ms.
I0417 20:45:20.883019  2592 data_layer.cpp:103]      Read time: 0.225 ms.
I0417 20:45:20.883028  2592 data_layer.cpp:104] Transform time: 1.025 ms.
I0417 20:45:20.883015  2556 net.cpp:156] Memory required for data: 10236160
I0417 20:45:20.883201  2556 layer_factory.hpp:77] Creating layer pool1
I0417 20:45:20.883306  2556 net.cpp:91] Creating Layer pool1
I0417 20:45:20.883374  2556 net.cpp:425] pool1 <- conv1
I0417 20:45:20.883477  2556 net.cpp:399] pool1 -> pool1
I0417 20:45:20.883626  2556 net.cpp:141] Setting up pool1
I0417 20:45:20.883700  2556 net.cpp:148] Top shape: 64 50 4 4 (51200)
I0417 20:45:20.883751  2556 net.cpp:156] Memory required for data: 10440960
I0417 20:45:20.883808  2556 layer_factory.hpp:77] Creating layer ip1
I0417 20:45:20.883919  2556 net.cpp:91] Creating Layer ip1
I0417 20:45:20.883981  2556 net.cpp:425] ip1 <- pool1
I0417 20:45:20.884086  2556 net.cpp:399] ip1 -> ip1
I0417 20:45:20.902701  2556 net.cpp:141] Setting up ip1
I0417 20:45:20.902786  2556 net.cpp:148] Top shape: 64 100 (6400)
I0417 20:45:20.902837  2556 net.cpp:156] Memory required for data: 10466560
I0417 20:45:20.902962  2556 layer_factory.hpp:77] Creating layer relu1
I0417 20:45:20.903061  2556 net.cpp:91] Creating Layer relu1
I0417 20:45:20.903123  2556 net.cpp:425] relu1 <- ip1
I0417 20:45:20.903216  2556 net.cpp:386] relu1 -> ip1 (in-place)
I0417 20:45:20.903316  2556 net.cpp:141] Setting up relu1
I0417 20:45:20.903381  2556 net.cpp:148] Top shape: 64 100 (6400)
I0417 20:45:20.903429  2556 net.cpp:156] Memory required for data: 10492160
I0417 20:45:20.903487  2556 layer_factory.hpp:77] Creating layer ip2
I0417 20:45:20.903587  2556 net.cpp:91] Creating Layer ip2
I0417 20:45:20.903650  2556 net.cpp:425] ip2 <- ip1
I0417 20:45:20.903759  2556 net.cpp:399] ip2 -> ip2
I0417 20:45:20.904186  2556 net.cpp:141] Setting up ip2
I0417 20:45:20.904263  2556 net.cpp:148] Top shape: 64 10 (640)
I0417 20:45:20.904310  2556 net.cpp:156] Memory required for data: 10494720
I0417 20:45:20.904403  2556 layer_factory.hpp:77] Creating layer relu2
I0417 20:45:20.904495  2556 net.cpp:91] Creating Layer relu2
I0417 20:45:20.904611  2556 net.cpp:425] relu2 <- ip2
I0417 20:45:20.904708  2556 net.cpp:386] relu2 -> ip2 (in-place)
I0417 20:45:20.904808  2556 net.cpp:141] Setting up relu2
I0417 20:45:20.904870  2556 net.cpp:148] Top shape: 64 10 (640)
I0417 20:45:20.904918  2556 net.cpp:156] Memory required for data: 10497280
I0417 20:45:20.904974  2556 layer_factory.hpp:77] Creating layer loss
I0417 20:45:20.905073  2556 net.cpp:91] Creating Layer loss
I0417 20:45:20.905134  2556 net.cpp:425] loss <- ip2
I0417 20:45:20.905216  2556 net.cpp:425] loss <- label
I0417 20:45:20.905323  2556 net.cpp:399] loss -> loss
I0417 20:45:20.905508  2556 layer_factory.hpp:77] Creating layer loss
…
I0417 20:45:20.908972  2556 solver.cpp:181] Creating test net (#0) specified by net file: ECE595/mnist/train_test/var_num_feature/lenet_train_test_featuresize50.prototxt
I0417 20:45:20.909268  2556 net.cpp:313] The NetState phase (1) differed from the phase (0) specified by a rule in layer mnist
I0417 20:45:20.909909  2556 net.cpp:49] Initializing net from parameters: 
name: "LeNet"
state {
  phase: TEST
}
layer {
  name: "mnist"
  type: "Data"
  top: "data"
  top: "label"
  include {
    phase: TEST
  }
  transform_param {
    scale: 0.00390625
  }
  data_param {
    source: "examples/mnist/mnist_test_lmdb"
    batch_size: 100
    backend: LMDB
  }
}
layer {
  name: "conv0"
  type: "Convolution"
  bottom: "data"
  top: "conv0"
  param {
    lr_mult: 1
  }
  param {
    lr_mult: 2
  }
  convolution_param {
    num_output: 50
    kernel_size: 5
    stride: 1
    weight_filler {
      type: "xavier"
    }
    bias_filler {
      type: "constant"
    }
  }
}
layer {
  name: "pool0"
  type: "Pooling"
  bottom: "conv0"
  top: "pool0"
  pooling_param {
    pool: MAX
    kernel_size: 2
    stride: 2
  }
}
layer {
  name: "conv1"
  type: "Convolution"
  bottom: "pool0"
  top: "conv1"
  param {
    lr_mult: 1
  }
  param {
    lr_mult: 2
  }
  convolution_param {
    num_output: 50
    kernel_size: 5
    stride: 1
    weight_filler {
      type: "xavier"
    }
    bias_filler {
      type: "constant"
    }
  }
}
layer {
  name: "pool1"
  type: "Pooling"
  bottom: "conv1"
  top: "pool1"
  pooling_param {
    pool: MAX
    kernel_size: 2
    stride: 2
  }
}
layer {
  name: "ip1"
  type: "InnerProduct"
  bottom: "pool1"
  top: "ip1"
  param {
    lr_mult: 1
  }
  param {
    lr_mult: 2
  }
  inner_product_param {
    num_output: 100
    weight_filler {
      type: "xavier"
    }
    bias_filler {
      type: "constant"
    }
  }
}
layer {
  name: "relu1"
  type: "ReLU"
  bottom: "ip1"
  top: "ip1"
}
layer {
  name: "ip2"
  type: "InnerProduct"
  bottom: "ip1"
  top: "ip2"
  param {
    lr_mult: 1
  }
  param {
    lr_mult: 2
  }
  inner_product_param {
    num_output: 10
    weight_filler {
      type: "xavier"
    }
    bias_filler {
      type: "constant"
    }
  }
}
layer {
  name: "relu2"
  type: "ReLU"
  bottom: "ip2"
  top: "ip2"
}
layer {
  name: "accuracy"
  type: "Accuracy"
  bottom: "ip2"
  bottom: "label"
  top: "accuracy"
  include {
    phase: TEST
  }
}
layer {
  name: "loss"
  type: "SoftmaxWithLoss"
  bottom: "ip2"
  bottom: "label"
  top: "loss"
}
I0417 20:45:20.911370  2556 layer_factory.hpp:77] Creating layer mnist
I0417 20:45:20.912336  2556 net.cpp:91] Creating Layer mnist
I0417 20:45:20.912436  2556 net.cpp:399] mnist -> data
I0417 20:45:20.912616  2556 net.cpp:399] mnist -> label
I0417 20:45:20.917276  2593 db_lmdb.cpp:35] Opened lmdb examples/mnist/mnist_test_lmdb
I0417 20:45:20.918021  2556 data_layer.cpp:41] output data size: 100,1,28,28
I0417 20:45:20.919540  2556 base_data_layer.cpp:69] Initializing prefetch
I0417 20:45:20.919693  2556 base_data_layer.cpp:72] Prefetch initialized.
I0417 20:45:20.919724  2556 net.cpp:141] Setting up mnist
I0417 20:45:20.919762  2556 net.cpp:148] Top shape: 100 1 28 28 (78400)
I0417 20:45:20.919802  2556 net.cpp:148] Top shape: 100 (100)
I0417 20:45:20.919821  2556 net.cpp:156] Memory required for data: 314000
I0417 20:45:20.919874  2556 layer_factory.hpp:77] Creating layer label_mnist_1_split
I0417 20:45:20.919824  2594 blocking_queue.cpp:50] Waiting for data
I0417 20:45:20.919962  2556 net.cpp:91] Creating Layer label_mnist_1_split
I0417 20:45:20.919996  2556 net.cpp:425] label_mnist_1_split <- label
I0417 20:45:20.920054  2556 net.cpp:399] label_mnist_1_split -> label_mnist_1_split_0
I0417 20:45:20.920125  2556 net.cpp:399] label_mnist_1_split -> label_mnist_1_split_1
I0417 20:45:20.920205  2556 net.cpp:141] Setting up label_mnist_1_split
I0417 20:45:20.920243  2556 net.cpp:148] Top shape: 100 (100)
I0417 20:45:20.920269  2556 net.cpp:148] Top shape: 100 (100)
I0417 20:45:20.920289  2556 net.cpp:156] Memory required for data: 314800
I0417 20:45:20.920313  2556 layer_factory.hpp:77] Creating layer conv0
I0417 20:45:20.920419  2556 net.cpp:91] Creating Layer conv0
I0417 20:45:20.920449  2556 net.cpp:425] conv0 <- data
I0417 20:45:20.920522  2556 net.cpp:399] conv0 -> conv0
I0417 20:45:20.921097  2556 net.cpp:141] Setting up conv0
I0417 20:45:20.921141  2556 net.cpp:148] Top shape: 100 50 24 24 (2880000)
I0417 20:45:20.921159  2556 net.cpp:156] Memory required for data: 11834800
I0417 20:45:20.921275  2556 layer_factory.hpp:77] Creating layer pool0
I0417 20:45:20.921331  2556 net.cpp:91] Creating Layer pool0
I0417 20:45:20.921362  2556 net.cpp:425] pool0 <- conv0
I0417 20:45:20.921424  2556 net.cpp:399] pool0 -> pool0
I0417 20:45:20.921519  2556 net.cpp:141] Setting up pool0
I0417 20:45:20.921563  2556 net.cpp:148] Top shape: 100 50 12 12 (720000)
I0417 20:45:20.921582  2556 net.cpp:156] Memory required for data: 14714800
I0417 20:45:20.921608  2556 layer_factory.hpp:77] Creating layer conv1
I0417 20:45:20.921712  2556 net.cpp:91] Creating Layer conv1
I0417 20:45:20.921743  2556 net.cpp:425] conv1 <- pool0
I0417 20:45:20.921815  2556 net.cpp:399] conv1 -> conv1
I0417 20:45:20.937248  2594 data_layer.cpp:102] Prefetch batch: 17 ms.
I0417 20:45:20.937276  2594 data_layer.cpp:103]      Read time: 15.173 ms.
I0417 20:45:20.937285  2594 data_layer.cpp:104] Transform time: 1.687 ms.
I0417 20:45:20.939270  2556 net.cpp:141] Setting up conv1
I0417 20:45:20.939343  2556 net.cpp:148] Top shape: 100 50 8 8 (320000)
I0417 20:45:20.939373  2556 net.cpp:156] Memory required for data: 15994800
I0417 20:45:20.939481  2556 layer_factory.hpp:77] Creating layer pool1
I0417 20:45:20.939561  2556 net.cpp:91] Creating Layer pool1
I0417 20:45:20.939599  2556 net.cpp:425] pool1 <- conv1
I0417 20:45:20.939684  2556 net.cpp:399] pool1 -> pool1
I0417 20:45:20.939805  2556 net.cpp:141] Setting up pool1
I0417 20:45:20.939848  2594 data_layer.cpp:102] Prefetch batch: 2 ms.
I0417 20:45:20.939854  2556 net.cpp:148] Top shape: 100 50 4 4 (80000)
I0417 20:45:20.939877  2594 data_layer.cpp:103]      Read time: 0.443 ms.
I0417 20:45:20.939887  2594 data_layer.cpp:104] Transform time: 1.522 ms.
I0417 20:45:20.939894  2556 net.cpp:156] Memory required for data: 16314800
I0417 20:45:20.939930  2556 layer_factory.hpp:77] Creating layer ip1
I0417 20:45:20.940016  2556 net.cpp:91] Creating Layer ip1
I0417 20:45:20.940057  2556 net.cpp:425] ip1 <- pool1
I0417 20:45:20.940151  2556 net.cpp:399] ip1 -> ip1
I0417 20:45:20.941557  2594 data_layer.cpp:102] Prefetch batch: 1 ms.
I0417 20:45:20.941568  2594 data_layer.cpp:103]      Read time: 0.191 ms.
I0417 20:45:20.941586  2594 data_layer.cpp:104] Transform time: 1.083 ms.
I0417 20:45:20.953799  2556 net.cpp:141] Setting up ip1
I0417 20:45:20.953840  2556 net.cpp:148] Top shape: 100 100 (10000)
I0417 20:45:20.953852  2556 net.cpp:156] Memory required for data: 16354800
I0417 20:45:20.953917  2556 layer_factory.hpp:77] Creating layer relu1
I0417 20:45:20.953972  2556 net.cpp:91] Creating Layer relu1
I0417 20:45:20.953999  2556 net.cpp:425] relu1 <- ip1
I0417 20:45:20.954041  2556 net.cpp:386] relu1 -> ip1 (in-place)
I0417 20:45:20.954085  2556 net.cpp:141] Setting up relu1
I0417 20:45:20.954107  2556 net.cpp:148] Top shape: 100 100 (10000)
I0417 20:45:20.954119  2556 net.cpp:156] Memory required for data: 16394800
I0417 20:45:20.954138  2556 layer_factory.hpp:77] Creating layer ip2
I0417 20:45:20.954200  2556 net.cpp:91] Creating Layer ip2
I0417 20:45:20.954237  2556 net.cpp:425] ip2 <- ip1
I0417 20:45:20.954291  2556 net.cpp:399] ip2 -> ip2
I0417 20:45:20.954584  2556 net.cpp:141] Setting up ip2
I0417 20:45:20.954617  2556 net.cpp:148] Top shape: 100 10 (1000)
I0417 20:45:20.954630  2556 net.cpp:156] Memory required for data: 16398800
I0417 20:45:20.954670  2556 layer_factory.hpp:77] Creating layer relu2
I0417 20:45:20.954706  2556 net.cpp:91] Creating Layer relu2
I0417 20:45:20.954728  2556 net.cpp:425] relu2 <- ip2
I0417 20:45:20.954774  2556 net.cpp:386] relu2 -> ip2 (in-place)
I0417 20:45:20.954818  2556 net.cpp:141] Setting up relu2
I0417 20:45:20.954839  2556 net.cpp:148] Top shape: 100 10 (1000)
I0417 20:45:20.954852  2556 net.cpp:156] Memory required for data: 16402800
I0417 20:45:20.954871  2556 layer_factory.hpp:77] Creating layer ip2_relu2_0_split
I0417 20:45:20.954902  2556 net.cpp:91] Creating Layer ip2_relu2_0_split
I0417 20:45:20.954922  2556 net.cpp:425] ip2_relu2_0_split <- ip2
I0417 20:45:20.954967  2556 net.cpp:399] ip2_relu2_0_split -> ip2_relu2_0_split_0
I0417 20:45:20.955013  2556 net.cpp:399] ip2_relu2_0_split -> ip2_relu2_0_split_1
I0417 20:45:20.955066  2556 net.cpp:141] Setting up ip2_relu2_0_split
I0417 20:45:20.955092  2556 net.cpp:148] Top shape: 100 10 (1000)
I0417 20:45:20.955111  2556 net.cpp:148] Top shape: 100 10 (1000)
I0417 20:45:20.955124  2556 net.cpp:156] Memory required for data: 16410800
I0417 20:45:20.955143  2556 layer_factory.hpp:77] Creating layer accuracy
I0417 20:45:20.955194  2556 net.cpp:91] Creating Layer accuracy
I0417 20:45:20.955219  2556 net.cpp:425] accuracy <- ip2_relu2_0_split_0
I0417 20:45:20.955253  2556 net.cpp:425] accuracy <- label_mnist_1_split_0
I0417 20:45:20.955296  2556 net.cpp:399] accuracy -> accuracy
…
