…
I0417 20:38:52.582613  2390 net.cpp:313] The NetState phase (0) differed from the phase (1) specified by a rule in layer mnist
I0417 20:38:52.582800  2390 net.cpp:313] The NetState phase (0) differed from the phase (1) specified by a rule in layer accuracy
I0417 20:38:52.583276  2390 net.cpp:49] Initializing net from parameters: 
name: "LeNet"
state {
  phase: TRAIN
}
layer {
  name: "mnist"
  type: "Data"
  top: "data"
  top: "label"
  include {
    phase: TRAIN
  }
  transform_param {
    scale: 0.00390625
  }
  data_param {
    source: "examples/mnist/mnist_train_lmdb"
    batch_size: 64
    backend: LMDB
  }
}
layer {
  name: "conv0"
  type: "Convolution"
  bottom: "data"
  top: "conv0"
  param {
    lr_mult: 1
  }
  param {
    lr_mult: 2
  }
  convolution_param {
    num_output: 10
    kernel_size: 5
    stride: 1
    weight_filler {
      type: "xavier"
    }
    bias_filler {
      type: "constant"
    }
  }
}
layer {
  name: "pool0"
  type: "Pooling"
  bottom: "conv0"
  top: "pool0"
  pooling_param {
    pool: MAX
    kernel_size: 2
    stride: 2
  }
}
layer {
  name: "conv1"
  type: "Convolution"
  bottom: "pool0"
  top: "conv1"
  param {
    lr_mult: 1
  }
  param {
    lr_mult: 2
  }
  convolution_param {
    num_output: 10
    kernel_size: 5
    stride: 1
    weight_filler {
      type: "xavier"
    }
    bias_filler {
      type: "constant"
    }
  }
}
layer {
  name: "pool1"
  type: "Pooling"
  bottom: "conv1"
  top: "pool1"
  pooling_param {
    pool: MAX
    kernel_size: 2
    stride: 2
  }
}
layer {
  name: "ip1"
  type: "InnerProduct"
  bottom: "pool1"
  top: "ip1"
  param {
    lr_mult: 1
  }
  param {
    lr_mult: 2
  }
  inner_product_param {
    num_output: 100
    weight_filler {
      type: "xavier"
    }
    bias_filler {
      type: "constant"
    }
  }
}
layer {
  name: "relu1"
  type: "ReLU"
  bottom: "ip1"
  top: "ip1"
}
layer {
  name: "ip2"
  type: "InnerProduct"
  bottom: "ip1"
  top: "ip2"
  param {
    lr_mult: 1
  }
  param {
    lr_mult: 2
  }
  inner_product_param {
    num_output: 10
    weight_filler {
      type: "xavier"
    }
    bias_filler {
      type: "constant"
    }
  }
}
layer {
  name: "relu2"
  type: "ReLU"
  bottom: "ip2"
  top: "ip2"
}
layer {
  name: "loss"
  type: "SoftmaxWithLoss"
  bottom: "ip2"
  bottom: "label"
  top: "loss"
}
I0417 20:38:52.584766  2390 layer_factory.hpp:77] Creating layer mnist
I0417 20:38:52.588084  2390 net.cpp:91] Creating Layer mnist
I0417 20:38:52.589578  2390 net.cpp:399] mnist -> data
I0417 20:38:52.590174  2390 net.cpp:399] mnist -> label
I0417 20:38:52.611379  2424 db_lmdb.cpp:35] Opened lmdb examples/mnist/mnist_train_lmdb
I0417 20:38:52.612063  2390 data_layer.cpp:41] output data size: 64,1,28,28
I0417 20:38:52.613318  2390 base_data_layer.cpp:69] Initializing prefetch
I0417 20:38:52.613520  2390 base_data_layer.cpp:72] Prefetch initialized.
I0417 20:38:52.613564  2390 net.cpp:141] Setting up mnist
I0417 20:38:52.613654  2390 net.cpp:148] Top shape: 64 1 28 28 (50176)
I0417 20:38:52.613703  2390 net.cpp:148] Top shape: 64 (64)
I0417 20:38:52.613737  2390 net.cpp:156] Memory required for data: 200960
I0417 20:38:52.613806  2390 layer_factory.hpp:77] Creating layer conv0
I0417 20:38:52.613955  2390 net.cpp:91] Creating Layer conv0
I0417 20:38:52.614019  2390 net.cpp:425] conv0 <- data
I0417 20:38:52.614163  2390 net.cpp:399] conv0 -> conv0
I0417 20:38:52.614723  2390 net.cpp:141] Setting up conv0
I0417 20:38:52.614775  2390 net.cpp:148] Top shape: 64 10 24 24 (368640)
I0417 20:38:52.614800  2390 net.cpp:156] Memory required for data: 1675520
I0417 20:38:52.614979  2390 layer_factory.hpp:77] Creating layer pool0
I0417 20:38:52.615061  2390 net.cpp:91] Creating Layer pool0
I0417 20:38:52.615095  2390 net.cpp:425] pool0 <- conv0
I0417 20:38:52.615186  2390 net.cpp:399] pool0 -> pool0
I0417 20:38:52.615320  2390 net.cpp:141] Setting up pool0
I0417 20:38:52.615365  2390 net.cpp:148] Top shape: 64 10 12 12 (92160)
I0417 20:38:52.615391  2390 net.cpp:156] Memory required for data: 2044160
I0417 20:38:52.615427  2390 layer_factory.hpp:77] Creating layer conv1
I0417 20:38:52.615519  2390 net.cpp:91] Creating Layer conv1
I0417 20:38:52.615555  2390 net.cpp:425] conv1 <- pool0
I0417 20:38:52.615631  2390 net.cpp:399] conv1 -> conv1
I0417 20:38:52.616478  2390 net.cpp:141] Setting up conv1
I0417 20:38:52.616529  2390 net.cpp:148] Top shape: 64 10 8 8 (40960)
I0417 20:38:52.616554  2390 net.cpp:156] Memory required for data: 2208000
I0417 20:38:52.616647  2390 layer_factory.hpp:77] Creating layer pool1
I0417 20:38:52.616716  2390 net.cpp:91] Creating Layer pool1
I0417 20:38:52.616752  2390 net.cpp:425] pool1 <- conv1
I0417 20:38:52.616821  2390 net.cpp:399] pool1 -> pool1
I0417 20:38:52.616922  2390 net.cpp:141] Setting up pool1
I0417 20:38:52.616972  2390 net.cpp:148] Top shape: 64 10 4 4 (10240)
I0417 20:38:52.616996  2390 net.cpp:156] Memory required for data: 2248960
I0417 20:38:52.617035  2390 layer_factory.hpp:77] Creating layer ip1
I0417 20:38:52.617105  2390 net.cpp:91] Creating Layer ip1
I0417 20:38:52.617138  2390 net.cpp:425] ip1 <- pool1
I0417 20:38:52.617218  2390 net.cpp:399] ip1 -> ip1
I0417 20:38:52.621075  2390 net.cpp:141] Setting up ip1
I0417 20:38:52.621122  2390 net.cpp:148] Top shape: 64 100 (6400)
I0417 20:38:52.621155  2390 net.cpp:156] Memory required for data: 2274560
I0417 20:38:52.621140  2425 data_layer.cpp:102] Prefetch batch: 4 ms.
I0417 20:38:52.621215  2425 data_layer.cpp:103]      Read time: 0.572 ms.
I0417 20:38:52.621248  2390 layer_factory.hpp:77] Creating layer relu1
I0417 20:38:52.621322  2390 net.cpp:91] Creating Layer relu1
I0417 20:38:52.621357  2390 net.cpp:425] relu1 <- ip1
I0417 20:38:52.621418  2390 net.cpp:386] relu1 -> ip1 (in-place)
I0417 20:38:52.621495  2390 net.cpp:141] Setting up relu1
I0417 20:38:52.621531  2390 net.cpp:148] Top shape: 64 100 (6400)
I0417 20:38:52.621554  2390 net.cpp:156] Memory required for data: 2300160
I0417 20:38:52.621587  2390 layer_factory.hpp:77] Creating layer ip2
I0417 20:38:52.621647  2390 net.cpp:91] Creating Layer ip2
I0417 20:38:52.621681  2390 net.cpp:425] ip2 <- ip1
I0417 20:38:52.621758  2390 net.cpp:399] ip2 -> ip2
I0417 20:38:52.622148  2390 net.cpp:141] Setting up ip2
I0417 20:38:52.622191  2390 net.cpp:148] Top shape: 64 10 (640)
I0417 20:38:52.622217  2390 net.cpp:156] Memory required for data: 2302720
I0417 20:38:52.622282  2390 layer_factory.hpp:77] Creating layer relu2
I0417 20:38:52.622341  2390 net.cpp:91] Creating Layer relu2
I0417 20:38:52.622375  2390 net.cpp:425] relu2 <- ip2
I0417 20:38:52.622439  2390 net.cpp:386] relu2 -> ip2 (in-place)
I0417 20:38:52.622514  2390 net.cpp:141] Setting up relu2
I0417 20:38:52.622548  2390 net.cpp:148] Top shape: 64 10 (640)
I0417 20:38:52.622571  2390 net.cpp:156] Memory required for data: 2305280
I0417 20:38:52.622601  2390 layer_factory.hpp:77] Creating layer loss
I0417 20:38:52.622668  2390 net.cpp:91] Creating Layer loss
I0417 20:38:52.622702  2390 net.cpp:425] loss <- ip2
I0417 20:38:52.622757  2390 net.cpp:425] loss <- label
I0417 20:38:52.622817  2390 net.cpp:399] loss -> loss
I0417 20:38:52.622927  2390 layer_factory.hpp:77] Creating layer loss
…
I0417 20:38:52.625928  2390 net.cpp:313] The NetState phase (1) differed from the phase (0) specified by a rule in layer mnist
I0417 20:38:52.621246  2425 data_layer.cpp:104] Transform time: 2.72 ms.
I0417 20:38:52.626487  2390 net.cpp:49] Initializing net from parameters: 
name: "LeNet"
state {
  phase: TEST
}
layer {
  name: "mnist"
  type: "Data"
  top: "data"
  top: "label"
  include {
    phase: TEST
  }
  transform_param {
    scale: 0.00390625
  }
  data_param {
    source: "examples/mnist/mnist_test_lmdb"
    batch_size: 100
    backend: LMDB
  }
}
layer {
  name: "conv0"
  type: "Convolution"
  bottom: "data"
  top: "conv0"
  param {
    lr_mult: 1
  }
  param {
    lr_mult: 2
  }
  convolution_param {
    num_output: 10
    kernel_size: 5
    stride: 1
    weight_filler {
      type: "xavier"
    }
    bias_filler {
      type: "constant"
    }
  }
}
layer {
  name: "pool0"
  type: "Pooling"
  bottom: "conv0"
  top: "pool0"
  pooling_param {
    pool: MAX
    kernel_size: 2
    stride: 2
  }
}
layer {
  name: "conv1"
  type: "Convolution"
  bottom: "pool0"
  top: "conv1"
  param {
    lr_mult: 1
  }
  param {
    lr_mult: 2
  }
  convolution_param {
    num_output: 10
    kernel_size: 5
    stride: 1
    weight_filler {
      type: "xavier"
    }
    bias_filler {
      type: "constant"
    }
  }
}
layer {
  name: "pool1"
  type: "Pooling"
  bottom: "conv1"
  top: "pool1"
  pooling_param {
    pool: MAX
    kernel_size: 2
    stride: 2
  }
}
layer {
  name: "ip1"
  type: "InnerProduct"
  bottom: "pool1"
  top: "ip1"
  param {
    lr_mult: 1
  }
  param {
    lr_mult: 2
  }
  inner_product_param {
    num_output: 100
    weight_filler {
      type: "xavier"
    }
    bias_filler {
      type: "constant"
    }
  }
}
layer {
  name: "relu1"
  type: "ReLU"
  bottom: "ip1"
  top: "ip1"
}
layer {
  name: "ip2"
  type: "InnerProduct"
  bottom: "ip1"
  top: "ip2"
  param {
    lr_mult: 1
  }
  param {
    lr_mult: 2
  }
  inner_product_param {
    num_output: 10
    weight_filler {
      type: "xavier"
    }
    bias_filler {
      type: "constant"
    }
  }
}
layer {
  name: "relu2"
  type: "ReLU"
  bottom: "ip2"
  top: "ip2"
}
layer {
  name: "accuracy"
  type: "Accuracy"
  bottom: "ip2"
  bottom: "label"
  top: "accuracy"
  include {
    phase: TEST
  }
}
layer {
  name: "loss"
  type: "SoftmaxWithLoss"
  bottom: "ip2"
  bottom: "label"
  top: "loss"
}
I0417 20:38:52.627409  2390 layer_factory.hpp:77] Creating layer mnist
I0417 20:38:52.628927  2390 net.cpp:91] Creating Layer mnist
I0417 20:38:52.629007  2390 net.cpp:399] mnist -> data
I0417 20:38:52.629120  2390 net.cpp:399] mnist -> label
I0417 20:38:52.632117  2425 data_layer.cpp:102] Prefetch batch: 5 ms.
I0417 20:38:52.632154  2425 data_layer.cpp:103]      Read time: 1.631 ms.
I0417 20:38:52.632179  2425 data_layer.cpp:104] Transform time: 2.698 ms.
I0417 20:38:52.636211  2426 db_lmdb.cpp:35] Opened lmdb examples/mnist/mnist_test_lmdb
I0417 20:38:52.641062  2390 data_layer.cpp:41] output data size: 100,1,28,28
I0417 20:38:52.642911  2390 base_data_layer.cpp:69] Initializing prefetch
I0417 20:38:52.643018  2390 base_data_layer.cpp:72] Prefetch initialized.
I0417 20:38:52.643041  2390 net.cpp:141] Setting up mnist
I0417 20:38:52.643108  2390 net.cpp:148] Top shape: 100 1 28 28 (78400)
I0417 20:38:52.643131  2390 net.cpp:148] Top shape: 100 (100)
I0417 20:38:52.643141  2390 net.cpp:156] Memory required for data: 314000
I0417 20:38:52.643179  2390 layer_factory.hpp:77] Creating layer label_mnist_1_split
I0417 20:38:52.643266  2390 net.cpp:91] Creating Layer label_mnist_1_split
I0417 20:38:52.643297  2390 net.cpp:425] label_mnist_1_split <- label
I0417 20:38:52.643352  2390 net.cpp:399] label_mnist_1_split -> label_mnist_1_split_0
I0417 20:38:52.643415  2390 net.cpp:399] label_mnist_1_split -> label_mnist_1_split_1
I0417 20:38:52.643471  2390 net.cpp:141] Setting up label_mnist_1_split
I0417 20:38:52.643496  2390 net.cpp:148] Top shape: 100 (100)
I0417 20:38:52.643508  2390 net.cpp:148] Top shape: 100 (100)
I0417 20:38:52.643517  2390 net.cpp:156] Memory required for data: 314800
I0417 20:38:52.643528  2390 layer_factory.hpp:77] Creating layer conv0
I0417 20:38:52.643589  2390 net.cpp:91] Creating Layer conv0
I0417 20:38:52.643611  2390 net.cpp:425] conv0 <- data
I0417 20:38:52.643641  2390 net.cpp:399] conv0 -> conv0
I0417 20:38:52.643828  2390 net.cpp:141] Setting up conv0
I0417 20:38:52.643857  2390 net.cpp:148] Top shape: 100 10 24 24 (576000)
I0417 20:38:52.643865  2390 net.cpp:156] Memory required for data: 2618800
I0417 20:38:52.643915  2390 layer_factory.hpp:77] Creating layer pool0
I0417 20:38:52.643956  2390 net.cpp:91] Creating Layer pool0
I0417 20:38:52.643978  2390 net.cpp:425] pool0 <- conv0
I0417 20:38:52.644008  2390 net.cpp:399] pool0 -> pool0
I0417 20:38:52.644063  2390 net.cpp:141] Setting up pool0
I0417 20:38:52.644088  2390 net.cpp:148] Top shape: 100 10 12 12 (144000)
I0417 20:38:52.644098  2390 net.cpp:156] Memory required for data: 3194800
I0417 20:38:52.644110  2390 layer_factory.hpp:77] Creating layer conv1
I0417 20:38:52.644153  2390 net.cpp:91] Creating Layer conv1
I0417 20:38:52.644176  2390 net.cpp:425] conv1 <- pool0
I0417 20:38:52.644209  2390 net.cpp:399] conv1 -> conv1
I0417 20:38:52.644543  2390 net.cpp:141] Setting up conv1
I0417 20:38:52.644572  2390 net.cpp:148] Top shape: 100 10 8 8 (64000)
I0417 20:38:52.644579  2390 net.cpp:156] Memory required for data: 3450800
I0417 20:38:52.644614  2390 layer_factory.hpp:77] Creating layer pool1
I0417 20:38:52.644651  2390 net.cpp:91] Creating Layer pool1
I0417 20:38:52.644675  2390 net.cpp:425] pool1 <- conv1
I0417 20:38:52.644701  2390 net.cpp:399] pool1 -> pool1
I0417 20:38:52.644748  2390 net.cpp:141] Setting up pool1
I0417 20:38:52.644774  2390 net.cpp:148] Top shape: 100 10 4 4 (16000)
I0417 20:38:52.644783  2390 net.cpp:156] Memory required for data: 3514800
I0417 20:38:52.644794  2390 layer_factory.hpp:77] Creating layer ip1
I0417 20:38:52.644825  2390 net.cpp:91] Creating Layer ip1
I0417 20:38:52.644848  2390 net.cpp:425] ip1 <- pool1
I0417 20:38:52.644876  2390 net.cpp:399] ip1 -> ip1
I0417 20:38:52.643035  2425 data_layer.cpp:102] Prefetch batch: 10 ms.
I0417 20:38:52.645589  2425 data_layer.cpp:103]      Read time: 0.566 ms.
I0417 20:38:52.645622  2425 data_layer.cpp:104] Transform time: 2.75 ms.
I0417 20:38:52.646369  2390 net.cpp:141] Setting up ip1
I0417 20:38:52.646409  2390 net.cpp:148] Top shape: 100 100 (10000)
I0417 20:38:52.646427  2390 net.cpp:156] Memory required for data: 3554800
I0417 20:38:52.646467  2390 layer_factory.hpp:77] Creating layer relu1
I0417 20:38:52.646502  2390 net.cpp:91] Creating Layer relu1
I0417 20:38:52.646522  2390 net.cpp:425] relu1 <- ip1
I0417 20:38:52.646548  2390 net.cpp:386] relu1 -> ip1 (in-place)
I0417 20:38:52.646550  2427 data_layer.cpp:102] Prefetch batch: 2 ms.
I0417 20:38:52.646574  2427 data_layer.cpp:103]      Read time: 0.289 ms.
I0417 20:38:52.646581  2390 net.cpp:141] Setting up relu1
I0417 20:38:52.646584  2427 data_layer.cpp:104] Transform time: 1.628 ms.
I0417 20:38:52.646594  2390 net.cpp:148] Top shape: 100 100 (10000)
I0417 20:38:52.646601  2390 net.cpp:156] Memory required for data: 3594800
I0417 20:38:52.646612  2390 layer_factory.hpp:77] Creating layer ip2
I0417 20:38:52.646641  2390 net.cpp:91] Creating Layer ip2
I0417 20:38:52.646670  2390 net.cpp:425] ip2 <- ip1
I0417 20:38:52.646705  2390 net.cpp:399] ip2 -> ip2
I0417 20:38:52.646879  2390 net.cpp:141] Setting up ip2
I0417 20:38:52.646908  2390 net.cpp:148] Top shape: 100 10 (1000)
I0417 20:38:52.646925  2390 net.cpp:156] Memory required for data: 3598800
I0417 20:38:52.646950  2390 layer_factory.hpp:77] Creating layer relu2
I0417 20:38:52.646978  2390 net.cpp:91] Creating Layer relu2
I0417 20:38:52.646998  2390 net.cpp:425] relu2 <- ip2
I0417 20:38:52.647019  2390 net.cpp:386] relu2 -> ip2 (in-place)
I0417 20:38:52.647053  2390 net.cpp:141] Setting up relu2
I0417 20:38:52.647074  2390 net.cpp:148] Top shape: 100 10 (1000)
I0417 20:38:52.647083  2390 net.cpp:156] Memory required for data: 3602800
I0417 20:38:52.647094  2390 layer_factory.hpp:77] Creating layer ip2_relu2_0_split
I0417 20:38:52.647111  2390 net.cpp:91] Creating Layer ip2_relu2_0_split
I0417 20:38:52.647131  2390 net.cpp:425] ip2_relu2_0_split <- ip2
I0417 20:38:52.647156  2390 net.cpp:399] ip2_relu2_0_split -> ip2_relu2_0_split_0
I0417 20:38:52.647192  2390 net.cpp:399] ip2_relu2_0_split -> ip2_relu2_0_split_1
I0417 20:38:52.647231  2390 net.cpp:141] Setting up ip2_relu2_0_split
I0417 20:38:52.647254  2390 net.cpp:148] Top shape: 100 10 (1000)
I0417 20:38:52.647265  2390 net.cpp:148] Top shape: 100 10 (1000)
I0417 20:38:52.647274  2390 net.cpp:156] Memory required for data: 3610800
I0417 20:38:52.647284  2390 layer_factory.hpp:77] Creating layer accuracy
I0417 20:38:52.647320  2390 net.cpp:91] Creating Layer accuracy
I0417 20:38:52.647341  2390 net.cpp:425] accuracy <- ip2_relu2_0_split_0
I0417 20:38:52.647361  2390 net.cpp:425] accuracy <- label_mnist_1_split_0
I0417 20:38:52.647389  2390 net.cpp:399] accuracy -> accuracy
…
