…
I0415 18:40:22.677939 11249 net.cpp:313] The NetState phase (0) differed from the phase (1) specified by a rule in layer mnist
I0415 18:40:22.678078 11249 net.cpp:313] The NetState phase (0) differed from the phase (1) specified by a rule in layer accuracy
I0415 18:40:22.678506 11249 net.cpp:49] Initializing net from parameters: 
name: "LeNet"
state {
  phase: TRAIN
}
layer {
  name: "mnist"
  type: "Data"
  top: "data"
  top: "label"
  include {
    phase: TRAIN
  }
  transform_param {
    scale: 0.00390625
  }
  data_param {
    source: "examples/mnist/mnist_train_lmdb"
    batch_size: 64
    backend: LMDB
  }
}
layer {
  name: "conv0"
  type: "Convolution"
  bottom: "data"
  top: "conv0"
  param {
    lr_mult: 1
  }
  param {
    lr_mult: 2
  }
  convolution_param {
    num_output: 10
    kernel_size: 5
    stride: 1
    weight_filler {
      type: "xavier"
    }
    bias_filler {
      type: "constant"
    }
  }
}
layer {
  name: "pool0"
  type: "Pooling"
  bottom: "conv0"
  top: "pool0"
  pooling_param {
    pool: MAX
    kernel_size: 2
    stride: 2
  }
}
layer {
  name: "conv1"
  type: "Convolution"
  bottom: "pool0"
  top: "conv1"
  param {
    lr_mult: 1
  }
  param {
    lr_mult: 2
  }
  convolution_param {
    num_output: 10
    kernel_size: 5
    stride: 1
    weight_filler {
      type: "xavier"
    }
    bias_filler {
      type: "constant"
    }
  }
}
layer {
  name: "pool1"
  type: "Pooling"
  bottom: "conv1"
  top: "pool1"
  pooling_param {
    pool: MAX
    kernel_size: 2
    stride: 2
  }
}
layer {
  name: "ip1"
  type: "InnerProduct"
  bottom: "pool1"
  top: "ip1"
  param {
    lr_mult: 1
  }
  param {
    lr_mult: 2
  }
  inner_product_param {
    num_output: 100
    weight_filler {
      type: "xavier"
    }
    bias_filler {
      type: "constant"
    }
  }
}
layer {
  name: "relu1"
  type: "ReLU"
  bottom: "ip1"
  top: "ip1"
}
layer {
  name: "ip2"
  type: "InnerProduct"
  bottom: "ip1"
  top: "ip2"
  param {
    lr_mult: 1
  }
  param {
    lr_mult: 2
  }
  inner_product_param {
    num_output: 10
    weight_filler {
      type: "xavier"
    }
    bias_filler {
      type: "constant"
    }
  }
}
layer {
  name: "relu2"
  type: "ReLU"
  bottom: "ip2"
  top: "ip2"
}
layer {
  name: "loss"
  type: "SoftmaxWithLoss"
  bottom: "ip2"
  bottom: "label"
  top: "loss"
}
I0415 18:40:22.679687 11249 layer_factory.hpp:77] Creating layer mnist
I0415 18:40:22.683002 11249 net.cpp:91] Creating Layer mnist
I0415 18:40:22.683107 11249 net.cpp:399] mnist -> data
I0415 18:40:22.683418 11249 net.cpp:399] mnist -> label
I0415 18:40:22.742781 11282 db_lmdb.cpp:35] Opened lmdb examples/mnist/mnist_train_lmdb
I0415 18:40:22.807013 11249 data_layer.cpp:41] output data size: 64,1,28,28
I0415 18:40:22.807670 11249 base_data_layer.cpp:69] Initializing prefetch
I0415 18:40:22.807788 11249 base_data_layer.cpp:72] Prefetch initialized.
I0415 18:40:22.807813 11249 net.cpp:141] Setting up mnist
I0415 18:40:22.807901 11249 net.cpp:148] Top shape: 64 1 28 28 (50176)
I0415 18:40:22.807934 11249 net.cpp:148] Top shape: 64 (64)
I0415 18:40:22.807947 11249 net.cpp:156] Memory required for data: 200960
I0415 18:40:22.807992 11249 layer_factory.hpp:77] Creating layer conv0
I0415 18:40:22.808095 11249 net.cpp:91] Creating Layer conv0
I0415 18:40:22.808136 11249 net.cpp:425] conv0 <- data
I0415 18:40:22.808239 11249 net.cpp:399] conv0 -> conv0
I0415 18:40:22.808667 11249 net.cpp:141] Setting up conv0
I0415 18:40:22.808707 11249 net.cpp:148] Top shape: 64 10 24 24 (368640)
I0415 18:40:22.808720 11249 net.cpp:156] Memory required for data: 1675520
I0415 18:40:22.808854 11249 layer_factory.hpp:77] Creating layer pool0
I0415 18:40:22.808921 11249 net.cpp:91] Creating Layer pool0
I0415 18:40:22.808944 11249 net.cpp:425] pool0 <- conv0
I0415 18:40:22.809012 11249 net.cpp:399] pool0 -> pool0
I0415 18:40:22.809115 11249 net.cpp:141] Setting up pool0
I0415 18:40:22.809151 11249 net.cpp:148] Top shape: 64 10 12 12 (92160)
I0415 18:40:22.809168 11249 net.cpp:156] Memory required for data: 2044160
I0415 18:40:22.809190 11249 layer_factory.hpp:77] Creating layer conv1
I0415 18:40:22.809250 11249 net.cpp:91] Creating Layer conv1
I0415 18:40:22.809276 11249 net.cpp:425] conv1 <- pool0
I0415 18:40:22.809332 11249 net.cpp:399] conv1 -> conv1
I0415 18:40:22.809955 11249 net.cpp:141] Setting up conv1
I0415 18:40:22.809993 11249 net.cpp:148] Top shape: 64 10 8 8 (40960)
I0415 18:40:22.810005 11249 net.cpp:156] Memory required for data: 2208000
I0415 18:40:22.810065 11249 layer_factory.hpp:77] Creating layer pool1
I0415 18:40:22.810120 11249 net.cpp:91] Creating Layer pool1
I0415 18:40:22.810144 11249 net.cpp:425] pool1 <- conv1
I0415 18:40:22.810190 11249 net.cpp:399] pool1 -> pool1
I0415 18:40:22.810261 11249 net.cpp:141] Setting up pool1
I0415 18:40:22.810290 11249 net.cpp:148] Top shape: 64 10 4 4 (10240)
I0415 18:40:22.810304 11249 net.cpp:156] Memory required for data: 2248960
I0415 18:40:22.810322 11249 layer_factory.hpp:77] Creating layer ip1
I0415 18:40:22.810386 11249 net.cpp:91] Creating Layer ip1
I0415 18:40:22.810410 11249 net.cpp:425] ip1 <- pool1
I0415 18:40:22.810461 11249 net.cpp:399] ip1 -> ip1
I0415 18:40:22.810807 11283 data_layer.cpp:102] Prefetch batch: 2 ms.
I0415 18:40:22.810896 11283 data_layer.cpp:103]      Read time: 0.228 ms.
I0415 18:40:22.810915 11283 data_layer.cpp:104] Transform time: 1.784 ms.
I0415 18:40:22.811151 11283 blocking_queue.cpp:50] Waiting for data
I0415 18:40:22.813114 11249 net.cpp:141] Setting up ip1
I0415 18:40:22.813154 11249 net.cpp:148] Top shape: 64 100 (6400)
I0415 18:40:22.813166 11249 net.cpp:156] Memory required for data: 2274560
I0415 18:40:22.813227 11249 layer_factory.hpp:77] Creating layer relu1
I0415 18:40:22.813275 11249 net.cpp:91] Creating Layer relu1
I0415 18:40:22.813299 11249 net.cpp:425] relu1 <- ip1
I0415 18:40:22.813340 11249 net.cpp:386] relu1 -> ip1 (in-place)
I0415 18:40:22.813395 11249 net.cpp:141] Setting up relu1
I0415 18:40:22.813418 11249 net.cpp:148] Top shape: 64 100 (6400)
I0415 18:40:22.813431 11249 net.cpp:156] Memory required for data: 2300160
I0415 18:40:22.813447 11249 layer_factory.hpp:77] Creating layer ip2
I0415 18:40:22.813488 11249 net.cpp:91] Creating Layer ip2
I0415 18:40:22.813509 11249 net.cpp:425] ip2 <- ip1
I0415 18:40:22.813558 11249 net.cpp:399] ip2 -> ip2
I0415 18:40:22.813856 11249 net.cpp:141] Setting up ip2
I0415 18:40:22.813890 11249 net.cpp:148] Top shape: 64 10 (640)
I0415 18:40:22.813905 11249 net.cpp:156] Memory required for data: 2302720
I0415 18:40:22.813943 11249 layer_factory.hpp:77] Creating layer relu2
I0415 18:40:22.813988 11249 net.cpp:91] Creating Layer relu2
I0415 18:40:22.814012 11249 net.cpp:425] relu2 <- ip2
I0415 18:40:22.814051 11249 net.cpp:386] relu2 -> ip2 (in-place)
I0415 18:40:22.814093 11249 net.cpp:141] Setting up relu2
I0415 18:40:22.814115 11249 net.cpp:148] Top shape: 64 10 (640)
I0415 18:40:22.814127 11249 net.cpp:156] Memory required for data: 2305280
I0415 18:40:22.814146 11249 layer_factory.hpp:77] Creating layer loss
I0415 18:40:22.814193 11249 net.cpp:91] Creating Layer loss
I0415 18:40:22.814215 11249 net.cpp:425] loss <- ip2
I0415 18:40:22.814249 11249 net.cpp:425] loss <- label
I0415 18:40:22.814290 11249 net.cpp:399] loss -> loss
I0415 18:40:22.814378 11249 layer_factory.hpp:77] Creating layer loss
…
I0415 18:40:23.042368 11249 solver.cpp:181] Creating test net (#0) specified by net file: ECE595/mnist/train_test/var_num_feature/lenet_train_test_featuresize10.prototxt
I0415 18:40:23.042629 11249 net.cpp:313] The NetState phase (1) differed from the phase (0) specified by a rule in layer mnist
I0415 18:40:23.042992 11249 net.cpp:49] Initializing net from parameters: 
name: "LeNet"
state {
  phase: TEST
}
layer {
  name: "mnist"
  type: "Data"
  top: "data"
  top: "label"
  include {
    phase: TEST
  }
  transform_param {
    scale: 0.00390625
  }
  data_param {
    source: "examples/mnist/mnist_test_lmdb"
    batch_size: 100
    backend: LMDB
  }
}
layer {
  name: "conv0"
  type: "Convolution"
  bottom: "data"
  top: "conv0"
  param {
    lr_mult: 1
  }
  param {
    lr_mult: 2
  }
  convolution_param {
    num_output: 10
    kernel_size: 5
    stride: 1
    weight_filler {
      type: "xavier"
    }
    bias_filler {
      type: "constant"
    }
  }
}
layer {
  name: "pool0"
  type: "Pooling"
  bottom: "conv0"
  top: "pool0"
  pooling_param {
    pool: MAX
    kernel_size: 2
    stride: 2
  }
}
layer {
  name: "conv1"
  type: "Convolution"
  bottom: "pool0"
  top: "conv1"
  param {
    lr_mult: 1
  }
  param {
    lr_mult: 2
  }
  convolution_param {
    num_output: 10
    kernel_size: 5
    stride: 1
    weight_filler {
      type: "xavier"
    }
    bias_filler {
      type: "constant"
    }
  }
}
layer {
  name: "pool1"
  type: "Pooling"
  bottom: "conv1"
  top: "pool1"
  pooling_param {
    pool: MAX
    kernel_size: 2
    stride: 2
  }
}
layer {
  name: "ip1"
  type: "InnerProduct"
  bottom: "pool1"
  top: "ip1"
  param {
    lr_mult: 1
  }
  param {
    lr_mult: 2
  }
  inner_product_param {
    num_output: 100
    weight_filler {
      type: "xavier"
    }
    bias_filler {
      type: "constant"
    }
  }
}
layer {
  name: "relu1"
  type: "ReLU"
  bottom: "ip1"
  top: "ip1"
}
layer {
  name: "ip2"
  type: "InnerProduct"
  bottom: "ip1"
  top: "ip2"
  param {
    lr_mult: 1
  }
  param {
    lr_mult: 2
  }
  inner_product_param {
    num_output: 10
    weight_filler {
      type: "xavier"
    }
    bias_filler {
      type: "constant"
    }
  }
}
layer {
  name: "relu2"
  type: "ReLU"
  bottom: "ip2"
  top: "ip2"
}
layer {
  name: "accuracy"
  type: "Accuracy"
  bottom: "ip2"
  bottom: "label"
  top: "accuracy"
  include {
    phase: TEST
  }
}
layer {
  name: "loss"
  type: "SoftmaxWithLoss"
  bottom: "ip2"
  bottom: "label"
  top: "loss"
}
I0415 18:40:23.043678 11249 layer_factory.hpp:77] Creating layer mnist
I0415 18:40:23.044251 11249 net.cpp:91] Creating Layer mnist
I0415 18:40:23.044314 11249 net.cpp:399] mnist -> data
I0415 18:40:23.044421 11249 net.cpp:399] mnist -> label
I0415 18:40:23.073536 11284 db_lmdb.cpp:35] Opened lmdb examples/mnist/mnist_test_lmdb
I0415 18:40:23.188133 11249 data_layer.cpp:41] output data size: 100,1,28,28
I0415 18:40:23.189162 11249 base_data_layer.cpp:69] Initializing prefetch
I0415 18:40:23.189286 11249 base_data_layer.cpp:72] Prefetch initialized.
I0415 18:40:23.189312 11249 net.cpp:141] Setting up mnist
I0415 18:40:23.189348 11249 net.cpp:148] Top shape: 100 1 28 28 (78400)
I0415 18:40:23.189378 11249 net.cpp:148] Top shape: 100 (100)
I0415 18:40:23.189394 11249 net.cpp:156] Memory required for data: 314000
I0415 18:40:23.189429 11249 layer_factory.hpp:77] Creating layer label_mnist_1_split
I0415 18:40:23.189512 11249 net.cpp:91] Creating Layer label_mnist_1_split
I0415 18:40:23.189543 11249 net.cpp:425] label_mnist_1_split <- label
I0415 18:40:23.189599 11249 net.cpp:399] label_mnist_1_split -> label_mnist_1_split_0
I0415 18:40:23.189673 11249 net.cpp:399] label_mnist_1_split -> label_mnist_1_split_1
I0415 18:40:23.189748 11249 net.cpp:141] Setting up label_mnist_1_split
I0415 18:40:23.189781 11249 net.cpp:148] Top shape: 100 (100)
I0415 18:40:23.189806 11249 net.cpp:148] Top shape: 100 (100)
I0415 18:40:23.189821 11249 net.cpp:156] Memory required for data: 314800
I0415 18:40:23.189847 11249 layer_factory.hpp:77] Creating layer conv0
I0415 18:40:23.189930 11249 net.cpp:91] Creating Layer conv0
I0415 18:40:23.189962 11249 net.cpp:425] conv0 <- data
I0415 18:40:23.190029 11249 net.cpp:399] conv0 -> conv0
I0415 18:40:23.190315 11249 net.cpp:141] Setting up conv0
I0415 18:40:23.190369 11249 net.cpp:148] Top shape: 100 10 24 24 (576000)
I0415 18:40:23.190387 11249 net.cpp:156] Memory required for data: 2618800
I0415 18:40:23.190477 11249 layer_factory.hpp:77] Creating layer pool0
I0415 18:40:23.190542 11249 net.cpp:91] Creating Layer pool0
I0415 18:40:23.190572 11249 net.cpp:425] pool0 <- conv0
I0415 18:40:23.190627 11249 net.cpp:399] pool0 -> pool0
I0415 18:40:23.190711 11249 net.cpp:141] Setting up pool0
I0415 18:40:23.190752 11249 net.cpp:148] Top shape: 100 10 12 12 (144000)
I0415 18:40:23.190771 11249 net.cpp:156] Memory required for data: 3194800
I0415 18:40:23.190793 11249 layer_factory.hpp:77] Creating layer conv1
I0415 18:40:23.190867 11249 net.cpp:91] Creating Layer conv1
I0415 18:40:23.190894 11249 net.cpp:425] conv1 <- pool0
I0415 18:40:23.190964 11249 net.cpp:399] conv1 -> conv1
I0415 18:40:23.191612 11249 net.cpp:141] Setting up conv1
I0415 18:40:23.191648 11249 net.cpp:148] Top shape: 100 10 8 8 (64000)
I0415 18:40:23.191663 11249 net.cpp:156] Memory required for data: 3450800
I0415 18:40:23.191723 11249 layer_factory.hpp:77] Creating layer pool1
I0415 18:40:23.191771 11249 net.cpp:91] Creating Layer pool1
I0415 18:40:23.191794 11249 net.cpp:425] pool1 <- conv1
I0415 18:40:23.191848 11249 net.cpp:399] pool1 -> pool1
I0415 18:40:23.191921 11249 net.cpp:141] Setting up pool1
I0415 18:40:23.191949 11249 net.cpp:148] Top shape: 100 10 4 4 (16000)
I0415 18:40:23.191962 11249 net.cpp:156] Memory required for data: 3514800
I0415 18:40:23.191979 11249 layer_factory.hpp:77] Creating layer ip1
I0415 18:40:23.192028 11249 net.cpp:91] Creating Layer ip1
I0415 18:40:23.192054 11249 net.cpp:425] ip1 <- pool1
I0415 18:40:23.192104 11249 net.cpp:399] ip1 -> ip1
I0415 18:40:23.194031 11285 data_layer.cpp:102] Prefetch batch: 4 ms.
I0415 18:40:23.194077 11285 data_layer.cpp:103]      Read time: 0.509 ms.
I0415 18:40:23.194092 11285 data_layer.cpp:104] Transform time: 2.889 ms.
I0415 18:40:23.194773 11249 net.cpp:141] Setting up ip1
I0415 18:40:23.194830 11249 net.cpp:148] Top shape: 100 100 (10000)
I0415 18:40:23.194846 11249 net.cpp:156] Memory required for data: 3554800
I0415 18:40:23.194907 11249 layer_factory.hpp:77] Creating layer relu1
I0415 18:40:23.194948 11249 net.cpp:91] Creating Layer relu1
I0415 18:40:23.194972 11249 net.cpp:425] relu1 <- ip1
I0415 18:40:23.195011 11249 net.cpp:386] relu1 -> ip1 (in-place)
I0415 18:40:23.195057 11249 net.cpp:141] Setting up relu1
I0415 18:40:23.195076 11249 net.cpp:148] Top shape: 100 100 (10000)
I0415 18:40:23.195086 11249 net.cpp:156] Memory required for data: 3594800
I0415 18:40:23.195103 11249 layer_factory.hpp:77] Creating layer ip2
I0415 18:40:23.195180 11249 net.cpp:91] Creating Layer ip2
I0415 18:40:23.195205 11249 net.cpp:425] ip2 <- ip1
I0415 18:40:23.195261 11249 net.cpp:399] ip2 -> ip2
I0415 18:40:23.195565 11249 net.cpp:141] Setting up ip2
I0415 18:40:23.195600 11249 net.cpp:148] Top shape: 100 10 (1000)
I0415 18:40:23.195614 11249 net.cpp:156] Memory required for data: 3598800
I0415 18:40:23.195654 11249 layer_factory.hpp:77] Creating layer relu2
I0415 18:40:23.195701 11249 net.cpp:91] Creating Layer relu2
I0415 18:40:23.195725 11249 net.cpp:425] relu2 <- ip2
I0415 18:40:23.195767 11249 net.cpp:386] relu2 -> ip2 (in-place)
I0415 18:40:23.195811 11249 net.cpp:141] Setting up relu2
I0415 18:40:23.195832 11249 net.cpp:148] Top shape: 100 10 (1000)
I0415 18:40:23.195844 11249 net.cpp:156] Memory required for data: 3602800
I0415 18:40:23.195863 11249 layer_factory.hpp:77] Creating layer ip2_relu2_0_split
I0415 18:40:23.195894 11249 net.cpp:91] Creating Layer ip2_relu2_0_split
I0415 18:40:23.195914 11249 net.cpp:425] ip2_relu2_0_split <- ip2
I0415 18:40:23.195960 11249 net.cpp:399] ip2_relu2_0_split -> ip2_relu2_0_split_0
I0415 18:40:23.196007 11249 net.cpp:399] ip2_relu2_0_split -> ip2_relu2_0_split_1
I0415 18:40:23.196058 11249 net.cpp:141] Setting up ip2_relu2_0_split
I0415 18:40:23.196084 11249 net.cpp:148] Top shape: 100 10 (1000)
I0415 18:40:23.196104 11249 net.cpp:148] Top shape: 100 10 (1000)
I0415 18:40:23.196117 11249 net.cpp:156] Memory required for data: 3610800
I0415 18:40:23.196136 11249 layer_factory.hpp:77] Creating layer accuracy
I0415 18:40:23.196184 11249 net.cpp:91] Creating Layer accuracy
I0415 18:40:23.196208 11249 net.cpp:425] accuracy <- ip2_relu2_0_split_0
I0415 18:40:23.196244 11249 net.cpp:425] accuracy <- label_mnist_1_split_0
I0415 18:40:23.196285 11249 net.cpp:399] accuracy -> accuracy
…
