…
I0417 20:40:49.186614  2459 net.cpp:313] The NetState phase (0) differed from the phase (1) specified by a rule in layer mnist
I0417 20:40:49.186668  2459 net.cpp:313] The NetState phase (0) differed from the phase (1) specified by a rule in layer accuracy
I0417 20:40:49.186836  2459 net.cpp:49] Initializing net from parameters: 
name: "LeNet"
state {
  phase: TRAIN
}
layer {
  name: "mnist"
  type: "Data"
  top: "data"
  top: "label"
  include {
    phase: TRAIN
  }
  transform_param {
    scale: 0.00390625
  }
  data_param {
    source: "examples/mnist/mnist_train_lmdb"
    batch_size: 64
    backend: LMDB
  }
}
layer {
  name: "conv0"
  type: "Convolution"
  bottom: "data"
  top: "conv0"
  param {
    lr_mult: 1
  }
  param {
    lr_mult: 2
  }
  convolution_param {
    num_output: 25
    kernel_size: 5
    stride: 1
    weight_filler {
      type: "xavier"
    }
    bias_filler {
      type: "constant"
    }
  }
}
layer {
  name: "pool0"
  type: "Pooling"
  bottom: "conv0"
  top: "pool0"
  pooling_param {
    pool: MAX
    kernel_size: 2
    stride: 2
  }
}
layer {
  name: "conv1"
  type: "Convolution"
  bottom: "pool0"
  top: "conv1"
  param {
    lr_mult: 1
  }
  param {
    lr_mult: 2
  }
  convolution_param {
    num_output: 25
    kernel_size: 5
    stride: 1
    weight_filler {
      type: "xavier"
    }
    bias_filler {
      type: "constant"
    }
  }
}
layer {
  name: "pool1"
  type: "Pooling"
  bottom: "conv1"
  top: "pool1"
  pooling_param {
    pool: MAX
    kernel_size: 2
    stride: 2
  }
}
layer {
  name: "ip1"
  type: "InnerProduct"
  bottom: "pool1"
  top: "ip1"
  param {
    lr_mult: 1
  }
  param {
    lr_mult: 2
  }
  inner_product_param {
    num_output: 100
    weight_filler {
      type: "xavier"
    }
    bias_filler {
      type: "constant"
    }
  }
}
layer {
  name: "relu1"
  type: "ReLU"
  bottom: "ip1"
  top: "ip1"
}
layer {
  name: "ip2"
  type: "InnerProduct"
  bottom: "ip1"
  top: "ip2"
  param {
    lr_mult: 1
  }
  param {
    lr_mult: 2
  }
  inner_product_param {
    num_output: 10
    weight_filler {
      type: "xavier"
    }
    bias_filler {
      type: "constant"
    }
  }
}
layer {
  name: "relu2"
  type: "ReLU"
  bottom: "ip2"
  top: "ip2"
}
layer {
  name: "loss"
  type: "SoftmaxWithLoss"
  bottom: "ip2"
  bottom: "label"
  top: "loss"
}
I0417 20:40:49.187265  2459 layer_factory.hpp:77] Creating layer mnist
I0417 20:40:49.188619  2459 net.cpp:91] Creating Layer mnist
I0417 20:40:49.188664  2459 net.cpp:399] mnist -> data
I0417 20:40:49.188791  2459 net.cpp:399] mnist -> label
I0417 20:40:49.192239  2492 db_lmdb.cpp:35] Opened lmdb examples/mnist/mnist_train_lmdb
I0417 20:40:49.192922  2459 data_layer.cpp:41] output data size: 64,1,28,28
I0417 20:40:49.193347  2459 base_data_layer.cpp:69] Initializing prefetch
I0417 20:40:49.193886  2459 base_data_layer.cpp:72] Prefetch initialized.
I0417 20:40:49.193907  2459 net.cpp:141] Setting up mnist
I0417 20:40:49.193939  2459 net.cpp:148] Top shape: 64 1 28 28 (50176)
I0417 20:40:49.193963  2459 net.cpp:148] Top shape: 64 (64)
I0417 20:40:49.193969  2459 net.cpp:156] Memory required for data: 200960
I0417 20:40:49.193991  2459 layer_factory.hpp:77] Creating layer conv0
I0417 20:40:49.194058  2459 net.cpp:91] Creating Layer conv0
I0417 20:40:49.194085  2459 net.cpp:425] conv0 <- data
I0417 20:40:49.194133  2459 net.cpp:399] conv0 -> conv0
I0417 20:40:49.194394  2459 net.cpp:141] Setting up conv0
I0417 20:40:49.194419  2459 net.cpp:148] Top shape: 64 25 24 24 (921600)
I0417 20:40:49.194428  2459 net.cpp:156] Memory required for data: 3887360
I0417 20:40:49.194500  2459 layer_factory.hpp:77] Creating layer pool0
I0417 20:40:49.194538  2459 net.cpp:91] Creating Layer pool0
I0417 20:40:49.194550  2459 net.cpp:425] pool0 <- conv0
I0417 20:40:49.194584  2459 net.cpp:399] pool0 -> pool0
I0417 20:40:49.194711  2459 net.cpp:141] Setting up pool0
I0417 20:40:49.194737  2459 net.cpp:148] Top shape: 64 25 12 12 (230400)
I0417 20:40:49.194746  2459 net.cpp:156] Memory required for data: 4808960
I0417 20:40:49.194756  2459 layer_factory.hpp:77] Creating layer conv1
I0417 20:40:49.194788  2459 net.cpp:91] Creating Layer conv1
I0417 20:40:49.194808  2459 net.cpp:425] conv1 <- pool0
I0417 20:40:49.194836  2459 net.cpp:399] conv1 -> conv1
I0417 20:40:49.196430  2459 net.cpp:141] Setting up conv1
I0417 20:40:49.196457  2459 net.cpp:148] Top shape: 64 25 8 8 (102400)
I0417 20:40:49.196465  2459 net.cpp:156] Memory required for data: 5218560
I0417 20:40:49.196501  2459 layer_factory.hpp:77] Creating layer pool1
I0417 20:40:49.196538  2459 net.cpp:91] Creating Layer pool1
I0417 20:40:49.196561  2459 net.cpp:425] pool1 <- conv1
I0417 20:40:49.196589  2459 net.cpp:399] pool1 -> pool1
I0417 20:40:49.196636  2459 net.cpp:141] Setting up pool1
I0417 20:40:49.196662  2459 net.cpp:148] Top shape: 64 25 4 4 (25600)
I0417 20:40:49.196671  2459 net.cpp:156] Memory required for data: 5320960
I0417 20:40:49.196682  2459 layer_factory.hpp:77] Creating layer ip1
I0417 20:40:49.196709  2459 net.cpp:91] Creating Layer ip1
I0417 20:40:49.196730  2459 net.cpp:425] ip1 <- pool1
I0417 20:40:49.196758  2459 net.cpp:399] ip1 -> ip1
I0417 20:40:49.198346  2493 data_layer.cpp:102] Prefetch batch: 1 ms.
I0417 20:40:49.198384  2493 data_layer.cpp:103]      Read time: 0.213 ms.
I0417 20:40:49.198395  2493 data_layer.cpp:104] Transform time: 1.045 ms.
I0417 20:40:49.200502  2459 net.cpp:141] Setting up ip1
I0417 20:40:49.200523  2459 net.cpp:148] Top shape: 64 100 (6400)
I0417 20:40:49.200533  2459 net.cpp:156] Memory required for data: 5346560
I0417 20:40:49.200570  2459 layer_factory.hpp:77] Creating layer relu1
I0417 20:40:49.200598  2459 net.cpp:91] Creating Layer relu1
I0417 20:40:49.200614  2459 net.cpp:425] relu1 <- ip1
I0417 20:40:49.200636  2459 net.cpp:386] relu1 -> ip1 (in-place)
I0417 20:40:49.200664  2459 net.cpp:141] Setting up relu1
I0417 20:40:49.200678  2459 net.cpp:148] Top shape: 64 100 (6400)
I0417 20:40:49.200686  2459 net.cpp:156] Memory required for data: 5372160
I0417 20:40:49.200696  2459 layer_factory.hpp:77] Creating layer ip2
I0417 20:40:49.200719  2459 net.cpp:91] Creating Layer ip2
I0417 20:40:49.200734  2459 net.cpp:425] ip2 <- ip1
I0417 20:40:49.200762  2459 net.cpp:399] ip2 -> ip2
I0417 20:40:49.200914  2459 net.cpp:141] Setting up ip2
I0417 20:40:49.200932  2459 net.cpp:148] Top shape: 64 10 (640)
I0417 20:40:49.200940  2459 net.cpp:156] Memory required for data: 5374720
I0417 20:40:49.200963  2459 layer_factory.hpp:77] Creating layer relu2
I0417 20:40:49.200985  2459 net.cpp:91] Creating Layer relu2
I0417 20:40:49.200999  2459 net.cpp:425] relu2 <- ip2
I0417 20:40:49.201022  2459 net.cpp:386] relu2 -> ip2 (in-place)
I0417 20:40:49.201045  2459 net.cpp:141] Setting up relu2
I0417 20:40:49.201058  2459 net.cpp:148] Top shape: 64 10 (640)
I0417 20:40:49.201066  2459 net.cpp:156] Memory required for data: 5377280
I0417 20:40:49.201076  2459 layer_factory.hpp:77] Creating layer loss
I0417 20:40:49.201102  2459 net.cpp:91] Creating Layer loss
I0417 20:40:49.201123  2459 net.cpp:425] loss <- ip2
I0417 20:40:49.201143  2459 net.cpp:425] loss <- label
I0417 20:40:49.201164  2459 net.cpp:399] loss -> loss
I0417 20:40:49.201215  2459 layer_factory.hpp:77] Creating layer loss
…
I0417 20:40:49.202409  2459 solver.cpp:181] Creating test net (#0) specified by net file: ECE595/mnist/train_test/var_num_feature/lenet_train_test_featuresize25.prototxt
I0417 20:40:49.202507  2459 net.cpp:313] The NetState phase (1) differed from the phase (0) specified by a rule in layer mnist
I0417 20:40:49.202723  2459 net.cpp:49] Initializing net from parameters: 
name: "LeNet"
state {
  phase: TEST
}
layer {
  name: "mnist"
  type: "Data"
  top: "data"
  top: "label"
  include {
    phase: TEST
  }
  transform_param {
    scale: 0.00390625
  }
  data_param {
    source: "examples/mnist/mnist_test_lmdb"
    batch_size: 100
    backend: LMDB
  }
}
layer {
  name: "conv0"
  type: "Convolution"
  bottom: "data"
  top: "conv0"
  param {
    lr_mult: 1
  }
  param {
    lr_mult: 2
  }
  convolution_param {
    num_output: 25
    kernel_size: 5
    stride: 1
    weight_filler {
      type: "xavier"
    }
    bias_filler {
      type: "constant"
    }
  }
}
layer {
  name: "pool0"
  type: "Pooling"
  bottom: "conv0"
  top: "pool0"
  pooling_param {
    pool: MAX
    kernel_size: 2
    stride: 2
  }
}
layer {
  name: "conv1"
  type: "Convolution"
  bottom: "pool0"
  top: "conv1"
  param {
    lr_mult: 1
  }
  param {
    lr_mult: 2
  }
  convolution_param {
    num_output: 25
    kernel_size: 5
    stride: 1
    weight_filler {
      type: "xavier"
    }
    bias_filler {
      type: "constant"
    }
  }
}
layer {
  name: "pool1"
  type: "Pooling"
  bottom: "conv1"
  top: "pool1"
  pooling_param {
    pool: MAX
    kernel_size: 2
    stride: 2
  }
}
layer {
  name: "ip1"
  type: "InnerProduct"
  bottom: "pool1"
  top: "ip1"
  param {
    lr_mult: 1
  }
  param {
    lr_mult: 2
  }
  inner_product_param {
    num_output: 100
    weight_filler {
      type: "xavier"
    }
    bias_filler {
      type: "constant"
    }
  }
}
layer {
  name: "relu1"
  type: "ReLU"
  bottom: "ip1"
  top: "ip1"
}
layer {
  name: "ip2"
  type: "InnerProduct"
  bottom: "ip1"
  top: "ip2"
  param {
    lr_mult: 1
  }
  param {
    lr_mult: 2
  }
  inner_product_param {
    num_output: 10
    weight_filler {
      type: "xavier"
    }
    bias_filler {
      type: "constant"
    }
  }
}
layer {
  name: "relu2"
  type: "ReLU"
  bottom: "ip2"
  top: "ip2"
}
layer {
  name: "accuracy"
  type: "Accuracy"
  bottom: "ip2"
  bottom: "label"
  top: "accuracy"
  include {
    phase: TEST
  }
}
layer {
  name: "loss"
  type: "SoftmaxWithLoss"
  bottom: "ip2"
  bottom: "label"
  top: "loss"
}
I0417 20:40:49.203068  2459 layer_factory.hpp:77] Creating layer mnist
I0417 20:40:49.203541  2493 data_layer.cpp:102] Prefetch batch: 5 ms.
I0417 20:40:49.203661  2493 data_layer.cpp:103]      Read time: 0.211 ms.
I0417 20:40:49.203696  2493 data_layer.cpp:104] Transform time: 1.031 ms.
I0417 20:40:49.203900  2459 net.cpp:91] Creating Layer mnist
I0417 20:40:49.203956  2459 net.cpp:399] mnist -> data
I0417 20:40:49.204013  2459 net.cpp:399] mnist -> label
I0417 20:40:49.207063  2494 db_lmdb.cpp:35] Opened lmdb examples/mnist/mnist_test_lmdb
I0417 20:40:49.207181  2493 data_layer.cpp:102] Prefetch batch: 3 ms.
I0417 20:40:49.207197  2493 data_layer.cpp:103]      Read time: 0.259 ms.
I0417 20:40:49.207209  2493 data_layer.cpp:104] Transform time: 1.055 ms.
I0417 20:40:49.207414  2459 data_layer.cpp:41] output data size: 100,1,28,28
I0417 20:40:49.208025  2459 base_data_layer.cpp:69] Initializing prefetch
I0417 20:40:49.208101  2459 base_data_layer.cpp:72] Prefetch initialized.
I0417 20:40:49.208123  2459 net.cpp:141] Setting up mnist
I0417 20:40:49.208148  2459 net.cpp:148] Top shape: 100 1 28 28 (78400)
I0417 20:40:49.208170  2459 net.cpp:148] Top shape: 100 (100)
I0417 20:40:49.208189  2459 net.cpp:156] Memory required for data: 314000
I0417 20:40:49.208214  2459 layer_factory.hpp:77] Creating layer label_mnist_1_split
I0417 20:40:49.208259  2459 net.cpp:91] Creating Layer label_mnist_1_split
I0417 20:40:49.208286  2459 net.cpp:425] label_mnist_1_split <- label
I0417 20:40:49.208331  2459 net.cpp:399] label_mnist_1_split -> label_mnist_1_split_0
I0417 20:40:49.208381  2459 net.cpp:399] label_mnist_1_split -> label_mnist_1_split_1
I0417 20:40:49.208458  2459 net.cpp:141] Setting up label_mnist_1_split
I0417 20:40:49.208487  2459 net.cpp:148] Top shape: 100 (100)
I0417 20:40:49.208513  2459 net.cpp:148] Top shape: 100 (100)
I0417 20:40:49.208530  2459 net.cpp:156] Memory required for data: 314800
I0417 20:40:49.208551  2459 layer_factory.hpp:77] Creating layer conv0
I0417 20:40:49.208613  2459 net.cpp:91] Creating Layer conv0
I0417 20:40:49.208642  2459 net.cpp:425] conv0 <- data
I0417 20:40:49.208699  2459 net.cpp:399] conv0 -> conv0
I0417 20:40:49.208897  2459 net.cpp:141] Setting up conv0
I0417 20:40:49.208930  2459 net.cpp:148] Top shape: 100 25 24 24 (1440000)
I0417 20:40:49.208948  2459 net.cpp:156] Memory required for data: 6074800
I0417 20:40:49.209026  2459 layer_factory.hpp:77] Creating layer pool0
I0417 20:40:49.209071  2459 net.cpp:91] Creating Layer pool0
I0417 20:40:49.209106  2459 net.cpp:425] pool0 <- conv0
I0417 20:40:49.209170  2459 net.cpp:399] pool0 -> pool0
I0417 20:40:49.209231  2459 net.cpp:141] Setting up pool0
I0417 20:40:49.209260  2459 net.cpp:148] Top shape: 100 25 12 12 (360000)
I0417 20:40:49.209278  2459 net.cpp:156] Memory required for data: 7514800
I0417 20:40:49.209301  2459 layer_factory.hpp:77] Creating layer conv1
I0417 20:40:49.209353  2459 net.cpp:91] Creating Layer conv1
I0417 20:40:49.209379  2459 net.cpp:425] conv1 <- pool0
I0417 20:40:49.209450  2459 net.cpp:399] conv1 -> conv1
I0417 20:40:49.211004  2459 net.cpp:141] Setting up conv1
I0417 20:40:49.211036  2459 net.cpp:148] Top shape: 100 25 8 8 (160000)
I0417 20:40:49.211055  2459 net.cpp:156] Memory required for data: 8154800
I0417 20:40:49.211100  2459 layer_factory.hpp:77] Creating layer pool1
I0417 20:40:49.211138  2459 net.cpp:91] Creating Layer pool1
I0417 20:40:49.211164  2459 net.cpp:425] pool1 <- conv1
I0417 20:40:49.211202  2459 net.cpp:399] pool1 -> pool1
I0417 20:40:49.211254  2459 net.cpp:141] Setting up pool1
I0417 20:40:49.211282  2459 net.cpp:148] Top shape: 100 25 4 4 (40000)
I0417 20:40:49.211302  2459 net.cpp:156] Memory required for data: 8314800
I0417 20:40:49.211323  2459 layer_factory.hpp:77] Creating layer ip1
I0417 20:40:49.211361  2459 net.cpp:91] Creating Layer ip1
I0417 20:40:49.211410  2459 net.cpp:425] ip1 <- pool1
I0417 20:40:49.211578  2459 net.cpp:399] ip1 -> ip1
I0417 20:40:49.215785  2459 net.cpp:141] Setting up ip1
I0417 20:40:49.217533  2495 data_layer.cpp:102] Prefetch batch: 9 ms.
I0417 20:40:49.218673  2459 net.cpp:148] Top shape: 100 100 (10000)
I0417 20:40:49.218763  2459 net.cpp:156] Memory required for data: 8354800
I0417 20:40:49.218801  2459 layer_factory.hpp:77] Creating layer relu1
I0417 20:40:49.218828  2459 net.cpp:91] Creating Layer relu1
I0417 20:40:49.218839  2459 net.cpp:425] relu1 <- ip1
I0417 20:40:49.218866  2459 net.cpp:386] relu1 -> ip1 (in-place)
I0417 20:40:49.218755  2495 data_layer.cpp:103]      Read time: 1.435 ms.
I0417 20:40:49.218960  2495 data_layer.cpp:104] Transform time: 4.896 ms.
I0417 20:40:49.218910  2459 net.cpp:141] Setting up relu1
I0417 20:40:49.219058  2459 net.cpp:148] Top shape: 100 100 (10000)
I0417 20:40:49.219065  2459 net.cpp:156] Memory required for data: 8394800
I0417 20:40:49.219075  2459 layer_factory.hpp:77] Creating layer ip2
I0417 20:40:49.219102  2459 net.cpp:91] Creating Layer ip2
I0417 20:40:49.219133  2459 net.cpp:425] ip2 <- ip1
I0417 20:40:49.219166  2459 net.cpp:399] ip2 -> ip2
I0417 20:40:49.219339  2459 net.cpp:141] Setting up ip2
I0417 20:40:49.219368  2459 net.cpp:148] Top shape: 100 10 (1000)
I0417 20:40:49.219377  2459 net.cpp:156] Memory required for data: 8398800
I0417 20:40:49.219404  2459 layer_factory.hpp:77] Creating layer relu2
I0417 20:40:49.219434  2459 net.cpp:91] Creating Layer relu2
I0417 20:40:49.219454  2459 net.cpp:425] relu2 <- ip2
I0417 20:40:49.219480  2459 net.cpp:386] relu2 -> ip2 (in-place)
I0417 20:40:49.219509  2459 net.cpp:141] Setting up relu2
I0417 20:40:49.219528  2459 net.cpp:148] Top shape: 100 10 (1000)
I0417 20:40:49.219535  2459 net.cpp:156] Memory required for data: 8402800
I0417 20:40:49.219548  2459 layer_factory.hpp:77] Creating layer ip2_relu2_0_split
I0417 20:40:49.219564  2459 net.cpp:91] Creating Layer ip2_relu2_0_split
I0417 20:40:49.219575  2459 net.cpp:425] ip2_relu2_0_split <- ip2
I0417 20:40:49.219596  2459 net.cpp:399] ip2_relu2_0_split -> ip2_relu2_0_split_0
I0417 20:40:49.219620  2459 net.cpp:399] ip2_relu2_0_split -> ip2_relu2_0_split_1
I0417 20:40:49.220280  2459 net.cpp:141] Setting up ip2_relu2_0_split
I0417 20:40:49.220365  2459 net.cpp:148] Top shape: 100 10 (1000)
I0417 20:40:49.220403  2459 net.cpp:148] Top shape: 100 10 (1000)
I0417 20:40:49.220437  2459 net.cpp:156] Memory required for data: 8410800
I0417 20:40:49.220468  2459 layer_factory.hpp:77] Creating layer accuracy
I0417 20:40:49.220523  2459 net.cpp:91] Creating Layer accuracy
I0417 20:40:49.220582  2459 net.cpp:425] accuracy <- ip2_relu2_0_split_0
I0417 20:40:49.220629  2459 net.cpp:425] accuracy <- label_mnist_1_split_0
I0417 20:40:49.220698  2459 net.cpp:399] accuracy -> accuracy
…
