…
I0425 15:31:28.495280 20357 net.cpp:313] The NetState phase (0) differed from the phase (1) specified by a rule in layer mnist
I0425 15:31:28.495347 20357 net.cpp:313] The NetState phase (0) differed from the phase (1) specified by a rule in layer accuracy
I0425 15:31:28.495525 20357 net.cpp:49] Initializing net from parameters: 
name: "LeNet"
state {
  phase: TRAIN
}
layer {
  name: "mnist"
  type: "Data"
  top: "data"
  top: "label"
  include {
    phase: TRAIN
  }
  transform_param {
    scale: 0.00390625
  }
  data_param {
    source: "examples/mnist/mnist_train_lmdb"
    batch_size: 64
    backend: LMDB
  }
}
layer {
  name: "conv0"
  type: "Convolution"
  bottom: "data"
  top: "conv0"
  param {
    lr_mult: 1
  }
  param {
    lr_mult: 2
  }
  convolution_param {
    num_output: 50
    kernel_size: 5
    stride: 1
    weight_filler {
      type: "xavier"
    }
    bias_filler {
      type: "constant"
    }
  }
}
layer {
  name: "pool0"
  type: "Pooling"
  bottom: "conv0"
  top: "pool0"
  pooling_param {
    pool: MAX
    kernel_size: 2
    stride: 2
  }
}
layer {
  name: "conv1"
  type: "Convolution"
  bottom: "pool0"
  top: "conv1"
  param {
    lr_mult: 1
  }
  param {
    lr_mult: 2
  }
  convolution_param {
    num_output: 50
    kernel_size: 5
    stride: 1
    weight_filler {
      type: "xavier"
    }
    bias_filler {
      type: "constant"
    }
  }
}
layer {
  name: "pool1"
  type: "Pooling"
  bottom: "conv1"
  top: "pool1"
  pooling_param {
    pool: MAX
    kernel_size: 2
    stride: 2
  }
}
layer {
  name: "ip1"
  type: "InnerProduct"
  bottom: "pool1"
  top: "ip1"
  param {
    lr_mult: 1
  }
  param {
    lr_mult: 2
  }
  inner_product_param {
    num_output: 100
    weight_filler {
      type: "xavier"
    }
    bias_filler {
      type: "constant"
    }
  }
}
layer {
  name: "relu1"
  type: "ReLU"
  bottom: "ip1"
  top: "ip1"
}
layer {
  name: "ip2"
  type: "InnerProduct"
  bottom: "ip1"
  top: "ip2"
  param {
    lr_mult: 1
  }
  param {
    lr_mult: 2
  }
  inner_product_param {
    num_output: 10
    weight_filler {
      type: "xavier"
    }
    bias_filler {
      type: "constant"
    }
  }
}
layer {
  name: "relu2"
  type: "ReLU"
  bottom: "ip2"
  top: "ip2"
}
layer {
  name: "loss"
  type: "SoftmaxWithLoss"
  bottom: "ip2"
  bottom: "label"
  top: "loss"
}
I0425 15:31:28.496093 20357 layer_factory.hpp:77] Creating layer mnist
I0425 15:31:28.497406 20357 net.cpp:91] Creating Layer mnist
I0425 15:31:28.497462 20357 net.cpp:399] mnist -> data
I0425 15:31:28.497596 20357 net.cpp:399] mnist -> label
I0425 15:31:28.500916 20390 db_lmdb.cpp:35] Opened lmdb examples/mnist/mnist_train_lmdb
I0425 15:31:28.501569 20357 data_layer.cpp:41] output data size: 64,1,28,28
I0425 15:31:28.501972 20357 base_data_layer.cpp:69] Initializing prefetch
I0425 15:31:28.502033 20357 base_data_layer.cpp:72] Prefetch initialized.
I0425 15:31:28.502051 20357 net.cpp:141] Setting up mnist
I0425 15:31:28.502082 20357 net.cpp:148] Top shape: 64 1 28 28 (50176)
I0425 15:31:28.502104 20357 net.cpp:148] Top shape: 64 (64)
I0425 15:31:28.502111 20357 net.cpp:156] Memory required for data: 200960
I0425 15:31:28.502132 20357 layer_factory.hpp:77] Creating layer conv0
I0425 15:31:28.502185 20357 net.cpp:91] Creating Layer conv0
I0425 15:31:28.502210 20357 net.cpp:425] conv0 <- data
I0425 15:31:28.502257 20357 net.cpp:399] conv0 -> conv0
I0425 15:31:28.502563 20357 net.cpp:141] Setting up conv0
I0425 15:31:28.502589 20357 net.cpp:148] Top shape: 64 50 24 24 (1843200)
I0425 15:31:28.502596 20357 net.cpp:156] Memory required for data: 7573760
I0425 15:31:28.502674 20357 layer_factory.hpp:77] Creating layer pool0
I0425 15:31:28.502713 20357 net.cpp:91] Creating Layer pool0
I0425 15:31:28.502735 20357 net.cpp:425] pool0 <- conv0
I0425 15:31:28.502769 20357 net.cpp:399] pool0 -> pool0
I0425 15:31:28.502848 20357 net.cpp:141] Setting up pool0
I0425 15:31:28.502879 20357 net.cpp:148] Top shape: 64 50 12 12 (460800)
I0425 15:31:28.502897 20357 net.cpp:156] Memory required for data: 9416960
I0425 15:31:28.502918 20357 layer_factory.hpp:77] Creating layer conv1
I0425 15:31:28.502960 20357 net.cpp:91] Creating Layer conv1
I0425 15:31:28.502985 20357 net.cpp:425] conv1 <- pool0
I0425 15:31:28.503026 20357 net.cpp:399] conv1 -> conv1
I0425 15:31:28.508278 20391 data_layer.cpp:102] Prefetch batch: 3 ms.
I0425 15:31:28.508493 20391 data_layer.cpp:103]      Read time: 0.228 ms.
I0425 15:31:28.508533 20391 data_layer.cpp:104] Transform time: 1.034 ms.
I0425 15:31:28.508713 20357 net.cpp:141] Setting up conv1
I0425 15:31:28.508752 20357 net.cpp:148] Top shape: 64 50 8 8 (204800)
I0425 15:31:28.508771 20357 net.cpp:156] Memory required for data: 10236160
I0425 15:31:28.508819 20357 layer_factory.hpp:77] Creating layer pool1
I0425 15:31:28.508858 20357 net.cpp:91] Creating Layer pool1
I0425 15:31:28.508884 20357 net.cpp:425] pool1 <- conv1
I0425 15:31:28.508920 20357 net.cpp:399] pool1 -> pool1
I0425 15:31:28.508973 20357 net.cpp:141] Setting up pool1
I0425 15:31:28.509001 20357 net.cpp:148] Top shape: 64 50 4 4 (51200)
I0425 15:31:28.509018 20357 net.cpp:156] Memory required for data: 10440960
I0425 15:31:28.509038 20357 layer_factory.hpp:77] Creating layer ip1
I0425 15:31:28.509075 20357 net.cpp:91] Creating Layer ip1
I0425 15:31:28.509099 20357 net.cpp:425] ip1 <- pool1
I0425 15:31:28.509138 20357 net.cpp:399] ip1 -> ip1
I0425 15:31:28.512289 20391 data_layer.cpp:102] Prefetch batch: 3 ms.
I0425 15:31:28.512424 20391 data_layer.cpp:103]      Read time: 0.213 ms.
I0425 15:31:28.512456 20391 data_layer.cpp:104] Transform time: 1.161 ms.
I0425 15:31:28.516053 20391 data_layer.cpp:102] Prefetch batch: 3 ms.
I0425 15:31:28.516302 20391 data_layer.cpp:103]      Read time: 0.212 ms.
I0425 15:31:28.516338 20391 data_layer.cpp:104] Transform time: 1.228 ms.
I0425 15:31:28.516268 20357 net.cpp:141] Setting up ip1
I0425 15:31:28.520838 20357 net.cpp:148] Top shape: 64 100 (6400)
I0425 15:31:28.520848 20357 net.cpp:156] Memory required for data: 10466560
I0425 15:31:28.520889 20357 layer_factory.hpp:77] Creating layer relu1
I0425 15:31:28.520915 20357 net.cpp:91] Creating Layer relu1
I0425 15:31:28.520929 20357 net.cpp:425] relu1 <- ip1
I0425 15:31:28.520953 20357 net.cpp:386] relu1 -> ip1 (in-place)
I0425 15:31:28.520980 20357 net.cpp:141] Setting up relu1
I0425 15:31:28.520994 20357 net.cpp:148] Top shape: 64 100 (6400)
I0425 15:31:28.521004 20357 net.cpp:156] Memory required for data: 10492160
I0425 15:31:28.521016 20357 layer_factory.hpp:77] Creating layer ip2
I0425 15:31:28.521041 20357 net.cpp:91] Creating Layer ip2
I0425 15:31:28.521054 20357 net.cpp:425] ip2 <- ip1
I0425 15:31:28.521082 20357 net.cpp:399] ip2 -> ip2
I0425 15:31:28.521234 20357 net.cpp:141] Setting up ip2
I0425 15:31:28.521252 20357 net.cpp:148] Top shape: 64 10 (640)
I0425 15:31:28.521262 20357 net.cpp:156] Memory required for data: 10494720
I0425 15:31:28.521287 20357 layer_factory.hpp:77] Creating layer relu2
I0425 15:31:28.521312 20357 net.cpp:91] Creating Layer relu2
I0425 15:31:28.521327 20357 net.cpp:425] relu2 <- ip2
I0425 15:31:28.521350 20357 net.cpp:386] relu2 -> ip2 (in-place)
I0425 15:31:28.521374 20357 net.cpp:141] Setting up relu2
I0425 15:31:28.521389 20357 net.cpp:148] Top shape: 64 10 (640)
I0425 15:31:28.521397 20357 net.cpp:156] Memory required for data: 10497280
I0425 15:31:28.521409 20357 layer_factory.hpp:77] Creating layer loss
I0425 15:31:28.521442 20357 net.cpp:91] Creating Layer loss
I0425 15:31:28.521456 20357 net.cpp:425] loss <- ip2
I0425 15:31:28.521476 20357 net.cpp:425] loss <- label
I0425 15:31:28.521502 20357 net.cpp:399] loss -> loss
I0425 15:31:28.521555 20357 layer_factory.hpp:77] Creating layer loss
…
I0425 15:31:28.524024 20357 solver.cpp:181] Creating test net (#0) specified by net file: ECE595/mnist/train_test/var_num_feature/lenet_train_test_featuresize50.prototxt
I0425 15:31:28.524514 20357 net.cpp:313] The NetState phase (1) differed from the phase (0) specified by a rule in layer mnist
I0425 15:31:28.524853 20357 net.cpp:49] Initializing net from parameters: 
name: "LeNet"
state {
  phase: TEST
}
layer {
  name: "mnist"
  type: "Data"
  top: "data"
  top: "label"
  include {
    phase: TEST
  }
  transform_param {
    scale: 0.00390625
  }
  data_param {
    source: "examples/mnist/mnist_test_lmdb"
    batch_size: 100
    backend: LMDB
  }
}
layer {
  name: "conv0"
  type: "Convolution"
  bottom: "data"
  top: "conv0"
  param {
    lr_mult: 1
  }
  param {
    lr_mult: 2
  }
  convolution_param {
    num_output: 50
    kernel_size: 5
    stride: 1
    weight_filler {
      type: "xavier"
    }
    bias_filler {
      type: "constant"
    }
  }
}
layer {
  name: "pool0"
  type: "Pooling"
  bottom: "conv0"
  top: "pool0"
  pooling_param {
    pool: MAX
    kernel_size: 2
    stride: 2
  }
}
layer {
  name: "conv1"
  type: "Convolution"
  bottom: "pool0"
  top: "conv1"
  param {
    lr_mult: 1
  }
  param {
    lr_mult: 2
  }
  convolution_param {
    num_output: 50
    kernel_size: 5
    stride: 1
    weight_filler {
      type: "xavier"
    }
    bias_filler {
      type: "constant"
    }
  }
}
layer {
  name: "pool1"
  type: "Pooling"
  bottom: "conv1"
  top: "pool1"
  pooling_param {
    pool: MAX
    kernel_size: 2
    stride: 2
  }
}
layer {
  name: "ip1"
  type: "InnerProduct"
  bottom: "pool1"
  top: "ip1"
  param {
    lr_mult: 1
  }
  param {
    lr_mult: 2
  }
  inner_product_param {
    num_output: 100
    weight_filler {
      type: "xavier"
    }
    bias_filler {
      type: "constant"
    }
  }
}
layer {
  name: "relu1"
  type: "ReLU"
  bottom: "ip1"
  top: "ip1"
}
layer {
  name: "ip2"
  type: "InnerProduct"
  bottom: "ip1"
  top: "ip2"
  param {
    lr_mult: 1
  }
  param {
    lr_mult: 2
  }
  inner_product_param {
    num_output: 10
    weight_filler {
      type: "xavier"
    }
    bias_filler {
      type: "constant"
    }
  }
}
layer {
  name: "relu2"
  type: "ReLU"
  bottom: "ip2"
  top: "ip2"
}
layer {
  name: "accuracy"
  type: "Accuracy"
  bottom: "ip2"
  bottom: "label"
  top: "accuracy"
  include {
    phase: TEST
  }
}
layer {
  name: "loss"
  type: "SoftmaxWithLoss"
  bottom: "ip2"
  bottom: "label"
  top: "loss"
}
I0425 15:31:28.525542 20357 layer_factory.hpp:77] Creating layer mnist
I0425 15:31:28.526309 20357 net.cpp:91] Creating Layer mnist
I0425 15:31:28.526758 20357 net.cpp:399] mnist -> data
I0425 15:31:28.526844 20357 net.cpp:399] mnist -> label
I0425 15:31:28.529714 20392 db_lmdb.cpp:35] Opened lmdb examples/mnist/mnist_test_lmdb
I0425 15:31:28.530218 20357 data_layer.cpp:41] output data size: 100,1,28,28
I0425 15:31:28.530764 20357 base_data_layer.cpp:69] Initializing prefetch
I0425 15:31:28.530866 20357 base_data_layer.cpp:72] Prefetch initialized.
I0425 15:31:28.530884 20357 net.cpp:141] Setting up mnist
I0425 15:31:28.530897 20357 net.cpp:148] Top shape: 100 1 28 28 (78400)
I0425 15:31:28.530912 20357 net.cpp:148] Top shape: 100 (100)
I0425 15:31:28.530920 20357 net.cpp:156] Memory required for data: 314000
I0425 15:31:28.530936 20357 layer_factory.hpp:77] Creating layer label_mnist_1_split
I0425 15:31:28.530977 20357 net.cpp:91] Creating Layer label_mnist_1_split
I0425 15:31:28.530995 20357 net.cpp:425] label_mnist_1_split <- label
I0425 15:31:28.531019 20357 net.cpp:399] label_mnist_1_split -> label_mnist_1_split_0
I0425 15:31:28.531055 20357 net.cpp:399] label_mnist_1_split -> label_mnist_1_split_1
I0425 15:31:28.531093 20357 net.cpp:141] Setting up label_mnist_1_split
I0425 15:31:28.531114 20357 net.cpp:148] Top shape: 100 (100)
I0425 15:31:28.531126 20357 net.cpp:148] Top shape: 100 (100)
I0425 15:31:28.531132 20357 net.cpp:156] Memory required for data: 314800
I0425 15:31:28.531142 20357 layer_factory.hpp:77] Creating layer conv0
I0425 15:31:28.531182 20357 net.cpp:91] Creating Layer conv0
I0425 15:31:28.531200 20357 net.cpp:425] conv0 <- data
I0425 15:31:28.531229 20357 net.cpp:399] conv0 -> conv0
I0425 15:31:28.531461 20357 net.cpp:141] Setting up conv0
I0425 15:31:28.531486 20357 net.cpp:148] Top shape: 100 50 24 24 (2880000)
I0425 15:31:28.531494 20357 net.cpp:156] Memory required for data: 11834800
I0425 15:31:28.531538 20357 layer_factory.hpp:77] Creating layer pool0
I0425 15:31:28.531570 20357 net.cpp:91] Creating Layer pool0
I0425 15:31:28.531589 20357 net.cpp:425] pool0 <- conv0
I0425 15:31:28.531617 20357 net.cpp:399] pool0 -> pool0
I0425 15:31:28.531664 20357 net.cpp:141] Setting up pool0
I0425 15:31:28.531685 20357 net.cpp:148] Top shape: 100 50 12 12 (720000)
I0425 15:31:28.531692 20357 net.cpp:156] Memory required for data: 14714800
I0425 15:31:28.531702 20357 layer_factory.hpp:77] Creating layer conv1
I0425 15:31:28.531739 20357 net.cpp:91] Creating Layer conv1
I0425 15:31:28.531774 20357 net.cpp:425] conv1 <- pool0
I0425 15:31:28.531818 20357 net.cpp:399] conv1 -> conv1
I0425 15:31:28.537511 20357 net.cpp:141] Setting up conv1
I0425 15:31:28.538012 20393 data_layer.cpp:102] Prefetch batch: 4 ms.
I0425 15:31:28.541599 20393 data_layer.cpp:103]      Read time: 2.11 ms.
I0425 15:31:28.541586 20357 net.cpp:148] Top shape: 100 50 8 8 (320000)
I0425 15:31:28.541621 20393 data_layer.cpp:104] Transform time: 1.603 ms.
I0425 15:31:28.541641 20357 net.cpp:156] Memory required for data: 15994800
I0425 15:31:28.541707 20357 layer_factory.hpp:77] Creating layer pool1
I0425 15:31:28.541786 20357 net.cpp:91] Creating Layer pool1
I0425 15:31:28.541841 20357 net.cpp:425] pool1 <- conv1
I0425 15:31:28.541894 20357 net.cpp:399] pool1 -> pool1
I0425 15:31:28.541980 20357 net.cpp:141] Setting up pool1
I0425 15:31:28.542050 20357 net.cpp:148] Top shape: 100 50 4 4 (80000)
I0425 15:31:28.542085 20357 net.cpp:156] Memory required for data: 16314800
I0425 15:31:28.542115 20357 layer_factory.hpp:77] Creating layer ip1
I0425 15:31:28.542163 20357 net.cpp:91] Creating Layer ip1
I0425 15:31:28.542214 20357 net.cpp:425] ip1 <- pool1
I0425 15:31:28.542268 20357 net.cpp:399] ip1 -> ip1
I0425 15:31:28.544647 20393 data_layer.cpp:102] Prefetch batch: 2 ms.
I0425 15:31:28.544836 20393 data_layer.cpp:103]      Read time: 0.346 ms.
I0425 15:31:28.544865 20393 data_layer.cpp:104] Transform time: 1.647 ms.
I0425 15:31:28.550040 20393 data_layer.cpp:102] Prefetch batch: 5 ms.
I0425 15:31:28.550751 20393 data_layer.cpp:103]      Read time: 0.324 ms.
I0425 15:31:28.550783 20393 data_layer.cpp:104] Transform time: 1.636 ms.
I0425 15:31:28.555726 20357 net.cpp:141] Setting up ip1
I0425 15:31:28.555747 20357 net.cpp:148] Top shape: 100 100 (10000)
I0425 15:31:28.555757 20357 net.cpp:156] Memory required for data: 16354800
I0425 15:31:28.555795 20357 layer_factory.hpp:77] Creating layer relu1
I0425 15:31:28.555817 20357 net.cpp:91] Creating Layer relu1
I0425 15:31:28.555838 20357 net.cpp:425] relu1 <- ip1
I0425 15:31:28.555863 20357 net.cpp:386] relu1 -> ip1 (in-place)
I0425 15:31:28.555891 20357 net.cpp:141] Setting up relu1
I0425 15:31:28.555903 20357 net.cpp:148] Top shape: 100 100 (10000)
I0425 15:31:28.555913 20357 net.cpp:156] Memory required for data: 16394800
I0425 15:31:28.555925 20357 layer_factory.hpp:77] Creating layer ip2
I0425 15:31:28.555960 20357 net.cpp:91] Creating Layer ip2
I0425 15:31:28.555980 20357 net.cpp:425] ip2 <- ip1
I0425 15:31:28.556011 20357 net.cpp:399] ip2 -> ip2
I0425 15:31:28.556169 20357 net.cpp:141] Setting up ip2
I0425 15:31:28.556187 20357 net.cpp:148] Top shape: 100 10 (1000)
I0425 15:31:28.556197 20357 net.cpp:156] Memory required for data: 16398800
I0425 15:31:28.556223 20357 layer_factory.hpp:77] Creating layer relu2
I0425 15:31:28.556243 20357 net.cpp:91] Creating Layer relu2
I0425 15:31:28.556257 20357 net.cpp:425] relu2 <- ip2
I0425 15:31:28.556284 20357 net.cpp:386] relu2 -> ip2 (in-place)
I0425 15:31:28.556308 20357 net.cpp:141] Setting up relu2
I0425 15:31:28.556323 20357 net.cpp:148] Top shape: 100 10 (1000)
I0425 15:31:28.556331 20357 net.cpp:156] Memory required for data: 16402800
I0425 15:31:28.556344 20357 layer_factory.hpp:77] Creating layer ip2_relu2_0_split
I0425 15:31:28.556362 20357 net.cpp:91] Creating Layer ip2_relu2_0_split
I0425 15:31:28.556375 20357 net.cpp:425] ip2_relu2_0_split <- ip2
I0425 15:31:28.556401 20357 net.cpp:399] ip2_relu2_0_split -> ip2_relu2_0_split_0
I0425 15:31:28.556428 20357 net.cpp:399] ip2_relu2_0_split -> ip2_relu2_0_split_1
I0425 15:31:28.556459 20357 net.cpp:141] Setting up ip2_relu2_0_split
I0425 15:31:28.556475 20357 net.cpp:148] Top shape: 100 10 (1000)
I0425 15:31:28.556488 20357 net.cpp:148] Top shape: 100 10 (1000)
I0425 15:31:28.556499 20357 net.cpp:156] Memory required for data: 16410800
I0425 15:31:28.556510 20357 layer_factory.hpp:77] Creating layer accuracy
I0425 15:31:28.556536 20357 net.cpp:91] Creating Layer accuracy
I0425 15:31:28.556550 20357 net.cpp:425] accuracy <- ip2_relu2_0_split_0
I0425 15:31:28.556571 20357 net.cpp:425] accuracy <- label_mnist_1_split_0
I0425 15:31:28.556596 20357 net.cpp:399] accuracy -> accuracy
…
