…
I0425 14:27:19.167268 18969 net.cpp:313] The NetState phase (0) differed from the phase (1) specified by a rule in layer mnist
I0425 14:27:19.167402 18969 net.cpp:313] The NetState phase (0) differed from the phase (1) specified by a rule in layer accuracy
I0425 14:27:19.167850 18969 net.cpp:49] Initializing net from parameters: 
name: "LeNet"
state {
  phase: TRAIN
}
layer {
  name: "mnist"
  type: "Data"
  top: "data"
  top: "label"
  include {
    phase: TRAIN
  }
  transform_param {
    scale: 0.00390625
  }
  data_param {
    source: "examples/mnist/mnist_train_lmdb"
    batch_size: 64
    backend: LMDB
  }
}
layer {
  name: "conv0"
  type: "Convolution"
  bottom: "data"
  top: "conv0"
  param {
    lr_mult: 1
  }
  param {
    lr_mult: 2
  }
  convolution_param {
    num_output: 150
    kernel_size: 5
    stride: 1
    weight_filler {
      type: "xavier"
    }
    bias_filler {
      type: "constant"
    }
  }
}
layer {
  name: "pool0"
  type: "Pooling"
  bottom: "conv0"
  top: "pool0"
  pooling_param {
    pool: MAX
    kernel_size: 2
    stride: 2
  }
}
layer {
  name: "conv1"
  type: "Convolution"
  bottom: "pool0"
  top: "conv1"
  param {
    lr_mult: 1
  }
  param {
    lr_mult: 2
  }
  convolution_param {
    num_output: 150
    kernel_size: 5
    stride: 1
    weight_filler {
      type: "xavier"
    }
    bias_filler {
      type: "constant"
    }
  }
}
layer {
  name: "pool1"
  type: "Pooling"
  bottom: "conv1"
  top: "pool1"
  pooling_param {
    pool: MAX
    kernel_size: 2
    stride: 2
  }
}
layer {
  name: "ip1"
  type: "InnerProduct"
  bottom: "pool1"
  top: "ip1"
  param {
    lr_mult: 1
  }
  param {
    lr_mult: 2
  }
  inner_product_param {
    num_output: 100
    weight_filler {
      type: "xavier"
    }
    bias_filler {
      type: "constant"
    }
  }
}
layer {
  name: "relu1"
  type: "ReLU"
  bottom: "ip1"
  top: "ip1"
}
layer {
  name: "ip2"
  type: "InnerProduct"
  bottom: "ip1"
  top: "ip2"
  param {
    lr_mult: 1
  }
  param {
    lr_mult: 2
  }
  inner_product_param {
    num_output: 10
    weight_filler {
      type: "xavier"
    }
    bias_filler {
      type: "constant"
    }
  }
}
layer {
  name: "relu2"
  type: "ReLU"
  bottom: "ip2"
  top: "ip2"
}
layer {
  name: "loss"
  type: "SoftmaxWithLoss"
  bottom: "ip2"
  bottom: "label"
  top: "loss"
}
I0425 14:27:19.168926 18969 layer_factory.hpp:77] Creating layer mnist
I0425 14:27:19.172050 18969 net.cpp:91] Creating Layer mnist
I0425 14:27:19.172155 18969 net.cpp:399] mnist -> data
I0425 14:27:19.172474 18969 net.cpp:399] mnist -> label
I0425 14:27:19.175501 19005 db_lmdb.cpp:35] Opened lmdb examples/mnist/mnist_train_lmdb
I0425 14:27:19.176045 18969 data_layer.cpp:41] output data size: 64,1,28,28
I0425 14:27:19.177033 18969 base_data_layer.cpp:69] Initializing prefetch
I0425 14:27:19.177197 18969 base_data_layer.cpp:72] Prefetch initialized.
I0425 14:27:19.177239 18969 net.cpp:141] Setting up mnist
I0425 14:27:19.177353 18969 net.cpp:148] Top shape: 64 1 28 28 (50176)
I0425 14:27:19.177404 18969 net.cpp:148] Top shape: 64 (64)
I0425 14:27:19.177434 18969 net.cpp:156] Memory required for data: 200960
I0425 14:27:19.177502 18969 layer_factory.hpp:77] Creating layer conv0
I0425 14:27:19.177660 18969 net.cpp:91] Creating Layer conv0
I0425 14:27:19.177723 18969 net.cpp:425] conv0 <- data
I0425 14:27:19.177870 18969 net.cpp:399] conv0 -> conv0
I0425 14:27:19.179226 18969 net.cpp:141] Setting up conv0
I0425 14:27:19.179278 18969 net.cpp:148] Top shape: 64 150 24 24 (5529600)
I0425 14:27:19.179303 18969 net.cpp:156] Memory required for data: 22319360
I0425 14:27:19.179483 18969 layer_factory.hpp:77] Creating layer pool0
I0425 14:27:19.179563 18969 net.cpp:91] Creating Layer pool0
I0425 14:27:19.179597 18969 net.cpp:425] pool0 <- conv0
I0425 14:27:19.179703 18969 net.cpp:399] pool0 -> pool0
I0425 14:27:19.179837 18969 net.cpp:141] Setting up pool0
I0425 14:27:19.179889 18969 net.cpp:148] Top shape: 64 150 12 12 (1382400)
I0425 14:27:19.179915 18969 net.cpp:156] Memory required for data: 27848960
I0425 14:27:19.179949 18969 layer_factory.hpp:77] Creating layer conv1
I0425 14:27:19.180030 18969 net.cpp:91] Creating Layer conv1
I0425 14:27:19.180065 18969 net.cpp:425] conv1 <- pool0
I0425 14:27:19.180164 18969 net.cpp:399] conv1 -> conv1
I0425 14:27:19.184722 19006 data_layer.cpp:102] Prefetch batch: 4 ms.
I0425 14:27:19.184798 19006 data_layer.cpp:103]      Read time: 0.586 ms.
I0425 14:27:19.184829 19006 data_layer.cpp:104] Transform time: 2.708 ms.
I0425 14:27:19.196269 19006 data_layer.cpp:102] Prefetch batch: 11 ms.
I0425 14:27:19.196308 19006 data_layer.cpp:103]      Read time: 0.618 ms.
I0425 14:27:19.196334 19006 data_layer.cpp:104] Transform time: 2.693 ms.
I0425 14:27:19.207100 19006 data_layer.cpp:102] Prefetch batch: 10 ms.
I0425 14:27:19.207136 19006 data_layer.cpp:103]      Read time: 0.588 ms.
I0425 14:27:19.207162 19006 data_layer.cpp:104] Transform time: 8.897 ms.
I0425 14:27:19.287001 18969 net.cpp:141] Setting up conv1
I0425 14:27:19.287055 18969 net.cpp:148] Top shape: 64 150 8 8 (614400)
I0425 14:27:19.287070 18969 net.cpp:156] Memory required for data: 30306560
I0425 14:27:19.287138 18969 layer_factory.hpp:77] Creating layer pool1
I0425 14:27:19.287199 18969 net.cpp:91] Creating Layer pool1
I0425 14:27:19.287227 18969 net.cpp:425] pool1 <- conv1
I0425 14:27:19.287279 18969 net.cpp:399] pool1 -> pool1
I0425 14:27:19.287358 18969 net.cpp:141] Setting up pool1
I0425 14:27:19.287389 18969 net.cpp:148] Top shape: 64 150 4 4 (153600)
I0425 14:27:19.287403 18969 net.cpp:156] Memory required for data: 30920960
I0425 14:27:19.287425 18969 layer_factory.hpp:77] Creating layer ip1
I0425 14:27:19.287479 18969 net.cpp:91] Creating Layer ip1
I0425 14:27:19.287504 18969 net.cpp:425] ip1 <- pool1
I0425 14:27:19.287569 18969 net.cpp:399] ip1 -> ip1
I0425 14:27:19.325119 18969 net.cpp:141] Setting up ip1
I0425 14:27:19.325156 18969 net.cpp:148] Top shape: 64 100 (6400)
I0425 14:27:19.325170 18969 net.cpp:156] Memory required for data: 30946560
I0425 14:27:19.325232 18969 layer_factory.hpp:77] Creating layer relu1
I0425 14:27:19.325280 18969 net.cpp:91] Creating Layer relu1
I0425 14:27:19.325306 18969 net.cpp:425] relu1 <- ip1
I0425 14:27:19.325350 18969 net.cpp:386] relu1 -> ip1 (in-place)
I0425 14:27:19.325397 18969 net.cpp:141] Setting up relu1
I0425 14:27:19.325422 18969 net.cpp:148] Top shape: 64 100 (6400)
I0425 14:27:19.325435 18969 net.cpp:156] Memory required for data: 30972160
I0425 14:27:19.325455 18969 layer_factory.hpp:77] Creating layer ip2
I0425 14:27:19.325498 18969 net.cpp:91] Creating Layer ip2
I0425 14:27:19.325531 18969 net.cpp:425] ip2 <- ip1
I0425 14:27:19.325585 18969 net.cpp:399] ip2 -> ip2
I0425 14:27:19.325855 18969 net.cpp:141] Setting up ip2
I0425 14:27:19.325886 18969 net.cpp:148] Top shape: 64 10 (640)
I0425 14:27:19.325902 18969 net.cpp:156] Memory required for data: 30974720
I0425 14:27:19.325942 18969 layer_factory.hpp:77] Creating layer relu2
I0425 14:27:19.325989 18969 net.cpp:91] Creating Layer relu2
I0425 14:27:19.326012 18969 net.cpp:425] relu2 <- ip2
I0425 14:27:19.326053 18969 net.cpp:386] relu2 -> ip2 (in-place)
I0425 14:27:19.326098 18969 net.cpp:141] Setting up relu2
I0425 14:27:19.326122 18969 net.cpp:148] Top shape: 64 10 (640)
I0425 14:27:19.326135 18969 net.cpp:156] Memory required for data: 30977280
I0425 14:27:19.326155 18969 layer_factory.hpp:77] Creating layer loss
I0425 14:27:19.326202 18969 net.cpp:91] Creating Layer loss
I0425 14:27:19.326225 18969 net.cpp:425] loss <- ip2
I0425 14:27:19.326261 18969 net.cpp:425] loss <- label
I0425 14:27:19.326304 18969 net.cpp:399] loss -> loss
I0425 14:27:19.326405 18969 layer_factory.hpp:77] Creating layer loss
…
I0425 14:27:19.328272 18969 solver.cpp:181] Creating test net (#0) specified by net file: ECE595/mnist/train_test/var_num_feature/lenet_train_test_featuresize150.prototxt
I0425 14:27:19.328443 18969 net.cpp:313] The NetState phase (1) differed from the phase (0) specified by a rule in layer mnist
I0425 14:27:19.328789 18969 net.cpp:49] Initializing net from parameters: 
name: "LeNet"
state {
  phase: TEST
}
layer {
  name: "mnist"
  type: "Data"
  top: "data"
  top: "label"
  include {
    phase: TEST
  }
  transform_param {
    scale: 0.00390625
  }
  data_param {
    source: "examples/mnist/mnist_test_lmdb"
    batch_size: 100
    backend: LMDB
  }
}
layer {
  name: "conv0"
  type: "Convolution"
  bottom: "data"
  top: "conv0"
  param {
    lr_mult: 1
  }
  param {
    lr_mult: 2
  }
  convolution_param {
    num_output: 150
    kernel_size: 5
    stride: 1
    weight_filler {
      type: "xavier"
    }
    bias_filler {
      type: "constant"
    }
  }
}
layer {
  name: "pool0"
  type: "Pooling"
  bottom: "conv0"
  top: "pool0"
  pooling_param {
    pool: MAX
    kernel_size: 2
    stride: 2
  }
}
layer {
  name: "conv1"
  type: "Convolution"
  bottom: "pool0"
  top: "conv1"
  param {
    lr_mult: 1
  }
  param {
    lr_mult: 2
  }
  convolution_param {
    num_output: 150
    kernel_size: 5
    stride: 1
    weight_filler {
      type: "xavier"
    }
    bias_filler {
      type: "constant"
    }
  }
}
layer {
  name: "pool1"
  type: "Pooling"
  bottom: "conv1"
  top: "pool1"
  pooling_param {
    pool: MAX
    kernel_size: 2
    stride: 2
  }
}
layer {
  name: "ip1"
  type: "InnerProduct"
  bottom: "pool1"
  top: "ip1"
  param {
    lr_mult: 1
  }
  param {
    lr_mult: 2
  }
  inner_product_param {
    num_output: 100
    weight_filler {
      type: "xavier"
    }
    bias_filler {
      type: "constant"
    }
  }
}
layer {
  name: "relu1"
  type: "ReLU"
  bottom: "ip1"
  top: "ip1"
}
layer {
  name: "ip2"
  type: "InnerProduct"
  bottom: "ip1"
  top: "ip2"
  param {
    lr_mult: 1
  }
  param {
    lr_mult: 2
  }
  inner_product_param {
    num_output: 10
    weight_filler {
      type: "xavier"
    }
    bias_filler {
      type: "constant"
    }
  }
}
layer {
  name: "relu2"
  type: "ReLU"
  bottom: "ip2"
  top: "ip2"
}
layer {
  name: "accuracy"
  type: "Accuracy"
  bottom: "ip2"
  bottom: "label"
  top: "accuracy"
  include {
    phase: TEST
  }
}
layer {
  name: "loss"
  type: "SoftmaxWithLoss"
  bottom: "ip2"
  bottom: "label"
  top: "loss"
}
I0425 14:27:19.329354 18969 layer_factory.hpp:77] Creating layer mnist
I0425 14:27:19.329816 18969 net.cpp:91] Creating Layer mnist
I0425 14:27:19.329872 18969 net.cpp:399] mnist -> data
I0425 14:27:19.329953 18969 net.cpp:399] mnist -> label
I0425 14:27:19.333847 19007 db_lmdb.cpp:35] Opened lmdb examples/mnist/mnist_test_lmdb
I0425 14:27:19.334373 18969 data_layer.cpp:41] output data size: 100,1,28,28
I0425 14:27:19.335362 18969 base_data_layer.cpp:69] Initializing prefetch
I0425 14:27:19.335464 18969 base_data_layer.cpp:72] Prefetch initialized.
I0425 14:27:19.335489 18969 net.cpp:141] Setting up mnist
I0425 14:27:19.335521 18969 net.cpp:148] Top shape: 100 1 28 28 (78400)
I0425 14:27:19.335551 18969 net.cpp:148] Top shape: 100 (100)
I0425 14:27:19.335564 18969 net.cpp:156] Memory required for data: 314000
I0425 14:27:19.335598 18969 layer_factory.hpp:77] Creating layer label_mnist_1_split
I0425 14:27:19.335695 18969 net.cpp:91] Creating Layer label_mnist_1_split
I0425 14:27:19.335733 18969 net.cpp:425] label_mnist_1_split <- label
I0425 14:27:19.335793 18969 net.cpp:399] label_mnist_1_split -> label_mnist_1_split_0
I0425 14:27:19.335875 18969 net.cpp:399] label_mnist_1_split -> label_mnist_1_split_1
I0425 14:27:19.335953 18969 net.cpp:141] Setting up label_mnist_1_split
I0425 14:27:19.335990 18969 net.cpp:148] Top shape: 100 (100)
I0425 14:27:19.336021 18969 net.cpp:148] Top shape: 100 (100)
I0425 14:27:19.336037 18969 net.cpp:156] Memory required for data: 314800
I0425 14:27:19.336063 18969 layer_factory.hpp:77] Creating layer conv0
I0425 14:27:19.336155 18969 net.cpp:91] Creating Layer conv0
I0425 14:27:19.336187 18969 net.cpp:425] conv0 <- data
I0425 14:27:19.336256 18969 net.cpp:399] conv0 -> conv0
I0425 14:27:19.337172 19008 data_layer.cpp:102] Prefetch batch: 1 ms.
I0425 14:27:19.337179 18969 net.cpp:141] Setting up conv0
I0425 14:27:19.337201 19008 data_layer.cpp:103]      Read time: 0.165 ms.
I0425 14:27:19.337229 19008 data_layer.cpp:104] Transform time: 1.021 ms.
I0425 14:27:19.337255 18969 net.cpp:148] Top shape: 100 150 24 24 (8640000)
I0425 14:27:19.337278 18969 net.cpp:156] Memory required for data: 34874800
I0425 14:27:19.337363 18969 layer_factory.hpp:77] Creating layer pool0
I0425 14:27:19.337419 18969 net.cpp:91] Creating Layer pool0
I0425 14:27:19.337441 18969 net.cpp:425] pool0 <- conv0
I0425 14:27:19.337502 18969 net.cpp:399] pool0 -> pool0
I0425 14:27:19.337592 18969 net.cpp:141] Setting up pool0
I0425 14:27:19.337636 18969 net.cpp:148] Top shape: 100 150 12 12 (2160000)
I0425 14:27:19.337651 18969 net.cpp:156] Memory required for data: 43514800
I0425 14:27:19.337671 18969 layer_factory.hpp:77] Creating layer conv1
I0425 14:27:19.337738 18969 net.cpp:91] Creating Layer conv1
I0425 14:27:19.337765 18969 net.cpp:425] conv1 <- pool0
I0425 14:27:19.337828 18969 net.cpp:399] conv1 -> conv1
I0425 14:27:19.338902 19008 data_layer.cpp:102] Prefetch batch: 1 ms.
I0425 14:27:19.338915 19008 data_layer.cpp:103]      Read time: 0.198 ms.
I0425 14:27:19.338920 19008 data_layer.cpp:104] Transform time: 1.021 ms.
I0425 14:27:19.340663 19008 data_layer.cpp:102] Prefetch batch: 1 ms.
I0425 14:27:19.340673 19008 data_layer.cpp:103]      Read time: 0.164 ms.
I0425 14:27:19.340678 19008 data_layer.cpp:104] Transform time: 1.047 ms.
I0425 14:27:19.426723 18969 net.cpp:141] Setting up conv1
I0425 14:27:19.426762 18969 net.cpp:148] Top shape: 100 150 8 8 (960000)
I0425 14:27:19.426775 18969 net.cpp:156] Memory required for data: 47354800
I0425 14:27:19.426837 18969 layer_factory.hpp:77] Creating layer pool1
I0425 14:27:19.426892 18969 net.cpp:91] Creating Layer pool1
I0425 14:27:19.426919 18969 net.cpp:425] pool1 <- conv1
I0425 14:27:19.426975 18969 net.cpp:399] pool1 -> pool1
I0425 14:27:19.427052 18969 net.cpp:141] Setting up pool1
I0425 14:27:19.427080 18969 net.cpp:148] Top shape: 100 150 4 4 (240000)
I0425 14:27:19.427095 18969 net.cpp:156] Memory required for data: 48314800
I0425 14:27:19.427116 18969 layer_factory.hpp:77] Creating layer ip1
I0425 14:27:19.427163 18969 net.cpp:91] Creating Layer ip1
I0425 14:27:19.427187 18969 net.cpp:425] ip1 <- pool1
I0425 14:27:19.427243 18969 net.cpp:399] ip1 -> ip1
I0425 14:27:19.464802 18969 net.cpp:141] Setting up ip1
I0425 14:27:19.464840 18969 net.cpp:148] Top shape: 100 100 (10000)
I0425 14:27:19.464854 18969 net.cpp:156] Memory required for data: 48354800
I0425 14:27:19.464915 18969 layer_factory.hpp:77] Creating layer relu1
I0425 14:27:19.464977 18969 net.cpp:91] Creating Layer relu1
I0425 14:27:19.465003 18969 net.cpp:425] relu1 <- ip1
I0425 14:27:19.465049 18969 net.cpp:386] relu1 -> ip1 (in-place)
I0425 14:27:19.465096 18969 net.cpp:141] Setting up relu1
I0425 14:27:19.465119 18969 net.cpp:148] Top shape: 100 100 (10000)
I0425 14:27:19.465133 18969 net.cpp:156] Memory required for data: 48394800
I0425 14:27:19.465153 18969 layer_factory.hpp:77] Creating layer ip2
I0425 14:27:19.465217 18969 net.cpp:91] Creating Layer ip2
I0425 14:27:19.465243 18969 net.cpp:425] ip2 <- ip1
I0425 14:27:19.465296 18969 net.cpp:399] ip2 -> ip2
I0425 14:27:19.465587 18969 net.cpp:141] Setting up ip2
I0425 14:27:19.465629 18969 net.cpp:148] Top shape: 100 10 (1000)
I0425 14:27:19.465646 18969 net.cpp:156] Memory required for data: 48398800
I0425 14:27:19.465687 18969 layer_factory.hpp:77] Creating layer relu2
I0425 14:27:19.465723 18969 net.cpp:91] Creating Layer relu2
I0425 14:27:19.465746 18969 net.cpp:425] relu2 <- ip2
I0425 14:27:19.465785 18969 net.cpp:386] relu2 -> ip2 (in-place)
I0425 14:27:19.465826 18969 net.cpp:141] Setting up relu2
I0425 14:27:19.465849 18969 net.cpp:148] Top shape: 100 10 (1000)
I0425 14:27:19.465864 18969 net.cpp:156] Memory required for data: 48402800
I0425 14:27:19.465884 18969 layer_factory.hpp:77] Creating layer ip2_relu2_0_split
I0425 14:27:19.465916 18969 net.cpp:91] Creating Layer ip2_relu2_0_split
I0425 14:27:19.465939 18969 net.cpp:425] ip2_relu2_0_split <- ip2
I0425 14:27:19.465978 18969 net.cpp:399] ip2_relu2_0_split -> ip2_relu2_0_split_0
I0425 14:27:19.466025 18969 net.cpp:399] ip2_relu2_0_split -> ip2_relu2_0_split_1
I0425 14:27:19.466078 18969 net.cpp:141] Setting up ip2_relu2_0_split
I0425 14:27:19.466105 18969 net.cpp:148] Top shape: 100 10 (1000)
I0425 14:27:19.466126 18969 net.cpp:148] Top shape: 100 10 (1000)
I0425 14:27:19.466140 18969 net.cpp:156] Memory required for data: 48410800
I0425 14:27:19.466159 18969 layer_factory.hpp:77] Creating layer accuracy
I0425 14:27:19.466213 18969 net.cpp:91] Creating Layer accuracy
I0425 14:27:19.466238 18969 net.cpp:425] accuracy <- ip2_relu2_0_split_0
I0425 14:27:19.466275 18969 net.cpp:425] accuracy <- label_mnist_1_split_0
I0425 14:27:19.466313 18969 net.cpp:399] accuracy -> accuracy
…
