…
I0415 18:41:12.958046 11333 net.cpp:313] The NetState phase (0) differed from the phase (1) specified by a rule in layer mnist
I0415 18:41:12.958165 11333 net.cpp:313] The NetState phase (0) differed from the phase (1) specified by a rule in layer accuracy
I0415 18:41:12.958550 11333 net.cpp:49] Initializing net from parameters: 
name: "LeNet"
state {
  phase: TRAIN
}
layer {
  name: "mnist"
  type: "Data"
  top: "data"
  top: "label"
  include {
    phase: TRAIN
  }
  transform_param {
    scale: 0.00390625
  }
  data_param {
    source: "examples/mnist/mnist_train_lmdb"
    batch_size: 64
    backend: LMDB
  }
}
layer {
  name: "conv0"
  type: "Convolution"
  bottom: "data"
  top: "conv0"
  param {
    lr_mult: 1
  }
  param {
    lr_mult: 2
  }
  convolution_param {
    num_output: 50
    kernel_size: 5
    stride: 1
    weight_filler {
      type: "xavier"
    }
    bias_filler {
      type: "constant"
    }
  }
}
layer {
  name: "pool0"
  type: "Pooling"
  bottom: "conv0"
  top: "pool0"
  pooling_param {
    pool: MAX
    kernel_size: 2
    stride: 2
  }
}
layer {
  name: "conv1"
  type: "Convolution"
  bottom: "pool0"
  top: "conv1"
  param {
    lr_mult: 1
  }
  param {
    lr_mult: 2
  }
  convolution_param {
    num_output: 50
    kernel_size: 5
    stride: 1
    weight_filler {
      type: "xavier"
    }
    bias_filler {
      type: "constant"
    }
  }
}
layer {
  name: "pool1"
  type: "Pooling"
  bottom: "conv1"
  top: "pool1"
  pooling_param {
    pool: MAX
    kernel_size: 2
    stride: 2
  }
}
layer {
  name: "ip1"
  type: "InnerProduct"
  bottom: "pool1"
  top: "ip1"
  param {
    lr_mult: 1
  }
  param {
    lr_mult: 2
  }
  inner_product_param {
    num_output: 100
    weight_filler {
      type: "xavier"
    }
    bias_filler {
      type: "constant"
    }
  }
}
layer {
  name: "relu1"
  type: "ReLU"
  bottom: "ip1"
  top: "ip1"
}
layer {
  name: "ip2"
  type: "InnerProduct"
  bottom: "ip1"
  top: "ip2"
  param {
    lr_mult: 1
  }
  param {
    lr_mult: 2
  }
  inner_product_param {
    num_output: 10
    weight_filler {
      type: "xavier"
    }
    bias_filler {
      type: "constant"
    }
  }
}
layer {
  name: "relu2"
  type: "ReLU"
  bottom: "ip2"
  top: "ip2"
}
layer {
  name: "loss"
  type: "SoftmaxWithLoss"
  bottom: "ip2"
  bottom: "label"
  top: "loss"
}
I0415 18:41:12.962257 11333 layer_factory.hpp:77] Creating layer mnist
I0415 18:41:12.965440 11333 net.cpp:91] Creating Layer mnist
I0415 18:41:12.965533 11333 net.cpp:399] mnist -> data
I0415 18:41:12.965772 11333 net.cpp:399] mnist -> label
I0415 18:41:12.969060 11366 db_lmdb.cpp:35] Opened lmdb examples/mnist/mnist_train_lmdb
I0415 18:41:12.969918 11333 data_layer.cpp:41] output data size: 64,1,28,28
I0415 18:41:12.970896 11333 base_data_layer.cpp:69] Initializing prefetch
I0415 18:41:12.971011 11333 base_data_layer.cpp:72] Prefetch initialized.
I0415 18:41:12.971047 11333 net.cpp:141] Setting up mnist
I0415 18:41:12.971109 11333 net.cpp:148] Top shape: 64 1 28 28 (50176)
I0415 18:41:12.971149 11333 net.cpp:148] Top shape: 64 (64)
I0415 18:41:12.971174 11333 net.cpp:156] Memory required for data: 200960
I0415 18:41:12.971232 11333 layer_factory.hpp:77] Creating layer conv0
I0415 18:41:12.971343 11333 net.cpp:91] Creating Layer conv0
I0415 18:41:12.971400 11333 net.cpp:425] conv0 <- data
I0415 18:41:12.971511 11333 net.cpp:399] conv0 -> conv0
I0415 18:41:12.972167 11333 net.cpp:141] Setting up conv0
I0415 18:41:12.972216 11333 net.cpp:148] Top shape: 64 50 24 24 (1843200)
I0415 18:41:12.972245 11333 net.cpp:156] Memory required for data: 7573760
I0415 18:41:12.972419 11333 layer_factory.hpp:77] Creating layer pool0
I0415 18:41:12.972493 11333 net.cpp:91] Creating Layer pool0
I0415 18:41:12.972534 11333 net.cpp:425] pool0 <- conv0
I0415 18:41:12.974800 11333 net.cpp:399] pool0 -> pool0
I0415 18:41:12.974985 11333 net.cpp:141] Setting up pool0
I0415 18:41:12.975035 11333 net.cpp:148] Top shape: 64 50 12 12 (460800)
I0415 18:41:12.975061 11333 net.cpp:156] Memory required for data: 9416960
I0415 18:41:12.975086 11333 layer_factory.hpp:77] Creating layer conv1
I0415 18:41:12.975165 11333 net.cpp:91] Creating Layer conv1
I0415 18:41:12.975204 11333 net.cpp:425] conv1 <- pool0
I0415 18:41:12.975282 11333 net.cpp:399] conv1 -> conv1
I0415 18:41:12.981096 11367 data_layer.cpp:102] Prefetch batch: 6 ms.
I0415 18:41:12.981168 11367 data_layer.cpp:103]      Read time: 0.47 ms.
I0415 18:41:12.981191 11367 data_layer.cpp:104] Transform time: 2.313 ms.
I0415 18:41:12.985515 11367 data_layer.cpp:102] Prefetch batch: 4 ms.
I0415 18:41:12.990846 11367 data_layer.cpp:103]      Read time: 0.485 ms.
I0415 18:41:12.990926 11367 data_layer.cpp:104] Transform time: 2.349 ms.
I0415 18:41:12.996577 11333 net.cpp:141] Setting up conv1
I0415 18:41:12.996744 11367 data_layer.cpp:102] Prefetch batch: 5 ms.
I0415 18:41:12.996783 11367 data_layer.cpp:103]      Read time: 0.471 ms.
I0415 18:41:12.996800 11367 data_layer.cpp:104] Transform time: 2.35 ms.
I0415 18:41:12.996871 11333 net.cpp:148] Top shape: 64 50 8 8 (204800)
I0415 18:41:12.996929 11333 net.cpp:156] Memory required for data: 10236160
I0415 18:41:12.997100 11333 layer_factory.hpp:77] Creating layer pool1
I0415 18:41:12.997246 11333 net.cpp:91] Creating Layer pool1
I0415 18:41:12.997320 11333 net.cpp:425] pool1 <- conv1
I0415 18:41:12.997437 11333 net.cpp:399] pool1 -> pool1
I0415 18:41:12.997658 11333 net.cpp:141] Setting up pool1
I0415 18:41:12.997732 11333 net.cpp:148] Top shape: 64 50 4 4 (51200)
I0415 18:41:12.997783 11333 net.cpp:156] Memory required for data: 10440960
I0415 18:41:12.997843 11333 layer_factory.hpp:77] Creating layer ip1
I0415 18:41:12.997958 11333 net.cpp:91] Creating Layer ip1
I0415 18:41:12.998020 11333 net.cpp:425] ip1 <- pool1
I0415 18:41:12.998126 11333 net.cpp:399] ip1 -> ip1
I0415 18:41:13.016707 11333 net.cpp:141] Setting up ip1
I0415 18:41:13.016789 11333 net.cpp:148] Top shape: 64 100 (6400)
I0415 18:41:13.016837 11333 net.cpp:156] Memory required for data: 10466560
I0415 18:41:13.016962 11333 layer_factory.hpp:77] Creating layer relu1
I0415 18:41:13.017061 11333 net.cpp:91] Creating Layer relu1
I0415 18:41:13.017123 11333 net.cpp:425] relu1 <- ip1
I0415 18:41:13.017215 11333 net.cpp:386] relu1 -> ip1 (in-place)
I0415 18:41:13.017313 11333 net.cpp:141] Setting up relu1
I0415 18:41:13.017376 11333 net.cpp:148] Top shape: 64 100 (6400)
I0415 18:41:13.017423 11333 net.cpp:156] Memory required for data: 10492160
I0415 18:41:13.017482 11333 layer_factory.hpp:77] Creating layer ip2
I0415 18:41:13.017581 11333 net.cpp:91] Creating Layer ip2
I0415 18:41:13.017644 11333 net.cpp:425] ip2 <- ip1
I0415 18:41:13.017750 11333 net.cpp:399] ip2 -> ip2
I0415 18:41:13.018225 11333 net.cpp:141] Setting up ip2
I0415 18:41:13.018299 11333 net.cpp:148] Top shape: 64 10 (640)
I0415 18:41:13.018348 11333 net.cpp:156] Memory required for data: 10494720
I0415 18:41:13.018441 11333 layer_factory.hpp:77] Creating layer relu2
I0415 18:41:13.018533 11333 net.cpp:91] Creating Layer relu2
I0415 18:41:13.018656 11333 net.cpp:425] relu2 <- ip2
I0415 18:41:13.018750 11333 net.cpp:386] relu2 -> ip2 (in-place)
I0415 18:41:13.018846 11333 net.cpp:141] Setting up relu2
I0415 18:41:13.018906 11333 net.cpp:148] Top shape: 64 10 (640)
I0415 18:41:13.018951 11333 net.cpp:156] Memory required for data: 10497280
I0415 18:41:13.019008 11333 layer_factory.hpp:77] Creating layer loss
I0415 18:41:13.019111 11333 net.cpp:91] Creating Layer loss
I0415 18:41:13.019171 11333 net.cpp:425] loss <- ip2
I0415 18:41:13.019250 11333 net.cpp:425] loss <- label
I0415 18:41:13.019358 11333 net.cpp:399] loss -> loss
I0415 18:41:13.019541 11333 layer_factory.hpp:77] Creating layer loss
…
I0415 18:41:13.023069 11333 solver.cpp:181] Creating test net (#0) specified by net file: ECE595/mnist/train_test/var_num_feature/lenet_train_test_featuresize50.prototxt
I0415 18:41:13.023383 11333 net.cpp:313] The NetState phase (1) differed from the phase (0) specified by a rule in layer mnist
I0415 18:41:13.024029 11333 net.cpp:49] Initializing net from parameters: 
name: "LeNet"
state {
  phase: TEST
}
layer {
  name: "mnist"
  type: "Data"
  top: "data"
  top: "label"
  include {
    phase: TEST
  }
  transform_param {
    scale: 0.00390625
  }
  data_param {
    source: "examples/mnist/mnist_test_lmdb"
    batch_size: 100
    backend: LMDB
  }
}
layer {
  name: "conv0"
  type: "Convolution"
  bottom: "data"
  top: "conv0"
  param {
    lr_mult: 1
  }
  param {
    lr_mult: 2
  }
  convolution_param {
    num_output: 50
    kernel_size: 5
    stride: 1
    weight_filler {
      type: "xavier"
    }
    bias_filler {
      type: "constant"
    }
  }
}
layer {
  name: "pool0"
  type: "Pooling"
  bottom: "conv0"
  top: "pool0"
  pooling_param {
    pool: MAX
    kernel_size: 2
    stride: 2
  }
}
layer {
  name: "conv1"
  type: "Convolution"
  bottom: "pool0"
  top: "conv1"
  param {
    lr_mult: 1
  }
  param {
    lr_mult: 2
  }
  convolution_param {
    num_output: 50
    kernel_size: 5
    stride: 1
    weight_filler {
      type: "xavier"
    }
    bias_filler {
      type: "constant"
    }
  }
}
layer {
  name: "pool1"
  type: "Pooling"
  bottom: "conv1"
  top: "pool1"
  pooling_param {
    pool: MAX
    kernel_size: 2
    stride: 2
  }
}
layer {
  name: "ip1"
  type: "InnerProduct"
  bottom: "pool1"
  top: "ip1"
  param {
    lr_mult: 1
  }
  param {
    lr_mult: 2
  }
  inner_product_param {
    num_output: 100
    weight_filler {
      type: "xavier"
    }
    bias_filler {
      type: "constant"
    }
  }
}
layer {
  name: "relu1"
  type: "ReLU"
  bottom: "ip1"
  top: "ip1"
}
layer {
  name: "ip2"
  type: "InnerProduct"
  bottom: "ip1"
  top: "ip2"
  param {
    lr_mult: 1
  }
  param {
    lr_mult: 2
  }
  inner_product_param {
    num_output: 10
    weight_filler {
      type: "xavier"
    }
    bias_filler {
      type: "constant"
    }
  }
}
layer {
  name: "relu2"
  type: "ReLU"
  bottom: "ip2"
  top: "ip2"
}
layer {
  name: "accuracy"
  type: "Accuracy"
  bottom: "ip2"
  bottom: "label"
  top: "accuracy"
  include {
    phase: TEST
  }
}
layer {
  name: "loss"
  type: "SoftmaxWithLoss"
  bottom: "ip2"
  bottom: "label"
  top: "loss"
}
I0415 18:41:13.025493 11333 layer_factory.hpp:77] Creating layer mnist
I0415 18:41:13.026515 11333 net.cpp:91] Creating Layer mnist
I0415 18:41:13.026651 11333 net.cpp:399] mnist -> data
I0415 18:41:13.026793 11333 net.cpp:399] mnist -> label
I0415 18:41:13.030195 11368 db_lmdb.cpp:35] Opened lmdb examples/mnist/mnist_test_lmdb
I0415 18:41:13.030740 11333 data_layer.cpp:41] output data size: 100,1,28,28
I0415 18:41:13.032166 11333 base_data_layer.cpp:69] Initializing prefetch
I0415 18:41:13.032896 11333 base_data_layer.cpp:72] Prefetch initialized.
I0415 18:41:13.032925 11333 net.cpp:141] Setting up mnist
I0415 18:41:13.032964 11333 net.cpp:148] Top shape: 100 1 28 28 (78400)
I0415 18:41:13.033002 11333 net.cpp:148] Top shape: 100 (100)
I0415 18:41:13.033021 11333 net.cpp:156] Memory required for data: 314000
I0415 18:41:13.033059 11333 layer_factory.hpp:77] Creating layer label_mnist_1_split
I0415 18:41:13.033155 11333 net.cpp:91] Creating Layer label_mnist_1_split
I0415 18:41:13.033203 11333 net.cpp:425] label_mnist_1_split <- label
I0415 18:41:13.033264 11333 net.cpp:399] label_mnist_1_split -> label_mnist_1_split_0
I0415 18:41:13.033337 11333 net.cpp:399] label_mnist_1_split -> label_mnist_1_split_1
I0415 18:41:13.033421 11333 net.cpp:141] Setting up label_mnist_1_split
I0415 18:41:13.033155 11369 blocking_queue.cpp:50] Waiting for data
I0415 18:41:13.033459 11333 net.cpp:148] Top shape: 100 (100)
I0415 18:41:13.033526 11333 net.cpp:148] Top shape: 100 (100)
I0415 18:41:13.033545 11333 net.cpp:156] Memory required for data: 314800
I0415 18:41:13.033578 11333 layer_factory.hpp:77] Creating layer conv0
I0415 18:41:13.033710 11333 net.cpp:91] Creating Layer conv0
I0415 18:41:13.033749 11333 net.cpp:425] conv0 <- data
I0415 18:41:13.033831 11333 net.cpp:399] conv0 -> conv0
I0415 18:41:13.034349 11333 net.cpp:141] Setting up conv0
I0415 18:41:13.034399 11333 net.cpp:148] Top shape: 100 50 24 24 (2880000)
I0415 18:41:13.034420 11333 net.cpp:156] Memory required for data: 11834800
I0415 18:41:13.034517 11333 layer_factory.hpp:77] Creating layer pool0
I0415 18:41:13.034575 11333 net.cpp:91] Creating Layer pool0
I0415 18:41:13.034605 11333 net.cpp:425] pool0 <- conv0
I0415 18:41:13.034667 11333 net.cpp:399] pool0 -> pool0
I0415 18:41:13.034762 11333 net.cpp:141] Setting up pool0
I0415 18:41:13.034797 11333 net.cpp:148] Top shape: 100 50 12 12 (720000)
I0415 18:41:13.034818 11333 net.cpp:156] Memory required for data: 14714800
I0415 18:41:13.034842 11333 layer_factory.hpp:77] Creating layer conv1
I0415 18:41:13.034921 11333 net.cpp:91] Creating Layer conv1
I0415 18:41:13.034950 11333 net.cpp:425] conv1 <- pool0
I0415 18:41:13.035017 11333 net.cpp:399] conv1 -> conv1
I0415 18:41:13.041141 11369 data_layer.cpp:102] Prefetch batch: 8 ms.
I0415 18:41:13.041169 11369 data_layer.cpp:103]      Read time: 4.544 ms.
I0415 18:41:13.041180 11369 data_layer.cpp:104] Transform time: 2.635 ms.
I0415 18:41:13.044433 11333 net.cpp:141] Setting up conv1
I0415 18:41:13.044466 11333 net.cpp:148] Top shape: 100 50 8 8 (320000)
I0415 18:41:13.044478 11333 net.cpp:156] Memory required for data: 15994800
I0415 18:41:13.044531 11333 layer_factory.hpp:77] Creating layer pool1
I0415 18:41:13.044571 11333 net.cpp:91] Creating Layer pool1
I0415 18:41:13.044595 11333 net.cpp:425] pool1 <- conv1
I0415 18:41:13.044632 11333 net.cpp:399] pool1 -> pool1
I0415 18:41:13.044695 11333 net.cpp:141] Setting up pool1
I0415 18:41:13.044719 11333 net.cpp:148] Top shape: 100 50 4 4 (80000)
I0415 18:41:13.044730 11333 net.cpp:156] Memory required for data: 16314800
I0415 18:41:13.044744 11333 layer_factory.hpp:77] Creating layer ip1
I0415 18:41:13.044785 11333 net.cpp:91] Creating Layer ip1
I0415 18:41:13.044805 11333 net.cpp:425] ip1 <- pool1
I0415 18:41:13.044847 11333 net.cpp:399] ip1 -> ip1
I0415 18:41:13.045012 11369 data_layer.cpp:102] Prefetch batch: 3 ms.
I0415 18:41:13.045035 11369 data_layer.cpp:103]      Read time: 0.393 ms.
I0415 18:41:13.045049 11369 data_layer.cpp:104] Transform time: 2.376 ms.
I0415 18:41:13.048849 11369 data_layer.cpp:102] Prefetch batch: 3 ms.
I0415 18:41:13.048871 11369 data_layer.cpp:103]      Read time: 0.379 ms.
I0415 18:41:13.048882 11369 data_layer.cpp:104] Transform time: 2.366 ms.
I0415 18:41:13.055655 11333 net.cpp:141] Setting up ip1
I0415 18:41:13.055686 11333 net.cpp:148] Top shape: 100 100 (10000)
I0415 18:41:13.055697 11333 net.cpp:156] Memory required for data: 16354800
I0415 18:41:13.055748 11333 layer_factory.hpp:77] Creating layer relu1
I0415 18:41:13.055799 11333 net.cpp:91] Creating Layer relu1
I0415 18:41:13.055817 11333 net.cpp:425] relu1 <- ip1
I0415 18:41:13.055853 11333 net.cpp:386] relu1 -> ip1 (in-place)
I0415 18:41:13.055891 11333 net.cpp:141] Setting up relu1
I0415 18:41:13.055909 11333 net.cpp:148] Top shape: 100 100 (10000)
I0415 18:41:13.055920 11333 net.cpp:156] Memory required for data: 16394800
I0415 18:41:13.055936 11333 layer_factory.hpp:77] Creating layer ip2
I0415 18:41:13.055994 11333 net.cpp:91] Creating Layer ip2
I0415 18:41:13.056021 11333 net.cpp:425] ip2 <- ip1
I0415 18:41:13.056067 11333 net.cpp:399] ip2 -> ip2
I0415 18:41:13.056344 11333 net.cpp:141] Setting up ip2
I0415 18:41:13.056371 11333 net.cpp:148] Top shape: 100 10 (1000)
I0415 18:41:13.056381 11333 net.cpp:156] Memory required for data: 16398800
I0415 18:41:13.056413 11333 layer_factory.hpp:77] Creating layer relu2
I0415 18:41:13.056442 11333 net.cpp:91] Creating Layer relu2
I0415 18:41:13.056462 11333 net.cpp:425] relu2 <- ip2
I0415 18:41:13.056499 11333 net.cpp:386] relu2 -> ip2 (in-place)
I0415 18:41:13.056536 11333 net.cpp:141] Setting up relu2
I0415 18:41:13.056552 11333 net.cpp:148] Top shape: 100 10 (1000)
I0415 18:41:13.056563 11333 net.cpp:156] Memory required for data: 16402800
I0415 18:41:13.056579 11333 layer_factory.hpp:77] Creating layer ip2_relu2_0_split
I0415 18:41:13.056608 11333 net.cpp:91] Creating Layer ip2_relu2_0_split
I0415 18:41:13.056623 11333 net.cpp:425] ip2_relu2_0_split <- ip2
I0415 18:41:13.056660 11333 net.cpp:399] ip2_relu2_0_split -> ip2_relu2_0_split_0
I0415 18:41:13.056699 11333 net.cpp:399] ip2_relu2_0_split -> ip2_relu2_0_split_1
I0415 18:41:13.056742 11333 net.cpp:141] Setting up ip2_relu2_0_split
I0415 18:41:13.056764 11333 net.cpp:148] Top shape: 100 10 (1000)
I0415 18:41:13.056780 11333 net.cpp:148] Top shape: 100 10 (1000)
I0415 18:41:13.056792 11333 net.cpp:156] Memory required for data: 16410800
I0415 18:41:13.056807 11333 layer_factory.hpp:77] Creating layer accuracy
I0415 18:41:13.056849 11333 net.cpp:91] Creating Layer accuracy
I0415 18:41:13.056869 11333 net.cpp:425] accuracy <- ip2_relu2_0_split_0
I0415 18:41:13.056900 11333 net.cpp:425] accuracy <- label_mnist_1_split_0
I0415 18:41:13.056936 11333 net.cpp:399] accuracy -> accuracy
…
