…
I0425 15:51:21.971154 20755 net.cpp:313] The NetState phase (0) differed from the phase (1) specified by a rule in layer mnist
I0425 15:51:21.971204 20755 net.cpp:313] The NetState phase (0) differed from the phase (1) specified by a rule in layer accuracy
I0425 15:51:21.971370 20755 net.cpp:49] Initializing net from parameters: 
name: "LeNet"
state {
  phase: TRAIN
}
layer {
  name: "mnist"
  type: "Data"
  top: "data"
  top: "label"
  include {
    phase: TRAIN
  }
  transform_param {
    scale: 0.00390625
  }
  data_param {
    source: "examples/mnist/mnist_train_lmdb"
    batch_size: 64
    backend: LMDB
  }
}
layer {
  name: "conv0"
  type: "Convolution"
  bottom: "data"
  top: "conv0"
  param {
    lr_mult: 1
  }
  param {
    lr_mult: 2
  }
  convolution_param {
    num_output: 150
    kernel_size: 5
    stride: 1
    weight_filler {
      type: "xavier"
    }
    bias_filler {
      type: "constant"
    }
  }
}
layer {
  name: "pool0"
  type: "Pooling"
  bottom: "conv0"
  top: "pool0"
  pooling_param {
    pool: MAX
    kernel_size: 2
    stride: 2
  }
}
layer {
  name: "conv1"
  type: "Convolution"
  bottom: "pool0"
  top: "conv1"
  param {
    lr_mult: 1
  }
  param {
    lr_mult: 2
  }
  convolution_param {
    num_output: 150
    kernel_size: 5
    stride: 1
    weight_filler {
      type: "xavier"
    }
    bias_filler {
      type: "constant"
    }
  }
}
layer {
  name: "pool1"
  type: "Pooling"
  bottom: "conv1"
  top: "pool1"
  pooling_param {
    pool: MAX
    kernel_size: 2
    stride: 2
  }
}
layer {
  name: "ip1"
  type: "InnerProduct"
  bottom: "pool1"
  top: "ip1"
  param {
    lr_mult: 1
  }
  param {
    lr_mult: 2
  }
  inner_product_param {
    num_output: 100
    weight_filler {
      type: "xavier"
    }
    bias_filler {
      type: "constant"
    }
  }
}
layer {
  name: "relu1"
  type: "ReLU"
  bottom: "ip1"
  top: "ip1"
}
layer {
  name: "ip2"
  type: "InnerProduct"
  bottom: "ip1"
  top: "ip2"
  param {
    lr_mult: 1
  }
  param {
    lr_mult: 2
  }
  inner_product_param {
    num_output: 10
    weight_filler {
      type: "xavier"
    }
    bias_filler {
      type: "constant"
    }
  }
}
layer {
  name: "relu2"
  type: "ReLU"
  bottom: "ip2"
  top: "ip2"
}
layer {
  name: "loss"
  type: "SoftmaxWithLoss"
  bottom: "ip2"
  bottom: "label"
  top: "loss"
}
I0425 15:51:21.971809 20755 layer_factory.hpp:77] Creating layer mnist
I0425 15:51:21.973057 20755 net.cpp:91] Creating Layer mnist
I0425 15:51:21.973093 20755 net.cpp:399] mnist -> data
I0425 15:51:21.973204 20755 net.cpp:399] mnist -> label
I0425 15:51:21.978822 20791 db_lmdb.cpp:35] Opened lmdb examples/mnist/mnist_train_lmdb
I0425 15:51:21.979176 20755 data_layer.cpp:41] output data size: 64,1,28,28
I0425 15:51:21.979504 20755 base_data_layer.cpp:69] Initializing prefetch
I0425 15:51:21.979568 20755 base_data_layer.cpp:72] Prefetch initialized.
I0425 15:51:21.979588 20755 net.cpp:141] Setting up mnist
I0425 15:51:21.979655 20755 net.cpp:148] Top shape: 64 1 28 28 (50176)
I0425 15:51:21.979677 20755 net.cpp:148] Top shape: 64 (64)
I0425 15:51:21.979686 20755 net.cpp:156] Memory required for data: 200960
I0425 15:51:21.979706 20755 layer_factory.hpp:77] Creating layer conv0
I0425 15:51:21.979799 20755 net.cpp:91] Creating Layer conv0
I0425 15:51:21.979825 20755 net.cpp:425] conv0 <- data
I0425 15:51:21.979885 20755 net.cpp:399] conv0 -> conv0
I0425 15:51:21.980489 20755 net.cpp:141] Setting up conv0
I0425 15:51:21.980520 20755 net.cpp:148] Top shape: 64 150 24 24 (5529600)
I0425 15:51:21.980527 20755 net.cpp:156] Memory required for data: 22319360
I0425 15:51:21.980604 20755 layer_factory.hpp:77] Creating layer pool0
I0425 15:51:21.980651 20755 net.cpp:91] Creating Layer pool0
I0425 15:51:21.980674 20755 net.cpp:425] pool0 <- conv0
I0425 15:51:21.980711 20755 net.cpp:399] pool0 -> pool0
I0425 15:51:21.980787 20755 net.cpp:141] Setting up pool0
I0425 15:51:21.980813 20755 net.cpp:148] Top shape: 64 150 12 12 (1382400)
I0425 15:51:21.980821 20755 net.cpp:156] Memory required for data: 27848960
I0425 15:51:21.980834 20755 layer_factory.hpp:77] Creating layer conv1
I0425 15:51:21.980866 20755 net.cpp:91] Creating Layer conv1
I0425 15:51:21.980885 20755 net.cpp:425] conv1 <- pool0
I0425 15:51:21.980916 20755 net.cpp:399] conv1 -> conv1
I0425 15:51:21.985932 20792 data_layer.cpp:102] Prefetch batch: 5 ms.
I0425 15:51:21.986062 20792 data_layer.cpp:103]      Read time: 0.8 ms.
I0425 15:51:21.986119 20792 data_layer.cpp:104] Transform time: 3.104 ms.
I0425 15:51:21.991304 20792 data_layer.cpp:102] Prefetch batch: 5 ms.
I0425 15:51:21.991369 20792 data_layer.cpp:103]      Read time: 0.671 ms.
I0425 15:51:21.991417 20792 data_layer.cpp:104] Transform time: 2.79 ms.
I0425 15:51:21.996582 20792 data_layer.cpp:102] Prefetch batch: 5 ms.
I0425 15:51:21.996645 20792 data_layer.cpp:103]      Read time: 0.626 ms.
I0425 15:51:21.996693 20792 data_layer.cpp:104] Transform time: 2.824 ms.
I0425 15:51:22.044057 20755 net.cpp:141] Setting up conv1
I0425 15:51:22.044114 20755 net.cpp:148] Top shape: 64 150 8 8 (614400)
I0425 15:51:22.044133 20755 net.cpp:156] Memory required for data: 30306560
I0425 15:51:22.044180 20755 layer_factory.hpp:77] Creating layer pool1
I0425 15:51:22.044219 20755 net.cpp:91] Creating Layer pool1
I0425 15:51:22.044244 20755 net.cpp:425] pool1 <- conv1
I0425 15:51:22.044281 20755 net.cpp:399] pool1 -> pool1
I0425 15:51:22.044333 20755 net.cpp:141] Setting up pool1
I0425 15:51:22.044360 20755 net.cpp:148] Top shape: 64 150 4 4 (153600)
I0425 15:51:22.044378 20755 net.cpp:156] Memory required for data: 30920960
I0425 15:51:22.044399 20755 layer_factory.hpp:77] Creating layer ip1
I0425 15:51:22.044436 20755 net.cpp:91] Creating Layer ip1
I0425 15:51:22.044459 20755 net.cpp:425] ip1 <- pool1
I0425 15:51:22.044498 20755 net.cpp:399] ip1 -> ip1
I0425 15:51:22.063174 20755 net.cpp:141] Setting up ip1
I0425 15:51:22.063191 20755 net.cpp:148] Top shape: 64 100 (6400)
I0425 15:51:22.063200 20755 net.cpp:156] Memory required for data: 30946560
I0425 15:51:22.063230 20755 layer_factory.hpp:77] Creating layer relu1
I0425 15:51:22.063252 20755 net.cpp:91] Creating Layer relu1
I0425 15:51:22.063264 20755 net.cpp:425] relu1 <- ip1
I0425 15:51:22.063287 20755 net.cpp:386] relu1 -> ip1 (in-place)
I0425 15:51:22.063308 20755 net.cpp:141] Setting up relu1
I0425 15:51:22.063319 20755 net.cpp:148] Top shape: 64 100 (6400)
I0425 15:51:22.063328 20755 net.cpp:156] Memory required for data: 30972160
I0425 15:51:22.063339 20755 layer_factory.hpp:77] Creating layer ip2
I0425 15:51:22.063360 20755 net.cpp:91] Creating Layer ip2
I0425 15:51:22.063371 20755 net.cpp:425] ip2 <- ip1
I0425 15:51:22.063396 20755 net.cpp:399] ip2 -> ip2
I0425 15:51:22.063498 20755 net.cpp:141] Setting up ip2
I0425 15:51:22.063513 20755 net.cpp:148] Top shape: 64 10 (640)
I0425 15:51:22.063521 20755 net.cpp:156] Memory required for data: 30974720
I0425 15:51:22.063544 20755 layer_factory.hpp:77] Creating layer relu2
I0425 15:51:22.063565 20755 net.cpp:91] Creating Layer relu2
I0425 15:51:22.063575 20755 net.cpp:425] relu2 <- ip2
I0425 15:51:22.063624 20755 net.cpp:386] relu2 -> ip2 (in-place)
I0425 15:51:22.063650 20755 net.cpp:141] Setting up relu2
I0425 15:51:22.063673 20755 net.cpp:148] Top shape: 64 10 (640)
I0425 15:51:22.063680 20755 net.cpp:156] Memory required for data: 30977280
I0425 15:51:22.063694 20755 layer_factory.hpp:77] Creating layer loss
I0425 15:51:22.063716 20755 net.cpp:91] Creating Layer loss
I0425 15:51:22.063729 20755 net.cpp:425] loss <- ip2
I0425 15:51:22.063747 20755 net.cpp:425] loss <- label
I0425 15:51:22.063771 20755 net.cpp:399] loss -> loss
I0425 15:51:22.063828 20755 layer_factory.hpp:77] Creating layer loss
…
I0425 15:51:22.064703 20755 solver.cpp:181] Creating test net (#0) specified by net file: ECE595/mnist/train_test/var_num_feature/lenet_train_test_featuresize150.prototxt
I0425 15:51:22.064781 20755 net.cpp:313] The NetState phase (1) differed from the phase (0) specified by a rule in layer mnist
I0425 15:51:22.064920 20755 net.cpp:49] Initializing net from parameters: 
name: "LeNet"
state {
  phase: TEST
}
layer {
  name: "mnist"
  type: "Data"
  top: "data"
  top: "label"
  include {
    phase: TEST
  }
  transform_param {
    scale: 0.00390625
  }
  data_param {
    source: "examples/mnist/mnist_test_lmdb"
    batch_size: 100
    backend: LMDB
  }
}
layer {
  name: "conv0"
  type: "Convolution"
  bottom: "data"
  top: "conv0"
  param {
    lr_mult: 1
  }
  param {
    lr_mult: 2
  }
  convolution_param {
    num_output: 150
    kernel_size: 5
    stride: 1
    weight_filler {
      type: "xavier"
    }
    bias_filler {
      type: "constant"
    }
  }
}
layer {
  name: "pool0"
  type: "Pooling"
  bottom: "conv0"
  top: "pool0"
  pooling_param {
    pool: MAX
    kernel_size: 2
    stride: 2
  }
}
layer {
  name: "conv1"
  type: "Convolution"
  bottom: "pool0"
  top: "conv1"
  param {
    lr_mult: 1
  }
  param {
    lr_mult: 2
  }
  convolution_param {
    num_output: 150
    kernel_size: 5
    stride: 1
    weight_filler {
      type: "xavier"
    }
    bias_filler {
      type: "constant"
    }
  }
}
layer {
  name: "pool1"
  type: "Pooling"
  bottom: "conv1"
  top: "pool1"
  pooling_param {
    pool: MAX
    kernel_size: 2
    stride: 2
  }
}
layer {
  name: "ip1"
  type: "InnerProduct"
  bottom: "pool1"
  top: "ip1"
  param {
    lr_mult: 1
  }
  param {
    lr_mult: 2
  }
  inner_product_param {
    num_output: 100
    weight_filler {
      type: "xavier"
    }
    bias_filler {
      type: "constant"
    }
  }
}
layer {
  name: "relu1"
  type: "ReLU"
  bottom: "ip1"
  top: "ip1"
}
layer {
  name: "ip2"
  type: "InnerProduct"
  bottom: "ip1"
  top: "ip2"
  param {
    lr_mult: 1
  }
  param {
    lr_mult: 2
  }
  inner_product_param {
    num_output: 10
    weight_filler {
      type: "xavier"
    }
    bias_filler {
      type: "constant"
    }
  }
}
layer {
  name: "relu2"
  type: "ReLU"
  bottom: "ip2"
  top: "ip2"
}
layer {
  name: "accuracy"
  type: "Accuracy"
  bottom: "ip2"
  bottom: "label"
  top: "accuracy"
  include {
    phase: TEST
  }
}
layer {
  name: "loss"
  type: "SoftmaxWithLoss"
  bottom: "ip2"
  bottom: "label"
  top: "loss"
}
I0425 15:51:22.065191 20755 layer_factory.hpp:77] Creating layer mnist
I0425 15:51:22.065410 20755 net.cpp:91] Creating Layer mnist
I0425 15:51:22.065431 20755 net.cpp:399] mnist -> data
I0425 15:51:22.065464 20755 net.cpp:399] mnist -> label
I0425 15:51:22.069104 20793 db_lmdb.cpp:35] Opened lmdb examples/mnist/mnist_test_lmdb
I0425 15:51:22.069488 20755 data_layer.cpp:41] output data size: 100,1,28,28
I0425 15:51:22.069918 20755 base_data_layer.cpp:69] Initializing prefetch
I0425 15:51:22.070402 20755 base_data_layer.cpp:72] Prefetch initialized.
I0425 15:51:22.070410 20755 net.cpp:141] Setting up mnist
I0425 15:51:22.070432 20755 net.cpp:148] Top shape: 100 1 28 28 (78400)
I0425 15:51:22.070441 20755 net.cpp:148] Top shape: 100 (100)
I0425 15:51:22.070444 20755 net.cpp:156] Memory required for data: 314000
I0425 15:51:22.070456 20755 layer_factory.hpp:77] Creating layer label_mnist_1_split
I0425 15:51:22.070672 20755 net.cpp:91] Creating Layer label_mnist_1_split
I0425 15:51:22.070683 20755 net.cpp:425] label_mnist_1_split <- label
I0425 15:51:22.070757 20755 net.cpp:399] label_mnist_1_split -> label_mnist_1_split_0
I0425 15:51:22.070782 20755 net.cpp:399] label_mnist_1_split -> label_mnist_1_split_1
I0425 15:51:22.070808 20755 net.cpp:141] Setting up label_mnist_1_split
I0425 15:51:22.070822 20755 net.cpp:148] Top shape: 100 (100)
I0425 15:51:22.070830 20755 net.cpp:148] Top shape: 100 (100)
I0425 15:51:22.070834 20755 net.cpp:156] Memory required for data: 314800
I0425 15:51:22.070842 20755 layer_factory.hpp:77] Creating layer conv0
I0425 15:51:22.070873 20755 net.cpp:91] Creating Layer conv0
I0425 15:51:22.070885 20755 net.cpp:425] conv0 <- data
I0425 15:51:22.070916 20755 net.cpp:399] conv0 -> conv0
I0425 15:51:22.071254 20755 net.cpp:141] Setting up conv0
I0425 15:51:22.071274 20755 net.cpp:148] Top shape: 100 150 24 24 (8640000)
I0425 15:51:22.071282 20755 net.cpp:156] Memory required for data: 34874800
I0425 15:51:22.071321 20755 layer_factory.hpp:77] Creating layer pool0
I0425 15:51:22.071342 20755 net.cpp:91] Creating Layer pool0
I0425 15:51:22.071354 20755 net.cpp:425] pool0 <- conv0
I0425 15:51:22.071380 20755 net.cpp:399] pool0 -> pool0
I0425 15:51:22.071413 20755 net.cpp:141] Setting up pool0
I0425 15:51:22.071426 20755 net.cpp:148] Top shape: 100 150 12 12 (2160000)
I0425 15:51:22.071434 20755 net.cpp:156] Memory required for data: 43514800
I0425 15:51:22.071442 20755 layer_factory.hpp:77] Creating layer conv1
I0425 15:51:22.071472 20755 net.cpp:91] Creating Layer conv1
I0425 15:51:22.071485 20755 net.cpp:425] conv1 <- pool0
I0425 15:51:22.071511 20755 net.cpp:399] conv1 -> conv1
I0425 15:51:22.075386 20794 data_layer.cpp:102] Prefetch batch: 4 ms.
I0425 15:51:22.075425 20794 data_layer.cpp:103]      Read time: 0.52 ms.
I0425 15:51:22.075441 20794 data_layer.cpp:104] Transform time: 2.822 ms.
I0425 15:51:22.079902 20794 data_layer.cpp:102] Prefetch batch: 4 ms.
I0425 15:51:22.079927 20794 data_layer.cpp:103]      Read time: 0.512 ms.
I0425 15:51:22.079941 20794 data_layer.cpp:104] Transform time: 2.757 ms.
I0425 15:51:22.084342 20794 data_layer.cpp:102] Prefetch batch: 4 ms.
I0425 15:51:22.084367 20794 data_layer.cpp:103]      Read time: 0.485 ms.
I0425 15:51:22.084381 20794 data_layer.cpp:104] Transform time: 2.723 ms.
I0425 15:51:22.103754 20755 net.cpp:141] Setting up conv1
I0425 15:51:22.103768 20755 net.cpp:148] Top shape: 100 150 8 8 (960000)
I0425 15:51:22.103785 20755 net.cpp:156] Memory required for data: 47354800
I0425 15:51:22.103808 20755 layer_factory.hpp:77] Creating layer pool1
I0425 15:51:22.103829 20755 net.cpp:91] Creating Layer pool1
I0425 15:51:22.103838 20755 net.cpp:425] pool1 <- conv1
I0425 15:51:22.103855 20755 net.cpp:399] pool1 -> pool1
I0425 15:51:22.103883 20755 net.cpp:141] Setting up pool1
I0425 15:51:22.103893 20755 net.cpp:148] Top shape: 100 150 4 4 (240000)
I0425 15:51:22.103898 20755 net.cpp:156] Memory required for data: 48314800
I0425 15:51:22.103904 20755 layer_factory.hpp:77] Creating layer ip1
I0425 15:51:22.103920 20755 net.cpp:91] Creating Layer ip1
I0425 15:51:22.103929 20755 net.cpp:425] ip1 <- pool1
I0425 15:51:22.103950 20755 net.cpp:399] ip1 -> ip1
I0425 15:51:22.117243 20755 net.cpp:141] Setting up ip1
I0425 15:51:22.117256 20755 net.cpp:148] Top shape: 100 100 (10000)
I0425 15:51:22.117260 20755 net.cpp:156] Memory required for data: 48354800
I0425 15:51:22.117281 20755 layer_factory.hpp:77] Creating layer relu1
I0425 15:51:22.117302 20755 net.cpp:91] Creating Layer relu1
I0425 15:51:22.117311 20755 net.cpp:425] relu1 <- ip1
I0425 15:51:22.117326 20755 net.cpp:386] relu1 -> ip1 (in-place)
I0425 15:51:22.117343 20755 net.cpp:141] Setting up relu1
I0425 15:51:22.117350 20755 net.cpp:148] Top shape: 100 100 (10000)
I0425 15:51:22.117355 20755 net.cpp:156] Memory required for data: 48394800
I0425 15:51:22.117362 20755 layer_factory.hpp:77] Creating layer ip2
I0425 15:51:22.117383 20755 net.cpp:91] Creating Layer ip2
I0425 15:51:22.117390 20755 net.cpp:425] ip2 <- ip1
I0425 15:51:22.117408 20755 net.cpp:399] ip2 -> ip2
I0425 15:51:22.117509 20755 net.cpp:141] Setting up ip2
I0425 15:51:22.117521 20755 net.cpp:148] Top shape: 100 10 (1000)
I0425 15:51:22.117525 20755 net.cpp:156] Memory required for data: 48398800
I0425 15:51:22.117539 20755 layer_factory.hpp:77] Creating layer relu2
I0425 15:51:22.117552 20755 net.cpp:91] Creating Layer relu2
I0425 15:51:22.117560 20755 net.cpp:425] relu2 <- ip2
I0425 15:51:22.117574 20755 net.cpp:386] relu2 -> ip2 (in-place)
I0425 15:51:22.117588 20755 net.cpp:141] Setting up relu2
I0425 15:51:22.117596 20755 net.cpp:148] Top shape: 100 10 (1000)
I0425 15:51:22.117601 20755 net.cpp:156] Memory required for data: 48402800
I0425 15:51:22.117611 20755 layer_factory.hpp:77] Creating layer ip2_relu2_0_split
I0425 15:51:22.117635 20755 net.cpp:91] Creating Layer ip2_relu2_0_split
I0425 15:51:22.117642 20755 net.cpp:425] ip2_relu2_0_split <- ip2
I0425 15:51:22.117656 20755 net.cpp:399] ip2_relu2_0_split -> ip2_relu2_0_split_0
I0425 15:51:22.117673 20755 net.cpp:399] ip2_relu2_0_split -> ip2_relu2_0_split_1
I0425 15:51:22.117692 20755 net.cpp:141] Setting up ip2_relu2_0_split
I0425 15:51:22.117702 20755 net.cpp:148] Top shape: 100 10 (1000)
I0425 15:51:22.117709 20755 net.cpp:148] Top shape: 100 10 (1000)
I0425 15:51:22.117713 20755 net.cpp:156] Memory required for data: 48410800
I0425 15:51:22.117720 20755 layer_factory.hpp:77] Creating layer accuracy
I0425 15:51:22.117740 20755 net.cpp:91] Creating Layer accuracy
I0425 15:51:22.117749 20755 net.cpp:425] accuracy <- ip2_relu2_0_split_0
I0425 15:51:22.117763 20755 net.cpp:425] accuracy <- label_mnist_1_split_0
I0425 15:51:22.117776 20755 net.cpp:399] accuracy -> accuracy
…
