…
I0425 14:02:44.405227 18259 net.cpp:313] The NetState phase (0) differed from the phase (1) specified by a rule in layer mnist
I0425 14:02:44.405280 18259 net.cpp:313] The NetState phase (0) differed from the phase (1) specified by a rule in layer accuracy
I0425 14:02:44.405452 18259 net.cpp:49] Initializing net from parameters: 
name: "LeNet"
state {
  phase: TRAIN
}
layer {
  name: "mnist"
  type: "Data"
  top: "data"
  top: "label"
  include {
    phase: TRAIN
  }
  transform_param {
    scale: 0.00390625
  }
  data_param {
    source: "examples/mnist/mnist_train_lmdb"
    batch_size: 64
    backend: LMDB
  }
}
layer {
  name: "conv0"
  type: "Convolution"
  bottom: "data"
  top: "conv0"
  param {
    lr_mult: 1
  }
  param {
    lr_mult: 2
  }
  convolution_param {
    num_output: 25
    kernel_size: 5
    stride: 1
    weight_filler {
      type: "xavier"
    }
    bias_filler {
      type: "constant"
    }
  }
}
layer {
  name: "pool0"
  type: "Pooling"
  bottom: "conv0"
  top: "pool0"
  pooling_param {
    pool: MAX
    kernel_size: 2
    stride: 2
  }
}
layer {
  name: "conv1"
  type: "Convolution"
  bottom: "pool0"
  top: "conv1"
  param {
    lr_mult: 1
  }
  param {
    lr_mult: 2
  }
  convolution_param {
    num_output: 25
    kernel_size: 5
    stride: 1
    weight_filler {
      type: "xavier"
    }
    bias_filler {
      type: "constant"
    }
  }
}
layer {
  name: "pool1"
  type: "Pooling"
  bottom: "conv1"
  top: "pool1"
  pooling_param {
    pool: MAX
    kernel_size: 2
    stride: 2
  }
}
layer {
  name: "ip1"
  type: "InnerProduct"
  bottom: "pool1"
  top: "ip1"
  param {
    lr_mult: 1
  }
  param {
    lr_mult: 2
  }
  inner_product_param {
    num_output: 100
    weight_filler {
      type: "xavier"
    }
    bias_filler {
      type: "constant"
    }
  }
}
layer {
  name: "relu1"
  type: "ReLU"
  bottom: "ip1"
  top: "ip1"
}
layer {
  name: "ip2"
  type: "InnerProduct"
  bottom: "ip1"
  top: "ip2"
  param {
    lr_mult: 1
  }
  param {
    lr_mult: 2
  }
  inner_product_param {
    num_output: 10
    weight_filler {
      type: "xavier"
    }
    bias_filler {
      type: "constant"
    }
  }
}
layer {
  name: "relu2"
  type: "ReLU"
  bottom: "ip2"
  top: "ip2"
}
layer {
  name: "loss"
  type: "SoftmaxWithLoss"
  bottom: "ip2"
  bottom: "label"
  top: "loss"
}
I0425 14:02:44.405896 18259 layer_factory.hpp:77] Creating layer mnist
I0425 14:02:44.407173 18259 net.cpp:91] Creating Layer mnist
I0425 14:02:44.407220 18259 net.cpp:399] mnist -> data
I0425 14:02:44.407348 18259 net.cpp:399] mnist -> label
I0425 14:02:44.410742 18292 db_lmdb.cpp:35] Opened lmdb examples/mnist/mnist_train_lmdb
I0425 14:02:44.411432 18259 data_layer.cpp:41] output data size: 64,1,28,28
I0425 14:02:44.411872 18259 base_data_layer.cpp:69] Initializing prefetch
I0425 14:02:44.411934 18259 base_data_layer.cpp:72] Prefetch initialized.
I0425 14:02:44.411952 18259 net.cpp:141] Setting up mnist
I0425 14:02:44.411983 18259 net.cpp:148] Top shape: 64 1 28 28 (50176)
I0425 14:02:44.412004 18259 net.cpp:148] Top shape: 64 (64)
I0425 14:02:44.412012 18259 net.cpp:156] Memory required for data: 200960
I0425 14:02:44.412034 18259 layer_factory.hpp:77] Creating layer conv0
I0425 14:02:44.412086 18259 net.cpp:91] Creating Layer conv0
I0425 14:02:44.412111 18259 net.cpp:425] conv0 <- data
I0425 14:02:44.412158 18259 net.cpp:399] conv0 -> conv0
I0425 14:02:44.412423 18259 net.cpp:141] Setting up conv0
I0425 14:02:44.412447 18259 net.cpp:148] Top shape: 64 25 24 24 (921600)
I0425 14:02:44.412456 18259 net.cpp:156] Memory required for data: 3887360
I0425 14:02:44.412528 18259 layer_factory.hpp:77] Creating layer pool0
I0425 14:02:44.412565 18259 net.cpp:91] Creating Layer pool0
I0425 14:02:44.412590 18259 net.cpp:425] pool0 <- conv0
I0425 14:02:44.412626 18259 net.cpp:399] pool0 -> pool0
I0425 14:02:44.412684 18259 net.cpp:141] Setting up pool0
I0425 14:02:44.412708 18259 net.cpp:148] Top shape: 64 25 12 12 (230400)
I0425 14:02:44.412714 18259 net.cpp:156] Memory required for data: 4808960
I0425 14:02:44.412725 18259 layer_factory.hpp:77] Creating layer conv1
I0425 14:02:44.412755 18259 net.cpp:91] Creating Layer conv1
I0425 14:02:44.412771 18259 net.cpp:425] conv1 <- pool0
I0425 14:02:44.412799 18259 net.cpp:399] conv1 -> conv1
I0425 14:02:44.414297 18259 net.cpp:141] Setting up conv1
I0425 14:02:44.414315 18259 net.cpp:148] Top shape: 64 25 8 8 (102400)
I0425 14:02:44.414324 18259 net.cpp:156] Memory required for data: 5218560
I0425 14:02:44.414361 18259 layer_factory.hpp:77] Creating layer pool1
I0425 14:02:44.414443 18259 net.cpp:91] Creating Layer pool1
I0425 14:02:44.414510 18259 net.cpp:425] pool1 <- conv1
I0425 14:02:44.414652 18259 net.cpp:399] pool1 -> pool1
I0425 14:02:44.414810 18259 net.cpp:141] Setting up pool1
I0425 14:02:44.414867 18259 net.cpp:148] Top shape: 64 25 4 4 (25600)
I0425 14:02:44.414897 18259 net.cpp:156] Memory required for data: 5320960
I0425 14:02:44.414939 18259 layer_factory.hpp:77] Creating layer ip1
I0425 14:02:44.415041 18259 net.cpp:91] Creating Layer ip1
I0425 14:02:44.415081 18259 net.cpp:425] ip1 <- pool1
I0425 14:02:44.415163 18259 net.cpp:399] ip1 -> ip1
I0425 14:02:44.424504 18259 net.cpp:141] Setting up ip1
I0425 14:02:44.424556 18259 net.cpp:148] Top shape: 64 100 (6400)
I0425 14:02:44.424587 18259 net.cpp:156] Memory required for data: 5346560
I0425 14:02:44.424695 18259 layer_factory.hpp:77] Creating layer relu1
I0425 14:02:44.426390 18293 data_layer.cpp:102] Prefetch batch: 11 ms.
I0425 14:02:44.426554 18293 data_layer.cpp:103]      Read time: 0.228 ms.
I0425 14:02:44.426569 18293 data_layer.cpp:104] Transform time: 1.051 ms.
I0425 14:02:44.426600 18259 net.cpp:91] Creating Layer relu1
I0425 14:02:44.426789 18259 net.cpp:425] relu1 <- ip1
I0425 14:02:44.426977 18259 net.cpp:386] relu1 -> ip1 (in-place)
I0425 14:02:44.427212 18259 net.cpp:141] Setting up relu1
I0425 14:02:44.427402 18259 net.cpp:148] Top shape: 64 100 (6400)
I0425 14:02:44.427542 18259 net.cpp:156] Memory required for data: 5372160
I0425 14:02:44.427713 18259 layer_factory.hpp:77] Creating layer ip2
I0425 14:02:44.427922 18259 net.cpp:91] Creating Layer ip2
I0425 14:02:44.428112 18259 net.cpp:425] ip2 <- ip1
I0425 14:02:44.428316 18259 net.cpp:399] ip2 -> ip2
I0425 14:02:44.428378 18293 data_layer.cpp:102] Prefetch batch: 1 ms.
I0425 14:02:44.428489 18293 data_layer.cpp:103]      Read time: 0.216 ms.
I0425 14:02:44.428498 18293 data_layer.cpp:104] Transform time: 1.047 ms.
I0425 14:02:44.429167 18259 net.cpp:141] Setting up ip2
I0425 14:02:44.429498 18259 net.cpp:148] Top shape: 64 10 (640)
I0425 14:02:44.429656 18259 net.cpp:156] Memory required for data: 5374720
I0425 14:02:44.429911 18259 layer_factory.hpp:77] Creating layer relu2
I0425 14:02:44.430138 18259 net.cpp:91] Creating Layer relu2
I0425 14:02:44.430270 18293 data_layer.cpp:102] Prefetch batch: 1 ms.
I0425 14:02:44.430332 18293 data_layer.cpp:103]      Read time: 0.219 ms.
I0425 14:02:44.430341 18293 data_layer.cpp:104] Transform time: 1.042 ms.
I0425 14:02:44.430375 18259 net.cpp:425] relu2 <- ip2
I0425 14:02:44.430469 18259 net.cpp:386] relu2 -> ip2 (in-place)
I0425 14:02:44.430564 18259 net.cpp:141] Setting up relu2
I0425 14:02:44.430619 18259 net.cpp:148] Top shape: 64 10 (640)
I0425 14:02:44.430662 18259 net.cpp:156] Memory required for data: 5377280
I0425 14:02:44.430713 18259 layer_factory.hpp:77] Creating layer loss
I0425 14:02:44.430862 18259 net.cpp:91] Creating Layer loss
I0425 14:02:44.430922 18259 net.cpp:425] loss <- ip2
I0425 14:02:44.431001 18259 net.cpp:425] loss <- label
I0425 14:02:44.431105 18259 net.cpp:399] loss -> loss
I0425 14:02:44.431270 18259 layer_factory.hpp:77] Creating layer loss
…
I0425 14:02:44.434628 18259 solver.cpp:181] Creating test net (#0) specified by net file: ECE595/mnist/train_test/var_num_feature/lenet_train_test_featuresize25.prototxt
I0425 14:02:44.434929 18259 net.cpp:313] The NetState phase (1) differed from the phase (0) specified by a rule in layer mnist
I0425 14:02:44.435570 18259 net.cpp:49] Initializing net from parameters: 
name: "LeNet"
state {
  phase: TEST
}
layer {
  name: "mnist"
  type: "Data"
  top: "data"
  top: "label"
  include {
    phase: TEST
  }
  transform_param {
    scale: 0.00390625
  }
  data_param {
    source: "examples/mnist/mnist_test_lmdb"
    batch_size: 100
    backend: LMDB
  }
}
layer {
  name: "conv0"
  type: "Convolution"
  bottom: "data"
  top: "conv0"
  param {
    lr_mult: 1
  }
  param {
    lr_mult: 2
  }
  convolution_param {
    num_output: 25
    kernel_size: 5
    stride: 1
    weight_filler {
      type: "xavier"
    }
    bias_filler {
      type: "constant"
    }
  }
}
layer {
  name: "pool0"
  type: "Pooling"
  bottom: "conv0"
  top: "pool0"
  pooling_param {
    pool: MAX
    kernel_size: 2
    stride: 2
  }
}
layer {
  name: "conv1"
  type: "Convolution"
  bottom: "pool0"
  top: "conv1"
  param {
    lr_mult: 1
  }
  param {
    lr_mult: 2
  }
  convolution_param {
    num_output: 25
    kernel_size: 5
    stride: 1
    weight_filler {
      type: "xavier"
    }
    bias_filler {
      type: "constant"
    }
  }
}
layer {
  name: "pool1"
  type: "Pooling"
  bottom: "conv1"
  top: "pool1"
  pooling_param {
    pool: MAX
    kernel_size: 2
    stride: 2
  }
}
layer {
  name: "ip1"
  type: "InnerProduct"
  bottom: "pool1"
  top: "ip1"
  param {
    lr_mult: 1
  }
  param {
    lr_mult: 2
  }
  inner_product_param {
    num_output: 100
    weight_filler {
      type: "xavier"
    }
    bias_filler {
      type: "constant"
    }
  }
}
layer {
  name: "relu1"
  type: "ReLU"
  bottom: "ip1"
  top: "ip1"
}
layer {
  name: "ip2"
  type: "InnerProduct"
  bottom: "ip1"
  top: "ip2"
  param {
    lr_mult: 1
  }
  param {
    lr_mult: 2
  }
  inner_product_param {
    num_output: 10
    weight_filler {
      type: "xavier"
    }
    bias_filler {
      type: "constant"
    }
  }
}
layer {
  name: "relu2"
  type: "ReLU"
  bottom: "ip2"
  top: "ip2"
}
layer {
  name: "accuracy"
  type: "Accuracy"
  bottom: "ip2"
  bottom: "label"
  top: "accuracy"
  include {
    phase: TEST
  }
}
layer {
  name: "loss"
  type: "SoftmaxWithLoss"
  bottom: "ip2"
  bottom: "label"
  top: "loss"
}
I0425 14:02:44.436882 18259 layer_factory.hpp:77] Creating layer mnist
I0425 14:02:44.438464 18259 net.cpp:91] Creating Layer mnist
I0425 14:02:44.438588 18259 net.cpp:399] mnist -> data
I0425 14:02:44.438731 18259 net.cpp:399] mnist -> label
I0425 14:02:44.442214 18294 db_lmdb.cpp:35] Opened lmdb examples/mnist/mnist_test_lmdb
I0425 14:02:44.442698 18259 data_layer.cpp:41] output data size: 100,1,28,28
I0425 14:02:44.443991 18259 base_data_layer.cpp:69] Initializing prefetch
I0425 14:02:44.444108 18259 base_data_layer.cpp:72] Prefetch initialized.
I0425 14:02:44.444135 18259 net.cpp:141] Setting up mnist
I0425 14:02:44.444172 18259 net.cpp:148] Top shape: 100 1 28 28 (78400)
I0425 14:02:44.444205 18259 net.cpp:148] Top shape: 100 (100)
I0425 14:02:44.444222 18259 net.cpp:156] Memory required for data: 314000
I0425 14:02:44.444232 18295 blocking_queue.cpp:50] Waiting for data
I0425 14:02:44.444260 18259 layer_factory.hpp:77] Creating layer label_mnist_1_split
I0425 14:02:44.444353 18259 net.cpp:91] Creating Layer label_mnist_1_split
I0425 14:02:44.444384 18259 net.cpp:425] label_mnist_1_split <- label
I0425 14:02:44.444443 18259 net.cpp:399] label_mnist_1_split -> label_mnist_1_split_0
I0425 14:02:44.444519 18259 net.cpp:399] label_mnist_1_split -> label_mnist_1_split_1
I0425 14:02:44.444600 18259 net.cpp:141] Setting up label_mnist_1_split
I0425 14:02:44.444635 18259 net.cpp:148] Top shape: 100 (100)
I0425 14:02:44.444663 18259 net.cpp:148] Top shape: 100 (100)
I0425 14:02:44.444679 18259 net.cpp:156] Memory required for data: 314800
I0425 14:02:44.444705 18259 layer_factory.hpp:77] Creating layer conv0
I0425 14:02:44.444813 18259 net.cpp:91] Creating Layer conv0
I0425 14:02:44.444844 18259 net.cpp:425] conv0 <- data
I0425 14:02:44.444916 18259 net.cpp:399] conv0 -> conv0
I0425 14:02:44.445353 18259 net.cpp:141] Setting up conv0
I0425 14:02:44.445402 18259 net.cpp:148] Top shape: 100 25 24 24 (1440000)
I0425 14:02:44.445421 18259 net.cpp:156] Memory required for data: 6074800
I0425 14:02:44.445531 18259 layer_factory.hpp:77] Creating layer pool0
I0425 14:02:44.445588 18259 net.cpp:91] Creating Layer pool0
I0425 14:02:44.445617 18259 net.cpp:425] pool0 <- conv0
I0425 14:02:44.445675 18259 net.cpp:399] pool0 -> pool0
I0425 14:02:44.445781 18259 net.cpp:141] Setting up pool0
I0425 14:02:44.445817 18259 net.cpp:148] Top shape: 100 25 12 12 (360000)
I0425 14:02:44.445835 18259 net.cpp:156] Memory required for data: 7514800
I0425 14:02:44.445861 18259 layer_factory.hpp:77] Creating layer conv1
I0425 14:02:44.445955 18259 net.cpp:91] Creating Layer conv1
I0425 14:02:44.445986 18259 net.cpp:425] conv1 <- pool0
I0425 14:02:44.446058 18259 net.cpp:399] conv1 -> conv1
I0425 14:02:44.450040 18259 net.cpp:141] Setting up conv1
I0425 14:02:44.450117 18259 net.cpp:148] Top shape: 100 25 8 8 (160000)
I0425 14:02:44.450161 18259 net.cpp:156] Memory required for data: 8154800
I0425 14:02:44.450278 18259 layer_factory.hpp:77] Creating layer pool1
I0425 14:02:44.450371 18259 net.cpp:91] Creating Layer pool1
I0425 14:02:44.450428 18259 net.cpp:425] pool1 <- conv1
I0425 14:02:44.450526 18259 net.cpp:399] pool1 -> pool1
I0425 14:02:44.450659 18259 net.cpp:141] Setting up pool1
I0425 14:02:44.450770 18259 net.cpp:148] Top shape: 100 25 4 4 (40000)
I0425 14:02:44.450819 18259 net.cpp:156] Memory required for data: 8314800
I0425 14:02:44.450870 18259 layer_factory.hpp:77] Creating layer ip1
I0425 14:02:44.450955 18259 net.cpp:91] Creating Layer ip1
I0425 14:02:44.451014 18259 net.cpp:425] ip1 <- pool1
I0425 14:02:44.451119 18259 net.cpp:399] ip1 -> ip1
I0425 14:02:44.459332 18295 data_layer.cpp:102] Prefetch batch: 15 ms.
I0425 14:02:44.459352 18295 data_layer.cpp:103]      Read time: 13.626 ms.
I0425 14:02:44.459357 18295 data_layer.cpp:104] Transform time: 1.185 ms.
I0425 14:02:44.460475 18259 net.cpp:141] Setting up ip1
I0425 14:02:44.460533 18259 net.cpp:148] Top shape: 100 100 (10000)
I0425 14:02:44.460556 18259 net.cpp:156] Memory required for data: 8354800
I0425 14:02:44.460666 18259 layer_factory.hpp:77] Creating layer relu1
I0425 14:02:44.460744 18259 net.cpp:91] Creating Layer relu1
I0425 14:02:44.460793 18259 net.cpp:425] relu1 <- ip1
I0425 14:02:44.460867 18259 net.cpp:386] relu1 -> ip1 (in-place)
I0425 14:02:44.460949 18259 net.cpp:141] Setting up relu1
I0425 14:02:44.460986 18259 net.cpp:148] Top shape: 100 100 (10000)
I0425 14:02:44.461019 18259 net.cpp:156] Memory required for data: 8394800
I0425 14:02:44.461053 18259 layer_factory.hpp:77] Creating layer ip2
I0425 14:02:44.461115 18295 data_layer.cpp:102] Prefetch batch: 1 ms.
I0425 14:02:44.461128 18295 data_layer.cpp:103]      Read time: 0.259 ms.
I0425 14:02:44.461133 18295 data_layer.cpp:104] Transform time: 1.139 ms.
I0425 14:02:44.461154 18259 net.cpp:91] Creating Layer ip2
I0425 14:02:44.461200 18259 net.cpp:425] ip2 <- ip1
I0425 14:02:44.461307 18259 net.cpp:399] ip2 -> ip2
I0425 14:02:44.461789 18259 net.cpp:141] Setting up ip2
I0425 14:02:44.461845 18259 net.cpp:148] Top shape: 100 10 (1000)
I0425 14:02:44.461869 18259 net.cpp:156] Memory required for data: 8398800
I0425 14:02:44.461946 18259 layer_factory.hpp:77] Creating layer relu2
I0425 14:02:44.462002 18259 net.cpp:91] Creating Layer relu2
I0425 14:02:44.462046 18259 net.cpp:425] relu2 <- ip2
I0425 14:02:44.462126 18259 net.cpp:386] relu2 -> ip2 (in-place)
I0425 14:02:44.462198 18259 net.cpp:141] Setting up relu2
I0425 14:02:44.462240 18259 net.cpp:148] Top shape: 100 10 (1000)
I0425 14:02:44.462266 18259 net.cpp:156] Memory required for data: 8402800
I0425 14:02:44.462304 18259 layer_factory.hpp:77] Creating layer ip2_relu2_0_split
I0425 14:02:44.462366 18259 net.cpp:91] Creating Layer ip2_relu2_0_split
I0425 14:02:44.462402 18259 net.cpp:425] ip2_relu2_0_split <- ip2
I0425 14:02:44.462483 18259 net.cpp:399] ip2_relu2_0_split -> ip2_relu2_0_split_0
I0425 14:02:44.462574 18259 net.cpp:399] ip2_relu2_0_split -> ip2_relu2_0_split_1
I0425 14:02:44.462682 18259 net.cpp:141] Setting up ip2_relu2_0_split
I0425 14:02:44.462741 18259 net.cpp:148] Top shape: 100 10 (1000)
I0425 14:02:44.462787 18259 net.cpp:148] Top shape: 100 10 (1000)
I0425 14:02:44.462812 18259 net.cpp:156] Memory required for data: 8410800
I0425 14:02:44.462852 18259 layer_factory.hpp:77] Creating layer accuracy
I0425 14:02:44.462918 18295 data_layer.cpp:102] Prefetch batch: 1 ms.
I0425 14:02:44.462929 18295 data_layer.cpp:103]      Read time: 0.205 ms.
I0425 14:02:44.462927 18259 net.cpp:91] Creating Layer accuracy
I0425 14:02:44.462946 18295 data_layer.cpp:104] Transform time: 1.143 ms.
…
