…
I0425 15:38:38.374749 20509 net.cpp:313] The NetState phase (0) differed from the phase (1) specified by a rule in layer mnist
I0425 15:38:38.374801 20509 net.cpp:313] The NetState phase (0) differed from the phase (1) specified by a rule in layer accuracy
I0425 15:38:38.374966 20509 net.cpp:49] Initializing net from parameters: 
name: "LeNet"
state {
  phase: TRAIN
}
layer {
  name: "mnist"
  type: "Data"
  top: "data"
  top: "label"
  include {
    phase: TRAIN
  }
  transform_param {
    scale: 0.00390625
  }
  data_param {
    source: "examples/mnist/mnist_train_lmdb"
    batch_size: 64
    backend: LMDB
  }
}
layer {
  name: "conv0"
  type: "Convolution"
  bottom: "data"
  top: "conv0"
  param {
    lr_mult: 1
  }
  param {
    lr_mult: 2
  }
  convolution_param {
    num_output: 100
    kernel_size: 5
    stride: 1
    weight_filler {
      type: "xavier"
    }
    bias_filler {
      type: "constant"
    }
  }
}
layer {
  name: "pool0"
  type: "Pooling"
  bottom: "conv0"
  top: "pool0"
  pooling_param {
    pool: MAX
    kernel_size: 2
    stride: 2
  }
}
layer {
  name: "conv1"
  type: "Convolution"
  bottom: "pool0"
  top: "conv1"
  param {
    lr_mult: 1
  }
  param {
    lr_mult: 2
  }
  convolution_param {
    num_output: 100
    kernel_size: 5
    stride: 1
    weight_filler {
      type: "xavier"
    }
    bias_filler {
      type: "constant"
    }
  }
}
layer {
  name: "pool1"
  type: "Pooling"
  bottom: "conv1"
  top: "pool1"
  pooling_param {
    pool: MAX
    kernel_size: 2
    stride: 2
  }
}
layer {
  name: "ip1"
  type: "InnerProduct"
  bottom: "pool1"
  top: "ip1"
  param {
    lr_mult: 1
  }
  param {
    lr_mult: 2
  }
  inner_product_param {
    num_output: 100
    weight_filler {
      type: "xavier"
    }
    bias_filler {
      type: "constant"
    }
  }
}
layer {
  name: "relu1"
  type: "ReLU"
  bottom: "ip1"
  top: "ip1"
}
layer {
  name: "ip2"
  type: "InnerProduct"
  bottom: "ip1"
  top: "ip2"
  param {
    lr_mult: 1
  }
  param {
    lr_mult: 2
  }
  inner_product_param {
    num_output: 10
    weight_filler {
      type: "xavier"
    }
    bias_filler {
      type: "constant"
    }
  }
}
layer {
  name: "relu2"
  type: "ReLU"
  bottom: "ip2"
  top: "ip2"
}
layer {
  name: "loss"
  type: "SoftmaxWithLoss"
  bottom: "ip2"
  bottom: "label"
  top: "loss"
}
I0425 15:38:38.375496 20509 layer_factory.hpp:77] Creating layer mnist
I0425 15:38:38.376929 20509 net.cpp:91] Creating Layer mnist
I0425 15:38:38.376968 20509 net.cpp:399] mnist -> data
I0425 15:38:38.377095 20509 net.cpp:399] mnist -> label
I0425 15:38:38.382191 20545 db_lmdb.cpp:35] Opened lmdb examples/mnist/mnist_train_lmdb
I0425 15:38:38.382915 20509 data_layer.cpp:41] output data size: 64,1,28,28
I0425 15:38:38.383308 20509 base_data_layer.cpp:69] Initializing prefetch
I0425 15:38:38.383368 20509 base_data_layer.cpp:72] Prefetch initialized.
I0425 15:38:38.383385 20509 net.cpp:141] Setting up mnist
I0425 15:38:38.383417 20509 net.cpp:148] Top shape: 64 1 28 28 (50176)
I0425 15:38:38.383438 20509 net.cpp:148] Top shape: 64 (64)
I0425 15:38:38.383445 20509 net.cpp:156] Memory required for data: 200960
I0425 15:38:38.383467 20509 layer_factory.hpp:77] Creating layer conv0
I0425 15:38:38.383520 20509 net.cpp:91] Creating Layer conv0
I0425 15:38:38.383546 20509 net.cpp:425] conv0 <- data
I0425 15:38:38.383594 20509 net.cpp:399] conv0 -> conv0
I0425 15:38:38.384028 20509 net.cpp:141] Setting up conv0
I0425 15:38:38.384053 20509 net.cpp:148] Top shape: 64 100 24 24 (3686400)
I0425 15:38:38.384061 20509 net.cpp:156] Memory required for data: 14946560
I0425 15:38:38.384133 20509 layer_factory.hpp:77] Creating layer pool0
I0425 15:38:38.384171 20509 net.cpp:91] Creating Layer pool0
I0425 15:38:38.384189 20509 net.cpp:425] pool0 <- conv0
I0425 15:38:38.384227 20509 net.cpp:399] pool0 -> pool0
I0425 15:38:38.384285 20509 net.cpp:141] Setting up pool0
I0425 15:38:38.384308 20509 net.cpp:148] Top shape: 64 100 12 12 (921600)
I0425 15:38:38.384316 20509 net.cpp:156] Memory required for data: 18632960
I0425 15:38:38.384327 20509 layer_factory.hpp:77] Creating layer conv1
I0425 15:38:38.384357 20509 net.cpp:91] Creating Layer conv1
I0425 15:38:38.384376 20509 net.cpp:425] conv1 <- pool0
I0425 15:38:38.384404 20509 net.cpp:399] conv1 -> conv1
I0425 15:38:38.389751 20546 data_layer.cpp:102] Prefetch batch: 3 ms.
I0425 15:38:38.389787 20546 data_layer.cpp:103]      Read time: 0.969 ms.
I0425 15:38:38.389798 20546 data_layer.cpp:104] Transform time: 1.184 ms.
I0425 15:38:38.392447 20546 data_layer.cpp:102] Prefetch batch: 2 ms.
I0425 15:38:38.392468 20546 data_layer.cpp:103]      Read time: 0.222 ms.
I0425 15:38:38.392477 20546 data_layer.cpp:104] Transform time: 1.076 ms.
I0425 15:38:38.397601 20546 data_layer.cpp:102] Prefetch batch: 5 ms.
I0425 15:38:38.397620 20546 data_layer.cpp:103]      Read time: 0.22 ms.
I0425 15:38:38.397629 20546 data_layer.cpp:104] Transform time: 1.06 ms.
I0425 15:38:38.413003 20509 net.cpp:141] Setting up conv1
I0425 15:38:38.413025 20509 net.cpp:148] Top shape: 64 100 8 8 (409600)
I0425 15:38:38.413033 20509 net.cpp:156] Memory required for data: 20271360
I0425 15:38:38.413069 20509 layer_factory.hpp:77] Creating layer pool1
I0425 15:38:38.413097 20509 net.cpp:91] Creating Layer pool1
I0425 15:38:38.413112 20509 net.cpp:425] pool1 <- conv1
I0425 15:38:38.413136 20509 net.cpp:399] pool1 -> pool1
I0425 15:38:38.413177 20509 net.cpp:141] Setting up pool1
I0425 15:38:38.413195 20509 net.cpp:148] Top shape: 64 100 4 4 (102400)
I0425 15:38:38.413203 20509 net.cpp:156] Memory required for data: 20680960
I0425 15:38:38.413213 20509 layer_factory.hpp:77] Creating layer ip1
I0425 15:38:38.413238 20509 net.cpp:91] Creating Layer ip1
I0425 15:38:38.413252 20509 net.cpp:425] ip1 <- pool1
I0425 15:38:38.413278 20509 net.cpp:399] ip1 -> ip1
I0425 15:38:38.447140 20509 net.cpp:141] Setting up ip1
I0425 15:38:38.447160 20509 net.cpp:148] Top shape: 64 100 (6400)
I0425 15:38:38.447168 20509 net.cpp:156] Memory required for data: 20706560
I0425 15:38:38.447203 20509 layer_factory.hpp:77] Creating layer relu1
I0425 15:38:38.447230 20509 net.cpp:91] Creating Layer relu1
I0425 15:38:38.447245 20509 net.cpp:425] relu1 <- ip1
I0425 15:38:38.447268 20509 net.cpp:386] relu1 -> ip1 (in-place)
I0425 15:38:38.447293 20509 net.cpp:141] Setting up relu1
I0425 15:38:38.447307 20509 net.cpp:148] Top shape: 64 100 (6400)
I0425 15:38:38.447315 20509 net.cpp:156] Memory required for data: 20732160
I0425 15:38:38.447325 20509 layer_factory.hpp:77] Creating layer ip2
I0425 15:38:38.447346 20509 net.cpp:91] Creating Layer ip2
I0425 15:38:38.447360 20509 net.cpp:425] ip2 <- ip1
I0425 15:38:38.447386 20509 net.cpp:399] ip2 -> ip2
I0425 15:38:38.447536 20509 net.cpp:141] Setting up ip2
I0425 15:38:38.447556 20509 net.cpp:148] Top shape: 64 10 (640)
I0425 15:38:38.447562 20509 net.cpp:156] Memory required for data: 20734720
I0425 15:38:38.447585 20509 layer_factory.hpp:77] Creating layer relu2
I0425 15:38:38.448894 20509 net.cpp:91] Creating Layer relu2
I0425 15:38:38.448947 20509 net.cpp:425] relu2 <- ip2
I0425 15:38:38.448995 20509 net.cpp:386] relu2 -> ip2 (in-place)
I0425 15:38:38.449056 20509 net.cpp:141] Setting up relu2
I0425 15:38:38.449103 20509 net.cpp:148] Top shape: 64 10 (640)
I0425 15:38:38.449132 20509 net.cpp:156] Memory required for data: 20737280
I0425 15:38:38.449162 20509 layer_factory.hpp:77] Creating layer loss
I0425 15:38:38.449210 20509 net.cpp:91] Creating Layer loss
I0425 15:38:38.449261 20509 net.cpp:425] loss <- ip2
I0425 15:38:38.449304 20509 net.cpp:425] loss <- label
I0425 15:38:38.449369 20509 net.cpp:399] loss -> loss
I0425 15:38:38.449465 20509 layer_factory.hpp:77] Creating layer loss
…
I0425 15:38:38.451251 20509 solver.cpp:181] Creating test net (#0) specified by net file: ECE595/mnist/train_test/var_num_feature/lenet_train_test_featuresize100.prototxt
I0425 15:38:38.451807 20509 net.cpp:313] The NetState phase (1) differed from the phase (0) specified by a rule in layer mnist
I0425 15:38:38.452147 20509 net.cpp:49] Initializing net from parameters: 
name: "LeNet"
state {
  phase: TEST
}
layer {
  name: "mnist"
  type: "Data"
  top: "data"
  top: "label"
  include {
    phase: TEST
  }
  transform_param {
    scale: 0.00390625
  }
  data_param {
    source: "examples/mnist/mnist_test_lmdb"
    batch_size: 100
    backend: LMDB
  }
}
layer {
  name: "conv0"
  type: "Convolution"
  bottom: "data"
  top: "conv0"
  param {
    lr_mult: 1
  }
  param {
    lr_mult: 2
  }
  convolution_param {
    num_output: 100
    kernel_size: 5
    stride: 1
    weight_filler {
      type: "xavier"
    }
    bias_filler {
      type: "constant"
    }
  }
}
layer {
  name: "pool0"
  type: "Pooling"
  bottom: "conv0"
  top: "pool0"
  pooling_param {
    pool: MAX
    kernel_size: 2
    stride: 2
  }
}
layer {
  name: "conv1"
  type: "Convolution"
  bottom: "pool0"
  top: "conv1"
  param {
    lr_mult: 1
  }
  param {
    lr_mult: 2
  }
  convolution_param {
    num_output: 100
    kernel_size: 5
    stride: 1
    weight_filler {
      type: "xavier"
    }
    bias_filler {
      type: "constant"
    }
  }
}
layer {
  name: "pool1"
  type: "Pooling"
  bottom: "conv1"
  top: "pool1"
  pooling_param {
    pool: MAX
    kernel_size: 2
    stride: 2
  }
}
layer {
  name: "ip1"
  type: "InnerProduct"
  bottom: "pool1"
  top: "ip1"
  param {
    lr_mult: 1
  }
  param {
    lr_mult: 2
  }
  inner_product_param {
    num_output: 100
    weight_filler {
      type: "xavier"
    }
    bias_filler {
      type: "constant"
    }
  }
}
layer {
  name: "relu1"
  type: "ReLU"
  bottom: "ip1"
  top: "ip1"
}
layer {
  name: "ip2"
  type: "InnerProduct"
  bottom: "ip1"
  top: "ip2"
  param {
    lr_mult: 1
  }
  param {
    lr_mult: 2
  }
  inner_product_param {
    num_output: 10
    weight_filler {
      type: "xavier"
    }
    bias_filler {
      type: "constant"
    }
  }
}
layer {
  name: "relu2"
  type: "ReLU"
  bottom: "ip2"
  top: "ip2"
}
layer {
  name: "accuracy"
  type: "Accuracy"
  bottom: "ip2"
  bottom: "label"
  top: "accuracy"
  include {
    phase: TEST
  }
}
layer {
  name: "loss"
  type: "SoftmaxWithLoss"
  bottom: "ip2"
  bottom: "label"
  top: "loss"
}
I0425 15:38:38.452986 20509 layer_factory.hpp:77] Creating layer mnist
I0425 15:38:38.453991 20509 net.cpp:91] Creating Layer mnist
I0425 15:38:38.454071 20509 net.cpp:399] mnist -> data
I0425 15:38:38.454150 20509 net.cpp:399] mnist -> label
I0425 15:38:38.457402 20547 db_lmdb.cpp:35] Opened lmdb examples/mnist/mnist_test_lmdb
I0425 15:38:38.457885 20509 data_layer.cpp:41] output data size: 100,1,28,28
I0425 15:38:38.458443 20509 base_data_layer.cpp:69] Initializing prefetch
I0425 15:38:38.458508 20509 base_data_layer.cpp:72] Prefetch initialized.
I0425 15:38:38.458525 20509 net.cpp:141] Setting up mnist
I0425 15:38:38.458540 20509 net.cpp:148] Top shape: 100 1 28 28 (78400)
I0425 15:38:38.458551 20509 net.cpp:148] Top shape: 100 (100)
I0425 15:38:38.458559 20509 net.cpp:156] Memory required for data: 314000
I0425 15:38:38.458575 20509 layer_factory.hpp:77] Creating layer label_mnist_1_split
I0425 15:38:38.458612 20509 net.cpp:91] Creating Layer label_mnist_1_split
I0425 15:38:38.458632 20509 net.cpp:425] label_mnist_1_split <- label
I0425 15:38:38.458660 20509 net.cpp:399] label_mnist_1_split -> label_mnist_1_split_0
I0425 15:38:38.458696 20509 net.cpp:399] label_mnist_1_split -> label_mnist_1_split_1
I0425 15:38:38.458734 20509 net.cpp:141] Setting up label_mnist_1_split
I0425 15:38:38.458748 20509 net.cpp:148] Top shape: 100 (100)
I0425 15:38:38.458760 20509 net.cpp:148] Top shape: 100 (100)
I0425 15:38:38.458767 20509 net.cpp:156] Memory required for data: 314800
I0425 15:38:38.458776 20509 layer_factory.hpp:77] Creating layer conv0
I0425 15:38:38.458813 20509 net.cpp:91] Creating Layer conv0
I0425 15:38:38.458847 20509 net.cpp:425] conv0 <- data
I0425 15:38:38.458896 20509 net.cpp:399] conv0 -> conv0
I0425 15:38:38.459254 20509 net.cpp:141] Setting up conv0
I0425 15:38:38.459283 20509 net.cpp:148] Top shape: 100 100 24 24 (5760000)
I0425 15:38:38.459301 20509 net.cpp:156] Memory required for data: 23354800
I0425 15:38:38.459357 20509 layer_factory.hpp:77] Creating layer pool0
I0425 15:38:38.459395 20509 net.cpp:91] Creating Layer pool0
I0425 15:38:38.459419 20509 net.cpp:425] pool0 <- conv0
I0425 15:38:38.459456 20509 net.cpp:399] pool0 -> pool0
I0425 15:38:38.459507 20509 net.cpp:141] Setting up pool0
I0425 15:38:38.459533 20509 net.cpp:148] Top shape: 100 100 12 12 (1440000)
I0425 15:38:38.459550 20509 net.cpp:156] Memory required for data: 29114800
I0425 15:38:38.459573 20509 layer_factory.hpp:77] Creating layer conv1
I0425 15:38:38.459637 20509 net.cpp:91] Creating Layer conv1
I0425 15:38:38.459668 20509 net.cpp:425] conv1 <- pool0
I0425 15:38:38.459714 20509 net.cpp:399] conv1 -> conv1
I0425 15:38:38.463697 20548 data_layer.cpp:102] Prefetch batch: 2 ms.
I0425 15:38:38.463717 20548 data_layer.cpp:103]      Read time: 0.343 ms.
I0425 15:38:38.463742 20548 data_layer.cpp:104] Transform time: 1.484 ms.
I0425 15:38:38.466524 20548 data_layer.cpp:102] Prefetch batch: 2 ms.
I0425 15:38:38.466537 20548 data_layer.cpp:103]      Read time: 0.315 ms.
I0425 15:38:38.466555 20548 data_layer.cpp:104] Transform time: 1.547 ms.
I0425 15:38:38.468580 20548 data_layer.cpp:102] Prefetch batch: 2 ms.
I0425 15:38:38.468591 20548 data_layer.cpp:103]      Read time: 0.216 ms.
I0425 15:38:38.468600 20548 data_layer.cpp:104] Transform time: 1.188 ms.
I0425 15:38:38.474829 20509 net.cpp:141] Setting up conv1
I0425 15:38:38.474854 20509 net.cpp:148] Top shape: 100 100 8 8 (640000)
I0425 15:38:38.474859 20509 net.cpp:156] Memory required for data: 31674800
I0425 15:38:38.474881 20509 layer_factory.hpp:77] Creating layer pool1
I0425 15:38:38.474898 20509 net.cpp:91] Creating Layer pool1
I0425 15:38:38.474907 20509 net.cpp:425] pool1 <- conv1
I0425 15:38:38.474923 20509 net.cpp:399] pool1 -> pool1
I0425 15:38:38.474949 20509 net.cpp:141] Setting up pool1
I0425 15:38:38.474959 20509 net.cpp:148] Top shape: 100 100 4 4 (160000)
I0425 15:38:38.474963 20509 net.cpp:156] Memory required for data: 32314800
I0425 15:38:38.474969 20509 layer_factory.hpp:77] Creating layer ip1
I0425 15:38:38.474987 20509 net.cpp:91] Creating Layer ip1
I0425 15:38:38.475008 20509 net.cpp:425] ip1 <- pool1
I0425 15:38:38.475024 20509 net.cpp:399] ip1 -> ip1
I0425 15:38:38.483705 20509 net.cpp:141] Setting up ip1
I0425 15:38:38.483717 20509 net.cpp:148] Top shape: 100 100 (10000)
I0425 15:38:38.483721 20509 net.cpp:156] Memory required for data: 32354800
I0425 15:38:38.483741 20509 layer_factory.hpp:77] Creating layer relu1
I0425 15:38:38.483760 20509 net.cpp:91] Creating Layer relu1
I0425 15:38:38.483768 20509 net.cpp:425] relu1 <- ip1
I0425 15:38:38.483783 20509 net.cpp:386] relu1 -> ip1 (in-place)
I0425 15:38:38.483799 20509 net.cpp:141] Setting up relu1
I0425 15:38:38.483805 20509 net.cpp:148] Top shape: 100 100 (10000)
I0425 15:38:38.483809 20509 net.cpp:156] Memory required for data: 32394800
I0425 15:38:38.483816 20509 layer_factory.hpp:77] Creating layer ip2
I0425 15:38:38.483834 20509 net.cpp:91] Creating Layer ip2
I0425 15:38:38.483841 20509 net.cpp:425] ip2 <- ip1
I0425 15:38:38.483860 20509 net.cpp:399] ip2 -> ip2
I0425 15:38:38.483960 20509 net.cpp:141] Setting up ip2
I0425 15:38:38.483973 20509 net.cpp:148] Top shape: 100 10 (1000)
I0425 15:38:38.483978 20509 net.cpp:156] Memory required for data: 32398800
I0425 15:38:38.483991 20509 layer_factory.hpp:77] Creating layer relu2
I0425 15:38:38.484004 20509 net.cpp:91] Creating Layer relu2
I0425 15:38:38.484011 20509 net.cpp:425] relu2 <- ip2
I0425 15:38:38.484025 20509 net.cpp:386] relu2 -> ip2 (in-place)
I0425 15:38:38.484040 20509 net.cpp:141] Setting up relu2
I0425 15:38:38.484047 20509 net.cpp:148] Top shape: 100 10 (1000)
I0425 15:38:38.484052 20509 net.cpp:156] Memory required for data: 32402800
I0425 15:38:38.484058 20509 layer_factory.hpp:77] Creating layer ip2_relu2_0_split
I0425 15:38:38.484068 20509 net.cpp:91] Creating Layer ip2_relu2_0_split
I0425 15:38:38.484076 20509 net.cpp:425] ip2_relu2_0_split <- ip2
I0425 15:38:38.484091 20509 net.cpp:399] ip2_relu2_0_split -> ip2_relu2_0_split_0
I0425 15:38:38.484107 20509 net.cpp:399] ip2_relu2_0_split -> ip2_relu2_0_split_1
I0425 15:38:38.484125 20509 net.cpp:141] Setting up ip2_relu2_0_split
I0425 15:38:38.484134 20509 net.cpp:148] Top shape: 100 10 (1000)
I0425 15:38:38.484140 20509 net.cpp:148] Top shape: 100 10 (1000)
I0425 15:38:38.484145 20509 net.cpp:156] Memory required for data: 32410800
I0425 15:38:38.484151 20509 layer_factory.hpp:77] Creating layer accuracy
I0425 15:38:38.484169 20509 net.cpp:91] Creating Layer accuracy
I0425 15:38:38.484176 20509 net.cpp:425] accuracy <- ip2_relu2_0_split_0
I0425 15:38:38.484189 20509 net.cpp:425] accuracy <- label_mnist_1_split_0
I0425 15:38:38.484201 20509 net.cpp:399] accuracy -> accuracy
…
