…
I0426 10:44:11.936203 12217 net.cpp:294] The NetState phase (0) differed from the phase (1) specified by a rule in layer cifar
I0426 10:44:11.936220 12217 net.cpp:294] The NetState phase (0) differed from the phase (1) specified by a rule in layer accuracy
I0426 10:44:11.936318 12217 net.cpp:51] Initializing net from parameters: 
name: "CIFAR"
state {
  phase: TRAIN
  level: 0
  stage: ""
}
layer {
  name: "cifar"
  type: "Data"
  top: "data"
  top: "label"
  include {
    phase: TRAIN
  }
  transform_param {
    mean_file: "examples/cifar10/mean.binaryproto"
  }
  data_param {
    source: "examples/cifar10/cifar10_train_lmdb"
    batch_size: 111
    backend: LMDB
  }
}
layer {
  name: "conv0"
  type: "Convolution"
  bottom: "data"
  top: "conv0"
  param {
    lr_mult: 1
  }
  param {
    lr_mult: 2
  }
  convolution_param {
    num_output: 25
    pad: 2
    kernel_size: 5
    stride: 1
    weight_filler {
      type: "gaussian"
      std: 0.01
    }
    bias_filler {
      type: "constant"
    }
  }
}
layer {
  name: "Sigmoid0"
  type: "Sigmoid"
  bottom: "conv0"
  top: "Sigmoid0"
}
layer {
  name: "pool0"
  type: "Pooling"
  bottom: "Sigmoid0"
  top: "pool0"
  pooling_param {
    pool: AVE
    kernel_size: 3
    stride: 2
  }
}
layer {
  name: "conv1"
  type: "Convolution"
  bottom: "pool0"
  top: "conv1"
  param {
    lr_mult: 1
  }
  param {
    lr_mult: 2
  }
  convolution_param {
    num_output: 25
    pad: 2
    kernel_size: 5
    stride: 1
    weight_filler {
      type: "gaussian"
      std: 0.01
    }
    bias_filler {
      type: "constant"
    }
  }
}
layer {
  name: "Sigmoid1"
  type: "Sigmoid"
  bottom: "conv1"
  top: "Sigmoid1"
}
layer {
  name: "pool1"
  type: "Pooling"
  bottom: "Sigmoid1"
  top: "pool1"
  pooling_param {
    pool: AVE
    kernel_size: 3
    stride: 2
  }
}
layer {
  name: "conv2"
  type: "Convolution"
  bottom: "pool1"
  top: "conv2"
  param {
    lr_mult: 1
  }
  param {
    lr_mult: 2
  }
  convolution_param {
    num_output: 25
    pad: 2
    kernel_size: 5
    stride: 1
    weight_filler {
      type: "gaussian"
      std: 0.01
    }
    bias_filler {
      type: "constant"
    }
  }
}
layer {
  name: "Sigmoid2"
  type: "Sigmoid"
  bottom: "conv2"
  top: "Sigmoid2"
}
layer {
  name: "pool2"
  type: "Pooling"
  bottom: "Sigmoid2"
  top: "pool2"
  pooling_param {
    pool: AVE
    kernel_size: 3
    stride: 2
  }
}
layer {
  name: "ip1"
  type: "InnerProduct"
  bottom: "pool2"
  top: "ip1"
  param {
    lr_mult: 1
  }
  param {
    lr_mult: 2
  }
  inner_product_param {
    num_output: 10
    weight_filler {
      type: "gaussian"
      std: 0.01
    }
    bias_filler {
      type: "constant"
    }
  }
}
layer {
  name: "loss"
  type: "SoftmaxWithLoss"
  bottom: "ip1"
  bottom: "label"
  top: "loss"
}
I0426 10:44:11.936399 12217 layer_factory.hpp:77] Creating layer cifar
I0426 10:44:11.936497 12217 db_lmdb.cpp:35] Opened lmdb examples/cifar10/cifar10_train_lmdb
I0426 10:44:11.936527 12217 net.cpp:84] Creating Layer cifar
I0426 10:44:11.936537 12217 net.cpp:380] cifar -> data
I0426 10:44:11.936561 12217 net.cpp:380] cifar -> label
I0426 10:44:11.936578 12217 data_transformer.cpp:25] Loading mean file from: examples/cifar10/mean.binaryproto
I0426 10:44:11.937512 12217 data_layer.cpp:45] output data size: 111,3,32,32
I0426 10:44:11.941953 12217 net.cpp:122] Setting up cifar
I0426 10:44:11.941978 12217 net.cpp:129] Top shape: 111 3 32 32 (340992)
I0426 10:44:11.942003 12217 net.cpp:129] Top shape: 111 (111)
I0426 10:44:11.942010 12217 net.cpp:137] Memory required for data: 1364412
I0426 10:44:11.942020 12217 layer_factory.hpp:77] Creating layer conv0
I0426 10:44:11.942047 12217 net.cpp:84] Creating Layer conv0
I0426 10:44:11.942054 12217 net.cpp:406] conv0 <- data
I0426 10:44:11.942071 12217 net.cpp:380] conv0 -> conv0
I0426 10:44:11.942726 12217 net.cpp:122] Setting up conv0
I0426 10:44:11.942739 12217 net.cpp:129] Top shape: 111 25 32 32 (2841600)
I0426 10:44:11.942744 12217 net.cpp:137] Memory required for data: 12730812
I0426 10:44:11.942765 12217 layer_factory.hpp:77] Creating layer Sigmoid0
I0426 10:44:11.942777 12217 net.cpp:84] Creating Layer Sigmoid0
I0426 10:44:11.942783 12217 net.cpp:406] Sigmoid0 <- conv0
I0426 10:44:11.942791 12217 net.cpp:380] Sigmoid0 -> Sigmoid0
I0426 10:44:11.942843 12217 net.cpp:122] Setting up Sigmoid0
I0426 10:44:11.942852 12217 net.cpp:129] Top shape: 111 25 32 32 (2841600)
I0426 10:44:11.942855 12217 net.cpp:137] Memory required for data: 24097212
I0426 10:44:11.942862 12217 layer_factory.hpp:77] Creating layer pool0
I0426 10:44:11.942872 12217 net.cpp:84] Creating Layer pool0
I0426 10:44:11.942876 12217 net.cpp:406] pool0 <- Sigmoid0
I0426 10:44:11.942888 12217 net.cpp:380] pool0 -> pool0
I0426 10:44:11.943101 12217 net.cpp:122] Setting up pool0
I0426 10:44:11.943111 12217 net.cpp:129] Top shape: 111 25 16 16 (710400)
I0426 10:44:11.943115 12217 net.cpp:137] Memory required for data: 26938812
I0426 10:44:11.943120 12217 layer_factory.hpp:77] Creating layer conv1
I0426 10:44:11.943133 12217 net.cpp:84] Creating Layer conv1
I0426 10:44:11.943140 12217 net.cpp:406] conv1 <- pool0
I0426 10:44:11.943148 12217 net.cpp:380] conv1 -> conv1
I0426 10:44:11.943914 12217 net.cpp:122] Setting up conv1
I0426 10:44:11.943927 12217 net.cpp:129] Top shape: 111 25 16 16 (710400)
I0426 10:44:11.943933 12217 net.cpp:137] Memory required for data: 29780412
I0426 10:44:11.943945 12217 layer_factory.hpp:77] Creating layer Sigmoid1
I0426 10:44:11.943953 12217 net.cpp:84] Creating Layer Sigmoid1
I0426 10:44:11.943959 12217 net.cpp:406] Sigmoid1 <- conv1
I0426 10:44:11.943969 12217 net.cpp:380] Sigmoid1 -> Sigmoid1
I0426 10:44:11.943991 12217 net.cpp:122] Setting up Sigmoid1
I0426 10:44:11.944000 12217 net.cpp:129] Top shape: 111 25 16 16 (710400)
I0426 10:44:11.944005 12217 net.cpp:137] Memory required for data: 32622012
I0426 10:44:11.944010 12217 layer_factory.hpp:77] Creating layer pool1
I0426 10:44:11.944017 12217 net.cpp:84] Creating Layer pool1
I0426 10:44:11.944022 12217 net.cpp:406] pool1 <- Sigmoid1
I0426 10:44:11.944031 12217 net.cpp:380] pool1 -> pool1
I0426 10:44:11.944057 12217 net.cpp:122] Setting up pool1
I0426 10:44:11.944066 12217 net.cpp:129] Top shape: 111 25 8 8 (177600)
I0426 10:44:11.944069 12217 net.cpp:137] Memory required for data: 33332412
I0426 10:44:11.944073 12217 layer_factory.hpp:77] Creating layer conv2
I0426 10:44:11.944087 12217 net.cpp:84] Creating Layer conv2
I0426 10:44:11.944090 12217 net.cpp:406] conv2 <- pool1
I0426 10:44:11.944099 12217 net.cpp:380] conv2 -> conv2
I0426 10:44:11.944489 12217 net.cpp:122] Setting up conv2
I0426 10:44:11.944499 12217 net.cpp:129] Top shape: 111 25 8 8 (177600)
I0426 10:44:11.944502 12217 net.cpp:137] Memory required for data: 34042812
I0426 10:44:11.944514 12217 layer_factory.hpp:77] Creating layer Sigmoid2
I0426 10:44:11.944524 12217 net.cpp:84] Creating Layer Sigmoid2
I0426 10:44:11.944530 12217 net.cpp:406] Sigmoid2 <- conv2
I0426 10:44:11.944536 12217 net.cpp:380] Sigmoid2 -> Sigmoid2
I0426 10:44:11.944777 12217 net.cpp:122] Setting up Sigmoid2
I0426 10:44:11.944784 12217 net.cpp:129] Top shape: 111 25 8 8 (177600)
I0426 10:44:11.944788 12217 net.cpp:137] Memory required for data: 34753212
I0426 10:44:11.944792 12217 layer_factory.hpp:77] Creating layer pool2
I0426 10:44:11.944802 12217 net.cpp:84] Creating Layer pool2
I0426 10:44:11.944808 12217 net.cpp:406] pool2 <- Sigmoid2
I0426 10:44:11.944814 12217 net.cpp:380] pool2 -> pool2
I0426 10:44:11.944842 12217 net.cpp:122] Setting up pool2
I0426 10:44:11.944860 12217 net.cpp:129] Top shape: 111 25 4 4 (44400)
I0426 10:44:11.944866 12217 net.cpp:137] Memory required for data: 34930812
I0426 10:44:11.944870 12217 layer_factory.hpp:77] Creating layer ip1
I0426 10:44:11.944880 12217 net.cpp:84] Creating Layer ip1
I0426 10:44:11.944886 12217 net.cpp:406] ip1 <- pool2
I0426 10:44:11.944895 12217 net.cpp:380] ip1 -> ip1
I0426 10:44:11.945050 12217 net.cpp:122] Setting up ip1
I0426 10:44:11.945056 12217 net.cpp:129] Top shape: 111 10 (1110)
I0426 10:44:11.945061 12217 net.cpp:137] Memory required for data: 34935252
I0426 10:44:11.945070 12217 layer_factory.hpp:77] Creating layer loss
I0426 10:44:11.945077 12217 net.cpp:84] Creating Layer loss
I0426 10:44:11.945082 12217 net.cpp:406] loss <- ip1
I0426 10:44:11.945089 12217 net.cpp:406] loss <- label
I0426 10:44:11.945099 12217 net.cpp:380] loss -> loss
I0426 10:44:11.945113 12217 layer_factory.hpp:77] Creating layer loss
…
I0426 10:44:11.945514 12217 solver.cpp:173] Creating test net (#0) specified by net file: ECE595/cifar/train_test/var_num_feature_maxiter20000/cifar_train_test_featuresize25.prototxt
I0426 10:44:11.945541 12217 net.cpp:294] The NetState phase (1) differed from the phase (0) specified by a rule in layer cifar
I0426 10:44:11.945644 12217 net.cpp:51] Initializing net from parameters: 
name: "CIFAR"
state {
  phase: TEST
}
layer {
  name: "cifar"
  type: "Data"
  top: "data"
  top: "label"
  include {
    phase: TEST
  }
  transform_param {
    mean_file: "examples/cifar10/mean.binaryproto"
  }
  data_param {
    source: "examples/cifar10/cifar10_test_lmdb"
    batch_size: 1000
    backend: LMDB
  }
}
layer {
  name: "conv0"
  type: "Convolution"
  bottom: "data"
  top: "conv0"
  param {
    lr_mult: 1
  }
  param {
    lr_mult: 2
  }
  convolution_param {
    num_output: 25
    pad: 2
    kernel_size: 5
    stride: 1
    weight_filler {
      type: "gaussian"
      std: 0.01
    }
    bias_filler {
      type: "constant"
    }
  }
}
layer {
  name: "Sigmoid0"
  type: "Sigmoid"
  bottom: "conv0"
  top: "Sigmoid0"
}
layer {
  name: "pool0"
  type: "Pooling"
  bottom: "Sigmoid0"
  top: "pool0"
  pooling_param {
    pool: AVE
    kernel_size: 3
    stride: 2
  }
}
layer {
  name: "conv1"
  type: "Convolution"
  bottom: "pool0"
  top: "conv1"
  param {
    lr_mult: 1
  }
  param {
    lr_mult: 2
  }
  convolution_param {
    num_output: 25
    pad: 2
    kernel_size: 5
    stride: 1
    weight_filler {
      type: "gaussian"
      std: 0.01
    }
    bias_filler {
      type: "constant"
    }
  }
}
layer {
  name: "Sigmoid1"
  type: "Sigmoid"
  bottom: "conv1"
  top: "Sigmoid1"
}
layer {
  name: "pool1"
  type: "Pooling"
  bottom: "Sigmoid1"
  top: "pool1"
  pooling_param {
    pool: AVE
    kernel_size: 3
    stride: 2
  }
}
layer {
  name: "conv2"
  type: "Convolution"
  bottom: "pool1"
  top: "conv2"
  param {
    lr_mult: 1
  }
  param {
    lr_mult: 2
  }
  convolution_param {
    num_output: 25
    pad: 2
    kernel_size: 5
    stride: 1
    weight_filler {
      type: "gaussian"
      std: 0.01
    }
    bias_filler {
      type: "constant"
    }
  }
}
layer {
  name: "Sigmoid2"
  type: "Sigmoid"
  bottom: "conv2"
  top: "Sigmoid2"
}
layer {
  name: "pool2"
  type: "Pooling"
  bottom: "Sigmoid2"
  top: "pool2"
  pooling_param {
    pool: AVE
    kernel_size: 3
    stride: 2
  }
}
layer {
  name: "ip1"
  type: "InnerProduct"
  bottom: "pool2"
  top: "ip1"
  param {
    lr_mult: 1
  }
  param {
    lr_mult: 2
  }
  inner_product_param {
    num_output: 10
    weight_filler {
      type: "gaussian"
      std: 0.01
    }
    bias_filler {
      type: "constant"
    }
  }
}
layer {
  name: "accuracy"
  type: "Accuracy"
  bottom: "ip1"
  bottom: "label"
  top: "accuracy"
  include {
    phase: TEST
  }
}
layer {
  name: "loss"
  type: "SoftmaxWithLoss"
  bottom: "ip1"
  bottom: "label"
  top: "loss"
}
I0426 10:44:11.945746 12217 layer_factory.hpp:77] Creating layer cifar
I0426 10:44:11.945806 12217 db_lmdb.cpp:35] Opened lmdb examples/cifar10/cifar10_test_lmdb
I0426 10:44:11.945822 12217 net.cpp:84] Creating Layer cifar
I0426 10:44:11.945828 12217 net.cpp:380] cifar -> data
I0426 10:44:11.945838 12217 net.cpp:380] cifar -> label
I0426 10:44:11.945849 12217 data_transformer.cpp:25] Loading mean file from: examples/cifar10/mean.binaryproto
I0426 10:44:11.946009 12217 data_layer.cpp:45] output data size: 1000,3,32,32
I0426 10:44:11.974577 12217 net.cpp:122] Setting up cifar
I0426 10:44:11.974604 12217 net.cpp:129] Top shape: 1000 3 32 32 (3072000)
I0426 10:44:11.974611 12217 net.cpp:129] Top shape: 1000 (1000)
I0426 10:44:11.974616 12217 net.cpp:137] Memory required for data: 12292000
I0426 10:44:11.974624 12217 layer_factory.hpp:77] Creating layer label_cifar_1_split
I0426 10:44:11.974642 12217 net.cpp:84] Creating Layer label_cifar_1_split
I0426 10:44:11.974650 12217 net.cpp:406] label_cifar_1_split <- label
I0426 10:44:11.974663 12217 net.cpp:380] label_cifar_1_split -> label_cifar_1_split_0
I0426 10:44:11.974679 12217 net.cpp:380] label_cifar_1_split -> label_cifar_1_split_1
I0426 10:44:11.974740 12217 net.cpp:122] Setting up label_cifar_1_split
I0426 10:44:11.974747 12217 net.cpp:129] Top shape: 1000 (1000)
I0426 10:44:11.974753 12217 net.cpp:129] Top shape: 1000 (1000)
I0426 10:44:11.974756 12217 net.cpp:137] Memory required for data: 12300000
I0426 10:44:11.974761 12217 layer_factory.hpp:77] Creating layer conv0
I0426 10:44:11.974778 12217 net.cpp:84] Creating Layer conv0
I0426 10:44:11.974783 12217 net.cpp:406] conv0 <- data
I0426 10:44:11.974794 12217 net.cpp:380] conv0 -> conv0
I0426 10:44:11.975052 12217 net.cpp:122] Setting up conv0
I0426 10:44:11.975062 12217 net.cpp:129] Top shape: 1000 25 32 32 (25600000)
I0426 10:44:11.975067 12217 net.cpp:137] Memory required for data: 114700000
I0426 10:44:11.975080 12217 layer_factory.hpp:77] Creating layer Sigmoid0
I0426 10:44:11.975088 12217 net.cpp:84] Creating Layer Sigmoid0
I0426 10:44:11.975095 12217 net.cpp:406] Sigmoid0 <- conv0
I0426 10:44:11.975101 12217 net.cpp:380] Sigmoid0 -> Sigmoid0
I0426 10:44:11.975128 12217 net.cpp:122] Setting up Sigmoid0
I0426 10:44:11.975136 12217 net.cpp:129] Top shape: 1000 25 32 32 (25600000)
I0426 10:44:11.975141 12217 net.cpp:137] Memory required for data: 217100000
I0426 10:44:11.975147 12217 layer_factory.hpp:77] Creating layer pool0
I0426 10:44:11.975157 12217 net.cpp:84] Creating Layer pool0
I0426 10:44:11.975162 12217 net.cpp:406] pool0 <- Sigmoid0
I0426 10:44:11.975168 12217 net.cpp:380] pool0 -> pool0
I0426 10:44:11.975196 12217 net.cpp:122] Setting up pool0
I0426 10:44:11.975203 12217 net.cpp:129] Top shape: 1000 25 16 16 (6400000)
I0426 10:44:11.975208 12217 net.cpp:137] Memory required for data: 242700000
I0426 10:44:11.975214 12217 layer_factory.hpp:77] Creating layer conv1
I0426 10:44:11.975224 12217 net.cpp:84] Creating Layer conv1
I0426 10:44:11.975241 12217 net.cpp:406] conv1 <- pool0
I0426 10:44:11.975252 12217 net.cpp:380] conv1 -> conv1
I0426 10:44:11.975652 12217 net.cpp:122] Setting up conv1
I0426 10:44:11.975661 12217 net.cpp:129] Top shape: 1000 25 16 16 (6400000)
I0426 10:44:11.975666 12217 net.cpp:137] Memory required for data: 268300000
I0426 10:44:11.975677 12217 layer_factory.hpp:77] Creating layer Sigmoid1
I0426 10:44:11.975742 12217 net.cpp:84] Creating Layer Sigmoid1
I0426 10:44:11.975747 12217 net.cpp:406] Sigmoid1 <- conv1
I0426 10:44:11.975762 12217 net.cpp:380] Sigmoid1 -> Sigmoid1
I0426 10:44:11.977671 12217 net.cpp:122] Setting up Sigmoid1
I0426 10:44:11.977680 12217 net.cpp:129] Top shape: 1000 25 16 16 (6400000)
I0426 10:44:11.977684 12217 net.cpp:137] Memory required for data: 293900000
I0426 10:44:11.977690 12217 layer_factory.hpp:77] Creating layer pool1
I0426 10:44:11.977700 12217 net.cpp:84] Creating Layer pool1
I0426 10:44:11.977705 12217 net.cpp:406] pool1 <- Sigmoid1
I0426 10:44:11.977712 12217 net.cpp:380] pool1 -> pool1
I0426 10:44:11.977742 12217 net.cpp:122] Setting up pool1
I0426 10:44:11.977751 12217 net.cpp:129] Top shape: 1000 25 8 8 (1600000)
I0426 10:44:11.977754 12217 net.cpp:137] Memory required for data: 300300000
I0426 10:44:11.977759 12217 layer_factory.hpp:77] Creating layer conv2
I0426 10:44:11.977774 12217 net.cpp:84] Creating Layer conv2
I0426 10:44:11.977779 12217 net.cpp:406] conv2 <- pool1
I0426 10:44:11.977789 12217 net.cpp:380] conv2 -> conv2
I0426 10:44:11.978183 12217 net.cpp:122] Setting up conv2
I0426 10:44:11.978191 12217 net.cpp:129] Top shape: 1000 25 8 8 (1600000)
I0426 10:44:11.978196 12217 net.cpp:137] Memory required for data: 306700000
I0426 10:44:11.978209 12217 layer_factory.hpp:77] Creating layer Sigmoid2
I0426 10:44:11.978215 12217 net.cpp:84] Creating Layer Sigmoid2
I0426 10:44:11.978221 12217 net.cpp:406] Sigmoid2 <- conv2
I0426 10:44:11.978233 12217 net.cpp:380] Sigmoid2 -> Sigmoid2
I0426 10:44:11.978258 12217 net.cpp:122] Setting up Sigmoid2
I0426 10:44:11.978268 12217 net.cpp:129] Top shape: 1000 25 8 8 (1600000)
I0426 10:44:11.978273 12217 net.cpp:137] Memory required for data: 313100000
I0426 10:44:11.978279 12217 layer_factory.hpp:77] Creating layer pool2
I0426 10:44:11.978286 12217 net.cpp:84] Creating Layer pool2
I0426 10:44:11.978291 12217 net.cpp:406] pool2 <- Sigmoid2
I0426 10:44:11.978297 12217 net.cpp:380] pool2 -> pool2
I0426 10:44:11.978324 12217 net.cpp:122] Setting up pool2
I0426 10:44:11.978332 12217 net.cpp:129] Top shape: 1000 25 4 4 (400000)
I0426 10:44:11.978335 12217 net.cpp:137] Memory required for data: 314700000
I0426 10:44:11.978341 12217 layer_factory.hpp:77] Creating layer ip1
I0426 10:44:11.978353 12217 net.cpp:84] Creating Layer ip1
I0426 10:44:11.978358 12217 net.cpp:406] ip1 <- pool2
I0426 10:44:11.978364 12217 net.cpp:380] ip1 -> ip1
I0426 10:44:11.978513 12217 net.cpp:122] Setting up ip1
I0426 10:44:11.978524 12217 net.cpp:129] Top shape: 1000 10 (10000)
I0426 10:44:11.978528 12217 net.cpp:137] Memory required for data: 314740000
I0426 10:44:11.978536 12217 layer_factory.hpp:77] Creating layer ip1_ip1_0_split
I0426 10:44:11.978546 12217 net.cpp:84] Creating Layer ip1_ip1_0_split
I0426 10:44:11.978551 12217 net.cpp:406] ip1_ip1_0_split <- ip1
I0426 10:44:11.978561 12217 net.cpp:380] ip1_ip1_0_split -> ip1_ip1_0_split_0
I0426 10:44:11.978571 12217 net.cpp:380] ip1_ip1_0_split -> ip1_ip1_0_split_1
I0426 10:44:11.978610 12217 net.cpp:122] Setting up ip1_ip1_0_split
I0426 10:44:11.978618 12217 net.cpp:129] Top shape: 1000 10 (10000)
I0426 10:44:11.978624 12217 net.cpp:129] Top shape: 1000 10 (10000)
I0426 10:44:11.978629 12217 net.cpp:137] Memory required for data: 314820000
I0426 10:44:11.978637 12217 layer_factory.hpp:77] Creating layer accuracy
I0426 10:44:11.978644 12217 net.cpp:84] Creating Layer accuracy
I0426 10:44:11.978652 12217 net.cpp:406] accuracy <- ip1_ip1_0_split_0
I0426 10:44:11.978657 12217 net.cpp:406] accuracy <- label_cifar_1_split_0
I0426 10:44:11.978663 12217 net.cpp:380] accuracy -> accuracy
…
