…
I0426 17:22:49.700098 16582 net.cpp:294] The NetState phase (0) differed from the phase (1) specified by a rule in layer cifar
I0426 17:22:49.700110 16582 net.cpp:294] The NetState phase (0) differed from the phase (1) specified by a rule in layer accuracy
I0426 17:22:49.700182 16582 net.cpp:51] Initializing net from parameters: 
name: "CIFAR"
state {
  phase: TRAIN
  level: 0
  stage: ""
}
layer {
  name: "cifar"
  type: "Data"
  top: "data"
  top: "label"
  include {
    phase: TRAIN
  }
  transform_param {
    mean_file: "examples/cifar10/mean.binaryproto"
  }
  data_param {
    source: "examples/cifar10/cifar10_train_lmdb"
    batch_size: 111
    backend: LMDB
  }
}
layer {
  name: "conv0"
  type: "Convolution"
  bottom: "data"
  top: "conv0"
  param {
    lr_mult: 1
  }
  param {
    lr_mult: 2
  }
  convolution_param {
    num_output: 150
    pad: 2
    kernel_size: 5
    stride: 1
    weight_filler {
      type: "gaussian"
      std: 0.01
    }
    bias_filler {
      type: "constant"
    }
  }
}
layer {
  name: "Sigmoid0"
  type: "Sigmoid"
  bottom: "conv0"
  top: "Sigmoid0"
}
layer {
  name: "pool0"
  type: "Pooling"
  bottom: "Sigmoid0"
  top: "pool0"
  pooling_param {
    pool: AVE
    kernel_size: 3
    stride: 2
  }
}
layer {
  name: "conv1"
  type: "Convolution"
  bottom: "pool0"
  top: "conv1"
  param {
    lr_mult: 1
  }
  param {
    lr_mult: 2
  }
  convolution_param {
    num_output: 150
    pad: 2
    kernel_size: 5
    stride: 1
    weight_filler {
      type: "gaussian"
      std: 0.01
    }
    bias_filler {
      type: "constant"
    }
  }
}
layer {
  name: "Sigmoid1"
  type: "Sigmoid"
  bottom: "conv1"
  top: "Sigmoid1"
}
layer {
  name: "pool1"
  type: "Pooling"
  bottom: "Sigmoid1"
  top: "pool1"
  pooling_param {
    pool: AVE
    kernel_size: 3
    stride: 2
  }
}
layer {
  name: "conv2"
  type: "Convolution"
  bottom: "pool1"
  top: "conv2"
  param {
    lr_mult: 1
  }
  param {
    lr_mult: 2
  }
  convolution_param {
    num_output: 150
    pad: 2
    kernel_size: 5
    stride: 1
    weight_filler {
      type: "gaussian"
      std: 0.01
    }
    bias_filler {
      type: "constant"
    }
  }
}
layer {
  name: "Sigmoid2"
  type: "Sigmoid"
  bottom: "conv2"
  top: "Sigmoid2"
}
layer {
  name: "pool2"
  type: "Pooling"
  bottom: "Sigmoid2"
  top: "pool2"
  pooling_param {
    pool: AVE
    kernel_size: 3
    stride: 2
  }
}
layer {
  name: "ip1"
  type: "InnerProduct"
  bottom: "pool2"
  top: "ip1"
  param {
    lr_mult: 1
  }
  param {
    lr_mult: 2
  }
  inner_product_param {
    num_output: 10
    weight_filler {
      type: "gaussian"
      std: 0.01
    }
    bias_filler {
      type: "constant"
    }
  }
}
layer {
  name: "loss"
  type: "SoftmaxWithLoss"
  bottom: "ip1"
  bottom: "label"
  top: "loss"
}
I0426 17:22:49.700232 16582 layer_factory.hpp:77] Creating layer cifar
I0426 17:22:49.700310 16582 db_lmdb.cpp:35] Opened lmdb examples/cifar10/cifar10_train_lmdb
I0426 17:22:49.700332 16582 net.cpp:84] Creating Layer cifar
I0426 17:22:49.700338 16582 net.cpp:380] cifar -> data
I0426 17:22:49.700353 16582 net.cpp:380] cifar -> label
I0426 17:22:49.700363 16582 data_transformer.cpp:25] Loading mean file from: examples/cifar10/mean.binaryproto
I0426 17:22:49.701105 16582 data_layer.cpp:45] output data size: 111,3,32,32
I0426 17:22:49.704753 16582 net.cpp:122] Setting up cifar
I0426 17:22:49.704769 16582 net.cpp:129] Top shape: 111 3 32 32 (340992)
I0426 17:22:49.704787 16582 net.cpp:129] Top shape: 111 (111)
I0426 17:22:49.704789 16582 net.cpp:137] Memory required for data: 1364412
I0426 17:22:49.704797 16582 layer_factory.hpp:77] Creating layer conv0
I0426 17:22:49.704814 16582 net.cpp:84] Creating Layer conv0
I0426 17:22:49.704818 16582 net.cpp:406] conv0 <- data
I0426 17:22:49.704829 16582 net.cpp:380] conv0 -> conv0
I0426 17:22:49.706127 16582 net.cpp:122] Setting up conv0
I0426 17:22:49.706140 16582 net.cpp:129] Top shape: 111 150 32 32 (17049600)
I0426 17:22:49.706142 16582 net.cpp:137] Memory required for data: 69562812
I0426 17:22:49.706157 16582 layer_factory.hpp:77] Creating layer Sigmoid0
I0426 17:22:49.706163 16582 net.cpp:84] Creating Layer Sigmoid0
I0426 17:22:49.706166 16582 net.cpp:406] Sigmoid0 <- conv0
I0426 17:22:49.706171 16582 net.cpp:380] Sigmoid0 -> Sigmoid0
I0426 17:22:49.706190 16582 net.cpp:122] Setting up Sigmoid0
I0426 17:22:49.706195 16582 net.cpp:129] Top shape: 111 150 32 32 (17049600)
I0426 17:22:49.706197 16582 net.cpp:137] Memory required for data: 137761212
I0426 17:22:49.706199 16582 layer_factory.hpp:77] Creating layer pool0
I0426 17:22:49.706204 16582 net.cpp:84] Creating Layer pool0
I0426 17:22:49.706207 16582 net.cpp:406] pool0 <- Sigmoid0
I0426 17:22:49.706210 16582 net.cpp:380] pool0 -> pool0
I0426 17:22:49.706233 16582 net.cpp:122] Setting up pool0
I0426 17:22:49.706236 16582 net.cpp:129] Top shape: 111 150 16 16 (4262400)
I0426 17:22:49.706239 16582 net.cpp:137] Memory required for data: 154810812
I0426 17:22:49.706241 16582 layer_factory.hpp:77] Creating layer conv1
I0426 17:22:49.706248 16582 net.cpp:84] Creating Layer conv1
I0426 17:22:49.706251 16582 net.cpp:406] conv1 <- pool0
I0426 17:22:49.706257 16582 net.cpp:380] conv1 -> conv1
I0426 17:22:49.711501 16582 net.cpp:122] Setting up conv1
I0426 17:22:49.711514 16582 net.cpp:129] Top shape: 111 150 16 16 (4262400)
I0426 17:22:49.711516 16582 net.cpp:137] Memory required for data: 171860412
I0426 17:22:49.711524 16582 layer_factory.hpp:77] Creating layer Sigmoid1
I0426 17:22:49.711531 16582 net.cpp:84] Creating Layer Sigmoid1
I0426 17:22:49.711534 16582 net.cpp:406] Sigmoid1 <- conv1
I0426 17:22:49.711539 16582 net.cpp:380] Sigmoid1 -> Sigmoid1
I0426 17:22:49.711555 16582 net.cpp:122] Setting up Sigmoid1
I0426 17:22:49.711558 16582 net.cpp:129] Top shape: 111 150 16 16 (4262400)
I0426 17:22:49.711560 16582 net.cpp:137] Memory required for data: 188910012
I0426 17:22:49.711561 16582 layer_factory.hpp:77] Creating layer pool1
I0426 17:22:49.711566 16582 net.cpp:84] Creating Layer pool1
I0426 17:22:49.711567 16582 net.cpp:406] pool1 <- Sigmoid1
I0426 17:22:49.711571 16582 net.cpp:380] pool1 -> pool1
I0426 17:22:49.711588 16582 net.cpp:122] Setting up pool1
I0426 17:22:49.711591 16582 net.cpp:129] Top shape: 111 150 8 8 (1065600)
I0426 17:22:49.711593 16582 net.cpp:137] Memory required for data: 193172412
I0426 17:22:49.711596 16582 layer_factory.hpp:77] Creating layer conv2
I0426 17:22:49.711602 16582 net.cpp:84] Creating Layer conv2
I0426 17:22:49.711606 16582 net.cpp:406] conv2 <- pool1
I0426 17:22:49.711609 16582 net.cpp:380] conv2 -> conv2
I0426 17:22:49.717022 16582 net.cpp:122] Setting up conv2
I0426 17:22:49.717036 16582 net.cpp:129] Top shape: 111 150 8 8 (1065600)
I0426 17:22:49.717038 16582 net.cpp:137] Memory required for data: 197434812
I0426 17:22:49.717046 16582 layer_factory.hpp:77] Creating layer Sigmoid2
I0426 17:22:49.717053 16582 net.cpp:84] Creating Layer Sigmoid2
I0426 17:22:49.717056 16582 net.cpp:406] Sigmoid2 <- conv2
I0426 17:22:49.717061 16582 net.cpp:380] Sigmoid2 -> Sigmoid2
I0426 17:22:49.717077 16582 net.cpp:122] Setting up Sigmoid2
I0426 17:22:49.717080 16582 net.cpp:129] Top shape: 111 150 8 8 (1065600)
I0426 17:22:49.717084 16582 net.cpp:137] Memory required for data: 201697212
I0426 17:22:49.717087 16582 layer_factory.hpp:77] Creating layer pool2
I0426 17:22:49.717092 16582 net.cpp:84] Creating Layer pool2
I0426 17:22:49.717093 16582 net.cpp:406] pool2 <- Sigmoid2
I0426 17:22:49.717097 16582 net.cpp:380] pool2 -> pool2
I0426 17:22:49.717125 16582 net.cpp:122] Setting up pool2
I0426 17:22:49.717130 16582 net.cpp:129] Top shape: 111 150 4 4 (266400)
I0426 17:22:49.717133 16582 net.cpp:137] Memory required for data: 202762812
I0426 17:22:49.717135 16582 layer_factory.hpp:77] Creating layer ip1
I0426 17:22:49.717140 16582 net.cpp:84] Creating Layer ip1
I0426 17:22:49.717144 16582 net.cpp:406] ip1 <- pool2
I0426 17:22:49.717147 16582 net.cpp:380] ip1 -> ip1
I0426 17:22:49.717767 16582 net.cpp:122] Setting up ip1
I0426 17:22:49.717774 16582 net.cpp:129] Top shape: 111 10 (1110)
I0426 17:22:49.717777 16582 net.cpp:137] Memory required for data: 202767252
I0426 17:22:49.717782 16582 layer_factory.hpp:77] Creating layer loss
I0426 17:22:49.717785 16582 net.cpp:84] Creating Layer loss
I0426 17:22:49.717789 16582 net.cpp:406] loss <- ip1
I0426 17:22:49.717792 16582 net.cpp:406] loss <- label
I0426 17:22:49.717797 16582 net.cpp:380] loss -> loss
I0426 17:22:49.717808 16582 layer_factory.hpp:77] Creating layer loss
…
I0426 17:22:49.718087 16582 solver.cpp:173] Creating test net (#0) specified by net file: ECE595/cifar/train_test/var_num_feature_maxiter20000/cifar_train_test_featuresize150.prototxt
I0426 17:22:49.718106 16582 net.cpp:294] The NetState phase (1) differed from the phase (0) specified by a rule in layer cifar
I0426 17:22:49.718183 16582 net.cpp:51] Initializing net from parameters: 
name: "CIFAR"
state {
  phase: TEST
}
layer {
  name: "cifar"
  type: "Data"
  top: "data"
  top: "label"
  include {
    phase: TEST
  }
  transform_param {
    mean_file: "examples/cifar10/mean.binaryproto"
  }
  data_param {
    source: "examples/cifar10/cifar10_test_lmdb"
    batch_size: 1000
    backend: LMDB
  }
}
layer {
  name: "conv0"
  type: "Convolution"
  bottom: "data"
  top: "conv0"
  param {
    lr_mult: 1
  }
  param {
    lr_mult: 2
  }
  convolution_param {
    num_output: 150
    pad: 2
    kernel_size: 5
    stride: 1
    weight_filler {
      type: "gaussian"
      std: 0.01
    }
    bias_filler {
      type: "constant"
    }
  }
}
layer {
  name: "Sigmoid0"
  type: "Sigmoid"
  bottom: "conv0"
  top: "Sigmoid0"
}
layer {
  name: "pool0"
  type: "Pooling"
  bottom: "Sigmoid0"
  top: "pool0"
  pooling_param {
    pool: AVE
    kernel_size: 3
    stride: 2
  }
}
layer {
  name: "conv1"
  type: "Convolution"
  bottom: "pool0"
  top: "conv1"
  param {
    lr_mult: 1
  }
  param {
    lr_mult: 2
  }
  convolution_param {
    num_output: 150
    pad: 2
    kernel_size: 5
    stride: 1
    weight_filler {
      type: "gaussian"
      std: 0.01
    }
    bias_filler {
      type: "constant"
    }
  }
}
layer {
  name: "Sigmoid1"
  type: "Sigmoid"
  bottom: "conv1"
  top: "Sigmoid1"
}
layer {
  name: "pool1"
  type: "Pooling"
  bottom: "Sigmoid1"
  top: "pool1"
  pooling_param {
    pool: AVE
    kernel_size: 3
    stride: 2
  }
}
layer {
  name: "conv2"
  type: "Convolution"
  bottom: "pool1"
  top: "conv2"
  param {
    lr_mult: 1
  }
  param {
    lr_mult: 2
  }
  convolution_param {
    num_output: 150
    pad: 2
    kernel_size: 5
    stride: 1
    weight_filler {
      type: "gaussian"
      std: 0.01
    }
    bias_filler {
      type: "constant"
    }
  }
}
layer {
  name: "Sigmoid2"
  type: "Sigmoid"
  bottom: "conv2"
  top: "Sigmoid2"
}
layer {
  name: "pool2"
  type: "Pooling"
  bottom: "Sigmoid2"
  top: "pool2"
  pooling_param {
    pool: AVE
    kernel_size: 3
    stride: 2
  }
}
layer {
  name: "ip1"
  type: "InnerProduct"
  bottom: "pool2"
  top: "ip1"
  param {
    lr_mult: 1
  }
  param {
    lr_mult: 2
  }
  inner_product_param {
    num_output: 10
    weight_filler {
      type: "gaussian"
      std: 0.01
    }
    bias_filler {
      type: "constant"
    }
  }
}
layer {
  name: "accuracy"
  type: "Accuracy"
  bottom: "ip1"
  bottom: "label"
  top: "accuracy"
  include {
    phase: TEST
  }
}
layer {
  name: "loss"
  type: "SoftmaxWithLoss"
  bottom: "ip1"
  bottom: "label"
  top: "loss"
}
I0426 17:22:49.718250 16582 layer_factory.hpp:77] Creating layer cifar
I0426 17:22:49.718294 16582 db_lmdb.cpp:35] Opened lmdb examples/cifar10/cifar10_test_lmdb
I0426 17:22:49.718305 16582 net.cpp:84] Creating Layer cifar
I0426 17:22:49.718312 16582 net.cpp:380] cifar -> data
I0426 17:22:49.718318 16582 net.cpp:380] cifar -> label
I0426 17:22:49.718324 16582 data_transformer.cpp:25] Loading mean file from: examples/cifar10/mean.binaryproto
I0426 17:22:49.718443 16582 data_layer.cpp:45] output data size: 1000,3,32,32
I0426 17:22:49.740434 16582 net.cpp:122] Setting up cifar
I0426 17:22:49.740453 16582 net.cpp:129] Top shape: 1000 3 32 32 (3072000)
I0426 17:22:49.740458 16582 net.cpp:129] Top shape: 1000 (1000)
I0426 17:22:49.740459 16582 net.cpp:137] Memory required for data: 12292000
I0426 17:22:49.740464 16582 layer_factory.hpp:77] Creating layer label_cifar_1_split
I0426 17:22:49.740474 16582 net.cpp:84] Creating Layer label_cifar_1_split
I0426 17:22:49.740478 16582 net.cpp:406] label_cifar_1_split <- label
I0426 17:22:49.740483 16582 net.cpp:380] label_cifar_1_split -> label_cifar_1_split_0
I0426 17:22:49.740490 16582 net.cpp:380] label_cifar_1_split -> label_cifar_1_split_1
I0426 17:22:49.740542 16582 net.cpp:122] Setting up label_cifar_1_split
I0426 17:22:49.740547 16582 net.cpp:129] Top shape: 1000 (1000)
I0426 17:22:49.740550 16582 net.cpp:129] Top shape: 1000 (1000)
I0426 17:22:49.740552 16582 net.cpp:137] Memory required for data: 12300000
I0426 17:22:49.740555 16582 layer_factory.hpp:77] Creating layer conv0
I0426 17:22:49.740566 16582 net.cpp:84] Creating Layer conv0
I0426 17:22:49.740568 16582 net.cpp:406] conv0 <- data
I0426 17:22:49.740573 16582 net.cpp:380] conv0 -> conv0
I0426 17:22:49.741004 16582 net.cpp:122] Setting up conv0
I0426 17:22:49.741016 16582 net.cpp:129] Top shape: 1000 150 32 32 (153600000)
I0426 17:22:49.741019 16582 net.cpp:137] Memory required for data: 626700000
I0426 17:22:49.741027 16582 layer_factory.hpp:77] Creating layer Sigmoid0
I0426 17:22:49.741031 16582 net.cpp:84] Creating Layer Sigmoid0
I0426 17:22:49.741034 16582 net.cpp:406] Sigmoid0 <- conv0
I0426 17:22:49.741039 16582 net.cpp:380] Sigmoid0 -> Sigmoid0
I0426 17:22:49.741056 16582 net.cpp:122] Setting up Sigmoid0
I0426 17:22:49.741060 16582 net.cpp:129] Top shape: 1000 150 32 32 (153600000)
I0426 17:22:49.741062 16582 net.cpp:137] Memory required for data: 1241100000
I0426 17:22:49.741065 16582 layer_factory.hpp:77] Creating layer pool0
I0426 17:22:49.741071 16582 net.cpp:84] Creating Layer pool0
I0426 17:22:49.741073 16582 net.cpp:406] pool0 <- Sigmoid0
I0426 17:22:49.741077 16582 net.cpp:380] pool0 -> pool0
I0426 17:22:49.741093 16582 net.cpp:122] Setting up pool0
I0426 17:22:49.741097 16582 net.cpp:129] Top shape: 1000 150 16 16 (38400000)
I0426 17:22:49.741099 16582 net.cpp:137] Memory required for data: 1394700000
I0426 17:22:49.741101 16582 layer_factory.hpp:77] Creating layer conv1
I0426 17:22:49.741122 16582 net.cpp:84] Creating Layer conv1
I0426 17:22:49.741127 16582 net.cpp:406] conv1 <- pool0
I0426 17:22:49.741130 16582 net.cpp:380] conv1 -> conv1
I0426 17:22:49.746408 16582 net.cpp:122] Setting up conv1
I0426 17:22:49.746421 16582 net.cpp:129] Top shape: 1000 150 16 16 (38400000)
I0426 17:22:49.746425 16582 net.cpp:137] Memory required for data: 1548300000
I0426 17:22:49.746433 16582 layer_factory.hpp:77] Creating layer Sigmoid1
I0426 17:22:49.746438 16582 net.cpp:84] Creating Layer Sigmoid1
I0426 17:22:49.746440 16582 net.cpp:406] Sigmoid1 <- conv1
I0426 17:22:49.746445 16582 net.cpp:380] Sigmoid1 -> Sigmoid1
I0426 17:22:49.746462 16582 net.cpp:122] Setting up Sigmoid1
I0426 17:22:49.746466 16582 net.cpp:129] Top shape: 1000 150 16 16 (38400000)
I0426 17:22:49.746470 16582 net.cpp:137] Memory required for data: 1701900000
I0426 17:22:49.746472 16582 layer_factory.hpp:77] Creating layer pool1
I0426 17:22:49.746477 16582 net.cpp:84] Creating Layer pool1
I0426 17:22:49.746479 16582 net.cpp:406] pool1 <- Sigmoid1
I0426 17:22:49.746482 16582 net.cpp:380] pool1 -> pool1
I0426 17:22:49.746500 16582 net.cpp:122] Setting up pool1
I0426 17:22:49.746505 16582 net.cpp:129] Top shape: 1000 150 8 8 (9600000)
I0426 17:22:49.746506 16582 net.cpp:137] Memory required for data: 1740300000
I0426 17:22:49.746508 16582 layer_factory.hpp:77] Creating layer conv2
I0426 17:22:49.746517 16582 net.cpp:84] Creating Layer conv2
I0426 17:22:49.746520 16582 net.cpp:406] conv2 <- pool1
I0426 17:22:49.746522 16582 net.cpp:380] conv2 -> conv2
I0426 17:22:49.751817 16582 net.cpp:122] Setting up conv2
I0426 17:22:49.751832 16582 net.cpp:129] Top shape: 1000 150 8 8 (9600000)
I0426 17:22:49.751833 16582 net.cpp:137] Memory required for data: 1778700000
I0426 17:22:49.751840 16582 layer_factory.hpp:77] Creating layer Sigmoid2
I0426 17:22:49.751847 16582 net.cpp:84] Creating Layer Sigmoid2
I0426 17:22:49.751849 16582 net.cpp:406] Sigmoid2 <- conv2
I0426 17:22:49.751853 16582 net.cpp:380] Sigmoid2 -> Sigmoid2
I0426 17:22:49.751871 16582 net.cpp:122] Setting up Sigmoid2
I0426 17:22:49.751874 16582 net.cpp:129] Top shape: 1000 150 8 8 (9600000)
I0426 17:22:49.751878 16582 net.cpp:137] Memory required for data: 1817100000
I0426 17:22:49.751880 16582 layer_factory.hpp:77] Creating layer pool2
I0426 17:22:49.751884 16582 net.cpp:84] Creating Layer pool2
I0426 17:22:49.751886 16582 net.cpp:406] pool2 <- Sigmoid2
I0426 17:22:49.751893 16582 net.cpp:380] pool2 -> pool2
I0426 17:22:49.751912 16582 net.cpp:122] Setting up pool2
I0426 17:22:49.751916 16582 net.cpp:129] Top shape: 1000 150 4 4 (2400000)
I0426 17:22:49.751919 16582 net.cpp:137] Memory required for data: 1826700000
I0426 17:22:49.751921 16582 layer_factory.hpp:77] Creating layer ip1
I0426 17:22:49.751926 16582 net.cpp:84] Creating Layer ip1
I0426 17:22:49.751929 16582 net.cpp:406] ip1 <- pool2
I0426 17:22:49.751934 16582 net.cpp:380] ip1 -> ip1
I0426 17:22:49.752219 16582 net.cpp:122] Setting up ip1
I0426 17:22:49.752224 16582 net.cpp:129] Top shape: 1000 10 (10000)
I0426 17:22:49.752226 16582 net.cpp:137] Memory required for data: 1826740000
I0426 17:22:49.752230 16582 layer_factory.hpp:77] Creating layer ip1_ip1_0_split
I0426 17:22:49.752234 16582 net.cpp:84] Creating Layer ip1_ip1_0_split
I0426 17:22:49.752236 16582 net.cpp:406] ip1_ip1_0_split <- ip1
I0426 17:22:49.752239 16582 net.cpp:380] ip1_ip1_0_split -> ip1_ip1_0_split_0
I0426 17:22:49.752243 16582 net.cpp:380] ip1_ip1_0_split -> ip1_ip1_0_split_1
I0426 17:22:49.752271 16582 net.cpp:122] Setting up ip1_ip1_0_split
I0426 17:22:49.752275 16582 net.cpp:129] Top shape: 1000 10 (10000)
I0426 17:22:49.752277 16582 net.cpp:129] Top shape: 1000 10 (10000)
I0426 17:22:49.752279 16582 net.cpp:137] Memory required for data: 1826820000
I0426 17:22:49.752281 16582 layer_factory.hpp:77] Creating layer accuracy
I0426 17:22:49.752286 16582 net.cpp:84] Creating Layer accuracy
I0426 17:22:49.752288 16582 net.cpp:406] accuracy <- ip1_ip1_0_split_0
I0426 17:22:49.752291 16582 net.cpp:406] accuracy <- label_cifar_1_split_0
I0426 17:22:49.752306 16582 net.cpp:380] accuracy -> accuracy
…
