…
I0426 11:08:54.296680 12550 net.cpp:294] The NetState phase (0) differed from the phase (1) specified by a rule in layer cifar
I0426 11:08:54.296691 12550 net.cpp:294] The NetState phase (0) differed from the phase (1) specified by a rule in layer accuracy
I0426 11:08:54.296766 12550 net.cpp:51] Initializing net from parameters: 
name: "CIFAR"
state {
  phase: TRAIN
  level: 0
  stage: ""
}
layer {
  name: "cifar"
  type: "Data"
  top: "data"
  top: "label"
  include {
    phase: TRAIN
  }
  transform_param {
    mean_file: "examples/cifar10/mean.binaryproto"
  }
  data_param {
    source: "examples/cifar10/cifar10_train_lmdb"
    batch_size: 111
    backend: LMDB
  }
}
layer {
  name: "conv0"
  type: "Convolution"
  bottom: "data"
  top: "conv0"
  param {
    lr_mult: 1
  }
  param {
    lr_mult: 2
  }
  convolution_param {
    num_output: 50
    pad: 2
    kernel_size: 5
    stride: 1
    weight_filler {
      type: "gaussian"
      std: 0.01
    }
    bias_filler {
      type: "constant"
    }
  }
}
layer {
  name: "Sigmoid0"
  type: "Sigmoid"
  bottom: "conv0"
  top: "Sigmoid0"
}
layer {
  name: "pool0"
  type: "Pooling"
  bottom: "Sigmoid0"
  top: "pool0"
  pooling_param {
    pool: AVE
    kernel_size: 3
    stride: 2
  }
}
layer {
  name: "conv1"
  type: "Convolution"
  bottom: "pool0"
  top: "conv1"
  param {
    lr_mult: 1
  }
  param {
    lr_mult: 2
  }
  convolution_param {
    num_output: 50
    pad: 2
    kernel_size: 5
    stride: 1
    weight_filler {
      type: "gaussian"
      std: 0.01
    }
    bias_filler {
      type: "constant"
    }
  }
}
layer {
  name: "Sigmoid1"
  type: "Sigmoid"
  bottom: "conv1"
  top: "Sigmoid1"
}
layer {
  name: "pool1"
  type: "Pooling"
  bottom: "Sigmoid1"
  top: "pool1"
  pooling_param {
    pool: AVE
    kernel_size: 3
    stride: 2
  }
}
layer {
  name: "conv2"
  type: "Convolution"
  bottom: "pool1"
  top: "conv2"
  param {
    lr_mult: 1
  }
  param {
    lr_mult: 2
  }
  convolution_param {
    num_output: 50
    pad: 2
    kernel_size: 5
    stride: 1
    weight_filler {
      type: "gaussian"
      std: 0.01
    }
    bias_filler {
      type: "constant"
    }
  }
}
layer {
  name: "Sigmoid2"
  type: "Sigmoid"
  bottom: "conv2"
  top: "Sigmoid2"
}
layer {
  name: "pool2"
  type: "Pooling"
  bottom: "Sigmoid2"
  top: "pool2"
  pooling_param {
    pool: AVE
    kernel_size: 3
    stride: 2
  }
}
layer {
  name: "ip1"
  type: "InnerProduct"
  bottom: "pool2"
  top: "ip1"
  param {
    lr_mult: 1
  }
  param {
    lr_mult: 2
  }
  inner_product_param {
    num_output: 10
    weight_filler {
      type: "gaussian"
      std: 0.01
    }
    bias_filler {
      type: "constant"
    }
  }
}
layer {
  name: "loss"
  type: "SoftmaxWithLoss"
  bottom: "ip1"
  bottom: "label"
  top: "loss"
}
I0426 11:08:54.296814 12550 layer_factory.hpp:77] Creating layer cifar
I0426 11:08:54.296891 12550 db_lmdb.cpp:35] Opened lmdb examples/cifar10/cifar10_train_lmdb
I0426 11:08:54.296913 12550 net.cpp:84] Creating Layer cifar
I0426 11:08:54.296919 12550 net.cpp:380] cifar -> data
I0426 11:08:54.296936 12550 net.cpp:380] cifar -> label
I0426 11:08:54.296946 12550 data_transformer.cpp:25] Loading mean file from: examples/cifar10/mean.binaryproto
I0426 11:08:54.297732 12550 data_layer.cpp:45] output data size: 111,3,32,32
I0426 11:08:54.301390 12550 net.cpp:122] Setting up cifar
I0426 11:08:54.301406 12550 net.cpp:129] Top shape: 111 3 32 32 (340992)
I0426 11:08:54.301424 12550 net.cpp:129] Top shape: 111 (111)
I0426 11:08:54.301427 12550 net.cpp:137] Memory required for data: 1364412
I0426 11:08:54.301434 12550 layer_factory.hpp:77] Creating layer conv0
I0426 11:08:54.301452 12550 net.cpp:84] Creating Layer conv0
I0426 11:08:54.301457 12550 net.cpp:406] conv0 <- data
I0426 11:08:54.301468 12550 net.cpp:380] conv0 -> conv0
I0426 11:08:54.302038 12550 net.cpp:122] Setting up conv0
I0426 11:08:54.302047 12550 net.cpp:129] Top shape: 111 50 32 32 (5683200)
I0426 11:08:54.302049 12550 net.cpp:137] Memory required for data: 24097212
I0426 11:08:54.302064 12550 layer_factory.hpp:77] Creating layer Sigmoid0
I0426 11:08:54.302070 12550 net.cpp:84] Creating Layer Sigmoid0
I0426 11:08:54.302074 12550 net.cpp:406] Sigmoid0 <- conv0
I0426 11:08:54.302078 12550 net.cpp:380] Sigmoid0 -> Sigmoid0
I0426 11:08:54.302098 12550 net.cpp:122] Setting up Sigmoid0
I0426 11:08:54.302103 12550 net.cpp:129] Top shape: 111 50 32 32 (5683200)
I0426 11:08:54.302104 12550 net.cpp:137] Memory required for data: 46830012
I0426 11:08:54.302106 12550 layer_factory.hpp:77] Creating layer pool0
I0426 11:08:54.302111 12550 net.cpp:84] Creating Layer pool0
I0426 11:08:54.302134 12550 net.cpp:406] pool0 <- Sigmoid0
I0426 11:08:54.302136 12550 net.cpp:380] pool0 -> pool0
I0426 11:08:54.302175 12550 net.cpp:122] Setting up pool0
I0426 11:08:54.302181 12550 net.cpp:129] Top shape: 111 50 16 16 (1420800)
I0426 11:08:54.302182 12550 net.cpp:137] Memory required for data: 52513212
I0426 11:08:54.302183 12550 layer_factory.hpp:77] Creating layer conv1
I0426 11:08:54.302191 12550 net.cpp:84] Creating Layer conv1
I0426 11:08:54.302194 12550 net.cpp:406] conv1 <- pool0
I0426 11:08:54.302199 12550 net.cpp:380] conv1 -> conv1
I0426 11:08:54.303186 12550 net.cpp:122] Setting up conv1
I0426 11:08:54.303194 12550 net.cpp:129] Top shape: 111 50 16 16 (1420800)
I0426 11:08:54.303196 12550 net.cpp:137] Memory required for data: 58196412
I0426 11:08:54.303202 12550 layer_factory.hpp:77] Creating layer Sigmoid1
I0426 11:08:54.303207 12550 net.cpp:84] Creating Layer Sigmoid1
I0426 11:08:54.303210 12550 net.cpp:406] Sigmoid1 <- conv1
I0426 11:08:54.303215 12550 net.cpp:380] Sigmoid1 -> Sigmoid1
I0426 11:08:54.303228 12550 net.cpp:122] Setting up Sigmoid1
I0426 11:08:54.303232 12550 net.cpp:129] Top shape: 111 50 16 16 (1420800)
I0426 11:08:54.303234 12550 net.cpp:137] Memory required for data: 63879612
I0426 11:08:54.303236 12550 layer_factory.hpp:77] Creating layer pool1
I0426 11:08:54.303241 12550 net.cpp:84] Creating Layer pool1
I0426 11:08:54.303242 12550 net.cpp:406] pool1 <- Sigmoid1
I0426 11:08:54.303246 12550 net.cpp:380] pool1 -> pool1
I0426 11:08:54.303280 12550 net.cpp:122] Setting up pool1
I0426 11:08:54.303284 12550 net.cpp:129] Top shape: 111 50 8 8 (355200)
I0426 11:08:54.303287 12550 net.cpp:137] Memory required for data: 65300412
I0426 11:08:54.303289 12550 layer_factory.hpp:77] Creating layer conv2
I0426 11:08:54.303297 12550 net.cpp:84] Creating Layer conv2
I0426 11:08:54.303299 12550 net.cpp:406] conv2 <- pool1
I0426 11:08:54.303303 12550 net.cpp:380] conv2 -> conv2
I0426 11:08:54.304021 12550 net.cpp:122] Setting up conv2
I0426 11:08:54.304028 12550 net.cpp:129] Top shape: 111 50 8 8 (355200)
I0426 11:08:54.304030 12550 net.cpp:137] Memory required for data: 66721212
I0426 11:08:54.304036 12550 layer_factory.hpp:77] Creating layer Sigmoid2
I0426 11:08:54.304041 12550 net.cpp:84] Creating Layer Sigmoid2
I0426 11:08:54.304045 12550 net.cpp:406] Sigmoid2 <- conv2
I0426 11:08:54.304049 12550 net.cpp:380] Sigmoid2 -> Sigmoid2
I0426 11:08:54.304297 12550 net.cpp:122] Setting up Sigmoid2
I0426 11:08:54.304302 12550 net.cpp:129] Top shape: 111 50 8 8 (355200)
I0426 11:08:54.304318 12550 net.cpp:137] Memory required for data: 68142012
I0426 11:08:54.304321 12550 layer_factory.hpp:77] Creating layer pool2
I0426 11:08:54.304324 12550 net.cpp:84] Creating Layer pool2
I0426 11:08:54.304327 12550 net.cpp:406] pool2 <- Sigmoid2
I0426 11:08:54.304330 12550 net.cpp:380] pool2 -> pool2
I0426 11:08:54.304345 12550 net.cpp:122] Setting up pool2
I0426 11:08:54.304373 12550 net.cpp:129] Top shape: 111 50 4 4 (88800)
I0426 11:08:54.304374 12550 net.cpp:137] Memory required for data: 68497212
I0426 11:08:54.304378 12550 layer_factory.hpp:77] Creating layer ip1
I0426 11:08:54.304383 12550 net.cpp:84] Creating Layer ip1
I0426 11:08:54.304388 12550 net.cpp:406] ip1 <- pool2
I0426 11:08:54.304394 12550 net.cpp:380] ip1 -> ip1
I0426 11:08:54.304893 12550 net.cpp:122] Setting up ip1
I0426 11:08:54.304901 12550 net.cpp:129] Top shape: 111 10 (1110)
I0426 11:08:54.304903 12550 net.cpp:137] Memory required for data: 68501652
I0426 11:08:54.304908 12550 layer_factory.hpp:77] Creating layer loss
I0426 11:08:54.304929 12550 net.cpp:84] Creating Layer loss
I0426 11:08:54.304932 12550 net.cpp:406] loss <- ip1
I0426 11:08:54.304935 12550 net.cpp:406] loss <- label
I0426 11:08:54.304939 12550 net.cpp:380] loss -> loss
I0426 11:08:54.304949 12550 layer_factory.hpp:77] Creating layer loss
…
I0426 11:08:54.305294 12550 solver.cpp:173] Creating test net (#0) specified by net file: ECE595/cifar/train_test/var_num_feature_maxiter20000/cifar_train_test_featuresize50.prototxt
I0426 11:08:54.305326 12550 net.cpp:294] The NetState phase (1) differed from the phase (0) specified by a rule in layer cifar
I0426 11:08:54.305423 12550 net.cpp:51] Initializing net from parameters: 
name: "CIFAR"
state {
  phase: TEST
}
layer {
  name: "cifar"
  type: "Data"
  top: "data"
  top: "label"
  include {
    phase: TEST
  }
  transform_param {
    mean_file: "examples/cifar10/mean.binaryproto"
  }
  data_param {
    source: "examples/cifar10/cifar10_test_lmdb"
    batch_size: 1000
    backend: LMDB
  }
}
layer {
  name: "conv0"
  type: "Convolution"
  bottom: "data"
  top: "conv0"
  param {
    lr_mult: 1
  }
  param {
    lr_mult: 2
  }
  convolution_param {
    num_output: 50
    pad: 2
    kernel_size: 5
    stride: 1
    weight_filler {
      type: "gaussian"
      std: 0.01
    }
    bias_filler {
      type: "constant"
    }
  }
}
layer {
  name: "Sigmoid0"
  type: "Sigmoid"
  bottom: "conv0"
  top: "Sigmoid0"
}
layer {
  name: "pool0"
  type: "Pooling"
  bottom: "Sigmoid0"
  top: "pool0"
  pooling_param {
    pool: AVE
    kernel_size: 3
    stride: 2
  }
}
layer {
  name: "conv1"
  type: "Convolution"
  bottom: "pool0"
  top: "conv1"
  param {
    lr_mult: 1
  }
  param {
    lr_mult: 2
  }
  convolution_param {
    num_output: 50
    pad: 2
    kernel_size: 5
    stride: 1
    weight_filler {
      type: "gaussian"
      std: 0.01
    }
    bias_filler {
      type: "constant"
    }
  }
}
layer {
  name: "Sigmoid1"
  type: "Sigmoid"
  bottom: "conv1"
  top: "Sigmoid1"
}
layer {
  name: "pool1"
  type: "Pooling"
  bottom: "Sigmoid1"
  top: "pool1"
  pooling_param {
    pool: AVE
    kernel_size: 3
    stride: 2
  }
}
layer {
  name: "conv2"
  type: "Convolution"
  bottom: "pool1"
  top: "conv2"
  param {
    lr_mult: 1
  }
  param {
    lr_mult: 2
  }
  convolution_param {
    num_output: 50
    pad: 2
    kernel_size: 5
    stride: 1
    weight_filler {
      type: "gaussian"
      std: 0.01
    }
    bias_filler {
      type: "constant"
    }
  }
}
layer {
  name: "Sigmoid2"
  type: "Sigmoid"
  bottom: "conv2"
  top: "Sigmoid2"
}
layer {
  name: "pool2"
  type: "Pooling"
  bottom: "Sigmoid2"
  top: "pool2"
  pooling_param {
    pool: AVE
    kernel_size: 3
    stride: 2
  }
}
layer {
  name: "ip1"
  type: "InnerProduct"
  bottom: "pool2"
  top: "ip1"
  param {
    lr_mult: 1
  }
  param {
    lr_mult: 2
  }
  inner_product_param {
    num_output: 10
    weight_filler {
      type: "gaussian"
      std: 0.01
    }
    bias_filler {
      type: "constant"
    }
  }
}
layer {
  name: "accuracy"
  type: "Accuracy"
  bottom: "ip1"
  bottom: "label"
  top: "accuracy"
  include {
    phase: TEST
  }
}
layer {
  name: "loss"
  type: "SoftmaxWithLoss"
  bottom: "ip1"
  bottom: "label"
  top: "loss"
}
I0426 11:08:54.305515 12550 layer_factory.hpp:77] Creating layer cifar
I0426 11:08:54.305579 12550 db_lmdb.cpp:35] Opened lmdb examples/cifar10/cifar10_test_lmdb
I0426 11:08:54.305598 12550 net.cpp:84] Creating Layer cifar
I0426 11:08:54.305608 12550 net.cpp:380] cifar -> data
I0426 11:08:54.305615 12550 net.cpp:380] cifar -> label
I0426 11:08:54.305621 12550 data_transformer.cpp:25] Loading mean file from: examples/cifar10/mean.binaryproto
I0426 11:08:54.306000 12550 data_layer.cpp:45] output data size: 1000,3,32,32
I0426 11:08:54.332948 12550 net.cpp:122] Setting up cifar
I0426 11:08:54.332967 12550 net.cpp:129] Top shape: 1000 3 32 32 (3072000)
I0426 11:08:54.332970 12550 net.cpp:129] Top shape: 1000 (1000)
I0426 11:08:54.332973 12550 net.cpp:137] Memory required for data: 12292000
I0426 11:08:54.332978 12550 layer_factory.hpp:77] Creating layer label_cifar_1_split
I0426 11:08:54.333017 12550 net.cpp:84] Creating Layer label_cifar_1_split
I0426 11:08:54.333020 12550 net.cpp:406] label_cifar_1_split <- label
I0426 11:08:54.333026 12550 net.cpp:380] label_cifar_1_split -> label_cifar_1_split_0
I0426 11:08:54.333034 12550 net.cpp:380] label_cifar_1_split -> label_cifar_1_split_1
I0426 11:08:54.333104 12550 net.cpp:122] Setting up label_cifar_1_split
I0426 11:08:54.333108 12550 net.cpp:129] Top shape: 1000 (1000)
I0426 11:08:54.333112 12550 net.cpp:129] Top shape: 1000 (1000)
I0426 11:08:54.333113 12550 net.cpp:137] Memory required for data: 12300000
I0426 11:08:54.333114 12550 layer_factory.hpp:77] Creating layer conv0
I0426 11:08:54.333125 12550 net.cpp:84] Creating Layer conv0
I0426 11:08:54.333128 12550 net.cpp:406] conv0 <- data
I0426 11:08:54.333151 12550 net.cpp:380] conv0 -> conv0
I0426 11:08:54.333463 12550 net.cpp:122] Setting up conv0
I0426 11:08:54.333469 12550 net.cpp:129] Top shape: 1000 50 32 32 (51200000)
I0426 11:08:54.333472 12550 net.cpp:137] Memory required for data: 217100000
I0426 11:08:54.333498 12550 layer_factory.hpp:77] Creating layer Sigmoid0
I0426 11:08:54.333501 12550 net.cpp:84] Creating Layer Sigmoid0
I0426 11:08:54.333503 12550 net.cpp:406] Sigmoid0 <- conv0
I0426 11:08:54.333508 12550 net.cpp:380] Sigmoid0 -> Sigmoid0
I0426 11:08:54.333562 12550 net.cpp:122] Setting up Sigmoid0
I0426 11:08:54.333586 12550 net.cpp:129] Top shape: 1000 50 32 32 (51200000)
I0426 11:08:54.333588 12550 net.cpp:137] Memory required for data: 421900000
I0426 11:08:54.333591 12550 layer_factory.hpp:77] Creating layer pool0
I0426 11:08:54.333612 12550 net.cpp:84] Creating Layer pool0
I0426 11:08:54.333616 12550 net.cpp:406] pool0 <- Sigmoid0
I0426 11:08:54.333618 12550 net.cpp:380] pool0 -> pool0
I0426 11:08:54.333668 12550 net.cpp:122] Setting up pool0
I0426 11:08:54.333673 12550 net.cpp:129] Top shape: 1000 50 16 16 (12800000)
I0426 11:08:54.333674 12550 net.cpp:137] Memory required for data: 473100000
I0426 11:08:54.333676 12550 layer_factory.hpp:77] Creating layer conv1
I0426 11:08:54.333683 12550 net.cpp:84] Creating Layer conv1
I0426 11:08:54.333696 12550 net.cpp:406] conv1 <- pool0
I0426 11:08:54.333701 12550 net.cpp:380] conv1 -> conv1
I0426 11:08:54.336321 12550 net.cpp:122] Setting up conv1
I0426 11:08:54.336333 12550 net.cpp:129] Top shape: 1000 50 16 16 (12800000)
I0426 11:08:54.336334 12550 net.cpp:137] Memory required for data: 524300000
I0426 11:08:54.336341 12550 layer_factory.hpp:77] Creating layer Sigmoid1
I0426 11:08:54.336349 12550 net.cpp:84] Creating Layer Sigmoid1
I0426 11:08:54.336352 12550 net.cpp:406] Sigmoid1 <- conv1
I0426 11:08:54.336375 12550 net.cpp:380] Sigmoid1 -> Sigmoid1
I0426 11:08:54.336390 12550 net.cpp:122] Setting up Sigmoid1
I0426 11:08:54.336395 12550 net.cpp:129] Top shape: 1000 50 16 16 (12800000)
I0426 11:08:54.336397 12550 net.cpp:137] Memory required for data: 575500000
I0426 11:08:54.336400 12550 layer_factory.hpp:77] Creating layer pool1
I0426 11:08:54.336405 12550 net.cpp:84] Creating Layer pool1
I0426 11:08:54.336408 12550 net.cpp:406] pool1 <- Sigmoid1
I0426 11:08:54.336412 12550 net.cpp:380] pool1 -> pool1
I0426 11:08:54.336428 12550 net.cpp:122] Setting up pool1
I0426 11:08:54.336433 12550 net.cpp:129] Top shape: 1000 50 8 8 (3200000)
I0426 11:08:54.336436 12550 net.cpp:137] Memory required for data: 588300000
I0426 11:08:54.336437 12550 layer_factory.hpp:77] Creating layer conv2
I0426 11:08:54.336463 12550 net.cpp:84] Creating Layer conv2
I0426 11:08:54.336484 12550 net.cpp:406] conv2 <- pool1
I0426 11:08:54.336488 12550 net.cpp:380] conv2 -> conv2
I0426 11:08:54.337200 12550 net.cpp:122] Setting up conv2
I0426 11:08:54.337205 12550 net.cpp:129] Top shape: 1000 50 8 8 (3200000)
I0426 11:08:54.337208 12550 net.cpp:137] Memory required for data: 601100000
I0426 11:08:54.337214 12550 layer_factory.hpp:77] Creating layer Sigmoid2
I0426 11:08:54.337219 12550 net.cpp:84] Creating Layer Sigmoid2
I0426 11:08:54.337221 12550 net.cpp:406] Sigmoid2 <- conv2
I0426 11:08:54.337242 12550 net.cpp:380] Sigmoid2 -> Sigmoid2
I0426 11:08:54.337272 12550 net.cpp:122] Setting up Sigmoid2
I0426 11:08:54.337277 12550 net.cpp:129] Top shape: 1000 50 8 8 (3200000)
I0426 11:08:54.337278 12550 net.cpp:137] Memory required for data: 613900000
I0426 11:08:54.337280 12550 layer_factory.hpp:77] Creating layer pool2
I0426 11:08:54.337285 12550 net.cpp:84] Creating Layer pool2
I0426 11:08:54.337286 12550 net.cpp:406] pool2 <- Sigmoid2
I0426 11:08:54.337291 12550 net.cpp:380] pool2 -> pool2
I0426 11:08:54.337304 12550 net.cpp:122] Setting up pool2
I0426 11:08:54.337308 12550 net.cpp:129] Top shape: 1000 50 4 4 (800000)
I0426 11:08:54.337311 12550 net.cpp:137] Memory required for data: 617100000
I0426 11:08:54.337313 12550 layer_factory.hpp:77] Creating layer ip1
I0426 11:08:54.337319 12550 net.cpp:84] Creating Layer ip1
I0426 11:08:54.337322 12550 net.cpp:406] ip1 <- pool2
I0426 11:08:54.337327 12550 net.cpp:380] ip1 -> ip1
I0426 11:08:54.337486 12550 net.cpp:122] Setting up ip1
I0426 11:08:54.337491 12550 net.cpp:129] Top shape: 1000 10 (10000)
I0426 11:08:54.337492 12550 net.cpp:137] Memory required for data: 617140000
I0426 11:08:54.337497 12550 layer_factory.hpp:77] Creating layer ip1_ip1_0_split
I0426 11:08:54.337501 12550 net.cpp:84] Creating Layer ip1_ip1_0_split
I0426 11:08:54.337502 12550 net.cpp:406] ip1_ip1_0_split <- ip1
I0426 11:08:54.337507 12550 net.cpp:380] ip1_ip1_0_split -> ip1_ip1_0_split_0
I0426 11:08:54.337512 12550 net.cpp:380] ip1_ip1_0_split -> ip1_ip1_0_split_1
I0426 11:08:54.337564 12550 net.cpp:122] Setting up ip1_ip1_0_split
I0426 11:08:54.337568 12550 net.cpp:129] Top shape: 1000 10 (10000)
I0426 11:08:54.337570 12550 net.cpp:129] Top shape: 1000 10 (10000)
I0426 11:08:54.337574 12550 net.cpp:137] Memory required for data: 617220000
I0426 11:08:54.337575 12550 layer_factory.hpp:77] Creating layer accuracy
I0426 11:08:54.337579 12550 net.cpp:84] Creating Layer accuracy
I0426 11:08:54.337581 12550 net.cpp:406] accuracy <- ip1_ip1_0_split_0
I0426 11:08:54.337585 12550 net.cpp:406] accuracy <- label_cifar_1_split_0
I0426 11:08:54.337589 12550 net.cpp:380] accuracy -> accuracy
…
