…
I0426 12:51:49.041316 14069 net.cpp:294] The NetState phase (0) differed from the phase (1) specified by a rule in layer cifar
I0426 12:51:49.041343 14069 net.cpp:294] The NetState phase (0) differed from the phase (1) specified by a rule in layer accuracy
I0426 12:51:49.041462 14069 net.cpp:51] Initializing net from parameters: 
name: "CIFAR"
state {
  phase: TRAIN
  level: 0
  stage: ""
}
layer {
  name: "cifar"
  type: "Data"
  top: "data"
  top: "label"
  include {
    phase: TRAIN
  }
  transform_param {
    mean_file: "examples/cifar10/mean.binaryproto"
  }
  data_param {
    source: "examples/cifar10/cifar10_train_lmdb"
    batch_size: 111
    backend: LMDB
  }
}
layer {
  name: "conv0"
  type: "Convolution"
  bottom: "data"
  top: "conv0"
  param {
    lr_mult: 1
  }
  param {
    lr_mult: 2
  }
  convolution_param {
    num_output: 100
    pad: 2
    kernel_size: 5
    stride: 1
    weight_filler {
      type: "gaussian"
      std: 0.01
    }
    bias_filler {
      type: "constant"
    }
  }
}
layer {
  name: "Sigmoid0"
  type: "Sigmoid"
  bottom: "conv0"
  top: "Sigmoid0"
}
layer {
  name: "pool0"
  type: "Pooling"
  bottom: "Sigmoid0"
  top: "pool0"
  pooling_param {
    pool: AVE
    kernel_size: 3
    stride: 2
  }
}
layer {
  name: "conv1"
  type: "Convolution"
  bottom: "pool0"
  top: "conv1"
  param {
    lr_mult: 1
  }
  param {
    lr_mult: 2
  }
  convolution_param {
    num_output: 100
    pad: 2
    kernel_size: 5
    stride: 1
    weight_filler {
      type: "gaussian"
      std: 0.01
    }
    bias_filler {
      type: "constant"
    }
  }
}
layer {
  name: "Sigmoid1"
  type: "Sigmoid"
  bottom: "conv1"
  top: "Sigmoid1"
}
layer {
  name: "pool1"
  type: "Pooling"
  bottom: "Sigmoid1"
  top: "pool1"
  pooling_param {
    pool: AVE
    kernel_size: 3
    stride: 2
  }
}
layer {
  name: "conv2"
  type: "Convolution"
  bottom: "pool1"
  top: "conv2"
  param {
    lr_mult: 1
  }
  param {
    lr_mult: 2
  }
  convolution_param {
    num_output: 100
    pad: 2
    kernel_size: 5
    stride: 1
    weight_filler {
      type: "gaussian"
      std: 0.01
    }
    bias_filler {
      type: "constant"
    }
  }
}
layer {
  name: "Sigmoid2"
  type: "Sigmoid"
  bottom: "conv2"
  top: "Sigmoid2"
}
layer {
  name: "pool2"
  type: "Pooling"
  bottom: "Sigmoid2"
  top: "pool2"
  pooling_param {
    pool: AVE
    kernel_size: 3
    stride: 2
  }
}
layer {
  name: "ip1"
  type: "InnerProduct"
  bottom: "pool2"
  top: "ip1"
  param {
    lr_mult: 1
  }
  param {
    lr_mult: 2
  }
  inner_product_param {
    num_output: 10
    weight_filler {
      type: "gaussian"
      std: 0.01
    }
    bias_filler {
      type: "constant"
    }
  }
}
layer {
  name: "loss"
  type: "SoftmaxWithLoss"
  bottom: "ip1"
  bottom: "label"
  top: "loss"
}
I0426 12:51:49.041564 14069 layer_factory.hpp:77] Creating layer cifar
I0426 12:51:49.041733 14069 db_lmdb.cpp:35] Opened lmdb examples/cifar10/cifar10_train_lmdb
I0426 12:51:49.041754 14069 net.cpp:84] Creating Layer cifar
I0426 12:51:49.041779 14069 net.cpp:380] cifar -> data
I0426 12:51:49.041795 14069 net.cpp:380] cifar -> label
I0426 12:51:49.041805 14069 data_transformer.cpp:25] Loading mean file from: examples/cifar10/mean.binaryproto
I0426 12:51:49.042577 14069 data_layer.cpp:45] output data size: 111,3,32,32
I0426 12:51:49.046238 14069 net.cpp:122] Setting up cifar
I0426 12:51:49.046255 14069 net.cpp:129] Top shape: 111 3 32 32 (340992)
I0426 12:51:49.046306 14069 net.cpp:129] Top shape: 111 (111)
I0426 12:51:49.046308 14069 net.cpp:137] Memory required for data: 1364412
I0426 12:51:49.046315 14069 layer_factory.hpp:77] Creating layer conv0
I0426 12:51:49.046332 14069 net.cpp:84] Creating Layer conv0
I0426 12:51:49.046337 14069 net.cpp:406] conv0 <- data
I0426 12:51:49.046382 14069 net.cpp:380] conv0 -> conv0
I0426 12:51:49.047447 14069 net.cpp:122] Setting up conv0
I0426 12:51:49.047475 14069 net.cpp:129] Top shape: 111 100 32 32 (11366400)
I0426 12:51:49.047477 14069 net.cpp:137] Memory required for data: 46830012
I0426 12:51:49.047509 14069 layer_factory.hpp:77] Creating layer Sigmoid0
I0426 12:51:49.047528 14069 net.cpp:84] Creating Layer Sigmoid0
I0426 12:51:49.047531 14069 net.cpp:406] Sigmoid0 <- conv0
I0426 12:51:49.047554 14069 net.cpp:380] Sigmoid0 -> Sigmoid0
I0426 12:51:49.047574 14069 net.cpp:122] Setting up Sigmoid0
I0426 12:51:49.047595 14069 net.cpp:129] Top shape: 111 100 32 32 (11366400)
I0426 12:51:49.047597 14069 net.cpp:137] Memory required for data: 92295612
I0426 12:51:49.047600 14069 layer_factory.hpp:77] Creating layer pool0
I0426 12:51:49.047623 14069 net.cpp:84] Creating Layer pool0
I0426 12:51:49.047626 14069 net.cpp:406] pool0 <- Sigmoid0
I0426 12:51:49.047628 14069 net.cpp:380] pool0 -> pool0
I0426 12:51:49.047979 14069 net.cpp:122] Setting up pool0
I0426 12:51:49.048007 14069 net.cpp:129] Top shape: 111 100 16 16 (2841600)
I0426 12:51:49.048009 14069 net.cpp:137] Memory required for data: 103662012
I0426 12:51:49.048012 14069 layer_factory.hpp:77] Creating layer conv1
I0426 12:51:49.048038 14069 net.cpp:84] Creating Layer conv1
I0426 12:51:49.048054 14069 net.cpp:406] conv1 <- pool0
I0426 12:51:49.048060 14069 net.cpp:380] conv1 -> conv1
I0426 12:51:49.050789 14069 net.cpp:122] Setting up conv1
I0426 12:51:49.050819 14069 net.cpp:129] Top shape: 111 100 16 16 (2841600)
I0426 12:51:49.050822 14069 net.cpp:137] Memory required for data: 115028412
I0426 12:51:49.050829 14069 layer_factory.hpp:77] Creating layer Sigmoid1
I0426 12:51:49.050835 14069 net.cpp:84] Creating Layer Sigmoid1
I0426 12:51:49.050837 14069 net.cpp:406] Sigmoid1 <- conv1
I0426 12:51:49.050843 14069 net.cpp:380] Sigmoid1 -> Sigmoid1
I0426 12:51:49.050874 14069 net.cpp:122] Setting up Sigmoid1
I0426 12:51:49.050879 14069 net.cpp:129] Top shape: 111 100 16 16 (2841600)
I0426 12:51:49.050881 14069 net.cpp:137] Memory required for data: 126394812
I0426 12:51:49.050899 14069 layer_factory.hpp:77] Creating layer pool1
I0426 12:51:49.050902 14069 net.cpp:84] Creating Layer pool1
I0426 12:51:49.050905 14069 net.cpp:406] pool1 <- Sigmoid1
I0426 12:51:49.050927 14069 net.cpp:380] pool1 -> pool1
I0426 12:51:49.050973 14069 net.cpp:122] Setting up pool1
I0426 12:51:49.050977 14069 net.cpp:129] Top shape: 111 100 8 8 (710400)
I0426 12:51:49.050981 14069 net.cpp:137] Memory required for data: 129236412
I0426 12:51:49.051002 14069 layer_factory.hpp:77] Creating layer conv2
I0426 12:51:49.051008 14069 net.cpp:84] Creating Layer conv2
I0426 12:51:49.051012 14069 net.cpp:406] conv2 <- pool1
I0426 12:51:49.051015 14069 net.cpp:380] conv2 -> conv2
I0426 12:51:49.053766 14069 net.cpp:122] Setting up conv2
I0426 12:51:49.053784 14069 net.cpp:129] Top shape: 111 100 8 8 (710400)
I0426 12:51:49.053807 14069 net.cpp:137] Memory required for data: 132078012
I0426 12:51:49.053820 14069 layer_factory.hpp:77] Creating layer Sigmoid2
I0426 12:51:49.053877 14069 net.cpp:84] Creating Layer Sigmoid2
I0426 12:51:49.053882 14069 net.cpp:406] Sigmoid2 <- conv2
I0426 12:51:49.053906 14069 net.cpp:380] Sigmoid2 -> Sigmoid2
I0426 12:51:49.053946 14069 net.cpp:122] Setting up Sigmoid2
I0426 12:51:49.053949 14069 net.cpp:129] Top shape: 111 100 8 8 (710400)
I0426 12:51:49.053951 14069 net.cpp:137] Memory required for data: 134919612
I0426 12:51:49.053972 14069 layer_factory.hpp:77] Creating layer pool2
I0426 12:51:49.053977 14069 net.cpp:84] Creating Layer pool2
I0426 12:51:49.053978 14069 net.cpp:406] pool2 <- Sigmoid2
I0426 12:51:49.053982 14069 net.cpp:380] pool2 -> pool2
I0426 12:51:49.054009 14069 net.cpp:122] Setting up pool2
I0426 12:51:49.054015 14069 net.cpp:129] Top shape: 111 100 4 4 (177600)
I0426 12:51:49.054016 14069 net.cpp:137] Memory required for data: 135630012
I0426 12:51:49.054018 14069 layer_factory.hpp:77] Creating layer ip1
I0426 12:51:49.054024 14069 net.cpp:84] Creating Layer ip1
I0426 12:51:49.054028 14069 net.cpp:406] ip1 <- pool2
I0426 12:51:49.054049 14069 net.cpp:380] ip1 -> ip1
I0426 12:51:49.054314 14069 net.cpp:122] Setting up ip1
I0426 12:51:49.054319 14069 net.cpp:129] Top shape: 111 10 (1110)
I0426 12:51:49.054339 14069 net.cpp:137] Memory required for data: 135634452
I0426 12:51:49.054343 14069 layer_factory.hpp:77] Creating layer loss
I0426 12:51:49.054347 14069 net.cpp:84] Creating Layer loss
I0426 12:51:49.054349 14069 net.cpp:406] loss <- ip1
I0426 12:51:49.054352 14069 net.cpp:406] loss <- label
I0426 12:51:49.054356 14069 net.cpp:380] loss -> loss
I0426 12:51:49.054383 14069 layer_factory.hpp:77] Creating layer loss
…
I0426 12:51:49.054906 14069 solver.cpp:173] Creating test net (#0) specified by net file: ECE595/cifar/train_test/var_num_feature_maxiter20000/cifar_train_test_featuresize100.prototxt
I0426 12:51:49.054936 14069 net.cpp:294] The NetState phase (1) differed from the phase (0) specified by a rule in layer cifar
I0426 12:51:49.055145 14069 net.cpp:51] Initializing net from parameters: 
name: "CIFAR"
state {
  phase: TEST
}
layer {
  name: "cifar"
  type: "Data"
  top: "data"
  top: "label"
  include {
    phase: TEST
  }
  transform_param {
    mean_file: "examples/cifar10/mean.binaryproto"
  }
  data_param {
    source: "examples/cifar10/cifar10_test_lmdb"
    batch_size: 1000
    backend: LMDB
  }
}
layer {
  name: "conv0"
  type: "Convolution"
  bottom: "data"
  top: "conv0"
  param {
    lr_mult: 1
  }
  param {
    lr_mult: 2
  }
  convolution_param {
    num_output: 100
    pad: 2
    kernel_size: 5
    stride: 1
    weight_filler {
      type: "gaussian"
      std: 0.01
    }
    bias_filler {
      type: "constant"
    }
  }
}
layer {
  name: "Sigmoid0"
  type: "Sigmoid"
  bottom: "conv0"
  top: "Sigmoid0"
}
layer {
  name: "pool0"
  type: "Pooling"
  bottom: "Sigmoid0"
  top: "pool0"
  pooling_param {
    pool: AVE
    kernel_size: 3
    stride: 2
  }
}
layer {
  name: "conv1"
  type: "Convolution"
  bottom: "pool0"
  top: "conv1"
  param {
    lr_mult: 1
  }
  param {
    lr_mult: 2
  }
  convolution_param {
    num_output: 100
    pad: 2
    kernel_size: 5
    stride: 1
    weight_filler {
      type: "gaussian"
      std: 0.01
    }
    bias_filler {
      type: "constant"
    }
  }
}
layer {
  name: "Sigmoid1"
  type: "Sigmoid"
  bottom: "conv1"
  top: "Sigmoid1"
}
layer {
  name: "pool1"
  type: "Pooling"
  bottom: "Sigmoid1"
  top: "pool1"
  pooling_param {
    pool: AVE
    kernel_size: 3
    stride: 2
  }
}
layer {
  name: "conv2"
  type: "Convolution"
  bottom: "pool1"
  top: "conv2"
  param {
    lr_mult: 1
  }
  param {
    lr_mult: 2
  }
  convolution_param {
    num_output: 100
    pad: 2
    kernel_size: 5
    stride: 1
    weight_filler {
      type: "gaussian"
      std: 0.01
    }
    bias_filler {
      type: "constant"
    }
  }
}
layer {
  name: "Sigmoid2"
  type: "Sigmoid"
  bottom: "conv2"
  top: "Sigmoid2"
}
layer {
  name: "pool2"
  type: "Pooling"
  bottom: "Sigmoid2"
  top: "pool2"
  pooling_param {
    pool: AVE
    kernel_size: 3
    stride: 2
  }
}
layer {
  name: "ip1"
  type: "InnerProduct"
  bottom: "pool2"
  top: "ip1"
  param {
    lr_mult: 1
  }
  param {
    lr_mult: 2
  }
  inner_product_param {
    num_output: 10
    weight_filler {
      type: "gaussian"
      std: 0.01
    }
    bias_filler {
      type: "constant"
    }
  }
}
layer {
  name: "accuracy"
  type: "Accuracy"
  bottom: "ip1"
  bottom: "label"
  top: "accuracy"
  include {
    phase: TEST
  }
}
layer {
  name: "loss"
  type: "SoftmaxWithLoss"
  bottom: "ip1"
  bottom: "label"
  top: "loss"
}
I0426 12:51:49.055238 14069 layer_factory.hpp:77] Creating layer cifar
I0426 12:51:49.055297 14069 db_lmdb.cpp:35] Opened lmdb examples/cifar10/cifar10_test_lmdb
I0426 12:51:49.055308 14069 net.cpp:84] Creating Layer cifar
I0426 12:51:49.055312 14069 net.cpp:380] cifar -> data
I0426 12:51:49.055323 14069 net.cpp:380] cifar -> label
I0426 12:51:49.055348 14069 data_transformer.cpp:25] Loading mean file from: examples/cifar10/mean.binaryproto
I0426 12:51:49.055501 14069 data_layer.cpp:45] output data size: 1000,3,32,32
I0426 12:51:49.078878 14069 net.cpp:122] Setting up cifar
I0426 12:51:49.078912 14069 net.cpp:129] Top shape: 1000 3 32 32 (3072000)
I0426 12:51:49.078917 14069 net.cpp:129] Top shape: 1000 (1000)
I0426 12:51:49.078917 14069 net.cpp:137] Memory required for data: 12292000
I0426 12:51:49.078940 14069 layer_factory.hpp:77] Creating layer label_cifar_1_split
I0426 12:51:49.078949 14069 net.cpp:84] Creating Layer label_cifar_1_split
I0426 12:51:49.078953 14069 net.cpp:406] label_cifar_1_split <- label
I0426 12:51:49.078979 14069 net.cpp:380] label_cifar_1_split -> label_cifar_1_split_0
I0426 12:51:49.079000 14069 net.cpp:380] label_cifar_1_split -> label_cifar_1_split_1
I0426 12:51:49.079151 14069 net.cpp:122] Setting up label_cifar_1_split
I0426 12:51:49.079161 14069 net.cpp:129] Top shape: 1000 (1000)
I0426 12:51:49.079164 14069 net.cpp:129] Top shape: 1000 (1000)
I0426 12:51:49.079166 14069 net.cpp:137] Memory required for data: 12300000
I0426 12:51:49.079183 14069 layer_factory.hpp:77] Creating layer conv0
I0426 12:51:49.079212 14069 net.cpp:84] Creating Layer conv0
I0426 12:51:49.079237 14069 net.cpp:406] conv0 <- data
I0426 12:51:49.079244 14069 net.cpp:380] conv0 -> conv0
I0426 12:51:49.079546 14069 net.cpp:122] Setting up conv0
I0426 12:51:49.079552 14069 net.cpp:129] Top shape: 1000 100 32 32 (102400000)
I0426 12:51:49.079555 14069 net.cpp:137] Memory required for data: 421900000
I0426 12:51:49.079562 14069 layer_factory.hpp:77] Creating layer Sigmoid0
I0426 12:51:49.079589 14069 net.cpp:84] Creating Layer Sigmoid0
I0426 12:51:49.079591 14069 net.cpp:406] Sigmoid0 <- conv0
I0426 12:51:49.079596 14069 net.cpp:380] Sigmoid0 -> Sigmoid0
I0426 12:51:49.079641 14069 net.cpp:122] Setting up Sigmoid0
I0426 12:51:49.079645 14069 net.cpp:129] Top shape: 1000 100 32 32 (102400000)
I0426 12:51:49.079648 14069 net.cpp:137] Memory required for data: 831500000
I0426 12:51:49.079649 14069 layer_factory.hpp:77] Creating layer pool0
I0426 12:51:49.079656 14069 net.cpp:84] Creating Layer pool0
I0426 12:51:49.079659 14069 net.cpp:406] pool0 <- Sigmoid0
I0426 12:51:49.079663 14069 net.cpp:380] pool0 -> pool0
I0426 12:51:49.079680 14069 net.cpp:122] Setting up pool0
I0426 12:51:49.079685 14069 net.cpp:129] Top shape: 1000 100 16 16 (25600000)
I0426 12:51:49.079687 14069 net.cpp:137] Memory required for data: 933900000
I0426 12:51:49.079704 14069 layer_factory.hpp:77] Creating layer conv1
I0426 12:51:49.079757 14069 net.cpp:84] Creating Layer conv1
I0426 12:51:49.079761 14069 net.cpp:406] conv1 <- pool0
I0426 12:51:49.079782 14069 net.cpp:380] conv1 -> conv1
I0426 12:51:49.082423 14069 net.cpp:122] Setting up conv1
I0426 12:51:49.082434 14069 net.cpp:129] Top shape: 1000 100 16 16 (25600000)
I0426 12:51:49.082437 14069 net.cpp:137] Memory required for data: 1036300000
I0426 12:51:49.082445 14069 layer_factory.hpp:77] Creating layer Sigmoid1
I0426 12:51:49.082469 14069 net.cpp:84] Creating Layer Sigmoid1
I0426 12:51:49.082471 14069 net.cpp:406] Sigmoid1 <- conv1
I0426 12:51:49.082475 14069 net.cpp:380] Sigmoid1 -> Sigmoid1
I0426 12:51:49.082494 14069 net.cpp:122] Setting up Sigmoid1
I0426 12:51:49.082499 14069 net.cpp:129] Top shape: 1000 100 16 16 (25600000)
I0426 12:51:49.082500 14069 net.cpp:137] Memory required for data: 1138700000
I0426 12:51:49.082502 14069 layer_factory.hpp:77] Creating layer pool1
I0426 12:51:49.082526 14069 net.cpp:84] Creating Layer pool1
I0426 12:51:49.082547 14069 net.cpp:406] pool1 <- Sigmoid1
I0426 12:51:49.082551 14069 net.cpp:380] pool1 -> pool1
I0426 12:51:49.082567 14069 net.cpp:122] Setting up pool1
I0426 12:51:49.082572 14069 net.cpp:129] Top shape: 1000 100 8 8 (6400000)
I0426 12:51:49.082574 14069 net.cpp:137] Memory required for data: 1164300000
I0426 12:51:49.082576 14069 layer_factory.hpp:77] Creating layer conv2
I0426 12:51:49.082586 14069 net.cpp:84] Creating Layer conv2
I0426 12:51:49.082589 14069 net.cpp:406] conv2 <- pool1
I0426 12:51:49.082594 14069 net.cpp:380] conv2 -> conv2
I0426 12:51:49.085142 14069 net.cpp:122] Setting up conv2
I0426 12:51:49.085152 14069 net.cpp:129] Top shape: 1000 100 8 8 (6400000)
I0426 12:51:49.085155 14069 net.cpp:137] Memory required for data: 1189900000
I0426 12:51:49.085162 14069 layer_factory.hpp:77] Creating layer Sigmoid2
I0426 12:51:49.085186 14069 net.cpp:84] Creating Layer Sigmoid2
I0426 12:51:49.085188 14069 net.cpp:406] Sigmoid2 <- conv2
I0426 12:51:49.085194 14069 net.cpp:380] Sigmoid2 -> Sigmoid2
I0426 12:51:49.085212 14069 net.cpp:122] Setting up Sigmoid2
I0426 12:51:49.085217 14069 net.cpp:129] Top shape: 1000 100 8 8 (6400000)
I0426 12:51:49.085218 14069 net.cpp:137] Memory required for data: 1215500000
I0426 12:51:49.085222 14069 layer_factory.hpp:77] Creating layer pool2
I0426 12:51:49.085229 14069 net.cpp:84] Creating Layer pool2
I0426 12:51:49.085233 14069 net.cpp:406] pool2 <- Sigmoid2
I0426 12:51:49.085237 14069 net.cpp:380] pool2 -> pool2
I0426 12:51:49.085253 14069 net.cpp:122] Setting up pool2
I0426 12:51:49.085258 14069 net.cpp:129] Top shape: 1000 100 4 4 (1600000)
I0426 12:51:49.085259 14069 net.cpp:137] Memory required for data: 1221900000
I0426 12:51:49.085261 14069 layer_factory.hpp:77] Creating layer ip1
I0426 12:51:49.085280 14069 net.cpp:84] Creating Layer ip1
I0426 12:51:49.085283 14069 net.cpp:406] ip1 <- pool2
I0426 12:51:49.085289 14069 net.cpp:380] ip1 -> ip1
I0426 12:51:49.085566 14069 net.cpp:122] Setting up ip1
I0426 12:51:49.085572 14069 net.cpp:129] Top shape: 1000 10 (10000)
I0426 12:51:49.085573 14069 net.cpp:137] Memory required for data: 1221940000
I0426 12:51:49.085577 14069 layer_factory.hpp:77] Creating layer ip1_ip1_0_split
I0426 12:51:49.085580 14069 net.cpp:84] Creating Layer ip1_ip1_0_split
I0426 12:51:49.085584 14069 net.cpp:406] ip1_ip1_0_split <- ip1
I0426 12:51:49.085608 14069 net.cpp:380] ip1_ip1_0_split -> ip1_ip1_0_split_0
I0426 12:51:49.085613 14069 net.cpp:380] ip1_ip1_0_split -> ip1_ip1_0_split_1
I0426 12:51:49.085638 14069 net.cpp:122] Setting up ip1_ip1_0_split
I0426 12:51:49.085657 14069 net.cpp:129] Top shape: 1000 10 (10000)
I0426 12:51:49.085660 14069 net.cpp:129] Top shape: 1000 10 (10000)
I0426 12:51:49.085661 14069 net.cpp:137] Memory required for data: 1222020000
I0426 12:51:49.085664 14069 layer_factory.hpp:77] Creating layer accuracy
I0426 12:51:49.085681 14069 net.cpp:84] Creating Layer accuracy
I0426 12:51:49.085685 14069 net.cpp:406] accuracy <- ip1_ip1_0_split_0
I0426 12:51:49.085707 14069 net.cpp:406] accuracy <- label_cifar_1_split_0
I0426 12:51:49.085722 14069 net.cpp:380] accuracy -> accuracy
…
