…
I0426 10:32:15.795426 12028 net.cpp:294] The NetState phase (0) differed from the phase (1) specified by a rule in layer cifar
I0426 10:32:15.795454 12028 net.cpp:294] The NetState phase (0) differed from the phase (1) specified by a rule in layer accuracy
I0426 10:32:15.795605 12028 net.cpp:51] Initializing net from parameters: 
name: "CIFAR"
state {
  phase: TRAIN
  level: 0
  stage: ""
}
layer {
  name: "cifar"
  type: "Data"
  top: "data"
  top: "label"
  include {
    phase: TRAIN
  }
  transform_param {
    mean_file: "examples/cifar10/mean.binaryproto"
  }
  data_param {
    source: "examples/cifar10/cifar10_train_lmdb"
    batch_size: 111
    backend: LMDB
  }
}
layer {
  name: "conv0"
  type: "Convolution"
  bottom: "data"
  top: "conv0"
  param {
    lr_mult: 1
  }
  param {
    lr_mult: 2
  }
  convolution_param {
    num_output: 10
    pad: 2
    kernel_size: 5
    stride: 1
    weight_filler {
      type: "gaussian"
      std: 0.01
    }
    bias_filler {
      type: "constant"
    }
  }
}
layer {
  name: "Sigmoid0"
  type: "Sigmoid"
  bottom: "conv0"
  top: "Sigmoid0"
}
layer {
  name: "pool0"
  type: "Pooling"
  bottom: "Sigmoid0"
  top: "pool0"
  pooling_param {
    pool: AVE
    kernel_size: 3
    stride: 2
  }
}
layer {
  name: "conv1"
  type: "Convolution"
  bottom: "pool0"
  top: "conv1"
  param {
    lr_mult: 1
  }
  param {
    lr_mult: 2
  }
  convolution_param {
    num_output: 10
    pad: 2
    kernel_size: 5
    stride: 1
    weight_filler {
      type: "gaussian"
      std: 0.01
    }
    bias_filler {
      type: "constant"
    }
  }
}
layer {
  name: "Sigmoid1"
  type: "Sigmoid"
  bottom: "conv1"
  top: "Sigmoid1"
}
layer {
  name: "pool1"
  type: "Pooling"
  bottom: "Sigmoid1"
  top: "pool1"
  pooling_param {
    pool: AVE
    kernel_size: 3
    stride: 2
  }
}
layer {
  name: "conv2"
  type: "Convolution"
  bottom: "pool1"
  top: "conv2"
  param {
    lr_mult: 1
  }
  param {
    lr_mult: 2
  }
  convolution_param {
    num_output: 10
    pad: 2
    kernel_size: 5
    stride: 1
    weight_filler {
      type: "gaussian"
      std: 0.01
    }
    bias_filler {
      type: "constant"
    }
  }
}
layer {
  name: "Sigmoid2"
  type: "Sigmoid"
  bottom: "conv2"
  top: "Sigmoid2"
}
layer {
  name: "pool2"
  type: "Pooling"
  bottom: "Sigmoid2"
  top: "pool2"
  pooling_param {
    pool: AVE
    kernel_size: 3
    stride: 2
  }
}
layer {
  name: "ip1"
  type: "InnerProduct"
  bottom: "pool2"
  top: "ip1"
  param {
    lr_mult: 1
  }
  param {
    lr_mult: 2
  }
  inner_product_param {
    num_output: 10
    weight_filler {
      type: "gaussian"
      std: 0.01
    }
    bias_filler {
      type: "constant"
    }
  }
}
layer {
  name: "loss"
  type: "SoftmaxWithLoss"
  bottom: "ip1"
  bottom: "label"
  top: "loss"
}
I0426 10:32:15.795683 12028 layer_factory.hpp:77] Creating layer cifar
I0426 10:32:15.795831 12028 db_lmdb.cpp:35] Opened lmdb examples/cifar10/cifar10_train_lmdb
I0426 10:32:15.795892 12028 net.cpp:84] Creating Layer cifar
I0426 10:32:15.795900 12028 net.cpp:380] cifar -> data
I0426 10:32:15.795953 12028 net.cpp:380] cifar -> label
I0426 10:32:15.795963 12028 data_transformer.cpp:25] Loading mean file from: examples/cifar10/mean.binaryproto
I0426 10:32:15.796746 12028 data_layer.cpp:45] output data size: 111,3,32,32
I0426 10:32:15.800565 12028 net.cpp:122] Setting up cifar
I0426 10:32:15.800598 12028 net.cpp:129] Top shape: 111 3 32 32 (340992)
I0426 10:32:15.800637 12028 net.cpp:129] Top shape: 111 (111)
I0426 10:32:15.800639 12028 net.cpp:137] Memory required for data: 1364412
I0426 10:32:15.800664 12028 layer_factory.hpp:77] Creating layer conv0
I0426 10:32:15.800724 12028 net.cpp:84] Creating Layer conv0
I0426 10:32:15.800757 12028 net.cpp:406] conv0 <- data
I0426 10:32:15.800768 12028 net.cpp:380] conv0 -> conv0
I0426 10:32:15.801290 12028 net.cpp:122] Setting up conv0
I0426 10:32:15.801319 12028 net.cpp:129] Top shape: 111 10 32 32 (1136640)
I0426 10:32:15.801321 12028 net.cpp:137] Memory required for data: 5910972
I0426 10:32:15.801369 12028 layer_factory.hpp:77] Creating layer Sigmoid0
I0426 10:32:15.801376 12028 net.cpp:84] Creating Layer Sigmoid0
I0426 10:32:15.801395 12028 net.cpp:406] Sigmoid0 <- conv0
I0426 10:32:15.801399 12028 net.cpp:380] Sigmoid0 -> Sigmoid0
I0426 10:32:15.801486 12028 net.cpp:122] Setting up Sigmoid0
I0426 10:32:15.801507 12028 net.cpp:129] Top shape: 111 10 32 32 (1136640)
I0426 10:32:15.801509 12028 net.cpp:137] Memory required for data: 10457532
I0426 10:32:15.801512 12028 layer_factory.hpp:77] Creating layer pool0
I0426 10:32:15.801535 12028 net.cpp:84] Creating Layer pool0
I0426 10:32:15.801537 12028 net.cpp:406] pool0 <- Sigmoid0
I0426 10:32:15.801561 12028 net.cpp:380] pool0 -> pool0
I0426 10:32:15.801666 12028 net.cpp:122] Setting up pool0
I0426 10:32:15.801671 12028 net.cpp:129] Top shape: 111 10 16 16 (284160)
I0426 10:32:15.801672 12028 net.cpp:137] Memory required for data: 11594172
I0426 10:32:15.801693 12028 layer_factory.hpp:77] Creating layer conv1
I0426 10:32:15.801700 12028 net.cpp:84] Creating Layer conv1
I0426 10:32:15.801703 12028 net.cpp:406] conv1 <- pool0
I0426 10:32:15.801728 12028 net.cpp:380] conv1 -> conv1
I0426 10:32:15.802199 12028 net.cpp:122] Setting up conv1
I0426 10:32:15.802227 12028 net.cpp:129] Top shape: 111 10 16 16 (284160)
I0426 10:32:15.802229 12028 net.cpp:137] Memory required for data: 12730812
I0426 10:32:15.802237 12028 layer_factory.hpp:77] Creating layer Sigmoid1
I0426 10:32:15.802242 12028 net.cpp:84] Creating Layer Sigmoid1
I0426 10:32:15.802244 12028 net.cpp:406] Sigmoid1 <- conv1
I0426 10:32:15.802248 12028 net.cpp:380] Sigmoid1 -> Sigmoid1
I0426 10:32:15.802281 12028 net.cpp:122] Setting up Sigmoid1
I0426 10:32:15.802301 12028 net.cpp:129] Top shape: 111 10 16 16 (284160)
I0426 10:32:15.802304 12028 net.cpp:137] Memory required for data: 13867452
I0426 10:32:15.802305 12028 layer_factory.hpp:77] Creating layer pool1
I0426 10:32:15.802323 12028 net.cpp:84] Creating Layer pool1
I0426 10:32:15.802325 12028 net.cpp:406] pool1 <- Sigmoid1
I0426 10:32:15.802330 12028 net.cpp:380] pool1 -> pool1
I0426 10:32:15.802376 12028 net.cpp:122] Setting up pool1
I0426 10:32:15.802395 12028 net.cpp:129] Top shape: 111 10 8 8 (71040)
I0426 10:32:15.802398 12028 net.cpp:137] Memory required for data: 14151612
I0426 10:32:15.802400 12028 layer_factory.hpp:77] Creating layer conv2
I0426 10:32:15.802409 12028 net.cpp:84] Creating Layer conv2
I0426 10:32:15.802413 12028 net.cpp:406] conv2 <- pool1
I0426 10:32:15.802434 12028 net.cpp:380] conv2 -> conv2
I0426 10:32:15.802726 12028 net.cpp:122] Setting up conv2
I0426 10:32:15.802732 12028 net.cpp:129] Top shape: 111 10 8 8 (71040)
I0426 10:32:15.802752 12028 net.cpp:137] Memory required for data: 14435772
I0426 10:32:15.802758 12028 layer_factory.hpp:77] Creating layer Sigmoid2
I0426 10:32:15.802763 12028 net.cpp:84] Creating Layer Sigmoid2
I0426 10:32:15.802783 12028 net.cpp:406] Sigmoid2 <- conv2
I0426 10:32:15.802791 12028 net.cpp:380] Sigmoid2 -> Sigmoid2
I0426 10:32:15.802826 12028 net.cpp:122] Setting up Sigmoid2
I0426 10:32:15.802831 12028 net.cpp:129] Top shape: 111 10 8 8 (71040)
I0426 10:32:15.802852 12028 net.cpp:137] Memory required for data: 14719932
I0426 10:32:15.802855 12028 layer_factory.hpp:77] Creating layer pool2
I0426 10:32:15.802857 12028 net.cpp:84] Creating Layer pool2
I0426 10:32:15.802878 12028 net.cpp:406] pool2 <- Sigmoid2
I0426 10:32:15.802881 12028 net.cpp:380] pool2 -> pool2
I0426 10:32:15.802934 12028 net.cpp:122] Setting up pool2
I0426 10:32:15.802964 12028 net.cpp:129] Top shape: 111 10 4 4 (17760)
I0426 10:32:15.802966 12028 net.cpp:137] Memory required for data: 14790972
I0426 10:32:15.802968 12028 layer_factory.hpp:77] Creating layer ip1
I0426 10:32:15.802994 12028 net.cpp:84] Creating Layer ip1
I0426 10:32:15.802997 12028 net.cpp:406] ip1 <- pool2
I0426 10:32:15.803014 12028 net.cpp:380] ip1 -> ip1
I0426 10:32:15.803146 12028 net.cpp:122] Setting up ip1
I0426 10:32:15.803151 12028 net.cpp:129] Top shape: 111 10 (1110)
I0426 10:32:15.803154 12028 net.cpp:137] Memory required for data: 14795412
I0426 10:32:15.803161 12028 layer_factory.hpp:77] Creating layer loss
I0426 10:32:15.803169 12028 net.cpp:84] Creating Layer loss
I0426 10:32:15.803185 12028 net.cpp:406] loss <- ip1
I0426 10:32:15.803189 12028 net.cpp:406] loss <- label
I0426 10:32:15.803210 12028 net.cpp:380] loss -> loss
I0426 10:32:15.803220 12028 layer_factory.hpp:77] Creating layer loss
…
I0426 10:32:15.803686 12028 solver.cpp:173] Creating test net (#0) specified by net file: ECE595/cifar/train_test/var_num_feature_maxiter20000/cifar_train_test_featuresize10.prototxt
I0426 10:32:15.803704 12028 net.cpp:294] The NetState phase (1) differed from the phase (0) specified by a rule in layer cifar
I0426 10:32:15.803818 12028 net.cpp:51] Initializing net from parameters: 
name: "CIFAR"
state {
  phase: TEST
}
layer {
  name: "cifar"
  type: "Data"
  top: "data"
  top: "label"
  include {
    phase: TEST
  }
  transform_param {
    mean_file: "examples/cifar10/mean.binaryproto"
  }
  data_param {
    source: "examples/cifar10/cifar10_test_lmdb"
    batch_size: 1000
    backend: LMDB
  }
}
layer {
  name: "conv0"
  type: "Convolution"
  bottom: "data"
  top: "conv0"
  param {
    lr_mult: 1
  }
  param {
    lr_mult: 2
  }
  convolution_param {
    num_output: 10
    pad: 2
    kernel_size: 5
    stride: 1
    weight_filler {
      type: "gaussian"
      std: 0.01
    }
    bias_filler {
      type: "constant"
    }
  }
}
layer {
  name: "Sigmoid0"
  type: "Sigmoid"
  bottom: "conv0"
  top: "Sigmoid0"
}
layer {
  name: "pool0"
  type: "Pooling"
  bottom: "Sigmoid0"
  top: "pool0"
  pooling_param {
    pool: AVE
    kernel_size: 3
    stride: 2
  }
}
layer {
  name: "conv1"
  type: "Convolution"
  bottom: "pool0"
  top: "conv1"
  param {
    lr_mult: 1
  }
  param {
    lr_mult: 2
  }
  convolution_param {
    num_output: 10
    pad: 2
    kernel_size: 5
    stride: 1
    weight_filler {
      type: "gaussian"
      std: 0.01
    }
    bias_filler {
      type: "constant"
    }
  }
}
layer {
  name: "Sigmoid1"
  type: "Sigmoid"
  bottom: "conv1"
  top: "Sigmoid1"
}
layer {
  name: "pool1"
  type: "Pooling"
  bottom: "Sigmoid1"
  top: "pool1"
  pooling_param {
    pool: AVE
    kernel_size: 3
    stride: 2
  }
}
layer {
  name: "conv2"
  type: "Convolution"
  bottom: "pool1"
  top: "conv2"
  param {
    lr_mult: 1
  }
  param {
    lr_mult: 2
  }
  convolution_param {
    num_output: 10
    pad: 2
    kernel_size: 5
    stride: 1
    weight_filler {
      type: "gaussian"
      std: 0.01
    }
    bias_filler {
      type: "constant"
    }
  }
}
layer {
  name: "Sigmoid2"
  type: "Sigmoid"
  bottom: "conv2"
  top: "Sigmoid2"
}
layer {
  name: "pool2"
  type: "Pooling"
  bottom: "Sigmoid2"
  top: "pool2"
  pooling_param {
    pool: AVE
    kernel_size: 3
    stride: 2
  }
}
layer {
  name: "ip1"
  type: "InnerProduct"
  bottom: "pool2"
  top: "ip1"
  param {
    lr_mult: 1
  }
  param {
    lr_mult: 2
  }
  inner_product_param {
    num_output: 10
    weight_filler {
      type: "gaussian"
      std: 0.01
    }
    bias_filler {
      type: "constant"
    }
  }
}
layer {
  name: "accuracy"
  type: "Accuracy"
  bottom: "ip1"
  bottom: "label"
  top: "accuracy"
  include {
    phase: TEST
  }
}
layer {
  name: "loss"
  type: "SoftmaxWithLoss"
  bottom: "ip1"
  bottom: "label"
  top: "loss"
}
I0426 10:32:15.803923 12028 layer_factory.hpp:77] Creating layer cifar
I0426 10:32:15.803970 12028 db_lmdb.cpp:35] Opened lmdb examples/cifar10/cifar10_test_lmdb
I0426 10:32:15.803982 12028 net.cpp:84] Creating Layer cifar
I0426 10:32:15.804002 12028 net.cpp:380] cifar -> data
I0426 10:32:15.804023 12028 net.cpp:380] cifar -> label
I0426 10:32:15.804028 12028 data_transformer.cpp:25] Loading mean file from: examples/cifar10/mean.binaryproto
I0426 10:32:15.804352 12028 data_layer.cpp:45] output data size: 1000,3,32,32
I0426 10:32:15.831221 12028 net.cpp:122] Setting up cifar
I0426 10:32:15.831243 12028 net.cpp:129] Top shape: 1000 3 32 32 (3072000)
I0426 10:32:15.831245 12028 net.cpp:129] Top shape: 1000 (1000)
I0426 10:32:15.831248 12028 net.cpp:137] Memory required for data: 12292000
I0426 10:32:15.831270 12028 layer_factory.hpp:77] Creating layer label_cifar_1_split
I0426 10:32:15.831282 12028 net.cpp:84] Creating Layer label_cifar_1_split
I0426 10:32:15.831285 12028 net.cpp:406] label_cifar_1_split <- label
I0426 10:32:15.831291 12028 net.cpp:380] label_cifar_1_split -> label_cifar_1_split_0
I0426 10:32:15.831336 12028 net.cpp:380] label_cifar_1_split -> label_cifar_1_split_1
I0426 10:32:15.831466 12028 net.cpp:122] Setting up label_cifar_1_split
I0426 10:32:15.831471 12028 net.cpp:129] Top shape: 1000 (1000)
I0426 10:32:15.831492 12028 net.cpp:129] Top shape: 1000 (1000)
I0426 10:32:15.831495 12028 net.cpp:137] Memory required for data: 12300000
I0426 10:32:15.831497 12028 layer_factory.hpp:77] Creating layer conv0
I0426 10:32:15.831508 12028 net.cpp:84] Creating Layer conv0
I0426 10:32:15.831511 12028 net.cpp:406] conv0 <- data
I0426 10:32:15.831535 12028 net.cpp:380] conv0 -> conv0
I0426 10:32:15.831784 12028 net.cpp:122] Setting up conv0
I0426 10:32:15.831789 12028 net.cpp:129] Top shape: 1000 10 32 32 (10240000)
I0426 10:32:15.831809 12028 net.cpp:137] Memory required for data: 53260000
I0426 10:32:15.831817 12028 layer_factory.hpp:77] Creating layer Sigmoid0
I0426 10:32:15.831821 12028 net.cpp:84] Creating Layer Sigmoid0
I0426 10:32:15.831823 12028 net.cpp:406] Sigmoid0 <- conv0
I0426 10:32:15.831827 12028 net.cpp:380] Sigmoid0 -> Sigmoid0
I0426 10:32:15.831879 12028 net.cpp:122] Setting up Sigmoid0
I0426 10:32:15.831883 12028 net.cpp:129] Top shape: 1000 10 32 32 (10240000)
I0426 10:32:15.831885 12028 net.cpp:137] Memory required for data: 94220000
I0426 10:32:15.831887 12028 layer_factory.hpp:77] Creating layer pool0
I0426 10:32:15.831892 12028 net.cpp:84] Creating Layer pool0
I0426 10:32:15.831894 12028 net.cpp:406] pool0 <- Sigmoid0
I0426 10:32:15.831917 12028 net.cpp:380] pool0 -> pool0
I0426 10:32:15.831964 12028 net.cpp:122] Setting up pool0
I0426 10:32:15.831969 12028 net.cpp:129] Top shape: 1000 10 16 16 (2560000)
I0426 10:32:15.831969 12028 net.cpp:137] Memory required for data: 104460000
I0426 10:32:15.831971 12028 layer_factory.hpp:77] Creating layer conv1
I0426 10:32:15.831996 12028 net.cpp:84] Creating Layer conv1
I0426 10:32:15.832025 12028 net.cpp:406] conv1 <- pool0
I0426 10:32:15.832029 12028 net.cpp:380] conv1 -> conv1
I0426 10:32:15.832228 12028 net.cpp:122] Setting up conv1
I0426 10:32:15.832233 12028 net.cpp:129] Top shape: 1000 10 16 16 (2560000)
I0426 10:32:15.832237 12028 net.cpp:137] Memory required for data: 114700000
I0426 10:32:15.832254 12028 layer_factory.hpp:77] Creating layer Sigmoid1
I0426 10:32:15.832278 12028 net.cpp:84] Creating Layer Sigmoid1
I0426 10:32:15.832281 12028 net.cpp:406] Sigmoid1 <- conv1
I0426 10:32:15.832285 12028 net.cpp:380] Sigmoid1 -> Sigmoid1
I0426 10:32:15.832316 12028 net.cpp:122] Setting up Sigmoid1
I0426 10:32:15.832336 12028 net.cpp:129] Top shape: 1000 10 16 16 (2560000)
I0426 10:32:15.832339 12028 net.cpp:137] Memory required for data: 124940000
I0426 10:32:15.832341 12028 layer_factory.hpp:77] Creating layer pool1
I0426 10:32:15.832362 12028 net.cpp:84] Creating Layer pool1
I0426 10:32:15.832365 12028 net.cpp:406] pool1 <- Sigmoid1
I0426 10:32:15.832368 12028 net.cpp:380] pool1 -> pool1
I0426 10:32:15.832398 12028 net.cpp:122] Setting up pool1
I0426 10:32:15.832419 12028 net.cpp:129] Top shape: 1000 10 8 8 (640000)
I0426 10:32:15.832420 12028 net.cpp:137] Memory required for data: 127500000
I0426 10:32:15.832422 12028 layer_factory.hpp:77] Creating layer conv2
I0426 10:32:15.832448 12028 net.cpp:84] Creating Layer conv2
I0426 10:32:15.832469 12028 net.cpp:406] conv2 <- pool1
I0426 10:32:15.832473 12028 net.cpp:380] conv2 -> conv2
I0426 10:32:15.834636 12028 net.cpp:122] Setting up conv2
I0426 10:32:15.834642 12028 net.cpp:129] Top shape: 1000 10 8 8 (640000)
I0426 10:32:15.834645 12028 net.cpp:137] Memory required for data: 130060000
I0426 10:32:15.834651 12028 layer_factory.hpp:77] Creating layer Sigmoid2
I0426 10:32:15.834656 12028 net.cpp:84] Creating Layer Sigmoid2
I0426 10:32:15.834659 12028 net.cpp:406] Sigmoid2 <- conv2
I0426 10:32:15.834681 12028 net.cpp:380] Sigmoid2 -> Sigmoid2
I0426 10:32:15.834695 12028 net.cpp:122] Setting up Sigmoid2
I0426 10:32:15.834700 12028 net.cpp:129] Top shape: 1000 10 8 8 (640000)
I0426 10:32:15.834703 12028 net.cpp:137] Memory required for data: 132620000
I0426 10:32:15.834704 12028 layer_factory.hpp:77] Creating layer pool2
I0426 10:32:15.834708 12028 net.cpp:84] Creating Layer pool2
I0426 10:32:15.834710 12028 net.cpp:406] pool2 <- Sigmoid2
I0426 10:32:15.834729 12028 net.cpp:380] pool2 -> pool2
I0426 10:32:15.834744 12028 net.cpp:122] Setting up pool2
I0426 10:32:15.834749 12028 net.cpp:129] Top shape: 1000 10 4 4 (160000)
I0426 10:32:15.834751 12028 net.cpp:137] Memory required for data: 133260000
I0426 10:32:15.834753 12028 layer_factory.hpp:77] Creating layer ip1
I0426 10:32:15.834758 12028 net.cpp:84] Creating Layer ip1
I0426 10:32:15.834760 12028 net.cpp:406] ip1 <- pool2
I0426 10:32:15.834764 12028 net.cpp:380] ip1 -> ip1
I0426 10:32:15.834868 12028 net.cpp:122] Setting up ip1
I0426 10:32:15.834873 12028 net.cpp:129] Top shape: 1000 10 (10000)
I0426 10:32:15.834875 12028 net.cpp:137] Memory required for data: 133300000
I0426 10:32:15.834878 12028 layer_factory.hpp:77] Creating layer ip1_ip1_0_split
I0426 10:32:15.834884 12028 net.cpp:84] Creating Layer ip1_ip1_0_split
I0426 10:32:15.834887 12028 net.cpp:406] ip1_ip1_0_split <- ip1
I0426 10:32:15.834890 12028 net.cpp:380] ip1_ip1_0_split -> ip1_ip1_0_split_0
I0426 10:32:15.834895 12028 net.cpp:380] ip1_ip1_0_split -> ip1_ip1_0_split_1
I0426 10:32:15.834959 12028 net.cpp:122] Setting up ip1_ip1_0_split
I0426 10:32:15.834961 12028 net.cpp:129] Top shape: 1000 10 (10000)
I0426 10:32:15.834964 12028 net.cpp:129] Top shape: 1000 10 (10000)
I0426 10:32:15.834966 12028 net.cpp:137] Memory required for data: 133380000
I0426 10:32:15.834969 12028 layer_factory.hpp:77] Creating layer accuracy
I0426 10:32:15.834974 12028 net.cpp:84] Creating Layer accuracy
I0426 10:32:15.834975 12028 net.cpp:406] accuracy <- ip1_ip1_0_split_0
I0426 10:32:15.834978 12028 net.cpp:406] accuracy <- label_cifar_1_split_0
I0426 10:32:15.834996 12028 net.cpp:380] accuracy -> accuracy
…
