…
I0408 13:23:59.581468 11169 net.cpp:294] The NetState phase (0) differed from the phase (1) specified by a rule in layer mnist
I0408 13:23:59.581482 11169 net.cpp:294] The NetState phase (0) differed from the phase (1) specified by a rule in layer accuracy
I0408 13:23:59.581588 11169 net.cpp:51] Initializing net from parameters: 
name: "LeNet"
state {
  phase: TRAIN
  level: 0
  stage: ""
}
layer {
  name: "mnist"
  type: "Data"
  top: "data"
  top: "label"
  include {
    phase: TRAIN
  }
  transform_param {
    scale: 0.00390625
  }
  data_param {
    source: "examples/mnist/mnist_train_lmdb"
    batch_size: 64
    backend: LMDB
  }
}
layer {
  name: "conv0"
  type: "Convolution"
  bottom: "data"
  top: "conv0"
  param {
    lr_mult: 1
  }
  param {
    lr_mult: 2
  }
  convolution_param {
    num_output: 50
    kernel_size: 5
    stride: 1
    weight_filler {
      type: "xavier"
    }
    bias_filler {
      type: "constant"
    }
  }
}
layer {
  name: "pool0"
  type: "Pooling"
  bottom: "conv0"
  top: "pool0"
  pooling_param {
    pool: MAX
    kernel_size: 2
    stride: 2
  }
}
layer {
  name: "conv1"
  type: "Convolution"
  bottom: "pool0"
  top: "conv1"
  param {
    lr_mult: 1
  }
  param {
    lr_mult: 2
  }
  convolution_param {
    num_output: 50
    kernel_size: 5
    stride: 1
    weight_filler {
      type: "xavier"
    }
    bias_filler {
      type: "constant"
    }
  }
}
layer {
  name: "pool1"
  type: "Pooling"
  bottom: "conv1"
  top: "pool1"
  pooling_param {
    pool: MAX
    kernel_size: 2
    stride: 2
  }
}
layer {
  name: "ip1"
  type: "InnerProduct"
  bottom: "pool1"
  top: "ip1"
  param {
    lr_mult: 1
  }
  param {
    lr_mult: 2
  }
  inner_product_param {
    num_output: 500
    weight_filler {
      type: "xavier"
    }
    bias_filler {
      type: "constant"
    }
  }
}
layer {
  name: "relu1"
  type: "ReLU"
  bottom: "ip1"
  top: "ip1"
}
layer {
  name: "ip2"
  type: "InnerProduct"
  bottom: "ip1"
  top: "ip2"
  param {
    lr_mult: 1
  }
  param {
    lr_mult: 2
  }
  inner_product_param {
    num_output: 500
    weight_filler {
      type: "xavier"
    }
    bias_filler {
      type: "constant"
    }
  }
}
layer {
  name: "relu2"
  type: "ReLU"
  bottom: "ip2"
  top: "ip2"
}
layer {
  name: "ip3"
  type: "InnerProduct"
  bottom: "ip2"
  top: "ip3"
  param {
    lr_mult: 1
  }
  param {
    lr_mult: 2
  }
  inner_product_param {
    num_output: 10
    weight_filler {
      type: "xavier"
    }
    bias_filler {
      type: "constant"
    }
  }
}
layer {
  name: "relu3"
  type: "ReLU"
  bottom: "ip3"
  top: "ip3"
}
layer {
  name: "loss"
  type: "SoftmaxWithLoss"
  bottom: "ip3"
  bottom: "label"
  top: "loss"
}
I0408 13:23:59.581682 11169 layer_factory.hpp:77] Creating layer mnist
I0408 13:23:59.581785 11169 db_lmdb.cpp:35] Opened lmdb examples/mnist/mnist_train_lmdb
I0408 13:23:59.581807 11169 net.cpp:84] Creating Layer mnist
I0408 13:23:59.581815 11169 net.cpp:380] mnist -> data
I0408 13:23:59.581835 11169 net.cpp:380] mnist -> label
I0408 13:23:59.582352 11169 data_layer.cpp:45] output data size: 64,1,28,28
I0408 13:23:59.583747 11169 net.cpp:122] Setting up mnist
I0408 13:23:59.583758 11169 net.cpp:129] Top shape: 64 1 28 28 (50176)
I0408 13:23:59.583776 11169 net.cpp:129] Top shape: 64 (64)
I0408 13:23:59.583781 11169 net.cpp:137] Memory required for data: 200960
I0408 13:23:59.583806 11169 layer_factory.hpp:77] Creating layer conv0
I0408 13:23:59.583868 11169 net.cpp:84] Creating Layer conv0
I0408 13:23:59.583891 11169 net.cpp:406] conv0 <- data
I0408 13:23:59.583904 11169 net.cpp:380] conv0 -> conv0
I0408 13:23:59.584877 11169 net.cpp:122] Setting up conv0
I0408 13:23:59.584900 11169 net.cpp:129] Top shape: 64 50 24 24 (1843200)
I0408 13:23:59.584903 11169 net.cpp:137] Memory required for data: 7573760
I0408 13:23:59.584934 11169 layer_factory.hpp:77] Creating layer pool0
I0408 13:23:59.584961 11169 net.cpp:84] Creating Layer pool0
I0408 13:23:59.584978 11169 net.cpp:406] pool0 <- conv0
I0408 13:23:59.584985 11169 net.cpp:380] pool0 -> pool0
I0408 13:23:59.585121 11169 net.cpp:122] Setting up pool0
I0408 13:23:59.585127 11169 net.cpp:129] Top shape: 64 50 12 12 (460800)
I0408 13:23:59.585130 11169 net.cpp:137] Memory required for data: 9416960
I0408 13:23:59.585134 11169 layer_factory.hpp:77] Creating layer conv1
I0408 13:23:59.585144 11169 net.cpp:84] Creating Layer conv1
I0408 13:23:59.585147 11169 net.cpp:406] conv1 <- pool0
I0408 13:23:59.585155 11169 net.cpp:380] conv1 -> conv1
I0408 13:23:59.586103 11169 net.cpp:122] Setting up conv1
I0408 13:23:59.586112 11169 net.cpp:129] Top shape: 64 50 8 8 (204800)
I0408 13:23:59.586115 11169 net.cpp:137] Memory required for data: 10236160
I0408 13:23:59.586123 11169 layer_factory.hpp:77] Creating layer pool1
I0408 13:23:59.586133 11169 net.cpp:84] Creating Layer pool1
I0408 13:23:59.586138 11169 net.cpp:406] pool1 <- conv1
I0408 13:23:59.586143 11169 net.cpp:380] pool1 -> pool1
I0408 13:23:59.586216 11169 net.cpp:122] Setting up pool1
I0408 13:23:59.586222 11169 net.cpp:129] Top shape: 64 50 4 4 (51200)
I0408 13:23:59.586239 11169 net.cpp:137] Memory required for data: 10440960
I0408 13:23:59.586243 11169 layer_factory.hpp:77] Creating layer ip1
I0408 13:23:59.586251 11169 net.cpp:84] Creating Layer ip1
I0408 13:23:59.586254 11169 net.cpp:406] ip1 <- pool1
I0408 13:23:59.586261 11169 net.cpp:380] ip1 -> ip1
I0408 13:23:59.588840 11169 net.cpp:122] Setting up ip1
I0408 13:23:59.588848 11169 net.cpp:129] Top shape: 64 500 (32000)
I0408 13:23:59.588851 11169 net.cpp:137] Memory required for data: 10568960
I0408 13:23:59.588863 11169 layer_factory.hpp:77] Creating layer relu1
I0408 13:23:59.588887 11169 net.cpp:84] Creating Layer relu1
I0408 13:23:59.588892 11169 net.cpp:406] relu1 <- ip1
I0408 13:23:59.588910 11169 net.cpp:367] relu1 -> ip1 (in-place)
I0408 13:23:59.588938 11169 net.cpp:122] Setting up relu1
I0408 13:23:59.588943 11169 net.cpp:129] Top shape: 64 500 (32000)
I0408 13:23:59.588945 11169 net.cpp:137] Memory required for data: 10696960
I0408 13:23:59.588964 11169 layer_factory.hpp:77] Creating layer ip2
I0408 13:23:59.588971 11169 net.cpp:84] Creating Layer ip2
I0408 13:23:59.588994 11169 net.cpp:406] ip2 <- ip1
I0408 13:23:59.588999 11169 net.cpp:380] ip2 -> ip2
I0408 13:23:59.590540 11169 net.cpp:122] Setting up ip2
I0408 13:23:59.590548 11169 net.cpp:129] Top shape: 64 500 (32000)
I0408 13:23:59.590551 11169 net.cpp:137] Memory required for data: 10824960
I0408 13:23:59.590575 11169 layer_factory.hpp:77] Creating layer relu2
I0408 13:23:59.590584 11169 net.cpp:84] Creating Layer relu2
I0408 13:23:59.590589 11169 net.cpp:406] relu2 <- ip2
I0408 13:23:59.590613 11169 net.cpp:367] relu2 -> ip2 (in-place)
I0408 13:23:59.590620 11169 net.cpp:122] Setting up relu2
I0408 13:23:59.590625 11169 net.cpp:129] Top shape: 64 500 (32000)
I0408 13:23:59.590626 11169 net.cpp:137] Memory required for data: 10952960
I0408 13:23:59.590643 11169 layer_factory.hpp:77] Creating layer ip3
I0408 13:23:59.590649 11169 net.cpp:84] Creating Layer ip3
I0408 13:23:59.590665 11169 net.cpp:406] ip3 <- ip2
I0408 13:23:59.590672 11169 net.cpp:380] ip3 -> ip3
I0408 13:23:59.591073 11169 net.cpp:122] Setting up ip3
I0408 13:23:59.591081 11169 net.cpp:129] Top shape: 64 10 (640)
I0408 13:23:59.591084 11169 net.cpp:137] Memory required for data: 10955520
I0408 13:23:59.591092 11169 layer_factory.hpp:77] Creating layer relu3
I0408 13:23:59.591099 11169 net.cpp:84] Creating Layer relu3
I0408 13:23:59.591104 11169 net.cpp:406] relu3 <- ip3
I0408 13:23:59.591140 11169 net.cpp:367] relu3 -> ip3 (in-place)
I0408 13:23:59.591146 11169 net.cpp:122] Setting up relu3
I0408 13:23:59.591152 11169 net.cpp:129] Top shape: 64 10 (640)
I0408 13:23:59.591156 11169 net.cpp:137] Memory required for data: 10958080
I0408 13:23:59.591158 11169 layer_factory.hpp:77] Creating layer loss
I0408 13:23:59.591164 11169 net.cpp:84] Creating Layer loss
I0408 13:23:59.591168 11169 net.cpp:406] loss <- ip3
I0408 13:23:59.591172 11169 net.cpp:406] loss <- label
I0408 13:23:59.591178 11169 net.cpp:380] loss -> loss
I0408 13:23:59.591204 11169 layer_factory.hpp:77] Creating layer loss
…
I0408 13:23:59.591555 11169 solver.cpp:173] Creating test net (#0) specified by net file: ECE595/mnist/train_test/var_fc_size/lenet_train_test_fcl3_fcn500.prototxt
I0408 13:23:59.591575 11169 net.cpp:294] The NetState phase (1) differed from the phase (0) specified by a rule in layer mnist
I0408 13:23:59.591670 11169 net.cpp:51] Initializing net from parameters: 
name: "LeNet"
state {
  phase: TEST
}
layer {
  name: "mnist"
  type: "Data"
  top: "data"
  top: "label"
  include {
    phase: TEST
  }
  transform_param {
    scale: 0.00390625
  }
  data_param {
    source: "examples/mnist/mnist_test_lmdb"
    batch_size: 100
    backend: LMDB
  }
}
layer {
  name: "conv0"
  type: "Convolution"
  bottom: "data"
  top: "conv0"
  param {
    lr_mult: 1
  }
  param {
    lr_mult: 2
  }
  convolution_param {
    num_output: 50
    kernel_size: 5
    stride: 1
    weight_filler {
      type: "xavier"
    }
    bias_filler {
      type: "constant"
    }
  }
}
layer {
  name: "pool0"
  type: "Pooling"
  bottom: "conv0"
  top: "pool0"
  pooling_param {
    pool: MAX
    kernel_size: 2
    stride: 2
  }
}
layer {
  name: "conv1"
  type: "Convolution"
  bottom: "pool0"
  top: "conv1"
  param {
    lr_mult: 1
  }
  param {
    lr_mult: 2
  }
  convolution_param {
    num_output: 50
    kernel_size: 5
    stride: 1
    weight_filler {
      type: "xavier"
    }
    bias_filler {
      type: "constant"
    }
  }
}
layer {
  name: "pool1"
  type: "Pooling"
  bottom: "conv1"
  top: "pool1"
  pooling_param {
    pool: MAX
    kernel_size: 2
    stride: 2
  }
}
layer {
  name: "ip1"
  type: "InnerProduct"
  bottom: "pool1"
  top: "ip1"
  param {
    lr_mult: 1
  }
  param {
    lr_mult: 2
  }
  inner_product_param {
    num_output: 500
    weight_filler {
      type: "xavier"
    }
    bias_filler {
      type: "constant"
    }
  }
}
layer {
  name: "relu1"
  type: "ReLU"
  bottom: "ip1"
  top: "ip1"
}
layer {
  name: "ip2"
  type: "InnerProduct"
  bottom: "ip1"
  top: "ip2"
  param {
    lr_mult: 1
  }
  param {
    lr_mult: 2
  }
  inner_product_param {
    num_output: 500
    weight_filler {
      type: "xavier"
    }
    bias_filler {
      type: "constant"
    }
  }
}
layer {
  name: "relu2"
  type: "ReLU"
  bottom: "ip2"
  top: "ip2"
}
layer {
  name: "ip3"
  type: "InnerProduct"
  bottom: "ip2"
  top: "ip3"
  param {
    lr_mult: 1
  }
  param {
    lr_mult: 2
  }
  inner_product_param {
    num_output: 10
    weight_filler {
      type: "xavier"
    }
    bias_filler {
      type: "constant"
    }
  }
}
layer {
  name: "relu3"
  type: "ReLU"
  bottom: "ip3"
  top: "ip3"
}
layer {
  name: "accuracy"
  type: "Accuracy"
  bottom: "ip3"
  bottom: "label"
  top: "accuracy"
  include {
    phase: TEST
  }
}
layer {
  name: "loss"
  type: "SoftmaxWithLoss"
  bottom: "ip3"
  bottom: "label"
  top: "loss"
}
I0408 13:23:59.591766 11169 layer_factory.hpp:77] Creating layer mnist
I0408 13:23:59.591814 11169 db_lmdb.cpp:35] Opened lmdb examples/mnist/mnist_test_lmdb
I0408 13:23:59.591826 11169 net.cpp:84] Creating Layer mnist
I0408 13:23:59.591831 11169 net.cpp:380] mnist -> data
I0408 13:23:59.591843 11169 net.cpp:380] mnist -> label
I0408 13:23:59.591931 11169 data_layer.cpp:45] output data size: 100,1,28,28
I0408 13:23:59.593633 11169 net.cpp:122] Setting up mnist
I0408 13:23:59.593653 11169 net.cpp:129] Top shape: 100 1 28 28 (78400)
I0408 13:23:59.593658 11169 net.cpp:129] Top shape: 100 (100)
I0408 13:23:59.593660 11169 net.cpp:137] Memory required for data: 314000
I0408 13:23:59.593678 11169 layer_factory.hpp:77] Creating layer label_mnist_1_split
I0408 13:23:59.593690 11169 net.cpp:84] Creating Layer label_mnist_1_split
I0408 13:23:59.593695 11169 net.cpp:406] label_mnist_1_split <- label
I0408 13:23:59.593701 11169 net.cpp:380] label_mnist_1_split -> label_mnist_1_split_0
I0408 13:23:59.593717 11169 net.cpp:380] label_mnist_1_split -> label_mnist_1_split_1
I0408 13:23:59.593791 11169 net.cpp:122] Setting up label_mnist_1_split
I0408 13:23:59.593809 11169 net.cpp:129] Top shape: 100 (100)
I0408 13:23:59.593813 11169 net.cpp:129] Top shape: 100 (100)
I0408 13:23:59.593816 11169 net.cpp:137] Memory required for data: 314800
I0408 13:23:59.593818 11169 layer_factory.hpp:77] Creating layer conv0
I0408 13:23:59.593844 11169 net.cpp:84] Creating Layer conv0
I0408 13:23:59.593847 11169 net.cpp:406] conv0 <- data
I0408 13:23:59.593854 11169 net.cpp:380] conv0 -> conv0
I0408 13:23:59.594075 11169 net.cpp:122] Setting up conv0
I0408 13:23:59.594082 11169 net.cpp:129] Top shape: 100 50 24 24 (2880000)
I0408 13:23:59.594085 11169 net.cpp:137] Memory required for data: 11834800
I0408 13:23:59.594095 11169 layer_factory.hpp:77] Creating layer pool0
I0408 13:23:59.594101 11169 net.cpp:84] Creating Layer pool0
I0408 13:23:59.594105 11169 net.cpp:406] pool0 <- conv0
I0408 13:23:59.594112 11169 net.cpp:380] pool0 -> pool0
I0408 13:23:59.594142 11169 net.cpp:122] Setting up pool0
I0408 13:23:59.594149 11169 net.cpp:129] Top shape: 100 50 12 12 (720000)
I0408 13:23:59.594154 11169 net.cpp:137] Memory required for data: 14714800
I0408 13:23:59.594157 11169 layer_factory.hpp:77] Creating layer conv1
I0408 13:23:59.594166 11169 net.cpp:84] Creating Layer conv1
I0408 13:23:59.594169 11169 net.cpp:406] conv1 <- pool0
I0408 13:23:59.594177 11169 net.cpp:380] conv1 -> conv1
I0408 13:23:59.594647 11169 net.cpp:122] Setting up conv1
I0408 13:23:59.594653 11169 net.cpp:129] Top shape: 100 50 8 8 (320000)
I0408 13:23:59.594657 11169 net.cpp:137] Memory required for data: 15994800
I0408 13:23:59.594666 11169 layer_factory.hpp:77] Creating layer pool1
I0408 13:23:59.594673 11169 net.cpp:84] Creating Layer pool1
I0408 13:23:59.594677 11169 net.cpp:406] pool1 <- conv1
I0408 13:23:59.594682 11169 net.cpp:380] pool1 -> pool1
I0408 13:23:59.594728 11169 net.cpp:122] Setting up pool1
I0408 13:23:59.594735 11169 net.cpp:129] Top shape: 100 50 4 4 (80000)
I0408 13:23:59.594738 11169 net.cpp:137] Memory required for data: 16314800
I0408 13:23:59.594741 11169 layer_factory.hpp:77] Creating layer ip1
I0408 13:23:59.594748 11169 net.cpp:84] Creating Layer ip1
I0408 13:23:59.594751 11169 net.cpp:406] ip1 <- pool1
I0408 13:23:59.594758 11169 net.cpp:380] ip1 -> ip1
I0408 13:23:59.597286 11169 net.cpp:122] Setting up ip1
I0408 13:23:59.597307 11169 net.cpp:129] Top shape: 100 500 (50000)
I0408 13:23:59.597311 11169 net.cpp:137] Memory required for data: 16514800
I0408 13:23:59.597339 11169 layer_factory.hpp:77] Creating layer relu1
I0408 13:23:59.597365 11169 net.cpp:84] Creating Layer relu1
I0408 13:23:59.597369 11169 net.cpp:406] relu1 <- ip1
I0408 13:23:59.597393 11169 net.cpp:367] relu1 -> ip1 (in-place)
I0408 13:23:59.597400 11169 net.cpp:122] Setting up relu1
I0408 13:23:59.597405 11169 net.cpp:129] Top shape: 100 500 (50000)
I0408 13:23:59.597409 11169 net.cpp:137] Memory required for data: 16714800
I0408 13:23:59.597411 11169 layer_factory.hpp:77] Creating layer ip2
I0408 13:23:59.597421 11169 net.cpp:84] Creating Layer ip2
I0408 13:23:59.597424 11169 net.cpp:406] ip2 <- ip1
I0408 13:23:59.597430 11169 net.cpp:380] ip2 -> ip2
I0408 13:23:59.599022 11169 net.cpp:122] Setting up ip2
I0408 13:23:59.599030 11169 net.cpp:129] Top shape: 100 500 (50000)
I0408 13:23:59.599033 11169 net.cpp:137] Memory required for data: 16914800
I0408 13:23:59.599040 11169 layer_factory.hpp:77] Creating layer relu2
I0408 13:23:59.599047 11169 net.cpp:84] Creating Layer relu2
I0408 13:23:59.599051 11169 net.cpp:406] relu2 <- ip2
I0408 13:23:59.599057 11169 net.cpp:367] relu2 -> ip2 (in-place)
I0408 13:23:59.599063 11169 net.cpp:122] Setting up relu2
I0408 13:23:59.599069 11169 net.cpp:129] Top shape: 100 500 (50000)
I0408 13:23:59.599072 11169 net.cpp:137] Memory required for data: 17114800
I0408 13:23:59.599076 11169 layer_factory.hpp:77] Creating layer ip3
I0408 13:23:59.599081 11169 net.cpp:84] Creating Layer ip3
I0408 13:23:59.599086 11169 net.cpp:406] ip3 <- ip2
I0408 13:23:59.599092 11169 net.cpp:380] ip3 -> ip3
I0408 13:23:59.599190 11169 net.cpp:122] Setting up ip3
I0408 13:23:59.599195 11169 net.cpp:129] Top shape: 100 10 (1000)
I0408 13:23:59.599198 11169 net.cpp:137] Memory required for data: 17118800
I0408 13:23:59.599207 11169 layer_factory.hpp:77] Creating layer relu3
I0408 13:23:59.599212 11169 net.cpp:84] Creating Layer relu3
I0408 13:23:59.599215 11169 net.cpp:406] relu3 <- ip3
I0408 13:23:59.599221 11169 net.cpp:367] relu3 -> ip3 (in-place)
I0408 13:23:59.599227 11169 net.cpp:122] Setting up relu3
I0408 13:23:59.599231 11169 net.cpp:129] Top shape: 100 10 (1000)
I0408 13:23:59.599234 11169 net.cpp:137] Memory required for data: 17122800
I0408 13:23:59.599238 11169 layer_factory.hpp:77] Creating layer ip3_relu3_0_split
I0408 13:23:59.599246 11169 net.cpp:84] Creating Layer ip3_relu3_0_split
I0408 13:23:59.599249 11169 net.cpp:406] ip3_relu3_0_split <- ip3
I0408 13:23:59.599254 11169 net.cpp:380] ip3_relu3_0_split -> ip3_relu3_0_split_0
I0408 13:23:59.599263 11169 net.cpp:380] ip3_relu3_0_split -> ip3_relu3_0_split_1
I0408 13:23:59.599290 11169 net.cpp:122] Setting up ip3_relu3_0_split
I0408 13:23:59.599295 11169 net.cpp:129] Top shape: 100 10 (1000)
I0408 13:23:59.599299 11169 net.cpp:129] Top shape: 100 10 (1000)
I0408 13:23:59.599303 11169 net.cpp:137] Memory required for data: 17130800
I0408 13:23:59.599305 11169 layer_factory.hpp:77] Creating layer accuracy
I0408 13:23:59.599313 11169 net.cpp:84] Creating Layer accuracy
I0408 13:23:59.599316 11169 net.cpp:406] accuracy <- ip3_relu3_0_split_0
I0408 13:23:59.599321 11169 net.cpp:406] accuracy <- label_mnist_1_split_0
I0408 13:23:59.599328 11169 net.cpp:380] accuracy -> accuracy
…
