…
I0408 12:01:45.647861 10081 net.cpp:294] The NetState phase (0) differed from the phase (1) specified by a rule in layer mnist
I0408 12:01:45.647889 10081 net.cpp:294] The NetState phase (0) differed from the phase (1) specified by a rule in layer accuracy
I0408 12:01:45.647994 10081 net.cpp:51] Initializing net from parameters: 
name: "LeNet"
state {
  phase: TRAIN
  level: 0
  stage: ""
}
layer {
  name: "mnist"
  type: "Data"
  top: "data"
  top: "label"
  include {
    phase: TRAIN
  }
  transform_param {
    scale: 0.00390625
  }
  data_param {
    source: "examples/mnist/mnist_train_lmdb"
    batch_size: 64
    backend: LMDB
  }
}
layer {
  name: "conv0"
  type: "Convolution"
  bottom: "data"
  top: "conv0"
  param {
    lr_mult: 1
  }
  param {
    lr_mult: 2
  }
  convolution_param {
    num_output: 50
    kernel_size: 5
    stride: 1
    weight_filler {
      type: "xavier"
    }
    bias_filler {
      type: "constant"
    }
  }
}
layer {
  name: "pool0"
  type: "Pooling"
  bottom: "conv0"
  top: "pool0"
  pooling_param {
    pool: MAX
    kernel_size: 2
    stride: 2
  }
}
layer {
  name: "conv1"
  type: "Convolution"
  bottom: "pool0"
  top: "conv1"
  param {
    lr_mult: 1
  }
  param {
    lr_mult: 2
  }
  convolution_param {
    num_output: 50
    kernel_size: 5
    stride: 1
    weight_filler {
      type: "xavier"
    }
    bias_filler {
      type: "constant"
    }
  }
}
layer {
  name: "pool1"
  type: "Pooling"
  bottom: "conv1"
  top: "pool1"
  pooling_param {
    pool: MAX
    kernel_size: 2
    stride: 2
  }
}
layer {
  name: "ip1"
  type: "InnerProduct"
  bottom: "pool1"
  top: "ip1"
  param {
    lr_mult: 1
  }
  param {
    lr_mult: 2
  }
  inner_product_param {
    num_output: 100
    weight_filler {
      type: "xavier"
    }
    bias_filler {
      type: "constant"
    }
  }
}
layer {
  name: "relu1"
  type: "ReLU"
  bottom: "ip1"
  top: "ip1"
}
layer {
  name: "ip2"
  type: "InnerProduct"
  bottom: "ip1"
  top: "ip2"
  param {
    lr_mult: 1
  }
  param {
    lr_mult: 2
  }
  inner_product_param {
    num_output: 10
    weight_filler {
      type: "xavier"
    }
    bias_filler {
      type: "constant"
    }
  }
}
layer {
  name: "relu2"
  type: "ReLU"
  bottom: "ip2"
  top: "ip2"
}
layer {
  name: "loss"
  type: "SoftmaxWithLoss"
  bottom: "ip2"
  bottom: "label"
  top: "loss"
}
I0408 12:01:45.648083 10081 layer_factory.hpp:77] Creating layer mnist
I0408 12:01:45.648175 10081 db_lmdb.cpp:35] Opened lmdb examples/mnist/mnist_train_lmdb
I0408 12:01:45.648193 10081 net.cpp:84] Creating Layer mnist
I0408 12:01:45.648200 10081 net.cpp:380] mnist -> data
I0408 12:01:45.648214 10081 net.cpp:380] mnist -> label
I0408 12:01:45.648816 10081 data_layer.cpp:45] output data size: 64,1,28,28
I0408 12:01:45.650245 10081 net.cpp:122] Setting up mnist
I0408 12:01:45.650274 10081 net.cpp:129] Top shape: 64 1 28 28 (50176)
I0408 12:01:45.650277 10081 net.cpp:129] Top shape: 64 (64)
I0408 12:01:45.650279 10081 net.cpp:137] Memory required for data: 200960
I0408 12:01:45.650302 10081 layer_factory.hpp:77] Creating layer conv0
I0408 12:01:45.650315 10081 net.cpp:84] Creating Layer conv0
I0408 12:01:45.650319 10081 net.cpp:406] conv0 <- data
I0408 12:01:45.650331 10081 net.cpp:380] conv0 -> conv0
I0408 12:01:45.651383 10081 net.cpp:122] Setting up conv0
I0408 12:01:45.651406 10081 net.cpp:129] Top shape: 64 50 24 24 (1843200)
I0408 12:01:45.651407 10081 net.cpp:137] Memory required for data: 7573760
I0408 12:01:45.651453 10081 layer_factory.hpp:77] Creating layer pool0
I0408 12:01:45.651463 10081 net.cpp:84] Creating Layer pool0
I0408 12:01:45.651466 10081 net.cpp:406] pool0 <- conv0
I0408 12:01:45.651485 10081 net.cpp:380] pool0 -> pool0
I0408 12:01:45.651522 10081 net.cpp:122] Setting up pool0
I0408 12:01:45.651528 10081 net.cpp:129] Top shape: 64 50 12 12 (460800)
I0408 12:01:45.651530 10081 net.cpp:137] Memory required for data: 9416960
I0408 12:01:45.651532 10081 layer_factory.hpp:77] Creating layer conv1
I0408 12:01:45.651538 10081 net.cpp:84] Creating Layer conv1
I0408 12:01:45.651541 10081 net.cpp:406] conv1 <- pool0
I0408 12:01:45.651546 10081 net.cpp:380] conv1 -> conv1
I0408 12:01:45.652328 10081 net.cpp:122] Setting up conv1
I0408 12:01:45.652336 10081 net.cpp:129] Top shape: 64 50 8 8 (204800)
I0408 12:01:45.652339 10081 net.cpp:137] Memory required for data: 10236160
I0408 12:01:45.652345 10081 layer_factory.hpp:77] Creating layer pool1
I0408 12:01:45.652369 10081 net.cpp:84] Creating Layer pool1
I0408 12:01:45.652371 10081 net.cpp:406] pool1 <- conv1
I0408 12:01:45.652375 10081 net.cpp:380] pool1 -> pool1
I0408 12:01:45.652398 10081 net.cpp:122] Setting up pool1
I0408 12:01:45.652403 10081 net.cpp:129] Top shape: 64 50 4 4 (51200)
I0408 12:01:45.652406 10081 net.cpp:137] Memory required for data: 10440960
I0408 12:01:45.652410 10081 layer_factory.hpp:77] Creating layer ip1
I0408 12:01:45.652413 10081 net.cpp:84] Creating Layer ip1
I0408 12:01:45.652416 10081 net.cpp:406] ip1 <- pool1
I0408 12:01:45.652420 10081 net.cpp:380] ip1 -> ip1
I0408 12:01:45.653290 10081 net.cpp:122] Setting up ip1
I0408 12:01:45.653300 10081 net.cpp:129] Top shape: 64 100 (6400)
I0408 12:01:45.653301 10081 net.cpp:137] Memory required for data: 10466560
I0408 12:01:45.653326 10081 layer_factory.hpp:77] Creating layer relu1
I0408 12:01:45.653331 10081 net.cpp:84] Creating Layer relu1
I0408 12:01:45.653332 10081 net.cpp:406] relu1 <- ip1
I0408 12:01:45.653336 10081 net.cpp:367] relu1 -> ip1 (in-place)
I0408 12:01:45.653342 10081 net.cpp:122] Setting up relu1
I0408 12:01:45.653347 10081 net.cpp:129] Top shape: 64 100 (6400)
I0408 12:01:45.653347 10081 net.cpp:137] Memory required for data: 10492160
I0408 12:01:45.653363 10081 layer_factory.hpp:77] Creating layer ip2
I0408 12:01:45.653369 10081 net.cpp:84] Creating Layer ip2
I0408 12:01:45.653373 10081 net.cpp:406] ip2 <- ip1
I0408 12:01:45.653375 10081 net.cpp:380] ip2 -> ip2
I0408 12:01:45.653491 10081 net.cpp:122] Setting up ip2
I0408 12:01:45.653509 10081 net.cpp:129] Top shape: 64 10 (640)
I0408 12:01:45.653512 10081 net.cpp:137] Memory required for data: 10494720
I0408 12:01:45.653517 10081 layer_factory.hpp:77] Creating layer relu2
I0408 12:01:45.653535 10081 net.cpp:84] Creating Layer relu2
I0408 12:01:45.653537 10081 net.cpp:406] relu2 <- ip2
I0408 12:01:45.653540 10081 net.cpp:367] relu2 -> ip2 (in-place)
I0408 12:01:45.653545 10081 net.cpp:122] Setting up relu2
I0408 12:01:45.653548 10081 net.cpp:129] Top shape: 64 10 (640)
I0408 12:01:45.653549 10081 net.cpp:137] Memory required for data: 10497280
I0408 12:01:45.653553 10081 layer_factory.hpp:77] Creating layer loss
I0408 12:01:45.653555 10081 net.cpp:84] Creating Layer loss
I0408 12:01:45.653558 10081 net.cpp:406] loss <- ip2
I0408 12:01:45.653561 10081 net.cpp:406] loss <- label
I0408 12:01:45.653566 10081 net.cpp:380] loss -> loss
I0408 12:01:45.653576 10081 layer_factory.hpp:77] Creating layer loss
…
I0408 12:01:45.653897 10081 solver.cpp:173] Creating test net (#0) specified by net file: ECE595/mnist/train_test/var_fc_size/lenet_train_test_fcl2_fcn100.prototxt
I0408 12:01:45.653913 10081 net.cpp:294] The NetState phase (1) differed from the phase (0) specified by a rule in layer mnist
I0408 12:01:45.653993 10081 net.cpp:51] Initializing net from parameters: 
name: "LeNet"
state {
  phase: TEST
}
layer {
  name: "mnist"
  type: "Data"
  top: "data"
  top: "label"
  include {
    phase: TEST
  }
  transform_param {
    scale: 0.00390625
  }
  data_param {
    source: "examples/mnist/mnist_test_lmdb"
    batch_size: 100
    backend: LMDB
  }
}
layer {
  name: "conv0"
  type: "Convolution"
  bottom: "data"
  top: "conv0"
  param {
    lr_mult: 1
  }
  param {
    lr_mult: 2
  }
  convolution_param {
    num_output: 50
    kernel_size: 5
    stride: 1
    weight_filler {
      type: "xavier"
    }
    bias_filler {
      type: "constant"
    }
  }
}
layer {
  name: "pool0"
  type: "Pooling"
  bottom: "conv0"
  top: "pool0"
  pooling_param {
    pool: MAX
    kernel_size: 2
    stride: 2
  }
}
layer {
  name: "conv1"
  type: "Convolution"
  bottom: "pool0"
  top: "conv1"
  param {
    lr_mult: 1
  }
  param {
    lr_mult: 2
  }
  convolution_param {
    num_output: 50
    kernel_size: 5
    stride: 1
    weight_filler {
      type: "xavier"
    }
    bias_filler {
      type: "constant"
    }
  }
}
layer {
  name: "pool1"
  type: "Pooling"
  bottom: "conv1"
  top: "pool1"
  pooling_param {
    pool: MAX
    kernel_size: 2
    stride: 2
  }
}
layer {
  name: "ip1"
  type: "InnerProduct"
  bottom: "pool1"
  top: "ip1"
  param {
    lr_mult: 1
  }
  param {
    lr_mult: 2
  }
  inner_product_param {
    num_output: 100
    weight_filler {
      type: "xavier"
    }
    bias_filler {
      type: "constant"
    }
  }
}
layer {
  name: "relu1"
  type: "ReLU"
  bottom: "ip1"
  top: "ip1"
}
layer {
  name: "ip2"
  type: "InnerProduct"
  bottom: "ip1"
  top: "ip2"
  param {
    lr_mult: 1
  }
  param {
    lr_mult: 2
  }
  inner_product_param {
    num_output: 10
    weight_filler {
      type: "xavier"
    }
    bias_filler {
      type: "constant"
    }
  }
}
layer {
  name: "relu2"
  type: "ReLU"
  bottom: "ip2"
  top: "ip2"
}
layer {
  name: "accuracy"
  type: "Accuracy"
  bottom: "ip2"
  bottom: "label"
  top: "accuracy"
  include {
    phase: TEST
  }
}
layer {
  name: "loss"
  type: "SoftmaxWithLoss"
  bottom: "ip2"
  bottom: "label"
  top: "loss"
}
I0408 12:01:45.654057 10081 layer_factory.hpp:77] Creating layer mnist
I0408 12:01:45.654098 10081 db_lmdb.cpp:35] Opened lmdb examples/mnist/mnist_test_lmdb
I0408 12:01:45.654109 10081 net.cpp:84] Creating Layer mnist
I0408 12:01:45.654115 10081 net.cpp:380] mnist -> data
I0408 12:01:45.654121 10081 net.cpp:380] mnist -> label
I0408 12:01:45.654184 10081 data_layer.cpp:45] output data size: 100,1,28,28
I0408 12:01:45.655544 10081 net.cpp:122] Setting up mnist
I0408 12:01:45.655556 10081 net.cpp:129] Top shape: 100 1 28 28 (78400)
I0408 12:01:45.655575 10081 net.cpp:129] Top shape: 100 (100)
I0408 12:01:45.655577 10081 net.cpp:137] Memory required for data: 314000
I0408 12:01:45.655580 10081 layer_factory.hpp:77] Creating layer label_mnist_1_split
I0408 12:01:45.655602 10081 net.cpp:84] Creating Layer label_mnist_1_split
I0408 12:01:45.655606 10081 net.cpp:406] label_mnist_1_split <- label
I0408 12:01:45.655623 10081 net.cpp:380] label_mnist_1_split -> label_mnist_1_split_0
I0408 12:01:45.655629 10081 net.cpp:380] label_mnist_1_split -> label_mnist_1_split_1
I0408 12:01:45.655725 10081 net.cpp:122] Setting up label_mnist_1_split
I0408 12:01:45.655730 10081 net.cpp:129] Top shape: 100 (100)
I0408 12:01:45.655732 10081 net.cpp:129] Top shape: 100 (100)
I0408 12:01:45.655748 10081 net.cpp:137] Memory required for data: 314800
I0408 12:01:45.655750 10081 layer_factory.hpp:77] Creating layer conv0
I0408 12:01:45.655774 10081 net.cpp:84] Creating Layer conv0
I0408 12:01:45.655777 10081 net.cpp:406] conv0 <- data
I0408 12:01:45.655798 10081 net.cpp:380] conv0 -> conv0
I0408 12:01:45.656049 10081 net.cpp:122] Setting up conv0
I0408 12:01:45.656054 10081 net.cpp:129] Top shape: 100 50 24 24 (2880000)
I0408 12:01:45.656057 10081 net.cpp:137] Memory required for data: 11834800
I0408 12:01:45.656077 10081 layer_factory.hpp:77] Creating layer pool0
I0408 12:01:45.656085 10081 net.cpp:84] Creating Layer pool0
I0408 12:01:45.656087 10081 net.cpp:406] pool0 <- conv0
I0408 12:01:45.656090 10081 net.cpp:380] pool0 -> pool0
I0408 12:01:45.656128 10081 net.cpp:122] Setting up pool0
I0408 12:01:45.656133 10081 net.cpp:129] Top shape: 100 50 12 12 (720000)
I0408 12:01:45.656136 10081 net.cpp:137] Memory required for data: 14714800
I0408 12:01:45.656138 10081 layer_factory.hpp:77] Creating layer conv1
I0408 12:01:45.656144 10081 net.cpp:84] Creating Layer conv1
I0408 12:01:45.656160 10081 net.cpp:406] conv1 <- pool0
I0408 12:01:45.656165 10081 net.cpp:380] conv1 -> conv1
I0408 12:01:45.656675 10081 net.cpp:122] Setting up conv1
I0408 12:01:45.656682 10081 net.cpp:129] Top shape: 100 50 8 8 (320000)
I0408 12:01:45.656699 10081 net.cpp:137] Memory required for data: 15994800
I0408 12:01:45.656704 10081 layer_factory.hpp:77] Creating layer pool1
I0408 12:01:45.656723 10081 net.cpp:84] Creating Layer pool1
I0408 12:01:45.656726 10081 net.cpp:406] pool1 <- conv1
I0408 12:01:45.656730 10081 net.cpp:380] pool1 -> pool1
I0408 12:01:45.656756 10081 net.cpp:122] Setting up pool1
I0408 12:01:45.656761 10081 net.cpp:129] Top shape: 100 50 4 4 (80000)
I0408 12:01:45.656764 10081 net.cpp:137] Memory required for data: 16314800
I0408 12:01:45.656765 10081 layer_factory.hpp:77] Creating layer ip1
I0408 12:01:45.656770 10081 net.cpp:84] Creating Layer ip1
I0408 12:01:45.656774 10081 net.cpp:406] ip1 <- pool1
I0408 12:01:45.656779 10081 net.cpp:380] ip1 -> ip1
I0408 12:01:45.657369 10081 net.cpp:122] Setting up ip1
I0408 12:01:45.657377 10081 net.cpp:129] Top shape: 100 100 (10000)
I0408 12:01:45.657378 10081 net.cpp:137] Memory required for data: 16354800
I0408 12:01:45.657384 10081 layer_factory.hpp:77] Creating layer relu1
I0408 12:01:45.657390 10081 net.cpp:84] Creating Layer relu1
I0408 12:01:45.657392 10081 net.cpp:406] relu1 <- ip1
I0408 12:01:45.657397 10081 net.cpp:367] relu1 -> ip1 (in-place)
I0408 12:01:45.657402 10081 net.cpp:122] Setting up relu1
I0408 12:01:45.657405 10081 net.cpp:129] Top shape: 100 100 (10000)
I0408 12:01:45.657407 10081 net.cpp:137] Memory required for data: 16394800
I0408 12:01:45.657408 10081 layer_factory.hpp:77] Creating layer ip2
I0408 12:01:45.657413 10081 net.cpp:84] Creating Layer ip2
I0408 12:01:45.657416 10081 net.cpp:406] ip2 <- ip1
I0408 12:01:45.657421 10081 net.cpp:380] ip2 -> ip2
I0408 12:01:45.657510 10081 net.cpp:122] Setting up ip2
I0408 12:01:45.657516 10081 net.cpp:129] Top shape: 100 10 (1000)
I0408 12:01:45.657517 10081 net.cpp:137] Memory required for data: 16398800
I0408 12:01:45.657521 10081 layer_factory.hpp:77] Creating layer relu2
I0408 12:01:45.657526 10081 net.cpp:84] Creating Layer relu2
I0408 12:01:45.657528 10081 net.cpp:406] relu2 <- ip2
I0408 12:01:45.657532 10081 net.cpp:367] relu2 -> ip2 (in-place)
I0408 12:01:45.657536 10081 net.cpp:122] Setting up relu2
I0408 12:01:45.657537 10081 net.cpp:129] Top shape: 100 10 (1000)
I0408 12:01:45.657539 10081 net.cpp:137] Memory required for data: 16402800
I0408 12:01:45.657542 10081 layer_factory.hpp:77] Creating layer ip2_relu2_0_split
I0408 12:01:45.657546 10081 net.cpp:84] Creating Layer ip2_relu2_0_split
I0408 12:01:45.657548 10081 net.cpp:406] ip2_relu2_0_split <- ip2
I0408 12:01:45.657552 10081 net.cpp:380] ip2_relu2_0_split -> ip2_relu2_0_split_0
I0408 12:01:45.657565 10081 net.cpp:380] ip2_relu2_0_split -> ip2_relu2_0_split_1
I0408 12:01:45.657639 10081 net.cpp:122] Setting up ip2_relu2_0_split
I0408 12:01:45.657642 10081 net.cpp:129] Top shape: 100 10 (1000)
I0408 12:01:45.657645 10081 net.cpp:129] Top shape: 100 10 (1000)
I0408 12:01:45.657647 10081 net.cpp:137] Memory required for data: 16410800
I0408 12:01:45.657650 10081 layer_factory.hpp:77] Creating layer accuracy
I0408 12:01:45.657655 10081 net.cpp:84] Creating Layer accuracy
I0408 12:01:45.657673 10081 net.cpp:406] accuracy <- ip2_relu2_0_split_0
I0408 12:01:45.657676 10081 net.cpp:406] accuracy <- label_mnist_1_split_0
I0408 12:01:45.657680 10081 net.cpp:380] accuracy -> accuracy
…
