…
I0408 12:28:43.028074 10695 net.cpp:294] The NetState phase (0) differed from the phase (1) specified by a rule in layer mnist
I0408 12:28:43.028102 10695 net.cpp:294] The NetState phase (0) differed from the phase (1) specified by a rule in layer accuracy
I0408 12:28:43.028240 10695 net.cpp:51] Initializing net from parameters: 
name: "LeNet"
state {
  phase: TRAIN
  level: 0
  stage: ""
}
layer {
  name: "mnist"
  type: "Data"
  top: "data"
  top: "label"
  include {
    phase: TRAIN
  }
  transform_param {
    scale: 0.00390625
  }
  data_param {
    source: "examples/mnist/mnist_train_lmdb"
    batch_size: 64
    backend: LMDB
  }
}
layer {
  name: "conv0"
  type: "Convolution"
  bottom: "data"
  top: "conv0"
  param {
    lr_mult: 1
  }
  param {
    lr_mult: 2
  }
  convolution_param {
    num_output: 50
    kernel_size: 5
    stride: 1
    weight_filler {
      type: "xavier"
    }
    bias_filler {
      type: "constant"
    }
  }
}
layer {
  name: "pool0"
  type: "Pooling"
  bottom: "conv0"
  top: "pool0"
  pooling_param {
    pool: MAX
    kernel_size: 2
    stride: 2
  }
}
layer {
  name: "conv1"
  type: "Convolution"
  bottom: "pool0"
  top: "conv1"
  param {
    lr_mult: 1
  }
  param {
    lr_mult: 2
  }
  convolution_param {
    num_output: 50
    kernel_size: 5
    stride: 1
    weight_filler {
      type: "xavier"
    }
    bias_filler {
      type: "constant"
    }
  }
}
layer {
  name: "pool1"
  type: "Pooling"
  bottom: "conv1"
  top: "pool1"
  pooling_param {
    pool: MAX
    kernel_size: 2
    stride: 2
  }
}
layer {
  name: "ip1"
  type: "InnerProduct"
  bottom: "pool1"
  top: "ip1"
  param {
    lr_mult: 1
  }
  param {
    lr_mult: 2
  }
  inner_product_param {
    num_output: 500
    weight_filler {
      type: "xavier"
    }
    bias_filler {
      type: "constant"
    }
  }
}
layer {
  name: "relu1"
  type: "ReLU"
  bottom: "ip1"
  top: "ip1"
}
layer {
  name: "ip2"
  type: "InnerProduct"
  bottom: "ip1"
  top: "ip2"
  param {
    lr_mult: 1
  }
  param {
    lr_mult: 2
  }
  inner_product_param {
    num_output: 10
    weight_filler {
      type: "xavier"
    }
    bias_filler {
      type: "constant"
    }
  }
}
layer {
  name: "relu2"
  type: "ReLU"
  bottom: "ip2"
  top: "ip2"
}
layer {
  name: "loss"
  type: "SoftmaxWithLoss"
  bottom: "ip2"
  bottom: "label"
  top: "loss"
}
I0408 12:28:43.028345 10695 layer_factory.hpp:77] Creating layer mnist
I0408 12:28:43.028434 10695 db_lmdb.cpp:35] Opened lmdb examples/mnist/mnist_train_lmdb
I0408 12:28:43.028451 10695 net.cpp:84] Creating Layer mnist
I0408 12:28:43.028482 10695 net.cpp:380] mnist -> data
I0408 12:28:43.028528 10695 net.cpp:380] mnist -> label
I0408 12:28:43.029188 10695 data_layer.cpp:45] output data size: 64,1,28,28
I0408 12:28:43.030764 10695 net.cpp:122] Setting up mnist
I0408 12:28:43.030777 10695 net.cpp:129] Top shape: 64 1 28 28 (50176)
I0408 12:28:43.030781 10695 net.cpp:129] Top shape: 64 (64)
I0408 12:28:43.030781 10695 net.cpp:137] Memory required for data: 200960
I0408 12:28:43.030788 10695 layer_factory.hpp:77] Creating layer conv0
I0408 12:28:43.030822 10695 net.cpp:84] Creating Layer conv0
I0408 12:28:43.030839 10695 net.cpp:406] conv0 <- data
I0408 12:28:43.030848 10695 net.cpp:380] conv0 -> conv0
I0408 12:28:43.031898 10695 net.cpp:122] Setting up conv0
I0408 12:28:43.031908 10695 net.cpp:129] Top shape: 64 50 24 24 (1843200)
I0408 12:28:43.031909 10695 net.cpp:137] Memory required for data: 7573760
I0408 12:28:43.031970 10695 layer_factory.hpp:77] Creating layer pool0
I0408 12:28:43.031980 10695 net.cpp:84] Creating Layer pool0
I0408 12:28:43.031982 10695 net.cpp:406] pool0 <- conv0
I0408 12:28:43.032001 10695 net.cpp:380] pool0 -> pool0
I0408 12:28:43.032038 10695 net.cpp:122] Setting up pool0
I0408 12:28:43.032043 10695 net.cpp:129] Top shape: 64 50 12 12 (460800)
I0408 12:28:43.032045 10695 net.cpp:137] Memory required for data: 9416960
I0408 12:28:43.032047 10695 layer_factory.hpp:77] Creating layer conv1
I0408 12:28:43.032057 10695 net.cpp:84] Creating Layer conv1
I0408 12:28:43.032060 10695 net.cpp:406] conv1 <- pool0
I0408 12:28:43.032066 10695 net.cpp:380] conv1 -> conv1
I0408 12:28:43.032909 10695 net.cpp:122] Setting up conv1
I0408 12:28:43.032938 10695 net.cpp:129] Top shape: 64 50 8 8 (204800)
I0408 12:28:43.032940 10695 net.cpp:137] Memory required for data: 10236160
I0408 12:28:43.032946 10695 layer_factory.hpp:77] Creating layer pool1
I0408 12:28:43.032951 10695 net.cpp:84] Creating Layer pool1
I0408 12:28:43.032956 10695 net.cpp:406] pool1 <- conv1
I0408 12:28:43.032961 10695 net.cpp:380] pool1 -> pool1
I0408 12:28:43.033004 10695 net.cpp:122] Setting up pool1
I0408 12:28:43.033010 10695 net.cpp:129] Top shape: 64 50 4 4 (51200)
I0408 12:28:43.033013 10695 net.cpp:137] Memory required for data: 10440960
I0408 12:28:43.033016 10695 layer_factory.hpp:77] Creating layer ip1
I0408 12:28:43.033025 10695 net.cpp:84] Creating Layer ip1
I0408 12:28:43.033030 10695 net.cpp:406] ip1 <- pool1
I0408 12:28:43.033036 10695 net.cpp:380] ip1 -> ip1
I0408 12:28:43.035625 10695 net.cpp:122] Setting up ip1
I0408 12:28:43.035635 10695 net.cpp:129] Top shape: 64 500 (32000)
I0408 12:28:43.035636 10695 net.cpp:137] Memory required for data: 10568960
I0408 12:28:43.035643 10695 layer_factory.hpp:77] Creating layer relu1
I0408 12:28:43.035667 10695 net.cpp:84] Creating Layer relu1
I0408 12:28:43.035670 10695 net.cpp:406] relu1 <- ip1
I0408 12:28:43.035673 10695 net.cpp:367] relu1 -> ip1 (in-place)
I0408 12:28:43.035691 10695 net.cpp:122] Setting up relu1
I0408 12:28:43.035694 10695 net.cpp:129] Top shape: 64 500 (32000)
I0408 12:28:43.035696 10695 net.cpp:137] Memory required for data: 10696960
I0408 12:28:43.035697 10695 layer_factory.hpp:77] Creating layer ip2
I0408 12:28:43.035702 10695 net.cpp:84] Creating Layer ip2
I0408 12:28:43.035724 10695 net.cpp:406] ip2 <- ip1
I0408 12:28:43.035728 10695 net.cpp:380] ip2 -> ip2
I0408 12:28:43.036200 10695 net.cpp:122] Setting up ip2
I0408 12:28:43.036206 10695 net.cpp:129] Top shape: 64 10 (640)
I0408 12:28:43.036208 10695 net.cpp:137] Memory required for data: 10699520
I0408 12:28:43.036212 10695 layer_factory.hpp:77] Creating layer relu2
I0408 12:28:43.036231 10695 net.cpp:84] Creating Layer relu2
I0408 12:28:43.036234 10695 net.cpp:406] relu2 <- ip2
I0408 12:28:43.036237 10695 net.cpp:367] relu2 -> ip2 (in-place)
I0408 12:28:43.036242 10695 net.cpp:122] Setting up relu2
I0408 12:28:43.036245 10695 net.cpp:129] Top shape: 64 10 (640)
I0408 12:28:43.036247 10695 net.cpp:137] Memory required for data: 10702080
I0408 12:28:43.036248 10695 layer_factory.hpp:77] Creating layer loss
I0408 12:28:43.036252 10695 net.cpp:84] Creating Layer loss
I0408 12:28:43.036254 10695 net.cpp:406] loss <- ip2
I0408 12:28:43.036257 10695 net.cpp:406] loss <- label
I0408 12:28:43.036278 10695 net.cpp:380] loss -> loss
I0408 12:28:43.036303 10695 layer_factory.hpp:77] Creating layer loss
…
I0408 12:28:43.036751 10695 solver.cpp:173] Creating test net (#0) specified by net file: ECE595/mnist/train_test/var_fc_size/lenet_train_test_fcl2_fcn500.prototxt
I0408 12:28:43.036767 10695 net.cpp:294] The NetState phase (1) differed from the phase (0) specified by a rule in layer mnist
I0408 12:28:43.036866 10695 net.cpp:51] Initializing net from parameters: 
name: "LeNet"
state {
  phase: TEST
}
layer {
  name: "mnist"
  type: "Data"
  top: "data"
  top: "label"
  include {
    phase: TEST
  }
  transform_param {
    scale: 0.00390625
  }
  data_param {
    source: "examples/mnist/mnist_test_lmdb"
    batch_size: 100
    backend: LMDB
  }
}
layer {
  name: "conv0"
  type: "Convolution"
  bottom: "data"
  top: "conv0"
  param {
    lr_mult: 1
  }
  param {
    lr_mult: 2
  }
  convolution_param {
    num_output: 50
    kernel_size: 5
    stride: 1
    weight_filler {
      type: "xavier"
    }
    bias_filler {
      type: "constant"
    }
  }
}
layer {
  name: "pool0"
  type: "Pooling"
  bottom: "conv0"
  top: "pool0"
  pooling_param {
    pool: MAX
    kernel_size: 2
    stride: 2
  }
}
layer {
  name: "conv1"
  type: "Convolution"
  bottom: "pool0"
  top: "conv1"
  param {
    lr_mult: 1
  }
  param {
    lr_mult: 2
  }
  convolution_param {
    num_output: 50
    kernel_size: 5
    stride: 1
    weight_filler {
      type: "xavier"
    }
    bias_filler {
      type: "constant"
    }
  }
}
layer {
  name: "pool1"
  type: "Pooling"
  bottom: "conv1"
  top: "pool1"
  pooling_param {
    pool: MAX
    kernel_size: 2
    stride: 2
  }
}
layer {
  name: "ip1"
  type: "InnerProduct"
  bottom: "pool1"
  top: "ip1"
  param {
    lr_mult: 1
  }
  param {
    lr_mult: 2
  }
  inner_product_param {
    num_output: 500
    weight_filler {
      type: "xavier"
    }
    bias_filler {
      type: "constant"
    }
  }
}
layer {
  name: "relu1"
  type: "ReLU"
  bottom: "ip1"
  top: "ip1"
}
layer {
  name: "ip2"
  type: "InnerProduct"
  bottom: "ip1"
  top: "ip2"
  param {
    lr_mult: 1
  }
  param {
    lr_mult: 2
  }
  inner_product_param {
    num_output: 10
    weight_filler {
      type: "xavier"
    }
    bias_filler {
      type: "constant"
    }
  }
}
layer {
  name: "relu2"
  type: "ReLU"
  bottom: "ip2"
  top: "ip2"
}
layer {
  name: "accuracy"
  type: "Accuracy"
  bottom: "ip2"
  bottom: "label"
  top: "accuracy"
  include {
    phase: TEST
  }
}
layer {
  name: "loss"
  type: "SoftmaxWithLoss"
  bottom: "ip2"
  bottom: "label"
  top: "loss"
}
I0408 12:28:43.036952 10695 layer_factory.hpp:77] Creating layer mnist
I0408 12:28:43.037009 10695 db_lmdb.cpp:35] Opened lmdb examples/mnist/mnist_test_lmdb
I0408 12:28:43.037020 10695 net.cpp:84] Creating Layer mnist
I0408 12:28:43.037025 10695 net.cpp:380] mnist -> data
I0408 12:28:43.037032 10695 net.cpp:380] mnist -> label
I0408 12:28:43.037129 10695 data_layer.cpp:45] output data size: 100,1,28,28
I0408 12:28:43.039162 10695 net.cpp:122] Setting up mnist
I0408 12:28:43.039180 10695 net.cpp:129] Top shape: 100 1 28 28 (78400)
I0408 12:28:43.039185 10695 net.cpp:129] Top shape: 100 (100)
I0408 12:28:43.039186 10695 net.cpp:137] Memory required for data: 314000
I0408 12:28:43.039191 10695 layer_factory.hpp:77] Creating layer label_mnist_1_split
I0408 12:28:43.039196 10695 net.cpp:84] Creating Layer label_mnist_1_split
I0408 12:28:43.039199 10695 net.cpp:406] label_mnist_1_split <- label
I0408 12:28:43.039204 10695 net.cpp:380] label_mnist_1_split -> label_mnist_1_split_0
I0408 12:28:43.039211 10695 net.cpp:380] label_mnist_1_split -> label_mnist_1_split_1
I0408 12:28:43.039289 10695 net.cpp:122] Setting up label_mnist_1_split
I0408 12:28:43.039296 10695 net.cpp:129] Top shape: 100 (100)
I0408 12:28:43.039301 10695 net.cpp:129] Top shape: 100 (100)
I0408 12:28:43.039304 10695 net.cpp:137] Memory required for data: 314800
I0408 12:28:43.039309 10695 layer_factory.hpp:77] Creating layer conv0
I0408 12:28:43.039324 10695 net.cpp:84] Creating Layer conv0
I0408 12:28:43.039328 10695 net.cpp:406] conv0 <- data
I0408 12:28:43.039335 10695 net.cpp:380] conv0 -> conv0
I0408 12:28:43.039584 10695 net.cpp:122] Setting up conv0
I0408 12:28:43.039592 10695 net.cpp:129] Top shape: 100 50 24 24 (2880000)
I0408 12:28:43.039595 10695 net.cpp:137] Memory required for data: 11834800
I0408 12:28:43.039604 10695 layer_factory.hpp:77] Creating layer pool0
I0408 12:28:43.039613 10695 net.cpp:84] Creating Layer pool0
I0408 12:28:43.039630 10695 net.cpp:406] pool0 <- conv0
I0408 12:28:43.039634 10695 net.cpp:380] pool0 -> pool0
I0408 12:28:43.039669 10695 net.cpp:122] Setting up pool0
I0408 12:28:43.039675 10695 net.cpp:129] Top shape: 100 50 12 12 (720000)
I0408 12:28:43.039679 10695 net.cpp:137] Memory required for data: 14714800
I0408 12:28:43.039681 10695 layer_factory.hpp:77] Creating layer conv1
I0408 12:28:43.039690 10695 net.cpp:84] Creating Layer conv1
I0408 12:28:43.039695 10695 net.cpp:406] conv1 <- pool0
I0408 12:28:43.039701 10695 net.cpp:380] conv1 -> conv1
I0408 12:28:43.040695 10695 net.cpp:122] Setting up conv1
I0408 12:28:43.040704 10695 net.cpp:129] Top shape: 100 50 8 8 (320000)
I0408 12:28:43.040709 10695 net.cpp:137] Memory required for data: 15994800
I0408 12:28:43.040717 10695 layer_factory.hpp:77] Creating layer pool1
I0408 12:28:43.040724 10695 net.cpp:84] Creating Layer pool1
I0408 12:28:43.040729 10695 net.cpp:406] pool1 <- conv1
I0408 12:28:43.040736 10695 net.cpp:380] pool1 -> pool1
I0408 12:28:43.040772 10695 net.cpp:122] Setting up pool1
I0408 12:28:43.040778 10695 net.cpp:129] Top shape: 100 50 4 4 (80000)
I0408 12:28:43.040782 10695 net.cpp:137] Memory required for data: 16314800
I0408 12:28:43.040786 10695 layer_factory.hpp:77] Creating layer ip1
I0408 12:28:43.040812 10695 net.cpp:84] Creating Layer ip1
I0408 12:28:43.040817 10695 net.cpp:406] ip1 <- pool1
I0408 12:28:43.040822 10695 net.cpp:380] ip1 -> ip1
I0408 12:28:43.045198 10695 net.cpp:122] Setting up ip1
I0408 12:28:43.045228 10695 net.cpp:129] Top shape: 100 500 (50000)
I0408 12:28:43.045231 10695 net.cpp:137] Memory required for data: 16514800
I0408 12:28:43.045243 10695 layer_factory.hpp:77] Creating layer relu1
I0408 12:28:43.045250 10695 net.cpp:84] Creating Layer relu1
I0408 12:28:43.045254 10695 net.cpp:406] relu1 <- ip1
I0408 12:28:43.045259 10695 net.cpp:367] relu1 -> ip1 (in-place)
I0408 12:28:43.045267 10695 net.cpp:122] Setting up relu1
I0408 12:28:43.045272 10695 net.cpp:129] Top shape: 100 500 (50000)
I0408 12:28:43.045275 10695 net.cpp:137] Memory required for data: 16714800
I0408 12:28:43.045279 10695 layer_factory.hpp:77] Creating layer ip2
I0408 12:28:43.045307 10695 net.cpp:84] Creating Layer ip2
I0408 12:28:43.045326 10695 net.cpp:406] ip2 <- ip1
I0408 12:28:43.045332 10695 net.cpp:380] ip2 -> ip2
I0408 12:28:43.045454 10695 net.cpp:122] Setting up ip2
I0408 12:28:43.045460 10695 net.cpp:129] Top shape: 100 10 (1000)
I0408 12:28:43.045464 10695 net.cpp:137] Memory required for data: 16718800
I0408 12:28:43.045467 10695 layer_factory.hpp:77] Creating layer relu2
I0408 12:28:43.045471 10695 net.cpp:84] Creating Layer relu2
I0408 12:28:43.045475 10695 net.cpp:406] relu2 <- ip2
I0408 12:28:43.045477 10695 net.cpp:367] relu2 -> ip2 (in-place)
I0408 12:28:43.045482 10695 net.cpp:122] Setting up relu2
I0408 12:28:43.045486 10695 net.cpp:129] Top shape: 100 10 (1000)
I0408 12:28:43.045488 10695 net.cpp:137] Memory required for data: 16722800
I0408 12:28:43.045492 10695 layer_factory.hpp:77] Creating layer ip2_relu2_0_split
I0408 12:28:43.045496 10695 net.cpp:84] Creating Layer ip2_relu2_0_split
I0408 12:28:43.045498 10695 net.cpp:406] ip2_relu2_0_split <- ip2
I0408 12:28:43.045502 10695 net.cpp:380] ip2_relu2_0_split -> ip2_relu2_0_split_0
I0408 12:28:43.045518 10695 net.cpp:380] ip2_relu2_0_split -> ip2_relu2_0_split_1
I0408 12:28:43.045557 10695 net.cpp:122] Setting up ip2_relu2_0_split
I0408 12:28:43.045562 10695 net.cpp:129] Top shape: 100 10 (1000)
I0408 12:28:43.045563 10695 net.cpp:129] Top shape: 100 10 (1000)
I0408 12:28:43.045565 10695 net.cpp:137] Memory required for data: 16730800
I0408 12:28:43.045567 10695 layer_factory.hpp:77] Creating layer accuracy
I0408 12:28:43.045572 10695 net.cpp:84] Creating Layer accuracy
I0408 12:28:43.045575 10695 net.cpp:406] accuracy <- ip2_relu2_0_split_0
I0408 12:28:43.045579 10695 net.cpp:406] accuracy <- label_mnist_1_split_0
I0408 12:28:43.045583 10695 net.cpp:380] accuracy -> accuracy
…
