…
I0408 11:56:19.445786 10041 net.cpp:294] The NetState phase (0) differed from the phase (1) specified by a rule in layer mnist
I0408 11:56:19.445796 10041 net.cpp:294] The NetState phase (0) differed from the phase (1) specified by a rule in layer accuracy
I0408 11:56:19.445914 10041 net.cpp:51] Initializing net from parameters: 
name: "LeNet"
state {
  phase: TRAIN
  level: 0
  stage: ""
}
layer {
  name: "mnist"
  type: "Data"
  top: "data"
  top: "label"
  include {
    phase: TRAIN
  }
  transform_param {
    scale: 0.00390625
  }
  data_param {
    source: "examples/mnist/mnist_train_lmdb"
    batch_size: 64
    backend: LMDB
  }
}
layer {
  name: "conv0"
  type: "Convolution"
  bottom: "data"
  top: "conv0"
  param {
    lr_mult: 1
  }
  param {
    lr_mult: 2
  }
  convolution_param {
    num_output: 50
    kernel_size: 5
    stride: 1
    weight_filler {
      type: "xavier"
    }
    bias_filler {
      type: "constant"
    }
  }
}
layer {
  name: "pool0"
  type: "Pooling"
  bottom: "conv0"
  top: "pool0"
  pooling_param {
    pool: MAX
    kernel_size: 2
    stride: 2
  }
}
layer {
  name: "conv1"
  type: "Convolution"
  bottom: "pool0"
  top: "conv1"
  param {
    lr_mult: 1
  }
  param {
    lr_mult: 2
  }
  convolution_param {
    num_output: 50
    kernel_size: 5
    stride: 1
    weight_filler {
      type: "xavier"
    }
    bias_filler {
      type: "constant"
    }
  }
}
layer {
  name: "pool1"
  type: "Pooling"
  bottom: "conv1"
  top: "pool1"
  pooling_param {
    pool: MAX
    kernel_size: 2
    stride: 2
  }
}
layer {
  name: "ip1"
  type: "InnerProduct"
  bottom: "pool1"
  top: "ip1"
  param {
    lr_mult: 1
  }
  param {
    lr_mult: 2
  }
  inner_product_param {
    num_output: 10
    weight_filler {
      type: "xavier"
    }
    bias_filler {
      type: "constant"
    }
  }
}
layer {
  name: "relu1"
  type: "ReLU"
  bottom: "ip1"
  top: "ip1"
}
layer {
  name: "loss"
  type: "SoftmaxWithLoss"
  bottom: "ip1"
  bottom: "label"
  top: "loss"
}
I0408 11:56:19.445956 10041 layer_factory.hpp:77] Creating layer mnist
I0408 11:56:19.446063 10041 db_lmdb.cpp:35] Opened lmdb examples/mnist/mnist_train_lmdb
I0408 11:56:19.446084 10041 net.cpp:84] Creating Layer mnist
I0408 11:56:19.446091 10041 net.cpp:380] mnist -> data
I0408 11:56:19.446106 10041 net.cpp:380] mnist -> label
I0408 11:56:19.446707 10041 data_layer.cpp:45] output data size: 64,1,28,28
I0408 11:56:19.448249 10041 net.cpp:122] Setting up mnist
I0408 11:56:19.448261 10041 net.cpp:129] Top shape: 64 1 28 28 (50176)
I0408 11:56:19.448264 10041 net.cpp:129] Top shape: 64 (64)
I0408 11:56:19.448266 10041 net.cpp:137] Memory required for data: 200960
I0408 11:56:19.448290 10041 layer_factory.hpp:77] Creating layer conv0
I0408 11:56:19.448318 10041 net.cpp:84] Creating Layer conv0
I0408 11:56:19.448325 10041 net.cpp:406] conv0 <- data
I0408 11:56:19.448335 10041 net.cpp:380] conv0 -> conv0
I0408 11:56:19.449528 10041 net.cpp:122] Setting up conv0
I0408 11:56:19.449537 10041 net.cpp:129] Top shape: 64 50 24 24 (1843200)
I0408 11:56:19.449558 10041 net.cpp:137] Memory required for data: 7573760
I0408 11:56:19.449587 10041 layer_factory.hpp:77] Creating layer pool0
I0408 11:56:19.449612 10041 net.cpp:84] Creating Layer pool0
I0408 11:56:19.449615 10041 net.cpp:406] pool0 <- conv0
I0408 11:56:19.449618 10041 net.cpp:380] pool0 -> pool0
I0408 11:56:19.449668 10041 net.cpp:122] Setting up pool0
I0408 11:56:19.449673 10041 net.cpp:129] Top shape: 64 50 12 12 (460800)
I0408 11:56:19.449687 10041 net.cpp:137] Memory required for data: 9416960
I0408 11:56:19.449688 10041 layer_factory.hpp:77] Creating layer conv1
I0408 11:56:19.449694 10041 net.cpp:84] Creating Layer conv1
I0408 11:56:19.449697 10041 net.cpp:406] conv1 <- pool0
I0408 11:56:19.449702 10041 net.cpp:380] conv1 -> conv1
I0408 11:56:19.450423 10041 net.cpp:122] Setting up conv1
I0408 11:56:19.450430 10041 net.cpp:129] Top shape: 64 50 8 8 (204800)
I0408 11:56:19.450453 10041 net.cpp:137] Memory required for data: 10236160
I0408 11:56:19.450459 10041 layer_factory.hpp:77] Creating layer pool1
I0408 11:56:19.450464 10041 net.cpp:84] Creating Layer pool1
I0408 11:56:19.450466 10041 net.cpp:406] pool1 <- conv1
I0408 11:56:19.450471 10041 net.cpp:380] pool1 -> pool1
I0408 11:56:19.450547 10041 net.cpp:122] Setting up pool1
I0408 11:56:19.450551 10041 net.cpp:129] Top shape: 64 50 4 4 (51200)
I0408 11:56:19.450572 10041 net.cpp:137] Memory required for data: 10440960
I0408 11:56:19.450574 10041 layer_factory.hpp:77] Creating layer ip1
I0408 11:56:19.450579 10041 net.cpp:84] Creating Layer ip1
I0408 11:56:19.450595 10041 net.cpp:406] ip1 <- pool1
I0408 11:56:19.450599 10041 net.cpp:380] ip1 -> ip1
I0408 11:56:19.451179 10041 net.cpp:122] Setting up ip1
I0408 11:56:19.451187 10041 net.cpp:129] Top shape: 64 10 (640)
I0408 11:56:19.451189 10041 net.cpp:137] Memory required for data: 10443520
I0408 11:56:19.451195 10041 layer_factory.hpp:77] Creating layer relu1
I0408 11:56:19.451200 10041 net.cpp:84] Creating Layer relu1
I0408 11:56:19.451222 10041 net.cpp:406] relu1 <- ip1
I0408 11:56:19.451225 10041 net.cpp:367] relu1 -> ip1 (in-place)
I0408 11:56:19.451244 10041 net.cpp:122] Setting up relu1
I0408 11:56:19.451248 10041 net.cpp:129] Top shape: 64 10 (640)
I0408 11:56:19.451251 10041 net.cpp:137] Memory required for data: 10446080
I0408 11:56:19.451268 10041 layer_factory.hpp:77] Creating layer loss
I0408 11:56:19.451272 10041 net.cpp:84] Creating Layer loss
I0408 11:56:19.451274 10041 net.cpp:406] loss <- ip1
I0408 11:56:19.451277 10041 net.cpp:406] loss <- label
I0408 11:56:19.451282 10041 net.cpp:380] loss -> loss
I0408 11:56:19.451290 10041 layer_factory.hpp:77] Creating layer loss
…
I0408 11:56:19.451648 10041 solver.cpp:173] Creating test net (#0) specified by net file: ECE595/mnist/train_test/var_fc_size/lenet_train_test_fcl1_fcn500.prototxt
I0408 11:56:19.451681 10041 net.cpp:294] The NetState phase (1) differed from the phase (0) specified by a rule in layer mnist
I0408 11:56:19.451756 10041 net.cpp:51] Initializing net from parameters: 
name: "LeNet"
state {
  phase: TEST
}
layer {
  name: "mnist"
  type: "Data"
  top: "data"
  top: "label"
  include {
    phase: TEST
  }
  transform_param {
    scale: 0.00390625
  }
  data_param {
    source: "examples/mnist/mnist_test_lmdb"
    batch_size: 100
    backend: LMDB
  }
}
layer {
  name: "conv0"
  type: "Convolution"
  bottom: "data"
  top: "conv0"
  param {
    lr_mult: 1
  }
  param {
    lr_mult: 2
  }
  convolution_param {
    num_output: 50
    kernel_size: 5
    stride: 1
    weight_filler {
      type: "xavier"
    }
    bias_filler {
      type: "constant"
    }
  }
}
layer {
  name: "pool0"
  type: "Pooling"
  bottom: "conv0"
  top: "pool0"
  pooling_param {
    pool: MAX
    kernel_size: 2
    stride: 2
  }
}
layer {
  name: "conv1"
  type: "Convolution"
  bottom: "pool0"
  top: "conv1"
  param {
    lr_mult: 1
  }
  param {
    lr_mult: 2
  }
  convolution_param {
    num_output: 50
    kernel_size: 5
    stride: 1
    weight_filler {
      type: "xavier"
    }
    bias_filler {
      type: "constant"
    }
  }
}
layer {
  name: "pool1"
  type: "Pooling"
  bottom: "conv1"
  top: "pool1"
  pooling_param {
    pool: MAX
    kernel_size: 2
    stride: 2
  }
}
layer {
  name: "ip1"
  type: "InnerProduct"
  bottom: "pool1"
  top: "ip1"
  param {
    lr_mult: 1
  }
  param {
    lr_mult: 2
  }
  inner_product_param {
    num_output: 10
    weight_filler {
      type: "xavier"
    }
    bias_filler {
      type: "constant"
    }
  }
}
layer {
  name: "relu1"
  type: "ReLU"
  bottom: "ip1"
  top: "ip1"
}
layer {
  name: "accuracy"
  type: "Accuracy"
  bottom: "ip1"
  bottom: "label"
  top: "accuracy"
  include {
    phase: TEST
  }
}
layer {
  name: "loss"
  type: "SoftmaxWithLoss"
  bottom: "ip1"
  bottom: "label"
  top: "loss"
}
I0408 11:56:19.451879 10041 layer_factory.hpp:77] Creating layer mnist
I0408 11:56:19.451936 10041 db_lmdb.cpp:35] Opened lmdb examples/mnist/mnist_test_lmdb
I0408 11:56:19.451953 10041 net.cpp:84] Creating Layer mnist
I0408 11:56:19.451958 10041 net.cpp:380] mnist -> data
I0408 11:56:19.451967 10041 net.cpp:380] mnist -> label
I0408 11:56:19.452098 10041 data_layer.cpp:45] output data size: 100,1,28,28
I0408 11:56:19.453733 10041 net.cpp:122] Setting up mnist
I0408 11:56:19.453744 10041 net.cpp:129] Top shape: 100 1 28 28 (78400)
I0408 11:56:19.453747 10041 net.cpp:129] Top shape: 100 (100)
I0408 11:56:19.453749 10041 net.cpp:137] Memory required for data: 314000
I0408 11:56:19.453752 10041 layer_factory.hpp:77] Creating layer label_mnist_1_split
I0408 11:56:19.453779 10041 net.cpp:84] Creating Layer label_mnist_1_split
I0408 11:56:19.453783 10041 net.cpp:406] label_mnist_1_split <- label
I0408 11:56:19.453785 10041 net.cpp:380] label_mnist_1_split -> label_mnist_1_split_0
I0408 11:56:19.453791 10041 net.cpp:380] label_mnist_1_split -> label_mnist_1_split_1
I0408 11:56:19.453860 10041 net.cpp:122] Setting up label_mnist_1_split
I0408 11:56:19.453866 10041 net.cpp:129] Top shape: 100 (100)
I0408 11:56:19.453867 10041 net.cpp:129] Top shape: 100 (100)
I0408 11:56:19.453871 10041 net.cpp:137] Memory required for data: 314800
I0408 11:56:19.453872 10041 layer_factory.hpp:77] Creating layer conv0
I0408 11:56:19.453881 10041 net.cpp:84] Creating Layer conv0
I0408 11:56:19.453884 10041 net.cpp:406] conv0 <- data
I0408 11:56:19.453889 10041 net.cpp:380] conv0 -> conv0
I0408 11:56:19.454090 10041 net.cpp:122] Setting up conv0
I0408 11:56:19.454095 10041 net.cpp:129] Top shape: 100 50 24 24 (2880000)
I0408 11:56:19.454098 10041 net.cpp:137] Memory required for data: 11834800
I0408 11:56:19.454123 10041 layer_factory.hpp:77] Creating layer pool0
I0408 11:56:19.454129 10041 net.cpp:84] Creating Layer pool0
I0408 11:56:19.454133 10041 net.cpp:406] pool0 <- conv0
I0408 11:56:19.454136 10041 net.cpp:380] pool0 -> pool0
I0408 11:56:19.454175 10041 net.cpp:122] Setting up pool0
I0408 11:56:19.454180 10041 net.cpp:129] Top shape: 100 50 12 12 (720000)
I0408 11:56:19.454182 10041 net.cpp:137] Memory required for data: 14714800
I0408 11:56:19.454185 10041 layer_factory.hpp:77] Creating layer conv1
I0408 11:56:19.454196 10041 net.cpp:84] Creating Layer conv1
I0408 11:56:19.454200 10041 net.cpp:406] conv1 <- pool0
I0408 11:56:19.454205 10041 net.cpp:380] conv1 -> conv1
I0408 11:56:19.454684 10041 net.cpp:122] Setting up conv1
I0408 11:56:19.454689 10041 net.cpp:129] Top shape: 100 50 8 8 (320000)
I0408 11:56:19.454692 10041 net.cpp:137] Memory required for data: 15994800
I0408 11:56:19.454699 10041 layer_factory.hpp:77] Creating layer pool1
I0408 11:56:19.454713 10041 net.cpp:84] Creating Layer pool1
I0408 11:56:19.454715 10041 net.cpp:406] pool1 <- conv1
I0408 11:56:19.454720 10041 net.cpp:380] pool1 -> pool1
I0408 11:56:19.454746 10041 net.cpp:122] Setting up pool1
I0408 11:56:19.454751 10041 net.cpp:129] Top shape: 100 50 4 4 (80000)
I0408 11:56:19.454752 10041 net.cpp:137] Memory required for data: 16314800
I0408 11:56:19.454769 10041 layer_factory.hpp:77] Creating layer ip1
I0408 11:56:19.454776 10041 net.cpp:84] Creating Layer ip1
I0408 11:56:19.454778 10041 net.cpp:406] ip1 <- pool1
I0408 11:56:19.454782 10041 net.cpp:380] ip1 -> ip1
I0408 11:56:19.454912 10041 net.cpp:122] Setting up ip1
I0408 11:56:19.454917 10041 net.cpp:129] Top shape: 100 10 (1000)
I0408 11:56:19.454919 10041 net.cpp:137] Memory required for data: 16318800
I0408 11:56:19.454924 10041 layer_factory.hpp:77] Creating layer relu1
I0408 11:56:19.454931 10041 net.cpp:84] Creating Layer relu1
I0408 11:56:19.454933 10041 net.cpp:406] relu1 <- ip1
I0408 11:56:19.454936 10041 net.cpp:367] relu1 -> ip1 (in-place)
I0408 11:56:19.454941 10041 net.cpp:122] Setting up relu1
I0408 11:56:19.454944 10041 net.cpp:129] Top shape: 100 10 (1000)
I0408 11:56:19.454946 10041 net.cpp:137] Memory required for data: 16322800
I0408 11:56:19.454947 10041 layer_factory.hpp:77] Creating layer ip1_relu1_0_split
I0408 11:56:19.454952 10041 net.cpp:84] Creating Layer ip1_relu1_0_split
I0408 11:56:19.454957 10041 net.cpp:406] ip1_relu1_0_split <- ip1
I0408 11:56:19.454959 10041 net.cpp:380] ip1_relu1_0_split -> ip1_relu1_0_split_0
I0408 11:56:19.454963 10041 net.cpp:380] ip1_relu1_0_split -> ip1_relu1_0_split_1
I0408 11:56:19.454988 10041 net.cpp:122] Setting up ip1_relu1_0_split
I0408 11:56:19.454993 10041 net.cpp:129] Top shape: 100 10 (1000)
I0408 11:56:19.454994 10041 net.cpp:129] Top shape: 100 10 (1000)
I0408 11:56:19.454996 10041 net.cpp:137] Memory required for data: 16330800
I0408 11:56:19.454998 10041 layer_factory.hpp:77] Creating layer accuracy
I0408 11:56:19.455003 10041 net.cpp:84] Creating Layer accuracy
I0408 11:56:19.455005 10041 net.cpp:406] accuracy <- ip1_relu1_0_split_0
I0408 11:56:19.455008 10041 net.cpp:406] accuracy <- label_mnist_1_split_0
I0408 11:56:19.455027 10041 net.cpp:380] accuracy -> accuracy
…
