…
I0408 11:50:53.132280 10019 net.cpp:294] The NetState phase (0) differed from the phase (1) specified by a rule in layer mnist
I0408 11:50:53.132288 10019 net.cpp:294] The NetState phase (0) differed from the phase (1) specified by a rule in layer accuracy
I0408 11:50:53.132410 10019 net.cpp:51] Initializing net from parameters: 
name: "LeNet"
state {
  phase: TRAIN
  level: 0
  stage: ""
}
layer {
  name: "mnist"
  type: "Data"
  top: "data"
  top: "label"
  include {
    phase: TRAIN
  }
  transform_param {
    scale: 0.00390625
  }
  data_param {
    source: "examples/mnist/mnist_train_lmdb"
    batch_size: 64
    backend: LMDB
  }
}
layer {
  name: "conv0"
  type: "Convolution"
  bottom: "data"
  top: "conv0"
  param {
    lr_mult: 1
  }
  param {
    lr_mult: 2
  }
  convolution_param {
    num_output: 50
    kernel_size: 5
    stride: 1
    weight_filler {
      type: "xavier"
    }
    bias_filler {
      type: "constant"
    }
  }
}
layer {
  name: "pool0"
  type: "Pooling"
  bottom: "conv0"
  top: "pool0"
  pooling_param {
    pool: MAX
    kernel_size: 2
    stride: 2
  }
}
layer {
  name: "conv1"
  type: "Convolution"
  bottom: "pool0"
  top: "conv1"
  param {
    lr_mult: 1
  }
  param {
    lr_mult: 2
  }
  convolution_param {
    num_output: 50
    kernel_size: 5
    stride: 1
    weight_filler {
      type: "xavier"
    }
    bias_filler {
      type: "constant"
    }
  }
}
layer {
  name: "pool1"
  type: "Pooling"
  bottom: "conv1"
  top: "pool1"
  pooling_param {
    pool: MAX
    kernel_size: 2
    stride: 2
  }
}
layer {
  name: "ip1"
  type: "InnerProduct"
  bottom: "pool1"
  top: "ip1"
  param {
    lr_mult: 1
  }
  param {
    lr_mult: 2
  }
  inner_product_param {
    num_output: 10
    weight_filler {
      type: "xavier"
    }
    bias_filler {
      type: "constant"
    }
  }
}
layer {
  name: "relu1"
  type: "ReLU"
  bottom: "ip1"
  top: "ip1"
}
layer {
  name: "loss"
  type: "SoftmaxWithLoss"
  bottom: "ip1"
  bottom: "label"
  top: "loss"
}
I0408 11:50:53.132480 10019 layer_factory.hpp:77] Creating layer mnist
I0408 11:50:53.132618 10019 db_lmdb.cpp:35] Opened lmdb examples/mnist/mnist_train_lmdb
I0408 11:50:53.132670 10019 net.cpp:84] Creating Layer mnist
I0408 11:50:53.132678 10019 net.cpp:380] mnist -> data
I0408 11:50:53.132694 10019 net.cpp:380] mnist -> label
I0408 11:50:53.133222 10019 data_layer.cpp:45] output data size: 64,1,28,28
I0408 11:50:53.134539 10019 net.cpp:122] Setting up mnist
I0408 11:50:53.134548 10019 net.cpp:129] Top shape: 64 1 28 28 (50176)
I0408 11:50:53.134572 10019 net.cpp:129] Top shape: 64 (64)
I0408 11:50:53.134574 10019 net.cpp:137] Memory required for data: 200960
I0408 11:50:53.134598 10019 layer_factory.hpp:77] Creating layer conv0
I0408 11:50:53.134608 10019 net.cpp:84] Creating Layer conv0
I0408 11:50:53.134613 10019 net.cpp:406] conv0 <- data
I0408 11:50:53.134624 10019 net.cpp:380] conv0 -> conv0
I0408 11:50:53.135828 10019 net.cpp:122] Setting up conv0
I0408 11:50:53.135835 10019 net.cpp:129] Top shape: 64 50 24 24 (1843200)
I0408 11:50:53.135838 10019 net.cpp:137] Memory required for data: 7573760
I0408 11:50:53.135869 10019 layer_factory.hpp:77] Creating layer pool0
I0408 11:50:53.135874 10019 net.cpp:84] Creating Layer pool0
I0408 11:50:53.135876 10019 net.cpp:406] pool0 <- conv0
I0408 11:50:53.135881 10019 net.cpp:380] pool0 -> pool0
I0408 11:50:53.135970 10019 net.cpp:122] Setting up pool0
I0408 11:50:53.135975 10019 net.cpp:129] Top shape: 64 50 12 12 (460800)
I0408 11:50:53.136006 10019 net.cpp:137] Memory required for data: 9416960
I0408 11:50:53.136008 10019 layer_factory.hpp:77] Creating layer conv1
I0408 11:50:53.136016 10019 net.cpp:84] Creating Layer conv1
I0408 11:50:53.136019 10019 net.cpp:406] conv1 <- pool0
I0408 11:50:53.136023 10019 net.cpp:380] conv1 -> conv1
I0408 11:50:53.136853 10019 net.cpp:122] Setting up conv1
I0408 11:50:53.136862 10019 net.cpp:129] Top shape: 64 50 8 8 (204800)
I0408 11:50:53.136864 10019 net.cpp:137] Memory required for data: 10236160
I0408 11:50:53.136889 10019 layer_factory.hpp:77] Creating layer pool1
I0408 11:50:53.136895 10019 net.cpp:84] Creating Layer pool1
I0408 11:50:53.136912 10019 net.cpp:406] pool1 <- conv1
I0408 11:50:53.136916 10019 net.cpp:380] pool1 -> pool1
I0408 11:50:53.136943 10019 net.cpp:122] Setting up pool1
I0408 11:50:53.136948 10019 net.cpp:129] Top shape: 64 50 4 4 (51200)
I0408 11:50:53.136950 10019 net.cpp:137] Memory required for data: 10440960
I0408 11:50:53.136952 10019 layer_factory.hpp:77] Creating layer ip1
I0408 11:50:53.136956 10019 net.cpp:84] Creating Layer ip1
I0408 11:50:53.136958 10019 net.cpp:406] ip1 <- pool1
I0408 11:50:53.136963 10019 net.cpp:380] ip1 -> ip1
I0408 11:50:53.137593 10019 net.cpp:122] Setting up ip1
I0408 11:50:53.137598 10019 net.cpp:129] Top shape: 64 10 (640)
I0408 11:50:53.137614 10019 net.cpp:137] Memory required for data: 10443520
I0408 11:50:53.137620 10019 layer_factory.hpp:77] Creating layer relu1
I0408 11:50:53.137625 10019 net.cpp:84] Creating Layer relu1
I0408 11:50:53.137627 10019 net.cpp:406] relu1 <- ip1
I0408 11:50:53.137631 10019 net.cpp:367] relu1 -> ip1 (in-place)
I0408 11:50:53.137656 10019 net.cpp:122] Setting up relu1
I0408 11:50:53.137660 10019 net.cpp:129] Top shape: 64 10 (640)
I0408 11:50:53.137662 10019 net.cpp:137] Memory required for data: 10446080
I0408 11:50:53.137665 10019 layer_factory.hpp:77] Creating layer loss
I0408 11:50:53.137668 10019 net.cpp:84] Creating Layer loss
I0408 11:50:53.137671 10019 net.cpp:406] loss <- ip1
I0408 11:50:53.137673 10019 net.cpp:406] loss <- label
I0408 11:50:53.137677 10019 net.cpp:380] loss -> loss
I0408 11:50:53.137686 10019 layer_factory.hpp:77] Creating layer loss
…
I0408 11:50:53.138011 10019 solver.cpp:173] Creating test net (#0) specified by net file: ECE595/mnist/train_test/var_fc_size/lenet_train_test_fcl1_fcn300.prototxt
I0408 11:50:53.138027 10019 net.cpp:294] The NetState phase (1) differed from the phase (0) specified by a rule in layer mnist
I0408 11:50:53.138087 10019 net.cpp:51] Initializing net from parameters: 
name: "LeNet"
state {
  phase: TEST
}
layer {
  name: "mnist"
  type: "Data"
  top: "data"
  top: "label"
  include {
    phase: TEST
  }
  transform_param {
    scale: 0.00390625
  }
  data_param {
    source: "examples/mnist/mnist_test_lmdb"
    batch_size: 100
    backend: LMDB
  }
}
layer {
  name: "conv0"
  type: "Convolution"
  bottom: "data"
  top: "conv0"
  param {
    lr_mult: 1
  }
  param {
    lr_mult: 2
  }
  convolution_param {
    num_output: 50
    kernel_size: 5
    stride: 1
    weight_filler {
      type: "xavier"
    }
    bias_filler {
      type: "constant"
    }
  }
}
layer {
  name: "pool0"
  type: "Pooling"
  bottom: "conv0"
  top: "pool0"
  pooling_param {
    pool: MAX
    kernel_size: 2
    stride: 2
  }
}
layer {
  name: "conv1"
  type: "Convolution"
  bottom: "pool0"
  top: "conv1"
  param {
    lr_mult: 1
  }
  param {
    lr_mult: 2
  }
  convolution_param {
    num_output: 50
    kernel_size: 5
    stride: 1
    weight_filler {
      type: "xavier"
    }
    bias_filler {
      type: "constant"
    }
  }
}
layer {
  name: "pool1"
  type: "Pooling"
  bottom: "conv1"
  top: "pool1"
  pooling_param {
    pool: MAX
    kernel_size: 2
    stride: 2
  }
}
layer {
  name: "ip1"
  type: "InnerProduct"
  bottom: "pool1"
  top: "ip1"
  param {
    lr_mult: 1
  }
  param {
    lr_mult: 2
  }
  inner_product_param {
    num_output: 10
    weight_filler {
      type: "xavier"
    }
    bias_filler {
      type: "constant"
    }
  }
}
layer {
  name: "relu1"
  type: "ReLU"
  bottom: "ip1"
  top: "ip1"
}
layer {
  name: "accuracy"
  type: "Accuracy"
  bottom: "ip1"
  bottom: "label"
  top: "accuracy"
  include {
    phase: TEST
  }
}
layer {
  name: "loss"
  type: "SoftmaxWithLoss"
  bottom: "ip1"
  bottom: "label"
  top: "loss"
}
I0408 11:50:53.138160 10019 layer_factory.hpp:77] Creating layer mnist
I0408 11:50:53.138236 10019 db_lmdb.cpp:35] Opened lmdb examples/mnist/mnist_test_lmdb
I0408 11:50:53.138247 10019 net.cpp:84] Creating Layer mnist
I0408 11:50:53.138252 10019 net.cpp:380] mnist -> data
I0408 11:50:53.138257 10019 net.cpp:380] mnist -> label
I0408 11:50:53.138420 10019 data_layer.cpp:45] output data size: 100,1,28,28
I0408 11:50:53.140281 10019 net.cpp:122] Setting up mnist
I0408 11:50:53.140310 10019 net.cpp:129] Top shape: 100 1 28 28 (78400)
I0408 11:50:53.140312 10019 net.cpp:129] Top shape: 100 (100)
I0408 11:50:53.140314 10019 net.cpp:137] Memory required for data: 314000
I0408 11:50:53.140317 10019 layer_factory.hpp:77] Creating layer label_mnist_1_split
I0408 11:50:53.140323 10019 net.cpp:84] Creating Layer label_mnist_1_split
I0408 11:50:53.140327 10019 net.cpp:406] label_mnist_1_split <- label
I0408 11:50:53.140333 10019 net.cpp:380] label_mnist_1_split -> label_mnist_1_split_0
I0408 11:50:53.140339 10019 net.cpp:380] label_mnist_1_split -> label_mnist_1_split_1
I0408 11:50:53.140374 10019 net.cpp:122] Setting up label_mnist_1_split
I0408 11:50:53.140379 10019 net.cpp:129] Top shape: 100 (100)
I0408 11:50:53.140383 10019 net.cpp:129] Top shape: 100 (100)
I0408 11:50:53.140383 10019 net.cpp:137] Memory required for data: 314800
I0408 11:50:53.140386 10019 layer_factory.hpp:77] Creating layer conv0
I0408 11:50:53.140394 10019 net.cpp:84] Creating Layer conv0
I0408 11:50:53.140398 10019 net.cpp:406] conv0 <- data
I0408 11:50:53.140403 10019 net.cpp:380] conv0 -> conv0
I0408 11:50:53.140625 10019 net.cpp:122] Setting up conv0
I0408 11:50:53.140631 10019 net.cpp:129] Top shape: 100 50 24 24 (2880000)
I0408 11:50:53.140633 10019 net.cpp:137] Memory required for data: 11834800
I0408 11:50:53.140641 10019 layer_factory.hpp:77] Creating layer pool0
I0408 11:50:53.140647 10019 net.cpp:84] Creating Layer pool0
I0408 11:50:53.140650 10019 net.cpp:406] pool0 <- conv0
I0408 11:50:53.140653 10019 net.cpp:380] pool0 -> pool0
I0408 11:50:53.140679 10019 net.cpp:122] Setting up pool0
I0408 11:50:53.140684 10019 net.cpp:129] Top shape: 100 50 12 12 (720000)
I0408 11:50:53.140686 10019 net.cpp:137] Memory required for data: 14714800
I0408 11:50:53.140688 10019 layer_factory.hpp:77] Creating layer conv1
I0408 11:50:53.140694 10019 net.cpp:84] Creating Layer conv1
I0408 11:50:53.140698 10019 net.cpp:406] conv1 <- pool0
I0408 11:50:53.140702 10019 net.cpp:380] conv1 -> conv1
I0408 11:50:53.141178 10019 net.cpp:122] Setting up conv1
I0408 11:50:53.141183 10019 net.cpp:129] Top shape: 100 50 8 8 (320000)
I0408 11:50:53.141186 10019 net.cpp:137] Memory required for data: 15994800
I0408 11:50:53.141191 10019 layer_factory.hpp:77] Creating layer pool1
I0408 11:50:53.141206 10019 net.cpp:84] Creating Layer pool1
I0408 11:50:53.141207 10019 net.cpp:406] pool1 <- conv1
I0408 11:50:53.141212 10019 net.cpp:380] pool1 -> pool1
I0408 11:50:53.141269 10019 net.cpp:122] Setting up pool1
I0408 11:50:53.141274 10019 net.cpp:129] Top shape: 100 50 4 4 (80000)
I0408 11:50:53.141276 10019 net.cpp:137] Memory required for data: 16314800
I0408 11:50:53.141280 10019 layer_factory.hpp:77] Creating layer ip1
I0408 11:50:53.141288 10019 net.cpp:84] Creating Layer ip1
I0408 11:50:53.141290 10019 net.cpp:406] ip1 <- pool1
I0408 11:50:53.141294 10019 net.cpp:380] ip1 -> ip1
I0408 11:50:53.141414 10019 net.cpp:122] Setting up ip1
I0408 11:50:53.141419 10019 net.cpp:129] Top shape: 100 10 (1000)
I0408 11:50:53.141422 10019 net.cpp:137] Memory required for data: 16318800
I0408 11:50:53.141429 10019 layer_factory.hpp:77] Creating layer relu1
I0408 11:50:53.141434 10019 net.cpp:84] Creating Layer relu1
I0408 11:50:53.141438 10019 net.cpp:406] relu1 <- ip1
I0408 11:50:53.141441 10019 net.cpp:367] relu1 -> ip1 (in-place)
I0408 11:50:53.141445 10019 net.cpp:122] Setting up relu1
I0408 11:50:53.141449 10019 net.cpp:129] Top shape: 100 10 (1000)
I0408 11:50:53.141451 10019 net.cpp:137] Memory required for data: 16322800
I0408 11:50:53.141453 10019 layer_factory.hpp:77] Creating layer ip1_relu1_0_split
I0408 11:50:53.141458 10019 net.cpp:84] Creating Layer ip1_relu1_0_split
I0408 11:50:53.141461 10019 net.cpp:406] ip1_relu1_0_split <- ip1
I0408 11:50:53.141465 10019 net.cpp:380] ip1_relu1_0_split -> ip1_relu1_0_split_0
I0408 11:50:53.141472 10019 net.cpp:380] ip1_relu1_0_split -> ip1_relu1_0_split_1
I0408 11:50:53.141525 10019 net.cpp:122] Setting up ip1_relu1_0_split
I0408 11:50:53.141530 10019 net.cpp:129] Top shape: 100 10 (1000)
I0408 11:50:53.141532 10019 net.cpp:129] Top shape: 100 10 (1000)
I0408 11:50:53.141535 10019 net.cpp:137] Memory required for data: 16330800
I0408 11:50:53.141536 10019 layer_factory.hpp:77] Creating layer accuracy
I0408 11:50:53.141541 10019 net.cpp:84] Creating Layer accuracy
I0408 11:50:53.141544 10019 net.cpp:406] accuracy <- ip1_relu1_0_split_0
I0408 11:50:53.141547 10019 net.cpp:406] accuracy <- label_mnist_1_split_0
I0408 11:50:53.141551 10019 net.cpp:380] accuracy -> accuracy
…
