…
I0408 12:10:11.346853 10414 net.cpp:294] The NetState phase (0) differed from the phase (1) specified by a rule in layer mnist
I0408 12:10:11.346863 10414 net.cpp:294] The NetState phase (0) differed from the phase (1) specified by a rule in layer accuracy
I0408 12:10:11.346957 10414 net.cpp:51] Initializing net from parameters: 
name: "LeNet"
state {
  phase: TRAIN
  level: 0
  stage: ""
}
layer {
  name: "mnist"
  type: "Data"
  top: "data"
  top: "label"
  include {
    phase: TRAIN
  }
  transform_param {
    scale: 0.00390625
  }
  data_param {
    source: "examples/mnist/mnist_train_lmdb"
    batch_size: 64
    backend: LMDB
  }
}
layer {
  name: "conv0"
  type: "Convolution"
  bottom: "data"
  top: "conv0"
  param {
    lr_mult: 1
  }
  param {
    lr_mult: 2
  }
  convolution_param {
    num_output: 50
    kernel_size: 5
    stride: 1
    weight_filler {
      type: "xavier"
    }
    bias_filler {
      type: "constant"
    }
  }
}
layer {
  name: "pool0"
  type: "Pooling"
  bottom: "conv0"
  top: "pool0"
  pooling_param {
    pool: MAX
    kernel_size: 2
    stride: 2
  }
}
layer {
  name: "conv1"
  type: "Convolution"
  bottom: "pool0"
  top: "conv1"
  param {
    lr_mult: 1
  }
  param {
    lr_mult: 2
  }
  convolution_param {
    num_output: 50
    kernel_size: 5
    stride: 1
    weight_filler {
      type: "xavier"
    }
    bias_filler {
      type: "constant"
    }
  }
}
layer {
  name: "pool1"
  type: "Pooling"
  bottom: "conv1"
  top: "pool1"
  pooling_param {
    pool: MAX
    kernel_size: 2
    stride: 2
  }
}
layer {
  name: "ip1"
  type: "InnerProduct"
  bottom: "pool1"
  top: "ip1"
  param {
    lr_mult: 1
  }
  param {
    lr_mult: 2
  }
  inner_product_param {
    num_output: 300
    weight_filler {
      type: "xavier"
    }
    bias_filler {
      type: "constant"
    }
  }
}
layer {
  name: "relu1"
  type: "ReLU"
  bottom: "ip1"
  top: "ip1"
}
layer {
  name: "ip2"
  type: "InnerProduct"
  bottom: "ip1"
  top: "ip2"
  param {
    lr_mult: 1
  }
  param {
    lr_mult: 2
  }
  inner_product_param {
    num_output: 10
    weight_filler {
      type: "xavier"
    }
    bias_filler {
      type: "constant"
    }
  }
}
layer {
  name: "relu2"
  type: "ReLU"
  bottom: "ip2"
  top: "ip2"
}
layer {
  name: "loss"
  type: "SoftmaxWithLoss"
  bottom: "ip2"
  bottom: "label"
  top: "loss"
}
I0408 12:10:11.347051 10414 layer_factory.hpp:77] Creating layer mnist
I0408 12:10:11.347157 10414 db_lmdb.cpp:35] Opened lmdb examples/mnist/mnist_train_lmdb
I0408 12:10:11.347193 10414 net.cpp:84] Creating Layer mnist
I0408 12:10:11.347240 10414 net.cpp:380] mnist -> data
I0408 12:10:11.347256 10414 net.cpp:380] mnist -> label
I0408 12:10:11.347790 10414 data_layer.cpp:45] output data size: 64,1,28,28
I0408 12:10:11.349278 10414 net.cpp:122] Setting up mnist
I0408 12:10:11.349289 10414 net.cpp:129] Top shape: 64 1 28 28 (50176)
I0408 12:10:11.349292 10414 net.cpp:129] Top shape: 64 (64)
I0408 12:10:11.349293 10414 net.cpp:137] Memory required for data: 200960
I0408 12:10:11.349299 10414 layer_factory.hpp:77] Creating layer conv0
I0408 12:10:11.349310 10414 net.cpp:84] Creating Layer conv0
I0408 12:10:11.349344 10414 net.cpp:406] conv0 <- data
I0408 12:10:11.349354 10414 net.cpp:380] conv0 -> conv0
I0408 12:10:11.350354 10414 net.cpp:122] Setting up conv0
I0408 12:10:11.350381 10414 net.cpp:129] Top shape: 64 50 24 24 (1843200)
I0408 12:10:11.350384 10414 net.cpp:137] Memory required for data: 7573760
I0408 12:10:11.350430 10414 layer_factory.hpp:77] Creating layer pool0
I0408 12:10:11.350451 10414 net.cpp:84] Creating Layer pool0
I0408 12:10:11.350453 10414 net.cpp:406] pool0 <- conv0
I0408 12:10:11.350474 10414 net.cpp:380] pool0 -> pool0
I0408 12:10:11.350548 10414 net.cpp:122] Setting up pool0
I0408 12:10:11.350553 10414 net.cpp:129] Top shape: 64 50 12 12 (460800)
I0408 12:10:11.350570 10414 net.cpp:137] Memory required for data: 9416960
I0408 12:10:11.350571 10414 layer_factory.hpp:77] Creating layer conv1
I0408 12:10:11.350597 10414 net.cpp:84] Creating Layer conv1
I0408 12:10:11.350600 10414 net.cpp:406] conv1 <- pool0
I0408 12:10:11.350603 10414 net.cpp:380] conv1 -> conv1
I0408 12:10:11.351425 10414 net.cpp:122] Setting up conv1
I0408 12:10:11.351433 10414 net.cpp:129] Top shape: 64 50 8 8 (204800)
I0408 12:10:11.351436 10414 net.cpp:137] Memory required for data: 10236160
I0408 12:10:11.351460 10414 layer_factory.hpp:77] Creating layer pool1
I0408 12:10:11.351470 10414 net.cpp:84] Creating Layer pool1
I0408 12:10:11.351472 10414 net.cpp:406] pool1 <- conv1
I0408 12:10:11.351478 10414 net.cpp:380] pool1 -> pool1
I0408 12:10:11.351557 10414 net.cpp:122] Setting up pool1
I0408 12:10:11.351562 10414 net.cpp:129] Top shape: 64 50 4 4 (51200)
I0408 12:10:11.351563 10414 net.cpp:137] Memory required for data: 10440960
I0408 12:10:11.351567 10414 layer_factory.hpp:77] Creating layer ip1
I0408 12:10:11.351572 10414 net.cpp:84] Creating Layer ip1
I0408 12:10:11.351573 10414 net.cpp:406] ip1 <- pool1
I0408 12:10:11.351577 10414 net.cpp:380] ip1 -> ip1
I0408 12:10:11.353202 10414 net.cpp:122] Setting up ip1
I0408 12:10:11.353210 10414 net.cpp:129] Top shape: 64 300 (19200)
I0408 12:10:11.353230 10414 net.cpp:137] Memory required for data: 10517760
I0408 12:10:11.353237 10414 layer_factory.hpp:77] Creating layer relu1
I0408 12:10:11.353241 10414 net.cpp:84] Creating Layer relu1
I0408 12:10:11.353245 10414 net.cpp:406] relu1 <- ip1
I0408 12:10:11.353248 10414 net.cpp:367] relu1 -> ip1 (in-place)
I0408 12:10:11.353272 10414 net.cpp:122] Setting up relu1
I0408 12:10:11.353276 10414 net.cpp:129] Top shape: 64 300 (19200)
I0408 12:10:11.353278 10414 net.cpp:137] Memory required for data: 10594560
I0408 12:10:11.353279 10414 layer_factory.hpp:77] Creating layer ip2
I0408 12:10:11.353283 10414 net.cpp:84] Creating Layer ip2
I0408 12:10:11.353286 10414 net.cpp:406] ip2 <- ip1
I0408 12:10:11.353291 10414 net.cpp:380] ip2 -> ip2
I0408 12:10:11.353418 10414 net.cpp:122] Setting up ip2
I0408 12:10:11.353422 10414 net.cpp:129] Top shape: 64 10 (640)
I0408 12:10:11.353425 10414 net.cpp:137] Memory required for data: 10597120
I0408 12:10:11.353428 10414 layer_factory.hpp:77] Creating layer relu2
I0408 12:10:11.353451 10414 net.cpp:84] Creating Layer relu2
I0408 12:10:11.353453 10414 net.cpp:406] relu2 <- ip2
I0408 12:10:11.353474 10414 net.cpp:367] relu2 -> ip2 (in-place)
I0408 12:10:11.353477 10414 net.cpp:122] Setting up relu2
I0408 12:10:11.353480 10414 net.cpp:129] Top shape: 64 10 (640)
I0408 12:10:11.353482 10414 net.cpp:137] Memory required for data: 10599680
I0408 12:10:11.353483 10414 layer_factory.hpp:77] Creating layer loss
I0408 12:10:11.353487 10414 net.cpp:84] Creating Layer loss
I0408 12:10:11.353489 10414 net.cpp:406] loss <- ip2
I0408 12:10:11.353492 10414 net.cpp:406] loss <- label
I0408 12:10:11.353497 10414 net.cpp:380] loss -> loss
I0408 12:10:11.353507 10414 layer_factory.hpp:77] Creating layer loss
…
I0408 12:10:11.353873 10414 solver.cpp:173] Creating test net (#0) specified by net file: ECE595/mnist/train_test/var_fc_size/lenet_train_test_fcl2_fcn300.prototxt
I0408 12:10:11.353888 10414 net.cpp:294] The NetState phase (1) differed from the phase (0) specified by a rule in layer mnist
I0408 12:10:11.353988 10414 net.cpp:51] Initializing net from parameters: 
name: "LeNet"
state {
  phase: TEST
}
layer {
  name: "mnist"
  type: "Data"
  top: "data"
  top: "label"
  include {
    phase: TEST
  }
  transform_param {
    scale: 0.00390625
  }
  data_param {
    source: "examples/mnist/mnist_test_lmdb"
    batch_size: 100
    backend: LMDB
  }
}
layer {
  name: "conv0"
  type: "Convolution"
  bottom: "data"
  top: "conv0"
  param {
    lr_mult: 1
  }
  param {
    lr_mult: 2
  }
  convolution_param {
    num_output: 50
    kernel_size: 5
    stride: 1
    weight_filler {
      type: "xavier"
    }
    bias_filler {
      type: "constant"
    }
  }
}
layer {
  name: "pool0"
  type: "Pooling"
  bottom: "conv0"
  top: "pool0"
  pooling_param {
    pool: MAX
    kernel_size: 2
    stride: 2
  }
}
layer {
  name: "conv1"
  type: "Convolution"
  bottom: "pool0"
  top: "conv1"
  param {
    lr_mult: 1
  }
  param {
    lr_mult: 2
  }
  convolution_param {
    num_output: 50
    kernel_size: 5
    stride: 1
    weight_filler {
      type: "xavier"
    }
    bias_filler {
      type: "constant"
    }
  }
}
layer {
  name: "pool1"
  type: "Pooling"
  bottom: "conv1"
  top: "pool1"
  pooling_param {
    pool: MAX
    kernel_size: 2
    stride: 2
  }
}
layer {
  name: "ip1"
  type: "InnerProduct"
  bottom: "pool1"
  top: "ip1"
  param {
    lr_mult: 1
  }
  param {
    lr_mult: 2
  }
  inner_product_param {
    num_output: 300
    weight_filler {
      type: "xavier"
    }
    bias_filler {
      type: "constant"
    }
  }
}
layer {
  name: "relu1"
  type: "ReLU"
  bottom: "ip1"
  top: "ip1"
}
layer {
  name: "ip2"
  type: "InnerProduct"
  bottom: "ip1"
  top: "ip2"
  param {
    lr_mult: 1
  }
  param {
    lr_mult: 2
  }
  inner_product_param {
    num_output: 10
    weight_filler {
      type: "xavier"
    }
    bias_filler {
      type: "constant"
    }
  }
}
layer {
  name: "relu2"
  type: "ReLU"
  bottom: "ip2"
  top: "ip2"
}
layer {
  name: "accuracy"
  type: "Accuracy"
  bottom: "ip2"
  bottom: "label"
  top: "accuracy"
  include {
    phase: TEST
  }
}
layer {
  name: "loss"
  type: "SoftmaxWithLoss"
  bottom: "ip2"
  bottom: "label"
  top: "loss"
}
I0408 12:10:11.354056 10414 layer_factory.hpp:77] Creating layer mnist
I0408 12:10:11.354110 10414 db_lmdb.cpp:35] Opened lmdb examples/mnist/mnist_test_lmdb
I0408 12:10:11.354120 10414 net.cpp:84] Creating Layer mnist
I0408 12:10:11.354123 10414 net.cpp:380] mnist -> data
I0408 12:10:11.354130 10414 net.cpp:380] mnist -> label
I0408 12:10:11.354207 10414 data_layer.cpp:45] output data size: 100,1,28,28
I0408 12:10:11.355741 10414 net.cpp:122] Setting up mnist
I0408 12:10:11.355753 10414 net.cpp:129] Top shape: 100 1 28 28 (78400)
I0408 12:10:11.355756 10414 net.cpp:129] Top shape: 100 (100)
I0408 12:10:11.355757 10414 net.cpp:137] Memory required for data: 314000
I0408 12:10:11.355761 10414 layer_factory.hpp:77] Creating layer label_mnist_1_split
I0408 12:10:11.355784 10414 net.cpp:84] Creating Layer label_mnist_1_split
I0408 12:10:11.355787 10414 net.cpp:406] label_mnist_1_split <- label
I0408 12:10:11.355809 10414 net.cpp:380] label_mnist_1_split -> label_mnist_1_split_0
I0408 12:10:11.355815 10414 net.cpp:380] label_mnist_1_split -> label_mnist_1_split_1
I0408 12:10:11.355949 10414 net.cpp:122] Setting up label_mnist_1_split
I0408 12:10:11.355953 10414 net.cpp:129] Top shape: 100 (100)
I0408 12:10:11.355957 10414 net.cpp:129] Top shape: 100 (100)
I0408 12:10:11.355957 10414 net.cpp:137] Memory required for data: 314800
I0408 12:10:11.355979 10414 layer_factory.hpp:77] Creating layer conv0
I0408 12:10:11.355988 10414 net.cpp:84] Creating Layer conv0
I0408 12:10:11.355991 10414 net.cpp:406] conv0 <- data
I0408 12:10:11.356012 10414 net.cpp:380] conv0 -> conv0
I0408 12:10:11.356222 10414 net.cpp:122] Setting up conv0
I0408 12:10:11.356228 10414 net.cpp:129] Top shape: 100 50 24 24 (2880000)
I0408 12:10:11.356245 10414 net.cpp:137] Memory required for data: 11834800
I0408 12:10:11.356251 10414 layer_factory.hpp:77] Creating layer pool0
I0408 12:10:11.356256 10414 net.cpp:84] Creating Layer pool0
I0408 12:10:11.356258 10414 net.cpp:406] pool0 <- conv0
I0408 12:10:11.356262 10414 net.cpp:380] pool0 -> pool0
I0408 12:10:11.356287 10414 net.cpp:122] Setting up pool0
I0408 12:10:11.356292 10414 net.cpp:129] Top shape: 100 50 12 12 (720000)
I0408 12:10:11.356294 10414 net.cpp:137] Memory required for data: 14714800
I0408 12:10:11.356297 10414 layer_factory.hpp:77] Creating layer conv1
I0408 12:10:11.356317 10414 net.cpp:84] Creating Layer conv1
I0408 12:10:11.356319 10414 net.cpp:406] conv1 <- pool0
I0408 12:10:11.356323 10414 net.cpp:380] conv1 -> conv1
I0408 12:10:11.356878 10414 net.cpp:122] Setting up conv1
I0408 12:10:11.356886 10414 net.cpp:129] Top shape: 100 50 8 8 (320000)
I0408 12:10:11.356889 10414 net.cpp:137] Memory required for data: 15994800
I0408 12:10:11.356899 10414 layer_factory.hpp:77] Creating layer pool1
I0408 12:10:11.356906 10414 net.cpp:84] Creating Layer pool1
I0408 12:10:11.356910 10414 net.cpp:406] pool1 <- conv1
I0408 12:10:11.356916 10414 net.cpp:380] pool1 -> pool1
I0408 12:10:11.356962 10414 net.cpp:122] Setting up pool1
I0408 12:10:11.356967 10414 net.cpp:129] Top shape: 100 50 4 4 (80000)
I0408 12:10:11.356971 10414 net.cpp:137] Memory required for data: 16314800
I0408 12:10:11.356974 10414 layer_factory.hpp:77] Creating layer ip1
I0408 12:10:11.356982 10414 net.cpp:84] Creating Layer ip1
I0408 12:10:11.356986 10414 net.cpp:406] ip1 <- pool1
I0408 12:10:11.356992 10414 net.cpp:380] ip1 -> ip1
I0408 12:10:11.358544 10414 net.cpp:122] Setting up ip1
I0408 12:10:11.358553 10414 net.cpp:129] Top shape: 100 300 (30000)
I0408 12:10:11.358556 10414 net.cpp:137] Memory required for data: 16434800
I0408 12:10:11.358566 10414 layer_factory.hpp:77] Creating layer relu1
I0408 12:10:11.358575 10414 net.cpp:84] Creating Layer relu1
I0408 12:10:11.358579 10414 net.cpp:406] relu1 <- ip1
I0408 12:10:11.358585 10414 net.cpp:367] relu1 -> ip1 (in-place)
I0408 12:10:11.358592 10414 net.cpp:122] Setting up relu1
I0408 12:10:11.358599 10414 net.cpp:129] Top shape: 100 300 (30000)
I0408 12:10:11.358603 10414 net.cpp:137] Memory required for data: 16554800
I0408 12:10:11.358605 10414 layer_factory.hpp:77] Creating layer ip2
I0408 12:10:11.358614 10414 net.cpp:84] Creating Layer ip2
I0408 12:10:11.358618 10414 net.cpp:406] ip2 <- ip1
I0408 12:10:11.358624 10414 net.cpp:380] ip2 -> ip2
I0408 12:10:11.358752 10414 net.cpp:122] Setting up ip2
I0408 12:10:11.358757 10414 net.cpp:129] Top shape: 100 10 (1000)
I0408 12:10:11.358762 10414 net.cpp:137] Memory required for data: 16558800
I0408 12:10:11.358767 10414 layer_factory.hpp:77] Creating layer relu2
I0408 12:10:11.358773 10414 net.cpp:84] Creating Layer relu2
I0408 12:10:11.358777 10414 net.cpp:406] relu2 <- ip2
I0408 12:10:11.358784 10414 net.cpp:367] relu2 -> ip2 (in-place)
I0408 12:10:11.358790 10414 net.cpp:122] Setting up relu2
I0408 12:10:11.358795 10414 net.cpp:129] Top shape: 100 10 (1000)
I0408 12:10:11.358798 10414 net.cpp:137] Memory required for data: 16562800
I0408 12:10:11.358803 10414 layer_factory.hpp:77] Creating layer ip2_relu2_0_split
I0408 12:10:11.358808 10414 net.cpp:84] Creating Layer ip2_relu2_0_split
I0408 12:10:11.358811 10414 net.cpp:406] ip2_relu2_0_split <- ip2
I0408 12:10:11.358815 10414 net.cpp:380] ip2_relu2_0_split -> ip2_relu2_0_split_0
I0408 12:10:11.358835 10414 net.cpp:380] ip2_relu2_0_split -> ip2_relu2_0_split_1
I0408 12:10:11.358878 10414 net.cpp:122] Setting up ip2_relu2_0_split
I0408 12:10:11.358883 10414 net.cpp:129] Top shape: 100 10 (1000)
I0408 12:10:11.358887 10414 net.cpp:129] Top shape: 100 10 (1000)
I0408 12:10:11.358891 10414 net.cpp:137] Memory required for data: 16570800
I0408 12:10:11.358893 10414 layer_factory.hpp:77] Creating layer accuracy
I0408 12:10:11.358901 10414 net.cpp:84] Creating Layer accuracy
I0408 12:10:11.358906 10414 net.cpp:406] accuracy <- ip2_relu2_0_split_0
I0408 12:10:11.358911 10414 net.cpp:406] accuracy <- label_mnist_1_split_0
I0408 12:10:11.358930 10414 net.cpp:380] accuracy -> accuracy
…
