…
I0408 13:05:35.357386 11075 net.cpp:294] The NetState phase (0) differed from the phase (1) specified by a rule in layer mnist
I0408 13:05:35.357419 11075 net.cpp:294] The NetState phase (0) differed from the phase (1) specified by a rule in layer accuracy
I0408 13:05:35.357565 11075 net.cpp:51] Initializing net from parameters: 
name: "LeNet"
state {
  phase: TRAIN
  level: 0
  stage: ""
}
layer {
  name: "mnist"
  type: "Data"
  top: "data"
  top: "label"
  include {
    phase: TRAIN
  }
  transform_param {
    scale: 0.00390625
  }
  data_param {
    source: "examples/mnist/mnist_train_lmdb"
    batch_size: 64
    backend: LMDB
  }
}
layer {
  name: "conv0"
  type: "Convolution"
  bottom: "data"
  top: "conv0"
  param {
    lr_mult: 1
  }
  param {
    lr_mult: 2
  }
  convolution_param {
    num_output: 50
    kernel_size: 5
    stride: 1
    weight_filler {
      type: "xavier"
    }
    bias_filler {
      type: "constant"
    }
  }
}
layer {
  name: "pool0"
  type: "Pooling"
  bottom: "conv0"
  top: "pool0"
  pooling_param {
    pool: MAX
    kernel_size: 2
    stride: 2
  }
}
layer {
  name: "conv1"
  type: "Convolution"
  bottom: "pool0"
  top: "conv1"
  param {
    lr_mult: 1
  }
  param {
    lr_mult: 2
  }
  convolution_param {
    num_output: 50
    kernel_size: 5
    stride: 1
    weight_filler {
      type: "xavier"
    }
    bias_filler {
      type: "constant"
    }
  }
}
layer {
  name: "pool1"
  type: "Pooling"
  bottom: "conv1"
  top: "pool1"
  pooling_param {
    pool: MAX
    kernel_size: 2
    stride: 2
  }
}
layer {
  name: "ip1"
  type: "InnerProduct"
  bottom: "pool1"
  top: "ip1"
  param {
    lr_mult: 1
  }
  param {
    lr_mult: 2
  }
  inner_product_param {
    num_output: 300
    weight_filler {
      type: "xavier"
    }
    bias_filler {
      type: "constant"
    }
  }
}
layer {
  name: "relu1"
  type: "ReLU"
  bottom: "ip1"
  top: "ip1"
}
layer {
  name: "ip2"
  type: "InnerProduct"
  bottom: "ip1"
  top: "ip2"
  param {
    lr_mult: 1
  }
  param {
    lr_mult: 2
  }
  inner_product_param {
    num_output: 300
    weight_filler {
      type: "xavier"
    }
    bias_filler {
      type: "constant"
    }
  }
}
layer {
  name: "relu2"
  type: "ReLU"
  bottom: "ip2"
  top: "ip2"
}
layer {
  name: "ip3"
  type: "InnerProduct"
  bottom: "ip2"
  top: "ip3"
  param {
    lr_mult: 1
  }
  param {
    lr_mult: 2
  }
  inner_product_param {
    num_output: 10
    weight_filler {
      type: "xavier"
    }
    bias_filler {
      type: "constant"
    }
  }
}
layer {
  name: "relu3"
  type: "ReLU"
  bottom: "ip3"
  top: "ip3"
}
layer {
  name: "loss"
  type: "SoftmaxWithLoss"
  bottom: "ip3"
  bottom: "label"
  top: "loss"
}
I0408 13:05:35.357698 11075 layer_factory.hpp:77] Creating layer mnist
I0408 13:05:35.357825 11075 db_lmdb.cpp:35] Opened lmdb examples/mnist/mnist_train_lmdb
I0408 13:05:35.357882 11075 net.cpp:84] Creating Layer mnist
I0408 13:05:35.357889 11075 net.cpp:380] mnist -> data
I0408 13:05:35.357925 11075 net.cpp:380] mnist -> label
I0408 13:05:35.358602 11075 data_layer.cpp:45] output data size: 64,1,28,28
I0408 13:05:35.360196 11075 net.cpp:122] Setting up mnist
I0408 13:05:35.360206 11075 net.cpp:129] Top shape: 64 1 28 28 (50176)
I0408 13:05:35.360210 11075 net.cpp:129] Top shape: 64 (64)
I0408 13:05:35.360211 11075 net.cpp:137] Memory required for data: 200960
I0408 13:05:35.360234 11075 layer_factory.hpp:77] Creating layer conv0
I0408 13:05:35.360262 11075 net.cpp:84] Creating Layer conv0
I0408 13:05:35.360281 11075 net.cpp:406] conv0 <- data
I0408 13:05:35.360306 11075 net.cpp:380] conv0 -> conv0
I0408 13:05:35.361302 11075 net.cpp:122] Setting up conv0
I0408 13:05:35.361315 11075 net.cpp:129] Top shape: 64 50 24 24 (1843200)
I0408 13:05:35.361320 11075 net.cpp:137] Memory required for data: 7573760
I0408 13:05:35.361368 11075 layer_factory.hpp:77] Creating layer pool0
I0408 13:05:35.361377 11075 net.cpp:84] Creating Layer pool0
I0408 13:05:35.361382 11075 net.cpp:406] pool0 <- conv0
I0408 13:05:35.361404 11075 net.cpp:380] pool0 -> pool0
I0408 13:05:35.361531 11075 net.cpp:122] Setting up pool0
I0408 13:05:35.361541 11075 net.cpp:129] Top shape: 64 50 12 12 (460800)
I0408 13:05:35.361543 11075 net.cpp:137] Memory required for data: 9416960
I0408 13:05:35.361547 11075 layer_factory.hpp:77] Creating layer conv1
I0408 13:05:35.361578 11075 net.cpp:84] Creating Layer conv1
I0408 13:05:35.361582 11075 net.cpp:406] conv1 <- pool0
I0408 13:05:35.361589 11075 net.cpp:380] conv1 -> conv1
I0408 13:05:35.362735 11075 net.cpp:122] Setting up conv1
I0408 13:05:35.362745 11075 net.cpp:129] Top shape: 64 50 8 8 (204800)
I0408 13:05:35.362746 11075 net.cpp:137] Memory required for data: 10236160
I0408 13:05:35.362752 11075 layer_factory.hpp:77] Creating layer pool1
I0408 13:05:35.362759 11075 net.cpp:84] Creating Layer pool1
I0408 13:05:35.362781 11075 net.cpp:406] pool1 <- conv1
I0408 13:05:35.362785 11075 net.cpp:380] pool1 -> pool1
I0408 13:05:35.362848 11075 net.cpp:122] Setting up pool1
I0408 13:05:35.362855 11075 net.cpp:129] Top shape: 64 50 4 4 (51200)
I0408 13:05:35.362860 11075 net.cpp:137] Memory required for data: 10440960
I0408 13:05:35.362864 11075 layer_factory.hpp:77] Creating layer ip1
I0408 13:05:35.362871 11075 net.cpp:84] Creating Layer ip1
I0408 13:05:35.362875 11075 net.cpp:406] ip1 <- pool1
I0408 13:05:35.362897 11075 net.cpp:380] ip1 -> ip1
I0408 13:05:35.364925 11075 net.cpp:122] Setting up ip1
I0408 13:05:35.364953 11075 net.cpp:129] Top shape: 64 300 (19200)
I0408 13:05:35.364955 11075 net.cpp:137] Memory required for data: 10517760
I0408 13:05:35.364966 11075 layer_factory.hpp:77] Creating layer relu1
I0408 13:05:35.364974 11075 net.cpp:84] Creating Layer relu1
I0408 13:05:35.364996 11075 net.cpp:406] relu1 <- ip1
I0408 13:05:35.365001 11075 net.cpp:367] relu1 -> ip1 (in-place)
I0408 13:05:35.365010 11075 net.cpp:122] Setting up relu1
I0408 13:05:35.365015 11075 net.cpp:129] Top shape: 64 300 (19200)
I0408 13:05:35.365032 11075 net.cpp:137] Memory required for data: 10594560
I0408 13:05:35.365037 11075 layer_factory.hpp:77] Creating layer ip2
I0408 13:05:35.365051 11075 net.cpp:84] Creating Layer ip2
I0408 13:05:35.365054 11075 net.cpp:406] ip2 <- ip1
I0408 13:05:35.365059 11075 net.cpp:380] ip2 -> ip2
I0408 13:05:35.366425 11075 net.cpp:122] Setting up ip2
I0408 13:05:35.366435 11075 net.cpp:129] Top shape: 64 300 (19200)
I0408 13:05:35.366456 11075 net.cpp:137] Memory required for data: 10671360
I0408 13:05:35.366462 11075 layer_factory.hpp:77] Creating layer relu2
I0408 13:05:35.366469 11075 net.cpp:84] Creating Layer relu2
I0408 13:05:35.366474 11075 net.cpp:406] relu2 <- ip2
I0408 13:05:35.366498 11075 net.cpp:367] relu2 -> ip2 (in-place)
I0408 13:05:35.366518 11075 net.cpp:122] Setting up relu2
I0408 13:05:35.366523 11075 net.cpp:129] Top shape: 64 300 (19200)
I0408 13:05:35.366540 11075 net.cpp:137] Memory required for data: 10748160
I0408 13:05:35.366542 11075 layer_factory.hpp:77] Creating layer ip3
I0408 13:05:35.366549 11075 net.cpp:84] Creating Layer ip3
I0408 13:05:35.366552 11075 net.cpp:406] ip3 <- ip2
I0408 13:05:35.366560 11075 net.cpp:380] ip3 -> ip3
I0408 13:05:35.366698 11075 net.cpp:122] Setting up ip3
I0408 13:05:35.366703 11075 net.cpp:129] Top shape: 64 10 (640)
I0408 13:05:35.366706 11075 net.cpp:137] Memory required for data: 10750720
I0408 13:05:35.366735 11075 layer_factory.hpp:77] Creating layer relu3
I0408 13:05:35.366740 11075 net.cpp:84] Creating Layer relu3
I0408 13:05:35.366744 11075 net.cpp:406] relu3 <- ip3
I0408 13:05:35.366776 11075 net.cpp:367] relu3 -> ip3 (in-place)
I0408 13:05:35.366783 11075 net.cpp:122] Setting up relu3
I0408 13:05:35.366806 11075 net.cpp:129] Top shape: 64 10 (640)
I0408 13:05:35.366809 11075 net.cpp:137] Memory required for data: 10753280
I0408 13:05:35.366812 11075 layer_factory.hpp:77] Creating layer loss
I0408 13:05:35.366830 11075 net.cpp:84] Creating Layer loss
I0408 13:05:35.366834 11075 net.cpp:406] loss <- ip3
I0408 13:05:35.366838 11075 net.cpp:406] loss <- label
I0408 13:05:35.366847 11075 net.cpp:380] loss -> loss
I0408 13:05:35.366858 11075 layer_factory.hpp:77] Creating layer loss
…
I0408 13:05:35.367332 11075 solver.cpp:173] Creating test net (#0) specified by net file: ECE595/mnist/train_test/var_fc_size/lenet_train_test_fcl3_fcn300.prototxt
I0408 13:05:35.367350 11075 net.cpp:294] The NetState phase (1) differed from the phase (0) specified by a rule in layer mnist
I0408 13:05:35.367424 11075 net.cpp:51] Initializing net from parameters: 
name: "LeNet"
state {
  phase: TEST
}
layer {
  name: "mnist"
  type: "Data"
  top: "data"
  top: "label"
  include {
    phase: TEST
  }
  transform_param {
    scale: 0.00390625
  }
  data_param {
    source: "examples/mnist/mnist_test_lmdb"
    batch_size: 100
    backend: LMDB
  }
}
layer {
  name: "conv0"
  type: "Convolution"
  bottom: "data"
  top: "conv0"
  param {
    lr_mult: 1
  }
  param {
    lr_mult: 2
  }
  convolution_param {
    num_output: 50
    kernel_size: 5
    stride: 1
    weight_filler {
      type: "xavier"
    }
    bias_filler {
      type: "constant"
    }
  }
}
layer {
  name: "pool0"
  type: "Pooling"
  bottom: "conv0"
  top: "pool0"
  pooling_param {
    pool: MAX
    kernel_size: 2
    stride: 2
  }
}
layer {
  name: "conv1"
  type: "Convolution"
  bottom: "pool0"
  top: "conv1"
  param {
    lr_mult: 1
  }
  param {
    lr_mult: 2
  }
  convolution_param {
    num_output: 50
    kernel_size: 5
    stride: 1
    weight_filler {
      type: "xavier"
    }
    bias_filler {
      type: "constant"
    }
  }
}
layer {
  name: "pool1"
  type: "Pooling"
  bottom: "conv1"
  top: "pool1"
  pooling_param {
    pool: MAX
    kernel_size: 2
    stride: 2
  }
}
layer {
  name: "ip1"
  type: "InnerProduct"
  bottom: "pool1"
  top: "ip1"
  param {
    lr_mult: 1
  }
  param {
    lr_mult: 2
  }
  inner_product_param {
    num_output: 300
    weight_filler {
      type: "xavier"
    }
    bias_filler {
      type: "constant"
    }
  }
}
layer {
  name: "relu1"
  type: "ReLU"
  bottom: "ip1"
  top: "ip1"
}
layer {
  name: "ip2"
  type: "InnerProduct"
  bottom: "ip1"
  top: "ip2"
  param {
    lr_mult: 1
  }
  param {
    lr_mult: 2
  }
  inner_product_param {
    num_output: 300
    weight_filler {
      type: "xavier"
    }
    bias_filler {
      type: "constant"
    }
  }
}
layer {
  name: "relu2"
  type: "ReLU"
  bottom: "ip2"
  top: "ip2"
}
layer {
  name: "ip3"
  type: "InnerProduct"
  bottom: "ip2"
  top: "ip3"
  param {
    lr_mult: 1
  }
  param {
    lr_mult: 2
  }
  inner_product_param {
    num_output: 10
    weight_filler {
      type: "xavier"
    }
    bias_filler {
      type: "constant"
    }
  }
}
layer {
  name: "relu3"
  type: "ReLU"
  bottom: "ip3"
  top: "ip3"
}
layer {
  name: "accuracy"
  type: "Accuracy"
  bottom: "ip3"
  bottom: "label"
  top: "accuracy"
  include {
    phase: TEST
  }
}
layer {
  name: "loss"
  type: "SoftmaxWithLoss"
  bottom: "ip3"
  bottom: "label"
  top: "loss"
}
I0408 13:05:35.367497 11075 layer_factory.hpp:77] Creating layer mnist
I0408 13:05:35.367563 11075 db_lmdb.cpp:35] Opened lmdb examples/mnist/mnist_test_lmdb
I0408 13:05:35.367574 11075 net.cpp:84] Creating Layer mnist
I0408 13:05:35.367578 11075 net.cpp:380] mnist -> data
I0408 13:05:35.367584 11075 net.cpp:380] mnist -> label
I0408 13:05:35.367660 11075 data_layer.cpp:45] output data size: 100,1,28,28
I0408 13:05:35.369074 11075 net.cpp:122] Setting up mnist
I0408 13:05:35.369108 11075 net.cpp:129] Top shape: 100 1 28 28 (78400)
I0408 13:05:35.369114 11075 net.cpp:129] Top shape: 100 (100)
I0408 13:05:35.369118 11075 net.cpp:137] Memory required for data: 314000
I0408 13:05:35.369122 11075 layer_factory.hpp:77] Creating layer label_mnist_1_split
I0408 13:05:35.369133 11075 net.cpp:84] Creating Layer label_mnist_1_split
I0408 13:05:35.369138 11075 net.cpp:406] label_mnist_1_split <- label
I0408 13:05:35.369144 11075 net.cpp:380] label_mnist_1_split -> label_mnist_1_split_0
I0408 13:05:35.369168 11075 net.cpp:380] label_mnist_1_split -> label_mnist_1_split_1
I0408 13:05:35.369266 11075 net.cpp:122] Setting up label_mnist_1_split
I0408 13:05:35.369272 11075 net.cpp:129] Top shape: 100 (100)
I0408 13:05:35.369277 11075 net.cpp:129] Top shape: 100 (100)
I0408 13:05:35.369280 11075 net.cpp:137] Memory required for data: 314800
I0408 13:05:35.369285 11075 layer_factory.hpp:77] Creating layer conv0
I0408 13:05:35.369313 11075 net.cpp:84] Creating Layer conv0
I0408 13:05:35.369318 11075 net.cpp:406] conv0 <- data
I0408 13:05:35.369325 11075 net.cpp:380] conv0 -> conv0
I0408 13:05:35.369596 11075 net.cpp:122] Setting up conv0
I0408 13:05:35.369604 11075 net.cpp:129] Top shape: 100 50 24 24 (2880000)
I0408 13:05:35.369607 11075 net.cpp:137] Memory required for data: 11834800
I0408 13:05:35.369616 11075 layer_factory.hpp:77] Creating layer pool0
I0408 13:05:35.369621 11075 net.cpp:84] Creating Layer pool0
I0408 13:05:35.369623 11075 net.cpp:406] pool0 <- conv0
I0408 13:05:35.369628 11075 net.cpp:380] pool0 -> pool0
I0408 13:05:35.369657 11075 net.cpp:122] Setting up pool0
I0408 13:05:35.369663 11075 net.cpp:129] Top shape: 100 50 12 12 (720000)
I0408 13:05:35.369666 11075 net.cpp:137] Memory required for data: 14714800
I0408 13:05:35.369668 11075 layer_factory.hpp:77] Creating layer conv1
I0408 13:05:35.369675 11075 net.cpp:84] Creating Layer conv1
I0408 13:05:35.369679 11075 net.cpp:406] conv1 <- pool0
I0408 13:05:35.369683 11075 net.cpp:380] conv1 -> conv1
I0408 13:05:35.370220 11075 net.cpp:122] Setting up conv1
I0408 13:05:35.370226 11075 net.cpp:129] Top shape: 100 50 8 8 (320000)
I0408 13:05:35.370229 11075 net.cpp:137] Memory required for data: 15994800
I0408 13:05:35.370235 11075 layer_factory.hpp:77] Creating layer pool1
I0408 13:05:35.370240 11075 net.cpp:84] Creating Layer pool1
I0408 13:05:35.370244 11075 net.cpp:406] pool1 <- conv1
I0408 13:05:35.370249 11075 net.cpp:380] pool1 -> pool1
I0408 13:05:35.370280 11075 net.cpp:122] Setting up pool1
I0408 13:05:35.370283 11075 net.cpp:129] Top shape: 100 50 4 4 (80000)
I0408 13:05:35.370285 11075 net.cpp:137] Memory required for data: 16314800
I0408 13:05:35.370288 11075 layer_factory.hpp:77] Creating layer ip1
I0408 13:05:35.370295 11075 net.cpp:84] Creating Layer ip1
I0408 13:05:35.370297 11075 net.cpp:406] ip1 <- pool1
I0408 13:05:35.370301 11075 net.cpp:380] ip1 -> ip1
I0408 13:05:35.372412 11075 net.cpp:122] Setting up ip1
I0408 13:05:35.372432 11075 net.cpp:129] Top shape: 100 300 (30000)
I0408 13:05:35.372436 11075 net.cpp:137] Memory required for data: 16434800
I0408 13:05:35.372455 11075 layer_factory.hpp:77] Creating layer relu1
I0408 13:05:35.372481 11075 net.cpp:84] Creating Layer relu1
I0408 13:05:35.372484 11075 net.cpp:406] relu1 <- ip1
I0408 13:05:35.372488 11075 net.cpp:367] relu1 -> ip1 (in-place)
I0408 13:05:35.372493 11075 net.cpp:122] Setting up relu1
I0408 13:05:35.372498 11075 net.cpp:129] Top shape: 100 300 (30000)
I0408 13:05:35.372499 11075 net.cpp:137] Memory required for data: 16554800
I0408 13:05:35.372501 11075 layer_factory.hpp:77] Creating layer ip2
I0408 13:05:35.372508 11075 net.cpp:84] Creating Layer ip2
I0408 13:05:35.372511 11075 net.cpp:406] ip2 <- ip1
I0408 13:05:35.372515 11075 net.cpp:380] ip2 -> ip2
I0408 13:05:35.373271 11075 net.cpp:122] Setting up ip2
I0408 13:05:35.373280 11075 net.cpp:129] Top shape: 100 300 (30000)
I0408 13:05:35.373284 11075 net.cpp:137] Memory required for data: 16674800
I0408 13:05:35.373291 11075 layer_factory.hpp:77] Creating layer relu2
I0408 13:05:35.373311 11075 net.cpp:84] Creating Layer relu2
I0408 13:05:35.373314 11075 net.cpp:406] relu2 <- ip2
I0408 13:05:35.373335 11075 net.cpp:367] relu2 -> ip2 (in-place)
I0408 13:05:35.373342 11075 net.cpp:122] Setting up relu2
I0408 13:05:35.373347 11075 net.cpp:129] Top shape: 100 300 (30000)
I0408 13:05:35.373350 11075 net.cpp:137] Memory required for data: 16794800
I0408 13:05:35.373355 11075 layer_factory.hpp:77] Creating layer ip3
I0408 13:05:35.373361 11075 net.cpp:84] Creating Layer ip3
I0408 13:05:35.373365 11075 net.cpp:406] ip3 <- ip2
I0408 13:05:35.373386 11075 net.cpp:380] ip3 -> ip3
I0408 13:05:35.373533 11075 net.cpp:122] Setting up ip3
I0408 13:05:35.373539 11075 net.cpp:129] Top shape: 100 10 (1000)
I0408 13:05:35.373543 11075 net.cpp:137] Memory required for data: 16798800
I0408 13:05:35.373553 11075 layer_factory.hpp:77] Creating layer relu3
I0408 13:05:35.373558 11075 net.cpp:84] Creating Layer relu3
I0408 13:05:35.373563 11075 net.cpp:406] relu3 <- ip3
I0408 13:05:35.373567 11075 net.cpp:367] relu3 -> ip3 (in-place)
I0408 13:05:35.373574 11075 net.cpp:122] Setting up relu3
I0408 13:05:35.373579 11075 net.cpp:129] Top shape: 100 10 (1000)
I0408 13:05:35.373582 11075 net.cpp:137] Memory required for data: 16802800
I0408 13:05:35.373585 11075 layer_factory.hpp:77] Creating layer ip3_relu3_0_split
I0408 13:05:35.373590 11075 net.cpp:84] Creating Layer ip3_relu3_0_split
I0408 13:05:35.373595 11075 net.cpp:406] ip3_relu3_0_split <- ip3
I0408 13:05:35.373600 11075 net.cpp:380] ip3_relu3_0_split -> ip3_relu3_0_split_0
I0408 13:05:35.373610 11075 net.cpp:380] ip3_relu3_0_split -> ip3_relu3_0_split_1
I0408 13:05:35.373642 11075 net.cpp:122] Setting up ip3_relu3_0_split
I0408 13:05:35.373648 11075 net.cpp:129] Top shape: 100 10 (1000)
I0408 13:05:35.373653 11075 net.cpp:129] Top shape: 100 10 (1000)
I0408 13:05:35.373657 11075 net.cpp:137] Memory required for data: 16810800
I0408 13:05:35.373661 11075 layer_factory.hpp:77] Creating layer accuracy
I0408 13:05:35.373669 11075 net.cpp:84] Creating Layer accuracy
I0408 13:05:35.373673 11075 net.cpp:406] accuracy <- ip3_relu3_0_split_0
I0408 13:05:35.373678 11075 net.cpp:406] accuracy <- label_mnist_1_split_0
I0408 13:05:35.373684 11075 net.cpp:380] accuracy -> accuracy
…
