…
I0408 12:47:07.973137 10854 net.cpp:294] The NetState phase (0) differed from the phase (1) specified by a rule in layer mnist
I0408 12:47:07.973147 10854 net.cpp:294] The NetState phase (0) differed from the phase (1) specified by a rule in layer accuracy
I0408 12:47:07.973248 10854 net.cpp:51] Initializing net from parameters: 
name: "LeNet"
state {
  phase: TRAIN
  level: 0
  stage: ""
}
layer {
  name: "mnist"
  type: "Data"
  top: "data"
  top: "label"
  include {
    phase: TRAIN
  }
  transform_param {
    scale: 0.00390625
  }
  data_param {
    source: "examples/mnist/mnist_train_lmdb"
    batch_size: 64
    backend: LMDB
  }
}
layer {
  name: "conv0"
  type: "Convolution"
  bottom: "data"
  top: "conv0"
  param {
    lr_mult: 1
  }
  param {
    lr_mult: 2
  }
  convolution_param {
    num_output: 50
    kernel_size: 5
    stride: 1
    weight_filler {
      type: "xavier"
    }
    bias_filler {
      type: "constant"
    }
  }
}
layer {
  name: "pool0"
  type: "Pooling"
  bottom: "conv0"
  top: "pool0"
  pooling_param {
    pool: MAX
    kernel_size: 2
    stride: 2
  }
}
layer {
  name: "conv1"
  type: "Convolution"
  bottom: "pool0"
  top: "conv1"
  param {
    lr_mult: 1
  }
  param {
    lr_mult: 2
  }
  convolution_param {
    num_output: 50
    kernel_size: 5
    stride: 1
    weight_filler {
      type: "xavier"
    }
    bias_filler {
      type: "constant"
    }
  }
}
layer {
  name: "pool1"
  type: "Pooling"
  bottom: "conv1"
  top: "pool1"
  pooling_param {
    pool: MAX
    kernel_size: 2
    stride: 2
  }
}
layer {
  name: "ip1"
  type: "InnerProduct"
  bottom: "pool1"
  top: "ip1"
  param {
    lr_mult: 1
  }
  param {
    lr_mult: 2
  }
  inner_product_param {
    num_output: 100
    weight_filler {
      type: "xavier"
    }
    bias_filler {
      type: "constant"
    }
  }
}
layer {
  name: "relu1"
  type: "ReLU"
  bottom: "ip1"
  top: "ip1"
}
layer {
  name: "ip2"
  type: "InnerProduct"
  bottom: "ip1"
  top: "ip2"
  param {
    lr_mult: 1
  }
  param {
    lr_mult: 2
  }
  inner_product_param {
    num_output: 100
    weight_filler {
      type: "xavier"
    }
    bias_filler {
      type: "constant"
    }
  }
}
layer {
  name: "relu2"
  type: "ReLU"
  bottom: "ip2"
  top: "ip2"
}
layer {
  name: "ip3"
  type: "InnerProduct"
  bottom: "ip2"
  top: "ip3"
  param {
    lr_mult: 1
  }
  param {
    lr_mult: 2
  }
  inner_product_param {
    num_output: 10
    weight_filler {
      type: "xavier"
    }
    bias_filler {
      type: "constant"
    }
  }
}
layer {
  name: "relu3"
  type: "ReLU"
  bottom: "ip3"
  top: "ip3"
}
layer {
  name: "loss"
  type: "SoftmaxWithLoss"
  bottom: "ip3"
  bottom: "label"
  top: "loss"
}
I0408 12:47:07.973333 10854 layer_factory.hpp:77] Creating layer mnist
I0408 12:47:07.973423 10854 db_lmdb.cpp:35] Opened lmdb examples/mnist/mnist_train_lmdb
I0408 12:47:07.973443 10854 net.cpp:84] Creating Layer mnist
I0408 12:47:07.973449 10854 net.cpp:380] mnist -> data
I0408 12:47:07.973495 10854 net.cpp:380] mnist -> label
I0408 12:47:07.974014 10854 data_layer.cpp:45] output data size: 64,1,28,28
I0408 12:47:07.975298 10854 net.cpp:122] Setting up mnist
I0408 12:47:07.975308 10854 net.cpp:129] Top shape: 64 1 28 28 (50176)
I0408 12:47:07.975311 10854 net.cpp:129] Top shape: 64 (64)
I0408 12:47:07.975313 10854 net.cpp:137] Memory required for data: 200960
I0408 12:47:07.975318 10854 layer_factory.hpp:77] Creating layer conv0
I0408 12:47:07.975370 10854 net.cpp:84] Creating Layer conv0
I0408 12:47:07.975376 10854 net.cpp:406] conv0 <- data
I0408 12:47:07.975400 10854 net.cpp:380] conv0 -> conv0
I0408 12:47:07.976729 10854 net.cpp:122] Setting up conv0
I0408 12:47:07.976739 10854 net.cpp:129] Top shape: 64 50 24 24 (1843200)
I0408 12:47:07.976742 10854 net.cpp:137] Memory required for data: 7573760
I0408 12:47:07.976783 10854 layer_factory.hpp:77] Creating layer pool0
I0408 12:47:07.976793 10854 net.cpp:84] Creating Layer pool0
I0408 12:47:07.976810 10854 net.cpp:406] pool0 <- conv0
I0408 12:47:07.976814 10854 net.cpp:380] pool0 -> pool0
I0408 12:47:07.976882 10854 net.cpp:122] Setting up pool0
I0408 12:47:07.976886 10854 net.cpp:129] Top shape: 64 50 12 12 (460800)
I0408 12:47:07.976908 10854 net.cpp:137] Memory required for data: 9416960
I0408 12:47:07.976909 10854 layer_factory.hpp:77] Creating layer conv1
I0408 12:47:07.976917 10854 net.cpp:84] Creating Layer conv1
I0408 12:47:07.976918 10854 net.cpp:406] conv1 <- pool0
I0408 12:47:07.976922 10854 net.cpp:380] conv1 -> conv1
I0408 12:47:07.977680 10854 net.cpp:122] Setting up conv1
I0408 12:47:07.977689 10854 net.cpp:129] Top shape: 64 50 8 8 (204800)
I0408 12:47:07.977710 10854 net.cpp:137] Memory required for data: 10236160
I0408 12:47:07.977716 10854 layer_factory.hpp:77] Creating layer pool1
I0408 12:47:07.977720 10854 net.cpp:84] Creating Layer pool1
I0408 12:47:07.977723 10854 net.cpp:406] pool1 <- conv1
I0408 12:47:07.977726 10854 net.cpp:380] pool1 -> pool1
I0408 12:47:07.977784 10854 net.cpp:122] Setting up pool1
I0408 12:47:07.977805 10854 net.cpp:129] Top shape: 64 50 4 4 (51200)
I0408 12:47:07.977807 10854 net.cpp:137] Memory required for data: 10440960
I0408 12:47:07.977809 10854 layer_factory.hpp:77] Creating layer ip1
I0408 12:47:07.977814 10854 net.cpp:84] Creating Layer ip1
I0408 12:47:07.977816 10854 net.cpp:406] ip1 <- pool1
I0408 12:47:07.977819 10854 net.cpp:380] ip1 -> ip1
I0408 12:47:07.978925 10854 net.cpp:122] Setting up ip1
I0408 12:47:07.978934 10854 net.cpp:129] Top shape: 64 100 (6400)
I0408 12:47:07.978950 10854 net.cpp:137] Memory required for data: 10466560
I0408 12:47:07.978955 10854 layer_factory.hpp:77] Creating layer relu1
I0408 12:47:07.978960 10854 net.cpp:84] Creating Layer relu1
I0408 12:47:07.978962 10854 net.cpp:406] relu1 <- ip1
I0408 12:47:07.978967 10854 net.cpp:367] relu1 -> ip1 (in-place)
I0408 12:47:07.978991 10854 net.cpp:122] Setting up relu1
I0408 12:47:07.978996 10854 net.cpp:129] Top shape: 64 100 (6400)
I0408 12:47:07.978997 10854 net.cpp:137] Memory required for data: 10492160
I0408 12:47:07.978999 10854 layer_factory.hpp:77] Creating layer ip2
I0408 12:47:07.979017 10854 net.cpp:84] Creating Layer ip2
I0408 12:47:07.979018 10854 net.cpp:406] ip2 <- ip1
I0408 12:47:07.979024 10854 net.cpp:380] ip2 -> ip2
I0408 12:47:07.979555 10854 net.cpp:122] Setting up ip2
I0408 12:47:07.979562 10854 net.cpp:129] Top shape: 64 100 (6400)
I0408 12:47:07.979564 10854 net.cpp:137] Memory required for data: 10517760
I0408 12:47:07.979569 10854 layer_factory.hpp:77] Creating layer relu2
I0408 12:47:07.979575 10854 net.cpp:84] Creating Layer relu2
I0408 12:47:07.979578 10854 net.cpp:406] relu2 <- ip2
I0408 12:47:07.979581 10854 net.cpp:367] relu2 -> ip2 (in-place)
I0408 12:47:07.979588 10854 net.cpp:122] Setting up relu2
I0408 12:47:07.979590 10854 net.cpp:129] Top shape: 64 100 (6400)
I0408 12:47:07.979593 10854 net.cpp:137] Memory required for data: 10543360
I0408 12:47:07.979594 10854 layer_factory.hpp:77] Creating layer ip3
I0408 12:47:07.979612 10854 net.cpp:84] Creating Layer ip3
I0408 12:47:07.979614 10854 net.cpp:406] ip3 <- ip2
I0408 12:47:07.979617 10854 net.cpp:380] ip3 -> ip3
I0408 12:47:07.979708 10854 net.cpp:122] Setting up ip3
I0408 12:47:07.979713 10854 net.cpp:129] Top shape: 64 10 (640)
I0408 12:47:07.979715 10854 net.cpp:137] Memory required for data: 10545920
I0408 12:47:07.979722 10854 layer_factory.hpp:77] Creating layer relu3
I0408 12:47:07.979727 10854 net.cpp:84] Creating Layer relu3
I0408 12:47:07.979728 10854 net.cpp:406] relu3 <- ip3
I0408 12:47:07.979773 10854 net.cpp:367] relu3 -> ip3 (in-place)
I0408 12:47:07.979780 10854 net.cpp:122] Setting up relu3
I0408 12:47:07.979785 10854 net.cpp:129] Top shape: 64 10 (640)
I0408 12:47:07.979790 10854 net.cpp:137] Memory required for data: 10548480
I0408 12:47:07.979792 10854 layer_factory.hpp:77] Creating layer loss
I0408 12:47:07.979797 10854 net.cpp:84] Creating Layer loss
I0408 12:47:07.979801 10854 net.cpp:406] loss <- ip3
I0408 12:47:07.979807 10854 net.cpp:406] loss <- label
I0408 12:47:07.979815 10854 net.cpp:380] loss -> loss
I0408 12:47:07.979826 10854 layer_factory.hpp:77] Creating layer loss
…
I0408 12:47:07.980161 10854 solver.cpp:173] Creating test net (#0) specified by net file: ECE595/mnist/train_test/var_fc_size/lenet_train_test_fcl3_fcn100.prototxt
I0408 12:47:07.980180 10854 net.cpp:294] The NetState phase (1) differed from the phase (0) specified by a rule in layer mnist
I0408 12:47:07.980254 10854 net.cpp:51] Initializing net from parameters: 
name: "LeNet"
state {
  phase: TEST
}
layer {
  name: "mnist"
  type: "Data"
  top: "data"
  top: "label"
  include {
    phase: TEST
  }
  transform_param {
    scale: 0.00390625
  }
  data_param {
    source: "examples/mnist/mnist_test_lmdb"
    batch_size: 100
    backend: LMDB
  }
}
layer {
  name: "conv0"
  type: "Convolution"
  bottom: "data"
  top: "conv0"
  param {
    lr_mult: 1
  }
  param {
    lr_mult: 2
  }
  convolution_param {
    num_output: 50
    kernel_size: 5
    stride: 1
    weight_filler {
      type: "xavier"
    }
    bias_filler {
      type: "constant"
    }
  }
}
layer {
  name: "pool0"
  type: "Pooling"
  bottom: "conv0"
  top: "pool0"
  pooling_param {
    pool: MAX
    kernel_size: 2
    stride: 2
  }
}
layer {
  name: "conv1"
  type: "Convolution"
  bottom: "pool0"
  top: "conv1"
  param {
    lr_mult: 1
  }
  param {
    lr_mult: 2
  }
  convolution_param {
    num_output: 50
    kernel_size: 5
    stride: 1
    weight_filler {
      type: "xavier"
    }
    bias_filler {
      type: "constant"
    }
  }
}
layer {
  name: "pool1"
  type: "Pooling"
  bottom: "conv1"
  top: "pool1"
  pooling_param {
    pool: MAX
    kernel_size: 2
    stride: 2
  }
}
layer {
  name: "ip1"
  type: "InnerProduct"
  bottom: "pool1"
  top: "ip1"
  param {
    lr_mult: 1
  }
  param {
    lr_mult: 2
  }
  inner_product_param {
    num_output: 100
    weight_filler {
      type: "xavier"
    }
    bias_filler {
      type: "constant"
    }
  }
}
layer {
  name: "relu1"
  type: "ReLU"
  bottom: "ip1"
  top: "ip1"
}
layer {
  name: "ip2"
  type: "InnerProduct"
  bottom: "ip1"
  top: "ip2"
  param {
    lr_mult: 1
  }
  param {
    lr_mult: 2
  }
  inner_product_param {
    num_output: 100
    weight_filler {
      type: "xavier"
    }
    bias_filler {
      type: "constant"
    }
  }
}
layer {
  name: "relu2"
  type: "ReLU"
  bottom: "ip2"
  top: "ip2"
}
layer {
  name: "ip3"
  type: "InnerProduct"
  bottom: "ip2"
  top: "ip3"
  param {
    lr_mult: 1
  }
  param {
    lr_mult: 2
  }
  inner_product_param {
    num_output: 10
    weight_filler {
      type: "xavier"
    }
    bias_filler {
      type: "constant"
    }
  }
}
layer {
  name: "relu3"
  type: "ReLU"
  bottom: "ip3"
  top: "ip3"
}
layer {
  name: "accuracy"
  type: "Accuracy"
  bottom: "ip3"
  bottom: "label"
  top: "accuracy"
  include {
    phase: TEST
  }
}
layer {
  name: "loss"
  type: "SoftmaxWithLoss"
  bottom: "ip3"
  bottom: "label"
  top: "loss"
}
I0408 12:47:07.980363 10854 layer_factory.hpp:77] Creating layer mnist
I0408 12:47:07.980427 10854 db_lmdb.cpp:35] Opened lmdb examples/mnist/mnist_test_lmdb
I0408 12:47:07.980438 10854 net.cpp:84] Creating Layer mnist
I0408 12:47:07.980444 10854 net.cpp:380] mnist -> data
I0408 12:47:07.980450 10854 net.cpp:380] mnist -> label
I0408 12:47:07.980614 10854 data_layer.cpp:45] output data size: 100,1,28,28
I0408 12:47:07.981860 10854 net.cpp:122] Setting up mnist
I0408 12:47:07.981871 10854 net.cpp:129] Top shape: 100 1 28 28 (78400)
I0408 12:47:07.981878 10854 net.cpp:129] Top shape: 100 (100)
I0408 12:47:07.981894 10854 net.cpp:137] Memory required for data: 314000
I0408 12:47:07.981899 10854 layer_factory.hpp:77] Creating layer label_mnist_1_split
I0408 12:47:07.981907 10854 net.cpp:84] Creating Layer label_mnist_1_split
I0408 12:47:07.981911 10854 net.cpp:406] label_mnist_1_split <- label
I0408 12:47:07.981920 10854 net.cpp:380] label_mnist_1_split -> label_mnist_1_split_0
I0408 12:47:07.981927 10854 net.cpp:380] label_mnist_1_split -> label_mnist_1_split_1
I0408 12:47:07.982003 10854 net.cpp:122] Setting up label_mnist_1_split
I0408 12:47:07.982025 10854 net.cpp:129] Top shape: 100 (100)
I0408 12:47:07.982029 10854 net.cpp:129] Top shape: 100 (100)
I0408 12:47:07.982033 10854 net.cpp:137] Memory required for data: 314800
I0408 12:47:07.982036 10854 layer_factory.hpp:77] Creating layer conv0
I0408 12:47:07.982046 10854 net.cpp:84] Creating Layer conv0
I0408 12:47:07.982049 10854 net.cpp:406] conv0 <- data
I0408 12:47:07.982055 10854 net.cpp:380] conv0 -> conv0
I0408 12:47:07.982233 10854 net.cpp:122] Setting up conv0
I0408 12:47:07.982239 10854 net.cpp:129] Top shape: 100 50 24 24 (2880000)
I0408 12:47:07.982242 10854 net.cpp:137] Memory required for data: 11834800
I0408 12:47:07.982252 10854 layer_factory.hpp:77] Creating layer pool0
I0408 12:47:07.982259 10854 net.cpp:84] Creating Layer pool0
I0408 12:47:07.982262 10854 net.cpp:406] pool0 <- conv0
I0408 12:47:07.982267 10854 net.cpp:380] pool0 -> pool0
I0408 12:47:07.982326 10854 net.cpp:122] Setting up pool0
I0408 12:47:07.982331 10854 net.cpp:129] Top shape: 100 50 12 12 (720000)
I0408 12:47:07.982334 10854 net.cpp:137] Memory required for data: 14714800
I0408 12:47:07.982337 10854 layer_factory.hpp:77] Creating layer conv1
I0408 12:47:07.982355 10854 net.cpp:84] Creating Layer conv1
I0408 12:47:07.982358 10854 net.cpp:406] conv1 <- pool0
I0408 12:47:07.982364 10854 net.cpp:380] conv1 -> conv1
I0408 12:47:07.984210 10854 net.cpp:122] Setting up conv1
I0408 12:47:07.984218 10854 net.cpp:129] Top shape: 100 50 8 8 (320000)
I0408 12:47:07.984221 10854 net.cpp:137] Memory required for data: 15994800
I0408 12:47:07.984228 10854 layer_factory.hpp:77] Creating layer pool1
I0408 12:47:07.984261 10854 net.cpp:84] Creating Layer pool1
I0408 12:47:07.984266 10854 net.cpp:406] pool1 <- conv1
I0408 12:47:07.984271 10854 net.cpp:380] pool1 -> pool1
I0408 12:47:07.984297 10854 net.cpp:122] Setting up pool1
I0408 12:47:07.984315 10854 net.cpp:129] Top shape: 100 50 4 4 (80000)
I0408 12:47:07.984318 10854 net.cpp:137] Memory required for data: 16314800
I0408 12:47:07.984320 10854 layer_factory.hpp:77] Creating layer ip1
I0408 12:47:07.984325 10854 net.cpp:84] Creating Layer ip1
I0408 12:47:07.984329 10854 net.cpp:406] ip1 <- pool1
I0408 12:47:07.984334 10854 net.cpp:380] ip1 -> ip1
I0408 12:47:07.984815 10854 net.cpp:122] Setting up ip1
I0408 12:47:07.984833 10854 net.cpp:129] Top shape: 100 100 (10000)
I0408 12:47:07.984834 10854 net.cpp:137] Memory required for data: 16354800
I0408 12:47:07.984840 10854 layer_factory.hpp:77] Creating layer relu1
I0408 12:47:07.984845 10854 net.cpp:84] Creating Layer relu1
I0408 12:47:07.984849 10854 net.cpp:406] relu1 <- ip1
I0408 12:47:07.984853 10854 net.cpp:367] relu1 -> ip1 (in-place)
I0408 12:47:07.984858 10854 net.cpp:122] Setting up relu1
I0408 12:47:07.984860 10854 net.cpp:129] Top shape: 100 100 (10000)
I0408 12:47:07.984863 10854 net.cpp:137] Memory required for data: 16394800
I0408 12:47:07.984865 10854 layer_factory.hpp:77] Creating layer ip2
I0408 12:47:07.984870 10854 net.cpp:84] Creating Layer ip2
I0408 12:47:07.984874 10854 net.cpp:406] ip2 <- ip1
I0408 12:47:07.984879 10854 net.cpp:380] ip2 -> ip2
I0408 12:47:07.984998 10854 net.cpp:122] Setting up ip2
I0408 12:47:07.985002 10854 net.cpp:129] Top shape: 100 100 (10000)
I0408 12:47:07.985004 10854 net.cpp:137] Memory required for data: 16434800
I0408 12:47:07.985008 10854 layer_factory.hpp:77] Creating layer relu2
I0408 12:47:07.985011 10854 net.cpp:84] Creating Layer relu2
I0408 12:47:07.985014 10854 net.cpp:406] relu2 <- ip2
I0408 12:47:07.985018 10854 net.cpp:367] relu2 -> ip2 (in-place)
I0408 12:47:07.985023 10854 net.cpp:122] Setting up relu2
I0408 12:47:07.985025 10854 net.cpp:129] Top shape: 100 100 (10000)
I0408 12:47:07.985026 10854 net.cpp:137] Memory required for data: 16474800
I0408 12:47:07.985029 10854 layer_factory.hpp:77] Creating layer ip3
I0408 12:47:07.985034 10854 net.cpp:84] Creating Layer ip3
I0408 12:47:07.985036 10854 net.cpp:406] ip3 <- ip2
I0408 12:47:07.985039 10854 net.cpp:380] ip3 -> ip3
I0408 12:47:07.985131 10854 net.cpp:122] Setting up ip3
I0408 12:47:07.985136 10854 net.cpp:129] Top shape: 100 10 (1000)
I0408 12:47:07.985137 10854 net.cpp:137] Memory required for data: 16478800
I0408 12:47:07.985142 10854 layer_factory.hpp:77] Creating layer relu3
I0408 12:47:07.985146 10854 net.cpp:84] Creating Layer relu3
I0408 12:47:07.985148 10854 net.cpp:406] relu3 <- ip3
I0408 12:47:07.985152 10854 net.cpp:367] relu3 -> ip3 (in-place)
I0408 12:47:07.985155 10854 net.cpp:122] Setting up relu3
I0408 12:47:07.985158 10854 net.cpp:129] Top shape: 100 10 (1000)
I0408 12:47:07.985160 10854 net.cpp:137] Memory required for data: 16482800
I0408 12:47:07.985162 10854 layer_factory.hpp:77] Creating layer ip3_relu3_0_split
I0408 12:47:07.985165 10854 net.cpp:84] Creating Layer ip3_relu3_0_split
I0408 12:47:07.985168 10854 net.cpp:406] ip3_relu3_0_split <- ip3
I0408 12:47:07.985172 10854 net.cpp:380] ip3_relu3_0_split -> ip3_relu3_0_split_0
I0408 12:47:07.985177 10854 net.cpp:380] ip3_relu3_0_split -> ip3_relu3_0_split_1
I0408 12:47:07.985239 10854 net.cpp:122] Setting up ip3_relu3_0_split
I0408 12:47:07.985242 10854 net.cpp:129] Top shape: 100 10 (1000)
I0408 12:47:07.985260 10854 net.cpp:129] Top shape: 100 10 (1000)
I0408 12:47:07.985261 10854 net.cpp:137] Memory required for data: 16490800
I0408 12:47:07.985263 10854 layer_factory.hpp:77] Creating layer accuracy
I0408 12:47:07.985268 10854 net.cpp:84] Creating Layer accuracy
I0408 12:47:07.985272 10854 net.cpp:406] accuracy <- ip3_relu3_0_split_0
I0408 12:47:07.985275 10854 net.cpp:406] accuracy <- label_mnist_1_split_0
I0408 12:47:07.985280 10854 net.cpp:380] accuracy -> accuracy
…
