…
I0408 11:45:26.974026  9985 net.cpp:294] The NetState phase (0) differed from the phase (1) specified by a rule in layer mnist
I0408 11:45:26.974071  9985 net.cpp:294] The NetState phase (0) differed from the phase (1) specified by a rule in layer accuracy
I0408 11:45:26.974290  9985 net.cpp:51] Initializing net from parameters: 
name: "LeNet"
state {
  phase: TRAIN
  level: 0
  stage: ""
}
layer {
  name: "mnist"
  type: "Data"
  top: "data"
  top: "label"
  include {
    phase: TRAIN
  }
  transform_param {
    scale: 0.00390625
  }
  data_param {
    source: "examples/mnist/mnist_train_lmdb"
    batch_size: 64
    backend: LMDB
  }
}
layer {
  name: "conv0"
  type: "Convolution"
  bottom: "data"
  top: "conv0"
  param {
    lr_mult: 1
  }
  param {
    lr_mult: 2
  }
  convolution_param {
    num_output: 50
    kernel_size: 5
    stride: 1
    weight_filler {
      type: "xavier"
    }
    bias_filler {
      type: "constant"
    }
  }
}
layer {
  name: "pool0"
  type: "Pooling"
  bottom: "conv0"
  top: "pool0"
  pooling_param {
    pool: MAX
    kernel_size: 2
    stride: 2
  }
}
layer {
  name: "conv1"
  type: "Convolution"
  bottom: "pool0"
  top: "conv1"
  param {
    lr_mult: 1
  }
  param {
    lr_mult: 2
  }
  convolution_param {
    num_output: 50
    kernel_size: 5
    stride: 1
    weight_filler {
      type: "xavier"
    }
    bias_filler {
      type: "constant"
    }
  }
}
layer {
  name: "pool1"
  type: "Pooling"
  bottom: "conv1"
  top: "pool1"
  pooling_param {
    pool: MAX
    kernel_size: 2
    stride: 2
  }
}
layer {
  name: "ip1"
  type: "InnerProduct"
  bottom: "pool1"
  top: "ip1"
  param {
    lr_mult: 1
  }
  param {
    lr_mult: 2
  }
  inner_product_param {
    num_output: 10
    weight_filler {
      type: "xavier"
    }
    bias_filler {
      type: "constant"
    }
  }
}
layer {
  name: "relu1"
  type: "ReLU"
  bottom: "ip1"
  top: "ip1"
}
layer {
  name: "loss"
  type: "SoftmaxWithLoss"
  bottom: "ip1"
  bottom: "label"
  top: "loss"
}
I0408 11:45:26.974470  9985 layer_factory.hpp:77] Creating layer mnist
I0408 11:45:27.030086  9985 db_lmdb.cpp:35] Opened lmdb examples/mnist/mnist_train_lmdb
I0408 11:45:27.036741  9985 net.cpp:84] Creating Layer mnist
I0408 11:45:27.036815  9985 net.cpp:380] mnist -> data
I0408 11:45:27.036903  9985 net.cpp:380] mnist -> label
I0408 11:45:27.043576  9985 data_layer.cpp:45] output data size: 64,1,28,28
I0408 11:45:27.045147  9985 net.cpp:122] Setting up mnist
I0408 11:45:27.045164  9985 net.cpp:129] Top shape: 64 1 28 28 (50176)
I0408 11:45:27.045171  9985 net.cpp:129] Top shape: 64 (64)
I0408 11:45:27.045173  9985 net.cpp:137] Memory required for data: 200960
I0408 11:45:27.045186  9985 layer_factory.hpp:77] Creating layer conv0
I0408 11:45:27.045209  9985 net.cpp:84] Creating Layer conv0
I0408 11:45:27.045215  9985 net.cpp:406] conv0 <- data
I0408 11:45:27.045231  9985 net.cpp:380] conv0 -> conv0
I0408 11:45:27.046236  9985 net.cpp:122] Setting up conv0
I0408 11:45:27.046255  9985 net.cpp:129] Top shape: 64 50 24 24 (1843200)
I0408 11:45:27.046259  9985 net.cpp:137] Memory required for data: 7573760
I0408 11:45:27.046286  9985 layer_factory.hpp:77] Creating layer pool0
I0408 11:45:27.046298  9985 net.cpp:84] Creating Layer pool0
I0408 11:45:27.046306  9985 net.cpp:406] pool0 <- conv0
I0408 11:45:27.046317  9985 net.cpp:380] pool0 -> pool0
I0408 11:45:27.046433  9985 net.cpp:122] Setting up pool0
I0408 11:45:27.046443  9985 net.cpp:129] Top shape: 64 50 12 12 (460800)
I0408 11:45:27.046463  9985 net.cpp:137] Memory required for data: 9416960
I0408 11:45:27.046468  9985 layer_factory.hpp:77] Creating layer conv1
I0408 11:45:27.046483  9985 net.cpp:84] Creating Layer conv1
I0408 11:45:27.046489  9985 net.cpp:406] conv1 <- pool0
I0408 11:45:27.046499  9985 net.cpp:380] conv1 -> conv1
I0408 11:45:27.047610  9985 net.cpp:122] Setting up conv1
I0408 11:45:27.047623  9985 net.cpp:129] Top shape: 64 50 8 8 (204800)
I0408 11:45:27.047629  9985 net.cpp:137] Memory required for data: 10236160
I0408 11:45:27.047641  9985 layer_factory.hpp:77] Creating layer pool1
I0408 11:45:27.047657  9985 net.cpp:84] Creating Layer pool1
I0408 11:45:27.047662  9985 net.cpp:406] pool1 <- conv1
I0408 11:45:27.047670  9985 net.cpp:380] pool1 -> pool1
I0408 11:45:27.047710  9985 net.cpp:122] Setting up pool1
I0408 11:45:27.047719  9985 net.cpp:129] Top shape: 64 50 4 4 (51200)
I0408 11:45:27.047722  9985 net.cpp:137] Memory required for data: 10440960
I0408 11:45:27.047726  9985 layer_factory.hpp:77] Creating layer ip1
I0408 11:45:27.047740  9985 net.cpp:84] Creating Layer ip1
I0408 11:45:27.047745  9985 net.cpp:406] ip1 <- pool1
I0408 11:45:27.047755  9985 net.cpp:380] ip1 -> ip1
I0408 11:45:27.048310  9985 net.cpp:122] Setting up ip1
I0408 11:45:27.048321  9985 net.cpp:129] Top shape: 64 10 (640)
I0408 11:45:27.048324  9985 net.cpp:137] Memory required for data: 10443520
I0408 11:45:27.048337  9985 layer_factory.hpp:77] Creating layer relu1
I0408 11:45:27.048346  9985 net.cpp:84] Creating Layer relu1
I0408 11:45:27.048353  9985 net.cpp:406] relu1 <- ip1
I0408 11:45:27.048362  9985 net.cpp:367] relu1 -> ip1 (in-place)
I0408 11:45:27.048379  9985 net.cpp:122] Setting up relu1
I0408 11:45:27.048387  9985 net.cpp:129] Top shape: 64 10 (640)
I0408 11:45:27.048391  9985 net.cpp:137] Memory required for data: 10446080
I0408 11:45:27.048395  9985 layer_factory.hpp:77] Creating layer loss
I0408 11:45:27.048403  9985 net.cpp:84] Creating Layer loss
I0408 11:45:27.048408  9985 net.cpp:406] loss <- ip1
I0408 11:45:27.048414  9985 net.cpp:406] loss <- label
I0408 11:45:27.048424  9985 net.cpp:380] loss -> loss
I0408 11:45:27.048439  9985 layer_factory.hpp:77] Creating layer loss
…
I0408 11:45:27.048831  9985 solver.cpp:173] Creating test net (#0) specified by net file: ECE595/mnist/train_test/var_fc_size/lenet_train_test_fcl1_fcn100.prototxt
I0408 11:45:27.048856  9985 net.cpp:294] The NetState phase (1) differed from the phase (0) specified by a rule in layer mnist
I0408 11:45:27.048938  9985 net.cpp:51] Initializing net from parameters: 
name: "LeNet"
state {
  phase: TEST
}
layer {
  name: "mnist"
  type: "Data"
  top: "data"
  top: "label"
  include {
    phase: TEST
  }
  transform_param {
    scale: 0.00390625
  }
  data_param {
    source: "examples/mnist/mnist_test_lmdb"
    batch_size: 100
    backend: LMDB
  }
}
layer {
  name: "conv0"
  type: "Convolution"
  bottom: "data"
  top: "conv0"
  param {
    lr_mult: 1
  }
  param {
    lr_mult: 2
  }
  convolution_param {
    num_output: 50
    kernel_size: 5
    stride: 1
    weight_filler {
      type: "xavier"
    }
    bias_filler {
      type: "constant"
    }
  }
}
layer {
  name: "pool0"
  type: "Pooling"
  bottom: "conv0"
  top: "pool0"
  pooling_param {
    pool: MAX
    kernel_size: 2
    stride: 2
  }
}
layer {
  name: "conv1"
  type: "Convolution"
  bottom: "pool0"
  top: "conv1"
  param {
    lr_mult: 1
  }
  param {
    lr_mult: 2
  }
  convolution_param {
    num_output: 50
    kernel_size: 5
    stride: 1
    weight_filler {
      type: "xavier"
    }
    bias_filler {
      type: "constant"
    }
  }
}
layer {
  name: "pool1"
  type: "Pooling"
  bottom: "conv1"
  top: "pool1"
  pooling_param {
    pool: MAX
    kernel_size: 2
    stride: 2
  }
}
layer {
  name: "ip1"
  type: "InnerProduct"
  bottom: "pool1"
  top: "ip1"
  param {
    lr_mult: 1
  }
  param {
    lr_mult: 2
  }
  inner_product_param {
    num_output: 10
    weight_filler {
      type: "xavier"
    }
    bias_filler {
      type: "constant"
    }
  }
}
layer {
  name: "relu1"
  type: "ReLU"
  bottom: "ip1"
  top: "ip1"
}
layer {
  name: "accuracy"
  type: "Accuracy"
  bottom: "ip1"
  bottom: "label"
  top: "accuracy"
  include {
    phase: TEST
  }
}
layer {
  name: "loss"
  type: "SoftmaxWithLoss"
  bottom: "ip1"
  bottom: "label"
  top: "loss"
}
I0408 11:45:27.049033  9985 layer_factory.hpp:77] Creating layer mnist
I0408 11:45:27.053309  9985 db_lmdb.cpp:35] Opened lmdb examples/mnist/mnist_test_lmdb
I0408 11:45:27.067035  9985 net.cpp:84] Creating Layer mnist
I0408 11:45:27.067101  9985 net.cpp:380] mnist -> data
I0408 11:45:27.067134  9985 net.cpp:380] mnist -> label
I0408 11:45:27.067383  9985 data_layer.cpp:45] output data size: 100,1,28,28
I0408 11:45:27.070637  9985 net.cpp:122] Setting up mnist
I0408 11:45:27.070668  9985 net.cpp:129] Top shape: 100 1 28 28 (78400)
I0408 11:45:27.070683  9985 net.cpp:129] Top shape: 100 (100)
I0408 11:45:27.070690  9985 net.cpp:137] Memory required for data: 314000
I0408 11:45:27.070703  9985 layer_factory.hpp:77] Creating layer label_mnist_1_split
I0408 11:45:27.070731  9985 net.cpp:84] Creating Layer label_mnist_1_split
I0408 11:45:27.070744  9985 net.cpp:406] label_mnist_1_split <- label
I0408 11:45:27.070761  9985 net.cpp:380] label_mnist_1_split -> label_mnist_1_split_0
I0408 11:45:27.070791  9985 net.cpp:380] label_mnist_1_split -> label_mnist_1_split_1
I0408 11:45:27.070998  9985 net.cpp:122] Setting up label_mnist_1_split
I0408 11:45:27.071032  9985 net.cpp:129] Top shape: 100 (100)
I0408 11:45:27.071043  9985 net.cpp:129] Top shape: 100 (100)
I0408 11:45:27.071051  9985 net.cpp:137] Memory required for data: 314800
I0408 11:45:27.071060  9985 layer_factory.hpp:77] Creating layer conv0
I0408 11:45:27.071099  9985 net.cpp:84] Creating Layer conv0
I0408 11:45:27.071110  9985 net.cpp:406] conv0 <- data
I0408 11:45:27.071131  9985 net.cpp:380] conv0 -> conv0
I0408 11:45:27.071727  9985 net.cpp:122] Setting up conv0
I0408 11:45:27.071755  9985 net.cpp:129] Top shape: 100 50 24 24 (2880000)
I0408 11:45:27.071768  9985 net.cpp:137] Memory required for data: 11834800
I0408 11:45:27.071800  9985 layer_factory.hpp:77] Creating layer pool0
I0408 11:45:27.071821  9985 net.cpp:84] Creating Layer pool0
I0408 11:45:27.071838  9985 net.cpp:406] pool0 <- conv0
I0408 11:45:27.071862  9985 net.cpp:380] pool0 -> pool0
I0408 11:45:27.071962  9985 net.cpp:122] Setting up pool0
I0408 11:45:27.071982  9985 net.cpp:129] Top shape: 100 50 12 12 (720000)
I0408 11:45:27.071996  9985 net.cpp:137] Memory required for data: 14714800
I0408 11:45:27.072006  9985 layer_factory.hpp:77] Creating layer conv1
I0408 11:45:27.072042  9985 net.cpp:84] Creating Layer conv1
I0408 11:45:27.072055  9985 net.cpp:406] conv1 <- pool0
I0408 11:45:27.072080  9985 net.cpp:380] conv1 -> conv1
I0408 11:45:27.074064  9985 net.cpp:122] Setting up conv1
I0408 11:45:27.074100  9985 net.cpp:129] Top shape: 100 50 8 8 (320000)
I0408 11:45:27.074111  9985 net.cpp:137] Memory required for data: 15994800
I0408 11:45:27.074146  9985 layer_factory.hpp:77] Creating layer pool1
I0408 11:45:27.074199  9985 net.cpp:84] Creating Layer pool1
I0408 11:45:27.074213  9985 net.cpp:406] pool1 <- conv1
I0408 11:45:27.074234  9985 net.cpp:380] pool1 -> pool1
I0408 11:45:27.074347  9985 net.cpp:122] Setting up pool1
I0408 11:45:27.074368  9985 net.cpp:129] Top shape: 100 50 4 4 (80000)
I0408 11:45:27.074379  9985 net.cpp:137] Memory required for data: 16314800
I0408 11:45:27.074393  9985 layer_factory.hpp:77] Creating layer ip1
I0408 11:45:27.074425  9985 net.cpp:84] Creating Layer ip1
I0408 11:45:27.074441  9985 net.cpp:406] ip1 <- pool1
I0408 11:45:27.074460  9985 net.cpp:380] ip1 -> ip1
I0408 11:45:27.074863  9985 net.cpp:122] Setting up ip1
I0408 11:45:27.074890  9985 net.cpp:129] Top shape: 100 10 (1000)
I0408 11:45:27.074900  9985 net.cpp:137] Memory required for data: 16318800
I0408 11:45:27.074928  9985 layer_factory.hpp:77] Creating layer relu1
I0408 11:45:27.074949  9985 net.cpp:84] Creating Layer relu1
I0408 11:45:27.074962  9985 net.cpp:406] relu1 <- ip1
I0408 11:45:27.074983  9985 net.cpp:367] relu1 -> ip1 (in-place)
I0408 11:45:27.075006  9985 net.cpp:122] Setting up relu1
I0408 11:45:27.075023  9985 net.cpp:129] Top shape: 100 10 (1000)
I0408 11:45:27.075038  9985 net.cpp:137] Memory required for data: 16322800
I0408 11:45:27.075049  9985 layer_factory.hpp:77] Creating layer ip1_relu1_0_split
I0408 11:45:27.075076  9985 net.cpp:84] Creating Layer ip1_relu1_0_split
I0408 11:45:27.075116  9985 net.cpp:406] ip1_relu1_0_split <- ip1
I0408 11:45:27.075139  9985 net.cpp:380] ip1_relu1_0_split -> ip1_relu1_0_split_0
I0408 11:45:27.075163  9985 net.cpp:380] ip1_relu1_0_split -> ip1_relu1_0_split_1
I0408 11:45:27.075273  9985 net.cpp:122] Setting up ip1_relu1_0_split
I0408 11:45:27.075291  9985 net.cpp:129] Top shape: 100 10 (1000)
I0408 11:45:27.075309  9985 net.cpp:129] Top shape: 100 10 (1000)
I0408 11:45:27.075321  9985 net.cpp:137] Memory required for data: 16330800
I0408 11:45:27.075332  9985 layer_factory.hpp:77] Creating layer accuracy
I0408 11:45:27.075351  9985 net.cpp:84] Creating Layer accuracy
I0408 11:45:27.075369  9985 net.cpp:406] accuracy <- ip1_relu1_0_split_0
I0408 11:45:27.075384  9985 net.cpp:406] accuracy <- label_mnist_1_split_0
I0408 11:45:27.075403  9985 net.cpp:380] accuracy -> accuracy
…
