…
I0426 20:48:18.405277 31208 net.cpp:296] The NetState phase (0) differed from the phase (1) specified by a rule in layer mnist
I0426 20:48:18.405287 31208 net.cpp:296] The NetState phase (0) differed from the phase (1) specified by a rule in layer accuracy
I0426 20:48:18.405344 31208 net.cpp:53] Initializing net from parameters: 
name: "LeNet"
state {
  phase: TRAIN
  level: 0
  stage: ""
}
layer {
  name: "mnist"
  type: "Data"
  top: "data"
  top: "label"
  include {
    phase: TRAIN
  }
  transform_param {
    scale: 0.00390625
  }
  data_param {
    source: "examples/mnist/mnist_train_lmdb"
    batch_size: 64
    backend: LMDB
  }
}
layer {
  name: "ip1"
  type: "InnerProduct"
  bottom: "data"
  top: "ip1"
  param {
    lr_mult: 1
  }
  param {
    lr_mult: 2
  }
  inner_product_param {
    num_output: 10
    weight_filler {
      type: "xavier"
    }
    bias_filler {
      type: "constant"
    }
  }
}
layer {
  name: "relu1"
  type: "ReLU"
  bottom: "ip1"
  top: "ip1"
}
layer {
  name: "loss"
  type: "SoftmaxWithLoss"
  bottom: "ip1"
  bottom: "label"
  top: "loss"
}
I0426 20:48:18.405383 31208 layer_factory.hpp:77] Creating layer mnist
I0426 20:48:18.405462 31208 db_lmdb.cpp:35] Opened lmdb examples/mnist/mnist_train_lmdb
I0426 20:48:18.405481 31208 net.cpp:86] Creating Layer mnist
I0426 20:48:18.405488 31208 net.cpp:382] mnist -> data
I0426 20:48:18.405505 31208 net.cpp:382] mnist -> label
I0426 20:48:18.406471 31208 data_layer.cpp:45] output data size: 64,1,28,28
I0426 20:48:18.408552 31208 net.cpp:124] Setting up mnist
I0426 20:48:18.408566 31208 net.cpp:131] Top shape: 64 1 28 28 (50176)
I0426 20:48:18.408571 31208 net.cpp:131] Top shape: 64 (64)
I0426 20:48:18.408573 31208 net.cpp:139] Memory required for data: 200960
I0426 20:48:18.408594 31208 layer_factory.hpp:77] Creating layer ip1
I0426 20:48:18.408602 31208 net.cpp:86] Creating Layer ip1
I0426 20:48:18.408607 31208 net.cpp:408] ip1 <- data
I0426 20:48:18.408615 31208 net.cpp:382] ip1 -> ip1
I0426 20:48:18.409735 31208 net.cpp:124] Setting up ip1
I0426 20:48:18.409747 31208 net.cpp:131] Top shape: 64 10 (640)
I0426 20:48:18.409750 31208 net.cpp:139] Memory required for data: 203520
I0426 20:48:18.409761 31208 layer_factory.hpp:77] Creating layer relu1
I0426 20:48:18.409783 31208 net.cpp:86] Creating Layer relu1
I0426 20:48:18.409786 31208 net.cpp:408] relu1 <- ip1
I0426 20:48:18.409790 31208 net.cpp:369] relu1 -> ip1 (in-place)
I0426 20:48:18.632433 31208 net.cpp:124] Setting up relu1
I0426 20:48:18.632475 31208 net.cpp:131] Top shape: 64 10 (640)
I0426 20:48:18.632479 31208 net.cpp:139] Memory required for data: 206080
I0426 20:48:18.632485 31208 layer_factory.hpp:77] Creating layer loss
I0426 20:48:18.632496 31208 net.cpp:86] Creating Layer loss
I0426 20:48:18.632501 31208 net.cpp:408] loss <- ip1
I0426 20:48:18.632508 31208 net.cpp:408] loss <- label
I0426 20:48:18.632513 31208 net.cpp:382] loss -> loss
I0426 20:48:18.632549 31208 layer_factory.hpp:77] Creating layer loss
…
I0426 20:48:18.634589 31208 solver.cpp:173] Creating test net (#0) specified by net file: ECE595/mnist/train_test/var_everything/lenet_train_test1.prototxt
I0426 20:48:18.634608 31208 net.cpp:296] The NetState phase (1) differed from the phase (0) specified by a rule in layer mnist
I0426 20:48:18.634655 31208 net.cpp:53] Initializing net from parameters: 
name: "LeNet"
state {
  phase: TEST
}
layer {
  name: "mnist"
  type: "Data"
  top: "data"
  top: "label"
  include {
    phase: TEST
  }
  transform_param {
    scale: 0.00390625
  }
  data_param {
    source: "examples/mnist/mnist_test_lmdb"
    batch_size: 100
    backend: LMDB
  }
}
layer {
  name: "ip1"
  type: "InnerProduct"
  bottom: "data"
  top: "ip1"
  param {
    lr_mult: 1
  }
  param {
    lr_mult: 2
  }
  inner_product_param {
    num_output: 10
    weight_filler {
      type: "xavier"
    }
    bias_filler {
      type: "constant"
    }
  }
}
layer {
  name: "relu1"
  type: "ReLU"
  bottom: "ip1"
  top: "ip1"
}
layer {
  name: "accuracy"
  type: "Accuracy"
  bottom: "ip1"
  bottom: "label"
  top: "accuracy"
  include {
    phase: TEST
  }
}
layer {
  name: "loss"
  type: "SoftmaxWithLoss"
  bottom: "ip1"
  bottom: "label"
  top: "loss"
}
I0426 20:48:18.634703 31208 layer_factory.hpp:77] Creating layer mnist
I0426 20:48:18.634748 31208 db_lmdb.cpp:35] Opened lmdb examples/mnist/mnist_test_lmdb
I0426 20:48:18.634763 31208 net.cpp:86] Creating Layer mnist
I0426 20:48:18.634768 31208 net.cpp:382] mnist -> data
I0426 20:48:18.634774 31208 net.cpp:382] mnist -> label
I0426 20:48:18.634873 31208 data_layer.cpp:45] output data size: 100,1,28,28
I0426 20:48:18.636962 31208 net.cpp:124] Setting up mnist
I0426 20:48:18.636991 31208 net.cpp:131] Top shape: 100 1 28 28 (78400)
I0426 20:48:18.636996 31208 net.cpp:131] Top shape: 100 (100)
I0426 20:48:18.636998 31208 net.cpp:139] Memory required for data: 314000
I0426 20:48:18.637002 31208 layer_factory.hpp:77] Creating layer label_mnist_1_split
I0426 20:48:18.637059 31208 net.cpp:86] Creating Layer label_mnist_1_split
I0426 20:48:18.637063 31208 net.cpp:408] label_mnist_1_split <- label
I0426 20:48:18.637079 31208 net.cpp:382] label_mnist_1_split -> label_mnist_1_split_0
I0426 20:48:18.637085 31208 net.cpp:382] label_mnist_1_split -> label_mnist_1_split_1
I0426 20:48:18.637122 31208 net.cpp:124] Setting up label_mnist_1_split
I0426 20:48:18.637127 31208 net.cpp:131] Top shape: 100 (100)
I0426 20:48:18.637132 31208 net.cpp:131] Top shape: 100 (100)
I0426 20:48:18.637148 31208 net.cpp:139] Memory required for data: 314800
I0426 20:48:18.637151 31208 layer_factory.hpp:77] Creating layer ip1
I0426 20:48:18.637157 31208 net.cpp:86] Creating Layer ip1
I0426 20:48:18.637161 31208 net.cpp:408] ip1 <- data
I0426 20:48:18.637166 31208 net.cpp:382] ip1 -> ip1
I0426 20:48:18.637367 31208 net.cpp:124] Setting up ip1
I0426 20:48:18.637375 31208 net.cpp:131] Top shape: 100 10 (1000)
I0426 20:48:18.637378 31208 net.cpp:139] Memory required for data: 318800
I0426 20:48:18.637389 31208 layer_factory.hpp:77] Creating layer relu1
I0426 20:48:18.637394 31208 net.cpp:86] Creating Layer relu1
I0426 20:48:18.637398 31208 net.cpp:408] relu1 <- ip1
I0426 20:48:18.637400 31208 net.cpp:369] relu1 -> ip1 (in-place)
I0426 20:48:18.637621 31208 net.cpp:124] Setting up relu1
I0426 20:48:18.637630 31208 net.cpp:131] Top shape: 100 10 (1000)
I0426 20:48:18.637634 31208 net.cpp:139] Memory required for data: 322800
I0426 20:48:18.637636 31208 layer_factory.hpp:77] Creating layer ip1_relu1_0_split
I0426 20:48:18.637643 31208 net.cpp:86] Creating Layer ip1_relu1_0_split
I0426 20:48:18.637646 31208 net.cpp:408] ip1_relu1_0_split <- ip1
I0426 20:48:18.637651 31208 net.cpp:382] ip1_relu1_0_split -> ip1_relu1_0_split_0
I0426 20:48:18.637657 31208 net.cpp:382] ip1_relu1_0_split -> ip1_relu1_0_split_1
I0426 20:48:18.637691 31208 net.cpp:124] Setting up ip1_relu1_0_split
I0426 20:48:18.637706 31208 net.cpp:131] Top shape: 100 10 (1000)
I0426 20:48:18.637709 31208 net.cpp:131] Top shape: 100 10 (1000)
I0426 20:48:18.637712 31208 net.cpp:139] Memory required for data: 330800
I0426 20:48:18.637714 31208 layer_factory.hpp:77] Creating layer accuracy
I0426 20:48:18.637723 31208 net.cpp:86] Creating Layer accuracy
I0426 20:48:18.637727 31208 net.cpp:408] accuracy <- ip1_relu1_0_split_0
I0426 20:48:18.637730 31208 net.cpp:408] accuracy <- label_mnist_1_split_0
I0426 20:48:18.637734 31208 net.cpp:382] accuracy -> accuracy
…
