…
I0426 20:49:54.228305 31645 net.cpp:296] The NetState phase (0) differed from the phase (1) specified by a rule in layer mnist
I0426 20:49:54.228323 31645 net.cpp:296] The NetState phase (0) differed from the phase (1) specified by a rule in layer accuracy
I0426 20:49:54.228404 31645 net.cpp:53] Initializing net from parameters: 
name: "LeNet"
state {
  phase: TRAIN
  level: 0
  stage: ""
}
layer {
  name: "mnist"
  type: "Data"
  top: "data"
  top: "label"
  include {
    phase: TRAIN
  }
  transform_param {
    scale: 0.00390625
  }
  data_param {
    source: "examples/mnist/mnist_train_lmdb"
    batch_size: 64
    backend: LMDB
  }
}
layer {
  name: "conv0"
  type: "Convolution"
  bottom: "data"
  top: "conv0"
  param {
    lr_mult: 1
  }
  param {
    lr_mult: 2
  }
  convolution_param {
    num_output: 50
    kernel_size: 5
    stride: 1
    weight_filler {
      type: "xavier"
    }
    bias_filler {
      type: "constant"
    }
  }
}
layer {
  name: "pool0"
  type: "Pooling"
  bottom: "conv0"
  top: "pool0"
  pooling_param {
    pool: MAX
    kernel_size: 2
    stride: 2
  }
}
layer {
  name: "ip1"
  type: "InnerProduct"
  bottom: "pool0"
  top: "ip1"
  param {
    lr_mult: 1
  }
  param {
    lr_mult: 2
  }
  inner_product_param {
    num_output: 300
    weight_filler {
      type: "xavier"
    }
    bias_filler {
      type: "constant"
    }
  }
}
layer {
  name: "relu1"
  type: "ReLU"
  bottom: "ip1"
  top: "ip1"
}
layer {
  name: "ip2"
  type: "InnerProduct"
  bottom: "ip1"
  top: "ip2"
  param {
    lr_mult: 1
  }
  param {
    lr_mult: 2
  }
  inner_product_param {
    num_output: 10
    weight_filler {
      type: "xavier"
    }
    bias_filler {
      type: "constant"
    }
  }
}
layer {
  name: "relu2"
  type: "ReLU"
  bottom: "ip2"
  top: "ip2"
}
layer {
  name: "loss"
  type: "SoftmaxWithLoss"
  bottom: "ip2"
  bottom: "label"
  top: "loss"
}
I0426 20:49:54.228471 31645 layer_factory.hpp:77] Creating layer mnist
I0426 20:49:54.228574 31645 db_lmdb.cpp:35] Opened lmdb examples/mnist/mnist_train_lmdb
I0426 20:49:54.228598 31645 net.cpp:86] Creating Layer mnist
I0426 20:49:54.228605 31645 net.cpp:382] mnist -> data
I0426 20:49:54.228628 31645 net.cpp:382] mnist -> label
I0426 20:49:54.229763 31645 data_layer.cpp:45] output data size: 64,1,28,28
I0426 20:49:54.232324 31645 net.cpp:124] Setting up mnist
I0426 20:49:54.232342 31645 net.cpp:131] Top shape: 64 1 28 28 (50176)
I0426 20:49:54.232352 31645 net.cpp:131] Top shape: 64 (64)
I0426 20:49:54.232354 31645 net.cpp:139] Memory required for data: 200960
I0426 20:49:54.232362 31645 layer_factory.hpp:77] Creating layer conv0
I0426 20:49:54.232375 31645 net.cpp:86] Creating Layer conv0
I0426 20:49:54.232381 31645 net.cpp:408] conv0 <- data
I0426 20:49:54.232393 31645 net.cpp:382] conv0 -> conv0
I0426 20:49:54.487859 31645 net.cpp:124] Setting up conv0
I0426 20:49:54.487901 31645 net.cpp:131] Top shape: 64 50 24 24 (1843200)
I0426 20:49:54.487905 31645 net.cpp:139] Memory required for data: 7573760
I0426 20:49:54.487920 31645 layer_factory.hpp:77] Creating layer pool0
I0426 20:49:54.487932 31645 net.cpp:86] Creating Layer pool0
I0426 20:49:54.487936 31645 net.cpp:408] pool0 <- conv0
I0426 20:49:54.487941 31645 net.cpp:382] pool0 -> pool0
I0426 20:49:54.487987 31645 net.cpp:124] Setting up pool0
I0426 20:49:54.487993 31645 net.cpp:131] Top shape: 64 50 12 12 (460800)
I0426 20:49:54.487996 31645 net.cpp:139] Memory required for data: 9416960
I0426 20:49:54.488014 31645 layer_factory.hpp:77] Creating layer ip1
I0426 20:49:54.488037 31645 net.cpp:86] Creating Layer ip1
I0426 20:49:54.488040 31645 net.cpp:408] ip1 <- pool0
I0426 20:49:54.488045 31645 net.cpp:382] ip1 -> ip1
I0426 20:49:54.502368 31645 net.cpp:124] Setting up ip1
I0426 20:49:54.502398 31645 net.cpp:131] Top shape: 64 300 (19200)
I0426 20:49:54.502401 31645 net.cpp:139] Memory required for data: 9493760
I0426 20:49:54.502409 31645 layer_factory.hpp:77] Creating layer relu1
I0426 20:49:54.502416 31645 net.cpp:86] Creating Layer relu1
I0426 20:49:54.502420 31645 net.cpp:408] relu1 <- ip1
I0426 20:49:54.502425 31645 net.cpp:369] relu1 -> ip1 (in-place)
I0426 20:49:54.502635 31645 net.cpp:124] Setting up relu1
I0426 20:49:54.502661 31645 net.cpp:131] Top shape: 64 300 (19200)
I0426 20:49:54.502665 31645 net.cpp:139] Memory required for data: 9570560
I0426 20:49:54.502667 31645 layer_factory.hpp:77] Creating layer ip2
I0426 20:49:54.502676 31645 net.cpp:86] Creating Layer ip2
I0426 20:49:54.502678 31645 net.cpp:408] ip2 <- ip1
I0426 20:49:54.502684 31645 net.cpp:382] ip2 -> ip2
I0426 20:49:54.502807 31645 net.cpp:124] Setting up ip2
I0426 20:49:54.502816 31645 net.cpp:131] Top shape: 64 10 (640)
I0426 20:49:54.502820 31645 net.cpp:139] Memory required for data: 9573120
I0426 20:49:54.502827 31645 layer_factory.hpp:77] Creating layer relu2
I0426 20:49:54.502833 31645 net.cpp:86] Creating Layer relu2
I0426 20:49:54.502836 31645 net.cpp:408] relu2 <- ip2
I0426 20:49:54.502840 31645 net.cpp:369] relu2 -> ip2 (in-place)
I0426 20:49:54.503794 31645 net.cpp:124] Setting up relu2
I0426 20:49:54.503806 31645 net.cpp:131] Top shape: 64 10 (640)
I0426 20:49:54.503825 31645 net.cpp:139] Memory required for data: 9575680
I0426 20:49:54.503829 31645 layer_factory.hpp:77] Creating layer loss
I0426 20:49:54.503839 31645 net.cpp:86] Creating Layer loss
I0426 20:49:54.503844 31645 net.cpp:408] loss <- ip2
I0426 20:49:54.503847 31645 net.cpp:408] loss <- label
I0426 20:49:54.503852 31645 net.cpp:382] loss -> loss
I0426 20:49:54.503882 31645 layer_factory.hpp:77] Creating layer loss
…
I0426 20:49:54.504500 31645 solver.cpp:173] Creating test net (#0) specified by net file: ECE595/mnist/train_test/var_everything/lenet_train_test47.prototxt
I0426 20:49:54.504525 31645 net.cpp:296] The NetState phase (1) differed from the phase (0) specified by a rule in layer mnist
I0426 20:49:54.504602 31645 net.cpp:53] Initializing net from parameters: 
name: "LeNet"
state {
  phase: TEST
}
layer {
  name: "mnist"
  type: "Data"
  top: "data"
  top: "label"
  include {
    phase: TEST
  }
  transform_param {
    scale: 0.00390625
  }
  data_param {
    source: "examples/mnist/mnist_test_lmdb"
    batch_size: 100
    backend: LMDB
  }
}
layer {
  name: "conv0"
  type: "Convolution"
  bottom: "data"
  top: "conv0"
  param {
    lr_mult: 1
  }
  param {
    lr_mult: 2
  }
  convolution_param {
    num_output: 50
    kernel_size: 5
    stride: 1
    weight_filler {
      type: "xavier"
    }
    bias_filler {
      type: "constant"
    }
  }
}
layer {
  name: "pool0"
  type: "Pooling"
  bottom: "conv0"
  top: "pool0"
  pooling_param {
    pool: MAX
    kernel_size: 2
    stride: 2
  }
}
layer {
  name: "ip1"
  type: "InnerProduct"
  bottom: "pool0"
  top: "ip1"
  param {
    lr_mult: 1
  }
  param {
    lr_mult: 2
  }
  inner_product_param {
    num_output: 300
    weight_filler {
      type: "xavier"
    }
    bias_filler {
      type: "constant"
    }
  }
}
layer {
  name: "relu1"
  type: "ReLU"
  bottom: "ip1"
  top: "ip1"
}
layer {
  name: "ip2"
  type: "InnerProduct"
  bottom: "ip1"
  top: "ip2"
  param {
    lr_mult: 1
  }
  param {
    lr_mult: 2
  }
  inner_product_param {
    num_output: 10
    weight_filler {
      type: "xavier"
    }
    bias_filler {
      type: "constant"
    }
  }
}
layer {
  name: "relu2"
  type: "ReLU"
  bottom: "ip2"
  top: "ip2"
}
layer {
  name: "accuracy"
  type: "Accuracy"
  bottom: "ip2"
  bottom: "label"
  top: "accuracy"
  include {
    phase: TEST
  }
}
layer {
  name: "loss"
  type: "SoftmaxWithLoss"
  bottom: "ip2"
  bottom: "label"
  top: "loss"
}
I0426 20:49:54.504680 31645 layer_factory.hpp:77] Creating layer mnist
I0426 20:49:54.504724 31645 db_lmdb.cpp:35] Opened lmdb examples/mnist/mnist_test_lmdb
I0426 20:49:54.504739 31645 net.cpp:86] Creating Layer mnist
I0426 20:49:54.504745 31645 net.cpp:382] mnist -> data
I0426 20:49:54.504752 31645 net.cpp:382] mnist -> label
I0426 20:49:54.504881 31645 data_layer.cpp:45] output data size: 100,1,28,28
I0426 20:49:54.506984 31645 net.cpp:124] Setting up mnist
I0426 20:49:54.507011 31645 net.cpp:131] Top shape: 100 1 28 28 (78400)
I0426 20:49:54.507017 31645 net.cpp:131] Top shape: 100 (100)
I0426 20:49:54.507020 31645 net.cpp:139] Memory required for data: 314000
I0426 20:49:54.507024 31645 layer_factory.hpp:77] Creating layer label_mnist_1_split
I0426 20:49:54.507056 31645 net.cpp:86] Creating Layer label_mnist_1_split
I0426 20:49:54.507060 31645 net.cpp:408] label_mnist_1_split <- label
I0426 20:49:54.507064 31645 net.cpp:382] label_mnist_1_split -> label_mnist_1_split_0
I0426 20:49:54.507071 31645 net.cpp:382] label_mnist_1_split -> label_mnist_1_split_1
I0426 20:49:54.507120 31645 net.cpp:124] Setting up label_mnist_1_split
I0426 20:49:54.507125 31645 net.cpp:131] Top shape: 100 (100)
I0426 20:49:54.507129 31645 net.cpp:131] Top shape: 100 (100)
I0426 20:49:54.507148 31645 net.cpp:139] Memory required for data: 314800
I0426 20:49:54.507150 31645 layer_factory.hpp:77] Creating layer conv0
I0426 20:49:54.507159 31645 net.cpp:86] Creating Layer conv0
I0426 20:49:54.507163 31645 net.cpp:408] conv0 <- data
I0426 20:49:54.507169 31645 net.cpp:382] conv0 -> conv0
I0426 20:49:54.509054 31645 net.cpp:124] Setting up conv0
I0426 20:49:54.509069 31645 net.cpp:131] Top shape: 100 50 24 24 (2880000)
I0426 20:49:54.509073 31645 net.cpp:139] Memory required for data: 11834800
I0426 20:49:54.509083 31645 layer_factory.hpp:77] Creating layer pool0
I0426 20:49:54.509089 31645 net.cpp:86] Creating Layer pool0
I0426 20:49:54.509109 31645 net.cpp:408] pool0 <- conv0
I0426 20:49:54.509114 31645 net.cpp:382] pool0 -> pool0
I0426 20:49:54.509167 31645 net.cpp:124] Setting up pool0
I0426 20:49:54.509173 31645 net.cpp:131] Top shape: 100 50 12 12 (720000)
I0426 20:49:54.509176 31645 net.cpp:139] Memory required for data: 14714800
I0426 20:49:54.509178 31645 layer_factory.hpp:77] Creating layer ip1
I0426 20:49:54.509201 31645 net.cpp:86] Creating Layer ip1
I0426 20:49:54.509218 31645 net.cpp:408] ip1 <- pool0
I0426 20:49:54.509223 31645 net.cpp:382] ip1 -> ip1
I0426 20:49:54.523231 31645 net.cpp:124] Setting up ip1
I0426 20:49:54.523260 31645 net.cpp:131] Top shape: 100 300 (30000)
I0426 20:49:54.523263 31645 net.cpp:139] Memory required for data: 14834800
I0426 20:49:54.523272 31645 layer_factory.hpp:77] Creating layer relu1
I0426 20:49:54.523278 31645 net.cpp:86] Creating Layer relu1
I0426 20:49:54.523282 31645 net.cpp:408] relu1 <- ip1
I0426 20:49:54.523286 31645 net.cpp:369] relu1 -> ip1 (in-place)
I0426 20:49:54.523509 31645 net.cpp:124] Setting up relu1
I0426 20:49:54.523519 31645 net.cpp:131] Top shape: 100 300 (30000)
I0426 20:49:54.523533 31645 net.cpp:139] Memory required for data: 14954800
I0426 20:49:54.523537 31645 layer_factory.hpp:77] Creating layer ip2
I0426 20:49:54.523543 31645 net.cpp:86] Creating Layer ip2
I0426 20:49:54.523546 31645 net.cpp:408] ip2 <- ip1
I0426 20:49:54.523552 31645 net.cpp:382] ip2 -> ip2
I0426 20:49:54.523675 31645 net.cpp:124] Setting up ip2
I0426 20:49:54.523684 31645 net.cpp:131] Top shape: 100 10 (1000)
I0426 20:49:54.523686 31645 net.cpp:139] Memory required for data: 14958800
I0426 20:49:54.523694 31645 layer_factory.hpp:77] Creating layer relu2
I0426 20:49:54.523699 31645 net.cpp:86] Creating Layer relu2
I0426 20:49:54.523703 31645 net.cpp:408] relu2 <- ip2
I0426 20:49:54.523707 31645 net.cpp:369] relu2 -> ip2 (in-place)
I0426 20:49:54.523877 31645 net.cpp:124] Setting up relu2
I0426 20:49:54.523886 31645 net.cpp:131] Top shape: 100 10 (1000)
I0426 20:49:54.523890 31645 net.cpp:139] Memory required for data: 14962800
I0426 20:49:54.523893 31645 layer_factory.hpp:77] Creating layer ip2_relu2_0_split
I0426 20:49:54.523900 31645 net.cpp:86] Creating Layer ip2_relu2_0_split
I0426 20:49:54.523905 31645 net.cpp:408] ip2_relu2_0_split <- ip2
I0426 20:49:54.523910 31645 net.cpp:382] ip2_relu2_0_split -> ip2_relu2_0_split_0
I0426 20:49:54.523916 31645 net.cpp:382] ip2_relu2_0_split -> ip2_relu2_0_split_1
I0426 20:49:54.523952 31645 net.cpp:124] Setting up ip2_relu2_0_split
I0426 20:49:54.523962 31645 net.cpp:131] Top shape: 100 10 (1000)
I0426 20:49:54.523965 31645 net.cpp:131] Top shape: 100 10 (1000)
I0426 20:49:54.523967 31645 net.cpp:139] Memory required for data: 14970800
I0426 20:49:54.523970 31645 layer_factory.hpp:77] Creating layer accuracy
I0426 20:49:54.523975 31645 net.cpp:86] Creating Layer accuracy
I0426 20:49:54.523978 31645 net.cpp:408] accuracy <- ip2_relu2_0_split_0
I0426 20:49:54.523983 31645 net.cpp:408] accuracy <- label_mnist_1_split_0
I0426 20:49:54.523986 31645 net.cpp:382] accuracy -> accuracy
…
