…
I0426 20:49:38.868113 31571 net.cpp:296] The NetState phase (0) differed from the phase (1) specified by a rule in layer mnist
I0426 20:49:38.868126 31571 net.cpp:296] The NetState phase (0) differed from the phase (1) specified by a rule in layer accuracy
I0426 20:49:38.868192 31571 net.cpp:53] Initializing net from parameters: 
name: "LeNet"
state {
  phase: TRAIN
  level: 0
  stage: ""
}
layer {
  name: "mnist"
  type: "Data"
  top: "data"
  top: "label"
  include {
    phase: TRAIN
  }
  transform_param {
    scale: 0.00390625
  }
  data_param {
    source: "examples/mnist/mnist_train_lmdb"
    batch_size: 64
    backend: LMDB
  }
}
layer {
  name: "conv0"
  type: "Convolution"
  bottom: "data"
  top: "conv0"
  param {
    lr_mult: 1
  }
  param {
    lr_mult: 2
  }
  convolution_param {
    num_output: 25
    kernel_size: 5
    stride: 1
    weight_filler {
      type: "xavier"
    }
    bias_filler {
      type: "constant"
    }
  }
}
layer {
  name: "pool0"
  type: "Pooling"
  bottom: "conv0"
  top: "pool0"
  pooling_param {
    pool: MAX
    kernel_size: 2
    stride: 2
  }
}
layer {
  name: "ip1"
  type: "InnerProduct"
  bottom: "pool0"
  top: "ip1"
  param {
    lr_mult: 1
  }
  param {
    lr_mult: 2
  }
  inner_product_param {
    num_output: 300
    weight_filler {
      type: "xavier"
    }
    bias_filler {
      type: "constant"
    }
  }
}
layer {
  name: "relu1"
  type: "ReLU"
  bottom: "ip1"
  top: "ip1"
}
layer {
  name: "ip2"
  type: "InnerProduct"
  bottom: "ip1"
  top: "ip2"
  param {
    lr_mult: 1
  }
  param {
    lr_mult: 2
  }
  inner_product_param {
    num_output: 300
    weight_filler {
      type: "xavier"
    }
    bias_filler {
      type: "constant"
    }
  }
}
layer {
  name: "relu2"
  type: "ReLU"
  bottom: "ip2"
  top: "ip2"
}
layer {
  name: "ip3"
  type: "InnerProduct"
  bottom: "ip2"
  top: "ip3"
  param {
    lr_mult: 1
  }
  param {
    lr_mult: 2
  }
  inner_product_param {
    num_output: 10
    weight_filler {
      type: "xavier"
    }
    bias_filler {
      type: "constant"
    }
  }
}
layer {
  name: "relu3"
  type: "ReLU"
  bottom: "ip3"
  top: "ip3"
}
layer {
  name: "loss"
  type: "SoftmaxWithLoss"
  bottom: "ip3"
  bottom: "label"
  top: "loss"
}
I0426 20:49:38.868247 31571 layer_factory.hpp:77] Creating layer mnist
I0426 20:49:38.868327 31571 db_lmdb.cpp:35] Opened lmdb examples/mnist/mnist_train_lmdb
I0426 20:49:38.868346 31571 net.cpp:86] Creating Layer mnist
I0426 20:49:38.868351 31571 net.cpp:382] mnist -> data
I0426 20:49:38.868371 31571 net.cpp:382] mnist -> label
I0426 20:49:38.869437 31571 data_layer.cpp:45] output data size: 64,1,28,28
I0426 20:49:38.871518 31571 net.cpp:124] Setting up mnist
I0426 20:49:38.871531 31571 net.cpp:131] Top shape: 64 1 28 28 (50176)
I0426 20:49:38.871536 31571 net.cpp:131] Top shape: 64 (64)
I0426 20:49:38.871539 31571 net.cpp:139] Memory required for data: 200960
I0426 20:49:38.871544 31571 layer_factory.hpp:77] Creating layer conv0
I0426 20:49:38.871556 31571 net.cpp:86] Creating Layer conv0
I0426 20:49:38.871562 31571 net.cpp:408] conv0 <- data
I0426 20:49:38.871569 31571 net.cpp:382] conv0 -> conv0
I0426 20:49:39.107699 31571 net.cpp:124] Setting up conv0
I0426 20:49:39.107727 31571 net.cpp:131] Top shape: 64 25 24 24 (921600)
I0426 20:49:39.107730 31571 net.cpp:139] Memory required for data: 3887360
I0426 20:49:39.107744 31571 layer_factory.hpp:77] Creating layer pool0
I0426 20:49:39.107756 31571 net.cpp:86] Creating Layer pool0
I0426 20:49:39.107779 31571 net.cpp:408] pool0 <- conv0
I0426 20:49:39.107800 31571 net.cpp:382] pool0 -> pool0
I0426 20:49:39.107842 31571 net.cpp:124] Setting up pool0
I0426 20:49:39.107847 31571 net.cpp:131] Top shape: 64 25 12 12 (230400)
I0426 20:49:39.107851 31571 net.cpp:139] Memory required for data: 4808960
I0426 20:49:39.107852 31571 layer_factory.hpp:77] Creating layer ip1
I0426 20:49:39.107861 31571 net.cpp:86] Creating Layer ip1
I0426 20:49:39.107863 31571 net.cpp:408] ip1 <- pool0
I0426 20:49:39.107867 31571 net.cpp:382] ip1 -> ip1
I0426 20:49:39.114749 31571 net.cpp:124] Setting up ip1
I0426 20:49:39.114761 31571 net.cpp:131] Top shape: 64 300 (19200)
I0426 20:49:39.114780 31571 net.cpp:139] Memory required for data: 4885760
I0426 20:49:39.114789 31571 layer_factory.hpp:77] Creating layer relu1
I0426 20:49:39.114794 31571 net.cpp:86] Creating Layer relu1
I0426 20:49:39.114797 31571 net.cpp:408] relu1 <- ip1
I0426 20:49:39.114802 31571 net.cpp:369] relu1 -> ip1 (in-place)
I0426 20:49:39.114959 31571 net.cpp:124] Setting up relu1
I0426 20:49:39.114967 31571 net.cpp:131] Top shape: 64 300 (19200)
I0426 20:49:39.114971 31571 net.cpp:139] Memory required for data: 4962560
I0426 20:49:39.114974 31571 layer_factory.hpp:77] Creating layer ip2
I0426 20:49:39.114980 31571 net.cpp:86] Creating Layer ip2
I0426 20:49:39.114984 31571 net.cpp:408] ip2 <- ip1
I0426 20:49:39.114987 31571 net.cpp:382] ip2 -> ip2
I0426 20:49:39.116343 31571 net.cpp:124] Setting up ip2
I0426 20:49:39.116355 31571 net.cpp:131] Top shape: 64 300 (19200)
I0426 20:49:39.116358 31571 net.cpp:139] Memory required for data: 5039360
I0426 20:49:39.116365 31571 layer_factory.hpp:77] Creating layer relu2
I0426 20:49:39.116370 31571 net.cpp:86] Creating Layer relu2
I0426 20:49:39.116374 31571 net.cpp:408] relu2 <- ip2
I0426 20:49:39.116377 31571 net.cpp:369] relu2 -> ip2 (in-place)
I0426 20:49:39.117247 31571 net.cpp:124] Setting up relu2
I0426 20:49:39.117259 31571 net.cpp:131] Top shape: 64 300 (19200)
I0426 20:49:39.117262 31571 net.cpp:139] Memory required for data: 5116160
I0426 20:49:39.117265 31571 layer_factory.hpp:77] Creating layer ip3
I0426 20:49:39.117271 31571 net.cpp:86] Creating Layer ip3
I0426 20:49:39.117274 31571 net.cpp:408] ip3 <- ip2
I0426 20:49:39.117280 31571 net.cpp:382] ip3 -> ip3
I0426 20:49:39.118197 31571 net.cpp:124] Setting up ip3
I0426 20:49:39.118208 31571 net.cpp:131] Top shape: 64 10 (640)
I0426 20:49:39.118227 31571 net.cpp:139] Memory required for data: 5118720
I0426 20:49:39.118232 31571 layer_factory.hpp:77] Creating layer relu3
I0426 20:49:39.118253 31571 net.cpp:86] Creating Layer relu3
I0426 20:49:39.118257 31571 net.cpp:408] relu3 <- ip3
I0426 20:49:39.118260 31571 net.cpp:369] relu3 -> ip3 (in-place)
I0426 20:49:39.118418 31571 net.cpp:124] Setting up relu3
I0426 20:49:39.118427 31571 net.cpp:131] Top shape: 64 10 (640)
I0426 20:49:39.118430 31571 net.cpp:139] Memory required for data: 5121280
I0426 20:49:39.118432 31571 layer_factory.hpp:77] Creating layer loss
I0426 20:49:39.118438 31571 net.cpp:86] Creating Layer loss
I0426 20:49:39.118440 31571 net.cpp:408] loss <- ip3
I0426 20:49:39.118444 31571 net.cpp:408] loss <- label
I0426 20:49:39.118449 31571 net.cpp:382] loss -> loss
I0426 20:49:39.118463 31571 layer_factory.hpp:77] Creating layer loss
…
I0426 20:49:39.119025 31571 solver.cpp:173] Creating test net (#0) specified by net file: ECE595/mnist/train_test/var_everything/lenet_train_test41.prototxt
I0426 20:49:39.119050 31571 net.cpp:296] The NetState phase (1) differed from the phase (0) specified by a rule in layer mnist
I0426 20:49:39.119128 31571 net.cpp:53] Initializing net from parameters: 
name: "LeNet"
state {
  phase: TEST
}
layer {
  name: "mnist"
  type: "Data"
  top: "data"
  top: "label"
  include {
    phase: TEST
  }
  transform_param {
    scale: 0.00390625
  }
  data_param {
    source: "examples/mnist/mnist_test_lmdb"
    batch_size: 100
    backend: LMDB
  }
}
layer {
  name: "conv0"
  type: "Convolution"
  bottom: "data"
  top: "conv0"
  param {
    lr_mult: 1
  }
  param {
    lr_mult: 2
  }
  convolution_param {
    num_output: 25
    kernel_size: 5
    stride: 1
    weight_filler {
      type: "xavier"
    }
    bias_filler {
      type: "constant"
    }
  }
}
layer {
  name: "pool0"
  type: "Pooling"
  bottom: "conv0"
  top: "pool0"
  pooling_param {
    pool: MAX
    kernel_size: 2
    stride: 2
  }
}
layer {
  name: "ip1"
  type: "InnerProduct"
  bottom: "pool0"
  top: "ip1"
  param {
    lr_mult: 1
  }
  param {
    lr_mult: 2
  }
  inner_product_param {
    num_output: 300
    weight_filler {
      type: "xavier"
    }
    bias_filler {
      type: "constant"
    }
  }
}
layer {
  name: "relu1"
  type: "ReLU"
  bottom: "ip1"
  top: "ip1"
}
layer {
  name: "ip2"
  type: "InnerProduct"
  bottom: "ip1"
  top: "ip2"
  param {
    lr_mult: 1
  }
  param {
    lr_mult: 2
  }
  inner_product_param {
    num_output: 300
    weight_filler {
      type: "xavier"
    }
    bias_filler {
      type: "constant"
    }
  }
}
layer {
  name: "relu2"
  type: "ReLU"
  bottom: "ip2"
  top: "ip2"
}
layer {
  name: "ip3"
  type: "InnerProduct"
  bottom: "ip2"
  top: "ip3"
  param {
    lr_mult: 1
  }
  param {
    lr_mult: 2
  }
  inner_product_param {
    num_output: 10
    weight_filler {
      type: "xavier"
    }
    bias_filler {
      type: "constant"
    }
  }
}
layer {
  name: "relu3"
  type: "ReLU"
  bottom: "ip3"
  top: "ip3"
}
layer {
  name: "accuracy"
  type: "Accuracy"
  bottom: "ip3"
  bottom: "label"
  top: "accuracy"
  include {
    phase: TEST
  }
}
layer {
  name: "loss"
  type: "SoftmaxWithLoss"
  bottom: "ip3"
  bottom: "label"
  top: "loss"
}
I0426 20:49:39.119189 31571 layer_factory.hpp:77] Creating layer mnist
I0426 20:49:39.119230 31571 db_lmdb.cpp:35] Opened lmdb examples/mnist/mnist_test_lmdb
I0426 20:49:39.119242 31571 net.cpp:86] Creating Layer mnist
I0426 20:49:39.119246 31571 net.cpp:382] mnist -> data
I0426 20:49:39.119253 31571 net.cpp:382] mnist -> label
I0426 20:49:39.119330 31571 data_layer.cpp:45] output data size: 100,1,28,28
I0426 20:49:39.120436 31571 net.cpp:124] Setting up mnist
I0426 20:49:39.120463 31571 net.cpp:131] Top shape: 100 1 28 28 (78400)
I0426 20:49:39.120468 31571 net.cpp:131] Top shape: 100 (100)
I0426 20:49:39.120472 31571 net.cpp:139] Memory required for data: 314000
I0426 20:49:39.120476 31571 layer_factory.hpp:77] Creating layer label_mnist_1_split
I0426 20:49:39.120481 31571 net.cpp:86] Creating Layer label_mnist_1_split
I0426 20:49:39.120484 31571 net.cpp:408] label_mnist_1_split <- label
I0426 20:49:39.120489 31571 net.cpp:382] label_mnist_1_split -> label_mnist_1_split_0
I0426 20:49:39.120496 31571 net.cpp:382] label_mnist_1_split -> label_mnist_1_split_1
I0426 20:49:39.120532 31571 net.cpp:124] Setting up label_mnist_1_split
I0426 20:49:39.120537 31571 net.cpp:131] Top shape: 100 (100)
I0426 20:49:39.120540 31571 net.cpp:131] Top shape: 100 (100)
I0426 20:49:39.120543 31571 net.cpp:139] Memory required for data: 314800
I0426 20:49:39.120554 31571 layer_factory.hpp:77] Creating layer conv0
I0426 20:49:39.120563 31571 net.cpp:86] Creating Layer conv0
I0426 20:49:39.120566 31571 net.cpp:408] conv0 <- data
I0426 20:49:39.120570 31571 net.cpp:382] conv0 -> conv0
I0426 20:49:39.122170 31571 net.cpp:124] Setting up conv0
I0426 20:49:39.122195 31571 net.cpp:131] Top shape: 100 25 24 24 (1440000)
I0426 20:49:39.122198 31571 net.cpp:139] Memory required for data: 6074800
I0426 20:49:39.122206 31571 layer_factory.hpp:77] Creating layer pool0
I0426 20:49:39.122212 31571 net.cpp:86] Creating Layer pool0
I0426 20:49:39.122215 31571 net.cpp:408] pool0 <- conv0
I0426 20:49:39.122220 31571 net.cpp:382] pool0 -> pool0
I0426 20:49:39.122253 31571 net.cpp:124] Setting up pool0
I0426 20:49:39.122258 31571 net.cpp:131] Top shape: 100 25 12 12 (360000)
I0426 20:49:39.122262 31571 net.cpp:139] Memory required for data: 7514800
I0426 20:49:39.122263 31571 layer_factory.hpp:77] Creating layer ip1
I0426 20:49:39.122269 31571 net.cpp:86] Creating Layer ip1
I0426 20:49:39.122272 31571 net.cpp:408] ip1 <- pool0
I0426 20:49:39.122277 31571 net.cpp:382] ip1 -> ip1
I0426 20:49:39.129400 31571 net.cpp:124] Setting up ip1
I0426 20:49:39.129412 31571 net.cpp:131] Top shape: 100 300 (30000)
I0426 20:49:39.129416 31571 net.cpp:139] Memory required for data: 7634800
I0426 20:49:39.129425 31571 layer_factory.hpp:77] Creating layer relu1
I0426 20:49:39.129429 31571 net.cpp:86] Creating Layer relu1
I0426 20:49:39.129432 31571 net.cpp:408] relu1 <- ip1
I0426 20:49:39.129447 31571 net.cpp:369] relu1 -> ip1 (in-place)
I0426 20:49:39.129600 31571 net.cpp:124] Setting up relu1
I0426 20:49:39.129608 31571 net.cpp:131] Top shape: 100 300 (30000)
I0426 20:49:39.129611 31571 net.cpp:139] Memory required for data: 7754800
I0426 20:49:39.129614 31571 layer_factory.hpp:77] Creating layer ip2
I0426 20:49:39.129619 31571 net.cpp:86] Creating Layer ip2
I0426 20:49:39.129622 31571 net.cpp:408] ip2 <- ip1
I0426 20:49:39.129626 31571 net.cpp:382] ip2 -> ip2
I0426 20:49:39.130175 31571 net.cpp:124] Setting up ip2
I0426 20:49:39.130183 31571 net.cpp:131] Top shape: 100 300 (30000)
I0426 20:49:39.130187 31571 net.cpp:139] Memory required for data: 7874800
I0426 20:49:39.130192 31571 layer_factory.hpp:77] Creating layer relu2
I0426 20:49:39.130197 31571 net.cpp:86] Creating Layer relu2
I0426 20:49:39.130200 31571 net.cpp:408] relu2 <- ip2
I0426 20:49:39.130203 31571 net.cpp:369] relu2 -> ip2 (in-place)
I0426 20:49:39.130972 31571 net.cpp:124] Setting up relu2
I0426 20:49:39.130985 31571 net.cpp:131] Top shape: 100 300 (30000)
I0426 20:49:39.130988 31571 net.cpp:139] Memory required for data: 7994800
I0426 20:49:39.130991 31571 layer_factory.hpp:77] Creating layer ip3
I0426 20:49:39.130998 31571 net.cpp:86] Creating Layer ip3
I0426 20:49:39.131002 31571 net.cpp:408] ip3 <- ip2
I0426 20:49:39.131007 31571 net.cpp:382] ip3 -> ip3
I0426 20:49:39.131117 31571 net.cpp:124] Setting up ip3
I0426 20:49:39.131125 31571 net.cpp:131] Top shape: 100 10 (1000)
I0426 20:49:39.131129 31571 net.cpp:139] Memory required for data: 7998800
I0426 20:49:39.131134 31571 layer_factory.hpp:77] Creating layer relu3
I0426 20:49:39.131137 31571 net.cpp:86] Creating Layer relu3
I0426 20:49:39.131140 31571 net.cpp:408] relu3 <- ip3
I0426 20:49:39.131145 31571 net.cpp:369] relu3 -> ip3 (in-place)
I0426 20:49:39.131283 31571 net.cpp:124] Setting up relu3
I0426 20:49:39.131291 31571 net.cpp:131] Top shape: 100 10 (1000)
I0426 20:49:39.131294 31571 net.cpp:139] Memory required for data: 8002800
I0426 20:49:39.131296 31571 layer_factory.hpp:77] Creating layer ip3_relu3_0_split
I0426 20:49:39.131300 31571 net.cpp:86] Creating Layer ip3_relu3_0_split
I0426 20:49:39.131304 31571 net.cpp:408] ip3_relu3_0_split <- ip3
I0426 20:49:39.131309 31571 net.cpp:382] ip3_relu3_0_split -> ip3_relu3_0_split_0
I0426 20:49:39.131314 31571 net.cpp:382] ip3_relu3_0_split -> ip3_relu3_0_split_1
I0426 20:49:39.131345 31571 net.cpp:124] Setting up ip3_relu3_0_split
I0426 20:49:39.131350 31571 net.cpp:131] Top shape: 100 10 (1000)
I0426 20:49:39.131362 31571 net.cpp:131] Top shape: 100 10 (1000)
I0426 20:49:39.131366 31571 net.cpp:139] Memory required for data: 8010800
I0426 20:49:39.131368 31571 layer_factory.hpp:77] Creating layer accuracy
I0426 20:49:39.131373 31571 net.cpp:86] Creating Layer accuracy
I0426 20:49:39.131376 31571 net.cpp:408] accuracy <- ip3_relu3_0_split_0
I0426 20:49:39.131381 31571 net.cpp:408] accuracy <- label_mnist_1_split_0
I0426 20:49:39.131399 31571 net.cpp:382] accuracy -> accuracy
…
