…
I0426 20:52:50.094485 32320 net.cpp:296] The NetState phase (0) differed from the phase (1) specified by a rule in layer mnist
I0426 20:52:50.094502 32320 net.cpp:296] The NetState phase (0) differed from the phase (1) specified by a rule in layer accuracy
I0426 20:52:50.094584 32320 net.cpp:53] Initializing net from parameters: 
name: "LeNet"
state {
  phase: TRAIN
  level: 0
  stage: ""
}
layer {
  name: "mnist"
  type: "Data"
  top: "data"
  top: "label"
  include {
    phase: TRAIN
  }
  transform_param {
    scale: 0.00390625
  }
  data_param {
    source: "examples/mnist/mnist_train_lmdb"
    batch_size: 64
    backend: LMDB
  }
}
layer {
  name: "conv0"
  type: "Convolution"
  bottom: "data"
  top: "conv0"
  param {
    lr_mult: 1
  }
  param {
    lr_mult: 2
  }
  convolution_param {
    num_output: 25
    kernel_size: 5
    stride: 1
    weight_filler {
      type: "xavier"
    }
    bias_filler {
      type: "constant"
    }
  }
}
layer {
  name: "pool0"
  type: "Pooling"
  bottom: "conv0"
  top: "pool0"
  pooling_param {
    pool: MAX
    kernel_size: 2
    stride: 2
  }
}
layer {
  name: "conv1"
  type: "Convolution"
  bottom: "pool0"
  top: "conv1"
  param {
    lr_mult: 1
  }
  param {
    lr_mult: 2
  }
  convolution_param {
    num_output: 25
    kernel_size: 5
    stride: 1
    weight_filler {
      type: "xavier"
    }
    bias_filler {
      type: "constant"
    }
  }
}
layer {
  name: "pool1"
  type: "Pooling"
  bottom: "conv1"
  top: "pool1"
  pooling_param {
    pool: MAX
    kernel_size: 2
    stride: 2
  }
}
layer {
  name: "ip1"
  type: "InnerProduct"
  bottom: "pool1"
  top: "ip1"
  param {
    lr_mult: 1
  }
  param {
    lr_mult: 2
  }
  inner_product_param {
    num_output: 300
    weight_filler {
      type: "xavier"
    }
    bias_filler {
      type: "constant"
    }
  }
}
layer {
  name: "relu1"
  type: "ReLU"
  bottom: "ip1"
  top: "ip1"
}
layer {
  name: "ip2"
  type: "InnerProduct"
  bottom: "ip1"
  top: "ip2"
  param {
    lr_mult: 1
  }
  param {
    lr_mult: 2
  }
  inner_product_param {
    num_output: 100
    weight_filler {
      type: "xavier"
    }
    bias_filler {
      type: "constant"
    }
  }
}
layer {
  name: "relu2"
  type: "ReLU"
  bottom: "ip2"
  top: "ip2"
}
layer {
  name: "ip3"
  type: "InnerProduct"
  bottom: "ip2"
  top: "ip3"
  param {
    lr_mult: 1
  }
  param {
    lr_mult: 2
  }
  inner_product_param {
    num_output: 10
    weight_filler {
      type: "xavier"
    }
    bias_filler {
      type: "constant"
    }
  }
}
layer {
  name: "relu3"
  type: "ReLU"
  bottom: "ip3"
  top: "ip3"
}
layer {
  name: "loss"
  type: "SoftmaxWithLoss"
  bottom: "ip3"
  bottom: "label"
  top: "loss"
}
I0426 20:52:50.094648 32320 layer_factory.hpp:77] Creating layer mnist
I0426 20:52:50.094734 32320 db_lmdb.cpp:35] Opened lmdb examples/mnist/mnist_train_lmdb
I0426 20:52:50.094754 32320 net.cpp:86] Creating Layer mnist
I0426 20:52:50.094777 32320 net.cpp:382] mnist -> data
I0426 20:52:50.094796 32320 net.cpp:382] mnist -> label
I0426 20:52:50.095712 32320 data_layer.cpp:45] output data size: 64,1,28,28
I0426 20:52:50.097834 32320 net.cpp:124] Setting up mnist
I0426 20:52:50.097849 32320 net.cpp:131] Top shape: 64 1 28 28 (50176)
I0426 20:52:50.097856 32320 net.cpp:131] Top shape: 64 (64)
I0426 20:52:50.097858 32320 net.cpp:139] Memory required for data: 200960
I0426 20:52:50.097864 32320 layer_factory.hpp:77] Creating layer conv0
I0426 20:52:50.097877 32320 net.cpp:86] Creating Layer conv0
I0426 20:52:50.097894 32320 net.cpp:408] conv0 <- data
I0426 20:52:50.097905 32320 net.cpp:382] conv0 -> conv0
I0426 20:52:50.330878 32320 net.cpp:124] Setting up conv0
I0426 20:52:50.330922 32320 net.cpp:131] Top shape: 64 25 24 24 (921600)
I0426 20:52:50.330926 32320 net.cpp:139] Memory required for data: 3887360
I0426 20:52:50.330942 32320 layer_factory.hpp:77] Creating layer pool0
I0426 20:52:50.330956 32320 net.cpp:86] Creating Layer pool0
I0426 20:52:50.330960 32320 net.cpp:408] pool0 <- conv0
I0426 20:52:50.330966 32320 net.cpp:382] pool0 -> pool0
I0426 20:52:50.331027 32320 net.cpp:124] Setting up pool0
I0426 20:52:50.331034 32320 net.cpp:131] Top shape: 64 25 12 12 (230400)
I0426 20:52:50.331037 32320 net.cpp:139] Memory required for data: 4808960
I0426 20:52:50.331040 32320 layer_factory.hpp:77] Creating layer conv1
I0426 20:52:50.331053 32320 net.cpp:86] Creating Layer conv1
I0426 20:52:50.331055 32320 net.cpp:408] conv1 <- pool0
I0426 20:52:50.331060 32320 net.cpp:382] conv1 -> conv1
I0426 20:52:50.334002 32320 net.cpp:124] Setting up conv1
I0426 20:52:50.334031 32320 net.cpp:131] Top shape: 64 25 8 8 (102400)
I0426 20:52:50.334035 32320 net.cpp:139] Memory required for data: 5218560
I0426 20:52:50.334044 32320 layer_factory.hpp:77] Creating layer pool1
I0426 20:52:50.334053 32320 net.cpp:86] Creating Layer pool1
I0426 20:52:50.334056 32320 net.cpp:408] pool1 <- conv1
I0426 20:52:50.334061 32320 net.cpp:382] pool1 -> pool1
I0426 20:52:50.334113 32320 net.cpp:124] Setting up pool1
I0426 20:52:50.334120 32320 net.cpp:131] Top shape: 64 25 4 4 (25600)
I0426 20:52:50.334123 32320 net.cpp:139] Memory required for data: 5320960
I0426 20:52:50.334126 32320 layer_factory.hpp:77] Creating layer ip1
I0426 20:52:50.334133 32320 net.cpp:86] Creating Layer ip1
I0426 20:52:50.334136 32320 net.cpp:408] ip1 <- pool1
I0426 20:52:50.334141 32320 net.cpp:382] ip1 -> ip1
I0426 20:52:50.335775 32320 net.cpp:124] Setting up ip1
I0426 20:52:50.335788 32320 net.cpp:131] Top shape: 64 300 (19200)
I0426 20:52:50.335806 32320 net.cpp:139] Memory required for data: 5397760
I0426 20:52:50.335814 32320 layer_factory.hpp:77] Creating layer relu1
I0426 20:52:50.335820 32320 net.cpp:86] Creating Layer relu1
I0426 20:52:50.335824 32320 net.cpp:408] relu1 <- ip1
I0426 20:52:50.335829 32320 net.cpp:369] relu1 -> ip1 (in-place)
I0426 20:52:50.336007 32320 net.cpp:124] Setting up relu1
I0426 20:52:50.336016 32320 net.cpp:131] Top shape: 64 300 (19200)
I0426 20:52:50.336019 32320 net.cpp:139] Memory required for data: 5474560
I0426 20:52:50.336022 32320 layer_factory.hpp:77] Creating layer ip2
I0426 20:52:50.336030 32320 net.cpp:86] Creating Layer ip2
I0426 20:52:50.336032 32320 net.cpp:408] ip2 <- ip1
I0426 20:52:50.336037 32320 net.cpp:382] ip2 -> ip2
I0426 20:52:50.336321 32320 net.cpp:124] Setting up ip2
I0426 20:52:50.336328 32320 net.cpp:131] Top shape: 64 100 (6400)
I0426 20:52:50.336331 32320 net.cpp:139] Memory required for data: 5500160
I0426 20:52:50.336338 32320 layer_factory.hpp:77] Creating layer relu2
I0426 20:52:50.336344 32320 net.cpp:86] Creating Layer relu2
I0426 20:52:50.336347 32320 net.cpp:408] relu2 <- ip2
I0426 20:52:50.336351 32320 net.cpp:369] relu2 -> ip2 (in-place)
I0426 20:52:50.337254 32320 net.cpp:124] Setting up relu2
I0426 20:52:50.337266 32320 net.cpp:131] Top shape: 64 100 (6400)
I0426 20:52:50.337285 32320 net.cpp:139] Memory required for data: 5525760
I0426 20:52:50.337290 32320 layer_factory.hpp:77] Creating layer ip3
I0426 20:52:50.337296 32320 net.cpp:86] Creating Layer ip3
I0426 20:52:50.337301 32320 net.cpp:408] ip3 <- ip2
I0426 20:52:50.337306 32320 net.cpp:382] ip3 -> ip3
I0426 20:52:50.337425 32320 net.cpp:124] Setting up ip3
I0426 20:52:50.337435 32320 net.cpp:131] Top shape: 64 10 (640)
I0426 20:52:50.337437 32320 net.cpp:139] Memory required for data: 5528320
I0426 20:52:50.337445 32320 layer_factory.hpp:77] Creating layer relu3
I0426 20:52:50.337452 32320 net.cpp:86] Creating Layer relu3
I0426 20:52:50.337471 32320 net.cpp:408] relu3 <- ip3
I0426 20:52:50.337474 32320 net.cpp:369] relu3 -> ip3 (in-place)
I0426 20:52:50.337656 32320 net.cpp:124] Setting up relu3
I0426 20:52:50.337664 32320 net.cpp:131] Top shape: 64 10 (640)
I0426 20:52:50.337667 32320 net.cpp:139] Memory required for data: 5530880
I0426 20:52:50.337671 32320 layer_factory.hpp:77] Creating layer loss
I0426 20:52:50.337677 32320 net.cpp:86] Creating Layer loss
I0426 20:52:50.337679 32320 net.cpp:408] loss <- ip3
I0426 20:52:50.337683 32320 net.cpp:408] loss <- label
I0426 20:52:50.337689 32320 net.cpp:382] loss -> loss
I0426 20:52:50.337702 32320 layer_factory.hpp:77] Creating layer loss
…
I0426 20:52:50.338412 32320 solver.cpp:173] Creating test net (#0) specified by net file: ECE595/mnist/train_test/var_everything/lenet_train_test122.prototxt
I0426 20:52:50.338454 32320 net.cpp:296] The NetState phase (1) differed from the phase (0) specified by a rule in layer mnist
I0426 20:52:50.338552 32320 net.cpp:53] Initializing net from parameters: 
name: "LeNet"
state {
  phase: TEST
}
layer {
  name: "mnist"
  type: "Data"
  top: "data"
  top: "label"
  include {
    phase: TEST
  }
  transform_param {
    scale: 0.00390625
  }
  data_param {
    source: "examples/mnist/mnist_test_lmdb"
    batch_size: 100
    backend: LMDB
  }
}
layer {
  name: "conv0"
  type: "Convolution"
  bottom: "data"
  top: "conv0"
  param {
    lr_mult: 1
  }
  param {
    lr_mult: 2
  }
  convolution_param {
    num_output: 25
    kernel_size: 5
    stride: 1
    weight_filler {
      type: "xavier"
    }
    bias_filler {
      type: "constant"
    }
  }
}
layer {
  name: "pool0"
  type: "Pooling"
  bottom: "conv0"
  top: "pool0"
  pooling_param {
    pool: MAX
    kernel_size: 2
    stride: 2
  }
}
layer {
  name: "conv1"
  type: "Convolution"
  bottom: "pool0"
  top: "conv1"
  param {
    lr_mult: 1
  }
  param {
    lr_mult: 2
  }
  convolution_param {
    num_output: 25
    kernel_size: 5
    stride: 1
    weight_filler {
      type: "xavier"
    }
    bias_filler {
      type: "constant"
    }
  }
}
layer {
  name: "pool1"
  type: "Pooling"
  bottom: "conv1"
  top: "pool1"
  pooling_param {
    pool: MAX
    kernel_size: 2
    stride: 2
  }
}
layer {
  name: "ip1"
  type: "InnerProduct"
  bottom: "pool1"
  top: "ip1"
  param {
    lr_mult: 1
  }
  param {
    lr_mult: 2
  }
  inner_product_param {
    num_output: 300
    weight_filler {
      type: "xavier"
    }
    bias_filler {
      type: "constant"
    }
  }
}
layer {
  name: "relu1"
  type: "ReLU"
  bottom: "ip1"
  top: "ip1"
}
layer {
  name: "ip2"
  type: "InnerProduct"
  bottom: "ip1"
  top: "ip2"
  param {
    lr_mult: 1
  }
  param {
    lr_mult: 2
  }
  inner_product_param {
    num_output: 100
    weight_filler {
      type: "xavier"
    }
    bias_filler {
      type: "constant"
    }
  }
}
layer {
  name: "relu2"
  type: "ReLU"
  bottom: "ip2"
  top: "ip2"
}
layer {
  name: "ip3"
  type: "InnerProduct"
  bottom: "ip2"
  top: "ip3"
  param {
    lr_mult: 1
  }
  param {
    lr_mult: 2
  }
  inner_product_param {
    num_output: 10
    weight_filler {
      type: "xavier"
    }
    bias_filler {
      type: "constant"
    }
  }
}
layer {
  name: "relu3"
  type: "ReLU"
  bottom: "ip3"
  top: "ip3"
}
layer {
  name: "accuracy"
  type: "Accuracy"
  bottom: "ip3"
  bottom: "label"
  top: "accuracy"
  include {
    phase: TEST
  }
}
layer {
  name: "loss"
  type: "SoftmaxWithLoss"
  bottom: "ip3"
  bottom: "label"
  top: "loss"
}
I0426 20:52:50.338641 32320 layer_factory.hpp:77] Creating layer mnist
I0426 20:52:50.338701 32320 db_lmdb.cpp:35] Opened lmdb examples/mnist/mnist_test_lmdb
I0426 20:52:50.338714 32320 net.cpp:86] Creating Layer mnist
I0426 20:52:50.338719 32320 net.cpp:382] mnist -> data
I0426 20:52:50.338726 32320 net.cpp:382] mnist -> label
I0426 20:52:50.338814 32320 data_layer.cpp:45] output data size: 100,1,28,28
I0426 20:52:50.340188 32320 net.cpp:124] Setting up mnist
I0426 20:52:50.340234 32320 net.cpp:131] Top shape: 100 1 28 28 (78400)
I0426 20:52:50.340240 32320 net.cpp:131] Top shape: 100 (100)
I0426 20:52:50.340242 32320 net.cpp:139] Memory required for data: 314000
I0426 20:52:50.340246 32320 layer_factory.hpp:77] Creating layer label_mnist_1_split
I0426 20:52:50.340253 32320 net.cpp:86] Creating Layer label_mnist_1_split
I0426 20:52:50.340256 32320 net.cpp:408] label_mnist_1_split <- label
I0426 20:52:50.340261 32320 net.cpp:382] label_mnist_1_split -> label_mnist_1_split_0
I0426 20:52:50.340268 32320 net.cpp:382] label_mnist_1_split -> label_mnist_1_split_1
I0426 20:52:50.340378 32320 net.cpp:124] Setting up label_mnist_1_split
I0426 20:52:50.340386 32320 net.cpp:131] Top shape: 100 (100)
I0426 20:52:50.340390 32320 net.cpp:131] Top shape: 100 (100)
I0426 20:52:50.340394 32320 net.cpp:139] Memory required for data: 314800
I0426 20:52:50.340396 32320 layer_factory.hpp:77] Creating layer conv0
I0426 20:52:50.340407 32320 net.cpp:86] Creating Layer conv0
I0426 20:52:50.340410 32320 net.cpp:408] conv0 <- data
I0426 20:52:50.340417 32320 net.cpp:382] conv0 -> conv0
I0426 20:52:50.342217 32320 net.cpp:124] Setting up conv0
I0426 20:52:50.342247 32320 net.cpp:131] Top shape: 100 25 24 24 (1440000)
I0426 20:52:50.342250 32320 net.cpp:139] Memory required for data: 6074800
I0426 20:52:50.342259 32320 layer_factory.hpp:77] Creating layer pool0
I0426 20:52:50.342268 32320 net.cpp:86] Creating Layer pool0
I0426 20:52:50.342272 32320 net.cpp:408] pool0 <- conv0
I0426 20:52:50.342278 32320 net.cpp:382] pool0 -> pool0
I0426 20:52:50.342315 32320 net.cpp:124] Setting up pool0
I0426 20:52:50.342321 32320 net.cpp:131] Top shape: 100 25 12 12 (360000)
I0426 20:52:50.342324 32320 net.cpp:139] Memory required for data: 7514800
I0426 20:52:50.342326 32320 layer_factory.hpp:77] Creating layer conv1
I0426 20:52:50.342336 32320 net.cpp:86] Creating Layer conv1
I0426 20:52:50.342339 32320 net.cpp:408] conv1 <- pool0
I0426 20:52:50.342346 32320 net.cpp:382] conv1 -> conv1
I0426 20:52:50.344707 32320 net.cpp:124] Setting up conv1
I0426 20:52:50.344735 32320 net.cpp:131] Top shape: 100 25 8 8 (160000)
I0426 20:52:50.344739 32320 net.cpp:139] Memory required for data: 8154800
I0426 20:52:50.344749 32320 layer_factory.hpp:77] Creating layer pool1
I0426 20:52:50.344756 32320 net.cpp:86] Creating Layer pool1
I0426 20:52:50.344768 32320 net.cpp:408] pool1 <- conv1
I0426 20:52:50.344789 32320 net.cpp:382] pool1 -> pool1
I0426 20:52:50.344853 32320 net.cpp:124] Setting up pool1
I0426 20:52:50.344861 32320 net.cpp:131] Top shape: 100 25 4 4 (40000)
I0426 20:52:50.344863 32320 net.cpp:139] Memory required for data: 8314800
I0426 20:52:50.344867 32320 layer_factory.hpp:77] Creating layer ip1
I0426 20:52:50.344874 32320 net.cpp:86] Creating Layer ip1
I0426 20:52:50.344878 32320 net.cpp:408] ip1 <- pool1
I0426 20:52:50.344883 32320 net.cpp:382] ip1 -> ip1
I0426 20:52:50.346565 32320 net.cpp:124] Setting up ip1
I0426 20:52:50.346592 32320 net.cpp:131] Top shape: 100 300 (30000)
I0426 20:52:50.346606 32320 net.cpp:139] Memory required for data: 8434800
I0426 20:52:50.346616 32320 layer_factory.hpp:77] Creating layer relu1
I0426 20:52:50.346621 32320 net.cpp:86] Creating Layer relu1
I0426 20:52:50.346626 32320 net.cpp:408] relu1 <- ip1
I0426 20:52:50.346647 32320 net.cpp:369] relu1 -> ip1 (in-place)
I0426 20:52:50.346886 32320 net.cpp:124] Setting up relu1
I0426 20:52:50.346896 32320 net.cpp:131] Top shape: 100 300 (30000)
I0426 20:52:50.346899 32320 net.cpp:139] Memory required for data: 8554800
I0426 20:52:50.346904 32320 layer_factory.hpp:77] Creating layer ip2
I0426 20:52:50.346910 32320 net.cpp:86] Creating Layer ip2
I0426 20:52:50.346913 32320 net.cpp:408] ip2 <- ip1
I0426 20:52:50.346920 32320 net.cpp:382] ip2 -> ip2
I0426 20:52:50.347223 32320 net.cpp:124] Setting up ip2
I0426 20:52:50.347244 32320 net.cpp:131] Top shape: 100 100 (10000)
I0426 20:52:50.347265 32320 net.cpp:139] Memory required for data: 8594800
I0426 20:52:50.347270 32320 layer_factory.hpp:77] Creating layer relu2
I0426 20:52:50.347275 32320 net.cpp:86] Creating Layer relu2
I0426 20:52:50.347278 32320 net.cpp:408] relu2 <- ip2
I0426 20:52:50.347285 32320 net.cpp:369] relu2 -> ip2 (in-place)
I0426 20:52:50.347452 32320 net.cpp:124] Setting up relu2
I0426 20:52:50.347461 32320 net.cpp:131] Top shape: 100 100 (10000)
I0426 20:52:50.347465 32320 net.cpp:139] Memory required for data: 8634800
I0426 20:52:50.347467 32320 layer_factory.hpp:77] Creating layer ip3
I0426 20:52:50.347474 32320 net.cpp:86] Creating Layer ip3
I0426 20:52:50.347478 32320 net.cpp:408] ip3 <- ip2
I0426 20:52:50.347482 32320 net.cpp:382] ip3 -> ip3
I0426 20:52:50.347595 32320 net.cpp:124] Setting up ip3
I0426 20:52:50.347602 32320 net.cpp:131] Top shape: 100 10 (1000)
I0426 20:52:50.347606 32320 net.cpp:139] Memory required for data: 8638800
I0426 20:52:50.347614 32320 layer_factory.hpp:77] Creating layer relu3
I0426 20:52:50.347620 32320 net.cpp:86] Creating Layer relu3
I0426 20:52:50.347622 32320 net.cpp:408] relu3 <- ip3
I0426 20:52:50.347628 32320 net.cpp:369] relu3 -> ip3 (in-place)
I0426 20:52:50.348585 32320 net.cpp:124] Setting up relu3
I0426 20:52:50.348598 32320 net.cpp:131] Top shape: 100 10 (1000)
I0426 20:52:50.348616 32320 net.cpp:139] Memory required for data: 8642800
I0426 20:52:50.348620 32320 layer_factory.hpp:77] Creating layer ip3_relu3_0_split
I0426 20:52:50.348628 32320 net.cpp:86] Creating Layer ip3_relu3_0_split
I0426 20:52:50.348631 32320 net.cpp:408] ip3_relu3_0_split <- ip3
I0426 20:52:50.348637 32320 net.cpp:382] ip3_relu3_0_split -> ip3_relu3_0_split_0
I0426 20:52:50.348644 32320 net.cpp:382] ip3_relu3_0_split -> ip3_relu3_0_split_1
I0426 20:52:50.348708 32320 net.cpp:124] Setting up ip3_relu3_0_split
I0426 20:52:50.348714 32320 net.cpp:131] Top shape: 100 10 (1000)
I0426 20:52:50.348718 32320 net.cpp:131] Top shape: 100 10 (1000)
I0426 20:52:50.348721 32320 net.cpp:139] Memory required for data: 8650800
I0426 20:52:50.348724 32320 layer_factory.hpp:77] Creating layer accuracy
I0426 20:52:50.348731 32320 net.cpp:86] Creating Layer accuracy
I0426 20:52:50.348733 32320 net.cpp:408] accuracy <- ip3_relu3_0_split_0
I0426 20:52:50.348737 32320 net.cpp:408] accuracy <- label_mnist_1_split_0
I0426 20:52:50.348743 32320 net.cpp:382] accuracy -> accuracy
…
