…
I0426 20:52:19.441988 32169 net.cpp:296] The NetState phase (0) differed from the phase (1) specified by a rule in layer mnist
I0426 20:52:19.442008 32169 net.cpp:296] The NetState phase (0) differed from the phase (1) specified by a rule in layer accuracy
I0426 20:52:19.442121 32169 net.cpp:53] Initializing net from parameters: 
name: "LeNet"
state {
  phase: TRAIN
  level: 0
  stage: ""
}
layer {
  name: "mnist"
  type: "Data"
  top: "data"
  top: "label"
  include {
    phase: TRAIN
  }
  transform_param {
    scale: 0.00390625
  }
  data_param {
    source: "examples/mnist/mnist_train_lmdb"
    batch_size: 64
    backend: LMDB
  }
}
layer {
  name: "conv0"
  type: "Convolution"
  bottom: "data"
  top: "conv0"
  param {
    lr_mult: 1
  }
  param {
    lr_mult: 2
  }
  convolution_param {
    num_output: 25
    kernel_size: 5
    stride: 1
    weight_filler {
      type: "xavier"
    }
    bias_filler {
      type: "constant"
    }
  }
}
layer {
  name: "pool0"
  type: "Pooling"
  bottom: "conv0"
  top: "pool0"
  pooling_param {
    pool: MAX
    kernel_size: 2
    stride: 2
  }
}
layer {
  name: "conv1"
  type: "Convolution"
  bottom: "pool0"
  top: "conv1"
  param {
    lr_mult: 1
  }
  param {
    lr_mult: 2
  }
  convolution_param {
    num_output: 10
    kernel_size: 5
    stride: 1
    weight_filler {
      type: "xavier"
    }
    bias_filler {
      type: "constant"
    }
  }
}
layer {
  name: "pool1"
  type: "Pooling"
  bottom: "conv1"
  top: "pool1"
  pooling_param {
    pool: MAX
    kernel_size: 2
    stride: 2
  }
}
layer {
  name: "ip1"
  type: "InnerProduct"
  bottom: "pool1"
  top: "ip1"
  param {
    lr_mult: 1
  }
  param {
    lr_mult: 2
  }
  inner_product_param {
    num_output: 300
    weight_filler {
      type: "xavier"
    }
    bias_filler {
      type: "constant"
    }
  }
}
layer {
  name: "relu1"
  type: "ReLU"
  bottom: "ip1"
  top: "ip1"
}
layer {
  name: "ip2"
  type: "InnerProduct"
  bottom: "ip1"
  top: "ip2"
  param {
    lr_mult: 1
  }
  param {
    lr_mult: 2
  }
  inner_product_param {
    num_output: 100
    weight_filler {
      type: "xavier"
    }
    bias_filler {
      type: "constant"
    }
  }
}
layer {
  name: "relu2"
  type: "ReLU"
  bottom: "ip2"
  top: "ip2"
}
layer {
  name: "ip3"
  type: "InnerProduct"
  bottom: "ip2"
  top: "ip3"
  param {
    lr_mult: 1
  }
  param {
    lr_mult: 2
  }
  inner_product_param {
    num_output: 10
    weight_filler {
      type: "xavier"
    }
    bias_filler {
      type: "constant"
    }
  }
}
layer {
  name: "relu3"
  type: "ReLU"
  bottom: "ip3"
  top: "ip3"
}
layer {
  name: "loss"
  type: "SoftmaxWithLoss"
  bottom: "ip3"
  bottom: "label"
  top: "loss"
}
I0426 20:52:19.442204 32169 layer_factory.hpp:77] Creating layer mnist
I0426 20:52:19.442308 32169 db_lmdb.cpp:35] Opened lmdb examples/mnist/mnist_train_lmdb
I0426 20:52:19.442333 32169 net.cpp:86] Creating Layer mnist
I0426 20:52:19.442342 32169 net.cpp:382] mnist -> data
I0426 20:52:19.442365 32169 net.cpp:382] mnist -> label
I0426 20:52:19.443475 32169 data_layer.cpp:45] output data size: 64,1,28,28
I0426 20:52:19.446038 32169 net.cpp:124] Setting up mnist
I0426 20:52:19.446056 32169 net.cpp:131] Top shape: 64 1 28 28 (50176)
I0426 20:52:19.446064 32169 net.cpp:131] Top shape: 64 (64)
I0426 20:52:19.446068 32169 net.cpp:139] Memory required for data: 200960
I0426 20:52:19.446074 32169 layer_factory.hpp:77] Creating layer conv0
I0426 20:52:19.446090 32169 net.cpp:86] Creating Layer conv0
I0426 20:52:19.446110 32169 net.cpp:408] conv0 <- data
I0426 20:52:19.446125 32169 net.cpp:382] conv0 -> conv0
I0426 20:52:19.728953 32169 net.cpp:124] Setting up conv0
I0426 20:52:19.728981 32169 net.cpp:131] Top shape: 64 25 24 24 (921600)
I0426 20:52:19.728984 32169 net.cpp:139] Memory required for data: 3887360
I0426 20:52:19.728999 32169 layer_factory.hpp:77] Creating layer pool0
I0426 20:52:19.729012 32169 net.cpp:86] Creating Layer pool0
I0426 20:52:19.729017 32169 net.cpp:408] pool0 <- conv0
I0426 20:52:19.729022 32169 net.cpp:382] pool0 -> pool0
I0426 20:52:19.729082 32169 net.cpp:124] Setting up pool0
I0426 20:52:19.729089 32169 net.cpp:131] Top shape: 64 25 12 12 (230400)
I0426 20:52:19.729091 32169 net.cpp:139] Memory required for data: 4808960
I0426 20:52:19.729094 32169 layer_factory.hpp:77] Creating layer conv1
I0426 20:52:19.729105 32169 net.cpp:86] Creating Layer conv1
I0426 20:52:19.729109 32169 net.cpp:408] conv1 <- pool0
I0426 20:52:19.729113 32169 net.cpp:382] conv1 -> conv1
I0426 20:52:19.731961 32169 net.cpp:124] Setting up conv1
I0426 20:52:19.731976 32169 net.cpp:131] Top shape: 64 10 8 8 (40960)
I0426 20:52:19.731981 32169 net.cpp:139] Memory required for data: 4972800
I0426 20:52:19.731988 32169 layer_factory.hpp:77] Creating layer pool1
I0426 20:52:19.731995 32169 net.cpp:86] Creating Layer pool1
I0426 20:52:19.731999 32169 net.cpp:408] pool1 <- conv1
I0426 20:52:19.732003 32169 net.cpp:382] pool1 -> pool1
I0426 20:52:19.732041 32169 net.cpp:124] Setting up pool1
I0426 20:52:19.732048 32169 net.cpp:131] Top shape: 64 10 4 4 (10240)
I0426 20:52:19.732050 32169 net.cpp:139] Memory required for data: 5013760
I0426 20:52:19.732053 32169 layer_factory.hpp:77] Creating layer ip1
I0426 20:52:19.732059 32169 net.cpp:86] Creating Layer ip1
I0426 20:52:19.732062 32169 net.cpp:408] ip1 <- pool1
I0426 20:52:19.732067 32169 net.cpp:382] ip1 -> ip1
I0426 20:52:19.732471 32169 net.cpp:124] Setting up ip1
I0426 20:52:19.732480 32169 net.cpp:131] Top shape: 64 300 (19200)
I0426 20:52:19.732482 32169 net.cpp:139] Memory required for data: 5090560
I0426 20:52:19.732488 32169 layer_factory.hpp:77] Creating layer relu1
I0426 20:52:19.732493 32169 net.cpp:86] Creating Layer relu1
I0426 20:52:19.732497 32169 net.cpp:408] relu1 <- ip1
I0426 20:52:19.732501 32169 net.cpp:369] relu1 -> ip1 (in-place)
I0426 20:52:19.732712 32169 net.cpp:124] Setting up relu1
I0426 20:52:19.732722 32169 net.cpp:131] Top shape: 64 300 (19200)
I0426 20:52:19.732724 32169 net.cpp:139] Memory required for data: 5167360
I0426 20:52:19.732728 32169 layer_factory.hpp:77] Creating layer ip2
I0426 20:52:19.732734 32169 net.cpp:86] Creating Layer ip2
I0426 20:52:19.732738 32169 net.cpp:408] ip2 <- ip1
I0426 20:52:19.732743 32169 net.cpp:382] ip2 -> ip2
I0426 20:52:19.733067 32169 net.cpp:124] Setting up ip2
I0426 20:52:19.733075 32169 net.cpp:131] Top shape: 64 100 (6400)
I0426 20:52:19.733094 32169 net.cpp:139] Memory required for data: 5192960
I0426 20:52:19.733101 32169 layer_factory.hpp:77] Creating layer relu2
I0426 20:52:19.733108 32169 net.cpp:86] Creating Layer relu2
I0426 20:52:19.733111 32169 net.cpp:408] relu2 <- ip2
I0426 20:52:19.733115 32169 net.cpp:369] relu2 -> ip2 (in-place)
I0426 20:52:19.733942 32169 net.cpp:124] Setting up relu2
I0426 20:52:19.733954 32169 net.cpp:131] Top shape: 64 100 (6400)
I0426 20:52:19.733958 32169 net.cpp:139] Memory required for data: 5218560
I0426 20:52:19.733961 32169 layer_factory.hpp:77] Creating layer ip3
I0426 20:52:19.733968 32169 net.cpp:86] Creating Layer ip3
I0426 20:52:19.733971 32169 net.cpp:408] ip3 <- ip2
I0426 20:52:19.733976 32169 net.cpp:382] ip3 -> ip3
I0426 20:52:19.734097 32169 net.cpp:124] Setting up ip3
I0426 20:52:19.734105 32169 net.cpp:131] Top shape: 64 10 (640)
I0426 20:52:19.734108 32169 net.cpp:139] Memory required for data: 5221120
I0426 20:52:19.734117 32169 layer_factory.hpp:77] Creating layer relu3
I0426 20:52:19.734122 32169 net.cpp:86] Creating Layer relu3
I0426 20:52:19.734124 32169 net.cpp:408] relu3 <- ip3
I0426 20:52:19.734128 32169 net.cpp:369] relu3 -> ip3 (in-place)
I0426 20:52:19.734298 32169 net.cpp:124] Setting up relu3
I0426 20:52:19.734308 32169 net.cpp:131] Top shape: 64 10 (640)
I0426 20:52:19.734311 32169 net.cpp:139] Memory required for data: 5223680
I0426 20:52:19.734314 32169 layer_factory.hpp:77] Creating layer loss
I0426 20:52:19.734320 32169 net.cpp:86] Creating Layer loss
I0426 20:52:19.734323 32169 net.cpp:408] loss <- ip3
I0426 20:52:19.734328 32169 net.cpp:408] loss <- label
I0426 20:52:19.734333 32169 net.cpp:382] loss -> loss
I0426 20:52:19.734351 32169 layer_factory.hpp:77] Creating layer loss
…
I0426 20:52:19.735007 32169 solver.cpp:173] Creating test net (#0) specified by net file: ECE595/mnist/train_test/var_everything/lenet_train_test109.prototxt
I0426 20:52:19.735049 32169 net.cpp:296] The NetState phase (1) differed from the phase (0) specified by a rule in layer mnist
I0426 20:52:19.735138 32169 net.cpp:53] Initializing net from parameters: 
name: "LeNet"
state {
  phase: TEST
}
layer {
  name: "mnist"
  type: "Data"
  top: "data"
  top: "label"
  include {
    phase: TEST
  }
  transform_param {
    scale: 0.00390625
  }
  data_param {
    source: "examples/mnist/mnist_test_lmdb"
    batch_size: 100
    backend: LMDB
  }
}
layer {
  name: "conv0"
  type: "Convolution"
  bottom: "data"
  top: "conv0"
  param {
    lr_mult: 1
  }
  param {
    lr_mult: 2
  }
  convolution_param {
    num_output: 25
    kernel_size: 5
    stride: 1
    weight_filler {
      type: "xavier"
    }
    bias_filler {
      type: "constant"
    }
  }
}
layer {
  name: "pool0"
  type: "Pooling"
  bottom: "conv0"
  top: "pool0"
  pooling_param {
    pool: MAX
    kernel_size: 2
    stride: 2
  }
}
layer {
  name: "conv1"
  type: "Convolution"
  bottom: "pool0"
  top: "conv1"
  param {
    lr_mult: 1
  }
  param {
    lr_mult: 2
  }
  convolution_param {
    num_output: 10
    kernel_size: 5
    stride: 1
    weight_filler {
      type: "xavier"
    }
    bias_filler {
      type: "constant"
    }
  }
}
layer {
  name: "pool1"
  type: "Pooling"
  bottom: "conv1"
  top: "pool1"
  pooling_param {
    pool: MAX
    kernel_size: 2
    stride: 2
  }
}
layer {
  name: "ip1"
  type: "InnerProduct"
  bottom: "pool1"
  top: "ip1"
  param {
    lr_mult: 1
  }
  param {
    lr_mult: 2
  }
  inner_product_param {
    num_output: 300
    weight_filler {
      type: "xavier"
    }
    bias_filler {
      type: "constant"
    }
  }
}
layer {
  name: "relu1"
  type: "ReLU"
  bottom: "ip1"
  top: "ip1"
}
layer {
  name: "ip2"
  type: "InnerProduct"
  bottom: "ip1"
  top: "ip2"
  param {
    lr_mult: 1
  }
  param {
    lr_mult: 2
  }
  inner_product_param {
    num_output: 100
    weight_filler {
      type: "xavier"
    }
    bias_filler {
      type: "constant"
    }
  }
}
layer {
  name: "relu2"
  type: "ReLU"
  bottom: "ip2"
  top: "ip2"
}
layer {
  name: "ip3"
  type: "InnerProduct"
  bottom: "ip2"
  top: "ip3"
  param {
    lr_mult: 1
  }
  param {
    lr_mult: 2
  }
  inner_product_param {
    num_output: 10
    weight_filler {
      type: "xavier"
    }
    bias_filler {
      type: "constant"
    }
  }
}
layer {
  name: "relu3"
  type: "ReLU"
  bottom: "ip3"
  top: "ip3"
}
layer {
  name: "accuracy"
  type: "Accuracy"
  bottom: "ip3"
  bottom: "label"
  top: "accuracy"
  include {
    phase: TEST
  }
}
layer {
  name: "loss"
  type: "SoftmaxWithLoss"
  bottom: "ip3"
  bottom: "label"
  top: "loss"
}
I0426 20:52:19.735218 32169 layer_factory.hpp:77] Creating layer mnist
I0426 20:52:19.735265 32169 db_lmdb.cpp:35] Opened lmdb examples/mnist/mnist_test_lmdb
I0426 20:52:19.735276 32169 net.cpp:86] Creating Layer mnist
I0426 20:52:19.735281 32169 net.cpp:382] mnist -> data
I0426 20:52:19.735290 32169 net.cpp:382] mnist -> label
I0426 20:52:19.735375 32169 data_layer.cpp:45] output data size: 100,1,28,28
I0426 20:52:19.737403 32169 net.cpp:124] Setting up mnist
I0426 20:52:19.737416 32169 net.cpp:131] Top shape: 100 1 28 28 (78400)
I0426 20:52:19.737422 32169 net.cpp:131] Top shape: 100 (100)
I0426 20:52:19.737426 32169 net.cpp:139] Memory required for data: 314000
I0426 20:52:19.737428 32169 layer_factory.hpp:77] Creating layer label_mnist_1_split
I0426 20:52:19.737435 32169 net.cpp:86] Creating Layer label_mnist_1_split
I0426 20:52:19.737439 32169 net.cpp:408] label_mnist_1_split <- label
I0426 20:52:19.737443 32169 net.cpp:382] label_mnist_1_split -> label_mnist_1_split_0
I0426 20:52:19.737450 32169 net.cpp:382] label_mnist_1_split -> label_mnist_1_split_1
I0426 20:52:19.737486 32169 net.cpp:124] Setting up label_mnist_1_split
I0426 20:52:19.737507 32169 net.cpp:131] Top shape: 100 (100)
I0426 20:52:19.737511 32169 net.cpp:131] Top shape: 100 (100)
I0426 20:52:19.737514 32169 net.cpp:139] Memory required for data: 314800
I0426 20:52:19.737516 32169 layer_factory.hpp:77] Creating layer conv0
I0426 20:52:19.737524 32169 net.cpp:86] Creating Layer conv0
I0426 20:52:19.737529 32169 net.cpp:408] conv0 <- data
I0426 20:52:19.737534 32169 net.cpp:382] conv0 -> conv0
I0426 20:52:19.739298 32169 net.cpp:124] Setting up conv0
I0426 20:52:19.739312 32169 net.cpp:131] Top shape: 100 25 24 24 (1440000)
I0426 20:52:19.739316 32169 net.cpp:139] Memory required for data: 6074800
I0426 20:52:19.739326 32169 layer_factory.hpp:77] Creating layer pool0
I0426 20:52:19.739331 32169 net.cpp:86] Creating Layer pool0
I0426 20:52:19.739336 32169 net.cpp:408] pool0 <- conv0
I0426 20:52:19.739339 32169 net.cpp:382] pool0 -> pool0
I0426 20:52:19.739377 32169 net.cpp:124] Setting up pool0
I0426 20:52:19.739398 32169 net.cpp:131] Top shape: 100 25 12 12 (360000)
I0426 20:52:19.739400 32169 net.cpp:139] Memory required for data: 7514800
I0426 20:52:19.739403 32169 layer_factory.hpp:77] Creating layer conv1
I0426 20:52:19.739413 32169 net.cpp:86] Creating Layer conv1
I0426 20:52:19.739415 32169 net.cpp:408] conv1 <- pool0
I0426 20:52:19.739420 32169 net.cpp:382] conv1 -> conv1
I0426 20:52:19.741729 32169 net.cpp:124] Setting up conv1
I0426 20:52:19.741744 32169 net.cpp:131] Top shape: 100 10 8 8 (64000)
I0426 20:52:19.741747 32169 net.cpp:139] Memory required for data: 7770800
I0426 20:52:19.741755 32169 layer_factory.hpp:77] Creating layer pool1
I0426 20:52:19.741762 32169 net.cpp:86] Creating Layer pool1
I0426 20:52:19.741766 32169 net.cpp:408] pool1 <- conv1
I0426 20:52:19.741771 32169 net.cpp:382] pool1 -> pool1
I0426 20:52:19.741825 32169 net.cpp:124] Setting up pool1
I0426 20:52:19.741832 32169 net.cpp:131] Top shape: 100 10 4 4 (16000)
I0426 20:52:19.741834 32169 net.cpp:139] Memory required for data: 7834800
I0426 20:52:19.741838 32169 layer_factory.hpp:77] Creating layer ip1
I0426 20:52:19.741853 32169 net.cpp:86] Creating Layer ip1
I0426 20:52:19.741856 32169 net.cpp:408] ip1 <- pool1
I0426 20:52:19.741860 32169 net.cpp:382] ip1 -> ip1
I0426 20:52:19.742321 32169 net.cpp:124] Setting up ip1
I0426 20:52:19.742331 32169 net.cpp:131] Top shape: 100 300 (30000)
I0426 20:52:19.742350 32169 net.cpp:139] Memory required for data: 7954800
I0426 20:52:19.742373 32169 layer_factory.hpp:77] Creating layer relu1
I0426 20:52:19.742380 32169 net.cpp:86] Creating Layer relu1
I0426 20:52:19.742383 32169 net.cpp:408] relu1 <- ip1
I0426 20:52:19.742403 32169 net.cpp:369] relu1 -> ip1 (in-place)
I0426 20:52:19.742573 32169 net.cpp:124] Setting up relu1
I0426 20:52:19.742583 32169 net.cpp:131] Top shape: 100 300 (30000)
I0426 20:52:19.742586 32169 net.cpp:139] Memory required for data: 8074800
I0426 20:52:19.742589 32169 layer_factory.hpp:77] Creating layer ip2
I0426 20:52:19.742597 32169 net.cpp:86] Creating Layer ip2
I0426 20:52:19.742601 32169 net.cpp:408] ip2 <- ip1
I0426 20:52:19.742606 32169 net.cpp:382] ip2 -> ip2
I0426 20:52:19.742873 32169 net.cpp:124] Setting up ip2
I0426 20:52:19.742882 32169 net.cpp:131] Top shape: 100 100 (10000)
I0426 20:52:19.742884 32169 net.cpp:139] Memory required for data: 8114800
I0426 20:52:19.742889 32169 layer_factory.hpp:77] Creating layer relu2
I0426 20:52:19.742894 32169 net.cpp:86] Creating Layer relu2
I0426 20:52:19.742897 32169 net.cpp:408] relu2 <- ip2
I0426 20:52:19.742900 32169 net.cpp:369] relu2 -> ip2 (in-place)
I0426 20:52:19.743150 32169 net.cpp:124] Setting up relu2
I0426 20:52:19.743161 32169 net.cpp:131] Top shape: 100 100 (10000)
I0426 20:52:19.743170 32169 net.cpp:139] Memory required for data: 8154800
I0426 20:52:19.743173 32169 layer_factory.hpp:77] Creating layer ip3
I0426 20:52:19.743178 32169 net.cpp:86] Creating Layer ip3
I0426 20:52:19.743187 32169 net.cpp:408] ip3 <- ip2
I0426 20:52:19.743193 32169 net.cpp:382] ip3 -> ip3
I0426 20:52:19.743309 32169 net.cpp:124] Setting up ip3
I0426 20:52:19.743316 32169 net.cpp:131] Top shape: 100 10 (1000)
I0426 20:52:19.743319 32169 net.cpp:139] Memory required for data: 8158800
I0426 20:52:19.743327 32169 layer_factory.hpp:77] Creating layer relu3
I0426 20:52:19.743332 32169 net.cpp:86] Creating Layer relu3
I0426 20:52:19.743336 32169 net.cpp:408] relu3 <- ip3
I0426 20:52:19.743340 32169 net.cpp:369] relu3 -> ip3 (in-place)
I0426 20:52:19.744197 32169 net.cpp:124] Setting up relu3
I0426 20:52:19.744210 32169 net.cpp:131] Top shape: 100 10 (1000)
I0426 20:52:19.744213 32169 net.cpp:139] Memory required for data: 8162800
I0426 20:52:19.744216 32169 layer_factory.hpp:77] Creating layer ip3_relu3_0_split
I0426 20:52:19.744221 32169 net.cpp:86] Creating Layer ip3_relu3_0_split
I0426 20:52:19.744225 32169 net.cpp:408] ip3_relu3_0_split <- ip3
I0426 20:52:19.744230 32169 net.cpp:382] ip3_relu3_0_split -> ip3_relu3_0_split_0
I0426 20:52:19.744236 32169 net.cpp:382] ip3_relu3_0_split -> ip3_relu3_0_split_1
I0426 20:52:19.744295 32169 net.cpp:124] Setting up ip3_relu3_0_split
I0426 20:52:19.744302 32169 net.cpp:131] Top shape: 100 10 (1000)
I0426 20:52:19.744305 32169 net.cpp:131] Top shape: 100 10 (1000)
I0426 20:52:19.744307 32169 net.cpp:139] Memory required for data: 8170800
I0426 20:52:19.744310 32169 layer_factory.hpp:77] Creating layer accuracy
I0426 20:52:19.744316 32169 net.cpp:86] Creating Layer accuracy
I0426 20:52:19.744319 32169 net.cpp:408] accuracy <- ip3_relu3_0_split_0
I0426 20:52:19.744324 32169 net.cpp:408] accuracy <- label_mnist_1_split_0
I0426 20:52:19.744328 32169 net.cpp:382] accuracy -> accuracy
…
