…
I0426 20:53:02.369951 32362 net.cpp:296] The NetState phase (0) differed from the phase (1) specified by a rule in layer mnist
I0426 20:53:02.369979 32362 net.cpp:296] The NetState phase (0) differed from the phase (1) specified by a rule in layer accuracy
I0426 20:53:02.370087 32362 net.cpp:53] Initializing net from parameters: 
name: "LeNet"
state {
  phase: TRAIN
  level: 0
  stage: ""
}
layer {
  name: "mnist"
  type: "Data"
  top: "data"
  top: "label"
  include {
    phase: TRAIN
  }
  transform_param {
    scale: 0.00390625
  }
  data_param {
    source: "examples/mnist/mnist_train_lmdb"
    batch_size: 64
    backend: LMDB
  }
}
layer {
  name: "conv0"
  type: "Convolution"
  bottom: "data"
  top: "conv0"
  param {
    lr_mult: 1
  }
  param {
    lr_mult: 2
  }
  convolution_param {
    num_output: 25
    kernel_size: 5
    stride: 1
    weight_filler {
      type: "xavier"
    }
    bias_filler {
      type: "constant"
    }
  }
}
layer {
  name: "pool0"
  type: "Pooling"
  bottom: "conv0"
  top: "pool0"
  pooling_param {
    pool: MAX
    kernel_size: 2
    stride: 2
  }
}
layer {
  name: "conv1"
  type: "Convolution"
  bottom: "pool0"
  top: "conv1"
  param {
    lr_mult: 1
  }
  param {
    lr_mult: 2
  }
  convolution_param {
    num_output: 50
    kernel_size: 5
    stride: 1
    weight_filler {
      type: "xavier"
    }
    bias_filler {
      type: "constant"
    }
  }
}
layer {
  name: "pool1"
  type: "Pooling"
  bottom: "conv1"
  top: "pool1"
  pooling_param {
    pool: MAX
    kernel_size: 2
    stride: 2
  }
}
layer {
  name: "ip1"
  type: "InnerProduct"
  bottom: "pool1"
  top: "ip1"
  param {
    lr_mult: 1
  }
  param {
    lr_mult: 2
  }
  inner_product_param {
    num_output: 10
    weight_filler {
      type: "xavier"
    }
    bias_filler {
      type: "constant"
    }
  }
}
layer {
  name: "relu1"
  type: "ReLU"
  bottom: "ip1"
  top: "ip1"
}
layer {
  name: "loss"
  type: "SoftmaxWithLoss"
  bottom: "ip1"
  bottom: "label"
  top: "loss"
}
I0426 20:53:02.370137 32362 layer_factory.hpp:77] Creating layer mnist
I0426 20:53:02.370236 32362 db_lmdb.cpp:35] Opened lmdb examples/mnist/mnist_train_lmdb
I0426 20:53:02.370256 32362 net.cpp:86] Creating Layer mnist
I0426 20:53:02.370262 32362 net.cpp:382] mnist -> data
I0426 20:53:02.370281 32362 net.cpp:382] mnist -> label
I0426 20:53:02.371240 32362 data_layer.cpp:45] output data size: 64,1,28,28
I0426 20:53:02.373514 32362 net.cpp:124] Setting up mnist
I0426 20:53:02.373545 32362 net.cpp:131] Top shape: 64 1 28 28 (50176)
I0426 20:53:02.373551 32362 net.cpp:131] Top shape: 64 (64)
I0426 20:53:02.373554 32362 net.cpp:139] Memory required for data: 200960
I0426 20:53:02.373560 32362 layer_factory.hpp:77] Creating layer conv0
I0426 20:53:02.373589 32362 net.cpp:86] Creating Layer conv0
I0426 20:53:02.373594 32362 net.cpp:408] conv0 <- data
I0426 20:53:02.373603 32362 net.cpp:382] conv0 -> conv0
I0426 20:53:02.599063 32362 net.cpp:124] Setting up conv0
I0426 20:53:02.599088 32362 net.cpp:131] Top shape: 64 25 24 24 (921600)
I0426 20:53:02.599092 32362 net.cpp:139] Memory required for data: 3887360
I0426 20:53:02.599107 32362 layer_factory.hpp:77] Creating layer pool0
I0426 20:53:02.599118 32362 net.cpp:86] Creating Layer pool0
I0426 20:53:02.599123 32362 net.cpp:408] pool0 <- conv0
I0426 20:53:02.599128 32362 net.cpp:382] pool0 -> pool0
I0426 20:53:02.599185 32362 net.cpp:124] Setting up pool0
I0426 20:53:02.599191 32362 net.cpp:131] Top shape: 64 25 12 12 (230400)
I0426 20:53:02.599210 32362 net.cpp:139] Memory required for data: 4808960
I0426 20:53:02.599212 32362 layer_factory.hpp:77] Creating layer conv1
I0426 20:53:02.599223 32362 net.cpp:86] Creating Layer conv1
I0426 20:53:02.599226 32362 net.cpp:408] conv1 <- pool0
I0426 20:53:02.599231 32362 net.cpp:382] conv1 -> conv1
I0426 20:53:02.601297 32362 net.cpp:124] Setting up conv1
I0426 20:53:02.601310 32362 net.cpp:131] Top shape: 64 50 8 8 (204800)
I0426 20:53:02.601315 32362 net.cpp:139] Memory required for data: 5628160
I0426 20:53:02.601322 32362 layer_factory.hpp:77] Creating layer pool1
I0426 20:53:02.601328 32362 net.cpp:86] Creating Layer pool1
I0426 20:53:02.601332 32362 net.cpp:408] pool1 <- conv1
I0426 20:53:02.601336 32362 net.cpp:382] pool1 -> pool1
I0426 20:53:02.601384 32362 net.cpp:124] Setting up pool1
I0426 20:53:02.601390 32362 net.cpp:131] Top shape: 64 50 4 4 (51200)
I0426 20:53:02.601392 32362 net.cpp:139] Memory required for data: 5832960
I0426 20:53:02.601395 32362 layer_factory.hpp:77] Creating layer ip1
I0426 20:53:02.601402 32362 net.cpp:86] Creating Layer ip1
I0426 20:53:02.601405 32362 net.cpp:408] ip1 <- pool1
I0426 20:53:02.601410 32362 net.cpp:382] ip1 -> ip1
I0426 20:53:02.602428 32362 net.cpp:124] Setting up ip1
I0426 20:53:02.602439 32362 net.cpp:131] Top shape: 64 10 (640)
I0426 20:53:02.602443 32362 net.cpp:139] Memory required for data: 5835520
I0426 20:53:02.602450 32362 layer_factory.hpp:77] Creating layer relu1
I0426 20:53:02.602457 32362 net.cpp:86] Creating Layer relu1
I0426 20:53:02.602459 32362 net.cpp:408] relu1 <- ip1
I0426 20:53:02.602463 32362 net.cpp:369] relu1 -> ip1 (in-place)
I0426 20:53:02.602651 32362 net.cpp:124] Setting up relu1
I0426 20:53:02.602676 32362 net.cpp:131] Top shape: 64 10 (640)
I0426 20:53:02.602679 32362 net.cpp:139] Memory required for data: 5838080
I0426 20:53:02.602684 32362 layer_factory.hpp:77] Creating layer loss
I0426 20:53:02.602690 32362 net.cpp:86] Creating Layer loss
I0426 20:53:02.602710 32362 net.cpp:408] loss <- ip1
I0426 20:53:02.602713 32362 net.cpp:408] loss <- label
I0426 20:53:02.602728 32362 net.cpp:382] loss -> loss
I0426 20:53:02.602742 32362 layer_factory.hpp:77] Creating layer loss
…
I0426 20:53:02.604044 32362 solver.cpp:173] Creating test net (#0) specified by net file: ECE595/mnist/train_test/var_everything/lenet_train_test127.prototxt
I0426 20:53:02.604068 32362 net.cpp:296] The NetState phase (1) differed from the phase (0) specified by a rule in layer mnist
I0426 20:53:02.604138 32362 net.cpp:53] Initializing net from parameters: 
name: "LeNet"
state {
  phase: TEST
}
layer {
  name: "mnist"
  type: "Data"
  top: "data"
  top: "label"
  include {
    phase: TEST
  }
  transform_param {
    scale: 0.00390625
  }
  data_param {
    source: "examples/mnist/mnist_test_lmdb"
    batch_size: 100
    backend: LMDB
  }
}
layer {
  name: "conv0"
  type: "Convolution"
  bottom: "data"
  top: "conv0"
  param {
    lr_mult: 1
  }
  param {
    lr_mult: 2
  }
  convolution_param {
    num_output: 25
    kernel_size: 5
    stride: 1
    weight_filler {
      type: "xavier"
    }
    bias_filler {
      type: "constant"
    }
  }
}
layer {
  name: "pool0"
  type: "Pooling"
  bottom: "conv0"
  top: "pool0"
  pooling_param {
    pool: MAX
    kernel_size: 2
    stride: 2
  }
}
layer {
  name: "conv1"
  type: "Convolution"
  bottom: "pool0"
  top: "conv1"
  param {
    lr_mult: 1
  }
  param {
    lr_mult: 2
  }
  convolution_param {
    num_output: 50
    kernel_size: 5
    stride: 1
    weight_filler {
      type: "xavier"
    }
    bias_filler {
      type: "constant"
    }
  }
}
layer {
  name: "pool1"
  type: "Pooling"
  bottom: "conv1"
  top: "pool1"
  pooling_param {
    pool: MAX
    kernel_size: 2
    stride: 2
  }
}
layer {
  name: "ip1"
  type: "InnerProduct"
  bottom: "pool1"
  top: "ip1"
  param {
    lr_mult: 1
  }
  param {
    lr_mult: 2
  }
  inner_product_param {
    num_output: 10
    weight_filler {
      type: "xavier"
    }
    bias_filler {
      type: "constant"
    }
  }
}
layer {
  name: "relu1"
  type: "ReLU"
  bottom: "ip1"
  top: "ip1"
}
layer {
  name: "accuracy"
  type: "Accuracy"
  bottom: "ip1"
  bottom: "label"
  top: "accuracy"
  include {
    phase: TEST
  }
}
layer {
  name: "loss"
  type: "SoftmaxWithLoss"
  bottom: "ip1"
  bottom: "label"
  top: "loss"
}
I0426 20:53:02.604204 32362 layer_factory.hpp:77] Creating layer mnist
I0426 20:53:02.604245 32362 db_lmdb.cpp:35] Opened lmdb examples/mnist/mnist_test_lmdb
I0426 20:53:02.604257 32362 net.cpp:86] Creating Layer mnist
I0426 20:53:02.604261 32362 net.cpp:382] mnist -> data
I0426 20:53:02.604269 32362 net.cpp:382] mnist -> label
I0426 20:53:02.604367 32362 data_layer.cpp:45] output data size: 100,1,28,28
I0426 20:53:02.606336 32362 net.cpp:124] Setting up mnist
I0426 20:53:02.606366 32362 net.cpp:131] Top shape: 100 1 28 28 (78400)
I0426 20:53:02.606371 32362 net.cpp:131] Top shape: 100 (100)
I0426 20:53:02.606375 32362 net.cpp:139] Memory required for data: 314000
I0426 20:53:02.606379 32362 layer_factory.hpp:77] Creating layer label_mnist_1_split
I0426 20:53:02.606385 32362 net.cpp:86] Creating Layer label_mnist_1_split
I0426 20:53:02.606389 32362 net.cpp:408] label_mnist_1_split <- label
I0426 20:53:02.606408 32362 net.cpp:382] label_mnist_1_split -> label_mnist_1_split_0
I0426 20:53:02.606415 32362 net.cpp:382] label_mnist_1_split -> label_mnist_1_split_1
I0426 20:53:02.606499 32362 net.cpp:124] Setting up label_mnist_1_split
I0426 20:53:02.606508 32362 net.cpp:131] Top shape: 100 (100)
I0426 20:53:02.606510 32362 net.cpp:131] Top shape: 100 (100)
I0426 20:53:02.606513 32362 net.cpp:139] Memory required for data: 314800
I0426 20:53:02.606518 32362 layer_factory.hpp:77] Creating layer conv0
I0426 20:53:02.606525 32362 net.cpp:86] Creating Layer conv0
I0426 20:53:02.606528 32362 net.cpp:408] conv0 <- data
I0426 20:53:02.606534 32362 net.cpp:382] conv0 -> conv0
I0426 20:53:02.607187 32362 net.cpp:124] Setting up conv0
I0426 20:53:02.607198 32362 net.cpp:131] Top shape: 100 25 24 24 (1440000)
I0426 20:53:02.607201 32362 net.cpp:139] Memory required for data: 6074800
I0426 20:53:02.607210 32362 layer_factory.hpp:77] Creating layer pool0
I0426 20:53:02.607215 32362 net.cpp:86] Creating Layer pool0
I0426 20:53:02.607219 32362 net.cpp:408] pool0 <- conv0
I0426 20:53:02.607223 32362 net.cpp:382] pool0 -> pool0
I0426 20:53:02.607256 32362 net.cpp:124] Setting up pool0
I0426 20:53:02.607262 32362 net.cpp:131] Top shape: 100 25 12 12 (360000)
I0426 20:53:02.607265 32362 net.cpp:139] Memory required for data: 7514800
I0426 20:53:02.607269 32362 layer_factory.hpp:77] Creating layer conv1
I0426 20:53:02.607276 32362 net.cpp:86] Creating Layer conv1
I0426 20:53:02.607280 32362 net.cpp:408] conv1 <- pool0
I0426 20:53:02.607285 32362 net.cpp:382] conv1 -> conv1
I0426 20:53:02.608786 32362 net.cpp:124] Setting up conv1
I0426 20:53:02.608800 32362 net.cpp:131] Top shape: 100 50 8 8 (320000)
I0426 20:53:02.608826 32362 net.cpp:139] Memory required for data: 8794800
I0426 20:53:02.608850 32362 layer_factory.hpp:77] Creating layer pool1
I0426 20:53:02.608873 32362 net.cpp:86] Creating Layer pool1
I0426 20:53:02.608887 32362 net.cpp:408] pool1 <- conv1
I0426 20:53:02.608896 32362 net.cpp:382] pool1 -> pool1
I0426 20:53:02.608930 32362 net.cpp:124] Setting up pool1
I0426 20:53:02.608942 32362 net.cpp:131] Top shape: 100 50 4 4 (80000)
I0426 20:53:02.608945 32362 net.cpp:139] Memory required for data: 9114800
I0426 20:53:02.608948 32362 layer_factory.hpp:77] Creating layer ip1
I0426 20:53:02.608954 32362 net.cpp:86] Creating Layer ip1
I0426 20:53:02.608958 32362 net.cpp:408] ip1 <- pool1
I0426 20:53:02.608963 32362 net.cpp:382] ip1 -> ip1
I0426 20:53:02.609096 32362 net.cpp:124] Setting up ip1
I0426 20:53:02.609102 32362 net.cpp:131] Top shape: 100 10 (1000)
I0426 20:53:02.609107 32362 net.cpp:139] Memory required for data: 9118800
I0426 20:53:02.609113 32362 layer_factory.hpp:77] Creating layer relu1
I0426 20:53:02.609118 32362 net.cpp:86] Creating Layer relu1
I0426 20:53:02.609129 32362 net.cpp:408] relu1 <- ip1
I0426 20:53:02.609134 32362 net.cpp:369] relu1 -> ip1 (in-place)
I0426 20:53:02.609953 32362 net.cpp:124] Setting up relu1
I0426 20:53:02.609964 32362 net.cpp:131] Top shape: 100 10 (1000)
I0426 20:53:02.609984 32362 net.cpp:139] Memory required for data: 9122800
I0426 20:53:02.609987 32362 layer_factory.hpp:77] Creating layer ip1_relu1_0_split
I0426 20:53:02.609994 32362 net.cpp:86] Creating Layer ip1_relu1_0_split
I0426 20:53:02.609997 32362 net.cpp:408] ip1_relu1_0_split <- ip1
I0426 20:53:02.610018 32362 net.cpp:382] ip1_relu1_0_split -> ip1_relu1_0_split_0
I0426 20:53:02.610024 32362 net.cpp:382] ip1_relu1_0_split -> ip1_relu1_0_split_1
I0426 20:53:02.610062 32362 net.cpp:124] Setting up ip1_relu1_0_split
I0426 20:53:02.610069 32362 net.cpp:131] Top shape: 100 10 (1000)
I0426 20:53:02.610072 32362 net.cpp:131] Top shape: 100 10 (1000)
I0426 20:53:02.610075 32362 net.cpp:139] Memory required for data: 9130800
I0426 20:53:02.610079 32362 layer_factory.hpp:77] Creating layer accuracy
I0426 20:53:02.610083 32362 net.cpp:86] Creating Layer accuracy
I0426 20:53:02.610086 32362 net.cpp:408] accuracy <- ip1_relu1_0_split_0
I0426 20:53:02.610090 32362 net.cpp:408] accuracy <- label_mnist_1_split_0
I0426 20:53:02.610095 32362 net.cpp:382] accuracy -> accuracy
…
