…
I0426 20:50:30.938989 31772 net.cpp:296] The NetState phase (0) differed from the phase (1) specified by a rule in layer mnist
I0426 20:50:30.939009 31772 net.cpp:296] The NetState phase (0) differed from the phase (1) specified by a rule in layer accuracy
I0426 20:50:30.939122 31772 net.cpp:53] Initializing net from parameters: 
name: "LeNet"
state {
  phase: TRAIN
  level: 0
  stage: ""
}
layer {
  name: "mnist"
  type: "Data"
  top: "data"
  top: "label"
  include {
    phase: TRAIN
  }
  transform_param {
    scale: 0.00390625
  }
  data_param {
    source: "examples/mnist/mnist_train_lmdb"
    batch_size: 64
    backend: LMDB
  }
}
layer {
  name: "conv0"
  type: "Convolution"
  bottom: "data"
  top: "conv0"
  param {
    lr_mult: 1
  }
  param {
    lr_mult: 2
  }
  convolution_param {
    num_output: 10
    kernel_size: 5
    stride: 1
    weight_filler {
      type: "xavier"
    }
    bias_filler {
      type: "constant"
    }
  }
}
layer {
  name: "pool0"
  type: "Pooling"
  bottom: "conv0"
  top: "pool0"
  pooling_param {
    pool: MAX
    kernel_size: 2
    stride: 2
  }
}
layer {
  name: "conv1"
  type: "Convolution"
  bottom: "pool0"
  top: "conv1"
  param {
    lr_mult: 1
  }
  param {
    lr_mult: 2
  }
  convolution_param {
    num_output: 10
    kernel_size: 5
    stride: 1
    weight_filler {
      type: "xavier"
    }
    bias_filler {
      type: "constant"
    }
  }
}
layer {
  name: "pool1"
  type: "Pooling"
  bottom: "conv1"
  top: "pool1"
  pooling_param {
    pool: MAX
    kernel_size: 2
    stride: 2
  }
}
layer {
  name: "ip1"
  type: "InnerProduct"
  bottom: "pool1"
  top: "ip1"
  param {
    lr_mult: 1
  }
  param {
    lr_mult: 2
  }
  inner_product_param {
    num_output: 100
    weight_filler {
      type: "xavier"
    }
    bias_filler {
      type: "constant"
    }
  }
}
layer {
  name: "relu1"
  type: "ReLU"
  bottom: "ip1"
  top: "ip1"
}
layer {
  name: "ip2"
  type: "InnerProduct"
  bottom: "ip1"
  top: "ip2"
  param {
    lr_mult: 1
  }
  param {
    lr_mult: 2
  }
  inner_product_param {
    num_output: 100
    weight_filler {
      type: "xavier"
    }
    bias_filler {
      type: "constant"
    }
  }
}
layer {
  name: "relu2"
  type: "ReLU"
  bottom: "ip2"
  top: "ip2"
}
layer {
  name: "ip3"
  type: "InnerProduct"
  bottom: "ip2"
  top: "ip3"
  param {
    lr_mult: 1
  }
  param {
    lr_mult: 2
  }
  inner_product_param {
    num_output: 10
    weight_filler {
      type: "xavier"
    }
    bias_filler {
      type: "constant"
    }
  }
}
layer {
  name: "relu3"
  type: "ReLU"
  bottom: "ip3"
  top: "ip3"
}
layer {
  name: "loss"
  type: "SoftmaxWithLoss"
  bottom: "ip3"
  bottom: "label"
  top: "loss"
}
I0426 20:50:30.939208 31772 layer_factory.hpp:77] Creating layer mnist
I0426 20:50:30.939309 31772 db_lmdb.cpp:35] Opened lmdb examples/mnist/mnist_train_lmdb
I0426 20:50:30.939333 31772 net.cpp:86] Creating Layer mnist
I0426 20:50:30.939340 31772 net.cpp:382] mnist -> data
I0426 20:50:30.939364 31772 net.cpp:382] mnist -> label
I0426 20:50:30.940452 31772 data_layer.cpp:45] output data size: 64,1,28,28
I0426 20:50:30.943006 31772 net.cpp:124] Setting up mnist
I0426 20:50:30.943023 31772 net.cpp:131] Top shape: 64 1 28 28 (50176)
I0426 20:50:30.943029 31772 net.cpp:131] Top shape: 64 (64)
I0426 20:50:30.943032 31772 net.cpp:139] Memory required for data: 200960
I0426 20:50:30.943040 31772 layer_factory.hpp:77] Creating layer conv0
I0426 20:50:30.943071 31772 net.cpp:86] Creating Layer conv0
I0426 20:50:30.943094 31772 net.cpp:408] conv0 <- data
I0426 20:50:30.943106 31772 net.cpp:382] conv0 -> conv0
I0426 20:50:31.237313 31772 net.cpp:124] Setting up conv0
I0426 20:50:31.237345 31772 net.cpp:131] Top shape: 64 10 24 24 (368640)
I0426 20:50:31.237350 31772 net.cpp:139] Memory required for data: 1675520
I0426 20:50:31.237367 31772 layer_factory.hpp:77] Creating layer pool0
I0426 20:50:31.237382 31772 net.cpp:86] Creating Layer pool0
I0426 20:50:31.237387 31772 net.cpp:408] pool0 <- conv0
I0426 20:50:31.237393 31772 net.cpp:382] pool0 -> pool0
I0426 20:50:31.237448 31772 net.cpp:124] Setting up pool0
I0426 20:50:31.237457 31772 net.cpp:131] Top shape: 64 10 12 12 (92160)
I0426 20:50:31.237462 31772 net.cpp:139] Memory required for data: 2044160
I0426 20:50:31.237464 31772 layer_factory.hpp:77] Creating layer conv1
I0426 20:50:31.237478 31772 net.cpp:86] Creating Layer conv1
I0426 20:50:31.237484 31772 net.cpp:408] conv1 <- pool0
I0426 20:50:31.237490 31772 net.cpp:382] conv1 -> conv1
I0426 20:50:31.240779 31772 net.cpp:124] Setting up conv1
I0426 20:50:31.240797 31772 net.cpp:131] Top shape: 64 10 8 8 (40960)
I0426 20:50:31.240802 31772 net.cpp:139] Memory required for data: 2208000
I0426 20:50:31.240818 31772 layer_factory.hpp:77] Creating layer pool1
I0426 20:50:31.240828 31772 net.cpp:86] Creating Layer pool1
I0426 20:50:31.240833 31772 net.cpp:408] pool1 <- conv1
I0426 20:50:31.240839 31772 net.cpp:382] pool1 -> pool1
I0426 20:50:31.240885 31772 net.cpp:124] Setting up pool1
I0426 20:50:31.240893 31772 net.cpp:131] Top shape: 64 10 4 4 (10240)
I0426 20:50:31.240896 31772 net.cpp:139] Memory required for data: 2248960
I0426 20:50:31.240900 31772 layer_factory.hpp:77] Creating layer ip1
I0426 20:50:31.240908 31772 net.cpp:86] Creating Layer ip1
I0426 20:50:31.240916 31772 net.cpp:408] ip1 <- pool1
I0426 20:50:31.240921 31772 net.cpp:382] ip1 -> ip1
I0426 20:50:31.242123 31772 net.cpp:124] Setting up ip1
I0426 20:50:31.242139 31772 net.cpp:131] Top shape: 64 100 (6400)
I0426 20:50:31.242143 31772 net.cpp:139] Memory required for data: 2274560
I0426 20:50:31.242153 31772 layer_factory.hpp:77] Creating layer relu1
I0426 20:50:31.242161 31772 net.cpp:86] Creating Layer relu1
I0426 20:50:31.242164 31772 net.cpp:408] relu1 <- ip1
I0426 20:50:31.242171 31772 net.cpp:369] relu1 -> ip1 (in-place)
I0426 20:50:31.242377 31772 net.cpp:124] Setting up relu1
I0426 20:50:31.242388 31772 net.cpp:131] Top shape: 64 100 (6400)
I0426 20:50:31.242393 31772 net.cpp:139] Memory required for data: 2300160
I0426 20:50:31.242396 31772 layer_factory.hpp:77] Creating layer ip2
I0426 20:50:31.242405 31772 net.cpp:86] Creating Layer ip2
I0426 20:50:31.242409 31772 net.cpp:408] ip2 <- ip1
I0426 20:50:31.242416 31772 net.cpp:382] ip2 -> ip2
I0426 20:50:31.242590 31772 net.cpp:124] Setting up ip2
I0426 20:50:31.242599 31772 net.cpp:131] Top shape: 64 100 (6400)
I0426 20:50:31.242604 31772 net.cpp:139] Memory required for data: 2325760
I0426 20:50:31.242609 31772 layer_factory.hpp:77] Creating layer relu2
I0426 20:50:31.242617 31772 net.cpp:86] Creating Layer relu2
I0426 20:50:31.242624 31772 net.cpp:408] relu2 <- ip2
I0426 20:50:31.242629 31772 net.cpp:369] relu2 -> ip2 (in-place)
I0426 20:50:31.243571 31772 net.cpp:124] Setting up relu2
I0426 20:50:31.243587 31772 net.cpp:131] Top shape: 64 100 (6400)
I0426 20:50:31.243590 31772 net.cpp:139] Memory required for data: 2351360
I0426 20:50:31.243594 31772 layer_factory.hpp:77] Creating layer ip3
I0426 20:50:31.243602 31772 net.cpp:86] Creating Layer ip3
I0426 20:50:31.243607 31772 net.cpp:408] ip3 <- ip2
I0426 20:50:31.243613 31772 net.cpp:382] ip3 -> ip3
I0426 20:50:31.243734 31772 net.cpp:124] Setting up ip3
I0426 20:50:31.243743 31772 net.cpp:131] Top shape: 64 10 (640)
I0426 20:50:31.243746 31772 net.cpp:139] Memory required for data: 2353920
I0426 20:50:31.243757 31772 layer_factory.hpp:77] Creating layer relu3
I0426 20:50:31.243764 31772 net.cpp:86] Creating Layer relu3
I0426 20:50:31.243768 31772 net.cpp:408] relu3 <- ip3
I0426 20:50:31.243773 31772 net.cpp:369] relu3 -> ip3 (in-place)
I0426 20:50:31.243968 31772 net.cpp:124] Setting up relu3
I0426 20:50:31.243979 31772 net.cpp:131] Top shape: 64 10 (640)
I0426 20:50:31.243983 31772 net.cpp:139] Memory required for data: 2356480
I0426 20:50:31.243988 31772 layer_factory.hpp:77] Creating layer loss
I0426 20:50:31.243994 31772 net.cpp:86] Creating Layer loss
I0426 20:50:31.243999 31772 net.cpp:408] loss <- ip3
I0426 20:50:31.244004 31772 net.cpp:408] loss <- label
I0426 20:50:31.244009 31772 net.cpp:382] loss -> loss
I0426 20:50:31.244029 31772 layer_factory.hpp:77] Creating layer loss
…
I0426 20:50:31.244770 31772 solver.cpp:173] Creating test net (#0) specified by net file: ECE595/mnist/train_test/var_everything/lenet_train_test62.prototxt
I0426 20:50:31.244801 31772 net.cpp:296] The NetState phase (1) differed from the phase (0) specified by a rule in layer mnist
I0426 20:50:31.244916 31772 net.cpp:53] Initializing net from parameters: 
name: "LeNet"
state {
  phase: TEST
}
layer {
  name: "mnist"
  type: "Data"
  top: "data"
  top: "label"
  include {
    phase: TEST
  }
  transform_param {
    scale: 0.00390625
  }
  data_param {
    source: "examples/mnist/mnist_test_lmdb"
    batch_size: 100
    backend: LMDB
  }
}
layer {
  name: "conv0"
  type: "Convolution"
  bottom: "data"
  top: "conv0"
  param {
    lr_mult: 1
  }
  param {
    lr_mult: 2
  }
  convolution_param {
    num_output: 10
    kernel_size: 5
    stride: 1
    weight_filler {
      type: "xavier"
    }
    bias_filler {
      type: "constant"
    }
  }
}
layer {
  name: "pool0"
  type: "Pooling"
  bottom: "conv0"
  top: "pool0"
  pooling_param {
    pool: MAX
    kernel_size: 2
    stride: 2
  }
}
layer {
  name: "conv1"
  type: "Convolution"
  bottom: "pool0"
  top: "conv1"
  param {
    lr_mult: 1
  }
  param {
    lr_mult: 2
  }
  convolution_param {
    num_output: 10
    kernel_size: 5
    stride: 1
    weight_filler {
      type: "xavier"
    }
    bias_filler {
      type: "constant"
    }
  }
}
layer {
  name: "pool1"
  type: "Pooling"
  bottom: "conv1"
  top: "pool1"
  pooling_param {
    pool: MAX
    kernel_size: 2
    stride: 2
  }
}
layer {
  name: "ip1"
  type: "InnerProduct"
  bottom: "pool1"
  top: "ip1"
  param {
    lr_mult: 1
  }
  param {
    lr_mult: 2
  }
  inner_product_param {
    num_output: 100
    weight_filler {
      type: "xavier"
    }
    bias_filler {
      type: "constant"
    }
  }
}
layer {
  name: "relu1"
  type: "ReLU"
  bottom: "ip1"
  top: "ip1"
}
layer {
  name: "ip2"
  type: "InnerProduct"
  bottom: "ip1"
  top: "ip2"
  param {
    lr_mult: 1
  }
  param {
    lr_mult: 2
  }
  inner_product_param {
    num_output: 100
    weight_filler {
      type: "xavier"
    }
    bias_filler {
      type: "constant"
    }
  }
}
layer {
  name: "relu2"
  type: "ReLU"
  bottom: "ip2"
  top: "ip2"
}
layer {
  name: "ip3"
  type: "InnerProduct"
  bottom: "ip2"
  top: "ip3"
  param {
    lr_mult: 1
  }
  param {
    lr_mult: 2
  }
  inner_product_param {
    num_output: 10
    weight_filler {
      type: "xavier"
    }
    bias_filler {
      type: "constant"
    }
  }
}
layer {
  name: "relu3"
  type: "ReLU"
  bottom: "ip3"
  top: "ip3"
}
layer {
  name: "accuracy"
  type: "Accuracy"
  bottom: "ip3"
  bottom: "label"
  top: "accuracy"
  include {
    phase: TEST
  }
}
layer {
  name: "loss"
  type: "SoftmaxWithLoss"
  bottom: "ip3"
  bottom: "label"
  top: "loss"
}
I0426 20:50:31.245015 31772 layer_factory.hpp:77] Creating layer mnist
I0426 20:50:31.245064 31772 db_lmdb.cpp:35] Opened lmdb examples/mnist/mnist_test_lmdb
I0426 20:50:31.245081 31772 net.cpp:86] Creating Layer mnist
I0426 20:50:31.245088 31772 net.cpp:382] mnist -> data
I0426 20:50:31.245098 31772 net.cpp:382] mnist -> label
I0426 20:50:31.245201 31772 data_layer.cpp:45] output data size: 100,1,28,28
I0426 20:50:31.247465 31772 net.cpp:124] Setting up mnist
I0426 20:50:31.247481 31772 net.cpp:131] Top shape: 100 1 28 28 (78400)
I0426 20:50:31.247488 31772 net.cpp:131] Top shape: 100 (100)
I0426 20:50:31.247491 31772 net.cpp:139] Memory required for data: 314000
I0426 20:50:31.247495 31772 layer_factory.hpp:77] Creating layer label_mnist_1_split
I0426 20:50:31.247503 31772 net.cpp:86] Creating Layer label_mnist_1_split
I0426 20:50:31.247508 31772 net.cpp:408] label_mnist_1_split <- label
I0426 20:50:31.247514 31772 net.cpp:382] label_mnist_1_split -> label_mnist_1_split_0
I0426 20:50:31.247521 31772 net.cpp:382] label_mnist_1_split -> label_mnist_1_split_1
I0426 20:50:31.247581 31772 net.cpp:124] Setting up label_mnist_1_split
I0426 20:50:31.247588 31772 net.cpp:131] Top shape: 100 (100)
I0426 20:50:31.247593 31772 net.cpp:131] Top shape: 100 (100)
I0426 20:50:31.247597 31772 net.cpp:139] Memory required for data: 314800
I0426 20:50:31.247601 31772 layer_factory.hpp:77] Creating layer conv0
I0426 20:50:31.247611 31772 net.cpp:86] Creating Layer conv0
I0426 20:50:31.247617 31772 net.cpp:408] conv0 <- data
I0426 20:50:31.247622 31772 net.cpp:382] conv0 -> conv0
I0426 20:50:31.249572 31772 net.cpp:124] Setting up conv0
I0426 20:50:31.249589 31772 net.cpp:131] Top shape: 100 10 24 24 (576000)
I0426 20:50:31.249594 31772 net.cpp:139] Memory required for data: 2618800
I0426 20:50:31.249605 31772 layer_factory.hpp:77] Creating layer pool0
I0426 20:50:31.249613 31772 net.cpp:86] Creating Layer pool0
I0426 20:50:31.249616 31772 net.cpp:408] pool0 <- conv0
I0426 20:50:31.249622 31772 net.cpp:382] pool0 -> pool0
I0426 20:50:31.249665 31772 net.cpp:124] Setting up pool0
I0426 20:50:31.249672 31772 net.cpp:131] Top shape: 100 10 12 12 (144000)
I0426 20:50:31.249676 31772 net.cpp:139] Memory required for data: 3194800
I0426 20:50:31.249680 31772 layer_factory.hpp:77] Creating layer conv1
I0426 20:50:31.249689 31772 net.cpp:86] Creating Layer conv1
I0426 20:50:31.249696 31772 net.cpp:408] conv1 <- pool0
I0426 20:50:31.249702 31772 net.cpp:382] conv1 -> conv1
I0426 20:50:31.252243 31772 net.cpp:124] Setting up conv1
I0426 20:50:31.252259 31772 net.cpp:131] Top shape: 100 10 8 8 (64000)
I0426 20:50:31.252264 31772 net.cpp:139] Memory required for data: 3450800
I0426 20:50:31.252274 31772 layer_factory.hpp:77] Creating layer pool1
I0426 20:50:31.252281 31772 net.cpp:86] Creating Layer pool1
I0426 20:50:31.252285 31772 net.cpp:408] pool1 <- conv1
I0426 20:50:31.252291 31772 net.cpp:382] pool1 -> pool1
I0426 20:50:31.252341 31772 net.cpp:124] Setting up pool1
I0426 20:50:31.252349 31772 net.cpp:131] Top shape: 100 10 4 4 (16000)
I0426 20:50:31.252352 31772 net.cpp:139] Memory required for data: 3514800
I0426 20:50:31.252357 31772 layer_factory.hpp:77] Creating layer ip1
I0426 20:50:31.252364 31772 net.cpp:86] Creating Layer ip1
I0426 20:50:31.252372 31772 net.cpp:408] ip1 <- pool1
I0426 20:50:31.252377 31772 net.cpp:382] ip1 -> ip1
I0426 20:50:31.252611 31772 net.cpp:124] Setting up ip1
I0426 20:50:31.252622 31772 net.cpp:131] Top shape: 100 100 (10000)
I0426 20:50:31.252640 31772 net.cpp:139] Memory required for data: 3554800
I0426 20:50:31.252648 31772 layer_factory.hpp:77] Creating layer relu1
I0426 20:50:31.252657 31772 net.cpp:86] Creating Layer relu1
I0426 20:50:31.252661 31772 net.cpp:408] relu1 <- ip1
I0426 20:50:31.252666 31772 net.cpp:369] relu1 -> ip1 (in-place)
I0426 20:50:31.252867 31772 net.cpp:124] Setting up relu1
I0426 20:50:31.252878 31772 net.cpp:131] Top shape: 100 100 (10000)
I0426 20:50:31.252882 31772 net.cpp:139] Memory required for data: 3594800
I0426 20:50:31.252887 31772 layer_factory.hpp:77] Creating layer ip2
I0426 20:50:31.252895 31772 net.cpp:86] Creating Layer ip2
I0426 20:50:31.252899 31772 net.cpp:408] ip2 <- ip1
I0426 20:50:31.252905 31772 net.cpp:382] ip2 -> ip2
I0426 20:50:31.253077 31772 net.cpp:124] Setting up ip2
I0426 20:50:31.253085 31772 net.cpp:131] Top shape: 100 100 (10000)
I0426 20:50:31.253090 31772 net.cpp:139] Memory required for data: 3634800
I0426 20:50:31.253096 31772 layer_factory.hpp:77] Creating layer relu2
I0426 20:50:31.253103 31772 net.cpp:86] Creating Layer relu2
I0426 20:50:31.253108 31772 net.cpp:408] relu2 <- ip2
I0426 20:50:31.253113 31772 net.cpp:369] relu2 -> ip2 (in-place)
I0426 20:50:31.253304 31772 net.cpp:124] Setting up relu2
I0426 20:50:31.253314 31772 net.cpp:131] Top shape: 100 100 (10000)
I0426 20:50:31.253319 31772 net.cpp:139] Memory required for data: 3674800
I0426 20:50:31.253322 31772 layer_factory.hpp:77] Creating layer ip3
I0426 20:50:31.253329 31772 net.cpp:86] Creating Layer ip3
I0426 20:50:31.253332 31772 net.cpp:408] ip3 <- ip2
I0426 20:50:31.253338 31772 net.cpp:382] ip3 -> ip3
I0426 20:50:31.253473 31772 net.cpp:124] Setting up ip3
I0426 20:50:31.253480 31772 net.cpp:131] Top shape: 100 10 (1000)
I0426 20:50:31.253484 31772 net.cpp:139] Memory required for data: 3678800
I0426 20:50:31.253494 31772 layer_factory.hpp:77] Creating layer relu3
I0426 20:50:31.253499 31772 net.cpp:86] Creating Layer relu3
I0426 20:50:31.253502 31772 net.cpp:408] relu3 <- ip3
I0426 20:50:31.253507 31772 net.cpp:369] relu3 -> ip3 (in-place)
I0426 20:50:31.254494 31772 net.cpp:124] Setting up relu3
I0426 20:50:31.254509 31772 net.cpp:131] Top shape: 100 10 (1000)
I0426 20:50:31.254513 31772 net.cpp:139] Memory required for data: 3682800
I0426 20:50:31.254518 31772 layer_factory.hpp:77] Creating layer ip3_relu3_0_split
I0426 20:50:31.254525 31772 net.cpp:86] Creating Layer ip3_relu3_0_split
I0426 20:50:31.254529 31772 net.cpp:408] ip3_relu3_0_split <- ip3
I0426 20:50:31.254535 31772 net.cpp:382] ip3_relu3_0_split -> ip3_relu3_0_split_0
I0426 20:50:31.254544 31772 net.cpp:382] ip3_relu3_0_split -> ip3_relu3_0_split_1
I0426 20:50:31.254586 31772 net.cpp:124] Setting up ip3_relu3_0_split
I0426 20:50:31.254592 31772 net.cpp:131] Top shape: 100 10 (1000)
I0426 20:50:31.254597 31772 net.cpp:131] Top shape: 100 10 (1000)
I0426 20:50:31.254601 31772 net.cpp:139] Memory required for data: 3690800
I0426 20:50:31.254604 31772 layer_factory.hpp:77] Creating layer accuracy
I0426 20:50:31.254609 31772 net.cpp:86] Creating Layer accuracy
I0426 20:50:31.254613 31772 net.cpp:408] accuracy <- ip3_relu3_0_split_0
I0426 20:50:31.254618 31772 net.cpp:408] accuracy <- label_mnist_1_split_0
I0426 20:50:31.254624 31772 net.cpp:382] accuracy -> accuracy
…
