…
I0426 20:49:11.772156 31469 net.cpp:296] The NetState phase (0) differed from the phase (1) specified by a rule in layer mnist
I0426 20:49:11.772171 31469 net.cpp:296] The NetState phase (0) differed from the phase (1) specified by a rule in layer accuracy
I0426 20:49:11.772240 31469 net.cpp:53] Initializing net from parameters: 
name: "LeNet"
state {
  phase: TRAIN
  level: 0
  stage: ""
}
layer {
  name: "mnist"
  type: "Data"
  top: "data"
  top: "label"
  include {
    phase: TRAIN
  }
  transform_param {
    scale: 0.00390625
  }
  data_param {
    source: "examples/mnist/mnist_train_lmdb"
    batch_size: 64
    backend: LMDB
  }
}
layer {
  name: "conv0"
  type: "Convolution"
  bottom: "data"
  top: "conv0"
  param {
    lr_mult: 1
  }
  param {
    lr_mult: 2
  }
  convolution_param {
    num_output: 25
    kernel_size: 5
    stride: 1
    weight_filler {
      type: "xavier"
    }
    bias_filler {
      type: "constant"
    }
  }
}
layer {
  name: "pool0"
  type: "Pooling"
  bottom: "conv0"
  top: "pool0"
  pooling_param {
    pool: MAX
    kernel_size: 2
    stride: 2
  }
}
layer {
  name: "ip1"
  type: "InnerProduct"
  bottom: "pool0"
  top: "ip1"
  param {
    lr_mult: 1
  }
  param {
    lr_mult: 2
  }
  inner_product_param {
    num_output: 10
    weight_filler {
      type: "xavier"
    }
    bias_filler {
      type: "constant"
    }
  }
}
layer {
  name: "relu1"
  type: "ReLU"
  bottom: "ip1"
  top: "ip1"
}
layer {
  name: "loss"
  type: "SoftmaxWithLoss"
  bottom: "ip1"
  bottom: "label"
  top: "loss"
}
I0426 20:49:11.772302 31469 layer_factory.hpp:77] Creating layer mnist
I0426 20:49:11.772429 31469 db_lmdb.cpp:35] Opened lmdb examples/mnist/mnist_train_lmdb
I0426 20:49:11.772454 31469 net.cpp:86] Creating Layer mnist
I0426 20:49:11.772462 31469 net.cpp:382] mnist -> data
I0426 20:49:11.772483 31469 net.cpp:382] mnist -> label
I0426 20:49:11.773586 31469 data_layer.cpp:45] output data size: 64,1,28,28
I0426 20:49:11.776170 31469 net.cpp:124] Setting up mnist
I0426 20:49:11.776186 31469 net.cpp:131] Top shape: 64 1 28 28 (50176)
I0426 20:49:11.776192 31469 net.cpp:131] Top shape: 64 (64)
I0426 20:49:11.776196 31469 net.cpp:139] Memory required for data: 200960
I0426 20:49:11.776203 31469 layer_factory.hpp:77] Creating layer conv0
I0426 20:49:11.776253 31469 net.cpp:86] Creating Layer conv0
I0426 20:49:11.776260 31469 net.cpp:408] conv0 <- data
I0426 20:49:11.776285 31469 net.cpp:382] conv0 -> conv0
I0426 20:49:12.071652 31469 net.cpp:124] Setting up conv0
I0426 20:49:12.071686 31469 net.cpp:131] Top shape: 64 25 24 24 (921600)
I0426 20:49:12.071691 31469 net.cpp:139] Memory required for data: 3887360
I0426 20:49:12.071708 31469 layer_factory.hpp:77] Creating layer pool0
I0426 20:49:12.071725 31469 net.cpp:86] Creating Layer pool0
I0426 20:49:12.071741 31469 net.cpp:408] pool0 <- conv0
I0426 20:49:12.071751 31469 net.cpp:382] pool0 -> pool0
I0426 20:49:12.071811 31469 net.cpp:124] Setting up pool0
I0426 20:49:12.071821 31469 net.cpp:131] Top shape: 64 25 12 12 (230400)
I0426 20:49:12.071825 31469 net.cpp:139] Memory required for data: 4808960
I0426 20:49:12.071830 31469 layer_factory.hpp:77] Creating layer ip1
I0426 20:49:12.071847 31469 net.cpp:86] Creating Layer ip1
I0426 20:49:12.071851 31469 net.cpp:408] ip1 <- pool0
I0426 20:49:12.071869 31469 net.cpp:382] ip1 -> ip1
I0426 20:49:12.072232 31469 net.cpp:124] Setting up ip1
I0426 20:49:12.072242 31469 net.cpp:131] Top shape: 64 10 (640)
I0426 20:49:12.072276 31469 net.cpp:139] Memory required for data: 4811520
I0426 20:49:12.072286 31469 layer_factory.hpp:77] Creating layer relu1
I0426 20:49:12.072295 31469 net.cpp:86] Creating Layer relu1
I0426 20:49:12.072299 31469 net.cpp:408] relu1 <- ip1
I0426 20:49:12.072304 31469 net.cpp:369] relu1 -> ip1 (in-place)
I0426 20:49:12.072510 31469 net.cpp:124] Setting up relu1
I0426 20:49:12.072520 31469 net.cpp:131] Top shape: 64 10 (640)
I0426 20:49:12.072525 31469 net.cpp:139] Memory required for data: 4814080
I0426 20:49:12.072527 31469 layer_factory.hpp:77] Creating layer loss
I0426 20:49:12.072535 31469 net.cpp:86] Creating Layer loss
I0426 20:49:12.072538 31469 net.cpp:408] loss <- ip1
I0426 20:49:12.072543 31469 net.cpp:408] loss <- label
I0426 20:49:12.072549 31469 net.cpp:382] loss -> loss
I0426 20:49:12.072579 31469 layer_factory.hpp:77] Creating layer loss
…
I0426 20:49:12.073946 31469 solver.cpp:173] Creating test net (#0) specified by net file: ECE595/mnist/train_test/var_everything/lenet_train_test29.prototxt
I0426 20:49:12.073972 31469 net.cpp:296] The NetState phase (1) differed from the phase (0) specified by a rule in layer mnist
I0426 20:49:12.074056 31469 net.cpp:53] Initializing net from parameters: 
name: "LeNet"
state {
  phase: TEST
}
layer {
  name: "mnist"
  type: "Data"
  top: "data"
  top: "label"
  include {
    phase: TEST
  }
  transform_param {
    scale: 0.00390625
  }
  data_param {
    source: "examples/mnist/mnist_test_lmdb"
    batch_size: 100
    backend: LMDB
  }
}
layer {
  name: "conv0"
  type: "Convolution"
  bottom: "data"
  top: "conv0"
  param {
    lr_mult: 1
  }
  param {
    lr_mult: 2
  }
  convolution_param {
    num_output: 25
    kernel_size: 5
    stride: 1
    weight_filler {
      type: "xavier"
    }
    bias_filler {
      type: "constant"
    }
  }
}
layer {
  name: "pool0"
  type: "Pooling"
  bottom: "conv0"
  top: "pool0"
  pooling_param {
    pool: MAX
    kernel_size: 2
    stride: 2
  }
}
layer {
  name: "ip1"
  type: "InnerProduct"
  bottom: "pool0"
  top: "ip1"
  param {
    lr_mult: 1
  }
  param {
    lr_mult: 2
  }
  inner_product_param {
    num_output: 10
    weight_filler {
      type: "xavier"
    }
    bias_filler {
      type: "constant"
    }
  }
}
layer {
  name: "relu1"
  type: "ReLU"
  bottom: "ip1"
  top: "ip1"
}
layer {
  name: "accuracy"
  type: "Accuracy"
  bottom: "ip1"
  bottom: "label"
  top: "accuracy"
  include {
    phase: TEST
  }
}
layer {
  name: "loss"
  type: "SoftmaxWithLoss"
  bottom: "ip1"
  bottom: "label"
  top: "loss"
}
I0426 20:49:12.074125 31469 layer_factory.hpp:77] Creating layer mnist
I0426 20:49:12.074178 31469 db_lmdb.cpp:35] Opened lmdb examples/mnist/mnist_test_lmdb
I0426 20:49:12.074193 31469 net.cpp:86] Creating Layer mnist
I0426 20:49:12.074198 31469 net.cpp:382] mnist -> data
I0426 20:49:12.074208 31469 net.cpp:382] mnist -> label
I0426 20:49:12.074303 31469 data_layer.cpp:45] output data size: 100,1,28,28
I0426 20:49:12.076586 31469 net.cpp:124] Setting up mnist
I0426 20:49:12.076611 31469 net.cpp:131] Top shape: 100 1 28 28 (78400)
I0426 20:49:12.076617 31469 net.cpp:131] Top shape: 100 (100)
I0426 20:49:12.076620 31469 net.cpp:139] Memory required for data: 314000
I0426 20:49:12.076648 31469 layer_factory.hpp:77] Creating layer label_mnist_1_split
I0426 20:49:12.076656 31469 net.cpp:86] Creating Layer label_mnist_1_split
I0426 20:49:12.076660 31469 net.cpp:408] label_mnist_1_split <- label
I0426 20:49:12.076666 31469 net.cpp:382] label_mnist_1_split -> label_mnist_1_split_0
I0426 20:49:12.076674 31469 net.cpp:382] label_mnist_1_split -> label_mnist_1_split_1
I0426 20:49:12.076782 31469 net.cpp:124] Setting up label_mnist_1_split
I0426 20:49:12.076792 31469 net.cpp:131] Top shape: 100 (100)
I0426 20:49:12.076795 31469 net.cpp:131] Top shape: 100 (100)
I0426 20:49:12.076799 31469 net.cpp:139] Memory required for data: 314800
I0426 20:49:12.076803 31469 layer_factory.hpp:77] Creating layer conv0
I0426 20:49:12.076830 31469 net.cpp:86] Creating Layer conv0
I0426 20:49:12.076835 31469 net.cpp:408] conv0 <- data
I0426 20:49:12.076841 31469 net.cpp:382] conv0 -> conv0
I0426 20:49:12.078801 31469 net.cpp:124] Setting up conv0
I0426 20:49:12.078819 31469 net.cpp:131] Top shape: 100 25 24 24 (1440000)
I0426 20:49:12.078824 31469 net.cpp:139] Memory required for data: 6074800
I0426 20:49:12.078835 31469 layer_factory.hpp:77] Creating layer pool0
I0426 20:49:12.078848 31469 net.cpp:86] Creating Layer pool0
I0426 20:49:12.078852 31469 net.cpp:408] pool0 <- conv0
I0426 20:49:12.078858 31469 net.cpp:382] pool0 -> pool0
I0426 20:49:12.078899 31469 net.cpp:124] Setting up pool0
I0426 20:49:12.078907 31469 net.cpp:131] Top shape: 100 25 12 12 (360000)
I0426 20:49:12.078910 31469 net.cpp:139] Memory required for data: 7514800
I0426 20:49:12.078914 31469 layer_factory.hpp:77] Creating layer ip1
I0426 20:49:12.078933 31469 net.cpp:86] Creating Layer ip1
I0426 20:49:12.078935 31469 net.cpp:408] ip1 <- pool0
I0426 20:49:12.078941 31469 net.cpp:382] ip1 -> ip1
I0426 20:49:12.079298 31469 net.cpp:124] Setting up ip1
I0426 20:49:12.079305 31469 net.cpp:131] Top shape: 100 10 (1000)
I0426 20:49:12.079309 31469 net.cpp:139] Memory required for data: 7518800
I0426 20:49:12.079318 31469 layer_factory.hpp:77] Creating layer relu1
I0426 20:49:12.079324 31469 net.cpp:86] Creating Layer relu1
I0426 20:49:12.079327 31469 net.cpp:408] relu1 <- ip1
I0426 20:49:12.079332 31469 net.cpp:369] relu1 -> ip1 (in-place)
I0426 20:49:12.079612 31469 net.cpp:124] Setting up relu1
I0426 20:49:12.079622 31469 net.cpp:131] Top shape: 100 10 (1000)
I0426 20:49:12.079625 31469 net.cpp:139] Memory required for data: 7522800
I0426 20:49:12.079629 31469 layer_factory.hpp:77] Creating layer ip1_relu1_0_split
I0426 20:49:12.079634 31469 net.cpp:86] Creating Layer ip1_relu1_0_split
I0426 20:49:12.079638 31469 net.cpp:408] ip1_relu1_0_split <- ip1
I0426 20:49:12.079644 31469 net.cpp:382] ip1_relu1_0_split -> ip1_relu1_0_split_0
I0426 20:49:12.079651 31469 net.cpp:382] ip1_relu1_0_split -> ip1_relu1_0_split_1
I0426 20:49:12.079695 31469 net.cpp:124] Setting up ip1_relu1_0_split
I0426 20:49:12.079702 31469 net.cpp:131] Top shape: 100 10 (1000)
I0426 20:49:12.079707 31469 net.cpp:131] Top shape: 100 10 (1000)
I0426 20:49:12.079710 31469 net.cpp:139] Memory required for data: 7530800
I0426 20:49:12.079715 31469 layer_factory.hpp:77] Creating layer accuracy
I0426 20:49:12.079721 31469 net.cpp:86] Creating Layer accuracy
I0426 20:49:12.079725 31469 net.cpp:408] accuracy <- ip1_relu1_0_split_0
I0426 20:49:12.079730 31469 net.cpp:408] accuracy <- label_mnist_1_split_0
I0426 20:49:12.079735 31469 net.cpp:382] accuracy -> accuracy
…
