…
I0426 20:53:07.114656 32378 net.cpp:296] The NetState phase (0) differed from the phase (1) specified by a rule in layer mnist
I0426 20:53:07.114686 32378 net.cpp:296] The NetState phase (0) differed from the phase (1) specified by a rule in layer accuracy
I0426 20:53:07.114773 32378 net.cpp:53] Initializing net from parameters: 
name: "LeNet"
state {
  phase: TRAIN
  level: 0
  stage: ""
}
layer {
  name: "mnist"
  type: "Data"
  top: "data"
  top: "label"
  include {
    phase: TRAIN
  }
  transform_param {
    scale: 0.00390625
  }
  data_param {
    source: "examples/mnist/mnist_train_lmdb"
    batch_size: 64
    backend: LMDB
  }
}
layer {
  name: "conv0"
  type: "Convolution"
  bottom: "data"
  top: "conv0"
  param {
    lr_mult: 1
  }
  param {
    lr_mult: 2
  }
  convolution_param {
    num_output: 25
    kernel_size: 5
    stride: 1
    weight_filler {
      type: "xavier"
    }
    bias_filler {
      type: "constant"
    }
  }
}
layer {
  name: "pool0"
  type: "Pooling"
  bottom: "conv0"
  top: "pool0"
  pooling_param {
    pool: MAX
    kernel_size: 2
    stride: 2
  }
}
layer {
  name: "conv1"
  type: "Convolution"
  bottom: "pool0"
  top: "conv1"
  param {
    lr_mult: 1
  }
  param {
    lr_mult: 2
  }
  convolution_param {
    num_output: 50
    kernel_size: 5
    stride: 1
    weight_filler {
      type: "xavier"
    }
    bias_filler {
      type: "constant"
    }
  }
}
layer {
  name: "pool1"
  type: "Pooling"
  bottom: "conv1"
  top: "pool1"
  pooling_param {
    pool: MAX
    kernel_size: 2
    stride: 2
  }
}
layer {
  name: "ip1"
  type: "InnerProduct"
  bottom: "pool1"
  top: "ip1"
  param {
    lr_mult: 1
  }
  param {
    lr_mult: 2
  }
  inner_product_param {
    num_output: 100
    weight_filler {
      type: "xavier"
    }
    bias_filler {
      type: "constant"
    }
  }
}
layer {
  name: "relu1"
  type: "ReLU"
  bottom: "ip1"
  top: "ip1"
}
layer {
  name: "ip2"
  type: "InnerProduct"
  bottom: "ip1"
  top: "ip2"
  param {
    lr_mult: 1
  }
  param {
    lr_mult: 2
  }
  inner_product_param {
    num_output: 10
    weight_filler {
      type: "xavier"
    }
    bias_filler {
      type: "constant"
    }
  }
}
layer {
  name: "relu2"
  type: "ReLU"
  bottom: "ip2"
  top: "ip2"
}
layer {
  name: "loss"
  type: "SoftmaxWithLoss"
  bottom: "ip2"
  bottom: "label"
  top: "loss"
}
I0426 20:53:07.114833 32378 layer_factory.hpp:77] Creating layer mnist
I0426 20:53:07.114913 32378 db_lmdb.cpp:35] Opened lmdb examples/mnist/mnist_train_lmdb
I0426 20:53:07.114933 32378 net.cpp:86] Creating Layer mnist
I0426 20:53:07.114938 32378 net.cpp:382] mnist -> data
I0426 20:53:07.114959 32378 net.cpp:382] mnist -> label
I0426 20:53:07.115862 32378 data_layer.cpp:45] output data size: 64,1,28,28
I0426 20:53:07.117961 32378 net.cpp:124] Setting up mnist
I0426 20:53:07.117975 32378 net.cpp:131] Top shape: 64 1 28 28 (50176)
I0426 20:53:07.117980 32378 net.cpp:131] Top shape: 64 (64)
I0426 20:53:07.117982 32378 net.cpp:139] Memory required for data: 200960
I0426 20:53:07.117987 32378 layer_factory.hpp:77] Creating layer conv0
I0426 20:53:07.118031 32378 net.cpp:86] Creating Layer conv0
I0426 20:53:07.118036 32378 net.cpp:408] conv0 <- data
I0426 20:53:07.118046 32378 net.cpp:382] conv0 -> conv0
I0426 20:53:07.349270 32378 net.cpp:124] Setting up conv0
I0426 20:53:07.349308 32378 net.cpp:131] Top shape: 64 25 24 24 (921600)
I0426 20:53:07.349311 32378 net.cpp:139] Memory required for data: 3887360
I0426 20:53:07.349360 32378 layer_factory.hpp:77] Creating layer pool0
I0426 20:53:07.349375 32378 net.cpp:86] Creating Layer pool0
I0426 20:53:07.349378 32378 net.cpp:408] pool0 <- conv0
I0426 20:53:07.349383 32378 net.cpp:382] pool0 -> pool0
I0426 20:53:07.349431 32378 net.cpp:124] Setting up pool0
I0426 20:53:07.349438 32378 net.cpp:131] Top shape: 64 25 12 12 (230400)
I0426 20:53:07.349441 32378 net.cpp:139] Memory required for data: 4808960
I0426 20:53:07.349443 32378 layer_factory.hpp:77] Creating layer conv1
I0426 20:53:07.349470 32378 net.cpp:86] Creating Layer conv1
I0426 20:53:07.349473 32378 net.cpp:408] conv1 <- pool0
I0426 20:53:07.349478 32378 net.cpp:382] conv1 -> conv1
I0426 20:53:07.351611 32378 net.cpp:124] Setting up conv1
I0426 20:53:07.351624 32378 net.cpp:131] Top shape: 64 50 8 8 (204800)
I0426 20:53:07.351629 32378 net.cpp:139] Memory required for data: 5628160
I0426 20:53:07.351652 32378 layer_factory.hpp:77] Creating layer pool1
I0426 20:53:07.351661 32378 net.cpp:86] Creating Layer pool1
I0426 20:53:07.351665 32378 net.cpp:408] pool1 <- conv1
I0426 20:53:07.351670 32378 net.cpp:382] pool1 -> pool1
I0426 20:53:07.351719 32378 net.cpp:124] Setting up pool1
I0426 20:53:07.351727 32378 net.cpp:131] Top shape: 64 50 4 4 (51200)
I0426 20:53:07.351729 32378 net.cpp:139] Memory required for data: 5832960
I0426 20:53:07.351732 32378 layer_factory.hpp:77] Creating layer ip1
I0426 20:53:07.351743 32378 net.cpp:86] Creating Layer ip1
I0426 20:53:07.351747 32378 net.cpp:408] ip1 <- pool1
I0426 20:53:07.351752 32378 net.cpp:382] ip1 -> ip1
I0426 20:53:07.353178 32378 net.cpp:124] Setting up ip1
I0426 20:53:07.353190 32378 net.cpp:131] Top shape: 64 100 (6400)
I0426 20:53:07.353193 32378 net.cpp:139] Memory required for data: 5858560
I0426 20:53:07.353217 32378 layer_factory.hpp:77] Creating layer relu1
I0426 20:53:07.353224 32378 net.cpp:86] Creating Layer relu1
I0426 20:53:07.353227 32378 net.cpp:408] relu1 <- ip1
I0426 20:53:07.353232 32378 net.cpp:369] relu1 -> ip1 (in-place)
I0426 20:53:07.353406 32378 net.cpp:124] Setting up relu1
I0426 20:53:07.353415 32378 net.cpp:131] Top shape: 64 100 (6400)
I0426 20:53:07.353418 32378 net.cpp:139] Memory required for data: 5884160
I0426 20:53:07.353421 32378 layer_factory.hpp:77] Creating layer ip2
I0426 20:53:07.353428 32378 net.cpp:86] Creating Layer ip2
I0426 20:53:07.353431 32378 net.cpp:408] ip2 <- ip1
I0426 20:53:07.353435 32378 net.cpp:382] ip2 -> ip2
I0426 20:53:07.353530 32378 net.cpp:124] Setting up ip2
I0426 20:53:07.353536 32378 net.cpp:131] Top shape: 64 10 (640)
I0426 20:53:07.353539 32378 net.cpp:139] Memory required for data: 5886720
I0426 20:53:07.353544 32378 layer_factory.hpp:77] Creating layer relu2
I0426 20:53:07.353550 32378 net.cpp:86] Creating Layer relu2
I0426 20:53:07.353554 32378 net.cpp:408] relu2 <- ip2
I0426 20:53:07.353557 32378 net.cpp:369] relu2 -> ip2 (in-place)
I0426 20:53:07.354368 32378 net.cpp:124] Setting up relu2
I0426 20:53:07.354380 32378 net.cpp:131] Top shape: 64 10 (640)
I0426 20:53:07.354384 32378 net.cpp:139] Memory required for data: 5889280
I0426 20:53:07.354387 32378 layer_factory.hpp:77] Creating layer loss
I0426 20:53:07.354393 32378 net.cpp:86] Creating Layer loss
I0426 20:53:07.354396 32378 net.cpp:408] loss <- ip2
I0426 20:53:07.354400 32378 net.cpp:408] loss <- label
I0426 20:53:07.354420 32378 net.cpp:382] loss -> loss
I0426 20:53:07.354454 32378 layer_factory.hpp:77] Creating layer loss
…
I0426 20:53:07.355098 32378 solver.cpp:173] Creating test net (#0) specified by net file: ECE595/mnist/train_test/var_everything/lenet_train_test129.prototxt
I0426 20:53:07.355121 32378 net.cpp:296] The NetState phase (1) differed from the phase (0) specified by a rule in layer mnist
I0426 20:53:07.355202 32378 net.cpp:53] Initializing net from parameters: 
name: "LeNet"
state {
  phase: TEST
}
layer {
  name: "mnist"
  type: "Data"
  top: "data"
  top: "label"
  include {
    phase: TEST
  }
  transform_param {
    scale: 0.00390625
  }
  data_param {
    source: "examples/mnist/mnist_test_lmdb"
    batch_size: 100
    backend: LMDB
  }
}
layer {
  name: "conv0"
  type: "Convolution"
  bottom: "data"
  top: "conv0"
  param {
    lr_mult: 1
  }
  param {
    lr_mult: 2
  }
  convolution_param {
    num_output: 25
    kernel_size: 5
    stride: 1
    weight_filler {
      type: "xavier"
    }
    bias_filler {
      type: "constant"
    }
  }
}
layer {
  name: "pool0"
  type: "Pooling"
  bottom: "conv0"
  top: "pool0"
  pooling_param {
    pool: MAX
    kernel_size: 2
    stride: 2
  }
}
layer {
  name: "conv1"
  type: "Convolution"
  bottom: "pool0"
  top: "conv1"
  param {
    lr_mult: 1
  }
  param {
    lr_mult: 2
  }
  convolution_param {
    num_output: 50
    kernel_size: 5
    stride: 1
    weight_filler {
      type: "xavier"
    }
    bias_filler {
      type: "constant"
    }
  }
}
layer {
  name: "pool1"
  type: "Pooling"
  bottom: "conv1"
  top: "pool1"
  pooling_param {
    pool: MAX
    kernel_size: 2
    stride: 2
  }
}
layer {
  name: "ip1"
  type: "InnerProduct"
  bottom: "pool1"
  top: "ip1"
  param {
    lr_mult: 1
  }
  param {
    lr_mult: 2
  }
  inner_product_param {
    num_output: 100
    weight_filler {
      type: "xavier"
    }
    bias_filler {
      type: "constant"
    }
  }
}
layer {
  name: "relu1"
  type: "ReLU"
  bottom: "ip1"
  top: "ip1"
}
layer {
  name: "ip2"
  type: "InnerProduct"
  bottom: "ip1"
  top: "ip2"
  param {
    lr_mult: 1
  }
  param {
    lr_mult: 2
  }
  inner_product_param {
    num_output: 10
    weight_filler {
      type: "xavier"
    }
    bias_filler {
      type: "constant"
    }
  }
}
layer {
  name: "relu2"
  type: "ReLU"
  bottom: "ip2"
  top: "ip2"
}
layer {
  name: "accuracy"
  type: "Accuracy"
  bottom: "ip2"
  bottom: "label"
  top: "accuracy"
  include {
    phase: TEST
  }
}
layer {
  name: "loss"
  type: "SoftmaxWithLoss"
  bottom: "ip2"
  bottom: "label"
  top: "loss"
}
I0426 20:53:07.355260 32378 layer_factory.hpp:77] Creating layer mnist
I0426 20:53:07.355304 32378 db_lmdb.cpp:35] Opened lmdb examples/mnist/mnist_test_lmdb
I0426 20:53:07.355315 32378 net.cpp:86] Creating Layer mnist
I0426 20:53:07.355320 32378 net.cpp:382] mnist -> data
I0426 20:53:07.355326 32378 net.cpp:382] mnist -> label
I0426 20:53:07.355406 32378 data_layer.cpp:45] output data size: 100,1,28,28
I0426 20:53:07.356536 32378 net.cpp:124] Setting up mnist
I0426 20:53:07.356550 32378 net.cpp:131] Top shape: 100 1 28 28 (78400)
I0426 20:53:07.356555 32378 net.cpp:131] Top shape: 100 (100)
I0426 20:53:07.356559 32378 net.cpp:139] Memory required for data: 314000
I0426 20:53:07.356561 32378 layer_factory.hpp:77] Creating layer label_mnist_1_split
I0426 20:53:07.356571 32378 net.cpp:86] Creating Layer label_mnist_1_split
I0426 20:53:07.356575 32378 net.cpp:408] label_mnist_1_split <- label
I0426 20:53:07.356580 32378 net.cpp:382] label_mnist_1_split -> label_mnist_1_split_0
I0426 20:53:07.356585 32378 net.cpp:382] label_mnist_1_split -> label_mnist_1_split_1
I0426 20:53:07.356667 32378 net.cpp:124] Setting up label_mnist_1_split
I0426 20:53:07.356675 32378 net.cpp:131] Top shape: 100 (100)
I0426 20:53:07.356678 32378 net.cpp:131] Top shape: 100 (100)
I0426 20:53:07.356681 32378 net.cpp:139] Memory required for data: 314800
I0426 20:53:07.356684 32378 layer_factory.hpp:77] Creating layer conv0
I0426 20:53:07.356693 32378 net.cpp:86] Creating Layer conv0
I0426 20:53:07.356695 32378 net.cpp:408] conv0 <- data
I0426 20:53:07.356700 32378 net.cpp:382] conv0 -> conv0
I0426 20:53:07.358199 32378 net.cpp:124] Setting up conv0
I0426 20:53:07.358214 32378 net.cpp:131] Top shape: 100 25 24 24 (1440000)
I0426 20:53:07.358217 32378 net.cpp:139] Memory required for data: 6074800
I0426 20:53:07.358227 32378 layer_factory.hpp:77] Creating layer pool0
I0426 20:53:07.358243 32378 net.cpp:86] Creating Layer pool0
I0426 20:53:07.358247 32378 net.cpp:408] pool0 <- conv0
I0426 20:53:07.358253 32378 net.cpp:382] pool0 -> pool0
I0426 20:53:07.358330 32378 net.cpp:124] Setting up pool0
I0426 20:53:07.358337 32378 net.cpp:131] Top shape: 100 25 12 12 (360000)
I0426 20:53:07.358340 32378 net.cpp:139] Memory required for data: 7514800
I0426 20:53:07.358343 32378 layer_factory.hpp:77] Creating layer conv1
I0426 20:53:07.358351 32378 net.cpp:86] Creating Layer conv1
I0426 20:53:07.358355 32378 net.cpp:408] conv1 <- pool0
I0426 20:53:07.358367 32378 net.cpp:382] conv1 -> conv1
I0426 20:53:07.359948 32378 net.cpp:124] Setting up conv1
I0426 20:53:07.359961 32378 net.cpp:131] Top shape: 100 50 8 8 (320000)
I0426 20:53:07.359978 32378 net.cpp:139] Memory required for data: 8794800
I0426 20:53:07.359987 32378 layer_factory.hpp:77] Creating layer pool1
I0426 20:53:07.360003 32378 net.cpp:86] Creating Layer pool1
I0426 20:53:07.360008 32378 net.cpp:408] pool1 <- conv1
I0426 20:53:07.360013 32378 net.cpp:382] pool1 -> pool1
I0426 20:53:07.360051 32378 net.cpp:124] Setting up pool1
I0426 20:53:07.360059 32378 net.cpp:131] Top shape: 100 50 4 4 (80000)
I0426 20:53:07.360060 32378 net.cpp:139] Memory required for data: 9114800
I0426 20:53:07.360064 32378 layer_factory.hpp:77] Creating layer ip1
I0426 20:53:07.360075 32378 net.cpp:86] Creating Layer ip1
I0426 20:53:07.360079 32378 net.cpp:408] ip1 <- pool1
I0426 20:53:07.360085 32378 net.cpp:382] ip1 -> ip1
I0426 20:53:07.360702 32378 net.cpp:124] Setting up ip1
I0426 20:53:07.360709 32378 net.cpp:131] Top shape: 100 100 (10000)
I0426 20:53:07.360713 32378 net.cpp:139] Memory required for data: 9154800
I0426 20:53:07.360720 32378 layer_factory.hpp:77] Creating layer relu1
I0426 20:53:07.360725 32378 net.cpp:86] Creating Layer relu1
I0426 20:53:07.360728 32378 net.cpp:408] relu1 <- ip1
I0426 20:53:07.360733 32378 net.cpp:369] relu1 -> ip1 (in-place)
I0426 20:53:07.360916 32378 net.cpp:124] Setting up relu1
I0426 20:53:07.360925 32378 net.cpp:131] Top shape: 100 100 (10000)
I0426 20:53:07.360929 32378 net.cpp:139] Memory required for data: 9194800
I0426 20:53:07.360931 32378 layer_factory.hpp:77] Creating layer ip2
I0426 20:53:07.360939 32378 net.cpp:86] Creating Layer ip2
I0426 20:53:07.360942 32378 net.cpp:408] ip2 <- ip1
I0426 20:53:07.360949 32378 net.cpp:382] ip2 -> ip2
I0426 20:53:07.361073 32378 net.cpp:124] Setting up ip2
I0426 20:53:07.361079 32378 net.cpp:131] Top shape: 100 10 (1000)
I0426 20:53:07.361083 32378 net.cpp:139] Memory required for data: 9198800
I0426 20:53:07.361088 32378 layer_factory.hpp:77] Creating layer relu2
I0426 20:53:07.361093 32378 net.cpp:86] Creating Layer relu2
I0426 20:53:07.361095 32378 net.cpp:408] relu2 <- ip2
I0426 20:53:07.361100 32378 net.cpp:369] relu2 -> ip2 (in-place)
I0426 20:53:07.361315 32378 net.cpp:124] Setting up relu2
I0426 20:53:07.361326 32378 net.cpp:131] Top shape: 100 10 (1000)
I0426 20:53:07.361330 32378 net.cpp:139] Memory required for data: 9202800
I0426 20:53:07.361332 32378 layer_factory.hpp:77] Creating layer ip2_relu2_0_split
I0426 20:53:07.361337 32378 net.cpp:86] Creating Layer ip2_relu2_0_split
I0426 20:53:07.361342 32378 net.cpp:408] ip2_relu2_0_split <- ip2
I0426 20:53:07.361346 32378 net.cpp:382] ip2_relu2_0_split -> ip2_relu2_0_split_0
I0426 20:53:07.361362 32378 net.cpp:382] ip2_relu2_0_split -> ip2_relu2_0_split_1
I0426 20:53:07.361398 32378 net.cpp:124] Setting up ip2_relu2_0_split
I0426 20:53:07.361403 32378 net.cpp:131] Top shape: 100 10 (1000)
I0426 20:53:07.361407 32378 net.cpp:131] Top shape: 100 10 (1000)
I0426 20:53:07.361410 32378 net.cpp:139] Memory required for data: 9210800
I0426 20:53:07.361413 32378 layer_factory.hpp:77] Creating layer accuracy
I0426 20:53:07.361418 32378 net.cpp:86] Creating Layer accuracy
I0426 20:53:07.361421 32378 net.cpp:408] accuracy <- ip2_relu2_0_split_0
I0426 20:53:07.361425 32378 net.cpp:408] accuracy <- label_mnist_1_split_0
I0426 20:53:07.361430 32378 net.cpp:382] accuracy -> accuracy
…
