…
I0426 20:52:10.048171 32137 net.cpp:296] The NetState phase (0) differed from the phase (1) specified by a rule in layer mnist
I0426 20:52:10.048189 32137 net.cpp:296] The NetState phase (0) differed from the phase (1) specified by a rule in layer accuracy
I0426 20:52:10.048290 32137 net.cpp:53] Initializing net from parameters: 
name: "LeNet"
state {
  phase: TRAIN
  level: 0
  stage: ""
}
layer {
  name: "mnist"
  type: "Data"
  top: "data"
  top: "label"
  include {
    phase: TRAIN
  }
  transform_param {
    scale: 0.00390625
  }
  data_param {
    source: "examples/mnist/mnist_train_lmdb"
    batch_size: 64
    backend: LMDB
  }
}
layer {
  name: "conv0"
  type: "Convolution"
  bottom: "data"
  top: "conv0"
  param {
    lr_mult: 1
  }
  param {
    lr_mult: 2
  }
  convolution_param {
    num_output: 25
    kernel_size: 5
    stride: 1
    weight_filler {
      type: "xavier"
    }
    bias_filler {
      type: "constant"
    }
  }
}
layer {
  name: "pool0"
  type: "Pooling"
  bottom: "conv0"
  top: "pool0"
  pooling_param {
    pool: MAX
    kernel_size: 2
    stride: 2
  }
}
layer {
  name: "conv1"
  type: "Convolution"
  bottom: "pool0"
  top: "conv1"
  param {
    lr_mult: 1
  }
  param {
    lr_mult: 2
  }
  convolution_param {
    num_output: 10
    kernel_size: 5
    stride: 1
    weight_filler {
      type: "xavier"
    }
    bias_filler {
      type: "constant"
    }
  }
}
layer {
  name: "pool1"
  type: "Pooling"
  bottom: "conv1"
  top: "pool1"
  pooling_param {
    pool: MAX
    kernel_size: 2
    stride: 2
  }
}
layer {
  name: "ip1"
  type: "InnerProduct"
  bottom: "pool1"
  top: "ip1"
  param {
    lr_mult: 1
  }
  param {
    lr_mult: 2
  }
  inner_product_param {
    num_output: 100
    weight_filler {
      type: "xavier"
    }
    bias_filler {
      type: "constant"
    }
  }
}
layer {
  name: "relu1"
  type: "ReLU"
  bottom: "ip1"
  top: "ip1"
}
layer {
  name: "ip2"
  type: "InnerProduct"
  bottom: "ip1"
  top: "ip2"
  param {
    lr_mult: 1
  }
  param {
    lr_mult: 2
  }
  inner_product_param {
    num_output: 100
    weight_filler {
      type: "xavier"
    }
    bias_filler {
      type: "constant"
    }
  }
}
layer {
  name: "relu2"
  type: "ReLU"
  bottom: "ip2"
  top: "ip2"
}
layer {
  name: "ip3"
  type: "InnerProduct"
  bottom: "ip2"
  top: "ip3"
  param {
    lr_mult: 1
  }
  param {
    lr_mult: 2
  }
  inner_product_param {
    num_output: 10
    weight_filler {
      type: "xavier"
    }
    bias_filler {
      type: "constant"
    }
  }
}
layer {
  name: "relu3"
  type: "ReLU"
  bottom: "ip3"
  top: "ip3"
}
layer {
  name: "loss"
  type: "SoftmaxWithLoss"
  bottom: "ip3"
  bottom: "label"
  top: "loss"
}
I0426 20:52:10.048372 32137 layer_factory.hpp:77] Creating layer mnist
I0426 20:52:10.048471 32137 db_lmdb.cpp:35] Opened lmdb examples/mnist/mnist_train_lmdb
I0426 20:52:10.048494 32137 net.cpp:86] Creating Layer mnist
I0426 20:52:10.048501 32137 net.cpp:382] mnist -> data
I0426 20:52:10.048526 32137 net.cpp:382] mnist -> label
I0426 20:52:10.049628 32137 data_layer.cpp:45] output data size: 64,1,28,28
I0426 20:52:10.052156 32137 net.cpp:124] Setting up mnist
I0426 20:52:10.052175 32137 net.cpp:131] Top shape: 64 1 28 28 (50176)
I0426 20:52:10.052181 32137 net.cpp:131] Top shape: 64 (64)
I0426 20:52:10.052186 32137 net.cpp:139] Memory required for data: 200960
I0426 20:52:10.052192 32137 layer_factory.hpp:77] Creating layer conv0
I0426 20:52:10.052209 32137 net.cpp:86] Creating Layer conv0
I0426 20:52:10.052230 32137 net.cpp:408] conv0 <- data
I0426 20:52:10.052242 32137 net.cpp:382] conv0 -> conv0
I0426 20:52:10.334286 32137 net.cpp:124] Setting up conv0
I0426 20:52:10.334311 32137 net.cpp:131] Top shape: 64 25 24 24 (921600)
I0426 20:52:10.334316 32137 net.cpp:139] Memory required for data: 3887360
I0426 20:52:10.334331 32137 layer_factory.hpp:77] Creating layer pool0
I0426 20:52:10.334343 32137 net.cpp:86] Creating Layer pool0
I0426 20:52:10.334347 32137 net.cpp:408] pool0 <- conv0
I0426 20:52:10.334352 32137 net.cpp:382] pool0 -> pool0
I0426 20:52:10.334394 32137 net.cpp:124] Setting up pool0
I0426 20:52:10.334399 32137 net.cpp:131] Top shape: 64 25 12 12 (230400)
I0426 20:52:10.334401 32137 net.cpp:139] Memory required for data: 4808960
I0426 20:52:10.334404 32137 layer_factory.hpp:77] Creating layer conv1
I0426 20:52:10.334415 32137 net.cpp:86] Creating Layer conv1
I0426 20:52:10.334419 32137 net.cpp:408] conv1 <- pool0
I0426 20:52:10.334422 32137 net.cpp:382] conv1 -> conv1
I0426 20:52:10.337136 32137 net.cpp:124] Setting up conv1
I0426 20:52:10.337149 32137 net.cpp:131] Top shape: 64 10 8 8 (40960)
I0426 20:52:10.337153 32137 net.cpp:139] Memory required for data: 4972800
I0426 20:52:10.337162 32137 layer_factory.hpp:77] Creating layer pool1
I0426 20:52:10.337168 32137 net.cpp:86] Creating Layer pool1
I0426 20:52:10.337172 32137 net.cpp:408] pool1 <- conv1
I0426 20:52:10.337177 32137 net.cpp:382] pool1 -> pool1
I0426 20:52:10.337209 32137 net.cpp:124] Setting up pool1
I0426 20:52:10.337214 32137 net.cpp:131] Top shape: 64 10 4 4 (10240)
I0426 20:52:10.337218 32137 net.cpp:139] Memory required for data: 5013760
I0426 20:52:10.337220 32137 layer_factory.hpp:77] Creating layer ip1
I0426 20:52:10.337226 32137 net.cpp:86] Creating Layer ip1
I0426 20:52:10.337229 32137 net.cpp:408] ip1 <- pool1
I0426 20:52:10.337234 32137 net.cpp:382] ip1 -> ip1
I0426 20:52:10.337445 32137 net.cpp:124] Setting up ip1
I0426 20:52:10.337453 32137 net.cpp:131] Top shape: 64 100 (6400)
I0426 20:52:10.337456 32137 net.cpp:139] Memory required for data: 5039360
I0426 20:52:10.337463 32137 layer_factory.hpp:77] Creating layer relu1
I0426 20:52:10.337469 32137 net.cpp:86] Creating Layer relu1
I0426 20:52:10.337472 32137 net.cpp:408] relu1 <- ip1
I0426 20:52:10.337477 32137 net.cpp:369] relu1 -> ip1 (in-place)
I0426 20:52:10.337646 32137 net.cpp:124] Setting up relu1
I0426 20:52:10.337654 32137 net.cpp:131] Top shape: 64 100 (6400)
I0426 20:52:10.337657 32137 net.cpp:139] Memory required for data: 5064960
I0426 20:52:10.337661 32137 layer_factory.hpp:77] Creating layer ip2
I0426 20:52:10.337666 32137 net.cpp:86] Creating Layer ip2
I0426 20:52:10.337669 32137 net.cpp:408] ip2 <- ip1
I0426 20:52:10.337673 32137 net.cpp:382] ip2 -> ip2
I0426 20:52:10.337810 32137 net.cpp:124] Setting up ip2
I0426 20:52:10.337815 32137 net.cpp:131] Top shape: 64 100 (6400)
I0426 20:52:10.337818 32137 net.cpp:139] Memory required for data: 5090560
I0426 20:52:10.337824 32137 layer_factory.hpp:77] Creating layer relu2
I0426 20:52:10.337829 32137 net.cpp:86] Creating Layer relu2
I0426 20:52:10.337832 32137 net.cpp:408] relu2 <- ip2
I0426 20:52:10.337836 32137 net.cpp:369] relu2 -> ip2 (in-place)
I0426 20:52:10.338608 32137 net.cpp:124] Setting up relu2
I0426 20:52:10.338620 32137 net.cpp:131] Top shape: 64 100 (6400)
I0426 20:52:10.338639 32137 net.cpp:139] Memory required for data: 5116160
I0426 20:52:10.338642 32137 layer_factory.hpp:77] Creating layer ip3
I0426 20:52:10.338649 32137 net.cpp:86] Creating Layer ip3
I0426 20:52:10.338652 32137 net.cpp:408] ip3 <- ip2
I0426 20:52:10.338659 32137 net.cpp:382] ip3 -> ip3
I0426 20:52:10.338773 32137 net.cpp:124] Setting up ip3
I0426 20:52:10.338780 32137 net.cpp:131] Top shape: 64 10 (640)
I0426 20:52:10.338783 32137 net.cpp:139] Memory required for data: 5118720
I0426 20:52:10.338791 32137 layer_factory.hpp:77] Creating layer relu3
I0426 20:52:10.338796 32137 net.cpp:86] Creating Layer relu3
I0426 20:52:10.338799 32137 net.cpp:408] relu3 <- ip3
I0426 20:52:10.338804 32137 net.cpp:369] relu3 -> ip3 (in-place)
I0426 20:52:10.338969 32137 net.cpp:124] Setting up relu3
I0426 20:52:10.338977 32137 net.cpp:131] Top shape: 64 10 (640)
I0426 20:52:10.338981 32137 net.cpp:139] Memory required for data: 5121280
I0426 20:52:10.338985 32137 layer_factory.hpp:77] Creating layer loss
I0426 20:52:10.338990 32137 net.cpp:86] Creating Layer loss
I0426 20:52:10.338994 32137 net.cpp:408] loss <- ip3
I0426 20:52:10.338999 32137 net.cpp:408] loss <- label
I0426 20:52:10.339004 32137 net.cpp:382] loss -> loss
I0426 20:52:10.339018 32137 layer_factory.hpp:77] Creating layer loss
…
I0426 20:52:10.339633 32137 solver.cpp:173] Creating test net (#0) specified by net file: ECE595/mnist/train_test/var_everything/lenet_train_test105.prototxt
I0426 20:52:10.339689 32137 net.cpp:296] The NetState phase (1) differed from the phase (0) specified by a rule in layer mnist
I0426 20:52:10.339790 32137 net.cpp:53] Initializing net from parameters: 
name: "LeNet"
state {
  phase: TEST
}
layer {
  name: "mnist"
  type: "Data"
  top: "data"
  top: "label"
  include {
    phase: TEST
  }
  transform_param {
    scale: 0.00390625
  }
  data_param {
    source: "examples/mnist/mnist_test_lmdb"
    batch_size: 100
    backend: LMDB
  }
}
layer {
  name: "conv0"
  type: "Convolution"
  bottom: "data"
  top: "conv0"
  param {
    lr_mult: 1
  }
  param {
    lr_mult: 2
  }
  convolution_param {
    num_output: 25
    kernel_size: 5
    stride: 1
    weight_filler {
      type: "xavier"
    }
    bias_filler {
      type: "constant"
    }
  }
}
layer {
  name: "pool0"
  type: "Pooling"
  bottom: "conv0"
  top: "pool0"
  pooling_param {
    pool: MAX
    kernel_size: 2
    stride: 2
  }
}
layer {
  name: "conv1"
  type: "Convolution"
  bottom: "pool0"
  top: "conv1"
  param {
    lr_mult: 1
  }
  param {
    lr_mult: 2
  }
  convolution_param {
    num_output: 10
    kernel_size: 5
    stride: 1
    weight_filler {
      type: "xavier"
    }
    bias_filler {
      type: "constant"
    }
  }
}
layer {
  name: "pool1"
  type: "Pooling"
  bottom: "conv1"
  top: "pool1"
  pooling_param {
    pool: MAX
    kernel_size: 2
    stride: 2
  }
}
layer {
  name: "ip1"
  type: "InnerProduct"
  bottom: "pool1"
  top: "ip1"
  param {
    lr_mult: 1
  }
  param {
    lr_mult: 2
  }
  inner_product_param {
    num_output: 100
    weight_filler {
      type: "xavier"
    }
    bias_filler {
      type: "constant"
    }
  }
}
layer {
  name: "relu1"
  type: "ReLU"
  bottom: "ip1"
  top: "ip1"
}
layer {
  name: "ip2"
  type: "InnerProduct"
  bottom: "ip1"
  top: "ip2"
  param {
    lr_mult: 1
  }
  param {
    lr_mult: 2
  }
  inner_product_param {
    num_output: 100
    weight_filler {
      type: "xavier"
    }
    bias_filler {
      type: "constant"
    }
  }
}
layer {
  name: "relu2"
  type: "ReLU"
  bottom: "ip2"
  top: "ip2"
}
layer {
  name: "ip3"
  type: "InnerProduct"
  bottom: "ip2"
  top: "ip3"
  param {
    lr_mult: 1
  }
  param {
    lr_mult: 2
  }
  inner_product_param {
    num_output: 10
    weight_filler {
      type: "xavier"
    }
    bias_filler {
      type: "constant"
    }
  }
}
layer {
  name: "relu3"
  type: "ReLU"
  bottom: "ip3"
  top: "ip3"
}
layer {
  name: "accuracy"
  type: "Accuracy"
  bottom: "ip3"
  bottom: "label"
  top: "accuracy"
  include {
    phase: TEST
  }
}
layer {
  name: "loss"
  type: "SoftmaxWithLoss"
  bottom: "ip3"
  bottom: "label"
  top: "loss"
}
I0426 20:52:10.339881 32137 layer_factory.hpp:77] Creating layer mnist
I0426 20:52:10.339926 32137 db_lmdb.cpp:35] Opened lmdb examples/mnist/mnist_test_lmdb
I0426 20:52:10.339937 32137 net.cpp:86] Creating Layer mnist
I0426 20:52:10.339941 32137 net.cpp:382] mnist -> data
I0426 20:52:10.339949 32137 net.cpp:382] mnist -> label
I0426 20:52:10.340030 32137 data_layer.cpp:45] output data size: 100,1,28,28
I0426 20:52:10.342039 32137 net.cpp:124] Setting up mnist
I0426 20:52:10.342052 32137 net.cpp:131] Top shape: 100 1 28 28 (78400)
I0426 20:52:10.342056 32137 net.cpp:131] Top shape: 100 (100)
I0426 20:52:10.342059 32137 net.cpp:139] Memory required for data: 314000
I0426 20:52:10.342063 32137 layer_factory.hpp:77] Creating layer label_mnist_1_split
I0426 20:52:10.342069 32137 net.cpp:86] Creating Layer label_mnist_1_split
I0426 20:52:10.342072 32137 net.cpp:408] label_mnist_1_split <- label
I0426 20:52:10.342077 32137 net.cpp:382] label_mnist_1_split -> label_mnist_1_split_0
I0426 20:52:10.342082 32137 net.cpp:382] label_mnist_1_split -> label_mnist_1_split_1
I0426 20:52:10.342149 32137 net.cpp:124] Setting up label_mnist_1_split
I0426 20:52:10.342154 32137 net.cpp:131] Top shape: 100 (100)
I0426 20:52:10.342157 32137 net.cpp:131] Top shape: 100 (100)
I0426 20:52:10.342160 32137 net.cpp:139] Memory required for data: 314800
I0426 20:52:10.342162 32137 layer_factory.hpp:77] Creating layer conv0
I0426 20:52:10.342170 32137 net.cpp:86] Creating Layer conv0
I0426 20:52:10.342173 32137 net.cpp:408] conv0 <- data
I0426 20:52:10.342178 32137 net.cpp:382] conv0 -> conv0
I0426 20:52:10.343740 32137 net.cpp:124] Setting up conv0
I0426 20:52:10.343753 32137 net.cpp:131] Top shape: 100 25 24 24 (1440000)
I0426 20:52:10.343756 32137 net.cpp:139] Memory required for data: 6074800
I0426 20:52:10.343765 32137 layer_factory.hpp:77] Creating layer pool0
I0426 20:52:10.343771 32137 net.cpp:86] Creating Layer pool0
I0426 20:52:10.343775 32137 net.cpp:408] pool0 <- conv0
I0426 20:52:10.343778 32137 net.cpp:382] pool0 -> pool0
I0426 20:52:10.343811 32137 net.cpp:124] Setting up pool0
I0426 20:52:10.343816 32137 net.cpp:131] Top shape: 100 25 12 12 (360000)
I0426 20:52:10.343819 32137 net.cpp:139] Memory required for data: 7514800
I0426 20:52:10.343822 32137 layer_factory.hpp:77] Creating layer conv1
I0426 20:52:10.343845 32137 net.cpp:86] Creating Layer conv1
I0426 20:52:10.343848 32137 net.cpp:408] conv1 <- pool0
I0426 20:52:10.343852 32137 net.cpp:382] conv1 -> conv1
I0426 20:52:10.346108 32137 net.cpp:124] Setting up conv1
I0426 20:52:10.346122 32137 net.cpp:131] Top shape: 100 10 8 8 (64000)
I0426 20:52:10.346127 32137 net.cpp:139] Memory required for data: 7770800
I0426 20:52:10.346135 32137 layer_factory.hpp:77] Creating layer pool1
I0426 20:52:10.346141 32137 net.cpp:86] Creating Layer pool1
I0426 20:52:10.346166 32137 net.cpp:408] pool1 <- conv1
I0426 20:52:10.346171 32137 net.cpp:382] pool1 -> pool1
I0426 20:52:10.346207 32137 net.cpp:124] Setting up pool1
I0426 20:52:10.346212 32137 net.cpp:131] Top shape: 100 10 4 4 (16000)
I0426 20:52:10.346215 32137 net.cpp:139] Memory required for data: 7834800
I0426 20:52:10.346218 32137 layer_factory.hpp:77] Creating layer ip1
I0426 20:52:10.346225 32137 net.cpp:86] Creating Layer ip1
I0426 20:52:10.346227 32137 net.cpp:408] ip1 <- pool1
I0426 20:52:10.346254 32137 net.cpp:382] ip1 -> ip1
I0426 20:52:10.346452 32137 net.cpp:124] Setting up ip1
I0426 20:52:10.346460 32137 net.cpp:131] Top shape: 100 100 (10000)
I0426 20:52:10.346472 32137 net.cpp:139] Memory required for data: 7874800
I0426 20:52:10.346480 32137 layer_factory.hpp:77] Creating layer relu1
I0426 20:52:10.346485 32137 net.cpp:86] Creating Layer relu1
I0426 20:52:10.346488 32137 net.cpp:408] relu1 <- ip1
I0426 20:52:10.346493 32137 net.cpp:369] relu1 -> ip1 (in-place)
I0426 20:52:10.346696 32137 net.cpp:124] Setting up relu1
I0426 20:52:10.346704 32137 net.cpp:131] Top shape: 100 100 (10000)
I0426 20:52:10.346709 32137 net.cpp:139] Memory required for data: 7914800
I0426 20:52:10.346711 32137 layer_factory.hpp:77] Creating layer ip2
I0426 20:52:10.346719 32137 net.cpp:86] Creating Layer ip2
I0426 20:52:10.346721 32137 net.cpp:408] ip2 <- ip1
I0426 20:52:10.346726 32137 net.cpp:382] ip2 -> ip2
I0426 20:52:10.346863 32137 net.cpp:124] Setting up ip2
I0426 20:52:10.346869 32137 net.cpp:131] Top shape: 100 100 (10000)
I0426 20:52:10.346873 32137 net.cpp:139] Memory required for data: 7954800
I0426 20:52:10.346879 32137 layer_factory.hpp:77] Creating layer relu2
I0426 20:52:10.346882 32137 net.cpp:86] Creating Layer relu2
I0426 20:52:10.346892 32137 net.cpp:408] relu2 <- ip2
I0426 20:52:10.346896 32137 net.cpp:369] relu2 -> ip2 (in-place)
I0426 20:52:10.347033 32137 net.cpp:124] Setting up relu2
I0426 20:52:10.347040 32137 net.cpp:131] Top shape: 100 100 (10000)
I0426 20:52:10.347050 32137 net.cpp:139] Memory required for data: 7994800
I0426 20:52:10.347054 32137 layer_factory.hpp:77] Creating layer ip3
I0426 20:52:10.347059 32137 net.cpp:86] Creating Layer ip3
I0426 20:52:10.347067 32137 net.cpp:408] ip3 <- ip2
I0426 20:52:10.347071 32137 net.cpp:382] ip3 -> ip3
I0426 20:52:10.347185 32137 net.cpp:124] Setting up ip3
I0426 20:52:10.347193 32137 net.cpp:131] Top shape: 100 10 (1000)
I0426 20:52:10.347196 32137 net.cpp:139] Memory required for data: 7998800
I0426 20:52:10.347203 32137 layer_factory.hpp:77] Creating layer relu3
I0426 20:52:10.347208 32137 net.cpp:86] Creating Layer relu3
I0426 20:52:10.347211 32137 net.cpp:408] relu3 <- ip3
I0426 20:52:10.347215 32137 net.cpp:369] relu3 -> ip3 (in-place)
I0426 20:52:10.348078 32137 net.cpp:124] Setting up relu3
I0426 20:52:10.348089 32137 net.cpp:131] Top shape: 100 10 (1000)
I0426 20:52:10.348099 32137 net.cpp:139] Memory required for data: 8002800
I0426 20:52:10.348104 32137 layer_factory.hpp:77] Creating layer ip3_relu3_0_split
I0426 20:52:10.348109 32137 net.cpp:86] Creating Layer ip3_relu3_0_split
I0426 20:52:10.348111 32137 net.cpp:408] ip3_relu3_0_split <- ip3
I0426 20:52:10.348116 32137 net.cpp:382] ip3_relu3_0_split -> ip3_relu3_0_split_0
I0426 20:52:10.348122 32137 net.cpp:382] ip3_relu3_0_split -> ip3_relu3_0_split_1
I0426 20:52:10.348202 32137 net.cpp:124] Setting up ip3_relu3_0_split
I0426 20:52:10.348208 32137 net.cpp:131] Top shape: 100 10 (1000)
I0426 20:52:10.348212 32137 net.cpp:131] Top shape: 100 10 (1000)
I0426 20:52:10.348214 32137 net.cpp:139] Memory required for data: 8010800
I0426 20:52:10.348217 32137 layer_factory.hpp:77] Creating layer accuracy
I0426 20:52:10.348222 32137 net.cpp:86] Creating Layer accuracy
I0426 20:52:10.348227 32137 net.cpp:408] accuracy <- ip3_relu3_0_split_0
I0426 20:52:10.348232 32137 net.cpp:408] accuracy <- label_mnist_1_split_0
I0426 20:52:10.348235 32137 net.cpp:382] accuracy -> accuracy
…
