…
I0426 20:49:29.598327 31536 net.cpp:296] The NetState phase (0) differed from the phase (1) specified by a rule in layer mnist
I0426 20:49:29.598357 31536 net.cpp:296] The NetState phase (0) differed from the phase (1) specified by a rule in layer accuracy
I0426 20:49:29.598446 31536 net.cpp:53] Initializing net from parameters: 
name: "LeNet"
state {
  phase: TRAIN
  level: 0
  stage: ""
}
layer {
  name: "mnist"
  type: "Data"
  top: "data"
  top: "label"
  include {
    phase: TRAIN
  }
  transform_param {
    scale: 0.00390625
  }
  data_param {
    source: "examples/mnist/mnist_train_lmdb"
    batch_size: 64
    backend: LMDB
  }
}
layer {
  name: "conv0"
  type: "Convolution"
  bottom: "data"
  top: "conv0"
  param {
    lr_mult: 1
  }
  param {
    lr_mult: 2
  }
  convolution_param {
    num_output: 25
    kernel_size: 5
    stride: 1
    weight_filler {
      type: "xavier"
    }
    bias_filler {
      type: "constant"
    }
  }
}
layer {
  name: "pool0"
  type: "Pooling"
  bottom: "conv0"
  top: "pool0"
  pooling_param {
    pool: MAX
    kernel_size: 2
    stride: 2
  }
}
layer {
  name: "ip1"
  type: "InnerProduct"
  bottom: "pool0"
  top: "ip1"
  param {
    lr_mult: 1
  }
  param {
    lr_mult: 2
  }
  inner_product_param {
    num_output: 100
    weight_filler {
      type: "xavier"
    }
    bias_filler {
      type: "constant"
    }
  }
}
layer {
  name: "relu1"
  type: "ReLU"
  bottom: "ip1"
  top: "ip1"
}
layer {
  name: "ip2"
  type: "InnerProduct"
  bottom: "ip1"
  top: "ip2"
  param {
    lr_mult: 1
  }
  param {
    lr_mult: 2
  }
  inner_product_param {
    num_output: 300
    weight_filler {
      type: "xavier"
    }
    bias_filler {
      type: "constant"
    }
  }
}
layer {
  name: "relu2"
  type: "ReLU"
  bottom: "ip2"
  top: "ip2"
}
layer {
  name: "ip3"
  type: "InnerProduct"
  bottom: "ip2"
  top: "ip3"
  param {
    lr_mult: 1
  }
  param {
    lr_mult: 2
  }
  inner_product_param {
    num_output: 10
    weight_filler {
      type: "xavier"
    }
    bias_filler {
      type: "constant"
    }
  }
}
layer {
  name: "relu3"
  type: "ReLU"
  bottom: "ip3"
  top: "ip3"
}
layer {
  name: "loss"
  type: "SoftmaxWithLoss"
  bottom: "ip3"
  bottom: "label"
  top: "loss"
}
I0426 20:49:29.598510 31536 layer_factory.hpp:77] Creating layer mnist
I0426 20:49:29.598597 31536 db_lmdb.cpp:35] Opened lmdb examples/mnist/mnist_train_lmdb
I0426 20:49:29.598630 31536 net.cpp:86] Creating Layer mnist
I0426 20:49:29.598639 31536 net.cpp:382] mnist -> data
I0426 20:49:29.598656 31536 net.cpp:382] mnist -> label
I0426 20:49:29.599647 31536 data_layer.cpp:45] output data size: 64,1,28,28
I0426 20:49:29.601830 31536 net.cpp:124] Setting up mnist
I0426 20:49:29.601861 31536 net.cpp:131] Top shape: 64 1 28 28 (50176)
I0426 20:49:29.601866 31536 net.cpp:131] Top shape: 64 (64)
I0426 20:49:29.601867 31536 net.cpp:139] Memory required for data: 200960
I0426 20:49:29.601873 31536 layer_factory.hpp:77] Creating layer conv0
I0426 20:49:29.601903 31536 net.cpp:86] Creating Layer conv0
I0426 20:49:29.601908 31536 net.cpp:408] conv0 <- data
I0426 20:49:29.601933 31536 net.cpp:382] conv0 -> conv0
I0426 20:49:29.831681 31536 net.cpp:124] Setting up conv0
I0426 20:49:29.831725 31536 net.cpp:131] Top shape: 64 25 24 24 (921600)
I0426 20:49:29.831729 31536 net.cpp:139] Memory required for data: 3887360
I0426 20:49:29.831743 31536 layer_factory.hpp:77] Creating layer pool0
I0426 20:49:29.831756 31536 net.cpp:86] Creating Layer pool0
I0426 20:49:29.831795 31536 net.cpp:408] pool0 <- conv0
I0426 20:49:29.831802 31536 net.cpp:382] pool0 -> pool0
I0426 20:49:29.831849 31536 net.cpp:124] Setting up pool0
I0426 20:49:29.831856 31536 net.cpp:131] Top shape: 64 25 12 12 (230400)
I0426 20:49:29.831859 31536 net.cpp:139] Memory required for data: 4808960
I0426 20:49:29.831862 31536 layer_factory.hpp:77] Creating layer ip1
I0426 20:49:29.831871 31536 net.cpp:86] Creating Layer ip1
I0426 20:49:29.831874 31536 net.cpp:408] ip1 <- pool0
I0426 20:49:29.831895 31536 net.cpp:382] ip1 -> ip1
I0426 20:49:29.834898 31536 net.cpp:124] Setting up ip1
I0426 20:49:29.834911 31536 net.cpp:131] Top shape: 64 100 (6400)
I0426 20:49:29.834913 31536 net.cpp:139] Memory required for data: 4834560
I0426 20:49:29.834936 31536 layer_factory.hpp:77] Creating layer relu1
I0426 20:49:29.834944 31536 net.cpp:86] Creating Layer relu1
I0426 20:49:29.834961 31536 net.cpp:408] relu1 <- ip1
I0426 20:49:29.834967 31536 net.cpp:369] relu1 -> ip1 (in-place)
I0426 20:49:29.835155 31536 net.cpp:124] Setting up relu1
I0426 20:49:29.835165 31536 net.cpp:131] Top shape: 64 100 (6400)
I0426 20:49:29.835167 31536 net.cpp:139] Memory required for data: 4860160
I0426 20:49:29.835170 31536 layer_factory.hpp:77] Creating layer ip2
I0426 20:49:29.835178 31536 net.cpp:86] Creating Layer ip2
I0426 20:49:29.835181 31536 net.cpp:408] ip2 <- ip1
I0426 20:49:29.835186 31536 net.cpp:382] ip2 -> ip2
I0426 20:49:29.835480 31536 net.cpp:124] Setting up ip2
I0426 20:49:29.835487 31536 net.cpp:131] Top shape: 64 300 (19200)
I0426 20:49:29.835505 31536 net.cpp:139] Memory required for data: 4936960
I0426 20:49:29.835511 31536 layer_factory.hpp:77] Creating layer relu2
I0426 20:49:29.835532 31536 net.cpp:86] Creating Layer relu2
I0426 20:49:29.835536 31536 net.cpp:408] relu2 <- ip2
I0426 20:49:29.835556 31536 net.cpp:369] relu2 -> ip2 (in-place)
I0426 20:49:29.836405 31536 net.cpp:124] Setting up relu2
I0426 20:49:29.836416 31536 net.cpp:131] Top shape: 64 300 (19200)
I0426 20:49:29.836431 31536 net.cpp:139] Memory required for data: 5013760
I0426 20:49:29.836434 31536 layer_factory.hpp:77] Creating layer ip3
I0426 20:49:29.836442 31536 net.cpp:86] Creating Layer ip3
I0426 20:49:29.836446 31536 net.cpp:408] ip3 <- ip2
I0426 20:49:29.836450 31536 net.cpp:382] ip3 -> ip3
I0426 20:49:29.837491 31536 net.cpp:124] Setting up ip3
I0426 20:49:29.837502 31536 net.cpp:131] Top shape: 64 10 (640)
I0426 20:49:29.837517 31536 net.cpp:139] Memory required for data: 5016320
I0426 20:49:29.837522 31536 layer_factory.hpp:77] Creating layer relu3
I0426 20:49:29.837530 31536 net.cpp:86] Creating Layer relu3
I0426 20:49:29.837533 31536 net.cpp:408] relu3 <- ip3
I0426 20:49:29.837538 31536 net.cpp:369] relu3 -> ip3 (in-place)
I0426 20:49:29.837719 31536 net.cpp:124] Setting up relu3
I0426 20:49:29.837744 31536 net.cpp:131] Top shape: 64 10 (640)
I0426 20:49:29.837748 31536 net.cpp:139] Memory required for data: 5018880
I0426 20:49:29.837750 31536 layer_factory.hpp:77] Creating layer loss
I0426 20:49:29.837759 31536 net.cpp:86] Creating Layer loss
I0426 20:49:29.837761 31536 net.cpp:408] loss <- ip3
I0426 20:49:29.837765 31536 net.cpp:408] loss <- label
I0426 20:49:29.837770 31536 net.cpp:382] loss -> loss
I0426 20:49:29.837785 31536 layer_factory.hpp:77] Creating layer loss
…
I0426 20:49:29.838469 31536 solver.cpp:173] Creating test net (#0) specified by net file: ECE595/mnist/train_test/var_everything/lenet_train_test37.prototxt
I0426 20:49:29.838493 31536 net.cpp:296] The NetState phase (1) differed from the phase (0) specified by a rule in layer mnist
I0426 20:49:29.838575 31536 net.cpp:53] Initializing net from parameters: 
name: "LeNet"
state {
  phase: TEST
}
layer {
  name: "mnist"
  type: "Data"
  top: "data"
  top: "label"
  include {
    phase: TEST
  }
  transform_param {
    scale: 0.00390625
  }
  data_param {
    source: "examples/mnist/mnist_test_lmdb"
    batch_size: 100
    backend: LMDB
  }
}
layer {
  name: "conv0"
  type: "Convolution"
  bottom: "data"
  top: "conv0"
  param {
    lr_mult: 1
  }
  param {
    lr_mult: 2
  }
  convolution_param {
    num_output: 25
    kernel_size: 5
    stride: 1
    weight_filler {
      type: "xavier"
    }
    bias_filler {
      type: "constant"
    }
  }
}
layer {
  name: "pool0"
  type: "Pooling"
  bottom: "conv0"
  top: "pool0"
  pooling_param {
    pool: MAX
    kernel_size: 2
    stride: 2
  }
}
layer {
  name: "ip1"
  type: "InnerProduct"
  bottom: "pool0"
  top: "ip1"
  param {
    lr_mult: 1
  }
  param {
    lr_mult: 2
  }
  inner_product_param {
    num_output: 100
    weight_filler {
      type: "xavier"
    }
    bias_filler {
      type: "constant"
    }
  }
}
layer {
  name: "relu1"
  type: "ReLU"
  bottom: "ip1"
  top: "ip1"
}
layer {
  name: "ip2"
  type: "InnerProduct"
  bottom: "ip1"
  top: "ip2"
  param {
    lr_mult: 1
  }
  param {
    lr_mult: 2
  }
  inner_product_param {
    num_output: 300
    weight_filler {
      type: "xavier"
    }
    bias_filler {
      type: "constant"
    }
  }
}
layer {
  name: "relu2"
  type: "ReLU"
  bottom: "ip2"
  top: "ip2"
}
layer {
  name: "ip3"
  type: "InnerProduct"
  bottom: "ip2"
  top: "ip3"
  param {
    lr_mult: 1
  }
  param {
    lr_mult: 2
  }
  inner_product_param {
    num_output: 10
    weight_filler {
      type: "xavier"
    }
    bias_filler {
      type: "constant"
    }
  }
}
layer {
  name: "relu3"
  type: "ReLU"
  bottom: "ip3"
  top: "ip3"
}
layer {
  name: "accuracy"
  type: "Accuracy"
  bottom: "ip3"
  bottom: "label"
  top: "accuracy"
  include {
    phase: TEST
  }
}
layer {
  name: "loss"
  type: "SoftmaxWithLoss"
  bottom: "ip3"
  bottom: "label"
  top: "loss"
}
I0426 20:49:29.838651 31536 layer_factory.hpp:77] Creating layer mnist
I0426 20:49:29.838698 31536 db_lmdb.cpp:35] Opened lmdb examples/mnist/mnist_test_lmdb
I0426 20:49:29.838711 31536 net.cpp:86] Creating Layer mnist
I0426 20:49:29.838716 31536 net.cpp:382] mnist -> data
I0426 20:49:29.838723 31536 net.cpp:382] mnist -> label
I0426 20:49:29.838809 31536 data_layer.cpp:45] output data size: 100,1,28,28
I0426 20:49:29.841111 31536 net.cpp:124] Setting up mnist
I0426 20:49:29.841125 31536 net.cpp:131] Top shape: 100 1 28 28 (78400)
I0426 20:49:29.841130 31536 net.cpp:131] Top shape: 100 (100)
I0426 20:49:29.841135 31536 net.cpp:139] Memory required for data: 314000
I0426 20:49:29.841137 31536 layer_factory.hpp:77] Creating layer label_mnist_1_split
I0426 20:49:29.841145 31536 net.cpp:86] Creating Layer label_mnist_1_split
I0426 20:49:29.841150 31536 net.cpp:408] label_mnist_1_split <- label
I0426 20:49:29.841156 31536 net.cpp:382] label_mnist_1_split -> label_mnist_1_split_0
I0426 20:49:29.841163 31536 net.cpp:382] label_mnist_1_split -> label_mnist_1_split_1
I0426 20:49:29.841258 31536 net.cpp:124] Setting up label_mnist_1_split
I0426 20:49:29.841264 31536 net.cpp:131] Top shape: 100 (100)
I0426 20:49:29.841269 31536 net.cpp:131] Top shape: 100 (100)
I0426 20:49:29.841271 31536 net.cpp:139] Memory required for data: 314800
I0426 20:49:29.841284 31536 layer_factory.hpp:77] Creating layer conv0
I0426 20:49:29.841295 31536 net.cpp:86] Creating Layer conv0
I0426 20:49:29.841298 31536 net.cpp:408] conv0 <- data
I0426 20:49:29.841305 31536 net.cpp:382] conv0 -> conv0
I0426 20:49:29.843096 31536 net.cpp:124] Setting up conv0
I0426 20:49:29.843109 31536 net.cpp:131] Top shape: 100 25 24 24 (1440000)
I0426 20:49:29.843113 31536 net.cpp:139] Memory required for data: 6074800
I0426 20:49:29.843122 31536 layer_factory.hpp:77] Creating layer pool0
I0426 20:49:29.843138 31536 net.cpp:86] Creating Layer pool0
I0426 20:49:29.843142 31536 net.cpp:408] pool0 <- conv0
I0426 20:49:29.843147 31536 net.cpp:382] pool0 -> pool0
I0426 20:49:29.843199 31536 net.cpp:124] Setting up pool0
I0426 20:49:29.843204 31536 net.cpp:131] Top shape: 100 25 12 12 (360000)
I0426 20:49:29.843206 31536 net.cpp:139] Memory required for data: 7514800
I0426 20:49:29.843225 31536 layer_factory.hpp:77] Creating layer ip1
I0426 20:49:29.843233 31536 net.cpp:86] Creating Layer ip1
I0426 20:49:29.843236 31536 net.cpp:408] ip1 <- pool0
I0426 20:49:29.843242 31536 net.cpp:382] ip1 -> ip1
I0426 20:49:29.845448 31536 net.cpp:124] Setting up ip1
I0426 20:49:29.845458 31536 net.cpp:131] Top shape: 100 100 (10000)
I0426 20:49:29.845460 31536 net.cpp:139] Memory required for data: 7554800
I0426 20:49:29.845468 31536 layer_factory.hpp:77] Creating layer relu1
I0426 20:49:29.845473 31536 net.cpp:86] Creating Layer relu1
I0426 20:49:29.845476 31536 net.cpp:408] relu1 <- ip1
I0426 20:49:29.845480 31536 net.cpp:369] relu1 -> ip1 (in-place)
I0426 20:49:29.845684 31536 net.cpp:124] Setting up relu1
I0426 20:49:29.845692 31536 net.cpp:131] Top shape: 100 100 (10000)
I0426 20:49:29.845695 31536 net.cpp:139] Memory required for data: 7594800
I0426 20:49:29.845698 31536 layer_factory.hpp:77] Creating layer ip2
I0426 20:49:29.845705 31536 net.cpp:86] Creating Layer ip2
I0426 20:49:29.845716 31536 net.cpp:408] ip2 <- ip1
I0426 20:49:29.845722 31536 net.cpp:382] ip2 -> ip2
I0426 20:49:29.846055 31536 net.cpp:124] Setting up ip2
I0426 20:49:29.846063 31536 net.cpp:131] Top shape: 100 300 (30000)
I0426 20:49:29.846066 31536 net.cpp:139] Memory required for data: 7714800
I0426 20:49:29.846074 31536 layer_factory.hpp:77] Creating layer relu2
I0426 20:49:29.846081 31536 net.cpp:86] Creating Layer relu2
I0426 20:49:29.846084 31536 net.cpp:408] relu2 <- ip2
I0426 20:49:29.846089 31536 net.cpp:369] relu2 -> ip2 (in-place)
I0426 20:49:29.847049 31536 net.cpp:124] Setting up relu2
I0426 20:49:29.847061 31536 net.cpp:131] Top shape: 100 300 (30000)
I0426 20:49:29.847064 31536 net.cpp:139] Memory required for data: 7834800
I0426 20:49:29.847069 31536 layer_factory.hpp:77] Creating layer ip3
I0426 20:49:29.847076 31536 net.cpp:86] Creating Layer ip3
I0426 20:49:29.847080 31536 net.cpp:408] ip3 <- ip2
I0426 20:49:29.847086 31536 net.cpp:382] ip3 -> ip3
I0426 20:49:29.847218 31536 net.cpp:124] Setting up ip3
I0426 20:49:29.847228 31536 net.cpp:131] Top shape: 100 10 (1000)
I0426 20:49:29.847230 31536 net.cpp:139] Memory required for data: 7838800
I0426 20:49:29.847236 31536 layer_factory.hpp:77] Creating layer relu3
I0426 20:49:29.847240 31536 net.cpp:86] Creating Layer relu3
I0426 20:49:29.847244 31536 net.cpp:408] relu3 <- ip3
I0426 20:49:29.847247 31536 net.cpp:369] relu3 -> ip3 (in-place)
I0426 20:49:29.847404 31536 net.cpp:124] Setting up relu3
I0426 20:49:29.847412 31536 net.cpp:131] Top shape: 100 10 (1000)
I0426 20:49:29.847415 31536 net.cpp:139] Memory required for data: 7842800
I0426 20:49:29.847419 31536 layer_factory.hpp:77] Creating layer ip3_relu3_0_split
I0426 20:49:29.847431 31536 net.cpp:86] Creating Layer ip3_relu3_0_split
I0426 20:49:29.847435 31536 net.cpp:408] ip3_relu3_0_split <- ip3
I0426 20:49:29.847440 31536 net.cpp:382] ip3_relu3_0_split -> ip3_relu3_0_split_0
I0426 20:49:29.847450 31536 net.cpp:382] ip3_relu3_0_split -> ip3_relu3_0_split_1
I0426 20:49:29.847487 31536 net.cpp:124] Setting up ip3_relu3_0_split
I0426 20:49:29.847492 31536 net.cpp:131] Top shape: 100 10 (1000)
I0426 20:49:29.847506 31536 net.cpp:131] Top shape: 100 10 (1000)
I0426 20:49:29.847510 31536 net.cpp:139] Memory required for data: 7850800
I0426 20:49:29.847513 31536 layer_factory.hpp:77] Creating layer accuracy
I0426 20:49:29.847518 31536 net.cpp:86] Creating Layer accuracy
I0426 20:49:29.847522 31536 net.cpp:408] accuracy <- ip3_relu3_0_split_0
I0426 20:49:29.847527 31536 net.cpp:408] accuracy <- label_mnist_1_split_0
I0426 20:49:29.847532 31536 net.cpp:382] accuracy -> accuracy
…
