…
I0426 20:52:45.060571 32260 net.cpp:296] The NetState phase (0) differed from the phase (1) specified by a rule in layer mnist
I0426 20:52:45.060588 32260 net.cpp:296] The NetState phase (0) differed from the phase (1) specified by a rule in layer accuracy
I0426 20:52:45.060690 32260 net.cpp:53] Initializing net from parameters: 
name: "LeNet"
state {
  phase: TRAIN
  level: 0
  stage: ""
}
layer {
  name: "mnist"
  type: "Data"
  top: "data"
  top: "label"
  include {
    phase: TRAIN
  }
  transform_param {
    scale: 0.00390625
  }
  data_param {
    source: "examples/mnist/mnist_train_lmdb"
    batch_size: 64
    backend: LMDB
  }
}
layer {
  name: "conv0"
  type: "Convolution"
  bottom: "data"
  top: "conv0"
  param {
    lr_mult: 1
  }
  param {
    lr_mult: 2
  }
  convolution_param {
    num_output: 25
    kernel_size: 5
    stride: 1
    weight_filler {
      type: "xavier"
    }
    bias_filler {
      type: "constant"
    }
  }
}
layer {
  name: "pool0"
  type: "Pooling"
  bottom: "conv0"
  top: "pool0"
  pooling_param {
    pool: MAX
    kernel_size: 2
    stride: 2
  }
}
layer {
  name: "conv1"
  type: "Convolution"
  bottom: "pool0"
  top: "conv1"
  param {
    lr_mult: 1
  }
  param {
    lr_mult: 2
  }
  convolution_param {
    num_output: 25
    kernel_size: 5
    stride: 1
    weight_filler {
      type: "xavier"
    }
    bias_filler {
      type: "constant"
    }
  }
}
layer {
  name: "pool1"
  type: "Pooling"
  bottom: "conv1"
  top: "pool1"
  pooling_param {
    pool: MAX
    kernel_size: 2
    stride: 2
  }
}
layer {
  name: "ip1"
  type: "InnerProduct"
  bottom: "pool1"
  top: "ip1"
  param {
    lr_mult: 1
  }
  param {
    lr_mult: 2
  }
  inner_product_param {
    num_output: 100
    weight_filler {
      type: "xavier"
    }
    bias_filler {
      type: "constant"
    }
  }
}
layer {
  name: "relu1"
  type: "ReLU"
  bottom: "ip1"
  top: "ip1"
}
layer {
  name: "ip2"
  type: "InnerProduct"
  bottom: "ip1"
  top: "ip2"
  param {
    lr_mult: 1
  }
  param {
    lr_mult: 2
  }
  inner_product_param {
    num_output: 300
    weight_filler {
      type: "xavier"
    }
    bias_filler {
      type: "constant"
    }
  }
}
layer {
  name: "relu2"
  type: "ReLU"
  bottom: "ip2"
  top: "ip2"
}
layer {
  name: "ip3"
  type: "InnerProduct"
  bottom: "ip2"
  top: "ip3"
  param {
    lr_mult: 1
  }
  param {
    lr_mult: 2
  }
  inner_product_param {
    num_output: 10
    weight_filler {
      type: "xavier"
    }
    bias_filler {
      type: "constant"
    }
  }
}
layer {
  name: "relu3"
  type: "ReLU"
  bottom: "ip3"
  top: "ip3"
}
layer {
  name: "loss"
  type: "SoftmaxWithLoss"
  bottom: "ip3"
  bottom: "label"
  top: "loss"
}
I0426 20:52:45.060765 32260 layer_factory.hpp:77] Creating layer mnist
I0426 20:52:45.060889 32260 db_lmdb.cpp:35] Opened lmdb examples/mnist/mnist_train_lmdb
I0426 20:52:45.060915 32260 net.cpp:86] Creating Layer mnist
I0426 20:52:45.060925 32260 net.cpp:382] mnist -> data
I0426 20:52:45.060947 32260 net.cpp:382] mnist -> label
I0426 20:52:45.062038 32260 data_layer.cpp:45] output data size: 64,1,28,28
I0426 20:52:45.064549 32260 net.cpp:124] Setting up mnist
I0426 20:52:45.064568 32260 net.cpp:131] Top shape: 64 1 28 28 (50176)
I0426 20:52:45.064574 32260 net.cpp:131] Top shape: 64 (64)
I0426 20:52:45.064579 32260 net.cpp:139] Memory required for data: 200960
I0426 20:52:45.064586 32260 layer_factory.hpp:77] Creating layer conv0
I0426 20:52:45.064602 32260 net.cpp:86] Creating Layer conv0
I0426 20:52:45.064626 32260 net.cpp:408] conv0 <- data
I0426 20:52:45.064640 32260 net.cpp:382] conv0 -> conv0
I0426 20:52:45.361703 32260 net.cpp:124] Setting up conv0
I0426 20:52:45.361734 32260 net.cpp:131] Top shape: 64 25 24 24 (921600)
I0426 20:52:45.361739 32260 net.cpp:139] Memory required for data: 3887360
I0426 20:52:45.361758 32260 layer_factory.hpp:77] Creating layer pool0
I0426 20:52:45.361771 32260 net.cpp:86] Creating Layer pool0
I0426 20:52:45.361779 32260 net.cpp:408] pool0 <- conv0
I0426 20:52:45.361785 32260 net.cpp:382] pool0 -> pool0
I0426 20:52:45.361838 32260 net.cpp:124] Setting up pool0
I0426 20:52:45.361848 32260 net.cpp:131] Top shape: 64 25 12 12 (230400)
I0426 20:52:45.361852 32260 net.cpp:139] Memory required for data: 4808960
I0426 20:52:45.361855 32260 layer_factory.hpp:77] Creating layer conv1
I0426 20:52:45.361868 32260 net.cpp:86] Creating Layer conv1
I0426 20:52:45.361873 32260 net.cpp:408] conv1 <- pool0
I0426 20:52:45.361881 32260 net.cpp:382] conv1 -> conv1
I0426 20:52:45.365280 32260 net.cpp:124] Setting up conv1
I0426 20:52:45.365298 32260 net.cpp:131] Top shape: 64 25 8 8 (102400)
I0426 20:52:45.365303 32260 net.cpp:139] Memory required for data: 5218560
I0426 20:52:45.365314 32260 layer_factory.hpp:77] Creating layer pool1
I0426 20:52:45.365324 32260 net.cpp:86] Creating Layer pool1
I0426 20:52:45.365327 32260 net.cpp:408] pool1 <- conv1
I0426 20:52:45.365334 32260 net.cpp:382] pool1 -> pool1
I0426 20:52:45.365382 32260 net.cpp:124] Setting up pool1
I0426 20:52:45.365391 32260 net.cpp:131] Top shape: 64 25 4 4 (25600)
I0426 20:52:45.365394 32260 net.cpp:139] Memory required for data: 5320960
I0426 20:52:45.365398 32260 layer_factory.hpp:77] Creating layer ip1
I0426 20:52:45.365406 32260 net.cpp:86] Creating Layer ip1
I0426 20:52:45.365413 32260 net.cpp:408] ip1 <- pool1
I0426 20:52:45.365419 32260 net.cpp:382] ip1 -> ip1
I0426 20:52:45.365819 32260 net.cpp:124] Setting up ip1
I0426 20:52:45.365828 32260 net.cpp:131] Top shape: 64 100 (6400)
I0426 20:52:45.365833 32260 net.cpp:139] Memory required for data: 5346560
I0426 20:52:45.365842 32260 layer_factory.hpp:77] Creating layer relu1
I0426 20:52:45.365850 32260 net.cpp:86] Creating Layer relu1
I0426 20:52:45.365854 32260 net.cpp:408] relu1 <- ip1
I0426 20:52:45.365859 32260 net.cpp:369] relu1 -> ip1 (in-place)
I0426 20:52:45.366066 32260 net.cpp:124] Setting up relu1
I0426 20:52:45.366077 32260 net.cpp:131] Top shape: 64 100 (6400)
I0426 20:52:45.366081 32260 net.cpp:139] Memory required for data: 5372160
I0426 20:52:45.366084 32260 layer_factory.hpp:77] Creating layer ip2
I0426 20:52:45.366094 32260 net.cpp:86] Creating Layer ip2
I0426 20:52:45.366099 32260 net.cpp:408] ip2 <- ip1
I0426 20:52:45.366108 32260 net.cpp:382] ip2 -> ip2
I0426 20:52:45.366439 32260 net.cpp:124] Setting up ip2
I0426 20:52:45.366448 32260 net.cpp:131] Top shape: 64 300 (19200)
I0426 20:52:45.366452 32260 net.cpp:139] Memory required for data: 5448960
I0426 20:52:45.366458 32260 layer_factory.hpp:77] Creating layer relu2
I0426 20:52:45.366466 32260 net.cpp:86] Creating Layer relu2
I0426 20:52:45.366469 32260 net.cpp:408] relu2 <- ip2
I0426 20:52:45.366475 32260 net.cpp:369] relu2 -> ip2 (in-place)
I0426 20:52:45.367418 32260 net.cpp:124] Setting up relu2
I0426 20:52:45.367434 32260 net.cpp:131] Top shape: 64 300 (19200)
I0426 20:52:45.367437 32260 net.cpp:139] Memory required for data: 5525760
I0426 20:52:45.367441 32260 layer_factory.hpp:77] Creating layer ip3
I0426 20:52:45.367451 32260 net.cpp:86] Creating Layer ip3
I0426 20:52:45.367455 32260 net.cpp:408] ip3 <- ip2
I0426 20:52:45.367463 32260 net.cpp:382] ip3 -> ip3
I0426 20:52:45.368571 32260 net.cpp:124] Setting up ip3
I0426 20:52:45.368587 32260 net.cpp:131] Top shape: 64 10 (640)
I0426 20:52:45.368589 32260 net.cpp:139] Memory required for data: 5528320
I0426 20:52:45.368600 32260 layer_factory.hpp:77] Creating layer relu3
I0426 20:52:45.368607 32260 net.cpp:86] Creating Layer relu3
I0426 20:52:45.368610 32260 net.cpp:408] relu3 <- ip3
I0426 20:52:45.368618 32260 net.cpp:369] relu3 -> ip3 (in-place)
I0426 20:52:45.368845 32260 net.cpp:124] Setting up relu3
I0426 20:52:45.368856 32260 net.cpp:131] Top shape: 64 10 (640)
I0426 20:52:45.368861 32260 net.cpp:139] Memory required for data: 5530880
I0426 20:52:45.368866 32260 layer_factory.hpp:77] Creating layer loss
I0426 20:52:45.368873 32260 net.cpp:86] Creating Layer loss
I0426 20:52:45.368877 32260 net.cpp:408] loss <- ip3
I0426 20:52:45.368882 32260 net.cpp:408] loss <- label
I0426 20:52:45.368891 32260 net.cpp:382] loss -> loss
I0426 20:52:45.368911 32260 layer_factory.hpp:77] Creating layer loss
…
I0426 20:52:45.369678 32260 solver.cpp:173] Creating test net (#0) specified by net file: ECE595/mnist/train_test/var_everything/lenet_train_test120.prototxt
I0426 20:52:45.369710 32260 net.cpp:296] The NetState phase (1) differed from the phase (0) specified by a rule in layer mnist
I0426 20:52:45.369822 32260 net.cpp:53] Initializing net from parameters: 
name: "LeNet"
state {
  phase: TEST
}
layer {
  name: "mnist"
  type: "Data"
  top: "data"
  top: "label"
  include {
    phase: TEST
  }
  transform_param {
    scale: 0.00390625
  }
  data_param {
    source: "examples/mnist/mnist_test_lmdb"
    batch_size: 100
    backend: LMDB
  }
}
layer {
  name: "conv0"
  type: "Convolution"
  bottom: "data"
  top: "conv0"
  param {
    lr_mult: 1
  }
  param {
    lr_mult: 2
  }
  convolution_param {
    num_output: 25
    kernel_size: 5
    stride: 1
    weight_filler {
      type: "xavier"
    }
    bias_filler {
      type: "constant"
    }
  }
}
layer {
  name: "pool0"
  type: "Pooling"
  bottom: "conv0"
  top: "pool0"
  pooling_param {
    pool: MAX
    kernel_size: 2
    stride: 2
  }
}
layer {
  name: "conv1"
  type: "Convolution"
  bottom: "pool0"
  top: "conv1"
  param {
    lr_mult: 1
  }
  param {
    lr_mult: 2
  }
  convolution_param {
    num_output: 25
    kernel_size: 5
    stride: 1
    weight_filler {
      type: "xavier"
    }
    bias_filler {
      type: "constant"
    }
  }
}
layer {
  name: "pool1"
  type: "Pooling"
  bottom: "conv1"
  top: "pool1"
  pooling_param {
    pool: MAX
    kernel_size: 2
    stride: 2
  }
}
layer {
  name: "ip1"
  type: "InnerProduct"
  bottom: "pool1"
  top: "ip1"
  param {
    lr_mult: 1
  }
  param {
    lr_mult: 2
  }
  inner_product_param {
    num_output: 100
    weight_filler {
      type: "xavier"
    }
    bias_filler {
      type: "constant"
    }
  }
}
layer {
  name: "relu1"
  type: "ReLU"
  bottom: "ip1"
  top: "ip1"
}
layer {
  name: "ip2"
  type: "InnerProduct"
  bottom: "ip1"
  top: "ip2"
  param {
    lr_mult: 1
  }
  param {
    lr_mult: 2
  }
  inner_product_param {
    num_output: 300
    weight_filler {
      type: "xavier"
    }
    bias_filler {
      type: "constant"
    }
  }
}
layer {
  name: "relu2"
  type: "ReLU"
  bottom: "ip2"
  top: "ip2"
}
layer {
  name: "ip3"
  type: "InnerProduct"
  bottom: "ip2"
  top: "ip3"
  param {
    lr_mult: 1
  }
  param {
    lr_mult: 2
  }
  inner_product_param {
    num_output: 10
    weight_filler {
      type: "xavier"
    }
    bias_filler {
      type: "constant"
    }
  }
}
layer {
  name: "relu3"
  type: "ReLU"
  bottom: "ip3"
  top: "ip3"
}
layer {
  name: "accuracy"
  type: "Accuracy"
  bottom: "ip3"
  bottom: "label"
  top: "accuracy"
  include {
    phase: TEST
  }
}
layer {
  name: "loss"
  type: "SoftmaxWithLoss"
  bottom: "ip3"
  bottom: "label"
  top: "loss"
}
I0426 20:52:45.369925 32260 layer_factory.hpp:77] Creating layer mnist
I0426 20:52:45.369978 32260 db_lmdb.cpp:35] Opened lmdb examples/mnist/mnist_test_lmdb
I0426 20:52:45.369997 32260 net.cpp:86] Creating Layer mnist
I0426 20:52:45.370004 32260 net.cpp:382] mnist -> data
I0426 20:52:45.370015 32260 net.cpp:382] mnist -> label
I0426 20:52:45.370122 32260 data_layer.cpp:45] output data size: 100,1,28,28
I0426 20:52:45.372390 32260 net.cpp:124] Setting up mnist
I0426 20:52:45.372406 32260 net.cpp:131] Top shape: 100 1 28 28 (78400)
I0426 20:52:45.372412 32260 net.cpp:131] Top shape: 100 (100)
I0426 20:52:45.372416 32260 net.cpp:139] Memory required for data: 314000
I0426 20:52:45.372421 32260 layer_factory.hpp:77] Creating layer label_mnist_1_split
I0426 20:52:45.372452 32260 net.cpp:86] Creating Layer label_mnist_1_split
I0426 20:52:45.372457 32260 net.cpp:408] label_mnist_1_split <- label
I0426 20:52:45.372463 32260 net.cpp:382] label_mnist_1_split -> label_mnist_1_split_0
I0426 20:52:45.372472 32260 net.cpp:382] label_mnist_1_split -> label_mnist_1_split_1
I0426 20:52:45.372575 32260 net.cpp:124] Setting up label_mnist_1_split
I0426 20:52:45.372586 32260 net.cpp:131] Top shape: 100 (100)
I0426 20:52:45.372592 32260 net.cpp:131] Top shape: 100 (100)
I0426 20:52:45.372596 32260 net.cpp:139] Memory required for data: 314800
I0426 20:52:45.372599 32260 layer_factory.hpp:77] Creating layer conv0
I0426 20:52:45.372611 32260 net.cpp:86] Creating Layer conv0
I0426 20:52:45.372615 32260 net.cpp:408] conv0 <- data
I0426 20:52:45.372622 32260 net.cpp:382] conv0 -> conv0
I0426 20:52:45.374455 32260 net.cpp:124] Setting up conv0
I0426 20:52:45.374474 32260 net.cpp:131] Top shape: 100 25 24 24 (1440000)
I0426 20:52:45.374478 32260 net.cpp:139] Memory required for data: 6074800
I0426 20:52:45.374488 32260 layer_factory.hpp:77] Creating layer pool0
I0426 20:52:45.374500 32260 net.cpp:86] Creating Layer pool0
I0426 20:52:45.374503 32260 net.cpp:408] pool0 <- conv0
I0426 20:52:45.374510 32260 net.cpp:382] pool0 -> pool0
I0426 20:52:45.374557 32260 net.cpp:124] Setting up pool0
I0426 20:52:45.374564 32260 net.cpp:131] Top shape: 100 25 12 12 (360000)
I0426 20:52:45.374568 32260 net.cpp:139] Memory required for data: 7514800
I0426 20:52:45.374575 32260 layer_factory.hpp:77] Creating layer conv1
I0426 20:52:45.374586 32260 net.cpp:86] Creating Layer conv1
I0426 20:52:45.374590 32260 net.cpp:408] conv1 <- pool0
I0426 20:52:45.374598 32260 net.cpp:382] conv1 -> conv1
I0426 20:52:45.377275 32260 net.cpp:124] Setting up conv1
I0426 20:52:45.377291 32260 net.cpp:131] Top shape: 100 25 8 8 (160000)
I0426 20:52:45.377296 32260 net.cpp:139] Memory required for data: 8154800
I0426 20:52:45.377307 32260 layer_factory.hpp:77] Creating layer pool1
I0426 20:52:45.377318 32260 net.cpp:86] Creating Layer pool1
I0426 20:52:45.377322 32260 net.cpp:408] pool1 <- conv1
I0426 20:52:45.377332 32260 net.cpp:382] pool1 -> pool1
I0426 20:52:45.377419 32260 net.cpp:124] Setting up pool1
I0426 20:52:45.377429 32260 net.cpp:131] Top shape: 100 25 4 4 (40000)
I0426 20:52:45.377432 32260 net.cpp:139] Memory required for data: 8314800
I0426 20:52:45.377439 32260 layer_factory.hpp:77] Creating layer ip1
I0426 20:52:45.377447 32260 net.cpp:86] Creating Layer ip1
I0426 20:52:45.377454 32260 net.cpp:408] ip1 <- pool1
I0426 20:52:45.377461 32260 net.cpp:382] ip1 -> ip1
I0426 20:52:45.377861 32260 net.cpp:124] Setting up ip1
I0426 20:52:45.377872 32260 net.cpp:131] Top shape: 100 100 (10000)
I0426 20:52:45.377888 32260 net.cpp:139] Memory required for data: 8354800
I0426 20:52:45.377898 32260 layer_factory.hpp:77] Creating layer relu1
I0426 20:52:45.377905 32260 net.cpp:86] Creating Layer relu1
I0426 20:52:45.377910 32260 net.cpp:408] relu1 <- ip1
I0426 20:52:45.377915 32260 net.cpp:369] relu1 -> ip1 (in-place)
I0426 20:52:45.378152 32260 net.cpp:124] Setting up relu1
I0426 20:52:45.378165 32260 net.cpp:131] Top shape: 100 100 (10000)
I0426 20:52:45.378170 32260 net.cpp:139] Memory required for data: 8394800
I0426 20:52:45.378175 32260 layer_factory.hpp:77] Creating layer ip2
I0426 20:52:45.378183 32260 net.cpp:86] Creating Layer ip2
I0426 20:52:45.378187 32260 net.cpp:408] ip2 <- ip1
I0426 20:52:45.378196 32260 net.cpp:382] ip2 -> ip2
I0426 20:52:45.378532 32260 net.cpp:124] Setting up ip2
I0426 20:52:45.378541 32260 net.cpp:131] Top shape: 100 300 (30000)
I0426 20:52:45.378545 32260 net.cpp:139] Memory required for data: 8514800
I0426 20:52:45.378551 32260 layer_factory.hpp:77] Creating layer relu2
I0426 20:52:45.378559 32260 net.cpp:86] Creating Layer relu2
I0426 20:52:45.378563 32260 net.cpp:408] relu2 <- ip2
I0426 20:52:45.378569 32260 net.cpp:369] relu2 -> ip2 (in-place)
I0426 20:52:45.378762 32260 net.cpp:124] Setting up relu2
I0426 20:52:45.378772 32260 net.cpp:131] Top shape: 100 300 (30000)
I0426 20:52:45.378777 32260 net.cpp:139] Memory required for data: 8634800
I0426 20:52:45.378780 32260 layer_factory.hpp:77] Creating layer ip3
I0426 20:52:45.378788 32260 net.cpp:86] Creating Layer ip3
I0426 20:52:45.378793 32260 net.cpp:408] ip3 <- ip2
I0426 20:52:45.378799 32260 net.cpp:382] ip3 -> ip3
I0426 20:52:45.378942 32260 net.cpp:124] Setting up ip3
I0426 20:52:45.378950 32260 net.cpp:131] Top shape: 100 10 (1000)
I0426 20:52:45.378954 32260 net.cpp:139] Memory required for data: 8638800
I0426 20:52:45.378964 32260 layer_factory.hpp:77] Creating layer relu3
I0426 20:52:45.378970 32260 net.cpp:86] Creating Layer relu3
I0426 20:52:45.378976 32260 net.cpp:408] relu3 <- ip3
I0426 20:52:45.378983 32260 net.cpp:369] relu3 -> ip3 (in-place)
I0426 20:52:45.379941 32260 net.cpp:124] Setting up relu3
I0426 20:52:45.379956 32260 net.cpp:131] Top shape: 100 10 (1000)
I0426 20:52:45.379962 32260 net.cpp:139] Memory required for data: 8642800
I0426 20:52:45.379967 32260 layer_factory.hpp:77] Creating layer ip3_relu3_0_split
I0426 20:52:45.379976 32260 net.cpp:86] Creating Layer ip3_relu3_0_split
I0426 20:52:45.379981 32260 net.cpp:408] ip3_relu3_0_split <- ip3
I0426 20:52:45.379987 32260 net.cpp:382] ip3_relu3_0_split -> ip3_relu3_0_split_0
I0426 20:52:45.379994 32260 net.cpp:382] ip3_relu3_0_split -> ip3_relu3_0_split_1
I0426 20:52:45.380043 32260 net.cpp:124] Setting up ip3_relu3_0_split
I0426 20:52:45.380050 32260 net.cpp:131] Top shape: 100 10 (1000)
I0426 20:52:45.380054 32260 net.cpp:131] Top shape: 100 10 (1000)
I0426 20:52:45.380059 32260 net.cpp:139] Memory required for data: 8650800
I0426 20:52:45.380064 32260 layer_factory.hpp:77] Creating layer accuracy
I0426 20:52:45.380069 32260 net.cpp:86] Creating Layer accuracy
I0426 20:52:45.380074 32260 net.cpp:408] accuracy <- ip3_relu3_0_split_0
I0426 20:52:45.380079 32260 net.cpp:408] accuracy <- label_mnist_1_split_0
I0426 20:52:45.380084 32260 net.cpp:382] accuracy -> accuracy
…
