…
I0426 20:53:28.361713 32444 net.cpp:296] The NetState phase (0) differed from the phase (1) specified by a rule in layer mnist
I0426 20:53:28.361732 32444 net.cpp:296] The NetState phase (0) differed from the phase (1) specified by a rule in layer accuracy
I0426 20:53:28.361831 32444 net.cpp:53] Initializing net from parameters: 
name: "LeNet"
state {
  phase: TRAIN
  level: 0
  stage: ""
}
layer {
  name: "mnist"
  type: "Data"
  top: "data"
  top: "label"
  include {
    phase: TRAIN
  }
  transform_param {
    scale: 0.00390625
  }
  data_param {
    source: "examples/mnist/mnist_train_lmdb"
    batch_size: 64
    backend: LMDB
  }
}
layer {
  name: "conv0"
  type: "Convolution"
  bottom: "data"
  top: "conv0"
  param {
    lr_mult: 1
  }
  param {
    lr_mult: 2
  }
  convolution_param {
    num_output: 25
    kernel_size: 5
    stride: 1
    weight_filler {
      type: "xavier"
    }
    bias_filler {
      type: "constant"
    }
  }
}
layer {
  name: "pool0"
  type: "Pooling"
  bottom: "conv0"
  top: "pool0"
  pooling_param {
    pool: MAX
    kernel_size: 2
    stride: 2
  }
}
layer {
  name: "conv1"
  type: "Convolution"
  bottom: "pool0"
  top: "conv1"
  param {
    lr_mult: 1
  }
  param {
    lr_mult: 2
  }
  convolution_param {
    num_output: 50
    kernel_size: 5
    stride: 1
    weight_filler {
      type: "xavier"
    }
    bias_filler {
      type: "constant"
    }
  }
}
layer {
  name: "pool1"
  type: "Pooling"
  bottom: "conv1"
  top: "pool1"
  pooling_param {
    pool: MAX
    kernel_size: 2
    stride: 2
  }
}
layer {
  name: "ip1"
  type: "InnerProduct"
  bottom: "pool1"
  top: "ip1"
  param {
    lr_mult: 1
  }
  param {
    lr_mult: 2
  }
  inner_product_param {
    num_output: 300
    weight_filler {
      type: "xavier"
    }
    bias_filler {
      type: "constant"
    }
  }
}
layer {
  name: "relu1"
  type: "ReLU"
  bottom: "ip1"
  top: "ip1"
}
layer {
  name: "ip2"
  type: "InnerProduct"
  bottom: "ip1"
  top: "ip2"
  param {
    lr_mult: 1
  }
  param {
    lr_mult: 2
  }
  inner_product_param {
    num_output: 100
    weight_filler {
      type: "xavier"
    }
    bias_filler {
      type: "constant"
    }
  }
}
layer {
  name: "relu2"
  type: "ReLU"
  bottom: "ip2"
  top: "ip2"
}
layer {
  name: "ip3"
  type: "InnerProduct"
  bottom: "ip2"
  top: "ip3"
  param {
    lr_mult: 1
  }
  param {
    lr_mult: 2
  }
  inner_product_param {
    num_output: 10
    weight_filler {
      type: "xavier"
    }
    bias_filler {
      type: "constant"
    }
  }
}
layer {
  name: "relu3"
  type: "ReLU"
  bottom: "ip3"
  top: "ip3"
}
layer {
  name: "loss"
  type: "SoftmaxWithLoss"
  bottom: "ip3"
  bottom: "label"
  top: "loss"
}
I0426 20:53:28.361912 32444 layer_factory.hpp:77] Creating layer mnist
I0426 20:53:28.362010 32444 db_lmdb.cpp:35] Opened lmdb examples/mnist/mnist_train_lmdb
I0426 20:53:28.362033 32444 net.cpp:86] Creating Layer mnist
I0426 20:53:28.362042 32444 net.cpp:382] mnist -> data
I0426 20:53:28.362064 32444 net.cpp:382] mnist -> label
I0426 20:53:28.363168 32444 data_layer.cpp:45] output data size: 64,1,28,28
I0426 20:53:28.365912 32444 net.cpp:124] Setting up mnist
I0426 20:53:28.365931 32444 net.cpp:131] Top shape: 64 1 28 28 (50176)
I0426 20:53:28.365938 32444 net.cpp:131] Top shape: 64 (64)
I0426 20:53:28.365942 32444 net.cpp:139] Memory required for data: 200960
I0426 20:53:28.365948 32444 layer_factory.hpp:77] Creating layer conv0
I0426 20:53:28.365967 32444 net.cpp:86] Creating Layer conv0
I0426 20:53:28.365986 32444 net.cpp:408] conv0 <- data
I0426 20:53:28.365999 32444 net.cpp:382] conv0 -> conv0
I0426 20:53:28.619102 32444 net.cpp:124] Setting up conv0
I0426 20:53:28.619127 32444 net.cpp:131] Top shape: 64 25 24 24 (921600)
I0426 20:53:28.619130 32444 net.cpp:139] Memory required for data: 3887360
I0426 20:53:28.619160 32444 layer_factory.hpp:77] Creating layer pool0
I0426 20:53:28.619174 32444 net.cpp:86] Creating Layer pool0
I0426 20:53:28.619179 32444 net.cpp:408] pool0 <- conv0
I0426 20:53:28.619184 32444 net.cpp:382] pool0 -> pool0
I0426 20:53:28.619241 32444 net.cpp:124] Setting up pool0
I0426 20:53:28.619247 32444 net.cpp:131] Top shape: 64 25 12 12 (230400)
I0426 20:53:28.619251 32444 net.cpp:139] Memory required for data: 4808960
I0426 20:53:28.619253 32444 layer_factory.hpp:77] Creating layer conv1
I0426 20:53:28.619263 32444 net.cpp:86] Creating Layer conv1
I0426 20:53:28.619266 32444 net.cpp:408] conv1 <- pool0
I0426 20:53:28.619271 32444 net.cpp:382] conv1 -> conv1
I0426 20:53:28.621335 32444 net.cpp:124] Setting up conv1
I0426 20:53:28.621350 32444 net.cpp:131] Top shape: 64 50 8 8 (204800)
I0426 20:53:28.621352 32444 net.cpp:139] Memory required for data: 5628160
I0426 20:53:28.621376 32444 layer_factory.hpp:77] Creating layer pool1
I0426 20:53:28.621383 32444 net.cpp:86] Creating Layer pool1
I0426 20:53:28.621387 32444 net.cpp:408] pool1 <- conv1
I0426 20:53:28.621392 32444 net.cpp:382] pool1 -> pool1
I0426 20:53:28.621443 32444 net.cpp:124] Setting up pool1
I0426 20:53:28.621448 32444 net.cpp:131] Top shape: 64 50 4 4 (51200)
I0426 20:53:28.621451 32444 net.cpp:139] Memory required for data: 5832960
I0426 20:53:28.621454 32444 layer_factory.hpp:77] Creating layer ip1
I0426 20:53:28.621461 32444 net.cpp:86] Creating Layer ip1
I0426 20:53:28.621464 32444 net.cpp:408] ip1 <- pool1
I0426 20:53:28.621469 32444 net.cpp:382] ip1 -> ip1
I0426 20:53:28.623646 32444 net.cpp:124] Setting up ip1
I0426 20:53:28.623673 32444 net.cpp:131] Top shape: 64 300 (19200)
I0426 20:53:28.623677 32444 net.cpp:139] Memory required for data: 5909760
I0426 20:53:28.623684 32444 layer_factory.hpp:77] Creating layer relu1
I0426 20:53:28.623690 32444 net.cpp:86] Creating Layer relu1
I0426 20:53:28.623694 32444 net.cpp:408] relu1 <- ip1
I0426 20:53:28.623698 32444 net.cpp:369] relu1 -> ip1 (in-place)
I0426 20:53:28.623919 32444 net.cpp:124] Setting up relu1
I0426 20:53:28.623927 32444 net.cpp:131] Top shape: 64 300 (19200)
I0426 20:53:28.623931 32444 net.cpp:139] Memory required for data: 5986560
I0426 20:53:28.623934 32444 layer_factory.hpp:77] Creating layer ip2
I0426 20:53:28.623941 32444 net.cpp:86] Creating Layer ip2
I0426 20:53:28.623944 32444 net.cpp:408] ip2 <- ip1
I0426 20:53:28.623950 32444 net.cpp:382] ip2 -> ip2
I0426 20:53:28.624213 32444 net.cpp:124] Setting up ip2
I0426 20:53:28.624220 32444 net.cpp:131] Top shape: 64 100 (6400)
I0426 20:53:28.624223 32444 net.cpp:139] Memory required for data: 6012160
I0426 20:53:28.624228 32444 layer_factory.hpp:77] Creating layer relu2
I0426 20:53:28.624234 32444 net.cpp:86] Creating Layer relu2
I0426 20:53:28.624238 32444 net.cpp:408] relu2 <- ip2
I0426 20:53:28.624241 32444 net.cpp:369] relu2 -> ip2 (in-place)
I0426 20:53:28.625046 32444 net.cpp:124] Setting up relu2
I0426 20:53:28.625072 32444 net.cpp:131] Top shape: 64 100 (6400)
I0426 20:53:28.625077 32444 net.cpp:139] Memory required for data: 6037760
I0426 20:53:28.625079 32444 layer_factory.hpp:77] Creating layer ip3
I0426 20:53:28.625087 32444 net.cpp:86] Creating Layer ip3
I0426 20:53:28.625089 32444 net.cpp:408] ip3 <- ip2
I0426 20:53:28.625111 32444 net.cpp:382] ip3 -> ip3
I0426 20:53:28.625217 32444 net.cpp:124] Setting up ip3
I0426 20:53:28.625226 32444 net.cpp:131] Top shape: 64 10 (640)
I0426 20:53:28.625228 32444 net.cpp:139] Memory required for data: 6040320
I0426 20:53:28.625236 32444 layer_factory.hpp:77] Creating layer relu3
I0426 20:53:28.625241 32444 net.cpp:86] Creating Layer relu3
I0426 20:53:28.625243 32444 net.cpp:408] relu3 <- ip3
I0426 20:53:28.625247 32444 net.cpp:369] relu3 -> ip3 (in-place)
I0426 20:53:28.625412 32444 net.cpp:124] Setting up relu3
I0426 20:53:28.625422 32444 net.cpp:131] Top shape: 64 10 (640)
I0426 20:53:28.625424 32444 net.cpp:139] Memory required for data: 6042880
I0426 20:53:28.625427 32444 layer_factory.hpp:77] Creating layer loss
I0426 20:53:28.625433 32444 net.cpp:86] Creating Layer loss
I0426 20:53:28.625437 32444 net.cpp:408] loss <- ip3
I0426 20:53:28.625440 32444 net.cpp:408] loss <- label
I0426 20:53:28.625445 32444 net.cpp:382] loss -> loss
I0426 20:53:28.625463 32444 layer_factory.hpp:77] Creating layer loss
…
I0426 20:53:28.626113 32444 solver.cpp:173] Creating test net (#0) specified by net file: ECE595/mnist/train_test/var_everything/lenet_train_test137.prototxt
I0426 20:53:28.626183 32444 net.cpp:296] The NetState phase (1) differed from the phase (0) specified by a rule in layer mnist
I0426 20:53:28.626284 32444 net.cpp:53] Initializing net from parameters: 
name: "LeNet"
state {
  phase: TEST
}
layer {
  name: "mnist"
  type: "Data"
  top: "data"
  top: "label"
  include {
    phase: TEST
  }
  transform_param {
    scale: 0.00390625
  }
  data_param {
    source: "examples/mnist/mnist_test_lmdb"
    batch_size: 100
    backend: LMDB
  }
}
layer {
  name: "conv0"
  type: "Convolution"
  bottom: "data"
  top: "conv0"
  param {
    lr_mult: 1
  }
  param {
    lr_mult: 2
  }
  convolution_param {
    num_output: 25
    kernel_size: 5
    stride: 1
    weight_filler {
      type: "xavier"
    }
    bias_filler {
      type: "constant"
    }
  }
}
layer {
  name: "pool0"
  type: "Pooling"
  bottom: "conv0"
  top: "pool0"
  pooling_param {
    pool: MAX
    kernel_size: 2
    stride: 2
  }
}
layer {
  name: "conv1"
  type: "Convolution"
  bottom: "pool0"
  top: "conv1"
  param {
    lr_mult: 1
  }
  param {
    lr_mult: 2
  }
  convolution_param {
    num_output: 50
    kernel_size: 5
    stride: 1
    weight_filler {
      type: "xavier"
    }
    bias_filler {
      type: "constant"
    }
  }
}
layer {
  name: "pool1"
  type: "Pooling"
  bottom: "conv1"
  top: "pool1"
  pooling_param {
    pool: MAX
    kernel_size: 2
    stride: 2
  }
}
layer {
  name: "ip1"
  type: "InnerProduct"
  bottom: "pool1"
  top: "ip1"
  param {
    lr_mult: 1
  }
  param {
    lr_mult: 2
  }
  inner_product_param {
    num_output: 300
    weight_filler {
      type: "xavier"
    }
    bias_filler {
      type: "constant"
    }
  }
}
layer {
  name: "relu1"
  type: "ReLU"
  bottom: "ip1"
  top: "ip1"
}
layer {
  name: "ip2"
  type: "InnerProduct"
  bottom: "ip1"
  top: "ip2"
  param {
    lr_mult: 1
  }
  param {
    lr_mult: 2
  }
  inner_product_param {
    num_output: 100
    weight_filler {
      type: "xavier"
    }
    bias_filler {
      type: "constant"
    }
  }
}
layer {
  name: "relu2"
  type: "ReLU"
  bottom: "ip2"
  top: "ip2"
}
layer {
  name: "ip3"
  type: "InnerProduct"
  bottom: "ip2"
  top: "ip3"
  param {
    lr_mult: 1
  }
  param {
    lr_mult: 2
  }
  inner_product_param {
    num_output: 10
    weight_filler {
      type: "xavier"
    }
    bias_filler {
      type: "constant"
    }
  }
}
layer {
  name: "relu3"
  type: "ReLU"
  bottom: "ip3"
  top: "ip3"
}
layer {
  name: "accuracy"
  type: "Accuracy"
  bottom: "ip3"
  bottom: "label"
  top: "accuracy"
  include {
    phase: TEST
  }
}
layer {
  name: "loss"
  type: "SoftmaxWithLoss"
  bottom: "ip3"
  bottom: "label"
  top: "loss"
}
I0426 20:53:28.626370 32444 layer_factory.hpp:77] Creating layer mnist
I0426 20:53:28.626412 32444 db_lmdb.cpp:35] Opened lmdb examples/mnist/mnist_test_lmdb
I0426 20:53:28.626425 32444 net.cpp:86] Creating Layer mnist
I0426 20:53:28.626430 32444 net.cpp:382] mnist -> data
I0426 20:53:28.626437 32444 net.cpp:382] mnist -> label
I0426 20:53:28.626519 32444 data_layer.cpp:45] output data size: 100,1,28,28
I0426 20:53:28.628543 32444 net.cpp:124] Setting up mnist
I0426 20:53:28.628572 32444 net.cpp:131] Top shape: 100 1 28 28 (78400)
I0426 20:53:28.628576 32444 net.cpp:131] Top shape: 100 (100)
I0426 20:53:28.628579 32444 net.cpp:139] Memory required for data: 314000
I0426 20:53:28.628582 32444 layer_factory.hpp:77] Creating layer label_mnist_1_split
I0426 20:53:28.628617 32444 net.cpp:86] Creating Layer label_mnist_1_split
I0426 20:53:28.628620 32444 net.cpp:408] label_mnist_1_split <- label
I0426 20:53:28.628624 32444 net.cpp:382] label_mnist_1_split -> label_mnist_1_split_0
I0426 20:53:28.628641 32444 net.cpp:382] label_mnist_1_split -> label_mnist_1_split_1
I0426 20:53:28.628684 32444 net.cpp:124] Setting up label_mnist_1_split
I0426 20:53:28.628689 32444 net.cpp:131] Top shape: 100 (100)
I0426 20:53:28.628691 32444 net.cpp:131] Top shape: 100 (100)
I0426 20:53:28.628695 32444 net.cpp:139] Memory required for data: 314800
I0426 20:53:28.628697 32444 layer_factory.hpp:77] Creating layer conv0
I0426 20:53:28.628706 32444 net.cpp:86] Creating Layer conv0
I0426 20:53:28.628710 32444 net.cpp:408] conv0 <- data
I0426 20:53:28.628715 32444 net.cpp:382] conv0 -> conv0
I0426 20:53:28.630472 32444 net.cpp:124] Setting up conv0
I0426 20:53:28.630486 32444 net.cpp:131] Top shape: 100 25 24 24 (1440000)
I0426 20:53:28.630489 32444 net.cpp:139] Memory required for data: 6074800
I0426 20:53:28.630497 32444 layer_factory.hpp:77] Creating layer pool0
I0426 20:53:28.630519 32444 net.cpp:86] Creating Layer pool0
I0426 20:53:28.630522 32444 net.cpp:408] pool0 <- conv0
I0426 20:53:28.630527 32444 net.cpp:382] pool0 -> pool0
I0426 20:53:28.630561 32444 net.cpp:124] Setting up pool0
I0426 20:53:28.630566 32444 net.cpp:131] Top shape: 100 25 12 12 (360000)
I0426 20:53:28.630569 32444 net.cpp:139] Memory required for data: 7514800
I0426 20:53:28.630573 32444 layer_factory.hpp:77] Creating layer conv1
I0426 20:53:28.630581 32444 net.cpp:86] Creating Layer conv1
I0426 20:53:28.630584 32444 net.cpp:408] conv1 <- pool0
I0426 20:53:28.630589 32444 net.cpp:382] conv1 -> conv1
I0426 20:53:28.632375 32444 net.cpp:124] Setting up conv1
I0426 20:53:28.632388 32444 net.cpp:131] Top shape: 100 50 8 8 (320000)
I0426 20:53:28.632398 32444 net.cpp:139] Memory required for data: 8794800
I0426 20:53:28.632405 32444 layer_factory.hpp:77] Creating layer pool1
I0426 20:53:28.632437 32444 net.cpp:86] Creating Layer pool1
I0426 20:53:28.632441 32444 net.cpp:408] pool1 <- conv1
I0426 20:53:28.632447 32444 net.cpp:382] pool1 -> pool1
I0426 20:53:28.632483 32444 net.cpp:124] Setting up pool1
I0426 20:53:28.632489 32444 net.cpp:131] Top shape: 100 50 4 4 (80000)
I0426 20:53:28.632491 32444 net.cpp:139] Memory required for data: 9114800
I0426 20:53:28.632494 32444 layer_factory.hpp:77] Creating layer ip1
I0426 20:53:28.632503 32444 net.cpp:86] Creating Layer ip1
I0426 20:53:28.632505 32444 net.cpp:408] ip1 <- pool1
I0426 20:53:28.632516 32444 net.cpp:382] ip1 -> ip1
I0426 20:53:28.634090 32444 net.cpp:124] Setting up ip1
I0426 20:53:28.634099 32444 net.cpp:131] Top shape: 100 300 (30000)
I0426 20:53:28.634110 32444 net.cpp:139] Memory required for data: 9234800
I0426 20:53:28.634119 32444 layer_factory.hpp:77] Creating layer relu1
I0426 20:53:28.634133 32444 net.cpp:86] Creating Layer relu1
I0426 20:53:28.634143 32444 net.cpp:408] relu1 <- ip1
I0426 20:53:28.634147 32444 net.cpp:369] relu1 -> ip1 (in-place)
I0426 20:53:28.634356 32444 net.cpp:124] Setting up relu1
I0426 20:53:28.634366 32444 net.cpp:131] Top shape: 100 300 (30000)
I0426 20:53:28.634368 32444 net.cpp:139] Memory required for data: 9354800
I0426 20:53:28.634371 32444 layer_factory.hpp:77] Creating layer ip2
I0426 20:53:28.634377 32444 net.cpp:86] Creating Layer ip2
I0426 20:53:28.634380 32444 net.cpp:408] ip2 <- ip1
I0426 20:53:28.634387 32444 net.cpp:382] ip2 -> ip2
I0426 20:53:28.634693 32444 net.cpp:124] Setting up ip2
I0426 20:53:28.634701 32444 net.cpp:131] Top shape: 100 100 (10000)
I0426 20:53:28.634706 32444 net.cpp:139] Memory required for data: 9394800
I0426 20:53:28.634726 32444 layer_factory.hpp:77] Creating layer relu2
I0426 20:53:28.634730 32444 net.cpp:86] Creating Layer relu2
I0426 20:53:28.634733 32444 net.cpp:408] relu2 <- ip2
I0426 20:53:28.634738 32444 net.cpp:369] relu2 -> ip2 (in-place)
I0426 20:53:28.634896 32444 net.cpp:124] Setting up relu2
I0426 20:53:28.634905 32444 net.cpp:131] Top shape: 100 100 (10000)
I0426 20:53:28.634908 32444 net.cpp:139] Memory required for data: 9434800
I0426 20:53:28.634912 32444 layer_factory.hpp:77] Creating layer ip3
I0426 20:53:28.634923 32444 net.cpp:86] Creating Layer ip3
I0426 20:53:28.634927 32444 net.cpp:408] ip3 <- ip2
I0426 20:53:28.634935 32444 net.cpp:382] ip3 -> ip3
I0426 20:53:28.635038 32444 net.cpp:124] Setting up ip3
I0426 20:53:28.635046 32444 net.cpp:131] Top shape: 100 10 (1000)
I0426 20:53:28.635048 32444 net.cpp:139] Memory required for data: 9438800
I0426 20:53:28.635056 32444 layer_factory.hpp:77] Creating layer relu3
I0426 20:53:28.635066 32444 net.cpp:86] Creating Layer relu3
I0426 20:53:28.635067 32444 net.cpp:408] relu3 <- ip3
I0426 20:53:28.635072 32444 net.cpp:369] relu3 -> ip3 (in-place)
I0426 20:53:28.635985 32444 net.cpp:124] Setting up relu3
I0426 20:53:28.635996 32444 net.cpp:131] Top shape: 100 10 (1000)
I0426 20:53:28.636000 32444 net.cpp:139] Memory required for data: 9442800
I0426 20:53:28.636003 32444 layer_factory.hpp:77] Creating layer ip3_relu3_0_split
I0426 20:53:28.636009 32444 net.cpp:86] Creating Layer ip3_relu3_0_split
I0426 20:53:28.636013 32444 net.cpp:408] ip3_relu3_0_split <- ip3
I0426 20:53:28.636018 32444 net.cpp:382] ip3_relu3_0_split -> ip3_relu3_0_split_0
I0426 20:53:28.636023 32444 net.cpp:382] ip3_relu3_0_split -> ip3_relu3_0_split_1
I0426 20:53:28.636088 32444 net.cpp:124] Setting up ip3_relu3_0_split
I0426 20:53:28.636093 32444 net.cpp:131] Top shape: 100 10 (1000)
I0426 20:53:28.636096 32444 net.cpp:131] Top shape: 100 10 (1000)
I0426 20:53:28.636099 32444 net.cpp:139] Memory required for data: 9450800
I0426 20:53:28.636102 32444 layer_factory.hpp:77] Creating layer accuracy
I0426 20:53:28.636107 32444 net.cpp:86] Creating Layer accuracy
I0426 20:53:28.636109 32444 net.cpp:408] accuracy <- ip3_relu3_0_split_0
I0426 20:53:28.636113 32444 net.cpp:408] accuracy <- label_mnist_1_split_0
I0426 20:53:28.636118 32444 net.cpp:382] accuracy -> accuracy
…
