…
I0426 20:52:28.613634 32201 net.cpp:296] The NetState phase (0) differed from the phase (1) specified by a rule in layer mnist
I0426 20:52:28.613647 32201 net.cpp:296] The NetState phase (0) differed from the phase (1) specified by a rule in layer accuracy
I0426 20:52:28.613709 32201 net.cpp:53] Initializing net from parameters: 
name: "LeNet"
state {
  phase: TRAIN
  level: 0
  stage: ""
}
layer {
  name: "mnist"
  type: "Data"
  top: "data"
  top: "label"
  include {
    phase: TRAIN
  }
  transform_param {
    scale: 0.00390625
  }
  data_param {
    source: "examples/mnist/mnist_train_lmdb"
    batch_size: 64
    backend: LMDB
  }
}
layer {
  name: "conv0"
  type: "Convolution"
  bottom: "data"
  top: "conv0"
  param {
    lr_mult: 1
  }
  param {
    lr_mult: 2
  }
  convolution_param {
    num_output: 25
    kernel_size: 5
    stride: 1
    weight_filler {
      type: "xavier"
    }
    bias_filler {
      type: "constant"
    }
  }
}
layer {
  name: "pool0"
  type: "Pooling"
  bottom: "conv0"
  top: "pool0"
  pooling_param {
    pool: MAX
    kernel_size: 2
    stride: 2
  }
}
layer {
  name: "conv1"
  type: "Convolution"
  bottom: "pool0"
  top: "conv1"
  param {
    lr_mult: 1
  }
  param {
    lr_mult: 2
  }
  convolution_param {
    num_output: 25
    kernel_size: 5
    stride: 1
    weight_filler {
      type: "xavier"
    }
    bias_filler {
      type: "constant"
    }
  }
}
layer {
  name: "pool1"
  type: "Pooling"
  bottom: "conv1"
  top: "pool1"
  pooling_param {
    pool: MAX
    kernel_size: 2
    stride: 2
  }
}
layer {
  name: "ip1"
  type: "InnerProduct"
  bottom: "pool1"
  top: "ip1"
  param {
    lr_mult: 1
  }
  param {
    lr_mult: 2
  }
  inner_product_param {
    num_output: 10
    weight_filler {
      type: "xavier"
    }
    bias_filler {
      type: "constant"
    }
  }
}
layer {
  name: "relu1"
  type: "ReLU"
  bottom: "ip1"
  top: "ip1"
}
layer {
  name: "loss"
  type: "SoftmaxWithLoss"
  bottom: "ip1"
  bottom: "label"
  top: "loss"
}
I0426 20:52:28.613759 32201 layer_factory.hpp:77] Creating layer mnist
I0426 20:52:28.613839 32201 db_lmdb.cpp:35] Opened lmdb examples/mnist/mnist_train_lmdb
I0426 20:52:28.613858 32201 net.cpp:86] Creating Layer mnist
I0426 20:52:28.613863 32201 net.cpp:382] mnist -> data
I0426 20:52:28.613881 32201 net.cpp:382] mnist -> label
I0426 20:52:28.614838 32201 data_layer.cpp:45] output data size: 64,1,28,28
I0426 20:52:28.616947 32201 net.cpp:124] Setting up mnist
I0426 20:52:28.616977 32201 net.cpp:131] Top shape: 64 1 28 28 (50176)
I0426 20:52:28.616982 32201 net.cpp:131] Top shape: 64 (64)
I0426 20:52:28.616986 32201 net.cpp:139] Memory required for data: 200960
I0426 20:52:28.616991 32201 layer_factory.hpp:77] Creating layer conv0
I0426 20:52:28.617003 32201 net.cpp:86] Creating Layer conv0
I0426 20:52:28.617008 32201 net.cpp:408] conv0 <- data
I0426 20:52:28.617033 32201 net.cpp:382] conv0 -> conv0
I0426 20:52:28.855262 32201 net.cpp:124] Setting up conv0
I0426 20:52:28.855288 32201 net.cpp:131] Top shape: 64 25 24 24 (921600)
I0426 20:52:28.855293 32201 net.cpp:139] Memory required for data: 3887360
I0426 20:52:28.855307 32201 layer_factory.hpp:77] Creating layer pool0
I0426 20:52:28.855335 32201 net.cpp:86] Creating Layer pool0
I0426 20:52:28.855339 32201 net.cpp:408] pool0 <- conv0
I0426 20:52:28.855345 32201 net.cpp:382] pool0 -> pool0
I0426 20:52:28.855387 32201 net.cpp:124] Setting up pool0
I0426 20:52:28.855401 32201 net.cpp:131] Top shape: 64 25 12 12 (230400)
I0426 20:52:28.855418 32201 net.cpp:139] Memory required for data: 4808960
I0426 20:52:28.855422 32201 layer_factory.hpp:77] Creating layer conv1
I0426 20:52:28.855432 32201 net.cpp:86] Creating Layer conv1
I0426 20:52:28.855435 32201 net.cpp:408] conv1 <- pool0
I0426 20:52:28.855440 32201 net.cpp:382] conv1 -> conv1
I0426 20:52:28.858309 32201 net.cpp:124] Setting up conv1
I0426 20:52:28.858325 32201 net.cpp:131] Top shape: 64 25 8 8 (102400)
I0426 20:52:28.858328 32201 net.cpp:139] Memory required for data: 5218560
I0426 20:52:28.858336 32201 layer_factory.hpp:77] Creating layer pool1
I0426 20:52:28.858343 32201 net.cpp:86] Creating Layer pool1
I0426 20:52:28.858346 32201 net.cpp:408] pool1 <- conv1
I0426 20:52:28.858367 32201 net.cpp:382] pool1 -> pool1
I0426 20:52:28.858402 32201 net.cpp:124] Setting up pool1
I0426 20:52:28.858408 32201 net.cpp:131] Top shape: 64 25 4 4 (25600)
I0426 20:52:28.858410 32201 net.cpp:139] Memory required for data: 5320960
I0426 20:52:28.858413 32201 layer_factory.hpp:77] Creating layer ip1
I0426 20:52:28.858422 32201 net.cpp:86] Creating Layer ip1
I0426 20:52:28.858424 32201 net.cpp:408] ip1 <- pool1
I0426 20:52:28.858428 32201 net.cpp:382] ip1 -> ip1
I0426 20:52:28.859383 32201 net.cpp:124] Setting up ip1
I0426 20:52:28.859395 32201 net.cpp:131] Top shape: 64 10 (640)
I0426 20:52:28.859398 32201 net.cpp:139] Memory required for data: 5323520
I0426 20:52:28.859406 32201 layer_factory.hpp:77] Creating layer relu1
I0426 20:52:28.859411 32201 net.cpp:86] Creating Layer relu1
I0426 20:52:28.859414 32201 net.cpp:408] relu1 <- ip1
I0426 20:52:28.859434 32201 net.cpp:369] relu1 -> ip1 (in-place)
I0426 20:52:28.859597 32201 net.cpp:124] Setting up relu1
I0426 20:52:28.859606 32201 net.cpp:131] Top shape: 64 10 (640)
I0426 20:52:28.859609 32201 net.cpp:139] Memory required for data: 5326080
I0426 20:52:28.859612 32201 layer_factory.hpp:77] Creating layer loss
I0426 20:52:28.859617 32201 net.cpp:86] Creating Layer loss
I0426 20:52:28.859621 32201 net.cpp:408] loss <- ip1
I0426 20:52:28.859624 32201 net.cpp:408] loss <- label
I0426 20:52:28.859629 32201 net.cpp:382] loss -> loss
I0426 20:52:28.859642 32201 layer_factory.hpp:77] Creating layer loss
…
I0426 20:52:28.860919 32201 solver.cpp:173] Creating test net (#0) specified by net file: ECE595/mnist/train_test/var_everything/lenet_train_test113.prototxt
I0426 20:52:28.860944 32201 net.cpp:296] The NetState phase (1) differed from the phase (0) specified by a rule in layer mnist
I0426 20:52:28.861019 32201 net.cpp:53] Initializing net from parameters: 
name: "LeNet"
state {
  phase: TEST
}
layer {
  name: "mnist"
  type: "Data"
  top: "data"
  top: "label"
  include {
    phase: TEST
  }
  transform_param {
    scale: 0.00390625
  }
  data_param {
    source: "examples/mnist/mnist_test_lmdb"
    batch_size: 100
    backend: LMDB
  }
}
layer {
  name: "conv0"
  type: "Convolution"
  bottom: "data"
  top: "conv0"
  param {
    lr_mult: 1
  }
  param {
    lr_mult: 2
  }
  convolution_param {
    num_output: 25
    kernel_size: 5
    stride: 1
    weight_filler {
      type: "xavier"
    }
    bias_filler {
      type: "constant"
    }
  }
}
layer {
  name: "pool0"
  type: "Pooling"
  bottom: "conv0"
  top: "pool0"
  pooling_param {
    pool: MAX
    kernel_size: 2
    stride: 2
  }
}
layer {
  name: "conv1"
  type: "Convolution"
  bottom: "pool0"
  top: "conv1"
  param {
    lr_mult: 1
  }
  param {
    lr_mult: 2
  }
  convolution_param {
    num_output: 25
    kernel_size: 5
    stride: 1
    weight_filler {
      type: "xavier"
    }
    bias_filler {
      type: "constant"
    }
  }
}
layer {
  name: "pool1"
  type: "Pooling"
  bottom: "conv1"
  top: "pool1"
  pooling_param {
    pool: MAX
    kernel_size: 2
    stride: 2
  }
}
layer {
  name: "ip1"
  type: "InnerProduct"
  bottom: "pool1"
  top: "ip1"
  param {
    lr_mult: 1
  }
  param {
    lr_mult: 2
  }
  inner_product_param {
    num_output: 10
    weight_filler {
      type: "xavier"
    }
    bias_filler {
      type: "constant"
    }
  }
}
layer {
  name: "relu1"
  type: "ReLU"
  bottom: "ip1"
  top: "ip1"
}
layer {
  name: "accuracy"
  type: "Accuracy"
  bottom: "ip1"
  bottom: "label"
  top: "accuracy"
  include {
    phase: TEST
  }
}
layer {
  name: "loss"
  type: "SoftmaxWithLoss"
  bottom: "ip1"
  bottom: "label"
  top: "loss"
}
I0426 20:52:28.861090 32201 layer_factory.hpp:77] Creating layer mnist
I0426 20:52:28.861135 32201 db_lmdb.cpp:35] Opened lmdb examples/mnist/mnist_test_lmdb
I0426 20:52:28.861147 32201 net.cpp:86] Creating Layer mnist
I0426 20:52:28.861166 32201 net.cpp:382] mnist -> data
I0426 20:52:28.861186 32201 net.cpp:382] mnist -> label
I0426 20:52:28.861263 32201 data_layer.cpp:45] output data size: 100,1,28,28
I0426 20:52:28.863157 32201 net.cpp:124] Setting up mnist
I0426 20:52:28.863168 32201 net.cpp:131] Top shape: 100 1 28 28 (78400)
I0426 20:52:28.863173 32201 net.cpp:131] Top shape: 100 (100)
I0426 20:52:28.863176 32201 net.cpp:139] Memory required for data: 314000
I0426 20:52:28.863179 32201 layer_factory.hpp:77] Creating layer label_mnist_1_split
I0426 20:52:28.863186 32201 net.cpp:86] Creating Layer label_mnist_1_split
I0426 20:52:28.863189 32201 net.cpp:408] label_mnist_1_split <- label
I0426 20:52:28.863209 32201 net.cpp:382] label_mnist_1_split -> label_mnist_1_split_0
I0426 20:52:28.863215 32201 net.cpp:382] label_mnist_1_split -> label_mnist_1_split_1
I0426 20:52:28.863281 32201 net.cpp:124] Setting up label_mnist_1_split
I0426 20:52:28.863288 32201 net.cpp:131] Top shape: 100 (100)
I0426 20:52:28.863292 32201 net.cpp:131] Top shape: 100 (100)
I0426 20:52:28.863296 32201 net.cpp:139] Memory required for data: 314800
I0426 20:52:28.863298 32201 layer_factory.hpp:77] Creating layer conv0
I0426 20:52:28.863306 32201 net.cpp:86] Creating Layer conv0
I0426 20:52:28.863309 32201 net.cpp:408] conv0 <- data
I0426 20:52:28.863314 32201 net.cpp:382] conv0 -> conv0
I0426 20:52:28.864009 32201 net.cpp:124] Setting up conv0
I0426 20:52:28.864024 32201 net.cpp:131] Top shape: 100 25 24 24 (1440000)
I0426 20:52:28.864029 32201 net.cpp:139] Memory required for data: 6074800
I0426 20:52:28.864043 32201 layer_factory.hpp:77] Creating layer pool0
I0426 20:52:28.864051 32201 net.cpp:86] Creating Layer pool0
I0426 20:52:28.864056 32201 net.cpp:408] pool0 <- conv0
I0426 20:52:28.864063 32201 net.cpp:382] pool0 -> pool0
I0426 20:52:28.864111 32201 net.cpp:124] Setting up pool0
I0426 20:52:28.864120 32201 net.cpp:131] Top shape: 100 25 12 12 (360000)
I0426 20:52:28.864125 32201 net.cpp:139] Memory required for data: 7514800
I0426 20:52:28.864142 32201 layer_factory.hpp:77] Creating layer conv1
I0426 20:52:28.864152 32201 net.cpp:86] Creating Layer conv1
I0426 20:52:28.864156 32201 net.cpp:408] conv1 <- pool0
I0426 20:52:28.864161 32201 net.cpp:382] conv1 -> conv1
I0426 20:52:28.866364 32201 net.cpp:124] Setting up conv1
I0426 20:52:28.866392 32201 net.cpp:131] Top shape: 100 25 8 8 (160000)
I0426 20:52:28.866395 32201 net.cpp:139] Memory required for data: 8154800
I0426 20:52:28.866418 32201 layer_factory.hpp:77] Creating layer pool1
I0426 20:52:28.866425 32201 net.cpp:86] Creating Layer pool1
I0426 20:52:28.866453 32201 net.cpp:408] pool1 <- conv1
I0426 20:52:28.866459 32201 net.cpp:382] pool1 -> pool1
I0426 20:52:28.866498 32201 net.cpp:124] Setting up pool1
I0426 20:52:28.866504 32201 net.cpp:131] Top shape: 100 25 4 4 (40000)
I0426 20:52:28.866508 32201 net.cpp:139] Memory required for data: 8314800
I0426 20:52:28.866510 32201 layer_factory.hpp:77] Creating layer ip1
I0426 20:52:28.866516 32201 net.cpp:86] Creating Layer ip1
I0426 20:52:28.866519 32201 net.cpp:408] ip1 <- pool1
I0426 20:52:28.866524 32201 net.cpp:382] ip1 -> ip1
I0426 20:52:28.866633 32201 net.cpp:124] Setting up ip1
I0426 20:52:28.866642 32201 net.cpp:131] Top shape: 100 10 (1000)
I0426 20:52:28.866646 32201 net.cpp:139] Memory required for data: 8318800
I0426 20:52:28.866652 32201 layer_factory.hpp:77] Creating layer relu1
I0426 20:52:28.866658 32201 net.cpp:86] Creating Layer relu1
I0426 20:52:28.866662 32201 net.cpp:408] relu1 <- ip1
I0426 20:52:28.866665 32201 net.cpp:369] relu1 -> ip1 (in-place)
I0426 20:52:28.867527 32201 net.cpp:124] Setting up relu1
I0426 20:52:28.867553 32201 net.cpp:131] Top shape: 100 10 (1000)
I0426 20:52:28.867558 32201 net.cpp:139] Memory required for data: 8322800
I0426 20:52:28.867560 32201 layer_factory.hpp:77] Creating layer ip1_relu1_0_split
I0426 20:52:28.867583 32201 net.cpp:86] Creating Layer ip1_relu1_0_split
I0426 20:52:28.867585 32201 net.cpp:408] ip1_relu1_0_split <- ip1
I0426 20:52:28.867591 32201 net.cpp:382] ip1_relu1_0_split -> ip1_relu1_0_split_0
I0426 20:52:28.867597 32201 net.cpp:382] ip1_relu1_0_split -> ip1_relu1_0_split_1
I0426 20:52:28.867632 32201 net.cpp:124] Setting up ip1_relu1_0_split
I0426 20:52:28.867640 32201 net.cpp:131] Top shape: 100 10 (1000)
I0426 20:52:28.867643 32201 net.cpp:131] Top shape: 100 10 (1000)
I0426 20:52:28.867645 32201 net.cpp:139] Memory required for data: 8330800
I0426 20:52:28.867650 32201 layer_factory.hpp:77] Creating layer accuracy
I0426 20:52:28.867655 32201 net.cpp:86] Creating Layer accuracy
I0426 20:52:28.867657 32201 net.cpp:408] accuracy <- ip1_relu1_0_split_0
I0426 20:52:28.867660 32201 net.cpp:408] accuracy <- label_mnist_1_split_0
I0426 20:52:28.867664 32201 net.cpp:382] accuracy -> accuracy
…
