…
I0426 20:48:29.095810 31261 net.cpp:296] The NetState phase (0) differed from the phase (1) specified by a rule in layer mnist
I0426 20:48:29.095825 31261 net.cpp:296] The NetState phase (0) differed from the phase (1) specified by a rule in layer accuracy
I0426 20:48:29.095897 31261 net.cpp:53] Initializing net from parameters: 
name: "LeNet"
state {
  phase: TRAIN
  level: 0
  stage: ""
}
layer {
  name: "mnist"
  type: "Data"
  top: "data"
  top: "label"
  include {
    phase: TRAIN
  }
  transform_param {
    scale: 0.00390625
  }
  data_param {
    source: "examples/mnist/mnist_train_lmdb"
    batch_size: 64
    backend: LMDB
  }
}
layer {
  name: "ip1"
  type: "InnerProduct"
  bottom: "data"
  top: "ip1"
  param {
    lr_mult: 1
  }
  param {
    lr_mult: 2
  }
  inner_product_param {
    num_output: 100
    weight_filler {
      type: "xavier"
    }
    bias_filler {
      type: "constant"
    }
  }
}
layer {
  name: "relu1"
  type: "ReLU"
  bottom: "ip1"
  top: "ip1"
}
layer {
  name: "ip2"
  type: "InnerProduct"
  bottom: "ip1"
  top: "ip2"
  param {
    lr_mult: 1
  }
  param {
    lr_mult: 2
  }
  inner_product_param {
    num_output: 100
    weight_filler {
      type: "xavier"
    }
    bias_filler {
      type: "constant"
    }
  }
}
layer {
  name: "relu2"
  type: "ReLU"
  bottom: "ip2"
  top: "ip2"
}
layer {
  name: "ip3"
  type: "InnerProduct"
  bottom: "ip2"
  top: "ip3"
  param {
    lr_mult: 1
  }
  param {
    lr_mult: 2
  }
  inner_product_param {
    num_output: 10
    weight_filler {
      type: "xavier"
    }
    bias_filler {
      type: "constant"
    }
  }
}
layer {
  name: "relu3"
  type: "ReLU"
  bottom: "ip3"
  top: "ip3"
}
layer {
  name: "loss"
  type: "SoftmaxWithLoss"
  bottom: "ip3"
  bottom: "label"
  top: "loss"
}
I0426 20:48:29.095958 31261 layer_factory.hpp:77] Creating layer mnist
I0426 20:48:29.096057 31261 db_lmdb.cpp:35] Opened lmdb examples/mnist/mnist_train_lmdb
I0426 20:48:29.096081 31261 net.cpp:86] Creating Layer mnist
I0426 20:48:29.096088 31261 net.cpp:382] mnist -> data
I0426 20:48:29.096112 31261 net.cpp:382] mnist -> label
I0426 20:48:29.097213 31261 data_layer.cpp:45] output data size: 64,1,28,28
I0426 20:48:29.099741 31261 net.cpp:124] Setting up mnist
I0426 20:48:29.099759 31261 net.cpp:131] Top shape: 64 1 28 28 (50176)
I0426 20:48:29.099766 31261 net.cpp:131] Top shape: 64 (64)
I0426 20:48:29.099771 31261 net.cpp:139] Memory required for data: 200960
I0426 20:48:29.099777 31261 layer_factory.hpp:77] Creating layer ip1
I0426 20:48:29.099788 31261 net.cpp:86] Creating Layer ip1
I0426 20:48:29.099793 31261 net.cpp:408] ip1 <- data
I0426 20:48:29.099804 31261 net.cpp:382] ip1 -> ip1
I0426 20:48:29.101502 31261 net.cpp:124] Setting up ip1
I0426 20:48:29.101518 31261 net.cpp:131] Top shape: 64 100 (6400)
I0426 20:48:29.101522 31261 net.cpp:139] Memory required for data: 226560
I0426 20:48:29.101536 31261 layer_factory.hpp:77] Creating layer relu1
I0426 20:48:29.101546 31261 net.cpp:86] Creating Layer relu1
I0426 20:48:29.101549 31261 net.cpp:408] relu1 <- ip1
I0426 20:48:29.101555 31261 net.cpp:369] relu1 -> ip1 (in-place)
I0426 20:48:29.362746 31261 net.cpp:124] Setting up relu1
I0426 20:48:29.362787 31261 net.cpp:131] Top shape: 64 100 (6400)
I0426 20:48:29.362792 31261 net.cpp:139] Memory required for data: 252160
I0426 20:48:29.362797 31261 layer_factory.hpp:77] Creating layer ip2
I0426 20:48:29.362809 31261 net.cpp:86] Creating Layer ip2
I0426 20:48:29.362846 31261 net.cpp:408] ip2 <- ip1
I0426 20:48:29.362855 31261 net.cpp:382] ip2 -> ip2
I0426 20:48:29.363884 31261 net.cpp:124] Setting up ip2
I0426 20:48:29.363896 31261 net.cpp:131] Top shape: 64 100 (6400)
I0426 20:48:29.363915 31261 net.cpp:139] Memory required for data: 277760
I0426 20:48:29.363925 31261 layer_factory.hpp:77] Creating layer relu2
I0426 20:48:29.363934 31261 net.cpp:86] Creating Layer relu2
I0426 20:48:29.363936 31261 net.cpp:408] relu2 <- ip2
I0426 20:48:29.363940 31261 net.cpp:369] relu2 -> ip2 (in-place)
I0426 20:48:29.364751 31261 net.cpp:124] Setting up relu2
I0426 20:48:29.364763 31261 net.cpp:131] Top shape: 64 100 (6400)
I0426 20:48:29.364783 31261 net.cpp:139] Memory required for data: 303360
I0426 20:48:29.364785 31261 layer_factory.hpp:77] Creating layer ip3
I0426 20:48:29.364791 31261 net.cpp:86] Creating Layer ip3
I0426 20:48:29.364796 31261 net.cpp:408] ip3 <- ip2
I0426 20:48:29.364801 31261 net.cpp:382] ip3 -> ip3
I0426 20:48:29.365861 31261 net.cpp:124] Setting up ip3
I0426 20:48:29.365873 31261 net.cpp:131] Top shape: 64 10 (640)
I0426 20:48:29.365876 31261 net.cpp:139] Memory required for data: 305920
I0426 20:48:29.365885 31261 layer_factory.hpp:77] Creating layer relu3
I0426 20:48:29.365890 31261 net.cpp:86] Creating Layer relu3
I0426 20:48:29.365892 31261 net.cpp:408] relu3 <- ip3
I0426 20:48:29.365896 31261 net.cpp:369] relu3 -> ip3 (in-place)
I0426 20:48:29.366068 31261 net.cpp:124] Setting up relu3
I0426 20:48:29.366076 31261 net.cpp:131] Top shape: 64 10 (640)
I0426 20:48:29.366080 31261 net.cpp:139] Memory required for data: 308480
I0426 20:48:29.366082 31261 layer_factory.hpp:77] Creating layer loss
I0426 20:48:29.366087 31261 net.cpp:86] Creating Layer loss
I0426 20:48:29.366091 31261 net.cpp:408] loss <- ip3
I0426 20:48:29.366094 31261 net.cpp:408] loss <- label
I0426 20:48:29.366099 31261 net.cpp:382] loss -> loss
I0426 20:48:29.366117 31261 layer_factory.hpp:77] Creating layer loss
…
I0426 20:48:29.366614 31261 solver.cpp:173] Creating test net (#0) specified by net file: ECE595/mnist/train_test/var_everything/lenet_train_test7.prototxt
I0426 20:48:29.366636 31261 net.cpp:296] The NetState phase (1) differed from the phase (0) specified by a rule in layer mnist
I0426 20:48:29.366703 31261 net.cpp:53] Initializing net from parameters: 
name: "LeNet"
state {
  phase: TEST
}
layer {
  name: "mnist"
  type: "Data"
  top: "data"
  top: "label"
  include {
    phase: TEST
  }
  transform_param {
    scale: 0.00390625
  }
  data_param {
    source: "examples/mnist/mnist_test_lmdb"
    batch_size: 100
    backend: LMDB
  }
}
layer {
  name: "ip1"
  type: "InnerProduct"
  bottom: "data"
  top: "ip1"
  param {
    lr_mult: 1
  }
  param {
    lr_mult: 2
  }
  inner_product_param {
    num_output: 100
    weight_filler {
      type: "xavier"
    }
    bias_filler {
      type: "constant"
    }
  }
}
layer {
  name: "relu1"
  type: "ReLU"
  bottom: "ip1"
  top: "ip1"
}
layer {
  name: "ip2"
  type: "InnerProduct"
  bottom: "ip1"
  top: "ip2"
  param {
    lr_mult: 1
  }
  param {
    lr_mult: 2
  }
  inner_product_param {
    num_output: 100
    weight_filler {
      type: "xavier"
    }
    bias_filler {
      type: "constant"
    }
  }
}
layer {
  name: "relu2"
  type: "ReLU"
  bottom: "ip2"
  top: "ip2"
}
layer {
  name: "ip3"
  type: "InnerProduct"
  bottom: "ip2"
  top: "ip3"
  param {
    lr_mult: 1
  }
  param {
    lr_mult: 2
  }
  inner_product_param {
    num_output: 10
    weight_filler {
      type: "xavier"
    }
    bias_filler {
      type: "constant"
    }
  }
}
layer {
  name: "relu3"
  type: "ReLU"
  bottom: "ip3"
  top: "ip3"
}
layer {
  name: "accuracy"
  type: "Accuracy"
  bottom: "ip3"
  bottom: "label"
  top: "accuracy"
  include {
    phase: TEST
  }
}
layer {
  name: "loss"
  type: "SoftmaxWithLoss"
  bottom: "ip3"
  bottom: "label"
  top: "loss"
}
I0426 20:48:29.366768 31261 layer_factory.hpp:77] Creating layer mnist
I0426 20:48:29.366809 31261 db_lmdb.cpp:35] Opened lmdb examples/mnist/mnist_test_lmdb
I0426 20:48:29.366822 31261 net.cpp:86] Creating Layer mnist
I0426 20:48:29.366825 31261 net.cpp:382] mnist -> data
I0426 20:48:29.366832 31261 net.cpp:382] mnist -> label
I0426 20:48:29.366912 31261 data_layer.cpp:45] output data size: 100,1,28,28
I0426 20:48:29.368089 31261 net.cpp:124] Setting up mnist
I0426 20:48:29.368116 31261 net.cpp:131] Top shape: 100 1 28 28 (78400)
I0426 20:48:29.368121 31261 net.cpp:131] Top shape: 100 (100)
I0426 20:48:29.368124 31261 net.cpp:139] Memory required for data: 314000
I0426 20:48:29.368127 31261 layer_factory.hpp:77] Creating layer label_mnist_1_split
I0426 20:48:29.368161 31261 net.cpp:86] Creating Layer label_mnist_1_split
I0426 20:48:29.368172 31261 net.cpp:408] label_mnist_1_split <- label
I0426 20:48:29.368177 31261 net.cpp:382] label_mnist_1_split -> label_mnist_1_split_0
I0426 20:48:29.368183 31261 net.cpp:382] label_mnist_1_split -> label_mnist_1_split_1
I0426 20:48:29.368227 31261 net.cpp:124] Setting up label_mnist_1_split
I0426 20:48:29.368232 31261 net.cpp:131] Top shape: 100 (100)
I0426 20:48:29.368234 31261 net.cpp:131] Top shape: 100 (100)
I0426 20:48:29.368237 31261 net.cpp:139] Memory required for data: 314800
I0426 20:48:29.368239 31261 layer_factory.hpp:77] Creating layer ip1
I0426 20:48:29.368245 31261 net.cpp:86] Creating Layer ip1
I0426 20:48:29.368248 31261 net.cpp:408] ip1 <- data
I0426 20:48:29.368253 31261 net.cpp:382] ip1 -> ip1
I0426 20:48:29.368831 31261 net.cpp:124] Setting up ip1
I0426 20:48:29.368839 31261 net.cpp:131] Top shape: 100 100 (10000)
I0426 20:48:29.368842 31261 net.cpp:139] Memory required for data: 354800
I0426 20:48:29.368851 31261 layer_factory.hpp:77] Creating layer relu1
I0426 20:48:29.368855 31261 net.cpp:86] Creating Layer relu1
I0426 20:48:29.368860 31261 net.cpp:408] relu1 <- ip1
I0426 20:48:29.368863 31261 net.cpp:369] relu1 -> ip1 (in-place)
I0426 20:48:29.369818 31261 net.cpp:124] Setting up relu1
I0426 20:48:29.369830 31261 net.cpp:131] Top shape: 100 100 (10000)
I0426 20:48:29.369833 31261 net.cpp:139] Memory required for data: 394800
I0426 20:48:29.369837 31261 layer_factory.hpp:77] Creating layer ip2
I0426 20:48:29.369844 31261 net.cpp:86] Creating Layer ip2
I0426 20:48:29.369848 31261 net.cpp:408] ip2 <- ip1
I0426 20:48:29.369853 31261 net.cpp:382] ip2 -> ip2
I0426 20:48:29.370010 31261 net.cpp:124] Setting up ip2
I0426 20:48:29.370018 31261 net.cpp:131] Top shape: 100 100 (10000)
I0426 20:48:29.370021 31261 net.cpp:139] Memory required for data: 434800
I0426 20:48:29.370028 31261 layer_factory.hpp:77] Creating layer relu2
I0426 20:48:29.370033 31261 net.cpp:86] Creating Layer relu2
I0426 20:48:29.370035 31261 net.cpp:408] relu2 <- ip2
I0426 20:48:29.370039 31261 net.cpp:369] relu2 -> ip2 (in-place)
I0426 20:48:29.370183 31261 net.cpp:124] Setting up relu2
I0426 20:48:29.370190 31261 net.cpp:131] Top shape: 100 100 (10000)
I0426 20:48:29.370193 31261 net.cpp:139] Memory required for data: 474800
I0426 20:48:29.370196 31261 layer_factory.hpp:77] Creating layer ip3
I0426 20:48:29.370201 31261 net.cpp:86] Creating Layer ip3
I0426 20:48:29.370204 31261 net.cpp:408] ip3 <- ip2
I0426 20:48:29.370208 31261 net.cpp:382] ip3 -> ip3
I0426 20:48:29.370327 31261 net.cpp:124] Setting up ip3
I0426 20:48:29.370335 31261 net.cpp:131] Top shape: 100 10 (1000)
I0426 20:48:29.370338 31261 net.cpp:139] Memory required for data: 478800
I0426 20:48:29.370345 31261 layer_factory.hpp:77] Creating layer relu3
I0426 20:48:29.370350 31261 net.cpp:86] Creating Layer relu3
I0426 20:48:29.370353 31261 net.cpp:408] relu3 <- ip3
I0426 20:48:29.370357 31261 net.cpp:369] relu3 -> ip3 (in-place)
I0426 20:48:29.370582 31261 net.cpp:124] Setting up relu3
I0426 20:48:29.370590 31261 net.cpp:131] Top shape: 100 10 (1000)
I0426 20:48:29.370594 31261 net.cpp:139] Memory required for data: 482800
I0426 20:48:29.370596 31261 layer_factory.hpp:77] Creating layer ip3_relu3_0_split
I0426 20:48:29.370602 31261 net.cpp:86] Creating Layer ip3_relu3_0_split
I0426 20:48:29.370605 31261 net.cpp:408] ip3_relu3_0_split <- ip3
I0426 20:48:29.370609 31261 net.cpp:382] ip3_relu3_0_split -> ip3_relu3_0_split_0
I0426 20:48:29.370615 31261 net.cpp:382] ip3_relu3_0_split -> ip3_relu3_0_split_1
I0426 20:48:29.370700 31261 net.cpp:124] Setting up ip3_relu3_0_split
I0426 20:48:29.370707 31261 net.cpp:131] Top shape: 100 10 (1000)
I0426 20:48:29.370712 31261 net.cpp:131] Top shape: 100 10 (1000)
I0426 20:48:29.370713 31261 net.cpp:139] Memory required for data: 490800
I0426 20:48:29.370717 31261 layer_factory.hpp:77] Creating layer accuracy
I0426 20:48:29.370720 31261 net.cpp:86] Creating Layer accuracy
I0426 20:48:29.370724 31261 net.cpp:408] accuracy <- ip3_relu3_0_split_0
I0426 20:48:29.370728 31261 net.cpp:408] accuracy <- label_mnist_1_split_0
I0426 20:48:29.370733 31261 net.cpp:382] accuracy -> accuracy
…
