…
I0426 20:55:15.567322   363 net.cpp:296] The NetState phase (0) differed from the phase (1) specified by a rule in layer mnist
I0426 20:55:15.567339   363 net.cpp:296] The NetState phase (0) differed from the phase (1) specified by a rule in layer accuracy
I0426 20:55:15.567436   363 net.cpp:53] Initializing net from parameters: 
name: "LeNet"
state {
  phase: TRAIN
  level: 0
  stage: ""
}
layer {
  name: "mnist"
  type: "Data"
  top: "data"
  top: "label"
  include {
    phase: TRAIN
  }
  transform_param {
    scale: 0.00390625
  }
  data_param {
    source: "examples/mnist/mnist_train_lmdb"
    batch_size: 64
    backend: LMDB
  }
}
layer {
  name: "conv0"
  type: "Convolution"
  bottom: "data"
  top: "conv0"
  param {
    lr_mult: 1
  }
  param {
    lr_mult: 2
  }
  convolution_param {
    num_output: 50
    kernel_size: 5
    stride: 1
    weight_filler {
      type: "xavier"
    }
    bias_filler {
      type: "constant"
    }
  }
}
layer {
  name: "pool0"
  type: "Pooling"
  bottom: "conv0"
  top: "pool0"
  pooling_param {
    pool: MAX
    kernel_size: 2
    stride: 2
  }
}
layer {
  name: "conv1"
  type: "Convolution"
  bottom: "pool0"
  top: "conv1"
  param {
    lr_mult: 1
  }
  param {
    lr_mult: 2
  }
  convolution_param {
    num_output: 50
    kernel_size: 5
    stride: 1
    weight_filler {
      type: "xavier"
    }
    bias_filler {
      type: "constant"
    }
  }
}
layer {
  name: "pool1"
  type: "Pooling"
  bottom: "conv1"
  top: "pool1"
  pooling_param {
    pool: MAX
    kernel_size: 2
    stride: 2
  }
}
layer {
  name: "ip1"
  type: "InnerProduct"
  bottom: "pool1"
  top: "ip1"
  param {
    lr_mult: 1
  }
  param {
    lr_mult: 2
  }
  inner_product_param {
    num_output: 100
    weight_filler {
      type: "xavier"
    }
    bias_filler {
      type: "constant"
    }
  }
}
layer {
  name: "relu1"
  type: "ReLU"
  bottom: "ip1"
  top: "ip1"
}
layer {
  name: "ip2"
  type: "InnerProduct"
  bottom: "ip1"
  top: "ip2"
  param {
    lr_mult: 1
  }
  param {
    lr_mult: 2
  }
  inner_product_param {
    num_output: 300
    weight_filler {
      type: "xavier"
    }
    bias_filler {
      type: "constant"
    }
  }
}
layer {
  name: "relu2"
  type: "ReLU"
  bottom: "ip2"
  top: "ip2"
}
layer {
  name: "ip3"
  type: "InnerProduct"
  bottom: "ip2"
  top: "ip3"
  param {
    lr_mult: 1
  }
  param {
    lr_mult: 2
  }
  inner_product_param {
    num_output: 10
    weight_filler {
      type: "xavier"
    }
    bias_filler {
      type: "constant"
    }
  }
}
layer {
  name: "relu3"
  type: "ReLU"
  bottom: "ip3"
  top: "ip3"
}
layer {
  name: "loss"
  type: "SoftmaxWithLoss"
  bottom: "ip3"
  bottom: "label"
  top: "loss"
}
I0426 20:55:15.567512   363 layer_factory.hpp:77] Creating layer mnist
I0426 20:55:15.567610   363 db_lmdb.cpp:35] Opened lmdb examples/mnist/mnist_train_lmdb
I0426 20:55:15.567634   363 net.cpp:86] Creating Layer mnist
I0426 20:55:15.567643   363 net.cpp:382] mnist -> data
I0426 20:55:15.567667   363 net.cpp:382] mnist -> label
I0426 20:55:15.568759   363 data_layer.cpp:45] output data size: 64,1,28,28
I0426 20:55:15.571297   363 net.cpp:124] Setting up mnist
I0426 20:55:15.571315   363 net.cpp:131] Top shape: 64 1 28 28 (50176)
I0426 20:55:15.571321   363 net.cpp:131] Top shape: 64 (64)
I0426 20:55:15.571324   363 net.cpp:139] Memory required for data: 200960
I0426 20:55:15.571331   363 layer_factory.hpp:77] Creating layer conv0
I0426 20:55:15.571346   363 net.cpp:86] Creating Layer conv0
I0426 20:55:15.571367   363 net.cpp:408] conv0 <- data
I0426 20:55:15.571379   363 net.cpp:382] conv0 -> conv0
I0426 20:55:15.867041   363 net.cpp:124] Setting up conv0
I0426 20:55:15.867074   363 net.cpp:131] Top shape: 64 50 24 24 (1843200)
I0426 20:55:15.867080   363 net.cpp:139] Memory required for data: 7573760
I0426 20:55:15.867099   363 layer_factory.hpp:77] Creating layer pool0
I0426 20:55:15.867115   363 net.cpp:86] Creating Layer pool0
I0426 20:55:15.867118   363 net.cpp:408] pool0 <- conv0
I0426 20:55:15.867125   363 net.cpp:382] pool0 -> pool0
I0426 20:55:15.867182   363 net.cpp:124] Setting up pool0
I0426 20:55:15.867190   363 net.cpp:131] Top shape: 64 50 12 12 (460800)
I0426 20:55:15.867194   363 net.cpp:139] Memory required for data: 9416960
I0426 20:55:15.867198   363 layer_factory.hpp:77] Creating layer conv1
I0426 20:55:15.867211   363 net.cpp:86] Creating Layer conv1
I0426 20:55:15.867218   363 net.cpp:408] conv1 <- pool0
I0426 20:55:15.867224   363 net.cpp:382] conv1 -> conv1
I0426 20:55:15.870007   363 net.cpp:124] Setting up conv1
I0426 20:55:15.870025   363 net.cpp:131] Top shape: 64 50 8 8 (204800)
I0426 20:55:15.870029   363 net.cpp:139] Memory required for data: 10236160
I0426 20:55:15.870040   363 layer_factory.hpp:77] Creating layer pool1
I0426 20:55:15.870049   363 net.cpp:86] Creating Layer pool1
I0426 20:55:15.870054   363 net.cpp:408] pool1 <- conv1
I0426 20:55:15.870059   363 net.cpp:382] pool1 -> pool1
I0426 20:55:15.870102   363 net.cpp:124] Setting up pool1
I0426 20:55:15.870111   363 net.cpp:131] Top shape: 64 50 4 4 (51200)
I0426 20:55:15.870115   363 net.cpp:139] Memory required for data: 10440960
I0426 20:55:15.870118   363 layer_factory.hpp:77] Creating layer ip1
I0426 20:55:15.870126   363 net.cpp:86] Creating Layer ip1
I0426 20:55:15.870133   363 net.cpp:408] ip1 <- pool1
I0426 20:55:15.870139   363 net.cpp:382] ip1 -> ip1
I0426 20:55:15.871750   363 net.cpp:124] Setting up ip1
I0426 20:55:15.871765   363 net.cpp:131] Top shape: 64 100 (6400)
I0426 20:55:15.871770   363 net.cpp:139] Memory required for data: 10466560
I0426 20:55:15.871779   363 layer_factory.hpp:77] Creating layer relu1
I0426 20:55:15.871788   363 net.cpp:86] Creating Layer relu1
I0426 20:55:15.871791   363 net.cpp:408] relu1 <- ip1
I0426 20:55:15.871798   363 net.cpp:369] relu1 -> ip1 (in-place)
I0426 20:55:15.871999   363 net.cpp:124] Setting up relu1
I0426 20:55:15.872009   363 net.cpp:131] Top shape: 64 100 (6400)
I0426 20:55:15.872014   363 net.cpp:139] Memory required for data: 10492160
I0426 20:55:15.872017   363 layer_factory.hpp:77] Creating layer ip2
I0426 20:55:15.872026   363 net.cpp:86] Creating Layer ip2
I0426 20:55:15.872030   363 net.cpp:408] ip2 <- ip1
I0426 20:55:15.872036   363 net.cpp:382] ip2 -> ip2
I0426 20:55:15.872362   363 net.cpp:124] Setting up ip2
I0426 20:55:15.872370   363 net.cpp:131] Top shape: 64 300 (19200)
I0426 20:55:15.872375   363 net.cpp:139] Memory required for data: 10568960
I0426 20:55:15.872381   363 layer_factory.hpp:77] Creating layer relu2
I0426 20:55:15.872388   363 net.cpp:86] Creating Layer relu2
I0426 20:55:15.872391   363 net.cpp:408] relu2 <- ip2
I0426 20:55:15.872396   363 net.cpp:369] relu2 -> ip2 (in-place)
I0426 20:55:15.873335   363 net.cpp:124] Setting up relu2
I0426 20:55:15.873350   363 net.cpp:131] Top shape: 64 300 (19200)
I0426 20:55:15.873354   363 net.cpp:139] Memory required for data: 10645760
I0426 20:55:15.873359   363 layer_factory.hpp:77] Creating layer ip3
I0426 20:55:15.873368   363 net.cpp:86] Creating Layer ip3
I0426 20:55:15.873371   363 net.cpp:408] ip3 <- ip2
I0426 20:55:15.873378   363 net.cpp:382] ip3 -> ip3
I0426 20:55:15.873520   363 net.cpp:124] Setting up ip3
I0426 20:55:15.873529   363 net.cpp:131] Top shape: 64 10 (640)
I0426 20:55:15.873533   363 net.cpp:139] Memory required for data: 10648320
I0426 20:55:15.873543   363 layer_factory.hpp:77] Creating layer relu3
I0426 20:55:15.873550   363 net.cpp:86] Creating Layer relu3
I0426 20:55:15.873554   363 net.cpp:408] relu3 <- ip3
I0426 20:55:15.873559   363 net.cpp:369] relu3 -> ip3 (in-place)
I0426 20:55:15.873757   363 net.cpp:124] Setting up relu3
I0426 20:55:15.873769   363 net.cpp:131] Top shape: 64 10 (640)
I0426 20:55:15.873772   363 net.cpp:139] Memory required for data: 10650880
I0426 20:55:15.873776   363 layer_factory.hpp:77] Creating layer loss
I0426 20:55:15.873783   363 net.cpp:86] Creating Layer loss
I0426 20:55:15.873787   363 net.cpp:408] loss <- ip3
I0426 20:55:15.873792   363 net.cpp:408] loss <- label
I0426 20:55:15.873800   363 net.cpp:382] loss -> loss
I0426 20:55:15.873821   363 layer_factory.hpp:77] Creating layer loss
…
I0426 20:55:15.874565   363 solver.cpp:173] Creating test net (#0) specified by net file: ECE595/mnist/train_test/var_everything/lenet_train_test176.prototxt
I0426 20:55:15.874598   363 net.cpp:296] The NetState phase (1) differed from the phase (0) specified by a rule in layer mnist
I0426 20:55:15.874725   363 net.cpp:53] Initializing net from parameters: 
name: "LeNet"
state {
  phase: TEST
}
layer {
  name: "mnist"
  type: "Data"
  top: "data"
  top: "label"
  include {
    phase: TEST
  }
  transform_param {
    scale: 0.00390625
  }
  data_param {
    source: "examples/mnist/mnist_test_lmdb"
    batch_size: 100
    backend: LMDB
  }
}
layer {
  name: "conv0"
  type: "Convolution"
  bottom: "data"
  top: "conv0"
  param {
    lr_mult: 1
  }
  param {
    lr_mult: 2
  }
  convolution_param {
    num_output: 50
    kernel_size: 5
    stride: 1
    weight_filler {
      type: "xavier"
    }
    bias_filler {
      type: "constant"
    }
  }
}
layer {
  name: "pool0"
  type: "Pooling"
  bottom: "conv0"
  top: "pool0"
  pooling_param {
    pool: MAX
    kernel_size: 2
    stride: 2
  }
}
layer {
  name: "conv1"
  type: "Convolution"
  bottom: "pool0"
  top: "conv1"
  param {
    lr_mult: 1
  }
  param {
    lr_mult: 2
  }
  convolution_param {
    num_output: 50
    kernel_size: 5
    stride: 1
    weight_filler {
      type: "xavier"
    }
    bias_filler {
      type: "constant"
    }
  }
}
layer {
  name: "pool1"
  type: "Pooling"
  bottom: "conv1"
  top: "pool1"
  pooling_param {
    pool: MAX
    kernel_size: 2
    stride: 2
  }
}
layer {
  name: "ip1"
  type: "InnerProduct"
  bottom: "pool1"
  top: "ip1"
  param {
    lr_mult: 1
  }
  param {
    lr_mult: 2
  }
  inner_product_param {
    num_output: 100
    weight_filler {
      type: "xavier"
    }
    bias_filler {
      type: "constant"
    }
  }
}
layer {
  name: "relu1"
  type: "ReLU"
  bottom: "ip1"
  top: "ip1"
}
layer {
  name: "ip2"
  type: "InnerProduct"
  bottom: "ip1"
  top: "ip2"
  param {
    lr_mult: 1
  }
  param {
    lr_mult: 2
  }
  inner_product_param {
    num_output: 300
    weight_filler {
      type: "xavier"
    }
    bias_filler {
      type: "constant"
    }
  }
}
layer {
  name: "relu2"
  type: "ReLU"
  bottom: "ip2"
  top: "ip2"
}
layer {
  name: "ip3"
  type: "InnerProduct"
  bottom: "ip2"
  top: "ip3"
  param {
    lr_mult: 1
  }
  param {
    lr_mult: 2
  }
  inner_product_param {
    num_output: 10
    weight_filler {
      type: "xavier"
    }
    bias_filler {
      type: "constant"
    }
  }
}
layer {
  name: "relu3"
  type: "ReLU"
  bottom: "ip3"
  top: "ip3"
}
layer {
  name: "accuracy"
  type: "Accuracy"
  bottom: "ip3"
  bottom: "label"
  top: "accuracy"
  include {
    phase: TEST
  }
}
layer {
  name: "loss"
  type: "SoftmaxWithLoss"
  bottom: "ip3"
  bottom: "label"
  top: "loss"
}
I0426 20:55:15.874820   363 layer_factory.hpp:77] Creating layer mnist
I0426 20:55:15.874874   363 db_lmdb.cpp:35] Opened lmdb examples/mnist/mnist_test_lmdb
I0426 20:55:15.874891   363 net.cpp:86] Creating Layer mnist
I0426 20:55:15.874898   363 net.cpp:382] mnist -> data
I0426 20:55:15.874907   363 net.cpp:382] mnist -> label
I0426 20:55:15.875008   363 data_layer.cpp:45] output data size: 100,1,28,28
I0426 20:55:15.876545   363 net.cpp:124] Setting up mnist
I0426 20:55:15.876560   363 net.cpp:131] Top shape: 100 1 28 28 (78400)
I0426 20:55:15.876566   363 net.cpp:131] Top shape: 100 (100)
I0426 20:55:15.876570   363 net.cpp:139] Memory required for data: 314000
I0426 20:55:15.876574   363 layer_factory.hpp:77] Creating layer label_mnist_1_split
I0426 20:55:15.876587   363 net.cpp:86] Creating Layer label_mnist_1_split
I0426 20:55:15.876591   363 net.cpp:408] label_mnist_1_split <- label
I0426 20:55:15.876597   363 net.cpp:382] label_mnist_1_split -> label_mnist_1_split_0
I0426 20:55:15.876605   363 net.cpp:382] label_mnist_1_split -> label_mnist_1_split_1
I0426 20:55:15.876659   363 net.cpp:124] Setting up label_mnist_1_split
I0426 20:55:15.876667   363 net.cpp:131] Top shape: 100 (100)
I0426 20:55:15.876672   363 net.cpp:131] Top shape: 100 (100)
I0426 20:55:15.876675   363 net.cpp:139] Memory required for data: 314800
I0426 20:55:15.876679   363 layer_factory.hpp:77] Creating layer conv0
I0426 20:55:15.876689   363 net.cpp:86] Creating Layer conv0
I0426 20:55:15.876693   363 net.cpp:408] conv0 <- data
I0426 20:55:15.876698   363 net.cpp:382] conv0 -> conv0
I0426 20:55:15.878685   363 net.cpp:124] Setting up conv0
I0426 20:55:15.878702   363 net.cpp:131] Top shape: 100 50 24 24 (2880000)
I0426 20:55:15.878707   363 net.cpp:139] Memory required for data: 11834800
I0426 20:55:15.878718   363 layer_factory.hpp:77] Creating layer pool0
I0426 20:55:15.878726   363 net.cpp:86] Creating Layer pool0
I0426 20:55:15.878731   363 net.cpp:408] pool0 <- conv0
I0426 20:55:15.878737   363 net.cpp:382] pool0 -> pool0
I0426 20:55:15.878779   363 net.cpp:124] Setting up pool0
I0426 20:55:15.878787   363 net.cpp:131] Top shape: 100 50 12 12 (720000)
I0426 20:55:15.878792   363 net.cpp:139] Memory required for data: 14714800
I0426 20:55:15.878795   363 layer_factory.hpp:77] Creating layer conv1
I0426 20:55:15.878805   363 net.cpp:86] Creating Layer conv1
I0426 20:55:15.878809   363 net.cpp:408] conv1 <- pool0
I0426 20:55:15.878815   363 net.cpp:382] conv1 -> conv1
I0426 20:55:15.881062   363 net.cpp:124] Setting up conv1
I0426 20:55:15.881078   363 net.cpp:131] Top shape: 100 50 8 8 (320000)
I0426 20:55:15.881083   363 net.cpp:139] Memory required for data: 15994800
I0426 20:55:15.881093   363 layer_factory.hpp:77] Creating layer pool1
I0426 20:55:15.881100   363 net.cpp:86] Creating Layer pool1
I0426 20:55:15.881105   363 net.cpp:408] pool1 <- conv1
I0426 20:55:15.881112   363 net.cpp:382] pool1 -> pool1
I0426 20:55:15.881155   363 net.cpp:124] Setting up pool1
I0426 20:55:15.881162   363 net.cpp:131] Top shape: 100 50 4 4 (80000)
I0426 20:55:15.881166   363 net.cpp:139] Memory required for data: 16314800
I0426 20:55:15.881170   363 layer_factory.hpp:77] Creating layer ip1
I0426 20:55:15.881177   363 net.cpp:86] Creating Layer ip1
I0426 20:55:15.881181   363 net.cpp:408] ip1 <- pool1
I0426 20:55:15.881187   363 net.cpp:382] ip1 -> ip1
I0426 20:55:15.881868   363 net.cpp:124] Setting up ip1
I0426 20:55:15.881891   363 net.cpp:131] Top shape: 100 100 (10000)
I0426 20:55:15.881896   363 net.cpp:139] Memory required for data: 16354800
I0426 20:55:15.881904   363 layer_factory.hpp:77] Creating layer relu1
I0426 20:55:15.881911   363 net.cpp:86] Creating Layer relu1
I0426 20:55:15.881914   363 net.cpp:408] relu1 <- ip1
I0426 20:55:15.881919   363 net.cpp:369] relu1 -> ip1 (in-place)
I0426 20:55:15.882200   363 net.cpp:124] Setting up relu1
I0426 20:55:15.882211   363 net.cpp:131] Top shape: 100 100 (10000)
I0426 20:55:15.882215   363 net.cpp:139] Memory required for data: 16394800
I0426 20:55:15.882220   363 layer_factory.hpp:77] Creating layer ip2
I0426 20:55:15.882228   363 net.cpp:86] Creating Layer ip2
I0426 20:55:15.882236   363 net.cpp:408] ip2 <- ip1
I0426 20:55:15.882243   363 net.cpp:382] ip2 -> ip2
I0426 20:55:15.882567   363 net.cpp:124] Setting up ip2
I0426 20:55:15.882575   363 net.cpp:131] Top shape: 100 300 (30000)
I0426 20:55:15.882580   363 net.cpp:139] Memory required for data: 16514800
I0426 20:55:15.882587   363 layer_factory.hpp:77] Creating layer relu2
I0426 20:55:15.882592   363 net.cpp:86] Creating Layer relu2
I0426 20:55:15.882596   363 net.cpp:408] relu2 <- ip2
I0426 20:55:15.882601   363 net.cpp:369] relu2 -> ip2 (in-place)
I0426 20:55:15.882777   363 net.cpp:124] Setting up relu2
I0426 20:55:15.882787   363 net.cpp:131] Top shape: 100 300 (30000)
I0426 20:55:15.882791   363 net.cpp:139] Memory required for data: 16634800
I0426 20:55:15.882796   363 layer_factory.hpp:77] Creating layer ip3
I0426 20:55:15.882802   363 net.cpp:86] Creating Layer ip3
I0426 20:55:15.882807   363 net.cpp:408] ip3 <- ip2
I0426 20:55:15.882812   363 net.cpp:382] ip3 -> ip3
I0426 20:55:15.882946   363 net.cpp:124] Setting up ip3
I0426 20:55:15.882956   363 net.cpp:131] Top shape: 100 10 (1000)
I0426 20:55:15.882959   363 net.cpp:139] Memory required for data: 16638800
I0426 20:55:15.882968   363 layer_factory.hpp:77] Creating layer relu3
I0426 20:55:15.882977   363 net.cpp:86] Creating Layer relu3
I0426 20:55:15.882979   363 net.cpp:408] relu3 <- ip3
I0426 20:55:15.882984   363 net.cpp:369] relu3 -> ip3 (in-place)
I0426 20:55:15.884019   363 net.cpp:124] Setting up relu3
I0426 20:55:15.884033   363 net.cpp:131] Top shape: 100 10 (1000)
I0426 20:55:15.884038   363 net.cpp:139] Memory required for data: 16642800
I0426 20:55:15.884042   363 layer_factory.hpp:77] Creating layer ip3_relu3_0_split
I0426 20:55:15.884049   363 net.cpp:86] Creating Layer ip3_relu3_0_split
I0426 20:55:15.884054   363 net.cpp:408] ip3_relu3_0_split <- ip3
I0426 20:55:15.884060   363 net.cpp:382] ip3_relu3_0_split -> ip3_relu3_0_split_0
I0426 20:55:15.884068   363 net.cpp:382] ip3_relu3_0_split -> ip3_relu3_0_split_1
I0426 20:55:15.884114   363 net.cpp:124] Setting up ip3_relu3_0_split
I0426 20:55:15.884120   363 net.cpp:131] Top shape: 100 10 (1000)
I0426 20:55:15.884125   363 net.cpp:131] Top shape: 100 10 (1000)
I0426 20:55:15.884129   363 net.cpp:139] Memory required for data: 16650800
I0426 20:55:15.884132   363 layer_factory.hpp:77] Creating layer accuracy
I0426 20:55:15.884138   363 net.cpp:86] Creating Layer accuracy
I0426 20:55:15.884141   363 net.cpp:408] accuracy <- ip3_relu3_0_split_0
I0426 20:55:15.884147   363 net.cpp:408] accuracy <- label_mnist_1_split_0
I0426 20:55:15.884152   363 net.cpp:382] accuracy -> accuracy
…
