…
I0426 20:52:42.585222 32252 net.cpp:296] The NetState phase (0) differed from the phase (1) specified by a rule in layer mnist
I0426 20:52:42.585240 32252 net.cpp:296] The NetState phase (0) differed from the phase (1) specified by a rule in layer accuracy
I0426 20:52:42.585338 32252 net.cpp:53] Initializing net from parameters: 
name: "LeNet"
state {
  phase: TRAIN
  level: 0
  stage: ""
}
layer {
  name: "mnist"
  type: "Data"
  top: "data"
  top: "label"
  include {
    phase: TRAIN
  }
  transform_param {
    scale: 0.00390625
  }
  data_param {
    source: "examples/mnist/mnist_train_lmdb"
    batch_size: 64
    backend: LMDB
  }
}
layer {
  name: "conv0"
  type: "Convolution"
  bottom: "data"
  top: "conv0"
  param {
    lr_mult: 1
  }
  param {
    lr_mult: 2
  }
  convolution_param {
    num_output: 25
    kernel_size: 5
    stride: 1
    weight_filler {
      type: "xavier"
    }
    bias_filler {
      type: "constant"
    }
  }
}
layer {
  name: "pool0"
  type: "Pooling"
  bottom: "conv0"
  top: "pool0"
  pooling_param {
    pool: MAX
    kernel_size: 2
    stride: 2
  }
}
layer {
  name: "conv1"
  type: "Convolution"
  bottom: "pool0"
  top: "conv1"
  param {
    lr_mult: 1
  }
  param {
    lr_mult: 2
  }
  convolution_param {
    num_output: 25
    kernel_size: 5
    stride: 1
    weight_filler {
      type: "xavier"
    }
    bias_filler {
      type: "constant"
    }
  }
}
layer {
  name: "pool1"
  type: "Pooling"
  bottom: "conv1"
  top: "pool1"
  pooling_param {
    pool: MAX
    kernel_size: 2
    stride: 2
  }
}
layer {
  name: "ip1"
  type: "InnerProduct"
  bottom: "pool1"
  top: "ip1"
  param {
    lr_mult: 1
  }
  param {
    lr_mult: 2
  }
  inner_product_param {
    num_output: 100
    weight_filler {
      type: "xavier"
    }
    bias_filler {
      type: "constant"
    }
  }
}
layer {
  name: "relu1"
  type: "ReLU"
  bottom: "ip1"
  top: "ip1"
}
layer {
  name: "ip2"
  type: "InnerProduct"
  bottom: "ip1"
  top: "ip2"
  param {
    lr_mult: 1
  }
  param {
    lr_mult: 2
  }
  inner_product_param {
    num_output: 100
    weight_filler {
      type: "xavier"
    }
    bias_filler {
      type: "constant"
    }
  }
}
layer {
  name: "relu2"
  type: "ReLU"
  bottom: "ip2"
  top: "ip2"
}
layer {
  name: "ip3"
  type: "InnerProduct"
  bottom: "ip2"
  top: "ip3"
  param {
    lr_mult: 1
  }
  param {
    lr_mult: 2
  }
  inner_product_param {
    num_output: 10
    weight_filler {
      type: "xavier"
    }
    bias_filler {
      type: "constant"
    }
  }
}
layer {
  name: "relu3"
  type: "ReLU"
  bottom: "ip3"
  top: "ip3"
}
layer {
  name: "loss"
  type: "SoftmaxWithLoss"
  bottom: "ip3"
  bottom: "label"
  top: "loss"
}
I0426 20:52:42.585412 32252 layer_factory.hpp:77] Creating layer mnist
I0426 20:52:42.585511 32252 db_lmdb.cpp:35] Opened lmdb examples/mnist/mnist_train_lmdb
I0426 20:52:42.585535 32252 net.cpp:86] Creating Layer mnist
I0426 20:52:42.585541 32252 net.cpp:382] mnist -> data
I0426 20:52:42.585563 32252 net.cpp:382] mnist -> label
I0426 20:52:42.586648 32252 data_layer.cpp:45] output data size: 64,1,28,28
I0426 20:52:42.589170 32252 net.cpp:124] Setting up mnist
I0426 20:52:42.589187 32252 net.cpp:131] Top shape: 64 1 28 28 (50176)
I0426 20:52:42.589193 32252 net.cpp:131] Top shape: 64 (64)
I0426 20:52:42.589197 32252 net.cpp:139] Memory required for data: 200960
I0426 20:52:42.589205 32252 layer_factory.hpp:77] Creating layer conv0
I0426 20:52:42.589221 32252 net.cpp:86] Creating Layer conv0
I0426 20:52:42.589241 32252 net.cpp:408] conv0 <- data
I0426 20:52:42.589253 32252 net.cpp:382] conv0 -> conv0
I0426 20:52:42.866890 32252 net.cpp:124] Setting up conv0
I0426 20:52:42.866919 32252 net.cpp:131] Top shape: 64 25 24 24 (921600)
I0426 20:52:42.866922 32252 net.cpp:139] Memory required for data: 3887360
I0426 20:52:42.866936 32252 layer_factory.hpp:77] Creating layer pool0
I0426 20:52:42.866950 32252 net.cpp:86] Creating Layer pool0
I0426 20:52:42.866955 32252 net.cpp:408] pool0 <- conv0
I0426 20:52:42.866961 32252 net.cpp:382] pool0 -> pool0
I0426 20:52:42.867022 32252 net.cpp:124] Setting up pool0
I0426 20:52:42.867027 32252 net.cpp:131] Top shape: 64 25 12 12 (230400)
I0426 20:52:42.867029 32252 net.cpp:139] Memory required for data: 4808960
I0426 20:52:42.867033 32252 layer_factory.hpp:77] Creating layer conv1
I0426 20:52:42.867043 32252 net.cpp:86] Creating Layer conv1
I0426 20:52:42.867045 32252 net.cpp:408] conv1 <- pool0
I0426 20:52:42.867050 32252 net.cpp:382] conv1 -> conv1
I0426 20:52:42.869820 32252 net.cpp:124] Setting up conv1
I0426 20:52:42.869849 32252 net.cpp:131] Top shape: 64 25 8 8 (102400)
I0426 20:52:42.869853 32252 net.cpp:139] Memory required for data: 5218560
I0426 20:52:42.869860 32252 layer_factory.hpp:77] Creating layer pool1
I0426 20:52:42.869868 32252 net.cpp:86] Creating Layer pool1
I0426 20:52:42.869870 32252 net.cpp:408] pool1 <- conv1
I0426 20:52:42.869876 32252 net.cpp:382] pool1 -> pool1
I0426 20:52:42.869927 32252 net.cpp:124] Setting up pool1
I0426 20:52:42.869932 32252 net.cpp:131] Top shape: 64 25 4 4 (25600)
I0426 20:52:42.869935 32252 net.cpp:139] Memory required for data: 5320960
I0426 20:52:42.869937 32252 layer_factory.hpp:77] Creating layer ip1
I0426 20:52:42.869949 32252 net.cpp:86] Creating Layer ip1
I0426 20:52:42.869952 32252 net.cpp:408] ip1 <- pool1
I0426 20:52:42.869957 32252 net.cpp:382] ip1 -> ip1
I0426 20:52:42.870352 32252 net.cpp:124] Setting up ip1
I0426 20:52:42.870360 32252 net.cpp:131] Top shape: 64 100 (6400)
I0426 20:52:42.870378 32252 net.cpp:139] Memory required for data: 5346560
I0426 20:52:42.870384 32252 layer_factory.hpp:77] Creating layer relu1
I0426 20:52:42.870404 32252 net.cpp:86] Creating Layer relu1
I0426 20:52:42.870407 32252 net.cpp:408] relu1 <- ip1
I0426 20:52:42.870411 32252 net.cpp:369] relu1 -> ip1 (in-place)
I0426 20:52:42.870638 32252 net.cpp:124] Setting up relu1
I0426 20:52:42.870647 32252 net.cpp:131] Top shape: 64 100 (6400)
I0426 20:52:42.870651 32252 net.cpp:139] Memory required for data: 5372160
I0426 20:52:42.870654 32252 layer_factory.hpp:77] Creating layer ip2
I0426 20:52:42.870661 32252 net.cpp:86] Creating Layer ip2
I0426 20:52:42.870664 32252 net.cpp:408] ip2 <- ip1
I0426 20:52:42.870669 32252 net.cpp:382] ip2 -> ip2
I0426 20:52:42.870836 32252 net.cpp:124] Setting up ip2
I0426 20:52:42.870844 32252 net.cpp:131] Top shape: 64 100 (6400)
I0426 20:52:42.870847 32252 net.cpp:139] Memory required for data: 5397760
I0426 20:52:42.870852 32252 layer_factory.hpp:77] Creating layer relu2
I0426 20:52:42.870858 32252 net.cpp:86] Creating Layer relu2
I0426 20:52:42.870862 32252 net.cpp:408] relu2 <- ip2
I0426 20:52:42.870865 32252 net.cpp:369] relu2 -> ip2 (in-place)
I0426 20:52:42.871703 32252 net.cpp:124] Setting up relu2
I0426 20:52:42.871714 32252 net.cpp:131] Top shape: 64 100 (6400)
I0426 20:52:42.871733 32252 net.cpp:139] Memory required for data: 5423360
I0426 20:52:42.871737 32252 layer_factory.hpp:77] Creating layer ip3
I0426 20:52:42.871743 32252 net.cpp:86] Creating Layer ip3
I0426 20:52:42.871747 32252 net.cpp:408] ip3 <- ip2
I0426 20:52:42.871752 32252 net.cpp:382] ip3 -> ip3
I0426 20:52:42.871873 32252 net.cpp:124] Setting up ip3
I0426 20:52:42.871881 32252 net.cpp:131] Top shape: 64 10 (640)
I0426 20:52:42.871884 32252 net.cpp:139] Memory required for data: 5425920
I0426 20:52:42.871891 32252 layer_factory.hpp:77] Creating layer relu3
I0426 20:52:42.871896 32252 net.cpp:86] Creating Layer relu3
I0426 20:52:42.871899 32252 net.cpp:408] relu3 <- ip3
I0426 20:52:42.871903 32252 net.cpp:369] relu3 -> ip3 (in-place)
I0426 20:52:42.872107 32252 net.cpp:124] Setting up relu3
I0426 20:52:42.872115 32252 net.cpp:131] Top shape: 64 10 (640)
I0426 20:52:42.872119 32252 net.cpp:139] Memory required for data: 5428480
I0426 20:52:42.872123 32252 layer_factory.hpp:77] Creating layer loss
I0426 20:52:42.872128 32252 net.cpp:86] Creating Layer loss
I0426 20:52:42.872131 32252 net.cpp:408] loss <- ip3
I0426 20:52:42.872135 32252 net.cpp:408] loss <- label
I0426 20:52:42.872140 32252 net.cpp:382] loss -> loss
I0426 20:52:42.872158 32252 layer_factory.hpp:77] Creating layer loss
…
I0426 20:52:42.872815 32252 solver.cpp:173] Creating test net (#0) specified by net file: ECE595/mnist/train_test/var_everything/lenet_train_test119.prototxt
I0426 20:52:42.872887 32252 net.cpp:296] The NetState phase (1) differed from the phase (0) specified by a rule in layer mnist
I0426 20:52:42.873039 32252 net.cpp:53] Initializing net from parameters: 
name: "LeNet"
state {
  phase: TEST
}
layer {
  name: "mnist"
  type: "Data"
  top: "data"
  top: "label"
  include {
    phase: TEST
  }
  transform_param {
    scale: 0.00390625
  }
  data_param {
    source: "examples/mnist/mnist_test_lmdb"
    batch_size: 100
    backend: LMDB
  }
}
layer {
  name: "conv0"
  type: "Convolution"
  bottom: "data"
  top: "conv0"
  param {
    lr_mult: 1
  }
  param {
    lr_mult: 2
  }
  convolution_param {
    num_output: 25
    kernel_size: 5
    stride: 1
    weight_filler {
      type: "xavier"
    }
    bias_filler {
      type: "constant"
    }
  }
}
layer {
  name: "pool0"
  type: "Pooling"
  bottom: "conv0"
  top: "pool0"
  pooling_param {
    pool: MAX
    kernel_size: 2
    stride: 2
  }
}
layer {
  name: "conv1"
  type: "Convolution"
  bottom: "pool0"
  top: "conv1"
  param {
    lr_mult: 1
  }
  param {
    lr_mult: 2
  }
  convolution_param {
    num_output: 25
    kernel_size: 5
    stride: 1
    weight_filler {
      type: "xavier"
    }
    bias_filler {
      type: "constant"
    }
  }
}
layer {
  name: "pool1"
  type: "Pooling"
  bottom: "conv1"
  top: "pool1"
  pooling_param {
    pool: MAX
    kernel_size: 2
    stride: 2
  }
}
layer {
  name: "ip1"
  type: "InnerProduct"
  bottom: "pool1"
  top: "ip1"
  param {
    lr_mult: 1
  }
  param {
    lr_mult: 2
  }
  inner_product_param {
    num_output: 100
    weight_filler {
      type: "xavier"
    }
    bias_filler {
      type: "constant"
    }
  }
}
layer {
  name: "relu1"
  type: "ReLU"
  bottom: "ip1"
  top: "ip1"
}
layer {
  name: "ip2"
  type: "InnerProduct"
  bottom: "ip1"
  top: "ip2"
  param {
    lr_mult: 1
  }
  param {
    lr_mult: 2
  }
  inner_product_param {
    num_output: 100
    weight_filler {
      type: "xavier"
    }
    bias_filler {
      type: "constant"
    }
  }
}
layer {
  name: "relu2"
  type: "ReLU"
  bottom: "ip2"
  top: "ip2"
}
layer {
  name: "ip3"
  type: "InnerProduct"
  bottom: "ip2"
  top: "ip3"
  param {
    lr_mult: 1
  }
  param {
    lr_mult: 2
  }
  inner_product_param {
    num_output: 10
    weight_filler {
      type: "xavier"
    }
    bias_filler {
      type: "constant"
    }
  }
}
layer {
  name: "relu3"
  type: "ReLU"
  bottom: "ip3"
  top: "ip3"
}
layer {
  name: "accuracy"
  type: "Accuracy"
  bottom: "ip3"
  bottom: "label"
  top: "accuracy"
  include {
    phase: TEST
  }
}
layer {
  name: "loss"
  type: "SoftmaxWithLoss"
  bottom: "ip3"
  bottom: "label"
  top: "loss"
}
I0426 20:52:42.873132 32252 layer_factory.hpp:77] Creating layer mnist
I0426 20:52:42.873181 32252 db_lmdb.cpp:35] Opened lmdb examples/mnist/mnist_test_lmdb
I0426 20:52:42.873208 32252 net.cpp:86] Creating Layer mnist
I0426 20:52:42.873214 32252 net.cpp:382] mnist -> data
I0426 20:52:42.873222 32252 net.cpp:382] mnist -> label
I0426 20:52:42.873338 32252 data_layer.cpp:45] output data size: 100,1,28,28
I0426 20:52:42.875310 32252 net.cpp:124] Setting up mnist
I0426 20:52:42.875334 32252 net.cpp:131] Top shape: 100 1 28 28 (78400)
I0426 20:52:42.875339 32252 net.cpp:131] Top shape: 100 (100)
I0426 20:52:42.875341 32252 net.cpp:139] Memory required for data: 314000
I0426 20:52:42.875344 32252 layer_factory.hpp:77] Creating layer label_mnist_1_split
I0426 20:52:42.875391 32252 net.cpp:86] Creating Layer label_mnist_1_split
I0426 20:52:42.875394 32252 net.cpp:408] label_mnist_1_split <- label
I0426 20:52:42.875401 32252 net.cpp:382] label_mnist_1_split -> label_mnist_1_split_0
I0426 20:52:42.875407 32252 net.cpp:382] label_mnist_1_split -> label_mnist_1_split_1
I0426 20:52:42.875537 32252 net.cpp:124] Setting up label_mnist_1_split
I0426 20:52:42.875560 32252 net.cpp:131] Top shape: 100 (100)
I0426 20:52:42.875562 32252 net.cpp:131] Top shape: 100 (100)
I0426 20:52:42.875566 32252 net.cpp:139] Memory required for data: 314800
I0426 20:52:42.875568 32252 layer_factory.hpp:77] Creating layer conv0
I0426 20:52:42.875578 32252 net.cpp:86] Creating Layer conv0
I0426 20:52:42.875581 32252 net.cpp:408] conv0 <- data
I0426 20:52:42.875586 32252 net.cpp:382] conv0 -> conv0
I0426 20:52:42.877205 32252 net.cpp:124] Setting up conv0
I0426 20:52:42.877218 32252 net.cpp:131] Top shape: 100 25 24 24 (1440000)
I0426 20:52:42.877221 32252 net.cpp:139] Memory required for data: 6074800
I0426 20:52:42.877230 32252 layer_factory.hpp:77] Creating layer pool0
I0426 20:52:42.877251 32252 net.cpp:86] Creating Layer pool0
I0426 20:52:42.877254 32252 net.cpp:408] pool0 <- conv0
I0426 20:52:42.877259 32252 net.cpp:382] pool0 -> pool0
I0426 20:52:42.877293 32252 net.cpp:124] Setting up pool0
I0426 20:52:42.877300 32252 net.cpp:131] Top shape: 100 25 12 12 (360000)
I0426 20:52:42.877301 32252 net.cpp:139] Memory required for data: 7514800
I0426 20:52:42.877305 32252 layer_factory.hpp:77] Creating layer conv1
I0426 20:52:42.877312 32252 net.cpp:86] Creating Layer conv1
I0426 20:52:42.877315 32252 net.cpp:408] conv1 <- pool0
I0426 20:52:42.877321 32252 net.cpp:382] conv1 -> conv1
I0426 20:52:42.879617 32252 net.cpp:124] Setting up conv1
I0426 20:52:42.879631 32252 net.cpp:131] Top shape: 100 25 8 8 (160000)
I0426 20:52:42.879636 32252 net.cpp:139] Memory required for data: 8154800
I0426 20:52:42.879643 32252 layer_factory.hpp:77] Creating layer pool1
I0426 20:52:42.879650 32252 net.cpp:86] Creating Layer pool1
I0426 20:52:42.879669 32252 net.cpp:408] pool1 <- conv1
I0426 20:52:42.879674 32252 net.cpp:382] pool1 -> pool1
I0426 20:52:42.879712 32252 net.cpp:124] Setting up pool1
I0426 20:52:42.879717 32252 net.cpp:131] Top shape: 100 25 4 4 (40000)
I0426 20:52:42.879720 32252 net.cpp:139] Memory required for data: 8314800
I0426 20:52:42.879724 32252 layer_factory.hpp:77] Creating layer ip1
I0426 20:52:42.879729 32252 net.cpp:86] Creating Layer ip1
I0426 20:52:42.879732 32252 net.cpp:408] ip1 <- pool1
I0426 20:52:42.879740 32252 net.cpp:382] ip1 -> ip1
I0426 20:52:42.880120 32252 net.cpp:124] Setting up ip1
I0426 20:52:42.880128 32252 net.cpp:131] Top shape: 100 100 (10000)
I0426 20:52:42.880142 32252 net.cpp:139] Memory required for data: 8354800
I0426 20:52:42.880172 32252 layer_factory.hpp:77] Creating layer relu1
I0426 20:52:42.880177 32252 net.cpp:86] Creating Layer relu1
I0426 20:52:42.880180 32252 net.cpp:408] relu1 <- ip1
I0426 20:52:42.880185 32252 net.cpp:369] relu1 -> ip1 (in-place)
I0426 20:52:42.880365 32252 net.cpp:124] Setting up relu1
I0426 20:52:42.880374 32252 net.cpp:131] Top shape: 100 100 (10000)
I0426 20:52:42.880378 32252 net.cpp:139] Memory required for data: 8394800
I0426 20:52:42.880380 32252 layer_factory.hpp:77] Creating layer ip2
I0426 20:52:42.880388 32252 net.cpp:86] Creating Layer ip2
I0426 20:52:42.880391 32252 net.cpp:408] ip2 <- ip1
I0426 20:52:42.880396 32252 net.cpp:382] ip2 -> ip2
I0426 20:52:42.880548 32252 net.cpp:124] Setting up ip2
I0426 20:52:42.880554 32252 net.cpp:131] Top shape: 100 100 (10000)
I0426 20:52:42.880558 32252 net.cpp:139] Memory required for data: 8434800
I0426 20:52:42.880563 32252 layer_factory.hpp:77] Creating layer relu2
I0426 20:52:42.880568 32252 net.cpp:86] Creating Layer relu2
I0426 20:52:42.880579 32252 net.cpp:408] relu2 <- ip2
I0426 20:52:42.880584 32252 net.cpp:369] relu2 -> ip2 (in-place)
I0426 20:52:42.880754 32252 net.cpp:124] Setting up relu2
I0426 20:52:42.880764 32252 net.cpp:131] Top shape: 100 100 (10000)
I0426 20:52:42.880766 32252 net.cpp:139] Memory required for data: 8474800
I0426 20:52:42.880769 32252 layer_factory.hpp:77] Creating layer ip3
I0426 20:52:42.880775 32252 net.cpp:86] Creating Layer ip3
I0426 20:52:42.880785 32252 net.cpp:408] ip3 <- ip2
I0426 20:52:42.880791 32252 net.cpp:382] ip3 -> ip3
I0426 20:52:42.880956 32252 net.cpp:124] Setting up ip3
I0426 20:52:42.880964 32252 net.cpp:131] Top shape: 100 10 (1000)
I0426 20:52:42.880967 32252 net.cpp:139] Memory required for data: 8478800
I0426 20:52:42.880978 32252 layer_factory.hpp:77] Creating layer relu3
I0426 20:52:42.880997 32252 net.cpp:86] Creating Layer relu3
I0426 20:52:42.881001 32252 net.cpp:408] relu3 <- ip3
I0426 20:52:42.881006 32252 net.cpp:369] relu3 -> ip3 (in-place)
I0426 20:52:42.881922 32252 net.cpp:124] Setting up relu3
I0426 20:52:42.881934 32252 net.cpp:131] Top shape: 100 10 (1000)
I0426 20:52:42.881937 32252 net.cpp:139] Memory required for data: 8482800
I0426 20:52:42.881947 32252 layer_factory.hpp:77] Creating layer ip3_relu3_0_split
I0426 20:52:42.881969 32252 net.cpp:86] Creating Layer ip3_relu3_0_split
I0426 20:52:42.881983 32252 net.cpp:408] ip3_relu3_0_split <- ip3
I0426 20:52:42.881989 32252 net.cpp:382] ip3_relu3_0_split -> ip3_relu3_0_split_0
I0426 20:52:42.881996 32252 net.cpp:382] ip3_relu3_0_split -> ip3_relu3_0_split_1
I0426 20:52:42.882061 32252 net.cpp:124] Setting up ip3_relu3_0_split
I0426 20:52:42.882067 32252 net.cpp:131] Top shape: 100 10 (1000)
I0426 20:52:42.882071 32252 net.cpp:131] Top shape: 100 10 (1000)
I0426 20:52:42.882074 32252 net.cpp:139] Memory required for data: 8490800
I0426 20:52:42.882077 32252 layer_factory.hpp:77] Creating layer accuracy
I0426 20:52:42.882083 32252 net.cpp:86] Creating Layer accuracy
I0426 20:52:42.882087 32252 net.cpp:408] accuracy <- ip3_relu3_0_split_0
I0426 20:52:42.882107 32252 net.cpp:408] accuracy <- label_mnist_1_split_0
I0426 20:52:42.882110 32252 net.cpp:382] accuracy -> accuracy
…
