…
I0426 20:50:39.712849 31804 net.cpp:296] The NetState phase (0) differed from the phase (1) specified by a rule in layer mnist
I0426 20:50:39.712880 31804 net.cpp:296] The NetState phase (0) differed from the phase (1) specified by a rule in layer accuracy
I0426 20:50:39.712985 31804 net.cpp:53] Initializing net from parameters: 
name: "LeNet"
state {
  phase: TRAIN
  level: 0
  stage: ""
}
layer {
  name: "mnist"
  type: "Data"
  top: "data"
  top: "label"
  include {
    phase: TRAIN
  }
  transform_param {
    scale: 0.00390625
  }
  data_param {
    source: "examples/mnist/mnist_train_lmdb"
    batch_size: 64
    backend: LMDB
  }
}
layer {
  name: "conv0"
  type: "Convolution"
  bottom: "data"
  top: "conv0"
  param {
    lr_mult: 1
  }
  param {
    lr_mult: 2
  }
  convolution_param {
    num_output: 10
    kernel_size: 5
    stride: 1
    weight_filler {
      type: "xavier"
    }
    bias_filler {
      type: "constant"
    }
  }
}
layer {
  name: "pool0"
  type: "Pooling"
  bottom: "conv0"
  top: "pool0"
  pooling_param {
    pool: MAX
    kernel_size: 2
    stride: 2
  }
}
layer {
  name: "conv1"
  type: "Convolution"
  bottom: "pool0"
  top: "conv1"
  param {
    lr_mult: 1
  }
  param {
    lr_mult: 2
  }
  convolution_param {
    num_output: 10
    kernel_size: 5
    stride: 1
    weight_filler {
      type: "xavier"
    }
    bias_filler {
      type: "constant"
    }
  }
}
layer {
  name: "pool1"
  type: "Pooling"
  bottom: "conv1"
  top: "pool1"
  pooling_param {
    pool: MAX
    kernel_size: 2
    stride: 2
  }
}
layer {
  name: "ip1"
  type: "InnerProduct"
  bottom: "pool1"
  top: "ip1"
  param {
    lr_mult: 1
  }
  param {
    lr_mult: 2
  }
  inner_product_param {
    num_output: 300
    weight_filler {
      type: "xavier"
    }
    bias_filler {
      type: "constant"
    }
  }
}
layer {
  name: "relu1"
  type: "ReLU"
  bottom: "ip1"
  top: "ip1"
}
layer {
  name: "ip2"
  type: "InnerProduct"
  bottom: "ip1"
  top: "ip2"
  param {
    lr_mult: 1
  }
  param {
    lr_mult: 2
  }
  inner_product_param {
    num_output: 100
    weight_filler {
      type: "xavier"
    }
    bias_filler {
      type: "constant"
    }
  }
}
layer {
  name: "relu2"
  type: "ReLU"
  bottom: "ip2"
  top: "ip2"
}
layer {
  name: "ip3"
  type: "InnerProduct"
  bottom: "ip2"
  top: "ip3"
  param {
    lr_mult: 1
  }
  param {
    lr_mult: 2
  }
  inner_product_param {
    num_output: 10
    weight_filler {
      type: "xavier"
    }
    bias_filler {
      type: "constant"
    }
  }
}
layer {
  name: "relu3"
  type: "ReLU"
  bottom: "ip3"
  top: "ip3"
}
layer {
  name: "loss"
  type: "SoftmaxWithLoss"
  bottom: "ip3"
  bottom: "label"
  top: "loss"
}
I0426 20:50:39.713057 31804 layer_factory.hpp:77] Creating layer mnist
I0426 20:50:39.713141 31804 db_lmdb.cpp:35] Opened lmdb examples/mnist/mnist_train_lmdb
I0426 20:50:39.713174 31804 net.cpp:86] Creating Layer mnist
I0426 20:50:39.713184 31804 net.cpp:382] mnist -> data
I0426 20:50:39.713202 31804 net.cpp:382] mnist -> label
I0426 20:50:39.714133 31804 data_layer.cpp:45] output data size: 64,1,28,28
I0426 20:50:39.716248 31804 net.cpp:124] Setting up mnist
I0426 20:50:39.716261 31804 net.cpp:131] Top shape: 64 1 28 28 (50176)
I0426 20:50:39.716265 31804 net.cpp:131] Top shape: 64 (64)
I0426 20:50:39.716269 31804 net.cpp:139] Memory required for data: 200960
I0426 20:50:39.716274 31804 layer_factory.hpp:77] Creating layer conv0
I0426 20:50:39.716286 31804 net.cpp:86] Creating Layer conv0
I0426 20:50:39.716318 31804 net.cpp:408] conv0 <- data
I0426 20:50:39.716330 31804 net.cpp:382] conv0 -> conv0
I0426 20:50:39.945199 31804 net.cpp:124] Setting up conv0
I0426 20:50:39.945240 31804 net.cpp:131] Top shape: 64 10 24 24 (368640)
I0426 20:50:39.945243 31804 net.cpp:139] Memory required for data: 1675520
I0426 20:50:39.945258 31804 layer_factory.hpp:77] Creating layer pool0
I0426 20:50:39.945271 31804 net.cpp:86] Creating Layer pool0
I0426 20:50:39.945274 31804 net.cpp:408] pool0 <- conv0
I0426 20:50:39.945278 31804 net.cpp:382] pool0 -> pool0
I0426 20:50:39.945339 31804 net.cpp:124] Setting up pool0
I0426 20:50:39.945344 31804 net.cpp:131] Top shape: 64 10 12 12 (92160)
I0426 20:50:39.945348 31804 net.cpp:139] Memory required for data: 2044160
I0426 20:50:39.945350 31804 layer_factory.hpp:77] Creating layer conv1
I0426 20:50:39.945360 31804 net.cpp:86] Creating Layer conv1
I0426 20:50:39.945363 31804 net.cpp:408] conv1 <- pool0
I0426 20:50:39.945368 31804 net.cpp:382] conv1 -> conv1
I0426 20:50:39.947979 31804 net.cpp:124] Setting up conv1
I0426 20:50:39.947993 31804 net.cpp:131] Top shape: 64 10 8 8 (40960)
I0426 20:50:39.947996 31804 net.cpp:139] Memory required for data: 2208000
I0426 20:50:39.948004 31804 layer_factory.hpp:77] Creating layer pool1
I0426 20:50:39.948011 31804 net.cpp:86] Creating Layer pool1
I0426 20:50:39.948014 31804 net.cpp:408] pool1 <- conv1
I0426 20:50:39.948019 31804 net.cpp:382] pool1 -> pool1
I0426 20:50:39.948070 31804 net.cpp:124] Setting up pool1
I0426 20:50:39.948074 31804 net.cpp:131] Top shape: 64 10 4 4 (10240)
I0426 20:50:39.948076 31804 net.cpp:139] Memory required for data: 2248960
I0426 20:50:39.948079 31804 layer_factory.hpp:77] Creating layer ip1
I0426 20:50:39.948086 31804 net.cpp:86] Creating Layer ip1
I0426 20:50:39.948089 31804 net.cpp:408] ip1 <- pool1
I0426 20:50:39.948093 31804 net.cpp:382] ip1 -> ip1
I0426 20:50:39.948467 31804 net.cpp:124] Setting up ip1
I0426 20:50:39.948473 31804 net.cpp:131] Top shape: 64 300 (19200)
I0426 20:50:39.948492 31804 net.cpp:139] Memory required for data: 2325760
I0426 20:50:39.948498 31804 layer_factory.hpp:77] Creating layer relu1
I0426 20:50:39.948503 31804 net.cpp:86] Creating Layer relu1
I0426 20:50:39.948506 31804 net.cpp:408] relu1 <- ip1
I0426 20:50:39.948510 31804 net.cpp:369] relu1 -> ip1 (in-place)
I0426 20:50:39.948667 31804 net.cpp:124] Setting up relu1
I0426 20:50:39.948675 31804 net.cpp:131] Top shape: 64 300 (19200)
I0426 20:50:39.948678 31804 net.cpp:139] Memory required for data: 2402560
I0426 20:50:39.948680 31804 layer_factory.hpp:77] Creating layer ip2
I0426 20:50:39.948686 31804 net.cpp:86] Creating Layer ip2
I0426 20:50:39.948689 31804 net.cpp:408] ip2 <- ip1
I0426 20:50:39.948693 31804 net.cpp:382] ip2 -> ip2
I0426 20:50:39.948972 31804 net.cpp:124] Setting up ip2
I0426 20:50:39.948981 31804 net.cpp:131] Top shape: 64 100 (6400)
I0426 20:50:39.948984 31804 net.cpp:139] Memory required for data: 2428160
I0426 20:50:39.948989 31804 layer_factory.hpp:77] Creating layer relu2
I0426 20:50:39.949010 31804 net.cpp:86] Creating Layer relu2
I0426 20:50:39.949014 31804 net.cpp:408] relu2 <- ip2
I0426 20:50:39.949018 31804 net.cpp:369] relu2 -> ip2 (in-place)
I0426 20:50:39.949827 31804 net.cpp:124] Setting up relu2
I0426 20:50:39.949839 31804 net.cpp:131] Top shape: 64 100 (6400)
I0426 20:50:39.949856 31804 net.cpp:139] Memory required for data: 2453760
I0426 20:50:39.949861 31804 layer_factory.hpp:77] Creating layer ip3
I0426 20:50:39.949867 31804 net.cpp:86] Creating Layer ip3
I0426 20:50:39.949869 31804 net.cpp:408] ip3 <- ip2
I0426 20:50:39.949875 31804 net.cpp:382] ip3 -> ip3
I0426 20:50:39.949990 31804 net.cpp:124] Setting up ip3
I0426 20:50:39.950007 31804 net.cpp:131] Top shape: 64 10 (640)
I0426 20:50:39.950011 31804 net.cpp:139] Memory required for data: 2456320
I0426 20:50:39.950017 31804 layer_factory.hpp:77] Creating layer relu3
I0426 20:50:39.950022 31804 net.cpp:86] Creating Layer relu3
I0426 20:50:39.950026 31804 net.cpp:408] relu3 <- ip3
I0426 20:50:39.950029 31804 net.cpp:369] relu3 -> ip3 (in-place)
I0426 20:50:39.950181 31804 net.cpp:124] Setting up relu3
I0426 20:50:39.950189 31804 net.cpp:131] Top shape: 64 10 (640)
I0426 20:50:39.950192 31804 net.cpp:139] Memory required for data: 2458880
I0426 20:50:39.950196 31804 layer_factory.hpp:77] Creating layer loss
I0426 20:50:39.950201 31804 net.cpp:86] Creating Layer loss
I0426 20:50:39.950203 31804 net.cpp:408] loss <- ip3
I0426 20:50:39.950207 31804 net.cpp:408] loss <- label
I0426 20:50:39.950212 31804 net.cpp:382] loss -> loss
I0426 20:50:39.950228 31804 layer_factory.hpp:77] Creating layer loss
…
I0426 20:50:39.950830 31804 solver.cpp:173] Creating test net (#0) specified by net file: ECE595/mnist/train_test/var_everything/lenet_train_test66.prototxt
I0426 20:50:39.950857 31804 net.cpp:296] The NetState phase (1) differed from the phase (0) specified by a rule in layer mnist
I0426 20:50:39.950947 31804 net.cpp:53] Initializing net from parameters: 
name: "LeNet"
state {
  phase: TEST
}
layer {
  name: "mnist"
  type: "Data"
  top: "data"
  top: "label"
  include {
    phase: TEST
  }
  transform_param {
    scale: 0.00390625
  }
  data_param {
    source: "examples/mnist/mnist_test_lmdb"
    batch_size: 100
    backend: LMDB
  }
}
layer {
  name: "conv0"
  type: "Convolution"
  bottom: "data"
  top: "conv0"
  param {
    lr_mult: 1
  }
  param {
    lr_mult: 2
  }
  convolution_param {
    num_output: 10
    kernel_size: 5
    stride: 1
    weight_filler {
      type: "xavier"
    }
    bias_filler {
      type: "constant"
    }
  }
}
layer {
  name: "pool0"
  type: "Pooling"
  bottom: "conv0"
  top: "pool0"
  pooling_param {
    pool: MAX
    kernel_size: 2
    stride: 2
  }
}
layer {
  name: "conv1"
  type: "Convolution"
  bottom: "pool0"
  top: "conv1"
  param {
    lr_mult: 1
  }
  param {
    lr_mult: 2
  }
  convolution_param {
    num_output: 10
    kernel_size: 5
    stride: 1
    weight_filler {
      type: "xavier"
    }
    bias_filler {
      type: "constant"
    }
  }
}
layer {
  name: "pool1"
  type: "Pooling"
  bottom: "conv1"
  top: "pool1"
  pooling_param {
    pool: MAX
    kernel_size: 2
    stride: 2
  }
}
layer {
  name: "ip1"
  type: "InnerProduct"
  bottom: "pool1"
  top: "ip1"
  param {
    lr_mult: 1
  }
  param {
    lr_mult: 2
  }
  inner_product_param {
    num_output: 300
    weight_filler {
      type: "xavier"
    }
    bias_filler {
      type: "constant"
    }
  }
}
layer {
  name: "relu1"
  type: "ReLU"
  bottom: "ip1"
  top: "ip1"
}
layer {
  name: "ip2"
  type: "InnerProduct"
  bottom: "ip1"
  top: "ip2"
  param {
    lr_mult: 1
  }
  param {
    lr_mult: 2
  }
  inner_product_param {
    num_output: 100
    weight_filler {
      type: "xavier"
    }
    bias_filler {
      type: "constant"
    }
  }
}
layer {
  name: "relu2"
  type: "ReLU"
  bottom: "ip2"
  top: "ip2"
}
layer {
  name: "ip3"
  type: "InnerProduct"
  bottom: "ip2"
  top: "ip3"
  param {
    lr_mult: 1
  }
  param {
    lr_mult: 2
  }
  inner_product_param {
    num_output: 10
    weight_filler {
      type: "xavier"
    }
    bias_filler {
      type: "constant"
    }
  }
}
layer {
  name: "relu3"
  type: "ReLU"
  bottom: "ip3"
  top: "ip3"
}
layer {
  name: "accuracy"
  type: "Accuracy"
  bottom: "ip3"
  bottom: "label"
  top: "accuracy"
  include {
    phase: TEST
  }
}
layer {
  name: "loss"
  type: "SoftmaxWithLoss"
  bottom: "ip3"
  bottom: "label"
  top: "loss"
}
I0426 20:50:39.951022 31804 layer_factory.hpp:77] Creating layer mnist
I0426 20:50:39.951064 31804 db_lmdb.cpp:35] Opened lmdb examples/mnist/mnist_test_lmdb
I0426 20:50:39.951076 31804 net.cpp:86] Creating Layer mnist
I0426 20:50:39.951081 31804 net.cpp:382] mnist -> data
I0426 20:50:39.951088 31804 net.cpp:382] mnist -> label
I0426 20:50:39.951169 31804 data_layer.cpp:45] output data size: 100,1,28,28
I0426 20:50:39.953244 31804 net.cpp:124] Setting up mnist
I0426 20:50:39.953256 31804 net.cpp:131] Top shape: 100 1 28 28 (78400)
I0426 20:50:39.953260 31804 net.cpp:131] Top shape: 100 (100)
I0426 20:50:39.953263 31804 net.cpp:139] Memory required for data: 314000
I0426 20:50:39.953266 31804 layer_factory.hpp:77] Creating layer label_mnist_1_split
I0426 20:50:39.953272 31804 net.cpp:86] Creating Layer label_mnist_1_split
I0426 20:50:39.953275 31804 net.cpp:408] label_mnist_1_split <- label
I0426 20:50:39.953281 31804 net.cpp:382] label_mnist_1_split -> label_mnist_1_split_0
I0426 20:50:39.953287 31804 net.cpp:382] label_mnist_1_split -> label_mnist_1_split_1
I0426 20:50:39.953339 31804 net.cpp:124] Setting up label_mnist_1_split
I0426 20:50:39.953344 31804 net.cpp:131] Top shape: 100 (100)
I0426 20:50:39.953347 31804 net.cpp:131] Top shape: 100 (100)
I0426 20:50:39.953349 31804 net.cpp:139] Memory required for data: 314800
I0426 20:50:39.953352 31804 layer_factory.hpp:77] Creating layer conv0
I0426 20:50:39.953361 31804 net.cpp:86] Creating Layer conv0
I0426 20:50:39.953364 31804 net.cpp:408] conv0 <- data
I0426 20:50:39.953369 31804 net.cpp:382] conv0 -> conv0
I0426 20:50:39.955193 31804 net.cpp:124] Setting up conv0
I0426 20:50:39.955206 31804 net.cpp:131] Top shape: 100 10 24 24 (576000)
I0426 20:50:39.955209 31804 net.cpp:139] Memory required for data: 2618800
I0426 20:50:39.955219 31804 layer_factory.hpp:77] Creating layer pool0
I0426 20:50:39.955235 31804 net.cpp:86] Creating Layer pool0
I0426 20:50:39.955238 31804 net.cpp:408] pool0 <- conv0
I0426 20:50:39.955243 31804 net.cpp:382] pool0 -> pool0
I0426 20:50:39.955278 31804 net.cpp:124] Setting up pool0
I0426 20:50:39.955283 31804 net.cpp:131] Top shape: 100 10 12 12 (144000)
I0426 20:50:39.955286 31804 net.cpp:139] Memory required for data: 3194800
I0426 20:50:39.955288 31804 layer_factory.hpp:77] Creating layer conv1
I0426 20:50:39.955297 31804 net.cpp:86] Creating Layer conv1
I0426 20:50:39.955301 31804 net.cpp:408] conv1 <- pool0
I0426 20:50:39.955304 31804 net.cpp:382] conv1 -> conv1
I0426 20:50:39.957465 31804 net.cpp:124] Setting up conv1
I0426 20:50:39.957478 31804 net.cpp:131] Top shape: 100 10 8 8 (64000)
I0426 20:50:39.957481 31804 net.cpp:139] Memory required for data: 3450800
I0426 20:50:39.957489 31804 layer_factory.hpp:77] Creating layer pool1
I0426 20:50:39.957496 31804 net.cpp:86] Creating Layer pool1
I0426 20:50:39.957515 31804 net.cpp:408] pool1 <- conv1
I0426 20:50:39.957520 31804 net.cpp:382] pool1 -> pool1
I0426 20:50:39.957556 31804 net.cpp:124] Setting up pool1
I0426 20:50:39.957561 31804 net.cpp:131] Top shape: 100 10 4 4 (16000)
I0426 20:50:39.957564 31804 net.cpp:139] Memory required for data: 3514800
I0426 20:50:39.957566 31804 layer_factory.hpp:77] Creating layer ip1
I0426 20:50:39.957579 31804 net.cpp:86] Creating Layer ip1
I0426 20:50:39.957582 31804 net.cpp:408] ip1 <- pool1
I0426 20:50:39.957589 31804 net.cpp:382] ip1 -> ip1
I0426 20:50:39.957969 31804 net.cpp:124] Setting up ip1
I0426 20:50:39.957993 31804 net.cpp:131] Top shape: 100 300 (30000)
I0426 20:50:39.958019 31804 net.cpp:139] Memory required for data: 3634800
I0426 20:50:39.958026 31804 layer_factory.hpp:77] Creating layer relu1
I0426 20:50:39.958031 31804 net.cpp:86] Creating Layer relu1
I0426 20:50:39.958035 31804 net.cpp:408] relu1 <- ip1
I0426 20:50:39.958040 31804 net.cpp:369] relu1 -> ip1 (in-place)
I0426 20:50:39.958222 31804 net.cpp:124] Setting up relu1
I0426 20:50:39.958231 31804 net.cpp:131] Top shape: 100 300 (30000)
I0426 20:50:39.958235 31804 net.cpp:139] Memory required for data: 3754800
I0426 20:50:39.958236 31804 layer_factory.hpp:77] Creating layer ip2
I0426 20:50:39.958245 31804 net.cpp:86] Creating Layer ip2
I0426 20:50:39.958248 31804 net.cpp:408] ip2 <- ip1
I0426 20:50:39.958259 31804 net.cpp:382] ip2 -> ip2
I0426 20:50:39.958544 31804 net.cpp:124] Setting up ip2
I0426 20:50:39.958551 31804 net.cpp:131] Top shape: 100 100 (10000)
I0426 20:50:39.958554 31804 net.cpp:139] Memory required for data: 3794800
I0426 20:50:39.958559 31804 layer_factory.hpp:77] Creating layer relu2
I0426 20:50:39.958570 31804 net.cpp:86] Creating Layer relu2
I0426 20:50:39.958573 31804 net.cpp:408] relu2 <- ip2
I0426 20:50:39.958580 31804 net.cpp:369] relu2 -> ip2 (in-place)
I0426 20:50:39.958731 31804 net.cpp:124] Setting up relu2
I0426 20:50:39.958740 31804 net.cpp:131] Top shape: 100 100 (10000)
I0426 20:50:39.958744 31804 net.cpp:139] Memory required for data: 3834800
I0426 20:50:39.958746 31804 layer_factory.hpp:77] Creating layer ip3
I0426 20:50:39.958751 31804 net.cpp:86] Creating Layer ip3
I0426 20:50:39.958753 31804 net.cpp:408] ip3 <- ip2
I0426 20:50:39.958758 31804 net.cpp:382] ip3 -> ip3
I0426 20:50:39.958866 31804 net.cpp:124] Setting up ip3
I0426 20:50:39.958873 31804 net.cpp:131] Top shape: 100 10 (1000)
I0426 20:50:39.958878 31804 net.cpp:139] Memory required for data: 3838800
I0426 20:50:39.958884 31804 layer_factory.hpp:77] Creating layer relu3
I0426 20:50:39.958889 31804 net.cpp:86] Creating Layer relu3
I0426 20:50:39.958899 31804 net.cpp:408] relu3 <- ip3
I0426 20:50:39.958902 31804 net.cpp:369] relu3 -> ip3 (in-place)
I0426 20:50:39.959727 31804 net.cpp:124] Setting up relu3
I0426 20:50:39.959738 31804 net.cpp:131] Top shape: 100 10 (1000)
I0426 20:50:39.959741 31804 net.cpp:139] Memory required for data: 3842800
I0426 20:50:39.959744 31804 layer_factory.hpp:77] Creating layer ip3_relu3_0_split
I0426 20:50:39.959751 31804 net.cpp:86] Creating Layer ip3_relu3_0_split
I0426 20:50:39.959754 31804 net.cpp:408] ip3_relu3_0_split <- ip3
I0426 20:50:39.959759 31804 net.cpp:382] ip3_relu3_0_split -> ip3_relu3_0_split_0
I0426 20:50:39.959766 31804 net.cpp:382] ip3_relu3_0_split -> ip3_relu3_0_split_1
I0426 20:50:39.959807 31804 net.cpp:124] Setting up ip3_relu3_0_split
I0426 20:50:39.959812 31804 net.cpp:131] Top shape: 100 10 (1000)
I0426 20:50:39.959816 31804 net.cpp:131] Top shape: 100 10 (1000)
I0426 20:50:39.959818 31804 net.cpp:139] Memory required for data: 3850800
I0426 20:50:39.959834 31804 layer_factory.hpp:77] Creating layer accuracy
I0426 20:50:39.959839 31804 net.cpp:86] Creating Layer accuracy
I0426 20:50:39.959842 31804 net.cpp:408] accuracy <- ip3_relu3_0_split_0
I0426 20:50:39.959846 31804 net.cpp:408] accuracy <- label_mnist_1_split_0
I0426 20:50:39.959851 31804 net.cpp:382] accuracy -> accuracy
…
