…
I0426 20:48:43.430013 31326 net.cpp:296] The NetState phase (0) differed from the phase (1) specified by a rule in layer mnist
I0426 20:48:43.430027 31326 net.cpp:296] The NetState phase (0) differed from the phase (1) specified by a rule in layer accuracy
I0426 20:48:43.430096 31326 net.cpp:53] Initializing net from parameters: 
name: "LeNet"
state {
  phase: TRAIN
  level: 0
  stage: ""
}
layer {
  name: "mnist"
  type: "Data"
  top: "data"
  top: "label"
  include {
    phase: TRAIN
  }
  transform_param {
    scale: 0.00390625
  }
  data_param {
    source: "examples/mnist/mnist_train_lmdb"
    batch_size: 64
    backend: LMDB
  }
}
layer {
  name: "conv0"
  type: "Convolution"
  bottom: "data"
  top: "conv0"
  param {
    lr_mult: 1
  }
  param {
    lr_mult: 2
  }
  convolution_param {
    num_output: 10
    kernel_size: 5
    stride: 1
    weight_filler {
      type: "xavier"
    }
    bias_filler {
      type: "constant"
    }
  }
}
layer {
  name: "pool0"
  type: "Pooling"
  bottom: "conv0"
  top: "pool0"
  pooling_param {
    pool: MAX
    kernel_size: 2
    stride: 2
  }
}
layer {
  name: "ip1"
  type: "InnerProduct"
  bottom: "pool0"
  top: "ip1"
  param {
    lr_mult: 1
  }
  param {
    lr_mult: 2
  }
  inner_product_param {
    num_output: 10
    weight_filler {
      type: "xavier"
    }
    bias_filler {
      type: "constant"
    }
  }
}
layer {
  name: "relu1"
  type: "ReLU"
  bottom: "ip1"
  top: "ip1"
}
layer {
  name: "loss"
  type: "SoftmaxWithLoss"
  bottom: "ip1"
  bottom: "label"
  top: "loss"
}
I0426 20:48:43.430160 31326 layer_factory.hpp:77] Creating layer mnist
I0426 20:48:43.430263 31326 db_lmdb.cpp:35] Opened lmdb examples/mnist/mnist_train_lmdb
I0426 20:48:43.430289 31326 net.cpp:86] Creating Layer mnist
I0426 20:48:43.430295 31326 net.cpp:382] mnist -> data
I0426 20:48:43.430321 31326 net.cpp:382] mnist -> label
I0426 20:48:43.431419 31326 data_layer.cpp:45] output data size: 64,1,28,28
I0426 20:48:43.433957 31326 net.cpp:124] Setting up mnist
I0426 20:48:43.433974 31326 net.cpp:131] Top shape: 64 1 28 28 (50176)
I0426 20:48:43.433980 31326 net.cpp:131] Top shape: 64 (64)
I0426 20:48:43.433984 31326 net.cpp:139] Memory required for data: 200960
I0426 20:48:43.433991 31326 layer_factory.hpp:77] Creating layer conv0
I0426 20:48:43.434010 31326 net.cpp:86] Creating Layer conv0
I0426 20:48:43.434015 31326 net.cpp:408] conv0 <- data
I0426 20:48:43.434027 31326 net.cpp:382] conv0 -> conv0
I0426 20:48:43.676507 31326 net.cpp:124] Setting up conv0
I0426 20:48:43.676534 31326 net.cpp:131] Top shape: 64 10 24 24 (368640)
I0426 20:48:43.676537 31326 net.cpp:139] Memory required for data: 1675520
I0426 20:48:43.676553 31326 layer_factory.hpp:77] Creating layer pool0
I0426 20:48:43.676565 31326 net.cpp:86] Creating Layer pool0
I0426 20:48:43.676569 31326 net.cpp:408] pool0 <- conv0
I0426 20:48:43.676590 31326 net.cpp:382] pool0 -> pool0
I0426 20:48:43.676635 31326 net.cpp:124] Setting up pool0
I0426 20:48:43.676641 31326 net.cpp:131] Top shape: 64 10 12 12 (92160)
I0426 20:48:43.676645 31326 net.cpp:139] Memory required for data: 2044160
I0426 20:48:43.676647 31326 layer_factory.hpp:77] Creating layer ip1
I0426 20:48:43.676654 31326 net.cpp:86] Creating Layer ip1
I0426 20:48:43.676657 31326 net.cpp:408] ip1 <- pool0
I0426 20:48:43.676661 31326 net.cpp:382] ip1 -> ip1
I0426 20:48:43.677767 31326 net.cpp:124] Setting up ip1
I0426 20:48:43.677780 31326 net.cpp:131] Top shape: 64 10 (640)
I0426 20:48:43.677814 31326 net.cpp:139] Memory required for data: 2046720
I0426 20:48:43.677839 31326 layer_factory.hpp:77] Creating layer relu1
I0426 20:48:43.677848 31326 net.cpp:86] Creating Layer relu1
I0426 20:48:43.677853 31326 net.cpp:408] relu1 <- ip1
I0426 20:48:43.677860 31326 net.cpp:369] relu1 -> ip1 (in-place)
I0426 20:48:43.678050 31326 net.cpp:124] Setting up relu1
I0426 20:48:43.678059 31326 net.cpp:131] Top shape: 64 10 (640)
I0426 20:48:43.678062 31326 net.cpp:139] Memory required for data: 2049280
I0426 20:48:43.678066 31326 layer_factory.hpp:77] Creating layer loss
I0426 20:48:43.678071 31326 net.cpp:86] Creating Layer loss
I0426 20:48:43.678073 31326 net.cpp:408] loss <- ip1
I0426 20:48:43.678078 31326 net.cpp:408] loss <- label
I0426 20:48:43.678082 31326 net.cpp:382] loss -> loss
I0426 20:48:43.678097 31326 layer_factory.hpp:77] Creating layer loss
…
I0426 20:48:43.679329 31326 solver.cpp:173] Creating test net (#0) specified by net file: ECE595/mnist/train_test/var_everything/lenet_train_test15.prototxt
I0426 20:48:43.679350 31326 net.cpp:296] The NetState phase (1) differed from the phase (0) specified by a rule in layer mnist
I0426 20:48:43.679414 31326 net.cpp:53] Initializing net from parameters: 
name: "LeNet"
state {
  phase: TEST
}
layer {
  name: "mnist"
  type: "Data"
  top: "data"
  top: "label"
  include {
    phase: TEST
  }
  transform_param {
    scale: 0.00390625
  }
  data_param {
    source: "examples/mnist/mnist_test_lmdb"
    batch_size: 100
    backend: LMDB
  }
}
layer {
  name: "conv0"
  type: "Convolution"
  bottom: "data"
  top: "conv0"
  param {
    lr_mult: 1
  }
  param {
    lr_mult: 2
  }
  convolution_param {
    num_output: 10
    kernel_size: 5
    stride: 1
    weight_filler {
      type: "xavier"
    }
    bias_filler {
      type: "constant"
    }
  }
}
layer {
  name: "pool0"
  type: "Pooling"
  bottom: "conv0"
  top: "pool0"
  pooling_param {
    pool: MAX
    kernel_size: 2
    stride: 2
  }
}
layer {
  name: "ip1"
  type: "InnerProduct"
  bottom: "pool0"
  top: "ip1"
  param {
    lr_mult: 1
  }
  param {
    lr_mult: 2
  }
  inner_product_param {
    num_output: 10
    weight_filler {
      type: "xavier"
    }
    bias_filler {
      type: "constant"
    }
  }
}
layer {
  name: "relu1"
  type: "ReLU"
  bottom: "ip1"
  top: "ip1"
}
layer {
  name: "accuracy"
  type: "Accuracy"
  bottom: "ip1"
  bottom: "label"
  top: "accuracy"
  include {
    phase: TEST
  }
}
layer {
  name: "loss"
  type: "SoftmaxWithLoss"
  bottom: "ip1"
  bottom: "label"
  top: "loss"
}
I0426 20:48:43.679476 31326 layer_factory.hpp:77] Creating layer mnist
I0426 20:48:43.679517 31326 db_lmdb.cpp:35] Opened lmdb examples/mnist/mnist_test_lmdb
I0426 20:48:43.679528 31326 net.cpp:86] Creating Layer mnist
I0426 20:48:43.679533 31326 net.cpp:382] mnist -> data
I0426 20:48:43.679540 31326 net.cpp:382] mnist -> label
I0426 20:48:43.679616 31326 data_layer.cpp:45] output data size: 100,1,28,28
I0426 20:48:43.681582 31326 net.cpp:124] Setting up mnist
I0426 20:48:43.681610 31326 net.cpp:131] Top shape: 100 1 28 28 (78400)
I0426 20:48:43.681615 31326 net.cpp:131] Top shape: 100 (100)
I0426 20:48:43.681618 31326 net.cpp:139] Memory required for data: 314000
I0426 20:48:43.681643 31326 layer_factory.hpp:77] Creating layer label_mnist_1_split
I0426 20:48:43.681664 31326 net.cpp:86] Creating Layer label_mnist_1_split
I0426 20:48:43.681668 31326 net.cpp:408] label_mnist_1_split <- label
I0426 20:48:43.681671 31326 net.cpp:382] label_mnist_1_split -> label_mnist_1_split_0
I0426 20:48:43.681679 31326 net.cpp:382] label_mnist_1_split -> label_mnist_1_split_1
I0426 20:48:43.681742 31326 net.cpp:124] Setting up label_mnist_1_split
I0426 20:48:43.681749 31326 net.cpp:131] Top shape: 100 (100)
I0426 20:48:43.681753 31326 net.cpp:131] Top shape: 100 (100)
I0426 20:48:43.681756 31326 net.cpp:139] Memory required for data: 314800
I0426 20:48:43.681758 31326 layer_factory.hpp:77] Creating layer conv0
I0426 20:48:43.681766 31326 net.cpp:86] Creating Layer conv0
I0426 20:48:43.681769 31326 net.cpp:408] conv0 <- data
I0426 20:48:43.681774 31326 net.cpp:382] conv0 -> conv0
I0426 20:48:43.683419 31326 net.cpp:124] Setting up conv0
I0426 20:48:43.683432 31326 net.cpp:131] Top shape: 100 10 24 24 (576000)
I0426 20:48:43.683435 31326 net.cpp:139] Memory required for data: 2618800
I0426 20:48:43.683459 31326 layer_factory.hpp:77] Creating layer pool0
I0426 20:48:43.683465 31326 net.cpp:86] Creating Layer pool0
I0426 20:48:43.683468 31326 net.cpp:408] pool0 <- conv0
I0426 20:48:43.683473 31326 net.cpp:382] pool0 -> pool0
I0426 20:48:43.683506 31326 net.cpp:124] Setting up pool0
I0426 20:48:43.683527 31326 net.cpp:131] Top shape: 100 10 12 12 (144000)
I0426 20:48:43.683531 31326 net.cpp:139] Memory required for data: 3194800
I0426 20:48:43.683533 31326 layer_factory.hpp:77] Creating layer ip1
I0426 20:48:43.683539 31326 net.cpp:86] Creating Layer ip1
I0426 20:48:43.683542 31326 net.cpp:408] ip1 <- pool0
I0426 20:48:43.683547 31326 net.cpp:382] ip1 -> ip1
I0426 20:48:43.683778 31326 net.cpp:124] Setting up ip1
I0426 20:48:43.683784 31326 net.cpp:131] Top shape: 100 10 (1000)
I0426 20:48:43.683787 31326 net.cpp:139] Memory required for data: 3198800
I0426 20:48:43.683799 31326 layer_factory.hpp:77] Creating layer relu1
I0426 20:48:43.683804 31326 net.cpp:86] Creating Layer relu1
I0426 20:48:43.683807 31326 net.cpp:408] relu1 <- ip1
I0426 20:48:43.683811 31326 net.cpp:369] relu1 -> ip1 (in-place)
I0426 20:48:43.684015 31326 net.cpp:124] Setting up relu1
I0426 20:48:43.684023 31326 net.cpp:131] Top shape: 100 10 (1000)
I0426 20:48:43.684027 31326 net.cpp:139] Memory required for data: 3202800
I0426 20:48:43.684031 31326 layer_factory.hpp:77] Creating layer ip1_relu1_0_split
I0426 20:48:43.684034 31326 net.cpp:86] Creating Layer ip1_relu1_0_split
I0426 20:48:43.684037 31326 net.cpp:408] ip1_relu1_0_split <- ip1
I0426 20:48:43.684041 31326 net.cpp:382] ip1_relu1_0_split -> ip1_relu1_0_split_0
I0426 20:48:43.684046 31326 net.cpp:382] ip1_relu1_0_split -> ip1_relu1_0_split_1
I0426 20:48:43.684079 31326 net.cpp:124] Setting up ip1_relu1_0_split
I0426 20:48:43.684087 31326 net.cpp:131] Top shape: 100 10 (1000)
I0426 20:48:43.684092 31326 net.cpp:131] Top shape: 100 10 (1000)
I0426 20:48:43.684094 31326 net.cpp:139] Memory required for data: 3210800
I0426 20:48:43.684098 31326 layer_factory.hpp:77] Creating layer accuracy
I0426 20:48:43.684103 31326 net.cpp:86] Creating Layer accuracy
I0426 20:48:43.684110 31326 net.cpp:408] accuracy <- ip1_relu1_0_split_0
I0426 20:48:43.684115 31326 net.cpp:408] accuracy <- label_mnist_1_split_0
I0426 20:48:43.684119 31326 net.cpp:382] accuracy -> accuracy
…
