…
I0426 20:49:20.761920 31503 net.cpp:296] The NetState phase (0) differed from the phase (1) specified by a rule in layer mnist
I0426 20:49:20.761936 31503 net.cpp:296] The NetState phase (0) differed from the phase (1) specified by a rule in layer accuracy
I0426 20:49:20.762012 31503 net.cpp:53] Initializing net from parameters: 
name: "LeNet"
state {
  phase: TRAIN
  level: 0
  stage: ""
}
layer {
  name: "mnist"
  type: "Data"
  top: "data"
  top: "label"
  include {
    phase: TRAIN
  }
  transform_param {
    scale: 0.00390625
  }
  data_param {
    source: "examples/mnist/mnist_train_lmdb"
    batch_size: 64
    backend: LMDB
  }
}
layer {
  name: "conv0"
  type: "Convolution"
  bottom: "data"
  top: "conv0"
  param {
    lr_mult: 1
  }
  param {
    lr_mult: 2
  }
  convolution_param {
    num_output: 25
    kernel_size: 5
    stride: 1
    weight_filler {
      type: "xavier"
    }
    bias_filler {
      type: "constant"
    }
  }
}
layer {
  name: "pool0"
  type: "Pooling"
  bottom: "conv0"
  top: "pool0"
  pooling_param {
    pool: MAX
    kernel_size: 2
    stride: 2
  }
}
layer {
  name: "ip1"
  type: "InnerProduct"
  bottom: "pool0"
  top: "ip1"
  param {
    lr_mult: 1
  }
  param {
    lr_mult: 2
  }
  inner_product_param {
    num_output: 300
    weight_filler {
      type: "xavier"
    }
    bias_filler {
      type: "constant"
    }
  }
}
layer {
  name: "relu1"
  type: "ReLU"
  bottom: "ip1"
  top: "ip1"
}
layer {
  name: "ip2"
  type: "InnerProduct"
  bottom: "ip1"
  top: "ip2"
  param {
    lr_mult: 1
  }
  param {
    lr_mult: 2
  }
  inner_product_param {
    num_output: 10
    weight_filler {
      type: "xavier"
    }
    bias_filler {
      type: "constant"
    }
  }
}
layer {
  name: "relu2"
  type: "ReLU"
  bottom: "ip2"
  top: "ip2"
}
layer {
  name: "loss"
  type: "SoftmaxWithLoss"
  bottom: "ip2"
  bottom: "label"
  top: "loss"
}
I0426 20:49:20.762076 31503 layer_factory.hpp:77] Creating layer mnist
I0426 20:49:20.762176 31503 db_lmdb.cpp:35] Opened lmdb examples/mnist/mnist_train_lmdb
I0426 20:49:20.762199 31503 net.cpp:86] Creating Layer mnist
I0426 20:49:20.762207 31503 net.cpp:382] mnist -> data
I0426 20:49:20.762229 31503 net.cpp:382] mnist -> label
I0426 20:49:20.763331 31503 data_layer.cpp:45] output data size: 64,1,28,28
I0426 20:49:20.765861 31503 net.cpp:124] Setting up mnist
I0426 20:49:20.765878 31503 net.cpp:131] Top shape: 64 1 28 28 (50176)
I0426 20:49:20.765885 31503 net.cpp:131] Top shape: 64 (64)
I0426 20:49:20.765888 31503 net.cpp:139] Memory required for data: 200960
I0426 20:49:20.765897 31503 layer_factory.hpp:77] Creating layer conv0
I0426 20:49:20.765913 31503 net.cpp:86] Creating Layer conv0
I0426 20:49:20.765918 31503 net.cpp:408] conv0 <- data
I0426 20:49:20.765928 31503 net.cpp:382] conv0 -> conv0
I0426 20:49:21.047108 31503 net.cpp:124] Setting up conv0
I0426 20:49:21.047135 31503 net.cpp:131] Top shape: 64 25 24 24 (921600)
I0426 20:49:21.047139 31503 net.cpp:139] Memory required for data: 3887360
I0426 20:49:21.047153 31503 layer_factory.hpp:77] Creating layer pool0
I0426 20:49:21.047166 31503 net.cpp:86] Creating Layer pool0
I0426 20:49:21.047170 31503 net.cpp:408] pool0 <- conv0
I0426 20:49:21.047175 31503 net.cpp:382] pool0 -> pool0
I0426 20:49:21.047250 31503 net.cpp:124] Setting up pool0
I0426 20:49:21.047255 31503 net.cpp:131] Top shape: 64 25 12 12 (230400)
I0426 20:49:21.047258 31503 net.cpp:139] Memory required for data: 4808960
I0426 20:49:21.047278 31503 layer_factory.hpp:77] Creating layer ip1
I0426 20:49:21.047286 31503 net.cpp:86] Creating Layer ip1
I0426 20:49:21.047289 31503 net.cpp:408] ip1 <- pool0
I0426 20:49:21.047294 31503 net.cpp:382] ip1 -> ip1
I0426 20:49:21.054466 31503 net.cpp:124] Setting up ip1
I0426 20:49:21.054478 31503 net.cpp:131] Top shape: 64 300 (19200)
I0426 20:49:21.054482 31503 net.cpp:139] Memory required for data: 4885760
I0426 20:49:21.054491 31503 layer_factory.hpp:77] Creating layer relu1
I0426 20:49:21.054497 31503 net.cpp:86] Creating Layer relu1
I0426 20:49:21.054499 31503 net.cpp:408] relu1 <- ip1
I0426 20:49:21.054504 31503 net.cpp:369] relu1 -> ip1 (in-place)
I0426 20:49:21.054698 31503 net.cpp:124] Setting up relu1
I0426 20:49:21.054708 31503 net.cpp:131] Top shape: 64 300 (19200)
I0426 20:49:21.054710 31503 net.cpp:139] Memory required for data: 4962560
I0426 20:49:21.054713 31503 layer_factory.hpp:77] Creating layer ip2
I0426 20:49:21.054720 31503 net.cpp:86] Creating Layer ip2
I0426 20:49:21.054724 31503 net.cpp:408] ip2 <- ip1
I0426 20:49:21.054728 31503 net.cpp:382] ip2 -> ip2
I0426 20:49:21.055737 31503 net.cpp:124] Setting up ip2
I0426 20:49:21.055747 31503 net.cpp:131] Top shape: 64 10 (640)
I0426 20:49:21.055766 31503 net.cpp:139] Memory required for data: 4965120
I0426 20:49:21.055773 31503 layer_factory.hpp:77] Creating layer relu2
I0426 20:49:21.055779 31503 net.cpp:86] Creating Layer relu2
I0426 20:49:21.055783 31503 net.cpp:408] relu2 <- ip2
I0426 20:49:21.055786 31503 net.cpp:369] relu2 -> ip2 (in-place)
I0426 20:49:21.056668 31503 net.cpp:124] Setting up relu2
I0426 20:49:21.056679 31503 net.cpp:131] Top shape: 64 10 (640)
I0426 20:49:21.056697 31503 net.cpp:139] Memory required for data: 4967680
I0426 20:49:21.056700 31503 layer_factory.hpp:77] Creating layer loss
I0426 20:49:21.056706 31503 net.cpp:86] Creating Layer loss
I0426 20:49:21.056710 31503 net.cpp:408] loss <- ip2
I0426 20:49:21.056715 31503 net.cpp:408] loss <- label
I0426 20:49:21.056720 31503 net.cpp:382] loss -> loss
I0426 20:49:21.056735 31503 layer_factory.hpp:77] Creating layer loss
…
I0426 20:49:21.057332 31503 solver.cpp:173] Creating test net (#0) specified by net file: ECE595/mnist/train_test/var_everything/lenet_train_test33.prototxt
I0426 20:49:21.057356 31503 net.cpp:296] The NetState phase (1) differed from the phase (0) specified by a rule in layer mnist
I0426 20:49:21.057428 31503 net.cpp:53] Initializing net from parameters: 
name: "LeNet"
state {
  phase: TEST
}
layer {
  name: "mnist"
  type: "Data"
  top: "data"
  top: "label"
  include {
    phase: TEST
  }
  transform_param {
    scale: 0.00390625
  }
  data_param {
    source: "examples/mnist/mnist_test_lmdb"
    batch_size: 100
    backend: LMDB
  }
}
layer {
  name: "conv0"
  type: "Convolution"
  bottom: "data"
  top: "conv0"
  param {
    lr_mult: 1
  }
  param {
    lr_mult: 2
  }
  convolution_param {
    num_output: 25
    kernel_size: 5
    stride: 1
    weight_filler {
      type: "xavier"
    }
    bias_filler {
      type: "constant"
    }
  }
}
layer {
  name: "pool0"
  type: "Pooling"
  bottom: "conv0"
  top: "pool0"
  pooling_param {
    pool: MAX
    kernel_size: 2
    stride: 2
  }
}
layer {
  name: "ip1"
  type: "InnerProduct"
  bottom: "pool0"
  top: "ip1"
  param {
    lr_mult: 1
  }
  param {
    lr_mult: 2
  }
  inner_product_param {
    num_output: 300
    weight_filler {
      type: "xavier"
    }
    bias_filler {
      type: "constant"
    }
  }
}
layer {
  name: "relu1"
  type: "ReLU"
  bottom: "ip1"
  top: "ip1"
}
layer {
  name: "ip2"
  type: "InnerProduct"
  bottom: "ip1"
  top: "ip2"
  param {
    lr_mult: 1
  }
  param {
    lr_mult: 2
  }
  inner_product_param {
    num_output: 10
    weight_filler {
      type: "xavier"
    }
    bias_filler {
      type: "constant"
    }
  }
}
layer {
  name: "relu2"
  type: "ReLU"
  bottom: "ip2"
  top: "ip2"
}
layer {
  name: "accuracy"
  type: "Accuracy"
  bottom: "ip2"
  bottom: "label"
  top: "accuracy"
  include {
    phase: TEST
  }
}
layer {
  name: "loss"
  type: "SoftmaxWithLoss"
  bottom: "ip2"
  bottom: "label"
  top: "loss"
}
I0426 20:49:21.057497 31503 layer_factory.hpp:77] Creating layer mnist
I0426 20:49:21.057540 31503 db_lmdb.cpp:35] Opened lmdb examples/mnist/mnist_test_lmdb
I0426 20:49:21.057552 31503 net.cpp:86] Creating Layer mnist
I0426 20:49:21.057556 31503 net.cpp:382] mnist -> data
I0426 20:49:21.057564 31503 net.cpp:382] mnist -> label
I0426 20:49:21.057644 31503 data_layer.cpp:45] output data size: 100,1,28,28
I0426 20:49:21.059594 31503 net.cpp:124] Setting up mnist
I0426 20:49:21.059607 31503 net.cpp:131] Top shape: 100 1 28 28 (78400)
I0426 20:49:21.059612 31503 net.cpp:131] Top shape: 100 (100)
I0426 20:49:21.059615 31503 net.cpp:139] Memory required for data: 314000
I0426 20:49:21.059619 31503 layer_factory.hpp:77] Creating layer label_mnist_1_split
I0426 20:49:21.059625 31503 net.cpp:86] Creating Layer label_mnist_1_split
I0426 20:49:21.059644 31503 net.cpp:408] label_mnist_1_split <- label
I0426 20:49:21.059649 31503 net.cpp:382] label_mnist_1_split -> label_mnist_1_split_0
I0426 20:49:21.059656 31503 net.cpp:382] label_mnist_1_split -> label_mnist_1_split_1
I0426 20:49:21.059751 31503 net.cpp:124] Setting up label_mnist_1_split
I0426 20:49:21.059758 31503 net.cpp:131] Top shape: 100 (100)
I0426 20:49:21.059762 31503 net.cpp:131] Top shape: 100 (100)
I0426 20:49:21.059764 31503 net.cpp:139] Memory required for data: 314800
I0426 20:49:21.059767 31503 layer_factory.hpp:77] Creating layer conv0
I0426 20:49:21.059777 31503 net.cpp:86] Creating Layer conv0
I0426 20:49:21.059780 31503 net.cpp:408] conv0 <- data
I0426 20:49:21.059785 31503 net.cpp:382] conv0 -> conv0
I0426 20:49:21.061434 31503 net.cpp:124] Setting up conv0
I0426 20:49:21.061446 31503 net.cpp:131] Top shape: 100 25 24 24 (1440000)
I0426 20:49:21.061465 31503 net.cpp:139] Memory required for data: 6074800
I0426 20:49:21.061473 31503 layer_factory.hpp:77] Creating layer pool0
I0426 20:49:21.061480 31503 net.cpp:86] Creating Layer pool0
I0426 20:49:21.061483 31503 net.cpp:408] pool0 <- conv0
I0426 20:49:21.061489 31503 net.cpp:382] pool0 -> pool0
I0426 20:49:21.061542 31503 net.cpp:124] Setting up pool0
I0426 20:49:21.061547 31503 net.cpp:131] Top shape: 100 25 12 12 (360000)
I0426 20:49:21.061550 31503 net.cpp:139] Memory required for data: 7514800
I0426 20:49:21.061553 31503 layer_factory.hpp:77] Creating layer ip1
I0426 20:49:21.061560 31503 net.cpp:86] Creating Layer ip1
I0426 20:49:21.061563 31503 net.cpp:408] ip1 <- pool0
I0426 20:49:21.061569 31503 net.cpp:382] ip1 -> ip1
I0426 20:49:21.068719 31503 net.cpp:124] Setting up ip1
I0426 20:49:21.068732 31503 net.cpp:131] Top shape: 100 300 (30000)
I0426 20:49:21.068750 31503 net.cpp:139] Memory required for data: 7634800
I0426 20:49:21.068758 31503 layer_factory.hpp:77] Creating layer relu1
I0426 20:49:21.068764 31503 net.cpp:86] Creating Layer relu1
I0426 20:49:21.068768 31503 net.cpp:408] relu1 <- ip1
I0426 20:49:21.068773 31503 net.cpp:369] relu1 -> ip1 (in-place)
I0426 20:49:21.069033 31503 net.cpp:124] Setting up relu1
I0426 20:49:21.069044 31503 net.cpp:131] Top shape: 100 300 (30000)
I0426 20:49:21.069058 31503 net.cpp:139] Memory required for data: 7754800
I0426 20:49:21.069062 31503 layer_factory.hpp:77] Creating layer ip2
I0426 20:49:21.069069 31503 net.cpp:86] Creating Layer ip2
I0426 20:49:21.069074 31503 net.cpp:408] ip2 <- ip1
I0426 20:49:21.069080 31503 net.cpp:382] ip2 -> ip2
I0426 20:49:21.069252 31503 net.cpp:124] Setting up ip2
I0426 20:49:21.069259 31503 net.cpp:131] Top shape: 100 10 (1000)
I0426 20:49:21.069262 31503 net.cpp:139] Memory required for data: 7758800
I0426 20:49:21.069269 31503 layer_factory.hpp:77] Creating layer relu2
I0426 20:49:21.069274 31503 net.cpp:86] Creating Layer relu2
I0426 20:49:21.069278 31503 net.cpp:408] relu2 <- ip2
I0426 20:49:21.069283 31503 net.cpp:369] relu2 -> ip2 (in-place)
I0426 20:49:21.069442 31503 net.cpp:124] Setting up relu2
I0426 20:49:21.069452 31503 net.cpp:131] Top shape: 100 10 (1000)
I0426 20:49:21.069454 31503 net.cpp:139] Memory required for data: 7762800
I0426 20:49:21.069458 31503 layer_factory.hpp:77] Creating layer ip2_relu2_0_split
I0426 20:49:21.069463 31503 net.cpp:86] Creating Layer ip2_relu2_0_split
I0426 20:49:21.069465 31503 net.cpp:408] ip2_relu2_0_split <- ip2
I0426 20:49:21.069471 31503 net.cpp:382] ip2_relu2_0_split -> ip2_relu2_0_split_0
I0426 20:49:21.069478 31503 net.cpp:382] ip2_relu2_0_split -> ip2_relu2_0_split_1
I0426 20:49:21.069514 31503 net.cpp:124] Setting up ip2_relu2_0_split
I0426 20:49:21.069522 31503 net.cpp:131] Top shape: 100 10 (1000)
I0426 20:49:21.069525 31503 net.cpp:131] Top shape: 100 10 (1000)
I0426 20:49:21.069528 31503 net.cpp:139] Memory required for data: 7770800
I0426 20:49:21.069531 31503 layer_factory.hpp:77] Creating layer accuracy
I0426 20:49:21.069535 31503 net.cpp:86] Creating Layer accuracy
I0426 20:49:21.069538 31503 net.cpp:408] accuracy <- ip2_relu2_0_split_0
I0426 20:49:21.069542 31503 net.cpp:408] accuracy <- label_mnist_1_split_0
I0426 20:49:21.069547 31503 net.cpp:382] accuracy -> accuracy
…
