…
I0426 20:48:45.241681 31358 net.cpp:296] The NetState phase (0) differed from the phase (1) specified by a rule in layer mnist
I0426 20:48:45.241698 31358 net.cpp:296] The NetState phase (0) differed from the phase (1) specified by a rule in layer accuracy
I0426 20:48:45.241775 31358 net.cpp:53] Initializing net from parameters: 
name: "LeNet"
state {
  phase: TRAIN
  level: 0
  stage: ""
}
layer {
  name: "mnist"
  type: "Data"
  top: "data"
  top: "label"
  include {
    phase: TRAIN
  }
  transform_param {
    scale: 0.00390625
  }
  data_param {
    source: "examples/mnist/mnist_train_lmdb"
    batch_size: 64
    backend: LMDB
  }
}
layer {
  name: "conv0"
  type: "Convolution"
  bottom: "data"
  top: "conv0"
  param {
    lr_mult: 1
  }
  param {
    lr_mult: 2
  }
  convolution_param {
    num_output: 10
    kernel_size: 5
    stride: 1
    weight_filler {
      type: "xavier"
    }
    bias_filler {
      type: "constant"
    }
  }
}
layer {
  name: "pool0"
  type: "Pooling"
  bottom: "conv0"
  top: "pool0"
  pooling_param {
    pool: MAX
    kernel_size: 2
    stride: 2
  }
}
layer {
  name: "ip1"
  type: "InnerProduct"
  bottom: "pool0"
  top: "ip1"
  param {
    lr_mult: 1
  }
  param {
    lr_mult: 2
  }
  inner_product_param {
    num_output: 100
    weight_filler {
      type: "xavier"
    }
    bias_filler {
      type: "constant"
    }
  }
}
layer {
  name: "relu1"
  type: "ReLU"
  bottom: "ip1"
  top: "ip1"
}
layer {
  name: "ip2"
  type: "InnerProduct"
  bottom: "ip1"
  top: "ip2"
  param {
    lr_mult: 1
  }
  param {
    lr_mult: 2
  }
  inner_product_param {
    num_output: 10
    weight_filler {
      type: "xavier"
    }
    bias_filler {
      type: "constant"
    }
  }
}
layer {
  name: "relu2"
  type: "ReLU"
  bottom: "ip2"
  top: "ip2"
}
layer {
  name: "loss"
  type: "SoftmaxWithLoss"
  bottom: "ip2"
  bottom: "label"
  top: "loss"
}
I0426 20:48:45.241847 31358 layer_factory.hpp:77] Creating layer mnist
I0426 20:48:45.241948 31358 db_lmdb.cpp:35] Opened lmdb examples/mnist/mnist_train_lmdb
I0426 20:48:45.241972 31358 net.cpp:86] Creating Layer mnist
I0426 20:48:45.241979 31358 net.cpp:382] mnist -> data
I0426 20:48:45.242002 31358 net.cpp:382] mnist -> label
I0426 20:48:45.243080 31358 data_layer.cpp:45] output data size: 64,1,28,28
I0426 20:48:45.245591 31358 net.cpp:124] Setting up mnist
I0426 20:48:45.245609 31358 net.cpp:131] Top shape: 64 1 28 28 (50176)
I0426 20:48:45.245615 31358 net.cpp:131] Top shape: 64 (64)
I0426 20:48:45.245620 31358 net.cpp:139] Memory required for data: 200960
I0426 20:48:45.245626 31358 layer_factory.hpp:77] Creating layer conv0
I0426 20:48:45.245642 31358 net.cpp:86] Creating Layer conv0
I0426 20:48:45.245648 31358 net.cpp:408] conv0 <- data
I0426 20:48:45.245659 31358 net.cpp:382] conv0 -> conv0
I0426 20:48:45.540721 31358 net.cpp:124] Setting up conv0
I0426 20:48:45.540755 31358 net.cpp:131] Top shape: 64 10 24 24 (368640)
I0426 20:48:45.540760 31358 net.cpp:139] Memory required for data: 1675520
I0426 20:48:45.540777 31358 layer_factory.hpp:77] Creating layer pool0
I0426 20:48:45.540792 31358 net.cpp:86] Creating Layer pool0
I0426 20:48:45.540797 31358 net.cpp:408] pool0 <- conv0
I0426 20:48:45.540804 31358 net.cpp:382] pool0 -> pool0
I0426 20:48:45.540866 31358 net.cpp:124] Setting up pool0
I0426 20:48:45.540874 31358 net.cpp:131] Top shape: 64 10 12 12 (92160)
I0426 20:48:45.540877 31358 net.cpp:139] Memory required for data: 2044160
I0426 20:48:45.540907 31358 layer_factory.hpp:77] Creating layer ip1
I0426 20:48:45.540917 31358 net.cpp:86] Creating Layer ip1
I0426 20:48:45.540920 31358 net.cpp:408] ip1 <- pool0
I0426 20:48:45.540926 31358 net.cpp:382] ip1 -> ip1
I0426 20:48:45.542994 31358 net.cpp:124] Setting up ip1
I0426 20:48:45.543010 31358 net.cpp:131] Top shape: 64 100 (6400)
I0426 20:48:45.543015 31358 net.cpp:139] Memory required for data: 2069760
I0426 20:48:45.543025 31358 layer_factory.hpp:77] Creating layer relu1
I0426 20:48:45.543032 31358 net.cpp:86] Creating Layer relu1
I0426 20:48:45.543036 31358 net.cpp:408] relu1 <- ip1
I0426 20:48:45.543041 31358 net.cpp:369] relu1 -> ip1 (in-place)
I0426 20:48:45.543244 31358 net.cpp:124] Setting up relu1
I0426 20:48:45.543256 31358 net.cpp:131] Top shape: 64 100 (6400)
I0426 20:48:45.543259 31358 net.cpp:139] Memory required for data: 2095360
I0426 20:48:45.543263 31358 layer_factory.hpp:77] Creating layer ip2
I0426 20:48:45.543272 31358 net.cpp:86] Creating Layer ip2
I0426 20:48:45.543278 31358 net.cpp:408] ip2 <- ip1
I0426 20:48:45.543284 31358 net.cpp:382] ip2 -> ip2
I0426 20:48:45.543402 31358 net.cpp:124] Setting up ip2
I0426 20:48:45.543411 31358 net.cpp:131] Top shape: 64 10 (640)
I0426 20:48:45.543414 31358 net.cpp:139] Memory required for data: 2097920
I0426 20:48:45.543423 31358 layer_factory.hpp:77] Creating layer relu2
I0426 20:48:45.543432 31358 net.cpp:86] Creating Layer relu2
I0426 20:48:45.543437 31358 net.cpp:408] relu2 <- ip2
I0426 20:48:45.543442 31358 net.cpp:369] relu2 -> ip2 (in-place)
I0426 20:48:45.544384 31358 net.cpp:124] Setting up relu2
I0426 20:48:45.544399 31358 net.cpp:131] Top shape: 64 10 (640)
I0426 20:48:45.544404 31358 net.cpp:139] Memory required for data: 2100480
I0426 20:48:45.544407 31358 layer_factory.hpp:77] Creating layer loss
I0426 20:48:45.544414 31358 net.cpp:86] Creating Layer loss
I0426 20:48:45.544419 31358 net.cpp:408] loss <- ip2
I0426 20:48:45.544425 31358 net.cpp:408] loss <- label
I0426 20:48:45.544430 31358 net.cpp:382] loss -> loss
I0426 20:48:45.544452 31358 layer_factory.hpp:77] Creating layer loss
…
I0426 20:48:45.545102 31358 solver.cpp:173] Creating test net (#0) specified by net file: ECE595/mnist/train_test/var_everything/lenet_train_test16.prototxt
I0426 20:48:45.545131 31358 net.cpp:296] The NetState phase (1) differed from the phase (0) specified by a rule in layer mnist
I0426 20:48:45.545217 31358 net.cpp:53] Initializing net from parameters: 
name: "LeNet"
state {
  phase: TEST
}
layer {
  name: "mnist"
  type: "Data"
  top: "data"
  top: "label"
  include {
    phase: TEST
  }
  transform_param {
    scale: 0.00390625
  }
  data_param {
    source: "examples/mnist/mnist_test_lmdb"
    batch_size: 100
    backend: LMDB
  }
}
layer {
  name: "conv0"
  type: "Convolution"
  bottom: "data"
  top: "conv0"
  param {
    lr_mult: 1
  }
  param {
    lr_mult: 2
  }
  convolution_param {
    num_output: 10
    kernel_size: 5
    stride: 1
    weight_filler {
      type: "xavier"
    }
    bias_filler {
      type: "constant"
    }
  }
}
layer {
  name: "pool0"
  type: "Pooling"
  bottom: "conv0"
  top: "pool0"
  pooling_param {
    pool: MAX
    kernel_size: 2
    stride: 2
  }
}
layer {
  name: "ip1"
  type: "InnerProduct"
  bottom: "pool0"
  top: "ip1"
  param {
    lr_mult: 1
  }
  param {
    lr_mult: 2
  }
  inner_product_param {
    num_output: 100
    weight_filler {
      type: "xavier"
    }
    bias_filler {
      type: "constant"
    }
  }
}
layer {
  name: "relu1"
  type: "ReLU"
  bottom: "ip1"
  top: "ip1"
}
layer {
  name: "ip2"
  type: "InnerProduct"
  bottom: "ip1"
  top: "ip2"
  param {
    lr_mult: 1
  }
  param {
    lr_mult: 2
  }
  inner_product_param {
    num_output: 10
    weight_filler {
      type: "xavier"
    }
    bias_filler {
      type: "constant"
    }
  }
}
layer {
  name: "relu2"
  type: "ReLU"
  bottom: "ip2"
  top: "ip2"
}
layer {
  name: "accuracy"
  type: "Accuracy"
  bottom: "ip2"
  bottom: "label"
  top: "accuracy"
  include {
    phase: TEST
  }
}
layer {
  name: "loss"
  type: "SoftmaxWithLoss"
  bottom: "ip2"
  bottom: "label"
  top: "loss"
}
I0426 20:48:45.545300 31358 layer_factory.hpp:77] Creating layer mnist
I0426 20:48:45.545354 31358 db_lmdb.cpp:35] Opened lmdb examples/mnist/mnist_test_lmdb
I0426 20:48:45.545370 31358 net.cpp:86] Creating Layer mnist
I0426 20:48:45.545378 31358 net.cpp:382] mnist -> data
I0426 20:48:45.545388 31358 net.cpp:382] mnist -> label
I0426 20:48:45.545490 31358 data_layer.cpp:45] output data size: 100,1,28,28
I0426 20:48:45.547032 31358 net.cpp:124] Setting up mnist
I0426 20:48:45.547049 31358 net.cpp:131] Top shape: 100 1 28 28 (78400)
I0426 20:48:45.547055 31358 net.cpp:131] Top shape: 100 (100)
I0426 20:48:45.547058 31358 net.cpp:139] Memory required for data: 314000
I0426 20:48:45.547062 31358 layer_factory.hpp:77] Creating layer label_mnist_1_split
I0426 20:48:45.547076 31358 net.cpp:86] Creating Layer label_mnist_1_split
I0426 20:48:45.547081 31358 net.cpp:408] label_mnist_1_split <- label
I0426 20:48:45.547086 31358 net.cpp:382] label_mnist_1_split -> label_mnist_1_split_0
I0426 20:48:45.547094 31358 net.cpp:382] label_mnist_1_split -> label_mnist_1_split_1
I0426 20:48:45.547204 31358 net.cpp:124] Setting up label_mnist_1_split
I0426 20:48:45.547214 31358 net.cpp:131] Top shape: 100 (100)
I0426 20:48:45.547219 31358 net.cpp:131] Top shape: 100 (100)
I0426 20:48:45.547221 31358 net.cpp:139] Memory required for data: 314800
I0426 20:48:45.547225 31358 layer_factory.hpp:77] Creating layer conv0
I0426 20:48:45.547235 31358 net.cpp:86] Creating Layer conv0
I0426 20:48:45.547240 31358 net.cpp:408] conv0 <- data
I0426 20:48:45.547247 31358 net.cpp:382] conv0 -> conv0
I0426 20:48:45.549263 31358 net.cpp:124] Setting up conv0
I0426 20:48:45.549280 31358 net.cpp:131] Top shape: 100 10 24 24 (576000)
I0426 20:48:45.549284 31358 net.cpp:139] Memory required for data: 2618800
I0426 20:48:45.549298 31358 layer_factory.hpp:77] Creating layer pool0
I0426 20:48:45.549307 31358 net.cpp:86] Creating Layer pool0
I0426 20:48:45.549317 31358 net.cpp:408] pool0 <- conv0
I0426 20:48:45.549324 31358 net.cpp:382] pool0 -> pool0
I0426 20:48:45.549367 31358 net.cpp:124] Setting up pool0
I0426 20:48:45.549374 31358 net.cpp:131] Top shape: 100 10 12 12 (144000)
I0426 20:48:45.549377 31358 net.cpp:139] Memory required for data: 3194800
I0426 20:48:45.549381 31358 layer_factory.hpp:77] Creating layer ip1
I0426 20:48:45.549391 31358 net.cpp:86] Creating Layer ip1
I0426 20:48:45.549394 31358 net.cpp:408] ip1 <- pool0
I0426 20:48:45.549399 31358 net.cpp:382] ip1 -> ip1
I0426 20:48:45.551511 31358 net.cpp:124] Setting up ip1
I0426 20:48:45.551524 31358 net.cpp:131] Top shape: 100 100 (10000)
I0426 20:48:45.551529 31358 net.cpp:139] Memory required for data: 3234800
I0426 20:48:45.551539 31358 layer_factory.hpp:77] Creating layer relu1
I0426 20:48:45.551548 31358 net.cpp:86] Creating Layer relu1
I0426 20:48:45.551551 31358 net.cpp:408] relu1 <- ip1
I0426 20:48:45.551558 31358 net.cpp:369] relu1 -> ip1 (in-place)
I0426 20:48:45.551806 31358 net.cpp:124] Setting up relu1
I0426 20:48:45.551820 31358 net.cpp:131] Top shape: 100 100 (10000)
I0426 20:48:45.551836 31358 net.cpp:139] Memory required for data: 3274800
I0426 20:48:45.551841 31358 layer_factory.hpp:77] Creating layer ip2
I0426 20:48:45.551848 31358 net.cpp:86] Creating Layer ip2
I0426 20:48:45.551852 31358 net.cpp:408] ip2 <- ip1
I0426 20:48:45.551859 31358 net.cpp:382] ip2 -> ip2
I0426 20:48:45.551991 31358 net.cpp:124] Setting up ip2
I0426 20:48:45.552001 31358 net.cpp:131] Top shape: 100 10 (1000)
I0426 20:48:45.552006 31358 net.cpp:139] Memory required for data: 3278800
I0426 20:48:45.552014 31358 layer_factory.hpp:77] Creating layer relu2
I0426 20:48:45.552021 31358 net.cpp:86] Creating Layer relu2
I0426 20:48:45.552024 31358 net.cpp:408] relu2 <- ip2
I0426 20:48:45.552033 31358 net.cpp:369] relu2 -> ip2 (in-place)
I0426 20:48:45.552215 31358 net.cpp:124] Setting up relu2
I0426 20:48:45.552225 31358 net.cpp:131] Top shape: 100 10 (1000)
I0426 20:48:45.552229 31358 net.cpp:139] Memory required for data: 3282800
I0426 20:48:45.552233 31358 layer_factory.hpp:77] Creating layer ip2_relu2_0_split
I0426 20:48:45.552240 31358 net.cpp:86] Creating Layer ip2_relu2_0_split
I0426 20:48:45.552244 31358 net.cpp:408] ip2_relu2_0_split <- ip2
I0426 20:48:45.552250 31358 net.cpp:382] ip2_relu2_0_split -> ip2_relu2_0_split_0
I0426 20:48:45.552273 31358 net.cpp:382] ip2_relu2_0_split -> ip2_relu2_0_split_1
I0426 20:48:45.552315 31358 net.cpp:124] Setting up ip2_relu2_0_split
I0426 20:48:45.552323 31358 net.cpp:131] Top shape: 100 10 (1000)
I0426 20:48:45.552328 31358 net.cpp:131] Top shape: 100 10 (1000)
I0426 20:48:45.552331 31358 net.cpp:139] Memory required for data: 3290800
I0426 20:48:45.552335 31358 layer_factory.hpp:77] Creating layer accuracy
I0426 20:48:45.552340 31358 net.cpp:86] Creating Layer accuracy
I0426 20:48:45.552351 31358 net.cpp:408] accuracy <- ip2_relu2_0_split_0
I0426 20:48:45.552356 31358 net.cpp:408] accuracy <- label_mnist_1_split_0
I0426 20:48:45.552363 31358 net.cpp:382] accuracy -> accuracy
…
