…
I0426 20:50:01.989253 31671 net.cpp:296] The NetState phase (0) differed from the phase (1) specified by a rule in layer mnist
I0426 20:50:01.989266 31671 net.cpp:296] The NetState phase (0) differed from the phase (1) specified by a rule in layer accuracy
I0426 20:50:01.989356 31671 net.cpp:53] Initializing net from parameters: 
name: "LeNet"
state {
  phase: TRAIN
  level: 0
  stage: ""
}
layer {
  name: "mnist"
  type: "Data"
  top: "data"
  top: "label"
  include {
    phase: TRAIN
  }
  transform_param {
    scale: 0.00390625
  }
  data_param {
    source: "examples/mnist/mnist_train_lmdb"
    batch_size: 64
    backend: LMDB
  }
}
layer {
  name: "conv0"
  type: "Convolution"
  bottom: "data"
  top: "conv0"
  param {
    lr_mult: 1
  }
  param {
    lr_mult: 2
  }
  convolution_param {
    num_output: 50
    kernel_size: 5
    stride: 1
    weight_filler {
      type: "xavier"
    }
    bias_filler {
      type: "constant"
    }
  }
}
layer {
  name: "pool0"
  type: "Pooling"
  bottom: "conv0"
  top: "pool0"
  pooling_param {
    pool: MAX
    kernel_size: 2
    stride: 2
  }
}
layer {
  name: "ip1"
  type: "InnerProduct"
  bottom: "pool0"
  top: "ip1"
  param {
    lr_mult: 1
  }
  param {
    lr_mult: 2
  }
  inner_product_param {
    num_output: 100
    weight_filler {
      type: "xavier"
    }
    bias_filler {
      type: "constant"
    }
  }
}
layer {
  name: "relu1"
  type: "ReLU"
  bottom: "ip1"
  top: "ip1"
}
layer {
  name: "ip2"
  type: "InnerProduct"
  bottom: "ip1"
  top: "ip2"
  param {
    lr_mult: 1
  }
  param {
    lr_mult: 2
  }
  inner_product_param {
    num_output: 300
    weight_filler {
      type: "xavier"
    }
    bias_filler {
      type: "constant"
    }
  }
}
layer {
  name: "relu2"
  type: "ReLU"
  bottom: "ip2"
  top: "ip2"
}
layer {
  name: "ip3"
  type: "InnerProduct"
  bottom: "ip2"
  top: "ip3"
  param {
    lr_mult: 1
  }
  param {
    lr_mult: 2
  }
  inner_product_param {
    num_output: 10
    weight_filler {
      type: "xavier"
    }
    bias_filler {
      type: "constant"
    }
  }
}
layer {
  name: "relu3"
  type: "ReLU"
  bottom: "ip3"
  top: "ip3"
}
layer {
  name: "loss"
  type: "SoftmaxWithLoss"
  bottom: "ip3"
  bottom: "label"
  top: "loss"
}
I0426 20:50:01.989416 31671 layer_factory.hpp:77] Creating layer mnist
I0426 20:50:01.989506 31671 db_lmdb.cpp:35] Opened lmdb examples/mnist/mnist_train_lmdb
I0426 20:50:01.989526 31671 net.cpp:86] Creating Layer mnist
I0426 20:50:01.989532 31671 net.cpp:382] mnist -> data
I0426 20:50:01.989552 31671 net.cpp:382] mnist -> label
I0426 20:50:01.990550 31671 data_layer.cpp:45] output data size: 64,1,28,28
I0426 20:50:01.992801 31671 net.cpp:124] Setting up mnist
I0426 20:50:01.992851 31671 net.cpp:131] Top shape: 64 1 28 28 (50176)
I0426 20:50:01.992857 31671 net.cpp:131] Top shape: 64 (64)
I0426 20:50:01.992861 31671 net.cpp:139] Memory required for data: 200960
I0426 20:50:01.992867 31671 layer_factory.hpp:77] Creating layer conv0
I0426 20:50:01.992895 31671 net.cpp:86] Creating Layer conv0
I0426 20:50:01.992900 31671 net.cpp:408] conv0 <- data
I0426 20:50:01.992910 31671 net.cpp:382] conv0 -> conv0
I0426 20:50:02.223793 31671 net.cpp:124] Setting up conv0
I0426 20:50:02.223817 31671 net.cpp:131] Top shape: 64 50 24 24 (1843200)
I0426 20:50:02.223821 31671 net.cpp:139] Memory required for data: 7573760
I0426 20:50:02.223835 31671 layer_factory.hpp:77] Creating layer pool0
I0426 20:50:02.223847 31671 net.cpp:86] Creating Layer pool0
I0426 20:50:02.223868 31671 net.cpp:408] pool0 <- conv0
I0426 20:50:02.223889 31671 net.cpp:382] pool0 -> pool0
I0426 20:50:02.223951 31671 net.cpp:124] Setting up pool0
I0426 20:50:02.223973 31671 net.cpp:131] Top shape: 64 50 12 12 (460800)
I0426 20:50:02.223976 31671 net.cpp:139] Memory required for data: 9416960
I0426 20:50:02.223979 31671 layer_factory.hpp:77] Creating layer ip1
I0426 20:50:02.223987 31671 net.cpp:86] Creating Layer ip1
I0426 20:50:02.223990 31671 net.cpp:408] ip1 <- pool0
I0426 20:50:02.223995 31671 net.cpp:382] ip1 -> ip1
I0426 20:50:02.228713 31671 net.cpp:124] Setting up ip1
I0426 20:50:02.228724 31671 net.cpp:131] Top shape: 64 100 (6400)
I0426 20:50:02.228744 31671 net.cpp:139] Memory required for data: 9442560
I0426 20:50:02.228750 31671 layer_factory.hpp:77] Creating layer relu1
I0426 20:50:02.228757 31671 net.cpp:86] Creating Layer relu1
I0426 20:50:02.228760 31671 net.cpp:408] relu1 <- ip1
I0426 20:50:02.228765 31671 net.cpp:369] relu1 -> ip1 (in-place)
I0426 20:50:02.228983 31671 net.cpp:124] Setting up relu1
I0426 20:50:02.228993 31671 net.cpp:131] Top shape: 64 100 (6400)
I0426 20:50:02.228997 31671 net.cpp:139] Memory required for data: 9468160
I0426 20:50:02.229015 31671 layer_factory.hpp:77] Creating layer ip2
I0426 20:50:02.229022 31671 net.cpp:86] Creating Layer ip2
I0426 20:50:02.229025 31671 net.cpp:408] ip2 <- ip1
I0426 20:50:02.229029 31671 net.cpp:382] ip2 -> ip2
I0426 20:50:02.229300 31671 net.cpp:124] Setting up ip2
I0426 20:50:02.229306 31671 net.cpp:131] Top shape: 64 300 (19200)
I0426 20:50:02.229310 31671 net.cpp:139] Memory required for data: 9544960
I0426 20:50:02.229316 31671 layer_factory.hpp:77] Creating layer relu2
I0426 20:50:02.229321 31671 net.cpp:86] Creating Layer relu2
I0426 20:50:02.229324 31671 net.cpp:408] relu2 <- ip2
I0426 20:50:02.229328 31671 net.cpp:369] relu2 -> ip2 (in-place)
I0426 20:50:02.230142 31671 net.cpp:124] Setting up relu2
I0426 20:50:02.230154 31671 net.cpp:131] Top shape: 64 300 (19200)
I0426 20:50:02.230172 31671 net.cpp:139] Memory required for data: 9621760
I0426 20:50:02.230175 31671 layer_factory.hpp:77] Creating layer ip3
I0426 20:50:02.230182 31671 net.cpp:86] Creating Layer ip3
I0426 20:50:02.230185 31671 net.cpp:408] ip3 <- ip2
I0426 20:50:02.230191 31671 net.cpp:382] ip3 -> ip3
I0426 20:50:02.230304 31671 net.cpp:124] Setting up ip3
I0426 20:50:02.230310 31671 net.cpp:131] Top shape: 64 10 (640)
I0426 20:50:02.230314 31671 net.cpp:139] Memory required for data: 9624320
I0426 20:50:02.230319 31671 layer_factory.hpp:77] Creating layer relu3
I0426 20:50:02.230324 31671 net.cpp:86] Creating Layer relu3
I0426 20:50:02.230327 31671 net.cpp:408] relu3 <- ip3
I0426 20:50:02.230331 31671 net.cpp:369] relu3 -> ip3 (in-place)
I0426 20:50:02.230474 31671 net.cpp:124] Setting up relu3
I0426 20:50:02.230482 31671 net.cpp:131] Top shape: 64 10 (640)
I0426 20:50:02.230485 31671 net.cpp:139] Memory required for data: 9626880
I0426 20:50:02.230489 31671 layer_factory.hpp:77] Creating layer loss
I0426 20:50:02.230494 31671 net.cpp:86] Creating Layer loss
I0426 20:50:02.230496 31671 net.cpp:408] loss <- ip3
I0426 20:50:02.230500 31671 net.cpp:408] loss <- label
I0426 20:50:02.230505 31671 net.cpp:382] loss -> loss
I0426 20:50:02.230523 31671 layer_factory.hpp:77] Creating layer loss
…
I0426 20:50:02.231102 31671 solver.cpp:173] Creating test net (#0) specified by net file: ECE595/mnist/train_test/var_everything/lenet_train_test50.prototxt
I0426 20:50:02.231128 31671 net.cpp:296] The NetState phase (1) differed from the phase (0) specified by a rule in layer mnist
I0426 20:50:02.231222 31671 net.cpp:53] Initializing net from parameters: 
name: "LeNet"
state {
  phase: TEST
}
layer {
  name: "mnist"
  type: "Data"
  top: "data"
  top: "label"
  include {
    phase: TEST
  }
  transform_param {
    scale: 0.00390625
  }
  data_param {
    source: "examples/mnist/mnist_test_lmdb"
    batch_size: 100
    backend: LMDB
  }
}
layer {
  name: "conv0"
  type: "Convolution"
  bottom: "data"
  top: "conv0"
  param {
    lr_mult: 1
  }
  param {
    lr_mult: 2
  }
  convolution_param {
    num_output: 50
    kernel_size: 5
    stride: 1
    weight_filler {
      type: "xavier"
    }
    bias_filler {
      type: "constant"
    }
  }
}
layer {
  name: "pool0"
  type: "Pooling"
  bottom: "conv0"
  top: "pool0"
  pooling_param {
    pool: MAX
    kernel_size: 2
    stride: 2
  }
}
layer {
  name: "ip1"
  type: "InnerProduct"
  bottom: "pool0"
  top: "ip1"
  param {
    lr_mult: 1
  }
  param {
    lr_mult: 2
  }
  inner_product_param {
    num_output: 100
    weight_filler {
      type: "xavier"
    }
    bias_filler {
      type: "constant"
    }
  }
}
layer {
  name: "relu1"
  type: "ReLU"
  bottom: "ip1"
  top: "ip1"
}
layer {
  name: "ip2"
  type: "InnerProduct"
  bottom: "ip1"
  top: "ip2"
  param {
    lr_mult: 1
  }
  param {
    lr_mult: 2
  }
  inner_product_param {
    num_output: 300
    weight_filler {
      type: "xavier"
    }
    bias_filler {
      type: "constant"
    }
  }
}
layer {
  name: "relu2"
  type: "ReLU"
  bottom: "ip2"
  top: "ip2"
}
layer {
  name: "ip3"
  type: "InnerProduct"
  bottom: "ip2"
  top: "ip3"
  param {
    lr_mult: 1
  }
  param {
    lr_mult: 2
  }
  inner_product_param {
    num_output: 10
    weight_filler {
      type: "xavier"
    }
    bias_filler {
      type: "constant"
    }
  }
}
layer {
  name: "relu3"
  type: "ReLU"
  bottom: "ip3"
  top: "ip3"
}
layer {
  name: "accuracy"
  type: "Accuracy"
  bottom: "ip3"
  bottom: "label"
  top: "accuracy"
  include {
    phase: TEST
  }
}
layer {
  name: "loss"
  type: "SoftmaxWithLoss"
  bottom: "ip3"
  bottom: "label"
  top: "loss"
}
I0426 20:50:02.231282 31671 layer_factory.hpp:77] Creating layer mnist
I0426 20:50:02.231325 31671 db_lmdb.cpp:35] Opened lmdb examples/mnist/mnist_test_lmdb
I0426 20:50:02.231339 31671 net.cpp:86] Creating Layer mnist
I0426 20:50:02.231343 31671 net.cpp:382] mnist -> data
I0426 20:50:02.231350 31671 net.cpp:382] mnist -> label
I0426 20:50:02.231431 31671 data_layer.cpp:45] output data size: 100,1,28,28
I0426 20:50:02.233409 31671 net.cpp:124] Setting up mnist
I0426 20:50:02.233433 31671 net.cpp:131] Top shape: 100 1 28 28 (78400)
I0426 20:50:02.233438 31671 net.cpp:131] Top shape: 100 (100)
I0426 20:50:02.233441 31671 net.cpp:139] Memory required for data: 314000
I0426 20:50:02.233444 31671 layer_factory.hpp:77] Creating layer label_mnist_1_split
I0426 20:50:02.233465 31671 net.cpp:86] Creating Layer label_mnist_1_split
I0426 20:50:02.233469 31671 net.cpp:408] label_mnist_1_split <- label
I0426 20:50:02.233474 31671 net.cpp:382] label_mnist_1_split -> label_mnist_1_split_0
I0426 20:50:02.233480 31671 net.cpp:382] label_mnist_1_split -> label_mnist_1_split_1
I0426 20:50:02.233536 31671 net.cpp:124] Setting up label_mnist_1_split
I0426 20:50:02.233541 31671 net.cpp:131] Top shape: 100 (100)
I0426 20:50:02.233544 31671 net.cpp:131] Top shape: 100 (100)
I0426 20:50:02.233547 31671 net.cpp:139] Memory required for data: 314800
I0426 20:50:02.233559 31671 layer_factory.hpp:77] Creating layer conv0
I0426 20:50:02.233568 31671 net.cpp:86] Creating Layer conv0
I0426 20:50:02.233572 31671 net.cpp:408] conv0 <- data
I0426 20:50:02.233577 31671 net.cpp:382] conv0 -> conv0
I0426 20:50:02.235321 31671 net.cpp:124] Setting up conv0
I0426 20:50:02.235333 31671 net.cpp:131] Top shape: 100 50 24 24 (2880000)
I0426 20:50:02.235337 31671 net.cpp:139] Memory required for data: 11834800
I0426 20:50:02.235345 31671 layer_factory.hpp:77] Creating layer pool0
I0426 20:50:02.235368 31671 net.cpp:86] Creating Layer pool0
I0426 20:50:02.235370 31671 net.cpp:408] pool0 <- conv0
I0426 20:50:02.235375 31671 net.cpp:382] pool0 -> pool0
I0426 20:50:02.235410 31671 net.cpp:124] Setting up pool0
I0426 20:50:02.235415 31671 net.cpp:131] Top shape: 100 50 12 12 (720000)
I0426 20:50:02.235419 31671 net.cpp:139] Memory required for data: 14714800
I0426 20:50:02.235421 31671 layer_factory.hpp:77] Creating layer ip1
I0426 20:50:02.235427 31671 net.cpp:86] Creating Layer ip1
I0426 20:50:02.235430 31671 net.cpp:408] ip1 <- pool0
I0426 20:50:02.235435 31671 net.cpp:382] ip1 -> ip1
I0426 20:50:02.240546 31671 net.cpp:124] Setting up ip1
I0426 20:50:02.240558 31671 net.cpp:131] Top shape: 100 100 (10000)
I0426 20:50:02.240561 31671 net.cpp:139] Memory required for data: 14754800
I0426 20:50:02.240569 31671 layer_factory.hpp:77] Creating layer relu1
I0426 20:50:02.240574 31671 net.cpp:86] Creating Layer relu1
I0426 20:50:02.240587 31671 net.cpp:408] relu1 <- ip1
I0426 20:50:02.240592 31671 net.cpp:369] relu1 -> ip1 (in-place)
I0426 20:50:02.240779 31671 net.cpp:124] Setting up relu1
I0426 20:50:02.240787 31671 net.cpp:131] Top shape: 100 100 (10000)
I0426 20:50:02.240792 31671 net.cpp:139] Memory required for data: 14794800
I0426 20:50:02.240794 31671 layer_factory.hpp:77] Creating layer ip2
I0426 20:50:02.240799 31671 net.cpp:86] Creating Layer ip2
I0426 20:50:02.240803 31671 net.cpp:408] ip2 <- ip1
I0426 20:50:02.240808 31671 net.cpp:382] ip2 -> ip2
I0426 20:50:02.241145 31671 net.cpp:124] Setting up ip2
I0426 20:50:02.241166 31671 net.cpp:131] Top shape: 100 300 (30000)
I0426 20:50:02.241169 31671 net.cpp:139] Memory required for data: 14914800
I0426 20:50:02.241191 31671 layer_factory.hpp:77] Creating layer relu2
I0426 20:50:02.241210 31671 net.cpp:86] Creating Layer relu2
I0426 20:50:02.241214 31671 net.cpp:408] relu2 <- ip2
I0426 20:50:02.241232 31671 net.cpp:369] relu2 -> ip2 (in-place)
I0426 20:50:02.242022 31671 net.cpp:124] Setting up relu2
I0426 20:50:02.242033 31671 net.cpp:131] Top shape: 100 300 (30000)
I0426 20:50:02.242053 31671 net.cpp:139] Memory required for data: 15034800
I0426 20:50:02.242055 31671 layer_factory.hpp:77] Creating layer ip3
I0426 20:50:02.242063 31671 net.cpp:86] Creating Layer ip3
I0426 20:50:02.242067 31671 net.cpp:408] ip3 <- ip2
I0426 20:50:02.242072 31671 net.cpp:382] ip3 -> ip3
I0426 20:50:02.242200 31671 net.cpp:124] Setting up ip3
I0426 20:50:02.242208 31671 net.cpp:131] Top shape: 100 10 (1000)
I0426 20:50:02.242210 31671 net.cpp:139] Memory required for data: 15038800
I0426 20:50:02.242216 31671 layer_factory.hpp:77] Creating layer relu3
I0426 20:50:02.242220 31671 net.cpp:86] Creating Layer relu3
I0426 20:50:02.242223 31671 net.cpp:408] relu3 <- ip3
I0426 20:50:02.242228 31671 net.cpp:369] relu3 -> ip3 (in-place)
I0426 20:50:02.242367 31671 net.cpp:124] Setting up relu3
I0426 20:50:02.242375 31671 net.cpp:131] Top shape: 100 10 (1000)
I0426 20:50:02.242378 31671 net.cpp:139] Memory required for data: 15042800
I0426 20:50:02.242382 31671 layer_factory.hpp:77] Creating layer ip3_relu3_0_split
I0426 20:50:02.242385 31671 net.cpp:86] Creating Layer ip3_relu3_0_split
I0426 20:50:02.242388 31671 net.cpp:408] ip3_relu3_0_split <- ip3
I0426 20:50:02.242393 31671 net.cpp:382] ip3_relu3_0_split -> ip3_relu3_0_split_0
I0426 20:50:02.242398 31671 net.cpp:382] ip3_relu3_0_split -> ip3_relu3_0_split_1
I0426 20:50:02.242429 31671 net.cpp:124] Setting up ip3_relu3_0_split
I0426 20:50:02.242432 31671 net.cpp:131] Top shape: 100 10 (1000)
I0426 20:50:02.242446 31671 net.cpp:131] Top shape: 100 10 (1000)
I0426 20:50:02.242449 31671 net.cpp:139] Memory required for data: 15050800
I0426 20:50:02.242451 31671 layer_factory.hpp:77] Creating layer accuracy
I0426 20:50:02.242457 31671 net.cpp:86] Creating Layer accuracy
I0426 20:50:02.242460 31671 net.cpp:408] accuracy <- ip3_relu3_0_split_0
I0426 20:50:02.242465 31671 net.cpp:408] accuracy <- label_mnist_1_split_0
I0426 20:50:02.242468 31671 net.cpp:382] accuracy -> accuracy
…
