…
I0426 20:49:09.594252 31459 net.cpp:296] The NetState phase (0) differed from the phase (1) specified by a rule in layer mnist
I0426 20:49:09.594265 31459 net.cpp:296] The NetState phase (0) differed from the phase (1) specified by a rule in layer accuracy
I0426 20:49:09.594321 31459 net.cpp:53] Initializing net from parameters: 
name: "LeNet"
state {
  phase: TRAIN
  level: 0
  stage: ""
}
layer {
  name: "mnist"
  type: "Data"
  top: "data"
  top: "label"
  include {
    phase: TRAIN
  }
  transform_param {
    scale: 0.00390625
  }
  data_param {
    source: "examples/mnist/mnist_train_lmdb"
    batch_size: 64
    backend: LMDB
  }
}
layer {
  name: "conv0"
  type: "Convolution"
  bottom: "data"
  top: "conv0"
  param {
    lr_mult: 1
  }
  param {
    lr_mult: 2
  }
  convolution_param {
    num_output: 25
    kernel_size: 5
    stride: 1
    weight_filler {
      type: "xavier"
    }
    bias_filler {
      type: "constant"
    }
  }
}
layer {
  name: "pool0"
  type: "Pooling"
  bottom: "conv0"
  top: "pool0"
  pooling_param {
    pool: MAX
    kernel_size: 2
    stride: 2
  }
}
layer {
  name: "ip1"
  type: "InnerProduct"
  bottom: "pool0"
  top: "ip1"
  param {
    lr_mult: 1
  }
  param {
    lr_mult: 2
  }
  inner_product_param {
    num_output: 10
    weight_filler {
      type: "xavier"
    }
    bias_filler {
      type: "constant"
    }
  }
}
layer {
  name: "relu1"
  type: "ReLU"
  bottom: "ip1"
  top: "ip1"
}
layer {
  name: "loss"
  type: "SoftmaxWithLoss"
  bottom: "ip1"
  bottom: "label"
  top: "loss"
}
I0426 20:49:09.594372 31459 layer_factory.hpp:77] Creating layer mnist
I0426 20:49:09.594470 31459 db_lmdb.cpp:35] Opened lmdb examples/mnist/mnist_train_lmdb
I0426 20:49:09.594488 31459 net.cpp:86] Creating Layer mnist
I0426 20:49:09.594496 31459 net.cpp:382] mnist -> data
I0426 20:49:09.594514 31459 net.cpp:382] mnist -> label
I0426 20:49:09.595484 31459 data_layer.cpp:45] output data size: 64,1,28,28
I0426 20:49:09.597702 31459 net.cpp:124] Setting up mnist
I0426 20:49:09.597730 31459 net.cpp:131] Top shape: 64 1 28 28 (50176)
I0426 20:49:09.597734 31459 net.cpp:131] Top shape: 64 (64)
I0426 20:49:09.597738 31459 net.cpp:139] Memory required for data: 200960
I0426 20:49:09.597743 31459 layer_factory.hpp:77] Creating layer conv0
I0426 20:49:09.597759 31459 net.cpp:86] Creating Layer conv0
I0426 20:49:09.597762 31459 net.cpp:408] conv0 <- data
I0426 20:49:09.597787 31459 net.cpp:382] conv0 -> conv0
I0426 20:49:09.827697 31459 net.cpp:124] Setting up conv0
I0426 20:49:09.827738 31459 net.cpp:131] Top shape: 64 25 24 24 (921600)
I0426 20:49:09.827741 31459 net.cpp:139] Memory required for data: 3887360
I0426 20:49:09.827756 31459 layer_factory.hpp:77] Creating layer pool0
I0426 20:49:09.827767 31459 net.cpp:86] Creating Layer pool0
I0426 20:49:09.827771 31459 net.cpp:408] pool0 <- conv0
I0426 20:49:09.827777 31459 net.cpp:382] pool0 -> pool0
I0426 20:49:09.827819 31459 net.cpp:124] Setting up pool0
I0426 20:49:09.827826 31459 net.cpp:131] Top shape: 64 25 12 12 (230400)
I0426 20:49:09.827827 31459 net.cpp:139] Memory required for data: 4808960
I0426 20:49:09.827831 31459 layer_factory.hpp:77] Creating layer ip1
I0426 20:49:09.827837 31459 net.cpp:86] Creating Layer ip1
I0426 20:49:09.827841 31459 net.cpp:408] ip1 <- pool0
I0426 20:49:09.827844 31459 net.cpp:382] ip1 -> ip1
I0426 20:49:09.828147 31459 net.cpp:124] Setting up ip1
I0426 20:49:09.828153 31459 net.cpp:131] Top shape: 64 10 (640)
I0426 20:49:09.828419 31459 net.cpp:139] Memory required for data: 4811520
I0426 20:49:09.828474 31459 layer_factory.hpp:77] Creating layer relu1
I0426 20:49:09.828501 31459 net.cpp:86] Creating Layer relu1
I0426 20:49:09.828548 31459 net.cpp:408] relu1 <- ip1
I0426 20:49:09.828585 31459 net.cpp:369] relu1 -> ip1 (in-place)
I0426 20:49:09.829078 31459 net.cpp:124] Setting up relu1
I0426 20:49:09.829114 31459 net.cpp:131] Top shape: 64 10 (640)
I0426 20:49:09.829126 31459 net.cpp:139] Memory required for data: 4814080
I0426 20:49:09.829144 31459 layer_factory.hpp:77] Creating layer loss
I0426 20:49:09.829162 31459 net.cpp:86] Creating Layer loss
I0426 20:49:09.829180 31459 net.cpp:408] loss <- ip1
I0426 20:49:09.829196 31459 net.cpp:408] loss <- label
I0426 20:49:09.829213 31459 net.cpp:382] loss -> loss
I0426 20:49:09.829253 31459 layer_factory.hpp:77] Creating layer loss
…
I0426 20:49:09.831868 31459 solver.cpp:173] Creating test net (#0) specified by net file: ECE595/mnist/train_test/var_everything/lenet_train_test28.prototxt
I0426 20:49:09.831941 31459 net.cpp:296] The NetState phase (1) differed from the phase (0) specified by a rule in layer mnist
I0426 20:49:09.832098 31459 net.cpp:53] Initializing net from parameters: 
name: "LeNet"
state {
  phase: TEST
}
layer {
  name: "mnist"
  type: "Data"
  top: "data"
  top: "label"
  include {
    phase: TEST
  }
  transform_param {
    scale: 0.00390625
  }
  data_param {
    source: "examples/mnist/mnist_test_lmdb"
    batch_size: 100
    backend: LMDB
  }
}
layer {
  name: "conv0"
  type: "Convolution"
  bottom: "data"
  top: "conv0"
  param {
    lr_mult: 1
  }
  param {
    lr_mult: 2
  }
  convolution_param {
    num_output: 25
    kernel_size: 5
    stride: 1
    weight_filler {
      type: "xavier"
    }
    bias_filler {
      type: "constant"
    }
  }
}
layer {
  name: "pool0"
  type: "Pooling"
  bottom: "conv0"
  top: "pool0"
  pooling_param {
    pool: MAX
    kernel_size: 2
    stride: 2
  }
}
layer {
  name: "ip1"
  type: "InnerProduct"
  bottom: "pool0"
  top: "ip1"
  param {
    lr_mult: 1
  }
  param {
    lr_mult: 2
  }
  inner_product_param {
    num_output: 10
    weight_filler {
      type: "xavier"
    }
    bias_filler {
      type: "constant"
    }
  }
}
layer {
  name: "relu1"
  type: "ReLU"
  bottom: "ip1"
  top: "ip1"
}
layer {
  name: "accuracy"
  type: "Accuracy"
  bottom: "ip1"
  bottom: "label"
  top: "accuracy"
  include {
    phase: TEST
  }
}
layer {
  name: "loss"
  type: "SoftmaxWithLoss"
  bottom: "ip1"
  bottom: "label"
  top: "loss"
}
I0426 20:49:09.832260 31459 layer_factory.hpp:77] Creating layer mnist
I0426 20:49:09.832384 31459 db_lmdb.cpp:35] Opened lmdb examples/mnist/mnist_test_lmdb
I0426 20:49:09.832415 31459 net.cpp:86] Creating Layer mnist
I0426 20:49:09.832432 31459 net.cpp:382] mnist -> data
I0426 20:49:09.832461 31459 net.cpp:382] mnist -> label
I0426 20:49:09.832710 31459 data_layer.cpp:45] output data size: 100,1,28,28
I0426 20:49:09.836650 31459 net.cpp:124] Setting up mnist
I0426 20:49:09.836694 31459 net.cpp:131] Top shape: 100 1 28 28 (78400)
I0426 20:49:09.836724 31459 net.cpp:131] Top shape: 100 (100)
I0426 20:49:09.836736 31459 net.cpp:139] Memory required for data: 314000
I0426 20:49:09.836781 31459 layer_factory.hpp:77] Creating layer label_mnist_1_split
I0426 20:49:09.836825 31459 net.cpp:86] Creating Layer label_mnist_1_split
I0426 20:49:09.836845 31459 net.cpp:408] label_mnist_1_split <- label
I0426 20:49:09.836877 31459 net.cpp:382] label_mnist_1_split -> label_mnist_1_split_0
I0426 20:49:09.836910 31459 net.cpp:382] label_mnist_1_split -> label_mnist_1_split_1
I0426 20:49:09.837013 31459 net.cpp:124] Setting up label_mnist_1_split
I0426 20:49:09.837030 31459 net.cpp:131] Top shape: 100 (100)
I0426 20:49:09.837046 31459 net.cpp:131] Top shape: 100 (100)
I0426 20:49:09.837057 31459 net.cpp:139] Memory required for data: 314800
I0426 20:49:09.837069 31459 layer_factory.hpp:77] Creating layer conv0
I0426 20:49:09.837096 31459 net.cpp:86] Creating Layer conv0
I0426 20:49:09.837108 31459 net.cpp:408] conv0 <- data
I0426 20:49:09.837127 31459 net.cpp:382] conv0 -> conv0
I0426 20:49:09.840235 31459 net.cpp:124] Setting up conv0
I0426 20:49:09.840267 31459 net.cpp:131] Top shape: 100 25 24 24 (1440000)
I0426 20:49:09.840281 31459 net.cpp:139] Memory required for data: 6074800
I0426 20:49:09.840317 31459 layer_factory.hpp:77] Creating layer pool0
I0426 20:49:09.840339 31459 net.cpp:86] Creating Layer pool0
I0426 20:49:09.840363 31459 net.cpp:408] pool0 <- conv0
I0426 20:49:09.840392 31459 net.cpp:382] pool0 -> pool0
I0426 20:49:09.840490 31459 net.cpp:124] Setting up pool0
I0426 20:49:09.840507 31459 net.cpp:131] Top shape: 100 25 12 12 (360000)
I0426 20:49:09.840519 31459 net.cpp:139] Memory required for data: 7514800
I0426 20:49:09.840530 31459 layer_factory.hpp:77] Creating layer ip1
I0426 20:49:09.840553 31459 net.cpp:86] Creating Layer ip1
I0426 20:49:09.840564 31459 net.cpp:408] ip1 <- pool0
I0426 20:49:09.840589 31459 net.cpp:382] ip1 -> ip1
I0426 20:49:09.841295 31459 net.cpp:124] Setting up ip1
I0426 20:49:09.841317 31459 net.cpp:131] Top shape: 100 10 (1000)
I0426 20:49:09.841328 31459 net.cpp:139] Memory required for data: 7518800
I0426 20:49:09.841357 31459 layer_factory.hpp:77] Creating layer relu1
I0426 20:49:09.841373 31459 net.cpp:86] Creating Layer relu1
I0426 20:49:09.841384 31459 net.cpp:408] relu1 <- ip1
I0426 20:49:09.841399 31459 net.cpp:369] relu1 -> ip1 (in-place)
I0426 20:49:09.841744 31459 net.cpp:124] Setting up relu1
I0426 20:49:09.841763 31459 net.cpp:131] Top shape: 100 10 (1000)
I0426 20:49:09.841774 31459 net.cpp:139] Memory required for data: 7522800
I0426 20:49:09.841807 31459 layer_factory.hpp:77] Creating layer ip1_relu1_0_split
I0426 20:49:09.841823 31459 net.cpp:86] Creating Layer ip1_relu1_0_split
I0426 20:49:09.841835 31459 net.cpp:408] ip1_relu1_0_split <- ip1
I0426 20:49:09.841862 31459 net.cpp:382] ip1_relu1_0_split -> ip1_relu1_0_split_0
I0426 20:49:09.841886 31459 net.cpp:382] ip1_relu1_0_split -> ip1_relu1_0_split_1
I0426 20:49:09.841984 31459 net.cpp:124] Setting up ip1_relu1_0_split
I0426 20:49:09.841998 31459 net.cpp:131] Top shape: 100 10 (1000)
I0426 20:49:09.842012 31459 net.cpp:131] Top shape: 100 10 (1000)
I0426 20:49:09.842022 31459 net.cpp:139] Memory required for data: 7530800
I0426 20:49:09.842031 31459 layer_factory.hpp:77] Creating layer accuracy
I0426 20:49:09.842046 31459 net.cpp:86] Creating Layer accuracy
I0426 20:49:09.842057 31459 net.cpp:408] accuracy <- ip1_relu1_0_split_0
I0426 20:49:09.842072 31459 net.cpp:408] accuracy <- label_mnist_1_split_0
I0426 20:49:09.842085 31459 net.cpp:382] accuracy -> accuracy
…
