…
I0426 20:53:36.714684 32470 net.cpp:296] The NetState phase (0) differed from the phase (1) specified by a rule in layer mnist
I0426 20:53:36.714700 32470 net.cpp:296] The NetState phase (0) differed from the phase (1) specified by a rule in layer accuracy
I0426 20:53:36.714783 32470 net.cpp:53] Initializing net from parameters: 
name: "LeNet"
state {
  phase: TRAIN
  level: 0
  stage: ""
}
layer {
  name: "mnist"
  type: "Data"
  top: "data"
  top: "label"
  include {
    phase: TRAIN
  }
  transform_param {
    scale: 0.00390625
  }
  data_param {
    source: "examples/mnist/mnist_train_lmdb"
    batch_size: 64
    backend: LMDB
  }
}
layer {
  name: "conv0"
  type: "Convolution"
  bottom: "data"
  top: "conv0"
  param {
    lr_mult: 1
  }
  param {
    lr_mult: 2
  }
  convolution_param {
    num_output: 50
    kernel_size: 5
    stride: 1
    weight_filler {
      type: "xavier"
    }
    bias_filler {
      type: "constant"
    }
  }
}
layer {
  name: "pool0"
  type: "Pooling"
  bottom: "conv0"
  top: "pool0"
  pooling_param {
    pool: MAX
    kernel_size: 2
    stride: 2
  }
}
layer {
  name: "conv1"
  type: "Convolution"
  bottom: "pool0"
  top: "conv1"
  param {
    lr_mult: 1
  }
  param {
    lr_mult: 2
  }
  convolution_param {
    num_output: 10
    kernel_size: 5
    stride: 1
    weight_filler {
      type: "xavier"
    }
    bias_filler {
      type: "constant"
    }
  }
}
layer {
  name: "pool1"
  type: "Pooling"
  bottom: "conv1"
  top: "pool1"
  pooling_param {
    pool: MAX
    kernel_size: 2
    stride: 2
  }
}
layer {
  name: "ip1"
  type: "InnerProduct"
  bottom: "pool1"
  top: "ip1"
  param {
    lr_mult: 1
  }
  param {
    lr_mult: 2
  }
  inner_product_param {
    num_output: 10
    weight_filler {
      type: "xavier"
    }
    bias_filler {
      type: "constant"
    }
  }
}
layer {
  name: "relu1"
  type: "ReLU"
  bottom: "ip1"
  top: "ip1"
}
layer {
  name: "loss"
  type: "SoftmaxWithLoss"
  bottom: "ip1"
  bottom: "label"
  top: "loss"
}
I0426 20:53:36.714854 32470 layer_factory.hpp:77] Creating layer mnist
I0426 20:53:36.714978 32470 db_lmdb.cpp:35] Opened lmdb examples/mnist/mnist_train_lmdb
I0426 20:53:36.715003 32470 net.cpp:86] Creating Layer mnist
I0426 20:53:36.715011 32470 net.cpp:382] mnist -> data
I0426 20:53:36.715034 32470 net.cpp:382] mnist -> label
I0426 20:53:36.716131 32470 data_layer.cpp:45] output data size: 64,1,28,28
I0426 20:53:36.718673 32470 net.cpp:124] Setting up mnist
I0426 20:53:36.718691 32470 net.cpp:131] Top shape: 64 1 28 28 (50176)
I0426 20:53:36.718698 32470 net.cpp:131] Top shape: 64 (64)
I0426 20:53:36.718701 32470 net.cpp:139] Memory required for data: 200960
I0426 20:53:36.718708 32470 layer_factory.hpp:77] Creating layer conv0
I0426 20:53:36.718731 32470 net.cpp:86] Creating Layer conv0
I0426 20:53:36.718737 32470 net.cpp:408] conv0 <- data
I0426 20:53:36.718750 32470 net.cpp:382] conv0 -> conv0
I0426 20:53:37.004397 32470 net.cpp:124] Setting up conv0
I0426 20:53:37.004426 32470 net.cpp:131] Top shape: 64 50 24 24 (1843200)
I0426 20:53:37.004429 32470 net.cpp:139] Memory required for data: 7573760
I0426 20:53:37.004444 32470 layer_factory.hpp:77] Creating layer pool0
I0426 20:53:37.004458 32470 net.cpp:86] Creating Layer pool0
I0426 20:53:37.004462 32470 net.cpp:408] pool0 <- conv0
I0426 20:53:37.004467 32470 net.cpp:382] pool0 -> pool0
I0426 20:53:37.004523 32470 net.cpp:124] Setting up pool0
I0426 20:53:37.004530 32470 net.cpp:131] Top shape: 64 50 12 12 (460800)
I0426 20:53:37.004547 32470 net.cpp:139] Memory required for data: 9416960
I0426 20:53:37.004551 32470 layer_factory.hpp:77] Creating layer conv1
I0426 20:53:37.004562 32470 net.cpp:86] Creating Layer conv1
I0426 20:53:37.004567 32470 net.cpp:408] conv1 <- pool0
I0426 20:53:37.004572 32470 net.cpp:382] conv1 -> conv1
I0426 20:53:37.007393 32470 net.cpp:124] Setting up conv1
I0426 20:53:37.007408 32470 net.cpp:131] Top shape: 64 10 8 8 (40960)
I0426 20:53:37.007412 32470 net.cpp:139] Memory required for data: 9580800
I0426 20:53:37.007421 32470 layer_factory.hpp:77] Creating layer pool1
I0426 20:53:37.007428 32470 net.cpp:86] Creating Layer pool1
I0426 20:53:37.007432 32470 net.cpp:408] pool1 <- conv1
I0426 20:53:37.007437 32470 net.cpp:382] pool1 -> pool1
I0426 20:53:37.007480 32470 net.cpp:124] Setting up pool1
I0426 20:53:37.007486 32470 net.cpp:131] Top shape: 64 10 4 4 (10240)
I0426 20:53:37.007489 32470 net.cpp:139] Memory required for data: 9621760
I0426 20:53:37.007493 32470 layer_factory.hpp:77] Creating layer ip1
I0426 20:53:37.007499 32470 net.cpp:86] Creating Layer ip1
I0426 20:53:37.007503 32470 net.cpp:408] ip1 <- pool1
I0426 20:53:37.007506 32470 net.cpp:382] ip1 -> ip1
I0426 20:53:37.007613 32470 net.cpp:124] Setting up ip1
I0426 20:53:37.007622 32470 net.cpp:131] Top shape: 64 10 (640)
I0426 20:53:37.007624 32470 net.cpp:139] Memory required for data: 9624320
I0426 20:53:37.007632 32470 layer_factory.hpp:77] Creating layer relu1
I0426 20:53:37.007637 32470 net.cpp:86] Creating Layer relu1
I0426 20:53:37.007639 32470 net.cpp:408] relu1 <- ip1
I0426 20:53:37.007643 32470 net.cpp:369] relu1 -> ip1 (in-place)
I0426 20:53:37.007807 32470 net.cpp:124] Setting up relu1
I0426 20:53:37.007815 32470 net.cpp:131] Top shape: 64 10 (640)
I0426 20:53:37.007818 32470 net.cpp:139] Memory required for data: 9626880
I0426 20:53:37.007822 32470 layer_factory.hpp:77] Creating layer loss
I0426 20:53:37.007827 32470 net.cpp:86] Creating Layer loss
I0426 20:53:37.007830 32470 net.cpp:408] loss <- ip1
I0426 20:53:37.007834 32470 net.cpp:408] loss <- label
I0426 20:53:37.007839 32470 net.cpp:382] loss -> loss
I0426 20:53:37.007853 32470 layer_factory.hpp:77] Creating layer loss
…
I0426 20:53:37.009053 32470 solver.cpp:173] Creating test net (#0) specified by net file: ECE595/mnist/train_test/var_everything/lenet_train_test140.prototxt
I0426 20:53:37.009078 32470 net.cpp:296] The NetState phase (1) differed from the phase (0) specified by a rule in layer mnist
I0426 20:53:37.009166 32470 net.cpp:53] Initializing net from parameters: 
name: "LeNet"
state {
  phase: TEST
}
layer {
  name: "mnist"
  type: "Data"
  top: "data"
  top: "label"
  include {
    phase: TEST
  }
  transform_param {
    scale: 0.00390625
  }
  data_param {
    source: "examples/mnist/mnist_test_lmdb"
    batch_size: 100
    backend: LMDB
  }
}
layer {
  name: "conv0"
  type: "Convolution"
  bottom: "data"
  top: "conv0"
  param {
    lr_mult: 1
  }
  param {
    lr_mult: 2
  }
  convolution_param {
    num_output: 50
    kernel_size: 5
    stride: 1
    weight_filler {
      type: "xavier"
    }
    bias_filler {
      type: "constant"
    }
  }
}
layer {
  name: "pool0"
  type: "Pooling"
  bottom: "conv0"
  top: "pool0"
  pooling_param {
    pool: MAX
    kernel_size: 2
    stride: 2
  }
}
layer {
  name: "conv1"
  type: "Convolution"
  bottom: "pool0"
  top: "conv1"
  param {
    lr_mult: 1
  }
  param {
    lr_mult: 2
  }
  convolution_param {
    num_output: 10
    kernel_size: 5
    stride: 1
    weight_filler {
      type: "xavier"
    }
    bias_filler {
      type: "constant"
    }
  }
}
layer {
  name: "pool1"
  type: "Pooling"
  bottom: "conv1"
  top: "pool1"
  pooling_param {
    pool: MAX
    kernel_size: 2
    stride: 2
  }
}
layer {
  name: "ip1"
  type: "InnerProduct"
  bottom: "pool1"
  top: "ip1"
  param {
    lr_mult: 1
  }
  param {
    lr_mult: 2
  }
  inner_product_param {
    num_output: 10
    weight_filler {
      type: "xavier"
    }
    bias_filler {
      type: "constant"
    }
  }
}
layer {
  name: "relu1"
  type: "ReLU"
  bottom: "ip1"
  top: "ip1"
}
layer {
  name: "accuracy"
  type: "Accuracy"
  bottom: "ip1"
  bottom: "label"
  top: "accuracy"
  include {
    phase: TEST
  }
}
layer {
  name: "loss"
  type: "SoftmaxWithLoss"
  bottom: "ip1"
  bottom: "label"
  top: "loss"
}
I0426 20:53:37.009235 32470 layer_factory.hpp:77] Creating layer mnist
I0426 20:53:37.009277 32470 db_lmdb.cpp:35] Opened lmdb examples/mnist/mnist_test_lmdb
I0426 20:53:37.009289 32470 net.cpp:86] Creating Layer mnist
I0426 20:53:37.009294 32470 net.cpp:382] mnist -> data
I0426 20:53:37.009300 32470 net.cpp:382] mnist -> label
I0426 20:53:37.009382 32470 data_layer.cpp:45] output data size: 100,1,28,28
I0426 20:53:37.011423 32470 net.cpp:124] Setting up mnist
I0426 20:53:37.011437 32470 net.cpp:131] Top shape: 100 1 28 28 (78400)
I0426 20:53:37.011442 32470 net.cpp:131] Top shape: 100 (100)
I0426 20:53:37.011445 32470 net.cpp:139] Memory required for data: 314000
I0426 20:53:37.011448 32470 layer_factory.hpp:77] Creating layer label_mnist_1_split
I0426 20:53:37.011456 32470 net.cpp:86] Creating Layer label_mnist_1_split
I0426 20:53:37.011458 32470 net.cpp:408] label_mnist_1_split <- label
I0426 20:53:37.011462 32470 net.cpp:382] label_mnist_1_split -> label_mnist_1_split_0
I0426 20:53:37.011471 32470 net.cpp:382] label_mnist_1_split -> label_mnist_1_split_1
I0426 20:53:37.011554 32470 net.cpp:124] Setting up label_mnist_1_split
I0426 20:53:37.011567 32470 net.cpp:131] Top shape: 100 (100)
I0426 20:53:37.011571 32470 net.cpp:131] Top shape: 100 (100)
I0426 20:53:37.011574 32470 net.cpp:139] Memory required for data: 314800
I0426 20:53:37.011576 32470 layer_factory.hpp:77] Creating layer conv0
I0426 20:53:37.011585 32470 net.cpp:86] Creating Layer conv0
I0426 20:53:37.011589 32470 net.cpp:408] conv0 <- data
I0426 20:53:37.011593 32470 net.cpp:382] conv0 -> conv0
I0426 20:53:37.012362 32470 net.cpp:124] Setting up conv0
I0426 20:53:37.012374 32470 net.cpp:131] Top shape: 100 50 24 24 (2880000)
I0426 20:53:37.012379 32470 net.cpp:139] Memory required for data: 11834800
I0426 20:53:37.012387 32470 layer_factory.hpp:77] Creating layer pool0
I0426 20:53:37.012393 32470 net.cpp:86] Creating Layer pool0
I0426 20:53:37.012397 32470 net.cpp:408] pool0 <- conv0
I0426 20:53:37.012401 32470 net.cpp:382] pool0 -> pool0
I0426 20:53:37.012434 32470 net.cpp:124] Setting up pool0
I0426 20:53:37.012439 32470 net.cpp:131] Top shape: 100 50 12 12 (720000)
I0426 20:53:37.012441 32470 net.cpp:139] Memory required for data: 14714800
I0426 20:53:37.012444 32470 layer_factory.hpp:77] Creating layer conv1
I0426 20:53:37.012452 32470 net.cpp:86] Creating Layer conv1
I0426 20:53:37.012455 32470 net.cpp:408] conv1 <- pool0
I0426 20:53:37.012459 32470 net.cpp:382] conv1 -> conv1
I0426 20:53:37.014128 32470 net.cpp:124] Setting up conv1
I0426 20:53:37.014142 32470 net.cpp:131] Top shape: 100 10 8 8 (64000)
I0426 20:53:37.014145 32470 net.cpp:139] Memory required for data: 14970800
I0426 20:53:37.014153 32470 layer_factory.hpp:77] Creating layer pool1
I0426 20:53:37.014159 32470 net.cpp:86] Creating Layer pool1
I0426 20:53:37.014173 32470 net.cpp:408] pool1 <- conv1
I0426 20:53:37.014179 32470 net.cpp:382] pool1 -> pool1
I0426 20:53:37.014214 32470 net.cpp:124] Setting up pool1
I0426 20:53:37.014219 32470 net.cpp:131] Top shape: 100 10 4 4 (16000)
I0426 20:53:37.014222 32470 net.cpp:139] Memory required for data: 15034800
I0426 20:53:37.014225 32470 layer_factory.hpp:77] Creating layer ip1
I0426 20:53:37.014230 32470 net.cpp:86] Creating Layer ip1
I0426 20:53:37.014233 32470 net.cpp:408] ip1 <- pool1
I0426 20:53:37.014238 32470 net.cpp:382] ip1 -> ip1
I0426 20:53:37.014336 32470 net.cpp:124] Setting up ip1
I0426 20:53:37.014344 32470 net.cpp:131] Top shape: 100 10 (1000)
I0426 20:53:37.014348 32470 net.cpp:139] Memory required for data: 15038800
I0426 20:53:37.014354 32470 layer_factory.hpp:77] Creating layer relu1
I0426 20:53:37.014359 32470 net.cpp:86] Creating Layer relu1
I0426 20:53:37.014363 32470 net.cpp:408] relu1 <- ip1
I0426 20:53:37.014367 32470 net.cpp:369] relu1 -> ip1 (in-place)
I0426 20:53:37.015168 32470 net.cpp:124] Setting up relu1
I0426 20:53:37.015180 32470 net.cpp:131] Top shape: 100 10 (1000)
I0426 20:53:37.015183 32470 net.cpp:139] Memory required for data: 15042800
I0426 20:53:37.015187 32470 layer_factory.hpp:77] Creating layer ip1_relu1_0_split
I0426 20:53:37.015193 32470 net.cpp:86] Creating Layer ip1_relu1_0_split
I0426 20:53:37.015197 32470 net.cpp:408] ip1_relu1_0_split <- ip1
I0426 20:53:37.015202 32470 net.cpp:382] ip1_relu1_0_split -> ip1_relu1_0_split_0
I0426 20:53:37.015208 32470 net.cpp:382] ip1_relu1_0_split -> ip1_relu1_0_split_1
I0426 20:53:37.015278 32470 net.cpp:124] Setting up ip1_relu1_0_split
I0426 20:53:37.015285 32470 net.cpp:131] Top shape: 100 10 (1000)
I0426 20:53:37.015288 32470 net.cpp:131] Top shape: 100 10 (1000)
I0426 20:53:37.015291 32470 net.cpp:139] Memory required for data: 15050800
I0426 20:53:37.015295 32470 layer_factory.hpp:77] Creating layer accuracy
I0426 20:53:37.015298 32470 net.cpp:86] Creating Layer accuracy
I0426 20:53:37.015302 32470 net.cpp:408] accuracy <- ip1_relu1_0_split_0
I0426 20:53:37.015306 32470 net.cpp:408] accuracy <- label_mnist_1_split_0
I0426 20:53:37.015311 32470 net.cpp:382] accuracy -> accuracy
…
