…
I0426 20:49:31.736944 31544 net.cpp:296] The NetState phase (0) differed from the phase (1) specified by a rule in layer mnist
I0426 20:49:31.736960 31544 net.cpp:296] The NetState phase (0) differed from the phase (1) specified by a rule in layer accuracy
I0426 20:49:31.737033 31544 net.cpp:53] Initializing net from parameters: 
name: "LeNet"
state {
  phase: TRAIN
  level: 0
  stage: ""
}
layer {
  name: "mnist"
  type: "Data"
  top: "data"
  top: "label"
  include {
    phase: TRAIN
  }
  transform_param {
    scale: 0.00390625
  }
  data_param {
    source: "examples/mnist/mnist_train_lmdb"
    batch_size: 64
    backend: LMDB
  }
}
layer {
  name: "conv0"
  type: "Convolution"
  bottom: "data"
  top: "conv0"
  param {
    lr_mult: 1
  }
  param {
    lr_mult: 2
  }
  convolution_param {
    num_output: 25
    kernel_size: 5
    stride: 1
    weight_filler {
      type: "xavier"
    }
    bias_filler {
      type: "constant"
    }
  }
}
layer {
  name: "pool0"
  type: "Pooling"
  bottom: "conv0"
  top: "pool0"
  pooling_param {
    pool: MAX
    kernel_size: 2
    stride: 2
  }
}
layer {
  name: "ip1"
  type: "InnerProduct"
  bottom: "pool0"
  top: "ip1"
  param {
    lr_mult: 1
  }
  param {
    lr_mult: 2
  }
  inner_product_param {
    num_output: 300
    weight_filler {
      type: "xavier"
    }
    bias_filler {
      type: "constant"
    }
  }
}
layer {
  name: "relu1"
  type: "ReLU"
  bottom: "ip1"
  top: "ip1"
}
layer {
  name: "ip2"
  type: "InnerProduct"
  bottom: "ip1"
  top: "ip2"
  param {
    lr_mult: 1
  }
  param {
    lr_mult: 2
  }
  inner_product_param {
    num_output: 100
    weight_filler {
      type: "xavier"
    }
    bias_filler {
      type: "constant"
    }
  }
}
layer {
  name: "relu2"
  type: "ReLU"
  bottom: "ip2"
  top: "ip2"
}
layer {
  name: "ip3"
  type: "InnerProduct"
  bottom: "ip2"
  top: "ip3"
  param {
    lr_mult: 1
  }
  param {
    lr_mult: 2
  }
  inner_product_param {
    num_output: 10
    weight_filler {
      type: "xavier"
    }
    bias_filler {
      type: "constant"
    }
  }
}
layer {
  name: "relu3"
  type: "ReLU"
  bottom: "ip3"
  top: "ip3"
}
layer {
  name: "loss"
  type: "SoftmaxWithLoss"
  bottom: "ip3"
  bottom: "label"
  top: "loss"
}
I0426 20:49:31.737095 31544 layer_factory.hpp:77] Creating layer mnist
I0426 20:49:31.737192 31544 db_lmdb.cpp:35] Opened lmdb examples/mnist/mnist_train_lmdb
I0426 20:49:31.737211 31544 net.cpp:86] Creating Layer mnist
I0426 20:49:31.737218 31544 net.cpp:382] mnist -> data
I0426 20:49:31.737237 31544 net.cpp:382] mnist -> label
I0426 20:49:31.738150 31544 data_layer.cpp:45] output data size: 64,1,28,28
I0426 20:49:31.740372 31544 net.cpp:124] Setting up mnist
I0426 20:49:31.740386 31544 net.cpp:131] Top shape: 64 1 28 28 (50176)
I0426 20:49:31.740391 31544 net.cpp:131] Top shape: 64 (64)
I0426 20:49:31.740393 31544 net.cpp:139] Memory required for data: 200960
I0426 20:49:31.740398 31544 layer_factory.hpp:77] Creating layer conv0
I0426 20:49:31.740411 31544 net.cpp:86] Creating Layer conv0
I0426 20:49:31.740417 31544 net.cpp:408] conv0 <- data
I0426 20:49:31.740463 31544 net.cpp:382] conv0 -> conv0
I0426 20:49:31.973364 31544 net.cpp:124] Setting up conv0
I0426 20:49:31.973392 31544 net.cpp:131] Top shape: 64 25 24 24 (921600)
I0426 20:49:31.973395 31544 net.cpp:139] Memory required for data: 3887360
I0426 20:49:31.973409 31544 layer_factory.hpp:77] Creating layer pool0
I0426 20:49:31.973422 31544 net.cpp:86] Creating Layer pool0
I0426 20:49:31.973460 31544 net.cpp:408] pool0 <- conv0
I0426 20:49:31.973466 31544 net.cpp:382] pool0 -> pool0
I0426 20:49:31.973510 31544 net.cpp:124] Setting up pool0
I0426 20:49:31.973515 31544 net.cpp:131] Top shape: 64 25 12 12 (230400)
I0426 20:49:31.973517 31544 net.cpp:139] Memory required for data: 4808960
I0426 20:49:31.973520 31544 layer_factory.hpp:77] Creating layer ip1
I0426 20:49:31.973527 31544 net.cpp:86] Creating Layer ip1
I0426 20:49:31.973531 31544 net.cpp:408] ip1 <- pool0
I0426 20:49:31.973534 31544 net.cpp:382] ip1 -> ip1
I0426 20:49:31.980506 31544 net.cpp:124] Setting up ip1
I0426 20:49:31.980533 31544 net.cpp:131] Top shape: 64 300 (19200)
I0426 20:49:31.980536 31544 net.cpp:139] Memory required for data: 4885760
I0426 20:49:31.980545 31544 layer_factory.hpp:77] Creating layer relu1
I0426 20:49:31.980551 31544 net.cpp:86] Creating Layer relu1
I0426 20:49:31.980554 31544 net.cpp:408] relu1 <- ip1
I0426 20:49:31.980558 31544 net.cpp:369] relu1 -> ip1 (in-place)
I0426 20:49:31.980728 31544 net.cpp:124] Setting up relu1
I0426 20:49:31.980737 31544 net.cpp:131] Top shape: 64 300 (19200)
I0426 20:49:31.980741 31544 net.cpp:139] Memory required for data: 4962560
I0426 20:49:31.980743 31544 layer_factory.hpp:77] Creating layer ip2
I0426 20:49:31.980749 31544 net.cpp:86] Creating Layer ip2
I0426 20:49:31.980752 31544 net.cpp:408] ip2 <- ip1
I0426 20:49:31.980757 31544 net.cpp:382] ip2 -> ip2
I0426 20:49:31.981039 31544 net.cpp:124] Setting up ip2
I0426 20:49:31.981046 31544 net.cpp:131] Top shape: 64 100 (6400)
I0426 20:49:31.981050 31544 net.cpp:139] Memory required for data: 4988160
I0426 20:49:31.981056 31544 layer_factory.hpp:77] Creating layer relu2
I0426 20:49:31.981061 31544 net.cpp:86] Creating Layer relu2
I0426 20:49:31.981065 31544 net.cpp:408] relu2 <- ip2
I0426 20:49:31.981070 31544 net.cpp:369] relu2 -> ip2 (in-place)
I0426 20:49:31.981848 31544 net.cpp:124] Setting up relu2
I0426 20:49:31.981860 31544 net.cpp:131] Top shape: 64 100 (6400)
I0426 20:49:31.981878 31544 net.cpp:139] Memory required for data: 5013760
I0426 20:49:31.981883 31544 layer_factory.hpp:77] Creating layer ip3
I0426 20:49:31.981889 31544 net.cpp:86] Creating Layer ip3
I0426 20:49:31.981891 31544 net.cpp:408] ip3 <- ip2
I0426 20:49:31.981897 31544 net.cpp:382] ip3 -> ip3
I0426 20:49:31.982022 31544 net.cpp:124] Setting up ip3
I0426 20:49:31.982028 31544 net.cpp:131] Top shape: 64 10 (640)
I0426 20:49:31.982031 31544 net.cpp:139] Memory required for data: 5016320
I0426 20:49:31.982036 31544 layer_factory.hpp:77] Creating layer relu3
I0426 20:49:31.982043 31544 net.cpp:86] Creating Layer relu3
I0426 20:49:31.982045 31544 net.cpp:408] relu3 <- ip3
I0426 20:49:31.982049 31544 net.cpp:369] relu3 -> ip3 (in-place)
I0426 20:49:31.982185 31544 net.cpp:124] Setting up relu3
I0426 20:49:31.982192 31544 net.cpp:131] Top shape: 64 10 (640)
I0426 20:49:31.982195 31544 net.cpp:139] Memory required for data: 5018880
I0426 20:49:31.982198 31544 layer_factory.hpp:77] Creating layer loss
I0426 20:49:31.982203 31544 net.cpp:86] Creating Layer loss
I0426 20:49:31.982206 31544 net.cpp:408] loss <- ip3
I0426 20:49:31.982210 31544 net.cpp:408] loss <- label
I0426 20:49:31.982215 31544 net.cpp:382] loss -> loss
I0426 20:49:31.982233 31544 layer_factory.hpp:77] Creating layer loss
…
I0426 20:49:31.982784 31544 solver.cpp:173] Creating test net (#0) specified by net file: ECE595/mnist/train_test/var_everything/lenet_train_test38.prototxt
I0426 20:49:31.982807 31544 net.cpp:296] The NetState phase (1) differed from the phase (0) specified by a rule in layer mnist
I0426 20:49:31.982885 31544 net.cpp:53] Initializing net from parameters: 
name: "LeNet"
state {
  phase: TEST
}
layer {
  name: "mnist"
  type: "Data"
  top: "data"
  top: "label"
  include {
    phase: TEST
  }
  transform_param {
    scale: 0.00390625
  }
  data_param {
    source: "examples/mnist/mnist_test_lmdb"
    batch_size: 100
    backend: LMDB
  }
}
layer {
  name: "conv0"
  type: "Convolution"
  bottom: "data"
  top: "conv0"
  param {
    lr_mult: 1
  }
  param {
    lr_mult: 2
  }
  convolution_param {
    num_output: 25
    kernel_size: 5
    stride: 1
    weight_filler {
      type: "xavier"
    }
    bias_filler {
      type: "constant"
    }
  }
}
layer {
  name: "pool0"
  type: "Pooling"
  bottom: "conv0"
  top: "pool0"
  pooling_param {
    pool: MAX
    kernel_size: 2
    stride: 2
  }
}
layer {
  name: "ip1"
  type: "InnerProduct"
  bottom: "pool0"
  top: "ip1"
  param {
    lr_mult: 1
  }
  param {
    lr_mult: 2
  }
  inner_product_param {
    num_output: 300
    weight_filler {
      type: "xavier"
    }
    bias_filler {
      type: "constant"
    }
  }
}
layer {
  name: "relu1"
  type: "ReLU"
  bottom: "ip1"
  top: "ip1"
}
layer {
  name: "ip2"
  type: "InnerProduct"
  bottom: "ip1"
  top: "ip2"
  param {
    lr_mult: 1
  }
  param {
    lr_mult: 2
  }
  inner_product_param {
    num_output: 100
    weight_filler {
      type: "xavier"
    }
    bias_filler {
      type: "constant"
    }
  }
}
layer {
  name: "relu2"
  type: "ReLU"
  bottom: "ip2"
  top: "ip2"
}
layer {
  name: "ip3"
  type: "InnerProduct"
  bottom: "ip2"
  top: "ip3"
  param {
    lr_mult: 1
  }
  param {
    lr_mult: 2
  }
  inner_product_param {
    num_output: 10
    weight_filler {
      type: "xavier"
    }
    bias_filler {
      type: "constant"
    }
  }
}
layer {
  name: "relu3"
  type: "ReLU"
  bottom: "ip3"
  top: "ip3"
}
layer {
  name: "accuracy"
  type: "Accuracy"
  bottom: "ip3"
  bottom: "label"
  top: "accuracy"
  include {
    phase: TEST
  }
}
layer {
  name: "loss"
  type: "SoftmaxWithLoss"
  bottom: "ip3"
  bottom: "label"
  top: "loss"
}
I0426 20:49:31.982944 31544 layer_factory.hpp:77] Creating layer mnist
I0426 20:49:31.982987 31544 db_lmdb.cpp:35] Opened lmdb examples/mnist/mnist_test_lmdb
I0426 20:49:31.983000 31544 net.cpp:86] Creating Layer mnist
I0426 20:49:31.983003 31544 net.cpp:382] mnist -> data
I0426 20:49:31.983011 31544 net.cpp:382] mnist -> label
I0426 20:49:31.983086 31544 data_layer.cpp:45] output data size: 100,1,28,28
I0426 20:49:31.985031 31544 net.cpp:124] Setting up mnist
I0426 20:49:31.985075 31544 net.cpp:131] Top shape: 100 1 28 28 (78400)
I0426 20:49:31.985081 31544 net.cpp:131] Top shape: 100 (100)
I0426 20:49:31.985098 31544 net.cpp:139] Memory required for data: 314000
I0426 20:49:31.985102 31544 layer_factory.hpp:77] Creating layer label_mnist_1_split
I0426 20:49:31.985152 31544 net.cpp:86] Creating Layer label_mnist_1_split
I0426 20:49:31.985157 31544 net.cpp:408] label_mnist_1_split <- label
I0426 20:49:31.985162 31544 net.cpp:382] label_mnist_1_split -> label_mnist_1_split_0
I0426 20:49:31.985168 31544 net.cpp:382] label_mnist_1_split -> label_mnist_1_split_1
I0426 20:49:31.985267 31544 net.cpp:124] Setting up label_mnist_1_split
I0426 20:49:31.985283 31544 net.cpp:131] Top shape: 100 (100)
I0426 20:49:31.985286 31544 net.cpp:131] Top shape: 100 (100)
I0426 20:49:31.985290 31544 net.cpp:139] Memory required for data: 314800
I0426 20:49:31.985301 31544 layer_factory.hpp:77] Creating layer conv0
I0426 20:49:31.985309 31544 net.cpp:86] Creating Layer conv0
I0426 20:49:31.985313 31544 net.cpp:408] conv0 <- data
I0426 20:49:31.985317 31544 net.cpp:382] conv0 -> conv0
I0426 20:49:31.986935 31544 net.cpp:124] Setting up conv0
I0426 20:49:31.986948 31544 net.cpp:131] Top shape: 100 25 24 24 (1440000)
I0426 20:49:31.986953 31544 net.cpp:139] Memory required for data: 6074800
I0426 20:49:31.986960 31544 layer_factory.hpp:77] Creating layer pool0
I0426 20:49:31.986981 31544 net.cpp:86] Creating Layer pool0
I0426 20:49:31.986985 31544 net.cpp:408] pool0 <- conv0
I0426 20:49:31.986990 31544 net.cpp:382] pool0 -> pool0
I0426 20:49:31.987022 31544 net.cpp:124] Setting up pool0
I0426 20:49:31.987027 31544 net.cpp:131] Top shape: 100 25 12 12 (360000)
I0426 20:49:31.987030 31544 net.cpp:139] Memory required for data: 7514800
I0426 20:49:31.987033 31544 layer_factory.hpp:77] Creating layer ip1
I0426 20:49:31.987040 31544 net.cpp:86] Creating Layer ip1
I0426 20:49:31.987042 31544 net.cpp:408] ip1 <- pool0
I0426 20:49:31.987046 31544 net.cpp:382] ip1 -> ip1
I0426 20:49:31.994092 31544 net.cpp:124] Setting up ip1
I0426 20:49:31.994105 31544 net.cpp:131] Top shape: 100 300 (30000)
I0426 20:49:31.994108 31544 net.cpp:139] Memory required for data: 7634800
I0426 20:49:31.994115 31544 layer_factory.hpp:77] Creating layer relu1
I0426 20:49:31.994120 31544 net.cpp:86] Creating Layer relu1
I0426 20:49:31.994123 31544 net.cpp:408] relu1 <- ip1
I0426 20:49:31.994127 31544 net.cpp:369] relu1 -> ip1 (in-place)
I0426 20:49:31.994307 31544 net.cpp:124] Setting up relu1
I0426 20:49:31.994316 31544 net.cpp:131] Top shape: 100 300 (30000)
I0426 20:49:31.994319 31544 net.cpp:139] Memory required for data: 7754800
I0426 20:49:31.994323 31544 layer_factory.hpp:77] Creating layer ip2
I0426 20:49:31.994328 31544 net.cpp:86] Creating Layer ip2
I0426 20:49:31.994331 31544 net.cpp:408] ip2 <- ip1
I0426 20:49:31.994335 31544 net.cpp:382] ip2 -> ip2
I0426 20:49:31.994592 31544 net.cpp:124] Setting up ip2
I0426 20:49:31.994601 31544 net.cpp:131] Top shape: 100 100 (10000)
I0426 20:49:31.994603 31544 net.cpp:139] Memory required for data: 7794800
I0426 20:49:31.994609 31544 layer_factory.hpp:77] Creating layer relu2
I0426 20:49:31.994613 31544 net.cpp:86] Creating Layer relu2
I0426 20:49:31.994617 31544 net.cpp:408] relu2 <- ip2
I0426 20:49:31.994621 31544 net.cpp:369] relu2 -> ip2 (in-place)
I0426 20:49:31.995434 31544 net.cpp:124] Setting up relu2
I0426 20:49:31.995445 31544 net.cpp:131] Top shape: 100 100 (10000)
I0426 20:49:31.995463 31544 net.cpp:139] Memory required for data: 7834800
I0426 20:49:31.995466 31544 layer_factory.hpp:77] Creating layer ip3
I0426 20:49:31.995473 31544 net.cpp:86] Creating Layer ip3
I0426 20:49:31.995478 31544 net.cpp:408] ip3 <- ip2
I0426 20:49:31.995483 31544 net.cpp:382] ip3 -> ip3
I0426 20:49:31.995596 31544 net.cpp:124] Setting up ip3
I0426 20:49:31.995604 31544 net.cpp:131] Top shape: 100 10 (1000)
I0426 20:49:31.995607 31544 net.cpp:139] Memory required for data: 7838800
I0426 20:49:31.995612 31544 layer_factory.hpp:77] Creating layer relu3
I0426 20:49:31.995616 31544 net.cpp:86] Creating Layer relu3
I0426 20:49:31.995620 31544 net.cpp:408] relu3 <- ip3
I0426 20:49:31.995625 31544 net.cpp:369] relu3 -> ip3 (in-place)
I0426 20:49:31.995765 31544 net.cpp:124] Setting up relu3
I0426 20:49:31.995774 31544 net.cpp:131] Top shape: 100 10 (1000)
I0426 20:49:31.995776 31544 net.cpp:139] Memory required for data: 7842800
I0426 20:49:31.995779 31544 layer_factory.hpp:77] Creating layer ip3_relu3_0_split
I0426 20:49:31.995784 31544 net.cpp:86] Creating Layer ip3_relu3_0_split
I0426 20:49:31.995786 31544 net.cpp:408] ip3_relu3_0_split <- ip3
I0426 20:49:31.995790 31544 net.cpp:382] ip3_relu3_0_split -> ip3_relu3_0_split_0
I0426 20:49:31.995795 31544 net.cpp:382] ip3_relu3_0_split -> ip3_relu3_0_split_1
I0426 20:49:31.995827 31544 net.cpp:124] Setting up ip3_relu3_0_split
I0426 20:49:31.995831 31544 net.cpp:131] Top shape: 100 10 (1000)
I0426 20:49:31.995844 31544 net.cpp:131] Top shape: 100 10 (1000)
I0426 20:49:31.995847 31544 net.cpp:139] Memory required for data: 7850800
I0426 20:49:31.995851 31544 layer_factory.hpp:77] Creating layer accuracy
I0426 20:49:31.995856 31544 net.cpp:86] Creating Layer accuracy
I0426 20:49:31.995858 31544 net.cpp:408] accuracy <- ip3_relu3_0_split_0
I0426 20:49:31.995862 31544 net.cpp:408] accuracy <- label_mnist_1_split_0
I0426 20:49:31.995867 31544 net.cpp:382] accuracy -> accuracy
…
