…
I0426 20:49:13.965682 31477 net.cpp:296] The NetState phase (0) differed from the phase (1) specified by a rule in layer mnist
I0426 20:49:13.965698 31477 net.cpp:296] The NetState phase (0) differed from the phase (1) specified by a rule in layer accuracy
I0426 20:49:13.965775 31477 net.cpp:53] Initializing net from parameters: 
name: "LeNet"
state {
  phase: TRAIN
  level: 0
  stage: ""
}
layer {
  name: "mnist"
  type: "Data"
  top: "data"
  top: "label"
  include {
    phase: TRAIN
  }
  transform_param {
    scale: 0.00390625
  }
  data_param {
    source: "examples/mnist/mnist_train_lmdb"
    batch_size: 64
    backend: LMDB
  }
}
layer {
  name: "conv0"
  type: "Convolution"
  bottom: "data"
  top: "conv0"
  param {
    lr_mult: 1
  }
  param {
    lr_mult: 2
  }
  convolution_param {
    num_output: 25
    kernel_size: 5
    stride: 1
    weight_filler {
      type: "xavier"
    }
    bias_filler {
      type: "constant"
    }
  }
}
layer {
  name: "pool0"
  type: "Pooling"
  bottom: "conv0"
  top: "pool0"
  pooling_param {
    pool: MAX
    kernel_size: 2
    stride: 2
  }
}
layer {
  name: "ip1"
  type: "InnerProduct"
  bottom: "pool0"
  top: "ip1"
  param {
    lr_mult: 1
  }
  param {
    lr_mult: 2
  }
  inner_product_param {
    num_output: 100
    weight_filler {
      type: "xavier"
    }
    bias_filler {
      type: "constant"
    }
  }
}
layer {
  name: "relu1"
  type: "ReLU"
  bottom: "ip1"
  top: "ip1"
}
layer {
  name: "ip2"
  type: "InnerProduct"
  bottom: "ip1"
  top: "ip2"
  param {
    lr_mult: 1
  }
  param {
    lr_mult: 2
  }
  inner_product_param {
    num_output: 10
    weight_filler {
      type: "xavier"
    }
    bias_filler {
      type: "constant"
    }
  }
}
layer {
  name: "relu2"
  type: "ReLU"
  bottom: "ip2"
  top: "ip2"
}
layer {
  name: "loss"
  type: "SoftmaxWithLoss"
  bottom: "ip2"
  bottom: "label"
  top: "loss"
}
I0426 20:49:13.965844 31477 layer_factory.hpp:77] Creating layer mnist
I0426 20:49:13.965943 31477 db_lmdb.cpp:35] Opened lmdb examples/mnist/mnist_train_lmdb
I0426 20:49:13.965967 31477 net.cpp:86] Creating Layer mnist
I0426 20:49:13.965975 31477 net.cpp:382] mnist -> data
I0426 20:49:13.965997 31477 net.cpp:382] mnist -> label
I0426 20:49:13.967083 31477 data_layer.cpp:45] output data size: 64,1,28,28
I0426 20:49:13.969629 31477 net.cpp:124] Setting up mnist
I0426 20:49:13.969647 31477 net.cpp:131] Top shape: 64 1 28 28 (50176)
I0426 20:49:13.969653 31477 net.cpp:131] Top shape: 64 (64)
I0426 20:49:13.969656 31477 net.cpp:139] Memory required for data: 200960
I0426 20:49:13.969663 31477 layer_factory.hpp:77] Creating layer conv0
I0426 20:49:13.969702 31477 net.cpp:86] Creating Layer conv0
I0426 20:49:13.969710 31477 net.cpp:408] conv0 <- data
I0426 20:49:13.969722 31477 net.cpp:382] conv0 -> conv0
I0426 20:49:14.257526 31477 net.cpp:124] Setting up conv0
I0426 20:49:14.257553 31477 net.cpp:131] Top shape: 64 25 24 24 (921600)
I0426 20:49:14.257558 31477 net.cpp:139] Memory required for data: 3887360
I0426 20:49:14.257572 31477 layer_factory.hpp:77] Creating layer pool0
I0426 20:49:14.257586 31477 net.cpp:86] Creating Layer pool0
I0426 20:49:14.257589 31477 net.cpp:408] pool0 <- conv0
I0426 20:49:14.257596 31477 net.cpp:382] pool0 -> pool0
I0426 20:49:14.257645 31477 net.cpp:124] Setting up pool0
I0426 20:49:14.257652 31477 net.cpp:131] Top shape: 64 25 12 12 (230400)
I0426 20:49:14.257655 31477 net.cpp:139] Memory required for data: 4808960
I0426 20:49:14.257674 31477 layer_factory.hpp:77] Creating layer ip1
I0426 20:49:14.257686 31477 net.cpp:86] Creating Layer ip1
I0426 20:49:14.257690 31477 net.cpp:408] ip1 <- pool0
I0426 20:49:14.257695 31477 net.cpp:382] ip1 -> ip1
I0426 20:49:14.260514 31477 net.cpp:124] Setting up ip1
I0426 20:49:14.260526 31477 net.cpp:131] Top shape: 64 100 (6400)
I0426 20:49:14.260529 31477 net.cpp:139] Memory required for data: 4834560
I0426 20:49:14.260537 31477 layer_factory.hpp:77] Creating layer relu1
I0426 20:49:14.260545 31477 net.cpp:86] Creating Layer relu1
I0426 20:49:14.260550 31477 net.cpp:408] relu1 <- ip1
I0426 20:49:14.260555 31477 net.cpp:369] relu1 -> ip1 (in-place)
I0426 20:49:14.260717 31477 net.cpp:124] Setting up relu1
I0426 20:49:14.260726 31477 net.cpp:131] Top shape: 64 100 (6400)
I0426 20:49:14.260730 31477 net.cpp:139] Memory required for data: 4860160
I0426 20:49:14.260733 31477 layer_factory.hpp:77] Creating layer ip2
I0426 20:49:14.260740 31477 net.cpp:86] Creating Layer ip2
I0426 20:49:14.260743 31477 net.cpp:408] ip2 <- ip1
I0426 20:49:14.260748 31477 net.cpp:382] ip2 -> ip2
I0426 20:49:14.260910 31477 net.cpp:124] Setting up ip2
I0426 20:49:14.260922 31477 net.cpp:131] Top shape: 64 10 (640)
I0426 20:49:14.260927 31477 net.cpp:139] Memory required for data: 4862720
I0426 20:49:14.260938 31477 layer_factory.hpp:77] Creating layer relu2
I0426 20:49:14.260946 31477 net.cpp:86] Creating Layer relu2
I0426 20:49:14.260951 31477 net.cpp:408] relu2 <- ip2
I0426 20:49:14.260957 31477 net.cpp:369] relu2 -> ip2 (in-place)
I0426 20:49:14.261844 31477 net.cpp:124] Setting up relu2
I0426 20:49:14.261857 31477 net.cpp:131] Top shape: 64 10 (640)
I0426 20:49:14.261860 31477 net.cpp:139] Memory required for data: 4865280
I0426 20:49:14.261863 31477 layer_factory.hpp:77] Creating layer loss
I0426 20:49:14.261869 31477 net.cpp:86] Creating Layer loss
I0426 20:49:14.261873 31477 net.cpp:408] loss <- ip2
I0426 20:49:14.261876 31477 net.cpp:408] loss <- label
I0426 20:49:14.261883 31477 net.cpp:382] loss -> loss
I0426 20:49:14.261901 31477 layer_factory.hpp:77] Creating layer loss
…
I0426 20:49:14.262415 31477 solver.cpp:173] Creating test net (#0) specified by net file: ECE595/mnist/train_test/var_everything/lenet_train_test30.prototxt
I0426 20:49:14.262439 31477 net.cpp:296] The NetState phase (1) differed from the phase (0) specified by a rule in layer mnist
I0426 20:49:14.262507 31477 net.cpp:53] Initializing net from parameters: 
name: "LeNet"
state {
  phase: TEST
}
layer {
  name: "mnist"
  type: "Data"
  top: "data"
  top: "label"
  include {
    phase: TEST
  }
  transform_param {
    scale: 0.00390625
  }
  data_param {
    source: "examples/mnist/mnist_test_lmdb"
    batch_size: 100
    backend: LMDB
  }
}
layer {
  name: "conv0"
  type: "Convolution"
  bottom: "data"
  top: "conv0"
  param {
    lr_mult: 1
  }
  param {
    lr_mult: 2
  }
  convolution_param {
    num_output: 25
    kernel_size: 5
    stride: 1
    weight_filler {
      type: "xavier"
    }
    bias_filler {
      type: "constant"
    }
  }
}
layer {
  name: "pool0"
  type: "Pooling"
  bottom: "conv0"
  top: "pool0"
  pooling_param {
    pool: MAX
    kernel_size: 2
    stride: 2
  }
}
layer {
  name: "ip1"
  type: "InnerProduct"
  bottom: "pool0"
  top: "ip1"
  param {
    lr_mult: 1
  }
  param {
    lr_mult: 2
  }
  inner_product_param {
    num_output: 100
    weight_filler {
      type: "xavier"
    }
    bias_filler {
      type: "constant"
    }
  }
}
layer {
  name: "relu1"
  type: "ReLU"
  bottom: "ip1"
  top: "ip1"
}
layer {
  name: "ip2"
  type: "InnerProduct"
  bottom: "ip1"
  top: "ip2"
  param {
    lr_mult: 1
  }
  param {
    lr_mult: 2
  }
  inner_product_param {
    num_output: 10
    weight_filler {
      type: "xavier"
    }
    bias_filler {
      type: "constant"
    }
  }
}
layer {
  name: "relu2"
  type: "ReLU"
  bottom: "ip2"
  top: "ip2"
}
layer {
  name: "accuracy"
  type: "Accuracy"
  bottom: "ip2"
  bottom: "label"
  top: "accuracy"
  include {
    phase: TEST
  }
}
layer {
  name: "loss"
  type: "SoftmaxWithLoss"
  bottom: "ip2"
  bottom: "label"
  top: "loss"
}
I0426 20:49:14.262573 31477 layer_factory.hpp:77] Creating layer mnist
I0426 20:49:14.262614 31477 db_lmdb.cpp:35] Opened lmdb examples/mnist/mnist_test_lmdb
I0426 20:49:14.262629 31477 net.cpp:86] Creating Layer mnist
I0426 20:49:14.262634 31477 net.cpp:382] mnist -> data
I0426 20:49:14.262640 31477 net.cpp:382] mnist -> label
I0426 20:49:14.262718 31477 data_layer.cpp:45] output data size: 100,1,28,28
I0426 20:49:14.264587 31477 net.cpp:124] Setting up mnist
I0426 20:49:14.264600 31477 net.cpp:131] Top shape: 100 1 28 28 (78400)
I0426 20:49:14.264605 31477 net.cpp:131] Top shape: 100 (100)
I0426 20:49:14.264607 31477 net.cpp:139] Memory required for data: 314000
I0426 20:49:14.264611 31477 layer_factory.hpp:77] Creating layer label_mnist_1_split
I0426 20:49:14.264621 31477 net.cpp:86] Creating Layer label_mnist_1_split
I0426 20:49:14.264623 31477 net.cpp:408] label_mnist_1_split <- label
I0426 20:49:14.264628 31477 net.cpp:382] label_mnist_1_split -> label_mnist_1_split_0
I0426 20:49:14.264634 31477 net.cpp:382] label_mnist_1_split -> label_mnist_1_split_1
I0426 20:49:14.264669 31477 net.cpp:124] Setting up label_mnist_1_split
I0426 20:49:14.264673 31477 net.cpp:131] Top shape: 100 (100)
I0426 20:49:14.264678 31477 net.cpp:131] Top shape: 100 (100)
I0426 20:49:14.264680 31477 net.cpp:139] Memory required for data: 314800
I0426 20:49:14.264683 31477 layer_factory.hpp:77] Creating layer conv0
I0426 20:49:14.264690 31477 net.cpp:86] Creating Layer conv0
I0426 20:49:14.264693 31477 net.cpp:408] conv0 <- data
I0426 20:49:14.264698 31477 net.cpp:382] conv0 -> conv0
I0426 20:49:14.266441 31477 net.cpp:124] Setting up conv0
I0426 20:49:14.266455 31477 net.cpp:131] Top shape: 100 25 24 24 (1440000)
I0426 20:49:14.266458 31477 net.cpp:139] Memory required for data: 6074800
I0426 20:49:14.266466 31477 layer_factory.hpp:77] Creating layer pool0
I0426 20:49:14.266474 31477 net.cpp:86] Creating Layer pool0
I0426 20:49:14.266476 31477 net.cpp:408] pool0 <- conv0
I0426 20:49:14.266481 31477 net.cpp:382] pool0 -> pool0
I0426 20:49:14.266515 31477 net.cpp:124] Setting up pool0
I0426 20:49:14.266520 31477 net.cpp:131] Top shape: 100 25 12 12 (360000)
I0426 20:49:14.266522 31477 net.cpp:139] Memory required for data: 7514800
I0426 20:49:14.266525 31477 layer_factory.hpp:77] Creating layer ip1
I0426 20:49:14.266531 31477 net.cpp:86] Creating Layer ip1
I0426 20:49:14.266535 31477 net.cpp:408] ip1 <- pool0
I0426 20:49:14.266553 31477 net.cpp:382] ip1 -> ip1
I0426 20:49:14.268554 31477 net.cpp:124] Setting up ip1
I0426 20:49:14.268563 31477 net.cpp:131] Top shape: 100 100 (10000)
I0426 20:49:14.268565 31477 net.cpp:139] Memory required for data: 7554800
I0426 20:49:14.268573 31477 layer_factory.hpp:77] Creating layer relu1
I0426 20:49:14.268576 31477 net.cpp:86] Creating Layer relu1
I0426 20:49:14.268579 31477 net.cpp:408] relu1 <- ip1
I0426 20:49:14.268584 31477 net.cpp:369] relu1 -> ip1 (in-place)
I0426 20:49:14.268752 31477 net.cpp:124] Setting up relu1
I0426 20:49:14.268761 31477 net.cpp:131] Top shape: 100 100 (10000)
I0426 20:49:14.268775 31477 net.cpp:139] Memory required for data: 7594800
I0426 20:49:14.268779 31477 layer_factory.hpp:77] Creating layer ip2
I0426 20:49:14.268784 31477 net.cpp:86] Creating Layer ip2
I0426 20:49:14.268787 31477 net.cpp:408] ip2 <- ip1
I0426 20:49:14.268793 31477 net.cpp:382] ip2 -> ip2
I0426 20:49:14.268954 31477 net.cpp:124] Setting up ip2
I0426 20:49:14.268962 31477 net.cpp:131] Top shape: 100 10 (1000)
I0426 20:49:14.268965 31477 net.cpp:139] Memory required for data: 7598800
I0426 20:49:14.268973 31477 layer_factory.hpp:77] Creating layer relu2
I0426 20:49:14.268978 31477 net.cpp:86] Creating Layer relu2
I0426 20:49:14.268981 31477 net.cpp:408] relu2 <- ip2
I0426 20:49:14.268986 31477 net.cpp:369] relu2 -> ip2 (in-place)
I0426 20:49:14.269158 31477 net.cpp:124] Setting up relu2
I0426 20:49:14.269167 31477 net.cpp:131] Top shape: 100 10 (1000)
I0426 20:49:14.269184 31477 net.cpp:139] Memory required for data: 7602800
I0426 20:49:14.269187 31477 layer_factory.hpp:77] Creating layer ip2_relu2_0_split
I0426 20:49:14.269193 31477 net.cpp:86] Creating Layer ip2_relu2_0_split
I0426 20:49:14.269196 31477 net.cpp:408] ip2_relu2_0_split <- ip2
I0426 20:49:14.269201 31477 net.cpp:382] ip2_relu2_0_split -> ip2_relu2_0_split_0
I0426 20:49:14.269208 31477 net.cpp:382] ip2_relu2_0_split -> ip2_relu2_0_split_1
I0426 20:49:14.269263 31477 net.cpp:124] Setting up ip2_relu2_0_split
I0426 20:49:14.269269 31477 net.cpp:131] Top shape: 100 10 (1000)
I0426 20:49:14.269273 31477 net.cpp:131] Top shape: 100 10 (1000)
I0426 20:49:14.269275 31477 net.cpp:139] Memory required for data: 7610800
I0426 20:49:14.269279 31477 layer_factory.hpp:77] Creating layer accuracy
I0426 20:49:14.269284 31477 net.cpp:86] Creating Layer accuracy
I0426 20:49:14.269286 31477 net.cpp:408] accuracy <- ip2_relu2_0_split_0
I0426 20:49:14.269291 31477 net.cpp:408] accuracy <- label_mnist_1_split_0
I0426 20:49:14.269295 31477 net.cpp:382] accuracy -> accuracy
…
