…
I0426 20:51:51.976640 32069 net.cpp:296] The NetState phase (0) differed from the phase (1) specified by a rule in layer mnist
I0426 20:51:51.976660 32069 net.cpp:296] The NetState phase (0) differed from the phase (1) specified by a rule in layer accuracy
I0426 20:51:51.976763 32069 net.cpp:53] Initializing net from parameters: 
name: "LeNet"
state {
  phase: TRAIN
  level: 0
  stage: ""
}
layer {
  name: "mnist"
  type: "Data"
  top: "data"
  top: "label"
  include {
    phase: TRAIN
  }
  transform_param {
    scale: 0.00390625
  }
  data_param {
    source: "examples/mnist/mnist_train_lmdb"
    batch_size: 64
    backend: LMDB
  }
}
layer {
  name: "conv0"
  type: "Convolution"
  bottom: "data"
  top: "conv0"
  param {
    lr_mult: 1
  }
  param {
    lr_mult: 2
  }
  convolution_param {
    num_output: 10
    kernel_size: 5
    stride: 1
    weight_filler {
      type: "xavier"
    }
    bias_filler {
      type: "constant"
    }
  }
}
layer {
  name: "pool0"
  type: "Pooling"
  bottom: "conv0"
  top: "pool0"
  pooling_param {
    pool: MAX
    kernel_size: 2
    stride: 2
  }
}
layer {
  name: "conv1"
  type: "Convolution"
  bottom: "pool0"
  top: "conv1"
  param {
    lr_mult: 1
  }
  param {
    lr_mult: 2
  }
  convolution_param {
    num_output: 50
    kernel_size: 5
    stride: 1
    weight_filler {
      type: "xavier"
    }
    bias_filler {
      type: "constant"
    }
  }
}
layer {
  name: "pool1"
  type: "Pooling"
  bottom: "conv1"
  top: "pool1"
  pooling_param {
    pool: MAX
    kernel_size: 2
    stride: 2
  }
}
layer {
  name: "ip1"
  type: "InnerProduct"
  bottom: "pool1"
  top: "ip1"
  param {
    lr_mult: 1
  }
  param {
    lr_mult: 2
  }
  inner_product_param {
    num_output: 300
    weight_filler {
      type: "xavier"
    }
    bias_filler {
      type: "constant"
    }
  }
}
layer {
  name: "relu1"
  type: "ReLU"
  bottom: "ip1"
  top: "ip1"
}
layer {
  name: "ip2"
  type: "InnerProduct"
  bottom: "ip1"
  top: "ip2"
  param {
    lr_mult: 1
  }
  param {
    lr_mult: 2
  }
  inner_product_param {
    num_output: 300
    weight_filler {
      type: "xavier"
    }
    bias_filler {
      type: "constant"
    }
  }
}
layer {
  name: "relu2"
  type: "ReLU"
  bottom: "ip2"
  top: "ip2"
}
layer {
  name: "ip3"
  type: "InnerProduct"
  bottom: "ip2"
  top: "ip3"
  param {
    lr_mult: 1
  }
  param {
    lr_mult: 2
  }
  inner_product_param {
    num_output: 10
    weight_filler {
      type: "xavier"
    }
    bias_filler {
      type: "constant"
    }
  }
}
layer {
  name: "relu3"
  type: "ReLU"
  bottom: "ip3"
  top: "ip3"
}
layer {
  name: "loss"
  type: "SoftmaxWithLoss"
  bottom: "ip3"
  bottom: "label"
  top: "loss"
}
I0426 20:51:51.976852 32069 layer_factory.hpp:77] Creating layer mnist
I0426 20:51:51.976951 32069 db_lmdb.cpp:35] Opened lmdb examples/mnist/mnist_train_lmdb
I0426 20:51:51.976979 32069 net.cpp:86] Creating Layer mnist
I0426 20:51:51.976987 32069 net.cpp:382] mnist -> data
I0426 20:51:51.977010 32069 net.cpp:382] mnist -> label
I0426 20:51:51.978127 32069 data_layer.cpp:45] output data size: 64,1,28,28
I0426 20:51:51.980648 32069 net.cpp:124] Setting up mnist
I0426 20:51:51.980664 32069 net.cpp:131] Top shape: 64 1 28 28 (50176)
I0426 20:51:51.980672 32069 net.cpp:131] Top shape: 64 (64)
I0426 20:51:51.980676 32069 net.cpp:139] Memory required for data: 200960
I0426 20:51:51.980684 32069 layer_factory.hpp:77] Creating layer conv0
I0426 20:51:51.980698 32069 net.cpp:86] Creating Layer conv0
I0426 20:51:51.980720 32069 net.cpp:408] conv0 <- data
I0426 20:51:51.980733 32069 net.cpp:382] conv0 -> conv0
I0426 20:51:52.273079 32069 net.cpp:124] Setting up conv0
I0426 20:51:52.273110 32069 net.cpp:131] Top shape: 64 10 24 24 (368640)
I0426 20:51:52.273115 32069 net.cpp:139] Memory required for data: 1675520
I0426 20:51:52.273134 32069 layer_factory.hpp:77] Creating layer pool0
I0426 20:51:52.273149 32069 net.cpp:86] Creating Layer pool0
I0426 20:51:52.273154 32069 net.cpp:408] pool0 <- conv0
I0426 20:51:52.273161 32069 net.cpp:382] pool0 -> pool0
I0426 20:51:52.273218 32069 net.cpp:124] Setting up pool0
I0426 20:51:52.273227 32069 net.cpp:131] Top shape: 64 10 12 12 (92160)
I0426 20:51:52.273231 32069 net.cpp:139] Memory required for data: 2044160
I0426 20:51:52.273234 32069 layer_factory.hpp:77] Creating layer conv1
I0426 20:51:52.273247 32069 net.cpp:86] Creating Layer conv1
I0426 20:51:52.273253 32069 net.cpp:408] conv1 <- pool0
I0426 20:51:52.273259 32069 net.cpp:382] conv1 -> conv1
I0426 20:51:52.276618 32069 net.cpp:124] Setting up conv1
I0426 20:51:52.276636 32069 net.cpp:131] Top shape: 64 50 8 8 (204800)
I0426 20:51:52.276640 32069 net.cpp:139] Memory required for data: 2863360
I0426 20:51:52.276651 32069 layer_factory.hpp:77] Creating layer pool1
I0426 20:51:52.276661 32069 net.cpp:86] Creating Layer pool1
I0426 20:51:52.276665 32069 net.cpp:408] pool1 <- conv1
I0426 20:51:52.276672 32069 net.cpp:382] pool1 -> pool1
I0426 20:51:52.276718 32069 net.cpp:124] Setting up pool1
I0426 20:51:52.276727 32069 net.cpp:131] Top shape: 64 50 4 4 (51200)
I0426 20:51:52.276731 32069 net.cpp:139] Memory required for data: 3068160
I0426 20:51:52.276734 32069 layer_factory.hpp:77] Creating layer ip1
I0426 20:51:52.276742 32069 net.cpp:86] Creating Layer ip1
I0426 20:51:52.276746 32069 net.cpp:408] ip1 <- pool1
I0426 20:51:52.276752 32069 net.cpp:382] ip1 -> ip1
I0426 20:51:52.279431 32069 net.cpp:124] Setting up ip1
I0426 20:51:52.279448 32069 net.cpp:131] Top shape: 64 300 (19200)
I0426 20:51:52.279451 32069 net.cpp:139] Memory required for data: 3144960
I0426 20:51:52.279462 32069 layer_factory.hpp:77] Creating layer relu1
I0426 20:51:52.279469 32069 net.cpp:86] Creating Layer relu1
I0426 20:51:52.279474 32069 net.cpp:408] relu1 <- ip1
I0426 20:51:52.279480 32069 net.cpp:369] relu1 -> ip1 (in-place)
I0426 20:51:52.279683 32069 net.cpp:124] Setting up relu1
I0426 20:51:52.279693 32069 net.cpp:131] Top shape: 64 300 (19200)
I0426 20:51:52.279697 32069 net.cpp:139] Memory required for data: 3221760
I0426 20:51:52.279701 32069 layer_factory.hpp:77] Creating layer ip2
I0426 20:51:52.279709 32069 net.cpp:86] Creating Layer ip2
I0426 20:51:52.279713 32069 net.cpp:408] ip2 <- ip1
I0426 20:51:52.279719 32069 net.cpp:382] ip2 -> ip2
I0426 20:51:52.280433 32069 net.cpp:124] Setting up ip2
I0426 20:51:52.280442 32069 net.cpp:131] Top shape: 64 300 (19200)
I0426 20:51:52.280447 32069 net.cpp:139] Memory required for data: 3298560
I0426 20:51:52.280452 32069 layer_factory.hpp:77] Creating layer relu2
I0426 20:51:52.280459 32069 net.cpp:86] Creating Layer relu2
I0426 20:51:52.280463 32069 net.cpp:408] relu2 <- ip2
I0426 20:51:52.280469 32069 net.cpp:369] relu2 -> ip2 (in-place)
I0426 20:51:52.281420 32069 net.cpp:124] Setting up relu2
I0426 20:51:52.281436 32069 net.cpp:131] Top shape: 64 300 (19200)
I0426 20:51:52.281440 32069 net.cpp:139] Memory required for data: 3375360
I0426 20:51:52.281445 32069 layer_factory.hpp:77] Creating layer ip3
I0426 20:51:52.281452 32069 net.cpp:86] Creating Layer ip3
I0426 20:51:52.281456 32069 net.cpp:408] ip3 <- ip2
I0426 20:51:52.281463 32069 net.cpp:382] ip3 -> ip3
I0426 20:51:52.282559 32069 net.cpp:124] Setting up ip3
I0426 20:51:52.282574 32069 net.cpp:131] Top shape: 64 10 (640)
I0426 20:51:52.282578 32069 net.cpp:139] Memory required for data: 3377920
I0426 20:51:52.282589 32069 layer_factory.hpp:77] Creating layer relu3
I0426 20:51:52.282596 32069 net.cpp:86] Creating Layer relu3
I0426 20:51:52.282600 32069 net.cpp:408] relu3 <- ip3
I0426 20:51:52.282606 32069 net.cpp:369] relu3 -> ip3 (in-place)
I0426 20:51:52.282814 32069 net.cpp:124] Setting up relu3
I0426 20:51:52.282824 32069 net.cpp:131] Top shape: 64 10 (640)
I0426 20:51:52.282829 32069 net.cpp:139] Memory required for data: 3380480
I0426 20:51:52.282832 32069 layer_factory.hpp:77] Creating layer loss
I0426 20:51:52.282840 32069 net.cpp:86] Creating Layer loss
I0426 20:51:52.282843 32069 net.cpp:408] loss <- ip3
I0426 20:51:52.282848 32069 net.cpp:408] loss <- label
I0426 20:51:52.282855 32069 net.cpp:382] loss -> loss
I0426 20:51:52.282877 32069 layer_factory.hpp:77] Creating layer loss
…
I0426 20:51:52.283624 32069 solver.cpp:173] Creating test net (#0) specified by net file: ECE595/mnist/train_test/var_everything/lenet_train_test97.prototxt
I0426 20:51:52.283656 32069 net.cpp:296] The NetState phase (1) differed from the phase (0) specified by a rule in layer mnist
I0426 20:51:52.283766 32069 net.cpp:53] Initializing net from parameters: 
name: "LeNet"
state {
  phase: TEST
}
layer {
  name: "mnist"
  type: "Data"
  top: "data"
  top: "label"
  include {
    phase: TEST
  }
  transform_param {
    scale: 0.00390625
  }
  data_param {
    source: "examples/mnist/mnist_test_lmdb"
    batch_size: 100
    backend: LMDB
  }
}
layer {
  name: "conv0"
  type: "Convolution"
  bottom: "data"
  top: "conv0"
  param {
    lr_mult: 1
  }
  param {
    lr_mult: 2
  }
  convolution_param {
    num_output: 10
    kernel_size: 5
    stride: 1
    weight_filler {
      type: "xavier"
    }
    bias_filler {
      type: "constant"
    }
  }
}
layer {
  name: "pool0"
  type: "Pooling"
  bottom: "conv0"
  top: "pool0"
  pooling_param {
    pool: MAX
    kernel_size: 2
    stride: 2
  }
}
layer {
  name: "conv1"
  type: "Convolution"
  bottom: "pool0"
  top: "conv1"
  param {
    lr_mult: 1
  }
  param {
    lr_mult: 2
  }
  convolution_param {
    num_output: 50
    kernel_size: 5
    stride: 1
    weight_filler {
      type: "xavier"
    }
    bias_filler {
      type: "constant"
    }
  }
}
layer {
  name: "pool1"
  type: "Pooling"
  bottom: "conv1"
  top: "pool1"
  pooling_param {
    pool: MAX
    kernel_size: 2
    stride: 2
  }
}
layer {
  name: "ip1"
  type: "InnerProduct"
  bottom: "pool1"
  top: "ip1"
  param {
    lr_mult: 1
  }
  param {
    lr_mult: 2
  }
  inner_product_param {
    num_output: 300
    weight_filler {
      type: "xavier"
    }
    bias_filler {
      type: "constant"
    }
  }
}
layer {
  name: "relu1"
  type: "ReLU"
  bottom: "ip1"
  top: "ip1"
}
layer {
  name: "ip2"
  type: "InnerProduct"
  bottom: "ip1"
  top: "ip2"
  param {
    lr_mult: 1
  }
  param {
    lr_mult: 2
  }
  inner_product_param {
    num_output: 300
    weight_filler {
      type: "xavier"
    }
    bias_filler {
      type: "constant"
    }
  }
}
layer {
  name: "relu2"
  type: "ReLU"
  bottom: "ip2"
  top: "ip2"
}
layer {
  name: "ip3"
  type: "InnerProduct"
  bottom: "ip2"
  top: "ip3"
  param {
    lr_mult: 1
  }
  param {
    lr_mult: 2
  }
  inner_product_param {
    num_output: 10
    weight_filler {
      type: "xavier"
    }
    bias_filler {
      type: "constant"
    }
  }
}
layer {
  name: "relu3"
  type: "ReLU"
  bottom: "ip3"
  top: "ip3"
}
layer {
  name: "accuracy"
  type: "Accuracy"
  bottom: "ip3"
  bottom: "label"
  top: "accuracy"
  include {
    phase: TEST
  }
}
layer {
  name: "loss"
  type: "SoftmaxWithLoss"
  bottom: "ip3"
  bottom: "label"
  top: "loss"
}
I0426 20:51:52.283859 32069 layer_factory.hpp:77] Creating layer mnist
I0426 20:51:52.283915 32069 db_lmdb.cpp:35] Opened lmdb examples/mnist/mnist_test_lmdb
I0426 20:51:52.283928 32069 net.cpp:86] Creating Layer mnist
I0426 20:51:52.283934 32069 net.cpp:382] mnist -> data
I0426 20:51:52.283944 32069 net.cpp:382] mnist -> label
I0426 20:51:52.284049 32069 data_layer.cpp:45] output data size: 100,1,28,28
I0426 20:51:52.286357 32069 net.cpp:124] Setting up mnist
I0426 20:51:52.286373 32069 net.cpp:131] Top shape: 100 1 28 28 (78400)
I0426 20:51:52.286379 32069 net.cpp:131] Top shape: 100 (100)
I0426 20:51:52.286383 32069 net.cpp:139] Memory required for data: 314000
I0426 20:51:52.286387 32069 layer_factory.hpp:77] Creating layer label_mnist_1_split
I0426 20:51:52.286424 32069 net.cpp:86] Creating Layer label_mnist_1_split
I0426 20:51:52.286429 32069 net.cpp:408] label_mnist_1_split <- label
I0426 20:51:52.286437 32069 net.cpp:382] label_mnist_1_split -> label_mnist_1_split_0
I0426 20:51:52.286447 32069 net.cpp:382] label_mnist_1_split -> label_mnist_1_split_1
I0426 20:51:52.286505 32069 net.cpp:124] Setting up label_mnist_1_split
I0426 20:51:52.286514 32069 net.cpp:131] Top shape: 100 (100)
I0426 20:51:52.286519 32069 net.cpp:131] Top shape: 100 (100)
I0426 20:51:52.286522 32069 net.cpp:139] Memory required for data: 314800
I0426 20:51:52.286525 32069 layer_factory.hpp:77] Creating layer conv0
I0426 20:51:52.286536 32069 net.cpp:86] Creating Layer conv0
I0426 20:51:52.286540 32069 net.cpp:408] conv0 <- data
I0426 20:51:52.286548 32069 net.cpp:382] conv0 -> conv0
I0426 20:51:52.288610 32069 net.cpp:124] Setting up conv0
I0426 20:51:52.288630 32069 net.cpp:131] Top shape: 100 10 24 24 (576000)
I0426 20:51:52.288633 32069 net.cpp:139] Memory required for data: 2618800
I0426 20:51:52.288645 32069 layer_factory.hpp:77] Creating layer pool0
I0426 20:51:52.288652 32069 net.cpp:86] Creating Layer pool0
I0426 20:51:52.288656 32069 net.cpp:408] pool0 <- conv0
I0426 20:51:52.288663 32069 net.cpp:382] pool0 -> pool0
I0426 20:51:52.288708 32069 net.cpp:124] Setting up pool0
I0426 20:51:52.288717 32069 net.cpp:131] Top shape: 100 10 12 12 (144000)
I0426 20:51:52.288720 32069 net.cpp:139] Memory required for data: 3194800
I0426 20:51:52.288724 32069 layer_factory.hpp:77] Creating layer conv1
I0426 20:51:52.288739 32069 net.cpp:86] Creating Layer conv1
I0426 20:51:52.288745 32069 net.cpp:408] conv1 <- pool0
I0426 20:51:52.288751 32069 net.cpp:382] conv1 -> conv1
I0426 20:51:52.290701 32069 net.cpp:124] Setting up conv1
I0426 20:51:52.290717 32069 net.cpp:131] Top shape: 100 50 8 8 (320000)
I0426 20:51:52.290721 32069 net.cpp:139] Memory required for data: 4474800
I0426 20:51:52.290733 32069 layer_factory.hpp:77] Creating layer pool1
I0426 20:51:52.290742 32069 net.cpp:86] Creating Layer pool1
I0426 20:51:52.290747 32069 net.cpp:408] pool1 <- conv1
I0426 20:51:52.290753 32069 net.cpp:382] pool1 -> pool1
I0426 20:51:52.290798 32069 net.cpp:124] Setting up pool1
I0426 20:51:52.290807 32069 net.cpp:131] Top shape: 100 50 4 4 (80000)
I0426 20:51:52.290812 32069 net.cpp:139] Memory required for data: 4794800
I0426 20:51:52.290815 32069 layer_factory.hpp:77] Creating layer ip1
I0426 20:51:52.290822 32069 net.cpp:86] Creating Layer ip1
I0426 20:51:52.290827 32069 net.cpp:408] ip1 <- pool1
I0426 20:51:52.290833 32069 net.cpp:382] ip1 -> ip1
I0426 20:51:52.292596 32069 net.cpp:124] Setting up ip1
I0426 20:51:52.292608 32069 net.cpp:131] Top shape: 100 300 (30000)
I0426 20:51:52.292623 32069 net.cpp:139] Memory required for data: 4914800
I0426 20:51:52.292632 32069 layer_factory.hpp:77] Creating layer relu1
I0426 20:51:52.292639 32069 net.cpp:86] Creating Layer relu1
I0426 20:51:52.292644 32069 net.cpp:408] relu1 <- ip1
I0426 20:51:52.292651 32069 net.cpp:369] relu1 -> ip1 (in-place)
I0426 20:51:52.292858 32069 net.cpp:124] Setting up relu1
I0426 20:51:52.292870 32069 net.cpp:131] Top shape: 100 300 (30000)
I0426 20:51:52.292875 32069 net.cpp:139] Memory required for data: 5034800
I0426 20:51:52.292878 32069 layer_factory.hpp:77] Creating layer ip2
I0426 20:51:52.292888 32069 net.cpp:86] Creating Layer ip2
I0426 20:51:52.292892 32069 net.cpp:408] ip2 <- ip1
I0426 20:51:52.292898 32069 net.cpp:382] ip2 -> ip2
I0426 20:51:52.293623 32069 net.cpp:124] Setting up ip2
I0426 20:51:52.293632 32069 net.cpp:131] Top shape: 100 300 (30000)
I0426 20:51:52.293635 32069 net.cpp:139] Memory required for data: 5154800
I0426 20:51:52.293642 32069 layer_factory.hpp:77] Creating layer relu2
I0426 20:51:52.293648 32069 net.cpp:86] Creating Layer relu2
I0426 20:51:52.293651 32069 net.cpp:408] relu2 <- ip2
I0426 20:51:52.293656 32069 net.cpp:369] relu2 -> ip2 (in-place)
I0426 20:51:52.293846 32069 net.cpp:124] Setting up relu2
I0426 20:51:52.293858 32069 net.cpp:131] Top shape: 100 300 (30000)
I0426 20:51:52.293861 32069 net.cpp:139] Memory required for data: 5274800
I0426 20:51:52.293865 32069 layer_factory.hpp:77] Creating layer ip3
I0426 20:51:52.293871 32069 net.cpp:86] Creating Layer ip3
I0426 20:51:52.293875 32069 net.cpp:408] ip3 <- ip2
I0426 20:51:52.293882 32069 net.cpp:382] ip3 -> ip3
I0426 20:51:52.294039 32069 net.cpp:124] Setting up ip3
I0426 20:51:52.294047 32069 net.cpp:131] Top shape: 100 10 (1000)
I0426 20:51:52.294050 32069 net.cpp:139] Memory required for data: 5278800
I0426 20:51:52.294059 32069 layer_factory.hpp:77] Creating layer relu3
I0426 20:51:52.294066 32069 net.cpp:86] Creating Layer relu3
I0426 20:51:52.294070 32069 net.cpp:408] relu3 <- ip3
I0426 20:51:52.294075 32069 net.cpp:369] relu3 -> ip3 (in-place)
I0426 20:51:52.295052 32069 net.cpp:124] Setting up relu3
I0426 20:51:52.295066 32069 net.cpp:131] Top shape: 100 10 (1000)
I0426 20:51:52.295070 32069 net.cpp:139] Memory required for data: 5282800
I0426 20:51:52.295073 32069 layer_factory.hpp:77] Creating layer ip3_relu3_0_split
I0426 20:51:52.295080 32069 net.cpp:86] Creating Layer ip3_relu3_0_split
I0426 20:51:52.295083 32069 net.cpp:408] ip3_relu3_0_split <- ip3
I0426 20:51:52.295091 32069 net.cpp:382] ip3_relu3_0_split -> ip3_relu3_0_split_0
I0426 20:51:52.295099 32069 net.cpp:382] ip3_relu3_0_split -> ip3_relu3_0_split_1
I0426 20:51:52.295145 32069 net.cpp:124] Setting up ip3_relu3_0_split
I0426 20:51:52.295153 32069 net.cpp:131] Top shape: 100 10 (1000)
I0426 20:51:52.295157 32069 net.cpp:131] Top shape: 100 10 (1000)
I0426 20:51:52.295161 32069 net.cpp:139] Memory required for data: 5290800
I0426 20:51:52.295164 32069 layer_factory.hpp:77] Creating layer accuracy
I0426 20:51:52.295169 32069 net.cpp:86] Creating Layer accuracy
I0426 20:51:52.295173 32069 net.cpp:408] accuracy <- ip3_relu3_0_split_0
I0426 20:51:52.295178 32069 net.cpp:408] accuracy <- label_mnist_1_split_0
I0426 20:51:52.295186 32069 net.cpp:382] accuracy -> accuracy
…
