…
I0426 20:51:54.627547 32077 net.cpp:296] The NetState phase (0) differed from the phase (1) specified by a rule in layer mnist
I0426 20:51:54.627562 32077 net.cpp:296] The NetState phase (0) differed from the phase (1) specified by a rule in layer accuracy
I0426 20:51:54.627641 32077 net.cpp:53] Initializing net from parameters: 
name: "LeNet"
state {
  phase: TRAIN
  level: 0
  stage: ""
}
layer {
  name: "mnist"
  type: "Data"
  top: "data"
  top: "label"
  include {
    phase: TRAIN
  }
  transform_param {
    scale: 0.00390625
  }
  data_param {
    source: "examples/mnist/mnist_train_lmdb"
    batch_size: 64
    backend: LMDB
  }
}
layer {
  name: "conv0"
  type: "Convolution"
  bottom: "data"
  top: "conv0"
  param {
    lr_mult: 1
  }
  param {
    lr_mult: 2
  }
  convolution_param {
    num_output: 25
    kernel_size: 5
    stride: 1
    weight_filler {
      type: "xavier"
    }
    bias_filler {
      type: "constant"
    }
  }
}
layer {
  name: "pool0"
  type: "Pooling"
  bottom: "conv0"
  top: "pool0"
  pooling_param {
    pool: MAX
    kernel_size: 2
    stride: 2
  }
}
layer {
  name: "conv1"
  type: "Convolution"
  bottom: "pool0"
  top: "conv1"
  param {
    lr_mult: 1
  }
  param {
    lr_mult: 2
  }
  convolution_param {
    num_output: 10
    kernel_size: 5
    stride: 1
    weight_filler {
      type: "xavier"
    }
    bias_filler {
      type: "constant"
    }
  }
}
layer {
  name: "pool1"
  type: "Pooling"
  bottom: "conv1"
  top: "pool1"
  pooling_param {
    pool: MAX
    kernel_size: 2
    stride: 2
  }
}
layer {
  name: "ip1"
  type: "InnerProduct"
  bottom: "pool1"
  top: "ip1"
  param {
    lr_mult: 1
  }
  param {
    lr_mult: 2
  }
  inner_product_param {
    num_output: 10
    weight_filler {
      type: "xavier"
    }
    bias_filler {
      type: "constant"
    }
  }
}
layer {
  name: "relu1"
  type: "ReLU"
  bottom: "ip1"
  top: "ip1"
}
layer {
  name: "loss"
  type: "SoftmaxWithLoss"
  bottom: "ip1"
  bottom: "label"
  top: "loss"
}
I0426 20:51:54.627712 32077 layer_factory.hpp:77] Creating layer mnist
I0426 20:51:54.627822 32077 db_lmdb.cpp:35] Opened lmdb examples/mnist/mnist_train_lmdb
I0426 20:51:54.627848 32077 net.cpp:86] Creating Layer mnist
I0426 20:51:54.627857 32077 net.cpp:382] mnist -> data
I0426 20:51:54.627882 32077 net.cpp:382] mnist -> label
I0426 20:51:54.629029 32077 data_layer.cpp:45] output data size: 64,1,28,28
I0426 20:51:54.631551 32077 net.cpp:124] Setting up mnist
I0426 20:51:54.631570 32077 net.cpp:131] Top shape: 64 1 28 28 (50176)
I0426 20:51:54.631577 32077 net.cpp:131] Top shape: 64 (64)
I0426 20:51:54.631580 32077 net.cpp:139] Memory required for data: 200960
I0426 20:51:54.631587 32077 layer_factory.hpp:77] Creating layer conv0
I0426 20:51:54.631605 32077 net.cpp:86] Creating Layer conv0
I0426 20:51:54.631610 32077 net.cpp:408] conv0 <- data
I0426 20:51:54.631621 32077 net.cpp:382] conv0 -> conv0
I0426 20:51:54.927208 32077 net.cpp:124] Setting up conv0
I0426 20:51:54.927240 32077 net.cpp:131] Top shape: 64 25 24 24 (921600)
I0426 20:51:54.927245 32077 net.cpp:139] Memory required for data: 3887360
I0426 20:51:54.927263 32077 layer_factory.hpp:77] Creating layer pool0
I0426 20:51:54.927278 32077 net.cpp:86] Creating Layer pool0
I0426 20:51:54.927284 32077 net.cpp:408] pool0 <- conv0
I0426 20:51:54.927290 32077 net.cpp:382] pool0 -> pool0
I0426 20:51:54.927347 32077 net.cpp:124] Setting up pool0
I0426 20:51:54.927356 32077 net.cpp:131] Top shape: 64 25 12 12 (230400)
I0426 20:51:54.927377 32077 net.cpp:139] Memory required for data: 4808960
I0426 20:51:54.927381 32077 layer_factory.hpp:77] Creating layer conv1
I0426 20:51:54.927395 32077 net.cpp:86] Creating Layer conv1
I0426 20:51:54.927400 32077 net.cpp:408] conv1 <- pool0
I0426 20:51:54.927407 32077 net.cpp:382] conv1 -> conv1
I0426 20:51:54.930748 32077 net.cpp:124] Setting up conv1
I0426 20:51:54.930766 32077 net.cpp:131] Top shape: 64 10 8 8 (40960)
I0426 20:51:54.930771 32077 net.cpp:139] Memory required for data: 4972800
I0426 20:51:54.930783 32077 layer_factory.hpp:77] Creating layer pool1
I0426 20:51:54.930791 32077 net.cpp:86] Creating Layer pool1
I0426 20:51:54.930795 32077 net.cpp:408] pool1 <- conv1
I0426 20:51:54.930802 32077 net.cpp:382] pool1 -> pool1
I0426 20:51:54.930846 32077 net.cpp:124] Setting up pool1
I0426 20:51:54.930855 32077 net.cpp:131] Top shape: 64 10 4 4 (10240)
I0426 20:51:54.930858 32077 net.cpp:139] Memory required for data: 5013760
I0426 20:51:54.930862 32077 layer_factory.hpp:77] Creating layer ip1
I0426 20:51:54.930871 32077 net.cpp:86] Creating Layer ip1
I0426 20:51:54.930874 32077 net.cpp:408] ip1 <- pool1
I0426 20:51:54.930881 32077 net.cpp:382] ip1 -> ip1
I0426 20:51:54.931964 32077 net.cpp:124] Setting up ip1
I0426 20:51:54.931979 32077 net.cpp:131] Top shape: 64 10 (640)
I0426 20:51:54.931984 32077 net.cpp:139] Memory required for data: 5016320
I0426 20:51:54.931993 32077 layer_factory.hpp:77] Creating layer relu1
I0426 20:51:54.932000 32077 net.cpp:86] Creating Layer relu1
I0426 20:51:54.932005 32077 net.cpp:408] relu1 <- ip1
I0426 20:51:54.932011 32077 net.cpp:369] relu1 -> ip1 (in-place)
I0426 20:51:54.932215 32077 net.cpp:124] Setting up relu1
I0426 20:51:54.932225 32077 net.cpp:131] Top shape: 64 10 (640)
I0426 20:51:54.932229 32077 net.cpp:139] Memory required for data: 5018880
I0426 20:51:54.932234 32077 layer_factory.hpp:77] Creating layer loss
I0426 20:51:54.932241 32077 net.cpp:86] Creating Layer loss
I0426 20:51:54.932245 32077 net.cpp:408] loss <- ip1
I0426 20:51:54.932250 32077 net.cpp:408] loss <- label
I0426 20:51:54.932255 32077 net.cpp:382] loss -> loss
I0426 20:51:54.932276 32077 layer_factory.hpp:77] Creating layer loss
…
I0426 20:51:54.933704 32077 solver.cpp:173] Creating test net (#0) specified by net file: ECE595/mnist/train_test/var_everything/lenet_train_test98.prototxt
I0426 20:51:54.933733 32077 net.cpp:296] The NetState phase (1) differed from the phase (0) specified by a rule in layer mnist
I0426 20:51:54.933820 32077 net.cpp:53] Initializing net from parameters: 
name: "LeNet"
state {
  phase: TEST
}
layer {
  name: "mnist"
  type: "Data"
  top: "data"
  top: "label"
  include {
    phase: TEST
  }
  transform_param {
    scale: 0.00390625
  }
  data_param {
    source: "examples/mnist/mnist_test_lmdb"
    batch_size: 100
    backend: LMDB
  }
}
layer {
  name: "conv0"
  type: "Convolution"
  bottom: "data"
  top: "conv0"
  param {
    lr_mult: 1
  }
  param {
    lr_mult: 2
  }
  convolution_param {
    num_output: 25
    kernel_size: 5
    stride: 1
    weight_filler {
      type: "xavier"
    }
    bias_filler {
      type: "constant"
    }
  }
}
layer {
  name: "pool0"
  type: "Pooling"
  bottom: "conv0"
  top: "pool0"
  pooling_param {
    pool: MAX
    kernel_size: 2
    stride: 2
  }
}
layer {
  name: "conv1"
  type: "Convolution"
  bottom: "pool0"
  top: "conv1"
  param {
    lr_mult: 1
  }
  param {
    lr_mult: 2
  }
  convolution_param {
    num_output: 10
    kernel_size: 5
    stride: 1
    weight_filler {
      type: "xavier"
    }
    bias_filler {
      type: "constant"
    }
  }
}
layer {
  name: "pool1"
  type: "Pooling"
  bottom: "conv1"
  top: "pool1"
  pooling_param {
    pool: MAX
    kernel_size: 2
    stride: 2
  }
}
layer {
  name: "ip1"
  type: "InnerProduct"
  bottom: "pool1"
  top: "ip1"
  param {
    lr_mult: 1
  }
  param {
    lr_mult: 2
  }
  inner_product_param {
    num_output: 10
    weight_filler {
      type: "xavier"
    }
    bias_filler {
      type: "constant"
    }
  }
}
layer {
  name: "relu1"
  type: "ReLU"
  bottom: "ip1"
  top: "ip1"
}
layer {
  name: "accuracy"
  type: "Accuracy"
  bottom: "ip1"
  bottom: "label"
  top: "accuracy"
  include {
    phase: TEST
  }
}
layer {
  name: "loss"
  type: "SoftmaxWithLoss"
  bottom: "ip1"
  bottom: "label"
  top: "loss"
}
I0426 20:51:54.933902 32077 layer_factory.hpp:77] Creating layer mnist
I0426 20:51:54.933950 32077 db_lmdb.cpp:35] Opened lmdb examples/mnist/mnist_test_lmdb
I0426 20:51:54.933966 32077 net.cpp:86] Creating Layer mnist
I0426 20:51:54.933972 32077 net.cpp:382] mnist -> data
I0426 20:51:54.933981 32077 net.cpp:382] mnist -> label
I0426 20:51:54.934082 32077 data_layer.cpp:45] output data size: 100,1,28,28
I0426 20:51:54.936362 32077 net.cpp:124] Setting up mnist
I0426 20:51:54.936378 32077 net.cpp:131] Top shape: 100 1 28 28 (78400)
I0426 20:51:54.936384 32077 net.cpp:131] Top shape: 100 (100)
I0426 20:51:54.936388 32077 net.cpp:139] Memory required for data: 314000
I0426 20:51:54.936393 32077 layer_factory.hpp:77] Creating layer label_mnist_1_split
I0426 20:51:54.936405 32077 net.cpp:86] Creating Layer label_mnist_1_split
I0426 20:51:54.936410 32077 net.cpp:408] label_mnist_1_split <- label
I0426 20:51:54.936425 32077 net.cpp:382] label_mnist_1_split -> label_mnist_1_split_0
I0426 20:51:54.936432 32077 net.cpp:382] label_mnist_1_split -> label_mnist_1_split_1
I0426 20:51:54.936481 32077 net.cpp:124] Setting up label_mnist_1_split
I0426 20:51:54.936489 32077 net.cpp:131] Top shape: 100 (100)
I0426 20:51:54.936494 32077 net.cpp:131] Top shape: 100 (100)
I0426 20:51:54.936497 32077 net.cpp:139] Memory required for data: 314800
I0426 20:51:54.936501 32077 layer_factory.hpp:77] Creating layer conv0
I0426 20:51:54.936511 32077 net.cpp:86] Creating Layer conv0
I0426 20:51:54.936517 32077 net.cpp:408] conv0 <- data
I0426 20:51:54.936523 32077 net.cpp:382] conv0 -> conv0
I0426 20:51:54.937588 32077 net.cpp:124] Setting up conv0
I0426 20:51:54.937604 32077 net.cpp:131] Top shape: 100 25 24 24 (1440000)
I0426 20:51:54.937608 32077 net.cpp:139] Memory required for data: 6074800
I0426 20:51:54.937619 32077 layer_factory.hpp:77] Creating layer pool0
I0426 20:51:54.937628 32077 net.cpp:86] Creating Layer pool0
I0426 20:51:54.937633 32077 net.cpp:408] pool0 <- conv0
I0426 20:51:54.937639 32077 net.cpp:382] pool0 -> pool0
I0426 20:51:54.937681 32077 net.cpp:124] Setting up pool0
I0426 20:51:54.937690 32077 net.cpp:131] Top shape: 100 25 12 12 (360000)
I0426 20:51:54.937693 32077 net.cpp:139] Memory required for data: 7514800
I0426 20:51:54.937697 32077 layer_factory.hpp:77] Creating layer conv1
I0426 20:51:54.937710 32077 net.cpp:86] Creating Layer conv1
I0426 20:51:54.937714 32077 net.cpp:408] conv1 <- pool0
I0426 20:51:54.937721 32077 net.cpp:382] conv1 -> conv1
I0426 20:51:54.940361 32077 net.cpp:124] Setting up conv1
I0426 20:51:54.940376 32077 net.cpp:131] Top shape: 100 10 8 8 (64000)
I0426 20:51:54.940381 32077 net.cpp:139] Memory required for data: 7770800
I0426 20:51:54.940392 32077 layer_factory.hpp:77] Creating layer pool1
I0426 20:51:54.940400 32077 net.cpp:86] Creating Layer pool1
I0426 20:51:54.940417 32077 net.cpp:408] pool1 <- conv1
I0426 20:51:54.940423 32077 net.cpp:382] pool1 -> pool1
I0426 20:51:54.940517 32077 net.cpp:124] Setting up pool1
I0426 20:51:54.940526 32077 net.cpp:131] Top shape: 100 10 4 4 (16000)
I0426 20:51:54.940531 32077 net.cpp:139] Memory required for data: 7834800
I0426 20:51:54.940536 32077 layer_factory.hpp:77] Creating layer ip1
I0426 20:51:54.940544 32077 net.cpp:86] Creating Layer ip1
I0426 20:51:54.940551 32077 net.cpp:408] ip1 <- pool1
I0426 20:51:54.940557 32077 net.cpp:382] ip1 -> ip1
I0426 20:51:54.940690 32077 net.cpp:124] Setting up ip1
I0426 20:51:54.940698 32077 net.cpp:131] Top shape: 100 10 (1000)
I0426 20:51:54.940702 32077 net.cpp:139] Memory required for data: 7838800
I0426 20:51:54.940711 32077 layer_factory.hpp:77] Creating layer relu1
I0426 20:51:54.940717 32077 net.cpp:86] Creating Layer relu1
I0426 20:51:54.940723 32077 net.cpp:408] relu1 <- ip1
I0426 20:51:54.940732 32077 net.cpp:369] relu1 -> ip1 (in-place)
I0426 20:51:54.941771 32077 net.cpp:124] Setting up relu1
I0426 20:51:54.941786 32077 net.cpp:131] Top shape: 100 10 (1000)
I0426 20:51:54.941790 32077 net.cpp:139] Memory required for data: 7842800
I0426 20:51:54.941794 32077 layer_factory.hpp:77] Creating layer ip1_relu1_0_split
I0426 20:51:54.941803 32077 net.cpp:86] Creating Layer ip1_relu1_0_split
I0426 20:51:54.941809 32077 net.cpp:408] ip1_relu1_0_split <- ip1
I0426 20:51:54.941817 32077 net.cpp:382] ip1_relu1_0_split -> ip1_relu1_0_split_0
I0426 20:51:54.941823 32077 net.cpp:382] ip1_relu1_0_split -> ip1_relu1_0_split_1
I0426 20:51:54.941872 32077 net.cpp:124] Setting up ip1_relu1_0_split
I0426 20:51:54.941880 32077 net.cpp:131] Top shape: 100 10 (1000)
I0426 20:51:54.941885 32077 net.cpp:131] Top shape: 100 10 (1000)
I0426 20:51:54.941890 32077 net.cpp:139] Memory required for data: 7850800
I0426 20:51:54.941892 32077 layer_factory.hpp:77] Creating layer accuracy
I0426 20:51:54.941898 32077 net.cpp:86] Creating Layer accuracy
I0426 20:51:54.941903 32077 net.cpp:408] accuracy <- ip1_relu1_0_split_0
I0426 20:51:54.941908 32077 net.cpp:408] accuracy <- label_mnist_1_split_0
I0426 20:51:54.941921 32077 net.cpp:382] accuracy -> accuracy
…
