…
I0426 20:53:17.233949 32410 net.cpp:296] The NetState phase (0) differed from the phase (1) specified by a rule in layer mnist
I0426 20:53:17.233966 32410 net.cpp:296] The NetState phase (0) differed from the phase (1) specified by a rule in layer accuracy
I0426 20:53:17.234063 32410 net.cpp:53] Initializing net from parameters: 
name: "LeNet"
state {
  phase: TRAIN
  level: 0
  stage: ""
}
layer {
  name: "mnist"
  type: "Data"
  top: "data"
  top: "label"
  include {
    phase: TRAIN
  }
  transform_param {
    scale: 0.00390625
  }
  data_param {
    source: "examples/mnist/mnist_train_lmdb"
    batch_size: 64
    backend: LMDB
  }
}
layer {
  name: "conv0"
  type: "Convolution"
  bottom: "data"
  top: "conv0"
  param {
    lr_mult: 1
  }
  param {
    lr_mult: 2
  }
  convolution_param {
    num_output: 25
    kernel_size: 5
    stride: 1
    weight_filler {
      type: "xavier"
    }
    bias_filler {
      type: "constant"
    }
  }
}
layer {
  name: "pool0"
  type: "Pooling"
  bottom: "conv0"
  top: "pool0"
  pooling_param {
    pool: MAX
    kernel_size: 2
    stride: 2
  }
}
layer {
  name: "conv1"
  type: "Convolution"
  bottom: "pool0"
  top: "conv1"
  param {
    lr_mult: 1
  }
  param {
    lr_mult: 2
  }
  convolution_param {
    num_output: 50
    kernel_size: 5
    stride: 1
    weight_filler {
      type: "xavier"
    }
    bias_filler {
      type: "constant"
    }
  }
}
layer {
  name: "pool1"
  type: "Pooling"
  bottom: "conv1"
  top: "pool1"
  pooling_param {
    pool: MAX
    kernel_size: 2
    stride: 2
  }
}
layer {
  name: "ip1"
  type: "InnerProduct"
  bottom: "pool1"
  top: "ip1"
  param {
    lr_mult: 1
  }
  param {
    lr_mult: 2
  }
  inner_product_param {
    num_output: 100
    weight_filler {
      type: "xavier"
    }
    bias_filler {
      type: "constant"
    }
  }
}
layer {
  name: "relu1"
  type: "ReLU"
  bottom: "ip1"
  top: "ip1"
}
layer {
  name: "ip2"
  type: "InnerProduct"
  bottom: "ip1"
  top: "ip2"
  param {
    lr_mult: 1
  }
  param {
    lr_mult: 2
  }
  inner_product_param {
    num_output: 100
    weight_filler {
      type: "xavier"
    }
    bias_filler {
      type: "constant"
    }
  }
}
layer {
  name: "relu2"
  type: "ReLU"
  bottom: "ip2"
  top: "ip2"
}
layer {
  name: "ip3"
  type: "InnerProduct"
  bottom: "ip2"
  top: "ip3"
  param {
    lr_mult: 1
  }
  param {
    lr_mult: 2
  }
  inner_product_param {
    num_output: 10
    weight_filler {
      type: "xavier"
    }
    bias_filler {
      type: "constant"
    }
  }
}
layer {
  name: "relu3"
  type: "ReLU"
  bottom: "ip3"
  top: "ip3"
}
layer {
  name: "loss"
  type: "SoftmaxWithLoss"
  bottom: "ip3"
  bottom: "label"
  top: "loss"
}
I0426 20:53:17.234138 32410 layer_factory.hpp:77] Creating layer mnist
I0426 20:53:17.234237 32410 db_lmdb.cpp:35] Opened lmdb examples/mnist/mnist_train_lmdb
I0426 20:53:17.234261 32410 net.cpp:86] Creating Layer mnist
I0426 20:53:17.234268 32410 net.cpp:382] mnist -> data
I0426 20:53:17.234290 32410 net.cpp:382] mnist -> label
I0426 20:53:17.235378 32410 data_layer.cpp:45] output data size: 64,1,28,28
I0426 20:53:17.237911 32410 net.cpp:124] Setting up mnist
I0426 20:53:17.237928 32410 net.cpp:131] Top shape: 64 1 28 28 (50176)
I0426 20:53:17.237936 32410 net.cpp:131] Top shape: 64 (64)
I0426 20:53:17.237939 32410 net.cpp:139] Memory required for data: 200960
I0426 20:53:17.237946 32410 layer_factory.hpp:77] Creating layer conv0
I0426 20:53:17.237962 32410 net.cpp:86] Creating Layer conv0
I0426 20:53:17.237983 32410 net.cpp:408] conv0 <- data
I0426 20:53:17.237995 32410 net.cpp:382] conv0 -> conv0
I0426 20:53:17.524060 32410 net.cpp:124] Setting up conv0
I0426 20:53:17.524086 32410 net.cpp:131] Top shape: 64 25 24 24 (921600)
I0426 20:53:17.524091 32410 net.cpp:139] Memory required for data: 3887360
I0426 20:53:17.524106 32410 layer_factory.hpp:77] Creating layer pool0
I0426 20:53:17.524118 32410 net.cpp:86] Creating Layer pool0
I0426 20:53:17.524123 32410 net.cpp:408] pool0 <- conv0
I0426 20:53:17.524128 32410 net.cpp:382] pool0 -> pool0
I0426 20:53:17.524176 32410 net.cpp:124] Setting up pool0
I0426 20:53:17.524183 32410 net.cpp:131] Top shape: 64 25 12 12 (230400)
I0426 20:53:17.524185 32410 net.cpp:139] Memory required for data: 4808960
I0426 20:53:17.524188 32410 layer_factory.hpp:77] Creating layer conv1
I0426 20:53:17.524199 32410 net.cpp:86] Creating Layer conv1
I0426 20:53:17.524202 32410 net.cpp:408] conv1 <- pool0
I0426 20:53:17.524206 32410 net.cpp:382] conv1 -> conv1
I0426 20:53:17.526286 32410 net.cpp:124] Setting up conv1
I0426 20:53:17.526300 32410 net.cpp:131] Top shape: 64 50 8 8 (204800)
I0426 20:53:17.526304 32410 net.cpp:139] Memory required for data: 5628160
I0426 20:53:17.526312 32410 layer_factory.hpp:77] Creating layer pool1
I0426 20:53:17.526320 32410 net.cpp:86] Creating Layer pool1
I0426 20:53:17.526324 32410 net.cpp:408] pool1 <- conv1
I0426 20:53:17.526329 32410 net.cpp:382] pool1 -> pool1
I0426 20:53:17.526365 32410 net.cpp:124] Setting up pool1
I0426 20:53:17.526370 32410 net.cpp:131] Top shape: 64 50 4 4 (51200)
I0426 20:53:17.526372 32410 net.cpp:139] Memory required for data: 5832960
I0426 20:53:17.526376 32410 layer_factory.hpp:77] Creating layer ip1
I0426 20:53:17.526381 32410 net.cpp:86] Creating Layer ip1
I0426 20:53:17.526384 32410 net.cpp:408] ip1 <- pool1
I0426 20:53:17.526389 32410 net.cpp:382] ip1 -> ip1
I0426 20:53:17.527740 32410 net.cpp:124] Setting up ip1
I0426 20:53:17.527752 32410 net.cpp:131] Top shape: 64 100 (6400)
I0426 20:53:17.527755 32410 net.cpp:139] Memory required for data: 5858560
I0426 20:53:17.527763 32410 layer_factory.hpp:77] Creating layer relu1
I0426 20:53:17.527770 32410 net.cpp:86] Creating Layer relu1
I0426 20:53:17.527773 32410 net.cpp:408] relu1 <- ip1
I0426 20:53:17.527777 32410 net.cpp:369] relu1 -> ip1 (in-place)
I0426 20:53:17.527943 32410 net.cpp:124] Setting up relu1
I0426 20:53:17.527952 32410 net.cpp:131] Top shape: 64 100 (6400)
I0426 20:53:17.527956 32410 net.cpp:139] Memory required for data: 5884160
I0426 20:53:17.527958 32410 layer_factory.hpp:77] Creating layer ip2
I0426 20:53:17.527966 32410 net.cpp:86] Creating Layer ip2
I0426 20:53:17.527968 32410 net.cpp:408] ip2 <- ip1
I0426 20:53:17.527973 32410 net.cpp:382] ip2 -> ip2
I0426 20:53:17.528937 32410 net.cpp:124] Setting up ip2
I0426 20:53:17.528949 32410 net.cpp:131] Top shape: 64 100 (6400)
I0426 20:53:17.528952 32410 net.cpp:139] Memory required for data: 5909760
I0426 20:53:17.528959 32410 layer_factory.hpp:77] Creating layer relu2
I0426 20:53:17.528964 32410 net.cpp:86] Creating Layer relu2
I0426 20:53:17.528969 32410 net.cpp:408] relu2 <- ip2
I0426 20:53:17.528973 32410 net.cpp:369] relu2 -> ip2 (in-place)
I0426 20:53:17.529788 32410 net.cpp:124] Setting up relu2
I0426 20:53:17.529800 32410 net.cpp:131] Top shape: 64 100 (6400)
I0426 20:53:17.529803 32410 net.cpp:139] Memory required for data: 5935360
I0426 20:53:17.529806 32410 layer_factory.hpp:77] Creating layer ip3
I0426 20:53:17.529814 32410 net.cpp:86] Creating Layer ip3
I0426 20:53:17.529817 32410 net.cpp:408] ip3 <- ip2
I0426 20:53:17.529822 32410 net.cpp:382] ip3 -> ip3
I0426 20:53:17.529923 32410 net.cpp:124] Setting up ip3
I0426 20:53:17.529932 32410 net.cpp:131] Top shape: 64 10 (640)
I0426 20:53:17.529934 32410 net.cpp:139] Memory required for data: 5937920
I0426 20:53:17.529942 32410 layer_factory.hpp:77] Creating layer relu3
I0426 20:53:17.529947 32410 net.cpp:86] Creating Layer relu3
I0426 20:53:17.529950 32410 net.cpp:408] relu3 <- ip3
I0426 20:53:17.529954 32410 net.cpp:369] relu3 -> ip3 (in-place)
I0426 20:53:17.530115 32410 net.cpp:124] Setting up relu3
I0426 20:53:17.530123 32410 net.cpp:131] Top shape: 64 10 (640)
I0426 20:53:17.530128 32410 net.cpp:139] Memory required for data: 5940480
I0426 20:53:17.530130 32410 layer_factory.hpp:77] Creating layer loss
I0426 20:53:17.530135 32410 net.cpp:86] Creating Layer loss
I0426 20:53:17.530139 32410 net.cpp:408] loss <- ip3
I0426 20:53:17.530143 32410 net.cpp:408] loss <- label
I0426 20:53:17.530148 32410 net.cpp:382] loss -> loss
I0426 20:53:17.530165 32410 layer_factory.hpp:77] Creating layer loss
…
I0426 20:53:17.530812 32410 solver.cpp:173] Creating test net (#0) specified by net file: ECE595/mnist/train_test/var_everything/lenet_train_test133.prototxt
I0426 20:53:17.530854 32410 net.cpp:296] The NetState phase (1) differed from the phase (0) specified by a rule in layer mnist
I0426 20:53:17.530957 32410 net.cpp:53] Initializing net from parameters: 
name: "LeNet"
state {
  phase: TEST
}
layer {
  name: "mnist"
  type: "Data"
  top: "data"
  top: "label"
  include {
    phase: TEST
  }
  transform_param {
    scale: 0.00390625
  }
  data_param {
    source: "examples/mnist/mnist_test_lmdb"
    batch_size: 100
    backend: LMDB
  }
}
layer {
  name: "conv0"
  type: "Convolution"
  bottom: "data"
  top: "conv0"
  param {
    lr_mult: 1
  }
  param {
    lr_mult: 2
  }
  convolution_param {
    num_output: 25
    kernel_size: 5
    stride: 1
    weight_filler {
      type: "xavier"
    }
    bias_filler {
      type: "constant"
    }
  }
}
layer {
  name: "pool0"
  type: "Pooling"
  bottom: "conv0"
  top: "pool0"
  pooling_param {
    pool: MAX
    kernel_size: 2
    stride: 2
  }
}
layer {
  name: "conv1"
  type: "Convolution"
  bottom: "pool0"
  top: "conv1"
  param {
    lr_mult: 1
  }
  param {
    lr_mult: 2
  }
  convolution_param {
    num_output: 50
    kernel_size: 5
    stride: 1
    weight_filler {
      type: "xavier"
    }
    bias_filler {
      type: "constant"
    }
  }
}
layer {
  name: "pool1"
  type: "Pooling"
  bottom: "conv1"
  top: "pool1"
  pooling_param {
    pool: MAX
    kernel_size: 2
    stride: 2
  }
}
layer {
  name: "ip1"
  type: "InnerProduct"
  bottom: "pool1"
  top: "ip1"
  param {
    lr_mult: 1
  }
  param {
    lr_mult: 2
  }
  inner_product_param {
    num_output: 100
    weight_filler {
      type: "xavier"
    }
    bias_filler {
      type: "constant"
    }
  }
}
layer {
  name: "relu1"
  type: "ReLU"
  bottom: "ip1"
  top: "ip1"
}
layer {
  name: "ip2"
  type: "InnerProduct"
  bottom: "ip1"
  top: "ip2"
  param {
    lr_mult: 1
  }
  param {
    lr_mult: 2
  }
  inner_product_param {
    num_output: 100
    weight_filler {
      type: "xavier"
    }
    bias_filler {
      type: "constant"
    }
  }
}
layer {
  name: "relu2"
  type: "ReLU"
  bottom: "ip2"
  top: "ip2"
}
layer {
  name: "ip3"
  type: "InnerProduct"
  bottom: "ip2"
  top: "ip3"
  param {
    lr_mult: 1
  }
  param {
    lr_mult: 2
  }
  inner_product_param {
    num_output: 10
    weight_filler {
      type: "xavier"
    }
    bias_filler {
      type: "constant"
    }
  }
}
layer {
  name: "relu3"
  type: "ReLU"
  bottom: "ip3"
  top: "ip3"
}
layer {
  name: "accuracy"
  type: "Accuracy"
  bottom: "ip3"
  bottom: "label"
  top: "accuracy"
  include {
    phase: TEST
  }
}
layer {
  name: "loss"
  type: "SoftmaxWithLoss"
  bottom: "ip3"
  bottom: "label"
  top: "loss"
}
I0426 20:53:17.531034 32410 layer_factory.hpp:77] Creating layer mnist
I0426 20:53:17.531077 32410 db_lmdb.cpp:35] Opened lmdb examples/mnist/mnist_test_lmdb
I0426 20:53:17.531090 32410 net.cpp:86] Creating Layer mnist
I0426 20:53:17.531095 32410 net.cpp:382] mnist -> data
I0426 20:53:17.531102 32410 net.cpp:382] mnist -> label
I0426 20:53:17.531183 32410 data_layer.cpp:45] output data size: 100,1,28,28
I0426 20:53:17.532295 32410 net.cpp:124] Setting up mnist
I0426 20:53:17.532308 32410 net.cpp:131] Top shape: 100 1 28 28 (78400)
I0426 20:53:17.532313 32410 net.cpp:131] Top shape: 100 (100)
I0426 20:53:17.532316 32410 net.cpp:139] Memory required for data: 314000
I0426 20:53:17.532320 32410 layer_factory.hpp:77] Creating layer label_mnist_1_split
I0426 20:53:17.532351 32410 net.cpp:86] Creating Layer label_mnist_1_split
I0426 20:53:17.532356 32410 net.cpp:408] label_mnist_1_split <- label
I0426 20:53:17.532359 32410 net.cpp:382] label_mnist_1_split -> label_mnist_1_split_0
I0426 20:53:17.532366 32410 net.cpp:382] label_mnist_1_split -> label_mnist_1_split_1
I0426 20:53:17.532405 32410 net.cpp:124] Setting up label_mnist_1_split
I0426 20:53:17.532411 32410 net.cpp:131] Top shape: 100 (100)
I0426 20:53:17.532414 32410 net.cpp:131] Top shape: 100 (100)
I0426 20:53:17.532418 32410 net.cpp:139] Memory required for data: 314800
I0426 20:53:17.532420 32410 layer_factory.hpp:77] Creating layer conv0
I0426 20:53:17.532428 32410 net.cpp:86] Creating Layer conv0
I0426 20:53:17.532431 32410 net.cpp:408] conv0 <- data
I0426 20:53:17.532436 32410 net.cpp:382] conv0 -> conv0
I0426 20:53:17.534144 32410 net.cpp:124] Setting up conv0
I0426 20:53:17.534157 32410 net.cpp:131] Top shape: 100 25 24 24 (1440000)
I0426 20:53:17.534162 32410 net.cpp:139] Memory required for data: 6074800
I0426 20:53:17.534170 32410 layer_factory.hpp:77] Creating layer pool0
I0426 20:53:17.534176 32410 net.cpp:86] Creating Layer pool0
I0426 20:53:17.534179 32410 net.cpp:408] pool0 <- conv0
I0426 20:53:17.534184 32410 net.cpp:382] pool0 -> pool0
I0426 20:53:17.534217 32410 net.cpp:124] Setting up pool0
I0426 20:53:17.534224 32410 net.cpp:131] Top shape: 100 25 12 12 (360000)
I0426 20:53:17.534237 32410 net.cpp:139] Memory required for data: 7514800
I0426 20:53:17.534240 32410 layer_factory.hpp:77] Creating layer conv1
I0426 20:53:17.534248 32410 net.cpp:86] Creating Layer conv1
I0426 20:53:17.534252 32410 net.cpp:408] conv1 <- pool0
I0426 20:53:17.534257 32410 net.cpp:382] conv1 -> conv1
I0426 20:53:17.535964 32410 net.cpp:124] Setting up conv1
I0426 20:53:17.535979 32410 net.cpp:131] Top shape: 100 50 8 8 (320000)
I0426 20:53:17.535982 32410 net.cpp:139] Memory required for data: 8794800
I0426 20:53:17.535990 32410 layer_factory.hpp:77] Creating layer pool1
I0426 20:53:17.536007 32410 net.cpp:86] Creating Layer pool1
I0426 20:53:17.536011 32410 net.cpp:408] pool1 <- conv1
I0426 20:53:17.536036 32410 net.cpp:382] pool1 -> pool1
I0426 20:53:17.536082 32410 net.cpp:124] Setting up pool1
I0426 20:53:17.536089 32410 net.cpp:131] Top shape: 100 50 4 4 (80000)
I0426 20:53:17.536092 32410 net.cpp:139] Memory required for data: 9114800
I0426 20:53:17.536094 32410 layer_factory.hpp:77] Creating layer ip1
I0426 20:53:17.536106 32410 net.cpp:86] Creating Layer ip1
I0426 20:53:17.536109 32410 net.cpp:408] ip1 <- pool1
I0426 20:53:17.536115 32410 net.cpp:382] ip1 -> ip1
I0426 20:53:17.536718 32410 net.cpp:124] Setting up ip1
I0426 20:53:17.536726 32410 net.cpp:131] Top shape: 100 100 (10000)
I0426 20:53:17.536739 32410 net.cpp:139] Memory required for data: 9154800
I0426 20:53:17.536752 32410 layer_factory.hpp:77] Creating layer relu1
I0426 20:53:17.536759 32410 net.cpp:86] Creating Layer relu1
I0426 20:53:17.536762 32410 net.cpp:408] relu1 <- ip1
I0426 20:53:17.536768 32410 net.cpp:369] relu1 -> ip1 (in-place)
I0426 20:53:17.537024 32410 net.cpp:124] Setting up relu1
I0426 20:53:17.537034 32410 net.cpp:131] Top shape: 100 100 (10000)
I0426 20:53:17.537036 32410 net.cpp:139] Memory required for data: 9194800
I0426 20:53:17.537039 32410 layer_factory.hpp:77] Creating layer ip2
I0426 20:53:17.537050 32410 net.cpp:86] Creating Layer ip2
I0426 20:53:17.537052 32410 net.cpp:408] ip2 <- ip1
I0426 20:53:17.537057 32410 net.cpp:382] ip2 -> ip2
I0426 20:53:17.537266 32410 net.cpp:124] Setting up ip2
I0426 20:53:17.537274 32410 net.cpp:131] Top shape: 100 100 (10000)
I0426 20:53:17.537277 32410 net.cpp:139] Memory required for data: 9234800
I0426 20:53:17.537282 32410 layer_factory.hpp:77] Creating layer relu2
I0426 20:53:17.537286 32410 net.cpp:86] Creating Layer relu2
I0426 20:53:17.537289 32410 net.cpp:408] relu2 <- ip2
I0426 20:53:17.537295 32410 net.cpp:369] relu2 -> ip2 (in-place)
I0426 20:53:17.537472 32410 net.cpp:124] Setting up relu2
I0426 20:53:17.537482 32410 net.cpp:131] Top shape: 100 100 (10000)
I0426 20:53:17.537485 32410 net.cpp:139] Memory required for data: 9274800
I0426 20:53:17.537488 32410 layer_factory.hpp:77] Creating layer ip3
I0426 20:53:17.537493 32410 net.cpp:86] Creating Layer ip3
I0426 20:53:17.537497 32410 net.cpp:408] ip3 <- ip2
I0426 20:53:17.537503 32410 net.cpp:382] ip3 -> ip3
I0426 20:53:17.537607 32410 net.cpp:124] Setting up ip3
I0426 20:53:17.537614 32410 net.cpp:131] Top shape: 100 10 (1000)
I0426 20:53:17.537618 32410 net.cpp:139] Memory required for data: 9278800
I0426 20:53:17.537631 32410 layer_factory.hpp:77] Creating layer relu3
I0426 20:53:17.537637 32410 net.cpp:86] Creating Layer relu3
I0426 20:53:17.537645 32410 net.cpp:408] relu3 <- ip3
I0426 20:53:17.537649 32410 net.cpp:369] relu3 -> ip3 (in-place)
I0426 20:53:17.538496 32410 net.cpp:124] Setting up relu3
I0426 20:53:17.538507 32410 net.cpp:131] Top shape: 100 10 (1000)
I0426 20:53:17.538511 32410 net.cpp:139] Memory required for data: 9282800
I0426 20:53:17.538514 32410 layer_factory.hpp:77] Creating layer ip3_relu3_0_split
I0426 20:53:17.538521 32410 net.cpp:86] Creating Layer ip3_relu3_0_split
I0426 20:53:17.538524 32410 net.cpp:408] ip3_relu3_0_split <- ip3
I0426 20:53:17.538529 32410 net.cpp:382] ip3_relu3_0_split -> ip3_relu3_0_split_0
I0426 20:53:17.538549 32410 net.cpp:382] ip3_relu3_0_split -> ip3_relu3_0_split_1
I0426 20:53:17.538627 32410 net.cpp:124] Setting up ip3_relu3_0_split
I0426 20:53:17.538632 32410 net.cpp:131] Top shape: 100 10 (1000)
I0426 20:53:17.538636 32410 net.cpp:131] Top shape: 100 10 (1000)
I0426 20:53:17.538640 32410 net.cpp:139] Memory required for data: 9290800
I0426 20:53:17.538641 32410 layer_factory.hpp:77] Creating layer accuracy
I0426 20:53:17.538646 32410 net.cpp:86] Creating Layer accuracy
I0426 20:53:17.538650 32410 net.cpp:408] accuracy <- ip3_relu3_0_split_0
I0426 20:53:17.538655 32410 net.cpp:408] accuracy <- label_mnist_1_split_0
I0426 20:53:17.538660 32410 net.cpp:382] accuracy -> accuracy
…
