…
I0426 20:48:32.649437 31277 net.cpp:296] The NetState phase (0) differed from the phase (1) specified by a rule in layer mnist
I0426 20:48:32.649451 31277 net.cpp:296] The NetState phase (0) differed from the phase (1) specified by a rule in layer accuracy
I0426 20:48:32.649523 31277 net.cpp:53] Initializing net from parameters: 
name: "LeNet"
state {
  phase: TRAIN
  level: 0
  stage: ""
}
layer {
  name: "mnist"
  type: "Data"
  top: "data"
  top: "label"
  include {
    phase: TRAIN
  }
  transform_param {
    scale: 0.00390625
  }
  data_param {
    source: "examples/mnist/mnist_train_lmdb"
    batch_size: 64
    backend: LMDB
  }
}
layer {
  name: "ip1"
  type: "InnerProduct"
  bottom: "data"
  top: "ip1"
  param {
    lr_mult: 1
  }
  param {
    lr_mult: 2
  }
  inner_product_param {
    num_output: 100
    weight_filler {
      type: "xavier"
    }
    bias_filler {
      type: "constant"
    }
  }
}
layer {
  name: "relu1"
  type: "ReLU"
  bottom: "ip1"
  top: "ip1"
}
layer {
  name: "ip2"
  type: "InnerProduct"
  bottom: "ip1"
  top: "ip2"
  param {
    lr_mult: 1
  }
  param {
    lr_mult: 2
  }
  inner_product_param {
    num_output: 300
    weight_filler {
      type: "xavier"
    }
    bias_filler {
      type: "constant"
    }
  }
}
layer {
  name: "relu2"
  type: "ReLU"
  bottom: "ip2"
  top: "ip2"
}
layer {
  name: "ip3"
  type: "InnerProduct"
  bottom: "ip2"
  top: "ip3"
  param {
    lr_mult: 1
  }
  param {
    lr_mult: 2
  }
  inner_product_param {
    num_output: 10
    weight_filler {
      type: "xavier"
    }
    bias_filler {
      type: "constant"
    }
  }
}
layer {
  name: "relu3"
  type: "ReLU"
  bottom: "ip3"
  top: "ip3"
}
layer {
  name: "loss"
  type: "SoftmaxWithLoss"
  bottom: "ip3"
  bottom: "label"
  top: "loss"
}
I0426 20:48:32.649588 31277 layer_factory.hpp:77] Creating layer mnist
I0426 20:48:32.649686 31277 db_lmdb.cpp:35] Opened lmdb examples/mnist/mnist_train_lmdb
I0426 20:48:32.649710 31277 net.cpp:86] Creating Layer mnist
I0426 20:48:32.649718 31277 net.cpp:382] mnist -> data
I0426 20:48:32.649740 31277 net.cpp:382] mnist -> label
I0426 20:48:32.650831 31277 data_layer.cpp:45] output data size: 64,1,28,28
I0426 20:48:32.653365 31277 net.cpp:124] Setting up mnist
I0426 20:48:32.653383 31277 net.cpp:131] Top shape: 64 1 28 28 (50176)
I0426 20:48:32.653389 31277 net.cpp:131] Top shape: 64 (64)
I0426 20:48:32.653393 31277 net.cpp:139] Memory required for data: 200960
I0426 20:48:32.653400 31277 layer_factory.hpp:77] Creating layer ip1
I0426 20:48:32.653410 31277 net.cpp:86] Creating Layer ip1
I0426 20:48:32.653415 31277 net.cpp:408] ip1 <- data
I0426 20:48:32.653426 31277 net.cpp:382] ip1 -> ip1
I0426 20:48:32.655109 31277 net.cpp:124] Setting up ip1
I0426 20:48:32.655125 31277 net.cpp:131] Top shape: 64 100 (6400)
I0426 20:48:32.655129 31277 net.cpp:139] Memory required for data: 226560
I0426 20:48:32.655144 31277 layer_factory.hpp:77] Creating layer relu1
I0426 20:48:32.655153 31277 net.cpp:86] Creating Layer relu1
I0426 20:48:32.655158 31277 net.cpp:408] relu1 <- ip1
I0426 20:48:32.655163 31277 net.cpp:369] relu1 -> ip1 (in-place)
I0426 20:48:32.937659 31277 net.cpp:124] Setting up relu1
I0426 20:48:32.937688 31277 net.cpp:131] Top shape: 64 100 (6400)
I0426 20:48:32.937692 31277 net.cpp:139] Memory required for data: 252160
I0426 20:48:32.937697 31277 layer_factory.hpp:77] Creating layer ip2
I0426 20:48:32.937710 31277 net.cpp:86] Creating Layer ip2
I0426 20:48:32.937732 31277 net.cpp:408] ip2 <- ip1
I0426 20:48:32.937741 31277 net.cpp:382] ip2 -> ip2
I0426 20:48:32.938920 31277 net.cpp:124] Setting up ip2
I0426 20:48:32.938933 31277 net.cpp:131] Top shape: 64 300 (19200)
I0426 20:48:32.938936 31277 net.cpp:139] Memory required for data: 328960
I0426 20:48:32.938946 31277 layer_factory.hpp:77] Creating layer relu2
I0426 20:48:32.938953 31277 net.cpp:86] Creating Layer relu2
I0426 20:48:32.938956 31277 net.cpp:408] relu2 <- ip2
I0426 20:48:32.938961 31277 net.cpp:369] relu2 -> ip2 (in-place)
I0426 20:48:32.939757 31277 net.cpp:124] Setting up relu2
I0426 20:48:32.939769 31277 net.cpp:131] Top shape: 64 300 (19200)
I0426 20:48:32.939787 31277 net.cpp:139] Memory required for data: 405760
I0426 20:48:32.939790 31277 layer_factory.hpp:77] Creating layer ip3
I0426 20:48:32.939797 31277 net.cpp:86] Creating Layer ip3
I0426 20:48:32.939801 31277 net.cpp:408] ip3 <- ip2
I0426 20:48:32.939807 31277 net.cpp:382] ip3 -> ip3
I0426 20:48:32.940764 31277 net.cpp:124] Setting up ip3
I0426 20:48:32.940775 31277 net.cpp:131] Top shape: 64 10 (640)
I0426 20:48:32.940778 31277 net.cpp:139] Memory required for data: 408320
I0426 20:48:32.940786 31277 layer_factory.hpp:77] Creating layer relu3
I0426 20:48:32.940791 31277 net.cpp:86] Creating Layer relu3
I0426 20:48:32.940794 31277 net.cpp:408] relu3 <- ip3
I0426 20:48:32.940798 31277 net.cpp:369] relu3 -> ip3 (in-place)
I0426 20:48:32.941006 31277 net.cpp:124] Setting up relu3
I0426 20:48:32.941016 31277 net.cpp:131] Top shape: 64 10 (640)
I0426 20:48:32.941020 31277 net.cpp:139] Memory required for data: 410880
I0426 20:48:32.941022 31277 layer_factory.hpp:77] Creating layer loss
I0426 20:48:32.941028 31277 net.cpp:86] Creating Layer loss
I0426 20:48:32.941031 31277 net.cpp:408] loss <- ip3
I0426 20:48:32.941035 31277 net.cpp:408] loss <- label
I0426 20:48:32.941041 31277 net.cpp:382] loss -> loss
I0426 20:48:32.941057 31277 layer_factory.hpp:77] Creating layer loss
…
I0426 20:48:32.941613 31277 solver.cpp:173] Creating test net (#0) specified by net file: ECE595/mnist/train_test/var_everything/lenet_train_test9.prototxt
I0426 20:48:32.941634 31277 net.cpp:296] The NetState phase (1) differed from the phase (0) specified by a rule in layer mnist
I0426 20:48:32.941701 31277 net.cpp:53] Initializing net from parameters: 
name: "LeNet"
state {
  phase: TEST
}
layer {
  name: "mnist"
  type: "Data"
  top: "data"
  top: "label"
  include {
    phase: TEST
  }
  transform_param {
    scale: 0.00390625
  }
  data_param {
    source: "examples/mnist/mnist_test_lmdb"
    batch_size: 100
    backend: LMDB
  }
}
layer {
  name: "ip1"
  type: "InnerProduct"
  bottom: "data"
  top: "ip1"
  param {
    lr_mult: 1
  }
  param {
    lr_mult: 2
  }
  inner_product_param {
    num_output: 100
    weight_filler {
      type: "xavier"
    }
    bias_filler {
      type: "constant"
    }
  }
}
layer {
  name: "relu1"
  type: "ReLU"
  bottom: "ip1"
  top: "ip1"
}
layer {
  name: "ip2"
  type: "InnerProduct"
  bottom: "ip1"
  top: "ip2"
  param {
    lr_mult: 1
  }
  param {
    lr_mult: 2
  }
  inner_product_param {
    num_output: 300
    weight_filler {
      type: "xavier"
    }
    bias_filler {
      type: "constant"
    }
  }
}
layer {
  name: "relu2"
  type: "ReLU"
  bottom: "ip2"
  top: "ip2"
}
layer {
  name: "ip3"
  type: "InnerProduct"
  bottom: "ip2"
  top: "ip3"
  param {
    lr_mult: 1
  }
  param {
    lr_mult: 2
  }
  inner_product_param {
    num_output: 10
    weight_filler {
      type: "xavier"
    }
    bias_filler {
      type: "constant"
    }
  }
}
layer {
  name: "relu3"
  type: "ReLU"
  bottom: "ip3"
  top: "ip3"
}
layer {
  name: "accuracy"
  type: "Accuracy"
  bottom: "ip3"
  bottom: "label"
  top: "accuracy"
  include {
    phase: TEST
  }
}
layer {
  name: "loss"
  type: "SoftmaxWithLoss"
  bottom: "ip3"
  bottom: "label"
  top: "loss"
}
I0426 20:48:32.941766 31277 layer_factory.hpp:77] Creating layer mnist
I0426 20:48:32.941809 31277 db_lmdb.cpp:35] Opened lmdb examples/mnist/mnist_test_lmdb
I0426 20:48:32.941820 31277 net.cpp:86] Creating Layer mnist
I0426 20:48:32.941825 31277 net.cpp:382] mnist -> data
I0426 20:48:32.941833 31277 net.cpp:382] mnist -> label
I0426 20:48:32.941911 31277 data_layer.cpp:45] output data size: 100,1,28,28
I0426 20:48:32.943212 31277 net.cpp:124] Setting up mnist
I0426 20:48:32.943241 31277 net.cpp:131] Top shape: 100 1 28 28 (78400)
I0426 20:48:32.943245 31277 net.cpp:131] Top shape: 100 (100)
I0426 20:48:32.943249 31277 net.cpp:139] Memory required for data: 314000
I0426 20:48:32.943253 31277 layer_factory.hpp:77] Creating layer label_mnist_1_split
I0426 20:48:32.943289 31277 net.cpp:86] Creating Layer label_mnist_1_split
I0426 20:48:32.943292 31277 net.cpp:408] label_mnist_1_split <- label
I0426 20:48:32.943297 31277 net.cpp:382] label_mnist_1_split -> label_mnist_1_split_0
I0426 20:48:32.943303 31277 net.cpp:382] label_mnist_1_split -> label_mnist_1_split_1
I0426 20:48:32.943362 31277 net.cpp:124] Setting up label_mnist_1_split
I0426 20:48:32.943367 31277 net.cpp:131] Top shape: 100 (100)
I0426 20:48:32.943370 31277 net.cpp:131] Top shape: 100 (100)
I0426 20:48:32.943373 31277 net.cpp:139] Memory required for data: 314800
I0426 20:48:32.943377 31277 layer_factory.hpp:77] Creating layer ip1
I0426 20:48:32.943382 31277 net.cpp:86] Creating Layer ip1
I0426 20:48:32.943385 31277 net.cpp:408] ip1 <- data
I0426 20:48:32.943389 31277 net.cpp:382] ip1 -> ip1
I0426 20:48:32.943984 31277 net.cpp:124] Setting up ip1
I0426 20:48:32.943992 31277 net.cpp:131] Top shape: 100 100 (10000)
I0426 20:48:32.943995 31277 net.cpp:139] Memory required for data: 354800
I0426 20:48:32.944003 31277 layer_factory.hpp:77] Creating layer relu1
I0426 20:48:32.944008 31277 net.cpp:86] Creating Layer relu1
I0426 20:48:32.944011 31277 net.cpp:408] relu1 <- ip1
I0426 20:48:32.944026 31277 net.cpp:369] relu1 -> ip1 (in-place)
I0426 20:48:32.944979 31277 net.cpp:124] Setting up relu1
I0426 20:48:32.944994 31277 net.cpp:131] Top shape: 100 100 (10000)
I0426 20:48:32.944998 31277 net.cpp:139] Memory required for data: 394800
I0426 20:48:32.945003 31277 layer_factory.hpp:77] Creating layer ip2
I0426 20:48:32.945009 31277 net.cpp:86] Creating Layer ip2
I0426 20:48:32.945013 31277 net.cpp:408] ip2 <- ip1
I0426 20:48:32.945019 31277 net.cpp:382] ip2 -> ip2
I0426 20:48:32.945360 31277 net.cpp:124] Setting up ip2
I0426 20:48:32.945369 31277 net.cpp:131] Top shape: 100 300 (30000)
I0426 20:48:32.945371 31277 net.cpp:139] Memory required for data: 514800
I0426 20:48:32.945379 31277 layer_factory.hpp:77] Creating layer relu2
I0426 20:48:32.945382 31277 net.cpp:86] Creating Layer relu2
I0426 20:48:32.945386 31277 net.cpp:408] relu2 <- ip2
I0426 20:48:32.945389 31277 net.cpp:369] relu2 -> ip2 (in-place)
I0426 20:48:32.945565 31277 net.cpp:124] Setting up relu2
I0426 20:48:32.945574 31277 net.cpp:131] Top shape: 100 300 (30000)
I0426 20:48:32.945576 31277 net.cpp:139] Memory required for data: 634800
I0426 20:48:32.945580 31277 layer_factory.hpp:77] Creating layer ip3
I0426 20:48:32.945585 31277 net.cpp:86] Creating Layer ip3
I0426 20:48:32.945588 31277 net.cpp:408] ip3 <- ip2
I0426 20:48:32.945602 31277 net.cpp:382] ip3 -> ip3
I0426 20:48:32.945705 31277 net.cpp:124] Setting up ip3
I0426 20:48:32.945713 31277 net.cpp:131] Top shape: 100 10 (1000)
I0426 20:48:32.945715 31277 net.cpp:139] Memory required for data: 638800
I0426 20:48:32.945722 31277 layer_factory.hpp:77] Creating layer relu3
I0426 20:48:32.945726 31277 net.cpp:86] Creating Layer relu3
I0426 20:48:32.945729 31277 net.cpp:408] relu3 <- ip3
I0426 20:48:32.945734 31277 net.cpp:369] relu3 -> ip3 (in-place)
I0426 20:48:32.945883 31277 net.cpp:124] Setting up relu3
I0426 20:48:32.945891 31277 net.cpp:131] Top shape: 100 10 (1000)
I0426 20:48:32.945894 31277 net.cpp:139] Memory required for data: 642800
I0426 20:48:32.945896 31277 layer_factory.hpp:77] Creating layer ip3_relu3_0_split
I0426 20:48:32.945902 31277 net.cpp:86] Creating Layer ip3_relu3_0_split
I0426 20:48:32.945904 31277 net.cpp:408] ip3_relu3_0_split <- ip3
I0426 20:48:32.945909 31277 net.cpp:382] ip3_relu3_0_split -> ip3_relu3_0_split_0
I0426 20:48:32.945914 31277 net.cpp:382] ip3_relu3_0_split -> ip3_relu3_0_split_1
I0426 20:48:32.945945 31277 net.cpp:124] Setting up ip3_relu3_0_split
I0426 20:48:32.945950 31277 net.cpp:131] Top shape: 100 10 (1000)
I0426 20:48:32.945953 31277 net.cpp:131] Top shape: 100 10 (1000)
I0426 20:48:32.945956 31277 net.cpp:139] Memory required for data: 650800
I0426 20:48:32.945960 31277 layer_factory.hpp:77] Creating layer accuracy
I0426 20:48:32.945963 31277 net.cpp:86] Creating Layer accuracy
I0426 20:48:32.945966 31277 net.cpp:408] accuracy <- ip3_relu3_0_split_0
I0426 20:48:32.945977 31277 net.cpp:408] accuracy <- label_mnist_1_split_0
I0426 20:48:32.945981 31277 net.cpp:382] accuracy -> accuracy
…
