…
I0426 20:54:26.890070 32668 net.cpp:296] The NetState phase (0) differed from the phase (1) specified by a rule in layer mnist
I0426 20:54:26.890084 32668 net.cpp:296] The NetState phase (0) differed from the phase (1) specified by a rule in layer accuracy
I0426 20:54:26.890166 32668 net.cpp:53] Initializing net from parameters: 
name: "LeNet"
state {
  phase: TRAIN
  level: 0
  stage: ""
}
layer {
  name: "mnist"
  type: "Data"
  top: "data"
  top: "label"
  include {
    phase: TRAIN
  }
  transform_param {
    scale: 0.00390625
  }
  data_param {
    source: "examples/mnist/mnist_train_lmdb"
    batch_size: 64
    backend: LMDB
  }
}
layer {
  name: "conv0"
  type: "Convolution"
  bottom: "data"
  top: "conv0"
  param {
    lr_mult: 1
  }
  param {
    lr_mult: 2
  }
  convolution_param {
    num_output: 50
    kernel_size: 5
    stride: 1
    weight_filler {
      type: "xavier"
    }
    bias_filler {
      type: "constant"
    }
  }
}
layer {
  name: "pool0"
  type: "Pooling"
  bottom: "conv0"
  top: "pool0"
  pooling_param {
    pool: MAX
    kernel_size: 2
    stride: 2
  }
}
layer {
  name: "conv1"
  type: "Convolution"
  bottom: "pool0"
  top: "conv1"
  param {
    lr_mult: 1
  }
  param {
    lr_mult: 2
  }
  convolution_param {
    num_output: 25
    kernel_size: 5
    stride: 1
    weight_filler {
      type: "xavier"
    }
    bias_filler {
      type: "constant"
    }
  }
}
layer {
  name: "pool1"
  type: "Pooling"
  bottom: "conv1"
  top: "pool1"
  pooling_param {
    pool: MAX
    kernel_size: 2
    stride: 2
  }
}
layer {
  name: "ip1"
  type: "InnerProduct"
  bottom: "pool1"
  top: "ip1"
  param {
    lr_mult: 1
  }
  param {
    lr_mult: 2
  }
  inner_product_param {
    num_output: 300
    weight_filler {
      type: "xavier"
    }
    bias_filler {
      type: "constant"
    }
  }
}
layer {
  name: "relu1"
  type: "ReLU"
  bottom: "ip1"
  top: "ip1"
}
layer {
  name: "ip2"
  type: "InnerProduct"
  bottom: "ip1"
  top: "ip2"
  param {
    lr_mult: 1
  }
  param {
    lr_mult: 2
  }
  inner_product_param {
    num_output: 10
    weight_filler {
      type: "xavier"
    }
    bias_filler {
      type: "constant"
    }
  }
}
layer {
  name: "relu2"
  type: "ReLU"
  bottom: "ip2"
  top: "ip2"
}
layer {
  name: "loss"
  type: "SoftmaxWithLoss"
  bottom: "ip2"
  bottom: "label"
  top: "loss"
}
I0426 20:54:26.890228 32668 layer_factory.hpp:77] Creating layer mnist
I0426 20:54:26.890327 32668 db_lmdb.cpp:35] Opened lmdb examples/mnist/mnist_train_lmdb
I0426 20:54:26.890354 32668 net.cpp:86] Creating Layer mnist
I0426 20:54:26.890368 32668 net.cpp:382] mnist -> data
I0426 20:54:26.890410 32668 net.cpp:382] mnist -> label
I0426 20:54:26.891362 32668 data_layer.cpp:45] output data size: 64,1,28,28
I0426 20:54:26.893532 32668 net.cpp:124] Setting up mnist
I0426 20:54:26.893561 32668 net.cpp:131] Top shape: 64 1 28 28 (50176)
I0426 20:54:26.893566 32668 net.cpp:131] Top shape: 64 (64)
I0426 20:54:26.893568 32668 net.cpp:139] Memory required for data: 200960
I0426 20:54:26.893573 32668 layer_factory.hpp:77] Creating layer conv0
I0426 20:54:26.893589 32668 net.cpp:86] Creating Layer conv0
I0426 20:54:26.893592 32668 net.cpp:408] conv0 <- data
I0426 20:54:26.893604 32668 net.cpp:382] conv0 -> conv0
I0426 20:54:27.125941 32668 net.cpp:124] Setting up conv0
I0426 20:54:27.125967 32668 net.cpp:131] Top shape: 64 50 24 24 (1843200)
I0426 20:54:27.125970 32668 net.cpp:139] Memory required for data: 7573760
I0426 20:54:27.126019 32668 layer_factory.hpp:77] Creating layer pool0
I0426 20:54:27.126034 32668 net.cpp:86] Creating Layer pool0
I0426 20:54:27.126039 32668 net.cpp:408] pool0 <- conv0
I0426 20:54:27.126046 32668 net.cpp:382] pool0 -> pool0
I0426 20:54:27.126106 32668 net.cpp:124] Setting up pool0
I0426 20:54:27.126143 32668 net.cpp:131] Top shape: 64 50 12 12 (460800)
I0426 20:54:27.126148 32668 net.cpp:139] Memory required for data: 9416960
I0426 20:54:27.126153 32668 layer_factory.hpp:77] Creating layer conv1
I0426 20:54:27.126168 32668 net.cpp:86] Creating Layer conv1
I0426 20:54:27.126174 32668 net.cpp:408] conv1 <- pool0
I0426 20:54:27.126183 32668 net.cpp:382] conv1 -> conv1
I0426 20:54:27.128270 32668 net.cpp:124] Setting up conv1
I0426 20:54:27.128299 32668 net.cpp:131] Top shape: 64 25 8 8 (102400)
I0426 20:54:27.128303 32668 net.cpp:139] Memory required for data: 9826560
I0426 20:54:27.128310 32668 layer_factory.hpp:77] Creating layer pool1
I0426 20:54:27.128317 32668 net.cpp:86] Creating Layer pool1
I0426 20:54:27.128321 32668 net.cpp:408] pool1 <- conv1
I0426 20:54:27.128325 32668 net.cpp:382] pool1 -> pool1
I0426 20:54:27.128371 32668 net.cpp:124] Setting up pool1
I0426 20:54:27.128396 32668 net.cpp:131] Top shape: 64 25 4 4 (25600)
I0426 20:54:27.128401 32668 net.cpp:139] Memory required for data: 9928960
I0426 20:54:27.128406 32668 layer_factory.hpp:77] Creating layer ip1
I0426 20:54:27.128417 32668 net.cpp:86] Creating Layer ip1
I0426 20:54:27.128422 32668 net.cpp:408] ip1 <- pool1
I0426 20:54:27.128429 32668 net.cpp:382] ip1 -> ip1
I0426 20:54:27.129992 32668 net.cpp:124] Setting up ip1
I0426 20:54:27.130004 32668 net.cpp:131] Top shape: 64 300 (19200)
I0426 20:54:27.130008 32668 net.cpp:139] Memory required for data: 10005760
I0426 20:54:27.130015 32668 layer_factory.hpp:77] Creating layer relu1
I0426 20:54:27.130023 32668 net.cpp:86] Creating Layer relu1
I0426 20:54:27.130028 32668 net.cpp:408] relu1 <- ip1
I0426 20:54:27.130033 32668 net.cpp:369] relu1 -> ip1 (in-place)
I0426 20:54:27.130230 32668 net.cpp:124] Setting up relu1
I0426 20:54:27.130240 32668 net.cpp:131] Top shape: 64 300 (19200)
I0426 20:54:27.130244 32668 net.cpp:139] Memory required for data: 10082560
I0426 20:54:27.130246 32668 layer_factory.hpp:77] Creating layer ip2
I0426 20:54:27.130255 32668 net.cpp:86] Creating Layer ip2
I0426 20:54:27.130260 32668 net.cpp:408] ip2 <- ip1
I0426 20:54:27.130270 32668 net.cpp:382] ip2 -> ip2
I0426 20:54:27.130410 32668 net.cpp:124] Setting up ip2
I0426 20:54:27.130419 32668 net.cpp:131] Top shape: 64 10 (640)
I0426 20:54:27.130421 32668 net.cpp:139] Memory required for data: 10085120
I0426 20:54:27.130429 32668 layer_factory.hpp:77] Creating layer relu2
I0426 20:54:27.130437 32668 net.cpp:86] Creating Layer relu2
I0426 20:54:27.130444 32668 net.cpp:408] relu2 <- ip2
I0426 20:54:27.130450 32668 net.cpp:369] relu2 -> ip2 (in-place)
I0426 20:54:27.131234 32668 net.cpp:124] Setting up relu2
I0426 20:54:27.131247 32668 net.cpp:131] Top shape: 64 10 (640)
I0426 20:54:27.131264 32668 net.cpp:139] Memory required for data: 10087680
I0426 20:54:27.131268 32668 layer_factory.hpp:77] Creating layer loss
I0426 20:54:27.131274 32668 net.cpp:86] Creating Layer loss
I0426 20:54:27.131278 32668 net.cpp:408] loss <- ip2
I0426 20:54:27.131283 32668 net.cpp:408] loss <- label
I0426 20:54:27.131288 32668 net.cpp:382] loss -> loss
I0426 20:54:27.131304 32668 layer_factory.hpp:77] Creating layer loss
…
I0426 20:54:27.131978 32668 solver.cpp:173] Creating test net (#0) specified by net file: ECE595/mnist/train_test/var_everything/lenet_train_test159.prototxt
I0426 20:54:27.132009 32668 net.cpp:296] The NetState phase (1) differed from the phase (0) specified by a rule in layer mnist
I0426 20:54:27.132105 32668 net.cpp:53] Initializing net from parameters: 
name: "LeNet"
state {
  phase: TEST
}
layer {
  name: "mnist"
  type: "Data"
  top: "data"
  top: "label"
  include {
    phase: TEST
  }
  transform_param {
    scale: 0.00390625
  }
  data_param {
    source: "examples/mnist/mnist_test_lmdb"
    batch_size: 100
    backend: LMDB
  }
}
layer {
  name: "conv0"
  type: "Convolution"
  bottom: "data"
  top: "conv0"
  param {
    lr_mult: 1
  }
  param {
    lr_mult: 2
  }
  convolution_param {
    num_output: 50
    kernel_size: 5
    stride: 1
    weight_filler {
      type: "xavier"
    }
    bias_filler {
      type: "constant"
    }
  }
}
layer {
  name: "pool0"
  type: "Pooling"
  bottom: "conv0"
  top: "pool0"
  pooling_param {
    pool: MAX
    kernel_size: 2
    stride: 2
  }
}
layer {
  name: "conv1"
  type: "Convolution"
  bottom: "pool0"
  top: "conv1"
  param {
    lr_mult: 1
  }
  param {
    lr_mult: 2
  }
  convolution_param {
    num_output: 25
    kernel_size: 5
    stride: 1
    weight_filler {
      type: "xavier"
    }
    bias_filler {
      type: "constant"
    }
  }
}
layer {
  name: "pool1"
  type: "Pooling"
  bottom: "conv1"
  top: "pool1"
  pooling_param {
    pool: MAX
    kernel_size: 2
    stride: 2
  }
}
layer {
  name: "ip1"
  type: "InnerProduct"
  bottom: "pool1"
  top: "ip1"
  param {
    lr_mult: 1
  }
  param {
    lr_mult: 2
  }
  inner_product_param {
    num_output: 300
    weight_filler {
      type: "xavier"
    }
    bias_filler {
      type: "constant"
    }
  }
}
layer {
  name: "relu1"
  type: "ReLU"
  bottom: "ip1"
  top: "ip1"
}
layer {
  name: "ip2"
  type: "InnerProduct"
  bottom: "ip1"
  top: "ip2"
  param {
    lr_mult: 1
  }
  param {
    lr_mult: 2
  }
  inner_product_param {
    num_output: 10
    weight_filler {
      type: "xavier"
    }
    bias_filler {
      type: "constant"
    }
  }
}
layer {
  name: "relu2"
  type: "ReLU"
  bottom: "ip2"
  top: "ip2"
}
layer {
  name: "accuracy"
  type: "Accuracy"
  bottom: "ip2"
  bottom: "label"
  top: "accuracy"
  include {
    phase: TEST
  }
}
layer {
  name: "loss"
  type: "SoftmaxWithLoss"
  bottom: "ip2"
  bottom: "label"
  top: "loss"
}
I0426 20:54:27.132192 32668 layer_factory.hpp:77] Creating layer mnist
I0426 20:54:27.132246 32668 db_lmdb.cpp:35] Opened lmdb examples/mnist/mnist_test_lmdb
I0426 20:54:27.132262 32668 net.cpp:86] Creating Layer mnist
I0426 20:54:27.132271 32668 net.cpp:382] mnist -> data
I0426 20:54:27.132282 32668 net.cpp:382] mnist -> label
I0426 20:54:27.132396 32668 data_layer.cpp:45] output data size: 100,1,28,28
I0426 20:54:27.133808 32668 net.cpp:124] Setting up mnist
I0426 20:54:27.133839 32668 net.cpp:131] Top shape: 100 1 28 28 (78400)
I0426 20:54:27.133846 32668 net.cpp:131] Top shape: 100 (100)
I0426 20:54:27.133847 32668 net.cpp:139] Memory required for data: 314000
I0426 20:54:27.133852 32668 layer_factory.hpp:77] Creating layer label_mnist_1_split
I0426 20:54:27.133857 32668 net.cpp:86] Creating Layer label_mnist_1_split
I0426 20:54:27.133860 32668 net.cpp:408] label_mnist_1_split <- label
I0426 20:54:27.133880 32668 net.cpp:382] label_mnist_1_split -> label_mnist_1_split_0
I0426 20:54:27.133888 32668 net.cpp:382] label_mnist_1_split -> label_mnist_1_split_1
I0426 20:54:27.133980 32668 net.cpp:124] Setting up label_mnist_1_split
I0426 20:54:27.133988 32668 net.cpp:131] Top shape: 100 (100)
I0426 20:54:27.133992 32668 net.cpp:131] Top shape: 100 (100)
I0426 20:54:27.133996 32668 net.cpp:139] Memory required for data: 314800
I0426 20:54:27.133999 32668 layer_factory.hpp:77] Creating layer conv0
I0426 20:54:27.134011 32668 net.cpp:86] Creating Layer conv0
I0426 20:54:27.134017 32668 net.cpp:408] conv0 <- data
I0426 20:54:27.134026 32668 net.cpp:382] conv0 -> conv0
I0426 20:54:27.135613 32668 net.cpp:124] Setting up conv0
I0426 20:54:27.135627 32668 net.cpp:131] Top shape: 100 50 24 24 (2880000)
I0426 20:54:27.135644 32668 net.cpp:139] Memory required for data: 11834800
I0426 20:54:27.135653 32668 layer_factory.hpp:77] Creating layer pool0
I0426 20:54:27.135659 32668 net.cpp:86] Creating Layer pool0
I0426 20:54:27.135663 32668 net.cpp:408] pool0 <- conv0
I0426 20:54:27.135666 32668 net.cpp:382] pool0 -> pool0
I0426 20:54:27.135710 32668 net.cpp:124] Setting up pool0
I0426 20:54:27.135720 32668 net.cpp:131] Top shape: 100 50 12 12 (720000)
I0426 20:54:27.135723 32668 net.cpp:139] Memory required for data: 14714800
I0426 20:54:27.135728 32668 layer_factory.hpp:77] Creating layer conv1
I0426 20:54:27.135740 32668 net.cpp:86] Creating Layer conv1
I0426 20:54:27.135761 32668 net.cpp:408] conv1 <- pool0
I0426 20:54:27.135771 32668 net.cpp:382] conv1 -> conv1
I0426 20:54:27.137495 32668 net.cpp:124] Setting up conv1
I0426 20:54:27.137511 32668 net.cpp:131] Top shape: 100 25 8 8 (160000)
I0426 20:54:27.137528 32668 net.cpp:139] Memory required for data: 15354800
I0426 20:54:27.137537 32668 layer_factory.hpp:77] Creating layer pool1
I0426 20:54:27.137543 32668 net.cpp:86] Creating Layer pool1
I0426 20:54:27.137547 32668 net.cpp:408] pool1 <- conv1
I0426 20:54:27.137552 32668 net.cpp:382] pool1 -> pool1
I0426 20:54:27.137611 32668 net.cpp:124] Setting up pool1
I0426 20:54:27.137621 32668 net.cpp:131] Top shape: 100 25 4 4 (40000)
I0426 20:54:27.137626 32668 net.cpp:139] Memory required for data: 15514800
I0426 20:54:27.137631 32668 layer_factory.hpp:77] Creating layer ip1
I0426 20:54:27.137641 32668 net.cpp:86] Creating Layer ip1
I0426 20:54:27.137646 32668 net.cpp:408] ip1 <- pool1
I0426 20:54:27.137653 32668 net.cpp:382] ip1 -> ip1
I0426 20:54:27.139170 32668 net.cpp:124] Setting up ip1
I0426 20:54:27.139197 32668 net.cpp:131] Top shape: 100 300 (30000)
I0426 20:54:27.139201 32668 net.cpp:139] Memory required for data: 15634800
I0426 20:54:27.139209 32668 layer_factory.hpp:77] Creating layer relu1
I0426 20:54:27.139214 32668 net.cpp:86] Creating Layer relu1
I0426 20:54:27.139217 32668 net.cpp:408] relu1 <- ip1
I0426 20:54:27.139222 32668 net.cpp:369] relu1 -> ip1 (in-place)
I0426 20:54:27.139410 32668 net.cpp:124] Setting up relu1
I0426 20:54:27.139420 32668 net.cpp:131] Top shape: 100 300 (30000)
I0426 20:54:27.139423 32668 net.cpp:139] Memory required for data: 15754800
I0426 20:54:27.139426 32668 layer_factory.hpp:77] Creating layer ip2
I0426 20:54:27.139436 32668 net.cpp:86] Creating Layer ip2
I0426 20:54:27.139442 32668 net.cpp:408] ip2 <- ip1
I0426 20:54:27.139451 32668 net.cpp:382] ip2 -> ip2
I0426 20:54:27.139602 32668 net.cpp:124] Setting up ip2
I0426 20:54:27.139611 32668 net.cpp:131] Top shape: 100 10 (1000)
I0426 20:54:27.139613 32668 net.cpp:139] Memory required for data: 15758800
I0426 20:54:27.139619 32668 layer_factory.hpp:77] Creating layer relu2
I0426 20:54:27.139626 32668 net.cpp:86] Creating Layer relu2
I0426 20:54:27.139631 32668 net.cpp:408] relu2 <- ip2
I0426 20:54:27.139637 32668 net.cpp:369] relu2 -> ip2 (in-place)
I0426 20:54:27.139808 32668 net.cpp:124] Setting up relu2
I0426 20:54:27.139817 32668 net.cpp:131] Top shape: 100 10 (1000)
I0426 20:54:27.139822 32668 net.cpp:139] Memory required for data: 15762800
I0426 20:54:27.139824 32668 layer_factory.hpp:77] Creating layer ip2_relu2_0_split
I0426 20:54:27.139832 32668 net.cpp:86] Creating Layer ip2_relu2_0_split
I0426 20:54:27.139837 32668 net.cpp:408] ip2_relu2_0_split <- ip2
I0426 20:54:27.139843 32668 net.cpp:382] ip2_relu2_0_split -> ip2_relu2_0_split_0
I0426 20:54:27.139865 32668 net.cpp:382] ip2_relu2_0_split -> ip2_relu2_0_split_1
I0426 20:54:27.139914 32668 net.cpp:124] Setting up ip2_relu2_0_split
I0426 20:54:27.139924 32668 net.cpp:131] Top shape: 100 10 (1000)
I0426 20:54:27.139926 32668 net.cpp:131] Top shape: 100 10 (1000)
I0426 20:54:27.139930 32668 net.cpp:139] Memory required for data: 15770800
I0426 20:54:27.139935 32668 layer_factory.hpp:77] Creating layer accuracy
I0426 20:54:27.139941 32668 net.cpp:86] Creating Layer accuracy
I0426 20:54:27.139946 32668 net.cpp:408] accuracy <- ip2_relu2_0_split_0
I0426 20:54:27.139953 32668 net.cpp:408] accuracy <- label_mnist_1_split_0
I0426 20:54:27.139961 32668 net.cpp:382] accuracy -> accuracy
…
