…
I0426 20:50:46.422844 31828 net.cpp:296] The NetState phase (0) differed from the phase (1) specified by a rule in layer mnist
I0426 20:50:46.422873 31828 net.cpp:296] The NetState phase (0) differed from the phase (1) specified by a rule in layer accuracy
I0426 20:50:46.422966 31828 net.cpp:53] Initializing net from parameters: 
name: "LeNet"
state {
  phase: TRAIN
  level: 0
  stage: ""
}
layer {
  name: "mnist"
  type: "Data"
  top: "data"
  top: "label"
  include {
    phase: TRAIN
  }
  transform_param {
    scale: 0.00390625
  }
  data_param {
    source: "examples/mnist/mnist_train_lmdb"
    batch_size: 64
    backend: LMDB
  }
}
layer {
  name: "conv0"
  type: "Convolution"
  bottom: "data"
  top: "conv0"
  param {
    lr_mult: 1
  }
  param {
    lr_mult: 2
  }
  convolution_param {
    num_output: 10
    kernel_size: 5
    stride: 1
    weight_filler {
      type: "xavier"
    }
    bias_filler {
      type: "constant"
    }
  }
}
layer {
  name: "pool0"
  type: "Pooling"
  bottom: "conv0"
  top: "pool0"
  pooling_param {
    pool: MAX
    kernel_size: 2
    stride: 2
  }
}
layer {
  name: "conv1"
  type: "Convolution"
  bottom: "pool0"
  top: "conv1"
  param {
    lr_mult: 1
  }
  param {
    lr_mult: 2
  }
  convolution_param {
    num_output: 10
    kernel_size: 5
    stride: 1
    weight_filler {
      type: "xavier"
    }
    bias_filler {
      type: "constant"
    }
  }
}
layer {
  name: "pool1"
  type: "Pooling"
  bottom: "conv1"
  top: "pool1"
  pooling_param {
    pool: MAX
    kernel_size: 2
    stride: 2
  }
}
layer {
  name: "ip1"
  type: "InnerProduct"
  bottom: "pool1"
  top: "ip1"
  param {
    lr_mult: 1
  }
  param {
    lr_mult: 2
  }
  inner_product_param {
    num_output: 300
    weight_filler {
      type: "xavier"
    }
    bias_filler {
      type: "constant"
    }
  }
}
layer {
  name: "relu1"
  type: "ReLU"
  bottom: "ip1"
  top: "ip1"
}
layer {
  name: "ip2"
  type: "InnerProduct"
  bottom: "ip1"
  top: "ip2"
  param {
    lr_mult: 1
  }
  param {
    lr_mult: 2
  }
  inner_product_param {
    num_output: 300
    weight_filler {
      type: "xavier"
    }
    bias_filler {
      type: "constant"
    }
  }
}
layer {
  name: "relu2"
  type: "ReLU"
  bottom: "ip2"
  top: "ip2"
}
layer {
  name: "ip3"
  type: "InnerProduct"
  bottom: "ip2"
  top: "ip3"
  param {
    lr_mult: 1
  }
  param {
    lr_mult: 2
  }
  inner_product_param {
    num_output: 10
    weight_filler {
      type: "xavier"
    }
    bias_filler {
      type: "constant"
    }
  }
}
layer {
  name: "relu3"
  type: "ReLU"
  bottom: "ip3"
  top: "ip3"
}
layer {
  name: "loss"
  type: "SoftmaxWithLoss"
  bottom: "ip3"
  bottom: "label"
  top: "loss"
}
I0426 20:50:46.423025 31828 layer_factory.hpp:77] Creating layer mnist
I0426 20:50:46.423105 31828 db_lmdb.cpp:35] Opened lmdb examples/mnist/mnist_train_lmdb
I0426 20:50:46.423141 31828 net.cpp:86] Creating Layer mnist
I0426 20:50:46.423147 31828 net.cpp:382] mnist -> data
I0426 20:50:46.423166 31828 net.cpp:382] mnist -> label
I0426 20:50:46.424095 31828 data_layer.cpp:45] output data size: 64,1,28,28
I0426 20:50:46.426404 31828 net.cpp:124] Setting up mnist
I0426 20:50:46.426450 31828 net.cpp:131] Top shape: 64 1 28 28 (50176)
I0426 20:50:46.426455 31828 net.cpp:131] Top shape: 64 (64)
I0426 20:50:46.426458 31828 net.cpp:139] Memory required for data: 200960
I0426 20:50:46.426465 31828 layer_factory.hpp:77] Creating layer conv0
I0426 20:50:46.426492 31828 net.cpp:86] Creating Layer conv0
I0426 20:50:46.426511 31828 net.cpp:408] conv0 <- data
I0426 20:50:46.426520 31828 net.cpp:382] conv0 -> conv0
I0426 20:50:46.662180 31828 net.cpp:124] Setting up conv0
I0426 20:50:46.662223 31828 net.cpp:131] Top shape: 64 10 24 24 (368640)
I0426 20:50:46.662227 31828 net.cpp:139] Memory required for data: 1675520
I0426 20:50:46.662242 31828 layer_factory.hpp:77] Creating layer pool0
I0426 20:50:46.662256 31828 net.cpp:86] Creating Layer pool0
I0426 20:50:46.662259 31828 net.cpp:408] pool0 <- conv0
I0426 20:50:46.662264 31828 net.cpp:382] pool0 -> pool0
I0426 20:50:46.662330 31828 net.cpp:124] Setting up pool0
I0426 20:50:46.662348 31828 net.cpp:131] Top shape: 64 10 12 12 (92160)
I0426 20:50:46.662350 31828 net.cpp:139] Memory required for data: 2044160
I0426 20:50:46.662353 31828 layer_factory.hpp:77] Creating layer conv1
I0426 20:50:46.662365 31828 net.cpp:86] Creating Layer conv1
I0426 20:50:46.662369 31828 net.cpp:408] conv1 <- pool0
I0426 20:50:46.662384 31828 net.cpp:382] conv1 -> conv1
I0426 20:50:46.665153 31828 net.cpp:124] Setting up conv1
I0426 20:50:46.665166 31828 net.cpp:131] Top shape: 64 10 8 8 (40960)
I0426 20:50:46.665170 31828 net.cpp:139] Memory required for data: 2208000
I0426 20:50:46.665179 31828 layer_factory.hpp:77] Creating layer pool1
I0426 20:50:46.665186 31828 net.cpp:86] Creating Layer pool1
I0426 20:50:46.665189 31828 net.cpp:408] pool1 <- conv1
I0426 20:50:46.665194 31828 net.cpp:382] pool1 -> pool1
I0426 20:50:46.665247 31828 net.cpp:124] Setting up pool1
I0426 20:50:46.665253 31828 net.cpp:131] Top shape: 64 10 4 4 (10240)
I0426 20:50:46.665256 31828 net.cpp:139] Memory required for data: 2248960
I0426 20:50:46.665259 31828 layer_factory.hpp:77] Creating layer ip1
I0426 20:50:46.665271 31828 net.cpp:86] Creating Layer ip1
I0426 20:50:46.665273 31828 net.cpp:408] ip1 <- pool1
I0426 20:50:46.665278 31828 net.cpp:382] ip1 -> ip1
I0426 20:50:46.665668 31828 net.cpp:124] Setting up ip1
I0426 20:50:46.665675 31828 net.cpp:131] Top shape: 64 300 (19200)
I0426 20:50:46.665694 31828 net.cpp:139] Memory required for data: 2325760
I0426 20:50:46.665717 31828 layer_factory.hpp:77] Creating layer relu1
I0426 20:50:46.665741 31828 net.cpp:86] Creating Layer relu1
I0426 20:50:46.665746 31828 net.cpp:408] relu1 <- ip1
I0426 20:50:46.665766 31828 net.cpp:369] relu1 -> ip1 (in-place)
I0426 20:50:46.665958 31828 net.cpp:124] Setting up relu1
I0426 20:50:46.665967 31828 net.cpp:131] Top shape: 64 300 (19200)
I0426 20:50:46.665971 31828 net.cpp:139] Memory required for data: 2402560
I0426 20:50:46.665976 31828 layer_factory.hpp:77] Creating layer ip2
I0426 20:50:46.665982 31828 net.cpp:86] Creating Layer ip2
I0426 20:50:46.665985 31828 net.cpp:408] ip2 <- ip1
I0426 20:50:46.665992 31828 net.cpp:382] ip2 -> ip2
I0426 20:50:46.667486 31828 net.cpp:124] Setting up ip2
I0426 20:50:46.667497 31828 net.cpp:131] Top shape: 64 300 (19200)
I0426 20:50:46.667500 31828 net.cpp:139] Memory required for data: 2479360
I0426 20:50:46.667506 31828 layer_factory.hpp:77] Creating layer relu2
I0426 20:50:46.667512 31828 net.cpp:86] Creating Layer relu2
I0426 20:50:46.667515 31828 net.cpp:408] relu2 <- ip2
I0426 20:50:46.667520 31828 net.cpp:369] relu2 -> ip2 (in-place)
I0426 20:50:46.668373 31828 net.cpp:124] Setting up relu2
I0426 20:50:46.668385 31828 net.cpp:131] Top shape: 64 300 (19200)
I0426 20:50:46.668388 31828 net.cpp:139] Memory required for data: 2556160
I0426 20:50:46.668391 31828 layer_factory.hpp:77] Creating layer ip3
I0426 20:50:46.668400 31828 net.cpp:86] Creating Layer ip3
I0426 20:50:46.668402 31828 net.cpp:408] ip3 <- ip2
I0426 20:50:46.668407 31828 net.cpp:382] ip3 -> ip3
I0426 20:50:46.668543 31828 net.cpp:124] Setting up ip3
I0426 20:50:46.668551 31828 net.cpp:131] Top shape: 64 10 (640)
I0426 20:50:46.668555 31828 net.cpp:139] Memory required for data: 2558720
I0426 20:50:46.668561 31828 layer_factory.hpp:77] Creating layer relu3
I0426 20:50:46.668566 31828 net.cpp:86] Creating Layer relu3
I0426 20:50:46.668570 31828 net.cpp:408] relu3 <- ip3
I0426 20:50:46.668575 31828 net.cpp:369] relu3 -> ip3 (in-place)
I0426 20:50:46.668740 31828 net.cpp:124] Setting up relu3
I0426 20:50:46.668748 31828 net.cpp:131] Top shape: 64 10 (640)
I0426 20:50:46.668751 31828 net.cpp:139] Memory required for data: 2561280
I0426 20:50:46.668754 31828 layer_factory.hpp:77] Creating layer loss
I0426 20:50:46.668761 31828 net.cpp:86] Creating Layer loss
I0426 20:50:46.668763 31828 net.cpp:408] loss <- ip3
I0426 20:50:46.668767 31828 net.cpp:408] loss <- label
I0426 20:50:46.668772 31828 net.cpp:382] loss -> loss
I0426 20:50:46.668790 31828 layer_factory.hpp:77] Creating layer loss
…
I0426 20:50:46.669565 31828 solver.cpp:173] Creating test net (#0) specified by net file: ECE595/mnist/train_test/var_everything/lenet_train_test69.prototxt
I0426 20:50:46.669607 31828 net.cpp:296] The NetState phase (1) differed from the phase (0) specified by a rule in layer mnist
I0426 20:50:46.669704 31828 net.cpp:53] Initializing net from parameters: 
name: "LeNet"
state {
  phase: TEST
}
layer {
  name: "mnist"
  type: "Data"
  top: "data"
  top: "label"
  include {
    phase: TEST
  }
  transform_param {
    scale: 0.00390625
  }
  data_param {
    source: "examples/mnist/mnist_test_lmdb"
    batch_size: 100
    backend: LMDB
  }
}
layer {
  name: "conv0"
  type: "Convolution"
  bottom: "data"
  top: "conv0"
  param {
    lr_mult: 1
  }
  param {
    lr_mult: 2
  }
  convolution_param {
    num_output: 10
    kernel_size: 5
    stride: 1
    weight_filler {
      type: "xavier"
    }
    bias_filler {
      type: "constant"
    }
  }
}
layer {
  name: "pool0"
  type: "Pooling"
  bottom: "conv0"
  top: "pool0"
  pooling_param {
    pool: MAX
    kernel_size: 2
    stride: 2
  }
}
layer {
  name: "conv1"
  type: "Convolution"
  bottom: "pool0"
  top: "conv1"
  param {
    lr_mult: 1
  }
  param {
    lr_mult: 2
  }
  convolution_param {
    num_output: 10
    kernel_size: 5
    stride: 1
    weight_filler {
      type: "xavier"
    }
    bias_filler {
      type: "constant"
    }
  }
}
layer {
  name: "pool1"
  type: "Pooling"
  bottom: "conv1"
  top: "pool1"
  pooling_param {
    pool: MAX
    kernel_size: 2
    stride: 2
  }
}
layer {
  name: "ip1"
  type: "InnerProduct"
  bottom: "pool1"
  top: "ip1"
  param {
    lr_mult: 1
  }
  param {
    lr_mult: 2
  }
  inner_product_param {
    num_output: 300
    weight_filler {
      type: "xavier"
    }
    bias_filler {
      type: "constant"
    }
  }
}
layer {
  name: "relu1"
  type: "ReLU"
  bottom: "ip1"
  top: "ip1"
}
layer {
  name: "ip2"
  type: "InnerProduct"
  bottom: "ip1"
  top: "ip2"
  param {
    lr_mult: 1
  }
  param {
    lr_mult: 2
  }
  inner_product_param {
    num_output: 300
    weight_filler {
      type: "xavier"
    }
    bias_filler {
      type: "constant"
    }
  }
}
layer {
  name: "relu2"
  type: "ReLU"
  bottom: "ip2"
  top: "ip2"
}
layer {
  name: "ip3"
  type: "InnerProduct"
  bottom: "ip2"
  top: "ip3"
  param {
    lr_mult: 1
  }
  param {
    lr_mult: 2
  }
  inner_product_param {
    num_output: 10
    weight_filler {
      type: "xavier"
    }
    bias_filler {
      type: "constant"
    }
  }
}
layer {
  name: "relu3"
  type: "ReLU"
  bottom: "ip3"
  top: "ip3"
}
layer {
  name: "accuracy"
  type: "Accuracy"
  bottom: "ip3"
  bottom: "label"
  top: "accuracy"
  include {
    phase: TEST
  }
}
layer {
  name: "loss"
  type: "SoftmaxWithLoss"
  bottom: "ip3"
  bottom: "label"
  top: "loss"
}
I0426 20:50:46.669786 31828 layer_factory.hpp:77] Creating layer mnist
I0426 20:50:46.669829 31828 db_lmdb.cpp:35] Opened lmdb examples/mnist/mnist_test_lmdb
I0426 20:50:46.669842 31828 net.cpp:86] Creating Layer mnist
I0426 20:50:46.669847 31828 net.cpp:382] mnist -> data
I0426 20:50:46.669855 31828 net.cpp:382] mnist -> label
I0426 20:50:46.669941 31828 data_layer.cpp:45] output data size: 100,1,28,28
I0426 20:50:46.671118 31828 net.cpp:124] Setting up mnist
I0426 20:50:46.671147 31828 net.cpp:131] Top shape: 100 1 28 28 (78400)
I0426 20:50:46.671152 31828 net.cpp:131] Top shape: 100 (100)
I0426 20:50:46.671170 31828 net.cpp:139] Memory required for data: 314000
I0426 20:50:46.671175 31828 layer_factory.hpp:77] Creating layer label_mnist_1_split
I0426 20:50:46.671200 31828 net.cpp:86] Creating Layer label_mnist_1_split
I0426 20:50:46.671205 31828 net.cpp:408] label_mnist_1_split <- label
I0426 20:50:46.671212 31828 net.cpp:382] label_mnist_1_split -> label_mnist_1_split_0
I0426 20:50:46.671219 31828 net.cpp:382] label_mnist_1_split -> label_mnist_1_split_1
I0426 20:50:46.671306 31828 net.cpp:124] Setting up label_mnist_1_split
I0426 20:50:46.671315 31828 net.cpp:131] Top shape: 100 (100)
I0426 20:50:46.671319 31828 net.cpp:131] Top shape: 100 (100)
I0426 20:50:46.671322 31828 net.cpp:139] Memory required for data: 314800
I0426 20:50:46.671325 31828 layer_factory.hpp:77] Creating layer conv0
I0426 20:50:46.671335 31828 net.cpp:86] Creating Layer conv0
I0426 20:50:46.671339 31828 net.cpp:408] conv0 <- data
I0426 20:50:46.671344 31828 net.cpp:382] conv0 -> conv0
I0426 20:50:46.672999 31828 net.cpp:124] Setting up conv0
I0426 20:50:46.673012 31828 net.cpp:131] Top shape: 100 10 24 24 (576000)
I0426 20:50:46.673027 31828 net.cpp:139] Memory required for data: 2618800
I0426 20:50:46.673036 31828 layer_factory.hpp:77] Creating layer pool0
I0426 20:50:46.673043 31828 net.cpp:86] Creating Layer pool0
I0426 20:50:46.673060 31828 net.cpp:408] pool0 <- conv0
I0426 20:50:46.673066 31828 net.cpp:382] pool0 -> pool0
I0426 20:50:46.673104 31828 net.cpp:124] Setting up pool0
I0426 20:50:46.673110 31828 net.cpp:131] Top shape: 100 10 12 12 (144000)
I0426 20:50:46.673113 31828 net.cpp:139] Memory required for data: 3194800
I0426 20:50:46.673116 31828 layer_factory.hpp:77] Creating layer conv1
I0426 20:50:46.673126 31828 net.cpp:86] Creating Layer conv1
I0426 20:50:46.673130 31828 net.cpp:408] conv1 <- pool0
I0426 20:50:46.673135 31828 net.cpp:382] conv1 -> conv1
I0426 20:50:46.675545 31828 net.cpp:124] Setting up conv1
I0426 20:50:46.675559 31828 net.cpp:131] Top shape: 100 10 8 8 (64000)
I0426 20:50:46.675575 31828 net.cpp:139] Memory required for data: 3450800
I0426 20:50:46.675601 31828 layer_factory.hpp:77] Creating layer pool1
I0426 20:50:46.675623 31828 net.cpp:86] Creating Layer pool1
I0426 20:50:46.675627 31828 net.cpp:408] pool1 <- conv1
I0426 20:50:46.675632 31828 net.cpp:382] pool1 -> pool1
I0426 20:50:46.675673 31828 net.cpp:124] Setting up pool1
I0426 20:50:46.675681 31828 net.cpp:131] Top shape: 100 10 4 4 (16000)
I0426 20:50:46.675684 31828 net.cpp:139] Memory required for data: 3514800
I0426 20:50:46.675688 31828 layer_factory.hpp:77] Creating layer ip1
I0426 20:50:46.675694 31828 net.cpp:86] Creating Layer ip1
I0426 20:50:46.675698 31828 net.cpp:408] ip1 <- pool1
I0426 20:50:46.675703 31828 net.cpp:382] ip1 -> ip1
I0426 20:50:46.676136 31828 net.cpp:124] Setting up ip1
I0426 20:50:46.676143 31828 net.cpp:131] Top shape: 100 300 (30000)
I0426 20:50:46.676172 31828 net.cpp:139] Memory required for data: 3634800
I0426 20:50:46.676182 31828 layer_factory.hpp:77] Creating layer relu1
I0426 20:50:46.676187 31828 net.cpp:86] Creating Layer relu1
I0426 20:50:46.676190 31828 net.cpp:408] relu1 <- ip1
I0426 20:50:46.676198 31828 net.cpp:369] relu1 -> ip1 (in-place)
I0426 20:50:46.676373 31828 net.cpp:124] Setting up relu1
I0426 20:50:46.676383 31828 net.cpp:131] Top shape: 100 300 (30000)
I0426 20:50:46.676386 31828 net.cpp:139] Memory required for data: 3754800
I0426 20:50:46.676389 31828 layer_factory.hpp:77] Creating layer ip2
I0426 20:50:46.676398 31828 net.cpp:86] Creating Layer ip2
I0426 20:50:46.676403 31828 net.cpp:408] ip2 <- ip1
I0426 20:50:46.676407 31828 net.cpp:382] ip2 -> ip2
I0426 20:50:46.677130 31828 net.cpp:124] Setting up ip2
I0426 20:50:46.677140 31828 net.cpp:131] Top shape: 100 300 (30000)
I0426 20:50:46.677144 31828 net.cpp:139] Memory required for data: 3874800
I0426 20:50:46.677165 31828 layer_factory.hpp:77] Creating layer relu2
I0426 20:50:46.677209 31828 net.cpp:86] Creating Layer relu2
I0426 20:50:46.677214 31828 net.cpp:408] relu2 <- ip2
I0426 20:50:46.677218 31828 net.cpp:369] relu2 -> ip2 (in-place)
I0426 20:50:46.677381 31828 net.cpp:124] Setting up relu2
I0426 20:50:46.677390 31828 net.cpp:131] Top shape: 100 300 (30000)
I0426 20:50:46.677394 31828 net.cpp:139] Memory required for data: 3994800
I0426 20:50:46.677397 31828 layer_factory.hpp:77] Creating layer ip3
I0426 20:50:46.677404 31828 net.cpp:86] Creating Layer ip3
I0426 20:50:46.677407 31828 net.cpp:408] ip3 <- ip2
I0426 20:50:46.677417 31828 net.cpp:382] ip3 -> ip3
I0426 20:50:46.677548 31828 net.cpp:124] Setting up ip3
I0426 20:50:46.677556 31828 net.cpp:131] Top shape: 100 10 (1000)
I0426 20:50:46.677558 31828 net.cpp:139] Memory required for data: 3998800
I0426 20:50:46.677567 31828 layer_factory.hpp:77] Creating layer relu3
I0426 20:50:46.677572 31828 net.cpp:86] Creating Layer relu3
I0426 20:50:46.677575 31828 net.cpp:408] relu3 <- ip3
I0426 20:50:46.677579 31828 net.cpp:369] relu3 -> ip3 (in-place)
I0426 20:50:46.678527 31828 net.cpp:124] Setting up relu3
I0426 20:50:46.678539 31828 net.cpp:131] Top shape: 100 10 (1000)
I0426 20:50:46.678555 31828 net.cpp:139] Memory required for data: 4002800
I0426 20:50:46.678557 31828 layer_factory.hpp:77] Creating layer ip3_relu3_0_split
I0426 20:50:46.678562 31828 net.cpp:86] Creating Layer ip3_relu3_0_split
I0426 20:50:46.678566 31828 net.cpp:408] ip3_relu3_0_split <- ip3
I0426 20:50:46.678586 31828 net.cpp:382] ip3_relu3_0_split -> ip3_relu3_0_split_0
I0426 20:50:46.678592 31828 net.cpp:382] ip3_relu3_0_split -> ip3_relu3_0_split_1
I0426 20:50:46.678642 31828 net.cpp:124] Setting up ip3_relu3_0_split
I0426 20:50:46.678648 31828 net.cpp:131] Top shape: 100 10 (1000)
I0426 20:50:46.678653 31828 net.cpp:131] Top shape: 100 10 (1000)
I0426 20:50:46.678654 31828 net.cpp:139] Memory required for data: 4010800
I0426 20:50:46.678658 31828 layer_factory.hpp:77] Creating layer accuracy
I0426 20:50:46.678663 31828 net.cpp:86] Creating Layer accuracy
I0426 20:50:46.678666 31828 net.cpp:408] accuracy <- ip3_relu3_0_split_0
I0426 20:50:46.678670 31828 net.cpp:408] accuracy <- label_mnist_1_split_0
I0426 20:50:46.678674 31828 net.cpp:382] accuracy -> accuracy
…
