…
I0426 20:55:09.382313   347 net.cpp:296] The NetState phase (0) differed from the phase (1) specified by a rule in layer mnist
I0426 20:55:09.382344   347 net.cpp:296] The NetState phase (0) differed from the phase (1) specified by a rule in layer accuracy
I0426 20:55:09.382438   347 net.cpp:53] Initializing net from parameters: 
name: "LeNet"
state {
  phase: TRAIN
  level: 0
  stage: ""
}
layer {
  name: "mnist"
  type: "Data"
  top: "data"
  top: "label"
  include {
    phase: TRAIN
  }
  transform_param {
    scale: 0.00390625
  }
  data_param {
    source: "examples/mnist/mnist_train_lmdb"
    batch_size: 64
    backend: LMDB
  }
}
layer {
  name: "conv0"
  type: "Convolution"
  bottom: "data"
  top: "conv0"
  param {
    lr_mult: 1
  }
  param {
    lr_mult: 2
  }
  convolution_param {
    num_output: 50
    kernel_size: 5
    stride: 1
    weight_filler {
      type: "xavier"
    }
    bias_filler {
      type: "constant"
    }
  }
}
layer {
  name: "pool0"
  type: "Pooling"
  bottom: "conv0"
  top: "pool0"
  pooling_param {
    pool: MAX
    kernel_size: 2
    stride: 2
  }
}
layer {
  name: "conv1"
  type: "Convolution"
  bottom: "pool0"
  top: "conv1"
  param {
    lr_mult: 1
  }
  param {
    lr_mult: 2
  }
  convolution_param {
    num_output: 50
    kernel_size: 5
    stride: 1
    weight_filler {
      type: "xavier"
    }
    bias_filler {
      type: "constant"
    }
  }
}
layer {
  name: "pool1"
  type: "Pooling"
  bottom: "conv1"
  top: "pool1"
  pooling_param {
    pool: MAX
    kernel_size: 2
    stride: 2
  }
}
layer {
  name: "ip1"
  type: "InnerProduct"
  bottom: "pool1"
  top: "ip1"
  param {
    lr_mult: 1
  }
  param {
    lr_mult: 2
  }
  inner_product_param {
    num_output: 100
    weight_filler {
      type: "xavier"
    }
    bias_filler {
      type: "constant"
    }
  }
}
layer {
  name: "relu1"
  type: "ReLU"
  bottom: "ip1"
  top: "ip1"
}
layer {
  name: "ip2"
  type: "InnerProduct"
  bottom: "ip1"
  top: "ip2"
  param {
    lr_mult: 1
  }
  param {
    lr_mult: 2
  }
  inner_product_param {
    num_output: 100
    weight_filler {
      type: "xavier"
    }
    bias_filler {
      type: "constant"
    }
  }
}
layer {
  name: "relu2"
  type: "ReLU"
  bottom: "ip2"
  top: "ip2"
}
layer {
  name: "ip3"
  type: "InnerProduct"
  bottom: "ip2"
  top: "ip3"
  param {
    lr_mult: 1
  }
  param {
    lr_mult: 2
  }
  inner_product_param {
    num_output: 10
    weight_filler {
      type: "xavier"
    }
    bias_filler {
      type: "constant"
    }
  }
}
layer {
  name: "relu3"
  type: "ReLU"
  bottom: "ip3"
  top: "ip3"
}
layer {
  name: "loss"
  type: "SoftmaxWithLoss"
  bottom: "ip3"
  bottom: "label"
  top: "loss"
}
I0426 20:55:09.382520   347 layer_factory.hpp:77] Creating layer mnist
I0426 20:55:09.382602   347 db_lmdb.cpp:35] Opened lmdb examples/mnist/mnist_train_lmdb
I0426 20:55:09.382622   347 net.cpp:86] Creating Layer mnist
I0426 20:55:09.382629   347 net.cpp:382] mnist -> data
I0426 20:55:09.382648   347 net.cpp:382] mnist -> label
I0426 20:55:09.383605   347 data_layer.cpp:45] output data size: 64,1,28,28
I0426 20:55:09.385710   347 net.cpp:124] Setting up mnist
I0426 20:55:09.385725   347 net.cpp:131] Top shape: 64 1 28 28 (50176)
I0426 20:55:09.385740   347 net.cpp:131] Top shape: 64 (64)
I0426 20:55:09.385742   347 net.cpp:139] Memory required for data: 200960
I0426 20:55:09.385748   347 layer_factory.hpp:77] Creating layer conv0
I0426 20:55:09.385762   347 net.cpp:86] Creating Layer conv0
I0426 20:55:09.385794   347 net.cpp:408] conv0 <- data
I0426 20:55:09.385804   347 net.cpp:382] conv0 -> conv0
I0426 20:55:09.615496   347 net.cpp:124] Setting up conv0
I0426 20:55:09.615538   347 net.cpp:131] Top shape: 64 50 24 24 (1843200)
I0426 20:55:09.615542   347 net.cpp:139] Memory required for data: 7573760
I0426 20:55:09.615557   347 layer_factory.hpp:77] Creating layer pool0
I0426 20:55:09.615571   347 net.cpp:86] Creating Layer pool0
I0426 20:55:09.615574   347 net.cpp:408] pool0 <- conv0
I0426 20:55:09.615581   347 net.cpp:382] pool0 -> pool0
I0426 20:55:09.615628   347 net.cpp:124] Setting up pool0
I0426 20:55:09.615634   347 net.cpp:131] Top shape: 64 50 12 12 (460800)
I0426 20:55:09.615638   347 net.cpp:139] Memory required for data: 9416960
I0426 20:55:09.615640   347 layer_factory.hpp:77] Creating layer conv1
I0426 20:55:09.615650   347 net.cpp:86] Creating Layer conv1
I0426 20:55:09.615654   347 net.cpp:408] conv1 <- pool0
I0426 20:55:09.615660   347 net.cpp:382] conv1 -> conv1
I0426 20:55:09.617988   347 net.cpp:124] Setting up conv1
I0426 20:55:09.618002   347 net.cpp:131] Top shape: 64 50 8 8 (204800)
I0426 20:55:09.618005   347 net.cpp:139] Memory required for data: 10236160
I0426 20:55:09.618016   347 layer_factory.hpp:77] Creating layer pool1
I0426 20:55:09.618022   347 net.cpp:86] Creating Layer pool1
I0426 20:55:09.618026   347 net.cpp:408] pool1 <- conv1
I0426 20:55:09.618031   347 net.cpp:382] pool1 -> pool1
I0426 20:55:09.618082   347 net.cpp:124] Setting up pool1
I0426 20:55:09.618088   347 net.cpp:131] Top shape: 64 50 4 4 (51200)
I0426 20:55:09.618089   347 net.cpp:139] Memory required for data: 10440960
I0426 20:55:09.618093   347 layer_factory.hpp:77] Creating layer ip1
I0426 20:55:09.618101   347 net.cpp:86] Creating Layer ip1
I0426 20:55:09.618104   347 net.cpp:408] ip1 <- pool1
I0426 20:55:09.618109   347 net.cpp:382] ip1 -> ip1
I0426 20:55:09.619474   347 net.cpp:124] Setting up ip1
I0426 20:55:09.619487   347 net.cpp:131] Top shape: 64 100 (6400)
I0426 20:55:09.619489   347 net.cpp:139] Memory required for data: 10466560
I0426 20:55:09.619498   347 layer_factory.hpp:77] Creating layer relu1
I0426 20:55:09.619504   347 net.cpp:86] Creating Layer relu1
I0426 20:55:09.619508   347 net.cpp:408] relu1 <- ip1
I0426 20:55:09.619511   347 net.cpp:369] relu1 -> ip1 (in-place)
I0426 20:55:09.619700   347 net.cpp:124] Setting up relu1
I0426 20:55:09.619709   347 net.cpp:131] Top shape: 64 100 (6400)
I0426 20:55:09.619712   347 net.cpp:139] Memory required for data: 10492160
I0426 20:55:09.619715   347 layer_factory.hpp:77] Creating layer ip2
I0426 20:55:09.619724   347 net.cpp:86] Creating Layer ip2
I0426 20:55:09.619729   347 net.cpp:408] ip2 <- ip1
I0426 20:55:09.619734   347 net.cpp:382] ip2 -> ip2
I0426 20:55:09.620705   347 net.cpp:124] Setting up ip2
I0426 20:55:09.620717   347 net.cpp:131] Top shape: 64 100 (6400)
I0426 20:55:09.620730   347 net.cpp:139] Memory required for data: 10517760
I0426 20:55:09.620736   347 layer_factory.hpp:77] Creating layer relu2
I0426 20:55:09.620743   347 net.cpp:86] Creating Layer relu2
I0426 20:55:09.620762   347 net.cpp:408] relu2 <- ip2
I0426 20:55:09.620766   347 net.cpp:369] relu2 -> ip2 (in-place)
I0426 20:55:09.621603   347 net.cpp:124] Setting up relu2
I0426 20:55:09.621615   347 net.cpp:131] Top shape: 64 100 (6400)
I0426 20:55:09.621619   347 net.cpp:139] Memory required for data: 10543360
I0426 20:55:09.621623   347 layer_factory.hpp:77] Creating layer ip3
I0426 20:55:09.621628   347 net.cpp:86] Creating Layer ip3
I0426 20:55:09.621632   347 net.cpp:408] ip3 <- ip2
I0426 20:55:09.621639   347 net.cpp:382] ip3 -> ip3
I0426 20:55:09.621759   347 net.cpp:124] Setting up ip3
I0426 20:55:09.621767   347 net.cpp:131] Top shape: 64 10 (640)
I0426 20:55:09.621770   347 net.cpp:139] Memory required for data: 10545920
I0426 20:55:09.621778   347 layer_factory.hpp:77] Creating layer relu3
I0426 20:55:09.621783   347 net.cpp:86] Creating Layer relu3
I0426 20:55:09.621788   347 net.cpp:408] relu3 <- ip3
I0426 20:55:09.621791   347 net.cpp:369] relu3 -> ip3 (in-place)
I0426 20:55:09.621984   347 net.cpp:124] Setting up relu3
I0426 20:55:09.621992   347 net.cpp:131] Top shape: 64 10 (640)
I0426 20:55:09.621995   347 net.cpp:139] Memory required for data: 10548480
I0426 20:55:09.621999   347 layer_factory.hpp:77] Creating layer loss
I0426 20:55:09.622004   347 net.cpp:86] Creating Layer loss
I0426 20:55:09.622009   347 net.cpp:408] loss <- ip3
I0426 20:55:09.622011   347 net.cpp:408] loss <- label
I0426 20:55:09.622016   347 net.cpp:382] loss -> loss
I0426 20:55:09.622035   347 layer_factory.hpp:77] Creating layer loss
…
I0426 20:55:09.622684   347 solver.cpp:173] Creating test net (#0) specified by net file: ECE595/mnist/train_test/var_everything/lenet_train_test174.prototxt
I0426 20:55:09.622709   347 net.cpp:296] The NetState phase (1) differed from the phase (0) specified by a rule in layer mnist
I0426 20:55:09.622802   347 net.cpp:53] Initializing net from parameters: 
name: "LeNet"
state {
  phase: TEST
}
layer {
  name: "mnist"
  type: "Data"
  top: "data"
  top: "label"
  include {
    phase: TEST
  }
  transform_param {
    scale: 0.00390625
  }
  data_param {
    source: "examples/mnist/mnist_test_lmdb"
    batch_size: 100
    backend: LMDB
  }
}
layer {
  name: "conv0"
  type: "Convolution"
  bottom: "data"
  top: "conv0"
  param {
    lr_mult: 1
  }
  param {
    lr_mult: 2
  }
  convolution_param {
    num_output: 50
    kernel_size: 5
    stride: 1
    weight_filler {
      type: "xavier"
    }
    bias_filler {
      type: "constant"
    }
  }
}
layer {
  name: "pool0"
  type: "Pooling"
  bottom: "conv0"
  top: "pool0"
  pooling_param {
    pool: MAX
    kernel_size: 2
    stride: 2
  }
}
layer {
  name: "conv1"
  type: "Convolution"
  bottom: "pool0"
  top: "conv1"
  param {
    lr_mult: 1
  }
  param {
    lr_mult: 2
  }
  convolution_param {
    num_output: 50
    kernel_size: 5
    stride: 1
    weight_filler {
      type: "xavier"
    }
    bias_filler {
      type: "constant"
    }
  }
}
layer {
  name: "pool1"
  type: "Pooling"
  bottom: "conv1"
  top: "pool1"
  pooling_param {
    pool: MAX
    kernel_size: 2
    stride: 2
  }
}
layer {
  name: "ip1"
  type: "InnerProduct"
  bottom: "pool1"
  top: "ip1"
  param {
    lr_mult: 1
  }
  param {
    lr_mult: 2
  }
  inner_product_param {
    num_output: 100
    weight_filler {
      type: "xavier"
    }
    bias_filler {
      type: "constant"
    }
  }
}
layer {
  name: "relu1"
  type: "ReLU"
  bottom: "ip1"
  top: "ip1"
}
layer {
  name: "ip2"
  type: "InnerProduct"
  bottom: "ip1"
  top: "ip2"
  param {
    lr_mult: 1
  }
  param {
    lr_mult: 2
  }
  inner_product_param {
    num_output: 100
    weight_filler {
      type: "xavier"
    }
    bias_filler {
      type: "constant"
    }
  }
}
layer {
  name: "relu2"
  type: "ReLU"
  bottom: "ip2"
  top: "ip2"
}
layer {
  name: "ip3"
  type: "InnerProduct"
  bottom: "ip2"
  top: "ip3"
  param {
    lr_mult: 1
  }
  param {
    lr_mult: 2
  }
  inner_product_param {
    num_output: 10
    weight_filler {
      type: "xavier"
    }
    bias_filler {
      type: "constant"
    }
  }
}
layer {
  name: "relu3"
  type: "ReLU"
  bottom: "ip3"
  top: "ip3"
}
layer {
  name: "accuracy"
  type: "Accuracy"
  bottom: "ip3"
  bottom: "label"
  top: "accuracy"
  include {
    phase: TEST
  }
}
layer {
  name: "loss"
  type: "SoftmaxWithLoss"
  bottom: "ip3"
  bottom: "label"
  top: "loss"
}
I0426 20:55:09.622882   347 layer_factory.hpp:77] Creating layer mnist
I0426 20:55:09.622925   347 db_lmdb.cpp:35] Opened lmdb examples/mnist/mnist_test_lmdb
I0426 20:55:09.622938   347 net.cpp:86] Creating Layer mnist
I0426 20:55:09.622943   347 net.cpp:382] mnist -> data
I0426 20:55:09.622951   347 net.cpp:382] mnist -> label
I0426 20:55:09.623054   347 data_layer.cpp:45] output data size: 100,1,28,28
I0426 20:55:09.624215   347 net.cpp:124] Setting up mnist
I0426 20:55:09.624228   347 net.cpp:131] Top shape: 100 1 28 28 (78400)
I0426 20:55:09.624259   347 net.cpp:131] Top shape: 100 (100)
I0426 20:55:09.624264   347 net.cpp:139] Memory required for data: 314000
I0426 20:55:09.624266   347 layer_factory.hpp:77] Creating layer label_mnist_1_split
I0426 20:55:09.624291   347 net.cpp:86] Creating Layer label_mnist_1_split
I0426 20:55:09.624295   347 net.cpp:408] label_mnist_1_split <- label
I0426 20:55:09.624300   347 net.cpp:382] label_mnist_1_split -> label_mnist_1_split_0
I0426 20:55:09.624306   347 net.cpp:382] label_mnist_1_split -> label_mnist_1_split_1
I0426 20:55:09.624413   347 net.cpp:124] Setting up label_mnist_1_split
I0426 20:55:09.624421   347 net.cpp:131] Top shape: 100 (100)
I0426 20:55:09.624424   347 net.cpp:131] Top shape: 100 (100)
I0426 20:55:09.624428   347 net.cpp:139] Memory required for data: 314800
I0426 20:55:09.624430   347 layer_factory.hpp:77] Creating layer conv0
I0426 20:55:09.624439   347 net.cpp:86] Creating Layer conv0
I0426 20:55:09.624442   347 net.cpp:408] conv0 <- data
I0426 20:55:09.624449   347 net.cpp:382] conv0 -> conv0
I0426 20:55:09.626161   347 net.cpp:124] Setting up conv0
I0426 20:55:09.626175   347 net.cpp:131] Top shape: 100 50 24 24 (2880000)
I0426 20:55:09.626178   347 net.cpp:139] Memory required for data: 11834800
I0426 20:55:09.626186   347 layer_factory.hpp:77] Creating layer pool0
I0426 20:55:09.626194   347 net.cpp:86] Creating Layer pool0
I0426 20:55:09.626197   347 net.cpp:408] pool0 <- conv0
I0426 20:55:09.626217   347 net.cpp:382] pool0 -> pool0
I0426 20:55:09.626253   347 net.cpp:124] Setting up pool0
I0426 20:55:09.626260   347 net.cpp:131] Top shape: 100 50 12 12 (720000)
I0426 20:55:09.626263   347 net.cpp:139] Memory required for data: 14714800
I0426 20:55:09.626266   347 layer_factory.hpp:77] Creating layer conv1
I0426 20:55:09.626291   347 net.cpp:86] Creating Layer conv1
I0426 20:55:09.626293   347 net.cpp:408] conv1 <- pool0
I0426 20:55:09.626299   347 net.cpp:382] conv1 -> conv1
I0426 20:55:09.628202   347 net.cpp:124] Setting up conv1
I0426 20:55:09.628216   347 net.cpp:131] Top shape: 100 50 8 8 (320000)
I0426 20:55:09.628219   347 net.cpp:139] Memory required for data: 15994800
I0426 20:55:09.628227   347 layer_factory.hpp:77] Creating layer pool1
I0426 20:55:09.628233   347 net.cpp:86] Creating Layer pool1
I0426 20:55:09.628237   347 net.cpp:408] pool1 <- conv1
I0426 20:55:09.628258   347 net.cpp:382] pool1 -> pool1
I0426 20:55:09.628293   347 net.cpp:124] Setting up pool1
I0426 20:55:09.628300   347 net.cpp:131] Top shape: 100 50 4 4 (80000)
I0426 20:55:09.628304   347 net.cpp:139] Memory required for data: 16314800
I0426 20:55:09.628306   347 layer_factory.hpp:77] Creating layer ip1
I0426 20:55:09.628314   347 net.cpp:86] Creating Layer ip1
I0426 20:55:09.628316   347 net.cpp:408] ip1 <- pool1
I0426 20:55:09.628329   347 net.cpp:382] ip1 -> ip1
I0426 20:55:09.628928   347 net.cpp:124] Setting up ip1
I0426 20:55:09.628938   347 net.cpp:131] Top shape: 100 100 (10000)
I0426 20:55:09.628967   347 net.cpp:139] Memory required for data: 16354800
I0426 20:55:09.628974   347 layer_factory.hpp:77] Creating layer relu1
I0426 20:55:09.628979   347 net.cpp:86] Creating Layer relu1
I0426 20:55:09.628983   347 net.cpp:408] relu1 <- ip1
I0426 20:55:09.628988   347 net.cpp:369] relu1 -> ip1 (in-place)
I0426 20:55:09.629196   347 net.cpp:124] Setting up relu1
I0426 20:55:09.629205   347 net.cpp:131] Top shape: 100 100 (10000)
I0426 20:55:09.629209   347 net.cpp:139] Memory required for data: 16394800
I0426 20:55:09.629212   347 layer_factory.hpp:77] Creating layer ip2
I0426 20:55:09.629218   347 net.cpp:86] Creating Layer ip2
I0426 20:55:09.629221   347 net.cpp:408] ip2 <- ip1
I0426 20:55:09.629227   347 net.cpp:382] ip2 -> ip2
I0426 20:55:09.629379   347 net.cpp:124] Setting up ip2
I0426 20:55:09.629387   347 net.cpp:131] Top shape: 100 100 (10000)
I0426 20:55:09.629390   347 net.cpp:139] Memory required for data: 16434800
I0426 20:55:09.629395   347 layer_factory.hpp:77] Creating layer relu2
I0426 20:55:09.629400   347 net.cpp:86] Creating Layer relu2
I0426 20:55:09.629403   347 net.cpp:408] relu2 <- ip2
I0426 20:55:09.629408   347 net.cpp:369] relu2 -> ip2 (in-place)
I0426 20:55:09.629575   347 net.cpp:124] Setting up relu2
I0426 20:55:09.629582   347 net.cpp:131] Top shape: 100 100 (10000)
I0426 20:55:09.629585   347 net.cpp:139] Memory required for data: 16474800
I0426 20:55:09.629588   347 layer_factory.hpp:77] Creating layer ip3
I0426 20:55:09.629593   347 net.cpp:86] Creating Layer ip3
I0426 20:55:09.629597   347 net.cpp:408] ip3 <- ip2
I0426 20:55:09.629602   347 net.cpp:382] ip3 -> ip3
I0426 20:55:09.629709   347 net.cpp:124] Setting up ip3
I0426 20:55:09.629716   347 net.cpp:131] Top shape: 100 10 (1000)
I0426 20:55:09.629720   347 net.cpp:139] Memory required for data: 16478800
I0426 20:55:09.629727   347 layer_factory.hpp:77] Creating layer relu3
I0426 20:55:09.629732   347 net.cpp:86] Creating Layer relu3
I0426 20:55:09.629735   347 net.cpp:408] relu3 <- ip3
I0426 20:55:09.629747   347 net.cpp:369] relu3 -> ip3 (in-place)
I0426 20:55:09.630585   347 net.cpp:124] Setting up relu3
I0426 20:55:09.630597   347 net.cpp:131] Top shape: 100 10 (1000)
I0426 20:55:09.630600   347 net.cpp:139] Memory required for data: 16482800
I0426 20:55:09.630604   347 layer_factory.hpp:77] Creating layer ip3_relu3_0_split
I0426 20:55:09.630609   347 net.cpp:86] Creating Layer ip3_relu3_0_split
I0426 20:55:09.630612   347 net.cpp:408] ip3_relu3_0_split <- ip3
I0426 20:55:09.630617   347 net.cpp:382] ip3_relu3_0_split -> ip3_relu3_0_split_0
I0426 20:55:09.630638   347 net.cpp:382] ip3_relu3_0_split -> ip3_relu3_0_split_1
I0426 20:55:09.630722   347 net.cpp:124] Setting up ip3_relu3_0_split
I0426 20:55:09.630728   347 net.cpp:131] Top shape: 100 10 (1000)
I0426 20:55:09.630733   347 net.cpp:131] Top shape: 100 10 (1000)
I0426 20:55:09.630735   347 net.cpp:139] Memory required for data: 16490800
I0426 20:55:09.630738   347 layer_factory.hpp:77] Creating layer accuracy
I0426 20:55:09.630743   347 net.cpp:86] Creating Layer accuracy
I0426 20:55:09.630748   347 net.cpp:408] accuracy <- ip3_relu3_0_split_0
I0426 20:55:09.630753   347 net.cpp:408] accuracy <- label_mnist_1_split_0
I0426 20:55:09.630758   347 net.cpp:382] accuracy -> accuracy
…
