…
I0426 20:51:46.722165 32053 net.cpp:296] The NetState phase (0) differed from the phase (1) specified by a rule in layer mnist
I0426 20:51:46.722180 32053 net.cpp:296] The NetState phase (0) differed from the phase (1) specified by a rule in layer accuracy
I0426 20:51:46.722292 32053 net.cpp:53] Initializing net from parameters: 
name: "LeNet"
state {
  phase: TRAIN
  level: 0
  stage: ""
}
layer {
  name: "mnist"
  type: "Data"
  top: "data"
  top: "label"
  include {
    phase: TRAIN
  }
  transform_param {
    scale: 0.00390625
  }
  data_param {
    source: "examples/mnist/mnist_train_lmdb"
    batch_size: 64
    backend: LMDB
  }
}
layer {
  name: "conv0"
  type: "Convolution"
  bottom: "data"
  top: "conv0"
  param {
    lr_mult: 1
  }
  param {
    lr_mult: 2
  }
  convolution_param {
    num_output: 10
    kernel_size: 5
    stride: 1
    weight_filler {
      type: "xavier"
    }
    bias_filler {
      type: "constant"
    }
  }
}
layer {
  name: "pool0"
  type: "Pooling"
  bottom: "conv0"
  top: "pool0"
  pooling_param {
    pool: MAX
    kernel_size: 2
    stride: 2
  }
}
layer {
  name: "conv1"
  type: "Convolution"
  bottom: "pool0"
  top: "conv1"
  param {
    lr_mult: 1
  }
  param {
    lr_mult: 2
  }
  convolution_param {
    num_output: 50
    kernel_size: 5
    stride: 1
    weight_filler {
      type: "xavier"
    }
    bias_filler {
      type: "constant"
    }
  }
}
layer {
  name: "pool1"
  type: "Pooling"
  bottom: "conv1"
  top: "pool1"
  pooling_param {
    pool: MAX
    kernel_size: 2
    stride: 2
  }
}
layer {
  name: "ip1"
  type: "InnerProduct"
  bottom: "pool1"
  top: "ip1"
  param {
    lr_mult: 1
  }
  param {
    lr_mult: 2
  }
  inner_product_param {
    num_output: 300
    weight_filler {
      type: "xavier"
    }
    bias_filler {
      type: "constant"
    }
  }
}
layer {
  name: "relu1"
  type: "ReLU"
  bottom: "ip1"
  top: "ip1"
}
layer {
  name: "ip2"
  type: "InnerProduct"
  bottom: "ip1"
  top: "ip2"
  param {
    lr_mult: 1
  }
  param {
    lr_mult: 2
  }
  inner_product_param {
    num_output: 100
    weight_filler {
      type: "xavier"
    }
    bias_filler {
      type: "constant"
    }
  }
}
layer {
  name: "relu2"
  type: "ReLU"
  bottom: "ip2"
  top: "ip2"
}
layer {
  name: "ip3"
  type: "InnerProduct"
  bottom: "ip2"
  top: "ip3"
  param {
    lr_mult: 1
  }
  param {
    lr_mult: 2
  }
  inner_product_param {
    num_output: 10
    weight_filler {
      type: "xavier"
    }
    bias_filler {
      type: "constant"
    }
  }
}
layer {
  name: "relu3"
  type: "ReLU"
  bottom: "ip3"
  top: "ip3"
}
layer {
  name: "loss"
  type: "SoftmaxWithLoss"
  bottom: "ip3"
  bottom: "label"
  top: "loss"
}
I0426 20:51:46.722357 32053 layer_factory.hpp:77] Creating layer mnist
I0426 20:51:46.722439 32053 db_lmdb.cpp:35] Opened lmdb examples/mnist/mnist_train_lmdb
I0426 20:51:46.722458 32053 net.cpp:86] Creating Layer mnist
I0426 20:51:46.722465 32053 net.cpp:382] mnist -> data
I0426 20:51:46.722483 32053 net.cpp:382] mnist -> label
I0426 20:51:46.723414 32053 data_layer.cpp:45] output data size: 64,1,28,28
I0426 20:51:46.725522 32053 net.cpp:124] Setting up mnist
I0426 20:51:46.725534 32053 net.cpp:131] Top shape: 64 1 28 28 (50176)
I0426 20:51:46.725539 32053 net.cpp:131] Top shape: 64 (64)
I0426 20:51:46.725541 32053 net.cpp:139] Memory required for data: 200960
I0426 20:51:46.725548 32053 layer_factory.hpp:77] Creating layer conv0
I0426 20:51:46.725561 32053 net.cpp:86] Creating Layer conv0
I0426 20:51:46.725594 32053 net.cpp:408] conv0 <- data
I0426 20:51:46.725603 32053 net.cpp:382] conv0 -> conv0
I0426 20:51:46.958967 32053 net.cpp:124] Setting up conv0
I0426 20:51:46.958992 32053 net.cpp:131] Top shape: 64 10 24 24 (368640)
I0426 20:51:46.958995 32053 net.cpp:139] Memory required for data: 1675520
I0426 20:51:46.959009 32053 layer_factory.hpp:77] Creating layer pool0
I0426 20:51:46.959022 32053 net.cpp:86] Creating Layer pool0
I0426 20:51:46.959025 32053 net.cpp:408] pool0 <- conv0
I0426 20:51:46.959029 32053 net.cpp:382] pool0 -> pool0
I0426 20:51:46.959089 32053 net.cpp:124] Setting up pool0
I0426 20:51:46.959095 32053 net.cpp:131] Top shape: 64 10 12 12 (92160)
I0426 20:51:46.959097 32053 net.cpp:139] Memory required for data: 2044160
I0426 20:51:46.959100 32053 layer_factory.hpp:77] Creating layer conv1
I0426 20:51:46.959110 32053 net.cpp:86] Creating Layer conv1
I0426 20:51:46.959113 32053 net.cpp:408] conv1 <- pool0
I0426 20:51:46.959118 32053 net.cpp:382] conv1 -> conv1
I0426 20:51:46.961894 32053 net.cpp:124] Setting up conv1
I0426 20:51:46.961923 32053 net.cpp:131] Top shape: 64 50 8 8 (204800)
I0426 20:51:46.961927 32053 net.cpp:139] Memory required for data: 2863360
I0426 20:51:46.961935 32053 layer_factory.hpp:77] Creating layer pool1
I0426 20:51:46.961943 32053 net.cpp:86] Creating Layer pool1
I0426 20:51:46.961947 32053 net.cpp:408] pool1 <- conv1
I0426 20:51:46.961951 32053 net.cpp:382] pool1 -> pool1
I0426 20:51:46.962003 32053 net.cpp:124] Setting up pool1
I0426 20:51:46.962008 32053 net.cpp:131] Top shape: 64 50 4 4 (51200)
I0426 20:51:46.962011 32053 net.cpp:139] Memory required for data: 3068160
I0426 20:51:46.962014 32053 layer_factory.hpp:77] Creating layer ip1
I0426 20:51:46.962021 32053 net.cpp:86] Creating Layer ip1
I0426 20:51:46.962024 32053 net.cpp:408] ip1 <- pool1
I0426 20:51:46.962028 32053 net.cpp:382] ip1 -> ip1
I0426 20:51:46.964179 32053 net.cpp:124] Setting up ip1
I0426 20:51:46.964191 32053 net.cpp:131] Top shape: 64 300 (19200)
I0426 20:51:46.964210 32053 net.cpp:139] Memory required for data: 3144960
I0426 20:51:46.964217 32053 layer_factory.hpp:77] Creating layer relu1
I0426 20:51:46.964223 32053 net.cpp:86] Creating Layer relu1
I0426 20:51:46.964227 32053 net.cpp:408] relu1 <- ip1
I0426 20:51:46.964231 32053 net.cpp:369] relu1 -> ip1 (in-place)
I0426 20:51:46.964437 32053 net.cpp:124] Setting up relu1
I0426 20:51:46.964447 32053 net.cpp:131] Top shape: 64 300 (19200)
I0426 20:51:46.964449 32053 net.cpp:139] Memory required for data: 3221760
I0426 20:51:46.964452 32053 layer_factory.hpp:77] Creating layer ip2
I0426 20:51:46.964458 32053 net.cpp:86] Creating Layer ip2
I0426 20:51:46.964462 32053 net.cpp:408] ip2 <- ip1
I0426 20:51:46.964467 32053 net.cpp:382] ip2 -> ip2
I0426 20:51:46.964720 32053 net.cpp:124] Setting up ip2
I0426 20:51:46.964727 32053 net.cpp:131] Top shape: 64 100 (6400)
I0426 20:51:46.964730 32053 net.cpp:139] Memory required for data: 3247360
I0426 20:51:46.964735 32053 layer_factory.hpp:77] Creating layer relu2
I0426 20:51:46.964740 32053 net.cpp:86] Creating Layer relu2
I0426 20:51:46.964743 32053 net.cpp:408] relu2 <- ip2
I0426 20:51:46.964751 32053 net.cpp:369] relu2 -> ip2 (in-place)
I0426 20:51:46.965607 32053 net.cpp:124] Setting up relu2
I0426 20:51:46.965618 32053 net.cpp:131] Top shape: 64 100 (6400)
I0426 20:51:46.965637 32053 net.cpp:139] Memory required for data: 3272960
I0426 20:51:46.965641 32053 layer_factory.hpp:77] Creating layer ip3
I0426 20:51:46.965647 32053 net.cpp:86] Creating Layer ip3
I0426 20:51:46.965651 32053 net.cpp:408] ip3 <- ip2
I0426 20:51:46.965661 32053 net.cpp:382] ip3 -> ip3
I0426 20:51:46.965780 32053 net.cpp:124] Setting up ip3
I0426 20:51:46.965787 32053 net.cpp:131] Top shape: 64 10 (640)
I0426 20:51:46.965790 32053 net.cpp:139] Memory required for data: 3275520
I0426 20:51:46.965798 32053 layer_factory.hpp:77] Creating layer relu3
I0426 20:51:46.965803 32053 net.cpp:86] Creating Layer relu3
I0426 20:51:46.965806 32053 net.cpp:408] relu3 <- ip3
I0426 20:51:46.965811 32053 net.cpp:369] relu3 -> ip3 (in-place)
I0426 20:51:46.965975 32053 net.cpp:124] Setting up relu3
I0426 20:51:46.965983 32053 net.cpp:131] Top shape: 64 10 (640)
I0426 20:51:46.965986 32053 net.cpp:139] Memory required for data: 3278080
I0426 20:51:46.965989 32053 layer_factory.hpp:77] Creating layer loss
I0426 20:51:46.965996 32053 net.cpp:86] Creating Layer loss
I0426 20:51:46.965999 32053 net.cpp:408] loss <- ip3
I0426 20:51:46.966002 32053 net.cpp:408] loss <- label
I0426 20:51:46.966007 32053 net.cpp:382] loss -> loss
I0426 20:51:46.966022 32053 layer_factory.hpp:77] Creating layer loss
…
I0426 20:51:46.966677 32053 solver.cpp:173] Creating test net (#0) specified by net file: ECE595/mnist/train_test/var_everything/lenet_train_test95.prototxt
I0426 20:51:46.966732 32053 net.cpp:296] The NetState phase (1) differed from the phase (0) specified by a rule in layer mnist
I0426 20:51:46.966835 32053 net.cpp:53] Initializing net from parameters: 
name: "LeNet"
state {
  phase: TEST
}
layer {
  name: "mnist"
  type: "Data"
  top: "data"
  top: "label"
  include {
    phase: TEST
  }
  transform_param {
    scale: 0.00390625
  }
  data_param {
    source: "examples/mnist/mnist_test_lmdb"
    batch_size: 100
    backend: LMDB
  }
}
layer {
  name: "conv0"
  type: "Convolution"
  bottom: "data"
  top: "conv0"
  param {
    lr_mult: 1
  }
  param {
    lr_mult: 2
  }
  convolution_param {
    num_output: 10
    kernel_size: 5
    stride: 1
    weight_filler {
      type: "xavier"
    }
    bias_filler {
      type: "constant"
    }
  }
}
layer {
  name: "pool0"
  type: "Pooling"
  bottom: "conv0"
  top: "pool0"
  pooling_param {
    pool: MAX
    kernel_size: 2
    stride: 2
  }
}
layer {
  name: "conv1"
  type: "Convolution"
  bottom: "pool0"
  top: "conv1"
  param {
    lr_mult: 1
  }
  param {
    lr_mult: 2
  }
  convolution_param {
    num_output: 50
    kernel_size: 5
    stride: 1
    weight_filler {
      type: "xavier"
    }
    bias_filler {
      type: "constant"
    }
  }
}
layer {
  name: "pool1"
  type: "Pooling"
  bottom: "conv1"
  top: "pool1"
  pooling_param {
    pool: MAX
    kernel_size: 2
    stride: 2
  }
}
layer {
  name: "ip1"
  type: "InnerProduct"
  bottom: "pool1"
  top: "ip1"
  param {
    lr_mult: 1
  }
  param {
    lr_mult: 2
  }
  inner_product_param {
    num_output: 300
    weight_filler {
      type: "xavier"
    }
    bias_filler {
      type: "constant"
    }
  }
}
layer {
  name: "relu1"
  type: "ReLU"
  bottom: "ip1"
  top: "ip1"
}
layer {
  name: "ip2"
  type: "InnerProduct"
  bottom: "ip1"
  top: "ip2"
  param {
    lr_mult: 1
  }
  param {
    lr_mult: 2
  }
  inner_product_param {
    num_output: 100
    weight_filler {
      type: "xavier"
    }
    bias_filler {
      type: "constant"
    }
  }
}
layer {
  name: "relu2"
  type: "ReLU"
  bottom: "ip2"
  top: "ip2"
}
layer {
  name: "ip3"
  type: "InnerProduct"
  bottom: "ip2"
  top: "ip3"
  param {
    lr_mult: 1
  }
  param {
    lr_mult: 2
  }
  inner_product_param {
    num_output: 10
    weight_filler {
      type: "xavier"
    }
    bias_filler {
      type: "constant"
    }
  }
}
layer {
  name: "relu3"
  type: "ReLU"
  bottom: "ip3"
  top: "ip3"
}
layer {
  name: "accuracy"
  type: "Accuracy"
  bottom: "ip3"
  bottom: "label"
  top: "accuracy"
  include {
    phase: TEST
  }
}
layer {
  name: "loss"
  type: "SoftmaxWithLoss"
  bottom: "ip3"
  bottom: "label"
  top: "loss"
}
I0426 20:51:46.966914 32053 layer_factory.hpp:77] Creating layer mnist
I0426 20:51:46.966958 32053 db_lmdb.cpp:35] Opened lmdb examples/mnist/mnist_test_lmdb
I0426 20:51:46.966970 32053 net.cpp:86] Creating Layer mnist
I0426 20:51:46.966975 32053 net.cpp:382] mnist -> data
I0426 20:51:46.967000 32053 net.cpp:382] mnist -> label
I0426 20:51:46.967104 32053 data_layer.cpp:45] output data size: 100,1,28,28
I0426 20:51:46.969156 32053 net.cpp:124] Setting up mnist
I0426 20:51:46.969169 32053 net.cpp:131] Top shape: 100 1 28 28 (78400)
I0426 20:51:46.969174 32053 net.cpp:131] Top shape: 100 (100)
I0426 20:51:46.969177 32053 net.cpp:139] Memory required for data: 314000
I0426 20:51:46.969179 32053 layer_factory.hpp:77] Creating layer label_mnist_1_split
I0426 20:51:46.969185 32053 net.cpp:86] Creating Layer label_mnist_1_split
I0426 20:51:46.969188 32053 net.cpp:408] label_mnist_1_split <- label
I0426 20:51:46.969193 32053 net.cpp:382] label_mnist_1_split -> label_mnist_1_split_0
I0426 20:51:46.969198 32053 net.cpp:382] label_mnist_1_split -> label_mnist_1_split_1
I0426 20:51:46.969252 32053 net.cpp:124] Setting up label_mnist_1_split
I0426 20:51:46.969257 32053 net.cpp:131] Top shape: 100 (100)
I0426 20:51:46.969260 32053 net.cpp:131] Top shape: 100 (100)
I0426 20:51:46.969264 32053 net.cpp:139] Memory required for data: 314800
I0426 20:51:46.969265 32053 layer_factory.hpp:77] Creating layer conv0
I0426 20:51:46.969274 32053 net.cpp:86] Creating Layer conv0
I0426 20:51:46.969277 32053 net.cpp:408] conv0 <- data
I0426 20:51:46.969282 32053 net.cpp:382] conv0 -> conv0
I0426 20:51:46.971072 32053 net.cpp:124] Setting up conv0
I0426 20:51:46.971084 32053 net.cpp:131] Top shape: 100 10 24 24 (576000)
I0426 20:51:46.971088 32053 net.cpp:139] Memory required for data: 2618800
I0426 20:51:46.971096 32053 layer_factory.hpp:77] Creating layer pool0
I0426 20:51:46.971125 32053 net.cpp:86] Creating Layer pool0
I0426 20:51:46.971129 32053 net.cpp:408] pool0 <- conv0
I0426 20:51:46.971134 32053 net.cpp:382] pool0 -> pool0
I0426 20:51:46.971169 32053 net.cpp:124] Setting up pool0
I0426 20:51:46.971174 32053 net.cpp:131] Top shape: 100 10 12 12 (144000)
I0426 20:51:46.971177 32053 net.cpp:139] Memory required for data: 3194800
I0426 20:51:46.971179 32053 layer_factory.hpp:77] Creating layer conv1
I0426 20:51:46.971187 32053 net.cpp:86] Creating Layer conv1
I0426 20:51:46.971190 32053 net.cpp:408] conv1 <- pool0
I0426 20:51:46.971211 32053 net.cpp:382] conv1 -> conv1
I0426 20:51:46.972883 32053 net.cpp:124] Setting up conv1
I0426 20:51:46.972913 32053 net.cpp:131] Top shape: 100 50 8 8 (320000)
I0426 20:51:46.972916 32053 net.cpp:139] Memory required for data: 4474800
I0426 20:51:46.972925 32053 layer_factory.hpp:77] Creating layer pool1
I0426 20:51:46.972947 32053 net.cpp:86] Creating Layer pool1
I0426 20:51:46.972951 32053 net.cpp:408] pool1 <- conv1
I0426 20:51:46.972957 32053 net.cpp:382] pool1 -> pool1
I0426 20:51:46.972995 32053 net.cpp:124] Setting up pool1
I0426 20:51:46.973001 32053 net.cpp:131] Top shape: 100 50 4 4 (80000)
I0426 20:51:46.973004 32053 net.cpp:139] Memory required for data: 4794800
I0426 20:51:46.973007 32053 layer_factory.hpp:77] Creating layer ip1
I0426 20:51:46.973014 32053 net.cpp:86] Creating Layer ip1
I0426 20:51:46.973018 32053 net.cpp:408] ip1 <- pool1
I0426 20:51:46.973024 32053 net.cpp:382] ip1 -> ip1
I0426 20:51:46.974457 32053 net.cpp:124] Setting up ip1
I0426 20:51:46.974464 32053 net.cpp:131] Top shape: 100 300 (30000)
I0426 20:51:46.974476 32053 net.cpp:139] Memory required for data: 4914800
I0426 20:51:46.974498 32053 layer_factory.hpp:77] Creating layer relu1
I0426 20:51:46.974511 32053 net.cpp:86] Creating Layer relu1
I0426 20:51:46.974514 32053 net.cpp:408] relu1 <- ip1
I0426 20:51:46.974519 32053 net.cpp:369] relu1 -> ip1 (in-place)
I0426 20:51:46.974746 32053 net.cpp:124] Setting up relu1
I0426 20:51:46.974756 32053 net.cpp:131] Top shape: 100 300 (30000)
I0426 20:51:46.974758 32053 net.cpp:139] Memory required for data: 5034800
I0426 20:51:46.974761 32053 layer_factory.hpp:77] Creating layer ip2
I0426 20:51:46.974767 32053 net.cpp:86] Creating Layer ip2
I0426 20:51:46.974771 32053 net.cpp:408] ip2 <- ip1
I0426 20:51:46.974776 32053 net.cpp:382] ip2 -> ip2
I0426 20:51:46.975080 32053 net.cpp:124] Setting up ip2
I0426 20:51:46.975087 32053 net.cpp:131] Top shape: 100 100 (10000)
I0426 20:51:46.975090 32053 net.cpp:139] Memory required for data: 5074800
I0426 20:51:46.975096 32053 layer_factory.hpp:77] Creating layer relu2
I0426 20:51:46.975100 32053 net.cpp:86] Creating Layer relu2
I0426 20:51:46.975103 32053 net.cpp:408] relu2 <- ip2
I0426 20:51:46.975109 32053 net.cpp:369] relu2 -> ip2 (in-place)
I0426 20:51:46.975281 32053 net.cpp:124] Setting up relu2
I0426 20:51:46.975289 32053 net.cpp:131] Top shape: 100 100 (10000)
I0426 20:51:46.975292 32053 net.cpp:139] Memory required for data: 5114800
I0426 20:51:46.975296 32053 layer_factory.hpp:77] Creating layer ip3
I0426 20:51:46.975301 32053 net.cpp:86] Creating Layer ip3
I0426 20:51:46.975303 32053 net.cpp:408] ip3 <- ip2
I0426 20:51:46.975307 32053 net.cpp:382] ip3 -> ip3
I0426 20:51:46.975421 32053 net.cpp:124] Setting up ip3
I0426 20:51:46.975428 32053 net.cpp:131] Top shape: 100 10 (1000)
I0426 20:51:46.975431 32053 net.cpp:139] Memory required for data: 5118800
I0426 20:51:46.975438 32053 layer_factory.hpp:77] Creating layer relu3
I0426 20:51:46.975442 32053 net.cpp:86] Creating Layer relu3
I0426 20:51:46.975446 32053 net.cpp:408] relu3 <- ip3
I0426 20:51:46.975456 32053 net.cpp:369] relu3 -> ip3 (in-place)
I0426 20:51:46.976416 32053 net.cpp:124] Setting up relu3
I0426 20:51:46.976428 32053 net.cpp:131] Top shape: 100 10 (1000)
I0426 20:51:46.976431 32053 net.cpp:139] Memory required for data: 5122800
I0426 20:51:46.976434 32053 layer_factory.hpp:77] Creating layer ip3_relu3_0_split
I0426 20:51:46.976439 32053 net.cpp:86] Creating Layer ip3_relu3_0_split
I0426 20:51:46.976459 32053 net.cpp:408] ip3_relu3_0_split <- ip3
I0426 20:51:46.976464 32053 net.cpp:382] ip3_relu3_0_split -> ip3_relu3_0_split_0
I0426 20:51:46.976469 32053 net.cpp:382] ip3_relu3_0_split -> ip3_relu3_0_split_1
I0426 20:51:46.976505 32053 net.cpp:124] Setting up ip3_relu3_0_split
I0426 20:51:46.976511 32053 net.cpp:131] Top shape: 100 10 (1000)
I0426 20:51:46.976513 32053 net.cpp:131] Top shape: 100 10 (1000)
I0426 20:51:46.976516 32053 net.cpp:139] Memory required for data: 5130800
I0426 20:51:46.976519 32053 layer_factory.hpp:77] Creating layer accuracy
I0426 20:51:46.976523 32053 net.cpp:86] Creating Layer accuracy
I0426 20:51:46.976526 32053 net.cpp:408] accuracy <- ip3_relu3_0_split_0
I0426 20:51:46.976531 32053 net.cpp:408] accuracy <- label_mnist_1_split_0
I0426 20:51:46.976552 32053 net.cpp:382] accuracy -> accuracy
…
