…
I0426 20:52:03.185041 32111 net.cpp:296] The NetState phase (0) differed from the phase (1) specified by a rule in layer mnist
I0426 20:52:03.185072 32111 net.cpp:296] The NetState phase (0) differed from the phase (1) specified by a rule in layer accuracy
I0426 20:52:03.185161 32111 net.cpp:53] Initializing net from parameters: 
name: "LeNet"
state {
  phase: TRAIN
  level: 0
  stage: ""
}
layer {
  name: "mnist"
  type: "Data"
  top: "data"
  top: "label"
  include {
    phase: TRAIN
  }
  transform_param {
    scale: 0.00390625
  }
  data_param {
    source: "examples/mnist/mnist_train_lmdb"
    batch_size: 64
    backend: LMDB
  }
}
layer {
  name: "conv0"
  type: "Convolution"
  bottom: "data"
  top: "conv0"
  param {
    lr_mult: 1
  }
  param {
    lr_mult: 2
  }
  convolution_param {
    num_output: 25
    kernel_size: 5
    stride: 1
    weight_filler {
      type: "xavier"
    }
    bias_filler {
      type: "constant"
    }
  }
}
layer {
  name: "pool0"
  type: "Pooling"
  bottom: "conv0"
  top: "pool0"
  pooling_param {
    pool: MAX
    kernel_size: 2
    stride: 2
  }
}
layer {
  name: "conv1"
  type: "Convolution"
  bottom: "pool0"
  top: "conv1"
  param {
    lr_mult: 1
  }
  param {
    lr_mult: 2
  }
  convolution_param {
    num_output: 10
    kernel_size: 5
    stride: 1
    weight_filler {
      type: "xavier"
    }
    bias_filler {
      type: "constant"
    }
  }
}
layer {
  name: "pool1"
  type: "Pooling"
  bottom: "conv1"
  top: "pool1"
  pooling_param {
    pool: MAX
    kernel_size: 2
    stride: 2
  }
}
layer {
  name: "ip1"
  type: "InnerProduct"
  bottom: "pool1"
  top: "ip1"
  param {
    lr_mult: 1
  }
  param {
    lr_mult: 2
  }
  inner_product_param {
    num_output: 300
    weight_filler {
      type: "xavier"
    }
    bias_filler {
      type: "constant"
    }
  }
}
layer {
  name: "relu1"
  type: "ReLU"
  bottom: "ip1"
  top: "ip1"
}
layer {
  name: "ip2"
  type: "InnerProduct"
  bottom: "ip1"
  top: "ip2"
  param {
    lr_mult: 1
  }
  param {
    lr_mult: 2
  }
  inner_product_param {
    num_output: 10
    weight_filler {
      type: "xavier"
    }
    bias_filler {
      type: "constant"
    }
  }
}
layer {
  name: "relu2"
  type: "ReLU"
  bottom: "ip2"
  top: "ip2"
}
layer {
  name: "loss"
  type: "SoftmaxWithLoss"
  bottom: "ip2"
  bottom: "label"
  top: "loss"
}
I0426 20:52:03.185223 32111 layer_factory.hpp:77] Creating layer mnist
I0426 20:52:03.185305 32111 db_lmdb.cpp:35] Opened lmdb examples/mnist/mnist_train_lmdb
I0426 20:52:03.185325 32111 net.cpp:86] Creating Layer mnist
I0426 20:52:03.185331 32111 net.cpp:382] mnist -> data
I0426 20:52:03.185349 32111 net.cpp:382] mnist -> label
I0426 20:52:03.186291 32111 data_layer.cpp:45] output data size: 64,1,28,28
I0426 20:52:03.188375 32111 net.cpp:124] Setting up mnist
I0426 20:52:03.188388 32111 net.cpp:131] Top shape: 64 1 28 28 (50176)
I0426 20:52:03.188393 32111 net.cpp:131] Top shape: 64 (64)
I0426 20:52:03.188395 32111 net.cpp:139] Memory required for data: 200960
I0426 20:52:03.188400 32111 layer_factory.hpp:77] Creating layer conv0
I0426 20:52:03.188413 32111 net.cpp:86] Creating Layer conv0
I0426 20:52:03.188417 32111 net.cpp:408] conv0 <- data
I0426 20:52:03.188452 32111 net.cpp:382] conv0 -> conv0
I0426 20:52:03.419301 32111 net.cpp:124] Setting up conv0
I0426 20:52:03.419343 32111 net.cpp:131] Top shape: 64 25 24 24 (921600)
I0426 20:52:03.419348 32111 net.cpp:139] Memory required for data: 3887360
I0426 20:52:03.419381 32111 layer_factory.hpp:77] Creating layer pool0
I0426 20:52:03.419410 32111 net.cpp:86] Creating Layer pool0
I0426 20:52:03.419414 32111 net.cpp:408] pool0 <- conv0
I0426 20:52:03.419420 32111 net.cpp:382] pool0 -> pool0
I0426 20:52:03.419463 32111 net.cpp:124] Setting up pool0
I0426 20:52:03.419483 32111 net.cpp:131] Top shape: 64 25 12 12 (230400)
I0426 20:52:03.419500 32111 net.cpp:139] Memory required for data: 4808960
I0426 20:52:03.419502 32111 layer_factory.hpp:77] Creating layer conv1
I0426 20:52:03.419512 32111 net.cpp:86] Creating Layer conv1
I0426 20:52:03.419515 32111 net.cpp:408] conv1 <- pool0
I0426 20:52:03.419520 32111 net.cpp:382] conv1 -> conv1
I0426 20:52:03.422148 32111 net.cpp:124] Setting up conv1
I0426 20:52:03.422163 32111 net.cpp:131] Top shape: 64 10 8 8 (40960)
I0426 20:52:03.422165 32111 net.cpp:139] Memory required for data: 4972800
I0426 20:52:03.422173 32111 layer_factory.hpp:77] Creating layer pool1
I0426 20:52:03.422195 32111 net.cpp:86] Creating Layer pool1
I0426 20:52:03.422199 32111 net.cpp:408] pool1 <- conv1
I0426 20:52:03.422204 32111 net.cpp:382] pool1 -> pool1
I0426 20:52:03.422255 32111 net.cpp:124] Setting up pool1
I0426 20:52:03.422260 32111 net.cpp:131] Top shape: 64 10 4 4 (10240)
I0426 20:52:03.422262 32111 net.cpp:139] Memory required for data: 5013760
I0426 20:52:03.422266 32111 layer_factory.hpp:77] Creating layer ip1
I0426 20:52:03.422271 32111 net.cpp:86] Creating Layer ip1
I0426 20:52:03.422274 32111 net.cpp:408] ip1 <- pool1
I0426 20:52:03.422278 32111 net.cpp:382] ip1 -> ip1
I0426 20:52:03.422653 32111 net.cpp:124] Setting up ip1
I0426 20:52:03.422660 32111 net.cpp:131] Top shape: 64 300 (19200)
I0426 20:52:03.422663 32111 net.cpp:139] Memory required for data: 5090560
I0426 20:52:03.422685 32111 layer_factory.hpp:77] Creating layer relu1
I0426 20:52:03.422690 32111 net.cpp:86] Creating Layer relu1
I0426 20:52:03.422693 32111 net.cpp:408] relu1 <- ip1
I0426 20:52:03.422698 32111 net.cpp:369] relu1 -> ip1 (in-place)
I0426 20:52:03.422868 32111 net.cpp:124] Setting up relu1
I0426 20:52:03.422875 32111 net.cpp:131] Top shape: 64 300 (19200)
I0426 20:52:03.422879 32111 net.cpp:139] Memory required for data: 5167360
I0426 20:52:03.422883 32111 layer_factory.hpp:77] Creating layer ip2
I0426 20:52:03.422888 32111 net.cpp:86] Creating Layer ip2
I0426 20:52:03.422891 32111 net.cpp:408] ip2 <- ip1
I0426 20:52:03.422895 32111 net.cpp:382] ip2 -> ip2
I0426 20:52:03.423840 32111 net.cpp:124] Setting up ip2
I0426 20:52:03.423851 32111 net.cpp:131] Top shape: 64 10 (640)
I0426 20:52:03.423869 32111 net.cpp:139] Memory required for data: 5169920
I0426 20:52:03.423874 32111 layer_factory.hpp:77] Creating layer relu2
I0426 20:52:03.423880 32111 net.cpp:86] Creating Layer relu2
I0426 20:52:03.423884 32111 net.cpp:408] relu2 <- ip2
I0426 20:52:03.423888 32111 net.cpp:369] relu2 -> ip2 (in-place)
I0426 20:52:03.424777 32111 net.cpp:124] Setting up relu2
I0426 20:52:03.424787 32111 net.cpp:131] Top shape: 64 10 (640)
I0426 20:52:03.424806 32111 net.cpp:139] Memory required for data: 5172480
I0426 20:52:03.424815 32111 layer_factory.hpp:77] Creating layer loss
I0426 20:52:03.424840 32111 net.cpp:86] Creating Layer loss
I0426 20:52:03.424844 32111 net.cpp:408] loss <- ip2
I0426 20:52:03.424849 32111 net.cpp:408] loss <- label
I0426 20:52:03.424870 32111 net.cpp:382] loss -> loss
I0426 20:52:03.424907 32111 layer_factory.hpp:77] Creating layer loss
…
I0426 20:52:03.425565 32111 solver.cpp:173] Creating test net (#0) specified by net file: ECE595/mnist/train_test/var_everything/lenet_train_test102.prototxt
I0426 20:52:03.425590 32111 net.cpp:296] The NetState phase (1) differed from the phase (0) specified by a rule in layer mnist
I0426 20:52:03.425673 32111 net.cpp:53] Initializing net from parameters: 
name: "LeNet"
state {
  phase: TEST
}
layer {
  name: "mnist"
  type: "Data"
  top: "data"
  top: "label"
  include {
    phase: TEST
  }
  transform_param {
    scale: 0.00390625
  }
  data_param {
    source: "examples/mnist/mnist_test_lmdb"
    batch_size: 100
    backend: LMDB
  }
}
layer {
  name: "conv0"
  type: "Convolution"
  bottom: "data"
  top: "conv0"
  param {
    lr_mult: 1
  }
  param {
    lr_mult: 2
  }
  convolution_param {
    num_output: 25
    kernel_size: 5
    stride: 1
    weight_filler {
      type: "xavier"
    }
    bias_filler {
      type: "constant"
    }
  }
}
layer {
  name: "pool0"
  type: "Pooling"
  bottom: "conv0"
  top: "pool0"
  pooling_param {
    pool: MAX
    kernel_size: 2
    stride: 2
  }
}
layer {
  name: "conv1"
  type: "Convolution"
  bottom: "pool0"
  top: "conv1"
  param {
    lr_mult: 1
  }
  param {
    lr_mult: 2
  }
  convolution_param {
    num_output: 10
    kernel_size: 5
    stride: 1
    weight_filler {
      type: "xavier"
    }
    bias_filler {
      type: "constant"
    }
  }
}
layer {
  name: "pool1"
  type: "Pooling"
  bottom: "conv1"
  top: "pool1"
  pooling_param {
    pool: MAX
    kernel_size: 2
    stride: 2
  }
}
layer {
  name: "ip1"
  type: "InnerProduct"
  bottom: "pool1"
  top: "ip1"
  param {
    lr_mult: 1
  }
  param {
    lr_mult: 2
  }
  inner_product_param {
    num_output: 300
    weight_filler {
      type: "xavier"
    }
    bias_filler {
      type: "constant"
    }
  }
}
layer {
  name: "relu1"
  type: "ReLU"
  bottom: "ip1"
  top: "ip1"
}
layer {
  name: "ip2"
  type: "InnerProduct"
  bottom: "ip1"
  top: "ip2"
  param {
    lr_mult: 1
  }
  param {
    lr_mult: 2
  }
  inner_product_param {
    num_output: 10
    weight_filler {
      type: "xavier"
    }
    bias_filler {
      type: "constant"
    }
  }
}
layer {
  name: "relu2"
  type: "ReLU"
  bottom: "ip2"
  top: "ip2"
}
layer {
  name: "accuracy"
  type: "Accuracy"
  bottom: "ip2"
  bottom: "label"
  top: "accuracy"
  include {
    phase: TEST
  }
}
layer {
  name: "loss"
  type: "SoftmaxWithLoss"
  bottom: "ip2"
  bottom: "label"
  top: "loss"
}
I0426 20:52:03.425734 32111 layer_factory.hpp:77] Creating layer mnist
I0426 20:52:03.425792 32111 db_lmdb.cpp:35] Opened lmdb examples/mnist/mnist_test_lmdb
I0426 20:52:03.425804 32111 net.cpp:86] Creating Layer mnist
I0426 20:52:03.425809 32111 net.cpp:382] mnist -> data
I0426 20:52:03.425817 32111 net.cpp:382] mnist -> label
I0426 20:52:03.425894 32111 data_layer.cpp:45] output data size: 100,1,28,28
I0426 20:52:03.428066 32111 net.cpp:124] Setting up mnist
I0426 20:52:03.428078 32111 net.cpp:131] Top shape: 100 1 28 28 (78400)
I0426 20:52:03.428082 32111 net.cpp:131] Top shape: 100 (100)
I0426 20:52:03.428086 32111 net.cpp:139] Memory required for data: 314000
I0426 20:52:03.428088 32111 layer_factory.hpp:77] Creating layer label_mnist_1_split
I0426 20:52:03.428097 32111 net.cpp:86] Creating Layer label_mnist_1_split
I0426 20:52:03.428100 32111 net.cpp:408] label_mnist_1_split <- label
I0426 20:52:03.428104 32111 net.cpp:382] label_mnist_1_split -> label_mnist_1_split_0
I0426 20:52:03.428110 32111 net.cpp:382] label_mnist_1_split -> label_mnist_1_split_1
I0426 20:52:03.428169 32111 net.cpp:124] Setting up label_mnist_1_split
I0426 20:52:03.428174 32111 net.cpp:131] Top shape: 100 (100)
I0426 20:52:03.428177 32111 net.cpp:131] Top shape: 100 (100)
I0426 20:52:03.428179 32111 net.cpp:139] Memory required for data: 314800
I0426 20:52:03.428182 32111 layer_factory.hpp:77] Creating layer conv0
I0426 20:52:03.428190 32111 net.cpp:86] Creating Layer conv0
I0426 20:52:03.428194 32111 net.cpp:408] conv0 <- data
I0426 20:52:03.428197 32111 net.cpp:382] conv0 -> conv0
I0426 20:52:03.430095 32111 net.cpp:124] Setting up conv0
I0426 20:52:03.430109 32111 net.cpp:131] Top shape: 100 25 24 24 (1440000)
I0426 20:52:03.430114 32111 net.cpp:139] Memory required for data: 6074800
I0426 20:52:03.430121 32111 layer_factory.hpp:77] Creating layer pool0
I0426 20:52:03.430127 32111 net.cpp:86] Creating Layer pool0
I0426 20:52:03.430146 32111 net.cpp:408] pool0 <- conv0
I0426 20:52:03.430151 32111 net.cpp:382] pool0 -> pool0
I0426 20:52:03.430199 32111 net.cpp:124] Setting up pool0
I0426 20:52:03.430204 32111 net.cpp:131] Top shape: 100 25 12 12 (360000)
I0426 20:52:03.430207 32111 net.cpp:139] Memory required for data: 7514800
I0426 20:52:03.430209 32111 layer_factory.hpp:77] Creating layer conv1
I0426 20:52:03.430218 32111 net.cpp:86] Creating Layer conv1
I0426 20:52:03.430220 32111 net.cpp:408] conv1 <- pool0
I0426 20:52:03.430225 32111 net.cpp:382] conv1 -> conv1
I0426 20:52:03.432301 32111 net.cpp:124] Setting up conv1
I0426 20:52:03.432312 32111 net.cpp:131] Top shape: 100 10 8 8 (64000)
I0426 20:52:03.432317 32111 net.cpp:139] Memory required for data: 7770800
I0426 20:52:03.432324 32111 layer_factory.hpp:77] Creating layer pool1
I0426 20:52:03.432346 32111 net.cpp:86] Creating Layer pool1
I0426 20:52:03.432350 32111 net.cpp:408] pool1 <- conv1
I0426 20:52:03.432370 32111 net.cpp:382] pool1 -> pool1
I0426 20:52:03.432405 32111 net.cpp:124] Setting up pool1
I0426 20:52:03.432410 32111 net.cpp:131] Top shape: 100 10 4 4 (16000)
I0426 20:52:03.432412 32111 net.cpp:139] Memory required for data: 7834800
I0426 20:52:03.432416 32111 layer_factory.hpp:77] Creating layer ip1
I0426 20:52:03.432421 32111 net.cpp:86] Creating Layer ip1
I0426 20:52:03.432425 32111 net.cpp:408] ip1 <- pool1
I0426 20:52:03.432428 32111 net.cpp:382] ip1 -> ip1
I0426 20:52:03.432778 32111 net.cpp:124] Setting up ip1
I0426 20:52:03.432786 32111 net.cpp:131] Top shape: 100 300 (30000)
I0426 20:52:03.432790 32111 net.cpp:139] Memory required for data: 7954800
I0426 20:52:03.432796 32111 layer_factory.hpp:77] Creating layer relu1
I0426 20:52:03.432801 32111 net.cpp:86] Creating Layer relu1
I0426 20:52:03.432804 32111 net.cpp:408] relu1 <- ip1
I0426 20:52:03.432808 32111 net.cpp:369] relu1 -> ip1 (in-place)
I0426 20:52:03.433028 32111 net.cpp:124] Setting up relu1
I0426 20:52:03.433038 32111 net.cpp:131] Top shape: 100 300 (30000)
I0426 20:52:03.433049 32111 net.cpp:139] Memory required for data: 8074800
I0426 20:52:03.433053 32111 layer_factory.hpp:77] Creating layer ip2
I0426 20:52:03.433060 32111 net.cpp:86] Creating Layer ip2
I0426 20:52:03.433063 32111 net.cpp:408] ip2 <- ip1
I0426 20:52:03.433069 32111 net.cpp:382] ip2 -> ip2
I0426 20:52:03.433230 32111 net.cpp:124] Setting up ip2
I0426 20:52:03.433238 32111 net.cpp:131] Top shape: 100 10 (1000)
I0426 20:52:03.433240 32111 net.cpp:139] Memory required for data: 8078800
I0426 20:52:03.433246 32111 layer_factory.hpp:77] Creating layer relu2
I0426 20:52:03.433251 32111 net.cpp:86] Creating Layer relu2
I0426 20:52:03.433254 32111 net.cpp:408] relu2 <- ip2
I0426 20:52:03.433259 32111 net.cpp:369] relu2 -> ip2 (in-place)
I0426 20:52:03.433410 32111 net.cpp:124] Setting up relu2
I0426 20:52:03.433418 32111 net.cpp:131] Top shape: 100 10 (1000)
I0426 20:52:03.433429 32111 net.cpp:139] Memory required for data: 8082800
I0426 20:52:03.433431 32111 layer_factory.hpp:77] Creating layer ip2_relu2_0_split
I0426 20:52:03.433436 32111 net.cpp:86] Creating Layer ip2_relu2_0_split
I0426 20:52:03.433439 32111 net.cpp:408] ip2_relu2_0_split <- ip2
I0426 20:52:03.433459 32111 net.cpp:382] ip2_relu2_0_split -> ip2_relu2_0_split_0
I0426 20:52:03.433473 32111 net.cpp:382] ip2_relu2_0_split -> ip2_relu2_0_split_1
I0426 20:52:03.433507 32111 net.cpp:124] Setting up ip2_relu2_0_split
I0426 20:52:03.433512 32111 net.cpp:131] Top shape: 100 10 (1000)
I0426 20:52:03.433516 32111 net.cpp:131] Top shape: 100 10 (1000)
I0426 20:52:03.433519 32111 net.cpp:139] Memory required for data: 8090800
I0426 20:52:03.433521 32111 layer_factory.hpp:77] Creating layer accuracy
I0426 20:52:03.433526 32111 net.cpp:86] Creating Layer accuracy
I0426 20:52:03.433529 32111 net.cpp:408] accuracy <- ip2_relu2_0_split_0
I0426 20:52:03.433533 32111 net.cpp:408] accuracy <- label_mnist_1_split_0
I0426 20:52:03.433537 32111 net.cpp:382] accuracy -> accuracy
…
