…
I0426 20:54:07.952957 32610 net.cpp:296] The NetState phase (0) differed from the phase (1) specified by a rule in layer mnist
I0426 20:54:07.952978 32610 net.cpp:296] The NetState phase (0) differed from the phase (1) specified by a rule in layer accuracy
I0426 20:54:07.953081 32610 net.cpp:53] Initializing net from parameters: 
name: "LeNet"
state {
  phase: TRAIN
  level: 0
  stage: ""
}
layer {
  name: "mnist"
  type: "Data"
  top: "data"
  top: "label"
  include {
    phase: TRAIN
  }
  transform_param {
    scale: 0.00390625
  }
  data_param {
    source: "examples/mnist/mnist_train_lmdb"
    batch_size: 64
    backend: LMDB
  }
}
layer {
  name: "conv0"
  type: "Convolution"
  bottom: "data"
  top: "conv0"
  param {
    lr_mult: 1
  }
  param {
    lr_mult: 2
  }
  convolution_param {
    num_output: 50
    kernel_size: 5
    stride: 1
    weight_filler {
      type: "xavier"
    }
    bias_filler {
      type: "constant"
    }
  }
}
layer {
  name: "pool0"
  type: "Pooling"
  bottom: "conv0"
  top: "pool0"
  pooling_param {
    pool: MAX
    kernel_size: 2
    stride: 2
  }
}
layer {
  name: "conv1"
  type: "Convolution"
  bottom: "pool0"
  top: "conv1"
  param {
    lr_mult: 1
  }
  param {
    lr_mult: 2
  }
  convolution_param {
    num_output: 10
    kernel_size: 5
    stride: 1
    weight_filler {
      type: "xavier"
    }
    bias_filler {
      type: "constant"
    }
  }
}
layer {
  name: "pool1"
  type: "Pooling"
  bottom: "conv1"
  top: "pool1"
  pooling_param {
    pool: MAX
    kernel_size: 2
    stride: 2
  }
}
layer {
  name: "ip1"
  type: "InnerProduct"
  bottom: "pool1"
  top: "ip1"
  param {
    lr_mult: 1
  }
  param {
    lr_mult: 2
  }
  inner_product_param {
    num_output: 300
    weight_filler {
      type: "xavier"
    }
    bias_filler {
      type: "constant"
    }
  }
}
layer {
  name: "relu1"
  type: "ReLU"
  bottom: "ip1"
  top: "ip1"
}
layer {
  name: "ip2"
  type: "InnerProduct"
  bottom: "ip1"
  top: "ip2"
  param {
    lr_mult: 1
  }
  param {
    lr_mult: 2
  }
  inner_product_param {
    num_output: 300
    weight_filler {
      type: "xavier"
    }
    bias_filler {
      type: "constant"
    }
  }
}
layer {
  name: "relu2"
  type: "ReLU"
  bottom: "ip2"
  top: "ip2"
}
layer {
  name: "ip3"
  type: "InnerProduct"
  bottom: "ip2"
  top: "ip3"
  param {
    lr_mult: 1
  }
  param {
    lr_mult: 2
  }
  inner_product_param {
    num_output: 10
    weight_filler {
      type: "xavier"
    }
    bias_filler {
      type: "constant"
    }
  }
}
layer {
  name: "relu3"
  type: "ReLU"
  bottom: "ip3"
  top: "ip3"
}
layer {
  name: "loss"
  type: "SoftmaxWithLoss"
  bottom: "ip3"
  bottom: "label"
  top: "loss"
}
I0426 20:54:07.953161 32610 layer_factory.hpp:77] Creating layer mnist
I0426 20:54:07.953259 32610 db_lmdb.cpp:35] Opened lmdb examples/mnist/mnist_train_lmdb
I0426 20:54:07.953282 32610 net.cpp:86] Creating Layer mnist
I0426 20:54:07.953291 32610 net.cpp:382] mnist -> data
I0426 20:54:07.953313 32610 net.cpp:382] mnist -> label
I0426 20:54:07.954402 32610 data_layer.cpp:45] output data size: 64,1,28,28
I0426 20:54:07.956941 32610 net.cpp:124] Setting up mnist
I0426 20:54:07.956961 32610 net.cpp:131] Top shape: 64 1 28 28 (50176)
I0426 20:54:07.956969 32610 net.cpp:131] Top shape: 64 (64)
I0426 20:54:07.956971 32610 net.cpp:139] Memory required for data: 200960
I0426 20:54:07.956979 32610 layer_factory.hpp:77] Creating layer conv0
I0426 20:54:07.956995 32610 net.cpp:86] Creating Layer conv0
I0426 20:54:07.957016 32610 net.cpp:408] conv0 <- data
I0426 20:54:07.957028 32610 net.cpp:382] conv0 -> conv0
I0426 20:54:08.252372 32610 net.cpp:124] Setting up conv0
I0426 20:54:08.252406 32610 net.cpp:131] Top shape: 64 50 24 24 (1843200)
I0426 20:54:08.252413 32610 net.cpp:139] Memory required for data: 7573760
I0426 20:54:08.252430 32610 layer_factory.hpp:77] Creating layer pool0
I0426 20:54:08.252445 32610 net.cpp:86] Creating Layer pool0
I0426 20:54:08.252450 32610 net.cpp:408] pool0 <- conv0
I0426 20:54:08.252457 32610 net.cpp:382] pool0 -> pool0
I0426 20:54:08.252522 32610 net.cpp:124] Setting up pool0
I0426 20:54:08.252532 32610 net.cpp:131] Top shape: 64 50 12 12 (460800)
I0426 20:54:08.252535 32610 net.cpp:139] Memory required for data: 9416960
I0426 20:54:08.252539 32610 layer_factory.hpp:77] Creating layer conv1
I0426 20:54:08.252552 32610 net.cpp:86] Creating Layer conv1
I0426 20:54:08.252557 32610 net.cpp:408] conv1 <- pool0
I0426 20:54:08.252562 32610 net.cpp:382] conv1 -> conv1
I0426 20:54:08.255941 32610 net.cpp:124] Setting up conv1
I0426 20:54:08.255960 32610 net.cpp:131] Top shape: 64 10 8 8 (40960)
I0426 20:54:08.255965 32610 net.cpp:139] Memory required for data: 9580800
I0426 20:54:08.255975 32610 layer_factory.hpp:77] Creating layer pool1
I0426 20:54:08.255985 32610 net.cpp:86] Creating Layer pool1
I0426 20:54:08.255990 32610 net.cpp:408] pool1 <- conv1
I0426 20:54:08.255995 32610 net.cpp:382] pool1 -> pool1
I0426 20:54:08.256039 32610 net.cpp:124] Setting up pool1
I0426 20:54:08.256047 32610 net.cpp:131] Top shape: 64 10 4 4 (10240)
I0426 20:54:08.256050 32610 net.cpp:139] Memory required for data: 9621760
I0426 20:54:08.256053 32610 layer_factory.hpp:77] Creating layer ip1
I0426 20:54:08.256062 32610 net.cpp:86] Creating Layer ip1
I0426 20:54:08.256065 32610 net.cpp:408] ip1 <- pool1
I0426 20:54:08.256072 32610 net.cpp:382] ip1 -> ip1
I0426 20:54:08.256515 32610 net.cpp:124] Setting up ip1
I0426 20:54:08.256525 32610 net.cpp:131] Top shape: 64 300 (19200)
I0426 20:54:08.256530 32610 net.cpp:139] Memory required for data: 9698560
I0426 20:54:08.256538 32610 layer_factory.hpp:77] Creating layer relu1
I0426 20:54:08.256546 32610 net.cpp:86] Creating Layer relu1
I0426 20:54:08.256549 32610 net.cpp:408] relu1 <- ip1
I0426 20:54:08.256554 32610 net.cpp:369] relu1 -> ip1 (in-place)
I0426 20:54:08.256755 32610 net.cpp:124] Setting up relu1
I0426 20:54:08.256767 32610 net.cpp:131] Top shape: 64 300 (19200)
I0426 20:54:08.256772 32610 net.cpp:139] Memory required for data: 9775360
I0426 20:54:08.256775 32610 layer_factory.hpp:77] Creating layer ip2
I0426 20:54:08.256783 32610 net.cpp:86] Creating Layer ip2
I0426 20:54:08.256786 32610 net.cpp:408] ip2 <- ip1
I0426 20:54:08.256793 32610 net.cpp:382] ip2 -> ip2
I0426 20:54:08.258507 32610 net.cpp:124] Setting up ip2
I0426 20:54:08.258523 32610 net.cpp:131] Top shape: 64 300 (19200)
I0426 20:54:08.258527 32610 net.cpp:139] Memory required for data: 9852160
I0426 20:54:08.258535 32610 layer_factory.hpp:77] Creating layer relu2
I0426 20:54:08.258543 32610 net.cpp:86] Creating Layer relu2
I0426 20:54:08.258548 32610 net.cpp:408] relu2 <- ip2
I0426 20:54:08.258554 32610 net.cpp:369] relu2 -> ip2 (in-place)
I0426 20:54:08.259495 32610 net.cpp:124] Setting up relu2
I0426 20:54:08.259510 32610 net.cpp:131] Top shape: 64 300 (19200)
I0426 20:54:08.259516 32610 net.cpp:139] Memory required for data: 9928960
I0426 20:54:08.259519 32610 layer_factory.hpp:77] Creating layer ip3
I0426 20:54:08.259528 32610 net.cpp:86] Creating Layer ip3
I0426 20:54:08.259532 32610 net.cpp:408] ip3 <- ip2
I0426 20:54:08.259538 32610 net.cpp:382] ip3 -> ip3
I0426 20:54:08.259680 32610 net.cpp:124] Setting up ip3
I0426 20:54:08.259690 32610 net.cpp:131] Top shape: 64 10 (640)
I0426 20:54:08.259694 32610 net.cpp:139] Memory required for data: 9931520
I0426 20:54:08.259704 32610 layer_factory.hpp:77] Creating layer relu3
I0426 20:54:08.259711 32610 net.cpp:86] Creating Layer relu3
I0426 20:54:08.259714 32610 net.cpp:408] relu3 <- ip3
I0426 20:54:08.259719 32610 net.cpp:369] relu3 -> ip3 (in-place)
I0426 20:54:08.259920 32610 net.cpp:124] Setting up relu3
I0426 20:54:08.259932 32610 net.cpp:131] Top shape: 64 10 (640)
I0426 20:54:08.259935 32610 net.cpp:139] Memory required for data: 9934080
I0426 20:54:08.259939 32610 layer_factory.hpp:77] Creating layer loss
I0426 20:54:08.259946 32610 net.cpp:86] Creating Layer loss
I0426 20:54:08.259950 32610 net.cpp:408] loss <- ip3
I0426 20:54:08.259955 32610 net.cpp:408] loss <- label
I0426 20:54:08.259961 32610 net.cpp:382] loss -> loss
I0426 20:54:08.259979 32610 layer_factory.hpp:77] Creating layer loss
…
I0426 20:54:08.260731 32610 solver.cpp:173] Creating test net (#0) specified by net file: ECE595/mnist/train_test/var_everything/lenet_train_test152.prototxt
I0426 20:54:08.260763 32610 net.cpp:296] The NetState phase (1) differed from the phase (0) specified by a rule in layer mnist
I0426 20:54:08.260923 32610 net.cpp:53] Initializing net from parameters: 
name: "LeNet"
state {
  phase: TEST
}
layer {
  name: "mnist"
  type: "Data"
  top: "data"
  top: "label"
  include {
    phase: TEST
  }
  transform_param {
    scale: 0.00390625
  }
  data_param {
    source: "examples/mnist/mnist_test_lmdb"
    batch_size: 100
    backend: LMDB
  }
}
layer {
  name: "conv0"
  type: "Convolution"
  bottom: "data"
  top: "conv0"
  param {
    lr_mult: 1
  }
  param {
    lr_mult: 2
  }
  convolution_param {
    num_output: 50
    kernel_size: 5
    stride: 1
    weight_filler {
      type: "xavier"
    }
    bias_filler {
      type: "constant"
    }
  }
}
layer {
  name: "pool0"
  type: "Pooling"
  bottom: "conv0"
  top: "pool0"
  pooling_param {
    pool: MAX
    kernel_size: 2
    stride: 2
  }
}
layer {
  name: "conv1"
  type: "Convolution"
  bottom: "pool0"
  top: "conv1"
  param {
    lr_mult: 1
  }
  param {
    lr_mult: 2
  }
  convolution_param {
    num_output: 10
    kernel_size: 5
    stride: 1
    weight_filler {
      type: "xavier"
    }
    bias_filler {
      type: "constant"
    }
  }
}
layer {
  name: "pool1"
  type: "Pooling"
  bottom: "conv1"
  top: "pool1"
  pooling_param {
    pool: MAX
    kernel_size: 2
    stride: 2
  }
}
layer {
  name: "ip1"
  type: "InnerProduct"
  bottom: "pool1"
  top: "ip1"
  param {
    lr_mult: 1
  }
  param {
    lr_mult: 2
  }
  inner_product_param {
    num_output: 300
    weight_filler {
      type: "xavier"
    }
    bias_filler {
      type: "constant"
    }
  }
}
layer {
  name: "relu1"
  type: "ReLU"
  bottom: "ip1"
  top: "ip1"
}
layer {
  name: "ip2"
  type: "InnerProduct"
  bottom: "ip1"
  top: "ip2"
  param {
    lr_mult: 1
  }
  param {
    lr_mult: 2
  }
  inner_product_param {
    num_output: 300
    weight_filler {
      type: "xavier"
    }
    bias_filler {
      type: "constant"
    }
  }
}
layer {
  name: "relu2"
  type: "ReLU"
  bottom: "ip2"
  top: "ip2"
}
layer {
  name: "ip3"
  type: "InnerProduct"
  bottom: "ip2"
  top: "ip3"
  param {
    lr_mult: 1
  }
  param {
    lr_mult: 2
  }
  inner_product_param {
    num_output: 10
    weight_filler {
      type: "xavier"
    }
    bias_filler {
      type: "constant"
    }
  }
}
layer {
  name: "relu3"
  type: "ReLU"
  bottom: "ip3"
  top: "ip3"
}
layer {
  name: "accuracy"
  type: "Accuracy"
  bottom: "ip3"
  bottom: "label"
  top: "accuracy"
  include {
    phase: TEST
  }
}
layer {
  name: "loss"
  type: "SoftmaxWithLoss"
  bottom: "ip3"
  bottom: "label"
  top: "loss"
}
I0426 20:54:08.261055 32610 layer_factory.hpp:77] Creating layer mnist
I0426 20:54:08.261118 32610 db_lmdb.cpp:35] Opened lmdb examples/mnist/mnist_test_lmdb
I0426 20:54:08.261137 32610 net.cpp:86] Creating Layer mnist
I0426 20:54:08.261145 32610 net.cpp:382] mnist -> data
I0426 20:54:08.261158 32610 net.cpp:382] mnist -> label
I0426 20:54:08.261286 32610 data_layer.cpp:45] output data size: 100,1,28,28
I0426 20:54:08.262838 32610 net.cpp:124] Setting up mnist
I0426 20:54:08.262854 32610 net.cpp:131] Top shape: 100 1 28 28 (78400)
I0426 20:54:08.262861 32610 net.cpp:131] Top shape: 100 (100)
I0426 20:54:08.262866 32610 net.cpp:139] Memory required for data: 314000
I0426 20:54:08.262869 32610 layer_factory.hpp:77] Creating layer label_mnist_1_split
I0426 20:54:08.262877 32610 net.cpp:86] Creating Layer label_mnist_1_split
I0426 20:54:08.262881 32610 net.cpp:408] label_mnist_1_split <- label
I0426 20:54:08.262887 32610 net.cpp:382] label_mnist_1_split -> label_mnist_1_split_0
I0426 20:54:08.262895 32610 net.cpp:382] label_mnist_1_split -> label_mnist_1_split_1
I0426 20:54:08.262956 32610 net.cpp:124] Setting up label_mnist_1_split
I0426 20:54:08.262971 32610 net.cpp:131] Top shape: 100 (100)
I0426 20:54:08.262976 32610 net.cpp:131] Top shape: 100 (100)
I0426 20:54:08.262979 32610 net.cpp:139] Memory required for data: 314800
I0426 20:54:08.262984 32610 layer_factory.hpp:77] Creating layer conv0
I0426 20:54:08.262994 32610 net.cpp:86] Creating Layer conv0
I0426 20:54:08.262996 32610 net.cpp:408] conv0 <- data
I0426 20:54:08.263002 32610 net.cpp:382] conv0 -> conv0
I0426 20:54:08.265033 32610 net.cpp:124] Setting up conv0
I0426 20:54:08.265051 32610 net.cpp:131] Top shape: 100 50 24 24 (2880000)
I0426 20:54:08.265056 32610 net.cpp:139] Memory required for data: 11834800
I0426 20:54:08.265067 32610 layer_factory.hpp:77] Creating layer pool0
I0426 20:54:08.265075 32610 net.cpp:86] Creating Layer pool0
I0426 20:54:08.265079 32610 net.cpp:408] pool0 <- conv0
I0426 20:54:08.265085 32610 net.cpp:382] pool0 -> pool0
I0426 20:54:08.265127 32610 net.cpp:124] Setting up pool0
I0426 20:54:08.265135 32610 net.cpp:131] Top shape: 100 50 12 12 (720000)
I0426 20:54:08.265137 32610 net.cpp:139] Memory required for data: 14714800
I0426 20:54:08.265141 32610 layer_factory.hpp:77] Creating layer conv1
I0426 20:54:08.265151 32610 net.cpp:86] Creating Layer conv1
I0426 20:54:08.265154 32610 net.cpp:408] conv1 <- pool0
I0426 20:54:08.265161 32610 net.cpp:382] conv1 -> conv1
I0426 20:54:08.267037 32610 net.cpp:124] Setting up conv1
I0426 20:54:08.267055 32610 net.cpp:131] Top shape: 100 10 8 8 (64000)
I0426 20:54:08.267060 32610 net.cpp:139] Memory required for data: 14970800
I0426 20:54:08.267071 32610 layer_factory.hpp:77] Creating layer pool1
I0426 20:54:08.267078 32610 net.cpp:86] Creating Layer pool1
I0426 20:54:08.267082 32610 net.cpp:408] pool1 <- conv1
I0426 20:54:08.267088 32610 net.cpp:382] pool1 -> pool1
I0426 20:54:08.267130 32610 net.cpp:124] Setting up pool1
I0426 20:54:08.267138 32610 net.cpp:131] Top shape: 100 10 4 4 (16000)
I0426 20:54:08.267140 32610 net.cpp:139] Memory required for data: 15034800
I0426 20:54:08.267144 32610 layer_factory.hpp:77] Creating layer ip1
I0426 20:54:08.267150 32610 net.cpp:86] Creating Layer ip1
I0426 20:54:08.267155 32610 net.cpp:408] ip1 <- pool1
I0426 20:54:08.267161 32610 net.cpp:382] ip1 -> ip1
I0426 20:54:08.267627 32610 net.cpp:124] Setting up ip1
I0426 20:54:08.267637 32610 net.cpp:131] Top shape: 100 300 (30000)
I0426 20:54:08.267653 32610 net.cpp:139] Memory required for data: 15154800
I0426 20:54:08.267663 32610 layer_factory.hpp:77] Creating layer relu1
I0426 20:54:08.267668 32610 net.cpp:86] Creating Layer relu1
I0426 20:54:08.267673 32610 net.cpp:408] relu1 <- ip1
I0426 20:54:08.267678 32610 net.cpp:369] relu1 -> ip1 (in-place)
I0426 20:54:08.267876 32610 net.cpp:124] Setting up relu1
I0426 20:54:08.267887 32610 net.cpp:131] Top shape: 100 300 (30000)
I0426 20:54:08.267892 32610 net.cpp:139] Memory required for data: 15274800
I0426 20:54:08.267896 32610 layer_factory.hpp:77] Creating layer ip2
I0426 20:54:08.267905 32610 net.cpp:86] Creating Layer ip2
I0426 20:54:08.267910 32610 net.cpp:408] ip2 <- ip1
I0426 20:54:08.267915 32610 net.cpp:382] ip2 -> ip2
I0426 20:54:08.268682 32610 net.cpp:124] Setting up ip2
I0426 20:54:08.268693 32610 net.cpp:131] Top shape: 100 300 (30000)
I0426 20:54:08.268697 32610 net.cpp:139] Memory required for data: 15394800
I0426 20:54:08.268704 32610 layer_factory.hpp:77] Creating layer relu2
I0426 20:54:08.268709 32610 net.cpp:86] Creating Layer relu2
I0426 20:54:08.268714 32610 net.cpp:408] relu2 <- ip2
I0426 20:54:08.268719 32610 net.cpp:369] relu2 -> ip2 (in-place)
I0426 20:54:08.268913 32610 net.cpp:124] Setting up relu2
I0426 20:54:08.268924 32610 net.cpp:131] Top shape: 100 300 (30000)
I0426 20:54:08.268929 32610 net.cpp:139] Memory required for data: 15514800
I0426 20:54:08.268934 32610 layer_factory.hpp:77] Creating layer ip3
I0426 20:54:08.268940 32610 net.cpp:86] Creating Layer ip3
I0426 20:54:08.268944 32610 net.cpp:408] ip3 <- ip2
I0426 20:54:08.268959 32610 net.cpp:382] ip3 -> ip3
I0426 20:54:08.269099 32610 net.cpp:124] Setting up ip3
I0426 20:54:08.269109 32610 net.cpp:131] Top shape: 100 10 (1000)
I0426 20:54:08.269112 32610 net.cpp:139] Memory required for data: 15518800
I0426 20:54:08.269122 32610 layer_factory.hpp:77] Creating layer relu3
I0426 20:54:08.269129 32610 net.cpp:86] Creating Layer relu3
I0426 20:54:08.269132 32610 net.cpp:408] relu3 <- ip3
I0426 20:54:08.269137 32610 net.cpp:369] relu3 -> ip3 (in-place)
I0426 20:54:08.270153 32610 net.cpp:124] Setting up relu3
I0426 20:54:08.270167 32610 net.cpp:131] Top shape: 100 10 (1000)
I0426 20:54:08.270172 32610 net.cpp:139] Memory required for data: 15522800
I0426 20:54:08.270176 32610 layer_factory.hpp:77] Creating layer ip3_relu3_0_split
I0426 20:54:08.270182 32610 net.cpp:86] Creating Layer ip3_relu3_0_split
I0426 20:54:08.270187 32610 net.cpp:408] ip3_relu3_0_split <- ip3
I0426 20:54:08.270193 32610 net.cpp:382] ip3_relu3_0_split -> ip3_relu3_0_split_0
I0426 20:54:08.270200 32610 net.cpp:382] ip3_relu3_0_split -> ip3_relu3_0_split_1
I0426 20:54:08.270244 32610 net.cpp:124] Setting up ip3_relu3_0_split
I0426 20:54:08.270251 32610 net.cpp:131] Top shape: 100 10 (1000)
I0426 20:54:08.270256 32610 net.cpp:131] Top shape: 100 10 (1000)
I0426 20:54:08.270259 32610 net.cpp:139] Memory required for data: 15530800
I0426 20:54:08.270262 32610 layer_factory.hpp:77] Creating layer accuracy
I0426 20:54:08.270268 32610 net.cpp:86] Creating Layer accuracy
I0426 20:54:08.270272 32610 net.cpp:408] accuracy <- ip3_relu3_0_split_0
I0426 20:54:08.270277 32610 net.cpp:408] accuracy <- label_mnist_1_split_0
I0426 20:54:08.270282 32610 net.cpp:382] accuracy -> accuracy
…
