…
I0426 20:49:25.150981 31519 net.cpp:296] The NetState phase (0) differed from the phase (1) specified by a rule in layer mnist
I0426 20:49:25.151010 31519 net.cpp:296] The NetState phase (0) differed from the phase (1) specified by a rule in layer accuracy
I0426 20:49:25.151113 31519 net.cpp:53] Initializing net from parameters: 
name: "LeNet"
state {
  phase: TRAIN
  level: 0
  stage: ""
}
layer {
  name: "mnist"
  type: "Data"
  top: "data"
  top: "label"
  include {
    phase: TRAIN
  }
  transform_param {
    scale: 0.00390625
  }
  data_param {
    source: "examples/mnist/mnist_train_lmdb"
    batch_size: 64
    backend: LMDB
  }
}
layer {
  name: "conv0"
  type: "Convolution"
  bottom: "data"
  top: "conv0"
  param {
    lr_mult: 1
  }
  param {
    lr_mult: 2
  }
  convolution_param {
    num_output: 25
    kernel_size: 5
    stride: 1
    weight_filler {
      type: "xavier"
    }
    bias_filler {
      type: "constant"
    }
  }
}
layer {
  name: "pool0"
  type: "Pooling"
  bottom: "conv0"
  top: "pool0"
  pooling_param {
    pool: MAX
    kernel_size: 2
    stride: 2
  }
}
layer {
  name: "ip1"
  type: "InnerProduct"
  bottom: "pool0"
  top: "ip1"
  param {
    lr_mult: 1
  }
  param {
    lr_mult: 2
  }
  inner_product_param {
    num_output: 100
    weight_filler {
      type: "xavier"
    }
    bias_filler {
      type: "constant"
    }
  }
}
layer {
  name: "relu1"
  type: "ReLU"
  bottom: "ip1"
  top: "ip1"
}
layer {
  name: "ip2"
  type: "InnerProduct"
  bottom: "ip1"
  top: "ip2"
  param {
    lr_mult: 1
  }
  param {
    lr_mult: 2
  }
  inner_product_param {
    num_output: 100
    weight_filler {
      type: "xavier"
    }
    bias_filler {
      type: "constant"
    }
  }
}
layer {
  name: "relu2"
  type: "ReLU"
  bottom: "ip2"
  top: "ip2"
}
layer {
  name: "ip3"
  type: "InnerProduct"
  bottom: "ip2"
  top: "ip3"
  param {
    lr_mult: 1
  }
  param {
    lr_mult: 2
  }
  inner_product_param {
    num_output: 10
    weight_filler {
      type: "xavier"
    }
    bias_filler {
      type: "constant"
    }
  }
}
layer {
  name: "relu3"
  type: "ReLU"
  bottom: "ip3"
  top: "ip3"
}
layer {
  name: "loss"
  type: "SoftmaxWithLoss"
  bottom: "ip3"
  bottom: "label"
  top: "loss"
}
I0426 20:49:25.151188 31519 layer_factory.hpp:77] Creating layer mnist
I0426 20:49:25.151289 31519 db_lmdb.cpp:35] Opened lmdb examples/mnist/mnist_train_lmdb
I0426 20:49:25.151310 31519 net.cpp:86] Creating Layer mnist
I0426 20:49:25.151316 31519 net.cpp:382] mnist -> data
I0426 20:49:25.151335 31519 net.cpp:382] mnist -> label
I0426 20:49:25.152268 31519 data_layer.cpp:45] output data size: 64,1,28,28
I0426 20:49:25.154474 31519 net.cpp:124] Setting up mnist
I0426 20:49:25.154486 31519 net.cpp:131] Top shape: 64 1 28 28 (50176)
I0426 20:49:25.154492 31519 net.cpp:131] Top shape: 64 (64)
I0426 20:49:25.154495 31519 net.cpp:139] Memory required for data: 200960
I0426 20:49:25.154500 31519 layer_factory.hpp:77] Creating layer conv0
I0426 20:49:25.154511 31519 net.cpp:86] Creating Layer conv0
I0426 20:49:25.154531 31519 net.cpp:408] conv0 <- data
I0426 20:49:25.154541 31519 net.cpp:382] conv0 -> conv0
I0426 20:49:25.384655 31519 net.cpp:124] Setting up conv0
I0426 20:49:25.384681 31519 net.cpp:131] Top shape: 64 25 24 24 (921600)
I0426 20:49:25.384685 31519 net.cpp:139] Memory required for data: 3887360
I0426 20:49:25.384699 31519 layer_factory.hpp:77] Creating layer pool0
I0426 20:49:25.384727 31519 net.cpp:86] Creating Layer pool0
I0426 20:49:25.384747 31519 net.cpp:408] pool0 <- conv0
I0426 20:49:25.384752 31519 net.cpp:382] pool0 -> pool0
I0426 20:49:25.384796 31519 net.cpp:124] Setting up pool0
I0426 20:49:25.384806 31519 net.cpp:131] Top shape: 64 25 12 12 (230400)
I0426 20:49:25.384815 31519 net.cpp:139] Memory required for data: 4808960
I0426 20:49:25.384820 31519 layer_factory.hpp:77] Creating layer ip1
I0426 20:49:25.384861 31519 net.cpp:86] Creating Layer ip1
I0426 20:49:25.384865 31519 net.cpp:408] ip1 <- pool0
I0426 20:49:25.384871 31519 net.cpp:382] ip1 -> ip1
I0426 20:49:25.387822 31519 net.cpp:124] Setting up ip1
I0426 20:49:25.387835 31519 net.cpp:131] Top shape: 64 100 (6400)
I0426 20:49:25.387838 31519 net.cpp:139] Memory required for data: 4834560
I0426 20:49:25.387862 31519 layer_factory.hpp:77] Creating layer relu1
I0426 20:49:25.387868 31519 net.cpp:86] Creating Layer relu1
I0426 20:49:25.387871 31519 net.cpp:408] relu1 <- ip1
I0426 20:49:25.387876 31519 net.cpp:369] relu1 -> ip1 (in-place)
I0426 20:49:25.388067 31519 net.cpp:124] Setting up relu1
I0426 20:49:25.388077 31519 net.cpp:131] Top shape: 64 100 (6400)
I0426 20:49:25.388080 31519 net.cpp:139] Memory required for data: 4860160
I0426 20:49:25.388083 31519 layer_factory.hpp:77] Creating layer ip2
I0426 20:49:25.388090 31519 net.cpp:86] Creating Layer ip2
I0426 20:49:25.388093 31519 net.cpp:408] ip2 <- ip1
I0426 20:49:25.388098 31519 net.cpp:382] ip2 -> ip2
I0426 20:49:25.389160 31519 net.cpp:124] Setting up ip2
I0426 20:49:25.389173 31519 net.cpp:131] Top shape: 64 100 (6400)
I0426 20:49:25.389176 31519 net.cpp:139] Memory required for data: 4885760
I0426 20:49:25.389199 31519 layer_factory.hpp:77] Creating layer relu2
I0426 20:49:25.389205 31519 net.cpp:86] Creating Layer relu2
I0426 20:49:25.389209 31519 net.cpp:408] relu2 <- ip2
I0426 20:49:25.389212 31519 net.cpp:369] relu2 -> ip2 (in-place)
I0426 20:49:25.390069 31519 net.cpp:124] Setting up relu2
I0426 20:49:25.390081 31519 net.cpp:131] Top shape: 64 100 (6400)
I0426 20:49:25.390084 31519 net.cpp:139] Memory required for data: 4911360
I0426 20:49:25.390089 31519 layer_factory.hpp:77] Creating layer ip3
I0426 20:49:25.390110 31519 net.cpp:86] Creating Layer ip3
I0426 20:49:25.390113 31519 net.cpp:408] ip3 <- ip2
I0426 20:49:25.390120 31519 net.cpp:382] ip3 -> ip3
I0426 20:49:25.390254 31519 net.cpp:124] Setting up ip3
I0426 20:49:25.390261 31519 net.cpp:131] Top shape: 64 10 (640)
I0426 20:49:25.390264 31519 net.cpp:139] Memory required for data: 4913920
I0426 20:49:25.390269 31519 layer_factory.hpp:77] Creating layer relu3
I0426 20:49:25.390276 31519 net.cpp:86] Creating Layer relu3
I0426 20:49:25.390280 31519 net.cpp:408] relu3 <- ip3
I0426 20:49:25.390283 31519 net.cpp:369] relu3 -> ip3 (in-place)
I0426 20:49:25.390450 31519 net.cpp:124] Setting up relu3
I0426 20:49:25.390457 31519 net.cpp:131] Top shape: 64 10 (640)
I0426 20:49:25.390460 31519 net.cpp:139] Memory required for data: 4916480
I0426 20:49:25.390463 31519 layer_factory.hpp:77] Creating layer loss
I0426 20:49:25.390473 31519 net.cpp:86] Creating Layer loss
I0426 20:49:25.390492 31519 net.cpp:408] loss <- ip3
I0426 20:49:25.390496 31519 net.cpp:408] loss <- label
I0426 20:49:25.390502 31519 net.cpp:382] loss -> loss
I0426 20:49:25.390516 31519 layer_factory.hpp:77] Creating layer loss
…
I0426 20:49:25.391145 31519 solver.cpp:173] Creating test net (#0) specified by net file: ECE595/mnist/train_test/var_everything/lenet_train_test35.prototxt
I0426 20:49:25.391171 31519 net.cpp:296] The NetState phase (1) differed from the phase (0) specified by a rule in layer mnist
I0426 20:49:25.391253 31519 net.cpp:53] Initializing net from parameters: 
name: "LeNet"
state {
  phase: TEST
}
layer {
  name: "mnist"
  type: "Data"
  top: "data"
  top: "label"
  include {
    phase: TEST
  }
  transform_param {
    scale: 0.00390625
  }
  data_param {
    source: "examples/mnist/mnist_test_lmdb"
    batch_size: 100
    backend: LMDB
  }
}
layer {
  name: "conv0"
  type: "Convolution"
  bottom: "data"
  top: "conv0"
  param {
    lr_mult: 1
  }
  param {
    lr_mult: 2
  }
  convolution_param {
    num_output: 25
    kernel_size: 5
    stride: 1
    weight_filler {
      type: "xavier"
    }
    bias_filler {
      type: "constant"
    }
  }
}
layer {
  name: "pool0"
  type: "Pooling"
  bottom: "conv0"
  top: "pool0"
  pooling_param {
    pool: MAX
    kernel_size: 2
    stride: 2
  }
}
layer {
  name: "ip1"
  type: "InnerProduct"
  bottom: "pool0"
  top: "ip1"
  param {
    lr_mult: 1
  }
  param {
    lr_mult: 2
  }
  inner_product_param {
    num_output: 100
    weight_filler {
      type: "xavier"
    }
    bias_filler {
      type: "constant"
    }
  }
}
layer {
  name: "relu1"
  type: "ReLU"
  bottom: "ip1"
  top: "ip1"
}
layer {
  name: "ip2"
  type: "InnerProduct"
  bottom: "ip1"
  top: "ip2"
  param {
    lr_mult: 1
  }
  param {
    lr_mult: 2
  }
  inner_product_param {
    num_output: 100
    weight_filler {
      type: "xavier"
    }
    bias_filler {
      type: "constant"
    }
  }
}
layer {
  name: "relu2"
  type: "ReLU"
  bottom: "ip2"
  top: "ip2"
}
layer {
  name: "ip3"
  type: "InnerProduct"
  bottom: "ip2"
  top: "ip3"
  param {
    lr_mult: 1
  }
  param {
    lr_mult: 2
  }
  inner_product_param {
    num_output: 10
    weight_filler {
      type: "xavier"
    }
    bias_filler {
      type: "constant"
    }
  }
}
layer {
  name: "relu3"
  type: "ReLU"
  bottom: "ip3"
  top: "ip3"
}
layer {
  name: "accuracy"
  type: "Accuracy"
  bottom: "ip3"
  bottom: "label"
  top: "accuracy"
  include {
    phase: TEST
  }
}
layer {
  name: "loss"
  type: "SoftmaxWithLoss"
  bottom: "ip3"
  bottom: "label"
  top: "loss"
}
I0426 20:49:25.391316 31519 layer_factory.hpp:77] Creating layer mnist
I0426 20:49:25.391361 31519 db_lmdb.cpp:35] Opened lmdb examples/mnist/mnist_test_lmdb
I0426 20:49:25.391374 31519 net.cpp:86] Creating Layer mnist
I0426 20:49:25.391378 31519 net.cpp:382] mnist -> data
I0426 20:49:25.391386 31519 net.cpp:382] mnist -> label
I0426 20:49:25.391470 31519 data_layer.cpp:45] output data size: 100,1,28,28
I0426 20:49:25.393733 31519 net.cpp:124] Setting up mnist
I0426 20:49:25.393764 31519 net.cpp:131] Top shape: 100 1 28 28 (78400)
I0426 20:49:25.393769 31519 net.cpp:131] Top shape: 100 (100)
I0426 20:49:25.393772 31519 net.cpp:139] Memory required for data: 314000
I0426 20:49:25.393781 31519 layer_factory.hpp:77] Creating layer label_mnist_1_split
I0426 20:49:25.393788 31519 net.cpp:86] Creating Layer label_mnist_1_split
I0426 20:49:25.393792 31519 net.cpp:408] label_mnist_1_split <- label
I0426 20:49:25.393797 31519 net.cpp:382] label_mnist_1_split -> label_mnist_1_split_0
I0426 20:49:25.393803 31519 net.cpp:382] label_mnist_1_split -> label_mnist_1_split_1
I0426 20:49:25.393901 31519 net.cpp:124] Setting up label_mnist_1_split
I0426 20:49:25.393925 31519 net.cpp:131] Top shape: 100 (100)
I0426 20:49:25.393944 31519 net.cpp:131] Top shape: 100 (100)
I0426 20:49:25.393947 31519 net.cpp:139] Memory required for data: 314800
I0426 20:49:25.393961 31519 layer_factory.hpp:77] Creating layer conv0
I0426 20:49:25.393970 31519 net.cpp:86] Creating Layer conv0
I0426 20:49:25.393975 31519 net.cpp:408] conv0 <- data
I0426 20:49:25.393980 31519 net.cpp:382] conv0 -> conv0
I0426 20:49:25.395668 31519 net.cpp:124] Setting up conv0
I0426 20:49:25.395697 31519 net.cpp:131] Top shape: 100 25 24 24 (1440000)
I0426 20:49:25.395700 31519 net.cpp:139] Memory required for data: 6074800
I0426 20:49:25.395709 31519 layer_factory.hpp:77] Creating layer pool0
I0426 20:49:25.395716 31519 net.cpp:86] Creating Layer pool0
I0426 20:49:25.395720 31519 net.cpp:408] pool0 <- conv0
I0426 20:49:25.395725 31519 net.cpp:382] pool0 -> pool0
I0426 20:49:25.395777 31519 net.cpp:124] Setting up pool0
I0426 20:49:25.395782 31519 net.cpp:131] Top shape: 100 25 12 12 (360000)
I0426 20:49:25.395786 31519 net.cpp:139] Memory required for data: 7514800
I0426 20:49:25.395788 31519 layer_factory.hpp:77] Creating layer ip1
I0426 20:49:25.395794 31519 net.cpp:86] Creating Layer ip1
I0426 20:49:25.395797 31519 net.cpp:408] ip1 <- pool0
I0426 20:49:25.395802 31519 net.cpp:382] ip1 -> ip1
I0426 20:49:25.397990 31519 net.cpp:124] Setting up ip1
I0426 20:49:25.398000 31519 net.cpp:131] Top shape: 100 100 (10000)
I0426 20:49:25.398017 31519 net.cpp:139] Memory required for data: 7554800
I0426 20:49:25.398025 31519 layer_factory.hpp:77] Creating layer relu1
I0426 20:49:25.398038 31519 net.cpp:86] Creating Layer relu1
I0426 20:49:25.398041 31519 net.cpp:408] relu1 <- ip1
I0426 20:49:25.398048 31519 net.cpp:369] relu1 -> ip1 (in-place)
I0426 20:49:25.398317 31519 net.cpp:124] Setting up relu1
I0426 20:49:25.398341 31519 net.cpp:131] Top shape: 100 100 (10000)
I0426 20:49:25.398344 31519 net.cpp:139] Memory required for data: 7594800
I0426 20:49:25.398349 31519 layer_factory.hpp:77] Creating layer ip2
I0426 20:49:25.398356 31519 net.cpp:86] Creating Layer ip2
I0426 20:49:25.398360 31519 net.cpp:408] ip2 <- ip1
I0426 20:49:25.398365 31519 net.cpp:382] ip2 -> ip2
I0426 20:49:25.398548 31519 net.cpp:124] Setting up ip2
I0426 20:49:25.398556 31519 net.cpp:131] Top shape: 100 100 (10000)
I0426 20:49:25.398560 31519 net.cpp:139] Memory required for data: 7634800
I0426 20:49:25.398568 31519 layer_factory.hpp:77] Creating layer relu2
I0426 20:49:25.398573 31519 net.cpp:86] Creating Layer relu2
I0426 20:49:25.398576 31519 net.cpp:408] relu2 <- ip2
I0426 20:49:25.398581 31519 net.cpp:369] relu2 -> ip2 (in-place)
I0426 20:49:25.399519 31519 net.cpp:124] Setting up relu2
I0426 20:49:25.399530 31519 net.cpp:131] Top shape: 100 100 (10000)
I0426 20:49:25.399544 31519 net.cpp:139] Memory required for data: 7674800
I0426 20:49:25.399547 31519 layer_factory.hpp:77] Creating layer ip3
I0426 20:49:25.399556 31519 net.cpp:86] Creating Layer ip3
I0426 20:49:25.399559 31519 net.cpp:408] ip3 <- ip2
I0426 20:49:25.399580 31519 net.cpp:382] ip3 -> ip3
I0426 20:49:25.399709 31519 net.cpp:124] Setting up ip3
I0426 20:49:25.399718 31519 net.cpp:131] Top shape: 100 10 (1000)
I0426 20:49:25.399721 31519 net.cpp:139] Memory required for data: 7678800
I0426 20:49:25.399727 31519 layer_factory.hpp:77] Creating layer relu3
I0426 20:49:25.399732 31519 net.cpp:86] Creating Layer relu3
I0426 20:49:25.399735 31519 net.cpp:408] relu3 <- ip3
I0426 20:49:25.399740 31519 net.cpp:369] relu3 -> ip3 (in-place)
I0426 20:49:25.399904 31519 net.cpp:124] Setting up relu3
I0426 20:49:25.399912 31519 net.cpp:131] Top shape: 100 10 (1000)
I0426 20:49:25.399915 31519 net.cpp:139] Memory required for data: 7682800
I0426 20:49:25.399919 31519 layer_factory.hpp:77] Creating layer ip3_relu3_0_split
I0426 20:49:25.399924 31519 net.cpp:86] Creating Layer ip3_relu3_0_split
I0426 20:49:25.399926 31519 net.cpp:408] ip3_relu3_0_split <- ip3
I0426 20:49:25.399931 31519 net.cpp:382] ip3_relu3_0_split -> ip3_relu3_0_split_0
I0426 20:49:25.399937 31519 net.cpp:382] ip3_relu3_0_split -> ip3_relu3_0_split_1
I0426 20:49:25.399973 31519 net.cpp:124] Setting up ip3_relu3_0_split
I0426 20:49:25.399981 31519 net.cpp:131] Top shape: 100 10 (1000)
I0426 20:49:25.399994 31519 net.cpp:131] Top shape: 100 10 (1000)
I0426 20:49:25.399998 31519 net.cpp:139] Memory required for data: 7690800
I0426 20:49:25.400001 31519 layer_factory.hpp:77] Creating layer accuracy
I0426 20:49:25.400007 31519 net.cpp:86] Creating Layer accuracy
I0426 20:49:25.400012 31519 net.cpp:408] accuracy <- ip3_relu3_0_split_0
I0426 20:49:25.400015 31519 net.cpp:408] accuracy <- label_mnist_1_split_0
I0426 20:49:25.400020 31519 net.cpp:382] accuracy -> accuracy
…
