…
I0426 20:48:20.160027 31216 net.cpp:296] The NetState phase (0) differed from the phase (1) specified by a rule in layer mnist
I0426 20:48:20.160042 31216 net.cpp:296] The NetState phase (0) differed from the phase (1) specified by a rule in layer accuracy
I0426 20:48:20.160107 31216 net.cpp:53] Initializing net from parameters: 
name: "LeNet"
state {
  phase: TRAIN
  level: 0
  stage: ""
}
layer {
  name: "mnist"
  type: "Data"
  top: "data"
  top: "label"
  include {
    phase: TRAIN
  }
  transform_param {
    scale: 0.00390625
  }
  data_param {
    source: "examples/mnist/mnist_train_lmdb"
    batch_size: 64
    backend: LMDB
  }
}
layer {
  name: "ip1"
  type: "InnerProduct"
  bottom: "data"
  top: "ip1"
  param {
    lr_mult: 1
  }
  param {
    lr_mult: 2
  }
  inner_product_param {
    num_output: 100
    weight_filler {
      type: "xavier"
    }
    bias_filler {
      type: "constant"
    }
  }
}
layer {
  name: "relu1"
  type: "ReLU"
  bottom: "ip1"
  top: "ip1"
}
layer {
  name: "ip2"
  type: "InnerProduct"
  bottom: "ip1"
  top: "ip2"
  param {
    lr_mult: 1
  }
  param {
    lr_mult: 2
  }
  inner_product_param {
    num_output: 10
    weight_filler {
      type: "xavier"
    }
    bias_filler {
      type: "constant"
    }
  }
}
layer {
  name: "relu2"
  type: "ReLU"
  bottom: "ip2"
  top: "ip2"
}
layer {
  name: "loss"
  type: "SoftmaxWithLoss"
  bottom: "ip2"
  bottom: "label"
  top: "loss"
}
I0426 20:48:20.160164 31216 layer_factory.hpp:77] Creating layer mnist
I0426 20:48:20.160269 31216 db_lmdb.cpp:35] Opened lmdb examples/mnist/mnist_train_lmdb
I0426 20:48:20.160292 31216 net.cpp:86] Creating Layer mnist
I0426 20:48:20.160301 31216 net.cpp:382] mnist -> data
I0426 20:48:20.160325 31216 net.cpp:382] mnist -> label
I0426 20:48:20.161442 31216 data_layer.cpp:45] output data size: 64,1,28,28
I0426 20:48:20.163965 31216 net.cpp:124] Setting up mnist
I0426 20:48:20.163983 31216 net.cpp:131] Top shape: 64 1 28 28 (50176)
I0426 20:48:20.163990 31216 net.cpp:131] Top shape: 64 (64)
I0426 20:48:20.163993 31216 net.cpp:139] Memory required for data: 200960
I0426 20:48:20.164000 31216 layer_factory.hpp:77] Creating layer ip1
I0426 20:48:20.164011 31216 net.cpp:86] Creating Layer ip1
I0426 20:48:20.164029 31216 net.cpp:408] ip1 <- data
I0426 20:48:20.164041 31216 net.cpp:382] ip1 -> ip1
I0426 20:48:20.165781 31216 net.cpp:124] Setting up ip1
I0426 20:48:20.165797 31216 net.cpp:131] Top shape: 64 100 (6400)
I0426 20:48:20.165801 31216 net.cpp:139] Memory required for data: 226560
I0426 20:48:20.165814 31216 layer_factory.hpp:77] Creating layer relu1
I0426 20:48:20.165823 31216 net.cpp:86] Creating Layer relu1
I0426 20:48:20.165829 31216 net.cpp:408] relu1 <- ip1
I0426 20:48:20.165834 31216 net.cpp:369] relu1 -> ip1 (in-place)
I0426 20:48:20.454221 31216 net.cpp:124] Setting up relu1
I0426 20:48:20.454249 31216 net.cpp:131] Top shape: 64 100 (6400)
I0426 20:48:20.454253 31216 net.cpp:139] Memory required for data: 252160
I0426 20:48:20.454259 31216 layer_factory.hpp:77] Creating layer ip2
I0426 20:48:20.454273 31216 net.cpp:86] Creating Layer ip2
I0426 20:48:20.454278 31216 net.cpp:408] ip2 <- ip1
I0426 20:48:20.454285 31216 net.cpp:382] ip2 -> ip2
I0426 20:48:20.455279 31216 net.cpp:124] Setting up ip2
I0426 20:48:20.455293 31216 net.cpp:131] Top shape: 64 10 (640)
I0426 20:48:20.455296 31216 net.cpp:139] Memory required for data: 254720
I0426 20:48:20.455307 31216 layer_factory.hpp:77] Creating layer relu2
I0426 20:48:20.455330 31216 net.cpp:86] Creating Layer relu2
I0426 20:48:20.455334 31216 net.cpp:408] relu2 <- ip2
I0426 20:48:20.455339 31216 net.cpp:369] relu2 -> ip2 (in-place)
I0426 20:48:20.456166 31216 net.cpp:124] Setting up relu2
I0426 20:48:20.456178 31216 net.cpp:131] Top shape: 64 10 (640)
I0426 20:48:20.456182 31216 net.cpp:139] Memory required for data: 257280
I0426 20:48:20.456185 31216 layer_factory.hpp:77] Creating layer loss
I0426 20:48:20.456193 31216 net.cpp:86] Creating Layer loss
I0426 20:48:20.456197 31216 net.cpp:408] loss <- ip2
I0426 20:48:20.456202 31216 net.cpp:408] loss <- label
I0426 20:48:20.456207 31216 net.cpp:382] loss -> loss
I0426 20:48:20.456226 31216 layer_factory.hpp:77] Creating layer loss
…
I0426 20:48:20.456743 31216 solver.cpp:173] Creating test net (#0) specified by net file: ECE595/mnist/train_test/var_everything/lenet_train_test2.prototxt
I0426 20:48:20.456764 31216 net.cpp:296] The NetState phase (1) differed from the phase (0) specified by a rule in layer mnist
I0426 20:48:20.456836 31216 net.cpp:53] Initializing net from parameters: 
name: "LeNet"
state {
  phase: TEST
}
layer {
  name: "mnist"
  type: "Data"
  top: "data"
  top: "label"
  include {
    phase: TEST
  }
  transform_param {
    scale: 0.00390625
  }
  data_param {
    source: "examples/mnist/mnist_test_lmdb"
    batch_size: 100
    backend: LMDB
  }
}
layer {
  name: "ip1"
  type: "InnerProduct"
  bottom: "data"
  top: "ip1"
  param {
    lr_mult: 1
  }
  param {
    lr_mult: 2
  }
  inner_product_param {
    num_output: 100
    weight_filler {
      type: "xavier"
    }
    bias_filler {
      type: "constant"
    }
  }
}
layer {
  name: "relu1"
  type: "ReLU"
  bottom: "ip1"
  top: "ip1"
}
layer {
  name: "ip2"
  type: "InnerProduct"
  bottom: "ip1"
  top: "ip2"
  param {
    lr_mult: 1
  }
  param {
    lr_mult: 2
  }
  inner_product_param {
    num_output: 10
    weight_filler {
      type: "xavier"
    }
    bias_filler {
      type: "constant"
    }
  }
}
layer {
  name: "relu2"
  type: "ReLU"
  bottom: "ip2"
  top: "ip2"
}
layer {
  name: "accuracy"
  type: "Accuracy"
  bottom: "ip2"
  bottom: "label"
  top: "accuracy"
  include {
    phase: TEST
  }
}
layer {
  name: "loss"
  type: "SoftmaxWithLoss"
  bottom: "ip2"
  bottom: "label"
  top: "loss"
}
I0426 20:48:20.456894 31216 layer_factory.hpp:77] Creating layer mnist
I0426 20:48:20.456941 31216 db_lmdb.cpp:35] Opened lmdb examples/mnist/mnist_test_lmdb
I0426 20:48:20.456954 31216 net.cpp:86] Creating Layer mnist
I0426 20:48:20.456959 31216 net.cpp:382] mnist -> data
I0426 20:48:20.456967 31216 net.cpp:382] mnist -> label
I0426 20:48:20.457057 31216 data_layer.cpp:45] output data size: 100,1,28,28
I0426 20:48:20.458266 31216 net.cpp:124] Setting up mnist
I0426 20:48:20.458278 31216 net.cpp:131] Top shape: 100 1 28 28 (78400)
I0426 20:48:20.458284 31216 net.cpp:131] Top shape: 100 (100)
I0426 20:48:20.458287 31216 net.cpp:139] Memory required for data: 314000
I0426 20:48:20.458290 31216 layer_factory.hpp:77] Creating layer label_mnist_1_split
I0426 20:48:20.458300 31216 net.cpp:86] Creating Layer label_mnist_1_split
I0426 20:48:20.458303 31216 net.cpp:408] label_mnist_1_split <- label
I0426 20:48:20.458308 31216 net.cpp:382] label_mnist_1_split -> label_mnist_1_split_0
I0426 20:48:20.458324 31216 net.cpp:382] label_mnist_1_split -> label_mnist_1_split_1
I0426 20:48:20.458381 31216 net.cpp:124] Setting up label_mnist_1_split
I0426 20:48:20.458386 31216 net.cpp:131] Top shape: 100 (100)
I0426 20:48:20.458390 31216 net.cpp:131] Top shape: 100 (100)
I0426 20:48:20.458394 31216 net.cpp:139] Memory required for data: 314800
I0426 20:48:20.458395 31216 layer_factory.hpp:77] Creating layer ip1
I0426 20:48:20.458401 31216 net.cpp:86] Creating Layer ip1
I0426 20:48:20.458405 31216 net.cpp:408] ip1 <- data
I0426 20:48:20.458410 31216 net.cpp:382] ip1 -> ip1
I0426 20:48:20.458993 31216 net.cpp:124] Setting up ip1
I0426 20:48:20.459002 31216 net.cpp:131] Top shape: 100 100 (10000)
I0426 20:48:20.459004 31216 net.cpp:139] Memory required for data: 354800
I0426 20:48:20.459013 31216 layer_factory.hpp:77] Creating layer relu1
I0426 20:48:20.459019 31216 net.cpp:86] Creating Layer relu1
I0426 20:48:20.459022 31216 net.cpp:408] relu1 <- ip1
I0426 20:48:20.459026 31216 net.cpp:369] relu1 -> ip1 (in-place)
I0426 20:48:20.459198 31216 net.cpp:124] Setting up relu1
I0426 20:48:20.459206 31216 net.cpp:131] Top shape: 100 100 (10000)
I0426 20:48:20.459209 31216 net.cpp:139] Memory required for data: 394800
I0426 20:48:20.459213 31216 layer_factory.hpp:77] Creating layer ip2
I0426 20:48:20.459219 31216 net.cpp:86] Creating Layer ip2
I0426 20:48:20.459223 31216 net.cpp:408] ip2 <- ip1
I0426 20:48:20.459228 31216 net.cpp:382] ip2 -> ip2
I0426 20:48:20.459324 31216 net.cpp:124] Setting up ip2
I0426 20:48:20.459331 31216 net.cpp:131] Top shape: 100 10 (1000)
I0426 20:48:20.459334 31216 net.cpp:139] Memory required for data: 398800
I0426 20:48:20.459342 31216 layer_factory.hpp:77] Creating layer relu2
I0426 20:48:20.459347 31216 net.cpp:86] Creating Layer relu2
I0426 20:48:20.459349 31216 net.cpp:408] relu2 <- ip2
I0426 20:48:20.459353 31216 net.cpp:369] relu2 -> ip2 (in-place)
I0426 20:48:20.460233 31216 net.cpp:124] Setting up relu2
I0426 20:48:20.460245 31216 net.cpp:131] Top shape: 100 10 (1000)
I0426 20:48:20.460248 31216 net.cpp:139] Memory required for data: 402800
I0426 20:48:20.460253 31216 layer_factory.hpp:77] Creating layer ip2_relu2_0_split
I0426 20:48:20.460258 31216 net.cpp:86] Creating Layer ip2_relu2_0_split
I0426 20:48:20.460260 31216 net.cpp:408] ip2_relu2_0_split <- ip2
I0426 20:48:20.460265 31216 net.cpp:382] ip2_relu2_0_split -> ip2_relu2_0_split_0
I0426 20:48:20.460270 31216 net.cpp:382] ip2_relu2_0_split -> ip2_relu2_0_split_1
I0426 20:48:20.460326 31216 net.cpp:124] Setting up ip2_relu2_0_split
I0426 20:48:20.460332 31216 net.cpp:131] Top shape: 100 10 (1000)
I0426 20:48:20.460336 31216 net.cpp:131] Top shape: 100 10 (1000)
I0426 20:48:20.460340 31216 net.cpp:139] Memory required for data: 410800
I0426 20:48:20.460341 31216 layer_factory.hpp:77] Creating layer accuracy
I0426 20:48:20.460348 31216 net.cpp:86] Creating Layer accuracy
I0426 20:48:20.460351 31216 net.cpp:408] accuracy <- ip2_relu2_0_split_0
I0426 20:48:20.460355 31216 net.cpp:408] accuracy <- label_mnist_1_split_0
I0426 20:48:20.460360 31216 net.cpp:382] accuracy -> accuracy
…
