…
I0426 20:55:03.512557   330 net.cpp:296] The NetState phase (0) differed from the phase (1) specified by a rule in layer mnist
I0426 20:55:03.512572   330 net.cpp:296] The NetState phase (0) differed from the phase (1) specified by a rule in layer accuracy
I0426 20:55:03.512660   330 net.cpp:53] Initializing net from parameters: 
name: "LeNet"
state {
  phase: TRAIN
  level: 0
  stage: ""
}
layer {
  name: "mnist"
  type: "Data"
  top: "data"
  top: "label"
  include {
    phase: TRAIN
  }
  transform_param {
    scale: 0.00390625
  }
  data_param {
    source: "examples/mnist/mnist_train_lmdb"
    batch_size: 64
    backend: LMDB
  }
}
layer {
  name: "conv0"
  type: "Convolution"
  bottom: "data"
  top: "conv0"
  param {
    lr_mult: 1
  }
  param {
    lr_mult: 2
  }
  convolution_param {
    num_output: 50
    kernel_size: 5
    stride: 1
    weight_filler {
      type: "xavier"
    }
    bias_filler {
      type: "constant"
    }
  }
}
layer {
  name: "pool0"
  type: "Pooling"
  bottom: "conv0"
  top: "pool0"
  pooling_param {
    pool: MAX
    kernel_size: 2
    stride: 2
  }
}
layer {
  name: "conv1"
  type: "Convolution"
  bottom: "pool0"
  top: "conv1"
  param {
    lr_mult: 1
  }
  param {
    lr_mult: 2
  }
  convolution_param {
    num_output: 50
    kernel_size: 5
    stride: 1
    weight_filler {
      type: "xavier"
    }
    bias_filler {
      type: "constant"
    }
  }
}
layer {
  name: "pool1"
  type: "Pooling"
  bottom: "conv1"
  top: "pool1"
  pooling_param {
    pool: MAX
    kernel_size: 2
    stride: 2
  }
}
layer {
  name: "ip1"
  type: "InnerProduct"
  bottom: "pool1"
  top: "ip1"
  param {
    lr_mult: 1
  }
  param {
    lr_mult: 2
  }
  inner_product_param {
    num_output: 300
    weight_filler {
      type: "xavier"
    }
    bias_filler {
      type: "constant"
    }
  }
}
layer {
  name: "relu1"
  type: "ReLU"
  bottom: "ip1"
  top: "ip1"
}
layer {
  name: "ip2"
  type: "InnerProduct"
  bottom: "ip1"
  top: "ip2"
  param {
    lr_mult: 1
  }
  param {
    lr_mult: 2
  }
  inner_product_param {
    num_output: 10
    weight_filler {
      type: "xavier"
    }
    bias_filler {
      type: "constant"
    }
  }
}
layer {
  name: "relu2"
  type: "ReLU"
  bottom: "ip2"
  top: "ip2"
}
layer {
  name: "loss"
  type: "SoftmaxWithLoss"
  bottom: "ip2"
  bottom: "label"
  top: "loss"
}
I0426 20:55:03.512732   330 layer_factory.hpp:77] Creating layer mnist
I0426 20:55:03.512845   330 db_lmdb.cpp:35] Opened lmdb examples/mnist/mnist_train_lmdb
I0426 20:55:03.512869   330 net.cpp:86] Creating Layer mnist
I0426 20:55:03.512876   330 net.cpp:382] mnist -> data
I0426 20:55:03.512900   330 net.cpp:382] mnist -> label
I0426 20:55:03.513994   330 data_layer.cpp:45] output data size: 64,1,28,28
I0426 20:55:03.516520   330 net.cpp:124] Setting up mnist
I0426 20:55:03.516536   330 net.cpp:131] Top shape: 64 1 28 28 (50176)
I0426 20:55:03.516543   330 net.cpp:131] Top shape: 64 (64)
I0426 20:55:03.516546   330 net.cpp:139] Memory required for data: 200960
I0426 20:55:03.516554   330 layer_factory.hpp:77] Creating layer conv0
I0426 20:55:03.516569   330 net.cpp:86] Creating Layer conv0
I0426 20:55:03.516575   330 net.cpp:408] conv0 <- data
I0426 20:55:03.516587   330 net.cpp:382] conv0 -> conv0
I0426 20:55:03.803632   330 net.cpp:124] Setting up conv0
I0426 20:55:03.803658   330 net.cpp:131] Top shape: 64 50 24 24 (1843200)
I0426 20:55:03.803663   330 net.cpp:139] Memory required for data: 7573760
I0426 20:55:03.803697   330 layer_factory.hpp:77] Creating layer pool0
I0426 20:55:03.803710   330 net.cpp:86] Creating Layer pool0
I0426 20:55:03.803714   330 net.cpp:408] pool0 <- conv0
I0426 20:55:03.803720   330 net.cpp:382] pool0 -> pool0
I0426 20:55:03.803766   330 net.cpp:124] Setting up pool0
I0426 20:55:03.803772   330 net.cpp:131] Top shape: 64 50 12 12 (460800)
I0426 20:55:03.803776   330 net.cpp:139] Memory required for data: 9416960
I0426 20:55:03.803778   330 layer_factory.hpp:77] Creating layer conv1
I0426 20:55:03.803788   330 net.cpp:86] Creating Layer conv1
I0426 20:55:03.803792   330 net.cpp:408] conv1 <- pool0
I0426 20:55:03.803797   330 net.cpp:382] conv1 -> conv1
I0426 20:55:03.806040   330 net.cpp:124] Setting up conv1
I0426 20:55:03.806053   330 net.cpp:131] Top shape: 64 50 8 8 (204800)
I0426 20:55:03.806057   330 net.cpp:139] Memory required for data: 10236160
I0426 20:55:03.806066   330 layer_factory.hpp:77] Creating layer pool1
I0426 20:55:03.806073   330 net.cpp:86] Creating Layer pool1
I0426 20:55:03.806077   330 net.cpp:408] pool1 <- conv1
I0426 20:55:03.806082   330 net.cpp:382] pool1 -> pool1
I0426 20:55:03.806115   330 net.cpp:124] Setting up pool1
I0426 20:55:03.806120   330 net.cpp:131] Top shape: 64 50 4 4 (51200)
I0426 20:55:03.806123   330 net.cpp:139] Memory required for data: 10440960
I0426 20:55:03.806125   330 layer_factory.hpp:77] Creating layer ip1
I0426 20:55:03.806133   330 net.cpp:86] Creating Layer ip1
I0426 20:55:03.806135   330 net.cpp:408] ip1 <- pool1
I0426 20:55:03.806139   330 net.cpp:382] ip1 -> ip1
I0426 20:55:03.808400   330 net.cpp:124] Setting up ip1
I0426 20:55:03.808413   330 net.cpp:131] Top shape: 64 300 (19200)
I0426 20:55:03.808416   330 net.cpp:139] Memory required for data: 10517760
I0426 20:55:03.808424   330 layer_factory.hpp:77] Creating layer relu1
I0426 20:55:03.808430   330 net.cpp:86] Creating Layer relu1
I0426 20:55:03.808434   330 net.cpp:408] relu1 <- ip1
I0426 20:55:03.808439   330 net.cpp:369] relu1 -> ip1 (in-place)
I0426 20:55:03.808612   330 net.cpp:124] Setting up relu1
I0426 20:55:03.808620   330 net.cpp:131] Top shape: 64 300 (19200)
I0426 20:55:03.808624   330 net.cpp:139] Memory required for data: 10594560
I0426 20:55:03.808626   330 layer_factory.hpp:77] Creating layer ip2
I0426 20:55:03.808634   330 net.cpp:86] Creating Layer ip2
I0426 20:55:03.808636   330 net.cpp:408] ip2 <- ip1
I0426 20:55:03.808641   330 net.cpp:382] ip2 -> ip2
I0426 20:55:03.808750   330 net.cpp:124] Setting up ip2
I0426 20:55:03.808758   330 net.cpp:131] Top shape: 64 10 (640)
I0426 20:55:03.808760   330 net.cpp:139] Memory required for data: 10597120
I0426 20:55:03.808765   330 layer_factory.hpp:77] Creating layer relu2
I0426 20:55:03.808771   330 net.cpp:86] Creating Layer relu2
I0426 20:55:03.808774   330 net.cpp:408] relu2 <- ip2
I0426 20:55:03.808779   330 net.cpp:369] relu2 -> ip2 (in-place)
I0426 20:55:03.809656   330 net.cpp:124] Setting up relu2
I0426 20:55:03.809669   330 net.cpp:131] Top shape: 64 10 (640)
I0426 20:55:03.809672   330 net.cpp:139] Memory required for data: 10599680
I0426 20:55:03.809675   330 layer_factory.hpp:77] Creating layer loss
I0426 20:55:03.809681   330 net.cpp:86] Creating Layer loss
I0426 20:55:03.809684   330 net.cpp:408] loss <- ip2
I0426 20:55:03.809689   330 net.cpp:408] loss <- label
I0426 20:55:03.809695   330 net.cpp:382] loss -> loss
I0426 20:55:03.809713   330 layer_factory.hpp:77] Creating layer loss
…
I0426 20:55:03.810374   330 solver.cpp:173] Creating test net (#0) specified by net file: ECE595/mnist/train_test/var_everything/lenet_train_test172.prototxt
I0426 20:55:03.810412   330 net.cpp:296] The NetState phase (1) differed from the phase (0) specified by a rule in layer mnist
I0426 20:55:03.810508   330 net.cpp:53] Initializing net from parameters: 
name: "LeNet"
state {
  phase: TEST
}
layer {
  name: "mnist"
  type: "Data"
  top: "data"
  top: "label"
  include {
    phase: TEST
  }
  transform_param {
    scale: 0.00390625
  }
  data_param {
    source: "examples/mnist/mnist_test_lmdb"
    batch_size: 100
    backend: LMDB
  }
}
layer {
  name: "conv0"
  type: "Convolution"
  bottom: "data"
  top: "conv0"
  param {
    lr_mult: 1
  }
  param {
    lr_mult: 2
  }
  convolution_param {
    num_output: 50
    kernel_size: 5
    stride: 1
    weight_filler {
      type: "xavier"
    }
    bias_filler {
      type: "constant"
    }
  }
}
layer {
  name: "pool0"
  type: "Pooling"
  bottom: "conv0"
  top: "pool0"
  pooling_param {
    pool: MAX
    kernel_size: 2
    stride: 2
  }
}
layer {
  name: "conv1"
  type: "Convolution"
  bottom: "pool0"
  top: "conv1"
  param {
    lr_mult: 1
  }
  param {
    lr_mult: 2
  }
  convolution_param {
    num_output: 50
    kernel_size: 5
    stride: 1
    weight_filler {
      type: "xavier"
    }
    bias_filler {
      type: "constant"
    }
  }
}
layer {
  name: "pool1"
  type: "Pooling"
  bottom: "conv1"
  top: "pool1"
  pooling_param {
    pool: MAX
    kernel_size: 2
    stride: 2
  }
}
layer {
  name: "ip1"
  type: "InnerProduct"
  bottom: "pool1"
  top: "ip1"
  param {
    lr_mult: 1
  }
  param {
    lr_mult: 2
  }
  inner_product_param {
    num_output: 300
    weight_filler {
      type: "xavier"
    }
    bias_filler {
      type: "constant"
    }
  }
}
layer {
  name: "relu1"
  type: "ReLU"
  bottom: "ip1"
  top: "ip1"
}
layer {
  name: "ip2"
  type: "InnerProduct"
  bottom: "ip1"
  top: "ip2"
  param {
    lr_mult: 1
  }
  param {
    lr_mult: 2
  }
  inner_product_param {
    num_output: 10
    weight_filler {
      type: "xavier"
    }
    bias_filler {
      type: "constant"
    }
  }
}
layer {
  name: "relu2"
  type: "ReLU"
  bottom: "ip2"
  top: "ip2"
}
layer {
  name: "accuracy"
  type: "Accuracy"
  bottom: "ip2"
  bottom: "label"
  top: "accuracy"
  include {
    phase: TEST
  }
}
layer {
  name: "loss"
  type: "SoftmaxWithLoss"
  bottom: "ip2"
  bottom: "label"
  top: "loss"
}
I0426 20:55:03.810570   330 layer_factory.hpp:77] Creating layer mnist
I0426 20:55:03.810616   330 db_lmdb.cpp:35] Opened lmdb examples/mnist/mnist_test_lmdb
I0426 20:55:03.810627   330 net.cpp:86] Creating Layer mnist
I0426 20:55:03.810631   330 net.cpp:382] mnist -> data
I0426 20:55:03.810639   330 net.cpp:382] mnist -> label
I0426 20:55:03.810720   330 data_layer.cpp:45] output data size: 100,1,28,28
I0426 20:55:03.812685   330 net.cpp:124] Setting up mnist
I0426 20:55:03.812697   330 net.cpp:131] Top shape: 100 1 28 28 (78400)
I0426 20:55:03.812701   330 net.cpp:131] Top shape: 100 (100)
I0426 20:55:03.812705   330 net.cpp:139] Memory required for data: 314000
I0426 20:55:03.812708   330 layer_factory.hpp:77] Creating layer label_mnist_1_split
I0426 20:55:03.812714   330 net.cpp:86] Creating Layer label_mnist_1_split
I0426 20:55:03.812717   330 net.cpp:408] label_mnist_1_split <- label
I0426 20:55:03.812722   330 net.cpp:382] label_mnist_1_split -> label_mnist_1_split_0
I0426 20:55:03.812728   330 net.cpp:382] label_mnist_1_split -> label_mnist_1_split_1
I0426 20:55:03.812841   330 net.cpp:124] Setting up label_mnist_1_split
I0426 20:55:03.812865   330 net.cpp:131] Top shape: 100 (100)
I0426 20:55:03.812870   330 net.cpp:131] Top shape: 100 (100)
I0426 20:55:03.812872   330 net.cpp:139] Memory required for data: 314800
I0426 20:55:03.812875   330 layer_factory.hpp:77] Creating layer conv0
I0426 20:55:03.812885   330 net.cpp:86] Creating Layer conv0
I0426 20:55:03.812887   330 net.cpp:408] conv0 <- data
I0426 20:55:03.812893   330 net.cpp:382] conv0 -> conv0
I0426 20:55:03.814529   330 net.cpp:124] Setting up conv0
I0426 20:55:03.814543   330 net.cpp:131] Top shape: 100 50 24 24 (2880000)
I0426 20:55:03.814546   330 net.cpp:139] Memory required for data: 11834800
I0426 20:55:03.814555   330 layer_factory.hpp:77] Creating layer pool0
I0426 20:55:03.814561   330 net.cpp:86] Creating Layer pool0
I0426 20:55:03.814564   330 net.cpp:408] pool0 <- conv0
I0426 20:55:03.814569   330 net.cpp:382] pool0 -> pool0
I0426 20:55:03.814602   330 net.cpp:124] Setting up pool0
I0426 20:55:03.814606   330 net.cpp:131] Top shape: 100 50 12 12 (720000)
I0426 20:55:03.814610   330 net.cpp:139] Memory required for data: 14714800
I0426 20:55:03.814612   330 layer_factory.hpp:77] Creating layer conv1
I0426 20:55:03.814620   330 net.cpp:86] Creating Layer conv1
I0426 20:55:03.814623   330 net.cpp:408] conv1 <- pool0
I0426 20:55:03.814628   330 net.cpp:382] conv1 -> conv1
I0426 20:55:03.816478   330 net.cpp:124] Setting up conv1
I0426 20:55:03.816490   330 net.cpp:131] Top shape: 100 50 8 8 (320000)
I0426 20:55:03.816494   330 net.cpp:139] Memory required for data: 15994800
I0426 20:55:03.816503   330 layer_factory.hpp:77] Creating layer pool1
I0426 20:55:03.816509   330 net.cpp:86] Creating Layer pool1
I0426 20:55:03.816512   330 net.cpp:408] pool1 <- conv1
I0426 20:55:03.816519   330 net.cpp:382] pool1 -> pool1
I0426 20:55:03.816570   330 net.cpp:124] Setting up pool1
I0426 20:55:03.816576   330 net.cpp:131] Top shape: 100 50 4 4 (80000)
I0426 20:55:03.816578   330 net.cpp:139] Memory required for data: 16314800
I0426 20:55:03.816581   330 layer_factory.hpp:77] Creating layer ip1
I0426 20:55:03.816588   330 net.cpp:86] Creating Layer ip1
I0426 20:55:03.816591   330 net.cpp:408] ip1 <- pool1
I0426 20:55:03.816596   330 net.cpp:382] ip1 -> ip1
I0426 20:55:03.818053   330 net.cpp:124] Setting up ip1
I0426 20:55:03.818063   330 net.cpp:131] Top shape: 100 300 (30000)
I0426 20:55:03.818064   330 net.cpp:139] Memory required for data: 16434800
I0426 20:55:03.818071   330 layer_factory.hpp:77] Creating layer relu1
I0426 20:55:03.818078   330 net.cpp:86] Creating Layer relu1
I0426 20:55:03.818080   330 net.cpp:408] relu1 <- ip1
I0426 20:55:03.818085   330 net.cpp:369] relu1 -> ip1 (in-place)
I0426 20:55:03.818305   330 net.cpp:124] Setting up relu1
I0426 20:55:03.818312   330 net.cpp:131] Top shape: 100 300 (30000)
I0426 20:55:03.818316   330 net.cpp:139] Memory required for data: 16554800
I0426 20:55:03.818320   330 layer_factory.hpp:77] Creating layer ip2
I0426 20:55:03.818327   330 net.cpp:86] Creating Layer ip2
I0426 20:55:03.818331   330 net.cpp:408] ip2 <- ip1
I0426 20:55:03.818336   330 net.cpp:382] ip2 -> ip2
I0426 20:55:03.818473   330 net.cpp:124] Setting up ip2
I0426 20:55:03.818481   330 net.cpp:131] Top shape: 100 10 (1000)
I0426 20:55:03.818485   330 net.cpp:139] Memory required for data: 16558800
I0426 20:55:03.818490   330 layer_factory.hpp:77] Creating layer relu2
I0426 20:55:03.818495   330 net.cpp:86] Creating Layer relu2
I0426 20:55:03.818497   330 net.cpp:408] relu2 <- ip2
I0426 20:55:03.818502   330 net.cpp:369] relu2 -> ip2 (in-place)
I0426 20:55:03.818706   330 net.cpp:124] Setting up relu2
I0426 20:55:03.818717   330 net.cpp:131] Top shape: 100 10 (1000)
I0426 20:55:03.818719   330 net.cpp:139] Memory required for data: 16562800
I0426 20:55:03.818722   330 layer_factory.hpp:77] Creating layer ip2_relu2_0_split
I0426 20:55:03.818727   330 net.cpp:86] Creating Layer ip2_relu2_0_split
I0426 20:55:03.818730   330 net.cpp:408] ip2_relu2_0_split <- ip2
I0426 20:55:03.818734   330 net.cpp:382] ip2_relu2_0_split -> ip2_relu2_0_split_0
I0426 20:55:03.818752   330 net.cpp:382] ip2_relu2_0_split -> ip2_relu2_0_split_1
I0426 20:55:03.818801   330 net.cpp:124] Setting up ip2_relu2_0_split
I0426 20:55:03.818806   330 net.cpp:131] Top shape: 100 10 (1000)
I0426 20:55:03.818810   330 net.cpp:131] Top shape: 100 10 (1000)
I0426 20:55:03.818814   330 net.cpp:139] Memory required for data: 16570800
I0426 20:55:03.818816   330 layer_factory.hpp:77] Creating layer accuracy
I0426 20:55:03.818821   330 net.cpp:86] Creating Layer accuracy
I0426 20:55:03.818825   330 net.cpp:408] accuracy <- ip2_relu2_0_split_0
I0426 20:55:03.818835   330 net.cpp:408] accuracy <- label_mnist_1_split_0
I0426 20:55:03.818841   330 net.cpp:382] accuracy -> accuracy
…
