…
I0426 20:53:54.060649 32563 net.cpp:296] The NetState phase (0) differed from the phase (1) specified by a rule in layer mnist
I0426 20:53:54.060670 32563 net.cpp:296] The NetState phase (0) differed from the phase (1) specified by a rule in layer accuracy
I0426 20:53:54.060796 32563 net.cpp:53] Initializing net from parameters: 
name: "LeNet"
state {
  phase: TRAIN
  level: 0
  stage: ""
}
layer {
  name: "mnist"
  type: "Data"
  top: "data"
  top: "label"
  include {
    phase: TRAIN
  }
  transform_param {
    scale: 0.00390625
  }
  data_param {
    source: "examples/mnist/mnist_train_lmdb"
    batch_size: 64
    backend: LMDB
  }
}
layer {
  name: "conv0"
  type: "Convolution"
  bottom: "data"
  top: "conv0"
  param {
    lr_mult: 1
  }
  param {
    lr_mult: 2
  }
  convolution_param {
    num_output: 50
    kernel_size: 5
    stride: 1
    weight_filler {
      type: "xavier"
    }
    bias_filler {
      type: "constant"
    }
  }
}
layer {
  name: "pool0"
  type: "Pooling"
  bottom: "conv0"
  top: "pool0"
  pooling_param {
    pool: MAX
    kernel_size: 2
    stride: 2
  }
}
layer {
  name: "conv1"
  type: "Convolution"
  bottom: "pool0"
  top: "conv1"
  param {
    lr_mult: 1
  }
  param {
    lr_mult: 2
  }
  convolution_param {
    num_output: 10
    kernel_size: 5
    stride: 1
    weight_filler {
      type: "xavier"
    }
    bias_filler {
      type: "constant"
    }
  }
}
layer {
  name: "pool1"
  type: "Pooling"
  bottom: "conv1"
  top: "pool1"
  pooling_param {
    pool: MAX
    kernel_size: 2
    stride: 2
  }
}
layer {
  name: "ip1"
  type: "InnerProduct"
  bottom: "pool1"
  top: "ip1"
  param {
    lr_mult: 1
  }
  param {
    lr_mult: 2
  }
  inner_product_param {
    num_output: 100
    weight_filler {
      type: "xavier"
    }
    bias_filler {
      type: "constant"
    }
  }
}
layer {
  name: "relu1"
  type: "ReLU"
  bottom: "ip1"
  top: "ip1"
}
layer {
  name: "ip2"
  type: "InnerProduct"
  bottom: "ip1"
  top: "ip2"
  param {
    lr_mult: 1
  }
  param {
    lr_mult: 2
  }
  inner_product_param {
    num_output: 100
    weight_filler {
      type: "xavier"
    }
    bias_filler {
      type: "constant"
    }
  }
}
layer {
  name: "relu2"
  type: "ReLU"
  bottom: "ip2"
  top: "ip2"
}
layer {
  name: "ip3"
  type: "InnerProduct"
  bottom: "ip2"
  top: "ip3"
  param {
    lr_mult: 1
  }
  param {
    lr_mult: 2
  }
  inner_product_param {
    num_output: 10
    weight_filler {
      type: "xavier"
    }
    bias_filler {
      type: "constant"
    }
  }
}
layer {
  name: "relu3"
  type: "ReLU"
  bottom: "ip3"
  top: "ip3"
}
layer {
  name: "loss"
  type: "SoftmaxWithLoss"
  bottom: "ip3"
  bottom: "label"
  top: "loss"
}
I0426 20:53:54.060914 32563 layer_factory.hpp:77] Creating layer mnist
I0426 20:53:54.061044 32563 db_lmdb.cpp:35] Opened lmdb examples/mnist/mnist_train_lmdb
I0426 20:53:54.061080 32563 net.cpp:86] Creating Layer mnist
I0426 20:53:54.061092 32563 net.cpp:382] mnist -> data
I0426 20:53:54.061125 32563 net.cpp:382] mnist -> label
I0426 20:53:54.062467 32563 data_layer.cpp:45] output data size: 64,1,28,28
I0426 20:53:54.065026 32563 net.cpp:124] Setting up mnist
I0426 20:53:54.065042 32563 net.cpp:131] Top shape: 64 1 28 28 (50176)
I0426 20:53:54.065050 32563 net.cpp:131] Top shape: 64 (64)
I0426 20:53:54.065053 32563 net.cpp:139] Memory required for data: 200960
I0426 20:53:54.065060 32563 layer_factory.hpp:77] Creating layer conv0
I0426 20:53:54.065076 32563 net.cpp:86] Creating Layer conv0
I0426 20:53:54.065102 32563 net.cpp:408] conv0 <- data
I0426 20:53:54.065122 32563 net.cpp:382] conv0 -> conv0
I0426 20:53:54.359715 32563 net.cpp:124] Setting up conv0
I0426 20:53:54.359747 32563 net.cpp:131] Top shape: 64 50 24 24 (1843200)
I0426 20:53:54.359752 32563 net.cpp:139] Memory required for data: 7573760
I0426 20:53:54.359771 32563 layer_factory.hpp:77] Creating layer pool0
I0426 20:53:54.359786 32563 net.cpp:86] Creating Layer pool0
I0426 20:53:54.359791 32563 net.cpp:408] pool0 <- conv0
I0426 20:53:54.359797 32563 net.cpp:382] pool0 -> pool0
I0426 20:53:54.359871 32563 net.cpp:124] Setting up pool0
I0426 20:53:54.359887 32563 net.cpp:131] Top shape: 64 50 12 12 (460800)
I0426 20:53:54.359894 32563 net.cpp:139] Memory required for data: 9416960
I0426 20:53:54.359900 32563 layer_factory.hpp:77] Creating layer conv1
I0426 20:53:54.359918 32563 net.cpp:86] Creating Layer conv1
I0426 20:53:54.359925 32563 net.cpp:408] conv1 <- pool0
I0426 20:53:54.359935 32563 net.cpp:382] conv1 -> conv1
I0426 20:53:54.363320 32563 net.cpp:124] Setting up conv1
I0426 20:53:54.363339 32563 net.cpp:131] Top shape: 64 10 8 8 (40960)
I0426 20:53:54.363343 32563 net.cpp:139] Memory required for data: 9580800
I0426 20:53:54.363354 32563 layer_factory.hpp:77] Creating layer pool1
I0426 20:53:54.363363 32563 net.cpp:86] Creating Layer pool1
I0426 20:53:54.363368 32563 net.cpp:408] pool1 <- conv1
I0426 20:53:54.363373 32563 net.cpp:382] pool1 -> pool1
I0426 20:53:54.363432 32563 net.cpp:124] Setting up pool1
I0426 20:53:54.363445 32563 net.cpp:131] Top shape: 64 10 4 4 (10240)
I0426 20:53:54.363452 32563 net.cpp:139] Memory required for data: 9621760
I0426 20:53:54.363458 32563 layer_factory.hpp:77] Creating layer ip1
I0426 20:53:54.363471 32563 net.cpp:86] Creating Layer ip1
I0426 20:53:54.363477 32563 net.cpp:408] ip1 <- pool1
I0426 20:53:54.363487 32563 net.cpp:382] ip1 -> ip1
I0426 20:53:54.363731 32563 net.cpp:124] Setting up ip1
I0426 20:53:54.363744 32563 net.cpp:131] Top shape: 64 100 (6400)
I0426 20:53:54.363747 32563 net.cpp:139] Memory required for data: 9647360
I0426 20:53:54.363759 32563 layer_factory.hpp:77] Creating layer relu1
I0426 20:53:54.363770 32563 net.cpp:86] Creating Layer relu1
I0426 20:53:54.363777 32563 net.cpp:408] relu1 <- ip1
I0426 20:53:54.363786 32563 net.cpp:369] relu1 -> ip1 (in-place)
I0426 20:53:54.364003 32563 net.cpp:124] Setting up relu1
I0426 20:53:54.364015 32563 net.cpp:131] Top shape: 64 100 (6400)
I0426 20:53:54.364019 32563 net.cpp:139] Memory required for data: 9672960
I0426 20:53:54.364024 32563 layer_factory.hpp:77] Creating layer ip2
I0426 20:53:54.364037 32563 net.cpp:86] Creating Layer ip2
I0426 20:53:54.364044 32563 net.cpp:408] ip2 <- ip1
I0426 20:53:54.364054 32563 net.cpp:382] ip2 -> ip2
I0426 20:53:54.364241 32563 net.cpp:124] Setting up ip2
I0426 20:53:54.364251 32563 net.cpp:131] Top shape: 64 100 (6400)
I0426 20:53:54.364255 32563 net.cpp:139] Memory required for data: 9698560
I0426 20:53:54.364265 32563 layer_factory.hpp:77] Creating layer relu2
I0426 20:53:54.364276 32563 net.cpp:86] Creating Layer relu2
I0426 20:53:54.364284 32563 net.cpp:408] relu2 <- ip2
I0426 20:53:54.364292 32563 net.cpp:369] relu2 -> ip2 (in-place)
I0426 20:53:54.365253 32563 net.cpp:124] Setting up relu2
I0426 20:53:54.365269 32563 net.cpp:131] Top shape: 64 100 (6400)
I0426 20:53:54.365274 32563 net.cpp:139] Memory required for data: 9724160
I0426 20:53:54.365280 32563 layer_factory.hpp:77] Creating layer ip3
I0426 20:53:54.365293 32563 net.cpp:86] Creating Layer ip3
I0426 20:53:54.365299 32563 net.cpp:408] ip3 <- ip2
I0426 20:53:54.365309 32563 net.cpp:382] ip3 -> ip3
I0426 20:53:54.365449 32563 net.cpp:124] Setting up ip3
I0426 20:53:54.365461 32563 net.cpp:131] Top shape: 64 10 (640)
I0426 20:53:54.365465 32563 net.cpp:139] Memory required for data: 9726720
I0426 20:53:54.365479 32563 layer_factory.hpp:77] Creating layer relu3
I0426 20:53:54.365489 32563 net.cpp:86] Creating Layer relu3
I0426 20:53:54.365496 32563 net.cpp:408] relu3 <- ip3
I0426 20:53:54.365505 32563 net.cpp:369] relu3 -> ip3 (in-place)
I0426 20:53:54.365721 32563 net.cpp:124] Setting up relu3
I0426 20:53:54.365733 32563 net.cpp:131] Top shape: 64 10 (640)
I0426 20:53:54.365737 32563 net.cpp:139] Memory required for data: 9729280
I0426 20:53:54.365742 32563 layer_factory.hpp:77] Creating layer loss
I0426 20:53:54.365752 32563 net.cpp:86] Creating Layer loss
I0426 20:53:54.365759 32563 net.cpp:408] loss <- ip3
I0426 20:53:54.365767 32563 net.cpp:408] loss <- label
I0426 20:53:54.365777 32563 net.cpp:382] loss -> loss
I0426 20:53:54.365806 32563 layer_factory.hpp:77] Creating layer loss
…
I0426 20:53:54.366634 32563 solver.cpp:173] Creating test net (#0) specified by net file: ECE595/mnist/train_test/var_everything/lenet_train_test147.prototxt
I0426 20:53:54.366677 32563 net.cpp:296] The NetState phase (1) differed from the phase (0) specified by a rule in layer mnist
I0426 20:53:54.366797 32563 net.cpp:53] Initializing net from parameters: 
name: "LeNet"
state {
  phase: TEST
}
layer {
  name: "mnist"
  type: "Data"
  top: "data"
  top: "label"
  include {
    phase: TEST
  }
  transform_param {
    scale: 0.00390625
  }
  data_param {
    source: "examples/mnist/mnist_test_lmdb"
    batch_size: 100
    backend: LMDB
  }
}
layer {
  name: "conv0"
  type: "Convolution"
  bottom: "data"
  top: "conv0"
  param {
    lr_mult: 1
  }
  param {
    lr_mult: 2
  }
  convolution_param {
    num_output: 50
    kernel_size: 5
    stride: 1
    weight_filler {
      type: "xavier"
    }
    bias_filler {
      type: "constant"
    }
  }
}
layer {
  name: "pool0"
  type: "Pooling"
  bottom: "conv0"
  top: "pool0"
  pooling_param {
    pool: MAX
    kernel_size: 2
    stride: 2
  }
}
layer {
  name: "conv1"
  type: "Convolution"
  bottom: "pool0"
  top: "conv1"
  param {
    lr_mult: 1
  }
  param {
    lr_mult: 2
  }
  convolution_param {
    num_output: 10
    kernel_size: 5
    stride: 1
    weight_filler {
      type: "xavier"
    }
    bias_filler {
      type: "constant"
    }
  }
}
layer {
  name: "pool1"
  type: "Pooling"
  bottom: "conv1"
  top: "pool1"
  pooling_param {
    pool: MAX
    kernel_size: 2
    stride: 2
  }
}
layer {
  name: "ip1"
  type: "InnerProduct"
  bottom: "pool1"
  top: "ip1"
  param {
    lr_mult: 1
  }
  param {
    lr_mult: 2
  }
  inner_product_param {
    num_output: 100
    weight_filler {
      type: "xavier"
    }
    bias_filler {
      type: "constant"
    }
  }
}
layer {
  name: "relu1"
  type: "ReLU"
  bottom: "ip1"
  top: "ip1"
}
layer {
  name: "ip2"
  type: "InnerProduct"
  bottom: "ip1"
  top: "ip2"
  param {
    lr_mult: 1
  }
  param {
    lr_mult: 2
  }
  inner_product_param {
    num_output: 100
    weight_filler {
      type: "xavier"
    }
    bias_filler {
      type: "constant"
    }
  }
}
layer {
  name: "relu2"
  type: "ReLU"
  bottom: "ip2"
  top: "ip2"
}
layer {
  name: "ip3"
  type: "InnerProduct"
  bottom: "ip2"
  top: "ip3"
  param {
    lr_mult: 1
  }
  param {
    lr_mult: 2
  }
  inner_product_param {
    num_output: 10
    weight_filler {
      type: "xavier"
    }
    bias_filler {
      type: "constant"
    }
  }
}
layer {
  name: "relu3"
  type: "ReLU"
  bottom: "ip3"
  top: "ip3"
}
layer {
  name: "accuracy"
  type: "Accuracy"
  bottom: "ip3"
  bottom: "label"
  top: "accuracy"
  include {
    phase: TEST
  }
}
layer {
  name: "loss"
  type: "SoftmaxWithLoss"
  bottom: "ip3"
  bottom: "label"
  top: "loss"
}
I0426 20:53:54.366930 32563 layer_factory.hpp:77] Creating layer mnist
I0426 20:53:54.367002 32563 db_lmdb.cpp:35] Opened lmdb examples/mnist/mnist_test_lmdb
I0426 20:53:54.367023 32563 net.cpp:86] Creating Layer mnist
I0426 20:53:54.367033 32563 net.cpp:382] mnist -> data
I0426 20:53:54.367048 32563 net.cpp:382] mnist -> label
I0426 20:53:54.367192 32563 data_layer.cpp:45] output data size: 100,1,28,28
I0426 20:53:54.369735 32563 net.cpp:124] Setting up mnist
I0426 20:53:54.369751 32563 net.cpp:131] Top shape: 100 1 28 28 (78400)
I0426 20:53:54.369757 32563 net.cpp:131] Top shape: 100 (100)
I0426 20:53:54.369760 32563 net.cpp:139] Memory required for data: 314000
I0426 20:53:54.369765 32563 layer_factory.hpp:77] Creating layer label_mnist_1_split
I0426 20:53:54.369776 32563 net.cpp:86] Creating Layer label_mnist_1_split
I0426 20:53:54.369781 32563 net.cpp:408] label_mnist_1_split <- label
I0426 20:53:54.369787 32563 net.cpp:382] label_mnist_1_split -> label_mnist_1_split_0
I0426 20:53:54.369796 32563 net.cpp:382] label_mnist_1_split -> label_mnist_1_split_1
I0426 20:53:54.369915 32563 net.cpp:124] Setting up label_mnist_1_split
I0426 20:53:54.369926 32563 net.cpp:131] Top shape: 100 (100)
I0426 20:53:54.369931 32563 net.cpp:131] Top shape: 100 (100)
I0426 20:53:54.369936 32563 net.cpp:139] Memory required for data: 314800
I0426 20:53:54.369942 32563 layer_factory.hpp:77] Creating layer conv0
I0426 20:53:54.369958 32563 net.cpp:86] Creating Layer conv0
I0426 20:53:54.369966 32563 net.cpp:408] conv0 <- data
I0426 20:53:54.369976 32563 net.cpp:382] conv0 -> conv0
I0426 20:53:54.371800 32563 net.cpp:124] Setting up conv0
I0426 20:53:54.371817 32563 net.cpp:131] Top shape: 100 50 24 24 (2880000)
I0426 20:53:54.371821 32563 net.cpp:139] Memory required for data: 11834800
I0426 20:53:54.371832 32563 layer_factory.hpp:77] Creating layer pool0
I0426 20:53:54.371840 32563 net.cpp:86] Creating Layer pool0
I0426 20:53:54.371843 32563 net.cpp:408] pool0 <- conv0
I0426 20:53:54.371850 32563 net.cpp:382] pool0 -> pool0
I0426 20:53:54.371906 32563 net.cpp:124] Setting up pool0
I0426 20:53:54.371918 32563 net.cpp:131] Top shape: 100 50 12 12 (720000)
I0426 20:53:54.371925 32563 net.cpp:139] Memory required for data: 14714800
I0426 20:53:54.371932 32563 layer_factory.hpp:77] Creating layer conv1
I0426 20:53:54.371947 32563 net.cpp:86] Creating Layer conv1
I0426 20:53:54.371954 32563 net.cpp:408] conv1 <- pool0
I0426 20:53:54.371964 32563 net.cpp:382] conv1 -> conv1
I0426 20:53:54.373934 32563 net.cpp:124] Setting up conv1
I0426 20:53:54.373950 32563 net.cpp:131] Top shape: 100 10 8 8 (64000)
I0426 20:53:54.373955 32563 net.cpp:139] Memory required for data: 14970800
I0426 20:53:54.373966 32563 layer_factory.hpp:77] Creating layer pool1
I0426 20:53:54.373973 32563 net.cpp:86] Creating Layer pool1
I0426 20:53:54.373977 32563 net.cpp:408] pool1 <- conv1
I0426 20:53:54.373986 32563 net.cpp:382] pool1 -> pool1
I0426 20:53:54.374044 32563 net.cpp:124] Setting up pool1
I0426 20:53:54.374071 32563 net.cpp:131] Top shape: 100 10 4 4 (16000)
I0426 20:53:54.374078 32563 net.cpp:139] Memory required for data: 15034800
I0426 20:53:54.374084 32563 layer_factory.hpp:77] Creating layer ip1
I0426 20:53:54.374095 32563 net.cpp:86] Creating Layer ip1
I0426 20:53:54.374102 32563 net.cpp:408] ip1 <- pool1
I0426 20:53:54.374114 32563 net.cpp:382] ip1 -> ip1
I0426 20:53:54.374358 32563 net.cpp:124] Setting up ip1
I0426 20:53:54.374369 32563 net.cpp:131] Top shape: 100 100 (10000)
I0426 20:53:54.374390 32563 net.cpp:139] Memory required for data: 15074800
I0426 20:53:54.374405 32563 layer_factory.hpp:77] Creating layer relu1
I0426 20:53:54.374419 32563 net.cpp:86] Creating Layer relu1
I0426 20:53:54.374426 32563 net.cpp:408] relu1 <- ip1
I0426 20:53:54.374444 32563 net.cpp:369] relu1 -> ip1 (in-place)
I0426 20:53:54.374646 32563 net.cpp:124] Setting up relu1
I0426 20:53:54.374658 32563 net.cpp:131] Top shape: 100 100 (10000)
I0426 20:53:54.374662 32563 net.cpp:139] Memory required for data: 15114800
I0426 20:53:54.374668 32563 layer_factory.hpp:77] Creating layer ip2
I0426 20:53:54.374682 32563 net.cpp:86] Creating Layer ip2
I0426 20:53:54.374689 32563 net.cpp:408] ip2 <- ip1
I0426 20:53:54.374699 32563 net.cpp:382] ip2 -> ip2
I0426 20:53:54.374914 32563 net.cpp:124] Setting up ip2
I0426 20:53:54.374924 32563 net.cpp:131] Top shape: 100 100 (10000)
I0426 20:53:54.374928 32563 net.cpp:139] Memory required for data: 15154800
I0426 20:53:54.374938 32563 layer_factory.hpp:77] Creating layer relu2
I0426 20:53:54.374948 32563 net.cpp:86] Creating Layer relu2
I0426 20:53:54.374954 32563 net.cpp:408] relu2 <- ip2
I0426 20:53:54.374963 32563 net.cpp:369] relu2 -> ip2 (in-place)
I0426 20:53:54.375178 32563 net.cpp:124] Setting up relu2
I0426 20:53:54.375190 32563 net.cpp:131] Top shape: 100 100 (10000)
I0426 20:53:54.375195 32563 net.cpp:139] Memory required for data: 15194800
I0426 20:53:54.375200 32563 layer_factory.hpp:77] Creating layer ip3
I0426 20:53:54.375211 32563 net.cpp:86] Creating Layer ip3
I0426 20:53:54.375216 32563 net.cpp:408] ip3 <- ip2
I0426 20:53:54.375228 32563 net.cpp:382] ip3 -> ip3
I0426 20:53:54.375372 32563 net.cpp:124] Setting up ip3
I0426 20:53:54.375382 32563 net.cpp:131] Top shape: 100 10 (1000)
I0426 20:53:54.375386 32563 net.cpp:139] Memory required for data: 15198800
I0426 20:53:54.375401 32563 layer_factory.hpp:77] Creating layer relu3
I0426 20:53:54.375411 32563 net.cpp:86] Creating Layer relu3
I0426 20:53:54.375417 32563 net.cpp:408] relu3 <- ip3
I0426 20:53:54.375427 32563 net.cpp:369] relu3 -> ip3 (in-place)
I0426 20:53:54.376454 32563 net.cpp:124] Setting up relu3
I0426 20:53:54.376469 32563 net.cpp:131] Top shape: 100 10 (1000)
I0426 20:53:54.376473 32563 net.cpp:139] Memory required for data: 15202800
I0426 20:53:54.376479 32563 layer_factory.hpp:77] Creating layer ip3_relu3_0_split
I0426 20:53:54.376488 32563 net.cpp:86] Creating Layer ip3_relu3_0_split
I0426 20:53:54.376495 32563 net.cpp:408] ip3_relu3_0_split <- ip3
I0426 20:53:54.376507 32563 net.cpp:382] ip3_relu3_0_split -> ip3_relu3_0_split_0
I0426 20:53:54.376518 32563 net.cpp:382] ip3_relu3_0_split -> ip3_relu3_0_split_1
I0426 20:53:54.376577 32563 net.cpp:124] Setting up ip3_relu3_0_split
I0426 20:53:54.376587 32563 net.cpp:131] Top shape: 100 10 (1000)
I0426 20:53:54.376595 32563 net.cpp:131] Top shape: 100 10 (1000)
I0426 20:53:54.376600 32563 net.cpp:139] Memory required for data: 15210800
I0426 20:53:54.376605 32563 layer_factory.hpp:77] Creating layer accuracy
I0426 20:53:54.376617 32563 net.cpp:86] Creating Layer accuracy
I0426 20:53:54.376624 32563 net.cpp:408] accuracy <- ip3_relu3_0_split_0
I0426 20:53:54.376632 32563 net.cpp:408] accuracy <- label_mnist_1_split_0
I0426 20:53:54.376643 32563 net.cpp:382] accuracy -> accuracy
…
