…
I0426 20:48:52.994519 31393 net.cpp:296] The NetState phase (0) differed from the phase (1) specified by a rule in layer mnist
I0426 20:48:52.994549 31393 net.cpp:296] The NetState phase (0) differed from the phase (1) specified by a rule in layer accuracy
I0426 20:48:52.994619 31393 net.cpp:53] Initializing net from parameters: 
name: "LeNet"
state {
  phase: TRAIN
  level: 0
  stage: ""
}
layer {
  name: "mnist"
  type: "Data"
  top: "data"
  top: "label"
  include {
    phase: TRAIN
  }
  transform_param {
    scale: 0.00390625
  }
  data_param {
    source: "examples/mnist/mnist_train_lmdb"
    batch_size: 64
    backend: LMDB
  }
}
layer {
  name: "conv0"
  type: "Convolution"
  bottom: "data"
  top: "conv0"
  param {
    lr_mult: 1
  }
  param {
    lr_mult: 2
  }
  convolution_param {
    num_output: 10
    kernel_size: 5
    stride: 1
    weight_filler {
      type: "xavier"
    }
    bias_filler {
      type: "constant"
    }
  }
}
layer {
  name: "pool0"
  type: "Pooling"
  bottom: "conv0"
  top: "pool0"
  pooling_param {
    pool: MAX
    kernel_size: 2
    stride: 2
  }
}
layer {
  name: "ip1"
  type: "InnerProduct"
  bottom: "pool0"
  top: "ip1"
  param {
    lr_mult: 1
  }
  param {
    lr_mult: 2
  }
  inner_product_param {
    num_output: 100
    weight_filler {
      type: "xavier"
    }
    bias_filler {
      type: "constant"
    }
  }
}
layer {
  name: "relu1"
  type: "ReLU"
  bottom: "ip1"
  top: "ip1"
}
layer {
  name: "ip2"
  type: "InnerProduct"
  bottom: "ip1"
  top: "ip2"
  param {
    lr_mult: 1
  }
  param {
    lr_mult: 2
  }
  inner_product_param {
    num_output: 100
    weight_filler {
      type: "xavier"
    }
    bias_filler {
      type: "constant"
    }
  }
}
layer {
  name: "relu2"
  type: "ReLU"
  bottom: "ip2"
  top: "ip2"
}
layer {
  name: "ip3"
  type: "InnerProduct"
  bottom: "ip2"
  top: "ip3"
  param {
    lr_mult: 1
  }
  param {
    lr_mult: 2
  }
  inner_product_param {
    num_output: 10
    weight_filler {
      type: "xavier"
    }
    bias_filler {
      type: "constant"
    }
  }
}
layer {
  name: "relu3"
  type: "ReLU"
  bottom: "ip3"
  top: "ip3"
}
layer {
  name: "loss"
  type: "SoftmaxWithLoss"
  bottom: "ip3"
  bottom: "label"
  top: "loss"
}
I0426 20:48:52.994679 31393 layer_factory.hpp:77] Creating layer mnist
I0426 20:48:52.994761 31393 db_lmdb.cpp:35] Opened lmdb examples/mnist/mnist_train_lmdb
I0426 20:48:52.994781 31393 net.cpp:86] Creating Layer mnist
I0426 20:48:52.994787 31393 net.cpp:382] mnist -> data
I0426 20:48:52.994806 31393 net.cpp:382] mnist -> label
I0426 20:48:52.995749 31393 data_layer.cpp:45] output data size: 64,1,28,28
I0426 20:48:52.997861 31393 net.cpp:124] Setting up mnist
I0426 20:48:52.997892 31393 net.cpp:131] Top shape: 64 1 28 28 (50176)
I0426 20:48:52.997897 31393 net.cpp:131] Top shape: 64 (64)
I0426 20:48:52.997900 31393 net.cpp:139] Memory required for data: 200960
I0426 20:48:52.997921 31393 layer_factory.hpp:77] Creating layer conv0
I0426 20:48:52.997936 31393 net.cpp:86] Creating Layer conv0
I0426 20:48:52.997939 31393 net.cpp:408] conv0 <- data
I0426 20:48:52.997951 31393 net.cpp:382] conv0 -> conv0
I0426 20:48:53.226059 31393 net.cpp:124] Setting up conv0
I0426 20:48:53.226104 31393 net.cpp:131] Top shape: 64 10 24 24 (368640)
I0426 20:48:53.226109 31393 net.cpp:139] Memory required for data: 1675520
I0426 20:48:53.226122 31393 layer_factory.hpp:77] Creating layer pool0
I0426 20:48:53.226152 31393 net.cpp:86] Creating Layer pool0
I0426 20:48:53.226172 31393 net.cpp:408] pool0 <- conv0
I0426 20:48:53.226178 31393 net.cpp:382] pool0 -> pool0
I0426 20:48:53.226236 31393 net.cpp:124] Setting up pool0
I0426 20:48:53.226244 31393 net.cpp:131] Top shape: 64 10 12 12 (92160)
I0426 20:48:53.226248 31393 net.cpp:139] Memory required for data: 2044160
I0426 20:48:53.226250 31393 layer_factory.hpp:77] Creating layer ip1
I0426 20:48:53.226263 31393 net.cpp:86] Creating Layer ip1
I0426 20:48:53.226267 31393 net.cpp:408] ip1 <- pool0
I0426 20:48:53.226274 31393 net.cpp:382] ip1 -> ip1
I0426 20:48:53.228106 31393 net.cpp:124] Setting up ip1
I0426 20:48:53.228118 31393 net.cpp:131] Top shape: 64 100 (6400)
I0426 20:48:53.228122 31393 net.cpp:139] Memory required for data: 2069760
I0426 20:48:53.228147 31393 layer_factory.hpp:77] Creating layer relu1
I0426 20:48:53.228163 31393 net.cpp:86] Creating Layer relu1
I0426 20:48:53.228168 31393 net.cpp:408] relu1 <- ip1
I0426 20:48:53.228189 31393 net.cpp:369] relu1 -> ip1 (in-place)
I0426 20:48:53.228375 31393 net.cpp:124] Setting up relu1
I0426 20:48:53.228384 31393 net.cpp:131] Top shape: 64 100 (6400)
I0426 20:48:53.228387 31393 net.cpp:139] Memory required for data: 2095360
I0426 20:48:53.228391 31393 layer_factory.hpp:77] Creating layer ip2
I0426 20:48:53.228399 31393 net.cpp:86] Creating Layer ip2
I0426 20:48:53.228402 31393 net.cpp:408] ip2 <- ip1
I0426 20:48:53.228407 31393 net.cpp:382] ip2 -> ip2
I0426 20:48:53.229466 31393 net.cpp:124] Setting up ip2
I0426 20:48:53.229480 31393 net.cpp:131] Top shape: 64 100 (6400)
I0426 20:48:53.229482 31393 net.cpp:139] Memory required for data: 2120960
I0426 20:48:53.229507 31393 layer_factory.hpp:77] Creating layer relu2
I0426 20:48:53.229514 31393 net.cpp:86] Creating Layer relu2
I0426 20:48:53.229518 31393 net.cpp:408] relu2 <- ip2
I0426 20:48:53.229522 31393 net.cpp:369] relu2 -> ip2 (in-place)
I0426 20:48:53.230307 31393 net.cpp:124] Setting up relu2
I0426 20:48:53.230320 31393 net.cpp:131] Top shape: 64 100 (6400)
I0426 20:48:53.230324 31393 net.cpp:139] Memory required for data: 2146560
I0426 20:48:53.230342 31393 layer_factory.hpp:77] Creating layer ip3
I0426 20:48:53.230350 31393 net.cpp:86] Creating Layer ip3
I0426 20:48:53.230355 31393 net.cpp:408] ip3 <- ip2
I0426 20:48:53.230360 31393 net.cpp:382] ip3 -> ip3
I0426 20:48:53.230464 31393 net.cpp:124] Setting up ip3
I0426 20:48:53.230471 31393 net.cpp:131] Top shape: 64 10 (640)
I0426 20:48:53.230474 31393 net.cpp:139] Memory required for data: 2149120
I0426 20:48:53.230480 31393 layer_factory.hpp:77] Creating layer relu3
I0426 20:48:53.230487 31393 net.cpp:86] Creating Layer relu3
I0426 20:48:53.230491 31393 net.cpp:408] relu3 <- ip3
I0426 20:48:53.230496 31393 net.cpp:369] relu3 -> ip3 (in-place)
I0426 20:48:53.230660 31393 net.cpp:124] Setting up relu3
I0426 20:48:53.230670 31393 net.cpp:131] Top shape: 64 10 (640)
I0426 20:48:53.230674 31393 net.cpp:139] Memory required for data: 2151680
I0426 20:48:53.230676 31393 layer_factory.hpp:77] Creating layer loss
I0426 20:48:53.230681 31393 net.cpp:86] Creating Layer loss
I0426 20:48:53.230684 31393 net.cpp:408] loss <- ip3
I0426 20:48:53.230689 31393 net.cpp:408] loss <- label
I0426 20:48:53.230695 31393 net.cpp:382] loss -> loss
I0426 20:48:53.230710 31393 layer_factory.hpp:77] Creating layer loss
…
I0426 20:48:53.231310 31393 solver.cpp:173] Creating test net (#0) specified by net file: ECE595/mnist/train_test/var_everything/lenet_train_test20.prototxt
I0426 20:48:53.231335 31393 net.cpp:296] The NetState phase (1) differed from the phase (0) specified by a rule in layer mnist
I0426 20:48:53.231413 31393 net.cpp:53] Initializing net from parameters: 
name: "LeNet"
state {
  phase: TEST
}
layer {
  name: "mnist"
  type: "Data"
  top: "data"
  top: "label"
  include {
    phase: TEST
  }
  transform_param {
    scale: 0.00390625
  }
  data_param {
    source: "examples/mnist/mnist_test_lmdb"
    batch_size: 100
    backend: LMDB
  }
}
layer {
  name: "conv0"
  type: "Convolution"
  bottom: "data"
  top: "conv0"
  param {
    lr_mult: 1
  }
  param {
    lr_mult: 2
  }
  convolution_param {
    num_output: 10
    kernel_size: 5
    stride: 1
    weight_filler {
      type: "xavier"
    }
    bias_filler {
      type: "constant"
    }
  }
}
layer {
  name: "pool0"
  type: "Pooling"
  bottom: "conv0"
  top: "pool0"
  pooling_param {
    pool: MAX
    kernel_size: 2
    stride: 2
  }
}
layer {
  name: "ip1"
  type: "InnerProduct"
  bottom: "pool0"
  top: "ip1"
  param {
    lr_mult: 1
  }
  param {
    lr_mult: 2
  }
  inner_product_param {
    num_output: 100
    weight_filler {
      type: "xavier"
    }
    bias_filler {
      type: "constant"
    }
  }
}
layer {
  name: "relu1"
  type: "ReLU"
  bottom: "ip1"
  top: "ip1"
}
layer {
  name: "ip2"
  type: "InnerProduct"
  bottom: "ip1"
  top: "ip2"
  param {
    lr_mult: 1
  }
  param {
    lr_mult: 2
  }
  inner_product_param {
    num_output: 100
    weight_filler {
      type: "xavier"
    }
    bias_filler {
      type: "constant"
    }
  }
}
layer {
  name: "relu2"
  type: "ReLU"
  bottom: "ip2"
  top: "ip2"
}
layer {
  name: "ip3"
  type: "InnerProduct"
  bottom: "ip2"
  top: "ip3"
  param {
    lr_mult: 1
  }
  param {
    lr_mult: 2
  }
  inner_product_param {
    num_output: 10
    weight_filler {
      type: "xavier"
    }
    bias_filler {
      type: "constant"
    }
  }
}
layer {
  name: "relu3"
  type: "ReLU"
  bottom: "ip3"
  top: "ip3"
}
layer {
  name: "accuracy"
  type: "Accuracy"
  bottom: "ip3"
  bottom: "label"
  top: "accuracy"
  include {
    phase: TEST
  }
}
layer {
  name: "loss"
  type: "SoftmaxWithLoss"
  bottom: "ip3"
  bottom: "label"
  top: "loss"
}
I0426 20:48:53.231477 31393 layer_factory.hpp:77] Creating layer mnist
I0426 20:48:53.231520 31393 db_lmdb.cpp:35] Opened lmdb examples/mnist/mnist_test_lmdb
I0426 20:48:53.231534 31393 net.cpp:86] Creating Layer mnist
I0426 20:48:53.231539 31393 net.cpp:382] mnist -> data
I0426 20:48:53.231545 31393 net.cpp:382] mnist -> label
I0426 20:48:53.231629 31393 data_layer.cpp:45] output data size: 100,1,28,28
I0426 20:48:53.232736 31393 net.cpp:124] Setting up mnist
I0426 20:48:53.232749 31393 net.cpp:131] Top shape: 100 1 28 28 (78400)
I0426 20:48:53.232754 31393 net.cpp:131] Top shape: 100 (100)
I0426 20:48:53.232758 31393 net.cpp:139] Memory required for data: 314000
I0426 20:48:53.232760 31393 layer_factory.hpp:77] Creating layer label_mnist_1_split
I0426 20:48:53.232780 31393 net.cpp:86] Creating Layer label_mnist_1_split
I0426 20:48:53.232784 31393 net.cpp:408] label_mnist_1_split <- label
I0426 20:48:53.232789 31393 net.cpp:382] label_mnist_1_split -> label_mnist_1_split_0
I0426 20:48:53.232795 31393 net.cpp:382] label_mnist_1_split -> label_mnist_1_split_1
I0426 20:48:53.232910 31393 net.cpp:124] Setting up label_mnist_1_split
I0426 20:48:53.232918 31393 net.cpp:131] Top shape: 100 (100)
I0426 20:48:53.232923 31393 net.cpp:131] Top shape: 100 (100)
I0426 20:48:53.232926 31393 net.cpp:139] Memory required for data: 314800
I0426 20:48:53.232939 31393 layer_factory.hpp:77] Creating layer conv0
I0426 20:48:53.232949 31393 net.cpp:86] Creating Layer conv0
I0426 20:48:53.232954 31393 net.cpp:408] conv0 <- data
I0426 20:48:53.232959 31393 net.cpp:382] conv0 -> conv0
I0426 20:48:53.234416 31393 net.cpp:124] Setting up conv0
I0426 20:48:53.234438 31393 net.cpp:131] Top shape: 100 10 24 24 (576000)
I0426 20:48:53.234442 31393 net.cpp:139] Memory required for data: 2618800
I0426 20:48:53.234452 31393 layer_factory.hpp:77] Creating layer pool0
I0426 20:48:53.234457 31393 net.cpp:86] Creating Layer pool0
I0426 20:48:53.234472 31393 net.cpp:408] pool0 <- conv0
I0426 20:48:53.234477 31393 net.cpp:382] pool0 -> pool0
I0426 20:48:53.234510 31393 net.cpp:124] Setting up pool0
I0426 20:48:53.234518 31393 net.cpp:131] Top shape: 100 10 12 12 (144000)
I0426 20:48:53.234520 31393 net.cpp:139] Memory required for data: 3194800
I0426 20:48:53.234524 31393 layer_factory.hpp:77] Creating layer ip1
I0426 20:48:53.234529 31393 net.cpp:86] Creating Layer ip1
I0426 20:48:53.234532 31393 net.cpp:408] ip1 <- pool0
I0426 20:48:53.234537 31393 net.cpp:382] ip1 -> ip1
I0426 20:48:53.236306 31393 net.cpp:124] Setting up ip1
I0426 20:48:53.236317 31393 net.cpp:131] Top shape: 100 100 (10000)
I0426 20:48:53.236336 31393 net.cpp:139] Memory required for data: 3234800
I0426 20:48:53.236344 31393 layer_factory.hpp:77] Creating layer relu1
I0426 20:48:53.236349 31393 net.cpp:86] Creating Layer relu1
I0426 20:48:53.236353 31393 net.cpp:408] relu1 <- ip1
I0426 20:48:53.236358 31393 net.cpp:369] relu1 -> ip1 (in-place)
I0426 20:48:53.236548 31393 net.cpp:124] Setting up relu1
I0426 20:48:53.236557 31393 net.cpp:131] Top shape: 100 100 (10000)
I0426 20:48:53.236560 31393 net.cpp:139] Memory required for data: 3274800
I0426 20:48:53.236564 31393 layer_factory.hpp:77] Creating layer ip2
I0426 20:48:53.236569 31393 net.cpp:86] Creating Layer ip2
I0426 20:48:53.236573 31393 net.cpp:408] ip2 <- ip1
I0426 20:48:53.236578 31393 net.cpp:382] ip2 -> ip2
I0426 20:48:53.236738 31393 net.cpp:124] Setting up ip2
I0426 20:48:53.236747 31393 net.cpp:131] Top shape: 100 100 (10000)
I0426 20:48:53.236749 31393 net.cpp:139] Memory required for data: 3314800
I0426 20:48:53.236757 31393 layer_factory.hpp:77] Creating layer relu2
I0426 20:48:53.236760 31393 net.cpp:86] Creating Layer relu2
I0426 20:48:53.236764 31393 net.cpp:408] relu2 <- ip2
I0426 20:48:53.236784 31393 net.cpp:369] relu2 -> ip2 (in-place)
I0426 20:48:53.237704 31393 net.cpp:124] Setting up relu2
I0426 20:48:53.237730 31393 net.cpp:131] Top shape: 100 100 (10000)
I0426 20:48:53.237749 31393 net.cpp:139] Memory required for data: 3354800
I0426 20:48:53.237753 31393 layer_factory.hpp:77] Creating layer ip3
I0426 20:48:53.237761 31393 net.cpp:86] Creating Layer ip3
I0426 20:48:53.237764 31393 net.cpp:408] ip3 <- ip2
I0426 20:48:53.237769 31393 net.cpp:382] ip3 -> ip3
I0426 20:48:53.237906 31393 net.cpp:124] Setting up ip3
I0426 20:48:53.237916 31393 net.cpp:131] Top shape: 100 10 (1000)
I0426 20:48:53.237920 31393 net.cpp:139] Memory required for data: 3358800
I0426 20:48:53.237926 31393 layer_factory.hpp:77] Creating layer relu3
I0426 20:48:53.237929 31393 net.cpp:86] Creating Layer relu3
I0426 20:48:53.237933 31393 net.cpp:408] relu3 <- ip3
I0426 20:48:53.237937 31393 net.cpp:369] relu3 -> ip3 (in-place)
I0426 20:48:53.238087 31393 net.cpp:124] Setting up relu3
I0426 20:48:53.238096 31393 net.cpp:131] Top shape: 100 10 (1000)
I0426 20:48:53.238099 31393 net.cpp:139] Memory required for data: 3362800
I0426 20:48:53.238103 31393 layer_factory.hpp:77] Creating layer ip3_relu3_0_split
I0426 20:48:53.238107 31393 net.cpp:86] Creating Layer ip3_relu3_0_split
I0426 20:48:53.238111 31393 net.cpp:408] ip3_relu3_0_split <- ip3
I0426 20:48:53.238116 31393 net.cpp:382] ip3_relu3_0_split -> ip3_relu3_0_split_0
I0426 20:48:53.238121 31393 net.cpp:382] ip3_relu3_0_split -> ip3_relu3_0_split_1
I0426 20:48:53.238155 31393 net.cpp:124] Setting up ip3_relu3_0_split
I0426 20:48:53.238162 31393 net.cpp:131] Top shape: 100 10 (1000)
I0426 20:48:53.238191 31393 net.cpp:131] Top shape: 100 10 (1000)
I0426 20:48:53.238195 31393 net.cpp:139] Memory required for data: 3370800
I0426 20:48:53.238198 31393 layer_factory.hpp:77] Creating layer accuracy
I0426 20:48:53.238209 31393 net.cpp:86] Creating Layer accuracy
I0426 20:48:53.238217 31393 net.cpp:408] accuracy <- ip3_relu3_0_split_0
I0426 20:48:53.238226 31393 net.cpp:408] accuracy <- label_mnist_1_split_0
I0426 20:48:53.238231 31393 net.cpp:382] accuracy -> accuracy
…
