…
I0426 20:49:59.535979 31661 net.cpp:296] The NetState phase (0) differed from the phase (1) specified by a rule in layer mnist
I0426 20:49:59.535992 31661 net.cpp:296] The NetState phase (0) differed from the phase (1) specified by a rule in layer accuracy
I0426 20:49:59.536062 31661 net.cpp:53] Initializing net from parameters: 
name: "LeNet"
state {
  phase: TRAIN
  level: 0
  stage: ""
}
layer {
  name: "mnist"
  type: "Data"
  top: "data"
  top: "label"
  include {
    phase: TRAIN
  }
  transform_param {
    scale: 0.00390625
  }
  data_param {
    source: "examples/mnist/mnist_train_lmdb"
    batch_size: 64
    backend: LMDB
  }
}
layer {
  name: "conv0"
  type: "Convolution"
  bottom: "data"
  top: "conv0"
  param {
    lr_mult: 1
  }
  param {
    lr_mult: 2
  }
  convolution_param {
    num_output: 50
    kernel_size: 5
    stride: 1
    weight_filler {
      type: "xavier"
    }
    bias_filler {
      type: "constant"
    }
  }
}
layer {
  name: "pool0"
  type: "Pooling"
  bottom: "conv0"
  top: "pool0"
  pooling_param {
    pool: MAX
    kernel_size: 2
    stride: 2
  }
}
layer {
  name: "ip1"
  type: "InnerProduct"
  bottom: "pool0"
  top: "ip1"
  param {
    lr_mult: 1
  }
  param {
    lr_mult: 2
  }
  inner_product_param {
    num_output: 100
    weight_filler {
      type: "xavier"
    }
    bias_filler {
      type: "constant"
    }
  }
}
layer {
  name: "relu1"
  type: "ReLU"
  bottom: "ip1"
  top: "ip1"
}
layer {
  name: "ip2"
  type: "InnerProduct"
  bottom: "ip1"
  top: "ip2"
  param {
    lr_mult: 1
  }
  param {
    lr_mult: 2
  }
  inner_product_param {
    num_output: 100
    weight_filler {
      type: "xavier"
    }
    bias_filler {
      type: "constant"
    }
  }
}
layer {
  name: "relu2"
  type: "ReLU"
  bottom: "ip2"
  top: "ip2"
}
layer {
  name: "ip3"
  type: "InnerProduct"
  bottom: "ip2"
  top: "ip3"
  param {
    lr_mult: 1
  }
  param {
    lr_mult: 2
  }
  inner_product_param {
    num_output: 10
    weight_filler {
      type: "xavier"
    }
    bias_filler {
      type: "constant"
    }
  }
}
layer {
  name: "relu3"
  type: "ReLU"
  bottom: "ip3"
  top: "ip3"
}
layer {
  name: "loss"
  type: "SoftmaxWithLoss"
  bottom: "ip3"
  bottom: "label"
  top: "loss"
}
I0426 20:49:59.536121 31661 layer_factory.hpp:77] Creating layer mnist
I0426 20:49:59.536216 31661 db_lmdb.cpp:35] Opened lmdb examples/mnist/mnist_train_lmdb
I0426 20:49:59.536237 31661 net.cpp:86] Creating Layer mnist
I0426 20:49:59.536243 31661 net.cpp:382] mnist -> data
I0426 20:49:59.536262 31661 net.cpp:382] mnist -> label
I0426 20:49:59.537284 31661 data_layer.cpp:45] output data size: 64,1,28,28
I0426 20:49:59.539368 31661 net.cpp:124] Setting up mnist
I0426 20:49:59.539381 31661 net.cpp:131] Top shape: 64 1 28 28 (50176)
I0426 20:49:59.539387 31661 net.cpp:131] Top shape: 64 (64)
I0426 20:49:59.539391 31661 net.cpp:139] Memory required for data: 200960
I0426 20:49:59.539396 31661 layer_factory.hpp:77] Creating layer conv0
I0426 20:49:59.539423 31661 net.cpp:86] Creating Layer conv0
I0426 20:49:59.539427 31661 net.cpp:408] conv0 <- data
I0426 20:49:59.539438 31661 net.cpp:382] conv0 -> conv0
I0426 20:49:59.773463 31661 net.cpp:124] Setting up conv0
I0426 20:49:59.773504 31661 net.cpp:131] Top shape: 64 50 24 24 (1843200)
I0426 20:49:59.773509 31661 net.cpp:139] Memory required for data: 7573760
I0426 20:49:59.773522 31661 layer_factory.hpp:77] Creating layer pool0
I0426 20:49:59.773535 31661 net.cpp:86] Creating Layer pool0
I0426 20:49:59.773556 31661 net.cpp:408] pool0 <- conv0
I0426 20:49:59.773562 31661 net.cpp:382] pool0 -> pool0
I0426 20:49:59.773607 31661 net.cpp:124] Setting up pool0
I0426 20:49:59.773612 31661 net.cpp:131] Top shape: 64 50 12 12 (460800)
I0426 20:49:59.773614 31661 net.cpp:139] Memory required for data: 9416960
I0426 20:49:59.773617 31661 layer_factory.hpp:77] Creating layer ip1
I0426 20:49:59.773623 31661 net.cpp:86] Creating Layer ip1
I0426 20:49:59.773627 31661 net.cpp:408] ip1 <- pool0
I0426 20:49:59.773632 31661 net.cpp:382] ip1 -> ip1
I0426 20:49:59.778365 31661 net.cpp:124] Setting up ip1
I0426 20:49:59.778378 31661 net.cpp:131] Top shape: 64 100 (6400)
I0426 20:49:59.778395 31661 net.cpp:139] Memory required for data: 9442560
I0426 20:49:59.778403 31661 layer_factory.hpp:77] Creating layer relu1
I0426 20:49:59.778410 31661 net.cpp:86] Creating Layer relu1
I0426 20:49:59.778414 31661 net.cpp:408] relu1 <- ip1
I0426 20:49:59.778419 31661 net.cpp:369] relu1 -> ip1 (in-place)
I0426 20:49:59.778604 31661 net.cpp:124] Setting up relu1
I0426 20:49:59.778611 31661 net.cpp:131] Top shape: 64 100 (6400)
I0426 20:49:59.778614 31661 net.cpp:139] Memory required for data: 9468160
I0426 20:49:59.778617 31661 layer_factory.hpp:77] Creating layer ip2
I0426 20:49:59.778625 31661 net.cpp:86] Creating Layer ip2
I0426 20:49:59.778626 31661 net.cpp:408] ip2 <- ip1
I0426 20:49:59.778631 31661 net.cpp:382] ip2 -> ip2
I0426 20:49:59.779583 31661 net.cpp:124] Setting up ip2
I0426 20:49:59.779594 31661 net.cpp:131] Top shape: 64 100 (6400)
I0426 20:49:59.779613 31661 net.cpp:139] Memory required for data: 9493760
I0426 20:49:59.779620 31661 layer_factory.hpp:77] Creating layer relu2
I0426 20:49:59.779625 31661 net.cpp:86] Creating Layer relu2
I0426 20:49:59.779630 31661 net.cpp:408] relu2 <- ip2
I0426 20:49:59.779634 31661 net.cpp:369] relu2 -> ip2 (in-place)
I0426 20:49:59.780445 31661 net.cpp:124] Setting up relu2
I0426 20:49:59.780457 31661 net.cpp:131] Top shape: 64 100 (6400)
I0426 20:49:59.780474 31661 net.cpp:139] Memory required for data: 9519360
I0426 20:49:59.780478 31661 layer_factory.hpp:77] Creating layer ip3
I0426 20:49:59.780484 31661 net.cpp:86] Creating Layer ip3
I0426 20:49:59.780488 31661 net.cpp:408] ip3 <- ip2
I0426 20:49:59.780493 31661 net.cpp:382] ip3 -> ip3
I0426 20:49:59.780606 31661 net.cpp:124] Setting up ip3
I0426 20:49:59.780612 31661 net.cpp:131] Top shape: 64 10 (640)
I0426 20:49:59.780616 31661 net.cpp:139] Memory required for data: 9521920
I0426 20:49:59.780620 31661 layer_factory.hpp:77] Creating layer relu3
I0426 20:49:59.780627 31661 net.cpp:86] Creating Layer relu3
I0426 20:49:59.780629 31661 net.cpp:408] relu3 <- ip3
I0426 20:49:59.780633 31661 net.cpp:369] relu3 -> ip3 (in-place)
I0426 20:49:59.780783 31661 net.cpp:124] Setting up relu3
I0426 20:49:59.780791 31661 net.cpp:131] Top shape: 64 10 (640)
I0426 20:49:59.780794 31661 net.cpp:139] Memory required for data: 9524480
I0426 20:49:59.780797 31661 layer_factory.hpp:77] Creating layer loss
I0426 20:49:59.780802 31661 net.cpp:86] Creating Layer loss
I0426 20:49:59.780805 31661 net.cpp:408] loss <- ip3
I0426 20:49:59.780813 31661 net.cpp:408] loss <- label
I0426 20:49:59.780834 31661 net.cpp:382] loss -> loss
I0426 20:49:59.780866 31661 layer_factory.hpp:77] Creating layer loss
…
I0426 20:49:59.781489 31661 solver.cpp:173] Creating test net (#0) specified by net file: ECE595/mnist/train_test/var_everything/lenet_train_test49.prototxt
I0426 20:49:59.781514 31661 net.cpp:296] The NetState phase (1) differed from the phase (0) specified by a rule in layer mnist
I0426 20:49:59.781594 31661 net.cpp:53] Initializing net from parameters: 
name: "LeNet"
state {
  phase: TEST
}
layer {
  name: "mnist"
  type: "Data"
  top: "data"
  top: "label"
  include {
    phase: TEST
  }
  transform_param {
    scale: 0.00390625
  }
  data_param {
    source: "examples/mnist/mnist_test_lmdb"
    batch_size: 100
    backend: LMDB
  }
}
layer {
  name: "conv0"
  type: "Convolution"
  bottom: "data"
  top: "conv0"
  param {
    lr_mult: 1
  }
  param {
    lr_mult: 2
  }
  convolution_param {
    num_output: 50
    kernel_size: 5
    stride: 1
    weight_filler {
      type: "xavier"
    }
    bias_filler {
      type: "constant"
    }
  }
}
layer {
  name: "pool0"
  type: "Pooling"
  bottom: "conv0"
  top: "pool0"
  pooling_param {
    pool: MAX
    kernel_size: 2
    stride: 2
  }
}
layer {
  name: "ip1"
  type: "InnerProduct"
  bottom: "pool0"
  top: "ip1"
  param {
    lr_mult: 1
  }
  param {
    lr_mult: 2
  }
  inner_product_param {
    num_output: 100
    weight_filler {
      type: "xavier"
    }
    bias_filler {
      type: "constant"
    }
  }
}
layer {
  name: "relu1"
  type: "ReLU"
  bottom: "ip1"
  top: "ip1"
}
layer {
  name: "ip2"
  type: "InnerProduct"
  bottom: "ip1"
  top: "ip2"
  param {
    lr_mult: 1
  }
  param {
    lr_mult: 2
  }
  inner_product_param {
    num_output: 100
    weight_filler {
      type: "xavier"
    }
    bias_filler {
      type: "constant"
    }
  }
}
layer {
  name: "relu2"
  type: "ReLU"
  bottom: "ip2"
  top: "ip2"
}
layer {
  name: "ip3"
  type: "InnerProduct"
  bottom: "ip2"
  top: "ip3"
  param {
    lr_mult: 1
  }
  param {
    lr_mult: 2
  }
  inner_product_param {
    num_output: 10
    weight_filler {
      type: "xavier"
    }
    bias_filler {
      type: "constant"
    }
  }
}
layer {
  name: "relu3"
  type: "ReLU"
  bottom: "ip3"
  top: "ip3"
}
layer {
  name: "accuracy"
  type: "Accuracy"
  bottom: "ip3"
  bottom: "label"
  top: "accuracy"
  include {
    phase: TEST
  }
}
layer {
  name: "loss"
  type: "SoftmaxWithLoss"
  bottom: "ip3"
  bottom: "label"
  top: "loss"
}
I0426 20:49:59.781654 31661 layer_factory.hpp:77] Creating layer mnist
I0426 20:49:59.781698 31661 db_lmdb.cpp:35] Opened lmdb examples/mnist/mnist_test_lmdb
I0426 20:49:59.781710 31661 net.cpp:86] Creating Layer mnist
I0426 20:49:59.781714 31661 net.cpp:382] mnist -> data
I0426 20:49:59.781721 31661 net.cpp:382] mnist -> label
I0426 20:49:59.781800 31661 data_layer.cpp:45] output data size: 100,1,28,28
I0426 20:49:59.783901 31661 net.cpp:124] Setting up mnist
I0426 20:49:59.783913 31661 net.cpp:131] Top shape: 100 1 28 28 (78400)
I0426 20:49:59.783918 31661 net.cpp:131] Top shape: 100 (100)
I0426 20:49:59.783921 31661 net.cpp:139] Memory required for data: 314000
I0426 20:49:59.783924 31661 layer_factory.hpp:77] Creating layer label_mnist_1_split
I0426 20:49:59.783933 31661 net.cpp:86] Creating Layer label_mnist_1_split
I0426 20:49:59.783937 31661 net.cpp:408] label_mnist_1_split <- label
I0426 20:49:59.783941 31661 net.cpp:382] label_mnist_1_split -> label_mnist_1_split_0
I0426 20:49:59.783947 31661 net.cpp:382] label_mnist_1_split -> label_mnist_1_split_1
I0426 20:49:59.783995 31661 net.cpp:124] Setting up label_mnist_1_split
I0426 20:49:59.784000 31661 net.cpp:131] Top shape: 100 (100)
I0426 20:49:59.784003 31661 net.cpp:131] Top shape: 100 (100)
I0426 20:49:59.784006 31661 net.cpp:139] Memory required for data: 314800
I0426 20:49:59.784018 31661 layer_factory.hpp:77] Creating layer conv0
I0426 20:49:59.784026 31661 net.cpp:86] Creating Layer conv0
I0426 20:49:59.784029 31661 net.cpp:408] conv0 <- data
I0426 20:49:59.784034 31661 net.cpp:382] conv0 -> conv0
I0426 20:49:59.786000 31661 net.cpp:124] Setting up conv0
I0426 20:49:59.786015 31661 net.cpp:131] Top shape: 100 50 24 24 (2880000)
I0426 20:49:59.786018 31661 net.cpp:139] Memory required for data: 11834800
I0426 20:49:59.786028 31661 layer_factory.hpp:77] Creating layer pool0
I0426 20:49:59.786034 31661 net.cpp:86] Creating Layer pool0
I0426 20:49:59.786053 31661 net.cpp:408] pool0 <- conv0
I0426 20:49:59.786058 31661 net.cpp:382] pool0 -> pool0
I0426 20:49:59.786134 31661 net.cpp:124] Setting up pool0
I0426 20:49:59.786139 31661 net.cpp:131] Top shape: 100 50 12 12 (720000)
I0426 20:49:59.786142 31661 net.cpp:139] Memory required for data: 14714800
I0426 20:49:59.786145 31661 layer_factory.hpp:77] Creating layer ip1
I0426 20:49:59.786151 31661 net.cpp:86] Creating Layer ip1
I0426 20:49:59.786154 31661 net.cpp:408] ip1 <- pool0
I0426 20:49:59.786159 31661 net.cpp:382] ip1 -> ip1
I0426 20:49:59.791271 31661 net.cpp:124] Setting up ip1
I0426 20:49:59.791285 31661 net.cpp:131] Top shape: 100 100 (10000)
I0426 20:49:59.791288 31661 net.cpp:139] Memory required for data: 14754800
I0426 20:49:59.791296 31661 layer_factory.hpp:77] Creating layer relu1
I0426 20:49:59.791316 31661 net.cpp:86] Creating Layer relu1
I0426 20:49:59.791321 31661 net.cpp:408] relu1 <- ip1
I0426 20:49:59.791340 31661 net.cpp:369] relu1 -> ip1 (in-place)
I0426 20:49:59.791524 31661 net.cpp:124] Setting up relu1
I0426 20:49:59.791533 31661 net.cpp:131] Top shape: 100 100 (10000)
I0426 20:49:59.791538 31661 net.cpp:139] Memory required for data: 14794800
I0426 20:49:59.791540 31661 layer_factory.hpp:77] Creating layer ip2
I0426 20:49:59.791546 31661 net.cpp:86] Creating Layer ip2
I0426 20:49:59.791550 31661 net.cpp:408] ip2 <- ip1
I0426 20:49:59.791555 31661 net.cpp:382] ip2 -> ip2
I0426 20:49:59.791712 31661 net.cpp:124] Setting up ip2
I0426 20:49:59.791720 31661 net.cpp:131] Top shape: 100 100 (10000)
I0426 20:49:59.791723 31661 net.cpp:139] Memory required for data: 14834800
I0426 20:49:59.791731 31661 layer_factory.hpp:77] Creating layer relu2
I0426 20:49:59.791736 31661 net.cpp:86] Creating Layer relu2
I0426 20:49:59.791739 31661 net.cpp:408] relu2 <- ip2
I0426 20:49:59.791744 31661 net.cpp:369] relu2 -> ip2 (in-place)
I0426 20:49:59.792603 31661 net.cpp:124] Setting up relu2
I0426 20:49:59.792614 31661 net.cpp:131] Top shape: 100 100 (10000)
I0426 20:49:59.792632 31661 net.cpp:139] Memory required for data: 14874800
I0426 20:49:59.792636 31661 layer_factory.hpp:77] Creating layer ip3
I0426 20:49:59.792644 31661 net.cpp:86] Creating Layer ip3
I0426 20:49:59.792649 31661 net.cpp:408] ip3 <- ip2
I0426 20:49:59.792654 31661 net.cpp:382] ip3 -> ip3
I0426 20:49:59.792788 31661 net.cpp:124] Setting up ip3
I0426 20:49:59.792796 31661 net.cpp:131] Top shape: 100 10 (1000)
I0426 20:49:59.792799 31661 net.cpp:139] Memory required for data: 14878800
I0426 20:49:59.792805 31661 layer_factory.hpp:77] Creating layer relu3
I0426 20:49:59.792830 31661 net.cpp:86] Creating Layer relu3
I0426 20:49:59.792834 31661 net.cpp:408] relu3 <- ip3
I0426 20:49:59.792839 31661 net.cpp:369] relu3 -> ip3 (in-place)
I0426 20:49:59.793027 31661 net.cpp:124] Setting up relu3
I0426 20:49:59.793036 31661 net.cpp:131] Top shape: 100 10 (1000)
I0426 20:49:59.793040 31661 net.cpp:139] Memory required for data: 14882800
I0426 20:49:59.793043 31661 layer_factory.hpp:77] Creating layer ip3_relu3_0_split
I0426 20:49:59.793048 31661 net.cpp:86] Creating Layer ip3_relu3_0_split
I0426 20:49:59.793051 31661 net.cpp:408] ip3_relu3_0_split <- ip3
I0426 20:49:59.793056 31661 net.cpp:382] ip3_relu3_0_split -> ip3_relu3_0_split_0
I0426 20:49:59.793062 31661 net.cpp:382] ip3_relu3_0_split -> ip3_relu3_0_split_1
I0426 20:49:59.793098 31661 net.cpp:124] Setting up ip3_relu3_0_split
I0426 20:49:59.793107 31661 net.cpp:131] Top shape: 100 10 (1000)
I0426 20:49:59.793121 31661 net.cpp:131] Top shape: 100 10 (1000)
I0426 20:49:59.793125 31661 net.cpp:139] Memory required for data: 14890800
I0426 20:49:59.793128 31661 layer_factory.hpp:77] Creating layer accuracy
I0426 20:49:59.793134 31661 net.cpp:86] Creating Layer accuracy
I0426 20:49:59.793138 31661 net.cpp:408] accuracy <- ip3_relu3_0_split_0
I0426 20:49:59.793143 31661 net.cpp:408] accuracy <- label_mnist_1_split_0
I0426 20:49:59.793148 31661 net.cpp:382] accuracy -> accuracy
…
