…
I0426 20:51:26.775884 31983 net.cpp:296] The NetState phase (0) differed from the phase (1) specified by a rule in layer mnist
I0426 20:51:26.775898 31983 net.cpp:296] The NetState phase (0) differed from the phase (1) specified by a rule in layer accuracy
I0426 20:51:26.775969 31983 net.cpp:53] Initializing net from parameters: 
name: "LeNet"
state {
  phase: TRAIN
  level: 0
  stage: ""
}
layer {
  name: "mnist"
  type: "Data"
  top: "data"
  top: "label"
  include {
    phase: TRAIN
  }
  transform_param {
    scale: 0.00390625
  }
  data_param {
    source: "examples/mnist/mnist_train_lmdb"
    batch_size: 64
    backend: LMDB
  }
}
layer {
  name: "conv0"
  type: "Convolution"
  bottom: "data"
  top: "conv0"
  param {
    lr_mult: 1
  }
  param {
    lr_mult: 2
  }
  convolution_param {
    num_output: 10
    kernel_size: 5
    stride: 1
    weight_filler {
      type: "xavier"
    }
    bias_filler {
      type: "constant"
    }
  }
}
layer {
  name: "pool0"
  type: "Pooling"
  bottom: "conv0"
  top: "pool0"
  pooling_param {
    pool: MAX
    kernel_size: 2
    stride: 2
  }
}
layer {
  name: "conv1"
  type: "Convolution"
  bottom: "pool0"
  top: "conv1"
  param {
    lr_mult: 1
  }
  param {
    lr_mult: 2
  }
  convolution_param {
    num_output: 50
    kernel_size: 5
    stride: 1
    weight_filler {
      type: "xavier"
    }
    bias_filler {
      type: "constant"
    }
  }
}
layer {
  name: "pool1"
  type: "Pooling"
  bottom: "conv1"
  top: "pool1"
  pooling_param {
    pool: MAX
    kernel_size: 2
    stride: 2
  }
}
layer {
  name: "ip1"
  type: "InnerProduct"
  bottom: "pool1"
  top: "ip1"
  param {
    lr_mult: 1
  }
  param {
    lr_mult: 2
  }
  inner_product_param {
    num_output: 100
    weight_filler {
      type: "xavier"
    }
    bias_filler {
      type: "constant"
    }
  }
}
layer {
  name: "relu1"
  type: "ReLU"
  bottom: "ip1"
  top: "ip1"
}
layer {
  name: "ip2"
  type: "InnerProduct"
  bottom: "ip1"
  top: "ip2"
  param {
    lr_mult: 1
  }
  param {
    lr_mult: 2
  }
  inner_product_param {
    num_output: 10
    weight_filler {
      type: "xavier"
    }
    bias_filler {
      type: "constant"
    }
  }
}
layer {
  name: "relu2"
  type: "ReLU"
  bottom: "ip2"
  top: "ip2"
}
layer {
  name: "loss"
  type: "SoftmaxWithLoss"
  bottom: "ip2"
  bottom: "label"
  top: "loss"
}
I0426 20:51:26.776031 31983 layer_factory.hpp:77] Creating layer mnist
I0426 20:51:26.776125 31983 db_lmdb.cpp:35] Opened lmdb examples/mnist/mnist_train_lmdb
I0426 20:51:26.776145 31983 net.cpp:86] Creating Layer mnist
I0426 20:51:26.776151 31983 net.cpp:382] mnist -> data
I0426 20:51:26.776168 31983 net.cpp:382] mnist -> label
I0426 20:51:26.777067 31983 data_layer.cpp:45] output data size: 64,1,28,28
I0426 20:51:26.779144 31983 net.cpp:124] Setting up mnist
I0426 20:51:26.779188 31983 net.cpp:131] Top shape: 64 1 28 28 (50176)
I0426 20:51:26.779192 31983 net.cpp:131] Top shape: 64 (64)
I0426 20:51:26.779196 31983 net.cpp:139] Memory required for data: 200960
I0426 20:51:26.779201 31983 layer_factory.hpp:77] Creating layer conv0
I0426 20:51:26.779217 31983 net.cpp:86] Creating Layer conv0
I0426 20:51:26.779220 31983 net.cpp:408] conv0 <- data
I0426 20:51:26.779230 31983 net.cpp:382] conv0 -> conv0
I0426 20:51:27.051110 31983 net.cpp:124] Setting up conv0
I0426 20:51:27.051144 31983 net.cpp:131] Top shape: 64 10 24 24 (368640)
I0426 20:51:27.051151 31983 net.cpp:139] Memory required for data: 1675520
I0426 20:51:27.051192 31983 layer_factory.hpp:77] Creating layer pool0
I0426 20:51:27.051208 31983 net.cpp:86] Creating Layer pool0
I0426 20:51:27.051213 31983 net.cpp:408] pool0 <- conv0
I0426 20:51:27.051221 31983 net.cpp:382] pool0 -> pool0
I0426 20:51:27.051282 31983 net.cpp:124] Setting up pool0
I0426 20:51:27.051306 31983 net.cpp:131] Top shape: 64 10 12 12 (92160)
I0426 20:51:27.051309 31983 net.cpp:139] Memory required for data: 2044160
I0426 20:51:27.051313 31983 layer_factory.hpp:77] Creating layer conv1
I0426 20:51:27.051326 31983 net.cpp:86] Creating Layer conv1
I0426 20:51:27.051331 31983 net.cpp:408] conv1 <- pool0
I0426 20:51:27.051337 31983 net.cpp:382] conv1 -> conv1
I0426 20:51:27.054967 31983 net.cpp:124] Setting up conv1
I0426 20:51:27.054986 31983 net.cpp:131] Top shape: 64 50 8 8 (204800)
I0426 20:51:27.054991 31983 net.cpp:139] Memory required for data: 2863360
I0426 20:51:27.055002 31983 layer_factory.hpp:77] Creating layer pool1
I0426 20:51:27.055011 31983 net.cpp:86] Creating Layer pool1
I0426 20:51:27.055016 31983 net.cpp:408] pool1 <- conv1
I0426 20:51:27.055023 31983 net.cpp:382] pool1 -> pool1
I0426 20:51:27.055071 31983 net.cpp:124] Setting up pool1
I0426 20:51:27.055078 31983 net.cpp:131] Top shape: 64 50 4 4 (51200)
I0426 20:51:27.055081 31983 net.cpp:139] Memory required for data: 3068160
I0426 20:51:27.055085 31983 layer_factory.hpp:77] Creating layer ip1
I0426 20:51:27.055094 31983 net.cpp:86] Creating Layer ip1
I0426 20:51:27.055097 31983 net.cpp:408] ip1 <- pool1
I0426 20:51:27.055104 31983 net.cpp:382] ip1 -> ip1
I0426 20:51:27.056788 31983 net.cpp:124] Setting up ip1
I0426 20:51:27.056805 31983 net.cpp:131] Top shape: 64 100 (6400)
I0426 20:51:27.056816 31983 net.cpp:139] Memory required for data: 3093760
I0426 20:51:27.056826 31983 layer_factory.hpp:77] Creating layer relu1
I0426 20:51:27.056835 31983 net.cpp:86] Creating Layer relu1
I0426 20:51:27.056840 31983 net.cpp:408] relu1 <- ip1
I0426 20:51:27.056845 31983 net.cpp:369] relu1 -> ip1 (in-place)
I0426 20:51:27.057066 31983 net.cpp:124] Setting up relu1
I0426 20:51:27.057078 31983 net.cpp:131] Top shape: 64 100 (6400)
I0426 20:51:27.057082 31983 net.cpp:139] Memory required for data: 3119360
I0426 20:51:27.057086 31983 layer_factory.hpp:77] Creating layer ip2
I0426 20:51:27.057095 31983 net.cpp:86] Creating Layer ip2
I0426 20:51:27.057099 31983 net.cpp:408] ip2 <- ip1
I0426 20:51:27.057106 31983 net.cpp:382] ip2 -> ip2
I0426 20:51:27.057235 31983 net.cpp:124] Setting up ip2
I0426 20:51:27.057245 31983 net.cpp:131] Top shape: 64 10 (640)
I0426 20:51:27.057248 31983 net.cpp:139] Memory required for data: 3121920
I0426 20:51:27.057255 31983 layer_factory.hpp:77] Creating layer relu2
I0426 20:51:27.057262 31983 net.cpp:86] Creating Layer relu2
I0426 20:51:27.057267 31983 net.cpp:408] relu2 <- ip2
I0426 20:51:27.057272 31983 net.cpp:369] relu2 -> ip2 (in-place)
I0426 20:51:27.058260 31983 net.cpp:124] Setting up relu2
I0426 20:51:27.058276 31983 net.cpp:131] Top shape: 64 10 (640)
I0426 20:51:27.058281 31983 net.cpp:139] Memory required for data: 3124480
I0426 20:51:27.058285 31983 layer_factory.hpp:77] Creating layer loss
I0426 20:51:27.058293 31983 net.cpp:86] Creating Layer loss
I0426 20:51:27.058297 31983 net.cpp:408] loss <- ip2
I0426 20:51:27.058303 31983 net.cpp:408] loss <- label
I0426 20:51:27.058310 31983 net.cpp:382] loss -> loss
I0426 20:51:27.058331 31983 layer_factory.hpp:77] Creating layer loss
…
I0426 20:51:27.059085 31983 solver.cpp:173] Creating test net (#0) specified by net file: ECE595/mnist/train_test/var_everything/lenet_train_test87.prototxt
I0426 20:51:27.059116 31983 net.cpp:296] The NetState phase (1) differed from the phase (0) specified by a rule in layer mnist
I0426 20:51:27.059223 31983 net.cpp:53] Initializing net from parameters: 
name: "LeNet"
state {
  phase: TEST
}
layer {
  name: "mnist"
  type: "Data"
  top: "data"
  top: "label"
  include {
    phase: TEST
  }
  transform_param {
    scale: 0.00390625
  }
  data_param {
    source: "examples/mnist/mnist_test_lmdb"
    batch_size: 100
    backend: LMDB
  }
}
layer {
  name: "conv0"
  type: "Convolution"
  bottom: "data"
  top: "conv0"
  param {
    lr_mult: 1
  }
  param {
    lr_mult: 2
  }
  convolution_param {
    num_output: 10
    kernel_size: 5
    stride: 1
    weight_filler {
      type: "xavier"
    }
    bias_filler {
      type: "constant"
    }
  }
}
layer {
  name: "pool0"
  type: "Pooling"
  bottom: "conv0"
  top: "pool0"
  pooling_param {
    pool: MAX
    kernel_size: 2
    stride: 2
  }
}
layer {
  name: "conv1"
  type: "Convolution"
  bottom: "pool0"
  top: "conv1"
  param {
    lr_mult: 1
  }
  param {
    lr_mult: 2
  }
  convolution_param {
    num_output: 50
    kernel_size: 5
    stride: 1
    weight_filler {
      type: "xavier"
    }
    bias_filler {
      type: "constant"
    }
  }
}
layer {
  name: "pool1"
  type: "Pooling"
  bottom: "conv1"
  top: "pool1"
  pooling_param {
    pool: MAX
    kernel_size: 2
    stride: 2
  }
}
layer {
  name: "ip1"
  type: "InnerProduct"
  bottom: "pool1"
  top: "ip1"
  param {
    lr_mult: 1
  }
  param {
    lr_mult: 2
  }
  inner_product_param {
    num_output: 100
    weight_filler {
      type: "xavier"
    }
    bias_filler {
      type: "constant"
    }
  }
}
layer {
  name: "relu1"
  type: "ReLU"
  bottom: "ip1"
  top: "ip1"
}
layer {
  name: "ip2"
  type: "InnerProduct"
  bottom: "ip1"
  top: "ip2"
  param {
    lr_mult: 1
  }
  param {
    lr_mult: 2
  }
  inner_product_param {
    num_output: 10
    weight_filler {
      type: "xavier"
    }
    bias_filler {
      type: "constant"
    }
  }
}
layer {
  name: "relu2"
  type: "ReLU"
  bottom: "ip2"
  top: "ip2"
}
layer {
  name: "accuracy"
  type: "Accuracy"
  bottom: "ip2"
  bottom: "label"
  top: "accuracy"
  include {
    phase: TEST
  }
}
layer {
  name: "loss"
  type: "SoftmaxWithLoss"
  bottom: "ip2"
  bottom: "label"
  top: "loss"
}
I0426 20:51:27.059301 31983 layer_factory.hpp:77] Creating layer mnist
I0426 20:51:27.059355 31983 db_lmdb.cpp:35] Opened lmdb examples/mnist/mnist_test_lmdb
I0426 20:51:27.059370 31983 net.cpp:86] Creating Layer mnist
I0426 20:51:27.059376 31983 net.cpp:382] mnist -> data
I0426 20:51:27.059386 31983 net.cpp:382] mnist -> label
I0426 20:51:27.059495 31983 data_layer.cpp:45] output data size: 100,1,28,28
I0426 20:51:27.060887 31983 net.cpp:124] Setting up mnist
I0426 20:51:27.060905 31983 net.cpp:131] Top shape: 100 1 28 28 (78400)
I0426 20:51:27.060911 31983 net.cpp:131] Top shape: 100 (100)
I0426 20:51:27.060915 31983 net.cpp:139] Memory required for data: 314000
I0426 20:51:27.060920 31983 layer_factory.hpp:77] Creating layer label_mnist_1_split
I0426 20:51:27.060928 31983 net.cpp:86] Creating Layer label_mnist_1_split
I0426 20:51:27.060932 31983 net.cpp:408] label_mnist_1_split <- label
I0426 20:51:27.060940 31983 net.cpp:382] label_mnist_1_split -> label_mnist_1_split_0
I0426 20:51:27.060947 31983 net.cpp:382] label_mnist_1_split -> label_mnist_1_split_1
I0426 20:51:27.061084 31983 net.cpp:124] Setting up label_mnist_1_split
I0426 20:51:27.061108 31983 net.cpp:131] Top shape: 100 (100)
I0426 20:51:27.061115 31983 net.cpp:131] Top shape: 100 (100)
I0426 20:51:27.061117 31983 net.cpp:139] Memory required for data: 314800
I0426 20:51:27.061121 31983 layer_factory.hpp:77] Creating layer conv0
I0426 20:51:27.061133 31983 net.cpp:86] Creating Layer conv0
I0426 20:51:27.061137 31983 net.cpp:408] conv0 <- data
I0426 20:51:27.061143 31983 net.cpp:382] conv0 -> conv0
I0426 20:51:27.063050 31983 net.cpp:124] Setting up conv0
I0426 20:51:27.063067 31983 net.cpp:131] Top shape: 100 10 24 24 (576000)
I0426 20:51:27.063072 31983 net.cpp:139] Memory required for data: 2618800
I0426 20:51:27.063086 31983 layer_factory.hpp:77] Creating layer pool0
I0426 20:51:27.063093 31983 net.cpp:86] Creating Layer pool0
I0426 20:51:27.063097 31983 net.cpp:408] pool0 <- conv0
I0426 20:51:27.063104 31983 net.cpp:382] pool0 -> pool0
I0426 20:51:27.063149 31983 net.cpp:124] Setting up pool0
I0426 20:51:27.063166 31983 net.cpp:131] Top shape: 100 10 12 12 (144000)
I0426 20:51:27.063170 31983 net.cpp:139] Memory required for data: 3194800
I0426 20:51:27.063174 31983 layer_factory.hpp:77] Creating layer conv1
I0426 20:51:27.063185 31983 net.cpp:86] Creating Layer conv1
I0426 20:51:27.063189 31983 net.cpp:408] conv1 <- pool0
I0426 20:51:27.063196 31983 net.cpp:382] conv1 -> conv1
I0426 20:51:27.065142 31983 net.cpp:124] Setting up conv1
I0426 20:51:27.065160 31983 net.cpp:131] Top shape: 100 50 8 8 (320000)
I0426 20:51:27.065165 31983 net.cpp:139] Memory required for data: 4474800
I0426 20:51:27.065174 31983 layer_factory.hpp:77] Creating layer pool1
I0426 20:51:27.065182 31983 net.cpp:86] Creating Layer pool1
I0426 20:51:27.065186 31983 net.cpp:408] pool1 <- conv1
I0426 20:51:27.065192 31983 net.cpp:382] pool1 -> pool1
I0426 20:51:27.065234 31983 net.cpp:124] Setting up pool1
I0426 20:51:27.065240 31983 net.cpp:131] Top shape: 100 50 4 4 (80000)
I0426 20:51:27.065244 31983 net.cpp:139] Memory required for data: 4794800
I0426 20:51:27.065248 31983 layer_factory.hpp:77] Creating layer ip1
I0426 20:51:27.065254 31983 net.cpp:86] Creating Layer ip1
I0426 20:51:27.065258 31983 net.cpp:408] ip1 <- pool1
I0426 20:51:27.065263 31983 net.cpp:382] ip1 -> ip1
I0426 20:51:27.065937 31983 net.cpp:124] Setting up ip1
I0426 20:51:27.065946 31983 net.cpp:131] Top shape: 100 100 (10000)
I0426 20:51:27.065950 31983 net.cpp:139] Memory required for data: 4834800
I0426 20:51:27.065958 31983 layer_factory.hpp:77] Creating layer relu1
I0426 20:51:27.065964 31983 net.cpp:86] Creating Layer relu1
I0426 20:51:27.065968 31983 net.cpp:408] relu1 <- ip1
I0426 20:51:27.065973 31983 net.cpp:369] relu1 -> ip1 (in-place)
I0426 20:51:27.066202 31983 net.cpp:124] Setting up relu1
I0426 20:51:27.066213 31983 net.cpp:131] Top shape: 100 100 (10000)
I0426 20:51:27.066217 31983 net.cpp:139] Memory required for data: 4874800
I0426 20:51:27.066221 31983 layer_factory.hpp:77] Creating layer ip2
I0426 20:51:27.066231 31983 net.cpp:86] Creating Layer ip2
I0426 20:51:27.066234 31983 net.cpp:408] ip2 <- ip1
I0426 20:51:27.066241 31983 net.cpp:382] ip2 -> ip2
I0426 20:51:27.066365 31983 net.cpp:124] Setting up ip2
I0426 20:51:27.066373 31983 net.cpp:131] Top shape: 100 10 (1000)
I0426 20:51:27.066377 31983 net.cpp:139] Memory required for data: 4878800
I0426 20:51:27.066385 31983 layer_factory.hpp:77] Creating layer relu2
I0426 20:51:27.066390 31983 net.cpp:86] Creating Layer relu2
I0426 20:51:27.066393 31983 net.cpp:408] relu2 <- ip2
I0426 20:51:27.066400 31983 net.cpp:369] relu2 -> ip2 (in-place)
I0426 20:51:27.066576 31983 net.cpp:124] Setting up relu2
I0426 20:51:27.066586 31983 net.cpp:131] Top shape: 100 10 (1000)
I0426 20:51:27.066591 31983 net.cpp:139] Memory required for data: 4882800
I0426 20:51:27.066593 31983 layer_factory.hpp:77] Creating layer ip2_relu2_0_split
I0426 20:51:27.066607 31983 net.cpp:86] Creating Layer ip2_relu2_0_split
I0426 20:51:27.066612 31983 net.cpp:408] ip2_relu2_0_split <- ip2
I0426 20:51:27.066634 31983 net.cpp:382] ip2_relu2_0_split -> ip2_relu2_0_split_0
I0426 20:51:27.066654 31983 net.cpp:382] ip2_relu2_0_split -> ip2_relu2_0_split_1
I0426 20:51:27.066695 31983 net.cpp:124] Setting up ip2_relu2_0_split
I0426 20:51:27.066701 31983 net.cpp:131] Top shape: 100 10 (1000)
I0426 20:51:27.066705 31983 net.cpp:131] Top shape: 100 10 (1000)
I0426 20:51:27.066709 31983 net.cpp:139] Memory required for data: 4890800
I0426 20:51:27.066715 31983 layer_factory.hpp:77] Creating layer accuracy
I0426 20:51:27.066721 31983 net.cpp:86] Creating Layer accuracy
I0426 20:51:27.066725 31983 net.cpp:408] accuracy <- ip2_relu2_0_split_0
I0426 20:51:27.066730 31983 net.cpp:408] accuracy <- label_mnist_1_split_0
I0426 20:51:27.066735 31983 net.cpp:382] accuracy -> accuracy
…
