…
I0426 20:53:09.556818 32386 net.cpp:296] The NetState phase (0) differed from the phase (1) specified by a rule in layer mnist
I0426 20:53:09.556862 32386 net.cpp:296] The NetState phase (0) differed from the phase (1) specified by a rule in layer accuracy
I0426 20:53:09.556972 32386 net.cpp:53] Initializing net from parameters: 
name: "LeNet"
state {
  phase: TRAIN
  level: 0
  stage: ""
}
layer {
  name: "mnist"
  type: "Data"
  top: "data"
  top: "label"
  include {
    phase: TRAIN
  }
  transform_param {
    scale: 0.00390625
  }
  data_param {
    source: "examples/mnist/mnist_train_lmdb"
    batch_size: 64
    backend: LMDB
  }
}
layer {
  name: "conv0"
  type: "Convolution"
  bottom: "data"
  top: "conv0"
  param {
    lr_mult: 1
  }
  param {
    lr_mult: 2
  }
  convolution_param {
    num_output: 25
    kernel_size: 5
    stride: 1
    weight_filler {
      type: "xavier"
    }
    bias_filler {
      type: "constant"
    }
  }
}
layer {
  name: "pool0"
  type: "Pooling"
  bottom: "conv0"
  top: "pool0"
  pooling_param {
    pool: MAX
    kernel_size: 2
    stride: 2
  }
}
layer {
  name: "conv1"
  type: "Convolution"
  bottom: "pool0"
  top: "conv1"
  param {
    lr_mult: 1
  }
  param {
    lr_mult: 2
  }
  convolution_param {
    num_output: 50
    kernel_size: 5
    stride: 1
    weight_filler {
      type: "xavier"
    }
    bias_filler {
      type: "constant"
    }
  }
}
layer {
  name: "pool1"
  type: "Pooling"
  bottom: "conv1"
  top: "pool1"
  pooling_param {
    pool: MAX
    kernel_size: 2
    stride: 2
  }
}
layer {
  name: "ip1"
  type: "InnerProduct"
  bottom: "pool1"
  top: "ip1"
  param {
    lr_mult: 1
  }
  param {
    lr_mult: 2
  }
  inner_product_param {
    num_output: 300
    weight_filler {
      type: "xavier"
    }
    bias_filler {
      type: "constant"
    }
  }
}
layer {
  name: "relu1"
  type: "ReLU"
  bottom: "ip1"
  top: "ip1"
}
layer {
  name: "ip2"
  type: "InnerProduct"
  bottom: "ip1"
  top: "ip2"
  param {
    lr_mult: 1
  }
  param {
    lr_mult: 2
  }
  inner_product_param {
    num_output: 10
    weight_filler {
      type: "xavier"
    }
    bias_filler {
      type: "constant"
    }
  }
}
layer {
  name: "relu2"
  type: "ReLU"
  bottom: "ip2"
  top: "ip2"
}
layer {
  name: "loss"
  type: "SoftmaxWithLoss"
  bottom: "ip2"
  bottom: "label"
  top: "loss"
}
I0426 20:53:09.557059 32386 layer_factory.hpp:77] Creating layer mnist
I0426 20:53:09.557149 32386 db_lmdb.cpp:35] Opened lmdb examples/mnist/mnist_train_lmdb
I0426 20:53:09.557188 32386 net.cpp:86] Creating Layer mnist
I0426 20:53:09.557193 32386 net.cpp:382] mnist -> data
I0426 20:53:09.557229 32386 net.cpp:382] mnist -> label
I0426 20:53:09.558176 32386 data_layer.cpp:45] output data size: 64,1,28,28
I0426 20:53:09.560262 32386 net.cpp:124] Setting up mnist
I0426 20:53:09.560276 32386 net.cpp:131] Top shape: 64 1 28 28 (50176)
I0426 20:53:09.560281 32386 net.cpp:131] Top shape: 64 (64)
I0426 20:53:09.560283 32386 net.cpp:139] Memory required for data: 200960
I0426 20:53:09.560288 32386 layer_factory.hpp:77] Creating layer conv0
I0426 20:53:09.560317 32386 net.cpp:86] Creating Layer conv0
I0426 20:53:09.560322 32386 net.cpp:408] conv0 <- data
I0426 20:53:09.560330 32386 net.cpp:382] conv0 -> conv0
I0426 20:53:09.791122 32386 net.cpp:124] Setting up conv0
I0426 20:53:09.791165 32386 net.cpp:131] Top shape: 64 25 24 24 (921600)
I0426 20:53:09.791169 32386 net.cpp:139] Memory required for data: 3887360
I0426 20:53:09.791218 32386 layer_factory.hpp:77] Creating layer pool0
I0426 20:53:09.791232 32386 net.cpp:86] Creating Layer pool0
I0426 20:53:09.791240 32386 net.cpp:408] pool0 <- conv0
I0426 20:53:09.791249 32386 net.cpp:382] pool0 -> pool0
I0426 20:53:09.791337 32386 net.cpp:124] Setting up pool0
I0426 20:53:09.791345 32386 net.cpp:131] Top shape: 64 25 12 12 (230400)
I0426 20:53:09.791349 32386 net.cpp:139] Memory required for data: 4808960
I0426 20:53:09.791352 32386 layer_factory.hpp:77] Creating layer conv1
I0426 20:53:09.791363 32386 net.cpp:86] Creating Layer conv1
I0426 20:53:09.791368 32386 net.cpp:408] conv1 <- pool0
I0426 20:53:09.791373 32386 net.cpp:382] conv1 -> conv1
I0426 20:53:09.793643 32386 net.cpp:124] Setting up conv1
I0426 20:53:09.793673 32386 net.cpp:131] Top shape: 64 50 8 8 (204800)
I0426 20:53:09.793678 32386 net.cpp:139] Memory required for data: 5628160
I0426 20:53:09.793700 32386 layer_factory.hpp:77] Creating layer pool1
I0426 20:53:09.793707 32386 net.cpp:86] Creating Layer pool1
I0426 20:53:09.793726 32386 net.cpp:408] pool1 <- conv1
I0426 20:53:09.793731 32386 net.cpp:382] pool1 -> pool1
I0426 20:53:09.793767 32386 net.cpp:124] Setting up pool1
I0426 20:53:09.793773 32386 net.cpp:131] Top shape: 64 50 4 4 (51200)
I0426 20:53:09.793792 32386 net.cpp:139] Memory required for data: 5832960
I0426 20:53:09.793794 32386 layer_factory.hpp:77] Creating layer ip1
I0426 20:53:09.793802 32386 net.cpp:86] Creating Layer ip1
I0426 20:53:09.793804 32386 net.cpp:408] ip1 <- pool1
I0426 20:53:09.793808 32386 net.cpp:382] ip1 -> ip1
I0426 20:53:09.796186 32386 net.cpp:124] Setting up ip1
I0426 20:53:09.796198 32386 net.cpp:131] Top shape: 64 300 (19200)
I0426 20:53:09.796217 32386 net.cpp:139] Memory required for data: 5909760
I0426 20:53:09.796226 32386 layer_factory.hpp:77] Creating layer relu1
I0426 20:53:09.796232 32386 net.cpp:86] Creating Layer relu1
I0426 20:53:09.796236 32386 net.cpp:408] relu1 <- ip1
I0426 20:53:09.796255 32386 net.cpp:369] relu1 -> ip1 (in-place)
I0426 20:53:09.796434 32386 net.cpp:124] Setting up relu1
I0426 20:53:09.796442 32386 net.cpp:131] Top shape: 64 300 (19200)
I0426 20:53:09.796447 32386 net.cpp:139] Memory required for data: 5986560
I0426 20:53:09.796449 32386 layer_factory.hpp:77] Creating layer ip2
I0426 20:53:09.796456 32386 net.cpp:86] Creating Layer ip2
I0426 20:53:09.796459 32386 net.cpp:408] ip2 <- ip1
I0426 20:53:09.796464 32386 net.cpp:382] ip2 -> ip2
I0426 20:53:09.797475 32386 net.cpp:124] Setting up ip2
I0426 20:53:09.797487 32386 net.cpp:131] Top shape: 64 10 (640)
I0426 20:53:09.797508 32386 net.cpp:139] Memory required for data: 5989120
I0426 20:53:09.797513 32386 layer_factory.hpp:77] Creating layer relu2
I0426 20:53:09.797520 32386 net.cpp:86] Creating Layer relu2
I0426 20:53:09.797523 32386 net.cpp:408] relu2 <- ip2
I0426 20:53:09.797544 32386 net.cpp:369] relu2 -> ip2 (in-place)
I0426 20:53:09.798387 32386 net.cpp:124] Setting up relu2
I0426 20:53:09.798398 32386 net.cpp:131] Top shape: 64 10 (640)
I0426 20:53:09.798411 32386 net.cpp:139] Memory required for data: 5991680
I0426 20:53:09.798414 32386 layer_factory.hpp:77] Creating layer loss
I0426 20:53:09.798420 32386 net.cpp:86] Creating Layer loss
I0426 20:53:09.798424 32386 net.cpp:408] loss <- ip2
I0426 20:53:09.798429 32386 net.cpp:408] loss <- label
I0426 20:53:09.798449 32386 net.cpp:382] loss -> loss
I0426 20:53:09.798483 32386 layer_factory.hpp:77] Creating layer loss
…
I0426 20:53:09.799129 32386 solver.cpp:173] Creating test net (#0) specified by net file: ECE595/mnist/train_test/var_everything/lenet_train_test130.prototxt
I0426 20:53:09.799170 32386 net.cpp:296] The NetState phase (1) differed from the phase (0) specified by a rule in layer mnist
I0426 20:53:09.799255 32386 net.cpp:53] Initializing net from parameters: 
name: "LeNet"
state {
  phase: TEST
}
layer {
  name: "mnist"
  type: "Data"
  top: "data"
  top: "label"
  include {
    phase: TEST
  }
  transform_param {
    scale: 0.00390625
  }
  data_param {
    source: "examples/mnist/mnist_test_lmdb"
    batch_size: 100
    backend: LMDB
  }
}
layer {
  name: "conv0"
  type: "Convolution"
  bottom: "data"
  top: "conv0"
  param {
    lr_mult: 1
  }
  param {
    lr_mult: 2
  }
  convolution_param {
    num_output: 25
    kernel_size: 5
    stride: 1
    weight_filler {
      type: "xavier"
    }
    bias_filler {
      type: "constant"
    }
  }
}
layer {
  name: "pool0"
  type: "Pooling"
  bottom: "conv0"
  top: "pool0"
  pooling_param {
    pool: MAX
    kernel_size: 2
    stride: 2
  }
}
layer {
  name: "conv1"
  type: "Convolution"
  bottom: "pool0"
  top: "conv1"
  param {
    lr_mult: 1
  }
  param {
    lr_mult: 2
  }
  convolution_param {
    num_output: 50
    kernel_size: 5
    stride: 1
    weight_filler {
      type: "xavier"
    }
    bias_filler {
      type: "constant"
    }
  }
}
layer {
  name: "pool1"
  type: "Pooling"
  bottom: "conv1"
  top: "pool1"
  pooling_param {
    pool: MAX
    kernel_size: 2
    stride: 2
  }
}
layer {
  name: "ip1"
  type: "InnerProduct"
  bottom: "pool1"
  top: "ip1"
  param {
    lr_mult: 1
  }
  param {
    lr_mult: 2
  }
  inner_product_param {
    num_output: 300
    weight_filler {
      type: "xavier"
    }
    bias_filler {
      type: "constant"
    }
  }
}
layer {
  name: "relu1"
  type: "ReLU"
  bottom: "ip1"
  top: "ip1"
}
layer {
  name: "ip2"
  type: "InnerProduct"
  bottom: "ip1"
  top: "ip2"
  param {
    lr_mult: 1
  }
  param {
    lr_mult: 2
  }
  inner_product_param {
    num_output: 10
    weight_filler {
      type: "xavier"
    }
    bias_filler {
      type: "constant"
    }
  }
}
layer {
  name: "relu2"
  type: "ReLU"
  bottom: "ip2"
  top: "ip2"
}
layer {
  name: "accuracy"
  type: "Accuracy"
  bottom: "ip2"
  bottom: "label"
  top: "accuracy"
  include {
    phase: TEST
  }
}
layer {
  name: "loss"
  type: "SoftmaxWithLoss"
  bottom: "ip2"
  bottom: "label"
  top: "loss"
}
I0426 20:53:09.799319 32386 layer_factory.hpp:77] Creating layer mnist
I0426 20:53:09.799363 32386 db_lmdb.cpp:35] Opened lmdb examples/mnist/mnist_test_lmdb
I0426 20:53:09.799376 32386 net.cpp:86] Creating Layer mnist
I0426 20:53:09.799379 32386 net.cpp:382] mnist -> data
I0426 20:53:09.799387 32386 net.cpp:382] mnist -> label
I0426 20:53:09.799471 32386 data_layer.cpp:45] output data size: 100,1,28,28
I0426 20:53:09.801504 32386 net.cpp:124] Setting up mnist
I0426 20:53:09.801533 32386 net.cpp:131] Top shape: 100 1 28 28 (78400)
I0426 20:53:09.801538 32386 net.cpp:131] Top shape: 100 (100)
I0426 20:53:09.801542 32386 net.cpp:139] Memory required for data: 314000
I0426 20:53:09.801545 32386 layer_factory.hpp:77] Creating layer label_mnist_1_split
I0426 20:53:09.801568 32386 net.cpp:86] Creating Layer label_mnist_1_split
I0426 20:53:09.801571 32386 net.cpp:408] label_mnist_1_split <- label
I0426 20:53:09.801576 32386 net.cpp:382] label_mnist_1_split -> label_mnist_1_split_0
I0426 20:53:09.801582 32386 net.cpp:382] label_mnist_1_split -> label_mnist_1_split_1
I0426 20:53:09.801686 32386 net.cpp:124] Setting up label_mnist_1_split
I0426 20:53:09.801693 32386 net.cpp:131] Top shape: 100 (100)
I0426 20:53:09.801697 32386 net.cpp:131] Top shape: 100 (100)
I0426 20:53:09.801700 32386 net.cpp:139] Memory required for data: 314800
I0426 20:53:09.801703 32386 layer_factory.hpp:77] Creating layer conv0
I0426 20:53:09.801712 32386 net.cpp:86] Creating Layer conv0
I0426 20:53:09.801717 32386 net.cpp:408] conv0 <- data
I0426 20:53:09.801722 32386 net.cpp:382] conv0 -> conv0
I0426 20:53:09.803288 32386 net.cpp:124] Setting up conv0
I0426 20:53:09.803303 32386 net.cpp:131] Top shape: 100 25 24 24 (1440000)
I0426 20:53:09.803306 32386 net.cpp:139] Memory required for data: 6074800
I0426 20:53:09.803331 32386 layer_factory.hpp:77] Creating layer pool0
I0426 20:53:09.803339 32386 net.cpp:86] Creating Layer pool0
I0426 20:53:09.803341 32386 net.cpp:408] pool0 <- conv0
I0426 20:53:09.803346 32386 net.cpp:382] pool0 -> pool0
I0426 20:53:09.803381 32386 net.cpp:124] Setting up pool0
I0426 20:53:09.803387 32386 net.cpp:131] Top shape: 100 25 12 12 (360000)
I0426 20:53:09.803390 32386 net.cpp:139] Memory required for data: 7514800
I0426 20:53:09.803393 32386 layer_factory.hpp:77] Creating layer conv1
I0426 20:53:09.803402 32386 net.cpp:86] Creating Layer conv1
I0426 20:53:09.803406 32386 net.cpp:408] conv1 <- pool0
I0426 20:53:09.803411 32386 net.cpp:382] conv1 -> conv1
I0426 20:53:09.805140 32386 net.cpp:124] Setting up conv1
I0426 20:53:09.805155 32386 net.cpp:131] Top shape: 100 50 8 8 (320000)
I0426 20:53:09.805160 32386 net.cpp:139] Memory required for data: 8794800
I0426 20:53:09.805184 32386 layer_factory.hpp:77] Creating layer pool1
I0426 20:53:09.805205 32386 net.cpp:86] Creating Layer pool1
I0426 20:53:09.805209 32386 net.cpp:408] pool1 <- conv1
I0426 20:53:09.805230 32386 net.cpp:382] pool1 -> pool1
I0426 20:53:09.805274 32386 net.cpp:124] Setting up pool1
I0426 20:53:09.805280 32386 net.cpp:131] Top shape: 100 50 4 4 (80000)
I0426 20:53:09.805294 32386 net.cpp:139] Memory required for data: 9114800
I0426 20:53:09.805297 32386 layer_factory.hpp:77] Creating layer ip1
I0426 20:53:09.805304 32386 net.cpp:86] Creating Layer ip1
I0426 20:53:09.805306 32386 net.cpp:408] ip1 <- pool1
I0426 20:53:09.805311 32386 net.cpp:382] ip1 -> ip1
I0426 20:53:09.806826 32386 net.cpp:124] Setting up ip1
I0426 20:53:09.806833 32386 net.cpp:131] Top shape: 100 300 (30000)
I0426 20:53:09.806836 32386 net.cpp:139] Memory required for data: 9234800
I0426 20:53:09.806843 32386 layer_factory.hpp:77] Creating layer relu1
I0426 20:53:09.806848 32386 net.cpp:86] Creating Layer relu1
I0426 20:53:09.806850 32386 net.cpp:408] relu1 <- ip1
I0426 20:53:09.806854 32386 net.cpp:369] relu1 -> ip1 (in-place)
I0426 20:53:09.806995 32386 net.cpp:124] Setting up relu1
I0426 20:53:09.807003 32386 net.cpp:131] Top shape: 100 300 (30000)
I0426 20:53:09.807006 32386 net.cpp:139] Memory required for data: 9354800
I0426 20:53:09.807008 32386 layer_factory.hpp:77] Creating layer ip2
I0426 20:53:09.807015 32386 net.cpp:86] Creating Layer ip2
I0426 20:53:09.807018 32386 net.cpp:408] ip2 <- ip1
I0426 20:53:09.807023 32386 net.cpp:382] ip2 -> ip2
I0426 20:53:09.807126 32386 net.cpp:124] Setting up ip2
I0426 20:53:09.807132 32386 net.cpp:131] Top shape: 100 10 (1000)
I0426 20:53:09.807134 32386 net.cpp:139] Memory required for data: 9358800
I0426 20:53:09.807139 32386 layer_factory.hpp:77] Creating layer relu2
I0426 20:53:09.807143 32386 net.cpp:86] Creating Layer relu2
I0426 20:53:09.807147 32386 net.cpp:408] relu2 <- ip2
I0426 20:53:09.807150 32386 net.cpp:369] relu2 -> ip2 (in-place)
I0426 20:53:09.807282 32386 net.cpp:124] Setting up relu2
I0426 20:53:09.807289 32386 net.cpp:131] Top shape: 100 10 (1000)
I0426 20:53:09.807292 32386 net.cpp:139] Memory required for data: 9362800
I0426 20:53:09.807296 32386 layer_factory.hpp:77] Creating layer ip2_relu2_0_split
I0426 20:53:09.807299 32386 net.cpp:86] Creating Layer ip2_relu2_0_split
I0426 20:53:09.807302 32386 net.cpp:408] ip2_relu2_0_split <- ip2
I0426 20:53:09.807307 32386 net.cpp:382] ip2_relu2_0_split -> ip2_relu2_0_split_0
I0426 20:53:09.807322 32386 net.cpp:382] ip2_relu2_0_split -> ip2_relu2_0_split_1
I0426 20:53:09.807373 32386 net.cpp:124] Setting up ip2_relu2_0_split
I0426 20:53:09.807379 32386 net.cpp:131] Top shape: 100 10 (1000)
I0426 20:53:09.807382 32386 net.cpp:131] Top shape: 100 10 (1000)
I0426 20:53:09.807384 32386 net.cpp:139] Memory required for data: 9370800
I0426 20:53:09.807387 32386 layer_factory.hpp:77] Creating layer accuracy
I0426 20:53:09.807392 32386 net.cpp:86] Creating Layer accuracy
I0426 20:53:09.807396 32386 net.cpp:408] accuracy <- ip2_relu2_0_split_0
I0426 20:53:09.807399 32386 net.cpp:408] accuracy <- label_mnist_1_split_0
I0426 20:53:09.807404 32386 net.cpp:382] accuracy -> accuracy
…
