…
I0426 20:54:18.524443 32644 net.cpp:296] The NetState phase (0) differed from the phase (1) specified by a rule in layer mnist
I0426 20:54:18.524461 32644 net.cpp:296] The NetState phase (0) differed from the phase (1) specified by a rule in layer accuracy
I0426 20:54:18.524549 32644 net.cpp:53] Initializing net from parameters: 
name: "LeNet"
state {
  phase: TRAIN
  level: 0
  stage: ""
}
layer {
  name: "mnist"
  type: "Data"
  top: "data"
  top: "label"
  include {
    phase: TRAIN
  }
  transform_param {
    scale: 0.00390625
  }
  data_param {
    source: "examples/mnist/mnist_train_lmdb"
    batch_size: 64
    backend: LMDB
  }
}
layer {
  name: "conv0"
  type: "Convolution"
  bottom: "data"
  top: "conv0"
  param {
    lr_mult: 1
  }
  param {
    lr_mult: 2
  }
  convolution_param {
    num_output: 50
    kernel_size: 5
    stride: 1
    weight_filler {
      type: "xavier"
    }
    bias_filler {
      type: "constant"
    }
  }
}
layer {
  name: "pool0"
  type: "Pooling"
  bottom: "conv0"
  top: "pool0"
  pooling_param {
    pool: MAX
    kernel_size: 2
    stride: 2
  }
}
layer {
  name: "conv1"
  type: "Convolution"
  bottom: "pool0"
  top: "conv1"
  param {
    lr_mult: 1
  }
  param {
    lr_mult: 2
  }
  convolution_param {
    num_output: 25
    kernel_size: 5
    stride: 1
    weight_filler {
      type: "xavier"
    }
    bias_filler {
      type: "constant"
    }
  }
}
layer {
  name: "pool1"
  type: "Pooling"
  bottom: "conv1"
  top: "pool1"
  pooling_param {
    pool: MAX
    kernel_size: 2
    stride: 2
  }
}
layer {
  name: "ip1"
  type: "InnerProduct"
  bottom: "pool1"
  top: "ip1"
  param {
    lr_mult: 1
  }
  param {
    lr_mult: 2
  }
  inner_product_param {
    num_output: 100
    weight_filler {
      type: "xavier"
    }
    bias_filler {
      type: "constant"
    }
  }
}
layer {
  name: "relu1"
  type: "ReLU"
  bottom: "ip1"
  top: "ip1"
}
layer {
  name: "ip2"
  type: "InnerProduct"
  bottom: "ip1"
  top: "ip2"
  param {
    lr_mult: 1
  }
  param {
    lr_mult: 2
  }
  inner_product_param {
    num_output: 10
    weight_filler {
      type: "xavier"
    }
    bias_filler {
      type: "constant"
    }
  }
}
layer {
  name: "relu2"
  type: "ReLU"
  bottom: "ip2"
  top: "ip2"
}
layer {
  name: "loss"
  type: "SoftmaxWithLoss"
  bottom: "ip2"
  bottom: "label"
  top: "loss"
}
I0426 20:54:18.524621 32644 layer_factory.hpp:77] Creating layer mnist
I0426 20:54:18.524715 32644 db_lmdb.cpp:35] Opened lmdb examples/mnist/mnist_train_lmdb
I0426 20:54:18.524737 32644 net.cpp:86] Creating Layer mnist
I0426 20:54:18.524746 32644 net.cpp:382] mnist -> data
I0426 20:54:18.524767 32644 net.cpp:382] mnist -> label
I0426 20:54:18.525843 32644 data_layer.cpp:45] output data size: 64,1,28,28
I0426 20:54:18.528350 32644 net.cpp:124] Setting up mnist
I0426 20:54:18.528367 32644 net.cpp:131] Top shape: 64 1 28 28 (50176)
I0426 20:54:18.528373 32644 net.cpp:131] Top shape: 64 (64)
I0426 20:54:18.528376 32644 net.cpp:139] Memory required for data: 200960
I0426 20:54:18.528383 32644 layer_factory.hpp:77] Creating layer conv0
I0426 20:54:18.528422 32644 net.cpp:86] Creating Layer conv0
I0426 20:54:18.528432 32644 net.cpp:408] conv0 <- data
I0426 20:54:18.528445 32644 net.cpp:382] conv0 -> conv0
I0426 20:54:18.823284 32644 net.cpp:124] Setting up conv0
I0426 20:54:18.823315 32644 net.cpp:131] Top shape: 64 50 24 24 (1843200)
I0426 20:54:18.823320 32644 net.cpp:139] Memory required for data: 7573760
I0426 20:54:18.823360 32644 layer_factory.hpp:77] Creating layer pool0
I0426 20:54:18.823374 32644 net.cpp:86] Creating Layer pool0
I0426 20:54:18.823379 32644 net.cpp:408] pool0 <- conv0
I0426 20:54:18.823386 32644 net.cpp:382] pool0 -> pool0
I0426 20:54:18.823443 32644 net.cpp:124] Setting up pool0
I0426 20:54:18.823452 32644 net.cpp:131] Top shape: 64 50 12 12 (460800)
I0426 20:54:18.823468 32644 net.cpp:139] Memory required for data: 9416960
I0426 20:54:18.823472 32644 layer_factory.hpp:77] Creating layer conv1
I0426 20:54:18.823484 32644 net.cpp:86] Creating Layer conv1
I0426 20:54:18.823489 32644 net.cpp:408] conv1 <- pool0
I0426 20:54:18.823494 32644 net.cpp:382] conv1 -> conv1
I0426 20:54:18.826037 32644 net.cpp:124] Setting up conv1
I0426 20:54:18.826056 32644 net.cpp:131] Top shape: 64 25 8 8 (102400)
I0426 20:54:18.826061 32644 net.cpp:139] Memory required for data: 9826560
I0426 20:54:18.826071 32644 layer_factory.hpp:77] Creating layer pool1
I0426 20:54:18.826079 32644 net.cpp:86] Creating Layer pool1
I0426 20:54:18.826084 32644 net.cpp:408] pool1 <- conv1
I0426 20:54:18.826091 32644 net.cpp:382] pool1 -> pool1
I0426 20:54:18.826143 32644 net.cpp:124] Setting up pool1
I0426 20:54:18.826151 32644 net.cpp:131] Top shape: 64 25 4 4 (25600)
I0426 20:54:18.826155 32644 net.cpp:139] Memory required for data: 9928960
I0426 20:54:18.826159 32644 layer_factory.hpp:77] Creating layer ip1
I0426 20:54:18.826166 32644 net.cpp:86] Creating Layer ip1
I0426 20:54:18.826170 32644 net.cpp:408] ip1 <- pool1
I0426 20:54:18.826175 32644 net.cpp:382] ip1 -> ip1
I0426 20:54:18.826568 32644 net.cpp:124] Setting up ip1
I0426 20:54:18.826578 32644 net.cpp:131] Top shape: 64 100 (6400)
I0426 20:54:18.826582 32644 net.cpp:139] Memory required for data: 9954560
I0426 20:54:18.826591 32644 layer_factory.hpp:77] Creating layer relu1
I0426 20:54:18.826596 32644 net.cpp:86] Creating Layer relu1
I0426 20:54:18.826601 32644 net.cpp:408] relu1 <- ip1
I0426 20:54:18.826606 32644 net.cpp:369] relu1 -> ip1 (in-place)
I0426 20:54:18.826802 32644 net.cpp:124] Setting up relu1
I0426 20:54:18.826812 32644 net.cpp:131] Top shape: 64 100 (6400)
I0426 20:54:18.826815 32644 net.cpp:139] Memory required for data: 9980160
I0426 20:54:18.826819 32644 layer_factory.hpp:77] Creating layer ip2
I0426 20:54:18.826828 32644 net.cpp:86] Creating Layer ip2
I0426 20:54:18.826830 32644 net.cpp:408] ip2 <- ip1
I0426 20:54:18.826836 32644 net.cpp:382] ip2 -> ip2
I0426 20:54:18.826956 32644 net.cpp:124] Setting up ip2
I0426 20:54:18.826964 32644 net.cpp:131] Top shape: 64 10 (640)
I0426 20:54:18.826967 32644 net.cpp:139] Memory required for data: 9982720
I0426 20:54:18.826974 32644 layer_factory.hpp:77] Creating layer relu2
I0426 20:54:18.826982 32644 net.cpp:86] Creating Layer relu2
I0426 20:54:18.826985 32644 net.cpp:408] relu2 <- ip2
I0426 20:54:18.826990 32644 net.cpp:369] relu2 -> ip2 (in-place)
I0426 20:54:18.827926 32644 net.cpp:124] Setting up relu2
I0426 20:54:18.827942 32644 net.cpp:131] Top shape: 64 10 (640)
I0426 20:54:18.827946 32644 net.cpp:139] Memory required for data: 9985280
I0426 20:54:18.827950 32644 layer_factory.hpp:77] Creating layer loss
I0426 20:54:18.827958 32644 net.cpp:86] Creating Layer loss
I0426 20:54:18.827961 32644 net.cpp:408] loss <- ip2
I0426 20:54:18.827967 32644 net.cpp:408] loss <- label
I0426 20:54:18.827973 32644 net.cpp:382] loss -> loss
I0426 20:54:18.827996 32644 layer_factory.hpp:77] Creating layer loss
…
I0426 20:54:18.828716 32644 solver.cpp:173] Creating test net (#0) specified by net file: ECE595/mnist/train_test/var_everything/lenet_train_test156.prototxt
I0426 20:54:18.828745 32644 net.cpp:296] The NetState phase (1) differed from the phase (0) specified by a rule in layer mnist
I0426 20:54:18.828852 32644 net.cpp:53] Initializing net from parameters: 
name: "LeNet"
state {
  phase: TEST
}
layer {
  name: "mnist"
  type: "Data"
  top: "data"
  top: "label"
  include {
    phase: TEST
  }
  transform_param {
    scale: 0.00390625
  }
  data_param {
    source: "examples/mnist/mnist_test_lmdb"
    batch_size: 100
    backend: LMDB
  }
}
layer {
  name: "conv0"
  type: "Convolution"
  bottom: "data"
  top: "conv0"
  param {
    lr_mult: 1
  }
  param {
    lr_mult: 2
  }
  convolution_param {
    num_output: 50
    kernel_size: 5
    stride: 1
    weight_filler {
      type: "xavier"
    }
    bias_filler {
      type: "constant"
    }
  }
}
layer {
  name: "pool0"
  type: "Pooling"
  bottom: "conv0"
  top: "pool0"
  pooling_param {
    pool: MAX
    kernel_size: 2
    stride: 2
  }
}
layer {
  name: "conv1"
  type: "Convolution"
  bottom: "pool0"
  top: "conv1"
  param {
    lr_mult: 1
  }
  param {
    lr_mult: 2
  }
  convolution_param {
    num_output: 25
    kernel_size: 5
    stride: 1
    weight_filler {
      type: "xavier"
    }
    bias_filler {
      type: "constant"
    }
  }
}
layer {
  name: "pool1"
  type: "Pooling"
  bottom: "conv1"
  top: "pool1"
  pooling_param {
    pool: MAX
    kernel_size: 2
    stride: 2
  }
}
layer {
  name: "ip1"
  type: "InnerProduct"
  bottom: "pool1"
  top: "ip1"
  param {
    lr_mult: 1
  }
  param {
    lr_mult: 2
  }
  inner_product_param {
    num_output: 100
    weight_filler {
      type: "xavier"
    }
    bias_filler {
      type: "constant"
    }
  }
}
layer {
  name: "relu1"
  type: "ReLU"
  bottom: "ip1"
  top: "ip1"
}
layer {
  name: "ip2"
  type: "InnerProduct"
  bottom: "ip1"
  top: "ip2"
  param {
    lr_mult: 1
  }
  param {
    lr_mult: 2
  }
  inner_product_param {
    num_output: 10
    weight_filler {
      type: "xavier"
    }
    bias_filler {
      type: "constant"
    }
  }
}
layer {
  name: "relu2"
  type: "ReLU"
  bottom: "ip2"
  top: "ip2"
}
layer {
  name: "accuracy"
  type: "Accuracy"
  bottom: "ip2"
  bottom: "label"
  top: "accuracy"
  include {
    phase: TEST
  }
}
layer {
  name: "loss"
  type: "SoftmaxWithLoss"
  bottom: "ip2"
  bottom: "label"
  top: "loss"
}
I0426 20:54:18.828927 32644 layer_factory.hpp:77] Creating layer mnist
I0426 20:54:18.828977 32644 db_lmdb.cpp:35] Opened lmdb examples/mnist/mnist_test_lmdb
I0426 20:54:18.828991 32644 net.cpp:86] Creating Layer mnist
I0426 20:54:18.828996 32644 net.cpp:382] mnist -> data
I0426 20:54:18.829005 32644 net.cpp:382] mnist -> label
I0426 20:54:18.829107 32644 data_layer.cpp:45] output data size: 100,1,28,28
I0426 20:54:18.831365 32644 net.cpp:124] Setting up mnist
I0426 20:54:18.831382 32644 net.cpp:131] Top shape: 100 1 28 28 (78400)
I0426 20:54:18.831387 32644 net.cpp:131] Top shape: 100 (100)
I0426 20:54:18.831392 32644 net.cpp:139] Memory required for data: 314000
I0426 20:54:18.831395 32644 layer_factory.hpp:77] Creating layer label_mnist_1_split
I0426 20:54:18.831408 32644 net.cpp:86] Creating Layer label_mnist_1_split
I0426 20:54:18.831413 32644 net.cpp:408] label_mnist_1_split <- label
I0426 20:54:18.831418 32644 net.cpp:382] label_mnist_1_split -> label_mnist_1_split_0
I0426 20:54:18.831426 32644 net.cpp:382] label_mnist_1_split -> label_mnist_1_split_1
I0426 20:54:18.831547 32644 net.cpp:124] Setting up label_mnist_1_split
I0426 20:54:18.831557 32644 net.cpp:131] Top shape: 100 (100)
I0426 20:54:18.831562 32644 net.cpp:131] Top shape: 100 (100)
I0426 20:54:18.831564 32644 net.cpp:139] Memory required for data: 314800
I0426 20:54:18.831568 32644 layer_factory.hpp:77] Creating layer conv0
I0426 20:54:18.831579 32644 net.cpp:86] Creating Layer conv0
I0426 20:54:18.831584 32644 net.cpp:408] conv0 <- data
I0426 20:54:18.831591 32644 net.cpp:382] conv0 -> conv0
I0426 20:54:18.833542 32644 net.cpp:124] Setting up conv0
I0426 20:54:18.833559 32644 net.cpp:131] Top shape: 100 50 24 24 (2880000)
I0426 20:54:18.833564 32644 net.cpp:139] Memory required for data: 11834800
I0426 20:54:18.833575 32644 layer_factory.hpp:77] Creating layer pool0
I0426 20:54:18.833582 32644 net.cpp:86] Creating Layer pool0
I0426 20:54:18.833586 32644 net.cpp:408] pool0 <- conv0
I0426 20:54:18.833592 32644 net.cpp:382] pool0 -> pool0
I0426 20:54:18.833636 32644 net.cpp:124] Setting up pool0
I0426 20:54:18.833644 32644 net.cpp:131] Top shape: 100 50 12 12 (720000)
I0426 20:54:18.833648 32644 net.cpp:139] Memory required for data: 14714800
I0426 20:54:18.833652 32644 layer_factory.hpp:77] Creating layer conv1
I0426 20:54:18.833662 32644 net.cpp:86] Creating Layer conv1
I0426 20:54:18.833667 32644 net.cpp:408] conv1 <- pool0
I0426 20:54:18.833673 32644 net.cpp:382] conv1 -> conv1
I0426 20:54:18.835804 32644 net.cpp:124] Setting up conv1
I0426 20:54:18.835819 32644 net.cpp:131] Top shape: 100 25 8 8 (160000)
I0426 20:54:18.835824 32644 net.cpp:139] Memory required for data: 15354800
I0426 20:54:18.835834 32644 layer_factory.hpp:77] Creating layer pool1
I0426 20:54:18.835842 32644 net.cpp:86] Creating Layer pool1
I0426 20:54:18.835847 32644 net.cpp:408] pool1 <- conv1
I0426 20:54:18.835853 32644 net.cpp:382] pool1 -> pool1
I0426 20:54:18.835897 32644 net.cpp:124] Setting up pool1
I0426 20:54:18.835906 32644 net.cpp:131] Top shape: 100 25 4 4 (40000)
I0426 20:54:18.835911 32644 net.cpp:139] Memory required for data: 15514800
I0426 20:54:18.835913 32644 layer_factory.hpp:77] Creating layer ip1
I0426 20:54:18.835921 32644 net.cpp:86] Creating Layer ip1
I0426 20:54:18.835925 32644 net.cpp:408] ip1 <- pool1
I0426 20:54:18.835932 32644 net.cpp:382] ip1 -> ip1
I0426 20:54:18.836321 32644 net.cpp:124] Setting up ip1
I0426 20:54:18.836331 32644 net.cpp:131] Top shape: 100 100 (10000)
I0426 20:54:18.836335 32644 net.cpp:139] Memory required for data: 15554800
I0426 20:54:18.836344 32644 layer_factory.hpp:77] Creating layer relu1
I0426 20:54:18.836349 32644 net.cpp:86] Creating Layer relu1
I0426 20:54:18.836354 32644 net.cpp:408] relu1 <- ip1
I0426 20:54:18.836359 32644 net.cpp:369] relu1 -> ip1 (in-place)
I0426 20:54:18.836545 32644 net.cpp:124] Setting up relu1
I0426 20:54:18.836555 32644 net.cpp:131] Top shape: 100 100 (10000)
I0426 20:54:18.836560 32644 net.cpp:139] Memory required for data: 15594800
I0426 20:54:18.836563 32644 layer_factory.hpp:77] Creating layer ip2
I0426 20:54:18.836571 32644 net.cpp:86] Creating Layer ip2
I0426 20:54:18.836578 32644 net.cpp:408] ip2 <- ip1
I0426 20:54:18.836585 32644 net.cpp:382] ip2 -> ip2
I0426 20:54:18.836724 32644 net.cpp:124] Setting up ip2
I0426 20:54:18.836732 32644 net.cpp:131] Top shape: 100 10 (1000)
I0426 20:54:18.836736 32644 net.cpp:139] Memory required for data: 15598800
I0426 20:54:18.836742 32644 layer_factory.hpp:77] Creating layer relu2
I0426 20:54:18.836748 32644 net.cpp:86] Creating Layer relu2
I0426 20:54:18.836752 32644 net.cpp:408] relu2 <- ip2
I0426 20:54:18.836757 32644 net.cpp:369] relu2 -> ip2 (in-place)
I0426 20:54:18.837041 32644 net.cpp:124] Setting up relu2
I0426 20:54:18.837055 32644 net.cpp:131] Top shape: 100 10 (1000)
I0426 20:54:18.837060 32644 net.cpp:139] Memory required for data: 15602800
I0426 20:54:18.837064 32644 layer_factory.hpp:77] Creating layer ip2_relu2_0_split
I0426 20:54:18.837070 32644 net.cpp:86] Creating Layer ip2_relu2_0_split
I0426 20:54:18.837074 32644 net.cpp:408] ip2_relu2_0_split <- ip2
I0426 20:54:18.837080 32644 net.cpp:382] ip2_relu2_0_split -> ip2_relu2_0_split_0
I0426 20:54:18.837100 32644 net.cpp:382] ip2_relu2_0_split -> ip2_relu2_0_split_1
I0426 20:54:18.837147 32644 net.cpp:124] Setting up ip2_relu2_0_split
I0426 20:54:18.837155 32644 net.cpp:131] Top shape: 100 10 (1000)
I0426 20:54:18.837160 32644 net.cpp:131] Top shape: 100 10 (1000)
I0426 20:54:18.837164 32644 net.cpp:139] Memory required for data: 15610800
I0426 20:54:18.837178 32644 layer_factory.hpp:77] Creating layer accuracy
I0426 20:54:18.837184 32644 net.cpp:86] Creating Layer accuracy
I0426 20:54:18.837188 32644 net.cpp:408] accuracy <- ip2_relu2_0_split_0
I0426 20:54:18.837193 32644 net.cpp:408] accuracy <- label_mnist_1_split_0
I0426 20:54:18.837198 32644 net.cpp:382] accuracy -> accuracy
…
