…
I0426 20:50:09.869797 31697 net.cpp:296] The NetState phase (0) differed from the phase (1) specified by a rule in layer mnist
I0426 20:50:09.869812 31697 net.cpp:296] The NetState phase (0) differed from the phase (1) specified by a rule in layer accuracy
I0426 20:50:09.869881 31697 net.cpp:53] Initializing net from parameters: 
name: "LeNet"
state {
  phase: TRAIN
  level: 0
  stage: ""
}
layer {
  name: "mnist"
  type: "Data"
  top: "data"
  top: "label"
  include {
    phase: TRAIN
  }
  transform_param {
    scale: 0.00390625
  }
  data_param {
    source: "examples/mnist/mnist_train_lmdb"
    batch_size: 64
    backend: LMDB
  }
}
layer {
  name: "conv0"
  type: "Convolution"
  bottom: "data"
  top: "conv0"
  param {
    lr_mult: 1
  }
  param {
    lr_mult: 2
  }
  convolution_param {
    num_output: 50
    kernel_size: 5
    stride: 1
    weight_filler {
      type: "xavier"
    }
    bias_filler {
      type: "constant"
    }
  }
}
layer {
  name: "pool0"
  type: "Pooling"
  bottom: "conv0"
  top: "pool0"
  pooling_param {
    pool: MAX
    kernel_size: 2
    stride: 2
  }
}
layer {
  name: "ip1"
  type: "InnerProduct"
  bottom: "pool0"
  top: "ip1"
  param {
    lr_mult: 1
  }
  param {
    lr_mult: 2
  }
  inner_product_param {
    num_output: 300
    weight_filler {
      type: "xavier"
    }
    bias_filler {
      type: "constant"
    }
  }
}
layer {
  name: "relu1"
  type: "ReLU"
  bottom: "ip1"
  top: "ip1"
}
layer {
  name: "ip2"
  type: "InnerProduct"
  bottom: "ip1"
  top: "ip2"
  param {
    lr_mult: 1
  }
  param {
    lr_mult: 2
  }
  inner_product_param {
    num_output: 100
    weight_filler {
      type: "xavier"
    }
    bias_filler {
      type: "constant"
    }
  }
}
layer {
  name: "relu2"
  type: "ReLU"
  bottom: "ip2"
  top: "ip2"
}
layer {
  name: "ip3"
  type: "InnerProduct"
  bottom: "ip2"
  top: "ip3"
  param {
    lr_mult: 1
  }
  param {
    lr_mult: 2
  }
  inner_product_param {
    num_output: 10
    weight_filler {
      type: "xavier"
    }
    bias_filler {
      type: "constant"
    }
  }
}
layer {
  name: "relu3"
  type: "ReLU"
  bottom: "ip3"
  top: "ip3"
}
layer {
  name: "loss"
  type: "SoftmaxWithLoss"
  bottom: "ip3"
  bottom: "label"
  top: "loss"
}
I0426 20:50:09.869948 31697 layer_factory.hpp:77] Creating layer mnist
I0426 20:50:09.870033 31697 db_lmdb.cpp:35] Opened lmdb examples/mnist/mnist_train_lmdb
I0426 20:50:09.870054 31697 net.cpp:86] Creating Layer mnist
I0426 20:50:09.870059 31697 net.cpp:382] mnist -> data
I0426 20:50:09.870079 31697 net.cpp:382] mnist -> label
I0426 20:50:09.870971 31697 data_layer.cpp:45] output data size: 64,1,28,28
I0426 20:50:09.873070 31697 net.cpp:124] Setting up mnist
I0426 20:50:09.873098 31697 net.cpp:131] Top shape: 64 1 28 28 (50176)
I0426 20:50:09.873103 31697 net.cpp:131] Top shape: 64 (64)
I0426 20:50:09.873106 31697 net.cpp:139] Memory required for data: 200960
I0426 20:50:09.873111 31697 layer_factory.hpp:77] Creating layer conv0
I0426 20:50:09.873169 31697 net.cpp:86] Creating Layer conv0
I0426 20:50:09.873174 31697 net.cpp:408] conv0 <- data
I0426 20:50:09.873184 31697 net.cpp:382] conv0 -> conv0
I0426 20:50:10.101994 31697 net.cpp:124] Setting up conv0
I0426 20:50:10.102035 31697 net.cpp:131] Top shape: 64 50 24 24 (1843200)
I0426 20:50:10.102039 31697 net.cpp:139] Memory required for data: 7573760
I0426 20:50:10.102053 31697 layer_factory.hpp:77] Creating layer pool0
I0426 20:50:10.102066 31697 net.cpp:86] Creating Layer pool0
I0426 20:50:10.102118 31697 net.cpp:408] pool0 <- conv0
I0426 20:50:10.102124 31697 net.cpp:382] pool0 -> pool0
I0426 20:50:10.102171 31697 net.cpp:124] Setting up pool0
I0426 20:50:10.102185 31697 net.cpp:131] Top shape: 64 50 12 12 (460800)
I0426 20:50:10.102188 31697 net.cpp:139] Memory required for data: 9416960
I0426 20:50:10.102191 31697 layer_factory.hpp:77] Creating layer ip1
I0426 20:50:10.102198 31697 net.cpp:86] Creating Layer ip1
I0426 20:50:10.102201 31697 net.cpp:408] ip1 <- pool0
I0426 20:50:10.102206 31697 net.cpp:382] ip1 -> ip1
I0426 20:50:10.115293 31697 net.cpp:124] Setting up ip1
I0426 20:50:10.115322 31697 net.cpp:131] Top shape: 64 300 (19200)
I0426 20:50:10.115326 31697 net.cpp:139] Memory required for data: 9493760
I0426 20:50:10.115334 31697 layer_factory.hpp:77] Creating layer relu1
I0426 20:50:10.115342 31697 net.cpp:86] Creating Layer relu1
I0426 20:50:10.115346 31697 net.cpp:408] relu1 <- ip1
I0426 20:50:10.115350 31697 net.cpp:369] relu1 -> ip1 (in-place)
I0426 20:50:10.115582 31697 net.cpp:124] Setting up relu1
I0426 20:50:10.115592 31697 net.cpp:131] Top shape: 64 300 (19200)
I0426 20:50:10.115595 31697 net.cpp:139] Memory required for data: 9570560
I0426 20:50:10.115598 31697 layer_factory.hpp:77] Creating layer ip2
I0426 20:50:10.115605 31697 net.cpp:86] Creating Layer ip2
I0426 20:50:10.115608 31697 net.cpp:408] ip2 <- ip1
I0426 20:50:10.115613 31697 net.cpp:382] ip2 -> ip2
I0426 20:50:10.115881 31697 net.cpp:124] Setting up ip2
I0426 20:50:10.115890 31697 net.cpp:131] Top shape: 64 100 (6400)
I0426 20:50:10.115892 31697 net.cpp:139] Memory required for data: 9596160
I0426 20:50:10.115900 31697 layer_factory.hpp:77] Creating layer relu2
I0426 20:50:10.115905 31697 net.cpp:86] Creating Layer relu2
I0426 20:50:10.115907 31697 net.cpp:408] relu2 <- ip2
I0426 20:50:10.115911 31697 net.cpp:369] relu2 -> ip2 (in-place)
I0426 20:50:10.116684 31697 net.cpp:124] Setting up relu2
I0426 20:50:10.116696 31697 net.cpp:131] Top shape: 64 100 (6400)
I0426 20:50:10.116714 31697 net.cpp:139] Memory required for data: 9621760
I0426 20:50:10.116717 31697 layer_factory.hpp:77] Creating layer ip3
I0426 20:50:10.116724 31697 net.cpp:86] Creating Layer ip3
I0426 20:50:10.116727 31697 net.cpp:408] ip3 <- ip2
I0426 20:50:10.116734 31697 net.cpp:382] ip3 -> ip3
I0426 20:50:10.116868 31697 net.cpp:124] Setting up ip3
I0426 20:50:10.116875 31697 net.cpp:131] Top shape: 64 10 (640)
I0426 20:50:10.116879 31697 net.cpp:139] Memory required for data: 9624320
I0426 20:50:10.116885 31697 layer_factory.hpp:77] Creating layer relu3
I0426 20:50:10.116892 31697 net.cpp:86] Creating Layer relu3
I0426 20:50:10.116895 31697 net.cpp:408] relu3 <- ip3
I0426 20:50:10.116900 31697 net.cpp:369] relu3 -> ip3 (in-place)
I0426 20:50:10.117048 31697 net.cpp:124] Setting up relu3
I0426 20:50:10.117056 31697 net.cpp:131] Top shape: 64 10 (640)
I0426 20:50:10.117059 31697 net.cpp:139] Memory required for data: 9626880
I0426 20:50:10.117063 31697 layer_factory.hpp:77] Creating layer loss
I0426 20:50:10.117069 31697 net.cpp:86] Creating Layer loss
I0426 20:50:10.117071 31697 net.cpp:408] loss <- ip3
I0426 20:50:10.117075 31697 net.cpp:408] loss <- label
I0426 20:50:10.117080 31697 net.cpp:382] loss -> loss
I0426 20:50:10.117094 31697 layer_factory.hpp:77] Creating layer loss
…
I0426 20:50:10.117684 31697 solver.cpp:173] Creating test net (#0) specified by net file: ECE595/mnist/train_test/var_everything/lenet_train_test53.prototxt
I0426 20:50:10.117708 31697 net.cpp:296] The NetState phase (1) differed from the phase (0) specified by a rule in layer mnist
I0426 20:50:10.117786 31697 net.cpp:53] Initializing net from parameters: 
name: "LeNet"
state {
  phase: TEST
}
layer {
  name: "mnist"
  type: "Data"
  top: "data"
  top: "label"
  include {
    phase: TEST
  }
  transform_param {
    scale: 0.00390625
  }
  data_param {
    source: "examples/mnist/mnist_test_lmdb"
    batch_size: 100
    backend: LMDB
  }
}
layer {
  name: "conv0"
  type: "Convolution"
  bottom: "data"
  top: "conv0"
  param {
    lr_mult: 1
  }
  param {
    lr_mult: 2
  }
  convolution_param {
    num_output: 50
    kernel_size: 5
    stride: 1
    weight_filler {
      type: "xavier"
    }
    bias_filler {
      type: "constant"
    }
  }
}
layer {
  name: "pool0"
  type: "Pooling"
  bottom: "conv0"
  top: "pool0"
  pooling_param {
    pool: MAX
    kernel_size: 2
    stride: 2
  }
}
layer {
  name: "ip1"
  type: "InnerProduct"
  bottom: "pool0"
  top: "ip1"
  param {
    lr_mult: 1
  }
  param {
    lr_mult: 2
  }
  inner_product_param {
    num_output: 300
    weight_filler {
      type: "xavier"
    }
    bias_filler {
      type: "constant"
    }
  }
}
layer {
  name: "relu1"
  type: "ReLU"
  bottom: "ip1"
  top: "ip1"
}
layer {
  name: "ip2"
  type: "InnerProduct"
  bottom: "ip1"
  top: "ip2"
  param {
    lr_mult: 1
  }
  param {
    lr_mult: 2
  }
  inner_product_param {
    num_output: 100
    weight_filler {
      type: "xavier"
    }
    bias_filler {
      type: "constant"
    }
  }
}
layer {
  name: "relu2"
  type: "ReLU"
  bottom: "ip2"
  top: "ip2"
}
layer {
  name: "ip3"
  type: "InnerProduct"
  bottom: "ip2"
  top: "ip3"
  param {
    lr_mult: 1
  }
  param {
    lr_mult: 2
  }
  inner_product_param {
    num_output: 10
    weight_filler {
      type: "xavier"
    }
    bias_filler {
      type: "constant"
    }
  }
}
layer {
  name: "relu3"
  type: "ReLU"
  bottom: "ip3"
  top: "ip3"
}
layer {
  name: "accuracy"
  type: "Accuracy"
  bottom: "ip3"
  bottom: "label"
  top: "accuracy"
  include {
    phase: TEST
  }
}
layer {
  name: "loss"
  type: "SoftmaxWithLoss"
  bottom: "ip3"
  bottom: "label"
  top: "loss"
}
I0426 20:50:10.117846 31697 layer_factory.hpp:77] Creating layer mnist
I0426 20:50:10.117889 31697 db_lmdb.cpp:35] Opened lmdb examples/mnist/mnist_test_lmdb
I0426 20:50:10.117902 31697 net.cpp:86] Creating Layer mnist
I0426 20:50:10.117907 31697 net.cpp:382] mnist -> data
I0426 20:50:10.117913 31697 net.cpp:382] mnist -> label
I0426 20:50:10.117992 31697 data_layer.cpp:45] output data size: 100,1,28,28
I0426 20:50:10.119848 31697 net.cpp:124] Setting up mnist
I0426 20:50:10.119874 31697 net.cpp:131] Top shape: 100 1 28 28 (78400)
I0426 20:50:10.119879 31697 net.cpp:131] Top shape: 100 (100)
I0426 20:50:10.119884 31697 net.cpp:139] Memory required for data: 314000
I0426 20:50:10.119886 31697 layer_factory.hpp:77] Creating layer label_mnist_1_split
I0426 20:50:10.119892 31697 net.cpp:86] Creating Layer label_mnist_1_split
I0426 20:50:10.119896 31697 net.cpp:408] label_mnist_1_split <- label
I0426 20:50:10.119900 31697 net.cpp:382] label_mnist_1_split -> label_mnist_1_split_0
I0426 20:50:10.119906 31697 net.cpp:382] label_mnist_1_split -> label_mnist_1_split_1
I0426 20:50:10.119979 31697 net.cpp:124] Setting up label_mnist_1_split
I0426 20:50:10.119985 31697 net.cpp:131] Top shape: 100 (100)
I0426 20:50:10.119989 31697 net.cpp:131] Top shape: 100 (100)
I0426 20:50:10.119992 31697 net.cpp:139] Memory required for data: 314800
I0426 20:50:10.120004 31697 layer_factory.hpp:77] Creating layer conv0
I0426 20:50:10.120012 31697 net.cpp:86] Creating Layer conv0
I0426 20:50:10.120016 31697 net.cpp:408] conv0 <- data
I0426 20:50:10.120020 31697 net.cpp:382] conv0 -> conv0
I0426 20:50:10.121840 31697 net.cpp:124] Setting up conv0
I0426 20:50:10.121852 31697 net.cpp:131] Top shape: 100 50 24 24 (2880000)
I0426 20:50:10.121856 31697 net.cpp:139] Memory required for data: 11834800
I0426 20:50:10.121865 31697 layer_factory.hpp:77] Creating layer pool0
I0426 20:50:10.121870 31697 net.cpp:86] Creating Layer pool0
I0426 20:50:10.121888 31697 net.cpp:408] pool0 <- conv0
I0426 20:50:10.121893 31697 net.cpp:382] pool0 -> pool0
I0426 20:50:10.121927 31697 net.cpp:124] Setting up pool0
I0426 20:50:10.121932 31697 net.cpp:131] Top shape: 100 50 12 12 (720000)
I0426 20:50:10.121934 31697 net.cpp:139] Memory required for data: 14714800
I0426 20:50:10.121937 31697 layer_factory.hpp:77] Creating layer ip1
I0426 20:50:10.121943 31697 net.cpp:86] Creating Layer ip1
I0426 20:50:10.121947 31697 net.cpp:408] ip1 <- pool0
I0426 20:50:10.121950 31697 net.cpp:382] ip1 -> ip1
I0426 20:50:10.135262 31697 net.cpp:124] Setting up ip1
I0426 20:50:10.135274 31697 net.cpp:131] Top shape: 100 300 (30000)
I0426 20:50:10.135277 31697 net.cpp:139] Memory required for data: 14834800
I0426 20:50:10.135285 31697 layer_factory.hpp:77] Creating layer relu1
I0426 20:50:10.135290 31697 net.cpp:86] Creating Layer relu1
I0426 20:50:10.135293 31697 net.cpp:408] relu1 <- ip1
I0426 20:50:10.135298 31697 net.cpp:369] relu1 -> ip1 (in-place)
I0426 20:50:10.135478 31697 net.cpp:124] Setting up relu1
I0426 20:50:10.135488 31697 net.cpp:131] Top shape: 100 300 (30000)
I0426 20:50:10.135491 31697 net.cpp:139] Memory required for data: 14954800
I0426 20:50:10.135494 31697 layer_factory.hpp:77] Creating layer ip2
I0426 20:50:10.135499 31697 net.cpp:86] Creating Layer ip2
I0426 20:50:10.135502 31697 net.cpp:408] ip2 <- ip1
I0426 20:50:10.135507 31697 net.cpp:382] ip2 -> ip2
I0426 20:50:10.135764 31697 net.cpp:124] Setting up ip2
I0426 20:50:10.135771 31697 net.cpp:131] Top shape: 100 100 (10000)
I0426 20:50:10.135774 31697 net.cpp:139] Memory required for data: 14994800
I0426 20:50:10.135782 31697 layer_factory.hpp:77] Creating layer relu2
I0426 20:50:10.135787 31697 net.cpp:86] Creating Layer relu2
I0426 20:50:10.135789 31697 net.cpp:408] relu2 <- ip2
I0426 20:50:10.135793 31697 net.cpp:369] relu2 -> ip2 (in-place)
I0426 20:50:10.136586 31697 net.cpp:124] Setting up relu2
I0426 20:50:10.136597 31697 net.cpp:131] Top shape: 100 100 (10000)
I0426 20:50:10.136616 31697 net.cpp:139] Memory required for data: 15034800
I0426 20:50:10.136620 31697 layer_factory.hpp:77] Creating layer ip3
I0426 20:50:10.136627 31697 net.cpp:86] Creating Layer ip3
I0426 20:50:10.136632 31697 net.cpp:408] ip3 <- ip2
I0426 20:50:10.136637 31697 net.cpp:382] ip3 -> ip3
I0426 20:50:10.136734 31697 net.cpp:124] Setting up ip3
I0426 20:50:10.136742 31697 net.cpp:131] Top shape: 100 10 (1000)
I0426 20:50:10.136745 31697 net.cpp:139] Memory required for data: 15038800
I0426 20:50:10.136750 31697 layer_factory.hpp:77] Creating layer relu3
I0426 20:50:10.136754 31697 net.cpp:86] Creating Layer relu3
I0426 20:50:10.136757 31697 net.cpp:408] relu3 <- ip3
I0426 20:50:10.136761 31697 net.cpp:369] relu3 -> ip3 (in-place)
I0426 20:50:10.136943 31697 net.cpp:124] Setting up relu3
I0426 20:50:10.136952 31697 net.cpp:131] Top shape: 100 10 (1000)
I0426 20:50:10.136956 31697 net.cpp:139] Memory required for data: 15042800
I0426 20:50:10.136960 31697 layer_factory.hpp:77] Creating layer ip3_relu3_0_split
I0426 20:50:10.136965 31697 net.cpp:86] Creating Layer ip3_relu3_0_split
I0426 20:50:10.136967 31697 net.cpp:408] ip3_relu3_0_split <- ip3
I0426 20:50:10.136972 31697 net.cpp:382] ip3_relu3_0_split -> ip3_relu3_0_split_0
I0426 20:50:10.136978 31697 net.cpp:382] ip3_relu3_0_split -> ip3_relu3_0_split_1
I0426 20:50:10.137012 31697 net.cpp:124] Setting up ip3_relu3_0_split
I0426 20:50:10.137017 31697 net.cpp:131] Top shape: 100 10 (1000)
I0426 20:50:10.137030 31697 net.cpp:131] Top shape: 100 10 (1000)
I0426 20:50:10.137033 31697 net.cpp:139] Memory required for data: 15050800
I0426 20:50:10.137037 31697 layer_factory.hpp:77] Creating layer accuracy
I0426 20:50:10.137042 31697 net.cpp:86] Creating Layer accuracy
I0426 20:50:10.137045 31697 net.cpp:408] accuracy <- ip3_relu3_0_split_0
I0426 20:50:10.137050 31697 net.cpp:408] accuracy <- label_mnist_1_split_0
I0426 20:50:10.137054 31697 net.cpp:382] accuracy -> accuracy
…
