…
I0426 20:52:24.096609 32185 net.cpp:296] The NetState phase (0) differed from the phase (1) specified by a rule in layer mnist
I0426 20:52:24.096628 32185 net.cpp:296] The NetState phase (0) differed from the phase (1) specified by a rule in layer accuracy
I0426 20:52:24.096751 32185 net.cpp:53] Initializing net from parameters: 
name: "LeNet"
state {
  phase: TRAIN
  level: 0
  stage: ""
}
layer {
  name: "mnist"
  type: "Data"
  top: "data"
  top: "label"
  include {
    phase: TRAIN
  }
  transform_param {
    scale: 0.00390625
  }
  data_param {
    source: "examples/mnist/mnist_train_lmdb"
    batch_size: 64
    backend: LMDB
  }
}
layer {
  name: "conv0"
  type: "Convolution"
  bottom: "data"
  top: "conv0"
  param {
    lr_mult: 1
  }
  param {
    lr_mult: 2
  }
  convolution_param {
    num_output: 25
    kernel_size: 5
    stride: 1
    weight_filler {
      type: "xavier"
    }
    bias_filler {
      type: "constant"
    }
  }
}
layer {
  name: "pool0"
  type: "Pooling"
  bottom: "conv0"
  top: "pool0"
  pooling_param {
    pool: MAX
    kernel_size: 2
    stride: 2
  }
}
layer {
  name: "conv1"
  type: "Convolution"
  bottom: "pool0"
  top: "conv1"
  param {
    lr_mult: 1
  }
  param {
    lr_mult: 2
  }
  convolution_param {
    num_output: 10
    kernel_size: 5
    stride: 1
    weight_filler {
      type: "xavier"
    }
    bias_filler {
      type: "constant"
    }
  }
}
layer {
  name: "pool1"
  type: "Pooling"
  bottom: "conv1"
  top: "pool1"
  pooling_param {
    pool: MAX
    kernel_size: 2
    stride: 2
  }
}
layer {
  name: "ip1"
  type: "InnerProduct"
  bottom: "pool1"
  top: "ip1"
  param {
    lr_mult: 1
  }
  param {
    lr_mult: 2
  }
  inner_product_param {
    num_output: 300
    weight_filler {
      type: "xavier"
    }
    bias_filler {
      type: "constant"
    }
  }
}
layer {
  name: "relu1"
  type: "ReLU"
  bottom: "ip1"
  top: "ip1"
}
layer {
  name: "ip2"
  type: "InnerProduct"
  bottom: "ip1"
  top: "ip2"
  param {
    lr_mult: 1
  }
  param {
    lr_mult: 2
  }
  inner_product_param {
    num_output: 300
    weight_filler {
      type: "xavier"
    }
    bias_filler {
      type: "constant"
    }
  }
}
layer {
  name: "relu2"
  type: "ReLU"
  bottom: "ip2"
  top: "ip2"
}
layer {
  name: "ip3"
  type: "InnerProduct"
  bottom: "ip2"
  top: "ip3"
  param {
    lr_mult: 1
  }
  param {
    lr_mult: 2
  }
  inner_product_param {
    num_output: 10
    weight_filler {
      type: "xavier"
    }
    bias_filler {
      type: "constant"
    }
  }
}
layer {
  name: "relu3"
  type: "ReLU"
  bottom: "ip3"
  top: "ip3"
}
layer {
  name: "loss"
  type: "SoftmaxWithLoss"
  bottom: "ip3"
  bottom: "label"
  top: "loss"
}
I0426 20:52:24.096890 32185 layer_factory.hpp:77] Creating layer mnist
I0426 20:52:24.097024 32185 db_lmdb.cpp:35] Opened lmdb examples/mnist/mnist_train_lmdb
I0426 20:52:24.097061 32185 net.cpp:86] Creating Layer mnist
I0426 20:52:24.097075 32185 net.cpp:382] mnist -> data
I0426 20:52:24.097105 32185 net.cpp:382] mnist -> label
I0426 20:52:24.098409 32185 data_layer.cpp:45] output data size: 64,1,28,28
I0426 20:52:24.100920 32185 net.cpp:124] Setting up mnist
I0426 20:52:24.100937 32185 net.cpp:131] Top shape: 64 1 28 28 (50176)
I0426 20:52:24.100945 32185 net.cpp:131] Top shape: 64 (64)
I0426 20:52:24.100950 32185 net.cpp:139] Memory required for data: 200960
I0426 20:52:24.100956 32185 layer_factory.hpp:77] Creating layer conv0
I0426 20:52:24.100973 32185 net.cpp:86] Creating Layer conv0
I0426 20:52:24.101006 32185 net.cpp:408] conv0 <- data
I0426 20:52:24.101038 32185 net.cpp:382] conv0 -> conv0
I0426 20:52:24.392907 32185 net.cpp:124] Setting up conv0
I0426 20:52:24.392940 32185 net.cpp:131] Top shape: 64 25 24 24 (921600)
I0426 20:52:24.392953 32185 net.cpp:139] Memory required for data: 3887360
I0426 20:52:24.392971 32185 layer_factory.hpp:77] Creating layer pool0
I0426 20:52:24.392987 32185 net.cpp:86] Creating Layer pool0
I0426 20:52:24.392995 32185 net.cpp:408] pool0 <- conv0
I0426 20:52:24.393004 32185 net.cpp:382] pool0 -> pool0
I0426 20:52:24.393090 32185 net.cpp:124] Setting up pool0
I0426 20:52:24.393105 32185 net.cpp:131] Top shape: 64 25 12 12 (230400)
I0426 20:52:24.393111 32185 net.cpp:139] Memory required for data: 4808960
I0426 20:52:24.393121 32185 layer_factory.hpp:77] Creating layer conv1
I0426 20:52:24.393148 32185 net.cpp:86] Creating Layer conv1
I0426 20:52:24.393158 32185 net.cpp:408] conv1 <- pool0
I0426 20:52:24.393172 32185 net.cpp:382] conv1 -> conv1
I0426 20:52:24.396512 32185 net.cpp:124] Setting up conv1
I0426 20:52:24.396529 32185 net.cpp:131] Top shape: 64 10 8 8 (40960)
I0426 20:52:24.396533 32185 net.cpp:139] Memory required for data: 4972800
I0426 20:52:24.396543 32185 layer_factory.hpp:77] Creating layer pool1
I0426 20:52:24.396553 32185 net.cpp:86] Creating Layer pool1
I0426 20:52:24.396556 32185 net.cpp:408] pool1 <- conv1
I0426 20:52:24.396565 32185 net.cpp:382] pool1 -> pool1
I0426 20:52:24.396625 32185 net.cpp:124] Setting up pool1
I0426 20:52:24.396636 32185 net.cpp:131] Top shape: 64 10 4 4 (10240)
I0426 20:52:24.396642 32185 net.cpp:139] Memory required for data: 5013760
I0426 20:52:24.396651 32185 layer_factory.hpp:77] Creating layer ip1
I0426 20:52:24.396672 32185 net.cpp:86] Creating Layer ip1
I0426 20:52:24.396679 32185 net.cpp:408] ip1 <- pool1
I0426 20:52:24.396687 32185 net.cpp:382] ip1 -> ip1
I0426 20:52:24.397178 32185 net.cpp:124] Setting up ip1
I0426 20:52:24.397189 32185 net.cpp:131] Top shape: 64 300 (19200)
I0426 20:52:24.397204 32185 net.cpp:139] Memory required for data: 5090560
I0426 20:52:24.397218 32185 layer_factory.hpp:77] Creating layer relu1
I0426 20:52:24.397230 32185 net.cpp:86] Creating Layer relu1
I0426 20:52:24.397239 32185 net.cpp:408] relu1 <- ip1
I0426 20:52:24.397250 32185 net.cpp:369] relu1 -> ip1 (in-place)
I0426 20:52:24.397459 32185 net.cpp:124] Setting up relu1
I0426 20:52:24.397471 32185 net.cpp:131] Top shape: 64 300 (19200)
I0426 20:52:24.397480 32185 net.cpp:139] Memory required for data: 5167360
I0426 20:52:24.397496 32185 layer_factory.hpp:77] Creating layer ip2
I0426 20:52:24.397507 32185 net.cpp:86] Creating Layer ip2
I0426 20:52:24.397516 32185 net.cpp:408] ip2 <- ip1
I0426 20:52:24.397528 32185 net.cpp:382] ip2 -> ip2
I0426 20:52:24.399224 32185 net.cpp:124] Setting up ip2
I0426 20:52:24.399240 32185 net.cpp:131] Top shape: 64 300 (19200)
I0426 20:52:24.399248 32185 net.cpp:139] Memory required for data: 5244160
I0426 20:52:24.399260 32185 layer_factory.hpp:77] Creating layer relu2
I0426 20:52:24.399274 32185 net.cpp:86] Creating Layer relu2
I0426 20:52:24.399283 32185 net.cpp:408] relu2 <- ip2
I0426 20:52:24.399296 32185 net.cpp:369] relu2 -> ip2 (in-place)
I0426 20:52:24.400262 32185 net.cpp:124] Setting up relu2
I0426 20:52:24.400279 32185 net.cpp:131] Top shape: 64 300 (19200)
I0426 20:52:24.400286 32185 net.cpp:139] Memory required for data: 5320960
I0426 20:52:24.400295 32185 layer_factory.hpp:77] Creating layer ip3
I0426 20:52:24.400308 32185 net.cpp:86] Creating Layer ip3
I0426 20:52:24.400317 32185 net.cpp:408] ip3 <- ip2
I0426 20:52:24.400331 32185 net.cpp:382] ip3 -> ip3
I0426 20:52:24.401458 32185 net.cpp:124] Setting up ip3
I0426 20:52:24.401475 32185 net.cpp:131] Top shape: 64 10 (640)
I0426 20:52:24.401484 32185 net.cpp:139] Memory required for data: 5323520
I0426 20:52:24.401499 32185 layer_factory.hpp:77] Creating layer relu3
I0426 20:52:24.401511 32185 net.cpp:86] Creating Layer relu3
I0426 20:52:24.401520 32185 net.cpp:408] relu3 <- ip3
I0426 20:52:24.401531 32185 net.cpp:369] relu3 -> ip3 (in-place)
I0426 20:52:24.401752 32185 net.cpp:124] Setting up relu3
I0426 20:52:24.401763 32185 net.cpp:131] Top shape: 64 10 (640)
I0426 20:52:24.401772 32185 net.cpp:139] Memory required for data: 5326080
I0426 20:52:24.401779 32185 layer_factory.hpp:77] Creating layer loss
I0426 20:52:24.401790 32185 net.cpp:86] Creating Layer loss
I0426 20:52:24.401798 32185 net.cpp:408] loss <- ip3
I0426 20:52:24.401808 32185 net.cpp:408] loss <- label
I0426 20:52:24.401819 32185 net.cpp:382] loss -> loss
I0426 20:52:24.401850 32185 layer_factory.hpp:77] Creating layer loss
…
I0426 20:52:24.402679 32185 solver.cpp:173] Creating test net (#0) specified by net file: ECE595/mnist/train_test/var_everything/lenet_train_test111.prototxt
I0426 20:52:24.402724 32185 net.cpp:296] The NetState phase (1) differed from the phase (0) specified by a rule in layer mnist
I0426 20:52:24.402842 32185 net.cpp:53] Initializing net from parameters: 
name: "LeNet"
state {
  phase: TEST
}
layer {
  name: "mnist"
  type: "Data"
  top: "data"
  top: "label"
  include {
    phase: TEST
  }
  transform_param {
    scale: 0.00390625
  }
  data_param {
    source: "examples/mnist/mnist_test_lmdb"
    batch_size: 100
    backend: LMDB
  }
}
layer {
  name: "conv0"
  type: "Convolution"
  bottom: "data"
  top: "conv0"
  param {
    lr_mult: 1
  }
  param {
    lr_mult: 2
  }
  convolution_param {
    num_output: 25
    kernel_size: 5
    stride: 1
    weight_filler {
      type: "xavier"
    }
    bias_filler {
      type: "constant"
    }
  }
}
layer {
  name: "pool0"
  type: "Pooling"
  bottom: "conv0"
  top: "pool0"
  pooling_param {
    pool: MAX
    kernel_size: 2
    stride: 2
  }
}
layer {
  name: "conv1"
  type: "Convolution"
  bottom: "pool0"
  top: "conv1"
  param {
    lr_mult: 1
  }
  param {
    lr_mult: 2
  }
  convolution_param {
    num_output: 10
    kernel_size: 5
    stride: 1
    weight_filler {
      type: "xavier"
    }
    bias_filler {
      type: "constant"
    }
  }
}
layer {
  name: "pool1"
  type: "Pooling"
  bottom: "conv1"
  top: "pool1"
  pooling_param {
    pool: MAX
    kernel_size: 2
    stride: 2
  }
}
layer {
  name: "ip1"
  type: "InnerProduct"
  bottom: "pool1"
  top: "ip1"
  param {
    lr_mult: 1
  }
  param {
    lr_mult: 2
  }
  inner_product_param {
    num_output: 300
    weight_filler {
      type: "xavier"
    }
    bias_filler {
      type: "constant"
    }
  }
}
layer {
  name: "relu1"
  type: "ReLU"
  bottom: "ip1"
  top: "ip1"
}
layer {
  name: "ip2"
  type: "InnerProduct"
  bottom: "ip1"
  top: "ip2"
  param {
    lr_mult: 1
  }
  param {
    lr_mult: 2
  }
  inner_product_param {
    num_output: 300
    weight_filler {
      type: "xavier"
    }
    bias_filler {
      type: "constant"
    }
  }
}
layer {
  name: "relu2"
  type: "ReLU"
  bottom: "ip2"
  top: "ip2"
}
layer {
  name: "ip3"
  type: "InnerProduct"
  bottom: "ip2"
  top: "ip3"
  param {
    lr_mult: 1
  }
  param {
    lr_mult: 2
  }
  inner_product_param {
    num_output: 10
    weight_filler {
      type: "xavier"
    }
    bias_filler {
      type: "constant"
    }
  }
}
layer {
  name: "relu3"
  type: "ReLU"
  bottom: "ip3"
  top: "ip3"
}
layer {
  name: "accuracy"
  type: "Accuracy"
  bottom: "ip3"
  bottom: "label"
  top: "accuracy"
  include {
    phase: TEST
  }
}
layer {
  name: "loss"
  type: "SoftmaxWithLoss"
  bottom: "ip3"
  bottom: "label"
  top: "loss"
}
I0426 20:52:24.402978 32185 layer_factory.hpp:77] Creating layer mnist
I0426 20:52:24.403048 32185 db_lmdb.cpp:35] Opened lmdb examples/mnist/mnist_test_lmdb
I0426 20:52:24.403069 32185 net.cpp:86] Creating Layer mnist
I0426 20:52:24.403079 32185 net.cpp:382] mnist -> data
I0426 20:52:24.403092 32185 net.cpp:382] mnist -> label
I0426 20:52:24.403235 32185 data_layer.cpp:45] output data size: 100,1,28,28
I0426 20:52:24.404597 32185 net.cpp:124] Setting up mnist
I0426 20:52:24.404613 32185 net.cpp:131] Top shape: 100 1 28 28 (78400)
I0426 20:52:24.404624 32185 net.cpp:131] Top shape: 100 (100)
I0426 20:52:24.404633 32185 net.cpp:139] Memory required for data: 314000
I0426 20:52:24.404639 32185 layer_factory.hpp:77] Creating layer label_mnist_1_split
I0426 20:52:24.404686 32185 net.cpp:86] Creating Layer label_mnist_1_split
I0426 20:52:24.404693 32185 net.cpp:408] label_mnist_1_split <- label
I0426 20:52:24.404701 32185 net.cpp:382] label_mnist_1_split -> label_mnist_1_split_0
I0426 20:52:24.404716 32185 net.cpp:382] label_mnist_1_split -> label_mnist_1_split_1
I0426 20:52:24.404820 32185 net.cpp:124] Setting up label_mnist_1_split
I0426 20:52:24.404831 32185 net.cpp:131] Top shape: 100 (100)
I0426 20:52:24.404844 32185 net.cpp:131] Top shape: 100 (100)
I0426 20:52:24.404848 32185 net.cpp:139] Memory required for data: 314800
I0426 20:52:24.404853 32185 layer_factory.hpp:77] Creating layer conv0
I0426 20:52:24.404868 32185 net.cpp:86] Creating Layer conv0
I0426 20:52:24.404875 32185 net.cpp:408] conv0 <- data
I0426 20:52:24.404886 32185 net.cpp:382] conv0 -> conv0
I0426 20:52:24.406832 32185 net.cpp:124] Setting up conv0
I0426 20:52:24.406849 32185 net.cpp:131] Top shape: 100 25 24 24 (1440000)
I0426 20:52:24.406854 32185 net.cpp:139] Memory required for data: 6074800
I0426 20:52:24.406872 32185 layer_factory.hpp:77] Creating layer pool0
I0426 20:52:24.406886 32185 net.cpp:86] Creating Layer pool0
I0426 20:52:24.406893 32185 net.cpp:408] pool0 <- conv0
I0426 20:52:24.406904 32185 net.cpp:382] pool0 -> pool0
I0426 20:52:24.406965 32185 net.cpp:124] Setting up pool0
I0426 20:52:24.406975 32185 net.cpp:131] Top shape: 100 25 12 12 (360000)
I0426 20:52:24.406980 32185 net.cpp:139] Memory required for data: 7514800
I0426 20:52:24.406985 32185 layer_factory.hpp:77] Creating layer conv1
I0426 20:52:24.407003 32185 net.cpp:86] Creating Layer conv1
I0426 20:52:24.407011 32185 net.cpp:408] conv1 <- pool0
I0426 20:52:24.407021 32185 net.cpp:382] conv1 -> conv1
I0426 20:52:24.409642 32185 net.cpp:124] Setting up conv1
I0426 20:52:24.409658 32185 net.cpp:131] Top shape: 100 10 8 8 (64000)
I0426 20:52:24.409663 32185 net.cpp:139] Memory required for data: 7770800
I0426 20:52:24.409678 32185 layer_factory.hpp:77] Creating layer pool1
I0426 20:52:24.409693 32185 net.cpp:86] Creating Layer pool1
I0426 20:52:24.409705 32185 net.cpp:408] pool1 <- conv1
I0426 20:52:24.409716 32185 net.cpp:382] pool1 -> pool1
I0426 20:52:24.409803 32185 net.cpp:124] Setting up pool1
I0426 20:52:24.409813 32185 net.cpp:131] Top shape: 100 10 4 4 (16000)
I0426 20:52:24.409817 32185 net.cpp:139] Memory required for data: 7834800
I0426 20:52:24.409824 32185 layer_factory.hpp:77] Creating layer ip1
I0426 20:52:24.409834 32185 net.cpp:86] Creating Layer ip1
I0426 20:52:24.409842 32185 net.cpp:408] ip1 <- pool1
I0426 20:52:24.409857 32185 net.cpp:382] ip1 -> ip1
I0426 20:52:24.410326 32185 net.cpp:124] Setting up ip1
I0426 20:52:24.410336 32185 net.cpp:131] Top shape: 100 300 (30000)
I0426 20:52:24.410353 32185 net.cpp:139] Memory required for data: 7954800
I0426 20:52:24.410363 32185 layer_factory.hpp:77] Creating layer relu1
I0426 20:52:24.410373 32185 net.cpp:86] Creating Layer relu1
I0426 20:52:24.410378 32185 net.cpp:408] relu1 <- ip1
I0426 20:52:24.410384 32185 net.cpp:369] relu1 -> ip1 (in-place)
I0426 20:52:24.410619 32185 net.cpp:124] Setting up relu1
I0426 20:52:24.410631 32185 net.cpp:131] Top shape: 100 300 (30000)
I0426 20:52:24.410635 32185 net.cpp:139] Memory required for data: 8074800
I0426 20:52:24.410641 32185 layer_factory.hpp:77] Creating layer ip2
I0426 20:52:24.410656 32185 net.cpp:86] Creating Layer ip2
I0426 20:52:24.410663 32185 net.cpp:408] ip2 <- ip1
I0426 20:52:24.410675 32185 net.cpp:382] ip2 -> ip2
I0426 20:52:24.411443 32185 net.cpp:124] Setting up ip2
I0426 20:52:24.411458 32185 net.cpp:131] Top shape: 100 300 (30000)
I0426 20:52:24.411461 32185 net.cpp:139] Memory required for data: 8194800
I0426 20:52:24.411468 32185 layer_factory.hpp:77] Creating layer relu2
I0426 20:52:24.411476 32185 net.cpp:86] Creating Layer relu2
I0426 20:52:24.411479 32185 net.cpp:408] relu2 <- ip2
I0426 20:52:24.411487 32185 net.cpp:369] relu2 -> ip2 (in-place)
I0426 20:52:24.411765 32185 net.cpp:124] Setting up relu2
I0426 20:52:24.411777 32185 net.cpp:131] Top shape: 100 300 (30000)
I0426 20:52:24.411780 32185 net.cpp:139] Memory required for data: 8314800
I0426 20:52:24.411785 32185 layer_factory.hpp:77] Creating layer ip3
I0426 20:52:24.411795 32185 net.cpp:86] Creating Layer ip3
I0426 20:52:24.411801 32185 net.cpp:408] ip3 <- ip2
I0426 20:52:24.411813 32185 net.cpp:382] ip3 -> ip3
I0426 20:52:24.411970 32185 net.cpp:124] Setting up ip3
I0426 20:52:24.411981 32185 net.cpp:131] Top shape: 100 10 (1000)
I0426 20:52:24.411985 32185 net.cpp:139] Memory required for data: 8318800
I0426 20:52:24.412000 32185 layer_factory.hpp:77] Creating layer relu3
I0426 20:52:24.412011 32185 net.cpp:86] Creating Layer relu3
I0426 20:52:24.412024 32185 net.cpp:408] relu3 <- ip3
I0426 20:52:24.412034 32185 net.cpp:369] relu3 -> ip3 (in-place)
I0426 20:52:24.413063 32185 net.cpp:124] Setting up relu3
I0426 20:52:24.413077 32185 net.cpp:131] Top shape: 100 10 (1000)
I0426 20:52:24.413081 32185 net.cpp:139] Memory required for data: 8322800
I0426 20:52:24.413085 32185 layer_factory.hpp:77] Creating layer ip3_relu3_0_split
I0426 20:52:24.413094 32185 net.cpp:86] Creating Layer ip3_relu3_0_split
I0426 20:52:24.413100 32185 net.cpp:408] ip3_relu3_0_split <- ip3
I0426 20:52:24.413113 32185 net.cpp:382] ip3_relu3_0_split -> ip3_relu3_0_split_0
I0426 20:52:24.413125 32185 net.cpp:382] ip3_relu3_0_split -> ip3_relu3_0_split_1
I0426 20:52:24.413188 32185 net.cpp:124] Setting up ip3_relu3_0_split
I0426 20:52:24.413198 32185 net.cpp:131] Top shape: 100 10 (1000)
I0426 20:52:24.413203 32185 net.cpp:131] Top shape: 100 10 (1000)
I0426 20:52:24.413208 32185 net.cpp:139] Memory required for data: 8330800
I0426 20:52:24.413214 32185 layer_factory.hpp:77] Creating layer accuracy
I0426 20:52:24.413223 32185 net.cpp:86] Creating Layer accuracy
I0426 20:52:24.413230 32185 net.cpp:408] accuracy <- ip3_relu3_0_split_0
I0426 20:52:24.413239 32185 net.cpp:408] accuracy <- label_mnist_1_split_0
I0426 20:52:24.413249 32185 net.cpp:382] accuracy -> accuracy
…
