…
I0426 20:51:13.026324 31932 net.cpp:296] The NetState phase (0) differed from the phase (1) specified by a rule in layer mnist
I0426 20:51:13.026365 31932 net.cpp:296] The NetState phase (0) differed from the phase (1) specified by a rule in layer accuracy
I0426 20:51:13.026475 31932 net.cpp:53] Initializing net from parameters: 
name: "LeNet"
state {
  phase: TRAIN
  level: 0
  stage: ""
}
layer {
  name: "mnist"
  type: "Data"
  top: "data"
  top: "label"
  include {
    phase: TRAIN
  }
  transform_param {
    scale: 0.00390625
  }
  data_param {
    source: "examples/mnist/mnist_train_lmdb"
    batch_size: 64
    backend: LMDB
  }
}
layer {
  name: "conv0"
  type: "Convolution"
  bottom: "data"
  top: "conv0"
  param {
    lr_mult: 1
  }
  param {
    lr_mult: 2
  }
  convolution_param {
    num_output: 10
    kernel_size: 5
    stride: 1
    weight_filler {
      type: "xavier"
    }
    bias_filler {
      type: "constant"
    }
  }
}
layer {
  name: "pool0"
  type: "Pooling"
  bottom: "conv0"
  top: "pool0"
  pooling_param {
    pool: MAX
    kernel_size: 2
    stride: 2
  }
}
layer {
  name: "conv1"
  type: "Convolution"
  bottom: "pool0"
  top: "conv1"
  param {
    lr_mult: 1
  }
  param {
    lr_mult: 2
  }
  convolution_param {
    num_output: 25
    kernel_size: 5
    stride: 1
    weight_filler {
      type: "xavier"
    }
    bias_filler {
      type: "constant"
    }
  }
}
layer {
  name: "pool1"
  type: "Pooling"
  bottom: "conv1"
  top: "pool1"
  pooling_param {
    pool: MAX
    kernel_size: 2
    stride: 2
  }
}
layer {
  name: "ip1"
  type: "InnerProduct"
  bottom: "pool1"
  top: "ip1"
  param {
    lr_mult: 1
  }
  param {
    lr_mult: 2
  }
  inner_product_param {
    num_output: 300
    weight_filler {
      type: "xavier"
    }
    bias_filler {
      type: "constant"
    }
  }
}
layer {
  name: "relu1"
  type: "ReLU"
  bottom: "ip1"
  top: "ip1"
}
layer {
  name: "ip2"
  type: "InnerProduct"
  bottom: "ip1"
  top: "ip2"
  param {
    lr_mult: 1
  }
  param {
    lr_mult: 2
  }
  inner_product_param {
    num_output: 100
    weight_filler {
      type: "xavier"
    }
    bias_filler {
      type: "constant"
    }
  }
}
layer {
  name: "relu2"
  type: "ReLU"
  bottom: "ip2"
  top: "ip2"
}
layer {
  name: "ip3"
  type: "InnerProduct"
  bottom: "ip2"
  top: "ip3"
  param {
    lr_mult: 1
  }
  param {
    lr_mult: 2
  }
  inner_product_param {
    num_output: 10
    weight_filler {
      type: "xavier"
    }
    bias_filler {
      type: "constant"
    }
  }
}
layer {
  name: "relu3"
  type: "ReLU"
  bottom: "ip3"
  top: "ip3"
}
layer {
  name: "loss"
  type: "SoftmaxWithLoss"
  bottom: "ip3"
  bottom: "label"
  top: "loss"
}
I0426 20:51:13.026541 31932 layer_factory.hpp:77] Creating layer mnist
I0426 20:51:13.026623 31932 db_lmdb.cpp:35] Opened lmdb examples/mnist/mnist_train_lmdb
I0426 20:51:13.026643 31932 net.cpp:86] Creating Layer mnist
I0426 20:51:13.026649 31932 net.cpp:382] mnist -> data
I0426 20:51:13.026667 31932 net.cpp:382] mnist -> label
I0426 20:51:13.027600 31932 data_layer.cpp:45] output data size: 64,1,28,28
I0426 20:51:13.029793 31932 net.cpp:124] Setting up mnist
I0426 20:51:13.029837 31932 net.cpp:131] Top shape: 64 1 28 28 (50176)
I0426 20:51:13.029842 31932 net.cpp:131] Top shape: 64 (64)
I0426 20:51:13.029845 31932 net.cpp:139] Memory required for data: 200960
I0426 20:51:13.029850 31932 layer_factory.hpp:77] Creating layer conv0
I0426 20:51:13.029865 31932 net.cpp:86] Creating Layer conv0
I0426 20:51:13.029881 31932 net.cpp:408] conv0 <- data
I0426 20:51:13.029891 31932 net.cpp:382] conv0 -> conv0
I0426 20:51:13.262285 31932 net.cpp:124] Setting up conv0
I0426 20:51:13.262311 31932 net.cpp:131] Top shape: 64 10 24 24 (368640)
I0426 20:51:13.262315 31932 net.cpp:139] Memory required for data: 1675520
I0426 20:51:13.262328 31932 layer_factory.hpp:77] Creating layer pool0
I0426 20:51:13.262339 31932 net.cpp:86] Creating Layer pool0
I0426 20:51:13.262343 31932 net.cpp:408] pool0 <- conv0
I0426 20:51:13.262348 31932 net.cpp:382] pool0 -> pool0
I0426 20:51:13.262408 31932 net.cpp:124] Setting up pool0
I0426 20:51:13.262413 31932 net.cpp:131] Top shape: 64 10 12 12 (92160)
I0426 20:51:13.262415 31932 net.cpp:139] Memory required for data: 2044160
I0426 20:51:13.262418 31932 layer_factory.hpp:77] Creating layer conv1
I0426 20:51:13.262428 31932 net.cpp:86] Creating Layer conv1
I0426 20:51:13.262430 31932 net.cpp:408] conv1 <- pool0
I0426 20:51:13.262434 31932 net.cpp:382] conv1 -> conv1
I0426 20:51:13.265156 31932 net.cpp:124] Setting up conv1
I0426 20:51:13.265169 31932 net.cpp:131] Top shape: 64 25 8 8 (102400)
I0426 20:51:13.265187 31932 net.cpp:139] Memory required for data: 2453760
I0426 20:51:13.265195 31932 layer_factory.hpp:77] Creating layer pool1
I0426 20:51:13.265218 31932 net.cpp:86] Creating Layer pool1
I0426 20:51:13.265221 31932 net.cpp:408] pool1 <- conv1
I0426 20:51:13.265225 31932 net.cpp:382] pool1 -> pool1
I0426 20:51:13.265278 31932 net.cpp:124] Setting up pool1
I0426 20:51:13.265283 31932 net.cpp:131] Top shape: 64 25 4 4 (25600)
I0426 20:51:13.265285 31932 net.cpp:139] Memory required for data: 2556160
I0426 20:51:13.265288 31932 layer_factory.hpp:77] Creating layer ip1
I0426 20:51:13.265295 31932 net.cpp:86] Creating Layer ip1
I0426 20:51:13.265300 31932 net.cpp:408] ip1 <- pool1
I0426 20:51:13.265305 31932 net.cpp:382] ip1 -> ip1
I0426 20:51:13.266827 31932 net.cpp:124] Setting up ip1
I0426 20:51:13.266839 31932 net.cpp:131] Top shape: 64 300 (19200)
I0426 20:51:13.266857 31932 net.cpp:139] Memory required for data: 2632960
I0426 20:51:13.266865 31932 layer_factory.hpp:77] Creating layer relu1
I0426 20:51:13.266870 31932 net.cpp:86] Creating Layer relu1
I0426 20:51:13.266873 31932 net.cpp:408] relu1 <- ip1
I0426 20:51:13.266877 31932 net.cpp:369] relu1 -> ip1 (in-place)
I0426 20:51:13.267058 31932 net.cpp:124] Setting up relu1
I0426 20:51:13.267067 31932 net.cpp:131] Top shape: 64 300 (19200)
I0426 20:51:13.267071 31932 net.cpp:139] Memory required for data: 2709760
I0426 20:51:13.267073 31932 layer_factory.hpp:77] Creating layer ip2
I0426 20:51:13.267079 31932 net.cpp:86] Creating Layer ip2
I0426 20:51:13.267082 31932 net.cpp:408] ip2 <- ip1
I0426 20:51:13.267087 31932 net.cpp:382] ip2 -> ip2
I0426 20:51:13.267341 31932 net.cpp:124] Setting up ip2
I0426 20:51:13.267349 31932 net.cpp:131] Top shape: 64 100 (6400)
I0426 20:51:13.267351 31932 net.cpp:139] Memory required for data: 2735360
I0426 20:51:13.267357 31932 layer_factory.hpp:77] Creating layer relu2
I0426 20:51:13.267362 31932 net.cpp:86] Creating Layer relu2
I0426 20:51:13.267365 31932 net.cpp:408] relu2 <- ip2
I0426 20:51:13.267369 31932 net.cpp:369] relu2 -> ip2 (in-place)
I0426 20:51:13.268148 31932 net.cpp:124] Setting up relu2
I0426 20:51:13.268160 31932 net.cpp:131] Top shape: 64 100 (6400)
I0426 20:51:13.268178 31932 net.cpp:139] Memory required for data: 2760960
I0426 20:51:13.268182 31932 layer_factory.hpp:77] Creating layer ip3
I0426 20:51:13.268189 31932 net.cpp:86] Creating Layer ip3
I0426 20:51:13.268193 31932 net.cpp:408] ip3 <- ip2
I0426 20:51:13.268198 31932 net.cpp:382] ip3 -> ip3
I0426 20:51:13.268302 31932 net.cpp:124] Setting up ip3
I0426 20:51:13.268309 31932 net.cpp:131] Top shape: 64 10 (640)
I0426 20:51:13.268312 31932 net.cpp:139] Memory required for data: 2763520
I0426 20:51:13.268321 31932 layer_factory.hpp:77] Creating layer relu3
I0426 20:51:13.268326 31932 net.cpp:86] Creating Layer relu3
I0426 20:51:13.268328 31932 net.cpp:408] relu3 <- ip3
I0426 20:51:13.268332 31932 net.cpp:369] relu3 -> ip3 (in-place)
I0426 20:51:13.268504 31932 net.cpp:124] Setting up relu3
I0426 20:51:13.268512 31932 net.cpp:131] Top shape: 64 10 (640)
I0426 20:51:13.268515 31932 net.cpp:139] Memory required for data: 2766080
I0426 20:51:13.268518 31932 layer_factory.hpp:77] Creating layer loss
I0426 20:51:13.268524 31932 net.cpp:86] Creating Layer loss
I0426 20:51:13.268527 31932 net.cpp:408] loss <- ip3
I0426 20:51:13.268532 31932 net.cpp:408] loss <- label
I0426 20:51:13.268535 31932 net.cpp:382] loss -> loss
I0426 20:51:13.268549 31932 layer_factory.hpp:77] Creating layer loss
…
I0426 20:51:13.269222 31932 solver.cpp:173] Creating test net (#0) specified by net file: ECE595/mnist/train_test/var_everything/lenet_train_test81.prototxt
I0426 20:51:13.269246 31932 net.cpp:296] The NetState phase (1) differed from the phase (0) specified by a rule in layer mnist
I0426 20:51:13.269331 31932 net.cpp:53] Initializing net from parameters: 
name: "LeNet"
state {
  phase: TEST
}
layer {
  name: "mnist"
  type: "Data"
  top: "data"
  top: "label"
  include {
    phase: TEST
  }
  transform_param {
    scale: 0.00390625
  }
  data_param {
    source: "examples/mnist/mnist_test_lmdb"
    batch_size: 100
    backend: LMDB
  }
}
layer {
  name: "conv0"
  type: "Convolution"
  bottom: "data"
  top: "conv0"
  param {
    lr_mult: 1
  }
  param {
    lr_mult: 2
  }
  convolution_param {
    num_output: 10
    kernel_size: 5
    stride: 1
    weight_filler {
      type: "xavier"
    }
    bias_filler {
      type: "constant"
    }
  }
}
layer {
  name: "pool0"
  type: "Pooling"
  bottom: "conv0"
  top: "pool0"
  pooling_param {
    pool: MAX
    kernel_size: 2
    stride: 2
  }
}
layer {
  name: "conv1"
  type: "Convolution"
  bottom: "pool0"
  top: "conv1"
  param {
    lr_mult: 1
  }
  param {
    lr_mult: 2
  }
  convolution_param {
    num_output: 25
    kernel_size: 5
    stride: 1
    weight_filler {
      type: "xavier"
    }
    bias_filler {
      type: "constant"
    }
  }
}
layer {
  name: "pool1"
  type: "Pooling"
  bottom: "conv1"
  top: "pool1"
  pooling_param {
    pool: MAX
    kernel_size: 2
    stride: 2
  }
}
layer {
  name: "ip1"
  type: "InnerProduct"
  bottom: "pool1"
  top: "ip1"
  param {
    lr_mult: 1
  }
  param {
    lr_mult: 2
  }
  inner_product_param {
    num_output: 300
    weight_filler {
      type: "xavier"
    }
    bias_filler {
      type: "constant"
    }
  }
}
layer {
  name: "relu1"
  type: "ReLU"
  bottom: "ip1"
  top: "ip1"
}
layer {
  name: "ip2"
  type: "InnerProduct"
  bottom: "ip1"
  top: "ip2"
  param {
    lr_mult: 1
  }
  param {
    lr_mult: 2
  }
  inner_product_param {
    num_output: 100
    weight_filler {
      type: "xavier"
    }
    bias_filler {
      type: "constant"
    }
  }
}
layer {
  name: "relu2"
  type: "ReLU"
  bottom: "ip2"
  top: "ip2"
}
layer {
  name: "ip3"
  type: "InnerProduct"
  bottom: "ip2"
  top: "ip3"
  param {
    lr_mult: 1
  }
  param {
    lr_mult: 2
  }
  inner_product_param {
    num_output: 10
    weight_filler {
      type: "xavier"
    }
    bias_filler {
      type: "constant"
    }
  }
}
layer {
  name: "relu3"
  type: "ReLU"
  bottom: "ip3"
  top: "ip3"
}
layer {
  name: "accuracy"
  type: "Accuracy"
  bottom: "ip3"
  bottom: "label"
  top: "accuracy"
  include {
    phase: TEST
  }
}
layer {
  name: "loss"
  type: "SoftmaxWithLoss"
  bottom: "ip3"
  bottom: "label"
  top: "loss"
}
I0426 20:51:13.269407 31932 layer_factory.hpp:77] Creating layer mnist
I0426 20:51:13.269448 31932 db_lmdb.cpp:35] Opened lmdb examples/mnist/mnist_test_lmdb
I0426 20:51:13.269460 31932 net.cpp:86] Creating Layer mnist
I0426 20:51:13.269464 31932 net.cpp:382] mnist -> data
I0426 20:51:13.269471 31932 net.cpp:382] mnist -> label
I0426 20:51:13.269551 31932 data_layer.cpp:45] output data size: 100,1,28,28
I0426 20:51:13.270658 31932 net.cpp:124] Setting up mnist
I0426 20:51:13.270701 31932 net.cpp:131] Top shape: 100 1 28 28 (78400)
I0426 20:51:13.270706 31932 net.cpp:131] Top shape: 100 (100)
I0426 20:51:13.270723 31932 net.cpp:139] Memory required for data: 314000
I0426 20:51:13.270727 31932 layer_factory.hpp:77] Creating layer label_mnist_1_split
I0426 20:51:13.270747 31932 net.cpp:86] Creating Layer label_mnist_1_split
I0426 20:51:13.270752 31932 net.cpp:408] label_mnist_1_split <- label
I0426 20:51:13.270757 31932 net.cpp:382] label_mnist_1_split -> label_mnist_1_split_0
I0426 20:51:13.270763 31932 net.cpp:382] label_mnist_1_split -> label_mnist_1_split_1
I0426 20:51:13.270853 31932 net.cpp:124] Setting up label_mnist_1_split
I0426 20:51:13.270861 31932 net.cpp:131] Top shape: 100 (100)
I0426 20:51:13.270865 31932 net.cpp:131] Top shape: 100 (100)
I0426 20:51:13.270869 31932 net.cpp:139] Memory required for data: 314800
I0426 20:51:13.270871 31932 layer_factory.hpp:77] Creating layer conv0
I0426 20:51:13.270879 31932 net.cpp:86] Creating Layer conv0
I0426 20:51:13.270882 31932 net.cpp:408] conv0 <- data
I0426 20:51:13.270887 31932 net.cpp:382] conv0 -> conv0
I0426 20:51:13.272603 31932 net.cpp:124] Setting up conv0
I0426 20:51:13.272631 31932 net.cpp:131] Top shape: 100 10 24 24 (576000)
I0426 20:51:13.272634 31932 net.cpp:139] Memory required for data: 2618800
I0426 20:51:13.272644 31932 layer_factory.hpp:77] Creating layer pool0
I0426 20:51:13.272649 31932 net.cpp:86] Creating Layer pool0
I0426 20:51:13.272652 31932 net.cpp:408] pool0 <- conv0
I0426 20:51:13.272656 31932 net.cpp:382] pool0 -> pool0
I0426 20:51:13.272704 31932 net.cpp:124] Setting up pool0
I0426 20:51:13.272709 31932 net.cpp:131] Top shape: 100 10 12 12 (144000)
I0426 20:51:13.272712 31932 net.cpp:139] Memory required for data: 3194800
I0426 20:51:13.272716 31932 layer_factory.hpp:77] Creating layer conv1
I0426 20:51:13.272722 31932 net.cpp:86] Creating Layer conv1
I0426 20:51:13.272727 31932 net.cpp:408] conv1 <- pool0
I0426 20:51:13.272730 31932 net.cpp:382] conv1 -> conv1
I0426 20:51:13.274930 31932 net.cpp:124] Setting up conv1
I0426 20:51:13.274942 31932 net.cpp:131] Top shape: 100 25 8 8 (160000)
I0426 20:51:13.274962 31932 net.cpp:139] Memory required for data: 3834800
I0426 20:51:13.274971 31932 layer_factory.hpp:77] Creating layer pool1
I0426 20:51:13.274976 31932 net.cpp:86] Creating Layer pool1
I0426 20:51:13.274979 31932 net.cpp:408] pool1 <- conv1
I0426 20:51:13.274983 31932 net.cpp:382] pool1 -> pool1
I0426 20:51:13.275039 31932 net.cpp:124] Setting up pool1
I0426 20:51:13.275044 31932 net.cpp:131] Top shape: 100 25 4 4 (40000)
I0426 20:51:13.275048 31932 net.cpp:139] Memory required for data: 3994800
I0426 20:51:13.275050 31932 layer_factory.hpp:77] Creating layer ip1
I0426 20:51:13.275055 31932 net.cpp:86] Creating Layer ip1
I0426 20:51:13.275058 31932 net.cpp:408] ip1 <- pool1
I0426 20:51:13.275063 31932 net.cpp:382] ip1 -> ip1
I0426 20:51:13.276649 31932 net.cpp:124] Setting up ip1
I0426 20:51:13.276670 31932 net.cpp:131] Top shape: 100 300 (30000)
I0426 20:51:13.276700 31932 net.cpp:139] Memory required for data: 4114800
I0426 20:51:13.276707 31932 layer_factory.hpp:77] Creating layer relu1
I0426 20:51:13.276712 31932 net.cpp:86] Creating Layer relu1
I0426 20:51:13.276715 31932 net.cpp:408] relu1 <- ip1
I0426 20:51:13.276720 31932 net.cpp:369] relu1 -> ip1 (in-place)
I0426 20:51:13.277012 31932 net.cpp:124] Setting up relu1
I0426 20:51:13.277024 31932 net.cpp:131] Top shape: 100 300 (30000)
I0426 20:51:13.277027 31932 net.cpp:139] Memory required for data: 4234800
I0426 20:51:13.277030 31932 layer_factory.hpp:77] Creating layer ip2
I0426 20:51:13.277039 31932 net.cpp:86] Creating Layer ip2
I0426 20:51:13.277042 31932 net.cpp:408] ip2 <- ip1
I0426 20:51:13.277047 31932 net.cpp:382] ip2 -> ip2
I0426 20:51:13.277386 31932 net.cpp:124] Setting up ip2
I0426 20:51:13.277392 31932 net.cpp:131] Top shape: 100 100 (10000)
I0426 20:51:13.277410 31932 net.cpp:139] Memory required for data: 4274800
I0426 20:51:13.277416 31932 layer_factory.hpp:77] Creating layer relu2
I0426 20:51:13.277428 31932 net.cpp:86] Creating Layer relu2
I0426 20:51:13.277432 31932 net.cpp:408] relu2 <- ip2
I0426 20:51:13.277436 31932 net.cpp:369] relu2 -> ip2 (in-place)
I0426 20:51:13.277585 31932 net.cpp:124] Setting up relu2
I0426 20:51:13.277592 31932 net.cpp:131] Top shape: 100 100 (10000)
I0426 20:51:13.277595 31932 net.cpp:139] Memory required for data: 4314800
I0426 20:51:13.277598 31932 layer_factory.hpp:77] Creating layer ip3
I0426 20:51:13.277604 31932 net.cpp:86] Creating Layer ip3
I0426 20:51:13.277608 31932 net.cpp:408] ip3 <- ip2
I0426 20:51:13.277613 31932 net.cpp:382] ip3 -> ip3
I0426 20:51:13.277710 31932 net.cpp:124] Setting up ip3
I0426 20:51:13.277717 31932 net.cpp:131] Top shape: 100 10 (1000)
I0426 20:51:13.277720 31932 net.cpp:139] Memory required for data: 4318800
I0426 20:51:13.277727 31932 layer_factory.hpp:77] Creating layer relu3
I0426 20:51:13.277732 31932 net.cpp:86] Creating Layer relu3
I0426 20:51:13.277736 31932 net.cpp:408] relu3 <- ip3
I0426 20:51:13.277740 31932 net.cpp:369] relu3 -> ip3 (in-place)
I0426 20:51:13.278568 31932 net.cpp:124] Setting up relu3
I0426 20:51:13.278594 31932 net.cpp:131] Top shape: 100 10 (1000)
I0426 20:51:13.278599 31932 net.cpp:139] Memory required for data: 4322800
I0426 20:51:13.278601 31932 layer_factory.hpp:77] Creating layer ip3_relu3_0_split
I0426 20:51:13.278606 31932 net.cpp:86] Creating Layer ip3_relu3_0_split
I0426 20:51:13.278610 31932 net.cpp:408] ip3_relu3_0_split <- ip3
I0426 20:51:13.278615 31932 net.cpp:382] ip3_relu3_0_split -> ip3_relu3_0_split_0
I0426 20:51:13.278621 31932 net.cpp:382] ip3_relu3_0_split -> ip3_relu3_0_split_1
I0426 20:51:13.278683 31932 net.cpp:124] Setting up ip3_relu3_0_split
I0426 20:51:13.278689 31932 net.cpp:131] Top shape: 100 10 (1000)
I0426 20:51:13.278692 31932 net.cpp:131] Top shape: 100 10 (1000)
I0426 20:51:13.278695 31932 net.cpp:139] Memory required for data: 4330800
I0426 20:51:13.278698 31932 layer_factory.hpp:77] Creating layer accuracy
I0426 20:51:13.278708 31932 net.cpp:86] Creating Layer accuracy
I0426 20:51:13.278712 31932 net.cpp:408] accuracy <- ip3_relu3_0_split_0
I0426 20:51:13.278717 31932 net.cpp:408] accuracy <- label_mnist_1_split_0
I0426 20:51:13.278720 31932 net.cpp:382] accuracy -> accuracy
…
