…
I0426 20:53:56.689294 32571 net.cpp:296] The NetState phase (0) differed from the phase (1) specified by a rule in layer mnist
I0426 20:53:56.689322 32571 net.cpp:296] The NetState phase (0) differed from the phase (1) specified by a rule in layer accuracy
I0426 20:53:56.689432 32571 net.cpp:53] Initializing net from parameters: 
name: "LeNet"
state {
  phase: TRAIN
  level: 0
  stage: ""
}
layer {
  name: "mnist"
  type: "Data"
  top: "data"
  top: "label"
  include {
    phase: TRAIN
  }
  transform_param {
    scale: 0.00390625
  }
  data_param {
    source: "examples/mnist/mnist_train_lmdb"
    batch_size: 64
    backend: LMDB
  }
}
layer {
  name: "conv0"
  type: "Convolution"
  bottom: "data"
  top: "conv0"
  param {
    lr_mult: 1
  }
  param {
    lr_mult: 2
  }
  convolution_param {
    num_output: 50
    kernel_size: 5
    stride: 1
    weight_filler {
      type: "xavier"
    }
    bias_filler {
      type: "constant"
    }
  }
}
layer {
  name: "pool0"
  type: "Pooling"
  bottom: "conv0"
  top: "pool0"
  pooling_param {
    pool: MAX
    kernel_size: 2
    stride: 2
  }
}
layer {
  name: "conv1"
  type: "Convolution"
  bottom: "pool0"
  top: "conv1"
  param {
    lr_mult: 1
  }
  param {
    lr_mult: 2
  }
  convolution_param {
    num_output: 10
    kernel_size: 5
    stride: 1
    weight_filler {
      type: "xavier"
    }
    bias_filler {
      type: "constant"
    }
  }
}
layer {
  name: "pool1"
  type: "Pooling"
  bottom: "conv1"
  top: "pool1"
  pooling_param {
    pool: MAX
    kernel_size: 2
    stride: 2
  }
}
layer {
  name: "ip1"
  type: "InnerProduct"
  bottom: "pool1"
  top: "ip1"
  param {
    lr_mult: 1
  }
  param {
    lr_mult: 2
  }
  inner_product_param {
    num_output: 100
    weight_filler {
      type: "xavier"
    }
    bias_filler {
      type: "constant"
    }
  }
}
layer {
  name: "relu1"
  type: "ReLU"
  bottom: "ip1"
  top: "ip1"
}
layer {
  name: "ip2"
  type: "InnerProduct"
  bottom: "ip1"
  top: "ip2"
  param {
    lr_mult: 1
  }
  param {
    lr_mult: 2
  }
  inner_product_param {
    num_output: 300
    weight_filler {
      type: "xavier"
    }
    bias_filler {
      type: "constant"
    }
  }
}
layer {
  name: "relu2"
  type: "ReLU"
  bottom: "ip2"
  top: "ip2"
}
layer {
  name: "ip3"
  type: "InnerProduct"
  bottom: "ip2"
  top: "ip3"
  param {
    lr_mult: 1
  }
  param {
    lr_mult: 2
  }
  inner_product_param {
    num_output: 10
    weight_filler {
      type: "xavier"
    }
    bias_filler {
      type: "constant"
    }
  }
}
layer {
  name: "relu3"
  type: "ReLU"
  bottom: "ip3"
  top: "ip3"
}
layer {
  name: "loss"
  type: "SoftmaxWithLoss"
  bottom: "ip3"
  bottom: "label"
  top: "loss"
}
I0426 20:53:56.689498 32571 layer_factory.hpp:77] Creating layer mnist
I0426 20:53:56.689580 32571 db_lmdb.cpp:35] Opened lmdb examples/mnist/mnist_train_lmdb
I0426 20:53:56.689599 32571 net.cpp:86] Creating Layer mnist
I0426 20:53:56.689607 32571 net.cpp:382] mnist -> data
I0426 20:53:56.689625 32571 net.cpp:382] mnist -> label
I0426 20:53:56.690508 32571 data_layer.cpp:45] output data size: 64,1,28,28
I0426 20:53:56.692536 32571 net.cpp:124] Setting up mnist
I0426 20:53:56.692549 32571 net.cpp:131] Top shape: 64 1 28 28 (50176)
I0426 20:53:56.692554 32571 net.cpp:131] Top shape: 64 (64)
I0426 20:53:56.692558 32571 net.cpp:139] Memory required for data: 200960
I0426 20:53:56.692562 32571 layer_factory.hpp:77] Creating layer conv0
I0426 20:53:56.692575 32571 net.cpp:86] Creating Layer conv0
I0426 20:53:56.692591 32571 net.cpp:408] conv0 <- data
I0426 20:53:56.692616 32571 net.cpp:382] conv0 -> conv0
I0426 20:53:56.965428 32571 net.cpp:124] Setting up conv0
I0426 20:53:56.965457 32571 net.cpp:131] Top shape: 64 50 24 24 (1843200)
I0426 20:53:56.965463 32571 net.cpp:139] Memory required for data: 7573760
I0426 20:53:56.965481 32571 layer_factory.hpp:77] Creating layer pool0
I0426 20:53:56.965495 32571 net.cpp:86] Creating Layer pool0
I0426 20:53:56.965500 32571 net.cpp:408] pool0 <- conv0
I0426 20:53:56.965507 32571 net.cpp:382] pool0 -> pool0
I0426 20:53:56.965562 32571 net.cpp:124] Setting up pool0
I0426 20:53:56.965569 32571 net.cpp:131] Top shape: 64 50 12 12 (460800)
I0426 20:53:56.965572 32571 net.cpp:139] Memory required for data: 9416960
I0426 20:53:56.965576 32571 layer_factory.hpp:77] Creating layer conv1
I0426 20:53:56.965587 32571 net.cpp:86] Creating Layer conv1
I0426 20:53:56.965591 32571 net.cpp:408] conv1 <- pool0
I0426 20:53:56.965597 32571 net.cpp:382] conv1 -> conv1
I0426 20:53:56.968906 32571 net.cpp:124] Setting up conv1
I0426 20:53:56.968924 32571 net.cpp:131] Top shape: 64 10 8 8 (40960)
I0426 20:53:56.968930 32571 net.cpp:139] Memory required for data: 9580800
I0426 20:53:56.968940 32571 layer_factory.hpp:77] Creating layer pool1
I0426 20:53:56.968953 32571 net.cpp:86] Creating Layer pool1
I0426 20:53:56.968957 32571 net.cpp:408] pool1 <- conv1
I0426 20:53:56.968963 32571 net.cpp:382] pool1 -> pool1
I0426 20:53:56.969007 32571 net.cpp:124] Setting up pool1
I0426 20:53:56.969013 32571 net.cpp:131] Top shape: 64 10 4 4 (10240)
I0426 20:53:56.969017 32571 net.cpp:139] Memory required for data: 9621760
I0426 20:53:56.969020 32571 layer_factory.hpp:77] Creating layer ip1
I0426 20:53:56.969028 32571 net.cpp:86] Creating Layer ip1
I0426 20:53:56.969033 32571 net.cpp:408] ip1 <- pool1
I0426 20:53:56.969038 32571 net.cpp:382] ip1 -> ip1
I0426 20:53:56.969259 32571 net.cpp:124] Setting up ip1
I0426 20:53:56.969269 32571 net.cpp:131] Top shape: 64 100 (6400)
I0426 20:53:56.969272 32571 net.cpp:139] Memory required for data: 9647360
I0426 20:53:56.969281 32571 layer_factory.hpp:77] Creating layer relu1
I0426 20:53:56.969287 32571 net.cpp:86] Creating Layer relu1
I0426 20:53:56.969291 32571 net.cpp:408] relu1 <- ip1
I0426 20:53:56.969296 32571 net.cpp:369] relu1 -> ip1 (in-place)
I0426 20:53:56.969490 32571 net.cpp:124] Setting up relu1
I0426 20:53:56.969499 32571 net.cpp:131] Top shape: 64 100 (6400)
I0426 20:53:56.969503 32571 net.cpp:139] Memory required for data: 9672960
I0426 20:53:56.969507 32571 layer_factory.hpp:77] Creating layer ip2
I0426 20:53:56.969514 32571 net.cpp:86] Creating Layer ip2
I0426 20:53:56.969518 32571 net.cpp:408] ip2 <- ip1
I0426 20:53:56.969524 32571 net.cpp:382] ip2 -> ip2
I0426 20:53:56.969846 32571 net.cpp:124] Setting up ip2
I0426 20:53:56.969854 32571 net.cpp:131] Top shape: 64 300 (19200)
I0426 20:53:56.969858 32571 net.cpp:139] Memory required for data: 9749760
I0426 20:53:56.969864 32571 layer_factory.hpp:77] Creating layer relu2
I0426 20:53:56.969871 32571 net.cpp:86] Creating Layer relu2
I0426 20:53:56.969876 32571 net.cpp:408] relu2 <- ip2
I0426 20:53:56.969880 32571 net.cpp:369] relu2 -> ip2 (in-place)
I0426 20:53:56.970813 32571 net.cpp:124] Setting up relu2
I0426 20:53:56.970826 32571 net.cpp:131] Top shape: 64 300 (19200)
I0426 20:53:56.970831 32571 net.cpp:139] Memory required for data: 9826560
I0426 20:53:56.970835 32571 layer_factory.hpp:77] Creating layer ip3
I0426 20:53:56.970844 32571 net.cpp:86] Creating Layer ip3
I0426 20:53:56.970849 32571 net.cpp:408] ip3 <- ip2
I0426 20:53:56.970854 32571 net.cpp:382] ip3 -> ip3
I0426 20:53:56.971000 32571 net.cpp:124] Setting up ip3
I0426 20:53:56.971009 32571 net.cpp:131] Top shape: 64 10 (640)
I0426 20:53:56.971014 32571 net.cpp:139] Memory required for data: 9829120
I0426 20:53:56.971022 32571 layer_factory.hpp:77] Creating layer relu3
I0426 20:53:56.971029 32571 net.cpp:86] Creating Layer relu3
I0426 20:53:56.971034 32571 net.cpp:408] relu3 <- ip3
I0426 20:53:56.971037 32571 net.cpp:369] relu3 -> ip3 (in-place)
I0426 20:53:56.971246 32571 net.cpp:124] Setting up relu3
I0426 20:53:56.971256 32571 net.cpp:131] Top shape: 64 10 (640)
I0426 20:53:56.971261 32571 net.cpp:139] Memory required for data: 9831680
I0426 20:53:56.971264 32571 layer_factory.hpp:77] Creating layer loss
I0426 20:53:56.971271 32571 net.cpp:86] Creating Layer loss
I0426 20:53:56.971274 32571 net.cpp:408] loss <- ip3
I0426 20:53:56.971278 32571 net.cpp:408] loss <- label
I0426 20:53:56.971287 32571 net.cpp:382] loss -> loss
I0426 20:53:56.971305 32571 layer_factory.hpp:77] Creating layer loss
…
I0426 20:53:56.972050 32571 solver.cpp:173] Creating test net (#0) specified by net file: ECE595/mnist/train_test/var_everything/lenet_train_test148.prototxt
I0426 20:53:56.972082 32571 net.cpp:296] The NetState phase (1) differed from the phase (0) specified by a rule in layer mnist
I0426 20:53:56.972193 32571 net.cpp:53] Initializing net from parameters: 
name: "LeNet"
state {
  phase: TEST
}
layer {
  name: "mnist"
  type: "Data"
  top: "data"
  top: "label"
  include {
    phase: TEST
  }
  transform_param {
    scale: 0.00390625
  }
  data_param {
    source: "examples/mnist/mnist_test_lmdb"
    batch_size: 100
    backend: LMDB
  }
}
layer {
  name: "conv0"
  type: "Convolution"
  bottom: "data"
  top: "conv0"
  param {
    lr_mult: 1
  }
  param {
    lr_mult: 2
  }
  convolution_param {
    num_output: 50
    kernel_size: 5
    stride: 1
    weight_filler {
      type: "xavier"
    }
    bias_filler {
      type: "constant"
    }
  }
}
layer {
  name: "pool0"
  type: "Pooling"
  bottom: "conv0"
  top: "pool0"
  pooling_param {
    pool: MAX
    kernel_size: 2
    stride: 2
  }
}
layer {
  name: "conv1"
  type: "Convolution"
  bottom: "pool0"
  top: "conv1"
  param {
    lr_mult: 1
  }
  param {
    lr_mult: 2
  }
  convolution_param {
    num_output: 10
    kernel_size: 5
    stride: 1
    weight_filler {
      type: "xavier"
    }
    bias_filler {
      type: "constant"
    }
  }
}
layer {
  name: "pool1"
  type: "Pooling"
  bottom: "conv1"
  top: "pool1"
  pooling_param {
    pool: MAX
    kernel_size: 2
    stride: 2
  }
}
layer {
  name: "ip1"
  type: "InnerProduct"
  bottom: "pool1"
  top: "ip1"
  param {
    lr_mult: 1
  }
  param {
    lr_mult: 2
  }
  inner_product_param {
    num_output: 100
    weight_filler {
      type: "xavier"
    }
    bias_filler {
      type: "constant"
    }
  }
}
layer {
  name: "relu1"
  type: "ReLU"
  bottom: "ip1"
  top: "ip1"
}
layer {
  name: "ip2"
  type: "InnerProduct"
  bottom: "ip1"
  top: "ip2"
  param {
    lr_mult: 1
  }
  param {
    lr_mult: 2
  }
  inner_product_param {
    num_output: 300
    weight_filler {
      type: "xavier"
    }
    bias_filler {
      type: "constant"
    }
  }
}
layer {
  name: "relu2"
  type: "ReLU"
  bottom: "ip2"
  top: "ip2"
}
layer {
  name: "ip3"
  type: "InnerProduct"
  bottom: "ip2"
  top: "ip3"
  param {
    lr_mult: 1
  }
  param {
    lr_mult: 2
  }
  inner_product_param {
    num_output: 10
    weight_filler {
      type: "xavier"
    }
    bias_filler {
      type: "constant"
    }
  }
}
layer {
  name: "relu3"
  type: "ReLU"
  bottom: "ip3"
  top: "ip3"
}
layer {
  name: "accuracy"
  type: "Accuracy"
  bottom: "ip3"
  bottom: "label"
  top: "accuracy"
  include {
    phase: TEST
  }
}
layer {
  name: "loss"
  type: "SoftmaxWithLoss"
  bottom: "ip3"
  bottom: "label"
  top: "loss"
}
I0426 20:53:56.972287 32571 layer_factory.hpp:77] Creating layer mnist
I0426 20:53:56.972339 32571 db_lmdb.cpp:35] Opened lmdb examples/mnist/mnist_test_lmdb
I0426 20:53:56.972352 32571 net.cpp:86] Creating Layer mnist
I0426 20:53:56.972359 32571 net.cpp:382] mnist -> data
I0426 20:53:56.972368 32571 net.cpp:382] mnist -> label
I0426 20:53:56.972474 32571 data_layer.cpp:45] output data size: 100,1,28,28
I0426 20:53:56.974903 32571 net.cpp:124] Setting up mnist
I0426 20:53:56.974920 32571 net.cpp:131] Top shape: 100 1 28 28 (78400)
I0426 20:53:56.974925 32571 net.cpp:131] Top shape: 100 (100)
I0426 20:53:56.974928 32571 net.cpp:139] Memory required for data: 314000
I0426 20:53:56.974933 32571 layer_factory.hpp:77] Creating layer label_mnist_1_split
I0426 20:53:56.974966 32571 net.cpp:86] Creating Layer label_mnist_1_split
I0426 20:53:56.974970 32571 net.cpp:408] label_mnist_1_split <- label
I0426 20:53:56.974977 32571 net.cpp:382] label_mnist_1_split -> label_mnist_1_split_0
I0426 20:53:56.974984 32571 net.cpp:382] label_mnist_1_split -> label_mnist_1_split_1
I0426 20:53:56.975038 32571 net.cpp:124] Setting up label_mnist_1_split
I0426 20:53:56.975046 32571 net.cpp:131] Top shape: 100 (100)
I0426 20:53:56.975051 32571 net.cpp:131] Top shape: 100 (100)
I0426 20:53:56.975055 32571 net.cpp:139] Memory required for data: 314800
I0426 20:53:56.975059 32571 layer_factory.hpp:77] Creating layer conv0
I0426 20:53:56.975069 32571 net.cpp:86] Creating Layer conv0
I0426 20:53:56.975073 32571 net.cpp:408] conv0 <- data
I0426 20:53:56.975080 32571 net.cpp:382] conv0 -> conv0
I0426 20:53:56.977123 32571 net.cpp:124] Setting up conv0
I0426 20:53:56.977139 32571 net.cpp:131] Top shape: 100 50 24 24 (2880000)
I0426 20:53:56.977144 32571 net.cpp:139] Memory required for data: 11834800
I0426 20:53:56.977155 32571 layer_factory.hpp:77] Creating layer pool0
I0426 20:53:56.977164 32571 net.cpp:86] Creating Layer pool0
I0426 20:53:56.977169 32571 net.cpp:408] pool0 <- conv0
I0426 20:53:56.977175 32571 net.cpp:382] pool0 -> pool0
I0426 20:53:56.977221 32571 net.cpp:124] Setting up pool0
I0426 20:53:56.977226 32571 net.cpp:131] Top shape: 100 50 12 12 (720000)
I0426 20:53:56.977231 32571 net.cpp:139] Memory required for data: 14714800
I0426 20:53:56.977233 32571 layer_factory.hpp:77] Creating layer conv1
I0426 20:53:56.977244 32571 net.cpp:86] Creating Layer conv1
I0426 20:53:56.977248 32571 net.cpp:408] conv1 <- pool0
I0426 20:53:56.977255 32571 net.cpp:382] conv1 -> conv1
I0426 20:53:56.979138 32571 net.cpp:124] Setting up conv1
I0426 20:53:56.979157 32571 net.cpp:131] Top shape: 100 10 8 8 (64000)
I0426 20:53:56.979161 32571 net.cpp:139] Memory required for data: 14970800
I0426 20:53:56.979172 32571 layer_factory.hpp:77] Creating layer pool1
I0426 20:53:56.979181 32571 net.cpp:86] Creating Layer pool1
I0426 20:53:56.979184 32571 net.cpp:408] pool1 <- conv1
I0426 20:53:56.979192 32571 net.cpp:382] pool1 -> pool1
I0426 20:53:56.979236 32571 net.cpp:124] Setting up pool1
I0426 20:53:56.979243 32571 net.cpp:131] Top shape: 100 10 4 4 (16000)
I0426 20:53:56.979248 32571 net.cpp:139] Memory required for data: 15034800
I0426 20:53:56.979250 32571 layer_factory.hpp:77] Creating layer ip1
I0426 20:53:56.979259 32571 net.cpp:86] Creating Layer ip1
I0426 20:53:56.979264 32571 net.cpp:408] ip1 <- pool1
I0426 20:53:56.979269 32571 net.cpp:382] ip1 -> ip1
I0426 20:53:56.979490 32571 net.cpp:124] Setting up ip1
I0426 20:53:56.979499 32571 net.cpp:131] Top shape: 100 100 (10000)
I0426 20:53:56.979514 32571 net.cpp:139] Memory required for data: 15074800
I0426 20:53:56.979524 32571 layer_factory.hpp:77] Creating layer relu1
I0426 20:53:56.979532 32571 net.cpp:86] Creating Layer relu1
I0426 20:53:56.979535 32571 net.cpp:408] relu1 <- ip1
I0426 20:53:56.979543 32571 net.cpp:369] relu1 -> ip1 (in-place)
I0426 20:53:56.979799 32571 net.cpp:124] Setting up relu1
I0426 20:53:56.979809 32571 net.cpp:131] Top shape: 100 100 (10000)
I0426 20:53:56.979813 32571 net.cpp:139] Memory required for data: 15114800
I0426 20:53:56.979817 32571 layer_factory.hpp:77] Creating layer ip2
I0426 20:53:56.979826 32571 net.cpp:86] Creating Layer ip2
I0426 20:53:56.979830 32571 net.cpp:408] ip2 <- ip1
I0426 20:53:56.979837 32571 net.cpp:382] ip2 -> ip2
I0426 20:53:56.980165 32571 net.cpp:124] Setting up ip2
I0426 20:53:56.980176 32571 net.cpp:131] Top shape: 100 300 (30000)
I0426 20:53:56.980180 32571 net.cpp:139] Memory required for data: 15234800
I0426 20:53:56.980186 32571 layer_factory.hpp:77] Creating layer relu2
I0426 20:53:56.980192 32571 net.cpp:86] Creating Layer relu2
I0426 20:53:56.980196 32571 net.cpp:408] relu2 <- ip2
I0426 20:53:56.980201 32571 net.cpp:369] relu2 -> ip2 (in-place)
I0426 20:53:56.980396 32571 net.cpp:124] Setting up relu2
I0426 20:53:56.980407 32571 net.cpp:131] Top shape: 100 300 (30000)
I0426 20:53:56.980412 32571 net.cpp:139] Memory required for data: 15354800
I0426 20:53:56.980417 32571 layer_factory.hpp:77] Creating layer ip3
I0426 20:53:56.980422 32571 net.cpp:86] Creating Layer ip3
I0426 20:53:56.980427 32571 net.cpp:408] ip3 <- ip2
I0426 20:53:56.980433 32571 net.cpp:382] ip3 -> ip3
I0426 20:53:56.980574 32571 net.cpp:124] Setting up ip3
I0426 20:53:56.980582 32571 net.cpp:131] Top shape: 100 10 (1000)
I0426 20:53:56.980587 32571 net.cpp:139] Memory required for data: 15358800
I0426 20:53:56.980595 32571 layer_factory.hpp:77] Creating layer relu3
I0426 20:53:56.980602 32571 net.cpp:86] Creating Layer relu3
I0426 20:53:56.980605 32571 net.cpp:408] relu3 <- ip3
I0426 20:53:56.980610 32571 net.cpp:369] relu3 -> ip3 (in-place)
I0426 20:53:56.981657 32571 net.cpp:124] Setting up relu3
I0426 20:53:56.981673 32571 net.cpp:131] Top shape: 100 10 (1000)
I0426 20:53:56.981678 32571 net.cpp:139] Memory required for data: 15362800
I0426 20:53:56.981683 32571 layer_factory.hpp:77] Creating layer ip3_relu3_0_split
I0426 20:53:56.981688 32571 net.cpp:86] Creating Layer ip3_relu3_0_split
I0426 20:53:56.981693 32571 net.cpp:408] ip3_relu3_0_split <- ip3
I0426 20:53:56.981698 32571 net.cpp:382] ip3_relu3_0_split -> ip3_relu3_0_split_0
I0426 20:53:56.981708 32571 net.cpp:382] ip3_relu3_0_split -> ip3_relu3_0_split_1
I0426 20:53:56.981751 32571 net.cpp:124] Setting up ip3_relu3_0_split
I0426 20:53:56.981760 32571 net.cpp:131] Top shape: 100 10 (1000)
I0426 20:53:56.981763 32571 net.cpp:131] Top shape: 100 10 (1000)
I0426 20:53:56.981767 32571 net.cpp:139] Memory required for data: 15370800
I0426 20:53:56.981770 32571 layer_factory.hpp:77] Creating layer accuracy
I0426 20:53:56.981777 32571 net.cpp:86] Creating Layer accuracy
I0426 20:53:56.981781 32571 net.cpp:408] accuracy <- ip3_relu3_0_split_0
I0426 20:53:56.981786 32571 net.cpp:408] accuracy <- label_mnist_1_split_0
I0426 20:53:56.981791 32571 net.cpp:382] accuracy -> accuracy
…
