…
I0426 20:48:16.615984 31200 net.cpp:296] The NetState phase (0) differed from the phase (1) specified by a rule in layer mnist
I0426 20:48:16.615998 31200 net.cpp:296] The NetState phase (0) differed from the phase (1) specified by a rule in layer accuracy
I0426 20:48:16.616052 31200 net.cpp:53] Initializing net from parameters: 
name: "LeNet"
state {
  phase: TRAIN
  level: 0
  stage: ""
}
layer {
  name: "mnist"
  type: "Data"
  top: "data"
  top: "label"
  include {
    phase: TRAIN
  }
  transform_param {
    scale: 0.00390625
  }
  data_param {
    source: "examples/mnist/mnist_train_lmdb"
    batch_size: 64
    backend: LMDB
  }
}
layer {
  name: "ip1"
  type: "InnerProduct"
  bottom: "data"
  top: "ip1"
  param {
    lr_mult: 1
  }
  param {
    lr_mult: 2
  }
  inner_product_param {
    num_output: 10
    weight_filler {
      type: "xavier"
    }
    bias_filler {
      type: "constant"
    }
  }
}
layer {
  name: "relu1"
  type: "ReLU"
  bottom: "ip1"
  top: "ip1"
}
layer {
  name: "loss"
  type: "SoftmaxWithLoss"
  bottom: "ip1"
  bottom: "label"
  top: "loss"
}
I0426 20:48:16.616106 31200 layer_factory.hpp:77] Creating layer mnist
I0426 20:48:16.617624 31200 db_lmdb.cpp:35] Opened lmdb examples/mnist/mnist_train_lmdb
I0426 20:48:16.618077 31200 net.cpp:86] Creating Layer mnist
I0426 20:48:16.618103 31200 net.cpp:382] mnist -> data
I0426 20:48:16.618149 31200 net.cpp:382] mnist -> label
I0426 20:48:16.620420 31200 data_layer.cpp:45] output data size: 64,1,28,28
I0426 20:48:16.624904 31200 net.cpp:124] Setting up mnist
I0426 20:48:16.624941 31200 net.cpp:131] Top shape: 64 1 28 28 (50176)
I0426 20:48:16.624979 31200 net.cpp:131] Top shape: 64 (64)
I0426 20:48:16.624987 31200 net.cpp:139] Memory required for data: 200960
I0426 20:48:16.625000 31200 layer_factory.hpp:77] Creating layer ip1
I0426 20:48:16.625017 31200 net.cpp:86] Creating Layer ip1
I0426 20:48:16.625025 31200 net.cpp:408] ip1 <- data
I0426 20:48:16.625046 31200 net.cpp:382] ip1 -> ip1
I0426 20:48:16.627424 31200 net.cpp:124] Setting up ip1
I0426 20:48:16.627452 31200 net.cpp:131] Top shape: 64 10 (640)
I0426 20:48:16.627460 31200 net.cpp:139] Memory required for data: 203520
I0426 20:48:16.627483 31200 layer_factory.hpp:77] Creating layer relu1
I0426 20:48:16.627497 31200 net.cpp:86] Creating Layer relu1
I0426 20:48:16.627506 31200 net.cpp:408] relu1 <- ip1
I0426 20:48:16.627517 31200 net.cpp:369] relu1 -> ip1 (in-place)
I0426 20:48:16.946224 31200 net.cpp:124] Setting up relu1
I0426 20:48:16.946255 31200 net.cpp:131] Top shape: 64 10 (640)
I0426 20:48:16.946260 31200 net.cpp:139] Memory required for data: 206080
I0426 20:48:16.946266 31200 layer_factory.hpp:77] Creating layer loss
I0426 20:48:16.946279 31200 net.cpp:86] Creating Layer loss
I0426 20:48:16.946285 31200 net.cpp:408] loss <- ip1
I0426 20:48:16.946291 31200 net.cpp:408] loss <- label
I0426 20:48:16.946298 31200 net.cpp:382] loss -> loss
I0426 20:48:16.946813 31200 layer_factory.hpp:77] Creating layer loss
…
I0426 20:48:16.949725 31200 solver.cpp:173] Creating test net (#0) specified by net file: ECE595/mnist/train_test/var_everything/lenet_train_test0.prototxt
I0426 20:48:16.949750 31200 net.cpp:296] The NetState phase (1) differed from the phase (0) specified by a rule in layer mnist
I0426 20:48:16.949822 31200 net.cpp:53] Initializing net from parameters: 
name: "LeNet"
state {
  phase: TEST
}
layer {
  name: "mnist"
  type: "Data"
  top: "data"
  top: "label"
  include {
    phase: TEST
  }
  transform_param {
    scale: 0.00390625
  }
  data_param {
    source: "examples/mnist/mnist_test_lmdb"
    batch_size: 100
    backend: LMDB
  }
}
layer {
  name: "ip1"
  type: "InnerProduct"
  bottom: "data"
  top: "ip1"
  param {
    lr_mult: 1
  }
  param {
    lr_mult: 2
  }
  inner_product_param {
    num_output: 10
    weight_filler {
      type: "xavier"
    }
    bias_filler {
      type: "constant"
    }
  }
}
layer {
  name: "relu1"
  type: "ReLU"
  bottom: "ip1"
  top: "ip1"
}
layer {
  name: "accuracy"
  type: "Accuracy"
  bottom: "ip1"
  bottom: "label"
  top: "accuracy"
  include {
    phase: TEST
  }
}
layer {
  name: "loss"
  type: "SoftmaxWithLoss"
  bottom: "ip1"
  bottom: "label"
  top: "loss"
}
I0426 20:48:16.949880 31200 layer_factory.hpp:77] Creating layer mnist
I0426 20:48:16.950314 31200 db_lmdb.cpp:35] Opened lmdb examples/mnist/mnist_test_lmdb
I0426 20:48:16.950822 31200 net.cpp:86] Creating Layer mnist
I0426 20:48:16.950834 31200 net.cpp:382] mnist -> data
I0426 20:48:16.950845 31200 net.cpp:382] mnist -> label
I0426 20:48:16.950953 31200 data_layer.cpp:45] output data size: 100,1,28,28
I0426 20:48:16.953274 31200 net.cpp:124] Setting up mnist
I0426 20:48:16.953290 31200 net.cpp:131] Top shape: 100 1 28 28 (78400)
I0426 20:48:16.953296 31200 net.cpp:131] Top shape: 100 (100)
I0426 20:48:16.953300 31200 net.cpp:139] Memory required for data: 314000
I0426 20:48:16.953305 31200 layer_factory.hpp:77] Creating layer label_mnist_1_split
I0426 20:48:16.953774 31200 net.cpp:86] Creating Layer label_mnist_1_split
I0426 20:48:16.953789 31200 net.cpp:408] label_mnist_1_split <- label
I0426 20:48:16.953796 31200 net.cpp:382] label_mnist_1_split -> label_mnist_1_split_0
I0426 20:48:16.953805 31200 net.cpp:382] label_mnist_1_split -> label_mnist_1_split_1
I0426 20:48:16.953860 31200 net.cpp:124] Setting up label_mnist_1_split
I0426 20:48:16.953867 31200 net.cpp:131] Top shape: 100 (100)
I0426 20:48:16.953871 31200 net.cpp:131] Top shape: 100 (100)
I0426 20:48:16.953876 31200 net.cpp:139] Memory required for data: 314800
I0426 20:48:16.953879 31200 layer_factory.hpp:77] Creating layer ip1
I0426 20:48:16.953888 31200 net.cpp:86] Creating Layer ip1
I0426 20:48:16.953891 31200 net.cpp:408] ip1 <- data
I0426 20:48:16.953897 31200 net.cpp:382] ip1 -> ip1
I0426 20:48:16.954082 31200 net.cpp:124] Setting up ip1
I0426 20:48:16.954093 31200 net.cpp:131] Top shape: 100 10 (1000)
I0426 20:48:16.954097 31200 net.cpp:139] Memory required for data: 318800
I0426 20:48:16.954108 31200 layer_factory.hpp:77] Creating layer relu1
I0426 20:48:16.954114 31200 net.cpp:86] Creating Layer relu1
I0426 20:48:16.954118 31200 net.cpp:408] relu1 <- ip1
I0426 20:48:16.954123 31200 net.cpp:369] relu1 -> ip1 (in-place)
I0426 20:48:16.954331 31200 net.cpp:124] Setting up relu1
I0426 20:48:16.954344 31200 net.cpp:131] Top shape: 100 10 (1000)
I0426 20:48:16.954346 31200 net.cpp:139] Memory required for data: 322800
I0426 20:48:16.954350 31200 layer_factory.hpp:77] Creating layer ip1_relu1_0_split
I0426 20:48:16.954357 31200 net.cpp:86] Creating Layer ip1_relu1_0_split
I0426 20:48:16.954361 31200 net.cpp:408] ip1_relu1_0_split <- ip1
I0426 20:48:16.954366 31200 net.cpp:382] ip1_relu1_0_split -> ip1_relu1_0_split_0
I0426 20:48:16.954373 31200 net.cpp:382] ip1_relu1_0_split -> ip1_relu1_0_split_1
I0426 20:48:16.954413 31200 net.cpp:124] Setting up ip1_relu1_0_split
I0426 20:48:16.954442 31200 net.cpp:131] Top shape: 100 10 (1000)
I0426 20:48:16.954447 31200 net.cpp:131] Top shape: 100 10 (1000)
I0426 20:48:16.954450 31200 net.cpp:139] Memory required for data: 330800
I0426 20:48:16.954454 31200 layer_factory.hpp:77] Creating layer accuracy
I0426 20:48:16.954460 31200 net.cpp:86] Creating Layer accuracy
I0426 20:48:16.954464 31200 net.cpp:408] accuracy <- ip1_relu1_0_split_0
I0426 20:48:16.954469 31200 net.cpp:408] accuracy <- label_mnist_1_split_0
I0426 20:48:16.954474 31200 net.cpp:382] accuracy -> accuracy
…
