…
I0426 20:48:38.111115 31301 net.cpp:296] The NetState phase (0) differed from the phase (1) specified by a rule in layer mnist
I0426 20:48:38.111129 31301 net.cpp:296] The NetState phase (0) differed from the phase (1) specified by a rule in layer accuracy
I0426 20:48:38.111204 31301 net.cpp:53] Initializing net from parameters: 
name: "LeNet"
state {
  phase: TRAIN
  level: 0
  stage: ""
}
layer {
  name: "mnist"
  type: "Data"
  top: "data"
  top: "label"
  include {
    phase: TRAIN
  }
  transform_param {
    scale: 0.00390625
  }
  data_param {
    source: "examples/mnist/mnist_train_lmdb"
    batch_size: 64
    backend: LMDB
  }
}
layer {
  name: "ip1"
  type: "InnerProduct"
  bottom: "data"
  top: "ip1"
  param {
    lr_mult: 1
  }
  param {
    lr_mult: 2
  }
  inner_product_param {
    num_output: 300
    weight_filler {
      type: "xavier"
    }
    bias_filler {
      type: "constant"
    }
  }
}
layer {
  name: "relu1"
  type: "ReLU"
  bottom: "ip1"
  top: "ip1"
}
layer {
  name: "ip2"
  type: "InnerProduct"
  bottom: "ip1"
  top: "ip2"
  param {
    lr_mult: 1
  }
  param {
    lr_mult: 2
  }
  inner_product_param {
    num_output: 300
    weight_filler {
      type: "xavier"
    }
    bias_filler {
      type: "constant"
    }
  }
}
layer {
  name: "relu2"
  type: "ReLU"
  bottom: "ip2"
  top: "ip2"
}
layer {
  name: "ip3"
  type: "InnerProduct"
  bottom: "ip2"
  top: "ip3"
  param {
    lr_mult: 1
  }
  param {
    lr_mult: 2
  }
  inner_product_param {
    num_output: 10
    weight_filler {
      type: "xavier"
    }
    bias_filler {
      type: "constant"
    }
  }
}
layer {
  name: "relu3"
  type: "ReLU"
  bottom: "ip3"
  top: "ip3"
}
layer {
  name: "loss"
  type: "SoftmaxWithLoss"
  bottom: "ip3"
  bottom: "label"
  top: "loss"
}
I0426 20:48:38.111274 31301 layer_factory.hpp:77] Creating layer mnist
I0426 20:48:38.111373 31301 db_lmdb.cpp:35] Opened lmdb examples/mnist/mnist_train_lmdb
I0426 20:48:38.111397 31301 net.cpp:86] Creating Layer mnist
I0426 20:48:38.111405 31301 net.cpp:382] mnist -> data
I0426 20:48:38.111428 31301 net.cpp:382] mnist -> label
I0426 20:48:38.112516 31301 data_layer.cpp:45] output data size: 64,1,28,28
I0426 20:48:38.115058 31301 net.cpp:124] Setting up mnist
I0426 20:48:38.115077 31301 net.cpp:131] Top shape: 64 1 28 28 (50176)
I0426 20:48:38.115083 31301 net.cpp:131] Top shape: 64 (64)
I0426 20:48:38.115087 31301 net.cpp:139] Memory required for data: 200960
I0426 20:48:38.115094 31301 layer_factory.hpp:77] Creating layer ip1
I0426 20:48:38.115105 31301 net.cpp:86] Creating Layer ip1
I0426 20:48:38.115111 31301 net.cpp:408] ip1 <- data
I0426 20:48:38.115123 31301 net.cpp:382] ip1 -> ip1
I0426 20:48:38.118844 31301 net.cpp:124] Setting up ip1
I0426 20:48:38.118860 31301 net.cpp:131] Top shape: 64 300 (19200)
I0426 20:48:38.118865 31301 net.cpp:139] Memory required for data: 277760
I0426 20:48:38.118878 31301 layer_factory.hpp:77] Creating layer relu1
I0426 20:48:38.118887 31301 net.cpp:86] Creating Layer relu1
I0426 20:48:38.118891 31301 net.cpp:408] relu1 <- ip1
I0426 20:48:38.118899 31301 net.cpp:369] relu1 -> ip1 (in-place)
I0426 20:48:38.365262 31301 net.cpp:124] Setting up relu1
I0426 20:48:38.365303 31301 net.cpp:131] Top shape: 64 300 (19200)
I0426 20:48:38.365306 31301 net.cpp:139] Memory required for data: 354560
I0426 20:48:38.365311 31301 layer_factory.hpp:77] Creating layer ip2
I0426 20:48:38.365324 31301 net.cpp:86] Creating Layer ip2
I0426 20:48:38.365376 31301 net.cpp:408] ip2 <- ip1
I0426 20:48:38.365386 31301 net.cpp:382] ip2 -> ip2
I0426 20:48:38.366039 31301 net.cpp:124] Setting up ip2
I0426 20:48:38.366049 31301 net.cpp:131] Top shape: 64 300 (19200)
I0426 20:48:38.366067 31301 net.cpp:139] Memory required for data: 431360
I0426 20:48:38.366076 31301 layer_factory.hpp:77] Creating layer relu2
I0426 20:48:38.366083 31301 net.cpp:86] Creating Layer relu2
I0426 20:48:38.366086 31301 net.cpp:408] relu2 <- ip2
I0426 20:48:38.366091 31301 net.cpp:369] relu2 -> ip2 (in-place)
I0426 20:48:38.366981 31301 net.cpp:124] Setting up relu2
I0426 20:48:38.366992 31301 net.cpp:131] Top shape: 64 300 (19200)
I0426 20:48:38.367012 31301 net.cpp:139] Memory required for data: 508160
I0426 20:48:38.367014 31301 layer_factory.hpp:77] Creating layer ip3
I0426 20:48:38.367022 31301 net.cpp:86] Creating Layer ip3
I0426 20:48:38.367024 31301 net.cpp:408] ip3 <- ip2
I0426 20:48:38.367029 31301 net.cpp:382] ip3 -> ip3
I0426 20:48:38.368002 31301 net.cpp:124] Setting up ip3
I0426 20:48:38.368028 31301 net.cpp:131] Top shape: 64 10 (640)
I0426 20:48:38.368047 31301 net.cpp:139] Memory required for data: 510720
I0426 20:48:38.368055 31301 layer_factory.hpp:77] Creating layer relu3
I0426 20:48:38.368062 31301 net.cpp:86] Creating Layer relu3
I0426 20:48:38.368064 31301 net.cpp:408] relu3 <- ip3
I0426 20:48:38.368068 31301 net.cpp:369] relu3 -> ip3 (in-place)
I0426 20:48:38.368232 31301 net.cpp:124] Setting up relu3
I0426 20:48:38.368242 31301 net.cpp:131] Top shape: 64 10 (640)
I0426 20:48:38.368244 31301 net.cpp:139] Memory required for data: 513280
I0426 20:48:38.368247 31301 layer_factory.hpp:77] Creating layer loss
I0426 20:48:38.368253 31301 net.cpp:86] Creating Layer loss
I0426 20:48:38.368273 31301 net.cpp:408] loss <- ip3
I0426 20:48:38.368276 31301 net.cpp:408] loss <- label
I0426 20:48:38.368281 31301 net.cpp:382] loss -> loss
I0426 20:48:38.368324 31301 layer_factory.hpp:77] Creating layer loss
…
I0426 20:48:38.368880 31301 solver.cpp:173] Creating test net (#0) specified by net file: ECE595/mnist/train_test/var_everything/lenet_train_test12.prototxt
I0426 20:48:38.368902 31301 net.cpp:296] The NetState phase (1) differed from the phase (0) specified by a rule in layer mnist
I0426 20:48:38.368968 31301 net.cpp:53] Initializing net from parameters: 
name: "LeNet"
state {
  phase: TEST
}
layer {
  name: "mnist"
  type: "Data"
  top: "data"
  top: "label"
  include {
    phase: TEST
  }
  transform_param {
    scale: 0.00390625
  }
  data_param {
    source: "examples/mnist/mnist_test_lmdb"
    batch_size: 100
    backend: LMDB
  }
}
layer {
  name: "ip1"
  type: "InnerProduct"
  bottom: "data"
  top: "ip1"
  param {
    lr_mult: 1
  }
  param {
    lr_mult: 2
  }
  inner_product_param {
    num_output: 300
    weight_filler {
      type: "xavier"
    }
    bias_filler {
      type: "constant"
    }
  }
}
layer {
  name: "relu1"
  type: "ReLU"
  bottom: "ip1"
  top: "ip1"
}
layer {
  name: "ip2"
  type: "InnerProduct"
  bottom: "ip1"
  top: "ip2"
  param {
    lr_mult: 1
  }
  param {
    lr_mult: 2
  }
  inner_product_param {
    num_output: 300
    weight_filler {
      type: "xavier"
    }
    bias_filler {
      type: "constant"
    }
  }
}
layer {
  name: "relu2"
  type: "ReLU"
  bottom: "ip2"
  top: "ip2"
}
layer {
  name: "ip3"
  type: "InnerProduct"
  bottom: "ip2"
  top: "ip3"
  param {
    lr_mult: 1
  }
  param {
    lr_mult: 2
  }
  inner_product_param {
    num_output: 10
    weight_filler {
      type: "xavier"
    }
    bias_filler {
      type: "constant"
    }
  }
}
layer {
  name: "relu3"
  type: "ReLU"
  bottom: "ip3"
  top: "ip3"
}
layer {
  name: "accuracy"
  type: "Accuracy"
  bottom: "ip3"
  bottom: "label"
  top: "accuracy"
  include {
    phase: TEST
  }
}
layer {
  name: "loss"
  type: "SoftmaxWithLoss"
  bottom: "ip3"
  bottom: "label"
  top: "loss"
}
I0426 20:48:38.369033 31301 layer_factory.hpp:77] Creating layer mnist
I0426 20:48:38.369076 31301 db_lmdb.cpp:35] Opened lmdb examples/mnist/mnist_test_lmdb
I0426 20:48:38.369088 31301 net.cpp:86] Creating Layer mnist
I0426 20:48:38.369092 31301 net.cpp:382] mnist -> data
I0426 20:48:38.369101 31301 net.cpp:382] mnist -> label
I0426 20:48:38.369180 31301 data_layer.cpp:45] output data size: 100,1,28,28
I0426 20:48:38.371155 31301 net.cpp:124] Setting up mnist
I0426 20:48:38.371167 31301 net.cpp:131] Top shape: 100 1 28 28 (78400)
I0426 20:48:38.371171 31301 net.cpp:131] Top shape: 100 (100)
I0426 20:48:38.371175 31301 net.cpp:139] Memory required for data: 314000
I0426 20:48:38.371177 31301 layer_factory.hpp:77] Creating layer label_mnist_1_split
I0426 20:48:38.371187 31301 net.cpp:86] Creating Layer label_mnist_1_split
I0426 20:48:38.371191 31301 net.cpp:408] label_mnist_1_split <- label
I0426 20:48:38.371206 31301 net.cpp:382] label_mnist_1_split -> label_mnist_1_split_0
I0426 20:48:38.371212 31301 net.cpp:382] label_mnist_1_split -> label_mnist_1_split_1
I0426 20:48:38.371264 31301 net.cpp:124] Setting up label_mnist_1_split
I0426 20:48:38.371271 31301 net.cpp:131] Top shape: 100 (100)
I0426 20:48:38.371275 31301 net.cpp:131] Top shape: 100 (100)
I0426 20:48:38.371279 31301 net.cpp:139] Memory required for data: 314800
I0426 20:48:38.371280 31301 layer_factory.hpp:77] Creating layer ip1
I0426 20:48:38.371287 31301 net.cpp:86] Creating Layer ip1
I0426 20:48:38.371290 31301 net.cpp:408] ip1 <- data
I0426 20:48:38.371294 31301 net.cpp:382] ip1 -> ip1
I0426 20:48:38.372807 31301 net.cpp:124] Setting up ip1
I0426 20:48:38.372836 31301 net.cpp:131] Top shape: 100 300 (30000)
I0426 20:48:38.372839 31301 net.cpp:139] Memory required for data: 434800
I0426 20:48:38.372848 31301 layer_factory.hpp:77] Creating layer relu1
I0426 20:48:38.372853 31301 net.cpp:86] Creating Layer relu1
I0426 20:48:38.372858 31301 net.cpp:408] relu1 <- ip1
I0426 20:48:38.372879 31301 net.cpp:369] relu1 -> ip1 (in-place)
I0426 20:48:38.373832 31301 net.cpp:124] Setting up relu1
I0426 20:48:38.373843 31301 net.cpp:131] Top shape: 100 300 (30000)
I0426 20:48:38.373847 31301 net.cpp:139] Memory required for data: 554800
I0426 20:48:38.373852 31301 layer_factory.hpp:77] Creating layer ip2
I0426 20:48:38.373858 31301 net.cpp:86] Creating Layer ip2
I0426 20:48:38.373862 31301 net.cpp:408] ip2 <- ip1
I0426 20:48:38.373867 31301 net.cpp:382] ip2 -> ip2
I0426 20:48:38.374586 31301 net.cpp:124] Setting up ip2
I0426 20:48:38.374594 31301 net.cpp:131] Top shape: 100 300 (30000)
I0426 20:48:38.374598 31301 net.cpp:139] Memory required for data: 674800
I0426 20:48:38.374605 31301 layer_factory.hpp:77] Creating layer relu2
I0426 20:48:38.374609 31301 net.cpp:86] Creating Layer relu2
I0426 20:48:38.374613 31301 net.cpp:408] relu2 <- ip2
I0426 20:48:38.374616 31301 net.cpp:369] relu2 -> ip2 (in-place)
I0426 20:48:38.374820 31301 net.cpp:124] Setting up relu2
I0426 20:48:38.374830 31301 net.cpp:131] Top shape: 100 300 (30000)
I0426 20:48:38.374832 31301 net.cpp:139] Memory required for data: 794800
I0426 20:48:38.374836 31301 layer_factory.hpp:77] Creating layer ip3
I0426 20:48:38.374841 31301 net.cpp:86] Creating Layer ip3
I0426 20:48:38.374845 31301 net.cpp:408] ip3 <- ip2
I0426 20:48:38.374860 31301 net.cpp:382] ip3 -> ip3
I0426 20:48:38.375000 31301 net.cpp:124] Setting up ip3
I0426 20:48:38.375008 31301 net.cpp:131] Top shape: 100 10 (1000)
I0426 20:48:38.375011 31301 net.cpp:139] Memory required for data: 798800
I0426 20:48:38.375020 31301 layer_factory.hpp:77] Creating layer relu3
I0426 20:48:38.375023 31301 net.cpp:86] Creating Layer relu3
I0426 20:48:38.375027 31301 net.cpp:408] relu3 <- ip3
I0426 20:48:38.375031 31301 net.cpp:369] relu3 -> ip3 (in-place)
I0426 20:48:38.375180 31301 net.cpp:124] Setting up relu3
I0426 20:48:38.375187 31301 net.cpp:131] Top shape: 100 10 (1000)
I0426 20:48:38.375191 31301 net.cpp:139] Memory required for data: 802800
I0426 20:48:38.375195 31301 layer_factory.hpp:77] Creating layer ip3_relu3_0_split
I0426 20:48:38.375200 31301 net.cpp:86] Creating Layer ip3_relu3_0_split
I0426 20:48:38.375218 31301 net.cpp:408] ip3_relu3_0_split <- ip3
I0426 20:48:38.375222 31301 net.cpp:382] ip3_relu3_0_split -> ip3_relu3_0_split_0
I0426 20:48:38.375234 31301 net.cpp:382] ip3_relu3_0_split -> ip3_relu3_0_split_1
I0426 20:48:38.375267 31301 net.cpp:124] Setting up ip3_relu3_0_split
I0426 20:48:38.375273 31301 net.cpp:131] Top shape: 100 10 (1000)
I0426 20:48:38.375277 31301 net.cpp:131] Top shape: 100 10 (1000)
I0426 20:48:38.375280 31301 net.cpp:139] Memory required for data: 810800
I0426 20:48:38.375288 31301 layer_factory.hpp:77] Creating layer accuracy
I0426 20:48:38.375293 31301 net.cpp:86] Creating Layer accuracy
I0426 20:48:38.375296 31301 net.cpp:408] accuracy <- ip3_relu3_0_split_0
I0426 20:48:38.375300 31301 net.cpp:408] accuracy <- label_mnist_1_split_0
I0426 20:48:38.375304 31301 net.cpp:382] accuracy -> accuracy
…
