…
I0426 20:53:43.946044 32501 net.cpp:296] The NetState phase (0) differed from the phase (1) specified by a rule in layer mnist
I0426 20:53:43.946072 32501 net.cpp:296] The NetState phase (0) differed from the phase (1) specified by a rule in layer accuracy
I0426 20:53:43.946187 32501 net.cpp:53] Initializing net from parameters: 
name: "LeNet"
state {
  phase: TRAIN
  level: 0
  stage: ""
}
layer {
  name: "mnist"
  type: "Data"
  top: "data"
  top: "label"
  include {
    phase: TRAIN
  }
  transform_param {
    scale: 0.00390625
  }
  data_param {
    source: "examples/mnist/mnist_train_lmdb"
    batch_size: 64
    backend: LMDB
  }
}
layer {
  name: "conv0"
  type: "Convolution"
  bottom: "data"
  top: "conv0"
  param {
    lr_mult: 1
  }
  param {
    lr_mult: 2
  }
  convolution_param {
    num_output: 50
    kernel_size: 5
    stride: 1
    weight_filler {
      type: "xavier"
    }
    bias_filler {
      type: "constant"
    }
  }
}
layer {
  name: "pool0"
  type: "Pooling"
  bottom: "conv0"
  top: "pool0"
  pooling_param {
    pool: MAX
    kernel_size: 2
    stride: 2
  }
}
layer {
  name: "conv1"
  type: "Convolution"
  bottom: "pool0"
  top: "conv1"
  param {
    lr_mult: 1
  }
  param {
    lr_mult: 2
  }
  convolution_param {
    num_output: 10
    kernel_size: 5
    stride: 1
    weight_filler {
      type: "xavier"
    }
    bias_filler {
      type: "constant"
    }
  }
}
layer {
  name: "pool1"
  type: "Pooling"
  bottom: "conv1"
  top: "pool1"
  pooling_param {
    pool: MAX
    kernel_size: 2
    stride: 2
  }
}
layer {
  name: "ip1"
  type: "InnerProduct"
  bottom: "pool1"
  top: "ip1"
  param {
    lr_mult: 1
  }
  param {
    lr_mult: 2
  }
  inner_product_param {
    num_output: 100
    weight_filler {
      type: "xavier"
    }
    bias_filler {
      type: "constant"
    }
  }
}
layer {
  name: "relu1"
  type: "ReLU"
  bottom: "ip1"
  top: "ip1"
}
layer {
  name: "ip2"
  type: "InnerProduct"
  bottom: "ip1"
  top: "ip2"
  param {
    lr_mult: 1
  }
  param {
    lr_mult: 2
  }
  inner_product_param {
    num_output: 10
    weight_filler {
      type: "xavier"
    }
    bias_filler {
      type: "constant"
    }
  }
}
layer {
  name: "relu2"
  type: "ReLU"
  bottom: "ip2"
  top: "ip2"
}
layer {
  name: "loss"
  type: "SoftmaxWithLoss"
  bottom: "ip2"
  bottom: "label"
  top: "loss"
}
I0426 20:53:43.946244 32501 layer_factory.hpp:77] Creating layer mnist
I0426 20:53:43.946324 32501 db_lmdb.cpp:35] Opened lmdb examples/mnist/mnist_train_lmdb
I0426 20:53:43.946343 32501 net.cpp:86] Creating Layer mnist
I0426 20:53:43.946349 32501 net.cpp:382] mnist -> data
I0426 20:53:43.946367 32501 net.cpp:382] mnist -> label
I0426 20:53:43.947306 32501 data_layer.cpp:45] output data size: 64,1,28,28
I0426 20:53:43.949375 32501 net.cpp:124] Setting up mnist
I0426 20:53:43.949405 32501 net.cpp:131] Top shape: 64 1 28 28 (50176)
I0426 20:53:43.949410 32501 net.cpp:131] Top shape: 64 (64)
I0426 20:53:43.949414 32501 net.cpp:139] Memory required for data: 200960
I0426 20:53:43.949419 32501 layer_factory.hpp:77] Creating layer conv0
I0426 20:53:43.949447 32501 net.cpp:86] Creating Layer conv0
I0426 20:53:43.949466 32501 net.cpp:408] conv0 <- data
I0426 20:53:43.949476 32501 net.cpp:382] conv0 -> conv0
I0426 20:53:44.191656 32501 net.cpp:124] Setting up conv0
I0426 20:53:44.191699 32501 net.cpp:131] Top shape: 64 50 24 24 (1843200)
I0426 20:53:44.191704 32501 net.cpp:139] Memory required for data: 7573760
I0426 20:53:44.191752 32501 layer_factory.hpp:77] Creating layer pool0
I0426 20:53:44.191766 32501 net.cpp:86] Creating Layer pool0
I0426 20:53:44.191771 32501 net.cpp:408] pool0 <- conv0
I0426 20:53:44.191787 32501 net.cpp:382] pool0 -> pool0
I0426 20:53:44.191834 32501 net.cpp:124] Setting up pool0
I0426 20:53:44.191841 32501 net.cpp:131] Top shape: 64 50 12 12 (460800)
I0426 20:53:44.191844 32501 net.cpp:139] Memory required for data: 9416960
I0426 20:53:44.191848 32501 layer_factory.hpp:77] Creating layer conv1
I0426 20:53:44.191874 32501 net.cpp:86] Creating Layer conv1
I0426 20:53:44.191876 32501 net.cpp:408] conv1 <- pool0
I0426 20:53:44.191881 32501 net.cpp:382] conv1 -> conv1
I0426 20:53:44.194664 32501 net.cpp:124] Setting up conv1
I0426 20:53:44.194694 32501 net.cpp:131] Top shape: 64 10 8 8 (40960)
I0426 20:53:44.194696 32501 net.cpp:139] Memory required for data: 9580800
I0426 20:53:44.194705 32501 layer_factory.hpp:77] Creating layer pool1
I0426 20:53:44.194711 32501 net.cpp:86] Creating Layer pool1
I0426 20:53:44.194715 32501 net.cpp:408] pool1 <- conv1
I0426 20:53:44.194736 32501 net.cpp:382] pool1 -> pool1
I0426 20:53:44.194771 32501 net.cpp:124] Setting up pool1
I0426 20:53:44.194777 32501 net.cpp:131] Top shape: 64 10 4 4 (10240)
I0426 20:53:44.194780 32501 net.cpp:139] Memory required for data: 9621760
I0426 20:53:44.194783 32501 layer_factory.hpp:77] Creating layer ip1
I0426 20:53:44.194793 32501 net.cpp:86] Creating Layer ip1
I0426 20:53:44.194797 32501 net.cpp:408] ip1 <- pool1
I0426 20:53:44.194802 32501 net.cpp:382] ip1 -> ip1
I0426 20:53:44.195001 32501 net.cpp:124] Setting up ip1
I0426 20:53:44.195009 32501 net.cpp:131] Top shape: 64 100 (6400)
I0426 20:53:44.195013 32501 net.cpp:139] Memory required for data: 9647360
I0426 20:53:44.195019 32501 layer_factory.hpp:77] Creating layer relu1
I0426 20:53:44.195024 32501 net.cpp:86] Creating Layer relu1
I0426 20:53:44.195027 32501 net.cpp:408] relu1 <- ip1
I0426 20:53:44.195031 32501 net.cpp:369] relu1 -> ip1 (in-place)
I0426 20:53:44.195197 32501 net.cpp:124] Setting up relu1
I0426 20:53:44.195206 32501 net.cpp:131] Top shape: 64 100 (6400)
I0426 20:53:44.195209 32501 net.cpp:139] Memory required for data: 9672960
I0426 20:53:44.195212 32501 layer_factory.hpp:77] Creating layer ip2
I0426 20:53:44.195219 32501 net.cpp:86] Creating Layer ip2
I0426 20:53:44.195221 32501 net.cpp:408] ip2 <- ip1
I0426 20:53:44.195226 32501 net.cpp:382] ip2 -> ip2
I0426 20:53:44.195323 32501 net.cpp:124] Setting up ip2
I0426 20:53:44.195330 32501 net.cpp:131] Top shape: 64 10 (640)
I0426 20:53:44.195333 32501 net.cpp:139] Memory required for data: 9675520
I0426 20:53:44.195338 32501 layer_factory.hpp:77] Creating layer relu2
I0426 20:53:44.195344 32501 net.cpp:86] Creating Layer relu2
I0426 20:53:44.195348 32501 net.cpp:408] relu2 <- ip2
I0426 20:53:44.195350 32501 net.cpp:369] relu2 -> ip2 (in-place)
I0426 20:53:44.196122 32501 net.cpp:124] Setting up relu2
I0426 20:53:44.196135 32501 net.cpp:131] Top shape: 64 10 (640)
I0426 20:53:44.196153 32501 net.cpp:139] Memory required for data: 9678080
I0426 20:53:44.196156 32501 layer_factory.hpp:77] Creating layer loss
I0426 20:53:44.196162 32501 net.cpp:86] Creating Layer loss
I0426 20:53:44.196166 32501 net.cpp:408] loss <- ip2
I0426 20:53:44.196171 32501 net.cpp:408] loss <- label
I0426 20:53:44.196175 32501 net.cpp:382] loss -> loss
I0426 20:53:44.196203 32501 layer_factory.hpp:77] Creating layer loss
…
I0426 20:53:44.196791 32501 solver.cpp:173] Creating test net (#0) specified by net file: ECE595/mnist/train_test/var_everything/lenet_train_test143.prototxt
I0426 20:53:44.196823 32501 net.cpp:296] The NetState phase (1) differed from the phase (0) specified by a rule in layer mnist
I0426 20:53:44.196944 32501 net.cpp:53] Initializing net from parameters: 
name: "LeNet"
state {
  phase: TEST
}
layer {
  name: "mnist"
  type: "Data"
  top: "data"
  top: "label"
  include {
    phase: TEST
  }
  transform_param {
    scale: 0.00390625
  }
  data_param {
    source: "examples/mnist/mnist_test_lmdb"
    batch_size: 100
    backend: LMDB
  }
}
layer {
  name: "conv0"
  type: "Convolution"
  bottom: "data"
  top: "conv0"
  param {
    lr_mult: 1
  }
  param {
    lr_mult: 2
  }
  convolution_param {
    num_output: 50
    kernel_size: 5
    stride: 1
    weight_filler {
      type: "xavier"
    }
    bias_filler {
      type: "constant"
    }
  }
}
layer {
  name: "pool0"
  type: "Pooling"
  bottom: "conv0"
  top: "pool0"
  pooling_param {
    pool: MAX
    kernel_size: 2
    stride: 2
  }
}
layer {
  name: "conv1"
  type: "Convolution"
  bottom: "pool0"
  top: "conv1"
  param {
    lr_mult: 1
  }
  param {
    lr_mult: 2
  }
  convolution_param {
    num_output: 10
    kernel_size: 5
    stride: 1
    weight_filler {
      type: "xavier"
    }
    bias_filler {
      type: "constant"
    }
  }
}
layer {
  name: "pool1"
  type: "Pooling"
  bottom: "conv1"
  top: "pool1"
  pooling_param {
    pool: MAX
    kernel_size: 2
    stride: 2
  }
}
layer {
  name: "ip1"
  type: "InnerProduct"
  bottom: "pool1"
  top: "ip1"
  param {
    lr_mult: 1
  }
  param {
    lr_mult: 2
  }
  inner_product_param {
    num_output: 100
    weight_filler {
      type: "xavier"
    }
    bias_filler {
      type: "constant"
    }
  }
}
layer {
  name: "relu1"
  type: "ReLU"
  bottom: "ip1"
  top: "ip1"
}
layer {
  name: "ip2"
  type: "InnerProduct"
  bottom: "ip1"
  top: "ip2"
  param {
    lr_mult: 1
  }
  param {
    lr_mult: 2
  }
  inner_product_param {
    num_output: 10
    weight_filler {
      type: "xavier"
    }
    bias_filler {
      type: "constant"
    }
  }
}
layer {
  name: "relu2"
  type: "ReLU"
  bottom: "ip2"
  top: "ip2"
}
layer {
  name: "accuracy"
  type: "Accuracy"
  bottom: "ip2"
  bottom: "label"
  top: "accuracy"
  include {
    phase: TEST
  }
}
layer {
  name: "loss"
  type: "SoftmaxWithLoss"
  bottom: "ip2"
  bottom: "label"
  top: "loss"
}
I0426 20:53:44.197010 32501 layer_factory.hpp:77] Creating layer mnist
I0426 20:53:44.197055 32501 db_lmdb.cpp:35] Opened lmdb examples/mnist/mnist_test_lmdb
I0426 20:53:44.197067 32501 net.cpp:86] Creating Layer mnist
I0426 20:53:44.197072 32501 net.cpp:382] mnist -> data
I0426 20:53:44.197080 32501 net.cpp:382] mnist -> label
I0426 20:53:44.197198 32501 data_layer.cpp:45] output data size: 100,1,28,28
I0426 20:53:44.199113 32501 net.cpp:124] Setting up mnist
I0426 20:53:44.199141 32501 net.cpp:131] Top shape: 100 1 28 28 (78400)
I0426 20:53:44.199146 32501 net.cpp:131] Top shape: 100 (100)
I0426 20:53:44.199149 32501 net.cpp:139] Memory required for data: 314000
I0426 20:53:44.199153 32501 layer_factory.hpp:77] Creating layer label_mnist_1_split
I0426 20:53:44.199163 32501 net.cpp:86] Creating Layer label_mnist_1_split
I0426 20:53:44.199167 32501 net.cpp:408] label_mnist_1_split <- label
I0426 20:53:44.199172 32501 net.cpp:382] label_mnist_1_split -> label_mnist_1_split_0
I0426 20:53:44.199177 32501 net.cpp:382] label_mnist_1_split -> label_mnist_1_split_1
I0426 20:53:44.199311 32501 net.cpp:124] Setting up label_mnist_1_split
I0426 20:53:44.199319 32501 net.cpp:131] Top shape: 100 (100)
I0426 20:53:44.199322 32501 net.cpp:131] Top shape: 100 (100)
I0426 20:53:44.199326 32501 net.cpp:139] Memory required for data: 314800
I0426 20:53:44.199328 32501 layer_factory.hpp:77] Creating layer conv0
I0426 20:53:44.199337 32501 net.cpp:86] Creating Layer conv0
I0426 20:53:44.199340 32501 net.cpp:408] conv0 <- data
I0426 20:53:44.199344 32501 net.cpp:382] conv0 -> conv0
I0426 20:53:44.200878 32501 net.cpp:124] Setting up conv0
I0426 20:53:44.200893 32501 net.cpp:131] Top shape: 100 50 24 24 (2880000)
I0426 20:53:44.200896 32501 net.cpp:139] Memory required for data: 11834800
I0426 20:53:44.200922 32501 layer_factory.hpp:77] Creating layer pool0
I0426 20:53:44.200927 32501 net.cpp:86] Creating Layer pool0
I0426 20:53:44.200932 32501 net.cpp:408] pool0 <- conv0
I0426 20:53:44.200937 32501 net.cpp:382] pool0 -> pool0
I0426 20:53:44.200973 32501 net.cpp:124] Setting up pool0
I0426 20:53:44.200979 32501 net.cpp:131] Top shape: 100 50 12 12 (720000)
I0426 20:53:44.200983 32501 net.cpp:139] Memory required for data: 14714800
I0426 20:53:44.200985 32501 layer_factory.hpp:77] Creating layer conv1
I0426 20:53:44.200994 32501 net.cpp:86] Creating Layer conv1
I0426 20:53:44.200996 32501 net.cpp:408] conv1 <- pool0
I0426 20:53:44.201001 32501 net.cpp:382] conv1 -> conv1
I0426 20:53:44.202610 32501 net.cpp:124] Setting up conv1
I0426 20:53:44.202625 32501 net.cpp:131] Top shape: 100 10 8 8 (64000)
I0426 20:53:44.202628 32501 net.cpp:139] Memory required for data: 14970800
I0426 20:53:44.202636 32501 layer_factory.hpp:77] Creating layer pool1
I0426 20:53:44.202658 32501 net.cpp:86] Creating Layer pool1
I0426 20:53:44.202667 32501 net.cpp:408] pool1 <- conv1
I0426 20:53:44.202672 32501 net.cpp:382] pool1 -> pool1
I0426 20:53:44.202708 32501 net.cpp:124] Setting up pool1
I0426 20:53:44.202714 32501 net.cpp:131] Top shape: 100 10 4 4 (16000)
I0426 20:53:44.202716 32501 net.cpp:139] Memory required for data: 15034800
I0426 20:53:44.202719 32501 layer_factory.hpp:77] Creating layer ip1
I0426 20:53:44.202747 32501 net.cpp:86] Creating Layer ip1
I0426 20:53:44.202750 32501 net.cpp:408] ip1 <- pool1
I0426 20:53:44.202754 32501 net.cpp:382] ip1 -> ip1
I0426 20:53:44.202937 32501 net.cpp:124] Setting up ip1
I0426 20:53:44.202947 32501 net.cpp:131] Top shape: 100 100 (10000)
I0426 20:53:44.202950 32501 net.cpp:139] Memory required for data: 15074800
I0426 20:53:44.202958 32501 layer_factory.hpp:77] Creating layer relu1
I0426 20:53:44.202963 32501 net.cpp:86] Creating Layer relu1
I0426 20:53:44.202966 32501 net.cpp:408] relu1 <- ip1
I0426 20:53:44.202976 32501 net.cpp:369] relu1 -> ip1 (in-place)
I0426 20:53:44.203133 32501 net.cpp:124] Setting up relu1
I0426 20:53:44.203143 32501 net.cpp:131] Top shape: 100 100 (10000)
I0426 20:53:44.203158 32501 net.cpp:139] Memory required for data: 15114800
I0426 20:53:44.203161 32501 layer_factory.hpp:77] Creating layer ip2
I0426 20:53:44.203167 32501 net.cpp:86] Creating Layer ip2
I0426 20:53:44.203176 32501 net.cpp:408] ip2 <- ip1
I0426 20:53:44.203181 32501 net.cpp:382] ip2 -> ip2
I0426 20:53:44.203286 32501 net.cpp:124] Setting up ip2
I0426 20:53:44.203294 32501 net.cpp:131] Top shape: 100 10 (1000)
I0426 20:53:44.203297 32501 net.cpp:139] Memory required for data: 15118800
I0426 20:53:44.203308 32501 layer_factory.hpp:77] Creating layer relu2
I0426 20:53:44.203312 32501 net.cpp:86] Creating Layer relu2
I0426 20:53:44.203316 32501 net.cpp:408] relu2 <- ip2
I0426 20:53:44.203320 32501 net.cpp:369] relu2 -> ip2 (in-place)
I0426 20:53:44.203480 32501 net.cpp:124] Setting up relu2
I0426 20:53:44.203490 32501 net.cpp:131] Top shape: 100 10 (1000)
I0426 20:53:44.203492 32501 net.cpp:139] Memory required for data: 15122800
I0426 20:53:44.203501 32501 layer_factory.hpp:77] Creating layer ip2_relu2_0_split
I0426 20:53:44.203506 32501 net.cpp:86] Creating Layer ip2_relu2_0_split
I0426 20:53:44.203510 32501 net.cpp:408] ip2_relu2_0_split <- ip2
I0426 20:53:44.203516 32501 net.cpp:382] ip2_relu2_0_split -> ip2_relu2_0_split_0
I0426 20:53:44.203531 32501 net.cpp:382] ip2_relu2_0_split -> ip2_relu2_0_split_1
I0426 20:53:44.203567 32501 net.cpp:124] Setting up ip2_relu2_0_split
I0426 20:53:44.203572 32501 net.cpp:131] Top shape: 100 10 (1000)
I0426 20:53:44.203577 32501 net.cpp:131] Top shape: 100 10 (1000)
I0426 20:53:44.203578 32501 net.cpp:139] Memory required for data: 15130800
I0426 20:53:44.203582 32501 layer_factory.hpp:77] Creating layer accuracy
I0426 20:53:44.203588 32501 net.cpp:86] Creating Layer accuracy
I0426 20:53:44.203591 32501 net.cpp:408] accuracy <- ip2_relu2_0_split_0
I0426 20:53:44.203595 32501 net.cpp:408] accuracy <- label_mnist_1_split_0
I0426 20:53:44.203599 32501 net.cpp:382] accuracy -> accuracy
…
