…
I0426 20:51:17.578269 31950 net.cpp:296] The NetState phase (0) differed from the phase (1) specified by a rule in layer mnist
I0426 20:51:17.578284 31950 net.cpp:296] The NetState phase (0) differed from the phase (1) specified by a rule in layer accuracy
I0426 20:51:17.578392 31950 net.cpp:53] Initializing net from parameters: 
name: "LeNet"
state {
  phase: TRAIN
  level: 0
  stage: ""
}
layer {
  name: "mnist"
  type: "Data"
  top: "data"
  top: "label"
  include {
    phase: TRAIN
  }
  transform_param {
    scale: 0.00390625
  }
  data_param {
    source: "examples/mnist/mnist_train_lmdb"
    batch_size: 64
    backend: LMDB
  }
}
layer {
  name: "conv0"
  type: "Convolution"
  bottom: "data"
  top: "conv0"
  param {
    lr_mult: 1
  }
  param {
    lr_mult: 2
  }
  convolution_param {
    num_output: 10
    kernel_size: 5
    stride: 1
    weight_filler {
      type: "xavier"
    }
    bias_filler {
      type: "constant"
    }
  }
}
layer {
  name: "pool0"
  type: "Pooling"
  bottom: "conv0"
  top: "pool0"
  pooling_param {
    pool: MAX
    kernel_size: 2
    stride: 2
  }
}
layer {
  name: "conv1"
  type: "Convolution"
  bottom: "pool0"
  top: "conv1"
  param {
    lr_mult: 1
  }
  param {
    lr_mult: 2
  }
  convolution_param {
    num_output: 25
    kernel_size: 5
    stride: 1
    weight_filler {
      type: "xavier"
    }
    bias_filler {
      type: "constant"
    }
  }
}
layer {
  name: "pool1"
  type: "Pooling"
  bottom: "conv1"
  top: "pool1"
  pooling_param {
    pool: MAX
    kernel_size: 2
    stride: 2
  }
}
layer {
  name: "ip1"
  type: "InnerProduct"
  bottom: "pool1"
  top: "ip1"
  param {
    lr_mult: 1
  }
  param {
    lr_mult: 2
  }
  inner_product_param {
    num_output: 300
    weight_filler {
      type: "xavier"
    }
    bias_filler {
      type: "constant"
    }
  }
}
layer {
  name: "relu1"
  type: "ReLU"
  bottom: "ip1"
  top: "ip1"
}
layer {
  name: "ip2"
  type: "InnerProduct"
  bottom: "ip1"
  top: "ip2"
  param {
    lr_mult: 1
  }
  param {
    lr_mult: 2
  }
  inner_product_param {
    num_output: 300
    weight_filler {
      type: "xavier"
    }
    bias_filler {
      type: "constant"
    }
  }
}
layer {
  name: "relu2"
  type: "ReLU"
  bottom: "ip2"
  top: "ip2"
}
layer {
  name: "ip3"
  type: "InnerProduct"
  bottom: "ip2"
  top: "ip3"
  param {
    lr_mult: 1
  }
  param {
    lr_mult: 2
  }
  inner_product_param {
    num_output: 10
    weight_filler {
      type: "xavier"
    }
    bias_filler {
      type: "constant"
    }
  }
}
layer {
  name: "relu3"
  type: "ReLU"
  bottom: "ip3"
  top: "ip3"
}
layer {
  name: "loss"
  type: "SoftmaxWithLoss"
  bottom: "ip3"
  bottom: "label"
  top: "loss"
}
I0426 20:51:17.578490 31950 layer_factory.hpp:77] Creating layer mnist
I0426 20:51:17.578578 31950 db_lmdb.cpp:35] Opened lmdb examples/mnist/mnist_train_lmdb
I0426 20:51:17.578599 31950 net.cpp:86] Creating Layer mnist
I0426 20:51:17.578605 31950 net.cpp:382] mnist -> data
I0426 20:51:17.578626 31950 net.cpp:382] mnist -> label
I0426 20:51:17.579613 31950 data_layer.cpp:45] output data size: 64,1,28,28
I0426 20:51:17.581863 31950 net.cpp:124] Setting up mnist
I0426 20:51:17.581879 31950 net.cpp:131] Top shape: 64 1 28 28 (50176)
I0426 20:51:17.581885 31950 net.cpp:131] Top shape: 64 (64)
I0426 20:51:17.581887 31950 net.cpp:139] Memory required for data: 200960
I0426 20:51:17.581893 31950 layer_factory.hpp:77] Creating layer conv0
I0426 20:51:17.581907 31950 net.cpp:86] Creating Layer conv0
I0426 20:51:17.581938 31950 net.cpp:408] conv0 <- data
I0426 20:51:17.581948 31950 net.cpp:382] conv0 -> conv0
I0426 20:51:17.808617 31950 net.cpp:124] Setting up conv0
I0426 20:51:17.808645 31950 net.cpp:131] Top shape: 64 10 24 24 (368640)
I0426 20:51:17.808650 31950 net.cpp:139] Memory required for data: 1675520
I0426 20:51:17.808662 31950 layer_factory.hpp:77] Creating layer pool0
I0426 20:51:17.808673 31950 net.cpp:86] Creating Layer pool0
I0426 20:51:17.808677 31950 net.cpp:408] pool0 <- conv0
I0426 20:51:17.808682 31950 net.cpp:382] pool0 -> pool0
I0426 20:51:17.808743 31950 net.cpp:124] Setting up pool0
I0426 20:51:17.808748 31950 net.cpp:131] Top shape: 64 10 12 12 (92160)
I0426 20:51:17.808750 31950 net.cpp:139] Memory required for data: 2044160
I0426 20:51:17.808753 31950 layer_factory.hpp:77] Creating layer conv1
I0426 20:51:17.808765 31950 net.cpp:86] Creating Layer conv1
I0426 20:51:17.808768 31950 net.cpp:408] conv1 <- pool0
I0426 20:51:17.808774 31950 net.cpp:382] conv1 -> conv1
I0426 20:51:17.811470 31950 net.cpp:124] Setting up conv1
I0426 20:51:17.811483 31950 net.cpp:131] Top shape: 64 25 8 8 (102400)
I0426 20:51:17.811487 31950 net.cpp:139] Memory required for data: 2453760
I0426 20:51:17.811494 31950 layer_factory.hpp:77] Creating layer pool1
I0426 20:51:17.811502 31950 net.cpp:86] Creating Layer pool1
I0426 20:51:17.811506 31950 net.cpp:408] pool1 <- conv1
I0426 20:51:17.811509 31950 net.cpp:382] pool1 -> pool1
I0426 20:51:17.811560 31950 net.cpp:124] Setting up pool1
I0426 20:51:17.811566 31950 net.cpp:131] Top shape: 64 25 4 4 (25600)
I0426 20:51:17.811568 31950 net.cpp:139] Memory required for data: 2556160
I0426 20:51:17.811571 31950 layer_factory.hpp:77] Creating layer ip1
I0426 20:51:17.811578 31950 net.cpp:86] Creating Layer ip1
I0426 20:51:17.811580 31950 net.cpp:408] ip1 <- pool1
I0426 20:51:17.811585 31950 net.cpp:382] ip1 -> ip1
I0426 20:51:17.813256 31950 net.cpp:124] Setting up ip1
I0426 20:51:17.813268 31950 net.cpp:131] Top shape: 64 300 (19200)
I0426 20:51:17.813287 31950 net.cpp:139] Memory required for data: 2632960
I0426 20:51:17.813294 31950 layer_factory.hpp:77] Creating layer relu1
I0426 20:51:17.813300 31950 net.cpp:86] Creating Layer relu1
I0426 20:51:17.813304 31950 net.cpp:408] relu1 <- ip1
I0426 20:51:17.813309 31950 net.cpp:369] relu1 -> ip1 (in-place)
I0426 20:51:17.813549 31950 net.cpp:124] Setting up relu1
I0426 20:51:17.813560 31950 net.cpp:131] Top shape: 64 300 (19200)
I0426 20:51:17.813563 31950 net.cpp:139] Memory required for data: 2709760
I0426 20:51:17.813566 31950 layer_factory.hpp:77] Creating layer ip2
I0426 20:51:17.813573 31950 net.cpp:86] Creating Layer ip2
I0426 20:51:17.813577 31950 net.cpp:408] ip2 <- ip1
I0426 20:51:17.813582 31950 net.cpp:382] ip2 -> ip2
I0426 20:51:17.814234 31950 net.cpp:124] Setting up ip2
I0426 20:51:17.814240 31950 net.cpp:131] Top shape: 64 300 (19200)
I0426 20:51:17.814258 31950 net.cpp:139] Memory required for data: 2786560
I0426 20:51:17.814263 31950 layer_factory.hpp:77] Creating layer relu2
I0426 20:51:17.814268 31950 net.cpp:86] Creating Layer relu2
I0426 20:51:17.814271 31950 net.cpp:408] relu2 <- ip2
I0426 20:51:17.814280 31950 net.cpp:369] relu2 -> ip2 (in-place)
I0426 20:51:17.815140 31950 net.cpp:124] Setting up relu2
I0426 20:51:17.815152 31950 net.cpp:131] Top shape: 64 300 (19200)
I0426 20:51:17.815171 31950 net.cpp:139] Memory required for data: 2863360
I0426 20:51:17.815174 31950 layer_factory.hpp:77] Creating layer ip3
I0426 20:51:17.815181 31950 net.cpp:86] Creating Layer ip3
I0426 20:51:17.815186 31950 net.cpp:408] ip3 <- ip2
I0426 20:51:17.815191 31950 net.cpp:382] ip3 -> ip3
I0426 20:51:17.816202 31950 net.cpp:124] Setting up ip3
I0426 20:51:17.816229 31950 net.cpp:131] Top shape: 64 10 (640)
I0426 20:51:17.816232 31950 net.cpp:139] Memory required for data: 2865920
I0426 20:51:17.816241 31950 layer_factory.hpp:77] Creating layer relu3
I0426 20:51:17.816246 31950 net.cpp:86] Creating Layer relu3
I0426 20:51:17.816248 31950 net.cpp:408] relu3 <- ip3
I0426 20:51:17.816252 31950 net.cpp:369] relu3 -> ip3 (in-place)
I0426 20:51:17.816474 31950 net.cpp:124] Setting up relu3
I0426 20:51:17.816483 31950 net.cpp:131] Top shape: 64 10 (640)
I0426 20:51:17.816486 31950 net.cpp:139] Memory required for data: 2868480
I0426 20:51:17.816489 31950 layer_factory.hpp:77] Creating layer loss
I0426 20:51:17.816500 31950 net.cpp:86] Creating Layer loss
I0426 20:51:17.816519 31950 net.cpp:408] loss <- ip3
I0426 20:51:17.816522 31950 net.cpp:408] loss <- label
I0426 20:51:17.816527 31950 net.cpp:382] loss -> loss
I0426 20:51:17.816545 31950 layer_factory.hpp:77] Creating layer loss
…
I0426 20:51:17.817282 31950 solver.cpp:173] Creating test net (#0) specified by net file: ECE595/mnist/train_test/var_everything/lenet_train_test83.prototxt
I0426 20:51:17.817327 31950 net.cpp:296] The NetState phase (1) differed from the phase (0) specified by a rule in layer mnist
I0426 20:51:17.817430 31950 net.cpp:53] Initializing net from parameters: 
name: "LeNet"
state {
  phase: TEST
}
layer {
  name: "mnist"
  type: "Data"
  top: "data"
  top: "label"
  include {
    phase: TEST
  }
  transform_param {
    scale: 0.00390625
  }
  data_param {
    source: "examples/mnist/mnist_test_lmdb"
    batch_size: 100
    backend: LMDB
  }
}
layer {
  name: "conv0"
  type: "Convolution"
  bottom: "data"
  top: "conv0"
  param {
    lr_mult: 1
  }
  param {
    lr_mult: 2
  }
  convolution_param {
    num_output: 10
    kernel_size: 5
    stride: 1
    weight_filler {
      type: "xavier"
    }
    bias_filler {
      type: "constant"
    }
  }
}
layer {
  name: "pool0"
  type: "Pooling"
  bottom: "conv0"
  top: "pool0"
  pooling_param {
    pool: MAX
    kernel_size: 2
    stride: 2
  }
}
layer {
  name: "conv1"
  type: "Convolution"
  bottom: "pool0"
  top: "conv1"
  param {
    lr_mult: 1
  }
  param {
    lr_mult: 2
  }
  convolution_param {
    num_output: 25
    kernel_size: 5
    stride: 1
    weight_filler {
      type: "xavier"
    }
    bias_filler {
      type: "constant"
    }
  }
}
layer {
  name: "pool1"
  type: "Pooling"
  bottom: "conv1"
  top: "pool1"
  pooling_param {
    pool: MAX
    kernel_size: 2
    stride: 2
  }
}
layer {
  name: "ip1"
  type: "InnerProduct"
  bottom: "pool1"
  top: "ip1"
  param {
    lr_mult: 1
  }
  param {
    lr_mult: 2
  }
  inner_product_param {
    num_output: 300
    weight_filler {
      type: "xavier"
    }
    bias_filler {
      type: "constant"
    }
  }
}
layer {
  name: "relu1"
  type: "ReLU"
  bottom: "ip1"
  top: "ip1"
}
layer {
  name: "ip2"
  type: "InnerProduct"
  bottom: "ip1"
  top: "ip2"
  param {
    lr_mult: 1
  }
  param {
    lr_mult: 2
  }
  inner_product_param {
    num_output: 300
    weight_filler {
      type: "xavier"
    }
    bias_filler {
      type: "constant"
    }
  }
}
layer {
  name: "relu2"
  type: "ReLU"
  bottom: "ip2"
  top: "ip2"
}
layer {
  name: "ip3"
  type: "InnerProduct"
  bottom: "ip2"
  top: "ip3"
  param {
    lr_mult: 1
  }
  param {
    lr_mult: 2
  }
  inner_product_param {
    num_output: 10
    weight_filler {
      type: "xavier"
    }
    bias_filler {
      type: "constant"
    }
  }
}
layer {
  name: "relu3"
  type: "ReLU"
  bottom: "ip3"
  top: "ip3"
}
layer {
  name: "accuracy"
  type: "Accuracy"
  bottom: "ip3"
  bottom: "label"
  top: "accuracy"
  include {
    phase: TEST
  }
}
layer {
  name: "loss"
  type: "SoftmaxWithLoss"
  bottom: "ip3"
  bottom: "label"
  top: "loss"
}
I0426 20:51:17.817512 31950 layer_factory.hpp:77] Creating layer mnist
I0426 20:51:17.817553 31950 db_lmdb.cpp:35] Opened lmdb examples/mnist/mnist_test_lmdb
I0426 20:51:17.817565 31950 net.cpp:86] Creating Layer mnist
I0426 20:51:17.817571 31950 net.cpp:382] mnist -> data
I0426 20:51:17.817579 31950 net.cpp:382] mnist -> label
I0426 20:51:17.817683 31950 data_layer.cpp:45] output data size: 100,1,28,28
I0426 20:51:17.819129 31950 net.cpp:124] Setting up mnist
I0426 20:51:17.819141 31950 net.cpp:131] Top shape: 100 1 28 28 (78400)
I0426 20:51:17.819145 31950 net.cpp:131] Top shape: 100 (100)
I0426 20:51:17.819149 31950 net.cpp:139] Memory required for data: 314000
I0426 20:51:17.819151 31950 layer_factory.hpp:77] Creating layer label_mnist_1_split
I0426 20:51:17.819201 31950 net.cpp:86] Creating Layer label_mnist_1_split
I0426 20:51:17.819205 31950 net.cpp:408] label_mnist_1_split <- label
I0426 20:51:17.819226 31950 net.cpp:382] label_mnist_1_split -> label_mnist_1_split_0
I0426 20:51:17.819231 31950 net.cpp:382] label_mnist_1_split -> label_mnist_1_split_1
I0426 20:51:17.819298 31950 net.cpp:124] Setting up label_mnist_1_split
I0426 20:51:17.819305 31950 net.cpp:131] Top shape: 100 (100)
I0426 20:51:17.819308 31950 net.cpp:131] Top shape: 100 (100)
I0426 20:51:17.819311 31950 net.cpp:139] Memory required for data: 314800
I0426 20:51:17.819314 31950 layer_factory.hpp:77] Creating layer conv0
I0426 20:51:17.819324 31950 net.cpp:86] Creating Layer conv0
I0426 20:51:17.819326 31950 net.cpp:408] conv0 <- data
I0426 20:51:17.819331 31950 net.cpp:382] conv0 -> conv0
I0426 20:51:17.821296 31950 net.cpp:124] Setting up conv0
I0426 20:51:17.821310 31950 net.cpp:131] Top shape: 100 10 24 24 (576000)
I0426 20:51:17.821313 31950 net.cpp:139] Memory required for data: 2618800
I0426 20:51:17.821321 31950 layer_factory.hpp:77] Creating layer pool0
I0426 20:51:17.821328 31950 net.cpp:86] Creating Layer pool0
I0426 20:51:17.821346 31950 net.cpp:408] pool0 <- conv0
I0426 20:51:17.821351 31950 net.cpp:382] pool0 -> pool0
I0426 20:51:17.821386 31950 net.cpp:124] Setting up pool0
I0426 20:51:17.821391 31950 net.cpp:131] Top shape: 100 10 12 12 (144000)
I0426 20:51:17.821394 31950 net.cpp:139] Memory required for data: 3194800
I0426 20:51:17.821396 31950 layer_factory.hpp:77] Creating layer conv1
I0426 20:51:17.821405 31950 net.cpp:86] Creating Layer conv1
I0426 20:51:17.821408 31950 net.cpp:408] conv1 <- pool0
I0426 20:51:17.821413 31950 net.cpp:382] conv1 -> conv1
I0426 20:51:17.823678 31950 net.cpp:124] Setting up conv1
I0426 20:51:17.823690 31950 net.cpp:131] Top shape: 100 25 8 8 (160000)
I0426 20:51:17.823693 31950 net.cpp:139] Memory required for data: 3834800
I0426 20:51:17.823703 31950 layer_factory.hpp:77] Creating layer pool1
I0426 20:51:17.823709 31950 net.cpp:86] Creating Layer pool1
I0426 20:51:17.823729 31950 net.cpp:408] pool1 <- conv1
I0426 20:51:17.823734 31950 net.cpp:382] pool1 -> pool1
I0426 20:51:17.823771 31950 net.cpp:124] Setting up pool1
I0426 20:51:17.823789 31950 net.cpp:131] Top shape: 100 25 4 4 (40000)
I0426 20:51:17.823791 31950 net.cpp:139] Memory required for data: 3994800
I0426 20:51:17.823794 31950 layer_factory.hpp:77] Creating layer ip1
I0426 20:51:17.823799 31950 net.cpp:86] Creating Layer ip1
I0426 20:51:17.823813 31950 net.cpp:408] ip1 <- pool1
I0426 20:51:17.823819 31950 net.cpp:382] ip1 -> ip1
I0426 20:51:17.825436 31950 net.cpp:124] Setting up ip1
I0426 20:51:17.825448 31950 net.cpp:131] Top shape: 100 300 (30000)
I0426 20:51:17.825460 31950 net.cpp:139] Memory required for data: 4114800
I0426 20:51:17.825484 31950 layer_factory.hpp:77] Creating layer relu1
I0426 20:51:17.825491 31950 net.cpp:86] Creating Layer relu1
I0426 20:51:17.825495 31950 net.cpp:408] relu1 <- ip1
I0426 20:51:17.825498 31950 net.cpp:369] relu1 -> ip1 (in-place)
I0426 20:51:17.825697 31950 net.cpp:124] Setting up relu1
I0426 20:51:17.825707 31950 net.cpp:131] Top shape: 100 300 (30000)
I0426 20:51:17.825711 31950 net.cpp:139] Memory required for data: 4234800
I0426 20:51:17.825714 31950 layer_factory.hpp:77] Creating layer ip2
I0426 20:51:17.825721 31950 net.cpp:86] Creating Layer ip2
I0426 20:51:17.825732 31950 net.cpp:408] ip2 <- ip1
I0426 20:51:17.825738 31950 net.cpp:382] ip2 -> ip2
I0426 20:51:17.826328 31950 net.cpp:124] Setting up ip2
I0426 20:51:17.826351 31950 net.cpp:131] Top shape: 100 300 (30000)
I0426 20:51:17.826362 31950 net.cpp:139] Memory required for data: 4354800
I0426 20:51:17.826367 31950 layer_factory.hpp:77] Creating layer relu2
I0426 20:51:17.826372 31950 net.cpp:86] Creating Layer relu2
I0426 20:51:17.826375 31950 net.cpp:408] relu2 <- ip2
I0426 20:51:17.826378 31950 net.cpp:369] relu2 -> ip2 (in-place)
I0426 20:51:17.826570 31950 net.cpp:124] Setting up relu2
I0426 20:51:17.826581 31950 net.cpp:131] Top shape: 100 300 (30000)
I0426 20:51:17.826584 31950 net.cpp:139] Memory required for data: 4474800
I0426 20:51:17.826587 31950 layer_factory.hpp:77] Creating layer ip3
I0426 20:51:17.826601 31950 net.cpp:86] Creating Layer ip3
I0426 20:51:17.826603 31950 net.cpp:408] ip3 <- ip2
I0426 20:51:17.826609 31950 net.cpp:382] ip3 -> ip3
I0426 20:51:17.826728 31950 net.cpp:124] Setting up ip3
I0426 20:51:17.826735 31950 net.cpp:131] Top shape: 100 10 (1000)
I0426 20:51:17.826738 31950 net.cpp:139] Memory required for data: 4478800
I0426 20:51:17.826747 31950 layer_factory.hpp:77] Creating layer relu3
I0426 20:51:17.826752 31950 net.cpp:86] Creating Layer relu3
I0426 20:51:17.826776 31950 net.cpp:408] relu3 <- ip3
I0426 20:51:17.826781 31950 net.cpp:369] relu3 -> ip3 (in-place)
I0426 20:51:17.827663 31950 net.cpp:124] Setting up relu3
I0426 20:51:17.827679 31950 net.cpp:131] Top shape: 100 10 (1000)
I0426 20:51:17.827683 31950 net.cpp:139] Memory required for data: 4482800
I0426 20:51:17.827687 31950 layer_factory.hpp:77] Creating layer ip3_relu3_0_split
I0426 20:51:17.827692 31950 net.cpp:86] Creating Layer ip3_relu3_0_split
I0426 20:51:17.827694 31950 net.cpp:408] ip3_relu3_0_split <- ip3
I0426 20:51:17.827700 31950 net.cpp:382] ip3_relu3_0_split -> ip3_relu3_0_split_0
I0426 20:51:17.827706 31950 net.cpp:382] ip3_relu3_0_split -> ip3_relu3_0_split_1
I0426 20:51:17.827757 31950 net.cpp:124] Setting up ip3_relu3_0_split
I0426 20:51:17.827764 31950 net.cpp:131] Top shape: 100 10 (1000)
I0426 20:51:17.827767 31950 net.cpp:131] Top shape: 100 10 (1000)
I0426 20:51:17.827769 31950 net.cpp:139] Memory required for data: 4490800
I0426 20:51:17.827772 31950 layer_factory.hpp:77] Creating layer accuracy
I0426 20:51:17.827778 31950 net.cpp:86] Creating Layer accuracy
I0426 20:51:17.827781 31950 net.cpp:408] accuracy <- ip3_relu3_0_split_0
I0426 20:51:17.827785 31950 net.cpp:408] accuracy <- label_mnist_1_split_0
I0426 20:51:17.827790 31950 net.cpp:382] accuracy -> accuracy
…
