…
I0426 20:52:26.451864 32193 net.cpp:296] The NetState phase (0) differed from the phase (1) specified by a rule in layer mnist
I0426 20:52:26.451879 32193 net.cpp:296] The NetState phase (0) differed from the phase (1) specified by a rule in layer accuracy
I0426 20:52:26.451962 32193 net.cpp:53] Initializing net from parameters: 
name: "LeNet"
state {
  phase: TRAIN
  level: 0
  stage: ""
}
layer {
  name: "mnist"
  type: "Data"
  top: "data"
  top: "label"
  include {
    phase: TRAIN
  }
  transform_param {
    scale: 0.00390625
  }
  data_param {
    source: "examples/mnist/mnist_train_lmdb"
    batch_size: 64
    backend: LMDB
  }
}
layer {
  name: "conv0"
  type: "Convolution"
  bottom: "data"
  top: "conv0"
  param {
    lr_mult: 1
  }
  param {
    lr_mult: 2
  }
  convolution_param {
    num_output: 25
    kernel_size: 5
    stride: 1
    weight_filler {
      type: "xavier"
    }
    bias_filler {
      type: "constant"
    }
  }
}
layer {
  name: "pool0"
  type: "Pooling"
  bottom: "conv0"
  top: "pool0"
  pooling_param {
    pool: MAX
    kernel_size: 2
    stride: 2
  }
}
layer {
  name: "conv1"
  type: "Convolution"
  bottom: "pool0"
  top: "conv1"
  param {
    lr_mult: 1
  }
  param {
    lr_mult: 2
  }
  convolution_param {
    num_output: 25
    kernel_size: 5
    stride: 1
    weight_filler {
      type: "xavier"
    }
    bias_filler {
      type: "constant"
    }
  }
}
layer {
  name: "pool1"
  type: "Pooling"
  bottom: "conv1"
  top: "pool1"
  pooling_param {
    pool: MAX
    kernel_size: 2
    stride: 2
  }
}
layer {
  name: "ip1"
  type: "InnerProduct"
  bottom: "pool1"
  top: "ip1"
  param {
    lr_mult: 1
  }
  param {
    lr_mult: 2
  }
  inner_product_param {
    num_output: 10
    weight_filler {
      type: "xavier"
    }
    bias_filler {
      type: "constant"
    }
  }
}
layer {
  name: "relu1"
  type: "ReLU"
  bottom: "ip1"
  top: "ip1"
}
layer {
  name: "loss"
  type: "SoftmaxWithLoss"
  bottom: "ip1"
  bottom: "label"
  top: "loss"
}
I0426 20:52:26.452018 32193 layer_factory.hpp:77] Creating layer mnist
I0426 20:52:26.452117 32193 db_lmdb.cpp:35] Opened lmdb examples/mnist/mnist_train_lmdb
I0426 20:52:26.452137 32193 net.cpp:86] Creating Layer mnist
I0426 20:52:26.452145 32193 net.cpp:382] mnist -> data
I0426 20:52:26.452164 32193 net.cpp:382] mnist -> label
I0426 20:52:26.453179 32193 data_layer.cpp:45] output data size: 64,1,28,28
I0426 20:52:26.455420 32193 net.cpp:124] Setting up mnist
I0426 20:52:26.455433 32193 net.cpp:131] Top shape: 64 1 28 28 (50176)
I0426 20:52:26.455438 32193 net.cpp:131] Top shape: 64 (64)
I0426 20:52:26.455441 32193 net.cpp:139] Memory required for data: 200960
I0426 20:52:26.455447 32193 layer_factory.hpp:77] Creating layer conv0
I0426 20:52:26.455485 32193 net.cpp:86] Creating Layer conv0
I0426 20:52:26.455490 32193 net.cpp:408] conv0 <- data
I0426 20:52:26.455502 32193 net.cpp:382] conv0 -> conv0
I0426 20:52:26.690567 32193 net.cpp:124] Setting up conv0
I0426 20:52:26.690593 32193 net.cpp:131] Top shape: 64 25 24 24 (921600)
I0426 20:52:26.690598 32193 net.cpp:139] Memory required for data: 3887360
I0426 20:52:26.690613 32193 layer_factory.hpp:77] Creating layer pool0
I0426 20:52:26.690641 32193 net.cpp:86] Creating Layer pool0
I0426 20:52:26.690645 32193 net.cpp:408] pool0 <- conv0
I0426 20:52:26.690651 32193 net.cpp:382] pool0 -> pool0
I0426 20:52:26.690696 32193 net.cpp:124] Setting up pool0
I0426 20:52:26.690703 32193 net.cpp:131] Top shape: 64 25 12 12 (230400)
I0426 20:52:26.690721 32193 net.cpp:139] Memory required for data: 4808960
I0426 20:52:26.690723 32193 layer_factory.hpp:77] Creating layer conv1
I0426 20:52:26.690752 32193 net.cpp:86] Creating Layer conv1
I0426 20:52:26.690754 32193 net.cpp:408] conv1 <- pool0
I0426 20:52:26.690760 32193 net.cpp:382] conv1 -> conv1
I0426 20:52:26.693560 32193 net.cpp:124] Setting up conv1
I0426 20:52:26.693574 32193 net.cpp:131] Top shape: 64 25 8 8 (102400)
I0426 20:52:26.693578 32193 net.cpp:139] Memory required for data: 5218560
I0426 20:52:26.693588 32193 layer_factory.hpp:77] Creating layer pool1
I0426 20:52:26.693595 32193 net.cpp:86] Creating Layer pool1
I0426 20:52:26.693599 32193 net.cpp:408] pool1 <- conv1
I0426 20:52:26.693604 32193 net.cpp:382] pool1 -> pool1
I0426 20:52:26.693653 32193 net.cpp:124] Setting up pool1
I0426 20:52:26.693658 32193 net.cpp:131] Top shape: 64 25 4 4 (25600)
I0426 20:52:26.693661 32193 net.cpp:139] Memory required for data: 5320960
I0426 20:52:26.693665 32193 layer_factory.hpp:77] Creating layer ip1
I0426 20:52:26.693672 32193 net.cpp:86] Creating Layer ip1
I0426 20:52:26.693675 32193 net.cpp:408] ip1 <- pool1
I0426 20:52:26.693681 32193 net.cpp:382] ip1 -> ip1
I0426 20:52:26.694671 32193 net.cpp:124] Setting up ip1
I0426 20:52:26.694684 32193 net.cpp:131] Top shape: 64 10 (640)
I0426 20:52:26.694686 32193 net.cpp:139] Memory required for data: 5323520
I0426 20:52:26.694694 32193 layer_factory.hpp:77] Creating layer relu1
I0426 20:52:26.694700 32193 net.cpp:86] Creating Layer relu1
I0426 20:52:26.694703 32193 net.cpp:408] relu1 <- ip1
I0426 20:52:26.694707 32193 net.cpp:369] relu1 -> ip1 (in-place)
I0426 20:52:26.694897 32193 net.cpp:124] Setting up relu1
I0426 20:52:26.694906 32193 net.cpp:131] Top shape: 64 10 (640)
I0426 20:52:26.694910 32193 net.cpp:139] Memory required for data: 5326080
I0426 20:52:26.694913 32193 layer_factory.hpp:77] Creating layer loss
I0426 20:52:26.694918 32193 net.cpp:86] Creating Layer loss
I0426 20:52:26.694922 32193 net.cpp:408] loss <- ip1
I0426 20:52:26.694926 32193 net.cpp:408] loss <- label
I0426 20:52:26.694931 32193 net.cpp:382] loss -> loss
I0426 20:52:26.694946 32193 layer_factory.hpp:77] Creating layer loss
…
I0426 20:52:26.696230 32193 solver.cpp:173] Creating test net (#0) specified by net file: ECE595/mnist/train_test/var_everything/lenet_train_test112.prototxt
I0426 20:52:26.696254 32193 net.cpp:296] The NetState phase (1) differed from the phase (0) specified by a rule in layer mnist
I0426 20:52:26.696327 32193 net.cpp:53] Initializing net from parameters: 
name: "LeNet"
state {
  phase: TEST
}
layer {
  name: "mnist"
  type: "Data"
  top: "data"
  top: "label"
  include {
    phase: TEST
  }
  transform_param {
    scale: 0.00390625
  }
  data_param {
    source: "examples/mnist/mnist_test_lmdb"
    batch_size: 100
    backend: LMDB
  }
}
layer {
  name: "conv0"
  type: "Convolution"
  bottom: "data"
  top: "conv0"
  param {
    lr_mult: 1
  }
  param {
    lr_mult: 2
  }
  convolution_param {
    num_output: 25
    kernel_size: 5
    stride: 1
    weight_filler {
      type: "xavier"
    }
    bias_filler {
      type: "constant"
    }
  }
}
layer {
  name: "pool0"
  type: "Pooling"
  bottom: "conv0"
  top: "pool0"
  pooling_param {
    pool: MAX
    kernel_size: 2
    stride: 2
  }
}
layer {
  name: "conv1"
  type: "Convolution"
  bottom: "pool0"
  top: "conv1"
  param {
    lr_mult: 1
  }
  param {
    lr_mult: 2
  }
  convolution_param {
    num_output: 25
    kernel_size: 5
    stride: 1
    weight_filler {
      type: "xavier"
    }
    bias_filler {
      type: "constant"
    }
  }
}
layer {
  name: "pool1"
  type: "Pooling"
  bottom: "conv1"
  top: "pool1"
  pooling_param {
    pool: MAX
    kernel_size: 2
    stride: 2
  }
}
layer {
  name: "ip1"
  type: "InnerProduct"
  bottom: "pool1"
  top: "ip1"
  param {
    lr_mult: 1
  }
  param {
    lr_mult: 2
  }
  inner_product_param {
    num_output: 10
    weight_filler {
      type: "xavier"
    }
    bias_filler {
      type: "constant"
    }
  }
}
layer {
  name: "relu1"
  type: "ReLU"
  bottom: "ip1"
  top: "ip1"
}
layer {
  name: "accuracy"
  type: "Accuracy"
  bottom: "ip1"
  bottom: "label"
  top: "accuracy"
  include {
    phase: TEST
  }
}
layer {
  name: "loss"
  type: "SoftmaxWithLoss"
  bottom: "ip1"
  bottom: "label"
  top: "loss"
}
I0426 20:52:26.696395 32193 layer_factory.hpp:77] Creating layer mnist
I0426 20:52:26.696439 32193 db_lmdb.cpp:35] Opened lmdb examples/mnist/mnist_test_lmdb
I0426 20:52:26.696451 32193 net.cpp:86] Creating Layer mnist
I0426 20:52:26.696472 32193 net.cpp:382] mnist -> data
I0426 20:52:26.696496 32193 net.cpp:382] mnist -> label
I0426 20:52:26.696580 32193 data_layer.cpp:45] output data size: 100,1,28,28
I0426 20:52:26.698595 32193 net.cpp:124] Setting up mnist
I0426 20:52:26.698607 32193 net.cpp:131] Top shape: 100 1 28 28 (78400)
I0426 20:52:26.698612 32193 net.cpp:131] Top shape: 100 (100)
I0426 20:52:26.698616 32193 net.cpp:139] Memory required for data: 314000
I0426 20:52:26.698618 32193 layer_factory.hpp:77] Creating layer label_mnist_1_split
I0426 20:52:26.698642 32193 net.cpp:86] Creating Layer label_mnist_1_split
I0426 20:52:26.698644 32193 net.cpp:408] label_mnist_1_split <- label
I0426 20:52:26.698649 32193 net.cpp:382] label_mnist_1_split -> label_mnist_1_split_0
I0426 20:52:26.698655 32193 net.cpp:382] label_mnist_1_split -> label_mnist_1_split_1
I0426 20:52:26.698705 32193 net.cpp:124] Setting up label_mnist_1_split
I0426 20:52:26.698710 32193 net.cpp:131] Top shape: 100 (100)
I0426 20:52:26.698714 32193 net.cpp:131] Top shape: 100 (100)
I0426 20:52:26.698716 32193 net.cpp:139] Memory required for data: 314800
I0426 20:52:26.698719 32193 layer_factory.hpp:77] Creating layer conv0
I0426 20:52:26.698727 32193 net.cpp:86] Creating Layer conv0
I0426 20:52:26.698731 32193 net.cpp:408] conv0 <- data
I0426 20:52:26.698735 32193 net.cpp:382] conv0 -> conv0
I0426 20:52:26.699687 32193 net.cpp:124] Setting up conv0
I0426 20:52:26.699698 32193 net.cpp:131] Top shape: 100 25 24 24 (1440000)
I0426 20:52:26.699702 32193 net.cpp:139] Memory required for data: 6074800
I0426 20:52:26.699728 32193 layer_factory.hpp:77] Creating layer pool0
I0426 20:52:26.699749 32193 net.cpp:86] Creating Layer pool0
I0426 20:52:26.699753 32193 net.cpp:408] pool0 <- conv0
I0426 20:52:26.699759 32193 net.cpp:382] pool0 -> pool0
I0426 20:52:26.699792 32193 net.cpp:124] Setting up pool0
I0426 20:52:26.699797 32193 net.cpp:131] Top shape: 100 25 12 12 (360000)
I0426 20:52:26.699800 32193 net.cpp:139] Memory required for data: 7514800
I0426 20:52:26.699805 32193 layer_factory.hpp:77] Creating layer conv1
I0426 20:52:26.699811 32193 net.cpp:86] Creating Layer conv1
I0426 20:52:26.699815 32193 net.cpp:408] conv1 <- pool0
I0426 20:52:26.699820 32193 net.cpp:382] conv1 -> conv1
I0426 20:52:26.702152 32193 net.cpp:124] Setting up conv1
I0426 20:52:26.702164 32193 net.cpp:131] Top shape: 100 25 8 8 (160000)
I0426 20:52:26.702183 32193 net.cpp:139] Memory required for data: 8154800
I0426 20:52:26.702191 32193 layer_factory.hpp:77] Creating layer pool1
I0426 20:52:26.702213 32193 net.cpp:86] Creating Layer pool1
I0426 20:52:26.702226 32193 net.cpp:408] pool1 <- conv1
I0426 20:52:26.702232 32193 net.cpp:382] pool1 -> pool1
I0426 20:52:26.702272 32193 net.cpp:124] Setting up pool1
I0426 20:52:26.702278 32193 net.cpp:131] Top shape: 100 25 4 4 (40000)
I0426 20:52:26.702281 32193 net.cpp:139] Memory required for data: 8314800
I0426 20:52:26.702285 32193 layer_factory.hpp:77] Creating layer ip1
I0426 20:52:26.702301 32193 net.cpp:86] Creating Layer ip1
I0426 20:52:26.702304 32193 net.cpp:408] ip1 <- pool1
I0426 20:52:26.702309 32193 net.cpp:382] ip1 -> ip1
I0426 20:52:26.702457 32193 net.cpp:124] Setting up ip1
I0426 20:52:26.702467 32193 net.cpp:131] Top shape: 100 10 (1000)
I0426 20:52:26.702477 32193 net.cpp:139] Memory required for data: 8318800
I0426 20:52:26.702484 32193 layer_factory.hpp:77] Creating layer relu1
I0426 20:52:26.702489 32193 net.cpp:86] Creating Layer relu1
I0426 20:52:26.702498 32193 net.cpp:408] relu1 <- ip1
I0426 20:52:26.702503 32193 net.cpp:369] relu1 -> ip1 (in-place)
I0426 20:52:26.703393 32193 net.cpp:124] Setting up relu1
I0426 20:52:26.703404 32193 net.cpp:131] Top shape: 100 10 (1000)
I0426 20:52:26.703408 32193 net.cpp:139] Memory required for data: 8322800
I0426 20:52:26.703411 32193 layer_factory.hpp:77] Creating layer ip1_relu1_0_split
I0426 20:52:26.703418 32193 net.cpp:86] Creating Layer ip1_relu1_0_split
I0426 20:52:26.703438 32193 net.cpp:408] ip1_relu1_0_split <- ip1
I0426 20:52:26.703443 32193 net.cpp:382] ip1_relu1_0_split -> ip1_relu1_0_split_0
I0426 20:52:26.703449 32193 net.cpp:382] ip1_relu1_0_split -> ip1_relu1_0_split_1
I0426 20:52:26.703490 32193 net.cpp:124] Setting up ip1_relu1_0_split
I0426 20:52:26.703495 32193 net.cpp:131] Top shape: 100 10 (1000)
I0426 20:52:26.703498 32193 net.cpp:131] Top shape: 100 10 (1000)
I0426 20:52:26.703501 32193 net.cpp:139] Memory required for data: 8330800
I0426 20:52:26.703505 32193 layer_factory.hpp:77] Creating layer accuracy
I0426 20:52:26.703510 32193 net.cpp:86] Creating Layer accuracy
I0426 20:52:26.703512 32193 net.cpp:408] accuracy <- ip1_relu1_0_split_0
I0426 20:52:26.703523 32193 net.cpp:408] accuracy <- label_mnist_1_split_0
I0426 20:52:26.703528 32193 net.cpp:382] accuracy -> accuracy
…
