…
I0426 20:48:25.412029 31245 net.cpp:296] The NetState phase (0) differed from the phase (1) specified by a rule in layer mnist
I0426 20:48:25.412042 31245 net.cpp:296] The NetState phase (0) differed from the phase (1) specified by a rule in layer accuracy
I0426 20:48:25.412108 31245 net.cpp:53] Initializing net from parameters: 
name: "LeNet"
state {
  phase: TRAIN
  level: 0
  stage: ""
}
layer {
  name: "mnist"
  type: "Data"
  top: "data"
  top: "label"
  include {
    phase: TRAIN
  }
  transform_param {
    scale: 0.00390625
  }
  data_param {
    source: "examples/mnist/mnist_train_lmdb"
    batch_size: 64
    backend: LMDB
  }
}
layer {
  name: "ip1"
  type: "InnerProduct"
  bottom: "data"
  top: "ip1"
  param {
    lr_mult: 1
  }
  param {
    lr_mult: 2
  }
  inner_product_param {
    num_output: 300
    weight_filler {
      type: "xavier"
    }
    bias_filler {
      type: "constant"
    }
  }
}
layer {
  name: "relu1"
  type: "ReLU"
  bottom: "ip1"
  top: "ip1"
}
layer {
  name: "ip2"
  type: "InnerProduct"
  bottom: "ip1"
  top: "ip2"
  param {
    lr_mult: 1
  }
  param {
    lr_mult: 2
  }
  inner_product_param {
    num_output: 10
    weight_filler {
      type: "xavier"
    }
    bias_filler {
      type: "constant"
    }
  }
}
layer {
  name: "relu2"
  type: "ReLU"
  bottom: "ip2"
  top: "ip2"
}
layer {
  name: "loss"
  type: "SoftmaxWithLoss"
  bottom: "ip2"
  bottom: "label"
  top: "loss"
}
I0426 20:48:25.412168 31245 layer_factory.hpp:77] Creating layer mnist
I0426 20:48:25.412276 31245 db_lmdb.cpp:35] Opened lmdb examples/mnist/mnist_train_lmdb
I0426 20:48:25.412299 31245 net.cpp:86] Creating Layer mnist
I0426 20:48:25.412308 31245 net.cpp:382] mnist -> data
I0426 20:48:25.412331 31245 net.cpp:382] mnist -> label
I0426 20:48:25.413445 31245 data_layer.cpp:45] output data size: 64,1,28,28
I0426 20:48:25.415973 31245 net.cpp:124] Setting up mnist
I0426 20:48:25.415992 31245 net.cpp:131] Top shape: 64 1 28 28 (50176)
I0426 20:48:25.415997 31245 net.cpp:131] Top shape: 64 (64)
I0426 20:48:25.416000 31245 net.cpp:139] Memory required for data: 200960
I0426 20:48:25.416008 31245 layer_factory.hpp:77] Creating layer ip1
I0426 20:48:25.416048 31245 net.cpp:86] Creating Layer ip1
I0426 20:48:25.416054 31245 net.cpp:408] ip1 <- data
I0426 20:48:25.416065 31245 net.cpp:382] ip1 -> ip1
I0426 20:48:25.419814 31245 net.cpp:124] Setting up ip1
I0426 20:48:25.419831 31245 net.cpp:131] Top shape: 64 300 (19200)
I0426 20:48:25.419836 31245 net.cpp:139] Memory required for data: 277760
I0426 20:48:25.419850 31245 layer_factory.hpp:77] Creating layer relu1
I0426 20:48:25.419858 31245 net.cpp:86] Creating Layer relu1
I0426 20:48:25.419862 31245 net.cpp:408] relu1 <- ip1
I0426 20:48:25.419869 31245 net.cpp:369] relu1 -> ip1 (in-place)
I0426 20:48:25.667696 31245 net.cpp:124] Setting up relu1
I0426 20:48:25.667739 31245 net.cpp:131] Top shape: 64 300 (19200)
I0426 20:48:25.667742 31245 net.cpp:139] Memory required for data: 354560
I0426 20:48:25.667748 31245 layer_factory.hpp:77] Creating layer ip2
I0426 20:48:25.667760 31245 net.cpp:86] Creating Layer ip2
I0426 20:48:25.667765 31245 net.cpp:408] ip2 <- ip1
I0426 20:48:25.667773 31245 net.cpp:382] ip2 -> ip2
I0426 20:48:25.668946 31245 net.cpp:124] Setting up ip2
I0426 20:48:25.668973 31245 net.cpp:131] Top shape: 64 10 (640)
I0426 20:48:25.668977 31245 net.cpp:139] Memory required for data: 357120
I0426 20:48:25.668987 31245 layer_factory.hpp:77] Creating layer relu2
I0426 20:48:25.669011 31245 net.cpp:86] Creating Layer relu2
I0426 20:48:25.669030 31245 net.cpp:408] relu2 <- ip2
I0426 20:48:25.669035 31245 net.cpp:369] relu2 -> ip2 (in-place)
I0426 20:48:25.669899 31245 net.cpp:124] Setting up relu2
I0426 20:48:25.669911 31245 net.cpp:131] Top shape: 64 10 (640)
I0426 20:48:25.669929 31245 net.cpp:139] Memory required for data: 359680
I0426 20:48:25.669934 31245 layer_factory.hpp:77] Creating layer loss
I0426 20:48:25.669939 31245 net.cpp:86] Creating Layer loss
I0426 20:48:25.669942 31245 net.cpp:408] loss <- ip2
I0426 20:48:25.669947 31245 net.cpp:408] loss <- label
I0426 20:48:25.669952 31245 net.cpp:382] loss -> loss
I0426 20:48:25.669984 31245 layer_factory.hpp:77] Creating layer loss
…
I0426 20:48:25.670503 31245 solver.cpp:173] Creating test net (#0) specified by net file: ECE595/mnist/train_test/var_everything/lenet_train_test5.prototxt
I0426 20:48:25.670526 31245 net.cpp:296] The NetState phase (1) differed from the phase (0) specified by a rule in layer mnist
I0426 20:48:25.670588 31245 net.cpp:53] Initializing net from parameters: 
name: "LeNet"
state {
  phase: TEST
}
layer {
  name: "mnist"
  type: "Data"
  top: "data"
  top: "label"
  include {
    phase: TEST
  }
  transform_param {
    scale: 0.00390625
  }
  data_param {
    source: "examples/mnist/mnist_test_lmdb"
    batch_size: 100
    backend: LMDB
  }
}
layer {
  name: "ip1"
  type: "InnerProduct"
  bottom: "data"
  top: "ip1"
  param {
    lr_mult: 1
  }
  param {
    lr_mult: 2
  }
  inner_product_param {
    num_output: 300
    weight_filler {
      type: "xavier"
    }
    bias_filler {
      type: "constant"
    }
  }
}
layer {
  name: "relu1"
  type: "ReLU"
  bottom: "ip1"
  top: "ip1"
}
layer {
  name: "ip2"
  type: "InnerProduct"
  bottom: "ip1"
  top: "ip2"
  param {
    lr_mult: 1
  }
  param {
    lr_mult: 2
  }
  inner_product_param {
    num_output: 10
    weight_filler {
      type: "xavier"
    }
    bias_filler {
      type: "constant"
    }
  }
}
layer {
  name: "relu2"
  type: "ReLU"
  bottom: "ip2"
  top: "ip2"
}
layer {
  name: "accuracy"
  type: "Accuracy"
  bottom: "ip2"
  bottom: "label"
  top: "accuracy"
  include {
    phase: TEST
  }
}
layer {
  name: "loss"
  type: "SoftmaxWithLoss"
  bottom: "ip2"
  bottom: "label"
  top: "loss"
}
I0426 20:48:25.670656 31245 layer_factory.hpp:77] Creating layer mnist
I0426 20:48:25.670702 31245 db_lmdb.cpp:35] Opened lmdb examples/mnist/mnist_test_lmdb
I0426 20:48:25.670716 31245 net.cpp:86] Creating Layer mnist
I0426 20:48:25.670720 31245 net.cpp:382] mnist -> data
I0426 20:48:25.670728 31245 net.cpp:382] mnist -> label
I0426 20:48:25.670816 31245 data_layer.cpp:45] output data size: 100,1,28,28
I0426 20:48:25.672971 31245 net.cpp:124] Setting up mnist
I0426 20:48:25.673002 31245 net.cpp:131] Top shape: 100 1 28 28 (78400)
I0426 20:48:25.673007 31245 net.cpp:131] Top shape: 100 (100)
I0426 20:48:25.673010 31245 net.cpp:139] Memory required for data: 314000
I0426 20:48:25.673014 31245 layer_factory.hpp:77] Creating layer label_mnist_1_split
I0426 20:48:25.673051 31245 net.cpp:86] Creating Layer label_mnist_1_split
I0426 20:48:25.673055 31245 net.cpp:408] label_mnist_1_split <- label
I0426 20:48:25.673060 31245 net.cpp:382] label_mnist_1_split -> label_mnist_1_split_0
I0426 20:48:25.673080 31245 net.cpp:382] label_mnist_1_split -> label_mnist_1_split_1
I0426 20:48:25.673130 31245 net.cpp:124] Setting up label_mnist_1_split
I0426 20:48:25.673135 31245 net.cpp:131] Top shape: 100 (100)
I0426 20:48:25.673140 31245 net.cpp:131] Top shape: 100 (100)
I0426 20:48:25.673142 31245 net.cpp:139] Memory required for data: 314800
I0426 20:48:25.673146 31245 layer_factory.hpp:77] Creating layer ip1
I0426 20:48:25.673166 31245 net.cpp:86] Creating Layer ip1
I0426 20:48:25.673171 31245 net.cpp:408] ip1 <- data
I0426 20:48:25.673174 31245 net.cpp:382] ip1 -> ip1
I0426 20:48:25.674685 31245 net.cpp:124] Setting up ip1
I0426 20:48:25.674695 31245 net.cpp:131] Top shape: 100 300 (30000)
I0426 20:48:25.674697 31245 net.cpp:139] Memory required for data: 434800
I0426 20:48:25.674705 31245 layer_factory.hpp:77] Creating layer relu1
I0426 20:48:25.674710 31245 net.cpp:86] Creating Layer relu1
I0426 20:48:25.674713 31245 net.cpp:408] relu1 <- ip1
I0426 20:48:25.674731 31245 net.cpp:369] relu1 -> ip1 (in-place)
I0426 20:48:25.675020 31245 net.cpp:124] Setting up relu1
I0426 20:48:25.675029 31245 net.cpp:131] Top shape: 100 300 (30000)
I0426 20:48:25.675048 31245 net.cpp:139] Memory required for data: 554800
I0426 20:48:25.675051 31245 layer_factory.hpp:77] Creating layer ip2
I0426 20:48:25.675058 31245 net.cpp:86] Creating Layer ip2
I0426 20:48:25.675062 31245 net.cpp:408] ip2 <- ip1
I0426 20:48:25.675081 31245 net.cpp:382] ip2 -> ip2
I0426 20:48:25.675215 31245 net.cpp:124] Setting up ip2
I0426 20:48:25.675223 31245 net.cpp:131] Top shape: 100 10 (1000)
I0426 20:48:25.675227 31245 net.cpp:139] Memory required for data: 558800
I0426 20:48:25.675251 31245 layer_factory.hpp:77] Creating layer relu2
I0426 20:48:25.675262 31245 net.cpp:86] Creating Layer relu2
I0426 20:48:25.675266 31245 net.cpp:408] relu2 <- ip2
I0426 20:48:25.675271 31245 net.cpp:369] relu2 -> ip2 (in-place)
I0426 20:48:25.676182 31245 net.cpp:124] Setting up relu2
I0426 20:48:25.676194 31245 net.cpp:131] Top shape: 100 10 (1000)
I0426 20:48:25.676198 31245 net.cpp:139] Memory required for data: 562800
I0426 20:48:25.676201 31245 layer_factory.hpp:77] Creating layer ip2_relu2_0_split
I0426 20:48:25.676206 31245 net.cpp:86] Creating Layer ip2_relu2_0_split
I0426 20:48:25.676225 31245 net.cpp:408] ip2_relu2_0_split <- ip2
I0426 20:48:25.676230 31245 net.cpp:382] ip2_relu2_0_split -> ip2_relu2_0_split_0
I0426 20:48:25.676236 31245 net.cpp:382] ip2_relu2_0_split -> ip2_relu2_0_split_1
I0426 20:48:25.676285 31245 net.cpp:124] Setting up ip2_relu2_0_split
I0426 20:48:25.676290 31245 net.cpp:131] Top shape: 100 10 (1000)
I0426 20:48:25.676295 31245 net.cpp:131] Top shape: 100 10 (1000)
I0426 20:48:25.676297 31245 net.cpp:139] Memory required for data: 570800
I0426 20:48:25.676311 31245 layer_factory.hpp:77] Creating layer accuracy
I0426 20:48:25.676317 31245 net.cpp:86] Creating Layer accuracy
I0426 20:48:25.676321 31245 net.cpp:408] accuracy <- ip2_relu2_0_split_0
I0426 20:48:25.676324 31245 net.cpp:408] accuracy <- label_mnist_1_split_0
I0426 20:48:25.676329 31245 net.cpp:382] accuracy -> accuracy
…
