…
I0426 20:51:31.644268 31999 net.cpp:296] The NetState phase (0) differed from the phase (1) specified by a rule in layer mnist
I0426 20:51:31.644297 31999 net.cpp:296] The NetState phase (0) differed from the phase (1) specified by a rule in layer accuracy
I0426 20:51:31.644399 31999 net.cpp:53] Initializing net from parameters: 
name: "LeNet"
state {
  phase: TRAIN
  level: 0
  stage: ""
}
layer {
  name: "mnist"
  type: "Data"
  top: "data"
  top: "label"
  include {
    phase: TRAIN
  }
  transform_param {
    scale: 0.00390625
  }
  data_param {
    source: "examples/mnist/mnist_train_lmdb"
    batch_size: 64
    backend: LMDB
  }
}
layer {
  name: "conv0"
  type: "Convolution"
  bottom: "data"
  top: "conv0"
  param {
    lr_mult: 1
  }
  param {
    lr_mult: 2
  }
  convolution_param {
    num_output: 10
    kernel_size: 5
    stride: 1
    weight_filler {
      type: "xavier"
    }
    bias_filler {
      type: "constant"
    }
  }
}
layer {
  name: "pool0"
  type: "Pooling"
  bottom: "conv0"
  top: "pool0"
  pooling_param {
    pool: MAX
    kernel_size: 2
    stride: 2
  }
}
layer {
  name: "conv1"
  type: "Convolution"
  bottom: "pool0"
  top: "conv1"
  param {
    lr_mult: 1
  }
  param {
    lr_mult: 2
  }
  convolution_param {
    num_output: 50
    kernel_size: 5
    stride: 1
    weight_filler {
      type: "xavier"
    }
    bias_filler {
      type: "constant"
    }
  }
}
layer {
  name: "pool1"
  type: "Pooling"
  bottom: "conv1"
  top: "pool1"
  pooling_param {
    pool: MAX
    kernel_size: 2
    stride: 2
  }
}
layer {
  name: "ip1"
  type: "InnerProduct"
  bottom: "pool1"
  top: "ip1"
  param {
    lr_mult: 1
  }
  param {
    lr_mult: 2
  }
  inner_product_param {
    num_output: 300
    weight_filler {
      type: "xavier"
    }
    bias_filler {
      type: "constant"
    }
  }
}
layer {
  name: "relu1"
  type: "ReLU"
  bottom: "ip1"
  top: "ip1"
}
layer {
  name: "ip2"
  type: "InnerProduct"
  bottom: "ip1"
  top: "ip2"
  param {
    lr_mult: 1
  }
  param {
    lr_mult: 2
  }
  inner_product_param {
    num_output: 10
    weight_filler {
      type: "xavier"
    }
    bias_filler {
      type: "constant"
    }
  }
}
layer {
  name: "relu2"
  type: "ReLU"
  bottom: "ip2"
  top: "ip2"
}
layer {
  name: "loss"
  type: "SoftmaxWithLoss"
  bottom: "ip2"
  bottom: "label"
  top: "loss"
}
I0426 20:51:31.644465 31999 layer_factory.hpp:77] Creating layer mnist
I0426 20:51:31.644548 31999 db_lmdb.cpp:35] Opened lmdb examples/mnist/mnist_train_lmdb
I0426 20:51:31.644567 31999 net.cpp:86] Creating Layer mnist
I0426 20:51:31.644575 31999 net.cpp:382] mnist -> data
I0426 20:51:31.644593 31999 net.cpp:382] mnist -> label
I0426 20:51:31.645632 31999 data_layer.cpp:45] output data size: 64,1,28,28
I0426 20:51:31.647704 31999 net.cpp:124] Setting up mnist
I0426 20:51:31.647717 31999 net.cpp:131] Top shape: 64 1 28 28 (50176)
I0426 20:51:31.647722 31999 net.cpp:131] Top shape: 64 (64)
I0426 20:51:31.647723 31999 net.cpp:139] Memory required for data: 200960
I0426 20:51:31.647728 31999 layer_factory.hpp:77] Creating layer conv0
I0426 20:51:31.647742 31999 net.cpp:86] Creating Layer conv0
I0426 20:51:31.647745 31999 net.cpp:408] conv0 <- data
I0426 20:51:31.647791 31999 net.cpp:382] conv0 -> conv0
I0426 20:51:31.883424 31999 net.cpp:124] Setting up conv0
I0426 20:51:31.883464 31999 net.cpp:131] Top shape: 64 10 24 24 (368640)
I0426 20:51:31.883468 31999 net.cpp:139] Memory required for data: 1675520
I0426 20:51:31.883502 31999 layer_factory.hpp:77] Creating layer pool0
I0426 20:51:31.883530 31999 net.cpp:86] Creating Layer pool0
I0426 20:51:31.883549 31999 net.cpp:408] pool0 <- conv0
I0426 20:51:31.883554 31999 net.cpp:382] pool0 -> pool0
I0426 20:51:31.883605 31999 net.cpp:124] Setting up pool0
I0426 20:51:31.883613 31999 net.cpp:131] Top shape: 64 10 12 12 (92160)
I0426 20:51:31.883616 31999 net.cpp:139] Memory required for data: 2044160
I0426 20:51:31.883620 31999 layer_factory.hpp:77] Creating layer conv1
I0426 20:51:31.883630 31999 net.cpp:86] Creating Layer conv1
I0426 20:51:31.883633 31999 net.cpp:408] conv1 <- pool0
I0426 20:51:31.883637 31999 net.cpp:382] conv1 -> conv1
I0426 20:51:31.886546 31999 net.cpp:124] Setting up conv1
I0426 20:51:31.886575 31999 net.cpp:131] Top shape: 64 50 8 8 (204800)
I0426 20:51:31.886579 31999 net.cpp:139] Memory required for data: 2863360
I0426 20:51:31.886586 31999 layer_factory.hpp:77] Creating layer pool1
I0426 20:51:31.886593 31999 net.cpp:86] Creating Layer pool1
I0426 20:51:31.886597 31999 net.cpp:408] pool1 <- conv1
I0426 20:51:31.886601 31999 net.cpp:382] pool1 -> pool1
I0426 20:51:31.886653 31999 net.cpp:124] Setting up pool1
I0426 20:51:31.886658 31999 net.cpp:131] Top shape: 64 50 4 4 (51200)
I0426 20:51:31.886662 31999 net.cpp:139] Memory required for data: 3068160
I0426 20:51:31.886664 31999 layer_factory.hpp:77] Creating layer ip1
I0426 20:51:31.886674 31999 net.cpp:86] Creating Layer ip1
I0426 20:51:31.886677 31999 net.cpp:408] ip1 <- pool1
I0426 20:51:31.886682 31999 net.cpp:382] ip1 -> ip1
I0426 20:51:31.888893 31999 net.cpp:124] Setting up ip1
I0426 20:51:31.888906 31999 net.cpp:131] Top shape: 64 300 (19200)
I0426 20:51:31.888924 31999 net.cpp:139] Memory required for data: 3144960
I0426 20:51:31.888932 31999 layer_factory.hpp:77] Creating layer relu1
I0426 20:51:31.888938 31999 net.cpp:86] Creating Layer relu1
I0426 20:51:31.888942 31999 net.cpp:408] relu1 <- ip1
I0426 20:51:31.888945 31999 net.cpp:369] relu1 -> ip1 (in-place)
I0426 20:51:31.889176 31999 net.cpp:124] Setting up relu1
I0426 20:51:31.889185 31999 net.cpp:131] Top shape: 64 300 (19200)
I0426 20:51:31.889189 31999 net.cpp:139] Memory required for data: 3221760
I0426 20:51:31.889192 31999 layer_factory.hpp:77] Creating layer ip2
I0426 20:51:31.889199 31999 net.cpp:86] Creating Layer ip2
I0426 20:51:31.889202 31999 net.cpp:408] ip2 <- ip1
I0426 20:51:31.889207 31999 net.cpp:382] ip2 -> ip2
I0426 20:51:31.890163 31999 net.cpp:124] Setting up ip2
I0426 20:51:31.890175 31999 net.cpp:131] Top shape: 64 10 (640)
I0426 20:51:31.890193 31999 net.cpp:139] Memory required for data: 3224320
I0426 20:51:31.890199 31999 layer_factory.hpp:77] Creating layer relu2
I0426 20:51:31.890206 31999 net.cpp:86] Creating Layer relu2
I0426 20:51:31.890209 31999 net.cpp:408] relu2 <- ip2
I0426 20:51:31.890214 31999 net.cpp:369] relu2 -> ip2 (in-place)
I0426 20:51:31.891095 31999 net.cpp:124] Setting up relu2
I0426 20:51:31.891106 31999 net.cpp:131] Top shape: 64 10 (640)
I0426 20:51:31.891125 31999 net.cpp:139] Memory required for data: 3226880
I0426 20:51:31.891129 31999 layer_factory.hpp:77] Creating layer loss
I0426 20:51:31.891134 31999 net.cpp:86] Creating Layer loss
I0426 20:51:31.891137 31999 net.cpp:408] loss <- ip2
I0426 20:51:31.891144 31999 net.cpp:408] loss <- label
I0426 20:51:31.891149 31999 net.cpp:382] loss -> loss
I0426 20:51:31.891183 31999 layer_factory.hpp:77] Creating layer loss
…
I0426 20:51:31.891862 31999 solver.cpp:173] Creating test net (#0) specified by net file: ECE595/mnist/train_test/var_everything/lenet_train_test89.prototxt
I0426 20:51:31.891888 31999 net.cpp:296] The NetState phase (1) differed from the phase (0) specified by a rule in layer mnist
I0426 20:51:31.891973 31999 net.cpp:53] Initializing net from parameters: 
name: "LeNet"
state {
  phase: TEST
}
layer {
  name: "mnist"
  type: "Data"
  top: "data"
  top: "label"
  include {
    phase: TEST
  }
  transform_param {
    scale: 0.00390625
  }
  data_param {
    source: "examples/mnist/mnist_test_lmdb"
    batch_size: 100
    backend: LMDB
  }
}
layer {
  name: "conv0"
  type: "Convolution"
  bottom: "data"
  top: "conv0"
  param {
    lr_mult: 1
  }
  param {
    lr_mult: 2
  }
  convolution_param {
    num_output: 10
    kernel_size: 5
    stride: 1
    weight_filler {
      type: "xavier"
    }
    bias_filler {
      type: "constant"
    }
  }
}
layer {
  name: "pool0"
  type: "Pooling"
  bottom: "conv0"
  top: "pool0"
  pooling_param {
    pool: MAX
    kernel_size: 2
    stride: 2
  }
}
layer {
  name: "conv1"
  type: "Convolution"
  bottom: "pool0"
  top: "conv1"
  param {
    lr_mult: 1
  }
  param {
    lr_mult: 2
  }
  convolution_param {
    num_output: 50
    kernel_size: 5
    stride: 1
    weight_filler {
      type: "xavier"
    }
    bias_filler {
      type: "constant"
    }
  }
}
layer {
  name: "pool1"
  type: "Pooling"
  bottom: "conv1"
  top: "pool1"
  pooling_param {
    pool: MAX
    kernel_size: 2
    stride: 2
  }
}
layer {
  name: "ip1"
  type: "InnerProduct"
  bottom: "pool1"
  top: "ip1"
  param {
    lr_mult: 1
  }
  param {
    lr_mult: 2
  }
  inner_product_param {
    num_output: 300
    weight_filler {
      type: "xavier"
    }
    bias_filler {
      type: "constant"
    }
  }
}
layer {
  name: "relu1"
  type: "ReLU"
  bottom: "ip1"
  top: "ip1"
}
layer {
  name: "ip2"
  type: "InnerProduct"
  bottom: "ip1"
  top: "ip2"
  param {
    lr_mult: 1
  }
  param {
    lr_mult: 2
  }
  inner_product_param {
    num_output: 10
    weight_filler {
      type: "xavier"
    }
    bias_filler {
      type: "constant"
    }
  }
}
layer {
  name: "relu2"
  type: "ReLU"
  bottom: "ip2"
  top: "ip2"
}
layer {
  name: "accuracy"
  type: "Accuracy"
  bottom: "ip2"
  bottom: "label"
  top: "accuracy"
  include {
    phase: TEST
  }
}
layer {
  name: "loss"
  type: "SoftmaxWithLoss"
  bottom: "ip2"
  bottom: "label"
  top: "loss"
}
I0426 20:51:31.892037 31999 layer_factory.hpp:77] Creating layer mnist
I0426 20:51:31.892094 31999 db_lmdb.cpp:35] Opened lmdb examples/mnist/mnist_test_lmdb
I0426 20:51:31.892109 31999 net.cpp:86] Creating Layer mnist
I0426 20:51:31.892114 31999 net.cpp:382] mnist -> data
I0426 20:51:31.892122 31999 net.cpp:382] mnist -> label
I0426 20:51:31.892231 31999 data_layer.cpp:45] output data size: 100,1,28,28
I0426 20:51:31.894357 31999 net.cpp:124] Setting up mnist
I0426 20:51:31.894385 31999 net.cpp:131] Top shape: 100 1 28 28 (78400)
I0426 20:51:31.894390 31999 net.cpp:131] Top shape: 100 (100)
I0426 20:51:31.894394 31999 net.cpp:139] Memory required for data: 314000
I0426 20:51:31.894397 31999 layer_factory.hpp:77] Creating layer label_mnist_1_split
I0426 20:51:31.894443 31999 net.cpp:86] Creating Layer label_mnist_1_split
I0426 20:51:31.894448 31999 net.cpp:408] label_mnist_1_split <- label
I0426 20:51:31.894453 31999 net.cpp:382] label_mnist_1_split -> label_mnist_1_split_0
I0426 20:51:31.894459 31999 net.cpp:382] label_mnist_1_split -> label_mnist_1_split_1
I0426 20:51:31.894539 31999 net.cpp:124] Setting up label_mnist_1_split
I0426 20:51:31.894546 31999 net.cpp:131] Top shape: 100 (100)
I0426 20:51:31.894551 31999 net.cpp:131] Top shape: 100 (100)
I0426 20:51:31.894553 31999 net.cpp:139] Memory required for data: 314800
I0426 20:51:31.894556 31999 layer_factory.hpp:77] Creating layer conv0
I0426 20:51:31.894564 31999 net.cpp:86] Creating Layer conv0
I0426 20:51:31.894567 31999 net.cpp:408] conv0 <- data
I0426 20:51:31.894572 31999 net.cpp:382] conv0 -> conv0
I0426 20:51:31.896376 31999 net.cpp:124] Setting up conv0
I0426 20:51:31.896389 31999 net.cpp:131] Top shape: 100 10 24 24 (576000)
I0426 20:51:31.896392 31999 net.cpp:139] Memory required for data: 2618800
I0426 20:51:31.896400 31999 layer_factory.hpp:77] Creating layer pool0
I0426 20:51:31.896406 31999 net.cpp:86] Creating Layer pool0
I0426 20:51:31.896425 31999 net.cpp:408] pool0 <- conv0
I0426 20:51:31.896430 31999 net.cpp:382] pool0 -> pool0
I0426 20:51:31.896463 31999 net.cpp:124] Setting up pool0
I0426 20:51:31.896468 31999 net.cpp:131] Top shape: 100 10 12 12 (144000)
I0426 20:51:31.896471 31999 net.cpp:139] Memory required for data: 3194800
I0426 20:51:31.896473 31999 layer_factory.hpp:77] Creating layer conv1
I0426 20:51:31.896481 31999 net.cpp:86] Creating Layer conv1
I0426 20:51:31.896483 31999 net.cpp:408] conv1 <- pool0
I0426 20:51:31.896488 31999 net.cpp:382] conv1 -> conv1
I0426 20:51:31.898212 31999 net.cpp:124] Setting up conv1
I0426 20:51:31.898226 31999 net.cpp:131] Top shape: 100 50 8 8 (320000)
I0426 20:51:31.898231 31999 net.cpp:139] Memory required for data: 4474800
I0426 20:51:31.898238 31999 layer_factory.hpp:77] Creating layer pool1
I0426 20:51:31.898264 31999 net.cpp:86] Creating Layer pool1
I0426 20:51:31.898283 31999 net.cpp:408] pool1 <- conv1
I0426 20:51:31.898288 31999 net.cpp:382] pool1 -> pool1
I0426 20:51:31.898341 31999 net.cpp:124] Setting up pool1
I0426 20:51:31.898362 31999 net.cpp:131] Top shape: 100 50 4 4 (80000)
I0426 20:51:31.898365 31999 net.cpp:139] Memory required for data: 4794800
I0426 20:51:31.898368 31999 layer_factory.hpp:77] Creating layer ip1
I0426 20:51:31.898375 31999 net.cpp:86] Creating Layer ip1
I0426 20:51:31.898393 31999 net.cpp:408] ip1 <- pool1
I0426 20:51:31.898398 31999 net.cpp:382] ip1 -> ip1
I0426 20:51:31.899927 31999 net.cpp:124] Setting up ip1
I0426 20:51:31.899935 31999 net.cpp:131] Top shape: 100 300 (30000)
I0426 20:51:31.899938 31999 net.cpp:139] Memory required for data: 4914800
I0426 20:51:31.899945 31999 layer_factory.hpp:77] Creating layer relu1
I0426 20:51:31.899950 31999 net.cpp:86] Creating Layer relu1
I0426 20:51:31.899971 31999 net.cpp:408] relu1 <- ip1
I0426 20:51:31.899991 31999 net.cpp:369] relu1 -> ip1 (in-place)
I0426 20:51:31.900158 31999 net.cpp:124] Setting up relu1
I0426 20:51:31.900167 31999 net.cpp:131] Top shape: 100 300 (30000)
I0426 20:51:31.900171 31999 net.cpp:139] Memory required for data: 5034800
I0426 20:51:31.900173 31999 layer_factory.hpp:77] Creating layer ip2
I0426 20:51:31.900180 31999 net.cpp:86] Creating Layer ip2
I0426 20:51:31.900183 31999 net.cpp:408] ip2 <- ip1
I0426 20:51:31.900188 31999 net.cpp:382] ip2 -> ip2
I0426 20:51:31.900329 31999 net.cpp:124] Setting up ip2
I0426 20:51:31.900336 31999 net.cpp:131] Top shape: 100 10 (1000)
I0426 20:51:31.900339 31999 net.cpp:139] Memory required for data: 5038800
I0426 20:51:31.900344 31999 layer_factory.hpp:77] Creating layer relu2
I0426 20:51:31.900348 31999 net.cpp:86] Creating Layer relu2
I0426 20:51:31.900352 31999 net.cpp:408] relu2 <- ip2
I0426 20:51:31.900355 31999 net.cpp:369] relu2 -> ip2 (in-place)
I0426 20:51:31.900588 31999 net.cpp:124] Setting up relu2
I0426 20:51:31.900595 31999 net.cpp:131] Top shape: 100 10 (1000)
I0426 20:51:31.900599 31999 net.cpp:139] Memory required for data: 5042800
I0426 20:51:31.900601 31999 layer_factory.hpp:77] Creating layer ip2_relu2_0_split
I0426 20:51:31.900611 31999 net.cpp:86] Creating Layer ip2_relu2_0_split
I0426 20:51:31.900614 31999 net.cpp:408] ip2_relu2_0_split <- ip2
I0426 20:51:31.900619 31999 net.cpp:382] ip2_relu2_0_split -> ip2_relu2_0_split_0
I0426 20:51:31.900635 31999 net.cpp:382] ip2_relu2_0_split -> ip2_relu2_0_split_1
I0426 20:51:31.900671 31999 net.cpp:124] Setting up ip2_relu2_0_split
I0426 20:51:31.900676 31999 net.cpp:131] Top shape: 100 10 (1000)
I0426 20:51:31.900681 31999 net.cpp:131] Top shape: 100 10 (1000)
I0426 20:51:31.900683 31999 net.cpp:139] Memory required for data: 5050800
I0426 20:51:31.900687 31999 layer_factory.hpp:77] Creating layer accuracy
I0426 20:51:31.900691 31999 net.cpp:86] Creating Layer accuracy
I0426 20:51:31.900694 31999 net.cpp:408] accuracy <- ip2_relu2_0_split_0
I0426 20:51:31.900698 31999 net.cpp:408] accuracy <- label_mnist_1_split_0
I0426 20:51:31.900703 31999 net.cpp:382] accuracy -> accuracy
…
