…
I0426 20:54:29.622274 32677 net.cpp:296] The NetState phase (0) differed from the phase (1) specified by a rule in layer mnist
I0426 20:54:29.622288 32677 net.cpp:296] The NetState phase (0) differed from the phase (1) specified by a rule in layer accuracy
I0426 20:54:29.622366 32677 net.cpp:53] Initializing net from parameters: 
name: "LeNet"
state {
  phase: TRAIN
  level: 0
  stage: ""
}
layer {
  name: "mnist"
  type: "Data"
  top: "data"
  top: "label"
  include {
    phase: TRAIN
  }
  transform_param {
    scale: 0.00390625
  }
  data_param {
    source: "examples/mnist/mnist_train_lmdb"
    batch_size: 64
    backend: LMDB
  }
}
layer {
  name: "conv0"
  type: "Convolution"
  bottom: "data"
  top: "conv0"
  param {
    lr_mult: 1
  }
  param {
    lr_mult: 2
  }
  convolution_param {
    num_output: 50
    kernel_size: 5
    stride: 1
    weight_filler {
      type: "xavier"
    }
    bias_filler {
      type: "constant"
    }
  }
}
layer {
  name: "pool0"
  type: "Pooling"
  bottom: "conv0"
  top: "pool0"
  pooling_param {
    pool: MAX
    kernel_size: 2
    stride: 2
  }
}
layer {
  name: "conv1"
  type: "Convolution"
  bottom: "pool0"
  top: "conv1"
  param {
    lr_mult: 1
  }
  param {
    lr_mult: 2
  }
  convolution_param {
    num_output: 25
    kernel_size: 5
    stride: 1
    weight_filler {
      type: "xavier"
    }
    bias_filler {
      type: "constant"
    }
  }
}
layer {
  name: "pool1"
  type: "Pooling"
  bottom: "conv1"
  top: "pool1"
  pooling_param {
    pool: MAX
    kernel_size: 2
    stride: 2
  }
}
layer {
  name: "ip1"
  type: "InnerProduct"
  bottom: "pool1"
  top: "ip1"
  param {
    lr_mult: 1
  }
  param {
    lr_mult: 2
  }
  inner_product_param {
    num_output: 100
    weight_filler {
      type: "xavier"
    }
    bias_filler {
      type: "constant"
    }
  }
}
layer {
  name: "relu1"
  type: "ReLU"
  bottom: "ip1"
  top: "ip1"
}
layer {
  name: "ip2"
  type: "InnerProduct"
  bottom: "ip1"
  top: "ip2"
  param {
    lr_mult: 1
  }
  param {
    lr_mult: 2
  }
  inner_product_param {
    num_output: 100
    weight_filler {
      type: "xavier"
    }
    bias_filler {
      type: "constant"
    }
  }
}
layer {
  name: "relu2"
  type: "ReLU"
  bottom: "ip2"
  top: "ip2"
}
layer {
  name: "ip3"
  type: "InnerProduct"
  bottom: "ip2"
  top: "ip3"
  param {
    lr_mult: 1
  }
  param {
    lr_mult: 2
  }
  inner_product_param {
    num_output: 10
    weight_filler {
      type: "xavier"
    }
    bias_filler {
      type: "constant"
    }
  }
}
layer {
  name: "relu3"
  type: "ReLU"
  bottom: "ip3"
  top: "ip3"
}
layer {
  name: "loss"
  type: "SoftmaxWithLoss"
  bottom: "ip3"
  bottom: "label"
  top: "loss"
}
I0426 20:54:29.622449 32677 layer_factory.hpp:77] Creating layer mnist
I0426 20:54:29.622535 32677 db_lmdb.cpp:35] Opened lmdb examples/mnist/mnist_train_lmdb
I0426 20:54:29.622555 32677 net.cpp:86] Creating Layer mnist
I0426 20:54:29.622560 32677 net.cpp:382] mnist -> data
I0426 20:54:29.622580 32677 net.cpp:382] mnist -> label
I0426 20:54:29.623541 32677 data_layer.cpp:45] output data size: 64,1,28,28
I0426 20:54:29.625704 32677 net.cpp:124] Setting up mnist
I0426 20:54:29.625733 32677 net.cpp:131] Top shape: 64 1 28 28 (50176)
I0426 20:54:29.625737 32677 net.cpp:131] Top shape: 64 (64)
I0426 20:54:29.625741 32677 net.cpp:139] Memory required for data: 200960
I0426 20:54:29.625746 32677 layer_factory.hpp:77] Creating layer conv0
I0426 20:54:29.625759 32677 net.cpp:86] Creating Layer conv0
I0426 20:54:29.625790 32677 net.cpp:408] conv0 <- data
I0426 20:54:29.625802 32677 net.cpp:382] conv0 -> conv0
I0426 20:54:29.854259 32677 net.cpp:124] Setting up conv0
I0426 20:54:29.854287 32677 net.cpp:131] Top shape: 64 50 24 24 (1843200)
I0426 20:54:29.854291 32677 net.cpp:139] Memory required for data: 7573760
I0426 20:54:29.854305 32677 layer_factory.hpp:77] Creating layer pool0
I0426 20:54:29.854316 32677 net.cpp:86] Creating Layer pool0
I0426 20:54:29.854321 32677 net.cpp:408] pool0 <- conv0
I0426 20:54:29.854326 32677 net.cpp:382] pool0 -> pool0
I0426 20:54:29.854387 32677 net.cpp:124] Setting up pool0
I0426 20:54:29.854393 32677 net.cpp:131] Top shape: 64 50 12 12 (460800)
I0426 20:54:29.854395 32677 net.cpp:139] Memory required for data: 9416960
I0426 20:54:29.854398 32677 layer_factory.hpp:77] Creating layer conv1
I0426 20:54:29.854408 32677 net.cpp:86] Creating Layer conv1
I0426 20:54:29.854413 32677 net.cpp:408] conv1 <- pool0
I0426 20:54:29.854418 32677 net.cpp:382] conv1 -> conv1
I0426 20:54:29.856472 32677 net.cpp:124] Setting up conv1
I0426 20:54:29.856485 32677 net.cpp:131] Top shape: 64 25 8 8 (102400)
I0426 20:54:29.856488 32677 net.cpp:139] Memory required for data: 9826560
I0426 20:54:29.856497 32677 layer_factory.hpp:77] Creating layer pool1
I0426 20:54:29.856503 32677 net.cpp:86] Creating Layer pool1
I0426 20:54:29.856505 32677 net.cpp:408] pool1 <- conv1
I0426 20:54:29.856510 32677 net.cpp:382] pool1 -> pool1
I0426 20:54:29.856557 32677 net.cpp:124] Setting up pool1
I0426 20:54:29.856564 32677 net.cpp:131] Top shape: 64 25 4 4 (25600)
I0426 20:54:29.856565 32677 net.cpp:139] Memory required for data: 9928960
I0426 20:54:29.856568 32677 layer_factory.hpp:77] Creating layer ip1
I0426 20:54:29.856575 32677 net.cpp:86] Creating Layer ip1
I0426 20:54:29.856577 32677 net.cpp:408] ip1 <- pool1
I0426 20:54:29.856582 32677 net.cpp:382] ip1 -> ip1
I0426 20:54:29.856962 32677 net.cpp:124] Setting up ip1
I0426 20:54:29.856971 32677 net.cpp:131] Top shape: 64 100 (6400)
I0426 20:54:29.856974 32677 net.cpp:139] Memory required for data: 9954560
I0426 20:54:29.856981 32677 layer_factory.hpp:77] Creating layer relu1
I0426 20:54:29.857002 32677 net.cpp:86] Creating Layer relu1
I0426 20:54:29.857005 32677 net.cpp:408] relu1 <- ip1
I0426 20:54:29.857009 32677 net.cpp:369] relu1 -> ip1 (in-place)
I0426 20:54:29.857237 32677 net.cpp:124] Setting up relu1
I0426 20:54:29.857247 32677 net.cpp:131] Top shape: 64 100 (6400)
I0426 20:54:29.857250 32677 net.cpp:139] Memory required for data: 9980160
I0426 20:54:29.857254 32677 layer_factory.hpp:77] Creating layer ip2
I0426 20:54:29.857259 32677 net.cpp:86] Creating Layer ip2
I0426 20:54:29.857261 32677 net.cpp:408] ip2 <- ip1
I0426 20:54:29.857266 32677 net.cpp:382] ip2 -> ip2
I0426 20:54:29.858244 32677 net.cpp:124] Setting up ip2
I0426 20:54:29.858256 32677 net.cpp:131] Top shape: 64 100 (6400)
I0426 20:54:29.858259 32677 net.cpp:139] Memory required for data: 10005760
I0426 20:54:29.858264 32677 layer_factory.hpp:77] Creating layer relu2
I0426 20:54:29.858286 32677 net.cpp:86] Creating Layer relu2
I0426 20:54:29.858289 32677 net.cpp:408] relu2 <- ip2
I0426 20:54:29.858294 32677 net.cpp:369] relu2 -> ip2 (in-place)
I0426 20:54:29.859048 32677 net.cpp:124] Setting up relu2
I0426 20:54:29.859061 32677 net.cpp:131] Top shape: 64 100 (6400)
I0426 20:54:29.859079 32677 net.cpp:139] Memory required for data: 10031360
I0426 20:54:29.859082 32677 layer_factory.hpp:77] Creating layer ip3
I0426 20:54:29.859088 32677 net.cpp:86] Creating Layer ip3
I0426 20:54:29.859091 32677 net.cpp:408] ip3 <- ip2
I0426 20:54:29.859097 32677 net.cpp:382] ip3 -> ip3
I0426 20:54:29.859226 32677 net.cpp:124] Setting up ip3
I0426 20:54:29.859235 32677 net.cpp:131] Top shape: 64 10 (640)
I0426 20:54:29.859237 32677 net.cpp:139] Memory required for data: 10033920
I0426 20:54:29.859246 32677 layer_factory.hpp:77] Creating layer relu3
I0426 20:54:29.859249 32677 net.cpp:86] Creating Layer relu3
I0426 20:54:29.859252 32677 net.cpp:408] relu3 <- ip3
I0426 20:54:29.859256 32677 net.cpp:369] relu3 -> ip3 (in-place)
I0426 20:54:29.859408 32677 net.cpp:124] Setting up relu3
I0426 20:54:29.859416 32677 net.cpp:131] Top shape: 64 10 (640)
I0426 20:54:29.859419 32677 net.cpp:139] Memory required for data: 10036480
I0426 20:54:29.859422 32677 layer_factory.hpp:77] Creating layer loss
I0426 20:54:29.859427 32677 net.cpp:86] Creating Layer loss
I0426 20:54:29.859431 32677 net.cpp:408] loss <- ip3
I0426 20:54:29.859433 32677 net.cpp:408] loss <- label
I0426 20:54:29.859438 32677 net.cpp:382] loss -> loss
I0426 20:54:29.859452 32677 layer_factory.hpp:77] Creating layer loss
…
I0426 20:54:29.860074 32677 solver.cpp:173] Creating test net (#0) specified by net file: ECE595/mnist/train_test/var_everything/lenet_train_test160.prototxt
I0426 20:54:29.860131 32677 net.cpp:296] The NetState phase (1) differed from the phase (0) specified by a rule in layer mnist
I0426 20:54:29.860224 32677 net.cpp:53] Initializing net from parameters: 
name: "LeNet"
state {
  phase: TEST
}
layer {
  name: "mnist"
  type: "Data"
  top: "data"
  top: "label"
  include {
    phase: TEST
  }
  transform_param {
    scale: 0.00390625
  }
  data_param {
    source: "examples/mnist/mnist_test_lmdb"
    batch_size: 100
    backend: LMDB
  }
}
layer {
  name: "conv0"
  type: "Convolution"
  bottom: "data"
  top: "conv0"
  param {
    lr_mult: 1
  }
  param {
    lr_mult: 2
  }
  convolution_param {
    num_output: 50
    kernel_size: 5
    stride: 1
    weight_filler {
      type: "xavier"
    }
    bias_filler {
      type: "constant"
    }
  }
}
layer {
  name: "pool0"
  type: "Pooling"
  bottom: "conv0"
  top: "pool0"
  pooling_param {
    pool: MAX
    kernel_size: 2
    stride: 2
  }
}
layer {
  name: "conv1"
  type: "Convolution"
  bottom: "pool0"
  top: "conv1"
  param {
    lr_mult: 1
  }
  param {
    lr_mult: 2
  }
  convolution_param {
    num_output: 25
    kernel_size: 5
    stride: 1
    weight_filler {
      type: "xavier"
    }
    bias_filler {
      type: "constant"
    }
  }
}
layer {
  name: "pool1"
  type: "Pooling"
  bottom: "conv1"
  top: "pool1"
  pooling_param {
    pool: MAX
    kernel_size: 2
    stride: 2
  }
}
layer {
  name: "ip1"
  type: "InnerProduct"
  bottom: "pool1"
  top: "ip1"
  param {
    lr_mult: 1
  }
  param {
    lr_mult: 2
  }
  inner_product_param {
    num_output: 100
    weight_filler {
      type: "xavier"
    }
    bias_filler {
      type: "constant"
    }
  }
}
layer {
  name: "relu1"
  type: "ReLU"
  bottom: "ip1"
  top: "ip1"
}
layer {
  name: "ip2"
  type: "InnerProduct"
  bottom: "ip1"
  top: "ip2"
  param {
    lr_mult: 1
  }
  param {
    lr_mult: 2
  }
  inner_product_param {
    num_output: 100
    weight_filler {
      type: "xavier"
    }
    bias_filler {
      type: "constant"
    }
  }
}
layer {
  name: "relu2"
  type: "ReLU"
  bottom: "ip2"
  top: "ip2"
}
layer {
  name: "ip3"
  type: "InnerProduct"
  bottom: "ip2"
  top: "ip3"
  param {
    lr_mult: 1
  }
  param {
    lr_mult: 2
  }
  inner_product_param {
    num_output: 10
    weight_filler {
      type: "xavier"
    }
    bias_filler {
      type: "constant"
    }
  }
}
layer {
  name: "relu3"
  type: "ReLU"
  bottom: "ip3"
  top: "ip3"
}
layer {
  name: "accuracy"
  type: "Accuracy"
  bottom: "ip3"
  bottom: "label"
  top: "accuracy"
  include {
    phase: TEST
  }
}
layer {
  name: "loss"
  type: "SoftmaxWithLoss"
  bottom: "ip3"
  bottom: "label"
  top: "loss"
}
I0426 20:54:29.860313 32677 layer_factory.hpp:77] Creating layer mnist
I0426 20:54:29.860357 32677 db_lmdb.cpp:35] Opened lmdb examples/mnist/mnist_test_lmdb
I0426 20:54:29.860368 32677 net.cpp:86] Creating Layer mnist
I0426 20:54:29.860373 32677 net.cpp:382] mnist -> data
I0426 20:54:29.860391 32677 net.cpp:382] mnist -> label
I0426 20:54:29.860471 32677 data_layer.cpp:45] output data size: 100,1,28,28
I0426 20:54:29.862481 32677 net.cpp:124] Setting up mnist
I0426 20:54:29.862520 32677 net.cpp:131] Top shape: 100 1 28 28 (78400)
I0426 20:54:29.862524 32677 net.cpp:131] Top shape: 100 (100)
I0426 20:54:29.862527 32677 net.cpp:139] Memory required for data: 314000
I0426 20:54:29.862530 32677 layer_factory.hpp:77] Creating layer label_mnist_1_split
I0426 20:54:29.862552 32677 net.cpp:86] Creating Layer label_mnist_1_split
I0426 20:54:29.862556 32677 net.cpp:408] label_mnist_1_split <- label
I0426 20:54:29.862560 32677 net.cpp:382] label_mnist_1_split -> label_mnist_1_split_0
I0426 20:54:29.862566 32677 net.cpp:382] label_mnist_1_split -> label_mnist_1_split_1
I0426 20:54:29.862622 32677 net.cpp:124] Setting up label_mnist_1_split
I0426 20:54:29.862627 32677 net.cpp:131] Top shape: 100 (100)
I0426 20:54:29.862630 32677 net.cpp:131] Top shape: 100 (100)
I0426 20:54:29.862633 32677 net.cpp:139] Memory required for data: 314800
I0426 20:54:29.862635 32677 layer_factory.hpp:77] Creating layer conv0
I0426 20:54:29.862643 32677 net.cpp:86] Creating Layer conv0
I0426 20:54:29.862645 32677 net.cpp:408] conv0 <- data
I0426 20:54:29.862650 32677 net.cpp:382] conv0 -> conv0
I0426 20:54:29.864223 32677 net.cpp:124] Setting up conv0
I0426 20:54:29.864235 32677 net.cpp:131] Top shape: 100 50 24 24 (2880000)
I0426 20:54:29.864238 32677 net.cpp:139] Memory required for data: 11834800
I0426 20:54:29.864246 32677 layer_factory.hpp:77] Creating layer pool0
I0426 20:54:29.864267 32677 net.cpp:86] Creating Layer pool0
I0426 20:54:29.864270 32677 net.cpp:408] pool0 <- conv0
I0426 20:54:29.864275 32677 net.cpp:382] pool0 -> pool0
I0426 20:54:29.864308 32677 net.cpp:124] Setting up pool0
I0426 20:54:29.864313 32677 net.cpp:131] Top shape: 100 50 12 12 (720000)
I0426 20:54:29.864316 32677 net.cpp:139] Memory required for data: 14714800
I0426 20:54:29.864320 32677 layer_factory.hpp:77] Creating layer conv1
I0426 20:54:29.864326 32677 net.cpp:86] Creating Layer conv1
I0426 20:54:29.864329 32677 net.cpp:408] conv1 <- pool0
I0426 20:54:29.864333 32677 net.cpp:382] conv1 -> conv1
I0426 20:54:29.866106 32677 net.cpp:124] Setting up conv1
I0426 20:54:29.866118 32677 net.cpp:131] Top shape: 100 25 8 8 (160000)
I0426 20:54:29.866122 32677 net.cpp:139] Memory required for data: 15354800
I0426 20:54:29.866130 32677 layer_factory.hpp:77] Creating layer pool1
I0426 20:54:29.866135 32677 net.cpp:86] Creating Layer pool1
I0426 20:54:29.866138 32677 net.cpp:408] pool1 <- conv1
I0426 20:54:29.866158 32677 net.cpp:382] pool1 -> pool1
I0426 20:54:29.866191 32677 net.cpp:124] Setting up pool1
I0426 20:54:29.866196 32677 net.cpp:131] Top shape: 100 25 4 4 (40000)
I0426 20:54:29.866199 32677 net.cpp:139] Memory required for data: 15514800
I0426 20:54:29.866202 32677 layer_factory.hpp:77] Creating layer ip1
I0426 20:54:29.866207 32677 net.cpp:86] Creating Layer ip1
I0426 20:54:29.866210 32677 net.cpp:408] ip1 <- pool1
I0426 20:54:29.866214 32677 net.cpp:382] ip1 -> ip1
I0426 20:54:29.866513 32677 net.cpp:124] Setting up ip1
I0426 20:54:29.866520 32677 net.cpp:131] Top shape: 100 100 (10000)
I0426 20:54:29.866533 32677 net.cpp:139] Memory required for data: 15554800
I0426 20:54:29.866556 32677 layer_factory.hpp:77] Creating layer relu1
I0426 20:54:29.866575 32677 net.cpp:86] Creating Layer relu1
I0426 20:54:29.866577 32677 net.cpp:408] relu1 <- ip1
I0426 20:54:29.866586 32677 net.cpp:369] relu1 -> ip1 (in-place)
I0426 20:54:29.866750 32677 net.cpp:124] Setting up relu1
I0426 20:54:29.866760 32677 net.cpp:131] Top shape: 100 100 (10000)
I0426 20:54:29.866762 32677 net.cpp:139] Memory required for data: 15594800
I0426 20:54:29.866765 32677 layer_factory.hpp:77] Creating layer ip2
I0426 20:54:29.866772 32677 net.cpp:86] Creating Layer ip2
I0426 20:54:29.866775 32677 net.cpp:408] ip2 <- ip1
I0426 20:54:29.866780 32677 net.cpp:382] ip2 -> ip2
I0426 20:54:29.866937 32677 net.cpp:124] Setting up ip2
I0426 20:54:29.866945 32677 net.cpp:131] Top shape: 100 100 (10000)
I0426 20:54:29.866947 32677 net.cpp:139] Memory required for data: 15634800
I0426 20:54:29.866952 32677 layer_factory.hpp:77] Creating layer relu2
I0426 20:54:29.866956 32677 net.cpp:86] Creating Layer relu2
I0426 20:54:29.866960 32677 net.cpp:408] relu2 <- ip2
I0426 20:54:29.866963 32677 net.cpp:369] relu2 -> ip2 (in-place)
I0426 20:54:29.867120 32677 net.cpp:124] Setting up relu2
I0426 20:54:29.867127 32677 net.cpp:131] Top shape: 100 100 (10000)
I0426 20:54:29.867131 32677 net.cpp:139] Memory required for data: 15674800
I0426 20:54:29.867135 32677 layer_factory.hpp:77] Creating layer ip3
I0426 20:54:29.867139 32677 net.cpp:86] Creating Layer ip3
I0426 20:54:29.867142 32677 net.cpp:408] ip3 <- ip2
I0426 20:54:29.867147 32677 net.cpp:382] ip3 -> ip3
I0426 20:54:29.867267 32677 net.cpp:124] Setting up ip3
I0426 20:54:29.867275 32677 net.cpp:131] Top shape: 100 10 (1000)
I0426 20:54:29.867285 32677 net.cpp:139] Memory required for data: 15678800
I0426 20:54:29.867292 32677 layer_factory.hpp:77] Creating layer relu3
I0426 20:54:29.867297 32677 net.cpp:86] Creating Layer relu3
I0426 20:54:29.867300 32677 net.cpp:408] relu3 <- ip3
I0426 20:54:29.867305 32677 net.cpp:369] relu3 -> ip3 (in-place)
I0426 20:54:29.868161 32677 net.cpp:124] Setting up relu3
I0426 20:54:29.868173 32677 net.cpp:131] Top shape: 100 10 (1000)
I0426 20:54:29.868182 32677 net.cpp:139] Memory required for data: 15682800
I0426 20:54:29.868185 32677 layer_factory.hpp:77] Creating layer ip3_relu3_0_split
I0426 20:54:29.868206 32677 net.cpp:86] Creating Layer ip3_relu3_0_split
I0426 20:54:29.868211 32677 net.cpp:408] ip3_relu3_0_split <- ip3
I0426 20:54:29.868216 32677 net.cpp:382] ip3_relu3_0_split -> ip3_relu3_0_split_0
I0426 20:54:29.868221 32677 net.cpp:382] ip3_relu3_0_split -> ip3_relu3_0_split_1
I0426 20:54:29.868258 32677 net.cpp:124] Setting up ip3_relu3_0_split
I0426 20:54:29.868263 32677 net.cpp:131] Top shape: 100 10 (1000)
I0426 20:54:29.868266 32677 net.cpp:131] Top shape: 100 10 (1000)
I0426 20:54:29.868268 32677 net.cpp:139] Memory required for data: 15690800
I0426 20:54:29.868271 32677 layer_factory.hpp:77] Creating layer accuracy
I0426 20:54:29.868276 32677 net.cpp:86] Creating Layer accuracy
I0426 20:54:29.868278 32677 net.cpp:408] accuracy <- ip3_relu3_0_split_0
I0426 20:54:29.868283 32677 net.cpp:408] accuracy <- label_mnist_1_split_0
I0426 20:54:29.868286 32677 net.cpp:382] accuracy -> accuracy
…
