…
I0426 20:53:31.134032 32453 net.cpp:296] The NetState phase (0) differed from the phase (1) specified by a rule in layer mnist
I0426 20:53:31.134052 32453 net.cpp:296] The NetState phase (0) differed from the phase (1) specified by a rule in layer accuracy
I0426 20:53:31.134155 32453 net.cpp:53] Initializing net from parameters: 
name: "LeNet"
state {
  phase: TRAIN
  level: 0
  stage: ""
}
layer {
  name: "mnist"
  type: "Data"
  top: "data"
  top: "label"
  include {
    phase: TRAIN
  }
  transform_param {
    scale: 0.00390625
  }
  data_param {
    source: "examples/mnist/mnist_train_lmdb"
    batch_size: 64
    backend: LMDB
  }
}
layer {
  name: "conv0"
  type: "Convolution"
  bottom: "data"
  top: "conv0"
  param {
    lr_mult: 1
  }
  param {
    lr_mult: 2
  }
  convolution_param {
    num_output: 25
    kernel_size: 5
    stride: 1
    weight_filler {
      type: "xavier"
    }
    bias_filler {
      type: "constant"
    }
  }
}
layer {
  name: "pool0"
  type: "Pooling"
  bottom: "conv0"
  top: "pool0"
  pooling_param {
    pool: MAX
    kernel_size: 2
    stride: 2
  }
}
layer {
  name: "conv1"
  type: "Convolution"
  bottom: "pool0"
  top: "conv1"
  param {
    lr_mult: 1
  }
  param {
    lr_mult: 2
  }
  convolution_param {
    num_output: 50
    kernel_size: 5
    stride: 1
    weight_filler {
      type: "xavier"
    }
    bias_filler {
      type: "constant"
    }
  }
}
layer {
  name: "pool1"
  type: "Pooling"
  bottom: "conv1"
  top: "pool1"
  pooling_param {
    pool: MAX
    kernel_size: 2
    stride: 2
  }
}
layer {
  name: "ip1"
  type: "InnerProduct"
  bottom: "pool1"
  top: "ip1"
  param {
    lr_mult: 1
  }
  param {
    lr_mult: 2
  }
  inner_product_param {
    num_output: 300
    weight_filler {
      type: "xavier"
    }
    bias_filler {
      type: "constant"
    }
  }
}
layer {
  name: "relu1"
  type: "ReLU"
  bottom: "ip1"
  top: "ip1"
}
layer {
  name: "ip2"
  type: "InnerProduct"
  bottom: "ip1"
  top: "ip2"
  param {
    lr_mult: 1
  }
  param {
    lr_mult: 2
  }
  inner_product_param {
    num_output: 300
    weight_filler {
      type: "xavier"
    }
    bias_filler {
      type: "constant"
    }
  }
}
layer {
  name: "relu2"
  type: "ReLU"
  bottom: "ip2"
  top: "ip2"
}
layer {
  name: "ip3"
  type: "InnerProduct"
  bottom: "ip2"
  top: "ip3"
  param {
    lr_mult: 1
  }
  param {
    lr_mult: 2
  }
  inner_product_param {
    num_output: 10
    weight_filler {
      type: "xavier"
    }
    bias_filler {
      type: "constant"
    }
  }
}
layer {
  name: "relu3"
  type: "ReLU"
  bottom: "ip3"
  top: "ip3"
}
layer {
  name: "loss"
  type: "SoftmaxWithLoss"
  bottom: "ip3"
  bottom: "label"
  top: "loss"
}
I0426 20:53:31.134234 32453 layer_factory.hpp:77] Creating layer mnist
I0426 20:53:31.134340 32453 db_lmdb.cpp:35] Opened lmdb examples/mnist/mnist_train_lmdb
I0426 20:53:31.134362 32453 net.cpp:86] Creating Layer mnist
I0426 20:53:31.134372 32453 net.cpp:382] mnist -> data
I0426 20:53:31.134394 32453 net.cpp:382] mnist -> label
I0426 20:53:31.135480 32453 data_layer.cpp:45] output data size: 64,1,28,28
I0426 20:53:31.138015 32453 net.cpp:124] Setting up mnist
I0426 20:53:31.138033 32453 net.cpp:131] Top shape: 64 1 28 28 (50176)
I0426 20:53:31.138039 32453 net.cpp:131] Top shape: 64 (64)
I0426 20:53:31.138043 32453 net.cpp:139] Memory required for data: 200960
I0426 20:53:31.138051 32453 layer_factory.hpp:77] Creating layer conv0
I0426 20:53:31.138067 32453 net.cpp:86] Creating Layer conv0
I0426 20:53:31.138090 32453 net.cpp:408] conv0 <- data
I0426 20:53:31.138103 32453 net.cpp:382] conv0 -> conv0
I0426 20:53:31.430527 32453 net.cpp:124] Setting up conv0
I0426 20:53:31.430557 32453 net.cpp:131] Top shape: 64 25 24 24 (921600)
I0426 20:53:31.430562 32453 net.cpp:139] Memory required for data: 3887360
I0426 20:53:31.430578 32453 layer_factory.hpp:77] Creating layer pool0
I0426 20:53:31.430594 32453 net.cpp:86] Creating Layer pool0
I0426 20:53:31.430599 32453 net.cpp:408] pool0 <- conv0
I0426 20:53:31.430606 32453 net.cpp:382] pool0 -> pool0
I0426 20:53:31.430658 32453 net.cpp:124] Setting up pool0
I0426 20:53:31.430665 32453 net.cpp:131] Top shape: 64 25 12 12 (230400)
I0426 20:53:31.430668 32453 net.cpp:139] Memory required for data: 4808960
I0426 20:53:31.430672 32453 layer_factory.hpp:77] Creating layer conv1
I0426 20:53:31.430685 32453 net.cpp:86] Creating Layer conv1
I0426 20:53:31.430690 32453 net.cpp:408] conv1 <- pool0
I0426 20:53:31.430696 32453 net.cpp:382] conv1 -> conv1
I0426 20:53:31.433192 32453 net.cpp:124] Setting up conv1
I0426 20:53:31.433208 32453 net.cpp:131] Top shape: 64 50 8 8 (204800)
I0426 20:53:31.433213 32453 net.cpp:139] Memory required for data: 5628160
I0426 20:53:31.433223 32453 layer_factory.hpp:77] Creating layer pool1
I0426 20:53:31.433233 32453 net.cpp:86] Creating Layer pool1
I0426 20:53:31.433236 32453 net.cpp:408] pool1 <- conv1
I0426 20:53:31.433243 32453 net.cpp:382] pool1 -> pool1
I0426 20:53:31.433286 32453 net.cpp:124] Setting up pool1
I0426 20:53:31.433297 32453 net.cpp:131] Top shape: 64 50 4 4 (51200)
I0426 20:53:31.433300 32453 net.cpp:139] Memory required for data: 5832960
I0426 20:53:31.433305 32453 layer_factory.hpp:77] Creating layer ip1
I0426 20:53:31.433313 32453 net.cpp:86] Creating Layer ip1
I0426 20:53:31.433316 32453 net.cpp:408] ip1 <- pool1
I0426 20:53:31.433322 32453 net.cpp:382] ip1 -> ip1
I0426 20:53:31.435992 32453 net.cpp:124] Setting up ip1
I0426 20:53:31.436007 32453 net.cpp:131] Top shape: 64 300 (19200)
I0426 20:53:31.436010 32453 net.cpp:139] Memory required for data: 5909760
I0426 20:53:31.436020 32453 layer_factory.hpp:77] Creating layer relu1
I0426 20:53:31.436028 32453 net.cpp:86] Creating Layer relu1
I0426 20:53:31.436033 32453 net.cpp:408] relu1 <- ip1
I0426 20:53:31.436038 32453 net.cpp:369] relu1 -> ip1 (in-place)
I0426 20:53:31.436239 32453 net.cpp:124] Setting up relu1
I0426 20:53:31.436249 32453 net.cpp:131] Top shape: 64 300 (19200)
I0426 20:53:31.436254 32453 net.cpp:139] Memory required for data: 5986560
I0426 20:53:31.436257 32453 layer_factory.hpp:77] Creating layer ip2
I0426 20:53:31.436264 32453 net.cpp:86] Creating Layer ip2
I0426 20:53:31.436269 32453 net.cpp:408] ip2 <- ip1
I0426 20:53:31.436275 32453 net.cpp:382] ip2 -> ip2
I0426 20:53:31.437000 32453 net.cpp:124] Setting up ip2
I0426 20:53:31.437011 32453 net.cpp:131] Top shape: 64 300 (19200)
I0426 20:53:31.437014 32453 net.cpp:139] Memory required for data: 6063360
I0426 20:53:31.437021 32453 layer_factory.hpp:77] Creating layer relu2
I0426 20:53:31.437028 32453 net.cpp:86] Creating Layer relu2
I0426 20:53:31.437032 32453 net.cpp:408] relu2 <- ip2
I0426 20:53:31.437037 32453 net.cpp:369] relu2 -> ip2 (in-place)
I0426 20:53:31.437973 32453 net.cpp:124] Setting up relu2
I0426 20:53:31.437986 32453 net.cpp:131] Top shape: 64 300 (19200)
I0426 20:53:31.437991 32453 net.cpp:139] Memory required for data: 6140160
I0426 20:53:31.437995 32453 layer_factory.hpp:77] Creating layer ip3
I0426 20:53:31.438004 32453 net.cpp:86] Creating Layer ip3
I0426 20:53:31.438007 32453 net.cpp:408] ip3 <- ip2
I0426 20:53:31.438015 32453 net.cpp:382] ip3 -> ip3
I0426 20:53:31.439083 32453 net.cpp:124] Setting up ip3
I0426 20:53:31.439100 32453 net.cpp:131] Top shape: 64 10 (640)
I0426 20:53:31.439103 32453 net.cpp:139] Memory required for data: 6142720
I0426 20:53:31.439113 32453 layer_factory.hpp:77] Creating layer relu3
I0426 20:53:31.439119 32453 net.cpp:86] Creating Layer relu3
I0426 20:53:31.439124 32453 net.cpp:408] relu3 <- ip3
I0426 20:53:31.439129 32453 net.cpp:369] relu3 -> ip3 (in-place)
I0426 20:53:31.439332 32453 net.cpp:124] Setting up relu3
I0426 20:53:31.439343 32453 net.cpp:131] Top shape: 64 10 (640)
I0426 20:53:31.439347 32453 net.cpp:139] Memory required for data: 6145280
I0426 20:53:31.439352 32453 layer_factory.hpp:77] Creating layer loss
I0426 20:53:31.439357 32453 net.cpp:86] Creating Layer loss
I0426 20:53:31.439362 32453 net.cpp:408] loss <- ip3
I0426 20:53:31.439366 32453 net.cpp:408] loss <- label
I0426 20:53:31.439373 32453 net.cpp:382] loss -> loss
I0426 20:53:31.439389 32453 layer_factory.hpp:77] Creating layer loss
…
I0426 20:53:31.440134 32453 solver.cpp:173] Creating test net (#0) specified by net file: ECE595/mnist/train_test/var_everything/lenet_train_test138.prototxt
I0426 20:53:31.440165 32453 net.cpp:296] The NetState phase (1) differed from the phase (0) specified by a rule in layer mnist
I0426 20:53:31.440270 32453 net.cpp:53] Initializing net from parameters: 
name: "LeNet"
state {
  phase: TEST
}
layer {
  name: "mnist"
  type: "Data"
  top: "data"
  top: "label"
  include {
    phase: TEST
  }
  transform_param {
    scale: 0.00390625
  }
  data_param {
    source: "examples/mnist/mnist_test_lmdb"
    batch_size: 100
    backend: LMDB
  }
}
layer {
  name: "conv0"
  type: "Convolution"
  bottom: "data"
  top: "conv0"
  param {
    lr_mult: 1
  }
  param {
    lr_mult: 2
  }
  convolution_param {
    num_output: 25
    kernel_size: 5
    stride: 1
    weight_filler {
      type: "xavier"
    }
    bias_filler {
      type: "constant"
    }
  }
}
layer {
  name: "pool0"
  type: "Pooling"
  bottom: "conv0"
  top: "pool0"
  pooling_param {
    pool: MAX
    kernel_size: 2
    stride: 2
  }
}
layer {
  name: "conv1"
  type: "Convolution"
  bottom: "pool0"
  top: "conv1"
  param {
    lr_mult: 1
  }
  param {
    lr_mult: 2
  }
  convolution_param {
    num_output: 50
    kernel_size: 5
    stride: 1
    weight_filler {
      type: "xavier"
    }
    bias_filler {
      type: "constant"
    }
  }
}
layer {
  name: "pool1"
  type: "Pooling"
  bottom: "conv1"
  top: "pool1"
  pooling_param {
    pool: MAX
    kernel_size: 2
    stride: 2
  }
}
layer {
  name: "ip1"
  type: "InnerProduct"
  bottom: "pool1"
  top: "ip1"
  param {
    lr_mult: 1
  }
  param {
    lr_mult: 2
  }
  inner_product_param {
    num_output: 300
    weight_filler {
      type: "xavier"
    }
    bias_filler {
      type: "constant"
    }
  }
}
layer {
  name: "relu1"
  type: "ReLU"
  bottom: "ip1"
  top: "ip1"
}
layer {
  name: "ip2"
  type: "InnerProduct"
  bottom: "ip1"
  top: "ip2"
  param {
    lr_mult: 1
  }
  param {
    lr_mult: 2
  }
  inner_product_param {
    num_output: 300
    weight_filler {
      type: "xavier"
    }
    bias_filler {
      type: "constant"
    }
  }
}
layer {
  name: "relu2"
  type: "ReLU"
  bottom: "ip2"
  top: "ip2"
}
layer {
  name: "ip3"
  type: "InnerProduct"
  bottom: "ip2"
  top: "ip3"
  param {
    lr_mult: 1
  }
  param {
    lr_mult: 2
  }
  inner_product_param {
    num_output: 10
    weight_filler {
      type: "xavier"
    }
    bias_filler {
      type: "constant"
    }
  }
}
layer {
  name: "relu3"
  type: "ReLU"
  bottom: "ip3"
  top: "ip3"
}
layer {
  name: "accuracy"
  type: "Accuracy"
  bottom: "ip3"
  bottom: "label"
  top: "accuracy"
  include {
    phase: TEST
  }
}
layer {
  name: "loss"
  type: "SoftmaxWithLoss"
  bottom: "ip3"
  bottom: "label"
  top: "loss"
}
I0426 20:53:31.440361 32453 layer_factory.hpp:77] Creating layer mnist
I0426 20:53:31.440412 32453 db_lmdb.cpp:35] Opened lmdb examples/mnist/mnist_test_lmdb
I0426 20:53:31.440426 32453 net.cpp:86] Creating Layer mnist
I0426 20:53:31.440431 32453 net.cpp:382] mnist -> data
I0426 20:53:31.440440 32453 net.cpp:382] mnist -> label
I0426 20:53:31.440538 32453 data_layer.cpp:45] output data size: 100,1,28,28
I0426 20:53:31.442999 32453 net.cpp:124] Setting up mnist
I0426 20:53:31.443015 32453 net.cpp:131] Top shape: 100 1 28 28 (78400)
I0426 20:53:31.443022 32453 net.cpp:131] Top shape: 100 (100)
I0426 20:53:31.443027 32453 net.cpp:139] Memory required for data: 314000
I0426 20:53:31.443030 32453 layer_factory.hpp:77] Creating layer label_mnist_1_split
I0426 20:53:31.443038 32453 net.cpp:86] Creating Layer label_mnist_1_split
I0426 20:53:31.443042 32453 net.cpp:408] label_mnist_1_split <- label
I0426 20:53:31.443048 32453 net.cpp:382] label_mnist_1_split -> label_mnist_1_split_0
I0426 20:53:31.443056 32453 net.cpp:382] label_mnist_1_split -> label_mnist_1_split_1
I0426 20:53:31.443109 32453 net.cpp:124] Setting up label_mnist_1_split
I0426 20:53:31.443116 32453 net.cpp:131] Top shape: 100 (100)
I0426 20:53:31.443120 32453 net.cpp:131] Top shape: 100 (100)
I0426 20:53:31.443125 32453 net.cpp:139] Memory required for data: 314800
I0426 20:53:31.443127 32453 layer_factory.hpp:77] Creating layer conv0
I0426 20:53:31.443138 32453 net.cpp:86] Creating Layer conv0
I0426 20:53:31.443142 32453 net.cpp:408] conv0 <- data
I0426 20:53:31.443148 32453 net.cpp:382] conv0 -> conv0
I0426 20:53:31.445143 32453 net.cpp:124] Setting up conv0
I0426 20:53:31.445160 32453 net.cpp:131] Top shape: 100 25 24 24 (1440000)
I0426 20:53:31.445164 32453 net.cpp:139] Memory required for data: 6074800
I0426 20:53:31.445175 32453 layer_factory.hpp:77] Creating layer pool0
I0426 20:53:31.445183 32453 net.cpp:86] Creating Layer pool0
I0426 20:53:31.445188 32453 net.cpp:408] pool0 <- conv0
I0426 20:53:31.445194 32453 net.cpp:382] pool0 -> pool0
I0426 20:53:31.445233 32453 net.cpp:124] Setting up pool0
I0426 20:53:31.445240 32453 net.cpp:131] Top shape: 100 25 12 12 (360000)
I0426 20:53:31.445243 32453 net.cpp:139] Memory required for data: 7514800
I0426 20:53:31.445247 32453 layer_factory.hpp:77] Creating layer conv1
I0426 20:53:31.445256 32453 net.cpp:86] Creating Layer conv1
I0426 20:53:31.445261 32453 net.cpp:408] conv1 <- pool0
I0426 20:53:31.445266 32453 net.cpp:382] conv1 -> conv1
I0426 20:53:31.447226 32453 net.cpp:124] Setting up conv1
I0426 20:53:31.447240 32453 net.cpp:131] Top shape: 100 50 8 8 (320000)
I0426 20:53:31.447247 32453 net.cpp:139] Memory required for data: 8794800
I0426 20:53:31.447257 32453 layer_factory.hpp:77] Creating layer pool1
I0426 20:53:31.447264 32453 net.cpp:86] Creating Layer pool1
I0426 20:53:31.447268 32453 net.cpp:408] pool1 <- conv1
I0426 20:53:31.447274 32453 net.cpp:382] pool1 -> pool1
I0426 20:53:31.447315 32453 net.cpp:124] Setting up pool1
I0426 20:53:31.447325 32453 net.cpp:131] Top shape: 100 50 4 4 (80000)
I0426 20:53:31.447330 32453 net.cpp:139] Memory required for data: 9114800
I0426 20:53:31.447334 32453 layer_factory.hpp:77] Creating layer ip1
I0426 20:53:31.447340 32453 net.cpp:86] Creating Layer ip1
I0426 20:53:31.447345 32453 net.cpp:408] ip1 <- pool1
I0426 20:53:31.447350 32453 net.cpp:382] ip1 -> ip1
I0426 20:53:31.449081 32453 net.cpp:124] Setting up ip1
I0426 20:53:31.449092 32453 net.cpp:131] Top shape: 100 300 (30000)
I0426 20:53:31.449108 32453 net.cpp:139] Memory required for data: 9234800
I0426 20:53:31.449118 32453 layer_factory.hpp:77] Creating layer relu1
I0426 20:53:31.449125 32453 net.cpp:86] Creating Layer relu1
I0426 20:53:31.449128 32453 net.cpp:408] relu1 <- ip1
I0426 20:53:31.449134 32453 net.cpp:369] relu1 -> ip1 (in-place)
I0426 20:53:31.449319 32453 net.cpp:124] Setting up relu1
I0426 20:53:31.449329 32453 net.cpp:131] Top shape: 100 300 (30000)
I0426 20:53:31.449333 32453 net.cpp:139] Memory required for data: 9354800
I0426 20:53:31.449337 32453 layer_factory.hpp:77] Creating layer ip2
I0426 20:53:31.449345 32453 net.cpp:86] Creating Layer ip2
I0426 20:53:31.449349 32453 net.cpp:408] ip2 <- ip1
I0426 20:53:31.449362 32453 net.cpp:382] ip2 -> ip2
I0426 20:53:31.450084 32453 net.cpp:124] Setting up ip2
I0426 20:53:31.450094 32453 net.cpp:131] Top shape: 100 300 (30000)
I0426 20:53:31.450098 32453 net.cpp:139] Memory required for data: 9474800
I0426 20:53:31.450104 32453 layer_factory.hpp:77] Creating layer relu2
I0426 20:53:31.450110 32453 net.cpp:86] Creating Layer relu2
I0426 20:53:31.450114 32453 net.cpp:408] relu2 <- ip2
I0426 20:53:31.450119 32453 net.cpp:369] relu2 -> ip2 (in-place)
I0426 20:53:31.450294 32453 net.cpp:124] Setting up relu2
I0426 20:53:31.450304 32453 net.cpp:131] Top shape: 100 300 (30000)
I0426 20:53:31.450307 32453 net.cpp:139] Memory required for data: 9594800
I0426 20:53:31.450310 32453 layer_factory.hpp:77] Creating layer ip3
I0426 20:53:31.450317 32453 net.cpp:86] Creating Layer ip3
I0426 20:53:31.450320 32453 net.cpp:408] ip3 <- ip2
I0426 20:53:31.450326 32453 net.cpp:382] ip3 -> ip3
I0426 20:53:31.450458 32453 net.cpp:124] Setting up ip3
I0426 20:53:31.450466 32453 net.cpp:131] Top shape: 100 10 (1000)
I0426 20:53:31.450469 32453 net.cpp:139] Memory required for data: 9598800
I0426 20:53:31.450479 32453 layer_factory.hpp:77] Creating layer relu3
I0426 20:53:31.450484 32453 net.cpp:86] Creating Layer relu3
I0426 20:53:31.450489 32453 net.cpp:408] relu3 <- ip3
I0426 20:53:31.450492 32453 net.cpp:369] relu3 -> ip3 (in-place)
I0426 20:53:31.451427 32453 net.cpp:124] Setting up relu3
I0426 20:53:31.451442 32453 net.cpp:131] Top shape: 100 10 (1000)
I0426 20:53:31.451447 32453 net.cpp:139] Memory required for data: 9602800
I0426 20:53:31.451450 32453 layer_factory.hpp:77] Creating layer ip3_relu3_0_split
I0426 20:53:31.451457 32453 net.cpp:86] Creating Layer ip3_relu3_0_split
I0426 20:53:31.451460 32453 net.cpp:408] ip3_relu3_0_split <- ip3
I0426 20:53:31.451467 32453 net.cpp:382] ip3_relu3_0_split -> ip3_relu3_0_split_0
I0426 20:53:31.451473 32453 net.cpp:382] ip3_relu3_0_split -> ip3_relu3_0_split_1
I0426 20:53:31.451516 32453 net.cpp:124] Setting up ip3_relu3_0_split
I0426 20:53:31.451532 32453 net.cpp:131] Top shape: 100 10 (1000)
I0426 20:53:31.451536 32453 net.cpp:131] Top shape: 100 10 (1000)
I0426 20:53:31.451540 32453 net.cpp:139] Memory required for data: 9610800
I0426 20:53:31.451544 32453 layer_factory.hpp:77] Creating layer accuracy
I0426 20:53:31.451550 32453 net.cpp:86] Creating Layer accuracy
I0426 20:53:31.451553 32453 net.cpp:408] accuracy <- ip3_relu3_0_split_0
I0426 20:53:31.451557 32453 net.cpp:408] accuracy <- label_mnist_1_split_0
I0426 20:53:31.451563 32453 net.cpp:382] accuracy -> accuracy
…
