…
I0426 20:48:27.225543 31253 net.cpp:296] The NetState phase (0) differed from the phase (1) specified by a rule in layer mnist
I0426 20:48:27.225559 31253 net.cpp:296] The NetState phase (0) differed from the phase (1) specified by a rule in layer accuracy
I0426 20:48:27.225633 31253 net.cpp:53] Initializing net from parameters: 
name: "LeNet"
state {
  phase: TRAIN
  level: 0
  stage: ""
}
layer {
  name: "mnist"
  type: "Data"
  top: "data"
  top: "label"
  include {
    phase: TRAIN
  }
  transform_param {
    scale: 0.00390625
  }
  data_param {
    source: "examples/mnist/mnist_train_lmdb"
    batch_size: 64
    backend: LMDB
  }
}
layer {
  name: "ip1"
  type: "InnerProduct"
  bottom: "data"
  top: "ip1"
  param {
    lr_mult: 1
  }
  param {
    lr_mult: 2
  }
  inner_product_param {
    num_output: 100
    weight_filler {
      type: "xavier"
    }
    bias_filler {
      type: "constant"
    }
  }
}
layer {
  name: "relu1"
  type: "ReLU"
  bottom: "ip1"
  top: "ip1"
}
layer {
  name: "ip2"
  type: "InnerProduct"
  bottom: "ip1"
  top: "ip2"
  param {
    lr_mult: 1
  }
  param {
    lr_mult: 2
  }
  inner_product_param {
    num_output: 100
    weight_filler {
      type: "xavier"
    }
    bias_filler {
      type: "constant"
    }
  }
}
layer {
  name: "relu2"
  type: "ReLU"
  bottom: "ip2"
  top: "ip2"
}
layer {
  name: "ip3"
  type: "InnerProduct"
  bottom: "ip2"
  top: "ip3"
  param {
    lr_mult: 1
  }
  param {
    lr_mult: 2
  }
  inner_product_param {
    num_output: 10
    weight_filler {
      type: "xavier"
    }
    bias_filler {
      type: "constant"
    }
  }
}
layer {
  name: "relu3"
  type: "ReLU"
  bottom: "ip3"
  top: "ip3"
}
layer {
  name: "loss"
  type: "SoftmaxWithLoss"
  bottom: "ip3"
  bottom: "label"
  top: "loss"
}
I0426 20:48:27.225703 31253 layer_factory.hpp:77] Creating layer mnist
I0426 20:48:27.225808 31253 db_lmdb.cpp:35] Opened lmdb examples/mnist/mnist_train_lmdb
I0426 20:48:27.225831 31253 net.cpp:86] Creating Layer mnist
I0426 20:48:27.225841 31253 net.cpp:382] mnist -> data
I0426 20:48:27.225863 31253 net.cpp:382] mnist -> label
I0426 20:48:27.226963 31253 data_layer.cpp:45] output data size: 64,1,28,28
I0426 20:48:27.229497 31253 net.cpp:124] Setting up mnist
I0426 20:48:27.229516 31253 net.cpp:131] Top shape: 64 1 28 28 (50176)
I0426 20:48:27.229526 31253 net.cpp:131] Top shape: 64 (64)
I0426 20:48:27.229529 31253 net.cpp:139] Memory required for data: 200960
I0426 20:48:27.229537 31253 layer_factory.hpp:77] Creating layer ip1
I0426 20:48:27.229547 31253 net.cpp:86] Creating Layer ip1
I0426 20:48:27.229552 31253 net.cpp:408] ip1 <- data
I0426 20:48:27.229562 31253 net.cpp:382] ip1 -> ip1
I0426 20:48:27.231286 31253 net.cpp:124] Setting up ip1
I0426 20:48:27.231302 31253 net.cpp:131] Top shape: 64 100 (6400)
I0426 20:48:27.231305 31253 net.cpp:139] Memory required for data: 226560
I0426 20:48:27.231320 31253 layer_factory.hpp:77] Creating layer relu1
I0426 20:48:27.231329 31253 net.cpp:86] Creating Layer relu1
I0426 20:48:27.231333 31253 net.cpp:408] relu1 <- ip1
I0426 20:48:27.231338 31253 net.cpp:369] relu1 -> ip1 (in-place)
I0426 20:48:27.514820 31253 net.cpp:124] Setting up relu1
I0426 20:48:27.514848 31253 net.cpp:131] Top shape: 64 100 (6400)
I0426 20:48:27.514852 31253 net.cpp:139] Memory required for data: 252160
I0426 20:48:27.514858 31253 layer_factory.hpp:77] Creating layer ip2
I0426 20:48:27.514869 31253 net.cpp:86] Creating Layer ip2
I0426 20:48:27.514894 31253 net.cpp:408] ip2 <- ip1
I0426 20:48:27.514902 31253 net.cpp:382] ip2 -> ip2
I0426 20:48:27.516067 31253 net.cpp:124] Setting up ip2
I0426 20:48:27.516079 31253 net.cpp:131] Top shape: 64 100 (6400)
I0426 20:48:27.516083 31253 net.cpp:139] Memory required for data: 277760
I0426 20:48:27.516093 31253 layer_factory.hpp:77] Creating layer relu2
I0426 20:48:27.516099 31253 net.cpp:86] Creating Layer relu2
I0426 20:48:27.516103 31253 net.cpp:408] relu2 <- ip2
I0426 20:48:27.516108 31253 net.cpp:369] relu2 -> ip2 (in-place)
I0426 20:48:27.517032 31253 net.cpp:124] Setting up relu2
I0426 20:48:27.517045 31253 net.cpp:131] Top shape: 64 100 (6400)
I0426 20:48:27.517065 31253 net.cpp:139] Memory required for data: 303360
I0426 20:48:27.517067 31253 layer_factory.hpp:77] Creating layer ip3
I0426 20:48:27.517076 31253 net.cpp:86] Creating Layer ip3
I0426 20:48:27.517078 31253 net.cpp:408] ip3 <- ip2
I0426 20:48:27.517083 31253 net.cpp:382] ip3 -> ip3
I0426 20:48:27.518085 31253 net.cpp:124] Setting up ip3
I0426 20:48:27.518097 31253 net.cpp:131] Top shape: 64 10 (640)
I0426 20:48:27.518100 31253 net.cpp:139] Memory required for data: 305920
I0426 20:48:27.518108 31253 layer_factory.hpp:77] Creating layer relu3
I0426 20:48:27.518113 31253 net.cpp:86] Creating Layer relu3
I0426 20:48:27.518117 31253 net.cpp:408] relu3 <- ip3
I0426 20:48:27.518121 31253 net.cpp:369] relu3 -> ip3 (in-place)
I0426 20:48:27.518286 31253 net.cpp:124] Setting up relu3
I0426 20:48:27.518296 31253 net.cpp:131] Top shape: 64 10 (640)
I0426 20:48:27.518298 31253 net.cpp:139] Memory required for data: 308480
I0426 20:48:27.518301 31253 layer_factory.hpp:77] Creating layer loss
I0426 20:48:27.518307 31253 net.cpp:86] Creating Layer loss
I0426 20:48:27.518311 31253 net.cpp:408] loss <- ip3
I0426 20:48:27.518329 31253 net.cpp:408] loss <- label
I0426 20:48:27.518334 31253 net.cpp:382] loss -> loss
I0426 20:48:27.518349 31253 layer_factory.hpp:77] Creating layer loss
…
I0426 20:48:27.518911 31253 solver.cpp:173] Creating test net (#0) specified by net file: ECE595/mnist/train_test/var_everything/lenet_train_test6.prototxt
I0426 20:48:27.518934 31253 net.cpp:296] The NetState phase (1) differed from the phase (0) specified by a rule in layer mnist
I0426 20:48:27.519002 31253 net.cpp:53] Initializing net from parameters: 
name: "LeNet"
state {
  phase: TEST
}
layer {
  name: "mnist"
  type: "Data"
  top: "data"
  top: "label"
  include {
    phase: TEST
  }
  transform_param {
    scale: 0.00390625
  }
  data_param {
    source: "examples/mnist/mnist_test_lmdb"
    batch_size: 100
    backend: LMDB
  }
}
layer {
  name: "ip1"
  type: "InnerProduct"
  bottom: "data"
  top: "ip1"
  param {
    lr_mult: 1
  }
  param {
    lr_mult: 2
  }
  inner_product_param {
    num_output: 100
    weight_filler {
      type: "xavier"
    }
    bias_filler {
      type: "constant"
    }
  }
}
layer {
  name: "relu1"
  type: "ReLU"
  bottom: "ip1"
  top: "ip1"
}
layer {
  name: "ip2"
  type: "InnerProduct"
  bottom: "ip1"
  top: "ip2"
  param {
    lr_mult: 1
  }
  param {
    lr_mult: 2
  }
  inner_product_param {
    num_output: 100
    weight_filler {
      type: "xavier"
    }
    bias_filler {
      type: "constant"
    }
  }
}
layer {
  name: "relu2"
  type: "ReLU"
  bottom: "ip2"
  top: "ip2"
}
layer {
  name: "ip3"
  type: "InnerProduct"
  bottom: "ip2"
  top: "ip3"
  param {
    lr_mult: 1
  }
  param {
    lr_mult: 2
  }
  inner_product_param {
    num_output: 10
    weight_filler {
      type: "xavier"
    }
    bias_filler {
      type: "constant"
    }
  }
}
layer {
  name: "relu3"
  type: "ReLU"
  bottom: "ip3"
  top: "ip3"
}
layer {
  name: "accuracy"
  type: "Accuracy"
  bottom: "ip3"
  bottom: "label"
  top: "accuracy"
  include {
    phase: TEST
  }
}
layer {
  name: "loss"
  type: "SoftmaxWithLoss"
  bottom: "ip3"
  bottom: "label"
  top: "loss"
}
I0426 20:48:27.519069 31253 layer_factory.hpp:77] Creating layer mnist
I0426 20:48:27.519114 31253 db_lmdb.cpp:35] Opened lmdb examples/mnist/mnist_test_lmdb
I0426 20:48:27.519125 31253 net.cpp:86] Creating Layer mnist
I0426 20:48:27.519130 31253 net.cpp:382] mnist -> data
I0426 20:48:27.519137 31253 net.cpp:382] mnist -> label
I0426 20:48:27.519222 31253 data_layer.cpp:45] output data size: 100,1,28,28
I0426 20:48:27.520462 31253 net.cpp:124] Setting up mnist
I0426 20:48:27.520474 31253 net.cpp:131] Top shape: 100 1 28 28 (78400)
I0426 20:48:27.520478 31253 net.cpp:131] Top shape: 100 (100)
I0426 20:48:27.520481 31253 net.cpp:139] Memory required for data: 314000
I0426 20:48:27.520485 31253 layer_factory.hpp:77] Creating layer label_mnist_1_split
I0426 20:48:27.520494 31253 net.cpp:86] Creating Layer label_mnist_1_split
I0426 20:48:27.520498 31253 net.cpp:408] label_mnist_1_split <- label
I0426 20:48:27.520503 31253 net.cpp:382] label_mnist_1_split -> label_mnist_1_split_0
I0426 20:48:27.520509 31253 net.cpp:382] label_mnist_1_split -> label_mnist_1_split_1
I0426 20:48:27.520583 31253 net.cpp:124] Setting up label_mnist_1_split
I0426 20:48:27.520589 31253 net.cpp:131] Top shape: 100 (100)
I0426 20:48:27.520593 31253 net.cpp:131] Top shape: 100 (100)
I0426 20:48:27.520596 31253 net.cpp:139] Memory required for data: 314800
I0426 20:48:27.520598 31253 layer_factory.hpp:77] Creating layer ip1
I0426 20:48:27.520604 31253 net.cpp:86] Creating Layer ip1
I0426 20:48:27.520607 31253 net.cpp:408] ip1 <- data
I0426 20:48:27.520612 31253 net.cpp:382] ip1 -> ip1
I0426 20:48:27.521327 31253 net.cpp:124] Setting up ip1
I0426 20:48:27.521335 31253 net.cpp:131] Top shape: 100 100 (10000)
I0426 20:48:27.521338 31253 net.cpp:139] Memory required for data: 354800
I0426 20:48:27.521347 31253 layer_factory.hpp:77] Creating layer relu1
I0426 20:48:27.521351 31253 net.cpp:86] Creating Layer relu1
I0426 20:48:27.521355 31253 net.cpp:408] relu1 <- ip1
I0426 20:48:27.521375 31253 net.cpp:369] relu1 -> ip1 (in-place)
I0426 20:48:27.522272 31253 net.cpp:124] Setting up relu1
I0426 20:48:27.522284 31253 net.cpp:131] Top shape: 100 100 (10000)
I0426 20:48:27.522287 31253 net.cpp:139] Memory required for data: 394800
I0426 20:48:27.522291 31253 layer_factory.hpp:77] Creating layer ip2
I0426 20:48:27.522299 31253 net.cpp:86] Creating Layer ip2
I0426 20:48:27.522301 31253 net.cpp:408] ip2 <- ip1
I0426 20:48:27.522322 31253 net.cpp:382] ip2 -> ip2
I0426 20:48:27.522538 31253 net.cpp:124] Setting up ip2
I0426 20:48:27.522547 31253 net.cpp:131] Top shape: 100 100 (10000)
I0426 20:48:27.522549 31253 net.cpp:139] Memory required for data: 434800
I0426 20:48:27.522557 31253 layer_factory.hpp:77] Creating layer relu2
I0426 20:48:27.522562 31253 net.cpp:86] Creating Layer relu2
I0426 20:48:27.522564 31253 net.cpp:408] relu2 <- ip2
I0426 20:48:27.522568 31253 net.cpp:369] relu2 -> ip2 (in-place)
I0426 20:48:27.522713 31253 net.cpp:124] Setting up relu2
I0426 20:48:27.522722 31253 net.cpp:131] Top shape: 100 100 (10000)
I0426 20:48:27.522724 31253 net.cpp:139] Memory required for data: 474800
I0426 20:48:27.522727 31253 layer_factory.hpp:77] Creating layer ip3
I0426 20:48:27.522732 31253 net.cpp:86] Creating Layer ip3
I0426 20:48:27.522735 31253 net.cpp:408] ip3 <- ip2
I0426 20:48:27.522740 31253 net.cpp:382] ip3 -> ip3
I0426 20:48:27.522841 31253 net.cpp:124] Setting up ip3
I0426 20:48:27.522866 31253 net.cpp:131] Top shape: 100 10 (1000)
I0426 20:48:27.522868 31253 net.cpp:139] Memory required for data: 478800
I0426 20:48:27.522876 31253 layer_factory.hpp:77] Creating layer relu3
I0426 20:48:27.522881 31253 net.cpp:86] Creating Layer relu3
I0426 20:48:27.522883 31253 net.cpp:408] relu3 <- ip3
I0426 20:48:27.522887 31253 net.cpp:369] relu3 -> ip3 (in-place)
I0426 20:48:27.523051 31253 net.cpp:124] Setting up relu3
I0426 20:48:27.523058 31253 net.cpp:131] Top shape: 100 10 (1000)
I0426 20:48:27.523061 31253 net.cpp:139] Memory required for data: 482800
I0426 20:48:27.523064 31253 layer_factory.hpp:77] Creating layer ip3_relu3_0_split
I0426 20:48:27.523071 31253 net.cpp:86] Creating Layer ip3_relu3_0_split
I0426 20:48:27.523074 31253 net.cpp:408] ip3_relu3_0_split <- ip3
I0426 20:48:27.523078 31253 net.cpp:382] ip3_relu3_0_split -> ip3_relu3_0_split_0
I0426 20:48:27.523084 31253 net.cpp:382] ip3_relu3_0_split -> ip3_relu3_0_split_1
I0426 20:48:27.523118 31253 net.cpp:124] Setting up ip3_relu3_0_split
I0426 20:48:27.523123 31253 net.cpp:131] Top shape: 100 10 (1000)
I0426 20:48:27.523128 31253 net.cpp:131] Top shape: 100 10 (1000)
I0426 20:48:27.523139 31253 net.cpp:139] Memory required for data: 490800
I0426 20:48:27.523142 31253 layer_factory.hpp:77] Creating layer accuracy
I0426 20:48:27.523147 31253 net.cpp:86] Creating Layer accuracy
I0426 20:48:27.523151 31253 net.cpp:408] accuracy <- ip3_relu3_0_split_0
I0426 20:48:27.523155 31253 net.cpp:408] accuracy <- label_mnist_1_split_0
I0426 20:48:27.523159 31253 net.cpp:382] accuracy -> accuracy
…
