…
I0426 20:50:44.225088 31820 net.cpp:296] The NetState phase (0) differed from the phase (1) specified by a rule in layer mnist
I0426 20:50:44.225107 31820 net.cpp:296] The NetState phase (0) differed from the phase (1) specified by a rule in layer accuracy
I0426 20:50:44.225211 31820 net.cpp:53] Initializing net from parameters: 
name: "LeNet"
state {
  phase: TRAIN
  level: 0
  stage: ""
}
layer {
  name: "mnist"
  type: "Data"
  top: "data"
  top: "label"
  include {
    phase: TRAIN
  }
  transform_param {
    scale: 0.00390625
  }
  data_param {
    source: "examples/mnist/mnist_train_lmdb"
    batch_size: 64
    backend: LMDB
  }
}
layer {
  name: "conv0"
  type: "Convolution"
  bottom: "data"
  top: "conv0"
  param {
    lr_mult: 1
  }
  param {
    lr_mult: 2
  }
  convolution_param {
    num_output: 10
    kernel_size: 5
    stride: 1
    weight_filler {
      type: "xavier"
    }
    bias_filler {
      type: "constant"
    }
  }
}
layer {
  name: "pool0"
  type: "Pooling"
  bottom: "conv0"
  top: "pool0"
  pooling_param {
    pool: MAX
    kernel_size: 2
    stride: 2
  }
}
layer {
  name: "conv1"
  type: "Convolution"
  bottom: "pool0"
  top: "conv1"
  param {
    lr_mult: 1
  }
  param {
    lr_mult: 2
  }
  convolution_param {
    num_output: 10
    kernel_size: 5
    stride: 1
    weight_filler {
      type: "xavier"
    }
    bias_filler {
      type: "constant"
    }
  }
}
layer {
  name: "pool1"
  type: "Pooling"
  bottom: "conv1"
  top: "pool1"
  pooling_param {
    pool: MAX
    kernel_size: 2
    stride: 2
  }
}
layer {
  name: "ip1"
  type: "InnerProduct"
  bottom: "pool1"
  top: "ip1"
  param {
    lr_mult: 1
  }
  param {
    lr_mult: 2
  }
  inner_product_param {
    num_output: 300
    weight_filler {
      type: "xavier"
    }
    bias_filler {
      type: "constant"
    }
  }
}
layer {
  name: "relu1"
  type: "ReLU"
  bottom: "ip1"
  top: "ip1"
}
layer {
  name: "ip2"
  type: "InnerProduct"
  bottom: "ip1"
  top: "ip2"
  param {
    lr_mult: 1
  }
  param {
    lr_mult: 2
  }
  inner_product_param {
    num_output: 300
    weight_filler {
      type: "xavier"
    }
    bias_filler {
      type: "constant"
    }
  }
}
layer {
  name: "relu2"
  type: "ReLU"
  bottom: "ip2"
  top: "ip2"
}
layer {
  name: "ip3"
  type: "InnerProduct"
  bottom: "ip2"
  top: "ip3"
  param {
    lr_mult: 1
  }
  param {
    lr_mult: 2
  }
  inner_product_param {
    num_output: 10
    weight_filler {
      type: "xavier"
    }
    bias_filler {
      type: "constant"
    }
  }
}
layer {
  name: "relu3"
  type: "ReLU"
  bottom: "ip3"
  top: "ip3"
}
layer {
  name: "loss"
  type: "SoftmaxWithLoss"
  bottom: "ip3"
  bottom: "label"
  top: "loss"
}
I0426 20:50:44.225291 31820 layer_factory.hpp:77] Creating layer mnist
I0426 20:50:44.225389 31820 db_lmdb.cpp:35] Opened lmdb examples/mnist/mnist_train_lmdb
I0426 20:50:44.225412 31820 net.cpp:86] Creating Layer mnist
I0426 20:50:44.225422 31820 net.cpp:382] mnist -> data
I0426 20:50:44.225445 31820 net.cpp:382] mnist -> label
I0426 20:50:44.226538 31820 data_layer.cpp:45] output data size: 64,1,28,28
I0426 20:50:44.229086 31820 net.cpp:124] Setting up mnist
I0426 20:50:44.229105 31820 net.cpp:131] Top shape: 64 1 28 28 (50176)
I0426 20:50:44.229111 31820 net.cpp:131] Top shape: 64 (64)
I0426 20:50:44.229115 31820 net.cpp:139] Memory required for data: 200960
I0426 20:50:44.229121 31820 layer_factory.hpp:77] Creating layer conv0
I0426 20:50:44.229138 31820 net.cpp:86] Creating Layer conv0
I0426 20:50:44.229159 31820 net.cpp:408] conv0 <- data
I0426 20:50:44.229172 31820 net.cpp:382] conv0 -> conv0
I0426 20:50:44.473407 31820 net.cpp:124] Setting up conv0
I0426 20:50:44.473449 31820 net.cpp:131] Top shape: 64 10 24 24 (368640)
I0426 20:50:44.473453 31820 net.cpp:139] Memory required for data: 1675520
I0426 20:50:44.473467 31820 layer_factory.hpp:77] Creating layer pool0
I0426 20:50:44.473480 31820 net.cpp:86] Creating Layer pool0
I0426 20:50:44.473484 31820 net.cpp:408] pool0 <- conv0
I0426 20:50:44.473489 31820 net.cpp:382] pool0 -> pool0
I0426 20:50:44.473562 31820 net.cpp:124] Setting up pool0
I0426 20:50:44.473570 31820 net.cpp:131] Top shape: 64 10 12 12 (92160)
I0426 20:50:44.473573 31820 net.cpp:139] Memory required for data: 2044160
I0426 20:50:44.473575 31820 layer_factory.hpp:77] Creating layer conv1
I0426 20:50:44.473587 31820 net.cpp:86] Creating Layer conv1
I0426 20:50:44.473592 31820 net.cpp:408] conv1 <- pool0
I0426 20:50:44.473597 31820 net.cpp:382] conv1 -> conv1
I0426 20:50:44.476235 31820 net.cpp:124] Setting up conv1
I0426 20:50:44.476248 31820 net.cpp:131] Top shape: 64 10 8 8 (40960)
I0426 20:50:44.476251 31820 net.cpp:139] Memory required for data: 2208000
I0426 20:50:44.476259 31820 layer_factory.hpp:77] Creating layer pool1
I0426 20:50:44.476265 31820 net.cpp:86] Creating Layer pool1
I0426 20:50:44.476269 31820 net.cpp:408] pool1 <- conv1
I0426 20:50:44.476274 31820 net.cpp:382] pool1 -> pool1
I0426 20:50:44.476322 31820 net.cpp:124] Setting up pool1
I0426 20:50:44.476327 31820 net.cpp:131] Top shape: 64 10 4 4 (10240)
I0426 20:50:44.476330 31820 net.cpp:139] Memory required for data: 2248960
I0426 20:50:44.476332 31820 layer_factory.hpp:77] Creating layer ip1
I0426 20:50:44.476338 31820 net.cpp:86] Creating Layer ip1
I0426 20:50:44.476341 31820 net.cpp:408] ip1 <- pool1
I0426 20:50:44.476346 31820 net.cpp:382] ip1 -> ip1
I0426 20:50:44.476722 31820 net.cpp:124] Setting up ip1
I0426 20:50:44.476729 31820 net.cpp:131] Top shape: 64 300 (19200)
I0426 20:50:44.476747 31820 net.cpp:139] Memory required for data: 2325760
I0426 20:50:44.476754 31820 layer_factory.hpp:77] Creating layer relu1
I0426 20:50:44.476759 31820 net.cpp:86] Creating Layer relu1
I0426 20:50:44.476763 31820 net.cpp:408] relu1 <- ip1
I0426 20:50:44.476768 31820 net.cpp:369] relu1 -> ip1 (in-place)
I0426 20:50:44.477015 31820 net.cpp:124] Setting up relu1
I0426 20:50:44.477025 31820 net.cpp:131] Top shape: 64 300 (19200)
I0426 20:50:44.477030 31820 net.cpp:139] Memory required for data: 2402560
I0426 20:50:44.477032 31820 layer_factory.hpp:77] Creating layer ip2
I0426 20:50:44.477039 31820 net.cpp:86] Creating Layer ip2
I0426 20:50:44.477042 31820 net.cpp:408] ip2 <- ip1
I0426 20:50:44.477048 31820 net.cpp:382] ip2 -> ip2
I0426 20:50:44.478456 31820 net.cpp:124] Setting up ip2
I0426 20:50:44.478466 31820 net.cpp:131] Top shape: 64 300 (19200)
I0426 20:50:44.478485 31820 net.cpp:139] Memory required for data: 2479360
I0426 20:50:44.478492 31820 layer_factory.hpp:77] Creating layer relu2
I0426 20:50:44.478497 31820 net.cpp:86] Creating Layer relu2
I0426 20:50:44.478502 31820 net.cpp:408] relu2 <- ip2
I0426 20:50:44.478507 31820 net.cpp:369] relu2 -> ip2 (in-place)
I0426 20:50:44.479383 31820 net.cpp:124] Setting up relu2
I0426 20:50:44.479394 31820 net.cpp:131] Top shape: 64 300 (19200)
I0426 20:50:44.479413 31820 net.cpp:139] Memory required for data: 2556160
I0426 20:50:44.479416 31820 layer_factory.hpp:77] Creating layer ip3
I0426 20:50:44.479423 31820 net.cpp:86] Creating Layer ip3
I0426 20:50:44.479426 31820 net.cpp:408] ip3 <- ip2
I0426 20:50:44.479431 31820 net.cpp:382] ip3 -> ip3
I0426 20:50:44.479560 31820 net.cpp:124] Setting up ip3
I0426 20:50:44.479568 31820 net.cpp:131] Top shape: 64 10 (640)
I0426 20:50:44.479585 31820 net.cpp:139] Memory required for data: 2558720
I0426 20:50:44.479593 31820 layer_factory.hpp:77] Creating layer relu3
I0426 20:50:44.479598 31820 net.cpp:86] Creating Layer relu3
I0426 20:50:44.479599 31820 net.cpp:408] relu3 <- ip3
I0426 20:50:44.479604 31820 net.cpp:369] relu3 -> ip3 (in-place)
I0426 20:50:44.479754 31820 net.cpp:124] Setting up relu3
I0426 20:50:44.479779 31820 net.cpp:131] Top shape: 64 10 (640)
I0426 20:50:44.479781 31820 net.cpp:139] Memory required for data: 2561280
I0426 20:50:44.479784 31820 layer_factory.hpp:77] Creating layer loss
I0426 20:50:44.479790 31820 net.cpp:86] Creating Layer loss
I0426 20:50:44.479794 31820 net.cpp:408] loss <- ip3
I0426 20:50:44.479797 31820 net.cpp:408] loss <- label
I0426 20:50:44.479802 31820 net.cpp:382] loss -> loss
I0426 20:50:44.479820 31820 layer_factory.hpp:77] Creating layer loss
…
I0426 20:50:44.480450 31820 solver.cpp:173] Creating test net (#0) specified by net file: ECE595/mnist/train_test/var_everything/lenet_train_test68.prototxt
I0426 20:50:44.480476 31820 net.cpp:296] The NetState phase (1) differed from the phase (0) specified by a rule in layer mnist
I0426 20:50:44.480566 31820 net.cpp:53] Initializing net from parameters: 
name: "LeNet"
state {
  phase: TEST
}
layer {
  name: "mnist"
  type: "Data"
  top: "data"
  top: "label"
  include {
    phase: TEST
  }
  transform_param {
    scale: 0.00390625
  }
  data_param {
    source: "examples/mnist/mnist_test_lmdb"
    batch_size: 100
    backend: LMDB
  }
}
layer {
  name: "conv0"
  type: "Convolution"
  bottom: "data"
  top: "conv0"
  param {
    lr_mult: 1
  }
  param {
    lr_mult: 2
  }
  convolution_param {
    num_output: 10
    kernel_size: 5
    stride: 1
    weight_filler {
      type: "xavier"
    }
    bias_filler {
      type: "constant"
    }
  }
}
layer {
  name: "pool0"
  type: "Pooling"
  bottom: "conv0"
  top: "pool0"
  pooling_param {
    pool: MAX
    kernel_size: 2
    stride: 2
  }
}
layer {
  name: "conv1"
  type: "Convolution"
  bottom: "pool0"
  top: "conv1"
  param {
    lr_mult: 1
  }
  param {
    lr_mult: 2
  }
  convolution_param {
    num_output: 10
    kernel_size: 5
    stride: 1
    weight_filler {
      type: "xavier"
    }
    bias_filler {
      type: "constant"
    }
  }
}
layer {
  name: "pool1"
  type: "Pooling"
  bottom: "conv1"
  top: "pool1"
  pooling_param {
    pool: MAX
    kernel_size: 2
    stride: 2
  }
}
layer {
  name: "ip1"
  type: "InnerProduct"
  bottom: "pool1"
  top: "ip1"
  param {
    lr_mult: 1
  }
  param {
    lr_mult: 2
  }
  inner_product_param {
    num_output: 300
    weight_filler {
      type: "xavier"
    }
    bias_filler {
      type: "constant"
    }
  }
}
layer {
  name: "relu1"
  type: "ReLU"
  bottom: "ip1"
  top: "ip1"
}
layer {
  name: "ip2"
  type: "InnerProduct"
  bottom: "ip1"
  top: "ip2"
  param {
    lr_mult: 1
  }
  param {
    lr_mult: 2
  }
  inner_product_param {
    num_output: 300
    weight_filler {
      type: "xavier"
    }
    bias_filler {
      type: "constant"
    }
  }
}
layer {
  name: "relu2"
  type: "ReLU"
  bottom: "ip2"
  top: "ip2"
}
layer {
  name: "ip3"
  type: "InnerProduct"
  bottom: "ip2"
  top: "ip3"
  param {
    lr_mult: 1
  }
  param {
    lr_mult: 2
  }
  inner_product_param {
    num_output: 10
    weight_filler {
      type: "xavier"
    }
    bias_filler {
      type: "constant"
    }
  }
}
layer {
  name: "relu3"
  type: "ReLU"
  bottom: "ip3"
  top: "ip3"
}
layer {
  name: "accuracy"
  type: "Accuracy"
  bottom: "ip3"
  bottom: "label"
  top: "accuracy"
  include {
    phase: TEST
  }
}
layer {
  name: "loss"
  type: "SoftmaxWithLoss"
  bottom: "ip3"
  bottom: "label"
  top: "loss"
}
I0426 20:50:44.480639 31820 layer_factory.hpp:77] Creating layer mnist
I0426 20:50:44.480684 31820 db_lmdb.cpp:35] Opened lmdb examples/mnist/mnist_test_lmdb
I0426 20:50:44.480695 31820 net.cpp:86] Creating Layer mnist
I0426 20:50:44.480700 31820 net.cpp:382] mnist -> data
I0426 20:50:44.480706 31820 net.cpp:382] mnist -> label
I0426 20:50:44.480787 31820 data_layer.cpp:45] output data size: 100,1,28,28
I0426 20:50:44.482002 31820 net.cpp:124] Setting up mnist
I0426 20:50:44.482046 31820 net.cpp:131] Top shape: 100 1 28 28 (78400)
I0426 20:50:44.482051 31820 net.cpp:131] Top shape: 100 (100)
I0426 20:50:44.482054 31820 net.cpp:139] Memory required for data: 314000
I0426 20:50:44.482059 31820 layer_factory.hpp:77] Creating layer label_mnist_1_split
I0426 20:50:44.482069 31820 net.cpp:86] Creating Layer label_mnist_1_split
I0426 20:50:44.482071 31820 net.cpp:408] label_mnist_1_split <- label
I0426 20:50:44.482076 31820 net.cpp:382] label_mnist_1_split -> label_mnist_1_split_0
I0426 20:50:44.482084 31820 net.cpp:382] label_mnist_1_split -> label_mnist_1_split_1
I0426 20:50:44.482167 31820 net.cpp:124] Setting up label_mnist_1_split
I0426 20:50:44.482174 31820 net.cpp:131] Top shape: 100 (100)
I0426 20:50:44.482178 31820 net.cpp:131] Top shape: 100 (100)
I0426 20:50:44.482182 31820 net.cpp:139] Memory required for data: 314800
I0426 20:50:44.482184 31820 layer_factory.hpp:77] Creating layer conv0
I0426 20:50:44.482193 31820 net.cpp:86] Creating Layer conv0
I0426 20:50:44.482197 31820 net.cpp:408] conv0 <- data
I0426 20:50:44.482201 31820 net.cpp:382] conv0 -> conv0
I0426 20:50:44.483814 31820 net.cpp:124] Setting up conv0
I0426 20:50:44.483827 31820 net.cpp:131] Top shape: 100 10 24 24 (576000)
I0426 20:50:44.483846 31820 net.cpp:139] Memory required for data: 2618800
I0426 20:50:44.483855 31820 layer_factory.hpp:77] Creating layer pool0
I0426 20:50:44.483861 31820 net.cpp:86] Creating Layer pool0
I0426 20:50:44.483865 31820 net.cpp:408] pool0 <- conv0
I0426 20:50:44.483868 31820 net.cpp:382] pool0 -> pool0
I0426 20:50:44.483918 31820 net.cpp:124] Setting up pool0
I0426 20:50:44.483924 31820 net.cpp:131] Top shape: 100 10 12 12 (144000)
I0426 20:50:44.483927 31820 net.cpp:139] Memory required for data: 3194800
I0426 20:50:44.483930 31820 layer_factory.hpp:77] Creating layer conv1
I0426 20:50:44.483938 31820 net.cpp:86] Creating Layer conv1
I0426 20:50:44.483942 31820 net.cpp:408] conv1 <- pool0
I0426 20:50:44.483947 31820 net.cpp:382] conv1 -> conv1
I0426 20:50:44.486137 31820 net.cpp:124] Setting up conv1
I0426 20:50:44.486150 31820 net.cpp:131] Top shape: 100 10 8 8 (64000)
I0426 20:50:44.486167 31820 net.cpp:139] Memory required for data: 3450800
I0426 20:50:44.486176 31820 layer_factory.hpp:77] Creating layer pool1
I0426 20:50:44.486181 31820 net.cpp:86] Creating Layer pool1
I0426 20:50:44.486186 31820 net.cpp:408] pool1 <- conv1
I0426 20:50:44.486189 31820 net.cpp:382] pool1 -> pool1
I0426 20:50:44.486291 31820 net.cpp:124] Setting up pool1
I0426 20:50:44.486299 31820 net.cpp:131] Top shape: 100 10 4 4 (16000)
I0426 20:50:44.486302 31820 net.cpp:139] Memory required for data: 3514800
I0426 20:50:44.486305 31820 layer_factory.hpp:77] Creating layer ip1
I0426 20:50:44.486322 31820 net.cpp:86] Creating Layer ip1
I0426 20:50:44.486326 31820 net.cpp:408] ip1 <- pool1
I0426 20:50:44.486330 31820 net.cpp:382] ip1 -> ip1
I0426 20:50:44.486758 31820 net.cpp:124] Setting up ip1
I0426 20:50:44.486768 31820 net.cpp:131] Top shape: 100 300 (30000)
I0426 20:50:44.486796 31820 net.cpp:139] Memory required for data: 3634800
I0426 20:50:44.486804 31820 layer_factory.hpp:77] Creating layer relu1
I0426 20:50:44.486809 31820 net.cpp:86] Creating Layer relu1
I0426 20:50:44.486812 31820 net.cpp:408] relu1 <- ip1
I0426 20:50:44.486816 31820 net.cpp:369] relu1 -> ip1 (in-place)
I0426 20:50:44.487051 31820 net.cpp:124] Setting up relu1
I0426 20:50:44.487059 31820 net.cpp:131] Top shape: 100 300 (30000)
I0426 20:50:44.487062 31820 net.cpp:139] Memory required for data: 3754800
I0426 20:50:44.487066 31820 layer_factory.hpp:77] Creating layer ip2
I0426 20:50:44.487072 31820 net.cpp:86] Creating Layer ip2
I0426 20:50:44.487076 31820 net.cpp:408] ip2 <- ip1
I0426 20:50:44.487081 31820 net.cpp:382] ip2 -> ip2
I0426 20:50:44.487737 31820 net.cpp:124] Setting up ip2
I0426 20:50:44.487745 31820 net.cpp:131] Top shape: 100 300 (30000)
I0426 20:50:44.487763 31820 net.cpp:139] Memory required for data: 3874800
I0426 20:50:44.487768 31820 layer_factory.hpp:77] Creating layer relu2
I0426 20:50:44.487773 31820 net.cpp:86] Creating Layer relu2
I0426 20:50:44.487776 31820 net.cpp:408] relu2 <- ip2
I0426 20:50:44.487779 31820 net.cpp:369] relu2 -> ip2 (in-place)
I0426 20:50:44.487926 31820 net.cpp:124] Setting up relu2
I0426 20:50:44.487933 31820 net.cpp:131] Top shape: 100 300 (30000)
I0426 20:50:44.487936 31820 net.cpp:139] Memory required for data: 3994800
I0426 20:50:44.487939 31820 layer_factory.hpp:77] Creating layer ip3
I0426 20:50:44.487944 31820 net.cpp:86] Creating Layer ip3
I0426 20:50:44.487947 31820 net.cpp:408] ip3 <- ip2
I0426 20:50:44.487952 31820 net.cpp:382] ip3 -> ip3
I0426 20:50:44.488061 31820 net.cpp:124] Setting up ip3
I0426 20:50:44.488068 31820 net.cpp:131] Top shape: 100 10 (1000)
I0426 20:50:44.488071 31820 net.cpp:139] Memory required for data: 3998800
I0426 20:50:44.488078 31820 layer_factory.hpp:77] Creating layer relu3
I0426 20:50:44.488082 31820 net.cpp:86] Creating Layer relu3
I0426 20:50:44.488085 31820 net.cpp:408] relu3 <- ip3
I0426 20:50:44.488090 31820 net.cpp:369] relu3 -> ip3 (in-place)
I0426 20:50:44.488971 31820 net.cpp:124] Setting up relu3
I0426 20:50:44.488984 31820 net.cpp:131] Top shape: 100 10 (1000)
I0426 20:50:44.489004 31820 net.cpp:139] Memory required for data: 4002800
I0426 20:50:44.489007 31820 layer_factory.hpp:77] Creating layer ip3_relu3_0_split
I0426 20:50:44.489012 31820 net.cpp:86] Creating Layer ip3_relu3_0_split
I0426 20:50:44.489017 31820 net.cpp:408] ip3_relu3_0_split <- ip3
I0426 20:50:44.489032 31820 net.cpp:382] ip3_relu3_0_split -> ip3_relu3_0_split_0
I0426 20:50:44.489038 31820 net.cpp:382] ip3_relu3_0_split -> ip3_relu3_0_split_1
I0426 20:50:44.489073 31820 net.cpp:124] Setting up ip3_relu3_0_split
I0426 20:50:44.489078 31820 net.cpp:131] Top shape: 100 10 (1000)
I0426 20:50:44.489081 31820 net.cpp:131] Top shape: 100 10 (1000)
I0426 20:50:44.489084 31820 net.cpp:139] Memory required for data: 4010800
I0426 20:50:44.489087 31820 layer_factory.hpp:77] Creating layer accuracy
I0426 20:50:44.489091 31820 net.cpp:86] Creating Layer accuracy
I0426 20:50:44.489095 31820 net.cpp:408] accuracy <- ip3_relu3_0_split_0
I0426 20:50:44.489099 31820 net.cpp:408] accuracy <- label_mnist_1_split_0
I0426 20:50:44.489104 31820 net.cpp:382] accuracy -> accuracy
…
