…
I0426 20:49:41.275171 31579 net.cpp:296] The NetState phase (0) differed from the phase (1) specified by a rule in layer mnist
I0426 20:49:41.275184 31579 net.cpp:296] The NetState phase (0) differed from the phase (1) specified by a rule in layer accuracy
I0426 20:49:41.275243 31579 net.cpp:53] Initializing net from parameters: 
name: "LeNet"
state {
  phase: TRAIN
  level: 0
  stage: ""
}
layer {
  name: "mnist"
  type: "Data"
  top: "data"
  top: "label"
  include {
    phase: TRAIN
  }
  transform_param {
    scale: 0.00390625
  }
  data_param {
    source: "examples/mnist/mnist_train_lmdb"
    batch_size: 64
    backend: LMDB
  }
}
layer {
  name: "conv0"
  type: "Convolution"
  bottom: "data"
  top: "conv0"
  param {
    lr_mult: 1
  }
  param {
    lr_mult: 2
  }
  convolution_param {
    num_output: 50
    kernel_size: 5
    stride: 1
    weight_filler {
      type: "xavier"
    }
    bias_filler {
      type: "constant"
    }
  }
}
layer {
  name: "pool0"
  type: "Pooling"
  bottom: "conv0"
  top: "pool0"
  pooling_param {
    pool: MAX
    kernel_size: 2
    stride: 2
  }
}
layer {
  name: "ip1"
  type: "InnerProduct"
  bottom: "pool0"
  top: "ip1"
  param {
    lr_mult: 1
  }
  param {
    lr_mult: 2
  }
  inner_product_param {
    num_output: 10
    weight_filler {
      type: "xavier"
    }
    bias_filler {
      type: "constant"
    }
  }
}
layer {
  name: "relu1"
  type: "ReLU"
  bottom: "ip1"
  top: "ip1"
}
layer {
  name: "loss"
  type: "SoftmaxWithLoss"
  bottom: "ip1"
  bottom: "label"
  top: "loss"
}
I0426 20:49:41.275295 31579 layer_factory.hpp:77] Creating layer mnist
I0426 20:49:41.275382 31579 db_lmdb.cpp:35] Opened lmdb examples/mnist/mnist_train_lmdb
I0426 20:49:41.275403 31579 net.cpp:86] Creating Layer mnist
I0426 20:49:41.275408 31579 net.cpp:382] mnist -> data
I0426 20:49:41.275431 31579 net.cpp:382] mnist -> label
I0426 20:49:41.276420 31579 data_layer.cpp:45] output data size: 64,1,28,28
I0426 20:49:41.278658 31579 net.cpp:124] Setting up mnist
I0426 20:49:41.278687 31579 net.cpp:131] Top shape: 64 1 28 28 (50176)
I0426 20:49:41.278692 31579 net.cpp:131] Top shape: 64 (64)
I0426 20:49:41.278695 31579 net.cpp:139] Memory required for data: 200960
I0426 20:49:41.278702 31579 layer_factory.hpp:77] Creating layer conv0
I0426 20:49:41.278755 31579 net.cpp:86] Creating Layer conv0
I0426 20:49:41.278774 31579 net.cpp:408] conv0 <- data
I0426 20:49:41.278784 31579 net.cpp:382] conv0 -> conv0
I0426 20:49:41.524013 31579 net.cpp:124] Setting up conv0
I0426 20:49:41.524054 31579 net.cpp:131] Top shape: 64 50 24 24 (1843200)
I0426 20:49:41.524057 31579 net.cpp:139] Memory required for data: 7573760
I0426 20:49:41.524071 31579 layer_factory.hpp:77] Creating layer pool0
I0426 20:49:41.524085 31579 net.cpp:86] Creating Layer pool0
I0426 20:49:41.524087 31579 net.cpp:408] pool0 <- conv0
I0426 20:49:41.524092 31579 net.cpp:382] pool0 -> pool0
I0426 20:49:41.524153 31579 net.cpp:124] Setting up pool0
I0426 20:49:41.524159 31579 net.cpp:131] Top shape: 64 50 12 12 (460800)
I0426 20:49:41.524163 31579 net.cpp:139] Memory required for data: 9416960
I0426 20:49:41.524165 31579 layer_factory.hpp:77] Creating layer ip1
I0426 20:49:41.524173 31579 net.cpp:86] Creating Layer ip1
I0426 20:49:41.524176 31579 net.cpp:408] ip1 <- pool0
I0426 20:49:41.524181 31579 net.cpp:382] ip1 -> ip1
I0426 20:49:41.525712 31579 net.cpp:124] Setting up ip1
I0426 20:49:41.525740 31579 net.cpp:131] Top shape: 64 10 (640)
I0426 20:49:41.525761 31579 net.cpp:139] Memory required for data: 9419520
I0426 20:49:41.525771 31579 layer_factory.hpp:77] Creating layer relu1
I0426 20:49:41.525779 31579 net.cpp:86] Creating Layer relu1
I0426 20:49:41.525782 31579 net.cpp:408] relu1 <- ip1
I0426 20:49:41.525787 31579 net.cpp:369] relu1 -> ip1 (in-place)
I0426 20:49:41.526001 31579 net.cpp:124] Setting up relu1
I0426 20:49:41.526012 31579 net.cpp:131] Top shape: 64 10 (640)
I0426 20:49:41.526016 31579 net.cpp:139] Memory required for data: 9422080
I0426 20:49:41.526020 31579 layer_factory.hpp:77] Creating layer loss
I0426 20:49:41.526026 31579 net.cpp:86] Creating Layer loss
I0426 20:49:41.526029 31579 net.cpp:408] loss <- ip1
I0426 20:49:41.526033 31579 net.cpp:408] loss <- label
I0426 20:49:41.526053 31579 net.cpp:382] loss -> loss
I0426 20:49:41.526072 31579 layer_factory.hpp:77] Creating layer loss
…
I0426 20:49:41.527330 31579 solver.cpp:173] Creating test net (#0) specified by net file: ECE595/mnist/train_test/var_everything/lenet_train_test42.prototxt
I0426 20:49:41.527353 31579 net.cpp:296] The NetState phase (1) differed from the phase (0) specified by a rule in layer mnist
I0426 20:49:41.527422 31579 net.cpp:53] Initializing net from parameters: 
name: "LeNet"
state {
  phase: TEST
}
layer {
  name: "mnist"
  type: "Data"
  top: "data"
  top: "label"
  include {
    phase: TEST
  }
  transform_param {
    scale: 0.00390625
  }
  data_param {
    source: "examples/mnist/mnist_test_lmdb"
    batch_size: 100
    backend: LMDB
  }
}
layer {
  name: "conv0"
  type: "Convolution"
  bottom: "data"
  top: "conv0"
  param {
    lr_mult: 1
  }
  param {
    lr_mult: 2
  }
  convolution_param {
    num_output: 50
    kernel_size: 5
    stride: 1
    weight_filler {
      type: "xavier"
    }
    bias_filler {
      type: "constant"
    }
  }
}
layer {
  name: "pool0"
  type: "Pooling"
  bottom: "conv0"
  top: "pool0"
  pooling_param {
    pool: MAX
    kernel_size: 2
    stride: 2
  }
}
layer {
  name: "ip1"
  type: "InnerProduct"
  bottom: "pool0"
  top: "ip1"
  param {
    lr_mult: 1
  }
  param {
    lr_mult: 2
  }
  inner_product_param {
    num_output: 10
    weight_filler {
      type: "xavier"
    }
    bias_filler {
      type: "constant"
    }
  }
}
layer {
  name: "relu1"
  type: "ReLU"
  bottom: "ip1"
  top: "ip1"
}
layer {
  name: "accuracy"
  type: "Accuracy"
  bottom: "ip1"
  bottom: "label"
  top: "accuracy"
  include {
    phase: TEST
  }
}
layer {
  name: "loss"
  type: "SoftmaxWithLoss"
  bottom: "ip1"
  bottom: "label"
  top: "loss"
}
I0426 20:49:41.527473 31579 layer_factory.hpp:77] Creating layer mnist
I0426 20:49:41.527518 31579 db_lmdb.cpp:35] Opened lmdb examples/mnist/mnist_test_lmdb
I0426 20:49:41.527529 31579 net.cpp:86] Creating Layer mnist
I0426 20:49:41.527534 31579 net.cpp:382] mnist -> data
I0426 20:49:41.527541 31579 net.cpp:382] mnist -> label
I0426 20:49:41.527622 31579 data_layer.cpp:45] output data size: 100,1,28,28
I0426 20:49:41.529088 31579 net.cpp:124] Setting up mnist
I0426 20:49:41.529103 31579 net.cpp:131] Top shape: 100 1 28 28 (78400)
I0426 20:49:41.529109 31579 net.cpp:131] Top shape: 100 (100)
I0426 20:49:41.529111 31579 net.cpp:139] Memory required for data: 314000
I0426 20:49:41.529125 31579 layer_factory.hpp:77] Creating layer label_mnist_1_split
I0426 20:49:41.529137 31579 net.cpp:86] Creating Layer label_mnist_1_split
I0426 20:49:41.529140 31579 net.cpp:408] label_mnist_1_split <- label
I0426 20:49:41.529146 31579 net.cpp:382] label_mnist_1_split -> label_mnist_1_split_0
I0426 20:49:41.529168 31579 net.cpp:382] label_mnist_1_split -> label_mnist_1_split_1
I0426 20:49:41.529278 31579 net.cpp:124] Setting up label_mnist_1_split
I0426 20:49:41.529285 31579 net.cpp:131] Top shape: 100 (100)
I0426 20:49:41.529289 31579 net.cpp:131] Top shape: 100 (100)
I0426 20:49:41.529292 31579 net.cpp:139] Memory required for data: 314800
I0426 20:49:41.529295 31579 layer_factory.hpp:77] Creating layer conv0
I0426 20:49:41.529304 31579 net.cpp:86] Creating Layer conv0
I0426 20:49:41.529306 31579 net.cpp:408] conv0 <- data
I0426 20:49:41.529311 31579 net.cpp:382] conv0 -> conv0
I0426 20:49:41.531178 31579 net.cpp:124] Setting up conv0
I0426 20:49:41.531193 31579 net.cpp:131] Top shape: 100 50 24 24 (2880000)
I0426 20:49:41.531196 31579 net.cpp:139] Memory required for data: 11834800
I0426 20:49:41.531220 31579 layer_factory.hpp:77] Creating layer pool0
I0426 20:49:41.531242 31579 net.cpp:86] Creating Layer pool0
I0426 20:49:41.531245 31579 net.cpp:408] pool0 <- conv0
I0426 20:49:41.531265 31579 net.cpp:382] pool0 -> pool0
I0426 20:49:41.531298 31579 net.cpp:124] Setting up pool0
I0426 20:49:41.531303 31579 net.cpp:131] Top shape: 100 50 12 12 (720000)
I0426 20:49:41.531306 31579 net.cpp:139] Memory required for data: 14714800
I0426 20:49:41.531309 31579 layer_factory.hpp:77] Creating layer ip1
I0426 20:49:41.531316 31579 net.cpp:86] Creating Layer ip1
I0426 20:49:41.531318 31579 net.cpp:408] ip1 <- pool0
I0426 20:49:41.531322 31579 net.cpp:382] ip1 -> ip1
I0426 20:49:41.531850 31579 net.cpp:124] Setting up ip1
I0426 20:49:41.531859 31579 net.cpp:131] Top shape: 100 10 (1000)
I0426 20:49:41.531862 31579 net.cpp:139] Memory required for data: 14718800
I0426 20:49:41.531868 31579 layer_factory.hpp:77] Creating layer relu1
I0426 20:49:41.531873 31579 net.cpp:86] Creating Layer relu1
I0426 20:49:41.531877 31579 net.cpp:408] relu1 <- ip1
I0426 20:49:41.531880 31579 net.cpp:369] relu1 -> ip1 (in-place)
I0426 20:49:41.532130 31579 net.cpp:124] Setting up relu1
I0426 20:49:41.532140 31579 net.cpp:131] Top shape: 100 10 (1000)
I0426 20:49:41.532143 31579 net.cpp:139] Memory required for data: 14722800
I0426 20:49:41.532146 31579 layer_factory.hpp:77] Creating layer ip1_relu1_0_split
I0426 20:49:41.532150 31579 net.cpp:86] Creating Layer ip1_relu1_0_split
I0426 20:49:41.532169 31579 net.cpp:408] ip1_relu1_0_split <- ip1
I0426 20:49:41.532173 31579 net.cpp:382] ip1_relu1_0_split -> ip1_relu1_0_split_0
I0426 20:49:41.532179 31579 net.cpp:382] ip1_relu1_0_split -> ip1_relu1_0_split_1
I0426 20:49:41.532243 31579 net.cpp:124] Setting up ip1_relu1_0_split
I0426 20:49:41.532249 31579 net.cpp:131] Top shape: 100 10 (1000)
I0426 20:49:41.532253 31579 net.cpp:131] Top shape: 100 10 (1000)
I0426 20:49:41.532256 31579 net.cpp:139] Memory required for data: 14730800
I0426 20:49:41.532260 31579 layer_factory.hpp:77] Creating layer accuracy
I0426 20:49:41.532265 31579 net.cpp:86] Creating Layer accuracy
I0426 20:49:41.532275 31579 net.cpp:408] accuracy <- ip1_relu1_0_split_0
I0426 20:49:41.532285 31579 net.cpp:408] accuracy <- label_mnist_1_split_0
I0426 20:49:41.532291 31579 net.cpp:382] accuracy -> accuracy
…
