…
I0426 20:54:21.358029 32652 net.cpp:296] The NetState phase (0) differed from the phase (1) specified by a rule in layer mnist
I0426 20:54:21.358050 32652 net.cpp:296] The NetState phase (0) differed from the phase (1) specified by a rule in layer accuracy
I0426 20:54:21.358168 32652 net.cpp:53] Initializing net from parameters: 
name: "LeNet"
state {
  phase: TRAIN
  level: 0
  stage: ""
}
layer {
  name: "mnist"
  type: "Data"
  top: "data"
  top: "label"
  include {
    phase: TRAIN
  }
  transform_param {
    scale: 0.00390625
  }
  data_param {
    source: "examples/mnist/mnist_train_lmdb"
    batch_size: 64
    backend: LMDB
  }
}
layer {
  name: "conv0"
  type: "Convolution"
  bottom: "data"
  top: "conv0"
  param {
    lr_mult: 1
  }
  param {
    lr_mult: 2
  }
  convolution_param {
    num_output: 50
    kernel_size: 5
    stride: 1
    weight_filler {
      type: "xavier"
    }
    bias_filler {
      type: "constant"
    }
  }
}
layer {
  name: "pool0"
  type: "Pooling"
  bottom: "conv0"
  top: "pool0"
  pooling_param {
    pool: MAX
    kernel_size: 2
    stride: 2
  }
}
layer {
  name: "conv1"
  type: "Convolution"
  bottom: "pool0"
  top: "conv1"
  param {
    lr_mult: 1
  }
  param {
    lr_mult: 2
  }
  convolution_param {
    num_output: 25
    kernel_size: 5
    stride: 1
    weight_filler {
      type: "xavier"
    }
    bias_filler {
      type: "constant"
    }
  }
}
layer {
  name: "pool1"
  type: "Pooling"
  bottom: "conv1"
  top: "pool1"
  pooling_param {
    pool: MAX
    kernel_size: 2
    stride: 2
  }
}
layer {
  name: "ip1"
  type: "InnerProduct"
  bottom: "pool1"
  top: "ip1"
  param {
    lr_mult: 1
  }
  param {
    lr_mult: 2
  }
  inner_product_param {
    num_output: 100
    weight_filler {
      type: "xavier"
    }
    bias_filler {
      type: "constant"
    }
  }
}
layer {
  name: "relu1"
  type: "ReLU"
  bottom: "ip1"
  top: "ip1"
}
layer {
  name: "ip2"
  type: "InnerProduct"
  bottom: "ip1"
  top: "ip2"
  param {
    lr_mult: 1
  }
  param {
    lr_mult: 2
  }
  inner_product_param {
    num_output: 10
    weight_filler {
      type: "xavier"
    }
    bias_filler {
      type: "constant"
    }
  }
}
layer {
  name: "relu2"
  type: "ReLU"
  bottom: "ip2"
  top: "ip2"
}
layer {
  name: "loss"
  type: "SoftmaxWithLoss"
  bottom: "ip2"
  bottom: "label"
  top: "loss"
}
I0426 20:54:21.358276 32652 layer_factory.hpp:77] Creating layer mnist
I0426 20:54:21.358413 32652 db_lmdb.cpp:35] Opened lmdb examples/mnist/mnist_train_lmdb
I0426 20:54:21.358448 32652 net.cpp:86] Creating Layer mnist
I0426 20:54:21.358464 32652 net.cpp:382] mnist -> data
I0426 20:54:21.358494 32652 net.cpp:382] mnist -> label
I0426 20:54:21.359693 32652 data_layer.cpp:45] output data size: 64,1,28,28
I0426 20:54:21.362264 32652 net.cpp:124] Setting up mnist
I0426 20:54:21.362282 32652 net.cpp:131] Top shape: 64 1 28 28 (50176)
I0426 20:54:21.362290 32652 net.cpp:131] Top shape: 64 (64)
I0426 20:54:21.362293 32652 net.cpp:139] Memory required for data: 200960
I0426 20:54:21.362301 32652 layer_factory.hpp:77] Creating layer conv0
I0426 20:54:21.362323 32652 net.cpp:86] Creating Layer conv0
I0426 20:54:21.362331 32652 net.cpp:408] conv0 <- data
I0426 20:54:21.362352 32652 net.cpp:382] conv0 -> conv0
I0426 20:54:21.640866 32652 net.cpp:124] Setting up conv0
I0426 20:54:21.640892 32652 net.cpp:131] Top shape: 64 50 24 24 (1843200)
I0426 20:54:21.640895 32652 net.cpp:139] Memory required for data: 7573760
I0426 20:54:21.640970 32652 layer_factory.hpp:77] Creating layer pool0
I0426 20:54:21.640991 32652 net.cpp:86] Creating Layer pool0
I0426 20:54:21.640998 32652 net.cpp:408] pool0 <- conv0
I0426 20:54:21.641007 32652 net.cpp:382] pool0 -> pool0
I0426 20:54:21.641062 32652 net.cpp:124] Setting up pool0
I0426 20:54:21.641072 32652 net.cpp:131] Top shape: 64 50 12 12 (460800)
I0426 20:54:21.641074 32652 net.cpp:139] Memory required for data: 9416960
I0426 20:54:21.641079 32652 layer_factory.hpp:77] Creating layer conv1
I0426 20:54:21.641094 32652 net.cpp:86] Creating Layer conv1
I0426 20:54:21.641101 32652 net.cpp:408] conv1 <- pool0
I0426 20:54:21.641109 32652 net.cpp:382] conv1 -> conv1
I0426 20:54:21.643213 32652 net.cpp:124] Setting up conv1
I0426 20:54:21.643226 32652 net.cpp:131] Top shape: 64 25 8 8 (102400)
I0426 20:54:21.643229 32652 net.cpp:139] Memory required for data: 9826560
I0426 20:54:21.643237 32652 layer_factory.hpp:77] Creating layer pool1
I0426 20:54:21.643244 32652 net.cpp:86] Creating Layer pool1
I0426 20:54:21.643249 32652 net.cpp:408] pool1 <- conv1
I0426 20:54:21.643252 32652 net.cpp:382] pool1 -> pool1
I0426 20:54:21.643299 32652 net.cpp:124] Setting up pool1
I0426 20:54:21.643311 32652 net.cpp:131] Top shape: 64 25 4 4 (25600)
I0426 20:54:21.643313 32652 net.cpp:139] Memory required for data: 9928960
I0426 20:54:21.643317 32652 layer_factory.hpp:77] Creating layer ip1
I0426 20:54:21.643327 32652 net.cpp:86] Creating Layer ip1
I0426 20:54:21.643333 32652 net.cpp:408] ip1 <- pool1
I0426 20:54:21.643342 32652 net.cpp:382] ip1 -> ip1
I0426 20:54:21.643671 32652 net.cpp:124] Setting up ip1
I0426 20:54:21.643679 32652 net.cpp:131] Top shape: 64 100 (6400)
I0426 20:54:21.643683 32652 net.cpp:139] Memory required for data: 9954560
I0426 20:54:21.643694 32652 layer_factory.hpp:77] Creating layer relu1
I0426 20:54:21.643707 32652 net.cpp:86] Creating Layer relu1
I0426 20:54:21.643712 32652 net.cpp:408] relu1 <- ip1
I0426 20:54:21.643719 32652 net.cpp:369] relu1 -> ip1 (in-place)
I0426 20:54:21.643921 32652 net.cpp:124] Setting up relu1
I0426 20:54:21.643931 32652 net.cpp:131] Top shape: 64 100 (6400)
I0426 20:54:21.643935 32652 net.cpp:139] Memory required for data: 9980160
I0426 20:54:21.643940 32652 layer_factory.hpp:77] Creating layer ip2
I0426 20:54:21.643950 32652 net.cpp:86] Creating Layer ip2
I0426 20:54:21.643956 32652 net.cpp:408] ip2 <- ip1
I0426 20:54:21.643965 32652 net.cpp:382] ip2 -> ip2
I0426 20:54:21.644071 32652 net.cpp:124] Setting up ip2
I0426 20:54:21.644079 32652 net.cpp:131] Top shape: 64 10 (640)
I0426 20:54:21.644083 32652 net.cpp:139] Memory required for data: 9982720
I0426 20:54:21.644091 32652 layer_factory.hpp:77] Creating layer relu2
I0426 20:54:21.644100 32652 net.cpp:86] Creating Layer relu2
I0426 20:54:21.644107 32652 net.cpp:408] relu2 <- ip2
I0426 20:54:21.644114 32652 net.cpp:369] relu2 -> ip2 (in-place)
I0426 20:54:21.644902 32652 net.cpp:124] Setting up relu2
I0426 20:54:21.644915 32652 net.cpp:131] Top shape: 64 10 (640)
I0426 20:54:21.644918 32652 net.cpp:139] Memory required for data: 9985280
I0426 20:54:21.644923 32652 layer_factory.hpp:77] Creating layer loss
I0426 20:54:21.644937 32652 net.cpp:86] Creating Layer loss
I0426 20:54:21.644944 32652 net.cpp:408] loss <- ip2
I0426 20:54:21.644969 32652 net.cpp:408] loss <- label
I0426 20:54:21.644979 32652 net.cpp:382] loss -> loss
I0426 20:54:21.645000 32652 layer_factory.hpp:77] Creating layer loss
…
I0426 20:54:21.645674 32652 solver.cpp:173] Creating test net (#0) specified by net file: ECE595/mnist/train_test/var_everything/lenet_train_test157.prototxt
I0426 20:54:21.645706 32652 net.cpp:296] The NetState phase (1) differed from the phase (0) specified by a rule in layer mnist
I0426 20:54:21.645795 32652 net.cpp:53] Initializing net from parameters: 
name: "LeNet"
state {
  phase: TEST
}
layer {
  name: "mnist"
  type: "Data"
  top: "data"
  top: "label"
  include {
    phase: TEST
  }
  transform_param {
    scale: 0.00390625
  }
  data_param {
    source: "examples/mnist/mnist_test_lmdb"
    batch_size: 100
    backend: LMDB
  }
}
layer {
  name: "conv0"
  type: "Convolution"
  bottom: "data"
  top: "conv0"
  param {
    lr_mult: 1
  }
  param {
    lr_mult: 2
  }
  convolution_param {
    num_output: 50
    kernel_size: 5
    stride: 1
    weight_filler {
      type: "xavier"
    }
    bias_filler {
      type: "constant"
    }
  }
}
layer {
  name: "pool0"
  type: "Pooling"
  bottom: "conv0"
  top: "pool0"
  pooling_param {
    pool: MAX
    kernel_size: 2
    stride: 2
  }
}
layer {
  name: "conv1"
  type: "Convolution"
  bottom: "pool0"
  top: "conv1"
  param {
    lr_mult: 1
  }
  param {
    lr_mult: 2
  }
  convolution_param {
    num_output: 25
    kernel_size: 5
    stride: 1
    weight_filler {
      type: "xavier"
    }
    bias_filler {
      type: "constant"
    }
  }
}
layer {
  name: "pool1"
  type: "Pooling"
  bottom: "conv1"
  top: "pool1"
  pooling_param {
    pool: MAX
    kernel_size: 2
    stride: 2
  }
}
layer {
  name: "ip1"
  type: "InnerProduct"
  bottom: "pool1"
  top: "ip1"
  param {
    lr_mult: 1
  }
  param {
    lr_mult: 2
  }
  inner_product_param {
    num_output: 100
    weight_filler {
      type: "xavier"
    }
    bias_filler {
      type: "constant"
    }
  }
}
layer {
  name: "relu1"
  type: "ReLU"
  bottom: "ip1"
  top: "ip1"
}
layer {
  name: "ip2"
  type: "InnerProduct"
  bottom: "ip1"
  top: "ip2"
  param {
    lr_mult: 1
  }
  param {
    lr_mult: 2
  }
  inner_product_param {
    num_output: 10
    weight_filler {
      type: "xavier"
    }
    bias_filler {
      type: "constant"
    }
  }
}
layer {
  name: "relu2"
  type: "ReLU"
  bottom: "ip2"
  top: "ip2"
}
layer {
  name: "accuracy"
  type: "Accuracy"
  bottom: "ip2"
  bottom: "label"
  top: "accuracy"
  include {
    phase: TEST
  }
}
layer {
  name: "loss"
  type: "SoftmaxWithLoss"
  bottom: "ip2"
  bottom: "label"
  top: "loss"
}
I0426 20:54:21.645887 32652 layer_factory.hpp:77] Creating layer mnist
I0426 20:54:21.645946 32652 db_lmdb.cpp:35] Opened lmdb examples/mnist/mnist_test_lmdb
I0426 20:54:21.645961 32652 net.cpp:86] Creating Layer mnist
I0426 20:54:21.645970 32652 net.cpp:382] mnist -> data
I0426 20:54:21.645982 32652 net.cpp:382] mnist -> label
I0426 20:54:21.646116 32652 data_layer.cpp:45] output data size: 100,1,28,28
I0426 20:54:21.648093 32652 net.cpp:124] Setting up mnist
I0426 20:54:21.648106 32652 net.cpp:131] Top shape: 100 1 28 28 (78400)
I0426 20:54:21.648126 32652 net.cpp:131] Top shape: 100 (100)
I0426 20:54:21.648129 32652 net.cpp:139] Memory required for data: 314000
I0426 20:54:21.648133 32652 layer_factory.hpp:77] Creating layer label_mnist_1_split
I0426 20:54:21.648139 32652 net.cpp:86] Creating Layer label_mnist_1_split
I0426 20:54:21.648142 32652 net.cpp:408] label_mnist_1_split <- label
I0426 20:54:21.648149 32652 net.cpp:382] label_mnist_1_split -> label_mnist_1_split_0
I0426 20:54:21.648154 32652 net.cpp:382] label_mnist_1_split -> label_mnist_1_split_1
I0426 20:54:21.648290 32652 net.cpp:124] Setting up label_mnist_1_split
I0426 20:54:21.648301 32652 net.cpp:131] Top shape: 100 (100)
I0426 20:54:21.648305 32652 net.cpp:131] Top shape: 100 (100)
I0426 20:54:21.648308 32652 net.cpp:139] Memory required for data: 314800
I0426 20:54:21.648311 32652 layer_factory.hpp:77] Creating layer conv0
I0426 20:54:21.648320 32652 net.cpp:86] Creating Layer conv0
I0426 20:54:21.648327 32652 net.cpp:408] conv0 <- data
I0426 20:54:21.648351 32652 net.cpp:382] conv0 -> conv0
I0426 20:54:21.650045 32652 net.cpp:124] Setting up conv0
I0426 20:54:21.650074 32652 net.cpp:131] Top shape: 100 50 24 24 (2880000)
I0426 20:54:21.650077 32652 net.cpp:139] Memory required for data: 11834800
I0426 20:54:21.650086 32652 layer_factory.hpp:77] Creating layer pool0
I0426 20:54:21.650094 32652 net.cpp:86] Creating Layer pool0
I0426 20:54:21.650099 32652 net.cpp:408] pool0 <- conv0
I0426 20:54:21.650104 32652 net.cpp:382] pool0 -> pool0
I0426 20:54:21.650156 32652 net.cpp:124] Setting up pool0
I0426 20:54:21.650182 32652 net.cpp:131] Top shape: 100 50 12 12 (720000)
I0426 20:54:21.650187 32652 net.cpp:139] Memory required for data: 14714800
I0426 20:54:21.650192 32652 layer_factory.hpp:77] Creating layer conv1
I0426 20:54:21.650208 32652 net.cpp:86] Creating Layer conv1
I0426 20:54:21.650214 32652 net.cpp:408] conv1 <- pool0
I0426 20:54:21.650238 32652 net.cpp:382] conv1 -> conv1
I0426 20:54:21.651939 32652 net.cpp:124] Setting up conv1
I0426 20:54:21.651952 32652 net.cpp:131] Top shape: 100 25 8 8 (160000)
I0426 20:54:21.651971 32652 net.cpp:139] Memory required for data: 15354800
I0426 20:54:21.651979 32652 layer_factory.hpp:77] Creating layer pool1
I0426 20:54:21.651985 32652 net.cpp:86] Creating Layer pool1
I0426 20:54:21.651988 32652 net.cpp:408] pool1 <- conv1
I0426 20:54:21.651993 32652 net.cpp:382] pool1 -> pool1
I0426 20:54:21.652046 32652 net.cpp:124] Setting up pool1
I0426 20:54:21.652056 32652 net.cpp:131] Top shape: 100 25 4 4 (40000)
I0426 20:54:21.652061 32652 net.cpp:139] Memory required for data: 15514800
I0426 20:54:21.652066 32652 layer_factory.hpp:77] Creating layer ip1
I0426 20:54:21.652076 32652 net.cpp:86] Creating Layer ip1
I0426 20:54:21.652081 32652 net.cpp:408] ip1 <- pool1
I0426 20:54:21.652091 32652 net.cpp:382] ip1 -> ip1
I0426 20:54:21.652438 32652 net.cpp:124] Setting up ip1
I0426 20:54:21.652446 32652 net.cpp:131] Top shape: 100 100 (10000)
I0426 20:54:21.652464 32652 net.cpp:139] Memory required for data: 15554800
I0426 20:54:21.652472 32652 layer_factory.hpp:77] Creating layer relu1
I0426 20:54:21.652482 32652 net.cpp:86] Creating Layer relu1
I0426 20:54:21.652487 32652 net.cpp:408] relu1 <- ip1
I0426 20:54:21.652492 32652 net.cpp:369] relu1 -> ip1 (in-place)
I0426 20:54:21.652688 32652 net.cpp:124] Setting up relu1
I0426 20:54:21.652703 32652 net.cpp:131] Top shape: 100 100 (10000)
I0426 20:54:21.652705 32652 net.cpp:139] Memory required for data: 15594800
I0426 20:54:21.652717 32652 layer_factory.hpp:77] Creating layer ip2
I0426 20:54:21.652729 32652 net.cpp:86] Creating Layer ip2
I0426 20:54:21.652735 32652 net.cpp:408] ip2 <- ip1
I0426 20:54:21.652745 32652 net.cpp:382] ip2 -> ip2
I0426 20:54:21.652905 32652 net.cpp:124] Setting up ip2
I0426 20:54:21.652915 32652 net.cpp:131] Top shape: 100 10 (1000)
I0426 20:54:21.652917 32652 net.cpp:139] Memory required for data: 15598800
I0426 20:54:21.652925 32652 layer_factory.hpp:77] Creating layer relu2
I0426 20:54:21.652932 32652 net.cpp:86] Creating Layer relu2
I0426 20:54:21.652937 32652 net.cpp:408] relu2 <- ip2
I0426 20:54:21.652945 32652 net.cpp:369] relu2 -> ip2 (in-place)
I0426 20:54:21.653187 32652 net.cpp:124] Setting up relu2
I0426 20:54:21.653197 32652 net.cpp:131] Top shape: 100 10 (1000)
I0426 20:54:21.653199 32652 net.cpp:139] Memory required for data: 15602800
I0426 20:54:21.653203 32652 layer_factory.hpp:77] Creating layer ip2_relu2_0_split
I0426 20:54:21.653210 32652 net.cpp:86] Creating Layer ip2_relu2_0_split
I0426 20:54:21.653216 32652 net.cpp:408] ip2_relu2_0_split <- ip2
I0426 20:54:21.653223 32652 net.cpp:382] ip2_relu2_0_split -> ip2_relu2_0_split_0
I0426 20:54:21.653246 32652 net.cpp:382] ip2_relu2_0_split -> ip2_relu2_0_split_1
I0426 20:54:21.653304 32652 net.cpp:124] Setting up ip2_relu2_0_split
I0426 20:54:21.653313 32652 net.cpp:131] Top shape: 100 10 (1000)
I0426 20:54:21.653318 32652 net.cpp:131] Top shape: 100 10 (1000)
I0426 20:54:21.653322 32652 net.cpp:139] Memory required for data: 15610800
I0426 20:54:21.653327 32652 layer_factory.hpp:77] Creating layer accuracy
I0426 20:54:21.653337 32652 net.cpp:86] Creating Layer accuracy
I0426 20:54:21.653344 32652 net.cpp:408] accuracy <- ip2_relu2_0_split_0
I0426 20:54:21.653352 32652 net.cpp:408] accuracy <- label_mnist_1_split_0
I0426 20:54:21.653358 32652 net.cpp:382] accuracy -> accuracy
…
