…
I0426 20:54:35.247912 32697 net.cpp:296] The NetState phase (0) differed from the phase (1) specified by a rule in layer mnist
I0426 20:54:35.247930 32697 net.cpp:296] The NetState phase (0) differed from the phase (1) specified by a rule in layer accuracy
I0426 20:54:35.248018 32697 net.cpp:53] Initializing net from parameters: 
name: "LeNet"
state {
  phase: TRAIN
  level: 0
  stage: ""
}
layer {
  name: "mnist"
  type: "Data"
  top: "data"
  top: "label"
  include {
    phase: TRAIN
  }
  transform_param {
    scale: 0.00390625
  }
  data_param {
    source: "examples/mnist/mnist_train_lmdb"
    batch_size: 64
    backend: LMDB
  }
}
layer {
  name: "conv0"
  type: "Convolution"
  bottom: "data"
  top: "conv0"
  param {
    lr_mult: 1
  }
  param {
    lr_mult: 2
  }
  convolution_param {
    num_output: 50
    kernel_size: 5
    stride: 1
    weight_filler {
      type: "xavier"
    }
    bias_filler {
      type: "constant"
    }
  }
}
layer {
  name: "pool0"
  type: "Pooling"
  bottom: "conv0"
  top: "pool0"
  pooling_param {
    pool: MAX
    kernel_size: 2
    stride: 2
  }
}
layer {
  name: "conv1"
  type: "Convolution"
  bottom: "pool0"
  top: "conv1"
  param {
    lr_mult: 1
  }
  param {
    lr_mult: 2
  }
  convolution_param {
    num_output: 25
    kernel_size: 5
    stride: 1
    weight_filler {
      type: "xavier"
    }
    bias_filler {
      type: "constant"
    }
  }
}
layer {
  name: "pool1"
  type: "Pooling"
  bottom: "conv1"
  top: "pool1"
  pooling_param {
    pool: MAX
    kernel_size: 2
    stride: 2
  }
}
layer {
  name: "ip1"
  type: "InnerProduct"
  bottom: "pool1"
  top: "ip1"
  param {
    lr_mult: 1
  }
  param {
    lr_mult: 2
  }
  inner_product_param {
    num_output: 100
    weight_filler {
      type: "xavier"
    }
    bias_filler {
      type: "constant"
    }
  }
}
layer {
  name: "relu1"
  type: "ReLU"
  bottom: "ip1"
  top: "ip1"
}
layer {
  name: "ip2"
  type: "InnerProduct"
  bottom: "ip1"
  top: "ip2"
  param {
    lr_mult: 1
  }
  param {
    lr_mult: 2
  }
  inner_product_param {
    num_output: 300
    weight_filler {
      type: "xavier"
    }
    bias_filler {
      type: "constant"
    }
  }
}
layer {
  name: "relu2"
  type: "ReLU"
  bottom: "ip2"
  top: "ip2"
}
layer {
  name: "ip3"
  type: "InnerProduct"
  bottom: "ip2"
  top: "ip3"
  param {
    lr_mult: 1
  }
  param {
    lr_mult: 2
  }
  inner_product_param {
    num_output: 10
    weight_filler {
      type: "xavier"
    }
    bias_filler {
      type: "constant"
    }
  }
}
layer {
  name: "relu3"
  type: "ReLU"
  bottom: "ip3"
  top: "ip3"
}
layer {
  name: "loss"
  type: "SoftmaxWithLoss"
  bottom: "ip3"
  bottom: "label"
  top: "loss"
}
I0426 20:54:35.248111 32697 layer_factory.hpp:77] Creating layer mnist
I0426 20:54:35.248236 32697 db_lmdb.cpp:35] Opened lmdb examples/mnist/mnist_train_lmdb
I0426 20:54:35.248263 32697 net.cpp:86] Creating Layer mnist
I0426 20:54:35.248273 32697 net.cpp:382] mnist -> data
I0426 20:54:35.248298 32697 net.cpp:382] mnist -> label
I0426 20:54:35.249486 32697 data_layer.cpp:45] output data size: 64,1,28,28
I0426 20:54:35.251549 32697 net.cpp:124] Setting up mnist
I0426 20:54:35.251562 32697 net.cpp:131] Top shape: 64 1 28 28 (50176)
I0426 20:54:35.251567 32697 net.cpp:131] Top shape: 64 (64)
I0426 20:54:35.251569 32697 net.cpp:139] Memory required for data: 200960
I0426 20:54:35.251574 32697 layer_factory.hpp:77] Creating layer conv0
I0426 20:54:35.251616 32697 net.cpp:86] Creating Layer conv0
I0426 20:54:35.251641 32697 net.cpp:408] conv0 <- data
I0426 20:54:35.251655 32697 net.cpp:382] conv0 -> conv0
I0426 20:54:35.475723 32697 net.cpp:124] Setting up conv0
I0426 20:54:35.475765 32697 net.cpp:131] Top shape: 64 50 24 24 (1843200)
I0426 20:54:35.475769 32697 net.cpp:139] Memory required for data: 7573760
I0426 20:54:35.475785 32697 layer_factory.hpp:77] Creating layer pool0
I0426 20:54:35.475797 32697 net.cpp:86] Creating Layer pool0
I0426 20:54:35.475801 32697 net.cpp:408] pool0 <- conv0
I0426 20:54:35.475807 32697 net.cpp:382] pool0 -> pool0
I0426 20:54:35.475878 32697 net.cpp:124] Setting up pool0
I0426 20:54:35.475890 32697 net.cpp:131] Top shape: 64 50 12 12 (460800)
I0426 20:54:35.475894 32697 net.cpp:139] Memory required for data: 9416960
I0426 20:54:35.475899 32697 layer_factory.hpp:77] Creating layer conv1
I0426 20:54:35.475914 32697 net.cpp:86] Creating Layer conv1
I0426 20:54:35.475919 32697 net.cpp:408] conv1 <- pool0
I0426 20:54:35.475926 32697 net.cpp:382] conv1 -> conv1
I0426 20:54:35.477941 32697 net.cpp:124] Setting up conv1
I0426 20:54:35.477969 32697 net.cpp:131] Top shape: 64 25 8 8 (102400)
I0426 20:54:35.477973 32697 net.cpp:139] Memory required for data: 9826560
I0426 20:54:35.477980 32697 layer_factory.hpp:77] Creating layer pool1
I0426 20:54:35.477988 32697 net.cpp:86] Creating Layer pool1
I0426 20:54:35.477993 32697 net.cpp:408] pool1 <- conv1
I0426 20:54:35.477996 32697 net.cpp:382] pool1 -> pool1
I0426 20:54:35.478061 32697 net.cpp:124] Setting up pool1
I0426 20:54:35.478070 32697 net.cpp:131] Top shape: 64 25 4 4 (25600)
I0426 20:54:35.478073 32697 net.cpp:139] Memory required for data: 9928960
I0426 20:54:35.478077 32697 layer_factory.hpp:77] Creating layer ip1
I0426 20:54:35.478087 32697 net.cpp:86] Creating Layer ip1
I0426 20:54:35.478091 32697 net.cpp:408] ip1 <- pool1
I0426 20:54:35.478101 32697 net.cpp:382] ip1 -> ip1
I0426 20:54:35.478410 32697 net.cpp:124] Setting up ip1
I0426 20:54:35.478418 32697 net.cpp:131] Top shape: 64 100 (6400)
I0426 20:54:35.478421 32697 net.cpp:139] Memory required for data: 9954560
I0426 20:54:35.478428 32697 layer_factory.hpp:77] Creating layer relu1
I0426 20:54:35.478437 32697 net.cpp:86] Creating Layer relu1
I0426 20:54:35.478442 32697 net.cpp:408] relu1 <- ip1
I0426 20:54:35.478451 32697 net.cpp:369] relu1 -> ip1 (in-place)
I0426 20:54:35.478617 32697 net.cpp:124] Setting up relu1
I0426 20:54:35.478627 32697 net.cpp:131] Top shape: 64 100 (6400)
I0426 20:54:35.478631 32697 net.cpp:139] Memory required for data: 9980160
I0426 20:54:35.478633 32697 layer_factory.hpp:77] Creating layer ip2
I0426 20:54:35.478643 32697 net.cpp:86] Creating Layer ip2
I0426 20:54:35.478648 32697 net.cpp:408] ip2 <- ip1
I0426 20:54:35.478655 32697 net.cpp:382] ip2 -> ip2
I0426 20:54:35.478935 32697 net.cpp:124] Setting up ip2
I0426 20:54:35.478943 32697 net.cpp:131] Top shape: 64 300 (19200)
I0426 20:54:35.478945 32697 net.cpp:139] Memory required for data: 10056960
I0426 20:54:35.478952 32697 layer_factory.hpp:77] Creating layer relu2
I0426 20:54:35.478963 32697 net.cpp:86] Creating Layer relu2
I0426 20:54:35.478968 32697 net.cpp:408] relu2 <- ip2
I0426 20:54:35.478976 32697 net.cpp:369] relu2 -> ip2 (in-place)
I0426 20:54:35.479773 32697 net.cpp:124] Setting up relu2
I0426 20:54:35.479784 32697 net.cpp:131] Top shape: 64 300 (19200)
I0426 20:54:35.479787 32697 net.cpp:139] Memory required for data: 10133760
I0426 20:54:35.479790 32697 layer_factory.hpp:77] Creating layer ip3
I0426 20:54:35.479800 32697 net.cpp:86] Creating Layer ip3
I0426 20:54:35.479805 32697 net.cpp:408] ip3 <- ip2
I0426 20:54:35.479815 32697 net.cpp:382] ip3 -> ip3
I0426 20:54:35.479959 32697 net.cpp:124] Setting up ip3
I0426 20:54:35.479969 32697 net.cpp:131] Top shape: 64 10 (640)
I0426 20:54:35.479971 32697 net.cpp:139] Memory required for data: 10136320
I0426 20:54:35.479982 32697 layer_factory.hpp:77] Creating layer relu3
I0426 20:54:35.479990 32697 net.cpp:86] Creating Layer relu3
I0426 20:54:35.479995 32697 net.cpp:408] relu3 <- ip3
I0426 20:54:35.480001 32697 net.cpp:369] relu3 -> ip3 (in-place)
I0426 20:54:35.480183 32697 net.cpp:124] Setting up relu3
I0426 20:54:35.480192 32697 net.cpp:131] Top shape: 64 10 (640)
I0426 20:54:35.480195 32697 net.cpp:139] Memory required for data: 10138880
I0426 20:54:35.480199 32697 layer_factory.hpp:77] Creating layer loss
I0426 20:54:35.480207 32697 net.cpp:86] Creating Layer loss
I0426 20:54:35.480212 32697 net.cpp:408] loss <- ip3
I0426 20:54:35.480217 32697 net.cpp:408] loss <- label
I0426 20:54:35.480226 32697 net.cpp:382] loss -> loss
I0426 20:54:35.480264 32697 layer_factory.hpp:77] Creating layer loss
…
I0426 20:54:35.480955 32697 solver.cpp:173] Creating test net (#0) specified by net file: ECE595/mnist/train_test/var_everything/lenet_train_test162.prototxt
I0426 20:54:35.480993 32697 net.cpp:296] The NetState phase (1) differed from the phase (0) specified by a rule in layer mnist
I0426 20:54:35.481117 32697 net.cpp:53] Initializing net from parameters: 
name: "LeNet"
state {
  phase: TEST
}
layer {
  name: "mnist"
  type: "Data"
  top: "data"
  top: "label"
  include {
    phase: TEST
  }
  transform_param {
    scale: 0.00390625
  }
  data_param {
    source: "examples/mnist/mnist_test_lmdb"
    batch_size: 100
    backend: LMDB
  }
}
layer {
  name: "conv0"
  type: "Convolution"
  bottom: "data"
  top: "conv0"
  param {
    lr_mult: 1
  }
  param {
    lr_mult: 2
  }
  convolution_param {
    num_output: 50
    kernel_size: 5
    stride: 1
    weight_filler {
      type: "xavier"
    }
    bias_filler {
      type: "constant"
    }
  }
}
layer {
  name: "pool0"
  type: "Pooling"
  bottom: "conv0"
  top: "pool0"
  pooling_param {
    pool: MAX
    kernel_size: 2
    stride: 2
  }
}
layer {
  name: "conv1"
  type: "Convolution"
  bottom: "pool0"
  top: "conv1"
  param {
    lr_mult: 1
  }
  param {
    lr_mult: 2
  }
  convolution_param {
    num_output: 25
    kernel_size: 5
    stride: 1
    weight_filler {
      type: "xavier"
    }
    bias_filler {
      type: "constant"
    }
  }
}
layer {
  name: "pool1"
  type: "Pooling"
  bottom: "conv1"
  top: "pool1"
  pooling_param {
    pool: MAX
    kernel_size: 2
    stride: 2
  }
}
layer {
  name: "ip1"
  type: "InnerProduct"
  bottom: "pool1"
  top: "ip1"
  param {
    lr_mult: 1
  }
  param {
    lr_mult: 2
  }
  inner_product_param {
    num_output: 100
    weight_filler {
      type: "xavier"
    }
    bias_filler {
      type: "constant"
    }
  }
}
layer {
  name: "relu1"
  type: "ReLU"
  bottom: "ip1"
  top: "ip1"
}
layer {
  name: "ip2"
  type: "InnerProduct"
  bottom: "ip1"
  top: "ip2"
  param {
    lr_mult: 1
  }
  param {
    lr_mult: 2
  }
  inner_product_param {
    num_output: 300
    weight_filler {
      type: "xavier"
    }
    bias_filler {
      type: "constant"
    }
  }
}
layer {
  name: "relu2"
  type: "ReLU"
  bottom: "ip2"
  top: "ip2"
}
layer {
  name: "ip3"
  type: "InnerProduct"
  bottom: "ip2"
  top: "ip3"
  param {
    lr_mult: 1
  }
  param {
    lr_mult: 2
  }
  inner_product_param {
    num_output: 10
    weight_filler {
      type: "xavier"
    }
    bias_filler {
      type: "constant"
    }
  }
}
layer {
  name: "relu3"
  type: "ReLU"
  bottom: "ip3"
  top: "ip3"
}
layer {
  name: "accuracy"
  type: "Accuracy"
  bottom: "ip3"
  bottom: "label"
  top: "accuracy"
  include {
    phase: TEST
  }
}
layer {
  name: "loss"
  type: "SoftmaxWithLoss"
  bottom: "ip3"
  bottom: "label"
  top: "loss"
}
I0426 20:54:35.481277 32697 layer_factory.hpp:77] Creating layer mnist
I0426 20:54:35.481329 32697 db_lmdb.cpp:35] Opened lmdb examples/mnist/mnist_test_lmdb
I0426 20:54:35.481364 32697 net.cpp:86] Creating Layer mnist
I0426 20:54:35.481374 32697 net.cpp:382] mnist -> data
I0426 20:54:35.481384 32697 net.cpp:382] mnist -> label
I0426 20:54:35.481495 32697 data_layer.cpp:45] output data size: 100,1,28,28
I0426 20:54:35.483536 32697 net.cpp:124] Setting up mnist
I0426 20:54:35.483547 32697 net.cpp:131] Top shape: 100 1 28 28 (78400)
I0426 20:54:35.483553 32697 net.cpp:131] Top shape: 100 (100)
I0426 20:54:35.483556 32697 net.cpp:139] Memory required for data: 314000
I0426 20:54:35.483558 32697 layer_factory.hpp:77] Creating layer label_mnist_1_split
I0426 20:54:35.483564 32697 net.cpp:86] Creating Layer label_mnist_1_split
I0426 20:54:35.483567 32697 net.cpp:408] label_mnist_1_split <- label
I0426 20:54:35.483572 32697 net.cpp:382] label_mnist_1_split -> label_mnist_1_split_0
I0426 20:54:35.483577 32697 net.cpp:382] label_mnist_1_split -> label_mnist_1_split_1
I0426 20:54:35.483638 32697 net.cpp:124] Setting up label_mnist_1_split
I0426 20:54:35.483645 32697 net.cpp:131] Top shape: 100 (100)
I0426 20:54:35.483650 32697 net.cpp:131] Top shape: 100 (100)
I0426 20:54:35.483654 32697 net.cpp:139] Memory required for data: 314800
I0426 20:54:35.483659 32697 layer_factory.hpp:77] Creating layer conv0
I0426 20:54:35.483671 32697 net.cpp:86] Creating Layer conv0
I0426 20:54:35.483676 32697 net.cpp:408] conv0 <- data
I0426 20:54:35.483685 32697 net.cpp:382] conv0 -> conv0
I0426 20:54:35.485265 32697 net.cpp:124] Setting up conv0
I0426 20:54:35.485277 32697 net.cpp:131] Top shape: 100 50 24 24 (2880000)
I0426 20:54:35.485280 32697 net.cpp:139] Memory required for data: 11834800
I0426 20:54:35.485288 32697 layer_factory.hpp:77] Creating layer pool0
I0426 20:54:35.485297 32697 net.cpp:86] Creating Layer pool0
I0426 20:54:35.485302 32697 net.cpp:408] pool0 <- conv0
I0426 20:54:35.485308 32697 net.cpp:382] pool0 -> pool0
I0426 20:54:35.485357 32697 net.cpp:124] Setting up pool0
I0426 20:54:35.485365 32697 net.cpp:131] Top shape: 100 50 12 12 (720000)
I0426 20:54:35.485369 32697 net.cpp:139] Memory required for data: 14714800
I0426 20:54:35.485374 32697 layer_factory.hpp:77] Creating layer conv1
I0426 20:54:35.485386 32697 net.cpp:86] Creating Layer conv1
I0426 20:54:35.485391 32697 net.cpp:408] conv1 <- pool0
I0426 20:54:35.485400 32697 net.cpp:382] conv1 -> conv1
I0426 20:54:35.487200 32697 net.cpp:124] Setting up conv1
I0426 20:54:35.487216 32697 net.cpp:131] Top shape: 100 25 8 8 (160000)
I0426 20:54:35.487221 32697 net.cpp:139] Memory required for data: 15354800
I0426 20:54:35.487236 32697 layer_factory.hpp:77] Creating layer pool1
I0426 20:54:35.487244 32697 net.cpp:86] Creating Layer pool1
I0426 20:54:35.487249 32697 net.cpp:408] pool1 <- conv1
I0426 20:54:35.487257 32697 net.cpp:382] pool1 -> pool1
I0426 20:54:35.487321 32697 net.cpp:124] Setting up pool1
I0426 20:54:35.487335 32697 net.cpp:131] Top shape: 100 25 4 4 (40000)
I0426 20:54:35.487344 32697 net.cpp:139] Memory required for data: 15514800
I0426 20:54:35.487347 32697 layer_factory.hpp:77] Creating layer ip1
I0426 20:54:35.487357 32697 net.cpp:86] Creating Layer ip1
I0426 20:54:35.487362 32697 net.cpp:408] ip1 <- pool1
I0426 20:54:35.487368 32697 net.cpp:382] ip1 -> ip1
I0426 20:54:35.487695 32697 net.cpp:124] Setting up ip1
I0426 20:54:35.487704 32697 net.cpp:131] Top shape: 100 100 (10000)
I0426 20:54:35.487717 32697 net.cpp:139] Memory required for data: 15554800
I0426 20:54:35.487728 32697 layer_factory.hpp:77] Creating layer relu1
I0426 20:54:35.487737 32697 net.cpp:86] Creating Layer relu1
I0426 20:54:35.487751 32697 net.cpp:408] relu1 <- ip1
I0426 20:54:35.487758 32697 net.cpp:369] relu1 -> ip1 (in-place)
I0426 20:54:35.487946 32697 net.cpp:124] Setting up relu1
I0426 20:54:35.487954 32697 net.cpp:131] Top shape: 100 100 (10000)
I0426 20:54:35.487958 32697 net.cpp:139] Memory required for data: 15594800
I0426 20:54:35.487962 32697 layer_factory.hpp:77] Creating layer ip2
I0426 20:54:35.487969 32697 net.cpp:86] Creating Layer ip2
I0426 20:54:35.487975 32697 net.cpp:408] ip2 <- ip1
I0426 20:54:35.487984 32697 net.cpp:382] ip2 -> ip2
I0426 20:54:35.488260 32697 net.cpp:124] Setting up ip2
I0426 20:54:35.488267 32697 net.cpp:131] Top shape: 100 300 (30000)
I0426 20:54:35.488271 32697 net.cpp:139] Memory required for data: 15714800
I0426 20:54:35.488276 32697 layer_factory.hpp:77] Creating layer relu2
I0426 20:54:35.488282 32697 net.cpp:86] Creating Layer relu2
I0426 20:54:35.488293 32697 net.cpp:408] relu2 <- ip2
I0426 20:54:35.488301 32697 net.cpp:369] relu2 -> ip2 (in-place)
I0426 20:54:35.488467 32697 net.cpp:124] Setting up relu2
I0426 20:54:35.488476 32697 net.cpp:131] Top shape: 100 300 (30000)
I0426 20:54:35.488479 32697 net.cpp:139] Memory required for data: 15834800
I0426 20:54:35.488482 32697 layer_factory.hpp:77] Creating layer ip3
I0426 20:54:35.488492 32697 net.cpp:86] Creating Layer ip3
I0426 20:54:35.488497 32697 net.cpp:408] ip3 <- ip2
I0426 20:54:35.488504 32697 net.cpp:382] ip3 -> ip3
I0426 20:54:35.488649 32697 net.cpp:124] Setting up ip3
I0426 20:54:35.488657 32697 net.cpp:131] Top shape: 100 10 (1000)
I0426 20:54:35.488662 32697 net.cpp:139] Memory required for data: 15838800
I0426 20:54:35.488672 32697 layer_factory.hpp:77] Creating layer relu3
I0426 20:54:35.488679 32697 net.cpp:86] Creating Layer relu3
I0426 20:54:35.488683 32697 net.cpp:408] relu3 <- ip3
I0426 20:54:35.488692 32697 net.cpp:369] relu3 -> ip3 (in-place)
I0426 20:54:35.489689 32697 net.cpp:124] Setting up relu3
I0426 20:54:35.489701 32697 net.cpp:131] Top shape: 100 10 (1000)
I0426 20:54:35.489704 32697 net.cpp:139] Memory required for data: 15842800
I0426 20:54:35.489707 32697 layer_factory.hpp:77] Creating layer ip3_relu3_0_split
I0426 20:54:35.489712 32697 net.cpp:86] Creating Layer ip3_relu3_0_split
I0426 20:54:35.489715 32697 net.cpp:408] ip3_relu3_0_split <- ip3
I0426 20:54:35.489723 32697 net.cpp:382] ip3_relu3_0_split -> ip3_relu3_0_split_0
I0426 20:54:35.489732 32697 net.cpp:382] ip3_relu3_0_split -> ip3_relu3_0_split_1
I0426 20:54:35.489830 32697 net.cpp:124] Setting up ip3_relu3_0_split
I0426 20:54:35.489840 32697 net.cpp:131] Top shape: 100 10 (1000)
I0426 20:54:35.489843 32697 net.cpp:131] Top shape: 100 10 (1000)
I0426 20:54:35.489845 32697 net.cpp:139] Memory required for data: 15850800
I0426 20:54:35.489856 32697 layer_factory.hpp:77] Creating layer accuracy
I0426 20:54:35.489864 32697 net.cpp:86] Creating Layer accuracy
I0426 20:54:35.489868 32697 net.cpp:408] accuracy <- ip3_relu3_0_split_0
I0426 20:54:35.489876 32697 net.cpp:408] accuracy <- label_mnist_1_split_0
I0426 20:54:35.489882 32697 net.cpp:382] accuracy -> accuracy
…
