…
I0426 20:51:24.359985 31975 net.cpp:296] The NetState phase (0) differed from the phase (1) specified by a rule in layer mnist
I0426 20:51:24.360018 31975 net.cpp:296] The NetState phase (0) differed from the phase (1) specified by a rule in layer accuracy
I0426 20:51:24.360088 31975 net.cpp:53] Initializing net from parameters: 
name: "LeNet"
state {
  phase: TRAIN
  level: 0
  stage: ""
}
layer {
  name: "mnist"
  type: "Data"
  top: "data"
  top: "label"
  include {
    phase: TRAIN
  }
  transform_param {
    scale: 0.00390625
  }
  data_param {
    source: "examples/mnist/mnist_train_lmdb"
    batch_size: 64
    backend: LMDB
  }
}
layer {
  name: "conv0"
  type: "Convolution"
  bottom: "data"
  top: "conv0"
  param {
    lr_mult: 1
  }
  param {
    lr_mult: 2
  }
  convolution_param {
    num_output: 10
    kernel_size: 5
    stride: 1
    weight_filler {
      type: "xavier"
    }
    bias_filler {
      type: "constant"
    }
  }
}
layer {
  name: "pool0"
  type: "Pooling"
  bottom: "conv0"
  top: "pool0"
  pooling_param {
    pool: MAX
    kernel_size: 2
    stride: 2
  }
}
layer {
  name: "conv1"
  type: "Convolution"
  bottom: "pool0"
  top: "conv1"
  param {
    lr_mult: 1
  }
  param {
    lr_mult: 2
  }
  convolution_param {
    num_output: 50
    kernel_size: 5
    stride: 1
    weight_filler {
      type: "xavier"
    }
    bias_filler {
      type: "constant"
    }
  }
}
layer {
  name: "pool1"
  type: "Pooling"
  bottom: "conv1"
  top: "pool1"
  pooling_param {
    pool: MAX
    kernel_size: 2
    stride: 2
  }
}
layer {
  name: "ip1"
  type: "InnerProduct"
  bottom: "pool1"
  top: "ip1"
  param {
    lr_mult: 1
  }
  param {
    lr_mult: 2
  }
  inner_product_param {
    num_output: 100
    weight_filler {
      type: "xavier"
    }
    bias_filler {
      type: "constant"
    }
  }
}
layer {
  name: "relu1"
  type: "ReLU"
  bottom: "ip1"
  top: "ip1"
}
layer {
  name: "ip2"
  type: "InnerProduct"
  bottom: "ip1"
  top: "ip2"
  param {
    lr_mult: 1
  }
  param {
    lr_mult: 2
  }
  inner_product_param {
    num_output: 10
    weight_filler {
      type: "xavier"
    }
    bias_filler {
      type: "constant"
    }
  }
}
layer {
  name: "relu2"
  type: "ReLU"
  bottom: "ip2"
  top: "ip2"
}
layer {
  name: "loss"
  type: "SoftmaxWithLoss"
  bottom: "ip2"
  bottom: "label"
  top: "loss"
}
I0426 20:51:24.360150 31975 layer_factory.hpp:77] Creating layer mnist
I0426 20:51:24.360247 31975 db_lmdb.cpp:35] Opened lmdb examples/mnist/mnist_train_lmdb
I0426 20:51:24.360268 31975 net.cpp:86] Creating Layer mnist
I0426 20:51:24.360275 31975 net.cpp:382] mnist -> data
I0426 20:51:24.360293 31975 net.cpp:382] mnist -> label
I0426 20:51:24.361277 31975 data_layer.cpp:45] output data size: 64,1,28,28
I0426 20:51:24.363355 31975 net.cpp:124] Setting up mnist
I0426 20:51:24.363368 31975 net.cpp:131] Top shape: 64 1 28 28 (50176)
I0426 20:51:24.363373 31975 net.cpp:131] Top shape: 64 (64)
I0426 20:51:24.363375 31975 net.cpp:139] Memory required for data: 200960
I0426 20:51:24.363381 31975 layer_factory.hpp:77] Creating layer conv0
I0426 20:51:24.363411 31975 net.cpp:86] Creating Layer conv0
I0426 20:51:24.363415 31975 net.cpp:408] conv0 <- data
I0426 20:51:24.363426 31975 net.cpp:382] conv0 -> conv0
I0426 20:51:24.592267 31975 net.cpp:124] Setting up conv0
I0426 20:51:24.592308 31975 net.cpp:131] Top shape: 64 10 24 24 (368640)
I0426 20:51:24.592313 31975 net.cpp:139] Memory required for data: 1675520
I0426 20:51:24.592362 31975 layer_factory.hpp:77] Creating layer pool0
I0426 20:51:24.592375 31975 net.cpp:86] Creating Layer pool0
I0426 20:51:24.592386 31975 net.cpp:408] pool0 <- conv0
I0426 20:51:24.592391 31975 net.cpp:382] pool0 -> pool0
I0426 20:51:24.592437 31975 net.cpp:124] Setting up pool0
I0426 20:51:24.592444 31975 net.cpp:131] Top shape: 64 10 12 12 (92160)
I0426 20:51:24.592447 31975 net.cpp:139] Memory required for data: 2044160
I0426 20:51:24.592450 31975 layer_factory.hpp:77] Creating layer conv1
I0426 20:51:24.592460 31975 net.cpp:86] Creating Layer conv1
I0426 20:51:24.592464 31975 net.cpp:408] conv1 <- pool0
I0426 20:51:24.592468 31975 net.cpp:382] conv1 -> conv1
I0426 20:51:24.595304 31975 net.cpp:124] Setting up conv1
I0426 20:51:24.595335 31975 net.cpp:131] Top shape: 64 50 8 8 (204800)
I0426 20:51:24.595338 31975 net.cpp:139] Memory required for data: 2863360
I0426 20:51:24.595346 31975 layer_factory.hpp:77] Creating layer pool1
I0426 20:51:24.595355 31975 net.cpp:86] Creating Layer pool1
I0426 20:51:24.595357 31975 net.cpp:408] pool1 <- conv1
I0426 20:51:24.595378 31975 net.cpp:382] pool1 -> pool1
I0426 20:51:24.595427 31975 net.cpp:124] Setting up pool1
I0426 20:51:24.595434 31975 net.cpp:131] Top shape: 64 50 4 4 (51200)
I0426 20:51:24.595438 31975 net.cpp:139] Memory required for data: 3068160
I0426 20:51:24.595440 31975 layer_factory.hpp:77] Creating layer ip1
I0426 20:51:24.595446 31975 net.cpp:86] Creating Layer ip1
I0426 20:51:24.595449 31975 net.cpp:408] ip1 <- pool1
I0426 20:51:24.595454 31975 net.cpp:382] ip1 -> ip1
I0426 20:51:24.596776 31975 net.cpp:124] Setting up ip1
I0426 20:51:24.596787 31975 net.cpp:131] Top shape: 64 100 (6400)
I0426 20:51:24.596791 31975 net.cpp:139] Memory required for data: 3093760
I0426 20:51:24.596798 31975 layer_factory.hpp:77] Creating layer relu1
I0426 20:51:24.596804 31975 net.cpp:86] Creating Layer relu1
I0426 20:51:24.596807 31975 net.cpp:408] relu1 <- ip1
I0426 20:51:24.596817 31975 net.cpp:369] relu1 -> ip1 (in-place)
I0426 20:51:24.596999 31975 net.cpp:124] Setting up relu1
I0426 20:51:24.597009 31975 net.cpp:131] Top shape: 64 100 (6400)
I0426 20:51:24.597012 31975 net.cpp:139] Memory required for data: 3119360
I0426 20:51:24.597015 31975 layer_factory.hpp:77] Creating layer ip2
I0426 20:51:24.597021 31975 net.cpp:86] Creating Layer ip2
I0426 20:51:24.597024 31975 net.cpp:408] ip2 <- ip1
I0426 20:51:24.597029 31975 net.cpp:382] ip2 -> ip2
I0426 20:51:24.597124 31975 net.cpp:124] Setting up ip2
I0426 20:51:24.597131 31975 net.cpp:131] Top shape: 64 10 (640)
I0426 20:51:24.597133 31975 net.cpp:139] Memory required for data: 3121920
I0426 20:51:24.597138 31975 layer_factory.hpp:77] Creating layer relu2
I0426 20:51:24.597144 31975 net.cpp:86] Creating Layer relu2
I0426 20:51:24.597148 31975 net.cpp:408] relu2 <- ip2
I0426 20:51:24.597152 31975 net.cpp:369] relu2 -> ip2 (in-place)
I0426 20:51:24.597972 31975 net.cpp:124] Setting up relu2
I0426 20:51:24.597985 31975 net.cpp:131] Top shape: 64 10 (640)
I0426 20:51:24.597987 31975 net.cpp:139] Memory required for data: 3124480
I0426 20:51:24.597990 31975 layer_factory.hpp:77] Creating layer loss
I0426 20:51:24.597996 31975 net.cpp:86] Creating Layer loss
I0426 20:51:24.598000 31975 net.cpp:408] loss <- ip2
I0426 20:51:24.598003 31975 net.cpp:408] loss <- label
I0426 20:51:24.598024 31975 net.cpp:382] loss -> loss
I0426 20:51:24.598044 31975 layer_factory.hpp:77] Creating layer loss
…
I0426 20:51:24.598711 31975 solver.cpp:173] Creating test net (#0) specified by net file: ECE595/mnist/train_test/var_everything/lenet_train_test86.prototxt
I0426 20:51:24.598737 31975 net.cpp:296] The NetState phase (1) differed from the phase (0) specified by a rule in layer mnist
I0426 20:51:24.598824 31975 net.cpp:53] Initializing net from parameters: 
name: "LeNet"
state {
  phase: TEST
}
layer {
  name: "mnist"
  type: "Data"
  top: "data"
  top: "label"
  include {
    phase: TEST
  }
  transform_param {
    scale: 0.00390625
  }
  data_param {
    source: "examples/mnist/mnist_test_lmdb"
    batch_size: 100
    backend: LMDB
  }
}
layer {
  name: "conv0"
  type: "Convolution"
  bottom: "data"
  top: "conv0"
  param {
    lr_mult: 1
  }
  param {
    lr_mult: 2
  }
  convolution_param {
    num_output: 10
    kernel_size: 5
    stride: 1
    weight_filler {
      type: "xavier"
    }
    bias_filler {
      type: "constant"
    }
  }
}
layer {
  name: "pool0"
  type: "Pooling"
  bottom: "conv0"
  top: "pool0"
  pooling_param {
    pool: MAX
    kernel_size: 2
    stride: 2
  }
}
layer {
  name: "conv1"
  type: "Convolution"
  bottom: "pool0"
  top: "conv1"
  param {
    lr_mult: 1
  }
  param {
    lr_mult: 2
  }
  convolution_param {
    num_output: 50
    kernel_size: 5
    stride: 1
    weight_filler {
      type: "xavier"
    }
    bias_filler {
      type: "constant"
    }
  }
}
layer {
  name: "pool1"
  type: "Pooling"
  bottom: "conv1"
  top: "pool1"
  pooling_param {
    pool: MAX
    kernel_size: 2
    stride: 2
  }
}
layer {
  name: "ip1"
  type: "InnerProduct"
  bottom: "pool1"
  top: "ip1"
  param {
    lr_mult: 1
  }
  param {
    lr_mult: 2
  }
  inner_product_param {
    num_output: 100
    weight_filler {
      type: "xavier"
    }
    bias_filler {
      type: "constant"
    }
  }
}
layer {
  name: "relu1"
  type: "ReLU"
  bottom: "ip1"
  top: "ip1"
}
layer {
  name: "ip2"
  type: "InnerProduct"
  bottom: "ip1"
  top: "ip2"
  param {
    lr_mult: 1
  }
  param {
    lr_mult: 2
  }
  inner_product_param {
    num_output: 10
    weight_filler {
      type: "xavier"
    }
    bias_filler {
      type: "constant"
    }
  }
}
layer {
  name: "relu2"
  type: "ReLU"
  bottom: "ip2"
  top: "ip2"
}
layer {
  name: "accuracy"
  type: "Accuracy"
  bottom: "ip2"
  bottom: "label"
  top: "accuracy"
  include {
    phase: TEST
  }
}
layer {
  name: "loss"
  type: "SoftmaxWithLoss"
  bottom: "ip2"
  bottom: "label"
  top: "loss"
}
I0426 20:51:24.598886 31975 layer_factory.hpp:77] Creating layer mnist
I0426 20:51:24.598929 31975 db_lmdb.cpp:35] Opened lmdb examples/mnist/mnist_test_lmdb
I0426 20:51:24.598942 31975 net.cpp:86] Creating Layer mnist
I0426 20:51:24.598948 31975 net.cpp:382] mnist -> data
I0426 20:51:24.598955 31975 net.cpp:382] mnist -> label
I0426 20:51:24.599037 31975 data_layer.cpp:45] output data size: 100,1,28,28
I0426 20:51:24.600383 31975 net.cpp:124] Setting up mnist
I0426 20:51:24.600411 31975 net.cpp:131] Top shape: 100 1 28 28 (78400)
I0426 20:51:24.600416 31975 net.cpp:131] Top shape: 100 (100)
I0426 20:51:24.600420 31975 net.cpp:139] Memory required for data: 314000
I0426 20:51:24.600424 31975 layer_factory.hpp:77] Creating layer label_mnist_1_split
I0426 20:51:24.600471 31975 net.cpp:86] Creating Layer label_mnist_1_split
I0426 20:51:24.600476 31975 net.cpp:408] label_mnist_1_split <- label
I0426 20:51:24.600481 31975 net.cpp:382] label_mnist_1_split -> label_mnist_1_split_0
I0426 20:51:24.600487 31975 net.cpp:382] label_mnist_1_split -> label_mnist_1_split_1
I0426 20:51:24.600543 31975 net.cpp:124] Setting up label_mnist_1_split
I0426 20:51:24.600560 31975 net.cpp:131] Top shape: 100 (100)
I0426 20:51:24.600564 31975 net.cpp:131] Top shape: 100 (100)
I0426 20:51:24.600567 31975 net.cpp:139] Memory required for data: 314800
I0426 20:51:24.600570 31975 layer_factory.hpp:77] Creating layer conv0
I0426 20:51:24.600579 31975 net.cpp:86] Creating Layer conv0
I0426 20:51:24.600582 31975 net.cpp:408] conv0 <- data
I0426 20:51:24.600587 31975 net.cpp:382] conv0 -> conv0
I0426 20:51:24.602381 31975 net.cpp:124] Setting up conv0
I0426 20:51:24.602394 31975 net.cpp:131] Top shape: 100 10 24 24 (576000)
I0426 20:51:24.602398 31975 net.cpp:139] Memory required for data: 2618800
I0426 20:51:24.602406 31975 layer_factory.hpp:77] Creating layer pool0
I0426 20:51:24.602412 31975 net.cpp:86] Creating Layer pool0
I0426 20:51:24.602430 31975 net.cpp:408] pool0 <- conv0
I0426 20:51:24.602435 31975 net.cpp:382] pool0 -> pool0
I0426 20:51:24.602468 31975 net.cpp:124] Setting up pool0
I0426 20:51:24.602473 31975 net.cpp:131] Top shape: 100 10 12 12 (144000)
I0426 20:51:24.602475 31975 net.cpp:139] Memory required for data: 3194800
I0426 20:51:24.602478 31975 layer_factory.hpp:77] Creating layer conv1
I0426 20:51:24.602485 31975 net.cpp:86] Creating Layer conv1
I0426 20:51:24.602488 31975 net.cpp:408] conv1 <- pool0
I0426 20:51:24.602494 31975 net.cpp:382] conv1 -> conv1
I0426 20:51:24.604060 31975 net.cpp:124] Setting up conv1
I0426 20:51:24.604073 31975 net.cpp:131] Top shape: 100 50 8 8 (320000)
I0426 20:51:24.604076 31975 net.cpp:139] Memory required for data: 4474800
I0426 20:51:24.604084 31975 layer_factory.hpp:77] Creating layer pool1
I0426 20:51:24.604110 31975 net.cpp:86] Creating Layer pool1
I0426 20:51:24.604130 31975 net.cpp:408] pool1 <- conv1
I0426 20:51:24.604135 31975 net.cpp:382] pool1 -> pool1
I0426 20:51:24.604173 31975 net.cpp:124] Setting up pool1
I0426 20:51:24.604179 31975 net.cpp:131] Top shape: 100 50 4 4 (80000)
I0426 20:51:24.604182 31975 net.cpp:139] Memory required for data: 4794800
I0426 20:51:24.604193 31975 layer_factory.hpp:77] Creating layer ip1
I0426 20:51:24.604198 31975 net.cpp:86] Creating Layer ip1
I0426 20:51:24.604202 31975 net.cpp:408] ip1 <- pool1
I0426 20:51:24.604218 31975 net.cpp:382] ip1 -> ip1
I0426 20:51:24.604750 31975 net.cpp:124] Setting up ip1
I0426 20:51:24.604758 31975 net.cpp:131] Top shape: 100 100 (10000)
I0426 20:51:24.604761 31975 net.cpp:139] Memory required for data: 4834800
I0426 20:51:24.604768 31975 layer_factory.hpp:77] Creating layer relu1
I0426 20:51:24.604773 31975 net.cpp:86] Creating Layer relu1
I0426 20:51:24.604792 31975 net.cpp:408] relu1 <- ip1
I0426 20:51:24.604796 31975 net.cpp:369] relu1 -> ip1 (in-place)
I0426 20:51:24.604976 31975 net.cpp:124] Setting up relu1
I0426 20:51:24.604987 31975 net.cpp:131] Top shape: 100 100 (10000)
I0426 20:51:24.604991 31975 net.cpp:139] Memory required for data: 4874800
I0426 20:51:24.604995 31975 layer_factory.hpp:77] Creating layer ip2
I0426 20:51:24.605001 31975 net.cpp:86] Creating Layer ip2
I0426 20:51:24.605011 31975 net.cpp:408] ip2 <- ip1
I0426 20:51:24.605016 31975 net.cpp:382] ip2 -> ip2
I0426 20:51:24.605120 31975 net.cpp:124] Setting up ip2
I0426 20:51:24.605128 31975 net.cpp:131] Top shape: 100 10 (1000)
I0426 20:51:24.605130 31975 net.cpp:139] Memory required for data: 4878800
I0426 20:51:24.605136 31975 layer_factory.hpp:77] Creating layer relu2
I0426 20:51:24.605140 31975 net.cpp:86] Creating Layer relu2
I0426 20:51:24.605144 31975 net.cpp:408] relu2 <- ip2
I0426 20:51:24.605147 31975 net.cpp:369] relu2 -> ip2 (in-place)
I0426 20:51:24.605386 31975 net.cpp:124] Setting up relu2
I0426 20:51:24.605394 31975 net.cpp:131] Top shape: 100 10 (1000)
I0426 20:51:24.605397 31975 net.cpp:139] Memory required for data: 4882800
I0426 20:51:24.605401 31975 layer_factory.hpp:77] Creating layer ip2_relu2_0_split
I0426 20:51:24.605406 31975 net.cpp:86] Creating Layer ip2_relu2_0_split
I0426 20:51:24.605408 31975 net.cpp:408] ip2_relu2_0_split <- ip2
I0426 20:51:24.605413 31975 net.cpp:382] ip2_relu2_0_split -> ip2_relu2_0_split_0
I0426 20:51:24.605429 31975 net.cpp:382] ip2_relu2_0_split -> ip2_relu2_0_split_1
I0426 20:51:24.605469 31975 net.cpp:124] Setting up ip2_relu2_0_split
I0426 20:51:24.605475 31975 net.cpp:131] Top shape: 100 10 (1000)
I0426 20:51:24.605479 31975 net.cpp:131] Top shape: 100 10 (1000)
I0426 20:51:24.605481 31975 net.cpp:139] Memory required for data: 4890800
I0426 20:51:24.605484 31975 layer_factory.hpp:77] Creating layer accuracy
I0426 20:51:24.605489 31975 net.cpp:86] Creating Layer accuracy
I0426 20:51:24.605492 31975 net.cpp:408] accuracy <- ip2_relu2_0_split_0
I0426 20:51:24.605496 31975 net.cpp:408] accuracy <- label_mnist_1_split_0
I0426 20:51:24.605500 31975 net.cpp:382] accuracy -> accuracy
…
