…
I0426 20:51:10.658572 31923 net.cpp:296] The NetState phase (0) differed from the phase (1) specified by a rule in layer mnist
I0426 20:51:10.658591 31923 net.cpp:296] The NetState phase (0) differed from the phase (1) specified by a rule in layer accuracy
I0426 20:51:10.658695 31923 net.cpp:53] Initializing net from parameters: 
name: "LeNet"
state {
  phase: TRAIN
  level: 0
  stage: ""
}
layer {
  name: "mnist"
  type: "Data"
  top: "data"
  top: "label"
  include {
    phase: TRAIN
  }
  transform_param {
    scale: 0.00390625
  }
  data_param {
    source: "examples/mnist/mnist_train_lmdb"
    batch_size: 64
    backend: LMDB
  }
}
layer {
  name: "conv0"
  type: "Convolution"
  bottom: "data"
  top: "conv0"
  param {
    lr_mult: 1
  }
  param {
    lr_mult: 2
  }
  convolution_param {
    num_output: 10
    kernel_size: 5
    stride: 1
    weight_filler {
      type: "xavier"
    }
    bias_filler {
      type: "constant"
    }
  }
}
layer {
  name: "pool0"
  type: "Pooling"
  bottom: "conv0"
  top: "pool0"
  pooling_param {
    pool: MAX
    kernel_size: 2
    stride: 2
  }
}
layer {
  name: "conv1"
  type: "Convolution"
  bottom: "pool0"
  top: "conv1"
  param {
    lr_mult: 1
  }
  param {
    lr_mult: 2
  }
  convolution_param {
    num_output: 25
    kernel_size: 5
    stride: 1
    weight_filler {
      type: "xavier"
    }
    bias_filler {
      type: "constant"
    }
  }
}
layer {
  name: "pool1"
  type: "Pooling"
  bottom: "conv1"
  top: "pool1"
  pooling_param {
    pool: MAX
    kernel_size: 2
    stride: 2
  }
}
layer {
  name: "ip1"
  type: "InnerProduct"
  bottom: "pool1"
  top: "ip1"
  param {
    lr_mult: 1
  }
  param {
    lr_mult: 2
  }
  inner_product_param {
    num_output: 300
    weight_filler {
      type: "xavier"
    }
    bias_filler {
      type: "constant"
    }
  }
}
layer {
  name: "relu1"
  type: "ReLU"
  bottom: "ip1"
  top: "ip1"
}
layer {
  name: "ip2"
  type: "InnerProduct"
  bottom: "ip1"
  top: "ip2"
  param {
    lr_mult: 1
  }
  param {
    lr_mult: 2
  }
  inner_product_param {
    num_output: 100
    weight_filler {
      type: "xavier"
    }
    bias_filler {
      type: "constant"
    }
  }
}
layer {
  name: "relu2"
  type: "ReLU"
  bottom: "ip2"
  top: "ip2"
}
layer {
  name: "ip3"
  type: "InnerProduct"
  bottom: "ip2"
  top: "ip3"
  param {
    lr_mult: 1
  }
  param {
    lr_mult: 2
  }
  inner_product_param {
    num_output: 10
    weight_filler {
      type: "xavier"
    }
    bias_filler {
      type: "constant"
    }
  }
}
layer {
  name: "relu3"
  type: "ReLU"
  bottom: "ip3"
  top: "ip3"
}
layer {
  name: "loss"
  type: "SoftmaxWithLoss"
  bottom: "ip3"
  bottom: "label"
  top: "loss"
}
I0426 20:51:10.658776 31923 layer_factory.hpp:77] Creating layer mnist
I0426 20:51:10.658874 31923 db_lmdb.cpp:35] Opened lmdb examples/mnist/mnist_train_lmdb
I0426 20:51:10.658896 31923 net.cpp:86] Creating Layer mnist
I0426 20:51:10.658905 31923 net.cpp:382] mnist -> data
I0426 20:51:10.658928 31923 net.cpp:382] mnist -> label
I0426 20:51:10.660028 31923 data_layer.cpp:45] output data size: 64,1,28,28
I0426 20:51:10.662778 31923 net.cpp:124] Setting up mnist
I0426 20:51:10.662796 31923 net.cpp:131] Top shape: 64 1 28 28 (50176)
I0426 20:51:10.662802 31923 net.cpp:131] Top shape: 64 (64)
I0426 20:51:10.662806 31923 net.cpp:139] Memory required for data: 200960
I0426 20:51:10.662813 31923 layer_factory.hpp:77] Creating layer conv0
I0426 20:51:10.662883 31923 net.cpp:86] Creating Layer conv0
I0426 20:51:10.662904 31923 net.cpp:408] conv0 <- data
I0426 20:51:10.662916 31923 net.cpp:382] conv0 -> conv0
I0426 20:51:10.933172 31923 net.cpp:124] Setting up conv0
I0426 20:51:10.933198 31923 net.cpp:131] Top shape: 64 10 24 24 (368640)
I0426 20:51:10.933202 31923 net.cpp:139] Memory required for data: 1675520
I0426 20:51:10.933215 31923 layer_factory.hpp:77] Creating layer pool0
I0426 20:51:10.933243 31923 net.cpp:86] Creating Layer pool0
I0426 20:51:10.933246 31923 net.cpp:408] pool0 <- conv0
I0426 20:51:10.933253 31923 net.cpp:382] pool0 -> pool0
I0426 20:51:10.933315 31923 net.cpp:124] Setting up pool0
I0426 20:51:10.933320 31923 net.cpp:131] Top shape: 64 10 12 12 (92160)
I0426 20:51:10.933323 31923 net.cpp:139] Memory required for data: 2044160
I0426 20:51:10.933326 31923 layer_factory.hpp:77] Creating layer conv1
I0426 20:51:10.933341 31923 net.cpp:86] Creating Layer conv1
I0426 20:51:10.933343 31923 net.cpp:408] conv1 <- pool0
I0426 20:51:10.933348 31923 net.cpp:382] conv1 -> conv1
I0426 20:51:10.936061 31923 net.cpp:124] Setting up conv1
I0426 20:51:10.936075 31923 net.cpp:131] Top shape: 64 25 8 8 (102400)
I0426 20:51:10.936079 31923 net.cpp:139] Memory required for data: 2453760
I0426 20:51:10.936086 31923 layer_factory.hpp:77] Creating layer pool1
I0426 20:51:10.936094 31923 net.cpp:86] Creating Layer pool1
I0426 20:51:10.936096 31923 net.cpp:408] pool1 <- conv1
I0426 20:51:10.936100 31923 net.cpp:382] pool1 -> pool1
I0426 20:51:10.936152 31923 net.cpp:124] Setting up pool1
I0426 20:51:10.936157 31923 net.cpp:131] Top shape: 64 25 4 4 (25600)
I0426 20:51:10.936161 31923 net.cpp:139] Memory required for data: 2556160
I0426 20:51:10.936162 31923 layer_factory.hpp:77] Creating layer ip1
I0426 20:51:10.936173 31923 net.cpp:86] Creating Layer ip1
I0426 20:51:10.936177 31923 net.cpp:408] ip1 <- pool1
I0426 20:51:10.936180 31923 net.cpp:382] ip1 -> ip1
I0426 20:51:10.937794 31923 net.cpp:124] Setting up ip1
I0426 20:51:10.937822 31923 net.cpp:131] Top shape: 64 300 (19200)
I0426 20:51:10.937825 31923 net.cpp:139] Memory required for data: 2632960
I0426 20:51:10.937849 31923 layer_factory.hpp:77] Creating layer relu1
I0426 20:51:10.937855 31923 net.cpp:86] Creating Layer relu1
I0426 20:51:10.937858 31923 net.cpp:408] relu1 <- ip1
I0426 20:51:10.937863 31923 net.cpp:369] relu1 -> ip1 (in-place)
I0426 20:51:10.938077 31923 net.cpp:124] Setting up relu1
I0426 20:51:10.938086 31923 net.cpp:131] Top shape: 64 300 (19200)
I0426 20:51:10.938089 31923 net.cpp:139] Memory required for data: 2709760
I0426 20:51:10.938092 31923 layer_factory.hpp:77] Creating layer ip2
I0426 20:51:10.938098 31923 net.cpp:86] Creating Layer ip2
I0426 20:51:10.938102 31923 net.cpp:408] ip2 <- ip1
I0426 20:51:10.938107 31923 net.cpp:382] ip2 -> ip2
I0426 20:51:10.938437 31923 net.cpp:124] Setting up ip2
I0426 20:51:10.938458 31923 net.cpp:131] Top shape: 64 100 (6400)
I0426 20:51:10.938462 31923 net.cpp:139] Memory required for data: 2735360
I0426 20:51:10.938482 31923 layer_factory.hpp:77] Creating layer relu2
I0426 20:51:10.938488 31923 net.cpp:86] Creating Layer relu2
I0426 20:51:10.938490 31923 net.cpp:408] relu2 <- ip2
I0426 20:51:10.938494 31923 net.cpp:369] relu2 -> ip2 (in-place)
I0426 20:51:10.939287 31923 net.cpp:124] Setting up relu2
I0426 20:51:10.939298 31923 net.cpp:131] Top shape: 64 100 (6400)
I0426 20:51:10.939317 31923 net.cpp:139] Memory required for data: 2760960
I0426 20:51:10.939321 31923 layer_factory.hpp:77] Creating layer ip3
I0426 20:51:10.939327 31923 net.cpp:86] Creating Layer ip3
I0426 20:51:10.939330 31923 net.cpp:408] ip3 <- ip2
I0426 20:51:10.939337 31923 net.cpp:382] ip3 -> ip3
I0426 20:51:10.939435 31923 net.cpp:124] Setting up ip3
I0426 20:51:10.939442 31923 net.cpp:131] Top shape: 64 10 (640)
I0426 20:51:10.939445 31923 net.cpp:139] Memory required for data: 2763520
I0426 20:51:10.939453 31923 layer_factory.hpp:77] Creating layer relu3
I0426 20:51:10.939457 31923 net.cpp:86] Creating Layer relu3
I0426 20:51:10.939460 31923 net.cpp:408] relu3 <- ip3
I0426 20:51:10.939465 31923 net.cpp:369] relu3 -> ip3 (in-place)
I0426 20:51:10.939620 31923 net.cpp:124] Setting up relu3
I0426 20:51:10.939627 31923 net.cpp:131] Top shape: 64 10 (640)
I0426 20:51:10.939630 31923 net.cpp:139] Memory required for data: 2766080
I0426 20:51:10.939633 31923 layer_factory.hpp:77] Creating layer loss
I0426 20:51:10.939640 31923 net.cpp:86] Creating Layer loss
I0426 20:51:10.939641 31923 net.cpp:408] loss <- ip3
I0426 20:51:10.939646 31923 net.cpp:408] loss <- label
I0426 20:51:10.939651 31923 net.cpp:382] loss -> loss
I0426 20:51:10.939668 31923 layer_factory.hpp:77] Creating layer loss
…
I0426 20:51:10.940309 31923 solver.cpp:173] Creating test net (#0) specified by net file: ECE595/mnist/train_test/var_everything/lenet_train_test80.prototxt
I0426 20:51:10.940335 31923 net.cpp:296] The NetState phase (1) differed from the phase (0) specified by a rule in layer mnist
I0426 20:51:10.940423 31923 net.cpp:53] Initializing net from parameters: 
name: "LeNet"
state {
  phase: TEST
}
layer {
  name: "mnist"
  type: "Data"
  top: "data"
  top: "label"
  include {
    phase: TEST
  }
  transform_param {
    scale: 0.00390625
  }
  data_param {
    source: "examples/mnist/mnist_test_lmdb"
    batch_size: 100
    backend: LMDB
  }
}
layer {
  name: "conv0"
  type: "Convolution"
  bottom: "data"
  top: "conv0"
  param {
    lr_mult: 1
  }
  param {
    lr_mult: 2
  }
  convolution_param {
    num_output: 10
    kernel_size: 5
    stride: 1
    weight_filler {
      type: "xavier"
    }
    bias_filler {
      type: "constant"
    }
  }
}
layer {
  name: "pool0"
  type: "Pooling"
  bottom: "conv0"
  top: "pool0"
  pooling_param {
    pool: MAX
    kernel_size: 2
    stride: 2
  }
}
layer {
  name: "conv1"
  type: "Convolution"
  bottom: "pool0"
  top: "conv1"
  param {
    lr_mult: 1
  }
  param {
    lr_mult: 2
  }
  convolution_param {
    num_output: 25
    kernel_size: 5
    stride: 1
    weight_filler {
      type: "xavier"
    }
    bias_filler {
      type: "constant"
    }
  }
}
layer {
  name: "pool1"
  type: "Pooling"
  bottom: "conv1"
  top: "pool1"
  pooling_param {
    pool: MAX
    kernel_size: 2
    stride: 2
  }
}
layer {
  name: "ip1"
  type: "InnerProduct"
  bottom: "pool1"
  top: "ip1"
  param {
    lr_mult: 1
  }
  param {
    lr_mult: 2
  }
  inner_product_param {
    num_output: 300
    weight_filler {
      type: "xavier"
    }
    bias_filler {
      type: "constant"
    }
  }
}
layer {
  name: "relu1"
  type: "ReLU"
  bottom: "ip1"
  top: "ip1"
}
layer {
  name: "ip2"
  type: "InnerProduct"
  bottom: "ip1"
  top: "ip2"
  param {
    lr_mult: 1
  }
  param {
    lr_mult: 2
  }
  inner_product_param {
    num_output: 100
    weight_filler {
      type: "xavier"
    }
    bias_filler {
      type: "constant"
    }
  }
}
layer {
  name: "relu2"
  type: "ReLU"
  bottom: "ip2"
  top: "ip2"
}
layer {
  name: "ip3"
  type: "InnerProduct"
  bottom: "ip2"
  top: "ip3"
  param {
    lr_mult: 1
  }
  param {
    lr_mult: 2
  }
  inner_product_param {
    num_output: 10
    weight_filler {
      type: "xavier"
    }
    bias_filler {
      type: "constant"
    }
  }
}
layer {
  name: "relu3"
  type: "ReLU"
  bottom: "ip3"
  top: "ip3"
}
layer {
  name: "accuracy"
  type: "Accuracy"
  bottom: "ip3"
  bottom: "label"
  top: "accuracy"
  include {
    phase: TEST
  }
}
layer {
  name: "loss"
  type: "SoftmaxWithLoss"
  bottom: "ip3"
  bottom: "label"
  top: "loss"
}
I0426 20:51:10.940503 31923 layer_factory.hpp:77] Creating layer mnist
I0426 20:51:10.940549 31923 db_lmdb.cpp:35] Opened lmdb examples/mnist/mnist_test_lmdb
I0426 20:51:10.940560 31923 net.cpp:86] Creating Layer mnist
I0426 20:51:10.940567 31923 net.cpp:382] mnist -> data
I0426 20:51:10.940573 31923 net.cpp:382] mnist -> label
I0426 20:51:10.940656 31923 data_layer.cpp:45] output data size: 100,1,28,28
I0426 20:51:10.941926 31923 net.cpp:124] Setting up mnist
I0426 20:51:10.941953 31923 net.cpp:131] Top shape: 100 1 28 28 (78400)
I0426 20:51:10.941958 31923 net.cpp:131] Top shape: 100 (100)
I0426 20:51:10.941961 31923 net.cpp:139] Memory required for data: 314000
I0426 20:51:10.941964 31923 layer_factory.hpp:77] Creating layer label_mnist_1_split
I0426 20:51:10.941987 31923 net.cpp:86] Creating Layer label_mnist_1_split
I0426 20:51:10.941992 31923 net.cpp:408] label_mnist_1_split <- label
I0426 20:51:10.942023 31923 net.cpp:382] label_mnist_1_split -> label_mnist_1_split_0
I0426 20:51:10.942029 31923 net.cpp:382] label_mnist_1_split -> label_mnist_1_split_1
I0426 20:51:10.942067 31923 net.cpp:124] Setting up label_mnist_1_split
I0426 20:51:10.942073 31923 net.cpp:131] Top shape: 100 (100)
I0426 20:51:10.942076 31923 net.cpp:131] Top shape: 100 (100)
I0426 20:51:10.942080 31923 net.cpp:139] Memory required for data: 314800
I0426 20:51:10.942081 31923 layer_factory.hpp:77] Creating layer conv0
I0426 20:51:10.942091 31923 net.cpp:86] Creating Layer conv0
I0426 20:51:10.942095 31923 net.cpp:408] conv0 <- data
I0426 20:51:10.942100 31923 net.cpp:382] conv0 -> conv0
I0426 20:51:10.943858 31923 net.cpp:124] Setting up conv0
I0426 20:51:10.943871 31923 net.cpp:131] Top shape: 100 10 24 24 (576000)
I0426 20:51:10.943874 31923 net.cpp:139] Memory required for data: 2618800
I0426 20:51:10.943882 31923 layer_factory.hpp:77] Creating layer pool0
I0426 20:51:10.943905 31923 net.cpp:86] Creating Layer pool0
I0426 20:51:10.943908 31923 net.cpp:408] pool0 <- conv0
I0426 20:51:10.943912 31923 net.cpp:382] pool0 -> pool0
I0426 20:51:10.943948 31923 net.cpp:124] Setting up pool0
I0426 20:51:10.943953 31923 net.cpp:131] Top shape: 100 10 12 12 (144000)
I0426 20:51:10.943955 31923 net.cpp:139] Memory required for data: 3194800
I0426 20:51:10.943958 31923 layer_factory.hpp:77] Creating layer conv1
I0426 20:51:10.943974 31923 net.cpp:86] Creating Layer conv1
I0426 20:51:10.943977 31923 net.cpp:408] conv1 <- pool0
I0426 20:51:10.943994 31923 net.cpp:382] conv1 -> conv1
I0426 20:51:10.946259 31923 net.cpp:124] Setting up conv1
I0426 20:51:10.946274 31923 net.cpp:131] Top shape: 100 25 8 8 (160000)
I0426 20:51:10.946277 31923 net.cpp:139] Memory required for data: 3834800
I0426 20:51:10.946310 31923 layer_factory.hpp:77] Creating layer pool1
I0426 20:51:10.946316 31923 net.cpp:86] Creating Layer pool1
I0426 20:51:10.946319 31923 net.cpp:408] pool1 <- conv1
I0426 20:51:10.946331 31923 net.cpp:382] pool1 -> pool1
I0426 20:51:10.946369 31923 net.cpp:124] Setting up pool1
I0426 20:51:10.946375 31923 net.cpp:131] Top shape: 100 25 4 4 (40000)
I0426 20:51:10.946378 31923 net.cpp:139] Memory required for data: 3994800
I0426 20:51:10.946401 31923 layer_factory.hpp:77] Creating layer ip1
I0426 20:51:10.946406 31923 net.cpp:86] Creating Layer ip1
I0426 20:51:10.946409 31923 net.cpp:408] ip1 <- pool1
I0426 20:51:10.946415 31923 net.cpp:382] ip1 -> ip1
I0426 20:51:10.948106 31923 net.cpp:124] Setting up ip1
I0426 20:51:10.948117 31923 net.cpp:131] Top shape: 100 300 (30000)
I0426 20:51:10.948129 31923 net.cpp:139] Memory required for data: 4114800
I0426 20:51:10.948153 31923 layer_factory.hpp:77] Creating layer relu1
I0426 20:51:10.948159 31923 net.cpp:86] Creating Layer relu1
I0426 20:51:10.948163 31923 net.cpp:408] relu1 <- ip1
I0426 20:51:10.948166 31923 net.cpp:369] relu1 -> ip1 (in-place)
I0426 20:51:10.948343 31923 net.cpp:124] Setting up relu1
I0426 20:51:10.948351 31923 net.cpp:131] Top shape: 100 300 (30000)
I0426 20:51:10.948354 31923 net.cpp:139] Memory required for data: 4234800
I0426 20:51:10.948357 31923 layer_factory.hpp:77] Creating layer ip2
I0426 20:51:10.948365 31923 net.cpp:86] Creating Layer ip2
I0426 20:51:10.948367 31923 net.cpp:408] ip2 <- ip1
I0426 20:51:10.948374 31923 net.cpp:382] ip2 -> ip2
I0426 20:51:10.948670 31923 net.cpp:124] Setting up ip2
I0426 20:51:10.948679 31923 net.cpp:131] Top shape: 100 100 (10000)
I0426 20:51:10.948683 31923 net.cpp:139] Memory required for data: 4274800
I0426 20:51:10.948688 31923 layer_factory.hpp:77] Creating layer relu2
I0426 20:51:10.948693 31923 net.cpp:86] Creating Layer relu2
I0426 20:51:10.948695 31923 net.cpp:408] relu2 <- ip2
I0426 20:51:10.948699 31923 net.cpp:369] relu2 -> ip2 (in-place)
I0426 20:51:10.948914 31923 net.cpp:124] Setting up relu2
I0426 20:51:10.948925 31923 net.cpp:131] Top shape: 100 100 (10000)
I0426 20:51:10.948927 31923 net.cpp:139] Memory required for data: 4314800
I0426 20:51:10.948930 31923 layer_factory.hpp:77] Creating layer ip3
I0426 20:51:10.948935 31923 net.cpp:86] Creating Layer ip3
I0426 20:51:10.948938 31923 net.cpp:408] ip3 <- ip2
I0426 20:51:10.948945 31923 net.cpp:382] ip3 -> ip3
I0426 20:51:10.949049 31923 net.cpp:124] Setting up ip3
I0426 20:51:10.949057 31923 net.cpp:131] Top shape: 100 10 (1000)
I0426 20:51:10.949060 31923 net.cpp:139] Memory required for data: 4318800
I0426 20:51:10.949070 31923 layer_factory.hpp:77] Creating layer relu3
I0426 20:51:10.949075 31923 net.cpp:86] Creating Layer relu3
I0426 20:51:10.949079 31923 net.cpp:408] relu3 <- ip3
I0426 20:51:10.949084 31923 net.cpp:369] relu3 -> ip3 (in-place)
I0426 20:51:10.950014 31923 net.cpp:124] Setting up relu3
I0426 20:51:10.950026 31923 net.cpp:131] Top shape: 100 10 (1000)
I0426 20:51:10.950029 31923 net.cpp:139] Memory required for data: 4322800
I0426 20:51:10.950032 31923 layer_factory.hpp:77] Creating layer ip3_relu3_0_split
I0426 20:51:10.950037 31923 net.cpp:86] Creating Layer ip3_relu3_0_split
I0426 20:51:10.950040 31923 net.cpp:408] ip3_relu3_0_split <- ip3
I0426 20:51:10.950045 31923 net.cpp:382] ip3_relu3_0_split -> ip3_relu3_0_split_0
I0426 20:51:10.950052 31923 net.cpp:382] ip3_relu3_0_split -> ip3_relu3_0_split_1
I0426 20:51:10.950134 31923 net.cpp:124] Setting up ip3_relu3_0_split
I0426 20:51:10.950139 31923 net.cpp:131] Top shape: 100 10 (1000)
I0426 20:51:10.950142 31923 net.cpp:131] Top shape: 100 10 (1000)
I0426 20:51:10.950145 31923 net.cpp:139] Memory required for data: 4330800
I0426 20:51:10.950147 31923 layer_factory.hpp:77] Creating layer accuracy
I0426 20:51:10.950153 31923 net.cpp:86] Creating Layer accuracy
I0426 20:51:10.950156 31923 net.cpp:408] accuracy <- ip3_relu3_0_split_0
I0426 20:51:10.950160 31923 net.cpp:408] accuracy <- label_mnist_1_split_0
I0426 20:51:10.950165 31923 net.cpp:382] accuracy -> accuracy
…
