…
I0426 20:48:23.623447 31232 net.cpp:296] The NetState phase (0) differed from the phase (1) specified by a rule in layer mnist
I0426 20:48:23.623458 31232 net.cpp:296] The NetState phase (0) differed from the phase (1) specified by a rule in layer accuracy
I0426 20:48:23.623512 31232 net.cpp:53] Initializing net from parameters: 
name: "LeNet"
state {
  phase: TRAIN
  level: 0
  stage: ""
}
layer {
  name: "mnist"
  type: "Data"
  top: "data"
  top: "label"
  include {
    phase: TRAIN
  }
  transform_param {
    scale: 0.00390625
  }
  data_param {
    source: "examples/mnist/mnist_train_lmdb"
    batch_size: 64
    backend: LMDB
  }
}
layer {
  name: "ip1"
  type: "InnerProduct"
  bottom: "data"
  top: "ip1"
  param {
    lr_mult: 1
  }
  param {
    lr_mult: 2
  }
  inner_product_param {
    num_output: 300
    weight_filler {
      type: "xavier"
    }
    bias_filler {
      type: "constant"
    }
  }
}
layer {
  name: "relu1"
  type: "ReLU"
  bottom: "ip1"
  top: "ip1"
}
layer {
  name: "ip2"
  type: "InnerProduct"
  bottom: "ip1"
  top: "ip2"
  param {
    lr_mult: 1
  }
  param {
    lr_mult: 2
  }
  inner_product_param {
    num_output: 10
    weight_filler {
      type: "xavier"
    }
    bias_filler {
      type: "constant"
    }
  }
}
layer {
  name: "relu2"
  type: "ReLU"
  bottom: "ip2"
  top: "ip2"
}
layer {
  name: "loss"
  type: "SoftmaxWithLoss"
  bottom: "ip2"
  bottom: "label"
  top: "loss"
}
I0426 20:48:23.623561 31232 layer_factory.hpp:77] Creating layer mnist
I0426 20:48:23.623643 31232 db_lmdb.cpp:35] Opened lmdb examples/mnist/mnist_train_lmdb
I0426 20:48:23.623662 31232 net.cpp:86] Creating Layer mnist
I0426 20:48:23.623669 31232 net.cpp:382] mnist -> data
I0426 20:48:23.623688 31232 net.cpp:382] mnist -> label
I0426 20:48:23.624626 31232 data_layer.cpp:45] output data size: 64,1,28,28
I0426 20:48:23.626776 31232 net.cpp:124] Setting up mnist
I0426 20:48:23.626790 31232 net.cpp:131] Top shape: 64 1 28 28 (50176)
I0426 20:48:23.626794 31232 net.cpp:131] Top shape: 64 (64)
I0426 20:48:23.626796 31232 net.cpp:139] Memory required for data: 200960
I0426 20:48:23.626802 31232 layer_factory.hpp:77] Creating layer ip1
I0426 20:48:23.626840 31232 net.cpp:86] Creating Layer ip1
I0426 20:48:23.626860 31232 net.cpp:408] ip1 <- data
I0426 20:48:23.626870 31232 net.cpp:382] ip1 -> ip1
I0426 20:48:23.630105 31232 net.cpp:124] Setting up ip1
I0426 20:48:23.630117 31232 net.cpp:131] Top shape: 64 300 (19200)
I0426 20:48:23.630120 31232 net.cpp:139] Memory required for data: 277760
I0426 20:48:23.630132 31232 layer_factory.hpp:77] Creating layer relu1
I0426 20:48:23.630154 31232 net.cpp:86] Creating Layer relu1
I0426 20:48:23.630157 31232 net.cpp:408] relu1 <- ip1
I0426 20:48:23.630164 31232 net.cpp:369] relu1 -> ip1 (in-place)
I0426 20:48:23.861650 31232 net.cpp:124] Setting up relu1
I0426 20:48:23.861696 31232 net.cpp:131] Top shape: 64 300 (19200)
I0426 20:48:23.861699 31232 net.cpp:139] Memory required for data: 354560
I0426 20:48:23.861706 31232 layer_factory.hpp:77] Creating layer ip2
I0426 20:48:23.861717 31232 net.cpp:86] Creating Layer ip2
I0426 20:48:23.861721 31232 net.cpp:408] ip2 <- ip1
I0426 20:48:23.861744 31232 net.cpp:382] ip2 -> ip2
I0426 20:48:23.862821 31232 net.cpp:124] Setting up ip2
I0426 20:48:23.862848 31232 net.cpp:131] Top shape: 64 10 (640)
I0426 20:48:23.862853 31232 net.cpp:139] Memory required for data: 357120
I0426 20:48:23.862861 31232 layer_factory.hpp:77] Creating layer relu2
I0426 20:48:23.862900 31232 net.cpp:86] Creating Layer relu2
I0426 20:48:23.862903 31232 net.cpp:408] relu2 <- ip2
I0426 20:48:23.862908 31232 net.cpp:369] relu2 -> ip2 (in-place)
I0426 20:48:23.863752 31232 net.cpp:124] Setting up relu2
I0426 20:48:23.863780 31232 net.cpp:131] Top shape: 64 10 (640)
I0426 20:48:23.863783 31232 net.cpp:139] Memory required for data: 359680
I0426 20:48:23.863786 31232 layer_factory.hpp:77] Creating layer loss
I0426 20:48:23.863795 31232 net.cpp:86] Creating Layer loss
I0426 20:48:23.863797 31232 net.cpp:408] loss <- ip2
I0426 20:48:23.863802 31232 net.cpp:408] loss <- label
I0426 20:48:23.863822 31232 net.cpp:382] loss -> loss
I0426 20:48:23.863838 31232 layer_factory.hpp:77] Creating layer loss
…
I0426 20:48:23.864351 31232 solver.cpp:173] Creating test net (#0) specified by net file: ECE595/mnist/train_test/var_everything/lenet_train_test4.prototxt
I0426 20:48:23.864370 31232 net.cpp:296] The NetState phase (1) differed from the phase (0) specified by a rule in layer mnist
I0426 20:48:23.864447 31232 net.cpp:53] Initializing net from parameters: 
name: "LeNet"
state {
  phase: TEST
}
layer {
  name: "mnist"
  type: "Data"
  top: "data"
  top: "label"
  include {
    phase: TEST
  }
  transform_param {
    scale: 0.00390625
  }
  data_param {
    source: "examples/mnist/mnist_test_lmdb"
    batch_size: 100
    backend: LMDB
  }
}
layer {
  name: "ip1"
  type: "InnerProduct"
  bottom: "data"
  top: "ip1"
  param {
    lr_mult: 1
  }
  param {
    lr_mult: 2
  }
  inner_product_param {
    num_output: 300
    weight_filler {
      type: "xavier"
    }
    bias_filler {
      type: "constant"
    }
  }
}
layer {
  name: "relu1"
  type: "ReLU"
  bottom: "ip1"
  top: "ip1"
}
layer {
  name: "ip2"
  type: "InnerProduct"
  bottom: "ip1"
  top: "ip2"
  param {
    lr_mult: 1
  }
  param {
    lr_mult: 2
  }
  inner_product_param {
    num_output: 10
    weight_filler {
      type: "xavier"
    }
    bias_filler {
      type: "constant"
    }
  }
}
layer {
  name: "relu2"
  type: "ReLU"
  bottom: "ip2"
  top: "ip2"
}
layer {
  name: "accuracy"
  type: "Accuracy"
  bottom: "ip2"
  bottom: "label"
  top: "accuracy"
  include {
    phase: TEST
  }
}
layer {
  name: "loss"
  type: "SoftmaxWithLoss"
  bottom: "ip2"
  bottom: "label"
  top: "loss"
}
I0426 20:48:23.864498 31232 layer_factory.hpp:77] Creating layer mnist
I0426 20:48:23.864544 31232 db_lmdb.cpp:35] Opened lmdb examples/mnist/mnist_test_lmdb
I0426 20:48:23.864557 31232 net.cpp:86] Creating Layer mnist
I0426 20:48:23.864562 31232 net.cpp:382] mnist -> data
I0426 20:48:23.864569 31232 net.cpp:382] mnist -> label
I0426 20:48:23.864652 31232 data_layer.cpp:45] output data size: 100,1,28,28
I0426 20:48:23.866684 31232 net.cpp:124] Setting up mnist
I0426 20:48:23.866713 31232 net.cpp:131] Top shape: 100 1 28 28 (78400)
I0426 20:48:23.866717 31232 net.cpp:131] Top shape: 100 (100)
I0426 20:48:23.866720 31232 net.cpp:139] Memory required for data: 314000
I0426 20:48:23.866724 31232 layer_factory.hpp:77] Creating layer label_mnist_1_split
I0426 20:48:23.866760 31232 net.cpp:86] Creating Layer label_mnist_1_split
I0426 20:48:23.866765 31232 net.cpp:408] label_mnist_1_split <- label
I0426 20:48:23.866768 31232 net.cpp:382] label_mnist_1_split -> label_mnist_1_split_0
I0426 20:48:23.866785 31232 net.cpp:382] label_mnist_1_split -> label_mnist_1_split_1
I0426 20:48:23.866890 31232 net.cpp:124] Setting up label_mnist_1_split
I0426 20:48:23.866897 31232 net.cpp:131] Top shape: 100 (100)
I0426 20:48:23.866901 31232 net.cpp:131] Top shape: 100 (100)
I0426 20:48:23.866904 31232 net.cpp:139] Memory required for data: 314800
I0426 20:48:23.866907 31232 layer_factory.hpp:77] Creating layer ip1
I0426 20:48:23.866914 31232 net.cpp:86] Creating Layer ip1
I0426 20:48:23.866917 31232 net.cpp:408] ip1 <- data
I0426 20:48:23.866922 31232 net.cpp:382] ip1 -> ip1
I0426 20:48:23.868371 31232 net.cpp:124] Setting up ip1
I0426 20:48:23.868379 31232 net.cpp:131] Top shape: 100 300 (30000)
I0426 20:48:23.868382 31232 net.cpp:139] Memory required for data: 434800
I0426 20:48:23.868391 31232 layer_factory.hpp:77] Creating layer relu1
I0426 20:48:23.868412 31232 net.cpp:86] Creating Layer relu1
I0426 20:48:23.868414 31232 net.cpp:408] relu1 <- ip1
I0426 20:48:23.868418 31232 net.cpp:369] relu1 -> ip1 (in-place)
I0426 20:48:23.868623 31232 net.cpp:124] Setting up relu1
I0426 20:48:23.868633 31232 net.cpp:131] Top shape: 100 300 (30000)
I0426 20:48:23.868635 31232 net.cpp:139] Memory required for data: 554800
I0426 20:48:23.868638 31232 layer_factory.hpp:77] Creating layer ip2
I0426 20:48:23.868646 31232 net.cpp:86] Creating Layer ip2
I0426 20:48:23.868649 31232 net.cpp:408] ip2 <- ip1
I0426 20:48:23.868654 31232 net.cpp:382] ip2 -> ip2
I0426 20:48:23.868793 31232 net.cpp:124] Setting up ip2
I0426 20:48:23.868799 31232 net.cpp:131] Top shape: 100 10 (1000)
I0426 20:48:23.868803 31232 net.cpp:139] Memory required for data: 558800
I0426 20:48:23.868816 31232 layer_factory.hpp:77] Creating layer relu2
I0426 20:48:23.868836 31232 net.cpp:86] Creating Layer relu2
I0426 20:48:23.868840 31232 net.cpp:408] relu2 <- ip2
I0426 20:48:23.868844 31232 net.cpp:369] relu2 -> ip2 (in-place)
I0426 20:48:23.869722 31232 net.cpp:124] Setting up relu2
I0426 20:48:23.869735 31232 net.cpp:131] Top shape: 100 10 (1000)
I0426 20:48:23.869737 31232 net.cpp:139] Memory required for data: 562800
I0426 20:48:23.869741 31232 layer_factory.hpp:77] Creating layer ip2_relu2_0_split
I0426 20:48:23.869746 31232 net.cpp:86] Creating Layer ip2_relu2_0_split
I0426 20:48:23.869750 31232 net.cpp:408] ip2_relu2_0_split <- ip2
I0426 20:48:23.869755 31232 net.cpp:382] ip2_relu2_0_split -> ip2_relu2_0_split_0
I0426 20:48:23.869760 31232 net.cpp:382] ip2_relu2_0_split -> ip2_relu2_0_split_1
I0426 20:48:23.869806 31232 net.cpp:124] Setting up ip2_relu2_0_split
I0426 20:48:23.869812 31232 net.cpp:131] Top shape: 100 10 (1000)
I0426 20:48:23.869817 31232 net.cpp:131] Top shape: 100 10 (1000)
I0426 20:48:23.869830 31232 net.cpp:139] Memory required for data: 570800
I0426 20:48:23.869833 31232 layer_factory.hpp:77] Creating layer accuracy
I0426 20:48:23.869838 31232 net.cpp:86] Creating Layer accuracy
I0426 20:48:23.869841 31232 net.cpp:408] accuracy <- ip2_relu2_0_split_0
I0426 20:48:23.869845 31232 net.cpp:408] accuracy <- label_mnist_1_split_0
I0426 20:48:23.869849 31232 net.cpp:382] accuracy -> accuracy
…
