…
I0426 20:52:35.534348 32228 net.cpp:296] The NetState phase (0) differed from the phase (1) specified by a rule in layer mnist
I0426 20:52:35.534365 32228 net.cpp:296] The NetState phase (0) differed from the phase (1) specified by a rule in layer accuracy
I0426 20:52:35.534456 32228 net.cpp:53] Initializing net from parameters: 
name: "LeNet"
state {
  phase: TRAIN
  level: 0
  stage: ""
}
layer {
  name: "mnist"
  type: "Data"
  top: "data"
  top: "label"
  include {
    phase: TRAIN
  }
  transform_param {
    scale: 0.00390625
  }
  data_param {
    source: "examples/mnist/mnist_train_lmdb"
    batch_size: 64
    backend: LMDB
  }
}
layer {
  name: "conv0"
  type: "Convolution"
  bottom: "data"
  top: "conv0"
  param {
    lr_mult: 1
  }
  param {
    lr_mult: 2
  }
  convolution_param {
    num_output: 25
    kernel_size: 5
    stride: 1
    weight_filler {
      type: "xavier"
    }
    bias_filler {
      type: "constant"
    }
  }
}
layer {
  name: "pool0"
  type: "Pooling"
  bottom: "conv0"
  top: "pool0"
  pooling_param {
    pool: MAX
    kernel_size: 2
    stride: 2
  }
}
layer {
  name: "conv1"
  type: "Convolution"
  bottom: "pool0"
  top: "conv1"
  param {
    lr_mult: 1
  }
  param {
    lr_mult: 2
  }
  convolution_param {
    num_output: 25
    kernel_size: 5
    stride: 1
    weight_filler {
      type: "xavier"
    }
    bias_filler {
      type: "constant"
    }
  }
}
layer {
  name: "pool1"
  type: "Pooling"
  bottom: "conv1"
  top: "pool1"
  pooling_param {
    pool: MAX
    kernel_size: 2
    stride: 2
  }
}
layer {
  name: "ip1"
  type: "InnerProduct"
  bottom: "pool1"
  top: "ip1"
  param {
    lr_mult: 1
  }
  param {
    lr_mult: 2
  }
  inner_product_param {
    num_output: 300
    weight_filler {
      type: "xavier"
    }
    bias_filler {
      type: "constant"
    }
  }
}
layer {
  name: "relu1"
  type: "ReLU"
  bottom: "ip1"
  top: "ip1"
}
layer {
  name: "ip2"
  type: "InnerProduct"
  bottom: "ip1"
  top: "ip2"
  param {
    lr_mult: 1
  }
  param {
    lr_mult: 2
  }
  inner_product_param {
    num_output: 10
    weight_filler {
      type: "xavier"
    }
    bias_filler {
      type: "constant"
    }
  }
}
layer {
  name: "relu2"
  type: "ReLU"
  bottom: "ip2"
  top: "ip2"
}
layer {
  name: "loss"
  type: "SoftmaxWithLoss"
  bottom: "ip2"
  bottom: "label"
  top: "loss"
}
I0426 20:52:35.534533 32228 layer_factory.hpp:77] Creating layer mnist
I0426 20:52:35.534633 32228 db_lmdb.cpp:35] Opened lmdb examples/mnist/mnist_train_lmdb
I0426 20:52:35.534658 32228 net.cpp:86] Creating Layer mnist
I0426 20:52:35.534667 32228 net.cpp:382] mnist -> data
I0426 20:52:35.534693 32228 net.cpp:382] mnist -> label
I0426 20:52:35.535784 32228 data_layer.cpp:45] output data size: 64,1,28,28
I0426 20:52:35.538331 32228 net.cpp:124] Setting up mnist
I0426 20:52:35.538348 32228 net.cpp:131] Top shape: 64 1 28 28 (50176)
I0426 20:52:35.538355 32228 net.cpp:131] Top shape: 64 (64)
I0426 20:52:35.538359 32228 net.cpp:139] Memory required for data: 200960
I0426 20:52:35.538367 32228 layer_factory.hpp:77] Creating layer conv0
I0426 20:52:35.538383 32228 net.cpp:86] Creating Layer conv0
I0426 20:52:35.538388 32228 net.cpp:408] conv0 <- data
I0426 20:52:35.538400 32228 net.cpp:382] conv0 -> conv0
I0426 20:52:35.799948 32228 net.cpp:124] Setting up conv0
I0426 20:52:35.799988 32228 net.cpp:131] Top shape: 64 25 24 24 (921600)
I0426 20:52:35.799993 32228 net.cpp:139] Memory required for data: 3887360
I0426 20:52:35.800026 32228 layer_factory.hpp:77] Creating layer pool0
I0426 20:52:35.800055 32228 net.cpp:86] Creating Layer pool0
I0426 20:52:35.800058 32228 net.cpp:408] pool0 <- conv0
I0426 20:52:35.800065 32228 net.cpp:382] pool0 -> pool0
I0426 20:52:35.800109 32228 net.cpp:124] Setting up pool0
I0426 20:52:35.800119 32228 net.cpp:131] Top shape: 64 25 12 12 (230400)
I0426 20:52:35.800122 32228 net.cpp:139] Memory required for data: 4808960
I0426 20:52:35.800125 32228 layer_factory.hpp:77] Creating layer conv1
I0426 20:52:35.800137 32228 net.cpp:86] Creating Layer conv1
I0426 20:52:35.800139 32228 net.cpp:408] conv1 <- pool0
I0426 20:52:35.800144 32228 net.cpp:382] conv1 -> conv1
I0426 20:52:35.802947 32228 net.cpp:124] Setting up conv1
I0426 20:52:35.802961 32228 net.cpp:131] Top shape: 64 25 8 8 (102400)
I0426 20:52:35.802965 32228 net.cpp:139] Memory required for data: 5218560
I0426 20:52:35.802973 32228 layer_factory.hpp:77] Creating layer pool1
I0426 20:52:35.802980 32228 net.cpp:86] Creating Layer pool1
I0426 20:52:35.802984 32228 net.cpp:408] pool1 <- conv1
I0426 20:52:35.802989 32228 net.cpp:382] pool1 -> pool1
I0426 20:52:35.803038 32228 net.cpp:124] Setting up pool1
I0426 20:52:35.803043 32228 net.cpp:131] Top shape: 64 25 4 4 (25600)
I0426 20:52:35.803046 32228 net.cpp:139] Memory required for data: 5320960
I0426 20:52:35.803048 32228 layer_factory.hpp:77] Creating layer ip1
I0426 20:52:35.803056 32228 net.cpp:86] Creating Layer ip1
I0426 20:52:35.803058 32228 net.cpp:408] ip1 <- pool1
I0426 20:52:35.803063 32228 net.cpp:382] ip1 -> ip1
I0426 20:52:35.804596 32228 net.cpp:124] Setting up ip1
I0426 20:52:35.804608 32228 net.cpp:131] Top shape: 64 300 (19200)
I0426 20:52:35.804611 32228 net.cpp:139] Memory required for data: 5397760
I0426 20:52:35.804620 32228 layer_factory.hpp:77] Creating layer relu1
I0426 20:52:35.804625 32228 net.cpp:86] Creating Layer relu1
I0426 20:52:35.804628 32228 net.cpp:408] relu1 <- ip1
I0426 20:52:35.804632 32228 net.cpp:369] relu1 -> ip1 (in-place)
I0426 20:52:35.804807 32228 net.cpp:124] Setting up relu1
I0426 20:52:35.804837 32228 net.cpp:131] Top shape: 64 300 (19200)
I0426 20:52:35.804841 32228 net.cpp:139] Memory required for data: 5474560
I0426 20:52:35.804844 32228 layer_factory.hpp:77] Creating layer ip2
I0426 20:52:35.804850 32228 net.cpp:86] Creating Layer ip2
I0426 20:52:35.804853 32228 net.cpp:408] ip2 <- ip1
I0426 20:52:35.804860 32228 net.cpp:382] ip2 -> ip2
I0426 20:52:35.805908 32228 net.cpp:124] Setting up ip2
I0426 20:52:35.805919 32228 net.cpp:131] Top shape: 64 10 (640)
I0426 20:52:35.805922 32228 net.cpp:139] Memory required for data: 5477120
I0426 20:52:35.805928 32228 layer_factory.hpp:77] Creating layer relu2
I0426 20:52:35.805934 32228 net.cpp:86] Creating Layer relu2
I0426 20:52:35.805938 32228 net.cpp:408] relu2 <- ip2
I0426 20:52:35.805943 32228 net.cpp:369] relu2 -> ip2 (in-place)
I0426 20:52:35.806800 32228 net.cpp:124] Setting up relu2
I0426 20:52:35.806813 32228 net.cpp:131] Top shape: 64 10 (640)
I0426 20:52:35.806830 32228 net.cpp:139] Memory required for data: 5479680
I0426 20:52:35.806833 32228 layer_factory.hpp:77] Creating layer loss
I0426 20:52:35.806839 32228 net.cpp:86] Creating Layer loss
I0426 20:52:35.806843 32228 net.cpp:408] loss <- ip2
I0426 20:52:35.806848 32228 net.cpp:408] loss <- label
I0426 20:52:35.806854 32228 net.cpp:382] loss -> loss
I0426 20:52:35.806872 32228 layer_factory.hpp:77] Creating layer loss
…
I0426 20:52:35.807533 32228 solver.cpp:173] Creating test net (#0) specified by net file: ECE595/mnist/train_test/var_everything/lenet_train_test116.prototxt
I0426 20:52:35.807559 32228 net.cpp:296] The NetState phase (1) differed from the phase (0) specified by a rule in layer mnist
I0426 20:52:35.807639 32228 net.cpp:53] Initializing net from parameters: 
name: "LeNet"
state {
  phase: TEST
}
layer {
  name: "mnist"
  type: "Data"
  top: "data"
  top: "label"
  include {
    phase: TEST
  }
  transform_param {
    scale: 0.00390625
  }
  data_param {
    source: "examples/mnist/mnist_test_lmdb"
    batch_size: 100
    backend: LMDB
  }
}
layer {
  name: "conv0"
  type: "Convolution"
  bottom: "data"
  top: "conv0"
  param {
    lr_mult: 1
  }
  param {
    lr_mult: 2
  }
  convolution_param {
    num_output: 25
    kernel_size: 5
    stride: 1
    weight_filler {
      type: "xavier"
    }
    bias_filler {
      type: "constant"
    }
  }
}
layer {
  name: "pool0"
  type: "Pooling"
  bottom: "conv0"
  top: "pool0"
  pooling_param {
    pool: MAX
    kernel_size: 2
    stride: 2
  }
}
layer {
  name: "conv1"
  type: "Convolution"
  bottom: "pool0"
  top: "conv1"
  param {
    lr_mult: 1
  }
  param {
    lr_mult: 2
  }
  convolution_param {
    num_output: 25
    kernel_size: 5
    stride: 1
    weight_filler {
      type: "xavier"
    }
    bias_filler {
      type: "constant"
    }
  }
}
layer {
  name: "pool1"
  type: "Pooling"
  bottom: "conv1"
  top: "pool1"
  pooling_param {
    pool: MAX
    kernel_size: 2
    stride: 2
  }
}
layer {
  name: "ip1"
  type: "InnerProduct"
  bottom: "pool1"
  top: "ip1"
  param {
    lr_mult: 1
  }
  param {
    lr_mult: 2
  }
  inner_product_param {
    num_output: 300
    weight_filler {
      type: "xavier"
    }
    bias_filler {
      type: "constant"
    }
  }
}
layer {
  name: "relu1"
  type: "ReLU"
  bottom: "ip1"
  top: "ip1"
}
layer {
  name: "ip2"
  type: "InnerProduct"
  bottom: "ip1"
  top: "ip2"
  param {
    lr_mult: 1
  }
  param {
    lr_mult: 2
  }
  inner_product_param {
    num_output: 10
    weight_filler {
      type: "xavier"
    }
    bias_filler {
      type: "constant"
    }
  }
}
layer {
  name: "relu2"
  type: "ReLU"
  bottom: "ip2"
  top: "ip2"
}
layer {
  name: "accuracy"
  type: "Accuracy"
  bottom: "ip2"
  bottom: "label"
  top: "accuracy"
  include {
    phase: TEST
  }
}
layer {
  name: "loss"
  type: "SoftmaxWithLoss"
  bottom: "ip2"
  bottom: "label"
  top: "loss"
}
I0426 20:52:35.807703 32228 layer_factory.hpp:77] Creating layer mnist
I0426 20:52:35.807745 32228 db_lmdb.cpp:35] Opened lmdb examples/mnist/mnist_test_lmdb
I0426 20:52:35.807757 32228 net.cpp:86] Creating Layer mnist
I0426 20:52:35.807762 32228 net.cpp:382] mnist -> data
I0426 20:52:35.807770 32228 net.cpp:382] mnist -> label
I0426 20:52:35.807853 32228 data_layer.cpp:45] output data size: 100,1,28,28
I0426 20:52:35.809034 32228 net.cpp:124] Setting up mnist
I0426 20:52:35.809063 32228 net.cpp:131] Top shape: 100 1 28 28 (78400)
I0426 20:52:35.809068 32228 net.cpp:131] Top shape: 100 (100)
I0426 20:52:35.809072 32228 net.cpp:139] Memory required for data: 314000
I0426 20:52:35.809075 32228 layer_factory.hpp:77] Creating layer label_mnist_1_split
I0426 20:52:35.809146 32228 net.cpp:86] Creating Layer label_mnist_1_split
I0426 20:52:35.809165 32228 net.cpp:408] label_mnist_1_split <- label
I0426 20:52:35.809171 32228 net.cpp:382] label_mnist_1_split -> label_mnist_1_split_0
I0426 20:52:35.809177 32228 net.cpp:382] label_mnist_1_split -> label_mnist_1_split_1
I0426 20:52:35.809228 32228 net.cpp:124] Setting up label_mnist_1_split
I0426 20:52:35.809234 32228 net.cpp:131] Top shape: 100 (100)
I0426 20:52:35.809237 32228 net.cpp:131] Top shape: 100 (100)
I0426 20:52:35.809240 32228 net.cpp:139] Memory required for data: 314800
I0426 20:52:35.809242 32228 layer_factory.hpp:77] Creating layer conv0
I0426 20:52:35.809252 32228 net.cpp:86] Creating Layer conv0
I0426 20:52:35.809255 32228 net.cpp:408] conv0 <- data
I0426 20:52:35.809260 32228 net.cpp:382] conv0 -> conv0
I0426 20:52:35.811154 32228 net.cpp:124] Setting up conv0
I0426 20:52:35.811167 32228 net.cpp:131] Top shape: 100 25 24 24 (1440000)
I0426 20:52:35.811172 32228 net.cpp:139] Memory required for data: 6074800
I0426 20:52:35.811180 32228 layer_factory.hpp:77] Creating layer pool0
I0426 20:52:35.811187 32228 net.cpp:86] Creating Layer pool0
I0426 20:52:35.811205 32228 net.cpp:408] pool0 <- conv0
I0426 20:52:35.811210 32228 net.cpp:382] pool0 -> pool0
I0426 20:52:35.811245 32228 net.cpp:124] Setting up pool0
I0426 20:52:35.811249 32228 net.cpp:131] Top shape: 100 25 12 12 (360000)
I0426 20:52:35.811252 32228 net.cpp:139] Memory required for data: 7514800
I0426 20:52:35.811255 32228 layer_factory.hpp:77] Creating layer conv1
I0426 20:52:35.811264 32228 net.cpp:86] Creating Layer conv1
I0426 20:52:35.811266 32228 net.cpp:408] conv1 <- pool0
I0426 20:52:35.811270 32228 net.cpp:382] conv1 -> conv1
I0426 20:52:35.813688 32228 net.cpp:124] Setting up conv1
I0426 20:52:35.813701 32228 net.cpp:131] Top shape: 100 25 8 8 (160000)
I0426 20:52:35.813705 32228 net.cpp:139] Memory required for data: 8154800
I0426 20:52:35.813714 32228 layer_factory.hpp:77] Creating layer pool1
I0426 20:52:35.813730 32228 net.cpp:86] Creating Layer pool1
I0426 20:52:35.813733 32228 net.cpp:408] pool1 <- conv1
I0426 20:52:35.813753 32228 net.cpp:382] pool1 -> pool1
I0426 20:52:35.813794 32228 net.cpp:124] Setting up pool1
I0426 20:52:35.813799 32228 net.cpp:131] Top shape: 100 25 4 4 (40000)
I0426 20:52:35.813802 32228 net.cpp:139] Memory required for data: 8314800
I0426 20:52:35.813807 32228 layer_factory.hpp:77] Creating layer ip1
I0426 20:52:35.813812 32228 net.cpp:86] Creating Layer ip1
I0426 20:52:35.813840 32228 net.cpp:408] ip1 <- pool1
I0426 20:52:35.813846 32228 net.cpp:382] ip1 -> ip1
I0426 20:52:35.815529 32228 net.cpp:124] Setting up ip1
I0426 20:52:35.815543 32228 net.cpp:131] Top shape: 100 300 (30000)
I0426 20:52:35.815547 32228 net.cpp:139] Memory required for data: 8434800
I0426 20:52:35.815554 32228 layer_factory.hpp:77] Creating layer relu1
I0426 20:52:35.815575 32228 net.cpp:86] Creating Layer relu1
I0426 20:52:35.815579 32228 net.cpp:408] relu1 <- ip1
I0426 20:52:35.815584 32228 net.cpp:369] relu1 -> ip1 (in-place)
I0426 20:52:35.815812 32228 net.cpp:124] Setting up relu1
I0426 20:52:35.815821 32228 net.cpp:131] Top shape: 100 300 (30000)
I0426 20:52:35.815824 32228 net.cpp:139] Memory required for data: 8554800
I0426 20:52:35.815827 32228 layer_factory.hpp:77] Creating layer ip2
I0426 20:52:35.815835 32228 net.cpp:86] Creating Layer ip2
I0426 20:52:35.815838 32228 net.cpp:408] ip2 <- ip1
I0426 20:52:35.815843 32228 net.cpp:382] ip2 -> ip2
I0426 20:52:35.815989 32228 net.cpp:124] Setting up ip2
I0426 20:52:35.815996 32228 net.cpp:131] Top shape: 100 10 (1000)
I0426 20:52:35.815999 32228 net.cpp:139] Memory required for data: 8558800
I0426 20:52:35.816005 32228 layer_factory.hpp:77] Creating layer relu2
I0426 20:52:35.816010 32228 net.cpp:86] Creating Layer relu2
I0426 20:52:35.816014 32228 net.cpp:408] relu2 <- ip2
I0426 20:52:35.816018 32228 net.cpp:369] relu2 -> ip2 (in-place)
I0426 20:52:35.816179 32228 net.cpp:124] Setting up relu2
I0426 20:52:35.816190 32228 net.cpp:131] Top shape: 100 10 (1000)
I0426 20:52:35.816192 32228 net.cpp:139] Memory required for data: 8562800
I0426 20:52:35.816195 32228 layer_factory.hpp:77] Creating layer ip2_relu2_0_split
I0426 20:52:35.816220 32228 net.cpp:86] Creating Layer ip2_relu2_0_split
I0426 20:52:35.816222 32228 net.cpp:408] ip2_relu2_0_split <- ip2
I0426 20:52:35.816226 32228 net.cpp:382] ip2_relu2_0_split -> ip2_relu2_0_split_0
I0426 20:52:35.816242 32228 net.cpp:382] ip2_relu2_0_split -> ip2_relu2_0_split_1
I0426 20:52:35.816277 32228 net.cpp:124] Setting up ip2_relu2_0_split
I0426 20:52:35.816282 32228 net.cpp:131] Top shape: 100 10 (1000)
I0426 20:52:35.816285 32228 net.cpp:131] Top shape: 100 10 (1000)
I0426 20:52:35.816288 32228 net.cpp:139] Memory required for data: 8570800
I0426 20:52:35.816292 32228 layer_factory.hpp:77] Creating layer accuracy
I0426 20:52:35.816295 32228 net.cpp:86] Creating Layer accuracy
I0426 20:52:35.816306 32228 net.cpp:408] accuracy <- ip2_relu2_0_split_0
I0426 20:52:35.816311 32228 net.cpp:408] accuracy <- label_mnist_1_split_0
I0426 20:52:35.816315 32228 net.cpp:382] accuracy -> accuracy
…
