…
I0426 20:48:21.941212 31224 net.cpp:296] The NetState phase (0) differed from the phase (1) specified by a rule in layer mnist
I0426 20:48:21.941224 31224 net.cpp:296] The NetState phase (0) differed from the phase (1) specified by a rule in layer accuracy
I0426 20:48:21.941292 31224 net.cpp:53] Initializing net from parameters: 
name: "LeNet"
state {
  phase: TRAIN
  level: 0
  stage: ""
}
layer {
  name: "mnist"
  type: "Data"
  top: "data"
  top: "label"
  include {
    phase: TRAIN
  }
  transform_param {
    scale: 0.00390625
  }
  data_param {
    source: "examples/mnist/mnist_train_lmdb"
    batch_size: 64
    backend: LMDB
  }
}
layer {
  name: "ip1"
  type: "InnerProduct"
  bottom: "data"
  top: "ip1"
  param {
    lr_mult: 1
  }
  param {
    lr_mult: 2
  }
  inner_product_param {
    num_output: 100
    weight_filler {
      type: "xavier"
    }
    bias_filler {
      type: "constant"
    }
  }
}
layer {
  name: "relu1"
  type: "ReLU"
  bottom: "ip1"
  top: "ip1"
}
layer {
  name: "ip2"
  type: "InnerProduct"
  bottom: "ip1"
  top: "ip2"
  param {
    lr_mult: 1
  }
  param {
    lr_mult: 2
  }
  inner_product_param {
    num_output: 10
    weight_filler {
      type: "xavier"
    }
    bias_filler {
      type: "constant"
    }
  }
}
layer {
  name: "relu2"
  type: "ReLU"
  bottom: "ip2"
  top: "ip2"
}
layer {
  name: "loss"
  type: "SoftmaxWithLoss"
  bottom: "ip2"
  bottom: "label"
  top: "loss"
}
I0426 20:48:21.941339 31224 layer_factory.hpp:77] Creating layer mnist
I0426 20:48:21.941437 31224 db_lmdb.cpp:35] Opened lmdb examples/mnist/mnist_train_lmdb
I0426 20:48:21.941458 31224 net.cpp:86] Creating Layer mnist
I0426 20:48:21.941467 31224 net.cpp:382] mnist -> data
I0426 20:48:21.941484 31224 net.cpp:382] mnist -> label
I0426 20:48:21.942387 31224 data_layer.cpp:45] output data size: 64,1,28,28
I0426 20:48:21.944566 31224 net.cpp:124] Setting up mnist
I0426 20:48:21.944578 31224 net.cpp:131] Top shape: 64 1 28 28 (50176)
I0426 20:48:21.944599 31224 net.cpp:131] Top shape: 64 (64)
I0426 20:48:21.944602 31224 net.cpp:139] Memory required for data: 200960
I0426 20:48:21.944607 31224 layer_factory.hpp:77] Creating layer ip1
I0426 20:48:21.944643 31224 net.cpp:86] Creating Layer ip1
I0426 20:48:21.944665 31224 net.cpp:408] ip1 <- data
I0426 20:48:21.944692 31224 net.cpp:382] ip1 -> ip1
I0426 20:48:21.946225 31224 net.cpp:124] Setting up ip1
I0426 20:48:21.946238 31224 net.cpp:131] Top shape: 64 100 (6400)
I0426 20:48:21.946256 31224 net.cpp:139] Memory required for data: 226560
I0426 20:48:21.946267 31224 layer_factory.hpp:77] Creating layer relu1
I0426 20:48:21.946276 31224 net.cpp:86] Creating Layer relu1
I0426 20:48:21.946280 31224 net.cpp:408] relu1 <- ip1
I0426 20:48:21.946285 31224 net.cpp:369] relu1 -> ip1 (in-place)
I0426 20:48:22.164861 31224 net.cpp:124] Setting up relu1
I0426 20:48:22.164918 31224 net.cpp:131] Top shape: 64 100 (6400)
I0426 20:48:22.164923 31224 net.cpp:139] Memory required for data: 252160
I0426 20:48:22.164929 31224 layer_factory.hpp:77] Creating layer ip2
I0426 20:48:22.164942 31224 net.cpp:86] Creating Layer ip2
I0426 20:48:22.164945 31224 net.cpp:408] ip2 <- ip1
I0426 20:48:22.164953 31224 net.cpp:382] ip2 -> ip2
I0426 20:48:22.166088 31224 net.cpp:124] Setting up ip2
I0426 20:48:22.166100 31224 net.cpp:131] Top shape: 64 10 (640)
I0426 20:48:22.166119 31224 net.cpp:139] Memory required for data: 254720
I0426 20:48:22.166129 31224 layer_factory.hpp:77] Creating layer relu2
I0426 20:48:22.166152 31224 net.cpp:86] Creating Layer relu2
I0426 20:48:22.166155 31224 net.cpp:408] relu2 <- ip2
I0426 20:48:22.166160 31224 net.cpp:369] relu2 -> ip2 (in-place)
I0426 20:48:22.166959 31224 net.cpp:124] Setting up relu2
I0426 20:48:22.166971 31224 net.cpp:131] Top shape: 64 10 (640)
I0426 20:48:22.166975 31224 net.cpp:139] Memory required for data: 257280
I0426 20:48:22.166978 31224 layer_factory.hpp:77] Creating layer loss
I0426 20:48:22.166985 31224 net.cpp:86] Creating Layer loss
I0426 20:48:22.166987 31224 net.cpp:408] loss <- ip2
I0426 20:48:22.166992 31224 net.cpp:408] loss <- label
I0426 20:48:22.166997 31224 net.cpp:382] loss -> loss
I0426 20:48:22.167013 31224 layer_factory.hpp:77] Creating layer loss
…
I0426 20:48:22.167520 31224 solver.cpp:173] Creating test net (#0) specified by net file: ECE595/mnist/train_test/var_everything/lenet_train_test3.prototxt
I0426 20:48:22.167541 31224 net.cpp:296] The NetState phase (1) differed from the phase (0) specified by a rule in layer mnist
I0426 20:48:22.167629 31224 net.cpp:53] Initializing net from parameters: 
name: "LeNet"
state {
  phase: TEST
}
layer {
  name: "mnist"
  type: "Data"
  top: "data"
  top: "label"
  include {
    phase: TEST
  }
  transform_param {
    scale: 0.00390625
  }
  data_param {
    source: "examples/mnist/mnist_test_lmdb"
    batch_size: 100
    backend: LMDB
  }
}
layer {
  name: "ip1"
  type: "InnerProduct"
  bottom: "data"
  top: "ip1"
  param {
    lr_mult: 1
  }
  param {
    lr_mult: 2
  }
  inner_product_param {
    num_output: 100
    weight_filler {
      type: "xavier"
    }
    bias_filler {
      type: "constant"
    }
  }
}
layer {
  name: "relu1"
  type: "ReLU"
  bottom: "ip1"
  top: "ip1"
}
layer {
  name: "ip2"
  type: "InnerProduct"
  bottom: "ip1"
  top: "ip2"
  param {
    lr_mult: 1
  }
  param {
    lr_mult: 2
  }
  inner_product_param {
    num_output: 10
    weight_filler {
      type: "xavier"
    }
    bias_filler {
      type: "constant"
    }
  }
}
layer {
  name: "relu2"
  type: "ReLU"
  bottom: "ip2"
  top: "ip2"
}
layer {
  name: "accuracy"
  type: "Accuracy"
  bottom: "ip2"
  bottom: "label"
  top: "accuracy"
  include {
    phase: TEST
  }
}
layer {
  name: "loss"
  type: "SoftmaxWithLoss"
  bottom: "ip2"
  bottom: "label"
  top: "loss"
}
I0426 20:48:22.167677 31224 layer_factory.hpp:77] Creating layer mnist
I0426 20:48:22.167721 31224 db_lmdb.cpp:35] Opened lmdb examples/mnist/mnist_test_lmdb
I0426 20:48:22.167735 31224 net.cpp:86] Creating Layer mnist
I0426 20:48:22.167742 31224 net.cpp:382] mnist -> data
I0426 20:48:22.167749 31224 net.cpp:382] mnist -> label
I0426 20:48:22.167845 31224 data_layer.cpp:45] output data size: 100,1,28,28
I0426 20:48:22.169080 31224 net.cpp:124] Setting up mnist
I0426 20:48:22.169108 31224 net.cpp:131] Top shape: 100 1 28 28 (78400)
I0426 20:48:22.169114 31224 net.cpp:131] Top shape: 100 (100)
I0426 20:48:22.169118 31224 net.cpp:139] Memory required for data: 314000
I0426 20:48:22.169122 31224 layer_factory.hpp:77] Creating layer label_mnist_1_split
I0426 20:48:22.169180 31224 net.cpp:86] Creating Layer label_mnist_1_split
I0426 20:48:22.169200 31224 net.cpp:408] label_mnist_1_split <- label
I0426 20:48:22.169205 31224 net.cpp:382] label_mnist_1_split -> label_mnist_1_split_0
I0426 20:48:22.169252 31224 net.cpp:382] label_mnist_1_split -> label_mnist_1_split_1
I0426 20:48:22.169339 31224 net.cpp:124] Setting up label_mnist_1_split
I0426 20:48:22.169348 31224 net.cpp:131] Top shape: 100 (100)
I0426 20:48:22.169351 31224 net.cpp:131] Top shape: 100 (100)
I0426 20:48:22.169354 31224 net.cpp:139] Memory required for data: 314800
I0426 20:48:22.169358 31224 layer_factory.hpp:77] Creating layer ip1
I0426 20:48:22.169364 31224 net.cpp:86] Creating Layer ip1
I0426 20:48:22.169368 31224 net.cpp:408] ip1 <- data
I0426 20:48:22.169373 31224 net.cpp:382] ip1 -> ip1
I0426 20:48:22.169965 31224 net.cpp:124] Setting up ip1
I0426 20:48:22.169973 31224 net.cpp:131] Top shape: 100 100 (10000)
I0426 20:48:22.169976 31224 net.cpp:139] Memory required for data: 354800
I0426 20:48:22.169986 31224 layer_factory.hpp:77] Creating layer relu1
I0426 20:48:22.169991 31224 net.cpp:86] Creating Layer relu1
I0426 20:48:22.169994 31224 net.cpp:408] relu1 <- ip1
I0426 20:48:22.169998 31224 net.cpp:369] relu1 -> ip1 (in-place)
I0426 20:48:22.170158 31224 net.cpp:124] Setting up relu1
I0426 20:48:22.170167 31224 net.cpp:131] Top shape: 100 100 (10000)
I0426 20:48:22.170171 31224 net.cpp:139] Memory required for data: 394800
I0426 20:48:22.170173 31224 layer_factory.hpp:77] Creating layer ip2
I0426 20:48:22.170181 31224 net.cpp:86] Creating Layer ip2
I0426 20:48:22.170183 31224 net.cpp:408] ip2 <- ip1
I0426 20:48:22.170188 31224 net.cpp:382] ip2 -> ip2
I0426 20:48:22.170295 31224 net.cpp:124] Setting up ip2
I0426 20:48:22.170302 31224 net.cpp:131] Top shape: 100 10 (1000)
I0426 20:48:22.170305 31224 net.cpp:139] Memory required for data: 398800
I0426 20:48:22.170312 31224 layer_factory.hpp:77] Creating layer relu2
I0426 20:48:22.170316 31224 net.cpp:86] Creating Layer relu2
I0426 20:48:22.170320 31224 net.cpp:408] relu2 <- ip2
I0426 20:48:22.170325 31224 net.cpp:369] relu2 -> ip2 (in-place)
I0426 20:48:22.171232 31224 net.cpp:124] Setting up relu2
I0426 20:48:22.171244 31224 net.cpp:131] Top shape: 100 10 (1000)
I0426 20:48:22.171248 31224 net.cpp:139] Memory required for data: 402800
I0426 20:48:22.171252 31224 layer_factory.hpp:77] Creating layer ip2_relu2_0_split
I0426 20:48:22.171257 31224 net.cpp:86] Creating Layer ip2_relu2_0_split
I0426 20:48:22.171262 31224 net.cpp:408] ip2_relu2_0_split <- ip2
I0426 20:48:22.171267 31224 net.cpp:382] ip2_relu2_0_split -> ip2_relu2_0_split_0
I0426 20:48:22.171272 31224 net.cpp:382] ip2_relu2_0_split -> ip2_relu2_0_split_1
I0426 20:48:22.171339 31224 net.cpp:124] Setting up ip2_relu2_0_split
I0426 20:48:22.171347 31224 net.cpp:131] Top shape: 100 10 (1000)
I0426 20:48:22.171351 31224 net.cpp:131] Top shape: 100 10 (1000)
I0426 20:48:22.171355 31224 net.cpp:139] Memory required for data: 410800
I0426 20:48:22.171375 31224 layer_factory.hpp:77] Creating layer accuracy
I0426 20:48:22.171399 31224 net.cpp:86] Creating Layer accuracy
I0426 20:48:22.171408 31224 net.cpp:408] accuracy <- ip2_relu2_0_split_0
I0426 20:48:22.171414 31224 net.cpp:408] accuracy <- label_mnist_1_split_0
I0426 20:48:22.171419 31224 net.cpp:382] accuracy -> accuracy
…
