…
I0426 20:51:19.906380 31958 net.cpp:296] The NetState phase (0) differed from the phase (1) specified by a rule in layer mnist
I0426 20:51:19.906394 31958 net.cpp:296] The NetState phase (0) differed from the phase (1) specified by a rule in layer accuracy
I0426 20:51:19.906461 31958 net.cpp:53] Initializing net from parameters: 
name: "LeNet"
state {
  phase: TRAIN
  level: 0
  stage: ""
}
layer {
  name: "mnist"
  type: "Data"
  top: "data"
  top: "label"
  include {
    phase: TRAIN
  }
  transform_param {
    scale: 0.00390625
  }
  data_param {
    source: "examples/mnist/mnist_train_lmdb"
    batch_size: 64
    backend: LMDB
  }
}
layer {
  name: "conv0"
  type: "Convolution"
  bottom: "data"
  top: "conv0"
  param {
    lr_mult: 1
  }
  param {
    lr_mult: 2
  }
  convolution_param {
    num_output: 10
    kernel_size: 5
    stride: 1
    weight_filler {
      type: "xavier"
    }
    bias_filler {
      type: "constant"
    }
  }
}
layer {
  name: "pool0"
  type: "Pooling"
  bottom: "conv0"
  top: "pool0"
  pooling_param {
    pool: MAX
    kernel_size: 2
    stride: 2
  }
}
layer {
  name: "conv1"
  type: "Convolution"
  bottom: "pool0"
  top: "conv1"
  param {
    lr_mult: 1
  }
  param {
    lr_mult: 2
  }
  convolution_param {
    num_output: 50
    kernel_size: 5
    stride: 1
    weight_filler {
      type: "xavier"
    }
    bias_filler {
      type: "constant"
    }
  }
}
layer {
  name: "pool1"
  type: "Pooling"
  bottom: "conv1"
  top: "pool1"
  pooling_param {
    pool: MAX
    kernel_size: 2
    stride: 2
  }
}
layer {
  name: "ip1"
  type: "InnerProduct"
  bottom: "pool1"
  top: "ip1"
  param {
    lr_mult: 1
  }
  param {
    lr_mult: 2
  }
  inner_product_param {
    num_output: 10
    weight_filler {
      type: "xavier"
    }
    bias_filler {
      type: "constant"
    }
  }
}
layer {
  name: "relu1"
  type: "ReLU"
  bottom: "ip1"
  top: "ip1"
}
layer {
  name: "loss"
  type: "SoftmaxWithLoss"
  bottom: "ip1"
  bottom: "label"
  top: "loss"
}
I0426 20:51:19.906519 31958 layer_factory.hpp:77] Creating layer mnist
I0426 20:51:19.906605 31958 db_lmdb.cpp:35] Opened lmdb examples/mnist/mnist_train_lmdb
I0426 20:51:19.906625 31958 net.cpp:86] Creating Layer mnist
I0426 20:51:19.906632 31958 net.cpp:382] mnist -> data
I0426 20:51:19.906651 31958 net.cpp:382] mnist -> label
I0426 20:51:19.907577 31958 data_layer.cpp:45] output data size: 64,1,28,28
I0426 20:51:19.909749 31958 net.cpp:124] Setting up mnist
I0426 20:51:19.909777 31958 net.cpp:131] Top shape: 64 1 28 28 (50176)
I0426 20:51:19.909782 31958 net.cpp:131] Top shape: 64 (64)
I0426 20:51:19.909785 31958 net.cpp:139] Memory required for data: 200960
I0426 20:51:19.909791 31958 layer_factory.hpp:77] Creating layer conv0
I0426 20:51:19.909814 31958 net.cpp:86] Creating Layer conv0
I0426 20:51:19.909821 31958 net.cpp:408] conv0 <- data
I0426 20:51:19.909831 31958 net.cpp:382] conv0 -> conv0
I0426 20:51:20.142433 31958 net.cpp:124] Setting up conv0
I0426 20:51:20.142473 31958 net.cpp:131] Top shape: 64 10 24 24 (368640)
I0426 20:51:20.142477 31958 net.cpp:139] Memory required for data: 1675520
I0426 20:51:20.142493 31958 layer_factory.hpp:77] Creating layer pool0
I0426 20:51:20.142504 31958 net.cpp:86] Creating Layer pool0
I0426 20:51:20.142508 31958 net.cpp:408] pool0 <- conv0
I0426 20:51:20.142513 31958 net.cpp:382] pool0 -> pool0
I0426 20:51:20.142571 31958 net.cpp:124] Setting up pool0
I0426 20:51:20.142577 31958 net.cpp:131] Top shape: 64 10 12 12 (92160)
I0426 20:51:20.142596 31958 net.cpp:139] Memory required for data: 2044160
I0426 20:51:20.142599 31958 layer_factory.hpp:77] Creating layer conv1
I0426 20:51:20.142627 31958 net.cpp:86] Creating Layer conv1
I0426 20:51:20.142629 31958 net.cpp:408] conv1 <- pool0
I0426 20:51:20.142634 31958 net.cpp:382] conv1 -> conv1
I0426 20:51:20.145355 31958 net.cpp:124] Setting up conv1
I0426 20:51:20.145368 31958 net.cpp:131] Top shape: 64 50 8 8 (204800)
I0426 20:51:20.145372 31958 net.cpp:139] Memory required for data: 2863360
I0426 20:51:20.145380 31958 layer_factory.hpp:77] Creating layer pool1
I0426 20:51:20.145387 31958 net.cpp:86] Creating Layer pool1
I0426 20:51:20.145390 31958 net.cpp:408] pool1 <- conv1
I0426 20:51:20.145395 31958 net.cpp:382] pool1 -> pool1
I0426 20:51:20.145443 31958 net.cpp:124] Setting up pool1
I0426 20:51:20.145448 31958 net.cpp:131] Top shape: 64 50 4 4 (51200)
I0426 20:51:20.145452 31958 net.cpp:139] Memory required for data: 3068160
I0426 20:51:20.145454 31958 layer_factory.hpp:77] Creating layer ip1
I0426 20:51:20.145462 31958 net.cpp:86] Creating Layer ip1
I0426 20:51:20.145463 31958 net.cpp:408] ip1 <- pool1
I0426 20:51:20.145468 31958 net.cpp:382] ip1 -> ip1
I0426 20:51:20.145622 31958 net.cpp:124] Setting up ip1
I0426 20:51:20.145629 31958 net.cpp:131] Top shape: 64 10 (640)
I0426 20:51:20.145632 31958 net.cpp:139] Memory required for data: 3070720
I0426 20:51:20.145639 31958 layer_factory.hpp:77] Creating layer relu1
I0426 20:51:20.145644 31958 net.cpp:86] Creating Layer relu1
I0426 20:51:20.145648 31958 net.cpp:408] relu1 <- ip1
I0426 20:51:20.145651 31958 net.cpp:369] relu1 -> ip1 (in-place)
I0426 20:51:20.145803 31958 net.cpp:124] Setting up relu1
I0426 20:51:20.145812 31958 net.cpp:131] Top shape: 64 10 (640)
I0426 20:51:20.145815 31958 net.cpp:139] Memory required for data: 3073280
I0426 20:51:20.145834 31958 layer_factory.hpp:77] Creating layer loss
I0426 20:51:20.145840 31958 net.cpp:86] Creating Layer loss
I0426 20:51:20.145843 31958 net.cpp:408] loss <- ip1
I0426 20:51:20.145848 31958 net.cpp:408] loss <- label
I0426 20:51:20.145853 31958 net.cpp:382] loss -> loss
I0426 20:51:20.145869 31958 layer_factory.hpp:77] Creating layer loss
…
I0426 20:51:20.147100 31958 solver.cpp:173] Creating test net (#0) specified by net file: ECE595/mnist/train_test/var_everything/lenet_train_test84.prototxt
I0426 20:51:20.147125 31958 net.cpp:296] The NetState phase (1) differed from the phase (0) specified by a rule in layer mnist
I0426 20:51:20.147198 31958 net.cpp:53] Initializing net from parameters: 
name: "LeNet"
state {
  phase: TEST
}
layer {
  name: "mnist"
  type: "Data"
  top: "data"
  top: "label"
  include {
    phase: TEST
  }
  transform_param {
    scale: 0.00390625
  }
  data_param {
    source: "examples/mnist/mnist_test_lmdb"
    batch_size: 100
    backend: LMDB
  }
}
layer {
  name: "conv0"
  type: "Convolution"
  bottom: "data"
  top: "conv0"
  param {
    lr_mult: 1
  }
  param {
    lr_mult: 2
  }
  convolution_param {
    num_output: 10
    kernel_size: 5
    stride: 1
    weight_filler {
      type: "xavier"
    }
    bias_filler {
      type: "constant"
    }
  }
}
layer {
  name: "pool0"
  type: "Pooling"
  bottom: "conv0"
  top: "pool0"
  pooling_param {
    pool: MAX
    kernel_size: 2
    stride: 2
  }
}
layer {
  name: "conv1"
  type: "Convolution"
  bottom: "pool0"
  top: "conv1"
  param {
    lr_mult: 1
  }
  param {
    lr_mult: 2
  }
  convolution_param {
    num_output: 50
    kernel_size: 5
    stride: 1
    weight_filler {
      type: "xavier"
    }
    bias_filler {
      type: "constant"
    }
  }
}
layer {
  name: "pool1"
  type: "Pooling"
  bottom: "conv1"
  top: "pool1"
  pooling_param {
    pool: MAX
    kernel_size: 2
    stride: 2
  }
}
layer {
  name: "ip1"
  type: "InnerProduct"
  bottom: "pool1"
  top: "ip1"
  param {
    lr_mult: 1
  }
  param {
    lr_mult: 2
  }
  inner_product_param {
    num_output: 10
    weight_filler {
      type: "xavier"
    }
    bias_filler {
      type: "constant"
    }
  }
}
layer {
  name: "relu1"
  type: "ReLU"
  bottom: "ip1"
  top: "ip1"
}
layer {
  name: "accuracy"
  type: "Accuracy"
  bottom: "ip1"
  bottom: "label"
  top: "accuracy"
  include {
    phase: TEST
  }
}
layer {
  name: "loss"
  type: "SoftmaxWithLoss"
  bottom: "ip1"
  bottom: "label"
  top: "loss"
}
I0426 20:51:20.147281 31958 layer_factory.hpp:77] Creating layer mnist
I0426 20:51:20.147323 31958 db_lmdb.cpp:35] Opened lmdb examples/mnist/mnist_test_lmdb
I0426 20:51:20.147336 31958 net.cpp:86] Creating Layer mnist
I0426 20:51:20.147339 31958 net.cpp:382] mnist -> data
I0426 20:51:20.147347 31958 net.cpp:382] mnist -> label
I0426 20:51:20.147423 31958 data_layer.cpp:45] output data size: 100,1,28,28
I0426 20:51:20.149586 31958 net.cpp:124] Setting up mnist
I0426 20:51:20.149598 31958 net.cpp:131] Top shape: 100 1 28 28 (78400)
I0426 20:51:20.149602 31958 net.cpp:131] Top shape: 100 (100)
I0426 20:51:20.149605 31958 net.cpp:139] Memory required for data: 314000
I0426 20:51:20.149610 31958 layer_factory.hpp:77] Creating layer label_mnist_1_split
I0426 20:51:20.149618 31958 net.cpp:86] Creating Layer label_mnist_1_split
I0426 20:51:20.149621 31958 net.cpp:408] label_mnist_1_split <- label
I0426 20:51:20.149626 31958 net.cpp:382] label_mnist_1_split -> label_mnist_1_split_0
I0426 20:51:20.149632 31958 net.cpp:382] label_mnist_1_split -> label_mnist_1_split_1
I0426 20:51:20.149682 31958 net.cpp:124] Setting up label_mnist_1_split
I0426 20:51:20.149685 31958 net.cpp:131] Top shape: 100 (100)
I0426 20:51:20.149689 31958 net.cpp:131] Top shape: 100 (100)
I0426 20:51:20.149693 31958 net.cpp:139] Memory required for data: 314800
I0426 20:51:20.149694 31958 layer_factory.hpp:77] Creating layer conv0
I0426 20:51:20.149703 31958 net.cpp:86] Creating Layer conv0
I0426 20:51:20.149705 31958 net.cpp:408] conv0 <- data
I0426 20:51:20.149709 31958 net.cpp:382] conv0 -> conv0
I0426 20:51:20.150678 31958 net.cpp:124] Setting up conv0
I0426 20:51:20.150691 31958 net.cpp:131] Top shape: 100 10 24 24 (576000)
I0426 20:51:20.150693 31958 net.cpp:139] Memory required for data: 2618800
I0426 20:51:20.150702 31958 layer_factory.hpp:77] Creating layer pool0
I0426 20:51:20.150707 31958 net.cpp:86] Creating Layer pool0
I0426 20:51:20.150710 31958 net.cpp:408] pool0 <- conv0
I0426 20:51:20.150715 31958 net.cpp:382] pool0 -> pool0
I0426 20:51:20.150746 31958 net.cpp:124] Setting up pool0
I0426 20:51:20.150751 31958 net.cpp:131] Top shape: 100 10 12 12 (144000)
I0426 20:51:20.150754 31958 net.cpp:139] Memory required for data: 3194800
I0426 20:51:20.150768 31958 layer_factory.hpp:77] Creating layer conv1
I0426 20:51:20.150774 31958 net.cpp:86] Creating Layer conv1
I0426 20:51:20.150777 31958 net.cpp:408] conv1 <- pool0
I0426 20:51:20.150782 31958 net.cpp:382] conv1 -> conv1
I0426 20:51:20.152307 31958 net.cpp:124] Setting up conv1
I0426 20:51:20.152335 31958 net.cpp:131] Top shape: 100 50 8 8 (320000)
I0426 20:51:20.152339 31958 net.cpp:139] Memory required for data: 4474800
I0426 20:51:20.152348 31958 layer_factory.hpp:77] Creating layer pool1
I0426 20:51:20.152369 31958 net.cpp:86] Creating Layer pool1
I0426 20:51:20.152381 31958 net.cpp:408] pool1 <- conv1
I0426 20:51:20.152387 31958 net.cpp:382] pool1 -> pool1
I0426 20:51:20.152480 31958 net.cpp:124] Setting up pool1
I0426 20:51:20.152488 31958 net.cpp:131] Top shape: 100 50 4 4 (80000)
I0426 20:51:20.152498 31958 net.cpp:139] Memory required for data: 4794800
I0426 20:51:20.152501 31958 layer_factory.hpp:77] Creating layer ip1
I0426 20:51:20.152508 31958 net.cpp:86] Creating Layer ip1
I0426 20:51:20.152510 31958 net.cpp:408] ip1 <- pool1
I0426 20:51:20.152515 31958 net.cpp:382] ip1 -> ip1
I0426 20:51:20.152676 31958 net.cpp:124] Setting up ip1
I0426 20:51:20.152683 31958 net.cpp:131] Top shape: 100 10 (1000)
I0426 20:51:20.152688 31958 net.cpp:139] Memory required for data: 4798800
I0426 20:51:20.152709 31958 layer_factory.hpp:77] Creating layer relu1
I0426 20:51:20.152714 31958 net.cpp:86] Creating Layer relu1
I0426 20:51:20.152722 31958 net.cpp:408] relu1 <- ip1
I0426 20:51:20.152726 31958 net.cpp:369] relu1 -> ip1 (in-place)
I0426 20:51:20.153568 31958 net.cpp:124] Setting up relu1
I0426 20:51:20.153580 31958 net.cpp:131] Top shape: 100 10 (1000)
I0426 20:51:20.153585 31958 net.cpp:139] Memory required for data: 4802800
I0426 20:51:20.153589 31958 layer_factory.hpp:77] Creating layer ip1_relu1_0_split
I0426 20:51:20.153595 31958 net.cpp:86] Creating Layer ip1_relu1_0_split
I0426 20:51:20.153599 31958 net.cpp:408] ip1_relu1_0_split <- ip1
I0426 20:51:20.153619 31958 net.cpp:382] ip1_relu1_0_split -> ip1_relu1_0_split_0
I0426 20:51:20.153625 31958 net.cpp:382] ip1_relu1_0_split -> ip1_relu1_0_split_1
I0426 20:51:20.153679 31958 net.cpp:124] Setting up ip1_relu1_0_split
I0426 20:51:20.153684 31958 net.cpp:131] Top shape: 100 10 (1000)
I0426 20:51:20.153688 31958 net.cpp:131] Top shape: 100 10 (1000)
I0426 20:51:20.153692 31958 net.cpp:139] Memory required for data: 4810800
I0426 20:51:20.153694 31958 layer_factory.hpp:77] Creating layer accuracy
I0426 20:51:20.153699 31958 net.cpp:86] Creating Layer accuracy
I0426 20:51:20.153702 31958 net.cpp:408] accuracy <- ip1_relu1_0_split_0
I0426 20:51:20.153707 31958 net.cpp:408] accuracy <- label_mnist_1_split_0
I0426 20:51:20.153710 31958 net.cpp:382] accuracy -> accuracy
…
