…
I0426 20:49:34.081079 31553 net.cpp:296] The NetState phase (0) differed from the phase (1) specified by a rule in layer mnist
I0426 20:49:34.081111 31553 net.cpp:296] The NetState phase (0) differed from the phase (1) specified by a rule in layer accuracy
I0426 20:49:34.081255 31553 net.cpp:53] Initializing net from parameters: 
name: "LeNet"
state {
  phase: TRAIN
  level: 0
  stage: ""
}
layer {
  name: "mnist"
  type: "Data"
  top: "data"
  top: "label"
  include {
    phase: TRAIN
  }
  transform_param {
    scale: 0.00390625
  }
  data_param {
    source: "examples/mnist/mnist_train_lmdb"
    batch_size: 64
    backend: LMDB
  }
}
layer {
  name: "conv0"
  type: "Convolution"
  bottom: "data"
  top: "conv0"
  param {
    lr_mult: 1
  }
  param {
    lr_mult: 2
  }
  convolution_param {
    num_output: 25
    kernel_size: 5
    stride: 1
    weight_filler {
      type: "xavier"
    }
    bias_filler {
      type: "constant"
    }
  }
}
layer {
  name: "pool0"
  type: "Pooling"
  bottom: "conv0"
  top: "pool0"
  pooling_param {
    pool: MAX
    kernel_size: 2
    stride: 2
  }
}
layer {
  name: "ip1"
  type: "InnerProduct"
  bottom: "pool0"
  top: "ip1"
  param {
    lr_mult: 1
  }
  param {
    lr_mult: 2
  }
  inner_product_param {
    num_output: 300
    weight_filler {
      type: "xavier"
    }
    bias_filler {
      type: "constant"
    }
  }
}
layer {
  name: "relu1"
  type: "ReLU"
  bottom: "ip1"
  top: "ip1"
}
layer {
  name: "ip2"
  type: "InnerProduct"
  bottom: "ip1"
  top: "ip2"
  param {
    lr_mult: 1
  }
  param {
    lr_mult: 2
  }
  inner_product_param {
    num_output: 100
    weight_filler {
      type: "xavier"
    }
    bias_filler {
      type: "constant"
    }
  }
}
layer {
  name: "relu2"
  type: "ReLU"
  bottom: "ip2"
  top: "ip2"
}
layer {
  name: "ip3"
  type: "InnerProduct"
  bottom: "ip2"
  top: "ip3"
  param {
    lr_mult: 1
  }
  param {
    lr_mult: 2
  }
  inner_product_param {
    num_output: 10
    weight_filler {
      type: "xavier"
    }
    bias_filler {
      type: "constant"
    }
  }
}
layer {
  name: "relu3"
  type: "ReLU"
  bottom: "ip3"
  top: "ip3"
}
layer {
  name: "loss"
  type: "SoftmaxWithLoss"
  bottom: "ip3"
  bottom: "label"
  top: "loss"
}
I0426 20:49:34.081318 31553 layer_factory.hpp:77] Creating layer mnist
I0426 20:49:34.081400 31553 db_lmdb.cpp:35] Opened lmdb examples/mnist/mnist_train_lmdb
I0426 20:49:34.081420 31553 net.cpp:86] Creating Layer mnist
I0426 20:49:34.081429 31553 net.cpp:382] mnist -> data
I0426 20:49:34.081449 31553 net.cpp:382] mnist -> label
I0426 20:49:34.082406 31553 data_layer.cpp:45] output data size: 64,1,28,28
I0426 20:49:34.084525 31553 net.cpp:124] Setting up mnist
I0426 20:49:34.084539 31553 net.cpp:131] Top shape: 64 1 28 28 (50176)
I0426 20:49:34.084544 31553 net.cpp:131] Top shape: 64 (64)
I0426 20:49:34.084547 31553 net.cpp:139] Memory required for data: 200960
I0426 20:49:34.084553 31553 layer_factory.hpp:77] Creating layer conv0
I0426 20:49:34.084566 31553 net.cpp:86] Creating Layer conv0
I0426 20:49:34.084570 31553 net.cpp:408] conv0 <- data
I0426 20:49:34.084580 31553 net.cpp:382] conv0 -> conv0
I0426 20:49:34.316421 31553 net.cpp:124] Setting up conv0
I0426 20:49:34.316447 31553 net.cpp:131] Top shape: 64 25 24 24 (921600)
I0426 20:49:34.316449 31553 net.cpp:139] Memory required for data: 3887360
I0426 20:49:34.316463 31553 layer_factory.hpp:77] Creating layer pool0
I0426 20:49:34.316475 31553 net.cpp:86] Creating Layer pool0
I0426 20:49:34.316498 31553 net.cpp:408] pool0 <- conv0
I0426 20:49:34.316519 31553 net.cpp:382] pool0 -> pool0
I0426 20:49:34.316561 31553 net.cpp:124] Setting up pool0
I0426 20:49:34.316567 31553 net.cpp:131] Top shape: 64 25 12 12 (230400)
I0426 20:49:34.316570 31553 net.cpp:139] Memory required for data: 4808960
I0426 20:49:34.316572 31553 layer_factory.hpp:77] Creating layer ip1
I0426 20:49:34.316579 31553 net.cpp:86] Creating Layer ip1
I0426 20:49:34.316583 31553 net.cpp:408] ip1 <- pool0
I0426 20:49:34.316587 31553 net.cpp:382] ip1 -> ip1
I0426 20:49:34.323640 31553 net.cpp:124] Setting up ip1
I0426 20:49:34.323652 31553 net.cpp:131] Top shape: 64 300 (19200)
I0426 20:49:34.323655 31553 net.cpp:139] Memory required for data: 4885760
I0426 20:49:34.323663 31553 layer_factory.hpp:77] Creating layer relu1
I0426 20:49:34.323670 31553 net.cpp:86] Creating Layer relu1
I0426 20:49:34.323673 31553 net.cpp:408] relu1 <- ip1
I0426 20:49:34.323678 31553 net.cpp:369] relu1 -> ip1 (in-place)
I0426 20:49:34.323846 31553 net.cpp:124] Setting up relu1
I0426 20:49:34.323855 31553 net.cpp:131] Top shape: 64 300 (19200)
I0426 20:49:34.323858 31553 net.cpp:139] Memory required for data: 4962560
I0426 20:49:34.323861 31553 layer_factory.hpp:77] Creating layer ip2
I0426 20:49:34.323868 31553 net.cpp:86] Creating Layer ip2
I0426 20:49:34.323870 31553 net.cpp:408] ip2 <- ip1
I0426 20:49:34.323875 31553 net.cpp:382] ip2 -> ip2
I0426 20:49:34.324120 31553 net.cpp:124] Setting up ip2
I0426 20:49:34.324128 31553 net.cpp:131] Top shape: 64 100 (6400)
I0426 20:49:34.324131 31553 net.cpp:139] Memory required for data: 4988160
I0426 20:49:34.324138 31553 layer_factory.hpp:77] Creating layer relu2
I0426 20:49:34.324143 31553 net.cpp:86] Creating Layer relu2
I0426 20:49:34.324146 31553 net.cpp:408] relu2 <- ip2
I0426 20:49:34.324151 31553 net.cpp:369] relu2 -> ip2 (in-place)
I0426 20:49:34.324992 31553 net.cpp:124] Setting up relu2
I0426 20:49:34.325004 31553 net.cpp:131] Top shape: 64 100 (6400)
I0426 20:49:34.325023 31553 net.cpp:139] Memory required for data: 5013760
I0426 20:49:34.325027 31553 layer_factory.hpp:77] Creating layer ip3
I0426 20:49:34.325033 31553 net.cpp:86] Creating Layer ip3
I0426 20:49:34.325037 31553 net.cpp:408] ip3 <- ip2
I0426 20:49:34.325042 31553 net.cpp:382] ip3 -> ip3
I0426 20:49:34.325155 31553 net.cpp:124] Setting up ip3
I0426 20:49:34.325162 31553 net.cpp:131] Top shape: 64 10 (640)
I0426 20:49:34.325165 31553 net.cpp:139] Memory required for data: 5016320
I0426 20:49:34.325171 31553 layer_factory.hpp:77] Creating layer relu3
I0426 20:49:34.325177 31553 net.cpp:86] Creating Layer relu3
I0426 20:49:34.325179 31553 net.cpp:408] relu3 <- ip3
I0426 20:49:34.325183 31553 net.cpp:369] relu3 -> ip3 (in-place)
I0426 20:49:34.325338 31553 net.cpp:124] Setting up relu3
I0426 20:49:34.325346 31553 net.cpp:131] Top shape: 64 10 (640)
I0426 20:49:34.325350 31553 net.cpp:139] Memory required for data: 5018880
I0426 20:49:34.325351 31553 layer_factory.hpp:77] Creating layer loss
I0426 20:49:34.325357 31553 net.cpp:86] Creating Layer loss
I0426 20:49:34.325361 31553 net.cpp:408] loss <- ip3
I0426 20:49:34.325364 31553 net.cpp:408] loss <- label
I0426 20:49:34.325369 31553 net.cpp:382] loss -> loss
I0426 20:49:34.325387 31553 layer_factory.hpp:77] Creating layer loss
…
I0426 20:49:34.326028 31553 solver.cpp:173] Creating test net (#0) specified by net file: ECE595/mnist/train_test/var_everything/lenet_train_test39.prototxt
I0426 20:49:34.326053 31553 net.cpp:296] The NetState phase (1) differed from the phase (0) specified by a rule in layer mnist
I0426 20:49:34.326136 31553 net.cpp:53] Initializing net from parameters: 
name: "LeNet"
state {
  phase: TEST
}
layer {
  name: "mnist"
  type: "Data"
  top: "data"
  top: "label"
  include {
    phase: TEST
  }
  transform_param {
    scale: 0.00390625
  }
  data_param {
    source: "examples/mnist/mnist_test_lmdb"
    batch_size: 100
    backend: LMDB
  }
}
layer {
  name: "conv0"
  type: "Convolution"
  bottom: "data"
  top: "conv0"
  param {
    lr_mult: 1
  }
  param {
    lr_mult: 2
  }
  convolution_param {
    num_output: 25
    kernel_size: 5
    stride: 1
    weight_filler {
      type: "xavier"
    }
    bias_filler {
      type: "constant"
    }
  }
}
layer {
  name: "pool0"
  type: "Pooling"
  bottom: "conv0"
  top: "pool0"
  pooling_param {
    pool: MAX
    kernel_size: 2
    stride: 2
  }
}
layer {
  name: "ip1"
  type: "InnerProduct"
  bottom: "pool0"
  top: "ip1"
  param {
    lr_mult: 1
  }
  param {
    lr_mult: 2
  }
  inner_product_param {
    num_output: 300
    weight_filler {
      type: "xavier"
    }
    bias_filler {
      type: "constant"
    }
  }
}
layer {
  name: "relu1"
  type: "ReLU"
  bottom: "ip1"
  top: "ip1"
}
layer {
  name: "ip2"
  type: "InnerProduct"
  bottom: "ip1"
  top: "ip2"
  param {
    lr_mult: 1
  }
  param {
    lr_mult: 2
  }
  inner_product_param {
    num_output: 100
    weight_filler {
      type: "xavier"
    }
    bias_filler {
      type: "constant"
    }
  }
}
layer {
  name: "relu2"
  type: "ReLU"
  bottom: "ip2"
  top: "ip2"
}
layer {
  name: "ip3"
  type: "InnerProduct"
  bottom: "ip2"
  top: "ip3"
  param {
    lr_mult: 1
  }
  param {
    lr_mult: 2
  }
  inner_product_param {
    num_output: 10
    weight_filler {
      type: "xavier"
    }
    bias_filler {
      type: "constant"
    }
  }
}
layer {
  name: "relu3"
  type: "ReLU"
  bottom: "ip3"
  top: "ip3"
}
layer {
  name: "accuracy"
  type: "Accuracy"
  bottom: "ip3"
  bottom: "label"
  top: "accuracy"
  include {
    phase: TEST
  }
}
layer {
  name: "loss"
  type: "SoftmaxWithLoss"
  bottom: "ip3"
  bottom: "label"
  top: "loss"
}
I0426 20:49:34.326195 31553 layer_factory.hpp:77] Creating layer mnist
I0426 20:49:34.326238 31553 db_lmdb.cpp:35] Opened lmdb examples/mnist/mnist_test_lmdb
I0426 20:49:34.326251 31553 net.cpp:86] Creating Layer mnist
I0426 20:49:34.326256 31553 net.cpp:382] mnist -> data
I0426 20:49:34.326263 31553 net.cpp:382] mnist -> label
I0426 20:49:34.326340 31553 data_layer.cpp:45] output data size: 100,1,28,28
I0426 20:49:34.328550 31553 net.cpp:124] Setting up mnist
I0426 20:49:34.328563 31553 net.cpp:131] Top shape: 100 1 28 28 (78400)
I0426 20:49:34.328568 31553 net.cpp:131] Top shape: 100 (100)
I0426 20:49:34.328572 31553 net.cpp:139] Memory required for data: 314000
I0426 20:49:34.328574 31553 layer_factory.hpp:77] Creating layer label_mnist_1_split
I0426 20:49:34.328580 31553 net.cpp:86] Creating Layer label_mnist_1_split
I0426 20:49:34.328584 31553 net.cpp:408] label_mnist_1_split <- label
I0426 20:49:34.328589 31553 net.cpp:382] label_mnist_1_split -> label_mnist_1_split_0
I0426 20:49:34.328595 31553 net.cpp:382] label_mnist_1_split -> label_mnist_1_split_1
I0426 20:49:34.328639 31553 net.cpp:124] Setting up label_mnist_1_split
I0426 20:49:34.328644 31553 net.cpp:131] Top shape: 100 (100)
I0426 20:49:34.328646 31553 net.cpp:131] Top shape: 100 (100)
I0426 20:49:34.328649 31553 net.cpp:139] Memory required for data: 314800
I0426 20:49:34.328661 31553 layer_factory.hpp:77] Creating layer conv0
I0426 20:49:34.328670 31553 net.cpp:86] Creating Layer conv0
I0426 20:49:34.328673 31553 net.cpp:408] conv0 <- data
I0426 20:49:34.328677 31553 net.cpp:382] conv0 -> conv0
I0426 20:49:34.330555 31553 net.cpp:124] Setting up conv0
I0426 20:49:34.330569 31553 net.cpp:131] Top shape: 100 25 24 24 (1440000)
I0426 20:49:34.330572 31553 net.cpp:139] Memory required for data: 6074800
I0426 20:49:34.330590 31553 layer_factory.hpp:77] Creating layer pool0
I0426 20:49:34.330608 31553 net.cpp:86] Creating Layer pool0
I0426 20:49:34.330611 31553 net.cpp:408] pool0 <- conv0
I0426 20:49:34.330616 31553 net.cpp:382] pool0 -> pool0
I0426 20:49:34.330649 31553 net.cpp:124] Setting up pool0
I0426 20:49:34.330662 31553 net.cpp:131] Top shape: 100 25 12 12 (360000)
I0426 20:49:34.330665 31553 net.cpp:139] Memory required for data: 7514800
I0426 20:49:34.330668 31553 layer_factory.hpp:77] Creating layer ip1
I0426 20:49:34.330674 31553 net.cpp:86] Creating Layer ip1
I0426 20:49:34.330678 31553 net.cpp:408] ip1 <- pool0
I0426 20:49:34.330682 31553 net.cpp:382] ip1 -> ip1
I0426 20:49:34.338338 31553 net.cpp:124] Setting up ip1
I0426 20:49:34.338351 31553 net.cpp:131] Top shape: 100 300 (30000)
I0426 20:49:34.338356 31553 net.cpp:139] Memory required for data: 7634800
I0426 20:49:34.338378 31553 layer_factory.hpp:77] Creating layer relu1
I0426 20:49:34.338384 31553 net.cpp:86] Creating Layer relu1
I0426 20:49:34.338387 31553 net.cpp:408] relu1 <- ip1
I0426 20:49:34.338392 31553 net.cpp:369] relu1 -> ip1 (in-place)
I0426 20:49:34.338567 31553 net.cpp:124] Setting up relu1
I0426 20:49:34.338577 31553 net.cpp:131] Top shape: 100 300 (30000)
I0426 20:49:34.338579 31553 net.cpp:139] Memory required for data: 7754800
I0426 20:49:34.338582 31553 layer_factory.hpp:77] Creating layer ip2
I0426 20:49:34.338588 31553 net.cpp:86] Creating Layer ip2
I0426 20:49:34.338591 31553 net.cpp:408] ip2 <- ip1
I0426 20:49:34.338596 31553 net.cpp:382] ip2 -> ip2
I0426 20:49:34.338876 31553 net.cpp:124] Setting up ip2
I0426 20:49:34.338884 31553 net.cpp:131] Top shape: 100 100 (10000)
I0426 20:49:34.338887 31553 net.cpp:139] Memory required for data: 7794800
I0426 20:49:34.338894 31553 layer_factory.hpp:77] Creating layer relu2
I0426 20:49:34.338899 31553 net.cpp:86] Creating Layer relu2
I0426 20:49:34.338902 31553 net.cpp:408] relu2 <- ip2
I0426 20:49:34.338907 31553 net.cpp:369] relu2 -> ip2 (in-place)
I0426 20:49:34.339695 31553 net.cpp:124] Setting up relu2
I0426 20:49:34.339722 31553 net.cpp:131] Top shape: 100 100 (10000)
I0426 20:49:34.339726 31553 net.cpp:139] Memory required for data: 7834800
I0426 20:49:34.339730 31553 layer_factory.hpp:77] Creating layer ip3
I0426 20:49:34.339753 31553 net.cpp:86] Creating Layer ip3
I0426 20:49:34.339771 31553 net.cpp:408] ip3 <- ip2
I0426 20:49:34.339777 31553 net.cpp:382] ip3 -> ip3
I0426 20:49:34.339876 31553 net.cpp:124] Setting up ip3
I0426 20:49:34.339884 31553 net.cpp:131] Top shape: 100 10 (1000)
I0426 20:49:34.339887 31553 net.cpp:139] Memory required for data: 7838800
I0426 20:49:34.339893 31553 layer_factory.hpp:77] Creating layer relu3
I0426 20:49:34.339897 31553 net.cpp:86] Creating Layer relu3
I0426 20:49:34.339900 31553 net.cpp:408] relu3 <- ip3
I0426 20:49:34.339905 31553 net.cpp:369] relu3 -> ip3 (in-place)
I0426 20:49:34.340054 31553 net.cpp:124] Setting up relu3
I0426 20:49:34.340062 31553 net.cpp:131] Top shape: 100 10 (1000)
I0426 20:49:34.340065 31553 net.cpp:139] Memory required for data: 7842800
I0426 20:49:34.340068 31553 layer_factory.hpp:77] Creating layer ip3_relu3_0_split
I0426 20:49:34.340072 31553 net.cpp:86] Creating Layer ip3_relu3_0_split
I0426 20:49:34.340075 31553 net.cpp:408] ip3_relu3_0_split <- ip3
I0426 20:49:34.340080 31553 net.cpp:382] ip3_relu3_0_split -> ip3_relu3_0_split_0
I0426 20:49:34.340085 31553 net.cpp:382] ip3_relu3_0_split -> ip3_relu3_0_split_1
I0426 20:49:34.340114 31553 net.cpp:124] Setting up ip3_relu3_0_split
I0426 20:49:34.340119 31553 net.cpp:131] Top shape: 100 10 (1000)
I0426 20:49:34.340133 31553 net.cpp:131] Top shape: 100 10 (1000)
I0426 20:49:34.340137 31553 net.cpp:139] Memory required for data: 7850800
I0426 20:49:34.340139 31553 layer_factory.hpp:77] Creating layer accuracy
I0426 20:49:34.340147 31553 net.cpp:86] Creating Layer accuracy
I0426 20:49:34.340152 31553 net.cpp:408] accuracy <- ip3_relu3_0_split_0
I0426 20:49:34.340155 31553 net.cpp:408] accuracy <- label_mnist_1_split_0
I0426 20:49:34.340159 31553 net.cpp:382] accuracy -> accuracy
…
