…
I0426 20:54:54.724213 32753 net.cpp:296] The NetState phase (0) differed from the phase (1) specified by a rule in layer mnist
I0426 20:54:54.724230 32753 net.cpp:296] The NetState phase (0) differed from the phase (1) specified by a rule in layer accuracy
I0426 20:54:54.724308 32753 net.cpp:53] Initializing net from parameters: 
name: "LeNet"
state {
  phase: TRAIN
  level: 0
  stage: ""
}
layer {
  name: "mnist"
  type: "Data"
  top: "data"
  top: "label"
  include {
    phase: TRAIN
  }
  transform_param {
    scale: 0.00390625
  }
  data_param {
    source: "examples/mnist/mnist_train_lmdb"
    batch_size: 64
    backend: LMDB
  }
}
layer {
  name: "conv0"
  type: "Convolution"
  bottom: "data"
  top: "conv0"
  param {
    lr_mult: 1
  }
  param {
    lr_mult: 2
  }
  convolution_param {
    num_output: 50
    kernel_size: 5
    stride: 1
    weight_filler {
      type: "xavier"
    }
    bias_filler {
      type: "constant"
    }
  }
}
layer {
  name: "pool0"
  type: "Pooling"
  bottom: "conv0"
  top: "pool0"
  pooling_param {
    pool: MAX
    kernel_size: 2
    stride: 2
  }
}
layer {
  name: "conv1"
  type: "Convolution"
  bottom: "pool0"
  top: "conv1"
  param {
    lr_mult: 1
  }
  param {
    lr_mult: 2
  }
  convolution_param {
    num_output: 50
    kernel_size: 5
    stride: 1
    weight_filler {
      type: "xavier"
    }
    bias_filler {
      type: "constant"
    }
  }
}
layer {
  name: "pool1"
  type: "Pooling"
  bottom: "conv1"
  top: "pool1"
  pooling_param {
    pool: MAX
    kernel_size: 2
    stride: 2
  }
}
layer {
  name: "ip1"
  type: "InnerProduct"
  bottom: "pool1"
  top: "ip1"
  param {
    lr_mult: 1
  }
  param {
    lr_mult: 2
  }
  inner_product_param {
    num_output: 10
    weight_filler {
      type: "xavier"
    }
    bias_filler {
      type: "constant"
    }
  }
}
layer {
  name: "relu1"
  type: "ReLU"
  bottom: "ip1"
  top: "ip1"
}
layer {
  name: "loss"
  type: "SoftmaxWithLoss"
  bottom: "ip1"
  bottom: "label"
  top: "loss"
}
I0426 20:54:54.724370 32753 layer_factory.hpp:77] Creating layer mnist
I0426 20:54:54.724468 32753 db_lmdb.cpp:35] Opened lmdb examples/mnist/mnist_train_lmdb
I0426 20:54:54.724491 32753 net.cpp:86] Creating Layer mnist
I0426 20:54:54.724498 32753 net.cpp:382] mnist -> data
I0426 20:54:54.724520 32753 net.cpp:382] mnist -> label
I0426 20:54:54.725616 32753 data_layer.cpp:45] output data size: 64,1,28,28
I0426 20:54:54.728358 32753 net.cpp:124] Setting up mnist
I0426 20:54:54.728377 32753 net.cpp:131] Top shape: 64 1 28 28 (50176)
I0426 20:54:54.728384 32753 net.cpp:131] Top shape: 64 (64)
I0426 20:54:54.728387 32753 net.cpp:139] Memory required for data: 200960
I0426 20:54:54.728394 32753 layer_factory.hpp:77] Creating layer conv0
I0426 20:54:54.728410 32753 net.cpp:86] Creating Layer conv0
I0426 20:54:54.728416 32753 net.cpp:408] conv0 <- data
I0426 20:54:54.728427 32753 net.cpp:382] conv0 -> conv0
I0426 20:54:54.970311 32753 net.cpp:124] Setting up conv0
I0426 20:54:54.970352 32753 net.cpp:131] Top shape: 64 50 24 24 (1843200)
I0426 20:54:54.970356 32753 net.cpp:139] Memory required for data: 7573760
I0426 20:54:54.970371 32753 layer_factory.hpp:77] Creating layer pool0
I0426 20:54:54.970382 32753 net.cpp:86] Creating Layer pool0
I0426 20:54:54.970386 32753 net.cpp:408] pool0 <- conv0
I0426 20:54:54.970391 32753 net.cpp:382] pool0 -> pool0
I0426 20:54:54.970434 32753 net.cpp:124] Setting up pool0
I0426 20:54:54.970441 32753 net.cpp:131] Top shape: 64 50 12 12 (460800)
I0426 20:54:54.970458 32753 net.cpp:139] Memory required for data: 9416960
I0426 20:54:54.970461 32753 layer_factory.hpp:77] Creating layer conv1
I0426 20:54:54.970473 32753 net.cpp:86] Creating Layer conv1
I0426 20:54:54.970479 32753 net.cpp:408] conv1 <- pool0
I0426 20:54:54.970484 32753 net.cpp:382] conv1 -> conv1
I0426 20:54:54.972728 32753 net.cpp:124] Setting up conv1
I0426 20:54:54.972755 32753 net.cpp:131] Top shape: 64 50 8 8 (204800)
I0426 20:54:54.972759 32753 net.cpp:139] Memory required for data: 10236160
I0426 20:54:54.972766 32753 layer_factory.hpp:77] Creating layer pool1
I0426 20:54:54.972774 32753 net.cpp:86] Creating Layer pool1
I0426 20:54:54.972777 32753 net.cpp:408] pool1 <- conv1
I0426 20:54:54.972781 32753 net.cpp:382] pool1 -> pool1
I0426 20:54:54.972853 32753 net.cpp:124] Setting up pool1
I0426 20:54:54.972862 32753 net.cpp:131] Top shape: 64 50 4 4 (51200)
I0426 20:54:54.972864 32753 net.cpp:139] Memory required for data: 10440960
I0426 20:54:54.972867 32753 layer_factory.hpp:77] Creating layer ip1
I0426 20:54:54.972875 32753 net.cpp:86] Creating Layer ip1
I0426 20:54:54.972878 32753 net.cpp:408] ip1 <- pool1
I0426 20:54:54.972899 32753 net.cpp:382] ip1 -> ip1
I0426 20:54:54.973930 32753 net.cpp:124] Setting up ip1
I0426 20:54:54.973942 32753 net.cpp:131] Top shape: 64 10 (640)
I0426 20:54:54.973959 32753 net.cpp:139] Memory required for data: 10443520
I0426 20:54:54.973968 32753 layer_factory.hpp:77] Creating layer relu1
I0426 20:54:54.973973 32753 net.cpp:86] Creating Layer relu1
I0426 20:54:54.973975 32753 net.cpp:408] relu1 <- ip1
I0426 20:54:54.973980 32753 net.cpp:369] relu1 -> ip1 (in-place)
I0426 20:54:54.974180 32753 net.cpp:124] Setting up relu1
I0426 20:54:54.974189 32753 net.cpp:131] Top shape: 64 10 (640)
I0426 20:54:54.974192 32753 net.cpp:139] Memory required for data: 10446080
I0426 20:54:54.974195 32753 layer_factory.hpp:77] Creating layer loss
I0426 20:54:54.974201 32753 net.cpp:86] Creating Layer loss
I0426 20:54:54.974205 32753 net.cpp:408] loss <- ip1
I0426 20:54:54.974208 32753 net.cpp:408] loss <- label
I0426 20:54:54.974213 32753 net.cpp:382] loss -> loss
I0426 20:54:54.974231 32753 layer_factory.hpp:77] Creating layer loss
…
I0426 20:54:54.975510 32753 solver.cpp:173] Creating test net (#0) specified by net file: ECE595/mnist/train_test/var_everything/lenet_train_test169.prototxt
I0426 20:54:54.975533 32753 net.cpp:296] The NetState phase (1) differed from the phase (0) specified by a rule in layer mnist
I0426 20:54:54.975603 32753 net.cpp:53] Initializing net from parameters: 
name: "LeNet"
state {
  phase: TEST
}
layer {
  name: "mnist"
  type: "Data"
  top: "data"
  top: "label"
  include {
    phase: TEST
  }
  transform_param {
    scale: 0.00390625
  }
  data_param {
    source: "examples/mnist/mnist_test_lmdb"
    batch_size: 100
    backend: LMDB
  }
}
layer {
  name: "conv0"
  type: "Convolution"
  bottom: "data"
  top: "conv0"
  param {
    lr_mult: 1
  }
  param {
    lr_mult: 2
  }
  convolution_param {
    num_output: 50
    kernel_size: 5
    stride: 1
    weight_filler {
      type: "xavier"
    }
    bias_filler {
      type: "constant"
    }
  }
}
layer {
  name: "pool0"
  type: "Pooling"
  bottom: "conv0"
  top: "pool0"
  pooling_param {
    pool: MAX
    kernel_size: 2
    stride: 2
  }
}
layer {
  name: "conv1"
  type: "Convolution"
  bottom: "pool0"
  top: "conv1"
  param {
    lr_mult: 1
  }
  param {
    lr_mult: 2
  }
  convolution_param {
    num_output: 50
    kernel_size: 5
    stride: 1
    weight_filler {
      type: "xavier"
    }
    bias_filler {
      type: "constant"
    }
  }
}
layer {
  name: "pool1"
  type: "Pooling"
  bottom: "conv1"
  top: "pool1"
  pooling_param {
    pool: MAX
    kernel_size: 2
    stride: 2
  }
}
layer {
  name: "ip1"
  type: "InnerProduct"
  bottom: "pool1"
  top: "ip1"
  param {
    lr_mult: 1
  }
  param {
    lr_mult: 2
  }
  inner_product_param {
    num_output: 10
    weight_filler {
      type: "xavier"
    }
    bias_filler {
      type: "constant"
    }
  }
}
layer {
  name: "relu1"
  type: "ReLU"
  bottom: "ip1"
  top: "ip1"
}
layer {
  name: "accuracy"
  type: "Accuracy"
  bottom: "ip1"
  bottom: "label"
  top: "accuracy"
  include {
    phase: TEST
  }
}
layer {
  name: "loss"
  type: "SoftmaxWithLoss"
  bottom: "ip1"
  bottom: "label"
  top: "loss"
}
I0426 20:54:54.975684 32753 layer_factory.hpp:77] Creating layer mnist
I0426 20:54:54.975729 32753 db_lmdb.cpp:35] Opened lmdb examples/mnist/mnist_test_lmdb
I0426 20:54:54.975744 32753 net.cpp:86] Creating Layer mnist
I0426 20:54:54.975749 32753 net.cpp:382] mnist -> data
I0426 20:54:54.975772 32753 net.cpp:382] mnist -> label
I0426 20:54:54.975854 32753 data_layer.cpp:45] output data size: 100,1,28,28
I0426 20:54:54.977807 32753 net.cpp:124] Setting up mnist
I0426 20:54:54.977818 32753 net.cpp:131] Top shape: 100 1 28 28 (78400)
I0426 20:54:54.977823 32753 net.cpp:131] Top shape: 100 (100)
I0426 20:54:54.977841 32753 net.cpp:139] Memory required for data: 314000
I0426 20:54:54.977844 32753 layer_factory.hpp:77] Creating layer label_mnist_1_split
I0426 20:54:54.977854 32753 net.cpp:86] Creating Layer label_mnist_1_split
I0426 20:54:54.977859 32753 net.cpp:408] label_mnist_1_split <- label
I0426 20:54:54.977864 32753 net.cpp:382] label_mnist_1_split -> label_mnist_1_split_0
I0426 20:54:54.977869 32753 net.cpp:382] label_mnist_1_split -> label_mnist_1_split_1
I0426 20:54:54.977916 32753 net.cpp:124] Setting up label_mnist_1_split
I0426 20:54:54.977921 32753 net.cpp:131] Top shape: 100 (100)
I0426 20:54:54.977926 32753 net.cpp:131] Top shape: 100 (100)
I0426 20:54:54.977928 32753 net.cpp:139] Memory required for data: 314800
I0426 20:54:54.977931 32753 layer_factory.hpp:77] Creating layer conv0
I0426 20:54:54.977939 32753 net.cpp:86] Creating Layer conv0
I0426 20:54:54.977946 32753 net.cpp:408] conv0 <- data
I0426 20:54:54.977952 32753 net.cpp:382] conv0 -> conv0
I0426 20:54:54.978839 32753 net.cpp:124] Setting up conv0
I0426 20:54:54.978852 32753 net.cpp:131] Top shape: 100 50 24 24 (2880000)
I0426 20:54:54.978869 32753 net.cpp:139] Memory required for data: 11834800
I0426 20:54:54.978878 32753 layer_factory.hpp:77] Creating layer pool0
I0426 20:54:54.978884 32753 net.cpp:86] Creating Layer pool0
I0426 20:54:54.978888 32753 net.cpp:408] pool0 <- conv0
I0426 20:54:54.978891 32753 net.cpp:382] pool0 -> pool0
I0426 20:54:54.978924 32753 net.cpp:124] Setting up pool0
I0426 20:54:54.978930 32753 net.cpp:131] Top shape: 100 50 12 12 (720000)
I0426 20:54:54.978934 32753 net.cpp:139] Memory required for data: 14714800
I0426 20:54:54.978935 32753 layer_factory.hpp:77] Creating layer conv1
I0426 20:54:54.978942 32753 net.cpp:86] Creating Layer conv1
I0426 20:54:54.978947 32753 net.cpp:408] conv1 <- pool0
I0426 20:54:54.978967 32753 net.cpp:382] conv1 -> conv1
I0426 20:54:54.980795 32753 net.cpp:124] Setting up conv1
I0426 20:54:54.980829 32753 net.cpp:131] Top shape: 100 50 8 8 (320000)
I0426 20:54:54.980849 32753 net.cpp:139] Memory required for data: 15994800
I0426 20:54:54.980859 32753 layer_factory.hpp:77] Creating layer pool1
I0426 20:54:54.980865 32753 net.cpp:86] Creating Layer pool1
I0426 20:54:54.980878 32753 net.cpp:408] pool1 <- conv1
I0426 20:54:54.980900 32753 net.cpp:382] pool1 -> pool1
I0426 20:54:54.980934 32753 net.cpp:124] Setting up pool1
I0426 20:54:54.980942 32753 net.cpp:131] Top shape: 100 50 4 4 (80000)
I0426 20:54:54.980945 32753 net.cpp:139] Memory required for data: 16314800
I0426 20:54:54.980957 32753 layer_factory.hpp:77] Creating layer ip1
I0426 20:54:54.980962 32753 net.cpp:86] Creating Layer ip1
I0426 20:54:54.980974 32753 net.cpp:408] ip1 <- pool1
I0426 20:54:54.980979 32753 net.cpp:382] ip1 -> ip1
I0426 20:54:54.981120 32753 net.cpp:124] Setting up ip1
I0426 20:54:54.981128 32753 net.cpp:131] Top shape: 100 10 (1000)
I0426 20:54:54.981132 32753 net.cpp:139] Memory required for data: 16318800
I0426 20:54:54.981138 32753 layer_factory.hpp:77] Creating layer relu1
I0426 20:54:54.981143 32753 net.cpp:86] Creating Layer relu1
I0426 20:54:54.981149 32753 net.cpp:408] relu1 <- ip1
I0426 20:54:54.981154 32753 net.cpp:369] relu1 -> ip1 (in-place)
I0426 20:54:54.982017 32753 net.cpp:124] Setting up relu1
I0426 20:54:54.982028 32753 net.cpp:131] Top shape: 100 10 (1000)
I0426 20:54:54.982046 32753 net.cpp:139] Memory required for data: 16322800
I0426 20:54:54.982049 32753 layer_factory.hpp:77] Creating layer ip1_relu1_0_split
I0426 20:54:54.982055 32753 net.cpp:86] Creating Layer ip1_relu1_0_split
I0426 20:54:54.982059 32753 net.cpp:408] ip1_relu1_0_split <- ip1
I0426 20:54:54.982064 32753 net.cpp:382] ip1_relu1_0_split -> ip1_relu1_0_split_0
I0426 20:54:54.982069 32753 net.cpp:382] ip1_relu1_0_split -> ip1_relu1_0_split_1
I0426 20:54:54.982107 32753 net.cpp:124] Setting up ip1_relu1_0_split
I0426 20:54:54.982113 32753 net.cpp:131] Top shape: 100 10 (1000)
I0426 20:54:54.982117 32753 net.cpp:131] Top shape: 100 10 (1000)
I0426 20:54:54.982126 32753 net.cpp:139] Memory required for data: 16330800
I0426 20:54:54.982130 32753 layer_factory.hpp:77] Creating layer accuracy
I0426 20:54:54.982134 32753 net.cpp:86] Creating Layer accuracy
I0426 20:54:54.982137 32753 net.cpp:408] accuracy <- ip1_relu1_0_split_0
I0426 20:54:54.982141 32753 net.cpp:408] accuracy <- label_mnist_1_split_0
I0426 20:54:54.982146 32753 net.cpp:382] accuracy -> accuracy
…
