…
I0426 20:51:29.275280 31991 net.cpp:296] The NetState phase (0) differed from the phase (1) specified by a rule in layer mnist
I0426 20:51:29.275296 31991 net.cpp:296] The NetState phase (0) differed from the phase (1) specified by a rule in layer accuracy
I0426 20:51:29.275388 31991 net.cpp:53] Initializing net from parameters: 
name: "LeNet"
state {
  phase: TRAIN
  level: 0
  stage: ""
}
layer {
  name: "mnist"
  type: "Data"
  top: "data"
  top: "label"
  include {
    phase: TRAIN
  }
  transform_param {
    scale: 0.00390625
  }
  data_param {
    source: "examples/mnist/mnist_train_lmdb"
    batch_size: 64
    backend: LMDB
  }
}
layer {
  name: "conv0"
  type: "Convolution"
  bottom: "data"
  top: "conv0"
  param {
    lr_mult: 1
  }
  param {
    lr_mult: 2
  }
  convolution_param {
    num_output: 10
    kernel_size: 5
    stride: 1
    weight_filler {
      type: "xavier"
    }
    bias_filler {
      type: "constant"
    }
  }
}
layer {
  name: "pool0"
  type: "Pooling"
  bottom: "conv0"
  top: "pool0"
  pooling_param {
    pool: MAX
    kernel_size: 2
    stride: 2
  }
}
layer {
  name: "conv1"
  type: "Convolution"
  bottom: "pool0"
  top: "conv1"
  param {
    lr_mult: 1
  }
  param {
    lr_mult: 2
  }
  convolution_param {
    num_output: 50
    kernel_size: 5
    stride: 1
    weight_filler {
      type: "xavier"
    }
    bias_filler {
      type: "constant"
    }
  }
}
layer {
  name: "pool1"
  type: "Pooling"
  bottom: "conv1"
  top: "pool1"
  pooling_param {
    pool: MAX
    kernel_size: 2
    stride: 2
  }
}
layer {
  name: "ip1"
  type: "InnerProduct"
  bottom: "pool1"
  top: "ip1"
  param {
    lr_mult: 1
  }
  param {
    lr_mult: 2
  }
  inner_product_param {
    num_output: 300
    weight_filler {
      type: "xavier"
    }
    bias_filler {
      type: "constant"
    }
  }
}
layer {
  name: "relu1"
  type: "ReLU"
  bottom: "ip1"
  top: "ip1"
}
layer {
  name: "ip2"
  type: "InnerProduct"
  bottom: "ip1"
  top: "ip2"
  param {
    lr_mult: 1
  }
  param {
    lr_mult: 2
  }
  inner_product_param {
    num_output: 10
    weight_filler {
      type: "xavier"
    }
    bias_filler {
      type: "constant"
    }
  }
}
layer {
  name: "relu2"
  type: "ReLU"
  bottom: "ip2"
  top: "ip2"
}
layer {
  name: "loss"
  type: "SoftmaxWithLoss"
  bottom: "ip2"
  bottom: "label"
  top: "loss"
}
I0426 20:51:29.275460 31991 layer_factory.hpp:77] Creating layer mnist
I0426 20:51:29.275557 31991 db_lmdb.cpp:35] Opened lmdb examples/mnist/mnist_train_lmdb
I0426 20:51:29.275583 31991 net.cpp:86] Creating Layer mnist
I0426 20:51:29.275590 31991 net.cpp:382] mnist -> data
I0426 20:51:29.275612 31991 net.cpp:382] mnist -> label
I0426 20:51:29.276697 31991 data_layer.cpp:45] output data size: 64,1,28,28
I0426 20:51:29.279232 31991 net.cpp:124] Setting up mnist
I0426 20:51:29.279251 31991 net.cpp:131] Top shape: 64 1 28 28 (50176)
I0426 20:51:29.279258 31991 net.cpp:131] Top shape: 64 (64)
I0426 20:51:29.279261 31991 net.cpp:139] Memory required for data: 200960
I0426 20:51:29.279269 31991 layer_factory.hpp:77] Creating layer conv0
I0426 20:51:29.279297 31991 net.cpp:86] Creating Layer conv0
I0426 20:51:29.279304 31991 net.cpp:408] conv0 <- data
I0426 20:51:29.279314 31991 net.cpp:382] conv0 -> conv0
I0426 20:51:29.566339 31991 net.cpp:124] Setting up conv0
I0426 20:51:29.566367 31991 net.cpp:131] Top shape: 64 10 24 24 (368640)
I0426 20:51:29.566371 31991 net.cpp:139] Memory required for data: 1675520
I0426 20:51:29.566406 31991 layer_factory.hpp:77] Creating layer pool0
I0426 20:51:29.566421 31991 net.cpp:86] Creating Layer pool0
I0426 20:51:29.566424 31991 net.cpp:408] pool0 <- conv0
I0426 20:51:29.566431 31991 net.cpp:382] pool0 -> pool0
I0426 20:51:29.566476 31991 net.cpp:124] Setting up pool0
I0426 20:51:29.566484 31991 net.cpp:131] Top shape: 64 10 12 12 (92160)
I0426 20:51:29.566488 31991 net.cpp:139] Memory required for data: 2044160
I0426 20:51:29.566491 31991 layer_factory.hpp:77] Creating layer conv1
I0426 20:51:29.566503 31991 net.cpp:86] Creating Layer conv1
I0426 20:51:29.566507 31991 net.cpp:408] conv1 <- pool0
I0426 20:51:29.566512 31991 net.cpp:382] conv1 -> conv1
I0426 20:51:29.569402 31991 net.cpp:124] Setting up conv1
I0426 20:51:29.569417 31991 net.cpp:131] Top shape: 64 50 8 8 (204800)
I0426 20:51:29.569420 31991 net.cpp:139] Memory required for data: 2863360
I0426 20:51:29.569429 31991 layer_factory.hpp:77] Creating layer pool1
I0426 20:51:29.569437 31991 net.cpp:86] Creating Layer pool1
I0426 20:51:29.569442 31991 net.cpp:408] pool1 <- conv1
I0426 20:51:29.569447 31991 net.cpp:382] pool1 -> pool1
I0426 20:51:29.569483 31991 net.cpp:124] Setting up pool1
I0426 20:51:29.569494 31991 net.cpp:131] Top shape: 64 50 4 4 (51200)
I0426 20:51:29.569497 31991 net.cpp:139] Memory required for data: 3068160
I0426 20:51:29.569500 31991 layer_factory.hpp:77] Creating layer ip1
I0426 20:51:29.569507 31991 net.cpp:86] Creating Layer ip1
I0426 20:51:29.569511 31991 net.cpp:408] ip1 <- pool1
I0426 20:51:29.569519 31991 net.cpp:382] ip1 -> ip1
I0426 20:51:29.571728 31991 net.cpp:124] Setting up ip1
I0426 20:51:29.571741 31991 net.cpp:131] Top shape: 64 300 (19200)
I0426 20:51:29.571744 31991 net.cpp:139] Memory required for data: 3144960
I0426 20:51:29.571753 31991 layer_factory.hpp:77] Creating layer relu1
I0426 20:51:29.571760 31991 net.cpp:86] Creating Layer relu1
I0426 20:51:29.571764 31991 net.cpp:408] relu1 <- ip1
I0426 20:51:29.571780 31991 net.cpp:369] relu1 -> ip1 (in-place)
I0426 20:51:29.571955 31991 net.cpp:124] Setting up relu1
I0426 20:51:29.571965 31991 net.cpp:131] Top shape: 64 300 (19200)
I0426 20:51:29.571969 31991 net.cpp:139] Memory required for data: 3221760
I0426 20:51:29.571972 31991 layer_factory.hpp:77] Creating layer ip2
I0426 20:51:29.571983 31991 net.cpp:86] Creating Layer ip2
I0426 20:51:29.571986 31991 net.cpp:408] ip2 <- ip1
I0426 20:51:29.571992 31991 net.cpp:382] ip2 -> ip2
I0426 20:51:29.572932 31991 net.cpp:124] Setting up ip2
I0426 20:51:29.572944 31991 net.cpp:131] Top shape: 64 10 (640)
I0426 20:51:29.572947 31991 net.cpp:139] Memory required for data: 3224320
I0426 20:51:29.572953 31991 layer_factory.hpp:77] Creating layer relu2
I0426 20:51:29.572960 31991 net.cpp:86] Creating Layer relu2
I0426 20:51:29.572963 31991 net.cpp:408] relu2 <- ip2
I0426 20:51:29.572969 31991 net.cpp:369] relu2 -> ip2 (in-place)
I0426 20:51:29.573768 31991 net.cpp:124] Setting up relu2
I0426 20:51:29.573781 31991 net.cpp:131] Top shape: 64 10 (640)
I0426 20:51:29.573784 31991 net.cpp:139] Memory required for data: 3226880
I0426 20:51:29.573787 31991 layer_factory.hpp:77] Creating layer loss
I0426 20:51:29.573796 31991 net.cpp:86] Creating Layer loss
I0426 20:51:29.573798 31991 net.cpp:408] loss <- ip2
I0426 20:51:29.573802 31991 net.cpp:408] loss <- label
I0426 20:51:29.573808 31991 net.cpp:382] loss -> loss
I0426 20:51:29.573827 31991 layer_factory.hpp:77] Creating layer loss
…
I0426 20:51:29.574424 31991 solver.cpp:173] Creating test net (#0) specified by net file: ECE595/mnist/train_test/var_everything/lenet_train_test88.prototxt
I0426 20:51:29.574450 31991 net.cpp:296] The NetState phase (1) differed from the phase (0) specified by a rule in layer mnist
I0426 20:51:29.574534 31991 net.cpp:53] Initializing net from parameters: 
name: "LeNet"
state {
  phase: TEST
}
layer {
  name: "mnist"
  type: "Data"
  top: "data"
  top: "label"
  include {
    phase: TEST
  }
  transform_param {
    scale: 0.00390625
  }
  data_param {
    source: "examples/mnist/mnist_test_lmdb"
    batch_size: 100
    backend: LMDB
  }
}
layer {
  name: "conv0"
  type: "Convolution"
  bottom: "data"
  top: "conv0"
  param {
    lr_mult: 1
  }
  param {
    lr_mult: 2
  }
  convolution_param {
    num_output: 10
    kernel_size: 5
    stride: 1
    weight_filler {
      type: "xavier"
    }
    bias_filler {
      type: "constant"
    }
  }
}
layer {
  name: "pool0"
  type: "Pooling"
  bottom: "conv0"
  top: "pool0"
  pooling_param {
    pool: MAX
    kernel_size: 2
    stride: 2
  }
}
layer {
  name: "conv1"
  type: "Convolution"
  bottom: "pool0"
  top: "conv1"
  param {
    lr_mult: 1
  }
  param {
    lr_mult: 2
  }
  convolution_param {
    num_output: 50
    kernel_size: 5
    stride: 1
    weight_filler {
      type: "xavier"
    }
    bias_filler {
      type: "constant"
    }
  }
}
layer {
  name: "pool1"
  type: "Pooling"
  bottom: "conv1"
  top: "pool1"
  pooling_param {
    pool: MAX
    kernel_size: 2
    stride: 2
  }
}
layer {
  name: "ip1"
  type: "InnerProduct"
  bottom: "pool1"
  top: "ip1"
  param {
    lr_mult: 1
  }
  param {
    lr_mult: 2
  }
  inner_product_param {
    num_output: 300
    weight_filler {
      type: "xavier"
    }
    bias_filler {
      type: "constant"
    }
  }
}
layer {
  name: "relu1"
  type: "ReLU"
  bottom: "ip1"
  top: "ip1"
}
layer {
  name: "ip2"
  type: "InnerProduct"
  bottom: "ip1"
  top: "ip2"
  param {
    lr_mult: 1
  }
  param {
    lr_mult: 2
  }
  inner_product_param {
    num_output: 10
    weight_filler {
      type: "xavier"
    }
    bias_filler {
      type: "constant"
    }
  }
}
layer {
  name: "relu2"
  type: "ReLU"
  bottom: "ip2"
  top: "ip2"
}
layer {
  name: "accuracy"
  type: "Accuracy"
  bottom: "ip2"
  bottom: "label"
  top: "accuracy"
  include {
    phase: TEST
  }
}
layer {
  name: "loss"
  type: "SoftmaxWithLoss"
  bottom: "ip2"
  bottom: "label"
  top: "loss"
}
I0426 20:51:29.574599 31991 layer_factory.hpp:77] Creating layer mnist
I0426 20:51:29.574642 31991 db_lmdb.cpp:35] Opened lmdb examples/mnist/mnist_test_lmdb
I0426 20:51:29.574656 31991 net.cpp:86] Creating Layer mnist
I0426 20:51:29.574659 31991 net.cpp:382] mnist -> data
I0426 20:51:29.574666 31991 net.cpp:382] mnist -> label
I0426 20:51:29.574751 31991 data_layer.cpp:45] output data size: 100,1,28,28
I0426 20:51:29.576797 31991 net.cpp:124] Setting up mnist
I0426 20:51:29.576814 31991 net.cpp:131] Top shape: 100 1 28 28 (78400)
I0426 20:51:29.576822 31991 net.cpp:131] Top shape: 100 (100)
I0426 20:51:29.576825 31991 net.cpp:139] Memory required for data: 314000
I0426 20:51:29.576829 31991 layer_factory.hpp:77] Creating layer label_mnist_1_split
I0426 20:51:29.576877 31991 net.cpp:86] Creating Layer label_mnist_1_split
I0426 20:51:29.576881 31991 net.cpp:408] label_mnist_1_split <- label
I0426 20:51:29.576901 31991 net.cpp:382] label_mnist_1_split -> label_mnist_1_split_0
I0426 20:51:29.576908 31991 net.cpp:382] label_mnist_1_split -> label_mnist_1_split_1
I0426 20:51:29.577025 31991 net.cpp:124] Setting up label_mnist_1_split
I0426 20:51:29.577033 31991 net.cpp:131] Top shape: 100 (100)
I0426 20:51:29.577038 31991 net.cpp:131] Top shape: 100 (100)
I0426 20:51:29.577040 31991 net.cpp:139] Memory required for data: 314800
I0426 20:51:29.577044 31991 layer_factory.hpp:77] Creating layer conv0
I0426 20:51:29.577054 31991 net.cpp:86] Creating Layer conv0
I0426 20:51:29.577059 31991 net.cpp:408] conv0 <- data
I0426 20:51:29.577065 31991 net.cpp:382] conv0 -> conv0
I0426 20:51:29.578686 31991 net.cpp:124] Setting up conv0
I0426 20:51:29.578701 31991 net.cpp:131] Top shape: 100 10 24 24 (576000)
I0426 20:51:29.578703 31991 net.cpp:139] Memory required for data: 2618800
I0426 20:51:29.578712 31991 layer_factory.hpp:77] Creating layer pool0
I0426 20:51:29.578722 31991 net.cpp:86] Creating Layer pool0
I0426 20:51:29.578725 31991 net.cpp:408] pool0 <- conv0
I0426 20:51:29.578729 31991 net.cpp:382] pool0 -> pool0
I0426 20:51:29.578768 31991 net.cpp:124] Setting up pool0
I0426 20:51:29.578774 31991 net.cpp:131] Top shape: 100 10 12 12 (144000)
I0426 20:51:29.578778 31991 net.cpp:139] Memory required for data: 3194800
I0426 20:51:29.578785 31991 layer_factory.hpp:77] Creating layer conv1
I0426 20:51:29.578796 31991 net.cpp:86] Creating Layer conv1
I0426 20:51:29.578804 31991 net.cpp:408] conv1 <- pool0
I0426 20:51:29.578809 31991 net.cpp:382] conv1 -> conv1
I0426 20:51:29.580433 31991 net.cpp:124] Setting up conv1
I0426 20:51:29.580446 31991 net.cpp:131] Top shape: 100 50 8 8 (320000)
I0426 20:51:29.580449 31991 net.cpp:139] Memory required for data: 4474800
I0426 20:51:29.580469 31991 layer_factory.hpp:77] Creating layer pool1
I0426 20:51:29.580476 31991 net.cpp:86] Creating Layer pool1
I0426 20:51:29.580479 31991 net.cpp:408] pool1 <- conv1
I0426 20:51:29.580495 31991 net.cpp:382] pool1 -> pool1
I0426 20:51:29.580531 31991 net.cpp:124] Setting up pool1
I0426 20:51:29.580538 31991 net.cpp:131] Top shape: 100 50 4 4 (80000)
I0426 20:51:29.580541 31991 net.cpp:139] Memory required for data: 4794800
I0426 20:51:29.580544 31991 layer_factory.hpp:77] Creating layer ip1
I0426 20:51:29.580551 31991 net.cpp:86] Creating Layer ip1
I0426 20:51:29.580554 31991 net.cpp:408] ip1 <- pool1
I0426 20:51:29.580560 31991 net.cpp:382] ip1 -> ip1
I0426 20:51:29.581995 31991 net.cpp:124] Setting up ip1
I0426 20:51:29.582003 31991 net.cpp:131] Top shape: 100 300 (30000)
I0426 20:51:29.582006 31991 net.cpp:139] Memory required for data: 4914800
I0426 20:51:29.582013 31991 layer_factory.hpp:77] Creating layer relu1
I0426 20:51:29.582018 31991 net.cpp:86] Creating Layer relu1
I0426 20:51:29.582021 31991 net.cpp:408] relu1 <- ip1
I0426 20:51:29.582026 31991 net.cpp:369] relu1 -> ip1 (in-place)
I0426 20:51:29.582180 31991 net.cpp:124] Setting up relu1
I0426 20:51:29.582187 31991 net.cpp:131] Top shape: 100 300 (30000)
I0426 20:51:29.582190 31991 net.cpp:139] Memory required for data: 5034800
I0426 20:51:29.582193 31991 layer_factory.hpp:77] Creating layer ip2
I0426 20:51:29.582201 31991 net.cpp:86] Creating Layer ip2
I0426 20:51:29.582203 31991 net.cpp:408] ip2 <- ip1
I0426 20:51:29.582209 31991 net.cpp:382] ip2 -> ip2
I0426 20:51:29.582321 31991 net.cpp:124] Setting up ip2
I0426 20:51:29.582329 31991 net.cpp:131] Top shape: 100 10 (1000)
I0426 20:51:29.582331 31991 net.cpp:139] Memory required for data: 5038800
I0426 20:51:29.582336 31991 layer_factory.hpp:77] Creating layer relu2
I0426 20:51:29.582340 31991 net.cpp:86] Creating Layer relu2
I0426 20:51:29.582351 31991 net.cpp:408] relu2 <- ip2
I0426 20:51:29.582356 31991 net.cpp:369] relu2 -> ip2 (in-place)
I0426 20:51:29.582502 31991 net.cpp:124] Setting up relu2
I0426 20:51:29.582510 31991 net.cpp:131] Top shape: 100 10 (1000)
I0426 20:51:29.582514 31991 net.cpp:139] Memory required for data: 5042800
I0426 20:51:29.582517 31991 layer_factory.hpp:77] Creating layer ip2_relu2_0_split
I0426 20:51:29.582521 31991 net.cpp:86] Creating Layer ip2_relu2_0_split
I0426 20:51:29.582525 31991 net.cpp:408] ip2_relu2_0_split <- ip2
I0426 20:51:29.582545 31991 net.cpp:382] ip2_relu2_0_split -> ip2_relu2_0_split_0
I0426 20:51:29.582562 31991 net.cpp:382] ip2_relu2_0_split -> ip2_relu2_0_split_1
I0426 20:51:29.582598 31991 net.cpp:124] Setting up ip2_relu2_0_split
I0426 20:51:29.582607 31991 net.cpp:131] Top shape: 100 10 (1000)
I0426 20:51:29.582610 31991 net.cpp:131] Top shape: 100 10 (1000)
I0426 20:51:29.582612 31991 net.cpp:139] Memory required for data: 5050800
I0426 20:51:29.582615 31991 layer_factory.hpp:77] Creating layer accuracy
I0426 20:51:29.582620 31991 net.cpp:86] Creating Layer accuracy
I0426 20:51:29.582623 31991 net.cpp:408] accuracy <- ip2_relu2_0_split_0
I0426 20:51:29.582628 31991 net.cpp:408] accuracy <- label_mnist_1_split_0
I0426 20:51:29.582633 31991 net.cpp:382] accuracy -> accuracy
…
