…
I0426 20:55:12.414144   355 net.cpp:296] The NetState phase (0) differed from the phase (1) specified by a rule in layer mnist
I0426 20:55:12.414165   355 net.cpp:296] The NetState phase (0) differed from the phase (1) specified by a rule in layer accuracy
I0426 20:55:12.414266   355 net.cpp:53] Initializing net from parameters: 
name: "LeNet"
state {
  phase: TRAIN
  level: 0
  stage: ""
}
layer {
  name: "mnist"
  type: "Data"
  top: "data"
  top: "label"
  include {
    phase: TRAIN
  }
  transform_param {
    scale: 0.00390625
  }
  data_param {
    source: "examples/mnist/mnist_train_lmdb"
    batch_size: 64
    backend: LMDB
  }
}
layer {
  name: "conv0"
  type: "Convolution"
  bottom: "data"
  top: "conv0"
  param {
    lr_mult: 1
  }
  param {
    lr_mult: 2
  }
  convolution_param {
    num_output: 50
    kernel_size: 5
    stride: 1
    weight_filler {
      type: "xavier"
    }
    bias_filler {
      type: "constant"
    }
  }
}
layer {
  name: "pool0"
  type: "Pooling"
  bottom: "conv0"
  top: "pool0"
  pooling_param {
    pool: MAX
    kernel_size: 2
    stride: 2
  }
}
layer {
  name: "conv1"
  type: "Convolution"
  bottom: "pool0"
  top: "conv1"
  param {
    lr_mult: 1
  }
  param {
    lr_mult: 2
  }
  convolution_param {
    num_output: 50
    kernel_size: 5
    stride: 1
    weight_filler {
      type: "xavier"
    }
    bias_filler {
      type: "constant"
    }
  }
}
layer {
  name: "pool1"
  type: "Pooling"
  bottom: "conv1"
  top: "pool1"
  pooling_param {
    pool: MAX
    kernel_size: 2
    stride: 2
  }
}
layer {
  name: "ip1"
  type: "InnerProduct"
  bottom: "pool1"
  top: "ip1"
  param {
    lr_mult: 1
  }
  param {
    lr_mult: 2
  }
  inner_product_param {
    num_output: 100
    weight_filler {
      type: "xavier"
    }
    bias_filler {
      type: "constant"
    }
  }
}
layer {
  name: "relu1"
  type: "ReLU"
  bottom: "ip1"
  top: "ip1"
}
layer {
  name: "ip2"
  type: "InnerProduct"
  bottom: "ip1"
  top: "ip2"
  param {
    lr_mult: 1
  }
  param {
    lr_mult: 2
  }
  inner_product_param {
    num_output: 100
    weight_filler {
      type: "xavier"
    }
    bias_filler {
      type: "constant"
    }
  }
}
layer {
  name: "relu2"
  type: "ReLU"
  bottom: "ip2"
  top: "ip2"
}
layer {
  name: "ip3"
  type: "InnerProduct"
  bottom: "ip2"
  top: "ip3"
  param {
    lr_mult: 1
  }
  param {
    lr_mult: 2
  }
  inner_product_param {
    num_output: 10
    weight_filler {
      type: "xavier"
    }
    bias_filler {
      type: "constant"
    }
  }
}
layer {
  name: "relu3"
  type: "ReLU"
  bottom: "ip3"
  top: "ip3"
}
layer {
  name: "loss"
  type: "SoftmaxWithLoss"
  bottom: "ip3"
  bottom: "label"
  top: "loss"
}
I0426 20:55:12.414346   355 layer_factory.hpp:77] Creating layer mnist
I0426 20:55:12.414443   355 db_lmdb.cpp:35] Opened lmdb examples/mnist/mnist_train_lmdb
I0426 20:55:12.414464   355 net.cpp:86] Creating Layer mnist
I0426 20:55:12.414474   355 net.cpp:382] mnist -> data
I0426 20:55:12.414495   355 net.cpp:382] mnist -> label
I0426 20:55:12.415598   355 data_layer.cpp:45] output data size: 64,1,28,28
I0426 20:55:12.418164   355 net.cpp:124] Setting up mnist
I0426 20:55:12.418181   355 net.cpp:131] Top shape: 64 1 28 28 (50176)
I0426 20:55:12.418189   355 net.cpp:131] Top shape: 64 (64)
I0426 20:55:12.418192   355 net.cpp:139] Memory required for data: 200960
I0426 20:55:12.418200   355 layer_factory.hpp:77] Creating layer conv0
I0426 20:55:12.418215   355 net.cpp:86] Creating Layer conv0
I0426 20:55:12.418236   355 net.cpp:408] conv0 <- data
I0426 20:55:12.418251   355 net.cpp:382] conv0 -> conv0
I0426 20:55:12.714007   355 net.cpp:124] Setting up conv0
I0426 20:55:12.714040   355 net.cpp:131] Top shape: 64 50 24 24 (1843200)
I0426 20:55:12.714045   355 net.cpp:139] Memory required for data: 7573760
I0426 20:55:12.714063   355 layer_factory.hpp:77] Creating layer pool0
I0426 20:55:12.714079   355 net.cpp:86] Creating Layer pool0
I0426 20:55:12.714084   355 net.cpp:408] pool0 <- conv0
I0426 20:55:12.714092   355 net.cpp:382] pool0 -> pool0
I0426 20:55:12.714145   355 net.cpp:124] Setting up pool0
I0426 20:55:12.714153   355 net.cpp:131] Top shape: 64 50 12 12 (460800)
I0426 20:55:12.714156   355 net.cpp:139] Memory required for data: 9416960
I0426 20:55:12.714160   355 layer_factory.hpp:77] Creating layer conv1
I0426 20:55:12.714172   355 net.cpp:86] Creating Layer conv1
I0426 20:55:12.714176   355 net.cpp:408] conv1 <- pool0
I0426 20:55:12.714184   355 net.cpp:382] conv1 -> conv1
I0426 20:55:12.716940   355 net.cpp:124] Setting up conv1
I0426 20:55:12.716958   355 net.cpp:131] Top shape: 64 50 8 8 (204800)
I0426 20:55:12.716962   355 net.cpp:139] Memory required for data: 10236160
I0426 20:55:12.716974   355 layer_factory.hpp:77] Creating layer pool1
I0426 20:55:12.716982   355 net.cpp:86] Creating Layer pool1
I0426 20:55:12.716986   355 net.cpp:408] pool1 <- conv1
I0426 20:55:12.716992   355 net.cpp:382] pool1 -> pool1
I0426 20:55:12.717036   355 net.cpp:124] Setting up pool1
I0426 20:55:12.717043   355 net.cpp:131] Top shape: 64 50 4 4 (51200)
I0426 20:55:12.717047   355 net.cpp:139] Memory required for data: 10440960
I0426 20:55:12.717051   355 layer_factory.hpp:77] Creating layer ip1
I0426 20:55:12.717059   355 net.cpp:86] Creating Layer ip1
I0426 20:55:12.717063   355 net.cpp:408] ip1 <- pool1
I0426 20:55:12.717068   355 net.cpp:382] ip1 -> ip1
I0426 20:55:12.718688   355 net.cpp:124] Setting up ip1
I0426 20:55:12.718703   355 net.cpp:131] Top shape: 64 100 (6400)
I0426 20:55:12.718708   355 net.cpp:139] Memory required for data: 10466560
I0426 20:55:12.718717   355 layer_factory.hpp:77] Creating layer relu1
I0426 20:55:12.718725   355 net.cpp:86] Creating Layer relu1
I0426 20:55:12.718729   355 net.cpp:408] relu1 <- ip1
I0426 20:55:12.718736   355 net.cpp:369] relu1 -> ip1 (in-place)
I0426 20:55:12.718940   355 net.cpp:124] Setting up relu1
I0426 20:55:12.718951   355 net.cpp:131] Top shape: 64 100 (6400)
I0426 20:55:12.718955   355 net.cpp:139] Memory required for data: 10492160
I0426 20:55:12.718960   355 layer_factory.hpp:77] Creating layer ip2
I0426 20:55:12.718967   355 net.cpp:86] Creating Layer ip2
I0426 20:55:12.718971   355 net.cpp:408] ip2 <- ip1
I0426 20:55:12.718976   355 net.cpp:382] ip2 -> ip2
I0426 20:55:12.720140   355 net.cpp:124] Setting up ip2
I0426 20:55:12.720155   355 net.cpp:131] Top shape: 64 100 (6400)
I0426 20:55:12.720160   355 net.cpp:139] Memory required for data: 10517760
I0426 20:55:12.720167   355 layer_factory.hpp:77] Creating layer relu2
I0426 20:55:12.720175   355 net.cpp:86] Creating Layer relu2
I0426 20:55:12.720180   355 net.cpp:408] relu2 <- ip2
I0426 20:55:12.720185   355 net.cpp:369] relu2 -> ip2 (in-place)
I0426 20:55:12.721143   355 net.cpp:124] Setting up relu2
I0426 20:55:12.721158   355 net.cpp:131] Top shape: 64 100 (6400)
I0426 20:55:12.721163   355 net.cpp:139] Memory required for data: 10543360
I0426 20:55:12.721168   355 layer_factory.hpp:77] Creating layer ip3
I0426 20:55:12.721176   355 net.cpp:86] Creating Layer ip3
I0426 20:55:12.721180   355 net.cpp:408] ip3 <- ip2
I0426 20:55:12.721186   355 net.cpp:382] ip3 -> ip3
I0426 20:55:12.721315   355 net.cpp:124] Setting up ip3
I0426 20:55:12.721324   355 net.cpp:131] Top shape: 64 10 (640)
I0426 20:55:12.721328   355 net.cpp:139] Memory required for data: 10545920
I0426 20:55:12.721338   355 layer_factory.hpp:77] Creating layer relu3
I0426 20:55:12.721344   355 net.cpp:86] Creating Layer relu3
I0426 20:55:12.721349   355 net.cpp:408] relu3 <- ip3
I0426 20:55:12.721354   355 net.cpp:369] relu3 -> ip3 (in-place)
I0426 20:55:12.721554   355 net.cpp:124] Setting up relu3
I0426 20:55:12.721565   355 net.cpp:131] Top shape: 64 10 (640)
I0426 20:55:12.721568   355 net.cpp:139] Memory required for data: 10548480
I0426 20:55:12.721572   355 layer_factory.hpp:77] Creating layer loss
I0426 20:55:12.721580   355 net.cpp:86] Creating Layer loss
I0426 20:55:12.721582   355 net.cpp:408] loss <- ip3
I0426 20:55:12.721587   355 net.cpp:408] loss <- label
I0426 20:55:12.721595   355 net.cpp:382] loss -> loss
I0426 20:55:12.721614   355 layer_factory.hpp:77] Creating layer loss
…
I0426 20:55:12.722369   355 solver.cpp:173] Creating test net (#0) specified by net file: ECE595/mnist/train_test/var_everything/lenet_train_test175.prototxt
I0426 20:55:12.722401   355 net.cpp:296] The NetState phase (1) differed from the phase (0) specified by a rule in layer mnist
I0426 20:55:12.722512   355 net.cpp:53] Initializing net from parameters: 
name: "LeNet"
state {
  phase: TEST
}
layer {
  name: "mnist"
  type: "Data"
  top: "data"
  top: "label"
  include {
    phase: TEST
  }
  transform_param {
    scale: 0.00390625
  }
  data_param {
    source: "examples/mnist/mnist_test_lmdb"
    batch_size: 100
    backend: LMDB
  }
}
layer {
  name: "conv0"
  type: "Convolution"
  bottom: "data"
  top: "conv0"
  param {
    lr_mult: 1
  }
  param {
    lr_mult: 2
  }
  convolution_param {
    num_output: 50
    kernel_size: 5
    stride: 1
    weight_filler {
      type: "xavier"
    }
    bias_filler {
      type: "constant"
    }
  }
}
layer {
  name: "pool0"
  type: "Pooling"
  bottom: "conv0"
  top: "pool0"
  pooling_param {
    pool: MAX
    kernel_size: 2
    stride: 2
  }
}
layer {
  name: "conv1"
  type: "Convolution"
  bottom: "pool0"
  top: "conv1"
  param {
    lr_mult: 1
  }
  param {
    lr_mult: 2
  }
  convolution_param {
    num_output: 50
    kernel_size: 5
    stride: 1
    weight_filler {
      type: "xavier"
    }
    bias_filler {
      type: "constant"
    }
  }
}
layer {
  name: "pool1"
  type: "Pooling"
  bottom: "conv1"
  top: "pool1"
  pooling_param {
    pool: MAX
    kernel_size: 2
    stride: 2
  }
}
layer {
  name: "ip1"
  type: "InnerProduct"
  bottom: "pool1"
  top: "ip1"
  param {
    lr_mult: 1
  }
  param {
    lr_mult: 2
  }
  inner_product_param {
    num_output: 100
    weight_filler {
      type: "xavier"
    }
    bias_filler {
      type: "constant"
    }
  }
}
layer {
  name: "relu1"
  type: "ReLU"
  bottom: "ip1"
  top: "ip1"
}
layer {
  name: "ip2"
  type: "InnerProduct"
  bottom: "ip1"
  top: "ip2"
  param {
    lr_mult: 1
  }
  param {
    lr_mult: 2
  }
  inner_product_param {
    num_output: 100
    weight_filler {
      type: "xavier"
    }
    bias_filler {
      type: "constant"
    }
  }
}
layer {
  name: "relu2"
  type: "ReLU"
  bottom: "ip2"
  top: "ip2"
}
layer {
  name: "ip3"
  type: "InnerProduct"
  bottom: "ip2"
  top: "ip3"
  param {
    lr_mult: 1
  }
  param {
    lr_mult: 2
  }
  inner_product_param {
    num_output: 10
    weight_filler {
      type: "xavier"
    }
    bias_filler {
      type: "constant"
    }
  }
}
layer {
  name: "relu3"
  type: "ReLU"
  bottom: "ip3"
  top: "ip3"
}
layer {
  name: "accuracy"
  type: "Accuracy"
  bottom: "ip3"
  bottom: "label"
  top: "accuracy"
  include {
    phase: TEST
  }
}
layer {
  name: "loss"
  type: "SoftmaxWithLoss"
  bottom: "ip3"
  bottom: "label"
  top: "loss"
}
I0426 20:55:12.722609   355 layer_factory.hpp:77] Creating layer mnist
I0426 20:55:12.722664   355 db_lmdb.cpp:35] Opened lmdb examples/mnist/mnist_test_lmdb
I0426 20:55:12.722679   355 net.cpp:86] Creating Layer mnist
I0426 20:55:12.722685   355 net.cpp:382] mnist -> data
I0426 20:55:12.722694   355 net.cpp:382] mnist -> label
I0426 20:55:12.722798   355 data_layer.cpp:45] output data size: 100,1,28,28
I0426 20:55:12.724123   355 net.cpp:124] Setting up mnist
I0426 20:55:12.724136   355 net.cpp:131] Top shape: 100 1 28 28 (78400)
I0426 20:55:12.724143   355 net.cpp:131] Top shape: 100 (100)
I0426 20:55:12.724145   355 net.cpp:139] Memory required for data: 314000
I0426 20:55:12.724150   355 layer_factory.hpp:77] Creating layer label_mnist_1_split
I0426 20:55:12.724159   355 net.cpp:86] Creating Layer label_mnist_1_split
I0426 20:55:12.724162   355 net.cpp:408] label_mnist_1_split <- label
I0426 20:55:12.724169   355 net.cpp:382] label_mnist_1_split -> label_mnist_1_split_0
I0426 20:55:12.724175   355 net.cpp:382] label_mnist_1_split -> label_mnist_1_split_1
I0426 20:55:12.724234   355 net.cpp:124] Setting up label_mnist_1_split
I0426 20:55:12.724242   355 net.cpp:131] Top shape: 100 (100)
I0426 20:55:12.724246   355 net.cpp:131] Top shape: 100 (100)
I0426 20:55:12.724251   355 net.cpp:139] Memory required for data: 314800
I0426 20:55:12.724253   355 layer_factory.hpp:77] Creating layer conv0
I0426 20:55:12.724263   355 net.cpp:86] Creating Layer conv0
I0426 20:55:12.724267   355 net.cpp:408] conv0 <- data
I0426 20:55:12.724273   355 net.cpp:382] conv0 -> conv0
I0426 20:55:12.726266   355 net.cpp:124] Setting up conv0
I0426 20:55:12.726284   355 net.cpp:131] Top shape: 100 50 24 24 (2880000)
I0426 20:55:12.726289   355 net.cpp:139] Memory required for data: 11834800
I0426 20:55:12.726300   355 layer_factory.hpp:77] Creating layer pool0
I0426 20:55:12.726307   355 net.cpp:86] Creating Layer pool0
I0426 20:55:12.726312   355 net.cpp:408] pool0 <- conv0
I0426 20:55:12.726318   355 net.cpp:382] pool0 -> pool0
I0426 20:55:12.726361   355 net.cpp:124] Setting up pool0
I0426 20:55:12.726367   355 net.cpp:131] Top shape: 100 50 12 12 (720000)
I0426 20:55:12.726372   355 net.cpp:139] Memory required for data: 14714800
I0426 20:55:12.726374   355 layer_factory.hpp:77] Creating layer conv1
I0426 20:55:12.726384   355 net.cpp:86] Creating Layer conv1
I0426 20:55:12.726388   355 net.cpp:408] conv1 <- pool0
I0426 20:55:12.726394   355 net.cpp:382] conv1 -> conv1
I0426 20:55:12.728606   355 net.cpp:124] Setting up conv1
I0426 20:55:12.728621   355 net.cpp:131] Top shape: 100 50 8 8 (320000)
I0426 20:55:12.728626   355 net.cpp:139] Memory required for data: 15994800
I0426 20:55:12.728637   355 layer_factory.hpp:77] Creating layer pool1
I0426 20:55:12.728646   355 net.cpp:86] Creating Layer pool1
I0426 20:55:12.728652   355 net.cpp:408] pool1 <- conv1
I0426 20:55:12.728657   355 net.cpp:382] pool1 -> pool1
I0426 20:55:12.728703   355 net.cpp:124] Setting up pool1
I0426 20:55:12.728709   355 net.cpp:131] Top shape: 100 50 4 4 (80000)
I0426 20:55:12.728713   355 net.cpp:139] Memory required for data: 16314800
I0426 20:55:12.728718   355 layer_factory.hpp:77] Creating layer ip1
I0426 20:55:12.728726   355 net.cpp:86] Creating Layer ip1
I0426 20:55:12.728729   355 net.cpp:408] ip1 <- pool1
I0426 20:55:12.728735   355 net.cpp:382] ip1 -> ip1
I0426 20:55:12.729413   355 net.cpp:124] Setting up ip1
I0426 20:55:12.729423   355 net.cpp:131] Top shape: 100 100 (10000)
I0426 20:55:12.729437   355 net.cpp:139] Memory required for data: 16354800
I0426 20:55:12.729447   355 layer_factory.hpp:77] Creating layer relu1
I0426 20:55:12.729457   355 net.cpp:86] Creating Layer relu1
I0426 20:55:12.729462   355 net.cpp:408] relu1 <- ip1
I0426 20:55:12.729467   355 net.cpp:369] relu1 -> ip1 (in-place)
I0426 20:55:12.729753   355 net.cpp:124] Setting up relu1
I0426 20:55:12.729766   355 net.cpp:131] Top shape: 100 100 (10000)
I0426 20:55:12.729770   355 net.cpp:139] Memory required for data: 16394800
I0426 20:55:12.729774   355 layer_factory.hpp:77] Creating layer ip2
I0426 20:55:12.729784   355 net.cpp:86] Creating Layer ip2
I0426 20:55:12.729789   355 net.cpp:408] ip2 <- ip1
I0426 20:55:12.729796   355 net.cpp:382] ip2 -> ip2
I0426 20:55:12.729987   355 net.cpp:124] Setting up ip2
I0426 20:55:12.729996   355 net.cpp:131] Top shape: 100 100 (10000)
I0426 20:55:12.730000   355 net.cpp:139] Memory required for data: 16434800
I0426 20:55:12.730006   355 layer_factory.hpp:77] Creating layer relu2
I0426 20:55:12.730012   355 net.cpp:86] Creating Layer relu2
I0426 20:55:12.730016   355 net.cpp:408] relu2 <- ip2
I0426 20:55:12.730021   355 net.cpp:369] relu2 -> ip2 (in-place)
I0426 20:55:12.730217   355 net.cpp:124] Setting up relu2
I0426 20:55:12.730227   355 net.cpp:131] Top shape: 100 100 (10000)
I0426 20:55:12.730232   355 net.cpp:139] Memory required for data: 16474800
I0426 20:55:12.730235   355 layer_factory.hpp:77] Creating layer ip3
I0426 20:55:12.730242   355 net.cpp:86] Creating Layer ip3
I0426 20:55:12.730245   355 net.cpp:408] ip3 <- ip2
I0426 20:55:12.730253   355 net.cpp:382] ip3 -> ip3
I0426 20:55:12.730383   355 net.cpp:124] Setting up ip3
I0426 20:55:12.730392   355 net.cpp:131] Top shape: 100 10 (1000)
I0426 20:55:12.730396   355 net.cpp:139] Memory required for data: 16478800
I0426 20:55:12.730406   355 layer_factory.hpp:77] Creating layer relu3
I0426 20:55:12.730412   355 net.cpp:86] Creating Layer relu3
I0426 20:55:12.730423   355 net.cpp:408] relu3 <- ip3
I0426 20:55:12.730430   355 net.cpp:369] relu3 -> ip3 (in-place)
I0426 20:55:12.731485   355 net.cpp:124] Setting up relu3
I0426 20:55:12.731500   355 net.cpp:131] Top shape: 100 10 (1000)
I0426 20:55:12.731504   355 net.cpp:139] Memory required for data: 16482800
I0426 20:55:12.731508   355 layer_factory.hpp:77] Creating layer ip3_relu3_0_split
I0426 20:55:12.731514   355 net.cpp:86] Creating Layer ip3_relu3_0_split
I0426 20:55:12.731519   355 net.cpp:408] ip3_relu3_0_split <- ip3
I0426 20:55:12.731526   355 net.cpp:382] ip3_relu3_0_split -> ip3_relu3_0_split_0
I0426 20:55:12.731534   355 net.cpp:382] ip3_relu3_0_split -> ip3_relu3_0_split_1
I0426 20:55:12.731580   355 net.cpp:124] Setting up ip3_relu3_0_split
I0426 20:55:12.731587   355 net.cpp:131] Top shape: 100 10 (1000)
I0426 20:55:12.731591   355 net.cpp:131] Top shape: 100 10 (1000)
I0426 20:55:12.731595   355 net.cpp:139] Memory required for data: 16490800
I0426 20:55:12.731598   355 layer_factory.hpp:77] Creating layer accuracy
I0426 20:55:12.731606   355 net.cpp:86] Creating Layer accuracy
I0426 20:55:12.731611   355 net.cpp:408] accuracy <- ip3_relu3_0_split_0
I0426 20:55:12.731616   355 net.cpp:408] accuracy <- label_mnist_1_split_0
I0426 20:55:12.731621   355 net.cpp:382] accuracy -> accuracy
…
