…
I0426 20:53:25.572646 32436 net.cpp:296] The NetState phase (0) differed from the phase (1) specified by a rule in layer mnist
I0426 20:53:25.572664 32436 net.cpp:296] The NetState phase (0) differed from the phase (1) specified by a rule in layer accuracy
I0426 20:53:25.572767 32436 net.cpp:53] Initializing net from parameters: 
name: "LeNet"
state {
  phase: TRAIN
  level: 0
  stage: ""
}
layer {
  name: "mnist"
  type: "Data"
  top: "data"
  top: "label"
  include {
    phase: TRAIN
  }
  transform_param {
    scale: 0.00390625
  }
  data_param {
    source: "examples/mnist/mnist_train_lmdb"
    batch_size: 64
    backend: LMDB
  }
}
layer {
  name: "conv0"
  type: "Convolution"
  bottom: "data"
  top: "conv0"
  param {
    lr_mult: 1
  }
  param {
    lr_mult: 2
  }
  convolution_param {
    num_output: 25
    kernel_size: 5
    stride: 1
    weight_filler {
      type: "xavier"
    }
    bias_filler {
      type: "constant"
    }
  }
}
layer {
  name: "pool0"
  type: "Pooling"
  bottom: "conv0"
  top: "pool0"
  pooling_param {
    pool: MAX
    kernel_size: 2
    stride: 2
  }
}
layer {
  name: "conv1"
  type: "Convolution"
  bottom: "pool0"
  top: "conv1"
  param {
    lr_mult: 1
  }
  param {
    lr_mult: 2
  }
  convolution_param {
    num_output: 50
    kernel_size: 5
    stride: 1
    weight_filler {
      type: "xavier"
    }
    bias_filler {
      type: "constant"
    }
  }
}
layer {
  name: "pool1"
  type: "Pooling"
  bottom: "conv1"
  top: "pool1"
  pooling_param {
    pool: MAX
    kernel_size: 2
    stride: 2
  }
}
layer {
  name: "ip1"
  type: "InnerProduct"
  bottom: "pool1"
  top: "ip1"
  param {
    lr_mult: 1
  }
  param {
    lr_mult: 2
  }
  inner_product_param {
    num_output: 300
    weight_filler {
      type: "xavier"
    }
    bias_filler {
      type: "constant"
    }
  }
}
layer {
  name: "relu1"
  type: "ReLU"
  bottom: "ip1"
  top: "ip1"
}
layer {
  name: "ip2"
  type: "InnerProduct"
  bottom: "ip1"
  top: "ip2"
  param {
    lr_mult: 1
  }
  param {
    lr_mult: 2
  }
  inner_product_param {
    num_output: 100
    weight_filler {
      type: "xavier"
    }
    bias_filler {
      type: "constant"
    }
  }
}
layer {
  name: "relu2"
  type: "ReLU"
  bottom: "ip2"
  top: "ip2"
}
layer {
  name: "ip3"
  type: "InnerProduct"
  bottom: "ip2"
  top: "ip3"
  param {
    lr_mult: 1
  }
  param {
    lr_mult: 2
  }
  inner_product_param {
    num_output: 10
    weight_filler {
      type: "xavier"
    }
    bias_filler {
      type: "constant"
    }
  }
}
layer {
  name: "relu3"
  type: "ReLU"
  bottom: "ip3"
  top: "ip3"
}
layer {
  name: "loss"
  type: "SoftmaxWithLoss"
  bottom: "ip3"
  bottom: "label"
  top: "loss"
}
I0426 20:53:25.572863 32436 layer_factory.hpp:77] Creating layer mnist
I0426 20:53:25.572979 32436 db_lmdb.cpp:35] Opened lmdb examples/mnist/mnist_train_lmdb
I0426 20:53:25.573004 32436 net.cpp:86] Creating Layer mnist
I0426 20:53:25.573011 32436 net.cpp:382] mnist -> data
I0426 20:53:25.573035 32436 net.cpp:382] mnist -> label
I0426 20:53:25.574131 32436 data_layer.cpp:45] output data size: 64,1,28,28
I0426 20:53:25.576638 32436 net.cpp:124] Setting up mnist
I0426 20:53:25.576656 32436 net.cpp:131] Top shape: 64 1 28 28 (50176)
I0426 20:53:25.576663 32436 net.cpp:131] Top shape: 64 (64)
I0426 20:53:25.576666 32436 net.cpp:139] Memory required for data: 200960
I0426 20:53:25.576673 32436 layer_factory.hpp:77] Creating layer conv0
I0426 20:53:25.576690 32436 net.cpp:86] Creating Layer conv0
I0426 20:53:25.576711 32436 net.cpp:408] conv0 <- data
I0426 20:53:25.576723 32436 net.cpp:382] conv0 -> conv0
I0426 20:53:25.858134 32436 net.cpp:124] Setting up conv0
I0426 20:53:25.858161 32436 net.cpp:131] Top shape: 64 25 24 24 (921600)
I0426 20:53:25.858165 32436 net.cpp:139] Memory required for data: 3887360
I0426 20:53:25.858181 32436 layer_factory.hpp:77] Creating layer pool0
I0426 20:53:25.858193 32436 net.cpp:86] Creating Layer pool0
I0426 20:53:25.858197 32436 net.cpp:408] pool0 <- conv0
I0426 20:53:25.858202 32436 net.cpp:382] pool0 -> pool0
I0426 20:53:25.858245 32436 net.cpp:124] Setting up pool0
I0426 20:53:25.858252 32436 net.cpp:131] Top shape: 64 25 12 12 (230400)
I0426 20:53:25.858254 32436 net.cpp:139] Memory required for data: 4808960
I0426 20:53:25.858258 32436 layer_factory.hpp:77] Creating layer conv1
I0426 20:53:25.858268 32436 net.cpp:86] Creating Layer conv1
I0426 20:53:25.858270 32436 net.cpp:408] conv1 <- pool0
I0426 20:53:25.858275 32436 net.cpp:382] conv1 -> conv1
I0426 20:53:25.860325 32436 net.cpp:124] Setting up conv1
I0426 20:53:25.860339 32436 net.cpp:131] Top shape: 64 50 8 8 (204800)
I0426 20:53:25.860343 32436 net.cpp:139] Memory required for data: 5628160
I0426 20:53:25.860352 32436 layer_factory.hpp:77] Creating layer pool1
I0426 20:53:25.860358 32436 net.cpp:86] Creating Layer pool1
I0426 20:53:25.860361 32436 net.cpp:408] pool1 <- conv1
I0426 20:53:25.860366 32436 net.cpp:382] pool1 -> pool1
I0426 20:53:25.860400 32436 net.cpp:124] Setting up pool1
I0426 20:53:25.860412 32436 net.cpp:131] Top shape: 64 50 4 4 (51200)
I0426 20:53:25.860415 32436 net.cpp:139] Memory required for data: 5832960
I0426 20:53:25.860419 32436 layer_factory.hpp:77] Creating layer ip1
I0426 20:53:25.860424 32436 net.cpp:86] Creating Layer ip1
I0426 20:53:25.860427 32436 net.cpp:408] ip1 <- pool1
I0426 20:53:25.860431 32436 net.cpp:382] ip1 -> ip1
I0426 20:53:25.862596 32436 net.cpp:124] Setting up ip1
I0426 20:53:25.862607 32436 net.cpp:131] Top shape: 64 300 (19200)
I0426 20:53:25.862610 32436 net.cpp:139] Memory required for data: 5909760
I0426 20:53:25.862618 32436 layer_factory.hpp:77] Creating layer relu1
I0426 20:53:25.862624 32436 net.cpp:86] Creating Layer relu1
I0426 20:53:25.862627 32436 net.cpp:408] relu1 <- ip1
I0426 20:53:25.862633 32436 net.cpp:369] relu1 -> ip1 (in-place)
I0426 20:53:25.862859 32436 net.cpp:124] Setting up relu1
I0426 20:53:25.862869 32436 net.cpp:131] Top shape: 64 300 (19200)
I0426 20:53:25.862871 32436 net.cpp:139] Memory required for data: 5986560
I0426 20:53:25.862874 32436 layer_factory.hpp:77] Creating layer ip2
I0426 20:53:25.862881 32436 net.cpp:86] Creating Layer ip2
I0426 20:53:25.862885 32436 net.cpp:408] ip2 <- ip1
I0426 20:53:25.862891 32436 net.cpp:382] ip2 -> ip2
I0426 20:53:25.863194 32436 net.cpp:124] Setting up ip2
I0426 20:53:25.863216 32436 net.cpp:131] Top shape: 64 100 (6400)
I0426 20:53:25.863219 32436 net.cpp:139] Memory required for data: 6012160
I0426 20:53:25.863224 32436 layer_factory.hpp:77] Creating layer relu2
I0426 20:53:25.863245 32436 net.cpp:86] Creating Layer relu2
I0426 20:53:25.863247 32436 net.cpp:408] relu2 <- ip2
I0426 20:53:25.863252 32436 net.cpp:369] relu2 -> ip2 (in-place)
I0426 20:53:25.864138 32436 net.cpp:124] Setting up relu2
I0426 20:53:25.864151 32436 net.cpp:131] Top shape: 64 100 (6400)
I0426 20:53:25.864169 32436 net.cpp:139] Memory required for data: 6037760
I0426 20:53:25.864173 32436 layer_factory.hpp:77] Creating layer ip3
I0426 20:53:25.864181 32436 net.cpp:86] Creating Layer ip3
I0426 20:53:25.864198 32436 net.cpp:408] ip3 <- ip2
I0426 20:53:25.864203 32436 net.cpp:382] ip3 -> ip3
I0426 20:53:25.864322 32436 net.cpp:124] Setting up ip3
I0426 20:53:25.864331 32436 net.cpp:131] Top shape: 64 10 (640)
I0426 20:53:25.864333 32436 net.cpp:139] Memory required for data: 6040320
I0426 20:53:25.864342 32436 layer_factory.hpp:77] Creating layer relu3
I0426 20:53:25.864346 32436 net.cpp:86] Creating Layer relu3
I0426 20:53:25.864349 32436 net.cpp:408] relu3 <- ip3
I0426 20:53:25.864353 32436 net.cpp:369] relu3 -> ip3 (in-place)
I0426 20:53:25.864521 32436 net.cpp:124] Setting up relu3
I0426 20:53:25.864531 32436 net.cpp:131] Top shape: 64 10 (640)
I0426 20:53:25.864533 32436 net.cpp:139] Memory required for data: 6042880
I0426 20:53:25.864537 32436 layer_factory.hpp:77] Creating layer loss
I0426 20:53:25.864542 32436 net.cpp:86] Creating Layer loss
I0426 20:53:25.864545 32436 net.cpp:408] loss <- ip3
I0426 20:53:25.864548 32436 net.cpp:408] loss <- label
I0426 20:53:25.864553 32436 net.cpp:382] loss -> loss
I0426 20:53:25.864567 32436 layer_factory.hpp:77] Creating layer loss
…
I0426 20:53:25.865340 32436 solver.cpp:173] Creating test net (#0) specified by net file: ECE595/mnist/train_test/var_everything/lenet_train_test136.prototxt
I0426 20:53:25.865384 32436 net.cpp:296] The NetState phase (1) differed from the phase (0) specified by a rule in layer mnist
I0426 20:53:25.865491 32436 net.cpp:53] Initializing net from parameters: 
name: "LeNet"
state {
  phase: TEST
}
layer {
  name: "mnist"
  type: "Data"
  top: "data"
  top: "label"
  include {
    phase: TEST
  }
  transform_param {
    scale: 0.00390625
  }
  data_param {
    source: "examples/mnist/mnist_test_lmdb"
    batch_size: 100
    backend: LMDB
  }
}
layer {
  name: "conv0"
  type: "Convolution"
  bottom: "data"
  top: "conv0"
  param {
    lr_mult: 1
  }
  param {
    lr_mult: 2
  }
  convolution_param {
    num_output: 25
    kernel_size: 5
    stride: 1
    weight_filler {
      type: "xavier"
    }
    bias_filler {
      type: "constant"
    }
  }
}
layer {
  name: "pool0"
  type: "Pooling"
  bottom: "conv0"
  top: "pool0"
  pooling_param {
    pool: MAX
    kernel_size: 2
    stride: 2
  }
}
layer {
  name: "conv1"
  type: "Convolution"
  bottom: "pool0"
  top: "conv1"
  param {
    lr_mult: 1
  }
  param {
    lr_mult: 2
  }
  convolution_param {
    num_output: 50
    kernel_size: 5
    stride: 1
    weight_filler {
      type: "xavier"
    }
    bias_filler {
      type: "constant"
    }
  }
}
layer {
  name: "pool1"
  type: "Pooling"
  bottom: "conv1"
  top: "pool1"
  pooling_param {
    pool: MAX
    kernel_size: 2
    stride: 2
  }
}
layer {
  name: "ip1"
  type: "InnerProduct"
  bottom: "pool1"
  top: "ip1"
  param {
    lr_mult: 1
  }
  param {
    lr_mult: 2
  }
  inner_product_param {
    num_output: 300
    weight_filler {
      type: "xavier"
    }
    bias_filler {
      type: "constant"
    }
  }
}
layer {
  name: "relu1"
  type: "ReLU"
  bottom: "ip1"
  top: "ip1"
}
layer {
  name: "ip2"
  type: "InnerProduct"
  bottom: "ip1"
  top: "ip2"
  param {
    lr_mult: 1
  }
  param {
    lr_mult: 2
  }
  inner_product_param {
    num_output: 100
    weight_filler {
      type: "xavier"
    }
    bias_filler {
      type: "constant"
    }
  }
}
layer {
  name: "relu2"
  type: "ReLU"
  bottom: "ip2"
  top: "ip2"
}
layer {
  name: "ip3"
  type: "InnerProduct"
  bottom: "ip2"
  top: "ip3"
  param {
    lr_mult: 1
  }
  param {
    lr_mult: 2
  }
  inner_product_param {
    num_output: 10
    weight_filler {
      type: "xavier"
    }
    bias_filler {
      type: "constant"
    }
  }
}
layer {
  name: "relu3"
  type: "ReLU"
  bottom: "ip3"
  top: "ip3"
}
layer {
  name: "accuracy"
  type: "Accuracy"
  bottom: "ip3"
  bottom: "label"
  top: "accuracy"
  include {
    phase: TEST
  }
}
layer {
  name: "loss"
  type: "SoftmaxWithLoss"
  bottom: "ip3"
  bottom: "label"
  top: "loss"
}
I0426 20:53:25.865571 32436 layer_factory.hpp:77] Creating layer mnist
I0426 20:53:25.865615 32436 db_lmdb.cpp:35] Opened lmdb examples/mnist/mnist_test_lmdb
I0426 20:53:25.865628 32436 net.cpp:86] Creating Layer mnist
I0426 20:53:25.865633 32436 net.cpp:382] mnist -> data
I0426 20:53:25.865639 32436 net.cpp:382] mnist -> label
I0426 20:53:25.865720 32436 data_layer.cpp:45] output data size: 100,1,28,28
I0426 20:53:25.867838 32436 net.cpp:124] Setting up mnist
I0426 20:53:25.867851 32436 net.cpp:131] Top shape: 100 1 28 28 (78400)
I0426 20:53:25.867856 32436 net.cpp:131] Top shape: 100 (100)
I0426 20:53:25.867859 32436 net.cpp:139] Memory required for data: 314000
I0426 20:53:25.867862 32436 layer_factory.hpp:77] Creating layer label_mnist_1_split
I0426 20:53:25.867868 32436 net.cpp:86] Creating Layer label_mnist_1_split
I0426 20:53:25.867871 32436 net.cpp:408] label_mnist_1_split <- label
I0426 20:53:25.867892 32436 net.cpp:382] label_mnist_1_split -> label_mnist_1_split_0
I0426 20:53:25.867898 32436 net.cpp:382] label_mnist_1_split -> label_mnist_1_split_1
I0426 20:53:25.867955 32436 net.cpp:124] Setting up label_mnist_1_split
I0426 20:53:25.867964 32436 net.cpp:131] Top shape: 100 (100)
I0426 20:53:25.867967 32436 net.cpp:131] Top shape: 100 (100)
I0426 20:53:25.867970 32436 net.cpp:139] Memory required for data: 314800
I0426 20:53:25.867990 32436 layer_factory.hpp:77] Creating layer conv0
I0426 20:53:25.867997 32436 net.cpp:86] Creating Layer conv0
I0426 20:53:25.868000 32436 net.cpp:408] conv0 <- data
I0426 20:53:25.868006 32436 net.cpp:382] conv0 -> conv0
I0426 20:53:25.869711 32436 net.cpp:124] Setting up conv0
I0426 20:53:25.869725 32436 net.cpp:131] Top shape: 100 25 24 24 (1440000)
I0426 20:53:25.869729 32436 net.cpp:139] Memory required for data: 6074800
I0426 20:53:25.869737 32436 layer_factory.hpp:77] Creating layer pool0
I0426 20:53:25.869742 32436 net.cpp:86] Creating Layer pool0
I0426 20:53:25.869745 32436 net.cpp:408] pool0 <- conv0
I0426 20:53:25.869753 32436 net.cpp:382] pool0 -> pool0
I0426 20:53:25.869786 32436 net.cpp:124] Setting up pool0
I0426 20:53:25.869792 32436 net.cpp:131] Top shape: 100 25 12 12 (360000)
I0426 20:53:25.869794 32436 net.cpp:139] Memory required for data: 7514800
I0426 20:53:25.869797 32436 layer_factory.hpp:77] Creating layer conv1
I0426 20:53:25.869822 32436 net.cpp:86] Creating Layer conv1
I0426 20:53:25.869825 32436 net.cpp:408] conv1 <- pool0
I0426 20:53:25.869830 32436 net.cpp:382] conv1 -> conv1
I0426 20:53:25.871598 32436 net.cpp:124] Setting up conv1
I0426 20:53:25.871613 32436 net.cpp:131] Top shape: 100 50 8 8 (320000)
I0426 20:53:25.871616 32436 net.cpp:139] Memory required for data: 8794800
I0426 20:53:25.871641 32436 layer_factory.hpp:77] Creating layer pool1
I0426 20:53:25.871647 32436 net.cpp:86] Creating Layer pool1
I0426 20:53:25.871650 32436 net.cpp:408] pool1 <- conv1
I0426 20:53:25.871655 32436 net.cpp:382] pool1 -> pool1
I0426 20:53:25.871690 32436 net.cpp:124] Setting up pool1
I0426 20:53:25.871696 32436 net.cpp:131] Top shape: 100 50 4 4 (80000)
I0426 20:53:25.871701 32436 net.cpp:139] Memory required for data: 9114800
I0426 20:53:25.871702 32436 layer_factory.hpp:77] Creating layer ip1
I0426 20:53:25.871708 32436 net.cpp:86] Creating Layer ip1
I0426 20:53:25.871711 32436 net.cpp:408] ip1 <- pool1
I0426 20:53:25.871731 32436 net.cpp:382] ip1 -> ip1
I0426 20:53:25.873320 32436 net.cpp:124] Setting up ip1
I0426 20:53:25.873329 32436 net.cpp:131] Top shape: 100 300 (30000)
I0426 20:53:25.873342 32436 net.cpp:139] Memory required for data: 9234800
I0426 20:53:25.873373 32436 layer_factory.hpp:77] Creating layer relu1
I0426 20:53:25.873378 32436 net.cpp:86] Creating Layer relu1
I0426 20:53:25.873381 32436 net.cpp:408] relu1 <- ip1
I0426 20:53:25.873392 32436 net.cpp:369] relu1 -> ip1 (in-place)
I0426 20:53:25.873572 32436 net.cpp:124] Setting up relu1
I0426 20:53:25.873595 32436 net.cpp:131] Top shape: 100 300 (30000)
I0426 20:53:25.873600 32436 net.cpp:139] Memory required for data: 9354800
I0426 20:53:25.873622 32436 layer_factory.hpp:77] Creating layer ip2
I0426 20:53:25.873631 32436 net.cpp:86] Creating Layer ip2
I0426 20:53:25.873633 32436 net.cpp:408] ip2 <- ip1
I0426 20:53:25.873639 32436 net.cpp:382] ip2 -> ip2
I0426 20:53:25.873924 32436 net.cpp:124] Setting up ip2
I0426 20:53:25.873932 32436 net.cpp:131] Top shape: 100 100 (10000)
I0426 20:53:25.873935 32436 net.cpp:139] Memory required for data: 9394800
I0426 20:53:25.873940 32436 layer_factory.hpp:77] Creating layer relu2
I0426 20:53:25.873945 32436 net.cpp:86] Creating Layer relu2
I0426 20:53:25.873949 32436 net.cpp:408] relu2 <- ip2
I0426 20:53:25.873952 32436 net.cpp:369] relu2 -> ip2 (in-place)
I0426 20:53:25.874122 32436 net.cpp:124] Setting up relu2
I0426 20:53:25.874131 32436 net.cpp:131] Top shape: 100 100 (10000)
I0426 20:53:25.874135 32436 net.cpp:139] Memory required for data: 9434800
I0426 20:53:25.874136 32436 layer_factory.hpp:77] Creating layer ip3
I0426 20:53:25.874143 32436 net.cpp:86] Creating Layer ip3
I0426 20:53:25.874146 32436 net.cpp:408] ip3 <- ip2
I0426 20:53:25.874151 32436 net.cpp:382] ip3 -> ip3
I0426 20:53:25.874249 32436 net.cpp:124] Setting up ip3
I0426 20:53:25.874256 32436 net.cpp:131] Top shape: 100 10 (1000)
I0426 20:53:25.874259 32436 net.cpp:139] Memory required for data: 9438800
I0426 20:53:25.874266 32436 layer_factory.hpp:77] Creating layer relu3
I0426 20:53:25.874270 32436 net.cpp:86] Creating Layer relu3
I0426 20:53:25.874274 32436 net.cpp:408] relu3 <- ip3
I0426 20:53:25.874277 32436 net.cpp:369] relu3 -> ip3 (in-place)
I0426 20:53:25.875089 32436 net.cpp:124] Setting up relu3
I0426 20:53:25.875102 32436 net.cpp:131] Top shape: 100 10 (1000)
I0426 20:53:25.875107 32436 net.cpp:139] Memory required for data: 9442800
I0426 20:53:25.875109 32436 layer_factory.hpp:77] Creating layer ip3_relu3_0_split
I0426 20:53:25.875114 32436 net.cpp:86] Creating Layer ip3_relu3_0_split
I0426 20:53:25.875118 32436 net.cpp:408] ip3_relu3_0_split <- ip3
I0426 20:53:25.875124 32436 net.cpp:382] ip3_relu3_0_split -> ip3_relu3_0_split_0
I0426 20:53:25.875130 32436 net.cpp:382] ip3_relu3_0_split -> ip3_relu3_0_split_1
I0426 20:53:25.875182 32436 net.cpp:124] Setting up ip3_relu3_0_split
I0426 20:53:25.875190 32436 net.cpp:131] Top shape: 100 10 (1000)
I0426 20:53:25.875193 32436 net.cpp:131] Top shape: 100 10 (1000)
I0426 20:53:25.875196 32436 net.cpp:139] Memory required for data: 9450800
I0426 20:53:25.875198 32436 layer_factory.hpp:77] Creating layer accuracy
I0426 20:53:25.875203 32436 net.cpp:86] Creating Layer accuracy
I0426 20:53:25.875206 32436 net.cpp:408] accuracy <- ip3_relu3_0_split_0
I0426 20:53:25.875211 32436 net.cpp:408] accuracy <- label_mnist_1_split_0
I0426 20:53:25.875214 32436 net.cpp:382] accuracy -> accuracy
…
