…
I0426 20:51:08.288772 31915 net.cpp:296] The NetState phase (0) differed from the phase (1) specified by a rule in layer mnist
I0426 20:51:08.288790 31915 net.cpp:296] The NetState phase (0) differed from the phase (1) specified by a rule in layer accuracy
I0426 20:51:08.288895 31915 net.cpp:53] Initializing net from parameters: 
name: "LeNet"
state {
  phase: TRAIN
  level: 0
  stage: ""
}
layer {
  name: "mnist"
  type: "Data"
  top: "data"
  top: "label"
  include {
    phase: TRAIN
  }
  transform_param {
    scale: 0.00390625
  }
  data_param {
    source: "examples/mnist/mnist_train_lmdb"
    batch_size: 64
    backend: LMDB
  }
}
layer {
  name: "conv0"
  type: "Convolution"
  bottom: "data"
  top: "conv0"
  param {
    lr_mult: 1
  }
  param {
    lr_mult: 2
  }
  convolution_param {
    num_output: 10
    kernel_size: 5
    stride: 1
    weight_filler {
      type: "xavier"
    }
    bias_filler {
      type: "constant"
    }
  }
}
layer {
  name: "pool0"
  type: "Pooling"
  bottom: "conv0"
  top: "pool0"
  pooling_param {
    pool: MAX
    kernel_size: 2
    stride: 2
  }
}
layer {
  name: "conv1"
  type: "Convolution"
  bottom: "pool0"
  top: "conv1"
  param {
    lr_mult: 1
  }
  param {
    lr_mult: 2
  }
  convolution_param {
    num_output: 25
    kernel_size: 5
    stride: 1
    weight_filler {
      type: "xavier"
    }
    bias_filler {
      type: "constant"
    }
  }
}
layer {
  name: "pool1"
  type: "Pooling"
  bottom: "conv1"
  top: "pool1"
  pooling_param {
    pool: MAX
    kernel_size: 2
    stride: 2
  }
}
layer {
  name: "ip1"
  type: "InnerProduct"
  bottom: "pool1"
  top: "ip1"
  param {
    lr_mult: 1
  }
  param {
    lr_mult: 2
  }
  inner_product_param {
    num_output: 100
    weight_filler {
      type: "xavier"
    }
    bias_filler {
      type: "constant"
    }
  }
}
layer {
  name: "relu1"
  type: "ReLU"
  bottom: "ip1"
  top: "ip1"
}
layer {
  name: "ip2"
  type: "InnerProduct"
  bottom: "ip1"
  top: "ip2"
  param {
    lr_mult: 1
  }
  param {
    lr_mult: 2
  }
  inner_product_param {
    num_output: 300
    weight_filler {
      type: "xavier"
    }
    bias_filler {
      type: "constant"
    }
  }
}
layer {
  name: "relu2"
  type: "ReLU"
  bottom: "ip2"
  top: "ip2"
}
layer {
  name: "ip3"
  type: "InnerProduct"
  bottom: "ip2"
  top: "ip3"
  param {
    lr_mult: 1
  }
  param {
    lr_mult: 2
  }
  inner_product_param {
    num_output: 10
    weight_filler {
      type: "xavier"
    }
    bias_filler {
      type: "constant"
    }
  }
}
layer {
  name: "relu3"
  type: "ReLU"
  bottom: "ip3"
  top: "ip3"
}
layer {
  name: "loss"
  type: "SoftmaxWithLoss"
  bottom: "ip3"
  bottom: "label"
  top: "loss"
}
I0426 20:51:08.288972 31915 layer_factory.hpp:77] Creating layer mnist
I0426 20:51:08.289075 31915 db_lmdb.cpp:35] Opened lmdb examples/mnist/mnist_train_lmdb
I0426 20:51:08.289098 31915 net.cpp:86] Creating Layer mnist
I0426 20:51:08.289106 31915 net.cpp:382] mnist -> data
I0426 20:51:08.289129 31915 net.cpp:382] mnist -> label
I0426 20:51:08.290313 31915 data_layer.cpp:45] output data size: 64,1,28,28
I0426 20:51:08.292915 31915 net.cpp:124] Setting up mnist
I0426 20:51:08.292933 31915 net.cpp:131] Top shape: 64 1 28 28 (50176)
I0426 20:51:08.292939 31915 net.cpp:131] Top shape: 64 (64)
I0426 20:51:08.292943 31915 net.cpp:139] Memory required for data: 200960
I0426 20:51:08.292951 31915 layer_factory.hpp:77] Creating layer conv0
I0426 20:51:08.292968 31915 net.cpp:86] Creating Layer conv0
I0426 20:51:08.292989 31915 net.cpp:408] conv0 <- data
I0426 20:51:08.293001 31915 net.cpp:382] conv0 -> conv0
I0426 20:51:08.543949 31915 net.cpp:124] Setting up conv0
I0426 20:51:08.543974 31915 net.cpp:131] Top shape: 64 10 24 24 (368640)
I0426 20:51:08.543978 31915 net.cpp:139] Memory required for data: 1675520
I0426 20:51:08.543992 31915 layer_factory.hpp:77] Creating layer pool0
I0426 20:51:08.544003 31915 net.cpp:86] Creating Layer pool0
I0426 20:51:08.544008 31915 net.cpp:408] pool0 <- conv0
I0426 20:51:08.544013 31915 net.cpp:382] pool0 -> pool0
I0426 20:51:08.544071 31915 net.cpp:124] Setting up pool0
I0426 20:51:08.544076 31915 net.cpp:131] Top shape: 64 10 12 12 (92160)
I0426 20:51:08.544080 31915 net.cpp:139] Memory required for data: 2044160
I0426 20:51:08.544082 31915 layer_factory.hpp:77] Creating layer conv1
I0426 20:51:08.544092 31915 net.cpp:86] Creating Layer conv1
I0426 20:51:08.544095 31915 net.cpp:408] conv1 <- pool0
I0426 20:51:08.544100 31915 net.cpp:382] conv1 -> conv1
I0426 20:51:08.546775 31915 net.cpp:124] Setting up conv1
I0426 20:51:08.546804 31915 net.cpp:131] Top shape: 64 25 8 8 (102400)
I0426 20:51:08.546808 31915 net.cpp:139] Memory required for data: 2453760
I0426 20:51:08.546830 31915 layer_factory.hpp:77] Creating layer pool1
I0426 20:51:08.546838 31915 net.cpp:86] Creating Layer pool1
I0426 20:51:08.546841 31915 net.cpp:408] pool1 <- conv1
I0426 20:51:08.546845 31915 net.cpp:382] pool1 -> pool1
I0426 20:51:08.546911 31915 net.cpp:124] Setting up pool1
I0426 20:51:08.546916 31915 net.cpp:131] Top shape: 64 25 4 4 (25600)
I0426 20:51:08.546919 31915 net.cpp:139] Memory required for data: 2556160
I0426 20:51:08.546921 31915 layer_factory.hpp:77] Creating layer ip1
I0426 20:51:08.546928 31915 net.cpp:86] Creating Layer ip1
I0426 20:51:08.546931 31915 net.cpp:408] ip1 <- pool1
I0426 20:51:08.546936 31915 net.cpp:382] ip1 -> ip1
I0426 20:51:08.547253 31915 net.cpp:124] Setting up ip1
I0426 20:51:08.547274 31915 net.cpp:131] Top shape: 64 100 (6400)
I0426 20:51:08.547277 31915 net.cpp:139] Memory required for data: 2581760
I0426 20:51:08.547299 31915 layer_factory.hpp:77] Creating layer relu1
I0426 20:51:08.547304 31915 net.cpp:86] Creating Layer relu1
I0426 20:51:08.547307 31915 net.cpp:408] relu1 <- ip1
I0426 20:51:08.547312 31915 net.cpp:369] relu1 -> ip1 (in-place)
I0426 20:51:08.547477 31915 net.cpp:124] Setting up relu1
I0426 20:51:08.547485 31915 net.cpp:131] Top shape: 64 100 (6400)
I0426 20:51:08.547489 31915 net.cpp:139] Memory required for data: 2607360
I0426 20:51:08.547492 31915 layer_factory.hpp:77] Creating layer ip2
I0426 20:51:08.547497 31915 net.cpp:86] Creating Layer ip2
I0426 20:51:08.547502 31915 net.cpp:408] ip2 <- ip1
I0426 20:51:08.547507 31915 net.cpp:382] ip2 -> ip2
I0426 20:51:08.547780 31915 net.cpp:124] Setting up ip2
I0426 20:51:08.547788 31915 net.cpp:131] Top shape: 64 300 (19200)
I0426 20:51:08.547791 31915 net.cpp:139] Memory required for data: 2684160
I0426 20:51:08.547797 31915 layer_factory.hpp:77] Creating layer relu2
I0426 20:51:08.547803 31915 net.cpp:86] Creating Layer relu2
I0426 20:51:08.547806 31915 net.cpp:408] relu2 <- ip2
I0426 20:51:08.547811 31915 net.cpp:369] relu2 -> ip2 (in-place)
I0426 20:51:08.548583 31915 net.cpp:124] Setting up relu2
I0426 20:51:08.548593 31915 net.cpp:131] Top shape: 64 300 (19200)
I0426 20:51:08.548611 31915 net.cpp:139] Memory required for data: 2760960
I0426 20:51:08.548615 31915 layer_factory.hpp:77] Creating layer ip3
I0426 20:51:08.548621 31915 net.cpp:86] Creating Layer ip3
I0426 20:51:08.548640 31915 net.cpp:408] ip3 <- ip2
I0426 20:51:08.548645 31915 net.cpp:382] ip3 -> ip3
I0426 20:51:08.549701 31915 net.cpp:124] Setting up ip3
I0426 20:51:08.549713 31915 net.cpp:131] Top shape: 64 10 (640)
I0426 20:51:08.549731 31915 net.cpp:139] Memory required for data: 2763520
I0426 20:51:08.549739 31915 layer_factory.hpp:77] Creating layer relu3
I0426 20:51:08.549744 31915 net.cpp:86] Creating Layer relu3
I0426 20:51:08.549748 31915 net.cpp:408] relu3 <- ip3
I0426 20:51:08.549752 31915 net.cpp:369] relu3 -> ip3 (in-place)
I0426 20:51:08.549955 31915 net.cpp:124] Setting up relu3
I0426 20:51:08.549964 31915 net.cpp:131] Top shape: 64 10 (640)
I0426 20:51:08.549968 31915 net.cpp:139] Memory required for data: 2766080
I0426 20:51:08.549971 31915 layer_factory.hpp:77] Creating layer loss
I0426 20:51:08.549976 31915 net.cpp:86] Creating Layer loss
I0426 20:51:08.549979 31915 net.cpp:408] loss <- ip3
I0426 20:51:08.549983 31915 net.cpp:408] loss <- label
I0426 20:51:08.549988 31915 net.cpp:382] loss -> loss
I0426 20:51:08.550002 31915 layer_factory.hpp:77] Creating layer loss
…
I0426 20:51:08.550626 31915 solver.cpp:173] Creating test net (#0) specified by net file: ECE595/mnist/train_test/var_everything/lenet_train_test79.prototxt
I0426 20:51:08.550653 31915 net.cpp:296] The NetState phase (1) differed from the phase (0) specified by a rule in layer mnist
I0426 20:51:08.550741 31915 net.cpp:53] Initializing net from parameters: 
name: "LeNet"
state {
  phase: TEST
}
layer {
  name: "mnist"
  type: "Data"
  top: "data"
  top: "label"
  include {
    phase: TEST
  }
  transform_param {
    scale: 0.00390625
  }
  data_param {
    source: "examples/mnist/mnist_test_lmdb"
    batch_size: 100
    backend: LMDB
  }
}
layer {
  name: "conv0"
  type: "Convolution"
  bottom: "data"
  top: "conv0"
  param {
    lr_mult: 1
  }
  param {
    lr_mult: 2
  }
  convolution_param {
    num_output: 10
    kernel_size: 5
    stride: 1
    weight_filler {
      type: "xavier"
    }
    bias_filler {
      type: "constant"
    }
  }
}
layer {
  name: "pool0"
  type: "Pooling"
  bottom: "conv0"
  top: "pool0"
  pooling_param {
    pool: MAX
    kernel_size: 2
    stride: 2
  }
}
layer {
  name: "conv1"
  type: "Convolution"
  bottom: "pool0"
  top: "conv1"
  param {
    lr_mult: 1
  }
  param {
    lr_mult: 2
  }
  convolution_param {
    num_output: 25
    kernel_size: 5
    stride: 1
    weight_filler {
      type: "xavier"
    }
    bias_filler {
      type: "constant"
    }
  }
}
layer {
  name: "pool1"
  type: "Pooling"
  bottom: "conv1"
  top: "pool1"
  pooling_param {
    pool: MAX
    kernel_size: 2
    stride: 2
  }
}
layer {
  name: "ip1"
  type: "InnerProduct"
  bottom: "pool1"
  top: "ip1"
  param {
    lr_mult: 1
  }
  param {
    lr_mult: 2
  }
  inner_product_param {
    num_output: 100
    weight_filler {
      type: "xavier"
    }
    bias_filler {
      type: "constant"
    }
  }
}
layer {
  name: "relu1"
  type: "ReLU"
  bottom: "ip1"
  top: "ip1"
}
layer {
  name: "ip2"
  type: "InnerProduct"
  bottom: "ip1"
  top: "ip2"
  param {
    lr_mult: 1
  }
  param {
    lr_mult: 2
  }
  inner_product_param {
    num_output: 300
    weight_filler {
      type: "xavier"
    }
    bias_filler {
      type: "constant"
    }
  }
}
layer {
  name: "relu2"
  type: "ReLU"
  bottom: "ip2"
  top: "ip2"
}
layer {
  name: "ip3"
  type: "InnerProduct"
  bottom: "ip2"
  top: "ip3"
  param {
    lr_mult: 1
  }
  param {
    lr_mult: 2
  }
  inner_product_param {
    num_output: 10
    weight_filler {
      type: "xavier"
    }
    bias_filler {
      type: "constant"
    }
  }
}
layer {
  name: "relu3"
  type: "ReLU"
  bottom: "ip3"
  top: "ip3"
}
layer {
  name: "accuracy"
  type: "Accuracy"
  bottom: "ip3"
  bottom: "label"
  top: "accuracy"
  include {
    phase: TEST
  }
}
layer {
  name: "loss"
  type: "SoftmaxWithLoss"
  bottom: "ip3"
  bottom: "label"
  top: "loss"
}
I0426 20:51:08.550817 31915 layer_factory.hpp:77] Creating layer mnist
I0426 20:51:08.550861 31915 db_lmdb.cpp:35] Opened lmdb examples/mnist/mnist_test_lmdb
I0426 20:51:08.550873 31915 net.cpp:86] Creating Layer mnist
I0426 20:51:08.550878 31915 net.cpp:382] mnist -> data
I0426 20:51:08.550900 31915 net.cpp:382] mnist -> label
I0426 20:51:08.550981 31915 data_layer.cpp:45] output data size: 100,1,28,28
I0426 20:51:08.552971 31915 net.cpp:124] Setting up mnist
I0426 20:51:08.552999 31915 net.cpp:131] Top shape: 100 1 28 28 (78400)
I0426 20:51:08.553004 31915 net.cpp:131] Top shape: 100 (100)
I0426 20:51:08.553009 31915 net.cpp:139] Memory required for data: 314000
I0426 20:51:08.553012 31915 layer_factory.hpp:77] Creating layer label_mnist_1_split
I0426 20:51:08.553019 31915 net.cpp:86] Creating Layer label_mnist_1_split
I0426 20:51:08.553022 31915 net.cpp:408] label_mnist_1_split <- label
I0426 20:51:08.553026 31915 net.cpp:382] label_mnist_1_split -> label_mnist_1_split_0
I0426 20:51:08.553048 31915 net.cpp:382] label_mnist_1_split -> label_mnist_1_split_1
I0426 20:51:08.553115 31915 net.cpp:124] Setting up label_mnist_1_split
I0426 20:51:08.553122 31915 net.cpp:131] Top shape: 100 (100)
I0426 20:51:08.553125 31915 net.cpp:131] Top shape: 100 (100)
I0426 20:51:08.553143 31915 net.cpp:139] Memory required for data: 314800
I0426 20:51:08.553146 31915 layer_factory.hpp:77] Creating layer conv0
I0426 20:51:08.553154 31915 net.cpp:86] Creating Layer conv0
I0426 20:51:08.553158 31915 net.cpp:408] conv0 <- data
I0426 20:51:08.553163 31915 net.cpp:382] conv0 -> conv0
I0426 20:51:08.554780 31915 net.cpp:124] Setting up conv0
I0426 20:51:08.554792 31915 net.cpp:131] Top shape: 100 10 24 24 (576000)
I0426 20:51:08.554796 31915 net.cpp:139] Memory required for data: 2618800
I0426 20:51:08.554805 31915 layer_factory.hpp:77] Creating layer pool0
I0426 20:51:08.554826 31915 net.cpp:86] Creating Layer pool0
I0426 20:51:08.554829 31915 net.cpp:408] pool0 <- conv0
I0426 20:51:08.554848 31915 net.cpp:382] pool0 -> pool0
I0426 20:51:08.554918 31915 net.cpp:124] Setting up pool0
I0426 20:51:08.554924 31915 net.cpp:131] Top shape: 100 10 12 12 (144000)
I0426 20:51:08.554926 31915 net.cpp:139] Memory required for data: 3194800
I0426 20:51:08.554929 31915 layer_factory.hpp:77] Creating layer conv1
I0426 20:51:08.554939 31915 net.cpp:86] Creating Layer conv1
I0426 20:51:08.554942 31915 net.cpp:408] conv1 <- pool0
I0426 20:51:08.554949 31915 net.cpp:382] conv1 -> conv1
I0426 20:51:08.557298 31915 net.cpp:124] Setting up conv1
I0426 20:51:08.557312 31915 net.cpp:131] Top shape: 100 25 8 8 (160000)
I0426 20:51:08.557317 31915 net.cpp:139] Memory required for data: 3834800
I0426 20:51:08.557325 31915 layer_factory.hpp:77] Creating layer pool1
I0426 20:51:08.557332 31915 net.cpp:86] Creating Layer pool1
I0426 20:51:08.557334 31915 net.cpp:408] pool1 <- conv1
I0426 20:51:08.557363 31915 net.cpp:382] pool1 -> pool1
I0426 20:51:08.557399 31915 net.cpp:124] Setting up pool1
I0426 20:51:08.557404 31915 net.cpp:131] Top shape: 100 25 4 4 (40000)
I0426 20:51:08.557409 31915 net.cpp:139] Memory required for data: 3994800
I0426 20:51:08.557411 31915 layer_factory.hpp:77] Creating layer ip1
I0426 20:51:08.557416 31915 net.cpp:86] Creating Layer ip1
I0426 20:51:08.557420 31915 net.cpp:408] ip1 <- pool1
I0426 20:51:08.557425 31915 net.cpp:382] ip1 -> ip1
I0426 20:51:08.557780 31915 net.cpp:124] Setting up ip1
I0426 20:51:08.557790 31915 net.cpp:131] Top shape: 100 100 (10000)
I0426 20:51:08.557802 31915 net.cpp:139] Memory required for data: 4034800
I0426 20:51:08.557809 31915 layer_factory.hpp:77] Creating layer relu1
I0426 20:51:08.557814 31915 net.cpp:86] Creating Layer relu1
I0426 20:51:08.557817 31915 net.cpp:408] relu1 <- ip1
I0426 20:51:08.557821 31915 net.cpp:369] relu1 -> ip1 (in-place)
I0426 20:51:08.557987 31915 net.cpp:124] Setting up relu1
I0426 20:51:08.557996 31915 net.cpp:131] Top shape: 100 100 (10000)
I0426 20:51:08.558007 31915 net.cpp:139] Memory required for data: 4074800
I0426 20:51:08.558012 31915 layer_factory.hpp:77] Creating layer ip2
I0426 20:51:08.558017 31915 net.cpp:86] Creating Layer ip2
I0426 20:51:08.558022 31915 net.cpp:408] ip2 <- ip1
I0426 20:51:08.558027 31915 net.cpp:382] ip2 -> ip2
I0426 20:51:08.558321 31915 net.cpp:124] Setting up ip2
I0426 20:51:08.558329 31915 net.cpp:131] Top shape: 100 300 (30000)
I0426 20:51:08.558332 31915 net.cpp:139] Memory required for data: 4194800
I0426 20:51:08.558338 31915 layer_factory.hpp:77] Creating layer relu2
I0426 20:51:08.558349 31915 net.cpp:86] Creating Layer relu2
I0426 20:51:08.558353 31915 net.cpp:408] relu2 <- ip2
I0426 20:51:08.558357 31915 net.cpp:369] relu2 -> ip2 (in-place)
I0426 20:51:08.558502 31915 net.cpp:124] Setting up relu2
I0426 20:51:08.558511 31915 net.cpp:131] Top shape: 100 300 (30000)
I0426 20:51:08.558514 31915 net.cpp:139] Memory required for data: 4314800
I0426 20:51:08.558517 31915 layer_factory.hpp:77] Creating layer ip3
I0426 20:51:08.558522 31915 net.cpp:86] Creating Layer ip3
I0426 20:51:08.558526 31915 net.cpp:408] ip3 <- ip2
I0426 20:51:08.558531 31915 net.cpp:382] ip3 -> ip3
I0426 20:51:08.558666 31915 net.cpp:124] Setting up ip3
I0426 20:51:08.558675 31915 net.cpp:131] Top shape: 100 10 (1000)
I0426 20:51:08.558678 31915 net.cpp:139] Memory required for data: 4318800
I0426 20:51:08.558686 31915 layer_factory.hpp:77] Creating layer relu3
I0426 20:51:08.558691 31915 net.cpp:86] Creating Layer relu3
I0426 20:51:08.558693 31915 net.cpp:408] relu3 <- ip3
I0426 20:51:08.558698 31915 net.cpp:369] relu3 -> ip3 (in-place)
I0426 20:51:08.559554 31915 net.cpp:124] Setting up relu3
I0426 20:51:08.559567 31915 net.cpp:131] Top shape: 100 10 (1000)
I0426 20:51:08.559571 31915 net.cpp:139] Memory required for data: 4322800
I0426 20:51:08.559574 31915 layer_factory.hpp:77] Creating layer ip3_relu3_0_split
I0426 20:51:08.559579 31915 net.cpp:86] Creating Layer ip3_relu3_0_split
I0426 20:51:08.559582 31915 net.cpp:408] ip3_relu3_0_split <- ip3
I0426 20:51:08.559587 31915 net.cpp:382] ip3_relu3_0_split -> ip3_relu3_0_split_0
I0426 20:51:08.559593 31915 net.cpp:382] ip3_relu3_0_split -> ip3_relu3_0_split_1
I0426 20:51:08.559649 31915 net.cpp:124] Setting up ip3_relu3_0_split
I0426 20:51:08.559655 31915 net.cpp:131] Top shape: 100 10 (1000)
I0426 20:51:08.559659 31915 net.cpp:131] Top shape: 100 10 (1000)
I0426 20:51:08.559661 31915 net.cpp:139] Memory required for data: 4330800
I0426 20:51:08.559664 31915 layer_factory.hpp:77] Creating layer accuracy
I0426 20:51:08.559669 31915 net.cpp:86] Creating Layer accuracy
I0426 20:51:08.559672 31915 net.cpp:408] accuracy <- ip3_relu3_0_split_0
I0426 20:51:08.559684 31915 net.cpp:408] accuracy <- label_mnist_1_split_0
I0426 20:51:08.559687 31915 net.cpp:382] accuracy -> accuracy
…
