…
I0426 20:48:34.446614 31285 net.cpp:296] The NetState phase (0) differed from the phase (1) specified by a rule in layer mnist
I0426 20:48:34.446626 31285 net.cpp:296] The NetState phase (0) differed from the phase (1) specified by a rule in layer accuracy
I0426 20:48:34.446682 31285 net.cpp:53] Initializing net from parameters: 
name: "LeNet"
state {
  phase: TRAIN
  level: 0
  stage: ""
}
layer {
  name: "mnist"
  type: "Data"
  top: "data"
  top: "label"
  include {
    phase: TRAIN
  }
  transform_param {
    scale: 0.00390625
  }
  data_param {
    source: "examples/mnist/mnist_train_lmdb"
    batch_size: 64
    backend: LMDB
  }
}
layer {
  name: "ip1"
  type: "InnerProduct"
  bottom: "data"
  top: "ip1"
  param {
    lr_mult: 1
  }
  param {
    lr_mult: 2
  }
  inner_product_param {
    num_output: 300
    weight_filler {
      type: "xavier"
    }
    bias_filler {
      type: "constant"
    }
  }
}
layer {
  name: "relu1"
  type: "ReLU"
  bottom: "ip1"
  top: "ip1"
}
layer {
  name: "ip2"
  type: "InnerProduct"
  bottom: "ip1"
  top: "ip2"
  param {
    lr_mult: 1
  }
  param {
    lr_mult: 2
  }
  inner_product_param {
    num_output: 100
    weight_filler {
      type: "xavier"
    }
    bias_filler {
      type: "constant"
    }
  }
}
layer {
  name: "relu2"
  type: "ReLU"
  bottom: "ip2"
  top: "ip2"
}
layer {
  name: "ip3"
  type: "InnerProduct"
  bottom: "ip2"
  top: "ip3"
  param {
    lr_mult: 1
  }
  param {
    lr_mult: 2
  }
  inner_product_param {
    num_output: 10
    weight_filler {
      type: "xavier"
    }
    bias_filler {
      type: "constant"
    }
  }
}
layer {
  name: "relu3"
  type: "ReLU"
  bottom: "ip3"
  top: "ip3"
}
layer {
  name: "loss"
  type: "SoftmaxWithLoss"
  bottom: "ip3"
  bottom: "label"
  top: "loss"
}
I0426 20:48:34.446737 31285 layer_factory.hpp:77] Creating layer mnist
I0426 20:48:34.446817 31285 db_lmdb.cpp:35] Opened lmdb examples/mnist/mnist_train_lmdb
I0426 20:48:34.446835 31285 net.cpp:86] Creating Layer mnist
I0426 20:48:34.446844 31285 net.cpp:382] mnist -> data
I0426 20:48:34.446862 31285 net.cpp:382] mnist -> label
I0426 20:48:34.447821 31285 data_layer.cpp:45] output data size: 64,1,28,28
I0426 20:48:34.449995 31285 net.cpp:124] Setting up mnist
I0426 20:48:34.450023 31285 net.cpp:131] Top shape: 64 1 28 28 (50176)
I0426 20:48:34.450028 31285 net.cpp:131] Top shape: 64 (64)
I0426 20:48:34.450031 31285 net.cpp:139] Memory required for data: 200960
I0426 20:48:34.450037 31285 layer_factory.hpp:77] Creating layer ip1
I0426 20:48:34.450083 31285 net.cpp:86] Creating Layer ip1
I0426 20:48:34.450088 31285 net.cpp:408] ip1 <- data
I0426 20:48:34.450098 31285 net.cpp:382] ip1 -> ip1
I0426 20:48:34.453482 31285 net.cpp:124] Setting up ip1
I0426 20:48:34.453495 31285 net.cpp:131] Top shape: 64 300 (19200)
I0426 20:48:34.453506 31285 net.cpp:139] Memory required for data: 277760
I0426 20:48:34.453517 31285 layer_factory.hpp:77] Creating layer relu1
I0426 20:48:34.453524 31285 net.cpp:86] Creating Layer relu1
I0426 20:48:34.453528 31285 net.cpp:408] relu1 <- ip1
I0426 20:48:34.453534 31285 net.cpp:369] relu1 -> ip1 (in-place)
I0426 20:48:34.678298 31285 net.cpp:124] Setting up relu1
I0426 20:48:34.678325 31285 net.cpp:131] Top shape: 64 300 (19200)
I0426 20:48:34.678328 31285 net.cpp:139] Memory required for data: 354560
I0426 20:48:34.678333 31285 layer_factory.hpp:77] Creating layer ip2
I0426 20:48:34.678344 31285 net.cpp:86] Creating Layer ip2
I0426 20:48:34.678365 31285 net.cpp:408] ip2 <- ip1
I0426 20:48:34.678373 31285 net.cpp:382] ip2 -> ip2
I0426 20:48:34.678673 31285 net.cpp:124] Setting up ip2
I0426 20:48:34.678683 31285 net.cpp:131] Top shape: 64 100 (6400)
I0426 20:48:34.678685 31285 net.cpp:139] Memory required for data: 380160
I0426 20:48:34.678694 31285 layer_factory.hpp:77] Creating layer relu2
I0426 20:48:34.678701 31285 net.cpp:86] Creating Layer relu2
I0426 20:48:34.678704 31285 net.cpp:408] relu2 <- ip2
I0426 20:48:34.678709 31285 net.cpp:369] relu2 -> ip2 (in-place)
I0426 20:48:34.679545 31285 net.cpp:124] Setting up relu2
I0426 20:48:34.679558 31285 net.cpp:131] Top shape: 64 100 (6400)
I0426 20:48:34.679575 31285 net.cpp:139] Memory required for data: 405760
I0426 20:48:34.679579 31285 layer_factory.hpp:77] Creating layer ip3
I0426 20:48:34.679585 31285 net.cpp:86] Creating Layer ip3
I0426 20:48:34.679589 31285 net.cpp:408] ip3 <- ip2
I0426 20:48:34.679594 31285 net.cpp:382] ip3 -> ip3
I0426 20:48:34.679697 31285 net.cpp:124] Setting up ip3
I0426 20:48:34.679704 31285 net.cpp:131] Top shape: 64 10 (640)
I0426 20:48:34.679708 31285 net.cpp:139] Memory required for data: 408320
I0426 20:48:34.679714 31285 layer_factory.hpp:77] Creating layer relu3
I0426 20:48:34.679720 31285 net.cpp:86] Creating Layer relu3
I0426 20:48:34.679723 31285 net.cpp:408] relu3 <- ip3
I0426 20:48:34.679728 31285 net.cpp:369] relu3 -> ip3 (in-place)
I0426 20:48:34.679875 31285 net.cpp:124] Setting up relu3
I0426 20:48:34.679883 31285 net.cpp:131] Top shape: 64 10 (640)
I0426 20:48:34.679886 31285 net.cpp:139] Memory required for data: 410880
I0426 20:48:34.679888 31285 layer_factory.hpp:77] Creating layer loss
I0426 20:48:34.679895 31285 net.cpp:86] Creating Layer loss
I0426 20:48:34.679898 31285 net.cpp:408] loss <- ip3
I0426 20:48:34.679903 31285 net.cpp:408] loss <- label
I0426 20:48:34.679908 31285 net.cpp:382] loss -> loss
I0426 20:48:34.679924 31285 layer_factory.hpp:77] Creating layer loss
…
I0426 20:48:34.680461 31285 solver.cpp:173] Creating test net (#0) specified by net file: ECE595/mnist/train_test/var_everything/lenet_train_test10.prototxt
I0426 20:48:34.680483 31285 net.cpp:296] The NetState phase (1) differed from the phase (0) specified by a rule in layer mnist
I0426 20:48:34.680558 31285 net.cpp:53] Initializing net from parameters: 
name: "LeNet"
state {
  phase: TEST
}
layer {
  name: "mnist"
  type: "Data"
  top: "data"
  top: "label"
  include {
    phase: TEST
  }
  transform_param {
    scale: 0.00390625
  }
  data_param {
    source: "examples/mnist/mnist_test_lmdb"
    batch_size: 100
    backend: LMDB
  }
}
layer {
  name: "ip1"
  type: "InnerProduct"
  bottom: "data"
  top: "ip1"
  param {
    lr_mult: 1
  }
  param {
    lr_mult: 2
  }
  inner_product_param {
    num_output: 300
    weight_filler {
      type: "xavier"
    }
    bias_filler {
      type: "constant"
    }
  }
}
layer {
  name: "relu1"
  type: "ReLU"
  bottom: "ip1"
  top: "ip1"
}
layer {
  name: "ip2"
  type: "InnerProduct"
  bottom: "ip1"
  top: "ip2"
  param {
    lr_mult: 1
  }
  param {
    lr_mult: 2
  }
  inner_product_param {
    num_output: 100
    weight_filler {
      type: "xavier"
    }
    bias_filler {
      type: "constant"
    }
  }
}
layer {
  name: "relu2"
  type: "ReLU"
  bottom: "ip2"
  top: "ip2"
}
layer {
  name: "ip3"
  type: "InnerProduct"
  bottom: "ip2"
  top: "ip3"
  param {
    lr_mult: 1
  }
  param {
    lr_mult: 2
  }
  inner_product_param {
    num_output: 10
    weight_filler {
      type: "xavier"
    }
    bias_filler {
      type: "constant"
    }
  }
}
layer {
  name: "relu3"
  type: "ReLU"
  bottom: "ip3"
  top: "ip3"
}
layer {
  name: "accuracy"
  type: "Accuracy"
  bottom: "ip3"
  bottom: "label"
  top: "accuracy"
  include {
    phase: TEST
  }
}
layer {
  name: "loss"
  type: "SoftmaxWithLoss"
  bottom: "ip3"
  bottom: "label"
  top: "loss"
}
I0426 20:48:34.680637 31285 layer_factory.hpp:77] Creating layer mnist
I0426 20:48:34.680680 31285 db_lmdb.cpp:35] Opened lmdb examples/mnist/mnist_test_lmdb
I0426 20:48:34.680691 31285 net.cpp:86] Creating Layer mnist
I0426 20:48:34.680696 31285 net.cpp:382] mnist -> data
I0426 20:48:34.680704 31285 net.cpp:382] mnist -> label
I0426 20:48:34.680785 31285 data_layer.cpp:45] output data size: 100,1,28,28
I0426 20:48:34.683002 31285 net.cpp:124] Setting up mnist
I0426 20:48:34.683030 31285 net.cpp:131] Top shape: 100 1 28 28 (78400)
I0426 20:48:34.683035 31285 net.cpp:131] Top shape: 100 (100)
I0426 20:48:34.683038 31285 net.cpp:139] Memory required for data: 314000
I0426 20:48:34.683042 31285 layer_factory.hpp:77] Creating layer label_mnist_1_split
I0426 20:48:34.683121 31285 net.cpp:86] Creating Layer label_mnist_1_split
I0426 20:48:34.683125 31285 net.cpp:408] label_mnist_1_split <- label
I0426 20:48:34.683130 31285 net.cpp:382] label_mnist_1_split -> label_mnist_1_split_0
I0426 20:48:34.683137 31285 net.cpp:382] label_mnist_1_split -> label_mnist_1_split_1
I0426 20:48:34.683178 31285 net.cpp:124] Setting up label_mnist_1_split
I0426 20:48:34.683183 31285 net.cpp:131] Top shape: 100 (100)
I0426 20:48:34.683187 31285 net.cpp:131] Top shape: 100 (100)
I0426 20:48:34.683189 31285 net.cpp:139] Memory required for data: 314800
I0426 20:48:34.683192 31285 layer_factory.hpp:77] Creating layer ip1
I0426 20:48:34.683199 31285 net.cpp:86] Creating Layer ip1
I0426 20:48:34.683202 31285 net.cpp:408] ip1 <- data
I0426 20:48:34.683207 31285 net.cpp:382] ip1 -> ip1
I0426 20:48:34.684742 31285 net.cpp:124] Setting up ip1
I0426 20:48:34.684751 31285 net.cpp:131] Top shape: 100 300 (30000)
I0426 20:48:34.684753 31285 net.cpp:139] Memory required for data: 434800
I0426 20:48:34.684777 31285 layer_factory.hpp:77] Creating layer relu1
I0426 20:48:34.684798 31285 net.cpp:86] Creating Layer relu1
I0426 20:48:34.684800 31285 net.cpp:408] relu1 <- ip1
I0426 20:48:34.684872 31285 net.cpp:369] relu1 -> ip1 (in-place)
I0426 20:48:34.685977 31285 net.cpp:124] Setting up relu1
I0426 20:48:34.685989 31285 net.cpp:131] Top shape: 100 300 (30000)
I0426 20:48:34.685992 31285 net.cpp:139] Memory required for data: 554800
I0426 20:48:34.685995 31285 layer_factory.hpp:77] Creating layer ip2
I0426 20:48:34.686003 31285 net.cpp:86] Creating Layer ip2
I0426 20:48:34.686022 31285 net.cpp:408] ip2 <- ip1
I0426 20:48:34.686028 31285 net.cpp:382] ip2 -> ip2
I0426 20:48:34.686290 31285 net.cpp:124] Setting up ip2
I0426 20:48:34.686297 31285 net.cpp:131] Top shape: 100 100 (10000)
I0426 20:48:34.686301 31285 net.cpp:139] Memory required for data: 594800
I0426 20:48:34.686308 31285 layer_factory.hpp:77] Creating layer relu2
I0426 20:48:34.686316 31285 net.cpp:86] Creating Layer relu2
I0426 20:48:34.686318 31285 net.cpp:408] relu2 <- ip2
I0426 20:48:34.686322 31285 net.cpp:369] relu2 -> ip2 (in-place)
I0426 20:48:34.686486 31285 net.cpp:124] Setting up relu2
I0426 20:48:34.686493 31285 net.cpp:131] Top shape: 100 100 (10000)
I0426 20:48:34.686496 31285 net.cpp:139] Memory required for data: 634800
I0426 20:48:34.686499 31285 layer_factory.hpp:77] Creating layer ip3
I0426 20:48:34.686506 31285 net.cpp:86] Creating Layer ip3
I0426 20:48:34.686514 31285 net.cpp:408] ip3 <- ip2
I0426 20:48:34.686545 31285 net.cpp:382] ip3 -> ip3
I0426 20:48:34.686647 31285 net.cpp:124] Setting up ip3
I0426 20:48:34.686655 31285 net.cpp:131] Top shape: 100 10 (1000)
I0426 20:48:34.686658 31285 net.cpp:139] Memory required for data: 638800
I0426 20:48:34.686666 31285 layer_factory.hpp:77] Creating layer relu3
I0426 20:48:34.686671 31285 net.cpp:86] Creating Layer relu3
I0426 20:48:34.686674 31285 net.cpp:408] relu3 <- ip3
I0426 20:48:34.686679 31285 net.cpp:369] relu3 -> ip3 (in-place)
I0426 20:48:34.686835 31285 net.cpp:124] Setting up relu3
I0426 20:48:34.686842 31285 net.cpp:131] Top shape: 100 10 (1000)
I0426 20:48:34.686846 31285 net.cpp:139] Memory required for data: 642800
I0426 20:48:34.686847 31285 layer_factory.hpp:77] Creating layer ip3_relu3_0_split
I0426 20:48:34.686866 31285 net.cpp:86] Creating Layer ip3_relu3_0_split
I0426 20:48:34.686869 31285 net.cpp:408] ip3_relu3_0_split <- ip3
I0426 20:48:34.686873 31285 net.cpp:382] ip3_relu3_0_split -> ip3_relu3_0_split_0
I0426 20:48:34.686880 31285 net.cpp:382] ip3_relu3_0_split -> ip3_relu3_0_split_1
I0426 20:48:34.686915 31285 net.cpp:124] Setting up ip3_relu3_0_split
I0426 20:48:34.686920 31285 net.cpp:131] Top shape: 100 10 (1000)
I0426 20:48:34.686923 31285 net.cpp:131] Top shape: 100 10 (1000)
I0426 20:48:34.686928 31285 net.cpp:139] Memory required for data: 650800
I0426 20:48:34.686934 31285 layer_factory.hpp:77] Creating layer accuracy
I0426 20:48:34.686941 31285 net.cpp:86] Creating Layer accuracy
I0426 20:48:34.686944 31285 net.cpp:408] accuracy <- ip3_relu3_0_split_0
I0426 20:48:34.686949 31285 net.cpp:408] accuracy <- label_mnist_1_split_0
I0426 20:48:34.686952 31285 net.cpp:382] accuracy -> accuracy
…
