…
I0426 20:51:44.132748 32045 net.cpp:296] The NetState phase (0) differed from the phase (1) specified by a rule in layer mnist
I0426 20:51:44.132776 32045 net.cpp:296] The NetState phase (0) differed from the phase (1) specified by a rule in layer accuracy
I0426 20:51:44.132923 32045 net.cpp:53] Initializing net from parameters: 
name: "LeNet"
state {
  phase: TRAIN
  level: 0
  stage: ""
}
layer {
  name: "mnist"
  type: "Data"
  top: "data"
  top: "label"
  include {
    phase: TRAIN
  }
  transform_param {
    scale: 0.00390625
  }
  data_param {
    source: "examples/mnist/mnist_train_lmdb"
    batch_size: 64
    backend: LMDB
  }
}
layer {
  name: "conv0"
  type: "Convolution"
  bottom: "data"
  top: "conv0"
  param {
    lr_mult: 1
  }
  param {
    lr_mult: 2
  }
  convolution_param {
    num_output: 10
    kernel_size: 5
    stride: 1
    weight_filler {
      type: "xavier"
    }
    bias_filler {
      type: "constant"
    }
  }
}
layer {
  name: "pool0"
  type: "Pooling"
  bottom: "conv0"
  top: "pool0"
  pooling_param {
    pool: MAX
    kernel_size: 2
    stride: 2
  }
}
layer {
  name: "conv1"
  type: "Convolution"
  bottom: "pool0"
  top: "conv1"
  param {
    lr_mult: 1
  }
  param {
    lr_mult: 2
  }
  convolution_param {
    num_output: 50
    kernel_size: 5
    stride: 1
    weight_filler {
      type: "xavier"
    }
    bias_filler {
      type: "constant"
    }
  }
}
layer {
  name: "pool1"
  type: "Pooling"
  bottom: "conv1"
  top: "pool1"
  pooling_param {
    pool: MAX
    kernel_size: 2
    stride: 2
  }
}
layer {
  name: "ip1"
  type: "InnerProduct"
  bottom: "pool1"
  top: "ip1"
  param {
    lr_mult: 1
  }
  param {
    lr_mult: 2
  }
  inner_product_param {
    num_output: 300
    weight_filler {
      type: "xavier"
    }
    bias_filler {
      type: "constant"
    }
  }
}
layer {
  name: "relu1"
  type: "ReLU"
  bottom: "ip1"
  top: "ip1"
}
layer {
  name: "ip2"
  type: "InnerProduct"
  bottom: "ip1"
  top: "ip2"
  param {
    lr_mult: 1
  }
  param {
    lr_mult: 2
  }
  inner_product_param {
    num_output: 100
    weight_filler {
      type: "xavier"
    }
    bias_filler {
      type: "constant"
    }
  }
}
layer {
  name: "relu2"
  type: "ReLU"
  bottom: "ip2"
  top: "ip2"
}
layer {
  name: "ip3"
  type: "InnerProduct"
  bottom: "ip2"
  top: "ip3"
  param {
    lr_mult: 1
  }
  param {
    lr_mult: 2
  }
  inner_product_param {
    num_output: 10
    weight_filler {
      type: "xavier"
    }
    bias_filler {
      type: "constant"
    }
  }
}
layer {
  name: "relu3"
  type: "ReLU"
  bottom: "ip3"
  top: "ip3"
}
layer {
  name: "loss"
  type: "SoftmaxWithLoss"
  bottom: "ip3"
  bottom: "label"
  top: "loss"
}
I0426 20:51:44.132994 32045 layer_factory.hpp:77] Creating layer mnist
I0426 20:51:44.133080 32045 db_lmdb.cpp:35] Opened lmdb examples/mnist/mnist_train_lmdb
I0426 20:51:44.133100 32045 net.cpp:86] Creating Layer mnist
I0426 20:51:44.133105 32045 net.cpp:382] mnist -> data
I0426 20:51:44.133124 32045 net.cpp:382] mnist -> label
I0426 20:51:44.134052 32045 data_layer.cpp:45] output data size: 64,1,28,28
I0426 20:51:44.136116 32045 net.cpp:124] Setting up mnist
I0426 20:51:44.136145 32045 net.cpp:131] Top shape: 64 1 28 28 (50176)
I0426 20:51:44.136150 32045 net.cpp:131] Top shape: 64 (64)
I0426 20:51:44.136153 32045 net.cpp:139] Memory required for data: 200960
I0426 20:51:44.136158 32045 layer_factory.hpp:77] Creating layer conv0
I0426 20:51:44.136171 32045 net.cpp:86] Creating Layer conv0
I0426 20:51:44.136188 32045 net.cpp:408] conv0 <- data
I0426 20:51:44.136212 32045 net.cpp:382] conv0 -> conv0
I0426 20:51:44.366791 32045 net.cpp:124] Setting up conv0
I0426 20:51:44.366817 32045 net.cpp:131] Top shape: 64 10 24 24 (368640)
I0426 20:51:44.366822 32045 net.cpp:139] Memory required for data: 1675520
I0426 20:51:44.366837 32045 layer_factory.hpp:77] Creating layer pool0
I0426 20:51:44.366848 32045 net.cpp:86] Creating Layer pool0
I0426 20:51:44.366852 32045 net.cpp:408] pool0 <- conv0
I0426 20:51:44.366858 32045 net.cpp:382] pool0 -> pool0
I0426 20:51:44.366916 32045 net.cpp:124] Setting up pool0
I0426 20:51:44.366922 32045 net.cpp:131] Top shape: 64 10 12 12 (92160)
I0426 20:51:44.366925 32045 net.cpp:139] Memory required for data: 2044160
I0426 20:51:44.366927 32045 layer_factory.hpp:77] Creating layer conv1
I0426 20:51:44.366937 32045 net.cpp:86] Creating Layer conv1
I0426 20:51:44.366940 32045 net.cpp:408] conv1 <- pool0
I0426 20:51:44.366960 32045 net.cpp:382] conv1 -> conv1
I0426 20:51:44.369704 32045 net.cpp:124] Setting up conv1
I0426 20:51:44.369716 32045 net.cpp:131] Top shape: 64 50 8 8 (204800)
I0426 20:51:44.369720 32045 net.cpp:139] Memory required for data: 2863360
I0426 20:51:44.369729 32045 layer_factory.hpp:77] Creating layer pool1
I0426 20:51:44.369735 32045 net.cpp:86] Creating Layer pool1
I0426 20:51:44.369738 32045 net.cpp:408] pool1 <- conv1
I0426 20:51:44.369743 32045 net.cpp:382] pool1 -> pool1
I0426 20:51:44.369793 32045 net.cpp:124] Setting up pool1
I0426 20:51:44.369798 32045 net.cpp:131] Top shape: 64 50 4 4 (51200)
I0426 20:51:44.369801 32045 net.cpp:139] Memory required for data: 3068160
I0426 20:51:44.369803 32045 layer_factory.hpp:77] Creating layer ip1
I0426 20:51:44.369809 32045 net.cpp:86] Creating Layer ip1
I0426 20:51:44.369812 32045 net.cpp:408] ip1 <- pool1
I0426 20:51:44.369817 32045 net.cpp:382] ip1 -> ip1
I0426 20:51:44.371927 32045 net.cpp:124] Setting up ip1
I0426 20:51:44.371938 32045 net.cpp:131] Top shape: 64 300 (19200)
I0426 20:51:44.371942 32045 net.cpp:139] Memory required for data: 3144960
I0426 20:51:44.371948 32045 layer_factory.hpp:77] Creating layer relu1
I0426 20:51:44.371954 32045 net.cpp:86] Creating Layer relu1
I0426 20:51:44.371958 32045 net.cpp:408] relu1 <- ip1
I0426 20:51:44.371961 32045 net.cpp:369] relu1 -> ip1 (in-place)
I0426 20:51:44.372169 32045 net.cpp:124] Setting up relu1
I0426 20:51:44.372179 32045 net.cpp:131] Top shape: 64 300 (19200)
I0426 20:51:44.372181 32045 net.cpp:139] Memory required for data: 3221760
I0426 20:51:44.372185 32045 layer_factory.hpp:77] Creating layer ip2
I0426 20:51:44.372191 32045 net.cpp:86] Creating Layer ip2
I0426 20:51:44.372195 32045 net.cpp:408] ip2 <- ip1
I0426 20:51:44.372200 32045 net.cpp:382] ip2 -> ip2
I0426 20:51:44.372478 32045 net.cpp:124] Setting up ip2
I0426 20:51:44.372484 32045 net.cpp:131] Top shape: 64 100 (6400)
I0426 20:51:44.372488 32045 net.cpp:139] Memory required for data: 3247360
I0426 20:51:44.372493 32045 layer_factory.hpp:77] Creating layer relu2
I0426 20:51:44.372498 32045 net.cpp:86] Creating Layer relu2
I0426 20:51:44.372501 32045 net.cpp:408] relu2 <- ip2
I0426 20:51:44.372505 32045 net.cpp:369] relu2 -> ip2 (in-place)
I0426 20:51:44.373314 32045 net.cpp:124] Setting up relu2
I0426 20:51:44.373327 32045 net.cpp:131] Top shape: 64 100 (6400)
I0426 20:51:44.373344 32045 net.cpp:139] Memory required for data: 3272960
I0426 20:51:44.373348 32045 layer_factory.hpp:77] Creating layer ip3
I0426 20:51:44.373354 32045 net.cpp:86] Creating Layer ip3
I0426 20:51:44.373358 32045 net.cpp:408] ip3 <- ip2
I0426 20:51:44.373363 32045 net.cpp:382] ip3 -> ip3
I0426 20:51:44.373463 32045 net.cpp:124] Setting up ip3
I0426 20:51:44.373471 32045 net.cpp:131] Top shape: 64 10 (640)
I0426 20:51:44.373473 32045 net.cpp:139] Memory required for data: 3275520
I0426 20:51:44.373481 32045 layer_factory.hpp:77] Creating layer relu3
I0426 20:51:44.373486 32045 net.cpp:86] Creating Layer relu3
I0426 20:51:44.373488 32045 net.cpp:408] relu3 <- ip3
I0426 20:51:44.373492 32045 net.cpp:369] relu3 -> ip3 (in-place)
I0426 20:51:44.373651 32045 net.cpp:124] Setting up relu3
I0426 20:51:44.373658 32045 net.cpp:131] Top shape: 64 10 (640)
I0426 20:51:44.373661 32045 net.cpp:139] Memory required for data: 3278080
I0426 20:51:44.373664 32045 layer_factory.hpp:77] Creating layer loss
I0426 20:51:44.373690 32045 net.cpp:86] Creating Layer loss
I0426 20:51:44.373694 32045 net.cpp:408] loss <- ip3
I0426 20:51:44.373698 32045 net.cpp:408] loss <- label
I0426 20:51:44.373703 32045 net.cpp:382] loss -> loss
I0426 20:51:44.373716 32045 layer_factory.hpp:77] Creating layer loss
…
I0426 20:51:44.374358 32045 solver.cpp:173] Creating test net (#0) specified by net file: ECE595/mnist/train_test/var_everything/lenet_train_test94.prototxt
I0426 20:51:44.374414 32045 net.cpp:296] The NetState phase (1) differed from the phase (0) specified by a rule in layer mnist
I0426 20:51:44.374506 32045 net.cpp:53] Initializing net from parameters: 
name: "LeNet"
state {
  phase: TEST
}
layer {
  name: "mnist"
  type: "Data"
  top: "data"
  top: "label"
  include {
    phase: TEST
  }
  transform_param {
    scale: 0.00390625
  }
  data_param {
    source: "examples/mnist/mnist_test_lmdb"
    batch_size: 100
    backend: LMDB
  }
}
layer {
  name: "conv0"
  type: "Convolution"
  bottom: "data"
  top: "conv0"
  param {
    lr_mult: 1
  }
  param {
    lr_mult: 2
  }
  convolution_param {
    num_output: 10
    kernel_size: 5
    stride: 1
    weight_filler {
      type: "xavier"
    }
    bias_filler {
      type: "constant"
    }
  }
}
layer {
  name: "pool0"
  type: "Pooling"
  bottom: "conv0"
  top: "pool0"
  pooling_param {
    pool: MAX
    kernel_size: 2
    stride: 2
  }
}
layer {
  name: "conv1"
  type: "Convolution"
  bottom: "pool0"
  top: "conv1"
  param {
    lr_mult: 1
  }
  param {
    lr_mult: 2
  }
  convolution_param {
    num_output: 50
    kernel_size: 5
    stride: 1
    weight_filler {
      type: "xavier"
    }
    bias_filler {
      type: "constant"
    }
  }
}
layer {
  name: "pool1"
  type: "Pooling"
  bottom: "conv1"
  top: "pool1"
  pooling_param {
    pool: MAX
    kernel_size: 2
    stride: 2
  }
}
layer {
  name: "ip1"
  type: "InnerProduct"
  bottom: "pool1"
  top: "ip1"
  param {
    lr_mult: 1
  }
  param {
    lr_mult: 2
  }
  inner_product_param {
    num_output: 300
    weight_filler {
      type: "xavier"
    }
    bias_filler {
      type: "constant"
    }
  }
}
layer {
  name: "relu1"
  type: "ReLU"
  bottom: "ip1"
  top: "ip1"
}
layer {
  name: "ip2"
  type: "InnerProduct"
  bottom: "ip1"
  top: "ip2"
  param {
    lr_mult: 1
  }
  param {
    lr_mult: 2
  }
  inner_product_param {
    num_output: 100
    weight_filler {
      type: "xavier"
    }
    bias_filler {
      type: "constant"
    }
  }
}
layer {
  name: "relu2"
  type: "ReLU"
  bottom: "ip2"
  top: "ip2"
}
layer {
  name: "ip3"
  type: "InnerProduct"
  bottom: "ip2"
  top: "ip3"
  param {
    lr_mult: 1
  }
  param {
    lr_mult: 2
  }
  inner_product_param {
    num_output: 10
    weight_filler {
      type: "xavier"
    }
    bias_filler {
      type: "constant"
    }
  }
}
layer {
  name: "relu3"
  type: "ReLU"
  bottom: "ip3"
  top: "ip3"
}
layer {
  name: "accuracy"
  type: "Accuracy"
  bottom: "ip3"
  bottom: "label"
  top: "accuracy"
  include {
    phase: TEST
  }
}
layer {
  name: "loss"
  type: "SoftmaxWithLoss"
  bottom: "ip3"
  bottom: "label"
  top: "loss"
}
I0426 20:51:44.374601 32045 layer_factory.hpp:77] Creating layer mnist
I0426 20:51:44.374642 32045 db_lmdb.cpp:35] Opened lmdb examples/mnist/mnist_test_lmdb
I0426 20:51:44.374655 32045 net.cpp:86] Creating Layer mnist
I0426 20:51:44.374660 32045 net.cpp:382] mnist -> data
I0426 20:51:44.374667 32045 net.cpp:382] mnist -> label
I0426 20:51:44.374754 32045 data_layer.cpp:45] output data size: 100,1,28,28
I0426 20:51:44.376626 32045 net.cpp:124] Setting up mnist
I0426 20:51:44.376654 32045 net.cpp:131] Top shape: 100 1 28 28 (78400)
I0426 20:51:44.376658 32045 net.cpp:131] Top shape: 100 (100)
I0426 20:51:44.376662 32045 net.cpp:139] Memory required for data: 314000
I0426 20:51:44.376664 32045 layer_factory.hpp:77] Creating layer label_mnist_1_split
I0426 20:51:44.376670 32045 net.cpp:86] Creating Layer label_mnist_1_split
I0426 20:51:44.376673 32045 net.cpp:408] label_mnist_1_split <- label
I0426 20:51:44.376694 32045 net.cpp:382] label_mnist_1_split -> label_mnist_1_split_0
I0426 20:51:44.376711 32045 net.cpp:382] label_mnist_1_split -> label_mnist_1_split_1
I0426 20:51:44.376761 32045 net.cpp:124] Setting up label_mnist_1_split
I0426 20:51:44.376766 32045 net.cpp:131] Top shape: 100 (100)
I0426 20:51:44.376770 32045 net.cpp:131] Top shape: 100 (100)
I0426 20:51:44.376772 32045 net.cpp:139] Memory required for data: 314800
I0426 20:51:44.376775 32045 layer_factory.hpp:77] Creating layer conv0
I0426 20:51:44.376785 32045 net.cpp:86] Creating Layer conv0
I0426 20:51:44.376787 32045 net.cpp:408] conv0 <- data
I0426 20:51:44.376793 32045 net.cpp:382] conv0 -> conv0
I0426 20:51:44.378689 32045 net.cpp:124] Setting up conv0
I0426 20:51:44.378701 32045 net.cpp:131] Top shape: 100 10 24 24 (576000)
I0426 20:51:44.378705 32045 net.cpp:139] Memory required for data: 2618800
I0426 20:51:44.378712 32045 layer_factory.hpp:77] Creating layer pool0
I0426 20:51:44.378731 32045 net.cpp:86] Creating Layer pool0
I0426 20:51:44.378734 32045 net.cpp:408] pool0 <- conv0
I0426 20:51:44.378739 32045 net.cpp:382] pool0 -> pool0
I0426 20:51:44.378784 32045 net.cpp:124] Setting up pool0
I0426 20:51:44.378789 32045 net.cpp:131] Top shape: 100 10 12 12 (144000)
I0426 20:51:44.378793 32045 net.cpp:139] Memory required for data: 3194800
I0426 20:51:44.378795 32045 layer_factory.hpp:77] Creating layer conv1
I0426 20:51:44.378803 32045 net.cpp:86] Creating Layer conv1
I0426 20:51:44.378806 32045 net.cpp:408] conv1 <- pool0
I0426 20:51:44.378813 32045 net.cpp:382] conv1 -> conv1
I0426 20:51:44.380451 32045 net.cpp:124] Setting up conv1
I0426 20:51:44.380465 32045 net.cpp:131] Top shape: 100 50 8 8 (320000)
I0426 20:51:44.380467 32045 net.cpp:139] Memory required for data: 4474800
I0426 20:51:44.380475 32045 layer_factory.hpp:77] Creating layer pool1
I0426 20:51:44.380481 32045 net.cpp:86] Creating Layer pool1
I0426 20:51:44.380496 32045 net.cpp:408] pool1 <- conv1
I0426 20:51:44.380501 32045 net.cpp:382] pool1 -> pool1
I0426 20:51:44.380545 32045 net.cpp:124] Setting up pool1
I0426 20:51:44.380556 32045 net.cpp:131] Top shape: 100 50 4 4 (80000)
I0426 20:51:44.380559 32045 net.cpp:139] Memory required for data: 4794800
I0426 20:51:44.380561 32045 layer_factory.hpp:77] Creating layer ip1
I0426 20:51:44.380573 32045 net.cpp:86] Creating Layer ip1
I0426 20:51:44.380576 32045 net.cpp:408] ip1 <- pool1
I0426 20:51:44.380583 32045 net.cpp:382] ip1 -> ip1
I0426 20:51:44.382025 32045 net.cpp:124] Setting up ip1
I0426 20:51:44.382035 32045 net.cpp:131] Top shape: 100 300 (30000)
I0426 20:51:44.382056 32045 net.cpp:139] Memory required for data: 4914800
I0426 20:51:44.382074 32045 layer_factory.hpp:77] Creating layer relu1
I0426 20:51:44.382079 32045 net.cpp:86] Creating Layer relu1
I0426 20:51:44.382082 32045 net.cpp:408] relu1 <- ip1
I0426 20:51:44.382086 32045 net.cpp:369] relu1 -> ip1 (in-place)
I0426 20:51:44.382248 32045 net.cpp:124] Setting up relu1
I0426 20:51:44.382256 32045 net.cpp:131] Top shape: 100 300 (30000)
I0426 20:51:44.382259 32045 net.cpp:139] Memory required for data: 5034800
I0426 20:51:44.382262 32045 layer_factory.hpp:77] Creating layer ip2
I0426 20:51:44.382277 32045 net.cpp:86] Creating Layer ip2
I0426 20:51:44.382280 32045 net.cpp:408] ip2 <- ip1
I0426 20:51:44.382287 32045 net.cpp:382] ip2 -> ip2
I0426 20:51:44.382580 32045 net.cpp:124] Setting up ip2
I0426 20:51:44.382587 32045 net.cpp:131] Top shape: 100 100 (10000)
I0426 20:51:44.382591 32045 net.cpp:139] Memory required for data: 5074800
I0426 20:51:44.382596 32045 layer_factory.hpp:77] Creating layer relu2
I0426 20:51:44.382601 32045 net.cpp:86] Creating Layer relu2
I0426 20:51:44.382603 32045 net.cpp:408] relu2 <- ip2
I0426 20:51:44.382608 32045 net.cpp:369] relu2 -> ip2 (in-place)
I0426 20:51:44.382779 32045 net.cpp:124] Setting up relu2
I0426 20:51:44.382787 32045 net.cpp:131] Top shape: 100 100 (10000)
I0426 20:51:44.382791 32045 net.cpp:139] Memory required for data: 5114800
I0426 20:51:44.382792 32045 layer_factory.hpp:77] Creating layer ip3
I0426 20:51:44.382805 32045 net.cpp:86] Creating Layer ip3
I0426 20:51:44.382807 32045 net.cpp:408] ip3 <- ip2
I0426 20:51:44.382812 32045 net.cpp:382] ip3 -> ip3
I0426 20:51:44.382911 32045 net.cpp:124] Setting up ip3
I0426 20:51:44.382918 32045 net.cpp:131] Top shape: 100 10 (1000)
I0426 20:51:44.382922 32045 net.cpp:139] Memory required for data: 5118800
I0426 20:51:44.382930 32045 layer_factory.hpp:77] Creating layer relu3
I0426 20:51:44.382935 32045 net.cpp:86] Creating Layer relu3
I0426 20:51:44.382937 32045 net.cpp:408] relu3 <- ip3
I0426 20:51:44.382941 32045 net.cpp:369] relu3 -> ip3 (in-place)
I0426 20:51:44.383749 32045 net.cpp:124] Setting up relu3
I0426 20:51:44.383760 32045 net.cpp:131] Top shape: 100 10 (1000)
I0426 20:51:44.383764 32045 net.cpp:139] Memory required for data: 5122800
I0426 20:51:44.383766 32045 layer_factory.hpp:77] Creating layer ip3_relu3_0_split
I0426 20:51:44.383772 32045 net.cpp:86] Creating Layer ip3_relu3_0_split
I0426 20:51:44.383775 32045 net.cpp:408] ip3_relu3_0_split <- ip3
I0426 20:51:44.383780 32045 net.cpp:382] ip3_relu3_0_split -> ip3_relu3_0_split_0
I0426 20:51:44.383785 32045 net.cpp:382] ip3_relu3_0_split -> ip3_relu3_0_split_1
I0426 20:51:44.383836 32045 net.cpp:124] Setting up ip3_relu3_0_split
I0426 20:51:44.383842 32045 net.cpp:131] Top shape: 100 10 (1000)
I0426 20:51:44.383846 32045 net.cpp:131] Top shape: 100 10 (1000)
I0426 20:51:44.383847 32045 net.cpp:139] Memory required for data: 5130800
I0426 20:51:44.383858 32045 layer_factory.hpp:77] Creating layer accuracy
I0426 20:51:44.383863 32045 net.cpp:86] Creating Layer accuracy
I0426 20:51:44.383867 32045 net.cpp:408] accuracy <- ip3_relu3_0_split_0
I0426 20:51:44.383869 32045 net.cpp:408] accuracy <- label_mnist_1_split_0
I0426 20:51:44.383874 32045 net.cpp:382] accuracy -> accuracy
…
