…
I0426 20:50:18.474508 31721 net.cpp:296] The NetState phase (0) differed from the phase (1) specified by a rule in layer mnist
I0426 20:50:18.474519 31721 net.cpp:296] The NetState phase (0) differed from the phase (1) specified by a rule in layer accuracy
I0426 20:50:18.474582 31721 net.cpp:53] Initializing net from parameters: 
name: "LeNet"
state {
  phase: TRAIN
  level: 0
  stage: ""
}
layer {
  name: "mnist"
  type: "Data"
  top: "data"
  top: "label"
  include {
    phase: TRAIN
  }
  transform_param {
    scale: 0.00390625
  }
  data_param {
    source: "examples/mnist/mnist_train_lmdb"
    batch_size: 64
    backend: LMDB
  }
}
layer {
  name: "conv0"
  type: "Convolution"
  bottom: "data"
  top: "conv0"
  param {
    lr_mult: 1
  }
  param {
    lr_mult: 2
  }
  convolution_param {
    num_output: 10
    kernel_size: 5
    stride: 1
    weight_filler {
      type: "xavier"
    }
    bias_filler {
      type: "constant"
    }
  }
}
layer {
  name: "pool0"
  type: "Pooling"
  bottom: "conv0"
  top: "pool0"
  pooling_param {
    pool: MAX
    kernel_size: 2
    stride: 2
  }
}
layer {
  name: "conv1"
  type: "Convolution"
  bottom: "pool0"
  top: "conv1"
  param {
    lr_mult: 1
  }
  param {
    lr_mult: 2
  }
  convolution_param {
    num_output: 10
    kernel_size: 5
    stride: 1
    weight_filler {
      type: "xavier"
    }
    bias_filler {
      type: "constant"
    }
  }
}
layer {
  name: "pool1"
  type: "Pooling"
  bottom: "conv1"
  top: "pool1"
  pooling_param {
    pool: MAX
    kernel_size: 2
    stride: 2
  }
}
layer {
  name: "ip1"
  type: "InnerProduct"
  bottom: "pool1"
  top: "ip1"
  param {
    lr_mult: 1
  }
  param {
    lr_mult: 2
  }
  inner_product_param {
    num_output: 10
    weight_filler {
      type: "xavier"
    }
    bias_filler {
      type: "constant"
    }
  }
}
layer {
  name: "relu1"
  type: "ReLU"
  bottom: "ip1"
  top: "ip1"
}
layer {
  name: "loss"
  type: "SoftmaxWithLoss"
  bottom: "ip1"
  bottom: "label"
  top: "loss"
}
I0426 20:50:18.474635 31721 layer_factory.hpp:77] Creating layer mnist
I0426 20:50:18.474723 31721 db_lmdb.cpp:35] Opened lmdb examples/mnist/mnist_train_lmdb
I0426 20:50:18.474742 31721 net.cpp:86] Creating Layer mnist
I0426 20:50:18.474748 31721 net.cpp:382] mnist -> data
I0426 20:50:18.474782 31721 net.cpp:382] mnist -> label
I0426 20:50:18.475723 31721 data_layer.cpp:45] output data size: 64,1,28,28
I0426 20:50:18.477846 31721 net.cpp:124] Setting up mnist
I0426 20:50:18.477876 31721 net.cpp:131] Top shape: 64 1 28 28 (50176)
I0426 20:50:18.477881 31721 net.cpp:131] Top shape: 64 (64)
I0426 20:50:18.477885 31721 net.cpp:139] Memory required for data: 200960
I0426 20:50:18.477906 31721 layer_factory.hpp:77] Creating layer conv0
I0426 20:50:18.477918 31721 net.cpp:86] Creating Layer conv0
I0426 20:50:18.477923 31721 net.cpp:408] conv0 <- data
I0426 20:50:18.477933 31721 net.cpp:382] conv0 -> conv0
I0426 20:50:18.709589 31721 net.cpp:124] Setting up conv0
I0426 20:50:18.709614 31721 net.cpp:131] Top shape: 64 10 24 24 (368640)
I0426 20:50:18.709619 31721 net.cpp:139] Memory required for data: 1675520
I0426 20:50:18.709632 31721 layer_factory.hpp:77] Creating layer pool0
I0426 20:50:18.709645 31721 net.cpp:86] Creating Layer pool0
I0426 20:50:18.709648 31721 net.cpp:408] pool0 <- conv0
I0426 20:50:18.709653 31721 net.cpp:382] pool0 -> pool0
I0426 20:50:18.709713 31721 net.cpp:124] Setting up pool0
I0426 20:50:18.709718 31721 net.cpp:131] Top shape: 64 10 12 12 (92160)
I0426 20:50:18.709736 31721 net.cpp:139] Memory required for data: 2044160
I0426 20:50:18.709739 31721 layer_factory.hpp:77] Creating layer conv1
I0426 20:50:18.709750 31721 net.cpp:86] Creating Layer conv1
I0426 20:50:18.709753 31721 net.cpp:408] conv1 <- pool0
I0426 20:50:18.709758 31721 net.cpp:382] conv1 -> conv1
I0426 20:50:18.713763 31721 net.cpp:124] Setting up conv1
I0426 20:50:18.713809 31721 net.cpp:131] Top shape: 64 10 8 8 (40960)
I0426 20:50:18.713817 31721 net.cpp:139] Memory required for data: 2208000
I0426 20:50:18.713837 31721 layer_factory.hpp:77] Creating layer pool1
I0426 20:50:18.713866 31721 net.cpp:86] Creating Layer pool1
I0426 20:50:18.713874 31721 net.cpp:408] pool1 <- conv1
I0426 20:50:18.713886 31721 net.cpp:382] pool1 -> pool1
I0426 20:50:18.714005 31721 net.cpp:124] Setting up pool1
I0426 20:50:18.714022 31721 net.cpp:131] Top shape: 64 10 4 4 (10240)
I0426 20:50:18.714028 31721 net.cpp:139] Memory required for data: 2248960
I0426 20:50:18.714035 31721 layer_factory.hpp:77] Creating layer ip1
I0426 20:50:18.714049 31721 net.cpp:86] Creating Layer ip1
I0426 20:50:18.714056 31721 net.cpp:408] ip1 <- pool1
I0426 20:50:18.714067 31721 net.cpp:382] ip1 -> ip1
I0426 20:50:18.714304 31721 net.cpp:124] Setting up ip1
I0426 20:50:18.714320 31721 net.cpp:131] Top shape: 64 10 (640)
I0426 20:50:18.714328 31721 net.cpp:139] Memory required for data: 2251520
I0426 20:50:18.714350 31721 layer_factory.hpp:77] Creating layer relu1
I0426 20:50:18.714361 31721 net.cpp:86] Creating Layer relu1
I0426 20:50:18.714370 31721 net.cpp:408] relu1 <- ip1
I0426 20:50:18.714378 31721 net.cpp:369] relu1 -> ip1 (in-place)
I0426 20:50:18.714783 31721 net.cpp:124] Setting up relu1
I0426 20:50:18.714802 31721 net.cpp:131] Top shape: 64 10 (640)
I0426 20:50:18.714808 31721 net.cpp:139] Memory required for data: 2254080
I0426 20:50:18.714814 31721 layer_factory.hpp:77] Creating layer loss
I0426 20:50:18.714825 31721 net.cpp:86] Creating Layer loss
I0426 20:50:18.714833 31721 net.cpp:408] loss <- ip1
I0426 20:50:18.714840 31721 net.cpp:408] loss <- label
I0426 20:50:18.714851 31721 net.cpp:382] loss -> loss
I0426 20:50:18.714895 31721 layer_factory.hpp:77] Creating layer loss
…
I0426 20:50:18.717454 31721 solver.cpp:173] Creating test net (#0) specified by net file: ECE595/mnist/train_test/var_everything/lenet_train_test56.prototxt
I0426 20:50:18.717514 31721 net.cpp:296] The NetState phase (1) differed from the phase (0) specified by a rule in layer mnist
I0426 20:50:18.717685 31721 net.cpp:53] Initializing net from parameters: 
name: "LeNet"
state {
  phase: TEST
}
layer {
  name: "mnist"
  type: "Data"
  top: "data"
  top: "label"
  include {
    phase: TEST
  }
  transform_param {
    scale: 0.00390625
  }
  data_param {
    source: "examples/mnist/mnist_test_lmdb"
    batch_size: 100
    backend: LMDB
  }
}
layer {
  name: "conv0"
  type: "Convolution"
  bottom: "data"
  top: "conv0"
  param {
    lr_mult: 1
  }
  param {
    lr_mult: 2
  }
  convolution_param {
    num_output: 10
    kernel_size: 5
    stride: 1
    weight_filler {
      type: "xavier"
    }
    bias_filler {
      type: "constant"
    }
  }
}
layer {
  name: "pool0"
  type: "Pooling"
  bottom: "conv0"
  top: "pool0"
  pooling_param {
    pool: MAX
    kernel_size: 2
    stride: 2
  }
}
layer {
  name: "conv1"
  type: "Convolution"
  bottom: "pool0"
  top: "conv1"
  param {
    lr_mult: 1
  }
  param {
    lr_mult: 2
  }
  convolution_param {
    num_output: 10
    kernel_size: 5
    stride: 1
    weight_filler {
      type: "xavier"
    }
    bias_filler {
      type: "constant"
    }
  }
}
layer {
  name: "pool1"
  type: "Pooling"
  bottom: "conv1"
  top: "pool1"
  pooling_param {
    pool: MAX
    kernel_size: 2
    stride: 2
  }
}
layer {
  name: "ip1"
  type: "InnerProduct"
  bottom: "pool1"
  top: "ip1"
  param {
    lr_mult: 1
  }
  param {
    lr_mult: 2
  }
  inner_product_param {
    num_output: 10
    weight_filler {
      type: "xavier"
    }
    bias_filler {
      type: "constant"
    }
  }
}
layer {
  name: "relu1"
  type: "ReLU"
  bottom: "ip1"
  top: "ip1"
}
layer {
  name: "accuracy"
  type: "Accuracy"
  bottom: "ip1"
  bottom: "label"
  top: "accuracy"
  include {
    phase: TEST
  }
}
layer {
  name: "loss"
  type: "SoftmaxWithLoss"
  bottom: "ip1"
  bottom: "label"
  top: "loss"
}
I0426 20:50:18.717826 31721 layer_factory.hpp:77] Creating layer mnist
I0426 20:50:18.717913 31721 db_lmdb.cpp:35] Opened lmdb examples/mnist/mnist_test_lmdb
I0426 20:50:18.717948 31721 net.cpp:86] Creating Layer mnist
I0426 20:50:18.717958 31721 net.cpp:382] mnist -> data
I0426 20:50:18.717974 31721 net.cpp:382] mnist -> label
I0426 20:50:18.718161 31721 data_layer.cpp:45] output data size: 100,1,28,28
I0426 20:50:18.721848 31721 net.cpp:124] Setting up mnist
I0426 20:50:18.721897 31721 net.cpp:131] Top shape: 100 1 28 28 (78400)
I0426 20:50:18.721909 31721 net.cpp:131] Top shape: 100 (100)
I0426 20:50:18.721916 31721 net.cpp:139] Memory required for data: 314000
I0426 20:50:18.721925 31721 layer_factory.hpp:77] Creating layer label_mnist_1_split
I0426 20:50:18.721946 31721 net.cpp:86] Creating Layer label_mnist_1_split
I0426 20:50:18.721953 31721 net.cpp:408] label_mnist_1_split <- label
I0426 20:50:18.721964 31721 net.cpp:382] label_mnist_1_split -> label_mnist_1_split_0
I0426 20:50:18.721978 31721 net.cpp:382] label_mnist_1_split -> label_mnist_1_split_1
I0426 20:50:18.722164 31721 net.cpp:124] Setting up label_mnist_1_split
I0426 20:50:18.722180 31721 net.cpp:131] Top shape: 100 (100)
I0426 20:50:18.722188 31721 net.cpp:131] Top shape: 100 (100)
I0426 20:50:18.722194 31721 net.cpp:139] Memory required for data: 314800
I0426 20:50:18.722201 31721 layer_factory.hpp:77] Creating layer conv0
I0426 20:50:18.722219 31721 net.cpp:86] Creating Layer conv0
I0426 20:50:18.722225 31721 net.cpp:408] conv0 <- data
I0426 20:50:18.722236 31721 net.cpp:382] conv0 -> conv0
I0426 20:50:18.723894 31721 net.cpp:124] Setting up conv0
I0426 20:50:18.723935 31721 net.cpp:131] Top shape: 100 10 24 24 (576000)
I0426 20:50:18.723955 31721 net.cpp:139] Memory required for data: 2618800
I0426 20:50:18.723983 31721 layer_factory.hpp:77] Creating layer pool0
I0426 20:50:18.723999 31721 net.cpp:86] Creating Layer pool0
I0426 20:50:18.724010 31721 net.cpp:408] pool0 <- conv0
I0426 20:50:18.724027 31721 net.cpp:382] pool0 -> pool0
I0426 20:50:18.724139 31721 net.cpp:124] Setting up pool0
I0426 20:50:18.724171 31721 net.cpp:131] Top shape: 100 10 12 12 (144000)
I0426 20:50:18.724180 31721 net.cpp:139] Memory required for data: 3194800
I0426 20:50:18.724187 31721 layer_factory.hpp:77] Creating layer conv1
I0426 20:50:18.724212 31721 net.cpp:86] Creating Layer conv1
I0426 20:50:18.724220 31721 net.cpp:408] conv1 <- pool0
I0426 20:50:18.724231 31721 net.cpp:382] conv1 -> conv1
I0426 20:50:18.728400 31721 net.cpp:124] Setting up conv1
I0426 20:50:18.728425 31721 net.cpp:131] Top shape: 100 10 8 8 (64000)
I0426 20:50:18.728432 31721 net.cpp:139] Memory required for data: 3450800
I0426 20:50:18.728449 31721 layer_factory.hpp:77] Creating layer pool1
I0426 20:50:18.728462 31721 net.cpp:86] Creating Layer pool1
I0426 20:50:18.728487 31721 net.cpp:408] pool1 <- conv1
I0426 20:50:18.728498 31721 net.cpp:382] pool1 -> pool1
I0426 20:50:18.728621 31721 net.cpp:124] Setting up pool1
I0426 20:50:18.728637 31721 net.cpp:131] Top shape: 100 10 4 4 (16000)
I0426 20:50:18.728643 31721 net.cpp:139] Memory required for data: 3514800
I0426 20:50:18.728652 31721 layer_factory.hpp:77] Creating layer ip1
I0426 20:50:18.728663 31721 net.cpp:86] Creating Layer ip1
I0426 20:50:18.728670 31721 net.cpp:408] ip1 <- pool1
I0426 20:50:18.728679 31721 net.cpp:382] ip1 -> ip1
I0426 20:50:18.728919 31721 net.cpp:124] Setting up ip1
I0426 20:50:18.728945 31721 net.cpp:131] Top shape: 100 10 (1000)
I0426 20:50:18.728951 31721 net.cpp:139] Memory required for data: 3518800
I0426 20:50:18.728965 31721 layer_factory.hpp:77] Creating layer relu1
I0426 20:50:18.728974 31721 net.cpp:86] Creating Layer relu1
I0426 20:50:18.728994 31721 net.cpp:408] relu1 <- ip1
I0426 20:50:18.729003 31721 net.cpp:369] relu1 -> ip1 (in-place)
I0426 20:50:18.730670 31721 net.cpp:124] Setting up relu1
I0426 20:50:18.730692 31721 net.cpp:131] Top shape: 100 10 (1000)
I0426 20:50:18.730708 31721 net.cpp:139] Memory required for data: 3522800
I0426 20:50:18.730715 31721 layer_factory.hpp:77] Creating layer ip1_relu1_0_split
I0426 20:50:18.730731 31721 net.cpp:86] Creating Layer ip1_relu1_0_split
I0426 20:50:18.730738 31721 net.cpp:408] ip1_relu1_0_split <- ip1
I0426 20:50:18.730748 31721 net.cpp:382] ip1_relu1_0_split -> ip1_relu1_0_split_0
I0426 20:50:18.730762 31721 net.cpp:382] ip1_relu1_0_split -> ip1_relu1_0_split_1
I0426 20:50:18.730834 31721 net.cpp:124] Setting up ip1_relu1_0_split
I0426 20:50:18.730849 31721 net.cpp:131] Top shape: 100 10 (1000)
I0426 20:50:18.730856 31721 net.cpp:131] Top shape: 100 10 (1000)
I0426 20:50:18.730872 31721 net.cpp:139] Memory required for data: 3530800
I0426 20:50:18.730893 31721 layer_factory.hpp:77] Creating layer accuracy
I0426 20:50:18.730903 31721 net.cpp:86] Creating Layer accuracy
I0426 20:50:18.730911 31721 net.cpp:408] accuracy <- ip1_relu1_0_split_0
I0426 20:50:18.730932 31721 net.cpp:408] accuracy <- label_mnist_1_split_0
I0426 20:50:18.730942 31721 net.cpp:382] accuracy -> accuracy
…
