…
I0426 20:48:30.849962 31269 net.cpp:296] The NetState phase (0) differed from the phase (1) specified by a rule in layer mnist
I0426 20:48:30.849975 31269 net.cpp:296] The NetState phase (0) differed from the phase (1) specified by a rule in layer accuracy
I0426 20:48:30.850036 31269 net.cpp:53] Initializing net from parameters: 
name: "LeNet"
state {
  phase: TRAIN
  level: 0
  stage: ""
}
layer {
  name: "mnist"
  type: "Data"
  top: "data"
  top: "label"
  include {
    phase: TRAIN
  }
  transform_param {
    scale: 0.00390625
  }
  data_param {
    source: "examples/mnist/mnist_train_lmdb"
    batch_size: 64
    backend: LMDB
  }
}
layer {
  name: "ip1"
  type: "InnerProduct"
  bottom: "data"
  top: "ip1"
  param {
    lr_mult: 1
  }
  param {
    lr_mult: 2
  }
  inner_product_param {
    num_output: 100
    weight_filler {
      type: "xavier"
    }
    bias_filler {
      type: "constant"
    }
  }
}
layer {
  name: "relu1"
  type: "ReLU"
  bottom: "ip1"
  top: "ip1"
}
layer {
  name: "ip2"
  type: "InnerProduct"
  bottom: "ip1"
  top: "ip2"
  param {
    lr_mult: 1
  }
  param {
    lr_mult: 2
  }
  inner_product_param {
    num_output: 300
    weight_filler {
      type: "xavier"
    }
    bias_filler {
      type: "constant"
    }
  }
}
layer {
  name: "relu2"
  type: "ReLU"
  bottom: "ip2"
  top: "ip2"
}
layer {
  name: "ip3"
  type: "InnerProduct"
  bottom: "ip2"
  top: "ip3"
  param {
    lr_mult: 1
  }
  param {
    lr_mult: 2
  }
  inner_product_param {
    num_output: 10
    weight_filler {
      type: "xavier"
    }
    bias_filler {
      type: "constant"
    }
  }
}
layer {
  name: "relu3"
  type: "ReLU"
  bottom: "ip3"
  top: "ip3"
}
layer {
  name: "loss"
  type: "SoftmaxWithLoss"
  bottom: "ip3"
  bottom: "label"
  top: "loss"
}
I0426 20:48:30.850093 31269 layer_factory.hpp:77] Creating layer mnist
I0426 20:48:30.850178 31269 db_lmdb.cpp:35] Opened lmdb examples/mnist/mnist_train_lmdb
I0426 20:48:30.850213 31269 net.cpp:86] Creating Layer mnist
I0426 20:48:30.850220 31269 net.cpp:382] mnist -> data
I0426 20:48:30.850239 31269 net.cpp:382] mnist -> label
I0426 20:48:30.851223 31269 data_layer.cpp:45] output data size: 64,1,28,28
I0426 20:48:30.853440 31269 net.cpp:124] Setting up mnist
I0426 20:48:30.853471 31269 net.cpp:131] Top shape: 64 1 28 28 (50176)
I0426 20:48:30.853476 31269 net.cpp:131] Top shape: 64 (64)
I0426 20:48:30.853478 31269 net.cpp:139] Memory required for data: 200960
I0426 20:48:30.853483 31269 layer_factory.hpp:77] Creating layer ip1
I0426 20:48:30.853538 31269 net.cpp:86] Creating Layer ip1
I0426 20:48:30.853543 31269 net.cpp:408] ip1 <- data
I0426 20:48:30.853552 31269 net.cpp:382] ip1 -> ip1
I0426 20:48:30.855038 31269 net.cpp:124] Setting up ip1
I0426 20:48:30.855051 31269 net.cpp:131] Top shape: 64 100 (6400)
I0426 20:48:30.855053 31269 net.cpp:139] Memory required for data: 226560
I0426 20:48:30.855065 31269 layer_factory.hpp:77] Creating layer relu1
I0426 20:48:30.855074 31269 net.cpp:86] Creating Layer relu1
I0426 20:48:30.855077 31269 net.cpp:408] relu1 <- ip1
I0426 20:48:30.855098 31269 net.cpp:369] relu1 -> ip1 (in-place)
I0426 20:48:31.086815 31269 net.cpp:124] Setting up relu1
I0426 20:48:31.086856 31269 net.cpp:131] Top shape: 64 100 (6400)
I0426 20:48:31.086860 31269 net.cpp:139] Memory required for data: 252160
I0426 20:48:31.086866 31269 layer_factory.hpp:77] Creating layer ip2
I0426 20:48:31.086879 31269 net.cpp:86] Creating Layer ip2
I0426 20:48:31.086918 31269 net.cpp:408] ip2 <- ip1
I0426 20:48:31.086926 31269 net.cpp:382] ip2 -> ip2
I0426 20:48:31.088110 31269 net.cpp:124] Setting up ip2
I0426 20:48:31.088122 31269 net.cpp:131] Top shape: 64 300 (19200)
I0426 20:48:31.088126 31269 net.cpp:139] Memory required for data: 328960
I0426 20:48:31.088135 31269 layer_factory.hpp:77] Creating layer relu2
I0426 20:48:31.088142 31269 net.cpp:86] Creating Layer relu2
I0426 20:48:31.088145 31269 net.cpp:408] relu2 <- ip2
I0426 20:48:31.088150 31269 net.cpp:369] relu2 -> ip2 (in-place)
I0426 20:48:31.088984 31269 net.cpp:124] Setting up relu2
I0426 20:48:31.089011 31269 net.cpp:131] Top shape: 64 300 (19200)
I0426 20:48:31.089015 31269 net.cpp:139] Memory required for data: 405760
I0426 20:48:31.089020 31269 layer_factory.hpp:77] Creating layer ip3
I0426 20:48:31.089026 31269 net.cpp:86] Creating Layer ip3
I0426 20:48:31.089030 31269 net.cpp:408] ip3 <- ip2
I0426 20:48:31.089036 31269 net.cpp:382] ip3 -> ip3
I0426 20:48:31.090029 31269 net.cpp:124] Setting up ip3
I0426 20:48:31.090056 31269 net.cpp:131] Top shape: 64 10 (640)
I0426 20:48:31.090060 31269 net.cpp:139] Memory required for data: 408320
I0426 20:48:31.090070 31269 layer_factory.hpp:77] Creating layer relu3
I0426 20:48:31.090075 31269 net.cpp:86] Creating Layer relu3
I0426 20:48:31.090078 31269 net.cpp:408] relu3 <- ip3
I0426 20:48:31.090097 31269 net.cpp:369] relu3 -> ip3 (in-place)
I0426 20:48:31.090293 31269 net.cpp:124] Setting up relu3
I0426 20:48:31.090302 31269 net.cpp:131] Top shape: 64 10 (640)
I0426 20:48:31.090306 31269 net.cpp:139] Memory required for data: 410880
I0426 20:48:31.090308 31269 layer_factory.hpp:77] Creating layer loss
I0426 20:48:31.090313 31269 net.cpp:86] Creating Layer loss
I0426 20:48:31.090317 31269 net.cpp:408] loss <- ip3
I0426 20:48:31.090320 31269 net.cpp:408] loss <- label
I0426 20:48:31.090327 31269 net.cpp:382] loss -> loss
I0426 20:48:31.090343 31269 layer_factory.hpp:77] Creating layer loss
…
I0426 20:48:31.090840 31269 solver.cpp:173] Creating test net (#0) specified by net file: ECE595/mnist/train_test/var_everything/lenet_train_test8.prototxt
I0426 20:48:31.090862 31269 net.cpp:296] The NetState phase (1) differed from the phase (0) specified by a rule in layer mnist
I0426 20:48:31.090929 31269 net.cpp:53] Initializing net from parameters: 
name: "LeNet"
state {
  phase: TEST
}
layer {
  name: "mnist"
  type: "Data"
  top: "data"
  top: "label"
  include {
    phase: TEST
  }
  transform_param {
    scale: 0.00390625
  }
  data_param {
    source: "examples/mnist/mnist_test_lmdb"
    batch_size: 100
    backend: LMDB
  }
}
layer {
  name: "ip1"
  type: "InnerProduct"
  bottom: "data"
  top: "ip1"
  param {
    lr_mult: 1
  }
  param {
    lr_mult: 2
  }
  inner_product_param {
    num_output: 100
    weight_filler {
      type: "xavier"
    }
    bias_filler {
      type: "constant"
    }
  }
}
layer {
  name: "relu1"
  type: "ReLU"
  bottom: "ip1"
  top: "ip1"
}
layer {
  name: "ip2"
  type: "InnerProduct"
  bottom: "ip1"
  top: "ip2"
  param {
    lr_mult: 1
  }
  param {
    lr_mult: 2
  }
  inner_product_param {
    num_output: 300
    weight_filler {
      type: "xavier"
    }
    bias_filler {
      type: "constant"
    }
  }
}
layer {
  name: "relu2"
  type: "ReLU"
  bottom: "ip2"
  top: "ip2"
}
layer {
  name: "ip3"
  type: "InnerProduct"
  bottom: "ip2"
  top: "ip3"
  param {
    lr_mult: 1
  }
  param {
    lr_mult: 2
  }
  inner_product_param {
    num_output: 10
    weight_filler {
      type: "xavier"
    }
    bias_filler {
      type: "constant"
    }
  }
}
layer {
  name: "relu3"
  type: "ReLU"
  bottom: "ip3"
  top: "ip3"
}
layer {
  name: "accuracy"
  type: "Accuracy"
  bottom: "ip3"
  bottom: "label"
  top: "accuracy"
  include {
    phase: TEST
  }
}
layer {
  name: "loss"
  type: "SoftmaxWithLoss"
  bottom: "ip3"
  bottom: "label"
  top: "loss"
}
I0426 20:48:31.090996 31269 layer_factory.hpp:77] Creating layer mnist
I0426 20:48:31.091056 31269 db_lmdb.cpp:35] Opened lmdb examples/mnist/mnist_test_lmdb
I0426 20:48:31.091068 31269 net.cpp:86] Creating Layer mnist
I0426 20:48:31.091073 31269 net.cpp:382] mnist -> data
I0426 20:48:31.091079 31269 net.cpp:382] mnist -> label
I0426 20:48:31.091164 31269 data_layer.cpp:45] output data size: 100,1,28,28
I0426 20:48:31.092368 31269 net.cpp:124] Setting up mnist
I0426 20:48:31.092397 31269 net.cpp:131] Top shape: 100 1 28 28 (78400)
I0426 20:48:31.092402 31269 net.cpp:131] Top shape: 100 (100)
I0426 20:48:31.092406 31269 net.cpp:139] Memory required for data: 314000
I0426 20:48:31.092409 31269 layer_factory.hpp:77] Creating layer label_mnist_1_split
I0426 20:48:31.092444 31269 net.cpp:86] Creating Layer label_mnist_1_split
I0426 20:48:31.092448 31269 net.cpp:408] label_mnist_1_split <- label
I0426 20:48:31.092468 31269 net.cpp:382] label_mnist_1_split -> label_mnist_1_split_0
I0426 20:48:31.092474 31269 net.cpp:382] label_mnist_1_split -> label_mnist_1_split_1
I0426 20:48:31.092576 31269 net.cpp:124] Setting up label_mnist_1_split
I0426 20:48:31.092584 31269 net.cpp:131] Top shape: 100 (100)
I0426 20:48:31.092588 31269 net.cpp:131] Top shape: 100 (100)
I0426 20:48:31.092592 31269 net.cpp:139] Memory required for data: 314800
I0426 20:48:31.092594 31269 layer_factory.hpp:77] Creating layer ip1
I0426 20:48:31.092600 31269 net.cpp:86] Creating Layer ip1
I0426 20:48:31.092603 31269 net.cpp:408] ip1 <- data
I0426 20:48:31.092608 31269 net.cpp:382] ip1 -> ip1
I0426 20:48:31.093190 31269 net.cpp:124] Setting up ip1
I0426 20:48:31.093199 31269 net.cpp:131] Top shape: 100 100 (10000)
I0426 20:48:31.093202 31269 net.cpp:139] Memory required for data: 354800
I0426 20:48:31.093210 31269 layer_factory.hpp:77] Creating layer relu1
I0426 20:48:31.093215 31269 net.cpp:86] Creating Layer relu1
I0426 20:48:31.093219 31269 net.cpp:408] relu1 <- ip1
I0426 20:48:31.093222 31269 net.cpp:369] relu1 -> ip1 (in-place)
I0426 20:48:31.094071 31269 net.cpp:124] Setting up relu1
I0426 20:48:31.094084 31269 net.cpp:131] Top shape: 100 100 (10000)
I0426 20:48:31.094089 31269 net.cpp:139] Memory required for data: 394800
I0426 20:48:31.094091 31269 layer_factory.hpp:77] Creating layer ip2
I0426 20:48:31.094099 31269 net.cpp:86] Creating Layer ip2
I0426 20:48:31.094102 31269 net.cpp:408] ip2 <- ip1
I0426 20:48:31.094107 31269 net.cpp:382] ip2 -> ip2
I0426 20:48:31.094434 31269 net.cpp:124] Setting up ip2
I0426 20:48:31.094441 31269 net.cpp:131] Top shape: 100 300 (30000)
I0426 20:48:31.094444 31269 net.cpp:139] Memory required for data: 514800
I0426 20:48:31.094454 31269 layer_factory.hpp:77] Creating layer relu2
I0426 20:48:31.094457 31269 net.cpp:86] Creating Layer relu2
I0426 20:48:31.094460 31269 net.cpp:408] relu2 <- ip2
I0426 20:48:31.094471 31269 net.cpp:369] relu2 -> ip2 (in-place)
I0426 20:48:31.094632 31269 net.cpp:124] Setting up relu2
I0426 20:48:31.094641 31269 net.cpp:131] Top shape: 100 300 (30000)
I0426 20:48:31.094645 31269 net.cpp:139] Memory required for data: 634800
I0426 20:48:31.094663 31269 layer_factory.hpp:77] Creating layer ip3
I0426 20:48:31.094668 31269 net.cpp:86] Creating Layer ip3
I0426 20:48:31.094671 31269 net.cpp:408] ip3 <- ip2
I0426 20:48:31.094686 31269 net.cpp:382] ip3 -> ip3
I0426 20:48:31.094789 31269 net.cpp:124] Setting up ip3
I0426 20:48:31.094796 31269 net.cpp:131] Top shape: 100 10 (1000)
I0426 20:48:31.094799 31269 net.cpp:139] Memory required for data: 638800
I0426 20:48:31.094806 31269 layer_factory.hpp:77] Creating layer relu3
I0426 20:48:31.094810 31269 net.cpp:86] Creating Layer relu3
I0426 20:48:31.094813 31269 net.cpp:408] relu3 <- ip3
I0426 20:48:31.094823 31269 net.cpp:369] relu3 -> ip3 (in-place)
I0426 20:48:31.094990 31269 net.cpp:124] Setting up relu3
I0426 20:48:31.094997 31269 net.cpp:131] Top shape: 100 10 (1000)
I0426 20:48:31.095000 31269 net.cpp:139] Memory required for data: 642800
I0426 20:48:31.095003 31269 layer_factory.hpp:77] Creating layer ip3_relu3_0_split
I0426 20:48:31.095010 31269 net.cpp:86] Creating Layer ip3_relu3_0_split
I0426 20:48:31.095012 31269 net.cpp:408] ip3_relu3_0_split <- ip3
I0426 20:48:31.095016 31269 net.cpp:382] ip3_relu3_0_split -> ip3_relu3_0_split_0
I0426 20:48:31.095021 31269 net.cpp:382] ip3_relu3_0_split -> ip3_relu3_0_split_1
I0426 20:48:31.095054 31269 net.cpp:124] Setting up ip3_relu3_0_split
I0426 20:48:31.095058 31269 net.cpp:131] Top shape: 100 10 (1000)
I0426 20:48:31.095062 31269 net.cpp:131] Top shape: 100 10 (1000)
I0426 20:48:31.095065 31269 net.cpp:139] Memory required for data: 650800
I0426 20:48:31.095068 31269 layer_factory.hpp:77] Creating layer accuracy
I0426 20:48:31.095073 31269 net.cpp:86] Creating Layer accuracy
I0426 20:48:31.095077 31269 net.cpp:408] accuracy <- ip3_relu3_0_split_0
I0426 20:48:31.095079 31269 net.cpp:408] accuracy <- label_mnist_1_split_0
I0426 20:48:31.095083 31269 net.cpp:382] accuracy -> accuracy
…
