…
I0426 20:49:18.389920 31495 net.cpp:296] The NetState phase (0) differed from the phase (1) specified by a rule in layer mnist
I0426 20:49:18.389938 31495 net.cpp:296] The NetState phase (0) differed from the phase (1) specified by a rule in layer accuracy
I0426 20:49:18.390014 31495 net.cpp:53] Initializing net from parameters: 
name: "LeNet"
state {
  phase: TRAIN
  level: 0
  stage: ""
}
layer {
  name: "mnist"
  type: "Data"
  top: "data"
  top: "label"
  include {
    phase: TRAIN
  }
  transform_param {
    scale: 0.00390625
  }
  data_param {
    source: "examples/mnist/mnist_train_lmdb"
    batch_size: 64
    backend: LMDB
  }
}
layer {
  name: "conv0"
  type: "Convolution"
  bottom: "data"
  top: "conv0"
  param {
    lr_mult: 1
  }
  param {
    lr_mult: 2
  }
  convolution_param {
    num_output: 25
    kernel_size: 5
    stride: 1
    weight_filler {
      type: "xavier"
    }
    bias_filler {
      type: "constant"
    }
  }
}
layer {
  name: "pool0"
  type: "Pooling"
  bottom: "conv0"
  top: "pool0"
  pooling_param {
    pool: MAX
    kernel_size: 2
    stride: 2
  }
}
layer {
  name: "ip1"
  type: "InnerProduct"
  bottom: "pool0"
  top: "ip1"
  param {
    lr_mult: 1
  }
  param {
    lr_mult: 2
  }
  inner_product_param {
    num_output: 300
    weight_filler {
      type: "xavier"
    }
    bias_filler {
      type: "constant"
    }
  }
}
layer {
  name: "relu1"
  type: "ReLU"
  bottom: "ip1"
  top: "ip1"
}
layer {
  name: "ip2"
  type: "InnerProduct"
  bottom: "ip1"
  top: "ip2"
  param {
    lr_mult: 1
  }
  param {
    lr_mult: 2
  }
  inner_product_param {
    num_output: 10
    weight_filler {
      type: "xavier"
    }
    bias_filler {
      type: "constant"
    }
  }
}
layer {
  name: "relu2"
  type: "ReLU"
  bottom: "ip2"
  top: "ip2"
}
layer {
  name: "loss"
  type: "SoftmaxWithLoss"
  bottom: "ip2"
  bottom: "label"
  top: "loss"
}
I0426 20:49:18.390085 31495 layer_factory.hpp:77] Creating layer mnist
I0426 20:49:18.390179 31495 db_lmdb.cpp:35] Opened lmdb examples/mnist/mnist_train_lmdb
I0426 20:49:18.390202 31495 net.cpp:86] Creating Layer mnist
I0426 20:49:18.390211 31495 net.cpp:382] mnist -> data
I0426 20:49:18.390233 31495 net.cpp:382] mnist -> label
I0426 20:49:18.391327 31495 data_layer.cpp:45] output data size: 64,1,28,28
I0426 20:49:18.393860 31495 net.cpp:124] Setting up mnist
I0426 20:49:18.393879 31495 net.cpp:131] Top shape: 64 1 28 28 (50176)
I0426 20:49:18.393885 31495 net.cpp:131] Top shape: 64 (64)
I0426 20:49:18.393888 31495 net.cpp:139] Memory required for data: 200960
I0426 20:49:18.393895 31495 layer_factory.hpp:77] Creating layer conv0
I0426 20:49:18.393913 31495 net.cpp:86] Creating Layer conv0
I0426 20:49:18.393918 31495 net.cpp:408] conv0 <- data
I0426 20:49:18.393931 31495 net.cpp:382] conv0 -> conv0
I0426 20:49:18.645675 31495 net.cpp:124] Setting up conv0
I0426 20:49:18.645716 31495 net.cpp:131] Top shape: 64 25 24 24 (921600)
I0426 20:49:18.645721 31495 net.cpp:139] Memory required for data: 3887360
I0426 20:49:18.645736 31495 layer_factory.hpp:77] Creating layer pool0
I0426 20:49:18.645748 31495 net.cpp:86] Creating Layer pool0
I0426 20:49:18.645752 31495 net.cpp:408] pool0 <- conv0
I0426 20:49:18.645757 31495 net.cpp:382] pool0 -> pool0
I0426 20:49:18.645803 31495 net.cpp:124] Setting up pool0
I0426 20:49:18.645813 31495 net.cpp:131] Top shape: 64 25 12 12 (230400)
I0426 20:49:18.645817 31495 net.cpp:139] Memory required for data: 4808960
I0426 20:49:18.645854 31495 layer_factory.hpp:77] Creating layer ip1
I0426 20:49:18.645864 31495 net.cpp:86] Creating Layer ip1
I0426 20:49:18.645866 31495 net.cpp:408] ip1 <- pool0
I0426 20:49:18.645871 31495 net.cpp:382] ip1 -> ip1
I0426 20:49:18.652992 31495 net.cpp:124] Setting up ip1
I0426 20:49:18.653005 31495 net.cpp:131] Top shape: 64 300 (19200)
I0426 20:49:18.653024 31495 net.cpp:139] Memory required for data: 4885760
I0426 20:49:18.653033 31495 layer_factory.hpp:77] Creating layer relu1
I0426 20:49:18.653039 31495 net.cpp:86] Creating Layer relu1
I0426 20:49:18.653043 31495 net.cpp:408] relu1 <- ip1
I0426 20:49:18.653064 31495 net.cpp:369] relu1 -> ip1 (in-place)
I0426 20:49:18.653257 31495 net.cpp:124] Setting up relu1
I0426 20:49:18.653265 31495 net.cpp:131] Top shape: 64 300 (19200)
I0426 20:49:18.653270 31495 net.cpp:139] Memory required for data: 4962560
I0426 20:49:18.653272 31495 layer_factory.hpp:77] Creating layer ip2
I0426 20:49:18.653278 31495 net.cpp:86] Creating Layer ip2
I0426 20:49:18.653281 31495 net.cpp:408] ip2 <- ip1
I0426 20:49:18.653286 31495 net.cpp:382] ip2 -> ip2
I0426 20:49:18.654258 31495 net.cpp:124] Setting up ip2
I0426 20:49:18.654269 31495 net.cpp:131] Top shape: 64 10 (640)
I0426 20:49:18.654289 31495 net.cpp:139] Memory required for data: 4965120
I0426 20:49:18.654296 31495 layer_factory.hpp:77] Creating layer relu2
I0426 20:49:18.654302 31495 net.cpp:86] Creating Layer relu2
I0426 20:49:18.654305 31495 net.cpp:408] relu2 <- ip2
I0426 20:49:18.654309 31495 net.cpp:369] relu2 -> ip2 (in-place)
I0426 20:49:18.655143 31495 net.cpp:124] Setting up relu2
I0426 20:49:18.655155 31495 net.cpp:131] Top shape: 64 10 (640)
I0426 20:49:18.655174 31495 net.cpp:139] Memory required for data: 4967680
I0426 20:49:18.655177 31495 layer_factory.hpp:77] Creating layer loss
I0426 20:49:18.655189 31495 net.cpp:86] Creating Layer loss
I0426 20:49:18.655191 31495 net.cpp:408] loss <- ip2
I0426 20:49:18.655196 31495 net.cpp:408] loss <- label
I0426 20:49:18.655201 31495 net.cpp:382] loss -> loss
I0426 20:49:18.655215 31495 layer_factory.hpp:77] Creating layer loss
…
I0426 20:49:18.655756 31495 solver.cpp:173] Creating test net (#0) specified by net file: ECE595/mnist/train_test/var_everything/lenet_train_test32.prototxt
I0426 20:49:18.655781 31495 net.cpp:296] The NetState phase (1) differed from the phase (0) specified by a rule in layer mnist
I0426 20:49:18.655853 31495 net.cpp:53] Initializing net from parameters: 
name: "LeNet"
state {
  phase: TEST
}
layer {
  name: "mnist"
  type: "Data"
  top: "data"
  top: "label"
  include {
    phase: TEST
  }
  transform_param {
    scale: 0.00390625
  }
  data_param {
    source: "examples/mnist/mnist_test_lmdb"
    batch_size: 100
    backend: LMDB
  }
}
layer {
  name: "conv0"
  type: "Convolution"
  bottom: "data"
  top: "conv0"
  param {
    lr_mult: 1
  }
  param {
    lr_mult: 2
  }
  convolution_param {
    num_output: 25
    kernel_size: 5
    stride: 1
    weight_filler {
      type: "xavier"
    }
    bias_filler {
      type: "constant"
    }
  }
}
layer {
  name: "pool0"
  type: "Pooling"
  bottom: "conv0"
  top: "pool0"
  pooling_param {
    pool: MAX
    kernel_size: 2
    stride: 2
  }
}
layer {
  name: "ip1"
  type: "InnerProduct"
  bottom: "pool0"
  top: "ip1"
  param {
    lr_mult: 1
  }
  param {
    lr_mult: 2
  }
  inner_product_param {
    num_output: 300
    weight_filler {
      type: "xavier"
    }
    bias_filler {
      type: "constant"
    }
  }
}
layer {
  name: "relu1"
  type: "ReLU"
  bottom: "ip1"
  top: "ip1"
}
layer {
  name: "ip2"
  type: "InnerProduct"
  bottom: "ip1"
  top: "ip2"
  param {
    lr_mult: 1
  }
  param {
    lr_mult: 2
  }
  inner_product_param {
    num_output: 10
    weight_filler {
      type: "xavier"
    }
    bias_filler {
      type: "constant"
    }
  }
}
layer {
  name: "relu2"
  type: "ReLU"
  bottom: "ip2"
  top: "ip2"
}
layer {
  name: "accuracy"
  type: "Accuracy"
  bottom: "ip2"
  bottom: "label"
  top: "accuracy"
  include {
    phase: TEST
  }
}
layer {
  name: "loss"
  type: "SoftmaxWithLoss"
  bottom: "ip2"
  bottom: "label"
  top: "loss"
}
I0426 20:49:18.655920 31495 layer_factory.hpp:77] Creating layer mnist
I0426 20:49:18.655962 31495 db_lmdb.cpp:35] Opened lmdb examples/mnist/mnist_test_lmdb
I0426 20:49:18.655974 31495 net.cpp:86] Creating Layer mnist
I0426 20:49:18.655979 31495 net.cpp:382] mnist -> data
I0426 20:49:18.655987 31495 net.cpp:382] mnist -> label
I0426 20:49:18.656065 31495 data_layer.cpp:45] output data size: 100,1,28,28
I0426 20:49:18.658197 31495 net.cpp:124] Setting up mnist
I0426 20:49:18.658226 31495 net.cpp:131] Top shape: 100 1 28 28 (78400)
I0426 20:49:18.658231 31495 net.cpp:131] Top shape: 100 (100)
I0426 20:49:18.658236 31495 net.cpp:139] Memory required for data: 314000
I0426 20:49:18.658238 31495 layer_factory.hpp:77] Creating layer label_mnist_1_split
I0426 20:49:18.658246 31495 net.cpp:86] Creating Layer label_mnist_1_split
I0426 20:49:18.658248 31495 net.cpp:408] label_mnist_1_split <- label
I0426 20:49:18.658253 31495 net.cpp:382] label_mnist_1_split -> label_mnist_1_split_0
I0426 20:49:18.658259 31495 net.cpp:382] label_mnist_1_split -> label_mnist_1_split_1
I0426 20:49:18.658299 31495 net.cpp:124] Setting up label_mnist_1_split
I0426 20:49:18.658305 31495 net.cpp:131] Top shape: 100 (100)
I0426 20:49:18.658308 31495 net.cpp:131] Top shape: 100 (100)
I0426 20:49:18.658311 31495 net.cpp:139] Memory required for data: 314800
I0426 20:49:18.658314 31495 layer_factory.hpp:77] Creating layer conv0
I0426 20:49:18.658323 31495 net.cpp:86] Creating Layer conv0
I0426 20:49:18.658325 31495 net.cpp:408] conv0 <- data
I0426 20:49:18.658330 31495 net.cpp:382] conv0 -> conv0
I0426 20:49:18.659981 31495 net.cpp:124] Setting up conv0
I0426 20:49:18.659997 31495 net.cpp:131] Top shape: 100 25 24 24 (1440000)
I0426 20:49:18.660001 31495 net.cpp:139] Memory required for data: 6074800
I0426 20:49:18.660010 31495 layer_factory.hpp:77] Creating layer pool0
I0426 20:49:18.660017 31495 net.cpp:86] Creating Layer pool0
I0426 20:49:18.660019 31495 net.cpp:408] pool0 <- conv0
I0426 20:49:18.660027 31495 net.cpp:382] pool0 -> pool0
I0426 20:49:18.660095 31495 net.cpp:124] Setting up pool0
I0426 20:49:18.660104 31495 net.cpp:131] Top shape: 100 25 12 12 (360000)
I0426 20:49:18.660106 31495 net.cpp:139] Memory required for data: 7514800
I0426 20:49:18.660109 31495 layer_factory.hpp:77] Creating layer ip1
I0426 20:49:18.660116 31495 net.cpp:86] Creating Layer ip1
I0426 20:49:18.660123 31495 net.cpp:408] ip1 <- pool0
I0426 20:49:18.660128 31495 net.cpp:382] ip1 -> ip1
I0426 20:49:18.667469 31495 net.cpp:124] Setting up ip1
I0426 20:49:18.667481 31495 net.cpp:131] Top shape: 100 300 (30000)
I0426 20:49:18.667485 31495 net.cpp:139] Memory required for data: 7634800
I0426 20:49:18.667493 31495 layer_factory.hpp:77] Creating layer relu1
I0426 20:49:18.667500 31495 net.cpp:86] Creating Layer relu1
I0426 20:49:18.667505 31495 net.cpp:408] relu1 <- ip1
I0426 20:49:18.667508 31495 net.cpp:369] relu1 -> ip1 (in-place)
I0426 20:49:18.667711 31495 net.cpp:124] Setting up relu1
I0426 20:49:18.667721 31495 net.cpp:131] Top shape: 100 300 (30000)
I0426 20:49:18.667737 31495 net.cpp:139] Memory required for data: 7754800
I0426 20:49:18.667742 31495 layer_factory.hpp:77] Creating layer ip2
I0426 20:49:18.667747 31495 net.cpp:86] Creating Layer ip2
I0426 20:49:18.667750 31495 net.cpp:408] ip2 <- ip1
I0426 20:49:18.667757 31495 net.cpp:382] ip2 -> ip2
I0426 20:49:18.667876 31495 net.cpp:124] Setting up ip2
I0426 20:49:18.667884 31495 net.cpp:131] Top shape: 100 10 (1000)
I0426 20:49:18.667886 31495 net.cpp:139] Memory required for data: 7758800
I0426 20:49:18.667894 31495 layer_factory.hpp:77] Creating layer relu2
I0426 20:49:18.667899 31495 net.cpp:86] Creating Layer relu2
I0426 20:49:18.667902 31495 net.cpp:408] relu2 <- ip2
I0426 20:49:18.667907 31495 net.cpp:369] relu2 -> ip2 (in-place)
I0426 20:49:18.668066 31495 net.cpp:124] Setting up relu2
I0426 20:49:18.668074 31495 net.cpp:131] Top shape: 100 10 (1000)
I0426 20:49:18.668077 31495 net.cpp:139] Memory required for data: 7762800
I0426 20:49:18.668081 31495 layer_factory.hpp:77] Creating layer ip2_relu2_0_split
I0426 20:49:18.668087 31495 net.cpp:86] Creating Layer ip2_relu2_0_split
I0426 20:49:18.668089 31495 net.cpp:408] ip2_relu2_0_split <- ip2
I0426 20:49:18.668094 31495 net.cpp:382] ip2_relu2_0_split -> ip2_relu2_0_split_0
I0426 20:49:18.668102 31495 net.cpp:382] ip2_relu2_0_split -> ip2_relu2_0_split_1
I0426 20:49:18.668138 31495 net.cpp:124] Setting up ip2_relu2_0_split
I0426 20:49:18.668143 31495 net.cpp:131] Top shape: 100 10 (1000)
I0426 20:49:18.668148 31495 net.cpp:131] Top shape: 100 10 (1000)
I0426 20:49:18.668149 31495 net.cpp:139] Memory required for data: 7770800
I0426 20:49:18.668153 31495 layer_factory.hpp:77] Creating layer accuracy
I0426 20:49:18.668156 31495 net.cpp:86] Creating Layer accuracy
I0426 20:49:18.668159 31495 net.cpp:408] accuracy <- ip2_relu2_0_split_0
I0426 20:49:18.668164 31495 net.cpp:408] accuracy <- label_mnist_1_split_0
I0426 20:49:18.668169 31495 net.cpp:382] accuracy -> accuracy
…
