…
I0426 20:54:13.454095 32628 net.cpp:296] The NetState phase (0) differed from the phase (1) specified by a rule in layer mnist
I0426 20:54:13.454108 32628 net.cpp:296] The NetState phase (0) differed from the phase (1) specified by a rule in layer accuracy
I0426 20:54:13.454172 32628 net.cpp:53] Initializing net from parameters: 
name: "LeNet"
state {
  phase: TRAIN
  level: 0
  stage: ""
}
layer {
  name: "mnist"
  type: "Data"
  top: "data"
  top: "label"
  include {
    phase: TRAIN
  }
  transform_param {
    scale: 0.00390625
  }
  data_param {
    source: "examples/mnist/mnist_train_lmdb"
    batch_size: 64
    backend: LMDB
  }
}
layer {
  name: "conv0"
  type: "Convolution"
  bottom: "data"
  top: "conv0"
  param {
    lr_mult: 1
  }
  param {
    lr_mult: 2
  }
  convolution_param {
    num_output: 50
    kernel_size: 5
    stride: 1
    weight_filler {
      type: "xavier"
    }
    bias_filler {
      type: "constant"
    }
  }
}
layer {
  name: "pool0"
  type: "Pooling"
  bottom: "conv0"
  top: "pool0"
  pooling_param {
    pool: MAX
    kernel_size: 2
    stride: 2
  }
}
layer {
  name: "conv1"
  type: "Convolution"
  bottom: "pool0"
  top: "conv1"
  param {
    lr_mult: 1
  }
  param {
    lr_mult: 2
  }
  convolution_param {
    num_output: 25
    kernel_size: 5
    stride: 1
    weight_filler {
      type: "xavier"
    }
    bias_filler {
      type: "constant"
    }
  }
}
layer {
  name: "pool1"
  type: "Pooling"
  bottom: "conv1"
  top: "pool1"
  pooling_param {
    pool: MAX
    kernel_size: 2
    stride: 2
  }
}
layer {
  name: "ip1"
  type: "InnerProduct"
  bottom: "pool1"
  top: "ip1"
  param {
    lr_mult: 1
  }
  param {
    lr_mult: 2
  }
  inner_product_param {
    num_output: 10
    weight_filler {
      type: "xavier"
    }
    bias_filler {
      type: "constant"
    }
  }
}
layer {
  name: "relu1"
  type: "ReLU"
  bottom: "ip1"
  top: "ip1"
}
layer {
  name: "loss"
  type: "SoftmaxWithLoss"
  bottom: "ip1"
  bottom: "label"
  top: "loss"
}
I0426 20:54:13.454228 32628 layer_factory.hpp:77] Creating layer mnist
I0426 20:54:13.454313 32628 db_lmdb.cpp:35] Opened lmdb examples/mnist/mnist_train_lmdb
I0426 20:54:13.454336 32628 net.cpp:86] Creating Layer mnist
I0426 20:54:13.454344 32628 net.cpp:382] mnist -> data
I0426 20:54:13.454377 32628 net.cpp:382] mnist -> label
I0426 20:54:13.455271 32628 data_layer.cpp:45] output data size: 64,1,28,28
I0426 20:54:13.457517 32628 net.cpp:124] Setting up mnist
I0426 20:54:13.457530 32628 net.cpp:131] Top shape: 64 1 28 28 (50176)
I0426 20:54:13.457551 32628 net.cpp:131] Top shape: 64 (64)
I0426 20:54:13.457554 32628 net.cpp:139] Memory required for data: 200960
I0426 20:54:13.457561 32628 layer_factory.hpp:77] Creating layer conv0
I0426 20:54:13.457588 32628 net.cpp:86] Creating Layer conv0
I0426 20:54:13.457593 32628 net.cpp:408] conv0 <- data
I0426 20:54:13.457604 32628 net.cpp:382] conv0 -> conv0
I0426 20:54:13.691269 32628 net.cpp:124] Setting up conv0
I0426 20:54:13.691295 32628 net.cpp:131] Top shape: 64 50 24 24 (1843200)
I0426 20:54:13.691298 32628 net.cpp:139] Memory required for data: 7573760
I0426 20:54:13.691314 32628 layer_factory.hpp:77] Creating layer pool0
I0426 20:54:13.691328 32628 net.cpp:86] Creating Layer pool0
I0426 20:54:13.691331 32628 net.cpp:408] pool0 <- conv0
I0426 20:54:13.691336 32628 net.cpp:382] pool0 -> pool0
I0426 20:54:13.691395 32628 net.cpp:124] Setting up pool0
I0426 20:54:13.691402 32628 net.cpp:131] Top shape: 64 50 12 12 (460800)
I0426 20:54:13.691423 32628 net.cpp:139] Memory required for data: 9416960
I0426 20:54:13.691426 32628 layer_factory.hpp:77] Creating layer conv1
I0426 20:54:13.691437 32628 net.cpp:86] Creating Layer conv1
I0426 20:54:13.691440 32628 net.cpp:408] conv1 <- pool0
I0426 20:54:13.691447 32628 net.cpp:382] conv1 -> conv1
I0426 20:54:13.693812 32628 net.cpp:124] Setting up conv1
I0426 20:54:13.693842 32628 net.cpp:131] Top shape: 64 25 8 8 (102400)
I0426 20:54:13.693845 32628 net.cpp:139] Memory required for data: 9826560
I0426 20:54:13.693855 32628 layer_factory.hpp:77] Creating layer pool1
I0426 20:54:13.693861 32628 net.cpp:86] Creating Layer pool1
I0426 20:54:13.693864 32628 net.cpp:408] pool1 <- conv1
I0426 20:54:13.693886 32628 net.cpp:382] pool1 -> pool1
I0426 20:54:13.693922 32628 net.cpp:124] Setting up pool1
I0426 20:54:13.693928 32628 net.cpp:131] Top shape: 64 25 4 4 (25600)
I0426 20:54:13.693931 32628 net.cpp:139] Memory required for data: 9928960
I0426 20:54:13.693934 32628 layer_factory.hpp:77] Creating layer ip1
I0426 20:54:13.693941 32628 net.cpp:86] Creating Layer ip1
I0426 20:54:13.693944 32628 net.cpp:408] ip1 <- pool1
I0426 20:54:13.693949 32628 net.cpp:382] ip1 -> ip1
I0426 20:54:13.694084 32628 net.cpp:124] Setting up ip1
I0426 20:54:13.694092 32628 net.cpp:131] Top shape: 64 10 (640)
I0426 20:54:13.694108 32628 net.cpp:139] Memory required for data: 9931520
I0426 20:54:13.694114 32628 layer_factory.hpp:77] Creating layer relu1
I0426 20:54:13.694119 32628 net.cpp:86] Creating Layer relu1
I0426 20:54:13.694123 32628 net.cpp:408] relu1 <- ip1
I0426 20:54:13.694126 32628 net.cpp:369] relu1 -> ip1 (in-place)
I0426 20:54:13.694290 32628 net.cpp:124] Setting up relu1
I0426 20:54:13.694298 32628 net.cpp:131] Top shape: 64 10 (640)
I0426 20:54:13.694301 32628 net.cpp:139] Memory required for data: 9934080
I0426 20:54:13.694304 32628 layer_factory.hpp:77] Creating layer loss
I0426 20:54:13.694310 32628 net.cpp:86] Creating Layer loss
I0426 20:54:13.694314 32628 net.cpp:408] loss <- ip1
I0426 20:54:13.694317 32628 net.cpp:408] loss <- label
I0426 20:54:13.694322 32628 net.cpp:382] loss -> loss
I0426 20:54:13.694335 32628 layer_factory.hpp:77] Creating layer loss
…
I0426 20:54:13.695523 32628 solver.cpp:173] Creating test net (#0) specified by net file: ECE595/mnist/train_test/var_everything/lenet_train_test154.prototxt
I0426 20:54:13.695546 32628 net.cpp:296] The NetState phase (1) differed from the phase (0) specified by a rule in layer mnist
I0426 20:54:13.695616 32628 net.cpp:53] Initializing net from parameters: 
name: "LeNet"
state {
  phase: TEST
}
layer {
  name: "mnist"
  type: "Data"
  top: "data"
  top: "label"
  include {
    phase: TEST
  }
  transform_param {
    scale: 0.00390625
  }
  data_param {
    source: "examples/mnist/mnist_test_lmdb"
    batch_size: 100
    backend: LMDB
  }
}
layer {
  name: "conv0"
  type: "Convolution"
  bottom: "data"
  top: "conv0"
  param {
    lr_mult: 1
  }
  param {
    lr_mult: 2
  }
  convolution_param {
    num_output: 50
    kernel_size: 5
    stride: 1
    weight_filler {
      type: "xavier"
    }
    bias_filler {
      type: "constant"
    }
  }
}
layer {
  name: "pool0"
  type: "Pooling"
  bottom: "conv0"
  top: "pool0"
  pooling_param {
    pool: MAX
    kernel_size: 2
    stride: 2
  }
}
layer {
  name: "conv1"
  type: "Convolution"
  bottom: "pool0"
  top: "conv1"
  param {
    lr_mult: 1
  }
  param {
    lr_mult: 2
  }
  convolution_param {
    num_output: 25
    kernel_size: 5
    stride: 1
    weight_filler {
      type: "xavier"
    }
    bias_filler {
      type: "constant"
    }
  }
}
layer {
  name: "pool1"
  type: "Pooling"
  bottom: "conv1"
  top: "pool1"
  pooling_param {
    pool: MAX
    kernel_size: 2
    stride: 2
  }
}
layer {
  name: "ip1"
  type: "InnerProduct"
  bottom: "pool1"
  top: "ip1"
  param {
    lr_mult: 1
  }
  param {
    lr_mult: 2
  }
  inner_product_param {
    num_output: 10
    weight_filler {
      type: "xavier"
    }
    bias_filler {
      type: "constant"
    }
  }
}
layer {
  name: "relu1"
  type: "ReLU"
  bottom: "ip1"
  top: "ip1"
}
layer {
  name: "accuracy"
  type: "Accuracy"
  bottom: "ip1"
  bottom: "label"
  top: "accuracy"
  include {
    phase: TEST
  }
}
layer {
  name: "loss"
  type: "SoftmaxWithLoss"
  bottom: "ip1"
  bottom: "label"
  top: "loss"
}
I0426 20:54:13.695683 32628 layer_factory.hpp:77] Creating layer mnist
I0426 20:54:13.695724 32628 db_lmdb.cpp:35] Opened lmdb examples/mnist/mnist_test_lmdb
I0426 20:54:13.695736 32628 net.cpp:86] Creating Layer mnist
I0426 20:54:13.695741 32628 net.cpp:382] mnist -> data
I0426 20:54:13.695749 32628 net.cpp:382] mnist -> label
I0426 20:54:13.695829 32628 data_layer.cpp:45] output data size: 100,1,28,28
I0426 20:54:13.697803 32628 net.cpp:124] Setting up mnist
I0426 20:54:13.697815 32628 net.cpp:131] Top shape: 100 1 28 28 (78400)
I0426 20:54:13.697819 32628 net.cpp:131] Top shape: 100 (100)
I0426 20:54:13.697839 32628 net.cpp:139] Memory required for data: 314000
I0426 20:54:13.697841 32628 layer_factory.hpp:77] Creating layer label_mnist_1_split
I0426 20:54:13.697847 32628 net.cpp:86] Creating Layer label_mnist_1_split
I0426 20:54:13.697850 32628 net.cpp:408] label_mnist_1_split <- label
I0426 20:54:13.697888 32628 net.cpp:382] label_mnist_1_split -> label_mnist_1_split_0
I0426 20:54:13.697896 32628 net.cpp:382] label_mnist_1_split -> label_mnist_1_split_1
I0426 20:54:13.697943 32628 net.cpp:124] Setting up label_mnist_1_split
I0426 20:54:13.697952 32628 net.cpp:131] Top shape: 100 (100)
I0426 20:54:13.697955 32628 net.cpp:131] Top shape: 100 (100)
I0426 20:54:13.697958 32628 net.cpp:139] Memory required for data: 314800
I0426 20:54:13.697962 32628 layer_factory.hpp:77] Creating layer conv0
I0426 20:54:13.697969 32628 net.cpp:86] Creating Layer conv0
I0426 20:54:13.697973 32628 net.cpp:408] conv0 <- data
I0426 20:54:13.697978 32628 net.cpp:382] conv0 -> conv0
I0426 20:54:13.699008 32628 net.cpp:124] Setting up conv0
I0426 20:54:13.699019 32628 net.cpp:131] Top shape: 100 50 24 24 (2880000)
I0426 20:54:13.699038 32628 net.cpp:139] Memory required for data: 11834800
I0426 20:54:13.699046 32628 layer_factory.hpp:77] Creating layer pool0
I0426 20:54:13.699054 32628 net.cpp:86] Creating Layer pool0
I0426 20:54:13.699057 32628 net.cpp:408] pool0 <- conv0
I0426 20:54:13.699061 32628 net.cpp:382] pool0 -> pool0
I0426 20:54:13.699106 32628 net.cpp:124] Setting up pool0
I0426 20:54:13.699115 32628 net.cpp:131] Top shape: 100 50 12 12 (720000)
I0426 20:54:13.699116 32628 net.cpp:139] Memory required for data: 14714800
I0426 20:54:13.699120 32628 layer_factory.hpp:77] Creating layer conv1
I0426 20:54:13.699128 32628 net.cpp:86] Creating Layer conv1
I0426 20:54:13.699131 32628 net.cpp:408] conv1 <- pool0
I0426 20:54:13.699136 32628 net.cpp:382] conv1 -> conv1
I0426 20:54:13.700976 32628 net.cpp:124] Setting up conv1
I0426 20:54:13.701004 32628 net.cpp:131] Top shape: 100 25 8 8 (160000)
I0426 20:54:13.701023 32628 net.cpp:139] Memory required for data: 15354800
I0426 20:54:13.701031 32628 layer_factory.hpp:77] Creating layer pool1
I0426 20:54:13.701040 32628 net.cpp:86] Creating Layer pool1
I0426 20:54:13.701068 32628 net.cpp:408] pool1 <- conv1
I0426 20:54:13.701073 32628 net.cpp:382] pool1 -> pool1
I0426 20:54:13.701109 32628 net.cpp:124] Setting up pool1
I0426 20:54:13.701117 32628 net.cpp:131] Top shape: 100 25 4 4 (40000)
I0426 20:54:13.701120 32628 net.cpp:139] Memory required for data: 15514800
I0426 20:54:13.701123 32628 layer_factory.hpp:77] Creating layer ip1
I0426 20:54:13.701129 32628 net.cpp:86] Creating Layer ip1
I0426 20:54:13.701133 32628 net.cpp:408] ip1 <- pool1
I0426 20:54:13.701138 32628 net.cpp:382] ip1 -> ip1
I0426 20:54:13.701252 32628 net.cpp:124] Setting up ip1
I0426 20:54:13.701259 32628 net.cpp:131] Top shape: 100 10 (1000)
I0426 20:54:13.701263 32628 net.cpp:139] Memory required for data: 15518800
I0426 20:54:13.701270 32628 layer_factory.hpp:77] Creating layer relu1
I0426 20:54:13.701274 32628 net.cpp:86] Creating Layer relu1
I0426 20:54:13.701278 32628 net.cpp:408] relu1 <- ip1
I0426 20:54:13.701284 32628 net.cpp:369] relu1 -> ip1 (in-place)
I0426 20:54:13.702227 32628 net.cpp:124] Setting up relu1
I0426 20:54:13.702239 32628 net.cpp:131] Top shape: 100 10 (1000)
I0426 20:54:13.702256 32628 net.cpp:139] Memory required for data: 15522800
I0426 20:54:13.702260 32628 layer_factory.hpp:77] Creating layer ip1_relu1_0_split
I0426 20:54:13.702268 32628 net.cpp:86] Creating Layer ip1_relu1_0_split
I0426 20:54:13.702271 32628 net.cpp:408] ip1_relu1_0_split <- ip1
I0426 20:54:13.702276 32628 net.cpp:382] ip1_relu1_0_split -> ip1_relu1_0_split_0
I0426 20:54:13.702282 32628 net.cpp:382] ip1_relu1_0_split -> ip1_relu1_0_split_1
I0426 20:54:13.702332 32628 net.cpp:124] Setting up ip1_relu1_0_split
I0426 20:54:13.702338 32628 net.cpp:131] Top shape: 100 10 (1000)
I0426 20:54:13.702343 32628 net.cpp:131] Top shape: 100 10 (1000)
I0426 20:54:13.702345 32628 net.cpp:139] Memory required for data: 15530800
I0426 20:54:13.702349 32628 layer_factory.hpp:77] Creating layer accuracy
I0426 20:54:13.702354 32628 net.cpp:86] Creating Layer accuracy
I0426 20:54:13.702358 32628 net.cpp:408] accuracy <- ip1_relu1_0_split_0
I0426 20:54:13.702361 32628 net.cpp:408] accuracy <- label_mnist_1_split_0
I0426 20:54:13.702366 32628 net.cpp:382] accuracy -> accuracy
…
