…
I0426 20:54:10.686734 32620 net.cpp:296] The NetState phase (0) differed from the phase (1) specified by a rule in layer mnist
I0426 20:54:10.686764 32620 net.cpp:296] The NetState phase (0) differed from the phase (1) specified by a rule in layer accuracy
I0426 20:54:10.686870 32620 net.cpp:53] Initializing net from parameters: 
name: "LeNet"
state {
  phase: TRAIN
  level: 0
  stage: ""
}
layer {
  name: "mnist"
  type: "Data"
  top: "data"
  top: "label"
  include {
    phase: TRAIN
  }
  transform_param {
    scale: 0.00390625
  }
  data_param {
    source: "examples/mnist/mnist_train_lmdb"
    batch_size: 64
    backend: LMDB
  }
}
layer {
  name: "conv0"
  type: "Convolution"
  bottom: "data"
  top: "conv0"
  param {
    lr_mult: 1
  }
  param {
    lr_mult: 2
  }
  convolution_param {
    num_output: 50
    kernel_size: 5
    stride: 1
    weight_filler {
      type: "xavier"
    }
    bias_filler {
      type: "constant"
    }
  }
}
layer {
  name: "pool0"
  type: "Pooling"
  bottom: "conv0"
  top: "pool0"
  pooling_param {
    pool: MAX
    kernel_size: 2
    stride: 2
  }
}
layer {
  name: "conv1"
  type: "Convolution"
  bottom: "pool0"
  top: "conv1"
  param {
    lr_mult: 1
  }
  param {
    lr_mult: 2
  }
  convolution_param {
    num_output: 10
    kernel_size: 5
    stride: 1
    weight_filler {
      type: "xavier"
    }
    bias_filler {
      type: "constant"
    }
  }
}
layer {
  name: "pool1"
  type: "Pooling"
  bottom: "conv1"
  top: "pool1"
  pooling_param {
    pool: MAX
    kernel_size: 2
    stride: 2
  }
}
layer {
  name: "ip1"
  type: "InnerProduct"
  bottom: "pool1"
  top: "ip1"
  param {
    lr_mult: 1
  }
  param {
    lr_mult: 2
  }
  inner_product_param {
    num_output: 300
    weight_filler {
      type: "xavier"
    }
    bias_filler {
      type: "constant"
    }
  }
}
layer {
  name: "relu1"
  type: "ReLU"
  bottom: "ip1"
  top: "ip1"
}
layer {
  name: "ip2"
  type: "InnerProduct"
  bottom: "ip1"
  top: "ip2"
  param {
    lr_mult: 1
  }
  param {
    lr_mult: 2
  }
  inner_product_param {
    num_output: 300
    weight_filler {
      type: "xavier"
    }
    bias_filler {
      type: "constant"
    }
  }
}
layer {
  name: "relu2"
  type: "ReLU"
  bottom: "ip2"
  top: "ip2"
}
layer {
  name: "ip3"
  type: "InnerProduct"
  bottom: "ip2"
  top: "ip3"
  param {
    lr_mult: 1
  }
  param {
    lr_mult: 2
  }
  inner_product_param {
    num_output: 10
    weight_filler {
      type: "xavier"
    }
    bias_filler {
      type: "constant"
    }
  }
}
layer {
  name: "relu3"
  type: "ReLU"
  bottom: "ip3"
  top: "ip3"
}
layer {
  name: "loss"
  type: "SoftmaxWithLoss"
  bottom: "ip3"
  bottom: "label"
  top: "loss"
}
I0426 20:54:10.686933 32620 layer_factory.hpp:77] Creating layer mnist
I0426 20:54:10.687016 32620 db_lmdb.cpp:35] Opened lmdb examples/mnist/mnist_train_lmdb
I0426 20:54:10.687034 32620 net.cpp:86] Creating Layer mnist
I0426 20:54:10.687041 32620 net.cpp:382] mnist -> data
I0426 20:54:10.687074 32620 net.cpp:382] mnist -> label
I0426 20:54:10.688024 32620 data_layer.cpp:45] output data size: 64,1,28,28
I0426 20:54:10.690153 32620 net.cpp:124] Setting up mnist
I0426 20:54:10.690193 32620 net.cpp:131] Top shape: 64 1 28 28 (50176)
I0426 20:54:10.690199 32620 net.cpp:131] Top shape: 64 (64)
I0426 20:54:10.690202 32620 net.cpp:139] Memory required for data: 200960
I0426 20:54:10.690208 32620 layer_factory.hpp:77] Creating layer conv0
I0426 20:54:10.690220 32620 net.cpp:86] Creating Layer conv0
I0426 20:54:10.690253 32620 net.cpp:408] conv0 <- data
I0426 20:54:10.690263 32620 net.cpp:382] conv0 -> conv0
I0426 20:54:10.918300 32620 net.cpp:124] Setting up conv0
I0426 20:54:10.918329 32620 net.cpp:131] Top shape: 64 50 24 24 (1843200)
I0426 20:54:10.918332 32620 net.cpp:139] Memory required for data: 7573760
I0426 20:54:10.918346 32620 layer_factory.hpp:77] Creating layer pool0
I0426 20:54:10.918359 32620 net.cpp:86] Creating Layer pool0
I0426 20:54:10.918362 32620 net.cpp:408] pool0 <- conv0
I0426 20:54:10.918367 32620 net.cpp:382] pool0 -> pool0
I0426 20:54:10.918427 32620 net.cpp:124] Setting up pool0
I0426 20:54:10.918433 32620 net.cpp:131] Top shape: 64 50 12 12 (460800)
I0426 20:54:10.918436 32620 net.cpp:139] Memory required for data: 9416960
I0426 20:54:10.918438 32620 layer_factory.hpp:77] Creating layer conv1
I0426 20:54:10.918449 32620 net.cpp:86] Creating Layer conv1
I0426 20:54:10.918452 32620 net.cpp:408] conv1 <- pool0
I0426 20:54:10.918457 32620 net.cpp:382] conv1 -> conv1
I0426 20:54:10.921174 32620 net.cpp:124] Setting up conv1
I0426 20:54:10.921202 32620 net.cpp:131] Top shape: 64 10 8 8 (40960)
I0426 20:54:10.921206 32620 net.cpp:139] Memory required for data: 9580800
I0426 20:54:10.921214 32620 layer_factory.hpp:77] Creating layer pool1
I0426 20:54:10.921221 32620 net.cpp:86] Creating Layer pool1
I0426 20:54:10.921224 32620 net.cpp:408] pool1 <- conv1
I0426 20:54:10.921229 32620 net.cpp:382] pool1 -> pool1
I0426 20:54:10.921263 32620 net.cpp:124] Setting up pool1
I0426 20:54:10.921269 32620 net.cpp:131] Top shape: 64 10 4 4 (10240)
I0426 20:54:10.921272 32620 net.cpp:139] Memory required for data: 9621760
I0426 20:54:10.921275 32620 layer_factory.hpp:77] Creating layer ip1
I0426 20:54:10.921283 32620 net.cpp:86] Creating Layer ip1
I0426 20:54:10.921284 32620 net.cpp:408] ip1 <- pool1
I0426 20:54:10.921288 32620 net.cpp:382] ip1 -> ip1
I0426 20:54:10.921689 32620 net.cpp:124] Setting up ip1
I0426 20:54:10.921695 32620 net.cpp:131] Top shape: 64 300 (19200)
I0426 20:54:10.921713 32620 net.cpp:139] Memory required for data: 9698560
I0426 20:54:10.921720 32620 layer_factory.hpp:77] Creating layer relu1
I0426 20:54:10.921725 32620 net.cpp:86] Creating Layer relu1
I0426 20:54:10.921728 32620 net.cpp:408] relu1 <- ip1
I0426 20:54:10.921733 32620 net.cpp:369] relu1 -> ip1 (in-place)
I0426 20:54:10.921919 32620 net.cpp:124] Setting up relu1
I0426 20:54:10.921929 32620 net.cpp:131] Top shape: 64 300 (19200)
I0426 20:54:10.921932 32620 net.cpp:139] Memory required for data: 9775360
I0426 20:54:10.921936 32620 layer_factory.hpp:77] Creating layer ip2
I0426 20:54:10.921943 32620 net.cpp:86] Creating Layer ip2
I0426 20:54:10.921947 32620 net.cpp:408] ip2 <- ip1
I0426 20:54:10.921952 32620 net.cpp:382] ip2 -> ip2
I0426 20:54:10.923318 32620 net.cpp:124] Setting up ip2
I0426 20:54:10.923331 32620 net.cpp:131] Top shape: 64 300 (19200)
I0426 20:54:10.923351 32620 net.cpp:139] Memory required for data: 9852160
I0426 20:54:10.923355 32620 layer_factory.hpp:77] Creating layer relu2
I0426 20:54:10.923363 32620 net.cpp:86] Creating Layer relu2
I0426 20:54:10.923367 32620 net.cpp:408] relu2 <- ip2
I0426 20:54:10.923372 32620 net.cpp:369] relu2 -> ip2 (in-place)
I0426 20:54:10.924170 32620 net.cpp:124] Setting up relu2
I0426 20:54:10.924182 32620 net.cpp:131] Top shape: 64 300 (19200)
I0426 20:54:10.924201 32620 net.cpp:139] Memory required for data: 9928960
I0426 20:54:10.924204 32620 layer_factory.hpp:77] Creating layer ip3
I0426 20:54:10.924211 32620 net.cpp:86] Creating Layer ip3
I0426 20:54:10.924214 32620 net.cpp:408] ip3 <- ip2
I0426 20:54:10.924221 32620 net.cpp:382] ip3 -> ip3
I0426 20:54:10.924412 32620 net.cpp:124] Setting up ip3
I0426 20:54:10.924419 32620 net.cpp:131] Top shape: 64 10 (640)
I0426 20:54:10.924423 32620 net.cpp:139] Memory required for data: 9931520
I0426 20:54:10.924432 32620 layer_factory.hpp:77] Creating layer relu3
I0426 20:54:10.924438 32620 net.cpp:86] Creating Layer relu3
I0426 20:54:10.924441 32620 net.cpp:408] relu3 <- ip3
I0426 20:54:10.924445 32620 net.cpp:369] relu3 -> ip3 (in-place)
I0426 20:54:10.924671 32620 net.cpp:124] Setting up relu3
I0426 20:54:10.924680 32620 net.cpp:131] Top shape: 64 10 (640)
I0426 20:54:10.924684 32620 net.cpp:139] Memory required for data: 9934080
I0426 20:54:10.924686 32620 layer_factory.hpp:77] Creating layer loss
I0426 20:54:10.924693 32620 net.cpp:86] Creating Layer loss
I0426 20:54:10.924696 32620 net.cpp:408] loss <- ip3
I0426 20:54:10.924700 32620 net.cpp:408] loss <- label
I0426 20:54:10.924705 32620 net.cpp:382] loss -> loss
I0426 20:54:10.924721 32620 layer_factory.hpp:77] Creating layer loss
…
I0426 20:54:10.925526 32620 solver.cpp:173] Creating test net (#0) specified by net file: ECE595/mnist/train_test/var_everything/lenet_train_test153.prototxt
I0426 20:54:10.925573 32620 net.cpp:296] The NetState phase (1) differed from the phase (0) specified by a rule in layer mnist
I0426 20:54:10.925696 32620 net.cpp:53] Initializing net from parameters: 
name: "LeNet"
state {
  phase: TEST
}
layer {
  name: "mnist"
  type: "Data"
  top: "data"
  top: "label"
  include {
    phase: TEST
  }
  transform_param {
    scale: 0.00390625
  }
  data_param {
    source: "examples/mnist/mnist_test_lmdb"
    batch_size: 100
    backend: LMDB
  }
}
layer {
  name: "conv0"
  type: "Convolution"
  bottom: "data"
  top: "conv0"
  param {
    lr_mult: 1
  }
  param {
    lr_mult: 2
  }
  convolution_param {
    num_output: 50
    kernel_size: 5
    stride: 1
    weight_filler {
      type: "xavier"
    }
    bias_filler {
      type: "constant"
    }
  }
}
layer {
  name: "pool0"
  type: "Pooling"
  bottom: "conv0"
  top: "pool0"
  pooling_param {
    pool: MAX
    kernel_size: 2
    stride: 2
  }
}
layer {
  name: "conv1"
  type: "Convolution"
  bottom: "pool0"
  top: "conv1"
  param {
    lr_mult: 1
  }
  param {
    lr_mult: 2
  }
  convolution_param {
    num_output: 10
    kernel_size: 5
    stride: 1
    weight_filler {
      type: "xavier"
    }
    bias_filler {
      type: "constant"
    }
  }
}
layer {
  name: "pool1"
  type: "Pooling"
  bottom: "conv1"
  top: "pool1"
  pooling_param {
    pool: MAX
    kernel_size: 2
    stride: 2
  }
}
layer {
  name: "ip1"
  type: "InnerProduct"
  bottom: "pool1"
  top: "ip1"
  param {
    lr_mult: 1
  }
  param {
    lr_mult: 2
  }
  inner_product_param {
    num_output: 300
    weight_filler {
      type: "xavier"
    }
    bias_filler {
      type: "constant"
    }
  }
}
layer {
  name: "relu1"
  type: "ReLU"
  bottom: "ip1"
  top: "ip1"
}
layer {
  name: "ip2"
  type: "InnerProduct"
  bottom: "ip1"
  top: "ip2"
  param {
    lr_mult: 1
  }
  param {
    lr_mult: 2
  }
  inner_product_param {
    num_output: 300
    weight_filler {
      type: "xavier"
    }
    bias_filler {
      type: "constant"
    }
  }
}
layer {
  name: "relu2"
  type: "ReLU"
  bottom: "ip2"
  top: "ip2"
}
layer {
  name: "ip3"
  type: "InnerProduct"
  bottom: "ip2"
  top: "ip3"
  param {
    lr_mult: 1
  }
  param {
    lr_mult: 2
  }
  inner_product_param {
    num_output: 10
    weight_filler {
      type: "xavier"
    }
    bias_filler {
      type: "constant"
    }
  }
}
layer {
  name: "relu3"
  type: "ReLU"
  bottom: "ip3"
  top: "ip3"
}
layer {
  name: "accuracy"
  type: "Accuracy"
  bottom: "ip3"
  bottom: "label"
  top: "accuracy"
  include {
    phase: TEST
  }
}
layer {
  name: "loss"
  type: "SoftmaxWithLoss"
  bottom: "ip3"
  bottom: "label"
  top: "loss"
}
I0426 20:54:10.925776 32620 layer_factory.hpp:77] Creating layer mnist
I0426 20:54:10.925823 32620 db_lmdb.cpp:35] Opened lmdb examples/mnist/mnist_test_lmdb
I0426 20:54:10.925853 32620 net.cpp:86] Creating Layer mnist
I0426 20:54:10.925859 32620 net.cpp:382] mnist -> data
I0426 20:54:10.925866 32620 net.cpp:382] mnist -> label
I0426 20:54:10.925954 32620 data_layer.cpp:45] output data size: 100,1,28,28
I0426 20:54:10.927302 32620 net.cpp:124] Setting up mnist
I0426 20:54:10.927330 32620 net.cpp:131] Top shape: 100 1 28 28 (78400)
I0426 20:54:10.927335 32620 net.cpp:131] Top shape: 100 (100)
I0426 20:54:10.927338 32620 net.cpp:139] Memory required for data: 314000
I0426 20:54:10.927341 32620 layer_factory.hpp:77] Creating layer label_mnist_1_split
I0426 20:54:10.927361 32620 net.cpp:86] Creating Layer label_mnist_1_split
I0426 20:54:10.927366 32620 net.cpp:408] label_mnist_1_split <- label
I0426 20:54:10.927386 32620 net.cpp:382] label_mnist_1_split -> label_mnist_1_split_0
I0426 20:54:10.927394 32620 net.cpp:382] label_mnist_1_split -> label_mnist_1_split_1
I0426 20:54:10.927500 32620 net.cpp:124] Setting up label_mnist_1_split
I0426 20:54:10.927536 32620 net.cpp:131] Top shape: 100 (100)
I0426 20:54:10.927541 32620 net.cpp:131] Top shape: 100 (100)
I0426 20:54:10.927546 32620 net.cpp:139] Memory required for data: 314800
I0426 20:54:10.927548 32620 layer_factory.hpp:77] Creating layer conv0
I0426 20:54:10.927558 32620 net.cpp:86] Creating Layer conv0
I0426 20:54:10.927562 32620 net.cpp:408] conv0 <- data
I0426 20:54:10.927567 32620 net.cpp:382] conv0 -> conv0
I0426 20:54:10.929253 32620 net.cpp:124] Setting up conv0
I0426 20:54:10.929266 32620 net.cpp:131] Top shape: 100 50 24 24 (2880000)
I0426 20:54:10.929286 32620 net.cpp:139] Memory required for data: 11834800
I0426 20:54:10.929296 32620 layer_factory.hpp:77] Creating layer pool0
I0426 20:54:10.929302 32620 net.cpp:86] Creating Layer pool0
I0426 20:54:10.929306 32620 net.cpp:408] pool0 <- conv0
I0426 20:54:10.929311 32620 net.cpp:382] pool0 -> pool0
I0426 20:54:10.929361 32620 net.cpp:124] Setting up pool0
I0426 20:54:10.929368 32620 net.cpp:131] Top shape: 100 50 12 12 (720000)
I0426 20:54:10.929370 32620 net.cpp:139] Memory required for data: 14714800
I0426 20:54:10.929373 32620 layer_factory.hpp:77] Creating layer conv1
I0426 20:54:10.929383 32620 net.cpp:86] Creating Layer conv1
I0426 20:54:10.929385 32620 net.cpp:408] conv1 <- pool0
I0426 20:54:10.929390 32620 net.cpp:382] conv1 -> conv1
I0426 20:54:10.931020 32620 net.cpp:124] Setting up conv1
I0426 20:54:10.931047 32620 net.cpp:131] Top shape: 100 10 8 8 (64000)
I0426 20:54:10.931051 32620 net.cpp:139] Memory required for data: 14970800
I0426 20:54:10.931074 32620 layer_factory.hpp:77] Creating layer pool1
I0426 20:54:10.931082 32620 net.cpp:86] Creating Layer pool1
I0426 20:54:10.931084 32620 net.cpp:408] pool1 <- conv1
I0426 20:54:10.931089 32620 net.cpp:382] pool1 -> pool1
I0426 20:54:10.931139 32620 net.cpp:124] Setting up pool1
I0426 20:54:10.931145 32620 net.cpp:131] Top shape: 100 10 4 4 (16000)
I0426 20:54:10.931149 32620 net.cpp:139] Memory required for data: 15034800
I0426 20:54:10.931150 32620 layer_factory.hpp:77] Creating layer ip1
I0426 20:54:10.931159 32620 net.cpp:86] Creating Layer ip1
I0426 20:54:10.931164 32620 net.cpp:408] ip1 <- pool1
I0426 20:54:10.931169 32620 net.cpp:382] ip1 -> ip1
I0426 20:54:10.931556 32620 net.cpp:124] Setting up ip1
I0426 20:54:10.931565 32620 net.cpp:131] Top shape: 100 300 (30000)
I0426 20:54:10.931592 32620 net.cpp:139] Memory required for data: 15154800
I0426 20:54:10.931601 32620 layer_factory.hpp:77] Creating layer relu1
I0426 20:54:10.931612 32620 net.cpp:86] Creating Layer relu1
I0426 20:54:10.931614 32620 net.cpp:408] relu1 <- ip1
I0426 20:54:10.931618 32620 net.cpp:369] relu1 -> ip1 (in-place)
I0426 20:54:10.931802 32620 net.cpp:124] Setting up relu1
I0426 20:54:10.931812 32620 net.cpp:131] Top shape: 100 300 (30000)
I0426 20:54:10.931814 32620 net.cpp:139] Memory required for data: 15274800
I0426 20:54:10.931818 32620 layer_factory.hpp:77] Creating layer ip2
I0426 20:54:10.931824 32620 net.cpp:86] Creating Layer ip2
I0426 20:54:10.931828 32620 net.cpp:408] ip2 <- ip1
I0426 20:54:10.931833 32620 net.cpp:382] ip2 -> ip2
I0426 20:54:10.932487 32620 net.cpp:124] Setting up ip2
I0426 20:54:10.932495 32620 net.cpp:131] Top shape: 100 300 (30000)
I0426 20:54:10.932514 32620 net.cpp:139] Memory required for data: 15394800
I0426 20:54:10.932519 32620 layer_factory.hpp:77] Creating layer relu2
I0426 20:54:10.932523 32620 net.cpp:86] Creating Layer relu2
I0426 20:54:10.932528 32620 net.cpp:408] relu2 <- ip2
I0426 20:54:10.932533 32620 net.cpp:369] relu2 -> ip2 (in-place)
I0426 20:54:10.932703 32620 net.cpp:124] Setting up relu2
I0426 20:54:10.932711 32620 net.cpp:131] Top shape: 100 300 (30000)
I0426 20:54:10.932714 32620 net.cpp:139] Memory required for data: 15514800
I0426 20:54:10.932718 32620 layer_factory.hpp:77] Creating layer ip3
I0426 20:54:10.932724 32620 net.cpp:86] Creating Layer ip3
I0426 20:54:10.932727 32620 net.cpp:408] ip3 <- ip2
I0426 20:54:10.932732 32620 net.cpp:382] ip3 -> ip3
I0426 20:54:10.932895 32620 net.cpp:124] Setting up ip3
I0426 20:54:10.932904 32620 net.cpp:131] Top shape: 100 10 (1000)
I0426 20:54:10.932907 32620 net.cpp:139] Memory required for data: 15518800
I0426 20:54:10.932915 32620 layer_factory.hpp:77] Creating layer relu3
I0426 20:54:10.932919 32620 net.cpp:86] Creating Layer relu3
I0426 20:54:10.932924 32620 net.cpp:408] relu3 <- ip3
I0426 20:54:10.932929 32620 net.cpp:369] relu3 -> ip3 (in-place)
I0426 20:54:10.933840 32620 net.cpp:124] Setting up relu3
I0426 20:54:10.933851 32620 net.cpp:131] Top shape: 100 10 (1000)
I0426 20:54:10.933869 32620 net.cpp:139] Memory required for data: 15522800
I0426 20:54:10.933873 32620 layer_factory.hpp:77] Creating layer ip3_relu3_0_split
I0426 20:54:10.933879 32620 net.cpp:86] Creating Layer ip3_relu3_0_split
I0426 20:54:10.933882 32620 net.cpp:408] ip3_relu3_0_split <- ip3
I0426 20:54:10.933887 32620 net.cpp:382] ip3_relu3_0_split -> ip3_relu3_0_split_0
I0426 20:54:10.933894 32620 net.cpp:382] ip3_relu3_0_split -> ip3_relu3_0_split_1
I0426 20:54:10.933948 32620 net.cpp:124] Setting up ip3_relu3_0_split
I0426 20:54:10.933953 32620 net.cpp:131] Top shape: 100 10 (1000)
I0426 20:54:10.933956 32620 net.cpp:131] Top shape: 100 10 (1000)
I0426 20:54:10.933959 32620 net.cpp:139] Memory required for data: 15530800
I0426 20:54:10.933962 32620 layer_factory.hpp:77] Creating layer accuracy
I0426 20:54:10.933966 32620 net.cpp:86] Creating Layer accuracy
I0426 20:54:10.933969 32620 net.cpp:408] accuracy <- ip3_relu3_0_split_0
I0426 20:54:10.933974 32620 net.cpp:408] accuracy <- label_mnist_1_split_0
I0426 20:54:10.933979 32620 net.cpp:382] accuracy -> accuracy
…
