…
I0426 20:52:47.599514 32310 net.cpp:296] The NetState phase (0) differed from the phase (1) specified by a rule in layer mnist
I0426 20:52:47.599534 32310 net.cpp:296] The NetState phase (0) differed from the phase (1) specified by a rule in layer accuracy
I0426 20:52:47.599637 32310 net.cpp:53] Initializing net from parameters: 
name: "LeNet"
state {
  phase: TRAIN
  level: 0
  stage: ""
}
layer {
  name: "mnist"
  type: "Data"
  top: "data"
  top: "label"
  include {
    phase: TRAIN
  }
  transform_param {
    scale: 0.00390625
  }
  data_param {
    source: "examples/mnist/mnist_train_lmdb"
    batch_size: 64
    backend: LMDB
  }
}
layer {
  name: "conv0"
  type: "Convolution"
  bottom: "data"
  top: "conv0"
  param {
    lr_mult: 1
  }
  param {
    lr_mult: 2
  }
  convolution_param {
    num_output: 25
    kernel_size: 5
    stride: 1
    weight_filler {
      type: "xavier"
    }
    bias_filler {
      type: "constant"
    }
  }
}
layer {
  name: "pool0"
  type: "Pooling"
  bottom: "conv0"
  top: "pool0"
  pooling_param {
    pool: MAX
    kernel_size: 2
    stride: 2
  }
}
layer {
  name: "conv1"
  type: "Convolution"
  bottom: "pool0"
  top: "conv1"
  param {
    lr_mult: 1
  }
  param {
    lr_mult: 2
  }
  convolution_param {
    num_output: 25
    kernel_size: 5
    stride: 1
    weight_filler {
      type: "xavier"
    }
    bias_filler {
      type: "constant"
    }
  }
}
layer {
  name: "pool1"
  type: "Pooling"
  bottom: "conv1"
  top: "pool1"
  pooling_param {
    pool: MAX
    kernel_size: 2
    stride: 2
  }
}
layer {
  name: "ip1"
  type: "InnerProduct"
  bottom: "pool1"
  top: "ip1"
  param {
    lr_mult: 1
  }
  param {
    lr_mult: 2
  }
  inner_product_param {
    num_output: 100
    weight_filler {
      type: "xavier"
    }
    bias_filler {
      type: "constant"
    }
  }
}
layer {
  name: "relu1"
  type: "ReLU"
  bottom: "ip1"
  top: "ip1"
}
layer {
  name: "ip2"
  type: "InnerProduct"
  bottom: "ip1"
  top: "ip2"
  param {
    lr_mult: 1
  }
  param {
    lr_mult: 2
  }
  inner_product_param {
    num_output: 300
    weight_filler {
      type: "xavier"
    }
    bias_filler {
      type: "constant"
    }
  }
}
layer {
  name: "relu2"
  type: "ReLU"
  bottom: "ip2"
  top: "ip2"
}
layer {
  name: "ip3"
  type: "InnerProduct"
  bottom: "ip2"
  top: "ip3"
  param {
    lr_mult: 1
  }
  param {
    lr_mult: 2
  }
  inner_product_param {
    num_output: 10
    weight_filler {
      type: "xavier"
    }
    bias_filler {
      type: "constant"
    }
  }
}
layer {
  name: "relu3"
  type: "ReLU"
  bottom: "ip3"
  top: "ip3"
}
layer {
  name: "loss"
  type: "SoftmaxWithLoss"
  bottom: "ip3"
  bottom: "label"
  top: "loss"
}
I0426 20:52:47.599714 32310 layer_factory.hpp:77] Creating layer mnist
I0426 20:52:47.599814 32310 db_lmdb.cpp:35] Opened lmdb examples/mnist/mnist_train_lmdb
I0426 20:52:47.599838 32310 net.cpp:86] Creating Layer mnist
I0426 20:52:47.599844 32310 net.cpp:382] mnist -> data
I0426 20:52:47.599867 32310 net.cpp:382] mnist -> label
I0426 20:52:47.600929 32310 data_layer.cpp:45] output data size: 64,1,28,28
I0426 20:52:47.603603 32310 net.cpp:124] Setting up mnist
I0426 20:52:47.603622 32310 net.cpp:131] Top shape: 64 1 28 28 (50176)
I0426 20:52:47.603628 32310 net.cpp:131] Top shape: 64 (64)
I0426 20:52:47.603632 32310 net.cpp:139] Memory required for data: 200960
I0426 20:52:47.603639 32310 layer_factory.hpp:77] Creating layer conv0
I0426 20:52:47.603673 32310 net.cpp:86] Creating Layer conv0
I0426 20:52:47.603694 32310 net.cpp:408] conv0 <- data
I0426 20:52:47.603706 32310 net.cpp:382] conv0 -> conv0
I0426 20:52:47.891793 32310 net.cpp:124] Setting up conv0
I0426 20:52:47.891822 32310 net.cpp:131] Top shape: 64 25 24 24 (921600)
I0426 20:52:47.891829 32310 net.cpp:139] Memory required for data: 3887360
I0426 20:52:47.891844 32310 layer_factory.hpp:77] Creating layer pool0
I0426 20:52:47.891860 32310 net.cpp:86] Creating Layer pool0
I0426 20:52:47.891865 32310 net.cpp:408] pool0 <- conv0
I0426 20:52:47.891871 32310 net.cpp:382] pool0 -> pool0
I0426 20:52:47.891921 32310 net.cpp:124] Setting up pool0
I0426 20:52:47.891927 32310 net.cpp:131] Top shape: 64 25 12 12 (230400)
I0426 20:52:47.891932 32310 net.cpp:139] Memory required for data: 4808960
I0426 20:52:47.891934 32310 layer_factory.hpp:77] Creating layer conv1
I0426 20:52:47.891947 32310 net.cpp:86] Creating Layer conv1
I0426 20:52:47.891952 32310 net.cpp:408] conv1 <- pool0
I0426 20:52:47.891957 32310 net.cpp:382] conv1 -> conv1
I0426 20:52:47.895186 32310 net.cpp:124] Setting up conv1
I0426 20:52:47.895203 32310 net.cpp:131] Top shape: 64 25 8 8 (102400)
I0426 20:52:47.895208 32310 net.cpp:139] Memory required for data: 5218560
I0426 20:52:47.895217 32310 layer_factory.hpp:77] Creating layer pool1
I0426 20:52:47.895226 32310 net.cpp:86] Creating Layer pool1
I0426 20:52:47.895231 32310 net.cpp:408] pool1 <- conv1
I0426 20:52:47.895237 32310 net.cpp:382] pool1 -> pool1
I0426 20:52:47.895279 32310 net.cpp:124] Setting up pool1
I0426 20:52:47.895285 32310 net.cpp:131] Top shape: 64 25 4 4 (25600)
I0426 20:52:47.895288 32310 net.cpp:139] Memory required for data: 5320960
I0426 20:52:47.895292 32310 layer_factory.hpp:77] Creating layer ip1
I0426 20:52:47.895299 32310 net.cpp:86] Creating Layer ip1
I0426 20:52:47.895303 32310 net.cpp:408] ip1 <- pool1
I0426 20:52:47.895308 32310 net.cpp:382] ip1 -> ip1
I0426 20:52:47.895675 32310 net.cpp:124] Setting up ip1
I0426 20:52:47.895684 32310 net.cpp:131] Top shape: 64 100 (6400)
I0426 20:52:47.895687 32310 net.cpp:139] Memory required for data: 5346560
I0426 20:52:47.895696 32310 layer_factory.hpp:77] Creating layer relu1
I0426 20:52:47.895701 32310 net.cpp:86] Creating Layer relu1
I0426 20:52:47.895705 32310 net.cpp:408] relu1 <- ip1
I0426 20:52:47.895710 32310 net.cpp:369] relu1 -> ip1 (in-place)
I0426 20:52:47.895898 32310 net.cpp:124] Setting up relu1
I0426 20:52:47.895908 32310 net.cpp:131] Top shape: 64 100 (6400)
I0426 20:52:47.895912 32310 net.cpp:139] Memory required for data: 5372160
I0426 20:52:47.895916 32310 layer_factory.hpp:77] Creating layer ip2
I0426 20:52:47.895923 32310 net.cpp:86] Creating Layer ip2
I0426 20:52:47.895927 32310 net.cpp:408] ip2 <- ip1
I0426 20:52:47.895932 32310 net.cpp:382] ip2 -> ip2
I0426 20:52:47.896240 32310 net.cpp:124] Setting up ip2
I0426 20:52:47.896248 32310 net.cpp:131] Top shape: 64 300 (19200)
I0426 20:52:47.896252 32310 net.cpp:139] Memory required for data: 5448960
I0426 20:52:47.896258 32310 layer_factory.hpp:77] Creating layer relu2
I0426 20:52:47.896265 32310 net.cpp:86] Creating Layer relu2
I0426 20:52:47.896268 32310 net.cpp:408] relu2 <- ip2
I0426 20:52:47.896273 32310 net.cpp:369] relu2 -> ip2 (in-place)
I0426 20:52:47.897179 32310 net.cpp:124] Setting up relu2
I0426 20:52:47.897194 32310 net.cpp:131] Top shape: 64 300 (19200)
I0426 20:52:47.897198 32310 net.cpp:139] Memory required for data: 5525760
I0426 20:52:47.897202 32310 layer_factory.hpp:77] Creating layer ip3
I0426 20:52:47.897209 32310 net.cpp:86] Creating Layer ip3
I0426 20:52:47.897213 32310 net.cpp:408] ip3 <- ip2
I0426 20:52:47.897219 32310 net.cpp:382] ip3 -> ip3
I0426 20:52:47.898239 32310 net.cpp:124] Setting up ip3
I0426 20:52:47.898253 32310 net.cpp:131] Top shape: 64 10 (640)
I0426 20:52:47.898257 32310 net.cpp:139] Memory required for data: 5528320
I0426 20:52:47.898267 32310 layer_factory.hpp:77] Creating layer relu3
I0426 20:52:47.898272 32310 net.cpp:86] Creating Layer relu3
I0426 20:52:47.898277 32310 net.cpp:408] relu3 <- ip3
I0426 20:52:47.898284 32310 net.cpp:369] relu3 -> ip3 (in-place)
I0426 20:52:47.898483 32310 net.cpp:124] Setting up relu3
I0426 20:52:47.898494 32310 net.cpp:131] Top shape: 64 10 (640)
I0426 20:52:47.898497 32310 net.cpp:139] Memory required for data: 5530880
I0426 20:52:47.898500 32310 layer_factory.hpp:77] Creating layer loss
I0426 20:52:47.898509 32310 net.cpp:86] Creating Layer loss
I0426 20:52:47.898511 32310 net.cpp:408] loss <- ip3
I0426 20:52:47.898516 32310 net.cpp:408] loss <- label
I0426 20:52:47.898522 32310 net.cpp:382] loss -> loss
I0426 20:52:47.898540 32310 layer_factory.hpp:77] Creating layer loss
…
I0426 20:52:47.899245 32310 solver.cpp:173] Creating test net (#0) specified by net file: ECE595/mnist/train_test/var_everything/lenet_train_test121.prototxt
I0426 20:52:47.899272 32310 net.cpp:296] The NetState phase (1) differed from the phase (0) specified by a rule in layer mnist
I0426 20:52:47.899376 32310 net.cpp:53] Initializing net from parameters: 
name: "LeNet"
state {
  phase: TEST
}
layer {
  name: "mnist"
  type: "Data"
  top: "data"
  top: "label"
  include {
    phase: TEST
  }
  transform_param {
    scale: 0.00390625
  }
  data_param {
    source: "examples/mnist/mnist_test_lmdb"
    batch_size: 100
    backend: LMDB
  }
}
layer {
  name: "conv0"
  type: "Convolution"
  bottom: "data"
  top: "conv0"
  param {
    lr_mult: 1
  }
  param {
    lr_mult: 2
  }
  convolution_param {
    num_output: 25
    kernel_size: 5
    stride: 1
    weight_filler {
      type: "xavier"
    }
    bias_filler {
      type: "constant"
    }
  }
}
layer {
  name: "pool0"
  type: "Pooling"
  bottom: "conv0"
  top: "pool0"
  pooling_param {
    pool: MAX
    kernel_size: 2
    stride: 2
  }
}
layer {
  name: "conv1"
  type: "Convolution"
  bottom: "pool0"
  top: "conv1"
  param {
    lr_mult: 1
  }
  param {
    lr_mult: 2
  }
  convolution_param {
    num_output: 25
    kernel_size: 5
    stride: 1
    weight_filler {
      type: "xavier"
    }
    bias_filler {
      type: "constant"
    }
  }
}
layer {
  name: "pool1"
  type: "Pooling"
  bottom: "conv1"
  top: "pool1"
  pooling_param {
    pool: MAX
    kernel_size: 2
    stride: 2
  }
}
layer {
  name: "ip1"
  type: "InnerProduct"
  bottom: "pool1"
  top: "ip1"
  param {
    lr_mult: 1
  }
  param {
    lr_mult: 2
  }
  inner_product_param {
    num_output: 100
    weight_filler {
      type: "xavier"
    }
    bias_filler {
      type: "constant"
    }
  }
}
layer {
  name: "relu1"
  type: "ReLU"
  bottom: "ip1"
  top: "ip1"
}
layer {
  name: "ip2"
  type: "InnerProduct"
  bottom: "ip1"
  top: "ip2"
  param {
    lr_mult: 1
  }
  param {
    lr_mult: 2
  }
  inner_product_param {
    num_output: 300
    weight_filler {
      type: "xavier"
    }
    bias_filler {
      type: "constant"
    }
  }
}
layer {
  name: "relu2"
  type: "ReLU"
  bottom: "ip2"
  top: "ip2"
}
layer {
  name: "ip3"
  type: "InnerProduct"
  bottom: "ip2"
  top: "ip3"
  param {
    lr_mult: 1
  }
  param {
    lr_mult: 2
  }
  inner_product_param {
    num_output: 10
    weight_filler {
      type: "xavier"
    }
    bias_filler {
      type: "constant"
    }
  }
}
layer {
  name: "relu3"
  type: "ReLU"
  bottom: "ip3"
  top: "ip3"
}
layer {
  name: "accuracy"
  type: "Accuracy"
  bottom: "ip3"
  bottom: "label"
  top: "accuracy"
  include {
    phase: TEST
  }
}
layer {
  name: "loss"
  type: "SoftmaxWithLoss"
  bottom: "ip3"
  bottom: "label"
  top: "loss"
}
I0426 20:52:47.899466 32310 layer_factory.hpp:77] Creating layer mnist
I0426 20:52:47.899513 32310 db_lmdb.cpp:35] Opened lmdb examples/mnist/mnist_test_lmdb
I0426 20:52:47.899525 32310 net.cpp:86] Creating Layer mnist
I0426 20:52:47.899533 32310 net.cpp:382] mnist -> data
I0426 20:52:47.899540 32310 net.cpp:382] mnist -> label
I0426 20:52:47.899636 32310 data_layer.cpp:45] output data size: 100,1,28,28
I0426 20:52:47.901744 32310 net.cpp:124] Setting up mnist
I0426 20:52:47.901759 32310 net.cpp:131] Top shape: 100 1 28 28 (78400)
I0426 20:52:47.901764 32310 net.cpp:131] Top shape: 100 (100)
I0426 20:52:47.901767 32310 net.cpp:139] Memory required for data: 314000
I0426 20:52:47.901772 32310 layer_factory.hpp:77] Creating layer label_mnist_1_split
I0426 20:52:47.901779 32310 net.cpp:86] Creating Layer label_mnist_1_split
I0426 20:52:47.901785 32310 net.cpp:408] label_mnist_1_split <- label
I0426 20:52:47.901790 32310 net.cpp:382] label_mnist_1_split -> label_mnist_1_split_0
I0426 20:52:47.901798 32310 net.cpp:382] label_mnist_1_split -> label_mnist_1_split_1
I0426 20:52:47.901841 32310 net.cpp:124] Setting up label_mnist_1_split
I0426 20:52:47.901846 32310 net.cpp:131] Top shape: 100 (100)
I0426 20:52:47.901850 32310 net.cpp:131] Top shape: 100 (100)
I0426 20:52:47.901854 32310 net.cpp:139] Memory required for data: 314800
I0426 20:52:47.901857 32310 layer_factory.hpp:77] Creating layer conv0
I0426 20:52:47.901867 32310 net.cpp:86] Creating Layer conv0
I0426 20:52:47.901870 32310 net.cpp:408] conv0 <- data
I0426 20:52:47.901877 32310 net.cpp:382] conv0 -> conv0
I0426 20:52:47.903856 32310 net.cpp:124] Setting up conv0
I0426 20:52:47.903870 32310 net.cpp:131] Top shape: 100 25 24 24 (1440000)
I0426 20:52:47.903874 32310 net.cpp:139] Memory required for data: 6074800
I0426 20:52:47.903884 32310 layer_factory.hpp:77] Creating layer pool0
I0426 20:52:47.903892 32310 net.cpp:86] Creating Layer pool0
I0426 20:52:47.903897 32310 net.cpp:408] pool0 <- conv0
I0426 20:52:47.903901 32310 net.cpp:382] pool0 -> pool0
I0426 20:52:47.903944 32310 net.cpp:124] Setting up pool0
I0426 20:52:47.903949 32310 net.cpp:131] Top shape: 100 25 12 12 (360000)
I0426 20:52:47.903951 32310 net.cpp:139] Memory required for data: 7514800
I0426 20:52:47.903954 32310 layer_factory.hpp:77] Creating layer conv1
I0426 20:52:47.903964 32310 net.cpp:86] Creating Layer conv1
I0426 20:52:47.903967 32310 net.cpp:408] conv1 <- pool0
I0426 20:52:47.903975 32310 net.cpp:382] conv1 -> conv1
I0426 20:52:47.906483 32310 net.cpp:124] Setting up conv1
I0426 20:52:47.906499 32310 net.cpp:131] Top shape: 100 25 8 8 (160000)
I0426 20:52:47.906504 32310 net.cpp:139] Memory required for data: 8154800
I0426 20:52:47.906513 32310 layer_factory.hpp:77] Creating layer pool1
I0426 20:52:47.906520 32310 net.cpp:86] Creating Layer pool1
I0426 20:52:47.906524 32310 net.cpp:408] pool1 <- conv1
I0426 20:52:47.906530 32310 net.cpp:382] pool1 -> pool1
I0426 20:52:47.906586 32310 net.cpp:124] Setting up pool1
I0426 20:52:47.906594 32310 net.cpp:131] Top shape: 100 25 4 4 (40000)
I0426 20:52:47.906597 32310 net.cpp:139] Memory required for data: 8314800
I0426 20:52:47.906600 32310 layer_factory.hpp:77] Creating layer ip1
I0426 20:52:47.906608 32310 net.cpp:86] Creating Layer ip1
I0426 20:52:47.906611 32310 net.cpp:408] ip1 <- pool1
I0426 20:52:47.906616 32310 net.cpp:382] ip1 -> ip1
I0426 20:52:47.906985 32310 net.cpp:124] Setting up ip1
I0426 20:52:47.906994 32310 net.cpp:131] Top shape: 100 100 (10000)
I0426 20:52:47.907009 32310 net.cpp:139] Memory required for data: 8354800
I0426 20:52:47.907017 32310 layer_factory.hpp:77] Creating layer relu1
I0426 20:52:47.907025 32310 net.cpp:86] Creating Layer relu1
I0426 20:52:47.907029 32310 net.cpp:408] relu1 <- ip1
I0426 20:52:47.907034 32310 net.cpp:369] relu1 -> ip1 (in-place)
I0426 20:52:47.907227 32310 net.cpp:124] Setting up relu1
I0426 20:52:47.907238 32310 net.cpp:131] Top shape: 100 100 (10000)
I0426 20:52:47.907243 32310 net.cpp:139] Memory required for data: 8394800
I0426 20:52:47.907245 32310 layer_factory.hpp:77] Creating layer ip2
I0426 20:52:47.907253 32310 net.cpp:86] Creating Layer ip2
I0426 20:52:47.907256 32310 net.cpp:408] ip2 <- ip1
I0426 20:52:47.907263 32310 net.cpp:382] ip2 -> ip2
I0426 20:52:47.907575 32310 net.cpp:124] Setting up ip2
I0426 20:52:47.907583 32310 net.cpp:131] Top shape: 100 300 (30000)
I0426 20:52:47.907587 32310 net.cpp:139] Memory required for data: 8514800
I0426 20:52:47.907591 32310 layer_factory.hpp:77] Creating layer relu2
I0426 20:52:47.907598 32310 net.cpp:86] Creating Layer relu2
I0426 20:52:47.907601 32310 net.cpp:408] relu2 <- ip2
I0426 20:52:47.907605 32310 net.cpp:369] relu2 -> ip2 (in-place)
I0426 20:52:47.907817 32310 net.cpp:124] Setting up relu2
I0426 20:52:47.907827 32310 net.cpp:131] Top shape: 100 300 (30000)
I0426 20:52:47.907830 32310 net.cpp:139] Memory required for data: 8634800
I0426 20:52:47.907835 32310 layer_factory.hpp:77] Creating layer ip3
I0426 20:52:47.907841 32310 net.cpp:86] Creating Layer ip3
I0426 20:52:47.907845 32310 net.cpp:408] ip3 <- ip2
I0426 20:52:47.907851 32310 net.cpp:382] ip3 -> ip3
I0426 20:52:47.907999 32310 net.cpp:124] Setting up ip3
I0426 20:52:47.908006 32310 net.cpp:131] Top shape: 100 10 (1000)
I0426 20:52:47.908010 32310 net.cpp:139] Memory required for data: 8638800
I0426 20:52:47.908018 32310 layer_factory.hpp:77] Creating layer relu3
I0426 20:52:47.908023 32310 net.cpp:86] Creating Layer relu3
I0426 20:52:47.908027 32310 net.cpp:408] relu3 <- ip3
I0426 20:52:47.908032 32310 net.cpp:369] relu3 -> ip3 (in-place)
I0426 20:52:47.908978 32310 net.cpp:124] Setting up relu3
I0426 20:52:47.908991 32310 net.cpp:131] Top shape: 100 10 (1000)
I0426 20:52:47.908995 32310 net.cpp:139] Memory required for data: 8642800
I0426 20:52:47.908998 32310 layer_factory.hpp:77] Creating layer ip3_relu3_0_split
I0426 20:52:47.909004 32310 net.cpp:86] Creating Layer ip3_relu3_0_split
I0426 20:52:47.909008 32310 net.cpp:408] ip3_relu3_0_split <- ip3
I0426 20:52:47.909014 32310 net.cpp:382] ip3_relu3_0_split -> ip3_relu3_0_split_0
I0426 20:52:47.909021 32310 net.cpp:382] ip3_relu3_0_split -> ip3_relu3_0_split_1
I0426 20:52:47.909062 32310 net.cpp:124] Setting up ip3_relu3_0_split
I0426 20:52:47.909070 32310 net.cpp:131] Top shape: 100 10 (1000)
I0426 20:52:47.909075 32310 net.cpp:131] Top shape: 100 10 (1000)
I0426 20:52:47.909077 32310 net.cpp:139] Memory required for data: 8650800
I0426 20:52:47.909081 32310 layer_factory.hpp:77] Creating layer accuracy
I0426 20:52:47.909087 32310 net.cpp:86] Creating Layer accuracy
I0426 20:52:47.909090 32310 net.cpp:408] accuracy <- ip3_relu3_0_split_0
I0426 20:52:47.909096 32310 net.cpp:408] accuracy <- label_mnist_1_split_0
I0426 20:52:47.909101 32310 net.cpp:382] accuracy -> accuracy
…
