…
I0426 20:53:59.514585 32586 net.cpp:296] The NetState phase (0) differed from the phase (1) specified by a rule in layer mnist
I0426 20:53:59.514602 32586 net.cpp:296] The NetState phase (0) differed from the phase (1) specified by a rule in layer accuracy
I0426 20:53:59.514704 32586 net.cpp:53] Initializing net from parameters: 
name: "LeNet"
state {
  phase: TRAIN
  level: 0
  stage: ""
}
layer {
  name: "mnist"
  type: "Data"
  top: "data"
  top: "label"
  include {
    phase: TRAIN
  }
  transform_param {
    scale: 0.00390625
  }
  data_param {
    source: "examples/mnist/mnist_train_lmdb"
    batch_size: 64
    backend: LMDB
  }
}
layer {
  name: "conv0"
  type: "Convolution"
  bottom: "data"
  top: "conv0"
  param {
    lr_mult: 1
  }
  param {
    lr_mult: 2
  }
  convolution_param {
    num_output: 50
    kernel_size: 5
    stride: 1
    weight_filler {
      type: "xavier"
    }
    bias_filler {
      type: "constant"
    }
  }
}
layer {
  name: "pool0"
  type: "Pooling"
  bottom: "conv0"
  top: "pool0"
  pooling_param {
    pool: MAX
    kernel_size: 2
    stride: 2
  }
}
layer {
  name: "conv1"
  type: "Convolution"
  bottom: "pool0"
  top: "conv1"
  param {
    lr_mult: 1
  }
  param {
    lr_mult: 2
  }
  convolution_param {
    num_output: 10
    kernel_size: 5
    stride: 1
    weight_filler {
      type: "xavier"
    }
    bias_filler {
      type: "constant"
    }
  }
}
layer {
  name: "pool1"
  type: "Pooling"
  bottom: "conv1"
  top: "pool1"
  pooling_param {
    pool: MAX
    kernel_size: 2
    stride: 2
  }
}
layer {
  name: "ip1"
  type: "InnerProduct"
  bottom: "pool1"
  top: "ip1"
  param {
    lr_mult: 1
  }
  param {
    lr_mult: 2
  }
  inner_product_param {
    num_output: 100
    weight_filler {
      type: "xavier"
    }
    bias_filler {
      type: "constant"
    }
  }
}
layer {
  name: "relu1"
  type: "ReLU"
  bottom: "ip1"
  top: "ip1"
}
layer {
  name: "ip2"
  type: "InnerProduct"
  bottom: "ip1"
  top: "ip2"
  param {
    lr_mult: 1
  }
  param {
    lr_mult: 2
  }
  inner_product_param {
    num_output: 300
    weight_filler {
      type: "xavier"
    }
    bias_filler {
      type: "constant"
    }
  }
}
layer {
  name: "relu2"
  type: "ReLU"
  bottom: "ip2"
  top: "ip2"
}
layer {
  name: "ip3"
  type: "InnerProduct"
  bottom: "ip2"
  top: "ip3"
  param {
    lr_mult: 1
  }
  param {
    lr_mult: 2
  }
  inner_product_param {
    num_output: 10
    weight_filler {
      type: "xavier"
    }
    bias_filler {
      type: "constant"
    }
  }
}
layer {
  name: "relu3"
  type: "ReLU"
  bottom: "ip3"
  top: "ip3"
}
layer {
  name: "loss"
  type: "SoftmaxWithLoss"
  bottom: "ip3"
  bottom: "label"
  top: "loss"
}
I0426 20:53:59.514785 32586 layer_factory.hpp:77] Creating layer mnist
I0426 20:53:59.514883 32586 db_lmdb.cpp:35] Opened lmdb examples/mnist/mnist_train_lmdb
I0426 20:53:59.514907 32586 net.cpp:86] Creating Layer mnist
I0426 20:53:59.514916 32586 net.cpp:382] mnist -> data
I0426 20:53:59.514937 32586 net.cpp:382] mnist -> label
I0426 20:53:59.516026 32586 data_layer.cpp:45] output data size: 64,1,28,28
I0426 20:53:59.518581 32586 net.cpp:124] Setting up mnist
I0426 20:53:59.518599 32586 net.cpp:131] Top shape: 64 1 28 28 (50176)
I0426 20:53:59.518605 32586 net.cpp:131] Top shape: 64 (64)
I0426 20:53:59.518610 32586 net.cpp:139] Memory required for data: 200960
I0426 20:53:59.518616 32586 layer_factory.hpp:77] Creating layer conv0
I0426 20:53:59.518636 32586 net.cpp:86] Creating Layer conv0
I0426 20:53:59.518657 32586 net.cpp:408] conv0 <- data
I0426 20:53:59.518669 32586 net.cpp:382] conv0 -> conv0
I0426 20:53:59.798204 32586 net.cpp:124] Setting up conv0
I0426 20:53:59.798229 32586 net.cpp:131] Top shape: 64 50 24 24 (1843200)
I0426 20:53:59.798233 32586 net.cpp:139] Memory required for data: 7573760
I0426 20:53:59.798249 32586 layer_factory.hpp:77] Creating layer pool0
I0426 20:53:59.798260 32586 net.cpp:86] Creating Layer pool0
I0426 20:53:59.798264 32586 net.cpp:408] pool0 <- conv0
I0426 20:53:59.798269 32586 net.cpp:382] pool0 -> pool0
I0426 20:53:59.798315 32586 net.cpp:124] Setting up pool0
I0426 20:53:59.798319 32586 net.cpp:131] Top shape: 64 50 12 12 (460800)
I0426 20:53:59.798322 32586 net.cpp:139] Memory required for data: 9416960
I0426 20:53:59.798326 32586 layer_factory.hpp:77] Creating layer conv1
I0426 20:53:59.798336 32586 net.cpp:86] Creating Layer conv1
I0426 20:53:59.798338 32586 net.cpp:408] conv1 <- pool0
I0426 20:53:59.798343 32586 net.cpp:382] conv1 -> conv1
I0426 20:53:59.801054 32586 net.cpp:124] Setting up conv1
I0426 20:53:59.801067 32586 net.cpp:131] Top shape: 64 10 8 8 (40960)
I0426 20:53:59.801071 32586 net.cpp:139] Memory required for data: 9580800
I0426 20:53:59.801080 32586 layer_factory.hpp:77] Creating layer pool1
I0426 20:53:59.801087 32586 net.cpp:86] Creating Layer pool1
I0426 20:53:59.801090 32586 net.cpp:408] pool1 <- conv1
I0426 20:53:59.801095 32586 net.cpp:382] pool1 -> pool1
I0426 20:53:59.801129 32586 net.cpp:124] Setting up pool1
I0426 20:53:59.801134 32586 net.cpp:131] Top shape: 64 10 4 4 (10240)
I0426 20:53:59.801137 32586 net.cpp:139] Memory required for data: 9621760
I0426 20:53:59.801141 32586 layer_factory.hpp:77] Creating layer ip1
I0426 20:53:59.801147 32586 net.cpp:86] Creating Layer ip1
I0426 20:53:59.801149 32586 net.cpp:408] ip1 <- pool1
I0426 20:53:59.801154 32586 net.cpp:382] ip1 -> ip1
I0426 20:53:59.801332 32586 net.cpp:124] Setting up ip1
I0426 20:53:59.801339 32586 net.cpp:131] Top shape: 64 100 (6400)
I0426 20:53:59.801342 32586 net.cpp:139] Memory required for data: 9647360
I0426 20:53:59.801349 32586 layer_factory.hpp:77] Creating layer relu1
I0426 20:53:59.801354 32586 net.cpp:86] Creating Layer relu1
I0426 20:53:59.801357 32586 net.cpp:408] relu1 <- ip1
I0426 20:53:59.801362 32586 net.cpp:369] relu1 -> ip1 (in-place)
I0426 20:53:59.801517 32586 net.cpp:124] Setting up relu1
I0426 20:53:59.801524 32586 net.cpp:131] Top shape: 64 100 (6400)
I0426 20:53:59.801527 32586 net.cpp:139] Memory required for data: 9672960
I0426 20:53:59.801530 32586 layer_factory.hpp:77] Creating layer ip2
I0426 20:53:59.801537 32586 net.cpp:86] Creating Layer ip2
I0426 20:53:59.801539 32586 net.cpp:408] ip2 <- ip1
I0426 20:53:59.801544 32586 net.cpp:382] ip2 -> ip2
I0426 20:53:59.801797 32586 net.cpp:124] Setting up ip2
I0426 20:53:59.801805 32586 net.cpp:131] Top shape: 64 300 (19200)
I0426 20:53:59.801808 32586 net.cpp:139] Memory required for data: 9749760
I0426 20:53:59.801813 32586 layer_factory.hpp:77] Creating layer relu2
I0426 20:53:59.801818 32586 net.cpp:86] Creating Layer relu2
I0426 20:53:59.801821 32586 net.cpp:408] relu2 <- ip2
I0426 20:53:59.801826 32586 net.cpp:369] relu2 -> ip2 (in-place)
I0426 20:53:59.802620 32586 net.cpp:124] Setting up relu2
I0426 20:53:59.802633 32586 net.cpp:131] Top shape: 64 300 (19200)
I0426 20:53:59.802635 32586 net.cpp:139] Memory required for data: 9826560
I0426 20:53:59.802639 32586 layer_factory.hpp:77] Creating layer ip3
I0426 20:53:59.802645 32586 net.cpp:86] Creating Layer ip3
I0426 20:53:59.802649 32586 net.cpp:408] ip3 <- ip2
I0426 20:53:59.802654 32586 net.cpp:382] ip3 -> ip3
I0426 20:53:59.802767 32586 net.cpp:124] Setting up ip3
I0426 20:53:59.802773 32586 net.cpp:131] Top shape: 64 10 (640)
I0426 20:53:59.802776 32586 net.cpp:139] Memory required for data: 9829120
I0426 20:53:59.802784 32586 layer_factory.hpp:77] Creating layer relu3
I0426 20:53:59.802789 32586 net.cpp:86] Creating Layer relu3
I0426 20:53:59.802793 32586 net.cpp:408] relu3 <- ip3
I0426 20:53:59.802796 32586 net.cpp:369] relu3 -> ip3 (in-place)
I0426 20:53:59.802953 32586 net.cpp:124] Setting up relu3
I0426 20:53:59.802961 32586 net.cpp:131] Top shape: 64 10 (640)
I0426 20:53:59.802964 32586 net.cpp:139] Memory required for data: 9831680
I0426 20:53:59.802968 32586 layer_factory.hpp:77] Creating layer loss
I0426 20:53:59.802973 32586 net.cpp:86] Creating Layer loss
I0426 20:53:59.802975 32586 net.cpp:408] loss <- ip3
I0426 20:53:59.802979 32586 net.cpp:408] loss <- label
I0426 20:53:59.802985 32586 net.cpp:382] loss -> loss
I0426 20:53:59.803002 32586 layer_factory.hpp:77] Creating layer loss
…
I0426 20:53:59.803637 32586 solver.cpp:173] Creating test net (#0) specified by net file: ECE595/mnist/train_test/var_everything/lenet_train_test149.prototxt
I0426 20:53:59.803663 32586 net.cpp:296] The NetState phase (1) differed from the phase (0) specified by a rule in layer mnist
I0426 20:53:59.803750 32586 net.cpp:53] Initializing net from parameters: 
name: "LeNet"
state {
  phase: TEST
}
layer {
  name: "mnist"
  type: "Data"
  top: "data"
  top: "label"
  include {
    phase: TEST
  }
  transform_param {
    scale: 0.00390625
  }
  data_param {
    source: "examples/mnist/mnist_test_lmdb"
    batch_size: 100
    backend: LMDB
  }
}
layer {
  name: "conv0"
  type: "Convolution"
  bottom: "data"
  top: "conv0"
  param {
    lr_mult: 1
  }
  param {
    lr_mult: 2
  }
  convolution_param {
    num_output: 50
    kernel_size: 5
    stride: 1
    weight_filler {
      type: "xavier"
    }
    bias_filler {
      type: "constant"
    }
  }
}
layer {
  name: "pool0"
  type: "Pooling"
  bottom: "conv0"
  top: "pool0"
  pooling_param {
    pool: MAX
    kernel_size: 2
    stride: 2
  }
}
layer {
  name: "conv1"
  type: "Convolution"
  bottom: "pool0"
  top: "conv1"
  param {
    lr_mult: 1
  }
  param {
    lr_mult: 2
  }
  convolution_param {
    num_output: 10
    kernel_size: 5
    stride: 1
    weight_filler {
      type: "xavier"
    }
    bias_filler {
      type: "constant"
    }
  }
}
layer {
  name: "pool1"
  type: "Pooling"
  bottom: "conv1"
  top: "pool1"
  pooling_param {
    pool: MAX
    kernel_size: 2
    stride: 2
  }
}
layer {
  name: "ip1"
  type: "InnerProduct"
  bottom: "pool1"
  top: "ip1"
  param {
    lr_mult: 1
  }
  param {
    lr_mult: 2
  }
  inner_product_param {
    num_output: 100
    weight_filler {
      type: "xavier"
    }
    bias_filler {
      type: "constant"
    }
  }
}
layer {
  name: "relu1"
  type: "ReLU"
  bottom: "ip1"
  top: "ip1"
}
layer {
  name: "ip2"
  type: "InnerProduct"
  bottom: "ip1"
  top: "ip2"
  param {
    lr_mult: 1
  }
  param {
    lr_mult: 2
  }
  inner_product_param {
    num_output: 300
    weight_filler {
      type: "xavier"
    }
    bias_filler {
      type: "constant"
    }
  }
}
layer {
  name: "relu2"
  type: "ReLU"
  bottom: "ip2"
  top: "ip2"
}
layer {
  name: "ip3"
  type: "InnerProduct"
  bottom: "ip2"
  top: "ip3"
  param {
    lr_mult: 1
  }
  param {
    lr_mult: 2
  }
  inner_product_param {
    num_output: 10
    weight_filler {
      type: "xavier"
    }
    bias_filler {
      type: "constant"
    }
  }
}
layer {
  name: "relu3"
  type: "ReLU"
  bottom: "ip3"
  top: "ip3"
}
layer {
  name: "accuracy"
  type: "Accuracy"
  bottom: "ip3"
  bottom: "label"
  top: "accuracy"
  include {
    phase: TEST
  }
}
layer {
  name: "loss"
  type: "SoftmaxWithLoss"
  bottom: "ip3"
  bottom: "label"
  top: "loss"
}
I0426 20:53:59.803825 32586 layer_factory.hpp:77] Creating layer mnist
I0426 20:53:59.803866 32586 db_lmdb.cpp:35] Opened lmdb examples/mnist/mnist_test_lmdb
I0426 20:53:59.803881 32586 net.cpp:86] Creating Layer mnist
I0426 20:53:59.803886 32586 net.cpp:382] mnist -> data
I0426 20:53:59.803894 32586 net.cpp:382] mnist -> label
I0426 20:53:59.803973 32586 data_layer.cpp:45] output data size: 100,1,28,28
I0426 20:53:59.805930 32586 net.cpp:124] Setting up mnist
I0426 20:53:59.805943 32586 net.cpp:131] Top shape: 100 1 28 28 (78400)
I0426 20:53:59.805948 32586 net.cpp:131] Top shape: 100 (100)
I0426 20:53:59.805950 32586 net.cpp:139] Memory required for data: 314000
I0426 20:53:59.805954 32586 layer_factory.hpp:77] Creating layer label_mnist_1_split
I0426 20:53:59.805964 32586 net.cpp:86] Creating Layer label_mnist_1_split
I0426 20:53:59.805968 32586 net.cpp:408] label_mnist_1_split <- label
I0426 20:53:59.805971 32586 net.cpp:382] label_mnist_1_split -> label_mnist_1_split_0
I0426 20:53:59.805977 32586 net.cpp:382] label_mnist_1_split -> label_mnist_1_split_1
I0426 20:53:59.806061 32586 net.cpp:124] Setting up label_mnist_1_split
I0426 20:53:59.806068 32586 net.cpp:131] Top shape: 100 (100)
I0426 20:53:59.806072 32586 net.cpp:131] Top shape: 100 (100)
I0426 20:53:59.806074 32586 net.cpp:139] Memory required for data: 314800
I0426 20:53:59.806077 32586 layer_factory.hpp:77] Creating layer conv0
I0426 20:53:59.806085 32586 net.cpp:86] Creating Layer conv0
I0426 20:53:59.806088 32586 net.cpp:408] conv0 <- data
I0426 20:53:59.806093 32586 net.cpp:382] conv0 -> conv0
I0426 20:53:59.807689 32586 net.cpp:124] Setting up conv0
I0426 20:53:59.807703 32586 net.cpp:131] Top shape: 100 50 24 24 (2880000)
I0426 20:53:59.807705 32586 net.cpp:139] Memory required for data: 11834800
I0426 20:53:59.807714 32586 layer_factory.hpp:77] Creating layer pool0
I0426 20:53:59.807721 32586 net.cpp:86] Creating Layer pool0
I0426 20:53:59.807724 32586 net.cpp:408] pool0 <- conv0
I0426 20:53:59.807729 32586 net.cpp:382] pool0 -> pool0
I0426 20:53:59.807780 32586 net.cpp:124] Setting up pool0
I0426 20:53:59.807786 32586 net.cpp:131] Top shape: 100 50 12 12 (720000)
I0426 20:53:59.807790 32586 net.cpp:139] Memory required for data: 14714800
I0426 20:53:59.807792 32586 layer_factory.hpp:77] Creating layer conv1
I0426 20:53:59.807801 32586 net.cpp:86] Creating Layer conv1
I0426 20:53:59.807803 32586 net.cpp:408] conv1 <- pool0
I0426 20:53:59.807808 32586 net.cpp:382] conv1 -> conv1
I0426 20:53:59.809381 32586 net.cpp:124] Setting up conv1
I0426 20:53:59.809394 32586 net.cpp:131] Top shape: 100 10 8 8 (64000)
I0426 20:53:59.809398 32586 net.cpp:139] Memory required for data: 14970800
I0426 20:53:59.809406 32586 layer_factory.hpp:77] Creating layer pool1
I0426 20:53:59.809412 32586 net.cpp:86] Creating Layer pool1
I0426 20:53:59.809415 32586 net.cpp:408] pool1 <- conv1
I0426 20:53:59.809422 32586 net.cpp:382] pool1 -> pool1
I0426 20:53:59.809455 32586 net.cpp:124] Setting up pool1
I0426 20:53:59.809468 32586 net.cpp:131] Top shape: 100 10 4 4 (16000)
I0426 20:53:59.809470 32586 net.cpp:139] Memory required for data: 15034800
I0426 20:53:59.809473 32586 layer_factory.hpp:77] Creating layer ip1
I0426 20:53:59.809478 32586 net.cpp:86] Creating Layer ip1
I0426 20:53:59.809483 32586 net.cpp:408] ip1 <- pool1
I0426 20:53:59.809486 32586 net.cpp:382] ip1 -> ip1
I0426 20:53:59.809660 32586 net.cpp:124] Setting up ip1
I0426 20:53:59.809667 32586 net.cpp:131] Top shape: 100 100 (10000)
I0426 20:53:59.809680 32586 net.cpp:139] Memory required for data: 15074800
I0426 20:53:59.809689 32586 layer_factory.hpp:77] Creating layer relu1
I0426 20:53:59.809693 32586 net.cpp:86] Creating Layer relu1
I0426 20:53:59.809696 32586 net.cpp:408] relu1 <- ip1
I0426 20:53:59.809701 32586 net.cpp:369] relu1 -> ip1 (in-place)
I0426 20:53:59.809865 32586 net.cpp:124] Setting up relu1
I0426 20:53:59.809875 32586 net.cpp:131] Top shape: 100 100 (10000)
I0426 20:53:59.809878 32586 net.cpp:139] Memory required for data: 15114800
I0426 20:53:59.809881 32586 layer_factory.hpp:77] Creating layer ip2
I0426 20:53:59.809887 32586 net.cpp:86] Creating Layer ip2
I0426 20:53:59.809891 32586 net.cpp:408] ip2 <- ip1
I0426 20:53:59.809896 32586 net.cpp:382] ip2 -> ip2
I0426 20:53:59.810214 32586 net.cpp:124] Setting up ip2
I0426 20:53:59.810221 32586 net.cpp:131] Top shape: 100 300 (30000)
I0426 20:53:59.810225 32586 net.cpp:139] Memory required for data: 15234800
I0426 20:53:59.810230 32586 layer_factory.hpp:77] Creating layer relu2
I0426 20:53:59.810235 32586 net.cpp:86] Creating Layer relu2
I0426 20:53:59.810237 32586 net.cpp:408] relu2 <- ip2
I0426 20:53:59.810241 32586 net.cpp:369] relu2 -> ip2 (in-place)
I0426 20:53:59.810382 32586 net.cpp:124] Setting up relu2
I0426 20:53:59.810389 32586 net.cpp:131] Top shape: 100 300 (30000)
I0426 20:53:59.810392 32586 net.cpp:139] Memory required for data: 15354800
I0426 20:53:59.810395 32586 layer_factory.hpp:77] Creating layer ip3
I0426 20:53:59.810400 32586 net.cpp:86] Creating Layer ip3
I0426 20:53:59.810403 32586 net.cpp:408] ip3 <- ip2
I0426 20:53:59.810407 32586 net.cpp:382] ip3 -> ip3
I0426 20:53:59.810515 32586 net.cpp:124] Setting up ip3
I0426 20:53:59.810521 32586 net.cpp:131] Top shape: 100 10 (1000)
I0426 20:53:59.810524 32586 net.cpp:139] Memory required for data: 15358800
I0426 20:53:59.810533 32586 layer_factory.hpp:77] Creating layer relu3
I0426 20:53:59.810537 32586 net.cpp:86] Creating Layer relu3
I0426 20:53:59.810539 32586 net.cpp:408] relu3 <- ip3
I0426 20:53:59.810544 32586 net.cpp:369] relu3 -> ip3 (in-place)
I0426 20:53:59.811355 32586 net.cpp:124] Setting up relu3
I0426 20:53:59.811367 32586 net.cpp:131] Top shape: 100 10 (1000)
I0426 20:53:59.811370 32586 net.cpp:139] Memory required for data: 15362800
I0426 20:53:59.811373 32586 layer_factory.hpp:77] Creating layer ip3_relu3_0_split
I0426 20:53:59.811378 32586 net.cpp:86] Creating Layer ip3_relu3_0_split
I0426 20:53:59.811398 32586 net.cpp:408] ip3_relu3_0_split <- ip3
I0426 20:53:59.811403 32586 net.cpp:382] ip3_relu3_0_split -> ip3_relu3_0_split_0
I0426 20:53:59.811408 32586 net.cpp:382] ip3_relu3_0_split -> ip3_relu3_0_split_1
I0426 20:53:59.811447 32586 net.cpp:124] Setting up ip3_relu3_0_split
I0426 20:53:59.811453 32586 net.cpp:131] Top shape: 100 10 (1000)
I0426 20:53:59.811457 32586 net.cpp:131] Top shape: 100 10 (1000)
I0426 20:53:59.811460 32586 net.cpp:139] Memory required for data: 15370800
I0426 20:53:59.811463 32586 layer_factory.hpp:77] Creating layer accuracy
I0426 20:53:59.811468 32586 net.cpp:86] Creating Layer accuracy
I0426 20:53:59.811471 32586 net.cpp:408] accuracy <- ip3_relu3_0_split_0
I0426 20:53:59.811475 32586 net.cpp:408] accuracy <- label_mnist_1_split_0
I0426 20:53:59.811480 32586 net.cpp:382] accuracy -> accuracy
…
