…
I0426 20:48:41.591533 31317 net.cpp:296] The NetState phase (0) differed from the phase (1) specified by a rule in layer mnist
I0426 20:48:41.591547 31317 net.cpp:296] The NetState phase (0) differed from the phase (1) specified by a rule in layer accuracy
I0426 20:48:41.591603 31317 net.cpp:53] Initializing net from parameters: 
name: "LeNet"
state {
  phase: TRAIN
  level: 0
  stage: ""
}
layer {
  name: "mnist"
  type: "Data"
  top: "data"
  top: "label"
  include {
    phase: TRAIN
  }
  transform_param {
    scale: 0.00390625
  }
  data_param {
    source: "examples/mnist/mnist_train_lmdb"
    batch_size: 64
    backend: LMDB
  }
}
layer {
  name: "conv0"
  type: "Convolution"
  bottom: "data"
  top: "conv0"
  param {
    lr_mult: 1
  }
  param {
    lr_mult: 2
  }
  convolution_param {
    num_output: 10
    kernel_size: 5
    stride: 1
    weight_filler {
      type: "xavier"
    }
    bias_filler {
      type: "constant"
    }
  }
}
layer {
  name: "pool0"
  type: "Pooling"
  bottom: "conv0"
  top: "pool0"
  pooling_param {
    pool: MAX
    kernel_size: 2
    stride: 2
  }
}
layer {
  name: "ip1"
  type: "InnerProduct"
  bottom: "pool0"
  top: "ip1"
  param {
    lr_mult: 1
  }
  param {
    lr_mult: 2
  }
  inner_product_param {
    num_output: 10
    weight_filler {
      type: "xavier"
    }
    bias_filler {
      type: "constant"
    }
  }
}
layer {
  name: "relu1"
  type: "ReLU"
  bottom: "ip1"
  top: "ip1"
}
layer {
  name: "loss"
  type: "SoftmaxWithLoss"
  bottom: "ip1"
  bottom: "label"
  top: "loss"
}
I0426 20:48:41.591652 31317 layer_factory.hpp:77] Creating layer mnist
I0426 20:48:41.591734 31317 db_lmdb.cpp:35] Opened lmdb examples/mnist/mnist_train_lmdb
I0426 20:48:41.591753 31317 net.cpp:86] Creating Layer mnist
I0426 20:48:41.591758 31317 net.cpp:382] mnist -> data
I0426 20:48:41.591776 31317 net.cpp:382] mnist -> label
I0426 20:48:41.592739 31317 data_layer.cpp:45] output data size: 64,1,28,28
I0426 20:48:41.594902 31317 net.cpp:124] Setting up mnist
I0426 20:48:41.594928 31317 net.cpp:131] Top shape: 64 1 28 28 (50176)
I0426 20:48:41.594933 31317 net.cpp:131] Top shape: 64 (64)
I0426 20:48:41.594936 31317 net.cpp:139] Memory required for data: 200960
I0426 20:48:41.594943 31317 layer_factory.hpp:77] Creating layer conv0
I0426 20:48:41.594980 31317 net.cpp:86] Creating Layer conv0
I0426 20:48:41.594985 31317 net.cpp:408] conv0 <- data
I0426 20:48:41.594993 31317 net.cpp:382] conv0 -> conv0
I0426 20:48:41.830080 31317 net.cpp:124] Setting up conv0
I0426 20:48:41.830144 31317 net.cpp:131] Top shape: 64 10 24 24 (368640)
I0426 20:48:41.830153 31317 net.cpp:139] Memory required for data: 1675520
I0426 20:48:41.830181 31317 layer_factory.hpp:77] Creating layer pool0
I0426 20:48:41.830211 31317 net.cpp:86] Creating Layer pool0
I0426 20:48:41.830219 31317 net.cpp:408] pool0 <- conv0
I0426 20:48:41.830230 31317 net.cpp:382] pool0 -> pool0
I0426 20:48:41.830373 31317 net.cpp:124] Setting up pool0
I0426 20:48:41.830389 31317 net.cpp:131] Top shape: 64 10 12 12 (92160)
I0426 20:48:41.830394 31317 net.cpp:139] Memory required for data: 2044160
I0426 20:48:41.830401 31317 layer_factory.hpp:77] Creating layer ip1
I0426 20:48:41.830415 31317 net.cpp:86] Creating Layer ip1
I0426 20:48:41.830420 31317 net.cpp:408] ip1 <- pool0
I0426 20:48:41.830430 31317 net.cpp:382] ip1 -> ip1
I0426 20:48:41.832274 31317 net.cpp:124] Setting up ip1
I0426 20:48:41.832310 31317 net.cpp:131] Top shape: 64 10 (640)
I0426 20:48:41.832340 31317 net.cpp:139] Memory required for data: 2046720
I0426 20:48:41.832367 31317 layer_factory.hpp:77] Creating layer relu1
I0426 20:48:41.832381 31317 net.cpp:86] Creating Layer relu1
I0426 20:48:41.832388 31317 net.cpp:408] relu1 <- ip1
I0426 20:48:41.832397 31317 net.cpp:369] relu1 -> ip1 (in-place)
I0426 20:48:41.832739 31317 net.cpp:124] Setting up relu1
I0426 20:48:41.832756 31317 net.cpp:131] Top shape: 64 10 (640)
I0426 20:48:41.832763 31317 net.cpp:139] Memory required for data: 2049280
I0426 20:48:41.832769 31317 layer_factory.hpp:77] Creating layer loss
I0426 20:48:41.832779 31317 net.cpp:86] Creating Layer loss
I0426 20:48:41.832785 31317 net.cpp:408] loss <- ip1
I0426 20:48:41.832793 31317 net.cpp:408] loss <- label
I0426 20:48:41.832803 31317 net.cpp:382] loss -> loss
I0426 20:48:41.832856 31317 layer_factory.hpp:77] Creating layer loss
…
I0426 20:48:41.835060 31317 solver.cpp:173] Creating test net (#0) specified by net file: ECE595/mnist/train_test/var_everything/lenet_train_test14.prototxt
I0426 20:48:41.835108 31317 net.cpp:296] The NetState phase (1) differed from the phase (0) specified by a rule in layer mnist
I0426 20:48:41.835235 31317 net.cpp:53] Initializing net from parameters: 
name: "LeNet"
state {
  phase: TEST
}
layer {
  name: "mnist"
  type: "Data"
  top: "data"
  top: "label"
  include {
    phase: TEST
  }
  transform_param {
    scale: 0.00390625
  }
  data_param {
    source: "examples/mnist/mnist_test_lmdb"
    batch_size: 100
    backend: LMDB
  }
}
layer {
  name: "conv0"
  type: "Convolution"
  bottom: "data"
  top: "conv0"
  param {
    lr_mult: 1
  }
  param {
    lr_mult: 2
  }
  convolution_param {
    num_output: 10
    kernel_size: 5
    stride: 1
    weight_filler {
      type: "xavier"
    }
    bias_filler {
      type: "constant"
    }
  }
}
layer {
  name: "pool0"
  type: "Pooling"
  bottom: "conv0"
  top: "pool0"
  pooling_param {
    pool: MAX
    kernel_size: 2
    stride: 2
  }
}
layer {
  name: "ip1"
  type: "InnerProduct"
  bottom: "pool0"
  top: "ip1"
  param {
    lr_mult: 1
  }
  param {
    lr_mult: 2
  }
  inner_product_param {
    num_output: 10
    weight_filler {
      type: "xavier"
    }
    bias_filler {
      type: "constant"
    }
  }
}
layer {
  name: "relu1"
  type: "ReLU"
  bottom: "ip1"
  top: "ip1"
}
layer {
  name: "accuracy"
  type: "Accuracy"
  bottom: "ip1"
  bottom: "label"
  top: "accuracy"
  include {
    phase: TEST
  }
}
layer {
  name: "loss"
  type: "SoftmaxWithLoss"
  bottom: "ip1"
  bottom: "label"
  top: "loss"
}
I0426 20:48:41.835331 31317 layer_factory.hpp:77] Creating layer mnist
I0426 20:48:41.835412 31317 db_lmdb.cpp:35] Opened lmdb examples/mnist/mnist_test_lmdb
I0426 20:48:41.835431 31317 net.cpp:86] Creating Layer mnist
I0426 20:48:41.835440 31317 net.cpp:382] mnist -> data
I0426 20:48:41.835465 31317 net.cpp:382] mnist -> label
I0426 20:48:41.835630 31317 data_layer.cpp:45] output data size: 100,1,28,28
I0426 20:48:41.839109 31317 net.cpp:124] Setting up mnist
I0426 20:48:41.839156 31317 net.cpp:131] Top shape: 100 1 28 28 (78400)
I0426 20:48:41.839166 31317 net.cpp:131] Top shape: 100 (100)
I0426 20:48:41.839174 31317 net.cpp:139] Memory required for data: 314000
I0426 20:48:41.839200 31317 layer_factory.hpp:77] Creating layer label_mnist_1_split
I0426 20:48:41.839218 31317 net.cpp:86] Creating Layer label_mnist_1_split
I0426 20:48:41.839226 31317 net.cpp:408] label_mnist_1_split <- label
I0426 20:48:41.839234 31317 net.cpp:382] label_mnist_1_split -> label_mnist_1_split_0
I0426 20:48:41.839247 31317 net.cpp:382] label_mnist_1_split -> label_mnist_1_split_1
I0426 20:48:41.839354 31317 net.cpp:124] Setting up label_mnist_1_split
I0426 20:48:41.839367 31317 net.cpp:131] Top shape: 100 (100)
I0426 20:48:41.839375 31317 net.cpp:131] Top shape: 100 (100)
I0426 20:48:41.839381 31317 net.cpp:139] Memory required for data: 314800
I0426 20:48:41.839387 31317 layer_factory.hpp:77] Creating layer conv0
I0426 20:48:41.839421 31317 net.cpp:86] Creating Layer conv0
I0426 20:48:41.839433 31317 net.cpp:408] conv0 <- data
I0426 20:48:41.839444 31317 net.cpp:382] conv0 -> conv0
I0426 20:48:41.842406 31317 net.cpp:124] Setting up conv0
I0426 20:48:41.842430 31317 net.cpp:131] Top shape: 100 10 24 24 (576000)
I0426 20:48:41.842445 31317 net.cpp:139] Memory required for data: 2618800
I0426 20:48:41.842463 31317 layer_factory.hpp:77] Creating layer pool0
I0426 20:48:41.842476 31317 net.cpp:86] Creating Layer pool0
I0426 20:48:41.842483 31317 net.cpp:408] pool0 <- conv0
I0426 20:48:41.842502 31317 net.cpp:382] pool0 -> pool0
I0426 20:48:41.842568 31317 net.cpp:124] Setting up pool0
I0426 20:48:41.842581 31317 net.cpp:131] Top shape: 100 10 12 12 (144000)
I0426 20:48:41.842586 31317 net.cpp:139] Memory required for data: 3194800
I0426 20:48:41.842592 31317 layer_factory.hpp:77] Creating layer ip1
I0426 20:48:41.842605 31317 net.cpp:86] Creating Layer ip1
I0426 20:48:41.842612 31317 net.cpp:408] ip1 <- pool0
I0426 20:48:41.842620 31317 net.cpp:382] ip1 -> ip1
I0426 20:48:41.842981 31317 net.cpp:124] Setting up ip1
I0426 20:48:41.842993 31317 net.cpp:131] Top shape: 100 10 (1000)
I0426 20:48:41.843008 31317 net.cpp:139] Memory required for data: 3198800
I0426 20:48:41.843021 31317 layer_factory.hpp:77] Creating layer relu1
I0426 20:48:41.843032 31317 net.cpp:86] Creating Layer relu1
I0426 20:48:41.843037 31317 net.cpp:408] relu1 <- ip1
I0426 20:48:41.843044 31317 net.cpp:369] relu1 -> ip1 (in-place)
I0426 20:48:41.843439 31317 net.cpp:124] Setting up relu1
I0426 20:48:41.843457 31317 net.cpp:131] Top shape: 100 10 (1000)
I0426 20:48:41.843463 31317 net.cpp:139] Memory required for data: 3202800
I0426 20:48:41.843469 31317 layer_factory.hpp:77] Creating layer ip1_relu1_0_split
I0426 20:48:41.843479 31317 net.cpp:86] Creating Layer ip1_relu1_0_split
I0426 20:48:41.843485 31317 net.cpp:408] ip1_relu1_0_split <- ip1
I0426 20:48:41.843497 31317 net.cpp:382] ip1_relu1_0_split -> ip1_relu1_0_split_0
I0426 20:48:41.843507 31317 net.cpp:382] ip1_relu1_0_split -> ip1_relu1_0_split_1
I0426 20:48:41.843576 31317 net.cpp:124] Setting up ip1_relu1_0_split
I0426 20:48:41.843586 31317 net.cpp:131] Top shape: 100 10 (1000)
I0426 20:48:41.843595 31317 net.cpp:131] Top shape: 100 10 (1000)
I0426 20:48:41.843600 31317 net.cpp:139] Memory required for data: 3210800
I0426 20:48:41.843605 31317 layer_factory.hpp:77] Creating layer accuracy
I0426 20:48:41.843614 31317 net.cpp:86] Creating Layer accuracy
I0426 20:48:41.843621 31317 net.cpp:408] accuracy <- ip1_relu1_0_split_0
I0426 20:48:41.843627 31317 net.cpp:408] accuracy <- label_mnist_1_split_0
I0426 20:48:41.843636 31317 net.cpp:382] accuracy -> accuracy
…
