…
I0426 20:50:22.438953 31737 net.cpp:296] The NetState phase (0) differed from the phase (1) specified by a rule in layer mnist
I0426 20:50:22.438968 31737 net.cpp:296] The NetState phase (0) differed from the phase (1) specified by a rule in layer accuracy
I0426 20:50:22.439040 31737 net.cpp:53] Initializing net from parameters: 
name: "LeNet"
state {
  phase: TRAIN
  level: 0
  stage: ""
}
layer {
  name: "mnist"
  type: "Data"
  top: "data"
  top: "label"
  include {
    phase: TRAIN
  }
  transform_param {
    scale: 0.00390625
  }
  data_param {
    source: "examples/mnist/mnist_train_lmdb"
    batch_size: 64
    backend: LMDB
  }
}
layer {
  name: "conv0"
  type: "Convolution"
  bottom: "data"
  top: "conv0"
  param {
    lr_mult: 1
  }
  param {
    lr_mult: 2
  }
  convolution_param {
    num_output: 10
    kernel_size: 5
    stride: 1
    weight_filler {
      type: "xavier"
    }
    bias_filler {
      type: "constant"
    }
  }
}
layer {
  name: "pool0"
  type: "Pooling"
  bottom: "conv0"
  top: "pool0"
  pooling_param {
    pool: MAX
    kernel_size: 2
    stride: 2
  }
}
layer {
  name: "conv1"
  type: "Convolution"
  bottom: "pool0"
  top: "conv1"
  param {
    lr_mult: 1
  }
  param {
    lr_mult: 2
  }
  convolution_param {
    num_output: 10
    kernel_size: 5
    stride: 1
    weight_filler {
      type: "xavier"
    }
    bias_filler {
      type: "constant"
    }
  }
}
layer {
  name: "pool1"
  type: "Pooling"
  bottom: "conv1"
  top: "pool1"
  pooling_param {
    pool: MAX
    kernel_size: 2
    stride: 2
  }
}
layer {
  name: "ip1"
  type: "InnerProduct"
  bottom: "pool1"
  top: "ip1"
  param {
    lr_mult: 1
  }
  param {
    lr_mult: 2
  }
  inner_product_param {
    num_output: 100
    weight_filler {
      type: "xavier"
    }
    bias_filler {
      type: "constant"
    }
  }
}
layer {
  name: "relu1"
  type: "ReLU"
  bottom: "ip1"
  top: "ip1"
}
layer {
  name: "ip2"
  type: "InnerProduct"
  bottom: "ip1"
  top: "ip2"
  param {
    lr_mult: 1
  }
  param {
    lr_mult: 2
  }
  inner_product_param {
    num_output: 10
    weight_filler {
      type: "xavier"
    }
    bias_filler {
      type: "constant"
    }
  }
}
layer {
  name: "relu2"
  type: "ReLU"
  bottom: "ip2"
  top: "ip2"
}
layer {
  name: "loss"
  type: "SoftmaxWithLoss"
  bottom: "ip2"
  bottom: "label"
  top: "loss"
}
I0426 20:50:22.439119 31737 layer_factory.hpp:77] Creating layer mnist
I0426 20:50:22.439203 31737 db_lmdb.cpp:35] Opened lmdb examples/mnist/mnist_train_lmdb
I0426 20:50:22.439221 31737 net.cpp:86] Creating Layer mnist
I0426 20:50:22.439229 31737 net.cpp:382] mnist -> data
I0426 20:50:22.439247 31737 net.cpp:382] mnist -> label
I0426 20:50:22.440217 31737 data_layer.cpp:45] output data size: 64,1,28,28
I0426 20:50:22.442497 31737 net.cpp:124] Setting up mnist
I0426 20:50:22.442541 31737 net.cpp:131] Top shape: 64 1 28 28 (50176)
I0426 20:50:22.442546 31737 net.cpp:131] Top shape: 64 (64)
I0426 20:50:22.442549 31737 net.cpp:139] Memory required for data: 200960
I0426 20:50:22.442554 31737 layer_factory.hpp:77] Creating layer conv0
I0426 20:50:22.442569 31737 net.cpp:86] Creating Layer conv0
I0426 20:50:22.442574 31737 net.cpp:408] conv0 <- data
I0426 20:50:22.442586 31737 net.cpp:382] conv0 -> conv0
I0426 20:50:22.679147 31737 net.cpp:124] Setting up conv0
I0426 20:50:22.679189 31737 net.cpp:131] Top shape: 64 10 24 24 (368640)
I0426 20:50:22.679193 31737 net.cpp:139] Memory required for data: 1675520
I0426 20:50:22.679226 31737 layer_factory.hpp:77] Creating layer pool0
I0426 20:50:22.679239 31737 net.cpp:86] Creating Layer pool0
I0426 20:50:22.679244 31737 net.cpp:408] pool0 <- conv0
I0426 20:50:22.679249 31737 net.cpp:382] pool0 -> pool0
I0426 20:50:22.679293 31737 net.cpp:124] Setting up pool0
I0426 20:50:22.679298 31737 net.cpp:131] Top shape: 64 10 12 12 (92160)
I0426 20:50:22.679301 31737 net.cpp:139] Memory required for data: 2044160
I0426 20:50:22.679304 31737 layer_factory.hpp:77] Creating layer conv1
I0426 20:50:22.679314 31737 net.cpp:86] Creating Layer conv1
I0426 20:50:22.679317 31737 net.cpp:408] conv1 <- pool0
I0426 20:50:22.679322 31737 net.cpp:382] conv1 -> conv1
I0426 20:50:22.681977 31737 net.cpp:124] Setting up conv1
I0426 20:50:22.681990 31737 net.cpp:131] Top shape: 64 10 8 8 (40960)
I0426 20:50:22.681994 31737 net.cpp:139] Memory required for data: 2208000
I0426 20:50:22.682003 31737 layer_factory.hpp:77] Creating layer pool1
I0426 20:50:22.682009 31737 net.cpp:86] Creating Layer pool1
I0426 20:50:22.682013 31737 net.cpp:408] pool1 <- conv1
I0426 20:50:22.682018 31737 net.cpp:382] pool1 -> pool1
I0426 20:50:22.682066 31737 net.cpp:124] Setting up pool1
I0426 20:50:22.682072 31737 net.cpp:131] Top shape: 64 10 4 4 (10240)
I0426 20:50:22.682075 31737 net.cpp:139] Memory required for data: 2248960
I0426 20:50:22.682077 31737 layer_factory.hpp:77] Creating layer ip1
I0426 20:50:22.682083 31737 net.cpp:86] Creating Layer ip1
I0426 20:50:22.682086 31737 net.cpp:408] ip1 <- pool1
I0426 20:50:22.682091 31737 net.cpp:382] ip1 -> ip1
I0426 20:50:22.683056 31737 net.cpp:124] Setting up ip1
I0426 20:50:22.683068 31737 net.cpp:131] Top shape: 64 100 (6400)
I0426 20:50:22.683071 31737 net.cpp:139] Memory required for data: 2274560
I0426 20:50:22.683079 31737 layer_factory.hpp:77] Creating layer relu1
I0426 20:50:22.683085 31737 net.cpp:86] Creating Layer relu1
I0426 20:50:22.683089 31737 net.cpp:408] relu1 <- ip1
I0426 20:50:22.683092 31737 net.cpp:369] relu1 -> ip1 (in-place)
I0426 20:50:22.683249 31737 net.cpp:124] Setting up relu1
I0426 20:50:22.683259 31737 net.cpp:131] Top shape: 64 100 (6400)
I0426 20:50:22.683261 31737 net.cpp:139] Memory required for data: 2300160
I0426 20:50:22.683264 31737 layer_factory.hpp:77] Creating layer ip2
I0426 20:50:22.683270 31737 net.cpp:86] Creating Layer ip2
I0426 20:50:22.683274 31737 net.cpp:408] ip2 <- ip1
I0426 20:50:22.683279 31737 net.cpp:382] ip2 -> ip2
I0426 20:50:22.683370 31737 net.cpp:124] Setting up ip2
I0426 20:50:22.683377 31737 net.cpp:131] Top shape: 64 10 (640)
I0426 20:50:22.683380 31737 net.cpp:139] Memory required for data: 2302720
I0426 20:50:22.683384 31737 layer_factory.hpp:77] Creating layer relu2
I0426 20:50:22.683390 31737 net.cpp:86] Creating Layer relu2
I0426 20:50:22.683393 31737 net.cpp:408] relu2 <- ip2
I0426 20:50:22.683398 31737 net.cpp:369] relu2 -> ip2 (in-place)
I0426 20:50:22.684175 31737 net.cpp:124] Setting up relu2
I0426 20:50:22.684187 31737 net.cpp:131] Top shape: 64 10 (640)
I0426 20:50:22.684190 31737 net.cpp:139] Memory required for data: 2305280
I0426 20:50:22.684195 31737 layer_factory.hpp:77] Creating layer loss
I0426 20:50:22.684201 31737 net.cpp:86] Creating Layer loss
I0426 20:50:22.684203 31737 net.cpp:408] loss <- ip2
I0426 20:50:22.684207 31737 net.cpp:408] loss <- label
I0426 20:50:22.684213 31737 net.cpp:382] loss -> loss
I0426 20:50:22.684231 31737 layer_factory.hpp:77] Creating layer loss
…
I0426 20:50:22.684860 31737 solver.cpp:173] Creating test net (#0) specified by net file: ECE595/mnist/train_test/var_everything/lenet_train_test58.prototxt
I0426 20:50:22.684901 31737 net.cpp:296] The NetState phase (1) differed from the phase (0) specified by a rule in layer mnist
I0426 20:50:22.684983 31737 net.cpp:53] Initializing net from parameters: 
name: "LeNet"
state {
  phase: TEST
}
layer {
  name: "mnist"
  type: "Data"
  top: "data"
  top: "label"
  include {
    phase: TEST
  }
  transform_param {
    scale: 0.00390625
  }
  data_param {
    source: "examples/mnist/mnist_test_lmdb"
    batch_size: 100
    backend: LMDB
  }
}
layer {
  name: "conv0"
  type: "Convolution"
  bottom: "data"
  top: "conv0"
  param {
    lr_mult: 1
  }
  param {
    lr_mult: 2
  }
  convolution_param {
    num_output: 10
    kernel_size: 5
    stride: 1
    weight_filler {
      type: "xavier"
    }
    bias_filler {
      type: "constant"
    }
  }
}
layer {
  name: "pool0"
  type: "Pooling"
  bottom: "conv0"
  top: "pool0"
  pooling_param {
    pool: MAX
    kernel_size: 2
    stride: 2
  }
}
layer {
  name: "conv1"
  type: "Convolution"
  bottom: "pool0"
  top: "conv1"
  param {
    lr_mult: 1
  }
  param {
    lr_mult: 2
  }
  convolution_param {
    num_output: 10
    kernel_size: 5
    stride: 1
    weight_filler {
      type: "xavier"
    }
    bias_filler {
      type: "constant"
    }
  }
}
layer {
  name: "pool1"
  type: "Pooling"
  bottom: "conv1"
  top: "pool1"
  pooling_param {
    pool: MAX
    kernel_size: 2
    stride: 2
  }
}
layer {
  name: "ip1"
  type: "InnerProduct"
  bottom: "pool1"
  top: "ip1"
  param {
    lr_mult: 1
  }
  param {
    lr_mult: 2
  }
  inner_product_param {
    num_output: 100
    weight_filler {
      type: "xavier"
    }
    bias_filler {
      type: "constant"
    }
  }
}
layer {
  name: "relu1"
  type: "ReLU"
  bottom: "ip1"
  top: "ip1"
}
layer {
  name: "ip2"
  type: "InnerProduct"
  bottom: "ip1"
  top: "ip2"
  param {
    lr_mult: 1
  }
  param {
    lr_mult: 2
  }
  inner_product_param {
    num_output: 10
    weight_filler {
      type: "xavier"
    }
    bias_filler {
      type: "constant"
    }
  }
}
layer {
  name: "relu2"
  type: "ReLU"
  bottom: "ip2"
  top: "ip2"
}
layer {
  name: "accuracy"
  type: "Accuracy"
  bottom: "ip2"
  bottom: "label"
  top: "accuracy"
  include {
    phase: TEST
  }
}
layer {
  name: "loss"
  type: "SoftmaxWithLoss"
  bottom: "ip2"
  bottom: "label"
  top: "loss"
}
I0426 20:50:22.685044 31737 layer_factory.hpp:77] Creating layer mnist
I0426 20:50:22.685086 31737 db_lmdb.cpp:35] Opened lmdb examples/mnist/mnist_test_lmdb
I0426 20:50:22.685098 31737 net.cpp:86] Creating Layer mnist
I0426 20:50:22.685102 31737 net.cpp:382] mnist -> data
I0426 20:50:22.685109 31737 net.cpp:382] mnist -> label
I0426 20:50:22.685222 31737 data_layer.cpp:45] output data size: 100,1,28,28
I0426 20:50:22.687369 31737 net.cpp:124] Setting up mnist
I0426 20:50:22.687412 31737 net.cpp:131] Top shape: 100 1 28 28 (78400)
I0426 20:50:22.687417 31737 net.cpp:131] Top shape: 100 (100)
I0426 20:50:22.687420 31737 net.cpp:139] Memory required for data: 314000
I0426 20:50:22.687424 31737 layer_factory.hpp:77] Creating layer label_mnist_1_split
I0426 20:50:22.687438 31737 net.cpp:86] Creating Layer label_mnist_1_split
I0426 20:50:22.687443 31737 net.cpp:408] label_mnist_1_split <- label
I0426 20:50:22.687448 31737 net.cpp:382] label_mnist_1_split -> label_mnist_1_split_0
I0426 20:50:22.687469 31737 net.cpp:382] label_mnist_1_split -> label_mnist_1_split_1
I0426 20:50:22.687527 31737 net.cpp:124] Setting up label_mnist_1_split
I0426 20:50:22.687566 31737 net.cpp:131] Top shape: 100 (100)
I0426 20:50:22.687572 31737 net.cpp:131] Top shape: 100 (100)
I0426 20:50:22.687573 31737 net.cpp:139] Memory required for data: 314800
I0426 20:50:22.687577 31737 layer_factory.hpp:77] Creating layer conv0
I0426 20:50:22.687585 31737 net.cpp:86] Creating Layer conv0
I0426 20:50:22.687588 31737 net.cpp:408] conv0 <- data
I0426 20:50:22.687593 31737 net.cpp:382] conv0 -> conv0
I0426 20:50:22.689386 31737 net.cpp:124] Setting up conv0
I0426 20:50:22.689411 31737 net.cpp:131] Top shape: 100 10 24 24 (576000)
I0426 20:50:22.689414 31737 net.cpp:139] Memory required for data: 2618800
I0426 20:50:22.689424 31737 layer_factory.hpp:77] Creating layer pool0
I0426 20:50:22.689429 31737 net.cpp:86] Creating Layer pool0
I0426 20:50:22.689434 31737 net.cpp:408] pool0 <- conv0
I0426 20:50:22.689437 31737 net.cpp:382] pool0 -> pool0
I0426 20:50:22.689487 31737 net.cpp:124] Setting up pool0
I0426 20:50:22.689492 31737 net.cpp:131] Top shape: 100 10 12 12 (144000)
I0426 20:50:22.689496 31737 net.cpp:139] Memory required for data: 3194800
I0426 20:50:22.689498 31737 layer_factory.hpp:77] Creating layer conv1
I0426 20:50:22.689507 31737 net.cpp:86] Creating Layer conv1
I0426 20:50:22.689509 31737 net.cpp:408] conv1 <- pool0
I0426 20:50:22.689514 31737 net.cpp:382] conv1 -> conv1
I0426 20:50:22.691627 31737 net.cpp:124] Setting up conv1
I0426 20:50:22.691639 31737 net.cpp:131] Top shape: 100 10 8 8 (64000)
I0426 20:50:22.691658 31737 net.cpp:139] Memory required for data: 3450800
I0426 20:50:22.691666 31737 layer_factory.hpp:77] Creating layer pool1
I0426 20:50:22.691673 31737 net.cpp:86] Creating Layer pool1
I0426 20:50:22.691676 31737 net.cpp:408] pool1 <- conv1
I0426 20:50:22.691681 31737 net.cpp:382] pool1 -> pool1
I0426 20:50:22.691735 31737 net.cpp:124] Setting up pool1
I0426 20:50:22.691740 31737 net.cpp:131] Top shape: 100 10 4 4 (16000)
I0426 20:50:22.691742 31737 net.cpp:139] Memory required for data: 3514800
I0426 20:50:22.691745 31737 layer_factory.hpp:77] Creating layer ip1
I0426 20:50:22.691751 31737 net.cpp:86] Creating Layer ip1
I0426 20:50:22.691754 31737 net.cpp:408] ip1 <- pool1
I0426 20:50:22.691759 31737 net.cpp:382] ip1 -> ip1
I0426 20:50:22.691969 31737 net.cpp:124] Setting up ip1
I0426 20:50:22.691977 31737 net.cpp:131] Top shape: 100 100 (10000)
I0426 20:50:22.691982 31737 net.cpp:139] Memory required for data: 3554800
I0426 20:50:22.691989 31737 layer_factory.hpp:77] Creating layer relu1
I0426 20:50:22.691995 31737 net.cpp:86] Creating Layer relu1
I0426 20:50:22.692008 31737 net.cpp:408] relu1 <- ip1
I0426 20:50:22.692013 31737 net.cpp:369] relu1 -> ip1 (in-place)
I0426 20:50:22.692222 31737 net.cpp:124] Setting up relu1
I0426 20:50:22.692230 31737 net.cpp:131] Top shape: 100 100 (10000)
I0426 20:50:22.692234 31737 net.cpp:139] Memory required for data: 3594800
I0426 20:50:22.692237 31737 layer_factory.hpp:77] Creating layer ip2
I0426 20:50:22.692245 31737 net.cpp:86] Creating Layer ip2
I0426 20:50:22.692247 31737 net.cpp:408] ip2 <- ip1
I0426 20:50:22.692252 31737 net.cpp:382] ip2 -> ip2
I0426 20:50:22.692353 31737 net.cpp:124] Setting up ip2
I0426 20:50:22.692360 31737 net.cpp:131] Top shape: 100 10 (1000)
I0426 20:50:22.692363 31737 net.cpp:139] Memory required for data: 3598800
I0426 20:50:22.692368 31737 layer_factory.hpp:77] Creating layer relu2
I0426 20:50:22.692373 31737 net.cpp:86] Creating Layer relu2
I0426 20:50:22.692376 31737 net.cpp:408] relu2 <- ip2
I0426 20:50:22.692381 31737 net.cpp:369] relu2 -> ip2 (in-place)
I0426 20:50:22.692580 31737 net.cpp:124] Setting up relu2
I0426 20:50:22.692589 31737 net.cpp:131] Top shape: 100 10 (1000)
I0426 20:50:22.692591 31737 net.cpp:139] Memory required for data: 3602800
I0426 20:50:22.692595 31737 layer_factory.hpp:77] Creating layer ip2_relu2_0_split
I0426 20:50:22.692600 31737 net.cpp:86] Creating Layer ip2_relu2_0_split
I0426 20:50:22.692603 31737 net.cpp:408] ip2_relu2_0_split <- ip2
I0426 20:50:22.692607 31737 net.cpp:382] ip2_relu2_0_split -> ip2_relu2_0_split_0
I0426 20:50:22.692625 31737 net.cpp:382] ip2_relu2_0_split -> ip2_relu2_0_split_1
I0426 20:50:22.692663 31737 net.cpp:124] Setting up ip2_relu2_0_split
I0426 20:50:22.692669 31737 net.cpp:131] Top shape: 100 10 (1000)
I0426 20:50:22.692672 31737 net.cpp:131] Top shape: 100 10 (1000)
I0426 20:50:22.692675 31737 net.cpp:139] Memory required for data: 3610800
I0426 20:50:22.692678 31737 layer_factory.hpp:77] Creating layer accuracy
I0426 20:50:22.692684 31737 net.cpp:86] Creating Layer accuracy
I0426 20:50:22.692687 31737 net.cpp:408] accuracy <- ip2_relu2_0_split_0
I0426 20:50:22.692692 31737 net.cpp:408] accuracy <- label_mnist_1_split_0
I0426 20:50:22.692695 31737 net.cpp:382] accuracy -> accuracy
…
