…
I0426 20:48:36.219820 31293 net.cpp:296] The NetState phase (0) differed from the phase (1) specified by a rule in layer mnist
I0426 20:48:36.219832 31293 net.cpp:296] The NetState phase (0) differed from the phase (1) specified by a rule in layer accuracy
I0426 20:48:36.219907 31293 net.cpp:53] Initializing net from parameters: 
name: "LeNet"
state {
  phase: TRAIN
  level: 0
  stage: ""
}
layer {
  name: "mnist"
  type: "Data"
  top: "data"
  top: "label"
  include {
    phase: TRAIN
  }
  transform_param {
    scale: 0.00390625
  }
  data_param {
    source: "examples/mnist/mnist_train_lmdb"
    batch_size: 64
    backend: LMDB
  }
}
layer {
  name: "ip1"
  type: "InnerProduct"
  bottom: "data"
  top: "ip1"
  param {
    lr_mult: 1
  }
  param {
    lr_mult: 2
  }
  inner_product_param {
    num_output: 300
    weight_filler {
      type: "xavier"
    }
    bias_filler {
      type: "constant"
    }
  }
}
layer {
  name: "relu1"
  type: "ReLU"
  bottom: "ip1"
  top: "ip1"
}
layer {
  name: "ip2"
  type: "InnerProduct"
  bottom: "ip1"
  top: "ip2"
  param {
    lr_mult: 1
  }
  param {
    lr_mult: 2
  }
  inner_product_param {
    num_output: 100
    weight_filler {
      type: "xavier"
    }
    bias_filler {
      type: "constant"
    }
  }
}
layer {
  name: "relu2"
  type: "ReLU"
  bottom: "ip2"
  top: "ip2"
}
layer {
  name: "ip3"
  type: "InnerProduct"
  bottom: "ip2"
  top: "ip3"
  param {
    lr_mult: 1
  }
  param {
    lr_mult: 2
  }
  inner_product_param {
    num_output: 10
    weight_filler {
      type: "xavier"
    }
    bias_filler {
      type: "constant"
    }
  }
}
layer {
  name: "relu3"
  type: "ReLU"
  bottom: "ip3"
  top: "ip3"
}
layer {
  name: "loss"
  type: "SoftmaxWithLoss"
  bottom: "ip3"
  bottom: "label"
  top: "loss"
}
I0426 20:48:36.219961 31293 layer_factory.hpp:77] Creating layer mnist
I0426 20:48:36.220043 31293 db_lmdb.cpp:35] Opened lmdb examples/mnist/mnist_train_lmdb
I0426 20:48:36.220062 31293 net.cpp:86] Creating Layer mnist
I0426 20:48:36.220069 31293 net.cpp:382] mnist -> data
I0426 20:48:36.220103 31293 net.cpp:382] mnist -> label
I0426 20:48:36.221074 31293 data_layer.cpp:45] output data size: 64,1,28,28
I0426 20:48:36.223451 31293 net.cpp:124] Setting up mnist
I0426 20:48:36.223465 31293 net.cpp:131] Top shape: 64 1 28 28 (50176)
I0426 20:48:36.223470 31293 net.cpp:131] Top shape: 64 (64)
I0426 20:48:36.223474 31293 net.cpp:139] Memory required for data: 200960
I0426 20:48:36.223479 31293 layer_factory.hpp:77] Creating layer ip1
I0426 20:48:36.223487 31293 net.cpp:86] Creating Layer ip1
I0426 20:48:36.223491 31293 net.cpp:408] ip1 <- data
I0426 20:48:36.223500 31293 net.cpp:382] ip1 -> ip1
I0426 20:48:36.226660 31293 net.cpp:124] Setting up ip1
I0426 20:48:36.226671 31293 net.cpp:131] Top shape: 64 300 (19200)
I0426 20:48:36.226682 31293 net.cpp:139] Memory required for data: 277760
I0426 20:48:36.226693 31293 layer_factory.hpp:77] Creating layer relu1
I0426 20:48:36.226718 31293 net.cpp:86] Creating Layer relu1
I0426 20:48:36.226722 31293 net.cpp:408] relu1 <- ip1
I0426 20:48:36.226727 31293 net.cpp:369] relu1 -> ip1 (in-place)
I0426 20:48:36.497264 31293 net.cpp:124] Setting up relu1
I0426 20:48:36.497303 31293 net.cpp:131] Top shape: 64 300 (19200)
I0426 20:48:36.497308 31293 net.cpp:139] Memory required for data: 354560
I0426 20:48:36.497314 31293 layer_factory.hpp:77] Creating layer ip2
I0426 20:48:36.497329 31293 net.cpp:86] Creating Layer ip2
I0426 20:48:36.497355 31293 net.cpp:408] ip2 <- ip1
I0426 20:48:36.497364 31293 net.cpp:382] ip2 -> ip2
I0426 20:48:36.497706 31293 net.cpp:124] Setting up ip2
I0426 20:48:36.497722 31293 net.cpp:131] Top shape: 64 100 (6400)
I0426 20:48:36.497726 31293 net.cpp:139] Memory required for data: 380160
I0426 20:48:36.497737 31293 layer_factory.hpp:77] Creating layer relu2
I0426 20:48:36.497745 31293 net.cpp:86] Creating Layer relu2
I0426 20:48:36.497750 31293 net.cpp:408] relu2 <- ip2
I0426 20:48:36.497755 31293 net.cpp:369] relu2 -> ip2 (in-place)
I0426 20:48:36.498785 31293 net.cpp:124] Setting up relu2
I0426 20:48:36.498800 31293 net.cpp:131] Top shape: 64 100 (6400)
I0426 20:48:36.498805 31293 net.cpp:139] Memory required for data: 405760
I0426 20:48:36.498808 31293 layer_factory.hpp:77] Creating layer ip3
I0426 20:48:36.498817 31293 net.cpp:86] Creating Layer ip3
I0426 20:48:36.498821 31293 net.cpp:408] ip3 <- ip2
I0426 20:48:36.498827 31293 net.cpp:382] ip3 -> ip3
I0426 20:48:36.498953 31293 net.cpp:124] Setting up ip3
I0426 20:48:36.498963 31293 net.cpp:131] Top shape: 64 10 (640)
I0426 20:48:36.498966 31293 net.cpp:139] Memory required for data: 408320
I0426 20:48:36.498976 31293 layer_factory.hpp:77] Creating layer relu3
I0426 20:48:36.498982 31293 net.cpp:86] Creating Layer relu3
I0426 20:48:36.498986 31293 net.cpp:408] relu3 <- ip3
I0426 20:48:36.498991 31293 net.cpp:369] relu3 -> ip3 (in-place)
I0426 20:48:36.499166 31293 net.cpp:124] Setting up relu3
I0426 20:48:36.499176 31293 net.cpp:131] Top shape: 64 10 (640)
I0426 20:48:36.499179 31293 net.cpp:139] Memory required for data: 410880
I0426 20:48:36.499183 31293 layer_factory.hpp:77] Creating layer loss
I0426 20:48:36.499189 31293 net.cpp:86] Creating Layer loss
I0426 20:48:36.499193 31293 net.cpp:408] loss <- ip3
I0426 20:48:36.499198 31293 net.cpp:408] loss <- label
I0426 20:48:36.499204 31293 net.cpp:382] loss -> loss
I0426 20:48:36.499227 31293 layer_factory.hpp:77] Creating layer loss
…
I0426 20:48:36.499858 31293 solver.cpp:173] Creating test net (#0) specified by net file: ECE595/mnist/train_test/var_everything/lenet_train_test11.prototxt
I0426 20:48:36.499893 31293 net.cpp:296] The NetState phase (1) differed from the phase (0) specified by a rule in layer mnist
I0426 20:48:36.499974 31293 net.cpp:53] Initializing net from parameters: 
name: "LeNet"
state {
  phase: TEST
}
layer {
  name: "mnist"
  type: "Data"
  top: "data"
  top: "label"
  include {
    phase: TEST
  }
  transform_param {
    scale: 0.00390625
  }
  data_param {
    source: "examples/mnist/mnist_test_lmdb"
    batch_size: 100
    backend: LMDB
  }
}
layer {
  name: "ip1"
  type: "InnerProduct"
  bottom: "data"
  top: "ip1"
  param {
    lr_mult: 1
  }
  param {
    lr_mult: 2
  }
  inner_product_param {
    num_output: 300
    weight_filler {
      type: "xavier"
    }
    bias_filler {
      type: "constant"
    }
  }
}
layer {
  name: "relu1"
  type: "ReLU"
  bottom: "ip1"
  top: "ip1"
}
layer {
  name: "ip2"
  type: "InnerProduct"
  bottom: "ip1"
  top: "ip2"
  param {
    lr_mult: 1
  }
  param {
    lr_mult: 2
  }
  inner_product_param {
    num_output: 100
    weight_filler {
      type: "xavier"
    }
    bias_filler {
      type: "constant"
    }
  }
}
layer {
  name: "relu2"
  type: "ReLU"
  bottom: "ip2"
  top: "ip2"
}
layer {
  name: "ip3"
  type: "InnerProduct"
  bottom: "ip2"
  top: "ip3"
  param {
    lr_mult: 1
  }
  param {
    lr_mult: 2
  }
  inner_product_param {
    num_output: 10
    weight_filler {
      type: "xavier"
    }
    bias_filler {
      type: "constant"
    }
  }
}
layer {
  name: "relu3"
  type: "ReLU"
  bottom: "ip3"
  top: "ip3"
}
layer {
  name: "accuracy"
  type: "Accuracy"
  bottom: "ip3"
  bottom: "label"
  top: "accuracy"
  include {
    phase: TEST
  }
}
layer {
  name: "loss"
  type: "SoftmaxWithLoss"
  bottom: "ip3"
  bottom: "label"
  top: "loss"
}
I0426 20:48:36.500051 31293 layer_factory.hpp:77] Creating layer mnist
I0426 20:48:36.500104 31293 db_lmdb.cpp:35] Opened lmdb examples/mnist/mnist_test_lmdb
I0426 20:48:36.500118 31293 net.cpp:86] Creating Layer mnist
I0426 20:48:36.500138 31293 net.cpp:382] mnist -> data
I0426 20:48:36.500149 31293 net.cpp:382] mnist -> label
I0426 20:48:36.500247 31293 data_layer.cpp:45] output data size: 100,1,28,28
I0426 20:48:36.502600 31293 net.cpp:124] Setting up mnist
I0426 20:48:36.502616 31293 net.cpp:131] Top shape: 100 1 28 28 (78400)
I0426 20:48:36.502622 31293 net.cpp:131] Top shape: 100 (100)
I0426 20:48:36.502626 31293 net.cpp:139] Memory required for data: 314000
I0426 20:48:36.502640 31293 layer_factory.hpp:77] Creating layer label_mnist_1_split
I0426 20:48:36.502652 31293 net.cpp:86] Creating Layer label_mnist_1_split
I0426 20:48:36.502656 31293 net.cpp:408] label_mnist_1_split <- label
I0426 20:48:36.502667 31293 net.cpp:382] label_mnist_1_split -> label_mnist_1_split_0
I0426 20:48:36.502676 31293 net.cpp:382] label_mnist_1_split -> label_mnist_1_split_1
I0426 20:48:36.502728 31293 net.cpp:124] Setting up label_mnist_1_split
I0426 20:48:36.502735 31293 net.cpp:131] Top shape: 100 (100)
I0426 20:48:36.502739 31293 net.cpp:131] Top shape: 100 (100)
I0426 20:48:36.502743 31293 net.cpp:139] Memory required for data: 314800
I0426 20:48:36.502746 31293 layer_factory.hpp:77] Creating layer ip1
I0426 20:48:36.502753 31293 net.cpp:86] Creating Layer ip1
I0426 20:48:36.502758 31293 net.cpp:408] ip1 <- data
I0426 20:48:36.502763 31293 net.cpp:382] ip1 -> ip1
I0426 20:48:36.504547 31293 net.cpp:124] Setting up ip1
I0426 20:48:36.504559 31293 net.cpp:131] Top shape: 100 300 (30000)
I0426 20:48:36.504562 31293 net.cpp:139] Memory required for data: 434800
I0426 20:48:36.504573 31293 layer_factory.hpp:77] Creating layer relu1
I0426 20:48:36.504580 31293 net.cpp:86] Creating Layer relu1
I0426 20:48:36.504585 31293 net.cpp:408] relu1 <- ip1
I0426 20:48:36.504590 31293 net.cpp:369] relu1 -> ip1 (in-place)
I0426 20:48:36.505645 31293 net.cpp:124] Setting up relu1
I0426 20:48:36.505658 31293 net.cpp:131] Top shape: 100 300 (30000)
I0426 20:48:36.505663 31293 net.cpp:139] Memory required for data: 554800
I0426 20:48:36.505667 31293 layer_factory.hpp:77] Creating layer ip2
I0426 20:48:36.505676 31293 net.cpp:86] Creating Layer ip2
I0426 20:48:36.505681 31293 net.cpp:408] ip2 <- ip1
I0426 20:48:36.505687 31293 net.cpp:382] ip2 -> ip2
I0426 20:48:36.506022 31293 net.cpp:124] Setting up ip2
I0426 20:48:36.506032 31293 net.cpp:131] Top shape: 100 100 (10000)
I0426 20:48:36.506037 31293 net.cpp:139] Memory required for data: 594800
I0426 20:48:36.506047 31293 layer_factory.hpp:77] Creating layer relu2
I0426 20:48:36.506052 31293 net.cpp:86] Creating Layer relu2
I0426 20:48:36.506057 31293 net.cpp:408] relu2 <- ip2
I0426 20:48:36.506062 31293 net.cpp:369] relu2 -> ip2 (in-place)
I0426 20:48:36.506258 31293 net.cpp:124] Setting up relu2
I0426 20:48:36.506269 31293 net.cpp:131] Top shape: 100 100 (10000)
I0426 20:48:36.506274 31293 net.cpp:139] Memory required for data: 634800
I0426 20:48:36.506278 31293 layer_factory.hpp:77] Creating layer ip3
I0426 20:48:36.506297 31293 net.cpp:86] Creating Layer ip3
I0426 20:48:36.506301 31293 net.cpp:408] ip3 <- ip2
I0426 20:48:36.506319 31293 net.cpp:382] ip3 -> ip3
I0426 20:48:36.506453 31293 net.cpp:124] Setting up ip3
I0426 20:48:36.506464 31293 net.cpp:131] Top shape: 100 10 (1000)
I0426 20:48:36.506467 31293 net.cpp:139] Memory required for data: 638800
I0426 20:48:36.506476 31293 layer_factory.hpp:77] Creating layer relu3
I0426 20:48:36.506482 31293 net.cpp:86] Creating Layer relu3
I0426 20:48:36.506485 31293 net.cpp:408] relu3 <- ip3
I0426 20:48:36.506490 31293 net.cpp:369] relu3 -> ip3 (in-place)
I0426 20:48:36.506678 31293 net.cpp:124] Setting up relu3
I0426 20:48:36.506688 31293 net.cpp:131] Top shape: 100 10 (1000)
I0426 20:48:36.506692 31293 net.cpp:139] Memory required for data: 642800
I0426 20:48:36.506696 31293 layer_factory.hpp:77] Creating layer ip3_relu3_0_split
I0426 20:48:36.506703 31293 net.cpp:86] Creating Layer ip3_relu3_0_split
I0426 20:48:36.506706 31293 net.cpp:408] ip3_relu3_0_split <- ip3
I0426 20:48:36.506712 31293 net.cpp:382] ip3_relu3_0_split -> ip3_relu3_0_split_0
I0426 20:48:36.506719 31293 net.cpp:382] ip3_relu3_0_split -> ip3_relu3_0_split_1
I0426 20:48:36.506764 31293 net.cpp:124] Setting up ip3_relu3_0_split
I0426 20:48:36.506772 31293 net.cpp:131] Top shape: 100 10 (1000)
I0426 20:48:36.506777 31293 net.cpp:131] Top shape: 100 10 (1000)
I0426 20:48:36.506780 31293 net.cpp:139] Memory required for data: 650800
I0426 20:48:36.506783 31293 layer_factory.hpp:77] Creating layer accuracy
I0426 20:48:36.506789 31293 net.cpp:86] Creating Layer accuracy
I0426 20:48:36.506793 31293 net.cpp:408] accuracy <- ip3_relu3_0_split_0
I0426 20:48:36.506798 31293 net.cpp:408] accuracy <- label_mnist_1_split_0
I0426 20:48:36.506803 31293 net.cpp:382] accuracy -> accuracy
…
