…
I0426 20:54:51.818449 32745 net.cpp:296] The NetState phase (0) differed from the phase (1) specified by a rule in layer mnist
I0426 20:54:51.818459 32745 net.cpp:296] The NetState phase (0) differed from the phase (1) specified by a rule in layer accuracy
I0426 20:54:51.818569 32745 net.cpp:53] Initializing net from parameters: 
name: "LeNet"
state {
  phase: TRAIN
  level: 0
  stage: ""
}
layer {
  name: "mnist"
  type: "Data"
  top: "data"
  top: "label"
  include {
    phase: TRAIN
  }
  transform_param {
    scale: 0.00390625
  }
  data_param {
    source: "examples/mnist/mnist_train_lmdb"
    batch_size: 64
    backend: LMDB
  }
}
layer {
  name: "conv0"
  type: "Convolution"
  bottom: "data"
  top: "conv0"
  param {
    lr_mult: 1
  }
  param {
    lr_mult: 2
  }
  convolution_param {
    num_output: 50
    kernel_size: 5
    stride: 1
    weight_filler {
      type: "xavier"
    }
    bias_filler {
      type: "constant"
    }
  }
}
layer {
  name: "pool0"
  type: "Pooling"
  bottom: "conv0"
  top: "pool0"
  pooling_param {
    pool: MAX
    kernel_size: 2
    stride: 2
  }
}
layer {
  name: "conv1"
  type: "Convolution"
  bottom: "pool0"
  top: "conv1"
  param {
    lr_mult: 1
  }
  param {
    lr_mult: 2
  }
  convolution_param {
    num_output: 50
    kernel_size: 5
    stride: 1
    weight_filler {
      type: "xavier"
    }
    bias_filler {
      type: "constant"
    }
  }
}
layer {
  name: "pool1"
  type: "Pooling"
  bottom: "conv1"
  top: "pool1"
  pooling_param {
    pool: MAX
    kernel_size: 2
    stride: 2
  }
}
layer {
  name: "ip1"
  type: "InnerProduct"
  bottom: "pool1"
  top: "ip1"
  param {
    lr_mult: 1
  }
  param {
    lr_mult: 2
  }
  inner_product_param {
    num_output: 10
    weight_filler {
      type: "xavier"
    }
    bias_filler {
      type: "constant"
    }
  }
}
layer {
  name: "relu1"
  type: "ReLU"
  bottom: "ip1"
  top: "ip1"
}
layer {
  name: "loss"
  type: "SoftmaxWithLoss"
  bottom: "ip1"
  bottom: "label"
  top: "loss"
}
I0426 20:54:51.818625 32745 layer_factory.hpp:77] Creating layer mnist
I0426 20:54:51.818718 32745 db_lmdb.cpp:35] Opened lmdb examples/mnist/mnist_train_lmdb
I0426 20:54:51.818739 32745 net.cpp:86] Creating Layer mnist
I0426 20:54:51.818747 32745 net.cpp:382] mnist -> data
I0426 20:54:51.818765 32745 net.cpp:382] mnist -> label
I0426 20:54:51.819707 32745 data_layer.cpp:45] output data size: 64,1,28,28
I0426 20:54:51.821894 32745 net.cpp:124] Setting up mnist
I0426 20:54:51.821909 32745 net.cpp:131] Top shape: 64 1 28 28 (50176)
I0426 20:54:51.821914 32745 net.cpp:131] Top shape: 64 (64)
I0426 20:54:51.821918 32745 net.cpp:139] Memory required for data: 200960
I0426 20:54:51.821923 32745 layer_factory.hpp:77] Creating layer conv0
I0426 20:54:51.821954 32745 net.cpp:86] Creating Layer conv0
I0426 20:54:51.821957 32745 net.cpp:408] conv0 <- data
I0426 20:54:51.821967 32745 net.cpp:382] conv0 -> conv0
I0426 20:54:52.058802 32745 net.cpp:124] Setting up conv0
I0426 20:54:52.058827 32745 net.cpp:131] Top shape: 64 50 24 24 (1843200)
I0426 20:54:52.058830 32745 net.cpp:139] Memory required for data: 7573760
I0426 20:54:52.058845 32745 layer_factory.hpp:77] Creating layer pool0
I0426 20:54:52.058857 32745 net.cpp:86] Creating Layer pool0
I0426 20:54:52.058861 32745 net.cpp:408] pool0 <- conv0
I0426 20:54:52.058867 32745 net.cpp:382] pool0 -> pool0
I0426 20:54:52.058928 32745 net.cpp:124] Setting up pool0
I0426 20:54:52.058933 32745 net.cpp:131] Top shape: 64 50 12 12 (460800)
I0426 20:54:52.058965 32745 net.cpp:139] Memory required for data: 9416960
I0426 20:54:52.058969 32745 layer_factory.hpp:77] Creating layer conv1
I0426 20:54:52.058980 32745 net.cpp:86] Creating Layer conv1
I0426 20:54:52.058984 32745 net.cpp:408] conv1 <- pool0
I0426 20:54:52.058990 32745 net.cpp:382] conv1 -> conv1
I0426 20:54:52.061336 32745 net.cpp:124] Setting up conv1
I0426 20:54:52.061364 32745 net.cpp:131] Top shape: 64 50 8 8 (204800)
I0426 20:54:52.061368 32745 net.cpp:139] Memory required for data: 10236160
I0426 20:54:52.061377 32745 layer_factory.hpp:77] Creating layer pool1
I0426 20:54:52.061384 32745 net.cpp:86] Creating Layer pool1
I0426 20:54:52.061388 32745 net.cpp:408] pool1 <- conv1
I0426 20:54:52.061391 32745 net.cpp:382] pool1 -> pool1
I0426 20:54:52.061442 32745 net.cpp:124] Setting up pool1
I0426 20:54:52.061449 32745 net.cpp:131] Top shape: 64 50 4 4 (51200)
I0426 20:54:52.061451 32745 net.cpp:139] Memory required for data: 10440960
I0426 20:54:52.061455 32745 layer_factory.hpp:77] Creating layer ip1
I0426 20:54:52.061460 32745 net.cpp:86] Creating Layer ip1
I0426 20:54:52.061477 32745 net.cpp:408] ip1 <- pool1
I0426 20:54:52.061483 32745 net.cpp:382] ip1 -> ip1
I0426 20:54:52.062444 32745 net.cpp:124] Setting up ip1
I0426 20:54:52.062456 32745 net.cpp:131] Top shape: 64 10 (640)
I0426 20:54:52.062459 32745 net.cpp:139] Memory required for data: 10443520
I0426 20:54:52.062467 32745 layer_factory.hpp:77] Creating layer relu1
I0426 20:54:52.062489 32745 net.cpp:86] Creating Layer relu1
I0426 20:54:52.062492 32745 net.cpp:408] relu1 <- ip1
I0426 20:54:52.062496 32745 net.cpp:369] relu1 -> ip1 (in-place)
I0426 20:54:52.062685 32745 net.cpp:124] Setting up relu1
I0426 20:54:52.062693 32745 net.cpp:131] Top shape: 64 10 (640)
I0426 20:54:52.062696 32745 net.cpp:139] Memory required for data: 10446080
I0426 20:54:52.062700 32745 layer_factory.hpp:77] Creating layer loss
I0426 20:54:52.062705 32745 net.cpp:86] Creating Layer loss
I0426 20:54:52.062708 32745 net.cpp:408] loss <- ip1
I0426 20:54:52.062711 32745 net.cpp:408] loss <- label
I0426 20:54:52.062731 32745 net.cpp:382] loss -> loss
I0426 20:54:52.062749 32745 layer_factory.hpp:77] Creating layer loss
…
I0426 20:54:52.064081 32745 solver.cpp:173] Creating test net (#0) specified by net file: ECE595/mnist/train_test/var_everything/lenet_train_test168.prototxt
I0426 20:54:52.064105 32745 net.cpp:296] The NetState phase (1) differed from the phase (0) specified by a rule in layer mnist
I0426 20:54:52.064178 32745 net.cpp:53] Initializing net from parameters: 
name: "LeNet"
state {
  phase: TEST
}
layer {
  name: "mnist"
  type: "Data"
  top: "data"
  top: "label"
  include {
    phase: TEST
  }
  transform_param {
    scale: 0.00390625
  }
  data_param {
    source: "examples/mnist/mnist_test_lmdb"
    batch_size: 100
    backend: LMDB
  }
}
layer {
  name: "conv0"
  type: "Convolution"
  bottom: "data"
  top: "conv0"
  param {
    lr_mult: 1
  }
  param {
    lr_mult: 2
  }
  convolution_param {
    num_output: 50
    kernel_size: 5
    stride: 1
    weight_filler {
      type: "xavier"
    }
    bias_filler {
      type: "constant"
    }
  }
}
layer {
  name: "pool0"
  type: "Pooling"
  bottom: "conv0"
  top: "pool0"
  pooling_param {
    pool: MAX
    kernel_size: 2
    stride: 2
  }
}
layer {
  name: "conv1"
  type: "Convolution"
  bottom: "pool0"
  top: "conv1"
  param {
    lr_mult: 1
  }
  param {
    lr_mult: 2
  }
  convolution_param {
    num_output: 50
    kernel_size: 5
    stride: 1
    weight_filler {
      type: "xavier"
    }
    bias_filler {
      type: "constant"
    }
  }
}
layer {
  name: "pool1"
  type: "Pooling"
  bottom: "conv1"
  top: "pool1"
  pooling_param {
    pool: MAX
    kernel_size: 2
    stride: 2
  }
}
layer {
  name: "ip1"
  type: "InnerProduct"
  bottom: "pool1"
  top: "ip1"
  param {
    lr_mult: 1
  }
  param {
    lr_mult: 2
  }
  inner_product_param {
    num_output: 10
    weight_filler {
      type: "xavier"
    }
    bias_filler {
      type: "constant"
    }
  }
}
layer {
  name: "relu1"
  type: "ReLU"
  bottom: "ip1"
  top: "ip1"
}
layer {
  name: "accuracy"
  type: "Accuracy"
  bottom: "ip1"
  bottom: "label"
  top: "accuracy"
  include {
    phase: TEST
  }
}
layer {
  name: "loss"
  type: "SoftmaxWithLoss"
  bottom: "ip1"
  bottom: "label"
  top: "loss"
}
I0426 20:54:52.064247 32745 layer_factory.hpp:77] Creating layer mnist
I0426 20:54:52.064290 32745 db_lmdb.cpp:35] Opened lmdb examples/mnist/mnist_test_lmdb
I0426 20:54:52.064301 32745 net.cpp:86] Creating Layer mnist
I0426 20:54:52.064306 32745 net.cpp:382] mnist -> data
I0426 20:54:52.064312 32745 net.cpp:382] mnist -> label
I0426 20:54:52.064410 32745 data_layer.cpp:45] output data size: 100,1,28,28
I0426 20:54:52.066576 32745 net.cpp:124] Setting up mnist
I0426 20:54:52.066603 32745 net.cpp:131] Top shape: 100 1 28 28 (78400)
I0426 20:54:52.066607 32745 net.cpp:131] Top shape: 100 (100)
I0426 20:54:52.066611 32745 net.cpp:139] Memory required for data: 314000
I0426 20:54:52.066613 32745 layer_factory.hpp:77] Creating layer label_mnist_1_split
I0426 20:54:52.066619 32745 net.cpp:86] Creating Layer label_mnist_1_split
I0426 20:54:52.066622 32745 net.cpp:408] label_mnist_1_split <- label
I0426 20:54:52.066642 32745 net.cpp:382] label_mnist_1_split -> label_mnist_1_split_0
I0426 20:54:52.066649 32745 net.cpp:382] label_mnist_1_split -> label_mnist_1_split_1
I0426 20:54:52.066759 32745 net.cpp:124] Setting up label_mnist_1_split
I0426 20:54:52.066766 32745 net.cpp:131] Top shape: 100 (100)
I0426 20:54:52.066771 32745 net.cpp:131] Top shape: 100 (100)
I0426 20:54:52.066773 32745 net.cpp:139] Memory required for data: 314800
I0426 20:54:52.066776 32745 layer_factory.hpp:77] Creating layer conv0
I0426 20:54:52.066786 32745 net.cpp:86] Creating Layer conv0
I0426 20:54:52.066789 32745 net.cpp:408] conv0 <- data
I0426 20:54:52.066794 32745 net.cpp:382] conv0 -> conv0
I0426 20:54:52.067670 32745 net.cpp:124] Setting up conv0
I0426 20:54:52.067683 32745 net.cpp:131] Top shape: 100 50 24 24 (2880000)
I0426 20:54:52.067687 32745 net.cpp:139] Memory required for data: 11834800
I0426 20:54:52.067705 32745 layer_factory.hpp:77] Creating layer pool0
I0426 20:54:52.067713 32745 net.cpp:86] Creating Layer pool0
I0426 20:54:52.067730 32745 net.cpp:408] pool0 <- conv0
I0426 20:54:52.067737 32745 net.cpp:382] pool0 -> pool0
I0426 20:54:52.067791 32745 net.cpp:124] Setting up pool0
I0426 20:54:52.067800 32745 net.cpp:131] Top shape: 100 50 12 12 (720000)
I0426 20:54:52.067802 32745 net.cpp:139] Memory required for data: 14714800
I0426 20:54:52.067806 32745 layer_factory.hpp:77] Creating layer conv1
I0426 20:54:52.067818 32745 net.cpp:86] Creating Layer conv1
I0426 20:54:52.067821 32745 net.cpp:408] conv1 <- pool0
I0426 20:54:52.067827 32745 net.cpp:382] conv1 -> conv1
I0426 20:54:52.069869 32745 net.cpp:124] Setting up conv1
I0426 20:54:52.069897 32745 net.cpp:131] Top shape: 100 50 8 8 (320000)
I0426 20:54:52.069900 32745 net.cpp:139] Memory required for data: 15994800
I0426 20:54:52.069910 32745 layer_factory.hpp:77] Creating layer pool1
I0426 20:54:52.069916 32745 net.cpp:86] Creating Layer pool1
I0426 20:54:52.069929 32745 net.cpp:408] pool1 <- conv1
I0426 20:54:52.069936 32745 net.cpp:382] pool1 -> pool1
I0426 20:54:52.069989 32745 net.cpp:124] Setting up pool1
I0426 20:54:52.069995 32745 net.cpp:131] Top shape: 100 50 4 4 (80000)
I0426 20:54:52.069998 32745 net.cpp:139] Memory required for data: 16314800
I0426 20:54:52.070001 32745 layer_factory.hpp:77] Creating layer ip1
I0426 20:54:52.070008 32745 net.cpp:86] Creating Layer ip1
I0426 20:54:52.070010 32745 net.cpp:408] ip1 <- pool1
I0426 20:54:52.070017 32745 net.cpp:382] ip1 -> ip1
I0426 20:54:52.070161 32745 net.cpp:124] Setting up ip1
I0426 20:54:52.070169 32745 net.cpp:131] Top shape: 100 10 (1000)
I0426 20:54:52.070173 32745 net.cpp:139] Memory required for data: 16318800
I0426 20:54:52.070179 32745 layer_factory.hpp:77] Creating layer relu1
I0426 20:54:52.070184 32745 net.cpp:86] Creating Layer relu1
I0426 20:54:52.070188 32745 net.cpp:408] relu1 <- ip1
I0426 20:54:52.070194 32745 net.cpp:369] relu1 -> ip1 (in-place)
I0426 20:54:52.071094 32745 net.cpp:124] Setting up relu1
I0426 20:54:52.071105 32745 net.cpp:131] Top shape: 100 10 (1000)
I0426 20:54:52.071123 32745 net.cpp:139] Memory required for data: 16322800
I0426 20:54:52.071127 32745 layer_factory.hpp:77] Creating layer ip1_relu1_0_split
I0426 20:54:52.071135 32745 net.cpp:86] Creating Layer ip1_relu1_0_split
I0426 20:54:52.071137 32745 net.cpp:408] ip1_relu1_0_split <- ip1
I0426 20:54:52.071159 32745 net.cpp:382] ip1_relu1_0_split -> ip1_relu1_0_split_0
I0426 20:54:52.071166 32745 net.cpp:382] ip1_relu1_0_split -> ip1_relu1_0_split_1
I0426 20:54:52.071238 32745 net.cpp:124] Setting up ip1_relu1_0_split
I0426 20:54:52.071244 32745 net.cpp:131] Top shape: 100 10 (1000)
I0426 20:54:52.071254 32745 net.cpp:131] Top shape: 100 10 (1000)
I0426 20:54:52.071256 32745 net.cpp:139] Memory required for data: 16330800
I0426 20:54:52.071259 32745 layer_factory.hpp:77] Creating layer accuracy
I0426 20:54:52.071270 32745 net.cpp:86] Creating Layer accuracy
I0426 20:54:52.071274 32745 net.cpp:408] accuracy <- ip1_relu1_0_split_0
I0426 20:54:52.071279 32745 net.cpp:408] accuracy <- label_mnist_1_split_0
I0426 20:54:52.071285 32745 net.cpp:382] accuracy -> accuracy
…
