…
I0426 20:50:33.170295 31780 net.cpp:296] The NetState phase (0) differed from the phase (1) specified by a rule in layer mnist
I0426 20:50:33.170315 31780 net.cpp:296] The NetState phase (0) differed from the phase (1) specified by a rule in layer accuracy
I0426 20:50:33.170420 31780 net.cpp:53] Initializing net from parameters: 
name: "LeNet"
state {
  phase: TRAIN
  level: 0
  stage: ""
}
layer {
  name: "mnist"
  type: "Data"
  top: "data"
  top: "label"
  include {
    phase: TRAIN
  }
  transform_param {
    scale: 0.00390625
  }
  data_param {
    source: "examples/mnist/mnist_train_lmdb"
    batch_size: 64
    backend: LMDB
  }
}
layer {
  name: "conv0"
  type: "Convolution"
  bottom: "data"
  top: "conv0"
  param {
    lr_mult: 1
  }
  param {
    lr_mult: 2
  }
  convolution_param {
    num_output: 10
    kernel_size: 5
    stride: 1
    weight_filler {
      type: "xavier"
    }
    bias_filler {
      type: "constant"
    }
  }
}
layer {
  name: "pool0"
  type: "Pooling"
  bottom: "conv0"
  top: "pool0"
  pooling_param {
    pool: MAX
    kernel_size: 2
    stride: 2
  }
}
layer {
  name: "conv1"
  type: "Convolution"
  bottom: "pool0"
  top: "conv1"
  param {
    lr_mult: 1
  }
  param {
    lr_mult: 2
  }
  convolution_param {
    num_output: 10
    kernel_size: 5
    stride: 1
    weight_filler {
      type: "xavier"
    }
    bias_filler {
      type: "constant"
    }
  }
}
layer {
  name: "pool1"
  type: "Pooling"
  bottom: "conv1"
  top: "pool1"
  pooling_param {
    pool: MAX
    kernel_size: 2
    stride: 2
  }
}
layer {
  name: "ip1"
  type: "InnerProduct"
  bottom: "pool1"
  top: "ip1"
  param {
    lr_mult: 1
  }
  param {
    lr_mult: 2
  }
  inner_product_param {
    num_output: 100
    weight_filler {
      type: "xavier"
    }
    bias_filler {
      type: "constant"
    }
  }
}
layer {
  name: "relu1"
  type: "ReLU"
  bottom: "ip1"
  top: "ip1"
}
layer {
  name: "ip2"
  type: "InnerProduct"
  bottom: "ip1"
  top: "ip2"
  param {
    lr_mult: 1
  }
  param {
    lr_mult: 2
  }
  inner_product_param {
    num_output: 100
    weight_filler {
      type: "xavier"
    }
    bias_filler {
      type: "constant"
    }
  }
}
layer {
  name: "relu2"
  type: "ReLU"
  bottom: "ip2"
  top: "ip2"
}
layer {
  name: "ip3"
  type: "InnerProduct"
  bottom: "ip2"
  top: "ip3"
  param {
    lr_mult: 1
  }
  param {
    lr_mult: 2
  }
  inner_product_param {
    num_output: 10
    weight_filler {
      type: "xavier"
    }
    bias_filler {
      type: "constant"
    }
  }
}
layer {
  name: "relu3"
  type: "ReLU"
  bottom: "ip3"
  top: "ip3"
}
layer {
  name: "loss"
  type: "SoftmaxWithLoss"
  bottom: "ip3"
  bottom: "label"
  top: "loss"
}
I0426 20:50:33.170501 31780 layer_factory.hpp:77] Creating layer mnist
I0426 20:50:33.170603 31780 db_lmdb.cpp:35] Opened lmdb examples/mnist/mnist_train_lmdb
I0426 20:50:33.170627 31780 net.cpp:86] Creating Layer mnist
I0426 20:50:33.170635 31780 net.cpp:382] mnist -> data
I0426 20:50:33.170658 31780 net.cpp:382] mnist -> label
I0426 20:50:33.171752 31780 data_layer.cpp:45] output data size: 64,1,28,28
I0426 20:50:33.174283 31780 net.cpp:124] Setting up mnist
I0426 20:50:33.174301 31780 net.cpp:131] Top shape: 64 1 28 28 (50176)
I0426 20:50:33.174309 31780 net.cpp:131] Top shape: 64 (64)
I0426 20:50:33.174312 31780 net.cpp:139] Memory required for data: 200960
I0426 20:50:33.174319 31780 layer_factory.hpp:77] Creating layer conv0
I0426 20:50:33.174347 31780 net.cpp:86] Creating Layer conv0
I0426 20:50:33.174368 31780 net.cpp:408] conv0 <- data
I0426 20:50:33.174381 31780 net.cpp:382] conv0 -> conv0
I0426 20:50:33.457115 31780 net.cpp:124] Setting up conv0
I0426 20:50:33.457141 31780 net.cpp:131] Top shape: 64 10 24 24 (368640)
I0426 20:50:33.457145 31780 net.cpp:139] Memory required for data: 1675520
I0426 20:50:33.457160 31780 layer_factory.hpp:77] Creating layer pool0
I0426 20:50:33.457172 31780 net.cpp:86] Creating Layer pool0
I0426 20:50:33.457176 31780 net.cpp:408] pool0 <- conv0
I0426 20:50:33.457181 31780 net.cpp:382] pool0 -> pool0
I0426 20:50:33.457226 31780 net.cpp:124] Setting up pool0
I0426 20:50:33.457231 31780 net.cpp:131] Top shape: 64 10 12 12 (92160)
I0426 20:50:33.457233 31780 net.cpp:139] Memory required for data: 2044160
I0426 20:50:33.457237 31780 layer_factory.hpp:77] Creating layer conv1
I0426 20:50:33.457247 31780 net.cpp:86] Creating Layer conv1
I0426 20:50:33.457262 31780 net.cpp:408] conv1 <- pool0
I0426 20:50:33.457265 31780 net.cpp:382] conv1 -> conv1
I0426 20:50:33.459904 31780 net.cpp:124] Setting up conv1
I0426 20:50:33.459918 31780 net.cpp:131] Top shape: 64 10 8 8 (40960)
I0426 20:50:33.459923 31780 net.cpp:139] Memory required for data: 2208000
I0426 20:50:33.459930 31780 layer_factory.hpp:77] Creating layer pool1
I0426 20:50:33.459938 31780 net.cpp:86] Creating Layer pool1
I0426 20:50:33.459940 31780 net.cpp:408] pool1 <- conv1
I0426 20:50:33.459945 31780 net.cpp:382] pool1 -> pool1
I0426 20:50:33.459980 31780 net.cpp:124] Setting up pool1
I0426 20:50:33.459985 31780 net.cpp:131] Top shape: 64 10 4 4 (10240)
I0426 20:50:33.459987 31780 net.cpp:139] Memory required for data: 2248960
I0426 20:50:33.459990 31780 layer_factory.hpp:77] Creating layer ip1
I0426 20:50:33.459996 31780 net.cpp:86] Creating Layer ip1
I0426 20:50:33.460000 31780 net.cpp:408] ip1 <- pool1
I0426 20:50:33.460003 31780 net.cpp:382] ip1 -> ip1
I0426 20:50:33.461007 31780 net.cpp:124] Setting up ip1
I0426 20:50:33.461019 31780 net.cpp:131] Top shape: 64 100 (6400)
I0426 20:50:33.461037 31780 net.cpp:139] Memory required for data: 2274560
I0426 20:50:33.461060 31780 layer_factory.hpp:77] Creating layer relu1
I0426 20:50:33.461066 31780 net.cpp:86] Creating Layer relu1
I0426 20:50:33.461068 31780 net.cpp:408] relu1 <- ip1
I0426 20:50:33.461072 31780 net.cpp:369] relu1 -> ip1 (in-place)
I0426 20:50:33.461277 31780 net.cpp:124] Setting up relu1
I0426 20:50:33.461284 31780 net.cpp:131] Top shape: 64 100 (6400)
I0426 20:50:33.461288 31780 net.cpp:139] Memory required for data: 2300160
I0426 20:50:33.461292 31780 layer_factory.hpp:77] Creating layer ip2
I0426 20:50:33.461297 31780 net.cpp:86] Creating Layer ip2
I0426 20:50:33.461300 31780 net.cpp:408] ip2 <- ip1
I0426 20:50:33.461305 31780 net.cpp:382] ip2 -> ip2
I0426 20:50:33.461439 31780 net.cpp:124] Setting up ip2
I0426 20:50:33.461447 31780 net.cpp:131] Top shape: 64 100 (6400)
I0426 20:50:33.461449 31780 net.cpp:139] Memory required for data: 2325760
I0426 20:50:33.461455 31780 layer_factory.hpp:77] Creating layer relu2
I0426 20:50:33.461462 31780 net.cpp:86] Creating Layer relu2
I0426 20:50:33.461464 31780 net.cpp:408] relu2 <- ip2
I0426 20:50:33.461467 31780 net.cpp:369] relu2 -> ip2 (in-place)
I0426 20:50:33.462252 31780 net.cpp:124] Setting up relu2
I0426 20:50:33.462263 31780 net.cpp:131] Top shape: 64 100 (6400)
I0426 20:50:33.462277 31780 net.cpp:139] Memory required for data: 2351360
I0426 20:50:33.462281 31780 layer_factory.hpp:77] Creating layer ip3
I0426 20:50:33.462287 31780 net.cpp:86] Creating Layer ip3
I0426 20:50:33.462291 31780 net.cpp:408] ip3 <- ip2
I0426 20:50:33.462296 31780 net.cpp:382] ip3 -> ip3
I0426 20:50:33.462424 31780 net.cpp:124] Setting up ip3
I0426 20:50:33.462430 31780 net.cpp:131] Top shape: 64 10 (640)
I0426 20:50:33.462433 31780 net.cpp:139] Memory required for data: 2353920
I0426 20:50:33.462441 31780 layer_factory.hpp:77] Creating layer relu3
I0426 20:50:33.462446 31780 net.cpp:86] Creating Layer relu3
I0426 20:50:33.462450 31780 net.cpp:408] relu3 <- ip3
I0426 20:50:33.462453 31780 net.cpp:369] relu3 -> ip3 (in-place)
I0426 20:50:33.462604 31780 net.cpp:124] Setting up relu3
I0426 20:50:33.462613 31780 net.cpp:131] Top shape: 64 10 (640)
I0426 20:50:33.462616 31780 net.cpp:139] Memory required for data: 2356480
I0426 20:50:33.462620 31780 layer_factory.hpp:77] Creating layer loss
I0426 20:50:33.462625 31780 net.cpp:86] Creating Layer loss
I0426 20:50:33.462627 31780 net.cpp:408] loss <- ip3
I0426 20:50:33.462631 31780 net.cpp:408] loss <- label
I0426 20:50:33.462636 31780 net.cpp:382] loss -> loss
I0426 20:50:33.462651 31780 layer_factory.hpp:77] Creating layer loss
…
I0426 20:50:33.463260 31780 solver.cpp:173] Creating test net (#0) specified by net file: ECE595/mnist/train_test/var_everything/lenet_train_test63.prototxt
I0426 20:50:33.463315 31780 net.cpp:296] The NetState phase (1) differed from the phase (0) specified by a rule in layer mnist
I0426 20:50:33.463404 31780 net.cpp:53] Initializing net from parameters: 
name: "LeNet"
state {
  phase: TEST
}
layer {
  name: "mnist"
  type: "Data"
  top: "data"
  top: "label"
  include {
    phase: TEST
  }
  transform_param {
    scale: 0.00390625
  }
  data_param {
    source: "examples/mnist/mnist_test_lmdb"
    batch_size: 100
    backend: LMDB
  }
}
layer {
  name: "conv0"
  type: "Convolution"
  bottom: "data"
  top: "conv0"
  param {
    lr_mult: 1
  }
  param {
    lr_mult: 2
  }
  convolution_param {
    num_output: 10
    kernel_size: 5
    stride: 1
    weight_filler {
      type: "xavier"
    }
    bias_filler {
      type: "constant"
    }
  }
}
layer {
  name: "pool0"
  type: "Pooling"
  bottom: "conv0"
  top: "pool0"
  pooling_param {
    pool: MAX
    kernel_size: 2
    stride: 2
  }
}
layer {
  name: "conv1"
  type: "Convolution"
  bottom: "pool0"
  top: "conv1"
  param {
    lr_mult: 1
  }
  param {
    lr_mult: 2
  }
  convolution_param {
    num_output: 10
    kernel_size: 5
    stride: 1
    weight_filler {
      type: "xavier"
    }
    bias_filler {
      type: "constant"
    }
  }
}
layer {
  name: "pool1"
  type: "Pooling"
  bottom: "conv1"
  top: "pool1"
  pooling_param {
    pool: MAX
    kernel_size: 2
    stride: 2
  }
}
layer {
  name: "ip1"
  type: "InnerProduct"
  bottom: "pool1"
  top: "ip1"
  param {
    lr_mult: 1
  }
  param {
    lr_mult: 2
  }
  inner_product_param {
    num_output: 100
    weight_filler {
      type: "xavier"
    }
    bias_filler {
      type: "constant"
    }
  }
}
layer {
  name: "relu1"
  type: "ReLU"
  bottom: "ip1"
  top: "ip1"
}
layer {
  name: "ip2"
  type: "InnerProduct"
  bottom: "ip1"
  top: "ip2"
  param {
    lr_mult: 1
  }
  param {
    lr_mult: 2
  }
  inner_product_param {
    num_output: 100
    weight_filler {
      type: "xavier"
    }
    bias_filler {
      type: "constant"
    }
  }
}
layer {
  name: "relu2"
  type: "ReLU"
  bottom: "ip2"
  top: "ip2"
}
layer {
  name: "ip3"
  type: "InnerProduct"
  bottom: "ip2"
  top: "ip3"
  param {
    lr_mult: 1
  }
  param {
    lr_mult: 2
  }
  inner_product_param {
    num_output: 10
    weight_filler {
      type: "xavier"
    }
    bias_filler {
      type: "constant"
    }
  }
}
layer {
  name: "relu3"
  type: "ReLU"
  bottom: "ip3"
  top: "ip3"
}
layer {
  name: "accuracy"
  type: "Accuracy"
  bottom: "ip3"
  bottom: "label"
  top: "accuracy"
  include {
    phase: TEST
  }
}
layer {
  name: "loss"
  type: "SoftmaxWithLoss"
  bottom: "ip3"
  bottom: "label"
  top: "loss"
}
I0426 20:50:33.463496 31780 layer_factory.hpp:77] Creating layer mnist
I0426 20:50:33.463541 31780 db_lmdb.cpp:35] Opened lmdb examples/mnist/mnist_test_lmdb
I0426 20:50:33.463552 31780 net.cpp:86] Creating Layer mnist
I0426 20:50:33.463557 31780 net.cpp:382] mnist -> data
I0426 20:50:33.463564 31780 net.cpp:382] mnist -> label
I0426 20:50:33.463641 31780 data_layer.cpp:45] output data size: 100,1,28,28
I0426 20:50:33.465544 31780 net.cpp:124] Setting up mnist
I0426 20:50:33.465557 31780 net.cpp:131] Top shape: 100 1 28 28 (78400)
I0426 20:50:33.465562 31780 net.cpp:131] Top shape: 100 (100)
I0426 20:50:33.465565 31780 net.cpp:139] Memory required for data: 314000
I0426 20:50:33.465569 31780 layer_factory.hpp:77] Creating layer label_mnist_1_split
I0426 20:50:33.465575 31780 net.cpp:86] Creating Layer label_mnist_1_split
I0426 20:50:33.465579 31780 net.cpp:408] label_mnist_1_split <- label
I0426 20:50:33.465582 31780 net.cpp:382] label_mnist_1_split -> label_mnist_1_split_0
I0426 20:50:33.465590 31780 net.cpp:382] label_mnist_1_split -> label_mnist_1_split_1
I0426 20:50:33.465634 31780 net.cpp:124] Setting up label_mnist_1_split
I0426 20:50:33.465641 31780 net.cpp:131] Top shape: 100 (100)
I0426 20:50:33.465644 31780 net.cpp:131] Top shape: 100 (100)
I0426 20:50:33.465646 31780 net.cpp:139] Memory required for data: 314800
I0426 20:50:33.465651 31780 layer_factory.hpp:77] Creating layer conv0
I0426 20:50:33.465658 31780 net.cpp:86] Creating Layer conv0
I0426 20:50:33.465662 31780 net.cpp:408] conv0 <- data
I0426 20:50:33.465667 31780 net.cpp:382] conv0 -> conv0
I0426 20:50:33.467144 31780 net.cpp:124] Setting up conv0
I0426 20:50:33.467157 31780 net.cpp:131] Top shape: 100 10 24 24 (576000)
I0426 20:50:33.467160 31780 net.cpp:139] Memory required for data: 2618800
I0426 20:50:33.467169 31780 layer_factory.hpp:77] Creating layer pool0
I0426 20:50:33.467175 31780 net.cpp:86] Creating Layer pool0
I0426 20:50:33.467178 31780 net.cpp:408] pool0 <- conv0
I0426 20:50:33.467182 31780 net.cpp:382] pool0 -> pool0
I0426 20:50:33.467226 31780 net.cpp:124] Setting up pool0
I0426 20:50:33.467231 31780 net.cpp:131] Top shape: 100 10 12 12 (144000)
I0426 20:50:33.467234 31780 net.cpp:139] Memory required for data: 3194800
I0426 20:50:33.467237 31780 layer_factory.hpp:77] Creating layer conv1
I0426 20:50:33.467245 31780 net.cpp:86] Creating Layer conv1
I0426 20:50:33.467248 31780 net.cpp:408] conv1 <- pool0
I0426 20:50:33.467253 31780 net.cpp:382] conv1 -> conv1
I0426 20:50:33.469635 31780 net.cpp:124] Setting up conv1
I0426 20:50:33.469648 31780 net.cpp:131] Top shape: 100 10 8 8 (64000)
I0426 20:50:33.469652 31780 net.cpp:139] Memory required for data: 3450800
I0426 20:50:33.469661 31780 layer_factory.hpp:77] Creating layer pool1
I0426 20:50:33.469667 31780 net.cpp:86] Creating Layer pool1
I0426 20:50:33.469674 31780 net.cpp:408] pool1 <- conv1
I0426 20:50:33.469694 31780 net.cpp:382] pool1 -> pool1
I0426 20:50:33.469750 31780 net.cpp:124] Setting up pool1
I0426 20:50:33.469758 31780 net.cpp:131] Top shape: 100 10 4 4 (16000)
I0426 20:50:33.469777 31780 net.cpp:139] Memory required for data: 3514800
I0426 20:50:33.469780 31780 layer_factory.hpp:77] Creating layer ip1
I0426 20:50:33.469801 31780 net.cpp:86] Creating Layer ip1
I0426 20:50:33.469805 31780 net.cpp:408] ip1 <- pool1
I0426 20:50:33.469810 31780 net.cpp:382] ip1 -> ip1
I0426 20:50:33.470031 31780 net.cpp:124] Setting up ip1
I0426 20:50:33.470041 31780 net.cpp:131] Top shape: 100 100 (10000)
I0426 20:50:33.470057 31780 net.cpp:139] Memory required for data: 3554800
I0426 20:50:33.470065 31780 layer_factory.hpp:77] Creating layer relu1
I0426 20:50:33.470072 31780 net.cpp:86] Creating Layer relu1
I0426 20:50:33.470075 31780 net.cpp:408] relu1 <- ip1
I0426 20:50:33.470079 31780 net.cpp:369] relu1 -> ip1 (in-place)
I0426 20:50:33.470276 31780 net.cpp:124] Setting up relu1
I0426 20:50:33.470288 31780 net.cpp:131] Top shape: 100 100 (10000)
I0426 20:50:33.470293 31780 net.cpp:139] Memory required for data: 3594800
I0426 20:50:33.470295 31780 layer_factory.hpp:77] Creating layer ip2
I0426 20:50:33.470302 31780 net.cpp:86] Creating Layer ip2
I0426 20:50:33.470305 31780 net.cpp:408] ip2 <- ip1
I0426 20:50:33.470310 31780 net.cpp:382] ip2 -> ip2
I0426 20:50:33.470453 31780 net.cpp:124] Setting up ip2
I0426 20:50:33.470460 31780 net.cpp:131] Top shape: 100 100 (10000)
I0426 20:50:33.470470 31780 net.cpp:139] Memory required for data: 3634800
I0426 20:50:33.470477 31780 layer_factory.hpp:77] Creating layer relu2
I0426 20:50:33.470482 31780 net.cpp:86] Creating Layer relu2
I0426 20:50:33.470485 31780 net.cpp:408] relu2 <- ip2
I0426 20:50:33.470489 31780 net.cpp:369] relu2 -> ip2 (in-place)
I0426 20:50:33.470633 31780 net.cpp:124] Setting up relu2
I0426 20:50:33.470643 31780 net.cpp:131] Top shape: 100 100 (10000)
I0426 20:50:33.470645 31780 net.cpp:139] Memory required for data: 3674800
I0426 20:50:33.470649 31780 layer_factory.hpp:77] Creating layer ip3
I0426 20:50:33.470654 31780 net.cpp:86] Creating Layer ip3
I0426 20:50:33.470656 31780 net.cpp:408] ip3 <- ip2
I0426 20:50:33.470661 31780 net.cpp:382] ip3 -> ip3
I0426 20:50:33.470772 31780 net.cpp:124] Setting up ip3
I0426 20:50:33.470780 31780 net.cpp:131] Top shape: 100 10 (1000)
I0426 20:50:33.470783 31780 net.cpp:139] Memory required for data: 3678800
I0426 20:50:33.470791 31780 layer_factory.hpp:77] Creating layer relu3
I0426 20:50:33.470796 31780 net.cpp:86] Creating Layer relu3
I0426 20:50:33.470799 31780 net.cpp:408] relu3 <- ip3
I0426 20:50:33.470803 31780 net.cpp:369] relu3 -> ip3 (in-place)
I0426 20:50:33.471688 31780 net.cpp:124] Setting up relu3
I0426 20:50:33.471699 31780 net.cpp:131] Top shape: 100 10 (1000)
I0426 20:50:33.471724 31780 net.cpp:139] Memory required for data: 3682800
I0426 20:50:33.471727 31780 layer_factory.hpp:77] Creating layer ip3_relu3_0_split
I0426 20:50:33.471734 31780 net.cpp:86] Creating Layer ip3_relu3_0_split
I0426 20:50:33.471737 31780 net.cpp:408] ip3_relu3_0_split <- ip3
I0426 20:50:33.471742 31780 net.cpp:382] ip3_relu3_0_split -> ip3_relu3_0_split_0
I0426 20:50:33.471750 31780 net.cpp:382] ip3_relu3_0_split -> ip3_relu3_0_split_1
I0426 20:50:33.471786 31780 net.cpp:124] Setting up ip3_relu3_0_split
I0426 20:50:33.471792 31780 net.cpp:131] Top shape: 100 10 (1000)
I0426 20:50:33.471796 31780 net.cpp:131] Top shape: 100 10 (1000)
I0426 20:50:33.471799 31780 net.cpp:139] Memory required for data: 3690800
I0426 20:50:33.471802 31780 layer_factory.hpp:77] Creating layer accuracy
I0426 20:50:33.471807 31780 net.cpp:86] Creating Layer accuracy
I0426 20:50:33.471810 31780 net.cpp:408] accuracy <- ip3_relu3_0_split_0
I0426 20:50:33.471815 31780 net.cpp:408] accuracy <- label_mnist_1_split_0
I0426 20:50:33.471819 31780 net.cpp:382] accuracy -> accuracy
…
