…
I0426 20:51:56.754222 32087 net.cpp:296] The NetState phase (0) differed from the phase (1) specified by a rule in layer mnist
I0426 20:51:56.754235 32087 net.cpp:296] The NetState phase (0) differed from the phase (1) specified by a rule in layer accuracy
I0426 20:51:56.754300 32087 net.cpp:53] Initializing net from parameters: 
name: "LeNet"
state {
  phase: TRAIN
  level: 0
  stage: ""
}
layer {
  name: "mnist"
  type: "Data"
  top: "data"
  top: "label"
  include {
    phase: TRAIN
  }
  transform_param {
    scale: 0.00390625
  }
  data_param {
    source: "examples/mnist/mnist_train_lmdb"
    batch_size: 64
    backend: LMDB
  }
}
layer {
  name: "conv0"
  type: "Convolution"
  bottom: "data"
  top: "conv0"
  param {
    lr_mult: 1
  }
  param {
    lr_mult: 2
  }
  convolution_param {
    num_output: 25
    kernel_size: 5
    stride: 1
    weight_filler {
      type: "xavier"
    }
    bias_filler {
      type: "constant"
    }
  }
}
layer {
  name: "pool0"
  type: "Pooling"
  bottom: "conv0"
  top: "pool0"
  pooling_param {
    pool: MAX
    kernel_size: 2
    stride: 2
  }
}
layer {
  name: "conv1"
  type: "Convolution"
  bottom: "pool0"
  top: "conv1"
  param {
    lr_mult: 1
  }
  param {
    lr_mult: 2
  }
  convolution_param {
    num_output: 10
    kernel_size: 5
    stride: 1
    weight_filler {
      type: "xavier"
    }
    bias_filler {
      type: "constant"
    }
  }
}
layer {
  name: "pool1"
  type: "Pooling"
  bottom: "conv1"
  top: "pool1"
  pooling_param {
    pool: MAX
    kernel_size: 2
    stride: 2
  }
}
layer {
  name: "ip1"
  type: "InnerProduct"
  bottom: "pool1"
  top: "ip1"
  param {
    lr_mult: 1
  }
  param {
    lr_mult: 2
  }
  inner_product_param {
    num_output: 10
    weight_filler {
      type: "xavier"
    }
    bias_filler {
      type: "constant"
    }
  }
}
layer {
  name: "relu1"
  type: "ReLU"
  bottom: "ip1"
  top: "ip1"
}
layer {
  name: "loss"
  type: "SoftmaxWithLoss"
  bottom: "ip1"
  bottom: "label"
  top: "loss"
}
I0426 20:51:56.754359 32087 layer_factory.hpp:77] Creating layer mnist
I0426 20:51:56.754441 32087 db_lmdb.cpp:35] Opened lmdb examples/mnist/mnist_train_lmdb
I0426 20:51:56.754461 32087 net.cpp:86] Creating Layer mnist
I0426 20:51:56.754467 32087 net.cpp:382] mnist -> data
I0426 20:51:56.754484 32087 net.cpp:382] mnist -> label
I0426 20:51:56.755408 32087 data_layer.cpp:45] output data size: 64,1,28,28
I0426 20:51:56.757524 32087 net.cpp:124] Setting up mnist
I0426 20:51:56.757539 32087 net.cpp:131] Top shape: 64 1 28 28 (50176)
I0426 20:51:56.757544 32087 net.cpp:131] Top shape: 64 (64)
I0426 20:51:56.757546 32087 net.cpp:139] Memory required for data: 200960
I0426 20:51:56.757552 32087 layer_factory.hpp:77] Creating layer conv0
I0426 20:51:56.757566 32087 net.cpp:86] Creating Layer conv0
I0426 20:51:56.757571 32087 net.cpp:408] conv0 <- data
I0426 20:51:56.757580 32087 net.cpp:382] conv0 -> conv0
I0426 20:51:56.986692 32087 net.cpp:124] Setting up conv0
I0426 20:51:56.986738 32087 net.cpp:131] Top shape: 64 25 24 24 (921600)
I0426 20:51:56.986742 32087 net.cpp:139] Memory required for data: 3887360
I0426 20:51:56.986757 32087 layer_factory.hpp:77] Creating layer pool0
I0426 20:51:56.986785 32087 net.cpp:86] Creating Layer pool0
I0426 20:51:56.986789 32087 net.cpp:408] pool0 <- conv0
I0426 20:51:56.986794 32087 net.cpp:382] pool0 -> pool0
I0426 20:51:56.986840 32087 net.cpp:124] Setting up pool0
I0426 20:51:56.986848 32087 net.cpp:131] Top shape: 64 25 12 12 (230400)
I0426 20:51:56.986865 32087 net.cpp:139] Memory required for data: 4808960
I0426 20:51:56.986883 32087 layer_factory.hpp:77] Creating layer conv1
I0426 20:51:56.986896 32087 net.cpp:86] Creating Layer conv1
I0426 20:51:56.986901 32087 net.cpp:408] conv1 <- pool0
I0426 20:51:56.986907 32087 net.cpp:382] conv1 -> conv1
I0426 20:51:56.989753 32087 net.cpp:124] Setting up conv1
I0426 20:51:56.989766 32087 net.cpp:131] Top shape: 64 10 8 8 (40960)
I0426 20:51:56.989786 32087 net.cpp:139] Memory required for data: 4972800
I0426 20:51:56.989794 32087 layer_factory.hpp:77] Creating layer pool1
I0426 20:51:56.989802 32087 net.cpp:86] Creating Layer pool1
I0426 20:51:56.989821 32087 net.cpp:408] pool1 <- conv1
I0426 20:51:56.989826 32087 net.cpp:382] pool1 -> pool1
I0426 20:51:56.989881 32087 net.cpp:124] Setting up pool1
I0426 20:51:56.989886 32087 net.cpp:131] Top shape: 64 10 4 4 (10240)
I0426 20:51:56.989889 32087 net.cpp:139] Memory required for data: 5013760
I0426 20:51:56.989892 32087 layer_factory.hpp:77] Creating layer ip1
I0426 20:51:56.989899 32087 net.cpp:86] Creating Layer ip1
I0426 20:51:56.989902 32087 net.cpp:408] ip1 <- pool1
I0426 20:51:56.989908 32087 net.cpp:382] ip1 -> ip1
I0426 20:51:56.990861 32087 net.cpp:124] Setting up ip1
I0426 20:51:56.990872 32087 net.cpp:131] Top shape: 64 10 (640)
I0426 20:51:56.990891 32087 net.cpp:139] Memory required for data: 5016320
I0426 20:51:56.990916 32087 layer_factory.hpp:77] Creating layer relu1
I0426 20:51:56.990922 32087 net.cpp:86] Creating Layer relu1
I0426 20:51:56.990926 32087 net.cpp:408] relu1 <- ip1
I0426 20:51:56.990948 32087 net.cpp:369] relu1 -> ip1 (in-place)
I0426 20:51:56.991142 32087 net.cpp:124] Setting up relu1
I0426 20:51:56.991153 32087 net.cpp:131] Top shape: 64 10 (640)
I0426 20:51:56.991155 32087 net.cpp:139] Memory required for data: 5018880
I0426 20:51:56.991159 32087 layer_factory.hpp:77] Creating layer loss
I0426 20:51:56.991166 32087 net.cpp:86] Creating Layer loss
I0426 20:51:56.991184 32087 net.cpp:408] loss <- ip1
I0426 20:51:56.991189 32087 net.cpp:408] loss <- label
I0426 20:51:56.991195 32087 net.cpp:382] loss -> loss
I0426 20:51:56.991209 32087 layer_factory.hpp:77] Creating layer loss
…
I0426 20:51:56.992511 32087 solver.cpp:173] Creating test net (#0) specified by net file: ECE595/mnist/train_test/var_everything/lenet_train_test99.prototxt
I0426 20:51:56.992548 32087 net.cpp:296] The NetState phase (1) differed from the phase (0) specified by a rule in layer mnist
I0426 20:51:56.992635 32087 net.cpp:53] Initializing net from parameters: 
name: "LeNet"
state {
  phase: TEST
}
layer {
  name: "mnist"
  type: "Data"
  top: "data"
  top: "label"
  include {
    phase: TEST
  }
  transform_param {
    scale: 0.00390625
  }
  data_param {
    source: "examples/mnist/mnist_test_lmdb"
    batch_size: 100
    backend: LMDB
  }
}
layer {
  name: "conv0"
  type: "Convolution"
  bottom: "data"
  top: "conv0"
  param {
    lr_mult: 1
  }
  param {
    lr_mult: 2
  }
  convolution_param {
    num_output: 25
    kernel_size: 5
    stride: 1
    weight_filler {
      type: "xavier"
    }
    bias_filler {
      type: "constant"
    }
  }
}
layer {
  name: "pool0"
  type: "Pooling"
  bottom: "conv0"
  top: "pool0"
  pooling_param {
    pool: MAX
    kernel_size: 2
    stride: 2
  }
}
layer {
  name: "conv1"
  type: "Convolution"
  bottom: "pool0"
  top: "conv1"
  param {
    lr_mult: 1
  }
  param {
    lr_mult: 2
  }
  convolution_param {
    num_output: 10
    kernel_size: 5
    stride: 1
    weight_filler {
      type: "xavier"
    }
    bias_filler {
      type: "constant"
    }
  }
}
layer {
  name: "pool1"
  type: "Pooling"
  bottom: "conv1"
  top: "pool1"
  pooling_param {
    pool: MAX
    kernel_size: 2
    stride: 2
  }
}
layer {
  name: "ip1"
  type: "InnerProduct"
  bottom: "pool1"
  top: "ip1"
  param {
    lr_mult: 1
  }
  param {
    lr_mult: 2
  }
  inner_product_param {
    num_output: 10
    weight_filler {
      type: "xavier"
    }
    bias_filler {
      type: "constant"
    }
  }
}
layer {
  name: "relu1"
  type: "ReLU"
  bottom: "ip1"
  top: "ip1"
}
layer {
  name: "accuracy"
  type: "Accuracy"
  bottom: "ip1"
  bottom: "label"
  top: "accuracy"
  include {
    phase: TEST
  }
}
layer {
  name: "loss"
  type: "SoftmaxWithLoss"
  bottom: "ip1"
  bottom: "label"
  top: "loss"
}
I0426 20:51:56.992707 32087 layer_factory.hpp:77] Creating layer mnist
I0426 20:51:56.992753 32087 db_lmdb.cpp:35] Opened lmdb examples/mnist/mnist_test_lmdb
I0426 20:51:56.992765 32087 net.cpp:86] Creating Layer mnist
I0426 20:51:56.992771 32087 net.cpp:382] mnist -> data
I0426 20:51:56.992779 32087 net.cpp:382] mnist -> label
I0426 20:51:56.992908 32087 data_layer.cpp:45] output data size: 100,1,28,28
I0426 20:51:56.994943 32087 net.cpp:124] Setting up mnist
I0426 20:51:56.994972 32087 net.cpp:131] Top shape: 100 1 28 28 (78400)
I0426 20:51:56.994976 32087 net.cpp:131] Top shape: 100 (100)
I0426 20:51:56.994979 32087 net.cpp:139] Memory required for data: 314000
I0426 20:51:56.994982 32087 layer_factory.hpp:77] Creating layer label_mnist_1_split
I0426 20:51:56.995005 32087 net.cpp:86] Creating Layer label_mnist_1_split
I0426 20:51:56.995008 32087 net.cpp:408] label_mnist_1_split <- label
I0426 20:51:56.995014 32087 net.cpp:382] label_mnist_1_split -> label_mnist_1_split_0
I0426 20:51:56.995020 32087 net.cpp:382] label_mnist_1_split -> label_mnist_1_split_1
I0426 20:51:56.995093 32087 net.cpp:124] Setting up label_mnist_1_split
I0426 20:51:56.995100 32087 net.cpp:131] Top shape: 100 (100)
I0426 20:51:56.995105 32087 net.cpp:131] Top shape: 100 (100)
I0426 20:51:56.995106 32087 net.cpp:139] Memory required for data: 314800
I0426 20:51:56.995110 32087 layer_factory.hpp:77] Creating layer conv0
I0426 20:51:56.995120 32087 net.cpp:86] Creating Layer conv0
I0426 20:51:56.995122 32087 net.cpp:408] conv0 <- data
I0426 20:51:56.995127 32087 net.cpp:382] conv0 -> conv0
I0426 20:51:56.995997 32087 net.cpp:124] Setting up conv0
I0426 20:51:56.996009 32087 net.cpp:131] Top shape: 100 25 24 24 (1440000)
I0426 20:51:56.996013 32087 net.cpp:139] Memory required for data: 6074800
I0426 20:51:56.996021 32087 layer_factory.hpp:77] Creating layer pool0
I0426 20:51:56.996027 32087 net.cpp:86] Creating Layer pool0
I0426 20:51:56.996031 32087 net.cpp:408] pool0 <- conv0
I0426 20:51:56.996037 32087 net.cpp:382] pool0 -> pool0
I0426 20:51:56.996070 32087 net.cpp:124] Setting up pool0
I0426 20:51:56.996078 32087 net.cpp:131] Top shape: 100 25 12 12 (360000)
I0426 20:51:56.996080 32087 net.cpp:139] Memory required for data: 7514800
I0426 20:51:56.996083 32087 layer_factory.hpp:77] Creating layer conv1
I0426 20:51:56.996093 32087 net.cpp:86] Creating Layer conv1
I0426 20:51:56.996095 32087 net.cpp:408] conv1 <- pool0
I0426 20:51:56.996100 32087 net.cpp:382] conv1 -> conv1
I0426 20:51:56.998348 32087 net.cpp:124] Setting up conv1
I0426 20:51:56.998360 32087 net.cpp:131] Top shape: 100 10 8 8 (64000)
I0426 20:51:56.998364 32087 net.cpp:139] Memory required for data: 7770800
I0426 20:51:56.998389 32087 layer_factory.hpp:77] Creating layer pool1
I0426 20:51:56.998395 32087 net.cpp:86] Creating Layer pool1
I0426 20:51:56.998409 32087 net.cpp:408] pool1 <- conv1
I0426 20:51:56.998414 32087 net.cpp:382] pool1 -> pool1
I0426 20:51:56.998462 32087 net.cpp:124] Setting up pool1
I0426 20:51:56.998469 32087 net.cpp:131] Top shape: 100 10 4 4 (16000)
I0426 20:51:56.998471 32087 net.cpp:139] Memory required for data: 7834800
I0426 20:51:56.998474 32087 layer_factory.hpp:77] Creating layer ip1
I0426 20:51:56.998481 32087 net.cpp:86] Creating Layer ip1
I0426 20:51:56.998486 32087 net.cpp:408] ip1 <- pool1
I0426 20:51:56.998489 32087 net.cpp:382] ip1 -> ip1
I0426 20:51:56.998594 32087 net.cpp:124] Setting up ip1
I0426 20:51:56.998601 32087 net.cpp:131] Top shape: 100 10 (1000)
I0426 20:51:56.998605 32087 net.cpp:139] Memory required for data: 7838800
I0426 20:51:56.998611 32087 layer_factory.hpp:77] Creating layer relu1
I0426 20:51:56.998616 32087 net.cpp:86] Creating Layer relu1
I0426 20:51:56.998620 32087 net.cpp:408] relu1 <- ip1
I0426 20:51:56.998625 32087 net.cpp:369] relu1 -> ip1 (in-place)
I0426 20:51:56.999580 32087 net.cpp:124] Setting up relu1
I0426 20:51:56.999593 32087 net.cpp:131] Top shape: 100 10 (1000)
I0426 20:51:56.999598 32087 net.cpp:139] Memory required for data: 7842800
I0426 20:51:56.999600 32087 layer_factory.hpp:77] Creating layer ip1_relu1_0_split
I0426 20:51:56.999624 32087 net.cpp:86] Creating Layer ip1_relu1_0_split
I0426 20:51:56.999626 32087 net.cpp:408] ip1_relu1_0_split <- ip1
I0426 20:51:56.999631 32087 net.cpp:382] ip1_relu1_0_split -> ip1_relu1_0_split_0
I0426 20:51:56.999637 32087 net.cpp:382] ip1_relu1_0_split -> ip1_relu1_0_split_1
I0426 20:51:56.999691 32087 net.cpp:124] Setting up ip1_relu1_0_split
I0426 20:51:56.999697 32087 net.cpp:131] Top shape: 100 10 (1000)
I0426 20:51:56.999701 32087 net.cpp:131] Top shape: 100 10 (1000)
I0426 20:51:56.999703 32087 net.cpp:139] Memory required for data: 7850800
I0426 20:51:56.999706 32087 layer_factory.hpp:77] Creating layer accuracy
I0426 20:51:56.999711 32087 net.cpp:86] Creating Layer accuracy
I0426 20:51:56.999713 32087 net.cpp:408] accuracy <- ip1_relu1_0_split_0
I0426 20:51:56.999718 32087 net.cpp:408] accuracy <- label_mnist_1_split_0
I0426 20:51:56.999722 32087 net.cpp:382] accuracy -> accuracy
…
