…
I0426 20:51:36.654917 32015 net.cpp:296] The NetState phase (0) differed from the phase (1) specified by a rule in layer mnist
I0426 20:51:36.654947 32015 net.cpp:296] The NetState phase (0) differed from the phase (1) specified by a rule in layer accuracy
I0426 20:51:36.655045 32015 net.cpp:53] Initializing net from parameters: 
name: "LeNet"
state {
  phase: TRAIN
  level: 0
  stage: ""
}
layer {
  name: "mnist"
  type: "Data"
  top: "data"
  top: "label"
  include {
    phase: TRAIN
  }
  transform_param {
    scale: 0.00390625
  }
  data_param {
    source: "examples/mnist/mnist_train_lmdb"
    batch_size: 64
    backend: LMDB
  }
}
layer {
  name: "conv0"
  type: "Convolution"
  bottom: "data"
  top: "conv0"
  param {
    lr_mult: 1
  }
  param {
    lr_mult: 2
  }
  convolution_param {
    num_output: 10
    kernel_size: 5
    stride: 1
    weight_filler {
      type: "xavier"
    }
    bias_filler {
      type: "constant"
    }
  }
}
layer {
  name: "pool0"
  type: "Pooling"
  bottom: "conv0"
  top: "pool0"
  pooling_param {
    pool: MAX
    kernel_size: 2
    stride: 2
  }
}
layer {
  name: "conv1"
  type: "Convolution"
  bottom: "pool0"
  top: "conv1"
  param {
    lr_mult: 1
  }
  param {
    lr_mult: 2
  }
  convolution_param {
    num_output: 50
    kernel_size: 5
    stride: 1
    weight_filler {
      type: "xavier"
    }
    bias_filler {
      type: "constant"
    }
  }
}
layer {
  name: "pool1"
  type: "Pooling"
  bottom: "conv1"
  top: "pool1"
  pooling_param {
    pool: MAX
    kernel_size: 2
    stride: 2
  }
}
layer {
  name: "ip1"
  type: "InnerProduct"
  bottom: "pool1"
  top: "ip1"
  param {
    lr_mult: 1
  }
  param {
    lr_mult: 2
  }
  inner_product_param {
    num_output: 100
    weight_filler {
      type: "xavier"
    }
    bias_filler {
      type: "constant"
    }
  }
}
layer {
  name: "relu1"
  type: "ReLU"
  bottom: "ip1"
  top: "ip1"
}
layer {
  name: "ip2"
  type: "InnerProduct"
  bottom: "ip1"
  top: "ip2"
  param {
    lr_mult: 1
  }
  param {
    lr_mult: 2
  }
  inner_product_param {
    num_output: 100
    weight_filler {
      type: "xavier"
    }
    bias_filler {
      type: "constant"
    }
  }
}
layer {
  name: "relu2"
  type: "ReLU"
  bottom: "ip2"
  top: "ip2"
}
layer {
  name: "ip3"
  type: "InnerProduct"
  bottom: "ip2"
  top: "ip3"
  param {
    lr_mult: 1
  }
  param {
    lr_mult: 2
  }
  inner_product_param {
    num_output: 10
    weight_filler {
      type: "xavier"
    }
    bias_filler {
      type: "constant"
    }
  }
}
layer {
  name: "relu3"
  type: "ReLU"
  bottom: "ip3"
  top: "ip3"
}
layer {
  name: "loss"
  type: "SoftmaxWithLoss"
  bottom: "ip3"
  bottom: "label"
  top: "loss"
}
I0426 20:51:36.655124 32015 layer_factory.hpp:77] Creating layer mnist
I0426 20:51:36.655206 32015 db_lmdb.cpp:35] Opened lmdb examples/mnist/mnist_train_lmdb
I0426 20:51:36.655225 32015 net.cpp:86] Creating Layer mnist
I0426 20:51:36.655232 32015 net.cpp:382] mnist -> data
I0426 20:51:36.655251 32015 net.cpp:382] mnist -> label
I0426 20:51:36.656184 32015 data_layer.cpp:45] output data size: 64,1,28,28
I0426 20:51:36.658363 32015 net.cpp:124] Setting up mnist
I0426 20:51:36.658376 32015 net.cpp:131] Top shape: 64 1 28 28 (50176)
I0426 20:51:36.658382 32015 net.cpp:131] Top shape: 64 (64)
I0426 20:51:36.658385 32015 net.cpp:139] Memory required for data: 200960
I0426 20:51:36.658390 32015 layer_factory.hpp:77] Creating layer conv0
I0426 20:51:36.658418 32015 net.cpp:86] Creating Layer conv0
I0426 20:51:36.658433 32015 net.cpp:408] conv0 <- data
I0426 20:51:36.658444 32015 net.cpp:382] conv0 -> conv0
I0426 20:51:36.889456 32015 net.cpp:124] Setting up conv0
I0426 20:51:36.889498 32015 net.cpp:131] Top shape: 64 10 24 24 (368640)
I0426 20:51:36.889503 32015 net.cpp:139] Memory required for data: 1675520
I0426 20:51:36.889516 32015 layer_factory.hpp:77] Creating layer pool0
I0426 20:51:36.889544 32015 net.cpp:86] Creating Layer pool0
I0426 20:51:36.889549 32015 net.cpp:408] pool0 <- conv0
I0426 20:51:36.889554 32015 net.cpp:382] pool0 -> pool0
I0426 20:51:36.889598 32015 net.cpp:124] Setting up pool0
I0426 20:51:36.889605 32015 net.cpp:131] Top shape: 64 10 12 12 (92160)
I0426 20:51:36.889608 32015 net.cpp:139] Memory required for data: 2044160
I0426 20:51:36.889611 32015 layer_factory.hpp:77] Creating layer conv1
I0426 20:51:36.889621 32015 net.cpp:86] Creating Layer conv1
I0426 20:51:36.889626 32015 net.cpp:408] conv1 <- pool0
I0426 20:51:36.889631 32015 net.cpp:382] conv1 -> conv1
I0426 20:51:36.892364 32015 net.cpp:124] Setting up conv1
I0426 20:51:36.892379 32015 net.cpp:131] Top shape: 64 50 8 8 (204800)
I0426 20:51:36.892381 32015 net.cpp:139] Memory required for data: 2863360
I0426 20:51:36.892390 32015 layer_factory.hpp:77] Creating layer pool1
I0426 20:51:36.892395 32015 net.cpp:86] Creating Layer pool1
I0426 20:51:36.892398 32015 net.cpp:408] pool1 <- conv1
I0426 20:51:36.892403 32015 net.cpp:382] pool1 -> pool1
I0426 20:51:36.892453 32015 net.cpp:124] Setting up pool1
I0426 20:51:36.892460 32015 net.cpp:131] Top shape: 64 50 4 4 (51200)
I0426 20:51:36.892463 32015 net.cpp:139] Memory required for data: 3068160
I0426 20:51:36.892467 32015 layer_factory.hpp:77] Creating layer ip1
I0426 20:51:36.892472 32015 net.cpp:86] Creating Layer ip1
I0426 20:51:36.892475 32015 net.cpp:408] ip1 <- pool1
I0426 20:51:36.892479 32015 net.cpp:382] ip1 -> ip1
I0426 20:51:36.893848 32015 net.cpp:124] Setting up ip1
I0426 20:51:36.893860 32015 net.cpp:131] Top shape: 64 100 (6400)
I0426 20:51:36.893879 32015 net.cpp:139] Memory required for data: 3093760
I0426 20:51:36.893887 32015 layer_factory.hpp:77] Creating layer relu1
I0426 20:51:36.893893 32015 net.cpp:86] Creating Layer relu1
I0426 20:51:36.893896 32015 net.cpp:408] relu1 <- ip1
I0426 20:51:36.893918 32015 net.cpp:369] relu1 -> ip1 (in-place)
I0426 20:51:36.894111 32015 net.cpp:124] Setting up relu1
I0426 20:51:36.894119 32015 net.cpp:131] Top shape: 64 100 (6400)
I0426 20:51:36.894122 32015 net.cpp:139] Memory required for data: 3119360
I0426 20:51:36.894125 32015 layer_factory.hpp:77] Creating layer ip2
I0426 20:51:36.894131 32015 net.cpp:86] Creating Layer ip2
I0426 20:51:36.894135 32015 net.cpp:408] ip2 <- ip1
I0426 20:51:36.894140 32015 net.cpp:382] ip2 -> ip2
I0426 20:51:36.894286 32015 net.cpp:124] Setting up ip2
I0426 20:51:36.894294 32015 net.cpp:131] Top shape: 64 100 (6400)
I0426 20:51:36.894296 32015 net.cpp:139] Memory required for data: 3144960
I0426 20:51:36.894301 32015 layer_factory.hpp:77] Creating layer relu2
I0426 20:51:36.894307 32015 net.cpp:86] Creating Layer relu2
I0426 20:51:36.894310 32015 net.cpp:408] relu2 <- ip2
I0426 20:51:36.894315 32015 net.cpp:369] relu2 -> ip2 (in-place)
I0426 20:51:36.895133 32015 net.cpp:124] Setting up relu2
I0426 20:51:36.895144 32015 net.cpp:131] Top shape: 64 100 (6400)
I0426 20:51:36.895164 32015 net.cpp:139] Memory required for data: 3170560
I0426 20:51:36.895169 32015 layer_factory.hpp:77] Creating layer ip3
I0426 20:51:36.895190 32015 net.cpp:86] Creating Layer ip3
I0426 20:51:36.895192 32015 net.cpp:408] ip3 <- ip2
I0426 20:51:36.895197 32015 net.cpp:382] ip3 -> ip3
I0426 20:51:36.895344 32015 net.cpp:124] Setting up ip3
I0426 20:51:36.895352 32015 net.cpp:131] Top shape: 64 10 (640)
I0426 20:51:36.895355 32015 net.cpp:139] Memory required for data: 3173120
I0426 20:51:36.895362 32015 layer_factory.hpp:77] Creating layer relu3
I0426 20:51:36.895368 32015 net.cpp:86] Creating Layer relu3
I0426 20:51:36.895371 32015 net.cpp:408] relu3 <- ip3
I0426 20:51:36.895375 32015 net.cpp:369] relu3 -> ip3 (in-place)
I0426 20:51:36.895550 32015 net.cpp:124] Setting up relu3
I0426 20:51:36.895558 32015 net.cpp:131] Top shape: 64 10 (640)
I0426 20:51:36.895561 32015 net.cpp:139] Memory required for data: 3175680
I0426 20:51:36.895565 32015 layer_factory.hpp:77] Creating layer loss
I0426 20:51:36.895570 32015 net.cpp:86] Creating Layer loss
I0426 20:51:36.895572 32015 net.cpp:408] loss <- ip3
I0426 20:51:36.895576 32015 net.cpp:408] loss <- label
I0426 20:51:36.895581 32015 net.cpp:382] loss -> loss
I0426 20:51:36.895598 32015 layer_factory.hpp:77] Creating layer loss
…
I0426 20:51:36.896293 32015 solver.cpp:173] Creating test net (#0) specified by net file: ECE595/mnist/train_test/var_everything/lenet_train_test91.prototxt
I0426 20:51:36.896328 32015 net.cpp:296] The NetState phase (1) differed from the phase (0) specified by a rule in layer mnist
I0426 20:51:36.896432 32015 net.cpp:53] Initializing net from parameters: 
name: "LeNet"
state {
  phase: TEST
}
layer {
  name: "mnist"
  type: "Data"
  top: "data"
  top: "label"
  include {
    phase: TEST
  }
  transform_param {
    scale: 0.00390625
  }
  data_param {
    source: "examples/mnist/mnist_test_lmdb"
    batch_size: 100
    backend: LMDB
  }
}
layer {
  name: "conv0"
  type: "Convolution"
  bottom: "data"
  top: "conv0"
  param {
    lr_mult: 1
  }
  param {
    lr_mult: 2
  }
  convolution_param {
    num_output: 10
    kernel_size: 5
    stride: 1
    weight_filler {
      type: "xavier"
    }
    bias_filler {
      type: "constant"
    }
  }
}
layer {
  name: "pool0"
  type: "Pooling"
  bottom: "conv0"
  top: "pool0"
  pooling_param {
    pool: MAX
    kernel_size: 2
    stride: 2
  }
}
layer {
  name: "conv1"
  type: "Convolution"
  bottom: "pool0"
  top: "conv1"
  param {
    lr_mult: 1
  }
  param {
    lr_mult: 2
  }
  convolution_param {
    num_output: 50
    kernel_size: 5
    stride: 1
    weight_filler {
      type: "xavier"
    }
    bias_filler {
      type: "constant"
    }
  }
}
layer {
  name: "pool1"
  type: "Pooling"
  bottom: "conv1"
  top: "pool1"
  pooling_param {
    pool: MAX
    kernel_size: 2
    stride: 2
  }
}
layer {
  name: "ip1"
  type: "InnerProduct"
  bottom: "pool1"
  top: "ip1"
  param {
    lr_mult: 1
  }
  param {
    lr_mult: 2
  }
  inner_product_param {
    num_output: 100
    weight_filler {
      type: "xavier"
    }
    bias_filler {
      type: "constant"
    }
  }
}
layer {
  name: "relu1"
  type: "ReLU"
  bottom: "ip1"
  top: "ip1"
}
layer {
  name: "ip2"
  type: "InnerProduct"
  bottom: "ip1"
  top: "ip2"
  param {
    lr_mult: 1
  }
  param {
    lr_mult: 2
  }
  inner_product_param {
    num_output: 100
    weight_filler {
      type: "xavier"
    }
    bias_filler {
      type: "constant"
    }
  }
}
layer {
  name: "relu2"
  type: "ReLU"
  bottom: "ip2"
  top: "ip2"
}
layer {
  name: "ip3"
  type: "InnerProduct"
  bottom: "ip2"
  top: "ip3"
  param {
    lr_mult: 1
  }
  param {
    lr_mult: 2
  }
  inner_product_param {
    num_output: 10
    weight_filler {
      type: "xavier"
    }
    bias_filler {
      type: "constant"
    }
  }
}
layer {
  name: "relu3"
  type: "ReLU"
  bottom: "ip3"
  top: "ip3"
}
layer {
  name: "accuracy"
  type: "Accuracy"
  bottom: "ip3"
  bottom: "label"
  top: "accuracy"
  include {
    phase: TEST
  }
}
layer {
  name: "loss"
  type: "SoftmaxWithLoss"
  bottom: "ip3"
  bottom: "label"
  top: "loss"
}
I0426 20:51:36.896508 32015 layer_factory.hpp:77] Creating layer mnist
I0426 20:51:36.896551 32015 db_lmdb.cpp:35] Opened lmdb examples/mnist/mnist_test_lmdb
I0426 20:51:36.896564 32015 net.cpp:86] Creating Layer mnist
I0426 20:51:36.896569 32015 net.cpp:382] mnist -> data
I0426 20:51:36.896575 32015 net.cpp:382] mnist -> label
I0426 20:51:36.896656 32015 data_layer.cpp:45] output data size: 100,1,28,28
I0426 20:51:36.898125 32015 net.cpp:124] Setting up mnist
I0426 20:51:36.898149 32015 net.cpp:131] Top shape: 100 1 28 28 (78400)
I0426 20:51:36.898154 32015 net.cpp:131] Top shape: 100 (100)
I0426 20:51:36.898157 32015 net.cpp:139] Memory required for data: 314000
I0426 20:51:36.898160 32015 layer_factory.hpp:77] Creating layer label_mnist_1_split
I0426 20:51:36.898207 32015 net.cpp:86] Creating Layer label_mnist_1_split
I0426 20:51:36.898211 32015 net.cpp:408] label_mnist_1_split <- label
I0426 20:51:36.898216 32015 net.cpp:382] label_mnist_1_split -> label_mnist_1_split_0
I0426 20:51:36.898223 32015 net.cpp:382] label_mnist_1_split -> label_mnist_1_split_1
I0426 20:51:36.898290 32015 net.cpp:124] Setting up label_mnist_1_split
I0426 20:51:36.898298 32015 net.cpp:131] Top shape: 100 (100)
I0426 20:51:36.898303 32015 net.cpp:131] Top shape: 100 (100)
I0426 20:51:36.898306 32015 net.cpp:139] Memory required for data: 314800
I0426 20:51:36.898309 32015 layer_factory.hpp:77] Creating layer conv0
I0426 20:51:36.898317 32015 net.cpp:86] Creating Layer conv0
I0426 20:51:36.898320 32015 net.cpp:408] conv0 <- data
I0426 20:51:36.898325 32015 net.cpp:382] conv0 -> conv0
I0426 20:51:36.899945 32015 net.cpp:124] Setting up conv0
I0426 20:51:36.899957 32015 net.cpp:131] Top shape: 100 10 24 24 (576000)
I0426 20:51:36.899960 32015 net.cpp:139] Memory required for data: 2618800
I0426 20:51:36.899968 32015 layer_factory.hpp:77] Creating layer pool0
I0426 20:51:36.899974 32015 net.cpp:86] Creating Layer pool0
I0426 20:51:36.899992 32015 net.cpp:408] pool0 <- conv0
I0426 20:51:36.899997 32015 net.cpp:382] pool0 -> pool0
I0426 20:51:36.900029 32015 net.cpp:124] Setting up pool0
I0426 20:51:36.900035 32015 net.cpp:131] Top shape: 100 10 12 12 (144000)
I0426 20:51:36.900038 32015 net.cpp:139] Memory required for data: 3194800
I0426 20:51:36.900040 32015 layer_factory.hpp:77] Creating layer conv1
I0426 20:51:36.900048 32015 net.cpp:86] Creating Layer conv1
I0426 20:51:36.900050 32015 net.cpp:408] conv1 <- pool0
I0426 20:51:36.900055 32015 net.cpp:382] conv1 -> conv1
I0426 20:51:36.901753 32015 net.cpp:124] Setting up conv1
I0426 20:51:36.901765 32015 net.cpp:131] Top shape: 100 50 8 8 (320000)
I0426 20:51:36.901770 32015 net.cpp:139] Memory required for data: 4474800
I0426 20:51:36.901777 32015 layer_factory.hpp:77] Creating layer pool1
I0426 20:51:36.901784 32015 net.cpp:86] Creating Layer pool1
I0426 20:51:36.901803 32015 net.cpp:408] pool1 <- conv1
I0426 20:51:36.901816 32015 net.cpp:382] pool1 -> pool1
I0426 20:51:36.901849 32015 net.cpp:124] Setting up pool1
I0426 20:51:36.901854 32015 net.cpp:131] Top shape: 100 50 4 4 (80000)
I0426 20:51:36.901856 32015 net.cpp:139] Memory required for data: 4794800
I0426 20:51:36.901859 32015 layer_factory.hpp:77] Creating layer ip1
I0426 20:51:36.901865 32015 net.cpp:86] Creating Layer ip1
I0426 20:51:36.901867 32015 net.cpp:408] ip1 <- pool1
I0426 20:51:36.901871 32015 net.cpp:382] ip1 -> ip1
I0426 20:51:36.902423 32015 net.cpp:124] Setting up ip1
I0426 20:51:36.902432 32015 net.cpp:131] Top shape: 100 100 (10000)
I0426 20:51:36.902444 32015 net.cpp:139] Memory required for data: 4834800
I0426 20:51:36.902451 32015 layer_factory.hpp:77] Creating layer relu1
I0426 20:51:36.902456 32015 net.cpp:86] Creating Layer relu1
I0426 20:51:36.902467 32015 net.cpp:408] relu1 <- ip1
I0426 20:51:36.902472 32015 net.cpp:369] relu1 -> ip1 (in-place)
I0426 20:51:36.902642 32015 net.cpp:124] Setting up relu1
I0426 20:51:36.902650 32015 net.cpp:131] Top shape: 100 100 (10000)
I0426 20:51:36.902654 32015 net.cpp:139] Memory required for data: 4874800
I0426 20:51:36.902665 32015 layer_factory.hpp:77] Creating layer ip2
I0426 20:51:36.902673 32015 net.cpp:86] Creating Layer ip2
I0426 20:51:36.902675 32015 net.cpp:408] ip2 <- ip1
I0426 20:51:36.902680 32015 net.cpp:382] ip2 -> ip2
I0426 20:51:36.902869 32015 net.cpp:124] Setting up ip2
I0426 20:51:36.902878 32015 net.cpp:131] Top shape: 100 100 (10000)
I0426 20:51:36.902880 32015 net.cpp:139] Memory required for data: 4914800
I0426 20:51:36.902886 32015 layer_factory.hpp:77] Creating layer relu2
I0426 20:51:36.902890 32015 net.cpp:86] Creating Layer relu2
I0426 20:51:36.902894 32015 net.cpp:408] relu2 <- ip2
I0426 20:51:36.902896 32015 net.cpp:369] relu2 -> ip2 (in-place)
I0426 20:51:36.903106 32015 net.cpp:124] Setting up relu2
I0426 20:51:36.903115 32015 net.cpp:131] Top shape: 100 100 (10000)
I0426 20:51:36.903118 32015 net.cpp:139] Memory required for data: 4954800
I0426 20:51:36.903122 32015 layer_factory.hpp:77] Creating layer ip3
I0426 20:51:36.903127 32015 net.cpp:86] Creating Layer ip3
I0426 20:51:36.903129 32015 net.cpp:408] ip3 <- ip2
I0426 20:51:36.903134 32015 net.cpp:382] ip3 -> ip3
I0426 20:51:36.903231 32015 net.cpp:124] Setting up ip3
I0426 20:51:36.903239 32015 net.cpp:131] Top shape: 100 10 (1000)
I0426 20:51:36.903242 32015 net.cpp:139] Memory required for data: 4958800
I0426 20:51:36.903256 32015 layer_factory.hpp:77] Creating layer relu3
I0426 20:51:36.903260 32015 net.cpp:86] Creating Layer relu3
I0426 20:51:36.903264 32015 net.cpp:408] relu3 <- ip3
I0426 20:51:36.903267 32015 net.cpp:369] relu3 -> ip3 (in-place)
I0426 20:51:36.904121 32015 net.cpp:124] Setting up relu3
I0426 20:51:36.904132 32015 net.cpp:131] Top shape: 100 10 (1000)
I0426 20:51:36.904135 32015 net.cpp:139] Memory required for data: 4962800
I0426 20:51:36.904139 32015 layer_factory.hpp:77] Creating layer ip3_relu3_0_split
I0426 20:51:36.904145 32015 net.cpp:86] Creating Layer ip3_relu3_0_split
I0426 20:51:36.904147 32015 net.cpp:408] ip3_relu3_0_split <- ip3
I0426 20:51:36.904152 32015 net.cpp:382] ip3_relu3_0_split -> ip3_relu3_0_split_0
I0426 20:51:36.904158 32015 net.cpp:382] ip3_relu3_0_split -> ip3_relu3_0_split_1
I0426 20:51:36.904217 32015 net.cpp:124] Setting up ip3_relu3_0_split
I0426 20:51:36.904222 32015 net.cpp:131] Top shape: 100 10 (1000)
I0426 20:51:36.904232 32015 net.cpp:131] Top shape: 100 10 (1000)
I0426 20:51:36.904235 32015 net.cpp:139] Memory required for data: 4970800
I0426 20:51:36.904238 32015 layer_factory.hpp:77] Creating layer accuracy
I0426 20:51:36.904243 32015 net.cpp:86] Creating Layer accuracy
I0426 20:51:36.904247 32015 net.cpp:408] accuracy <- ip3_relu3_0_split_0
I0426 20:51:36.904250 32015 net.cpp:408] accuracy <- label_mnist_1_split_0
I0426 20:51:36.904255 32015 net.cpp:382] accuracy -> accuracy
…
