…
I0426 20:49:05.318150 31443 net.cpp:296] The NetState phase (0) differed from the phase (1) specified by a rule in layer mnist
I0426 20:49:05.318162 31443 net.cpp:296] The NetState phase (0) differed from the phase (1) specified by a rule in layer accuracy
I0426 20:49:05.318231 31443 net.cpp:53] Initializing net from parameters: 
name: "LeNet"
state {
  phase: TRAIN
  level: 0
  stage: ""
}
layer {
  name: "mnist"
  type: "Data"
  top: "data"
  top: "label"
  include {
    phase: TRAIN
  }
  transform_param {
    scale: 0.00390625
  }
  data_param {
    source: "examples/mnist/mnist_train_lmdb"
    batch_size: 64
    backend: LMDB
  }
}
layer {
  name: "conv0"
  type: "Convolution"
  bottom: "data"
  top: "conv0"
  param {
    lr_mult: 1
  }
  param {
    lr_mult: 2
  }
  convolution_param {
    num_output: 10
    kernel_size: 5
    stride: 1
    weight_filler {
      type: "xavier"
    }
    bias_filler {
      type: "constant"
    }
  }
}
layer {
  name: "pool0"
  type: "Pooling"
  bottom: "conv0"
  top: "pool0"
  pooling_param {
    pool: MAX
    kernel_size: 2
    stride: 2
  }
}
layer {
  name: "ip1"
  type: "InnerProduct"
  bottom: "pool0"
  top: "ip1"
  param {
    lr_mult: 1
  }
  param {
    lr_mult: 2
  }
  inner_product_param {
    num_output: 300
    weight_filler {
      type: "xavier"
    }
    bias_filler {
      type: "constant"
    }
  }
}
layer {
  name: "relu1"
  type: "ReLU"
  bottom: "ip1"
  top: "ip1"
}
layer {
  name: "ip2"
  type: "InnerProduct"
  bottom: "ip1"
  top: "ip2"
  param {
    lr_mult: 1
  }
  param {
    lr_mult: 2
  }
  inner_product_param {
    num_output: 300
    weight_filler {
      type: "xavier"
    }
    bias_filler {
      type: "constant"
    }
  }
}
layer {
  name: "relu2"
  type: "ReLU"
  bottom: "ip2"
  top: "ip2"
}
layer {
  name: "ip3"
  type: "InnerProduct"
  bottom: "ip2"
  top: "ip3"
  param {
    lr_mult: 1
  }
  param {
    lr_mult: 2
  }
  inner_product_param {
    num_output: 10
    weight_filler {
      type: "xavier"
    }
    bias_filler {
      type: "constant"
    }
  }
}
layer {
  name: "relu3"
  type: "ReLU"
  bottom: "ip3"
  top: "ip3"
}
layer {
  name: "loss"
  type: "SoftmaxWithLoss"
  bottom: "ip3"
  bottom: "label"
  top: "loss"
}
I0426 20:49:05.318302 31443 layer_factory.hpp:77] Creating layer mnist
I0426 20:49:05.318387 31443 db_lmdb.cpp:35] Opened lmdb examples/mnist/mnist_train_lmdb
I0426 20:49:05.318408 31443 net.cpp:86] Creating Layer mnist
I0426 20:49:05.318415 31443 net.cpp:382] mnist -> data
I0426 20:49:05.318434 31443 net.cpp:382] mnist -> label
I0426 20:49:05.319401 31443 data_layer.cpp:45] output data size: 64,1,28,28
I0426 20:49:05.321626 31443 net.cpp:124] Setting up mnist
I0426 20:49:05.321656 31443 net.cpp:131] Top shape: 64 1 28 28 (50176)
I0426 20:49:05.321661 31443 net.cpp:131] Top shape: 64 (64)
I0426 20:49:05.321665 31443 net.cpp:139] Memory required for data: 200960
I0426 20:49:05.321671 31443 layer_factory.hpp:77] Creating layer conv0
I0426 20:49:05.321684 31443 net.cpp:86] Creating Layer conv0
I0426 20:49:05.321704 31443 net.cpp:408] conv0 <- data
I0426 20:49:05.321714 31443 net.cpp:382] conv0 -> conv0
I0426 20:49:05.552397 31443 net.cpp:124] Setting up conv0
I0426 20:49:05.552424 31443 net.cpp:131] Top shape: 64 10 24 24 (368640)
I0426 20:49:05.552428 31443 net.cpp:139] Memory required for data: 1675520
I0426 20:49:05.552443 31443 layer_factory.hpp:77] Creating layer pool0
I0426 20:49:05.552454 31443 net.cpp:86] Creating Layer pool0
I0426 20:49:05.552477 31443 net.cpp:408] pool0 <- conv0
I0426 20:49:05.552498 31443 net.cpp:382] pool0 -> pool0
I0426 20:49:05.552542 31443 net.cpp:124] Setting up pool0
I0426 20:49:05.552548 31443 net.cpp:131] Top shape: 64 10 12 12 (92160)
I0426 20:49:05.552551 31443 net.cpp:139] Memory required for data: 2044160
I0426 20:49:05.552569 31443 layer_factory.hpp:77] Creating layer ip1
I0426 20:49:05.552577 31443 net.cpp:86] Creating Layer ip1
I0426 20:49:05.552579 31443 net.cpp:408] ip1 <- pool0
I0426 20:49:05.552585 31443 net.cpp:382] ip1 -> ip1
I0426 20:49:05.555816 31443 net.cpp:124] Setting up ip1
I0426 20:49:05.555830 31443 net.cpp:131] Top shape: 64 300 (19200)
I0426 20:49:05.555832 31443 net.cpp:139] Memory required for data: 2120960
I0426 20:49:05.555840 31443 layer_factory.hpp:77] Creating layer relu1
I0426 20:49:05.555861 31443 net.cpp:86] Creating Layer relu1
I0426 20:49:05.555865 31443 net.cpp:408] relu1 <- ip1
I0426 20:49:05.555869 31443 net.cpp:369] relu1 -> ip1 (in-place)
I0426 20:49:05.556061 31443 net.cpp:124] Setting up relu1
I0426 20:49:05.556071 31443 net.cpp:131] Top shape: 64 300 (19200)
I0426 20:49:05.556073 31443 net.cpp:139] Memory required for data: 2197760
I0426 20:49:05.556077 31443 layer_factory.hpp:77] Creating layer ip2
I0426 20:49:05.556083 31443 net.cpp:86] Creating Layer ip2
I0426 20:49:05.556087 31443 net.cpp:408] ip2 <- ip1
I0426 20:49:05.556092 31443 net.cpp:382] ip2 -> ip2
I0426 20:49:05.556702 31443 net.cpp:124] Setting up ip2
I0426 20:49:05.556710 31443 net.cpp:131] Top shape: 64 300 (19200)
I0426 20:49:05.556727 31443 net.cpp:139] Memory required for data: 2274560
I0426 20:49:05.556735 31443 layer_factory.hpp:77] Creating layer relu2
I0426 20:49:05.556738 31443 net.cpp:86] Creating Layer relu2
I0426 20:49:05.556741 31443 net.cpp:408] relu2 <- ip2
I0426 20:49:05.556746 31443 net.cpp:369] relu2 -> ip2 (in-place)
I0426 20:49:05.557667 31443 net.cpp:124] Setting up relu2
I0426 20:49:05.557679 31443 net.cpp:131] Top shape: 64 300 (19200)
I0426 20:49:05.557698 31443 net.cpp:139] Memory required for data: 2351360
I0426 20:49:05.557701 31443 layer_factory.hpp:77] Creating layer ip3
I0426 20:49:05.557708 31443 net.cpp:86] Creating Layer ip3
I0426 20:49:05.557710 31443 net.cpp:408] ip3 <- ip2
I0426 20:49:05.557715 31443 net.cpp:382] ip3 -> ip3
I0426 20:49:05.558714 31443 net.cpp:124] Setting up ip3
I0426 20:49:05.558727 31443 net.cpp:131] Top shape: 64 10 (640)
I0426 20:49:05.558744 31443 net.cpp:139] Memory required for data: 2353920
I0426 20:49:05.558750 31443 layer_factory.hpp:77] Creating layer relu3
I0426 20:49:05.558756 31443 net.cpp:86] Creating Layer relu3
I0426 20:49:05.558759 31443 net.cpp:408] relu3 <- ip3
I0426 20:49:05.558764 31443 net.cpp:369] relu3 -> ip3 (in-place)
I0426 20:49:05.558929 31443 net.cpp:124] Setting up relu3
I0426 20:49:05.558938 31443 net.cpp:131] Top shape: 64 10 (640)
I0426 20:49:05.558941 31443 net.cpp:139] Memory required for data: 2356480
I0426 20:49:05.558944 31443 layer_factory.hpp:77] Creating layer loss
I0426 20:49:05.558949 31443 net.cpp:86] Creating Layer loss
I0426 20:49:05.558953 31443 net.cpp:408] loss <- ip3
I0426 20:49:05.558956 31443 net.cpp:408] loss <- label
I0426 20:49:05.558961 31443 net.cpp:382] loss -> loss
I0426 20:49:05.558979 31443 layer_factory.hpp:77] Creating layer loss
…
I0426 20:49:05.559582 31443 solver.cpp:173] Creating test net (#0) specified by net file: ECE595/mnist/train_test/var_everything/lenet_train_test26.prototxt
I0426 20:49:05.559607 31443 net.cpp:296] The NetState phase (1) differed from the phase (0) specified by a rule in layer mnist
I0426 20:49:05.559684 31443 net.cpp:53] Initializing net from parameters: 
name: "LeNet"
state {
  phase: TEST
}
layer {
  name: "mnist"
  type: "Data"
  top: "data"
  top: "label"
  include {
    phase: TEST
  }
  transform_param {
    scale: 0.00390625
  }
  data_param {
    source: "examples/mnist/mnist_test_lmdb"
    batch_size: 100
    backend: LMDB
  }
}
layer {
  name: "conv0"
  type: "Convolution"
  bottom: "data"
  top: "conv0"
  param {
    lr_mult: 1
  }
  param {
    lr_mult: 2
  }
  convolution_param {
    num_output: 10
    kernel_size: 5
    stride: 1
    weight_filler {
      type: "xavier"
    }
    bias_filler {
      type: "constant"
    }
  }
}
layer {
  name: "pool0"
  type: "Pooling"
  bottom: "conv0"
  top: "pool0"
  pooling_param {
    pool: MAX
    kernel_size: 2
    stride: 2
  }
}
layer {
  name: "ip1"
  type: "InnerProduct"
  bottom: "pool0"
  top: "ip1"
  param {
    lr_mult: 1
  }
  param {
    lr_mult: 2
  }
  inner_product_param {
    num_output: 300
    weight_filler {
      type: "xavier"
    }
    bias_filler {
      type: "constant"
    }
  }
}
layer {
  name: "relu1"
  type: "ReLU"
  bottom: "ip1"
  top: "ip1"
}
layer {
  name: "ip2"
  type: "InnerProduct"
  bottom: "ip1"
  top: "ip2"
  param {
    lr_mult: 1
  }
  param {
    lr_mult: 2
  }
  inner_product_param {
    num_output: 300
    weight_filler {
      type: "xavier"
    }
    bias_filler {
      type: "constant"
    }
  }
}
layer {
  name: "relu2"
  type: "ReLU"
  bottom: "ip2"
  top: "ip2"
}
layer {
  name: "ip3"
  type: "InnerProduct"
  bottom: "ip2"
  top: "ip3"
  param {
    lr_mult: 1
  }
  param {
    lr_mult: 2
  }
  inner_product_param {
    num_output: 10
    weight_filler {
      type: "xavier"
    }
    bias_filler {
      type: "constant"
    }
  }
}
layer {
  name: "relu3"
  type: "ReLU"
  bottom: "ip3"
  top: "ip3"
}
layer {
  name: "accuracy"
  type: "Accuracy"
  bottom: "ip3"
  bottom: "label"
  top: "accuracy"
  include {
    phase: TEST
  }
}
layer {
  name: "loss"
  type: "SoftmaxWithLoss"
  bottom: "ip3"
  bottom: "label"
  top: "loss"
}
I0426 20:49:05.559741 31443 layer_factory.hpp:77] Creating layer mnist
I0426 20:49:05.559785 31443 db_lmdb.cpp:35] Opened lmdb examples/mnist/mnist_test_lmdb
I0426 20:49:05.559798 31443 net.cpp:86] Creating Layer mnist
I0426 20:49:05.559803 31443 net.cpp:382] mnist -> data
I0426 20:49:05.559809 31443 net.cpp:382] mnist -> label
I0426 20:49:05.559890 31443 data_layer.cpp:45] output data size: 100,1,28,28
I0426 20:49:05.561883 31443 net.cpp:124] Setting up mnist
I0426 20:49:05.561911 31443 net.cpp:131] Top shape: 100 1 28 28 (78400)
I0426 20:49:05.561915 31443 net.cpp:131] Top shape: 100 (100)
I0426 20:49:05.561920 31443 net.cpp:139] Memory required for data: 314000
I0426 20:49:05.561923 31443 layer_factory.hpp:77] Creating layer label_mnist_1_split
I0426 20:49:05.561961 31443 net.cpp:86] Creating Layer label_mnist_1_split
I0426 20:49:05.561965 31443 net.cpp:408] label_mnist_1_split <- label
I0426 20:49:05.561970 31443 net.cpp:382] label_mnist_1_split -> label_mnist_1_split_0
I0426 20:49:05.561976 31443 net.cpp:382] label_mnist_1_split -> label_mnist_1_split_1
I0426 20:49:05.562031 31443 net.cpp:124] Setting up label_mnist_1_split
I0426 20:49:05.562037 31443 net.cpp:131] Top shape: 100 (100)
I0426 20:49:05.562041 31443 net.cpp:131] Top shape: 100 (100)
I0426 20:49:05.562043 31443 net.cpp:139] Memory required for data: 314800
I0426 20:49:05.562055 31443 layer_factory.hpp:77] Creating layer conv0
I0426 20:49:05.562064 31443 net.cpp:86] Creating Layer conv0
I0426 20:49:05.562067 31443 net.cpp:408] conv0 <- data
I0426 20:49:05.562072 31443 net.cpp:382] conv0 -> conv0
I0426 20:49:05.563704 31443 net.cpp:124] Setting up conv0
I0426 20:49:05.563717 31443 net.cpp:131] Top shape: 100 10 24 24 (576000)
I0426 20:49:05.563721 31443 net.cpp:139] Memory required for data: 2618800
I0426 20:49:05.563731 31443 layer_factory.hpp:77] Creating layer pool0
I0426 20:49:05.563752 31443 net.cpp:86] Creating Layer pool0
I0426 20:49:05.563771 31443 net.cpp:408] pool0 <- conv0
I0426 20:49:05.563776 31443 net.cpp:382] pool0 -> pool0
I0426 20:49:05.563812 31443 net.cpp:124] Setting up pool0
I0426 20:49:05.563818 31443 net.cpp:131] Top shape: 100 10 12 12 (144000)
I0426 20:49:05.563822 31443 net.cpp:139] Memory required for data: 3194800
I0426 20:49:05.563824 31443 layer_factory.hpp:77] Creating layer ip1
I0426 20:49:05.563832 31443 net.cpp:86] Creating Layer ip1
I0426 20:49:05.563834 31443 net.cpp:408] ip1 <- pool0
I0426 20:49:05.563839 31443 net.cpp:382] ip1 -> ip1
I0426 20:49:05.567198 31443 net.cpp:124] Setting up ip1
I0426 20:49:05.567209 31443 net.cpp:131] Top shape: 100 300 (30000)
I0426 20:49:05.567214 31443 net.cpp:139] Memory required for data: 3314800
I0426 20:49:05.567221 31443 layer_factory.hpp:77] Creating layer relu1
I0426 20:49:05.567226 31443 net.cpp:86] Creating Layer relu1
I0426 20:49:05.567229 31443 net.cpp:408] relu1 <- ip1
I0426 20:49:05.567250 31443 net.cpp:369] relu1 -> ip1 (in-place)
I0426 20:49:05.567433 31443 net.cpp:124] Setting up relu1
I0426 20:49:05.567441 31443 net.cpp:131] Top shape: 100 300 (30000)
I0426 20:49:05.567445 31443 net.cpp:139] Memory required for data: 3434800
I0426 20:49:05.567448 31443 layer_factory.hpp:77] Creating layer ip2
I0426 20:49:05.567454 31443 net.cpp:86] Creating Layer ip2
I0426 20:49:05.567458 31443 net.cpp:408] ip2 <- ip1
I0426 20:49:05.567463 31443 net.cpp:382] ip2 -> ip2
I0426 20:49:05.568048 31443 net.cpp:124] Setting up ip2
I0426 20:49:05.568055 31443 net.cpp:131] Top shape: 100 300 (30000)
I0426 20:49:05.568058 31443 net.cpp:139] Memory required for data: 3554800
I0426 20:49:05.568066 31443 layer_factory.hpp:77] Creating layer relu2
I0426 20:49:05.568070 31443 net.cpp:86] Creating Layer relu2
I0426 20:49:05.568073 31443 net.cpp:408] relu2 <- ip2
I0426 20:49:05.568092 31443 net.cpp:369] relu2 -> ip2 (in-place)
I0426 20:49:05.569032 31443 net.cpp:124] Setting up relu2
I0426 20:49:05.569044 31443 net.cpp:131] Top shape: 100 300 (30000)
I0426 20:49:05.569048 31443 net.cpp:139] Memory required for data: 3674800
I0426 20:49:05.569051 31443 layer_factory.hpp:77] Creating layer ip3
I0426 20:49:05.569059 31443 net.cpp:86] Creating Layer ip3
I0426 20:49:05.569063 31443 net.cpp:408] ip3 <- ip2
I0426 20:49:05.569068 31443 net.cpp:382] ip3 -> ip3
I0426 20:49:05.569228 31443 net.cpp:124] Setting up ip3
I0426 20:49:05.569237 31443 net.cpp:131] Top shape: 100 10 (1000)
I0426 20:49:05.569241 31443 net.cpp:139] Memory required for data: 3678800
I0426 20:49:05.569245 31443 layer_factory.hpp:77] Creating layer relu3
I0426 20:49:05.569250 31443 net.cpp:86] Creating Layer relu3
I0426 20:49:05.569253 31443 net.cpp:408] relu3 <- ip3
I0426 20:49:05.569257 31443 net.cpp:369] relu3 -> ip3 (in-place)
I0426 20:49:05.569427 31443 net.cpp:124] Setting up relu3
I0426 20:49:05.569437 31443 net.cpp:131] Top shape: 100 10 (1000)
I0426 20:49:05.569439 31443 net.cpp:139] Memory required for data: 3682800
I0426 20:49:05.569442 31443 layer_factory.hpp:77] Creating layer ip3_relu3_0_split
I0426 20:49:05.569447 31443 net.cpp:86] Creating Layer ip3_relu3_0_split
I0426 20:49:05.569449 31443 net.cpp:408] ip3_relu3_0_split <- ip3
I0426 20:49:05.569454 31443 net.cpp:382] ip3_relu3_0_split -> ip3_relu3_0_split_0
I0426 20:49:05.569459 31443 net.cpp:382] ip3_relu3_0_split -> ip3_relu3_0_split_1
I0426 20:49:05.569494 31443 net.cpp:124] Setting up ip3_relu3_0_split
I0426 20:49:05.569497 31443 net.cpp:131] Top shape: 100 10 (1000)
I0426 20:49:05.569517 31443 net.cpp:131] Top shape: 100 10 (1000)
I0426 20:49:05.569521 31443 net.cpp:139] Memory required for data: 3690800
I0426 20:49:05.569525 31443 layer_factory.hpp:77] Creating layer accuracy
I0426 20:49:05.569530 31443 net.cpp:86] Creating Layer accuracy
I0426 20:49:05.569538 31443 net.cpp:408] accuracy <- ip3_relu3_0_split_0
I0426 20:49:05.569542 31443 net.cpp:408] accuracy <- label_mnist_1_split_0
I0426 20:49:05.569546 31443 net.cpp:382] accuracy -> accuracy
…
