…
I0426 20:50:07.033848 31687 net.cpp:296] The NetState phase (0) differed from the phase (1) specified by a rule in layer mnist
I0426 20:50:07.033874 31687 net.cpp:296] The NetState phase (0) differed from the phase (1) specified by a rule in layer accuracy
I0426 20:50:07.033987 31687 net.cpp:53] Initializing net from parameters: 
name: "LeNet"
state {
  phase: TRAIN
  level: 0
  stage: ""
}
layer {
  name: "mnist"
  type: "Data"
  top: "data"
  top: "label"
  include {
    phase: TRAIN
  }
  transform_param {
    scale: 0.00390625
  }
  data_param {
    source: "examples/mnist/mnist_train_lmdb"
    batch_size: 64
    backend: LMDB
  }
}
layer {
  name: "conv0"
  type: "Convolution"
  bottom: "data"
  top: "conv0"
  param {
    lr_mult: 1
  }
  param {
    lr_mult: 2
  }
  convolution_param {
    num_output: 50
    kernel_size: 5
    stride: 1
    weight_filler {
      type: "xavier"
    }
    bias_filler {
      type: "constant"
    }
  }
}
layer {
  name: "pool0"
  type: "Pooling"
  bottom: "conv0"
  top: "pool0"
  pooling_param {
    pool: MAX
    kernel_size: 2
    stride: 2
  }
}
layer {
  name: "ip1"
  type: "InnerProduct"
  bottom: "pool0"
  top: "ip1"
  param {
    lr_mult: 1
  }
  param {
    lr_mult: 2
  }
  inner_product_param {
    num_output: 300
    weight_filler {
      type: "xavier"
    }
    bias_filler {
      type: "constant"
    }
  }
}
layer {
  name: "relu1"
  type: "ReLU"
  bottom: "ip1"
  top: "ip1"
}
layer {
  name: "ip2"
  type: "InnerProduct"
  bottom: "ip1"
  top: "ip2"
  param {
    lr_mult: 1
  }
  param {
    lr_mult: 2
  }
  inner_product_param {
    num_output: 100
    weight_filler {
      type: "xavier"
    }
    bias_filler {
      type: "constant"
    }
  }
}
layer {
  name: "relu2"
  type: "ReLU"
  bottom: "ip2"
  top: "ip2"
}
layer {
  name: "ip3"
  type: "InnerProduct"
  bottom: "ip2"
  top: "ip3"
  param {
    lr_mult: 1
  }
  param {
    lr_mult: 2
  }
  inner_product_param {
    num_output: 10
    weight_filler {
      type: "xavier"
    }
    bias_filler {
      type: "constant"
    }
  }
}
layer {
  name: "relu3"
  type: "ReLU"
  bottom: "ip3"
  top: "ip3"
}
layer {
  name: "loss"
  type: "SoftmaxWithLoss"
  bottom: "ip3"
  bottom: "label"
  top: "loss"
}
I0426 20:50:07.034056 31687 layer_factory.hpp:77] Creating layer mnist
I0426 20:50:07.034147 31687 db_lmdb.cpp:35] Opened lmdb examples/mnist/mnist_train_lmdb
I0426 20:50:07.034167 31687 net.cpp:86] Creating Layer mnist
I0426 20:50:07.034173 31687 net.cpp:382] mnist -> data
I0426 20:50:07.034190 31687 net.cpp:382] mnist -> label
I0426 20:50:07.035156 31687 data_layer.cpp:45] output data size: 64,1,28,28
I0426 20:50:07.037506 31687 net.cpp:124] Setting up mnist
I0426 20:50:07.037519 31687 net.cpp:131] Top shape: 64 1 28 28 (50176)
I0426 20:50:07.037523 31687 net.cpp:131] Top shape: 64 (64)
I0426 20:50:07.037526 31687 net.cpp:139] Memory required for data: 200960
I0426 20:50:07.037531 31687 layer_factory.hpp:77] Creating layer conv0
I0426 20:50:07.037544 31687 net.cpp:86] Creating Layer conv0
I0426 20:50:07.037564 31687 net.cpp:408] conv0 <- data
I0426 20:50:07.037573 31687 net.cpp:382] conv0 -> conv0
I0426 20:50:07.261662 31687 net.cpp:124] Setting up conv0
I0426 20:50:07.261703 31687 net.cpp:131] Top shape: 64 50 24 24 (1843200)
I0426 20:50:07.261708 31687 net.cpp:139] Memory required for data: 7573760
I0426 20:50:07.261721 31687 layer_factory.hpp:77] Creating layer pool0
I0426 20:50:07.261734 31687 net.cpp:86] Creating Layer pool0
I0426 20:50:07.261771 31687 net.cpp:408] pool0 <- conv0
I0426 20:50:07.261777 31687 net.cpp:382] pool0 -> pool0
I0426 20:50:07.261823 31687 net.cpp:124] Setting up pool0
I0426 20:50:07.261831 31687 net.cpp:131] Top shape: 64 50 12 12 (460800)
I0426 20:50:07.261834 31687 net.cpp:139] Memory required for data: 9416960
I0426 20:50:07.261837 31687 layer_factory.hpp:77] Creating layer ip1
I0426 20:50:07.261844 31687 net.cpp:86] Creating Layer ip1
I0426 20:50:07.261847 31687 net.cpp:408] ip1 <- pool0
I0426 20:50:07.261868 31687 net.cpp:382] ip1 -> ip1
I0426 20:50:07.275082 31687 net.cpp:124] Setting up ip1
I0426 20:50:07.275110 31687 net.cpp:131] Top shape: 64 300 (19200)
I0426 20:50:07.275115 31687 net.cpp:139] Memory required for data: 9493760
I0426 20:50:07.275122 31687 layer_factory.hpp:77] Creating layer relu1
I0426 20:50:07.275130 31687 net.cpp:86] Creating Layer relu1
I0426 20:50:07.275133 31687 net.cpp:408] relu1 <- ip1
I0426 20:50:07.275137 31687 net.cpp:369] relu1 -> ip1 (in-place)
I0426 20:50:07.275351 31687 net.cpp:124] Setting up relu1
I0426 20:50:07.275359 31687 net.cpp:131] Top shape: 64 300 (19200)
I0426 20:50:07.275362 31687 net.cpp:139] Memory required for data: 9570560
I0426 20:50:07.275365 31687 layer_factory.hpp:77] Creating layer ip2
I0426 20:50:07.275372 31687 net.cpp:86] Creating Layer ip2
I0426 20:50:07.275375 31687 net.cpp:408] ip2 <- ip1
I0426 20:50:07.275379 31687 net.cpp:382] ip2 -> ip2
I0426 20:50:07.275634 31687 net.cpp:124] Setting up ip2
I0426 20:50:07.275640 31687 net.cpp:131] Top shape: 64 100 (6400)
I0426 20:50:07.275643 31687 net.cpp:139] Memory required for data: 9596160
I0426 20:50:07.275650 31687 layer_factory.hpp:77] Creating layer relu2
I0426 20:50:07.275655 31687 net.cpp:86] Creating Layer relu2
I0426 20:50:07.275658 31687 net.cpp:408] relu2 <- ip2
I0426 20:50:07.275662 31687 net.cpp:369] relu2 -> ip2 (in-place)
I0426 20:50:07.276502 31687 net.cpp:124] Setting up relu2
I0426 20:50:07.276513 31687 net.cpp:131] Top shape: 64 100 (6400)
I0426 20:50:07.276532 31687 net.cpp:139] Memory required for data: 9621760
I0426 20:50:07.276536 31687 layer_factory.hpp:77] Creating layer ip3
I0426 20:50:07.276542 31687 net.cpp:86] Creating Layer ip3
I0426 20:50:07.276546 31687 net.cpp:408] ip3 <- ip2
I0426 20:50:07.276551 31687 net.cpp:382] ip3 -> ip3
I0426 20:50:07.276664 31687 net.cpp:124] Setting up ip3
I0426 20:50:07.276671 31687 net.cpp:131] Top shape: 64 10 (640)
I0426 20:50:07.276674 31687 net.cpp:139] Memory required for data: 9624320
I0426 20:50:07.276679 31687 layer_factory.hpp:77] Creating layer relu3
I0426 20:50:07.276685 31687 net.cpp:86] Creating Layer relu3
I0426 20:50:07.276688 31687 net.cpp:408] relu3 <- ip3
I0426 20:50:07.276692 31687 net.cpp:369] relu3 -> ip3 (in-place)
I0426 20:50:07.276863 31687 net.cpp:124] Setting up relu3
I0426 20:50:07.276872 31687 net.cpp:131] Top shape: 64 10 (640)
I0426 20:50:07.276875 31687 net.cpp:139] Memory required for data: 9626880
I0426 20:50:07.276878 31687 layer_factory.hpp:77] Creating layer loss
I0426 20:50:07.276883 31687 net.cpp:86] Creating Layer loss
I0426 20:50:07.276886 31687 net.cpp:408] loss <- ip3
I0426 20:50:07.276890 31687 net.cpp:408] loss <- label
I0426 20:50:07.276895 31687 net.cpp:382] loss -> loss
I0426 20:50:07.276913 31687 layer_factory.hpp:77] Creating layer loss
…
I0426 20:50:07.277535 31687 solver.cpp:173] Creating test net (#0) specified by net file: ECE595/mnist/train_test/var_everything/lenet_train_test52.prototxt
I0426 20:50:07.277575 31687 net.cpp:296] The NetState phase (1) differed from the phase (0) specified by a rule in layer mnist
I0426 20:50:07.277668 31687 net.cpp:53] Initializing net from parameters: 
name: "LeNet"
state {
  phase: TEST
}
layer {
  name: "mnist"
  type: "Data"
  top: "data"
  top: "label"
  include {
    phase: TEST
  }
  transform_param {
    scale: 0.00390625
  }
  data_param {
    source: "examples/mnist/mnist_test_lmdb"
    batch_size: 100
    backend: LMDB
  }
}
layer {
  name: "conv0"
  type: "Convolution"
  bottom: "data"
  top: "conv0"
  param {
    lr_mult: 1
  }
  param {
    lr_mult: 2
  }
  convolution_param {
    num_output: 50
    kernel_size: 5
    stride: 1
    weight_filler {
      type: "xavier"
    }
    bias_filler {
      type: "constant"
    }
  }
}
layer {
  name: "pool0"
  type: "Pooling"
  bottom: "conv0"
  top: "pool0"
  pooling_param {
    pool: MAX
    kernel_size: 2
    stride: 2
  }
}
layer {
  name: "ip1"
  type: "InnerProduct"
  bottom: "pool0"
  top: "ip1"
  param {
    lr_mult: 1
  }
  param {
    lr_mult: 2
  }
  inner_product_param {
    num_output: 300
    weight_filler {
      type: "xavier"
    }
    bias_filler {
      type: "constant"
    }
  }
}
layer {
  name: "relu1"
  type: "ReLU"
  bottom: "ip1"
  top: "ip1"
}
layer {
  name: "ip2"
  type: "InnerProduct"
  bottom: "ip1"
  top: "ip2"
  param {
    lr_mult: 1
  }
  param {
    lr_mult: 2
  }
  inner_product_param {
    num_output: 100
    weight_filler {
      type: "xavier"
    }
    bias_filler {
      type: "constant"
    }
  }
}
layer {
  name: "relu2"
  type: "ReLU"
  bottom: "ip2"
  top: "ip2"
}
layer {
  name: "ip3"
  type: "InnerProduct"
  bottom: "ip2"
  top: "ip3"
  param {
    lr_mult: 1
  }
  param {
    lr_mult: 2
  }
  inner_product_param {
    num_output: 10
    weight_filler {
      type: "xavier"
    }
    bias_filler {
      type: "constant"
    }
  }
}
layer {
  name: "relu3"
  type: "ReLU"
  bottom: "ip3"
  top: "ip3"
}
layer {
  name: "accuracy"
  type: "Accuracy"
  bottom: "ip3"
  bottom: "label"
  top: "accuracy"
  include {
    phase: TEST
  }
}
layer {
  name: "loss"
  type: "SoftmaxWithLoss"
  bottom: "ip3"
  bottom: "label"
  top: "loss"
}
I0426 20:50:07.277730 31687 layer_factory.hpp:77] Creating layer mnist
I0426 20:50:07.277775 31687 db_lmdb.cpp:35] Opened lmdb examples/mnist/mnist_test_lmdb
I0426 20:50:07.277786 31687 net.cpp:86] Creating Layer mnist
I0426 20:50:07.277791 31687 net.cpp:382] mnist -> data
I0426 20:50:07.277797 31687 net.cpp:382] mnist -> label
I0426 20:50:07.277879 31687 data_layer.cpp:45] output data size: 100,1,28,28
I0426 20:50:07.279850 31687 net.cpp:124] Setting up mnist
I0426 20:50:07.279877 31687 net.cpp:131] Top shape: 100 1 28 28 (78400)
I0426 20:50:07.279882 31687 net.cpp:131] Top shape: 100 (100)
I0426 20:50:07.279886 31687 net.cpp:139] Memory required for data: 314000
I0426 20:50:07.279889 31687 layer_factory.hpp:77] Creating layer label_mnist_1_split
I0426 20:50:07.279932 31687 net.cpp:86] Creating Layer label_mnist_1_split
I0426 20:50:07.279937 31687 net.cpp:408] label_mnist_1_split <- label
I0426 20:50:07.279942 31687 net.cpp:382] label_mnist_1_split -> label_mnist_1_split_0
I0426 20:50:07.279948 31687 net.cpp:382] label_mnist_1_split -> label_mnist_1_split_1
I0426 20:50:07.280052 31687 net.cpp:124] Setting up label_mnist_1_split
I0426 20:50:07.280059 31687 net.cpp:131] Top shape: 100 (100)
I0426 20:50:07.280063 31687 net.cpp:131] Top shape: 100 (100)
I0426 20:50:07.280066 31687 net.cpp:139] Memory required for data: 314800
I0426 20:50:07.280079 31687 layer_factory.hpp:77] Creating layer conv0
I0426 20:50:07.280088 31687 net.cpp:86] Creating Layer conv0
I0426 20:50:07.280092 31687 net.cpp:408] conv0 <- data
I0426 20:50:07.280097 31687 net.cpp:382] conv0 -> conv0
I0426 20:50:07.281781 31687 net.cpp:124] Setting up conv0
I0426 20:50:07.281795 31687 net.cpp:131] Top shape: 100 50 24 24 (2880000)
I0426 20:50:07.281798 31687 net.cpp:139] Memory required for data: 11834800
I0426 20:50:07.281807 31687 layer_factory.hpp:77] Creating layer pool0
I0426 20:50:07.281828 31687 net.cpp:86] Creating Layer pool0
I0426 20:50:07.281831 31687 net.cpp:408] pool0 <- conv0
I0426 20:50:07.281850 31687 net.cpp:382] pool0 -> pool0
I0426 20:50:07.281883 31687 net.cpp:124] Setting up pool0
I0426 20:50:07.281890 31687 net.cpp:131] Top shape: 100 50 12 12 (720000)
I0426 20:50:07.281893 31687 net.cpp:139] Memory required for data: 14714800
I0426 20:50:07.281895 31687 layer_factory.hpp:77] Creating layer ip1
I0426 20:50:07.281901 31687 net.cpp:86] Creating Layer ip1
I0426 20:50:07.281920 31687 net.cpp:408] ip1 <- pool0
I0426 20:50:07.281924 31687 net.cpp:382] ip1 -> ip1
I0426 20:50:07.296056 31687 net.cpp:124] Setting up ip1
I0426 20:50:07.296085 31687 net.cpp:131] Top shape: 100 300 (30000)
I0426 20:50:07.296089 31687 net.cpp:139] Memory required for data: 14834800
I0426 20:50:07.296113 31687 layer_factory.hpp:77] Creating layer relu1
I0426 20:50:07.296118 31687 net.cpp:86] Creating Layer relu1
I0426 20:50:07.296123 31687 net.cpp:408] relu1 <- ip1
I0426 20:50:07.296126 31687 net.cpp:369] relu1 -> ip1 (in-place)
I0426 20:50:07.296324 31687 net.cpp:124] Setting up relu1
I0426 20:50:07.296332 31687 net.cpp:131] Top shape: 100 300 (30000)
I0426 20:50:07.296335 31687 net.cpp:139] Memory required for data: 14954800
I0426 20:50:07.296339 31687 layer_factory.hpp:77] Creating layer ip2
I0426 20:50:07.296345 31687 net.cpp:86] Creating Layer ip2
I0426 20:50:07.296349 31687 net.cpp:408] ip2 <- ip1
I0426 20:50:07.296355 31687 net.cpp:382] ip2 -> ip2
I0426 20:50:07.296655 31687 net.cpp:124] Setting up ip2
I0426 20:50:07.296676 31687 net.cpp:131] Top shape: 100 100 (10000)
I0426 20:50:07.296679 31687 net.cpp:139] Memory required for data: 14994800
I0426 20:50:07.296702 31687 layer_factory.hpp:77] Creating layer relu2
I0426 20:50:07.296707 31687 net.cpp:86] Creating Layer relu2
I0426 20:50:07.296710 31687 net.cpp:408] relu2 <- ip2
I0426 20:50:07.296715 31687 net.cpp:369] relu2 -> ip2 (in-place)
I0426 20:50:07.297644 31687 net.cpp:124] Setting up relu2
I0426 20:50:07.297655 31687 net.cpp:131] Top shape: 100 100 (10000)
I0426 20:50:07.297674 31687 net.cpp:139] Memory required for data: 15034800
I0426 20:50:07.297677 31687 layer_factory.hpp:77] Creating layer ip3
I0426 20:50:07.297685 31687 net.cpp:86] Creating Layer ip3
I0426 20:50:07.297688 31687 net.cpp:408] ip3 <- ip2
I0426 20:50:07.297693 31687 net.cpp:382] ip3 -> ip3
I0426 20:50:07.297827 31687 net.cpp:124] Setting up ip3
I0426 20:50:07.297834 31687 net.cpp:131] Top shape: 100 10 (1000)
I0426 20:50:07.297837 31687 net.cpp:139] Memory required for data: 15038800
I0426 20:50:07.297843 31687 layer_factory.hpp:77] Creating layer relu3
I0426 20:50:07.297847 31687 net.cpp:86] Creating Layer relu3
I0426 20:50:07.297850 31687 net.cpp:408] relu3 <- ip3
I0426 20:50:07.297854 31687 net.cpp:369] relu3 -> ip3 (in-place)
I0426 20:50:07.298024 31687 net.cpp:124] Setting up relu3
I0426 20:50:07.298033 31687 net.cpp:131] Top shape: 100 10 (1000)
I0426 20:50:07.298038 31687 net.cpp:139] Memory required for data: 15042800
I0426 20:50:07.298041 31687 layer_factory.hpp:77] Creating layer ip3_relu3_0_split
I0426 20:50:07.298045 31687 net.cpp:86] Creating Layer ip3_relu3_0_split
I0426 20:50:07.298049 31687 net.cpp:408] ip3_relu3_0_split <- ip3
I0426 20:50:07.298053 31687 net.cpp:382] ip3_relu3_0_split -> ip3_relu3_0_split_0
I0426 20:50:07.298059 31687 net.cpp:382] ip3_relu3_0_split -> ip3_relu3_0_split_1
I0426 20:50:07.298094 31687 net.cpp:124] Setting up ip3_relu3_0_split
I0426 20:50:07.298099 31687 net.cpp:131] Top shape: 100 10 (1000)
I0426 20:50:07.298115 31687 net.cpp:131] Top shape: 100 10 (1000)
I0426 20:50:07.298117 31687 net.cpp:139] Memory required for data: 15050800
I0426 20:50:07.298120 31687 layer_factory.hpp:77] Creating layer accuracy
I0426 20:50:07.298125 31687 net.cpp:86] Creating Layer accuracy
I0426 20:50:07.298128 31687 net.cpp:408] accuracy <- ip3_relu3_0_split_0
I0426 20:50:07.298132 31687 net.cpp:408] accuracy <- label_mnist_1_split_0
I0426 20:50:07.298138 31687 net.cpp:382] accuracy -> accuracy
…
