…
I0426 20:48:49.186259 31377 net.cpp:296] The NetState phase (0) differed from the phase (1) specified by a rule in layer mnist
I0426 20:48:49.186273 31377 net.cpp:296] The NetState phase (0) differed from the phase (1) specified by a rule in layer accuracy
I0426 20:48:49.186350 31377 net.cpp:53] Initializing net from parameters: 
name: "LeNet"
state {
  phase: TRAIN
  level: 0
  stage: ""
}
layer {
  name: "mnist"
  type: "Data"
  top: "data"
  top: "label"
  include {
    phase: TRAIN
  }
  transform_param {
    scale: 0.00390625
  }
  data_param {
    source: "examples/mnist/mnist_train_lmdb"
    batch_size: 64
    backend: LMDB
  }
}
layer {
  name: "conv0"
  type: "Convolution"
  bottom: "data"
  top: "conv0"
  param {
    lr_mult: 1
  }
  param {
    lr_mult: 2
  }
  convolution_param {
    num_output: 10
    kernel_size: 5
    stride: 1
    weight_filler {
      type: "xavier"
    }
    bias_filler {
      type: "constant"
    }
  }
}
layer {
  name: "pool0"
  type: "Pooling"
  bottom: "conv0"
  top: "pool0"
  pooling_param {
    pool: MAX
    kernel_size: 2
    stride: 2
  }
}
layer {
  name: "ip1"
  type: "InnerProduct"
  bottom: "pool0"
  top: "ip1"
  param {
    lr_mult: 1
  }
  param {
    lr_mult: 2
  }
  inner_product_param {
    num_output: 300
    weight_filler {
      type: "xavier"
    }
    bias_filler {
      type: "constant"
    }
  }
}
layer {
  name: "relu1"
  type: "ReLU"
  bottom: "ip1"
  top: "ip1"
}
layer {
  name: "ip2"
  type: "InnerProduct"
  bottom: "ip1"
  top: "ip2"
  param {
    lr_mult: 1
  }
  param {
    lr_mult: 2
  }
  inner_product_param {
    num_output: 10
    weight_filler {
      type: "xavier"
    }
    bias_filler {
      type: "constant"
    }
  }
}
layer {
  name: "relu2"
  type: "ReLU"
  bottom: "ip2"
  top: "ip2"
}
layer {
  name: "loss"
  type: "SoftmaxWithLoss"
  bottom: "ip2"
  bottom: "label"
  top: "loss"
}
I0426 20:48:49.186414 31377 layer_factory.hpp:77] Creating layer mnist
I0426 20:48:49.186513 31377 db_lmdb.cpp:35] Opened lmdb examples/mnist/mnist_train_lmdb
I0426 20:48:49.186537 31377 net.cpp:86] Creating Layer mnist
I0426 20:48:49.186544 31377 net.cpp:382] mnist -> data
I0426 20:48:49.186566 31377 net.cpp:382] mnist -> label
I0426 20:48:49.187656 31377 data_layer.cpp:45] output data size: 64,1,28,28
I0426 20:48:49.190199 31377 net.cpp:124] Setting up mnist
I0426 20:48:49.190217 31377 net.cpp:131] Top shape: 64 1 28 28 (50176)
I0426 20:48:49.190222 31377 net.cpp:131] Top shape: 64 (64)
I0426 20:48:49.190227 31377 net.cpp:139] Memory required for data: 200960
I0426 20:48:49.190234 31377 layer_factory.hpp:77] Creating layer conv0
I0426 20:48:49.190251 31377 net.cpp:86] Creating Layer conv0
I0426 20:48:49.190258 31377 net.cpp:408] conv0 <- data
I0426 20:48:49.190268 31377 net.cpp:382] conv0 -> conv0
I0426 20:48:49.442508 31377 net.cpp:124] Setting up conv0
I0426 20:48:49.442549 31377 net.cpp:131] Top shape: 64 10 24 24 (368640)
I0426 20:48:49.442569 31377 net.cpp:139] Memory required for data: 1675520
I0426 20:48:49.442584 31377 layer_factory.hpp:77] Creating layer pool0
I0426 20:48:49.442597 31377 net.cpp:86] Creating Layer pool0
I0426 20:48:49.442618 31377 net.cpp:408] pool0 <- conv0
I0426 20:48:49.442625 31377 net.cpp:382] pool0 -> pool0
I0426 20:48:49.442675 31377 net.cpp:124] Setting up pool0
I0426 20:48:49.442688 31377 net.cpp:131] Top shape: 64 10 12 12 (92160)
I0426 20:48:49.442692 31377 net.cpp:139] Memory required for data: 2044160
I0426 20:48:49.442711 31377 layer_factory.hpp:77] Creating layer ip1
I0426 20:48:49.442720 31377 net.cpp:86] Creating Layer ip1
I0426 20:48:49.442723 31377 net.cpp:408] ip1 <- pool0
I0426 20:48:49.442728 31377 net.cpp:382] ip1 -> ip1
I0426 20:48:49.446128 31377 net.cpp:124] Setting up ip1
I0426 20:48:49.446141 31377 net.cpp:131] Top shape: 64 300 (19200)
I0426 20:48:49.446159 31377 net.cpp:139] Memory required for data: 2120960
I0426 20:48:49.446182 31377 layer_factory.hpp:77] Creating layer relu1
I0426 20:48:49.446188 31377 net.cpp:86] Creating Layer relu1
I0426 20:48:49.446192 31377 net.cpp:408] relu1 <- ip1
I0426 20:48:49.446197 31377 net.cpp:369] relu1 -> ip1 (in-place)
I0426 20:48:49.446393 31377 net.cpp:124] Setting up relu1
I0426 20:48:49.446401 31377 net.cpp:131] Top shape: 64 300 (19200)
I0426 20:48:49.446405 31377 net.cpp:139] Memory required for data: 2197760
I0426 20:48:49.446408 31377 layer_factory.hpp:77] Creating layer ip2
I0426 20:48:49.446415 31377 net.cpp:86] Creating Layer ip2
I0426 20:48:49.446419 31377 net.cpp:408] ip2 <- ip1
I0426 20:48:49.446424 31377 net.cpp:382] ip2 -> ip2
I0426 20:48:49.447424 31377 net.cpp:124] Setting up ip2
I0426 20:48:49.447437 31377 net.cpp:131] Top shape: 64 10 (640)
I0426 20:48:49.447455 31377 net.cpp:139] Memory required for data: 2200320
I0426 20:48:49.447463 31377 layer_factory.hpp:77] Creating layer relu2
I0426 20:48:49.447469 31377 net.cpp:86] Creating Layer relu2
I0426 20:48:49.447473 31377 net.cpp:408] relu2 <- ip2
I0426 20:48:49.447477 31377 net.cpp:369] relu2 -> ip2 (in-place)
I0426 20:48:49.448338 31377 net.cpp:124] Setting up relu2
I0426 20:48:49.448365 31377 net.cpp:131] Top shape: 64 10 (640)
I0426 20:48:49.448369 31377 net.cpp:139] Memory required for data: 2202880
I0426 20:48:49.448386 31377 layer_factory.hpp:77] Creating layer loss
I0426 20:48:49.448393 31377 net.cpp:86] Creating Layer loss
I0426 20:48:49.448396 31377 net.cpp:408] loss <- ip2
I0426 20:48:49.448401 31377 net.cpp:408] loss <- label
I0426 20:48:49.448406 31377 net.cpp:382] loss -> loss
I0426 20:48:49.448426 31377 layer_factory.hpp:77] Creating layer loss
…
I0426 20:48:49.449009 31377 solver.cpp:173] Creating test net (#0) specified by net file: ECE595/mnist/train_test/var_everything/lenet_train_test18.prototxt
I0426 20:48:49.449035 31377 net.cpp:296] The NetState phase (1) differed from the phase (0) specified by a rule in layer mnist
I0426 20:48:49.449113 31377 net.cpp:53] Initializing net from parameters: 
name: "LeNet"
state {
  phase: TEST
}
layer {
  name: "mnist"
  type: "Data"
  top: "data"
  top: "label"
  include {
    phase: TEST
  }
  transform_param {
    scale: 0.00390625
  }
  data_param {
    source: "examples/mnist/mnist_test_lmdb"
    batch_size: 100
    backend: LMDB
  }
}
layer {
  name: "conv0"
  type: "Convolution"
  bottom: "data"
  top: "conv0"
  param {
    lr_mult: 1
  }
  param {
    lr_mult: 2
  }
  convolution_param {
    num_output: 10
    kernel_size: 5
    stride: 1
    weight_filler {
      type: "xavier"
    }
    bias_filler {
      type: "constant"
    }
  }
}
layer {
  name: "pool0"
  type: "Pooling"
  bottom: "conv0"
  top: "pool0"
  pooling_param {
    pool: MAX
    kernel_size: 2
    stride: 2
  }
}
layer {
  name: "ip1"
  type: "InnerProduct"
  bottom: "pool0"
  top: "ip1"
  param {
    lr_mult: 1
  }
  param {
    lr_mult: 2
  }
  inner_product_param {
    num_output: 300
    weight_filler {
      type: "xavier"
    }
    bias_filler {
      type: "constant"
    }
  }
}
layer {
  name: "relu1"
  type: "ReLU"
  bottom: "ip1"
  top: "ip1"
}
layer {
  name: "ip2"
  type: "InnerProduct"
  bottom: "ip1"
  top: "ip2"
  param {
    lr_mult: 1
  }
  param {
    lr_mult: 2
  }
  inner_product_param {
    num_output: 10
    weight_filler {
      type: "xavier"
    }
    bias_filler {
      type: "constant"
    }
  }
}
layer {
  name: "relu2"
  type: "ReLU"
  bottom: "ip2"
  top: "ip2"
}
layer {
  name: "accuracy"
  type: "Accuracy"
  bottom: "ip2"
  bottom: "label"
  top: "accuracy"
  include {
    phase: TEST
  }
}
layer {
  name: "loss"
  type: "SoftmaxWithLoss"
  bottom: "ip2"
  bottom: "label"
  top: "loss"
}
I0426 20:48:49.449218 31377 layer_factory.hpp:77] Creating layer mnist
I0426 20:48:49.449261 31377 db_lmdb.cpp:35] Opened lmdb examples/mnist/mnist_test_lmdb
I0426 20:48:49.449277 31377 net.cpp:86] Creating Layer mnist
I0426 20:48:49.449282 31377 net.cpp:382] mnist -> data
I0426 20:48:49.449291 31377 net.cpp:382] mnist -> label
I0426 20:48:49.449376 31377 data_layer.cpp:45] output data size: 100,1,28,28
I0426 20:48:49.451392 31377 net.cpp:124] Setting up mnist
I0426 20:48:49.451421 31377 net.cpp:131] Top shape: 100 1 28 28 (78400)
I0426 20:48:49.451426 31377 net.cpp:131] Top shape: 100 (100)
I0426 20:48:49.451429 31377 net.cpp:139] Memory required for data: 314000
I0426 20:48:49.451433 31377 layer_factory.hpp:77] Creating layer label_mnist_1_split
I0426 20:48:49.451475 31377 net.cpp:86] Creating Layer label_mnist_1_split
I0426 20:48:49.451480 31377 net.cpp:408] label_mnist_1_split <- label
I0426 20:48:49.451485 31377 net.cpp:382] label_mnist_1_split -> label_mnist_1_split_0
I0426 20:48:49.451493 31377 net.cpp:382] label_mnist_1_split -> label_mnist_1_split_1
I0426 20:48:49.451540 31377 net.cpp:124] Setting up label_mnist_1_split
I0426 20:48:49.451546 31377 net.cpp:131] Top shape: 100 (100)
I0426 20:48:49.451550 31377 net.cpp:131] Top shape: 100 (100)
I0426 20:48:49.451553 31377 net.cpp:139] Memory required for data: 314800
I0426 20:48:49.451556 31377 layer_factory.hpp:77] Creating layer conv0
I0426 20:48:49.451565 31377 net.cpp:86] Creating Layer conv0
I0426 20:48:49.451570 31377 net.cpp:408] conv0 <- data
I0426 20:48:49.451575 31377 net.cpp:382] conv0 -> conv0
I0426 20:48:49.453454 31377 net.cpp:124] Setting up conv0
I0426 20:48:49.453469 31377 net.cpp:131] Top shape: 100 10 24 24 (576000)
I0426 20:48:49.453471 31377 net.cpp:139] Memory required for data: 2618800
I0426 20:48:49.453480 31377 layer_factory.hpp:77] Creating layer pool0
I0426 20:48:49.453502 31377 net.cpp:86] Creating Layer pool0
I0426 20:48:49.453506 31377 net.cpp:408] pool0 <- conv0
I0426 20:48:49.453510 31377 net.cpp:382] pool0 -> pool0
I0426 20:48:49.453579 31377 net.cpp:124] Setting up pool0
I0426 20:48:49.453584 31377 net.cpp:131] Top shape: 100 10 12 12 (144000)
I0426 20:48:49.453588 31377 net.cpp:139] Memory required for data: 3194800
I0426 20:48:49.453591 31377 layer_factory.hpp:77] Creating layer ip1
I0426 20:48:49.453598 31377 net.cpp:86] Creating Layer ip1
I0426 20:48:49.453601 31377 net.cpp:408] ip1 <- pool0
I0426 20:48:49.453606 31377 net.cpp:382] ip1 -> ip1
I0426 20:48:49.457000 31377 net.cpp:124] Setting up ip1
I0426 20:48:49.457013 31377 net.cpp:131] Top shape: 100 300 (30000)
I0426 20:48:49.457016 31377 net.cpp:139] Memory required for data: 3314800
I0426 20:48:49.457049 31377 layer_factory.hpp:77] Creating layer relu1
I0426 20:48:49.457056 31377 net.cpp:86] Creating Layer relu1
I0426 20:48:49.457059 31377 net.cpp:408] relu1 <- ip1
I0426 20:48:49.457070 31377 net.cpp:369] relu1 -> ip1 (in-place)
I0426 20:48:49.457283 31377 net.cpp:124] Setting up relu1
I0426 20:48:49.457293 31377 net.cpp:131] Top shape: 100 300 (30000)
I0426 20:48:49.457312 31377 net.cpp:139] Memory required for data: 3434800
I0426 20:48:49.457317 31377 layer_factory.hpp:77] Creating layer ip2
I0426 20:48:49.457324 31377 net.cpp:86] Creating Layer ip2
I0426 20:48:49.457326 31377 net.cpp:408] ip2 <- ip1
I0426 20:48:49.457332 31377 net.cpp:382] ip2 -> ip2
I0426 20:48:49.457453 31377 net.cpp:124] Setting up ip2
I0426 20:48:49.457463 31377 net.cpp:131] Top shape: 100 10 (1000)
I0426 20:48:49.457466 31377 net.cpp:139] Memory required for data: 3438800
I0426 20:48:49.457474 31377 layer_factory.hpp:77] Creating layer relu2
I0426 20:48:49.457479 31377 net.cpp:86] Creating Layer relu2
I0426 20:48:49.457482 31377 net.cpp:408] relu2 <- ip2
I0426 20:48:49.457486 31377 net.cpp:369] relu2 -> ip2 (in-place)
I0426 20:48:49.457718 31377 net.cpp:124] Setting up relu2
I0426 20:48:49.457727 31377 net.cpp:131] Top shape: 100 10 (1000)
I0426 20:48:49.457737 31377 net.cpp:139] Memory required for data: 3442800
I0426 20:48:49.457741 31377 layer_factory.hpp:77] Creating layer ip2_relu2_0_split
I0426 20:48:49.457746 31377 net.cpp:86] Creating Layer ip2_relu2_0_split
I0426 20:48:49.457749 31377 net.cpp:408] ip2_relu2_0_split <- ip2
I0426 20:48:49.457754 31377 net.cpp:382] ip2_relu2_0_split -> ip2_relu2_0_split_0
I0426 20:48:49.457761 31377 net.cpp:382] ip2_relu2_0_split -> ip2_relu2_0_split_1
I0426 20:48:49.457816 31377 net.cpp:124] Setting up ip2_relu2_0_split
I0426 20:48:49.457823 31377 net.cpp:131] Top shape: 100 10 (1000)
I0426 20:48:49.457826 31377 net.cpp:131] Top shape: 100 10 (1000)
I0426 20:48:49.457829 31377 net.cpp:139] Memory required for data: 3450800
I0426 20:48:49.457832 31377 layer_factory.hpp:77] Creating layer accuracy
I0426 20:48:49.457837 31377 net.cpp:86] Creating Layer accuracy
I0426 20:48:49.457840 31377 net.cpp:408] accuracy <- ip2_relu2_0_split_0
I0426 20:48:49.457845 31377 net.cpp:408] accuracy <- label_mnist_1_split_0
I0426 20:48:49.457849 31377 net.cpp:382] accuracy -> accuracy
…
