…
I0426 20:48:59.042081 31419 net.cpp:296] The NetState phase (0) differed from the phase (1) specified by a rule in layer mnist
I0426 20:48:59.042095 31419 net.cpp:296] The NetState phase (0) differed from the phase (1) specified by a rule in layer accuracy
I0426 20:48:59.042163 31419 net.cpp:53] Initializing net from parameters: 
name: "LeNet"
state {
  phase: TRAIN
  level: 0
  stage: ""
}
layer {
  name: "mnist"
  type: "Data"
  top: "data"
  top: "label"
  include {
    phase: TRAIN
  }
  transform_param {
    scale: 0.00390625
  }
  data_param {
    source: "examples/mnist/mnist_train_lmdb"
    batch_size: 64
    backend: LMDB
  }
}
layer {
  name: "conv0"
  type: "Convolution"
  bottom: "data"
  top: "conv0"
  param {
    lr_mult: 1
  }
  param {
    lr_mult: 2
  }
  convolution_param {
    num_output: 10
    kernel_size: 5
    stride: 1
    weight_filler {
      type: "xavier"
    }
    bias_filler {
      type: "constant"
    }
  }
}
layer {
  name: "pool0"
  type: "Pooling"
  bottom: "conv0"
  top: "pool0"
  pooling_param {
    pool: MAX
    kernel_size: 2
    stride: 2
  }
}
layer {
  name: "ip1"
  type: "InnerProduct"
  bottom: "pool0"
  top: "ip1"
  param {
    lr_mult: 1
  }
  param {
    lr_mult: 2
  }
  inner_product_param {
    num_output: 100
    weight_filler {
      type: "xavier"
    }
    bias_filler {
      type: "constant"
    }
  }
}
layer {
  name: "relu1"
  type: "ReLU"
  bottom: "ip1"
  top: "ip1"
}
layer {
  name: "ip2"
  type: "InnerProduct"
  bottom: "ip1"
  top: "ip2"
  param {
    lr_mult: 1
  }
  param {
    lr_mult: 2
  }
  inner_product_param {
    num_output: 300
    weight_filler {
      type: "xavier"
    }
    bias_filler {
      type: "constant"
    }
  }
}
layer {
  name: "relu2"
  type: "ReLU"
  bottom: "ip2"
  top: "ip2"
}
layer {
  name: "ip3"
  type: "InnerProduct"
  bottom: "ip2"
  top: "ip3"
  param {
    lr_mult: 1
  }
  param {
    lr_mult: 2
  }
  inner_product_param {
    num_output: 10
    weight_filler {
      type: "xavier"
    }
    bias_filler {
      type: "constant"
    }
  }
}
layer {
  name: "relu3"
  type: "ReLU"
  bottom: "ip3"
  top: "ip3"
}
layer {
  name: "loss"
  type: "SoftmaxWithLoss"
  bottom: "ip3"
  bottom: "label"
  top: "loss"
}
I0426 20:48:59.042217 31419 layer_factory.hpp:77] Creating layer mnist
I0426 20:48:59.042297 31419 db_lmdb.cpp:35] Opened lmdb examples/mnist/mnist_train_lmdb
I0426 20:48:59.042316 31419 net.cpp:86] Creating Layer mnist
I0426 20:48:59.042322 31419 net.cpp:382] mnist -> data
I0426 20:48:59.042358 31419 net.cpp:382] mnist -> label
I0426 20:48:59.043301 31419 data_layer.cpp:45] output data size: 64,1,28,28
I0426 20:48:59.045406 31419 net.cpp:124] Setting up mnist
I0426 20:48:59.045419 31419 net.cpp:131] Top shape: 64 1 28 28 (50176)
I0426 20:48:59.045424 31419 net.cpp:131] Top shape: 64 (64)
I0426 20:48:59.045428 31419 net.cpp:139] Memory required for data: 200960
I0426 20:48:59.045433 31419 layer_factory.hpp:77] Creating layer conv0
I0426 20:48:59.045445 31419 net.cpp:86] Creating Layer conv0
I0426 20:48:59.045449 31419 net.cpp:408] conv0 <- data
I0426 20:48:59.045459 31419 net.cpp:382] conv0 -> conv0
I0426 20:48:59.270596 31419 net.cpp:124] Setting up conv0
I0426 20:48:59.270635 31419 net.cpp:131] Top shape: 64 10 24 24 (368640)
I0426 20:48:59.270638 31419 net.cpp:139] Memory required for data: 1675520
I0426 20:48:59.270653 31419 layer_factory.hpp:77] Creating layer pool0
I0426 20:48:59.270665 31419 net.cpp:86] Creating Layer pool0
I0426 20:48:59.270701 31419 net.cpp:408] pool0 <- conv0
I0426 20:48:59.270707 31419 net.cpp:382] pool0 -> pool0
I0426 20:48:59.270753 31419 net.cpp:124] Setting up pool0
I0426 20:48:59.270761 31419 net.cpp:131] Top shape: 64 10 12 12 (92160)
I0426 20:48:59.270764 31419 net.cpp:139] Memory required for data: 2044160
I0426 20:48:59.270767 31419 layer_factory.hpp:77] Creating layer ip1
I0426 20:48:59.270776 31419 net.cpp:86] Creating Layer ip1
I0426 20:48:59.270778 31419 net.cpp:408] ip1 <- pool0
I0426 20:48:59.270782 31419 net.cpp:382] ip1 -> ip1
I0426 20:48:59.272513 31419 net.cpp:124] Setting up ip1
I0426 20:48:59.272524 31419 net.cpp:131] Top shape: 64 100 (6400)
I0426 20:48:59.272543 31419 net.cpp:139] Memory required for data: 2069760
I0426 20:48:59.272552 31419 layer_factory.hpp:77] Creating layer relu1
I0426 20:48:59.272557 31419 net.cpp:86] Creating Layer relu1
I0426 20:48:59.272560 31419 net.cpp:408] relu1 <- ip1
I0426 20:48:59.272564 31419 net.cpp:369] relu1 -> ip1 (in-place)
I0426 20:48:59.272768 31419 net.cpp:124] Setting up relu1
I0426 20:48:59.272778 31419 net.cpp:131] Top shape: 64 100 (6400)
I0426 20:48:59.272781 31419 net.cpp:139] Memory required for data: 2095360
I0426 20:48:59.272784 31419 layer_factory.hpp:77] Creating layer ip2
I0426 20:48:59.272791 31419 net.cpp:86] Creating Layer ip2
I0426 20:48:59.272794 31419 net.cpp:408] ip2 <- ip1
I0426 20:48:59.272799 31419 net.cpp:382] ip2 -> ip2
I0426 20:48:59.273089 31419 net.cpp:124] Setting up ip2
I0426 20:48:59.273097 31419 net.cpp:131] Top shape: 64 300 (19200)
I0426 20:48:59.273100 31419 net.cpp:139] Memory required for data: 2172160
I0426 20:48:59.273124 31419 layer_factory.hpp:77] Creating layer relu2
I0426 20:48:59.273129 31419 net.cpp:86] Creating Layer relu2
I0426 20:48:59.273133 31419 net.cpp:408] relu2 <- ip2
I0426 20:48:59.273136 31419 net.cpp:369] relu2 -> ip2 (in-place)
I0426 20:48:59.273973 31419 net.cpp:124] Setting up relu2
I0426 20:48:59.273985 31419 net.cpp:131] Top shape: 64 300 (19200)
I0426 20:48:59.274004 31419 net.cpp:139] Memory required for data: 2248960
I0426 20:48:59.274008 31419 layer_factory.hpp:77] Creating layer ip3
I0426 20:48:59.274014 31419 net.cpp:86] Creating Layer ip3
I0426 20:48:59.274019 31419 net.cpp:408] ip3 <- ip2
I0426 20:48:59.274024 31419 net.cpp:382] ip3 -> ip3
I0426 20:48:59.275022 31419 net.cpp:124] Setting up ip3
I0426 20:48:59.275033 31419 net.cpp:131] Top shape: 64 10 (640)
I0426 20:48:59.275051 31419 net.cpp:139] Memory required for data: 2251520
I0426 20:48:59.275058 31419 layer_factory.hpp:77] Creating layer relu3
I0426 20:48:59.275079 31419 net.cpp:86] Creating Layer relu3
I0426 20:48:59.275081 31419 net.cpp:408] relu3 <- ip3
I0426 20:48:59.275085 31419 net.cpp:369] relu3 -> ip3 (in-place)
I0426 20:48:59.275270 31419 net.cpp:124] Setting up relu3
I0426 20:48:59.275279 31419 net.cpp:131] Top shape: 64 10 (640)
I0426 20:48:59.275282 31419 net.cpp:139] Memory required for data: 2254080
I0426 20:48:59.275285 31419 layer_factory.hpp:77] Creating layer loss
I0426 20:48:59.275291 31419 net.cpp:86] Creating Layer loss
I0426 20:48:59.275295 31419 net.cpp:408] loss <- ip3
I0426 20:48:59.275298 31419 net.cpp:408] loss <- label
I0426 20:48:59.275303 31419 net.cpp:382] loss -> loss
I0426 20:48:59.275318 31419 layer_factory.hpp:77] Creating layer loss
…
I0426 20:48:59.275921 31419 solver.cpp:173] Creating test net (#0) specified by net file: ECE595/mnist/train_test/var_everything/lenet_train_test23.prototxt
I0426 20:48:59.275950 31419 net.cpp:296] The NetState phase (1) differed from the phase (0) specified by a rule in layer mnist
I0426 20:48:59.276031 31419 net.cpp:53] Initializing net from parameters: 
name: "LeNet"
state {
  phase: TEST
}
layer {
  name: "mnist"
  type: "Data"
  top: "data"
  top: "label"
  include {
    phase: TEST
  }
  transform_param {
    scale: 0.00390625
  }
  data_param {
    source: "examples/mnist/mnist_test_lmdb"
    batch_size: 100
    backend: LMDB
  }
}
layer {
  name: "conv0"
  type: "Convolution"
  bottom: "data"
  top: "conv0"
  param {
    lr_mult: 1
  }
  param {
    lr_mult: 2
  }
  convolution_param {
    num_output: 10
    kernel_size: 5
    stride: 1
    weight_filler {
      type: "xavier"
    }
    bias_filler {
      type: "constant"
    }
  }
}
layer {
  name: "pool0"
  type: "Pooling"
  bottom: "conv0"
  top: "pool0"
  pooling_param {
    pool: MAX
    kernel_size: 2
    stride: 2
  }
}
layer {
  name: "ip1"
  type: "InnerProduct"
  bottom: "pool0"
  top: "ip1"
  param {
    lr_mult: 1
  }
  param {
    lr_mult: 2
  }
  inner_product_param {
    num_output: 100
    weight_filler {
      type: "xavier"
    }
    bias_filler {
      type: "constant"
    }
  }
}
layer {
  name: "relu1"
  type: "ReLU"
  bottom: "ip1"
  top: "ip1"
}
layer {
  name: "ip2"
  type: "InnerProduct"
  bottom: "ip1"
  top: "ip2"
  param {
    lr_mult: 1
  }
  param {
    lr_mult: 2
  }
  inner_product_param {
    num_output: 300
    weight_filler {
      type: "xavier"
    }
    bias_filler {
      type: "constant"
    }
  }
}
layer {
  name: "relu2"
  type: "ReLU"
  bottom: "ip2"
  top: "ip2"
}
layer {
  name: "ip3"
  type: "InnerProduct"
  bottom: "ip2"
  top: "ip3"
  param {
    lr_mult: 1
  }
  param {
    lr_mult: 2
  }
  inner_product_param {
    num_output: 10
    weight_filler {
      type: "xavier"
    }
    bias_filler {
      type: "constant"
    }
  }
}
layer {
  name: "relu3"
  type: "ReLU"
  bottom: "ip3"
  top: "ip3"
}
layer {
  name: "accuracy"
  type: "Accuracy"
  bottom: "ip3"
  bottom: "label"
  top: "accuracy"
  include {
    phase: TEST
  }
}
layer {
  name: "loss"
  type: "SoftmaxWithLoss"
  bottom: "ip3"
  bottom: "label"
  top: "loss"
}
I0426 20:48:59.276093 31419 layer_factory.hpp:77] Creating layer mnist
I0426 20:48:59.276140 31419 db_lmdb.cpp:35] Opened lmdb examples/mnist/mnist_test_lmdb
I0426 20:48:59.276154 31419 net.cpp:86] Creating Layer mnist
I0426 20:48:59.276157 31419 net.cpp:382] mnist -> data
I0426 20:48:59.276165 31419 net.cpp:382] mnist -> label
I0426 20:48:59.276249 31419 data_layer.cpp:45] output data size: 100,1,28,28
I0426 20:48:59.277431 31419 net.cpp:124] Setting up mnist
I0426 20:48:59.277458 31419 net.cpp:131] Top shape: 100 1 28 28 (78400)
I0426 20:48:59.277464 31419 net.cpp:131] Top shape: 100 (100)
I0426 20:48:59.277467 31419 net.cpp:139] Memory required for data: 314000
I0426 20:48:59.277477 31419 layer_factory.hpp:77] Creating layer label_mnist_1_split
I0426 20:48:59.277483 31419 net.cpp:86] Creating Layer label_mnist_1_split
I0426 20:48:59.277487 31419 net.cpp:408] label_mnist_1_split <- label
I0426 20:48:59.277492 31419 net.cpp:382] label_mnist_1_split -> label_mnist_1_split_0
I0426 20:48:59.277498 31419 net.cpp:382] label_mnist_1_split -> label_mnist_1_split_1
I0426 20:48:59.277561 31419 net.cpp:124] Setting up label_mnist_1_split
I0426 20:48:59.277567 31419 net.cpp:131] Top shape: 100 (100)
I0426 20:48:59.277570 31419 net.cpp:131] Top shape: 100 (100)
I0426 20:48:59.277573 31419 net.cpp:139] Memory required for data: 314800
I0426 20:48:59.277586 31419 layer_factory.hpp:77] Creating layer conv0
I0426 20:48:59.277595 31419 net.cpp:86] Creating Layer conv0
I0426 20:48:59.277598 31419 net.cpp:408] conv0 <- data
I0426 20:48:59.277603 31419 net.cpp:382] conv0 -> conv0
I0426 20:48:59.279263 31419 net.cpp:124] Setting up conv0
I0426 20:48:59.279276 31419 net.cpp:131] Top shape: 100 10 24 24 (576000)
I0426 20:48:59.279280 31419 net.cpp:139] Memory required for data: 2618800
I0426 20:48:59.279289 31419 layer_factory.hpp:77] Creating layer pool0
I0426 20:48:59.279309 31419 net.cpp:86] Creating Layer pool0
I0426 20:48:59.279314 31419 net.cpp:408] pool0 <- conv0
I0426 20:48:59.279317 31419 net.cpp:382] pool0 -> pool0
I0426 20:48:59.279352 31419 net.cpp:124] Setting up pool0
I0426 20:48:59.279357 31419 net.cpp:131] Top shape: 100 10 12 12 (144000)
I0426 20:48:59.279359 31419 net.cpp:139] Memory required for data: 3194800
I0426 20:48:59.279362 31419 layer_factory.hpp:77] Creating layer ip1
I0426 20:48:59.279368 31419 net.cpp:86] Creating Layer ip1
I0426 20:48:59.279371 31419 net.cpp:408] ip1 <- pool0
I0426 20:48:59.279376 31419 net.cpp:382] ip1 -> ip1
I0426 20:48:59.281163 31419 net.cpp:124] Setting up ip1
I0426 20:48:59.281191 31419 net.cpp:131] Top shape: 100 100 (10000)
I0426 20:48:59.281195 31419 net.cpp:139] Memory required for data: 3234800
I0426 20:48:59.281203 31419 layer_factory.hpp:77] Creating layer relu1
I0426 20:48:59.281208 31419 net.cpp:86] Creating Layer relu1
I0426 20:48:59.281226 31419 net.cpp:408] relu1 <- ip1
I0426 20:48:59.281230 31419 net.cpp:369] relu1 -> ip1 (in-place)
I0426 20:48:59.281467 31419 net.cpp:124] Setting up relu1
I0426 20:48:59.281476 31419 net.cpp:131] Top shape: 100 100 (10000)
I0426 20:48:59.281481 31419 net.cpp:139] Memory required for data: 3274800
I0426 20:48:59.281483 31419 layer_factory.hpp:77] Creating layer ip2
I0426 20:48:59.281489 31419 net.cpp:86] Creating Layer ip2
I0426 20:48:59.281492 31419 net.cpp:408] ip2 <- ip1
I0426 20:48:59.281497 31419 net.cpp:382] ip2 -> ip2
I0426 20:48:59.281759 31419 net.cpp:124] Setting up ip2
I0426 20:48:59.281765 31419 net.cpp:131] Top shape: 100 300 (30000)
I0426 20:48:59.281769 31419 net.cpp:139] Memory required for data: 3394800
I0426 20:48:59.281787 31419 layer_factory.hpp:77] Creating layer relu2
I0426 20:48:59.281798 31419 net.cpp:86] Creating Layer relu2
I0426 20:48:59.281801 31419 net.cpp:408] relu2 <- ip2
I0426 20:48:59.281805 31419 net.cpp:369] relu2 -> ip2 (in-place)
I0426 20:48:59.282655 31419 net.cpp:124] Setting up relu2
I0426 20:48:59.282665 31419 net.cpp:131] Top shape: 100 300 (30000)
I0426 20:48:59.282670 31419 net.cpp:139] Memory required for data: 3514800
I0426 20:48:59.282672 31419 layer_factory.hpp:77] Creating layer ip3
I0426 20:48:59.282680 31419 net.cpp:86] Creating Layer ip3
I0426 20:48:59.282699 31419 net.cpp:408] ip3 <- ip2
I0426 20:48:59.282704 31419 net.cpp:382] ip3 -> ip3
I0426 20:48:59.282872 31419 net.cpp:124] Setting up ip3
I0426 20:48:59.282881 31419 net.cpp:131] Top shape: 100 10 (1000)
I0426 20:48:59.282883 31419 net.cpp:139] Memory required for data: 3518800
I0426 20:48:59.282888 31419 layer_factory.hpp:77] Creating layer relu3
I0426 20:48:59.282894 31419 net.cpp:86] Creating Layer relu3
I0426 20:48:59.282897 31419 net.cpp:408] relu3 <- ip3
I0426 20:48:59.282902 31419 net.cpp:369] relu3 -> ip3 (in-place)
I0426 20:48:59.283072 31419 net.cpp:124] Setting up relu3
I0426 20:48:59.283082 31419 net.cpp:131] Top shape: 100 10 (1000)
I0426 20:48:59.283083 31419 net.cpp:139] Memory required for data: 3522800
I0426 20:48:59.283087 31419 layer_factory.hpp:77] Creating layer ip3_relu3_0_split
I0426 20:48:59.283093 31419 net.cpp:86] Creating Layer ip3_relu3_0_split
I0426 20:48:59.283095 31419 net.cpp:408] ip3_relu3_0_split <- ip3
I0426 20:48:59.283099 31419 net.cpp:382] ip3_relu3_0_split -> ip3_relu3_0_split_0
I0426 20:48:59.283107 31419 net.cpp:382] ip3_relu3_0_split -> ip3_relu3_0_split_1
I0426 20:48:59.283138 31419 net.cpp:124] Setting up ip3_relu3_0_split
I0426 20:48:59.283143 31419 net.cpp:131] Top shape: 100 10 (1000)
I0426 20:48:59.283155 31419 net.cpp:131] Top shape: 100 10 (1000)
I0426 20:48:59.283159 31419 net.cpp:139] Memory required for data: 3530800
I0426 20:48:59.283161 31419 layer_factory.hpp:77] Creating layer accuracy
I0426 20:48:59.283166 31419 net.cpp:86] Creating Layer accuracy
I0426 20:48:59.283176 31419 net.cpp:408] accuracy <- ip3_relu3_0_split_0
I0426 20:48:59.283179 31419 net.cpp:408] accuracy <- label_mnist_1_split_0
I0426 20:48:59.283184 31419 net.cpp:382] accuracy -> accuracy
…
