…
I0426 20:52:37.905879 32236 net.cpp:296] The NetState phase (0) differed from the phase (1) specified by a rule in layer mnist
I0426 20:52:37.905894 32236 net.cpp:296] The NetState phase (0) differed from the phase (1) specified by a rule in layer accuracy
I0426 20:52:37.905966 32236 net.cpp:53] Initializing net from parameters: 
name: "LeNet"
state {
  phase: TRAIN
  level: 0
  stage: ""
}
layer {
  name: "mnist"
  type: "Data"
  top: "data"
  top: "label"
  include {
    phase: TRAIN
  }
  transform_param {
    scale: 0.00390625
  }
  data_param {
    source: "examples/mnist/mnist_train_lmdb"
    batch_size: 64
    backend: LMDB
  }
}
layer {
  name: "conv0"
  type: "Convolution"
  bottom: "data"
  top: "conv0"
  param {
    lr_mult: 1
  }
  param {
    lr_mult: 2
  }
  convolution_param {
    num_output: 25
    kernel_size: 5
    stride: 1
    weight_filler {
      type: "xavier"
    }
    bias_filler {
      type: "constant"
    }
  }
}
layer {
  name: "pool0"
  type: "Pooling"
  bottom: "conv0"
  top: "pool0"
  pooling_param {
    pool: MAX
    kernel_size: 2
    stride: 2
  }
}
layer {
  name: "conv1"
  type: "Convolution"
  bottom: "pool0"
  top: "conv1"
  param {
    lr_mult: 1
  }
  param {
    lr_mult: 2
  }
  convolution_param {
    num_output: 25
    kernel_size: 5
    stride: 1
    weight_filler {
      type: "xavier"
    }
    bias_filler {
      type: "constant"
    }
  }
}
layer {
  name: "pool1"
  type: "Pooling"
  bottom: "conv1"
  top: "pool1"
  pooling_param {
    pool: MAX
    kernel_size: 2
    stride: 2
  }
}
layer {
  name: "ip1"
  type: "InnerProduct"
  bottom: "pool1"
  top: "ip1"
  param {
    lr_mult: 1
  }
  param {
    lr_mult: 2
  }
  inner_product_param {
    num_output: 300
    weight_filler {
      type: "xavier"
    }
    bias_filler {
      type: "constant"
    }
  }
}
layer {
  name: "relu1"
  type: "ReLU"
  bottom: "ip1"
  top: "ip1"
}
layer {
  name: "ip2"
  type: "InnerProduct"
  bottom: "ip1"
  top: "ip2"
  param {
    lr_mult: 1
  }
  param {
    lr_mult: 2
  }
  inner_product_param {
    num_output: 10
    weight_filler {
      type: "xavier"
    }
    bias_filler {
      type: "constant"
    }
  }
}
layer {
  name: "relu2"
  type: "ReLU"
  bottom: "ip2"
  top: "ip2"
}
layer {
  name: "loss"
  type: "SoftmaxWithLoss"
  bottom: "ip2"
  bottom: "label"
  top: "loss"
}
I0426 20:52:37.906026 32236 layer_factory.hpp:77] Creating layer mnist
I0426 20:52:37.906106 32236 db_lmdb.cpp:35] Opened lmdb examples/mnist/mnist_train_lmdb
I0426 20:52:37.906126 32236 net.cpp:86] Creating Layer mnist
I0426 20:52:37.906132 32236 net.cpp:382] mnist -> data
I0426 20:52:37.906149 32236 net.cpp:382] mnist -> label
I0426 20:52:37.907059 32236 data_layer.cpp:45] output data size: 64,1,28,28
I0426 20:52:37.909137 32236 net.cpp:124] Setting up mnist
I0426 20:52:37.909149 32236 net.cpp:131] Top shape: 64 1 28 28 (50176)
I0426 20:52:37.909154 32236 net.cpp:131] Top shape: 64 (64)
I0426 20:52:37.909157 32236 net.cpp:139] Memory required for data: 200960
I0426 20:52:37.909162 32236 layer_factory.hpp:77] Creating layer conv0
I0426 20:52:37.909175 32236 net.cpp:86] Creating Layer conv0
I0426 20:52:37.909180 32236 net.cpp:408] conv0 <- data
I0426 20:52:37.909214 32236 net.cpp:382] conv0 -> conv0
I0426 20:52:38.139904 32236 net.cpp:124] Setting up conv0
I0426 20:52:38.139943 32236 net.cpp:131] Top shape: 64 25 24 24 (921600)
I0426 20:52:38.139947 32236 net.cpp:139] Memory required for data: 3887360
I0426 20:52:38.139981 32236 layer_factory.hpp:77] Creating layer pool0
I0426 20:52:38.139992 32236 net.cpp:86] Creating Layer pool0
I0426 20:52:38.139997 32236 net.cpp:408] pool0 <- conv0
I0426 20:52:38.140017 32236 net.cpp:382] pool0 -> pool0
I0426 20:52:38.140063 32236 net.cpp:124] Setting up pool0
I0426 20:52:38.140067 32236 net.cpp:131] Top shape: 64 25 12 12 (230400)
I0426 20:52:38.140070 32236 net.cpp:139] Memory required for data: 4808960
I0426 20:52:38.140074 32236 layer_factory.hpp:77] Creating layer conv1
I0426 20:52:38.140100 32236 net.cpp:86] Creating Layer conv1
I0426 20:52:38.140102 32236 net.cpp:408] conv1 <- pool0
I0426 20:52:38.140107 32236 net.cpp:382] conv1 -> conv1
I0426 20:52:38.142874 32236 net.cpp:124] Setting up conv1
I0426 20:52:38.142886 32236 net.cpp:131] Top shape: 64 25 8 8 (102400)
I0426 20:52:38.142889 32236 net.cpp:139] Memory required for data: 5218560
I0426 20:52:38.142897 32236 layer_factory.hpp:77] Creating layer pool1
I0426 20:52:38.142904 32236 net.cpp:86] Creating Layer pool1
I0426 20:52:38.142907 32236 net.cpp:408] pool1 <- conv1
I0426 20:52:38.142911 32236 net.cpp:382] pool1 -> pool1
I0426 20:52:38.142961 32236 net.cpp:124] Setting up pool1
I0426 20:52:38.142966 32236 net.cpp:131] Top shape: 64 25 4 4 (25600)
I0426 20:52:38.142968 32236 net.cpp:139] Memory required for data: 5320960
I0426 20:52:38.142971 32236 layer_factory.hpp:77] Creating layer ip1
I0426 20:52:38.142978 32236 net.cpp:86] Creating Layer ip1
I0426 20:52:38.142980 32236 net.cpp:408] ip1 <- pool1
I0426 20:52:38.142985 32236 net.cpp:382] ip1 -> ip1
I0426 20:52:38.144574 32236 net.cpp:124] Setting up ip1
I0426 20:52:38.144585 32236 net.cpp:131] Top shape: 64 300 (19200)
I0426 20:52:38.144603 32236 net.cpp:139] Memory required for data: 5397760
I0426 20:52:38.144611 32236 layer_factory.hpp:77] Creating layer relu1
I0426 20:52:38.144618 32236 net.cpp:86] Creating Layer relu1
I0426 20:52:38.144620 32236 net.cpp:408] relu1 <- ip1
I0426 20:52:38.144624 32236 net.cpp:369] relu1 -> ip1 (in-place)
I0426 20:52:38.144855 32236 net.cpp:124] Setting up relu1
I0426 20:52:38.144863 32236 net.cpp:131] Top shape: 64 300 (19200)
I0426 20:52:38.144866 32236 net.cpp:139] Memory required for data: 5474560
I0426 20:52:38.144870 32236 layer_factory.hpp:77] Creating layer ip2
I0426 20:52:38.144876 32236 net.cpp:86] Creating Layer ip2
I0426 20:52:38.144879 32236 net.cpp:408] ip2 <- ip1
I0426 20:52:38.144884 32236 net.cpp:382] ip2 -> ip2
I0426 20:52:38.145890 32236 net.cpp:124] Setting up ip2
I0426 20:52:38.145901 32236 net.cpp:131] Top shape: 64 10 (640)
I0426 20:52:38.145920 32236 net.cpp:139] Memory required for data: 5477120
I0426 20:52:38.145926 32236 layer_factory.hpp:77] Creating layer relu2
I0426 20:52:38.145932 32236 net.cpp:86] Creating Layer relu2
I0426 20:52:38.145936 32236 net.cpp:408] relu2 <- ip2
I0426 20:52:38.145941 32236 net.cpp:369] relu2 -> ip2 (in-place)
I0426 20:52:38.146773 32236 net.cpp:124] Setting up relu2
I0426 20:52:38.146785 32236 net.cpp:131] Top shape: 64 10 (640)
I0426 20:52:38.146803 32236 net.cpp:139] Memory required for data: 5479680
I0426 20:52:38.146806 32236 layer_factory.hpp:77] Creating layer loss
I0426 20:52:38.146813 32236 net.cpp:86] Creating Layer loss
I0426 20:52:38.146816 32236 net.cpp:408] loss <- ip2
I0426 20:52:38.146832 32236 net.cpp:408] loss <- label
I0426 20:52:38.146837 32236 net.cpp:382] loss -> loss
I0426 20:52:38.146867 32236 layer_factory.hpp:77] Creating layer loss
…
I0426 20:52:38.147550 32236 solver.cpp:173] Creating test net (#0) specified by net file: ECE595/mnist/train_test/var_everything/lenet_train_test117.prototxt
I0426 20:52:38.147575 32236 net.cpp:296] The NetState phase (1) differed from the phase (0) specified by a rule in layer mnist
I0426 20:52:38.147660 32236 net.cpp:53] Initializing net from parameters: 
name: "LeNet"
state {
  phase: TEST
}
layer {
  name: "mnist"
  type: "Data"
  top: "data"
  top: "label"
  include {
    phase: TEST
  }
  transform_param {
    scale: 0.00390625
  }
  data_param {
    source: "examples/mnist/mnist_test_lmdb"
    batch_size: 100
    backend: LMDB
  }
}
layer {
  name: "conv0"
  type: "Convolution"
  bottom: "data"
  top: "conv0"
  param {
    lr_mult: 1
  }
  param {
    lr_mult: 2
  }
  convolution_param {
    num_output: 25
    kernel_size: 5
    stride: 1
    weight_filler {
      type: "xavier"
    }
    bias_filler {
      type: "constant"
    }
  }
}
layer {
  name: "pool0"
  type: "Pooling"
  bottom: "conv0"
  top: "pool0"
  pooling_param {
    pool: MAX
    kernel_size: 2
    stride: 2
  }
}
layer {
  name: "conv1"
  type: "Convolution"
  bottom: "pool0"
  top: "conv1"
  param {
    lr_mult: 1
  }
  param {
    lr_mult: 2
  }
  convolution_param {
    num_output: 25
    kernel_size: 5
    stride: 1
    weight_filler {
      type: "xavier"
    }
    bias_filler {
      type: "constant"
    }
  }
}
layer {
  name: "pool1"
  type: "Pooling"
  bottom: "conv1"
  top: "pool1"
  pooling_param {
    pool: MAX
    kernel_size: 2
    stride: 2
  }
}
layer {
  name: "ip1"
  type: "InnerProduct"
  bottom: "pool1"
  top: "ip1"
  param {
    lr_mult: 1
  }
  param {
    lr_mult: 2
  }
  inner_product_param {
    num_output: 300
    weight_filler {
      type: "xavier"
    }
    bias_filler {
      type: "constant"
    }
  }
}
layer {
  name: "relu1"
  type: "ReLU"
  bottom: "ip1"
  top: "ip1"
}
layer {
  name: "ip2"
  type: "InnerProduct"
  bottom: "ip1"
  top: "ip2"
  param {
    lr_mult: 1
  }
  param {
    lr_mult: 2
  }
  inner_product_param {
    num_output: 10
    weight_filler {
      type: "xavier"
    }
    bias_filler {
      type: "constant"
    }
  }
}
layer {
  name: "relu2"
  type: "ReLU"
  bottom: "ip2"
  top: "ip2"
}
layer {
  name: "accuracy"
  type: "Accuracy"
  bottom: "ip2"
  bottom: "label"
  top: "accuracy"
  include {
    phase: TEST
  }
}
layer {
  name: "loss"
  type: "SoftmaxWithLoss"
  bottom: "ip2"
  bottom: "label"
  top: "loss"
}
I0426 20:52:38.147744 32236 layer_factory.hpp:77] Creating layer mnist
I0426 20:52:38.147790 32236 db_lmdb.cpp:35] Opened lmdb examples/mnist/mnist_test_lmdb
I0426 20:52:38.147802 32236 net.cpp:86] Creating Layer mnist
I0426 20:52:38.147807 32236 net.cpp:382] mnist -> data
I0426 20:52:38.147815 32236 net.cpp:382] mnist -> label
I0426 20:52:38.147904 32236 data_layer.cpp:45] output data size: 100,1,28,28
I0426 20:52:38.149114 32236 net.cpp:124] Setting up mnist
I0426 20:52:38.149142 32236 net.cpp:131] Top shape: 100 1 28 28 (78400)
I0426 20:52:38.149147 32236 net.cpp:131] Top shape: 100 (100)
I0426 20:52:38.149148 32236 net.cpp:139] Memory required for data: 314000
I0426 20:52:38.149152 32236 layer_factory.hpp:77] Creating layer label_mnist_1_split
I0426 20:52:38.149194 32236 net.cpp:86] Creating Layer label_mnist_1_split
I0426 20:52:38.149197 32236 net.cpp:408] label_mnist_1_split <- label
I0426 20:52:38.149225 32236 net.cpp:382] label_mnist_1_split -> label_mnist_1_split_0
I0426 20:52:38.149232 32236 net.cpp:382] label_mnist_1_split -> label_mnist_1_split_1
I0426 20:52:38.149292 32236 net.cpp:124] Setting up label_mnist_1_split
I0426 20:52:38.149298 32236 net.cpp:131] Top shape: 100 (100)
I0426 20:52:38.149302 32236 net.cpp:131] Top shape: 100 (100)
I0426 20:52:38.149304 32236 net.cpp:139] Memory required for data: 314800
I0426 20:52:38.149307 32236 layer_factory.hpp:77] Creating layer conv0
I0426 20:52:38.149317 32236 net.cpp:86] Creating Layer conv0
I0426 20:52:38.149320 32236 net.cpp:408] conv0 <- data
I0426 20:52:38.149325 32236 net.cpp:382] conv0 -> conv0
I0426 20:52:38.151190 32236 net.cpp:124] Setting up conv0
I0426 20:52:38.151204 32236 net.cpp:131] Top shape: 100 25 24 24 (1440000)
I0426 20:52:38.151208 32236 net.cpp:139] Memory required for data: 6074800
I0426 20:52:38.151216 32236 layer_factory.hpp:77] Creating layer pool0
I0426 20:52:38.151221 32236 net.cpp:86] Creating Layer pool0
I0426 20:52:38.151240 32236 net.cpp:408] pool0 <- conv0
I0426 20:52:38.151247 32236 net.cpp:382] pool0 -> pool0
I0426 20:52:38.151280 32236 net.cpp:124] Setting up pool0
I0426 20:52:38.151301 32236 net.cpp:131] Top shape: 100 25 12 12 (360000)
I0426 20:52:38.151304 32236 net.cpp:139] Memory required for data: 7514800
I0426 20:52:38.151306 32236 layer_factory.hpp:77] Creating layer conv1
I0426 20:52:38.151315 32236 net.cpp:86] Creating Layer conv1
I0426 20:52:38.151319 32236 net.cpp:408] conv1 <- pool0
I0426 20:52:38.151334 32236 net.cpp:382] conv1 -> conv1
I0426 20:52:38.153699 32236 net.cpp:124] Setting up conv1
I0426 20:52:38.153712 32236 net.cpp:131] Top shape: 100 25 8 8 (160000)
I0426 20:52:38.153715 32236 net.cpp:139] Memory required for data: 8154800
I0426 20:52:38.153723 32236 layer_factory.hpp:77] Creating layer pool1
I0426 20:52:38.153730 32236 net.cpp:86] Creating Layer pool1
I0426 20:52:38.153749 32236 net.cpp:408] pool1 <- conv1
I0426 20:52:38.153753 32236 net.cpp:382] pool1 -> pool1
I0426 20:52:38.153795 32236 net.cpp:124] Setting up pool1
I0426 20:52:38.153800 32236 net.cpp:131] Top shape: 100 25 4 4 (40000)
I0426 20:52:38.153802 32236 net.cpp:139] Memory required for data: 8314800
I0426 20:52:38.153805 32236 layer_factory.hpp:77] Creating layer ip1
I0426 20:52:38.153810 32236 net.cpp:86] Creating Layer ip1
I0426 20:52:38.153813 32236 net.cpp:408] ip1 <- pool1
I0426 20:52:38.153818 32236 net.cpp:382] ip1 -> ip1
I0426 20:52:38.155454 32236 net.cpp:124] Setting up ip1
I0426 20:52:38.155467 32236 net.cpp:131] Top shape: 100 300 (30000)
I0426 20:52:38.155470 32236 net.cpp:139] Memory required for data: 8434800
I0426 20:52:38.155478 32236 layer_factory.hpp:77] Creating layer relu1
I0426 20:52:38.155483 32236 net.cpp:86] Creating Layer relu1
I0426 20:52:38.155501 32236 net.cpp:408] relu1 <- ip1
I0426 20:52:38.155508 32236 net.cpp:369] relu1 -> ip1 (in-place)
I0426 20:52:38.155735 32236 net.cpp:124] Setting up relu1
I0426 20:52:38.155742 32236 net.cpp:131] Top shape: 100 300 (30000)
I0426 20:52:38.155745 32236 net.cpp:139] Memory required for data: 8554800
I0426 20:52:38.155748 32236 layer_factory.hpp:77] Creating layer ip2
I0426 20:52:38.155756 32236 net.cpp:86] Creating Layer ip2
I0426 20:52:38.155760 32236 net.cpp:408] ip2 <- ip1
I0426 20:52:38.155764 32236 net.cpp:382] ip2 -> ip2
I0426 20:52:38.155889 32236 net.cpp:124] Setting up ip2
I0426 20:52:38.155895 32236 net.cpp:131] Top shape: 100 10 (1000)
I0426 20:52:38.155899 32236 net.cpp:139] Memory required for data: 8558800
I0426 20:52:38.155903 32236 layer_factory.hpp:77] Creating layer relu2
I0426 20:52:38.155910 32236 net.cpp:86] Creating Layer relu2
I0426 20:52:38.155911 32236 net.cpp:408] relu2 <- ip2
I0426 20:52:38.155915 32236 net.cpp:369] relu2 -> ip2 (in-place)
I0426 20:52:38.156124 32236 net.cpp:124] Setting up relu2
I0426 20:52:38.156133 32236 net.cpp:131] Top shape: 100 10 (1000)
I0426 20:52:38.156137 32236 net.cpp:139] Memory required for data: 8562800
I0426 20:52:38.156141 32236 layer_factory.hpp:77] Creating layer ip2_relu2_0_split
I0426 20:52:38.156146 32236 net.cpp:86] Creating Layer ip2_relu2_0_split
I0426 20:52:38.156149 32236 net.cpp:408] ip2_relu2_0_split <- ip2
I0426 20:52:38.156160 32236 net.cpp:382] ip2_relu2_0_split -> ip2_relu2_0_split_0
I0426 20:52:38.156177 32236 net.cpp:382] ip2_relu2_0_split -> ip2_relu2_0_split_1
I0426 20:52:38.156213 32236 net.cpp:124] Setting up ip2_relu2_0_split
I0426 20:52:38.156219 32236 net.cpp:131] Top shape: 100 10 (1000)
I0426 20:52:38.156222 32236 net.cpp:131] Top shape: 100 10 (1000)
I0426 20:52:38.156225 32236 net.cpp:139] Memory required for data: 8570800
I0426 20:52:38.156229 32236 layer_factory.hpp:77] Creating layer accuracy
I0426 20:52:38.156234 32236 net.cpp:86] Creating Layer accuracy
I0426 20:52:38.156236 32236 net.cpp:408] accuracy <- ip2_relu2_0_split_0
I0426 20:52:38.156240 32236 net.cpp:408] accuracy <- label_mnist_1_split_0
I0426 20:52:38.156245 32236 net.cpp:382] accuracy -> accuracy
…
