…
I0426 20:49:43.895138 31587 net.cpp:296] The NetState phase (0) differed from the phase (1) specified by a rule in layer mnist
I0426 20:49:43.895150 31587 net.cpp:296] The NetState phase (0) differed from the phase (1) specified by a rule in layer accuracy
I0426 20:49:43.895207 31587 net.cpp:53] Initializing net from parameters: 
name: "LeNet"
state {
  phase: TRAIN
  level: 0
  stage: ""
}
layer {
  name: "mnist"
  type: "Data"
  top: "data"
  top: "label"
  include {
    phase: TRAIN
  }
  transform_param {
    scale: 0.00390625
  }
  data_param {
    source: "examples/mnist/mnist_train_lmdb"
    batch_size: 64
    backend: LMDB
  }
}
layer {
  name: "conv0"
  type: "Convolution"
  bottom: "data"
  top: "conv0"
  param {
    lr_mult: 1
  }
  param {
    lr_mult: 2
  }
  convolution_param {
    num_output: 50
    kernel_size: 5
    stride: 1
    weight_filler {
      type: "xavier"
    }
    bias_filler {
      type: "constant"
    }
  }
}
layer {
  name: "pool0"
  type: "Pooling"
  bottom: "conv0"
  top: "pool0"
  pooling_param {
    pool: MAX
    kernel_size: 2
    stride: 2
  }
}
layer {
  name: "ip1"
  type: "InnerProduct"
  bottom: "pool0"
  top: "ip1"
  param {
    lr_mult: 1
  }
  param {
    lr_mult: 2
  }
  inner_product_param {
    num_output: 10
    weight_filler {
      type: "xavier"
    }
    bias_filler {
      type: "constant"
    }
  }
}
layer {
  name: "relu1"
  type: "ReLU"
  bottom: "ip1"
  top: "ip1"
}
layer {
  name: "loss"
  type: "SoftmaxWithLoss"
  bottom: "ip1"
  bottom: "label"
  top: "loss"
}
I0426 20:49:43.895256 31587 layer_factory.hpp:77] Creating layer mnist
I0426 20:49:43.895340 31587 db_lmdb.cpp:35] Opened lmdb examples/mnist/mnist_train_lmdb
I0426 20:49:43.895360 31587 net.cpp:86] Creating Layer mnist
I0426 20:49:43.895366 31587 net.cpp:382] mnist -> data
I0426 20:49:43.895383 31587 net.cpp:382] mnist -> label
I0426 20:49:43.896327 31587 data_layer.cpp:45] output data size: 64,1,28,28
I0426 20:49:43.898519 31587 net.cpp:124] Setting up mnist
I0426 20:49:43.898535 31587 net.cpp:131] Top shape: 64 1 28 28 (50176)
I0426 20:49:43.898538 31587 net.cpp:131] Top shape: 64 (64)
I0426 20:49:43.898541 31587 net.cpp:139] Memory required for data: 200960
I0426 20:49:43.898546 31587 layer_factory.hpp:77] Creating layer conv0
I0426 20:49:43.898571 31587 net.cpp:86] Creating Layer conv0
I0426 20:49:43.898576 31587 net.cpp:408] conv0 <- data
I0426 20:49:43.898586 31587 net.cpp:382] conv0 -> conv0
I0426 20:49:44.124487 31587 net.cpp:124] Setting up conv0
I0426 20:49:44.124513 31587 net.cpp:131] Top shape: 64 50 24 24 (1843200)
I0426 20:49:44.124517 31587 net.cpp:139] Memory required for data: 7573760
I0426 20:49:44.124531 31587 layer_factory.hpp:77] Creating layer pool0
I0426 20:49:44.124543 31587 net.cpp:86] Creating Layer pool0
I0426 20:49:44.124547 31587 net.cpp:408] pool0 <- conv0
I0426 20:49:44.124553 31587 net.cpp:382] pool0 -> pool0
I0426 20:49:44.124613 31587 net.cpp:124] Setting up pool0
I0426 20:49:44.124619 31587 net.cpp:131] Top shape: 64 50 12 12 (460800)
I0426 20:49:44.124621 31587 net.cpp:139] Memory required for data: 9416960
I0426 20:49:44.124624 31587 layer_factory.hpp:77] Creating layer ip1
I0426 20:49:44.124631 31587 net.cpp:86] Creating Layer ip1
I0426 20:49:44.124634 31587 net.cpp:408] ip1 <- pool0
I0426 20:49:44.124639 31587 net.cpp:382] ip1 -> ip1
I0426 20:49:44.125959 31587 net.cpp:124] Setting up ip1
I0426 20:49:44.125972 31587 net.cpp:131] Top shape: 64 10 (640)
I0426 20:49:44.125988 31587 net.cpp:139] Memory required for data: 9419520
I0426 20:49:44.125996 31587 layer_factory.hpp:77] Creating layer relu1
I0426 20:49:44.126003 31587 net.cpp:86] Creating Layer relu1
I0426 20:49:44.126006 31587 net.cpp:408] relu1 <- ip1
I0426 20:49:44.126010 31587 net.cpp:369] relu1 -> ip1 (in-place)
I0426 20:49:44.126201 31587 net.cpp:124] Setting up relu1
I0426 20:49:44.126211 31587 net.cpp:131] Top shape: 64 10 (640)
I0426 20:49:44.126214 31587 net.cpp:139] Memory required for data: 9422080
I0426 20:49:44.126217 31587 layer_factory.hpp:77] Creating layer loss
I0426 20:49:44.126222 31587 net.cpp:86] Creating Layer loss
I0426 20:49:44.126225 31587 net.cpp:408] loss <- ip1
I0426 20:49:44.126230 31587 net.cpp:408] loss <- label
I0426 20:49:44.126235 31587 net.cpp:382] loss -> loss
I0426 20:49:44.126247 31587 layer_factory.hpp:77] Creating layer loss
…
I0426 20:49:44.127401 31587 solver.cpp:173] Creating test net (#0) specified by net file: ECE595/mnist/train_test/var_everything/lenet_train_test43.prototxt
I0426 20:49:44.127423 31587 net.cpp:296] The NetState phase (1) differed from the phase (0) specified by a rule in layer mnist
I0426 20:49:44.127488 31587 net.cpp:53] Initializing net from parameters: 
name: "LeNet"
state {
  phase: TEST
}
layer {
  name: "mnist"
  type: "Data"
  top: "data"
  top: "label"
  include {
    phase: TEST
  }
  transform_param {
    scale: 0.00390625
  }
  data_param {
    source: "examples/mnist/mnist_test_lmdb"
    batch_size: 100
    backend: LMDB
  }
}
layer {
  name: "conv0"
  type: "Convolution"
  bottom: "data"
  top: "conv0"
  param {
    lr_mult: 1
  }
  param {
    lr_mult: 2
  }
  convolution_param {
    num_output: 50
    kernel_size: 5
    stride: 1
    weight_filler {
      type: "xavier"
    }
    bias_filler {
      type: "constant"
    }
  }
}
layer {
  name: "pool0"
  type: "Pooling"
  bottom: "conv0"
  top: "pool0"
  pooling_param {
    pool: MAX
    kernel_size: 2
    stride: 2
  }
}
layer {
  name: "ip1"
  type: "InnerProduct"
  bottom: "pool0"
  top: "ip1"
  param {
    lr_mult: 1
  }
  param {
    lr_mult: 2
  }
  inner_product_param {
    num_output: 10
    weight_filler {
      type: "xavier"
    }
    bias_filler {
      type: "constant"
    }
  }
}
layer {
  name: "relu1"
  type: "ReLU"
  bottom: "ip1"
  top: "ip1"
}
layer {
  name: "accuracy"
  type: "Accuracy"
  bottom: "ip1"
  bottom: "label"
  top: "accuracy"
  include {
    phase: TEST
  }
}
layer {
  name: "loss"
  type: "SoftmaxWithLoss"
  bottom: "ip1"
  bottom: "label"
  top: "loss"
}
I0426 20:49:44.127550 31587 layer_factory.hpp:77] Creating layer mnist
I0426 20:49:44.127590 31587 db_lmdb.cpp:35] Opened lmdb examples/mnist/mnist_test_lmdb
I0426 20:49:44.127605 31587 net.cpp:86] Creating Layer mnist
I0426 20:49:44.127609 31587 net.cpp:382] mnist -> data
I0426 20:49:44.127617 31587 net.cpp:382] mnist -> label
I0426 20:49:44.127693 31587 data_layer.cpp:45] output data size: 100,1,28,28
I0426 20:49:44.128792 31587 net.cpp:124] Setting up mnist
I0426 20:49:44.128841 31587 net.cpp:131] Top shape: 100 1 28 28 (78400)
I0426 20:49:44.128847 31587 net.cpp:131] Top shape: 100 (100)
I0426 20:49:44.128850 31587 net.cpp:139] Memory required for data: 314000
I0426 20:49:44.128880 31587 layer_factory.hpp:77] Creating layer label_mnist_1_split
I0426 20:49:44.128886 31587 net.cpp:86] Creating Layer label_mnist_1_split
I0426 20:49:44.128906 31587 net.cpp:408] label_mnist_1_split <- label
I0426 20:49:44.128911 31587 net.cpp:382] label_mnist_1_split -> label_mnist_1_split_0
I0426 20:49:44.128918 31587 net.cpp:382] label_mnist_1_split -> label_mnist_1_split_1
I0426 20:49:44.129006 31587 net.cpp:124] Setting up label_mnist_1_split
I0426 20:49:44.129014 31587 net.cpp:131] Top shape: 100 (100)
I0426 20:49:44.129019 31587 net.cpp:131] Top shape: 100 (100)
I0426 20:49:44.129022 31587 net.cpp:139] Memory required for data: 314800
I0426 20:49:44.129025 31587 layer_factory.hpp:77] Creating layer conv0
I0426 20:49:44.129035 31587 net.cpp:86] Creating Layer conv0
I0426 20:49:44.129039 31587 net.cpp:408] conv0 <- data
I0426 20:49:44.129045 31587 net.cpp:382] conv0 -> conv0
I0426 20:49:44.130784 31587 net.cpp:124] Setting up conv0
I0426 20:49:44.130811 31587 net.cpp:131] Top shape: 100 50 24 24 (2880000)
I0426 20:49:44.130815 31587 net.cpp:139] Memory required for data: 11834800
I0426 20:49:44.130823 31587 layer_factory.hpp:77] Creating layer pool0
I0426 20:49:44.130830 31587 net.cpp:86] Creating Layer pool0
I0426 20:49:44.130833 31587 net.cpp:408] pool0 <- conv0
I0426 20:49:44.130837 31587 net.cpp:382] pool0 -> pool0
I0426 20:49:44.130885 31587 net.cpp:124] Setting up pool0
I0426 20:49:44.130890 31587 net.cpp:131] Top shape: 100 50 12 12 (720000)
I0426 20:49:44.130893 31587 net.cpp:139] Memory required for data: 14714800
I0426 20:49:44.130897 31587 layer_factory.hpp:77] Creating layer ip1
I0426 20:49:44.130903 31587 net.cpp:86] Creating Layer ip1
I0426 20:49:44.130905 31587 net.cpp:408] ip1 <- pool0
I0426 20:49:44.130910 31587 net.cpp:382] ip1 -> ip1
I0426 20:49:44.131386 31587 net.cpp:124] Setting up ip1
I0426 20:49:44.131409 31587 net.cpp:131] Top shape: 100 10 (1000)
I0426 20:49:44.131412 31587 net.cpp:139] Memory required for data: 14718800
I0426 20:49:44.131419 31587 layer_factory.hpp:77] Creating layer relu1
I0426 20:49:44.131423 31587 net.cpp:86] Creating Layer relu1
I0426 20:49:44.131427 31587 net.cpp:408] relu1 <- ip1
I0426 20:49:44.131430 31587 net.cpp:369] relu1 -> ip1 (in-place)
I0426 20:49:44.131680 31587 net.cpp:124] Setting up relu1
I0426 20:49:44.131690 31587 net.cpp:131] Top shape: 100 10 (1000)
I0426 20:49:44.131692 31587 net.cpp:139] Memory required for data: 14722800
I0426 20:49:44.131695 31587 layer_factory.hpp:77] Creating layer ip1_relu1_0_split
I0426 20:49:44.131700 31587 net.cpp:86] Creating Layer ip1_relu1_0_split
I0426 20:49:44.131703 31587 net.cpp:408] ip1_relu1_0_split <- ip1
I0426 20:49:44.131708 31587 net.cpp:382] ip1_relu1_0_split -> ip1_relu1_0_split_0
I0426 20:49:44.131713 31587 net.cpp:382] ip1_relu1_0_split -> ip1_relu1_0_split_1
I0426 20:49:44.131759 31587 net.cpp:124] Setting up ip1_relu1_0_split
I0426 20:49:44.131767 31587 net.cpp:131] Top shape: 100 10 (1000)
I0426 20:49:44.131770 31587 net.cpp:131] Top shape: 100 10 (1000)
I0426 20:49:44.131773 31587 net.cpp:139] Memory required for data: 14730800
I0426 20:49:44.131777 31587 layer_factory.hpp:77] Creating layer accuracy
I0426 20:49:44.131781 31587 net.cpp:86] Creating Layer accuracy
I0426 20:49:44.131784 31587 net.cpp:408] accuracy <- ip1_relu1_0_split_0
I0426 20:49:44.131789 31587 net.cpp:408] accuracy <- label_mnist_1_split_0
I0426 20:49:44.131793 31587 net.cpp:382] accuracy -> accuracy
…
