…
I0426 20:49:57.099666 31653 net.cpp:296] The NetState phase (0) differed from the phase (1) specified by a rule in layer mnist
I0426 20:49:57.099684 31653 net.cpp:296] The NetState phase (0) differed from the phase (1) specified by a rule in layer accuracy
I0426 20:49:57.099773 31653 net.cpp:53] Initializing net from parameters: 
name: "LeNet"
state {
  phase: TRAIN
  level: 0
  stage: ""
}
layer {
  name: "mnist"
  type: "Data"
  top: "data"
  top: "label"
  include {
    phase: TRAIN
  }
  transform_param {
    scale: 0.00390625
  }
  data_param {
    source: "examples/mnist/mnist_train_lmdb"
    batch_size: 64
    backend: LMDB
  }
}
layer {
  name: "conv0"
  type: "Convolution"
  bottom: "data"
  top: "conv0"
  param {
    lr_mult: 1
  }
  param {
    lr_mult: 2
  }
  convolution_param {
    num_output: 50
    kernel_size: 5
    stride: 1
    weight_filler {
      type: "xavier"
    }
    bias_filler {
      type: "constant"
    }
  }
}
layer {
  name: "pool0"
  type: "Pooling"
  bottom: "conv0"
  top: "pool0"
  pooling_param {
    pool: MAX
    kernel_size: 2
    stride: 2
  }
}
layer {
  name: "ip1"
  type: "InnerProduct"
  bottom: "pool0"
  top: "ip1"
  param {
    lr_mult: 1
  }
  param {
    lr_mult: 2
  }
  inner_product_param {
    num_output: 100
    weight_filler {
      type: "xavier"
    }
    bias_filler {
      type: "constant"
    }
  }
}
layer {
  name: "relu1"
  type: "ReLU"
  bottom: "ip1"
  top: "ip1"
}
layer {
  name: "ip2"
  type: "InnerProduct"
  bottom: "ip1"
  top: "ip2"
  param {
    lr_mult: 1
  }
  param {
    lr_mult: 2
  }
  inner_product_param {
    num_output: 100
    weight_filler {
      type: "xavier"
    }
    bias_filler {
      type: "constant"
    }
  }
}
layer {
  name: "relu2"
  type: "ReLU"
  bottom: "ip2"
  top: "ip2"
}
layer {
  name: "ip3"
  type: "InnerProduct"
  bottom: "ip2"
  top: "ip3"
  param {
    lr_mult: 1
  }
  param {
    lr_mult: 2
  }
  inner_product_param {
    num_output: 10
    weight_filler {
      type: "xavier"
    }
    bias_filler {
      type: "constant"
    }
  }
}
layer {
  name: "relu3"
  type: "ReLU"
  bottom: "ip3"
  top: "ip3"
}
layer {
  name: "loss"
  type: "SoftmaxWithLoss"
  bottom: "ip3"
  bottom: "label"
  top: "loss"
}
I0426 20:49:57.099856 31653 layer_factory.hpp:77] Creating layer mnist
I0426 20:49:57.099961 31653 db_lmdb.cpp:35] Opened lmdb examples/mnist/mnist_train_lmdb
I0426 20:49:57.099984 31653 net.cpp:86] Creating Layer mnist
I0426 20:49:57.099992 31653 net.cpp:382] mnist -> data
I0426 20:49:57.100018 31653 net.cpp:382] mnist -> label
I0426 20:49:57.101125 31653 data_layer.cpp:45] output data size: 64,1,28,28
I0426 20:49:57.103677 31653 net.cpp:124] Setting up mnist
I0426 20:49:57.103694 31653 net.cpp:131] Top shape: 64 1 28 28 (50176)
I0426 20:49:57.103700 31653 net.cpp:131] Top shape: 64 (64)
I0426 20:49:57.103703 31653 net.cpp:139] Memory required for data: 200960
I0426 20:49:57.103710 31653 layer_factory.hpp:77] Creating layer conv0
I0426 20:49:57.103760 31653 net.cpp:86] Creating Layer conv0
I0426 20:49:57.103767 31653 net.cpp:408] conv0 <- data
I0426 20:49:57.103780 31653 net.cpp:382] conv0 -> conv0
I0426 20:49:57.372767 31653 net.cpp:124] Setting up conv0
I0426 20:49:57.372807 31653 net.cpp:131] Top shape: 64 50 24 24 (1843200)
I0426 20:49:57.372833 31653 net.cpp:139] Memory required for data: 7573760
I0426 20:49:57.372848 31653 layer_factory.hpp:77] Creating layer pool0
I0426 20:49:57.372861 31653 net.cpp:86] Creating Layer pool0
I0426 20:49:57.372900 31653 net.cpp:408] pool0 <- conv0
I0426 20:49:57.372906 31653 net.cpp:382] pool0 -> pool0
I0426 20:49:57.372968 31653 net.cpp:124] Setting up pool0
I0426 20:49:57.372975 31653 net.cpp:131] Top shape: 64 50 12 12 (460800)
I0426 20:49:57.372978 31653 net.cpp:139] Memory required for data: 9416960
I0426 20:49:57.372982 31653 layer_factory.hpp:77] Creating layer ip1
I0426 20:49:57.372989 31653 net.cpp:86] Creating Layer ip1
I0426 20:49:57.373008 31653 net.cpp:408] ip1 <- pool0
I0426 20:49:57.373013 31653 net.cpp:382] ip1 -> ip1
I0426 20:49:57.377804 31653 net.cpp:124] Setting up ip1
I0426 20:49:57.377815 31653 net.cpp:131] Top shape: 64 100 (6400)
I0426 20:49:57.377820 31653 net.cpp:139] Memory required for data: 9442560
I0426 20:49:57.377826 31653 layer_factory.hpp:77] Creating layer relu1
I0426 20:49:57.377833 31653 net.cpp:86] Creating Layer relu1
I0426 20:49:57.377836 31653 net.cpp:408] relu1 <- ip1
I0426 20:49:57.377840 31653 net.cpp:369] relu1 -> ip1 (in-place)
I0426 20:49:57.378026 31653 net.cpp:124] Setting up relu1
I0426 20:49:57.378034 31653 net.cpp:131] Top shape: 64 100 (6400)
I0426 20:49:57.378037 31653 net.cpp:139] Memory required for data: 9468160
I0426 20:49:57.378041 31653 layer_factory.hpp:77] Creating layer ip2
I0426 20:49:57.378047 31653 net.cpp:86] Creating Layer ip2
I0426 20:49:57.378049 31653 net.cpp:408] ip2 <- ip1
I0426 20:49:57.378070 31653 net.cpp:382] ip2 -> ip2
I0426 20:49:57.379071 31653 net.cpp:124] Setting up ip2
I0426 20:49:57.379083 31653 net.cpp:131] Top shape: 64 100 (6400)
I0426 20:49:57.379101 31653 net.cpp:139] Memory required for data: 9493760
I0426 20:49:57.379109 31653 layer_factory.hpp:77] Creating layer relu2
I0426 20:49:57.379115 31653 net.cpp:86] Creating Layer relu2
I0426 20:49:57.379118 31653 net.cpp:408] relu2 <- ip2
I0426 20:49:57.379123 31653 net.cpp:369] relu2 -> ip2 (in-place)
I0426 20:49:57.380012 31653 net.cpp:124] Setting up relu2
I0426 20:49:57.380023 31653 net.cpp:131] Top shape: 64 100 (6400)
I0426 20:49:57.380040 31653 net.cpp:139] Memory required for data: 9519360
I0426 20:49:57.380043 31653 layer_factory.hpp:77] Creating layer ip3
I0426 20:49:57.380050 31653 net.cpp:86] Creating Layer ip3
I0426 20:49:57.380053 31653 net.cpp:408] ip3 <- ip2
I0426 20:49:57.380059 31653 net.cpp:382] ip3 -> ip3
I0426 20:49:57.380199 31653 net.cpp:124] Setting up ip3
I0426 20:49:57.380206 31653 net.cpp:131] Top shape: 64 10 (640)
I0426 20:49:57.380209 31653 net.cpp:139] Memory required for data: 9521920
I0426 20:49:57.380214 31653 layer_factory.hpp:77] Creating layer relu3
I0426 20:49:57.380231 31653 net.cpp:86] Creating Layer relu3
I0426 20:49:57.380234 31653 net.cpp:408] relu3 <- ip3
I0426 20:49:57.380239 31653 net.cpp:369] relu3 -> ip3 (in-place)
I0426 20:49:57.380383 31653 net.cpp:124] Setting up relu3
I0426 20:49:57.380390 31653 net.cpp:131] Top shape: 64 10 (640)
I0426 20:49:57.380393 31653 net.cpp:139] Memory required for data: 9524480
I0426 20:49:57.380396 31653 layer_factory.hpp:77] Creating layer loss
I0426 20:49:57.380403 31653 net.cpp:86] Creating Layer loss
I0426 20:49:57.380405 31653 net.cpp:408] loss <- ip3
I0426 20:49:57.380409 31653 net.cpp:408] loss <- label
I0426 20:49:57.380414 31653 net.cpp:382] loss -> loss
I0426 20:49:57.380431 31653 layer_factory.hpp:77] Creating layer loss
…
I0426 20:49:57.381064 31653 solver.cpp:173] Creating test net (#0) specified by net file: ECE595/mnist/train_test/var_everything/lenet_train_test48.prototxt
I0426 20:49:57.381093 31653 net.cpp:296] The NetState phase (1) differed from the phase (0) specified by a rule in layer mnist
I0426 20:49:57.381187 31653 net.cpp:53] Initializing net from parameters: 
name: "LeNet"
state {
  phase: TEST
}
layer {
  name: "mnist"
  type: "Data"
  top: "data"
  top: "label"
  include {
    phase: TEST
  }
  transform_param {
    scale: 0.00390625
  }
  data_param {
    source: "examples/mnist/mnist_test_lmdb"
    batch_size: 100
    backend: LMDB
  }
}
layer {
  name: "conv0"
  type: "Convolution"
  bottom: "data"
  top: "conv0"
  param {
    lr_mult: 1
  }
  param {
    lr_mult: 2
  }
  convolution_param {
    num_output: 50
    kernel_size: 5
    stride: 1
    weight_filler {
      type: "xavier"
    }
    bias_filler {
      type: "constant"
    }
  }
}
layer {
  name: "pool0"
  type: "Pooling"
  bottom: "conv0"
  top: "pool0"
  pooling_param {
    pool: MAX
    kernel_size: 2
    stride: 2
  }
}
layer {
  name: "ip1"
  type: "InnerProduct"
  bottom: "pool0"
  top: "ip1"
  param {
    lr_mult: 1
  }
  param {
    lr_mult: 2
  }
  inner_product_param {
    num_output: 100
    weight_filler {
      type: "xavier"
    }
    bias_filler {
      type: "constant"
    }
  }
}
layer {
  name: "relu1"
  type: "ReLU"
  bottom: "ip1"
  top: "ip1"
}
layer {
  name: "ip2"
  type: "InnerProduct"
  bottom: "ip1"
  top: "ip2"
  param {
    lr_mult: 1
  }
  param {
    lr_mult: 2
  }
  inner_product_param {
    num_output: 100
    weight_filler {
      type: "xavier"
    }
    bias_filler {
      type: "constant"
    }
  }
}
layer {
  name: "relu2"
  type: "ReLU"
  bottom: "ip2"
  top: "ip2"
}
layer {
  name: "ip3"
  type: "InnerProduct"
  bottom: "ip2"
  top: "ip3"
  param {
    lr_mult: 1
  }
  param {
    lr_mult: 2
  }
  inner_product_param {
    num_output: 10
    weight_filler {
      type: "xavier"
    }
    bias_filler {
      type: "constant"
    }
  }
}
layer {
  name: "relu3"
  type: "ReLU"
  bottom: "ip3"
  top: "ip3"
}
layer {
  name: "accuracy"
  type: "Accuracy"
  bottom: "ip3"
  bottom: "label"
  top: "accuracy"
  include {
    phase: TEST
  }
}
layer {
  name: "loss"
  type: "SoftmaxWithLoss"
  bottom: "ip3"
  bottom: "label"
  top: "loss"
}
I0426 20:49:57.381249 31653 layer_factory.hpp:77] Creating layer mnist
I0426 20:49:57.381294 31653 db_lmdb.cpp:35] Opened lmdb examples/mnist/mnist_test_lmdb
I0426 20:49:57.381305 31653 net.cpp:86] Creating Layer mnist
I0426 20:49:57.381310 31653 net.cpp:382] mnist -> data
I0426 20:49:57.381319 31653 net.cpp:382] mnist -> label
I0426 20:49:57.381399 31653 data_layer.cpp:45] output data size: 100,1,28,28
I0426 20:49:57.383731 31653 net.cpp:124] Setting up mnist
I0426 20:49:57.383745 31653 net.cpp:131] Top shape: 100 1 28 28 (78400)
I0426 20:49:57.383750 31653 net.cpp:131] Top shape: 100 (100)
I0426 20:49:57.383754 31653 net.cpp:139] Memory required for data: 314000
I0426 20:49:57.383757 31653 layer_factory.hpp:77] Creating layer label_mnist_1_split
I0426 20:49:57.383783 31653 net.cpp:86] Creating Layer label_mnist_1_split
I0426 20:49:57.383787 31653 net.cpp:408] label_mnist_1_split <- label
I0426 20:49:57.383792 31653 net.cpp:382] label_mnist_1_split -> label_mnist_1_split_0
I0426 20:49:57.383800 31653 net.cpp:382] label_mnist_1_split -> label_mnist_1_split_1
I0426 20:49:57.383880 31653 net.cpp:124] Setting up label_mnist_1_split
I0426 20:49:57.383888 31653 net.cpp:131] Top shape: 100 (100)
I0426 20:49:57.383891 31653 net.cpp:131] Top shape: 100 (100)
I0426 20:49:57.383894 31653 net.cpp:139] Memory required for data: 314800
I0426 20:49:57.383908 31653 layer_factory.hpp:77] Creating layer conv0
I0426 20:49:57.383918 31653 net.cpp:86] Creating Layer conv0
I0426 20:49:57.383920 31653 net.cpp:408] conv0 <- data
I0426 20:49:57.383926 31653 net.cpp:382] conv0 -> conv0
I0426 20:49:57.385699 31653 net.cpp:124] Setting up conv0
I0426 20:49:57.385728 31653 net.cpp:131] Top shape: 100 50 24 24 (2880000)
I0426 20:49:57.385732 31653 net.cpp:139] Memory required for data: 11834800
I0426 20:49:57.385741 31653 layer_factory.hpp:77] Creating layer pool0
I0426 20:49:57.385748 31653 net.cpp:86] Creating Layer pool0
I0426 20:49:57.385751 31653 net.cpp:408] pool0 <- conv0
I0426 20:49:57.385756 31653 net.cpp:382] pool0 -> pool0
I0426 20:49:57.385807 31653 net.cpp:124] Setting up pool0
I0426 20:49:57.385812 31653 net.cpp:131] Top shape: 100 50 12 12 (720000)
I0426 20:49:57.385815 31653 net.cpp:139] Memory required for data: 14714800
I0426 20:49:57.385818 31653 layer_factory.hpp:77] Creating layer ip1
I0426 20:49:57.385824 31653 net.cpp:86] Creating Layer ip1
I0426 20:49:57.385828 31653 net.cpp:408] ip1 <- pool0
I0426 20:49:57.385833 31653 net.cpp:382] ip1 -> ip1
I0426 20:49:57.390887 31653 net.cpp:124] Setting up ip1
I0426 20:49:57.390899 31653 net.cpp:131] Top shape: 100 100 (10000)
I0426 20:49:57.390918 31653 net.cpp:139] Memory required for data: 14754800
I0426 20:49:57.390926 31653 layer_factory.hpp:77] Creating layer relu1
I0426 20:49:57.390933 31653 net.cpp:86] Creating Layer relu1
I0426 20:49:57.390935 31653 net.cpp:408] relu1 <- ip1
I0426 20:49:57.390954 31653 net.cpp:369] relu1 -> ip1 (in-place)
I0426 20:49:57.391127 31653 net.cpp:124] Setting up relu1
I0426 20:49:57.391136 31653 net.cpp:131] Top shape: 100 100 (10000)
I0426 20:49:57.391139 31653 net.cpp:139] Memory required for data: 14794800
I0426 20:49:57.391144 31653 layer_factory.hpp:77] Creating layer ip2
I0426 20:49:57.391149 31653 net.cpp:86] Creating Layer ip2
I0426 20:49:57.391151 31653 net.cpp:408] ip2 <- ip1
I0426 20:49:57.391156 31653 net.cpp:382] ip2 -> ip2
I0426 20:49:57.391325 31653 net.cpp:124] Setting up ip2
I0426 20:49:57.391332 31653 net.cpp:131] Top shape: 100 100 (10000)
I0426 20:49:57.391335 31653 net.cpp:139] Memory required for data: 14834800
I0426 20:49:57.391342 31653 layer_factory.hpp:77] Creating layer relu2
I0426 20:49:57.391347 31653 net.cpp:86] Creating Layer relu2
I0426 20:49:57.391350 31653 net.cpp:408] relu2 <- ip2
I0426 20:49:57.391355 31653 net.cpp:369] relu2 -> ip2 (in-place)
I0426 20:49:57.392171 31653 net.cpp:124] Setting up relu2
I0426 20:49:57.392184 31653 net.cpp:131] Top shape: 100 100 (10000)
I0426 20:49:57.392187 31653 net.cpp:139] Memory required for data: 14874800
I0426 20:49:57.392190 31653 layer_factory.hpp:77] Creating layer ip3
I0426 20:49:57.392213 31653 net.cpp:86] Creating Layer ip3
I0426 20:49:57.392217 31653 net.cpp:408] ip3 <- ip2
I0426 20:49:57.392222 31653 net.cpp:382] ip3 -> ip3
I0426 20:49:57.392324 31653 net.cpp:124] Setting up ip3
I0426 20:49:57.392333 31653 net.cpp:131] Top shape: 100 10 (1000)
I0426 20:49:57.392335 31653 net.cpp:139] Memory required for data: 14878800
I0426 20:49:57.392340 31653 layer_factory.hpp:77] Creating layer relu3
I0426 20:49:57.392345 31653 net.cpp:86] Creating Layer relu3
I0426 20:49:57.392349 31653 net.cpp:408] relu3 <- ip3
I0426 20:49:57.392352 31653 net.cpp:369] relu3 -> ip3 (in-place)
I0426 20:49:57.392495 31653 net.cpp:124] Setting up relu3
I0426 20:49:57.392503 31653 net.cpp:131] Top shape: 100 10 (1000)
I0426 20:49:57.392506 31653 net.cpp:139] Memory required for data: 14882800
I0426 20:49:57.392509 31653 layer_factory.hpp:77] Creating layer ip3_relu3_0_split
I0426 20:49:57.392513 31653 net.cpp:86] Creating Layer ip3_relu3_0_split
I0426 20:49:57.392516 31653 net.cpp:408] ip3_relu3_0_split <- ip3
I0426 20:49:57.392521 31653 net.cpp:382] ip3_relu3_0_split -> ip3_relu3_0_split_0
I0426 20:49:57.392526 31653 net.cpp:382] ip3_relu3_0_split -> ip3_relu3_0_split_1
I0426 20:49:57.392560 31653 net.cpp:124] Setting up ip3_relu3_0_split
I0426 20:49:57.392565 31653 net.cpp:131] Top shape: 100 10 (1000)
I0426 20:49:57.392578 31653 net.cpp:131] Top shape: 100 10 (1000)
I0426 20:49:57.392581 31653 net.cpp:139] Memory required for data: 14890800
I0426 20:49:57.392585 31653 layer_factory.hpp:77] Creating layer accuracy
I0426 20:49:57.392590 31653 net.cpp:86] Creating Layer accuracy
I0426 20:49:57.392593 31653 net.cpp:408] accuracy <- ip3_relu3_0_split_0
I0426 20:49:57.392597 31653 net.cpp:408] accuracy <- label_mnist_1_split_0
I0426 20:49:57.392601 31653 net.cpp:382] accuracy -> accuracy
…
