…
I0426 20:53:41.467525 32488 net.cpp:296] The NetState phase (0) differed from the phase (1) specified by a rule in layer mnist
I0426 20:53:41.467548 32488 net.cpp:296] The NetState phase (0) differed from the phase (1) specified by a rule in layer accuracy
I0426 20:53:41.467648 32488 net.cpp:53] Initializing net from parameters: 
name: "LeNet"
state {
  phase: TRAIN
  level: 0
  stage: ""
}
layer {
  name: "mnist"
  type: "Data"
  top: "data"
  top: "label"
  include {
    phase: TRAIN
  }
  transform_param {
    scale: 0.00390625
  }
  data_param {
    source: "examples/mnist/mnist_train_lmdb"
    batch_size: 64
    backend: LMDB
  }
}
layer {
  name: "conv0"
  type: "Convolution"
  bottom: "data"
  top: "conv0"
  param {
    lr_mult: 1
  }
  param {
    lr_mult: 2
  }
  convolution_param {
    num_output: 50
    kernel_size: 5
    stride: 1
    weight_filler {
      type: "xavier"
    }
    bias_filler {
      type: "constant"
    }
  }
}
layer {
  name: "pool0"
  type: "Pooling"
  bottom: "conv0"
  top: "pool0"
  pooling_param {
    pool: MAX
    kernel_size: 2
    stride: 2
  }
}
layer {
  name: "conv1"
  type: "Convolution"
  bottom: "pool0"
  top: "conv1"
  param {
    lr_mult: 1
  }
  param {
    lr_mult: 2
  }
  convolution_param {
    num_output: 10
    kernel_size: 5
    stride: 1
    weight_filler {
      type: "xavier"
    }
    bias_filler {
      type: "constant"
    }
  }
}
layer {
  name: "pool1"
  type: "Pooling"
  bottom: "conv1"
  top: "pool1"
  pooling_param {
    pool: MAX
    kernel_size: 2
    stride: 2
  }
}
layer {
  name: "ip1"
  type: "InnerProduct"
  bottom: "pool1"
  top: "ip1"
  param {
    lr_mult: 1
  }
  param {
    lr_mult: 2
  }
  inner_product_param {
    num_output: 100
    weight_filler {
      type: "xavier"
    }
    bias_filler {
      type: "constant"
    }
  }
}
layer {
  name: "relu1"
  type: "ReLU"
  bottom: "ip1"
  top: "ip1"
}
layer {
  name: "ip2"
  type: "InnerProduct"
  bottom: "ip1"
  top: "ip2"
  param {
    lr_mult: 1
  }
  param {
    lr_mult: 2
  }
  inner_product_param {
    num_output: 10
    weight_filler {
      type: "xavier"
    }
    bias_filler {
      type: "constant"
    }
  }
}
layer {
  name: "relu2"
  type: "ReLU"
  bottom: "ip2"
  top: "ip2"
}
layer {
  name: "loss"
  type: "SoftmaxWithLoss"
  bottom: "ip2"
  bottom: "label"
  top: "loss"
}
I0426 20:53:41.467725 32488 layer_factory.hpp:77] Creating layer mnist
I0426 20:53:41.467828 32488 db_lmdb.cpp:35] Opened lmdb examples/mnist/mnist_train_lmdb
I0426 20:53:41.467849 32488 net.cpp:86] Creating Layer mnist
I0426 20:53:41.467856 32488 net.cpp:382] mnist -> data
I0426 20:53:41.467875 32488 net.cpp:382] mnist -> label
I0426 20:53:41.468843 32488 data_layer.cpp:45] output data size: 64,1,28,28
I0426 20:53:41.471006 32488 net.cpp:124] Setting up mnist
I0426 20:53:41.471038 32488 net.cpp:131] Top shape: 64 1 28 28 (50176)
I0426 20:53:41.471043 32488 net.cpp:131] Top shape: 64 (64)
I0426 20:53:41.471046 32488 net.cpp:139] Memory required for data: 200960
I0426 20:53:41.471067 32488 layer_factory.hpp:77] Creating layer conv0
I0426 20:53:41.471081 32488 net.cpp:86] Creating Layer conv0
I0426 20:53:41.471086 32488 net.cpp:408] conv0 <- data
I0426 20:53:41.471096 32488 net.cpp:382] conv0 -> conv0
I0426 20:53:41.703727 32488 net.cpp:124] Setting up conv0
I0426 20:53:41.703752 32488 net.cpp:131] Top shape: 64 50 24 24 (1843200)
I0426 20:53:41.703757 32488 net.cpp:139] Memory required for data: 7573760
I0426 20:53:41.703789 32488 layer_factory.hpp:77] Creating layer pool0
I0426 20:53:41.703817 32488 net.cpp:86] Creating Layer pool0
I0426 20:53:41.703821 32488 net.cpp:408] pool0 <- conv0
I0426 20:53:41.703826 32488 net.cpp:382] pool0 -> pool0
I0426 20:53:41.703871 32488 net.cpp:124] Setting up pool0
I0426 20:53:41.703878 32488 net.cpp:131] Top shape: 64 50 12 12 (460800)
I0426 20:53:41.703881 32488 net.cpp:139] Memory required for data: 9416960
I0426 20:53:41.703884 32488 layer_factory.hpp:77] Creating layer conv1
I0426 20:53:41.703894 32488 net.cpp:86] Creating Layer conv1
I0426 20:53:41.703898 32488 net.cpp:408] conv1 <- pool0
I0426 20:53:41.703903 32488 net.cpp:382] conv1 -> conv1
I0426 20:53:41.706619 32488 net.cpp:124] Setting up conv1
I0426 20:53:41.706632 32488 net.cpp:131] Top shape: 64 10 8 8 (40960)
I0426 20:53:41.706635 32488 net.cpp:139] Memory required for data: 9580800
I0426 20:53:41.706643 32488 layer_factory.hpp:77] Creating layer pool1
I0426 20:53:41.706650 32488 net.cpp:86] Creating Layer pool1
I0426 20:53:41.706655 32488 net.cpp:408] pool1 <- conv1
I0426 20:53:41.706658 32488 net.cpp:382] pool1 -> pool1
I0426 20:53:41.706707 32488 net.cpp:124] Setting up pool1
I0426 20:53:41.706714 32488 net.cpp:131] Top shape: 64 10 4 4 (10240)
I0426 20:53:41.706717 32488 net.cpp:139] Memory required for data: 9621760
I0426 20:53:41.706720 32488 layer_factory.hpp:77] Creating layer ip1
I0426 20:53:41.706727 32488 net.cpp:86] Creating Layer ip1
I0426 20:53:41.706729 32488 net.cpp:408] ip1 <- pool1
I0426 20:53:41.706734 32488 net.cpp:382] ip1 -> ip1
I0426 20:53:41.706931 32488 net.cpp:124] Setting up ip1
I0426 20:53:41.706938 32488 net.cpp:131] Top shape: 64 100 (6400)
I0426 20:53:41.706940 32488 net.cpp:139] Memory required for data: 9647360
I0426 20:53:41.706948 32488 layer_factory.hpp:77] Creating layer relu1
I0426 20:53:41.706954 32488 net.cpp:86] Creating Layer relu1
I0426 20:53:41.706959 32488 net.cpp:408] relu1 <- ip1
I0426 20:53:41.706964 32488 net.cpp:369] relu1 -> ip1 (in-place)
I0426 20:53:41.707121 32488 net.cpp:124] Setting up relu1
I0426 20:53:41.707130 32488 net.cpp:131] Top shape: 64 100 (6400)
I0426 20:53:41.707134 32488 net.cpp:139] Memory required for data: 9672960
I0426 20:53:41.707136 32488 layer_factory.hpp:77] Creating layer ip2
I0426 20:53:41.707142 32488 net.cpp:86] Creating Layer ip2
I0426 20:53:41.707145 32488 net.cpp:408] ip2 <- ip1
I0426 20:53:41.707150 32488 net.cpp:382] ip2 -> ip2
I0426 20:53:41.707281 32488 net.cpp:124] Setting up ip2
I0426 20:53:41.707288 32488 net.cpp:131] Top shape: 64 10 (640)
I0426 20:53:41.707291 32488 net.cpp:139] Memory required for data: 9675520
I0426 20:53:41.707298 32488 layer_factory.hpp:77] Creating layer relu2
I0426 20:53:41.707303 32488 net.cpp:86] Creating Layer relu2
I0426 20:53:41.707306 32488 net.cpp:408] relu2 <- ip2
I0426 20:53:41.707310 32488 net.cpp:369] relu2 -> ip2 (in-place)
I0426 20:53:41.708123 32488 net.cpp:124] Setting up relu2
I0426 20:53:41.708134 32488 net.cpp:131] Top shape: 64 10 (640)
I0426 20:53:41.708154 32488 net.cpp:139] Memory required for data: 9678080
I0426 20:53:41.708158 32488 layer_factory.hpp:77] Creating layer loss
I0426 20:53:41.708163 32488 net.cpp:86] Creating Layer loss
I0426 20:53:41.708166 32488 net.cpp:408] loss <- ip2
I0426 20:53:41.708171 32488 net.cpp:408] loss <- label
I0426 20:53:41.708191 32488 net.cpp:382] loss -> loss
I0426 20:53:41.708206 32488 layer_factory.hpp:77] Creating layer loss
…
I0426 20:53:41.708925 32488 solver.cpp:173] Creating test net (#0) specified by net file: ECE595/mnist/train_test/var_everything/lenet_train_test142.prototxt
I0426 20:53:41.708978 32488 net.cpp:296] The NetState phase (1) differed from the phase (0) specified by a rule in layer mnist
I0426 20:53:41.709064 32488 net.cpp:53] Initializing net from parameters: 
name: "LeNet"
state {
  phase: TEST
}
layer {
  name: "mnist"
  type: "Data"
  top: "data"
  top: "label"
  include {
    phase: TEST
  }
  transform_param {
    scale: 0.00390625
  }
  data_param {
    source: "examples/mnist/mnist_test_lmdb"
    batch_size: 100
    backend: LMDB
  }
}
layer {
  name: "conv0"
  type: "Convolution"
  bottom: "data"
  top: "conv0"
  param {
    lr_mult: 1
  }
  param {
    lr_mult: 2
  }
  convolution_param {
    num_output: 50
    kernel_size: 5
    stride: 1
    weight_filler {
      type: "xavier"
    }
    bias_filler {
      type: "constant"
    }
  }
}
layer {
  name: "pool0"
  type: "Pooling"
  bottom: "conv0"
  top: "pool0"
  pooling_param {
    pool: MAX
    kernel_size: 2
    stride: 2
  }
}
layer {
  name: "conv1"
  type: "Convolution"
  bottom: "pool0"
  top: "conv1"
  param {
    lr_mult: 1
  }
  param {
    lr_mult: 2
  }
  convolution_param {
    num_output: 10
    kernel_size: 5
    stride: 1
    weight_filler {
      type: "xavier"
    }
    bias_filler {
      type: "constant"
    }
  }
}
layer {
  name: "pool1"
  type: "Pooling"
  bottom: "conv1"
  top: "pool1"
  pooling_param {
    pool: MAX
    kernel_size: 2
    stride: 2
  }
}
layer {
  name: "ip1"
  type: "InnerProduct"
  bottom: "pool1"
  top: "ip1"
  param {
    lr_mult: 1
  }
  param {
    lr_mult: 2
  }
  inner_product_param {
    num_output: 100
    weight_filler {
      type: "xavier"
    }
    bias_filler {
      type: "constant"
    }
  }
}
layer {
  name: "relu1"
  type: "ReLU"
  bottom: "ip1"
  top: "ip1"
}
layer {
  name: "ip2"
  type: "InnerProduct"
  bottom: "ip1"
  top: "ip2"
  param {
    lr_mult: 1
  }
  param {
    lr_mult: 2
  }
  inner_product_param {
    num_output: 10
    weight_filler {
      type: "xavier"
    }
    bias_filler {
      type: "constant"
    }
  }
}
layer {
  name: "relu2"
  type: "ReLU"
  bottom: "ip2"
  top: "ip2"
}
layer {
  name: "accuracy"
  type: "Accuracy"
  bottom: "ip2"
  bottom: "label"
  top: "accuracy"
  include {
    phase: TEST
  }
}
layer {
  name: "loss"
  type: "SoftmaxWithLoss"
  bottom: "ip2"
  bottom: "label"
  top: "loss"
}
I0426 20:53:41.709128 32488 layer_factory.hpp:77] Creating layer mnist
I0426 20:53:41.709187 32488 db_lmdb.cpp:35] Opened lmdb examples/mnist/mnist_test_lmdb
I0426 20:53:41.709200 32488 net.cpp:86] Creating Layer mnist
I0426 20:53:41.709204 32488 net.cpp:382] mnist -> data
I0426 20:53:41.709213 32488 net.cpp:382] mnist -> label
I0426 20:53:41.709296 32488 data_layer.cpp:45] output data size: 100,1,28,28
I0426 20:53:41.711292 32488 net.cpp:124] Setting up mnist
I0426 20:53:41.711303 32488 net.cpp:131] Top shape: 100 1 28 28 (78400)
I0426 20:53:41.711308 32488 net.cpp:131] Top shape: 100 (100)
I0426 20:53:41.711310 32488 net.cpp:139] Memory required for data: 314000
I0426 20:53:41.711314 32488 layer_factory.hpp:77] Creating layer label_mnist_1_split
I0426 20:53:41.711319 32488 net.cpp:86] Creating Layer label_mnist_1_split
I0426 20:53:41.711338 32488 net.cpp:408] label_mnist_1_split <- label
I0426 20:53:41.711343 32488 net.cpp:382] label_mnist_1_split -> label_mnist_1_split_0
I0426 20:53:41.711349 32488 net.cpp:382] label_mnist_1_split -> label_mnist_1_split_1
I0426 20:53:41.711411 32488 net.cpp:124] Setting up label_mnist_1_split
I0426 20:53:41.711432 32488 net.cpp:131] Top shape: 100 (100)
I0426 20:53:41.711436 32488 net.cpp:131] Top shape: 100 (100)
I0426 20:53:41.711439 32488 net.cpp:139] Memory required for data: 314800
I0426 20:53:41.711442 32488 layer_factory.hpp:77] Creating layer conv0
I0426 20:53:41.711450 32488 net.cpp:86] Creating Layer conv0
I0426 20:53:41.711453 32488 net.cpp:408] conv0 <- data
I0426 20:53:41.711457 32488 net.cpp:382] conv0 -> conv0
I0426 20:53:41.713198 32488 net.cpp:124] Setting up conv0
I0426 20:53:41.713212 32488 net.cpp:131] Top shape: 100 50 24 24 (2880000)
I0426 20:53:41.713217 32488 net.cpp:139] Memory required for data: 11834800
I0426 20:53:41.713239 32488 layer_factory.hpp:77] Creating layer pool0
I0426 20:53:41.713245 32488 net.cpp:86] Creating Layer pool0
I0426 20:53:41.713248 32488 net.cpp:408] pool0 <- conv0
I0426 20:53:41.713253 32488 net.cpp:382] pool0 -> pool0
I0426 20:53:41.713287 32488 net.cpp:124] Setting up pool0
I0426 20:53:41.713294 32488 net.cpp:131] Top shape: 100 50 12 12 (720000)
I0426 20:53:41.713296 32488 net.cpp:139] Memory required for data: 14714800
I0426 20:53:41.713299 32488 layer_factory.hpp:77] Creating layer conv1
I0426 20:53:41.713310 32488 net.cpp:86] Creating Layer conv1
I0426 20:53:41.713311 32488 net.cpp:408] conv1 <- pool0
I0426 20:53:41.713332 32488 net.cpp:382] conv1 -> conv1
I0426 20:53:41.714931 32488 net.cpp:124] Setting up conv1
I0426 20:53:41.714944 32488 net.cpp:131] Top shape: 100 10 8 8 (64000)
I0426 20:53:41.714947 32488 net.cpp:139] Memory required for data: 14970800
I0426 20:53:41.714972 32488 layer_factory.hpp:77] Creating layer pool1
I0426 20:53:41.714979 32488 net.cpp:86] Creating Layer pool1
I0426 20:53:41.714983 32488 net.cpp:408] pool1 <- conv1
I0426 20:53:41.714988 32488 net.cpp:382] pool1 -> pool1
I0426 20:53:41.715025 32488 net.cpp:124] Setting up pool1
I0426 20:53:41.715032 32488 net.cpp:131] Top shape: 100 10 4 4 (16000)
I0426 20:53:41.715035 32488 net.cpp:139] Memory required for data: 15034800
I0426 20:53:41.715039 32488 layer_factory.hpp:77] Creating layer ip1
I0426 20:53:41.715065 32488 net.cpp:86] Creating Layer ip1
I0426 20:53:41.715068 32488 net.cpp:408] ip1 <- pool1
I0426 20:53:41.715076 32488 net.cpp:382] ip1 -> ip1
I0426 20:53:41.715306 32488 net.cpp:124] Setting up ip1
I0426 20:53:41.715313 32488 net.cpp:131] Top shape: 100 100 (10000)
I0426 20:53:41.715317 32488 net.cpp:139] Memory required for data: 15074800
I0426 20:53:41.715324 32488 layer_factory.hpp:77] Creating layer relu1
I0426 20:53:41.715329 32488 net.cpp:86] Creating Layer relu1
I0426 20:53:41.715332 32488 net.cpp:408] relu1 <- ip1
I0426 20:53:41.715338 32488 net.cpp:369] relu1 -> ip1 (in-place)
I0426 20:53:41.715548 32488 net.cpp:124] Setting up relu1
I0426 20:53:41.715556 32488 net.cpp:131] Top shape: 100 100 (10000)
I0426 20:53:41.715560 32488 net.cpp:139] Memory required for data: 15114800
I0426 20:53:41.715564 32488 layer_factory.hpp:77] Creating layer ip2
I0426 20:53:41.715587 32488 net.cpp:86] Creating Layer ip2
I0426 20:53:41.715590 32488 net.cpp:408] ip2 <- ip1
I0426 20:53:41.715595 32488 net.cpp:382] ip2 -> ip2
I0426 20:53:41.715728 32488 net.cpp:124] Setting up ip2
I0426 20:53:41.715734 32488 net.cpp:131] Top shape: 100 10 (1000)
I0426 20:53:41.715737 32488 net.cpp:139] Memory required for data: 15118800
I0426 20:53:41.715742 32488 layer_factory.hpp:77] Creating layer relu2
I0426 20:53:41.715747 32488 net.cpp:86] Creating Layer relu2
I0426 20:53:41.715751 32488 net.cpp:408] relu2 <- ip2
I0426 20:53:41.715756 32488 net.cpp:369] relu2 -> ip2 (in-place)
I0426 20:53:41.715914 32488 net.cpp:124] Setting up relu2
I0426 20:53:41.715920 32488 net.cpp:131] Top shape: 100 10 (1000)
I0426 20:53:41.715924 32488 net.cpp:139] Memory required for data: 15122800
I0426 20:53:41.715926 32488 layer_factory.hpp:77] Creating layer ip2_relu2_0_split
I0426 20:53:41.715931 32488 net.cpp:86] Creating Layer ip2_relu2_0_split
I0426 20:53:41.715934 32488 net.cpp:408] ip2_relu2_0_split <- ip2
I0426 20:53:41.715939 32488 net.cpp:382] ip2_relu2_0_split -> ip2_relu2_0_split_0
I0426 20:53:41.715955 32488 net.cpp:382] ip2_relu2_0_split -> ip2_relu2_0_split_1
I0426 20:53:41.715991 32488 net.cpp:124] Setting up ip2_relu2_0_split
I0426 20:53:41.715996 32488 net.cpp:131] Top shape: 100 10 (1000)
I0426 20:53:41.716001 32488 net.cpp:131] Top shape: 100 10 (1000)
I0426 20:53:41.716002 32488 net.cpp:139] Memory required for data: 15130800
I0426 20:53:41.716022 32488 layer_factory.hpp:77] Creating layer accuracy
I0426 20:53:41.716027 32488 net.cpp:86] Creating Layer accuracy
I0426 20:53:41.716030 32488 net.cpp:408] accuracy <- ip2_relu2_0_split_0
I0426 20:53:41.716035 32488 net.cpp:408] accuracy <- label_mnist_1_split_0
I0426 20:53:41.716040 32488 net.cpp:382] accuracy -> accuracy
…
