…
I0426 20:48:51.116032 31385 net.cpp:296] The NetState phase (0) differed from the phase (1) specified by a rule in layer mnist
I0426 20:48:51.116060 31385 net.cpp:296] The NetState phase (0) differed from the phase (1) specified by a rule in layer accuracy
I0426 20:48:51.116145 31385 net.cpp:53] Initializing net from parameters: 
name: "LeNet"
state {
  phase: TRAIN
  level: 0
  stage: ""
}
layer {
  name: "mnist"
  type: "Data"
  top: "data"
  top: "label"
  include {
    phase: TRAIN
  }
  transform_param {
    scale: 0.00390625
  }
  data_param {
    source: "examples/mnist/mnist_train_lmdb"
    batch_size: 64
    backend: LMDB
  }
}
layer {
  name: "conv0"
  type: "Convolution"
  bottom: "data"
  top: "conv0"
  param {
    lr_mult: 1
  }
  param {
    lr_mult: 2
  }
  convolution_param {
    num_output: 10
    kernel_size: 5
    stride: 1
    weight_filler {
      type: "xavier"
    }
    bias_filler {
      type: "constant"
    }
  }
}
layer {
  name: "pool0"
  type: "Pooling"
  bottom: "conv0"
  top: "pool0"
  pooling_param {
    pool: MAX
    kernel_size: 2
    stride: 2
  }
}
layer {
  name: "ip1"
  type: "InnerProduct"
  bottom: "pool0"
  top: "ip1"
  param {
    lr_mult: 1
  }
  param {
    lr_mult: 2
  }
  inner_product_param {
    num_output: 300
    weight_filler {
      type: "xavier"
    }
    bias_filler {
      type: "constant"
    }
  }
}
layer {
  name: "relu1"
  type: "ReLU"
  bottom: "ip1"
  top: "ip1"
}
layer {
  name: "ip2"
  type: "InnerProduct"
  bottom: "ip1"
  top: "ip2"
  param {
    lr_mult: 1
  }
  param {
    lr_mult: 2
  }
  inner_product_param {
    num_output: 10
    weight_filler {
      type: "xavier"
    }
    bias_filler {
      type: "constant"
    }
  }
}
layer {
  name: "relu2"
  type: "ReLU"
  bottom: "ip2"
  top: "ip2"
}
layer {
  name: "loss"
  type: "SoftmaxWithLoss"
  bottom: "ip2"
  bottom: "label"
  top: "loss"
}
I0426 20:48:51.116200 31385 layer_factory.hpp:77] Creating layer mnist
I0426 20:48:51.116281 31385 db_lmdb.cpp:35] Opened lmdb examples/mnist/mnist_train_lmdb
I0426 20:48:51.116300 31385 net.cpp:86] Creating Layer mnist
I0426 20:48:51.116307 31385 net.cpp:382] mnist -> data
I0426 20:48:51.116325 31385 net.cpp:382] mnist -> label
I0426 20:48:51.117278 31385 data_layer.cpp:45] output data size: 64,1,28,28
I0426 20:48:51.119360 31385 net.cpp:124] Setting up mnist
I0426 20:48:51.119374 31385 net.cpp:131] Top shape: 64 1 28 28 (50176)
I0426 20:48:51.119377 31385 net.cpp:131] Top shape: 64 (64)
I0426 20:48:51.119380 31385 net.cpp:139] Memory required for data: 200960
I0426 20:48:51.119385 31385 layer_factory.hpp:77] Creating layer conv0
I0426 20:48:51.119422 31385 net.cpp:86] Creating Layer conv0
I0426 20:48:51.119426 31385 net.cpp:408] conv0 <- data
I0426 20:48:51.119437 31385 net.cpp:382] conv0 -> conv0
I0426 20:48:51.357621 31385 net.cpp:124] Setting up conv0
I0426 20:48:51.357648 31385 net.cpp:131] Top shape: 64 10 24 24 (368640)
I0426 20:48:51.357651 31385 net.cpp:139] Memory required for data: 1675520
I0426 20:48:51.357681 31385 layer_factory.hpp:77] Creating layer pool0
I0426 20:48:51.357694 31385 net.cpp:86] Creating Layer pool0
I0426 20:48:51.357699 31385 net.cpp:408] pool0 <- conv0
I0426 20:48:51.357705 31385 net.cpp:382] pool0 -> pool0
I0426 20:48:51.357749 31385 net.cpp:124] Setting up pool0
I0426 20:48:51.357756 31385 net.cpp:131] Top shape: 64 10 12 12 (92160)
I0426 20:48:51.357758 31385 net.cpp:139] Memory required for data: 2044160
I0426 20:48:51.357792 31385 layer_factory.hpp:77] Creating layer ip1
I0426 20:48:51.357800 31385 net.cpp:86] Creating Layer ip1
I0426 20:48:51.357803 31385 net.cpp:408] ip1 <- pool0
I0426 20:48:51.357808 31385 net.cpp:382] ip1 -> ip1
I0426 20:48:51.361080 31385 net.cpp:124] Setting up ip1
I0426 20:48:51.361094 31385 net.cpp:131] Top shape: 64 300 (19200)
I0426 20:48:51.361098 31385 net.cpp:139] Memory required for data: 2120960
I0426 20:48:51.361105 31385 layer_factory.hpp:77] Creating layer relu1
I0426 20:48:51.361114 31385 net.cpp:86] Creating Layer relu1
I0426 20:48:51.361120 31385 net.cpp:408] relu1 <- ip1
I0426 20:48:51.361125 31385 net.cpp:369] relu1 -> ip1 (in-place)
I0426 20:48:51.361317 31385 net.cpp:124] Setting up relu1
I0426 20:48:51.361326 31385 net.cpp:131] Top shape: 64 300 (19200)
I0426 20:48:51.361330 31385 net.cpp:139] Memory required for data: 2197760
I0426 20:48:51.361332 31385 layer_factory.hpp:77] Creating layer ip2
I0426 20:48:51.361340 31385 net.cpp:86] Creating Layer ip2
I0426 20:48:51.361342 31385 net.cpp:408] ip2 <- ip1
I0426 20:48:51.361346 31385 net.cpp:382] ip2 -> ip2
I0426 20:48:51.362294 31385 net.cpp:124] Setting up ip2
I0426 20:48:51.362306 31385 net.cpp:131] Top shape: 64 10 (640)
I0426 20:48:51.362309 31385 net.cpp:139] Memory required for data: 2200320
I0426 20:48:51.362318 31385 layer_factory.hpp:77] Creating layer relu2
I0426 20:48:51.362325 31385 net.cpp:86] Creating Layer relu2
I0426 20:48:51.362329 31385 net.cpp:408] relu2 <- ip2
I0426 20:48:51.362332 31385 net.cpp:369] relu2 -> ip2 (in-place)
I0426 20:48:51.363193 31385 net.cpp:124] Setting up relu2
I0426 20:48:51.363205 31385 net.cpp:131] Top shape: 64 10 (640)
I0426 20:48:51.363209 31385 net.cpp:139] Memory required for data: 2202880
I0426 20:48:51.363211 31385 layer_factory.hpp:77] Creating layer loss
I0426 20:48:51.363217 31385 net.cpp:86] Creating Layer loss
I0426 20:48:51.363220 31385 net.cpp:408] loss <- ip2
I0426 20:48:51.363225 31385 net.cpp:408] loss <- label
I0426 20:48:51.363230 31385 net.cpp:382] loss -> loss
I0426 20:48:51.363246 31385 layer_factory.hpp:77] Creating layer loss
…
I0426 20:48:51.363797 31385 solver.cpp:173] Creating test net (#0) specified by net file: ECE595/mnist/train_test/var_everything/lenet_train_test19.prototxt
I0426 20:48:51.363821 31385 net.cpp:296] The NetState phase (1) differed from the phase (0) specified by a rule in layer mnist
I0426 20:48:51.363893 31385 net.cpp:53] Initializing net from parameters: 
name: "LeNet"
state {
  phase: TEST
}
layer {
  name: "mnist"
  type: "Data"
  top: "data"
  top: "label"
  include {
    phase: TEST
  }
  transform_param {
    scale: 0.00390625
  }
  data_param {
    source: "examples/mnist/mnist_test_lmdb"
    batch_size: 100
    backend: LMDB
  }
}
layer {
  name: "conv0"
  type: "Convolution"
  bottom: "data"
  top: "conv0"
  param {
    lr_mult: 1
  }
  param {
    lr_mult: 2
  }
  convolution_param {
    num_output: 10
    kernel_size: 5
    stride: 1
    weight_filler {
      type: "xavier"
    }
    bias_filler {
      type: "constant"
    }
  }
}
layer {
  name: "pool0"
  type: "Pooling"
  bottom: "conv0"
  top: "pool0"
  pooling_param {
    pool: MAX
    kernel_size: 2
    stride: 2
  }
}
layer {
  name: "ip1"
  type: "InnerProduct"
  bottom: "pool0"
  top: "ip1"
  param {
    lr_mult: 1
  }
  param {
    lr_mult: 2
  }
  inner_product_param {
    num_output: 300
    weight_filler {
      type: "xavier"
    }
    bias_filler {
      type: "constant"
    }
  }
}
layer {
  name: "relu1"
  type: "ReLU"
  bottom: "ip1"
  top: "ip1"
}
layer {
  name: "ip2"
  type: "InnerProduct"
  bottom: "ip1"
  top: "ip2"
  param {
    lr_mult: 1
  }
  param {
    lr_mult: 2
  }
  inner_product_param {
    num_output: 10
    weight_filler {
      type: "xavier"
    }
    bias_filler {
      type: "constant"
    }
  }
}
layer {
  name: "relu2"
  type: "ReLU"
  bottom: "ip2"
  top: "ip2"
}
layer {
  name: "accuracy"
  type: "Accuracy"
  bottom: "ip2"
  bottom: "label"
  top: "accuracy"
  include {
    phase: TEST
  }
}
layer {
  name: "loss"
  type: "SoftmaxWithLoss"
  bottom: "ip2"
  bottom: "label"
  top: "loss"
}
I0426 20:48:51.363972 31385 layer_factory.hpp:77] Creating layer mnist
I0426 20:48:51.364014 31385 db_lmdb.cpp:35] Opened lmdb examples/mnist/mnist_test_lmdb
I0426 20:48:51.364029 31385 net.cpp:86] Creating Layer mnist
I0426 20:48:51.364034 31385 net.cpp:382] mnist -> data
I0426 20:48:51.364042 31385 net.cpp:382] mnist -> label
I0426 20:48:51.364120 31385 data_layer.cpp:45] output data size: 100,1,28,28
I0426 20:48:51.366052 31385 net.cpp:124] Setting up mnist
I0426 20:48:51.366066 31385 net.cpp:131] Top shape: 100 1 28 28 (78400)
I0426 20:48:51.366083 31385 net.cpp:131] Top shape: 100 (100)
I0426 20:48:51.366087 31385 net.cpp:139] Memory required for data: 314000
I0426 20:48:51.366091 31385 layer_factory.hpp:77] Creating layer label_mnist_1_split
I0426 20:48:51.366101 31385 net.cpp:86] Creating Layer label_mnist_1_split
I0426 20:48:51.366104 31385 net.cpp:408] label_mnist_1_split <- label
I0426 20:48:51.366109 31385 net.cpp:382] label_mnist_1_split -> label_mnist_1_split_0
I0426 20:48:51.366116 31385 net.cpp:382] label_mnist_1_split -> label_mnist_1_split_1
I0426 20:48:51.366192 31385 net.cpp:124] Setting up label_mnist_1_split
I0426 20:48:51.366200 31385 net.cpp:131] Top shape: 100 (100)
I0426 20:48:51.366204 31385 net.cpp:131] Top shape: 100 (100)
I0426 20:48:51.366206 31385 net.cpp:139] Memory required for data: 314800
I0426 20:48:51.366209 31385 layer_factory.hpp:77] Creating layer conv0
I0426 20:48:51.366217 31385 net.cpp:86] Creating Layer conv0
I0426 20:48:51.366221 31385 net.cpp:408] conv0 <- data
I0426 20:48:51.366225 31385 net.cpp:382] conv0 -> conv0
I0426 20:48:51.367691 31385 net.cpp:124] Setting up conv0
I0426 20:48:51.367714 31385 net.cpp:131] Top shape: 100 10 24 24 (576000)
I0426 20:48:51.367718 31385 net.cpp:139] Memory required for data: 2618800
I0426 20:48:51.367727 31385 layer_factory.hpp:77] Creating layer pool0
I0426 20:48:51.367733 31385 net.cpp:86] Creating Layer pool0
I0426 20:48:51.367753 31385 net.cpp:408] pool0 <- conv0
I0426 20:48:51.367758 31385 net.cpp:382] pool0 -> pool0
I0426 20:48:51.367792 31385 net.cpp:124] Setting up pool0
I0426 20:48:51.367799 31385 net.cpp:131] Top shape: 100 10 12 12 (144000)
I0426 20:48:51.367804 31385 net.cpp:139] Memory required for data: 3194800
I0426 20:48:51.367806 31385 layer_factory.hpp:77] Creating layer ip1
I0426 20:48:51.367812 31385 net.cpp:86] Creating Layer ip1
I0426 20:48:51.367816 31385 net.cpp:408] ip1 <- pool0
I0426 20:48:51.367820 31385 net.cpp:382] ip1 -> ip1
I0426 20:48:51.371114 31385 net.cpp:124] Setting up ip1
I0426 20:48:51.371126 31385 net.cpp:131] Top shape: 100 300 (30000)
I0426 20:48:51.371145 31385 net.cpp:139] Memory required for data: 3314800
I0426 20:48:51.371152 31385 layer_factory.hpp:77] Creating layer relu1
I0426 20:48:51.371157 31385 net.cpp:86] Creating Layer relu1
I0426 20:48:51.371160 31385 net.cpp:408] relu1 <- ip1
I0426 20:48:51.371165 31385 net.cpp:369] relu1 -> ip1 (in-place)
I0426 20:48:51.371351 31385 net.cpp:124] Setting up relu1
I0426 20:48:51.371359 31385 net.cpp:131] Top shape: 100 300 (30000)
I0426 20:48:51.371376 31385 net.cpp:139] Memory required for data: 3434800
I0426 20:48:51.371379 31385 layer_factory.hpp:77] Creating layer ip2
I0426 20:48:51.371386 31385 net.cpp:86] Creating Layer ip2
I0426 20:48:51.371388 31385 net.cpp:408] ip2 <- ip1
I0426 20:48:51.371393 31385 net.cpp:382] ip2 -> ip2
I0426 20:48:51.371503 31385 net.cpp:124] Setting up ip2
I0426 20:48:51.371511 31385 net.cpp:131] Top shape: 100 10 (1000)
I0426 20:48:51.371515 31385 net.cpp:139] Memory required for data: 3438800
I0426 20:48:51.371521 31385 layer_factory.hpp:77] Creating layer relu2
I0426 20:48:51.371526 31385 net.cpp:86] Creating Layer relu2
I0426 20:48:51.371528 31385 net.cpp:408] relu2 <- ip2
I0426 20:48:51.371532 31385 net.cpp:369] relu2 -> ip2 (in-place)
I0426 20:48:51.371687 31385 net.cpp:124] Setting up relu2
I0426 20:48:51.371695 31385 net.cpp:131] Top shape: 100 10 (1000)
I0426 20:48:51.371697 31385 net.cpp:139] Memory required for data: 3442800
I0426 20:48:51.371701 31385 layer_factory.hpp:77] Creating layer ip2_relu2_0_split
I0426 20:48:51.371706 31385 net.cpp:86] Creating Layer ip2_relu2_0_split
I0426 20:48:51.371709 31385 net.cpp:408] ip2_relu2_0_split <- ip2
I0426 20:48:51.371713 31385 net.cpp:382] ip2_relu2_0_split -> ip2_relu2_0_split_0
I0426 20:48:51.371719 31385 net.cpp:382] ip2_relu2_0_split -> ip2_relu2_0_split_1
I0426 20:48:51.371752 31385 net.cpp:124] Setting up ip2_relu2_0_split
I0426 20:48:51.371757 31385 net.cpp:131] Top shape: 100 10 (1000)
I0426 20:48:51.371759 31385 net.cpp:131] Top shape: 100 10 (1000)
I0426 20:48:51.371762 31385 net.cpp:139] Memory required for data: 3450800
I0426 20:48:51.371764 31385 layer_factory.hpp:77] Creating layer accuracy
I0426 20:48:51.371769 31385 net.cpp:86] Creating Layer accuracy
I0426 20:48:51.371773 31385 net.cpp:408] accuracy <- ip2_relu2_0_split_0
I0426 20:48:51.371776 31385 net.cpp:408] accuracy <- label_mnist_1_split_0
I0426 20:48:51.371780 31385 net.cpp:382] accuracy -> accuracy
…
