…
I0426 20:52:21.738840 32177 net.cpp:296] The NetState phase (0) differed from the phase (1) specified by a rule in layer mnist
I0426 20:52:21.738857 32177 net.cpp:296] The NetState phase (0) differed from the phase (1) specified by a rule in layer accuracy
I0426 20:52:21.738942 32177 net.cpp:53] Initializing net from parameters: 
name: "LeNet"
state {
  phase: TRAIN
  level: 0
  stage: ""
}
layer {
  name: "mnist"
  type: "Data"
  top: "data"
  top: "label"
  include {
    phase: TRAIN
  }
  transform_param {
    scale: 0.00390625
  }
  data_param {
    source: "examples/mnist/mnist_train_lmdb"
    batch_size: 64
    backend: LMDB
  }
}
layer {
  name: "conv0"
  type: "Convolution"
  bottom: "data"
  top: "conv0"
  param {
    lr_mult: 1
  }
  param {
    lr_mult: 2
  }
  convolution_param {
    num_output: 25
    kernel_size: 5
    stride: 1
    weight_filler {
      type: "xavier"
    }
    bias_filler {
      type: "constant"
    }
  }
}
layer {
  name: "pool0"
  type: "Pooling"
  bottom: "conv0"
  top: "pool0"
  pooling_param {
    pool: MAX
    kernel_size: 2
    stride: 2
  }
}
layer {
  name: "conv1"
  type: "Convolution"
  bottom: "pool0"
  top: "conv1"
  param {
    lr_mult: 1
  }
  param {
    lr_mult: 2
  }
  convolution_param {
    num_output: 10
    kernel_size: 5
    stride: 1
    weight_filler {
      type: "xavier"
    }
    bias_filler {
      type: "constant"
    }
  }
}
layer {
  name: "pool1"
  type: "Pooling"
  bottom: "conv1"
  top: "pool1"
  pooling_param {
    pool: MAX
    kernel_size: 2
    stride: 2
  }
}
layer {
  name: "ip1"
  type: "InnerProduct"
  bottom: "pool1"
  top: "ip1"
  param {
    lr_mult: 1
  }
  param {
    lr_mult: 2
  }
  inner_product_param {
    num_output: 300
    weight_filler {
      type: "xavier"
    }
    bias_filler {
      type: "constant"
    }
  }
}
layer {
  name: "relu1"
  type: "ReLU"
  bottom: "ip1"
  top: "ip1"
}
layer {
  name: "ip2"
  type: "InnerProduct"
  bottom: "ip1"
  top: "ip2"
  param {
    lr_mult: 1
  }
  param {
    lr_mult: 2
  }
  inner_product_param {
    num_output: 300
    weight_filler {
      type: "xavier"
    }
    bias_filler {
      type: "constant"
    }
  }
}
layer {
  name: "relu2"
  type: "ReLU"
  bottom: "ip2"
  top: "ip2"
}
layer {
  name: "ip3"
  type: "InnerProduct"
  bottom: "ip2"
  top: "ip3"
  param {
    lr_mult: 1
  }
  param {
    lr_mult: 2
  }
  inner_product_param {
    num_output: 10
    weight_filler {
      type: "xavier"
    }
    bias_filler {
      type: "constant"
    }
  }
}
layer {
  name: "relu3"
  type: "ReLU"
  bottom: "ip3"
  top: "ip3"
}
layer {
  name: "loss"
  type: "SoftmaxWithLoss"
  bottom: "ip3"
  bottom: "label"
  top: "loss"
}
I0426 20:52:21.739007 32177 layer_factory.hpp:77] Creating layer mnist
I0426 20:52:21.739105 32177 db_lmdb.cpp:35] Opened lmdb examples/mnist/mnist_train_lmdb
I0426 20:52:21.739125 32177 net.cpp:86] Creating Layer mnist
I0426 20:52:21.739132 32177 net.cpp:382] mnist -> data
I0426 20:52:21.739151 32177 net.cpp:382] mnist -> label
I0426 20:52:21.740064 32177 data_layer.cpp:45] output data size: 64,1,28,28
I0426 20:52:21.742266 32177 net.cpp:124] Setting up mnist
I0426 20:52:21.742297 32177 net.cpp:131] Top shape: 64 1 28 28 (50176)
I0426 20:52:21.742301 32177 net.cpp:131] Top shape: 64 (64)
I0426 20:52:21.742319 32177 net.cpp:139] Memory required for data: 200960
I0426 20:52:21.742326 32177 layer_factory.hpp:77] Creating layer conv0
I0426 20:52:21.742338 32177 net.cpp:86] Creating Layer conv0
I0426 20:52:21.742357 32177 net.cpp:408] conv0 <- data
I0426 20:52:21.742367 32177 net.cpp:382] conv0 -> conv0
I0426 20:52:21.973918 32177 net.cpp:124] Setting up conv0
I0426 20:52:21.973959 32177 net.cpp:131] Top shape: 64 25 24 24 (921600)
I0426 20:52:21.973963 32177 net.cpp:139] Memory required for data: 3887360
I0426 20:52:21.973978 32177 layer_factory.hpp:77] Creating layer pool0
I0426 20:52:21.973989 32177 net.cpp:86] Creating Layer pool0
I0426 20:52:21.973994 32177 net.cpp:408] pool0 <- conv0
I0426 20:52:21.973999 32177 net.cpp:382] pool0 -> pool0
I0426 20:52:21.974054 32177 net.cpp:124] Setting up pool0
I0426 20:52:21.974061 32177 net.cpp:131] Top shape: 64 25 12 12 (230400)
I0426 20:52:21.974064 32177 net.cpp:139] Memory required for data: 4808960
I0426 20:52:21.974067 32177 layer_factory.hpp:77] Creating layer conv1
I0426 20:52:21.974077 32177 net.cpp:86] Creating Layer conv1
I0426 20:52:21.974097 32177 net.cpp:408] conv1 <- pool0
I0426 20:52:21.974102 32177 net.cpp:382] conv1 -> conv1
I0426 20:52:21.976893 32177 net.cpp:124] Setting up conv1
I0426 20:52:21.976922 32177 net.cpp:131] Top shape: 64 10 8 8 (40960)
I0426 20:52:21.976927 32177 net.cpp:139] Memory required for data: 4972800
I0426 20:52:21.976935 32177 layer_factory.hpp:77] Creating layer pool1
I0426 20:52:21.976944 32177 net.cpp:86] Creating Layer pool1
I0426 20:52:21.976948 32177 net.cpp:408] pool1 <- conv1
I0426 20:52:21.976953 32177 net.cpp:382] pool1 -> pool1
I0426 20:52:21.977005 32177 net.cpp:124] Setting up pool1
I0426 20:52:21.977011 32177 net.cpp:131] Top shape: 64 10 4 4 (10240)
I0426 20:52:21.977015 32177 net.cpp:139] Memory required for data: 5013760
I0426 20:52:21.977017 32177 layer_factory.hpp:77] Creating layer ip1
I0426 20:52:21.977025 32177 net.cpp:86] Creating Layer ip1
I0426 20:52:21.977031 32177 net.cpp:408] ip1 <- pool1
I0426 20:52:21.977051 32177 net.cpp:382] ip1 -> ip1
I0426 20:52:21.977476 32177 net.cpp:124] Setting up ip1
I0426 20:52:21.977483 32177 net.cpp:131] Top shape: 64 300 (19200)
I0426 20:52:21.977501 32177 net.cpp:139] Memory required for data: 5090560
I0426 20:52:21.977509 32177 layer_factory.hpp:77] Creating layer relu1
I0426 20:52:21.977514 32177 net.cpp:86] Creating Layer relu1
I0426 20:52:21.977517 32177 net.cpp:408] relu1 <- ip1
I0426 20:52:21.977521 32177 net.cpp:369] relu1 -> ip1 (in-place)
I0426 20:52:21.977710 32177 net.cpp:124] Setting up relu1
I0426 20:52:21.977717 32177 net.cpp:131] Top shape: 64 300 (19200)
I0426 20:52:21.977721 32177 net.cpp:139] Memory required for data: 5167360
I0426 20:52:21.977725 32177 layer_factory.hpp:77] Creating layer ip2
I0426 20:52:21.977730 32177 net.cpp:86] Creating Layer ip2
I0426 20:52:21.977733 32177 net.cpp:408] ip2 <- ip1
I0426 20:52:21.977738 32177 net.cpp:382] ip2 -> ip2
I0426 20:52:21.979190 32177 net.cpp:124] Setting up ip2
I0426 20:52:21.979202 32177 net.cpp:131] Top shape: 64 300 (19200)
I0426 20:52:21.979220 32177 net.cpp:139] Memory required for data: 5244160
I0426 20:52:21.979226 32177 layer_factory.hpp:77] Creating layer relu2
I0426 20:52:21.979233 32177 net.cpp:86] Creating Layer relu2
I0426 20:52:21.979238 32177 net.cpp:408] relu2 <- ip2
I0426 20:52:21.979241 32177 net.cpp:369] relu2 -> ip2 (in-place)
I0426 20:52:21.980110 32177 net.cpp:124] Setting up relu2
I0426 20:52:21.980136 32177 net.cpp:131] Top shape: 64 300 (19200)
I0426 20:52:21.980155 32177 net.cpp:139] Memory required for data: 5320960
I0426 20:52:21.980159 32177 layer_factory.hpp:77] Creating layer ip3
I0426 20:52:21.980180 32177 net.cpp:86] Creating Layer ip3
I0426 20:52:21.980182 32177 net.cpp:408] ip3 <- ip2
I0426 20:52:21.980187 32177 net.cpp:382] ip3 -> ip3
I0426 20:52:21.981254 32177 net.cpp:124] Setting up ip3
I0426 20:52:21.981266 32177 net.cpp:131] Top shape: 64 10 (640)
I0426 20:52:21.981284 32177 net.cpp:139] Memory required for data: 5323520
I0426 20:52:21.981292 32177 layer_factory.hpp:77] Creating layer relu3
I0426 20:52:21.981297 32177 net.cpp:86] Creating Layer relu3
I0426 20:52:21.981300 32177 net.cpp:408] relu3 <- ip3
I0426 20:52:21.981304 32177 net.cpp:369] relu3 -> ip3 (in-place)
I0426 20:52:21.981500 32177 net.cpp:124] Setting up relu3
I0426 20:52:21.981508 32177 net.cpp:131] Top shape: 64 10 (640)
I0426 20:52:21.981511 32177 net.cpp:139] Memory required for data: 5326080
I0426 20:52:21.981514 32177 layer_factory.hpp:77] Creating layer loss
I0426 20:52:21.981520 32177 net.cpp:86] Creating Layer loss
I0426 20:52:21.981523 32177 net.cpp:408] loss <- ip3
I0426 20:52:21.981528 32177 net.cpp:408] loss <- label
I0426 20:52:21.981533 32177 net.cpp:382] loss -> loss
I0426 20:52:21.981550 32177 layer_factory.hpp:77] Creating layer loss
…
I0426 20:52:21.982208 32177 solver.cpp:173] Creating test net (#0) specified by net file: ECE595/mnist/train_test/var_everything/lenet_train_test110.prototxt
I0426 20:52:21.982276 32177 net.cpp:296] The NetState phase (1) differed from the phase (0) specified by a rule in layer mnist
I0426 20:52:21.982379 32177 net.cpp:53] Initializing net from parameters: 
name: "LeNet"
state {
  phase: TEST
}
layer {
  name: "mnist"
  type: "Data"
  top: "data"
  top: "label"
  include {
    phase: TEST
  }
  transform_param {
    scale: 0.00390625
  }
  data_param {
    source: "examples/mnist/mnist_test_lmdb"
    batch_size: 100
    backend: LMDB
  }
}
layer {
  name: "conv0"
  type: "Convolution"
  bottom: "data"
  top: "conv0"
  param {
    lr_mult: 1
  }
  param {
    lr_mult: 2
  }
  convolution_param {
    num_output: 25
    kernel_size: 5
    stride: 1
    weight_filler {
      type: "xavier"
    }
    bias_filler {
      type: "constant"
    }
  }
}
layer {
  name: "pool0"
  type: "Pooling"
  bottom: "conv0"
  top: "pool0"
  pooling_param {
    pool: MAX
    kernel_size: 2
    stride: 2
  }
}
layer {
  name: "conv1"
  type: "Convolution"
  bottom: "pool0"
  top: "conv1"
  param {
    lr_mult: 1
  }
  param {
    lr_mult: 2
  }
  convolution_param {
    num_output: 10
    kernel_size: 5
    stride: 1
    weight_filler {
      type: "xavier"
    }
    bias_filler {
      type: "constant"
    }
  }
}
layer {
  name: "pool1"
  type: "Pooling"
  bottom: "conv1"
  top: "pool1"
  pooling_param {
    pool: MAX
    kernel_size: 2
    stride: 2
  }
}
layer {
  name: "ip1"
  type: "InnerProduct"
  bottom: "pool1"
  top: "ip1"
  param {
    lr_mult: 1
  }
  param {
    lr_mult: 2
  }
  inner_product_param {
    num_output: 300
    weight_filler {
      type: "xavier"
    }
    bias_filler {
      type: "constant"
    }
  }
}
layer {
  name: "relu1"
  type: "ReLU"
  bottom: "ip1"
  top: "ip1"
}
layer {
  name: "ip2"
  type: "InnerProduct"
  bottom: "ip1"
  top: "ip2"
  param {
    lr_mult: 1
  }
  param {
    lr_mult: 2
  }
  inner_product_param {
    num_output: 300
    weight_filler {
      type: "xavier"
    }
    bias_filler {
      type: "constant"
    }
  }
}
layer {
  name: "relu2"
  type: "ReLU"
  bottom: "ip2"
  top: "ip2"
}
layer {
  name: "ip3"
  type: "InnerProduct"
  bottom: "ip2"
  top: "ip3"
  param {
    lr_mult: 1
  }
  param {
    lr_mult: 2
  }
  inner_product_param {
    num_output: 10
    weight_filler {
      type: "xavier"
    }
    bias_filler {
      type: "constant"
    }
  }
}
layer {
  name: "relu3"
  type: "ReLU"
  bottom: "ip3"
  top: "ip3"
}
layer {
  name: "accuracy"
  type: "Accuracy"
  bottom: "ip3"
  bottom: "label"
  top: "accuracy"
  include {
    phase: TEST
  }
}
layer {
  name: "loss"
  type: "SoftmaxWithLoss"
  bottom: "ip3"
  bottom: "label"
  top: "loss"
}
I0426 20:52:21.982452 32177 layer_factory.hpp:77] Creating layer mnist
I0426 20:52:21.982494 32177 db_lmdb.cpp:35] Opened lmdb examples/mnist/mnist_test_lmdb
I0426 20:52:21.982506 32177 net.cpp:86] Creating Layer mnist
I0426 20:52:21.982511 32177 net.cpp:382] mnist -> data
I0426 20:52:21.982517 32177 net.cpp:382] mnist -> label
I0426 20:52:21.982595 32177 data_layer.cpp:45] output data size: 100,1,28,28
I0426 20:52:21.983958 32177 net.cpp:124] Setting up mnist
I0426 20:52:21.983985 32177 net.cpp:131] Top shape: 100 1 28 28 (78400)
I0426 20:52:21.984005 32177 net.cpp:131] Top shape: 100 (100)
I0426 20:52:21.984009 32177 net.cpp:139] Memory required for data: 314000
I0426 20:52:21.984012 32177 layer_factory.hpp:77] Creating layer label_mnist_1_split
I0426 20:52:21.984025 32177 net.cpp:86] Creating Layer label_mnist_1_split
I0426 20:52:21.984030 32177 net.cpp:408] label_mnist_1_split <- label
I0426 20:52:21.984035 32177 net.cpp:382] label_mnist_1_split -> label_mnist_1_split_0
I0426 20:52:21.984041 32177 net.cpp:382] label_mnist_1_split -> label_mnist_1_split_1
I0426 20:52:21.984088 32177 net.cpp:124] Setting up label_mnist_1_split
I0426 20:52:21.984093 32177 net.cpp:131] Top shape: 100 (100)
I0426 20:52:21.984097 32177 net.cpp:131] Top shape: 100 (100)
I0426 20:52:21.984099 32177 net.cpp:139] Memory required for data: 314800
I0426 20:52:21.984102 32177 layer_factory.hpp:77] Creating layer conv0
I0426 20:52:21.984110 32177 net.cpp:86] Creating Layer conv0
I0426 20:52:21.984113 32177 net.cpp:408] conv0 <- data
I0426 20:52:21.984118 32177 net.cpp:382] conv0 -> conv0
I0426 20:52:21.985937 32177 net.cpp:124] Setting up conv0
I0426 20:52:21.985965 32177 net.cpp:131] Top shape: 100 25 24 24 (1440000)
I0426 20:52:21.985968 32177 net.cpp:139] Memory required for data: 6074800
I0426 20:52:21.985977 32177 layer_factory.hpp:77] Creating layer pool0
I0426 20:52:21.985982 32177 net.cpp:86] Creating Layer pool0
I0426 20:52:21.985986 32177 net.cpp:408] pool0 <- conv0
I0426 20:52:21.985991 32177 net.cpp:382] pool0 -> pool0
I0426 20:52:21.986039 32177 net.cpp:124] Setting up pool0
I0426 20:52:21.986044 32177 net.cpp:131] Top shape: 100 25 12 12 (360000)
I0426 20:52:21.986047 32177 net.cpp:139] Memory required for data: 7514800
I0426 20:52:21.986050 32177 layer_factory.hpp:77] Creating layer conv1
I0426 20:52:21.986057 32177 net.cpp:86] Creating Layer conv1
I0426 20:52:21.986060 32177 net.cpp:408] conv1 <- pool0
I0426 20:52:21.986065 32177 net.cpp:382] conv1 -> conv1
I0426 20:52:21.988348 32177 net.cpp:124] Setting up conv1
I0426 20:52:21.988392 32177 net.cpp:131] Top shape: 100 10 8 8 (64000)
I0426 20:52:21.988396 32177 net.cpp:139] Memory required for data: 7770800
I0426 20:52:21.988405 32177 layer_factory.hpp:77] Creating layer pool1
I0426 20:52:21.988411 32177 net.cpp:86] Creating Layer pool1
I0426 20:52:21.988415 32177 net.cpp:408] pool1 <- conv1
I0426 20:52:21.988420 32177 net.cpp:382] pool1 -> pool1
I0426 20:52:21.988476 32177 net.cpp:124] Setting up pool1
I0426 20:52:21.988482 32177 net.cpp:131] Top shape: 100 10 4 4 (16000)
I0426 20:52:21.988484 32177 net.cpp:139] Memory required for data: 7834800
I0426 20:52:21.988487 32177 layer_factory.hpp:77] Creating layer ip1
I0426 20:52:21.988493 32177 net.cpp:86] Creating Layer ip1
I0426 20:52:21.988497 32177 net.cpp:408] ip1 <- pool1
I0426 20:52:21.988500 32177 net.cpp:382] ip1 -> ip1
I0426 20:52:21.988951 32177 net.cpp:124] Setting up ip1
I0426 20:52:21.988960 32177 net.cpp:131] Top shape: 100 300 (30000)
I0426 20:52:21.988987 32177 net.cpp:139] Memory required for data: 7954800
I0426 20:52:21.988996 32177 layer_factory.hpp:77] Creating layer relu1
I0426 20:52:21.989001 32177 net.cpp:86] Creating Layer relu1
I0426 20:52:21.989003 32177 net.cpp:408] relu1 <- ip1
I0426 20:52:21.989007 32177 net.cpp:369] relu1 -> ip1 (in-place)
I0426 20:52:21.989208 32177 net.cpp:124] Setting up relu1
I0426 20:52:21.989217 32177 net.cpp:131] Top shape: 100 300 (30000)
I0426 20:52:21.989220 32177 net.cpp:139] Memory required for data: 8074800
I0426 20:52:21.989223 32177 layer_factory.hpp:77] Creating layer ip2
I0426 20:52:21.989231 32177 net.cpp:86] Creating Layer ip2
I0426 20:52:21.989234 32177 net.cpp:408] ip2 <- ip1
I0426 20:52:21.989240 32177 net.cpp:382] ip2 -> ip2
I0426 20:52:21.989907 32177 net.cpp:124] Setting up ip2
I0426 20:52:21.989914 32177 net.cpp:131] Top shape: 100 300 (30000)
I0426 20:52:21.989933 32177 net.cpp:139] Memory required for data: 8194800
I0426 20:52:21.989938 32177 layer_factory.hpp:77] Creating layer relu2
I0426 20:52:21.989943 32177 net.cpp:86] Creating Layer relu2
I0426 20:52:21.989946 32177 net.cpp:408] relu2 <- ip2
I0426 20:52:21.989953 32177 net.cpp:369] relu2 -> ip2 (in-place)
I0426 20:52:21.990136 32177 net.cpp:124] Setting up relu2
I0426 20:52:21.990144 32177 net.cpp:131] Top shape: 100 300 (30000)
I0426 20:52:21.990149 32177 net.cpp:139] Memory required for data: 8314800
I0426 20:52:21.990150 32177 layer_factory.hpp:77] Creating layer ip3
I0426 20:52:21.990155 32177 net.cpp:86] Creating Layer ip3
I0426 20:52:21.990159 32177 net.cpp:408] ip3 <- ip2
I0426 20:52:21.990164 32177 net.cpp:382] ip3 -> ip3
I0426 20:52:21.990298 32177 net.cpp:124] Setting up ip3
I0426 20:52:21.990306 32177 net.cpp:131] Top shape: 100 10 (1000)
I0426 20:52:21.990309 32177 net.cpp:139] Memory required for data: 8318800
I0426 20:52:21.990317 32177 layer_factory.hpp:77] Creating layer relu3
I0426 20:52:21.990322 32177 net.cpp:86] Creating Layer relu3
I0426 20:52:21.990326 32177 net.cpp:408] relu3 <- ip3
I0426 20:52:21.990331 32177 net.cpp:369] relu3 -> ip3 (in-place)
I0426 20:52:21.991245 32177 net.cpp:124] Setting up relu3
I0426 20:52:21.991256 32177 net.cpp:131] Top shape: 100 10 (1000)
I0426 20:52:21.991274 32177 net.cpp:139] Memory required for data: 8322800
I0426 20:52:21.991278 32177 layer_factory.hpp:77] Creating layer ip3_relu3_0_split
I0426 20:52:21.991283 32177 net.cpp:86] Creating Layer ip3_relu3_0_split
I0426 20:52:21.991286 32177 net.cpp:408] ip3_relu3_0_split <- ip3
I0426 20:52:21.991291 32177 net.cpp:382] ip3_relu3_0_split -> ip3_relu3_0_split_0
I0426 20:52:21.991297 32177 net.cpp:382] ip3_relu3_0_split -> ip3_relu3_0_split_1
I0426 20:52:21.991336 32177 net.cpp:124] Setting up ip3_relu3_0_split
I0426 20:52:21.991341 32177 net.cpp:131] Top shape: 100 10 (1000)
I0426 20:52:21.991344 32177 net.cpp:131] Top shape: 100 10 (1000)
I0426 20:52:21.991348 32177 net.cpp:139] Memory required for data: 8330800
I0426 20:52:21.991350 32177 layer_factory.hpp:77] Creating layer accuracy
I0426 20:52:21.991355 32177 net.cpp:86] Creating Layer accuracy
I0426 20:52:21.991358 32177 net.cpp:408] accuracy <- ip3_relu3_0_split_0
I0426 20:52:21.991363 32177 net.cpp:408] accuracy <- label_mnist_1_split_0
I0426 20:52:21.991367 32177 net.cpp:382] accuracy -> accuracy
…
