…
I0426 20:49:16.169067 31487 net.cpp:296] The NetState phase (0) differed from the phase (1) specified by a rule in layer mnist
I0426 20:49:16.169082 31487 net.cpp:296] The NetState phase (0) differed from the phase (1) specified by a rule in layer accuracy
I0426 20:49:16.169158 31487 net.cpp:53] Initializing net from parameters: 
name: "LeNet"
state {
  phase: TRAIN
  level: 0
  stage: ""
}
layer {
  name: "mnist"
  type: "Data"
  top: "data"
  top: "label"
  include {
    phase: TRAIN
  }
  transform_param {
    scale: 0.00390625
  }
  data_param {
    source: "examples/mnist/mnist_train_lmdb"
    batch_size: 64
    backend: LMDB
  }
}
layer {
  name: "conv0"
  type: "Convolution"
  bottom: "data"
  top: "conv0"
  param {
    lr_mult: 1
  }
  param {
    lr_mult: 2
  }
  convolution_param {
    num_output: 25
    kernel_size: 5
    stride: 1
    weight_filler {
      type: "xavier"
    }
    bias_filler {
      type: "constant"
    }
  }
}
layer {
  name: "pool0"
  type: "Pooling"
  bottom: "conv0"
  top: "pool0"
  pooling_param {
    pool: MAX
    kernel_size: 2
    stride: 2
  }
}
layer {
  name: "ip1"
  type: "InnerProduct"
  bottom: "pool0"
  top: "ip1"
  param {
    lr_mult: 1
  }
  param {
    lr_mult: 2
  }
  inner_product_param {
    num_output: 100
    weight_filler {
      type: "xavier"
    }
    bias_filler {
      type: "constant"
    }
  }
}
layer {
  name: "relu1"
  type: "ReLU"
  bottom: "ip1"
  top: "ip1"
}
layer {
  name: "ip2"
  type: "InnerProduct"
  bottom: "ip1"
  top: "ip2"
  param {
    lr_mult: 1
  }
  param {
    lr_mult: 2
  }
  inner_product_param {
    num_output: 10
    weight_filler {
      type: "xavier"
    }
    bias_filler {
      type: "constant"
    }
  }
}
layer {
  name: "relu2"
  type: "ReLU"
  bottom: "ip2"
  top: "ip2"
}
layer {
  name: "loss"
  type: "SoftmaxWithLoss"
  bottom: "ip2"
  bottom: "label"
  top: "loss"
}
I0426 20:49:16.169219 31487 layer_factory.hpp:77] Creating layer mnist
I0426 20:49:16.169319 31487 db_lmdb.cpp:35] Opened lmdb examples/mnist/mnist_train_lmdb
I0426 20:49:16.169342 31487 net.cpp:86] Creating Layer mnist
I0426 20:49:16.169349 31487 net.cpp:382] mnist -> data
I0426 20:49:16.169373 31487 net.cpp:382] mnist -> label
I0426 20:49:16.170449 31487 data_layer.cpp:45] output data size: 64,1,28,28
I0426 20:49:16.173187 31487 net.cpp:124] Setting up mnist
I0426 20:49:16.173204 31487 net.cpp:131] Top shape: 64 1 28 28 (50176)
I0426 20:49:16.173212 31487 net.cpp:131] Top shape: 64 (64)
I0426 20:49:16.173214 31487 net.cpp:139] Memory required for data: 200960
I0426 20:49:16.173223 31487 layer_factory.hpp:77] Creating layer conv0
I0426 20:49:16.173238 31487 net.cpp:86] Creating Layer conv0
I0426 20:49:16.173243 31487 net.cpp:408] conv0 <- data
I0426 20:49:16.173254 31487 net.cpp:382] conv0 -> conv0
I0426 20:49:16.468204 31487 net.cpp:124] Setting up conv0
I0426 20:49:16.468237 31487 net.cpp:131] Top shape: 64 25 24 24 (921600)
I0426 20:49:16.468242 31487 net.cpp:139] Memory required for data: 3887360
I0426 20:49:16.468260 31487 layer_factory.hpp:77] Creating layer pool0
I0426 20:49:16.468274 31487 net.cpp:86] Creating Layer pool0
I0426 20:49:16.468279 31487 net.cpp:408] pool0 <- conv0
I0426 20:49:16.468286 31487 net.cpp:382] pool0 -> pool0
I0426 20:49:16.468343 31487 net.cpp:124] Setting up pool0
I0426 20:49:16.468363 31487 net.cpp:131] Top shape: 64 25 12 12 (230400)
I0426 20:49:16.468365 31487 net.cpp:139] Memory required for data: 4808960
I0426 20:49:16.468772 31487 layer_factory.hpp:77] Creating layer ip1
I0426 20:49:16.468787 31487 net.cpp:86] Creating Layer ip1
I0426 20:49:16.468791 31487 net.cpp:408] ip1 <- pool0
I0426 20:49:16.468797 31487 net.cpp:382] ip1 -> ip1
I0426 20:49:16.472357 31487 net.cpp:124] Setting up ip1
I0426 20:49:16.472373 31487 net.cpp:131] Top shape: 64 100 (6400)
I0426 20:49:16.472378 31487 net.cpp:139] Memory required for data: 4834560
I0426 20:49:16.472388 31487 layer_factory.hpp:77] Creating layer relu1
I0426 20:49:16.472395 31487 net.cpp:86] Creating Layer relu1
I0426 20:49:16.472399 31487 net.cpp:408] relu1 <- ip1
I0426 20:49:16.472405 31487 net.cpp:369] relu1 -> ip1 (in-place)
I0426 20:49:16.472604 31487 net.cpp:124] Setting up relu1
I0426 20:49:16.472615 31487 net.cpp:131] Top shape: 64 100 (6400)
I0426 20:49:16.472620 31487 net.cpp:139] Memory required for data: 4860160
I0426 20:49:16.472623 31487 layer_factory.hpp:77] Creating layer ip2
I0426 20:49:16.472630 31487 net.cpp:86] Creating Layer ip2
I0426 20:49:16.472635 31487 net.cpp:408] ip2 <- ip1
I0426 20:49:16.472640 31487 net.cpp:382] ip2 -> ip2
I0426 20:49:16.472760 31487 net.cpp:124] Setting up ip2
I0426 20:49:16.472769 31487 net.cpp:131] Top shape: 64 10 (640)
I0426 20:49:16.472772 31487 net.cpp:139] Memory required for data: 4862720
I0426 20:49:16.472790 31487 layer_factory.hpp:77] Creating layer relu2
I0426 20:49:16.472795 31487 net.cpp:86] Creating Layer relu2
I0426 20:49:16.472798 31487 net.cpp:408] relu2 <- ip2
I0426 20:49:16.472803 31487 net.cpp:369] relu2 -> ip2 (in-place)
I0426 20:49:16.473750 31487 net.cpp:124] Setting up relu2
I0426 20:49:16.473767 31487 net.cpp:131] Top shape: 64 10 (640)
I0426 20:49:16.473770 31487 net.cpp:139] Memory required for data: 4865280
I0426 20:49:16.473774 31487 layer_factory.hpp:77] Creating layer loss
I0426 20:49:16.473783 31487 net.cpp:86] Creating Layer loss
I0426 20:49:16.473785 31487 net.cpp:408] loss <- ip2
I0426 20:49:16.473791 31487 net.cpp:408] loss <- label
I0426 20:49:16.473798 31487 net.cpp:382] loss -> loss
I0426 20:49:16.473819 31487 layer_factory.hpp:77] Creating layer loss
…
I0426 20:49:16.474453 31487 solver.cpp:173] Creating test net (#0) specified by net file: ECE595/mnist/train_test/var_everything/lenet_train_test31.prototxt
I0426 20:49:16.474481 31487 net.cpp:296] The NetState phase (1) differed from the phase (0) specified by a rule in layer mnist
I0426 20:49:16.474565 31487 net.cpp:53] Initializing net from parameters: 
name: "LeNet"
state {
  phase: TEST
}
layer {
  name: "mnist"
  type: "Data"
  top: "data"
  top: "label"
  include {
    phase: TEST
  }
  transform_param {
    scale: 0.00390625
  }
  data_param {
    source: "examples/mnist/mnist_test_lmdb"
    batch_size: 100
    backend: LMDB
  }
}
layer {
  name: "conv0"
  type: "Convolution"
  bottom: "data"
  top: "conv0"
  param {
    lr_mult: 1
  }
  param {
    lr_mult: 2
  }
  convolution_param {
    num_output: 25
    kernel_size: 5
    stride: 1
    weight_filler {
      type: "xavier"
    }
    bias_filler {
      type: "constant"
    }
  }
}
layer {
  name: "pool0"
  type: "Pooling"
  bottom: "conv0"
  top: "pool0"
  pooling_param {
    pool: MAX
    kernel_size: 2
    stride: 2
  }
}
layer {
  name: "ip1"
  type: "InnerProduct"
  bottom: "pool0"
  top: "ip1"
  param {
    lr_mult: 1
  }
  param {
    lr_mult: 2
  }
  inner_product_param {
    num_output: 100
    weight_filler {
      type: "xavier"
    }
    bias_filler {
      type: "constant"
    }
  }
}
layer {
  name: "relu1"
  type: "ReLU"
  bottom: "ip1"
  top: "ip1"
}
layer {
  name: "ip2"
  type: "InnerProduct"
  bottom: "ip1"
  top: "ip2"
  param {
    lr_mult: 1
  }
  param {
    lr_mult: 2
  }
  inner_product_param {
    num_output: 10
    weight_filler {
      type: "xavier"
    }
    bias_filler {
      type: "constant"
    }
  }
}
layer {
  name: "relu2"
  type: "ReLU"
  bottom: "ip2"
  top: "ip2"
}
layer {
  name: "accuracy"
  type: "Accuracy"
  bottom: "ip2"
  bottom: "label"
  top: "accuracy"
  include {
    phase: TEST
  }
}
layer {
  name: "loss"
  type: "SoftmaxWithLoss"
  bottom: "ip2"
  bottom: "label"
  top: "loss"
}
I0426 20:49:16.474647 31487 layer_factory.hpp:77] Creating layer mnist
I0426 20:49:16.474701 31487 db_lmdb.cpp:35] Opened lmdb examples/mnist/mnist_test_lmdb
I0426 20:49:16.474714 31487 net.cpp:86] Creating Layer mnist
I0426 20:49:16.474720 31487 net.cpp:382] mnist -> data
I0426 20:49:16.474730 31487 net.cpp:382] mnist -> label
I0426 20:49:16.474827 31487 data_layer.cpp:45] output data size: 100,1,28,28
I0426 20:49:16.477098 31487 net.cpp:124] Setting up mnist
I0426 20:49:16.477114 31487 net.cpp:131] Top shape: 100 1 28 28 (78400)
I0426 20:49:16.477121 31487 net.cpp:131] Top shape: 100 (100)
I0426 20:49:16.477125 31487 net.cpp:139] Memory required for data: 314000
I0426 20:49:16.477129 31487 layer_factory.hpp:77] Creating layer label_mnist_1_split
I0426 20:49:16.477141 31487 net.cpp:86] Creating Layer label_mnist_1_split
I0426 20:49:16.477145 31487 net.cpp:408] label_mnist_1_split <- label
I0426 20:49:16.477151 31487 net.cpp:382] label_mnist_1_split -> label_mnist_1_split_0
I0426 20:49:16.477159 31487 net.cpp:382] label_mnist_1_split -> label_mnist_1_split_1
I0426 20:49:16.477207 31487 net.cpp:124] Setting up label_mnist_1_split
I0426 20:49:16.477216 31487 net.cpp:131] Top shape: 100 (100)
I0426 20:49:16.477219 31487 net.cpp:131] Top shape: 100 (100)
I0426 20:49:16.477223 31487 net.cpp:139] Memory required for data: 314800
I0426 20:49:16.477226 31487 layer_factory.hpp:77] Creating layer conv0
I0426 20:49:16.477237 31487 net.cpp:86] Creating Layer conv0
I0426 20:49:16.477241 31487 net.cpp:408] conv0 <- data
I0426 20:49:16.477246 31487 net.cpp:382] conv0 -> conv0
I0426 20:49:16.479208 31487 net.cpp:124] Setting up conv0
I0426 20:49:16.479225 31487 net.cpp:131] Top shape: 100 25 24 24 (1440000)
I0426 20:49:16.479229 31487 net.cpp:139] Memory required for data: 6074800
I0426 20:49:16.479240 31487 layer_factory.hpp:77] Creating layer pool0
I0426 20:49:16.479249 31487 net.cpp:86] Creating Layer pool0
I0426 20:49:16.479252 31487 net.cpp:408] pool0 <- conv0
I0426 20:49:16.479259 31487 net.cpp:382] pool0 -> pool0
I0426 20:49:16.479300 31487 net.cpp:124] Setting up pool0
I0426 20:49:16.479306 31487 net.cpp:131] Top shape: 100 25 12 12 (360000)
I0426 20:49:16.479310 31487 net.cpp:139] Memory required for data: 7514800
I0426 20:49:16.479313 31487 layer_factory.hpp:77] Creating layer ip1
I0426 20:49:16.479321 31487 net.cpp:86] Creating Layer ip1
I0426 20:49:16.479326 31487 net.cpp:408] ip1 <- pool0
I0426 20:49:16.479331 31487 net.cpp:382] ip1 -> ip1
I0426 20:49:16.481856 31487 net.cpp:124] Setting up ip1
I0426 20:49:16.481868 31487 net.cpp:131] Top shape: 100 100 (10000)
I0426 20:49:16.481871 31487 net.cpp:139] Memory required for data: 7554800
I0426 20:49:16.481880 31487 layer_factory.hpp:77] Creating layer relu1
I0426 20:49:16.481887 31487 net.cpp:86] Creating Layer relu1
I0426 20:49:16.481891 31487 net.cpp:408] relu1 <- ip1
I0426 20:49:16.481896 31487 net.cpp:369] relu1 -> ip1 (in-place)
I0426 20:49:16.482103 31487 net.cpp:124] Setting up relu1
I0426 20:49:16.482115 31487 net.cpp:131] Top shape: 100 100 (10000)
I0426 20:49:16.482131 31487 net.cpp:139] Memory required for data: 7594800
I0426 20:49:16.482134 31487 layer_factory.hpp:77] Creating layer ip2
I0426 20:49:16.482143 31487 net.cpp:86] Creating Layer ip2
I0426 20:49:16.482147 31487 net.cpp:408] ip2 <- ip1
I0426 20:49:16.482153 31487 net.cpp:382] ip2 -> ip2
I0426 20:49:16.482282 31487 net.cpp:124] Setting up ip2
I0426 20:49:16.482291 31487 net.cpp:131] Top shape: 100 10 (1000)
I0426 20:49:16.482295 31487 net.cpp:139] Memory required for data: 7598800
I0426 20:49:16.482305 31487 layer_factory.hpp:77] Creating layer relu2
I0426 20:49:16.482311 31487 net.cpp:86] Creating Layer relu2
I0426 20:49:16.482316 31487 net.cpp:408] relu2 <- ip2
I0426 20:49:16.482321 31487 net.cpp:369] relu2 -> ip2 (in-place)
I0426 20:49:16.482528 31487 net.cpp:124] Setting up relu2
I0426 20:49:16.482539 31487 net.cpp:131] Top shape: 100 10 (1000)
I0426 20:49:16.482542 31487 net.cpp:139] Memory required for data: 7602800
I0426 20:49:16.482547 31487 layer_factory.hpp:77] Creating layer ip2_relu2_0_split
I0426 20:49:16.482554 31487 net.cpp:86] Creating Layer ip2_relu2_0_split
I0426 20:49:16.482558 31487 net.cpp:408] ip2_relu2_0_split <- ip2
I0426 20:49:16.482563 31487 net.cpp:382] ip2_relu2_0_split -> ip2_relu2_0_split_0
I0426 20:49:16.482573 31487 net.cpp:382] ip2_relu2_0_split -> ip2_relu2_0_split_1
I0426 20:49:16.482620 31487 net.cpp:124] Setting up ip2_relu2_0_split
I0426 20:49:16.482627 31487 net.cpp:131] Top shape: 100 10 (1000)
I0426 20:49:16.482632 31487 net.cpp:131] Top shape: 100 10 (1000)
I0426 20:49:16.482635 31487 net.cpp:139] Memory required for data: 7610800
I0426 20:49:16.482638 31487 layer_factory.hpp:77] Creating layer accuracy
I0426 20:49:16.482645 31487 net.cpp:86] Creating Layer accuracy
I0426 20:49:16.482650 31487 net.cpp:408] accuracy <- ip2_relu2_0_split_0
I0426 20:49:16.482655 31487 net.cpp:408] accuracy <- label_mnist_1_split_0
I0426 20:49:16.482659 31487 net.cpp:382] accuracy -> accuracy
…
