…
I0426 20:49:27.389776 31527 net.cpp:296] The NetState phase (0) differed from the phase (1) specified by a rule in layer mnist
I0426 20:49:27.389792 31527 net.cpp:296] The NetState phase (0) differed from the phase (1) specified by a rule in layer accuracy
I0426 20:49:27.389878 31527 net.cpp:53] Initializing net from parameters: 
name: "LeNet"
state {
  phase: TRAIN
  level: 0
  stage: ""
}
layer {
  name: "mnist"
  type: "Data"
  top: "data"
  top: "label"
  include {
    phase: TRAIN
  }
  transform_param {
    scale: 0.00390625
  }
  data_param {
    source: "examples/mnist/mnist_train_lmdb"
    batch_size: 64
    backend: LMDB
  }
}
layer {
  name: "conv0"
  type: "Convolution"
  bottom: "data"
  top: "conv0"
  param {
    lr_mult: 1
  }
  param {
    lr_mult: 2
  }
  convolution_param {
    num_output: 25
    kernel_size: 5
    stride: 1
    weight_filler {
      type: "xavier"
    }
    bias_filler {
      type: "constant"
    }
  }
}
layer {
  name: "pool0"
  type: "Pooling"
  bottom: "conv0"
  top: "pool0"
  pooling_param {
    pool: MAX
    kernel_size: 2
    stride: 2
  }
}
layer {
  name: "ip1"
  type: "InnerProduct"
  bottom: "pool0"
  top: "ip1"
  param {
    lr_mult: 1
  }
  param {
    lr_mult: 2
  }
  inner_product_param {
    num_output: 100
    weight_filler {
      type: "xavier"
    }
    bias_filler {
      type: "constant"
    }
  }
}
layer {
  name: "relu1"
  type: "ReLU"
  bottom: "ip1"
  top: "ip1"
}
layer {
  name: "ip2"
  type: "InnerProduct"
  bottom: "ip1"
  top: "ip2"
  param {
    lr_mult: 1
  }
  param {
    lr_mult: 2
  }
  inner_product_param {
    num_output: 300
    weight_filler {
      type: "xavier"
    }
    bias_filler {
      type: "constant"
    }
  }
}
layer {
  name: "relu2"
  type: "ReLU"
  bottom: "ip2"
  top: "ip2"
}
layer {
  name: "ip3"
  type: "InnerProduct"
  bottom: "ip2"
  top: "ip3"
  param {
    lr_mult: 1
  }
  param {
    lr_mult: 2
  }
  inner_product_param {
    num_output: 10
    weight_filler {
      type: "xavier"
    }
    bias_filler {
      type: "constant"
    }
  }
}
layer {
  name: "relu3"
  type: "ReLU"
  bottom: "ip3"
  top: "ip3"
}
layer {
  name: "loss"
  type: "SoftmaxWithLoss"
  bottom: "ip3"
  bottom: "label"
  top: "loss"
}
I0426 20:49:27.389945 31527 layer_factory.hpp:77] Creating layer mnist
I0426 20:49:27.390043 31527 db_lmdb.cpp:35] Opened lmdb examples/mnist/mnist_train_lmdb
I0426 20:49:27.390067 31527 net.cpp:86] Creating Layer mnist
I0426 20:49:27.390075 31527 net.cpp:382] mnist -> data
I0426 20:49:27.390097 31527 net.cpp:382] mnist -> label
I0426 20:49:27.391189 31527 data_layer.cpp:45] output data size: 64,1,28,28
I0426 20:49:27.393719 31527 net.cpp:124] Setting up mnist
I0426 20:49:27.393738 31527 net.cpp:131] Top shape: 64 1 28 28 (50176)
I0426 20:49:27.393743 31527 net.cpp:131] Top shape: 64 (64)
I0426 20:49:27.393748 31527 net.cpp:139] Memory required for data: 200960
I0426 20:49:27.393754 31527 layer_factory.hpp:77] Creating layer conv0
I0426 20:49:27.393770 31527 net.cpp:86] Creating Layer conv0
I0426 20:49:27.393775 31527 net.cpp:408] conv0 <- data
I0426 20:49:27.393786 31527 net.cpp:382] conv0 -> conv0
I0426 20:49:27.670724 31527 net.cpp:124] Setting up conv0
I0426 20:49:27.670749 31527 net.cpp:131] Top shape: 64 25 24 24 (921600)
I0426 20:49:27.670753 31527 net.cpp:139] Memory required for data: 3887360
I0426 20:49:27.670768 31527 layer_factory.hpp:77] Creating layer pool0
I0426 20:49:27.670779 31527 net.cpp:86] Creating Layer pool0
I0426 20:49:27.670815 31527 net.cpp:408] pool0 <- conv0
I0426 20:49:27.670821 31527 net.cpp:382] pool0 -> pool0
I0426 20:49:27.670866 31527 net.cpp:124] Setting up pool0
I0426 20:49:27.670872 31527 net.cpp:131] Top shape: 64 25 12 12 (230400)
I0426 20:49:27.670876 31527 net.cpp:139] Memory required for data: 4808960
I0426 20:49:27.670878 31527 layer_factory.hpp:77] Creating layer ip1
I0426 20:49:27.670886 31527 net.cpp:86] Creating Layer ip1
I0426 20:49:27.670889 31527 net.cpp:408] ip1 <- pool0
I0426 20:49:27.670893 31527 net.cpp:382] ip1 -> ip1
I0426 20:49:27.673702 31527 net.cpp:124] Setting up ip1
I0426 20:49:27.673714 31527 net.cpp:131] Top shape: 64 100 (6400)
I0426 20:49:27.673717 31527 net.cpp:139] Memory required for data: 4834560
I0426 20:49:27.673725 31527 layer_factory.hpp:77] Creating layer relu1
I0426 20:49:27.673732 31527 net.cpp:86] Creating Layer relu1
I0426 20:49:27.673734 31527 net.cpp:408] relu1 <- ip1
I0426 20:49:27.673739 31527 net.cpp:369] relu1 -> ip1 (in-place)
I0426 20:49:27.673907 31527 net.cpp:124] Setting up relu1
I0426 20:49:27.673914 31527 net.cpp:131] Top shape: 64 100 (6400)
I0426 20:49:27.673918 31527 net.cpp:139] Memory required for data: 4860160
I0426 20:49:27.673920 31527 layer_factory.hpp:77] Creating layer ip2
I0426 20:49:27.673928 31527 net.cpp:86] Creating Layer ip2
I0426 20:49:27.673930 31527 net.cpp:408] ip2 <- ip1
I0426 20:49:27.673934 31527 net.cpp:382] ip2 -> ip2
I0426 20:49:27.674211 31527 net.cpp:124] Setting up ip2
I0426 20:49:27.674218 31527 net.cpp:131] Top shape: 64 300 (19200)
I0426 20:49:27.674221 31527 net.cpp:139] Memory required for data: 4936960
I0426 20:49:27.674228 31527 layer_factory.hpp:77] Creating layer relu2
I0426 20:49:27.674233 31527 net.cpp:86] Creating Layer relu2
I0426 20:49:27.674237 31527 net.cpp:408] relu2 <- ip2
I0426 20:49:27.674240 31527 net.cpp:369] relu2 -> ip2 (in-place)
I0426 20:49:27.675170 31527 net.cpp:124] Setting up relu2
I0426 20:49:27.675182 31527 net.cpp:131] Top shape: 64 300 (19200)
I0426 20:49:27.675201 31527 net.cpp:139] Memory required for data: 5013760
I0426 20:49:27.675204 31527 layer_factory.hpp:77] Creating layer ip3
I0426 20:49:27.675227 31527 net.cpp:86] Creating Layer ip3
I0426 20:49:27.675231 31527 net.cpp:408] ip3 <- ip2
I0426 20:49:27.675236 31527 net.cpp:382] ip3 -> ip3
I0426 20:49:27.676283 31527 net.cpp:124] Setting up ip3
I0426 20:49:27.676295 31527 net.cpp:131] Top shape: 64 10 (640)
I0426 20:49:27.676314 31527 net.cpp:139] Memory required for data: 5016320
I0426 20:49:27.676321 31527 layer_factory.hpp:77] Creating layer relu3
I0426 20:49:27.676326 31527 net.cpp:86] Creating Layer relu3
I0426 20:49:27.676329 31527 net.cpp:408] relu3 <- ip3
I0426 20:49:27.676334 31527 net.cpp:369] relu3 -> ip3 (in-place)
I0426 20:49:27.676499 31527 net.cpp:124] Setting up relu3
I0426 20:49:27.676507 31527 net.cpp:131] Top shape: 64 10 (640)
I0426 20:49:27.676511 31527 net.cpp:139] Memory required for data: 5018880
I0426 20:49:27.676513 31527 layer_factory.hpp:77] Creating layer loss
I0426 20:49:27.676519 31527 net.cpp:86] Creating Layer loss
I0426 20:49:27.676522 31527 net.cpp:408] loss <- ip3
I0426 20:49:27.676527 31527 net.cpp:408] loss <- label
I0426 20:49:27.676532 31527 net.cpp:382] loss -> loss
I0426 20:49:27.676548 31527 layer_factory.hpp:77] Creating layer loss
…
I0426 20:49:27.677248 31527 solver.cpp:173] Creating test net (#0) specified by net file: ECE595/mnist/train_test/var_everything/lenet_train_test36.prototxt
I0426 20:49:27.677304 31527 net.cpp:296] The NetState phase (1) differed from the phase (0) specified by a rule in layer mnist
I0426 20:49:27.677384 31527 net.cpp:53] Initializing net from parameters: 
name: "LeNet"
state {
  phase: TEST
}
layer {
  name: "mnist"
  type: "Data"
  top: "data"
  top: "label"
  include {
    phase: TEST
  }
  transform_param {
    scale: 0.00390625
  }
  data_param {
    source: "examples/mnist/mnist_test_lmdb"
    batch_size: 100
    backend: LMDB
  }
}
layer {
  name: "conv0"
  type: "Convolution"
  bottom: "data"
  top: "conv0"
  param {
    lr_mult: 1
  }
  param {
    lr_mult: 2
  }
  convolution_param {
    num_output: 25
    kernel_size: 5
    stride: 1
    weight_filler {
      type: "xavier"
    }
    bias_filler {
      type: "constant"
    }
  }
}
layer {
  name: "pool0"
  type: "Pooling"
  bottom: "conv0"
  top: "pool0"
  pooling_param {
    pool: MAX
    kernel_size: 2
    stride: 2
  }
}
layer {
  name: "ip1"
  type: "InnerProduct"
  bottom: "pool0"
  top: "ip1"
  param {
    lr_mult: 1
  }
  param {
    lr_mult: 2
  }
  inner_product_param {
    num_output: 100
    weight_filler {
      type: "xavier"
    }
    bias_filler {
      type: "constant"
    }
  }
}
layer {
  name: "relu1"
  type: "ReLU"
  bottom: "ip1"
  top: "ip1"
}
layer {
  name: "ip2"
  type: "InnerProduct"
  bottom: "ip1"
  top: "ip2"
  param {
    lr_mult: 1
  }
  param {
    lr_mult: 2
  }
  inner_product_param {
    num_output: 300
    weight_filler {
      type: "xavier"
    }
    bias_filler {
      type: "constant"
    }
  }
}
layer {
  name: "relu2"
  type: "ReLU"
  bottom: "ip2"
  top: "ip2"
}
layer {
  name: "ip3"
  type: "InnerProduct"
  bottom: "ip2"
  top: "ip3"
  param {
    lr_mult: 1
  }
  param {
    lr_mult: 2
  }
  inner_product_param {
    num_output: 10
    weight_filler {
      type: "xavier"
    }
    bias_filler {
      type: "constant"
    }
  }
}
layer {
  name: "relu3"
  type: "ReLU"
  bottom: "ip3"
  top: "ip3"
}
layer {
  name: "accuracy"
  type: "Accuracy"
  bottom: "ip3"
  bottom: "label"
  top: "accuracy"
  include {
    phase: TEST
  }
}
layer {
  name: "loss"
  type: "SoftmaxWithLoss"
  bottom: "ip3"
  bottom: "label"
  top: "loss"
}
I0426 20:49:27.677445 31527 layer_factory.hpp:77] Creating layer mnist
I0426 20:49:27.677490 31527 db_lmdb.cpp:35] Opened lmdb examples/mnist/mnist_test_lmdb
I0426 20:49:27.677502 31527 net.cpp:86] Creating Layer mnist
I0426 20:49:27.677506 31527 net.cpp:382] mnist -> data
I0426 20:49:27.677515 31527 net.cpp:382] mnist -> label
I0426 20:49:27.677608 31527 data_layer.cpp:45] output data size: 100,1,28,28
I0426 20:49:27.679512 31527 net.cpp:124] Setting up mnist
I0426 20:49:27.679541 31527 net.cpp:131] Top shape: 100 1 28 28 (78400)
I0426 20:49:27.679546 31527 net.cpp:131] Top shape: 100 (100)
I0426 20:49:27.679549 31527 net.cpp:139] Memory required for data: 314000
I0426 20:49:27.679553 31527 layer_factory.hpp:77] Creating layer label_mnist_1_split
I0426 20:49:27.679569 31527 net.cpp:86] Creating Layer label_mnist_1_split
I0426 20:49:27.679574 31527 net.cpp:408] label_mnist_1_split <- label
I0426 20:49:27.679579 31527 net.cpp:382] label_mnist_1_split -> label_mnist_1_split_0
I0426 20:49:27.679584 31527 net.cpp:382] label_mnist_1_split -> label_mnist_1_split_1
I0426 20:49:27.679641 31527 net.cpp:124] Setting up label_mnist_1_split
I0426 20:49:27.679647 31527 net.cpp:131] Top shape: 100 (100)
I0426 20:49:27.679651 31527 net.cpp:131] Top shape: 100 (100)
I0426 20:49:27.679654 31527 net.cpp:139] Memory required for data: 314800
I0426 20:49:27.679666 31527 layer_factory.hpp:77] Creating layer conv0
I0426 20:49:27.679675 31527 net.cpp:86] Creating Layer conv0
I0426 20:49:27.679678 31527 net.cpp:408] conv0 <- data
I0426 20:49:27.679683 31527 net.cpp:382] conv0 -> conv0
I0426 20:49:27.681339 31527 net.cpp:124] Setting up conv0
I0426 20:49:27.681352 31527 net.cpp:131] Top shape: 100 25 24 24 (1440000)
I0426 20:49:27.681356 31527 net.cpp:139] Memory required for data: 6074800
I0426 20:49:27.681365 31527 layer_factory.hpp:77] Creating layer pool0
I0426 20:49:27.681370 31527 net.cpp:86] Creating Layer pool0
I0426 20:49:27.681373 31527 net.cpp:408] pool0 <- conv0
I0426 20:49:27.681378 31527 net.cpp:382] pool0 -> pool0
I0426 20:49:27.681409 31527 net.cpp:124] Setting up pool0
I0426 20:49:27.681416 31527 net.cpp:131] Top shape: 100 25 12 12 (360000)
I0426 20:49:27.681419 31527 net.cpp:139] Memory required for data: 7514800
I0426 20:49:27.681421 31527 layer_factory.hpp:77] Creating layer ip1
I0426 20:49:27.681443 31527 net.cpp:86] Creating Layer ip1
I0426 20:49:27.681447 31527 net.cpp:408] ip1 <- pool0
I0426 20:49:27.681466 31527 net.cpp:382] ip1 -> ip1
I0426 20:49:27.683578 31527 net.cpp:124] Setting up ip1
I0426 20:49:27.683584 31527 net.cpp:131] Top shape: 100 100 (10000)
I0426 20:49:27.683588 31527 net.cpp:139] Memory required for data: 7554800
I0426 20:49:27.683594 31527 layer_factory.hpp:77] Creating layer relu1
I0426 20:49:27.683598 31527 net.cpp:86] Creating Layer relu1
I0426 20:49:27.683612 31527 net.cpp:408] relu1 <- ip1
I0426 20:49:27.683616 31527 net.cpp:369] relu1 -> ip1 (in-place)
I0426 20:49:27.683764 31527 net.cpp:124] Setting up relu1
I0426 20:49:27.683773 31527 net.cpp:131] Top shape: 100 100 (10000)
I0426 20:49:27.683775 31527 net.cpp:139] Memory required for data: 7594800
I0426 20:49:27.683779 31527 layer_factory.hpp:77] Creating layer ip2
I0426 20:49:27.683784 31527 net.cpp:86] Creating Layer ip2
I0426 20:49:27.683786 31527 net.cpp:408] ip2 <- ip1
I0426 20:49:27.683791 31527 net.cpp:382] ip2 -> ip2
I0426 20:49:27.684069 31527 net.cpp:124] Setting up ip2
I0426 20:49:27.684077 31527 net.cpp:131] Top shape: 100 300 (30000)
I0426 20:49:27.684079 31527 net.cpp:139] Memory required for data: 7714800
I0426 20:49:27.684087 31527 layer_factory.hpp:77] Creating layer relu2
I0426 20:49:27.684090 31527 net.cpp:86] Creating Layer relu2
I0426 20:49:27.684093 31527 net.cpp:408] relu2 <- ip2
I0426 20:49:27.684098 31527 net.cpp:369] relu2 -> ip2 (in-place)
I0426 20:49:27.685009 31527 net.cpp:124] Setting up relu2
I0426 20:49:27.685021 31527 net.cpp:131] Top shape: 100 300 (30000)
I0426 20:49:27.685040 31527 net.cpp:139] Memory required for data: 7834800
I0426 20:49:27.685045 31527 layer_factory.hpp:77] Creating layer ip3
I0426 20:49:27.685051 31527 net.cpp:86] Creating Layer ip3
I0426 20:49:27.685055 31527 net.cpp:408] ip3 <- ip2
I0426 20:49:27.685060 31527 net.cpp:382] ip3 -> ip3
I0426 20:49:27.685250 31527 net.cpp:124] Setting up ip3
I0426 20:49:27.685272 31527 net.cpp:131] Top shape: 100 10 (1000)
I0426 20:49:27.685276 31527 net.cpp:139] Memory required for data: 7838800
I0426 20:49:27.685281 31527 layer_factory.hpp:77] Creating layer relu3
I0426 20:49:27.685284 31527 net.cpp:86] Creating Layer relu3
I0426 20:49:27.685287 31527 net.cpp:408] relu3 <- ip3
I0426 20:49:27.685290 31527 net.cpp:369] relu3 -> ip3 (in-place)
I0426 20:49:27.685426 31527 net.cpp:124] Setting up relu3
I0426 20:49:27.685446 31527 net.cpp:131] Top shape: 100 10 (1000)
I0426 20:49:27.685448 31527 net.cpp:139] Memory required for data: 7842800
I0426 20:49:27.685451 31527 layer_factory.hpp:77] Creating layer ip3_relu3_0_split
I0426 20:49:27.685456 31527 net.cpp:86] Creating Layer ip3_relu3_0_split
I0426 20:49:27.685457 31527 net.cpp:408] ip3_relu3_0_split <- ip3
I0426 20:49:27.685462 31527 net.cpp:382] ip3_relu3_0_split -> ip3_relu3_0_split_0
I0426 20:49:27.685467 31527 net.cpp:382] ip3_relu3_0_split -> ip3_relu3_0_split_1
I0426 20:49:27.685498 31527 net.cpp:124] Setting up ip3_relu3_0_split
I0426 20:49:27.685503 31527 net.cpp:131] Top shape: 100 10 (1000)
I0426 20:49:27.685516 31527 net.cpp:131] Top shape: 100 10 (1000)
I0426 20:49:27.685518 31527 net.cpp:139] Memory required for data: 7850800
I0426 20:49:27.685521 31527 layer_factory.hpp:77] Creating layer accuracy
I0426 20:49:27.685526 31527 net.cpp:86] Creating Layer accuracy
I0426 20:49:27.685529 31527 net.cpp:408] accuracy <- ip3_relu3_0_split_0
I0426 20:49:27.685534 31527 net.cpp:408] accuracy <- label_mnist_1_split_0
I0426 20:49:27.685537 31527 net.cpp:382] accuracy -> accuracy
…
