…
I0426 20:50:26.588667 31755 net.cpp:296] The NetState phase (0) differed from the phase (1) specified by a rule in layer mnist
I0426 20:50:26.588695 31755 net.cpp:296] The NetState phase (0) differed from the phase (1) specified by a rule in layer accuracy
I0426 20:50:26.588766 31755 net.cpp:53] Initializing net from parameters: 
name: "LeNet"
state {
  phase: TRAIN
  level: 0
  stage: ""
}
layer {
  name: "mnist"
  type: "Data"
  top: "data"
  top: "label"
  include {
    phase: TRAIN
  }
  transform_param {
    scale: 0.00390625
  }
  data_param {
    source: "examples/mnist/mnist_train_lmdb"
    batch_size: 64
    backend: LMDB
  }
}
layer {
  name: "conv0"
  type: "Convolution"
  bottom: "data"
  top: "conv0"
  param {
    lr_mult: 1
  }
  param {
    lr_mult: 2
  }
  convolution_param {
    num_output: 10
    kernel_size: 5
    stride: 1
    weight_filler {
      type: "xavier"
    }
    bias_filler {
      type: "constant"
    }
  }
}
layer {
  name: "pool0"
  type: "Pooling"
  bottom: "conv0"
  top: "pool0"
  pooling_param {
    pool: MAX
    kernel_size: 2
    stride: 2
  }
}
layer {
  name: "conv1"
  type: "Convolution"
  bottom: "pool0"
  top: "conv1"
  param {
    lr_mult: 1
  }
  param {
    lr_mult: 2
  }
  convolution_param {
    num_output: 10
    kernel_size: 5
    stride: 1
    weight_filler {
      type: "xavier"
    }
    bias_filler {
      type: "constant"
    }
  }
}
layer {
  name: "pool1"
  type: "Pooling"
  bottom: "conv1"
  top: "pool1"
  pooling_param {
    pool: MAX
    kernel_size: 2
    stride: 2
  }
}
layer {
  name: "ip1"
  type: "InnerProduct"
  bottom: "pool1"
  top: "ip1"
  param {
    lr_mult: 1
  }
  param {
    lr_mult: 2
  }
  inner_product_param {
    num_output: 300
    weight_filler {
      type: "xavier"
    }
    bias_filler {
      type: "constant"
    }
  }
}
layer {
  name: "relu1"
  type: "ReLU"
  bottom: "ip1"
  top: "ip1"
}
layer {
  name: "ip2"
  type: "InnerProduct"
  bottom: "ip1"
  top: "ip2"
  param {
    lr_mult: 1
  }
  param {
    lr_mult: 2
  }
  inner_product_param {
    num_output: 10
    weight_filler {
      type: "xavier"
    }
    bias_filler {
      type: "constant"
    }
  }
}
layer {
  name: "relu2"
  type: "ReLU"
  bottom: "ip2"
  top: "ip2"
}
layer {
  name: "loss"
  type: "SoftmaxWithLoss"
  bottom: "ip2"
  bottom: "label"
  top: "loss"
}
I0426 20:50:26.588847 31755 layer_factory.hpp:77] Creating layer mnist
I0426 20:50:26.588935 31755 db_lmdb.cpp:35] Opened lmdb examples/mnist/mnist_train_lmdb
I0426 20:50:26.588955 31755 net.cpp:86] Creating Layer mnist
I0426 20:50:26.588963 31755 net.cpp:382] mnist -> data
I0426 20:50:26.588980 31755 net.cpp:382] mnist -> label
I0426 20:50:26.589906 31755 data_layer.cpp:45] output data size: 64,1,28,28
I0426 20:50:26.592098 31755 net.cpp:124] Setting up mnist
I0426 20:50:26.592128 31755 net.cpp:131] Top shape: 64 1 28 28 (50176)
I0426 20:50:26.592133 31755 net.cpp:131] Top shape: 64 (64)
I0426 20:50:26.592134 31755 net.cpp:139] Memory required for data: 200960
I0426 20:50:26.592140 31755 layer_factory.hpp:77] Creating layer conv0
I0426 20:50:26.592170 31755 net.cpp:86] Creating Layer conv0
I0426 20:50:26.592175 31755 net.cpp:408] conv0 <- data
I0426 20:50:26.592183 31755 net.cpp:382] conv0 -> conv0
I0426 20:50:26.828743 31755 net.cpp:124] Setting up conv0
I0426 20:50:26.828770 31755 net.cpp:131] Top shape: 64 10 24 24 (368640)
I0426 20:50:26.828774 31755 net.cpp:139] Memory required for data: 1675520
I0426 20:50:26.828860 31755 layer_factory.hpp:77] Creating layer pool0
I0426 20:50:26.828876 31755 net.cpp:86] Creating Layer pool0
I0426 20:50:26.828882 31755 net.cpp:408] pool0 <- conv0
I0426 20:50:26.828888 31755 net.cpp:382] pool0 -> pool0
I0426 20:50:26.828939 31755 net.cpp:124] Setting up pool0
I0426 20:50:26.828946 31755 net.cpp:131] Top shape: 64 10 12 12 (92160)
I0426 20:50:26.828949 31755 net.cpp:139] Memory required for data: 2044160
I0426 20:50:26.828953 31755 layer_factory.hpp:77] Creating layer conv1
I0426 20:50:26.828964 31755 net.cpp:86] Creating Layer conv1
I0426 20:50:26.828968 31755 net.cpp:408] conv1 <- pool0
I0426 20:50:26.828974 31755 net.cpp:382] conv1 -> conv1
I0426 20:50:26.831796 31755 net.cpp:124] Setting up conv1
I0426 20:50:26.831811 31755 net.cpp:131] Top shape: 64 10 8 8 (40960)
I0426 20:50:26.831815 31755 net.cpp:139] Memory required for data: 2208000
I0426 20:50:26.831823 31755 layer_factory.hpp:77] Creating layer pool1
I0426 20:50:26.831831 31755 net.cpp:86] Creating Layer pool1
I0426 20:50:26.831835 31755 net.cpp:408] pool1 <- conv1
I0426 20:50:26.831840 31755 net.cpp:382] pool1 -> pool1
I0426 20:50:26.831876 31755 net.cpp:124] Setting up pool1
I0426 20:50:26.831882 31755 net.cpp:131] Top shape: 64 10 4 4 (10240)
I0426 20:50:26.831885 31755 net.cpp:139] Memory required for data: 2248960
I0426 20:50:26.831888 31755 layer_factory.hpp:77] Creating layer ip1
I0426 20:50:26.831895 31755 net.cpp:86] Creating Layer ip1
I0426 20:50:26.831898 31755 net.cpp:408] ip1 <- pool1
I0426 20:50:26.831902 31755 net.cpp:382] ip1 -> ip1
I0426 20:50:26.832270 31755 net.cpp:124] Setting up ip1
I0426 20:50:26.832278 31755 net.cpp:131] Top shape: 64 300 (19200)
I0426 20:50:26.832281 31755 net.cpp:139] Memory required for data: 2325760
I0426 20:50:26.832288 31755 layer_factory.hpp:77] Creating layer relu1
I0426 20:50:26.832293 31755 net.cpp:86] Creating Layer relu1
I0426 20:50:26.832296 31755 net.cpp:408] relu1 <- ip1
I0426 20:50:26.832300 31755 net.cpp:369] relu1 -> ip1 (in-place)
I0426 20:50:26.832487 31755 net.cpp:124] Setting up relu1
I0426 20:50:26.832496 31755 net.cpp:131] Top shape: 64 300 (19200)
I0426 20:50:26.832499 31755 net.cpp:139] Memory required for data: 2402560
I0426 20:50:26.832502 31755 layer_factory.hpp:77] Creating layer ip2
I0426 20:50:26.832509 31755 net.cpp:86] Creating Layer ip2
I0426 20:50:26.832512 31755 net.cpp:408] ip2 <- ip1
I0426 20:50:26.832517 31755 net.cpp:382] ip2 -> ip2
I0426 20:50:26.832631 31755 net.cpp:124] Setting up ip2
I0426 20:50:26.832638 31755 net.cpp:131] Top shape: 64 10 (640)
I0426 20:50:26.832641 31755 net.cpp:139] Memory required for data: 2405120
I0426 20:50:26.832648 31755 layer_factory.hpp:77] Creating layer relu2
I0426 20:50:26.832653 31755 net.cpp:86] Creating Layer relu2
I0426 20:50:26.832655 31755 net.cpp:408] relu2 <- ip2
I0426 20:50:26.832660 31755 net.cpp:369] relu2 -> ip2 (in-place)
I0426 20:50:26.833480 31755 net.cpp:124] Setting up relu2
I0426 20:50:26.833493 31755 net.cpp:131] Top shape: 64 10 (640)
I0426 20:50:26.833498 31755 net.cpp:139] Memory required for data: 2407680
I0426 20:50:26.833500 31755 layer_factory.hpp:77] Creating layer loss
I0426 20:50:26.833523 31755 net.cpp:86] Creating Layer loss
I0426 20:50:26.833526 31755 net.cpp:408] loss <- ip2
I0426 20:50:26.833530 31755 net.cpp:408] loss <- label
I0426 20:50:26.833536 31755 net.cpp:382] loss -> loss
I0426 20:50:26.833554 31755 layer_factory.hpp:77] Creating layer loss
…
I0426 20:50:26.834179 31755 solver.cpp:173] Creating test net (#0) specified by net file: ECE595/mnist/train_test/var_everything/lenet_train_test60.prototxt
I0426 20:50:26.834204 31755 net.cpp:296] The NetState phase (1) differed from the phase (0) specified by a rule in layer mnist
I0426 20:50:26.834291 31755 net.cpp:53] Initializing net from parameters: 
name: "LeNet"
state {
  phase: TEST
}
layer {
  name: "mnist"
  type: "Data"
  top: "data"
  top: "label"
  include {
    phase: TEST
  }
  transform_param {
    scale: 0.00390625
  }
  data_param {
    source: "examples/mnist/mnist_test_lmdb"
    batch_size: 100
    backend: LMDB
  }
}
layer {
  name: "conv0"
  type: "Convolution"
  bottom: "data"
  top: "conv0"
  param {
    lr_mult: 1
  }
  param {
    lr_mult: 2
  }
  convolution_param {
    num_output: 10
    kernel_size: 5
    stride: 1
    weight_filler {
      type: "xavier"
    }
    bias_filler {
      type: "constant"
    }
  }
}
layer {
  name: "pool0"
  type: "Pooling"
  bottom: "conv0"
  top: "pool0"
  pooling_param {
    pool: MAX
    kernel_size: 2
    stride: 2
  }
}
layer {
  name: "conv1"
  type: "Convolution"
  bottom: "pool0"
  top: "conv1"
  param {
    lr_mult: 1
  }
  param {
    lr_mult: 2
  }
  convolution_param {
    num_output: 10
    kernel_size: 5
    stride: 1
    weight_filler {
      type: "xavier"
    }
    bias_filler {
      type: "constant"
    }
  }
}
layer {
  name: "pool1"
  type: "Pooling"
  bottom: "conv1"
  top: "pool1"
  pooling_param {
    pool: MAX
    kernel_size: 2
    stride: 2
  }
}
layer {
  name: "ip1"
  type: "InnerProduct"
  bottom: "pool1"
  top: "ip1"
  param {
    lr_mult: 1
  }
  param {
    lr_mult: 2
  }
  inner_product_param {
    num_output: 300
    weight_filler {
      type: "xavier"
    }
    bias_filler {
      type: "constant"
    }
  }
}
layer {
  name: "relu1"
  type: "ReLU"
  bottom: "ip1"
  top: "ip1"
}
layer {
  name: "ip2"
  type: "InnerProduct"
  bottom: "ip1"
  top: "ip2"
  param {
    lr_mult: 1
  }
  param {
    lr_mult: 2
  }
  inner_product_param {
    num_output: 10
    weight_filler {
      type: "xavier"
    }
    bias_filler {
      type: "constant"
    }
  }
}
layer {
  name: "relu2"
  type: "ReLU"
  bottom: "ip2"
  top: "ip2"
}
layer {
  name: "accuracy"
  type: "Accuracy"
  bottom: "ip2"
  bottom: "label"
  top: "accuracy"
  include {
    phase: TEST
  }
}
layer {
  name: "loss"
  type: "SoftmaxWithLoss"
  bottom: "ip2"
  bottom: "label"
  top: "loss"
}
I0426 20:50:26.834355 31755 layer_factory.hpp:77] Creating layer mnist
I0426 20:50:26.834398 31755 db_lmdb.cpp:35] Opened lmdb examples/mnist/mnist_test_lmdb
I0426 20:50:26.834409 31755 net.cpp:86] Creating Layer mnist
I0426 20:50:26.834414 31755 net.cpp:382] mnist -> data
I0426 20:50:26.834421 31755 net.cpp:382] mnist -> label
I0426 20:50:26.834506 31755 data_layer.cpp:45] output data size: 100,1,28,28
I0426 20:50:26.836454 31755 net.cpp:124] Setting up mnist
I0426 20:50:26.836467 31755 net.cpp:131] Top shape: 100 1 28 28 (78400)
I0426 20:50:26.836472 31755 net.cpp:131] Top shape: 100 (100)
I0426 20:50:26.836475 31755 net.cpp:139] Memory required for data: 314000
I0426 20:50:26.836478 31755 layer_factory.hpp:77] Creating layer label_mnist_1_split
I0426 20:50:26.836485 31755 net.cpp:86] Creating Layer label_mnist_1_split
I0426 20:50:26.836488 31755 net.cpp:408] label_mnist_1_split <- label
I0426 20:50:26.836493 31755 net.cpp:382] label_mnist_1_split -> label_mnist_1_split_0
I0426 20:50:26.836499 31755 net.cpp:382] label_mnist_1_split -> label_mnist_1_split_1
I0426 20:50:26.836582 31755 net.cpp:124] Setting up label_mnist_1_split
I0426 20:50:26.836599 31755 net.cpp:131] Top shape: 100 (100)
I0426 20:50:26.836603 31755 net.cpp:131] Top shape: 100 (100)
I0426 20:50:26.836606 31755 net.cpp:139] Memory required for data: 314800
I0426 20:50:26.836609 31755 layer_factory.hpp:77] Creating layer conv0
I0426 20:50:26.836618 31755 net.cpp:86] Creating Layer conv0
I0426 20:50:26.836621 31755 net.cpp:408] conv0 <- data
I0426 20:50:26.836627 31755 net.cpp:382] conv0 -> conv0
I0426 20:50:26.838341 31755 net.cpp:124] Setting up conv0
I0426 20:50:26.838356 31755 net.cpp:131] Top shape: 100 10 24 24 (576000)
I0426 20:50:26.838359 31755 net.cpp:139] Memory required for data: 2618800
I0426 20:50:26.838368 31755 layer_factory.hpp:77] Creating layer pool0
I0426 20:50:26.838374 31755 net.cpp:86] Creating Layer pool0
I0426 20:50:26.838377 31755 net.cpp:408] pool0 <- conv0
I0426 20:50:26.838382 31755 net.cpp:382] pool0 -> pool0
I0426 20:50:26.838418 31755 net.cpp:124] Setting up pool0
I0426 20:50:26.838423 31755 net.cpp:131] Top shape: 100 10 12 12 (144000)
I0426 20:50:26.838424 31755 net.cpp:139] Memory required for data: 3194800
I0426 20:50:26.838428 31755 layer_factory.hpp:77] Creating layer conv1
I0426 20:50:26.838435 31755 net.cpp:86] Creating Layer conv1
I0426 20:50:26.838438 31755 net.cpp:408] conv1 <- pool0
I0426 20:50:26.838443 31755 net.cpp:382] conv1 -> conv1
I0426 20:50:26.840555 31755 net.cpp:124] Setting up conv1
I0426 20:50:26.840569 31755 net.cpp:131] Top shape: 100 10 8 8 (64000)
I0426 20:50:26.840572 31755 net.cpp:139] Memory required for data: 3450800
I0426 20:50:26.840581 31755 layer_factory.hpp:77] Creating layer pool1
I0426 20:50:26.840587 31755 net.cpp:86] Creating Layer pool1
I0426 20:50:26.840590 31755 net.cpp:408] pool1 <- conv1
I0426 20:50:26.840595 31755 net.cpp:382] pool1 -> pool1
I0426 20:50:26.840633 31755 net.cpp:124] Setting up pool1
I0426 20:50:26.840637 31755 net.cpp:131] Top shape: 100 10 4 4 (16000)
I0426 20:50:26.840641 31755 net.cpp:139] Memory required for data: 3514800
I0426 20:50:26.840643 31755 layer_factory.hpp:77] Creating layer ip1
I0426 20:50:26.840649 31755 net.cpp:86] Creating Layer ip1
I0426 20:50:26.840652 31755 net.cpp:408] ip1 <- pool1
I0426 20:50:26.840656 31755 net.cpp:382] ip1 -> ip1
I0426 20:50:26.841051 31755 net.cpp:124] Setting up ip1
I0426 20:50:26.841060 31755 net.cpp:131] Top shape: 100 300 (30000)
I0426 20:50:26.841063 31755 net.cpp:139] Memory required for data: 3634800
I0426 20:50:26.841076 31755 layer_factory.hpp:77] Creating layer relu1
I0426 20:50:26.841081 31755 net.cpp:86] Creating Layer relu1
I0426 20:50:26.841084 31755 net.cpp:408] relu1 <- ip1
I0426 20:50:26.841089 31755 net.cpp:369] relu1 -> ip1 (in-place)
I0426 20:50:26.841264 31755 net.cpp:124] Setting up relu1
I0426 20:50:26.841272 31755 net.cpp:131] Top shape: 100 300 (30000)
I0426 20:50:26.841275 31755 net.cpp:139] Memory required for data: 3754800
I0426 20:50:26.841279 31755 layer_factory.hpp:77] Creating layer ip2
I0426 20:50:26.841285 31755 net.cpp:86] Creating Layer ip2
I0426 20:50:26.841289 31755 net.cpp:408] ip2 <- ip1
I0426 20:50:26.841294 31755 net.cpp:382] ip2 -> ip2
I0426 20:50:26.841411 31755 net.cpp:124] Setting up ip2
I0426 20:50:26.841418 31755 net.cpp:131] Top shape: 100 10 (1000)
I0426 20:50:26.841421 31755 net.cpp:139] Memory required for data: 3758800
I0426 20:50:26.841426 31755 layer_factory.hpp:77] Creating layer relu2
I0426 20:50:26.841431 31755 net.cpp:86] Creating Layer relu2
I0426 20:50:26.841434 31755 net.cpp:408] relu2 <- ip2
I0426 20:50:26.841437 31755 net.cpp:369] relu2 -> ip2 (in-place)
I0426 20:50:26.841681 31755 net.cpp:124] Setting up relu2
I0426 20:50:26.841688 31755 net.cpp:131] Top shape: 100 10 (1000)
I0426 20:50:26.841692 31755 net.cpp:139] Memory required for data: 3762800
I0426 20:50:26.841696 31755 layer_factory.hpp:77] Creating layer ip2_relu2_0_split
I0426 20:50:26.841699 31755 net.cpp:86] Creating Layer ip2_relu2_0_split
I0426 20:50:26.841703 31755 net.cpp:408] ip2_relu2_0_split <- ip2
I0426 20:50:26.841707 31755 net.cpp:382] ip2_relu2_0_split -> ip2_relu2_0_split_0
I0426 20:50:26.841722 31755 net.cpp:382] ip2_relu2_0_split -> ip2_relu2_0_split_1
I0426 20:50:26.841773 31755 net.cpp:124] Setting up ip2_relu2_0_split
I0426 20:50:26.841779 31755 net.cpp:131] Top shape: 100 10 (1000)
I0426 20:50:26.841784 31755 net.cpp:131] Top shape: 100 10 (1000)
I0426 20:50:26.841786 31755 net.cpp:139] Memory required for data: 3770800
I0426 20:50:26.841789 31755 layer_factory.hpp:77] Creating layer accuracy
I0426 20:50:26.841794 31755 net.cpp:86] Creating Layer accuracy
I0426 20:50:26.841797 31755 net.cpp:408] accuracy <- ip2_relu2_0_split_0
I0426 20:50:26.841801 31755 net.cpp:408] accuracy <- label_mnist_1_split_0
I0426 20:50:26.841805 31755 net.cpp:382] accuracy -> accuracy
…
