…
I0426 20:55:18.696658   371 net.cpp:296] The NetState phase (0) differed from the phase (1) specified by a rule in layer mnist
I0426 20:55:18.696677   371 net.cpp:296] The NetState phase (0) differed from the phase (1) specified by a rule in layer accuracy
I0426 20:55:18.696781   371 net.cpp:53] Initializing net from parameters: 
name: "LeNet"
state {
  phase: TRAIN
  level: 0
  stage: ""
}
layer {
  name: "mnist"
  type: "Data"
  top: "data"
  top: "label"
  include {
    phase: TRAIN
  }
  transform_param {
    scale: 0.00390625
  }
  data_param {
    source: "examples/mnist/mnist_train_lmdb"
    batch_size: 64
    backend: LMDB
  }
}
layer {
  name: "conv0"
  type: "Convolution"
  bottom: "data"
  top: "conv0"
  param {
    lr_mult: 1
  }
  param {
    lr_mult: 2
  }
  convolution_param {
    num_output: 50
    kernel_size: 5
    stride: 1
    weight_filler {
      type: "xavier"
    }
    bias_filler {
      type: "constant"
    }
  }
}
layer {
  name: "pool0"
  type: "Pooling"
  bottom: "conv0"
  top: "pool0"
  pooling_param {
    pool: MAX
    kernel_size: 2
    stride: 2
  }
}
layer {
  name: "conv1"
  type: "Convolution"
  bottom: "pool0"
  top: "conv1"
  param {
    lr_mult: 1
  }
  param {
    lr_mult: 2
  }
  convolution_param {
    num_output: 50
    kernel_size: 5
    stride: 1
    weight_filler {
      type: "xavier"
    }
    bias_filler {
      type: "constant"
    }
  }
}
layer {
  name: "pool1"
  type: "Pooling"
  bottom: "conv1"
  top: "pool1"
  pooling_param {
    pool: MAX
    kernel_size: 2
    stride: 2
  }
}
layer {
  name: "ip1"
  type: "InnerProduct"
  bottom: "pool1"
  top: "ip1"
  param {
    lr_mult: 1
  }
  param {
    lr_mult: 2
  }
  inner_product_param {
    num_output: 100
    weight_filler {
      type: "xavier"
    }
    bias_filler {
      type: "constant"
    }
  }
}
layer {
  name: "relu1"
  type: "ReLU"
  bottom: "ip1"
  top: "ip1"
}
layer {
  name: "ip2"
  type: "InnerProduct"
  bottom: "ip1"
  top: "ip2"
  param {
    lr_mult: 1
  }
  param {
    lr_mult: 2
  }
  inner_product_param {
    num_output: 300
    weight_filler {
      type: "xavier"
    }
    bias_filler {
      type: "constant"
    }
  }
}
layer {
  name: "relu2"
  type: "ReLU"
  bottom: "ip2"
  top: "ip2"
}
layer {
  name: "ip3"
  type: "InnerProduct"
  bottom: "ip2"
  top: "ip3"
  param {
    lr_mult: 1
  }
  param {
    lr_mult: 2
  }
  inner_product_param {
    num_output: 10
    weight_filler {
      type: "xavier"
    }
    bias_filler {
      type: "constant"
    }
  }
}
layer {
  name: "relu3"
  type: "ReLU"
  bottom: "ip3"
  top: "ip3"
}
layer {
  name: "loss"
  type: "SoftmaxWithLoss"
  bottom: "ip3"
  bottom: "label"
  top: "loss"
}
I0426 20:55:18.696869   371 layer_factory.hpp:77] Creating layer mnist
I0426 20:55:18.696970   371 db_lmdb.cpp:35] Opened lmdb examples/mnist/mnist_train_lmdb
I0426 20:55:18.696995   371 net.cpp:86] Creating Layer mnist
I0426 20:55:18.697002   371 net.cpp:382] mnist -> data
I0426 20:55:18.697026   371 net.cpp:382] mnist -> label
I0426 20:55:18.698129   371 data_layer.cpp:45] output data size: 64,1,28,28
I0426 20:55:18.700680   371 net.cpp:124] Setting up mnist
I0426 20:55:18.700697   371 net.cpp:131] Top shape: 64 1 28 28 (50176)
I0426 20:55:18.700703   371 net.cpp:131] Top shape: 64 (64)
I0426 20:55:18.700706   371 net.cpp:139] Memory required for data: 200960
I0426 20:55:18.700713   371 layer_factory.hpp:77] Creating layer conv0
I0426 20:55:18.700732   371 net.cpp:86] Creating Layer conv0
I0426 20:55:18.700754   371 net.cpp:408] conv0 <- data
I0426 20:55:18.700767   371 net.cpp:382] conv0 -> conv0
I0426 20:55:18.995164   371 net.cpp:124] Setting up conv0
I0426 20:55:18.995196   371 net.cpp:131] Top shape: 64 50 24 24 (1843200)
I0426 20:55:18.995200   371 net.cpp:139] Memory required for data: 7573760
I0426 20:55:18.995218   371 layer_factory.hpp:77] Creating layer pool0
I0426 20:55:18.995234   371 net.cpp:86] Creating Layer pool0
I0426 20:55:18.995239   371 net.cpp:408] pool0 <- conv0
I0426 20:55:18.995245   371 net.cpp:382] pool0 -> pool0
I0426 20:55:18.995301   371 net.cpp:124] Setting up pool0
I0426 20:55:18.995308   371 net.cpp:131] Top shape: 64 50 12 12 (460800)
I0426 20:55:18.995311   371 net.cpp:139] Memory required for data: 9416960
I0426 20:55:18.995316   371 layer_factory.hpp:77] Creating layer conv1
I0426 20:55:18.995327   371 net.cpp:86] Creating Layer conv1
I0426 20:55:18.995332   371 net.cpp:408] conv1 <- pool0
I0426 20:55:18.995337   371 net.cpp:382] conv1 -> conv1
I0426 20:55:18.998153   371 net.cpp:124] Setting up conv1
I0426 20:55:18.998172   371 net.cpp:131] Top shape: 64 50 8 8 (204800)
I0426 20:55:18.998175   371 net.cpp:139] Memory required for data: 10236160
I0426 20:55:18.998186   371 layer_factory.hpp:77] Creating layer pool1
I0426 20:55:18.998195   371 net.cpp:86] Creating Layer pool1
I0426 20:55:18.998199   371 net.cpp:408] pool1 <- conv1
I0426 20:55:18.998205   371 net.cpp:382] pool1 -> pool1
I0426 20:55:18.998250   371 net.cpp:124] Setting up pool1
I0426 20:55:18.998256   371 net.cpp:131] Top shape: 64 50 4 4 (51200)
I0426 20:55:18.998260   371 net.cpp:139] Memory required for data: 10440960
I0426 20:55:18.998262   371 layer_factory.hpp:77] Creating layer ip1
I0426 20:55:18.998270   371 net.cpp:86] Creating Layer ip1
I0426 20:55:18.998275   371 net.cpp:408] ip1 <- pool1
I0426 20:55:18.998281   371 net.cpp:382] ip1 -> ip1
I0426 20:55:18.999902   371 net.cpp:124] Setting up ip1
I0426 20:55:18.999917   371 net.cpp:131] Top shape: 64 100 (6400)
I0426 20:55:18.999920   371 net.cpp:139] Memory required for data: 10466560
I0426 20:55:18.999930   371 layer_factory.hpp:77] Creating layer relu1
I0426 20:55:18.999938   371 net.cpp:86] Creating Layer relu1
I0426 20:55:18.999941   371 net.cpp:408] relu1 <- ip1
I0426 20:55:18.999948   371 net.cpp:369] relu1 -> ip1 (in-place)
I0426 20:55:19.000151   371 net.cpp:124] Setting up relu1
I0426 20:55:19.000162   371 net.cpp:131] Top shape: 64 100 (6400)
I0426 20:55:19.000166   371 net.cpp:139] Memory required for data: 10492160
I0426 20:55:19.000170   371 layer_factory.hpp:77] Creating layer ip2
I0426 20:55:19.000177   371 net.cpp:86] Creating Layer ip2
I0426 20:55:19.000181   371 net.cpp:408] ip2 <- ip1
I0426 20:55:19.000187   371 net.cpp:382] ip2 -> ip2
I0426 20:55:19.000516   371 net.cpp:124] Setting up ip2
I0426 20:55:19.000524   371 net.cpp:131] Top shape: 64 300 (19200)
I0426 20:55:19.000529   371 net.cpp:139] Memory required for data: 10568960
I0426 20:55:19.000535   371 layer_factory.hpp:77] Creating layer relu2
I0426 20:55:19.000541   371 net.cpp:86] Creating Layer relu2
I0426 20:55:19.000545   371 net.cpp:408] relu2 <- ip2
I0426 20:55:19.000550   371 net.cpp:369] relu2 -> ip2 (in-place)
I0426 20:55:19.001505   371 net.cpp:124] Setting up relu2
I0426 20:55:19.001521   371 net.cpp:131] Top shape: 64 300 (19200)
I0426 20:55:19.001525   371 net.cpp:139] Memory required for data: 10645760
I0426 20:55:19.001530   371 layer_factory.hpp:77] Creating layer ip3
I0426 20:55:19.001538   371 net.cpp:86] Creating Layer ip3
I0426 20:55:19.001543   371 net.cpp:408] ip3 <- ip2
I0426 20:55:19.001549   371 net.cpp:382] ip3 -> ip3
I0426 20:55:19.001696   371 net.cpp:124] Setting up ip3
I0426 20:55:19.001705   371 net.cpp:131] Top shape: 64 10 (640)
I0426 20:55:19.001709   371 net.cpp:139] Memory required for data: 10648320
I0426 20:55:19.001718   371 layer_factory.hpp:77] Creating layer relu3
I0426 20:55:19.001724   371 net.cpp:86] Creating Layer relu3
I0426 20:55:19.001729   371 net.cpp:408] relu3 <- ip3
I0426 20:55:19.001732   371 net.cpp:369] relu3 -> ip3 (in-place)
I0426 20:55:19.001935   371 net.cpp:124] Setting up relu3
I0426 20:55:19.001946   371 net.cpp:131] Top shape: 64 10 (640)
I0426 20:55:19.001950   371 net.cpp:139] Memory required for data: 10650880
I0426 20:55:19.001953   371 layer_factory.hpp:77] Creating layer loss
I0426 20:55:19.001960   371 net.cpp:86] Creating Layer loss
I0426 20:55:19.001963   371 net.cpp:408] loss <- ip3
I0426 20:55:19.001968   371 net.cpp:408] loss <- label
I0426 20:55:19.001974   371 net.cpp:382] loss -> loss
I0426 20:55:19.001994   371 layer_factory.hpp:77] Creating layer loss
…
I0426 20:55:19.002743   371 solver.cpp:173] Creating test net (#0) specified by net file: ECE595/mnist/train_test/var_everything/lenet_train_test177.prototxt
I0426 20:55:19.002775   371 net.cpp:296] The NetState phase (1) differed from the phase (0) specified by a rule in layer mnist
I0426 20:55:19.002887   371 net.cpp:53] Initializing net from parameters: 
name: "LeNet"
state {
  phase: TEST
}
layer {
  name: "mnist"
  type: "Data"
  top: "data"
  top: "label"
  include {
    phase: TEST
  }
  transform_param {
    scale: 0.00390625
  }
  data_param {
    source: "examples/mnist/mnist_test_lmdb"
    batch_size: 100
    backend: LMDB
  }
}
layer {
  name: "conv0"
  type: "Convolution"
  bottom: "data"
  top: "conv0"
  param {
    lr_mult: 1
  }
  param {
    lr_mult: 2
  }
  convolution_param {
    num_output: 50
    kernel_size: 5
    stride: 1
    weight_filler {
      type: "xavier"
    }
    bias_filler {
      type: "constant"
    }
  }
}
layer {
  name: "pool0"
  type: "Pooling"
  bottom: "conv0"
  top: "pool0"
  pooling_param {
    pool: MAX
    kernel_size: 2
    stride: 2
  }
}
layer {
  name: "conv1"
  type: "Convolution"
  bottom: "pool0"
  top: "conv1"
  param {
    lr_mult: 1
  }
  param {
    lr_mult: 2
  }
  convolution_param {
    num_output: 50
    kernel_size: 5
    stride: 1
    weight_filler {
      type: "xavier"
    }
    bias_filler {
      type: "constant"
    }
  }
}
layer {
  name: "pool1"
  type: "Pooling"
  bottom: "conv1"
  top: "pool1"
  pooling_param {
    pool: MAX
    kernel_size: 2
    stride: 2
  }
}
layer {
  name: "ip1"
  type: "InnerProduct"
  bottom: "pool1"
  top: "ip1"
  param {
    lr_mult: 1
  }
  param {
    lr_mult: 2
  }
  inner_product_param {
    num_output: 100
    weight_filler {
      type: "xavier"
    }
    bias_filler {
      type: "constant"
    }
  }
}
layer {
  name: "relu1"
  type: "ReLU"
  bottom: "ip1"
  top: "ip1"
}
layer {
  name: "ip2"
  type: "InnerProduct"
  bottom: "ip1"
  top: "ip2"
  param {
    lr_mult: 1
  }
  param {
    lr_mult: 2
  }
  inner_product_param {
    num_output: 300
    weight_filler {
      type: "xavier"
    }
    bias_filler {
      type: "constant"
    }
  }
}
layer {
  name: "relu2"
  type: "ReLU"
  bottom: "ip2"
  top: "ip2"
}
layer {
  name: "ip3"
  type: "InnerProduct"
  bottom: "ip2"
  top: "ip3"
  param {
    lr_mult: 1
  }
  param {
    lr_mult: 2
  }
  inner_product_param {
    num_output: 10
    weight_filler {
      type: "xavier"
    }
    bias_filler {
      type: "constant"
    }
  }
}
layer {
  name: "relu3"
  type: "ReLU"
  bottom: "ip3"
  top: "ip3"
}
layer {
  name: "accuracy"
  type: "Accuracy"
  bottom: "ip3"
  bottom: "label"
  top: "accuracy"
  include {
    phase: TEST
  }
}
layer {
  name: "loss"
  type: "SoftmaxWithLoss"
  bottom: "ip3"
  bottom: "label"
  top: "loss"
}
I0426 20:55:19.002982   371 layer_factory.hpp:77] Creating layer mnist
I0426 20:55:19.003033   371 db_lmdb.cpp:35] Opened lmdb examples/mnist/mnist_test_lmdb
I0426 20:55:19.003051   371 net.cpp:86] Creating Layer mnist
I0426 20:55:19.003057   371 net.cpp:382] mnist -> data
I0426 20:55:19.003067   371 net.cpp:382] mnist -> label
I0426 20:55:19.003168   371 data_layer.cpp:45] output data size: 100,1,28,28
I0426 20:55:19.004488   371 net.cpp:124] Setting up mnist
I0426 20:55:19.004503   371 net.cpp:131] Top shape: 100 1 28 28 (78400)
I0426 20:55:19.004510   371 net.cpp:131] Top shape: 100 (100)
I0426 20:55:19.004513   371 net.cpp:139] Memory required for data: 314000
I0426 20:55:19.004518   371 layer_factory.hpp:77] Creating layer label_mnist_1_split
I0426 20:55:19.004525   371 net.cpp:86] Creating Layer label_mnist_1_split
I0426 20:55:19.004529   371 net.cpp:408] label_mnist_1_split <- label
I0426 20:55:19.004535   371 net.cpp:382] label_mnist_1_split -> label_mnist_1_split_0
I0426 20:55:19.004544   371 net.cpp:382] label_mnist_1_split -> label_mnist_1_split_1
I0426 20:55:19.004607   371 net.cpp:124] Setting up label_mnist_1_split
I0426 20:55:19.004616   371 net.cpp:131] Top shape: 100 (100)
I0426 20:55:19.004619   371 net.cpp:131] Top shape: 100 (100)
I0426 20:55:19.004623   371 net.cpp:139] Memory required for data: 314800
I0426 20:55:19.004626   371 layer_factory.hpp:77] Creating layer conv0
I0426 20:55:19.004637   371 net.cpp:86] Creating Layer conv0
I0426 20:55:19.004640   371 net.cpp:408] conv0 <- data
I0426 20:55:19.004645   371 net.cpp:382] conv0 -> conv0
I0426 20:55:19.006681   371 net.cpp:124] Setting up conv0
I0426 20:55:19.006698   371 net.cpp:131] Top shape: 100 50 24 24 (2880000)
I0426 20:55:19.006702   371 net.cpp:139] Memory required for data: 11834800
I0426 20:55:19.006713   371 layer_factory.hpp:77] Creating layer pool0
I0426 20:55:19.006721   371 net.cpp:86] Creating Layer pool0
I0426 20:55:19.006726   371 net.cpp:408] pool0 <- conv0
I0426 20:55:19.006731   371 net.cpp:382] pool0 -> pool0
I0426 20:55:19.006774   371 net.cpp:124] Setting up pool0
I0426 20:55:19.006780   371 net.cpp:131] Top shape: 100 50 12 12 (720000)
I0426 20:55:19.006783   371 net.cpp:139] Memory required for data: 14714800
I0426 20:55:19.006788   371 layer_factory.hpp:77] Creating layer conv1
I0426 20:55:19.006798   371 net.cpp:86] Creating Layer conv1
I0426 20:55:19.006801   371 net.cpp:408] conv1 <- pool0
I0426 20:55:19.006808   371 net.cpp:382] conv1 -> conv1
I0426 20:55:19.009013   371 net.cpp:124] Setting up conv1
I0426 20:55:19.009029   371 net.cpp:131] Top shape: 100 50 8 8 (320000)
I0426 20:55:19.009033   371 net.cpp:139] Memory required for data: 15994800
I0426 20:55:19.009044   371 layer_factory.hpp:77] Creating layer pool1
I0426 20:55:19.009053   371 net.cpp:86] Creating Layer pool1
I0426 20:55:19.009058   371 net.cpp:408] pool1 <- conv1
I0426 20:55:19.009064   371 net.cpp:382] pool1 -> pool1
I0426 20:55:19.009106   371 net.cpp:124] Setting up pool1
I0426 20:55:19.009114   371 net.cpp:131] Top shape: 100 50 4 4 (80000)
I0426 20:55:19.009116   371 net.cpp:139] Memory required for data: 16314800
I0426 20:55:19.009120   371 layer_factory.hpp:77] Creating layer ip1
I0426 20:55:19.009127   371 net.cpp:86] Creating Layer ip1
I0426 20:55:19.009130   371 net.cpp:408] ip1 <- pool1
I0426 20:55:19.009136   371 net.cpp:382] ip1 -> ip1
I0426 20:55:19.009786   371 net.cpp:124] Setting up ip1
I0426 20:55:19.009809   371 net.cpp:131] Top shape: 100 100 (10000)
I0426 20:55:19.009811   371 net.cpp:139] Memory required for data: 16354800
I0426 20:55:19.009821   371 layer_factory.hpp:77] Creating layer relu1
I0426 20:55:19.009827   371 net.cpp:86] Creating Layer relu1
I0426 20:55:19.009831   371 net.cpp:408] relu1 <- ip1
I0426 20:55:19.009836   371 net.cpp:369] relu1 -> ip1 (in-place)
I0426 20:55:19.010102   371 net.cpp:124] Setting up relu1
I0426 20:55:19.010112   371 net.cpp:131] Top shape: 100 100 (10000)
I0426 20:55:19.010121   371 net.cpp:139] Memory required for data: 16394800
I0426 20:55:19.010125   371 layer_factory.hpp:77] Creating layer ip2
I0426 20:55:19.010133   371 net.cpp:86] Creating Layer ip2
I0426 20:55:19.010138   371 net.cpp:408] ip2 <- ip1
I0426 20:55:19.010148   371 net.cpp:382] ip2 -> ip2
I0426 20:55:19.010479   371 net.cpp:124] Setting up ip2
I0426 20:55:19.010488   371 net.cpp:131] Top shape: 100 300 (30000)
I0426 20:55:19.010491   371 net.cpp:139] Memory required for data: 16514800
I0426 20:55:19.010499   371 layer_factory.hpp:77] Creating layer relu2
I0426 20:55:19.010504   371 net.cpp:86] Creating Layer relu2
I0426 20:55:19.010509   371 net.cpp:408] relu2 <- ip2
I0426 20:55:19.010514   371 net.cpp:369] relu2 -> ip2 (in-place)
I0426 20:55:19.010704   371 net.cpp:124] Setting up relu2
I0426 20:55:19.010715   371 net.cpp:131] Top shape: 100 300 (30000)
I0426 20:55:19.010718   371 net.cpp:139] Memory required for data: 16634800
I0426 20:55:19.010723   371 layer_factory.hpp:77] Creating layer ip3
I0426 20:55:19.010730   371 net.cpp:86] Creating Layer ip3
I0426 20:55:19.010733   371 net.cpp:408] ip3 <- ip2
I0426 20:55:19.010740   371 net.cpp:382] ip3 -> ip3
I0426 20:55:19.010881   371 net.cpp:124] Setting up ip3
I0426 20:55:19.010890   371 net.cpp:131] Top shape: 100 10 (1000)
I0426 20:55:19.010893   371 net.cpp:139] Memory required for data: 16638800
I0426 20:55:19.010906   371 layer_factory.hpp:77] Creating layer relu3
I0426 20:55:19.010913   371 net.cpp:86] Creating Layer relu3
I0426 20:55:19.010916   371 net.cpp:408] relu3 <- ip3
I0426 20:55:19.010922   371 net.cpp:369] relu3 -> ip3 (in-place)
I0426 20:55:19.011956   371 net.cpp:124] Setting up relu3
I0426 20:55:19.011971   371 net.cpp:131] Top shape: 100 10 (1000)
I0426 20:55:19.011976   371 net.cpp:139] Memory required for data: 16642800
I0426 20:55:19.011978   371 layer_factory.hpp:77] Creating layer ip3_relu3_0_split
I0426 20:55:19.011986   371 net.cpp:86] Creating Layer ip3_relu3_0_split
I0426 20:55:19.011989   371 net.cpp:408] ip3_relu3_0_split <- ip3
I0426 20:55:19.011996   371 net.cpp:382] ip3_relu3_0_split -> ip3_relu3_0_split_0
I0426 20:55:19.012003   371 net.cpp:382] ip3_relu3_0_split -> ip3_relu3_0_split_1
I0426 20:55:19.012048   371 net.cpp:124] Setting up ip3_relu3_0_split
I0426 20:55:19.012060   371 net.cpp:131] Top shape: 100 10 (1000)
I0426 20:55:19.012065   371 net.cpp:131] Top shape: 100 10 (1000)
I0426 20:55:19.012068   371 net.cpp:139] Memory required for data: 16650800
I0426 20:55:19.012073   371 layer_factory.hpp:77] Creating layer accuracy
I0426 20:55:19.012079   371 net.cpp:86] Creating Layer accuracy
I0426 20:55:19.012084   371 net.cpp:408] accuracy <- ip3_relu3_0_split_0
I0426 20:55:19.012089   371 net.cpp:408] accuracy <- label_mnist_1_split_0
I0426 20:55:19.012094   371 net.cpp:382] accuracy -> accuracy
…
