…
I0426 20:53:12.045672 32394 net.cpp:296] The NetState phase (0) differed from the phase (1) specified by a rule in layer mnist
I0426 20:53:12.045686 32394 net.cpp:296] The NetState phase (0) differed from the phase (1) specified by a rule in layer accuracy
I0426 20:53:12.045761 32394 net.cpp:53] Initializing net from parameters: 
name: "LeNet"
state {
  phase: TRAIN
  level: 0
  stage: ""
}
layer {
  name: "mnist"
  type: "Data"
  top: "data"
  top: "label"
  include {
    phase: TRAIN
  }
  transform_param {
    scale: 0.00390625
  }
  data_param {
    source: "examples/mnist/mnist_train_lmdb"
    batch_size: 64
    backend: LMDB
  }
}
layer {
  name: "conv0"
  type: "Convolution"
  bottom: "data"
  top: "conv0"
  param {
    lr_mult: 1
  }
  param {
    lr_mult: 2
  }
  convolution_param {
    num_output: 25
    kernel_size: 5
    stride: 1
    weight_filler {
      type: "xavier"
    }
    bias_filler {
      type: "constant"
    }
  }
}
layer {
  name: "pool0"
  type: "Pooling"
  bottom: "conv0"
  top: "pool0"
  pooling_param {
    pool: MAX
    kernel_size: 2
    stride: 2
  }
}
layer {
  name: "conv1"
  type: "Convolution"
  bottom: "pool0"
  top: "conv1"
  param {
    lr_mult: 1
  }
  param {
    lr_mult: 2
  }
  convolution_param {
    num_output: 50
    kernel_size: 5
    stride: 1
    weight_filler {
      type: "xavier"
    }
    bias_filler {
      type: "constant"
    }
  }
}
layer {
  name: "pool1"
  type: "Pooling"
  bottom: "conv1"
  top: "pool1"
  pooling_param {
    pool: MAX
    kernel_size: 2
    stride: 2
  }
}
layer {
  name: "ip1"
  type: "InnerProduct"
  bottom: "pool1"
  top: "ip1"
  param {
    lr_mult: 1
  }
  param {
    lr_mult: 2
  }
  inner_product_param {
    num_output: 300
    weight_filler {
      type: "xavier"
    }
    bias_filler {
      type: "constant"
    }
  }
}
layer {
  name: "relu1"
  type: "ReLU"
  bottom: "ip1"
  top: "ip1"
}
layer {
  name: "ip2"
  type: "InnerProduct"
  bottom: "ip1"
  top: "ip2"
  param {
    lr_mult: 1
  }
  param {
    lr_mult: 2
  }
  inner_product_param {
    num_output: 10
    weight_filler {
      type: "xavier"
    }
    bias_filler {
      type: "constant"
    }
  }
}
layer {
  name: "relu2"
  type: "ReLU"
  bottom: "ip2"
  top: "ip2"
}
layer {
  name: "loss"
  type: "SoftmaxWithLoss"
  bottom: "ip2"
  bottom: "label"
  top: "loss"
}
I0426 20:53:12.045822 32394 layer_factory.hpp:77] Creating layer mnist
I0426 20:53:12.045920 32394 db_lmdb.cpp:35] Opened lmdb examples/mnist/mnist_train_lmdb
I0426 20:53:12.045940 32394 net.cpp:86] Creating Layer mnist
I0426 20:53:12.045948 32394 net.cpp:382] mnist -> data
I0426 20:53:12.045966 32394 net.cpp:382] mnist -> label
I0426 20:53:12.046901 32394 data_layer.cpp:45] output data size: 64,1,28,28
I0426 20:53:12.048985 32394 net.cpp:124] Setting up mnist
I0426 20:53:12.049015 32394 net.cpp:131] Top shape: 64 1 28 28 (50176)
I0426 20:53:12.049021 32394 net.cpp:131] Top shape: 64 (64)
I0426 20:53:12.049023 32394 net.cpp:139] Memory required for data: 200960
I0426 20:53:12.049028 32394 layer_factory.hpp:77] Creating layer conv0
I0426 20:53:12.049041 32394 net.cpp:86] Creating Layer conv0
I0426 20:53:12.049060 32394 net.cpp:408] conv0 <- data
I0426 20:53:12.049075 32394 net.cpp:382] conv0 -> conv0
I0426 20:53:12.275491 32394 net.cpp:124] Setting up conv0
I0426 20:53:12.275517 32394 net.cpp:131] Top shape: 64 25 24 24 (921600)
I0426 20:53:12.275521 32394 net.cpp:139] Memory required for data: 3887360
I0426 20:53:12.275552 32394 layer_factory.hpp:77] Creating layer pool0
I0426 20:53:12.275565 32394 net.cpp:86] Creating Layer pool0
I0426 20:53:12.275568 32394 net.cpp:408] pool0 <- conv0
I0426 20:53:12.275589 32394 net.cpp:382] pool0 -> pool0
I0426 20:53:12.275650 32394 net.cpp:124] Setting up pool0
I0426 20:53:12.275655 32394 net.cpp:131] Top shape: 64 25 12 12 (230400)
I0426 20:53:12.275657 32394 net.cpp:139] Memory required for data: 4808960
I0426 20:53:12.275660 32394 layer_factory.hpp:77] Creating layer conv1
I0426 20:53:12.275673 32394 net.cpp:86] Creating Layer conv1
I0426 20:53:12.275676 32394 net.cpp:408] conv1 <- pool0
I0426 20:53:12.275681 32394 net.cpp:382] conv1 -> conv1
I0426 20:53:12.277736 32394 net.cpp:124] Setting up conv1
I0426 20:53:12.277750 32394 net.cpp:131] Top shape: 64 50 8 8 (204800)
I0426 20:53:12.277753 32394 net.cpp:139] Memory required for data: 5628160
I0426 20:53:12.277760 32394 layer_factory.hpp:77] Creating layer pool1
I0426 20:53:12.277767 32394 net.cpp:86] Creating Layer pool1
I0426 20:53:12.277770 32394 net.cpp:408] pool1 <- conv1
I0426 20:53:12.277775 32394 net.cpp:382] pool1 -> pool1
I0426 20:53:12.277838 32394 net.cpp:124] Setting up pool1
I0426 20:53:12.277843 32394 net.cpp:131] Top shape: 64 50 4 4 (51200)
I0426 20:53:12.277847 32394 net.cpp:139] Memory required for data: 5832960
I0426 20:53:12.277849 32394 layer_factory.hpp:77] Creating layer ip1
I0426 20:53:12.277855 32394 net.cpp:86] Creating Layer ip1
I0426 20:53:12.277858 32394 net.cpp:408] ip1 <- pool1
I0426 20:53:12.277863 32394 net.cpp:382] ip1 -> ip1
I0426 20:53:12.280009 32394 net.cpp:124] Setting up ip1
I0426 20:53:12.280020 32394 net.cpp:131] Top shape: 64 300 (19200)
I0426 20:53:12.280038 32394 net.cpp:139] Memory required for data: 5909760
I0426 20:53:12.280046 32394 layer_factory.hpp:77] Creating layer relu1
I0426 20:53:12.280052 32394 net.cpp:86] Creating Layer relu1
I0426 20:53:12.280055 32394 net.cpp:408] relu1 <- ip1
I0426 20:53:12.280059 32394 net.cpp:369] relu1 -> ip1 (in-place)
I0426 20:53:12.280256 32394 net.cpp:124] Setting up relu1
I0426 20:53:12.280266 32394 net.cpp:131] Top shape: 64 300 (19200)
I0426 20:53:12.280268 32394 net.cpp:139] Memory required for data: 5986560
I0426 20:53:12.280272 32394 layer_factory.hpp:77] Creating layer ip2
I0426 20:53:12.280278 32394 net.cpp:86] Creating Layer ip2
I0426 20:53:12.280282 32394 net.cpp:408] ip2 <- ip1
I0426 20:53:12.280287 32394 net.cpp:382] ip2 -> ip2
I0426 20:53:12.281306 32394 net.cpp:124] Setting up ip2
I0426 20:53:12.281318 32394 net.cpp:131] Top shape: 64 10 (640)
I0426 20:53:12.281337 32394 net.cpp:139] Memory required for data: 5989120
I0426 20:53:12.281342 32394 layer_factory.hpp:77] Creating layer relu2
I0426 20:53:12.281348 32394 net.cpp:86] Creating Layer relu2
I0426 20:53:12.281352 32394 net.cpp:408] relu2 <- ip2
I0426 20:53:12.281357 32394 net.cpp:369] relu2 -> ip2 (in-place)
I0426 20:53:12.282204 32394 net.cpp:124] Setting up relu2
I0426 20:53:12.282232 32394 net.cpp:131] Top shape: 64 10 (640)
I0426 20:53:12.282250 32394 net.cpp:139] Memory required for data: 5991680
I0426 20:53:12.282253 32394 layer_factory.hpp:77] Creating layer loss
I0426 20:53:12.282259 32394 net.cpp:86] Creating Layer loss
I0426 20:53:12.282263 32394 net.cpp:408] loss <- ip2
I0426 20:53:12.282269 32394 net.cpp:408] loss <- label
I0426 20:53:12.282274 32394 net.cpp:382] loss -> loss
I0426 20:53:12.282305 32394 layer_factory.hpp:77] Creating layer loss
…
I0426 20:53:12.282948 32394 solver.cpp:173] Creating test net (#0) specified by net file: ECE595/mnist/train_test/var_everything/lenet_train_test131.prototxt
I0426 20:53:12.282974 32394 net.cpp:296] The NetState phase (1) differed from the phase (0) specified by a rule in layer mnist
I0426 20:53:12.283056 32394 net.cpp:53] Initializing net from parameters: 
name: "LeNet"
state {
  phase: TEST
}
layer {
  name: "mnist"
  type: "Data"
  top: "data"
  top: "label"
  include {
    phase: TEST
  }
  transform_param {
    scale: 0.00390625
  }
  data_param {
    source: "examples/mnist/mnist_test_lmdb"
    batch_size: 100
    backend: LMDB
  }
}
layer {
  name: "conv0"
  type: "Convolution"
  bottom: "data"
  top: "conv0"
  param {
    lr_mult: 1
  }
  param {
    lr_mult: 2
  }
  convolution_param {
    num_output: 25
    kernel_size: 5
    stride: 1
    weight_filler {
      type: "xavier"
    }
    bias_filler {
      type: "constant"
    }
  }
}
layer {
  name: "pool0"
  type: "Pooling"
  bottom: "conv0"
  top: "pool0"
  pooling_param {
    pool: MAX
    kernel_size: 2
    stride: 2
  }
}
layer {
  name: "conv1"
  type: "Convolution"
  bottom: "pool0"
  top: "conv1"
  param {
    lr_mult: 1
  }
  param {
    lr_mult: 2
  }
  convolution_param {
    num_output: 50
    kernel_size: 5
    stride: 1
    weight_filler {
      type: "xavier"
    }
    bias_filler {
      type: "constant"
    }
  }
}
layer {
  name: "pool1"
  type: "Pooling"
  bottom: "conv1"
  top: "pool1"
  pooling_param {
    pool: MAX
    kernel_size: 2
    stride: 2
  }
}
layer {
  name: "ip1"
  type: "InnerProduct"
  bottom: "pool1"
  top: "ip1"
  param {
    lr_mult: 1
  }
  param {
    lr_mult: 2
  }
  inner_product_param {
    num_output: 300
    weight_filler {
      type: "xavier"
    }
    bias_filler {
      type: "constant"
    }
  }
}
layer {
  name: "relu1"
  type: "ReLU"
  bottom: "ip1"
  top: "ip1"
}
layer {
  name: "ip2"
  type: "InnerProduct"
  bottom: "ip1"
  top: "ip2"
  param {
    lr_mult: 1
  }
  param {
    lr_mult: 2
  }
  inner_product_param {
    num_output: 10
    weight_filler {
      type: "xavier"
    }
    bias_filler {
      type: "constant"
    }
  }
}
layer {
  name: "relu2"
  type: "ReLU"
  bottom: "ip2"
  top: "ip2"
}
layer {
  name: "accuracy"
  type: "Accuracy"
  bottom: "ip2"
  bottom: "label"
  top: "accuracy"
  include {
    phase: TEST
  }
}
layer {
  name: "loss"
  type: "SoftmaxWithLoss"
  bottom: "ip2"
  bottom: "label"
  top: "loss"
}
I0426 20:53:12.283119 32394 layer_factory.hpp:77] Creating layer mnist
I0426 20:53:12.283164 32394 db_lmdb.cpp:35] Opened lmdb examples/mnist/mnist_test_lmdb
I0426 20:53:12.283176 32394 net.cpp:86] Creating Layer mnist
I0426 20:53:12.283180 32394 net.cpp:382] mnist -> data
I0426 20:53:12.283188 32394 net.cpp:382] mnist -> label
I0426 20:53:12.283268 32394 data_layer.cpp:45] output data size: 100,1,28,28
I0426 20:53:12.285312 32394 net.cpp:124] Setting up mnist
I0426 20:53:12.285341 32394 net.cpp:131] Top shape: 100 1 28 28 (78400)
I0426 20:53:12.285344 32394 net.cpp:131] Top shape: 100 (100)
I0426 20:53:12.285347 32394 net.cpp:139] Memory required for data: 314000
I0426 20:53:12.285351 32394 layer_factory.hpp:77] Creating layer label_mnist_1_split
I0426 20:53:12.285357 32394 net.cpp:86] Creating Layer label_mnist_1_split
I0426 20:53:12.285361 32394 net.cpp:408] label_mnist_1_split <- label
I0426 20:53:12.285364 32394 net.cpp:382] label_mnist_1_split -> label_mnist_1_split_0
I0426 20:53:12.285370 32394 net.cpp:382] label_mnist_1_split -> label_mnist_1_split_1
I0426 20:53:12.285504 32394 net.cpp:124] Setting up label_mnist_1_split
I0426 20:53:12.285528 32394 net.cpp:131] Top shape: 100 (100)
I0426 20:53:12.285532 32394 net.cpp:131] Top shape: 100 (100)
I0426 20:53:12.285536 32394 net.cpp:139] Memory required for data: 314800
I0426 20:53:12.285538 32394 layer_factory.hpp:77] Creating layer conv0
I0426 20:53:12.285547 32394 net.cpp:86] Creating Layer conv0
I0426 20:53:12.285550 32394 net.cpp:408] conv0 <- data
I0426 20:53:12.285555 32394 net.cpp:382] conv0 -> conv0
I0426 20:53:12.287528 32394 net.cpp:124] Setting up conv0
I0426 20:53:12.287539 32394 net.cpp:131] Top shape: 100 25 24 24 (1440000)
I0426 20:53:12.287542 32394 net.cpp:139] Memory required for data: 6074800
I0426 20:53:12.287551 32394 layer_factory.hpp:77] Creating layer pool0
I0426 20:53:12.287572 32394 net.cpp:86] Creating Layer pool0
I0426 20:53:12.287575 32394 net.cpp:408] pool0 <- conv0
I0426 20:53:12.287581 32394 net.cpp:382] pool0 -> pool0
I0426 20:53:12.287614 32394 net.cpp:124] Setting up pool0
I0426 20:53:12.287619 32394 net.cpp:131] Top shape: 100 25 12 12 (360000)
I0426 20:53:12.287622 32394 net.cpp:139] Memory required for data: 7514800
I0426 20:53:12.287624 32394 layer_factory.hpp:77] Creating layer conv1
I0426 20:53:12.287633 32394 net.cpp:86] Creating Layer conv1
I0426 20:53:12.287637 32394 net.cpp:408] conv1 <- pool0
I0426 20:53:12.287642 32394 net.cpp:382] conv1 -> conv1
I0426 20:53:12.289613 32394 net.cpp:124] Setting up conv1
I0426 20:53:12.289629 32394 net.cpp:131] Top shape: 100 50 8 8 (320000)
I0426 20:53:12.289650 32394 net.cpp:139] Memory required for data: 8794800
I0426 20:53:12.289664 32394 layer_factory.hpp:77] Creating layer pool1
I0426 20:53:12.289674 32394 net.cpp:86] Creating Layer pool1
I0426 20:53:12.289677 32394 net.cpp:408] pool1 <- conv1
I0426 20:53:12.289696 32394 net.cpp:382] pool1 -> pool1
I0426 20:53:12.289733 32394 net.cpp:124] Setting up pool1
I0426 20:53:12.289738 32394 net.cpp:131] Top shape: 100 50 4 4 (80000)
I0426 20:53:12.289741 32394 net.cpp:139] Memory required for data: 9114800
I0426 20:53:12.289744 32394 layer_factory.hpp:77] Creating layer ip1
I0426 20:53:12.289757 32394 net.cpp:86] Creating Layer ip1
I0426 20:53:12.289760 32394 net.cpp:408] ip1 <- pool1
I0426 20:53:12.289765 32394 net.cpp:382] ip1 -> ip1
I0426 20:53:12.291343 32394 net.cpp:124] Setting up ip1
I0426 20:53:12.291354 32394 net.cpp:131] Top shape: 100 300 (30000)
I0426 20:53:12.291358 32394 net.cpp:139] Memory required for data: 9234800
I0426 20:53:12.291366 32394 layer_factory.hpp:77] Creating layer relu1
I0426 20:53:12.291371 32394 net.cpp:86] Creating Layer relu1
I0426 20:53:12.291385 32394 net.cpp:408] relu1 <- ip1
I0426 20:53:12.291391 32394 net.cpp:369] relu1 -> ip1 (in-place)
I0426 20:53:12.291647 32394 net.cpp:124] Setting up relu1
I0426 20:53:12.291659 32394 net.cpp:131] Top shape: 100 300 (30000)
I0426 20:53:12.291663 32394 net.cpp:139] Memory required for data: 9354800
I0426 20:53:12.291666 32394 layer_factory.hpp:77] Creating layer ip2
I0426 20:53:12.291676 32394 net.cpp:86] Creating Layer ip2
I0426 20:53:12.291678 32394 net.cpp:408] ip2 <- ip1
I0426 20:53:12.291683 32394 net.cpp:382] ip2 -> ip2
I0426 20:53:12.291831 32394 net.cpp:124] Setting up ip2
I0426 20:53:12.291837 32394 net.cpp:131] Top shape: 100 10 (1000)
I0426 20:53:12.291841 32394 net.cpp:139] Memory required for data: 9358800
I0426 20:53:12.291846 32394 layer_factory.hpp:77] Creating layer relu2
I0426 20:53:12.291849 32394 net.cpp:86] Creating Layer relu2
I0426 20:53:12.291852 32394 net.cpp:408] relu2 <- ip2
I0426 20:53:12.291863 32394 net.cpp:369] relu2 -> ip2 (in-place)
I0426 20:53:12.292011 32394 net.cpp:124] Setting up relu2
I0426 20:53:12.292019 32394 net.cpp:131] Top shape: 100 10 (1000)
I0426 20:53:12.292022 32394 net.cpp:139] Memory required for data: 9362800
I0426 20:53:12.292026 32394 layer_factory.hpp:77] Creating layer ip2_relu2_0_split
I0426 20:53:12.292031 32394 net.cpp:86] Creating Layer ip2_relu2_0_split
I0426 20:53:12.292034 32394 net.cpp:408] ip2_relu2_0_split <- ip2
I0426 20:53:12.292038 32394 net.cpp:382] ip2_relu2_0_split -> ip2_relu2_0_split_0
I0426 20:53:12.292054 32394 net.cpp:382] ip2_relu2_0_split -> ip2_relu2_0_split_1
I0426 20:53:12.292088 32394 net.cpp:124] Setting up ip2_relu2_0_split
I0426 20:53:12.292093 32394 net.cpp:131] Top shape: 100 10 (1000)
I0426 20:53:12.292096 32394 net.cpp:131] Top shape: 100 10 (1000)
I0426 20:53:12.292098 32394 net.cpp:139] Memory required for data: 9370800
I0426 20:53:12.292102 32394 layer_factory.hpp:77] Creating layer accuracy
I0426 20:53:12.292106 32394 net.cpp:86] Creating Layer accuracy
I0426 20:53:12.292109 32394 net.cpp:408] accuracy <- ip2_relu2_0_split_0
I0426 20:53:12.292114 32394 net.cpp:408] accuracy <- label_mnist_1_split_0
I0426 20:53:12.292137 32394 net.cpp:382] accuracy -> accuracy
…
