…
I0426 20:51:03.526624 31899 net.cpp:296] The NetState phase (0) differed from the phase (1) specified by a rule in layer mnist
I0426 20:51:03.526640 31899 net.cpp:296] The NetState phase (0) differed from the phase (1) specified by a rule in layer accuracy
I0426 20:51:03.526757 31899 net.cpp:53] Initializing net from parameters: 
name: "LeNet"
state {
  phase: TRAIN
  level: 0
  stage: ""
}
layer {
  name: "mnist"
  type: "Data"
  top: "data"
  top: "label"
  include {
    phase: TRAIN
  }
  transform_param {
    scale: 0.00390625
  }
  data_param {
    source: "examples/mnist/mnist_train_lmdb"
    batch_size: 64
    backend: LMDB
  }
}
layer {
  name: "conv0"
  type: "Convolution"
  bottom: "data"
  top: "conv0"
  param {
    lr_mult: 1
  }
  param {
    lr_mult: 2
  }
  convolution_param {
    num_output: 10
    kernel_size: 5
    stride: 1
    weight_filler {
      type: "xavier"
    }
    bias_filler {
      type: "constant"
    }
  }
}
layer {
  name: "pool0"
  type: "Pooling"
  bottom: "conv0"
  top: "pool0"
  pooling_param {
    pool: MAX
    kernel_size: 2
    stride: 2
  }
}
layer {
  name: "conv1"
  type: "Convolution"
  bottom: "pool0"
  top: "conv1"
  param {
    lr_mult: 1
  }
  param {
    lr_mult: 2
  }
  convolution_param {
    num_output: 25
    kernel_size: 5
    stride: 1
    weight_filler {
      type: "xavier"
    }
    bias_filler {
      type: "constant"
    }
  }
}
layer {
  name: "pool1"
  type: "Pooling"
  bottom: "conv1"
  top: "pool1"
  pooling_param {
    pool: MAX
    kernel_size: 2
    stride: 2
  }
}
layer {
  name: "ip1"
  type: "InnerProduct"
  bottom: "pool1"
  top: "ip1"
  param {
    lr_mult: 1
  }
  param {
    lr_mult: 2
  }
  inner_product_param {
    num_output: 100
    weight_filler {
      type: "xavier"
    }
    bias_filler {
      type: "constant"
    }
  }
}
layer {
  name: "relu1"
  type: "ReLU"
  bottom: "ip1"
  top: "ip1"
}
layer {
  name: "ip2"
  type: "InnerProduct"
  bottom: "ip1"
  top: "ip2"
  param {
    lr_mult: 1
  }
  param {
    lr_mult: 2
  }
  inner_product_param {
    num_output: 100
    weight_filler {
      type: "xavier"
    }
    bias_filler {
      type: "constant"
    }
  }
}
layer {
  name: "relu2"
  type: "ReLU"
  bottom: "ip2"
  top: "ip2"
}
layer {
  name: "ip3"
  type: "InnerProduct"
  bottom: "ip2"
  top: "ip3"
  param {
    lr_mult: 1
  }
  param {
    lr_mult: 2
  }
  inner_product_param {
    num_output: 10
    weight_filler {
      type: "xavier"
    }
    bias_filler {
      type: "constant"
    }
  }
}
layer {
  name: "relu3"
  type: "ReLU"
  bottom: "ip3"
  top: "ip3"
}
layer {
  name: "loss"
  type: "SoftmaxWithLoss"
  bottom: "ip3"
  bottom: "label"
  top: "loss"
}
I0426 20:51:03.526823 31899 layer_factory.hpp:77] Creating layer mnist
I0426 20:51:03.526906 31899 db_lmdb.cpp:35] Opened lmdb examples/mnist/mnist_train_lmdb
I0426 20:51:03.526926 31899 net.cpp:86] Creating Layer mnist
I0426 20:51:03.526934 31899 net.cpp:382] mnist -> data
I0426 20:51:03.526953 31899 net.cpp:382] mnist -> label
I0426 20:51:03.527928 31899 data_layer.cpp:45] output data size: 64,1,28,28
I0426 20:51:03.530112 31899 net.cpp:124] Setting up mnist
I0426 20:51:03.530140 31899 net.cpp:131] Top shape: 64 1 28 28 (50176)
I0426 20:51:03.530145 31899 net.cpp:131] Top shape: 64 (64)
I0426 20:51:03.530148 31899 net.cpp:139] Memory required for data: 200960
I0426 20:51:03.530153 31899 layer_factory.hpp:77] Creating layer conv0
I0426 20:51:03.530181 31899 net.cpp:86] Creating Layer conv0
I0426 20:51:03.530200 31899 net.cpp:408] conv0 <- data
I0426 20:51:03.530210 31899 net.cpp:382] conv0 -> conv0
I0426 20:51:03.759838 31899 net.cpp:124] Setting up conv0
I0426 20:51:03.759881 31899 net.cpp:131] Top shape: 64 10 24 24 (368640)
I0426 20:51:03.759884 31899 net.cpp:139] Memory required for data: 1675520
I0426 20:51:03.759899 31899 layer_factory.hpp:77] Creating layer pool0
I0426 20:51:03.759912 31899 net.cpp:86] Creating Layer pool0
I0426 20:51:03.759930 31899 net.cpp:408] pool0 <- conv0
I0426 20:51:03.759937 31899 net.cpp:382] pool0 -> pool0
I0426 20:51:03.759982 31899 net.cpp:124] Setting up pool0
I0426 20:51:03.759990 31899 net.cpp:131] Top shape: 64 10 12 12 (92160)
I0426 20:51:03.759994 31899 net.cpp:139] Memory required for data: 2044160
I0426 20:51:03.759996 31899 layer_factory.hpp:77] Creating layer conv1
I0426 20:51:03.760007 31899 net.cpp:86] Creating Layer conv1
I0426 20:51:03.760010 31899 net.cpp:408] conv1 <- pool0
I0426 20:51:03.760030 31899 net.cpp:382] conv1 -> conv1
I0426 20:51:03.762818 31899 net.cpp:124] Setting up conv1
I0426 20:51:03.762831 31899 net.cpp:131] Top shape: 64 25 8 8 (102400)
I0426 20:51:03.762835 31899 net.cpp:139] Memory required for data: 2453760
I0426 20:51:03.762842 31899 layer_factory.hpp:77] Creating layer pool1
I0426 20:51:03.762850 31899 net.cpp:86] Creating Layer pool1
I0426 20:51:03.762852 31899 net.cpp:408] pool1 <- conv1
I0426 20:51:03.762856 31899 net.cpp:382] pool1 -> pool1
I0426 20:51:03.762905 31899 net.cpp:124] Setting up pool1
I0426 20:51:03.762910 31899 net.cpp:131] Top shape: 64 25 4 4 (25600)
I0426 20:51:03.762913 31899 net.cpp:139] Memory required for data: 2556160
I0426 20:51:03.762915 31899 layer_factory.hpp:77] Creating layer ip1
I0426 20:51:03.762926 31899 net.cpp:86] Creating Layer ip1
I0426 20:51:03.762929 31899 net.cpp:408] ip1 <- pool1
I0426 20:51:03.762933 31899 net.cpp:382] ip1 -> ip1
I0426 20:51:03.763324 31899 net.cpp:124] Setting up ip1
I0426 20:51:03.763331 31899 net.cpp:131] Top shape: 64 100 (6400)
I0426 20:51:03.763334 31899 net.cpp:139] Memory required for data: 2581760
I0426 20:51:03.763356 31899 layer_factory.hpp:77] Creating layer relu1
I0426 20:51:03.763362 31899 net.cpp:86] Creating Layer relu1
I0426 20:51:03.763365 31899 net.cpp:408] relu1 <- ip1
I0426 20:51:03.763370 31899 net.cpp:369] relu1 -> ip1 (in-place)
I0426 20:51:03.763558 31899 net.cpp:124] Setting up relu1
I0426 20:51:03.763567 31899 net.cpp:131] Top shape: 64 100 (6400)
I0426 20:51:03.763571 31899 net.cpp:139] Memory required for data: 2607360
I0426 20:51:03.763573 31899 layer_factory.hpp:77] Creating layer ip2
I0426 20:51:03.763579 31899 net.cpp:86] Creating Layer ip2
I0426 20:51:03.763582 31899 net.cpp:408] ip2 <- ip1
I0426 20:51:03.763586 31899 net.cpp:382] ip2 -> ip2
I0426 20:51:03.763738 31899 net.cpp:124] Setting up ip2
I0426 20:51:03.763746 31899 net.cpp:131] Top shape: 64 100 (6400)
I0426 20:51:03.763748 31899 net.cpp:139] Memory required for data: 2632960
I0426 20:51:03.763753 31899 layer_factory.hpp:77] Creating layer relu2
I0426 20:51:03.763759 31899 net.cpp:86] Creating Layer relu2
I0426 20:51:03.763762 31899 net.cpp:408] relu2 <- ip2
I0426 20:51:03.763767 31899 net.cpp:369] relu2 -> ip2 (in-place)
I0426 20:51:03.764596 31899 net.cpp:124] Setting up relu2
I0426 20:51:03.764607 31899 net.cpp:131] Top shape: 64 100 (6400)
I0426 20:51:03.764626 31899 net.cpp:139] Memory required for data: 2658560
I0426 20:51:03.764629 31899 layer_factory.hpp:77] Creating layer ip3
I0426 20:51:03.764636 31899 net.cpp:86] Creating Layer ip3
I0426 20:51:03.764638 31899 net.cpp:408] ip3 <- ip2
I0426 20:51:03.764643 31899 net.cpp:382] ip3 -> ip3
I0426 20:51:03.764773 31899 net.cpp:124] Setting up ip3
I0426 20:51:03.764780 31899 net.cpp:131] Top shape: 64 10 (640)
I0426 20:51:03.764783 31899 net.cpp:139] Memory required for data: 2661120
I0426 20:51:03.764791 31899 layer_factory.hpp:77] Creating layer relu3
I0426 20:51:03.764796 31899 net.cpp:86] Creating Layer relu3
I0426 20:51:03.764798 31899 net.cpp:408] relu3 <- ip3
I0426 20:51:03.764802 31899 net.cpp:369] relu3 -> ip3 (in-place)
I0426 20:51:03.765005 31899 net.cpp:124] Setting up relu3
I0426 20:51:03.765013 31899 net.cpp:131] Top shape: 64 10 (640)
I0426 20:51:03.765017 31899 net.cpp:139] Memory required for data: 2663680
I0426 20:51:03.765020 31899 layer_factory.hpp:77] Creating layer loss
I0426 20:51:03.765027 31899 net.cpp:86] Creating Layer loss
I0426 20:51:03.765029 31899 net.cpp:408] loss <- ip3
I0426 20:51:03.765033 31899 net.cpp:408] loss <- label
I0426 20:51:03.765038 31899 net.cpp:382] loss -> loss
I0426 20:51:03.765055 31899 layer_factory.hpp:77] Creating layer loss
…
I0426 20:51:03.765765 31899 solver.cpp:173] Creating test net (#0) specified by net file: ECE595/mnist/train_test/var_everything/lenet_train_test77.prototxt
I0426 20:51:03.765791 31899 net.cpp:296] The NetState phase (1) differed from the phase (0) specified by a rule in layer mnist
I0426 20:51:03.765883 31899 net.cpp:53] Initializing net from parameters: 
name: "LeNet"
state {
  phase: TEST
}
layer {
  name: "mnist"
  type: "Data"
  top: "data"
  top: "label"
  include {
    phase: TEST
  }
  transform_param {
    scale: 0.00390625
  }
  data_param {
    source: "examples/mnist/mnist_test_lmdb"
    batch_size: 100
    backend: LMDB
  }
}
layer {
  name: "conv0"
  type: "Convolution"
  bottom: "data"
  top: "conv0"
  param {
    lr_mult: 1
  }
  param {
    lr_mult: 2
  }
  convolution_param {
    num_output: 10
    kernel_size: 5
    stride: 1
    weight_filler {
      type: "xavier"
    }
    bias_filler {
      type: "constant"
    }
  }
}
layer {
  name: "pool0"
  type: "Pooling"
  bottom: "conv0"
  top: "pool0"
  pooling_param {
    pool: MAX
    kernel_size: 2
    stride: 2
  }
}
layer {
  name: "conv1"
  type: "Convolution"
  bottom: "pool0"
  top: "conv1"
  param {
    lr_mult: 1
  }
  param {
    lr_mult: 2
  }
  convolution_param {
    num_output: 25
    kernel_size: 5
    stride: 1
    weight_filler {
      type: "xavier"
    }
    bias_filler {
      type: "constant"
    }
  }
}
layer {
  name: "pool1"
  type: "Pooling"
  bottom: "conv1"
  top: "pool1"
  pooling_param {
    pool: MAX
    kernel_size: 2
    stride: 2
  }
}
layer {
  name: "ip1"
  type: "InnerProduct"
  bottom: "pool1"
  top: "ip1"
  param {
    lr_mult: 1
  }
  param {
    lr_mult: 2
  }
  inner_product_param {
    num_output: 100
    weight_filler {
      type: "xavier"
    }
    bias_filler {
      type: "constant"
    }
  }
}
layer {
  name: "relu1"
  type: "ReLU"
  bottom: "ip1"
  top: "ip1"
}
layer {
  name: "ip2"
  type: "InnerProduct"
  bottom: "ip1"
  top: "ip2"
  param {
    lr_mult: 1
  }
  param {
    lr_mult: 2
  }
  inner_product_param {
    num_output: 100
    weight_filler {
      type: "xavier"
    }
    bias_filler {
      type: "constant"
    }
  }
}
layer {
  name: "relu2"
  type: "ReLU"
  bottom: "ip2"
  top: "ip2"
}
layer {
  name: "ip3"
  type: "InnerProduct"
  bottom: "ip2"
  top: "ip3"
  param {
    lr_mult: 1
  }
  param {
    lr_mult: 2
  }
  inner_product_param {
    num_output: 10
    weight_filler {
      type: "xavier"
    }
    bias_filler {
      type: "constant"
    }
  }
}
layer {
  name: "relu3"
  type: "ReLU"
  bottom: "ip3"
  top: "ip3"
}
layer {
  name: "accuracy"
  type: "Accuracy"
  bottom: "ip3"
  bottom: "label"
  top: "accuracy"
  include {
    phase: TEST
  }
}
layer {
  name: "loss"
  type: "SoftmaxWithLoss"
  bottom: "ip3"
  bottom: "label"
  top: "loss"
}
I0426 20:51:03.765960 31899 layer_factory.hpp:77] Creating layer mnist
I0426 20:51:03.766002 31899 db_lmdb.cpp:35] Opened lmdb examples/mnist/mnist_test_lmdb
I0426 20:51:03.766014 31899 net.cpp:86] Creating Layer mnist
I0426 20:51:03.766018 31899 net.cpp:382] mnist -> data
I0426 20:51:03.766026 31899 net.cpp:382] mnist -> label
I0426 20:51:03.766108 31899 data_layer.cpp:45] output data size: 100,1,28,28
I0426 20:51:03.768265 31899 net.cpp:124] Setting up mnist
I0426 20:51:03.768291 31899 net.cpp:131] Top shape: 100 1 28 28 (78400)
I0426 20:51:03.768296 31899 net.cpp:131] Top shape: 100 (100)
I0426 20:51:03.768301 31899 net.cpp:139] Memory required for data: 314000
I0426 20:51:03.768303 31899 layer_factory.hpp:77] Creating layer label_mnist_1_split
I0426 20:51:03.768353 31899 net.cpp:86] Creating Layer label_mnist_1_split
I0426 20:51:03.768357 31899 net.cpp:408] label_mnist_1_split <- label
I0426 20:51:03.768362 31899 net.cpp:382] label_mnist_1_split -> label_mnist_1_split_0
I0426 20:51:03.768368 31899 net.cpp:382] label_mnist_1_split -> label_mnist_1_split_1
I0426 20:51:03.768429 31899 net.cpp:124] Setting up label_mnist_1_split
I0426 20:51:03.768445 31899 net.cpp:131] Top shape: 100 (100)
I0426 20:51:03.768447 31899 net.cpp:131] Top shape: 100 (100)
I0426 20:51:03.768450 31899 net.cpp:139] Memory required for data: 314800
I0426 20:51:03.768453 31899 layer_factory.hpp:77] Creating layer conv0
I0426 20:51:03.768461 31899 net.cpp:86] Creating Layer conv0
I0426 20:51:03.768465 31899 net.cpp:408] conv0 <- data
I0426 20:51:03.768468 31899 net.cpp:382] conv0 -> conv0
I0426 20:51:03.770221 31899 net.cpp:124] Setting up conv0
I0426 20:51:03.770234 31899 net.cpp:131] Top shape: 100 10 24 24 (576000)
I0426 20:51:03.770238 31899 net.cpp:139] Memory required for data: 2618800
I0426 20:51:03.770246 31899 layer_factory.hpp:77] Creating layer pool0
I0426 20:51:03.770269 31899 net.cpp:86] Creating Layer pool0
I0426 20:51:03.770272 31899 net.cpp:408] pool0 <- conv0
I0426 20:51:03.770277 31899 net.cpp:382] pool0 -> pool0
I0426 20:51:03.770313 31899 net.cpp:124] Setting up pool0
I0426 20:51:03.770318 31899 net.cpp:131] Top shape: 100 10 12 12 (144000)
I0426 20:51:03.770321 31899 net.cpp:139] Memory required for data: 3194800
I0426 20:51:03.770324 31899 layer_factory.hpp:77] Creating layer conv1
I0426 20:51:03.770334 31899 net.cpp:86] Creating Layer conv1
I0426 20:51:03.770336 31899 net.cpp:408] conv1 <- pool0
I0426 20:51:03.770357 31899 net.cpp:382] conv1 -> conv1
I0426 20:51:03.772629 31899 net.cpp:124] Setting up conv1
I0426 20:51:03.772642 31899 net.cpp:131] Top shape: 100 25 8 8 (160000)
I0426 20:51:03.772645 31899 net.cpp:139] Memory required for data: 3834800
I0426 20:51:03.772670 31899 layer_factory.hpp:77] Creating layer pool1
I0426 20:51:03.772676 31899 net.cpp:86] Creating Layer pool1
I0426 20:51:03.772680 31899 net.cpp:408] pool1 <- conv1
I0426 20:51:03.772686 31899 net.cpp:382] pool1 -> pool1
I0426 20:51:03.772742 31899 net.cpp:124] Setting up pool1
I0426 20:51:03.772765 31899 net.cpp:131] Top shape: 100 25 4 4 (40000)
I0426 20:51:03.772768 31899 net.cpp:139] Memory required for data: 3994800
I0426 20:51:03.772771 31899 layer_factory.hpp:77] Creating layer ip1
I0426 20:51:03.772778 31899 net.cpp:86] Creating Layer ip1
I0426 20:51:03.772780 31899 net.cpp:408] ip1 <- pool1
I0426 20:51:03.772786 31899 net.cpp:382] ip1 -> ip1
I0426 20:51:03.773273 31899 net.cpp:124] Setting up ip1
I0426 20:51:03.773283 31899 net.cpp:131] Top shape: 100 100 (10000)
I0426 20:51:03.773309 31899 net.cpp:139] Memory required for data: 4034800
I0426 20:51:03.773317 31899 layer_factory.hpp:77] Creating layer relu1
I0426 20:51:03.773324 31899 net.cpp:86] Creating Layer relu1
I0426 20:51:03.773327 31899 net.cpp:408] relu1 <- ip1
I0426 20:51:03.773331 31899 net.cpp:369] relu1 -> ip1 (in-place)
I0426 20:51:03.773499 31899 net.cpp:124] Setting up relu1
I0426 20:51:03.773507 31899 net.cpp:131] Top shape: 100 100 (10000)
I0426 20:51:03.773511 31899 net.cpp:139] Memory required for data: 4074800
I0426 20:51:03.773514 31899 layer_factory.hpp:77] Creating layer ip2
I0426 20:51:03.773522 31899 net.cpp:86] Creating Layer ip2
I0426 20:51:03.773525 31899 net.cpp:408] ip2 <- ip1
I0426 20:51:03.773530 31899 net.cpp:382] ip2 -> ip2
I0426 20:51:03.773681 31899 net.cpp:124] Setting up ip2
I0426 20:51:03.773689 31899 net.cpp:131] Top shape: 100 100 (10000)
I0426 20:51:03.773691 31899 net.cpp:139] Memory required for data: 4114800
I0426 20:51:03.773697 31899 layer_factory.hpp:77] Creating layer relu2
I0426 20:51:03.773702 31899 net.cpp:86] Creating Layer relu2
I0426 20:51:03.773706 31899 net.cpp:408] relu2 <- ip2
I0426 20:51:03.773710 31899 net.cpp:369] relu2 -> ip2 (in-place)
I0426 20:51:03.773885 31899 net.cpp:124] Setting up relu2
I0426 20:51:03.773893 31899 net.cpp:131] Top shape: 100 100 (10000)
I0426 20:51:03.773896 31899 net.cpp:139] Memory required for data: 4154800
I0426 20:51:03.773900 31899 layer_factory.hpp:77] Creating layer ip3
I0426 20:51:03.773906 31899 net.cpp:86] Creating Layer ip3
I0426 20:51:03.773910 31899 net.cpp:408] ip3 <- ip2
I0426 20:51:03.773914 31899 net.cpp:382] ip3 -> ip3
I0426 20:51:03.774054 31899 net.cpp:124] Setting up ip3
I0426 20:51:03.774060 31899 net.cpp:131] Top shape: 100 10 (1000)
I0426 20:51:03.774063 31899 net.cpp:139] Memory required for data: 4158800
I0426 20:51:03.774070 31899 layer_factory.hpp:77] Creating layer relu3
I0426 20:51:03.774075 31899 net.cpp:86] Creating Layer relu3
I0426 20:51:03.774078 31899 net.cpp:408] relu3 <- ip3
I0426 20:51:03.774082 31899 net.cpp:369] relu3 -> ip3 (in-place)
I0426 20:51:03.774956 31899 net.cpp:124] Setting up relu3
I0426 20:51:03.774968 31899 net.cpp:131] Top shape: 100 10 (1000)
I0426 20:51:03.774971 31899 net.cpp:139] Memory required for data: 4162800
I0426 20:51:03.774974 31899 layer_factory.hpp:77] Creating layer ip3_relu3_0_split
I0426 20:51:03.774994 31899 net.cpp:86] Creating Layer ip3_relu3_0_split
I0426 20:51:03.774998 31899 net.cpp:408] ip3_relu3_0_split <- ip3
I0426 20:51:03.775004 31899 net.cpp:382] ip3_relu3_0_split -> ip3_relu3_0_split_0
I0426 20:51:03.775012 31899 net.cpp:382] ip3_relu3_0_split -> ip3_relu3_0_split_1
I0426 20:51:03.775065 31899 net.cpp:124] Setting up ip3_relu3_0_split
I0426 20:51:03.775073 31899 net.cpp:131] Top shape: 100 10 (1000)
I0426 20:51:03.775077 31899 net.cpp:131] Top shape: 100 10 (1000)
I0426 20:51:03.775080 31899 net.cpp:139] Memory required for data: 4170800
I0426 20:51:03.775089 31899 layer_factory.hpp:77] Creating layer accuracy
I0426 20:51:03.775094 31899 net.cpp:86] Creating Layer accuracy
I0426 20:51:03.775096 31899 net.cpp:408] accuracy <- ip3_relu3_0_split_0
I0426 20:51:03.775101 31899 net.cpp:408] accuracy <- label_mnist_1_split_0
I0426 20:51:03.775105 31899 net.cpp:382] accuracy -> accuracy
…
