…
I0426 20:50:04.566239 31679 net.cpp:296] The NetState phase (0) differed from the phase (1) specified by a rule in layer mnist
I0426 20:50:04.566257 31679 net.cpp:296] The NetState phase (0) differed from the phase (1) specified by a rule in layer accuracy
I0426 20:50:04.566344 31679 net.cpp:53] Initializing net from parameters: 
name: "LeNet"
state {
  phase: TRAIN
  level: 0
  stage: ""
}
layer {
  name: "mnist"
  type: "Data"
  top: "data"
  top: "label"
  include {
    phase: TRAIN
  }
  transform_param {
    scale: 0.00390625
  }
  data_param {
    source: "examples/mnist/mnist_train_lmdb"
    batch_size: 64
    backend: LMDB
  }
}
layer {
  name: "conv0"
  type: "Convolution"
  bottom: "data"
  top: "conv0"
  param {
    lr_mult: 1
  }
  param {
    lr_mult: 2
  }
  convolution_param {
    num_output: 50
    kernel_size: 5
    stride: 1
    weight_filler {
      type: "xavier"
    }
    bias_filler {
      type: "constant"
    }
  }
}
layer {
  name: "pool0"
  type: "Pooling"
  bottom: "conv0"
  top: "pool0"
  pooling_param {
    pool: MAX
    kernel_size: 2
    stride: 2
  }
}
layer {
  name: "ip1"
  type: "InnerProduct"
  bottom: "pool0"
  top: "ip1"
  param {
    lr_mult: 1
  }
  param {
    lr_mult: 2
  }
  inner_product_param {
    num_output: 100
    weight_filler {
      type: "xavier"
    }
    bias_filler {
      type: "constant"
    }
  }
}
layer {
  name: "relu1"
  type: "ReLU"
  bottom: "ip1"
  top: "ip1"
}
layer {
  name: "ip2"
  type: "InnerProduct"
  bottom: "ip1"
  top: "ip2"
  param {
    lr_mult: 1
  }
  param {
    lr_mult: 2
  }
  inner_product_param {
    num_output: 300
    weight_filler {
      type: "xavier"
    }
    bias_filler {
      type: "constant"
    }
  }
}
layer {
  name: "relu2"
  type: "ReLU"
  bottom: "ip2"
  top: "ip2"
}
layer {
  name: "ip3"
  type: "InnerProduct"
  bottom: "ip2"
  top: "ip3"
  param {
    lr_mult: 1
  }
  param {
    lr_mult: 2
  }
  inner_product_param {
    num_output: 10
    weight_filler {
      type: "xavier"
    }
    bias_filler {
      type: "constant"
    }
  }
}
layer {
  name: "relu3"
  type: "ReLU"
  bottom: "ip3"
  top: "ip3"
}
layer {
  name: "loss"
  type: "SoftmaxWithLoss"
  bottom: "ip3"
  bottom: "label"
  top: "loss"
}
I0426 20:50:04.566422 31679 layer_factory.hpp:77] Creating layer mnist
I0426 20:50:04.566524 31679 db_lmdb.cpp:35] Opened lmdb examples/mnist/mnist_train_lmdb
I0426 20:50:04.566547 31679 net.cpp:86] Creating Layer mnist
I0426 20:50:04.566555 31679 net.cpp:382] mnist -> data
I0426 20:50:04.566577 31679 net.cpp:382] mnist -> label
I0426 20:50:04.567668 31679 data_layer.cpp:45] output data size: 64,1,28,28
I0426 20:50:04.570225 31679 net.cpp:124] Setting up mnist
I0426 20:50:04.570243 31679 net.cpp:131] Top shape: 64 1 28 28 (50176)
I0426 20:50:04.570250 31679 net.cpp:131] Top shape: 64 (64)
I0426 20:50:04.570252 31679 net.cpp:139] Memory required for data: 200960
I0426 20:50:04.570260 31679 layer_factory.hpp:77] Creating layer conv0
I0426 20:50:04.570302 31679 net.cpp:86] Creating Layer conv0
I0426 20:50:04.570307 31679 net.cpp:408] conv0 <- data
I0426 20:50:04.570318 31679 net.cpp:382] conv0 -> conv0
I0426 20:50:04.814251 31679 net.cpp:124] Setting up conv0
I0426 20:50:04.814280 31679 net.cpp:131] Top shape: 64 50 24 24 (1843200)
I0426 20:50:04.814283 31679 net.cpp:139] Memory required for data: 7573760
I0426 20:50:04.814298 31679 layer_factory.hpp:77] Creating layer pool0
I0426 20:50:04.814311 31679 net.cpp:86] Creating Layer pool0
I0426 20:50:04.814333 31679 net.cpp:408] pool0 <- conv0
I0426 20:50:04.814354 31679 net.cpp:382] pool0 -> pool0
I0426 20:50:04.814405 31679 net.cpp:124] Setting up pool0
I0426 20:50:04.814412 31679 net.cpp:131] Top shape: 64 50 12 12 (460800)
I0426 20:50:04.814415 31679 net.cpp:139] Memory required for data: 9416960
I0426 20:50:04.814419 31679 layer_factory.hpp:77] Creating layer ip1
I0426 20:50:04.814425 31679 net.cpp:86] Creating Layer ip1
I0426 20:50:04.814429 31679 net.cpp:408] ip1 <- pool0
I0426 20:50:04.814434 31679 net.cpp:382] ip1 -> ip1
I0426 20:50:04.819344 31679 net.cpp:124] Setting up ip1
I0426 20:50:04.819356 31679 net.cpp:131] Top shape: 64 100 (6400)
I0426 20:50:04.819375 31679 net.cpp:139] Memory required for data: 9442560
I0426 20:50:04.819383 31679 layer_factory.hpp:77] Creating layer relu1
I0426 20:50:04.819389 31679 net.cpp:86] Creating Layer relu1
I0426 20:50:04.819392 31679 net.cpp:408] relu1 <- ip1
I0426 20:50:04.819397 31679 net.cpp:369] relu1 -> ip1 (in-place)
I0426 20:50:04.819591 31679 net.cpp:124] Setting up relu1
I0426 20:50:04.819599 31679 net.cpp:131] Top shape: 64 100 (6400)
I0426 20:50:04.819602 31679 net.cpp:139] Memory required for data: 9468160
I0426 20:50:04.819605 31679 layer_factory.hpp:77] Creating layer ip2
I0426 20:50:04.819612 31679 net.cpp:86] Creating Layer ip2
I0426 20:50:04.819614 31679 net.cpp:408] ip2 <- ip1
I0426 20:50:04.819620 31679 net.cpp:382] ip2 -> ip2
I0426 20:50:04.819872 31679 net.cpp:124] Setting up ip2
I0426 20:50:04.819880 31679 net.cpp:131] Top shape: 64 300 (19200)
I0426 20:50:04.819883 31679 net.cpp:139] Memory required for data: 9544960
I0426 20:50:04.819890 31679 layer_factory.hpp:77] Creating layer relu2
I0426 20:50:04.819896 31679 net.cpp:86] Creating Layer relu2
I0426 20:50:04.819900 31679 net.cpp:408] relu2 <- ip2
I0426 20:50:04.819905 31679 net.cpp:369] relu2 -> ip2 (in-place)
I0426 20:50:04.820744 31679 net.cpp:124] Setting up relu2
I0426 20:50:04.820756 31679 net.cpp:131] Top shape: 64 300 (19200)
I0426 20:50:04.820775 31679 net.cpp:139] Memory required for data: 9621760
I0426 20:50:04.820778 31679 layer_factory.hpp:77] Creating layer ip3
I0426 20:50:04.820785 31679 net.cpp:86] Creating Layer ip3
I0426 20:50:04.820787 31679 net.cpp:408] ip3 <- ip2
I0426 20:50:04.820793 31679 net.cpp:382] ip3 -> ip3
I0426 20:50:04.820969 31679 net.cpp:124] Setting up ip3
I0426 20:50:04.820978 31679 net.cpp:131] Top shape: 64 10 (640)
I0426 20:50:04.820981 31679 net.cpp:139] Memory required for data: 9624320
I0426 20:50:04.821002 31679 layer_factory.hpp:77] Creating layer relu3
I0426 20:50:04.821009 31679 net.cpp:86] Creating Layer relu3
I0426 20:50:04.821012 31679 net.cpp:408] relu3 <- ip3
I0426 20:50:04.821017 31679 net.cpp:369] relu3 -> ip3 (in-place)
I0426 20:50:04.821187 31679 net.cpp:124] Setting up relu3
I0426 20:50:04.821194 31679 net.cpp:131] Top shape: 64 10 (640)
I0426 20:50:04.821197 31679 net.cpp:139] Memory required for data: 9626880
I0426 20:50:04.821199 31679 layer_factory.hpp:77] Creating layer loss
I0426 20:50:04.821207 31679 net.cpp:86] Creating Layer loss
I0426 20:50:04.821209 31679 net.cpp:408] loss <- ip3
I0426 20:50:04.821213 31679 net.cpp:408] loss <- label
I0426 20:50:04.821218 31679 net.cpp:382] loss -> loss
I0426 20:50:04.821250 31679 layer_factory.hpp:77] Creating layer loss
…
I0426 20:50:04.821866 31679 solver.cpp:173] Creating test net (#0) specified by net file: ECE595/mnist/train_test/var_everything/lenet_train_test51.prototxt
I0426 20:50:04.821892 31679 net.cpp:296] The NetState phase (1) differed from the phase (0) specified by a rule in layer mnist
I0426 20:50:04.821969 31679 net.cpp:53] Initializing net from parameters: 
name: "LeNet"
state {
  phase: TEST
}
layer {
  name: "mnist"
  type: "Data"
  top: "data"
  top: "label"
  include {
    phase: TEST
  }
  transform_param {
    scale: 0.00390625
  }
  data_param {
    source: "examples/mnist/mnist_test_lmdb"
    batch_size: 100
    backend: LMDB
  }
}
layer {
  name: "conv0"
  type: "Convolution"
  bottom: "data"
  top: "conv0"
  param {
    lr_mult: 1
  }
  param {
    lr_mult: 2
  }
  convolution_param {
    num_output: 50
    kernel_size: 5
    stride: 1
    weight_filler {
      type: "xavier"
    }
    bias_filler {
      type: "constant"
    }
  }
}
layer {
  name: "pool0"
  type: "Pooling"
  bottom: "conv0"
  top: "pool0"
  pooling_param {
    pool: MAX
    kernel_size: 2
    stride: 2
  }
}
layer {
  name: "ip1"
  type: "InnerProduct"
  bottom: "pool0"
  top: "ip1"
  param {
    lr_mult: 1
  }
  param {
    lr_mult: 2
  }
  inner_product_param {
    num_output: 100
    weight_filler {
      type: "xavier"
    }
    bias_filler {
      type: "constant"
    }
  }
}
layer {
  name: "relu1"
  type: "ReLU"
  bottom: "ip1"
  top: "ip1"
}
layer {
  name: "ip2"
  type: "InnerProduct"
  bottom: "ip1"
  top: "ip2"
  param {
    lr_mult: 1
  }
  param {
    lr_mult: 2
  }
  inner_product_param {
    num_output: 300
    weight_filler {
      type: "xavier"
    }
    bias_filler {
      type: "constant"
    }
  }
}
layer {
  name: "relu2"
  type: "ReLU"
  bottom: "ip2"
  top: "ip2"
}
layer {
  name: "ip3"
  type: "InnerProduct"
  bottom: "ip2"
  top: "ip3"
  param {
    lr_mult: 1
  }
  param {
    lr_mult: 2
  }
  inner_product_param {
    num_output: 10
    weight_filler {
      type: "xavier"
    }
    bias_filler {
      type: "constant"
    }
  }
}
layer {
  name: "relu3"
  type: "ReLU"
  bottom: "ip3"
  top: "ip3"
}
layer {
  name: "accuracy"
  type: "Accuracy"
  bottom: "ip3"
  bottom: "label"
  top: "accuracy"
  include {
    phase: TEST
  }
}
layer {
  name: "loss"
  type: "SoftmaxWithLoss"
  bottom: "ip3"
  bottom: "label"
  top: "loss"
}
I0426 20:50:04.822029 31679 layer_factory.hpp:77] Creating layer mnist
I0426 20:50:04.822074 31679 db_lmdb.cpp:35] Opened lmdb examples/mnist/mnist_test_lmdb
I0426 20:50:04.822087 31679 net.cpp:86] Creating Layer mnist
I0426 20:50:04.822090 31679 net.cpp:382] mnist -> data
I0426 20:50:04.822098 31679 net.cpp:382] mnist -> label
I0426 20:50:04.822175 31679 data_layer.cpp:45] output data size: 100,1,28,28
I0426 20:50:04.824291 31679 net.cpp:124] Setting up mnist
I0426 20:50:04.824303 31679 net.cpp:131] Top shape: 100 1 28 28 (78400)
I0426 20:50:04.824308 31679 net.cpp:131] Top shape: 100 (100)
I0426 20:50:04.824311 31679 net.cpp:139] Memory required for data: 314000
I0426 20:50:04.824314 31679 layer_factory.hpp:77] Creating layer label_mnist_1_split
I0426 20:50:04.824323 31679 net.cpp:86] Creating Layer label_mnist_1_split
I0426 20:50:04.824326 31679 net.cpp:408] label_mnist_1_split <- label
I0426 20:50:04.824331 31679 net.cpp:382] label_mnist_1_split -> label_mnist_1_split_0
I0426 20:50:04.824337 31679 net.cpp:382] label_mnist_1_split -> label_mnist_1_split_1
I0426 20:50:04.824385 31679 net.cpp:124] Setting up label_mnist_1_split
I0426 20:50:04.824390 31679 net.cpp:131] Top shape: 100 (100)
I0426 20:50:04.824393 31679 net.cpp:131] Top shape: 100 (100)
I0426 20:50:04.824396 31679 net.cpp:139] Memory required for data: 314800
I0426 20:50:04.824407 31679 layer_factory.hpp:77] Creating layer conv0
I0426 20:50:04.824415 31679 net.cpp:86] Creating Layer conv0
I0426 20:50:04.824419 31679 net.cpp:408] conv0 <- data
I0426 20:50:04.824424 31679 net.cpp:382] conv0 -> conv0
I0426 20:50:04.826210 31679 net.cpp:124] Setting up conv0
I0426 20:50:04.826225 31679 net.cpp:131] Top shape: 100 50 24 24 (2880000)
I0426 20:50:04.826227 31679 net.cpp:139] Memory required for data: 11834800
I0426 20:50:04.826236 31679 layer_factory.hpp:77] Creating layer pool0
I0426 20:50:04.826241 31679 net.cpp:86] Creating Layer pool0
I0426 20:50:04.826261 31679 net.cpp:408] pool0 <- conv0
I0426 20:50:04.826266 31679 net.cpp:382] pool0 -> pool0
I0426 20:50:04.826298 31679 net.cpp:124] Setting up pool0
I0426 20:50:04.826303 31679 net.cpp:131] Top shape: 100 50 12 12 (720000)
I0426 20:50:04.826305 31679 net.cpp:139] Memory required for data: 14714800
I0426 20:50:04.826308 31679 layer_factory.hpp:77] Creating layer ip1
I0426 20:50:04.826314 31679 net.cpp:86] Creating Layer ip1
I0426 20:50:04.826318 31679 net.cpp:408] ip1 <- pool0
I0426 20:50:04.826323 31679 net.cpp:382] ip1 -> ip1
I0426 20:50:04.831208 31679 net.cpp:124] Setting up ip1
I0426 20:50:04.831221 31679 net.cpp:131] Top shape: 100 100 (10000)
I0426 20:50:04.831224 31679 net.cpp:139] Memory required for data: 14754800
I0426 20:50:04.831248 31679 layer_factory.hpp:77] Creating layer relu1
I0426 20:50:04.831254 31679 net.cpp:86] Creating Layer relu1
I0426 20:50:04.831257 31679 net.cpp:408] relu1 <- ip1
I0426 20:50:04.831277 31679 net.cpp:369] relu1 -> ip1 (in-place)
I0426 20:50:04.831442 31679 net.cpp:124] Setting up relu1
I0426 20:50:04.831452 31679 net.cpp:131] Top shape: 100 100 (10000)
I0426 20:50:04.831455 31679 net.cpp:139] Memory required for data: 14794800
I0426 20:50:04.831465 31679 layer_factory.hpp:77] Creating layer ip2
I0426 20:50:04.831471 31679 net.cpp:86] Creating Layer ip2
I0426 20:50:04.831475 31679 net.cpp:408] ip2 <- ip1
I0426 20:50:04.831480 31679 net.cpp:382] ip2 -> ip2
I0426 20:50:04.831758 31679 net.cpp:124] Setting up ip2
I0426 20:50:04.831765 31679 net.cpp:131] Top shape: 100 300 (30000)
I0426 20:50:04.831768 31679 net.cpp:139] Memory required for data: 14914800
I0426 20:50:04.831774 31679 layer_factory.hpp:77] Creating layer relu2
I0426 20:50:04.831779 31679 net.cpp:86] Creating Layer relu2
I0426 20:50:04.831782 31679 net.cpp:408] relu2 <- ip2
I0426 20:50:04.831785 31679 net.cpp:369] relu2 -> ip2 (in-place)
I0426 20:50:04.832640 31679 net.cpp:124] Setting up relu2
I0426 20:50:04.832667 31679 net.cpp:131] Top shape: 100 300 (30000)
I0426 20:50:04.832670 31679 net.cpp:139] Memory required for data: 15034800
I0426 20:50:04.832674 31679 layer_factory.hpp:77] Creating layer ip3
I0426 20:50:04.832701 31679 net.cpp:86] Creating Layer ip3
I0426 20:50:04.832705 31679 net.cpp:408] ip3 <- ip2
I0426 20:50:04.832710 31679 net.cpp:382] ip3 -> ip3
I0426 20:50:04.832847 31679 net.cpp:124] Setting up ip3
I0426 20:50:04.832855 31679 net.cpp:131] Top shape: 100 10 (1000)
I0426 20:50:04.832859 31679 net.cpp:139] Memory required for data: 15038800
I0426 20:50:04.832864 31679 layer_factory.hpp:77] Creating layer relu3
I0426 20:50:04.832870 31679 net.cpp:86] Creating Layer relu3
I0426 20:50:04.832872 31679 net.cpp:408] relu3 <- ip3
I0426 20:50:04.832892 31679 net.cpp:369] relu3 -> ip3 (in-place)
I0426 20:50:04.833045 31679 net.cpp:124] Setting up relu3
I0426 20:50:04.833053 31679 net.cpp:131] Top shape: 100 10 (1000)
I0426 20:50:04.833056 31679 net.cpp:139] Memory required for data: 15042800
I0426 20:50:04.833060 31679 layer_factory.hpp:77] Creating layer ip3_relu3_0_split
I0426 20:50:04.833065 31679 net.cpp:86] Creating Layer ip3_relu3_0_split
I0426 20:50:04.833067 31679 net.cpp:408] ip3_relu3_0_split <- ip3
I0426 20:50:04.833071 31679 net.cpp:382] ip3_relu3_0_split -> ip3_relu3_0_split_0
I0426 20:50:04.833077 31679 net.cpp:382] ip3_relu3_0_split -> ip3_relu3_0_split_1
I0426 20:50:04.833112 31679 net.cpp:124] Setting up ip3_relu3_0_split
I0426 20:50:04.833117 31679 net.cpp:131] Top shape: 100 10 (1000)
I0426 20:50:04.833132 31679 net.cpp:131] Top shape: 100 10 (1000)
I0426 20:50:04.833134 31679 net.cpp:139] Memory required for data: 15050800
I0426 20:50:04.833153 31679 layer_factory.hpp:77] Creating layer accuracy
I0426 20:50:04.833158 31679 net.cpp:86] Creating Layer accuracy
I0426 20:50:04.833174 31679 net.cpp:408] accuracy <- ip3_relu3_0_split_0
I0426 20:50:04.833179 31679 net.cpp:408] accuracy <- label_mnist_1_split_0
I0426 20:50:04.833184 31679 net.cpp:382] accuracy -> accuracy
…
