…
I0426 20:49:46.454615 31620 net.cpp:296] The NetState phase (0) differed from the phase (1) specified by a rule in layer mnist
I0426 20:49:46.454628 31620 net.cpp:296] The NetState phase (0) differed from the phase (1) specified by a rule in layer accuracy
I0426 20:49:46.454691 31620 net.cpp:53] Initializing net from parameters: 
name: "LeNet"
state {
  phase: TRAIN
  level: 0
  stage: ""
}
layer {
  name: "mnist"
  type: "Data"
  top: "data"
  top: "label"
  include {
    phase: TRAIN
  }
  transform_param {
    scale: 0.00390625
  }
  data_param {
    source: "examples/mnist/mnist_train_lmdb"
    batch_size: 64
    backend: LMDB
  }
}
layer {
  name: "conv0"
  type: "Convolution"
  bottom: "data"
  top: "conv0"
  param {
    lr_mult: 1
  }
  param {
    lr_mult: 2
  }
  convolution_param {
    num_output: 50
    kernel_size: 5
    stride: 1
    weight_filler {
      type: "xavier"
    }
    bias_filler {
      type: "constant"
    }
  }
}
layer {
  name: "pool0"
  type: "Pooling"
  bottom: "conv0"
  top: "pool0"
  pooling_param {
    pool: MAX
    kernel_size: 2
    stride: 2
  }
}
layer {
  name: "ip1"
  type: "InnerProduct"
  bottom: "pool0"
  top: "ip1"
  param {
    lr_mult: 1
  }
  param {
    lr_mult: 2
  }
  inner_product_param {
    num_output: 100
    weight_filler {
      type: "xavier"
    }
    bias_filler {
      type: "constant"
    }
  }
}
layer {
  name: "relu1"
  type: "ReLU"
  bottom: "ip1"
  top: "ip1"
}
layer {
  name: "ip2"
  type: "InnerProduct"
  bottom: "ip1"
  top: "ip2"
  param {
    lr_mult: 1
  }
  param {
    lr_mult: 2
  }
  inner_product_param {
    num_output: 10
    weight_filler {
      type: "xavier"
    }
    bias_filler {
      type: "constant"
    }
  }
}
layer {
  name: "relu2"
  type: "ReLU"
  bottom: "ip2"
  top: "ip2"
}
layer {
  name: "loss"
  type: "SoftmaxWithLoss"
  bottom: "ip2"
  bottom: "label"
  top: "loss"
}
I0426 20:49:46.454748 31620 layer_factory.hpp:77] Creating layer mnist
I0426 20:49:46.454846 31620 db_lmdb.cpp:35] Opened lmdb examples/mnist/mnist_train_lmdb
I0426 20:49:46.454866 31620 net.cpp:86] Creating Layer mnist
I0426 20:49:46.454874 31620 net.cpp:382] mnist -> data
I0426 20:49:46.454893 31620 net.cpp:382] mnist -> label
I0426 20:49:46.455879 31620 data_layer.cpp:45] output data size: 64,1,28,28
I0426 20:49:46.458101 31620 net.cpp:124] Setting up mnist
I0426 20:49:46.458130 31620 net.cpp:131] Top shape: 64 1 28 28 (50176)
I0426 20:49:46.458135 31620 net.cpp:131] Top shape: 64 (64)
I0426 20:49:46.458137 31620 net.cpp:139] Memory required for data: 200960
I0426 20:49:46.458143 31620 layer_factory.hpp:77] Creating layer conv0
I0426 20:49:46.458156 31620 net.cpp:86] Creating Layer conv0
I0426 20:49:46.458161 31620 net.cpp:408] conv0 <- data
I0426 20:49:46.458187 31620 net.cpp:382] conv0 -> conv0
I0426 20:49:46.687364 31620 net.cpp:124] Setting up conv0
I0426 20:49:46.687407 31620 net.cpp:131] Top shape: 64 50 24 24 (1843200)
I0426 20:49:46.687410 31620 net.cpp:139] Memory required for data: 7573760
I0426 20:49:46.687425 31620 layer_factory.hpp:77] Creating layer pool0
I0426 20:49:46.687439 31620 net.cpp:86] Creating Layer pool0
I0426 20:49:46.687443 31620 net.cpp:408] pool0 <- conv0
I0426 20:49:46.687463 31620 net.cpp:382] pool0 -> pool0
I0426 20:49:46.687530 31620 net.cpp:124] Setting up pool0
I0426 20:49:46.687552 31620 net.cpp:131] Top shape: 64 50 12 12 (460800)
I0426 20:49:46.687556 31620 net.cpp:139] Memory required for data: 9416960
I0426 20:49:46.687574 31620 layer_factory.hpp:77] Creating layer ip1
I0426 20:49:46.687583 31620 net.cpp:86] Creating Layer ip1
I0426 20:49:46.687587 31620 net.cpp:408] ip1 <- pool0
I0426 20:49:46.687592 31620 net.cpp:382] ip1 -> ip1
I0426 20:49:46.692545 31620 net.cpp:124] Setting up ip1
I0426 20:49:46.692559 31620 net.cpp:131] Top shape: 64 100 (6400)
I0426 20:49:46.692561 31620 net.cpp:139] Memory required for data: 9442560
I0426 20:49:46.692569 31620 layer_factory.hpp:77] Creating layer relu1
I0426 20:49:46.692575 31620 net.cpp:86] Creating Layer relu1
I0426 20:49:46.692579 31620 net.cpp:408] relu1 <- ip1
I0426 20:49:46.692582 31620 net.cpp:369] relu1 -> ip1 (in-place)
I0426 20:49:46.692767 31620 net.cpp:124] Setting up relu1
I0426 20:49:46.692776 31620 net.cpp:131] Top shape: 64 100 (6400)
I0426 20:49:46.692780 31620 net.cpp:139] Memory required for data: 9468160
I0426 20:49:46.692782 31620 layer_factory.hpp:77] Creating layer ip2
I0426 20:49:46.692788 31620 net.cpp:86] Creating Layer ip2
I0426 20:49:46.692791 31620 net.cpp:408] ip2 <- ip1
I0426 20:49:46.692796 31620 net.cpp:382] ip2 -> ip2
I0426 20:49:46.692932 31620 net.cpp:124] Setting up ip2
I0426 20:49:46.692941 31620 net.cpp:131] Top shape: 64 10 (640)
I0426 20:49:46.692945 31620 net.cpp:139] Memory required for data: 9470720
I0426 20:49:46.692951 31620 layer_factory.hpp:77] Creating layer relu2
I0426 20:49:46.692957 31620 net.cpp:86] Creating Layer relu2
I0426 20:49:46.692961 31620 net.cpp:408] relu2 <- ip2
I0426 20:49:46.692965 31620 net.cpp:369] relu2 -> ip2 (in-place)
I0426 20:49:46.693780 31620 net.cpp:124] Setting up relu2
I0426 20:49:46.693792 31620 net.cpp:131] Top shape: 64 10 (640)
I0426 20:49:46.693795 31620 net.cpp:139] Memory required for data: 9473280
I0426 20:49:46.693799 31620 layer_factory.hpp:77] Creating layer loss
I0426 20:49:46.693819 31620 net.cpp:86] Creating Layer loss
I0426 20:49:46.693822 31620 net.cpp:408] loss <- ip2
I0426 20:49:46.693842 31620 net.cpp:408] loss <- label
I0426 20:49:46.693848 31620 net.cpp:382] loss -> loss
I0426 20:49:46.693866 31620 layer_factory.hpp:77] Creating layer loss
…
I0426 20:49:46.694416 31620 solver.cpp:173] Creating test net (#0) specified by net file: ECE595/mnist/train_test/var_everything/lenet_train_test44.prototxt
I0426 20:49:46.694440 31620 net.cpp:296] The NetState phase (1) differed from the phase (0) specified by a rule in layer mnist
I0426 20:49:46.694511 31620 net.cpp:53] Initializing net from parameters: 
name: "LeNet"
state {
  phase: TEST
}
layer {
  name: "mnist"
  type: "Data"
  top: "data"
  top: "label"
  include {
    phase: TEST
  }
  transform_param {
    scale: 0.00390625
  }
  data_param {
    source: "examples/mnist/mnist_test_lmdb"
    batch_size: 100
    backend: LMDB
  }
}
layer {
  name: "conv0"
  type: "Convolution"
  bottom: "data"
  top: "conv0"
  param {
    lr_mult: 1
  }
  param {
    lr_mult: 2
  }
  convolution_param {
    num_output: 50
    kernel_size: 5
    stride: 1
    weight_filler {
      type: "xavier"
    }
    bias_filler {
      type: "constant"
    }
  }
}
layer {
  name: "pool0"
  type: "Pooling"
  bottom: "conv0"
  top: "pool0"
  pooling_param {
    pool: MAX
    kernel_size: 2
    stride: 2
  }
}
layer {
  name: "ip1"
  type: "InnerProduct"
  bottom: "pool0"
  top: "ip1"
  param {
    lr_mult: 1
  }
  param {
    lr_mult: 2
  }
  inner_product_param {
    num_output: 100
    weight_filler {
      type: "xavier"
    }
    bias_filler {
      type: "constant"
    }
  }
}
layer {
  name: "relu1"
  type: "ReLU"
  bottom: "ip1"
  top: "ip1"
}
layer {
  name: "ip2"
  type: "InnerProduct"
  bottom: "ip1"
  top: "ip2"
  param {
    lr_mult: 1
  }
  param {
    lr_mult: 2
  }
  inner_product_param {
    num_output: 10
    weight_filler {
      type: "xavier"
    }
    bias_filler {
      type: "constant"
    }
  }
}
layer {
  name: "relu2"
  type: "ReLU"
  bottom: "ip2"
  top: "ip2"
}
layer {
  name: "accuracy"
  type: "Accuracy"
  bottom: "ip2"
  bottom: "label"
  top: "accuracy"
  include {
    phase: TEST
  }
}
layer {
  name: "loss"
  type: "SoftmaxWithLoss"
  bottom: "ip2"
  bottom: "label"
  top: "loss"
}
I0426 20:49:46.694578 31620 layer_factory.hpp:77] Creating layer mnist
I0426 20:49:46.694620 31620 db_lmdb.cpp:35] Opened lmdb examples/mnist/mnist_test_lmdb
I0426 20:49:46.694633 31620 net.cpp:86] Creating Layer mnist
I0426 20:49:46.694636 31620 net.cpp:382] mnist -> data
I0426 20:49:46.694644 31620 net.cpp:382] mnist -> label
I0426 20:49:46.694725 31620 data_layer.cpp:45] output data size: 100,1,28,28
I0426 20:49:46.696609 31620 net.cpp:124] Setting up mnist
I0426 20:49:46.696621 31620 net.cpp:131] Top shape: 100 1 28 28 (78400)
I0426 20:49:46.696625 31620 net.cpp:131] Top shape: 100 (100)
I0426 20:49:46.696643 31620 net.cpp:139] Memory required for data: 314000
I0426 20:49:46.696647 31620 layer_factory.hpp:77] Creating layer label_mnist_1_split
I0426 20:49:46.696658 31620 net.cpp:86] Creating Layer label_mnist_1_split
I0426 20:49:46.696662 31620 net.cpp:408] label_mnist_1_split <- label
I0426 20:49:46.696666 31620 net.cpp:382] label_mnist_1_split -> label_mnist_1_split_0
I0426 20:49:46.696672 31620 net.cpp:382] label_mnist_1_split -> label_mnist_1_split_1
I0426 20:49:46.696723 31620 net.cpp:124] Setting up label_mnist_1_split
I0426 20:49:46.696728 31620 net.cpp:131] Top shape: 100 (100)
I0426 20:49:46.696732 31620 net.cpp:131] Top shape: 100 (100)
I0426 20:49:46.696750 31620 net.cpp:139] Memory required for data: 314800
I0426 20:49:46.696753 31620 layer_factory.hpp:77] Creating layer conv0
I0426 20:49:46.696761 31620 net.cpp:86] Creating Layer conv0
I0426 20:49:46.696764 31620 net.cpp:408] conv0 <- data
I0426 20:49:46.696769 31620 net.cpp:382] conv0 -> conv0
I0426 20:49:46.698494 31620 net.cpp:124] Setting up conv0
I0426 20:49:46.698523 31620 net.cpp:131] Top shape: 100 50 24 24 (2880000)
I0426 20:49:46.698526 31620 net.cpp:139] Memory required for data: 11834800
I0426 20:49:46.698535 31620 layer_factory.hpp:77] Creating layer pool0
I0426 20:49:46.698541 31620 net.cpp:86] Creating Layer pool0
I0426 20:49:46.698544 31620 net.cpp:408] pool0 <- conv0
I0426 20:49:46.698549 31620 net.cpp:382] pool0 -> pool0
I0426 20:49:46.698614 31620 net.cpp:124] Setting up pool0
I0426 20:49:46.698619 31620 net.cpp:131] Top shape: 100 50 12 12 (720000)
I0426 20:49:46.698622 31620 net.cpp:139] Memory required for data: 14714800
I0426 20:49:46.698626 31620 layer_factory.hpp:77] Creating layer ip1
I0426 20:49:46.698632 31620 net.cpp:86] Creating Layer ip1
I0426 20:49:46.698634 31620 net.cpp:408] ip1 <- pool0
I0426 20:49:46.698639 31620 net.cpp:382] ip1 -> ip1
I0426 20:49:46.703716 31620 net.cpp:124] Setting up ip1
I0426 20:49:46.703744 31620 net.cpp:131] Top shape: 100 100 (10000)
I0426 20:49:46.703747 31620 net.cpp:139] Memory required for data: 14754800
I0426 20:49:46.703771 31620 layer_factory.hpp:77] Creating layer relu1
I0426 20:49:46.703776 31620 net.cpp:86] Creating Layer relu1
I0426 20:49:46.703779 31620 net.cpp:408] relu1 <- ip1
I0426 20:49:46.703784 31620 net.cpp:369] relu1 -> ip1 (in-place)
I0426 20:49:46.703961 31620 net.cpp:124] Setting up relu1
I0426 20:49:46.703970 31620 net.cpp:131] Top shape: 100 100 (10000)
I0426 20:49:46.703982 31620 net.cpp:139] Memory required for data: 14794800
I0426 20:49:46.703985 31620 layer_factory.hpp:77] Creating layer ip2
I0426 20:49:46.703991 31620 net.cpp:86] Creating Layer ip2
I0426 20:49:46.703994 31620 net.cpp:408] ip2 <- ip1
I0426 20:49:46.704000 31620 net.cpp:382] ip2 -> ip2
I0426 20:49:46.704102 31620 net.cpp:124] Setting up ip2
I0426 20:49:46.704108 31620 net.cpp:131] Top shape: 100 10 (1000)
I0426 20:49:46.704111 31620 net.cpp:139] Memory required for data: 14798800
I0426 20:49:46.704118 31620 layer_factory.hpp:77] Creating layer relu2
I0426 20:49:46.704123 31620 net.cpp:86] Creating Layer relu2
I0426 20:49:46.704125 31620 net.cpp:408] relu2 <- ip2
I0426 20:49:46.704133 31620 net.cpp:369] relu2 -> ip2 (in-place)
I0426 20:49:46.704278 31620 net.cpp:124] Setting up relu2
I0426 20:49:46.704286 31620 net.cpp:131] Top shape: 100 10 (1000)
I0426 20:49:46.704288 31620 net.cpp:139] Memory required for data: 14802800
I0426 20:49:46.704291 31620 layer_factory.hpp:77] Creating layer ip2_relu2_0_split
I0426 20:49:46.704296 31620 net.cpp:86] Creating Layer ip2_relu2_0_split
I0426 20:49:46.704299 31620 net.cpp:408] ip2_relu2_0_split <- ip2
I0426 20:49:46.704306 31620 net.cpp:382] ip2_relu2_0_split -> ip2_relu2_0_split_0
I0426 20:49:46.704313 31620 net.cpp:382] ip2_relu2_0_split -> ip2_relu2_0_split_1
I0426 20:49:46.704345 31620 net.cpp:124] Setting up ip2_relu2_0_split
I0426 20:49:46.704349 31620 net.cpp:131] Top shape: 100 10 (1000)
I0426 20:49:46.704352 31620 net.cpp:131] Top shape: 100 10 (1000)
I0426 20:49:46.704355 31620 net.cpp:139] Memory required for data: 14810800
I0426 20:49:46.704357 31620 layer_factory.hpp:77] Creating layer accuracy
I0426 20:49:46.704361 31620 net.cpp:86] Creating Layer accuracy
I0426 20:49:46.704365 31620 net.cpp:408] accuracy <- ip2_relu2_0_split_0
I0426 20:49:46.704367 31620 net.cpp:408] accuracy <- label_mnist_1_split_0
I0426 20:49:46.704372 31620 net.cpp:382] accuracy -> accuracy
…
