…
I0321 23:11:36.594558  4669 net.cpp:313] The NetState phase (0) differed from the phase (1) specified by a rule in layer mnist
I0321 23:11:36.594645  4669 net.cpp:313] The NetState phase (0) differed from the phase (1) specified by a rule in layer accuracy
I0321 23:11:36.594852  4669 net.cpp:49] Initializing net from parameters: 
name: "LeNet"
state {
  phase: TRAIN
}
layer {
  name: "mnist"
  type: "Data"
  top: "data"
  top: "label"
  include {
    phase: TRAIN
  }
  transform_param {
    scale: 0.00390625
  }
  data_param {
    source: "examples/mnist/mnist_train_lmdb"
    batch_size: 64
    backend: LMDB
  }
}
layer {
  name: "conv0"
  type: "Convolution"
  bottom: "data"
  top: "conv0"
  param {
    lr_mult: 1
  }
  param {
    lr_mult: 2
  }
  convolution_param {
    num_output: 50
    kernel_size: 5
    stride: 1
    weight_filler {
      type: "xavier"
    }
    bias_filler {
      type: "constant"
    }
  }
}
layer {
  name: "pool0"
  type: "Pooling"
  bottom: "conv0"
  top: "pool0"
  pooling_param {
    pool: MAX
    kernel_size: 2
    stride: 2
  }
}
layer {
  name: "ip1"
  type: "InnerProduct"
  bottom: "pool0"
  top: "ip1"
  param {
    lr_mult: 1
  }
  param {
    lr_mult: 2
  }
  inner_product_param {
    num_output: 500
    weight_filler {
      type: "xavier"
    }
    bias_filler {
      type: "constant"
    }
  }
}
layer {
  name: "relu1"
  type: "ReLU"
  bottom: "ip1"
  top: "ip1"
}
layer {
  name: "ip2"
  type: "InnerProduct"
  bottom: "ip1"
  top: "ip2"
  param {
    lr_mult: 1
  }
  param {
    lr_mult: 2
  }
  inner_product_param {
    num_output: 10
    weight_filler {
      type: "xavier"
    }
    bias_filler {
      type: "constant"
    }
  }
}
layer {
  name: "loss"
  type: "SoftmaxWithLoss"
  bottom: "ip2"
  bottom: "label"
  top: "loss"
}
I0321 23:11:36.595547  4669 layer_factory.hpp:77] Creating layer mnist
I0321 23:11:36.597007  4669 net.cpp:91] Creating Layer mnist
I0321 23:11:36.597080  4669 net.cpp:399] mnist -> data
I0321 23:11:36.597239  4669 net.cpp:399] mnist -> label
I0321 23:11:36.603147  4702 db_lmdb.cpp:35] Opened lmdb examples/mnist/mnist_train_lmdb
I0321 23:11:36.603714  4669 data_layer.cpp:41] output data size: 64,1,28,28
I0321 23:11:36.604290  4669 base_data_layer.cpp:69] Initializing prefetch
I0321 23:11:36.604833  4669 base_data_layer.cpp:72] Prefetch initialized.
I0321 23:11:36.604871  4669 net.cpp:141] Setting up mnist
I0321 23:11:36.604948  4669 net.cpp:148] Top shape: 64 1 28 28 (50176)
I0321 23:11:36.604984  4669 net.cpp:148] Top shape: 64 (64)
I0321 23:11:36.605016  4669 net.cpp:156] Memory required for data: 200960
I0321 23:11:36.605065  4669 layer_factory.hpp:77] Creating layer conv0
I0321 23:11:36.605154  4669 net.cpp:91] Creating Layer conv0
I0321 23:11:36.605203  4669 net.cpp:425] conv0 <- data
I0321 23:11:36.605286  4669 net.cpp:399] conv0 -> conv0
I0321 23:11:36.605798  4669 net.cpp:141] Setting up conv0
I0321 23:11:36.605842  4669 net.cpp:148] Top shape: 64 50 24 24 (1843200)
I0321 23:11:36.605873  4669 net.cpp:156] Memory required for data: 7573760
I0321 23:11:36.605978  4669 layer_factory.hpp:77] Creating layer pool0
I0321 23:11:36.606037  4669 net.cpp:91] Creating Layer pool0
I0321 23:11:36.606073  4669 net.cpp:425] pool0 <- conv0
I0321 23:11:36.606135  4669 net.cpp:399] pool0 -> pool0
I0321 23:11:36.606225  4669 net.cpp:141] Setting up pool0
I0321 23:11:36.606266  4669 net.cpp:148] Top shape: 64 50 12 12 (460800)
I0321 23:11:36.606292  4669 net.cpp:156] Memory required for data: 9416960
I0321 23:11:36.606317  4669 layer_factory.hpp:77] Creating layer ip1
I0321 23:11:36.606379  4669 net.cpp:91] Creating Layer ip1
I0321 23:11:36.606427  4669 net.cpp:425] ip1 <- pool0
I0321 23:11:36.606483  4669 net.cpp:399] ip1 -> ip1
I0321 23:11:36.618361  4703 data_layer.cpp:102] Prefetch batch: 2 ms.
I0321 23:11:36.618389  4703 data_layer.cpp:103]      Read time: 0.187 ms.
I0321 23:11:36.618403  4703 data_layer.cpp:104] Transform time: 1.13 ms.
I0321 23:11:36.620478  4703 data_layer.cpp:102] Prefetch batch: 2 ms.
I0321 23:11:36.620493  4703 data_layer.cpp:103]      Read time: 0.192 ms.
I0321 23:11:36.620504  4703 data_layer.cpp:104] Transform time: 1.05 ms.
I0321 23:11:36.631953  4703 data_layer.cpp:102] Prefetch batch: 11 ms.
I0321 23:11:36.631970  4703 data_layer.cpp:103]      Read time: 0.19 ms.
I0321 23:11:36.631981  4703 data_layer.cpp:104] Transform time: 10.439 ms.
I0321 23:11:37.246500  4669 net.cpp:141] Setting up ip1
I0321 23:11:37.246568  4669 net.cpp:148] Top shape: 64 500 (32000)
I0321 23:11:37.246594  4669 net.cpp:156] Memory required for data: 9544960
I0321 23:11:37.246675  4669 layer_factory.hpp:77] Creating layer relu1
I0321 23:11:37.246747  4669 net.cpp:91] Creating Layer relu1
I0321 23:11:37.246803  4669 net.cpp:425] relu1 <- ip1
I0321 23:11:37.246852  4669 net.cpp:386] relu1 -> ip1 (in-place)
I0321 23:11:37.246906  4669 net.cpp:141] Setting up relu1
I0321 23:11:37.246935  4669 net.cpp:148] Top shape: 64 500 (32000)
I0321 23:11:37.246956  4669 net.cpp:156] Memory required for data: 9672960
I0321 23:11:37.246984  4669 layer_factory.hpp:77] Creating layer ip2
I0321 23:11:37.247031  4669 net.cpp:91] Creating Layer ip2
I0321 23:11:37.247058  4669 net.cpp:425] ip2 <- ip1
I0321 23:11:37.247107  4669 net.cpp:399] ip2 -> ip2
I0321 23:11:37.247717  4669 net.cpp:141] Setting up ip2
I0321 23:11:37.247753  4669 net.cpp:148] Top shape: 64 10 (640)
I0321 23:11:37.247792  4669 net.cpp:156] Memory required for data: 9675520
I0321 23:11:37.247851  4669 layer_factory.hpp:77] Creating layer loss
I0321 23:11:37.247907  4669 net.cpp:91] Creating Layer loss
I0321 23:11:37.247936  4669 net.cpp:425] loss <- ip2
I0321 23:11:37.247974  4669 net.cpp:425] loss <- label
I0321 23:11:37.248019  4669 net.cpp:399] loss -> loss
I0321 23:11:37.248088  4669 layer_factory.hpp:77] Creating layer loss
…
I0321 23:11:37.249665  4669 solver.cpp:181] Creating test net (#0) specified by net file: ECE595/mnist/train_test/lenet_train_test1.prototxt
I0321 23:11:37.249804  4669 net.cpp:313] The NetState phase (1) differed from the phase (0) specified by a rule in layer mnist
I0321 23:11:37.250037  4669 net.cpp:49] Initializing net from parameters: 
name: "LeNet"
state {
  phase: TEST
}
layer {
  name: "mnist"
  type: "Data"
  top: "data"
  top: "label"
  include {
    phase: TEST
  }
  transform_param {
    scale: 0.00390625
  }
  data_param {
    source: "examples/mnist/mnist_test_lmdb"
    batch_size: 100
    backend: LMDB
  }
}
layer {
  name: "conv0"
  type: "Convolution"
  bottom: "data"
  top: "conv0"
  param {
    lr_mult: 1
  }
  param {
    lr_mult: 2
  }
  convolution_param {
    num_output: 50
    kernel_size: 5
    stride: 1
    weight_filler {
      type: "xavier"
    }
    bias_filler {
      type: "constant"
    }
  }
}
layer {
  name: "pool0"
  type: "Pooling"
  bottom: "conv0"
  top: "pool0"
  pooling_param {
    pool: MAX
    kernel_size: 2
    stride: 2
  }
}
layer {
  name: "ip1"
  type: "InnerProduct"
  bottom: "pool0"
  top: "ip1"
  param {
    lr_mult: 1
  }
  param {
    lr_mult: 2
  }
  inner_product_param {
    num_output: 500
    weight_filler {
      type: "xavier"
    }
    bias_filler {
      type: "constant"
    }
  }
}
layer {
  name: "relu1"
  type: "ReLU"
  bottom: "ip1"
  top: "ip1"
}
layer {
  name: "ip2"
  type: "InnerProduct"
  bottom: "ip1"
  top: "ip2"
  param {
    lr_mult: 1
  }
  param {
    lr_mult: 2
  }
  inner_product_param {
    num_output: 10
    weight_filler {
      type: "xavier"
    }
    bias_filler {
      type: "constant"
    }
  }
}
layer {
  name: "accuracy"
  type: "Accuracy"
  bottom: "ip2"
  bottom: "label"
  top: "accuracy"
  include {
    phase: TEST
  }
}
layer {
  name: "loss"
  type: "SoftmaxWithLoss"
  bottom: "ip2"
  bottom: "label"
  top: "loss"
}
I0321 23:11:37.250609  4669 layer_factory.hpp:77] Creating layer mnist
I0321 23:11:37.251104  4669 net.cpp:91] Creating Layer mnist
I0321 23:11:37.251148  4669 net.cpp:399] mnist -> data
I0321 23:11:37.251209  4669 net.cpp:399] mnist -> label
I0321 23:11:37.260231  4705 db_lmdb.cpp:35] Opened lmdb examples/mnist/mnist_test_lmdb
I0321 23:11:37.260556  4669 data_layer.cpp:41] output data size: 100,1,28,28
I0321 23:11:37.261215  4669 base_data_layer.cpp:69] Initializing prefetch
I0321 23:11:37.261291  4669 base_data_layer.cpp:72] Prefetch initialized.
I0321 23:11:37.261301  4669 net.cpp:141] Setting up mnist
I0321 23:11:37.261320  4669 net.cpp:148] Top shape: 100 1 28 28 (78400)
I0321 23:11:37.261334  4669 net.cpp:148] Top shape: 100 (100)
I0321 23:11:37.261343  4669 net.cpp:156] Memory required for data: 314000
I0321 23:11:37.261360  4669 layer_factory.hpp:77] Creating layer label_mnist_1_split
I0321 23:11:37.261431  4669 net.cpp:91] Creating Layer label_mnist_1_split
I0321 23:11:37.261449  4669 net.cpp:425] label_mnist_1_split <- label
I0321 23:11:37.261481  4669 net.cpp:399] label_mnist_1_split -> label_mnist_1_split_0
I0321 23:11:37.261514  4669 net.cpp:399] label_mnist_1_split -> label_mnist_1_split_1
I0321 23:11:37.261555  4669 net.cpp:141] Setting up label_mnist_1_split
I0321 23:11:37.261574  4669 net.cpp:148] Top shape: 100 (100)
I0321 23:11:37.261587  4669 net.cpp:148] Top shape: 100 (100)
I0321 23:11:37.261596  4669 net.cpp:156] Memory required for data: 314800
I0321 23:11:37.261607  4669 layer_factory.hpp:77] Creating layer conv0
I0321 23:11:37.261658  4669 net.cpp:91] Creating Layer conv0
I0321 23:11:37.261672  4669 net.cpp:425] conv0 <- data
I0321 23:11:37.261708  4669 net.cpp:399] conv0 -> conv0
I0321 23:11:37.261988  4669 net.cpp:141] Setting up conv0
I0321 23:11:37.262008  4669 net.cpp:148] Top shape: 100 50 24 24 (2880000)
I0321 23:11:37.262017  4669 net.cpp:156] Memory required for data: 11834800
I0321 23:11:37.262071  4669 layer_factory.hpp:77] Creating layer pool0
I0321 23:11:37.262102  4669 net.cpp:91] Creating Layer pool0
I0321 23:11:37.262116  4669 net.cpp:425] pool0 <- conv0
I0321 23:11:37.262146  4669 net.cpp:399] pool0 -> pool0
I0321 23:11:37.262192  4669 net.cpp:141] Setting up pool0
I0321 23:11:37.262210  4669 net.cpp:148] Top shape: 100 50 12 12 (720000)
I0321 23:11:37.262218  4669 net.cpp:156] Memory required for data: 14714800
I0321 23:11:37.262231  4669 layer_factory.hpp:77] Creating layer ip1
I0321 23:11:37.262266  4669 net.cpp:91] Creating Layer ip1
I0321 23:11:37.262279  4669 net.cpp:425] ip1 <- pool0
I0321 23:11:37.262311  4669 net.cpp:399] ip1 -> ip1
I0321 23:11:37.265930  4706 data_layer.cpp:102] Prefetch batch: 3 ms.
I0321 23:11:37.269541  4706 data_layer.cpp:103]      Read time: 0.356 ms.
I0321 23:11:37.269595  4706 data_layer.cpp:104] Transform time: 1.952 ms.
I0321 23:11:37.274312  4706 data_layer.cpp:102] Prefetch batch: 4 ms.
I0321 23:11:37.277231  4706 data_layer.cpp:103]      Read time: 0.355 ms.
I0321 23:11:37.277276  4706 data_layer.cpp:104] Transform time: 2.919 ms.
I0321 23:11:37.282353  4706 data_layer.cpp:102] Prefetch batch: 5 ms.
I0321 23:11:37.285048  4706 data_layer.cpp:103]      Read time: 0.36 ms.
I0321 23:11:37.285106  4706 data_layer.cpp:104] Transform time: 3.212 ms.
I0321 23:11:37.649039  4669 net.cpp:141] Setting up ip1
I0321 23:11:37.649101  4669 net.cpp:148] Top shape: 100 500 (50000)
I0321 23:11:37.649124  4669 net.cpp:156] Memory required for data: 14914800
I0321 23:11:37.649199  4669 layer_factory.hpp:77] Creating layer relu1
I0321 23:11:37.649260  4669 net.cpp:91] Creating Layer relu1
I0321 23:11:37.649293  4669 net.cpp:425] relu1 <- ip1
I0321 23:11:37.649339  4669 net.cpp:386] relu1 -> ip1 (in-place)
I0321 23:11:37.649387  4669 net.cpp:141] Setting up relu1
I0321 23:11:37.649413  4669 net.cpp:148] Top shape: 100 500 (50000)
I0321 23:11:37.649435  4669 net.cpp:156] Memory required for data: 15114800
I0321 23:11:37.649459  4669 layer_factory.hpp:77] Creating layer ip2
I0321 23:11:37.649504  4669 net.cpp:91] Creating Layer ip2
I0321 23:11:37.649533  4669 net.cpp:425] ip2 <- ip1
I0321 23:11:37.649580  4669 net.cpp:399] ip2 -> ip2
I0321 23:11:37.650213  4669 net.cpp:141] Setting up ip2
I0321 23:11:37.650259  4669 net.cpp:148] Top shape: 100 10 (1000)
I0321 23:11:37.650281  4669 net.cpp:156] Memory required for data: 15118800
I0321 23:11:37.650337  4669 layer_factory.hpp:77] Creating layer ip2_ip2_0_split
I0321 23:11:37.650380  4669 net.cpp:91] Creating Layer ip2_ip2_0_split
I0321 23:11:37.650408  4669 net.cpp:425] ip2_ip2_0_split <- ip2
I0321 23:11:37.650449  4669 net.cpp:399] ip2_ip2_0_split -> ip2_ip2_0_split_0
I0321 23:11:37.650501  4669 net.cpp:399] ip2_ip2_0_split -> ip2_ip2_0_split_1
I0321 23:11:37.650555  4669 net.cpp:141] Setting up ip2_ip2_0_split
I0321 23:11:37.650588  4669 net.cpp:148] Top shape: 100 10 (1000)
I0321 23:11:37.650614  4669 net.cpp:148] Top shape: 100 10 (1000)
I0321 23:11:37.650635  4669 net.cpp:156] Memory required for data: 15126800
I0321 23:11:37.650660  4669 layer_factory.hpp:77] Creating layer accuracy
I0321 23:11:37.650719  4669 net.cpp:91] Creating Layer accuracy
I0321 23:11:37.650748  4669 net.cpp:425] accuracy <- ip2_ip2_0_split_0
I0321 23:11:37.650807  4669 net.cpp:425] accuracy <- label_mnist_1_split_0
I0321 23:11:37.650853  4669 net.cpp:399] accuracy -> accuracy
…
