…
I0321 23:08:56.508035  4505 net.cpp:313] The NetState phase (0) differed from the phase (1) specified by a rule in layer mnist
I0321 23:08:56.508074  4505 net.cpp:313] The NetState phase (0) differed from the phase (1) specified by a rule in layer accuracy
I0321 23:08:56.508199  4505 net.cpp:49] Initializing net from parameters: 
name: "LeNet"
state {
  phase: TRAIN
}
layer {
  name: "mnist"
  type: "Data"
  top: "data"
  top: "label"
  include {
    phase: TRAIN
  }
  transform_param {
    scale: 0.00390625
  }
  data_param {
    source: "examples/mnist/mnist_train_lmdb"
    batch_size: 64
    backend: LMDB
  }
}
layer {
  name: "ip1"
  type: "InnerProduct"
  bottom: "data"
  top: "ip1"
  param {
    lr_mult: 1
  }
  param {
    lr_mult: 2
  }
  inner_product_param {
    num_output: 500
    weight_filler {
      type: "xavier"
    }
    bias_filler {
      type: "constant"
    }
  }
}
layer {
  name: "relu1"
  type: "ReLU"
  bottom: "ip1"
  top: "ip1"
}
layer {
  name: "ip2"
  type: "InnerProduct"
  bottom: "ip1"
  top: "ip2"
  param {
    lr_mult: 1
  }
  param {
    lr_mult: 2
  }
  inner_product_param {
    num_output: 10
    weight_filler {
      type: "xavier"
    }
    bias_filler {
      type: "constant"
    }
  }
}
layer {
  name: "loss"
  type: "SoftmaxWithLoss"
  bottom: "ip2"
  bottom: "label"
  top: "loss"
}
I0321 23:08:56.508757  4505 layer_factory.hpp:77] Creating layer mnist
I0321 23:08:56.510427  4505 net.cpp:91] Creating Layer mnist
I0321 23:08:56.510476  4505 net.cpp:399] mnist -> data
I0321 23:08:56.510661  4505 net.cpp:399] mnist -> label
I0321 23:08:56.517344  4538 db_lmdb.cpp:35] Opened lmdb examples/mnist/mnist_train_lmdb
I0321 23:08:56.517822  4505 data_layer.cpp:41] output data size: 64,1,28,28
I0321 23:08:56.518295  4505 base_data_layer.cpp:69] Initializing prefetch
I0321 23:08:56.518368  4505 base_data_layer.cpp:72] Prefetch initialized.
I0321 23:08:56.518384  4505 net.cpp:141] Setting up mnist
I0321 23:08:56.518429  4505 net.cpp:148] Top shape: 64 1 28 28 (50176)
I0321 23:08:56.518447  4505 net.cpp:148] Top shape: 64 (64)
I0321 23:08:56.518460  4505 net.cpp:156] Memory required for data: 200960
I0321 23:08:56.518491  4505 layer_factory.hpp:77] Creating layer ip1
I0321 23:08:56.518537  4505 net.cpp:91] Creating Layer ip1
I0321 23:08:56.518563  4505 net.cpp:425] ip1 <- data
I0321 23:08:56.518627  4505 net.cpp:399] ip1 -> ip1
I0321 23:08:56.526578  4539 data_layer.cpp:102] Prefetch batch: 5 ms.
I0321 23:08:56.526691  4539 data_layer.cpp:103]      Read time: 0.618 ms.
I0321 23:08:56.526732  4539 data_layer.cpp:104] Transform time: 2.815 ms.
I0321 23:08:56.538300  4539 data_layer.cpp:102] Prefetch batch: 11 ms.
I0321 23:08:56.538349  4539 data_layer.cpp:103]      Read time: 0.575 ms.
I0321 23:08:56.538383  4539 data_layer.cpp:104] Transform time: 9.281 ms.
I0321 23:08:56.549908  4539 data_layer.cpp:102] Prefetch batch: 11 ms.
I0321 23:08:56.549950  4539 data_layer.cpp:103]      Read time: 0.527 ms.
I0321 23:08:56.549983  4539 data_layer.cpp:104] Transform time: 2.752 ms.
I0321 23:08:56.587512  4505 net.cpp:141] Setting up ip1
I0321 23:08:56.587577  4505 net.cpp:148] Top shape: 64 500 (32000)
I0321 23:08:56.587590  4505 net.cpp:156] Memory required for data: 328960
I0321 23:08:56.587733  4505 layer_factory.hpp:77] Creating layer relu1
I0321 23:08:56.587806  4505 net.cpp:91] Creating Layer relu1
I0321 23:08:56.587834  4505 net.cpp:425] relu1 <- ip1
I0321 23:08:56.587895  4505 net.cpp:386] relu1 -> ip1 (in-place)
I0321 23:08:56.587942  4505 net.cpp:141] Setting up relu1
I0321 23:08:56.587959  4505 net.cpp:148] Top shape: 64 500 (32000)
I0321 23:08:56.587987  4505 net.cpp:156] Memory required for data: 456960
I0321 23:08:56.588002  4505 layer_factory.hpp:77] Creating layer ip2
I0321 23:08:56.588045  4505 net.cpp:91] Creating Layer ip2
I0321 23:08:56.588062  4505 net.cpp:425] ip2 <- ip1
I0321 23:08:56.588098  4505 net.cpp:399] ip2 -> ip2
I0321 23:08:56.588701  4505 net.cpp:141] Setting up ip2
I0321 23:08:56.588726  4505 net.cpp:148] Top shape: 64 10 (640)
I0321 23:08:56.588737  4505 net.cpp:156] Memory required for data: 459520
I0321 23:08:56.588780  4505 layer_factory.hpp:77] Creating layer loss
I0321 23:08:56.588826  4505 net.cpp:91] Creating Layer loss
I0321 23:08:56.588843  4505 net.cpp:425] loss <- ip2
I0321 23:08:56.588870  4505 net.cpp:425] loss <- label
I0321 23:08:56.588901  4505 net.cpp:399] loss -> loss
I0321 23:08:56.588963  4505 layer_factory.hpp:77] Creating layer loss
…
I0321 23:08:56.593364  4505 solver.cpp:181] Creating test net (#0) specified by net file: ECE595/mnist/train_test/lenet_train_test0.prototxt
I0321 23:08:56.593474  4505 net.cpp:313] The NetState phase (1) differed from the phase (0) specified by a rule in layer mnist
I0321 23:08:56.593647  4505 net.cpp:49] Initializing net from parameters: 
name: "LeNet"
state {
  phase: TEST
}
layer {
  name: "mnist"
  type: "Data"
  top: "data"
  top: "label"
  include {
    phase: TEST
  }
  transform_param {
    scale: 0.00390625
  }
  data_param {
    source: "examples/mnist/mnist_test_lmdb"
    batch_size: 100
    backend: LMDB
  }
}
layer {
  name: "ip1"
  type: "InnerProduct"
  bottom: "data"
  top: "ip1"
  param {
    lr_mult: 1
  }
  param {
    lr_mult: 2
  }
  inner_product_param {
    num_output: 500
    weight_filler {
      type: "xavier"
    }
    bias_filler {
      type: "constant"
    }
  }
}
layer {
  name: "relu1"
  type: "ReLU"
  bottom: "ip1"
  top: "ip1"
}
layer {
  name: "ip2"
  type: "InnerProduct"
  bottom: "ip1"
  top: "ip2"
  param {
    lr_mult: 1
  }
  param {
    lr_mult: 2
  }
  inner_product_param {
    num_output: 10
    weight_filler {
      type: "xavier"
    }
    bias_filler {
      type: "constant"
    }
  }
}
layer {
  name: "accuracy"
  type: "Accuracy"
  bottom: "ip2"
  bottom: "label"
  top: "accuracy"
  include {
    phase: TEST
  }
}
layer {
  name: "loss"
  type: "SoftmaxWithLoss"
  bottom: "ip2"
  bottom: "label"
  top: "loss"
}
I0321 23:08:56.594034  4505 layer_factory.hpp:77] Creating layer mnist
I0321 23:08:56.595031  4505 net.cpp:91] Creating Layer mnist
I0321 23:08:56.595062  4505 net.cpp:399] mnist -> data
I0321 23:08:56.595116  4505 net.cpp:399] mnist -> label
I0321 23:08:56.598518  4540 db_lmdb.cpp:35] Opened lmdb examples/mnist/mnist_test_lmdb
I0321 23:08:56.598886  4505 data_layer.cpp:41] output data size: 100,1,28,28
I0321 23:08:56.599683  4505 base_data_layer.cpp:69] Initializing prefetch
I0321 23:08:56.599731  4505 base_data_layer.cpp:72] Prefetch initialized.
I0321 23:08:56.599742  4505 net.cpp:141] Setting up mnist
I0321 23:08:56.599759  4505 net.cpp:148] Top shape: 100 1 28 28 (78400)
I0321 23:08:56.599772  4505 net.cpp:148] Top shape: 100 (100)
I0321 23:08:56.599779  4505 net.cpp:156] Memory required for data: 314000
I0321 23:08:56.599797  4505 layer_factory.hpp:77] Creating layer label_mnist_1_split
I0321 23:08:56.599912  4505 net.cpp:91] Creating Layer label_mnist_1_split
I0321 23:08:56.599937  4505 net.cpp:425] label_mnist_1_split <- label
I0321 23:08:56.599964  4505 net.cpp:399] label_mnist_1_split -> label_mnist_1_split_0
I0321 23:08:56.600013  4505 net.cpp:399] label_mnist_1_split -> label_mnist_1_split_1
I0321 23:08:56.600050  4505 net.cpp:141] Setting up label_mnist_1_split
I0321 23:08:56.600065  4505 net.cpp:148] Top shape: 100 (100)
I0321 23:08:56.600075  4505 net.cpp:148] Top shape: 100 (100)
I0321 23:08:56.600080  4505 net.cpp:156] Memory required for data: 314800
I0321 23:08:56.600090  4505 layer_factory.hpp:77] Creating layer ip1
I0321 23:08:56.600123  4505 net.cpp:91] Creating Layer ip1
I0321 23:08:56.600134  4505 net.cpp:425] ip1 <- data
I0321 23:08:56.600167  4505 net.cpp:399] ip1 -> ip1
I0321 23:08:56.604378  4541 data_layer.cpp:102] Prefetch batch: 4 ms.
I0321 23:08:56.604423  4541 data_layer.cpp:103]      Read time: 0.483 ms.
I0321 23:08:56.604439  4541 data_layer.cpp:104] Transform time: 2.771 ms.
I0321 23:08:56.608656  4541 data_layer.cpp:102] Prefetch batch: 4 ms.
I0321 23:08:56.608681  4541 data_layer.cpp:103]      Read time: 0.417 ms.
I0321 23:08:56.608693  4541 data_layer.cpp:104] Transform time: 2.707 ms.
I0321 23:08:56.613188  4541 data_layer.cpp:102] Prefetch batch: 4 ms.
I0321 23:08:56.613226  4541 data_layer.cpp:103]      Read time: 0.449 ms.
I0321 23:08:56.613247  4541 data_layer.cpp:104] Transform time: 2.907 ms.
I0321 23:08:56.634596  4505 net.cpp:141] Setting up ip1
I0321 23:08:56.634670  4505 net.cpp:148] Top shape: 100 500 (50000)
I0321 23:08:56.634692  4505 net.cpp:156] Memory required for data: 514800
I0321 23:08:56.634779  4505 layer_factory.hpp:77] Creating layer relu1
I0321 23:08:56.634831  4505 net.cpp:91] Creating Layer relu1
I0321 23:08:56.634865  4505 net.cpp:425] relu1 <- ip1
I0321 23:08:56.634924  4505 net.cpp:386] relu1 -> ip1 (in-place)
I0321 23:08:56.634975  4505 net.cpp:141] Setting up relu1
I0321 23:08:56.635002  4505 net.cpp:148] Top shape: 100 500 (50000)
I0321 23:08:56.635023  4505 net.cpp:156] Memory required for data: 714800
I0321 23:08:56.635047  4505 layer_factory.hpp:77] Creating layer ip2
I0321 23:08:56.635102  4505 net.cpp:91] Creating Layer ip2
I0321 23:08:56.635128  4505 net.cpp:425] ip2 <- ip1
I0321 23:08:56.635179  4505 net.cpp:399] ip2 -> ip2
I0321 23:08:56.635792  4505 net.cpp:141] Setting up ip2
I0321 23:08:56.635829  4505 net.cpp:148] Top shape: 100 10 (1000)
I0321 23:08:56.635850  4505 net.cpp:156] Memory required for data: 718800
I0321 23:08:56.635922  4505 layer_factory.hpp:77] Creating layer ip2_ip2_0_split
I0321 23:08:56.635962  4505 net.cpp:91] Creating Layer ip2_ip2_0_split
I0321 23:08:56.635988  4505 net.cpp:425] ip2_ip2_0_split <- ip2
I0321 23:08:56.636029  4505 net.cpp:399] ip2_ip2_0_split -> ip2_ip2_0_split_0
I0321 23:08:56.636075  4505 net.cpp:399] ip2_ip2_0_split -> ip2_ip2_0_split_1
I0321 23:08:56.636126  4505 net.cpp:141] Setting up ip2_ip2_0_split
I0321 23:08:56.636157  4505 net.cpp:148] Top shape: 100 10 (1000)
I0321 23:08:56.636183  4505 net.cpp:148] Top shape: 100 10 (1000)
I0321 23:08:56.636201  4505 net.cpp:156] Memory required for data: 726800
I0321 23:08:56.636226  4505 layer_factory.hpp:77] Creating layer accuracy
I0321 23:08:56.636281  4505 net.cpp:91] Creating Layer accuracy
I0321 23:08:56.636307  4505 net.cpp:425] accuracy <- ip2_ip2_0_split_0
I0321 23:08:56.636344  4505 net.cpp:425] accuracy <- label_mnist_1_split_0
I0321 23:08:56.636382  4505 net.cpp:399] accuracy -> accuracy
…
