…
I0426 04:43:58.552482  9765 net.cpp:313] The NetState phase (0) differed from the phase (1) specified by a rule in layer mnist
I0426 04:43:58.552590  9765 net.cpp:313] The NetState phase (0) differed from the phase (1) specified by a rule in layer accuracy
I0426 04:43:58.552892  9765 net.cpp:49] Initializing net from parameters: 
name: "LeNet"
state {
  phase: TRAIN
}
layer {
  name: "mnist"
  type: "Data"
  top: "data"
  top: "label"
  include {
    phase: TRAIN
  }
  transform_param {
    scale: 0.00390625
  }
  data_param {
    source: "examples/mnist/mnist_train_lmdb"
    batch_size: 64
    backend: LMDB
  }
}
layer {
  name: "conv0"
  type: "Convolution"
  bottom: "data"
  top: "conv0"
  param {
    lr_mult: 1
  }
  param {
    lr_mult: 2
  }
  convolution_param {
    num_output: 50
    kernel_size: 5
    stride: 1
    weight_filler {
      type: "xavier"
    }
    bias_filler {
      type: "constant"
    }
  }
}
layer {
  name: "pool0"
  type: "Pooling"
  bottom: "conv0"
  top: "pool0"
  pooling_param {
    pool: MAX
    kernel_size: 2
    stride: 2
  }
}
layer {
  name: "conv1"
  type: "Convolution"
  bottom: "pool0"
  top: "conv1"
  param {
    lr_mult: 1
  }
  param {
    lr_mult: 2
  }
  convolution_param {
    num_output: 50
    kernel_size: 5
    stride: 1
    weight_filler {
      type: "xavier"
    }
    bias_filler {
      type: "constant"
    }
  }
}
layer {
  name: "pool1"
  type: "Pooling"
  bottom: "conv1"
  top: "pool1"
  pooling_param {
    pool: MAX
    kernel_size: 2
    stride: 2
  }
}
layer {
  name: "ip1"
  type: "InnerProduct"
  bottom: "pool1"
  top: "ip1"
  param {
    lr_mult: 1
  }
  param {
    lr_mult: 2
  }
  inner_product_param {
    num_output: 100
    weight_filler {
      type: "xavier"
    }
    bias_filler {
      type: "constant"
    }
  }
}
layer {
  name: "relu1"
  type: "ReLU"
  bottom: "ip1"
  top: "ip1"
}
layer {
  name: "ip2"
  type: "InnerProduct"
  bottom: "ip1"
  top: "ip2"
  param {
    lr_mult: 1
  }
  param {
    lr_mult: 2
  }
  inner_product_param {
    num_output: 10
    weight_filler {
      type: "xavier"
    }
    bias_filler {
      type: "constant"
    }
  }
}
layer {
  name: "relu2"
  type: "ReLU"
  bottom: "ip2"
  top: "ip2"
}
layer {
  name: "loss"
  type: "SoftmaxWithLoss"
  bottom: "ip2"
  bottom: "label"
  top: "loss"
}
I0426 04:43:58.553632  9765 layer_factory.hpp:77] Creating layer mnist
I0426 04:43:58.555176  9765 net.cpp:91] Creating Layer mnist
I0426 04:43:58.555253  9765 net.cpp:399] mnist -> data
I0426 04:43:58.555450  9765 net.cpp:399] mnist -> label
I0426 04:43:58.559104  9798 db_lmdb.cpp:35] Opened lmdb examples/mnist/mnist_train_lmdb
I0426 04:43:58.563755  9765 data_layer.cpp:41] output data size: 64,1,28,28
I0426 04:43:58.564442  9765 base_data_layer.cpp:69] Initializing prefetch
I0426 04:43:58.564522  9765 base_data_layer.cpp:72] Prefetch initialized.
I0426 04:43:58.564545  9765 net.cpp:141] Setting up mnist
I0426 04:43:58.564590  9765 net.cpp:148] Top shape: 64 1 28 28 (50176)
I0426 04:43:58.564620  9765 net.cpp:148] Top shape: 64 (64)
I0426 04:43:58.564637  9765 net.cpp:156] Memory required for data: 200960
I0426 04:43:58.564673  9765 layer_factory.hpp:77] Creating layer conv0
I0426 04:43:58.564748  9765 net.cpp:91] Creating Layer conv0
I0426 04:43:58.564777  9765 net.cpp:425] conv0 <- data
I0426 04:43:58.564853  9765 net.cpp:399] conv0 -> conv0
I0426 04:43:58.565295  9765 net.cpp:141] Setting up conv0
I0426 04:43:58.565325  9765 net.cpp:148] Top shape: 64 50 24 24 (1843200)
I0426 04:43:58.565345  9765 net.cpp:156] Memory required for data: 7573760
I0426 04:43:58.565465  9765 layer_factory.hpp:77] Creating layer pool0
I0426 04:43:58.565515  9765 net.cpp:91] Creating Layer pool0
I0426 04:43:58.565547  9765 net.cpp:425] pool0 <- conv0
I0426 04:43:58.565609  9765 net.cpp:399] pool0 -> pool0
I0426 04:43:58.565696  9765 net.cpp:141] Setting up pool0
I0426 04:43:58.565728  9765 net.cpp:148] Top shape: 64 50 12 12 (460800)
I0426 04:43:58.565747  9765 net.cpp:156] Memory required for data: 9416960
I0426 04:43:58.565759  9765 layer_factory.hpp:77] Creating layer conv1
I0426 04:43:58.565805  9765 net.cpp:91] Creating Layer conv1
I0426 04:43:58.565827  9765 net.cpp:425] conv1 <- pool0
I0426 04:43:58.565873  9765 net.cpp:399] conv1 -> conv1
I0426 04:43:58.569156  9799 data_layer.cpp:102] Prefetch batch: 3 ms.
I0426 04:43:58.570462  9799 data_layer.cpp:103]      Read time: 0.294 ms.
I0426 04:43:58.570550  9799 data_layer.cpp:104] Transform time: 1.037 ms.
I0426 04:43:58.576967  9799 data_layer.cpp:102] Prefetch batch: 6 ms.
I0426 04:43:58.577023  9799 data_layer.cpp:103]      Read time: 0.406 ms.
I0426 04:43:58.577075  9799 data_layer.cpp:104] Transform time: 1.522 ms.
I0426 04:43:58.580770  9765 net.cpp:141] Setting up conv1
I0426 04:43:58.580802  9765 net.cpp:148] Top shape: 64 50 8 8 (204800)
I0426 04:43:58.580817  9765 net.cpp:156] Memory required for data: 10236160
I0426 04:43:58.580868  9765 layer_factory.hpp:77] Creating layer pool1
I0426 04:43:58.580921  9765 net.cpp:91] Creating Layer pool1
I0426 04:43:58.580945  9765 net.cpp:425] pool1 <- conv1
I0426 04:43:58.580977  9765 net.cpp:399] pool1 -> pool1
I0426 04:43:58.581037  9765 net.cpp:141] Setting up pool1
I0426 04:43:58.581060  9765 net.cpp:148] Top shape: 64 50 4 4 (51200)
I0426 04:43:58.581077  9765 net.cpp:156] Memory required for data: 10440960
I0426 04:43:58.581099  9765 layer_factory.hpp:77] Creating layer ip1
I0426 04:43:58.581141  9765 net.cpp:91] Creating Layer ip1
I0426 04:43:58.581159  9765 net.cpp:425] ip1 <- pool1
I0426 04:43:58.581204  9765 net.cpp:399] ip1 -> ip1
I0426 04:43:58.584106  9799 data_layer.cpp:102] Prefetch batch: 6 ms.
I0426 04:43:58.584177  9799 data_layer.cpp:103]      Read time: 0.561 ms.
I0426 04:43:58.584226  9799 data_layer.cpp:104] Transform time: 1.133 ms.
I0426 04:43:58.607019  9765 net.cpp:141] Setting up ip1
I0426 04:43:58.607038  9765 net.cpp:148] Top shape: 64 100 (6400)
I0426 04:43:58.607046  9765 net.cpp:156] Memory required for data: 10466560
I0426 04:43:58.607084  9765 layer_factory.hpp:77] Creating layer relu1
I0426 04:43:58.607110  9765 net.cpp:91] Creating Layer relu1
I0426 04:43:58.607123  9765 net.cpp:425] relu1 <- ip1
I0426 04:43:58.607146  9765 net.cpp:386] relu1 -> ip1 (in-place)
I0426 04:43:58.607170  9765 net.cpp:141] Setting up relu1
I0426 04:43:58.607182  9765 net.cpp:148] Top shape: 64 100 (6400)
I0426 04:43:58.607190  9765 net.cpp:156] Memory required for data: 10492160
I0426 04:43:58.607201  9765 layer_factory.hpp:77] Creating layer ip2
I0426 04:43:58.607224  9765 net.cpp:91] Creating Layer ip2
I0426 04:43:58.607236  9765 net.cpp:425] ip2 <- ip1
I0426 04:43:58.607262  9765 net.cpp:399] ip2 -> ip2
I0426 04:43:58.607411  9765 net.cpp:141] Setting up ip2
I0426 04:43:58.607427  9765 net.cpp:148] Top shape: 64 10 (640)
I0426 04:43:58.607435  9765 net.cpp:156] Memory required for data: 10494720
I0426 04:43:58.607460  9765 layer_factory.hpp:77] Creating layer relu2
I0426 04:43:58.607482  9765 net.cpp:91] Creating Layer relu2
I0426 04:43:58.607494  9765 net.cpp:425] relu2 <- ip2
I0426 04:43:58.607517  9765 net.cpp:386] relu2 -> ip2 (in-place)
I0426 04:43:58.607544  9765 net.cpp:141] Setting up relu2
I0426 04:43:58.607556  9765 net.cpp:148] Top shape: 64 10 (640)
I0426 04:43:58.607564  9765 net.cpp:156] Memory required for data: 10497280
I0426 04:43:58.607575  9765 layer_factory.hpp:77] Creating layer loss
I0426 04:43:58.607601  9765 net.cpp:91] Creating Layer loss
I0426 04:43:58.607614  9765 net.cpp:425] loss <- ip2
I0426 04:43:58.607632  9765 net.cpp:425] loss <- label
I0426 04:43:58.607656  9765 net.cpp:399] loss -> loss
I0426 04:43:58.607700  9765 layer_factory.hpp:77] Creating layer loss
…
I0426 04:43:58.609412  9765 solver.cpp:181] Creating test net (#0) specified by net file: ECE595/mnist/train_test/var_fcl/lenet_train_test_fcl2.prototxt
I0426 04:43:58.609679  9765 net.cpp:313] The NetState phase (1) differed from the phase (0) specified by a rule in layer mnist
I0426 04:43:58.610080  9765 net.cpp:49] Initializing net from parameters: 
name: "LeNet"
state {
  phase: TEST
}
layer {
  name: "mnist"
  type: "Data"
  top: "data"
  top: "label"
  include {
    phase: TEST
  }
  transform_param {
    scale: 0.00390625
  }
  data_param {
    source: "examples/mnist/mnist_test_lmdb"
    batch_size: 100
    backend: LMDB
  }
}
layer {
  name: "conv0"
  type: "Convolution"
  bottom: "data"
  top: "conv0"
  param {
    lr_mult: 1
  }
  param {
    lr_mult: 2
  }
  convolution_param {
    num_output: 50
    kernel_size: 5
    stride: 1
    weight_filler {
      type: "xavier"
    }
    bias_filler {
      type: "constant"
    }
  }
}
layer {
  name: "pool0"
  type: "Pooling"
  bottom: "conv0"
  top: "pool0"
  pooling_param {
    pool: MAX
    kernel_size: 2
    stride: 2
  }
}
layer {
  name: "conv1"
  type: "Convolution"
  bottom: "pool0"
  top: "conv1"
  param {
    lr_mult: 1
  }
  param {
    lr_mult: 2
  }
  convolution_param {
    num_output: 50
    kernel_size: 5
    stride: 1
    weight_filler {
      type: "xavier"
    }
    bias_filler {
      type: "constant"
    }
  }
}
layer {
  name: "pool1"
  type: "Pooling"
  bottom: "conv1"
  top: "pool1"
  pooling_param {
    pool: MAX
    kernel_size: 2
    stride: 2
  }
}
layer {
  name: "ip1"
  type: "InnerProduct"
  bottom: "pool1"
  top: "ip1"
  param {
    lr_mult: 1
  }
  param {
    lr_mult: 2
  }
  inner_product_param {
    num_output: 100
    weight_filler {
      type: "xavier"
    }
    bias_filler {
      type: "constant"
    }
  }
}
layer {
  name: "relu1"
  type: "ReLU"
  bottom: "ip1"
  top: "ip1"
}
layer {
  name: "ip2"
  type: "InnerProduct"
  bottom: "ip1"
  top: "ip2"
  param {
    lr_mult: 1
  }
  param {
    lr_mult: 2
  }
  inner_product_param {
    num_output: 10
    weight_filler {
      type: "xavier"
    }
    bias_filler {
      type: "constant"
    }
  }
}
layer {
  name: "relu2"
  type: "ReLU"
  bottom: "ip2"
  top: "ip2"
}
layer {
  name: "accuracy"
  type: "Accuracy"
  bottom: "ip2"
  bottom: "label"
  top: "accuracy"
  include {
    phase: TEST
  }
}
layer {
  name: "loss"
  type: "SoftmaxWithLoss"
  bottom: "ip2"
  bottom: "label"
  top: "loss"
}
I0426 04:43:58.610922  9765 layer_factory.hpp:77] Creating layer mnist
I0426 04:43:58.611496  9765 net.cpp:91] Creating Layer mnist
I0426 04:43:58.611601  9765 net.cpp:399] mnist -> data
I0426 04:43:58.611732  9765 net.cpp:399] mnist -> label
I0426 04:43:58.614086  9800 db_lmdb.cpp:35] Opened lmdb examples/mnist/mnist_test_lmdb
I0426 04:43:58.614591  9765 data_layer.cpp:41] output data size: 100,1,28,28
I0426 04:43:58.615921  9765 base_data_layer.cpp:69] Initializing prefetch
I0426 04:43:58.616125  9765 base_data_layer.cpp:72] Prefetch initialized.
I0426 04:43:58.616165  9765 net.cpp:141] Setting up mnist
I0426 04:43:58.616236  9765 net.cpp:148] Top shape: 100 1 28 28 (78400)
I0426 04:43:58.616307  9765 net.cpp:148] Top shape: 100 (100)
I0426 04:43:58.616359  9765 net.cpp:156] Memory required for data: 314000
I0426 04:43:58.616433  9765 layer_factory.hpp:77] Creating layer label_mnist_1_split
I0426 04:43:58.616567  9765 net.cpp:91] Creating Layer label_mnist_1_split
I0426 04:43:58.616637  9765 net.cpp:425] label_mnist_1_split <- label
I0426 04:43:58.616756  9765 net.cpp:399] label_mnist_1_split -> label_mnist_1_split_0
I0426 04:43:58.616883  9765 net.cpp:399] label_mnist_1_split -> label_mnist_1_split_1
I0426 04:43:58.617014  9765 net.cpp:141] Setting up label_mnist_1_split
I0426 04:43:58.617094  9765 net.cpp:148] Top shape: 100 (100)
I0426 04:43:58.617162  9765 net.cpp:148] Top shape: 100 (100)
I0426 04:43:58.617214  9765 net.cpp:156] Memory required for data: 314800
I0426 04:43:58.617274  9765 layer_factory.hpp:77] Creating layer conv0
I0426 04:43:58.617418  9765 net.cpp:91] Creating Layer conv0
I0426 04:43:58.617627  9765 net.cpp:425] conv0 <- data
I0426 04:43:58.617764  9765 net.cpp:399] conv0 -> conv0
I0426 04:43:58.618571  9765 net.cpp:141] Setting up conv0
I0426 04:43:58.618659  9765 net.cpp:148] Top shape: 100 50 24 24 (2880000)
I0426 04:43:58.618723  9765 net.cpp:156] Memory required for data: 11834800
I0426 04:43:58.618891  9765 layer_factory.hpp:77] Creating layer pool0
I0426 04:43:58.618891  9801 data_layer.cpp:102] Prefetch batch: 2 ms.
I0426 04:43:58.618973  9801 data_layer.cpp:103]      Read time: 0.332 ms.
I0426 04:43:58.618983  9801 data_layer.cpp:104] Transform time: 1.676 ms.
I0426 04:43:58.619012  9765 net.cpp:91] Creating Layer pool0
I0426 04:43:58.619060  9765 net.cpp:425] pool0 <- conv0
I0426 04:43:58.619139  9765 net.cpp:399] pool0 -> pool0
I0426 04:43:58.619261  9765 net.cpp:141] Setting up pool0
I0426 04:43:58.619312  9765 net.cpp:148] Top shape: 100 50 12 12 (720000)
I0426 04:43:58.619338  9765 net.cpp:156] Memory required for data: 14714800
I0426 04:43:58.619375  9765 layer_factory.hpp:77] Creating layer conv1
I0426 04:43:58.619621  9765 net.cpp:91] Creating Layer conv1
I0426 04:43:58.619678  9765 net.cpp:425] conv1 <- pool0
I0426 04:43:58.619786  9765 net.cpp:399] conv1 -> conv1
I0426 04:43:58.621654  9801 data_layer.cpp:102] Prefetch batch: 2 ms.
I0426 04:43:58.621673  9801 data_layer.cpp:103]      Read time: 0.38 ms.
I0426 04:43:58.621682  9801 data_layer.cpp:104] Transform time: 1.68 ms.
I0426 04:43:58.624320  9801 data_layer.cpp:102] Prefetch batch: 2 ms.
I0426 04:43:58.624335  9801 data_layer.cpp:103]      Read time: 0.322 ms.
I0426 04:43:58.624342  9801 data_layer.cpp:104] Transform time: 1.66 ms.
I0426 04:43:58.631201  9765 net.cpp:141] Setting up conv1
I0426 04:43:58.631240  9765 net.cpp:148] Top shape: 100 50 8 8 (320000)
I0426 04:43:58.631253  9765 net.cpp:156] Memory required for data: 15994800
I0426 04:43:58.631314  9765 layer_factory.hpp:77] Creating layer pool1
I0426 04:43:58.631361  9765 net.cpp:91] Creating Layer pool1
I0426 04:43:58.631386  9765 net.cpp:425] pool1 <- conv1
I0426 04:43:58.631443  9765 net.cpp:399] pool1 -> pool1
I0426 04:43:58.631531  9765 net.cpp:141] Setting up pool1
I0426 04:43:58.631561  9765 net.cpp:148] Top shape: 100 50 4 4 (80000)
I0426 04:43:58.631573  9765 net.cpp:156] Memory required for data: 16314800
I0426 04:43:58.631590  9765 layer_factory.hpp:77] Creating layer ip1
I0426 04:43:58.631639  9765 net.cpp:91] Creating Layer ip1
I0426 04:43:58.631661  9765 net.cpp:425] ip1 <- pool1
I0426 04:43:58.631708  9765 net.cpp:399] ip1 -> ip1
I0426 04:43:58.644408  9765 net.cpp:141] Setting up ip1
I0426 04:43:58.644445  9765 net.cpp:148] Top shape: 100 100 (10000)
I0426 04:43:58.644457  9765 net.cpp:156] Memory required for data: 16354800
I0426 04:43:58.644527  9765 layer_factory.hpp:77] Creating layer relu1
I0426 04:43:58.644572  9765 net.cpp:91] Creating Layer relu1
I0426 04:43:58.644593  9765 net.cpp:425] relu1 <- ip1
I0426 04:43:58.644649  9765 net.cpp:386] relu1 -> ip1 (in-place)
I0426 04:43:58.644696  9765 net.cpp:141] Setting up relu1
I0426 04:43:58.644714  9765 net.cpp:148] Top shape: 100 100 (10000)
I0426 04:43:58.644726  9765 net.cpp:156] Memory required for data: 16394800
I0426 04:43:58.644742  9765 layer_factory.hpp:77] Creating layer ip2
I0426 04:43:58.644804  9765 net.cpp:91] Creating Layer ip2
I0426 04:43:58.644840  9765 net.cpp:425] ip2 <- ip1
I0426 04:43:58.644892  9765 net.cpp:399] ip2 -> ip2
I0426 04:43:58.645215  9765 net.cpp:141] Setting up ip2
I0426 04:43:58.645246  9765 net.cpp:148] Top shape: 100 10 (1000)
I0426 04:43:58.645261  9765 net.cpp:156] Memory required for data: 16398800
I0426 04:43:58.645300  9765 layer_factory.hpp:77] Creating layer relu2
I0426 04:43:58.645336  9765 net.cpp:91] Creating Layer relu2
I0426 04:43:58.645359  9765 net.cpp:425] relu2 <- ip2
I0426 04:43:58.645403  9765 net.cpp:386] relu2 -> ip2 (in-place)
I0426 04:43:58.645447  9765 net.cpp:141] Setting up relu2
I0426 04:43:58.645468  9765 net.cpp:148] Top shape: 100 10 (1000)
I0426 04:43:58.645491  9765 net.cpp:156] Memory required for data: 16402800
I0426 04:43:58.645512  9765 layer_factory.hpp:77] Creating layer ip2_relu2_0_split
I0426 04:43:58.645543  9765 net.cpp:91] Creating Layer ip2_relu2_0_split
I0426 04:43:58.645561  9765 net.cpp:425] ip2_relu2_0_split <- ip2
I0426 04:43:58.645599  9765 net.cpp:399] ip2_relu2_0_split -> ip2_relu2_0_split_0
I0426 04:43:58.645645  9765 net.cpp:399] ip2_relu2_0_split -> ip2_relu2_0_split_1
I0426 04:43:58.645697  9765 net.cpp:141] Setting up ip2_relu2_0_split
I0426 04:43:58.645723  9765 net.cpp:148] Top shape: 100 10 (1000)
I0426 04:43:58.645742  9765 net.cpp:148] Top shape: 100 10 (1000)
I0426 04:43:58.645756  9765 net.cpp:156] Memory required for data: 16410800
I0426 04:43:58.645774  9765 layer_factory.hpp:77] Creating layer accuracy
I0426 04:43:58.645820  9765 net.cpp:91] Creating Layer accuracy
I0426 04:43:58.645844  9765 net.cpp:425] accuracy <- ip2_relu2_0_split_0
I0426 04:43:58.645877  9765 net.cpp:425] accuracy <- label_mnist_1_split_0
I0426 04:43:58.645920  9765 net.cpp:399] accuracy -> accuracy
…
