…
I0425 22:12:03.422595 31382 net.cpp:313] The NetState phase (0) differed from the phase (1) specified by a rule in layer mnist
I0425 22:12:03.422756 31382 net.cpp:313] The NetState phase (0) differed from the phase (1) specified by a rule in layer accuracy
I0425 22:12:03.423241 31382 net.cpp:49] Initializing net from parameters: 
name: "LeNet"
state {
  phase: TRAIN
}
layer {
  name: "mnist"
  type: "Data"
  top: "data"
  top: "label"
  include {
    phase: TRAIN
  }
  transform_param {
    scale: 0.00390625
  }
  data_param {
    source: "examples/mnist/mnist_train_lmdb"
    batch_size: 64
    backend: LMDB
  }
}
layer {
  name: "conv0"
  type: "Convolution"
  bottom: "data"
  top: "conv0"
  param {
    lr_mult: 1
  }
  param {
    lr_mult: 2
  }
  convolution_param {
    num_output: 50
    kernel_size: 5
    stride: 1
    weight_filler {
      type: "xavier"
    }
    bias_filler {
      type: "constant"
    }
  }
}
layer {
  name: "pool0"
  type: "Pooling"
  bottom: "conv0"
  top: "pool0"
  pooling_param {
    pool: MAX
    kernel_size: 2
    stride: 2
  }
}
layer {
  name: "conv1"
  type: "Convolution"
  bottom: "pool0"
  top: "conv1"
  param {
    lr_mult: 1
  }
  param {
    lr_mult: 2
  }
  convolution_param {
    num_output: 50
    kernel_size: 5
    stride: 1
    weight_filler {
      type: "xavier"
    }
    bias_filler {
      type: "constant"
    }
  }
}
layer {
  name: "pool1"
  type: "Pooling"
  bottom: "conv1"
  top: "pool1"
  pooling_param {
    pool: MAX
    kernel_size: 2
    stride: 2
  }
}
layer {
  name: "ip1"
  type: "InnerProduct"
  bottom: "pool1"
  top: "ip1"
  param {
    lr_mult: 1
  }
  param {
    lr_mult: 2
  }
  inner_product_param {
    num_output: 100
    weight_filler {
      type: "xavier"
    }
    bias_filler {
      type: "constant"
    }
  }
}
layer {
  name: "relu1"
  type: "ReLU"
  bottom: "ip1"
  top: "ip1"
}
layer {
  name: "ip2"
  type: "InnerProduct"
  bottom: "ip1"
  top: "ip2"
  param {
    lr_mult: 1
  }
  param {
    lr_mult: 2
  }
  inner_product_param {
    num_output: 100
    weight_filler {
      type: "xavier"
    }
    bias_filler {
      type: "constant"
    }
  }
}
layer {
  name: "relu2"
  type: "ReLU"
  bottom: "ip2"
  top: "ip2"
}
layer {
  name: "ip3"
  type: "InnerProduct"
  bottom: "ip2"
  top: "ip3"
  param {
    lr_mult: 1
  }
  param {
    lr_mult: 2
  }
  inner_product_param {
    num_output: 10
    weight_filler {
      type: "xavier"
    }
    bias_filler {
      type: "constant"
    }
  }
}
layer {
  name: "relu3"
  type: "ReLU"
  bottom: "ip3"
  top: "ip3"
}
layer {
  name: "loss"
  type: "SoftmaxWithLoss"
  bottom: "ip3"
  bottom: "label"
  top: "loss"
}
I0425 22:12:03.424384 31382 layer_factory.hpp:77] Creating layer mnist
I0425 22:12:03.427605 31382 net.cpp:91] Creating Layer mnist
I0425 22:12:03.430832 31418 db_lmdb.cpp:35] Opened lmdb examples/mnist/mnist_train_lmdb
I0425 22:12:03.433962 31382 net.cpp:399] mnist -> data
I0425 22:12:03.434238 31382 net.cpp:399] mnist -> label
I0425 22:12:03.434501 31382 data_layer.cpp:41] output data size: 64,1,28,28
I0425 22:12:03.435302 31382 base_data_layer.cpp:69] Initializing prefetch
I0425 22:12:03.435423 31382 base_data_layer.cpp:72] Prefetch initialized.
I0425 22:12:03.435464 31382 net.cpp:141] Setting up mnist
I0425 22:12:03.435547 31382 net.cpp:148] Top shape: 64 1 28 28 (50176)
I0425 22:12:03.435590 31382 net.cpp:148] Top shape: 64 (64)
I0425 22:12:03.435621 31382 net.cpp:156] Memory required for data: 200960
I0425 22:12:03.435698 31382 layer_factory.hpp:77] Creating layer conv0
I0425 22:12:03.435823 31382 net.cpp:91] Creating Layer conv0
I0425 22:12:03.435897 31382 net.cpp:425] conv0 <- data
I0425 22:12:03.436023 31382 net.cpp:399] conv0 -> conv0
I0425 22:12:03.438522 31419 data_layer.cpp:102] Prefetch batch: 2 ms.
I0425 22:12:03.438585 31419 data_layer.cpp:103]      Read time: 0.284 ms.
I0425 22:12:03.438609 31419 data_layer.cpp:104] Transform time: 1.207 ms.
I0425 22:12:03.439036 31382 net.cpp:141] Setting up conv0
I0425 22:12:03.439095 31382 net.cpp:148] Top shape: 64 50 24 24 (1843200)
I0425 22:12:03.440012 31382 net.cpp:156] Memory required for data: 7573760
I0425 22:12:03.440237 31382 layer_factory.hpp:77] Creating layer pool0
I0425 22:12:03.440522 31382 net.cpp:91] Creating Layer pool0
I0425 22:12:03.440698 31382 net.cpp:425] pool0 <- conv0
I0425 22:12:03.440860 31382 net.cpp:399] pool0 -> pool0
I0425 22:12:03.441143 31382 net.cpp:141] Setting up pool0
I0425 22:12:03.441362 31382 net.cpp:148] Top shape: 64 50 12 12 (460800)
I0425 22:12:03.441370 31419 data_layer.cpp:102] Prefetch batch: 2 ms.
I0425 22:12:03.441498 31419 data_layer.cpp:103]      Read time: 0.274 ms.
I0425 22:12:03.441468 31382 net.cpp:156] Memory required for data: 9416960
I0425 22:12:03.441519 31419 data_layer.cpp:104] Transform time: 1.132 ms.
I0425 22:12:03.441566 31382 layer_factory.hpp:77] Creating layer conv1
I0425 22:12:03.441829 31382 net.cpp:91] Creating Layer conv1
I0425 22:12:03.441872 31382 net.cpp:425] conv1 <- pool0
I0425 22:12:03.441962 31382 net.cpp:399] conv1 -> conv1
I0425 22:12:03.444313 31419 data_layer.cpp:102] Prefetch batch: 2 ms.
I0425 22:12:03.444345 31419 data_layer.cpp:103]      Read time: 0.274 ms.
I0425 22:12:03.444365 31419 data_layer.cpp:104] Transform time: 1.12 ms.
I0425 22:12:03.469802 31382 net.cpp:141] Setting up conv1
I0425 22:12:03.469856 31382 net.cpp:148] Top shape: 64 50 8 8 (204800)
I0425 22:12:03.469878 31382 net.cpp:156] Memory required for data: 10236160
I0425 22:12:03.469972 31382 layer_factory.hpp:77] Creating layer pool1
I0425 22:12:03.470043 31382 net.cpp:91] Creating Layer pool1
I0425 22:12:03.470078 31382 net.cpp:425] pool1 <- conv1
I0425 22:12:03.470144 31382 net.cpp:399] pool1 -> pool1
I0425 22:12:03.470243 31382 net.cpp:141] Setting up pool1
I0425 22:12:03.470283 31382 net.cpp:148] Top shape: 64 50 4 4 (51200)
I0425 22:12:03.470306 31382 net.cpp:156] Memory required for data: 10440960
I0425 22:12:03.470336 31382 layer_factory.hpp:77] Creating layer ip1
I0425 22:12:03.470404 31382 net.cpp:91] Creating Layer ip1
I0425 22:12:03.470438 31382 net.cpp:425] ip1 <- pool1
I0425 22:12:03.470507 31382 net.cpp:399] ip1 -> ip1
I0425 22:12:03.502058 31382 net.cpp:141] Setting up ip1
I0425 22:12:03.502109 31382 net.cpp:148] Top shape: 64 100 (6400)
I0425 22:12:03.502122 31382 net.cpp:156] Memory required for data: 10466560
I0425 22:12:03.502192 31382 layer_factory.hpp:77] Creating layer relu1
I0425 22:12:03.502249 31382 net.cpp:91] Creating Layer relu1
I0425 22:12:03.502276 31382 net.cpp:425] relu1 <- ip1
I0425 22:12:03.502321 31382 net.cpp:386] relu1 -> ip1 (in-place)
I0425 22:12:03.502369 31382 net.cpp:141] Setting up relu1
I0425 22:12:03.502393 31382 net.cpp:148] Top shape: 64 100 (6400)
I0425 22:12:03.502406 31382 net.cpp:156] Memory required for data: 10492160
I0425 22:12:03.502425 31382 layer_factory.hpp:77] Creating layer ip2
I0425 22:12:03.502470 31382 net.cpp:91] Creating Layer ip2
I0425 22:12:03.502493 31382 net.cpp:425] ip2 <- ip1
I0425 22:12:03.502557 31382 net.cpp:399] ip2 -> ip2
I0425 22:12:03.504257 31382 net.cpp:141] Setting up ip2
I0425 22:12:03.504292 31382 net.cpp:148] Top shape: 64 100 (6400)
I0425 22:12:03.504303 31382 net.cpp:156] Memory required for data: 10517760
I0425 22:12:03.504343 31382 layer_factory.hpp:77] Creating layer relu2
I0425 22:12:03.504385 31382 net.cpp:91] Creating Layer relu2
I0425 22:12:03.504410 31382 net.cpp:425] relu2 <- ip2
I0425 22:12:03.504451 31382 net.cpp:386] relu2 -> ip2 (in-place)
I0425 22:12:03.504497 31382 net.cpp:141] Setting up relu2
I0425 22:12:03.504529 31382 net.cpp:148] Top shape: 64 100 (6400)
I0425 22:12:03.504545 31382 net.cpp:156] Memory required for data: 10543360
I0425 22:12:03.504580 31382 layer_factory.hpp:77] Creating layer ip3
I0425 22:12:03.504621 31382 net.cpp:91] Creating Layer ip3
I0425 22:12:03.504647 31382 net.cpp:425] ip3 <- ip2
I0425 22:12:03.504695 31382 net.cpp:399] ip3 -> ip3
I0425 22:12:03.504972 31382 net.cpp:141] Setting up ip3
I0425 22:12:03.505007 31382 net.cpp:148] Top shape: 64 10 (640)
I0425 22:12:03.505018 31382 net.cpp:156] Memory required for data: 10545920
I0425 22:12:03.505077 31382 layer_factory.hpp:77] Creating layer relu3
I0425 22:12:03.505122 31382 net.cpp:91] Creating Layer relu3
I0425 22:12:03.505146 31382 net.cpp:425] relu3 <- ip3
I0425 22:12:03.505187 31382 net.cpp:386] relu3 -> ip3 (in-place)
I0425 22:12:03.505230 31382 net.cpp:141] Setting up relu3
I0425 22:12:03.505252 31382 net.cpp:148] Top shape: 64 10 (640)
I0425 22:12:03.505265 31382 net.cpp:156] Memory required for data: 10548480
I0425 22:12:03.505285 31382 layer_factory.hpp:77] Creating layer loss
I0425 22:12:03.505338 31382 net.cpp:91] Creating Layer loss
I0425 22:12:03.505362 31382 net.cpp:425] loss <- ip3
I0425 22:12:03.505398 31382 net.cpp:425] loss <- label
I0425 22:12:03.505437 31382 net.cpp:399] loss -> loss
I0425 22:12:03.505508 31382 layer_factory.hpp:77] Creating layer loss
…
I0425 22:12:03.507544 31382 solver.cpp:181] Creating test net (#0) specified by net file: ECE595/mnist/train_test/var_fcl/lenet_train_test_fcl3.prototxt
I0425 22:12:03.507746 31382 net.cpp:313] The NetState phase (1) differed from the phase (0) specified by a rule in layer mnist
I0425 22:12:03.508128 31382 net.cpp:49] Initializing net from parameters: 
name: "LeNet"
state {
  phase: TEST
}
layer {
  name: "mnist"
  type: "Data"
  top: "data"
  top: "label"
  include {
    phase: TEST
  }
  transform_param {
    scale: 0.00390625
  }
  data_param {
    source: "examples/mnist/mnist_test_lmdb"
    batch_size: 100
    backend: LMDB
  }
}
layer {
  name: "conv0"
  type: "Convolution"
  bottom: "data"
  top: "conv0"
  param {
    lr_mult: 1
  }
  param {
    lr_mult: 2
  }
  convolution_param {
    num_output: 50
    kernel_size: 5
    stride: 1
    weight_filler {
      type: "xavier"
    }
    bias_filler {
      type: "constant"
    }
  }
}
layer {
  name: "pool0"
  type: "Pooling"
  bottom: "conv0"
  top: "pool0"
  pooling_param {
    pool: MAX
    kernel_size: 2
    stride: 2
  }
}
layer {
  name: "conv1"
  type: "Convolution"
  bottom: "pool0"
  top: "conv1"
  param {
    lr_mult: 1
  }
  param {
    lr_mult: 2
  }
  convolution_param {
    num_output: 50
    kernel_size: 5
    stride: 1
    weight_filler {
      type: "xavier"
    }
    bias_filler {
      type: "constant"
    }
  }
}
layer {
  name: "pool1"
  type: "Pooling"
  bottom: "conv1"
  top: "pool1"
  pooling_param {
    pool: MAX
    kernel_size: 2
    stride: 2
  }
}
layer {
  name: "ip1"
  type: "InnerProduct"
  bottom: "pool1"
  top: "ip1"
  param {
    lr_mult: 1
  }
  param {
    lr_mult: 2
  }
  inner_product_param {
    num_output: 100
    weight_filler {
      type: "xavier"
    }
    bias_filler {
      type: "constant"
    }
  }
}
layer {
  name: "relu1"
  type: "ReLU"
  bottom: "ip1"
  top: "ip1"
}
layer {
  name: "ip2"
  type: "InnerProduct"
  bottom: "ip1"
  top: "ip2"
  param {
    lr_mult: 1
  }
  param {
    lr_mult: 2
  }
  inner_product_param {
    num_output: 100
    weight_filler {
      type: "xavier"
    }
    bias_filler {
      type: "constant"
    }
  }
}
layer {
  name: "relu2"
  type: "ReLU"
  bottom: "ip2"
  top: "ip2"
}
layer {
  name: "ip3"
  type: "InnerProduct"
  bottom: "ip2"
  top: "ip3"
  param {
    lr_mult: 1
  }
  param {
    lr_mult: 2
  }
  inner_product_param {
    num_output: 10
    weight_filler {
      type: "xavier"
    }
    bias_filler {
      type: "constant"
    }
  }
}
layer {
  name: "relu3"
  type: "ReLU"
  bottom: "ip3"
  top: "ip3"
}
layer {
  name: "accuracy"
  type: "Accuracy"
  bottom: "ip3"
  bottom: "label"
  top: "accuracy"
  include {
    phase: TEST
  }
}
layer {
  name: "loss"
  type: "SoftmaxWithLoss"
  bottom: "ip3"
  bottom: "label"
  top: "loss"
}
I0425 22:12:03.508777 31382 layer_factory.hpp:77] Creating layer mnist
I0425 22:12:03.509241 31382 net.cpp:91] Creating Layer mnist
I0425 22:12:03.509351 31382 net.cpp:399] mnist -> data
I0425 22:12:03.509440 31382 net.cpp:399] mnist -> label
I0425 22:12:03.513000 31420 db_lmdb.cpp:35] Opened lmdb examples/mnist/mnist_test_lmdb
I0425 22:12:03.513528 31382 data_layer.cpp:41] output data size: 100,1,28,28
I0425 22:12:03.514519 31382 base_data_layer.cpp:69] Initializing prefetch
I0425 22:12:03.514636 31382 base_data_layer.cpp:72] Prefetch initialized.
I0425 22:12:03.514660 31382 net.cpp:141] Setting up mnist
I0425 22:12:03.514695 31382 net.cpp:148] Top shape: 100 1 28 28 (78400)
I0425 22:12:03.514722 31382 net.cpp:148] Top shape: 100 (100)
I0425 22:12:03.514742 31382 net.cpp:156] Memory required for data: 314000
I0425 22:12:03.514786 31382 layer_factory.hpp:77] Creating layer label_mnist_1_split
I0425 22:12:03.514864 31382 net.cpp:91] Creating Layer label_mnist_1_split
I0425 22:12:03.514894 31382 net.cpp:425] label_mnist_1_split <- label
I0425 22:12:03.514953 31382 net.cpp:399] label_mnist_1_split -> label_mnist_1_split_0
I0425 22:12:03.515022 31382 net.cpp:399] label_mnist_1_split -> label_mnist_1_split_1
I0425 22:12:03.515094 31382 net.cpp:141] Setting up label_mnist_1_split
I0425 22:12:03.515125 31382 net.cpp:148] Top shape: 100 (100)
I0425 22:12:03.515149 31382 net.cpp:148] Top shape: 100 (100)
I0425 22:12:03.515166 31382 net.cpp:156] Memory required for data: 314800
I0425 22:12:03.515189 31382 layer_factory.hpp:77] Creating layer conv0
I0425 22:12:03.515281 31382 net.cpp:91] Creating Layer conv0
I0425 22:12:03.515313 31382 net.cpp:425] conv0 <- data
I0425 22:12:03.515378 31382 net.cpp:399] conv0 -> conv0
I0425 22:12:03.515846 31382 net.cpp:141] Setting up conv0
I0425 22:12:03.515888 31382 net.cpp:148] Top shape: 100 50 24 24 (2880000)
I0425 22:12:03.515908 31382 net.cpp:156] Memory required for data: 11834800
I0425 22:12:03.515998 31382 layer_factory.hpp:77] Creating layer pool0
I0425 22:12:03.516057 31382 net.cpp:91] Creating Layer pool0
I0425 22:12:03.516083 31382 net.cpp:425] pool0 <- conv0
I0425 22:12:03.516146 31382 net.cpp:399] pool0 -> pool0
I0425 22:12:03.516233 31382 net.cpp:141] Setting up pool0
I0425 22:12:03.516268 31382 net.cpp:148] Top shape: 100 50 12 12 (720000)
I0425 22:12:03.516288 31382 net.cpp:156] Memory required for data: 14714800
I0425 22:12:03.516304 31421 data_layer.cpp:102] Prefetch batch: 1 ms.
I0425 22:12:03.516310 31382 layer_factory.hpp:77] Creating layer conv1
I0425 22:12:03.516330 31421 data_layer.cpp:103]      Read time: 0.216 ms.
I0425 22:12:03.516346 31421 data_layer.cpp:104] Transform time: 1.004 ms.
I0425 22:12:03.516415 31382 net.cpp:91] Creating Layer conv1
I0425 22:12:03.516453 31382 net.cpp:425] conv1 <- pool0
I0425 22:12:03.516544 31382 net.cpp:399] conv1 -> conv1
I0425 22:12:03.517906 31421 data_layer.cpp:102] Prefetch batch: 1 ms.
I0425 22:12:03.517920 31421 data_layer.cpp:103]      Read time: 0.173 ms.
I0425 22:12:03.517925 31421 data_layer.cpp:104] Transform time: 0.991 ms.
I0425 22:12:03.519652 31421 data_layer.cpp:102] Prefetch batch: 1 ms.
I0425 22:12:03.519662 31421 data_layer.cpp:103]      Read time: 0.163 ms.
I0425 22:12:03.519667 31421 data_layer.cpp:104] Transform time: 1.027 ms.
I0425 22:12:03.527016 31382 net.cpp:141] Setting up conv1
I0425 22:12:03.527055 31382 net.cpp:148] Top shape: 100 50 8 8 (320000)
I0425 22:12:03.527067 31382 net.cpp:156] Memory required for data: 15994800
I0425 22:12:03.527129 31382 layer_factory.hpp:77] Creating layer pool1
I0425 22:12:03.527178 31382 net.cpp:91] Creating Layer pool1
I0425 22:12:03.527202 31382 net.cpp:425] pool1 <- conv1
I0425 22:12:03.527247 31382 net.cpp:399] pool1 -> pool1
I0425 22:12:03.527320 31382 net.cpp:141] Setting up pool1
I0425 22:12:03.527349 31382 net.cpp:148] Top shape: 100 50 4 4 (80000)
I0425 22:12:03.527362 31382 net.cpp:156] Memory required for data: 16314800
I0425 22:12:03.527382 31382 layer_factory.hpp:77] Creating layer ip1
I0425 22:12:03.527433 31382 net.cpp:91] Creating Layer ip1
I0425 22:12:03.527458 31382 net.cpp:425] ip1 <- pool1
I0425 22:12:03.527508 31382 net.cpp:399] ip1 -> ip1
I0425 22:12:03.540108 31382 net.cpp:141] Setting up ip1
I0425 22:12:03.540144 31382 net.cpp:148] Top shape: 100 100 (10000)
I0425 22:12:03.540158 31382 net.cpp:156] Memory required for data: 16354800
I0425 22:12:03.540216 31382 layer_factory.hpp:77] Creating layer relu1
I0425 22:12:03.540263 31382 net.cpp:91] Creating Layer relu1
I0425 22:12:03.540288 31382 net.cpp:425] relu1 <- ip1
I0425 22:12:03.540330 31382 net.cpp:386] relu1 -> ip1 (in-place)
I0425 22:12:03.540376 31382 net.cpp:141] Setting up relu1
I0425 22:12:03.540398 31382 net.cpp:148] Top shape: 100 100 (10000)
I0425 22:12:03.540411 31382 net.cpp:156] Memory required for data: 16394800
I0425 22:12:03.540429 31382 layer_factory.hpp:77] Creating layer ip2
I0425 22:12:03.540479 31382 net.cpp:91] Creating Layer ip2
I0425 22:12:03.540503 31382 net.cpp:425] ip2 <- ip1
I0425 22:12:03.540550 31382 net.cpp:399] ip2 -> ip2
I0425 22:12:03.542320 31382 net.cpp:141] Setting up ip2
I0425 22:12:03.542353 31382 net.cpp:148] Top shape: 100 100 (10000)
I0425 22:12:03.542366 31382 net.cpp:156] Memory required for data: 16434800
I0425 22:12:03.542403 31382 layer_factory.hpp:77] Creating layer relu2
I0425 22:12:03.542441 31382 net.cpp:91] Creating Layer relu2
I0425 22:12:03.542464 31382 net.cpp:425] relu2 <- ip2
I0425 22:12:03.542511 31382 net.cpp:386] relu2 -> ip2 (in-place)
I0425 22:12:03.542556 31382 net.cpp:141] Setting up relu2
I0425 22:12:03.542577 31382 net.cpp:148] Top shape: 100 100 (10000)
I0425 22:12:03.542592 31382 net.cpp:156] Memory required for data: 16474800
I0425 22:12:03.542619 31382 layer_factory.hpp:77] Creating layer ip3
I0425 22:12:03.542665 31382 net.cpp:91] Creating Layer ip3
I0425 22:12:03.542687 31382 net.cpp:425] ip3 <- ip2
I0425 22:12:03.542742 31382 net.cpp:399] ip3 -> ip3
I0425 22:12:03.543066 31382 net.cpp:141] Setting up ip3
I0425 22:12:03.543102 31382 net.cpp:148] Top shape: 100 10 (1000)
I0425 22:12:03.543117 31382 net.cpp:156] Memory required for data: 16478800
I0425 22:12:03.543176 31382 layer_factory.hpp:77] Creating layer relu3
I0425 22:12:03.543215 31382 net.cpp:91] Creating Layer relu3
I0425 22:12:03.543238 31382 net.cpp:425] relu3 <- ip3
I0425 22:12:03.543278 31382 net.cpp:386] relu3 -> ip3 (in-place)
I0425 22:12:03.543321 31382 net.cpp:141] Setting up relu3
I0425 22:12:03.543344 31382 net.cpp:148] Top shape: 100 10 (1000)
I0425 22:12:03.543356 31382 net.cpp:156] Memory required for data: 16482800
I0425 22:12:03.543375 31382 layer_factory.hpp:77] Creating layer ip3_relu3_0_split
I0425 22:12:03.543411 31382 net.cpp:91] Creating Layer ip3_relu3_0_split
I0425 22:12:03.543433 31382 net.cpp:425] ip3_relu3_0_split <- ip3
I0425 22:12:03.543473 31382 net.cpp:399] ip3_relu3_0_split -> ip3_relu3_0_split_0
I0425 22:12:03.543536 31382 net.cpp:399] ip3_relu3_0_split -> ip3_relu3_0_split_1
I0425 22:12:03.543591 31382 net.cpp:141] Setting up ip3_relu3_0_split
I0425 22:12:03.543634 31382 net.cpp:148] Top shape: 100 10 (1000)
I0425 22:12:03.543655 31382 net.cpp:148] Top shape: 100 10 (1000)
I0425 22:12:03.543668 31382 net.cpp:156] Memory required for data: 16490800
I0425 22:12:03.543689 31382 layer_factory.hpp:77] Creating layer accuracy
I0425 22:12:03.543736 31382 net.cpp:91] Creating Layer accuracy
I0425 22:12:03.543761 31382 net.cpp:425] accuracy <- ip3_relu3_0_split_0
I0425 22:12:03.543797 31382 net.cpp:425] accuracy <- label_mnist_1_split_0
I0425 22:12:03.543834 31382 net.cpp:399] accuracy -> accuracy
…
