…
I0426 01:45:39.521957  5363 net.cpp:313] The NetState phase (0) differed from the phase (1) specified by a rule in layer mnist
I0426 01:45:39.522013  5363 net.cpp:313] The NetState phase (0) differed from the phase (1) specified by a rule in layer accuracy
I0426 01:45:39.522187  5363 net.cpp:49] Initializing net from parameters: 
name: "LeNet"
state {
  phase: TRAIN
}
layer {
  name: "mnist"
  type: "Data"
  top: "data"
  top: "label"
  include {
    phase: TRAIN
  }
  transform_param {
    scale: 0.00390625
  }
  data_param {
    source: "examples/mnist/mnist_train_lmdb"
    batch_size: 64
    backend: LMDB
  }
}
layer {
  name: "conv0"
  type: "Convolution"
  bottom: "data"
  top: "conv0"
  param {
    lr_mult: 1
  }
  param {
    lr_mult: 2
  }
  convolution_param {
    num_output: 50
    kernel_size: 5
    stride: 1
    weight_filler {
      type: "xavier"
    }
    bias_filler {
      type: "constant"
    }
  }
}
layer {
  name: "pool0"
  type: "Pooling"
  bottom: "conv0"
  top: "pool0"
  pooling_param {
    pool: MAX
    kernel_size: 2
    stride: 2
  }
}
layer {
  name: "conv1"
  type: "Convolution"
  bottom: "pool0"
  top: "conv1"
  param {
    lr_mult: 1
  }
  param {
    lr_mult: 2
  }
  convolution_param {
    num_output: 50
    kernel_size: 5
    stride: 1
    weight_filler {
      type: "xavier"
    }
    bias_filler {
      type: "constant"
    }
  }
}
layer {
  name: "pool1"
  type: "Pooling"
  bottom: "conv1"
  top: "pool1"
  pooling_param {
    pool: MAX
    kernel_size: 2
    stride: 2
  }
}
layer {
  name: "ip1"
  type: "InnerProduct"
  bottom: "pool1"
  top: "ip1"
  param {
    lr_mult: 1
  }
  param {
    lr_mult: 2
  }
  inner_product_param {
    num_output: 100
    weight_filler {
      type: "xavier"
    }
    bias_filler {
      type: "constant"
    }
  }
}
layer {
  name: "relu1"
  type: "ReLU"
  bottom: "ip1"
  top: "ip1"
}
layer {
  name: "ip2"
  type: "InnerProduct"
  bottom: "ip1"
  top: "ip2"
  param {
    lr_mult: 1
  }
  param {
    lr_mult: 2
  }
  inner_product_param {
    num_output: 10
    weight_filler {
      type: "xavier"
    }
    bias_filler {
      type: "constant"
    }
  }
}
layer {
  name: "relu2"
  type: "ReLU"
  bottom: "ip2"
  top: "ip2"
}
layer {
  name: "loss"
  type: "SoftmaxWithLoss"
  bottom: "ip2"
  bottom: "label"
  top: "loss"
}
I0426 01:45:39.522626  5363 layer_factory.hpp:77] Creating layer mnist
I0426 01:45:39.523903  5363 net.cpp:91] Creating Layer mnist
I0426 01:45:39.523942  5363 net.cpp:399] mnist -> data
I0426 01:45:39.524056  5363 net.cpp:399] mnist -> label
I0426 01:45:39.528620  5396 db_lmdb.cpp:35] Opened lmdb examples/mnist/mnist_train_lmdb
I0426 01:45:39.529047  5363 data_layer.cpp:41] output data size: 64,1,28,28
I0426 01:45:39.529428  5363 base_data_layer.cpp:69] Initializing prefetch
I0426 01:45:39.529485  5363 base_data_layer.cpp:72] Prefetch initialized.
I0426 01:45:39.529498  5363 net.cpp:141] Setting up mnist
I0426 01:45:39.529531  5363 net.cpp:148] Top shape: 64 1 28 28 (50176)
I0426 01:45:39.529548  5363 net.cpp:148] Top shape: 64 (64)
I0426 01:45:39.529558  5363 net.cpp:156] Memory required for data: 200960
I0426 01:45:39.529582  5363 layer_factory.hpp:77] Creating layer conv0
I0426 01:45:39.529642  5363 net.cpp:91] Creating Layer conv0
I0426 01:45:39.529664  5363 net.cpp:425] conv0 <- data
I0426 01:45:39.529714  5363 net.cpp:399] conv0 -> conv0
I0426 01:45:39.530072  5363 net.cpp:141] Setting up conv0
I0426 01:45:39.530095  5363 net.cpp:148] Top shape: 64 50 24 24 (1843200)
I0426 01:45:39.530107  5363 net.cpp:156] Memory required for data: 7573760
I0426 01:45:39.530186  5363 layer_factory.hpp:77] Creating layer pool0
I0426 01:45:39.530221  5363 net.cpp:91] Creating Layer pool0
I0426 01:45:39.530237  5363 net.cpp:425] pool0 <- conv0
I0426 01:45:39.530277  5363 net.cpp:399] pool0 -> pool0
I0426 01:45:39.530334  5363 net.cpp:141] Setting up pool0
I0426 01:45:39.530354  5363 net.cpp:148] Top shape: 64 50 12 12 (460800)
I0426 01:45:39.530366  5363 net.cpp:156] Memory required for data: 9416960
I0426 01:45:39.530380  5363 layer_factory.hpp:77] Creating layer conv1
I0426 01:45:39.530416  5363 net.cpp:91] Creating Layer conv1
I0426 01:45:39.530432  5363 net.cpp:425] conv1 <- pool0
I0426 01:45:39.530467  5363 net.cpp:399] conv1 -> conv1
I0426 01:45:39.536324  5363 net.cpp:141] Setting up conv1
I0426 01:45:39.536345  5363 net.cpp:148] Top shape: 64 50 8 8 (204800)
I0426 01:45:39.536355  5363 net.cpp:156] Memory required for data: 10236160
I0426 01:45:39.536392  5363 layer_factory.hpp:77] Creating layer pool1
I0426 01:45:39.536420  5363 net.cpp:91] Creating Layer pool1
I0426 01:45:39.536435  5363 net.cpp:425] pool1 <- conv1
I0426 01:45:39.536463  5363 net.cpp:399] pool1 -> pool1
I0426 01:45:39.536504  5363 net.cpp:141] Setting up pool1
I0426 01:45:39.536521  5363 net.cpp:148] Top shape: 64 50 4 4 (51200)
I0426 01:45:39.536531  5363 net.cpp:156] Memory required for data: 10440960
I0426 01:45:39.536545  5363 layer_factory.hpp:77] Creating layer ip1
I0426 01:45:39.536572  5363 net.cpp:91] Creating Layer ip1
I0426 01:45:39.536586  5363 net.cpp:425] ip1 <- pool1
I0426 01:45:39.536617  5363 net.cpp:399] ip1 -> ip1
I0426 01:45:39.542979  5397 data_layer.cpp:102] Prefetch batch: 2 ms.
I0426 01:45:39.543025  5397 data_layer.cpp:103]      Read time: 0.217 ms.
I0426 01:45:39.543041  5397 data_layer.cpp:104] Transform time: 1.164 ms.
I0426 01:45:39.544653  5363 net.cpp:141] Setting up ip1
I0426 01:45:39.544677  5363 net.cpp:148] Top shape: 64 100 (6400)
I0426 01:45:39.544687  5363 net.cpp:156] Memory required for data: 10466560
I0426 01:45:39.544728  5363 layer_factory.hpp:77] Creating layer relu1
I0426 01:45:39.544756  5363 net.cpp:91] Creating Layer relu1
I0426 01:45:39.544770  5363 net.cpp:425] relu1 <- ip1
I0426 01:45:39.544795  5363 net.cpp:386] relu1 -> ip1 (in-place)
I0426 01:45:39.544823  5363 net.cpp:141] Setting up relu1
I0426 01:45:39.544838  5363 net.cpp:148] Top shape: 64 100 (6400)
I0426 01:45:39.544848  5363 net.cpp:156] Memory required for data: 10492160
I0426 01:45:39.544862  5363 layer_factory.hpp:77] Creating layer ip2
I0426 01:45:39.544886  5363 net.cpp:91] Creating Layer ip2
I0426 01:45:39.544900  5363 net.cpp:425] ip2 <- ip1
I0426 01:45:39.544931  5363 net.cpp:399] ip2 -> ip2
I0426 01:45:39.545086  5363 net.cpp:141] Setting up ip2
I0426 01:45:39.545104  5363 net.cpp:148] Top shape: 64 10 (640)
I0426 01:45:39.545115  5363 net.cpp:156] Memory required for data: 10494720
I0426 01:45:39.545141  5363 layer_factory.hpp:77] Creating layer relu2
I0426 01:45:39.545166  5363 net.cpp:91] Creating Layer relu2
I0426 01:45:39.545181  5363 net.cpp:425] relu2 <- ip2
I0426 01:45:39.545204  5363 net.cpp:386] relu2 -> ip2 (in-place)
I0426 01:45:39.545229  5363 net.cpp:141] Setting up relu2
I0426 01:45:39.545244  5363 net.cpp:148] Top shape: 64 10 (640)
I0426 01:45:39.545254  5363 net.cpp:156] Memory required for data: 10497280
I0426 01:45:39.545266  5363 layer_factory.hpp:77] Creating layer loss
I0426 01:45:39.545274  5397 data_layer.cpp:102] Prefetch batch: 2 ms.
I0426 01:45:39.545295  5363 net.cpp:91] Creating Layer loss
I0426 01:45:39.545315  5363 net.cpp:425] loss <- ip2
I0426 01:45:39.545337  5363 net.cpp:425] loss <- label
I0426 01:45:39.545362  5363 net.cpp:399] loss -> loss
…
I0426 01:45:39.551148  5363 solver.cpp:181] Creating test net (#0) specified by net file: ECE595/mnist/train_test/var_fcl/lenet_train_test_fcl2.prototxt
I0426 01:45:39.551743  5363 net.cpp:313] The NetState phase (1) differed from the phase (0) specified by a rule in layer mnist
I0426 01:45:39.552037  5363 net.cpp:49] Initializing net from parameters: 
name: "LeNet"
state {
  phase: TEST
}
layer {
  name: "mnist"
  type: "Data"
  top: "data"
  top: "label"
  include {
    phase: TEST
  }
  transform_param {
    scale: 0.00390625
  }
  data_param {
    source: "examples/mnist/mnist_test_lmdb"
    batch_size: 100
    backend: LMDB
  }
}
layer {
  name: "conv0"
  type: "Convolution"
  bottom: "data"
  top: "conv0"
  param {
    lr_mult: 1
  }
  param {
    lr_mult: 2
  }
  convolution_param {
    num_output: 50
    kernel_size: 5
    stride: 1
    weight_filler {
      type: "xavier"
    }
    bias_filler {
      type: "constant"
    }
  }
}
layer {
  name: "pool0"
  type: "Pooling"
  bottom: "conv0"
  top: "pool0"
  pooling_param {
    pool: MAX
    kernel_size: 2
    stride: 2
  }
}
layer {
  name: "conv1"
  type: "Convolution"
  bottom: "pool0"
  top: "conv1"
  param {
    lr_mult: 1
  }
  param {
    lr_mult: 2
  }
  convolution_param {
    num_output: 50
    kernel_size: 5
    stride: 1
    weight_filler {
      type: "xavier"
    }
    bias_filler {
      type: "constant"
    }
  }
}
layer {
  name: "pool1"
  type: "Pooling"
  bottom: "conv1"
  top: "pool1"
  pooling_param {
    pool: MAX
    kernel_size: 2
    stride: 2
  }
}
layer {
  name: "ip1"
  type: "InnerProduct"
  bottom: "pool1"
  top: "ip1"
  param {
    lr_mult: 1
  }
  param {
    lr_mult: 2
  }
  inner_product_param {
    num_output: 100
    weight_filler {
      type: "xavier"
    }
    bias_filler {
      type: "constant"
    }
  }
}
layer {
  name: "relu1"
  type: "ReLU"
  bottom: "ip1"
  top: "ip1"
}
layer {
  name: "ip2"
  type: "InnerProduct"
  bottom: "ip1"
  top: "ip2"
  param {
    lr_mult: 1
  }
  param {
    lr_mult: 2
  }
  inner_product_param {
    num_output: 10
    weight_filler {
      type: "xavier"
    }
    bias_filler {
      type: "constant"
    }
  }
}
layer {
  name: "relu2"
  type: "ReLU"
  bottom: "ip2"
  top: "ip2"
}
layer {
  name: "accuracy"
  type: "Accuracy"
  bottom: "ip2"
  bottom: "label"
  top: "accuracy"
  include {
    phase: TEST
  }
}
layer {
  name: "loss"
  type: "SoftmaxWithLoss"
  bottom: "ip2"
  bottom: "label"
  top: "loss"
}
I0426 01:45:39.553010  5363 layer_factory.hpp:77] Creating layer mnist
I0426 01:45:39.554360  5363 net.cpp:91] Creating Layer mnist
I0426 01:45:39.554633  5363 net.cpp:399] mnist -> data
I0426 01:45:39.554731  5363 net.cpp:399] mnist -> label
I0426 01:45:39.545296  5397 data_layer.cpp:103]      Read time: 0.207 ms.
I0426 01:45:39.555529  5397 data_layer.cpp:104] Transform time: 1.154 ms.
I0426 01:45:39.557791  5397 data_layer.cpp:102] Prefetch batch: 2 ms.
I0426 01:45:39.557812  5397 data_layer.cpp:103]      Read time: 0.205 ms.
I0426 01:45:39.557828  5397 data_layer.cpp:104] Transform time: 1.136 ms.
I0426 01:45:39.559756  5398 db_lmdb.cpp:35] Opened lmdb examples/mnist/mnist_test_lmdb
I0426 01:45:39.560109  5363 data_layer.cpp:41] output data size: 100,1,28,28
I0426 01:45:39.560679  5363 base_data_layer.cpp:69] Initializing prefetch
I0426 01:45:39.561133  5363 base_data_layer.cpp:72] Prefetch initialized.
I0426 01:45:39.561156  5363 net.cpp:141] Setting up mnist
I0426 01:45:39.561182  5363 net.cpp:148] Top shape: 100 1 28 28 (78400)
I0426 01:45:39.561203  5363 net.cpp:148] Top shape: 100 (100)
I0426 01:45:39.561221  5363 net.cpp:156] Memory required for data: 314000
I0426 01:45:39.561246  5363 layer_factory.hpp:77] Creating layer label_mnist_1_split
I0426 01:45:39.561295  5363 net.cpp:91] Creating Layer label_mnist_1_split
I0426 01:45:39.561321  5363 net.cpp:425] label_mnist_1_split <- label
I0426 01:45:39.561368  5363 net.cpp:399] label_mnist_1_split -> label_mnist_1_split_0
I0426 01:45:39.561416  5363 net.cpp:399] label_mnist_1_split -> label_mnist_1_split_1
I0426 01:45:39.561465  5363 net.cpp:141] Setting up label_mnist_1_split
I0426 01:45:39.561491  5363 net.cpp:148] Top shape: 100 (100)
I0426 01:45:39.561517  5363 net.cpp:148] Top shape: 100 (100)
I0426 01:45:39.561534  5363 net.cpp:156] Memory required for data: 314800
I0426 01:45:39.561555  5363 layer_factory.hpp:77] Creating layer conv0
I0426 01:45:39.561607  5363 net.cpp:91] Creating Layer conv0
I0426 01:45:39.561632  5363 net.cpp:425] conv0 <- data
I0426 01:45:39.561697  5363 net.cpp:399] conv0 -> conv0
I0426 01:45:39.561964  5363 net.cpp:141] Setting up conv0
I0426 01:45:39.561997  5363 net.cpp:148] Top shape: 100 50 24 24 (2880000)
I0426 01:45:39.562016  5363 net.cpp:156] Memory required for data: 11834800
I0426 01:45:39.562074  5363 layer_factory.hpp:77] Creating layer pool0
I0426 01:45:39.562113  5363 net.cpp:91] Creating Layer pool0
I0426 01:45:39.562136  5363 net.cpp:425] pool0 <- conv0
I0426 01:45:39.562175  5363 net.cpp:399] pool0 -> pool0
I0426 01:45:39.562242  5363 net.cpp:141] Setting up pool0
I0426 01:45:39.562271  5363 net.cpp:148] Top shape: 100 50 12 12 (720000)
I0426 01:45:39.562289  5363 net.cpp:156] Memory required for data: 14714800
I0426 01:45:39.562312  5363 layer_factory.hpp:77] Creating layer conv1
I0426 01:45:39.562360  5363 net.cpp:91] Creating Layer conv1
I0426 01:45:39.562382  5363 net.cpp:425] conv1 <- pool0
I0426 01:45:39.562433  5363 net.cpp:399] conv1 -> conv1
I0426 01:45:39.568567  5363 net.cpp:141] Setting up conv1
I0426 01:45:39.571208  5363 net.cpp:148] Top shape: 100 50 8 8 (320000)
I0426 01:45:39.571245  5363 net.cpp:156] Memory required for data: 15994800
I0426 01:45:39.571301  5363 layer_factory.hpp:77] Creating layer pool1
I0426 01:45:39.571380  5363 net.cpp:91] Creating Layer pool1
I0426 01:45:39.571434  5363 net.cpp:425] pool1 <- conv1
I0426 01:45:39.571486  5363 net.cpp:399] pool1 -> pool1
I0426 01:45:39.571573  5363 net.cpp:141] Setting up pool1
I0426 01:45:39.571665  5363 net.cpp:148] Top shape: 100 50 4 4 (80000)
I0426 01:45:39.571696  5363 net.cpp:156] Memory required for data: 16314800
I0426 01:45:39.571727  5363 layer_factory.hpp:77] Creating layer ip1
I0426 01:45:39.571776  5363 net.cpp:91] Creating Layer ip1
I0426 01:45:39.571826  5363 net.cpp:425] ip1 <- pool1
I0426 01:45:39.571879  5363 net.cpp:399] ip1 -> ip1
I0426 01:45:39.572031  5399 data_layer.cpp:102] Prefetch batch: 3 ms.
I0426 01:45:39.582521  5399 data_layer.cpp:103]      Read time: 0.339 ms.
I0426 01:45:39.582546  5399 data_layer.cpp:104] Transform time: 1.813 ms.
I0426 01:45:39.586076  5399 data_layer.cpp:102] Prefetch batch: 3 ms.
I0426 01:45:39.586102  5399 data_layer.cpp:103]      Read time: 0.34 ms.
I0426 01:45:39.586122  5399 data_layer.cpp:104] Transform time: 1.808 ms.
I0426 01:45:39.586263  5363 net.cpp:141] Setting up ip1
I0426 01:45:39.586660  5363 net.cpp:148] Top shape: 100 100 (10000)
I0426 01:45:39.586699  5363 net.cpp:156] Memory required for data: 16354800
I0426 01:45:39.586756  5363 layer_factory.hpp:77] Creating layer relu1
I0426 01:45:39.586829  5363 net.cpp:91] Creating Layer relu1
I0426 01:45:39.586874  5363 net.cpp:425] relu1 <- ip1
I0426 01:45:39.586926  5363 net.cpp:386] relu1 -> ip1 (in-place)
I0426 01:45:39.586995  5363 net.cpp:141] Setting up relu1
I0426 01:45:39.587049  5363 net.cpp:148] Top shape: 100 100 (10000)
I0426 01:45:39.587093  5363 net.cpp:156] Memory required for data: 16394800
I0426 01:45:39.587126  5363 layer_factory.hpp:77] Creating layer ip2
I0426 01:45:39.587182  5363 net.cpp:91] Creating Layer ip2
I0426 01:45:39.587249  5363 net.cpp:425] ip2 <- ip1
I0426 01:45:39.587311  5363 net.cpp:399] ip2 -> ip2
I0426 01:45:39.587524  5363 net.cpp:141] Setting up ip2
I0426 01:45:39.587736  5363 net.cpp:148] Top shape: 100 10 (1000)
I0426 01:45:39.587774  5363 net.cpp:156] Memory required for data: 16398800
I0426 01:45:39.587818  5363 layer_factory.hpp:77] Creating layer relu2
I0426 01:45:39.587877  5363 net.cpp:91] Creating Layer relu2
I0426 01:45:39.587921  5363 net.cpp:425] relu2 <- ip2
I0426 01:45:39.587975  5363 net.cpp:386] relu2 -> ip2 (in-place)
I0426 01:45:39.588042  5363 net.cpp:141] Setting up relu2
I0426 01:45:39.588094  5363 net.cpp:148] Top shape: 100 10 (1000)
I0426 01:45:39.588124  5363 net.cpp:156] Memory required for data: 16402800
I0426 01:45:39.588155  5363 layer_factory.hpp:77] Creating layer ip2_relu2_0_split
I0426 01:45:39.588196  5363 net.cpp:91] Creating Layer ip2_relu2_0_split
I0426 01:45:39.588238  5363 net.cpp:425] ip2_relu2_0_split <- ip2
I0426 01:45:39.588285  5363 net.cpp:399] ip2_relu2_0_split -> ip2_relu2_0_split_0
I0426 01:45:39.588352  5363 net.cpp:399] ip2_relu2_0_split -> ip2_relu2_0_split_1
I0426 01:45:39.588425  5363 net.cpp:141] Setting up ip2_relu2_0_split
I0426 01:45:39.588485  5363 net.cpp:148] Top shape: 100 10 (1000)
I0426 01:45:39.588526  5363 net.cpp:148] Top shape: 100 10 (1000)
I0426 01:45:39.588556  5363 net.cpp:156] Memory required for data: 16410800
I0426 01:45:39.588587  5363 layer_factory.hpp:77] Creating layer accuracy
I0426 01:45:39.588634  5363 net.cpp:91] Creating Layer accuracy
I0426 01:45:39.588709  5363 net.cpp:425] accuracy <- ip2_relu2_0_split_0
I0426 01:45:39.588753  5363 net.cpp:425] accuracy <- label_mnist_1_split_0
I0426 01:45:39.588814  5363 net.cpp:399] accuracy -> accuracy
…
