…
I0425 21:05:11.034957 28597 net.cpp:313] The NetState phase (0) differed from the phase (1) specified by a rule in layer mnist
I0425 21:05:11.035095 28597 net.cpp:313] The NetState phase (0) differed from the phase (1) specified by a rule in layer accuracy
I0425 21:05:11.035531 28597 net.cpp:49] Initializing net from parameters: 
name: "LeNet"
state {
  phase: TRAIN
}
layer {
  name: "mnist"
  type: "Data"
  top: "data"
  top: "label"
  include {
    phase: TRAIN
  }
  transform_param {
    scale: 0.00390625
  }
  data_param {
    source: "examples/mnist/mnist_train_lmdb"
    batch_size: 64
    backend: LMDB
  }
}
layer {
  name: "conv0"
  type: "Convolution"
  bottom: "data"
  top: "conv0"
  param {
    lr_mult: 1
  }
  param {
    lr_mult: 2
  }
  convolution_param {
    num_output: 50
    kernel_size: 5
    stride: 1
    weight_filler {
      type: "xavier"
    }
    bias_filler {
      type: "constant"
    }
  }
}
layer {
  name: "pool0"
  type: "Pooling"
  bottom: "conv0"
  top: "pool0"
  pooling_param {
    pool: MAX
    kernel_size: 2
    stride: 2
  }
}
layer {
  name: "conv1"
  type: "Convolution"
  bottom: "pool0"
  top: "conv1"
  param {
    lr_mult: 1
  }
  param {
    lr_mult: 2
  }
  convolution_param {
    num_output: 50
    kernel_size: 5
    stride: 1
    weight_filler {
      type: "xavier"
    }
    bias_filler {
      type: "constant"
    }
  }
}
layer {
  name: "pool1"
  type: "Pooling"
  bottom: "conv1"
  top: "pool1"
  pooling_param {
    pool: MAX
    kernel_size: 2
    stride: 2
  }
}
layer {
  name: "ip1"
  type: "InnerProduct"
  bottom: "pool1"
  top: "ip1"
  param {
    lr_mult: 1
  }
  param {
    lr_mult: 2
  }
  inner_product_param {
    num_output: 100
    weight_filler {
      type: "xavier"
    }
    bias_filler {
      type: "constant"
    }
  }
}
layer {
  name: "relu1"
  type: "ReLU"
  bottom: "ip1"
  top: "ip1"
}
layer {
  name: "ip2"
  type: "InnerProduct"
  bottom: "ip1"
  top: "ip2"
  param {
    lr_mult: 1
  }
  param {
    lr_mult: 2
  }
  inner_product_param {
    num_output: 10
    weight_filler {
      type: "xavier"
    }
    bias_filler {
      type: "constant"
    }
  }
}
layer {
  name: "relu2"
  type: "ReLU"
  bottom: "ip2"
  top: "ip2"
}
layer {
  name: "loss"
  type: "SoftmaxWithLoss"
  bottom: "ip2"
  bottom: "label"
  top: "loss"
}
I0425 21:05:11.036592 28597 layer_factory.hpp:77] Creating layer mnist
I0425 21:05:11.039702 28597 net.cpp:91] Creating Layer mnist
I0425 21:05:11.039803 28597 net.cpp:399] mnist -> data
I0425 21:05:11.040067 28597 net.cpp:399] mnist -> label
I0425 21:05:11.042980 28638 db_lmdb.cpp:35] Opened lmdb examples/mnist/mnist_train_lmdb
I0425 21:05:11.046350 28597 data_layer.cpp:41] output data size: 64,1,28,28
I0425 21:05:11.047149 28597 base_data_layer.cpp:69] Initializing prefetch
I0425 21:05:11.047269 28597 base_data_layer.cpp:72] Prefetch initialized.
I0425 21:05:11.047309 28597 net.cpp:141] Setting up mnist
I0425 21:05:11.047391 28597 net.cpp:148] Top shape: 64 1 28 28 (50176)
I0425 21:05:11.047435 28597 net.cpp:148] Top shape: 64 (64)
I0425 21:05:11.047461 28597 net.cpp:156] Memory required for data: 200960
I0425 21:05:11.047523 28597 layer_factory.hpp:77] Creating layer conv0
I0425 21:05:11.047659 28597 net.cpp:91] Creating Layer conv0
I0425 21:05:11.047716 28597 net.cpp:425] conv0 <- data
I0425 21:05:11.047844 28597 net.cpp:399] conv0 -> conv0
I0425 21:05:11.050325 28639 data_layer.cpp:102] Prefetch batch: 2 ms.
I0425 21:05:11.050395 28639 data_layer.cpp:103]      Read time: 0.294 ms.
I0425 21:05:11.050428 28639 data_layer.cpp:104] Transform time: 1.144 ms.
I0425 21:05:11.050364 28597 net.cpp:141] Setting up conv0
I0425 21:05:11.051218 28597 net.cpp:148] Top shape: 64 50 24 24 (1843200)
I0425 21:05:11.051247 28597 net.cpp:156] Memory required for data: 7573760
I0425 21:05:11.051414 28597 layer_factory.hpp:77] Creating layer pool0
I0425 21:05:11.051498 28597 net.cpp:91] Creating Layer pool0
I0425 21:05:11.051921 28597 net.cpp:425] pool0 <- conv0
I0425 21:05:11.052088 28597 net.cpp:399] pool0 -> pool0
I0425 21:05:11.052358 28597 net.cpp:141] Setting up pool0
I0425 21:05:11.052577 28597 net.cpp:148] Top shape: 64 50 12 12 (460800)
I0425 21:05:11.052688 28597 net.cpp:156] Memory required for data: 9416960
I0425 21:05:11.052775 28597 layer_factory.hpp:77] Creating layer conv1
I0425 21:05:11.052920 28597 net.cpp:91] Creating Layer conv1
I0425 21:05:11.053072 28597 net.cpp:425] conv1 <- pool0
I0425 21:05:11.053231 28597 net.cpp:399] conv1 -> conv1
I0425 21:05:11.053261 28639 data_layer.cpp:102] Prefetch batch: 2 ms.
I0425 21:05:11.053400 28639 data_layer.cpp:103]      Read time: 0.275 ms.
I0425 21:05:11.053418 28639 data_layer.cpp:104] Transform time: 1.166 ms.
I0425 21:05:11.056072 28639 data_layer.cpp:102] Prefetch batch: 2 ms.
I0425 21:05:11.056097 28639 data_layer.cpp:103]      Read time: 0.272 ms.
I0425 21:05:11.056115 28639 data_layer.cpp:104] Transform time: 1.084 ms.
I0425 21:05:11.081138 28597 net.cpp:141] Setting up conv1
I0425 21:05:11.081189 28597 net.cpp:148] Top shape: 64 50 8 8 (204800)
I0425 21:05:11.081212 28597 net.cpp:156] Memory required for data: 10236160
I0425 21:05:11.081306 28597 layer_factory.hpp:77] Creating layer pool1
I0425 21:05:11.081383 28597 net.cpp:91] Creating Layer pool1
I0425 21:05:11.081419 28597 net.cpp:425] pool1 <- conv1
I0425 21:05:11.081487 28597 net.cpp:399] pool1 -> pool1
I0425 21:05:11.081589 28597 net.cpp:141] Setting up pool1
I0425 21:05:11.081630 28597 net.cpp:148] Top shape: 64 50 4 4 (51200)
I0425 21:05:11.081663 28597 net.cpp:156] Memory required for data: 10440960
I0425 21:05:11.081694 28597 layer_factory.hpp:77] Creating layer ip1
I0425 21:05:11.081763 28597 net.cpp:91] Creating Layer ip1
I0425 21:05:11.081796 28597 net.cpp:425] ip1 <- pool1
I0425 21:05:11.081867 28597 net.cpp:399] ip1 -> ip1
I0425 21:05:11.113185 28597 net.cpp:141] Setting up ip1
I0425 21:05:11.113234 28597 net.cpp:148] Top shape: 64 100 (6400)
I0425 21:05:11.113248 28597 net.cpp:156] Memory required for data: 10466560
I0425 21:05:11.113315 28597 layer_factory.hpp:77] Creating layer relu1
I0425 21:05:11.113370 28597 net.cpp:91] Creating Layer relu1
I0425 21:05:11.113397 28597 net.cpp:425] relu1 <- ip1
I0425 21:05:11.113443 28597 net.cpp:386] relu1 -> ip1 (in-place)
I0425 21:05:11.113492 28597 net.cpp:141] Setting up relu1
I0425 21:05:11.113528 28597 net.cpp:148] Top shape: 64 100 (6400)
I0425 21:05:11.113540 28597 net.cpp:156] Memory required for data: 10492160
I0425 21:05:11.113557 28597 layer_factory.hpp:77] Creating layer ip2
I0425 21:05:11.113600 28597 net.cpp:91] Creating Layer ip2
I0425 21:05:11.113623 28597 net.cpp:425] ip2 <- ip1
I0425 21:05:11.113672 28597 net.cpp:399] ip2 -> ip2
I0425 21:05:11.113942 28597 net.cpp:141] Setting up ip2
I0425 21:05:11.113973 28597 net.cpp:148] Top shape: 64 10 (640)
I0425 21:05:11.113986 28597 net.cpp:156] Memory required for data: 10494720
I0425 21:05:11.114022 28597 layer_factory.hpp:77] Creating layer relu2
I0425 21:05:11.114068 28597 net.cpp:91] Creating Layer relu2
I0425 21:05:11.114091 28597 net.cpp:425] relu2 <- ip2
I0425 21:05:11.114131 28597 net.cpp:386] relu2 -> ip2 (in-place)
I0425 21:05:11.114176 28597 net.cpp:141] Setting up relu2
I0425 21:05:11.114197 28597 net.cpp:148] Top shape: 64 10 (640)
I0425 21:05:11.114210 28597 net.cpp:156] Memory required for data: 10497280
I0425 21:05:11.114228 28597 layer_factory.hpp:77] Creating layer loss
I0425 21:05:11.114279 28597 net.cpp:91] Creating Layer loss
I0425 21:05:11.114301 28597 net.cpp:425] loss <- ip2
I0425 21:05:11.114336 28597 net.cpp:425] loss <- label
I0425 21:05:11.114377 28597 net.cpp:399] loss -> loss
I0425 21:05:11.114457 28597 layer_factory.hpp:77] Creating layer loss
…
I0425 21:05:11.116391 28597 solver.cpp:181] Creating test net (#0) specified by net file: ECE595/mnist/train_test/var_fcl/lenet_train_test_fcl2.prototxt
I0425 21:05:11.116566 28597 net.cpp:313] The NetState phase (1) differed from the phase (0) specified by a rule in layer mnist
I0425 21:05:11.116924 28597 net.cpp:49] Initializing net from parameters: 
name: "LeNet"
state {
  phase: TEST
}
layer {
  name: "mnist"
  type: "Data"
  top: "data"
  top: "label"
  include {
    phase: TEST
  }
  transform_param {
    scale: 0.00390625
  }
  data_param {
    source: "examples/mnist/mnist_test_lmdb"
    batch_size: 100
    backend: LMDB
  }
}
layer {
  name: "conv0"
  type: "Convolution"
  bottom: "data"
  top: "conv0"
  param {
    lr_mult: 1
  }
  param {
    lr_mult: 2
  }
  convolution_param {
    num_output: 50
    kernel_size: 5
    stride: 1
    weight_filler {
      type: "xavier"
    }
    bias_filler {
      type: "constant"
    }
  }
}
layer {
  name: "pool0"
  type: "Pooling"
  bottom: "conv0"
  top: "pool0"
  pooling_param {
    pool: MAX
    kernel_size: 2
    stride: 2
  }
}
layer {
  name: "conv1"
  type: "Convolution"
  bottom: "pool0"
  top: "conv1"
  param {
    lr_mult: 1
  }
  param {
    lr_mult: 2
  }
  convolution_param {
    num_output: 50
    kernel_size: 5
    stride: 1
    weight_filler {
      type: "xavier"
    }
    bias_filler {
      type: "constant"
    }
  }
}
layer {
  name: "pool1"
  type: "Pooling"
  bottom: "conv1"
  top: "pool1"
  pooling_param {
    pool: MAX
    kernel_size: 2
    stride: 2
  }
}
layer {
  name: "ip1"
  type: "InnerProduct"
  bottom: "pool1"
  top: "ip1"
  param {
    lr_mult: 1
  }
  param {
    lr_mult: 2
  }
  inner_product_param {
    num_output: 100
    weight_filler {
      type: "xavier"
    }
    bias_filler {
      type: "constant"
    }
  }
}
layer {
  name: "relu1"
  type: "ReLU"
  bottom: "ip1"
  top: "ip1"
}
layer {
  name: "ip2"
  type: "InnerProduct"
  bottom: "ip1"
  top: "ip2"
  param {
    lr_mult: 1
  }
  param {
    lr_mult: 2
  }
  inner_product_param {
    num_output: 10
    weight_filler {
      type: "xavier"
    }
    bias_filler {
      type: "constant"
    }
  }
}
layer {
  name: "relu2"
  type: "ReLU"
  bottom: "ip2"
  top: "ip2"
}
layer {
  name: "accuracy"
  type: "Accuracy"
  bottom: "ip2"
  bottom: "label"
  top: "accuracy"
  include {
    phase: TEST
  }
}
layer {
  name: "loss"
  type: "SoftmaxWithLoss"
  bottom: "ip2"
  bottom: "label"
  top: "loss"
}
I0425 21:05:11.117489 28597 layer_factory.hpp:77] Creating layer mnist
I0425 21:05:11.117971 28597 net.cpp:91] Creating Layer mnist
I0425 21:05:11.118031 28597 net.cpp:399] mnist -> data
I0425 21:05:11.118113 28597 net.cpp:399] mnist -> label
I0425 21:05:11.121709 28640 db_lmdb.cpp:35] Opened lmdb examples/mnist/mnist_test_lmdb
I0425 21:05:11.122241 28597 data_layer.cpp:41] output data size: 100,1,28,28
I0425 21:05:11.123225 28597 base_data_layer.cpp:69] Initializing prefetch
I0425 21:05:11.123347 28597 base_data_layer.cpp:72] Prefetch initialized.
I0425 21:05:11.123368 28597 net.cpp:141] Setting up mnist
I0425 21:05:11.123400 28597 net.cpp:148] Top shape: 100 1 28 28 (78400)
I0425 21:05:11.123425 28597 net.cpp:148] Top shape: 100 (100)
I0425 21:05:11.123442 28597 net.cpp:156] Memory required for data: 314000
I0425 21:05:11.123478 28597 layer_factory.hpp:77] Creating layer label_mnist_1_split
I0425 21:05:11.123555 28597 net.cpp:91] Creating Layer label_mnist_1_split
I0425 21:05:11.123584 28597 net.cpp:425] label_mnist_1_split <- label
I0425 21:05:11.123646 28597 net.cpp:399] label_mnist_1_split -> label_mnist_1_split_0
I0425 21:05:11.123718 28597 net.cpp:399] label_mnist_1_split -> label_mnist_1_split_1
I0425 21:05:11.123800 28597 net.cpp:141] Setting up label_mnist_1_split
I0425 21:05:11.123837 28597 net.cpp:148] Top shape: 100 (100)
I0425 21:05:11.123858 28597 net.cpp:148] Top shape: 100 (100)
I0425 21:05:11.123878 28597 net.cpp:156] Memory required for data: 314800
I0425 21:05:11.123899 28597 layer_factory.hpp:77] Creating layer conv0
I0425 21:05:11.123986 28597 net.cpp:91] Creating Layer conv0
I0425 21:05:11.124017 28597 net.cpp:425] conv0 <- data
I0425 21:05:11.124086 28597 net.cpp:399] conv0 -> conv0
I0425 21:05:11.124529 28597 net.cpp:141] Setting up conv0
I0425 21:05:11.124572 28597 net.cpp:148] Top shape: 100 50 24 24 (2880000)
I0425 21:05:11.124591 28597 net.cpp:156] Memory required for data: 11834800
I0425 21:05:11.124696 28597 layer_factory.hpp:77] Creating layer pool0
I0425 21:05:11.124758 28597 net.cpp:91] Creating Layer pool0
I0425 21:05:11.124785 28597 net.cpp:425] pool0 <- conv0
I0425 21:05:11.124850 28597 net.cpp:399] pool0 -> pool0
I0425 21:05:11.124938 28597 net.cpp:141] Setting up pool0
I0425 21:05:11.124972 28597 net.cpp:148] Top shape: 100 50 12 12 (720000)
I0425 21:05:11.124989 28597 net.cpp:156] Memory required for data: 14714800
I0425 21:05:11.125011 28597 layer_factory.hpp:77] Creating layer conv1
I0425 21:05:11.125093 28597 net.cpp:91] Creating Layer conv1
I0425 21:05:11.125046 28641 data_layer.cpp:102] Prefetch batch: 1 ms.
I0425 21:05:11.125128 28597 net.cpp:425] conv1 <- pool0
I0425 21:05:11.125134 28641 data_layer.cpp:103]      Read time: 0.198 ms.
I0425 21:05:11.125145 28641 data_layer.cpp:104] Transform time: 1.007 ms.
I0425 21:05:11.125200 28597 net.cpp:399] conv1 -> conv1
I0425 21:05:11.126732 28641 data_layer.cpp:102] Prefetch batch: 1 ms.
I0425 21:05:11.126745 28641 data_layer.cpp:103]      Read time: 0.201 ms.
I0425 21:05:11.126750 28641 data_layer.cpp:104] Transform time: 1.011 ms.
I0425 21:05:11.128491 28641 data_layer.cpp:102] Prefetch batch: 1 ms.
I0425 21:05:11.128501 28641 data_layer.cpp:103]      Read time: 0.182 ms.
I0425 21:05:11.128506 28641 data_layer.cpp:104] Transform time: 1.026 ms.
I0425 21:05:11.135195 28597 net.cpp:141] Setting up conv1
I0425 21:05:11.135232 28597 net.cpp:148] Top shape: 100 50 8 8 (320000)
I0425 21:05:11.135244 28597 net.cpp:156] Memory required for data: 15994800
I0425 21:05:11.135303 28597 layer_factory.hpp:77] Creating layer pool1
I0425 21:05:11.135349 28597 net.cpp:91] Creating Layer pool1
I0425 21:05:11.135373 28597 net.cpp:425] pool1 <- conv1
I0425 21:05:11.135426 28597 net.cpp:399] pool1 -> pool1
I0425 21:05:11.135501 28597 net.cpp:141] Setting up pool1
I0425 21:05:11.135529 28597 net.cpp:148] Top shape: 100 50 4 4 (80000)
I0425 21:05:11.135541 28597 net.cpp:156] Memory required for data: 16314800
I0425 21:05:11.135558 28597 layer_factory.hpp:77] Creating layer ip1
I0425 21:05:11.135602 28597 net.cpp:91] Creating Layer ip1
I0425 21:05:11.135648 28597 net.cpp:425] ip1 <- pool1
I0425 21:05:11.135700 28597 net.cpp:399] ip1 -> ip1
I0425 21:05:11.148310 28597 net.cpp:141] Setting up ip1
I0425 21:05:11.148346 28597 net.cpp:148] Top shape: 100 100 (10000)
I0425 21:05:11.148360 28597 net.cpp:156] Memory required for data: 16354800
I0425 21:05:11.148422 28597 layer_factory.hpp:77] Creating layer relu1
I0425 21:05:11.148461 28597 net.cpp:91] Creating Layer relu1
I0425 21:05:11.148500 28597 net.cpp:425] relu1 <- ip1
I0425 21:05:11.148541 28597 net.cpp:386] relu1 -> ip1 (in-place)
I0425 21:05:11.148586 28597 net.cpp:141] Setting up relu1
I0425 21:05:11.148618 28597 net.cpp:148] Top shape: 100 100 (10000)
I0425 21:05:11.148633 28597 net.cpp:156] Memory required for data: 16394800
I0425 21:05:11.148653 28597 layer_factory.hpp:77] Creating layer ip2
I0425 21:05:11.148715 28597 net.cpp:91] Creating Layer ip2
I0425 21:05:11.148751 28597 net.cpp:425] ip2 <- ip1
I0425 21:05:11.148804 28597 net.cpp:399] ip2 -> ip2
I0425 21:05:11.149106 28597 net.cpp:141] Setting up ip2
I0425 21:05:11.149137 28597 net.cpp:148] Top shape: 100 10 (1000)
I0425 21:05:11.149150 28597 net.cpp:156] Memory required for data: 16398800
I0425 21:05:11.149189 28597 layer_factory.hpp:77] Creating layer relu2
I0425 21:05:11.149225 28597 net.cpp:91] Creating Layer relu2
I0425 21:05:11.149247 28597 net.cpp:425] relu2 <- ip2
I0425 21:05:11.149293 28597 net.cpp:386] relu2 -> ip2 (in-place)
I0425 21:05:11.149338 28597 net.cpp:141] Setting up relu2
I0425 21:05:11.149360 28597 net.cpp:148] Top shape: 100 10 (1000)
I0425 21:05:11.149374 28597 net.cpp:156] Memory required for data: 16402800
I0425 21:05:11.149391 28597 layer_factory.hpp:77] Creating layer ip2_relu2_0_split
I0425 21:05:11.149422 28597 net.cpp:91] Creating Layer ip2_relu2_0_split
I0425 21:05:11.149442 28597 net.cpp:425] ip2_relu2_0_split <- ip2
I0425 21:05:11.149482 28597 net.cpp:399] ip2_relu2_0_split -> ip2_relu2_0_split_0
I0425 21:05:11.149526 28597 net.cpp:399] ip2_relu2_0_split -> ip2_relu2_0_split_1
I0425 21:05:11.149579 28597 net.cpp:141] Setting up ip2_relu2_0_split
I0425 21:05:11.149605 28597 net.cpp:148] Top shape: 100 10 (1000)
I0425 21:05:11.149636 28597 net.cpp:148] Top shape: 100 10 (1000)
I0425 21:05:11.149648 28597 net.cpp:156] Memory required for data: 16410800
I0425 21:05:11.149667 28597 layer_factory.hpp:77] Creating layer accuracy
I0425 21:05:11.149711 28597 net.cpp:91] Creating Layer accuracy
I0425 21:05:11.149734 28597 net.cpp:425] accuracy <- ip2_relu2_0_split_0
I0425 21:05:11.149772 28597 net.cpp:425] accuracy <- label_mnist_1_split_0
I0425 21:05:11.149816 28597 net.cpp:399] accuracy -> accuracy
…
