…
I0425 19:56:39.243752 26692 net.cpp:313] The NetState phase (0) differed from the phase (1) specified by a rule in layer mnist
I0425 19:56:39.243914 26692 net.cpp:313] The NetState phase (0) differed from the phase (1) specified by a rule in layer accuracy
I0425 19:56:39.244318 26692 net.cpp:49] Initializing net from parameters: 
name: "LeNet"
state {
  phase: TRAIN
}
layer {
  name: "mnist"
  type: "Data"
  top: "data"
  top: "label"
  include {
    phase: TRAIN
  }
  transform_param {
    scale: 0.00390625
  }
  data_param {
    source: "examples/mnist/mnist_train_lmdb"
    batch_size: 64
    backend: LMDB
  }
}
layer {
  name: "conv0"
  type: "Convolution"
  bottom: "data"
  top: "conv0"
  param {
    lr_mult: 1
  }
  param {
    lr_mult: 2
  }
  convolution_param {
    num_output: 50
    kernel_size: 5
    stride: 1
    weight_filler {
      type: "xavier"
    }
    bias_filler {
      type: "constant"
    }
  }
}
layer {
  name: "pool0"
  type: "Pooling"
  bottom: "conv0"
  top: "pool0"
  pooling_param {
    pool: MAX
    kernel_size: 2
    stride: 2
  }
}
layer {
  name: "conv1"
  type: "Convolution"
  bottom: "pool0"
  top: "conv1"
  param {
    lr_mult: 1
  }
  param {
    lr_mult: 2
  }
  convolution_param {
    num_output: 50
    kernel_size: 5
    stride: 1
    weight_filler {
      type: "xavier"
    }
    bias_filler {
      type: "constant"
    }
  }
}
layer {
  name: "pool1"
  type: "Pooling"
  bottom: "conv1"
  top: "pool1"
  pooling_param {
    pool: MAX
    kernel_size: 2
    stride: 2
  }
}
layer {
  name: "ip1"
  type: "InnerProduct"
  bottom: "pool1"
  top: "ip1"
  param {
    lr_mult: 1
  }
  param {
    lr_mult: 2
  }
  inner_product_param {
    num_output: 10
    weight_filler {
      type: "xavier"
    }
    bias_filler {
      type: "constant"
    }
  }
}
layer {
  name: "relu1"
  type: "ReLU"
  bottom: "ip1"
  top: "ip1"
}
layer {
  name: "loss"
  type: "SoftmaxWithLoss"
  bottom: "ip1"
  bottom: "label"
  top: "loss"
}
I0425 19:56:39.245605 26692 layer_factory.hpp:77] Creating layer mnist
I0425 19:56:39.248872 26692 net.cpp:91] Creating Layer mnist
I0425 19:56:39.249001 26692 net.cpp:399] mnist -> data
I0425 19:56:39.249296 26692 net.cpp:399] mnist -> label
I0425 19:56:39.255584 26725 db_lmdb.cpp:35] Opened lmdb examples/mnist/mnist_train_lmdb
I0425 19:56:39.256259 26692 data_layer.cpp:41] output data size: 64,1,28,28
I0425 19:56:39.257055 26692 base_data_layer.cpp:69] Initializing prefetch
I0425 19:56:39.257174 26692 base_data_layer.cpp:72] Prefetch initialized.
I0425 19:56:39.257202 26692 net.cpp:141] Setting up mnist
I0425 19:56:39.257282 26692 net.cpp:148] Top shape: 64 1 28 28 (50176)
I0425 19:56:39.257318 26692 net.cpp:148] Top shape: 64 (64)
I0425 19:56:39.257335 26692 net.cpp:156] Memory required for data: 200960
I0425 19:56:39.257393 26692 layer_factory.hpp:77] Creating layer conv0
I0425 19:56:39.257513 26692 net.cpp:91] Creating Layer conv0
I0425 19:56:39.257560 26692 net.cpp:425] conv0 <- data
I0425 19:56:39.257699 26692 net.cpp:399] conv0 -> conv0
I0425 19:56:39.257921 26726 blocking_queue.cpp:50] Waiting for data
I0425 19:56:39.258478 26692 net.cpp:141] Setting up conv0
I0425 19:56:39.258529 26692 net.cpp:148] Top shape: 64 50 24 24 (1843200)
I0425 19:56:39.258548 26692 net.cpp:156] Memory required for data: 7573760
I0425 19:56:39.258714 26692 layer_factory.hpp:77] Creating layer pool0
I0425 19:56:39.258790 26692 net.cpp:91] Creating Layer pool0
I0425 19:56:39.258821 26692 net.cpp:425] pool0 <- conv0
I0425 19:56:39.258904 26692 net.cpp:399] pool0 -> pool0
I0425 19:56:39.259032 26692 net.cpp:141] Setting up pool0
I0425 19:56:39.259094 26692 net.cpp:148] Top shape: 64 50 12 12 (460800)
I0425 19:56:39.259114 26692 net.cpp:156] Memory required for data: 9416960
I0425 19:56:39.259141 26692 layer_factory.hpp:77] Creating layer conv1
I0425 19:56:39.259219 26692 net.cpp:91] Creating Layer conv1
I0425 19:56:39.259249 26692 net.cpp:425] conv1 <- pool0
I0425 19:56:39.259321 26692 net.cpp:399] conv1 -> conv1
I0425 19:56:39.276818 26726 data_layer.cpp:102] Prefetch batch: 19 ms.
I0425 19:56:39.276971 26726 data_layer.cpp:103]      Read time: 15.365 ms.
I0425 19:56:39.277032 26726 data_layer.cpp:104] Transform time: 2.754 ms.
I0425 19:56:39.278213 26692 net.cpp:141] Setting up conv1
I0425 19:56:39.278905 26692 net.cpp:148] Top shape: 64 50 8 8 (204800)
I0425 19:56:39.279017 26692 net.cpp:156] Memory required for data: 10236160
I0425 19:56:39.279183 26692 layer_factory.hpp:77] Creating layer pool1
I0425 19:56:39.279352 26692 net.cpp:91] Creating Layer pool1
I0425 19:56:39.279481 26692 net.cpp:425] pool1 <- conv1
I0425 19:56:39.279703 26692 net.cpp:399] pool1 -> pool1
I0425 19:56:39.279916 26692 net.cpp:141] Setting up pool1
I0425 19:56:39.280050 26692 net.cpp:148] Top shape: 64 50 4 4 (51200)
I0425 19:56:39.280150 26692 net.cpp:156] Memory required for data: 10440960
I0425 19:56:39.280213 26692 layer_factory.hpp:77] Creating layer ip1
I0425 19:56:39.280354 26692 net.cpp:91] Creating Layer ip1
I0425 19:56:39.280469 26692 net.cpp:425] ip1 <- pool1
I0425 19:56:39.280702 26692 net.cpp:399] ip1 -> ip1
I0425 19:56:39.281388 26726 data_layer.cpp:102] Prefetch batch: 4 ms.
I0425 19:56:39.281461 26726 data_layer.cpp:103]      Read time: 0.468 ms.
I0425 19:56:39.281518 26726 data_layer.cpp:104] Transform time: 2.729 ms.
I0425 19:56:39.283571 26692 net.cpp:141] Setting up ip1
I0425 19:56:39.283763 26692 net.cpp:148] Top shape: 64 10 (640)
I0425 19:56:39.283815 26692 net.cpp:156] Memory required for data: 10443520
I0425 19:56:39.283941 26692 layer_factory.hpp:77] Creating layer relu1
I0425 19:56:39.284035 26692 net.cpp:91] Creating Layer relu1
I0425 19:56:39.284096 26692 net.cpp:425] relu1 <- ip1
I0425 19:56:39.284181 26692 net.cpp:386] relu1 -> ip1 (in-place)
I0425 19:56:39.284276 26692 net.cpp:141] Setting up relu1
I0425 19:56:39.284332 26692 net.cpp:148] Top shape: 64 10 (640)
I0425 19:56:39.284374 26692 net.cpp:156] Memory required for data: 10446080
I0425 19:56:39.284425 26692 layer_factory.hpp:77] Creating layer loss
I0425 19:56:39.284512 26692 net.cpp:91] Creating Layer loss
I0425 19:56:39.284570 26692 net.cpp:425] loss <- ip1
I0425 19:56:39.284678 26692 net.cpp:425] loss <- label
I0425 19:56:39.284778 26692 net.cpp:399] loss -> loss
I0425 19:56:39.284909 26692 layer_factory.hpp:77] Creating layer loss
…
I0425 19:56:39.287750 26692 solver.cpp:181] Creating test net (#0) specified by net file: ECE595/mnist/train_test/var_fcl/lenet_train_test_fcl1.prototxt
I0425 19:56:39.288048 26692 net.cpp:313] The NetState phase (1) differed from the phase (0) specified by a rule in layer mnist
I0425 19:56:39.288554 26692 net.cpp:49] Initializing net from parameters: 
name: "LeNet"
state {
  phase: TEST
}
layer {
  name: "mnist"
  type: "Data"
  top: "data"
  top: "label"
  include {
    phase: TEST
  }
  transform_param {
    scale: 0.00390625
  }
  data_param {
    source: "examples/mnist/mnist_test_lmdb"
    batch_size: 100
    backend: LMDB
  }
}
layer {
  name: "conv0"
  type: "Convolution"
  bottom: "data"
  top: "conv0"
  param {
    lr_mult: 1
  }
  param {
    lr_mult: 2
  }
  convolution_param {
    num_output: 50
    kernel_size: 5
    stride: 1
    weight_filler {
      type: "xavier"
    }
    bias_filler {
      type: "constant"
    }
  }
}
layer {
  name: "pool0"
  type: "Pooling"
  bottom: "conv0"
  top: "pool0"
  pooling_param {
    pool: MAX
    kernel_size: 2
    stride: 2
  }
}
layer {
  name: "conv1"
  type: "Convolution"
  bottom: "pool0"
  top: "conv1"
  param {
    lr_mult: 1
  }
  param {
    lr_mult: 2
  }
  convolution_param {
    num_output: 50
    kernel_size: 5
    stride: 1
    weight_filler {
      type: "xavier"
    }
    bias_filler {
      type: "constant"
    }
  }
}
layer {
  name: "pool1"
  type: "Pooling"
  bottom: "conv1"
  top: "pool1"
  pooling_param {
    pool: MAX
    kernel_size: 2
    stride: 2
  }
}
layer {
  name: "ip1"
  type: "InnerProduct"
  bottom: "pool1"
  top: "ip1"
  param {
    lr_mult: 1
  }
  param {
    lr_mult: 2
  }
  inner_product_param {
    num_output: 10
    weight_filler {
      type: "xavier"
    }
    bias_filler {
      type: "constant"
    }
  }
}
layer {
  name: "relu1"
  type: "ReLU"
  bottom: "ip1"
  top: "ip1"
}
layer {
  name: "accuracy"
  type: "Accuracy"
  bottom: "ip1"
  bottom: "label"
  top: "accuracy"
  include {
    phase: TEST
  }
}
layer {
  name: "loss"
  type: "SoftmaxWithLoss"
  bottom: "ip1"
  bottom: "label"
  top: "loss"
}
I0425 19:56:39.289706 26692 layer_factory.hpp:77] Creating layer mnist
I0425 19:56:39.290660 26692 net.cpp:91] Creating Layer mnist
I0425 19:56:39.290760 26692 net.cpp:399] mnist -> data
I0425 19:56:39.290897 26692 net.cpp:399] mnist -> label
I0425 19:56:39.294600 26727 db_lmdb.cpp:35] Opened lmdb examples/mnist/mnist_test_lmdb
I0425 19:56:39.295086 26692 data_layer.cpp:41] output data size: 100,1,28,28
I0425 19:56:39.296216 26692 base_data_layer.cpp:69] Initializing prefetch
I0425 19:56:39.296330 26692 base_data_layer.cpp:72] Prefetch initialized.
I0425 19:56:39.296353 26692 net.cpp:141] Setting up mnist
I0425 19:56:39.296401 26692 net.cpp:148] Top shape: 100 1 28 28 (78400)
I0425 19:56:39.296432 26692 net.cpp:148] Top shape: 100 (100)
I0425 19:56:39.296449 26692 net.cpp:156] Memory required for data: 314000
I0425 19:56:39.296488 26692 layer_factory.hpp:77] Creating layer label_mnist_1_split
I0425 19:56:39.296568 26692 net.cpp:91] Creating Layer label_mnist_1_split
I0425 19:56:39.296598 26692 net.cpp:425] label_mnist_1_split <- label
I0425 19:56:39.296671 26692 net.cpp:399] label_mnist_1_split -> label_mnist_1_split_0
I0425 19:56:39.296742 26692 net.cpp:399] label_mnist_1_split -> label_mnist_1_split_1
I0425 19:56:39.296821 26692 net.cpp:141] Setting up label_mnist_1_split
I0425 19:56:39.296857 26692 net.cpp:148] Top shape: 100 (100)
I0425 19:56:39.296886 26692 net.cpp:148] Top shape: 100 (100)
I0425 19:56:39.296903 26692 net.cpp:156] Memory required for data: 314800
I0425 19:56:39.296928 26692 layer_factory.hpp:77] Creating layer conv0
I0425 19:56:39.297032 26692 net.cpp:91] Creating Layer conv0
I0425 19:56:39.297065 26692 net.cpp:425] conv0 <- data
I0425 19:56:39.297137 26692 net.cpp:399] conv0 -> conv0
I0425 19:56:39.297716 26692 net.cpp:141] Setting up conv0
I0425 19:56:39.297760 26692 net.cpp:148] Top shape: 100 50 24 24 (2880000)
I0425 19:56:39.297777 26692 net.cpp:156] Memory required for data: 11834800
I0425 19:56:39.297889 26692 layer_factory.hpp:77] Creating layer pool0
I0425 19:56:39.297948 26692 net.cpp:91] Creating Layer pool0
I0425 19:56:39.298002 26692 net.cpp:425] pool0 <- conv0
I0425 19:56:39.298087 26692 net.cpp:399] pool0 -> pool0
I0425 19:56:39.298202 26692 net.cpp:141] Setting up pool0
I0425 19:56:39.298238 26692 net.cpp:148] Top shape: 100 50 12 12 (720000)
I0425 19:56:39.298256 26692 net.cpp:156] Memory required for data: 14714800
I0425 19:56:39.298281 26692 layer_factory.hpp:77] Creating layer conv1
I0425 19:56:39.298367 26692 net.cpp:91] Creating Layer conv1
I0425 19:56:39.298396 26692 net.cpp:425] conv1 <- pool0
I0425 19:56:39.298467 26692 net.cpp:399] conv1 -> conv1
I0425 19:56:39.318145 26728 data_layer.cpp:102] Prefetch batch: 21 ms.
I0425 19:56:39.318194 26728 data_layer.cpp:103]      Read time: 15.926 ms.
I0425 19:56:39.318217 26728 data_layer.cpp:104] Transform time: 4.248 ms.
I0425 19:56:39.319655 26692 net.cpp:141] Setting up conv1
I0425 19:56:39.319705 26692 net.cpp:148] Top shape: 100 50 8 8 (320000)
I0425 19:56:39.319720 26692 net.cpp:156] Memory required for data: 15994800
I0425 19:56:39.319784 26692 layer_factory.hpp:77] Creating layer pool1
I0425 19:56:39.319836 26692 net.cpp:91] Creating Layer pool1
I0425 19:56:39.319864 26692 net.cpp:425] pool1 <- conv1
I0425 19:56:39.319914 26692 net.cpp:399] pool1 -> pool1
I0425 19:56:39.319991 26692 net.cpp:141] Setting up pool1
I0425 19:56:39.320022 26692 net.cpp:148] Top shape: 100 50 4 4 (80000)
I0425 19:56:39.320036 26692 net.cpp:156] Memory required for data: 16314800
I0425 19:56:39.320053 26692 layer_factory.hpp:77] Creating layer ip1
I0425 19:56:39.320099 26692 net.cpp:91] Creating Layer ip1
I0425 19:56:39.320122 26692 net.cpp:425] ip1 <- pool1
I0425 19:56:39.320173 26692 net.cpp:399] ip1 -> ip1
I0425 19:56:39.321554 26692 net.cpp:141] Setting up ip1
I0425 19:56:39.321590 26692 net.cpp:148] Top shape: 100 10 (1000)
I0425 19:56:39.321604 26692 net.cpp:156] Memory required for data: 16318800
I0425 19:56:39.321666 26692 layer_factory.hpp:77] Creating layer relu1
I0425 19:56:39.321712 26692 net.cpp:91] Creating Layer relu1
I0425 19:56:39.321738 26692 net.cpp:425] relu1 <- ip1
I0425 19:56:39.321779 26692 net.cpp:386] relu1 -> ip1 (in-place)
I0425 19:56:39.321825 26692 net.cpp:141] Setting up relu1
I0425 19:56:39.321846 26692 net.cpp:148] Top shape: 100 10 (1000)
I0425 19:56:39.321859 26692 net.cpp:156] Memory required for data: 16322800
I0425 19:56:39.321876 26692 layer_factory.hpp:77] Creating layer ip1_relu1_0_split
I0425 19:56:39.321915 26692 net.cpp:91] Creating Layer ip1_relu1_0_split
I0425 19:56:39.321938 26692 net.cpp:425] ip1_relu1_0_split <- ip1
I0425 19:56:39.321985 26692 net.cpp:399] ip1_relu1_0_split -> ip1_relu1_0_split_0
I0425 19:56:39.322036 26692 net.cpp:399] ip1_relu1_0_split -> ip1_relu1_0_split_1
I0425 19:56:39.322089 26692 net.cpp:141] Setting up ip1_relu1_0_split
I0425 19:56:39.322116 26692 net.cpp:148] Top shape: 100 10 (1000)
I0425 19:56:39.322136 26692 net.cpp:148] Top shape: 100 10 (1000)
I0425 19:56:39.322149 26692 net.cpp:156] Memory required for data: 16330800
I0425 19:56:39.322166 26692 layer_factory.hpp:77] Creating layer accuracy
I0425 19:56:39.322222 26692 net.cpp:91] Creating Layer accuracy
I0425 19:56:39.322252 26692 net.cpp:425] accuracy <- ip1_relu1_0_split_0
I0425 19:56:39.322290 26692 net.cpp:425] accuracy <- label_mnist_1_split_0
I0425 19:56:39.322326 26692 net.cpp:399] accuracy -> accuracy
…
