…
I0426 06:06:04.350343 11741 net.cpp:313] The NetState phase (0) differed from the phase (1) specified by a rule in layer mnist
I0426 06:06:04.350416 11741 net.cpp:313] The NetState phase (0) differed from the phase (1) specified by a rule in layer accuracy
I0426 06:06:04.350625 11741 net.cpp:49] Initializing net from parameters: 
name: "LeNet"
state {
  phase: TRAIN
}
layer {
  name: "mnist"
  type: "Data"
  top: "data"
  top: "label"
  include {
    phase: TRAIN
  }
  transform_param {
    scale: 0.00390625
  }
  data_param {
    source: "examples/mnist/mnist_train_lmdb"
    batch_size: 64
    backend: LMDB
  }
}
layer {
  name: "conv0"
  type: "Convolution"
  bottom: "data"
  top: "conv0"
  param {
    lr_mult: 1
  }
  param {
    lr_mult: 2
  }
  convolution_param {
    num_output: 50
    kernel_size: 5
    stride: 1
    weight_filler {
      type: "xavier"
    }
    bias_filler {
      type: "constant"
    }
  }
}
layer {
  name: "pool0"
  type: "Pooling"
  bottom: "conv0"
  top: "pool0"
  pooling_param {
    pool: MAX
    kernel_size: 2
    stride: 2
  }
}
layer {
  name: "conv1"
  type: "Convolution"
  bottom: "pool0"
  top: "conv1"
  param {
    lr_mult: 1
  }
  param {
    lr_mult: 2
  }
  convolution_param {
    num_output: 50
    kernel_size: 5
    stride: 1
    weight_filler {
      type: "xavier"
    }
    bias_filler {
      type: "constant"
    }
  }
}
layer {
  name: "pool1"
  type: "Pooling"
  bottom: "conv1"
  top: "pool1"
  pooling_param {
    pool: MAX
    kernel_size: 2
    stride: 2
  }
}
layer {
  name: "ip1"
  type: "InnerProduct"
  bottom: "pool1"
  top: "ip1"
  param {
    lr_mult: 1
  }
  param {
    lr_mult: 2
  }
  inner_product_param {
    num_output: 100
    weight_filler {
      type: "xavier"
    }
    bias_filler {
      type: "constant"
    }
  }
}
layer {
  name: "relu1"
  type: "ReLU"
  bottom: "ip1"
  top: "ip1"
}
layer {
  name: "ip2"
  type: "InnerProduct"
  bottom: "ip1"
  top: "ip2"
  param {
    lr_mult: 1
  }
  param {
    lr_mult: 2
  }
  inner_product_param {
    num_output: 100
    weight_filler {
      type: "xavier"
    }
    bias_filler {
      type: "constant"
    }
  }
}
layer {
  name: "relu2"
  type: "ReLU"
  bottom: "ip2"
  top: "ip2"
}
layer {
  name: "ip3"
  type: "InnerProduct"
  bottom: "ip2"
  top: "ip3"
  param {
    lr_mult: 1
  }
  param {
    lr_mult: 2
  }
  inner_product_param {
    num_output: 10
    weight_filler {
      type: "xavier"
    }
    bias_filler {
      type: "constant"
    }
  }
}
layer {
  name: "relu3"
  type: "ReLU"
  bottom: "ip3"
  top: "ip3"
}
layer {
  name: "loss"
  type: "SoftmaxWithLoss"
  bottom: "ip3"
  bottom: "label"
  top: "loss"
}
I0426 06:06:04.351229 11741 layer_factory.hpp:77] Creating layer mnist
I0426 06:06:04.352493 11741 net.cpp:91] Creating Layer mnist
I0426 06:06:04.352542 11741 net.cpp:399] mnist -> data
I0426 06:06:04.352666 11741 net.cpp:399] mnist -> label
I0426 06:06:04.357169 11774 db_lmdb.cpp:35] Opened lmdb examples/mnist/mnist_train_lmdb
I0426 06:06:04.357599 11741 data_layer.cpp:41] output data size: 64,1,28,28
I0426 06:06:04.357961 11741 base_data_layer.cpp:69] Initializing prefetch
I0426 06:06:04.358029 11741 base_data_layer.cpp:72] Prefetch initialized.
I0426 06:06:04.358042 11741 net.cpp:141] Setting up mnist
I0426 06:06:04.358070 11741 net.cpp:148] Top shape: 64 1 28 28 (50176)
I0426 06:06:04.358084 11741 net.cpp:148] Top shape: 64 (64)
I0426 06:06:04.358091 11741 net.cpp:156] Memory required for data: 200960
I0426 06:06:04.358110 11741 layer_factory.hpp:77] Creating layer conv0
I0426 06:06:04.358153 11741 net.cpp:91] Creating Layer conv0
I0426 06:06:04.358178 11741 net.cpp:425] conv0 <- data
I0426 06:06:04.358223 11741 net.cpp:399] conv0 -> conv0
I0426 06:06:04.358590 11741 net.cpp:141] Setting up conv0
I0426 06:06:04.358628 11741 net.cpp:148] Top shape: 64 50 24 24 (1843200)
I0426 06:06:04.358645 11741 net.cpp:156] Memory required for data: 7573760
I0426 06:06:04.358719 11741 layer_factory.hpp:77] Creating layer pool0
I0426 06:06:04.358767 11741 net.cpp:91] Creating Layer pool0
I0426 06:06:04.358790 11741 net.cpp:425] pool0 <- conv0
I0426 06:06:04.358836 11741 net.cpp:399] pool0 -> pool0
I0426 06:06:04.358911 11741 net.cpp:141] Setting up pool0
I0426 06:06:04.358940 11741 net.cpp:148] Top shape: 64 50 12 12 (460800)
I0426 06:06:04.358958 11741 net.cpp:156] Memory required for data: 9416960
I0426 06:06:04.358978 11741 layer_factory.hpp:77] Creating layer conv1
I0426 06:06:04.359020 11741 net.cpp:91] Creating Layer conv1
I0426 06:06:04.359043 11741 net.cpp:425] conv1 <- pool0
I0426 06:06:04.359083 11741 net.cpp:399] conv1 -> conv1
I0426 06:06:04.363117 11775 data_layer.cpp:102] Prefetch batch: 2 ms.
I0426 06:06:04.364778 11741 net.cpp:141] Setting up conv1
I0426 06:06:04.365710 11741 net.cpp:148] Top shape: 64 50 8 8 (204800)
I0426 06:06:04.365672 11775 data_layer.cpp:103]      Read time: 0.221 ms.
I0426 06:06:04.365736 11741 net.cpp:156] Memory required for data: 10236160
I0426 06:06:04.365767 11775 data_layer.cpp:104] Transform time: 1.144 ms.
I0426 06:06:04.365821 11741 layer_factory.hpp:77] Creating layer pool1
I0426 06:06:04.365865 11741 net.cpp:91] Creating Layer pool1
I0426 06:06:04.365890 11741 net.cpp:425] pool1 <- conv1
I0426 06:06:04.365926 11741 net.cpp:399] pool1 -> pool1
I0426 06:06:04.365977 11741 net.cpp:141] Setting up pool1
I0426 06:06:04.366003 11741 net.cpp:148] Top shape: 64 50 4 4 (51200)
I0426 06:06:04.366019 11741 net.cpp:156] Memory required for data: 10440960
I0426 06:06:04.366039 11741 layer_factory.hpp:77] Creating layer ip1
I0426 06:06:04.366075 11741 net.cpp:91] Creating Layer ip1
I0426 06:06:04.366098 11741 net.cpp:425] ip1 <- pool1
I0426 06:06:04.366135 11741 net.cpp:399] ip1 -> ip1
I0426 06:06:04.367979 11775 data_layer.cpp:102] Prefetch batch: 2 ms.
I0426 06:06:04.370196 11775 data_layer.cpp:103]      Read time: 0.215 ms.
I0426 06:06:04.370234 11775 data_layer.cpp:104] Transform time: 1.114 ms.
I0426 06:06:04.373260 11741 net.cpp:141] Setting up ip1
I0426 06:06:04.373689 11775 data_layer.cpp:102] Prefetch batch: 3 ms.
I0426 06:06:04.375959 11775 data_layer.cpp:103]      Read time: 1.46 ms.
I0426 06:06:04.375933 11741 net.cpp:148] Top shape: 64 100 (6400)
I0426 06:06:04.375985 11775 data_layer.cpp:104] Transform time: 1.118 ms.
I0426 06:06:04.376013 11741 net.cpp:156] Memory required for data: 10466560
I0426 06:06:04.376090 11741 layer_factory.hpp:77] Creating layer relu1
I0426 06:06:04.376163 11741 net.cpp:91] Creating Layer relu1
I0426 06:06:04.376211 11741 net.cpp:425] relu1 <- ip1
I0426 06:06:04.376260 11741 net.cpp:386] relu1 -> ip1 (in-place)
I0426 06:06:04.376322 11741 net.cpp:141] Setting up relu1
I0426 06:06:04.376369 11741 net.cpp:148] Top shape: 64 100 (6400)
I0426 06:06:04.376399 11741 net.cpp:156] Memory required for data: 10492160
I0426 06:06:04.376427 11741 layer_factory.hpp:77] Creating layer ip2
I0426 06:06:04.376472 11741 net.cpp:91] Creating Layer ip2
I0426 06:06:04.376523 11741 net.cpp:425] ip2 <- ip1
I0426 06:06:04.376575 11741 net.cpp:399] ip2 -> ip2
I0426 06:06:04.377568 11741 net.cpp:141] Setting up ip2
I0426 06:06:04.378553 11741 net.cpp:148] Top shape: 64 100 (6400)
I0426 06:06:04.378588 11741 net.cpp:156] Memory required for data: 10517760
I0426 06:06:04.378633 11741 layer_factory.hpp:77] Creating layer relu2
I0426 06:06:04.378693 11741 net.cpp:91] Creating Layer relu2
I0426 06:06:04.378741 11741 net.cpp:425] relu2 <- ip2
I0426 06:06:04.378789 11741 net.cpp:386] relu2 -> ip2 (in-place)
I0426 06:06:04.378849 11741 net.cpp:141] Setting up relu2
I0426 06:06:04.378900 11741 net.cpp:148] Top shape: 64 100 (6400)
I0426 06:06:04.378934 11741 net.cpp:156] Memory required for data: 10543360
I0426 06:06:04.378976 11741 layer_factory.hpp:77] Creating layer ip3
I0426 06:06:04.379022 11741 net.cpp:91] Creating Layer ip3
I0426 06:06:04.379070 11741 net.cpp:425] ip3 <- ip2
I0426 06:06:04.379120 11741 net.cpp:399] ip3 -> ip3
I0426 06:06:04.379317 11741 net.cpp:141] Setting up ip3
I0426 06:06:04.379508 11741 net.cpp:148] Top shape: 64 10 (640)
I0426 06:06:04.379544 11741 net.cpp:156] Memory required for data: 10545920
I0426 06:06:04.379600 11741 layer_factory.hpp:77] Creating layer relu3
I0426 06:06:04.379673 11741 net.cpp:91] Creating Layer relu3
I0426 06:06:04.379719 11741 net.cpp:425] relu3 <- ip3
I0426 06:06:04.379766 11741 net.cpp:386] relu3 -> ip3 (in-place)
I0426 06:06:04.379828 11741 net.cpp:141] Setting up relu3
I0426 06:06:04.379875 11741 net.cpp:148] Top shape: 64 10 (640)
I0426 06:06:04.379904 11741 net.cpp:156] Memory required for data: 10548480
I0426 06:06:04.379933 11741 layer_factory.hpp:77] Creating layer loss
I0426 06:06:04.379982 11741 net.cpp:91] Creating Layer loss
I0426 06:06:04.380034 11741 net.cpp:425] loss <- ip3
I0426 06:06:04.380077 11741 net.cpp:425] loss <- label
I0426 06:06:04.380132 11741 net.cpp:399] loss -> loss
I0426 06:06:04.380208 11741 layer_factory.hpp:77] Creating layer loss
…
I0426 06:06:04.382086 11741 solver.cpp:181] Creating test net (#0) specified by net file: ECE595/mnist/train_test/var_fcl/lenet_train_test_fcl3.prototxt
I0426 06:06:04.382654 11741 net.cpp:313] The NetState phase (1) differed from the phase (0) specified by a rule in layer mnist
I0426 06:06:04.383016 11741 net.cpp:49] Initializing net from parameters: 
name: "LeNet"
state {
  phase: TEST
}
layer {
  name: "mnist"
  type: "Data"
  top: "data"
  top: "label"
  include {
    phase: TEST
  }
  transform_param {
    scale: 0.00390625
  }
  data_param {
    source: "examples/mnist/mnist_test_lmdb"
    batch_size: 100
    backend: LMDB
  }
}
layer {
  name: "conv0"
  type: "Convolution"
  bottom: "data"
  top: "conv0"
  param {
    lr_mult: 1
  }
  param {
    lr_mult: 2
  }
  convolution_param {
    num_output: 50
    kernel_size: 5
    stride: 1
    weight_filler {
      type: "xavier"
    }
    bias_filler {
      type: "constant"
    }
  }
}
layer {
  name: "pool0"
  type: "Pooling"
  bottom: "conv0"
  top: "pool0"
  pooling_param {
    pool: MAX
    kernel_size: 2
    stride: 2
  }
}
layer {
  name: "conv1"
  type: "Convolution"
  bottom: "pool0"
  top: "conv1"
  param {
    lr_mult: 1
  }
  param {
    lr_mult: 2
  }
  convolution_param {
    num_output: 50
    kernel_size: 5
    stride: 1
    weight_filler {
      type: "xavier"
    }
    bias_filler {
      type: "constant"
    }
  }
}
layer {
  name: "pool1"
  type: "Pooling"
  bottom: "conv1"
  top: "pool1"
  pooling_param {
    pool: MAX
    kernel_size: 2
    stride: 2
  }
}
layer {
  name: "ip1"
  type: "InnerProduct"
  bottom: "pool1"
  top: "ip1"
  param {
    lr_mult: 1
  }
  param {
    lr_mult: 2
  }
  inner_product_param {
    num_output: 100
    weight_filler {
      type: "xavier"
    }
    bias_filler {
      type: "constant"
    }
  }
}
layer {
  name: "relu1"
  type: "ReLU"
  bottom: "ip1"
  top: "ip1"
}
layer {
  name: "ip2"
  type: "InnerProduct"
  bottom: "ip1"
  top: "ip2"
  param {
    lr_mult: 1
  }
  param {
    lr_mult: 2
  }
  inner_product_param {
    num_output: 100
    weight_filler {
      type: "xavier"
    }
    bias_filler {
      type: "constant"
    }
  }
}
layer {
  name: "relu2"
  type: "ReLU"
  bottom: "ip2"
  top: "ip2"
}
layer {
  name: "ip3"
  type: "InnerProduct"
  bottom: "ip2"
  top: "ip3"
  param {
    lr_mult: 1
  }
  param {
    lr_mult: 2
  }
  inner_product_param {
    num_output: 10
    weight_filler {
      type: "xavier"
    }
    bias_filler {
      type: "constant"
    }
  }
}
layer {
  name: "relu3"
  type: "ReLU"
  bottom: "ip3"
  top: "ip3"
}
layer {
  name: "accuracy"
  type: "Accuracy"
  bottom: "ip3"
  bottom: "label"
  top: "accuracy"
  include {
    phase: TEST
  }
}
layer {
  name: "loss"
  type: "SoftmaxWithLoss"
  bottom: "ip3"
  bottom: "label"
  top: "loss"
}
I0426 06:06:04.383882 11741 layer_factory.hpp:77] Creating layer mnist
I0426 06:06:04.384524 11741 net.cpp:91] Creating Layer mnist
I0426 06:06:04.384867 11741 net.cpp:399] mnist -> data
I0426 06:06:04.384953 11741 net.cpp:399] mnist -> label
I0426 06:06:04.389310 11776 db_lmdb.cpp:35] Opened lmdb examples/mnist/mnist_test_lmdb
I0426 06:06:04.389660 11741 data_layer.cpp:41] output data size: 100,1,28,28
I0426 06:06:04.390198 11741 base_data_layer.cpp:69] Initializing prefetch
I0426 06:06:04.390265 11741 base_data_layer.cpp:72] Prefetch initialized.
I0426 06:06:04.390285 11741 net.cpp:141] Setting up mnist
I0426 06:06:04.390308 11741 net.cpp:148] Top shape: 100 1 28 28 (78400)
I0426 06:06:04.390331 11741 net.cpp:148] Top shape: 100 (100)
I0426 06:06:04.390348 11741 net.cpp:156] Memory required for data: 314000
I0426 06:06:04.390373 11741 layer_factory.hpp:77] Creating layer label_mnist_1_split
I0426 06:06:04.390416 11741 net.cpp:91] Creating Layer label_mnist_1_split
I0426 06:06:04.390439 11741 net.cpp:425] label_mnist_1_split <- label
I0426 06:06:04.390476 11741 net.cpp:399] label_mnist_1_split -> label_mnist_1_split_0
I0426 06:06:04.390534 11741 net.cpp:399] label_mnist_1_split -> label_mnist_1_split_1
I0426 06:06:04.390580 11741 net.cpp:141] Setting up label_mnist_1_split
I0426 06:06:04.390606 11741 net.cpp:148] Top shape: 100 (100)
I0426 06:06:04.390628 11741 net.cpp:148] Top shape: 100 (100)
I0426 06:06:04.390645 11741 net.cpp:156] Memory required for data: 314800
I0426 06:06:04.390664 11741 layer_factory.hpp:77] Creating layer conv0
I0426 06:06:04.390717 11741 net.cpp:91] Creating Layer conv0
I0426 06:06:04.390740 11741 net.cpp:425] conv0 <- data
I0426 06:06:04.390784 11741 net.cpp:399] conv0 -> conv0
I0426 06:06:04.391046 11741 net.cpp:141] Setting up conv0
I0426 06:06:04.391077 11741 net.cpp:148] Top shape: 100 50 24 24 (2880000)
I0426 06:06:04.391093 11741 net.cpp:156] Memory required for data: 11834800
I0426 06:06:04.391150 11741 layer_factory.hpp:77] Creating layer pool0
I0426 06:06:04.391185 11741 net.cpp:91] Creating Layer pool0
I0426 06:06:04.391208 11741 net.cpp:425] pool0 <- conv0
I0426 06:06:04.391244 11741 net.cpp:399] pool0 -> pool0
I0426 06:06:04.391295 11741 net.cpp:141] Setting up pool0
I0426 06:06:04.391322 11741 net.cpp:148] Top shape: 100 50 12 12 (720000)
I0426 06:06:04.391340 11741 net.cpp:156] Memory required for data: 14714800
I0426 06:06:04.391360 11741 layer_factory.hpp:77] Creating layer conv1
I0426 06:06:04.391419 11741 net.cpp:91] Creating Layer conv1
I0426 06:06:04.391443 11741 net.cpp:425] conv1 <- pool0
I0426 06:06:04.391502 11741 net.cpp:399] conv1 -> conv1
I0426 06:06:04.396309 11777 data_layer.cpp:102] Prefetch batch: 3 ms.
I0426 06:06:04.399770 11777 data_layer.cpp:103]      Read time: 0.313 ms.
I0426 06:06:04.399821 11777 data_layer.cpp:104] Transform time: 1.751 ms.
I0426 06:06:04.397305 11741 net.cpp:141] Setting up conv1
I0426 06:06:04.400024 11741 net.cpp:148] Top shape: 100 50 8 8 (320000)
I0426 06:06:04.400059 11741 net.cpp:156] Memory required for data: 15994800
I0426 06:06:04.400115 11741 layer_factory.hpp:77] Creating layer pool1
I0426 06:06:04.400189 11741 net.cpp:91] Creating Layer pool1
I0426 06:06:04.400238 11741 net.cpp:425] pool1 <- conv1
I0426 06:06:04.400287 11741 net.cpp:399] pool1 -> pool1
I0426 06:06:04.400367 11741 net.cpp:141] Setting up pool1
I0426 06:06:04.400434 11741 net.cpp:148] Top shape: 100 50 4 4 (80000)
I0426 06:06:04.400466 11741 net.cpp:156] Memory required for data: 16314800
I0426 06:06:04.400497 11741 layer_factory.hpp:77] Creating layer ip1
I0426 06:06:04.400552 11741 net.cpp:91] Creating Layer ip1
I0426 06:06:04.400607 11741 net.cpp:425] ip1 <- pool1
I0426 06:06:04.400658 11741 net.cpp:399] ip1 -> ip1
I0426 06:06:04.403827 11777 data_layer.cpp:102] Prefetch batch: 3 ms.
I0426 06:06:04.406564 11777 data_layer.cpp:103]      Read time: 0.971 ms.
I0426 06:06:04.406599 11777 data_layer.cpp:104] Transform time: 1.714 ms.
I0426 06:06:04.410868 11777 data_layer.cpp:102] Prefetch batch: 4 ms.
I0426 06:06:04.413408 11777 data_layer.cpp:103]      Read time: 0.32 ms.
I0426 06:06:04.413453 11777 data_layer.cpp:104] Transform time: 2.627 ms.
I0426 06:06:04.414805 11741 net.cpp:141] Setting up ip1
I0426 06:06:04.414831 11741 net.cpp:148] Top shape: 100 100 (10000)
I0426 06:06:04.414846 11741 net.cpp:156] Memory required for data: 16354800
I0426 06:06:04.414882 11741 layer_factory.hpp:77] Creating layer relu1
I0426 06:06:04.414913 11741 net.cpp:91] Creating Layer relu1
I0426 06:06:04.414932 11741 net.cpp:425] relu1 <- ip1
I0426 06:06:04.414961 11741 net.cpp:386] relu1 -> ip1 (in-place)
I0426 06:06:04.414990 11741 net.cpp:141] Setting up relu1
I0426 06:06:04.415007 11741 net.cpp:148] Top shape: 100 100 (10000)
I0426 06:06:04.415022 11741 net.cpp:156] Memory required for data: 16394800
I0426 06:06:04.415032 11741 layer_factory.hpp:77] Creating layer ip2
I0426 06:06:04.415066 11741 net.cpp:91] Creating Layer ip2
I0426 06:06:04.415081 11741 net.cpp:425] ip2 <- ip1
I0426 06:06:04.415113 11741 net.cpp:399] ip2 -> ip2
I0426 06:06:04.416069 11741 net.cpp:141] Setting up ip2
I0426 06:06:04.416092 11741 net.cpp:148] Top shape: 100 100 (10000)
I0426 06:06:04.416106 11741 net.cpp:156] Memory required for data: 16434800
I0426 06:06:04.416129 11741 layer_factory.hpp:77] Creating layer relu2
I0426 06:06:04.416153 11741 net.cpp:91] Creating Layer relu2
I0426 06:06:04.416172 11741 net.cpp:425] relu2 <- ip2
I0426 06:06:04.416203 11741 net.cpp:386] relu2 -> ip2 (in-place)
I0426 06:06:04.416231 11741 net.cpp:141] Setting up relu2
I0426 06:06:04.416249 11741 net.cpp:148] Top shape: 100 100 (10000)
I0426 06:06:04.416263 11741 net.cpp:156] Memory required for data: 16474800
I0426 06:06:04.416273 11741 layer_factory.hpp:77] Creating layer ip3
I0426 06:06:04.416301 11741 net.cpp:91] Creating Layer ip3
I0426 06:06:04.416318 11741 net.cpp:425] ip3 <- ip2
I0426 06:06:04.416357 11741 net.cpp:399] ip3 -> ip3
I0426 06:06:04.416522 11741 net.cpp:141] Setting up ip3
I0426 06:06:04.416544 11741 net.cpp:148] Top shape: 100 10 (1000)
I0426 06:06:04.416558 11741 net.cpp:156] Memory required for data: 16478800
I0426 06:06:04.416592 11741 layer_factory.hpp:77] Creating layer relu3
I0426 06:06:04.416617 11741 net.cpp:91] Creating Layer relu3
I0426 06:06:04.416635 11741 net.cpp:425] relu3 <- ip3
I0426 06:06:04.416661 11741 net.cpp:386] relu3 -> ip3 (in-place)
I0426 06:06:04.416690 11741 net.cpp:141] Setting up relu3
I0426 06:06:04.416707 11741 net.cpp:148] Top shape: 100 10 (1000)
I0426 06:06:04.416720 11741 net.cpp:156] Memory required for data: 16482800
I0426 06:06:04.416730 11741 layer_factory.hpp:77] Creating layer ip3_relu3_0_split
I0426 06:06:04.416756 11741 net.cpp:91] Creating Layer ip3_relu3_0_split
I0426 06:06:04.416774 11741 net.cpp:425] ip3_relu3_0_split <- ip3
I0426 06:06:04.416800 11741 net.cpp:399] ip3_relu3_0_split -> ip3_relu3_0_split_0
I0426 06:06:04.416842 11741 net.cpp:399] ip3_relu3_0_split -> ip3_relu3_0_split_1
I0426 06:06:04.416877 11741 net.cpp:141] Setting up ip3_relu3_0_split
I0426 06:06:04.416900 11741 net.cpp:148] Top shape: 100 10 (1000)
I0426 06:06:04.416918 11741 net.cpp:148] Top shape: 100 10 (1000)
I0426 06:06:04.416930 11741 net.cpp:156] Memory required for data: 16490800
I0426 06:06:04.416940 11741 layer_factory.hpp:77] Creating layer accuracy
I0426 06:06:04.416973 11741 net.cpp:91] Creating Layer accuracy
I0426 06:06:04.416990 11741 net.cpp:425] accuracy <- ip3_relu3_0_split_0
I0426 06:06:04.417014 11741 net.cpp:425] accuracy <- label_mnist_1_split_0
I0426 06:06:04.417040 11741 net.cpp:399] accuracy -> accuracy
…
