…
I0426 00:27:49.845316  4106 net.cpp:313] The NetState phase (0) differed from the phase (1) specified by a rule in layer mnist
I0426 00:27:49.845363  4106 net.cpp:313] The NetState phase (0) differed from the phase (1) specified by a rule in layer accuracy
I0426 00:27:49.845513  4106 net.cpp:49] Initializing net from parameters: 
name: "LeNet"
state {
  phase: TRAIN
}
layer {
  name: "mnist"
  type: "Data"
  top: "data"
  top: "label"
  include {
    phase: TRAIN
  }
  transform_param {
    scale: 0.00390625
  }
  data_param {
    source: "examples/mnist/mnist_train_lmdb"
    batch_size: 64
    backend: LMDB
  }
}
layer {
  name: "conv0"
  type: "Convolution"
  bottom: "data"
  top: "conv0"
  param {
    lr_mult: 1
  }
  param {
    lr_mult: 2
  }
  convolution_param {
    num_output: 50
    kernel_size: 5
    stride: 1
    weight_filler {
      type: "xavier"
    }
    bias_filler {
      type: "constant"
    }
  }
}
layer {
  name: "pool0"
  type: "Pooling"
  bottom: "conv0"
  top: "pool0"
  pooling_param {
    pool: MAX
    kernel_size: 2
    stride: 2
  }
}
layer {
  name: "conv1"
  type: "Convolution"
  bottom: "pool0"
  top: "conv1"
  param {
    lr_mult: 1
  }
  param {
    lr_mult: 2
  }
  convolution_param {
    num_output: 50
    kernel_size: 5
    stride: 1
    weight_filler {
      type: "xavier"
    }
    bias_filler {
      type: "constant"
    }
  }
}
layer {
  name: "pool1"
  type: "Pooling"
  bottom: "conv1"
  top: "pool1"
  pooling_param {
    pool: MAX
    kernel_size: 2
    stride: 2
  }
}
layer {
  name: "ip1"
  type: "InnerProduct"
  bottom: "pool1"
  top: "ip1"
  param {
    lr_mult: 1
  }
  param {
    lr_mult: 2
  }
  inner_product_param {
    num_output: 10
    weight_filler {
      type: "xavier"
    }
    bias_filler {
      type: "constant"
    }
  }
}
layer {
  name: "relu1"
  type: "ReLU"
  bottom: "ip1"
  top: "ip1"
}
layer {
  name: "loss"
  type: "SoftmaxWithLoss"
  bottom: "ip1"
  bottom: "label"
  top: "loss"
}
I0426 00:27:49.845932  4106 layer_factory.hpp:77] Creating layer mnist
I0426 00:27:49.847213  4106 net.cpp:91] Creating Layer mnist
I0426 00:27:49.847255  4106 net.cpp:399] mnist -> data
I0426 00:27:49.847383  4106 net.cpp:399] mnist -> label
I0426 00:27:49.850875  4139 db_lmdb.cpp:35] Opened lmdb examples/mnist/mnist_train_lmdb
I0426 00:27:49.851572  4106 data_layer.cpp:41] output data size: 64,1,28,28
I0426 00:27:49.851979  4106 base_data_layer.cpp:69] Initializing prefetch
I0426 00:27:49.852041  4106 base_data_layer.cpp:72] Prefetch initialized.
I0426 00:27:49.852059  4106 net.cpp:141] Setting up mnist
I0426 00:27:49.852092  4106 net.cpp:148] Top shape: 64 1 28 28 (50176)
I0426 00:27:49.852113  4106 net.cpp:148] Top shape: 64 (64)
I0426 00:27:49.852120  4106 net.cpp:156] Memory required for data: 200960
I0426 00:27:49.852141  4106 layer_factory.hpp:77] Creating layer conv0
I0426 00:27:49.852197  4106 net.cpp:91] Creating Layer conv0
I0426 00:27:49.852223  4106 net.cpp:425] conv0 <- data
I0426 00:27:49.852270  4106 net.cpp:399] conv0 -> conv0
I0426 00:27:49.852583  4106 net.cpp:141] Setting up conv0
I0426 00:27:49.852608  4106 net.cpp:148] Top shape: 64 50 24 24 (1843200)
I0426 00:27:49.852617  4106 net.cpp:156] Memory required for data: 7573760
I0426 00:27:49.852689  4106 layer_factory.hpp:77] Creating layer pool0
I0426 00:27:49.852726  4106 net.cpp:91] Creating Layer pool0
I0426 00:27:49.852738  4106 net.cpp:425] pool0 <- conv0
I0426 00:27:49.852771  4106 net.cpp:399] pool0 -> pool0
I0426 00:27:49.852850  4106 net.cpp:141] Setting up pool0
I0426 00:27:49.852887  4106 net.cpp:148] Top shape: 64 50 12 12 (460800)
I0426 00:27:49.852915  4106 net.cpp:156] Memory required for data: 9416960
I0426 00:27:49.852936  4106 layer_factory.hpp:77] Creating layer conv1
I0426 00:27:49.852978  4106 net.cpp:91] Creating Layer conv1
I0426 00:27:49.853003  4106 net.cpp:425] conv1 <- pool0
I0426 00:27:49.853044  4106 net.cpp:399] conv1 -> conv1
I0426 00:27:49.858136  4140 data_layer.cpp:102] Prefetch batch: 3 ms.
I0426 00:27:49.858579  4140 data_layer.cpp:103]      Read time: 0.92 ms.
I0426 00:27:49.858618  4140 data_layer.cpp:104] Transform time: 1.161 ms.
I0426 00:27:49.858731  4106 net.cpp:141] Setting up conv1
I0426 00:27:49.858811  4106 net.cpp:148] Top shape: 64 50 8 8 (204800)
I0426 00:27:49.858829  4106 net.cpp:156] Memory required for data: 10236160
I0426 00:27:49.858876  4106 layer_factory.hpp:77] Creating layer pool1
I0426 00:27:49.858916  4106 net.cpp:91] Creating Layer pool1
I0426 00:27:49.858939  4106 net.cpp:425] pool1 <- conv1
I0426 00:27:49.858976  4106 net.cpp:399] pool1 -> pool1
I0426 00:27:49.859028  4106 net.cpp:141] Setting up pool1
I0426 00:27:49.859055  4106 net.cpp:148] Top shape: 64 50 4 4 (51200)
I0426 00:27:49.859073  4106 net.cpp:156] Memory required for data: 10440960
I0426 00:27:49.859093  4106 layer_factory.hpp:77] Creating layer ip1
I0426 00:27:49.859129  4106 net.cpp:91] Creating Layer ip1
I0426 00:27:49.859151  4106 net.cpp:425] ip1 <- pool1
I0426 00:27:49.859189  4106 net.cpp:399] ip1 -> ip1
I0426 00:27:49.859985  4106 net.cpp:141] Setting up ip1
I0426 00:27:49.860015  4106 net.cpp:148] Top shape: 64 10 (640)
I0426 00:27:49.860033  4106 net.cpp:156] Memory required for data: 10443520
I0426 00:27:49.860080  4106 layer_factory.hpp:77] Creating layer relu1
I0426 00:27:49.860116  4106 net.cpp:91] Creating Layer relu1
I0426 00:27:49.860138  4106 net.cpp:425] relu1 <- ip1
I0426 00:27:49.860172  4106 net.cpp:386] relu1 -> ip1 (in-place)
I0426 00:27:49.860208  4106 net.cpp:141] Setting up relu1
I0426 00:27:49.860231  4106 net.cpp:148] Top shape: 64 10 (640)
I0426 00:27:49.860247  4106 net.cpp:156] Memory required for data: 10446080
I0426 00:27:49.860267  4106 layer_factory.hpp:77] Creating layer loss
I0426 00:27:49.860302  4106 net.cpp:91] Creating Layer loss
I0426 00:27:49.860323  4106 net.cpp:425] loss <- ip1
I0426 00:27:49.860352  4106 net.cpp:425] loss <- label
I0426 00:27:49.860388  4106 net.cpp:399] loss -> loss
I0426 00:27:49.860438  4106 layer_factory.hpp:77] Creating layer loss
…
I0426 00:27:49.861618  4106 solver.cpp:181] Creating test net (#0) specified by net file: ECE595/mnist/train_test/var_fcl/lenet_train_test_fcl1.prototxt
I0426 00:27:49.861737  4106 net.cpp:313] The NetState phase (1) differed from the phase (0) specified by a rule in layer mnist
I0426 00:27:49.861935  4106 net.cpp:49] Initializing net from parameters: 
name: "LeNet"
state {
  phase: TEST
}
layer {
  name: "mnist"
  type: "Data"
  top: "data"
  top: "label"
  include {
    phase: TEST
  }
  transform_param {
    scale: 0.00390625
  }
  data_param {
    source: "examples/mnist/mnist_test_lmdb"
    batch_size: 100
    backend: LMDB
  }
}
layer {
  name: "conv0"
  type: "Convolution"
  bottom: "data"
  top: "conv0"
  param {
    lr_mult: 1
  }
  param {
    lr_mult: 2
  }
  convolution_param {
    num_output: 50
    kernel_size: 5
    stride: 1
    weight_filler {
      type: "xavier"
    }
    bias_filler {
      type: "constant"
    }
  }
}
layer {
  name: "pool0"
  type: "Pooling"
  bottom: "conv0"
  top: "pool0"
  pooling_param {
    pool: MAX
    kernel_size: 2
    stride: 2
  }
}
layer {
  name: "conv1"
  type: "Convolution"
  bottom: "pool0"
  top: "conv1"
  param {
    lr_mult: 1
  }
  param {
    lr_mult: 2
  }
  convolution_param {
    num_output: 50
    kernel_size: 5
    stride: 1
    weight_filler {
      type: "xavier"
    }
    bias_filler {
      type: "constant"
    }
  }
}
layer {
  name: "pool1"
  type: "Pooling"
  bottom: "conv1"
  top: "pool1"
  pooling_param {
    pool: MAX
    kernel_size: 2
    stride: 2
  }
}
layer {
  name: "ip1"
  type: "InnerProduct"
  bottom: "pool1"
  top: "ip1"
  param {
    lr_mult: 1
  }
  param {
    lr_mult: 2
  }
  inner_product_param {
    num_output: 10
    weight_filler {
      type: "xavier"
    }
    bias_filler {
      type: "constant"
    }
  }
}
layer {
  name: "relu1"
  type: "ReLU"
  bottom: "ip1"
  top: "ip1"
}
layer {
  name: "accuracy"
  type: "Accuracy"
  bottom: "ip1"
  bottom: "label"
  top: "accuracy"
  include {
    phase: TEST
  }
}
layer {
  name: "loss"
  type: "SoftmaxWithLoss"
  bottom: "ip1"
  bottom: "label"
  top: "loss"
}
I0426 00:27:49.862164  4140 data_layer.cpp:102] Prefetch batch: 3 ms.
I0426 00:27:49.862366  4106 layer_factory.hpp:77] Creating layer mnist
I0426 00:27:49.862416  4140 data_layer.cpp:103]      Read time: 0.284 ms.
I0426 00:27:49.862457  4140 data_layer.cpp:104] Transform time: 1.036 ms.
I0426 00:27:49.862810  4106 net.cpp:91] Creating Layer mnist
I0426 00:27:49.862851  4106 net.cpp:399] mnist -> data
I0426 00:27:49.862903  4106 net.cpp:399] mnist -> label
I0426 00:27:49.868082  4140 data_layer.cpp:102] Prefetch batch: 5 ms.
I0426 00:27:49.868171  4140 data_layer.cpp:103]      Read time: 0.514 ms.
I0426 00:27:49.868222  4140 data_layer.cpp:104] Transform time: 2.199 ms.
I0426 00:27:49.868641  4141 db_lmdb.cpp:35] Opened lmdb examples/mnist/mnist_test_lmdb
I0426 00:27:49.868971  4106 data_layer.cpp:41] output data size: 100,1,28,28
I0426 00:27:49.869510  4106 base_data_layer.cpp:69] Initializing prefetch
I0426 00:27:49.869573  4106 base_data_layer.cpp:72] Prefetch initialized.
I0426 00:27:49.869590  4106 net.cpp:141] Setting up mnist
I0426 00:27:49.869607  4106 net.cpp:148] Top shape: 100 1 28 28 (78400)
I0426 00:27:49.869619  4106 net.cpp:148] Top shape: 100 (100)
I0426 00:27:49.869627  4106 net.cpp:156] Memory required for data: 314000
I0426 00:27:49.869650  4106 layer_factory.hpp:77] Creating layer label_mnist_1_split
I0426 00:27:49.869720  4106 net.cpp:91] Creating Layer label_mnist_1_split
I0426 00:27:49.869755  4106 net.cpp:425] label_mnist_1_split <- label
I0426 00:27:49.869796  4106 net.cpp:399] label_mnist_1_split -> label_mnist_1_split_0
I0426 00:27:49.869840  4106 net.cpp:399] label_mnist_1_split -> label_mnist_1_split_1
I0426 00:27:49.869886  4106 net.cpp:141] Setting up label_mnist_1_split
I0426 00:27:49.869915  4106 net.cpp:148] Top shape: 100 (100)
I0426 00:27:49.869936  4106 net.cpp:148] Top shape: 100 (100)
I0426 00:27:49.869953  4106 net.cpp:156] Memory required for data: 314800
I0426 00:27:49.869974  4106 layer_factory.hpp:77] Creating layer conv0
I0426 00:27:49.870028  4106 net.cpp:91] Creating Layer conv0
I0426 00:27:49.870052  4106 net.cpp:425] conv0 <- data
I0426 00:27:49.870110  4106 net.cpp:399] conv0 -> conv0
I0426 00:27:49.870383  4106 net.cpp:141] Setting up conv0
I0426 00:27:49.870414  4106 net.cpp:148] Top shape: 100 50 24 24 (2880000)
I0426 00:27:49.870431  4106 net.cpp:156] Memory required for data: 11834800
I0426 00:27:49.870489  4106 layer_factory.hpp:77] Creating layer pool0
I0426 00:27:49.870532  4106 net.cpp:91] Creating Layer pool0
I0426 00:27:49.870555  4106 net.cpp:425] pool0 <- conv0
I0426 00:27:49.870599  4106 net.cpp:399] pool0 -> pool0
I0426 00:27:49.870684  4106 net.cpp:141] Setting up pool0
I0426 00:27:49.870712  4106 net.cpp:148] Top shape: 100 50 12 12 (720000)
I0426 00:27:49.870728  4106 net.cpp:156] Memory required for data: 14714800
I0426 00:27:49.870749  4106 layer_factory.hpp:77] Creating layer conv1
I0426 00:27:49.870810  4106 net.cpp:91] Creating Layer conv1
I0426 00:27:49.870842  4106 net.cpp:425] conv1 <- pool0
I0426 00:27:49.870888  4106 net.cpp:399] conv1 -> conv1
I0426 00:27:49.876627  4106 net.cpp:141] Setting up conv1
I0426 00:27:49.877470  4142 data_layer.cpp:102] Prefetch batch: 7 ms.
I0426 00:27:49.877934  4106 net.cpp:148] Top shape: 100 50 8 8 (320000)
I0426 00:27:49.878010  4106 net.cpp:156] Memory required for data: 15994800
I0426 00:27:49.878047  4106 layer_factory.hpp:77] Creating layer pool1
I0426 00:27:49.878002  4142 data_layer.cpp:103]      Read time: 1.049 ms.
I0426 00:27:49.878134  4142 data_layer.cpp:104] Transform time: 4.276 ms.
I0426 00:27:49.878094  4106 net.cpp:91] Creating Layer pool1
I0426 00:27:49.878196  4106 net.cpp:425] pool1 <- conv1
I0426 00:27:49.878221  4106 net.cpp:399] pool1 -> pool1
I0426 00:27:49.878268  4106 net.cpp:141] Setting up pool1
I0426 00:27:49.878288  4106 net.cpp:148] Top shape: 100 50 4 4 (80000)
I0426 00:27:49.878294  4106 net.cpp:156] Memory required for data: 16314800
I0426 00:27:49.878304  4106 layer_factory.hpp:77] Creating layer ip1
I0426 00:27:49.878329  4106 net.cpp:91] Creating Layer ip1
I0426 00:27:49.878346  4106 net.cpp:425] ip1 <- pool1
I0426 00:27:49.878376  4106 net.cpp:399] ip1 -> ip1
I0426 00:27:49.879150  4106 net.cpp:141] Setting up ip1
I0426 00:27:49.879174  4106 net.cpp:148] Top shape: 100 10 (1000)
I0426 00:27:49.879182  4106 net.cpp:156] Memory required for data: 16318800
I0426 00:27:49.879216  4106 layer_factory.hpp:77] Creating layer relu1
I0426 00:27:49.879246  4106 net.cpp:91] Creating Layer relu1
I0426 00:27:49.879266  4106 net.cpp:425] relu1 <- ip1
I0426 00:27:49.879287  4106 net.cpp:386] relu1 -> ip1 (in-place)
I0426 00:27:49.879317  4106 net.cpp:141] Setting up relu1
I0426 00:27:49.879334  4106 net.cpp:148] Top shape: 100 10 (1000)
I0426 00:27:49.879341  4106 net.cpp:156] Memory required for data: 16322800
I0426 00:27:49.879351  4106 layer_factory.hpp:77] Creating layer ip1_relu1_0_split
I0426 00:27:49.879372  4106 net.cpp:91] Creating Layer ip1_relu1_0_split
I0426 00:27:49.879390  4106 net.cpp:425] ip1_relu1_0_split <- ip1
I0426 00:27:49.879418  4106 net.cpp:399] ip1_relu1_0_split -> ip1_relu1_0_split_0
I0426 00:27:49.879451  4106 net.cpp:399] ip1_relu1_0_split -> ip1_relu1_0_split_1
I0426 00:27:49.879479  4106 net.cpp:141] Setting up ip1_relu1_0_split
I0426 00:27:49.879499  4106 net.cpp:148] Top shape: 100 10 (1000)
I0426 00:27:49.879509  4106 net.cpp:148] Top shape: 100 10 (1000)
I0426 00:27:49.879516  4106 net.cpp:156] Memory required for data: 16330800
I0426 00:27:49.879526  4106 layer_factory.hpp:77] Creating layer accuracy
I0426 00:27:49.879554  4106 net.cpp:91] Creating Layer accuracy
I0426 00:27:49.879572  4106 net.cpp:425] accuracy <- ip1_relu1_0_split_0
I0426 00:27:49.879591  4106 net.cpp:425] accuracy <- label_mnist_1_split_0
I0426 00:27:49.879617  4106 net.cpp:399] accuracy -> accuracy
…
