…
I0404 15:55:14.264601 14177 net.cpp:294] The NetState phase (0) differed from the phase (1) specified by a rule in layer mnist
I0404 15:55:14.264629 14177 net.cpp:294] The NetState phase (0) differed from the phase (1) specified by a rule in layer accuracy
I0404 15:55:14.264773 14177 net.cpp:51] Initializing net from parameters: 
name: "LeNet"
state {
  phase: TRAIN
  level: 0
  stage: ""
}
layer {
  name: "mnist"
  type: "Data"
  top: "data"
  top: "label"
  include {
    phase: TRAIN
  }
  transform_param {
    scale: 0.00390625
  }
  data_param {
    source: "examples/mnist/mnist_train_lmdb"
    batch_size: 64
    backend: LMDB
  }
}
layer {
  name: "conv0"
  type: "Convolution"
  bottom: "data"
  top: "conv0"
  param {
    lr_mult: 1
  }
  param {
    lr_mult: 2
  }
  convolution_param {
    num_output: 50
    kernel_size: 3
    stride: 1
    weight_filler {
      type: "xavier"
    }
    bias_filler {
      type: "constant"
    }
  }
}
layer {
  name: "pool0"
  type: "Pooling"
  bottom: "conv0"
  top: "pool0"
  pooling_param {
    pool: MAX
    kernel_size: 2
    stride: 2
  }
}
layer {
  name: "conv1"
  type: "Convolution"
  bottom: "pool0"
  top: "conv1"
  param {
    lr_mult: 1
  }
  param {
    lr_mult: 2
  }
  convolution_param {
    num_output: 50
    kernel_size: 3
    stride: 1
    weight_filler {
      type: "xavier"
    }
    bias_filler {
      type: "constant"
    }
  }
}
layer {
  name: "pool1"
  type: "Pooling"
  bottom: "conv1"
  top: "pool1"
  pooling_param {
    pool: MAX
    kernel_size: 2
    stride: 2
  }
}
layer {
  name: "conv2"
  type: "Convolution"
  bottom: "pool1"
  top: "conv2"
  param {
    lr_mult: 1
  }
  param {
    lr_mult: 2
  }
  convolution_param {
    num_output: 50
    kernel_size: 3
    stride: 1
    weight_filler {
      type: "xavier"
    }
    bias_filler {
      type: "constant"
    }
  }
}
layer {
  name: "pool2"
  type: "Pooling"
  bottom: "conv2"
  top: "pool2"
  pooling_param {
    pool: MAX
    kernel_size: 2
    stride: 2
  }
}
layer {
  name: "ip1"
  type: "InnerProduct"
  bottom: "pool2"
  top: "ip1"
  param {
    lr_mult: 1
  }
  param {
    lr_mult: 2
  }
  inner_product_param {
    num_output: 500
    weight_filler {
      type: "xavier"
    }
    bias_filler {
      type: "constant"
    }
  }
}
layer {
  name: "relu1"
  type: "ReLU"
  bottom: "ip1"
  top: "ip1"
}
layer {
  name: "ip2"
  type: "InnerProduct"
  bottom: "ip1"
  top: "ip2"
  param {
    lr_mult: 1
  }
  param {
    lr_mult: 2
  }
  inner_product_param {
    num_output: 10
    weight_filler {
      type: "xavier"
    }
    bias_filler {
      type: "constant"
    }
  }
}
layer {
  name: "loss"
  type: "SoftmaxWithLoss"
  bottom: "ip2"
  bottom: "label"
  top: "loss"
}
I0404 15:55:14.264873 14177 layer_factory.hpp:77] Creating layer mnist
I0404 15:55:14.264957 14177 db_lmdb.cpp:35] Opened lmdb examples/mnist/mnist_train_lmdb
I0404 15:55:14.264976 14177 net.cpp:84] Creating Layer mnist
I0404 15:55:14.264982 14177 net.cpp:380] mnist -> data
I0404 15:55:14.264998 14177 net.cpp:380] mnist -> label
I0404 15:55:14.265063 14177 data_layer.cpp:45] output data size: 64,1,28,28
I0404 15:55:14.266182 14177 net.cpp:122] Setting up mnist
I0404 15:55:14.266209 14177 net.cpp:129] Top shape: 64 1 28 28 (50176)
I0404 15:55:14.266212 14177 net.cpp:129] Top shape: 64 (64)
I0404 15:55:14.266214 14177 net.cpp:137] Memory required for data: 200960
I0404 15:55:14.266237 14177 layer_factory.hpp:77] Creating layer conv0
I0404 15:55:14.266247 14177 net.cpp:84] Creating Layer conv0
I0404 15:55:14.266299 14177 net.cpp:406] conv0 <- data
I0404 15:55:14.266324 14177 net.cpp:380] conv0 -> conv0
I0404 15:55:14.266372 14177 net.cpp:122] Setting up conv0
I0404 15:55:14.266393 14177 net.cpp:129] Top shape: 64 50 26 26 (2163200)
I0404 15:55:14.266396 14177 net.cpp:137] Memory required for data: 8853760
I0404 15:55:14.266453 14177 layer_factory.hpp:77] Creating layer pool0
I0404 15:55:14.266460 14177 net.cpp:84] Creating Layer pool0
I0404 15:55:14.266463 14177 net.cpp:406] pool0 <- conv0
I0404 15:55:14.266468 14177 net.cpp:380] pool0 -> pool0
I0404 15:55:14.266477 14177 net.cpp:122] Setting up pool0
I0404 15:55:14.266482 14177 net.cpp:129] Top shape: 64 50 13 13 (540800)
I0404 15:55:14.266484 14177 net.cpp:137] Memory required for data: 11016960
I0404 15:55:14.266502 14177 layer_factory.hpp:77] Creating layer conv1
I0404 15:55:14.266507 14177 net.cpp:84] Creating Layer conv1
I0404 15:55:14.266527 14177 net.cpp:406] conv1 <- pool0
I0404 15:55:14.266532 14177 net.cpp:380] conv1 -> conv1
I0404 15:55:14.266685 14177 net.cpp:122] Setting up conv1
I0404 15:55:14.266690 14177 net.cpp:129] Top shape: 64 50 11 11 (387200)
I0404 15:55:14.266691 14177 net.cpp:137] Memory required for data: 12565760
I0404 15:55:14.266696 14177 layer_factory.hpp:77] Creating layer pool1
I0404 15:55:14.266702 14177 net.cpp:84] Creating Layer pool1
I0404 15:55:14.266705 14177 net.cpp:406] pool1 <- conv1
I0404 15:55:14.266707 14177 net.cpp:380] pool1 -> pool1
I0404 15:55:14.266712 14177 net.cpp:122] Setting up pool1
I0404 15:55:14.266716 14177 net.cpp:129] Top shape: 64 50 6 6 (115200)
I0404 15:55:14.266718 14177 net.cpp:137] Memory required for data: 13026560
I0404 15:55:14.266721 14177 layer_factory.hpp:77] Creating layer conv2
I0404 15:55:14.266726 14177 net.cpp:84] Creating Layer conv2
I0404 15:55:14.266743 14177 net.cpp:406] conv2 <- pool1
I0404 15:55:14.266747 14177 net.cpp:380] conv2 -> conv2
I0404 15:55:14.266899 14177 net.cpp:122] Setting up conv2
I0404 15:55:14.266904 14177 net.cpp:129] Top shape: 64 50 4 4 (51200)
I0404 15:55:14.266906 14177 net.cpp:137] Memory required for data: 13231360
I0404 15:55:14.266913 14177 layer_factory.hpp:77] Creating layer pool2
I0404 15:55:14.266917 14177 net.cpp:84] Creating Layer pool2
I0404 15:55:14.266919 14177 net.cpp:406] pool2 <- conv2
I0404 15:55:14.266922 14177 net.cpp:380] pool2 -> pool2
I0404 15:55:14.266929 14177 net.cpp:122] Setting up pool2
I0404 15:55:14.266933 14177 net.cpp:129] Top shape: 64 50 2 2 (12800)
I0404 15:55:14.266935 14177 net.cpp:137] Memory required for data: 13282560
I0404 15:55:14.266952 14177 layer_factory.hpp:77] Creating layer ip1
I0404 15:55:14.266955 14177 net.cpp:84] Creating Layer ip1
I0404 15:55:14.266957 14177 net.cpp:406] ip1 <- pool2
I0404 15:55:14.266962 14177 net.cpp:380] ip1 -> ip1
I0404 15:55:14.267598 14177 net.cpp:122] Setting up ip1
I0404 15:55:14.267604 14177 net.cpp:129] Top shape: 64 500 (32000)
I0404 15:55:14.267606 14177 net.cpp:137] Memory required for data: 13410560
I0404 15:55:14.267611 14177 layer_factory.hpp:77] Creating layer relu1
I0404 15:55:14.267616 14177 net.cpp:84] Creating Layer relu1
I0404 15:55:14.267619 14177 net.cpp:406] relu1 <- ip1
I0404 15:55:14.267623 14177 net.cpp:367] relu1 -> ip1 (in-place)
I0404 15:55:14.267628 14177 net.cpp:122] Setting up relu1
I0404 15:55:14.267632 14177 net.cpp:129] Top shape: 64 500 (32000)
I0404 15:55:14.267634 14177 net.cpp:137] Memory required for data: 13538560
I0404 15:55:14.267637 14177 layer_factory.hpp:77] Creating layer ip2
I0404 15:55:14.267639 14177 net.cpp:84] Creating Layer ip2
I0404 15:55:14.267643 14177 net.cpp:406] ip2 <- ip1
I0404 15:55:14.267647 14177 net.cpp:380] ip2 -> ip2
I0404 15:55:14.267688 14177 net.cpp:122] Setting up ip2
I0404 15:55:14.267691 14177 net.cpp:129] Top shape: 64 10 (640)
I0404 15:55:14.267694 14177 net.cpp:137] Memory required for data: 13541120
I0404 15:55:14.267699 14177 layer_factory.hpp:77] Creating layer loss
I0404 15:55:14.267704 14177 net.cpp:84] Creating Layer loss
I0404 15:55:14.267707 14177 net.cpp:406] loss <- ip2
I0404 15:55:14.267711 14177 net.cpp:406] loss <- label
I0404 15:55:14.267724 14177 net.cpp:380] loss -> loss
I0404 15:55:14.267732 14177 layer_factory.hpp:77] Creating layer loss
…
I0404 15:55:14.267984 14177 solver.cpp:173] Creating test net (#0) specified by net file: ECE595/mnist/train_test/var_ker_size/lenet_train_test_kersize3.prototxt
I0404 15:55:14.268016 14177 net.cpp:294] The NetState phase (1) differed from the phase (0) specified by a rule in layer mnist
I0404 15:55:14.268110 14177 net.cpp:51] Initializing net from parameters: 
name: "LeNet"
state {
  phase: TEST
}
layer {
  name: "mnist"
  type: "Data"
  top: "data"
  top: "label"
  include {
    phase: TEST
  }
  transform_param {
    scale: 0.00390625
  }
  data_param {
    source: "examples/mnist/mnist_test_lmdb"
    batch_size: 100
    backend: LMDB
  }
}
layer {
  name: "conv0"
  type: "Convolution"
  bottom: "data"
  top: "conv0"
  param {
    lr_mult: 1
  }
  param {
    lr_mult: 2
  }
  convolution_param {
    num_output: 50
    kernel_size: 3
    stride: 1
    weight_filler {
      type: "xavier"
    }
    bias_filler {
      type: "constant"
    }
  }
}
layer {
  name: "pool0"
  type: "Pooling"
  bottom: "conv0"
  top: "pool0"
  pooling_param {
    pool: MAX
    kernel_size: 2
    stride: 2
  }
}
layer {
  name: "conv1"
  type: "Convolution"
  bottom: "pool0"
  top: "conv1"
  param {
    lr_mult: 1
  }
  param {
    lr_mult: 2
  }
  convolution_param {
    num_output: 50
    kernel_size: 3
    stride: 1
    weight_filler {
      type: "xavier"
    }
    bias_filler {
      type: "constant"
    }
  }
}
layer {
  name: "pool1"
  type: "Pooling"
  bottom: "conv1"
  top: "pool1"
  pooling_param {
    pool: MAX
    kernel_size: 2
    stride: 2
  }
}
layer {
  name: "conv2"
  type: "Convolution"
  bottom: "pool1"
  top: "conv2"
  param {
    lr_mult: 1
  }
  param {
    lr_mult: 2
  }
  convolution_param {
    num_output: 50
    kernel_size: 3
    stride: 1
    weight_filler {
      type: "xavier"
    }
    bias_filler {
      type: "constant"
    }
  }
}
layer {
  name: "pool2"
  type: "Pooling"
  bottom: "conv2"
  top: "pool2"
  pooling_param {
    pool: MAX
    kernel_size: 2
    stride: 2
  }
}
layer {
  name: "ip1"
  type: "InnerProduct"
  bottom: "pool2"
  top: "ip1"
  param {
    lr_mult: 1
  }
  param {
    lr_mult: 2
  }
  inner_product_param {
    num_output: 500
    weight_filler {
      type: "xavier"
    }
    bias_filler {
      type: "constant"
    }
  }
}
layer {
  name: "relu1"
  type: "ReLU"
  bottom: "ip1"
  top: "ip1"
}
layer {
  name: "ip2"
  type: "InnerProduct"
  bottom: "ip1"
  top: "ip2"
  param {
    lr_mult: 1
  }
  param {
    lr_mult: 2
  }
  inner_product_param {
    num_output: 10
    weight_filler {
      type: "xavier"
    }
    bias_filler {
      type: "constant"
    }
  }
}
layer {
  name: "accuracy"
  type: "Accuracy"
  bottom: "ip2"
  bottom: "label"
  top: "accuracy"
  include {
    phase: TEST
  }
}
layer {
  name: "loss"
  type: "SoftmaxWithLoss"
  bottom: "ip2"
  bottom: "label"
  top: "loss"
}
I0404 15:55:14.268188 14177 layer_factory.hpp:77] Creating layer mnist
I0404 15:55:14.268223 14177 db_lmdb.cpp:35] Opened lmdb examples/mnist/mnist_test_lmdb
I0404 15:55:14.268231 14177 net.cpp:84] Creating Layer mnist
I0404 15:55:14.268236 14177 net.cpp:380] mnist -> data
I0404 15:55:14.268241 14177 net.cpp:380] mnist -> label
I0404 15:55:14.268250 14177 data_layer.cpp:45] output data size: 100,1,28,28
I0404 15:55:14.268656 14177 net.cpp:122] Setting up mnist
I0404 15:55:14.268662 14177 net.cpp:129] Top shape: 100 1 28 28 (78400)
I0404 15:55:14.268684 14177 net.cpp:129] Top shape: 100 (100)
I0404 15:55:14.268687 14177 net.cpp:137] Memory required for data: 314000
I0404 15:55:14.268689 14177 layer_factory.hpp:77] Creating layer label_mnist_1_split
I0404 15:55:14.268708 14177 net.cpp:84] Creating Layer label_mnist_1_split
I0404 15:55:14.268710 14177 net.cpp:406] label_mnist_1_split <- label
I0404 15:55:14.268715 14177 net.cpp:380] label_mnist_1_split -> label_mnist_1_split_0
I0404 15:55:14.268721 14177 net.cpp:380] label_mnist_1_split -> label_mnist_1_split_1
I0404 15:55:14.268728 14177 net.cpp:122] Setting up label_mnist_1_split
I0404 15:55:14.268730 14177 net.cpp:129] Top shape: 100 (100)
I0404 15:55:14.268733 14177 net.cpp:129] Top shape: 100 (100)
I0404 15:55:14.268735 14177 net.cpp:137] Memory required for data: 314800
I0404 15:55:14.268738 14177 layer_factory.hpp:77] Creating layer conv0
I0404 15:55:14.268744 14177 net.cpp:84] Creating Layer conv0
I0404 15:55:14.268748 14177 net.cpp:406] conv0 <- data
I0404 15:55:14.268752 14177 net.cpp:380] conv0 -> conv0
I0404 15:55:14.268772 14177 net.cpp:122] Setting up conv0
I0404 15:55:14.268790 14177 net.cpp:129] Top shape: 100 50 26 26 (3380000)
I0404 15:55:14.268793 14177 net.cpp:137] Memory required for data: 13834800
I0404 15:55:14.268800 14177 layer_factory.hpp:77] Creating layer pool0
I0404 15:55:14.268803 14177 net.cpp:84] Creating Layer pool0
I0404 15:55:14.268805 14177 net.cpp:406] pool0 <- conv0
I0404 15:55:14.268810 14177 net.cpp:380] pool0 -> pool0
I0404 15:55:14.268816 14177 net.cpp:122] Setting up pool0
I0404 15:55:14.268821 14177 net.cpp:129] Top shape: 100 50 13 13 (845000)
I0404 15:55:14.268822 14177 net.cpp:137] Memory required for data: 17214800
I0404 15:55:14.268824 14177 layer_factory.hpp:77] Creating layer conv1
I0404 15:55:14.268831 14177 net.cpp:84] Creating Layer conv1
I0404 15:55:14.268833 14177 net.cpp:406] conv1 <- pool0
I0404 15:55:14.268838 14177 net.cpp:380] conv1 -> conv1
I0404 15:55:14.268976 14177 net.cpp:122] Setting up conv1
I0404 15:55:14.268980 14177 net.cpp:129] Top shape: 100 50 11 11 (605000)
I0404 15:55:14.268982 14177 net.cpp:137] Memory required for data: 19634800
I0404 15:55:14.268988 14177 layer_factory.hpp:77] Creating layer pool1
I0404 15:55:14.269007 14177 net.cpp:84] Creating Layer pool1
I0404 15:55:14.269009 14177 net.cpp:406] pool1 <- conv1
I0404 15:55:14.269012 14177 net.cpp:380] pool1 -> pool1
I0404 15:55:14.269017 14177 net.cpp:122] Setting up pool1
I0404 15:55:14.269021 14177 net.cpp:129] Top shape: 100 50 6 6 (180000)
I0404 15:55:14.269023 14177 net.cpp:137] Memory required for data: 20354800
I0404 15:55:14.269026 14177 layer_factory.hpp:77] Creating layer conv2
I0404 15:55:14.269031 14177 net.cpp:84] Creating Layer conv2
I0404 15:55:14.269034 14177 net.cpp:406] conv2 <- pool1
I0404 15:55:14.269037 14177 net.cpp:380] conv2 -> conv2
I0404 15:55:14.269202 14177 net.cpp:122] Setting up conv2
I0404 15:55:14.269207 14177 net.cpp:129] Top shape: 100 50 4 4 (80000)
I0404 15:55:14.269209 14177 net.cpp:137] Memory required for data: 20674800
I0404 15:55:14.269214 14177 layer_factory.hpp:77] Creating layer pool2
I0404 15:55:14.269219 14177 net.cpp:84] Creating Layer pool2
I0404 15:55:14.269222 14177 net.cpp:406] pool2 <- conv2
I0404 15:55:14.269224 14177 net.cpp:380] pool2 -> pool2
I0404 15:55:14.269229 14177 net.cpp:122] Setting up pool2
I0404 15:55:14.269232 14177 net.cpp:129] Top shape: 100 50 2 2 (20000)
I0404 15:55:14.269243 14177 net.cpp:137] Memory required for data: 20754800
I0404 15:55:14.269244 14177 layer_factory.hpp:77] Creating layer ip1
I0404 15:55:14.269263 14177 net.cpp:84] Creating Layer ip1
I0404 15:55:14.269268 14177 net.cpp:406] ip1 <- pool2
I0404 15:55:14.269271 14177 net.cpp:380] ip1 -> ip1
I0404 15:55:14.269855 14177 net.cpp:122] Setting up ip1
I0404 15:55:14.269860 14177 net.cpp:129] Top shape: 100 500 (50000)
I0404 15:55:14.269862 14177 net.cpp:137] Memory required for data: 20954800
I0404 15:55:14.269866 14177 layer_factory.hpp:77] Creating layer relu1
I0404 15:55:14.269870 14177 net.cpp:84] Creating Layer relu1
I0404 15:55:14.269872 14177 net.cpp:406] relu1 <- ip1
I0404 15:55:14.269876 14177 net.cpp:367] relu1 -> ip1 (in-place)
I0404 15:55:14.269881 14177 net.cpp:122] Setting up relu1
I0404 15:55:14.269886 14177 net.cpp:129] Top shape: 100 500 (50000)
I0404 15:55:14.269887 14177 net.cpp:137] Memory required for data: 21154800
I0404 15:55:14.269889 14177 layer_factory.hpp:77] Creating layer ip2
I0404 15:55:14.269892 14177 net.cpp:84] Creating Layer ip2
I0404 15:55:14.269896 14177 net.cpp:406] ip2 <- ip1
I0404 15:55:14.269899 14177 net.cpp:380] ip2 -> ip2
I0404 15:55:14.269935 14177 net.cpp:122] Setting up ip2
I0404 15:55:14.269939 14177 net.cpp:129] Top shape: 100 10 (1000)
I0404 15:55:14.269942 14177 net.cpp:137] Memory required for data: 21158800
I0404 15:55:14.269948 14177 layer_factory.hpp:77] Creating layer ip2_ip2_0_split
I0404 15:55:14.269951 14177 net.cpp:84] Creating Layer ip2_ip2_0_split
I0404 15:55:14.269953 14177 net.cpp:406] ip2_ip2_0_split <- ip2
I0404 15:55:14.269958 14177 net.cpp:380] ip2_ip2_0_split -> ip2_ip2_0_split_0
I0404 15:55:14.269963 14177 net.cpp:380] ip2_ip2_0_split -> ip2_ip2_0_split_1
I0404 15:55:14.269969 14177 net.cpp:122] Setting up ip2_ip2_0_split
I0404 15:55:14.269973 14177 net.cpp:129] Top shape: 100 10 (1000)
I0404 15:55:14.269976 14177 net.cpp:129] Top shape: 100 10 (1000)
I0404 15:55:14.269979 14177 net.cpp:137] Memory required for data: 21166800
I0404 15:55:14.269979 14177 layer_factory.hpp:77] Creating layer accuracy
I0404 15:55:14.269984 14177 net.cpp:84] Creating Layer accuracy
I0404 15:55:14.269986 14177 net.cpp:406] accuracy <- ip2_ip2_0_split_0
I0404 15:55:14.269989 14177 net.cpp:406] accuracy <- label_mnist_1_split_0
I0404 15:55:14.269994 14177 net.cpp:380] accuracy -> accuracy
…
