…
I0403 18:36:39.465591 27934 net.cpp:313] The NetState phase (0) differed from the phase (1) specified by a rule in layer mnist
I0403 18:36:39.465764 27934 net.cpp:313] The NetState phase (0) differed from the phase (1) specified by a rule in layer accuracy
I0403 18:36:39.466264 27934 net.cpp:49] Initializing net from parameters: 
name: "LeNet"
state {
  phase: TRAIN
}
layer {
  name: "mnist"
  type: "Data"
  top: "data"
  top: "label"
  include {
    phase: TRAIN
  }
  transform_param {
    scale: 0.00390625
  }
  data_param {
    source: "examples/mnist/mnist_train_lmdb"
    batch_size: 64
    backend: LMDB
  }
}
layer {
  name: "conv0"
  type: "Convolution"
  bottom: "data"
  top: "conv0"
  param {
    lr_mult: 1
  }
  param {
    lr_mult: 2
  }
  convolution_param {
    num_output: 50
    kernel_size: 3
    stride: 1
    weight_filler {
      type: "xavier"
    }
    bias_filler {
      type: "constant"
    }
  }
}
layer {
  name: "pool0"
  type: "Pooling"
  bottom: "conv0"
  top: "pool0"
  pooling_param {
    pool: MAX
    kernel_size: 2
    stride: 2
  }
}
layer {
  name: "conv1"
  type: "Convolution"
  bottom: "pool0"
  top: "conv1"
  param {
    lr_mult: 1
  }
  param {
    lr_mult: 2
  }
  convolution_param {
    num_output: 50
    kernel_size: 3
    stride: 1
    weight_filler {
      type: "xavier"
    }
    bias_filler {
      type: "constant"
    }
  }
}
layer {
  name: "pool1"
  type: "Pooling"
  bottom: "conv1"
  top: "pool1"
  pooling_param {
    pool: MAX
    kernel_size: 2
    stride: 2
  }
}
layer {
  name: "conv2"
  type: "Convolution"
  bottom: "pool1"
  top: "conv2"
  param {
    lr_mult: 1
  }
  param {
    lr_mult: 2
  }
  convolution_param {
    num_output: 50
    kernel_size: 3
    stride: 1
    weight_filler {
      type: "xavier"
    }
    bias_filler {
      type: "constant"
    }
  }
}
layer {
  name: "pool2"
  type: "Pooling"
  bottom: "conv2"
  top: "pool2"
  pooling_param {
    pool: MAX
    kernel_size: 2
    stride: 2
  }
}
layer {
  name: "ip1"
  type: "InnerProduct"
  bottom: "pool2"
  top: "ip1"
  param {
    lr_mult: 1
  }
  param {
    lr_mult: 2
  }
  inner_product_param {
    num_output: 500
    weight_filler {
      type: "xavier"
    }
    bias_filler {
      type: "constant"
    }
  }
}
layer {
  name: "relu1"
  type: "ReLU"
  bottom: "ip1"
  top: "ip1"
}
layer {
  name: "ip2"
  type: "InnerProduct"
  bottom: "ip1"
  top: "ip2"
  param {
    lr_mult: 1
  }
  param {
    lr_mult: 2
  }
  inner_product_param {
    num_output: 10
    weight_filler {
      type: "xavier"
    }
    bias_filler {
      type: "constant"
    }
  }
}
layer {
  name: "loss"
  type: "SoftmaxWithLoss"
  bottom: "ip2"
  bottom: "label"
  top: "loss"
}
I0403 18:36:39.467466 27934 layer_factory.hpp:77] Creating layer mnist
I0403 18:36:39.470790 27934 net.cpp:91] Creating Layer mnist
I0403 18:36:39.470901 27934 net.cpp:399] mnist -> data
I0403 18:36:39.471194 27934 net.cpp:399] mnist -> label
I0403 18:36:39.491611 27967 db_lmdb.cpp:35] Opened lmdb examples/mnist/mnist_train_lmdb
I0403 18:36:39.492534 27934 data_layer.cpp:41] output data size: 64,1,28,28
I0403 18:36:39.493499 27934 base_data_layer.cpp:69] Initializing prefetch
I0403 18:36:39.493682 27934 base_data_layer.cpp:72] Prefetch initialized.
I0403 18:36:39.493724 27934 net.cpp:141] Setting up mnist
I0403 18:36:39.493800 27934 net.cpp:148] Top shape: 64 1 28 28 (50176)
I0403 18:36:39.493847 27934 net.cpp:148] Top shape: 64 (64)
I0403 18:36:39.493878 27934 net.cpp:156] Memory required for data: 200960
I0403 18:36:39.493948 27934 layer_factory.hpp:77] Creating layer conv0
I0403 18:36:39.494101 27934 net.cpp:91] Creating Layer conv0
I0403 18:36:39.494160 27934 net.cpp:425] conv0 <- data
I0403 18:36:39.494292 27934 net.cpp:399] conv0 -> conv0
I0403 18:36:39.494916 27934 net.cpp:141] Setting up conv0
I0403 18:36:39.494979 27934 net.cpp:148] Top shape: 64 50 26 26 (2163200)
I0403 18:36:39.495012 27934 net.cpp:156] Memory required for data: 8853760
I0403 18:36:39.495211 27934 layer_factory.hpp:77] Creating layer pool0
I0403 18:36:39.495304 27934 net.cpp:91] Creating Layer pool0
I0403 18:36:39.495347 27934 net.cpp:425] pool0 <- conv0
I0403 18:36:39.495447 27934 net.cpp:399] pool0 -> pool0
I0403 18:36:39.495599 27934 net.cpp:141] Setting up pool0
I0403 18:36:39.495671 27934 net.cpp:148] Top shape: 64 50 13 13 (540800)
I0403 18:36:39.495703 27934 net.cpp:156] Memory required for data: 11016960
I0403 18:36:39.495733 27934 layer_factory.hpp:77] Creating layer conv1
I0403 18:36:39.495822 27934 net.cpp:91] Creating Layer conv1
I0403 18:36:39.495863 27934 net.cpp:425] conv1 <- pool0
I0403 18:36:39.495968 27934 net.cpp:399] conv1 -> conv1
I0403 18:36:39.501183 27968 data_layer.cpp:102] Prefetch batch: 4 ms.
I0403 18:36:39.501265 27968 data_layer.cpp:103]      Read time: 0.51 ms.
I0403 18:36:39.501292 27968 data_layer.cpp:104] Transform time: 2.686 ms.
I0403 18:36:39.501510 27934 net.cpp:141] Setting up conv1
I0403 18:36:39.501582 27934 net.cpp:148] Top shape: 64 50 11 11 (387200)
I0403 18:36:39.501616 27934 net.cpp:156] Memory required for data: 12565760
I0403 18:36:39.501724 27934 layer_factory.hpp:77] Creating layer pool1
I0403 18:36:39.501807 27934 net.cpp:91] Creating Layer pool1
I0403 18:36:39.501852 27934 net.cpp:425] pool1 <- conv1
I0403 18:36:39.501930 27934 net.cpp:399] pool1 -> pool1
I0403 18:36:39.502050 27934 net.cpp:141] Setting up pool1
I0403 18:36:39.502092 27934 net.cpp:148] Top shape: 64 50 6 6 (115200)
I0403 18:36:39.502122 27934 net.cpp:156] Memory required for data: 13026560
I0403 18:36:39.502149 27934 layer_factory.hpp:77] Creating layer conv2
I0403 18:36:39.502238 27934 net.cpp:91] Creating Layer conv2
I0403 18:36:39.502272 27934 net.cpp:425] conv2 <- pool1
I0403 18:36:39.502360 27934 net.cpp:399] conv2 -> conv2
I0403 18:36:39.507987 27934 net.cpp:141] Setting up conv2
I0403 18:36:39.509204 27934 net.cpp:148] Top shape: 64 50 4 4 (51200)
I0403 18:36:39.509237 27934 net.cpp:156] Memory required for data: 13231360
I0403 18:36:39.509330 27934 layer_factory.hpp:77] Creating layer pool2
I0403 18:36:39.509390 27934 net.cpp:91] Creating Layer pool2
I0403 18:36:39.509434 27934 net.cpp:425] pool2 <- conv2
I0403 18:36:39.509517 27934 net.cpp:399] pool2 -> pool2
I0403 18:36:39.509618 27934 net.cpp:141] Setting up pool2
I0403 18:36:39.509676 27934 net.cpp:148] Top shape: 64 50 2 2 (12800)
I0403 18:36:39.509709 27934 net.cpp:156] Memory required for data: 13282560
I0403 18:36:39.509737 27934 layer_factory.hpp:77] Creating layer ip1
I0403 18:36:39.509821 27934 net.cpp:91] Creating Layer ip1
I0403 18:36:39.510601 27934 net.cpp:425] ip1 <- pool2
I0403 18:36:39.510763 27934 net.cpp:399] ip1 -> ip1
I0403 18:36:39.511939 27968 data_layer.cpp:102] Prefetch batch: 10 ms.
I0403 18:36:39.515126 27968 data_layer.cpp:103]      Read time: 0.504 ms.
I0403 18:36:39.515223 27968 data_layer.cpp:104] Transform time: 8.877 ms.
I0403 18:36:39.520139 27968 data_layer.cpp:102] Prefetch batch: 4 ms.
I0403 18:36:39.524296 27968 data_layer.cpp:103]      Read time: 0.506 ms.
I0403 18:36:39.524395 27968 data_layer.cpp:104] Transform time: 3.059 ms.
I0403 18:36:39.544987 27934 net.cpp:141] Setting up ip1
I0403 18:36:39.545039 27934 net.cpp:148] Top shape: 64 500 (32000)
I0403 18:36:39.545058 27934 net.cpp:156] Memory required for data: 13410560
I0403 18:36:39.545121 27934 layer_factory.hpp:77] Creating layer relu1
I0403 18:36:39.545195 27934 net.cpp:91] Creating Layer relu1
I0403 18:36:39.545229 27934 net.cpp:425] relu1 <- ip1
I0403 18:36:39.545292 27934 net.cpp:386] relu1 -> ip1 (in-place)
I0403 18:36:39.545356 27934 net.cpp:141] Setting up relu1
I0403 18:36:39.545388 27934 net.cpp:148] Top shape: 64 500 (32000)
I0403 18:36:39.545429 27934 net.cpp:156] Memory required for data: 13538560
I0403 18:36:39.545460 27934 layer_factory.hpp:77] Creating layer ip2
I0403 18:36:39.545521 27934 net.cpp:91] Creating Layer ip2
I0403 18:36:39.545553 27934 net.cpp:425] ip2 <- ip1
I0403 18:36:39.545626 27934 net.cpp:399] ip2 -> ip2
I0403 18:36:39.546982 27934 net.cpp:141] Setting up ip2
I0403 18:36:39.547049 27934 net.cpp:148] Top shape: 64 10 (640)
I0403 18:36:39.547075 27934 net.cpp:156] Memory required for data: 13541120
I0403 18:36:39.547158 27934 layer_factory.hpp:77] Creating layer loss
I0403 18:36:39.547215 27934 net.cpp:91] Creating Layer loss
I0403 18:36:39.547241 27934 net.cpp:425] loss <- ip2
I0403 18:36:39.547279 27934 net.cpp:425] loss <- label
I0403 18:36:39.547320 27934 net.cpp:399] loss -> loss
I0403 18:36:39.547394 27934 layer_factory.hpp:77] Creating layer loss
…
I0403 18:36:39.549736 27934 solver.cpp:181] Creating test net (#0) specified by net file: ECE595/mnist/train_test/var_ker_size/lenet_train_test_kersize3.prototxt
I0403 18:36:39.549924 27934 net.cpp:313] The NetState phase (1) differed from the phase (0) specified by a rule in layer mnist
I0403 18:36:39.550305 27934 net.cpp:49] Initializing net from parameters: 
name: "LeNet"
state {
  phase: TEST
}
layer {
  name: "mnist"
  type: "Data"
  top: "data"
  top: "label"
  include {
    phase: TEST
  }
  transform_param {
    scale: 0.00390625
  }
  data_param {
    source: "examples/mnist/mnist_test_lmdb"
    batch_size: 100
    backend: LMDB
  }
}
layer {
  name: "conv0"
  type: "Convolution"
  bottom: "data"
  top: "conv0"
  param {
    lr_mult: 1
  }
  param {
    lr_mult: 2
  }
  convolution_param {
    num_output: 50
    kernel_size: 3
    stride: 1
    weight_filler {
      type: "xavier"
    }
    bias_filler {
      type: "constant"
    }
  }
}
layer {
  name: "pool0"
  type: "Pooling"
  bottom: "conv0"
  top: "pool0"
  pooling_param {
    pool: MAX
    kernel_size: 2
    stride: 2
  }
}
layer {
  name: "conv1"
  type: "Convolution"
  bottom: "pool0"
  top: "conv1"
  param {
    lr_mult: 1
  }
  param {
    lr_mult: 2
  }
  convolution_param {
    num_output: 50
    kernel_size: 3
    stride: 1
    weight_filler {
      type: "xavier"
    }
    bias_filler {
      type: "constant"
    }
  }
}
layer {
  name: "pool1"
  type: "Pooling"
  bottom: "conv1"
  top: "pool1"
  pooling_param {
    pool: MAX
    kernel_size: 2
    stride: 2
  }
}
layer {
  name: "conv2"
  type: "Convolution"
  bottom: "pool1"
  top: "conv2"
  param {
    lr_mult: 1
  }
  param {
    lr_mult: 2
  }
  convolution_param {
    num_output: 50
    kernel_size: 3
    stride: 1
    weight_filler {
      type: "xavier"
    }
    bias_filler {
      type: "constant"
    }
  }
}
layer {
  name: "pool2"
  type: "Pooling"
  bottom: "conv2"
  top: "pool2"
  pooling_param {
    pool: MAX
    kernel_size: 2
    stride: 2
  }
}
layer {
  name: "ip1"
  type: "InnerProduct"
  bottom: "pool2"
  top: "ip1"
  param {
    lr_mult: 1
  }
  param {
    lr_mult: 2
  }
  inner_product_param {
    num_output: 500
    weight_filler {
      type: "xavier"
    }
    bias_filler {
      type: "constant"
    }
  }
}
layer {
  name: "relu1"
  type: "ReLU"
  bottom: "ip1"
  top: "ip1"
}
layer {
  name: "ip2"
  type: "InnerProduct"
  bottom: "ip1"
  top: "ip2"
  param {
    lr_mult: 1
  }
  param {
    lr_mult: 2
  }
  inner_product_param {
    num_output: 10
    weight_filler {
      type: "xavier"
    }
    bias_filler {
      type: "constant"
    }
  }
}
layer {
  name: "accuracy"
  type: "Accuracy"
  bottom: "ip2"
  bottom: "label"
  top: "accuracy"
  include {
    phase: TEST
  }
}
layer {
  name: "loss"
  type: "SoftmaxWithLoss"
  bottom: "ip2"
  bottom: "label"
  top: "loss"
}
I0403 18:36:39.550956 27934 layer_factory.hpp:77] Creating layer mnist
I0403 18:36:39.551571 27934 net.cpp:91] Creating Layer mnist
I0403 18:36:39.551637 27934 net.cpp:399] mnist -> data
I0403 18:36:39.551728 27934 net.cpp:399] mnist -> label
I0403 18:36:39.557735 27969 db_lmdb.cpp:35] Opened lmdb examples/mnist/mnist_test_lmdb
I0403 18:36:39.558313 27934 data_layer.cpp:41] output data size: 100,1,28,28
I0403 18:36:39.559300 27934 base_data_layer.cpp:69] Initializing prefetch
I0403 18:36:39.559430 27934 base_data_layer.cpp:72] Prefetch initialized.
I0403 18:36:39.559463 27934 net.cpp:141] Setting up mnist
I0403 18:36:39.559505 27934 net.cpp:148] Top shape: 100 1 28 28 (78400)
I0403 18:36:39.559552 27934 net.cpp:148] Top shape: 100 (100)
I0403 18:36:39.559579 27934 net.cpp:156] Memory required for data: 314000
I0403 18:36:39.559664 27934 layer_factory.hpp:77] Creating layer label_mnist_1_split
I0403 18:36:39.559798 27934 net.cpp:91] Creating Layer label_mnist_1_split
I0403 18:36:39.559834 27934 net.cpp:425] label_mnist_1_split <- label
I0403 18:36:39.559893 27934 net.cpp:399] label_mnist_1_split -> label_mnist_1_split_0
I0403 18:36:39.560003 27934 net.cpp:399] label_mnist_1_split -> label_mnist_1_split_1
I0403 18:36:39.560106 27934 net.cpp:141] Setting up label_mnist_1_split
I0403 18:36:39.560144 27934 net.cpp:148] Top shape: 100 (100)
I0403 18:36:39.560170 27934 net.cpp:148] Top shape: 100 (100)
I0403 18:36:39.560184 27934 net.cpp:156] Memory required for data: 314800
I0403 18:36:39.560210 27934 layer_factory.hpp:77] Creating layer conv0
I0403 18:36:39.560305 27934 net.cpp:91] Creating Layer conv0
I0403 18:36:39.560338 27934 net.cpp:425] conv0 <- data
I0403 18:36:39.560406 27934 net.cpp:399] conv0 -> conv0
I0403 18:36:39.560729 27934 net.cpp:141] Setting up conv0
I0403 18:36:39.560770 27934 net.cpp:148] Top shape: 100 50 26 26 (3380000)
I0403 18:36:39.560798 27934 net.cpp:156] Memory required for data: 13834800
I0403 18:36:39.560957 27934 layer_factory.hpp:77] Creating layer pool0
I0403 18:36:39.561028 27934 net.cpp:91] Creating Layer pool0
I0403 18:36:39.561058 27934 net.cpp:425] pool0 <- conv0
I0403 18:36:39.561116 27934 net.cpp:399] pool0 -> pool0
I0403 18:36:39.561211 27934 net.cpp:141] Setting up pool0
I0403 18:36:39.561246 27934 net.cpp:148] Top shape: 100 50 13 13 (845000)
I0403 18:36:39.561261 27934 net.cpp:156] Memory required for data: 17214800
I0403 18:36:39.561287 27934 layer_factory.hpp:77] Creating layer conv1
I0403 18:36:39.561400 27934 net.cpp:91] Creating Layer conv1
I0403 18:36:39.561432 27934 net.cpp:425] conv1 <- pool0
I0403 18:36:39.561502 27934 net.cpp:399] conv1 -> conv1
I0403 18:36:39.563998 27970 data_layer.cpp:102] Prefetch batch: 4 ms.
I0403 18:36:39.564054 27970 data_layer.cpp:103]      Read time: 0.488 ms.
I0403 18:36:39.564069 27970 data_layer.cpp:104] Transform time: 2.839 ms.
I0403 18:36:39.565320 27934 net.cpp:141] Setting up conv1
I0403 18:36:39.565361 27934 net.cpp:148] Top shape: 100 50 11 11 (605000)
I0403 18:36:39.565372 27934 net.cpp:156] Memory required for data: 19634800
I0403 18:36:39.565435 27934 layer_factory.hpp:77] Creating layer pool1
I0403 18:36:39.565482 27934 net.cpp:91] Creating Layer pool1
I0403 18:36:39.565528 27934 net.cpp:425] pool1 <- conv1
I0403 18:36:39.565584 27934 net.cpp:399] pool1 -> pool1
I0403 18:36:39.565719 27934 net.cpp:141] Setting up pool1
I0403 18:36:39.565768 27934 net.cpp:148] Top shape: 100 50 6 6 (180000)
I0403 18:36:39.565795 27934 net.cpp:156] Memory required for data: 20354800
I0403 18:36:39.565831 27934 layer_factory.hpp:77] Creating layer conv2
I0403 18:36:39.565943 27934 net.cpp:91] Creating Layer conv2
I0403 18:36:39.565984 27934 net.cpp:425] conv2 <- pool1
I0403 18:36:39.566084 27934 net.cpp:399] conv2 -> conv2
I0403 18:36:39.568428 27970 data_layer.cpp:102] Prefetch batch: 4 ms.
I0403 18:36:39.568454 27970 data_layer.cpp:103]      Read time: 0.439 ms.
I0403 18:36:39.568467 27970 data_layer.cpp:104] Transform time: 2.731 ms.
I0403 18:36:39.570042 27934 net.cpp:141] Setting up conv2
I0403 18:36:39.570086 27934 net.cpp:148] Top shape: 100 50 4 4 (80000)
I0403 18:36:39.570097 27934 net.cpp:156] Memory required for data: 20674800
I0403 18:36:39.570160 27934 layer_factory.hpp:77] Creating layer pool2
I0403 18:36:39.570220 27934 net.cpp:91] Creating Layer pool2
I0403 18:36:39.570258 27934 net.cpp:425] pool2 <- conv2
I0403 18:36:39.570310 27934 net.cpp:399] pool2 -> pool2
I0403 18:36:39.570385 27934 net.cpp:141] Setting up pool2
I0403 18:36:39.570415 27934 net.cpp:148] Top shape: 100 50 2 2 (20000)
I0403 18:36:39.570428 27934 net.cpp:156] Memory required for data: 20754800
I0403 18:36:39.570448 27934 layer_factory.hpp:77] Creating layer ip1
I0403 18:36:39.570511 27934 net.cpp:91] Creating Layer ip1
I0403 18:36:39.570536 27934 net.cpp:425] ip1 <- pool2
I0403 18:36:39.570605 27934 net.cpp:399] ip1 -> ip1
I0403 18:36:39.572827 27970 data_layer.cpp:102] Prefetch batch: 4 ms.
I0403 18:36:39.572854 27970 data_layer.cpp:103]      Read time: 0.445 ms.
I0403 18:36:39.572867 27970 data_layer.cpp:104] Transform time: 2.728 ms.
I0403 18:36:39.586668 27934 net.cpp:141] Setting up ip1
I0403 18:36:39.586706 27934 net.cpp:148] Top shape: 100 500 (50000)
I0403 18:36:39.586719 27934 net.cpp:156] Memory required for data: 20954800
I0403 18:36:39.586757 27934 layer_factory.hpp:77] Creating layer relu1
I0403 18:36:39.586802 27934 net.cpp:91] Creating Layer relu1
I0403 18:36:39.586827 27934 net.cpp:425] relu1 <- ip1
I0403 18:36:39.586868 27934 net.cpp:386] relu1 -> ip1 (in-place)
I0403 18:36:39.586911 27934 net.cpp:141] Setting up relu1
I0403 18:36:39.586933 27934 net.cpp:148] Top shape: 100 500 (50000)
I0403 18:36:39.586946 27934 net.cpp:156] Memory required for data: 21154800
I0403 18:36:39.586966 27934 layer_factory.hpp:77] Creating layer ip2
I0403 18:36:39.587014 27934 net.cpp:91] Creating Layer ip2
I0403 18:36:39.587038 27934 net.cpp:425] ip2 <- ip1
I0403 18:36:39.587087 27934 net.cpp:399] ip2 -> ip2
I0403 18:36:39.588032 27934 net.cpp:141] Setting up ip2
I0403 18:36:39.588065 27934 net.cpp:148] Top shape: 100 10 (1000)
I0403 18:36:39.588076 27934 net.cpp:156] Memory required for data: 21158800
I0403 18:36:39.588171 27934 layer_factory.hpp:77] Creating layer ip2_ip2_0_split
I0403 18:36:39.588233 27934 net.cpp:91] Creating Layer ip2_ip2_0_split
I0403 18:36:39.588263 27934 net.cpp:425] ip2_ip2_0_split <- ip2
I0403 18:36:39.588313 27934 net.cpp:399] ip2_ip2_0_split -> ip2_ip2_0_split_0
I0403 18:36:39.588362 27934 net.cpp:399] ip2_ip2_0_split -> ip2_ip2_0_split_1
I0403 18:36:39.588416 27934 net.cpp:141] Setting up ip2_ip2_0_split
I0403 18:36:39.588443 27934 net.cpp:148] Top shape: 100 10 (1000)
I0403 18:36:39.588461 27934 net.cpp:148] Top shape: 100 10 (1000)
I0403 18:36:39.588474 27934 net.cpp:156] Memory required for data: 21166800
I0403 18:36:39.588493 27934 layer_factory.hpp:77] Creating layer accuracy
I0403 18:36:39.588546 27934 net.cpp:91] Creating Layer accuracy
I0403 18:36:39.588569 27934 net.cpp:425] accuracy <- ip2_ip2_0_split_0
I0403 18:36:39.588606 27934 net.cpp:425] accuracy <- label_mnist_1_split_0
I0403 18:36:39.588667 27934 net.cpp:399] accuracy -> accuracy
…
