…
I0428 19:53:52.234591 27885 net.cpp:296] The NetState phase (0) differed from the phase (1) specified by a rule in layer mnist
I0428 19:53:52.234609 27885 net.cpp:296] The NetState phase (0) differed from the phase (1) specified by a rule in layer accuracy
I0428 19:53:52.234715 27885 net.cpp:53] Initializing net from parameters: 
name: "LeNet"
state {
  phase: TRAIN
  level: 0
  stage: ""
}
layer {
  name: "mnist"
  type: "Data"
  top: "data"
  top: "label"
  include {
    phase: TRAIN
  }
  transform_param {
    scale: 0.00390625
  }
  data_param {
    source: "examples/mnist/mnist_train_lmdb"
    batch_size: 64
    backend: LMDB
  }
}
layer {
  name: "conv0"
  type: "Convolution"
  bottom: "data"
  top: "conv0"
  param {
    lr_mult: 1
  }
  param {
    lr_mult: 2
  }
  convolution_param {
    num_output: 5
    kernel_size: 5
    stride: 1
    weight_filler {
      type: "xavier"
    }
    bias_filler {
      type: "constant"
    }
  }
}
layer {
  name: "pool0"
  type: "Pooling"
  bottom: "conv0"
  top: "pool0"
  pooling_param {
    pool: MAX
    kernel_size: 2
    stride: 2
  }
}
layer {
  name: "conv1"
  type: "Convolution"
  bottom: "pool0"
  top: "conv1"
  param {
    lr_mult: 1
  }
  param {
    lr_mult: 2
  }
  convolution_param {
    num_output: 50
    kernel_size: 5
    stride: 1
    weight_filler {
      type: "xavier"
    }
    bias_filler {
      type: "constant"
    }
  }
}
layer {
  name: "pool1"
  type: "Pooling"
  bottom: "conv1"
  top: "pool1"
  pooling_param {
    pool: MAX
    kernel_size: 2
    stride: 2
  }
}
layer {
  name: "ip1"
  type: "InnerProduct"
  bottom: "pool1"
  top: "ip1"
  param {
    lr_mult: 1
  }
  param {
    lr_mult: 2
  }
  inner_product_param {
    num_output: 50
    weight_filler {
      type: "xavier"
    }
    bias_filler {
      type: "constant"
    }
  }
}
layer {
  name: "relu1"
  type: "ReLU"
  bottom: "ip1"
  top: "ip1"
}
layer {
  name: "ip2"
  type: "InnerProduct"
  bottom: "ip1"
  top: "ip2"
  param {
    lr_mult: 1
  }
  param {
    lr_mult: 2
  }
  inner_product_param {
    num_output: 25
    weight_filler {
      type: "xavier"
    }
    bias_filler {
      type: "constant"
    }
  }
}
layer {
  name: "relu2"
  type: "ReLU"
  bottom: "ip2"
  top: "ip2"
}
layer {
  name: "ip3"
  type: "InnerProduct"
  bottom: "ip2"
  top: "ip3"
  param {
    lr_mult: 1
  }
  param {
    lr_mult: 2
  }
  inner_product_param {
    num_output: 10
    weight_filler {
      type: "xavier"
    }
    bias_filler {
      type: "constant"
    }
  }
}
layer {
  name: "relu3"
  type: "ReLU"
  bottom: "ip3"
  top: "ip3"
}
layer {
  name: "loss"
  type: "SoftmaxWithLoss"
  bottom: "ip3"
  bottom: "label"
  top: "loss"
}
I0428 19:53:52.234797 27885 layer_factory.hpp:77] Creating layer mnist
I0428 19:53:52.234894 27885 db_lmdb.cpp:35] Opened lmdb examples/mnist/mnist_train_lmdb
I0428 19:53:52.234920 27885 net.cpp:86] Creating Layer mnist
I0428 19:53:52.234927 27885 net.cpp:382] mnist -> data
I0428 19:53:52.234949 27885 net.cpp:382] mnist -> label
I0428 19:53:52.236038 27885 data_layer.cpp:45] output data size: 64,1,28,28
I0428 19:53:52.238507 27885 net.cpp:124] Setting up mnist
I0428 19:53:52.238523 27885 net.cpp:131] Top shape: 64 1 28 28 (50176)
I0428 19:53:52.238543 27885 net.cpp:131] Top shape: 64 (64)
I0428 19:53:52.238548 27885 net.cpp:139] Memory required for data: 200960
I0428 19:53:52.238554 27885 layer_factory.hpp:77] Creating layer conv0
I0428 19:53:52.238569 27885 net.cpp:86] Creating Layer conv0
I0428 19:53:52.238590 27885 net.cpp:408] conv0 <- data
I0428 19:53:52.238603 27885 net.cpp:382] conv0 -> conv0
I0428 19:53:52.529594 27885 net.cpp:124] Setting up conv0
I0428 19:53:52.529626 27885 net.cpp:131] Top shape: 64 5 24 24 (184320)
I0428 19:53:52.529631 27885 net.cpp:139] Memory required for data: 938240
I0428 19:53:52.529649 27885 layer_factory.hpp:77] Creating layer pool0
I0428 19:53:52.529664 27885 net.cpp:86] Creating Layer pool0
I0428 19:53:52.529671 27885 net.cpp:408] pool0 <- conv0
I0428 19:53:52.529678 27885 net.cpp:382] pool0 -> pool0
I0428 19:53:52.529734 27885 net.cpp:124] Setting up pool0
I0428 19:53:52.529748 27885 net.cpp:131] Top shape: 64 5 12 12 (46080)
I0428 19:53:52.529752 27885 net.cpp:139] Memory required for data: 1122560
I0428 19:53:52.529757 27885 layer_factory.hpp:77] Creating layer conv1
I0428 19:53:52.529769 27885 net.cpp:86] Creating Layer conv1
I0428 19:53:52.529773 27885 net.cpp:408] conv1 <- pool0
I0428 19:53:52.529779 27885 net.cpp:382] conv1 -> conv1
I0428 19:53:52.532939 27885 net.cpp:124] Setting up conv1
I0428 19:53:52.532958 27885 net.cpp:131] Top shape: 64 50 8 8 (204800)
I0428 19:53:52.532963 27885 net.cpp:139] Memory required for data: 1941760
I0428 19:53:52.532973 27885 layer_factory.hpp:77] Creating layer pool1
I0428 19:53:52.532981 27885 net.cpp:86] Creating Layer pool1
I0428 19:53:52.532985 27885 net.cpp:408] pool1 <- conv1
I0428 19:53:52.532991 27885 net.cpp:382] pool1 -> pool1
I0428 19:53:52.533037 27885 net.cpp:124] Setting up pool1
I0428 19:53:52.533047 27885 net.cpp:131] Top shape: 64 50 4 4 (51200)
I0428 19:53:52.533051 27885 net.cpp:139] Memory required for data: 2146560
I0428 19:53:52.533056 27885 layer_factory.hpp:77] Creating layer ip1
I0428 19:53:52.533064 27885 net.cpp:86] Creating Layer ip1
I0428 19:53:52.533067 27885 net.cpp:408] ip1 <- pool1
I0428 19:53:52.533073 27885 net.cpp:382] ip1 -> ip1
I0428 19:53:52.533466 27885 net.cpp:124] Setting up ip1
I0428 19:53:52.533475 27885 net.cpp:131] Top shape: 64 50 (3200)
I0428 19:53:52.533478 27885 net.cpp:139] Memory required for data: 2159360
I0428 19:53:52.533486 27885 layer_factory.hpp:77] Creating layer relu1
I0428 19:53:52.533493 27885 net.cpp:86] Creating Layer relu1
I0428 19:53:52.533496 27885 net.cpp:408] relu1 <- ip1
I0428 19:53:52.533501 27885 net.cpp:369] relu1 -> ip1 (in-place)
I0428 19:53:52.533696 27885 net.cpp:124] Setting up relu1
I0428 19:53:52.533706 27885 net.cpp:131] Top shape: 64 50 (3200)
I0428 19:53:52.533710 27885 net.cpp:139] Memory required for data: 2172160
I0428 19:53:52.533715 27885 layer_factory.hpp:77] Creating layer ip2
I0428 19:53:52.533721 27885 net.cpp:86] Creating Layer ip2
I0428 19:53:52.533725 27885 net.cpp:408] ip2 <- ip1
I0428 19:53:52.533730 27885 net.cpp:382] ip2 -> ip2
I0428 19:53:52.534814 27885 net.cpp:124] Setting up ip2
I0428 19:53:52.534829 27885 net.cpp:131] Top shape: 64 25 (1600)
I0428 19:53:52.534833 27885 net.cpp:139] Memory required for data: 2178560
I0428 19:53:52.534842 27885 layer_factory.hpp:77] Creating layer relu2
I0428 19:53:52.534848 27885 net.cpp:86] Creating Layer relu2
I0428 19:53:52.534852 27885 net.cpp:408] relu2 <- ip2
I0428 19:53:52.534858 27885 net.cpp:369] relu2 -> ip2 (in-place)
I0428 19:53:52.535712 27885 net.cpp:124] Setting up relu2
I0428 19:53:52.535727 27885 net.cpp:131] Top shape: 64 25 (1600)
I0428 19:53:52.535730 27885 net.cpp:139] Memory required for data: 2184960
I0428 19:53:52.535734 27885 layer_factory.hpp:77] Creating layer ip3
I0428 19:53:52.535742 27885 net.cpp:86] Creating Layer ip3
I0428 19:53:52.535747 27885 net.cpp:408] ip3 <- ip2
I0428 19:53:52.535753 27885 net.cpp:382] ip3 -> ip3
I0428 19:53:52.535874 27885 net.cpp:124] Setting up ip3
I0428 19:53:52.535883 27885 net.cpp:131] Top shape: 64 10 (640)
I0428 19:53:52.535887 27885 net.cpp:139] Memory required for data: 2187520
I0428 19:53:52.535897 27885 layer_factory.hpp:77] Creating layer relu3
I0428 19:53:52.535902 27885 net.cpp:86] Creating Layer relu3
I0428 19:53:52.535907 27885 net.cpp:408] relu3 <- ip3
I0428 19:53:52.535910 27885 net.cpp:369] relu3 -> ip3 (in-place)
I0428 19:53:52.536113 27885 net.cpp:124] Setting up relu3
I0428 19:53:52.536123 27885 net.cpp:131] Top shape: 64 10 (640)
I0428 19:53:52.536128 27885 net.cpp:139] Memory required for data: 2190080
I0428 19:53:52.536131 27885 layer_factory.hpp:77] Creating layer loss
I0428 19:53:52.536139 27885 net.cpp:86] Creating Layer loss
I0428 19:53:52.536142 27885 net.cpp:408] loss <- ip3
I0428 19:53:52.536146 27885 net.cpp:408] loss <- label
I0428 19:53:52.536152 27885 net.cpp:382] loss -> loss
I0428 19:53:52.536173 27885 layer_factory.hpp:77] Creating layer loss
…
I0428 19:53:52.536927 27885 solver.cpp:173] Creating test net (#0) specified by net file: ECE595/mnist/train_test/var_everything2/lenet_train_test698.prototxt
I0428 19:53:52.536960 27885 net.cpp:296] The NetState phase (1) differed from the phase (0) specified by a rule in layer mnist
I0428 19:53:52.537070 27885 net.cpp:53] Initializing net from parameters: 
name: "LeNet"
state {
  phase: TEST
}
layer {
  name: "mnist"
  type: "Data"
  top: "data"
  top: "label"
  include {
    phase: TEST
  }
  transform_param {
    scale: 0.00390625
  }
  data_param {
    source: "examples/mnist/mnist_test_lmdb"
    batch_size: 100
    backend: LMDB
  }
}
layer {
  name: "conv0"
  type: "Convolution"
  bottom: "data"
  top: "conv0"
  param {
    lr_mult: 1
  }
  param {
    lr_mult: 2
  }
  convolution_param {
    num_output: 5
    kernel_size: 5
    stride: 1
    weight_filler {
      type: "xavier"
    }
    bias_filler {
      type: "constant"
    }
  }
}
layer {
  name: "pool0"
  type: "Pooling"
  bottom: "conv0"
  top: "pool0"
  pooling_param {
    pool: MAX
    kernel_size: 2
    stride: 2
  }
}
layer {
  name: "conv1"
  type: "Convolution"
  bottom: "pool0"
  top: "conv1"
  param {
    lr_mult: 1
  }
  param {
    lr_mult: 2
  }
  convolution_param {
    num_output: 50
    kernel_size: 5
    stride: 1
    weight_filler {
      type: "xavier"
    }
    bias_filler {
      type: "constant"
    }
  }
}
layer {
  name: "pool1"
  type: "Pooling"
  bottom: "conv1"
  top: "pool1"
  pooling_param {
    pool: MAX
    kernel_size: 2
    stride: 2
  }
}
layer {
  name: "ip1"
  type: "InnerProduct"
  bottom: "pool1"
  top: "ip1"
  param {
    lr_mult: 1
  }
  param {
    lr_mult: 2
  }
  inner_product_param {
    num_output: 50
    weight_filler {
      type: "xavier"
    }
    bias_filler {
      type: "constant"
    }
  }
}
layer {
  name: "relu1"
  type: "ReLU"
  bottom: "ip1"
  top: "ip1"
}
layer {
  name: "ip2"
  type: "InnerProduct"
  bottom: "ip1"
  top: "ip2"
  param {
    lr_mult: 1
  }
  param {
    lr_mult: 2
  }
  inner_product_param {
    num_output: 25
    weight_filler {
      type: "xavier"
    }
    bias_filler {
      type: "constant"
    }
  }
}
layer {
  name: "relu2"
  type: "ReLU"
  bottom: "ip2"
  top: "ip2"
}
layer {
  name: "ip3"
  type: "InnerProduct"
  bottom: "ip2"
  top: "ip3"
  param {
    lr_mult: 1
  }
  param {
    lr_mult: 2
  }
  inner_product_param {
    num_output: 10
    weight_filler {
      type: "xavier"
    }
    bias_filler {
      type: "constant"
    }
  }
}
layer {
  name: "relu3"
  type: "ReLU"
  bottom: "ip3"
  top: "ip3"
}
layer {
  name: "accuracy"
  type: "Accuracy"
  bottom: "ip3"
  bottom: "label"
  top: "accuracy"
  include {
    phase: TEST
  }
}
layer {
  name: "loss"
  type: "SoftmaxWithLoss"
  bottom: "ip3"
  bottom: "label"
  top: "loss"
}
I0428 19:53:52.537163 27885 layer_factory.hpp:77] Creating layer mnist
I0428 19:53:52.537215 27885 db_lmdb.cpp:35] Opened lmdb examples/mnist/mnist_test_lmdb
I0428 19:53:52.537230 27885 net.cpp:86] Creating Layer mnist
I0428 19:53:52.537236 27885 net.cpp:382] mnist -> data
I0428 19:53:52.537245 27885 net.cpp:382] mnist -> label
I0428 19:53:52.537346 27885 data_layer.cpp:45] output data size: 100,1,28,28
I0428 19:53:52.539736 27885 net.cpp:124] Setting up mnist
I0428 19:53:52.539752 27885 net.cpp:131] Top shape: 100 1 28 28 (78400)
I0428 19:53:52.539757 27885 net.cpp:131] Top shape: 100 (100)
I0428 19:53:52.539760 27885 net.cpp:139] Memory required for data: 314000
I0428 19:53:52.539765 27885 layer_factory.hpp:77] Creating layer label_mnist_1_split
I0428 19:53:52.539782 27885 net.cpp:86] Creating Layer label_mnist_1_split
I0428 19:53:52.539786 27885 net.cpp:408] label_mnist_1_split <- label
I0428 19:53:52.539791 27885 net.cpp:382] label_mnist_1_split -> label_mnist_1_split_0
I0428 19:53:52.539799 27885 net.cpp:382] label_mnist_1_split -> label_mnist_1_split_1
I0428 19:53:52.539852 27885 net.cpp:124] Setting up label_mnist_1_split
I0428 19:53:52.539861 27885 net.cpp:131] Top shape: 100 (100)
I0428 19:53:52.539865 27885 net.cpp:131] Top shape: 100 (100)
I0428 19:53:52.539868 27885 net.cpp:139] Memory required for data: 314800
I0428 19:53:52.539872 27885 layer_factory.hpp:77] Creating layer conv0
I0428 19:53:52.539881 27885 net.cpp:86] Creating Layer conv0
I0428 19:53:52.539885 27885 net.cpp:408] conv0 <- data
I0428 19:53:52.539891 27885 net.cpp:382] conv0 -> conv0
I0428 19:53:52.541719 27885 net.cpp:124] Setting up conv0
I0428 19:53:52.541736 27885 net.cpp:131] Top shape: 100 5 24 24 (288000)
I0428 19:53:52.541740 27885 net.cpp:139] Memory required for data: 1466800
I0428 19:53:52.541754 27885 layer_factory.hpp:77] Creating layer pool0
I0428 19:53:52.541760 27885 net.cpp:86] Creating Layer pool0
I0428 19:53:52.541764 27885 net.cpp:408] pool0 <- conv0
I0428 19:53:52.541769 27885 net.cpp:382] pool0 -> pool0
I0428 19:53:52.541815 27885 net.cpp:124] Setting up pool0
I0428 19:53:52.541823 27885 net.cpp:131] Top shape: 100 5 12 12 (72000)
I0428 19:53:52.541829 27885 net.cpp:139] Memory required for data: 1754800
I0428 19:53:52.541833 27885 layer_factory.hpp:77] Creating layer conv1
I0428 19:53:52.541849 27885 net.cpp:86] Creating Layer conv1
I0428 19:53:52.541857 27885 net.cpp:408] conv1 <- pool0
I0428 19:53:52.541869 27885 net.cpp:382] conv1 -> conv1
I0428 19:53:52.543640 27885 net.cpp:124] Setting up conv1
I0428 19:53:52.543656 27885 net.cpp:131] Top shape: 100 50 8 8 (320000)
I0428 19:53:52.543660 27885 net.cpp:139] Memory required for data: 3034800
I0428 19:53:52.543673 27885 layer_factory.hpp:77] Creating layer pool1
I0428 19:53:52.543680 27885 net.cpp:86] Creating Layer pool1
I0428 19:53:52.543684 27885 net.cpp:408] pool1 <- conv1
I0428 19:53:52.543701 27885 net.cpp:382] pool1 -> pool1
I0428 19:53:52.543745 27885 net.cpp:124] Setting up pool1
I0428 19:53:52.543751 27885 net.cpp:131] Top shape: 100 50 4 4 (80000)
I0428 19:53:52.543754 27885 net.cpp:139] Memory required for data: 3354800
I0428 19:53:52.543758 27885 layer_factory.hpp:77] Creating layer ip1
I0428 19:53:52.543766 27885 net.cpp:86] Creating Layer ip1
I0428 19:53:52.543771 27885 net.cpp:408] ip1 <- pool1
I0428 19:53:52.543776 27885 net.cpp:382] ip1 -> ip1
I0428 19:53:52.544164 27885 net.cpp:124] Setting up ip1
I0428 19:53:52.544174 27885 net.cpp:131] Top shape: 100 50 (5000)
I0428 19:53:52.544189 27885 net.cpp:139] Memory required for data: 3374800
I0428 19:53:52.544198 27885 layer_factory.hpp:77] Creating layer relu1
I0428 19:53:52.544206 27885 net.cpp:86] Creating Layer relu1
I0428 19:53:52.544210 27885 net.cpp:408] relu1 <- ip1
I0428 19:53:52.544215 27885 net.cpp:369] relu1 -> ip1 (in-place)
I0428 19:53:52.544409 27885 net.cpp:124] Setting up relu1
I0428 19:53:52.544420 27885 net.cpp:131] Top shape: 100 50 (5000)
I0428 19:53:52.544422 27885 net.cpp:139] Memory required for data: 3394800
I0428 19:53:52.544426 27885 layer_factory.hpp:77] Creating layer ip2
I0428 19:53:52.544435 27885 net.cpp:86] Creating Layer ip2
I0428 19:53:52.544440 27885 net.cpp:408] ip2 <- ip1
I0428 19:53:52.544445 27885 net.cpp:382] ip2 -> ip2
I0428 19:53:52.544589 27885 net.cpp:124] Setting up ip2
I0428 19:53:52.544598 27885 net.cpp:131] Top shape: 100 25 (2500)
I0428 19:53:52.544601 27885 net.cpp:139] Memory required for data: 3404800
I0428 19:53:52.544607 27885 layer_factory.hpp:77] Creating layer relu2
I0428 19:53:52.544612 27885 net.cpp:86] Creating Layer relu2
I0428 19:53:52.544616 27885 net.cpp:408] relu2 <- ip2
I0428 19:53:52.544620 27885 net.cpp:369] relu2 -> ip2 (in-place)
I0428 19:53:52.544843 27885 net.cpp:124] Setting up relu2
I0428 19:53:52.544855 27885 net.cpp:131] Top shape: 100 25 (2500)
I0428 19:53:52.544859 27885 net.cpp:139] Memory required for data: 3414800
I0428 19:53:52.544862 27885 layer_factory.hpp:77] Creating layer ip3
I0428 19:53:52.544869 27885 net.cpp:86] Creating Layer ip3
I0428 19:53:52.544872 27885 net.cpp:408] ip3 <- ip2
I0428 19:53:52.544879 27885 net.cpp:382] ip3 -> ip3
I0428 19:53:52.544998 27885 net.cpp:124] Setting up ip3
I0428 19:53:52.545007 27885 net.cpp:131] Top shape: 100 10 (1000)
I0428 19:53:52.545011 27885 net.cpp:139] Memory required for data: 3418800
I0428 19:53:52.545020 27885 layer_factory.hpp:77] Creating layer relu3
I0428 19:53:52.545027 27885 net.cpp:86] Creating Layer relu3
I0428 19:53:52.545030 27885 net.cpp:408] relu3 <- ip3
I0428 19:53:52.545034 27885 net.cpp:369] relu3 -> ip3 (in-place)
I0428 19:53:52.546028 27885 net.cpp:124] Setting up relu3
I0428 19:53:52.546042 27885 net.cpp:131] Top shape: 100 10 (1000)
I0428 19:53:52.546046 27885 net.cpp:139] Memory required for data: 3422800
I0428 19:53:52.546051 27885 layer_factory.hpp:77] Creating layer ip3_relu3_0_split
I0428 19:53:52.546057 27885 net.cpp:86] Creating Layer ip3_relu3_0_split
I0428 19:53:52.546061 27885 net.cpp:408] ip3_relu3_0_split <- ip3
I0428 19:53:52.546067 27885 net.cpp:382] ip3_relu3_0_split -> ip3_relu3_0_split_0
I0428 19:53:52.546074 27885 net.cpp:382] ip3_relu3_0_split -> ip3_relu3_0_split_1
I0428 19:53:52.546136 27885 net.cpp:124] Setting up ip3_relu3_0_split
I0428 19:53:52.546145 27885 net.cpp:131] Top shape: 100 10 (1000)
I0428 19:53:52.546149 27885 net.cpp:131] Top shape: 100 10 (1000)
I0428 19:53:52.546152 27885 net.cpp:139] Memory required for data: 3430800
I0428 19:53:52.546156 27885 layer_factory.hpp:77] Creating layer accuracy
I0428 19:53:52.546161 27885 net.cpp:86] Creating Layer accuracy
I0428 19:53:52.546165 27885 net.cpp:408] accuracy <- ip3_relu3_0_split_0
I0428 19:53:52.546169 27885 net.cpp:408] accuracy <- label_mnist_1_split_0
I0428 19:53:52.546176 27885 net.cpp:382] accuracy -> accuracy
…
