…
I0428 19:31:16.965433 22536 net.cpp:296] The NetState phase (0) differed from the phase (1) specified by a rule in layer mnist
I0428 19:31:16.965448 22536 net.cpp:296] The NetState phase (0) differed from the phase (1) specified by a rule in layer accuracy
I0428 19:31:16.965518 22536 net.cpp:53] Initializing net from parameters: 
name: "LeNet"
state {
  phase: TRAIN
  level: 0
  stage: ""
}
layer {
  name: "mnist"
  type: "Data"
  top: "data"
  top: "label"
  include {
    phase: TRAIN
  }
  transform_param {
    scale: 0.00390625
  }
  data_param {
    source: "examples/mnist/mnist_train_lmdb"
    batch_size: 64
    backend: LMDB
  }
}
layer {
  name: "conv0"
  type: "Convolution"
  bottom: "data"
  top: "conv0"
  param {
    lr_mult: 1
  }
  param {
    lr_mult: 2
  }
  convolution_param {
    num_output: 10
    kernel_size: 5
    stride: 1
    weight_filler {
      type: "xavier"
    }
    bias_filler {
      type: "constant"
    }
  }
}
layer {
  name: "pool0"
  type: "Pooling"
  bottom: "conv0"
  top: "pool0"
  pooling_param {
    pool: MAX
    kernel_size: 2
    stride: 2
  }
}
layer {
  name: "ip1"
  type: "InnerProduct"
  bottom: "pool0"
  top: "ip1"
  param {
    lr_mult: 1
  }
  param {
    lr_mult: 2
  }
  inner_product_param {
    num_output: 10
    weight_filler {
      type: "xavier"
    }
    bias_filler {
      type: "constant"
    }
  }
}
layer {
  name: "relu1"
  type: "ReLU"
  bottom: "ip1"
  top: "ip1"
}
layer {
  name: "loss"
  type: "SoftmaxWithLoss"
  bottom: "ip1"
  bottom: "label"
  top: "loss"
}
I0428 19:31:16.965579 22536 layer_factory.hpp:77] Creating layer mnist
I0428 19:31:16.965678 22536 db_lmdb.cpp:35] Opened lmdb examples/mnist/mnist_train_lmdb
I0428 19:31:16.965703 22536 net.cpp:86] Creating Layer mnist
I0428 19:31:16.965710 22536 net.cpp:382] mnist -> data
I0428 19:31:16.965733 22536 net.cpp:382] mnist -> label
I0428 19:31:16.966832 22536 data_layer.cpp:45] output data size: 64,1,28,28
I0428 19:31:16.969292 22536 net.cpp:124] Setting up mnist
I0428 19:31:16.969310 22536 net.cpp:131] Top shape: 64 1 28 28 (50176)
I0428 19:31:16.969319 22536 net.cpp:131] Top shape: 64 (64)
I0428 19:31:16.969323 22536 net.cpp:139] Memory required for data: 200960
I0428 19:31:16.969331 22536 layer_factory.hpp:77] Creating layer conv0
I0428 19:31:16.969347 22536 net.cpp:86] Creating Layer conv0
I0428 19:31:16.969352 22536 net.cpp:408] conv0 <- data
I0428 19:31:16.969364 22536 net.cpp:382] conv0 -> conv0
I0428 19:31:17.258965 22536 net.cpp:124] Setting up conv0
I0428 19:31:17.258996 22536 net.cpp:131] Top shape: 64 10 24 24 (368640)
I0428 19:31:17.258999 22536 net.cpp:139] Memory required for data: 1675520
I0428 19:31:17.259016 22536 layer_factory.hpp:77] Creating layer pool0
I0428 19:31:17.259029 22536 net.cpp:86] Creating Layer pool0
I0428 19:31:17.259034 22536 net.cpp:408] pool0 <- conv0
I0428 19:31:17.259040 22536 net.cpp:382] pool0 -> pool0
I0428 19:31:17.259093 22536 net.cpp:124] Setting up pool0
I0428 19:31:17.259099 22536 net.cpp:131] Top shape: 64 10 12 12 (92160)
I0428 19:31:17.259101 22536 net.cpp:139] Memory required for data: 2044160
I0428 19:31:17.259105 22536 layer_factory.hpp:77] Creating layer ip1
I0428 19:31:17.259114 22536 net.cpp:86] Creating Layer ip1
I0428 19:31:17.259116 22536 net.cpp:408] ip1 <- pool0
I0428 19:31:17.259122 22536 net.cpp:382] ip1 -> ip1
I0428 19:31:17.260210 22536 net.cpp:124] Setting up ip1
I0428 19:31:17.260224 22536 net.cpp:131] Top shape: 64 10 (640)
I0428 19:31:17.260244 22536 net.cpp:139] Memory required for data: 2046720
I0428 19:31:17.260253 22536 layer_factory.hpp:77] Creating layer relu1
I0428 19:31:17.260262 22536 net.cpp:86] Creating Layer relu1
I0428 19:31:17.260265 22536 net.cpp:408] relu1 <- ip1
I0428 19:31:17.260270 22536 net.cpp:369] relu1 -> ip1 (in-place)
I0428 19:31:17.260457 22536 net.cpp:124] Setting up relu1
I0428 19:31:17.260468 22536 net.cpp:131] Top shape: 64 10 (640)
I0428 19:31:17.260471 22536 net.cpp:139] Memory required for data: 2049280
I0428 19:31:17.260474 22536 layer_factory.hpp:77] Creating layer loss
I0428 19:31:17.260480 22536 net.cpp:86] Creating Layer loss
I0428 19:31:17.260484 22536 net.cpp:408] loss <- ip1
I0428 19:31:17.260488 22536 net.cpp:408] loss <- label
I0428 19:31:17.260494 22536 net.cpp:382] loss -> loss
I0428 19:31:17.260514 22536 layer_factory.hpp:77] Creating layer loss
…
I0428 19:31:17.261695 22536 solver.cpp:173] Creating test net (#0) specified by net file: ECE595/mnist/train_test/var_everything2/lenet_train_test117.prototxt
I0428 19:31:17.261719 22536 net.cpp:296] The NetState phase (1) differed from the phase (0) specified by a rule in layer mnist
I0428 19:31:17.261790 22536 net.cpp:53] Initializing net from parameters: 
name: "LeNet"
state {
  phase: TEST
}
layer {
  name: "mnist"
  type: "Data"
  top: "data"
  top: "label"
  include {
    phase: TEST
  }
  transform_param {
    scale: 0.00390625
  }
  data_param {
    source: "examples/mnist/mnist_test_lmdb"
    batch_size: 100
    backend: LMDB
  }
}
layer {
  name: "conv0"
  type: "Convolution"
  bottom: "data"
  top: "conv0"
  param {
    lr_mult: 1
  }
  param {
    lr_mult: 2
  }
  convolution_param {
    num_output: 10
    kernel_size: 5
    stride: 1
    weight_filler {
      type: "xavier"
    }
    bias_filler {
      type: "constant"
    }
  }
}
layer {
  name: "pool0"
  type: "Pooling"
  bottom: "conv0"
  top: "pool0"
  pooling_param {
    pool: MAX
    kernel_size: 2
    stride: 2
  }
}
layer {
  name: "ip1"
  type: "InnerProduct"
  bottom: "pool0"
  top: "ip1"
  param {
    lr_mult: 1
  }
  param {
    lr_mult: 2
  }
  inner_product_param {
    num_output: 10
    weight_filler {
      type: "xavier"
    }
    bias_filler {
      type: "constant"
    }
  }
}
layer {
  name: "relu1"
  type: "ReLU"
  bottom: "ip1"
  top: "ip1"
}
layer {
  name: "accuracy"
  type: "Accuracy"
  bottom: "ip1"
  bottom: "label"
  top: "accuracy"
  include {
    phase: TEST
  }
}
layer {
  name: "loss"
  type: "SoftmaxWithLoss"
  bottom: "ip1"
  bottom: "label"
  top: "loss"
}
I0428 19:31:17.261847 22536 layer_factory.hpp:77] Creating layer mnist
I0428 19:31:17.261896 22536 db_lmdb.cpp:35] Opened lmdb examples/mnist/mnist_test_lmdb
I0428 19:31:17.261909 22536 net.cpp:86] Creating Layer mnist
I0428 19:31:17.261914 22536 net.cpp:382] mnist -> data
I0428 19:31:17.261922 22536 net.cpp:382] mnist -> label
I0428 19:31:17.262015 22536 data_layer.cpp:45] output data size: 100,1,28,28
I0428 19:31:17.264045 22536 net.cpp:124] Setting up mnist
I0428 19:31:17.264060 22536 net.cpp:131] Top shape: 100 1 28 28 (78400)
I0428 19:31:17.264065 22536 net.cpp:131] Top shape: 100 (100)
I0428 19:31:17.264070 22536 net.cpp:139] Memory required for data: 314000
I0428 19:31:17.264084 22536 layer_factory.hpp:77] Creating layer label_mnist_1_split
I0428 19:31:17.264117 22536 net.cpp:86] Creating Layer label_mnist_1_split
I0428 19:31:17.264120 22536 net.cpp:408] label_mnist_1_split <- label
I0428 19:31:17.264125 22536 net.cpp:382] label_mnist_1_split -> label_mnist_1_split_0
I0428 19:31:17.264133 22536 net.cpp:382] label_mnist_1_split -> label_mnist_1_split_1
I0428 19:31:17.264184 22536 net.cpp:124] Setting up label_mnist_1_split
I0428 19:31:17.264191 22536 net.cpp:131] Top shape: 100 (100)
I0428 19:31:17.264195 22536 net.cpp:131] Top shape: 100 (100)
I0428 19:31:17.264199 22536 net.cpp:139] Memory required for data: 314800
I0428 19:31:17.264202 22536 layer_factory.hpp:77] Creating layer conv0
I0428 19:31:17.264211 22536 net.cpp:86] Creating Layer conv0
I0428 19:31:17.264215 22536 net.cpp:408] conv0 <- data
I0428 19:31:17.264220 22536 net.cpp:382] conv0 -> conv0
I0428 19:31:17.266005 22536 net.cpp:124] Setting up conv0
I0428 19:31:17.266021 22536 net.cpp:131] Top shape: 100 10 24 24 (576000)
I0428 19:31:17.266026 22536 net.cpp:139] Memory required for data: 2618800
I0428 19:31:17.266034 22536 layer_factory.hpp:77] Creating layer pool0
I0428 19:31:17.266041 22536 net.cpp:86] Creating Layer pool0
I0428 19:31:17.266046 22536 net.cpp:408] pool0 <- conv0
I0428 19:31:17.266052 22536 net.cpp:382] pool0 -> pool0
I0428 19:31:17.266089 22536 net.cpp:124] Setting up pool0
I0428 19:31:17.266095 22536 net.cpp:131] Top shape: 100 10 12 12 (144000)
I0428 19:31:17.266099 22536 net.cpp:139] Memory required for data: 3194800
I0428 19:31:17.266103 22536 layer_factory.hpp:77] Creating layer ip1
I0428 19:31:17.266109 22536 net.cpp:86] Creating Layer ip1
I0428 19:31:17.266113 22536 net.cpp:408] ip1 <- pool0
I0428 19:31:17.266119 22536 net.cpp:382] ip1 -> ip1
I0428 19:31:17.266307 22536 net.cpp:124] Setting up ip1
I0428 19:31:17.266316 22536 net.cpp:131] Top shape: 100 10 (1000)
I0428 19:31:17.266319 22536 net.cpp:139] Memory required for data: 3198800
I0428 19:31:17.266327 22536 layer_factory.hpp:77] Creating layer relu1
I0428 19:31:17.266332 22536 net.cpp:86] Creating Layer relu1
I0428 19:31:17.266335 22536 net.cpp:408] relu1 <- ip1
I0428 19:31:17.266340 22536 net.cpp:369] relu1 -> ip1 (in-place)
I0428 19:31:17.266510 22536 net.cpp:124] Setting up relu1
I0428 19:31:17.266520 22536 net.cpp:131] Top shape: 100 10 (1000)
I0428 19:31:17.266523 22536 net.cpp:139] Memory required for data: 3202800
I0428 19:31:17.266526 22536 layer_factory.hpp:77] Creating layer ip1_relu1_0_split
I0428 19:31:17.266531 22536 net.cpp:86] Creating Layer ip1_relu1_0_split
I0428 19:31:17.266535 22536 net.cpp:408] ip1_relu1_0_split <- ip1
I0428 19:31:17.266540 22536 net.cpp:382] ip1_relu1_0_split -> ip1_relu1_0_split_0
I0428 19:31:17.266546 22536 net.cpp:382] ip1_relu1_0_split -> ip1_relu1_0_split_1
I0428 19:31:17.266582 22536 net.cpp:124] Setting up ip1_relu1_0_split
I0428 19:31:17.266587 22536 net.cpp:131] Top shape: 100 10 (1000)
I0428 19:31:17.266592 22536 net.cpp:131] Top shape: 100 10 (1000)
I0428 19:31:17.266594 22536 net.cpp:139] Memory required for data: 3210800
I0428 19:31:17.266597 22536 layer_factory.hpp:77] Creating layer accuracy
I0428 19:31:17.266603 22536 net.cpp:86] Creating Layer accuracy
I0428 19:31:17.266607 22536 net.cpp:408] accuracy <- ip1_relu1_0_split_0
I0428 19:31:17.266611 22536 net.cpp:408] accuracy <- label_mnist_1_split_0
I0428 19:31:17.266615 22536 net.cpp:382] accuracy -> accuracy
…
