…
I0428 20:17:05.720595   794 net.cpp:296] The NetState phase (0) differed from the phase (1) specified by a rule in layer mnist
I0428 20:17:05.720623   794 net.cpp:296] The NetState phase (0) differed from the phase (1) specified by a rule in layer accuracy
I0428 20:17:05.720701   794 net.cpp:53] Initializing net from parameters: 
name: "LeNet"
state {
  phase: TRAIN
  level: 0
  stage: ""
}
layer {
  name: "mnist"
  type: "Data"
  top: "data"
  top: "label"
  include {
    phase: TRAIN
  }
  transform_param {
    scale: 0.00390625
  }
  data_param {
    source: "examples/mnist/mnist_train_lmdb"
    batch_size: 64
    backend: LMDB
  }
}
layer {
  name: "conv0"
  type: "Convolution"
  bottom: "data"
  top: "conv0"
  param {
    lr_mult: 1
  }
  param {
    lr_mult: 2
  }
  convolution_param {
    num_output: 50
    kernel_size: 5
    stride: 1
    weight_filler {
      type: "xavier"
    }
    bias_filler {
      type: "constant"
    }
  }
}
layer {
  name: "pool0"
  type: "Pooling"
  bottom: "conv0"
  top: "pool0"
  pooling_param {
    pool: MAX
    kernel_size: 2
    stride: 2
  }
}
layer {
  name: "conv1"
  type: "Convolution"
  bottom: "pool0"
  top: "conv1"
  param {
    lr_mult: 1
  }
  param {
    lr_mult: 2
  }
  convolution_param {
    num_output: 5
    kernel_size: 5
    stride: 1
    weight_filler {
      type: "xavier"
    }
    bias_filler {
      type: "constant"
    }
  }
}
layer {
  name: "pool1"
  type: "Pooling"
  bottom: "conv1"
  top: "pool1"
  pooling_param {
    pool: MAX
    kernel_size: 2
    stride: 2
  }
}
layer {
  name: "ip1"
  type: "InnerProduct"
  bottom: "pool1"
  top: "ip1"
  param {
    lr_mult: 1
  }
  param {
    lr_mult: 2
  }
  inner_product_param {
    num_output: 50
    weight_filler {
      type: "xavier"
    }
    bias_filler {
      type: "constant"
    }
  }
}
layer {
  name: "relu1"
  type: "ReLU"
  bottom: "ip1"
  top: "ip1"
}
layer {
  name: "ip2"
  type: "InnerProduct"
  bottom: "ip1"
  top: "ip2"
  param {
    lr_mult: 1
  }
  param {
    lr_mult: 2
  }
  inner_product_param {
    num_output: 50
    weight_filler {
      type: "xavier"
    }
    bias_filler {
      type: "constant"
    }
  }
}
layer {
  name: "relu2"
  type: "ReLU"
  bottom: "ip2"
  top: "ip2"
}
layer {
  name: "ip3"
  type: "InnerProduct"
  bottom: "ip2"
  top: "ip3"
  param {
    lr_mult: 1
  }
  param {
    lr_mult: 2
  }
  inner_product_param {
    num_output: 10
    weight_filler {
      type: "xavier"
    }
    bias_filler {
      type: "constant"
    }
  }
}
layer {
  name: "relu3"
  type: "ReLU"
  bottom: "ip3"
  top: "ip3"
}
layer {
  name: "loss"
  type: "SoftmaxWithLoss"
  bottom: "ip3"
  bottom: "label"
  top: "loss"
}
I0428 20:17:05.720764   794 layer_factory.hpp:77] Creating layer mnist
I0428 20:17:05.720865   794 db_lmdb.cpp:35] Opened lmdb examples/mnist/mnist_train_lmdb
I0428 20:17:05.720885   794 net.cpp:86] Creating Layer mnist
I0428 20:17:05.720892   794 net.cpp:382] mnist -> data
I0428 20:17:05.720911   794 net.cpp:382] mnist -> label
I0428 20:17:05.721861   794 data_layer.cpp:45] output data size: 64,1,28,28
I0428 20:17:05.723995   794 net.cpp:124] Setting up mnist
I0428 20:17:05.724041   794 net.cpp:131] Top shape: 64 1 28 28 (50176)
I0428 20:17:05.724048   794 net.cpp:131] Top shape: 64 (64)
I0428 20:17:05.724066   794 net.cpp:139] Memory required for data: 200960
I0428 20:17:05.724072   794 layer_factory.hpp:77] Creating layer conv0
I0428 20:17:05.724098   794 net.cpp:86] Creating Layer conv0
I0428 20:17:05.724115   794 net.cpp:408] conv0 <- data
I0428 20:17:05.724125   794 net.cpp:382] conv0 -> conv0
I0428 20:17:05.955696   794 net.cpp:124] Setting up conv0
I0428 20:17:05.955752   794 net.cpp:131] Top shape: 64 50 24 24 (1843200)
I0428 20:17:05.955762   794 net.cpp:139] Memory required for data: 7573760
I0428 20:17:05.955801   794 layer_factory.hpp:77] Creating layer pool0
I0428 20:17:05.955822   794 net.cpp:86] Creating Layer pool0
I0428 20:17:05.955832   794 net.cpp:408] pool0 <- conv0
I0428 20:17:05.955842   794 net.cpp:382] pool0 -> pool0
I0428 20:17:05.955955   794 net.cpp:124] Setting up pool0
I0428 20:17:05.955971   794 net.cpp:131] Top shape: 64 50 12 12 (460800)
I0428 20:17:05.955976   794 net.cpp:139] Memory required for data: 9416960
I0428 20:17:05.955983   794 layer_factory.hpp:77] Creating layer conv1
I0428 20:17:05.956003   794 net.cpp:86] Creating Layer conv1
I0428 20:17:05.956012   794 net.cpp:408] conv1 <- pool0
I0428 20:17:05.956023   794 net.cpp:382] conv1 -> conv1
I0428 20:17:05.961505   794 net.cpp:124] Setting up conv1
I0428 20:17:05.961546   794 net.cpp:131] Top shape: 64 5 8 8 (20480)
I0428 20:17:05.961555   794 net.cpp:139] Memory required for data: 9498880
I0428 20:17:05.961572   794 layer_factory.hpp:77] Creating layer pool1
I0428 20:17:05.961601   794 net.cpp:86] Creating Layer pool1
I0428 20:17:05.961607   794 net.cpp:408] pool1 <- conv1
I0428 20:17:05.961618   794 net.cpp:382] pool1 -> pool1
I0428 20:17:05.961695   794 net.cpp:124] Setting up pool1
I0428 20:17:05.961716   794 net.cpp:131] Top shape: 64 5 4 4 (5120)
I0428 20:17:05.961722   794 net.cpp:139] Memory required for data: 9519360
I0428 20:17:05.961730   794 layer_factory.hpp:77] Creating layer ip1
I0428 20:17:05.961743   794 net.cpp:86] Creating Layer ip1
I0428 20:17:05.961753   794 net.cpp:408] ip1 <- pool1
I0428 20:17:05.961763   794 net.cpp:382] ip1 -> ip1
I0428 20:17:05.962023   794 net.cpp:124] Setting up ip1
I0428 20:17:05.962038   794 net.cpp:131] Top shape: 64 50 (3200)
I0428 20:17:05.962044   794 net.cpp:139] Memory required for data: 9532160
I0428 20:17:05.962059   794 layer_factory.hpp:77] Creating layer relu1
I0428 20:17:05.962072   794 net.cpp:86] Creating Layer relu1
I0428 20:17:05.962083   794 net.cpp:408] relu1 <- ip1
I0428 20:17:05.962102   794 net.cpp:369] relu1 -> ip1 (in-place)
I0428 20:17:05.962471   794 net.cpp:124] Setting up relu1
I0428 20:17:05.962488   794 net.cpp:131] Top shape: 64 50 (3200)
I0428 20:17:05.962505   794 net.cpp:139] Memory required for data: 9544960
I0428 20:17:05.962512   794 layer_factory.hpp:77] Creating layer ip2
I0428 20:17:05.962524   794 net.cpp:86] Creating Layer ip2
I0428 20:17:05.962532   794 net.cpp:408] ip2 <- ip1
I0428 20:17:05.962545   794 net.cpp:382] ip2 -> ip2
I0428 20:17:05.962788   794 net.cpp:124] Setting up ip2
I0428 20:17:05.962802   794 net.cpp:131] Top shape: 64 50 (3200)
I0428 20:17:05.962808   794 net.cpp:139] Memory required for data: 9557760
I0428 20:17:05.962821   794 layer_factory.hpp:77] Creating layer relu2
I0428 20:17:05.962833   794 net.cpp:86] Creating Layer relu2
I0428 20:17:05.962842   794 net.cpp:408] relu2 <- ip2
I0428 20:17:05.962851   794 net.cpp:369] relu2 -> ip2 (in-place)
I0428 20:17:05.964346   794 net.cpp:124] Setting up relu2
I0428 20:17:05.964373   794 net.cpp:131] Top shape: 64 50 (3200)
I0428 20:17:05.964380   794 net.cpp:139] Memory required for data: 9570560
I0428 20:17:05.964388   794 layer_factory.hpp:77] Creating layer ip3
I0428 20:17:05.964401   794 net.cpp:86] Creating Layer ip3
I0428 20:17:05.964408   794 net.cpp:408] ip3 <- ip2
I0428 20:17:05.964421   794 net.cpp:382] ip3 -> ip3
I0428 20:17:05.964643   794 net.cpp:124] Setting up ip3
I0428 20:17:05.964658   794 net.cpp:131] Top shape: 64 10 (640)
I0428 20:17:05.964665   794 net.cpp:139] Memory required for data: 9573120
I0428 20:17:05.964680   794 layer_factory.hpp:77] Creating layer relu3
I0428 20:17:05.964692   794 net.cpp:86] Creating Layer relu3
I0428 20:17:05.964699   794 net.cpp:408] relu3 <- ip3
I0428 20:17:05.964707   794 net.cpp:369] relu3 -> ip3 (in-place)
I0428 20:17:05.965157   794 net.cpp:124] Setting up relu3
I0428 20:17:05.965173   794 net.cpp:131] Top shape: 64 10 (640)
I0428 20:17:05.965179   794 net.cpp:139] Memory required for data: 9575680
I0428 20:17:05.965186   794 layer_factory.hpp:77] Creating layer loss
I0428 20:17:05.965198   794 net.cpp:86] Creating Layer loss
I0428 20:17:05.965204   794 net.cpp:408] loss <- ip3
I0428 20:17:05.965212   794 net.cpp:408] loss <- label
I0428 20:17:05.965221   794 net.cpp:382] loss -> loss
I0428 20:17:05.965251   794 layer_factory.hpp:77] Creating layer loss
…
I0428 20:17:05.966518   794 solver.cpp:173] Creating test net (#0) specified by net file: ECE595/mnist/train_test/var_everything2/lenet_train_test1286.prototxt
I0428 20:17:05.966580   794 net.cpp:296] The NetState phase (1) differed from the phase (0) specified by a rule in layer mnist
I0428 20:17:05.966764   794 net.cpp:53] Initializing net from parameters: 
name: "LeNet"
state {
  phase: TEST
}
layer {
  name: "mnist"
  type: "Data"
  top: "data"
  top: "label"
  include {
    phase: TEST
  }
  transform_param {
    scale: 0.00390625
  }
  data_param {
    source: "examples/mnist/mnist_test_lmdb"
    batch_size: 100
    backend: LMDB
  }
}
layer {
  name: "conv0"
  type: "Convolution"
  bottom: "data"
  top: "conv0"
  param {
    lr_mult: 1
  }
  param {
    lr_mult: 2
  }
  convolution_param {
    num_output: 50
    kernel_size: 5
    stride: 1
    weight_filler {
      type: "xavier"
    }
    bias_filler {
      type: "constant"
    }
  }
}
layer {
  name: "pool0"
  type: "Pooling"
  bottom: "conv0"
  top: "pool0"
  pooling_param {
    pool: MAX
    kernel_size: 2
    stride: 2
  }
}
layer {
  name: "conv1"
  type: "Convolution"
  bottom: "pool0"
  top: "conv1"
  param {
    lr_mult: 1
  }
  param {
    lr_mult: 2
  }
  convolution_param {
    num_output: 5
    kernel_size: 5
    stride: 1
    weight_filler {
      type: "xavier"
    }
    bias_filler {
      type: "constant"
    }
  }
}
layer {
  name: "pool1"
  type: "Pooling"
  bottom: "conv1"
  top: "pool1"
  pooling_param {
    pool: MAX
    kernel_size: 2
    stride: 2
  }
}
layer {
  name: "ip1"
  type: "InnerProduct"
  bottom: "pool1"
  top: "ip1"
  param {
    lr_mult: 1
  }
  param {
    lr_mult: 2
  }
  inner_product_param {
    num_output: 50
    weight_filler {
      type: "xavier"
    }
    bias_filler {
      type: "constant"
    }
  }
}
layer {
  name: "relu1"
  type: "ReLU"
  bottom: "ip1"
  top: "ip1"
}
layer {
  name: "ip2"
  type: "InnerProduct"
  bottom: "ip1"
  top: "ip2"
  param {
    lr_mult: 1
  }
  param {
    lr_mult: 2
  }
  inner_product_param {
    num_output: 50
    weight_filler {
      type: "xavier"
    }
    bias_filler {
      type: "constant"
    }
  }
}
layer {
  name: "relu2"
  type: "ReLU"
  bottom: "ip2"
  top: "ip2"
}
layer {
  name: "ip3"
  type: "InnerProduct"
  bottom: "ip2"
  top: "ip3"
  param {
    lr_mult: 1
  }
  param {
    lr_mult: 2
  }
  inner_product_param {
    num_output: 10
    weight_filler {
      type: "xavier"
    }
    bias_filler {
      type: "constant"
    }
  }
}
layer {
  name: "relu3"
  type: "ReLU"
  bottom: "ip3"
  top: "ip3"
}
layer {
  name: "accuracy"
  type: "Accuracy"
  bottom: "ip3"
  bottom: "label"
  top: "accuracy"
  include {
    phase: TEST
  }
}
layer {
  name: "loss"
  type: "SoftmaxWithLoss"
  bottom: "ip3"
  bottom: "label"
  top: "loss"
}
I0428 20:17:05.966938   794 layer_factory.hpp:77] Creating layer mnist
I0428 20:17:05.967011   794 db_lmdb.cpp:35] Opened lmdb examples/mnist/mnist_test_lmdb
I0428 20:17:05.967039   794 net.cpp:86] Creating Layer mnist
I0428 20:17:05.967048   794 net.cpp:382] mnist -> data
I0428 20:17:05.967067   794 net.cpp:382] mnist -> label
I0428 20:17:05.967234   794 data_layer.cpp:45] output data size: 100,1,28,28
I0428 20:17:05.970610   794 net.cpp:124] Setting up mnist
I0428 20:17:05.970644   794 net.cpp:131] Top shape: 100 1 28 28 (78400)
I0428 20:17:05.970654   794 net.cpp:131] Top shape: 100 (100)
I0428 20:17:05.970661   794 net.cpp:139] Memory required for data: 314000
I0428 20:17:05.970669   794 layer_factory.hpp:77] Creating layer label_mnist_1_split
I0428 20:17:05.970690   794 net.cpp:86] Creating Layer label_mnist_1_split
I0428 20:17:05.970696   794 net.cpp:408] label_mnist_1_split <- label
I0428 20:17:05.970706   794 net.cpp:382] label_mnist_1_split -> label_mnist_1_split_0
I0428 20:17:05.970721   794 net.cpp:382] label_mnist_1_split -> label_mnist_1_split_1
I0428 20:17:05.970808   794 net.cpp:124] Setting up label_mnist_1_split
I0428 20:17:05.970820   794 net.cpp:131] Top shape: 100 (100)
I0428 20:17:05.970829   794 net.cpp:131] Top shape: 100 (100)
I0428 20:17:05.970834   794 net.cpp:139] Memory required for data: 314800
I0428 20:17:05.970839   794 layer_factory.hpp:77] Creating layer conv0
I0428 20:17:05.970856   794 net.cpp:86] Creating Layer conv0
I0428 20:17:05.970865   794 net.cpp:408] conv0 <- data
I0428 20:17:05.970877   794 net.cpp:382] conv0 -> conv0
I0428 20:17:05.973739   794 net.cpp:124] Setting up conv0
I0428 20:17:05.973767   794 net.cpp:131] Top shape: 100 50 24 24 (2880000)
I0428 20:17:05.973774   794 net.cpp:139] Memory required for data: 11834800
I0428 20:17:05.973795   794 layer_factory.hpp:77] Creating layer pool0
I0428 20:17:05.973808   794 net.cpp:86] Creating Layer pool0
I0428 20:17:05.973829   794 net.cpp:408] pool0 <- conv0
I0428 20:17:05.973837   794 net.cpp:382] pool0 -> pool0
I0428 20:17:05.973912   794 net.cpp:124] Setting up pool0
I0428 20:17:05.973925   794 net.cpp:131] Top shape: 100 50 12 12 (720000)
I0428 20:17:05.973932   794 net.cpp:139] Memory required for data: 14714800
I0428 20:17:05.973940   794 layer_factory.hpp:77] Creating layer conv1
I0428 20:17:05.973960   794 net.cpp:86] Creating Layer conv1
I0428 20:17:05.973973   794 net.cpp:408] conv1 <- pool0
I0428 20:17:05.973984   794 net.cpp:382] conv1 -> conv1
I0428 20:17:05.976779   794 net.cpp:124] Setting up conv1
I0428 20:17:05.976804   794 net.cpp:131] Top shape: 100 5 8 8 (32000)
I0428 20:17:05.976830   794 net.cpp:139] Memory required for data: 14842800
I0428 20:17:05.976846   794 layer_factory.hpp:77] Creating layer pool1
I0428 20:17:05.976858   794 net.cpp:86] Creating Layer pool1
I0428 20:17:05.976872   794 net.cpp:408] pool1 <- conv1
I0428 20:17:05.976884   794 net.cpp:382] pool1 -> pool1
I0428 20:17:05.976965   794 net.cpp:124] Setting up pool1
I0428 20:17:05.976987   794 net.cpp:131] Top shape: 100 5 4 4 (8000)
I0428 20:17:05.976994   794 net.cpp:139] Memory required for data: 14874800
I0428 20:17:05.976999   794 layer_factory.hpp:77] Creating layer ip1
I0428 20:17:05.977010   794 net.cpp:86] Creating Layer ip1
I0428 20:17:05.977015   794 net.cpp:408] ip1 <- pool1
I0428 20:17:05.977026   794 net.cpp:382] ip1 -> ip1
I0428 20:17:05.977283   794 net.cpp:124] Setting up ip1
I0428 20:17:05.977295   794 net.cpp:131] Top shape: 100 50 (5000)
I0428 20:17:05.977321   794 net.cpp:139] Memory required for data: 14894800
I0428 20:17:05.977342   794 layer_factory.hpp:77] Creating layer relu1
I0428 20:17:05.977355   794 net.cpp:86] Creating Layer relu1
I0428 20:17:05.977360   794 net.cpp:408] relu1 <- ip1
I0428 20:17:05.977371   794 net.cpp:369] relu1 -> ip1 (in-place)
I0428 20:17:05.977676   794 net.cpp:124] Setting up relu1
I0428 20:17:05.977689   794 net.cpp:131] Top shape: 100 50 (5000)
I0428 20:17:05.977695   794 net.cpp:139] Memory required for data: 14914800
I0428 20:17:05.977700   794 layer_factory.hpp:77] Creating layer ip2
I0428 20:17:05.977715   794 net.cpp:86] Creating Layer ip2
I0428 20:17:05.977720   794 net.cpp:408] ip2 <- ip1
I0428 20:17:05.977728   794 net.cpp:382] ip2 -> ip2
I0428 20:17:05.977947   794 net.cpp:124] Setting up ip2
I0428 20:17:05.977960   794 net.cpp:131] Top shape: 100 50 (5000)
I0428 20:17:05.977967   794 net.cpp:139] Memory required for data: 14934800
I0428 20:17:05.977977   794 layer_factory.hpp:77] Creating layer relu2
I0428 20:17:05.977985   794 net.cpp:86] Creating Layer relu2
I0428 20:17:05.977990   794 net.cpp:408] relu2 <- ip2
I0428 20:17:05.977999   794 net.cpp:369] relu2 -> ip2 (in-place)
I0428 20:17:05.978302   794 net.cpp:124] Setting up relu2
I0428 20:17:05.978314   794 net.cpp:131] Top shape: 100 50 (5000)
I0428 20:17:05.978320   794 net.cpp:139] Memory required for data: 14954800
I0428 20:17:05.978325   794 layer_factory.hpp:77] Creating layer ip3
I0428 20:17:05.978337   794 net.cpp:86] Creating Layer ip3
I0428 20:17:05.978348   794 net.cpp:408] ip3 <- ip2
I0428 20:17:05.978356   794 net.cpp:382] ip3 -> ip3
I0428 20:17:05.978543   794 net.cpp:124] Setting up ip3
I0428 20:17:05.978554   794 net.cpp:131] Top shape: 100 10 (1000)
I0428 20:17:05.978559   794 net.cpp:139] Memory required for data: 14958800
I0428 20:17:05.978572   794 layer_factory.hpp:77] Creating layer relu3
I0428 20:17:05.978582   794 net.cpp:86] Creating Layer relu3
I0428 20:17:05.978588   794 net.cpp:408] relu3 <- ip3
I0428 20:17:05.978595   794 net.cpp:369] relu3 -> ip3 (in-place)
I0428 20:17:05.979918   794 net.cpp:124] Setting up relu3
I0428 20:17:05.979941   794 net.cpp:131] Top shape: 100 10 (1000)
I0428 20:17:05.979948   794 net.cpp:139] Memory required for data: 14962800
I0428 20:17:05.979956   794 layer_factory.hpp:77] Creating layer ip3_relu3_0_split
I0428 20:17:05.979967   794 net.cpp:86] Creating Layer ip3_relu3_0_split
I0428 20:17:05.979974   794 net.cpp:408] ip3_relu3_0_split <- ip3
I0428 20:17:05.979981   794 net.cpp:382] ip3_relu3_0_split -> ip3_relu3_0_split_0
I0428 20:17:05.979992   794 net.cpp:382] ip3_relu3_0_split -> ip3_relu3_0_split_1
I0428 20:17:05.980062   794 net.cpp:124] Setting up ip3_relu3_0_split
I0428 20:17:05.980073   794 net.cpp:131] Top shape: 100 10 (1000)
I0428 20:17:05.980080   794 net.cpp:131] Top shape: 100 10 (1000)
I0428 20:17:05.980087   794 net.cpp:139] Memory required for data: 14970800
I0428 20:17:05.980092   794 layer_factory.hpp:77] Creating layer accuracy
I0428 20:17:05.980104   794 net.cpp:86] Creating Layer accuracy
I0428 20:17:05.980113   794 net.cpp:408] accuracy <- ip3_relu3_0_split_0
I0428 20:17:05.980120   794 net.cpp:408] accuracy <- label_mnist_1_split_0
I0428 20:17:05.980128   794 net.cpp:382] accuracy -> accuracy
…
