…
I0428 19:49:29.594425 26774 net.cpp:296] The NetState phase (0) differed from the phase (1) specified by a rule in layer mnist
I0428 19:49:29.594444 26774 net.cpp:296] The NetState phase (0) differed from the phase (1) specified by a rule in layer accuracy
I0428 19:49:29.594532 26774 net.cpp:53] Initializing net from parameters: 
name: "LeNet"
state {
  phase: TRAIN
  level: 0
  stage: ""
}
layer {
  name: "mnist"
  type: "Data"
  top: "data"
  top: "label"
  include {
    phase: TRAIN
  }
  transform_param {
    scale: 0.00390625
  }
  data_param {
    source: "examples/mnist/mnist_train_lmdb"
    batch_size: 64
    backend: LMDB
  }
}
layer {
  name: "conv0"
  type: "Convolution"
  bottom: "data"
  top: "conv0"
  param {
    lr_mult: 1
  }
  param {
    lr_mult: 2
  }
  convolution_param {
    num_output: 5
    kernel_size: 5
    stride: 1
    weight_filler {
      type: "xavier"
    }
    bias_filler {
      type: "constant"
    }
  }
}
layer {
  name: "pool0"
  type: "Pooling"
  bottom: "conv0"
  top: "pool0"
  pooling_param {
    pool: MAX
    kernel_size: 2
    stride: 2
  }
}
layer {
  name: "conv1"
  type: "Convolution"
  bottom: "pool0"
  top: "conv1"
  param {
    lr_mult: 1
  }
  param {
    lr_mult: 2
  }
  convolution_param {
    num_output: 5
    kernel_size: 5
    stride: 1
    weight_filler {
      type: "xavier"
    }
    bias_filler {
      type: "constant"
    }
  }
}
layer {
  name: "pool1"
  type: "Pooling"
  bottom: "conv1"
  top: "pool1"
  pooling_param {
    pool: MAX
    kernel_size: 2
    stride: 2
  }
}
layer {
  name: "ip1"
  type: "InnerProduct"
  bottom: "pool1"
  top: "ip1"
  param {
    lr_mult: 1
  }
  param {
    lr_mult: 2
  }
  inner_product_param {
    num_output: 50
    weight_filler {
      type: "xavier"
    }
    bias_filler {
      type: "constant"
    }
  }
}
layer {
  name: "relu1"
  type: "ReLU"
  bottom: "ip1"
  top: "ip1"
}
layer {
  name: "ip2"
  type: "InnerProduct"
  bottom: "ip1"
  top: "ip2"
  param {
    lr_mult: 1
  }
  param {
    lr_mult: 2
  }
  inner_product_param {
    num_output: 10
    weight_filler {
      type: "xavier"
    }
    bias_filler {
      type: "constant"
    }
  }
}
layer {
  name: "relu2"
  type: "ReLU"
  bottom: "ip2"
  top: "ip2"
}
layer {
  name: "ip3"
  type: "InnerProduct"
  bottom: "ip2"
  top: "ip3"
  param {
    lr_mult: 1
  }
  param {
    lr_mult: 2
  }
  inner_product_param {
    num_output: 10
    weight_filler {
      type: "xavier"
    }
    bias_filler {
      type: "constant"
    }
  }
}
layer {
  name: "relu3"
  type: "ReLU"
  bottom: "ip3"
  top: "ip3"
}
layer {
  name: "loss"
  type: "SoftmaxWithLoss"
  bottom: "ip3"
  bottom: "label"
  top: "loss"
}
I0428 19:49:29.594602 26774 layer_factory.hpp:77] Creating layer mnist
I0428 19:49:29.594691 26774 db_lmdb.cpp:35] Opened lmdb examples/mnist/mnist_train_lmdb
I0428 19:49:29.594710 26774 net.cpp:86] Creating Layer mnist
I0428 19:49:29.594718 26774 net.cpp:382] mnist -> data
I0428 19:49:29.594738 26774 net.cpp:382] mnist -> label
I0428 19:49:29.595717 26774 data_layer.cpp:45] output data size: 64,1,28,28
I0428 19:49:29.597919 26774 net.cpp:124] Setting up mnist
I0428 19:49:29.597935 26774 net.cpp:131] Top shape: 64 1 28 28 (50176)
I0428 19:49:29.597940 26774 net.cpp:131] Top shape: 64 (64)
I0428 19:49:29.597944 26774 net.cpp:139] Memory required for data: 200960
I0428 19:49:29.597949 26774 layer_factory.hpp:77] Creating layer conv0
I0428 19:49:29.597964 26774 net.cpp:86] Creating Layer conv0
I0428 19:49:29.597981 26774 net.cpp:408] conv0 <- data
I0428 19:49:29.597995 26774 net.cpp:382] conv0 -> conv0
I0428 19:49:29.832965 26774 net.cpp:124] Setting up conv0
I0428 19:49:29.832991 26774 net.cpp:131] Top shape: 64 5 24 24 (184320)
I0428 19:49:29.832995 26774 net.cpp:139] Memory required for data: 938240
I0428 19:49:29.833026 26774 layer_factory.hpp:77] Creating layer pool0
I0428 19:49:29.833039 26774 net.cpp:86] Creating Layer pool0
I0428 19:49:29.833043 26774 net.cpp:408] pool0 <- conv0
I0428 19:49:29.833050 26774 net.cpp:382] pool0 -> pool0
I0428 19:49:29.833096 26774 net.cpp:124] Setting up pool0
I0428 19:49:29.833103 26774 net.cpp:131] Top shape: 64 5 12 12 (46080)
I0428 19:49:29.833106 26774 net.cpp:139] Memory required for data: 1122560
I0428 19:49:29.833109 26774 layer_factory.hpp:77] Creating layer conv1
I0428 19:49:29.833120 26774 net.cpp:86] Creating Layer conv1
I0428 19:49:29.833123 26774 net.cpp:408] conv1 <- pool0
I0428 19:49:29.833128 26774 net.cpp:382] conv1 -> conv1
I0428 19:49:29.835007 26774 net.cpp:124] Setting up conv1
I0428 19:49:29.835039 26774 net.cpp:131] Top shape: 64 5 8 8 (20480)
I0428 19:49:29.835044 26774 net.cpp:139] Memory required for data: 1204480
I0428 19:49:29.835053 26774 layer_factory.hpp:77] Creating layer pool1
I0428 19:49:29.835060 26774 net.cpp:86] Creating Layer pool1
I0428 19:49:29.835063 26774 net.cpp:408] pool1 <- conv1
I0428 19:49:29.835072 26774 net.cpp:382] pool1 -> pool1
I0428 19:49:29.835111 26774 net.cpp:124] Setting up pool1
I0428 19:49:29.835119 26774 net.cpp:131] Top shape: 64 5 4 4 (5120)
I0428 19:49:29.835120 26774 net.cpp:139] Memory required for data: 1224960
I0428 19:49:29.835124 26774 layer_factory.hpp:77] Creating layer ip1
I0428 19:49:29.835130 26774 net.cpp:86] Creating Layer ip1
I0428 19:49:29.835134 26774 net.cpp:408] ip1 <- pool1
I0428 19:49:29.835139 26774 net.cpp:382] ip1 -> ip1
I0428 19:49:29.836189 26774 net.cpp:124] Setting up ip1
I0428 19:49:29.836203 26774 net.cpp:131] Top shape: 64 50 (3200)
I0428 19:49:29.836222 26774 net.cpp:139] Memory required for data: 1237760
I0428 19:49:29.836230 26774 layer_factory.hpp:77] Creating layer relu1
I0428 19:49:29.836236 26774 net.cpp:86] Creating Layer relu1
I0428 19:49:29.836239 26774 net.cpp:408] relu1 <- ip1
I0428 19:49:29.836244 26774 net.cpp:369] relu1 -> ip1 (in-place)
I0428 19:49:29.836417 26774 net.cpp:124] Setting up relu1
I0428 19:49:29.836426 26774 net.cpp:131] Top shape: 64 50 (3200)
I0428 19:49:29.836429 26774 net.cpp:139] Memory required for data: 1250560
I0428 19:49:29.836432 26774 layer_factory.hpp:77] Creating layer ip2
I0428 19:49:29.836439 26774 net.cpp:86] Creating Layer ip2
I0428 19:49:29.836442 26774 net.cpp:408] ip2 <- ip1
I0428 19:49:29.836449 26774 net.cpp:382] ip2 -> ip2
I0428 19:49:29.836552 26774 net.cpp:124] Setting up ip2
I0428 19:49:29.836575 26774 net.cpp:131] Top shape: 64 10 (640)
I0428 19:49:29.836578 26774 net.cpp:139] Memory required for data: 1253120
I0428 19:49:29.836583 26774 layer_factory.hpp:77] Creating layer relu2
I0428 19:49:29.836589 26774 net.cpp:86] Creating Layer relu2
I0428 19:49:29.836593 26774 net.cpp:408] relu2 <- ip2
I0428 19:49:29.836597 26774 net.cpp:369] relu2 -> ip2 (in-place)
I0428 19:49:29.837410 26774 net.cpp:124] Setting up relu2
I0428 19:49:29.837422 26774 net.cpp:131] Top shape: 64 10 (640)
I0428 19:49:29.837442 26774 net.cpp:139] Memory required for data: 1255680
I0428 19:49:29.837445 26774 layer_factory.hpp:77] Creating layer ip3
I0428 19:49:29.837453 26774 net.cpp:86] Creating Layer ip3
I0428 19:49:29.837457 26774 net.cpp:408] ip3 <- ip2
I0428 19:49:29.837462 26774 net.cpp:382] ip3 -> ip3
I0428 19:49:29.837565 26774 net.cpp:124] Setting up ip3
I0428 19:49:29.837573 26774 net.cpp:131] Top shape: 64 10 (640)
I0428 19:49:29.837575 26774 net.cpp:139] Memory required for data: 1258240
I0428 19:49:29.837584 26774 layer_factory.hpp:77] Creating layer relu3
I0428 19:49:29.837589 26774 net.cpp:86] Creating Layer relu3
I0428 19:49:29.837592 26774 net.cpp:408] relu3 <- ip3
I0428 19:49:29.837595 26774 net.cpp:369] relu3 -> ip3 (in-place)
I0428 19:49:29.837769 26774 net.cpp:124] Setting up relu3
I0428 19:49:29.837777 26774 net.cpp:131] Top shape: 64 10 (640)
I0428 19:49:29.837779 26774 net.cpp:139] Memory required for data: 1260800
I0428 19:49:29.837782 26774 layer_factory.hpp:77] Creating layer loss
I0428 19:49:29.837790 26774 net.cpp:86] Creating Layer loss
I0428 19:49:29.837792 26774 net.cpp:408] loss <- ip3
I0428 19:49:29.837796 26774 net.cpp:408] loss <- label
I0428 19:49:29.837801 26774 net.cpp:382] loss -> loss
I0428 19:49:29.837819 26774 layer_factory.hpp:77] Creating layer loss
…
I0428 19:49:29.838515 26774 solver.cpp:173] Creating test net (#0) specified by net file: ECE595/mnist/train_test/var_everything2/lenet_train_test576.prototxt
I0428 19:49:29.838557 26774 net.cpp:296] The NetState phase (1) differed from the phase (0) specified by a rule in layer mnist
I0428 19:49:29.838645 26774 net.cpp:53] Initializing net from parameters: 
name: "LeNet"
state {
  phase: TEST
}
layer {
  name: "mnist"
  type: "Data"
  top: "data"
  top: "label"
  include {
    phase: TEST
  }
  transform_param {
    scale: 0.00390625
  }
  data_param {
    source: "examples/mnist/mnist_test_lmdb"
    batch_size: 100
    backend: LMDB
  }
}
layer {
  name: "conv0"
  type: "Convolution"
  bottom: "data"
  top: "conv0"
  param {
    lr_mult: 1
  }
  param {
    lr_mult: 2
  }
  convolution_param {
    num_output: 5
    kernel_size: 5
    stride: 1
    weight_filler {
      type: "xavier"
    }
    bias_filler {
      type: "constant"
    }
  }
}
layer {
  name: "pool0"
  type: "Pooling"
  bottom: "conv0"
  top: "pool0"
  pooling_param {
    pool: MAX
    kernel_size: 2
    stride: 2
  }
}
layer {
  name: "conv1"
  type: "Convolution"
  bottom: "pool0"
  top: "conv1"
  param {
    lr_mult: 1
  }
  param {
    lr_mult: 2
  }
  convolution_param {
    num_output: 5
    kernel_size: 5
    stride: 1
    weight_filler {
      type: "xavier"
    }
    bias_filler {
      type: "constant"
    }
  }
}
layer {
  name: "pool1"
  type: "Pooling"
  bottom: "conv1"
  top: "pool1"
  pooling_param {
    pool: MAX
    kernel_size: 2
    stride: 2
  }
}
layer {
  name: "ip1"
  type: "InnerProduct"
  bottom: "pool1"
  top: "ip1"
  param {
    lr_mult: 1
  }
  param {
    lr_mult: 2
  }
  inner_product_param {
    num_output: 50
    weight_filler {
      type: "xavier"
    }
    bias_filler {
      type: "constant"
    }
  }
}
layer {
  name: "relu1"
  type: "ReLU"
  bottom: "ip1"
  top: "ip1"
}
layer {
  name: "ip2"
  type: "InnerProduct"
  bottom: "ip1"
  top: "ip2"
  param {
    lr_mult: 1
  }
  param {
    lr_mult: 2
  }
  inner_product_param {
    num_output: 10
    weight_filler {
      type: "xavier"
    }
    bias_filler {
      type: "constant"
    }
  }
}
layer {
  name: "relu2"
  type: "ReLU"
  bottom: "ip2"
  top: "ip2"
}
layer {
  name: "ip3"
  type: "InnerProduct"
  bottom: "ip2"
  top: "ip3"
  param {
    lr_mult: 1
  }
  param {
    lr_mult: 2
  }
  inner_product_param {
    num_output: 10
    weight_filler {
      type: "xavier"
    }
    bias_filler {
      type: "constant"
    }
  }
}
layer {
  name: "relu3"
  type: "ReLU"
  bottom: "ip3"
  top: "ip3"
}
layer {
  name: "accuracy"
  type: "Accuracy"
  bottom: "ip3"
  bottom: "label"
  top: "accuracy"
  include {
    phase: TEST
  }
}
layer {
  name: "loss"
  type: "SoftmaxWithLoss"
  bottom: "ip3"
  bottom: "label"
  top: "loss"
}
I0428 19:49:29.838726 26774 layer_factory.hpp:77] Creating layer mnist
I0428 19:49:29.838766 26774 db_lmdb.cpp:35] Opened lmdb examples/mnist/mnist_test_lmdb
I0428 19:49:29.838778 26774 net.cpp:86] Creating Layer mnist
I0428 19:49:29.838783 26774 net.cpp:382] mnist -> data
I0428 19:49:29.838791 26774 net.cpp:382] mnist -> label
I0428 19:49:29.838872 26774 data_layer.cpp:45] output data size: 100,1,28,28
I0428 19:49:29.840824 26774 net.cpp:124] Setting up mnist
I0428 19:49:29.840868 26774 net.cpp:131] Top shape: 100 1 28 28 (78400)
I0428 19:49:29.840888 26774 net.cpp:131] Top shape: 100 (100)
I0428 19:49:29.840893 26774 net.cpp:139] Memory required for data: 314000
I0428 19:49:29.840895 26774 layer_factory.hpp:77] Creating layer label_mnist_1_split
I0428 19:49:29.840903 26774 net.cpp:86] Creating Layer label_mnist_1_split
I0428 19:49:29.840906 26774 net.cpp:408] label_mnist_1_split <- label
I0428 19:49:29.840914 26774 net.cpp:382] label_mnist_1_split -> label_mnist_1_split_0
I0428 19:49:29.840919 26774 net.cpp:382] label_mnist_1_split -> label_mnist_1_split_1
I0428 19:49:29.840965 26774 net.cpp:124] Setting up label_mnist_1_split
I0428 19:49:29.840975 26774 net.cpp:131] Top shape: 100 (100)
I0428 19:49:29.840978 26774 net.cpp:131] Top shape: 100 (100)
I0428 19:49:29.840981 26774 net.cpp:139] Memory required for data: 314800
I0428 19:49:29.840984 26774 layer_factory.hpp:77] Creating layer conv0
I0428 19:49:29.840996 26774 net.cpp:86] Creating Layer conv0
I0428 19:49:29.840998 26774 net.cpp:408] conv0 <- data
I0428 19:49:29.841003 26774 net.cpp:382] conv0 -> conv0
I0428 19:49:29.842885 26774 net.cpp:124] Setting up conv0
I0428 19:49:29.842914 26774 net.cpp:131] Top shape: 100 5 24 24 (288000)
I0428 19:49:29.842918 26774 net.cpp:139] Memory required for data: 1466800
I0428 19:49:29.842928 26774 layer_factory.hpp:77] Creating layer pool0
I0428 19:49:29.842936 26774 net.cpp:86] Creating Layer pool0
I0428 19:49:29.842938 26774 net.cpp:408] pool0 <- conv0
I0428 19:49:29.842944 26774 net.cpp:382] pool0 -> pool0
I0428 19:49:29.842981 26774 net.cpp:124] Setting up pool0
I0428 19:49:29.842990 26774 net.cpp:131] Top shape: 100 5 12 12 (72000)
I0428 19:49:29.842993 26774 net.cpp:139] Memory required for data: 1754800
I0428 19:49:29.842995 26774 layer_factory.hpp:77] Creating layer conv1
I0428 19:49:29.843019 26774 net.cpp:86] Creating Layer conv1
I0428 19:49:29.843024 26774 net.cpp:408] conv1 <- pool0
I0428 19:49:29.843030 26774 net.cpp:382] conv1 -> conv1
I0428 19:49:29.845204 26774 net.cpp:124] Setting up conv1
I0428 19:49:29.845234 26774 net.cpp:131] Top shape: 100 5 8 8 (32000)
I0428 19:49:29.845237 26774 net.cpp:139] Memory required for data: 1882800
I0428 19:49:29.845247 26774 layer_factory.hpp:77] Creating layer pool1
I0428 19:49:29.845254 26774 net.cpp:86] Creating Layer pool1
I0428 19:49:29.845258 26774 net.cpp:408] pool1 <- conv1
I0428 19:49:29.845263 26774 net.cpp:382] pool1 -> pool1
I0428 19:49:29.845304 26774 net.cpp:124] Setting up pool1
I0428 19:49:29.845310 26774 net.cpp:131] Top shape: 100 5 4 4 (8000)
I0428 19:49:29.845314 26774 net.cpp:139] Memory required for data: 1914800
I0428 19:49:29.845316 26774 layer_factory.hpp:77] Creating layer ip1
I0428 19:49:29.845321 26774 net.cpp:86] Creating Layer ip1
I0428 19:49:29.845326 26774 net.cpp:408] ip1 <- pool1
I0428 19:49:29.845331 26774 net.cpp:382] ip1 -> ip1
I0428 19:49:29.845489 26774 net.cpp:124] Setting up ip1
I0428 19:49:29.845497 26774 net.cpp:131] Top shape: 100 50 (5000)
I0428 19:49:29.845510 26774 net.cpp:139] Memory required for data: 1934800
I0428 19:49:29.845517 26774 layer_factory.hpp:77] Creating layer relu1
I0428 19:49:29.845523 26774 net.cpp:86] Creating Layer relu1
I0428 19:49:29.845526 26774 net.cpp:408] relu1 <- ip1
I0428 19:49:29.845532 26774 net.cpp:369] relu1 -> ip1 (in-place)
I0428 19:49:29.845803 26774 net.cpp:124] Setting up relu1
I0428 19:49:29.845813 26774 net.cpp:131] Top shape: 100 50 (5000)
I0428 19:49:29.845816 26774 net.cpp:139] Memory required for data: 1954800
I0428 19:49:29.845824 26774 layer_factory.hpp:77] Creating layer ip2
I0428 19:49:29.845832 26774 net.cpp:86] Creating Layer ip2
I0428 19:49:29.845837 26774 net.cpp:408] ip2 <- ip1
I0428 19:49:29.845842 26774 net.cpp:382] ip2 -> ip2
I0428 19:49:29.845966 26774 net.cpp:124] Setting up ip2
I0428 19:49:29.845973 26774 net.cpp:131] Top shape: 100 10 (1000)
I0428 19:49:29.845978 26774 net.cpp:139] Memory required for data: 1958800
I0428 19:49:29.845983 26774 layer_factory.hpp:77] Creating layer relu2
I0428 19:49:29.845988 26774 net.cpp:86] Creating Layer relu2
I0428 19:49:29.845991 26774 net.cpp:408] relu2 <- ip2
I0428 19:49:29.845996 26774 net.cpp:369] relu2 -> ip2 (in-place)
I0428 19:49:29.846164 26774 net.cpp:124] Setting up relu2
I0428 19:49:29.846174 26774 net.cpp:131] Top shape: 100 10 (1000)
I0428 19:49:29.846176 26774 net.cpp:139] Memory required for data: 1962800
I0428 19:49:29.846180 26774 layer_factory.hpp:77] Creating layer ip3
I0428 19:49:29.846186 26774 net.cpp:86] Creating Layer ip3
I0428 19:49:29.846189 26774 net.cpp:408] ip3 <- ip2
I0428 19:49:29.846195 26774 net.cpp:382] ip3 -> ip3
I0428 19:49:29.846297 26774 net.cpp:124] Setting up ip3
I0428 19:49:29.846303 26774 net.cpp:131] Top shape: 100 10 (1000)
I0428 19:49:29.846307 26774 net.cpp:139] Memory required for data: 1966800
I0428 19:49:29.846318 26774 layer_factory.hpp:77] Creating layer relu3
I0428 19:49:29.846323 26774 net.cpp:86] Creating Layer relu3
I0428 19:49:29.846328 26774 net.cpp:408] relu3 <- ip3
I0428 19:49:29.846333 26774 net.cpp:369] relu3 -> ip3 (in-place)
I0428 19:49:29.847177 26774 net.cpp:124] Setting up relu3
I0428 19:49:29.847188 26774 net.cpp:131] Top shape: 100 10 (1000)
I0428 19:49:29.847208 26774 net.cpp:139] Memory required for data: 1970800
I0428 19:49:29.847210 26774 layer_factory.hpp:77] Creating layer ip3_relu3_0_split
I0428 19:49:29.847216 26774 net.cpp:86] Creating Layer ip3_relu3_0_split
I0428 19:49:29.847220 26774 net.cpp:408] ip3_relu3_0_split <- ip3
I0428 19:49:29.847225 26774 net.cpp:382] ip3_relu3_0_split -> ip3_relu3_0_split_0
I0428 19:49:29.847232 26774 net.cpp:382] ip3_relu3_0_split -> ip3_relu3_0_split_1
I0428 19:49:29.847285 26774 net.cpp:124] Setting up ip3_relu3_0_split
I0428 19:49:29.847292 26774 net.cpp:131] Top shape: 100 10 (1000)
I0428 19:49:29.847295 26774 net.cpp:131] Top shape: 100 10 (1000)
I0428 19:49:29.847298 26774 net.cpp:139] Memory required for data: 1978800
I0428 19:49:29.847302 26774 layer_factory.hpp:77] Creating layer accuracy
I0428 19:49:29.847312 26774 net.cpp:86] Creating Layer accuracy
I0428 19:49:29.847316 26774 net.cpp:408] accuracy <- ip3_relu3_0_split_0
I0428 19:49:29.847321 26774 net.cpp:408] accuracy <- label_mnist_1_split_0
I0428 19:49:29.847340 26774 net.cpp:382] accuracy -> accuracy
…
