…
I0428 20:07:51.361011 31244 net.cpp:296] The NetState phase (0) differed from the phase (1) specified by a rule in layer mnist
I0428 20:07:51.361027 31244 net.cpp:296] The NetState phase (0) differed from the phase (1) specified by a rule in layer accuracy
I0428 20:07:51.361114 31244 net.cpp:53] Initializing net from parameters: 
name: "LeNet"
state {
  phase: TRAIN
  level: 0
  stage: ""
}
layer {
  name: "mnist"
  type: "Data"
  top: "data"
  top: "label"
  include {
    phase: TRAIN
  }
  transform_param {
    scale: 0.00390625
  }
  data_param {
    source: "examples/mnist/mnist_train_lmdb"
    batch_size: 64
    backend: LMDB
  }
}
layer {
  name: "conv0"
  type: "Convolution"
  bottom: "data"
  top: "conv0"
  param {
    lr_mult: 1
  }
  param {
    lr_mult: 2
  }
  convolution_param {
    num_output: 25
    kernel_size: 5
    stride: 1
    weight_filler {
      type: "xavier"
    }
    bias_filler {
      type: "constant"
    }
  }
}
layer {
  name: "pool0"
  type: "Pooling"
  bottom: "conv0"
  top: "pool0"
  pooling_param {
    pool: MAX
    kernel_size: 2
    stride: 2
  }
}
layer {
  name: "conv1"
  type: "Convolution"
  bottom: "pool0"
  top: "conv1"
  param {
    lr_mult: 1
  }
  param {
    lr_mult: 2
  }
  convolution_param {
    num_output: 10
    kernel_size: 5
    stride: 1
    weight_filler {
      type: "xavier"
    }
    bias_filler {
      type: "constant"
    }
  }
}
layer {
  name: "pool1"
  type: "Pooling"
  bottom: "conv1"
  top: "pool1"
  pooling_param {
    pool: MAX
    kernel_size: 2
    stride: 2
  }
}
layer {
  name: "ip1"
  type: "InnerProduct"
  bottom: "pool1"
  top: "ip1"
  param {
    lr_mult: 1
  }
  param {
    lr_mult: 2
  }
  inner_product_param {
    num_output: 10
    weight_filler {
      type: "xavier"
    }
    bias_filler {
      type: "constant"
    }
  }
}
layer {
  name: "relu1"
  type: "ReLU"
  bottom: "ip1"
  top: "ip1"
}
layer {
  name: "ip2"
  type: "InnerProduct"
  bottom: "ip1"
  top: "ip2"
  param {
    lr_mult: 1
  }
  param {
    lr_mult: 2
  }
  inner_product_param {
    num_output: 10
    weight_filler {
      type: "xavier"
    }
    bias_filler {
      type: "constant"
    }
  }
}
layer {
  name: "relu2"
  type: "ReLU"
  bottom: "ip2"
  top: "ip2"
}
layer {
  name: "ip3"
  type: "InnerProduct"
  bottom: "ip2"
  top: "ip3"
  param {
    lr_mult: 1
  }
  param {
    lr_mult: 2
  }
  inner_product_param {
    num_output: 10
    weight_filler {
      type: "xavier"
    }
    bias_filler {
      type: "constant"
    }
  }
}
layer {
  name: "relu3"
  type: "ReLU"
  bottom: "ip3"
  top: "ip3"
}
layer {
  name: "loss"
  type: "SoftmaxWithLoss"
  bottom: "ip3"
  bottom: "label"
  top: "loss"
}
I0428 20:07:51.361194 31244 layer_factory.hpp:77] Creating layer mnist
I0428 20:07:51.361276 31244 db_lmdb.cpp:35] Opened lmdb examples/mnist/mnist_train_lmdb
I0428 20:07:51.361310 31244 net.cpp:86] Creating Layer mnist
I0428 20:07:51.361315 31244 net.cpp:382] mnist -> data
I0428 20:07:51.361335 31244 net.cpp:382] mnist -> label
I0428 20:07:51.362321 31244 data_layer.cpp:45] output data size: 64,1,28,28
I0428 20:07:51.364760 31244 net.cpp:124] Setting up mnist
I0428 20:07:51.364789 31244 net.cpp:131] Top shape: 64 1 28 28 (50176)
I0428 20:07:51.364795 31244 net.cpp:131] Top shape: 64 (64)
I0428 20:07:51.364799 31244 net.cpp:139] Memory required for data: 200960
I0428 20:07:51.364804 31244 layer_factory.hpp:77] Creating layer conv0
I0428 20:07:51.364864 31244 net.cpp:86] Creating Layer conv0
I0428 20:07:51.364884 31244 net.cpp:408] conv0 <- data
I0428 20:07:51.364894 31244 net.cpp:382] conv0 -> conv0
I0428 20:07:51.599201 31244 net.cpp:124] Setting up conv0
I0428 20:07:51.599242 31244 net.cpp:131] Top shape: 64 25 24 24 (921600)
I0428 20:07:51.599247 31244 net.cpp:139] Memory required for data: 3887360
I0428 20:07:51.599261 31244 layer_factory.hpp:77] Creating layer pool0
I0428 20:07:51.599274 31244 net.cpp:86] Creating Layer pool0
I0428 20:07:51.599278 31244 net.cpp:408] pool0 <- conv0
I0428 20:07:51.599283 31244 net.cpp:382] pool0 -> pool0
I0428 20:07:51.599342 31244 net.cpp:124] Setting up pool0
I0428 20:07:51.599347 31244 net.cpp:131] Top shape: 64 25 12 12 (230400)
I0428 20:07:51.599350 31244 net.cpp:139] Memory required for data: 4808960
I0428 20:07:51.599354 31244 layer_factory.hpp:77] Creating layer conv1
I0428 20:07:51.599364 31244 net.cpp:86] Creating Layer conv1
I0428 20:07:51.599366 31244 net.cpp:408] conv1 <- pool0
I0428 20:07:51.599371 31244 net.cpp:382] conv1 -> conv1
I0428 20:07:51.602208 31244 net.cpp:124] Setting up conv1
I0428 20:07:51.602223 31244 net.cpp:131] Top shape: 64 10 8 8 (40960)
I0428 20:07:51.602227 31244 net.cpp:139] Memory required for data: 4972800
I0428 20:07:51.602236 31244 layer_factory.hpp:77] Creating layer pool1
I0428 20:07:51.602243 31244 net.cpp:86] Creating Layer pool1
I0428 20:07:51.602246 31244 net.cpp:408] pool1 <- conv1
I0428 20:07:51.602267 31244 net.cpp:382] pool1 -> pool1
I0428 20:07:51.602304 31244 net.cpp:124] Setting up pool1
I0428 20:07:51.602309 31244 net.cpp:131] Top shape: 64 10 4 4 (10240)
I0428 20:07:51.602313 31244 net.cpp:139] Memory required for data: 5013760
I0428 20:07:51.602315 31244 layer_factory.hpp:77] Creating layer ip1
I0428 20:07:51.602322 31244 net.cpp:86] Creating Layer ip1
I0428 20:07:51.602325 31244 net.cpp:408] ip1 <- pool1
I0428 20:07:51.602329 31244 net.cpp:382] ip1 -> ip1
I0428 20:07:51.603314 31244 net.cpp:124] Setting up ip1
I0428 20:07:51.603327 31244 net.cpp:131] Top shape: 64 10 (640)
I0428 20:07:51.603332 31244 net.cpp:139] Memory required for data: 5016320
I0428 20:07:51.603340 31244 layer_factory.hpp:77] Creating layer relu1
I0428 20:07:51.603346 31244 net.cpp:86] Creating Layer relu1
I0428 20:07:51.603349 31244 net.cpp:408] relu1 <- ip1
I0428 20:07:51.603354 31244 net.cpp:369] relu1 -> ip1 (in-place)
I0428 20:07:51.603521 31244 net.cpp:124] Setting up relu1
I0428 20:07:51.603530 31244 net.cpp:131] Top shape: 64 10 (640)
I0428 20:07:51.603533 31244 net.cpp:139] Memory required for data: 5018880
I0428 20:07:51.603536 31244 layer_factory.hpp:77] Creating layer ip2
I0428 20:07:51.603543 31244 net.cpp:86] Creating Layer ip2
I0428 20:07:51.603546 31244 net.cpp:408] ip2 <- ip1
I0428 20:07:51.603551 31244 net.cpp:382] ip2 -> ip2
I0428 20:07:51.603653 31244 net.cpp:124] Setting up ip2
I0428 20:07:51.603660 31244 net.cpp:131] Top shape: 64 10 (640)
I0428 20:07:51.603663 31244 net.cpp:139] Memory required for data: 5021440
I0428 20:07:51.603668 31244 layer_factory.hpp:77] Creating layer relu2
I0428 20:07:51.603674 31244 net.cpp:86] Creating Layer relu2
I0428 20:07:51.603677 31244 net.cpp:408] relu2 <- ip2
I0428 20:07:51.603682 31244 net.cpp:369] relu2 -> ip2 (in-place)
I0428 20:07:51.604456 31244 net.cpp:124] Setting up relu2
I0428 20:07:51.604498 31244 net.cpp:131] Top shape: 64 10 (640)
I0428 20:07:51.604502 31244 net.cpp:139] Memory required for data: 5024000
I0428 20:07:51.604521 31244 layer_factory.hpp:77] Creating layer ip3
I0428 20:07:51.604528 31244 net.cpp:86] Creating Layer ip3
I0428 20:07:51.604532 31244 net.cpp:408] ip3 <- ip2
I0428 20:07:51.604537 31244 net.cpp:382] ip3 -> ip3
I0428 20:07:51.604640 31244 net.cpp:124] Setting up ip3
I0428 20:07:51.604647 31244 net.cpp:131] Top shape: 64 10 (640)
I0428 20:07:51.604651 31244 net.cpp:139] Memory required for data: 5026560
I0428 20:07:51.604660 31244 layer_factory.hpp:77] Creating layer relu3
I0428 20:07:51.604678 31244 net.cpp:86] Creating Layer relu3
I0428 20:07:51.604682 31244 net.cpp:408] relu3 <- ip3
I0428 20:07:51.604686 31244 net.cpp:369] relu3 -> ip3 (in-place)
I0428 20:07:51.604918 31244 net.cpp:124] Setting up relu3
I0428 20:07:51.604928 31244 net.cpp:131] Top shape: 64 10 (640)
I0428 20:07:51.604931 31244 net.cpp:139] Memory required for data: 5029120
I0428 20:07:51.604934 31244 layer_factory.hpp:77] Creating layer loss
I0428 20:07:51.604940 31244 net.cpp:86] Creating Layer loss
I0428 20:07:51.604943 31244 net.cpp:408] loss <- ip3
I0428 20:07:51.604948 31244 net.cpp:408] loss <- label
I0428 20:07:51.604954 31244 net.cpp:382] loss -> loss
I0428 20:07:51.604984 31244 layer_factory.hpp:77] Creating layer loss
…
I0428 20:07:51.605659 31244 solver.cpp:173] Creating test net (#0) specified by net file: ECE595/mnist/train_test/var_everything2/lenet_train_test1067.prototxt
I0428 20:07:51.605684 31244 net.cpp:296] The NetState phase (1) differed from the phase (0) specified by a rule in layer mnist
I0428 20:07:51.605792 31244 net.cpp:53] Initializing net from parameters: 
name: "LeNet"
state {
  phase: TEST
}
layer {
  name: "mnist"
  type: "Data"
  top: "data"
  top: "label"
  include {
    phase: TEST
  }
  transform_param {
    scale: 0.00390625
  }
  data_param {
    source: "examples/mnist/mnist_test_lmdb"
    batch_size: 100
    backend: LMDB
  }
}
layer {
  name: "conv0"
  type: "Convolution"
  bottom: "data"
  top: "conv0"
  param {
    lr_mult: 1
  }
  param {
    lr_mult: 2
  }
  convolution_param {
    num_output: 25
    kernel_size: 5
    stride: 1
    weight_filler {
      type: "xavier"
    }
    bias_filler {
      type: "constant"
    }
  }
}
layer {
  name: "pool0"
  type: "Pooling"
  bottom: "conv0"
  top: "pool0"
  pooling_param {
    pool: MAX
    kernel_size: 2
    stride: 2
  }
}
layer {
  name: "conv1"
  type: "Convolution"
  bottom: "pool0"
  top: "conv1"
  param {
    lr_mult: 1
  }
  param {
    lr_mult: 2
  }
  convolution_param {
    num_output: 10
    kernel_size: 5
    stride: 1
    weight_filler {
      type: "xavier"
    }
    bias_filler {
      type: "constant"
    }
  }
}
layer {
  name: "pool1"
  type: "Pooling"
  bottom: "conv1"
  top: "pool1"
  pooling_param {
    pool: MAX
    kernel_size: 2
    stride: 2
  }
}
layer {
  name: "ip1"
  type: "InnerProduct"
  bottom: "pool1"
  top: "ip1"
  param {
    lr_mult: 1
  }
  param {
    lr_mult: 2
  }
  inner_product_param {
    num_output: 10
    weight_filler {
      type: "xavier"
    }
    bias_filler {
      type: "constant"
    }
  }
}
layer {
  name: "relu1"
  type: "ReLU"
  bottom: "ip1"
  top: "ip1"
}
layer {
  name: "ip2"
  type: "InnerProduct"
  bottom: "ip1"
  top: "ip2"
  param {
    lr_mult: 1
  }
  param {
    lr_mult: 2
  }
  inner_product_param {
    num_output: 10
    weight_filler {
      type: "xavier"
    }
    bias_filler {
      type: "constant"
    }
  }
}
layer {
  name: "relu2"
  type: "ReLU"
  bottom: "ip2"
  top: "ip2"
}
layer {
  name: "ip3"
  type: "InnerProduct"
  bottom: "ip2"
  top: "ip3"
  param {
    lr_mult: 1
  }
  param {
    lr_mult: 2
  }
  inner_product_param {
    num_output: 10
    weight_filler {
      type: "xavier"
    }
    bias_filler {
      type: "constant"
    }
  }
}
layer {
  name: "relu3"
  type: "ReLU"
  bottom: "ip3"
  top: "ip3"
}
layer {
  name: "accuracy"
  type: "Accuracy"
  bottom: "ip3"
  bottom: "label"
  top: "accuracy"
  include {
    phase: TEST
  }
}
layer {
  name: "loss"
  type: "SoftmaxWithLoss"
  bottom: "ip3"
  bottom: "label"
  top: "loss"
}
I0428 20:07:51.605872 31244 layer_factory.hpp:77] Creating layer mnist
I0428 20:07:51.605917 31244 db_lmdb.cpp:35] Opened lmdb examples/mnist/mnist_test_lmdb
I0428 20:07:51.605929 31244 net.cpp:86] Creating Layer mnist
I0428 20:07:51.605934 31244 net.cpp:382] mnist -> data
I0428 20:07:51.605942 31244 net.cpp:382] mnist -> label
I0428 20:07:51.606022 31244 data_layer.cpp:45] output data size: 100,1,28,28
I0428 20:07:51.607923 31244 net.cpp:124] Setting up mnist
I0428 20:07:51.607969 31244 net.cpp:131] Top shape: 100 1 28 28 (78400)
I0428 20:07:51.607973 31244 net.cpp:131] Top shape: 100 (100)
I0428 20:07:51.607976 31244 net.cpp:139] Memory required for data: 314000
I0428 20:07:51.607980 31244 layer_factory.hpp:77] Creating layer label_mnist_1_split
I0428 20:07:51.607987 31244 net.cpp:86] Creating Layer label_mnist_1_split
I0428 20:07:51.607990 31244 net.cpp:408] label_mnist_1_split <- label
I0428 20:07:51.607997 31244 net.cpp:382] label_mnist_1_split -> label_mnist_1_split_0
I0428 20:07:51.608003 31244 net.cpp:382] label_mnist_1_split -> label_mnist_1_split_1
I0428 20:07:51.608047 31244 net.cpp:124] Setting up label_mnist_1_split
I0428 20:07:51.608053 31244 net.cpp:131] Top shape: 100 (100)
I0428 20:07:51.608057 31244 net.cpp:131] Top shape: 100 (100)
I0428 20:07:51.608060 31244 net.cpp:139] Memory required for data: 314800
I0428 20:07:51.608063 31244 layer_factory.hpp:77] Creating layer conv0
I0428 20:07:51.608072 31244 net.cpp:86] Creating Layer conv0
I0428 20:07:51.608074 31244 net.cpp:408] conv0 <- data
I0428 20:07:51.608080 31244 net.cpp:382] conv0 -> conv0
I0428 20:07:51.609840 31244 net.cpp:124] Setting up conv0
I0428 20:07:51.609869 31244 net.cpp:131] Top shape: 100 25 24 24 (1440000)
I0428 20:07:51.609874 31244 net.cpp:139] Memory required for data: 6074800
I0428 20:07:51.609882 31244 layer_factory.hpp:77] Creating layer pool0
I0428 20:07:51.609889 31244 net.cpp:86] Creating Layer pool0
I0428 20:07:51.609894 31244 net.cpp:408] pool0 <- conv0
I0428 20:07:51.609899 31244 net.cpp:382] pool0 -> pool0
I0428 20:07:51.609952 31244 net.cpp:124] Setting up pool0
I0428 20:07:51.609957 31244 net.cpp:131] Top shape: 100 25 12 12 (360000)
I0428 20:07:51.609961 31244 net.cpp:139] Memory required for data: 7514800
I0428 20:07:51.609963 31244 layer_factory.hpp:77] Creating layer conv1
I0428 20:07:51.609973 31244 net.cpp:86] Creating Layer conv1
I0428 20:07:51.609977 31244 net.cpp:408] conv1 <- pool0
I0428 20:07:51.609982 31244 net.cpp:382] conv1 -> conv1
I0428 20:07:51.612110 31244 net.cpp:124] Setting up conv1
I0428 20:07:51.612139 31244 net.cpp:131] Top shape: 100 10 8 8 (64000)
I0428 20:07:51.612143 31244 net.cpp:139] Memory required for data: 7770800
I0428 20:07:51.612151 31244 layer_factory.hpp:77] Creating layer pool1
I0428 20:07:51.612171 31244 net.cpp:86] Creating Layer pool1
I0428 20:07:51.612175 31244 net.cpp:408] pool1 <- conv1
I0428 20:07:51.612181 31244 net.cpp:382] pool1 -> pool1
I0428 20:07:51.612234 31244 net.cpp:124] Setting up pool1
I0428 20:07:51.612239 31244 net.cpp:131] Top shape: 100 10 4 4 (16000)
I0428 20:07:51.612243 31244 net.cpp:139] Memory required for data: 7834800
I0428 20:07:51.612246 31244 layer_factory.hpp:77] Creating layer ip1
I0428 20:07:51.612252 31244 net.cpp:86] Creating Layer ip1
I0428 20:07:51.612256 31244 net.cpp:408] ip1 <- pool1
I0428 20:07:51.612262 31244 net.cpp:382] ip1 -> ip1
I0428 20:07:51.612380 31244 net.cpp:124] Setting up ip1
I0428 20:07:51.612388 31244 net.cpp:131] Top shape: 100 10 (1000)
I0428 20:07:51.612401 31244 net.cpp:139] Memory required for data: 7838800
I0428 20:07:51.612408 31244 layer_factory.hpp:77] Creating layer relu1
I0428 20:07:51.612413 31244 net.cpp:86] Creating Layer relu1
I0428 20:07:51.612417 31244 net.cpp:408] relu1 <- ip1
I0428 20:07:51.612422 31244 net.cpp:369] relu1 -> ip1 (in-place)
I0428 20:07:51.612690 31244 net.cpp:124] Setting up relu1
I0428 20:07:51.612700 31244 net.cpp:131] Top shape: 100 10 (1000)
I0428 20:07:51.612704 31244 net.cpp:139] Memory required for data: 7842800
I0428 20:07:51.612706 31244 layer_factory.hpp:77] Creating layer ip2
I0428 20:07:51.612715 31244 net.cpp:86] Creating Layer ip2
I0428 20:07:51.612718 31244 net.cpp:408] ip2 <- ip1
I0428 20:07:51.612723 31244 net.cpp:382] ip2 -> ip2
I0428 20:07:51.612848 31244 net.cpp:124] Setting up ip2
I0428 20:07:51.612856 31244 net.cpp:131] Top shape: 100 10 (1000)
I0428 20:07:51.612860 31244 net.cpp:139] Memory required for data: 7846800
I0428 20:07:51.612881 31244 layer_factory.hpp:77] Creating layer relu2
I0428 20:07:51.612887 31244 net.cpp:86] Creating Layer relu2
I0428 20:07:51.612891 31244 net.cpp:408] relu2 <- ip2
I0428 20:07:51.612895 31244 net.cpp:369] relu2 -> ip2 (in-place)
I0428 20:07:51.613065 31244 net.cpp:124] Setting up relu2
I0428 20:07:51.613075 31244 net.cpp:131] Top shape: 100 10 (1000)
I0428 20:07:51.613077 31244 net.cpp:139] Memory required for data: 7850800
I0428 20:07:51.613081 31244 layer_factory.hpp:77] Creating layer ip3
I0428 20:07:51.613088 31244 net.cpp:86] Creating Layer ip3
I0428 20:07:51.613091 31244 net.cpp:408] ip3 <- ip2
I0428 20:07:51.613096 31244 net.cpp:382] ip3 -> ip3
I0428 20:07:51.613231 31244 net.cpp:124] Setting up ip3
I0428 20:07:51.613239 31244 net.cpp:131] Top shape: 100 10 (1000)
I0428 20:07:51.613241 31244 net.cpp:139] Memory required for data: 7854800
I0428 20:07:51.613248 31244 layer_factory.hpp:77] Creating layer relu3
I0428 20:07:51.613255 31244 net.cpp:86] Creating Layer relu3
I0428 20:07:51.613257 31244 net.cpp:408] relu3 <- ip3
I0428 20:07:51.613261 31244 net.cpp:369] relu3 -> ip3 (in-place)
I0428 20:07:51.614037 31244 net.cpp:124] Setting up relu3
I0428 20:07:51.614064 31244 net.cpp:131] Top shape: 100 10 (1000)
I0428 20:07:51.614068 31244 net.cpp:139] Memory required for data: 7858800
I0428 20:07:51.614071 31244 layer_factory.hpp:77] Creating layer ip3_relu3_0_split
I0428 20:07:51.614092 31244 net.cpp:86] Creating Layer ip3_relu3_0_split
I0428 20:07:51.614095 31244 net.cpp:408] ip3_relu3_0_split <- ip3
I0428 20:07:51.614100 31244 net.cpp:382] ip3_relu3_0_split -> ip3_relu3_0_split_0
I0428 20:07:51.614109 31244 net.cpp:382] ip3_relu3_0_split -> ip3_relu3_0_split_1
I0428 20:07:51.614197 31244 net.cpp:124] Setting up ip3_relu3_0_split
I0428 20:07:51.614205 31244 net.cpp:131] Top shape: 100 10 (1000)
I0428 20:07:51.614209 31244 net.cpp:131] Top shape: 100 10 (1000)
I0428 20:07:51.614212 31244 net.cpp:139] Memory required for data: 7866800
I0428 20:07:51.614215 31244 layer_factory.hpp:77] Creating layer accuracy
I0428 20:07:51.614222 31244 net.cpp:86] Creating Layer accuracy
I0428 20:07:51.614225 31244 net.cpp:408] accuracy <- ip3_relu3_0_split_0
I0428 20:07:51.614229 31244 net.cpp:408] accuracy <- label_mnist_1_split_0
I0428 20:07:51.614235 31244 net.cpp:382] accuracy -> accuracy
…
