…
I0428 20:24:37.148083  2433 net.cpp:296] The NetState phase (0) differed from the phase (1) specified by a rule in layer mnist
I0428 20:24:37.148100  2433 net.cpp:296] The NetState phase (0) differed from the phase (1) specified by a rule in layer accuracy
I0428 20:24:37.148197  2433 net.cpp:53] Initializing net from parameters: 
name: "LeNet"
state {
  phase: TRAIN
  level: 0
  stage: ""
}
layer {
  name: "mnist"
  type: "Data"
  top: "data"
  top: "label"
  include {
    phase: TRAIN
  }
  transform_param {
    scale: 0.00390625
  }
  data_param {
    source: "examples/mnist/mnist_train_lmdb"
    batch_size: 64
    backend: LMDB
  }
}
layer {
  name: "conv0"
  type: "Convolution"
  bottom: "data"
  top: "conv0"
  param {
    lr_mult: 1
  }
  param {
    lr_mult: 2
  }
  convolution_param {
    num_output: 50
    kernel_size: 5
    stride: 1
    weight_filler {
      type: "xavier"
    }
    bias_filler {
      type: "constant"
    }
  }
}
layer {
  name: "pool0"
  type: "Pooling"
  bottom: "conv0"
  top: "pool0"
  pooling_param {
    pool: MAX
    kernel_size: 2
    stride: 2
  }
}
layer {
  name: "conv1"
  type: "Convolution"
  bottom: "pool0"
  top: "conv1"
  param {
    lr_mult: 1
  }
  param {
    lr_mult: 2
  }
  convolution_param {
    num_output: 100
    kernel_size: 5
    stride: 1
    weight_filler {
      type: "xavier"
    }
    bias_filler {
      type: "constant"
    }
  }
}
layer {
  name: "pool1"
  type: "Pooling"
  bottom: "conv1"
  top: "pool1"
  pooling_param {
    pool: MAX
    kernel_size: 2
    stride: 2
  }
}
layer {
  name: "ip1"
  type: "InnerProduct"
  bottom: "pool1"
  top: "ip1"
  param {
    lr_mult: 1
  }
  param {
    lr_mult: 2
  }
  inner_product_param {
    num_output: 50
    weight_filler {
      type: "xavier"
    }
    bias_filler {
      type: "constant"
    }
  }
}
layer {
  name: "relu1"
  type: "ReLU"
  bottom: "ip1"
  top: "ip1"
}
layer {
  name: "ip2"
  type: "InnerProduct"
  bottom: "ip1"
  top: "ip2"
  param {
    lr_mult: 1
  }
  param {
    lr_mult: 2
  }
  inner_product_param {
    num_output: 50
    weight_filler {
      type: "xavier"
    }
    bias_filler {
      type: "constant"
    }
  }
}
layer {
  name: "relu2"
  type: "ReLU"
  bottom: "ip2"
  top: "ip2"
}
layer {
  name: "ip3"
  type: "InnerProduct"
  bottom: "ip2"
  top: "ip3"
  param {
    lr_mult: 1
  }
  param {
    lr_mult: 2
  }
  inner_product_param {
    num_output: 10
    weight_filler {
      type: "xavier"
    }
    bias_filler {
      type: "constant"
    }
  }
}
layer {
  name: "relu3"
  type: "ReLU"
  bottom: "ip3"
  top: "ip3"
}
layer {
  name: "loss"
  type: "SoftmaxWithLoss"
  bottom: "ip3"
  bottom: "label"
  top: "loss"
}
I0428 20:24:37.148272  2433 layer_factory.hpp:77] Creating layer mnist
I0428 20:24:37.148375  2433 db_lmdb.cpp:35] Opened lmdb examples/mnist/mnist_train_lmdb
I0428 20:24:37.148398  2433 net.cpp:86] Creating Layer mnist
I0428 20:24:37.148406  2433 net.cpp:382] mnist -> data
I0428 20:24:37.148428  2433 net.cpp:382] mnist -> label
I0428 20:24:37.149557  2433 data_layer.cpp:45] output data size: 64,1,28,28
I0428 20:24:37.151993  2433 net.cpp:124] Setting up mnist
I0428 20:24:37.152009  2433 net.cpp:131] Top shape: 64 1 28 28 (50176)
I0428 20:24:37.152015  2433 net.cpp:131] Top shape: 64 (64)
I0428 20:24:37.152019  2433 net.cpp:139] Memory required for data: 200960
I0428 20:24:37.152026  2433 layer_factory.hpp:77] Creating layer conv0
I0428 20:24:37.152042  2433 net.cpp:86] Creating Layer conv0
I0428 20:24:37.152061  2433 net.cpp:408] conv0 <- data
I0428 20:24:37.152073  2433 net.cpp:382] conv0 -> conv0
I0428 20:24:37.430106  2433 net.cpp:124] Setting up conv0
I0428 20:24:37.430132  2433 net.cpp:131] Top shape: 64 50 24 24 (1843200)
I0428 20:24:37.430136  2433 net.cpp:139] Memory required for data: 7573760
I0428 20:24:37.430152  2433 layer_factory.hpp:77] Creating layer pool0
I0428 20:24:37.430164  2433 net.cpp:86] Creating Layer pool0
I0428 20:24:37.430168  2433 net.cpp:408] pool0 <- conv0
I0428 20:24:37.430174  2433 net.cpp:382] pool0 -> pool0
I0428 20:24:37.430222  2433 net.cpp:124] Setting up pool0
I0428 20:24:37.430229  2433 net.cpp:131] Top shape: 64 50 12 12 (460800)
I0428 20:24:37.430233  2433 net.cpp:139] Memory required for data: 9416960
I0428 20:24:37.430236  2433 layer_factory.hpp:77] Creating layer conv1
I0428 20:24:37.430248  2433 net.cpp:86] Creating Layer conv1
I0428 20:24:37.430251  2433 net.cpp:408] conv1 <- pool0
I0428 20:24:37.430255  2433 net.cpp:382] conv1 -> conv1
I0428 20:24:37.433812  2433 net.cpp:124] Setting up conv1
I0428 20:24:37.433827  2433 net.cpp:131] Top shape: 64 100 8 8 (409600)
I0428 20:24:37.433831  2433 net.cpp:139] Memory required for data: 11055360
I0428 20:24:37.433856  2433 layer_factory.hpp:77] Creating layer pool1
I0428 20:24:37.433863  2433 net.cpp:86] Creating Layer pool1
I0428 20:24:37.433867  2433 net.cpp:408] pool1 <- conv1
I0428 20:24:37.433872  2433 net.cpp:382] pool1 -> pool1
I0428 20:24:37.433923  2433 net.cpp:124] Setting up pool1
I0428 20:24:37.433929  2433 net.cpp:131] Top shape: 64 100 4 4 (102400)
I0428 20:24:37.433933  2433 net.cpp:139] Memory required for data: 11464960
I0428 20:24:37.433935  2433 layer_factory.hpp:77] Creating layer ip1
I0428 20:24:37.433943  2433 net.cpp:86] Creating Layer ip1
I0428 20:24:37.433945  2433 net.cpp:408] ip1 <- pool1
I0428 20:24:37.433950  2433 net.cpp:382] ip1 -> ip1
I0428 20:24:37.434481  2433 net.cpp:124] Setting up ip1
I0428 20:24:37.434489  2433 net.cpp:131] Top shape: 64 50 (3200)
I0428 20:24:37.434492  2433 net.cpp:139] Memory required for data: 11477760
I0428 20:24:37.434499  2433 layer_factory.hpp:77] Creating layer relu1
I0428 20:24:37.434505  2433 net.cpp:86] Creating Layer relu1
I0428 20:24:37.434509  2433 net.cpp:408] relu1 <- ip1
I0428 20:24:37.434512  2433 net.cpp:369] relu1 -> ip1 (in-place)
I0428 20:24:37.434675  2433 net.cpp:124] Setting up relu1
I0428 20:24:37.434684  2433 net.cpp:131] Top shape: 64 50 (3200)
I0428 20:24:37.434687  2433 net.cpp:139] Memory required for data: 11490560
I0428 20:24:37.434691  2433 layer_factory.hpp:77] Creating layer ip2
I0428 20:24:37.434696  2433 net.cpp:86] Creating Layer ip2
I0428 20:24:37.434700  2433 net.cpp:408] ip2 <- ip1
I0428 20:24:37.434705  2433 net.cpp:382] ip2 -> ip2
I0428 20:24:37.434811  2433 net.cpp:124] Setting up ip2
I0428 20:24:37.434818  2433 net.cpp:131] Top shape: 64 50 (3200)
I0428 20:24:37.434823  2433 net.cpp:139] Memory required for data: 11503360
I0428 20:24:37.434828  2433 layer_factory.hpp:77] Creating layer relu2
I0428 20:24:37.434834  2433 net.cpp:86] Creating Layer relu2
I0428 20:24:37.434836  2433 net.cpp:408] relu2 <- ip2
I0428 20:24:37.434840  2433 net.cpp:369] relu2 -> ip2 (in-place)
I0428 20:24:37.435619  2433 net.cpp:124] Setting up relu2
I0428 20:24:37.435632  2433 net.cpp:131] Top shape: 64 50 (3200)
I0428 20:24:37.435636  2433 net.cpp:139] Memory required for data: 11516160
I0428 20:24:37.435639  2433 layer_factory.hpp:77] Creating layer ip3
I0428 20:24:37.435647  2433 net.cpp:86] Creating Layer ip3
I0428 20:24:37.435649  2433 net.cpp:408] ip3 <- ip2
I0428 20:24:37.435655  2433 net.cpp:382] ip3 -> ip3
I0428 20:24:37.435753  2433 net.cpp:124] Setting up ip3
I0428 20:24:37.435760  2433 net.cpp:131] Top shape: 64 10 (640)
I0428 20:24:37.435763  2433 net.cpp:139] Memory required for data: 11518720
I0428 20:24:37.435771  2433 layer_factory.hpp:77] Creating layer relu3
I0428 20:24:37.435776  2433 net.cpp:86] Creating Layer relu3
I0428 20:24:37.435780  2433 net.cpp:408] relu3 <- ip3
I0428 20:24:37.435783  2433 net.cpp:369] relu3 -> ip3 (in-place)
I0428 20:24:37.435942  2433 net.cpp:124] Setting up relu3
I0428 20:24:37.435950  2433 net.cpp:131] Top shape: 64 10 (640)
I0428 20:24:37.435953  2433 net.cpp:139] Memory required for data: 11521280
I0428 20:24:37.435956  2433 layer_factory.hpp:77] Creating layer loss
I0428 20:24:37.435962  2433 net.cpp:86] Creating Layer loss
I0428 20:24:37.435966  2433 net.cpp:408] loss <- ip3
I0428 20:24:37.435969  2433 net.cpp:408] loss <- label
I0428 20:24:37.435974  2433 net.cpp:382] loss -> loss
I0428 20:24:37.435988  2433 layer_factory.hpp:77] Creating layer loss
…
I0428 20:24:37.436671  2433 solver.cpp:173] Creating test net (#0) specified by net file: ECE595/mnist/train_test/var_everything2/lenet_train_test1440.prototxt
I0428 20:24:37.436698  2433 net.cpp:296] The NetState phase (1) differed from the phase (0) specified by a rule in layer mnist
I0428 20:24:37.436803  2433 net.cpp:53] Initializing net from parameters: 
name: "LeNet"
state {
  phase: TEST
}
layer {
  name: "mnist"
  type: "Data"
  top: "data"
  top: "label"
  include {
    phase: TEST
  }
  transform_param {
    scale: 0.00390625
  }
  data_param {
    source: "examples/mnist/mnist_test_lmdb"
    batch_size: 100
    backend: LMDB
  }
}
layer {
  name: "conv0"
  type: "Convolution"
  bottom: "data"
  top: "conv0"
  param {
    lr_mult: 1
  }
  param {
    lr_mult: 2
  }
  convolution_param {
    num_output: 50
    kernel_size: 5
    stride: 1
    weight_filler {
      type: "xavier"
    }
    bias_filler {
      type: "constant"
    }
  }
}
layer {
  name: "pool0"
  type: "Pooling"
  bottom: "conv0"
  top: "pool0"
  pooling_param {
    pool: MAX
    kernel_size: 2
    stride: 2
  }
}
layer {
  name: "conv1"
  type: "Convolution"
  bottom: "pool0"
  top: "conv1"
  param {
    lr_mult: 1
  }
  param {
    lr_mult: 2
  }
  convolution_param {
    num_output: 100
    kernel_size: 5
    stride: 1
    weight_filler {
      type: "xavier"
    }
    bias_filler {
      type: "constant"
    }
  }
}
layer {
  name: "pool1"
  type: "Pooling"
  bottom: "conv1"
  top: "pool1"
  pooling_param {
    pool: MAX
    kernel_size: 2
    stride: 2
  }
}
layer {
  name: "ip1"
  type: "InnerProduct"
  bottom: "pool1"
  top: "ip1"
  param {
    lr_mult: 1
  }
  param {
    lr_mult: 2
  }
  inner_product_param {
    num_output: 50
    weight_filler {
      type: "xavier"
    }
    bias_filler {
      type: "constant"
    }
  }
}
layer {
  name: "relu1"
  type: "ReLU"
  bottom: "ip1"
  top: "ip1"
}
layer {
  name: "ip2"
  type: "InnerProduct"
  bottom: "ip1"
  top: "ip2"
  param {
    lr_mult: 1
  }
  param {
    lr_mult: 2
  }
  inner_product_param {
    num_output: 50
    weight_filler {
      type: "xavier"
    }
    bias_filler {
      type: "constant"
    }
  }
}
layer {
  name: "relu2"
  type: "ReLU"
  bottom: "ip2"
  top: "ip2"
}
layer {
  name: "ip3"
  type: "InnerProduct"
  bottom: "ip2"
  top: "ip3"
  param {
    lr_mult: 1
  }
  param {
    lr_mult: 2
  }
  inner_product_param {
    num_output: 10
    weight_filler {
      type: "xavier"
    }
    bias_filler {
      type: "constant"
    }
  }
}
layer {
  name: "relu3"
  type: "ReLU"
  bottom: "ip3"
  top: "ip3"
}
layer {
  name: "accuracy"
  type: "Accuracy"
  bottom: "ip3"
  bottom: "label"
  top: "accuracy"
  include {
    phase: TEST
  }
}
layer {
  name: "loss"
  type: "SoftmaxWithLoss"
  bottom: "ip3"
  bottom: "label"
  top: "loss"
}
I0428 20:24:37.436941  2433 layer_factory.hpp:77] Creating layer mnist
I0428 20:24:37.436990  2433 db_lmdb.cpp:35] Opened lmdb examples/mnist/mnist_test_lmdb
I0428 20:24:37.437002  2433 net.cpp:86] Creating Layer mnist
I0428 20:24:37.437007  2433 net.cpp:382] mnist -> data
I0428 20:24:37.437016  2433 net.cpp:382] mnist -> label
I0428 20:24:37.437108  2433 data_layer.cpp:45] output data size: 100,1,28,28
I0428 20:24:37.438474  2433 net.cpp:124] Setting up mnist
I0428 20:24:37.438504  2433 net.cpp:131] Top shape: 100 1 28 28 (78400)
I0428 20:24:37.438509  2433 net.cpp:131] Top shape: 100 (100)
I0428 20:24:37.438513  2433 net.cpp:139] Memory required for data: 314000
I0428 20:24:37.438516  2433 layer_factory.hpp:77] Creating layer label_mnist_1_split
I0428 20:24:37.438524  2433 net.cpp:86] Creating Layer label_mnist_1_split
I0428 20:24:37.438527  2433 net.cpp:408] label_mnist_1_split <- label
I0428 20:24:37.438532  2433 net.cpp:382] label_mnist_1_split -> label_mnist_1_split_0
I0428 20:24:37.438539  2433 net.cpp:382] label_mnist_1_split -> label_mnist_1_split_1
I0428 20:24:37.438617  2433 net.cpp:124] Setting up label_mnist_1_split
I0428 20:24:37.438626  2433 net.cpp:131] Top shape: 100 (100)
I0428 20:24:37.438629  2433 net.cpp:131] Top shape: 100 (100)
I0428 20:24:37.438632  2433 net.cpp:139] Memory required for data: 314800
I0428 20:24:37.438635  2433 layer_factory.hpp:77] Creating layer conv0
I0428 20:24:37.438644  2433 net.cpp:86] Creating Layer conv0
I0428 20:24:37.438647  2433 net.cpp:408] conv0 <- data
I0428 20:24:37.438653  2433 net.cpp:382] conv0 -> conv0
I0428 20:24:37.440253  2433 net.cpp:124] Setting up conv0
I0428 20:24:37.440266  2433 net.cpp:131] Top shape: 100 50 24 24 (2880000)
I0428 20:24:37.440269  2433 net.cpp:139] Memory required for data: 11834800
I0428 20:24:37.440294  2433 layer_factory.hpp:77] Creating layer pool0
I0428 20:24:37.440302  2433 net.cpp:86] Creating Layer pool0
I0428 20:24:37.440306  2433 net.cpp:408] pool0 <- conv0
I0428 20:24:37.440311  2433 net.cpp:382] pool0 -> pool0
I0428 20:24:37.440349  2433 net.cpp:124] Setting up pool0
I0428 20:24:37.440358  2433 net.cpp:131] Top shape: 100 50 12 12 (720000)
I0428 20:24:37.440361  2433 net.cpp:139] Memory required for data: 14714800
I0428 20:24:37.440364  2433 layer_factory.hpp:77] Creating layer conv1
I0428 20:24:37.440373  2433 net.cpp:86] Creating Layer conv1
I0428 20:24:37.440377  2433 net.cpp:408] conv1 <- pool0
I0428 20:24:37.440383  2433 net.cpp:382] conv1 -> conv1
I0428 20:24:37.443612  2433 net.cpp:124] Setting up conv1
I0428 20:24:37.443629  2433 net.cpp:131] Top shape: 100 100 8 8 (640000)
I0428 20:24:37.443634  2433 net.cpp:139] Memory required for data: 17274800
I0428 20:24:37.443658  2433 layer_factory.hpp:77] Creating layer pool1
I0428 20:24:37.443665  2433 net.cpp:86] Creating Layer pool1
I0428 20:24:37.443670  2433 net.cpp:408] pool1 <- conv1
I0428 20:24:37.443675  2433 net.cpp:382] pool1 -> pool1
I0428 20:24:37.443711  2433 net.cpp:124] Setting up pool1
I0428 20:24:37.443717  2433 net.cpp:131] Top shape: 100 100 4 4 (160000)
I0428 20:24:37.443720  2433 net.cpp:139] Memory required for data: 17914800
I0428 20:24:37.443723  2433 layer_factory.hpp:77] Creating layer ip1
I0428 20:24:37.443729  2433 net.cpp:86] Creating Layer ip1
I0428 20:24:37.443732  2433 net.cpp:408] ip1 <- pool1
I0428 20:24:37.443737  2433 net.cpp:382] ip1 -> ip1
I0428 20:24:37.444322  2433 net.cpp:124] Setting up ip1
I0428 20:24:37.444344  2433 net.cpp:131] Top shape: 100 50 (5000)
I0428 20:24:37.444346  2433 net.cpp:139] Memory required for data: 17934800
I0428 20:24:37.444355  2433 layer_factory.hpp:77] Creating layer relu1
I0428 20:24:37.444360  2433 net.cpp:86] Creating Layer relu1
I0428 20:24:37.444362  2433 net.cpp:408] relu1 <- ip1
I0428 20:24:37.444366  2433 net.cpp:369] relu1 -> ip1 (in-place)
I0428 20:24:37.444545  2433 net.cpp:124] Setting up relu1
I0428 20:24:37.444555  2433 net.cpp:131] Top shape: 100 50 (5000)
I0428 20:24:37.444558  2433 net.cpp:139] Memory required for data: 17954800
I0428 20:24:37.444561  2433 layer_factory.hpp:77] Creating layer ip2
I0428 20:24:37.444568  2433 net.cpp:86] Creating Layer ip2
I0428 20:24:37.444571  2433 net.cpp:408] ip2 <- ip1
I0428 20:24:37.444576  2433 net.cpp:382] ip2 -> ip2
I0428 20:24:37.444686  2433 net.cpp:124] Setting up ip2
I0428 20:24:37.444692  2433 net.cpp:131] Top shape: 100 50 (5000)
I0428 20:24:37.444696  2433 net.cpp:139] Memory required for data: 17974800
I0428 20:24:37.444701  2433 layer_factory.hpp:77] Creating layer relu2
I0428 20:24:37.444705  2433 net.cpp:86] Creating Layer relu2
I0428 20:24:37.444708  2433 net.cpp:408] relu2 <- ip2
I0428 20:24:37.444712  2433 net.cpp:369] relu2 -> ip2 (in-place)
I0428 20:24:37.444880  2433 net.cpp:124] Setting up relu2
I0428 20:24:37.444888  2433 net.cpp:131] Top shape: 100 50 (5000)
I0428 20:24:37.444891  2433 net.cpp:139] Memory required for data: 17994800
I0428 20:24:37.444895  2433 layer_factory.hpp:77] Creating layer ip3
I0428 20:24:37.444900  2433 net.cpp:86] Creating Layer ip3
I0428 20:24:37.444902  2433 net.cpp:408] ip3 <- ip2
I0428 20:24:37.444918  2433 net.cpp:382] ip3 -> ip3
I0428 20:24:37.445037  2433 net.cpp:124] Setting up ip3
I0428 20:24:37.445044  2433 net.cpp:131] Top shape: 100 10 (1000)
I0428 20:24:37.445049  2433 net.cpp:139] Memory required for data: 17998800
I0428 20:24:37.445056  2433 layer_factory.hpp:77] Creating layer relu3
I0428 20:24:37.445061  2433 net.cpp:86] Creating Layer relu3
I0428 20:24:37.445065  2433 net.cpp:408] relu3 <- ip3
I0428 20:24:37.445070  2433 net.cpp:369] relu3 -> ip3 (in-place)
I0428 20:24:37.445930  2433 net.cpp:124] Setting up relu3
I0428 20:24:37.445945  2433 net.cpp:131] Top shape: 100 10 (1000)
I0428 20:24:37.445948  2433 net.cpp:139] Memory required for data: 18002800
I0428 20:24:37.445952  2433 layer_factory.hpp:77] Creating layer ip3_relu3_0_split
I0428 20:24:37.445958  2433 net.cpp:86] Creating Layer ip3_relu3_0_split
I0428 20:24:37.445961  2433 net.cpp:408] ip3_relu3_0_split <- ip3
I0428 20:24:37.445967  2433 net.cpp:382] ip3_relu3_0_split -> ip3_relu3_0_split_0
I0428 20:24:37.445974  2433 net.cpp:382] ip3_relu3_0_split -> ip3_relu3_0_split_1
I0428 20:24:37.446028  2433 net.cpp:124] Setting up ip3_relu3_0_split
I0428 20:24:37.446035  2433 net.cpp:131] Top shape: 100 10 (1000)
I0428 20:24:37.446039  2433 net.cpp:131] Top shape: 100 10 (1000)
I0428 20:24:37.446043  2433 net.cpp:139] Memory required for data: 18010800
I0428 20:24:37.446045  2433 layer_factory.hpp:77] Creating layer accuracy
I0428 20:24:37.446050  2433 net.cpp:86] Creating Layer accuracy
I0428 20:24:37.446053  2433 net.cpp:408] accuracy <- ip3_relu3_0_split_0
I0428 20:24:37.446058  2433 net.cpp:408] accuracy <- label_mnist_1_split_0
I0428 20:24:37.446063  2433 net.cpp:382] accuracy -> accuracy
…
