…
I0428 20:25:22.490988  2579 net.cpp:296] The NetState phase (0) differed from the phase (1) specified by a rule in layer mnist
I0428 20:25:22.491005  2579 net.cpp:296] The NetState phase (0) differed from the phase (1) specified by a rule in layer accuracy
I0428 20:25:22.491094  2579 net.cpp:53] Initializing net from parameters: 
name: "LeNet"
state {
  phase: TRAIN
  level: 0
  stage: ""
}
layer {
  name: "mnist"
  type: "Data"
  top: "data"
  top: "label"
  include {
    phase: TRAIN
  }
  transform_param {
    scale: 0.00390625
  }
  data_param {
    source: "examples/mnist/mnist_train_lmdb"
    batch_size: 64
    backend: LMDB
  }
}
layer {
  name: "conv0"
  type: "Convolution"
  bottom: "data"
  top: "conv0"
  param {
    lr_mult: 1
  }
  param {
    lr_mult: 2
  }
  convolution_param {
    num_output: 100
    kernel_size: 5
    stride: 1
    weight_filler {
      type: "xavier"
    }
    bias_filler {
      type: "constant"
    }
  }
}
layer {
  name: "pool0"
  type: "Pooling"
  bottom: "conv0"
  top: "pool0"
  pooling_param {
    pool: MAX
    kernel_size: 2
    stride: 2
  }
}
layer {
  name: "conv1"
  type: "Convolution"
  bottom: "pool0"
  top: "conv1"
  param {
    lr_mult: 1
  }
  param {
    lr_mult: 2
  }
  convolution_param {
    num_output: 2
    kernel_size: 5
    stride: 1
    weight_filler {
      type: "xavier"
    }
    bias_filler {
      type: "constant"
    }
  }
}
layer {
  name: "pool1"
  type: "Pooling"
  bottom: "conv1"
  top: "pool1"
  pooling_param {
    pool: MAX
    kernel_size: 2
    stride: 2
  }
}
layer {
  name: "ip1"
  type: "InnerProduct"
  bottom: "pool1"
  top: "ip1"
  param {
    lr_mult: 1
  }
  param {
    lr_mult: 2
  }
  inner_product_param {
    num_output: 50
    weight_filler {
      type: "xavier"
    }
    bias_filler {
      type: "constant"
    }
  }
}
layer {
  name: "relu1"
  type: "ReLU"
  bottom: "ip1"
  top: "ip1"
}
layer {
  name: "ip2"
  type: "InnerProduct"
  bottom: "ip1"
  top: "ip2"
  param {
    lr_mult: 1
  }
  param {
    lr_mult: 2
  }
  inner_product_param {
    num_output: 10
    weight_filler {
      type: "xavier"
    }
    bias_filler {
      type: "constant"
    }
  }
}
layer {
  name: "relu2"
  type: "ReLU"
  bottom: "ip2"
  top: "ip2"
}
layer {
  name: "loss"
  type: "SoftmaxWithLoss"
  bottom: "ip2"
  bottom: "label"
  top: "loss"
}
I0428 20:25:22.491171  2579 layer_factory.hpp:77] Creating layer mnist
I0428 20:25:22.491272  2579 db_lmdb.cpp:35] Opened lmdb examples/mnist/mnist_train_lmdb
I0428 20:25:22.491297  2579 net.cpp:86] Creating Layer mnist
I0428 20:25:22.491304  2579 net.cpp:382] mnist -> data
I0428 20:25:22.491328  2579 net.cpp:382] mnist -> label
I0428 20:25:22.492416  2579 data_layer.cpp:45] output data size: 64,1,28,28
I0428 20:25:22.494870  2579 net.cpp:124] Setting up mnist
I0428 20:25:22.494889  2579 net.cpp:131] Top shape: 64 1 28 28 (50176)
I0428 20:25:22.494895  2579 net.cpp:131] Top shape: 64 (64)
I0428 20:25:22.494899  2579 net.cpp:139] Memory required for data: 200960
I0428 20:25:22.494905  2579 layer_factory.hpp:77] Creating layer conv0
I0428 20:25:22.494923  2579 net.cpp:86] Creating Layer conv0
I0428 20:25:22.494930  2579 net.cpp:408] conv0 <- data
I0428 20:25:22.494941  2579 net.cpp:382] conv0 -> conv0
I0428 20:25:22.778687  2579 net.cpp:124] Setting up conv0
I0428 20:25:22.778714  2579 net.cpp:131] Top shape: 64 100 24 24 (3686400)
I0428 20:25:22.778719  2579 net.cpp:139] Memory required for data: 14946560
I0428 20:25:22.778755  2579 layer_factory.hpp:77] Creating layer pool0
I0428 20:25:22.778769  2579 net.cpp:86] Creating Layer pool0
I0428 20:25:22.778774  2579 net.cpp:408] pool0 <- conv0
I0428 20:25:22.778779  2579 net.cpp:382] pool0 -> pool0
I0428 20:25:22.778834  2579 net.cpp:124] Setting up pool0
I0428 20:25:22.778841  2579 net.cpp:131] Top shape: 64 100 12 12 (921600)
I0428 20:25:22.778843  2579 net.cpp:139] Memory required for data: 18632960
I0428 20:25:22.778846  2579 layer_factory.hpp:77] Creating layer conv1
I0428 20:25:22.778857  2579 net.cpp:86] Creating Layer conv1
I0428 20:25:22.778861  2579 net.cpp:408] conv1 <- pool0
I0428 20:25:22.778865  2579 net.cpp:382] conv1 -> conv1
I0428 20:25:22.781520  2579 net.cpp:124] Setting up conv1
I0428 20:25:22.781535  2579 net.cpp:131] Top shape: 64 2 8 8 (8192)
I0428 20:25:22.781539  2579 net.cpp:139] Memory required for data: 18665728
I0428 20:25:22.781548  2579 layer_factory.hpp:77] Creating layer pool1
I0428 20:25:22.781554  2579 net.cpp:86] Creating Layer pool1
I0428 20:25:22.781558  2579 net.cpp:408] pool1 <- conv1
I0428 20:25:22.781563  2579 net.cpp:382] pool1 -> pool1
I0428 20:25:22.781599  2579 net.cpp:124] Setting up pool1
I0428 20:25:22.781605  2579 net.cpp:131] Top shape: 64 2 4 4 (2048)
I0428 20:25:22.781607  2579 net.cpp:139] Memory required for data: 18673920
I0428 20:25:22.781610  2579 layer_factory.hpp:77] Creating layer ip1
I0428 20:25:22.781616  2579 net.cpp:86] Creating Layer ip1
I0428 20:25:22.781620  2579 net.cpp:408] ip1 <- pool1
I0428 20:25:22.781623  2579 net.cpp:382] ip1 -> ip1
I0428 20:25:22.781728  2579 net.cpp:124] Setting up ip1
I0428 20:25:22.781734  2579 net.cpp:131] Top shape: 64 50 (3200)
I0428 20:25:22.781738  2579 net.cpp:139] Memory required for data: 18686720
I0428 20:25:22.781745  2579 layer_factory.hpp:77] Creating layer relu1
I0428 20:25:22.781750  2579 net.cpp:86] Creating Layer relu1
I0428 20:25:22.781754  2579 net.cpp:408] relu1 <- ip1
I0428 20:25:22.781757  2579 net.cpp:369] relu1 -> ip1 (in-place)
I0428 20:25:22.781934  2579 net.cpp:124] Setting up relu1
I0428 20:25:22.781944  2579 net.cpp:131] Top shape: 64 50 (3200)
I0428 20:25:22.781946  2579 net.cpp:139] Memory required for data: 18699520
I0428 20:25:22.781949  2579 layer_factory.hpp:77] Creating layer ip2
I0428 20:25:22.781955  2579 net.cpp:86] Creating Layer ip2
I0428 20:25:22.781958  2579 net.cpp:408] ip2 <- ip1
I0428 20:25:22.781963  2579 net.cpp:382] ip2 -> ip2
I0428 20:25:22.782058  2579 net.cpp:124] Setting up ip2
I0428 20:25:22.782064  2579 net.cpp:131] Top shape: 64 10 (640)
I0428 20:25:22.782068  2579 net.cpp:139] Memory required for data: 18702080
I0428 20:25:22.782073  2579 layer_factory.hpp:77] Creating layer relu2
I0428 20:25:22.782079  2579 net.cpp:86] Creating Layer relu2
I0428 20:25:22.782083  2579 net.cpp:408] relu2 <- ip2
I0428 20:25:22.782086  2579 net.cpp:369] relu2 -> ip2 (in-place)
I0428 20:25:22.782807  2579 net.cpp:124] Setting up relu2
I0428 20:25:22.782820  2579 net.cpp:131] Top shape: 64 10 (640)
I0428 20:25:22.782824  2579 net.cpp:139] Memory required for data: 18704640
I0428 20:25:22.782827  2579 layer_factory.hpp:77] Creating layer loss
I0428 20:25:22.782833  2579 net.cpp:86] Creating Layer loss
I0428 20:25:22.782836  2579 net.cpp:408] loss <- ip2
I0428 20:25:22.782841  2579 net.cpp:408] loss <- label
I0428 20:25:22.782846  2579 net.cpp:382] loss -> loss
I0428 20:25:22.782866  2579 layer_factory.hpp:77] Creating layer loss
…
I0428 20:25:22.783455  2579 solver.cpp:173] Creating test net (#0) specified by net file: ECE595/mnist/train_test/var_everything2/lenet_train_test1453.prototxt
I0428 20:25:22.783479  2579 net.cpp:296] The NetState phase (1) differed from the phase (0) specified by a rule in layer mnist
I0428 20:25:22.783558  2579 net.cpp:53] Initializing net from parameters: 
name: "LeNet"
state {
  phase: TEST
}
layer {
  name: "mnist"
  type: "Data"
  top: "data"
  top: "label"
  include {
    phase: TEST
  }
  transform_param {
    scale: 0.00390625
  }
  data_param {
    source: "examples/mnist/mnist_test_lmdb"
    batch_size: 100
    backend: LMDB
  }
}
layer {
  name: "conv0"
  type: "Convolution"
  bottom: "data"
  top: "conv0"
  param {
    lr_mult: 1
  }
  param {
    lr_mult: 2
  }
  convolution_param {
    num_output: 100
    kernel_size: 5
    stride: 1
    weight_filler {
      type: "xavier"
    }
    bias_filler {
      type: "constant"
    }
  }
}
layer {
  name: "pool0"
  type: "Pooling"
  bottom: "conv0"
  top: "pool0"
  pooling_param {
    pool: MAX
    kernel_size: 2
    stride: 2
  }
}
layer {
  name: "conv1"
  type: "Convolution"
  bottom: "pool0"
  top: "conv1"
  param {
    lr_mult: 1
  }
  param {
    lr_mult: 2
  }
  convolution_param {
    num_output: 2
    kernel_size: 5
    stride: 1
    weight_filler {
      type: "xavier"
    }
    bias_filler {
      type: "constant"
    }
  }
}
layer {
  name: "pool1"
  type: "Pooling"
  bottom: "conv1"
  top: "pool1"
  pooling_param {
    pool: MAX
    kernel_size: 2
    stride: 2
  }
}
layer {
  name: "ip1"
  type: "InnerProduct"
  bottom: "pool1"
  top: "ip1"
  param {
    lr_mult: 1
  }
  param {
    lr_mult: 2
  }
  inner_product_param {
    num_output: 50
    weight_filler {
      type: "xavier"
    }
    bias_filler {
      type: "constant"
    }
  }
}
layer {
  name: "relu1"
  type: "ReLU"
  bottom: "ip1"
  top: "ip1"
}
layer {
  name: "ip2"
  type: "InnerProduct"
  bottom: "ip1"
  top: "ip2"
  param {
    lr_mult: 1
  }
  param {
    lr_mult: 2
  }
  inner_product_param {
    num_output: 10
    weight_filler {
      type: "xavier"
    }
    bias_filler {
      type: "constant"
    }
  }
}
layer {
  name: "relu2"
  type: "ReLU"
  bottom: "ip2"
  top: "ip2"
}
layer {
  name: "accuracy"
  type: "Accuracy"
  bottom: "ip2"
  bottom: "label"
  top: "accuracy"
  include {
    phase: TEST
  }
}
layer {
  name: "loss"
  type: "SoftmaxWithLoss"
  bottom: "ip2"
  bottom: "label"
  top: "loss"
}
I0428 20:25:22.783618  2579 layer_factory.hpp:77] Creating layer mnist
I0428 20:25:22.783661  2579 db_lmdb.cpp:35] Opened lmdb examples/mnist/mnist_test_lmdb
I0428 20:25:22.783674  2579 net.cpp:86] Creating Layer mnist
I0428 20:25:22.783679  2579 net.cpp:382] mnist -> data
I0428 20:25:22.783685  2579 net.cpp:382] mnist -> label
I0428 20:25:22.783764  2579 data_layer.cpp:45] output data size: 100,1,28,28
I0428 20:25:22.785770  2579 net.cpp:124] Setting up mnist
I0428 20:25:22.785800  2579 net.cpp:131] Top shape: 100 1 28 28 (78400)
I0428 20:25:22.785805  2579 net.cpp:131] Top shape: 100 (100)
I0428 20:25:22.785809  2579 net.cpp:139] Memory required for data: 314000
I0428 20:25:22.785812  2579 layer_factory.hpp:77] Creating layer label_mnist_1_split
I0428 20:25:22.785861  2579 net.cpp:86] Creating Layer label_mnist_1_split
I0428 20:25:22.785866  2579 net.cpp:408] label_mnist_1_split <- label
I0428 20:25:22.785871  2579 net.cpp:382] label_mnist_1_split -> label_mnist_1_split_0
I0428 20:25:22.785877  2579 net.cpp:382] label_mnist_1_split -> label_mnist_1_split_1
I0428 20:25:22.785992  2579 net.cpp:124] Setting up label_mnist_1_split
I0428 20:25:22.786000  2579 net.cpp:131] Top shape: 100 (100)
I0428 20:25:22.786005  2579 net.cpp:131] Top shape: 100 (100)
I0428 20:25:22.786006  2579 net.cpp:139] Memory required for data: 314800
I0428 20:25:22.786010  2579 layer_factory.hpp:77] Creating layer conv0
I0428 20:25:22.786017  2579 net.cpp:86] Creating Layer conv0
I0428 20:25:22.786020  2579 net.cpp:408] conv0 <- data
I0428 20:25:22.786026  2579 net.cpp:382] conv0 -> conv0
I0428 20:25:22.787473  2579 net.cpp:124] Setting up conv0
I0428 20:25:22.787487  2579 net.cpp:131] Top shape: 100 100 24 24 (5760000)
I0428 20:25:22.787492  2579 net.cpp:139] Memory required for data: 23354800
I0428 20:25:22.787500  2579 layer_factory.hpp:77] Creating layer pool0
I0428 20:25:22.787511  2579 net.cpp:86] Creating Layer pool0
I0428 20:25:22.787518  2579 net.cpp:408] pool0 <- conv0
I0428 20:25:22.787523  2579 net.cpp:382] pool0 -> pool0
I0428 20:25:22.787559  2579 net.cpp:124] Setting up pool0
I0428 20:25:22.787566  2579 net.cpp:131] Top shape: 100 100 12 12 (1440000)
I0428 20:25:22.787569  2579 net.cpp:139] Memory required for data: 29114800
I0428 20:25:22.787572  2579 layer_factory.hpp:77] Creating layer conv1
I0428 20:25:22.787580  2579 net.cpp:86] Creating Layer conv1
I0428 20:25:22.787585  2579 net.cpp:408] conv1 <- pool0
I0428 20:25:22.787588  2579 net.cpp:382] conv1 -> conv1
I0428 20:25:22.789042  2579 net.cpp:124] Setting up conv1
I0428 20:25:22.789057  2579 net.cpp:131] Top shape: 100 2 8 8 (12800)
I0428 20:25:22.789060  2579 net.cpp:139] Memory required for data: 29166000
I0428 20:25:22.789084  2579 layer_factory.hpp:77] Creating layer pool1
I0428 20:25:22.789090  2579 net.cpp:86] Creating Layer pool1
I0428 20:25:22.789094  2579 net.cpp:408] pool1 <- conv1
I0428 20:25:22.789099  2579 net.cpp:382] pool1 -> pool1
I0428 20:25:22.789134  2579 net.cpp:124] Setting up pool1
I0428 20:25:22.789140  2579 net.cpp:131] Top shape: 100 2 4 4 (3200)
I0428 20:25:22.789144  2579 net.cpp:139] Memory required for data: 29178800
I0428 20:25:22.789146  2579 layer_factory.hpp:77] Creating layer ip1
I0428 20:25:22.789152  2579 net.cpp:86] Creating Layer ip1
I0428 20:25:22.789155  2579 net.cpp:408] ip1 <- pool1
I0428 20:25:22.789160  2579 net.cpp:382] ip1 -> ip1
I0428 20:25:22.789281  2579 net.cpp:124] Setting up ip1
I0428 20:25:22.789289  2579 net.cpp:131] Top shape: 100 50 (5000)
I0428 20:25:22.789293  2579 net.cpp:139] Memory required for data: 29198800
I0428 20:25:22.789299  2579 layer_factory.hpp:77] Creating layer relu1
I0428 20:25:22.789304  2579 net.cpp:86] Creating Layer relu1
I0428 20:25:22.789307  2579 net.cpp:408] relu1 <- ip1
I0428 20:25:22.789312  2579 net.cpp:369] relu1 -> ip1 (in-place)
I0428 20:25:22.789521  2579 net.cpp:124] Setting up relu1
I0428 20:25:22.789530  2579 net.cpp:131] Top shape: 100 50 (5000)
I0428 20:25:22.789532  2579 net.cpp:139] Memory required for data: 29218800
I0428 20:25:22.789536  2579 layer_factory.hpp:77] Creating layer ip2
I0428 20:25:22.789542  2579 net.cpp:86] Creating Layer ip2
I0428 20:25:22.789546  2579 net.cpp:408] ip2 <- ip1
I0428 20:25:22.789551  2579 net.cpp:382] ip2 -> ip2
I0428 20:25:22.789692  2579 net.cpp:124] Setting up ip2
I0428 20:25:22.789700  2579 net.cpp:131] Top shape: 100 10 (1000)
I0428 20:25:22.789702  2579 net.cpp:139] Memory required for data: 29222800
I0428 20:25:22.789707  2579 layer_factory.hpp:77] Creating layer relu2
I0428 20:25:22.789717  2579 net.cpp:86] Creating Layer relu2
I0428 20:25:22.789721  2579 net.cpp:408] relu2 <- ip2
I0428 20:25:22.789723  2579 net.cpp:369] relu2 -> ip2 (in-place)
I0428 20:25:22.789876  2579 net.cpp:124] Setting up relu2
I0428 20:25:22.789885  2579 net.cpp:131] Top shape: 100 10 (1000)
I0428 20:25:22.789890  2579 net.cpp:139] Memory required for data: 29226800
I0428 20:25:22.789892  2579 layer_factory.hpp:77] Creating layer ip2_relu2_0_split
I0428 20:25:22.789896  2579 net.cpp:86] Creating Layer ip2_relu2_0_split
I0428 20:25:22.789899  2579 net.cpp:408] ip2_relu2_0_split <- ip2
I0428 20:25:22.789906  2579 net.cpp:382] ip2_relu2_0_split -> ip2_relu2_0_split_0
I0428 20:25:22.789921  2579 net.cpp:382] ip2_relu2_0_split -> ip2_relu2_0_split_1
I0428 20:25:22.789970  2579 net.cpp:124] Setting up ip2_relu2_0_split
I0428 20:25:22.789978  2579 net.cpp:131] Top shape: 100 10 (1000)
I0428 20:25:22.789981  2579 net.cpp:131] Top shape: 100 10 (1000)
I0428 20:25:22.789984  2579 net.cpp:139] Memory required for data: 29234800
I0428 20:25:22.789988  2579 layer_factory.hpp:77] Creating layer accuracy
I0428 20:25:22.789994  2579 net.cpp:86] Creating Layer accuracy
I0428 20:25:22.789996  2579 net.cpp:408] accuracy <- ip2_relu2_0_split_0
I0428 20:25:22.790015  2579 net.cpp:408] accuracy <- label_mnist_1_split_0
I0428 20:25:22.790019  2579 net.cpp:382] accuracy -> accuracy
…
