…
I0428 19:34:35.998878 23357 net.cpp:296] The NetState phase (0) differed from the phase (1) specified by a rule in layer mnist
I0428 19:34:35.998906 23357 net.cpp:296] The NetState phase (0) differed from the phase (1) specified by a rule in layer accuracy
I0428 19:34:35.998975 23357 net.cpp:53] Initializing net from parameters: 
name: "LeNet"
state {
  phase: TRAIN
  level: 0
  stage: ""
}
layer {
  name: "mnist"
  type: "Data"
  top: "data"
  top: "label"
  include {
    phase: TRAIN
  }
  transform_param {
    scale: 0.00390625
  }
  data_param {
    source: "examples/mnist/mnist_train_lmdb"
    batch_size: 64
    backend: LMDB
  }
}
layer {
  name: "conv0"
  type: "Convolution"
  bottom: "data"
  top: "conv0"
  param {
    lr_mult: 1
  }
  param {
    lr_mult: 2
  }
  convolution_param {
    num_output: 50
    kernel_size: 5
    stride: 1
    weight_filler {
      type: "xavier"
    }
    bias_filler {
      type: "constant"
    }
  }
}
layer {
  name: "pool0"
  type: "Pooling"
  bottom: "conv0"
  top: "pool0"
  pooling_param {
    pool: MAX
    kernel_size: 2
    stride: 2
  }
}
layer {
  name: "ip1"
  type: "InnerProduct"
  bottom: "pool0"
  top: "ip1"
  param {
    lr_mult: 1
  }
  param {
    lr_mult: 2
  }
  inner_product_param {
    num_output: 10
    weight_filler {
      type: "xavier"
    }
    bias_filler {
      type: "constant"
    }
  }
}
layer {
  name: "relu1"
  type: "ReLU"
  bottom: "ip1"
  top: "ip1"
}
layer {
  name: "ip2"
  type: "InnerProduct"
  bottom: "ip1"
  top: "ip2"
  param {
    lr_mult: 1
  }
  param {
    lr_mult: 2
  }
  inner_product_param {
    num_output: 10
    weight_filler {
      type: "xavier"
    }
    bias_filler {
      type: "constant"
    }
  }
}
layer {
  name: "relu2"
  type: "ReLU"
  bottom: "ip2"
  top: "ip2"
}
layer {
  name: "ip3"
  type: "InnerProduct"
  bottom: "ip2"
  top: "ip3"
  param {
    lr_mult: 1
  }
  param {
    lr_mult: 2
  }
  inner_product_param {
    num_output: 10
    weight_filler {
      type: "xavier"
    }
    bias_filler {
      type: "constant"
    }
  }
}
layer {
  name: "relu3"
  type: "ReLU"
  bottom: "ip3"
  top: "ip3"
}
layer {
  name: "loss"
  type: "SoftmaxWithLoss"
  bottom: "ip3"
  bottom: "label"
  top: "loss"
}
I0428 19:34:35.999035 23357 layer_factory.hpp:77] Creating layer mnist
I0428 19:34:35.999115 23357 db_lmdb.cpp:35] Opened lmdb examples/mnist/mnist_train_lmdb
I0428 19:34:35.999135 23357 net.cpp:86] Creating Layer mnist
I0428 19:34:35.999141 23357 net.cpp:382] mnist -> data
I0428 19:34:35.999160 23357 net.cpp:382] mnist -> label
I0428 19:34:36.000242 23357 data_layer.cpp:45] output data size: 64,1,28,28
I0428 19:34:36.002599 23357 net.cpp:124] Setting up mnist
I0428 19:34:36.002611 23357 net.cpp:131] Top shape: 64 1 28 28 (50176)
I0428 19:34:36.002616 23357 net.cpp:131] Top shape: 64 (64)
I0428 19:34:36.002619 23357 net.cpp:139] Memory required for data: 200960
I0428 19:34:36.002624 23357 layer_factory.hpp:77] Creating layer conv0
I0428 19:34:36.002637 23357 net.cpp:86] Creating Layer conv0
I0428 19:34:36.002642 23357 net.cpp:408] conv0 <- data
I0428 19:34:36.002667 23357 net.cpp:382] conv0 -> conv0
I0428 19:34:36.232028 23357 net.cpp:124] Setting up conv0
I0428 19:34:36.232069 23357 net.cpp:131] Top shape: 64 50 24 24 (1843200)
I0428 19:34:36.232074 23357 net.cpp:139] Memory required for data: 7573760
I0428 19:34:36.232089 23357 layer_factory.hpp:77] Creating layer pool0
I0428 19:34:36.232101 23357 net.cpp:86] Creating Layer pool0
I0428 19:34:36.232144 23357 net.cpp:408] pool0 <- conv0
I0428 19:34:36.232151 23357 net.cpp:382] pool0 -> pool0
I0428 19:34:36.232195 23357 net.cpp:124] Setting up pool0
I0428 19:34:36.232208 23357 net.cpp:131] Top shape: 64 50 12 12 (460800)
I0428 19:34:36.232210 23357 net.cpp:139] Memory required for data: 9416960
I0428 19:34:36.232213 23357 layer_factory.hpp:77] Creating layer ip1
I0428 19:34:36.232220 23357 net.cpp:86] Creating Layer ip1
I0428 19:34:36.232223 23357 net.cpp:408] ip1 <- pool0
I0428 19:34:36.232228 23357 net.cpp:382] ip1 -> ip1
I0428 19:34:36.233711 23357 net.cpp:124] Setting up ip1
I0428 19:34:36.233724 23357 net.cpp:131] Top shape: 64 10 (640)
I0428 19:34:36.233743 23357 net.cpp:139] Memory required for data: 9419520
I0428 19:34:36.233752 23357 layer_factory.hpp:77] Creating layer relu1
I0428 19:34:36.233758 23357 net.cpp:86] Creating Layer relu1
I0428 19:34:36.233762 23357 net.cpp:408] relu1 <- ip1
I0428 19:34:36.233767 23357 net.cpp:369] relu1 -> ip1 (in-place)
I0428 19:34:36.233945 23357 net.cpp:124] Setting up relu1
I0428 19:34:36.233954 23357 net.cpp:131] Top shape: 64 10 (640)
I0428 19:34:36.233958 23357 net.cpp:139] Memory required for data: 9422080
I0428 19:34:36.233960 23357 layer_factory.hpp:77] Creating layer ip2
I0428 19:34:36.233966 23357 net.cpp:86] Creating Layer ip2
I0428 19:34:36.233969 23357 net.cpp:408] ip2 <- ip1
I0428 19:34:36.233973 23357 net.cpp:382] ip2 -> ip2
I0428 19:34:36.234061 23357 net.cpp:124] Setting up ip2
I0428 19:34:36.234067 23357 net.cpp:131] Top shape: 64 10 (640)
I0428 19:34:36.234069 23357 net.cpp:139] Memory required for data: 9424640
I0428 19:34:36.234076 23357 layer_factory.hpp:77] Creating layer relu2
I0428 19:34:36.234081 23357 net.cpp:86] Creating Layer relu2
I0428 19:34:36.234084 23357 net.cpp:408] relu2 <- ip2
I0428 19:34:36.234088 23357 net.cpp:369] relu2 -> ip2 (in-place)
I0428 19:34:36.234803 23357 net.cpp:124] Setting up relu2
I0428 19:34:36.234815 23357 net.cpp:131] Top shape: 64 10 (640)
I0428 19:34:36.234834 23357 net.cpp:139] Memory required for data: 9427200
I0428 19:34:36.234838 23357 layer_factory.hpp:77] Creating layer ip3
I0428 19:34:36.234844 23357 net.cpp:86] Creating Layer ip3
I0428 19:34:36.234848 23357 net.cpp:408] ip3 <- ip2
I0428 19:34:36.234853 23357 net.cpp:382] ip3 -> ip3
I0428 19:34:36.234958 23357 net.cpp:124] Setting up ip3
I0428 19:34:36.234966 23357 net.cpp:131] Top shape: 64 10 (640)
I0428 19:34:36.234968 23357 net.cpp:139] Memory required for data: 9429760
I0428 19:34:36.234973 23357 layer_factory.hpp:77] Creating layer relu3
I0428 19:34:36.234980 23357 net.cpp:86] Creating Layer relu3
I0428 19:34:36.234982 23357 net.cpp:408] relu3 <- ip3
I0428 19:34:36.234987 23357 net.cpp:369] relu3 -> ip3 (in-place)
I0428 19:34:36.235126 23357 net.cpp:124] Setting up relu3
I0428 19:34:36.235136 23357 net.cpp:131] Top shape: 64 10 (640)
I0428 19:34:36.235154 23357 net.cpp:139] Memory required for data: 9432320
I0428 19:34:36.235157 23357 layer_factory.hpp:77] Creating layer loss
I0428 19:34:36.235162 23357 net.cpp:86] Creating Layer loss
I0428 19:34:36.235165 23357 net.cpp:408] loss <- ip3
I0428 19:34:36.235169 23357 net.cpp:408] loss <- label
I0428 19:34:36.235174 23357 net.cpp:382] loss -> loss
I0428 19:34:36.235188 23357 layer_factory.hpp:77] Creating layer loss
…
I0428 19:34:36.235781 23357 solver.cpp:173] Creating test net (#0) specified by net file: ECE595/mnist/train_test/var_everything2/lenet_train_test207.prototxt
I0428 19:34:36.235806 23357 net.cpp:296] The NetState phase (1) differed from the phase (0) specified by a rule in layer mnist
I0428 19:34:36.235887 23357 net.cpp:53] Initializing net from parameters: 
name: "LeNet"
state {
  phase: TEST
}
layer {
  name: "mnist"
  type: "Data"
  top: "data"
  top: "label"
  include {
    phase: TEST
  }
  transform_param {
    scale: 0.00390625
  }
  data_param {
    source: "examples/mnist/mnist_test_lmdb"
    batch_size: 100
    backend: LMDB
  }
}
layer {
  name: "conv0"
  type: "Convolution"
  bottom: "data"
  top: "conv0"
  param {
    lr_mult: 1
  }
  param {
    lr_mult: 2
  }
  convolution_param {
    num_output: 50
    kernel_size: 5
    stride: 1
    weight_filler {
      type: "xavier"
    }
    bias_filler {
      type: "constant"
    }
  }
}
layer {
  name: "pool0"
  type: "Pooling"
  bottom: "conv0"
  top: "pool0"
  pooling_param {
    pool: MAX
    kernel_size: 2
    stride: 2
  }
}
layer {
  name: "ip1"
  type: "InnerProduct"
  bottom: "pool0"
  top: "ip1"
  param {
    lr_mult: 1
  }
  param {
    lr_mult: 2
  }
  inner_product_param {
    num_output: 10
    weight_filler {
      type: "xavier"
    }
    bias_filler {
      type: "constant"
    }
  }
}
layer {
  name: "relu1"
  type: "ReLU"
  bottom: "ip1"
  top: "ip1"
}
layer {
  name: "ip2"
  type: "InnerProduct"
  bottom: "ip1"
  top: "ip2"
  param {
    lr_mult: 1
  }
  param {
    lr_mult: 2
  }
  inner_product_param {
    num_output: 10
    weight_filler {
      type: "xavier"
    }
    bias_filler {
      type: "constant"
    }
  }
}
layer {
  name: "relu2"
  type: "ReLU"
  bottom: "ip2"
  top: "ip2"
}
layer {
  name: "ip3"
  type: "InnerProduct"
  bottom: "ip2"
  top: "ip3"
  param {
    lr_mult: 1
  }
  param {
    lr_mult: 2
  }
  inner_product_param {
    num_output: 10
    weight_filler {
      type: "xavier"
    }
    bias_filler {
      type: "constant"
    }
  }
}
layer {
  name: "relu3"
  type: "ReLU"
  bottom: "ip3"
  top: "ip3"
}
layer {
  name: "accuracy"
  type: "Accuracy"
  bottom: "ip3"
  bottom: "label"
  top: "accuracy"
  include {
    phase: TEST
  }
}
layer {
  name: "loss"
  type: "SoftmaxWithLoss"
  bottom: "ip3"
  bottom: "label"
  top: "loss"
}
I0428 19:34:36.235947 23357 layer_factory.hpp:77] Creating layer mnist
I0428 19:34:36.235992 23357 db_lmdb.cpp:35] Opened lmdb examples/mnist/mnist_test_lmdb
I0428 19:34:36.236006 23357 net.cpp:86] Creating Layer mnist
I0428 19:34:36.236009 23357 net.cpp:382] mnist -> data
I0428 19:34:36.236032 23357 net.cpp:382] mnist -> label
I0428 19:34:36.236110 23357 data_layer.cpp:45] output data size: 100,1,28,28
I0428 19:34:36.237237 23357 net.cpp:124] Setting up mnist
I0428 19:34:36.237280 23357 net.cpp:131] Top shape: 100 1 28 28 (78400)
I0428 19:34:36.237285 23357 net.cpp:131] Top shape: 100 (100)
I0428 19:34:36.237288 23357 net.cpp:139] Memory required for data: 314000
I0428 19:34:36.237293 23357 layer_factory.hpp:77] Creating layer label_mnist_1_split
I0428 19:34:36.237298 23357 net.cpp:86] Creating Layer label_mnist_1_split
I0428 19:34:36.237303 23357 net.cpp:408] label_mnist_1_split <- label
I0428 19:34:36.237308 23357 net.cpp:382] label_mnist_1_split -> label_mnist_1_split_0
I0428 19:34:36.237313 23357 net.cpp:382] label_mnist_1_split -> label_mnist_1_split_1
I0428 19:34:36.237356 23357 net.cpp:124] Setting up label_mnist_1_split
I0428 19:34:36.237361 23357 net.cpp:131] Top shape: 100 (100)
I0428 19:34:36.237365 23357 net.cpp:131] Top shape: 100 (100)
I0428 19:34:36.237367 23357 net.cpp:139] Memory required for data: 314800
I0428 19:34:36.237380 23357 layer_factory.hpp:77] Creating layer conv0
I0428 19:34:36.237390 23357 net.cpp:86] Creating Layer conv0
I0428 19:34:36.237392 23357 net.cpp:408] conv0 <- data
I0428 19:34:36.237397 23357 net.cpp:382] conv0 -> conv0
I0428 19:34:36.238852 23357 net.cpp:124] Setting up conv0
I0428 19:34:36.238883 23357 net.cpp:131] Top shape: 100 50 24 24 (2880000)
I0428 19:34:36.238885 23357 net.cpp:139] Memory required for data: 11834800
I0428 19:34:36.238894 23357 layer_factory.hpp:77] Creating layer pool0
I0428 19:34:36.238903 23357 net.cpp:86] Creating Layer pool0
I0428 19:34:36.238921 23357 net.cpp:408] pool0 <- conv0
I0428 19:34:36.238926 23357 net.cpp:382] pool0 -> pool0
I0428 19:34:36.238977 23357 net.cpp:124] Setting up pool0
I0428 19:34:36.238998 23357 net.cpp:131] Top shape: 100 50 12 12 (720000)
I0428 19:34:36.239002 23357 net.cpp:139] Memory required for data: 14714800
I0428 19:34:36.239006 23357 layer_factory.hpp:77] Creating layer ip1
I0428 19:34:36.239012 23357 net.cpp:86] Creating Layer ip1
I0428 19:34:36.239015 23357 net.cpp:408] ip1 <- pool0
I0428 19:34:36.239020 23357 net.cpp:382] ip1 -> ip1
I0428 19:34:36.239596 23357 net.cpp:124] Setting up ip1
I0428 19:34:36.239604 23357 net.cpp:131] Top shape: 100 10 (1000)
I0428 19:34:36.239624 23357 net.cpp:139] Memory required for data: 14718800
I0428 19:34:36.239631 23357 layer_factory.hpp:77] Creating layer relu1
I0428 19:34:36.239636 23357 net.cpp:86] Creating Layer relu1
I0428 19:34:36.239640 23357 net.cpp:408] relu1 <- ip1
I0428 19:34:36.239645 23357 net.cpp:369] relu1 -> ip1 (in-place)
I0428 19:34:36.239816 23357 net.cpp:124] Setting up relu1
I0428 19:34:36.239826 23357 net.cpp:131] Top shape: 100 10 (1000)
I0428 19:34:36.239830 23357 net.cpp:139] Memory required for data: 14722800
I0428 19:34:36.239833 23357 layer_factory.hpp:77] Creating layer ip2
I0428 19:34:36.239838 23357 net.cpp:86] Creating Layer ip2
I0428 19:34:36.239842 23357 net.cpp:408] ip2 <- ip1
I0428 19:34:36.239847 23357 net.cpp:382] ip2 -> ip2
I0428 19:34:36.239944 23357 net.cpp:124] Setting up ip2
I0428 19:34:36.239951 23357 net.cpp:131] Top shape: 100 10 (1000)
I0428 19:34:36.239955 23357 net.cpp:139] Memory required for data: 14726800
I0428 19:34:36.239962 23357 layer_factory.hpp:77] Creating layer relu2
I0428 19:34:36.239967 23357 net.cpp:86] Creating Layer relu2
I0428 19:34:36.239970 23357 net.cpp:408] relu2 <- ip2
I0428 19:34:36.239975 23357 net.cpp:369] relu2 -> ip2 (in-place)
I0428 19:34:36.240880 23357 net.cpp:124] Setting up relu2
I0428 19:34:36.240892 23357 net.cpp:131] Top shape: 100 10 (1000)
I0428 19:34:36.240896 23357 net.cpp:139] Memory required for data: 14730800
I0428 19:34:36.240900 23357 layer_factory.hpp:77] Creating layer ip3
I0428 19:34:36.240908 23357 net.cpp:86] Creating Layer ip3
I0428 19:34:36.240912 23357 net.cpp:408] ip3 <- ip2
I0428 19:34:36.240918 23357 net.cpp:382] ip3 -> ip3
I0428 19:34:36.241039 23357 net.cpp:124] Setting up ip3
I0428 19:34:36.241047 23357 net.cpp:131] Top shape: 100 10 (1000)
I0428 19:34:36.241050 23357 net.cpp:139] Memory required for data: 14734800
I0428 19:34:36.241065 23357 layer_factory.hpp:77] Creating layer relu3
I0428 19:34:36.241076 23357 net.cpp:86] Creating Layer relu3
I0428 19:34:36.241080 23357 net.cpp:408] relu3 <- ip3
I0428 19:34:36.241089 23357 net.cpp:369] relu3 -> ip3 (in-place)
I0428 19:34:36.241255 23357 net.cpp:124] Setting up relu3
I0428 19:34:36.241266 23357 net.cpp:131] Top shape: 100 10 (1000)
I0428 19:34:36.241271 23357 net.cpp:139] Memory required for data: 14738800
I0428 19:34:36.241273 23357 layer_factory.hpp:77] Creating layer ip3_relu3_0_split
I0428 19:34:36.241278 23357 net.cpp:86] Creating Layer ip3_relu3_0_split
I0428 19:34:36.241282 23357 net.cpp:408] ip3_relu3_0_split <- ip3
I0428 19:34:36.241287 23357 net.cpp:382] ip3_relu3_0_split -> ip3_relu3_0_split_0
I0428 19:34:36.241298 23357 net.cpp:382] ip3_relu3_0_split -> ip3_relu3_0_split_1
I0428 19:34:36.241334 23357 net.cpp:124] Setting up ip3_relu3_0_split
I0428 19:34:36.241341 23357 net.cpp:131] Top shape: 100 10 (1000)
I0428 19:34:36.241345 23357 net.cpp:131] Top shape: 100 10 (1000)
I0428 19:34:36.241360 23357 net.cpp:139] Memory required for data: 14746800
I0428 19:34:36.241364 23357 layer_factory.hpp:77] Creating layer accuracy
I0428 19:34:36.241370 23357 net.cpp:86] Creating Layer accuracy
I0428 19:34:36.241374 23357 net.cpp:408] accuracy <- ip3_relu3_0_split_0
I0428 19:34:36.241379 23357 net.cpp:408] accuracy <- label_mnist_1_split_0
I0428 19:34:36.241384 23357 net.cpp:382] accuracy -> accuracy
…
