…
I0428 19:55:26.345520 28180 net.cpp:296] The NetState phase (0) differed from the phase (1) specified by a rule in layer mnist
I0428 19:55:26.345551 28180 net.cpp:296] The NetState phase (0) differed from the phase (1) specified by a rule in layer accuracy
I0428 19:55:26.345629 28180 net.cpp:53] Initializing net from parameters: 
name: "LeNet"
state {
  phase: TRAIN
  level: 0
  stage: ""
}
layer {
  name: "mnist"
  type: "Data"
  top: "data"
  top: "label"
  include {
    phase: TRAIN
  }
  transform_param {
    scale: 0.00390625
  }
  data_param {
    source: "examples/mnist/mnist_train_lmdb"
    batch_size: 64
    backend: LMDB
  }
}
layer {
  name: "conv0"
  type: "Convolution"
  bottom: "data"
  top: "conv0"
  param {
    lr_mult: 1
  }
  param {
    lr_mult: 2
  }
  convolution_param {
    num_output: 5
    kernel_size: 5
    stride: 1
    weight_filler {
      type: "xavier"
    }
    bias_filler {
      type: "constant"
    }
  }
}
layer {
  name: "pool0"
  type: "Pooling"
  bottom: "conv0"
  top: "pool0"
  pooling_param {
    pool: MAX
    kernel_size: 2
    stride: 2
  }
}
layer {
  name: "conv1"
  type: "Convolution"
  bottom: "pool0"
  top: "conv1"
  param {
    lr_mult: 1
  }
  param {
    lr_mult: 2
  }
  convolution_param {
    num_output: 100
    kernel_size: 5
    stride: 1
    weight_filler {
      type: "xavier"
    }
    bias_filler {
      type: "constant"
    }
  }
}
layer {
  name: "pool1"
  type: "Pooling"
  bottom: "conv1"
  top: "pool1"
  pooling_param {
    pool: MAX
    kernel_size: 2
    stride: 2
  }
}
layer {
  name: "ip1"
  type: "InnerProduct"
  bottom: "pool1"
  top: "ip1"
  param {
    lr_mult: 1
  }
  param {
    lr_mult: 2
  }
  inner_product_param {
    num_output: 50
    weight_filler {
      type: "xavier"
    }
    bias_filler {
      type: "constant"
    }
  }
}
layer {
  name: "relu1"
  type: "ReLU"
  bottom: "ip1"
  top: "ip1"
}
layer {
  name: "ip2"
  type: "InnerProduct"
  bottom: "ip1"
  top: "ip2"
  param {
    lr_mult: 1
  }
  param {
    lr_mult: 2
  }
  inner_product_param {
    num_output: 10
    weight_filler {
      type: "xavier"
    }
    bias_filler {
      type: "constant"
    }
  }
}
layer {
  name: "relu2"
  type: "ReLU"
  bottom: "ip2"
  top: "ip2"
}
layer {
  name: "ip3"
  type: "InnerProduct"
  bottom: "ip2"
  top: "ip3"
  param {
    lr_mult: 1
  }
  param {
    lr_mult: 2
  }
  inner_product_param {
    num_output: 10
    weight_filler {
      type: "xavier"
    }
    bias_filler {
      type: "constant"
    }
  }
}
layer {
  name: "relu3"
  type: "ReLU"
  bottom: "ip3"
  top: "ip3"
}
layer {
  name: "loss"
  type: "SoftmaxWithLoss"
  bottom: "ip3"
  bottom: "label"
  top: "loss"
}
I0428 19:55:26.345695 28180 layer_factory.hpp:77] Creating layer mnist
I0428 19:55:26.345777 28180 db_lmdb.cpp:35] Opened lmdb examples/mnist/mnist_train_lmdb
I0428 19:55:26.345795 28180 net.cpp:86] Creating Layer mnist
I0428 19:55:26.345804 28180 net.cpp:382] mnist -> data
I0428 19:55:26.345823 28180 net.cpp:382] mnist -> label
I0428 19:55:26.346815 28180 data_layer.cpp:45] output data size: 64,1,28,28
I0428 19:55:26.349237 28180 net.cpp:124] Setting up mnist
I0428 19:55:26.349251 28180 net.cpp:131] Top shape: 64 1 28 28 (50176)
I0428 19:55:26.349256 28180 net.cpp:131] Top shape: 64 (64)
I0428 19:55:26.349259 28180 net.cpp:139] Memory required for data: 200960
I0428 19:55:26.349265 28180 layer_factory.hpp:77] Creating layer conv0
I0428 19:55:26.349280 28180 net.cpp:86] Creating Layer conv0
I0428 19:55:26.349297 28180 net.cpp:408] conv0 <- data
I0428 19:55:26.349308 28180 net.cpp:382] conv0 -> conv0
I0428 19:55:26.583683 28180 net.cpp:124] Setting up conv0
I0428 19:55:26.583725 28180 net.cpp:131] Top shape: 64 5 24 24 (184320)
I0428 19:55:26.583745 28180 net.cpp:139] Memory required for data: 938240
I0428 19:55:26.583758 28180 layer_factory.hpp:77] Creating layer pool0
I0428 19:55:26.583772 28180 net.cpp:86] Creating Layer pool0
I0428 19:55:26.583775 28180 net.cpp:408] pool0 <- conv0
I0428 19:55:26.583781 28180 net.cpp:382] pool0 -> pool0
I0428 19:55:26.583842 28180 net.cpp:124] Setting up pool0
I0428 19:55:26.583848 28180 net.cpp:131] Top shape: 64 5 12 12 (46080)
I0428 19:55:26.583851 28180 net.cpp:139] Memory required for data: 1122560
I0428 19:55:26.583854 28180 layer_factory.hpp:77] Creating layer conv1
I0428 19:55:26.583864 28180 net.cpp:86] Creating Layer conv1
I0428 19:55:26.583868 28180 net.cpp:408] conv1 <- pool0
I0428 19:55:26.583873 28180 net.cpp:382] conv1 -> conv1
I0428 19:55:26.586809 28180 net.cpp:124] Setting up conv1
I0428 19:55:26.586838 28180 net.cpp:131] Top shape: 64 100 8 8 (409600)
I0428 19:55:26.586841 28180 net.cpp:139] Memory required for data: 2760960
I0428 19:55:26.586865 28180 layer_factory.hpp:77] Creating layer pool1
I0428 19:55:26.586874 28180 net.cpp:86] Creating Layer pool1
I0428 19:55:26.586879 28180 net.cpp:408] pool1 <- conv1
I0428 19:55:26.586884 28180 net.cpp:382] pool1 -> pool1
I0428 19:55:26.586937 28180 net.cpp:124] Setting up pool1
I0428 19:55:26.586943 28180 net.cpp:131] Top shape: 64 100 4 4 (102400)
I0428 19:55:26.586946 28180 net.cpp:139] Memory required for data: 3170560
I0428 19:55:26.586948 28180 layer_factory.hpp:77] Creating layer ip1
I0428 19:55:26.586957 28180 net.cpp:86] Creating Layer ip1
I0428 19:55:26.586959 28180 net.cpp:408] ip1 <- pool1
I0428 19:55:26.586964 28180 net.cpp:382] ip1 -> ip1
I0428 19:55:26.588419 28180 net.cpp:124] Setting up ip1
I0428 19:55:26.588448 28180 net.cpp:131] Top shape: 64 50 (3200)
I0428 19:55:26.588450 28180 net.cpp:139] Memory required for data: 3183360
I0428 19:55:26.588474 28180 layer_factory.hpp:77] Creating layer relu1
I0428 19:55:26.588481 28180 net.cpp:86] Creating Layer relu1
I0428 19:55:26.588485 28180 net.cpp:408] relu1 <- ip1
I0428 19:55:26.588490 28180 net.cpp:369] relu1 -> ip1 (in-place)
I0428 19:55:26.588665 28180 net.cpp:124] Setting up relu1
I0428 19:55:26.588673 28180 net.cpp:131] Top shape: 64 50 (3200)
I0428 19:55:26.588676 28180 net.cpp:139] Memory required for data: 3196160
I0428 19:55:26.588680 28180 layer_factory.hpp:77] Creating layer ip2
I0428 19:55:26.588686 28180 net.cpp:86] Creating Layer ip2
I0428 19:55:26.588690 28180 net.cpp:408] ip2 <- ip1
I0428 19:55:26.588695 28180 net.cpp:382] ip2 -> ip2
I0428 19:55:26.588821 28180 net.cpp:124] Setting up ip2
I0428 19:55:26.588829 28180 net.cpp:131] Top shape: 64 10 (640)
I0428 19:55:26.588847 28180 net.cpp:139] Memory required for data: 3198720
I0428 19:55:26.588853 28180 layer_factory.hpp:77] Creating layer relu2
I0428 19:55:26.588860 28180 net.cpp:86] Creating Layer relu2
I0428 19:55:26.588865 28180 net.cpp:408] relu2 <- ip2
I0428 19:55:26.588884 28180 net.cpp:369] relu2 -> ip2 (in-place)
I0428 19:55:26.589722 28180 net.cpp:124] Setting up relu2
I0428 19:55:26.589750 28180 net.cpp:131] Top shape: 64 10 (640)
I0428 19:55:26.589753 28180 net.cpp:139] Memory required for data: 3201280
I0428 19:55:26.589757 28180 layer_factory.hpp:77] Creating layer ip3
I0428 19:55:26.589764 28180 net.cpp:86] Creating Layer ip3
I0428 19:55:26.589768 28180 net.cpp:408] ip3 <- ip2
I0428 19:55:26.589774 28180 net.cpp:382] ip3 -> ip3
I0428 19:55:26.589890 28180 net.cpp:124] Setting up ip3
I0428 19:55:26.589897 28180 net.cpp:131] Top shape: 64 10 (640)
I0428 19:55:26.589900 28180 net.cpp:139] Memory required for data: 3203840
I0428 19:55:26.589907 28180 layer_factory.hpp:77] Creating layer relu3
I0428 19:55:26.589912 28180 net.cpp:86] Creating Layer relu3
I0428 19:55:26.589915 28180 net.cpp:408] relu3 <- ip3
I0428 19:55:26.589920 28180 net.cpp:369] relu3 -> ip3 (in-place)
I0428 19:55:26.590104 28180 net.cpp:124] Setting up relu3
I0428 19:55:26.590113 28180 net.cpp:131] Top shape: 64 10 (640)
I0428 19:55:26.590116 28180 net.cpp:139] Memory required for data: 3206400
I0428 19:55:26.590119 28180 layer_factory.hpp:77] Creating layer loss
I0428 19:55:26.590126 28180 net.cpp:86] Creating Layer loss
I0428 19:55:26.590128 28180 net.cpp:408] loss <- ip3
I0428 19:55:26.590132 28180 net.cpp:408] loss <- label
I0428 19:55:26.590138 28180 net.cpp:382] loss -> loss
I0428 19:55:26.590157 28180 layer_factory.hpp:77] Creating layer loss
…
I0428 19:55:26.590873 28180 solver.cpp:173] Creating test net (#0) specified by net file: ECE595/mnist/train_test/var_everything2/lenet_train_test732.prototxt
I0428 19:55:26.590916 28180 net.cpp:296] The NetState phase (1) differed from the phase (0) specified by a rule in layer mnist
I0428 19:55:26.591011 28180 net.cpp:53] Initializing net from parameters: 
name: "LeNet"
state {
  phase: TEST
}
layer {
  name: "mnist"
  type: "Data"
  top: "data"
  top: "label"
  include {
    phase: TEST
  }
  transform_param {
    scale: 0.00390625
  }
  data_param {
    source: "examples/mnist/mnist_test_lmdb"
    batch_size: 100
    backend: LMDB
  }
}
layer {
  name: "conv0"
  type: "Convolution"
  bottom: "data"
  top: "conv0"
  param {
    lr_mult: 1
  }
  param {
    lr_mult: 2
  }
  convolution_param {
    num_output: 5
    kernel_size: 5
    stride: 1
    weight_filler {
      type: "xavier"
    }
    bias_filler {
      type: "constant"
    }
  }
}
layer {
  name: "pool0"
  type: "Pooling"
  bottom: "conv0"
  top: "pool0"
  pooling_param {
    pool: MAX
    kernel_size: 2
    stride: 2
  }
}
layer {
  name: "conv1"
  type: "Convolution"
  bottom: "pool0"
  top: "conv1"
  param {
    lr_mult: 1
  }
  param {
    lr_mult: 2
  }
  convolution_param {
    num_output: 100
    kernel_size: 5
    stride: 1
    weight_filler {
      type: "xavier"
    }
    bias_filler {
      type: "constant"
    }
  }
}
layer {
  name: "pool1"
  type: "Pooling"
  bottom: "conv1"
  top: "pool1"
  pooling_param {
    pool: MAX
    kernel_size: 2
    stride: 2
  }
}
layer {
  name: "ip1"
  type: "InnerProduct"
  bottom: "pool1"
  top: "ip1"
  param {
    lr_mult: 1
  }
  param {
    lr_mult: 2
  }
  inner_product_param {
    num_output: 50
    weight_filler {
      type: "xavier"
    }
    bias_filler {
      type: "constant"
    }
  }
}
layer {
  name: "relu1"
  type: "ReLU"
  bottom: "ip1"
  top: "ip1"
}
layer {
  name: "ip2"
  type: "InnerProduct"
  bottom: "ip1"
  top: "ip2"
  param {
    lr_mult: 1
  }
  param {
    lr_mult: 2
  }
  inner_product_param {
    num_output: 10
    weight_filler {
      type: "xavier"
    }
    bias_filler {
      type: "constant"
    }
  }
}
layer {
  name: "relu2"
  type: "ReLU"
  bottom: "ip2"
  top: "ip2"
}
layer {
  name: "ip3"
  type: "InnerProduct"
  bottom: "ip2"
  top: "ip3"
  param {
    lr_mult: 1
  }
  param {
    lr_mult: 2
  }
  inner_product_param {
    num_output: 10
    weight_filler {
      type: "xavier"
    }
    bias_filler {
      type: "constant"
    }
  }
}
layer {
  name: "relu3"
  type: "ReLU"
  bottom: "ip3"
  top: "ip3"
}
layer {
  name: "accuracy"
  type: "Accuracy"
  bottom: "ip3"
  bottom: "label"
  top: "accuracy"
  include {
    phase: TEST
  }
}
layer {
  name: "loss"
  type: "SoftmaxWithLoss"
  bottom: "ip3"
  bottom: "label"
  top: "loss"
}
I0428 19:55:26.591104 28180 layer_factory.hpp:77] Creating layer mnist
I0428 19:55:26.591162 28180 db_lmdb.cpp:35] Opened lmdb examples/mnist/mnist_test_lmdb
I0428 19:55:26.591189 28180 net.cpp:86] Creating Layer mnist
I0428 19:55:26.591194 28180 net.cpp:382] mnist -> data
I0428 19:55:26.591202 28180 net.cpp:382] mnist -> label
I0428 19:55:26.591301 28180 data_layer.cpp:45] output data size: 100,1,28,28
I0428 19:55:26.592531 28180 net.cpp:124] Setting up mnist
I0428 19:55:26.592559 28180 net.cpp:131] Top shape: 100 1 28 28 (78400)
I0428 19:55:26.592564 28180 net.cpp:131] Top shape: 100 (100)
I0428 19:55:26.592567 28180 net.cpp:139] Memory required for data: 314000
I0428 19:55:26.592571 28180 layer_factory.hpp:77] Creating layer label_mnist_1_split
I0428 19:55:26.592607 28180 net.cpp:86] Creating Layer label_mnist_1_split
I0428 19:55:26.592612 28180 net.cpp:408] label_mnist_1_split <- label
I0428 19:55:26.592625 28180 net.cpp:382] label_mnist_1_split -> label_mnist_1_split_0
I0428 19:55:26.592633 28180 net.cpp:382] label_mnist_1_split -> label_mnist_1_split_1
I0428 19:55:26.592694 28180 net.cpp:124] Setting up label_mnist_1_split
I0428 19:55:26.592716 28180 net.cpp:131] Top shape: 100 (100)
I0428 19:55:26.592720 28180 net.cpp:131] Top shape: 100 (100)
I0428 19:55:26.592723 28180 net.cpp:139] Memory required for data: 314800
I0428 19:55:26.592726 28180 layer_factory.hpp:77] Creating layer conv0
I0428 19:55:26.592736 28180 net.cpp:86] Creating Layer conv0
I0428 19:55:26.592739 28180 net.cpp:408] conv0 <- data
I0428 19:55:26.592744 28180 net.cpp:382] conv0 -> conv0
I0428 19:55:26.594599 28180 net.cpp:124] Setting up conv0
I0428 19:55:26.594612 28180 net.cpp:131] Top shape: 100 5 24 24 (288000)
I0428 19:55:26.594615 28180 net.cpp:139] Memory required for data: 1466800
I0428 19:55:26.594624 28180 layer_factory.hpp:77] Creating layer pool0
I0428 19:55:26.594632 28180 net.cpp:86] Creating Layer pool0
I0428 19:55:26.594635 28180 net.cpp:408] pool0 <- conv0
I0428 19:55:26.594640 28180 net.cpp:382] pool0 -> pool0
I0428 19:55:26.594677 28180 net.cpp:124] Setting up pool0
I0428 19:55:26.594682 28180 net.cpp:131] Top shape: 100 5 12 12 (72000)
I0428 19:55:26.594686 28180 net.cpp:139] Memory required for data: 1754800
I0428 19:55:26.594687 28180 layer_factory.hpp:77] Creating layer conv1
I0428 19:55:26.594712 28180 net.cpp:86] Creating Layer conv1
I0428 19:55:26.594715 28180 net.cpp:408] conv1 <- pool0
I0428 19:55:26.594722 28180 net.cpp:382] conv1 -> conv1
I0428 19:55:26.596472 28180 net.cpp:124] Setting up conv1
I0428 19:55:26.596485 28180 net.cpp:131] Top shape: 100 100 8 8 (640000)
I0428 19:55:26.596489 28180 net.cpp:139] Memory required for data: 4314800
I0428 19:55:26.596498 28180 layer_factory.hpp:77] Creating layer pool1
I0428 19:55:26.596505 28180 net.cpp:86] Creating Layer pool1
I0428 19:55:26.596509 28180 net.cpp:408] pool1 <- conv1
I0428 19:55:26.596514 28180 net.cpp:382] pool1 -> pool1
I0428 19:55:26.596550 28180 net.cpp:124] Setting up pool1
I0428 19:55:26.596555 28180 net.cpp:131] Top shape: 100 100 4 4 (160000)
I0428 19:55:26.596559 28180 net.cpp:139] Memory required for data: 4954800
I0428 19:55:26.596561 28180 layer_factory.hpp:77] Creating layer ip1
I0428 19:55:26.596575 28180 net.cpp:86] Creating Layer ip1
I0428 19:55:26.596577 28180 net.cpp:408] ip1 <- pool1
I0428 19:55:26.596581 28180 net.cpp:382] ip1 -> ip1
I0428 19:55:26.597271 28180 net.cpp:124] Setting up ip1
I0428 19:55:26.597280 28180 net.cpp:131] Top shape: 100 50 (5000)
I0428 19:55:26.597299 28180 net.cpp:139] Memory required for data: 4974800
I0428 19:55:26.597314 28180 layer_factory.hpp:77] Creating layer relu1
I0428 19:55:26.597321 28180 net.cpp:86] Creating Layer relu1
I0428 19:55:26.597326 28180 net.cpp:408] relu1 <- ip1
I0428 19:55:26.597329 28180 net.cpp:369] relu1 -> ip1 (in-place)
I0428 19:55:26.597558 28180 net.cpp:124] Setting up relu1
I0428 19:55:26.597568 28180 net.cpp:131] Top shape: 100 50 (5000)
I0428 19:55:26.597571 28180 net.cpp:139] Memory required for data: 4994800
I0428 19:55:26.597574 28180 layer_factory.hpp:77] Creating layer ip2
I0428 19:55:26.597582 28180 net.cpp:86] Creating Layer ip2
I0428 19:55:26.597585 28180 net.cpp:408] ip2 <- ip1
I0428 19:55:26.597591 28180 net.cpp:382] ip2 -> ip2
I0428 19:55:26.597719 28180 net.cpp:124] Setting up ip2
I0428 19:55:26.597728 28180 net.cpp:131] Top shape: 100 10 (1000)
I0428 19:55:26.597731 28180 net.cpp:139] Memory required for data: 4998800
I0428 19:55:26.597736 28180 layer_factory.hpp:77] Creating layer relu2
I0428 19:55:26.597741 28180 net.cpp:86] Creating Layer relu2
I0428 19:55:26.597744 28180 net.cpp:408] relu2 <- ip2
I0428 19:55:26.597748 28180 net.cpp:369] relu2 -> ip2 (in-place)
I0428 19:55:26.597913 28180 net.cpp:124] Setting up relu2
I0428 19:55:26.597923 28180 net.cpp:131] Top shape: 100 10 (1000)
I0428 19:55:26.597925 28180 net.cpp:139] Memory required for data: 5002800
I0428 19:55:26.597929 28180 layer_factory.hpp:77] Creating layer ip3
I0428 19:55:26.597934 28180 net.cpp:86] Creating Layer ip3
I0428 19:55:26.597942 28180 net.cpp:408] ip3 <- ip2
I0428 19:55:26.597950 28180 net.cpp:382] ip3 -> ip3
I0428 19:55:26.598062 28180 net.cpp:124] Setting up ip3
I0428 19:55:26.598069 28180 net.cpp:131] Top shape: 100 10 (1000)
I0428 19:55:26.598073 28180 net.cpp:139] Memory required for data: 5006800
I0428 19:55:26.598081 28180 layer_factory.hpp:77] Creating layer relu3
I0428 19:55:26.598085 28180 net.cpp:86] Creating Layer relu3
I0428 19:55:26.598095 28180 net.cpp:408] relu3 <- ip3
I0428 19:55:26.598100 28180 net.cpp:369] relu3 -> ip3 (in-place)
I0428 19:55:26.598912 28180 net.cpp:124] Setting up relu3
I0428 19:55:26.598923 28180 net.cpp:131] Top shape: 100 10 (1000)
I0428 19:55:26.598927 28180 net.cpp:139] Memory required for data: 5010800
I0428 19:55:26.598929 28180 layer_factory.hpp:77] Creating layer ip3_relu3_0_split
I0428 19:55:26.598934 28180 net.cpp:86] Creating Layer ip3_relu3_0_split
I0428 19:55:26.598937 28180 net.cpp:408] ip3_relu3_0_split <- ip3
I0428 19:55:26.598944 28180 net.cpp:382] ip3_relu3_0_split -> ip3_relu3_0_split_0
I0428 19:55:26.598949 28180 net.cpp:382] ip3_relu3_0_split -> ip3_relu3_0_split_1
I0428 19:55:26.598989 28180 net.cpp:124] Setting up ip3_relu3_0_split
I0428 19:55:26.598994 28180 net.cpp:131] Top shape: 100 10 (1000)
I0428 19:55:26.599004 28180 net.cpp:131] Top shape: 100 10 (1000)
I0428 19:55:26.599007 28180 net.cpp:139] Memory required for data: 5018800
I0428 19:55:26.599015 28180 layer_factory.hpp:77] Creating layer accuracy
I0428 19:55:26.599022 28180 net.cpp:86] Creating Layer accuracy
I0428 19:55:26.599025 28180 net.cpp:408] accuracy <- ip3_relu3_0_split_0
I0428 19:55:26.599028 28180 net.cpp:408] accuracy <- label_mnist_1_split_0
I0428 19:55:26.599032 28180 net.cpp:382] accuracy -> accuracy
…
