…
I0428 20:07:36.440282 31142 net.cpp:296] The NetState phase (0) differed from the phase (1) specified by a rule in layer mnist
I0428 20:07:36.440312 31142 net.cpp:296] The NetState phase (0) differed from the phase (1) specified by a rule in layer accuracy
I0428 20:07:36.440389 31142 net.cpp:53] Initializing net from parameters: 
name: "LeNet"
state {
  phase: TRAIN
  level: 0
  stage: ""
}
layer {
  name: "mnist"
  type: "Data"
  top: "data"
  top: "label"
  include {
    phase: TRAIN
  }
  transform_param {
    scale: 0.00390625
  }
  data_param {
    source: "examples/mnist/mnist_train_lmdb"
    batch_size: 64
    backend: LMDB
  }
}
layer {
  name: "conv0"
  type: "Convolution"
  bottom: "data"
  top: "conv0"
  param {
    lr_mult: 1
  }
  param {
    lr_mult: 2
  }
  convolution_param {
    num_output: 25
    kernel_size: 5
    stride: 1
    weight_filler {
      type: "xavier"
    }
    bias_filler {
      type: "constant"
    }
  }
}
layer {
  name: "pool0"
  type: "Pooling"
  bottom: "conv0"
  top: "pool0"
  pooling_param {
    pool: MAX
    kernel_size: 2
    stride: 2
  }
}
layer {
  name: "conv1"
  type: "Convolution"
  bottom: "pool0"
  top: "conv1"
  param {
    lr_mult: 1
  }
  param {
    lr_mult: 2
  }
  convolution_param {
    num_output: 10
    kernel_size: 5
    stride: 1
    weight_filler {
      type: "xavier"
    }
    bias_filler {
      type: "constant"
    }
  }
}
layer {
  name: "pool1"
  type: "Pooling"
  bottom: "conv1"
  top: "pool1"
  pooling_param {
    pool: MAX
    kernel_size: 2
    stride: 2
  }
}
layer {
  name: "ip1"
  type: "InnerProduct"
  bottom: "pool1"
  top: "ip1"
  param {
    lr_mult: 1
  }
  param {
    lr_mult: 2
  }
  inner_product_param {
    num_output: 25
    weight_filler {
      type: "xavier"
    }
    bias_filler {
      type: "constant"
    }
  }
}
layer {
  name: "relu1"
  type: "ReLU"
  bottom: "ip1"
  top: "ip1"
}
layer {
  name: "ip2"
  type: "InnerProduct"
  bottom: "ip1"
  top: "ip2"
  param {
    lr_mult: 1
  }
  param {
    lr_mult: 2
  }
  inner_product_param {
    num_output: 10
    weight_filler {
      type: "xavier"
    }
    bias_filler {
      type: "constant"
    }
  }
}
layer {
  name: "relu2"
  type: "ReLU"
  bottom: "ip2"
  top: "ip2"
}
layer {
  name: "loss"
  type: "SoftmaxWithLoss"
  bottom: "ip2"
  bottom: "label"
  top: "loss"
}
I0428 20:07:36.440454 31142 layer_factory.hpp:77] Creating layer mnist
I0428 20:07:36.440551 31142 db_lmdb.cpp:35] Opened lmdb examples/mnist/mnist_train_lmdb
I0428 20:07:36.440572 31142 net.cpp:86] Creating Layer mnist
I0428 20:07:36.440578 31142 net.cpp:382] mnist -> data
I0428 20:07:36.440596 31142 net.cpp:382] mnist -> label
I0428 20:07:36.441632 31142 data_layer.cpp:45] output data size: 64,1,28,28
I0428 20:07:36.443851 31142 net.cpp:124] Setting up mnist
I0428 20:07:36.443866 31142 net.cpp:131] Top shape: 64 1 28 28 (50176)
I0428 20:07:36.443869 31142 net.cpp:131] Top shape: 64 (64)
I0428 20:07:36.443872 31142 net.cpp:139] Memory required for data: 200960
I0428 20:07:36.443878 31142 layer_factory.hpp:77] Creating layer conv0
I0428 20:07:36.443892 31142 net.cpp:86] Creating Layer conv0
I0428 20:07:36.443928 31142 net.cpp:408] conv0 <- data
I0428 20:07:36.443938 31142 net.cpp:382] conv0 -> conv0
I0428 20:07:36.677918 31142 net.cpp:124] Setting up conv0
I0428 20:07:36.677959 31142 net.cpp:131] Top shape: 64 25 24 24 (921600)
I0428 20:07:36.677963 31142 net.cpp:139] Memory required for data: 3887360
I0428 20:07:36.677996 31142 layer_factory.hpp:77] Creating layer pool0
I0428 20:07:36.678009 31142 net.cpp:86] Creating Layer pool0
I0428 20:07:36.678014 31142 net.cpp:408] pool0 <- conv0
I0428 20:07:36.678019 31142 net.cpp:382] pool0 -> pool0
I0428 20:07:36.678062 31142 net.cpp:124] Setting up pool0
I0428 20:07:36.678067 31142 net.cpp:131] Top shape: 64 25 12 12 (230400)
I0428 20:07:36.678071 31142 net.cpp:139] Memory required for data: 4808960
I0428 20:07:36.678073 31142 layer_factory.hpp:77] Creating layer conv1
I0428 20:07:36.678083 31142 net.cpp:86] Creating Layer conv1
I0428 20:07:36.678086 31142 net.cpp:408] conv1 <- pool0
I0428 20:07:36.678092 31142 net.cpp:382] conv1 -> conv1
I0428 20:07:36.681027 31142 net.cpp:124] Setting up conv1
I0428 20:07:36.681058 31142 net.cpp:131] Top shape: 64 10 8 8 (40960)
I0428 20:07:36.681062 31142 net.cpp:139] Memory required for data: 4972800
I0428 20:07:36.681072 31142 layer_factory.hpp:77] Creating layer pool1
I0428 20:07:36.681080 31142 net.cpp:86] Creating Layer pool1
I0428 20:07:36.681084 31142 net.cpp:408] pool1 <- conv1
I0428 20:07:36.681089 31142 net.cpp:382] pool1 -> pool1
I0428 20:07:36.681164 31142 net.cpp:124] Setting up pool1
I0428 20:07:36.681172 31142 net.cpp:131] Top shape: 64 10 4 4 (10240)
I0428 20:07:36.681176 31142 net.cpp:139] Memory required for data: 5013760
I0428 20:07:36.681180 31142 layer_factory.hpp:77] Creating layer ip1
I0428 20:07:36.681186 31142 net.cpp:86] Creating Layer ip1
I0428 20:07:36.681190 31142 net.cpp:408] ip1 <- pool1
I0428 20:07:36.681195 31142 net.cpp:382] ip1 -> ip1
I0428 20:07:36.682245 31142 net.cpp:124] Setting up ip1
I0428 20:07:36.682258 31142 net.cpp:131] Top shape: 64 25 (1600)
I0428 20:07:36.682277 31142 net.cpp:139] Memory required for data: 5020160
I0428 20:07:36.682286 31142 layer_factory.hpp:77] Creating layer relu1
I0428 20:07:36.682294 31142 net.cpp:86] Creating Layer relu1
I0428 20:07:36.682298 31142 net.cpp:408] relu1 <- ip1
I0428 20:07:36.682303 31142 net.cpp:369] relu1 -> ip1 (in-place)
I0428 20:07:36.682526 31142 net.cpp:124] Setting up relu1
I0428 20:07:36.682534 31142 net.cpp:131] Top shape: 64 25 (1600)
I0428 20:07:36.682538 31142 net.cpp:139] Memory required for data: 5026560
I0428 20:07:36.682541 31142 layer_factory.hpp:77] Creating layer ip2
I0428 20:07:36.682548 31142 net.cpp:86] Creating Layer ip2
I0428 20:07:36.682552 31142 net.cpp:408] ip2 <- ip1
I0428 20:07:36.682557 31142 net.cpp:382] ip2 -> ip2
I0428 20:07:36.682651 31142 net.cpp:124] Setting up ip2
I0428 20:07:36.682657 31142 net.cpp:131] Top shape: 64 10 (640)
I0428 20:07:36.682660 31142 net.cpp:139] Memory required for data: 5029120
I0428 20:07:36.682665 31142 layer_factory.hpp:77] Creating layer relu2
I0428 20:07:36.682672 31142 net.cpp:86] Creating Layer relu2
I0428 20:07:36.682674 31142 net.cpp:408] relu2 <- ip2
I0428 20:07:36.682678 31142 net.cpp:369] relu2 -> ip2 (in-place)
I0428 20:07:36.683501 31142 net.cpp:124] Setting up relu2
I0428 20:07:36.683513 31142 net.cpp:131] Top shape: 64 10 (640)
I0428 20:07:36.683532 31142 net.cpp:139] Memory required for data: 5031680
I0428 20:07:36.683535 31142 layer_factory.hpp:77] Creating layer loss
I0428 20:07:36.683558 31142 net.cpp:86] Creating Layer loss
I0428 20:07:36.683562 31142 net.cpp:408] loss <- ip2
I0428 20:07:36.683565 31142 net.cpp:408] loss <- label
I0428 20:07:36.683573 31142 net.cpp:382] loss -> loss
I0428 20:07:36.683588 31142 layer_factory.hpp:77] Creating layer loss
…
I0428 20:07:36.684283 31142 solver.cpp:173] Creating test net (#0) specified by net file: ECE595/mnist/train_test/var_everything2/lenet_train_test1060.prototxt
I0428 20:07:36.684340 31142 net.cpp:296] The NetState phase (1) differed from the phase (0) specified by a rule in layer mnist
I0428 20:07:36.684448 31142 net.cpp:53] Initializing net from parameters: 
name: "LeNet"
state {
  phase: TEST
}
layer {
  name: "mnist"
  type: "Data"
  top: "data"
  top: "label"
  include {
    phase: TEST
  }
  transform_param {
    scale: 0.00390625
  }
  data_param {
    source: "examples/mnist/mnist_test_lmdb"
    batch_size: 100
    backend: LMDB
  }
}
layer {
  name: "conv0"
  type: "Convolution"
  bottom: "data"
  top: "conv0"
  param {
    lr_mult: 1
  }
  param {
    lr_mult: 2
  }
  convolution_param {
    num_output: 25
    kernel_size: 5
    stride: 1
    weight_filler {
      type: "xavier"
    }
    bias_filler {
      type: "constant"
    }
  }
}
layer {
  name: "pool0"
  type: "Pooling"
  bottom: "conv0"
  top: "pool0"
  pooling_param {
    pool: MAX
    kernel_size: 2
    stride: 2
  }
}
layer {
  name: "conv1"
  type: "Convolution"
  bottom: "pool0"
  top: "conv1"
  param {
    lr_mult: 1
  }
  param {
    lr_mult: 2
  }
  convolution_param {
    num_output: 10
    kernel_size: 5
    stride: 1
    weight_filler {
      type: "xavier"
    }
    bias_filler {
      type: "constant"
    }
  }
}
layer {
  name: "pool1"
  type: "Pooling"
  bottom: "conv1"
  top: "pool1"
  pooling_param {
    pool: MAX
    kernel_size: 2
    stride: 2
  }
}
layer {
  name: "ip1"
  type: "InnerProduct"
  bottom: "pool1"
  top: "ip1"
  param {
    lr_mult: 1
  }
  param {
    lr_mult: 2
  }
  inner_product_param {
    num_output: 25
    weight_filler {
      type: "xavier"
    }
    bias_filler {
      type: "constant"
    }
  }
}
layer {
  name: "relu1"
  type: "ReLU"
  bottom: "ip1"
  top: "ip1"
}
layer {
  name: "ip2"
  type: "InnerProduct"
  bottom: "ip1"
  top: "ip2"
  param {
    lr_mult: 1
  }
  param {
    lr_mult: 2
  }
  inner_product_param {
    num_output: 10
    weight_filler {
      type: "xavier"
    }
    bias_filler {
      type: "constant"
    }
  }
}
layer {
  name: "relu2"
  type: "ReLU"
  bottom: "ip2"
  top: "ip2"
}
layer {
  name: "accuracy"
  type: "Accuracy"
  bottom: "ip2"
  bottom: "label"
  top: "accuracy"
  include {
    phase: TEST
  }
}
layer {
  name: "loss"
  type: "SoftmaxWithLoss"
  bottom: "ip2"
  bottom: "label"
  top: "loss"
}
I0428 20:07:36.684517 31142 layer_factory.hpp:77] Creating layer mnist
I0428 20:07:36.684562 31142 db_lmdb.cpp:35] Opened lmdb examples/mnist/mnist_test_lmdb
I0428 20:07:36.684576 31142 net.cpp:86] Creating Layer mnist
I0428 20:07:36.684581 31142 net.cpp:382] mnist -> data
I0428 20:07:36.684588 31142 net.cpp:382] mnist -> label
I0428 20:07:36.684706 31142 data_layer.cpp:45] output data size: 100,1,28,28
I0428 20:07:36.686841 31142 net.cpp:124] Setting up mnist
I0428 20:07:36.686872 31142 net.cpp:131] Top shape: 100 1 28 28 (78400)
I0428 20:07:36.686877 31142 net.cpp:131] Top shape: 100 (100)
I0428 20:07:36.686880 31142 net.cpp:139] Memory required for data: 314000
I0428 20:07:36.686884 31142 layer_factory.hpp:77] Creating layer label_mnist_1_split
I0428 20:07:36.686890 31142 net.cpp:86] Creating Layer label_mnist_1_split
I0428 20:07:36.686894 31142 net.cpp:408] label_mnist_1_split <- label
I0428 20:07:36.686898 31142 net.cpp:382] label_mnist_1_split -> label_mnist_1_split_0
I0428 20:07:36.686904 31142 net.cpp:382] label_mnist_1_split -> label_mnist_1_split_1
I0428 20:07:36.686996 31142 net.cpp:124] Setting up label_mnist_1_split
I0428 20:07:36.687003 31142 net.cpp:131] Top shape: 100 (100)
I0428 20:07:36.687007 31142 net.cpp:131] Top shape: 100 (100)
I0428 20:07:36.687026 31142 net.cpp:139] Memory required for data: 314800
I0428 20:07:36.687029 31142 layer_factory.hpp:77] Creating layer conv0
I0428 20:07:36.687046 31142 net.cpp:86] Creating Layer conv0
I0428 20:07:36.687049 31142 net.cpp:408] conv0 <- data
I0428 20:07:36.687055 31142 net.cpp:382] conv0 -> conv0
I0428 20:07:36.688926 31142 net.cpp:124] Setting up conv0
I0428 20:07:36.688941 31142 net.cpp:131] Top shape: 100 25 24 24 (1440000)
I0428 20:07:36.688946 31142 net.cpp:139] Memory required for data: 6074800
I0428 20:07:36.688954 31142 layer_factory.hpp:77] Creating layer pool0
I0428 20:07:36.688961 31142 net.cpp:86] Creating Layer pool0
I0428 20:07:36.688964 31142 net.cpp:408] pool0 <- conv0
I0428 20:07:36.688969 31142 net.cpp:382] pool0 -> pool0
I0428 20:07:36.689018 31142 net.cpp:124] Setting up pool0
I0428 20:07:36.689023 31142 net.cpp:131] Top shape: 100 25 12 12 (360000)
I0428 20:07:36.689026 31142 net.cpp:139] Memory required for data: 7514800
I0428 20:07:36.689029 31142 layer_factory.hpp:77] Creating layer conv1
I0428 20:07:36.689038 31142 net.cpp:86] Creating Layer conv1
I0428 20:07:36.689041 31142 net.cpp:408] conv1 <- pool0
I0428 20:07:36.689045 31142 net.cpp:382] conv1 -> conv1
I0428 20:07:36.691303 31142 net.cpp:124] Setting up conv1
I0428 20:07:36.691318 31142 net.cpp:131] Top shape: 100 10 8 8 (64000)
I0428 20:07:36.691323 31142 net.cpp:139] Memory required for data: 7770800
I0428 20:07:36.691330 31142 layer_factory.hpp:77] Creating layer pool1
I0428 20:07:36.691360 31142 net.cpp:86] Creating Layer pool1
I0428 20:07:36.691365 31142 net.cpp:408] pool1 <- conv1
I0428 20:07:36.691370 31142 net.cpp:382] pool1 -> pool1
I0428 20:07:36.691406 31142 net.cpp:124] Setting up pool1
I0428 20:07:36.691417 31142 net.cpp:131] Top shape: 100 10 4 4 (16000)
I0428 20:07:36.691421 31142 net.cpp:139] Memory required for data: 7834800
I0428 20:07:36.691424 31142 layer_factory.hpp:77] Creating layer ip1
I0428 20:07:36.691435 31142 net.cpp:86] Creating Layer ip1
I0428 20:07:36.691438 31142 net.cpp:408] ip1 <- pool1
I0428 20:07:36.691443 31142 net.cpp:382] ip1 -> ip1
I0428 20:07:36.691565 31142 net.cpp:124] Setting up ip1
I0428 20:07:36.691573 31142 net.cpp:131] Top shape: 100 25 (2500)
I0428 20:07:36.691582 31142 net.cpp:139] Memory required for data: 7844800
I0428 20:07:36.691589 31142 layer_factory.hpp:77] Creating layer relu1
I0428 20:07:36.691594 31142 net.cpp:86] Creating Layer relu1
I0428 20:07:36.691598 31142 net.cpp:408] relu1 <- ip1
I0428 20:07:36.691602 31142 net.cpp:369] relu1 -> ip1 (in-place)
I0428 20:07:36.691828 31142 net.cpp:124] Setting up relu1
I0428 20:07:36.691838 31142 net.cpp:131] Top shape: 100 25 (2500)
I0428 20:07:36.691840 31142 net.cpp:139] Memory required for data: 7854800
I0428 20:07:36.691843 31142 layer_factory.hpp:77] Creating layer ip2
I0428 20:07:36.691850 31142 net.cpp:86] Creating Layer ip2
I0428 20:07:36.691854 31142 net.cpp:408] ip2 <- ip1
I0428 20:07:36.691859 31142 net.cpp:382] ip2 -> ip2
I0428 20:07:36.691979 31142 net.cpp:124] Setting up ip2
I0428 20:07:36.691987 31142 net.cpp:131] Top shape: 100 10 (1000)
I0428 20:07:36.691989 31142 net.cpp:139] Memory required for data: 7858800
I0428 20:07:36.691995 31142 layer_factory.hpp:77] Creating layer relu2
I0428 20:07:36.691999 31142 net.cpp:86] Creating Layer relu2
I0428 20:07:36.692003 31142 net.cpp:408] relu2 <- ip2
I0428 20:07:36.692008 31142 net.cpp:369] relu2 -> ip2 (in-place)
I0428 20:07:36.692173 31142 net.cpp:124] Setting up relu2
I0428 20:07:36.692180 31142 net.cpp:131] Top shape: 100 10 (1000)
I0428 20:07:36.692184 31142 net.cpp:139] Memory required for data: 7862800
I0428 20:07:36.692186 31142 layer_factory.hpp:77] Creating layer ip2_relu2_0_split
I0428 20:07:36.692191 31142 net.cpp:86] Creating Layer ip2_relu2_0_split
I0428 20:07:36.692195 31142 net.cpp:408] ip2_relu2_0_split <- ip2
I0428 20:07:36.692199 31142 net.cpp:382] ip2_relu2_0_split -> ip2_relu2_0_split_0
I0428 20:07:36.692215 31142 net.cpp:382] ip2_relu2_0_split -> ip2_relu2_0_split_1
I0428 20:07:36.692279 31142 net.cpp:124] Setting up ip2_relu2_0_split
I0428 20:07:36.692284 31142 net.cpp:131] Top shape: 100 10 (1000)
I0428 20:07:36.692303 31142 net.cpp:131] Top shape: 100 10 (1000)
I0428 20:07:36.692306 31142 net.cpp:139] Memory required for data: 7870800
I0428 20:07:36.692322 31142 layer_factory.hpp:77] Creating layer accuracy
I0428 20:07:36.692327 31142 net.cpp:86] Creating Layer accuracy
I0428 20:07:36.692328 31142 net.cpp:408] accuracy <- ip2_relu2_0_split_0
I0428 20:07:36.692332 31142 net.cpp:408] accuracy <- label_mnist_1_split_0
I0428 20:07:36.692337 31142 net.cpp:382] accuracy -> accuracy
…
