…
I0428 19:57:17.650171 28640 net.cpp:296] The NetState phase (0) differed from the phase (1) specified by a rule in layer mnist
I0428 19:57:17.650197 28640 net.cpp:296] The NetState phase (0) differed from the phase (1) specified by a rule in layer accuracy
I0428 19:57:17.650286 28640 net.cpp:53] Initializing net from parameters: 
name: "LeNet"
state {
  phase: TRAIN
  level: 0
  stage: ""
}
layer {
  name: "mnist"
  type: "Data"
  top: "data"
  top: "label"
  include {
    phase: TRAIN
  }
  transform_param {
    scale: 0.00390625
  }
  data_param {
    source: "examples/mnist/mnist_train_lmdb"
    batch_size: 64
    backend: LMDB
  }
}
layer {
  name: "conv0"
  type: "Convolution"
  bottom: "data"
  top: "conv0"
  param {
    lr_mult: 1
  }
  param {
    lr_mult: 2
  }
  convolution_param {
    num_output: 10
    kernel_size: 5
    stride: 1
    weight_filler {
      type: "xavier"
    }
    bias_filler {
      type: "constant"
    }
  }
}
layer {
  name: "pool0"
  type: "Pooling"
  bottom: "conv0"
  top: "pool0"
  pooling_param {
    pool: MAX
    kernel_size: 2
    stride: 2
  }
}
layer {
  name: "conv1"
  type: "Convolution"
  bottom: "pool0"
  top: "conv1"
  param {
    lr_mult: 1
  }
  param {
    lr_mult: 2
  }
  convolution_param {
    num_output: 5
    kernel_size: 5
    stride: 1
    weight_filler {
      type: "xavier"
    }
    bias_filler {
      type: "constant"
    }
  }
}
layer {
  name: "pool1"
  type: "Pooling"
  bottom: "conv1"
  top: "pool1"
  pooling_param {
    pool: MAX
    kernel_size: 2
    stride: 2
  }
}
layer {
  name: "ip1"
  type: "InnerProduct"
  bottom: "pool1"
  top: "ip1"
  param {
    lr_mult: 1
  }
  param {
    lr_mult: 2
  }
  inner_product_param {
    num_output: 10
    weight_filler {
      type: "xavier"
    }
    bias_filler {
      type: "constant"
    }
  }
}
layer {
  name: "relu1"
  type: "ReLU"
  bottom: "ip1"
  top: "ip1"
}
layer {
  name: "ip2"
  type: "InnerProduct"
  bottom: "ip1"
  top: "ip2"
  param {
    lr_mult: 1
  }
  param {
    lr_mult: 2
  }
  inner_product_param {
    num_output: 10
    weight_filler {
      type: "xavier"
    }
    bias_filler {
      type: "constant"
    }
  }
}
layer {
  name: "relu2"
  type: "ReLU"
  bottom: "ip2"
  top: "ip2"
}
layer {
  name: "loss"
  type: "SoftmaxWithLoss"
  bottom: "ip2"
  bottom: "label"
  top: "loss"
}
I0428 19:57:17.650347 28640 layer_factory.hpp:77] Creating layer mnist
I0428 19:57:17.650444 28640 db_lmdb.cpp:35] Opened lmdb examples/mnist/mnist_train_lmdb
I0428 19:57:17.650463 28640 net.cpp:86] Creating Layer mnist
I0428 19:57:17.650470 28640 net.cpp:382] mnist -> data
I0428 19:57:17.650487 28640 net.cpp:382] mnist -> label
I0428 19:57:17.651496 28640 data_layer.cpp:45] output data size: 64,1,28,28
I0428 19:57:17.653784 28640 net.cpp:124] Setting up mnist
I0428 19:57:17.653817 28640 net.cpp:131] Top shape: 64 1 28 28 (50176)
I0428 19:57:17.653822 28640 net.cpp:131] Top shape: 64 (64)
I0428 19:57:17.653825 28640 net.cpp:139] Memory required for data: 200960
I0428 19:57:17.653831 28640 layer_factory.hpp:77] Creating layer conv0
I0428 19:57:17.653844 28640 net.cpp:86] Creating Layer conv0
I0428 19:57:17.653849 28640 net.cpp:408] conv0 <- data
I0428 19:57:17.653859 28640 net.cpp:382] conv0 -> conv0
I0428 19:57:17.879899 28640 net.cpp:124] Setting up conv0
I0428 19:57:17.879926 28640 net.cpp:131] Top shape: 64 10 24 24 (368640)
I0428 19:57:17.879930 28640 net.cpp:139] Memory required for data: 1675520
I0428 19:57:17.879978 28640 layer_factory.hpp:77] Creating layer pool0
I0428 19:57:17.880007 28640 net.cpp:86] Creating Layer pool0
I0428 19:57:17.880010 28640 net.cpp:408] pool0 <- conv0
I0428 19:57:17.880017 28640 net.cpp:382] pool0 -> pool0
I0428 19:57:17.880064 28640 net.cpp:124] Setting up pool0
I0428 19:57:17.880070 28640 net.cpp:131] Top shape: 64 10 12 12 (92160)
I0428 19:57:17.880074 28640 net.cpp:139] Memory required for data: 2044160
I0428 19:57:17.880076 28640 layer_factory.hpp:77] Creating layer conv1
I0428 19:57:17.880087 28640 net.cpp:86] Creating Layer conv1
I0428 19:57:17.880091 28640 net.cpp:408] conv1 <- pool0
I0428 19:57:17.880096 28640 net.cpp:382] conv1 -> conv1
I0428 19:57:17.882966 28640 net.cpp:124] Setting up conv1
I0428 19:57:17.882994 28640 net.cpp:131] Top shape: 64 5 8 8 (20480)
I0428 19:57:17.882997 28640 net.cpp:139] Memory required for data: 2126080
I0428 19:57:17.883007 28640 layer_factory.hpp:77] Creating layer pool1
I0428 19:57:17.883029 28640 net.cpp:86] Creating Layer pool1
I0428 19:57:17.883033 28640 net.cpp:408] pool1 <- conv1
I0428 19:57:17.883038 28640 net.cpp:382] pool1 -> pool1
I0428 19:57:17.883075 28640 net.cpp:124] Setting up pool1
I0428 19:57:17.883082 28640 net.cpp:131] Top shape: 64 5 4 4 (5120)
I0428 19:57:17.883085 28640 net.cpp:139] Memory required for data: 2146560
I0428 19:57:17.883088 28640 layer_factory.hpp:77] Creating layer ip1
I0428 19:57:17.883095 28640 net.cpp:86] Creating Layer ip1
I0428 19:57:17.883100 28640 net.cpp:408] ip1 <- pool1
I0428 19:57:17.883103 28640 net.cpp:382] ip1 -> ip1
I0428 19:57:17.883201 28640 net.cpp:124] Setting up ip1
I0428 19:57:17.883208 28640 net.cpp:131] Top shape: 64 10 (640)
I0428 19:57:17.883211 28640 net.cpp:139] Memory required for data: 2149120
I0428 19:57:17.883219 28640 layer_factory.hpp:77] Creating layer relu1
I0428 19:57:17.883224 28640 net.cpp:86] Creating Layer relu1
I0428 19:57:17.883227 28640 net.cpp:408] relu1 <- ip1
I0428 19:57:17.883231 28640 net.cpp:369] relu1 -> ip1 (in-place)
I0428 19:57:17.883411 28640 net.cpp:124] Setting up relu1
I0428 19:57:17.883421 28640 net.cpp:131] Top shape: 64 10 (640)
I0428 19:57:17.883424 28640 net.cpp:139] Memory required for data: 2151680
I0428 19:57:17.883429 28640 layer_factory.hpp:77] Creating layer ip2
I0428 19:57:17.883435 28640 net.cpp:86] Creating Layer ip2
I0428 19:57:17.883437 28640 net.cpp:408] ip2 <- ip1
I0428 19:57:17.883442 28640 net.cpp:382] ip2 -> ip2
I0428 19:57:17.883538 28640 net.cpp:124] Setting up ip2
I0428 19:57:17.883544 28640 net.cpp:131] Top shape: 64 10 (640)
I0428 19:57:17.883548 28640 net.cpp:139] Memory required for data: 2154240
I0428 19:57:17.883553 28640 layer_factory.hpp:77] Creating layer relu2
I0428 19:57:17.883559 28640 net.cpp:86] Creating Layer relu2
I0428 19:57:17.883563 28640 net.cpp:408] relu2 <- ip2
I0428 19:57:17.883566 28640 net.cpp:369] relu2 -> ip2 (in-place)
I0428 19:57:17.884402 28640 net.cpp:124] Setting up relu2
I0428 19:57:17.884428 28640 net.cpp:131] Top shape: 64 10 (640)
I0428 19:57:17.884443 28640 net.cpp:139] Memory required for data: 2156800
I0428 19:57:17.884446 28640 layer_factory.hpp:77] Creating layer loss
I0428 19:57:17.884452 28640 net.cpp:86] Creating Layer loss
I0428 19:57:17.884456 28640 net.cpp:408] loss <- ip2
I0428 19:57:17.884460 28640 net.cpp:408] loss <- label
I0428 19:57:17.884465 28640 net.cpp:382] loss -> loss
I0428 19:57:17.884485 28640 layer_factory.hpp:77] Creating layer loss
…
I0428 19:57:17.885185 28640 solver.cpp:173] Creating test net (#0) specified by net file: ECE595/mnist/train_test/var_everything2/lenet_train_test784.prototxt
I0428 19:57:17.885226 28640 net.cpp:296] The NetState phase (1) differed from the phase (0) specified by a rule in layer mnist
I0428 19:57:17.885309 28640 net.cpp:53] Initializing net from parameters: 
name: "LeNet"
state {
  phase: TEST
}
layer {
  name: "mnist"
  type: "Data"
  top: "data"
  top: "label"
  include {
    phase: TEST
  }
  transform_param {
    scale: 0.00390625
  }
  data_param {
    source: "examples/mnist/mnist_test_lmdb"
    batch_size: 100
    backend: LMDB
  }
}
layer {
  name: "conv0"
  type: "Convolution"
  bottom: "data"
  top: "conv0"
  param {
    lr_mult: 1
  }
  param {
    lr_mult: 2
  }
  convolution_param {
    num_output: 10
    kernel_size: 5
    stride: 1
    weight_filler {
      type: "xavier"
    }
    bias_filler {
      type: "constant"
    }
  }
}
layer {
  name: "pool0"
  type: "Pooling"
  bottom: "conv0"
  top: "pool0"
  pooling_param {
    pool: MAX
    kernel_size: 2
    stride: 2
  }
}
layer {
  name: "conv1"
  type: "Convolution"
  bottom: "pool0"
  top: "conv1"
  param {
    lr_mult: 1
  }
  param {
    lr_mult: 2
  }
  convolution_param {
    num_output: 5
    kernel_size: 5
    stride: 1
    weight_filler {
      type: "xavier"
    }
    bias_filler {
      type: "constant"
    }
  }
}
layer {
  name: "pool1"
  type: "Pooling"
  bottom: "conv1"
  top: "pool1"
  pooling_param {
    pool: MAX
    kernel_size: 2
    stride: 2
  }
}
layer {
  name: "ip1"
  type: "InnerProduct"
  bottom: "pool1"
  top: "ip1"
  param {
    lr_mult: 1
  }
  param {
    lr_mult: 2
  }
  inner_product_param {
    num_output: 10
    weight_filler {
      type: "xavier"
    }
    bias_filler {
      type: "constant"
    }
  }
}
layer {
  name: "relu1"
  type: "ReLU"
  bottom: "ip1"
  top: "ip1"
}
layer {
  name: "ip2"
  type: "InnerProduct"
  bottom: "ip1"
  top: "ip2"
  param {
    lr_mult: 1
  }
  param {
    lr_mult: 2
  }
  inner_product_param {
    num_output: 10
    weight_filler {
      type: "xavier"
    }
    bias_filler {
      type: "constant"
    }
  }
}
layer {
  name: "relu2"
  type: "ReLU"
  bottom: "ip2"
  top: "ip2"
}
layer {
  name: "accuracy"
  type: "Accuracy"
  bottom: "ip2"
  bottom: "label"
  top: "accuracy"
  include {
    phase: TEST
  }
}
layer {
  name: "loss"
  type: "SoftmaxWithLoss"
  bottom: "ip2"
  bottom: "label"
  top: "loss"
}
I0428 19:57:17.885370 28640 layer_factory.hpp:77] Creating layer mnist
I0428 19:57:17.885414 28640 db_lmdb.cpp:35] Opened lmdb examples/mnist/mnist_test_lmdb
I0428 19:57:17.885442 28640 net.cpp:86] Creating Layer mnist
I0428 19:57:17.885447 28640 net.cpp:382] mnist -> data
I0428 19:57:17.885454 28640 net.cpp:382] mnist -> label
I0428 19:57:17.885591 28640 data_layer.cpp:45] output data size: 100,1,28,28
I0428 19:57:17.887622 28640 net.cpp:124] Setting up mnist
I0428 19:57:17.887646 28640 net.cpp:131] Top shape: 100 1 28 28 (78400)
I0428 19:57:17.887667 28640 net.cpp:131] Top shape: 100 (100)
I0428 19:57:17.887671 28640 net.cpp:139] Memory required for data: 314000
I0428 19:57:17.887676 28640 layer_factory.hpp:77] Creating layer label_mnist_1_split
I0428 19:57:17.887681 28640 net.cpp:86] Creating Layer label_mnist_1_split
I0428 19:57:17.887686 28640 net.cpp:408] label_mnist_1_split <- label
I0428 19:57:17.887691 28640 net.cpp:382] label_mnist_1_split -> label_mnist_1_split_0
I0428 19:57:17.887697 28640 net.cpp:382] label_mnist_1_split -> label_mnist_1_split_1
I0428 19:57:17.887766 28640 net.cpp:124] Setting up label_mnist_1_split
I0428 19:57:17.887790 28640 net.cpp:131] Top shape: 100 (100)
I0428 19:57:17.887794 28640 net.cpp:131] Top shape: 100 (100)
I0428 19:57:17.887797 28640 net.cpp:139] Memory required for data: 314800
I0428 19:57:17.887800 28640 layer_factory.hpp:77] Creating layer conv0
I0428 19:57:17.887809 28640 net.cpp:86] Creating Layer conv0
I0428 19:57:17.887812 28640 net.cpp:408] conv0 <- data
I0428 19:57:17.887817 28640 net.cpp:382] conv0 -> conv0
I0428 19:57:17.889556 28640 net.cpp:124] Setting up conv0
I0428 19:57:17.889569 28640 net.cpp:131] Top shape: 100 10 24 24 (576000)
I0428 19:57:17.889574 28640 net.cpp:139] Memory required for data: 2618800
I0428 19:57:17.889597 28640 layer_factory.hpp:77] Creating layer pool0
I0428 19:57:17.889605 28640 net.cpp:86] Creating Layer pool0
I0428 19:57:17.889607 28640 net.cpp:408] pool0 <- conv0
I0428 19:57:17.889612 28640 net.cpp:382] pool0 -> pool0
I0428 19:57:17.889647 28640 net.cpp:124] Setting up pool0
I0428 19:57:17.889652 28640 net.cpp:131] Top shape: 100 10 12 12 (144000)
I0428 19:57:17.889654 28640 net.cpp:139] Memory required for data: 3194800
I0428 19:57:17.889657 28640 layer_factory.hpp:77] Creating layer conv1
I0428 19:57:17.889667 28640 net.cpp:86] Creating Layer conv1
I0428 19:57:17.889669 28640 net.cpp:408] conv1 <- pool0
I0428 19:57:17.889678 28640 net.cpp:382] conv1 -> conv1
I0428 19:57:17.891849 28640 net.cpp:124] Setting up conv1
I0428 19:57:17.891862 28640 net.cpp:131] Top shape: 100 5 8 8 (32000)
I0428 19:57:17.891865 28640 net.cpp:139] Memory required for data: 3322800
I0428 19:57:17.891875 28640 layer_factory.hpp:77] Creating layer pool1
I0428 19:57:17.891897 28640 net.cpp:86] Creating Layer pool1
I0428 19:57:17.891901 28640 net.cpp:408] pool1 <- conv1
I0428 19:57:17.891906 28640 net.cpp:382] pool1 -> pool1
I0428 19:57:17.891958 28640 net.cpp:124] Setting up pool1
I0428 19:57:17.891963 28640 net.cpp:131] Top shape: 100 5 4 4 (8000)
I0428 19:57:17.891966 28640 net.cpp:139] Memory required for data: 3354800
I0428 19:57:17.891969 28640 layer_factory.hpp:77] Creating layer ip1
I0428 19:57:17.891975 28640 net.cpp:86] Creating Layer ip1
I0428 19:57:17.891978 28640 net.cpp:408] ip1 <- pool1
I0428 19:57:17.891983 28640 net.cpp:382] ip1 -> ip1
I0428 19:57:17.892102 28640 net.cpp:124] Setting up ip1
I0428 19:57:17.892110 28640 net.cpp:131] Top shape: 100 10 (1000)
I0428 19:57:17.892113 28640 net.cpp:139] Memory required for data: 3358800
I0428 19:57:17.892120 28640 layer_factory.hpp:77] Creating layer relu1
I0428 19:57:17.892127 28640 net.cpp:86] Creating Layer relu1
I0428 19:57:17.892130 28640 net.cpp:408] relu1 <- ip1
I0428 19:57:17.892135 28640 net.cpp:369] relu1 -> ip1 (in-place)
I0428 19:57:17.892318 28640 net.cpp:124] Setting up relu1
I0428 19:57:17.892326 28640 net.cpp:131] Top shape: 100 10 (1000)
I0428 19:57:17.892329 28640 net.cpp:139] Memory required for data: 3362800
I0428 19:57:17.892340 28640 layer_factory.hpp:77] Creating layer ip2
I0428 19:57:17.892349 28640 net.cpp:86] Creating Layer ip2
I0428 19:57:17.892367 28640 net.cpp:408] ip2 <- ip1
I0428 19:57:17.892372 28640 net.cpp:382] ip2 -> ip2
I0428 19:57:17.892475 28640 net.cpp:124] Setting up ip2
I0428 19:57:17.892483 28640 net.cpp:131] Top shape: 100 10 (1000)
I0428 19:57:17.892487 28640 net.cpp:139] Memory required for data: 3366800
I0428 19:57:17.892513 28640 layer_factory.hpp:77] Creating layer relu2
I0428 19:57:17.892524 28640 net.cpp:86] Creating Layer relu2
I0428 19:57:17.892526 28640 net.cpp:408] relu2 <- ip2
I0428 19:57:17.892529 28640 net.cpp:369] relu2 -> ip2 (in-place)
I0428 19:57:17.892688 28640 net.cpp:124] Setting up relu2
I0428 19:57:17.892696 28640 net.cpp:131] Top shape: 100 10 (1000)
I0428 19:57:17.892699 28640 net.cpp:139] Memory required for data: 3370800
I0428 19:57:17.892702 28640 layer_factory.hpp:77] Creating layer ip2_relu2_0_split
I0428 19:57:17.892707 28640 net.cpp:86] Creating Layer ip2_relu2_0_split
I0428 19:57:17.892710 28640 net.cpp:408] ip2_relu2_0_split <- ip2
I0428 19:57:17.892715 28640 net.cpp:382] ip2_relu2_0_split -> ip2_relu2_0_split_0
I0428 19:57:17.892735 28640 net.cpp:382] ip2_relu2_0_split -> ip2_relu2_0_split_1
I0428 19:57:17.892781 28640 net.cpp:124] Setting up ip2_relu2_0_split
I0428 19:57:17.892786 28640 net.cpp:131] Top shape: 100 10 (1000)
I0428 19:57:17.892789 28640 net.cpp:131] Top shape: 100 10 (1000)
I0428 19:57:17.892792 28640 net.cpp:139] Memory required for data: 3378800
I0428 19:57:17.892794 28640 layer_factory.hpp:77] Creating layer accuracy
I0428 19:57:17.892803 28640 net.cpp:86] Creating Layer accuracy
I0428 19:57:17.892841 28640 net.cpp:408] accuracy <- ip2_relu2_0_split_0
I0428 19:57:17.892845 28640 net.cpp:408] accuracy <- label_mnist_1_split_0
I0428 19:57:17.892865 28640 net.cpp:382] accuracy -> accuracy
…
