…
I0428 19:38:41.391090 24079 net.cpp:296] The NetState phase (0) differed from the phase (1) specified by a rule in layer mnist
I0428 19:38:41.391110 24079 net.cpp:296] The NetState phase (0) differed from the phase (1) specified by a rule in layer accuracy
I0428 19:38:41.391187 24079 net.cpp:53] Initializing net from parameters: 
name: "LeNet"
state {
  phase: TRAIN
  level: 0
  stage: ""
}
layer {
  name: "mnist"
  type: "Data"
  top: "data"
  top: "label"
  include {
    phase: TRAIN
  }
  transform_param {
    scale: 0.00390625
  }
  data_param {
    source: "examples/mnist/mnist_train_lmdb"
    batch_size: 64
    backend: LMDB
  }
}
layer {
  name: "conv0"
  type: "Convolution"
  bottom: "data"
  top: "conv0"
  param {
    lr_mult: 1
  }
  param {
    lr_mult: 2
  }
  convolution_param {
    num_output: 2
    kernel_size: 5
    stride: 1
    weight_filler {
      type: "xavier"
    }
    bias_filler {
      type: "constant"
    }
  }
}
layer {
  name: "pool0"
  type: "Pooling"
  bottom: "conv0"
  top: "pool0"
  pooling_param {
    pool: MAX
    kernel_size: 2
    stride: 2
  }
}
layer {
  name: "conv1"
  type: "Convolution"
  bottom: "pool0"
  top: "conv1"
  param {
    lr_mult: 1
  }
  param {
    lr_mult: 2
  }
  convolution_param {
    num_output: 2
    kernel_size: 5
    stride: 1
    weight_filler {
      type: "xavier"
    }
    bias_filler {
      type: "constant"
    }
  }
}
layer {
  name: "pool1"
  type: "Pooling"
  bottom: "conv1"
  top: "pool1"
  pooling_param {
    pool: MAX
    kernel_size: 2
    stride: 2
  }
}
layer {
  name: "ip1"
  type: "InnerProduct"
  bottom: "pool1"
  top: "ip1"
  param {
    lr_mult: 1
  }
  param {
    lr_mult: 2
  }
  inner_product_param {
    num_output: 25
    weight_filler {
      type: "xavier"
    }
    bias_filler {
      type: "constant"
    }
  }
}
layer {
  name: "relu1"
  type: "ReLU"
  bottom: "ip1"
  top: "ip1"
}
layer {
  name: "ip2"
  type: "InnerProduct"
  bottom: "ip1"
  top: "ip2"
  param {
    lr_mult: 1
  }
  param {
    lr_mult: 2
  }
  inner_product_param {
    num_output: 10
    weight_filler {
      type: "xavier"
    }
    bias_filler {
      type: "constant"
    }
  }
}
layer {
  name: "relu2"
  type: "ReLU"
  bottom: "ip2"
  top: "ip2"
}
layer {
  name: "loss"
  type: "SoftmaxWithLoss"
  bottom: "ip2"
  bottom: "label"
  top: "loss"
}
I0428 19:38:41.391268 24079 layer_factory.hpp:77] Creating layer mnist
I0428 19:38:41.391353 24079 db_lmdb.cpp:35] Opened lmdb examples/mnist/mnist_train_lmdb
I0428 19:38:41.391379 24079 net.cpp:86] Creating Layer mnist
I0428 19:38:41.391407 24079 net.cpp:382] mnist -> data
I0428 19:38:41.391432 24079 net.cpp:382] mnist -> label
I0428 19:38:41.392410 24079 data_layer.cpp:45] output data size: 64,1,28,28
I0428 19:38:41.394831 24079 net.cpp:124] Setting up mnist
I0428 19:38:41.394865 24079 net.cpp:131] Top shape: 64 1 28 28 (50176)
I0428 19:38:41.394872 24079 net.cpp:131] Top shape: 64 (64)
I0428 19:38:41.394881 24079 net.cpp:139] Memory required for data: 200960
I0428 19:38:41.394888 24079 layer_factory.hpp:77] Creating layer conv0
I0428 19:38:41.394904 24079 net.cpp:86] Creating Layer conv0
I0428 19:38:41.394909 24079 net.cpp:408] conv0 <- data
I0428 19:38:41.394919 24079 net.cpp:382] conv0 -> conv0
I0428 19:38:41.622064 24079 net.cpp:124] Setting up conv0
I0428 19:38:41.622090 24079 net.cpp:131] Top shape: 64 2 24 24 (73728)
I0428 19:38:41.622094 24079 net.cpp:139] Memory required for data: 495872
I0428 19:38:41.622125 24079 layer_factory.hpp:77] Creating layer pool0
I0428 19:38:41.622138 24079 net.cpp:86] Creating Layer pool0
I0428 19:38:41.622159 24079 net.cpp:408] pool0 <- conv0
I0428 19:38:41.622164 24079 net.cpp:382] pool0 -> pool0
I0428 19:38:41.622207 24079 net.cpp:124] Setting up pool0
I0428 19:38:41.622215 24079 net.cpp:131] Top shape: 64 2 12 12 (18432)
I0428 19:38:41.622217 24079 net.cpp:139] Memory required for data: 569600
I0428 19:38:41.622220 24079 layer_factory.hpp:77] Creating layer conv1
I0428 19:38:41.622231 24079 net.cpp:86] Creating Layer conv1
I0428 19:38:41.622234 24079 net.cpp:408] conv1 <- pool0
I0428 19:38:41.622239 24079 net.cpp:382] conv1 -> conv1
I0428 19:38:41.624048 24079 net.cpp:124] Setting up conv1
I0428 19:38:41.624094 24079 net.cpp:131] Top shape: 64 2 8 8 (8192)
I0428 19:38:41.624097 24079 net.cpp:139] Memory required for data: 602368
I0428 19:38:41.624120 24079 layer_factory.hpp:77] Creating layer pool1
I0428 19:38:41.624145 24079 net.cpp:86] Creating Layer pool1
I0428 19:38:41.624147 24079 net.cpp:408] pool1 <- conv1
I0428 19:38:41.624152 24079 net.cpp:382] pool1 -> pool1
I0428 19:38:41.624189 24079 net.cpp:124] Setting up pool1
I0428 19:38:41.624197 24079 net.cpp:131] Top shape: 64 2 4 4 (2048)
I0428 19:38:41.624200 24079 net.cpp:139] Memory required for data: 610560
I0428 19:38:41.624202 24079 layer_factory.hpp:77] Creating layer ip1
I0428 19:38:41.624210 24079 net.cpp:86] Creating Layer ip1
I0428 19:38:41.624213 24079 net.cpp:408] ip1 <- pool1
I0428 19:38:41.624218 24079 net.cpp:382] ip1 -> ip1
I0428 19:38:41.624323 24079 net.cpp:124] Setting up ip1
I0428 19:38:41.624331 24079 net.cpp:131] Top shape: 64 25 (1600)
I0428 19:38:41.624335 24079 net.cpp:139] Memory required for data: 616960
I0428 19:38:41.624341 24079 layer_factory.hpp:77] Creating layer relu1
I0428 19:38:41.624347 24079 net.cpp:86] Creating Layer relu1
I0428 19:38:41.624351 24079 net.cpp:408] relu1 <- ip1
I0428 19:38:41.624356 24079 net.cpp:369] relu1 -> ip1 (in-place)
I0428 19:38:41.624546 24079 net.cpp:124] Setting up relu1
I0428 19:38:41.624554 24079 net.cpp:131] Top shape: 64 25 (1600)
I0428 19:38:41.624557 24079 net.cpp:139] Memory required for data: 623360
I0428 19:38:41.624560 24079 layer_factory.hpp:77] Creating layer ip2
I0428 19:38:41.624567 24079 net.cpp:86] Creating Layer ip2
I0428 19:38:41.624569 24079 net.cpp:408] ip2 <- ip1
I0428 19:38:41.624574 24079 net.cpp:382] ip2 -> ip2
I0428 19:38:41.624667 24079 net.cpp:124] Setting up ip2
I0428 19:38:41.624675 24079 net.cpp:131] Top shape: 64 10 (640)
I0428 19:38:41.624676 24079 net.cpp:139] Memory required for data: 625920
I0428 19:38:41.624682 24079 layer_factory.hpp:77] Creating layer relu2
I0428 19:38:41.624687 24079 net.cpp:86] Creating Layer relu2
I0428 19:38:41.624691 24079 net.cpp:408] relu2 <- ip2
I0428 19:38:41.624694 24079 net.cpp:369] relu2 -> ip2 (in-place)
I0428 19:38:41.625488 24079 net.cpp:124] Setting up relu2
I0428 19:38:41.625501 24079 net.cpp:131] Top shape: 64 10 (640)
I0428 19:38:41.625520 24079 net.cpp:139] Memory required for data: 628480
I0428 19:38:41.625524 24079 layer_factory.hpp:77] Creating layer loss
I0428 19:38:41.625530 24079 net.cpp:86] Creating Layer loss
I0428 19:38:41.625533 24079 net.cpp:408] loss <- ip2
I0428 19:38:41.625537 24079 net.cpp:408] loss <- label
I0428 19:38:41.625545 24079 net.cpp:382] loss -> loss
I0428 19:38:41.625560 24079 layer_factory.hpp:77] Creating layer loss
…
I0428 19:38:41.626219 24079 solver.cpp:173] Creating test net (#0) specified by net file: ECE595/mnist/train_test/var_everything2/lenet_train_test281.prototxt
I0428 19:38:41.626258 24079 net.cpp:296] The NetState phase (1) differed from the phase (0) specified by a rule in layer mnist
I0428 19:38:41.626339 24079 net.cpp:53] Initializing net from parameters: 
name: "LeNet"
state {
  phase: TEST
}
layer {
  name: "mnist"
  type: "Data"
  top: "data"
  top: "label"
  include {
    phase: TEST
  }
  transform_param {
    scale: 0.00390625
  }
  data_param {
    source: "examples/mnist/mnist_test_lmdb"
    batch_size: 100
    backend: LMDB
  }
}
layer {
  name: "conv0"
  type: "Convolution"
  bottom: "data"
  top: "conv0"
  param {
    lr_mult: 1
  }
  param {
    lr_mult: 2
  }
  convolution_param {
    num_output: 2
    kernel_size: 5
    stride: 1
    weight_filler {
      type: "xavier"
    }
    bias_filler {
      type: "constant"
    }
  }
}
layer {
  name: "pool0"
  type: "Pooling"
  bottom: "conv0"
  top: "pool0"
  pooling_param {
    pool: MAX
    kernel_size: 2
    stride: 2
  }
}
layer {
  name: "conv1"
  type: "Convolution"
  bottom: "pool0"
  top: "conv1"
  param {
    lr_mult: 1
  }
  param {
    lr_mult: 2
  }
  convolution_param {
    num_output: 2
    kernel_size: 5
    stride: 1
    weight_filler {
      type: "xavier"
    }
    bias_filler {
      type: "constant"
    }
  }
}
layer {
  name: "pool1"
  type: "Pooling"
  bottom: "conv1"
  top: "pool1"
  pooling_param {
    pool: MAX
    kernel_size: 2
    stride: 2
  }
}
layer {
  name: "ip1"
  type: "InnerProduct"
  bottom: "pool1"
  top: "ip1"
  param {
    lr_mult: 1
  }
  param {
    lr_mult: 2
  }
  inner_product_param {
    num_output: 25
    weight_filler {
      type: "xavier"
    }
    bias_filler {
      type: "constant"
    }
  }
}
layer {
  name: "relu1"
  type: "ReLU"
  bottom: "ip1"
  top: "ip1"
}
layer {
  name: "ip2"
  type: "InnerProduct"
  bottom: "ip1"
  top: "ip2"
  param {
    lr_mult: 1
  }
  param {
    lr_mult: 2
  }
  inner_product_param {
    num_output: 10
    weight_filler {
      type: "xavier"
    }
    bias_filler {
      type: "constant"
    }
  }
}
layer {
  name: "relu2"
  type: "ReLU"
  bottom: "ip2"
  top: "ip2"
}
layer {
  name: "accuracy"
  type: "Accuracy"
  bottom: "ip2"
  bottom: "label"
  top: "accuracy"
  include {
    phase: TEST
  }
}
layer {
  name: "loss"
  type: "SoftmaxWithLoss"
  bottom: "ip2"
  bottom: "label"
  top: "loss"
}
I0428 19:38:41.626404 24079 layer_factory.hpp:77] Creating layer mnist
I0428 19:38:41.626462 24079 db_lmdb.cpp:35] Opened lmdb examples/mnist/mnist_test_lmdb
I0428 19:38:41.626474 24079 net.cpp:86] Creating Layer mnist
I0428 19:38:41.626479 24079 net.cpp:382] mnist -> data
I0428 19:38:41.626487 24079 net.cpp:382] mnist -> label
I0428 19:38:41.626618 24079 data_layer.cpp:45] output data size: 100,1,28,28
I0428 19:38:41.628587 24079 net.cpp:124] Setting up mnist
I0428 19:38:41.628615 24079 net.cpp:131] Top shape: 100 1 28 28 (78400)
I0428 19:38:41.628620 24079 net.cpp:131] Top shape: 100 (100)
I0428 19:38:41.628623 24079 net.cpp:139] Memory required for data: 314000
I0428 19:38:41.628628 24079 layer_factory.hpp:77] Creating layer label_mnist_1_split
I0428 19:38:41.628633 24079 net.cpp:86] Creating Layer label_mnist_1_split
I0428 19:38:41.628638 24079 net.cpp:408] label_mnist_1_split <- label
I0428 19:38:41.628643 24079 net.cpp:382] label_mnist_1_split -> label_mnist_1_split_0
I0428 19:38:41.628651 24079 net.cpp:382] label_mnist_1_split -> label_mnist_1_split_1
I0428 19:38:41.628697 24079 net.cpp:124] Setting up label_mnist_1_split
I0428 19:38:41.628713 24079 net.cpp:131] Top shape: 100 (100)
I0428 19:38:41.628717 24079 net.cpp:131] Top shape: 100 (100)
I0428 19:38:41.628720 24079 net.cpp:139] Memory required for data: 314800
I0428 19:38:41.628723 24079 layer_factory.hpp:77] Creating layer conv0
I0428 19:38:41.628733 24079 net.cpp:86] Creating Layer conv0
I0428 19:38:41.628737 24079 net.cpp:408] conv0 <- data
I0428 19:38:41.628741 24079 net.cpp:382] conv0 -> conv0
I0428 19:38:41.630391 24079 net.cpp:124] Setting up conv0
I0428 19:38:41.630421 24079 net.cpp:131] Top shape: 100 2 24 24 (115200)
I0428 19:38:41.630424 24079 net.cpp:139] Memory required for data: 775600
I0428 19:38:41.630434 24079 layer_factory.hpp:77] Creating layer pool0
I0428 19:38:41.630440 24079 net.cpp:86] Creating Layer pool0
I0428 19:38:41.630444 24079 net.cpp:408] pool0 <- conv0
I0428 19:38:41.630447 24079 net.cpp:382] pool0 -> pool0
I0428 19:38:41.630498 24079 net.cpp:124] Setting up pool0
I0428 19:38:41.630506 24079 net.cpp:131] Top shape: 100 2 12 12 (28800)
I0428 19:38:41.630509 24079 net.cpp:139] Memory required for data: 890800
I0428 19:38:41.630512 24079 layer_factory.hpp:77] Creating layer conv1
I0428 19:38:41.630520 24079 net.cpp:86] Creating Layer conv1
I0428 19:38:41.630523 24079 net.cpp:408] conv1 <- pool0
I0428 19:38:41.630528 24079 net.cpp:382] conv1 -> conv1
I0428 19:38:41.632033 24079 net.cpp:124] Setting up conv1
I0428 19:38:41.632045 24079 net.cpp:131] Top shape: 100 2 8 8 (12800)
I0428 19:38:41.632066 24079 net.cpp:139] Memory required for data: 942000
I0428 19:38:41.632073 24079 layer_factory.hpp:77] Creating layer pool1
I0428 19:38:41.632079 24079 net.cpp:86] Creating Layer pool1
I0428 19:38:41.632083 24079 net.cpp:408] pool1 <- conv1
I0428 19:38:41.632087 24079 net.cpp:382] pool1 -> pool1
I0428 19:38:41.632123 24079 net.cpp:124] Setting up pool1
I0428 19:38:41.632128 24079 net.cpp:131] Top shape: 100 2 4 4 (3200)
I0428 19:38:41.632131 24079 net.cpp:139] Memory required for data: 954800
I0428 19:38:41.632135 24079 layer_factory.hpp:77] Creating layer ip1
I0428 19:38:41.632140 24079 net.cpp:86] Creating Layer ip1
I0428 19:38:41.632144 24079 net.cpp:408] ip1 <- pool1
I0428 19:38:41.632148 24079 net.cpp:382] ip1 -> ip1
I0428 19:38:41.632244 24079 net.cpp:124] Setting up ip1
I0428 19:38:41.632252 24079 net.cpp:131] Top shape: 100 25 (2500)
I0428 19:38:41.632256 24079 net.cpp:139] Memory required for data: 964800
I0428 19:38:41.632262 24079 layer_factory.hpp:77] Creating layer relu1
I0428 19:38:41.632267 24079 net.cpp:86] Creating Layer relu1
I0428 19:38:41.632271 24079 net.cpp:408] relu1 <- ip1
I0428 19:38:41.632274 24079 net.cpp:369] relu1 -> ip1 (in-place)
I0428 19:38:41.632449 24079 net.cpp:124] Setting up relu1
I0428 19:38:41.632458 24079 net.cpp:131] Top shape: 100 25 (2500)
I0428 19:38:41.632462 24079 net.cpp:139] Memory required for data: 974800
I0428 19:38:41.632464 24079 layer_factory.hpp:77] Creating layer ip2
I0428 19:38:41.632472 24079 net.cpp:86] Creating Layer ip2
I0428 19:38:41.632474 24079 net.cpp:408] ip2 <- ip1
I0428 19:38:41.632495 24079 net.cpp:382] ip2 -> ip2
I0428 19:38:41.632596 24079 net.cpp:124] Setting up ip2
I0428 19:38:41.632602 24079 net.cpp:131] Top shape: 100 10 (1000)
I0428 19:38:41.632606 24079 net.cpp:139] Memory required for data: 978800
I0428 19:38:41.632611 24079 layer_factory.hpp:77] Creating layer relu2
I0428 19:38:41.632616 24079 net.cpp:86] Creating Layer relu2
I0428 19:38:41.632619 24079 net.cpp:408] relu2 <- ip2
I0428 19:38:41.632623 24079 net.cpp:369] relu2 -> ip2 (in-place)
I0428 19:38:41.632776 24079 net.cpp:124] Setting up relu2
I0428 19:38:41.632784 24079 net.cpp:131] Top shape: 100 10 (1000)
I0428 19:38:41.632787 24079 net.cpp:139] Memory required for data: 982800
I0428 19:38:41.632791 24079 layer_factory.hpp:77] Creating layer ip2_relu2_0_split
I0428 19:38:41.632817 24079 net.cpp:86] Creating Layer ip2_relu2_0_split
I0428 19:38:41.632836 24079 net.cpp:408] ip2_relu2_0_split <- ip2
I0428 19:38:41.632840 24079 net.cpp:382] ip2_relu2_0_split -> ip2_relu2_0_split_0
I0428 19:38:41.632874 24079 net.cpp:382] ip2_relu2_0_split -> ip2_relu2_0_split_1
I0428 19:38:41.632910 24079 net.cpp:124] Setting up ip2_relu2_0_split
I0428 19:38:41.632916 24079 net.cpp:131] Top shape: 100 10 (1000)
I0428 19:38:41.632920 24079 net.cpp:131] Top shape: 100 10 (1000)
I0428 19:38:41.632923 24079 net.cpp:139] Memory required for data: 990800
I0428 19:38:41.632926 24079 layer_factory.hpp:77] Creating layer accuracy
I0428 19:38:41.632931 24079 net.cpp:86] Creating Layer accuracy
I0428 19:38:41.632935 24079 net.cpp:408] accuracy <- ip2_relu2_0_split_0
I0428 19:38:41.632938 24079 net.cpp:408] accuracy <- label_mnist_1_split_0
I0428 19:38:41.632943 24079 net.cpp:382] accuracy -> accuracy
…
