…
I0428 20:04:12.081439 30338 net.cpp:296] The NetState phase (0) differed from the phase (1) specified by a rule in layer mnist
I0428 20:04:12.081459 30338 net.cpp:296] The NetState phase (0) differed from the phase (1) specified by a rule in layer accuracy
I0428 20:04:12.081564 30338 net.cpp:53] Initializing net from parameters: 
name: "LeNet"
state {
  phase: TRAIN
  level: 0
  stage: ""
}
layer {
  name: "mnist"
  type: "Data"
  top: "data"
  top: "label"
  include {
    phase: TRAIN
  }
  transform_param {
    scale: 0.00390625
  }
  data_param {
    source: "examples/mnist/mnist_train_lmdb"
    batch_size: 64
    backend: LMDB
  }
}
layer {
  name: "conv0"
  type: "Convolution"
  bottom: "data"
  top: "conv0"
  param {
    lr_mult: 1
  }
  param {
    lr_mult: 2
  }
  convolution_param {
    num_output: 10
    kernel_size: 5
    stride: 1
    weight_filler {
      type: "xavier"
    }
    bias_filler {
      type: "constant"
    }
  }
}
layer {
  name: "pool0"
  type: "Pooling"
  bottom: "conv0"
  top: "pool0"
  pooling_param {
    pool: MAX
    kernel_size: 2
    stride: 2
  }
}
layer {
  name: "conv1"
  type: "Convolution"
  bottom: "pool0"
  top: "conv1"
  param {
    lr_mult: 1
  }
  param {
    lr_mult: 2
  }
  convolution_param {
    num_output: 100
    kernel_size: 5
    stride: 1
    weight_filler {
      type: "xavier"
    }
    bias_filler {
      type: "constant"
    }
  }
}
layer {
  name: "pool1"
  type: "Pooling"
  bottom: "conv1"
  top: "pool1"
  pooling_param {
    pool: MAX
    kernel_size: 2
    stride: 2
  }
}
layer {
  name: "ip1"
  type: "InnerProduct"
  bottom: "pool1"
  top: "ip1"
  param {
    lr_mult: 1
  }
  param {
    lr_mult: 2
  }
  inner_product_param {
    num_output: 50
    weight_filler {
      type: "xavier"
    }
    bias_filler {
      type: "constant"
    }
  }
}
layer {
  name: "relu1"
  type: "ReLU"
  bottom: "ip1"
  top: "ip1"
}
layer {
  name: "ip2"
  type: "InnerProduct"
  bottom: "ip1"
  top: "ip2"
  param {
    lr_mult: 1
  }
  param {
    lr_mult: 2
  }
  inner_product_param {
    num_output: 10
    weight_filler {
      type: "xavier"
    }
    bias_filler {
      type: "constant"
    }
  }
}
layer {
  name: "relu2"
  type: "ReLU"
  bottom: "ip2"
  top: "ip2"
}
layer {
  name: "ip3"
  type: "InnerProduct"
  bottom: "ip2"
  top: "ip3"
  param {
    lr_mult: 1
  }
  param {
    lr_mult: 2
  }
  inner_product_param {
    num_output: 10
    weight_filler {
      type: "xavier"
    }
    bias_filler {
      type: "constant"
    }
  }
}
layer {
  name: "relu3"
  type: "ReLU"
  bottom: "ip3"
  top: "ip3"
}
layer {
  name: "loss"
  type: "SoftmaxWithLoss"
  bottom: "ip3"
  bottom: "label"
  top: "loss"
}
I0428 20:04:12.081645 30338 layer_factory.hpp:77] Creating layer mnist
I0428 20:04:12.081744 30338 db_lmdb.cpp:35] Opened lmdb examples/mnist/mnist_train_lmdb
I0428 20:04:12.081768 30338 net.cpp:86] Creating Layer mnist
I0428 20:04:12.081779 30338 net.cpp:382] mnist -> data
I0428 20:04:12.081800 30338 net.cpp:382] mnist -> label
I0428 20:04:12.082901 30338 data_layer.cpp:45] output data size: 64,1,28,28
I0428 20:04:12.085355 30338 net.cpp:124] Setting up mnist
I0428 20:04:12.085373 30338 net.cpp:131] Top shape: 64 1 28 28 (50176)
I0428 20:04:12.085381 30338 net.cpp:131] Top shape: 64 (64)
I0428 20:04:12.085383 30338 net.cpp:139] Memory required for data: 200960
I0428 20:04:12.085391 30338 layer_factory.hpp:77] Creating layer conv0
I0428 20:04:12.085408 30338 net.cpp:86] Creating Layer conv0
I0428 20:04:12.085428 30338 net.cpp:408] conv0 <- data
I0428 20:04:12.085449 30338 net.cpp:382] conv0 -> conv0
I0428 20:04:12.371513 30338 net.cpp:124] Setting up conv0
I0428 20:04:12.371542 30338 net.cpp:131] Top shape: 64 10 24 24 (368640)
I0428 20:04:12.371547 30338 net.cpp:139] Memory required for data: 1675520
I0428 20:04:12.371562 30338 layer_factory.hpp:77] Creating layer pool0
I0428 20:04:12.371577 30338 net.cpp:86] Creating Layer pool0
I0428 20:04:12.371582 30338 net.cpp:408] pool0 <- conv0
I0428 20:04:12.371587 30338 net.cpp:382] pool0 -> pool0
I0428 20:04:12.371634 30338 net.cpp:124] Setting up pool0
I0428 20:04:12.371639 30338 net.cpp:131] Top shape: 64 10 12 12 (92160)
I0428 20:04:12.371642 30338 net.cpp:139] Memory required for data: 2044160
I0428 20:04:12.371645 30338 layer_factory.hpp:77] Creating layer conv1
I0428 20:04:12.371656 30338 net.cpp:86] Creating Layer conv1
I0428 20:04:12.371659 30338 net.cpp:408] conv1 <- pool0
I0428 20:04:12.371665 30338 net.cpp:382] conv1 -> conv1
I0428 20:04:12.373663 30338 net.cpp:124] Setting up conv1
I0428 20:04:12.373678 30338 net.cpp:131] Top shape: 64 100 8 8 (409600)
I0428 20:04:12.373682 30338 net.cpp:139] Memory required for data: 3682560
I0428 20:04:12.373692 30338 layer_factory.hpp:77] Creating layer pool1
I0428 20:04:12.373699 30338 net.cpp:86] Creating Layer pool1
I0428 20:04:12.373703 30338 net.cpp:408] pool1 <- conv1
I0428 20:04:12.373708 30338 net.cpp:382] pool1 -> pool1
I0428 20:04:12.373745 30338 net.cpp:124] Setting up pool1
I0428 20:04:12.373751 30338 net.cpp:131] Top shape: 64 100 4 4 (102400)
I0428 20:04:12.373754 30338 net.cpp:139] Memory required for data: 4092160
I0428 20:04:12.373757 30338 layer_factory.hpp:77] Creating layer ip1
I0428 20:04:12.373764 30338 net.cpp:86] Creating Layer ip1
I0428 20:04:12.373767 30338 net.cpp:408] ip1 <- pool1
I0428 20:04:12.373772 30338 net.cpp:382] ip1 -> ip1
I0428 20:04:12.375170 30338 net.cpp:124] Setting up ip1
I0428 20:04:12.375185 30338 net.cpp:131] Top shape: 64 50 (3200)
I0428 20:04:12.375190 30338 net.cpp:139] Memory required for data: 4104960
I0428 20:04:12.375197 30338 layer_factory.hpp:77] Creating layer relu1
I0428 20:04:12.375203 30338 net.cpp:86] Creating Layer relu1
I0428 20:04:12.375207 30338 net.cpp:408] relu1 <- ip1
I0428 20:04:12.375212 30338 net.cpp:369] relu1 -> ip1 (in-place)
I0428 20:04:12.375382 30338 net.cpp:124] Setting up relu1
I0428 20:04:12.375391 30338 net.cpp:131] Top shape: 64 50 (3200)
I0428 20:04:12.375394 30338 net.cpp:139] Memory required for data: 4117760
I0428 20:04:12.375398 30338 layer_factory.hpp:77] Creating layer ip2
I0428 20:04:12.375406 30338 net.cpp:86] Creating Layer ip2
I0428 20:04:12.375408 30338 net.cpp:408] ip2 <- ip1
I0428 20:04:12.375413 30338 net.cpp:382] ip2 -> ip2
I0428 20:04:12.375516 30338 net.cpp:124] Setting up ip2
I0428 20:04:12.375527 30338 net.cpp:131] Top shape: 64 10 (640)
I0428 20:04:12.375530 30338 net.cpp:139] Memory required for data: 4120320
I0428 20:04:12.375536 30338 layer_factory.hpp:77] Creating layer relu2
I0428 20:04:12.375542 30338 net.cpp:86] Creating Layer relu2
I0428 20:04:12.375545 30338 net.cpp:408] relu2 <- ip2
I0428 20:04:12.375550 30338 net.cpp:369] relu2 -> ip2 (in-place)
I0428 20:04:12.376281 30338 net.cpp:124] Setting up relu2
I0428 20:04:12.376294 30338 net.cpp:131] Top shape: 64 10 (640)
I0428 20:04:12.376298 30338 net.cpp:139] Memory required for data: 4122880
I0428 20:04:12.376302 30338 layer_factory.hpp:77] Creating layer ip3
I0428 20:04:12.376309 30338 net.cpp:86] Creating Layer ip3
I0428 20:04:12.376313 30338 net.cpp:408] ip3 <- ip2
I0428 20:04:12.376318 30338 net.cpp:382] ip3 -> ip3
I0428 20:04:12.376416 30338 net.cpp:124] Setting up ip3
I0428 20:04:12.376425 30338 net.cpp:131] Top shape: 64 10 (640)
I0428 20:04:12.376427 30338 net.cpp:139] Memory required for data: 4125440
I0428 20:04:12.376436 30338 layer_factory.hpp:77] Creating layer relu3
I0428 20:04:12.376441 30338 net.cpp:86] Creating Layer relu3
I0428 20:04:12.376444 30338 net.cpp:408] relu3 <- ip3
I0428 20:04:12.376448 30338 net.cpp:369] relu3 -> ip3 (in-place)
I0428 20:04:12.376616 30338 net.cpp:124] Setting up relu3
I0428 20:04:12.376628 30338 net.cpp:131] Top shape: 64 10 (640)
I0428 20:04:12.376633 30338 net.cpp:139] Memory required for data: 4128000
I0428 20:04:12.376639 30338 layer_factory.hpp:77] Creating layer loss
I0428 20:04:12.376652 30338 net.cpp:86] Creating Layer loss
I0428 20:04:12.376657 30338 net.cpp:408] loss <- ip3
I0428 20:04:12.376660 30338 net.cpp:408] loss <- label
I0428 20:04:12.376667 30338 net.cpp:382] loss -> loss
I0428 20:04:12.376680 30338 layer_factory.hpp:77] Creating layer loss
…
I0428 20:04:12.377331 30338 solver.cpp:173] Creating test net (#0) specified by net file: ECE595/mnist/train_test/var_everything2/lenet_train_test967.prototxt
I0428 20:04:12.377359 30338 net.cpp:296] The NetState phase (1) differed from the phase (0) specified by a rule in layer mnist
I0428 20:04:12.377454 30338 net.cpp:53] Initializing net from parameters: 
name: "LeNet"
state {
  phase: TEST
}
layer {
  name: "mnist"
  type: "Data"
  top: "data"
  top: "label"
  include {
    phase: TEST
  }
  transform_param {
    scale: 0.00390625
  }
  data_param {
    source: "examples/mnist/mnist_test_lmdb"
    batch_size: 100
    backend: LMDB
  }
}
layer {
  name: "conv0"
  type: "Convolution"
  bottom: "data"
  top: "conv0"
  param {
    lr_mult: 1
  }
  param {
    lr_mult: 2
  }
  convolution_param {
    num_output: 10
    kernel_size: 5
    stride: 1
    weight_filler {
      type: "xavier"
    }
    bias_filler {
      type: "constant"
    }
  }
}
layer {
  name: "pool0"
  type: "Pooling"
  bottom: "conv0"
  top: "pool0"
  pooling_param {
    pool: MAX
    kernel_size: 2
    stride: 2
  }
}
layer {
  name: "conv1"
  type: "Convolution"
  bottom: "pool0"
  top: "conv1"
  param {
    lr_mult: 1
  }
  param {
    lr_mult: 2
  }
  convolution_param {
    num_output: 100
    kernel_size: 5
    stride: 1
    weight_filler {
      type: "xavier"
    }
    bias_filler {
      type: "constant"
    }
  }
}
layer {
  name: "pool1"
  type: "Pooling"
  bottom: "conv1"
  top: "pool1"
  pooling_param {
    pool: MAX
    kernel_size: 2
    stride: 2
  }
}
layer {
  name: "ip1"
  type: "InnerProduct"
  bottom: "pool1"
  top: "ip1"
  param {
    lr_mult: 1
  }
  param {
    lr_mult: 2
  }
  inner_product_param {
    num_output: 50
    weight_filler {
      type: "xavier"
    }
    bias_filler {
      type: "constant"
    }
  }
}
layer {
  name: "relu1"
  type: "ReLU"
  bottom: "ip1"
  top: "ip1"
}
layer {
  name: "ip2"
  type: "InnerProduct"
  bottom: "ip1"
  top: "ip2"
  param {
    lr_mult: 1
  }
  param {
    lr_mult: 2
  }
  inner_product_param {
    num_output: 10
    weight_filler {
      type: "xavier"
    }
    bias_filler {
      type: "constant"
    }
  }
}
layer {
  name: "relu2"
  type: "ReLU"
  bottom: "ip2"
  top: "ip2"
}
layer {
  name: "ip3"
  type: "InnerProduct"
  bottom: "ip2"
  top: "ip3"
  param {
    lr_mult: 1
  }
  param {
    lr_mult: 2
  }
  inner_product_param {
    num_output: 10
    weight_filler {
      type: "xavier"
    }
    bias_filler {
      type: "constant"
    }
  }
}
layer {
  name: "relu3"
  type: "ReLU"
  bottom: "ip3"
  top: "ip3"
}
layer {
  name: "accuracy"
  type: "Accuracy"
  bottom: "ip3"
  bottom: "label"
  top: "accuracy"
  include {
    phase: TEST
  }
}
layer {
  name: "loss"
  type: "SoftmaxWithLoss"
  bottom: "ip3"
  bottom: "label"
  top: "loss"
}
I0428 20:04:12.377542 30338 layer_factory.hpp:77] Creating layer mnist
I0428 20:04:12.377585 30338 db_lmdb.cpp:35] Opened lmdb examples/mnist/mnist_test_lmdb
I0428 20:04:12.377599 30338 net.cpp:86] Creating Layer mnist
I0428 20:04:12.377604 30338 net.cpp:382] mnist -> data
I0428 20:04:12.377611 30338 net.cpp:382] mnist -> label
I0428 20:04:12.377701 30338 data_layer.cpp:45] output data size: 100,1,28,28
I0428 20:04:12.378782 30338 net.cpp:124] Setting up mnist
I0428 20:04:12.378794 30338 net.cpp:131] Top shape: 100 1 28 28 (78400)
I0428 20:04:12.378799 30338 net.cpp:131] Top shape: 100 (100)
I0428 20:04:12.378803 30338 net.cpp:139] Memory required for data: 314000
I0428 20:04:12.378806 30338 layer_factory.hpp:77] Creating layer label_mnist_1_split
I0428 20:04:12.378813 30338 net.cpp:86] Creating Layer label_mnist_1_split
I0428 20:04:12.378816 30338 net.cpp:408] label_mnist_1_split <- label
I0428 20:04:12.378844 30338 net.cpp:382] label_mnist_1_split -> label_mnist_1_split_0
I0428 20:04:12.378851 30338 net.cpp:382] label_mnist_1_split -> label_mnist_1_split_1
I0428 20:04:12.378893 30338 net.cpp:124] Setting up label_mnist_1_split
I0428 20:04:12.378901 30338 net.cpp:131] Top shape: 100 (100)
I0428 20:04:12.378904 30338 net.cpp:131] Top shape: 100 (100)
I0428 20:04:12.378907 30338 net.cpp:139] Memory required for data: 314800
I0428 20:04:12.378911 30338 layer_factory.hpp:77] Creating layer conv0
I0428 20:04:12.378922 30338 net.cpp:86] Creating Layer conv0
I0428 20:04:12.378926 30338 net.cpp:408] conv0 <- data
I0428 20:04:12.378931 30338 net.cpp:382] conv0 -> conv0
I0428 20:04:12.380630 30338 net.cpp:124] Setting up conv0
I0428 20:04:12.380643 30338 net.cpp:131] Top shape: 100 10 24 24 (576000)
I0428 20:04:12.380647 30338 net.cpp:139] Memory required for data: 2618800
I0428 20:04:12.380656 30338 layer_factory.hpp:77] Creating layer pool0
I0428 20:04:12.380664 30338 net.cpp:86] Creating Layer pool0
I0428 20:04:12.380667 30338 net.cpp:408] pool0 <- conv0
I0428 20:04:12.380672 30338 net.cpp:382] pool0 -> pool0
I0428 20:04:12.380709 30338 net.cpp:124] Setting up pool0
I0428 20:04:12.380722 30338 net.cpp:131] Top shape: 100 10 12 12 (144000)
I0428 20:04:12.380724 30338 net.cpp:139] Memory required for data: 3194800
I0428 20:04:12.380728 30338 layer_factory.hpp:77] Creating layer conv1
I0428 20:04:12.380736 30338 net.cpp:86] Creating Layer conv1
I0428 20:04:12.380739 30338 net.cpp:408] conv1 <- pool0
I0428 20:04:12.380748 30338 net.cpp:382] conv1 -> conv1
I0428 20:04:12.382477 30338 net.cpp:124] Setting up conv1
I0428 20:04:12.382494 30338 net.cpp:131] Top shape: 100 100 8 8 (640000)
I0428 20:04:12.382498 30338 net.cpp:139] Memory required for data: 5754800
I0428 20:04:12.382506 30338 layer_factory.hpp:77] Creating layer pool1
I0428 20:04:12.382513 30338 net.cpp:86] Creating Layer pool1
I0428 20:04:12.382517 30338 net.cpp:408] pool1 <- conv1
I0428 20:04:12.382522 30338 net.cpp:382] pool1 -> pool1
I0428 20:04:12.382560 30338 net.cpp:124] Setting up pool1
I0428 20:04:12.382567 30338 net.cpp:131] Top shape: 100 100 4 4 (160000)
I0428 20:04:12.382570 30338 net.cpp:139] Memory required for data: 6394800
I0428 20:04:12.382573 30338 layer_factory.hpp:77] Creating layer ip1
I0428 20:04:12.382580 30338 net.cpp:86] Creating Layer ip1
I0428 20:04:12.382585 30338 net.cpp:408] ip1 <- pool1
I0428 20:04:12.382588 30338 net.cpp:382] ip1 -> ip1
I0428 20:04:12.383147 30338 net.cpp:124] Setting up ip1
I0428 20:04:12.383154 30338 net.cpp:131] Top shape: 100 50 (5000)
I0428 20:04:12.383167 30338 net.cpp:139] Memory required for data: 6414800
I0428 20:04:12.383177 30338 layer_factory.hpp:77] Creating layer relu1
I0428 20:04:12.383183 30338 net.cpp:86] Creating Layer relu1
I0428 20:04:12.383188 30338 net.cpp:408] relu1 <- ip1
I0428 20:04:12.383191 30338 net.cpp:369] relu1 -> ip1 (in-place)
I0428 20:04:12.383422 30338 net.cpp:124] Setting up relu1
I0428 20:04:12.383431 30338 net.cpp:131] Top shape: 100 50 (5000)
I0428 20:04:12.383435 30338 net.cpp:139] Memory required for data: 6434800
I0428 20:04:12.383437 30338 layer_factory.hpp:77] Creating layer ip2
I0428 20:04:12.383445 30338 net.cpp:86] Creating Layer ip2
I0428 20:04:12.383450 30338 net.cpp:408] ip2 <- ip1
I0428 20:04:12.383455 30338 net.cpp:382] ip2 -> ip2
I0428 20:04:12.383569 30338 net.cpp:124] Setting up ip2
I0428 20:04:12.383579 30338 net.cpp:131] Top shape: 100 10 (1000)
I0428 20:04:12.383581 30338 net.cpp:139] Memory required for data: 6438800
I0428 20:04:12.383586 30338 layer_factory.hpp:77] Creating layer relu2
I0428 20:04:12.383592 30338 net.cpp:86] Creating Layer relu2
I0428 20:04:12.383595 30338 net.cpp:408] relu2 <- ip2
I0428 20:04:12.383599 30338 net.cpp:369] relu2 -> ip2 (in-place)
I0428 20:04:12.383756 30338 net.cpp:124] Setting up relu2
I0428 20:04:12.383765 30338 net.cpp:131] Top shape: 100 10 (1000)
I0428 20:04:12.383769 30338 net.cpp:139] Memory required for data: 6442800
I0428 20:04:12.383771 30338 layer_factory.hpp:77] Creating layer ip3
I0428 20:04:12.383776 30338 net.cpp:86] Creating Layer ip3
I0428 20:04:12.383780 30338 net.cpp:408] ip3 <- ip2
I0428 20:04:12.383785 30338 net.cpp:382] ip3 -> ip3
I0428 20:04:12.383882 30338 net.cpp:124] Setting up ip3
I0428 20:04:12.383888 30338 net.cpp:131] Top shape: 100 10 (1000)
I0428 20:04:12.383891 30338 net.cpp:139] Memory required for data: 6446800
I0428 20:04:12.383900 30338 layer_factory.hpp:77] Creating layer relu3
I0428 20:04:12.383904 30338 net.cpp:86] Creating Layer relu3
I0428 20:04:12.383908 30338 net.cpp:408] relu3 <- ip3
I0428 20:04:12.383913 30338 net.cpp:369] relu3 -> ip3 (in-place)
I0428 20:04:12.384788 30338 net.cpp:124] Setting up relu3
I0428 20:04:12.384802 30338 net.cpp:131] Top shape: 100 10 (1000)
I0428 20:04:12.384806 30338 net.cpp:139] Memory required for data: 6450800
I0428 20:04:12.384815 30338 layer_factory.hpp:77] Creating layer ip3_relu3_0_split
I0428 20:04:12.384821 30338 net.cpp:86] Creating Layer ip3_relu3_0_split
I0428 20:04:12.384825 30338 net.cpp:408] ip3_relu3_0_split <- ip3
I0428 20:04:12.384832 30338 net.cpp:382] ip3_relu3_0_split -> ip3_relu3_0_split_0
I0428 20:04:12.384838 30338 net.cpp:382] ip3_relu3_0_split -> ip3_relu3_0_split_1
I0428 20:04:12.384905 30338 net.cpp:124] Setting up ip3_relu3_0_split
I0428 20:04:12.384913 30338 net.cpp:131] Top shape: 100 10 (1000)
I0428 20:04:12.384917 30338 net.cpp:131] Top shape: 100 10 (1000)
I0428 20:04:12.384920 30338 net.cpp:139] Memory required for data: 6458800
I0428 20:04:12.384923 30338 layer_factory.hpp:77] Creating layer accuracy
I0428 20:04:12.384930 30338 net.cpp:86] Creating Layer accuracy
I0428 20:04:12.384933 30338 net.cpp:408] accuracy <- ip3_relu3_0_split_0
I0428 20:04:12.384938 30338 net.cpp:408] accuracy <- label_mnist_1_split_0
I0428 20:04:12.384943 30338 net.cpp:382] accuracy -> accuracy
…
