…
I0428 19:28:54.537547 21853 net.cpp:296] The NetState phase (0) differed from the phase (1) specified by a rule in layer mnist
I0428 19:28:54.537559 21853 net.cpp:296] The NetState phase (0) differed from the phase (1) specified by a rule in layer accuracy
I0428 19:28:54.537616 21853 net.cpp:53] Initializing net from parameters: 
name: "LeNet"
state {
  phase: TRAIN
  level: 0
  stage: ""
}
layer {
  name: "mnist"
  type: "Data"
  top: "data"
  top: "label"
  include {
    phase: TRAIN
  }
  transform_param {
    scale: 0.00390625
  }
  data_param {
    source: "examples/mnist/mnist_train_lmdb"
    batch_size: 64
    backend: LMDB
  }
}
layer {
  name: "conv0"
  type: "Convolution"
  bottom: "data"
  top: "conv0"
  param {
    lr_mult: 1
  }
  param {
    lr_mult: 2
  }
  convolution_param {
    num_output: 2
    kernel_size: 5
    stride: 1
    weight_filler {
      type: "xavier"
    }
    bias_filler {
      type: "constant"
    }
  }
}
layer {
  name: "pool0"
  type: "Pooling"
  bottom: "conv0"
  top: "pool0"
  pooling_param {
    pool: MAX
    kernel_size: 2
    stride: 2
  }
}
layer {
  name: "ip1"
  type: "InnerProduct"
  bottom: "pool0"
  top: "ip1"
  param {
    lr_mult: 1
  }
  param {
    lr_mult: 2
  }
  inner_product_param {
    num_output: 10
    weight_filler {
      type: "xavier"
    }
    bias_filler {
      type: "constant"
    }
  }
}
layer {
  name: "relu1"
  type: "ReLU"
  bottom: "ip1"
  top: "ip1"
}
layer {
  name: "loss"
  type: "SoftmaxWithLoss"
  bottom: "ip1"
  bottom: "label"
  top: "loss"
}
I0428 19:28:54.537665 21853 layer_factory.hpp:77] Creating layer mnist
I0428 19:28:54.537744 21853 db_lmdb.cpp:35] Opened lmdb examples/mnist/mnist_train_lmdb
I0428 19:28:54.537763 21853 net.cpp:86] Creating Layer mnist
I0428 19:28:54.537770 21853 net.cpp:382] mnist -> data
I0428 19:28:54.537788 21853 net.cpp:382] mnist -> label
I0428 19:28:54.538698 21853 data_layer.cpp:45] output data size: 64,1,28,28
I0428 19:28:54.540936 21853 net.cpp:124] Setting up mnist
I0428 19:28:54.540968 21853 net.cpp:131] Top shape: 64 1 28 28 (50176)
I0428 19:28:54.540976 21853 net.cpp:131] Top shape: 64 (64)
I0428 19:28:54.540978 21853 net.cpp:139] Memory required for data: 200960
I0428 19:28:54.540985 21853 layer_factory.hpp:77] Creating layer conv0
I0428 19:28:54.540999 21853 net.cpp:86] Creating Layer conv0
I0428 19:28:54.541003 21853 net.cpp:408] conv0 <- data
I0428 19:28:54.541014 21853 net.cpp:382] conv0 -> conv0
I0428 19:28:54.772904 21853 net.cpp:124] Setting up conv0
I0428 19:28:54.772929 21853 net.cpp:131] Top shape: 64 2 24 24 (73728)
I0428 19:28:54.772933 21853 net.cpp:139] Memory required for data: 495872
I0428 19:28:54.772948 21853 layer_factory.hpp:77] Creating layer pool0
I0428 19:28:54.772959 21853 net.cpp:86] Creating Layer pool0
I0428 19:28:54.772964 21853 net.cpp:408] pool0 <- conv0
I0428 19:28:54.772969 21853 net.cpp:382] pool0 -> pool0
I0428 19:28:54.773028 21853 net.cpp:124] Setting up pool0
I0428 19:28:54.773035 21853 net.cpp:131] Top shape: 64 2 12 12 (18432)
I0428 19:28:54.773037 21853 net.cpp:139] Memory required for data: 569600
I0428 19:28:54.773039 21853 layer_factory.hpp:77] Creating layer ip1
I0428 19:28:54.773047 21853 net.cpp:86] Creating Layer ip1
I0428 19:28:54.773051 21853 net.cpp:408] ip1 <- pool0
I0428 19:28:54.773054 21853 net.cpp:382] ip1 -> ip1
I0428 19:28:54.773955 21853 net.cpp:124] Setting up ip1
I0428 19:28:54.773967 21853 net.cpp:131] Top shape: 64 10 (640)
I0428 19:28:54.773985 21853 net.cpp:139] Memory required for data: 572160
I0428 19:28:54.773993 21853 layer_factory.hpp:77] Creating layer relu1
I0428 19:28:54.774000 21853 net.cpp:86] Creating Layer relu1
I0428 19:28:54.774004 21853 net.cpp:408] relu1 <- ip1
I0428 19:28:54.774008 21853 net.cpp:369] relu1 -> ip1 (in-place)
I0428 19:28:54.774216 21853 net.cpp:124] Setting up relu1
I0428 19:28:54.774225 21853 net.cpp:131] Top shape: 64 10 (640)
I0428 19:28:54.774229 21853 net.cpp:139] Memory required for data: 574720
I0428 19:28:54.774231 21853 layer_factory.hpp:77] Creating layer loss
I0428 19:28:54.774242 21853 net.cpp:86] Creating Layer loss
I0428 19:28:54.774246 21853 net.cpp:408] loss <- ip1
I0428 19:28:54.774250 21853 net.cpp:408] loss <- label
I0428 19:28:54.774255 21853 net.cpp:382] loss -> loss
I0428 19:28:54.774268 21853 layer_factory.hpp:77] Creating layer loss
…
I0428 19:28:54.775416 21853 solver.cpp:173] Creating test net (#0) specified by net file: ECE595/mnist/train_test/var_everything2/lenet_train_test41.prototxt
I0428 19:28:54.775439 21853 net.cpp:296] The NetState phase (1) differed from the phase (0) specified by a rule in layer mnist
I0428 19:28:54.775503 21853 net.cpp:53] Initializing net from parameters: 
name: "LeNet"
state {
  phase: TEST
}
layer {
  name: "mnist"
  type: "Data"
  top: "data"
  top: "label"
  include {
    phase: TEST
  }
  transform_param {
    scale: 0.00390625
  }
  data_param {
    source: "examples/mnist/mnist_test_lmdb"
    batch_size: 100
    backend: LMDB
  }
}
layer {
  name: "conv0"
  type: "Convolution"
  bottom: "data"
  top: "conv0"
  param {
    lr_mult: 1
  }
  param {
    lr_mult: 2
  }
  convolution_param {
    num_output: 2
    kernel_size: 5
    stride: 1
    weight_filler {
      type: "xavier"
    }
    bias_filler {
      type: "constant"
    }
  }
}
layer {
  name: "pool0"
  type: "Pooling"
  bottom: "conv0"
  top: "pool0"
  pooling_param {
    pool: MAX
    kernel_size: 2
    stride: 2
  }
}
layer {
  name: "ip1"
  type: "InnerProduct"
  bottom: "pool0"
  top: "ip1"
  param {
    lr_mult: 1
  }
  param {
    lr_mult: 2
  }
  inner_product_param {
    num_output: 10
    weight_filler {
      type: "xavier"
    }
    bias_filler {
      type: "constant"
    }
  }
}
layer {
  name: "relu1"
  type: "ReLU"
  bottom: "ip1"
  top: "ip1"
}
layer {
  name: "accuracy"
  type: "Accuracy"
  bottom: "ip1"
  bottom: "label"
  top: "accuracy"
  include {
    phase: TEST
  }
}
layer {
  name: "loss"
  type: "SoftmaxWithLoss"
  bottom: "ip1"
  bottom: "label"
  top: "loss"
}
I0428 19:28:54.775558 21853 layer_factory.hpp:77] Creating layer mnist
I0428 19:28:54.775602 21853 db_lmdb.cpp:35] Opened lmdb examples/mnist/mnist_test_lmdb
I0428 19:28:54.775614 21853 net.cpp:86] Creating Layer mnist
I0428 19:28:54.775619 21853 net.cpp:382] mnist -> data
I0428 19:28:54.775626 21853 net.cpp:382] mnist -> label
I0428 19:28:54.775712 21853 data_layer.cpp:45] output data size: 100,1,28,28
I0428 19:28:54.777818 21853 net.cpp:124] Setting up mnist
I0428 19:28:54.777832 21853 net.cpp:131] Top shape: 100 1 28 28 (78400)
I0428 19:28:54.777835 21853 net.cpp:131] Top shape: 100 (100)
I0428 19:28:54.777838 21853 net.cpp:139] Memory required for data: 314000
I0428 19:28:54.777851 21853 layer_factory.hpp:77] Creating layer label_mnist_1_split
I0428 19:28:54.777859 21853 net.cpp:86] Creating Layer label_mnist_1_split
I0428 19:28:54.777863 21853 net.cpp:408] label_mnist_1_split <- label
I0428 19:28:54.777894 21853 net.cpp:382] label_mnist_1_split -> label_mnist_1_split_0
I0428 19:28:54.777900 21853 net.cpp:382] label_mnist_1_split -> label_mnist_1_split_1
I0428 19:28:54.777956 21853 net.cpp:124] Setting up label_mnist_1_split
I0428 19:28:54.777962 21853 net.cpp:131] Top shape: 100 (100)
I0428 19:28:54.777981 21853 net.cpp:131] Top shape: 100 (100)
I0428 19:28:54.777984 21853 net.cpp:139] Memory required for data: 314800
I0428 19:28:54.777987 21853 layer_factory.hpp:77] Creating layer conv0
I0428 19:28:54.777997 21853 net.cpp:86] Creating Layer conv0
I0428 19:28:54.777999 21853 net.cpp:408] conv0 <- data
I0428 19:28:54.778004 21853 net.cpp:382] conv0 -> conv0
I0428 19:28:54.779747 21853 net.cpp:124] Setting up conv0
I0428 19:28:54.779759 21853 net.cpp:131] Top shape: 100 2 24 24 (115200)
I0428 19:28:54.779763 21853 net.cpp:139] Memory required for data: 775600
I0428 19:28:54.779772 21853 layer_factory.hpp:77] Creating layer pool0
I0428 19:28:54.779778 21853 net.cpp:86] Creating Layer pool0
I0428 19:28:54.779780 21853 net.cpp:408] pool0 <- conv0
I0428 19:28:54.779786 21853 net.cpp:382] pool0 -> pool0
I0428 19:28:54.779819 21853 net.cpp:124] Setting up pool0
I0428 19:28:54.779825 21853 net.cpp:131] Top shape: 100 2 12 12 (28800)
I0428 19:28:54.779827 21853 net.cpp:139] Memory required for data: 890800
I0428 19:28:54.779830 21853 layer_factory.hpp:77] Creating layer ip1
I0428 19:28:54.779836 21853 net.cpp:86] Creating Layer ip1
I0428 19:28:54.779839 21853 net.cpp:408] ip1 <- pool0
I0428 19:28:54.779844 21853 net.cpp:382] ip1 -> ip1
I0428 19:28:54.779947 21853 net.cpp:124] Setting up ip1
I0428 19:28:54.779953 21853 net.cpp:131] Top shape: 100 10 (1000)
I0428 19:28:54.779956 21853 net.cpp:139] Memory required for data: 894800
I0428 19:28:54.779963 21853 layer_factory.hpp:77] Creating layer relu1
I0428 19:28:54.779968 21853 net.cpp:86] Creating Layer relu1
I0428 19:28:54.779971 21853 net.cpp:408] relu1 <- ip1
I0428 19:28:54.779974 21853 net.cpp:369] relu1 -> ip1 (in-place)
I0428 19:28:54.780136 21853 net.cpp:124] Setting up relu1
I0428 19:28:54.780144 21853 net.cpp:131] Top shape: 100 10 (1000)
I0428 19:28:54.780148 21853 net.cpp:139] Memory required for data: 898800
I0428 19:28:54.780150 21853 layer_factory.hpp:77] Creating layer ip1_relu1_0_split
I0428 19:28:54.780154 21853 net.cpp:86] Creating Layer ip1_relu1_0_split
I0428 19:28:54.780158 21853 net.cpp:408] ip1_relu1_0_split <- ip1
I0428 19:28:54.780163 21853 net.cpp:382] ip1_relu1_0_split -> ip1_relu1_0_split_0
I0428 19:28:54.780167 21853 net.cpp:382] ip1_relu1_0_split -> ip1_relu1_0_split_1
I0428 19:28:54.780220 21853 net.cpp:124] Setting up ip1_relu1_0_split
I0428 19:28:54.780225 21853 net.cpp:131] Top shape: 100 10 (1000)
I0428 19:28:54.780228 21853 net.cpp:131] Top shape: 100 10 (1000)
I0428 19:28:54.780231 21853 net.cpp:139] Memory required for data: 906800
I0428 19:28:54.780233 21853 layer_factory.hpp:77] Creating layer accuracy
I0428 19:28:54.780238 21853 net.cpp:86] Creating Layer accuracy
I0428 19:28:54.780241 21853 net.cpp:408] accuracy <- ip1_relu1_0_split_0
I0428 19:28:54.780246 21853 net.cpp:408] accuracy <- label_mnist_1_split_0
I0428 19:28:54.780249 21853 net.cpp:382] accuracy -> accuracy
…
