…
I0428 19:48:56.097223 26629 net.cpp:296] The NetState phase (0) differed from the phase (1) specified by a rule in layer mnist
I0428 19:48:56.097254 26629 net.cpp:296] The NetState phase (0) differed from the phase (1) specified by a rule in layer accuracy
I0428 19:48:56.097368 26629 net.cpp:53] Initializing net from parameters: 
name: "LeNet"
state {
  phase: TRAIN
  level: 0
  stage: ""
}
layer {
  name: "mnist"
  type: "Data"
  top: "data"
  top: "label"
  include {
    phase: TRAIN
  }
  transform_param {
    scale: 0.00390625
  }
  data_param {
    source: "examples/mnist/mnist_train_lmdb"
    batch_size: 64
    backend: LMDB
  }
}
layer {
  name: "conv0"
  type: "Convolution"
  bottom: "data"
  top: "conv0"
  param {
    lr_mult: 1
  }
  param {
    lr_mult: 2
  }
  convolution_param {
    num_output: 5
    kernel_size: 5
    stride: 1
    weight_filler {
      type: "xavier"
    }
    bias_filler {
      type: "constant"
    }
  }
}
layer {
  name: "pool0"
  type: "Pooling"
  bottom: "conv0"
  top: "pool0"
  pooling_param {
    pool: MAX
    kernel_size: 2
    stride: 2
  }
}
layer {
  name: "conv1"
  type: "Convolution"
  bottom: "pool0"
  top: "conv1"
  param {
    lr_mult: 1
  }
  param {
    lr_mult: 2
  }
  convolution_param {
    num_output: 5
    kernel_size: 5
    stride: 1
    weight_filler {
      type: "xavier"
    }
    bias_filler {
      type: "constant"
    }
  }
}
layer {
  name: "pool1"
  type: "Pooling"
  bottom: "conv1"
  top: "pool1"
  pooling_param {
    pool: MAX
    kernel_size: 2
    stride: 2
  }
}
layer {
  name: "ip1"
  type: "InnerProduct"
  bottom: "pool1"
  top: "ip1"
  param {
    lr_mult: 1
  }
  param {
    lr_mult: 2
  }
  inner_product_param {
    num_output: 10
    weight_filler {
      type: "xavier"
    }
    bias_filler {
      type: "constant"
    }
  }
}
layer {
  name: "relu1"
  type: "ReLU"
  bottom: "ip1"
  top: "ip1"
}
layer {
  name: "ip2"
  type: "InnerProduct"
  bottom: "ip1"
  top: "ip2"
  param {
    lr_mult: 1
  }
  param {
    lr_mult: 2
  }
  inner_product_param {
    num_output: 10
    weight_filler {
      type: "xavier"
    }
    bias_filler {
      type: "constant"
    }
  }
}
layer {
  name: "relu2"
  type: "ReLU"
  bottom: "ip2"
  top: "ip2"
}
layer {
  name: "ip3"
  type: "InnerProduct"
  bottom: "ip2"
  top: "ip3"
  param {
    lr_mult: 1
  }
  param {
    lr_mult: 2
  }
  inner_product_param {
    num_output: 10
    weight_filler {
      type: "xavier"
    }
    bias_filler {
      type: "constant"
    }
  }
}
layer {
  name: "relu3"
  type: "ReLU"
  bottom: "ip3"
  top: "ip3"
}
layer {
  name: "loss"
  type: "SoftmaxWithLoss"
  bottom: "ip3"
  bottom: "label"
  top: "loss"
}
I0428 19:48:56.097434 26629 layer_factory.hpp:77] Creating layer mnist
I0428 19:48:56.097518 26629 db_lmdb.cpp:35] Opened lmdb examples/mnist/mnist_train_lmdb
I0428 19:48:56.097538 26629 net.cpp:86] Creating Layer mnist
I0428 19:48:56.097544 26629 net.cpp:382] mnist -> data
I0428 19:48:56.097563 26629 net.cpp:382] mnist -> label
I0428 19:48:56.098510 26629 data_layer.cpp:45] output data size: 64,1,28,28
I0428 19:48:56.100735 26629 net.cpp:124] Setting up mnist
I0428 19:48:56.100766 26629 net.cpp:131] Top shape: 64 1 28 28 (50176)
I0428 19:48:56.100771 26629 net.cpp:131] Top shape: 64 (64)
I0428 19:48:56.100775 26629 net.cpp:139] Memory required for data: 200960
I0428 19:48:56.100780 26629 layer_factory.hpp:77] Creating layer conv0
I0428 19:48:56.100795 26629 net.cpp:86] Creating Layer conv0
I0428 19:48:56.100833 26629 net.cpp:408] conv0 <- data
I0428 19:48:56.100862 26629 net.cpp:382] conv0 -> conv0
I0428 19:48:56.325662 26629 net.cpp:124] Setting up conv0
I0428 19:48:56.325705 26629 net.cpp:131] Top shape: 64 5 24 24 (184320)
I0428 19:48:56.325708 26629 net.cpp:139] Memory required for data: 938240
I0428 19:48:56.325723 26629 layer_factory.hpp:77] Creating layer pool0
I0428 19:48:56.325736 26629 net.cpp:86] Creating Layer pool0
I0428 19:48:56.325739 26629 net.cpp:408] pool0 <- conv0
I0428 19:48:56.325744 26629 net.cpp:382] pool0 -> pool0
I0428 19:48:56.325808 26629 net.cpp:124] Setting up pool0
I0428 19:48:56.325812 26629 net.cpp:131] Top shape: 64 5 12 12 (46080)
I0428 19:48:56.325816 26629 net.cpp:139] Memory required for data: 1122560
I0428 19:48:56.325819 26629 layer_factory.hpp:77] Creating layer conv1
I0428 19:48:56.325829 26629 net.cpp:86] Creating Layer conv1
I0428 19:48:56.325832 26629 net.cpp:408] conv1 <- pool0
I0428 19:48:56.325836 26629 net.cpp:382] conv1 -> conv1
I0428 19:48:56.327785 26629 net.cpp:124] Setting up conv1
I0428 19:48:56.327813 26629 net.cpp:131] Top shape: 64 5 8 8 (20480)
I0428 19:48:56.327817 26629 net.cpp:139] Memory required for data: 1204480
I0428 19:48:56.327826 26629 layer_factory.hpp:77] Creating layer pool1
I0428 19:48:56.327848 26629 net.cpp:86] Creating Layer pool1
I0428 19:48:56.327852 26629 net.cpp:408] pool1 <- conv1
I0428 19:48:56.327857 26629 net.cpp:382] pool1 -> pool1
I0428 19:48:56.327911 26629 net.cpp:124] Setting up pool1
I0428 19:48:56.327916 26629 net.cpp:131] Top shape: 64 5 4 4 (5120)
I0428 19:48:56.327919 26629 net.cpp:139] Memory required for data: 1224960
I0428 19:48:56.327924 26629 layer_factory.hpp:77] Creating layer ip1
I0428 19:48:56.327930 26629 net.cpp:86] Creating Layer ip1
I0428 19:48:56.327934 26629 net.cpp:408] ip1 <- pool1
I0428 19:48:56.327939 26629 net.cpp:382] ip1 -> ip1
I0428 19:48:56.328055 26629 net.cpp:124] Setting up ip1
I0428 19:48:56.328063 26629 net.cpp:131] Top shape: 64 10 (640)
I0428 19:48:56.328066 26629 net.cpp:139] Memory required for data: 1227520
I0428 19:48:56.328073 26629 layer_factory.hpp:77] Creating layer relu1
I0428 19:48:56.328078 26629 net.cpp:86] Creating Layer relu1
I0428 19:48:56.328083 26629 net.cpp:408] relu1 <- ip1
I0428 19:48:56.328086 26629 net.cpp:369] relu1 -> ip1 (in-place)
I0428 19:48:56.328289 26629 net.cpp:124] Setting up relu1
I0428 19:48:56.328297 26629 net.cpp:131] Top shape: 64 10 (640)
I0428 19:48:56.328300 26629 net.cpp:139] Memory required for data: 1230080
I0428 19:48:56.328303 26629 layer_factory.hpp:77] Creating layer ip2
I0428 19:48:56.328310 26629 net.cpp:86] Creating Layer ip2
I0428 19:48:56.328313 26629 net.cpp:408] ip2 <- ip1
I0428 19:48:56.328318 26629 net.cpp:382] ip2 -> ip2
I0428 19:48:56.328411 26629 net.cpp:124] Setting up ip2
I0428 19:48:56.328418 26629 net.cpp:131] Top shape: 64 10 (640)
I0428 19:48:56.328421 26629 net.cpp:139] Memory required for data: 1232640
I0428 19:48:56.328426 26629 layer_factory.hpp:77] Creating layer relu2
I0428 19:48:56.328433 26629 net.cpp:86] Creating Layer relu2
I0428 19:48:56.328436 26629 net.cpp:408] relu2 <- ip2
I0428 19:48:56.328440 26629 net.cpp:369] relu2 -> ip2 (in-place)
I0428 19:48:56.329330 26629 net.cpp:124] Setting up relu2
I0428 19:48:56.329342 26629 net.cpp:131] Top shape: 64 10 (640)
I0428 19:48:56.329361 26629 net.cpp:139] Memory required for data: 1235200
I0428 19:48:56.329365 26629 layer_factory.hpp:77] Creating layer ip3
I0428 19:48:56.329371 26629 net.cpp:86] Creating Layer ip3
I0428 19:48:56.329375 26629 net.cpp:408] ip3 <- ip2
I0428 19:48:56.329380 26629 net.cpp:382] ip3 -> ip3
I0428 19:48:56.329471 26629 net.cpp:124] Setting up ip3
I0428 19:48:56.329478 26629 net.cpp:131] Top shape: 64 10 (640)
I0428 19:48:56.329481 26629 net.cpp:139] Memory required for data: 1237760
I0428 19:48:56.329489 26629 layer_factory.hpp:77] Creating layer relu3
I0428 19:48:56.329494 26629 net.cpp:86] Creating Layer relu3
I0428 19:48:56.329497 26629 net.cpp:408] relu3 <- ip3
I0428 19:48:56.329500 26629 net.cpp:369] relu3 -> ip3 (in-place)
I0428 19:48:56.329679 26629 net.cpp:124] Setting up relu3
I0428 19:48:56.329687 26629 net.cpp:131] Top shape: 64 10 (640)
I0428 19:48:56.329691 26629 net.cpp:139] Memory required for data: 1240320
I0428 19:48:56.329694 26629 layer_factory.hpp:77] Creating layer loss
I0428 19:48:56.329704 26629 net.cpp:86] Creating Layer loss
I0428 19:48:56.329708 26629 net.cpp:408] loss <- ip3
I0428 19:48:56.329712 26629 net.cpp:408] loss <- label
I0428 19:48:56.329717 26629 net.cpp:382] loss -> loss
I0428 19:48:56.329730 26629 layer_factory.hpp:77] Creating layer loss
…
I0428 19:48:56.330503 26629 solver.cpp:173] Creating test net (#0) specified by net file: ECE595/mnist/train_test/var_everything2/lenet_train_test559.prototxt
I0428 19:48:56.330557 26629 net.cpp:296] The NetState phase (1) differed from the phase (0) specified by a rule in layer mnist
I0428 19:48:56.330643 26629 net.cpp:53] Initializing net from parameters: 
name: "LeNet"
state {
  phase: TEST
}
layer {
  name: "mnist"
  type: "Data"
  top: "data"
  top: "label"
  include {
    phase: TEST
  }
  transform_param {
    scale: 0.00390625
  }
  data_param {
    source: "examples/mnist/mnist_test_lmdb"
    batch_size: 100
    backend: LMDB
  }
}
layer {
  name: "conv0"
  type: "Convolution"
  bottom: "data"
  top: "conv0"
  param {
    lr_mult: 1
  }
  param {
    lr_mult: 2
  }
  convolution_param {
    num_output: 5
    kernel_size: 5
    stride: 1
    weight_filler {
      type: "xavier"
    }
    bias_filler {
      type: "constant"
    }
  }
}
layer {
  name: "pool0"
  type: "Pooling"
  bottom: "conv0"
  top: "pool0"
  pooling_param {
    pool: MAX
    kernel_size: 2
    stride: 2
  }
}
layer {
  name: "conv1"
  type: "Convolution"
  bottom: "pool0"
  top: "conv1"
  param {
    lr_mult: 1
  }
  param {
    lr_mult: 2
  }
  convolution_param {
    num_output: 5
    kernel_size: 5
    stride: 1
    weight_filler {
      type: "xavier"
    }
    bias_filler {
      type: "constant"
    }
  }
}
layer {
  name: "pool1"
  type: "Pooling"
  bottom: "conv1"
  top: "pool1"
  pooling_param {
    pool: MAX
    kernel_size: 2
    stride: 2
  }
}
layer {
  name: "ip1"
  type: "InnerProduct"
  bottom: "pool1"
  top: "ip1"
  param {
    lr_mult: 1
  }
  param {
    lr_mult: 2
  }
  inner_product_param {
    num_output: 10
    weight_filler {
      type: "xavier"
    }
    bias_filler {
      type: "constant"
    }
  }
}
layer {
  name: "relu1"
  type: "ReLU"
  bottom: "ip1"
  top: "ip1"
}
layer {
  name: "ip2"
  type: "InnerProduct"
  bottom: "ip1"
  top: "ip2"
  param {
    lr_mult: 1
  }
  param {
    lr_mult: 2
  }
  inner_product_param {
    num_output: 10
    weight_filler {
      type: "xavier"
    }
    bias_filler {
      type: "constant"
    }
  }
}
layer {
  name: "relu2"
  type: "ReLU"
  bottom: "ip2"
  top: "ip2"
}
layer {
  name: "ip3"
  type: "InnerProduct"
  bottom: "ip2"
  top: "ip3"
  param {
    lr_mult: 1
  }
  param {
    lr_mult: 2
  }
  inner_product_param {
    num_output: 10
    weight_filler {
      type: "xavier"
    }
    bias_filler {
      type: "constant"
    }
  }
}
layer {
  name: "relu3"
  type: "ReLU"
  bottom: "ip3"
  top: "ip3"
}
layer {
  name: "accuracy"
  type: "Accuracy"
  bottom: "ip3"
  bottom: "label"
  top: "accuracy"
  include {
    phase: TEST
  }
}
layer {
  name: "loss"
  type: "SoftmaxWithLoss"
  bottom: "ip3"
  bottom: "label"
  top: "loss"
}
I0428 19:48:56.330723 26629 layer_factory.hpp:77] Creating layer mnist
I0428 19:48:56.330765 26629 db_lmdb.cpp:35] Opened lmdb examples/mnist/mnist_test_lmdb
I0428 19:48:56.330778 26629 net.cpp:86] Creating Layer mnist
I0428 19:48:56.330783 26629 net.cpp:382] mnist -> data
I0428 19:48:56.330790 26629 net.cpp:382] mnist -> label
I0428 19:48:56.330885 26629 data_layer.cpp:45] output data size: 100,1,28,28
I0428 19:48:56.332911 26629 net.cpp:124] Setting up mnist
I0428 19:48:56.332957 26629 net.cpp:131] Top shape: 100 1 28 28 (78400)
I0428 19:48:56.332962 26629 net.cpp:131] Top shape: 100 (100)
I0428 19:48:56.332980 26629 net.cpp:139] Memory required for data: 314000
I0428 19:48:56.332984 26629 layer_factory.hpp:77] Creating layer label_mnist_1_split
I0428 19:48:56.332991 26629 net.cpp:86] Creating Layer label_mnist_1_split
I0428 19:48:56.332994 26629 net.cpp:408] label_mnist_1_split <- label
I0428 19:48:56.333000 26629 net.cpp:382] label_mnist_1_split -> label_mnist_1_split_0
I0428 19:48:56.333006 26629 net.cpp:382] label_mnist_1_split -> label_mnist_1_split_1
I0428 19:48:56.333081 26629 net.cpp:124] Setting up label_mnist_1_split
I0428 19:48:56.333088 26629 net.cpp:131] Top shape: 100 (100)
I0428 19:48:56.333092 26629 net.cpp:131] Top shape: 100 (100)
I0428 19:48:56.333096 26629 net.cpp:139] Memory required for data: 314800
I0428 19:48:56.333098 26629 layer_factory.hpp:77] Creating layer conv0
I0428 19:48:56.333107 26629 net.cpp:86] Creating Layer conv0
I0428 19:48:56.333112 26629 net.cpp:408] conv0 <- data
I0428 19:48:56.333117 26629 net.cpp:382] conv0 -> conv0
I0428 19:48:56.334836 26629 net.cpp:124] Setting up conv0
I0428 19:48:56.334864 26629 net.cpp:131] Top shape: 100 5 24 24 (288000)
I0428 19:48:56.334868 26629 net.cpp:139] Memory required for data: 1466800
I0428 19:48:56.334877 26629 layer_factory.hpp:77] Creating layer pool0
I0428 19:48:56.334883 26629 net.cpp:86] Creating Layer pool0
I0428 19:48:56.334887 26629 net.cpp:408] pool0 <- conv0
I0428 19:48:56.334892 26629 net.cpp:382] pool0 -> pool0
I0428 19:48:56.334925 26629 net.cpp:124] Setting up pool0
I0428 19:48:56.334931 26629 net.cpp:131] Top shape: 100 5 12 12 (72000)
I0428 19:48:56.334934 26629 net.cpp:139] Memory required for data: 1754800
I0428 19:48:56.334936 26629 layer_factory.hpp:77] Creating layer conv1
I0428 19:48:56.334944 26629 net.cpp:86] Creating Layer conv1
I0428 19:48:56.334949 26629 net.cpp:408] conv1 <- pool0
I0428 19:48:56.334952 26629 net.cpp:382] conv1 -> conv1
I0428 19:48:56.337200 26629 net.cpp:124] Setting up conv1
I0428 19:48:56.337213 26629 net.cpp:131] Top shape: 100 5 8 8 (32000)
I0428 19:48:56.337232 26629 net.cpp:139] Memory required for data: 1882800
I0428 19:48:56.337240 26629 layer_factory.hpp:77] Creating layer pool1
I0428 19:48:56.337246 26629 net.cpp:86] Creating Layer pool1
I0428 19:48:56.337250 26629 net.cpp:408] pool1 <- conv1
I0428 19:48:56.337255 26629 net.cpp:382] pool1 -> pool1
I0428 19:48:56.337330 26629 net.cpp:124] Setting up pool1
I0428 19:48:56.337343 26629 net.cpp:131] Top shape: 100 5 4 4 (8000)
I0428 19:48:56.337347 26629 net.cpp:139] Memory required for data: 1914800
I0428 19:48:56.337349 26629 layer_factory.hpp:77] Creating layer ip1
I0428 19:48:56.337355 26629 net.cpp:86] Creating Layer ip1
I0428 19:48:56.337358 26629 net.cpp:408] ip1 <- pool1
I0428 19:48:56.337363 26629 net.cpp:382] ip1 -> ip1
I0428 19:48:56.337507 26629 net.cpp:124] Setting up ip1
I0428 19:48:56.337514 26629 net.cpp:131] Top shape: 100 10 (1000)
I0428 19:48:56.337528 26629 net.cpp:139] Memory required for data: 1918800
I0428 19:48:56.337537 26629 layer_factory.hpp:77] Creating layer relu1
I0428 19:48:56.337541 26629 net.cpp:86] Creating Layer relu1
I0428 19:48:56.337545 26629 net.cpp:408] relu1 <- ip1
I0428 19:48:56.337550 26629 net.cpp:369] relu1 -> ip1 (in-place)
I0428 19:48:56.337729 26629 net.cpp:124] Setting up relu1
I0428 19:48:56.337738 26629 net.cpp:131] Top shape: 100 10 (1000)
I0428 19:48:56.337741 26629 net.cpp:139] Memory required for data: 1922800
I0428 19:48:56.337745 26629 layer_factory.hpp:77] Creating layer ip2
I0428 19:48:56.337752 26629 net.cpp:86] Creating Layer ip2
I0428 19:48:56.337756 26629 net.cpp:408] ip2 <- ip1
I0428 19:48:56.337760 26629 net.cpp:382] ip2 -> ip2
I0428 19:48:56.337853 26629 net.cpp:124] Setting up ip2
I0428 19:48:56.337860 26629 net.cpp:131] Top shape: 100 10 (1000)
I0428 19:48:56.337863 26629 net.cpp:139] Memory required for data: 1926800
I0428 19:48:56.337868 26629 layer_factory.hpp:77] Creating layer relu2
I0428 19:48:56.337872 26629 net.cpp:86] Creating Layer relu2
I0428 19:48:56.337875 26629 net.cpp:408] relu2 <- ip2
I0428 19:48:56.337879 26629 net.cpp:369] relu2 -> ip2 (in-place)
I0428 19:48:56.338032 26629 net.cpp:124] Setting up relu2
I0428 19:48:56.338054 26629 net.cpp:131] Top shape: 100 10 (1000)
I0428 19:48:56.338065 26629 net.cpp:139] Memory required for data: 1930800
I0428 19:48:56.338068 26629 layer_factory.hpp:77] Creating layer ip3
I0428 19:48:56.338078 26629 net.cpp:86] Creating Layer ip3
I0428 19:48:56.338081 26629 net.cpp:408] ip3 <- ip2
I0428 19:48:56.338085 26629 net.cpp:382] ip3 -> ip3
I0428 19:48:56.338173 26629 net.cpp:124] Setting up ip3
I0428 19:48:56.338181 26629 net.cpp:131] Top shape: 100 10 (1000)
I0428 19:48:56.338184 26629 net.cpp:139] Memory required for data: 1934800
I0428 19:48:56.338191 26629 layer_factory.hpp:77] Creating layer relu3
I0428 19:48:56.338196 26629 net.cpp:86] Creating Layer relu3
I0428 19:48:56.338199 26629 net.cpp:408] relu3 <- ip3
I0428 19:48:56.338202 26629 net.cpp:369] relu3 -> ip3 (in-place)
I0428 19:48:56.338937 26629 net.cpp:124] Setting up relu3
I0428 19:48:56.338948 26629 net.cpp:131] Top shape: 100 10 (1000)
I0428 19:48:56.338965 26629 net.cpp:139] Memory required for data: 1938800
I0428 19:48:56.338969 26629 layer_factory.hpp:77] Creating layer ip3_relu3_0_split
I0428 19:48:56.338974 26629 net.cpp:86] Creating Layer ip3_relu3_0_split
I0428 19:48:56.338977 26629 net.cpp:408] ip3_relu3_0_split <- ip3
I0428 19:48:56.338997 26629 net.cpp:382] ip3_relu3_0_split -> ip3_relu3_0_split_0
I0428 19:48:56.339004 26629 net.cpp:382] ip3_relu3_0_split -> ip3_relu3_0_split_1
I0428 19:48:56.339059 26629 net.cpp:124] Setting up ip3_relu3_0_split
I0428 19:48:56.339064 26629 net.cpp:131] Top shape: 100 10 (1000)
I0428 19:48:56.339068 26629 net.cpp:131] Top shape: 100 10 (1000)
I0428 19:48:56.339071 26629 net.cpp:139] Memory required for data: 1946800
I0428 19:48:56.339074 26629 layer_factory.hpp:77] Creating layer accuracy
I0428 19:48:56.339078 26629 net.cpp:86] Creating Layer accuracy
I0428 19:48:56.339082 26629 net.cpp:408] accuracy <- ip3_relu3_0_split_0
I0428 19:48:56.339087 26629 net.cpp:408] accuracy <- label_mnist_1_split_0
I0428 19:48:56.339090 26629 net.cpp:382] accuracy -> accuracy
…
