…
I0428 20:01:17.609683 29693 net.cpp:296] The NetState phase (0) differed from the phase (1) specified by a rule in layer mnist
I0428 20:01:17.609714 29693 net.cpp:296] The NetState phase (0) differed from the phase (1) specified by a rule in layer accuracy
I0428 20:01:17.609833 29693 net.cpp:53] Initializing net from parameters: 
name: "LeNet"
state {
  phase: TRAIN
  level: 0
  stage: ""
}
layer {
  name: "mnist"
  type: "Data"
  top: "data"
  top: "label"
  include {
    phase: TRAIN
  }
  transform_param {
    scale: 0.00390625
  }
  data_param {
    source: "examples/mnist/mnist_train_lmdb"
    batch_size: 64
    backend: LMDB
  }
}
layer {
  name: "conv0"
  type: "Convolution"
  bottom: "data"
  top: "conv0"
  param {
    lr_mult: 1
  }
  param {
    lr_mult: 2
  }
  convolution_param {
    num_output: 10
    kernel_size: 5
    stride: 1
    weight_filler {
      type: "xavier"
    }
    bias_filler {
      type: "constant"
    }
  }
}
layer {
  name: "pool0"
  type: "Pooling"
  bottom: "conv0"
  top: "pool0"
  pooling_param {
    pool: MAX
    kernel_size: 2
    stride: 2
  }
}
layer {
  name: "conv1"
  type: "Convolution"
  bottom: "pool0"
  top: "conv1"
  param {
    lr_mult: 1
  }
  param {
    lr_mult: 2
  }
  convolution_param {
    num_output: 50
    kernel_size: 5
    stride: 1
    weight_filler {
      type: "xavier"
    }
    bias_filler {
      type: "constant"
    }
  }
}
layer {
  name: "pool1"
  type: "Pooling"
  bottom: "conv1"
  top: "pool1"
  pooling_param {
    pool: MAX
    kernel_size: 2
    stride: 2
  }
}
layer {
  name: "ip1"
  type: "InnerProduct"
  bottom: "pool1"
  top: "ip1"
  param {
    lr_mult: 1
  }
  param {
    lr_mult: 2
  }
  inner_product_param {
    num_output: 10
    weight_filler {
      type: "xavier"
    }
    bias_filler {
      type: "constant"
    }
  }
}
layer {
  name: "relu1"
  type: "ReLU"
  bottom: "ip1"
  top: "ip1"
}
layer {
  name: "loss"
  type: "SoftmaxWithLoss"
  bottom: "ip1"
  bottom: "label"
  top: "loss"
}
I0428 20:01:17.609920 29693 layer_factory.hpp:77] Creating layer mnist
I0428 20:01:17.610026 29693 db_lmdb.cpp:35] Opened lmdb examples/mnist/mnist_train_lmdb
I0428 20:01:17.610051 29693 net.cpp:86] Creating Layer mnist
I0428 20:01:17.610060 29693 net.cpp:382] mnist -> data
I0428 20:01:17.610085 29693 net.cpp:382] mnist -> label
I0428 20:01:17.611354 29693 data_layer.cpp:45] output data size: 64,1,28,28
I0428 20:01:17.614497 29693 net.cpp:124] Setting up mnist
I0428 20:01:17.614547 29693 net.cpp:131] Top shape: 64 1 28 28 (50176)
I0428 20:01:17.614554 29693 net.cpp:131] Top shape: 64 (64)
I0428 20:01:17.614560 29693 net.cpp:139] Memory required for data: 200960
I0428 20:01:17.614568 29693 layer_factory.hpp:77] Creating layer conv0
I0428 20:01:17.614600 29693 net.cpp:86] Creating Layer conv0
I0428 20:01:17.614608 29693 net.cpp:408] conv0 <- data
I0428 20:01:17.614619 29693 net.cpp:382] conv0 -> conv0
I0428 20:01:17.904093 29693 net.cpp:124] Setting up conv0
I0428 20:01:17.904124 29693 net.cpp:131] Top shape: 64 10 24 24 (368640)
I0428 20:01:17.904129 29693 net.cpp:139] Memory required for data: 1675520
I0428 20:01:17.904147 29693 layer_factory.hpp:77] Creating layer pool0
I0428 20:01:17.904163 29693 net.cpp:86] Creating Layer pool0
I0428 20:01:17.904168 29693 net.cpp:408] pool0 <- conv0
I0428 20:01:17.904175 29693 net.cpp:382] pool0 -> pool0
I0428 20:01:17.904249 29693 net.cpp:124] Setting up pool0
I0428 20:01:17.904263 29693 net.cpp:131] Top shape: 64 10 12 12 (92160)
I0428 20:01:17.904284 29693 net.cpp:139] Memory required for data: 2044160
I0428 20:01:17.904289 29693 layer_factory.hpp:77] Creating layer conv1
I0428 20:01:17.904304 29693 net.cpp:86] Creating Layer conv1
I0428 20:01:17.904309 29693 net.cpp:408] conv1 <- pool0
I0428 20:01:17.904315 29693 net.cpp:382] conv1 -> conv1
I0428 20:01:17.908079 29693 net.cpp:124] Setting up conv1
I0428 20:01:17.908112 29693 net.cpp:131] Top shape: 64 50 8 8 (204800)
I0428 20:01:17.908116 29693 net.cpp:139] Memory required for data: 2863360
I0428 20:01:17.908141 29693 layer_factory.hpp:77] Creating layer pool1
I0428 20:01:17.908151 29693 net.cpp:86] Creating Layer pool1
I0428 20:01:17.908156 29693 net.cpp:408] pool1 <- conv1
I0428 20:01:17.908177 29693 net.cpp:382] pool1 -> pool1
I0428 20:01:17.908222 29693 net.cpp:124] Setting up pool1
I0428 20:01:17.908231 29693 net.cpp:131] Top shape: 64 50 4 4 (51200)
I0428 20:01:17.908236 29693 net.cpp:139] Memory required for data: 3068160
I0428 20:01:17.908241 29693 layer_factory.hpp:77] Creating layer ip1
I0428 20:01:17.908249 29693 net.cpp:86] Creating Layer ip1
I0428 20:01:17.908254 29693 net.cpp:408] ip1 <- pool1
I0428 20:01:17.908260 29693 net.cpp:382] ip1 -> ip1
I0428 20:01:17.908447 29693 net.cpp:124] Setting up ip1
I0428 20:01:17.908457 29693 net.cpp:131] Top shape: 64 10 (640)
I0428 20:01:17.908460 29693 net.cpp:139] Memory required for data: 3070720
I0428 20:01:17.908470 29693 layer_factory.hpp:77] Creating layer relu1
I0428 20:01:17.908478 29693 net.cpp:86] Creating Layer relu1
I0428 20:01:17.908483 29693 net.cpp:408] relu1 <- ip1
I0428 20:01:17.908489 29693 net.cpp:369] relu1 -> ip1 (in-place)
I0428 20:01:17.908686 29693 net.cpp:124] Setting up relu1
I0428 20:01:17.908697 29693 net.cpp:131] Top shape: 64 10 (640)
I0428 20:01:17.908701 29693 net.cpp:139] Memory required for data: 3073280
I0428 20:01:17.908706 29693 layer_factory.hpp:77] Creating layer loss
I0428 20:01:17.908715 29693 net.cpp:86] Creating Layer loss
I0428 20:01:17.908718 29693 net.cpp:408] loss <- ip1
I0428 20:01:17.908725 29693 net.cpp:408] loss <- label
I0428 20:01:17.908731 29693 net.cpp:382] loss -> loss
I0428 20:01:17.908752 29693 layer_factory.hpp:77] Creating layer loss
…
I0428 20:01:17.910560 29693 solver.cpp:173] Creating test net (#0) specified by net file: ECE595/mnist/train_test/var_everything2/lenet_train_test899.prototxt
I0428 20:01:17.910607 29693 net.cpp:296] The NetState phase (1) differed from the phase (0) specified by a rule in layer mnist
I0428 20:01:17.910709 29693 net.cpp:53] Initializing net from parameters: 
name: "LeNet"
state {
  phase: TEST
}
layer {
  name: "mnist"
  type: "Data"
  top: "data"
  top: "label"
  include {
    phase: TEST
  }
  transform_param {
    scale: 0.00390625
  }
  data_param {
    source: "examples/mnist/mnist_test_lmdb"
    batch_size: 100
    backend: LMDB
  }
}
layer {
  name: "conv0"
  type: "Convolution"
  bottom: "data"
  top: "conv0"
  param {
    lr_mult: 1
  }
  param {
    lr_mult: 2
  }
  convolution_param {
    num_output: 10
    kernel_size: 5
    stride: 1
    weight_filler {
      type: "xavier"
    }
    bias_filler {
      type: "constant"
    }
  }
}
layer {
  name: "pool0"
  type: "Pooling"
  bottom: "conv0"
  top: "pool0"
  pooling_param {
    pool: MAX
    kernel_size: 2
    stride: 2
  }
}
layer {
  name: "conv1"
  type: "Convolution"
  bottom: "pool0"
  top: "conv1"
  param {
    lr_mult: 1
  }
  param {
    lr_mult: 2
  }
  convolution_param {
    num_output: 50
    kernel_size: 5
    stride: 1
    weight_filler {
      type: "xavier"
    }
    bias_filler {
      type: "constant"
    }
  }
}
layer {
  name: "pool1"
  type: "Pooling"
  bottom: "conv1"
  top: "pool1"
  pooling_param {
    pool: MAX
    kernel_size: 2
    stride: 2
  }
}
layer {
  name: "ip1"
  type: "InnerProduct"
  bottom: "pool1"
  top: "ip1"
  param {
    lr_mult: 1
  }
  param {
    lr_mult: 2
  }
  inner_product_param {
    num_output: 10
    weight_filler {
      type: "xavier"
    }
    bias_filler {
      type: "constant"
    }
  }
}
layer {
  name: "relu1"
  type: "ReLU"
  bottom: "ip1"
  top: "ip1"
}
layer {
  name: "accuracy"
  type: "Accuracy"
  bottom: "ip1"
  bottom: "label"
  top: "accuracy"
  include {
    phase: TEST
  }
}
layer {
  name: "loss"
  type: "SoftmaxWithLoss"
  bottom: "ip1"
  bottom: "label"
  top: "loss"
}
I0428 20:01:17.910804 29693 layer_factory.hpp:77] Creating layer mnist
I0428 20:01:17.910861 29693 db_lmdb.cpp:35] Opened lmdb examples/mnist/mnist_test_lmdb
I0428 20:01:17.910876 29693 net.cpp:86] Creating Layer mnist
I0428 20:01:17.910882 29693 net.cpp:382] mnist -> data
I0428 20:01:17.910893 29693 net.cpp:382] mnist -> label
I0428 20:01:17.910995 29693 data_layer.cpp:45] output data size: 100,1,28,28
I0428 20:01:17.913640 29693 net.cpp:124] Setting up mnist
I0428 20:01:17.913686 29693 net.cpp:131] Top shape: 100 1 28 28 (78400)
I0428 20:01:17.913692 29693 net.cpp:131] Top shape: 100 (100)
I0428 20:01:17.913697 29693 net.cpp:139] Memory required for data: 314000
I0428 20:01:17.913702 29693 layer_factory.hpp:77] Creating layer label_mnist_1_split
I0428 20:01:17.913739 29693 net.cpp:86] Creating Layer label_mnist_1_split
I0428 20:01:17.913745 29693 net.cpp:408] label_mnist_1_split <- label
I0428 20:01:17.913753 29693 net.cpp:382] label_mnist_1_split -> label_mnist_1_split_0
I0428 20:01:17.913761 29693 net.cpp:382] label_mnist_1_split -> label_mnist_1_split_1
I0428 20:01:17.913862 29693 net.cpp:124] Setting up label_mnist_1_split
I0428 20:01:17.913872 29693 net.cpp:131] Top shape: 100 (100)
I0428 20:01:17.913877 29693 net.cpp:131] Top shape: 100 (100)
I0428 20:01:17.913882 29693 net.cpp:139] Memory required for data: 314800
I0428 20:01:17.913885 29693 layer_factory.hpp:77] Creating layer conv0
I0428 20:01:17.913897 29693 net.cpp:86] Creating Layer conv0
I0428 20:01:17.913902 29693 net.cpp:408] conv0 <- data
I0428 20:01:17.913908 29693 net.cpp:382] conv0 -> conv0
I0428 20:01:17.914973 29693 net.cpp:124] Setting up conv0
I0428 20:01:17.915004 29693 net.cpp:131] Top shape: 100 10 24 24 (576000)
I0428 20:01:17.915009 29693 net.cpp:139] Memory required for data: 2618800
I0428 20:01:17.915020 29693 layer_factory.hpp:77] Creating layer pool0
I0428 20:01:17.915029 29693 net.cpp:86] Creating Layer pool0
I0428 20:01:17.915033 29693 net.cpp:408] pool0 <- conv0
I0428 20:01:17.915040 29693 net.cpp:382] pool0 -> pool0
I0428 20:01:17.915081 29693 net.cpp:124] Setting up pool0
I0428 20:01:17.915089 29693 net.cpp:131] Top shape: 100 10 12 12 (144000)
I0428 20:01:17.915093 29693 net.cpp:139] Memory required for data: 3194800
I0428 20:01:17.915097 29693 layer_factory.hpp:77] Creating layer conv1
I0428 20:01:17.915108 29693 net.cpp:86] Creating Layer conv1
I0428 20:01:17.915112 29693 net.cpp:408] conv1 <- pool0
I0428 20:01:17.915134 29693 net.cpp:382] conv1 -> conv1
I0428 20:01:17.917242 29693 net.cpp:124] Setting up conv1
I0428 20:01:17.917273 29693 net.cpp:131] Top shape: 100 50 8 8 (320000)
I0428 20:01:17.917279 29693 net.cpp:139] Memory required for data: 4474800
I0428 20:01:17.917289 29693 layer_factory.hpp:77] Creating layer pool1
I0428 20:01:17.917297 29693 net.cpp:86] Creating Layer pool1
I0428 20:01:17.917330 29693 net.cpp:408] pool1 <- conv1
I0428 20:01:17.917337 29693 net.cpp:382] pool1 -> pool1
I0428 20:01:17.917385 29693 net.cpp:124] Setting up pool1
I0428 20:01:17.917397 29693 net.cpp:131] Top shape: 100 50 4 4 (80000)
I0428 20:01:17.917402 29693 net.cpp:139] Memory required for data: 4794800
I0428 20:01:17.917407 29693 layer_factory.hpp:77] Creating layer ip1
I0428 20:01:17.917415 29693 net.cpp:86] Creating Layer ip1
I0428 20:01:17.917419 29693 net.cpp:408] ip1 <- pool1
I0428 20:01:17.917428 29693 net.cpp:382] ip1 -> ip1
I0428 20:01:17.917631 29693 net.cpp:124] Setting up ip1
I0428 20:01:17.917642 29693 net.cpp:131] Top shape: 100 10 (1000)
I0428 20:01:17.917649 29693 net.cpp:139] Memory required for data: 4798800
I0428 20:01:17.917675 29693 layer_factory.hpp:77] Creating layer relu1
I0428 20:01:17.917681 29693 net.cpp:86] Creating Layer relu1
I0428 20:01:17.917687 29693 net.cpp:408] relu1 <- ip1
I0428 20:01:17.917696 29693 net.cpp:369] relu1 -> ip1 (in-place)
I0428 20:01:17.918792 29693 net.cpp:124] Setting up relu1
I0428 20:01:17.918822 29693 net.cpp:131] Top shape: 100 10 (1000)
I0428 20:01:17.918829 29693 net.cpp:139] Memory required for data: 4802800
I0428 20:01:17.918834 29693 layer_factory.hpp:77] Creating layer ip1_relu1_0_split
I0428 20:01:17.918844 29693 net.cpp:86] Creating Layer ip1_relu1_0_split
I0428 20:01:17.918849 29693 net.cpp:408] ip1_relu1_0_split <- ip1
I0428 20:01:17.918856 29693 net.cpp:382] ip1_relu1_0_split -> ip1_relu1_0_split_0
I0428 20:01:17.918865 29693 net.cpp:382] ip1_relu1_0_split -> ip1_relu1_0_split_1
I0428 20:01:17.918911 29693 net.cpp:124] Setting up ip1_relu1_0_split
I0428 20:01:17.918926 29693 net.cpp:131] Top shape: 100 10 (1000)
I0428 20:01:17.918931 29693 net.cpp:131] Top shape: 100 10 (1000)
I0428 20:01:17.918937 29693 net.cpp:139] Memory required for data: 4810800
I0428 20:01:17.918942 29693 layer_factory.hpp:77] Creating layer accuracy
I0428 20:01:17.918949 29693 net.cpp:86] Creating Layer accuracy
I0428 20:01:17.918954 29693 net.cpp:408] accuracy <- ip1_relu1_0_split_0
I0428 20:01:17.918961 29693 net.cpp:408] accuracy <- label_mnist_1_split_0
I0428 20:01:17.918967 29693 net.cpp:382] accuracy -> accuracy
…
