…
I0428 19:52:03.824816 27425 net.cpp:296] The NetState phase (0) differed from the phase (1) specified by a rule in layer mnist
I0428 19:52:03.824837 27425 net.cpp:296] The NetState phase (0) differed from the phase (1) specified by a rule in layer accuracy
I0428 19:52:03.824944 27425 net.cpp:53] Initializing net from parameters: 
name: "LeNet"
state {
  phase: TRAIN
  level: 0
  stage: ""
}
layer {
  name: "mnist"
  type: "Data"
  top: "data"
  top: "label"
  include {
    phase: TRAIN
  }
  transform_param {
    scale: 0.00390625
  }
  data_param {
    source: "examples/mnist/mnist_train_lmdb"
    batch_size: 64
    backend: LMDB
  }
}
layer {
  name: "conv0"
  type: "Convolution"
  bottom: "data"
  top: "conv0"
  param {
    lr_mult: 1
  }
  param {
    lr_mult: 2
  }
  convolution_param {
    num_output: 5
    kernel_size: 5
    stride: 1
    weight_filler {
      type: "xavier"
    }
    bias_filler {
      type: "constant"
    }
  }
}
layer {
  name: "pool0"
  type: "Pooling"
  bottom: "conv0"
  top: "pool0"
  pooling_param {
    pool: MAX
    kernel_size: 2
    stride: 2
  }
}
layer {
  name: "conv1"
  type: "Convolution"
  bottom: "pool0"
  top: "conv1"
  param {
    lr_mult: 1
  }
  param {
    lr_mult: 2
  }
  convolution_param {
    num_output: 25
    kernel_size: 5
    stride: 1
    weight_filler {
      type: "xavier"
    }
    bias_filler {
      type: "constant"
    }
  }
}
layer {
  name: "pool1"
  type: "Pooling"
  bottom: "conv1"
  top: "pool1"
  pooling_param {
    pool: MAX
    kernel_size: 2
    stride: 2
  }
}
layer {
  name: "ip1"
  type: "InnerProduct"
  bottom: "pool1"
  top: "ip1"
  param {
    lr_mult: 1
  }
  param {
    lr_mult: 2
  }
  inner_product_param {
    num_output: 25
    weight_filler {
      type: "xavier"
    }
    bias_filler {
      type: "constant"
    }
  }
}
layer {
  name: "relu1"
  type: "ReLU"
  bottom: "ip1"
  top: "ip1"
}
layer {
  name: "ip2"
  type: "InnerProduct"
  bottom: "ip1"
  top: "ip2"
  param {
    lr_mult: 1
  }
  param {
    lr_mult: 2
  }
  inner_product_param {
    num_output: 50
    weight_filler {
      type: "xavier"
    }
    bias_filler {
      type: "constant"
    }
  }
}
layer {
  name: "relu2"
  type: "ReLU"
  bottom: "ip2"
  top: "ip2"
}
layer {
  name: "ip3"
  type: "InnerProduct"
  bottom: "ip2"
  top: "ip3"
  param {
    lr_mult: 1
  }
  param {
    lr_mult: 2
  }
  inner_product_param {
    num_output: 10
    weight_filler {
      type: "xavier"
    }
    bias_filler {
      type: "constant"
    }
  }
}
layer {
  name: "relu3"
  type: "ReLU"
  bottom: "ip3"
  top: "ip3"
}
layer {
  name: "loss"
  type: "SoftmaxWithLoss"
  bottom: "ip3"
  bottom: "label"
  top: "loss"
}
I0428 19:52:03.825026 27425 layer_factory.hpp:77] Creating layer mnist
I0428 19:52:03.825129 27425 db_lmdb.cpp:35] Opened lmdb examples/mnist/mnist_train_lmdb
I0428 19:52:03.825151 27425 net.cpp:86] Creating Layer mnist
I0428 19:52:03.825160 27425 net.cpp:382] mnist -> data
I0428 19:52:03.825182 27425 net.cpp:382] mnist -> label
I0428 19:52:03.826386 27425 data_layer.cpp:45] output data size: 64,1,28,28
I0428 19:52:03.828830 27425 net.cpp:124] Setting up mnist
I0428 19:52:03.828848 27425 net.cpp:131] Top shape: 64 1 28 28 (50176)
I0428 19:52:03.828855 27425 net.cpp:131] Top shape: 64 (64)
I0428 19:52:03.828858 27425 net.cpp:139] Memory required for data: 200960
I0428 19:52:03.828866 27425 layer_factory.hpp:77] Creating layer conv0
I0428 19:52:03.828889 27425 net.cpp:86] Creating Layer conv0
I0428 19:52:03.828910 27425 net.cpp:408] conv0 <- data
I0428 19:52:03.828923 27425 net.cpp:382] conv0 -> conv0
I0428 19:52:04.116199 27425 net.cpp:124] Setting up conv0
I0428 19:52:04.116226 27425 net.cpp:131] Top shape: 64 5 24 24 (184320)
I0428 19:52:04.116230 27425 net.cpp:139] Memory required for data: 938240
I0428 19:52:04.116245 27425 layer_factory.hpp:77] Creating layer pool0
I0428 19:52:04.116259 27425 net.cpp:86] Creating Layer pool0
I0428 19:52:04.116263 27425 net.cpp:408] pool0 <- conv0
I0428 19:52:04.116268 27425 net.cpp:382] pool0 -> pool0
I0428 19:52:04.116317 27425 net.cpp:124] Setting up pool0
I0428 19:52:04.116324 27425 net.cpp:131] Top shape: 64 5 12 12 (46080)
I0428 19:52:04.116328 27425 net.cpp:139] Memory required for data: 1122560
I0428 19:52:04.116330 27425 layer_factory.hpp:77] Creating layer conv1
I0428 19:52:04.116340 27425 net.cpp:86] Creating Layer conv1
I0428 19:52:04.116344 27425 net.cpp:408] conv1 <- pool0
I0428 19:52:04.116349 27425 net.cpp:382] conv1 -> conv1
I0428 19:52:04.119058 27425 net.cpp:124] Setting up conv1
I0428 19:52:04.119073 27425 net.cpp:131] Top shape: 64 25 8 8 (102400)
I0428 19:52:04.119077 27425 net.cpp:139] Memory required for data: 1532160
I0428 19:52:04.119086 27425 layer_factory.hpp:77] Creating layer pool1
I0428 19:52:04.119094 27425 net.cpp:86] Creating Layer pool1
I0428 19:52:04.119098 27425 net.cpp:408] pool1 <- conv1
I0428 19:52:04.119103 27425 net.cpp:382] pool1 -> pool1
I0428 19:52:04.119141 27425 net.cpp:124] Setting up pool1
I0428 19:52:04.119149 27425 net.cpp:131] Top shape: 64 25 4 4 (25600)
I0428 19:52:04.119153 27425 net.cpp:139] Memory required for data: 1634560
I0428 19:52:04.119155 27425 layer_factory.hpp:77] Creating layer ip1
I0428 19:52:04.119161 27425 net.cpp:86] Creating Layer ip1
I0428 19:52:04.119165 27425 net.cpp:408] ip1 <- pool1
I0428 19:52:04.119169 27425 net.cpp:382] ip1 -> ip1
I0428 19:52:04.120152 27425 net.cpp:124] Setting up ip1
I0428 19:52:04.120165 27425 net.cpp:131] Top shape: 64 25 (1600)
I0428 19:52:04.120168 27425 net.cpp:139] Memory required for data: 1640960
I0428 19:52:04.120177 27425 layer_factory.hpp:77] Creating layer relu1
I0428 19:52:04.120183 27425 net.cpp:86] Creating Layer relu1
I0428 19:52:04.120187 27425 net.cpp:408] relu1 <- ip1
I0428 19:52:04.120192 27425 net.cpp:369] relu1 -> ip1 (in-place)
I0428 19:52:04.120364 27425 net.cpp:124] Setting up relu1
I0428 19:52:04.120373 27425 net.cpp:131] Top shape: 64 25 (1600)
I0428 19:52:04.120378 27425 net.cpp:139] Memory required for data: 1647360
I0428 19:52:04.120381 27425 layer_factory.hpp:77] Creating layer ip2
I0428 19:52:04.120388 27425 net.cpp:86] Creating Layer ip2
I0428 19:52:04.120390 27425 net.cpp:408] ip2 <- ip1
I0428 19:52:04.120395 27425 net.cpp:382] ip2 -> ip2
I0428 19:52:04.120502 27425 net.cpp:124] Setting up ip2
I0428 19:52:04.120509 27425 net.cpp:131] Top shape: 64 50 (3200)
I0428 19:52:04.120512 27425 net.cpp:139] Memory required for data: 1660160
I0428 19:52:04.120517 27425 layer_factory.hpp:77] Creating layer relu2
I0428 19:52:04.120523 27425 net.cpp:86] Creating Layer relu2
I0428 19:52:04.120527 27425 net.cpp:408] relu2 <- ip2
I0428 19:52:04.120532 27425 net.cpp:369] relu2 -> ip2 (in-place)
I0428 19:52:04.121281 27425 net.cpp:124] Setting up relu2
I0428 19:52:04.121294 27425 net.cpp:131] Top shape: 64 50 (3200)
I0428 19:52:04.121297 27425 net.cpp:139] Memory required for data: 1672960
I0428 19:52:04.121301 27425 layer_factory.hpp:77] Creating layer ip3
I0428 19:52:04.121307 27425 net.cpp:86] Creating Layer ip3
I0428 19:52:04.121311 27425 net.cpp:408] ip3 <- ip2
I0428 19:52:04.121316 27425 net.cpp:382] ip3 -> ip3
I0428 19:52:04.121417 27425 net.cpp:124] Setting up ip3
I0428 19:52:04.121424 27425 net.cpp:131] Top shape: 64 10 (640)
I0428 19:52:04.121428 27425 net.cpp:139] Memory required for data: 1675520
I0428 19:52:04.121436 27425 layer_factory.hpp:77] Creating layer relu3
I0428 19:52:04.121441 27425 net.cpp:86] Creating Layer relu3
I0428 19:52:04.121444 27425 net.cpp:408] relu3 <- ip3
I0428 19:52:04.121448 27425 net.cpp:369] relu3 -> ip3 (in-place)
I0428 19:52:04.121614 27425 net.cpp:124] Setting up relu3
I0428 19:52:04.121623 27425 net.cpp:131] Top shape: 64 10 (640)
I0428 19:52:04.121625 27425 net.cpp:139] Memory required for data: 1678080
I0428 19:52:04.121629 27425 layer_factory.hpp:77] Creating layer loss
I0428 19:52:04.121634 27425 net.cpp:86] Creating Layer loss
I0428 19:52:04.121637 27425 net.cpp:408] loss <- ip3
I0428 19:52:04.121641 27425 net.cpp:408] loss <- label
I0428 19:52:04.121647 27425 net.cpp:382] loss -> loss
I0428 19:52:04.121665 27425 layer_factory.hpp:77] Creating layer loss
…
I0428 19:52:04.122282 27425 solver.cpp:173] Creating test net (#0) specified by net file: ECE595/mnist/train_test/var_everything2/lenet_train_test651.prototxt
I0428 19:52:04.122308 27425 net.cpp:296] The NetState phase (1) differed from the phase (0) specified by a rule in layer mnist
I0428 19:52:04.122396 27425 net.cpp:53] Initializing net from parameters: 
name: "LeNet"
state {
  phase: TEST
}
layer {
  name: "mnist"
  type: "Data"
  top: "data"
  top: "label"
  include {
    phase: TEST
  }
  transform_param {
    scale: 0.00390625
  }
  data_param {
    source: "examples/mnist/mnist_test_lmdb"
    batch_size: 100
    backend: LMDB
  }
}
layer {
  name: "conv0"
  type: "Convolution"
  bottom: "data"
  top: "conv0"
  param {
    lr_mult: 1
  }
  param {
    lr_mult: 2
  }
  convolution_param {
    num_output: 5
    kernel_size: 5
    stride: 1
    weight_filler {
      type: "xavier"
    }
    bias_filler {
      type: "constant"
    }
  }
}
layer {
  name: "pool0"
  type: "Pooling"
  bottom: "conv0"
  top: "pool0"
  pooling_param {
    pool: MAX
    kernel_size: 2
    stride: 2
  }
}
layer {
  name: "conv1"
  type: "Convolution"
  bottom: "pool0"
  top: "conv1"
  param {
    lr_mult: 1
  }
  param {
    lr_mult: 2
  }
  convolution_param {
    num_output: 25
    kernel_size: 5
    stride: 1
    weight_filler {
      type: "xavier"
    }
    bias_filler {
      type: "constant"
    }
  }
}
layer {
  name: "pool1"
  type: "Pooling"
  bottom: "conv1"
  top: "pool1"
  pooling_param {
    pool: MAX
    kernel_size: 2
    stride: 2
  }
}
layer {
  name: "ip1"
  type: "InnerProduct"
  bottom: "pool1"
  top: "ip1"
  param {
    lr_mult: 1
  }
  param {
    lr_mult: 2
  }
  inner_product_param {
    num_output: 25
    weight_filler {
      type: "xavier"
    }
    bias_filler {
      type: "constant"
    }
  }
}
layer {
  name: "relu1"
  type: "ReLU"
  bottom: "ip1"
  top: "ip1"
}
layer {
  name: "ip2"
  type: "InnerProduct"
  bottom: "ip1"
  top: "ip2"
  param {
    lr_mult: 1
  }
  param {
    lr_mult: 2
  }
  inner_product_param {
    num_output: 50
    weight_filler {
      type: "xavier"
    }
    bias_filler {
      type: "constant"
    }
  }
}
layer {
  name: "relu2"
  type: "ReLU"
  bottom: "ip2"
  top: "ip2"
}
layer {
  name: "ip3"
  type: "InnerProduct"
  bottom: "ip2"
  top: "ip3"
  param {
    lr_mult: 1
  }
  param {
    lr_mult: 2
  }
  inner_product_param {
    num_output: 10
    weight_filler {
      type: "xavier"
    }
    bias_filler {
      type: "constant"
    }
  }
}
layer {
  name: "relu3"
  type: "ReLU"
  bottom: "ip3"
  top: "ip3"
}
layer {
  name: "accuracy"
  type: "Accuracy"
  bottom: "ip3"
  bottom: "label"
  top: "accuracy"
  include {
    phase: TEST
  }
}
layer {
  name: "loss"
  type: "SoftmaxWithLoss"
  bottom: "ip3"
  bottom: "label"
  top: "loss"
}
I0428 19:52:04.122475 27425 layer_factory.hpp:77] Creating layer mnist
I0428 19:52:04.122519 27425 db_lmdb.cpp:35] Opened lmdb examples/mnist/mnist_test_lmdb
I0428 19:52:04.122531 27425 net.cpp:86] Creating Layer mnist
I0428 19:52:04.122535 27425 net.cpp:382] mnist -> data
I0428 19:52:04.122544 27425 net.cpp:382] mnist -> label
I0428 19:52:04.122627 27425 data_layer.cpp:45] output data size: 100,1,28,28
I0428 19:52:04.124650 27425 net.cpp:124] Setting up mnist
I0428 19:52:04.124662 27425 net.cpp:131] Top shape: 100 1 28 28 (78400)
I0428 19:52:04.124667 27425 net.cpp:131] Top shape: 100 (100)
I0428 19:52:04.124670 27425 net.cpp:139] Memory required for data: 314000
I0428 19:52:04.124675 27425 layer_factory.hpp:77] Creating layer label_mnist_1_split
I0428 19:52:04.124681 27425 net.cpp:86] Creating Layer label_mnist_1_split
I0428 19:52:04.124685 27425 net.cpp:408] label_mnist_1_split <- label
I0428 19:52:04.124689 27425 net.cpp:382] label_mnist_1_split -> label_mnist_1_split_0
I0428 19:52:04.124696 27425 net.cpp:382] label_mnist_1_split -> label_mnist_1_split_1
I0428 19:52:04.124742 27425 net.cpp:124] Setting up label_mnist_1_split
I0428 19:52:04.124748 27425 net.cpp:131] Top shape: 100 (100)
I0428 19:52:04.124752 27425 net.cpp:131] Top shape: 100 (100)
I0428 19:52:04.124754 27425 net.cpp:139] Memory required for data: 314800
I0428 19:52:04.124758 27425 layer_factory.hpp:77] Creating layer conv0
I0428 19:52:04.124765 27425 net.cpp:86] Creating Layer conv0
I0428 19:52:04.124768 27425 net.cpp:408] conv0 <- data
I0428 19:52:04.124773 27425 net.cpp:382] conv0 -> conv0
I0428 19:52:04.126312 27425 net.cpp:124] Setting up conv0
I0428 19:52:04.126327 27425 net.cpp:131] Top shape: 100 5 24 24 (288000)
I0428 19:52:04.126330 27425 net.cpp:139] Memory required for data: 1466800
I0428 19:52:04.126339 27425 layer_factory.hpp:77] Creating layer pool0
I0428 19:52:04.126345 27425 net.cpp:86] Creating Layer pool0
I0428 19:52:04.126348 27425 net.cpp:408] pool0 <- conv0
I0428 19:52:04.126353 27425 net.cpp:382] pool0 -> pool0
I0428 19:52:04.126389 27425 net.cpp:124] Setting up pool0
I0428 19:52:04.126395 27425 net.cpp:131] Top shape: 100 5 12 12 (72000)
I0428 19:52:04.126399 27425 net.cpp:139] Memory required for data: 1754800
I0428 19:52:04.126401 27425 layer_factory.hpp:77] Creating layer conv1
I0428 19:52:04.126410 27425 net.cpp:86] Creating Layer conv1
I0428 19:52:04.126413 27425 net.cpp:408] conv1 <- pool0
I0428 19:52:04.126418 27425 net.cpp:382] conv1 -> conv1
I0428 19:52:04.128430 27425 net.cpp:124] Setting up conv1
I0428 19:52:04.128443 27425 net.cpp:131] Top shape: 100 25 8 8 (160000)
I0428 19:52:04.128446 27425 net.cpp:139] Memory required for data: 2394800
I0428 19:52:04.128455 27425 layer_factory.hpp:77] Creating layer pool1
I0428 19:52:04.128461 27425 net.cpp:86] Creating Layer pool1
I0428 19:52:04.128464 27425 net.cpp:408] pool1 <- conv1
I0428 19:52:04.128469 27425 net.cpp:382] pool1 -> pool1
I0428 19:52:04.128509 27425 net.cpp:124] Setting up pool1
I0428 19:52:04.128515 27425 net.cpp:131] Top shape: 100 25 4 4 (40000)
I0428 19:52:04.128518 27425 net.cpp:139] Memory required for data: 2554800
I0428 19:52:04.128521 27425 layer_factory.hpp:77] Creating layer ip1
I0428 19:52:04.128527 27425 net.cpp:86] Creating Layer ip1
I0428 19:52:04.128530 27425 net.cpp:408] ip1 <- pool1
I0428 19:52:04.128535 27425 net.cpp:382] ip1 -> ip1
I0428 19:52:04.128684 27425 net.cpp:124] Setting up ip1
I0428 19:52:04.128691 27425 net.cpp:131] Top shape: 100 25 (2500)
I0428 19:52:04.128703 27425 net.cpp:139] Memory required for data: 2564800
I0428 19:52:04.128711 27425 layer_factory.hpp:77] Creating layer relu1
I0428 19:52:04.128717 27425 net.cpp:86] Creating Layer relu1
I0428 19:52:04.128720 27425 net.cpp:408] relu1 <- ip1
I0428 19:52:04.128731 27425 net.cpp:369] relu1 -> ip1 (in-place)
I0428 19:52:04.128895 27425 net.cpp:124] Setting up relu1
I0428 19:52:04.128903 27425 net.cpp:131] Top shape: 100 25 (2500)
I0428 19:52:04.128907 27425 net.cpp:139] Memory required for data: 2574800
I0428 19:52:04.128911 27425 layer_factory.hpp:77] Creating layer ip2
I0428 19:52:04.128917 27425 net.cpp:86] Creating Layer ip2
I0428 19:52:04.128926 27425 net.cpp:408] ip2 <- ip1
I0428 19:52:04.128931 27425 net.cpp:382] ip2 -> ip2
I0428 19:52:04.129032 27425 net.cpp:124] Setting up ip2
I0428 19:52:04.129040 27425 net.cpp:131] Top shape: 100 50 (5000)
I0428 19:52:04.129042 27425 net.cpp:139] Memory required for data: 2594800
I0428 19:52:04.129047 27425 layer_factory.hpp:77] Creating layer relu2
I0428 19:52:04.129052 27425 net.cpp:86] Creating Layer relu2
I0428 19:52:04.129055 27425 net.cpp:408] relu2 <- ip2
I0428 19:52:04.129060 27425 net.cpp:369] relu2 -> ip2 (in-place)
I0428 19:52:04.129246 27425 net.cpp:124] Setting up relu2
I0428 19:52:04.129254 27425 net.cpp:131] Top shape: 100 50 (5000)
I0428 19:52:04.129257 27425 net.cpp:139] Memory required for data: 2614800
I0428 19:52:04.129261 27425 layer_factory.hpp:77] Creating layer ip3
I0428 19:52:04.129266 27425 net.cpp:86] Creating Layer ip3
I0428 19:52:04.129268 27425 net.cpp:408] ip3 <- ip2
I0428 19:52:04.129273 27425 net.cpp:382] ip3 -> ip3
I0428 19:52:04.129382 27425 net.cpp:124] Setting up ip3
I0428 19:52:04.129390 27425 net.cpp:131] Top shape: 100 10 (1000)
I0428 19:52:04.129392 27425 net.cpp:139] Memory required for data: 2618800
I0428 19:52:04.129405 27425 layer_factory.hpp:77] Creating layer relu3
I0428 19:52:04.129410 27425 net.cpp:86] Creating Layer relu3
I0428 19:52:04.129416 27425 net.cpp:408] relu3 <- ip3
I0428 19:52:04.129421 27425 net.cpp:369] relu3 -> ip3 (in-place)
I0428 19:52:04.130316 27425 net.cpp:124] Setting up relu3
I0428 19:52:04.130329 27425 net.cpp:131] Top shape: 100 10 (1000)
I0428 19:52:04.130332 27425 net.cpp:139] Memory required for data: 2622800
I0428 19:52:04.130336 27425 layer_factory.hpp:77] Creating layer ip3_relu3_0_split
I0428 19:52:04.130342 27425 net.cpp:86] Creating Layer ip3_relu3_0_split
I0428 19:52:04.130344 27425 net.cpp:408] ip3_relu3_0_split <- ip3
I0428 19:52:04.130349 27425 net.cpp:382] ip3_relu3_0_split -> ip3_relu3_0_split_0
I0428 19:52:04.130355 27425 net.cpp:382] ip3_relu3_0_split -> ip3_relu3_0_split_1
I0428 19:52:04.130391 27425 net.cpp:124] Setting up ip3_relu3_0_split
I0428 19:52:04.130398 27425 net.cpp:131] Top shape: 100 10 (1000)
I0428 19:52:04.130401 27425 net.cpp:131] Top shape: 100 10 (1000)
I0428 19:52:04.130404 27425 net.cpp:139] Memory required for data: 2630800
I0428 19:52:04.130408 27425 layer_factory.hpp:77] Creating layer accuracy
I0428 19:52:04.130412 27425 net.cpp:86] Creating Layer accuracy
I0428 19:52:04.130415 27425 net.cpp:408] accuracy <- ip3_relu3_0_split_0
I0428 19:52:04.130419 27425 net.cpp:408] accuracy <- label_mnist_1_split_0
I0428 19:52:04.130424 27425 net.cpp:382] accuracy -> accuracy
…
