…
I0428 19:52:18.671600 27484 net.cpp:296] The NetState phase (0) differed from the phase (1) specified by a rule in layer mnist
I0428 19:52:18.671620 27484 net.cpp:296] The NetState phase (0) differed from the phase (1) specified by a rule in layer accuracy
I0428 19:52:18.671722 27484 net.cpp:53] Initializing net from parameters: 
name: "LeNet"
state {
  phase: TRAIN
  level: 0
  stage: ""
}
layer {
  name: "mnist"
  type: "Data"
  top: "data"
  top: "label"
  include {
    phase: TRAIN
  }
  transform_param {
    scale: 0.00390625
  }
  data_param {
    source: "examples/mnist/mnist_train_lmdb"
    batch_size: 64
    backend: LMDB
  }
}
layer {
  name: "conv0"
  type: "Convolution"
  bottom: "data"
  top: "conv0"
  param {
    lr_mult: 1
  }
  param {
    lr_mult: 2
  }
  convolution_param {
    num_output: 5
    kernel_size: 5
    stride: 1
    weight_filler {
      type: "xavier"
    }
    bias_filler {
      type: "constant"
    }
  }
}
layer {
  name: "pool0"
  type: "Pooling"
  bottom: "conv0"
  top: "pool0"
  pooling_param {
    pool: MAX
    kernel_size: 2
    stride: 2
  }
}
layer {
  name: "conv1"
  type: "Convolution"
  bottom: "pool0"
  top: "conv1"
  param {
    lr_mult: 1
  }
  param {
    lr_mult: 2
  }
  convolution_param {
    num_output: 25
    kernel_size: 5
    stride: 1
    weight_filler {
      type: "xavier"
    }
    bias_filler {
      type: "constant"
    }
  }
}
layer {
  name: "pool1"
  type: "Pooling"
  bottom: "conv1"
  top: "pool1"
  pooling_param {
    pool: MAX
    kernel_size: 2
    stride: 2
  }
}
layer {
  name: "ip1"
  type: "InnerProduct"
  bottom: "pool1"
  top: "ip1"
  param {
    lr_mult: 1
  }
  param {
    lr_mult: 2
  }
  inner_product_param {
    num_output: 50
    weight_filler {
      type: "xavier"
    }
    bias_filler {
      type: "constant"
    }
  }
}
layer {
  name: "relu1"
  type: "ReLU"
  bottom: "ip1"
  top: "ip1"
}
layer {
  name: "ip2"
  type: "InnerProduct"
  bottom: "ip1"
  top: "ip2"
  param {
    lr_mult: 1
  }
  param {
    lr_mult: 2
  }
  inner_product_param {
    num_output: 25
    weight_filler {
      type: "xavier"
    }
    bias_filler {
      type: "constant"
    }
  }
}
layer {
  name: "relu2"
  type: "ReLU"
  bottom: "ip2"
  top: "ip2"
}
layer {
  name: "ip3"
  type: "InnerProduct"
  bottom: "ip2"
  top: "ip3"
  param {
    lr_mult: 1
  }
  param {
    lr_mult: 2
  }
  inner_product_param {
    num_output: 10
    weight_filler {
      type: "xavier"
    }
    bias_filler {
      type: "constant"
    }
  }
}
layer {
  name: "relu3"
  type: "ReLU"
  bottom: "ip3"
  top: "ip3"
}
layer {
  name: "loss"
  type: "SoftmaxWithLoss"
  bottom: "ip3"
  bottom: "label"
  top: "loss"
}
I0428 19:52:18.671802 27484 layer_factory.hpp:77] Creating layer mnist
I0428 19:52:18.671901 27484 db_lmdb.cpp:35] Opened lmdb examples/mnist/mnist_train_lmdb
I0428 19:52:18.671927 27484 net.cpp:86] Creating Layer mnist
I0428 19:52:18.671934 27484 net.cpp:382] mnist -> data
I0428 19:52:18.671957 27484 net.cpp:382] mnist -> label
I0428 19:52:18.673069 27484 data_layer.cpp:45] output data size: 64,1,28,28
I0428 19:52:18.675732 27484 net.cpp:124] Setting up mnist
I0428 19:52:18.675761 27484 net.cpp:131] Top shape: 64 1 28 28 (50176)
I0428 19:52:18.675782 27484 net.cpp:131] Top shape: 64 (64)
I0428 19:52:18.675786 27484 net.cpp:139] Memory required for data: 200960
I0428 19:52:18.675794 27484 layer_factory.hpp:77] Creating layer conv0
I0428 19:52:18.675809 27484 net.cpp:86] Creating Layer conv0
I0428 19:52:18.675832 27484 net.cpp:408] conv0 <- data
I0428 19:52:18.675845 27484 net.cpp:382] conv0 -> conv0
I0428 19:52:18.963490 27484 net.cpp:124] Setting up conv0
I0428 19:52:18.963518 27484 net.cpp:131] Top shape: 64 5 24 24 (184320)
I0428 19:52:18.963523 27484 net.cpp:139] Memory required for data: 938240
I0428 19:52:18.963539 27484 layer_factory.hpp:77] Creating layer pool0
I0428 19:52:18.963556 27484 net.cpp:86] Creating Layer pool0
I0428 19:52:18.963559 27484 net.cpp:408] pool0 <- conv0
I0428 19:52:18.963565 27484 net.cpp:382] pool0 -> pool0
I0428 19:52:18.963614 27484 net.cpp:124] Setting up pool0
I0428 19:52:18.963620 27484 net.cpp:131] Top shape: 64 5 12 12 (46080)
I0428 19:52:18.963624 27484 net.cpp:139] Memory required for data: 1122560
I0428 19:52:18.963626 27484 layer_factory.hpp:77] Creating layer conv1
I0428 19:52:18.963637 27484 net.cpp:86] Creating Layer conv1
I0428 19:52:18.963641 27484 net.cpp:408] conv1 <- pool0
I0428 19:52:18.963646 27484 net.cpp:382] conv1 -> conv1
I0428 19:52:18.966559 27484 net.cpp:124] Setting up conv1
I0428 19:52:18.966578 27484 net.cpp:131] Top shape: 64 25 8 8 (102400)
I0428 19:52:18.966581 27484 net.cpp:139] Memory required for data: 1532160
I0428 19:52:18.966590 27484 layer_factory.hpp:77] Creating layer pool1
I0428 19:52:18.966598 27484 net.cpp:86] Creating Layer pool1
I0428 19:52:18.966603 27484 net.cpp:408] pool1 <- conv1
I0428 19:52:18.966608 27484 net.cpp:382] pool1 -> pool1
I0428 19:52:18.966670 27484 net.cpp:124] Setting up pool1
I0428 19:52:18.966675 27484 net.cpp:131] Top shape: 64 25 4 4 (25600)
I0428 19:52:18.966678 27484 net.cpp:139] Memory required for data: 1634560
I0428 19:52:18.966681 27484 layer_factory.hpp:77] Creating layer ip1
I0428 19:52:18.966691 27484 net.cpp:86] Creating Layer ip1
I0428 19:52:18.966693 27484 net.cpp:408] ip1 <- pool1
I0428 19:52:18.966698 27484 net.cpp:382] ip1 -> ip1
I0428 19:52:18.966953 27484 net.cpp:124] Setting up ip1
I0428 19:52:18.966961 27484 net.cpp:131] Top shape: 64 50 (3200)
I0428 19:52:18.966964 27484 net.cpp:139] Memory required for data: 1647360
I0428 19:52:18.966972 27484 layer_factory.hpp:77] Creating layer relu1
I0428 19:52:18.966979 27484 net.cpp:86] Creating Layer relu1
I0428 19:52:18.966984 27484 net.cpp:408] relu1 <- ip1
I0428 19:52:18.966987 27484 net.cpp:369] relu1 -> ip1 (in-place)
I0428 19:52:18.967166 27484 net.cpp:124] Setting up relu1
I0428 19:52:18.967176 27484 net.cpp:131] Top shape: 64 50 (3200)
I0428 19:52:18.967180 27484 net.cpp:139] Memory required for data: 1660160
I0428 19:52:18.967182 27484 layer_factory.hpp:77] Creating layer ip2
I0428 19:52:18.967190 27484 net.cpp:86] Creating Layer ip2
I0428 19:52:18.967193 27484 net.cpp:408] ip2 <- ip1
I0428 19:52:18.967198 27484 net.cpp:382] ip2 -> ip2
I0428 19:52:18.967308 27484 net.cpp:124] Setting up ip2
I0428 19:52:18.967314 27484 net.cpp:131] Top shape: 64 25 (1600)
I0428 19:52:18.967317 27484 net.cpp:139] Memory required for data: 1666560
I0428 19:52:18.967324 27484 layer_factory.hpp:77] Creating layer relu2
I0428 19:52:18.967330 27484 net.cpp:86] Creating Layer relu2
I0428 19:52:18.967334 27484 net.cpp:408] relu2 <- ip2
I0428 19:52:18.967339 27484 net.cpp:369] relu2 -> ip2 (in-place)
I0428 19:52:18.968101 27484 net.cpp:124] Setting up relu2
I0428 19:52:18.968113 27484 net.cpp:131] Top shape: 64 25 (1600)
I0428 19:52:18.968117 27484 net.cpp:139] Memory required for data: 1672960
I0428 19:52:18.968120 27484 layer_factory.hpp:77] Creating layer ip3
I0428 19:52:18.968129 27484 net.cpp:86] Creating Layer ip3
I0428 19:52:18.968132 27484 net.cpp:408] ip3 <- ip2
I0428 19:52:18.968139 27484 net.cpp:382] ip3 -> ip3
I0428 19:52:18.968250 27484 net.cpp:124] Setting up ip3
I0428 19:52:18.968258 27484 net.cpp:131] Top shape: 64 10 (640)
I0428 19:52:18.968261 27484 net.cpp:139] Memory required for data: 1675520
I0428 19:52:18.968269 27484 layer_factory.hpp:77] Creating layer relu3
I0428 19:52:18.968274 27484 net.cpp:86] Creating Layer relu3
I0428 19:52:18.968278 27484 net.cpp:408] relu3 <- ip3
I0428 19:52:18.968282 27484 net.cpp:369] relu3 -> ip3 (in-place)
I0428 19:52:18.968472 27484 net.cpp:124] Setting up relu3
I0428 19:52:18.968482 27484 net.cpp:131] Top shape: 64 10 (640)
I0428 19:52:18.968484 27484 net.cpp:139] Memory required for data: 1678080
I0428 19:52:18.968488 27484 layer_factory.hpp:77] Creating layer loss
I0428 19:52:18.968493 27484 net.cpp:86] Creating Layer loss
I0428 19:52:18.968497 27484 net.cpp:408] loss <- ip3
I0428 19:52:18.968502 27484 net.cpp:408] loss <- label
I0428 19:52:18.968508 27484 net.cpp:382] loss -> loss
I0428 19:52:18.968526 27484 layer_factory.hpp:77] Creating layer loss
…
I0428 19:52:18.969243 27484 solver.cpp:173] Creating test net (#0) specified by net file: ECE595/mnist/train_test/var_everything2/lenet_train_test658.prototxt
I0428 19:52:18.969270 27484 net.cpp:296] The NetState phase (1) differed from the phase (0) specified by a rule in layer mnist
I0428 19:52:18.969367 27484 net.cpp:53] Initializing net from parameters: 
name: "LeNet"
state {
  phase: TEST
}
layer {
  name: "mnist"
  type: "Data"
  top: "data"
  top: "label"
  include {
    phase: TEST
  }
  transform_param {
    scale: 0.00390625
  }
  data_param {
    source: "examples/mnist/mnist_test_lmdb"
    batch_size: 100
    backend: LMDB
  }
}
layer {
  name: "conv0"
  type: "Convolution"
  bottom: "data"
  top: "conv0"
  param {
    lr_mult: 1
  }
  param {
    lr_mult: 2
  }
  convolution_param {
    num_output: 5
    kernel_size: 5
    stride: 1
    weight_filler {
      type: "xavier"
    }
    bias_filler {
      type: "constant"
    }
  }
}
layer {
  name: "pool0"
  type: "Pooling"
  bottom: "conv0"
  top: "pool0"
  pooling_param {
    pool: MAX
    kernel_size: 2
    stride: 2
  }
}
layer {
  name: "conv1"
  type: "Convolution"
  bottom: "pool0"
  top: "conv1"
  param {
    lr_mult: 1
  }
  param {
    lr_mult: 2
  }
  convolution_param {
    num_output: 25
    kernel_size: 5
    stride: 1
    weight_filler {
      type: "xavier"
    }
    bias_filler {
      type: "constant"
    }
  }
}
layer {
  name: "pool1"
  type: "Pooling"
  bottom: "conv1"
  top: "pool1"
  pooling_param {
    pool: MAX
    kernel_size: 2
    stride: 2
  }
}
layer {
  name: "ip1"
  type: "InnerProduct"
  bottom: "pool1"
  top: "ip1"
  param {
    lr_mult: 1
  }
  param {
    lr_mult: 2
  }
  inner_product_param {
    num_output: 50
    weight_filler {
      type: "xavier"
    }
    bias_filler {
      type: "constant"
    }
  }
}
layer {
  name: "relu1"
  type: "ReLU"
  bottom: "ip1"
  top: "ip1"
}
layer {
  name: "ip2"
  type: "InnerProduct"
  bottom: "ip1"
  top: "ip2"
  param {
    lr_mult: 1
  }
  param {
    lr_mult: 2
  }
  inner_product_param {
    num_output: 25
    weight_filler {
      type: "xavier"
    }
    bias_filler {
      type: "constant"
    }
  }
}
layer {
  name: "relu2"
  type: "ReLU"
  bottom: "ip2"
  top: "ip2"
}
layer {
  name: "ip3"
  type: "InnerProduct"
  bottom: "ip2"
  top: "ip3"
  param {
    lr_mult: 1
  }
  param {
    lr_mult: 2
  }
  inner_product_param {
    num_output: 10
    weight_filler {
      type: "xavier"
    }
    bias_filler {
      type: "constant"
    }
  }
}
layer {
  name: "relu3"
  type: "ReLU"
  bottom: "ip3"
  top: "ip3"
}
layer {
  name: "accuracy"
  type: "Accuracy"
  bottom: "ip3"
  bottom: "label"
  top: "accuracy"
  include {
    phase: TEST
  }
}
layer {
  name: "loss"
  type: "SoftmaxWithLoss"
  bottom: "ip3"
  bottom: "label"
  top: "loss"
}
I0428 19:52:18.969455 27484 layer_factory.hpp:77] Creating layer mnist
I0428 19:52:18.969501 27484 db_lmdb.cpp:35] Opened lmdb examples/mnist/mnist_test_lmdb
I0428 19:52:18.969512 27484 net.cpp:86] Creating Layer mnist
I0428 19:52:18.969518 27484 net.cpp:382] mnist -> data
I0428 19:52:18.969527 27484 net.cpp:382] mnist -> label
I0428 19:52:18.969616 27484 data_layer.cpp:45] output data size: 100,1,28,28
I0428 19:52:18.971618 27484 net.cpp:124] Setting up mnist
I0428 19:52:18.971632 27484 net.cpp:131] Top shape: 100 1 28 28 (78400)
I0428 19:52:18.971648 27484 net.cpp:131] Top shape: 100 (100)
I0428 19:52:18.971652 27484 net.cpp:139] Memory required for data: 314000
I0428 19:52:18.971655 27484 layer_factory.hpp:77] Creating layer label_mnist_1_split
I0428 19:52:18.971667 27484 net.cpp:86] Creating Layer label_mnist_1_split
I0428 19:52:18.971669 27484 net.cpp:408] label_mnist_1_split <- label
I0428 19:52:18.971675 27484 net.cpp:382] label_mnist_1_split -> label_mnist_1_split_0
I0428 19:52:18.971681 27484 net.cpp:382] label_mnist_1_split -> label_mnist_1_split_1
I0428 19:52:18.971770 27484 net.cpp:124] Setting up label_mnist_1_split
I0428 19:52:18.971778 27484 net.cpp:131] Top shape: 100 (100)
I0428 19:52:18.971782 27484 net.cpp:131] Top shape: 100 (100)
I0428 19:52:18.971786 27484 net.cpp:139] Memory required for data: 314800
I0428 19:52:18.971788 27484 layer_factory.hpp:77] Creating layer conv0
I0428 19:52:18.971799 27484 net.cpp:86] Creating Layer conv0
I0428 19:52:18.971803 27484 net.cpp:408] conv0 <- data
I0428 19:52:18.971809 27484 net.cpp:382] conv0 -> conv0
I0428 19:52:18.973363 27484 net.cpp:124] Setting up conv0
I0428 19:52:18.973377 27484 net.cpp:131] Top shape: 100 5 24 24 (288000)
I0428 19:52:18.973381 27484 net.cpp:139] Memory required for data: 1466800
I0428 19:52:18.973392 27484 layer_factory.hpp:77] Creating layer pool0
I0428 19:52:18.973399 27484 net.cpp:86] Creating Layer pool0
I0428 19:52:18.973403 27484 net.cpp:408] pool0 <- conv0
I0428 19:52:18.973408 27484 net.cpp:382] pool0 -> pool0
I0428 19:52:18.973448 27484 net.cpp:124] Setting up pool0
I0428 19:52:18.973453 27484 net.cpp:131] Top shape: 100 5 12 12 (72000)
I0428 19:52:18.973456 27484 net.cpp:139] Memory required for data: 1754800
I0428 19:52:18.973459 27484 layer_factory.hpp:77] Creating layer conv1
I0428 19:52:18.973469 27484 net.cpp:86] Creating Layer conv1
I0428 19:52:18.973472 27484 net.cpp:408] conv1 <- pool0
I0428 19:52:18.973479 27484 net.cpp:382] conv1 -> conv1
I0428 19:52:18.975610 27484 net.cpp:124] Setting up conv1
I0428 19:52:18.975628 27484 net.cpp:131] Top shape: 100 25 8 8 (160000)
I0428 19:52:18.975631 27484 net.cpp:139] Memory required for data: 2394800
I0428 19:52:18.975641 27484 layer_factory.hpp:77] Creating layer pool1
I0428 19:52:18.975649 27484 net.cpp:86] Creating Layer pool1
I0428 19:52:18.975654 27484 net.cpp:408] pool1 <- conv1
I0428 19:52:18.975661 27484 net.cpp:382] pool1 -> pool1
I0428 19:52:18.975703 27484 net.cpp:124] Setting up pool1
I0428 19:52:18.975708 27484 net.cpp:131] Top shape: 100 25 4 4 (40000)
I0428 19:52:18.975710 27484 net.cpp:139] Memory required for data: 2554800
I0428 19:52:18.975713 27484 layer_factory.hpp:77] Creating layer ip1
I0428 19:52:18.975720 27484 net.cpp:86] Creating Layer ip1
I0428 19:52:18.975724 27484 net.cpp:408] ip1 <- pool1
I0428 19:52:18.975729 27484 net.cpp:382] ip1 -> ip1
I0428 19:52:18.975993 27484 net.cpp:124] Setting up ip1
I0428 19:52:18.976003 27484 net.cpp:131] Top shape: 100 50 (5000)
I0428 19:52:18.976017 27484 net.cpp:139] Memory required for data: 2574800
I0428 19:52:18.976027 27484 layer_factory.hpp:77] Creating layer relu1
I0428 19:52:18.976033 27484 net.cpp:86] Creating Layer relu1
I0428 19:52:18.976037 27484 net.cpp:408] relu1 <- ip1
I0428 19:52:18.976042 27484 net.cpp:369] relu1 -> ip1 (in-place)
I0428 19:52:18.976233 27484 net.cpp:124] Setting up relu1
I0428 19:52:18.976243 27484 net.cpp:131] Top shape: 100 50 (5000)
I0428 19:52:18.976248 27484 net.cpp:139] Memory required for data: 2594800
I0428 19:52:18.976251 27484 layer_factory.hpp:77] Creating layer ip2
I0428 19:52:18.976261 27484 net.cpp:86] Creating Layer ip2
I0428 19:52:18.976264 27484 net.cpp:408] ip2 <- ip1
I0428 19:52:18.976289 27484 net.cpp:382] ip2 -> ip2
I0428 19:52:18.976405 27484 net.cpp:124] Setting up ip2
I0428 19:52:18.976413 27484 net.cpp:131] Top shape: 100 25 (2500)
I0428 19:52:18.976415 27484 net.cpp:139] Memory required for data: 2604800
I0428 19:52:18.976421 27484 layer_factory.hpp:77] Creating layer relu2
I0428 19:52:18.976426 27484 net.cpp:86] Creating Layer relu2
I0428 19:52:18.976430 27484 net.cpp:408] relu2 <- ip2
I0428 19:52:18.976434 27484 net.cpp:369] relu2 -> ip2 (in-place)
I0428 19:52:18.976600 27484 net.cpp:124] Setting up relu2
I0428 19:52:18.976610 27484 net.cpp:131] Top shape: 100 25 (2500)
I0428 19:52:18.976613 27484 net.cpp:139] Memory required for data: 2614800
I0428 19:52:18.976616 27484 layer_factory.hpp:77] Creating layer ip3
I0428 19:52:18.976624 27484 net.cpp:86] Creating Layer ip3
I0428 19:52:18.976626 27484 net.cpp:408] ip3 <- ip2
I0428 19:52:18.976632 27484 net.cpp:382] ip3 -> ip3
I0428 19:52:18.976780 27484 net.cpp:124] Setting up ip3
I0428 19:52:18.976788 27484 net.cpp:131] Top shape: 100 10 (1000)
I0428 19:52:18.976790 27484 net.cpp:139] Memory required for data: 2618800
I0428 19:52:18.976799 27484 layer_factory.hpp:77] Creating layer relu3
I0428 19:52:18.976804 27484 net.cpp:86] Creating Layer relu3
I0428 19:52:18.976806 27484 net.cpp:408] relu3 <- ip3
I0428 19:52:18.976835 27484 net.cpp:369] relu3 -> ip3 (in-place)
I0428 19:52:18.977715 27484 net.cpp:124] Setting up relu3
I0428 19:52:18.977742 27484 net.cpp:131] Top shape: 100 10 (1000)
I0428 19:52:18.977746 27484 net.cpp:139] Memory required for data: 2622800
I0428 19:52:18.977749 27484 layer_factory.hpp:77] Creating layer ip3_relu3_0_split
I0428 19:52:18.977756 27484 net.cpp:86] Creating Layer ip3_relu3_0_split
I0428 19:52:18.977761 27484 net.cpp:408] ip3_relu3_0_split <- ip3
I0428 19:52:18.977785 27484 net.cpp:382] ip3_relu3_0_split -> ip3_relu3_0_split_0
I0428 19:52:18.977793 27484 net.cpp:382] ip3_relu3_0_split -> ip3_relu3_0_split_1
I0428 19:52:18.977834 27484 net.cpp:124] Setting up ip3_relu3_0_split
I0428 19:52:18.977840 27484 net.cpp:131] Top shape: 100 10 (1000)
I0428 19:52:18.977844 27484 net.cpp:131] Top shape: 100 10 (1000)
I0428 19:52:18.977847 27484 net.cpp:139] Memory required for data: 2630800
I0428 19:52:18.977850 27484 layer_factory.hpp:77] Creating layer accuracy
I0428 19:52:18.977856 27484 net.cpp:86] Creating Layer accuracy
I0428 19:52:18.977859 27484 net.cpp:408] accuracy <- ip3_relu3_0_split_0
I0428 19:52:18.977864 27484 net.cpp:408] accuracy <- label_mnist_1_split_0
I0428 19:52:18.977871 27484 net.cpp:382] accuracy -> accuracy
…
