…
I0428 20:11:18.110806 32040 net.cpp:296] The NetState phase (0) differed from the phase (1) specified by a rule in layer mnist
I0428 20:11:18.110831 32040 net.cpp:296] The NetState phase (0) differed from the phase (1) specified by a rule in layer accuracy
I0428 20:11:18.110970 32040 net.cpp:53] Initializing net from parameters: 
name: "LeNet"
state {
  phase: TRAIN
  level: 0
  stage: ""
}
layer {
  name: "mnist"
  type: "Data"
  top: "data"
  top: "label"
  include {
    phase: TRAIN
  }
  transform_param {
    scale: 0.00390625
  }
  data_param {
    source: "examples/mnist/mnist_train_lmdb"
    batch_size: 64
    backend: LMDB
  }
}
layer {
  name: "conv0"
  type: "Convolution"
  bottom: "data"
  top: "conv0"
  param {
    lr_mult: 1
  }
  param {
    lr_mult: 2
  }
  convolution_param {
    num_output: 25
    kernel_size: 5
    stride: 1
    weight_filler {
      type: "xavier"
    }
    bias_filler {
      type: "constant"
    }
  }
}
layer {
  name: "pool0"
  type: "Pooling"
  bottom: "conv0"
  top: "pool0"
  pooling_param {
    pool: MAX
    kernel_size: 2
    stride: 2
  }
}
layer {
  name: "conv1"
  type: "Convolution"
  bottom: "pool0"
  top: "conv1"
  param {
    lr_mult: 1
  }
  param {
    lr_mult: 2
  }
  convolution_param {
    num_output: 50
    kernel_size: 5
    stride: 1
    weight_filler {
      type: "xavier"
    }
    bias_filler {
      type: "constant"
    }
  }
}
layer {
  name: "pool1"
  type: "Pooling"
  bottom: "conv1"
  top: "pool1"
  pooling_param {
    pool: MAX
    kernel_size: 2
    stride: 2
  }
}
layer {
  name: "ip1"
  type: "InnerProduct"
  bottom: "pool1"
  top: "ip1"
  param {
    lr_mult: 1
  }
  param {
    lr_mult: 2
  }
  inner_product_param {
    num_output: 25
    weight_filler {
      type: "xavier"
    }
    bias_filler {
      type: "constant"
    }
  }
}
layer {
  name: "relu1"
  type: "ReLU"
  bottom: "ip1"
  top: "ip1"
}
layer {
  name: "ip2"
  type: "InnerProduct"
  bottom: "ip1"
  top: "ip2"
  param {
    lr_mult: 1
  }
  param {
    lr_mult: 2
  }
  inner_product_param {
    num_output: 25
    weight_filler {
      type: "xavier"
    }
    bias_filler {
      type: "constant"
    }
  }
}
layer {
  name: "relu2"
  type: "ReLU"
  bottom: "ip2"
  top: "ip2"
}
layer {
  name: "ip3"
  type: "InnerProduct"
  bottom: "ip2"
  top: "ip3"
  param {
    lr_mult: 1
  }
  param {
    lr_mult: 2
  }
  inner_product_param {
    num_output: 10
    weight_filler {
      type: "xavier"
    }
    bias_filler {
      type: "constant"
    }
  }
}
layer {
  name: "relu3"
  type: "ReLU"
  bottom: "ip3"
  top: "ip3"
}
layer {
  name: "loss"
  type: "SoftmaxWithLoss"
  bottom: "ip3"
  bottom: "label"
  top: "loss"
}
I0428 20:11:18.111068 32040 layer_factory.hpp:77] Creating layer mnist
I0428 20:11:18.111197 32040 db_lmdb.cpp:35] Opened lmdb examples/mnist/mnist_train_lmdb
I0428 20:11:18.111227 32040 net.cpp:86] Creating Layer mnist
I0428 20:11:18.111238 32040 net.cpp:382] mnist -> data
I0428 20:11:18.111266 32040 net.cpp:382] mnist -> label
I0428 20:11:18.112666 32040 data_layer.cpp:45] output data size: 64,1,28,28
I0428 20:11:18.116063 32040 net.cpp:124] Setting up mnist
I0428 20:11:18.116086 32040 net.cpp:131] Top shape: 64 1 28 28 (50176)
I0428 20:11:18.116096 32040 net.cpp:131] Top shape: 64 (64)
I0428 20:11:18.116101 32040 net.cpp:139] Memory required for data: 200960
I0428 20:11:18.116111 32040 layer_factory.hpp:77] Creating layer conv0
I0428 20:11:18.116132 32040 net.cpp:86] Creating Layer conv0
I0428 20:11:18.116156 32040 net.cpp:408] conv0 <- data
I0428 20:11:18.116171 32040 net.cpp:382] conv0 -> conv0
I0428 20:11:18.422111 32040 net.cpp:124] Setting up conv0
I0428 20:11:18.422142 32040 net.cpp:131] Top shape: 64 25 24 24 (921600)
I0428 20:11:18.422145 32040 net.cpp:139] Memory required for data: 3887360
I0428 20:11:18.422164 32040 layer_factory.hpp:77] Creating layer pool0
I0428 20:11:18.422179 32040 net.cpp:86] Creating Layer pool0
I0428 20:11:18.422184 32040 net.cpp:408] pool0 <- conv0
I0428 20:11:18.422207 32040 net.cpp:382] pool0 -> pool0
I0428 20:11:18.422274 32040 net.cpp:124] Setting up pool0
I0428 20:11:18.422286 32040 net.cpp:131] Top shape: 64 25 12 12 (230400)
I0428 20:11:18.422289 32040 net.cpp:139] Memory required for data: 4808960
I0428 20:11:18.422294 32040 layer_factory.hpp:77] Creating layer conv1
I0428 20:11:18.422307 32040 net.cpp:86] Creating Layer conv1
I0428 20:11:18.422312 32040 net.cpp:408] conv1 <- pool0
I0428 20:11:18.422319 32040 net.cpp:382] conv1 -> conv1
I0428 20:11:18.425101 32040 net.cpp:124] Setting up conv1
I0428 20:11:18.425117 32040 net.cpp:131] Top shape: 64 50 8 8 (204800)
I0428 20:11:18.425122 32040 net.cpp:139] Memory required for data: 5628160
I0428 20:11:18.425134 32040 layer_factory.hpp:77] Creating layer pool1
I0428 20:11:18.425158 32040 net.cpp:86] Creating Layer pool1
I0428 20:11:18.425163 32040 net.cpp:408] pool1 <- conv1
I0428 20:11:18.425170 32040 net.cpp:382] pool1 -> pool1
I0428 20:11:18.425215 32040 net.cpp:124] Setting up pool1
I0428 20:11:18.425238 32040 net.cpp:131] Top shape: 64 50 4 4 (51200)
I0428 20:11:18.425243 32040 net.cpp:139] Memory required for data: 5832960
I0428 20:11:18.425247 32040 layer_factory.hpp:77] Creating layer ip1
I0428 20:11:18.425257 32040 net.cpp:86] Creating Layer ip1
I0428 20:11:18.425261 32040 net.cpp:408] ip1 <- pool1
I0428 20:11:18.425268 32040 net.cpp:382] ip1 -> ip1
I0428 20:11:18.425616 32040 net.cpp:124] Setting up ip1
I0428 20:11:18.425626 32040 net.cpp:131] Top shape: 64 25 (1600)
I0428 20:11:18.425645 32040 net.cpp:139] Memory required for data: 5839360
I0428 20:11:18.425669 32040 layer_factory.hpp:77] Creating layer relu1
I0428 20:11:18.425678 32040 net.cpp:86] Creating Layer relu1
I0428 20:11:18.425683 32040 net.cpp:408] relu1 <- ip1
I0428 20:11:18.425688 32040 net.cpp:369] relu1 -> ip1 (in-place)
I0428 20:11:18.425916 32040 net.cpp:124] Setting up relu1
I0428 20:11:18.425928 32040 net.cpp:131] Top shape: 64 25 (1600)
I0428 20:11:18.425932 32040 net.cpp:139] Memory required for data: 5845760
I0428 20:11:18.425937 32040 layer_factory.hpp:77] Creating layer ip2
I0428 20:11:18.425945 32040 net.cpp:86] Creating Layer ip2
I0428 20:11:18.425950 32040 net.cpp:408] ip2 <- ip1
I0428 20:11:18.425956 32040 net.cpp:382] ip2 -> ip2
I0428 20:11:18.426082 32040 net.cpp:124] Setting up ip2
I0428 20:11:18.426091 32040 net.cpp:131] Top shape: 64 25 (1600)
I0428 20:11:18.426095 32040 net.cpp:139] Memory required for data: 5852160
I0428 20:11:18.426103 32040 layer_factory.hpp:77] Creating layer relu2
I0428 20:11:18.426111 32040 net.cpp:86] Creating Layer relu2
I0428 20:11:18.426115 32040 net.cpp:408] relu2 <- ip2
I0428 20:11:18.426137 32040 net.cpp:369] relu2 -> ip2 (in-place)
I0428 20:11:18.427275 32040 net.cpp:124] Setting up relu2
I0428 20:11:18.427305 32040 net.cpp:131] Top shape: 64 25 (1600)
I0428 20:11:18.427310 32040 net.cpp:139] Memory required for data: 5858560
I0428 20:11:18.427315 32040 layer_factory.hpp:77] Creating layer ip3
I0428 20:11:18.427326 32040 net.cpp:86] Creating Layer ip3
I0428 20:11:18.427331 32040 net.cpp:408] ip3 <- ip2
I0428 20:11:18.427340 32040 net.cpp:382] ip3 -> ip3
I0428 20:11:18.427456 32040 net.cpp:124] Setting up ip3
I0428 20:11:18.427481 32040 net.cpp:131] Top shape: 64 10 (640)
I0428 20:11:18.427485 32040 net.cpp:139] Memory required for data: 5861120
I0428 20:11:18.427495 32040 layer_factory.hpp:77] Creating layer relu3
I0428 20:11:18.427502 32040 net.cpp:86] Creating Layer relu3
I0428 20:11:18.427507 32040 net.cpp:408] relu3 <- ip3
I0428 20:11:18.427513 32040 net.cpp:369] relu3 -> ip3 (in-place)
I0428 20:11:18.427729 32040 net.cpp:124] Setting up relu3
I0428 20:11:18.427758 32040 net.cpp:131] Top shape: 64 10 (640)
I0428 20:11:18.427763 32040 net.cpp:139] Memory required for data: 5863680
I0428 20:11:18.427768 32040 layer_factory.hpp:77] Creating layer loss
I0428 20:11:18.427778 32040 net.cpp:86] Creating Layer loss
I0428 20:11:18.427783 32040 net.cpp:408] loss <- ip3
I0428 20:11:18.427788 32040 net.cpp:408] loss <- label
I0428 20:11:18.427795 32040 net.cpp:382] loss -> loss
I0428 20:11:18.427829 32040 layer_factory.hpp:77] Creating layer loss
…
I0428 20:11:18.428822 32040 solver.cpp:173] Creating test net (#0) specified by net file: ECE595/mnist/train_test/var_everything2/lenet_train_test1155.prototxt
I0428 20:11:18.428894 32040 net.cpp:296] The NetState phase (1) differed from the phase (0) specified by a rule in layer mnist
I0428 20:11:18.429041 32040 net.cpp:53] Initializing net from parameters: 
name: "LeNet"
state {
  phase: TEST
}
layer {
  name: "mnist"
  type: "Data"
  top: "data"
  top: "label"
  include {
    phase: TEST
  }
  transform_param {
    scale: 0.00390625
  }
  data_param {
    source: "examples/mnist/mnist_test_lmdb"
    batch_size: 100
    backend: LMDB
  }
}
layer {
  name: "conv0"
  type: "Convolution"
  bottom: "data"
  top: "conv0"
  param {
    lr_mult: 1
  }
  param {
    lr_mult: 2
  }
  convolution_param {
    num_output: 25
    kernel_size: 5
    stride: 1
    weight_filler {
      type: "xavier"
    }
    bias_filler {
      type: "constant"
    }
  }
}
layer {
  name: "pool0"
  type: "Pooling"
  bottom: "conv0"
  top: "pool0"
  pooling_param {
    pool: MAX
    kernel_size: 2
    stride: 2
  }
}
layer {
  name: "conv1"
  type: "Convolution"
  bottom: "pool0"
  top: "conv1"
  param {
    lr_mult: 1
  }
  param {
    lr_mult: 2
  }
  convolution_param {
    num_output: 50
    kernel_size: 5
    stride: 1
    weight_filler {
      type: "xavier"
    }
    bias_filler {
      type: "constant"
    }
  }
}
layer {
  name: "pool1"
  type: "Pooling"
  bottom: "conv1"
  top: "pool1"
  pooling_param {
    pool: MAX
    kernel_size: 2
    stride: 2
  }
}
layer {
  name: "ip1"
  type: "InnerProduct"
  bottom: "pool1"
  top: "ip1"
  param {
    lr_mult: 1
  }
  param {
    lr_mult: 2
  }
  inner_product_param {
    num_output: 25
    weight_filler {
      type: "xavier"
    }
    bias_filler {
      type: "constant"
    }
  }
}
layer {
  name: "relu1"
  type: "ReLU"
  bottom: "ip1"
  top: "ip1"
}
layer {
  name: "ip2"
  type: "InnerProduct"
  bottom: "ip1"
  top: "ip2"
  param {
    lr_mult: 1
  }
  param {
    lr_mult: 2
  }
  inner_product_param {
    num_output: 25
    weight_filler {
      type: "xavier"
    }
    bias_filler {
      type: "constant"
    }
  }
}
layer {
  name: "relu2"
  type: "ReLU"
  bottom: "ip2"
  top: "ip2"
}
layer {
  name: "ip3"
  type: "InnerProduct"
  bottom: "ip2"
  top: "ip3"
  param {
    lr_mult: 1
  }
  param {
    lr_mult: 2
  }
  inner_product_param {
    num_output: 10
    weight_filler {
      type: "xavier"
    }
    bias_filler {
      type: "constant"
    }
  }
}
layer {
  name: "relu3"
  type: "ReLU"
  bottom: "ip3"
  top: "ip3"
}
layer {
  name: "accuracy"
  type: "Accuracy"
  bottom: "ip3"
  bottom: "label"
  top: "accuracy"
  include {
    phase: TEST
  }
}
layer {
  name: "loss"
  type: "SoftmaxWithLoss"
  bottom: "ip3"
  bottom: "label"
  top: "loss"
}
I0428 20:11:18.429167 32040 layer_factory.hpp:77] Creating layer mnist
I0428 20:11:18.429250 32040 db_lmdb.cpp:35] Opened lmdb examples/mnist/mnist_test_lmdb
I0428 20:11:18.429268 32040 net.cpp:86] Creating Layer mnist
I0428 20:11:18.429275 32040 net.cpp:382] mnist -> data
I0428 20:11:18.429285 32040 net.cpp:382] mnist -> label
I0428 20:11:18.429407 32040 data_layer.cpp:45] output data size: 100,1,28,28
I0428 20:11:18.432029 32040 net.cpp:124] Setting up mnist
I0428 20:11:18.432045 32040 net.cpp:131] Top shape: 100 1 28 28 (78400)
I0428 20:11:18.432051 32040 net.cpp:131] Top shape: 100 (100)
I0428 20:11:18.432056 32040 net.cpp:139] Memory required for data: 314000
I0428 20:11:18.432061 32040 layer_factory.hpp:77] Creating layer label_mnist_1_split
I0428 20:11:18.432087 32040 net.cpp:86] Creating Layer label_mnist_1_split
I0428 20:11:18.432092 32040 net.cpp:408] label_mnist_1_split <- label
I0428 20:11:18.432101 32040 net.cpp:382] label_mnist_1_split -> label_mnist_1_split_0
I0428 20:11:18.432109 32040 net.cpp:382] label_mnist_1_split -> label_mnist_1_split_1
I0428 20:11:18.432229 32040 net.cpp:124] Setting up label_mnist_1_split
I0428 20:11:18.432240 32040 net.cpp:131] Top shape: 100 (100)
I0428 20:11:18.432245 32040 net.cpp:131] Top shape: 100 (100)
I0428 20:11:18.432250 32040 net.cpp:139] Memory required for data: 314800
I0428 20:11:18.432255 32040 layer_factory.hpp:77] Creating layer conv0
I0428 20:11:18.432267 32040 net.cpp:86] Creating Layer conv0
I0428 20:11:18.432272 32040 net.cpp:408] conv0 <- data
I0428 20:11:18.432281 32040 net.cpp:382] conv0 -> conv0
I0428 20:11:18.434376 32040 net.cpp:124] Setting up conv0
I0428 20:11:18.434407 32040 net.cpp:131] Top shape: 100 25 24 24 (1440000)
I0428 20:11:18.434412 32040 net.cpp:139] Memory required for data: 6074800
I0428 20:11:18.434427 32040 layer_factory.hpp:77] Creating layer pool0
I0428 20:11:18.434437 32040 net.cpp:86] Creating Layer pool0
I0428 20:11:18.434440 32040 net.cpp:408] pool0 <- conv0
I0428 20:11:18.434448 32040 net.cpp:382] pool0 -> pool0
I0428 20:11:18.434500 32040 net.cpp:124] Setting up pool0
I0428 20:11:18.434509 32040 net.cpp:131] Top shape: 100 25 12 12 (360000)
I0428 20:11:18.434530 32040 net.cpp:139] Memory required for data: 7514800
I0428 20:11:18.434535 32040 layer_factory.hpp:77] Creating layer conv1
I0428 20:11:18.434547 32040 net.cpp:86] Creating Layer conv1
I0428 20:11:18.434552 32040 net.cpp:408] conv1 <- pool0
I0428 20:11:18.434562 32040 net.cpp:382] conv1 -> conv1
I0428 20:11:18.437070 32040 net.cpp:124] Setting up conv1
I0428 20:11:18.437088 32040 net.cpp:131] Top shape: 100 50 8 8 (320000)
I0428 20:11:18.437093 32040 net.cpp:139] Memory required for data: 8794800
I0428 20:11:18.437119 32040 layer_factory.hpp:77] Creating layer pool1
I0428 20:11:18.437144 32040 net.cpp:86] Creating Layer pool1
I0428 20:11:18.437149 32040 net.cpp:408] pool1 <- conv1
I0428 20:11:18.437172 32040 net.cpp:382] pool1 -> pool1
I0428 20:11:18.437233 32040 net.cpp:124] Setting up pool1
I0428 20:11:18.437244 32040 net.cpp:131] Top shape: 100 50 4 4 (80000)
I0428 20:11:18.437268 32040 net.cpp:139] Memory required for data: 9114800
I0428 20:11:18.437271 32040 layer_factory.hpp:77] Creating layer ip1
I0428 20:11:18.437280 32040 net.cpp:86] Creating Layer ip1
I0428 20:11:18.437285 32040 net.cpp:408] ip1 <- pool1
I0428 20:11:18.437294 32040 net.cpp:382] ip1 -> ip1
I0428 20:11:18.437635 32040 net.cpp:124] Setting up ip1
I0428 20:11:18.437646 32040 net.cpp:131] Top shape: 100 25 (2500)
I0428 20:11:18.437664 32040 net.cpp:139] Memory required for data: 9124800
I0428 20:11:18.437676 32040 layer_factory.hpp:77] Creating layer relu1
I0428 20:11:18.437683 32040 net.cpp:86] Creating Layer relu1
I0428 20:11:18.437695 32040 net.cpp:408] relu1 <- ip1
I0428 20:11:18.437703 32040 net.cpp:369] relu1 -> ip1 (in-place)
I0428 20:11:18.437984 32040 net.cpp:124] Setting up relu1
I0428 20:11:18.437995 32040 net.cpp:131] Top shape: 100 25 (2500)
I0428 20:11:18.438000 32040 net.cpp:139] Memory required for data: 9134800
I0428 20:11:18.438004 32040 layer_factory.hpp:77] Creating layer ip2
I0428 20:11:18.438015 32040 net.cpp:86] Creating Layer ip2
I0428 20:11:18.438020 32040 net.cpp:408] ip2 <- ip1
I0428 20:11:18.438026 32040 net.cpp:382] ip2 -> ip2
I0428 20:11:18.438206 32040 net.cpp:124] Setting up ip2
I0428 20:11:18.438217 32040 net.cpp:131] Top shape: 100 25 (2500)
I0428 20:11:18.438222 32040 net.cpp:139] Memory required for data: 9144800
I0428 20:11:18.438230 32040 layer_factory.hpp:77] Creating layer relu2
I0428 20:11:18.438237 32040 net.cpp:86] Creating Layer relu2
I0428 20:11:18.438242 32040 net.cpp:408] relu2 <- ip2
I0428 20:11:18.438251 32040 net.cpp:369] relu2 -> ip2 (in-place)
I0428 20:11:18.438477 32040 net.cpp:124] Setting up relu2
I0428 20:11:18.438488 32040 net.cpp:131] Top shape: 100 25 (2500)
I0428 20:11:18.438493 32040 net.cpp:139] Memory required for data: 9154800
I0428 20:11:18.438498 32040 layer_factory.hpp:77] Creating layer ip3
I0428 20:11:18.438519 32040 net.cpp:86] Creating Layer ip3
I0428 20:11:18.438524 32040 net.cpp:408] ip3 <- ip2
I0428 20:11:18.438530 32040 net.cpp:382] ip3 -> ip3
I0428 20:11:18.438683 32040 net.cpp:124] Setting up ip3
I0428 20:11:18.438693 32040 net.cpp:131] Top shape: 100 10 (1000)
I0428 20:11:18.438696 32040 net.cpp:139] Memory required for data: 9158800
I0428 20:11:18.438707 32040 layer_factory.hpp:77] Creating layer relu3
I0428 20:11:18.438715 32040 net.cpp:86] Creating Layer relu3
I0428 20:11:18.438721 32040 net.cpp:408] relu3 <- ip3
I0428 20:11:18.438727 32040 net.cpp:369] relu3 -> ip3 (in-place)
I0428 20:11:18.439894 32040 net.cpp:124] Setting up relu3
I0428 20:11:18.439909 32040 net.cpp:131] Top shape: 100 10 (1000)
I0428 20:11:18.439914 32040 net.cpp:139] Memory required for data: 9162800
I0428 20:11:18.439919 32040 layer_factory.hpp:77] Creating layer ip3_relu3_0_split
I0428 20:11:18.439929 32040 net.cpp:86] Creating Layer ip3_relu3_0_split
I0428 20:11:18.439934 32040 net.cpp:408] ip3_relu3_0_split <- ip3
I0428 20:11:18.439940 32040 net.cpp:382] ip3_relu3_0_split -> ip3_relu3_0_split_0
I0428 20:11:18.439949 32040 net.cpp:382] ip3_relu3_0_split -> ip3_relu3_0_split_1
I0428 20:11:18.440012 32040 net.cpp:124] Setting up ip3_relu3_0_split
I0428 20:11:18.440021 32040 net.cpp:131] Top shape: 100 10 (1000)
I0428 20:11:18.440027 32040 net.cpp:131] Top shape: 100 10 (1000)
I0428 20:11:18.440032 32040 net.cpp:139] Memory required for data: 9170800
I0428 20:11:18.440035 32040 layer_factory.hpp:77] Creating layer accuracy
I0428 20:11:18.440043 32040 net.cpp:86] Creating Layer accuracy
I0428 20:11:18.440057 32040 net.cpp:408] accuracy <- ip3_relu3_0_split_0
I0428 20:11:18.440068 32040 net.cpp:408] accuracy <- label_mnist_1_split_0
I0428 20:11:18.440074 32040 net.cpp:382] accuracy -> accuracy
…
