…
I0428 20:10:39.857872 31893 net.cpp:296] The NetState phase (0) differed from the phase (1) specified by a rule in layer mnist
I0428 20:10:39.857885 31893 net.cpp:296] The NetState phase (0) differed from the phase (1) specified by a rule in layer accuracy
I0428 20:10:39.857975 31893 net.cpp:53] Initializing net from parameters: 
name: "LeNet"
state {
  phase: TRAIN
  level: 0
  stage: ""
}
layer {
  name: "mnist"
  type: "Data"
  top: "data"
  top: "label"
  include {
    phase: TRAIN
  }
  transform_param {
    scale: 0.00390625
  }
  data_param {
    source: "examples/mnist/mnist_train_lmdb"
    batch_size: 64
    backend: LMDB
  }
}
layer {
  name: "conv0"
  type: "Convolution"
  bottom: "data"
  top: "conv0"
  param {
    lr_mult: 1
  }
  param {
    lr_mult: 2
  }
  convolution_param {
    num_output: 25
    kernel_size: 5
    stride: 1
    weight_filler {
      type: "xavier"
    }
    bias_filler {
      type: "constant"
    }
  }
}
layer {
  name: "pool0"
  type: "Pooling"
  bottom: "conv0"
  top: "pool0"
  pooling_param {
    pool: MAX
    kernel_size: 2
    stride: 2
  }
}
layer {
  name: "conv1"
  type: "Convolution"
  bottom: "pool0"
  top: "conv1"
  param {
    lr_mult: 1
  }
  param {
    lr_mult: 2
  }
  convolution_param {
    num_output: 50
    kernel_size: 5
    stride: 1
    weight_filler {
      type: "xavier"
    }
    bias_filler {
      type: "constant"
    }
  }
}
layer {
  name: "pool1"
  type: "Pooling"
  bottom: "conv1"
  top: "pool1"
  pooling_param {
    pool: MAX
    kernel_size: 2
    stride: 2
  }
}
layer {
  name: "ip1"
  type: "InnerProduct"
  bottom: "pool1"
  top: "ip1"
  param {
    lr_mult: 1
  }
  param {
    lr_mult: 2
  }
  inner_product_param {
    num_output: 50
    weight_filler {
      type: "xavier"
    }
    bias_filler {
      type: "constant"
    }
  }
}
layer {
  name: "relu1"
  type: "ReLU"
  bottom: "ip1"
  top: "ip1"
}
layer {
  name: "ip2"
  type: "InnerProduct"
  bottom: "ip1"
  top: "ip2"
  param {
    lr_mult: 1
  }
  param {
    lr_mult: 2
  }
  inner_product_param {
    num_output: 10
    weight_filler {
      type: "xavier"
    }
    bias_filler {
      type: "constant"
    }
  }
}
layer {
  name: "relu2"
  type: "ReLU"
  bottom: "ip2"
  top: "ip2"
}
layer {
  name: "loss"
  type: "SoftmaxWithLoss"
  bottom: "ip2"
  bottom: "label"
  top: "loss"
}
I0428 20:10:39.858041 31893 layer_factory.hpp:77] Creating layer mnist
I0428 20:10:39.858121 31893 db_lmdb.cpp:35] Opened lmdb examples/mnist/mnist_train_lmdb
I0428 20:10:39.858139 31893 net.cpp:86] Creating Layer mnist
I0428 20:10:39.858147 31893 net.cpp:382] mnist -> data
I0428 20:10:39.858167 31893 net.cpp:382] mnist -> label
I0428 20:10:39.859089 31893 data_layer.cpp:45] output data size: 64,1,28,28
I0428 20:10:39.861546 31893 net.cpp:124] Setting up mnist
I0428 20:10:39.861577 31893 net.cpp:131] Top shape: 64 1 28 28 (50176)
I0428 20:10:39.861582 31893 net.cpp:131] Top shape: 64 (64)
I0428 20:10:39.861585 31893 net.cpp:139] Memory required for data: 200960
I0428 20:10:39.861590 31893 layer_factory.hpp:77] Creating layer conv0
I0428 20:10:39.861629 31893 net.cpp:86] Creating Layer conv0
I0428 20:10:39.861634 31893 net.cpp:408] conv0 <- data
I0428 20:10:39.861651 31893 net.cpp:382] conv0 -> conv0
I0428 20:10:40.088789 31893 net.cpp:124] Setting up conv0
I0428 20:10:40.088821 31893 net.cpp:131] Top shape: 64 25 24 24 (921600)
I0428 20:10:40.088829 31893 net.cpp:139] Memory required for data: 3887360
I0428 20:10:40.088879 31893 layer_factory.hpp:77] Creating layer pool0
I0428 20:10:40.088892 31893 net.cpp:86] Creating Layer pool0
I0428 20:10:40.088897 31893 net.cpp:408] pool0 <- conv0
I0428 20:10:40.088902 31893 net.cpp:382] pool0 -> pool0
I0428 20:10:40.088984 31893 net.cpp:124] Setting up pool0
I0428 20:10:40.088992 31893 net.cpp:131] Top shape: 64 25 12 12 (230400)
I0428 20:10:40.088995 31893 net.cpp:139] Memory required for data: 4808960
I0428 20:10:40.088999 31893 layer_factory.hpp:77] Creating layer conv1
I0428 20:10:40.089010 31893 net.cpp:86] Creating Layer conv1
I0428 20:10:40.089013 31893 net.cpp:408] conv1 <- pool0
I0428 20:10:40.089020 31893 net.cpp:382] conv1 -> conv1
I0428 20:10:40.091189 31893 net.cpp:124] Setting up conv1
I0428 20:10:40.091219 31893 net.cpp:131] Top shape: 64 50 8 8 (204800)
I0428 20:10:40.091223 31893 net.cpp:139] Memory required for data: 5628160
I0428 20:10:40.091231 31893 layer_factory.hpp:77] Creating layer pool1
I0428 20:10:40.091238 31893 net.cpp:86] Creating Layer pool1
I0428 20:10:40.091243 31893 net.cpp:408] pool1 <- conv1
I0428 20:10:40.091246 31893 net.cpp:382] pool1 -> pool1
I0428 20:10:40.091297 31893 net.cpp:124] Setting up pool1
I0428 20:10:40.091303 31893 net.cpp:131] Top shape: 64 50 4 4 (51200)
I0428 20:10:40.091306 31893 net.cpp:139] Memory required for data: 5832960
I0428 20:10:40.091310 31893 layer_factory.hpp:77] Creating layer ip1
I0428 20:10:40.091336 31893 net.cpp:86] Creating Layer ip1
I0428 20:10:40.091338 31893 net.cpp:408] ip1 <- pool1
I0428 20:10:40.091342 31893 net.cpp:382] ip1 -> ip1
I0428 20:10:40.091688 31893 net.cpp:124] Setting up ip1
I0428 20:10:40.091696 31893 net.cpp:131] Top shape: 64 50 (3200)
I0428 20:10:40.091716 31893 net.cpp:139] Memory required for data: 5845760
I0428 20:10:40.091722 31893 layer_factory.hpp:77] Creating layer relu1
I0428 20:10:40.091727 31893 net.cpp:86] Creating Layer relu1
I0428 20:10:40.091732 31893 net.cpp:408] relu1 <- ip1
I0428 20:10:40.091737 31893 net.cpp:369] relu1 -> ip1 (in-place)
I0428 20:10:40.091908 31893 net.cpp:124] Setting up relu1
I0428 20:10:40.091917 31893 net.cpp:131] Top shape: 64 50 (3200)
I0428 20:10:40.091919 31893 net.cpp:139] Memory required for data: 5858560
I0428 20:10:40.091922 31893 layer_factory.hpp:77] Creating layer ip2
I0428 20:10:40.091928 31893 net.cpp:86] Creating Layer ip2
I0428 20:10:40.091931 31893 net.cpp:408] ip2 <- ip1
I0428 20:10:40.091936 31893 net.cpp:382] ip2 -> ip2
I0428 20:10:40.092026 31893 net.cpp:124] Setting up ip2
I0428 20:10:40.092033 31893 net.cpp:131] Top shape: 64 10 (640)
I0428 20:10:40.092036 31893 net.cpp:139] Memory required for data: 5861120
I0428 20:10:40.092041 31893 layer_factory.hpp:77] Creating layer relu2
I0428 20:10:40.092047 31893 net.cpp:86] Creating Layer relu2
I0428 20:10:40.092051 31893 net.cpp:408] relu2 <- ip2
I0428 20:10:40.092054 31893 net.cpp:369] relu2 -> ip2 (in-place)
I0428 20:10:40.092897 31893 net.cpp:124] Setting up relu2
I0428 20:10:40.092911 31893 net.cpp:131] Top shape: 64 10 (640)
I0428 20:10:40.092916 31893 net.cpp:139] Memory required for data: 5863680
I0428 20:10:40.092919 31893 layer_factory.hpp:77] Creating layer loss
I0428 20:10:40.092926 31893 net.cpp:86] Creating Layer loss
I0428 20:10:40.092929 31893 net.cpp:408] loss <- ip2
I0428 20:10:40.092934 31893 net.cpp:408] loss <- label
I0428 20:10:40.092941 31893 net.cpp:382] loss -> loss
I0428 20:10:40.092963 31893 layer_factory.hpp:77] Creating layer loss
…
I0428 20:10:40.093755 31893 solver.cpp:173] Creating test net (#0) specified by net file: ECE595/mnist/train_test/var_everything2/lenet_train_test1140.prototxt
I0428 20:10:40.093791 31893 net.cpp:296] The NetState phase (1) differed from the phase (0) specified by a rule in layer mnist
I0428 20:10:40.093875 31893 net.cpp:53] Initializing net from parameters: 
name: "LeNet"
state {
  phase: TEST
}
layer {
  name: "mnist"
  type: "Data"
  top: "data"
  top: "label"
  include {
    phase: TEST
  }
  transform_param {
    scale: 0.00390625
  }
  data_param {
    source: "examples/mnist/mnist_test_lmdb"
    batch_size: 100
    backend: LMDB
  }
}
layer {
  name: "conv0"
  type: "Convolution"
  bottom: "data"
  top: "conv0"
  param {
    lr_mult: 1
  }
  param {
    lr_mult: 2
  }
  convolution_param {
    num_output: 25
    kernel_size: 5
    stride: 1
    weight_filler {
      type: "xavier"
    }
    bias_filler {
      type: "constant"
    }
  }
}
layer {
  name: "pool0"
  type: "Pooling"
  bottom: "conv0"
  top: "pool0"
  pooling_param {
    pool: MAX
    kernel_size: 2
    stride: 2
  }
}
layer {
  name: "conv1"
  type: "Convolution"
  bottom: "pool0"
  top: "conv1"
  param {
    lr_mult: 1
  }
  param {
    lr_mult: 2
  }
  convolution_param {
    num_output: 50
    kernel_size: 5
    stride: 1
    weight_filler {
      type: "xavier"
    }
    bias_filler {
      type: "constant"
    }
  }
}
layer {
  name: "pool1"
  type: "Pooling"
  bottom: "conv1"
  top: "pool1"
  pooling_param {
    pool: MAX
    kernel_size: 2
    stride: 2
  }
}
layer {
  name: "ip1"
  type: "InnerProduct"
  bottom: "pool1"
  top: "ip1"
  param {
    lr_mult: 1
  }
  param {
    lr_mult: 2
  }
  inner_product_param {
    num_output: 50
    weight_filler {
      type: "xavier"
    }
    bias_filler {
      type: "constant"
    }
  }
}
layer {
  name: "relu1"
  type: "ReLU"
  bottom: "ip1"
  top: "ip1"
}
layer {
  name: "ip2"
  type: "InnerProduct"
  bottom: "ip1"
  top: "ip2"
  param {
    lr_mult: 1
  }
  param {
    lr_mult: 2
  }
  inner_product_param {
    num_output: 10
    weight_filler {
      type: "xavier"
    }
    bias_filler {
      type: "constant"
    }
  }
}
layer {
  name: "relu2"
  type: "ReLU"
  bottom: "ip2"
  top: "ip2"
}
layer {
  name: "accuracy"
  type: "Accuracy"
  bottom: "ip2"
  bottom: "label"
  top: "accuracy"
  include {
    phase: TEST
  }
}
layer {
  name: "loss"
  type: "SoftmaxWithLoss"
  bottom: "ip2"
  bottom: "label"
  top: "loss"
}
I0428 20:10:40.093940 31893 layer_factory.hpp:77] Creating layer mnist
I0428 20:10:40.094002 31893 db_lmdb.cpp:35] Opened lmdb examples/mnist/mnist_test_lmdb
I0428 20:10:40.094013 31893 net.cpp:86] Creating Layer mnist
I0428 20:10:40.094018 31893 net.cpp:382] mnist -> data
I0428 20:10:40.094027 31893 net.cpp:382] mnist -> label
I0428 20:10:40.094106 31893 data_layer.cpp:45] output data size: 100,1,28,28
I0428 20:10:40.096101 31893 net.cpp:124] Setting up mnist
I0428 20:10:40.096124 31893 net.cpp:131] Top shape: 100 1 28 28 (78400)
I0428 20:10:40.096129 31893 net.cpp:131] Top shape: 100 (100)
I0428 20:10:40.096132 31893 net.cpp:139] Memory required for data: 314000
I0428 20:10:40.096137 31893 layer_factory.hpp:77] Creating layer label_mnist_1_split
I0428 20:10:40.096165 31893 net.cpp:86] Creating Layer label_mnist_1_split
I0428 20:10:40.096169 31893 net.cpp:408] label_mnist_1_split <- label
I0428 20:10:40.096174 31893 net.cpp:382] label_mnist_1_split -> label_mnist_1_split_0
I0428 20:10:40.096180 31893 net.cpp:382] label_mnist_1_split -> label_mnist_1_split_1
I0428 20:10:40.096235 31893 net.cpp:124] Setting up label_mnist_1_split
I0428 20:10:40.096240 31893 net.cpp:131] Top shape: 100 (100)
I0428 20:10:40.096245 31893 net.cpp:131] Top shape: 100 (100)
I0428 20:10:40.096247 31893 net.cpp:139] Memory required for data: 314800
I0428 20:10:40.096264 31893 layer_factory.hpp:77] Creating layer conv0
I0428 20:10:40.096272 31893 net.cpp:86] Creating Layer conv0
I0428 20:10:40.096276 31893 net.cpp:408] conv0 <- data
I0428 20:10:40.096280 31893 net.cpp:382] conv0 -> conv0
I0428 20:10:40.098186 31893 net.cpp:124] Setting up conv0
I0428 20:10:40.098201 31893 net.cpp:131] Top shape: 100 25 24 24 (1440000)
I0428 20:10:40.098206 31893 net.cpp:139] Memory required for data: 6074800
I0428 20:10:40.098214 31893 layer_factory.hpp:77] Creating layer pool0
I0428 20:10:40.098222 31893 net.cpp:86] Creating Layer pool0
I0428 20:10:40.098224 31893 net.cpp:408] pool0 <- conv0
I0428 20:10:40.098229 31893 net.cpp:382] pool0 -> pool0
I0428 20:10:40.098265 31893 net.cpp:124] Setting up pool0
I0428 20:10:40.098271 31893 net.cpp:131] Top shape: 100 25 12 12 (360000)
I0428 20:10:40.098274 31893 net.cpp:139] Memory required for data: 7514800
I0428 20:10:40.098278 31893 layer_factory.hpp:77] Creating layer conv1
I0428 20:10:40.098285 31893 net.cpp:86] Creating Layer conv1
I0428 20:10:40.098289 31893 net.cpp:408] conv1 <- pool0
I0428 20:10:40.098294 31893 net.cpp:382] conv1 -> conv1
I0428 20:10:40.100138 31893 net.cpp:124] Setting up conv1
I0428 20:10:40.100165 31893 net.cpp:131] Top shape: 100 50 8 8 (320000)
I0428 20:10:40.100169 31893 net.cpp:139] Memory required for data: 8794800
I0428 20:10:40.100178 31893 layer_factory.hpp:77] Creating layer pool1
I0428 20:10:40.100198 31893 net.cpp:86] Creating Layer pool1
I0428 20:10:40.100201 31893 net.cpp:408] pool1 <- conv1
I0428 20:10:40.100221 31893 net.cpp:382] pool1 -> pool1
I0428 20:10:40.100260 31893 net.cpp:124] Setting up pool1
I0428 20:10:40.100265 31893 net.cpp:131] Top shape: 100 50 4 4 (80000)
I0428 20:10:40.100267 31893 net.cpp:139] Memory required for data: 9114800
I0428 20:10:40.100270 31893 layer_factory.hpp:77] Creating layer ip1
I0428 20:10:40.100275 31893 net.cpp:86] Creating Layer ip1
I0428 20:10:40.100278 31893 net.cpp:408] ip1 <- pool1
I0428 20:10:40.100283 31893 net.cpp:382] ip1 -> ip1
I0428 20:10:40.100610 31893 net.cpp:124] Setting up ip1
I0428 20:10:40.100618 31893 net.cpp:131] Top shape: 100 50 (5000)
I0428 20:10:40.100622 31893 net.cpp:139] Memory required for data: 9134800
I0428 20:10:40.100630 31893 layer_factory.hpp:77] Creating layer relu1
I0428 20:10:40.100634 31893 net.cpp:86] Creating Layer relu1
I0428 20:10:40.100658 31893 net.cpp:408] relu1 <- ip1
I0428 20:10:40.100662 31893 net.cpp:369] relu1 -> ip1 (in-place)
I0428 20:10:40.100814 31893 net.cpp:124] Setting up relu1
I0428 20:10:40.100839 31893 net.cpp:131] Top shape: 100 50 (5000)
I0428 20:10:40.100842 31893 net.cpp:139] Memory required for data: 9154800
I0428 20:10:40.100847 31893 layer_factory.hpp:77] Creating layer ip2
I0428 20:10:40.100852 31893 net.cpp:86] Creating Layer ip2
I0428 20:10:40.100855 31893 net.cpp:408] ip2 <- ip1
I0428 20:10:40.100862 31893 net.cpp:382] ip2 -> ip2
I0428 20:10:40.100993 31893 net.cpp:124] Setting up ip2
I0428 20:10:40.101001 31893 net.cpp:131] Top shape: 100 10 (1000)
I0428 20:10:40.101004 31893 net.cpp:139] Memory required for data: 9158800
I0428 20:10:40.101011 31893 layer_factory.hpp:77] Creating layer relu2
I0428 20:10:40.101022 31893 net.cpp:86] Creating Layer relu2
I0428 20:10:40.101027 31893 net.cpp:408] relu2 <- ip2
I0428 20:10:40.101030 31893 net.cpp:369] relu2 -> ip2 (in-place)
I0428 20:10:40.101217 31893 net.cpp:124] Setting up relu2
I0428 20:10:40.101224 31893 net.cpp:131] Top shape: 100 10 (1000)
I0428 20:10:40.101227 31893 net.cpp:139] Memory required for data: 9162800
I0428 20:10:40.101230 31893 layer_factory.hpp:77] Creating layer ip2_relu2_0_split
I0428 20:10:40.101249 31893 net.cpp:86] Creating Layer ip2_relu2_0_split
I0428 20:10:40.101253 31893 net.cpp:408] ip2_relu2_0_split <- ip2
I0428 20:10:40.101258 31893 net.cpp:382] ip2_relu2_0_split -> ip2_relu2_0_split_0
I0428 20:10:40.101287 31893 net.cpp:382] ip2_relu2_0_split -> ip2_relu2_0_split_1
I0428 20:10:40.101321 31893 net.cpp:124] Setting up ip2_relu2_0_split
I0428 20:10:40.101326 31893 net.cpp:131] Top shape: 100 10 (1000)
I0428 20:10:40.101330 31893 net.cpp:131] Top shape: 100 10 (1000)
I0428 20:10:40.101332 31893 net.cpp:139] Memory required for data: 9170800
I0428 20:10:40.101336 31893 layer_factory.hpp:77] Creating layer accuracy
I0428 20:10:40.101341 31893 net.cpp:86] Creating Layer accuracy
I0428 20:10:40.101343 31893 net.cpp:408] accuracy <- ip2_relu2_0_split_0
I0428 20:10:40.101362 31893 net.cpp:408] accuracy <- label_mnist_1_split_0
I0428 20:10:40.101374 31893 net.cpp:382] accuracy -> accuracy
…
