…
I0428 20:10:59.893329 31982 net.cpp:296] The NetState phase (0) differed from the phase (1) specified by a rule in layer mnist
I0428 20:10:59.893349 31982 net.cpp:296] The NetState phase (0) differed from the phase (1) specified by a rule in layer accuracy
I0428 20:10:59.893451 31982 net.cpp:53] Initializing net from parameters: 
name: "LeNet"
state {
  phase: TRAIN
  level: 0
  stage: ""
}
layer {
  name: "mnist"
  type: "Data"
  top: "data"
  top: "label"
  include {
    phase: TRAIN
  }
  transform_param {
    scale: 0.00390625
  }
  data_param {
    source: "examples/mnist/mnist_train_lmdb"
    batch_size: 64
    backend: LMDB
  }
}
layer {
  name: "conv0"
  type: "Convolution"
  bottom: "data"
  top: "conv0"
  param {
    lr_mult: 1
  }
  param {
    lr_mult: 2
  }
  convolution_param {
    num_output: 25
    kernel_size: 5
    stride: 1
    weight_filler {
      type: "xavier"
    }
    bias_filler {
      type: "constant"
    }
  }
}
layer {
  name: "pool0"
  type: "Pooling"
  bottom: "conv0"
  top: "pool0"
  pooling_param {
    pool: MAX
    kernel_size: 2
    stride: 2
  }
}
layer {
  name: "conv1"
  type: "Convolution"
  bottom: "pool0"
  top: "conv1"
  param {
    lr_mult: 1
  }
  param {
    lr_mult: 2
  }
  convolution_param {
    num_output: 50
    kernel_size: 5
    stride: 1
    weight_filler {
      type: "xavier"
    }
    bias_filler {
      type: "constant"
    }
  }
}
layer {
  name: "pool1"
  type: "Pooling"
  bottom: "conv1"
  top: "pool1"
  pooling_param {
    pool: MAX
    kernel_size: 2
    stride: 2
  }
}
layer {
  name: "ip1"
  type: "InnerProduct"
  bottom: "pool1"
  top: "ip1"
  param {
    lr_mult: 1
  }
  param {
    lr_mult: 2
  }
  inner_product_param {
    num_output: 10
    weight_filler {
      type: "xavier"
    }
    bias_filler {
      type: "constant"
    }
  }
}
layer {
  name: "relu1"
  type: "ReLU"
  bottom: "ip1"
  top: "ip1"
}
layer {
  name: "ip2"
  type: "InnerProduct"
  bottom: "ip1"
  top: "ip2"
  param {
    lr_mult: 1
  }
  param {
    lr_mult: 2
  }
  inner_product_param {
    num_output: 25
    weight_filler {
      type: "xavier"
    }
    bias_filler {
      type: "constant"
    }
  }
}
layer {
  name: "relu2"
  type: "ReLU"
  bottom: "ip2"
  top: "ip2"
}
layer {
  name: "ip3"
  type: "InnerProduct"
  bottom: "ip2"
  top: "ip3"
  param {
    lr_mult: 1
  }
  param {
    lr_mult: 2
  }
  inner_product_param {
    num_output: 10
    weight_filler {
      type: "xavier"
    }
    bias_filler {
      type: "constant"
    }
  }
}
layer {
  name: "relu3"
  type: "ReLU"
  bottom: "ip3"
  top: "ip3"
}
layer {
  name: "loss"
  type: "SoftmaxWithLoss"
  bottom: "ip3"
  bottom: "label"
  top: "loss"
}
I0428 20:10:59.893533 31982 layer_factory.hpp:77] Creating layer mnist
I0428 20:10:59.893633 31982 db_lmdb.cpp:35] Opened lmdb examples/mnist/mnist_train_lmdb
I0428 20:10:59.893656 31982 net.cpp:86] Creating Layer mnist
I0428 20:10:59.893666 31982 net.cpp:382] mnist -> data
I0428 20:10:59.893689 31982 net.cpp:382] mnist -> label
I0428 20:10:59.894779 31982 data_layer.cpp:45] output data size: 64,1,28,28
I0428 20:10:59.897223 31982 net.cpp:124] Setting up mnist
I0428 20:10:59.897244 31982 net.cpp:131] Top shape: 64 1 28 28 (50176)
I0428 20:10:59.897251 31982 net.cpp:131] Top shape: 64 (64)
I0428 20:10:59.897254 31982 net.cpp:139] Memory required for data: 200960
I0428 20:10:59.897261 31982 layer_factory.hpp:77] Creating layer conv0
I0428 20:10:59.897310 31982 net.cpp:86] Creating Layer conv0
I0428 20:10:59.897338 31982 net.cpp:408] conv0 <- data
I0428 20:10:59.897351 31982 net.cpp:382] conv0 -> conv0
I0428 20:11:00.164171 31982 net.cpp:124] Setting up conv0
I0428 20:11:00.164216 31982 net.cpp:131] Top shape: 64 25 24 24 (921600)
I0428 20:11:00.164219 31982 net.cpp:139] Memory required for data: 3887360
I0428 20:11:00.164235 31982 layer_factory.hpp:77] Creating layer pool0
I0428 20:11:00.164248 31982 net.cpp:86] Creating Layer pool0
I0428 20:11:00.164252 31982 net.cpp:408] pool0 <- conv0
I0428 20:11:00.164273 31982 net.cpp:382] pool0 -> pool0
I0428 20:11:00.164320 31982 net.cpp:124] Setting up pool0
I0428 20:11:00.164333 31982 net.cpp:131] Top shape: 64 25 12 12 (230400)
I0428 20:11:00.164336 31982 net.cpp:139] Memory required for data: 4808960
I0428 20:11:00.164340 31982 layer_factory.hpp:77] Creating layer conv1
I0428 20:11:00.164350 31982 net.cpp:86] Creating Layer conv1
I0428 20:11:00.164353 31982 net.cpp:408] conv1 <- pool0
I0428 20:11:00.164358 31982 net.cpp:382] conv1 -> conv1
I0428 20:11:00.166551 31982 net.cpp:124] Setting up conv1
I0428 20:11:00.166582 31982 net.cpp:131] Top shape: 64 50 8 8 (204800)
I0428 20:11:00.166587 31982 net.cpp:139] Memory required for data: 5628160
I0428 20:11:00.166596 31982 layer_factory.hpp:77] Creating layer pool1
I0428 20:11:00.166604 31982 net.cpp:86] Creating Layer pool1
I0428 20:11:00.166609 31982 net.cpp:408] pool1 <- conv1
I0428 20:11:00.166613 31982 net.cpp:382] pool1 -> pool1
I0428 20:11:00.166682 31982 net.cpp:124] Setting up pool1
I0428 20:11:00.166699 31982 net.cpp:131] Top shape: 64 50 4 4 (51200)
I0428 20:11:00.166702 31982 net.cpp:139] Memory required for data: 5832960
I0428 20:11:00.166705 31982 layer_factory.hpp:77] Creating layer ip1
I0428 20:11:00.166713 31982 net.cpp:86] Creating Layer ip1
I0428 20:11:00.166718 31982 net.cpp:408] ip1 <- pool1
I0428 20:11:00.166721 31982 net.cpp:382] ip1 -> ip1
I0428 20:11:00.167752 31982 net.cpp:124] Setting up ip1
I0428 20:11:00.167764 31982 net.cpp:131] Top shape: 64 10 (640)
I0428 20:11:00.167784 31982 net.cpp:139] Memory required for data: 5835520
I0428 20:11:00.167793 31982 layer_factory.hpp:77] Creating layer relu1
I0428 20:11:00.167801 31982 net.cpp:86] Creating Layer relu1
I0428 20:11:00.167805 31982 net.cpp:408] relu1 <- ip1
I0428 20:11:00.167810 31982 net.cpp:369] relu1 -> ip1 (in-place)
I0428 20:11:00.168007 31982 net.cpp:124] Setting up relu1
I0428 20:11:00.168017 31982 net.cpp:131] Top shape: 64 10 (640)
I0428 20:11:00.168021 31982 net.cpp:139] Memory required for data: 5838080
I0428 20:11:00.168025 31982 layer_factory.hpp:77] Creating layer ip2
I0428 20:11:00.168031 31982 net.cpp:86] Creating Layer ip2
I0428 20:11:00.168035 31982 net.cpp:408] ip2 <- ip1
I0428 20:11:00.168040 31982 net.cpp:382] ip2 -> ip2
I0428 20:11:00.168141 31982 net.cpp:124] Setting up ip2
I0428 20:11:00.168149 31982 net.cpp:131] Top shape: 64 25 (1600)
I0428 20:11:00.168153 31982 net.cpp:139] Memory required for data: 5844480
I0428 20:11:00.168159 31982 layer_factory.hpp:77] Creating layer relu2
I0428 20:11:00.168164 31982 net.cpp:86] Creating Layer relu2
I0428 20:11:00.168169 31982 net.cpp:408] relu2 <- ip2
I0428 20:11:00.168172 31982 net.cpp:369] relu2 -> ip2 (in-place)
I0428 20:11:00.168987 31982 net.cpp:124] Setting up relu2
I0428 20:11:00.169016 31982 net.cpp:131] Top shape: 64 25 (1600)
I0428 20:11:00.169019 31982 net.cpp:139] Memory required for data: 5850880
I0428 20:11:00.169023 31982 layer_factory.hpp:77] Creating layer ip3
I0428 20:11:00.169030 31982 net.cpp:86] Creating Layer ip3
I0428 20:11:00.169034 31982 net.cpp:408] ip3 <- ip2
I0428 20:11:00.169040 31982 net.cpp:382] ip3 -> ip3
I0428 20:11:00.169142 31982 net.cpp:124] Setting up ip3
I0428 20:11:00.169152 31982 net.cpp:131] Top shape: 64 10 (640)
I0428 20:11:00.169154 31982 net.cpp:139] Memory required for data: 5853440
I0428 20:11:00.169163 31982 layer_factory.hpp:77] Creating layer relu3
I0428 20:11:00.169168 31982 net.cpp:86] Creating Layer relu3
I0428 20:11:00.169172 31982 net.cpp:408] relu3 <- ip3
I0428 20:11:00.169175 31982 net.cpp:369] relu3 -> ip3 (in-place)
I0428 20:11:00.169358 31982 net.cpp:124] Setting up relu3
I0428 20:11:00.169368 31982 net.cpp:131] Top shape: 64 10 (640)
I0428 20:11:00.169370 31982 net.cpp:139] Memory required for data: 5856000
I0428 20:11:00.169373 31982 layer_factory.hpp:77] Creating layer loss
I0428 20:11:00.169379 31982 net.cpp:86] Creating Layer loss
I0428 20:11:00.169383 31982 net.cpp:408] loss <- ip3
I0428 20:11:00.169386 31982 net.cpp:408] loss <- label
I0428 20:11:00.169392 31982 net.cpp:382] loss -> loss
I0428 20:11:00.169409 31982 layer_factory.hpp:77] Creating layer loss
…
I0428 20:11:00.170147 31982 solver.cpp:173] Creating test net (#0) specified by net file: ECE595/mnist/train_test/var_everything2/lenet_train_test1148.prototxt
I0428 20:11:00.170189 31982 net.cpp:296] The NetState phase (1) differed from the phase (0) specified by a rule in layer mnist
I0428 20:11:00.170281 31982 net.cpp:53] Initializing net from parameters: 
name: "LeNet"
state {
  phase: TEST
}
layer {
  name: "mnist"
  type: "Data"
  top: "data"
  top: "label"
  include {
    phase: TEST
  }
  transform_param {
    scale: 0.00390625
  }
  data_param {
    source: "examples/mnist/mnist_test_lmdb"
    batch_size: 100
    backend: LMDB
  }
}
layer {
  name: "conv0"
  type: "Convolution"
  bottom: "data"
  top: "conv0"
  param {
    lr_mult: 1
  }
  param {
    lr_mult: 2
  }
  convolution_param {
    num_output: 25
    kernel_size: 5
    stride: 1
    weight_filler {
      type: "xavier"
    }
    bias_filler {
      type: "constant"
    }
  }
}
layer {
  name: "pool0"
  type: "Pooling"
  bottom: "conv0"
  top: "pool0"
  pooling_param {
    pool: MAX
    kernel_size: 2
    stride: 2
  }
}
layer {
  name: "conv1"
  type: "Convolution"
  bottom: "pool0"
  top: "conv1"
  param {
    lr_mult: 1
  }
  param {
    lr_mult: 2
  }
  convolution_param {
    num_output: 50
    kernel_size: 5
    stride: 1
    weight_filler {
      type: "xavier"
    }
    bias_filler {
      type: "constant"
    }
  }
}
layer {
  name: "pool1"
  type: "Pooling"
  bottom: "conv1"
  top: "pool1"
  pooling_param {
    pool: MAX
    kernel_size: 2
    stride: 2
  }
}
layer {
  name: "ip1"
  type: "InnerProduct"
  bottom: "pool1"
  top: "ip1"
  param {
    lr_mult: 1
  }
  param {
    lr_mult: 2
  }
  inner_product_param {
    num_output: 10
    weight_filler {
      type: "xavier"
    }
    bias_filler {
      type: "constant"
    }
  }
}
layer {
  name: "relu1"
  type: "ReLU"
  bottom: "ip1"
  top: "ip1"
}
layer {
  name: "ip2"
  type: "InnerProduct"
  bottom: "ip1"
  top: "ip2"
  param {
    lr_mult: 1
  }
  param {
    lr_mult: 2
  }
  inner_product_param {
    num_output: 25
    weight_filler {
      type: "xavier"
    }
    bias_filler {
      type: "constant"
    }
  }
}
layer {
  name: "relu2"
  type: "ReLU"
  bottom: "ip2"
  top: "ip2"
}
layer {
  name: "ip3"
  type: "InnerProduct"
  bottom: "ip2"
  top: "ip3"
  param {
    lr_mult: 1
  }
  param {
    lr_mult: 2
  }
  inner_product_param {
    num_output: 10
    weight_filler {
      type: "xavier"
    }
    bias_filler {
      type: "constant"
    }
  }
}
layer {
  name: "relu3"
  type: "ReLU"
  bottom: "ip3"
  top: "ip3"
}
layer {
  name: "accuracy"
  type: "Accuracy"
  bottom: "ip3"
  bottom: "label"
  top: "accuracy"
  include {
    phase: TEST
  }
}
layer {
  name: "loss"
  type: "SoftmaxWithLoss"
  bottom: "ip3"
  bottom: "label"
  top: "loss"
}
I0428 20:11:00.170361 31982 layer_factory.hpp:77] Creating layer mnist
I0428 20:11:00.170405 31982 db_lmdb.cpp:35] Opened lmdb examples/mnist/mnist_test_lmdb
I0428 20:11:00.170418 31982 net.cpp:86] Creating Layer mnist
I0428 20:11:00.170423 31982 net.cpp:382] mnist -> data
I0428 20:11:00.170431 31982 net.cpp:382] mnist -> label
I0428 20:11:00.170516 31982 data_layer.cpp:45] output data size: 100,1,28,28
I0428 20:11:00.172785 31982 net.cpp:124] Setting up mnist
I0428 20:11:00.172801 31982 net.cpp:131] Top shape: 100 1 28 28 (78400)
I0428 20:11:00.172806 31982 net.cpp:131] Top shape: 100 (100)
I0428 20:11:00.172814 31982 net.cpp:139] Memory required for data: 314000
I0428 20:11:00.172818 31982 layer_factory.hpp:77] Creating layer label_mnist_1_split
I0428 20:11:00.172842 31982 net.cpp:86] Creating Layer label_mnist_1_split
I0428 20:11:00.172845 31982 net.cpp:408] label_mnist_1_split <- label
I0428 20:11:00.172850 31982 net.cpp:382] label_mnist_1_split -> label_mnist_1_split_0
I0428 20:11:00.172857 31982 net.cpp:382] label_mnist_1_split -> label_mnist_1_split_1
I0428 20:11:00.172912 31982 net.cpp:124] Setting up label_mnist_1_split
I0428 20:11:00.172919 31982 net.cpp:131] Top shape: 100 (100)
I0428 20:11:00.172924 31982 net.cpp:131] Top shape: 100 (100)
I0428 20:11:00.172926 31982 net.cpp:139] Memory required for data: 314800
I0428 20:11:00.172930 31982 layer_factory.hpp:77] Creating layer conv0
I0428 20:11:00.172938 31982 net.cpp:86] Creating Layer conv0
I0428 20:11:00.172942 31982 net.cpp:408] conv0 <- data
I0428 20:11:00.172947 31982 net.cpp:382] conv0 -> conv0
I0428 20:11:00.174590 31982 net.cpp:124] Setting up conv0
I0428 20:11:00.174604 31982 net.cpp:131] Top shape: 100 25 24 24 (1440000)
I0428 20:11:00.174608 31982 net.cpp:139] Memory required for data: 6074800
I0428 20:11:00.174618 31982 layer_factory.hpp:77] Creating layer pool0
I0428 20:11:00.174624 31982 net.cpp:86] Creating Layer pool0
I0428 20:11:00.174628 31982 net.cpp:408] pool0 <- conv0
I0428 20:11:00.174633 31982 net.cpp:382] pool0 -> pool0
I0428 20:11:00.174670 31982 net.cpp:124] Setting up pool0
I0428 20:11:00.174675 31982 net.cpp:131] Top shape: 100 25 12 12 (360000)
I0428 20:11:00.174679 31982 net.cpp:139] Memory required for data: 7514800
I0428 20:11:00.174681 31982 layer_factory.hpp:77] Creating layer conv1
I0428 20:11:00.174690 31982 net.cpp:86] Creating Layer conv1
I0428 20:11:00.174693 31982 net.cpp:408] conv1 <- pool0
I0428 20:11:00.174698 31982 net.cpp:382] conv1 -> conv1
I0428 20:11:00.176558 31982 net.cpp:124] Setting up conv1
I0428 20:11:00.176571 31982 net.cpp:131] Top shape: 100 50 8 8 (320000)
I0428 20:11:00.176574 31982 net.cpp:139] Memory required for data: 8794800
I0428 20:11:00.176584 31982 layer_factory.hpp:77] Creating layer pool1
I0428 20:11:00.176612 31982 net.cpp:86] Creating Layer pool1
I0428 20:11:00.176616 31982 net.cpp:408] pool1 <- conv1
I0428 20:11:00.176621 31982 net.cpp:382] pool1 -> pool1
I0428 20:11:00.176686 31982 net.cpp:124] Setting up pool1
I0428 20:11:00.176692 31982 net.cpp:131] Top shape: 100 50 4 4 (80000)
I0428 20:11:00.176700 31982 net.cpp:139] Memory required for data: 9114800
I0428 20:11:00.176704 31982 layer_factory.hpp:77] Creating layer ip1
I0428 20:11:00.176710 31982 net.cpp:86] Creating Layer ip1
I0428 20:11:00.176713 31982 net.cpp:408] ip1 <- pool1
I0428 20:11:00.176718 31982 net.cpp:382] ip1 -> ip1
I0428 20:11:00.176872 31982 net.cpp:124] Setting up ip1
I0428 20:11:00.176880 31982 net.cpp:131] Top shape: 100 10 (1000)
I0428 20:11:00.176903 31982 net.cpp:139] Memory required for data: 9118800
I0428 20:11:00.176911 31982 layer_factory.hpp:77] Creating layer relu1
I0428 20:11:00.176918 31982 net.cpp:86] Creating Layer relu1
I0428 20:11:00.176920 31982 net.cpp:408] relu1 <- ip1
I0428 20:11:00.176928 31982 net.cpp:369] relu1 -> ip1 (in-place)
I0428 20:11:00.177103 31982 net.cpp:124] Setting up relu1
I0428 20:11:00.177112 31982 net.cpp:131] Top shape: 100 10 (1000)
I0428 20:11:00.177124 31982 net.cpp:139] Memory required for data: 9122800
I0428 20:11:00.177127 31982 layer_factory.hpp:77] Creating layer ip2
I0428 20:11:00.177136 31982 net.cpp:86] Creating Layer ip2
I0428 20:11:00.177145 31982 net.cpp:408] ip2 <- ip1
I0428 20:11:00.177151 31982 net.cpp:382] ip2 -> ip2
I0428 20:11:00.177285 31982 net.cpp:124] Setting up ip2
I0428 20:11:00.177294 31982 net.cpp:131] Top shape: 100 25 (2500)
I0428 20:11:00.177296 31982 net.cpp:139] Memory required for data: 9132800
I0428 20:11:00.177301 31982 layer_factory.hpp:77] Creating layer relu2
I0428 20:11:00.177312 31982 net.cpp:86] Creating Layer relu2
I0428 20:11:00.177315 31982 net.cpp:408] relu2 <- ip2
I0428 20:11:00.177320 31982 net.cpp:369] relu2 -> ip2 (in-place)
I0428 20:11:00.177471 31982 net.cpp:124] Setting up relu2
I0428 20:11:00.177480 31982 net.cpp:131] Top shape: 100 25 (2500)
I0428 20:11:00.177484 31982 net.cpp:139] Memory required for data: 9142800
I0428 20:11:00.177486 31982 layer_factory.hpp:77] Creating layer ip3
I0428 20:11:00.177491 31982 net.cpp:86] Creating Layer ip3
I0428 20:11:00.177495 31982 net.cpp:408] ip3 <- ip2
I0428 20:11:00.177525 31982 net.cpp:382] ip3 -> ip3
I0428 20:11:00.177657 31982 net.cpp:124] Setting up ip3
I0428 20:11:00.177675 31982 net.cpp:131] Top shape: 100 10 (1000)
I0428 20:11:00.177680 31982 net.cpp:139] Memory required for data: 9146800
I0428 20:11:00.177687 31982 layer_factory.hpp:77] Creating layer relu3
I0428 20:11:00.177693 31982 net.cpp:86] Creating Layer relu3
I0428 20:11:00.177697 31982 net.cpp:408] relu3 <- ip3
I0428 20:11:00.177701 31982 net.cpp:369] relu3 -> ip3 (in-place)
I0428 20:11:00.178542 31982 net.cpp:124] Setting up relu3
I0428 20:11:00.178555 31982 net.cpp:131] Top shape: 100 10 (1000)
I0428 20:11:00.178557 31982 net.cpp:139] Memory required for data: 9150800
I0428 20:11:00.178561 31982 layer_factory.hpp:77] Creating layer ip3_relu3_0_split
I0428 20:11:00.178566 31982 net.cpp:86] Creating Layer ip3_relu3_0_split
I0428 20:11:00.178570 31982 net.cpp:408] ip3_relu3_0_split <- ip3
I0428 20:11:00.178575 31982 net.cpp:382] ip3_relu3_0_split -> ip3_relu3_0_split_0
I0428 20:11:00.178581 31982 net.cpp:382] ip3_relu3_0_split -> ip3_relu3_0_split_1
I0428 20:11:00.178623 31982 net.cpp:124] Setting up ip3_relu3_0_split
I0428 20:11:00.178628 31982 net.cpp:131] Top shape: 100 10 (1000)
I0428 20:11:00.178632 31982 net.cpp:131] Top shape: 100 10 (1000)
I0428 20:11:00.178634 31982 net.cpp:139] Memory required for data: 9158800
I0428 20:11:00.178637 31982 layer_factory.hpp:77] Creating layer accuracy
I0428 20:11:00.178647 31982 net.cpp:86] Creating Layer accuracy
I0428 20:11:00.178656 31982 net.cpp:408] accuracy <- ip3_relu3_0_split_0
I0428 20:11:00.178660 31982 net.cpp:408] accuracy <- label_mnist_1_split_0
I0428 20:11:00.178666 31982 net.cpp:382] accuracy -> accuracy
…
