…
I0428 20:25:18.959451  2569 net.cpp:296] The NetState phase (0) differed from the phase (1) specified by a rule in layer mnist
I0428 20:25:18.959481  2569 net.cpp:296] The NetState phase (0) differed from the phase (1) specified by a rule in layer accuracy
I0428 20:25:18.959553  2569 net.cpp:53] Initializing net from parameters: 
name: "LeNet"
state {
  phase: TRAIN
  level: 0
  stage: ""
}
layer {
  name: "mnist"
  type: "Data"
  top: "data"
  top: "label"
  include {
    phase: TRAIN
  }
  transform_param {
    scale: 0.00390625
  }
  data_param {
    source: "examples/mnist/mnist_train_lmdb"
    batch_size: 64
    backend: LMDB
  }
}
layer {
  name: "conv0"
  type: "Convolution"
  bottom: "data"
  top: "conv0"
  param {
    lr_mult: 1
  }
  param {
    lr_mult: 2
  }
  convolution_param {
    num_output: 100
    kernel_size: 5
    stride: 1
    weight_filler {
      type: "xavier"
    }
    bias_filler {
      type: "constant"
    }
  }
}
layer {
  name: "pool0"
  type: "Pooling"
  bottom: "conv0"
  top: "pool0"
  pooling_param {
    pool: MAX
    kernel_size: 2
    stride: 2
  }
}
layer {
  name: "conv1"
  type: "Convolution"
  bottom: "pool0"
  top: "conv1"
  param {
    lr_mult: 1
  }
  param {
    lr_mult: 2
  }
  convolution_param {
    num_output: 2
    kernel_size: 5
    stride: 1
    weight_filler {
      type: "xavier"
    }
    bias_filler {
      type: "constant"
    }
  }
}
layer {
  name: "pool1"
  type: "Pooling"
  bottom: "conv1"
  top: "pool1"
  pooling_param {
    pool: MAX
    kernel_size: 2
    stride: 2
  }
}
layer {
  name: "ip1"
  type: "InnerProduct"
  bottom: "pool1"
  top: "ip1"
  param {
    lr_mult: 1
  }
  param {
    lr_mult: 2
  }
  inner_product_param {
    num_output: 50
    weight_filler {
      type: "xavier"
    }
    bias_filler {
      type: "constant"
    }
  }
}
layer {
  name: "relu1"
  type: "ReLU"
  bottom: "ip1"
  top: "ip1"
}
layer {
  name: "ip2"
  type: "InnerProduct"
  bottom: "ip1"
  top: "ip2"
  param {
    lr_mult: 1
  }
  param {
    lr_mult: 2
  }
  inner_product_param {
    num_output: 10
    weight_filler {
      type: "xavier"
    }
    bias_filler {
      type: "constant"
    }
  }
}
layer {
  name: "relu2"
  type: "ReLU"
  bottom: "ip2"
  top: "ip2"
}
layer {
  name: "loss"
  type: "SoftmaxWithLoss"
  bottom: "ip2"
  bottom: "label"
  top: "loss"
}
I0428 20:25:18.959615  2569 layer_factory.hpp:77] Creating layer mnist
I0428 20:25:18.959697  2569 db_lmdb.cpp:35] Opened lmdb examples/mnist/mnist_train_lmdb
I0428 20:25:18.959717  2569 net.cpp:86] Creating Layer mnist
I0428 20:25:18.959722  2569 net.cpp:382] mnist -> data
I0428 20:25:18.959743  2569 net.cpp:382] mnist -> label
I0428 20:25:18.960706  2569 data_layer.cpp:45] output data size: 64,1,28,28
I0428 20:25:18.963016  2569 net.cpp:124] Setting up mnist
I0428 20:25:18.963032  2569 net.cpp:131] Top shape: 64 1 28 28 (50176)
I0428 20:25:18.963037  2569 net.cpp:131] Top shape: 64 (64)
I0428 20:25:18.963039  2569 net.cpp:139] Memory required for data: 200960
I0428 20:25:18.963044  2569 layer_factory.hpp:77] Creating layer conv0
I0428 20:25:18.963058  2569 net.cpp:86] Creating Layer conv0
I0428 20:25:18.963063  2569 net.cpp:408] conv0 <- data
I0428 20:25:18.963071  2569 net.cpp:382] conv0 -> conv0
I0428 20:25:19.201635  2569 net.cpp:124] Setting up conv0
I0428 20:25:19.201678  2569 net.cpp:131] Top shape: 64 100 24 24 (3686400)
I0428 20:25:19.201681  2569 net.cpp:139] Memory required for data: 14946560
I0428 20:25:19.201714  2569 layer_factory.hpp:77] Creating layer pool0
I0428 20:25:19.201727  2569 net.cpp:86] Creating Layer pool0
I0428 20:25:19.201731  2569 net.cpp:408] pool0 <- conv0
I0428 20:25:19.201737  2569 net.cpp:382] pool0 -> pool0
I0428 20:25:19.201786  2569 net.cpp:124] Setting up pool0
I0428 20:25:19.201804  2569 net.cpp:131] Top shape: 64 100 12 12 (921600)
I0428 20:25:19.201807  2569 net.cpp:139] Memory required for data: 18632960
I0428 20:25:19.201810  2569 layer_factory.hpp:77] Creating layer conv1
I0428 20:25:19.201834  2569 net.cpp:86] Creating Layer conv1
I0428 20:25:19.201838  2569 net.cpp:408] conv1 <- pool0
I0428 20:25:19.201843  2569 net.cpp:382] conv1 -> conv1
I0428 20:25:19.204514  2569 net.cpp:124] Setting up conv1
I0428 20:25:19.204527  2569 net.cpp:131] Top shape: 64 2 8 8 (8192)
I0428 20:25:19.204531  2569 net.cpp:139] Memory required for data: 18665728
I0428 20:25:19.204540  2569 layer_factory.hpp:77] Creating layer pool1
I0428 20:25:19.204561  2569 net.cpp:86] Creating Layer pool1
I0428 20:25:19.204566  2569 net.cpp:408] pool1 <- conv1
I0428 20:25:19.204569  2569 net.cpp:382] pool1 -> pool1
I0428 20:25:19.204605  2569 net.cpp:124] Setting up pool1
I0428 20:25:19.204610  2569 net.cpp:131] Top shape: 64 2 4 4 (2048)
I0428 20:25:19.204613  2569 net.cpp:139] Memory required for data: 18673920
I0428 20:25:19.204615  2569 layer_factory.hpp:77] Creating layer ip1
I0428 20:25:19.204622  2569 net.cpp:86] Creating Layer ip1
I0428 20:25:19.204625  2569 net.cpp:408] ip1 <- pool1
I0428 20:25:19.204630  2569 net.cpp:382] ip1 -> ip1
I0428 20:25:19.204756  2569 net.cpp:124] Setting up ip1
I0428 20:25:19.204763  2569 net.cpp:131] Top shape: 64 50 (3200)
I0428 20:25:19.204766  2569 net.cpp:139] Memory required for data: 18686720
I0428 20:25:19.204773  2569 layer_factory.hpp:77] Creating layer relu1
I0428 20:25:19.204779  2569 net.cpp:86] Creating Layer relu1
I0428 20:25:19.204782  2569 net.cpp:408] relu1 <- ip1
I0428 20:25:19.204788  2569 net.cpp:369] relu1 -> ip1 (in-place)
I0428 20:25:19.205010  2569 net.cpp:124] Setting up relu1
I0428 20:25:19.205021  2569 net.cpp:131] Top shape: 64 50 (3200)
I0428 20:25:19.205024  2569 net.cpp:139] Memory required for data: 18699520
I0428 20:25:19.205029  2569 layer_factory.hpp:77] Creating layer ip2
I0428 20:25:19.205035  2569 net.cpp:86] Creating Layer ip2
I0428 20:25:19.205039  2569 net.cpp:408] ip2 <- ip1
I0428 20:25:19.205044  2569 net.cpp:382] ip2 -> ip2
I0428 20:25:19.205195  2569 net.cpp:124] Setting up ip2
I0428 20:25:19.205202  2569 net.cpp:131] Top shape: 64 10 (640)
I0428 20:25:19.205205  2569 net.cpp:139] Memory required for data: 18702080
I0428 20:25:19.205210  2569 layer_factory.hpp:77] Creating layer relu2
I0428 20:25:19.205215  2569 net.cpp:86] Creating Layer relu2
I0428 20:25:19.205219  2569 net.cpp:408] relu2 <- ip2
I0428 20:25:19.205224  2569 net.cpp:369] relu2 -> ip2 (in-place)
I0428 20:25:19.205953  2569 net.cpp:124] Setting up relu2
I0428 20:25:19.205965  2569 net.cpp:131] Top shape: 64 10 (640)
I0428 20:25:19.205984  2569 net.cpp:139] Memory required for data: 18704640
I0428 20:25:19.205987  2569 layer_factory.hpp:77] Creating layer loss
I0428 20:25:19.205994  2569 net.cpp:86] Creating Layer loss
I0428 20:25:19.205997  2569 net.cpp:408] loss <- ip2
I0428 20:25:19.206002  2569 net.cpp:408] loss <- label
I0428 20:25:19.206007  2569 net.cpp:382] loss -> loss
I0428 20:25:19.206025  2569 layer_factory.hpp:77] Creating layer loss
…
I0428 20:25:19.206647  2569 solver.cpp:173] Creating test net (#0) specified by net file: ECE595/mnist/train_test/var_everything2/lenet_train_test1452.prototxt
I0428 20:25:19.206672  2569 net.cpp:296] The NetState phase (1) differed from the phase (0) specified by a rule in layer mnist
I0428 20:25:19.206754  2569 net.cpp:53] Initializing net from parameters: 
name: "LeNet"
state {
  phase: TEST
}
layer {
  name: "mnist"
  type: "Data"
  top: "data"
  top: "label"
  include {
    phase: TEST
  }
  transform_param {
    scale: 0.00390625
  }
  data_param {
    source: "examples/mnist/mnist_test_lmdb"
    batch_size: 100
    backend: LMDB
  }
}
layer {
  name: "conv0"
  type: "Convolution"
  bottom: "data"
  top: "conv0"
  param {
    lr_mult: 1
  }
  param {
    lr_mult: 2
  }
  convolution_param {
    num_output: 100
    kernel_size: 5
    stride: 1
    weight_filler {
      type: "xavier"
    }
    bias_filler {
      type: "constant"
    }
  }
}
layer {
  name: "pool0"
  type: "Pooling"
  bottom: "conv0"
  top: "pool0"
  pooling_param {
    pool: MAX
    kernel_size: 2
    stride: 2
  }
}
layer {
  name: "conv1"
  type: "Convolution"
  bottom: "pool0"
  top: "conv1"
  param {
    lr_mult: 1
  }
  param {
    lr_mult: 2
  }
  convolution_param {
    num_output: 2
    kernel_size: 5
    stride: 1
    weight_filler {
      type: "xavier"
    }
    bias_filler {
      type: "constant"
    }
  }
}
layer {
  name: "pool1"
  type: "Pooling"
  bottom: "conv1"
  top: "pool1"
  pooling_param {
    pool: MAX
    kernel_size: 2
    stride: 2
  }
}
layer {
  name: "ip1"
  type: "InnerProduct"
  bottom: "pool1"
  top: "ip1"
  param {
    lr_mult: 1
  }
  param {
    lr_mult: 2
  }
  inner_product_param {
    num_output: 50
    weight_filler {
      type: "xavier"
    }
    bias_filler {
      type: "constant"
    }
  }
}
layer {
  name: "relu1"
  type: "ReLU"
  bottom: "ip1"
  top: "ip1"
}
layer {
  name: "ip2"
  type: "InnerProduct"
  bottom: "ip1"
  top: "ip2"
  param {
    lr_mult: 1
  }
  param {
    lr_mult: 2
  }
  inner_product_param {
    num_output: 10
    weight_filler {
      type: "xavier"
    }
    bias_filler {
      type: "constant"
    }
  }
}
layer {
  name: "relu2"
  type: "ReLU"
  bottom: "ip2"
  top: "ip2"
}
layer {
  name: "accuracy"
  type: "Accuracy"
  bottom: "ip2"
  bottom: "label"
  top: "accuracy"
  include {
    phase: TEST
  }
}
layer {
  name: "loss"
  type: "SoftmaxWithLoss"
  bottom: "ip2"
  bottom: "label"
  top: "loss"
}
I0428 20:25:19.206836  2569 layer_factory.hpp:77] Creating layer mnist
I0428 20:25:19.206893  2569 db_lmdb.cpp:35] Opened lmdb examples/mnist/mnist_test_lmdb
I0428 20:25:19.206926  2569 net.cpp:86] Creating Layer mnist
I0428 20:25:19.206933  2569 net.cpp:382] mnist -> data
I0428 20:25:19.206940  2569 net.cpp:382] mnist -> label
I0428 20:25:19.207031  2569 data_layer.cpp:45] output data size: 100,1,28,28
I0428 20:25:19.209197  2569 net.cpp:124] Setting up mnist
I0428 20:25:19.209226  2569 net.cpp:131] Top shape: 100 1 28 28 (78400)
I0428 20:25:19.209246  2569 net.cpp:131] Top shape: 100 (100)
I0428 20:25:19.209249  2569 net.cpp:139] Memory required for data: 314000
I0428 20:25:19.209252  2569 layer_factory.hpp:77] Creating layer label_mnist_1_split
I0428 20:25:19.209259  2569 net.cpp:86] Creating Layer label_mnist_1_split
I0428 20:25:19.209264  2569 net.cpp:408] label_mnist_1_split <- label
I0428 20:25:19.209270  2569 net.cpp:382] label_mnist_1_split -> label_mnist_1_split_0
I0428 20:25:19.209276  2569 net.cpp:382] label_mnist_1_split -> label_mnist_1_split_1
I0428 20:25:19.209375  2569 net.cpp:124] Setting up label_mnist_1_split
I0428 20:25:19.209383  2569 net.cpp:131] Top shape: 100 (100)
I0428 20:25:19.209388  2569 net.cpp:131] Top shape: 100 (100)
I0428 20:25:19.209389  2569 net.cpp:139] Memory required for data: 314800
I0428 20:25:19.209393  2569 layer_factory.hpp:77] Creating layer conv0
I0428 20:25:19.209403  2569 net.cpp:86] Creating Layer conv0
I0428 20:25:19.209406  2569 net.cpp:408] conv0 <- data
I0428 20:25:19.209411  2569 net.cpp:382] conv0 -> conv0
I0428 20:25:19.210925  2569 net.cpp:124] Setting up conv0
I0428 20:25:19.210953  2569 net.cpp:131] Top shape: 100 100 24 24 (5760000)
I0428 20:25:19.210958  2569 net.cpp:139] Memory required for data: 23354800
I0428 20:25:19.210966  2569 layer_factory.hpp:77] Creating layer pool0
I0428 20:25:19.210975  2569 net.cpp:86] Creating Layer pool0
I0428 20:25:19.210979  2569 net.cpp:408] pool0 <- conv0
I0428 20:25:19.210983  2569 net.cpp:382] pool0 -> pool0
I0428 20:25:19.211038  2569 net.cpp:124] Setting up pool0
I0428 20:25:19.211045  2569 net.cpp:131] Top shape: 100 100 12 12 (1440000)
I0428 20:25:19.211047  2569 net.cpp:139] Memory required for data: 29114800
I0428 20:25:19.211050  2569 layer_factory.hpp:77] Creating layer conv1
I0428 20:25:19.211062  2569 net.cpp:86] Creating Layer conv1
I0428 20:25:19.211066  2569 net.cpp:408] conv1 <- pool0
I0428 20:25:19.211071  2569 net.cpp:382] conv1 -> conv1
I0428 20:25:19.212627  2569 net.cpp:124] Setting up conv1
I0428 20:25:19.212656  2569 net.cpp:131] Top shape: 100 2 8 8 (12800)
I0428 20:25:19.212659  2569 net.cpp:139] Memory required for data: 29166000
I0428 20:25:19.212668  2569 layer_factory.hpp:77] Creating layer pool1
I0428 20:25:19.212676  2569 net.cpp:86] Creating Layer pool1
I0428 20:25:19.212679  2569 net.cpp:408] pool1 <- conv1
I0428 20:25:19.212687  2569 net.cpp:382] pool1 -> pool1
I0428 20:25:19.212725  2569 net.cpp:124] Setting up pool1
I0428 20:25:19.212731  2569 net.cpp:131] Top shape: 100 2 4 4 (3200)
I0428 20:25:19.212734  2569 net.cpp:139] Memory required for data: 29178800
I0428 20:25:19.212738  2569 layer_factory.hpp:77] Creating layer ip1
I0428 20:25:19.212744  2569 net.cpp:86] Creating Layer ip1
I0428 20:25:19.212748  2569 net.cpp:408] ip1 <- pool1
I0428 20:25:19.212752  2569 net.cpp:382] ip1 -> ip1
I0428 20:25:19.212890  2569 net.cpp:124] Setting up ip1
I0428 20:25:19.212899  2569 net.cpp:131] Top shape: 100 50 (5000)
I0428 20:25:19.212903  2569 net.cpp:139] Memory required for data: 29198800
I0428 20:25:19.212910  2569 layer_factory.hpp:77] Creating layer relu1
I0428 20:25:19.212918  2569 net.cpp:86] Creating Layer relu1
I0428 20:25:19.212920  2569 net.cpp:408] relu1 <- ip1
I0428 20:25:19.212925  2569 net.cpp:369] relu1 -> ip1 (in-place)
I0428 20:25:19.213101  2569 net.cpp:124] Setting up relu1
I0428 20:25:19.213111  2569 net.cpp:131] Top shape: 100 50 (5000)
I0428 20:25:19.213115  2569 net.cpp:139] Memory required for data: 29218800
I0428 20:25:19.213119  2569 layer_factory.hpp:77] Creating layer ip2
I0428 20:25:19.213127  2569 net.cpp:86] Creating Layer ip2
I0428 20:25:19.213130  2569 net.cpp:408] ip2 <- ip1
I0428 20:25:19.213136  2569 net.cpp:382] ip2 -> ip2
I0428 20:25:19.213268  2569 net.cpp:124] Setting up ip2
I0428 20:25:19.213281  2569 net.cpp:131] Top shape: 100 10 (1000)
I0428 20:25:19.213284  2569 net.cpp:139] Memory required for data: 29222800
I0428 20:25:19.213289  2569 layer_factory.hpp:77] Creating layer relu2
I0428 20:25:19.213295  2569 net.cpp:86] Creating Layer relu2
I0428 20:25:19.213299  2569 net.cpp:408] relu2 <- ip2
I0428 20:25:19.213302  2569 net.cpp:369] relu2 -> ip2 (in-place)
I0428 20:25:19.213533  2569 net.cpp:124] Setting up relu2
I0428 20:25:19.213543  2569 net.cpp:131] Top shape: 100 10 (1000)
I0428 20:25:19.213552  2569 net.cpp:139] Memory required for data: 29226800
I0428 20:25:19.213556  2569 layer_factory.hpp:77] Creating layer ip2_relu2_0_split
I0428 20:25:19.213560  2569 net.cpp:86] Creating Layer ip2_relu2_0_split
I0428 20:25:19.213564  2569 net.cpp:408] ip2_relu2_0_split <- ip2
I0428 20:25:19.213568  2569 net.cpp:382] ip2_relu2_0_split -> ip2_relu2_0_split_0
I0428 20:25:19.213587  2569 net.cpp:382] ip2_relu2_0_split -> ip2_relu2_0_split_1
I0428 20:25:19.213639  2569 net.cpp:124] Setting up ip2_relu2_0_split
I0428 20:25:19.213646  2569 net.cpp:131] Top shape: 100 10 (1000)
I0428 20:25:19.213650  2569 net.cpp:131] Top shape: 100 10 (1000)
I0428 20:25:19.213654  2569 net.cpp:139] Memory required for data: 29234800
I0428 20:25:19.213656  2569 layer_factory.hpp:77] Creating layer accuracy
I0428 20:25:19.213662  2569 net.cpp:86] Creating Layer accuracy
I0428 20:25:19.213666  2569 net.cpp:408] accuracy <- ip2_relu2_0_split_0
I0428 20:25:19.213670  2569 net.cpp:408] accuracy <- label_mnist_1_split_0
I0428 20:25:19.213675  2569 net.cpp:382] accuracy -> accuracy
…
