…
I0428 19:59:38.293215 29286 net.cpp:296] The NetState phase (0) differed from the phase (1) specified by a rule in layer mnist
I0428 19:59:38.293258 29286 net.cpp:296] The NetState phase (0) differed from the phase (1) specified by a rule in layer accuracy
I0428 19:59:38.293344 29286 net.cpp:53] Initializing net from parameters: 
name: "LeNet"
state {
  phase: TRAIN
  level: 0
  stage: ""
}
layer {
  name: "mnist"
  type: "Data"
  top: "data"
  top: "label"
  include {
    phase: TRAIN
  }
  transform_param {
    scale: 0.00390625
  }
  data_param {
    source: "examples/mnist/mnist_train_lmdb"
    batch_size: 64
    backend: LMDB
  }
}
layer {
  name: "conv0"
  type: "Convolution"
  bottom: "data"
  top: "conv0"
  param {
    lr_mult: 1
  }
  param {
    lr_mult: 2
  }
  convolution_param {
    num_output: 10
    kernel_size: 5
    stride: 1
    weight_filler {
      type: "xavier"
    }
    bias_filler {
      type: "constant"
    }
  }
}
layer {
  name: "pool0"
  type: "Pooling"
  bottom: "conv0"
  top: "pool0"
  pooling_param {
    pool: MAX
    kernel_size: 2
    stride: 2
  }
}
layer {
  name: "conv1"
  type: "Convolution"
  bottom: "pool0"
  top: "conv1"
  param {
    lr_mult: 1
  }
  param {
    lr_mult: 2
  }
  convolution_param {
    num_output: 10
    kernel_size: 5
    stride: 1
    weight_filler {
      type: "xavier"
    }
    bias_filler {
      type: "constant"
    }
  }
}
layer {
  name: "pool1"
  type: "Pooling"
  bottom: "conv1"
  top: "pool1"
  pooling_param {
    pool: MAX
    kernel_size: 2
    stride: 2
  }
}
layer {
  name: "ip1"
  type: "InnerProduct"
  bottom: "pool1"
  top: "ip1"
  param {
    lr_mult: 1
  }
  param {
    lr_mult: 2
  }
  inner_product_param {
    num_output: 50
    weight_filler {
      type: "xavier"
    }
    bias_filler {
      type: "constant"
    }
  }
}
layer {
  name: "relu1"
  type: "ReLU"
  bottom: "ip1"
  top: "ip1"
}
layer {
  name: "ip2"
  type: "InnerProduct"
  bottom: "ip1"
  top: "ip2"
  param {
    lr_mult: 1
  }
  param {
    lr_mult: 2
  }
  inner_product_param {
    num_output: 25
    weight_filler {
      type: "xavier"
    }
    bias_filler {
      type: "constant"
    }
  }
}
layer {
  name: "relu2"
  type: "ReLU"
  bottom: "ip2"
  top: "ip2"
}
layer {
  name: "ip3"
  type: "InnerProduct"
  bottom: "ip2"
  top: "ip3"
  param {
    lr_mult: 1
  }
  param {
    lr_mult: 2
  }
  inner_product_param {
    num_output: 10
    weight_filler {
      type: "xavier"
    }
    bias_filler {
      type: "constant"
    }
  }
}
layer {
  name: "relu3"
  type: "ReLU"
  bottom: "ip3"
  top: "ip3"
}
layer {
  name: "loss"
  type: "SoftmaxWithLoss"
  bottom: "ip3"
  bottom: "label"
  top: "loss"
}
I0428 19:59:38.293401 29286 layer_factory.hpp:77] Creating layer mnist
I0428 19:59:38.293484 29286 db_lmdb.cpp:35] Opened lmdb examples/mnist/mnist_train_lmdb
I0428 19:59:38.293503 29286 net.cpp:86] Creating Layer mnist
I0428 19:59:38.293509 29286 net.cpp:382] mnist -> data
I0428 19:59:38.293527 29286 net.cpp:382] mnist -> label
I0428 19:59:38.294495 29286 data_layer.cpp:45] output data size: 64,1,28,28
I0428 19:59:38.296665 29286 net.cpp:124] Setting up mnist
I0428 19:59:38.296710 29286 net.cpp:131] Top shape: 64 1 28 28 (50176)
I0428 19:59:38.296715 29286 net.cpp:131] Top shape: 64 (64)
I0428 19:59:38.296718 29286 net.cpp:139] Memory required for data: 200960
I0428 19:59:38.296725 29286 layer_factory.hpp:77] Creating layer conv0
I0428 19:59:38.296737 29286 net.cpp:86] Creating Layer conv0
I0428 19:59:38.296754 29286 net.cpp:408] conv0 <- data
I0428 19:59:38.296764 29286 net.cpp:382] conv0 -> conv0
I0428 19:59:38.525807 29286 net.cpp:124] Setting up conv0
I0428 19:59:38.525849 29286 net.cpp:131] Top shape: 64 10 24 24 (368640)
I0428 19:59:38.525853 29286 net.cpp:139] Memory required for data: 1675520
I0428 19:59:38.525867 29286 layer_factory.hpp:77] Creating layer pool0
I0428 19:59:38.525880 29286 net.cpp:86] Creating Layer pool0
I0428 19:59:38.525884 29286 net.cpp:408] pool0 <- conv0
I0428 19:59:38.525889 29286 net.cpp:382] pool0 -> pool0
I0428 19:59:38.525964 29286 net.cpp:124] Setting up pool0
I0428 19:59:38.525969 29286 net.cpp:131] Top shape: 64 10 12 12 (92160)
I0428 19:59:38.525971 29286 net.cpp:139] Memory required for data: 2044160
I0428 19:59:38.525974 29286 layer_factory.hpp:77] Creating layer conv1
I0428 19:59:38.525985 29286 net.cpp:86] Creating Layer conv1
I0428 19:59:38.525987 29286 net.cpp:408] conv1 <- pool0
I0428 19:59:38.525991 29286 net.cpp:382] conv1 -> conv1
I0428 19:59:38.528754 29286 net.cpp:124] Setting up conv1
I0428 19:59:38.528784 29286 net.cpp:131] Top shape: 64 10 8 8 (40960)
I0428 19:59:38.528787 29286 net.cpp:139] Memory required for data: 2208000
I0428 19:59:38.528795 29286 layer_factory.hpp:77] Creating layer pool1
I0428 19:59:38.528802 29286 net.cpp:86] Creating Layer pool1
I0428 19:59:38.528806 29286 net.cpp:408] pool1 <- conv1
I0428 19:59:38.528815 29286 net.cpp:382] pool1 -> pool1
I0428 19:59:38.528884 29286 net.cpp:124] Setting up pool1
I0428 19:59:38.528904 29286 net.cpp:131] Top shape: 64 10 4 4 (10240)
I0428 19:59:38.528908 29286 net.cpp:139] Memory required for data: 2248960
I0428 19:59:38.528910 29286 layer_factory.hpp:77] Creating layer ip1
I0428 19:59:38.528933 29286 net.cpp:86] Creating Layer ip1
I0428 19:59:38.528936 29286 net.cpp:408] ip1 <- pool1
I0428 19:59:38.528941 29286 net.cpp:382] ip1 -> ip1
I0428 19:59:38.529933 29286 net.cpp:124] Setting up ip1
I0428 19:59:38.529945 29286 net.cpp:131] Top shape: 64 50 (3200)
I0428 19:59:38.529964 29286 net.cpp:139] Memory required for data: 2261760
I0428 19:59:38.529973 29286 layer_factory.hpp:77] Creating layer relu1
I0428 19:59:38.529979 29286 net.cpp:86] Creating Layer relu1
I0428 19:59:38.529983 29286 net.cpp:408] relu1 <- ip1
I0428 19:59:38.529988 29286 net.cpp:369] relu1 -> ip1 (in-place)
I0428 19:59:38.530199 29286 net.cpp:124] Setting up relu1
I0428 19:59:38.530207 29286 net.cpp:131] Top shape: 64 50 (3200)
I0428 19:59:38.530211 29286 net.cpp:139] Memory required for data: 2274560
I0428 19:59:38.530215 29286 layer_factory.hpp:77] Creating layer ip2
I0428 19:59:38.530221 29286 net.cpp:86] Creating Layer ip2
I0428 19:59:38.530225 29286 net.cpp:408] ip2 <- ip1
I0428 19:59:38.530230 29286 net.cpp:382] ip2 -> ip2
I0428 19:59:38.530356 29286 net.cpp:124] Setting up ip2
I0428 19:59:38.530364 29286 net.cpp:131] Top shape: 64 25 (1600)
I0428 19:59:38.530366 29286 net.cpp:139] Memory required for data: 2280960
I0428 19:59:38.530371 29286 layer_factory.hpp:77] Creating layer relu2
I0428 19:59:38.530377 29286 net.cpp:86] Creating Layer relu2
I0428 19:59:38.530380 29286 net.cpp:408] relu2 <- ip2
I0428 19:59:38.530385 29286 net.cpp:369] relu2 -> ip2 (in-place)
I0428 19:59:38.531175 29286 net.cpp:124] Setting up relu2
I0428 19:59:38.531188 29286 net.cpp:131] Top shape: 64 25 (1600)
I0428 19:59:38.531206 29286 net.cpp:139] Memory required for data: 2287360
I0428 19:59:38.531210 29286 layer_factory.hpp:77] Creating layer ip3
I0428 19:59:38.531219 29286 net.cpp:86] Creating Layer ip3
I0428 19:59:38.531222 29286 net.cpp:408] ip3 <- ip2
I0428 19:59:38.531229 29286 net.cpp:382] ip3 -> ip3
I0428 19:59:38.531332 29286 net.cpp:124] Setting up ip3
I0428 19:59:38.531339 29286 net.cpp:131] Top shape: 64 10 (640)
I0428 19:59:38.531342 29286 net.cpp:139] Memory required for data: 2289920
I0428 19:59:38.531350 29286 layer_factory.hpp:77] Creating layer relu3
I0428 19:59:38.531355 29286 net.cpp:86] Creating Layer relu3
I0428 19:59:38.531358 29286 net.cpp:408] relu3 <- ip3
I0428 19:59:38.531363 29286 net.cpp:369] relu3 -> ip3 (in-place)
I0428 19:59:38.531575 29286 net.cpp:124] Setting up relu3
I0428 19:59:38.531584 29286 net.cpp:131] Top shape: 64 10 (640)
I0428 19:59:38.531587 29286 net.cpp:139] Memory required for data: 2292480
I0428 19:59:38.531590 29286 layer_factory.hpp:77] Creating layer loss
I0428 19:59:38.531595 29286 net.cpp:86] Creating Layer loss
I0428 19:59:38.531599 29286 net.cpp:408] loss <- ip3
I0428 19:59:38.531604 29286 net.cpp:408] loss <- label
I0428 19:59:38.531610 29286 net.cpp:382] loss -> loss
I0428 19:59:38.531626 29286 layer_factory.hpp:77] Creating layer loss
…
I0428 19:59:38.532325 29286 solver.cpp:173] Creating test net (#0) specified by net file: ECE595/mnist/train_test/var_everything2/lenet_train_test853.prototxt
I0428 19:59:38.532369 29286 net.cpp:296] The NetState phase (1) differed from the phase (0) specified by a rule in layer mnist
I0428 19:59:38.532461 29286 net.cpp:53] Initializing net from parameters: 
name: "LeNet"
state {
  phase: TEST
}
layer {
  name: "mnist"
  type: "Data"
  top: "data"
  top: "label"
  include {
    phase: TEST
  }
  transform_param {
    scale: 0.00390625
  }
  data_param {
    source: "examples/mnist/mnist_test_lmdb"
    batch_size: 100
    backend: LMDB
  }
}
layer {
  name: "conv0"
  type: "Convolution"
  bottom: "data"
  top: "conv0"
  param {
    lr_mult: 1
  }
  param {
    lr_mult: 2
  }
  convolution_param {
    num_output: 10
    kernel_size: 5
    stride: 1
    weight_filler {
      type: "xavier"
    }
    bias_filler {
      type: "constant"
    }
  }
}
layer {
  name: "pool0"
  type: "Pooling"
  bottom: "conv0"
  top: "pool0"
  pooling_param {
    pool: MAX
    kernel_size: 2
    stride: 2
  }
}
layer {
  name: "conv1"
  type: "Convolution"
  bottom: "pool0"
  top: "conv1"
  param {
    lr_mult: 1
  }
  param {
    lr_mult: 2
  }
  convolution_param {
    num_output: 10
    kernel_size: 5
    stride: 1
    weight_filler {
      type: "xavier"
    }
    bias_filler {
      type: "constant"
    }
  }
}
layer {
  name: "pool1"
  type: "Pooling"
  bottom: "conv1"
  top: "pool1"
  pooling_param {
    pool: MAX
    kernel_size: 2
    stride: 2
  }
}
layer {
  name: "ip1"
  type: "InnerProduct"
  bottom: "pool1"
  top: "ip1"
  param {
    lr_mult: 1
  }
  param {
    lr_mult: 2
  }
  inner_product_param {
    num_output: 50
    weight_filler {
      type: "xavier"
    }
    bias_filler {
      type: "constant"
    }
  }
}
layer {
  name: "relu1"
  type: "ReLU"
  bottom: "ip1"
  top: "ip1"
}
layer {
  name: "ip2"
  type: "InnerProduct"
  bottom: "ip1"
  top: "ip2"
  param {
    lr_mult: 1
  }
  param {
    lr_mult: 2
  }
  inner_product_param {
    num_output: 25
    weight_filler {
      type: "xavier"
    }
    bias_filler {
      type: "constant"
    }
  }
}
layer {
  name: "relu2"
  type: "ReLU"
  bottom: "ip2"
  top: "ip2"
}
layer {
  name: "ip3"
  type: "InnerProduct"
  bottom: "ip2"
  top: "ip3"
  param {
    lr_mult: 1
  }
  param {
    lr_mult: 2
  }
  inner_product_param {
    num_output: 10
    weight_filler {
      type: "xavier"
    }
    bias_filler {
      type: "constant"
    }
  }
}
layer {
  name: "relu3"
  type: "ReLU"
  bottom: "ip3"
  top: "ip3"
}
layer {
  name: "accuracy"
  type: "Accuracy"
  bottom: "ip3"
  bottom: "label"
  top: "accuracy"
  include {
    phase: TEST
  }
}
layer {
  name: "loss"
  type: "SoftmaxWithLoss"
  bottom: "ip3"
  bottom: "label"
  top: "loss"
}
I0428 19:59:38.532557 29286 layer_factory.hpp:77] Creating layer mnist
I0428 19:59:38.532601 29286 db_lmdb.cpp:35] Opened lmdb examples/mnist/mnist_test_lmdb
I0428 19:59:38.532614 29286 net.cpp:86] Creating Layer mnist
I0428 19:59:38.532618 29286 net.cpp:382] mnist -> data
I0428 19:59:38.532625 29286 net.cpp:382] mnist -> label
I0428 19:59:38.532707 29286 data_layer.cpp:45] output data size: 100,1,28,28
I0428 19:59:38.534838 29286 net.cpp:124] Setting up mnist
I0428 19:59:38.534868 29286 net.cpp:131] Top shape: 100 1 28 28 (78400)
I0428 19:59:38.534873 29286 net.cpp:131] Top shape: 100 (100)
I0428 19:59:38.534875 29286 net.cpp:139] Memory required for data: 314000
I0428 19:59:38.534893 29286 layer_factory.hpp:77] Creating layer label_mnist_1_split
I0428 19:59:38.534900 29286 net.cpp:86] Creating Layer label_mnist_1_split
I0428 19:59:38.534904 29286 net.cpp:408] label_mnist_1_split <- label
I0428 19:59:38.534907 29286 net.cpp:382] label_mnist_1_split -> label_mnist_1_split_0
I0428 19:59:38.534914 29286 net.cpp:382] label_mnist_1_split -> label_mnist_1_split_1
I0428 19:59:38.535007 29286 net.cpp:124] Setting up label_mnist_1_split
I0428 19:59:38.535015 29286 net.cpp:131] Top shape: 100 (100)
I0428 19:59:38.535019 29286 net.cpp:131] Top shape: 100 (100)
I0428 19:59:38.535022 29286 net.cpp:139] Memory required for data: 314800
I0428 19:59:38.535024 29286 layer_factory.hpp:77] Creating layer conv0
I0428 19:59:38.535033 29286 net.cpp:86] Creating Layer conv0
I0428 19:59:38.535037 29286 net.cpp:408] conv0 <- data
I0428 19:59:38.535043 29286 net.cpp:382] conv0 -> conv0
I0428 19:59:38.536732 29286 net.cpp:124] Setting up conv0
I0428 19:59:38.536762 29286 net.cpp:131] Top shape: 100 10 24 24 (576000)
I0428 19:59:38.536765 29286 net.cpp:139] Memory required for data: 2618800
I0428 19:59:38.536774 29286 layer_factory.hpp:77] Creating layer pool0
I0428 19:59:38.536782 29286 net.cpp:86] Creating Layer pool0
I0428 19:59:38.536787 29286 net.cpp:408] pool0 <- conv0
I0428 19:59:38.536792 29286 net.cpp:382] pool0 -> pool0
I0428 19:59:38.536856 29286 net.cpp:124] Setting up pool0
I0428 19:59:38.536864 29286 net.cpp:131] Top shape: 100 10 12 12 (144000)
I0428 19:59:38.536866 29286 net.cpp:139] Memory required for data: 3194800
I0428 19:59:38.536870 29286 layer_factory.hpp:77] Creating layer conv1
I0428 19:59:38.536895 29286 net.cpp:86] Creating Layer conv1
I0428 19:59:38.536898 29286 net.cpp:408] conv1 <- pool0
I0428 19:59:38.536906 29286 net.cpp:382] conv1 -> conv1
I0428 19:59:38.539048 29286 net.cpp:124] Setting up conv1
I0428 19:59:38.539062 29286 net.cpp:131] Top shape: 100 10 8 8 (64000)
I0428 19:59:38.539082 29286 net.cpp:139] Memory required for data: 3450800
I0428 19:59:38.539089 29286 layer_factory.hpp:77] Creating layer pool1
I0428 19:59:38.539095 29286 net.cpp:86] Creating Layer pool1
I0428 19:59:38.539100 29286 net.cpp:408] pool1 <- conv1
I0428 19:59:38.539105 29286 net.cpp:382] pool1 -> pool1
I0428 19:59:38.539158 29286 net.cpp:124] Setting up pool1
I0428 19:59:38.539165 29286 net.cpp:131] Top shape: 100 10 4 4 (16000)
I0428 19:59:38.539168 29286 net.cpp:139] Memory required for data: 3514800
I0428 19:59:38.539171 29286 layer_factory.hpp:77] Creating layer ip1
I0428 19:59:38.539177 29286 net.cpp:86] Creating Layer ip1
I0428 19:59:38.539180 29286 net.cpp:408] ip1 <- pool1
I0428 19:59:38.539192 29286 net.cpp:382] ip1 -> ip1
I0428 19:59:38.539364 29286 net.cpp:124] Setting up ip1
I0428 19:59:38.539371 29286 net.cpp:131] Top shape: 100 50 (5000)
I0428 19:59:38.539384 29286 net.cpp:139] Memory required for data: 3534800
I0428 19:59:38.539392 29286 layer_factory.hpp:77] Creating layer relu1
I0428 19:59:38.539397 29286 net.cpp:86] Creating Layer relu1
I0428 19:59:38.539400 29286 net.cpp:408] relu1 <- ip1
I0428 19:59:38.539405 29286 net.cpp:369] relu1 -> ip1 (in-place)
I0428 19:59:38.539603 29286 net.cpp:124] Setting up relu1
I0428 19:59:38.539613 29286 net.cpp:131] Top shape: 100 50 (5000)
I0428 19:59:38.539615 29286 net.cpp:139] Memory required for data: 3554800
I0428 19:59:38.539618 29286 layer_factory.hpp:77] Creating layer ip2
I0428 19:59:38.539628 29286 net.cpp:86] Creating Layer ip2
I0428 19:59:38.539630 29286 net.cpp:408] ip2 <- ip1
I0428 19:59:38.539635 29286 net.cpp:382] ip2 -> ip2
I0428 19:59:38.539742 29286 net.cpp:124] Setting up ip2
I0428 19:59:38.539749 29286 net.cpp:131] Top shape: 100 25 (2500)
I0428 19:59:38.539752 29286 net.cpp:139] Memory required for data: 3564800
I0428 19:59:38.539757 29286 layer_factory.hpp:77] Creating layer relu2
I0428 19:59:38.539762 29286 net.cpp:86] Creating Layer relu2
I0428 19:59:38.539764 29286 net.cpp:408] relu2 <- ip2
I0428 19:59:38.539769 29286 net.cpp:369] relu2 -> ip2 (in-place)
I0428 19:59:38.539937 29286 net.cpp:124] Setting up relu2
I0428 19:59:38.539947 29286 net.cpp:131] Top shape: 100 25 (2500)
I0428 19:59:38.539949 29286 net.cpp:139] Memory required for data: 3574800
I0428 19:59:38.539952 29286 layer_factory.hpp:77] Creating layer ip3
I0428 19:59:38.539958 29286 net.cpp:86] Creating Layer ip3
I0428 19:59:38.539961 29286 net.cpp:408] ip3 <- ip2
I0428 19:59:38.539966 29286 net.cpp:382] ip3 -> ip3
I0428 19:59:38.540066 29286 net.cpp:124] Setting up ip3
I0428 19:59:38.540072 29286 net.cpp:131] Top shape: 100 10 (1000)
I0428 19:59:38.540074 29286 net.cpp:139] Memory required for data: 3578800
I0428 19:59:38.540082 29286 layer_factory.hpp:77] Creating layer relu3
I0428 19:59:38.540087 29286 net.cpp:86] Creating Layer relu3
I0428 19:59:38.540091 29286 net.cpp:408] relu3 <- ip3
I0428 19:59:38.540094 29286 net.cpp:369] relu3 -> ip3 (in-place)
I0428 19:59:38.540884 29286 net.cpp:124] Setting up relu3
I0428 19:59:38.540911 29286 net.cpp:131] Top shape: 100 10 (1000)
I0428 19:59:38.540915 29286 net.cpp:139] Memory required for data: 3582800
I0428 19:59:38.540918 29286 layer_factory.hpp:77] Creating layer ip3_relu3_0_split
I0428 19:59:38.540925 29286 net.cpp:86] Creating Layer ip3_relu3_0_split
I0428 19:59:38.540928 29286 net.cpp:408] ip3_relu3_0_split <- ip3
I0428 19:59:38.540933 29286 net.cpp:382] ip3_relu3_0_split -> ip3_relu3_0_split_0
I0428 19:59:38.540938 29286 net.cpp:382] ip3_relu3_0_split -> ip3_relu3_0_split_1
I0428 19:59:38.541018 29286 net.cpp:124] Setting up ip3_relu3_0_split
I0428 19:59:38.541024 29286 net.cpp:131] Top shape: 100 10 (1000)
I0428 19:59:38.541028 29286 net.cpp:131] Top shape: 100 10 (1000)
I0428 19:59:38.541031 29286 net.cpp:139] Memory required for data: 3590800
I0428 19:59:38.541034 29286 layer_factory.hpp:77] Creating layer accuracy
I0428 19:59:38.541040 29286 net.cpp:86] Creating Layer accuracy
I0428 19:59:38.541044 29286 net.cpp:408] accuracy <- ip3_relu3_0_split_0
I0428 19:59:38.541049 29286 net.cpp:408] accuracy <- label_mnist_1_split_0
I0428 19:59:38.541054 29286 net.cpp:382] accuracy -> accuracy
…
