…
I0428 20:36:09.752671  4750 net.cpp:296] The NetState phase (0) differed from the phase (1) specified by a rule in layer mnist
I0428 20:36:09.752688  4750 net.cpp:296] The NetState phase (0) differed from the phase (1) specified by a rule in layer accuracy
I0428 20:36:09.752768  4750 net.cpp:53] Initializing net from parameters: 
name: "LeNet"
state {
  phase: TRAIN
  level: 0
  stage: ""
}
layer {
  name: "mnist"
  type: "Data"
  top: "data"
  top: "label"
  include {
    phase: TRAIN
  }
  transform_param {
    scale: 0.00390625
  }
  data_param {
    source: "examples/mnist/mnist_train_lmdb"
    batch_size: 64
    backend: LMDB
  }
}
layer {
  name: "conv0"
  type: "Convolution"
  bottom: "data"
  top: "conv0"
  param {
    lr_mult: 1
  }
  param {
    lr_mult: 2
  }
  convolution_param {
    num_output: 100
    kernel_size: 5
    stride: 1
    weight_filler {
      type: "xavier"
    }
    bias_filler {
      type: "constant"
    }
  }
}
layer {
  name: "pool0"
  type: "Pooling"
  bottom: "conv0"
  top: "pool0"
  pooling_param {
    pool: MAX
    kernel_size: 2
    stride: 2
  }
}
layer {
  name: "conv1"
  type: "Convolution"
  bottom: "pool0"
  top: "conv1"
  param {
    lr_mult: 1
  }
  param {
    lr_mult: 2
  }
  convolution_param {
    num_output: 50
    kernel_size: 5
    stride: 1
    weight_filler {
      type: "xavier"
    }
    bias_filler {
      type: "constant"
    }
  }
}
layer {
  name: "pool1"
  type: "Pooling"
  bottom: "conv1"
  top: "pool1"
  pooling_param {
    pool: MAX
    kernel_size: 2
    stride: 2
  }
}
layer {
  name: "ip1"
  type: "InnerProduct"
  bottom: "pool1"
  top: "ip1"
  param {
    lr_mult: 1
  }
  param {
    lr_mult: 2
  }
  inner_product_param {
    num_output: 50
    weight_filler {
      type: "xavier"
    }
    bias_filler {
      type: "constant"
    }
  }
}
layer {
  name: "relu1"
  type: "ReLU"
  bottom: "ip1"
  top: "ip1"
}
layer {
  name: "ip2"
  type: "InnerProduct"
  bottom: "ip1"
  top: "ip2"
  param {
    lr_mult: 1
  }
  param {
    lr_mult: 2
  }
  inner_product_param {
    num_output: 25
    weight_filler {
      type: "xavier"
    }
    bias_filler {
      type: "constant"
    }
  }
}
layer {
  name: "relu2"
  type: "ReLU"
  bottom: "ip2"
  top: "ip2"
}
layer {
  name: "ip3"
  type: "InnerProduct"
  bottom: "ip2"
  top: "ip3"
  param {
    lr_mult: 1
  }
  param {
    lr_mult: 2
  }
  inner_product_param {
    num_output: 10
    weight_filler {
      type: "xavier"
    }
    bias_filler {
      type: "constant"
    }
  }
}
layer {
  name: "relu3"
  type: "ReLU"
  bottom: "ip3"
  top: "ip3"
}
layer {
  name: "loss"
  type: "SoftmaxWithLoss"
  bottom: "ip3"
  bottom: "label"
  top: "loss"
}
I0428 20:36:09.752882  4750 layer_factory.hpp:77] Creating layer mnist
I0428 20:36:09.752966  4750 db_lmdb.cpp:35] Opened lmdb examples/mnist/mnist_train_lmdb
I0428 20:36:09.752986  4750 net.cpp:86] Creating Layer mnist
I0428 20:36:09.752995  4750 net.cpp:382] mnist -> data
I0428 20:36:09.753013  4750 net.cpp:382] mnist -> label
I0428 20:36:09.753965  4750 data_layer.cpp:45] output data size: 64,1,28,28
I0428 20:36:09.756158  4750 net.cpp:124] Setting up mnist
I0428 20:36:09.756189  4750 net.cpp:131] Top shape: 64 1 28 28 (50176)
I0428 20:36:09.756194  4750 net.cpp:131] Top shape: 64 (64)
I0428 20:36:09.756197  4750 net.cpp:139] Memory required for data: 200960
I0428 20:36:09.756203  4750 layer_factory.hpp:77] Creating layer conv0
I0428 20:36:09.756217  4750 net.cpp:86] Creating Layer conv0
I0428 20:36:09.756235  4750 net.cpp:408] conv0 <- data
I0428 20:36:09.756247  4750 net.cpp:382] conv0 -> conv0
I0428 20:36:09.991631  4750 net.cpp:124] Setting up conv0
I0428 20:36:09.991673  4750 net.cpp:131] Top shape: 64 100 24 24 (3686400)
I0428 20:36:09.991677  4750 net.cpp:139] Memory required for data: 14946560
I0428 20:36:09.991693  4750 layer_factory.hpp:77] Creating layer pool0
I0428 20:36:09.991705  4750 net.cpp:86] Creating Layer pool0
I0428 20:36:09.991709  4750 net.cpp:408] pool0 <- conv0
I0428 20:36:09.991729  4750 net.cpp:382] pool0 -> pool0
I0428 20:36:09.991775  4750 net.cpp:124] Setting up pool0
I0428 20:36:09.991780  4750 net.cpp:131] Top shape: 64 100 12 12 (921600)
I0428 20:36:09.991782  4750 net.cpp:139] Memory required for data: 18632960
I0428 20:36:09.991786  4750 layer_factory.hpp:77] Creating layer conv1
I0428 20:36:09.991796  4750 net.cpp:86] Creating Layer conv1
I0428 20:36:09.991799  4750 net.cpp:408] conv1 <- pool0
I0428 20:36:09.991804  4750 net.cpp:382] conv1 -> conv1
I0428 20:36:09.995311  4750 net.cpp:124] Setting up conv1
I0428 20:36:09.995339  4750 net.cpp:131] Top shape: 64 50 8 8 (204800)
I0428 20:36:09.995343  4750 net.cpp:139] Memory required for data: 19452160
I0428 20:36:09.995352  4750 layer_factory.hpp:77] Creating layer pool1
I0428 20:36:09.995358  4750 net.cpp:86] Creating Layer pool1
I0428 20:36:09.995362  4750 net.cpp:408] pool1 <- conv1
I0428 20:36:09.995367  4750 net.cpp:382] pool1 -> pool1
I0428 20:36:09.995416  4750 net.cpp:124] Setting up pool1
I0428 20:36:09.995422  4750 net.cpp:131] Top shape: 64 50 4 4 (51200)
I0428 20:36:09.995425  4750 net.cpp:139] Memory required for data: 19656960
I0428 20:36:09.995427  4750 layer_factory.hpp:77] Creating layer ip1
I0428 20:36:09.995434  4750 net.cpp:86] Creating Layer ip1
I0428 20:36:09.995437  4750 net.cpp:408] ip1 <- pool1
I0428 20:36:09.995441  4750 net.cpp:382] ip1 -> ip1
I0428 20:36:09.995784  4750 net.cpp:124] Setting up ip1
I0428 20:36:09.995792  4750 net.cpp:131] Top shape: 64 50 (3200)
I0428 20:36:09.995811  4750 net.cpp:139] Memory required for data: 19669760
I0428 20:36:09.995818  4750 layer_factory.hpp:77] Creating layer relu1
I0428 20:36:09.995823  4750 net.cpp:86] Creating Layer relu1
I0428 20:36:09.995828  4750 net.cpp:408] relu1 <- ip1
I0428 20:36:09.995832  4750 net.cpp:369] relu1 -> ip1 (in-place)
I0428 20:36:09.996001  4750 net.cpp:124] Setting up relu1
I0428 20:36:09.996011  4750 net.cpp:131] Top shape: 64 50 (3200)
I0428 20:36:09.996013  4750 net.cpp:139] Memory required for data: 19682560
I0428 20:36:09.996016  4750 layer_factory.hpp:77] Creating layer ip2
I0428 20:36:09.996021  4750 net.cpp:86] Creating Layer ip2
I0428 20:36:09.996026  4750 net.cpp:408] ip2 <- ip1
I0428 20:36:09.996029  4750 net.cpp:382] ip2 -> ip2
I0428 20:36:09.996131  4750 net.cpp:124] Setting up ip2
I0428 20:36:09.996139  4750 net.cpp:131] Top shape: 64 25 (1600)
I0428 20:36:09.996141  4750 net.cpp:139] Memory required for data: 19688960
I0428 20:36:09.996146  4750 layer_factory.hpp:77] Creating layer relu2
I0428 20:36:09.996152  4750 net.cpp:86] Creating Layer relu2
I0428 20:36:09.996155  4750 net.cpp:408] relu2 <- ip2
I0428 20:36:09.996160  4750 net.cpp:369] relu2 -> ip2 (in-place)
I0428 20:36:09.997066  4750 net.cpp:124] Setting up relu2
I0428 20:36:09.997079  4750 net.cpp:131] Top shape: 64 25 (1600)
I0428 20:36:09.997098  4750 net.cpp:139] Memory required for data: 19695360
I0428 20:36:09.997102  4750 layer_factory.hpp:77] Creating layer ip3
I0428 20:36:09.997109  4750 net.cpp:86] Creating Layer ip3
I0428 20:36:09.997113  4750 net.cpp:408] ip3 <- ip2
I0428 20:36:09.997119  4750 net.cpp:382] ip3 -> ip3
I0428 20:36:09.997236  4750 net.cpp:124] Setting up ip3
I0428 20:36:09.997242  4750 net.cpp:131] Top shape: 64 10 (640)
I0428 20:36:09.997246  4750 net.cpp:139] Memory required for data: 19697920
I0428 20:36:09.997253  4750 layer_factory.hpp:77] Creating layer relu3
I0428 20:36:09.997259  4750 net.cpp:86] Creating Layer relu3
I0428 20:36:09.997262  4750 net.cpp:408] relu3 <- ip3
I0428 20:36:09.997282  4750 net.cpp:369] relu3 -> ip3 (in-place)
I0428 20:36:09.997437  4750 net.cpp:124] Setting up relu3
I0428 20:36:09.997444  4750 net.cpp:131] Top shape: 64 10 (640)
I0428 20:36:09.997448  4750 net.cpp:139] Memory required for data: 19700480
I0428 20:36:09.997452  4750 layer_factory.hpp:77] Creating layer loss
I0428 20:36:09.997457  4750 net.cpp:86] Creating Layer loss
I0428 20:36:09.997460  4750 net.cpp:408] loss <- ip3
I0428 20:36:09.997464  4750 net.cpp:408] loss <- label
I0428 20:36:09.997469  4750 net.cpp:382] loss -> loss
I0428 20:36:09.997501  4750 layer_factory.hpp:77] Creating layer loss
…
I0428 20:36:09.998256  4750 solver.cpp:173] Creating test net (#0) specified by net file: ECE595/mnist/train_test/var_everything2/lenet_train_test1632.prototxt
I0428 20:36:09.998298  4750 net.cpp:296] The NetState phase (1) differed from the phase (0) specified by a rule in layer mnist
I0428 20:36:09.998399  4750 net.cpp:53] Initializing net from parameters: 
name: "LeNet"
state {
  phase: TEST
}
layer {
  name: "mnist"
  type: "Data"
  top: "data"
  top: "label"
  include {
    phase: TEST
  }
  transform_param {
    scale: 0.00390625
  }
  data_param {
    source: "examples/mnist/mnist_test_lmdb"
    batch_size: 100
    backend: LMDB
  }
}
layer {
  name: "conv0"
  type: "Convolution"
  bottom: "data"
  top: "conv0"
  param {
    lr_mult: 1
  }
  param {
    lr_mult: 2
  }
  convolution_param {
    num_output: 100
    kernel_size: 5
    stride: 1
    weight_filler {
      type: "xavier"
    }
    bias_filler {
      type: "constant"
    }
  }
}
layer {
  name: "pool0"
  type: "Pooling"
  bottom: "conv0"
  top: "pool0"
  pooling_param {
    pool: MAX
    kernel_size: 2
    stride: 2
  }
}
layer {
  name: "conv1"
  type: "Convolution"
  bottom: "pool0"
  top: "conv1"
  param {
    lr_mult: 1
  }
  param {
    lr_mult: 2
  }
  convolution_param {
    num_output: 50
    kernel_size: 5
    stride: 1
    weight_filler {
      type: "xavier"
    }
    bias_filler {
      type: "constant"
    }
  }
}
layer {
  name: "pool1"
  type: "Pooling"
  bottom: "conv1"
  top: "pool1"
  pooling_param {
    pool: MAX
    kernel_size: 2
    stride: 2
  }
}
layer {
  name: "ip1"
  type: "InnerProduct"
  bottom: "pool1"
  top: "ip1"
  param {
    lr_mult: 1
  }
  param {
    lr_mult: 2
  }
  inner_product_param {
    num_output: 50
    weight_filler {
      type: "xavier"
    }
    bias_filler {
      type: "constant"
    }
  }
}
layer {
  name: "relu1"
  type: "ReLU"
  bottom: "ip1"
  top: "ip1"
}
layer {
  name: "ip2"
  type: "InnerProduct"
  bottom: "ip1"
  top: "ip2"
  param {
    lr_mult: 1
  }
  param {
    lr_mult: 2
  }
  inner_product_param {
    num_output: 25
    weight_filler {
      type: "xavier"
    }
    bias_filler {
      type: "constant"
    }
  }
}
layer {
  name: "relu2"
  type: "ReLU"
  bottom: "ip2"
  top: "ip2"
}
layer {
  name: "ip3"
  type: "InnerProduct"
  bottom: "ip2"
  top: "ip3"
  param {
    lr_mult: 1
  }
  param {
    lr_mult: 2
  }
  inner_product_param {
    num_output: 10
    weight_filler {
      type: "xavier"
    }
    bias_filler {
      type: "constant"
    }
  }
}
layer {
  name: "relu3"
  type: "ReLU"
  bottom: "ip3"
  top: "ip3"
}
layer {
  name: "accuracy"
  type: "Accuracy"
  bottom: "ip3"
  bottom: "label"
  top: "accuracy"
  include {
    phase: TEST
  }
}
layer {
  name: "loss"
  type: "SoftmaxWithLoss"
  bottom: "ip3"
  bottom: "label"
  top: "loss"
}
I0428 20:36:09.998474  4750 layer_factory.hpp:77] Creating layer mnist
I0428 20:36:09.998517  4750 db_lmdb.cpp:35] Opened lmdb examples/mnist/mnist_test_lmdb
I0428 20:36:09.998529  4750 net.cpp:86] Creating Layer mnist
I0428 20:36:09.998533  4750 net.cpp:382] mnist -> data
I0428 20:36:09.998540  4750 net.cpp:382] mnist -> label
I0428 20:36:09.998620  4750 data_layer.cpp:45] output data size: 100,1,28,28
I0428 20:36:10.000031  4750 net.cpp:124] Setting up mnist
I0428 20:36:10.000059  4750 net.cpp:131] Top shape: 100 1 28 28 (78400)
I0428 20:36:10.000064  4750 net.cpp:131] Top shape: 100 (100)
I0428 20:36:10.000067  4750 net.cpp:139] Memory required for data: 314000
I0428 20:36:10.000072  4750 layer_factory.hpp:77] Creating layer label_mnist_1_split
I0428 20:36:10.000082  4750 net.cpp:86] Creating Layer label_mnist_1_split
I0428 20:36:10.000087  4750 net.cpp:408] label_mnist_1_split <- label
I0428 20:36:10.000092  4750 net.cpp:382] label_mnist_1_split -> label_mnist_1_split_0
I0428 20:36:10.000099  4750 net.cpp:382] label_mnist_1_split -> label_mnist_1_split_1
I0428 20:36:10.000197  4750 net.cpp:124] Setting up label_mnist_1_split
I0428 20:36:10.000205  4750 net.cpp:131] Top shape: 100 (100)
I0428 20:36:10.000210  4750 net.cpp:131] Top shape: 100 (100)
I0428 20:36:10.000212  4750 net.cpp:139] Memory required for data: 314800
I0428 20:36:10.000216  4750 layer_factory.hpp:77] Creating layer conv0
I0428 20:36:10.000224  4750 net.cpp:86] Creating Layer conv0
I0428 20:36:10.000227  4750 net.cpp:408] conv0 <- data
I0428 20:36:10.000233  4750 net.cpp:382] conv0 -> conv0
I0428 20:36:10.001988  4750 net.cpp:124] Setting up conv0
I0428 20:36:10.002017  4750 net.cpp:131] Top shape: 100 100 24 24 (5760000)
I0428 20:36:10.002020  4750 net.cpp:139] Memory required for data: 23354800
I0428 20:36:10.002029  4750 layer_factory.hpp:77] Creating layer pool0
I0428 20:36:10.002035  4750 net.cpp:86] Creating Layer pool0
I0428 20:36:10.002038  4750 net.cpp:408] pool0 <- conv0
I0428 20:36:10.002043  4750 net.cpp:382] pool0 -> pool0
I0428 20:36:10.002091  4750 net.cpp:124] Setting up pool0
I0428 20:36:10.002096  4750 net.cpp:131] Top shape: 100 100 12 12 (1440000)
I0428 20:36:10.002099  4750 net.cpp:139] Memory required for data: 29114800
I0428 20:36:10.002102  4750 layer_factory.hpp:77] Creating layer conv1
I0428 20:36:10.002110  4750 net.cpp:86] Creating Layer conv1
I0428 20:36:10.002113  4750 net.cpp:408] conv1 <- pool0
I0428 20:36:10.002117  4750 net.cpp:382] conv1 -> conv1
I0428 20:36:10.005431  4750 net.cpp:124] Setting up conv1
I0428 20:36:10.005445  4750 net.cpp:131] Top shape: 100 50 8 8 (320000)
I0428 20:36:10.005463  4750 net.cpp:139] Memory required for data: 30394800
I0428 20:36:10.005471  4750 layer_factory.hpp:77] Creating layer pool1
I0428 20:36:10.005478  4750 net.cpp:86] Creating Layer pool1
I0428 20:36:10.005481  4750 net.cpp:408] pool1 <- conv1
I0428 20:36:10.005486  4750 net.cpp:382] pool1 -> pool1
I0428 20:36:10.005538  4750 net.cpp:124] Setting up pool1
I0428 20:36:10.005543  4750 net.cpp:131] Top shape: 100 50 4 4 (80000)
I0428 20:36:10.005561  4750 net.cpp:139] Memory required for data: 30714800
I0428 20:36:10.005564  4750 layer_factory.hpp:77] Creating layer ip1
I0428 20:36:10.005570  4750 net.cpp:86] Creating Layer ip1
I0428 20:36:10.005573  4750 net.cpp:408] ip1 <- pool1
I0428 20:36:10.005578  4750 net.cpp:382] ip1 -> ip1
I0428 20:36:10.005920  4750 net.cpp:124] Setting up ip1
I0428 20:36:10.005939  4750 net.cpp:131] Top shape: 100 50 (5000)
I0428 20:36:10.005956  4750 net.cpp:139] Memory required for data: 30734800
I0428 20:36:10.005964  4750 layer_factory.hpp:77] Creating layer relu1
I0428 20:36:10.005969  4750 net.cpp:86] Creating Layer relu1
I0428 20:36:10.005971  4750 net.cpp:408] relu1 <- ip1
I0428 20:36:10.005976  4750 net.cpp:369] relu1 -> ip1 (in-place)
I0428 20:36:10.006124  4750 net.cpp:124] Setting up relu1
I0428 20:36:10.006131  4750 net.cpp:131] Top shape: 100 50 (5000)
I0428 20:36:10.006134  4750 net.cpp:139] Memory required for data: 30754800
I0428 20:36:10.006137  4750 layer_factory.hpp:77] Creating layer ip2
I0428 20:36:10.006144  4750 net.cpp:86] Creating Layer ip2
I0428 20:36:10.006147  4750 net.cpp:408] ip2 <- ip1
I0428 20:36:10.006151  4750 net.cpp:382] ip2 -> ip2
I0428 20:36:10.006268  4750 net.cpp:124] Setting up ip2
I0428 20:36:10.006274  4750 net.cpp:131] Top shape: 100 25 (2500)
I0428 20:36:10.006276  4750 net.cpp:139] Memory required for data: 30764800
I0428 20:36:10.006281  4750 layer_factory.hpp:77] Creating layer relu2
I0428 20:36:10.006286  4750 net.cpp:86] Creating Layer relu2
I0428 20:36:10.006289  4750 net.cpp:408] relu2 <- ip2
I0428 20:36:10.006294  4750 net.cpp:369] relu2 -> ip2 (in-place)
I0428 20:36:10.006505  4750 net.cpp:124] Setting up relu2
I0428 20:36:10.006515  4750 net.cpp:131] Top shape: 100 25 (2500)
I0428 20:36:10.006517  4750 net.cpp:139] Memory required for data: 30774800
I0428 20:36:10.006520  4750 layer_factory.hpp:77] Creating layer ip3
I0428 20:36:10.006526  4750 net.cpp:86] Creating Layer ip3
I0428 20:36:10.006530  4750 net.cpp:408] ip3 <- ip2
I0428 20:36:10.006534  4750 net.cpp:382] ip3 -> ip3
I0428 20:36:10.006629  4750 net.cpp:124] Setting up ip3
I0428 20:36:10.006636  4750 net.cpp:131] Top shape: 100 10 (1000)
I0428 20:36:10.006640  4750 net.cpp:139] Memory required for data: 30778800
I0428 20:36:10.006649  4750 layer_factory.hpp:77] Creating layer relu3
I0428 20:36:10.006654  4750 net.cpp:86] Creating Layer relu3
I0428 20:36:10.006656  4750 net.cpp:408] relu3 <- ip3
I0428 20:36:10.006660  4750 net.cpp:369] relu3 -> ip3 (in-place)
I0428 20:36:10.007517  4750 net.cpp:124] Setting up relu3
I0428 20:36:10.007529  4750 net.cpp:131] Top shape: 100 10 (1000)
I0428 20:36:10.007547  4750 net.cpp:139] Memory required for data: 30782800
I0428 20:36:10.007551  4750 layer_factory.hpp:77] Creating layer ip3_relu3_0_split
I0428 20:36:10.007572  4750 net.cpp:86] Creating Layer ip3_relu3_0_split
I0428 20:36:10.007576  4750 net.cpp:408] ip3_relu3_0_split <- ip3
I0428 20:36:10.007596  4750 net.cpp:382] ip3_relu3_0_split -> ip3_relu3_0_split_0
I0428 20:36:10.007602  4750 net.cpp:382] ip3_relu3_0_split -> ip3_relu3_0_split_1
I0428 20:36:10.007640  4750 net.cpp:124] Setting up ip3_relu3_0_split
I0428 20:36:10.007645  4750 net.cpp:131] Top shape: 100 10 (1000)
I0428 20:36:10.007650  4750 net.cpp:131] Top shape: 100 10 (1000)
I0428 20:36:10.007652  4750 net.cpp:139] Memory required for data: 30790800
I0428 20:36:10.007655  4750 layer_factory.hpp:77] Creating layer accuracy
I0428 20:36:10.007660  4750 net.cpp:86] Creating Layer accuracy
I0428 20:36:10.007664  4750 net.cpp:408] accuracy <- ip3_relu3_0_split_0
I0428 20:36:10.007668  4750 net.cpp:408] accuracy <- label_mnist_1_split_0
I0428 20:36:10.007673  4750 net.cpp:382] accuracy -> accuracy
…
