…
I0428 20:06:25.221276 30866 net.cpp:296] The NetState phase (0) differed from the phase (1) specified by a rule in layer mnist
I0428 20:06:25.221305 30866 net.cpp:296] The NetState phase (0) differed from the phase (1) specified by a rule in layer accuracy
I0428 20:06:25.221385 30866 net.cpp:53] Initializing net from parameters: 
name: "LeNet"
state {
  phase: TRAIN
  level: 0
  stage: ""
}
layer {
  name: "mnist"
  type: "Data"
  top: "data"
  top: "label"
  include {
    phase: TRAIN
  }
  transform_param {
    scale: 0.00390625
  }
  data_param {
    source: "examples/mnist/mnist_train_lmdb"
    batch_size: 64
    backend: LMDB
  }
}
layer {
  name: "conv0"
  type: "Convolution"
  bottom: "data"
  top: "conv0"
  param {
    lr_mult: 1
  }
  param {
    lr_mult: 2
  }
  convolution_param {
    num_output: 25
    kernel_size: 5
    stride: 1
    weight_filler {
      type: "xavier"
    }
    bias_filler {
      type: "constant"
    }
  }
}
layer {
  name: "pool0"
  type: "Pooling"
  bottom: "conv0"
  top: "pool0"
  pooling_param {
    pool: MAX
    kernel_size: 2
    stride: 2
  }
}
layer {
  name: "conv1"
  type: "Convolution"
  bottom: "pool0"
  top: "conv1"
  param {
    lr_mult: 1
  }
  param {
    lr_mult: 2
  }
  convolution_param {
    num_output: 5
    kernel_size: 5
    stride: 1
    weight_filler {
      type: "xavier"
    }
    bias_filler {
      type: "constant"
    }
  }
}
layer {
  name: "pool1"
  type: "Pooling"
  bottom: "conv1"
  top: "pool1"
  pooling_param {
    pool: MAX
    kernel_size: 2
    stride: 2
  }
}
layer {
  name: "ip1"
  type: "InnerProduct"
  bottom: "pool1"
  top: "ip1"
  param {
    lr_mult: 1
  }
  param {
    lr_mult: 2
  }
  inner_product_param {
    num_output: 10
    weight_filler {
      type: "xavier"
    }
    bias_filler {
      type: "constant"
    }
  }
}
layer {
  name: "relu1"
  type: "ReLU"
  bottom: "ip1"
  top: "ip1"
}
layer {
  name: "ip2"
  type: "InnerProduct"
  bottom: "ip1"
  top: "ip2"
  param {
    lr_mult: 1
  }
  param {
    lr_mult: 2
  }
  inner_product_param {
    num_output: 10
    weight_filler {
      type: "xavier"
    }
    bias_filler {
      type: "constant"
    }
  }
}
layer {
  name: "relu2"
  type: "ReLU"
  bottom: "ip2"
  top: "ip2"
}
layer {
  name: "ip3"
  type: "InnerProduct"
  bottom: "ip2"
  top: "ip3"
  param {
    lr_mult: 1
  }
  param {
    lr_mult: 2
  }
  inner_product_param {
    num_output: 10
    weight_filler {
      type: "xavier"
    }
    bias_filler {
      type: "constant"
    }
  }
}
layer {
  name: "relu3"
  type: "ReLU"
  bottom: "ip3"
  top: "ip3"
}
layer {
  name: "loss"
  type: "SoftmaxWithLoss"
  bottom: "ip3"
  bottom: "label"
  top: "loss"
}
I0428 20:06:25.221449 30866 layer_factory.hpp:77] Creating layer mnist
I0428 20:06:25.221534 30866 db_lmdb.cpp:35] Opened lmdb examples/mnist/mnist_train_lmdb
I0428 20:06:25.221554 30866 net.cpp:86] Creating Layer mnist
I0428 20:06:25.221575 30866 net.cpp:382] mnist -> data
I0428 20:06:25.221595 30866 net.cpp:382] mnist -> label
I0428 20:06:25.222501 30866 data_layer.cpp:45] output data size: 64,1,28,28
I0428 20:06:25.224620 30866 net.cpp:124] Setting up mnist
I0428 20:06:25.224665 30866 net.cpp:131] Top shape: 64 1 28 28 (50176)
I0428 20:06:25.224686 30866 net.cpp:131] Top shape: 64 (64)
I0428 20:06:25.224689 30866 net.cpp:139] Memory required for data: 200960
I0428 20:06:25.224694 30866 layer_factory.hpp:77] Creating layer conv0
I0428 20:06:25.224709 30866 net.cpp:86] Creating Layer conv0
I0428 20:06:25.224726 30866 net.cpp:408] conv0 <- data
I0428 20:06:25.224735 30866 net.cpp:382] conv0 -> conv0
I0428 20:06:25.444562 30866 net.cpp:124] Setting up conv0
I0428 20:06:25.444602 30866 net.cpp:131] Top shape: 64 25 24 24 (921600)
I0428 20:06:25.444607 30866 net.cpp:139] Memory required for data: 3887360
I0428 20:06:25.444636 30866 layer_factory.hpp:77] Creating layer pool0
I0428 20:06:25.444649 30866 net.cpp:86] Creating Layer pool0
I0428 20:06:25.444653 30866 net.cpp:408] pool0 <- conv0
I0428 20:06:25.444674 30866 net.cpp:382] pool0 -> pool0
I0428 20:06:25.444717 30866 net.cpp:124] Setting up pool0
I0428 20:06:25.444723 30866 net.cpp:131] Top shape: 64 25 12 12 (230400)
I0428 20:06:25.444726 30866 net.cpp:139] Memory required for data: 4808960
I0428 20:06:25.444730 30866 layer_factory.hpp:77] Creating layer conv1
I0428 20:06:25.444741 30866 net.cpp:86] Creating Layer conv1
I0428 20:06:25.444743 30866 net.cpp:408] conv1 <- pool0
I0428 20:06:25.444748 30866 net.cpp:382] conv1 -> conv1
I0428 20:06:25.447489 30866 net.cpp:124] Setting up conv1
I0428 20:06:25.447502 30866 net.cpp:131] Top shape: 64 5 8 8 (20480)
I0428 20:06:25.447506 30866 net.cpp:139] Memory required for data: 4890880
I0428 20:06:25.447515 30866 layer_factory.hpp:77] Creating layer pool1
I0428 20:06:25.447520 30866 net.cpp:86] Creating Layer pool1
I0428 20:06:25.447523 30866 net.cpp:408] pool1 <- conv1
I0428 20:06:25.447528 30866 net.cpp:382] pool1 -> pool1
I0428 20:06:25.447577 30866 net.cpp:124] Setting up pool1
I0428 20:06:25.447582 30866 net.cpp:131] Top shape: 64 5 4 4 (5120)
I0428 20:06:25.447584 30866 net.cpp:139] Memory required for data: 4911360
I0428 20:06:25.447587 30866 layer_factory.hpp:77] Creating layer ip1
I0428 20:06:25.447594 30866 net.cpp:86] Creating Layer ip1
I0428 20:06:25.447597 30866 net.cpp:408] ip1 <- pool1
I0428 20:06:25.447602 30866 net.cpp:382] ip1 -> ip1
I0428 20:06:25.447695 30866 net.cpp:124] Setting up ip1
I0428 20:06:25.447702 30866 net.cpp:131] Top shape: 64 10 (640)
I0428 20:06:25.447705 30866 net.cpp:139] Memory required for data: 4913920
I0428 20:06:25.447711 30866 layer_factory.hpp:77] Creating layer relu1
I0428 20:06:25.447716 30866 net.cpp:86] Creating Layer relu1
I0428 20:06:25.447720 30866 net.cpp:408] relu1 <- ip1
I0428 20:06:25.447723 30866 net.cpp:369] relu1 -> ip1 (in-place)
I0428 20:06:25.447873 30866 net.cpp:124] Setting up relu1
I0428 20:06:25.447881 30866 net.cpp:131] Top shape: 64 10 (640)
I0428 20:06:25.447885 30866 net.cpp:139] Memory required for data: 4916480
I0428 20:06:25.447886 30866 layer_factory.hpp:77] Creating layer ip2
I0428 20:06:25.447892 30866 net.cpp:86] Creating Layer ip2
I0428 20:06:25.447911 30866 net.cpp:408] ip2 <- ip1
I0428 20:06:25.447916 30866 net.cpp:382] ip2 -> ip2
I0428 20:06:25.448004 30866 net.cpp:124] Setting up ip2
I0428 20:06:25.448010 30866 net.cpp:131] Top shape: 64 10 (640)
I0428 20:06:25.448014 30866 net.cpp:139] Memory required for data: 4919040
I0428 20:06:25.448019 30866 layer_factory.hpp:77] Creating layer relu2
I0428 20:06:25.448024 30866 net.cpp:86] Creating Layer relu2
I0428 20:06:25.448027 30866 net.cpp:408] relu2 <- ip2
I0428 20:06:25.448031 30866 net.cpp:369] relu2 -> ip2 (in-place)
I0428 20:06:25.448746 30866 net.cpp:124] Setting up relu2
I0428 20:06:25.448758 30866 net.cpp:131] Top shape: 64 10 (640)
I0428 20:06:25.448761 30866 net.cpp:139] Memory required for data: 4921600
I0428 20:06:25.448765 30866 layer_factory.hpp:77] Creating layer ip3
I0428 20:06:25.448771 30866 net.cpp:86] Creating Layer ip3
I0428 20:06:25.448774 30866 net.cpp:408] ip3 <- ip2
I0428 20:06:25.448779 30866 net.cpp:382] ip3 -> ip3
I0428 20:06:25.448911 30866 net.cpp:124] Setting up ip3
I0428 20:06:25.448920 30866 net.cpp:131] Top shape: 64 10 (640)
I0428 20:06:25.448923 30866 net.cpp:139] Memory required for data: 4924160
I0428 20:06:25.448931 30866 layer_factory.hpp:77] Creating layer relu3
I0428 20:06:25.448936 30866 net.cpp:86] Creating Layer relu3
I0428 20:06:25.448940 30866 net.cpp:408] relu3 <- ip3
I0428 20:06:25.448945 30866 net.cpp:369] relu3 -> ip3 (in-place)
I0428 20:06:25.449127 30866 net.cpp:124] Setting up relu3
I0428 20:06:25.449136 30866 net.cpp:131] Top shape: 64 10 (640)
I0428 20:06:25.449139 30866 net.cpp:139] Memory required for data: 4926720
I0428 20:06:25.449142 30866 layer_factory.hpp:77] Creating layer loss
I0428 20:06:25.449162 30866 net.cpp:86] Creating Layer loss
I0428 20:06:25.449165 30866 net.cpp:408] loss <- ip3
I0428 20:06:25.449168 30866 net.cpp:408] loss <- label
I0428 20:06:25.449173 30866 net.cpp:382] loss -> loss
I0428 20:06:25.449203 30866 layer_factory.hpp:77] Creating layer loss
…
I0428 20:06:25.449833 30866 solver.cpp:173] Creating test net (#0) specified by net file: ECE595/mnist/train_test/var_everything2/lenet_train_test1027.prototxt
I0428 20:06:25.449862 30866 net.cpp:296] The NetState phase (1) differed from the phase (0) specified by a rule in layer mnist
I0428 20:06:25.449950 30866 net.cpp:53] Initializing net from parameters: 
name: "LeNet"
state {
  phase: TEST
}
layer {
  name: "mnist"
  type: "Data"
  top: "data"
  top: "label"
  include {
    phase: TEST
  }
  transform_param {
    scale: 0.00390625
  }
  data_param {
    source: "examples/mnist/mnist_test_lmdb"
    batch_size: 100
    backend: LMDB
  }
}
layer {
  name: "conv0"
  type: "Convolution"
  bottom: "data"
  top: "conv0"
  param {
    lr_mult: 1
  }
  param {
    lr_mult: 2
  }
  convolution_param {
    num_output: 25
    kernel_size: 5
    stride: 1
    weight_filler {
      type: "xavier"
    }
    bias_filler {
      type: "constant"
    }
  }
}
layer {
  name: "pool0"
  type: "Pooling"
  bottom: "conv0"
  top: "pool0"
  pooling_param {
    pool: MAX
    kernel_size: 2
    stride: 2
  }
}
layer {
  name: "conv1"
  type: "Convolution"
  bottom: "pool0"
  top: "conv1"
  param {
    lr_mult: 1
  }
  param {
    lr_mult: 2
  }
  convolution_param {
    num_output: 5
    kernel_size: 5
    stride: 1
    weight_filler {
      type: "xavier"
    }
    bias_filler {
      type: "constant"
    }
  }
}
layer {
  name: "pool1"
  type: "Pooling"
  bottom: "conv1"
  top: "pool1"
  pooling_param {
    pool: MAX
    kernel_size: 2
    stride: 2
  }
}
layer {
  name: "ip1"
  type: "InnerProduct"
  bottom: "pool1"
  top: "ip1"
  param {
    lr_mult: 1
  }
  param {
    lr_mult: 2
  }
  inner_product_param {
    num_output: 10
    weight_filler {
      type: "xavier"
    }
    bias_filler {
      type: "constant"
    }
  }
}
layer {
  name: "relu1"
  type: "ReLU"
  bottom: "ip1"
  top: "ip1"
}
layer {
  name: "ip2"
  type: "InnerProduct"
  bottom: "ip1"
  top: "ip2"
  param {
    lr_mult: 1
  }
  param {
    lr_mult: 2
  }
  inner_product_param {
    num_output: 10
    weight_filler {
      type: "xavier"
    }
    bias_filler {
      type: "constant"
    }
  }
}
layer {
  name: "relu2"
  type: "ReLU"
  bottom: "ip2"
  top: "ip2"
}
layer {
  name: "ip3"
  type: "InnerProduct"
  bottom: "ip2"
  top: "ip3"
  param {
    lr_mult: 1
  }
  param {
    lr_mult: 2
  }
  inner_product_param {
    num_output: 10
    weight_filler {
      type: "xavier"
    }
    bias_filler {
      type: "constant"
    }
  }
}
layer {
  name: "relu3"
  type: "ReLU"
  bottom: "ip3"
  top: "ip3"
}
layer {
  name: "accuracy"
  type: "Accuracy"
  bottom: "ip3"
  bottom: "label"
  top: "accuracy"
  include {
    phase: TEST
  }
}
layer {
  name: "loss"
  type: "SoftmaxWithLoss"
  bottom: "ip3"
  bottom: "label"
  top: "loss"
}
I0428 20:06:25.450023 30866 layer_factory.hpp:77] Creating layer mnist
I0428 20:06:25.450065 30866 db_lmdb.cpp:35] Opened lmdb examples/mnist/mnist_test_lmdb
I0428 20:06:25.450078 30866 net.cpp:86] Creating Layer mnist
I0428 20:06:25.450081 30866 net.cpp:382] mnist -> data
I0428 20:06:25.450103 30866 net.cpp:382] mnist -> label
I0428 20:06:25.450187 30866 data_layer.cpp:45] output data size: 100,1,28,28
I0428 20:06:25.452244 30866 net.cpp:124] Setting up mnist
I0428 20:06:25.452272 30866 net.cpp:131] Top shape: 100 1 28 28 (78400)
I0428 20:06:25.452277 30866 net.cpp:131] Top shape: 100 (100)
I0428 20:06:25.452280 30866 net.cpp:139] Memory required for data: 314000
I0428 20:06:25.452285 30866 layer_factory.hpp:77] Creating layer label_mnist_1_split
I0428 20:06:25.452291 30866 net.cpp:86] Creating Layer label_mnist_1_split
I0428 20:06:25.452293 30866 net.cpp:408] label_mnist_1_split <- label
I0428 20:06:25.452298 30866 net.cpp:382] label_mnist_1_split -> label_mnist_1_split_0
I0428 20:06:25.452304 30866 net.cpp:382] label_mnist_1_split -> label_mnist_1_split_1
I0428 20:06:25.452358 30866 net.cpp:124] Setting up label_mnist_1_split
I0428 20:06:25.452364 30866 net.cpp:131] Top shape: 100 (100)
I0428 20:06:25.452368 30866 net.cpp:131] Top shape: 100 (100)
I0428 20:06:25.452370 30866 net.cpp:139] Memory required for data: 314800
I0428 20:06:25.452373 30866 layer_factory.hpp:77] Creating layer conv0
I0428 20:06:25.452381 30866 net.cpp:86] Creating Layer conv0
I0428 20:06:25.452384 30866 net.cpp:408] conv0 <- data
I0428 20:06:25.452389 30866 net.cpp:382] conv0 -> conv0
I0428 20:06:25.454042 30866 net.cpp:124] Setting up conv0
I0428 20:06:25.454056 30866 net.cpp:131] Top shape: 100 25 24 24 (1440000)
I0428 20:06:25.454059 30866 net.cpp:139] Memory required for data: 6074800
I0428 20:06:25.454068 30866 layer_factory.hpp:77] Creating layer pool0
I0428 20:06:25.454074 30866 net.cpp:86] Creating Layer pool0
I0428 20:06:25.454077 30866 net.cpp:408] pool0 <- conv0
I0428 20:06:25.454097 30866 net.cpp:382] pool0 -> pool0
I0428 20:06:25.454131 30866 net.cpp:124] Setting up pool0
I0428 20:06:25.454136 30866 net.cpp:131] Top shape: 100 25 12 12 (360000)
I0428 20:06:25.454139 30866 net.cpp:139] Memory required for data: 7514800
I0428 20:06:25.454141 30866 layer_factory.hpp:77] Creating layer conv1
I0428 20:06:25.454150 30866 net.cpp:86] Creating Layer conv1
I0428 20:06:25.454154 30866 net.cpp:408] conv1 <- pool0
I0428 20:06:25.454157 30866 net.cpp:382] conv1 -> conv1
I0428 20:06:25.456190 30866 net.cpp:124] Setting up conv1
I0428 20:06:25.456203 30866 net.cpp:131] Top shape: 100 5 8 8 (32000)
I0428 20:06:25.456208 30866 net.cpp:139] Memory required for data: 7642800
I0428 20:06:25.456218 30866 layer_factory.hpp:77] Creating layer pool1
I0428 20:06:25.456223 30866 net.cpp:86] Creating Layer pool1
I0428 20:06:25.456226 30866 net.cpp:408] pool1 <- conv1
I0428 20:06:25.456231 30866 net.cpp:382] pool1 -> pool1
I0428 20:06:25.456269 30866 net.cpp:124] Setting up pool1
I0428 20:06:25.456274 30866 net.cpp:131] Top shape: 100 5 4 4 (8000)
I0428 20:06:25.456284 30866 net.cpp:139] Memory required for data: 7674800
I0428 20:06:25.456290 30866 layer_factory.hpp:77] Creating layer ip1
I0428 20:06:25.456296 30866 net.cpp:86] Creating Layer ip1
I0428 20:06:25.456300 30866 net.cpp:408] ip1 <- pool1
I0428 20:06:25.456305 30866 net.cpp:382] ip1 -> ip1
I0428 20:06:25.456413 30866 net.cpp:124] Setting up ip1
I0428 20:06:25.456419 30866 net.cpp:131] Top shape: 100 10 (1000)
I0428 20:06:25.456432 30866 net.cpp:139] Memory required for data: 7678800
I0428 20:06:25.456440 30866 layer_factory.hpp:77] Creating layer relu1
I0428 20:06:25.456444 30866 net.cpp:86] Creating Layer relu1
I0428 20:06:25.456449 30866 net.cpp:408] relu1 <- ip1
I0428 20:06:25.456452 30866 net.cpp:369] relu1 -> ip1 (in-place)
I0428 20:06:25.456637 30866 net.cpp:124] Setting up relu1
I0428 20:06:25.456646 30866 net.cpp:131] Top shape: 100 10 (1000)
I0428 20:06:25.456650 30866 net.cpp:139] Memory required for data: 7682800
I0428 20:06:25.456652 30866 layer_factory.hpp:77] Creating layer ip2
I0428 20:06:25.456658 30866 net.cpp:86] Creating Layer ip2
I0428 20:06:25.456661 30866 net.cpp:408] ip2 <- ip1
I0428 20:06:25.456666 30866 net.cpp:382] ip2 -> ip2
I0428 20:06:25.456787 30866 net.cpp:124] Setting up ip2
I0428 20:06:25.456795 30866 net.cpp:131] Top shape: 100 10 (1000)
I0428 20:06:25.456799 30866 net.cpp:139] Memory required for data: 7686800
I0428 20:06:25.456804 30866 layer_factory.hpp:77] Creating layer relu2
I0428 20:06:25.456815 30866 net.cpp:86] Creating Layer relu2
I0428 20:06:25.456833 30866 net.cpp:408] relu2 <- ip2
I0428 20:06:25.456837 30866 net.cpp:369] relu2 -> ip2 (in-place)
I0428 20:06:25.457016 30866 net.cpp:124] Setting up relu2
I0428 20:06:25.457026 30866 net.cpp:131] Top shape: 100 10 (1000)
I0428 20:06:25.457028 30866 net.cpp:139] Memory required for data: 7690800
I0428 20:06:25.457032 30866 layer_factory.hpp:77] Creating layer ip3
I0428 20:06:25.457038 30866 net.cpp:86] Creating Layer ip3
I0428 20:06:25.457041 30866 net.cpp:408] ip3 <- ip2
I0428 20:06:25.457046 30866 net.cpp:382] ip3 -> ip3
I0428 20:06:25.457145 30866 net.cpp:124] Setting up ip3
I0428 20:06:25.457168 30866 net.cpp:131] Top shape: 100 10 (1000)
I0428 20:06:25.457172 30866 net.cpp:139] Memory required for data: 7694800
I0428 20:06:25.457200 30866 layer_factory.hpp:77] Creating layer relu3
I0428 20:06:25.457204 30866 net.cpp:86] Creating Layer relu3
I0428 20:06:25.457207 30866 net.cpp:408] relu3 <- ip3
I0428 20:06:25.457212 30866 net.cpp:369] relu3 -> ip3 (in-place)
I0428 20:06:25.458036 30866 net.cpp:124] Setting up relu3
I0428 20:06:25.458048 30866 net.cpp:131] Top shape: 100 10 (1000)
I0428 20:06:25.458051 30866 net.cpp:139] Memory required for data: 7698800
I0428 20:06:25.458055 30866 layer_factory.hpp:77] Creating layer ip3_relu3_0_split
I0428 20:06:25.458060 30866 net.cpp:86] Creating Layer ip3_relu3_0_split
I0428 20:06:25.458063 30866 net.cpp:408] ip3_relu3_0_split <- ip3
I0428 20:06:25.458070 30866 net.cpp:382] ip3_relu3_0_split -> ip3_relu3_0_split_0
I0428 20:06:25.458075 30866 net.cpp:382] ip3_relu3_0_split -> ip3_relu3_0_split_1
I0428 20:06:25.458119 30866 net.cpp:124] Setting up ip3_relu3_0_split
I0428 20:06:25.458124 30866 net.cpp:131] Top shape: 100 10 (1000)
I0428 20:06:25.458128 30866 net.cpp:131] Top shape: 100 10 (1000)
I0428 20:06:25.458132 30866 net.cpp:139] Memory required for data: 7706800
I0428 20:06:25.458134 30866 layer_factory.hpp:77] Creating layer accuracy
I0428 20:06:25.458142 30866 net.cpp:86] Creating Layer accuracy
I0428 20:06:25.458149 30866 net.cpp:408] accuracy <- ip3_relu3_0_split_0
I0428 20:06:25.458153 30866 net.cpp:408] accuracy <- label_mnist_1_split_0
I0428 20:06:25.458158 30866 net.cpp:382] accuracy -> accuracy
…
