…
I0428 19:32:40.050580 22891 net.cpp:296] The NetState phase (0) differed from the phase (1) specified by a rule in layer mnist
I0428 19:32:40.050597 22891 net.cpp:296] The NetState phase (0) differed from the phase (1) specified by a rule in layer accuracy
I0428 19:32:40.050678 22891 net.cpp:53] Initializing net from parameters: 
name: "LeNet"
state {
  phase: TRAIN
  level: 0
  stage: ""
}
layer {
  name: "mnist"
  type: "Data"
  top: "data"
  top: "label"
  include {
    phase: TRAIN
  }
  transform_param {
    scale: 0.00390625
  }
  data_param {
    source: "examples/mnist/mnist_train_lmdb"
    batch_size: 64
    backend: LMDB
  }
}
layer {
  name: "conv0"
  type: "Convolution"
  bottom: "data"
  top: "conv0"
  param {
    lr_mult: 1
  }
  param {
    lr_mult: 2
  }
  convolution_param {
    num_output: 25
    kernel_size: 5
    stride: 1
    weight_filler {
      type: "xavier"
    }
    bias_filler {
      type: "constant"
    }
  }
}
layer {
  name: "pool0"
  type: "Pooling"
  bottom: "conv0"
  top: "pool0"
  pooling_param {
    pool: MAX
    kernel_size: 2
    stride: 2
  }
}
layer {
  name: "ip1"
  type: "InnerProduct"
  bottom: "pool0"
  top: "ip1"
  param {
    lr_mult: 1
  }
  param {
    lr_mult: 2
  }
  inner_product_param {
    num_output: 10
    weight_filler {
      type: "xavier"
    }
    bias_filler {
      type: "constant"
    }
  }
}
layer {
  name: "relu1"
  type: "ReLU"
  bottom: "ip1"
  top: "ip1"
}
layer {
  name: "ip2"
  type: "InnerProduct"
  bottom: "ip1"
  top: "ip2"
  param {
    lr_mult: 1
  }
  param {
    lr_mult: 2
  }
  inner_product_param {
    num_output: 10
    weight_filler {
      type: "xavier"
    }
    bias_filler {
      type: "constant"
    }
  }
}
layer {
  name: "relu2"
  type: "ReLU"
  bottom: "ip2"
  top: "ip2"
}
layer {
  name: "loss"
  type: "SoftmaxWithLoss"
  bottom: "ip2"
  bottom: "label"
  top: "loss"
}
I0428 19:32:40.050747 22891 layer_factory.hpp:77] Creating layer mnist
I0428 19:32:40.050848 22891 db_lmdb.cpp:35] Opened lmdb examples/mnist/mnist_train_lmdb
I0428 19:32:40.050870 22891 net.cpp:86] Creating Layer mnist
I0428 19:32:40.050879 22891 net.cpp:382] mnist -> data
I0428 19:32:40.050901 22891 net.cpp:382] mnist -> label
I0428 19:32:40.051990 22891 data_layer.cpp:45] output data size: 64,1,28,28
I0428 19:32:40.054451 22891 net.cpp:124] Setting up mnist
I0428 19:32:40.054469 22891 net.cpp:131] Top shape: 64 1 28 28 (50176)
I0428 19:32:40.054476 22891 net.cpp:131] Top shape: 64 (64)
I0428 19:32:40.054479 22891 net.cpp:139] Memory required for data: 200960
I0428 19:32:40.054486 22891 layer_factory.hpp:77] Creating layer conv0
I0428 19:32:40.054512 22891 net.cpp:86] Creating Layer conv0
I0428 19:32:40.054517 22891 net.cpp:408] conv0 <- data
I0428 19:32:40.054530 22891 net.cpp:382] conv0 -> conv0
I0428 19:32:40.341089 22891 net.cpp:124] Setting up conv0
I0428 19:32:40.341119 22891 net.cpp:131] Top shape: 64 25 24 24 (921600)
I0428 19:32:40.341123 22891 net.cpp:139] Memory required for data: 3887360
I0428 19:32:40.341140 22891 layer_factory.hpp:77] Creating layer pool0
I0428 19:32:40.341153 22891 net.cpp:86] Creating Layer pool0
I0428 19:32:40.341157 22891 net.cpp:408] pool0 <- conv0
I0428 19:32:40.341163 22891 net.cpp:382] pool0 -> pool0
I0428 19:32:40.341212 22891 net.cpp:124] Setting up pool0
I0428 19:32:40.341222 22891 net.cpp:131] Top shape: 64 25 12 12 (230400)
I0428 19:32:40.341224 22891 net.cpp:139] Memory required for data: 4808960
I0428 19:32:40.341250 22891 layer_factory.hpp:77] Creating layer ip1
I0428 19:32:40.341260 22891 net.cpp:86] Creating Layer ip1
I0428 19:32:40.341264 22891 net.cpp:408] ip1 <- pool0
I0428 19:32:40.341269 22891 net.cpp:382] ip1 -> ip1
I0428 19:32:40.341601 22891 net.cpp:124] Setting up ip1
I0428 19:32:40.341610 22891 net.cpp:131] Top shape: 64 10 (640)
I0428 19:32:40.341614 22891 net.cpp:139] Memory required for data: 4811520
I0428 19:32:40.341621 22891 layer_factory.hpp:77] Creating layer relu1
I0428 19:32:40.341627 22891 net.cpp:86] Creating Layer relu1
I0428 19:32:40.341631 22891 net.cpp:408] relu1 <- ip1
I0428 19:32:40.341635 22891 net.cpp:369] relu1 -> ip1 (in-place)
I0428 19:32:40.341810 22891 net.cpp:124] Setting up relu1
I0428 19:32:40.341820 22891 net.cpp:131] Top shape: 64 10 (640)
I0428 19:32:40.341822 22891 net.cpp:139] Memory required for data: 4814080
I0428 19:32:40.341826 22891 layer_factory.hpp:77] Creating layer ip2
I0428 19:32:40.341833 22891 net.cpp:86] Creating Layer ip2
I0428 19:32:40.341836 22891 net.cpp:408] ip2 <- ip1
I0428 19:32:40.341842 22891 net.cpp:382] ip2 -> ip2
I0428 19:32:40.341941 22891 net.cpp:124] Setting up ip2
I0428 19:32:40.341948 22891 net.cpp:131] Top shape: 64 10 (640)
I0428 19:32:40.341953 22891 net.cpp:139] Memory required for data: 4816640
I0428 19:32:40.341960 22891 layer_factory.hpp:77] Creating layer relu2
I0428 19:32:40.341965 22891 net.cpp:86] Creating Layer relu2
I0428 19:32:40.341969 22891 net.cpp:408] relu2 <- ip2
I0428 19:32:40.341974 22891 net.cpp:369] relu2 -> ip2 (in-place)
I0428 19:32:40.342756 22891 net.cpp:124] Setting up relu2
I0428 19:32:40.342769 22891 net.cpp:131] Top shape: 64 10 (640)
I0428 19:32:40.342773 22891 net.cpp:139] Memory required for data: 4819200
I0428 19:32:40.342777 22891 layer_factory.hpp:77] Creating layer loss
I0428 19:32:40.342784 22891 net.cpp:86] Creating Layer loss
I0428 19:32:40.342788 22891 net.cpp:408] loss <- ip2
I0428 19:32:40.342793 22891 net.cpp:408] loss <- label
I0428 19:32:40.342799 22891 net.cpp:382] loss -> loss
I0428 19:32:40.342819 22891 layer_factory.hpp:77] Creating layer loss
…
I0428 19:32:40.343397 22891 solver.cpp:173] Creating test net (#0) specified by net file: ECE595/mnist/train_test/var_everything2/lenet_train_test159.prototxt
I0428 19:32:40.343425 22891 net.cpp:296] The NetState phase (1) differed from the phase (0) specified by a rule in layer mnist
I0428 19:32:40.343502 22891 net.cpp:53] Initializing net from parameters: 
name: "LeNet"
state {
  phase: TEST
}
layer {
  name: "mnist"
  type: "Data"
  top: "data"
  top: "label"
  include {
    phase: TEST
  }
  transform_param {
    scale: 0.00390625
  }
  data_param {
    source: "examples/mnist/mnist_test_lmdb"
    batch_size: 100
    backend: LMDB
  }
}
layer {
  name: "conv0"
  type: "Convolution"
  bottom: "data"
  top: "conv0"
  param {
    lr_mult: 1
  }
  param {
    lr_mult: 2
  }
  convolution_param {
    num_output: 25
    kernel_size: 5
    stride: 1
    weight_filler {
      type: "xavier"
    }
    bias_filler {
      type: "constant"
    }
  }
}
layer {
  name: "pool0"
  type: "Pooling"
  bottom: "conv0"
  top: "pool0"
  pooling_param {
    pool: MAX
    kernel_size: 2
    stride: 2
  }
}
layer {
  name: "ip1"
  type: "InnerProduct"
  bottom: "pool0"
  top: "ip1"
  param {
    lr_mult: 1
  }
  param {
    lr_mult: 2
  }
  inner_product_param {
    num_output: 10
    weight_filler {
      type: "xavier"
    }
    bias_filler {
      type: "constant"
    }
  }
}
layer {
  name: "relu1"
  type: "ReLU"
  bottom: "ip1"
  top: "ip1"
}
layer {
  name: "ip2"
  type: "InnerProduct"
  bottom: "ip1"
  top: "ip2"
  param {
    lr_mult: 1
  }
  param {
    lr_mult: 2
  }
  inner_product_param {
    num_output: 10
    weight_filler {
      type: "xavier"
    }
    bias_filler {
      type: "constant"
    }
  }
}
layer {
  name: "relu2"
  type: "ReLU"
  bottom: "ip2"
  top: "ip2"
}
layer {
  name: "accuracy"
  type: "Accuracy"
  bottom: "ip2"
  bottom: "label"
  top: "accuracy"
  include {
    phase: TEST
  }
}
layer {
  name: "loss"
  type: "SoftmaxWithLoss"
  bottom: "ip2"
  bottom: "label"
  top: "loss"
}
I0428 19:32:40.343576 22891 layer_factory.hpp:77] Creating layer mnist
I0428 19:32:40.343623 22891 db_lmdb.cpp:35] Opened lmdb examples/mnist/mnist_test_lmdb
I0428 19:32:40.343636 22891 net.cpp:86] Creating Layer mnist
I0428 19:32:40.343641 22891 net.cpp:382] mnist -> data
I0428 19:32:40.343650 22891 net.cpp:382] mnist -> label
I0428 19:32:40.343739 22891 data_layer.cpp:45] output data size: 100,1,28,28
I0428 19:32:40.345957 22891 net.cpp:124] Setting up mnist
I0428 19:32:40.345971 22891 net.cpp:131] Top shape: 100 1 28 28 (78400)
I0428 19:32:40.345978 22891 net.cpp:131] Top shape: 100 (100)
I0428 19:32:40.345981 22891 net.cpp:139] Memory required for data: 314000
I0428 19:32:40.345985 22891 layer_factory.hpp:77] Creating layer label_mnist_1_split
I0428 19:32:40.346000 22891 net.cpp:86] Creating Layer label_mnist_1_split
I0428 19:32:40.346004 22891 net.cpp:408] label_mnist_1_split <- label
I0428 19:32:40.346009 22891 net.cpp:382] label_mnist_1_split -> label_mnist_1_split_0
I0428 19:32:40.346016 22891 net.cpp:382] label_mnist_1_split -> label_mnist_1_split_1
I0428 19:32:40.346122 22891 net.cpp:124] Setting up label_mnist_1_split
I0428 19:32:40.346129 22891 net.cpp:131] Top shape: 100 (100)
I0428 19:32:40.346133 22891 net.cpp:131] Top shape: 100 (100)
I0428 19:32:40.346137 22891 net.cpp:139] Memory required for data: 314800
I0428 19:32:40.346140 22891 layer_factory.hpp:77] Creating layer conv0
I0428 19:32:40.346149 22891 net.cpp:86] Creating Layer conv0
I0428 19:32:40.346153 22891 net.cpp:408] conv0 <- data
I0428 19:32:40.346158 22891 net.cpp:382] conv0 -> conv0
I0428 19:32:40.347756 22891 net.cpp:124] Setting up conv0
I0428 19:32:40.347771 22891 net.cpp:131] Top shape: 100 25 24 24 (1440000)
I0428 19:32:40.347775 22891 net.cpp:139] Memory required for data: 6074800
I0428 19:32:40.347785 22891 layer_factory.hpp:77] Creating layer pool0
I0428 19:32:40.347792 22891 net.cpp:86] Creating Layer pool0
I0428 19:32:40.347795 22891 net.cpp:408] pool0 <- conv0
I0428 19:32:40.347800 22891 net.cpp:382] pool0 -> pool0
I0428 19:32:40.347837 22891 net.cpp:124] Setting up pool0
I0428 19:32:40.347843 22891 net.cpp:131] Top shape: 100 25 12 12 (360000)
I0428 19:32:40.347846 22891 net.cpp:139] Memory required for data: 7514800
I0428 19:32:40.347849 22891 layer_factory.hpp:77] Creating layer ip1
I0428 19:32:40.347856 22891 net.cpp:86] Creating Layer ip1
I0428 19:32:40.347859 22891 net.cpp:408] ip1 <- pool0
I0428 19:32:40.347864 22891 net.cpp:382] ip1 -> ip1
I0428 19:32:40.348177 22891 net.cpp:124] Setting up ip1
I0428 19:32:40.348186 22891 net.cpp:131] Top shape: 100 10 (1000)
I0428 19:32:40.348188 22891 net.cpp:139] Memory required for data: 7518800
I0428 19:32:40.348196 22891 layer_factory.hpp:77] Creating layer relu1
I0428 19:32:40.348201 22891 net.cpp:86] Creating Layer relu1
I0428 19:32:40.348203 22891 net.cpp:408] relu1 <- ip1
I0428 19:32:40.348208 22891 net.cpp:369] relu1 -> ip1 (in-place)
I0428 19:32:40.348461 22891 net.cpp:124] Setting up relu1
I0428 19:32:40.348470 22891 net.cpp:131] Top shape: 100 10 (1000)
I0428 19:32:40.348484 22891 net.cpp:139] Memory required for data: 7522800
I0428 19:32:40.348489 22891 layer_factory.hpp:77] Creating layer ip2
I0428 19:32:40.348495 22891 net.cpp:86] Creating Layer ip2
I0428 19:32:40.348498 22891 net.cpp:408] ip2 <- ip1
I0428 19:32:40.348503 22891 net.cpp:382] ip2 -> ip2
I0428 19:32:40.348613 22891 net.cpp:124] Setting up ip2
I0428 19:32:40.348619 22891 net.cpp:131] Top shape: 100 10 (1000)
I0428 19:32:40.348623 22891 net.cpp:139] Memory required for data: 7526800
I0428 19:32:40.348630 22891 layer_factory.hpp:77] Creating layer relu2
I0428 19:32:40.348635 22891 net.cpp:86] Creating Layer relu2
I0428 19:32:40.348639 22891 net.cpp:408] relu2 <- ip2
I0428 19:32:40.348644 22891 net.cpp:369] relu2 -> ip2 (in-place)
I0428 19:32:40.348800 22891 net.cpp:124] Setting up relu2
I0428 19:32:40.348809 22891 net.cpp:131] Top shape: 100 10 (1000)
I0428 19:32:40.348817 22891 net.cpp:139] Memory required for data: 7530800
I0428 19:32:40.348821 22891 layer_factory.hpp:77] Creating layer ip2_relu2_0_split
I0428 19:32:40.348827 22891 net.cpp:86] Creating Layer ip2_relu2_0_split
I0428 19:32:40.348831 22891 net.cpp:408] ip2_relu2_0_split <- ip2
I0428 19:32:40.348836 22891 net.cpp:382] ip2_relu2_0_split -> ip2_relu2_0_split_0
I0428 19:32:40.348844 22891 net.cpp:382] ip2_relu2_0_split -> ip2_relu2_0_split_1
I0428 19:32:40.348907 22891 net.cpp:124] Setting up ip2_relu2_0_split
I0428 19:32:40.348915 22891 net.cpp:131] Top shape: 100 10 (1000)
I0428 19:32:40.348920 22891 net.cpp:131] Top shape: 100 10 (1000)
I0428 19:32:40.348923 22891 net.cpp:139] Memory required for data: 7538800
I0428 19:32:40.348927 22891 layer_factory.hpp:77] Creating layer accuracy
I0428 19:32:40.348932 22891 net.cpp:86] Creating Layer accuracy
I0428 19:32:40.348937 22891 net.cpp:408] accuracy <- ip2_relu2_0_split_0
I0428 19:32:40.348942 22891 net.cpp:408] accuracy <- label_mnist_1_split_0
I0428 19:32:40.348947 22891 net.cpp:382] accuracy -> accuracy
…
