…
I0428 19:48:15.831491 26436 net.cpp:296] The NetState phase (0) differed from the phase (1) specified by a rule in layer mnist
I0428 19:48:15.831516 26436 net.cpp:296] The NetState phase (0) differed from the phase (1) specified by a rule in layer accuracy
I0428 19:48:15.831621 26436 net.cpp:53] Initializing net from parameters: 
name: "LeNet"
state {
  phase: TRAIN
  level: 0
  stage: ""
}
layer {
  name: "mnist"
  type: "Data"
  top: "data"
  top: "label"
  include {
    phase: TRAIN
  }
  transform_param {
    scale: 0.00390625
  }
  data_param {
    source: "examples/mnist/mnist_train_lmdb"
    batch_size: 64
    backend: LMDB
  }
}
layer {
  name: "conv0"
  type: "Convolution"
  bottom: "data"
  top: "conv0"
  param {
    lr_mult: 1
  }
  param {
    lr_mult: 2
  }
  convolution_param {
    num_output: 5
    kernel_size: 5
    stride: 1
    weight_filler {
      type: "xavier"
    }
    bias_filler {
      type: "constant"
    }
  }
}
layer {
  name: "pool0"
  type: "Pooling"
  bottom: "conv0"
  top: "pool0"
  pooling_param {
    pool: MAX
    kernel_size: 2
    stride: 2
  }
}
layer {
  name: "conv1"
  type: "Convolution"
  bottom: "pool0"
  top: "conv1"
  param {
    lr_mult: 1
  }
  param {
    lr_mult: 2
  }
  convolution_param {
    num_output: 2
    kernel_size: 5
    stride: 1
    weight_filler {
      type: "xavier"
    }
    bias_filler {
      type: "constant"
    }
  }
}
layer {
  name: "pool1"
  type: "Pooling"
  bottom: "conv1"
  top: "pool1"
  pooling_param {
    pool: MAX
    kernel_size: 2
    stride: 2
  }
}
layer {
  name: "ip1"
  type: "InnerProduct"
  bottom: "pool1"
  top: "ip1"
  param {
    lr_mult: 1
  }
  param {
    lr_mult: 2
  }
  inner_product_param {
    num_output: 50
    weight_filler {
      type: "xavier"
    }
    bias_filler {
      type: "constant"
    }
  }
}
layer {
  name: "relu1"
  type: "ReLU"
  bottom: "ip1"
  top: "ip1"
}
layer {
  name: "ip2"
  type: "InnerProduct"
  bottom: "ip1"
  top: "ip2"
  param {
    lr_mult: 1
  }
  param {
    lr_mult: 2
  }
  inner_product_param {
    num_output: 10
    weight_filler {
      type: "xavier"
    }
    bias_filler {
      type: "constant"
    }
  }
}
layer {
  name: "relu2"
  type: "ReLU"
  bottom: "ip2"
  top: "ip2"
}
layer {
  name: "ip3"
  type: "InnerProduct"
  bottom: "ip2"
  top: "ip3"
  param {
    lr_mult: 1
  }
  param {
    lr_mult: 2
  }
  inner_product_param {
    num_output: 10
    weight_filler {
      type: "xavier"
    }
    bias_filler {
      type: "constant"
    }
  }
}
layer {
  name: "relu3"
  type: "ReLU"
  bottom: "ip3"
  top: "ip3"
}
layer {
  name: "loss"
  type: "SoftmaxWithLoss"
  bottom: "ip3"
  bottom: "label"
  top: "loss"
}
I0428 19:48:15.831727 26436 layer_factory.hpp:77] Creating layer mnist
I0428 19:48:15.831861 26436 db_lmdb.cpp:35] Opened lmdb examples/mnist/mnist_train_lmdb
I0428 19:48:15.831893 26436 net.cpp:86] Creating Layer mnist
I0428 19:48:15.831905 26436 net.cpp:382] mnist -> data
I0428 19:48:15.831935 26436 net.cpp:382] mnist -> label
I0428 19:48:15.833223 26436 data_layer.cpp:45] output data size: 64,1,28,28
I0428 19:48:15.835752 26436 net.cpp:124] Setting up mnist
I0428 19:48:15.835772 26436 net.cpp:131] Top shape: 64 1 28 28 (50176)
I0428 19:48:15.835783 26436 net.cpp:131] Top shape: 64 (64)
I0428 19:48:15.835789 26436 net.cpp:139] Memory required for data: 200960
I0428 19:48:15.835800 26436 layer_factory.hpp:77] Creating layer conv0
I0428 19:48:15.835824 26436 net.cpp:86] Creating Layer conv0
I0428 19:48:15.835849 26436 net.cpp:408] conv0 <- data
I0428 19:48:15.835866 26436 net.cpp:382] conv0 -> conv0
I0428 19:48:16.125438 26436 net.cpp:124] Setting up conv0
I0428 19:48:16.125469 26436 net.cpp:131] Top shape: 64 5 24 24 (184320)
I0428 19:48:16.125476 26436 net.cpp:139] Memory required for data: 938240
I0428 19:48:16.125497 26436 layer_factory.hpp:77] Creating layer pool0
I0428 19:48:16.125517 26436 net.cpp:86] Creating Layer pool0
I0428 19:48:16.125524 26436 net.cpp:408] pool0 <- conv0
I0428 19:48:16.125535 26436 net.cpp:382] pool0 -> pool0
I0428 19:48:16.125604 26436 net.cpp:124] Setting up pool0
I0428 19:48:16.125614 26436 net.cpp:131] Top shape: 64 5 12 12 (46080)
I0428 19:48:16.125619 26436 net.cpp:139] Memory required for data: 1122560
I0428 19:48:16.125625 26436 layer_factory.hpp:77] Creating layer conv1
I0428 19:48:16.125643 26436 net.cpp:86] Creating Layer conv1
I0428 19:48:16.125650 26436 net.cpp:408] conv1 <- pool0
I0428 19:48:16.125660 26436 net.cpp:382] conv1 -> conv1
I0428 19:48:16.127668 26436 net.cpp:124] Setting up conv1
I0428 19:48:16.127686 26436 net.cpp:131] Top shape: 64 2 8 8 (8192)
I0428 19:48:16.127692 26436 net.cpp:139] Memory required for data: 1155328
I0428 19:48:16.127707 26436 layer_factory.hpp:77] Creating layer pool1
I0428 19:48:16.127720 26436 net.cpp:86] Creating Layer pool1
I0428 19:48:16.127727 26436 net.cpp:408] pool1 <- conv1
I0428 19:48:16.127737 26436 net.cpp:382] pool1 -> pool1
I0428 19:48:16.127804 26436 net.cpp:124] Setting up pool1
I0428 19:48:16.127813 26436 net.cpp:131] Top shape: 64 2 4 4 (2048)
I0428 19:48:16.127820 26436 net.cpp:139] Memory required for data: 1163520
I0428 19:48:16.127825 26436 layer_factory.hpp:77] Creating layer ip1
I0428 19:48:16.127838 26436 net.cpp:86] Creating Layer ip1
I0428 19:48:16.127849 26436 net.cpp:408] ip1 <- pool1
I0428 19:48:16.127859 26436 net.cpp:382] ip1 -> ip1
I0428 19:48:16.128922 26436 net.cpp:124] Setting up ip1
I0428 19:48:16.128938 26436 net.cpp:131] Top shape: 64 50 (3200)
I0428 19:48:16.128944 26436 net.cpp:139] Memory required for data: 1176320
I0428 19:48:16.128958 26436 layer_factory.hpp:77] Creating layer relu1
I0428 19:48:16.128969 26436 net.cpp:86] Creating Layer relu1
I0428 19:48:16.128985 26436 net.cpp:408] relu1 <- ip1
I0428 19:48:16.128994 26436 net.cpp:369] relu1 -> ip1 (in-place)
I0428 19:48:16.129199 26436 net.cpp:124] Setting up relu1
I0428 19:48:16.129211 26436 net.cpp:131] Top shape: 64 50 (3200)
I0428 19:48:16.129217 26436 net.cpp:139] Memory required for data: 1189120
I0428 19:48:16.129223 26436 layer_factory.hpp:77] Creating layer ip2
I0428 19:48:16.129235 26436 net.cpp:86] Creating Layer ip2
I0428 19:48:16.129240 26436 net.cpp:408] ip2 <- ip1
I0428 19:48:16.129250 26436 net.cpp:382] ip2 -> ip2
I0428 19:48:16.129366 26436 net.cpp:124] Setting up ip2
I0428 19:48:16.129376 26436 net.cpp:131] Top shape: 64 10 (640)
I0428 19:48:16.129381 26436 net.cpp:139] Memory required for data: 1191680
I0428 19:48:16.129393 26436 layer_factory.hpp:77] Creating layer relu2
I0428 19:48:16.129405 26436 net.cpp:86] Creating Layer relu2
I0428 19:48:16.129413 26436 net.cpp:408] relu2 <- ip2
I0428 19:48:16.129421 26436 net.cpp:369] relu2 -> ip2 (in-place)
I0428 19:48:16.130237 26436 net.cpp:124] Setting up relu2
I0428 19:48:16.130252 26436 net.cpp:131] Top shape: 64 10 (640)
I0428 19:48:16.130259 26436 net.cpp:139] Memory required for data: 1194240
I0428 19:48:16.130265 26436 layer_factory.hpp:77] Creating layer ip3
I0428 19:48:16.130276 26436 net.cpp:86] Creating Layer ip3
I0428 19:48:16.130283 26436 net.cpp:408] ip3 <- ip2
I0428 19:48:16.130293 26436 net.cpp:382] ip3 -> ip3
I0428 19:48:16.130414 26436 net.cpp:124] Setting up ip3
I0428 19:48:16.130424 26436 net.cpp:131] Top shape: 64 10 (640)
I0428 19:48:16.130429 26436 net.cpp:139] Memory required for data: 1196800
I0428 19:48:16.130444 26436 layer_factory.hpp:77] Creating layer relu3
I0428 19:48:16.130453 26436 net.cpp:86] Creating Layer relu3
I0428 19:48:16.130460 26436 net.cpp:408] relu3 <- ip3
I0428 19:48:16.130468 26436 net.cpp:369] relu3 -> ip3 (in-place)
I0428 19:48:16.130662 26436 net.cpp:124] Setting up relu3
I0428 19:48:16.130673 26436 net.cpp:131] Top shape: 64 10 (640)
I0428 19:48:16.130679 26436 net.cpp:139] Memory required for data: 1199360
I0428 19:48:16.130686 26436 layer_factory.hpp:77] Creating layer loss
I0428 19:48:16.130699 26436 net.cpp:86] Creating Layer loss
I0428 19:48:16.130705 26436 net.cpp:408] loss <- ip3
I0428 19:48:16.130712 26436 net.cpp:408] loss <- label
I0428 19:48:16.130722 26436 net.cpp:382] loss -> loss
I0428 19:48:16.130743 26436 layer_factory.hpp:77] Creating layer loss
…
I0428 19:48:16.131501 26436 solver.cpp:173] Creating test net (#0) specified by net file: ECE595/mnist/train_test/var_everything2/lenet_train_test539.prototxt
I0428 19:48:16.131539 26436 net.cpp:296] The NetState phase (1) differed from the phase (0) specified by a rule in layer mnist
I0428 19:48:16.131647 26436 net.cpp:53] Initializing net from parameters: 
name: "LeNet"
state {
  phase: TEST
}
layer {
  name: "mnist"
  type: "Data"
  top: "data"
  top: "label"
  include {
    phase: TEST
  }
  transform_param {
    scale: 0.00390625
  }
  data_param {
    source: "examples/mnist/mnist_test_lmdb"
    batch_size: 100
    backend: LMDB
  }
}
layer {
  name: "conv0"
  type: "Convolution"
  bottom: "data"
  top: "conv0"
  param {
    lr_mult: 1
  }
  param {
    lr_mult: 2
  }
  convolution_param {
    num_output: 5
    kernel_size: 5
    stride: 1
    weight_filler {
      type: "xavier"
    }
    bias_filler {
      type: "constant"
    }
  }
}
layer {
  name: "pool0"
  type: "Pooling"
  bottom: "conv0"
  top: "pool0"
  pooling_param {
    pool: MAX
    kernel_size: 2
    stride: 2
  }
}
layer {
  name: "conv1"
  type: "Convolution"
  bottom: "pool0"
  top: "conv1"
  param {
    lr_mult: 1
  }
  param {
    lr_mult: 2
  }
  convolution_param {
    num_output: 2
    kernel_size: 5
    stride: 1
    weight_filler {
      type: "xavier"
    }
    bias_filler {
      type: "constant"
    }
  }
}
layer {
  name: "pool1"
  type: "Pooling"
  bottom: "conv1"
  top: "pool1"
  pooling_param {
    pool: MAX
    kernel_size: 2
    stride: 2
  }
}
layer {
  name: "ip1"
  type: "InnerProduct"
  bottom: "pool1"
  top: "ip1"
  param {
    lr_mult: 1
  }
  param {
    lr_mult: 2
  }
  inner_product_param {
    num_output: 50
    weight_filler {
      type: "xavier"
    }
    bias_filler {
      type: "constant"
    }
  }
}
layer {
  name: "relu1"
  type: "ReLU"
  bottom: "ip1"
  top: "ip1"
}
layer {
  name: "ip2"
  type: "InnerProduct"
  bottom: "ip1"
  top: "ip2"
  param {
    lr_mult: 1
  }
  param {
    lr_mult: 2
  }
  inner_product_param {
    num_output: 10
    weight_filler {
      type: "xavier"
    }
    bias_filler {
      type: "constant"
    }
  }
}
layer {
  name: "relu2"
  type: "ReLU"
  bottom: "ip2"
  top: "ip2"
}
layer {
  name: "ip3"
  type: "InnerProduct"
  bottom: "ip2"
  top: "ip3"
  param {
    lr_mult: 1
  }
  param {
    lr_mult: 2
  }
  inner_product_param {
    num_output: 10
    weight_filler {
      type: "xavier"
    }
    bias_filler {
      type: "constant"
    }
  }
}
layer {
  name: "relu3"
  type: "ReLU"
  bottom: "ip3"
  top: "ip3"
}
layer {
  name: "accuracy"
  type: "Accuracy"
  bottom: "ip3"
  bottom: "label"
  top: "accuracy"
  include {
    phase: TEST
  }
}
layer {
  name: "loss"
  type: "SoftmaxWithLoss"
  bottom: "ip3"
  bottom: "label"
  top: "loss"
}
I0428 19:48:16.131772 26436 layer_factory.hpp:77] Creating layer mnist
I0428 19:48:16.131835 26436 db_lmdb.cpp:35] Opened lmdb examples/mnist/mnist_test_lmdb
I0428 19:48:16.131861 26436 net.cpp:86] Creating Layer mnist
I0428 19:48:16.131870 26436 net.cpp:382] mnist -> data
I0428 19:48:16.131882 26436 net.cpp:382] mnist -> label
I0428 19:48:16.132014 26436 data_layer.cpp:45] output data size: 100,1,28,28
I0428 19:48:16.134265 26436 net.cpp:124] Setting up mnist
I0428 19:48:16.134281 26436 net.cpp:131] Top shape: 100 1 28 28 (78400)
I0428 19:48:16.134290 26436 net.cpp:131] Top shape: 100 (100)
I0428 19:48:16.134296 26436 net.cpp:139] Memory required for data: 314000
I0428 19:48:16.134302 26436 layer_factory.hpp:77] Creating layer label_mnist_1_split
I0428 19:48:16.134313 26436 net.cpp:86] Creating Layer label_mnist_1_split
I0428 19:48:16.134320 26436 net.cpp:408] label_mnist_1_split <- label
I0428 19:48:16.134327 26436 net.cpp:382] label_mnist_1_split -> label_mnist_1_split_0
I0428 19:48:16.134340 26436 net.cpp:382] label_mnist_1_split -> label_mnist_1_split_1
I0428 19:48:16.134420 26436 net.cpp:124] Setting up label_mnist_1_split
I0428 19:48:16.134429 26436 net.cpp:131] Top shape: 100 (100)
I0428 19:48:16.134436 26436 net.cpp:131] Top shape: 100 (100)
I0428 19:48:16.134441 26436 net.cpp:139] Memory required for data: 314800
I0428 19:48:16.134448 26436 layer_factory.hpp:77] Creating layer conv0
I0428 19:48:16.134461 26436 net.cpp:86] Creating Layer conv0
I0428 19:48:16.134469 26436 net.cpp:408] conv0 <- data
I0428 19:48:16.134479 26436 net.cpp:382] conv0 -> conv0
I0428 19:48:16.135975 26436 net.cpp:124] Setting up conv0
I0428 19:48:16.135993 26436 net.cpp:131] Top shape: 100 5 24 24 (288000)
I0428 19:48:16.135999 26436 net.cpp:139] Memory required for data: 1466800
I0428 19:48:16.136014 26436 layer_factory.hpp:77] Creating layer pool0
I0428 19:48:16.136024 26436 net.cpp:86] Creating Layer pool0
I0428 19:48:16.136032 26436 net.cpp:408] pool0 <- conv0
I0428 19:48:16.136041 26436 net.cpp:382] pool0 -> pool0
I0428 19:48:16.136090 26436 net.cpp:124] Setting up pool0
I0428 19:48:16.136098 26436 net.cpp:131] Top shape: 100 5 12 12 (72000)
I0428 19:48:16.136104 26436 net.cpp:139] Memory required for data: 1754800
I0428 19:48:16.136111 26436 layer_factory.hpp:77] Creating layer conv1
I0428 19:48:16.136123 26436 net.cpp:86] Creating Layer conv1
I0428 19:48:16.136131 26436 net.cpp:408] conv1 <- pool0
I0428 19:48:16.136140 26436 net.cpp:382] conv1 -> conv1
I0428 19:48:16.138257 26436 net.cpp:124] Setting up conv1
I0428 19:48:16.138273 26436 net.cpp:131] Top shape: 100 2 8 8 (12800)
I0428 19:48:16.138279 26436 net.cpp:139] Memory required for data: 1806000
I0428 19:48:16.138293 26436 layer_factory.hpp:77] Creating layer pool1
I0428 19:48:16.138303 26436 net.cpp:86] Creating Layer pool1
I0428 19:48:16.138309 26436 net.cpp:408] pool1 <- conv1
I0428 19:48:16.138319 26436 net.cpp:382] pool1 -> pool1
I0428 19:48:16.138388 26436 net.cpp:124] Setting up pool1
I0428 19:48:16.138398 26436 net.cpp:131] Top shape: 100 2 4 4 (3200)
I0428 19:48:16.138404 26436 net.cpp:139] Memory required for data: 1818800
I0428 19:48:16.138409 26436 layer_factory.hpp:77] Creating layer ip1
I0428 19:48:16.138419 26436 net.cpp:86] Creating Layer ip1
I0428 19:48:16.138427 26436 net.cpp:408] ip1 <- pool1
I0428 19:48:16.138434 26436 net.cpp:382] ip1 -> ip1
I0428 19:48:16.138557 26436 net.cpp:124] Setting up ip1
I0428 19:48:16.138568 26436 net.cpp:131] Top shape: 100 50 (5000)
I0428 19:48:16.138587 26436 net.cpp:139] Memory required for data: 1838800
I0428 19:48:16.138602 26436 layer_factory.hpp:77] Creating layer relu1
I0428 19:48:16.138610 26436 net.cpp:86] Creating Layer relu1
I0428 19:48:16.138617 26436 net.cpp:408] relu1 <- ip1
I0428 19:48:16.138629 26436 net.cpp:369] relu1 -> ip1 (in-place)
I0428 19:48:16.138811 26436 net.cpp:124] Setting up relu1
I0428 19:48:16.138823 26436 net.cpp:131] Top shape: 100 50 (5000)
I0428 19:48:16.138831 26436 net.cpp:139] Memory required for data: 1858800
I0428 19:48:16.138836 26436 layer_factory.hpp:77] Creating layer ip2
I0428 19:48:16.138849 26436 net.cpp:86] Creating Layer ip2
I0428 19:48:16.138855 26436 net.cpp:408] ip2 <- ip1
I0428 19:48:16.138865 26436 net.cpp:382] ip2 -> ip2
I0428 19:48:16.138981 26436 net.cpp:124] Setting up ip2
I0428 19:48:16.138990 26436 net.cpp:131] Top shape: 100 10 (1000)
I0428 19:48:16.138996 26436 net.cpp:139] Memory required for data: 1862800
I0428 19:48:16.139005 26436 layer_factory.hpp:77] Creating layer relu2
I0428 19:48:16.139017 26436 net.cpp:86] Creating Layer relu2
I0428 19:48:16.139025 26436 net.cpp:408] relu2 <- ip2
I0428 19:48:16.139034 26436 net.cpp:369] relu2 -> ip2 (in-place)
I0428 19:48:16.139250 26436 net.cpp:124] Setting up relu2
I0428 19:48:16.139261 26436 net.cpp:131] Top shape: 100 10 (1000)
I0428 19:48:16.139267 26436 net.cpp:139] Memory required for data: 1866800
I0428 19:48:16.139272 26436 layer_factory.hpp:77] Creating layer ip3
I0428 19:48:16.139281 26436 net.cpp:86] Creating Layer ip3
I0428 19:48:16.139287 26436 net.cpp:408] ip3 <- ip2
I0428 19:48:16.139297 26436 net.cpp:382] ip3 -> ip3
I0428 19:48:16.139405 26436 net.cpp:124] Setting up ip3
I0428 19:48:16.139415 26436 net.cpp:131] Top shape: 100 10 (1000)
I0428 19:48:16.139420 26436 net.cpp:139] Memory required for data: 1870800
I0428 19:48:16.139433 26436 layer_factory.hpp:77] Creating layer relu3
I0428 19:48:16.139441 26436 net.cpp:86] Creating Layer relu3
I0428 19:48:16.139449 26436 net.cpp:408] relu3 <- ip3
I0428 19:48:16.139457 26436 net.cpp:369] relu3 -> ip3 (in-place)
I0428 19:48:16.140295 26436 net.cpp:124] Setting up relu3
I0428 19:48:16.140310 26436 net.cpp:131] Top shape: 100 10 (1000)
I0428 19:48:16.140316 26436 net.cpp:139] Memory required for data: 1874800
I0428 19:48:16.140321 26436 layer_factory.hpp:77] Creating layer ip3_relu3_0_split
I0428 19:48:16.140329 26436 net.cpp:86] Creating Layer ip3_relu3_0_split
I0428 19:48:16.140336 26436 net.cpp:408] ip3_relu3_0_split <- ip3
I0428 19:48:16.140346 26436 net.cpp:382] ip3_relu3_0_split -> ip3_relu3_0_split_0
I0428 19:48:16.140357 26436 net.cpp:382] ip3_relu3_0_split -> ip3_relu3_0_split_1
I0428 19:48:16.140408 26436 net.cpp:124] Setting up ip3_relu3_0_split
I0428 19:48:16.140417 26436 net.cpp:131] Top shape: 100 10 (1000)
I0428 19:48:16.140424 26436 net.cpp:131] Top shape: 100 10 (1000)
I0428 19:48:16.140429 26436 net.cpp:139] Memory required for data: 1882800
I0428 19:48:16.140434 26436 layer_factory.hpp:77] Creating layer accuracy
I0428 19:48:16.140444 26436 net.cpp:86] Creating Layer accuracy
I0428 19:48:16.140450 26436 net.cpp:408] accuracy <- ip3_relu3_0_split_0
I0428 19:48:16.140457 26436 net.cpp:408] accuracy <- label_mnist_1_split_0
I0428 19:48:16.140466 26436 net.cpp:382] accuracy -> accuracy
…
