…
I0428 20:00:04.834673 29393 net.cpp:296] The NetState phase (0) differed from the phase (1) specified by a rule in layer mnist
I0428 20:00:04.834689 29393 net.cpp:296] The NetState phase (0) differed from the phase (1) specified by a rule in layer accuracy
I0428 20:00:04.834764 29393 net.cpp:53] Initializing net from parameters: 
name: "LeNet"
state {
  phase: TRAIN
  level: 0
  stage: ""
}
layer {
  name: "mnist"
  type: "Data"
  top: "data"
  top: "label"
  include {
    phase: TRAIN
  }
  transform_param {
    scale: 0.00390625
  }
  data_param {
    source: "examples/mnist/mnist_train_lmdb"
    batch_size: 64
    backend: LMDB
  }
}
layer {
  name: "conv0"
  type: "Convolution"
  bottom: "data"
  top: "conv0"
  param {
    lr_mult: 1
  }
  param {
    lr_mult: 2
  }
  convolution_param {
    num_output: 10
    kernel_size: 5
    stride: 1
    weight_filler {
      type: "xavier"
    }
    bias_filler {
      type: "constant"
    }
  }
}
layer {
  name: "pool0"
  type: "Pooling"
  bottom: "conv0"
  top: "pool0"
  pooling_param {
    pool: MAX
    kernel_size: 2
    stride: 2
  }
}
layer {
  name: "conv1"
  type: "Convolution"
  bottom: "pool0"
  top: "conv1"
  param {
    lr_mult: 1
  }
  param {
    lr_mult: 2
  }
  convolution_param {
    num_output: 25
    kernel_size: 5
    stride: 1
    weight_filler {
      type: "xavier"
    }
    bias_filler {
      type: "constant"
    }
  }
}
layer {
  name: "pool1"
  type: "Pooling"
  bottom: "conv1"
  top: "pool1"
  pooling_param {
    pool: MAX
    kernel_size: 2
    stride: 2
  }
}
layer {
  name: "ip1"
  type: "InnerProduct"
  bottom: "pool1"
  top: "ip1"
  param {
    lr_mult: 1
  }
  param {
    lr_mult: 2
  }
  inner_product_param {
    num_output: 25
    weight_filler {
      type: "xavier"
    }
    bias_filler {
      type: "constant"
    }
  }
}
layer {
  name: "relu1"
  type: "ReLU"
  bottom: "ip1"
  top: "ip1"
}
layer {
  name: "ip2"
  type: "InnerProduct"
  bottom: "ip1"
  top: "ip2"
  param {
    lr_mult: 1
  }
  param {
    lr_mult: 2
  }
  inner_product_param {
    num_output: 10
    weight_filler {
      type: "xavier"
    }
    bias_filler {
      type: "constant"
    }
  }
}
layer {
  name: "relu2"
  type: "ReLU"
  bottom: "ip2"
  top: "ip2"
}
layer {
  name: "loss"
  type: "SoftmaxWithLoss"
  bottom: "ip2"
  bottom: "label"
  top: "loss"
}
I0428 20:00:04.834825 29393 layer_factory.hpp:77] Creating layer mnist
I0428 20:00:04.834908 29393 db_lmdb.cpp:35] Opened lmdb examples/mnist/mnist_train_lmdb
I0428 20:00:04.834930 29393 net.cpp:86] Creating Layer mnist
I0428 20:00:04.834939 29393 net.cpp:382] mnist -> data
I0428 20:00:04.834957 29393 net.cpp:382] mnist -> label
I0428 20:00:04.835927 29393 data_layer.cpp:45] output data size: 64,1,28,28
I0428 20:00:04.838300 29393 net.cpp:124] Setting up mnist
I0428 20:00:04.838348 29393 net.cpp:131] Top shape: 64 1 28 28 (50176)
I0428 20:00:04.838353 29393 net.cpp:131] Top shape: 64 (64)
I0428 20:00:04.838356 29393 net.cpp:139] Memory required for data: 200960
I0428 20:00:04.838379 29393 layer_factory.hpp:77] Creating layer conv0
I0428 20:00:04.838393 29393 net.cpp:86] Creating Layer conv0
I0428 20:00:04.838398 29393 net.cpp:408] conv0 <- data
I0428 20:00:04.838409 29393 net.cpp:382] conv0 -> conv0
I0428 20:00:05.067191 29393 net.cpp:124] Setting up conv0
I0428 20:00:05.067234 29393 net.cpp:131] Top shape: 64 10 24 24 (368640)
I0428 20:00:05.067237 29393 net.cpp:139] Memory required for data: 1675520
I0428 20:00:05.067271 29393 layer_factory.hpp:77] Creating layer pool0
I0428 20:00:05.067283 29393 net.cpp:86] Creating Layer pool0
I0428 20:00:05.067287 29393 net.cpp:408] pool0 <- conv0
I0428 20:00:05.067293 29393 net.cpp:382] pool0 -> pool0
I0428 20:00:05.067354 29393 net.cpp:124] Setting up pool0
I0428 20:00:05.067361 29393 net.cpp:131] Top shape: 64 10 12 12 (92160)
I0428 20:00:05.067364 29393 net.cpp:139] Memory required for data: 2044160
I0428 20:00:05.067368 29393 layer_factory.hpp:77] Creating layer conv1
I0428 20:00:05.067378 29393 net.cpp:86] Creating Layer conv1
I0428 20:00:05.067384 29393 net.cpp:408] conv1 <- pool0
I0428 20:00:05.067404 29393 net.cpp:382] conv1 -> conv1
I0428 20:00:05.070289 29393 net.cpp:124] Setting up conv1
I0428 20:00:05.070305 29393 net.cpp:131] Top shape: 64 25 8 8 (102400)
I0428 20:00:05.070309 29393 net.cpp:139] Memory required for data: 2453760
I0428 20:00:05.070317 29393 layer_factory.hpp:77] Creating layer pool1
I0428 20:00:05.070324 29393 net.cpp:86] Creating Layer pool1
I0428 20:00:05.070327 29393 net.cpp:408] pool1 <- conv1
I0428 20:00:05.070333 29393 net.cpp:382] pool1 -> pool1
I0428 20:00:05.070369 29393 net.cpp:124] Setting up pool1
I0428 20:00:05.070392 29393 net.cpp:131] Top shape: 64 25 4 4 (25600)
I0428 20:00:05.070395 29393 net.cpp:139] Memory required for data: 2556160
I0428 20:00:05.070399 29393 layer_factory.hpp:77] Creating layer ip1
I0428 20:00:05.070420 29393 net.cpp:86] Creating Layer ip1
I0428 20:00:05.070422 29393 net.cpp:408] ip1 <- pool1
I0428 20:00:05.070443 29393 net.cpp:382] ip1 -> ip1
I0428 20:00:05.070592 29393 net.cpp:124] Setting up ip1
I0428 20:00:05.070600 29393 net.cpp:131] Top shape: 64 25 (1600)
I0428 20:00:05.070603 29393 net.cpp:139] Memory required for data: 2562560
I0428 20:00:05.070610 29393 layer_factory.hpp:77] Creating layer relu1
I0428 20:00:05.070616 29393 net.cpp:86] Creating Layer relu1
I0428 20:00:05.070618 29393 net.cpp:408] relu1 <- ip1
I0428 20:00:05.070622 29393 net.cpp:369] relu1 -> ip1 (in-place)
I0428 20:00:05.070807 29393 net.cpp:124] Setting up relu1
I0428 20:00:05.070816 29393 net.cpp:131] Top shape: 64 25 (1600)
I0428 20:00:05.070818 29393 net.cpp:139] Memory required for data: 2568960
I0428 20:00:05.070822 29393 layer_factory.hpp:77] Creating layer ip2
I0428 20:00:05.070827 29393 net.cpp:86] Creating Layer ip2
I0428 20:00:05.070830 29393 net.cpp:408] ip2 <- ip1
I0428 20:00:05.070835 29393 net.cpp:382] ip2 -> ip2
I0428 20:00:05.070922 29393 net.cpp:124] Setting up ip2
I0428 20:00:05.070929 29393 net.cpp:131] Top shape: 64 10 (640)
I0428 20:00:05.070931 29393 net.cpp:139] Memory required for data: 2571520
I0428 20:00:05.070936 29393 layer_factory.hpp:77] Creating layer relu2
I0428 20:00:05.070942 29393 net.cpp:86] Creating Layer relu2
I0428 20:00:05.070945 29393 net.cpp:408] relu2 <- ip2
I0428 20:00:05.070948 29393 net.cpp:369] relu2 -> ip2 (in-place)
I0428 20:00:05.071671 29393 net.cpp:124] Setting up relu2
I0428 20:00:05.071684 29393 net.cpp:131] Top shape: 64 10 (640)
I0428 20:00:05.071687 29393 net.cpp:139] Memory required for data: 2574080
I0428 20:00:05.071691 29393 layer_factory.hpp:77] Creating layer loss
I0428 20:00:05.071697 29393 net.cpp:86] Creating Layer loss
I0428 20:00:05.071701 29393 net.cpp:408] loss <- ip2
I0428 20:00:05.071705 29393 net.cpp:408] loss <- label
I0428 20:00:05.071710 29393 net.cpp:382] loss -> loss
I0428 20:00:05.071729 29393 layer_factory.hpp:77] Creating layer loss
…
I0428 20:00:05.072379 29393 solver.cpp:173] Creating test net (#0) specified by net file: ECE595/mnist/train_test/var_everything2/lenet_train_test866.prototxt
I0428 20:00:05.072404 29393 net.cpp:296] The NetState phase (1) differed from the phase (0) specified by a rule in layer mnist
I0428 20:00:05.072481 29393 net.cpp:53] Initializing net from parameters: 
name: "LeNet"
state {
  phase: TEST
}
layer {
  name: "mnist"
  type: "Data"
  top: "data"
  top: "label"
  include {
    phase: TEST
  }
  transform_param {
    scale: 0.00390625
  }
  data_param {
    source: "examples/mnist/mnist_test_lmdb"
    batch_size: 100
    backend: LMDB
  }
}
layer {
  name: "conv0"
  type: "Convolution"
  bottom: "data"
  top: "conv0"
  param {
    lr_mult: 1
  }
  param {
    lr_mult: 2
  }
  convolution_param {
    num_output: 10
    kernel_size: 5
    stride: 1
    weight_filler {
      type: "xavier"
    }
    bias_filler {
      type: "constant"
    }
  }
}
layer {
  name: "pool0"
  type: "Pooling"
  bottom: "conv0"
  top: "pool0"
  pooling_param {
    pool: MAX
    kernel_size: 2
    stride: 2
  }
}
layer {
  name: "conv1"
  type: "Convolution"
  bottom: "pool0"
  top: "conv1"
  param {
    lr_mult: 1
  }
  param {
    lr_mult: 2
  }
  convolution_param {
    num_output: 25
    kernel_size: 5
    stride: 1
    weight_filler {
      type: "xavier"
    }
    bias_filler {
      type: "constant"
    }
  }
}
layer {
  name: "pool1"
  type: "Pooling"
  bottom: "conv1"
  top: "pool1"
  pooling_param {
    pool: MAX
    kernel_size: 2
    stride: 2
  }
}
layer {
  name: "ip1"
  type: "InnerProduct"
  bottom: "pool1"
  top: "ip1"
  param {
    lr_mult: 1
  }
  param {
    lr_mult: 2
  }
  inner_product_param {
    num_output: 25
    weight_filler {
      type: "xavier"
    }
    bias_filler {
      type: "constant"
    }
  }
}
layer {
  name: "relu1"
  type: "ReLU"
  bottom: "ip1"
  top: "ip1"
}
layer {
  name: "ip2"
  type: "InnerProduct"
  bottom: "ip1"
  top: "ip2"
  param {
    lr_mult: 1
  }
  param {
    lr_mult: 2
  }
  inner_product_param {
    num_output: 10
    weight_filler {
      type: "xavier"
    }
    bias_filler {
      type: "constant"
    }
  }
}
layer {
  name: "relu2"
  type: "ReLU"
  bottom: "ip2"
  top: "ip2"
}
layer {
  name: "accuracy"
  type: "Accuracy"
  bottom: "ip2"
  bottom: "label"
  top: "accuracy"
  include {
    phase: TEST
  }
}
layer {
  name: "loss"
  type: "SoftmaxWithLoss"
  bottom: "ip2"
  bottom: "label"
  top: "loss"
}
I0428 20:00:05.072571 29393 layer_factory.hpp:77] Creating layer mnist
I0428 20:00:05.072651 29393 db_lmdb.cpp:35] Opened lmdb examples/mnist/mnist_test_lmdb
I0428 20:00:05.072666 29393 net.cpp:86] Creating Layer mnist
I0428 20:00:05.072671 29393 net.cpp:382] mnist -> data
I0428 20:00:05.072679 29393 net.cpp:382] mnist -> label
I0428 20:00:05.072768 29393 data_layer.cpp:45] output data size: 100,1,28,28
I0428 20:00:05.074841 29393 net.cpp:124] Setting up mnist
I0428 20:00:05.074870 29393 net.cpp:131] Top shape: 100 1 28 28 (78400)
I0428 20:00:05.074877 29393 net.cpp:131] Top shape: 100 (100)
I0428 20:00:05.074893 29393 net.cpp:139] Memory required for data: 314000
I0428 20:00:05.074898 29393 layer_factory.hpp:77] Creating layer label_mnist_1_split
I0428 20:00:05.074928 29393 net.cpp:86] Creating Layer label_mnist_1_split
I0428 20:00:05.074932 29393 net.cpp:408] label_mnist_1_split <- label
I0428 20:00:05.074937 29393 net.cpp:382] label_mnist_1_split -> label_mnist_1_split_0
I0428 20:00:05.074944 29393 net.cpp:382] label_mnist_1_split -> label_mnist_1_split_1
I0428 20:00:05.075002 29393 net.cpp:124] Setting up label_mnist_1_split
I0428 20:00:05.075008 29393 net.cpp:131] Top shape: 100 (100)
I0428 20:00:05.075012 29393 net.cpp:131] Top shape: 100 (100)
I0428 20:00:05.075016 29393 net.cpp:139] Memory required for data: 314800
I0428 20:00:05.075018 29393 layer_factory.hpp:77] Creating layer conv0
I0428 20:00:05.075026 29393 net.cpp:86] Creating Layer conv0
I0428 20:00:05.075029 29393 net.cpp:408] conv0 <- data
I0428 20:00:05.075034 29393 net.cpp:382] conv0 -> conv0
I0428 20:00:05.076656 29393 net.cpp:124] Setting up conv0
I0428 20:00:05.076670 29393 net.cpp:131] Top shape: 100 10 24 24 (576000)
I0428 20:00:05.076673 29393 net.cpp:139] Memory required for data: 2618800
I0428 20:00:05.076683 29393 layer_factory.hpp:77] Creating layer pool0
I0428 20:00:05.076689 29393 net.cpp:86] Creating Layer pool0
I0428 20:00:05.076691 29393 net.cpp:408] pool0 <- conv0
I0428 20:00:05.076695 29393 net.cpp:382] pool0 -> pool0
I0428 20:00:05.076728 29393 net.cpp:124] Setting up pool0
I0428 20:00:05.076732 29393 net.cpp:131] Top shape: 100 10 12 12 (144000)
I0428 20:00:05.076735 29393 net.cpp:139] Memory required for data: 3194800
I0428 20:00:05.076738 29393 layer_factory.hpp:77] Creating layer conv1
I0428 20:00:05.076746 29393 net.cpp:86] Creating Layer conv1
I0428 20:00:05.076748 29393 net.cpp:408] conv1 <- pool0
I0428 20:00:05.076753 29393 net.cpp:382] conv1 -> conv1
I0428 20:00:05.078863 29393 net.cpp:124] Setting up conv1
I0428 20:00:05.078876 29393 net.cpp:131] Top shape: 100 25 8 8 (160000)
I0428 20:00:05.078881 29393 net.cpp:139] Memory required for data: 3834800
I0428 20:00:05.078888 29393 layer_factory.hpp:77] Creating layer pool1
I0428 20:00:05.078896 29393 net.cpp:86] Creating Layer pool1
I0428 20:00:05.078914 29393 net.cpp:408] pool1 <- conv1
I0428 20:00:05.078922 29393 net.cpp:382] pool1 -> pool1
I0428 20:00:05.078979 29393 net.cpp:124] Setting up pool1
I0428 20:00:05.078984 29393 net.cpp:131] Top shape: 100 25 4 4 (40000)
I0428 20:00:05.078986 29393 net.cpp:139] Memory required for data: 3994800
I0428 20:00:05.078989 29393 layer_factory.hpp:77] Creating layer ip1
I0428 20:00:05.078996 29393 net.cpp:86] Creating Layer ip1
I0428 20:00:05.078999 29393 net.cpp:408] ip1 <- pool1
I0428 20:00:05.079004 29393 net.cpp:382] ip1 -> ip1
I0428 20:00:05.079192 29393 net.cpp:124] Setting up ip1
I0428 20:00:05.079201 29393 net.cpp:131] Top shape: 100 25 (2500)
I0428 20:00:05.079205 29393 net.cpp:139] Memory required for data: 4004800
I0428 20:00:05.079211 29393 layer_factory.hpp:77] Creating layer relu1
I0428 20:00:05.079216 29393 net.cpp:86] Creating Layer relu1
I0428 20:00:05.079219 29393 net.cpp:408] relu1 <- ip1
I0428 20:00:05.079223 29393 net.cpp:369] relu1 -> ip1 (in-place)
I0428 20:00:05.079380 29393 net.cpp:124] Setting up relu1
I0428 20:00:05.079387 29393 net.cpp:131] Top shape: 100 25 (2500)
I0428 20:00:05.079391 29393 net.cpp:139] Memory required for data: 4014800
I0428 20:00:05.079393 29393 layer_factory.hpp:77] Creating layer ip2
I0428 20:00:05.079399 29393 net.cpp:86] Creating Layer ip2
I0428 20:00:05.079402 29393 net.cpp:408] ip2 <- ip1
I0428 20:00:05.079419 29393 net.cpp:382] ip2 -> ip2
I0428 20:00:05.079566 29393 net.cpp:124] Setting up ip2
I0428 20:00:05.079576 29393 net.cpp:131] Top shape: 100 10 (1000)
I0428 20:00:05.079578 29393 net.cpp:139] Memory required for data: 4018800
I0428 20:00:05.079583 29393 layer_factory.hpp:77] Creating layer relu2
I0428 20:00:05.079588 29393 net.cpp:86] Creating Layer relu2
I0428 20:00:05.079591 29393 net.cpp:408] relu2 <- ip2
I0428 20:00:05.079602 29393 net.cpp:369] relu2 -> ip2 (in-place)
I0428 20:00:05.079802 29393 net.cpp:124] Setting up relu2
I0428 20:00:05.079820 29393 net.cpp:131] Top shape: 100 10 (1000)
I0428 20:00:05.079826 29393 net.cpp:139] Memory required for data: 4022800
I0428 20:00:05.079839 29393 layer_factory.hpp:77] Creating layer ip2_relu2_0_split
I0428 20:00:05.079846 29393 net.cpp:86] Creating Layer ip2_relu2_0_split
I0428 20:00:05.079851 29393 net.cpp:408] ip2_relu2_0_split <- ip2
I0428 20:00:05.079870 29393 net.cpp:382] ip2_relu2_0_split -> ip2_relu2_0_split_0
I0428 20:00:05.079891 29393 net.cpp:382] ip2_relu2_0_split -> ip2_relu2_0_split_1
I0428 20:00:05.079929 29393 net.cpp:124] Setting up ip2_relu2_0_split
I0428 20:00:05.079946 29393 net.cpp:131] Top shape: 100 10 (1000)
I0428 20:00:05.079949 29393 net.cpp:131] Top shape: 100 10 (1000)
I0428 20:00:05.079952 29393 net.cpp:139] Memory required for data: 4030800
I0428 20:00:05.079957 29393 layer_factory.hpp:77] Creating layer accuracy
I0428 20:00:05.079962 29393 net.cpp:86] Creating Layer accuracy
I0428 20:00:05.079964 29393 net.cpp:408] accuracy <- ip2_relu2_0_split_0
I0428 20:00:05.079968 29393 net.cpp:408] accuracy <- label_mnist_1_split_0
I0428 20:00:05.079973 29393 net.cpp:382] accuracy -> accuracy
…
