…
I0428 20:01:29.225112 29735 net.cpp:296] The NetState phase (0) differed from the phase (1) specified by a rule in layer mnist
I0428 20:01:29.225133 29735 net.cpp:296] The NetState phase (0) differed from the phase (1) specified by a rule in layer accuracy
I0428 20:01:29.225224 29735 net.cpp:53] Initializing net from parameters: 
name: "LeNet"
state {
  phase: TRAIN
  level: 0
  stage: ""
}
layer {
  name: "mnist"
  type: "Data"
  top: "data"
  top: "label"
  include {
    phase: TRAIN
  }
  transform_param {
    scale: 0.00390625
  }
  data_param {
    source: "examples/mnist/mnist_train_lmdb"
    batch_size: 64
    backend: LMDB
  }
}
layer {
  name: "conv0"
  type: "Convolution"
  bottom: "data"
  top: "conv0"
  param {
    lr_mult: 1
  }
  param {
    lr_mult: 2
  }
  convolution_param {
    num_output: 10
    kernel_size: 5
    stride: 1
    weight_filler {
      type: "xavier"
    }
    bias_filler {
      type: "constant"
    }
  }
}
layer {
  name: "pool0"
  type: "Pooling"
  bottom: "conv0"
  top: "pool0"
  pooling_param {
    pool: MAX
    kernel_size: 2
    stride: 2
  }
}
layer {
  name: "conv1"
  type: "Convolution"
  bottom: "pool0"
  top: "conv1"
  param {
    lr_mult: 1
  }
  param {
    lr_mult: 2
  }
  convolution_param {
    num_output: 50
    kernel_size: 5
    stride: 1
    weight_filler {
      type: "xavier"
    }
    bias_filler {
      type: "constant"
    }
  }
}
layer {
  name: "pool1"
  type: "Pooling"
  bottom: "conv1"
  top: "pool1"
  pooling_param {
    pool: MAX
    kernel_size: 2
    stride: 2
  }
}
layer {
  name: "ip1"
  type: "InnerProduct"
  bottom: "pool1"
  top: "ip1"
  param {
    lr_mult: 1
  }
  param {
    lr_mult: 2
  }
  inner_product_param {
    num_output: 25
    weight_filler {
      type: "xavier"
    }
    bias_filler {
      type: "constant"
    }
  }
}
layer {
  name: "relu1"
  type: "ReLU"
  bottom: "ip1"
  top: "ip1"
}
layer {
  name: "ip2"
  type: "InnerProduct"
  bottom: "ip1"
  top: "ip2"
  param {
    lr_mult: 1
  }
  param {
    lr_mult: 2
  }
  inner_product_param {
    num_output: 10
    weight_filler {
      type: "xavier"
    }
    bias_filler {
      type: "constant"
    }
  }
}
layer {
  name: "relu2"
  type: "ReLU"
  bottom: "ip2"
  top: "ip2"
}
layer {
  name: "loss"
  type: "SoftmaxWithLoss"
  bottom: "ip2"
  bottom: "label"
  top: "loss"
}
I0428 20:01:29.225298 29735 layer_factory.hpp:77] Creating layer mnist
I0428 20:01:29.225399 29735 db_lmdb.cpp:35] Opened lmdb examples/mnist/mnist_train_lmdb
I0428 20:01:29.225425 29735 net.cpp:86] Creating Layer mnist
I0428 20:01:29.225432 29735 net.cpp:382] mnist -> data
I0428 20:01:29.225455 29735 net.cpp:382] mnist -> label
I0428 20:01:29.226548 29735 data_layer.cpp:45] output data size: 64,1,28,28
I0428 20:01:29.229012 29735 net.cpp:124] Setting up mnist
I0428 20:01:29.229030 29735 net.cpp:131] Top shape: 64 1 28 28 (50176)
I0428 20:01:29.229037 29735 net.cpp:131] Top shape: 64 (64)
I0428 20:01:29.229040 29735 net.cpp:139] Memory required for data: 200960
I0428 20:01:29.229048 29735 layer_factory.hpp:77] Creating layer conv0
I0428 20:01:29.229099 29735 net.cpp:86] Creating Layer conv0
I0428 20:01:29.229106 29735 net.cpp:408] conv0 <- data
I0428 20:01:29.229118 29735 net.cpp:382] conv0 -> conv0
I0428 20:01:29.521266 29735 net.cpp:124] Setting up conv0
I0428 20:01:29.521296 29735 net.cpp:131] Top shape: 64 10 24 24 (368640)
I0428 20:01:29.521301 29735 net.cpp:139] Memory required for data: 1675520
I0428 20:01:29.521337 29735 layer_factory.hpp:77] Creating layer pool0
I0428 20:01:29.521353 29735 net.cpp:86] Creating Layer pool0
I0428 20:01:29.521356 29735 net.cpp:408] pool0 <- conv0
I0428 20:01:29.521363 29735 net.cpp:382] pool0 -> pool0
I0428 20:01:29.521414 29735 net.cpp:124] Setting up pool0
I0428 20:01:29.521432 29735 net.cpp:131] Top shape: 64 10 12 12 (92160)
I0428 20:01:29.521436 29735 net.cpp:139] Memory required for data: 2044160
I0428 20:01:29.521440 29735 layer_factory.hpp:77] Creating layer conv1
I0428 20:01:29.521451 29735 net.cpp:86] Creating Layer conv1
I0428 20:01:29.521455 29735 net.cpp:408] conv1 <- pool0
I0428 20:01:29.521461 29735 net.cpp:382] conv1 -> conv1
I0428 20:01:29.524418 29735 net.cpp:124] Setting up conv1
I0428 20:01:29.524435 29735 net.cpp:131] Top shape: 64 50 8 8 (204800)
I0428 20:01:29.524440 29735 net.cpp:139] Memory required for data: 2863360
I0428 20:01:29.524448 29735 layer_factory.hpp:77] Creating layer pool1
I0428 20:01:29.524456 29735 net.cpp:86] Creating Layer pool1
I0428 20:01:29.524461 29735 net.cpp:408] pool1 <- conv1
I0428 20:01:29.524466 29735 net.cpp:382] pool1 -> pool1
I0428 20:01:29.524507 29735 net.cpp:124] Setting up pool1
I0428 20:01:29.524513 29735 net.cpp:131] Top shape: 64 50 4 4 (51200)
I0428 20:01:29.524515 29735 net.cpp:139] Memory required for data: 3068160
I0428 20:01:29.524518 29735 layer_factory.hpp:77] Creating layer ip1
I0428 20:01:29.524525 29735 net.cpp:86] Creating Layer ip1
I0428 20:01:29.524528 29735 net.cpp:408] ip1 <- pool1
I0428 20:01:29.524533 29735 net.cpp:382] ip1 -> ip1
I0428 20:01:29.524765 29735 net.cpp:124] Setting up ip1
I0428 20:01:29.524775 29735 net.cpp:131] Top shape: 64 25 (1600)
I0428 20:01:29.524777 29735 net.cpp:139] Memory required for data: 3074560
I0428 20:01:29.524785 29735 layer_factory.hpp:77] Creating layer relu1
I0428 20:01:29.524791 29735 net.cpp:86] Creating Layer relu1
I0428 20:01:29.524796 29735 net.cpp:408] relu1 <- ip1
I0428 20:01:29.524799 29735 net.cpp:369] relu1 -> ip1 (in-place)
I0428 20:01:29.524989 29735 net.cpp:124] Setting up relu1
I0428 20:01:29.525001 29735 net.cpp:131] Top shape: 64 25 (1600)
I0428 20:01:29.525004 29735 net.cpp:139] Memory required for data: 3080960
I0428 20:01:29.525007 29735 layer_factory.hpp:77] Creating layer ip2
I0428 20:01:29.525014 29735 net.cpp:86] Creating Layer ip2
I0428 20:01:29.525018 29735 net.cpp:408] ip2 <- ip1
I0428 20:01:29.525023 29735 net.cpp:382] ip2 -> ip2
I0428 20:01:29.525122 29735 net.cpp:124] Setting up ip2
I0428 20:01:29.525130 29735 net.cpp:131] Top shape: 64 10 (640)
I0428 20:01:29.525133 29735 net.cpp:139] Memory required for data: 3083520
I0428 20:01:29.525140 29735 layer_factory.hpp:77] Creating layer relu2
I0428 20:01:29.525146 29735 net.cpp:86] Creating Layer relu2
I0428 20:01:29.525149 29735 net.cpp:408] relu2 <- ip2
I0428 20:01:29.525153 29735 net.cpp:369] relu2 -> ip2 (in-place)
I0428 20:01:29.525930 29735 net.cpp:124] Setting up relu2
I0428 20:01:29.525944 29735 net.cpp:131] Top shape: 64 10 (640)
I0428 20:01:29.525948 29735 net.cpp:139] Memory required for data: 3086080
I0428 20:01:29.525951 29735 layer_factory.hpp:77] Creating layer loss
I0428 20:01:29.525959 29735 net.cpp:86] Creating Layer loss
I0428 20:01:29.525961 29735 net.cpp:408] loss <- ip2
I0428 20:01:29.525966 29735 net.cpp:408] loss <- label
I0428 20:01:29.525972 29735 net.cpp:382] loss -> loss
I0428 20:01:29.525990 29735 layer_factory.hpp:77] Creating layer loss
…
I0428 20:01:29.526655 29735 solver.cpp:173] Creating test net (#0) specified by net file: ECE595/mnist/train_test/var_everything2/lenet_train_test904.prototxt
I0428 20:01:29.526682 29735 net.cpp:296] The NetState phase (1) differed from the phase (0) specified by a rule in layer mnist
I0428 20:01:29.526775 29735 net.cpp:53] Initializing net from parameters: 
name: "LeNet"
state {
  phase: TEST
}
layer {
  name: "mnist"
  type: "Data"
  top: "data"
  top: "label"
  include {
    phase: TEST
  }
  transform_param {
    scale: 0.00390625
  }
  data_param {
    source: "examples/mnist/mnist_test_lmdb"
    batch_size: 100
    backend: LMDB
  }
}
layer {
  name: "conv0"
  type: "Convolution"
  bottom: "data"
  top: "conv0"
  param {
    lr_mult: 1
  }
  param {
    lr_mult: 2
  }
  convolution_param {
    num_output: 10
    kernel_size: 5
    stride: 1
    weight_filler {
      type: "xavier"
    }
    bias_filler {
      type: "constant"
    }
  }
}
layer {
  name: "pool0"
  type: "Pooling"
  bottom: "conv0"
  top: "pool0"
  pooling_param {
    pool: MAX
    kernel_size: 2
    stride: 2
  }
}
layer {
  name: "conv1"
  type: "Convolution"
  bottom: "pool0"
  top: "conv1"
  param {
    lr_mult: 1
  }
  param {
    lr_mult: 2
  }
  convolution_param {
    num_output: 50
    kernel_size: 5
    stride: 1
    weight_filler {
      type: "xavier"
    }
    bias_filler {
      type: "constant"
    }
  }
}
layer {
  name: "pool1"
  type: "Pooling"
  bottom: "conv1"
  top: "pool1"
  pooling_param {
    pool: MAX
    kernel_size: 2
    stride: 2
  }
}
layer {
  name: "ip1"
  type: "InnerProduct"
  bottom: "pool1"
  top: "ip1"
  param {
    lr_mult: 1
  }
  param {
    lr_mult: 2
  }
  inner_product_param {
    num_output: 25
    weight_filler {
      type: "xavier"
    }
    bias_filler {
      type: "constant"
    }
  }
}
layer {
  name: "relu1"
  type: "ReLU"
  bottom: "ip1"
  top: "ip1"
}
layer {
  name: "ip2"
  type: "InnerProduct"
  bottom: "ip1"
  top: "ip2"
  param {
    lr_mult: 1
  }
  param {
    lr_mult: 2
  }
  inner_product_param {
    num_output: 10
    weight_filler {
      type: "xavier"
    }
    bias_filler {
      type: "constant"
    }
  }
}
layer {
  name: "relu2"
  type: "ReLU"
  bottom: "ip2"
  top: "ip2"
}
layer {
  name: "accuracy"
  type: "Accuracy"
  bottom: "ip2"
  bottom: "label"
  top: "accuracy"
  include {
    phase: TEST
  }
}
layer {
  name: "loss"
  type: "SoftmaxWithLoss"
  bottom: "ip2"
  bottom: "label"
  top: "loss"
}
I0428 20:01:29.526845 29735 layer_factory.hpp:77] Creating layer mnist
I0428 20:01:29.526892 29735 db_lmdb.cpp:35] Opened lmdb examples/mnist/mnist_test_lmdb
I0428 20:01:29.526906 29735 net.cpp:86] Creating Layer mnist
I0428 20:01:29.526912 29735 net.cpp:382] mnist -> data
I0428 20:01:29.526921 29735 net.cpp:382] mnist -> label
I0428 20:01:29.527010 29735 data_layer.cpp:45] output data size: 100,1,28,28
I0428 20:01:29.529287 29735 net.cpp:124] Setting up mnist
I0428 20:01:29.529302 29735 net.cpp:131] Top shape: 100 1 28 28 (78400)
I0428 20:01:29.529309 29735 net.cpp:131] Top shape: 100 (100)
I0428 20:01:29.529311 29735 net.cpp:139] Memory required for data: 314000
I0428 20:01:29.529315 29735 layer_factory.hpp:77] Creating layer label_mnist_1_split
I0428 20:01:29.529323 29735 net.cpp:86] Creating Layer label_mnist_1_split
I0428 20:01:29.529327 29735 net.cpp:408] label_mnist_1_split <- label
I0428 20:01:29.529332 29735 net.cpp:382] label_mnist_1_split -> label_mnist_1_split_0
I0428 20:01:29.529340 29735 net.cpp:382] label_mnist_1_split -> label_mnist_1_split_1
I0428 20:01:29.529417 29735 net.cpp:124] Setting up label_mnist_1_split
I0428 20:01:29.529423 29735 net.cpp:131] Top shape: 100 (100)
I0428 20:01:29.529427 29735 net.cpp:131] Top shape: 100 (100)
I0428 20:01:29.529429 29735 net.cpp:139] Memory required for data: 314800
I0428 20:01:29.529433 29735 layer_factory.hpp:77] Creating layer conv0
I0428 20:01:29.529441 29735 net.cpp:86] Creating Layer conv0
I0428 20:01:29.529445 29735 net.cpp:408] conv0 <- data
I0428 20:01:29.529450 29735 net.cpp:382] conv0 -> conv0
I0428 20:01:29.531266 29735 net.cpp:124] Setting up conv0
I0428 20:01:29.531281 29735 net.cpp:131] Top shape: 100 10 24 24 (576000)
I0428 20:01:29.531285 29735 net.cpp:139] Memory required for data: 2618800
I0428 20:01:29.531294 29735 layer_factory.hpp:77] Creating layer pool0
I0428 20:01:29.531303 29735 net.cpp:86] Creating Layer pool0
I0428 20:01:29.531306 29735 net.cpp:408] pool0 <- conv0
I0428 20:01:29.531313 29735 net.cpp:382] pool0 -> pool0
I0428 20:01:29.531354 29735 net.cpp:124] Setting up pool0
I0428 20:01:29.531360 29735 net.cpp:131] Top shape: 100 10 12 12 (144000)
I0428 20:01:29.531363 29735 net.cpp:139] Memory required for data: 3194800
I0428 20:01:29.531366 29735 layer_factory.hpp:77] Creating layer conv1
I0428 20:01:29.531376 29735 net.cpp:86] Creating Layer conv1
I0428 20:01:29.531380 29735 net.cpp:408] conv1 <- pool0
I0428 20:01:29.531386 29735 net.cpp:382] conv1 -> conv1
I0428 20:01:29.533025 29735 net.cpp:124] Setting up conv1
I0428 20:01:29.533041 29735 net.cpp:131] Top shape: 100 50 8 8 (320000)
I0428 20:01:29.533052 29735 net.cpp:139] Memory required for data: 4474800
I0428 20:01:29.533061 29735 layer_factory.hpp:77] Creating layer pool1
I0428 20:01:29.533068 29735 net.cpp:86] Creating Layer pool1
I0428 20:01:29.533072 29735 net.cpp:408] pool1 <- conv1
I0428 20:01:29.533078 29735 net.cpp:382] pool1 -> pool1
I0428 20:01:29.533118 29735 net.cpp:124] Setting up pool1
I0428 20:01:29.533125 29735 net.cpp:131] Top shape: 100 50 4 4 (80000)
I0428 20:01:29.533128 29735 net.cpp:139] Memory required for data: 4794800
I0428 20:01:29.533131 29735 layer_factory.hpp:77] Creating layer ip1
I0428 20:01:29.533138 29735 net.cpp:86] Creating Layer ip1
I0428 20:01:29.533141 29735 net.cpp:408] ip1 <- pool1
I0428 20:01:29.533146 29735 net.cpp:382] ip1 -> ip1
I0428 20:01:29.533371 29735 net.cpp:124] Setting up ip1
I0428 20:01:29.533380 29735 net.cpp:131] Top shape: 100 25 (2500)
I0428 20:01:29.533382 29735 net.cpp:139] Memory required for data: 4804800
I0428 20:01:29.533390 29735 layer_factory.hpp:77] Creating layer relu1
I0428 20:01:29.533396 29735 net.cpp:86] Creating Layer relu1
I0428 20:01:29.533398 29735 net.cpp:408] relu1 <- ip1
I0428 20:01:29.533403 29735 net.cpp:369] relu1 -> ip1 (in-place)
I0428 20:01:29.533573 29735 net.cpp:124] Setting up relu1
I0428 20:01:29.533583 29735 net.cpp:131] Top shape: 100 25 (2500)
I0428 20:01:29.533594 29735 net.cpp:139] Memory required for data: 4814800
I0428 20:01:29.533597 29735 layer_factory.hpp:77] Creating layer ip2
I0428 20:01:29.533607 29735 net.cpp:86] Creating Layer ip2
I0428 20:01:29.533609 29735 net.cpp:408] ip2 <- ip1
I0428 20:01:29.533623 29735 net.cpp:382] ip2 -> ip2
I0428 20:01:29.533730 29735 net.cpp:124] Setting up ip2
I0428 20:01:29.533737 29735 net.cpp:131] Top shape: 100 10 (1000)
I0428 20:01:29.533740 29735 net.cpp:139] Memory required for data: 4818800
I0428 20:01:29.533746 29735 layer_factory.hpp:77] Creating layer relu2
I0428 20:01:29.533752 29735 net.cpp:86] Creating Layer relu2
I0428 20:01:29.533756 29735 net.cpp:408] relu2 <- ip2
I0428 20:01:29.533759 29735 net.cpp:369] relu2 -> ip2 (in-place)
I0428 20:01:29.533922 29735 net.cpp:124] Setting up relu2
I0428 20:01:29.533931 29735 net.cpp:131] Top shape: 100 10 (1000)
I0428 20:01:29.533936 29735 net.cpp:139] Memory required for data: 4822800
I0428 20:01:29.533938 29735 layer_factory.hpp:77] Creating layer ip2_relu2_0_split
I0428 20:01:29.533944 29735 net.cpp:86] Creating Layer ip2_relu2_0_split
I0428 20:01:29.533947 29735 net.cpp:408] ip2_relu2_0_split <- ip2
I0428 20:01:29.533952 29735 net.cpp:382] ip2_relu2_0_split -> ip2_relu2_0_split_0
I0428 20:01:29.533969 29735 net.cpp:382] ip2_relu2_0_split -> ip2_relu2_0_split_1
I0428 20:01:29.534011 29735 net.cpp:124] Setting up ip2_relu2_0_split
I0428 20:01:29.534016 29735 net.cpp:131] Top shape: 100 10 (1000)
I0428 20:01:29.534020 29735 net.cpp:131] Top shape: 100 10 (1000)
I0428 20:01:29.534024 29735 net.cpp:139] Memory required for data: 4830800
I0428 20:01:29.534026 29735 layer_factory.hpp:77] Creating layer accuracy
I0428 20:01:29.534032 29735 net.cpp:86] Creating Layer accuracy
I0428 20:01:29.534035 29735 net.cpp:408] accuracy <- ip2_relu2_0_split_0
I0428 20:01:29.534039 29735 net.cpp:408] accuracy <- label_mnist_1_split_0
I0428 20:01:29.534051 29735 net.cpp:382] accuracy -> accuracy
…
