…
I0428 20:02:23.120416 29932 net.cpp:296] The NetState phase (0) differed from the phase (1) specified by a rule in layer mnist
I0428 20:02:23.120434 29932 net.cpp:296] The NetState phase (0) differed from the phase (1) specified by a rule in layer accuracy
I0428 20:02:23.120513 29932 net.cpp:53] Initializing net from parameters: 
name: "LeNet"
state {
  phase: TRAIN
  level: 0
  stage: ""
}
layer {
  name: "mnist"
  type: "Data"
  top: "data"
  top: "label"
  include {
    phase: TRAIN
  }
  transform_param {
    scale: 0.00390625
  }
  data_param {
    source: "examples/mnist/mnist_train_lmdb"
    batch_size: 64
    backend: LMDB
  }
}
layer {
  name: "conv0"
  type: "Convolution"
  bottom: "data"
  top: "conv0"
  param {
    lr_mult: 1
  }
  param {
    lr_mult: 2
  }
  convolution_param {
    num_output: 10
    kernel_size: 5
    stride: 1
    weight_filler {
      type: "xavier"
    }
    bias_filler {
      type: "constant"
    }
  }
}
layer {
  name: "pool0"
  type: "Pooling"
  bottom: "conv0"
  top: "pool0"
  pooling_param {
    pool: MAX
    kernel_size: 2
    stride: 2
  }
}
layer {
  name: "conv1"
  type: "Convolution"
  bottom: "pool0"
  top: "conv1"
  param {
    lr_mult: 1
  }
  param {
    lr_mult: 2
  }
  convolution_param {
    num_output: 50
    kernel_size: 5
    stride: 1
    weight_filler {
      type: "xavier"
    }
    bias_filler {
      type: "constant"
    }
  }
}
layer {
  name: "pool1"
  type: "Pooling"
  bottom: "conv1"
  top: "pool1"
  pooling_param {
    pool: MAX
    kernel_size: 2
    stride: 2
  }
}
layer {
  name: "ip1"
  type: "InnerProduct"
  bottom: "pool1"
  top: "ip1"
  param {
    lr_mult: 1
  }
  param {
    lr_mult: 2
  }
  inner_product_param {
    num_output: 50
    weight_filler {
      type: "xavier"
    }
    bias_filler {
      type: "constant"
    }
  }
}
layer {
  name: "relu1"
  type: "ReLU"
  bottom: "ip1"
  top: "ip1"
}
layer {
  name: "ip2"
  type: "InnerProduct"
  bottom: "ip1"
  top: "ip2"
  param {
    lr_mult: 1
  }
  param {
    lr_mult: 2
  }
  inner_product_param {
    num_output: 10
    weight_filler {
      type: "xavier"
    }
    bias_filler {
      type: "constant"
    }
  }
}
layer {
  name: "relu2"
  type: "ReLU"
  bottom: "ip2"
  top: "ip2"
}
layer {
  name: "ip3"
  type: "InnerProduct"
  bottom: "ip2"
  top: "ip3"
  param {
    lr_mult: 1
  }
  param {
    lr_mult: 2
  }
  inner_product_param {
    num_output: 10
    weight_filler {
      type: "xavier"
    }
    bias_filler {
      type: "constant"
    }
  }
}
layer {
  name: "relu3"
  type: "ReLU"
  bottom: "ip3"
  top: "ip3"
}
layer {
  name: "loss"
  type: "SoftmaxWithLoss"
  bottom: "ip3"
  bottom: "label"
  top: "loss"
}
I0428 20:02:23.120594 29932 layer_factory.hpp:77] Creating layer mnist
I0428 20:02:23.120672 29932 db_lmdb.cpp:35] Opened lmdb examples/mnist/mnist_train_lmdb
I0428 20:02:23.120692 29932 net.cpp:86] Creating Layer mnist
I0428 20:02:23.120700 29932 net.cpp:382] mnist -> data
I0428 20:02:23.120718 29932 net.cpp:382] mnist -> label
I0428 20:02:23.121722 29932 data_layer.cpp:45] output data size: 64,1,28,28
I0428 20:02:23.123931 29932 net.cpp:124] Setting up mnist
I0428 20:02:23.123962 29932 net.cpp:131] Top shape: 64 1 28 28 (50176)
I0428 20:02:23.123967 29932 net.cpp:131] Top shape: 64 (64)
I0428 20:02:23.123986 29932 net.cpp:139] Memory required for data: 200960
I0428 20:02:23.123991 29932 layer_factory.hpp:77] Creating layer conv0
I0428 20:02:23.124006 29932 net.cpp:86] Creating Layer conv0
I0428 20:02:23.124024 29932 net.cpp:408] conv0 <- data
I0428 20:02:23.124037 29932 net.cpp:382] conv0 -> conv0
I0428 20:02:23.352201 29932 net.cpp:124] Setting up conv0
I0428 20:02:23.352244 29932 net.cpp:131] Top shape: 64 10 24 24 (368640)
I0428 20:02:23.352248 29932 net.cpp:139] Memory required for data: 1675520
I0428 20:02:23.352277 29932 layer_factory.hpp:77] Creating layer pool0
I0428 20:02:23.352289 29932 net.cpp:86] Creating Layer pool0
I0428 20:02:23.352293 29932 net.cpp:408] pool0 <- conv0
I0428 20:02:23.352298 29932 net.cpp:382] pool0 -> pool0
I0428 20:02:23.352356 29932 net.cpp:124] Setting up pool0
I0428 20:02:23.352362 29932 net.cpp:131] Top shape: 64 10 12 12 (92160)
I0428 20:02:23.352365 29932 net.cpp:139] Memory required for data: 2044160
I0428 20:02:23.352367 29932 layer_factory.hpp:77] Creating layer conv1
I0428 20:02:23.352377 29932 net.cpp:86] Creating Layer conv1
I0428 20:02:23.352380 29932 net.cpp:408] conv1 <- pool0
I0428 20:02:23.352385 29932 net.cpp:382] conv1 -> conv1
I0428 20:02:23.355208 29932 net.cpp:124] Setting up conv1
I0428 20:02:23.355254 29932 net.cpp:131] Top shape: 64 50 8 8 (204800)
I0428 20:02:23.355258 29932 net.cpp:139] Memory required for data: 2863360
I0428 20:02:23.355268 29932 layer_factory.hpp:77] Creating layer pool1
I0428 20:02:23.355274 29932 net.cpp:86] Creating Layer pool1
I0428 20:02:23.355278 29932 net.cpp:408] pool1 <- conv1
I0428 20:02:23.355283 29932 net.cpp:382] pool1 -> pool1
I0428 20:02:23.355335 29932 net.cpp:124] Setting up pool1
I0428 20:02:23.355341 29932 net.cpp:131] Top shape: 64 50 4 4 (51200)
I0428 20:02:23.355345 29932 net.cpp:139] Memory required for data: 3068160
I0428 20:02:23.355347 29932 layer_factory.hpp:77] Creating layer ip1
I0428 20:02:23.355355 29932 net.cpp:86] Creating Layer ip1
I0428 20:02:23.355357 29932 net.cpp:408] ip1 <- pool1
I0428 20:02:23.355362 29932 net.cpp:382] ip1 -> ip1
I0428 20:02:23.355723 29932 net.cpp:124] Setting up ip1
I0428 20:02:23.355731 29932 net.cpp:131] Top shape: 64 50 (3200)
I0428 20:02:23.355749 29932 net.cpp:139] Memory required for data: 3080960
I0428 20:02:23.355756 29932 layer_factory.hpp:77] Creating layer relu1
I0428 20:02:23.355761 29932 net.cpp:86] Creating Layer relu1
I0428 20:02:23.355763 29932 net.cpp:408] relu1 <- ip1
I0428 20:02:23.355768 29932 net.cpp:369] relu1 -> ip1 (in-place)
I0428 20:02:23.355924 29932 net.cpp:124] Setting up relu1
I0428 20:02:23.355933 29932 net.cpp:131] Top shape: 64 50 (3200)
I0428 20:02:23.355937 29932 net.cpp:139] Memory required for data: 3093760
I0428 20:02:23.355939 29932 layer_factory.hpp:77] Creating layer ip2
I0428 20:02:23.355944 29932 net.cpp:86] Creating Layer ip2
I0428 20:02:23.355948 29932 net.cpp:408] ip2 <- ip1
I0428 20:02:23.355952 29932 net.cpp:382] ip2 -> ip2
I0428 20:02:23.356043 29932 net.cpp:124] Setting up ip2
I0428 20:02:23.356050 29932 net.cpp:131] Top shape: 64 10 (640)
I0428 20:02:23.356053 29932 net.cpp:139] Memory required for data: 3096320
I0428 20:02:23.356058 29932 layer_factory.hpp:77] Creating layer relu2
I0428 20:02:23.356065 29932 net.cpp:86] Creating Layer relu2
I0428 20:02:23.356067 29932 net.cpp:408] relu2 <- ip2
I0428 20:02:23.356071 29932 net.cpp:369] relu2 -> ip2 (in-place)
I0428 20:02:23.356894 29932 net.cpp:124] Setting up relu2
I0428 20:02:23.356907 29932 net.cpp:131] Top shape: 64 10 (640)
I0428 20:02:23.356926 29932 net.cpp:139] Memory required for data: 3098880
I0428 20:02:23.356930 29932 layer_factory.hpp:77] Creating layer ip3
I0428 20:02:23.356936 29932 net.cpp:86] Creating Layer ip3
I0428 20:02:23.356940 29932 net.cpp:408] ip3 <- ip2
I0428 20:02:23.356945 29932 net.cpp:382] ip3 -> ip3
I0428 20:02:23.357043 29932 net.cpp:124] Setting up ip3
I0428 20:02:23.357050 29932 net.cpp:131] Top shape: 64 10 (640)
I0428 20:02:23.357053 29932 net.cpp:139] Memory required for data: 3101440
I0428 20:02:23.357061 29932 layer_factory.hpp:77] Creating layer relu3
I0428 20:02:23.357066 29932 net.cpp:86] Creating Layer relu3
I0428 20:02:23.357069 29932 net.cpp:408] relu3 <- ip3
I0428 20:02:23.357074 29932 net.cpp:369] relu3 -> ip3 (in-place)
I0428 20:02:23.357261 29932 net.cpp:124] Setting up relu3
I0428 20:02:23.357270 29932 net.cpp:131] Top shape: 64 10 (640)
I0428 20:02:23.357273 29932 net.cpp:139] Memory required for data: 3104000
I0428 20:02:23.357276 29932 layer_factory.hpp:77] Creating layer loss
I0428 20:02:23.357282 29932 net.cpp:86] Creating Layer loss
I0428 20:02:23.357285 29932 net.cpp:408] loss <- ip3
I0428 20:02:23.357290 29932 net.cpp:408] loss <- label
I0428 20:02:23.357295 29932 net.cpp:382] loss -> loss
I0428 20:02:23.357309 29932 layer_factory.hpp:77] Creating layer loss
…
I0428 20:02:23.358053 29932 solver.cpp:173] Creating test net (#0) specified by net file: ECE595/mnist/train_test/var_everything2/lenet_train_test927.prototxt
I0428 20:02:23.358109 29932 net.cpp:296] The NetState phase (1) differed from the phase (0) specified by a rule in layer mnist
I0428 20:02:23.358196 29932 net.cpp:53] Initializing net from parameters: 
name: "LeNet"
state {
  phase: TEST
}
layer {
  name: "mnist"
  type: "Data"
  top: "data"
  top: "label"
  include {
    phase: TEST
  }
  transform_param {
    scale: 0.00390625
  }
  data_param {
    source: "examples/mnist/mnist_test_lmdb"
    batch_size: 100
    backend: LMDB
  }
}
layer {
  name: "conv0"
  type: "Convolution"
  bottom: "data"
  top: "conv0"
  param {
    lr_mult: 1
  }
  param {
    lr_mult: 2
  }
  convolution_param {
    num_output: 10
    kernel_size: 5
    stride: 1
    weight_filler {
      type: "xavier"
    }
    bias_filler {
      type: "constant"
    }
  }
}
layer {
  name: "pool0"
  type: "Pooling"
  bottom: "conv0"
  top: "pool0"
  pooling_param {
    pool: MAX
    kernel_size: 2
    stride: 2
  }
}
layer {
  name: "conv1"
  type: "Convolution"
  bottom: "pool0"
  top: "conv1"
  param {
    lr_mult: 1
  }
  param {
    lr_mult: 2
  }
  convolution_param {
    num_output: 50
    kernel_size: 5
    stride: 1
    weight_filler {
      type: "xavier"
    }
    bias_filler {
      type: "constant"
    }
  }
}
layer {
  name: "pool1"
  type: "Pooling"
  bottom: "conv1"
  top: "pool1"
  pooling_param {
    pool: MAX
    kernel_size: 2
    stride: 2
  }
}
layer {
  name: "ip1"
  type: "InnerProduct"
  bottom: "pool1"
  top: "ip1"
  param {
    lr_mult: 1
  }
  param {
    lr_mult: 2
  }
  inner_product_param {
    num_output: 50
    weight_filler {
      type: "xavier"
    }
    bias_filler {
      type: "constant"
    }
  }
}
layer {
  name: "relu1"
  type: "ReLU"
  bottom: "ip1"
  top: "ip1"
}
layer {
  name: "ip2"
  type: "InnerProduct"
  bottom: "ip1"
  top: "ip2"
  param {
    lr_mult: 1
  }
  param {
    lr_mult: 2
  }
  inner_product_param {
    num_output: 10
    weight_filler {
      type: "xavier"
    }
    bias_filler {
      type: "constant"
    }
  }
}
layer {
  name: "relu2"
  type: "ReLU"
  bottom: "ip2"
  top: "ip2"
}
layer {
  name: "ip3"
  type: "InnerProduct"
  bottom: "ip2"
  top: "ip3"
  param {
    lr_mult: 1
  }
  param {
    lr_mult: 2
  }
  inner_product_param {
    num_output: 10
    weight_filler {
      type: "xavier"
    }
    bias_filler {
      type: "constant"
    }
  }
}
layer {
  name: "relu3"
  type: "ReLU"
  bottom: "ip3"
  top: "ip3"
}
layer {
  name: "accuracy"
  type: "Accuracy"
  bottom: "ip3"
  bottom: "label"
  top: "accuracy"
  include {
    phase: TEST
  }
}
layer {
  name: "loss"
  type: "SoftmaxWithLoss"
  bottom: "ip3"
  bottom: "label"
  top: "loss"
}
I0428 20:02:23.358269 29932 layer_factory.hpp:77] Creating layer mnist
I0428 20:02:23.358309 29932 db_lmdb.cpp:35] Opened lmdb examples/mnist/mnist_test_lmdb
I0428 20:02:23.358324 29932 net.cpp:86] Creating Layer mnist
I0428 20:02:23.358328 29932 net.cpp:382] mnist -> data
I0428 20:02:23.358335 29932 net.cpp:382] mnist -> label
I0428 20:02:23.358431 29932 data_layer.cpp:45] output data size: 100,1,28,28
I0428 20:02:23.360462 29932 net.cpp:124] Setting up mnist
I0428 20:02:23.360507 29932 net.cpp:131] Top shape: 100 1 28 28 (78400)
I0428 20:02:23.360512 29932 net.cpp:131] Top shape: 100 (100)
I0428 20:02:23.360515 29932 net.cpp:139] Memory required for data: 314000
I0428 20:02:23.360518 29932 layer_factory.hpp:77] Creating layer label_mnist_1_split
I0428 20:02:23.360525 29932 net.cpp:86] Creating Layer label_mnist_1_split
I0428 20:02:23.360528 29932 net.cpp:408] label_mnist_1_split <- label
I0428 20:02:23.360533 29932 net.cpp:382] label_mnist_1_split -> label_mnist_1_split_0
I0428 20:02:23.360540 29932 net.cpp:382] label_mnist_1_split -> label_mnist_1_split_1
I0428 20:02:23.360581 29932 net.cpp:124] Setting up label_mnist_1_split
I0428 20:02:23.360587 29932 net.cpp:131] Top shape: 100 (100)
I0428 20:02:23.360590 29932 net.cpp:131] Top shape: 100 (100)
I0428 20:02:23.360594 29932 net.cpp:139] Memory required for data: 314800
I0428 20:02:23.360596 29932 layer_factory.hpp:77] Creating layer conv0
I0428 20:02:23.360605 29932 net.cpp:86] Creating Layer conv0
I0428 20:02:23.360607 29932 net.cpp:408] conv0 <- data
I0428 20:02:23.360611 29932 net.cpp:382] conv0 -> conv0
I0428 20:02:23.362459 29932 net.cpp:124] Setting up conv0
I0428 20:02:23.362489 29932 net.cpp:131] Top shape: 100 10 24 24 (576000)
I0428 20:02:23.362493 29932 net.cpp:139] Memory required for data: 2618800
I0428 20:02:23.362502 29932 layer_factory.hpp:77] Creating layer pool0
I0428 20:02:23.362510 29932 net.cpp:86] Creating Layer pool0
I0428 20:02:23.362514 29932 net.cpp:408] pool0 <- conv0
I0428 20:02:23.362519 29932 net.cpp:382] pool0 -> pool0
I0428 20:02:23.362552 29932 net.cpp:124] Setting up pool0
I0428 20:02:23.362557 29932 net.cpp:131] Top shape: 100 10 12 12 (144000)
I0428 20:02:23.362560 29932 net.cpp:139] Memory required for data: 3194800
I0428 20:02:23.362563 29932 layer_factory.hpp:77] Creating layer conv1
I0428 20:02:23.362571 29932 net.cpp:86] Creating Layer conv1
I0428 20:02:23.362574 29932 net.cpp:408] conv1 <- pool0
I0428 20:02:23.362579 29932 net.cpp:382] conv1 -> conv1
I0428 20:02:23.364226 29932 net.cpp:124] Setting up conv1
I0428 20:02:23.364256 29932 net.cpp:131] Top shape: 100 50 8 8 (320000)
I0428 20:02:23.364259 29932 net.cpp:139] Memory required for data: 4474800
I0428 20:02:23.364269 29932 layer_factory.hpp:77] Creating layer pool1
I0428 20:02:23.364275 29932 net.cpp:86] Creating Layer pool1
I0428 20:02:23.364279 29932 net.cpp:408] pool1 <- conv1
I0428 20:02:23.364295 29932 net.cpp:382] pool1 -> pool1
I0428 20:02:23.364346 29932 net.cpp:124] Setting up pool1
I0428 20:02:23.364352 29932 net.cpp:131] Top shape: 100 50 4 4 (80000)
I0428 20:02:23.364356 29932 net.cpp:139] Memory required for data: 4794800
I0428 20:02:23.364359 29932 layer_factory.hpp:77] Creating layer ip1
I0428 20:02:23.364364 29932 net.cpp:86] Creating Layer ip1
I0428 20:02:23.364368 29932 net.cpp:408] ip1 <- pool1
I0428 20:02:23.364372 29932 net.cpp:382] ip1 -> ip1
I0428 20:02:23.364725 29932 net.cpp:124] Setting up ip1
I0428 20:02:23.364739 29932 net.cpp:131] Top shape: 100 50 (5000)
I0428 20:02:23.364768 29932 net.cpp:139] Memory required for data: 4814800
I0428 20:02:23.364776 29932 layer_factory.hpp:77] Creating layer relu1
I0428 20:02:23.364781 29932 net.cpp:86] Creating Layer relu1
I0428 20:02:23.364784 29932 net.cpp:408] relu1 <- ip1
I0428 20:02:23.364789 29932 net.cpp:369] relu1 -> ip1 (in-place)
I0428 20:02:23.364969 29932 net.cpp:124] Setting up relu1
I0428 20:02:23.364980 29932 net.cpp:131] Top shape: 100 50 (5000)
I0428 20:02:23.364984 29932 net.cpp:139] Memory required for data: 4834800
I0428 20:02:23.364987 29932 layer_factory.hpp:77] Creating layer ip2
I0428 20:02:23.364995 29932 net.cpp:86] Creating Layer ip2
I0428 20:02:23.364997 29932 net.cpp:408] ip2 <- ip1
I0428 20:02:23.365015 29932 net.cpp:382] ip2 -> ip2
I0428 20:02:23.365195 29932 net.cpp:124] Setting up ip2
I0428 20:02:23.365205 29932 net.cpp:131] Top shape: 100 10 (1000)
I0428 20:02:23.365212 29932 net.cpp:139] Memory required for data: 4838800
I0428 20:02:23.365218 29932 layer_factory.hpp:77] Creating layer relu2
I0428 20:02:23.365223 29932 net.cpp:86] Creating Layer relu2
I0428 20:02:23.365226 29932 net.cpp:408] relu2 <- ip2
I0428 20:02:23.365231 29932 net.cpp:369] relu2 -> ip2 (in-place)
I0428 20:02:23.365427 29932 net.cpp:124] Setting up relu2
I0428 20:02:23.365452 29932 net.cpp:131] Top shape: 100 10 (1000)
I0428 20:02:23.365454 29932 net.cpp:139] Memory required for data: 4842800
I0428 20:02:23.365458 29932 layer_factory.hpp:77] Creating layer ip3
I0428 20:02:23.365463 29932 net.cpp:86] Creating Layer ip3
I0428 20:02:23.365466 29932 net.cpp:408] ip3 <- ip2
I0428 20:02:23.365478 29932 net.cpp:382] ip3 -> ip3
I0428 20:02:23.365582 29932 net.cpp:124] Setting up ip3
I0428 20:02:23.365589 29932 net.cpp:131] Top shape: 100 10 (1000)
I0428 20:02:23.365592 29932 net.cpp:139] Memory required for data: 4846800
I0428 20:02:23.365600 29932 layer_factory.hpp:77] Creating layer relu3
I0428 20:02:23.365604 29932 net.cpp:86] Creating Layer relu3
I0428 20:02:23.365607 29932 net.cpp:408] relu3 <- ip3
I0428 20:02:23.365612 29932 net.cpp:369] relu3 -> ip3 (in-place)
I0428 20:02:23.366435 29932 net.cpp:124] Setting up relu3
I0428 20:02:23.366446 29932 net.cpp:131] Top shape: 100 10 (1000)
I0428 20:02:23.366466 29932 net.cpp:139] Memory required for data: 4850800
I0428 20:02:23.366469 29932 layer_factory.hpp:77] Creating layer ip3_relu3_0_split
I0428 20:02:23.366474 29932 net.cpp:86] Creating Layer ip3_relu3_0_split
I0428 20:02:23.366477 29932 net.cpp:408] ip3_relu3_0_split <- ip3
I0428 20:02:23.366484 29932 net.cpp:382] ip3_relu3_0_split -> ip3_relu3_0_split_0
I0428 20:02:23.366490 29932 net.cpp:382] ip3_relu3_0_split -> ip3_relu3_0_split_1
I0428 20:02:23.366546 29932 net.cpp:124] Setting up ip3_relu3_0_split
I0428 20:02:23.366566 29932 net.cpp:131] Top shape: 100 10 (1000)
I0428 20:02:23.366570 29932 net.cpp:131] Top shape: 100 10 (1000)
I0428 20:02:23.366574 29932 net.cpp:139] Memory required for data: 4858800
I0428 20:02:23.366576 29932 layer_factory.hpp:77] Creating layer accuracy
I0428 20:02:23.366581 29932 net.cpp:86] Creating Layer accuracy
I0428 20:02:23.366585 29932 net.cpp:408] accuracy <- ip3_relu3_0_split_0
I0428 20:02:23.366588 29932 net.cpp:408] accuracy <- label_mnist_1_split_0
I0428 20:02:23.366593 29932 net.cpp:382] accuracy -> accuracy
…
