…
I0428 19:58:21.508764 28953 net.cpp:296] The NetState phase (0) differed from the phase (1) specified by a rule in layer mnist
I0428 19:58:21.508783 28953 net.cpp:296] The NetState phase (0) differed from the phase (1) specified by a rule in layer accuracy
I0428 19:58:21.508895 28953 net.cpp:53] Initializing net from parameters: 
name: "LeNet"
state {
  phase: TRAIN
  level: 0
  stage: ""
}
layer {
  name: "mnist"
  type: "Data"
  top: "data"
  top: "label"
  include {
    phase: TRAIN
  }
  transform_param {
    scale: 0.00390625
  }
  data_param {
    source: "examples/mnist/mnist_train_lmdb"
    batch_size: 64
    backend: LMDB
  }
}
layer {
  name: "conv0"
  type: "Convolution"
  bottom: "data"
  top: "conv0"
  param {
    lr_mult: 1
  }
  param {
    lr_mult: 2
  }
  convolution_param {
    num_output: 10
    kernel_size: 5
    stride: 1
    weight_filler {
      type: "xavier"
    }
    bias_filler {
      type: "constant"
    }
  }
}
layer {
  name: "pool0"
  type: "Pooling"
  bottom: "conv0"
  top: "pool0"
  pooling_param {
    pool: MAX
    kernel_size: 2
    stride: 2
  }
}
layer {
  name: "conv1"
  type: "Convolution"
  bottom: "pool0"
  top: "conv1"
  param {
    lr_mult: 1
  }
  param {
    lr_mult: 2
  }
  convolution_param {
    num_output: 5
    kernel_size: 5
    stride: 1
    weight_filler {
      type: "xavier"
    }
    bias_filler {
      type: "constant"
    }
  }
}
layer {
  name: "pool1"
  type: "Pooling"
  bottom: "conv1"
  top: "pool1"
  pooling_param {
    pool: MAX
    kernel_size: 2
    stride: 2
  }
}
layer {
  name: "ip1"
  type: "InnerProduct"
  bottom: "pool1"
  top: "ip1"
  param {
    lr_mult: 1
  }
  param {
    lr_mult: 2
  }
  inner_product_param {
    num_output: 50
    weight_filler {
      type: "xavier"
    }
    bias_filler {
      type: "constant"
    }
  }
}
layer {
  name: "relu1"
  type: "ReLU"
  bottom: "ip1"
  top: "ip1"
}
layer {
  name: "ip2"
  type: "InnerProduct"
  bottom: "ip1"
  top: "ip2"
  param {
    lr_mult: 1
  }
  param {
    lr_mult: 2
  }
  inner_product_param {
    num_output: 50
    weight_filler {
      type: "xavier"
    }
    bias_filler {
      type: "constant"
    }
  }
}
layer {
  name: "relu2"
  type: "ReLU"
  bottom: "ip2"
  top: "ip2"
}
layer {
  name: "ip3"
  type: "InnerProduct"
  bottom: "ip2"
  top: "ip3"
  param {
    lr_mult: 1
  }
  param {
    lr_mult: 2
  }
  inner_product_param {
    num_output: 10
    weight_filler {
      type: "xavier"
    }
    bias_filler {
      type: "constant"
    }
  }
}
layer {
  name: "relu3"
  type: "ReLU"
  bottom: "ip3"
  top: "ip3"
}
layer {
  name: "loss"
  type: "SoftmaxWithLoss"
  bottom: "ip3"
  bottom: "label"
  top: "loss"
}
I0428 19:58:21.508977 28953 layer_factory.hpp:77] Creating layer mnist
I0428 19:58:21.509084 28953 db_lmdb.cpp:35] Opened lmdb examples/mnist/mnist_train_lmdb
I0428 19:58:21.509107 28953 net.cpp:86] Creating Layer mnist
I0428 19:58:21.509117 28953 net.cpp:382] mnist -> data
I0428 19:58:21.509140 28953 net.cpp:382] mnist -> label
I0428 19:58:21.510251 28953 data_layer.cpp:45] output data size: 64,1,28,28
I0428 19:58:21.512706 28953 net.cpp:124] Setting up mnist
I0428 19:58:21.512722 28953 net.cpp:131] Top shape: 64 1 28 28 (50176)
I0428 19:58:21.512728 28953 net.cpp:131] Top shape: 64 (64)
I0428 19:58:21.512732 28953 net.cpp:139] Memory required for data: 200960
I0428 19:58:21.512738 28953 layer_factory.hpp:77] Creating layer conv0
I0428 19:58:21.512778 28953 net.cpp:86] Creating Layer conv0
I0428 19:58:21.512802 28953 net.cpp:408] conv0 <- data
I0428 19:58:21.512825 28953 net.cpp:382] conv0 -> conv0
I0428 19:58:21.803576 28953 net.cpp:124] Setting up conv0
I0428 19:58:21.803606 28953 net.cpp:131] Top shape: 64 10 24 24 (368640)
I0428 19:58:21.803611 28953 net.cpp:139] Memory required for data: 1675520
I0428 19:58:21.803629 28953 layer_factory.hpp:77] Creating layer pool0
I0428 19:58:21.803644 28953 net.cpp:86] Creating Layer pool0
I0428 19:58:21.803649 28953 net.cpp:408] pool0 <- conv0
I0428 19:58:21.803655 28953 net.cpp:382] pool0 -> pool0
I0428 19:58:21.803710 28953 net.cpp:124] Setting up pool0
I0428 19:58:21.803716 28953 net.cpp:131] Top shape: 64 10 12 12 (92160)
I0428 19:58:21.803720 28953 net.cpp:139] Memory required for data: 2044160
I0428 19:58:21.803725 28953 layer_factory.hpp:77] Creating layer conv1
I0428 19:58:21.803736 28953 net.cpp:86] Creating Layer conv1
I0428 19:58:21.803740 28953 net.cpp:408] conv1 <- pool0
I0428 19:58:21.803746 28953 net.cpp:382] conv1 -> conv1
I0428 19:58:21.806898 28953 net.cpp:124] Setting up conv1
I0428 19:58:21.806917 28953 net.cpp:131] Top shape: 64 5 8 8 (20480)
I0428 19:58:21.806921 28953 net.cpp:139] Memory required for data: 2126080
I0428 19:58:21.806931 28953 layer_factory.hpp:77] Creating layer pool1
I0428 19:58:21.806941 28953 net.cpp:86] Creating Layer pool1
I0428 19:58:21.806946 28953 net.cpp:408] pool1 <- conv1
I0428 19:58:21.806952 28953 net.cpp:382] pool1 -> pool1
I0428 19:58:21.806996 28953 net.cpp:124] Setting up pool1
I0428 19:58:21.807003 28953 net.cpp:131] Top shape: 64 5 4 4 (5120)
I0428 19:58:21.807006 28953 net.cpp:139] Memory required for data: 2146560
I0428 19:58:21.807010 28953 layer_factory.hpp:77] Creating layer ip1
I0428 19:58:21.807018 28953 net.cpp:86] Creating Layer ip1
I0428 19:58:21.807023 28953 net.cpp:408] ip1 <- pool1
I0428 19:58:21.807027 28953 net.cpp:382] ip1 -> ip1
I0428 19:58:21.807170 28953 net.cpp:124] Setting up ip1
I0428 19:58:21.807180 28953 net.cpp:131] Top shape: 64 50 (3200)
I0428 19:58:21.807183 28953 net.cpp:139] Memory required for data: 2159360
I0428 19:58:21.807193 28953 layer_factory.hpp:77] Creating layer relu1
I0428 19:58:21.807199 28953 net.cpp:86] Creating Layer relu1
I0428 19:58:21.807202 28953 net.cpp:408] relu1 <- ip1
I0428 19:58:21.807207 28953 net.cpp:369] relu1 -> ip1 (in-place)
I0428 19:58:21.807401 28953 net.cpp:124] Setting up relu1
I0428 19:58:21.807411 28953 net.cpp:131] Top shape: 64 50 (3200)
I0428 19:58:21.807415 28953 net.cpp:139] Memory required for data: 2172160
I0428 19:58:21.807418 28953 layer_factory.hpp:77] Creating layer ip2
I0428 19:58:21.807426 28953 net.cpp:86] Creating Layer ip2
I0428 19:58:21.807430 28953 net.cpp:408] ip2 <- ip1
I0428 19:58:21.807435 28953 net.cpp:382] ip2 -> ip2
I0428 19:58:21.807564 28953 net.cpp:124] Setting up ip2
I0428 19:58:21.807571 28953 net.cpp:131] Top shape: 64 50 (3200)
I0428 19:58:21.807575 28953 net.cpp:139] Memory required for data: 2184960
I0428 19:58:21.807582 28953 layer_factory.hpp:77] Creating layer relu2
I0428 19:58:21.807588 28953 net.cpp:86] Creating Layer relu2
I0428 19:58:21.807592 28953 net.cpp:408] relu2 <- ip2
I0428 19:58:21.807597 28953 net.cpp:369] relu2 -> ip2 (in-place)
I0428 19:58:21.808439 28953 net.cpp:124] Setting up relu2
I0428 19:58:21.808454 28953 net.cpp:131] Top shape: 64 50 (3200)
I0428 19:58:21.808459 28953 net.cpp:139] Memory required for data: 2197760
I0428 19:58:21.808462 28953 layer_factory.hpp:77] Creating layer ip3
I0428 19:58:21.808471 28953 net.cpp:86] Creating Layer ip3
I0428 19:58:21.808475 28953 net.cpp:408] ip3 <- ip2
I0428 19:58:21.808481 28953 net.cpp:382] ip3 -> ip3
I0428 19:58:21.808604 28953 net.cpp:124] Setting up ip3
I0428 19:58:21.808612 28953 net.cpp:131] Top shape: 64 10 (640)
I0428 19:58:21.808615 28953 net.cpp:139] Memory required for data: 2200320
I0428 19:58:21.808625 28953 layer_factory.hpp:77] Creating layer relu3
I0428 19:58:21.808631 28953 net.cpp:86] Creating Layer relu3
I0428 19:58:21.808635 28953 net.cpp:408] relu3 <- ip3
I0428 19:58:21.808640 28953 net.cpp:369] relu3 -> ip3 (in-place)
I0428 19:58:21.808846 28953 net.cpp:124] Setting up relu3
I0428 19:58:21.808857 28953 net.cpp:131] Top shape: 64 10 (640)
I0428 19:58:21.808861 28953 net.cpp:139] Memory required for data: 2202880
I0428 19:58:21.808864 28953 layer_factory.hpp:77] Creating layer loss
I0428 19:58:21.808877 28953 net.cpp:86] Creating Layer loss
I0428 19:58:21.808881 28953 net.cpp:408] loss <- ip3
I0428 19:58:21.808886 28953 net.cpp:408] loss <- label
I0428 19:58:21.808892 28953 net.cpp:382] loss -> loss
I0428 19:58:21.808907 28953 layer_factory.hpp:77] Creating layer loss
…
I0428 19:58:21.809656 28953 solver.cpp:173] Creating test net (#0) specified by net file: ECE595/mnist/train_test/var_everything2/lenet_train_test816.prototxt
I0428 19:58:21.809689 28953 net.cpp:296] The NetState phase (1) differed from the phase (0) specified by a rule in layer mnist
I0428 19:58:21.809798 28953 net.cpp:53] Initializing net from parameters: 
name: "LeNet"
state {
  phase: TEST
}
layer {
  name: "mnist"
  type: "Data"
  top: "data"
  top: "label"
  include {
    phase: TEST
  }
  transform_param {
    scale: 0.00390625
  }
  data_param {
    source: "examples/mnist/mnist_test_lmdb"
    batch_size: 100
    backend: LMDB
  }
}
layer {
  name: "conv0"
  type: "Convolution"
  bottom: "data"
  top: "conv0"
  param {
    lr_mult: 1
  }
  param {
    lr_mult: 2
  }
  convolution_param {
    num_output: 10
    kernel_size: 5
    stride: 1
    weight_filler {
      type: "xavier"
    }
    bias_filler {
      type: "constant"
    }
  }
}
layer {
  name: "pool0"
  type: "Pooling"
  bottom: "conv0"
  top: "pool0"
  pooling_param {
    pool: MAX
    kernel_size: 2
    stride: 2
  }
}
layer {
  name: "conv1"
  type: "Convolution"
  bottom: "pool0"
  top: "conv1"
  param {
    lr_mult: 1
  }
  param {
    lr_mult: 2
  }
  convolution_param {
    num_output: 5
    kernel_size: 5
    stride: 1
    weight_filler {
      type: "xavier"
    }
    bias_filler {
      type: "constant"
    }
  }
}
layer {
  name: "pool1"
  type: "Pooling"
  bottom: "conv1"
  top: "pool1"
  pooling_param {
    pool: MAX
    kernel_size: 2
    stride: 2
  }
}
layer {
  name: "ip1"
  type: "InnerProduct"
  bottom: "pool1"
  top: "ip1"
  param {
    lr_mult: 1
  }
  param {
    lr_mult: 2
  }
  inner_product_param {
    num_output: 50
    weight_filler {
      type: "xavier"
    }
    bias_filler {
      type: "constant"
    }
  }
}
layer {
  name: "relu1"
  type: "ReLU"
  bottom: "ip1"
  top: "ip1"
}
layer {
  name: "ip2"
  type: "InnerProduct"
  bottom: "ip1"
  top: "ip2"
  param {
    lr_mult: 1
  }
  param {
    lr_mult: 2
  }
  inner_product_param {
    num_output: 50
    weight_filler {
      type: "xavier"
    }
    bias_filler {
      type: "constant"
    }
  }
}
layer {
  name: "relu2"
  type: "ReLU"
  bottom: "ip2"
  top: "ip2"
}
layer {
  name: "ip3"
  type: "InnerProduct"
  bottom: "ip2"
  top: "ip3"
  param {
    lr_mult: 1
  }
  param {
    lr_mult: 2
  }
  inner_product_param {
    num_output: 10
    weight_filler {
      type: "xavier"
    }
    bias_filler {
      type: "constant"
    }
  }
}
layer {
  name: "relu3"
  type: "ReLU"
  bottom: "ip3"
  top: "ip3"
}
layer {
  name: "accuracy"
  type: "Accuracy"
  bottom: "ip3"
  bottom: "label"
  top: "accuracy"
  include {
    phase: TEST
  }
}
layer {
  name: "loss"
  type: "SoftmaxWithLoss"
  bottom: "ip3"
  bottom: "label"
  top: "loss"
}
I0428 19:58:21.809893 28953 layer_factory.hpp:77] Creating layer mnist
I0428 19:58:21.809944 28953 db_lmdb.cpp:35] Opened lmdb examples/mnist/mnist_test_lmdb
I0428 19:58:21.809959 28953 net.cpp:86] Creating Layer mnist
I0428 19:58:21.809964 28953 net.cpp:382] mnist -> data
I0428 19:58:21.809974 28953 net.cpp:382] mnist -> label
I0428 19:58:21.810071 28953 data_layer.cpp:45] output data size: 100,1,28,28
I0428 19:58:21.812487 28953 net.cpp:124] Setting up mnist
I0428 19:58:21.812503 28953 net.cpp:131] Top shape: 100 1 28 28 (78400)
I0428 19:58:21.812510 28953 net.cpp:131] Top shape: 100 (100)
I0428 19:58:21.812513 28953 net.cpp:139] Memory required for data: 314000
I0428 19:58:21.812517 28953 layer_factory.hpp:77] Creating layer label_mnist_1_split
I0428 19:58:21.812525 28953 net.cpp:86] Creating Layer label_mnist_1_split
I0428 19:58:21.812530 28953 net.cpp:408] label_mnist_1_split <- label
I0428 19:58:21.812539 28953 net.cpp:382] label_mnist_1_split -> label_mnist_1_split_0
I0428 19:58:21.812547 28953 net.cpp:382] label_mnist_1_split -> label_mnist_1_split_1
I0428 19:58:21.812644 28953 net.cpp:124] Setting up label_mnist_1_split
I0428 19:58:21.812654 28953 net.cpp:131] Top shape: 100 (100)
I0428 19:58:21.812657 28953 net.cpp:131] Top shape: 100 (100)
I0428 19:58:21.812661 28953 net.cpp:139] Memory required for data: 314800
I0428 19:58:21.812664 28953 layer_factory.hpp:77] Creating layer conv0
I0428 19:58:21.812674 28953 net.cpp:86] Creating Layer conv0
I0428 19:58:21.812678 28953 net.cpp:408] conv0 <- data
I0428 19:58:21.812685 28953 net.cpp:382] conv0 -> conv0
I0428 19:58:21.814548 28953 net.cpp:124] Setting up conv0
I0428 19:58:21.814566 28953 net.cpp:131] Top shape: 100 10 24 24 (576000)
I0428 19:58:21.814570 28953 net.cpp:139] Memory required for data: 2618800
I0428 19:58:21.814581 28953 layer_factory.hpp:77] Creating layer pool0
I0428 19:58:21.814589 28953 net.cpp:86] Creating Layer pool0
I0428 19:58:21.814594 28953 net.cpp:408] pool0 <- conv0
I0428 19:58:21.814599 28953 net.cpp:382] pool0 -> pool0
I0428 19:58:21.814641 28953 net.cpp:124] Setting up pool0
I0428 19:58:21.814647 28953 net.cpp:131] Top shape: 100 10 12 12 (144000)
I0428 19:58:21.814651 28953 net.cpp:139] Memory required for data: 3194800
I0428 19:58:21.814656 28953 layer_factory.hpp:77] Creating layer conv1
I0428 19:58:21.814664 28953 net.cpp:86] Creating Layer conv1
I0428 19:58:21.814668 28953 net.cpp:408] conv1 <- pool0
I0428 19:58:21.814673 28953 net.cpp:382] conv1 -> conv1
I0428 19:58:21.817039 28953 net.cpp:124] Setting up conv1
I0428 19:58:21.817054 28953 net.cpp:131] Top shape: 100 5 8 8 (32000)
I0428 19:58:21.817059 28953 net.cpp:139] Memory required for data: 3322800
I0428 19:58:21.817070 28953 layer_factory.hpp:77] Creating layer pool1
I0428 19:58:21.817076 28953 net.cpp:86] Creating Layer pool1
I0428 19:58:21.817080 28953 net.cpp:408] pool1 <- conv1
I0428 19:58:21.817087 28953 net.cpp:382] pool1 -> pool1
I0428 19:58:21.817137 28953 net.cpp:124] Setting up pool1
I0428 19:58:21.817143 28953 net.cpp:131] Top shape: 100 5 4 4 (8000)
I0428 19:58:21.817147 28953 net.cpp:139] Memory required for data: 3354800
I0428 19:58:21.817150 28953 layer_factory.hpp:77] Creating layer ip1
I0428 19:58:21.817157 28953 net.cpp:86] Creating Layer ip1
I0428 19:58:21.817160 28953 net.cpp:408] ip1 <- pool1
I0428 19:58:21.817167 28953 net.cpp:382] ip1 -> ip1
I0428 19:58:21.817360 28953 net.cpp:124] Setting up ip1
I0428 19:58:21.817371 28953 net.cpp:131] Top shape: 100 50 (5000)
I0428 19:58:21.817387 28953 net.cpp:139] Memory required for data: 3374800
I0428 19:58:21.817397 28953 layer_factory.hpp:77] Creating layer relu1
I0428 19:58:21.817406 28953 net.cpp:86] Creating Layer relu1
I0428 19:58:21.817411 28953 net.cpp:408] relu1 <- ip1
I0428 19:58:21.817417 28953 net.cpp:369] relu1 -> ip1 (in-place)
I0428 19:58:21.817631 28953 net.cpp:124] Setting up relu1
I0428 19:58:21.817644 28953 net.cpp:131] Top shape: 100 50 (5000)
I0428 19:58:21.817648 28953 net.cpp:139] Memory required for data: 3394800
I0428 19:58:21.817652 28953 layer_factory.hpp:77] Creating layer ip2
I0428 19:58:21.817664 28953 net.cpp:86] Creating Layer ip2
I0428 19:58:21.817668 28953 net.cpp:408] ip2 <- ip1
I0428 19:58:21.817673 28953 net.cpp:382] ip2 -> ip2
I0428 19:58:21.817813 28953 net.cpp:124] Setting up ip2
I0428 19:58:21.817822 28953 net.cpp:131] Top shape: 100 50 (5000)
I0428 19:58:21.817826 28953 net.cpp:139] Memory required for data: 3414800
I0428 19:58:21.817832 28953 layer_factory.hpp:77] Creating layer relu2
I0428 19:58:21.817837 28953 net.cpp:86] Creating Layer relu2
I0428 19:58:21.817842 28953 net.cpp:408] relu2 <- ip2
I0428 19:58:21.817847 28953 net.cpp:369] relu2 -> ip2 (in-place)
I0428 19:58:21.818084 28953 net.cpp:124] Setting up relu2
I0428 19:58:21.818094 28953 net.cpp:131] Top shape: 100 50 (5000)
I0428 19:58:21.818099 28953 net.cpp:139] Memory required for data: 3434800
I0428 19:58:21.818101 28953 layer_factory.hpp:77] Creating layer ip3
I0428 19:58:21.818109 28953 net.cpp:86] Creating Layer ip3
I0428 19:58:21.818112 28953 net.cpp:408] ip3 <- ip2
I0428 19:58:21.818120 28953 net.cpp:382] ip3 -> ip3
I0428 19:58:21.818266 28953 net.cpp:124] Setting up ip3
I0428 19:58:21.818275 28953 net.cpp:131] Top shape: 100 10 (1000)
I0428 19:58:21.818279 28953 net.cpp:139] Memory required for data: 3438800
I0428 19:58:21.818289 28953 layer_factory.hpp:77] Creating layer relu3
I0428 19:58:21.818297 28953 net.cpp:86] Creating Layer relu3
I0428 19:58:21.818302 28953 net.cpp:408] relu3 <- ip3
I0428 19:58:21.818306 28953 net.cpp:369] relu3 -> ip3 (in-place)
I0428 19:58:21.819231 28953 net.cpp:124] Setting up relu3
I0428 19:58:21.819247 28953 net.cpp:131] Top shape: 100 10 (1000)
I0428 19:58:21.819249 28953 net.cpp:139] Memory required for data: 3442800
I0428 19:58:21.819253 28953 layer_factory.hpp:77] Creating layer ip3_relu3_0_split
I0428 19:58:21.819262 28953 net.cpp:86] Creating Layer ip3_relu3_0_split
I0428 19:58:21.819265 28953 net.cpp:408] ip3_relu3_0_split <- ip3
I0428 19:58:21.819270 28953 net.cpp:382] ip3_relu3_0_split -> ip3_relu3_0_split_0
I0428 19:58:21.819279 28953 net.cpp:382] ip3_relu3_0_split -> ip3_relu3_0_split_1
I0428 19:58:21.819327 28953 net.cpp:124] Setting up ip3_relu3_0_split
I0428 19:58:21.819335 28953 net.cpp:131] Top shape: 100 10 (1000)
I0428 19:58:21.819339 28953 net.cpp:131] Top shape: 100 10 (1000)
I0428 19:58:21.819344 28953 net.cpp:139] Memory required for data: 3450800
I0428 19:58:21.819346 28953 layer_factory.hpp:77] Creating layer accuracy
I0428 19:58:21.819352 28953 net.cpp:86] Creating Layer accuracy
I0428 19:58:21.819356 28953 net.cpp:408] accuracy <- ip3_relu3_0_split_0
I0428 19:58:21.819360 28953 net.cpp:408] accuracy <- label_mnist_1_split_0
I0428 19:58:21.819367 28953 net.cpp:382] accuracy -> accuracy
…
