…
I0428 20:11:43.577057 32127 net.cpp:296] The NetState phase (0) differed from the phase (1) specified by a rule in layer mnist
I0428 20:11:43.577077 32127 net.cpp:296] The NetState phase (0) differed from the phase (1) specified by a rule in layer accuracy
I0428 20:11:43.577180 32127 net.cpp:53] Initializing net from parameters: 
name: "LeNet"
state {
  phase: TRAIN
  level: 0
  stage: ""
}
layer {
  name: "mnist"
  type: "Data"
  top: "data"
  top: "label"
  include {
    phase: TRAIN
  }
  transform_param {
    scale: 0.00390625
  }
  data_param {
    source: "examples/mnist/mnist_train_lmdb"
    batch_size: 64
    backend: LMDB
  }
}
layer {
  name: "conv0"
  type: "Convolution"
  bottom: "data"
  top: "conv0"
  param {
    lr_mult: 1
  }
  param {
    lr_mult: 2
  }
  convolution_param {
    num_output: 25
    kernel_size: 5
    stride: 1
    weight_filler {
      type: "xavier"
    }
    bias_filler {
      type: "constant"
    }
  }
}
layer {
  name: "pool0"
  type: "Pooling"
  bottom: "conv0"
  top: "pool0"
  pooling_param {
    pool: MAX
    kernel_size: 2
    stride: 2
  }
}
layer {
  name: "conv1"
  type: "Convolution"
  bottom: "pool0"
  top: "conv1"
  param {
    lr_mult: 1
  }
  param {
    lr_mult: 2
  }
  convolution_param {
    num_output: 50
    kernel_size: 5
    stride: 1
    weight_filler {
      type: "xavier"
    }
    bias_filler {
      type: "constant"
    }
  }
}
layer {
  name: "pool1"
  type: "Pooling"
  bottom: "conv1"
  top: "pool1"
  pooling_param {
    pool: MAX
    kernel_size: 2
    stride: 2
  }
}
layer {
  name: "ip1"
  type: "InnerProduct"
  bottom: "pool1"
  top: "ip1"
  param {
    lr_mult: 1
  }
  param {
    lr_mult: 2
  }
  inner_product_param {
    num_output: 50
    weight_filler {
      type: "xavier"
    }
    bias_filler {
      type: "constant"
    }
  }
}
layer {
  name: "relu1"
  type: "ReLU"
  bottom: "ip1"
  top: "ip1"
}
layer {
  name: "ip2"
  type: "InnerProduct"
  bottom: "ip1"
  top: "ip2"
  param {
    lr_mult: 1
  }
  param {
    lr_mult: 2
  }
  inner_product_param {
    num_output: 25
    weight_filler {
      type: "xavier"
    }
    bias_filler {
      type: "constant"
    }
  }
}
layer {
  name: "relu2"
  type: "ReLU"
  bottom: "ip2"
  top: "ip2"
}
layer {
  name: "ip3"
  type: "InnerProduct"
  bottom: "ip2"
  top: "ip3"
  param {
    lr_mult: 1
  }
  param {
    lr_mult: 2
  }
  inner_product_param {
    num_output: 10
    weight_filler {
      type: "xavier"
    }
    bias_filler {
      type: "constant"
    }
  }
}
layer {
  name: "relu3"
  type: "ReLU"
  bottom: "ip3"
  top: "ip3"
}
layer {
  name: "loss"
  type: "SoftmaxWithLoss"
  bottom: "ip3"
  bottom: "label"
  top: "loss"
}
I0428 20:11:43.577260 32127 layer_factory.hpp:77] Creating layer mnist
I0428 20:11:43.577359 32127 db_lmdb.cpp:35] Opened lmdb examples/mnist/mnist_train_lmdb
I0428 20:11:43.577385 32127 net.cpp:86] Creating Layer mnist
I0428 20:11:43.577395 32127 net.cpp:382] mnist -> data
I0428 20:11:43.577417 32127 net.cpp:382] mnist -> label
I0428 20:11:43.578505 32127 data_layer.cpp:45] output data size: 64,1,28,28
I0428 20:11:43.580958 32127 net.cpp:124] Setting up mnist
I0428 20:11:43.580991 32127 net.cpp:131] Top shape: 64 1 28 28 (50176)
I0428 20:11:43.580997 32127 net.cpp:131] Top shape: 64 (64)
I0428 20:11:43.581001 32127 net.cpp:139] Memory required for data: 200960
I0428 20:11:43.581008 32127 layer_factory.hpp:77] Creating layer conv0
I0428 20:11:43.581027 32127 net.cpp:86] Creating Layer conv0
I0428 20:11:43.581048 32127 net.cpp:408] conv0 <- data
I0428 20:11:43.581059 32127 net.cpp:382] conv0 -> conv0
I0428 20:11:43.829296 32127 net.cpp:124] Setting up conv0
I0428 20:11:43.829337 32127 net.cpp:131] Top shape: 64 25 24 24 (921600)
I0428 20:11:43.829341 32127 net.cpp:139] Memory required for data: 3887360
I0428 20:11:43.829371 32127 layer_factory.hpp:77] Creating layer pool0
I0428 20:11:43.829399 32127 net.cpp:86] Creating Layer pool0
I0428 20:11:43.829404 32127 net.cpp:408] pool0 <- conv0
I0428 20:11:43.829409 32127 net.cpp:382] pool0 -> pool0
I0428 20:11:43.829452 32127 net.cpp:124] Setting up pool0
I0428 20:11:43.829459 32127 net.cpp:131] Top shape: 64 25 12 12 (230400)
I0428 20:11:43.829463 32127 net.cpp:139] Memory required for data: 4808960
I0428 20:11:43.829466 32127 layer_factory.hpp:77] Creating layer conv1
I0428 20:11:43.829476 32127 net.cpp:86] Creating Layer conv1
I0428 20:11:43.829479 32127 net.cpp:408] conv1 <- pool0
I0428 20:11:43.829484 32127 net.cpp:382] conv1 -> conv1
I0428 20:11:43.831466 32127 net.cpp:124] Setting up conv1
I0428 20:11:43.831480 32127 net.cpp:131] Top shape: 64 50 8 8 (204800)
I0428 20:11:43.831485 32127 net.cpp:139] Memory required for data: 5628160
I0428 20:11:43.831493 32127 layer_factory.hpp:77] Creating layer pool1
I0428 20:11:43.831501 32127 net.cpp:86] Creating Layer pool1
I0428 20:11:43.831504 32127 net.cpp:408] pool1 <- conv1
I0428 20:11:43.831508 32127 net.cpp:382] pool1 -> pool1
I0428 20:11:43.831558 32127 net.cpp:124] Setting up pool1
I0428 20:11:43.831564 32127 net.cpp:131] Top shape: 64 50 4 4 (51200)
I0428 20:11:43.831568 32127 net.cpp:139] Memory required for data: 5832960
I0428 20:11:43.831570 32127 layer_factory.hpp:77] Creating layer ip1
I0428 20:11:43.831578 32127 net.cpp:86] Creating Layer ip1
I0428 20:11:43.831580 32127 net.cpp:408] ip1 <- pool1
I0428 20:11:43.831584 32127 net.cpp:382] ip1 -> ip1
I0428 20:11:43.831892 32127 net.cpp:124] Setting up ip1
I0428 20:11:43.831898 32127 net.cpp:131] Top shape: 64 50 (3200)
I0428 20:11:43.831902 32127 net.cpp:139] Memory required for data: 5845760
I0428 20:11:43.831908 32127 layer_factory.hpp:77] Creating layer relu1
I0428 20:11:43.831913 32127 net.cpp:86] Creating Layer relu1
I0428 20:11:43.831917 32127 net.cpp:408] relu1 <- ip1
I0428 20:11:43.831920 32127 net.cpp:369] relu1 -> ip1 (in-place)
I0428 20:11:43.832075 32127 net.cpp:124] Setting up relu1
I0428 20:11:43.832083 32127 net.cpp:131] Top shape: 64 50 (3200)
I0428 20:11:43.832087 32127 net.cpp:139] Memory required for data: 5858560
I0428 20:11:43.832089 32127 layer_factory.hpp:77] Creating layer ip2
I0428 20:11:43.832095 32127 net.cpp:86] Creating Layer ip2
I0428 20:11:43.832098 32127 net.cpp:408] ip2 <- ip1
I0428 20:11:43.832103 32127 net.cpp:382] ip2 -> ip2
I0428 20:11:43.833083 32127 net.cpp:124] Setting up ip2
I0428 20:11:43.833112 32127 net.cpp:131] Top shape: 64 25 (1600)
I0428 20:11:43.833115 32127 net.cpp:139] Memory required for data: 5864960
I0428 20:11:43.833122 32127 layer_factory.hpp:77] Creating layer relu2
I0428 20:11:43.833129 32127 net.cpp:86] Creating Layer relu2
I0428 20:11:43.833132 32127 net.cpp:408] relu2 <- ip2
I0428 20:11:43.833137 32127 net.cpp:369] relu2 -> ip2 (in-place)
I0428 20:11:43.833902 32127 net.cpp:124] Setting up relu2
I0428 20:11:43.833914 32127 net.cpp:131] Top shape: 64 25 (1600)
I0428 20:11:43.833920 32127 net.cpp:139] Memory required for data: 5871360
I0428 20:11:43.833922 32127 layer_factory.hpp:77] Creating layer ip3
I0428 20:11:43.833930 32127 net.cpp:86] Creating Layer ip3
I0428 20:11:43.833932 32127 net.cpp:408] ip3 <- ip2
I0428 20:11:43.833937 32127 net.cpp:382] ip3 -> ip3
I0428 20:11:43.834030 32127 net.cpp:124] Setting up ip3
I0428 20:11:43.834038 32127 net.cpp:131] Top shape: 64 10 (640)
I0428 20:11:43.834040 32127 net.cpp:139] Memory required for data: 5873920
I0428 20:11:43.834048 32127 layer_factory.hpp:77] Creating layer relu3
I0428 20:11:43.834053 32127 net.cpp:86] Creating Layer relu3
I0428 20:11:43.834055 32127 net.cpp:408] relu3 <- ip3
I0428 20:11:43.834059 32127 net.cpp:369] relu3 -> ip3 (in-place)
I0428 20:11:43.834246 32127 net.cpp:124] Setting up relu3
I0428 20:11:43.834254 32127 net.cpp:131] Top shape: 64 10 (640)
I0428 20:11:43.834257 32127 net.cpp:139] Memory required for data: 5876480
I0428 20:11:43.834260 32127 layer_factory.hpp:77] Creating layer loss
I0428 20:11:43.834266 32127 net.cpp:86] Creating Layer loss
I0428 20:11:43.834270 32127 net.cpp:408] loss <- ip3
I0428 20:11:43.834273 32127 net.cpp:408] loss <- label
I0428 20:11:43.834278 32127 net.cpp:382] loss -> loss
I0428 20:11:43.834295 32127 layer_factory.hpp:77] Creating layer loss
…
I0428 20:11:43.834951 32127 solver.cpp:173] Creating test net (#0) specified by net file: ECE595/mnist/train_test/var_everything2/lenet_train_test1165.prototxt
I0428 20:11:43.834977 32127 net.cpp:296] The NetState phase (1) differed from the phase (0) specified by a rule in layer mnist
I0428 20:11:43.835064 32127 net.cpp:53] Initializing net from parameters: 
name: "LeNet"
state {
  phase: TEST
}
layer {
  name: "mnist"
  type: "Data"
  top: "data"
  top: "label"
  include {
    phase: TEST
  }
  transform_param {
    scale: 0.00390625
  }
  data_param {
    source: "examples/mnist/mnist_test_lmdb"
    batch_size: 100
    backend: LMDB
  }
}
layer {
  name: "conv0"
  type: "Convolution"
  bottom: "data"
  top: "conv0"
  param {
    lr_mult: 1
  }
  param {
    lr_mult: 2
  }
  convolution_param {
    num_output: 25
    kernel_size: 5
    stride: 1
    weight_filler {
      type: "xavier"
    }
    bias_filler {
      type: "constant"
    }
  }
}
layer {
  name: "pool0"
  type: "Pooling"
  bottom: "conv0"
  top: "pool0"
  pooling_param {
    pool: MAX
    kernel_size: 2
    stride: 2
  }
}
layer {
  name: "conv1"
  type: "Convolution"
  bottom: "pool0"
  top: "conv1"
  param {
    lr_mult: 1
  }
  param {
    lr_mult: 2
  }
  convolution_param {
    num_output: 50
    kernel_size: 5
    stride: 1
    weight_filler {
      type: "xavier"
    }
    bias_filler {
      type: "constant"
    }
  }
}
layer {
  name: "pool1"
  type: "Pooling"
  bottom: "conv1"
  top: "pool1"
  pooling_param {
    pool: MAX
    kernel_size: 2
    stride: 2
  }
}
layer {
  name: "ip1"
  type: "InnerProduct"
  bottom: "pool1"
  top: "ip1"
  param {
    lr_mult: 1
  }
  param {
    lr_mult: 2
  }
  inner_product_param {
    num_output: 50
    weight_filler {
      type: "xavier"
    }
    bias_filler {
      type: "constant"
    }
  }
}
layer {
  name: "relu1"
  type: "ReLU"
  bottom: "ip1"
  top: "ip1"
}
layer {
  name: "ip2"
  type: "InnerProduct"
  bottom: "ip1"
  top: "ip2"
  param {
    lr_mult: 1
  }
  param {
    lr_mult: 2
  }
  inner_product_param {
    num_output: 25
    weight_filler {
      type: "xavier"
    }
    bias_filler {
      type: "constant"
    }
  }
}
layer {
  name: "relu2"
  type: "ReLU"
  bottom: "ip2"
  top: "ip2"
}
layer {
  name: "ip3"
  type: "InnerProduct"
  bottom: "ip2"
  top: "ip3"
  param {
    lr_mult: 1
  }
  param {
    lr_mult: 2
  }
  inner_product_param {
    num_output: 10
    weight_filler {
      type: "xavier"
    }
    bias_filler {
      type: "constant"
    }
  }
}
layer {
  name: "relu3"
  type: "ReLU"
  bottom: "ip3"
  top: "ip3"
}
layer {
  name: "accuracy"
  type: "Accuracy"
  bottom: "ip3"
  bottom: "label"
  top: "accuracy"
  include {
    phase: TEST
  }
}
layer {
  name: "loss"
  type: "SoftmaxWithLoss"
  bottom: "ip3"
  bottom: "label"
  top: "loss"
}
I0428 20:11:43.835137 32127 layer_factory.hpp:77] Creating layer mnist
I0428 20:11:43.835180 32127 db_lmdb.cpp:35] Opened lmdb examples/mnist/mnist_test_lmdb
I0428 20:11:43.835193 32127 net.cpp:86] Creating Layer mnist
I0428 20:11:43.835197 32127 net.cpp:382] mnist -> data
I0428 20:11:43.835204 32127 net.cpp:382] mnist -> label
I0428 20:11:43.835295 32127 data_layer.cpp:45] output data size: 100,1,28,28
I0428 20:11:43.837430 32127 net.cpp:124] Setting up mnist
I0428 20:11:43.837473 32127 net.cpp:131] Top shape: 100 1 28 28 (78400)
I0428 20:11:43.837478 32127 net.cpp:131] Top shape: 100 (100)
I0428 20:11:43.837481 32127 net.cpp:139] Memory required for data: 314000
I0428 20:11:43.837486 32127 layer_factory.hpp:77] Creating layer label_mnist_1_split
I0428 20:11:43.837498 32127 net.cpp:86] Creating Layer label_mnist_1_split
I0428 20:11:43.837502 32127 net.cpp:408] label_mnist_1_split <- label
I0428 20:11:43.837507 32127 net.cpp:382] label_mnist_1_split -> label_mnist_1_split_0
I0428 20:11:43.837513 32127 net.cpp:382] label_mnist_1_split -> label_mnist_1_split_1
I0428 20:11:43.837654 32127 net.cpp:124] Setting up label_mnist_1_split
I0428 20:11:43.837677 32127 net.cpp:131] Top shape: 100 (100)
I0428 20:11:43.837682 32127 net.cpp:131] Top shape: 100 (100)
I0428 20:11:43.837684 32127 net.cpp:139] Memory required for data: 314800
I0428 20:11:43.837688 32127 layer_factory.hpp:77] Creating layer conv0
I0428 20:11:43.837697 32127 net.cpp:86] Creating Layer conv0
I0428 20:11:43.837700 32127 net.cpp:408] conv0 <- data
I0428 20:11:43.837705 32127 net.cpp:382] conv0 -> conv0
I0428 20:11:43.839411 32127 net.cpp:124] Setting up conv0
I0428 20:11:43.839423 32127 net.cpp:131] Top shape: 100 25 24 24 (1440000)
I0428 20:11:43.839442 32127 net.cpp:139] Memory required for data: 6074800
I0428 20:11:43.839465 32127 layer_factory.hpp:77] Creating layer pool0
I0428 20:11:43.839473 32127 net.cpp:86] Creating Layer pool0
I0428 20:11:43.839475 32127 net.cpp:408] pool0 <- conv0
I0428 20:11:43.839479 32127 net.cpp:382] pool0 -> pool0
I0428 20:11:43.839514 32127 net.cpp:124] Setting up pool0
I0428 20:11:43.839519 32127 net.cpp:131] Top shape: 100 25 12 12 (360000)
I0428 20:11:43.839521 32127 net.cpp:139] Memory required for data: 7514800
I0428 20:11:43.839524 32127 layer_factory.hpp:77] Creating layer conv1
I0428 20:11:43.839531 32127 net.cpp:86] Creating Layer conv1
I0428 20:11:43.839535 32127 net.cpp:408] conv1 <- pool0
I0428 20:11:43.839540 32127 net.cpp:382] conv1 -> conv1
I0428 20:11:43.841435 32127 net.cpp:124] Setting up conv1
I0428 20:11:43.841447 32127 net.cpp:131] Top shape: 100 50 8 8 (320000)
I0428 20:11:43.841451 32127 net.cpp:139] Memory required for data: 8794800
I0428 20:11:43.841459 32127 layer_factory.hpp:77] Creating layer pool1
I0428 20:11:43.841464 32127 net.cpp:86] Creating Layer pool1
I0428 20:11:43.841467 32127 net.cpp:408] pool1 <- conv1
I0428 20:11:43.841472 32127 net.cpp:382] pool1 -> pool1
I0428 20:11:43.841526 32127 net.cpp:124] Setting up pool1
I0428 20:11:43.841531 32127 net.cpp:131] Top shape: 100 50 4 4 (80000)
I0428 20:11:43.841533 32127 net.cpp:139] Memory required for data: 9114800
I0428 20:11:43.841536 32127 layer_factory.hpp:77] Creating layer ip1
I0428 20:11:43.841542 32127 net.cpp:86] Creating Layer ip1
I0428 20:11:43.841545 32127 net.cpp:408] ip1 <- pool1
I0428 20:11:43.841550 32127 net.cpp:382] ip1 -> ip1
I0428 20:11:43.841953 32127 net.cpp:124] Setting up ip1
I0428 20:11:43.841962 32127 net.cpp:131] Top shape: 100 50 (5000)
I0428 20:11:43.841977 32127 net.cpp:139] Memory required for data: 9134800
I0428 20:11:43.841986 32127 layer_factory.hpp:77] Creating layer relu1
I0428 20:11:43.841991 32127 net.cpp:86] Creating Layer relu1
I0428 20:11:43.841995 32127 net.cpp:408] relu1 <- ip1
I0428 20:11:43.842000 32127 net.cpp:369] relu1 -> ip1 (in-place)
I0428 20:11:43.842180 32127 net.cpp:124] Setting up relu1
I0428 20:11:43.842190 32127 net.cpp:131] Top shape: 100 50 (5000)
I0428 20:11:43.842192 32127 net.cpp:139] Memory required for data: 9154800
I0428 20:11:43.842195 32127 layer_factory.hpp:77] Creating layer ip2
I0428 20:11:43.842203 32127 net.cpp:86] Creating Layer ip2
I0428 20:11:43.842206 32127 net.cpp:408] ip2 <- ip1
I0428 20:11:43.842211 32127 net.cpp:382] ip2 -> ip2
I0428 20:11:43.842334 32127 net.cpp:124] Setting up ip2
I0428 20:11:43.842356 32127 net.cpp:131] Top shape: 100 25 (2500)
I0428 20:11:43.842360 32127 net.cpp:139] Memory required for data: 9164800
I0428 20:11:43.842365 32127 layer_factory.hpp:77] Creating layer relu2
I0428 20:11:43.842368 32127 net.cpp:86] Creating Layer relu2
I0428 20:11:43.842371 32127 net.cpp:408] relu2 <- ip2
I0428 20:11:43.842375 32127 net.cpp:369] relu2 -> ip2 (in-place)
I0428 20:11:43.842576 32127 net.cpp:124] Setting up relu2
I0428 20:11:43.842583 32127 net.cpp:131] Top shape: 100 25 (2500)
I0428 20:11:43.842586 32127 net.cpp:139] Memory required for data: 9174800
I0428 20:11:43.842589 32127 layer_factory.hpp:77] Creating layer ip3
I0428 20:11:43.842594 32127 net.cpp:86] Creating Layer ip3
I0428 20:11:43.842597 32127 net.cpp:408] ip3 <- ip2
I0428 20:11:43.842602 32127 net.cpp:382] ip3 -> ip3
I0428 20:11:43.842720 32127 net.cpp:124] Setting up ip3
I0428 20:11:43.842726 32127 net.cpp:131] Top shape: 100 10 (1000)
I0428 20:11:43.842730 32127 net.cpp:139] Memory required for data: 9178800
I0428 20:11:43.842737 32127 layer_factory.hpp:77] Creating layer relu3
I0428 20:11:43.842742 32127 net.cpp:86] Creating Layer relu3
I0428 20:11:43.842746 32127 net.cpp:408] relu3 <- ip3
I0428 20:11:43.842764 32127 net.cpp:369] relu3 -> ip3 (in-place)
I0428 20:11:43.843629 32127 net.cpp:124] Setting up relu3
I0428 20:11:43.843641 32127 net.cpp:131] Top shape: 100 10 (1000)
I0428 20:11:43.843660 32127 net.cpp:139] Memory required for data: 9182800
I0428 20:11:43.843663 32127 layer_factory.hpp:77] Creating layer ip3_relu3_0_split
I0428 20:11:43.843669 32127 net.cpp:86] Creating Layer ip3_relu3_0_split
I0428 20:11:43.843673 32127 net.cpp:408] ip3_relu3_0_split <- ip3
I0428 20:11:43.843678 32127 net.cpp:382] ip3_relu3_0_split -> ip3_relu3_0_split_0
I0428 20:11:43.843684 32127 net.cpp:382] ip3_relu3_0_split -> ip3_relu3_0_split_1
I0428 20:11:43.843732 32127 net.cpp:124] Setting up ip3_relu3_0_split
I0428 20:11:43.843739 32127 net.cpp:131] Top shape: 100 10 (1000)
I0428 20:11:43.843742 32127 net.cpp:131] Top shape: 100 10 (1000)
I0428 20:11:43.843745 32127 net.cpp:139] Memory required for data: 9190800
I0428 20:11:43.843749 32127 layer_factory.hpp:77] Creating layer accuracy
I0428 20:11:43.843753 32127 net.cpp:86] Creating Layer accuracy
I0428 20:11:43.843756 32127 net.cpp:408] accuracy <- ip3_relu3_0_split_0
I0428 20:11:43.843760 32127 net.cpp:408] accuracy <- label_mnist_1_split_0
I0428 20:11:43.843765 32127 net.cpp:382] accuracy -> accuracy
…
