…
I0428 20:32:20.961323  4086 net.cpp:296] The NetState phase (0) differed from the phase (1) specified by a rule in layer mnist
I0428 20:32:20.961341  4086 net.cpp:296] The NetState phase (0) differed from the phase (1) specified by a rule in layer accuracy
I0428 20:32:20.961431  4086 net.cpp:53] Initializing net from parameters: 
name: "LeNet"
state {
  phase: TRAIN
  level: 0
  stage: ""
}
layer {
  name: "mnist"
  type: "Data"
  top: "data"
  top: "label"
  include {
    phase: TRAIN
  }
  transform_param {
    scale: 0.00390625
  }
  data_param {
    source: "examples/mnist/mnist_train_lmdb"
    batch_size: 64
    backend: LMDB
  }
}
layer {
  name: "conv0"
  type: "Convolution"
  bottom: "data"
  top: "conv0"
  param {
    lr_mult: 1
  }
  param {
    lr_mult: 2
  }
  convolution_param {
    num_output: 100
    kernel_size: 5
    stride: 1
    weight_filler {
      type: "xavier"
    }
    bias_filler {
      type: "constant"
    }
  }
}
layer {
  name: "pool0"
  type: "Pooling"
  bottom: "conv0"
  top: "pool0"
  pooling_param {
    pool: MAX
    kernel_size: 2
    stride: 2
  }
}
layer {
  name: "conv1"
  type: "Convolution"
  bottom: "pool0"
  top: "conv1"
  param {
    lr_mult: 1
  }
  param {
    lr_mult: 2
  }
  convolution_param {
    num_output: 25
    kernel_size: 5
    stride: 1
    weight_filler {
      type: "xavier"
    }
    bias_filler {
      type: "constant"
    }
  }
}
layer {
  name: "pool1"
  type: "Pooling"
  bottom: "conv1"
  top: "pool1"
  pooling_param {
    pool: MAX
    kernel_size: 2
    stride: 2
  }
}
layer {
  name: "ip1"
  type: "InnerProduct"
  bottom: "pool1"
  top: "ip1"
  param {
    lr_mult: 1
  }
  param {
    lr_mult: 2
  }
  inner_product_param {
    num_output: 50
    weight_filler {
      type: "xavier"
    }
    bias_filler {
      type: "constant"
    }
  }
}
layer {
  name: "relu1"
  type: "ReLU"
  bottom: "ip1"
  top: "ip1"
}
layer {
  name: "ip2"
  type: "InnerProduct"
  bottom: "ip1"
  top: "ip2"
  param {
    lr_mult: 1
  }
  param {
    lr_mult: 2
  }
  inner_product_param {
    num_output: 10
    weight_filler {
      type: "xavier"
    }
    bias_filler {
      type: "constant"
    }
  }
}
layer {
  name: "relu2"
  type: "ReLU"
  bottom: "ip2"
  top: "ip2"
}
layer {
  name: "loss"
  type: "SoftmaxWithLoss"
  bottom: "ip2"
  bottom: "label"
  top: "loss"
}
I0428 20:32:20.961511  4086 layer_factory.hpp:77] Creating layer mnist
I0428 20:32:20.961614  4086 db_lmdb.cpp:35] Opened lmdb examples/mnist/mnist_train_lmdb
I0428 20:32:20.961639  4086 net.cpp:86] Creating Layer mnist
I0428 20:32:20.961647  4086 net.cpp:382] mnist -> data
I0428 20:32:20.961670  4086 net.cpp:382] mnist -> label
I0428 20:32:20.962757  4086 data_layer.cpp:45] output data size: 64,1,28,28
I0428 20:32:20.965219  4086 net.cpp:124] Setting up mnist
I0428 20:32:20.965236  4086 net.cpp:131] Top shape: 64 1 28 28 (50176)
I0428 20:32:20.965245  4086 net.cpp:131] Top shape: 64 (64)
I0428 20:32:20.965247  4086 net.cpp:139] Memory required for data: 200960
I0428 20:32:20.965255  4086 layer_factory.hpp:77] Creating layer conv0
I0428 20:32:20.965270  4086 net.cpp:86] Creating Layer conv0
I0428 20:32:20.965276  4086 net.cpp:408] conv0 <- data
I0428 20:32:20.965288  4086 net.cpp:382] conv0 -> conv0
I0428 20:32:21.252882  4086 net.cpp:124] Setting up conv0
I0428 20:32:21.252910  4086 net.cpp:131] Top shape: 64 100 24 24 (3686400)
I0428 20:32:21.252914  4086 net.cpp:139] Memory required for data: 14946560
I0428 20:32:21.252949  4086 layer_factory.hpp:77] Creating layer pool0
I0428 20:32:21.252964  4086 net.cpp:86] Creating Layer pool0
I0428 20:32:21.252967  4086 net.cpp:408] pool0 <- conv0
I0428 20:32:21.252972  4086 net.cpp:382] pool0 -> pool0
I0428 20:32:21.253021  4086 net.cpp:124] Setting up pool0
I0428 20:32:21.253027  4086 net.cpp:131] Top shape: 64 100 12 12 (921600)
I0428 20:32:21.253031  4086 net.cpp:139] Memory required for data: 18632960
I0428 20:32:21.253034  4086 layer_factory.hpp:77] Creating layer conv1
I0428 20:32:21.253046  4086 net.cpp:86] Creating Layer conv1
I0428 20:32:21.253048  4086 net.cpp:408] conv1 <- pool0
I0428 20:32:21.253053  4086 net.cpp:382] conv1 -> conv1
I0428 20:32:21.255244  4086 net.cpp:124] Setting up conv1
I0428 20:32:21.255257  4086 net.cpp:131] Top shape: 64 25 8 8 (102400)
I0428 20:32:21.255261  4086 net.cpp:139] Memory required for data: 19042560
I0428 20:32:21.255270  4086 layer_factory.hpp:77] Creating layer pool1
I0428 20:32:21.255276  4086 net.cpp:86] Creating Layer pool1
I0428 20:32:21.255280  4086 net.cpp:408] pool1 <- conv1
I0428 20:32:21.255285  4086 net.cpp:382] pool1 -> pool1
I0428 20:32:21.255336  4086 net.cpp:124] Setting up pool1
I0428 20:32:21.255343  4086 net.cpp:131] Top shape: 64 25 4 4 (25600)
I0428 20:32:21.255347  4086 net.cpp:139] Memory required for data: 19144960
I0428 20:32:21.255350  4086 layer_factory.hpp:77] Creating layer ip1
I0428 20:32:21.255357  4086 net.cpp:86] Creating Layer ip1
I0428 20:32:21.255376  4086 net.cpp:408] ip1 <- pool1
I0428 20:32:21.255381  4086 net.cpp:382] ip1 -> ip1
I0428 20:32:21.255594  4086 net.cpp:124] Setting up ip1
I0428 20:32:21.255601  4086 net.cpp:131] Top shape: 64 50 (3200)
I0428 20:32:21.255604  4086 net.cpp:139] Memory required for data: 19157760
I0428 20:32:21.255611  4086 layer_factory.hpp:77] Creating layer relu1
I0428 20:32:21.255617  4086 net.cpp:86] Creating Layer relu1
I0428 20:32:21.255620  4086 net.cpp:408] relu1 <- ip1
I0428 20:32:21.255625  4086 net.cpp:369] relu1 -> ip1 (in-place)
I0428 20:32:21.255784  4086 net.cpp:124] Setting up relu1
I0428 20:32:21.255792  4086 net.cpp:131] Top shape: 64 50 (3200)
I0428 20:32:21.255795  4086 net.cpp:139] Memory required for data: 19170560
I0428 20:32:21.255800  4086 layer_factory.hpp:77] Creating layer ip2
I0428 20:32:21.255805  4086 net.cpp:86] Creating Layer ip2
I0428 20:32:21.255808  4086 net.cpp:408] ip2 <- ip1
I0428 20:32:21.255812  4086 net.cpp:382] ip2 -> ip2
I0428 20:32:21.255908  4086 net.cpp:124] Setting up ip2
I0428 20:32:21.255915  4086 net.cpp:131] Top shape: 64 10 (640)
I0428 20:32:21.255918  4086 net.cpp:139] Memory required for data: 19173120
I0428 20:32:21.255923  4086 layer_factory.hpp:77] Creating layer relu2
I0428 20:32:21.255929  4086 net.cpp:86] Creating Layer relu2
I0428 20:32:21.255933  4086 net.cpp:408] relu2 <- ip2
I0428 20:32:21.255936  4086 net.cpp:369] relu2 -> ip2 (in-place)
I0428 20:32:21.256638  4086 net.cpp:124] Setting up relu2
I0428 20:32:21.256649  4086 net.cpp:131] Top shape: 64 10 (640)
I0428 20:32:21.256652  4086 net.cpp:139] Memory required for data: 19175680
I0428 20:32:21.256656  4086 layer_factory.hpp:77] Creating layer loss
I0428 20:32:21.256662  4086 net.cpp:86] Creating Layer loss
I0428 20:32:21.256665  4086 net.cpp:408] loss <- ip2
I0428 20:32:21.256670  4086 net.cpp:408] loss <- label
I0428 20:32:21.256675  4086 net.cpp:382] loss -> loss
I0428 20:32:21.256691  4086 layer_factory.hpp:77] Creating layer loss
…
I0428 20:32:21.257350  4086 solver.cpp:173] Creating test net (#0) specified by net file: ECE595/mnist/train_test/var_everything2/lenet_train_test1570.prototxt
I0428 20:32:21.257375  4086 net.cpp:296] The NetState phase (1) differed from the phase (0) specified by a rule in layer mnist
I0428 20:32:21.257459  4086 net.cpp:53] Initializing net from parameters: 
name: "LeNet"
state {
  phase: TEST
}
layer {
  name: "mnist"
  type: "Data"
  top: "data"
  top: "label"
  include {
    phase: TEST
  }
  transform_param {
    scale: 0.00390625
  }
  data_param {
    source: "examples/mnist/mnist_test_lmdb"
    batch_size: 100
    backend: LMDB
  }
}
layer {
  name: "conv0"
  type: "Convolution"
  bottom: "data"
  top: "conv0"
  param {
    lr_mult: 1
  }
  param {
    lr_mult: 2
  }
  convolution_param {
    num_output: 100
    kernel_size: 5
    stride: 1
    weight_filler {
      type: "xavier"
    }
    bias_filler {
      type: "constant"
    }
  }
}
layer {
  name: "pool0"
  type: "Pooling"
  bottom: "conv0"
  top: "pool0"
  pooling_param {
    pool: MAX
    kernel_size: 2
    stride: 2
  }
}
layer {
  name: "conv1"
  type: "Convolution"
  bottom: "pool0"
  top: "conv1"
  param {
    lr_mult: 1
  }
  param {
    lr_mult: 2
  }
  convolution_param {
    num_output: 25
    kernel_size: 5
    stride: 1
    weight_filler {
      type: "xavier"
    }
    bias_filler {
      type: "constant"
    }
  }
}
layer {
  name: "pool1"
  type: "Pooling"
  bottom: "conv1"
  top: "pool1"
  pooling_param {
    pool: MAX
    kernel_size: 2
    stride: 2
  }
}
layer {
  name: "ip1"
  type: "InnerProduct"
  bottom: "pool1"
  top: "ip1"
  param {
    lr_mult: 1
  }
  param {
    lr_mult: 2
  }
  inner_product_param {
    num_output: 50
    weight_filler {
      type: "xavier"
    }
    bias_filler {
      type: "constant"
    }
  }
}
layer {
  name: "relu1"
  type: "ReLU"
  bottom: "ip1"
  top: "ip1"
}
layer {
  name: "ip2"
  type: "InnerProduct"
  bottom: "ip1"
  top: "ip2"
  param {
    lr_mult: 1
  }
  param {
    lr_mult: 2
  }
  inner_product_param {
    num_output: 10
    weight_filler {
      type: "xavier"
    }
    bias_filler {
      type: "constant"
    }
  }
}
layer {
  name: "relu2"
  type: "ReLU"
  bottom: "ip2"
  top: "ip2"
}
layer {
  name: "accuracy"
  type: "Accuracy"
  bottom: "ip2"
  bottom: "label"
  top: "accuracy"
  include {
    phase: TEST
  }
}
layer {
  name: "loss"
  type: "SoftmaxWithLoss"
  bottom: "ip2"
  bottom: "label"
  top: "loss"
}
I0428 20:32:21.257520  4086 layer_factory.hpp:77] Creating layer mnist
I0428 20:32:21.257563  4086 db_lmdb.cpp:35] Opened lmdb examples/mnist/mnist_test_lmdb
I0428 20:32:21.257576  4086 net.cpp:86] Creating Layer mnist
I0428 20:32:21.257580  4086 net.cpp:382] mnist -> data
I0428 20:32:21.257588  4086 net.cpp:382] mnist -> label
I0428 20:32:21.257668  4086 data_layer.cpp:45] output data size: 100,1,28,28
I0428 20:32:21.259589  4086 net.cpp:124] Setting up mnist
I0428 20:32:21.259603  4086 net.cpp:131] Top shape: 100 1 28 28 (78400)
I0428 20:32:21.259624  4086 net.cpp:131] Top shape: 100 (100)
I0428 20:32:21.259626  4086 net.cpp:139] Memory required for data: 314000
I0428 20:32:21.259630  4086 layer_factory.hpp:77] Creating layer label_mnist_1_split
I0428 20:32:21.259637  4086 net.cpp:86] Creating Layer label_mnist_1_split
I0428 20:32:21.259640  4086 net.cpp:408] label_mnist_1_split <- label
I0428 20:32:21.259645  4086 net.cpp:382] label_mnist_1_split -> label_mnist_1_split_0
I0428 20:32:21.259652  4086 net.cpp:382] label_mnist_1_split -> label_mnist_1_split_1
I0428 20:32:21.259737  4086 net.cpp:124] Setting up label_mnist_1_split
I0428 20:32:21.259757  4086 net.cpp:131] Top shape: 100 (100)
I0428 20:32:21.259760  4086 net.cpp:131] Top shape: 100 (100)
I0428 20:32:21.259773  4086 net.cpp:139] Memory required for data: 314800
I0428 20:32:21.259778  4086 layer_factory.hpp:77] Creating layer conv0
I0428 20:32:21.259786  4086 net.cpp:86] Creating Layer conv0
I0428 20:32:21.259795  4086 net.cpp:408] conv0 <- data
I0428 20:32:21.259800  4086 net.cpp:382] conv0 -> conv0
I0428 20:32:21.261524  4086 net.cpp:124] Setting up conv0
I0428 20:32:21.261539  4086 net.cpp:131] Top shape: 100 100 24 24 (5760000)
I0428 20:32:21.261543  4086 net.cpp:139] Memory required for data: 23354800
I0428 20:32:21.261551  4086 layer_factory.hpp:77] Creating layer pool0
I0428 20:32:21.261559  4086 net.cpp:86] Creating Layer pool0
I0428 20:32:21.261562  4086 net.cpp:408] pool0 <- conv0
I0428 20:32:21.261567  4086 net.cpp:382] pool0 -> pool0
I0428 20:32:21.261601  4086 net.cpp:124] Setting up pool0
I0428 20:32:21.261611  4086 net.cpp:131] Top shape: 100 100 12 12 (1440000)
I0428 20:32:21.261615  4086 net.cpp:139] Memory required for data: 29114800
I0428 20:32:21.261618  4086 layer_factory.hpp:77] Creating layer conv1
I0428 20:32:21.261641  4086 net.cpp:86] Creating Layer conv1
I0428 20:32:21.261646  4086 net.cpp:408] conv1 <- pool0
I0428 20:32:21.261651  4086 net.cpp:382] conv1 -> conv1
I0428 20:32:21.263692  4086 net.cpp:124] Setting up conv1
I0428 20:32:21.263705  4086 net.cpp:131] Top shape: 100 25 8 8 (160000)
I0428 20:32:21.263710  4086 net.cpp:139] Memory required for data: 29754800
I0428 20:32:21.263718  4086 layer_factory.hpp:77] Creating layer pool1
I0428 20:32:21.263725  4086 net.cpp:86] Creating Layer pool1
I0428 20:32:21.263728  4086 net.cpp:408] pool1 <- conv1
I0428 20:32:21.263733  4086 net.cpp:382] pool1 -> pool1
I0428 20:32:21.263779  4086 net.cpp:124] Setting up pool1
I0428 20:32:21.263787  4086 net.cpp:131] Top shape: 100 25 4 4 (40000)
I0428 20:32:21.263789  4086 net.cpp:139] Memory required for data: 29914800
I0428 20:32:21.263793  4086 layer_factory.hpp:77] Creating layer ip1
I0428 20:32:21.263799  4086 net.cpp:86] Creating Layer ip1
I0428 20:32:21.263803  4086 net.cpp:408] ip1 <- pool1
I0428 20:32:21.263808  4086 net.cpp:382] ip1 -> ip1
I0428 20:32:21.264045  4086 net.cpp:124] Setting up ip1
I0428 20:32:21.264052  4086 net.cpp:131] Top shape: 100 50 (5000)
I0428 20:32:21.264055  4086 net.cpp:139] Memory required for data: 29934800
I0428 20:32:21.264063  4086 layer_factory.hpp:77] Creating layer relu1
I0428 20:32:21.264068  4086 net.cpp:86] Creating Layer relu1
I0428 20:32:21.264072  4086 net.cpp:408] relu1 <- ip1
I0428 20:32:21.264077  4086 net.cpp:369] relu1 -> ip1 (in-place)
I0428 20:32:21.264252  4086 net.cpp:124] Setting up relu1
I0428 20:32:21.264261  4086 net.cpp:131] Top shape: 100 50 (5000)
I0428 20:32:21.264264  4086 net.cpp:139] Memory required for data: 29954800
I0428 20:32:21.264267  4086 layer_factory.hpp:77] Creating layer ip2
I0428 20:32:21.264274  4086 net.cpp:86] Creating Layer ip2
I0428 20:32:21.264277  4086 net.cpp:408] ip2 <- ip1
I0428 20:32:21.264292  4086 net.cpp:382] ip2 -> ip2
I0428 20:32:21.264389  4086 net.cpp:124] Setting up ip2
I0428 20:32:21.264395  4086 net.cpp:131] Top shape: 100 10 (1000)
I0428 20:32:21.264398  4086 net.cpp:139] Memory required for data: 29958800
I0428 20:32:21.264405  4086 layer_factory.hpp:77] Creating layer relu2
I0428 20:32:21.264410  4086 net.cpp:86] Creating Layer relu2
I0428 20:32:21.264412  4086 net.cpp:408] relu2 <- ip2
I0428 20:32:21.264417  4086 net.cpp:369] relu2 -> ip2 (in-place)
I0428 20:32:21.264583  4086 net.cpp:124] Setting up relu2
I0428 20:32:21.264601  4086 net.cpp:131] Top shape: 100 10 (1000)
I0428 20:32:21.264605  4086 net.cpp:139] Memory required for data: 29962800
I0428 20:32:21.264607  4086 layer_factory.hpp:77] Creating layer ip2_relu2_0_split
I0428 20:32:21.264612  4086 net.cpp:86] Creating Layer ip2_relu2_0_split
I0428 20:32:21.264616  4086 net.cpp:408] ip2_relu2_0_split <- ip2
I0428 20:32:21.264621  4086 net.cpp:382] ip2_relu2_0_split -> ip2_relu2_0_split_0
I0428 20:32:21.264638  4086 net.cpp:382] ip2_relu2_0_split -> ip2_relu2_0_split_1
I0428 20:32:21.264679  4086 net.cpp:124] Setting up ip2_relu2_0_split
I0428 20:32:21.264686  4086 net.cpp:131] Top shape: 100 10 (1000)
I0428 20:32:21.264690  4086 net.cpp:131] Top shape: 100 10 (1000)
I0428 20:32:21.264693  4086 net.cpp:139] Memory required for data: 29970800
I0428 20:32:21.264696  4086 layer_factory.hpp:77] Creating layer accuracy
I0428 20:32:21.264701  4086 net.cpp:86] Creating Layer accuracy
I0428 20:32:21.264704  4086 net.cpp:408] accuracy <- ip2_relu2_0_split_0
I0428 20:32:21.264708  4086 net.cpp:408] accuracy <- label_mnist_1_split_0
I0428 20:32:21.264713  4086 net.cpp:382] accuracy -> accuracy
…
