…
I0428 19:43:06.535709 25262 net.cpp:296] The NetState phase (0) differed from the phase (1) specified by a rule in layer mnist
I0428 19:43:06.535729 25262 net.cpp:296] The NetState phase (0) differed from the phase (1) specified by a rule in layer accuracy
I0428 19:43:06.535832 25262 net.cpp:53] Initializing net from parameters: 
name: "LeNet"
state {
  phase: TRAIN
  level: 0
  stage: ""
}
layer {
  name: "mnist"
  type: "Data"
  top: "data"
  top: "label"
  include {
    phase: TRAIN
  }
  transform_param {
    scale: 0.00390625
  }
  data_param {
    source: "examples/mnist/mnist_train_lmdb"
    batch_size: 64
    backend: LMDB
  }
}
layer {
  name: "conv0"
  type: "Convolution"
  bottom: "data"
  top: "conv0"
  param {
    lr_mult: 1
  }
  param {
    lr_mult: 2
  }
  convolution_param {
    num_output: 2
    kernel_size: 5
    stride: 1
    weight_filler {
      type: "xavier"
    }
    bias_filler {
      type: "constant"
    }
  }
}
layer {
  name: "pool0"
  type: "Pooling"
  bottom: "conv0"
  top: "pool0"
  pooling_param {
    pool: MAX
    kernel_size: 2
    stride: 2
  }
}
layer {
  name: "conv1"
  type: "Convolution"
  bottom: "pool0"
  top: "conv1"
  param {
    lr_mult: 1
  }
  param {
    lr_mult: 2
  }
  convolution_param {
    num_output: 25
    kernel_size: 5
    stride: 1
    weight_filler {
      type: "xavier"
    }
    bias_filler {
      type: "constant"
    }
  }
}
layer {
  name: "pool1"
  type: "Pooling"
  bottom: "conv1"
  top: "pool1"
  pooling_param {
    pool: MAX
    kernel_size: 2
    stride: 2
  }
}
layer {
  name: "ip1"
  type: "InnerProduct"
  bottom: "pool1"
  top: "ip1"
  param {
    lr_mult: 1
  }
  param {
    lr_mult: 2
  }
  inner_product_param {
    num_output: 25
    weight_filler {
      type: "xavier"
    }
    bias_filler {
      type: "constant"
    }
  }
}
layer {
  name: "relu1"
  type: "ReLU"
  bottom: "ip1"
  top: "ip1"
}
layer {
  name: "ip2"
  type: "InnerProduct"
  bottom: "ip1"
  top: "ip2"
  param {
    lr_mult: 1
  }
  param {
    lr_mult: 2
  }
  inner_product_param {
    num_output: 10
    weight_filler {
      type: "xavier"
    }
    bias_filler {
      type: "constant"
    }
  }
}
layer {
  name: "relu2"
  type: "ReLU"
  bottom: "ip2"
  top: "ip2"
}
layer {
  name: "ip3"
  type: "InnerProduct"
  bottom: "ip2"
  top: "ip3"
  param {
    lr_mult: 1
  }
  param {
    lr_mult: 2
  }
  inner_product_param {
    num_output: 10
    weight_filler {
      type: "xavier"
    }
    bias_filler {
      type: "constant"
    }
  }
}
layer {
  name: "relu3"
  type: "ReLU"
  bottom: "ip3"
  top: "ip3"
}
layer {
  name: "loss"
  type: "SoftmaxWithLoss"
  bottom: "ip3"
  bottom: "label"
  top: "loss"
}
I0428 19:43:06.535914 25262 layer_factory.hpp:77] Creating layer mnist
I0428 19:43:06.536015 25262 db_lmdb.cpp:35] Opened lmdb examples/mnist/mnist_train_lmdb
I0428 19:43:06.536038 25262 net.cpp:86] Creating Layer mnist
I0428 19:43:06.536047 25262 net.cpp:382] mnist -> data
I0428 19:43:06.536069 25262 net.cpp:382] mnist -> label
I0428 19:43:06.537159 25262 data_layer.cpp:45] output data size: 64,1,28,28
I0428 19:43:06.539600 25262 net.cpp:124] Setting up mnist
I0428 19:43:06.539618 25262 net.cpp:131] Top shape: 64 1 28 28 (50176)
I0428 19:43:06.539624 25262 net.cpp:131] Top shape: 64 (64)
I0428 19:43:06.539628 25262 net.cpp:139] Memory required for data: 200960
I0428 19:43:06.539635 25262 layer_factory.hpp:77] Creating layer conv0
I0428 19:43:06.539662 25262 net.cpp:86] Creating Layer conv0
I0428 19:43:06.539683 25262 net.cpp:408] conv0 <- data
I0428 19:43:06.539698 25262 net.cpp:382] conv0 -> conv0
I0428 19:43:06.797592 25262 net.cpp:124] Setting up conv0
I0428 19:43:06.797618 25262 net.cpp:131] Top shape: 64 2 24 24 (73728)
I0428 19:43:06.797622 25262 net.cpp:139] Memory required for data: 495872
I0428 19:43:06.797636 25262 layer_factory.hpp:77] Creating layer pool0
I0428 19:43:06.797664 25262 net.cpp:86] Creating Layer pool0
I0428 19:43:06.797668 25262 net.cpp:408] pool0 <- conv0
I0428 19:43:06.797674 25262 net.cpp:382] pool0 -> pool0
I0428 19:43:06.797719 25262 net.cpp:124] Setting up pool0
I0428 19:43:06.797729 25262 net.cpp:131] Top shape: 64 2 12 12 (18432)
I0428 19:43:06.797731 25262 net.cpp:139] Memory required for data: 569600
I0428 19:43:06.797734 25262 layer_factory.hpp:77] Creating layer conv1
I0428 19:43:06.797746 25262 net.cpp:86] Creating Layer conv1
I0428 19:43:06.797749 25262 net.cpp:408] conv1 <- pool0
I0428 19:43:06.797755 25262 net.cpp:382] conv1 -> conv1
I0428 19:43:06.800544 25262 net.cpp:124] Setting up conv1
I0428 19:43:06.800573 25262 net.cpp:131] Top shape: 64 25 8 8 (102400)
I0428 19:43:06.800577 25262 net.cpp:139] Memory required for data: 979200
I0428 19:43:06.800585 25262 layer_factory.hpp:77] Creating layer pool1
I0428 19:43:06.800591 25262 net.cpp:86] Creating Layer pool1
I0428 19:43:06.800595 25262 net.cpp:408] pool1 <- conv1
I0428 19:43:06.800599 25262 net.cpp:382] pool1 -> pool1
I0428 19:43:06.800652 25262 net.cpp:124] Setting up pool1
I0428 19:43:06.800657 25262 net.cpp:131] Top shape: 64 25 4 4 (25600)
I0428 19:43:06.800659 25262 net.cpp:139] Memory required for data: 1081600
I0428 19:43:06.800662 25262 layer_factory.hpp:77] Creating layer ip1
I0428 19:43:06.800669 25262 net.cpp:86] Creating Layer ip1
I0428 19:43:06.800673 25262 net.cpp:408] ip1 <- pool1
I0428 19:43:06.800679 25262 net.cpp:382] ip1 -> ip1
I0428 19:43:06.801702 25262 net.cpp:124] Setting up ip1
I0428 19:43:06.801714 25262 net.cpp:131] Top shape: 64 25 (1600)
I0428 19:43:06.801733 25262 net.cpp:139] Memory required for data: 1088000
I0428 19:43:06.801758 25262 layer_factory.hpp:77] Creating layer relu1
I0428 19:43:06.801765 25262 net.cpp:86] Creating Layer relu1
I0428 19:43:06.801769 25262 net.cpp:408] relu1 <- ip1
I0428 19:43:06.801774 25262 net.cpp:369] relu1 -> ip1 (in-place)
I0428 19:43:06.801985 25262 net.cpp:124] Setting up relu1
I0428 19:43:06.801995 25262 net.cpp:131] Top shape: 64 25 (1600)
I0428 19:43:06.801998 25262 net.cpp:139] Memory required for data: 1094400
I0428 19:43:06.802002 25262 layer_factory.hpp:77] Creating layer ip2
I0428 19:43:06.802008 25262 net.cpp:86] Creating Layer ip2
I0428 19:43:06.802011 25262 net.cpp:408] ip2 <- ip1
I0428 19:43:06.802017 25262 net.cpp:382] ip2 -> ip2
I0428 19:43:06.802129 25262 net.cpp:124] Setting up ip2
I0428 19:43:06.802136 25262 net.cpp:131] Top shape: 64 10 (640)
I0428 19:43:06.802139 25262 net.cpp:139] Memory required for data: 1096960
I0428 19:43:06.802145 25262 layer_factory.hpp:77] Creating layer relu2
I0428 19:43:06.802151 25262 net.cpp:86] Creating Layer relu2
I0428 19:43:06.802155 25262 net.cpp:408] relu2 <- ip2
I0428 19:43:06.802158 25262 net.cpp:369] relu2 -> ip2 (in-place)
I0428 19:43:06.802911 25262 net.cpp:124] Setting up relu2
I0428 19:43:06.802923 25262 net.cpp:131] Top shape: 64 10 (640)
I0428 19:43:06.802937 25262 net.cpp:139] Memory required for data: 1099520
I0428 19:43:06.802940 25262 layer_factory.hpp:77] Creating layer ip3
I0428 19:43:06.802963 25262 net.cpp:86] Creating Layer ip3
I0428 19:43:06.802968 25262 net.cpp:408] ip3 <- ip2
I0428 19:43:06.802976 25262 net.cpp:382] ip3 -> ip3
I0428 19:43:06.803122 25262 net.cpp:124] Setting up ip3
I0428 19:43:06.803133 25262 net.cpp:131] Top shape: 64 10 (640)
I0428 19:43:06.803135 25262 net.cpp:139] Memory required for data: 1102080
I0428 19:43:06.803144 25262 layer_factory.hpp:77] Creating layer relu3
I0428 19:43:06.803150 25262 net.cpp:86] Creating Layer relu3
I0428 19:43:06.803153 25262 net.cpp:408] relu3 <- ip3
I0428 19:43:06.803172 25262 net.cpp:369] relu3 -> ip3 (in-place)
I0428 19:43:06.803364 25262 net.cpp:124] Setting up relu3
I0428 19:43:06.803372 25262 net.cpp:131] Top shape: 64 10 (640)
I0428 19:43:06.803375 25262 net.cpp:139] Memory required for data: 1104640
I0428 19:43:06.803378 25262 layer_factory.hpp:77] Creating layer loss
I0428 19:43:06.803385 25262 net.cpp:86] Creating Layer loss
I0428 19:43:06.803388 25262 net.cpp:408] loss <- ip3
I0428 19:43:06.803392 25262 net.cpp:408] loss <- label
I0428 19:43:06.803397 25262 net.cpp:382] loss -> loss
I0428 19:43:06.803414 25262 layer_factory.hpp:77] Creating layer loss
…
I0428 19:43:06.804121 25262 solver.cpp:173] Creating test net (#0) specified by net file: ECE595/mnist/train_test/var_everything2/lenet_train_test412.prototxt
I0428 19:43:06.804177 25262 net.cpp:296] The NetState phase (1) differed from the phase (0) specified by a rule in layer mnist
I0428 19:43:06.804270 25262 net.cpp:53] Initializing net from parameters: 
name: "LeNet"
state {
  phase: TEST
}
layer {
  name: "mnist"
  type: "Data"
  top: "data"
  top: "label"
  include {
    phase: TEST
  }
  transform_param {
    scale: 0.00390625
  }
  data_param {
    source: "examples/mnist/mnist_test_lmdb"
    batch_size: 100
    backend: LMDB
  }
}
layer {
  name: "conv0"
  type: "Convolution"
  bottom: "data"
  top: "conv0"
  param {
    lr_mult: 1
  }
  param {
    lr_mult: 2
  }
  convolution_param {
    num_output: 2
    kernel_size: 5
    stride: 1
    weight_filler {
      type: "xavier"
    }
    bias_filler {
      type: "constant"
    }
  }
}
layer {
  name: "pool0"
  type: "Pooling"
  bottom: "conv0"
  top: "pool0"
  pooling_param {
    pool: MAX
    kernel_size: 2
    stride: 2
  }
}
layer {
  name: "conv1"
  type: "Convolution"
  bottom: "pool0"
  top: "conv1"
  param {
    lr_mult: 1
  }
  param {
    lr_mult: 2
  }
  convolution_param {
    num_output: 25
    kernel_size: 5
    stride: 1
    weight_filler {
      type: "xavier"
    }
    bias_filler {
      type: "constant"
    }
  }
}
layer {
  name: "pool1"
  type: "Pooling"
  bottom: "conv1"
  top: "pool1"
  pooling_param {
    pool: MAX
    kernel_size: 2
    stride: 2
  }
}
layer {
  name: "ip1"
  type: "InnerProduct"
  bottom: "pool1"
  top: "ip1"
  param {
    lr_mult: 1
  }
  param {
    lr_mult: 2
  }
  inner_product_param {
    num_output: 25
    weight_filler {
      type: "xavier"
    }
    bias_filler {
      type: "constant"
    }
  }
}
layer {
  name: "relu1"
  type: "ReLU"
  bottom: "ip1"
  top: "ip1"
}
layer {
  name: "ip2"
  type: "InnerProduct"
  bottom: "ip1"
  top: "ip2"
  param {
    lr_mult: 1
  }
  param {
    lr_mult: 2
  }
  inner_product_param {
    num_output: 10
    weight_filler {
      type: "xavier"
    }
    bias_filler {
      type: "constant"
    }
  }
}
layer {
  name: "relu2"
  type: "ReLU"
  bottom: "ip2"
  top: "ip2"
}
layer {
  name: "ip3"
  type: "InnerProduct"
  bottom: "ip2"
  top: "ip3"
  param {
    lr_mult: 1
  }
  param {
    lr_mult: 2
  }
  inner_product_param {
    num_output: 10
    weight_filler {
      type: "xavier"
    }
    bias_filler {
      type: "constant"
    }
  }
}
layer {
  name: "relu3"
  type: "ReLU"
  bottom: "ip3"
  top: "ip3"
}
layer {
  name: "accuracy"
  type: "Accuracy"
  bottom: "ip3"
  bottom: "label"
  top: "accuracy"
  include {
    phase: TEST
  }
}
layer {
  name: "loss"
  type: "SoftmaxWithLoss"
  bottom: "ip3"
  bottom: "label"
  top: "loss"
}
I0428 19:43:06.804354 25262 layer_factory.hpp:77] Creating layer mnist
I0428 19:43:06.804409 25262 db_lmdb.cpp:35] Opened lmdb examples/mnist/mnist_test_lmdb
I0428 19:43:06.804421 25262 net.cpp:86] Creating Layer mnist
I0428 19:43:06.804425 25262 net.cpp:382] mnist -> data
I0428 19:43:06.804435 25262 net.cpp:382] mnist -> label
I0428 19:43:06.804517 25262 data_layer.cpp:45] output data size: 100,1,28,28
I0428 19:43:06.806712 25262 net.cpp:124] Setting up mnist
I0428 19:43:06.806740 25262 net.cpp:131] Top shape: 100 1 28 28 (78400)
I0428 19:43:06.806746 25262 net.cpp:131] Top shape: 100 (100)
I0428 19:43:06.806748 25262 net.cpp:139] Memory required for data: 314000
I0428 19:43:06.806751 25262 layer_factory.hpp:77] Creating layer label_mnist_1_split
I0428 19:43:06.806782 25262 net.cpp:86] Creating Layer label_mnist_1_split
I0428 19:43:06.806787 25262 net.cpp:408] label_mnist_1_split <- label
I0428 19:43:06.806792 25262 net.cpp:382] label_mnist_1_split -> label_mnist_1_split_0
I0428 19:43:06.806809 25262 net.cpp:382] label_mnist_1_split -> label_mnist_1_split_1
I0428 19:43:06.806846 25262 net.cpp:124] Setting up label_mnist_1_split
I0428 19:43:06.806851 25262 net.cpp:131] Top shape: 100 (100)
I0428 19:43:06.806854 25262 net.cpp:131] Top shape: 100 (100)
I0428 19:43:06.806857 25262 net.cpp:139] Memory required for data: 314800
I0428 19:43:06.806860 25262 layer_factory.hpp:77] Creating layer conv0
I0428 19:43:06.806882 25262 net.cpp:86] Creating Layer conv0
I0428 19:43:06.806885 25262 net.cpp:408] conv0 <- data
I0428 19:43:06.806891 25262 net.cpp:382] conv0 -> conv0
I0428 19:43:06.808758 25262 net.cpp:124] Setting up conv0
I0428 19:43:06.808773 25262 net.cpp:131] Top shape: 100 2 24 24 (115200)
I0428 19:43:06.808776 25262 net.cpp:139] Memory required for data: 775600
I0428 19:43:06.808785 25262 layer_factory.hpp:77] Creating layer pool0
I0428 19:43:06.808791 25262 net.cpp:86] Creating Layer pool0
I0428 19:43:06.808794 25262 net.cpp:408] pool0 <- conv0
I0428 19:43:06.808816 25262 net.cpp:382] pool0 -> pool0
I0428 19:43:06.808887 25262 net.cpp:124] Setting up pool0
I0428 19:43:06.808893 25262 net.cpp:131] Top shape: 100 2 12 12 (28800)
I0428 19:43:06.808897 25262 net.cpp:139] Memory required for data: 890800
I0428 19:43:06.808899 25262 layer_factory.hpp:77] Creating layer conv1
I0428 19:43:06.808909 25262 net.cpp:86] Creating Layer conv1
I0428 19:43:06.808928 25262 net.cpp:408] conv1 <- pool0
I0428 19:43:06.808934 25262 net.cpp:382] conv1 -> conv1
I0428 19:43:06.810643 25262 net.cpp:124] Setting up conv1
I0428 19:43:06.810657 25262 net.cpp:131] Top shape: 100 25 8 8 (160000)
I0428 19:43:06.810660 25262 net.cpp:139] Memory required for data: 1530800
I0428 19:43:06.810668 25262 layer_factory.hpp:77] Creating layer pool1
I0428 19:43:06.810696 25262 net.cpp:86] Creating Layer pool1
I0428 19:43:06.810699 25262 net.cpp:408] pool1 <- conv1
I0428 19:43:06.810706 25262 net.cpp:382] pool1 -> pool1
I0428 19:43:06.810748 25262 net.cpp:124] Setting up pool1
I0428 19:43:06.810765 25262 net.cpp:131] Top shape: 100 25 4 4 (40000)
I0428 19:43:06.810768 25262 net.cpp:139] Memory required for data: 1690800
I0428 19:43:06.810771 25262 layer_factory.hpp:77] Creating layer ip1
I0428 19:43:06.810777 25262 net.cpp:86] Creating Layer ip1
I0428 19:43:06.810781 25262 net.cpp:408] ip1 <- pool1
I0428 19:43:06.810791 25262 net.cpp:382] ip1 -> ip1
I0428 19:43:06.810974 25262 net.cpp:124] Setting up ip1
I0428 19:43:06.810981 25262 net.cpp:131] Top shape: 100 25 (2500)
I0428 19:43:06.810993 25262 net.cpp:139] Memory required for data: 1700800
I0428 19:43:06.811002 25262 layer_factory.hpp:77] Creating layer relu1
I0428 19:43:06.811009 25262 net.cpp:86] Creating Layer relu1
I0428 19:43:06.811012 25262 net.cpp:408] relu1 <- ip1
I0428 19:43:06.811017 25262 net.cpp:369] relu1 -> ip1 (in-place)
I0428 19:43:06.811200 25262 net.cpp:124] Setting up relu1
I0428 19:43:06.811209 25262 net.cpp:131] Top shape: 100 25 (2500)
I0428 19:43:06.811213 25262 net.cpp:139] Memory required for data: 1710800
I0428 19:43:06.811215 25262 layer_factory.hpp:77] Creating layer ip2
I0428 19:43:06.811233 25262 net.cpp:86] Creating Layer ip2
I0428 19:43:06.811238 25262 net.cpp:408] ip2 <- ip1
I0428 19:43:06.811249 25262 net.cpp:382] ip2 -> ip2
I0428 19:43:06.811350 25262 net.cpp:124] Setting up ip2
I0428 19:43:06.811357 25262 net.cpp:131] Top shape: 100 10 (1000)
I0428 19:43:06.811359 25262 net.cpp:139] Memory required for data: 1714800
I0428 19:43:06.811364 25262 layer_factory.hpp:77] Creating layer relu2
I0428 19:43:06.811369 25262 net.cpp:86] Creating Layer relu2
I0428 19:43:06.811372 25262 net.cpp:408] relu2 <- ip2
I0428 19:43:06.811378 25262 net.cpp:369] relu2 -> ip2 (in-place)
I0428 19:43:06.811547 25262 net.cpp:124] Setting up relu2
I0428 19:43:06.811554 25262 net.cpp:131] Top shape: 100 10 (1000)
I0428 19:43:06.811558 25262 net.cpp:139] Memory required for data: 1718800
I0428 19:43:06.811559 25262 layer_factory.hpp:77] Creating layer ip3
I0428 19:43:06.811566 25262 net.cpp:86] Creating Layer ip3
I0428 19:43:06.811569 25262 net.cpp:408] ip3 <- ip2
I0428 19:43:06.811594 25262 net.cpp:382] ip3 -> ip3
I0428 19:43:06.811702 25262 net.cpp:124] Setting up ip3
I0428 19:43:06.811709 25262 net.cpp:131] Top shape: 100 10 (1000)
I0428 19:43:06.811712 25262 net.cpp:139] Memory required for data: 1722800
I0428 19:43:06.811720 25262 layer_factory.hpp:77] Creating layer relu3
I0428 19:43:06.811727 25262 net.cpp:86] Creating Layer relu3
I0428 19:43:06.811729 25262 net.cpp:408] relu3 <- ip3
I0428 19:43:06.811733 25262 net.cpp:369] relu3 -> ip3 (in-place)
I0428 19:43:06.812604 25262 net.cpp:124] Setting up relu3
I0428 19:43:06.812616 25262 net.cpp:131] Top shape: 100 10 (1000)
I0428 19:43:06.812619 25262 net.cpp:139] Memory required for data: 1726800
I0428 19:43:06.812623 25262 layer_factory.hpp:77] Creating layer ip3_relu3_0_split
I0428 19:43:06.812628 25262 net.cpp:86] Creating Layer ip3_relu3_0_split
I0428 19:43:06.812633 25262 net.cpp:408] ip3_relu3_0_split <- ip3
I0428 19:43:06.812636 25262 net.cpp:382] ip3_relu3_0_split -> ip3_relu3_0_split_0
I0428 19:43:06.812643 25262 net.cpp:382] ip3_relu3_0_split -> ip3_relu3_0_split_1
I0428 19:43:06.812708 25262 net.cpp:124] Setting up ip3_relu3_0_split
I0428 19:43:06.812716 25262 net.cpp:131] Top shape: 100 10 (1000)
I0428 19:43:06.812719 25262 net.cpp:131] Top shape: 100 10 (1000)
I0428 19:43:06.812722 25262 net.cpp:139] Memory required for data: 1734800
I0428 19:43:06.812724 25262 layer_factory.hpp:77] Creating layer accuracy
I0428 19:43:06.812731 25262 net.cpp:86] Creating Layer accuracy
I0428 19:43:06.812733 25262 net.cpp:408] accuracy <- ip3_relu3_0_split_0
I0428 19:43:06.812737 25262 net.cpp:408] accuracy <- label_mnist_1_split_0
I0428 19:43:06.812743 25262 net.cpp:382] accuracy -> accuracy
…
