…
I0428 19:41:37.908356 24870 net.cpp:296] The NetState phase (0) differed from the phase (1) specified by a rule in layer mnist
I0428 19:41:37.908375 24870 net.cpp:296] The NetState phase (0) differed from the phase (1) specified by a rule in layer accuracy
I0428 19:41:37.908479 24870 net.cpp:53] Initializing net from parameters: 
name: "LeNet"
state {
  phase: TRAIN
  level: 0
  stage: ""
}
layer {
  name: "mnist"
  type: "Data"
  top: "data"
  top: "label"
  include {
    phase: TRAIN
  }
  transform_param {
    scale: 0.00390625
  }
  data_param {
    source: "examples/mnist/mnist_train_lmdb"
    batch_size: 64
    backend: LMDB
  }
}
layer {
  name: "conv0"
  type: "Convolution"
  bottom: "data"
  top: "conv0"
  param {
    lr_mult: 1
  }
  param {
    lr_mult: 2
  }
  convolution_param {
    num_output: 2
    kernel_size: 5
    stride: 1
    weight_filler {
      type: "xavier"
    }
    bias_filler {
      type: "constant"
    }
  }
}
layer {
  name: "pool0"
  type: "Pooling"
  bottom: "conv0"
  top: "pool0"
  pooling_param {
    pool: MAX
    kernel_size: 2
    stride: 2
  }
}
layer {
  name: "conv1"
  type: "Convolution"
  bottom: "pool0"
  top: "conv1"
  param {
    lr_mult: 1
  }
  param {
    lr_mult: 2
  }
  convolution_param {
    num_output: 10
    kernel_size: 5
    stride: 1
    weight_filler {
      type: "xavier"
    }
    bias_filler {
      type: "constant"
    }
  }
}
layer {
  name: "pool1"
  type: "Pooling"
  bottom: "conv1"
  top: "pool1"
  pooling_param {
    pool: MAX
    kernel_size: 2
    stride: 2
  }
}
layer {
  name: "ip1"
  type: "InnerProduct"
  bottom: "pool1"
  top: "ip1"
  param {
    lr_mult: 1
  }
  param {
    lr_mult: 2
  }
  inner_product_param {
    num_output: 10
    weight_filler {
      type: "xavier"
    }
    bias_filler {
      type: "constant"
    }
  }
}
layer {
  name: "relu1"
  type: "ReLU"
  bottom: "ip1"
  top: "ip1"
}
layer {
  name: "ip2"
  type: "InnerProduct"
  bottom: "ip1"
  top: "ip2"
  param {
    lr_mult: 1
  }
  param {
    lr_mult: 2
  }
  inner_product_param {
    num_output: 50
    weight_filler {
      type: "xavier"
    }
    bias_filler {
      type: "constant"
    }
  }
}
layer {
  name: "relu2"
  type: "ReLU"
  bottom: "ip2"
  top: "ip2"
}
layer {
  name: "ip3"
  type: "InnerProduct"
  bottom: "ip2"
  top: "ip3"
  param {
    lr_mult: 1
  }
  param {
    lr_mult: 2
  }
  inner_product_param {
    num_output: 10
    weight_filler {
      type: "xavier"
    }
    bias_filler {
      type: "constant"
    }
  }
}
layer {
  name: "relu3"
  type: "ReLU"
  bottom: "ip3"
  top: "ip3"
}
layer {
  name: "loss"
  type: "SoftmaxWithLoss"
  bottom: "ip3"
  bottom: "label"
  top: "loss"
}
I0428 19:41:37.908560 24870 layer_factory.hpp:77] Creating layer mnist
I0428 19:41:37.908658 24870 db_lmdb.cpp:35] Opened lmdb examples/mnist/mnist_train_lmdb
I0428 19:41:37.908681 24870 net.cpp:86] Creating Layer mnist
I0428 19:41:37.908690 24870 net.cpp:382] mnist -> data
I0428 19:41:37.908712 24870 net.cpp:382] mnist -> label
I0428 19:41:37.909847 24870 data_layer.cpp:45] output data size: 64,1,28,28
I0428 19:41:37.912515 24870 net.cpp:124] Setting up mnist
I0428 19:41:37.912535 24870 net.cpp:131] Top shape: 64 1 28 28 (50176)
I0428 19:41:37.912542 24870 net.cpp:131] Top shape: 64 (64)
I0428 19:41:37.912545 24870 net.cpp:139] Memory required for data: 200960
I0428 19:41:37.912552 24870 layer_factory.hpp:77] Creating layer conv0
I0428 19:41:37.912572 24870 net.cpp:86] Creating Layer conv0
I0428 19:41:37.912603 24870 net.cpp:408] conv0 <- data
I0428 19:41:37.912616 24870 net.cpp:382] conv0 -> conv0
I0428 19:41:38.199843 24870 net.cpp:124] Setting up conv0
I0428 19:41:38.199877 24870 net.cpp:131] Top shape: 64 2 24 24 (73728)
I0428 19:41:38.199882 24870 net.cpp:139] Memory required for data: 495872
I0428 19:41:38.199899 24870 layer_factory.hpp:77] Creating layer pool0
I0428 19:41:38.199915 24870 net.cpp:86] Creating Layer pool0
I0428 19:41:38.199920 24870 net.cpp:408] pool0 <- conv0
I0428 19:41:38.199926 24870 net.cpp:382] pool0 -> pool0
I0428 19:41:38.199981 24870 net.cpp:124] Setting up pool0
I0428 19:41:38.199988 24870 net.cpp:131] Top shape: 64 2 12 12 (18432)
I0428 19:41:38.199991 24870 net.cpp:139] Memory required for data: 569600
I0428 19:41:38.199995 24870 layer_factory.hpp:77] Creating layer conv1
I0428 19:41:38.200008 24870 net.cpp:86] Creating Layer conv1
I0428 19:41:38.200012 24870 net.cpp:408] conv1 <- pool0
I0428 19:41:38.200017 24870 net.cpp:382] conv1 -> conv1
I0428 19:41:38.202147 24870 net.cpp:124] Setting up conv1
I0428 19:41:38.202165 24870 net.cpp:131] Top shape: 64 10 8 8 (40960)
I0428 19:41:38.202170 24870 net.cpp:139] Memory required for data: 733440
I0428 19:41:38.202180 24870 layer_factory.hpp:77] Creating layer pool1
I0428 19:41:38.202189 24870 net.cpp:86] Creating Layer pool1
I0428 19:41:38.202194 24870 net.cpp:408] pool1 <- conv1
I0428 19:41:38.202200 24870 net.cpp:382] pool1 -> pool1
I0428 19:41:38.202244 24870 net.cpp:124] Setting up pool1
I0428 19:41:38.202251 24870 net.cpp:131] Top shape: 64 10 4 4 (10240)
I0428 19:41:38.202255 24870 net.cpp:139] Memory required for data: 774400
I0428 19:41:38.202258 24870 layer_factory.hpp:77] Creating layer ip1
I0428 19:41:38.202266 24870 net.cpp:86] Creating Layer ip1
I0428 19:41:38.202270 24870 net.cpp:408] ip1 <- pool1
I0428 19:41:38.202276 24870 net.cpp:382] ip1 -> ip1
I0428 19:41:38.203368 24870 net.cpp:124] Setting up ip1
I0428 19:41:38.203384 24870 net.cpp:131] Top shape: 64 10 (640)
I0428 19:41:38.203388 24870 net.cpp:139] Memory required for data: 776960
I0428 19:41:38.203398 24870 layer_factory.hpp:77] Creating layer relu1
I0428 19:41:38.203405 24870 net.cpp:86] Creating Layer relu1
I0428 19:41:38.203409 24870 net.cpp:408] relu1 <- ip1
I0428 19:41:38.203416 24870 net.cpp:369] relu1 -> ip1 (in-place)
I0428 19:41:38.203614 24870 net.cpp:124] Setting up relu1
I0428 19:41:38.203625 24870 net.cpp:131] Top shape: 64 10 (640)
I0428 19:41:38.203629 24870 net.cpp:139] Memory required for data: 779520
I0428 19:41:38.203634 24870 layer_factory.hpp:77] Creating layer ip2
I0428 19:41:38.203641 24870 net.cpp:86] Creating Layer ip2
I0428 19:41:38.203645 24870 net.cpp:408] ip2 <- ip1
I0428 19:41:38.203651 24870 net.cpp:382] ip2 -> ip2
I0428 19:41:38.203773 24870 net.cpp:124] Setting up ip2
I0428 19:41:38.203781 24870 net.cpp:131] Top shape: 64 50 (3200)
I0428 19:41:38.203785 24870 net.cpp:139] Memory required for data: 792320
I0428 19:41:38.203791 24870 layer_factory.hpp:77] Creating layer relu2
I0428 19:41:38.203799 24870 net.cpp:86] Creating Layer relu2
I0428 19:41:38.203802 24870 net.cpp:408] relu2 <- ip2
I0428 19:41:38.203807 24870 net.cpp:369] relu2 -> ip2 (in-place)
I0428 19:41:38.204660 24870 net.cpp:124] Setting up relu2
I0428 19:41:38.204675 24870 net.cpp:131] Top shape: 64 50 (3200)
I0428 19:41:38.204680 24870 net.cpp:139] Memory required for data: 805120
I0428 19:41:38.204684 24870 layer_factory.hpp:77] Creating layer ip3
I0428 19:41:38.204692 24870 net.cpp:86] Creating Layer ip3
I0428 19:41:38.204696 24870 net.cpp:408] ip3 <- ip2
I0428 19:41:38.204702 24870 net.cpp:382] ip3 -> ip3
I0428 19:41:38.204833 24870 net.cpp:124] Setting up ip3
I0428 19:41:38.204843 24870 net.cpp:131] Top shape: 64 10 (640)
I0428 19:41:38.204848 24870 net.cpp:139] Memory required for data: 807680
I0428 19:41:38.204857 24870 layer_factory.hpp:77] Creating layer relu3
I0428 19:41:38.204864 24870 net.cpp:86] Creating Layer relu3
I0428 19:41:38.204866 24870 net.cpp:408] relu3 <- ip3
I0428 19:41:38.204872 24870 net.cpp:369] relu3 -> ip3 (in-place)
I0428 19:41:38.205071 24870 net.cpp:124] Setting up relu3
I0428 19:41:38.205083 24870 net.cpp:131] Top shape: 64 10 (640)
I0428 19:41:38.205087 24870 net.cpp:139] Memory required for data: 810240
I0428 19:41:38.205090 24870 layer_factory.hpp:77] Creating layer loss
I0428 19:41:38.205098 24870 net.cpp:86] Creating Layer loss
I0428 19:41:38.205102 24870 net.cpp:408] loss <- ip3
I0428 19:41:38.205107 24870 net.cpp:408] loss <- label
I0428 19:41:38.205113 24870 net.cpp:382] loss -> loss
I0428 19:41:38.205134 24870 layer_factory.hpp:77] Creating layer loss
…
I0428 19:41:38.205873 24870 solver.cpp:173] Creating test net (#0) specified by net file: ECE595/mnist/train_test/var_everything2/lenet_train_test370.prototxt
I0428 19:41:38.205904 24870 net.cpp:296] The NetState phase (1) differed from the phase (0) specified by a rule in layer mnist
I0428 19:41:38.206010 24870 net.cpp:53] Initializing net from parameters: 
name: "LeNet"
state {
  phase: TEST
}
layer {
  name: "mnist"
  type: "Data"
  top: "data"
  top: "label"
  include {
    phase: TEST
  }
  transform_param {
    scale: 0.00390625
  }
  data_param {
    source: "examples/mnist/mnist_test_lmdb"
    batch_size: 100
    backend: LMDB
  }
}
layer {
  name: "conv0"
  type: "Convolution"
  bottom: "data"
  top: "conv0"
  param {
    lr_mult: 1
  }
  param {
    lr_mult: 2
  }
  convolution_param {
    num_output: 2
    kernel_size: 5
    stride: 1
    weight_filler {
      type: "xavier"
    }
    bias_filler {
      type: "constant"
    }
  }
}
layer {
  name: "pool0"
  type: "Pooling"
  bottom: "conv0"
  top: "pool0"
  pooling_param {
    pool: MAX
    kernel_size: 2
    stride: 2
  }
}
layer {
  name: "conv1"
  type: "Convolution"
  bottom: "pool0"
  top: "conv1"
  param {
    lr_mult: 1
  }
  param {
    lr_mult: 2
  }
  convolution_param {
    num_output: 10
    kernel_size: 5
    stride: 1
    weight_filler {
      type: "xavier"
    }
    bias_filler {
      type: "constant"
    }
  }
}
layer {
  name: "pool1"
  type: "Pooling"
  bottom: "conv1"
  top: "pool1"
  pooling_param {
    pool: MAX
    kernel_size: 2
    stride: 2
  }
}
layer {
  name: "ip1"
  type: "InnerProduct"
  bottom: "pool1"
  top: "ip1"
  param {
    lr_mult: 1
  }
  param {
    lr_mult: 2
  }
  inner_product_param {
    num_output: 10
    weight_filler {
      type: "xavier"
    }
    bias_filler {
      type: "constant"
    }
  }
}
layer {
  name: "relu1"
  type: "ReLU"
  bottom: "ip1"
  top: "ip1"
}
layer {
  name: "ip2"
  type: "InnerProduct"
  bottom: "ip1"
  top: "ip2"
  param {
    lr_mult: 1
  }
  param {
    lr_mult: 2
  }
  inner_product_param {
    num_output: 50
    weight_filler {
      type: "xavier"
    }
    bias_filler {
      type: "constant"
    }
  }
}
layer {
  name: "relu2"
  type: "ReLU"
  bottom: "ip2"
  top: "ip2"
}
layer {
  name: "ip3"
  type: "InnerProduct"
  bottom: "ip2"
  top: "ip3"
  param {
    lr_mult: 1
  }
  param {
    lr_mult: 2
  }
  inner_product_param {
    num_output: 10
    weight_filler {
      type: "xavier"
    }
    bias_filler {
      type: "constant"
    }
  }
}
layer {
  name: "relu3"
  type: "ReLU"
  bottom: "ip3"
  top: "ip3"
}
layer {
  name: "accuracy"
  type: "Accuracy"
  bottom: "ip3"
  bottom: "label"
  top: "accuracy"
  include {
    phase: TEST
  }
}
layer {
  name: "loss"
  type: "SoftmaxWithLoss"
  bottom: "ip3"
  bottom: "label"
  top: "loss"
}
I0428 19:41:38.206104 24870 layer_factory.hpp:77] Creating layer mnist
I0428 19:41:38.206158 24870 db_lmdb.cpp:35] Opened lmdb examples/mnist/mnist_test_lmdb
I0428 19:41:38.206173 24870 net.cpp:86] Creating Layer mnist
I0428 19:41:38.206178 24870 net.cpp:382] mnist -> data
I0428 19:41:38.206187 24870 net.cpp:382] mnist -> label
I0428 19:41:38.206290 24870 data_layer.cpp:45] output data size: 100,1,28,28
I0428 19:41:38.208478 24870 net.cpp:124] Setting up mnist
I0428 19:41:38.208495 24870 net.cpp:131] Top shape: 100 1 28 28 (78400)
I0428 19:41:38.208501 24870 net.cpp:131] Top shape: 100 (100)
I0428 19:41:38.208505 24870 net.cpp:139] Memory required for data: 314000
I0428 19:41:38.208509 24870 layer_factory.hpp:77] Creating layer label_mnist_1_split
I0428 19:41:38.208523 24870 net.cpp:86] Creating Layer label_mnist_1_split
I0428 19:41:38.208526 24870 net.cpp:408] label_mnist_1_split <- label
I0428 19:41:38.208533 24870 net.cpp:382] label_mnist_1_split -> label_mnist_1_split_0
I0428 19:41:38.208540 24870 net.cpp:382] label_mnist_1_split -> label_mnist_1_split_1
I0428 19:41:38.208590 24870 net.cpp:124] Setting up label_mnist_1_split
I0428 19:41:38.208597 24870 net.cpp:131] Top shape: 100 (100)
I0428 19:41:38.208601 24870 net.cpp:131] Top shape: 100 (100)
I0428 19:41:38.208606 24870 net.cpp:139] Memory required for data: 314800
I0428 19:41:38.208608 24870 layer_factory.hpp:77] Creating layer conv0
I0428 19:41:38.208618 24870 net.cpp:86] Creating Layer conv0
I0428 19:41:38.208622 24870 net.cpp:408] conv0 <- data
I0428 19:41:38.208628 24870 net.cpp:382] conv0 -> conv0
I0428 19:41:38.210578 24870 net.cpp:124] Setting up conv0
I0428 19:41:38.210595 24870 net.cpp:131] Top shape: 100 2 24 24 (115200)
I0428 19:41:38.210600 24870 net.cpp:139] Memory required for data: 775600
I0428 19:41:38.210610 24870 layer_factory.hpp:77] Creating layer pool0
I0428 19:41:38.210618 24870 net.cpp:86] Creating Layer pool0
I0428 19:41:38.210623 24870 net.cpp:408] pool0 <- conv0
I0428 19:41:38.210628 24870 net.cpp:382] pool0 -> pool0
I0428 19:41:38.210670 24870 net.cpp:124] Setting up pool0
I0428 19:41:38.210676 24870 net.cpp:131] Top shape: 100 2 12 12 (28800)
I0428 19:41:38.210680 24870 net.cpp:139] Memory required for data: 890800
I0428 19:41:38.210683 24870 layer_factory.hpp:77] Creating layer conv1
I0428 19:41:38.210693 24870 net.cpp:86] Creating Layer conv1
I0428 19:41:38.210697 24870 net.cpp:408] conv1 <- pool0
I0428 19:41:38.210703 24870 net.cpp:382] conv1 -> conv1
I0428 19:41:38.212396 24870 net.cpp:124] Setting up conv1
I0428 19:41:38.212415 24870 net.cpp:131] Top shape: 100 10 8 8 (64000)
I0428 19:41:38.212419 24870 net.cpp:139] Memory required for data: 1146800
I0428 19:41:38.212431 24870 layer_factory.hpp:77] Creating layer pool1
I0428 19:41:38.212440 24870 net.cpp:86] Creating Layer pool1
I0428 19:41:38.212443 24870 net.cpp:408] pool1 <- conv1
I0428 19:41:38.212450 24870 net.cpp:382] pool1 -> pool1
I0428 19:41:38.212491 24870 net.cpp:124] Setting up pool1
I0428 19:41:38.212498 24870 net.cpp:131] Top shape: 100 10 4 4 (16000)
I0428 19:41:38.212502 24870 net.cpp:139] Memory required for data: 1210800
I0428 19:41:38.212507 24870 layer_factory.hpp:77] Creating layer ip1
I0428 19:41:38.212513 24870 net.cpp:86] Creating Layer ip1
I0428 19:41:38.212517 24870 net.cpp:408] ip1 <- pool1
I0428 19:41:38.212524 24870 net.cpp:382] ip1 -> ip1
I0428 19:41:38.212648 24870 net.cpp:124] Setting up ip1
I0428 19:41:38.212657 24870 net.cpp:131] Top shape: 100 10 (1000)
I0428 19:41:38.212676 24870 net.cpp:139] Memory required for data: 1214800
I0428 19:41:38.212685 24870 layer_factory.hpp:77] Creating layer relu1
I0428 19:41:38.212693 24870 net.cpp:86] Creating Layer relu1
I0428 19:41:38.212707 24870 net.cpp:408] relu1 <- ip1
I0428 19:41:38.212713 24870 net.cpp:369] relu1 -> ip1 (in-place)
I0428 19:41:38.212908 24870 net.cpp:124] Setting up relu1
I0428 19:41:38.212919 24870 net.cpp:131] Top shape: 100 10 (1000)
I0428 19:41:38.212924 24870 net.cpp:139] Memory required for data: 1218800
I0428 19:41:38.212927 24870 layer_factory.hpp:77] Creating layer ip2
I0428 19:41:38.212935 24870 net.cpp:86] Creating Layer ip2
I0428 19:41:38.212940 24870 net.cpp:408] ip2 <- ip1
I0428 19:41:38.212946 24870 net.cpp:382] ip2 -> ip2
I0428 19:41:38.213088 24870 net.cpp:124] Setting up ip2
I0428 19:41:38.213095 24870 net.cpp:131] Top shape: 100 50 (5000)
I0428 19:41:38.213099 24870 net.cpp:139] Memory required for data: 1238800
I0428 19:41:38.213105 24870 layer_factory.hpp:77] Creating layer relu2
I0428 19:41:38.213111 24870 net.cpp:86] Creating Layer relu2
I0428 19:41:38.213114 24870 net.cpp:408] relu2 <- ip2
I0428 19:41:38.213119 24870 net.cpp:369] relu2 -> ip2 (in-place)
I0428 19:41:38.213359 24870 net.cpp:124] Setting up relu2
I0428 19:41:38.213369 24870 net.cpp:131] Top shape: 100 50 (5000)
I0428 19:41:38.213373 24870 net.cpp:139] Memory required for data: 1258800
I0428 19:41:38.213377 24870 layer_factory.hpp:77] Creating layer ip3
I0428 19:41:38.213383 24870 net.cpp:86] Creating Layer ip3
I0428 19:41:38.213387 24870 net.cpp:408] ip3 <- ip2
I0428 19:41:38.213393 24870 net.cpp:382] ip3 -> ip3
I0428 19:41:38.213524 24870 net.cpp:124] Setting up ip3
I0428 19:41:38.213532 24870 net.cpp:131] Top shape: 100 10 (1000)
I0428 19:41:38.213536 24870 net.cpp:139] Memory required for data: 1262800
I0428 19:41:38.213546 24870 layer_factory.hpp:77] Creating layer relu3
I0428 19:41:38.213552 24870 net.cpp:86] Creating Layer relu3
I0428 19:41:38.213557 24870 net.cpp:408] relu3 <- ip3
I0428 19:41:38.213562 24870 net.cpp:369] relu3 -> ip3 (in-place)
I0428 19:41:38.214483 24870 net.cpp:124] Setting up relu3
I0428 19:41:38.214498 24870 net.cpp:131] Top shape: 100 10 (1000)
I0428 19:41:38.214501 24870 net.cpp:139] Memory required for data: 1266800
I0428 19:41:38.214505 24870 layer_factory.hpp:77] Creating layer ip3_relu3_0_split
I0428 19:41:38.214511 24870 net.cpp:86] Creating Layer ip3_relu3_0_split
I0428 19:41:38.214516 24870 net.cpp:408] ip3_relu3_0_split <- ip3
I0428 19:41:38.214522 24870 net.cpp:382] ip3_relu3_0_split -> ip3_relu3_0_split_0
I0428 19:41:38.214529 24870 net.cpp:382] ip3_relu3_0_split -> ip3_relu3_0_split_1
I0428 19:41:38.214572 24870 net.cpp:124] Setting up ip3_relu3_0_split
I0428 19:41:38.214581 24870 net.cpp:131] Top shape: 100 10 (1000)
I0428 19:41:38.214586 24870 net.cpp:131] Top shape: 100 10 (1000)
I0428 19:41:38.214589 24870 net.cpp:139] Memory required for data: 1274800
I0428 19:41:38.214593 24870 layer_factory.hpp:77] Creating layer accuracy
I0428 19:41:38.214599 24870 net.cpp:86] Creating Layer accuracy
I0428 19:41:38.214603 24870 net.cpp:408] accuracy <- ip3_relu3_0_split_0
I0428 19:41:38.214608 24870 net.cpp:408] accuracy <- label_mnist_1_split_0
I0428 19:41:38.214615 24870 net.cpp:382] accuracy -> accuracy
…
