…
I0428 20:22:04.556035  1882 net.cpp:296] The NetState phase (0) differed from the phase (1) specified by a rule in layer mnist
I0428 20:22:04.556066  1882 net.cpp:296] The NetState phase (0) differed from the phase (1) specified by a rule in layer accuracy
I0428 20:22:04.556149  1882 net.cpp:53] Initializing net from parameters: 
name: "LeNet"
state {
  phase: TRAIN
  level: 0
  stage: ""
}
layer {
  name: "mnist"
  type: "Data"
  top: "data"
  top: "label"
  include {
    phase: TRAIN
  }
  transform_param {
    scale: 0.00390625
  }
  data_param {
    source: "examples/mnist/mnist_train_lmdb"
    batch_size: 64
    backend: LMDB
  }
}
layer {
  name: "conv0"
  type: "Convolution"
  bottom: "data"
  top: "conv0"
  param {
    lr_mult: 1
  }
  param {
    lr_mult: 2
  }
  convolution_param {
    num_output: 50
    kernel_size: 5
    stride: 1
    weight_filler {
      type: "xavier"
    }
    bias_filler {
      type: "constant"
    }
  }
}
layer {
  name: "pool0"
  type: "Pooling"
  bottom: "conv0"
  top: "pool0"
  pooling_param {
    pool: MAX
    kernel_size: 2
    stride: 2
  }
}
layer {
  name: "conv1"
  type: "Convolution"
  bottom: "pool0"
  top: "conv1"
  param {
    lr_mult: 1
  }
  param {
    lr_mult: 2
  }
  convolution_param {
    num_output: 50
    kernel_size: 5
    stride: 1
    weight_filler {
      type: "xavier"
    }
    bias_filler {
      type: "constant"
    }
  }
}
layer {
  name: "pool1"
  type: "Pooling"
  bottom: "conv1"
  top: "pool1"
  pooling_param {
    pool: MAX
    kernel_size: 2
    stride: 2
  }
}
layer {
  name: "ip1"
  type: "InnerProduct"
  bottom: "pool1"
  top: "ip1"
  param {
    lr_mult: 1
  }
  param {
    lr_mult: 2
  }
  inner_product_param {
    num_output: 50
    weight_filler {
      type: "xavier"
    }
    bias_filler {
      type: "constant"
    }
  }
}
layer {
  name: "relu1"
  type: "ReLU"
  bottom: "ip1"
  top: "ip1"
}
layer {
  name: "ip2"
  type: "InnerProduct"
  bottom: "ip1"
  top: "ip2"
  param {
    lr_mult: 1
  }
  param {
    lr_mult: 2
  }
  inner_product_param {
    num_output: 10
    weight_filler {
      type: "xavier"
    }
    bias_filler {
      type: "constant"
    }
  }
}
layer {
  name: "relu2"
  type: "ReLU"
  bottom: "ip2"
  top: "ip2"
}
layer {
  name: "ip3"
  type: "InnerProduct"
  bottom: "ip2"
  top: "ip3"
  param {
    lr_mult: 1
  }
  param {
    lr_mult: 2
  }
  inner_product_param {
    num_output: 10
    weight_filler {
      type: "xavier"
    }
    bias_filler {
      type: "constant"
    }
  }
}
layer {
  name: "relu3"
  type: "ReLU"
  bottom: "ip3"
  top: "ip3"
}
layer {
  name: "loss"
  type: "SoftmaxWithLoss"
  bottom: "ip3"
  bottom: "label"
  top: "loss"
}
I0428 20:22:04.556215  1882 layer_factory.hpp:77] Creating layer mnist
I0428 20:22:04.556313  1882 db_lmdb.cpp:35] Opened lmdb examples/mnist/mnist_train_lmdb
I0428 20:22:04.556332  1882 net.cpp:86] Creating Layer mnist
I0428 20:22:04.556341  1882 net.cpp:382] mnist -> data
I0428 20:22:04.556360  1882 net.cpp:382] mnist -> label
I0428 20:22:04.557373  1882 data_layer.cpp:45] output data size: 64,1,28,28
I0428 20:22:04.559659  1882 net.cpp:124] Setting up mnist
I0428 20:22:04.559705  1882 net.cpp:131] Top shape: 64 1 28 28 (50176)
I0428 20:22:04.559710  1882 net.cpp:131] Top shape: 64 (64)
I0428 20:22:04.559712  1882 net.cpp:139] Memory required for data: 200960
I0428 20:22:04.559718  1882 layer_factory.hpp:77] Creating layer conv0
I0428 20:22:04.559733  1882 net.cpp:86] Creating Layer conv0
I0428 20:22:04.559751  1882 net.cpp:408] conv0 <- data
I0428 20:22:04.559762  1882 net.cpp:382] conv0 -> conv0
I0428 20:22:04.790411  1882 net.cpp:124] Setting up conv0
I0428 20:22:04.790452  1882 net.cpp:131] Top shape: 64 50 24 24 (1843200)
I0428 20:22:04.790457  1882 net.cpp:139] Memory required for data: 7573760
I0428 20:22:04.790472  1882 layer_factory.hpp:77] Creating layer pool0
I0428 20:22:04.790514  1882 net.cpp:86] Creating Layer pool0
I0428 20:22:04.790518  1882 net.cpp:408] pool0 <- conv0
I0428 20:22:04.790524  1882 net.cpp:382] pool0 -> pool0
I0428 20:22:04.790582  1882 net.cpp:124] Setting up pool0
I0428 20:22:04.790590  1882 net.cpp:131] Top shape: 64 50 12 12 (460800)
I0428 20:22:04.790592  1882 net.cpp:139] Memory required for data: 9416960
I0428 20:22:04.790596  1882 layer_factory.hpp:77] Creating layer conv1
I0428 20:22:04.790606  1882 net.cpp:86] Creating Layer conv1
I0428 20:22:04.790609  1882 net.cpp:408] conv1 <- pool0
I0428 20:22:04.790614  1882 net.cpp:382] conv1 -> conv1
I0428 20:22:04.792919  1882 net.cpp:124] Setting up conv1
I0428 20:22:04.792954  1882 net.cpp:131] Top shape: 64 50 8 8 (204800)
I0428 20:22:04.792959  1882 net.cpp:139] Memory required for data: 10236160
I0428 20:22:04.792968  1882 layer_factory.hpp:77] Creating layer pool1
I0428 20:22:04.792975  1882 net.cpp:86] Creating Layer pool1
I0428 20:22:04.792994  1882 net.cpp:408] pool1 <- conv1
I0428 20:22:04.792999  1882 net.cpp:382] pool1 -> pool1
I0428 20:22:04.793041  1882 net.cpp:124] Setting up pool1
I0428 20:22:04.793063  1882 net.cpp:131] Top shape: 64 50 4 4 (51200)
I0428 20:22:04.793066  1882 net.cpp:139] Memory required for data: 10440960
I0428 20:22:04.793069  1882 layer_factory.hpp:77] Creating layer ip1
I0428 20:22:04.793077  1882 net.cpp:86] Creating Layer ip1
I0428 20:22:04.793081  1882 net.cpp:408] ip1 <- pool1
I0428 20:22:04.793085  1882 net.cpp:382] ip1 -> ip1
I0428 20:22:04.793436  1882 net.cpp:124] Setting up ip1
I0428 20:22:04.793442  1882 net.cpp:131] Top shape: 64 50 (3200)
I0428 20:22:04.793460  1882 net.cpp:139] Memory required for data: 10453760
I0428 20:22:04.793467  1882 layer_factory.hpp:77] Creating layer relu1
I0428 20:22:04.793473  1882 net.cpp:86] Creating Layer relu1
I0428 20:22:04.793478  1882 net.cpp:408] relu1 <- ip1
I0428 20:22:04.793481  1882 net.cpp:369] relu1 -> ip1 (in-place)
I0428 20:22:04.793645  1882 net.cpp:124] Setting up relu1
I0428 20:22:04.793654  1882 net.cpp:131] Top shape: 64 50 (3200)
I0428 20:22:04.793658  1882 net.cpp:139] Memory required for data: 10466560
I0428 20:22:04.793660  1882 layer_factory.hpp:77] Creating layer ip2
I0428 20:22:04.793668  1882 net.cpp:86] Creating Layer ip2
I0428 20:22:04.793669  1882 net.cpp:408] ip2 <- ip1
I0428 20:22:04.793675  1882 net.cpp:382] ip2 -> ip2
I0428 20:22:04.793767  1882 net.cpp:124] Setting up ip2
I0428 20:22:04.793774  1882 net.cpp:131] Top shape: 64 10 (640)
I0428 20:22:04.793777  1882 net.cpp:139] Memory required for data: 10469120
I0428 20:22:04.793782  1882 layer_factory.hpp:77] Creating layer relu2
I0428 20:22:04.793788  1882 net.cpp:86] Creating Layer relu2
I0428 20:22:04.793790  1882 net.cpp:408] relu2 <- ip2
I0428 20:22:04.793794  1882 net.cpp:369] relu2 -> ip2 (in-place)
I0428 20:22:04.794602  1882 net.cpp:124] Setting up relu2
I0428 20:22:04.794615  1882 net.cpp:131] Top shape: 64 10 (640)
I0428 20:22:04.794634  1882 net.cpp:139] Memory required for data: 10471680
I0428 20:22:04.794637  1882 layer_factory.hpp:77] Creating layer ip3
I0428 20:22:04.794646  1882 net.cpp:86] Creating Layer ip3
I0428 20:22:04.794648  1882 net.cpp:408] ip3 <- ip2
I0428 20:22:04.794654  1882 net.cpp:382] ip3 -> ip3
I0428 20:22:04.794787  1882 net.cpp:124] Setting up ip3
I0428 20:22:04.794795  1882 net.cpp:131] Top shape: 64 10 (640)
I0428 20:22:04.794797  1882 net.cpp:139] Memory required for data: 10474240
I0428 20:22:04.794806  1882 layer_factory.hpp:77] Creating layer relu3
I0428 20:22:04.794811  1882 net.cpp:86] Creating Layer relu3
I0428 20:22:04.794813  1882 net.cpp:408] relu3 <- ip3
I0428 20:22:04.794818  1882 net.cpp:369] relu3 -> ip3 (in-place)
I0428 20:22:04.795009  1882 net.cpp:124] Setting up relu3
I0428 20:22:04.795033  1882 net.cpp:131] Top shape: 64 10 (640)
I0428 20:22:04.795037  1882 net.cpp:139] Memory required for data: 10476800
I0428 20:22:04.795039  1882 layer_factory.hpp:77] Creating layer loss
I0428 20:22:04.795045  1882 net.cpp:86] Creating Layer loss
I0428 20:22:04.795048  1882 net.cpp:408] loss <- ip3
I0428 20:22:04.795053  1882 net.cpp:408] loss <- label
I0428 20:22:04.795058  1882 net.cpp:382] loss -> loss
I0428 20:22:04.795076  1882 layer_factory.hpp:77] Creating layer loss
…
I0428 20:22:04.795837  1882 solver.cpp:173] Creating test net (#0) specified by net file: ECE595/mnist/train_test/var_everything2/lenet_train_test1397.prototxt
I0428 20:22:04.795879  1882 net.cpp:296] The NetState phase (1) differed from the phase (0) specified by a rule in layer mnist
I0428 20:22:04.795967  1882 net.cpp:53] Initializing net from parameters: 
name: "LeNet"
state {
  phase: TEST
}
layer {
  name: "mnist"
  type: "Data"
  top: "data"
  top: "label"
  include {
    phase: TEST
  }
  transform_param {
    scale: 0.00390625
  }
  data_param {
    source: "examples/mnist/mnist_test_lmdb"
    batch_size: 100
    backend: LMDB
  }
}
layer {
  name: "conv0"
  type: "Convolution"
  bottom: "data"
  top: "conv0"
  param {
    lr_mult: 1
  }
  param {
    lr_mult: 2
  }
  convolution_param {
    num_output: 50
    kernel_size: 5
    stride: 1
    weight_filler {
      type: "xavier"
    }
    bias_filler {
      type: "constant"
    }
  }
}
layer {
  name: "pool0"
  type: "Pooling"
  bottom: "conv0"
  top: "pool0"
  pooling_param {
    pool: MAX
    kernel_size: 2
    stride: 2
  }
}
layer {
  name: "conv1"
  type: "Convolution"
  bottom: "pool0"
  top: "conv1"
  param {
    lr_mult: 1
  }
  param {
    lr_mult: 2
  }
  convolution_param {
    num_output: 50
    kernel_size: 5
    stride: 1
    weight_filler {
      type: "xavier"
    }
    bias_filler {
      type: "constant"
    }
  }
}
layer {
  name: "pool1"
  type: "Pooling"
  bottom: "conv1"
  top: "pool1"
  pooling_param {
    pool: MAX
    kernel_size: 2
    stride: 2
  }
}
layer {
  name: "ip1"
  type: "InnerProduct"
  bottom: "pool1"
  top: "ip1"
  param {
    lr_mult: 1
  }
  param {
    lr_mult: 2
  }
  inner_product_param {
    num_output: 50
    weight_filler {
      type: "xavier"
    }
    bias_filler {
      type: "constant"
    }
  }
}
layer {
  name: "relu1"
  type: "ReLU"
  bottom: "ip1"
  top: "ip1"
}
layer {
  name: "ip2"
  type: "InnerProduct"
  bottom: "ip1"
  top: "ip2"
  param {
    lr_mult: 1
  }
  param {
    lr_mult: 2
  }
  inner_product_param {
    num_output: 10
    weight_filler {
      type: "xavier"
    }
    bias_filler {
      type: "constant"
    }
  }
}
layer {
  name: "relu2"
  type: "ReLU"
  bottom: "ip2"
  top: "ip2"
}
layer {
  name: "ip3"
  type: "InnerProduct"
  bottom: "ip2"
  top: "ip3"
  param {
    lr_mult: 1
  }
  param {
    lr_mult: 2
  }
  inner_product_param {
    num_output: 10
    weight_filler {
      type: "xavier"
    }
    bias_filler {
      type: "constant"
    }
  }
}
layer {
  name: "relu3"
  type: "ReLU"
  bottom: "ip3"
  top: "ip3"
}
layer {
  name: "accuracy"
  type: "Accuracy"
  bottom: "ip3"
  bottom: "label"
  top: "accuracy"
  include {
    phase: TEST
  }
}
layer {
  name: "loss"
  type: "SoftmaxWithLoss"
  bottom: "ip3"
  bottom: "label"
  top: "loss"
}
I0428 20:22:04.796063  1882 layer_factory.hpp:77] Creating layer mnist
I0428 20:22:04.796108  1882 db_lmdb.cpp:35] Opened lmdb examples/mnist/mnist_test_lmdb
I0428 20:22:04.796120  1882 net.cpp:86] Creating Layer mnist
I0428 20:22:04.796125  1882 net.cpp:382] mnist -> data
I0428 20:22:04.796133  1882 net.cpp:382] mnist -> label
I0428 20:22:04.796231  1882 data_layer.cpp:45] output data size: 100,1,28,28
I0428 20:22:04.798497  1882 net.cpp:124] Setting up mnist
I0428 20:22:04.798545  1882 net.cpp:131] Top shape: 100 1 28 28 (78400)
I0428 20:22:04.798568  1882 net.cpp:131] Top shape: 100 (100)
I0428 20:22:04.798573  1882 net.cpp:139] Memory required for data: 314000
I0428 20:22:04.798576  1882 layer_factory.hpp:77] Creating layer label_mnist_1_split
I0428 20:22:04.798598  1882 net.cpp:86] Creating Layer label_mnist_1_split
I0428 20:22:04.798615  1882 net.cpp:408] label_mnist_1_split <- label
I0428 20:22:04.798620  1882 net.cpp:382] label_mnist_1_split -> label_mnist_1_split_0
I0428 20:22:04.798626  1882 net.cpp:382] label_mnist_1_split -> label_mnist_1_split_1
I0428 20:22:04.798732  1882 net.cpp:124] Setting up label_mnist_1_split
I0428 20:22:04.798740  1882 net.cpp:131] Top shape: 100 (100)
I0428 20:22:04.798744  1882 net.cpp:131] Top shape: 100 (100)
I0428 20:22:04.798746  1882 net.cpp:139] Memory required for data: 314800
I0428 20:22:04.798749  1882 layer_factory.hpp:77] Creating layer conv0
I0428 20:22:04.798759  1882 net.cpp:86] Creating Layer conv0
I0428 20:22:04.798763  1882 net.cpp:408] conv0 <- data
I0428 20:22:04.798769  1882 net.cpp:382] conv0 -> conv0
I0428 20:22:04.800420  1882 net.cpp:124] Setting up conv0
I0428 20:22:04.800468  1882 net.cpp:131] Top shape: 100 50 24 24 (2880000)
I0428 20:22:04.800475  1882 net.cpp:139] Memory required for data: 11834800
I0428 20:22:04.800490  1882 layer_factory.hpp:77] Creating layer pool0
I0428 20:22:04.800504  1882 net.cpp:86] Creating Layer pool0
I0428 20:22:04.800523  1882 net.cpp:408] pool0 <- conv0
I0428 20:22:04.800532  1882 net.cpp:382] pool0 -> pool0
I0428 20:22:04.800571  1882 net.cpp:124] Setting up pool0
I0428 20:22:04.800578  1882 net.cpp:131] Top shape: 100 50 12 12 (720000)
I0428 20:22:04.800581  1882 net.cpp:139] Memory required for data: 14714800
I0428 20:22:04.800585  1882 layer_factory.hpp:77] Creating layer conv1
I0428 20:22:04.800593  1882 net.cpp:86] Creating Layer conv1
I0428 20:22:04.800596  1882 net.cpp:408] conv1 <- pool0
I0428 20:22:04.800602  1882 net.cpp:382] conv1 -> conv1
I0428 20:22:04.802734  1882 net.cpp:124] Setting up conv1
I0428 20:22:04.802764  1882 net.cpp:131] Top shape: 100 50 8 8 (320000)
I0428 20:22:04.802768  1882 net.cpp:139] Memory required for data: 15994800
I0428 20:22:04.802778  1882 layer_factory.hpp:77] Creating layer pool1
I0428 20:22:04.802784  1882 net.cpp:86] Creating Layer pool1
I0428 20:22:04.802788  1882 net.cpp:408] pool1 <- conv1
I0428 20:22:04.802809  1882 net.cpp:382] pool1 -> pool1
I0428 20:22:04.802847  1882 net.cpp:124] Setting up pool1
I0428 20:22:04.802855  1882 net.cpp:131] Top shape: 100 50 4 4 (80000)
I0428 20:22:04.802858  1882 net.cpp:139] Memory required for data: 16314800
I0428 20:22:04.802861  1882 layer_factory.hpp:77] Creating layer ip1
I0428 20:22:04.802867  1882 net.cpp:86] Creating Layer ip1
I0428 20:22:04.802870  1882 net.cpp:408] ip1 <- pool1
I0428 20:22:04.802877  1882 net.cpp:382] ip1 -> ip1
I0428 20:22:04.803243  1882 net.cpp:124] Setting up ip1
I0428 20:22:04.803251  1882 net.cpp:131] Top shape: 100 50 (5000)
I0428 20:22:04.803278  1882 net.cpp:139] Memory required for data: 16334800
I0428 20:22:04.803285  1882 layer_factory.hpp:77] Creating layer relu1
I0428 20:22:04.803290  1882 net.cpp:86] Creating Layer relu1
I0428 20:22:04.803294  1882 net.cpp:408] relu1 <- ip1
I0428 20:22:04.803300  1882 net.cpp:369] relu1 -> ip1 (in-place)
I0428 20:22:04.803550  1882 net.cpp:124] Setting up relu1
I0428 20:22:04.803560  1882 net.cpp:131] Top shape: 100 50 (5000)
I0428 20:22:04.803563  1882 net.cpp:139] Memory required for data: 16354800
I0428 20:22:04.803566  1882 layer_factory.hpp:77] Creating layer ip2
I0428 20:22:04.803575  1882 net.cpp:86] Creating Layer ip2
I0428 20:22:04.803577  1882 net.cpp:408] ip2 <- ip1
I0428 20:22:04.803582  1882 net.cpp:382] ip2 -> ip2
I0428 20:22:04.803681  1882 net.cpp:124] Setting up ip2
I0428 20:22:04.803689  1882 net.cpp:131] Top shape: 100 10 (1000)
I0428 20:22:04.803690  1882 net.cpp:139] Memory required for data: 16358800
I0428 20:22:04.803695  1882 layer_factory.hpp:77] Creating layer relu2
I0428 20:22:04.803701  1882 net.cpp:86] Creating Layer relu2
I0428 20:22:04.803705  1882 net.cpp:408] relu2 <- ip2
I0428 20:22:04.803709  1882 net.cpp:369] relu2 -> ip2 (in-place)
I0428 20:22:04.803942  1882 net.cpp:124] Setting up relu2
I0428 20:22:04.803954  1882 net.cpp:131] Top shape: 100 10 (1000)
I0428 20:22:04.803958  1882 net.cpp:139] Memory required for data: 16362800
I0428 20:22:04.803962  1882 layer_factory.hpp:77] Creating layer ip3
I0428 20:22:04.803975  1882 net.cpp:86] Creating Layer ip3
I0428 20:22:04.803979  1882 net.cpp:408] ip3 <- ip2
I0428 20:22:04.803990  1882 net.cpp:382] ip3 -> ip3
I0428 20:22:04.804108  1882 net.cpp:124] Setting up ip3
I0428 20:22:04.804116  1882 net.cpp:131] Top shape: 100 10 (1000)
I0428 20:22:04.804118  1882 net.cpp:139] Memory required for data: 16366800
I0428 20:22:04.804126  1882 layer_factory.hpp:77] Creating layer relu3
I0428 20:22:04.804132  1882 net.cpp:86] Creating Layer relu3
I0428 20:22:04.804136  1882 net.cpp:408] relu3 <- ip3
I0428 20:22:04.804139  1882 net.cpp:369] relu3 -> ip3 (in-place)
I0428 20:22:04.805024  1882 net.cpp:124] Setting up relu3
I0428 20:22:04.805053  1882 net.cpp:131] Top shape: 100 10 (1000)
I0428 20:22:04.805058  1882 net.cpp:139] Memory required for data: 16370800
I0428 20:22:04.805060  1882 layer_factory.hpp:77] Creating layer ip3_relu3_0_split
I0428 20:22:04.805066  1882 net.cpp:86] Creating Layer ip3_relu3_0_split
I0428 20:22:04.805070  1882 net.cpp:408] ip3_relu3_0_split <- ip3
I0428 20:22:04.805075  1882 net.cpp:382] ip3_relu3_0_split -> ip3_relu3_0_split_0
I0428 20:22:04.805081  1882 net.cpp:382] ip3_relu3_0_split -> ip3_relu3_0_split_1
I0428 20:22:04.805127  1882 net.cpp:124] Setting up ip3_relu3_0_split
I0428 20:22:04.805135  1882 net.cpp:131] Top shape: 100 10 (1000)
I0428 20:22:04.805140  1882 net.cpp:131] Top shape: 100 10 (1000)
I0428 20:22:04.805142  1882 net.cpp:139] Memory required for data: 16378800
I0428 20:22:04.805146  1882 layer_factory.hpp:77] Creating layer accuracy
I0428 20:22:04.805167  1882 net.cpp:86] Creating Layer accuracy
I0428 20:22:04.805171  1882 net.cpp:408] accuracy <- ip3_relu3_0_split_0
I0428 20:22:04.805189  1882 net.cpp:408] accuracy <- label_mnist_1_split_0
I0428 20:22:04.805197  1882 net.cpp:382] accuracy -> accuracy
…
