…
I0428 20:02:27.927465 29949 net.cpp:296] The NetState phase (0) differed from the phase (1) specified by a rule in layer mnist
I0428 20:02:27.927489 29949 net.cpp:296] The NetState phase (0) differed from the phase (1) specified by a rule in layer accuracy
I0428 20:02:27.927590 29949 net.cpp:53] Initializing net from parameters: 
name: "LeNet"
state {
  phase: TRAIN
  level: 0
  stage: ""
}
layer {
  name: "mnist"
  type: "Data"
  top: "data"
  top: "label"
  include {
    phase: TRAIN
  }
  transform_param {
    scale: 0.00390625
  }
  data_param {
    source: "examples/mnist/mnist_train_lmdb"
    batch_size: 64
    backend: LMDB
  }
}
layer {
  name: "conv0"
  type: "Convolution"
  bottom: "data"
  top: "conv0"
  param {
    lr_mult: 1
  }
  param {
    lr_mult: 2
  }
  convolution_param {
    num_output: 10
    kernel_size: 5
    stride: 1
    weight_filler {
      type: "xavier"
    }
    bias_filler {
      type: "constant"
    }
  }
}
layer {
  name: "pool0"
  type: "Pooling"
  bottom: "conv0"
  top: "pool0"
  pooling_param {
    pool: MAX
    kernel_size: 2
    stride: 2
  }
}
layer {
  name: "conv1"
  type: "Convolution"
  bottom: "pool0"
  top: "conv1"
  param {
    lr_mult: 1
  }
  param {
    lr_mult: 2
  }
  convolution_param {
    num_output: 50
    kernel_size: 5
    stride: 1
    weight_filler {
      type: "xavier"
    }
    bias_filler {
      type: "constant"
    }
  }
}
layer {
  name: "pool1"
  type: "Pooling"
  bottom: "conv1"
  top: "pool1"
  pooling_param {
    pool: MAX
    kernel_size: 2
    stride: 2
  }
}
layer {
  name: "ip1"
  type: "InnerProduct"
  bottom: "pool1"
  top: "ip1"
  param {
    lr_mult: 1
  }
  param {
    lr_mult: 2
  }
  inner_product_param {
    num_output: 50
    weight_filler {
      type: "xavier"
    }
    bias_filler {
      type: "constant"
    }
  }
}
layer {
  name: "relu1"
  type: "ReLU"
  bottom: "ip1"
  top: "ip1"
}
layer {
  name: "ip2"
  type: "InnerProduct"
  bottom: "ip1"
  top: "ip2"
  param {
    lr_mult: 1
  }
  param {
    lr_mult: 2
  }
  inner_product_param {
    num_output: 10
    weight_filler {
      type: "xavier"
    }
    bias_filler {
      type: "constant"
    }
  }
}
layer {
  name: "relu2"
  type: "ReLU"
  bottom: "ip2"
  top: "ip2"
}
layer {
  name: "ip3"
  type: "InnerProduct"
  bottom: "ip2"
  top: "ip3"
  param {
    lr_mult: 1
  }
  param {
    lr_mult: 2
  }
  inner_product_param {
    num_output: 10
    weight_filler {
      type: "xavier"
    }
    bias_filler {
      type: "constant"
    }
  }
}
layer {
  name: "relu3"
  type: "ReLU"
  bottom: "ip3"
  top: "ip3"
}
layer {
  name: "loss"
  type: "SoftmaxWithLoss"
  bottom: "ip3"
  bottom: "label"
  top: "loss"
}
I0428 20:02:27.927670 29949 layer_factory.hpp:77] Creating layer mnist
I0428 20:02:27.927776 29949 db_lmdb.cpp:35] Opened lmdb examples/mnist/mnist_train_lmdb
I0428 20:02:27.927800 29949 net.cpp:86] Creating Layer mnist
I0428 20:02:27.927810 29949 net.cpp:382] mnist -> data
I0428 20:02:27.927831 29949 net.cpp:382] mnist -> label
I0428 20:02:27.928928 29949 data_layer.cpp:45] output data size: 64,1,28,28
I0428 20:02:27.931401 29949 net.cpp:124] Setting up mnist
I0428 20:02:27.931418 29949 net.cpp:131] Top shape: 64 1 28 28 (50176)
I0428 20:02:27.931424 29949 net.cpp:131] Top shape: 64 (64)
I0428 20:02:27.931427 29949 net.cpp:139] Memory required for data: 200960
I0428 20:02:27.931434 29949 layer_factory.hpp:77] Creating layer conv0
I0428 20:02:27.931478 29949 net.cpp:86] Creating Layer conv0
I0428 20:02:27.931499 29949 net.cpp:408] conv0 <- data
I0428 20:02:27.931514 29949 net.cpp:382] conv0 -> conv0
I0428 20:02:28.224200 29949 net.cpp:124] Setting up conv0
I0428 20:02:28.224230 29949 net.cpp:131] Top shape: 64 10 24 24 (368640)
I0428 20:02:28.224234 29949 net.cpp:139] Memory required for data: 1675520
I0428 20:02:28.224253 29949 layer_factory.hpp:77] Creating layer pool0
I0428 20:02:28.224269 29949 net.cpp:86] Creating Layer pool0
I0428 20:02:28.224274 29949 net.cpp:408] pool0 <- conv0
I0428 20:02:28.224282 29949 net.cpp:382] pool0 -> pool0
I0428 20:02:28.224336 29949 net.cpp:124] Setting up pool0
I0428 20:02:28.224345 29949 net.cpp:131] Top shape: 64 10 12 12 (92160)
I0428 20:02:28.224349 29949 net.cpp:139] Memory required for data: 2044160
I0428 20:02:28.224352 29949 layer_factory.hpp:77] Creating layer conv1
I0428 20:02:28.224365 29949 net.cpp:86] Creating Layer conv1
I0428 20:02:28.224370 29949 net.cpp:408] conv1 <- pool0
I0428 20:02:28.224375 29949 net.cpp:382] conv1 -> conv1
I0428 20:02:28.227612 29949 net.cpp:124] Setting up conv1
I0428 20:02:28.227629 29949 net.cpp:131] Top shape: 64 50 8 8 (204800)
I0428 20:02:28.227634 29949 net.cpp:139] Memory required for data: 2863360
I0428 20:02:28.227645 29949 layer_factory.hpp:77] Creating layer pool1
I0428 20:02:28.227654 29949 net.cpp:86] Creating Layer pool1
I0428 20:02:28.227658 29949 net.cpp:408] pool1 <- conv1
I0428 20:02:28.227664 29949 net.cpp:382] pool1 -> pool1
I0428 20:02:28.227710 29949 net.cpp:124] Setting up pool1
I0428 20:02:28.227720 29949 net.cpp:131] Top shape: 64 50 4 4 (51200)
I0428 20:02:28.227722 29949 net.cpp:139] Memory required for data: 3068160
I0428 20:02:28.227726 29949 layer_factory.hpp:77] Creating layer ip1
I0428 20:02:28.227735 29949 net.cpp:86] Creating Layer ip1
I0428 20:02:28.227740 29949 net.cpp:408] ip1 <- pool1
I0428 20:02:28.227744 29949 net.cpp:382] ip1 -> ip1
I0428 20:02:28.228135 29949 net.cpp:124] Setting up ip1
I0428 20:02:28.228145 29949 net.cpp:131] Top shape: 64 50 (3200)
I0428 20:02:28.228149 29949 net.cpp:139] Memory required for data: 3080960
I0428 20:02:28.228157 29949 layer_factory.hpp:77] Creating layer relu1
I0428 20:02:28.228164 29949 net.cpp:86] Creating Layer relu1
I0428 20:02:28.228168 29949 net.cpp:408] relu1 <- ip1
I0428 20:02:28.228173 29949 net.cpp:369] relu1 -> ip1 (in-place)
I0428 20:02:28.228373 29949 net.cpp:124] Setting up relu1
I0428 20:02:28.228384 29949 net.cpp:131] Top shape: 64 50 (3200)
I0428 20:02:28.228387 29949 net.cpp:139] Memory required for data: 3093760
I0428 20:02:28.228390 29949 layer_factory.hpp:77] Creating layer ip2
I0428 20:02:28.228399 29949 net.cpp:86] Creating Layer ip2
I0428 20:02:28.228402 29949 net.cpp:408] ip2 <- ip1
I0428 20:02:28.228407 29949 net.cpp:382] ip2 -> ip2
I0428 20:02:28.228525 29949 net.cpp:124] Setting up ip2
I0428 20:02:28.228533 29949 net.cpp:131] Top shape: 64 10 (640)
I0428 20:02:28.228538 29949 net.cpp:139] Memory required for data: 3096320
I0428 20:02:28.228543 29949 layer_factory.hpp:77] Creating layer relu2
I0428 20:02:28.228550 29949 net.cpp:86] Creating Layer relu2
I0428 20:02:28.228554 29949 net.cpp:408] relu2 <- ip2
I0428 20:02:28.228559 29949 net.cpp:369] relu2 -> ip2 (in-place)
I0428 20:02:28.229423 29949 net.cpp:124] Setting up relu2
I0428 20:02:28.229439 29949 net.cpp:131] Top shape: 64 10 (640)
I0428 20:02:28.229444 29949 net.cpp:139] Memory required for data: 3098880
I0428 20:02:28.229447 29949 layer_factory.hpp:77] Creating layer ip3
I0428 20:02:28.229456 29949 net.cpp:86] Creating Layer ip3
I0428 20:02:28.229460 29949 net.cpp:408] ip3 <- ip2
I0428 20:02:28.229466 29949 net.cpp:382] ip3 -> ip3
I0428 20:02:28.229586 29949 net.cpp:124] Setting up ip3
I0428 20:02:28.229595 29949 net.cpp:131] Top shape: 64 10 (640)
I0428 20:02:28.229598 29949 net.cpp:139] Memory required for data: 3101440
I0428 20:02:28.229609 29949 layer_factory.hpp:77] Creating layer relu3
I0428 20:02:28.229614 29949 net.cpp:86] Creating Layer relu3
I0428 20:02:28.229619 29949 net.cpp:408] relu3 <- ip3
I0428 20:02:28.229624 29949 net.cpp:369] relu3 -> ip3 (in-place)
I0428 20:02:28.229830 29949 net.cpp:124] Setting up relu3
I0428 20:02:28.229840 29949 net.cpp:131] Top shape: 64 10 (640)
I0428 20:02:28.229843 29949 net.cpp:139] Memory required for data: 3104000
I0428 20:02:28.229847 29949 layer_factory.hpp:77] Creating layer loss
I0428 20:02:28.229854 29949 net.cpp:86] Creating Layer loss
I0428 20:02:28.229857 29949 net.cpp:408] loss <- ip3
I0428 20:02:28.229862 29949 net.cpp:408] loss <- label
I0428 20:02:28.229869 29949 net.cpp:382] loss -> loss
I0428 20:02:28.229885 29949 layer_factory.hpp:77] Creating layer loss
…
I0428 20:02:28.230655 29949 solver.cpp:173] Creating test net (#0) specified by net file: ECE595/mnist/train_test/var_everything2/lenet_train_test929.prototxt
I0428 20:02:28.230687 29949 net.cpp:296] The NetState phase (1) differed from the phase (0) specified by a rule in layer mnist
I0428 20:02:28.230796 29949 net.cpp:53] Initializing net from parameters: 
name: "LeNet"
state {
  phase: TEST
}
layer {
  name: "mnist"
  type: "Data"
  top: "data"
  top: "label"
  include {
    phase: TEST
  }
  transform_param {
    scale: 0.00390625
  }
  data_param {
    source: "examples/mnist/mnist_test_lmdb"
    batch_size: 100
    backend: LMDB
  }
}
layer {
  name: "conv0"
  type: "Convolution"
  bottom: "data"
  top: "conv0"
  param {
    lr_mult: 1
  }
  param {
    lr_mult: 2
  }
  convolution_param {
    num_output: 10
    kernel_size: 5
    stride: 1
    weight_filler {
      type: "xavier"
    }
    bias_filler {
      type: "constant"
    }
  }
}
layer {
  name: "pool0"
  type: "Pooling"
  bottom: "conv0"
  top: "pool0"
  pooling_param {
    pool: MAX
    kernel_size: 2
    stride: 2
  }
}
layer {
  name: "conv1"
  type: "Convolution"
  bottom: "pool0"
  top: "conv1"
  param {
    lr_mult: 1
  }
  param {
    lr_mult: 2
  }
  convolution_param {
    num_output: 50
    kernel_size: 5
    stride: 1
    weight_filler {
      type: "xavier"
    }
    bias_filler {
      type: "constant"
    }
  }
}
layer {
  name: "pool1"
  type: "Pooling"
  bottom: "conv1"
  top: "pool1"
  pooling_param {
    pool: MAX
    kernel_size: 2
    stride: 2
  }
}
layer {
  name: "ip1"
  type: "InnerProduct"
  bottom: "pool1"
  top: "ip1"
  param {
    lr_mult: 1
  }
  param {
    lr_mult: 2
  }
  inner_product_param {
    num_output: 50
    weight_filler {
      type: "xavier"
    }
    bias_filler {
      type: "constant"
    }
  }
}
layer {
  name: "relu1"
  type: "ReLU"
  bottom: "ip1"
  top: "ip1"
}
layer {
  name: "ip2"
  type: "InnerProduct"
  bottom: "ip1"
  top: "ip2"
  param {
    lr_mult: 1
  }
  param {
    lr_mult: 2
  }
  inner_product_param {
    num_output: 10
    weight_filler {
      type: "xavier"
    }
    bias_filler {
      type: "constant"
    }
  }
}
layer {
  name: "relu2"
  type: "ReLU"
  bottom: "ip2"
  top: "ip2"
}
layer {
  name: "ip3"
  type: "InnerProduct"
  bottom: "ip2"
  top: "ip3"
  param {
    lr_mult: 1
  }
  param {
    lr_mult: 2
  }
  inner_product_param {
    num_output: 10
    weight_filler {
      type: "xavier"
    }
    bias_filler {
      type: "constant"
    }
  }
}
layer {
  name: "relu3"
  type: "ReLU"
  bottom: "ip3"
  top: "ip3"
}
layer {
  name: "accuracy"
  type: "Accuracy"
  bottom: "ip3"
  bottom: "label"
  top: "accuracy"
  include {
    phase: TEST
  }
}
layer {
  name: "loss"
  type: "SoftmaxWithLoss"
  bottom: "ip3"
  bottom: "label"
  top: "loss"
}
I0428 20:02:28.230890 29949 layer_factory.hpp:77] Creating layer mnist
I0428 20:02:28.230943 29949 db_lmdb.cpp:35] Opened lmdb examples/mnist/mnist_test_lmdb
I0428 20:02:28.230958 29949 net.cpp:86] Creating Layer mnist
I0428 20:02:28.230964 29949 net.cpp:382] mnist -> data
I0428 20:02:28.230973 29949 net.cpp:382] mnist -> label
I0428 20:02:28.231073 29949 data_layer.cpp:45] output data size: 100,1,28,28
I0428 20:02:28.233294 29949 net.cpp:124] Setting up mnist
I0428 20:02:28.233311 29949 net.cpp:131] Top shape: 100 1 28 28 (78400)
I0428 20:02:28.233319 29949 net.cpp:131] Top shape: 100 (100)
I0428 20:02:28.233321 29949 net.cpp:139] Memory required for data: 314000
I0428 20:02:28.233326 29949 layer_factory.hpp:77] Creating layer label_mnist_1_split
I0428 20:02:28.233335 29949 net.cpp:86] Creating Layer label_mnist_1_split
I0428 20:02:28.233340 29949 net.cpp:408] label_mnist_1_split <- label
I0428 20:02:28.233345 29949 net.cpp:382] label_mnist_1_split -> label_mnist_1_split_0
I0428 20:02:28.233352 29949 net.cpp:382] label_mnist_1_split -> label_mnist_1_split_1
I0428 20:02:28.233444 29949 net.cpp:124] Setting up label_mnist_1_split
I0428 20:02:28.233453 29949 net.cpp:131] Top shape: 100 (100)
I0428 20:02:28.233458 29949 net.cpp:131] Top shape: 100 (100)
I0428 20:02:28.233461 29949 net.cpp:139] Memory required for data: 314800
I0428 20:02:28.233465 29949 layer_factory.hpp:77] Creating layer conv0
I0428 20:02:28.233475 29949 net.cpp:86] Creating Layer conv0
I0428 20:02:28.233484 29949 net.cpp:408] conv0 <- data
I0428 20:02:28.233489 29949 net.cpp:382] conv0 -> conv0
I0428 20:02:28.235383 29949 net.cpp:124] Setting up conv0
I0428 20:02:28.235400 29949 net.cpp:131] Top shape: 100 10 24 24 (576000)
I0428 20:02:28.235404 29949 net.cpp:139] Memory required for data: 2618800
I0428 20:02:28.235415 29949 layer_factory.hpp:77] Creating layer pool0
I0428 20:02:28.235424 29949 net.cpp:86] Creating Layer pool0
I0428 20:02:28.235427 29949 net.cpp:408] pool0 <- conv0
I0428 20:02:28.235433 29949 net.cpp:382] pool0 -> pool0
I0428 20:02:28.235476 29949 net.cpp:124] Setting up pool0
I0428 20:02:28.235484 29949 net.cpp:131] Top shape: 100 10 12 12 (144000)
I0428 20:02:28.235488 29949 net.cpp:139] Memory required for data: 3194800
I0428 20:02:28.235492 29949 layer_factory.hpp:77] Creating layer conv1
I0428 20:02:28.235502 29949 net.cpp:86] Creating Layer conv1
I0428 20:02:28.235509 29949 net.cpp:408] conv1 <- pool0
I0428 20:02:28.235515 29949 net.cpp:382] conv1 -> conv1
I0428 20:02:28.237323 29949 net.cpp:124] Setting up conv1
I0428 20:02:28.237339 29949 net.cpp:131] Top shape: 100 50 8 8 (320000)
I0428 20:02:28.237344 29949 net.cpp:139] Memory required for data: 4474800
I0428 20:02:28.237354 29949 layer_factory.hpp:77] Creating layer pool1
I0428 20:02:28.237361 29949 net.cpp:86] Creating Layer pool1
I0428 20:02:28.237365 29949 net.cpp:408] pool1 <- conv1
I0428 20:02:28.237375 29949 net.cpp:382] pool1 -> pool1
I0428 20:02:28.237426 29949 net.cpp:124] Setting up pool1
I0428 20:02:28.237432 29949 net.cpp:131] Top shape: 100 50 4 4 (80000)
I0428 20:02:28.237437 29949 net.cpp:139] Memory required for data: 4794800
I0428 20:02:28.237440 29949 layer_factory.hpp:77] Creating layer ip1
I0428 20:02:28.237450 29949 net.cpp:86] Creating Layer ip1
I0428 20:02:28.237454 29949 net.cpp:408] ip1 <- pool1
I0428 20:02:28.237462 29949 net.cpp:382] ip1 -> ip1
I0428 20:02:28.237895 29949 net.cpp:124] Setting up ip1
I0428 20:02:28.237905 29949 net.cpp:131] Top shape: 100 50 (5000)
I0428 20:02:28.237920 29949 net.cpp:139] Memory required for data: 4814800
I0428 20:02:28.237931 29949 layer_factory.hpp:77] Creating layer relu1
I0428 20:02:28.237936 29949 net.cpp:86] Creating Layer relu1
I0428 20:02:28.237941 29949 net.cpp:408] relu1 <- ip1
I0428 20:02:28.237948 29949 net.cpp:369] relu1 -> ip1 (in-place)
I0428 20:02:28.238155 29949 net.cpp:124] Setting up relu1
I0428 20:02:28.238165 29949 net.cpp:131] Top shape: 100 50 (5000)
I0428 20:02:28.238169 29949 net.cpp:139] Memory required for data: 4834800
I0428 20:02:28.238173 29949 layer_factory.hpp:77] Creating layer ip2
I0428 20:02:28.238183 29949 net.cpp:86] Creating Layer ip2
I0428 20:02:28.238186 29949 net.cpp:408] ip2 <- ip1
I0428 20:02:28.238191 29949 net.cpp:382] ip2 -> ip2
I0428 20:02:28.238317 29949 net.cpp:124] Setting up ip2
I0428 20:02:28.238325 29949 net.cpp:131] Top shape: 100 10 (1000)
I0428 20:02:28.238329 29949 net.cpp:139] Memory required for data: 4838800
I0428 20:02:28.238335 29949 layer_factory.hpp:77] Creating layer relu2
I0428 20:02:28.238344 29949 net.cpp:86] Creating Layer relu2
I0428 20:02:28.238349 29949 net.cpp:408] relu2 <- ip2
I0428 20:02:28.238354 29949 net.cpp:369] relu2 -> ip2 (in-place)
I0428 20:02:28.238548 29949 net.cpp:124] Setting up relu2
I0428 20:02:28.238559 29949 net.cpp:131] Top shape: 100 10 (1000)
I0428 20:02:28.238562 29949 net.cpp:139] Memory required for data: 4842800
I0428 20:02:28.238566 29949 layer_factory.hpp:77] Creating layer ip3
I0428 20:02:28.238574 29949 net.cpp:86] Creating Layer ip3
I0428 20:02:28.238577 29949 net.cpp:408] ip3 <- ip2
I0428 20:02:28.238584 29949 net.cpp:382] ip3 -> ip3
I0428 20:02:28.238703 29949 net.cpp:124] Setting up ip3
I0428 20:02:28.238711 29949 net.cpp:131] Top shape: 100 10 (1000)
I0428 20:02:28.238714 29949 net.cpp:139] Memory required for data: 4846800
I0428 20:02:28.238724 29949 layer_factory.hpp:77] Creating layer relu3
I0428 20:02:28.238731 29949 net.cpp:86] Creating Layer relu3
I0428 20:02:28.238744 29949 net.cpp:408] relu3 <- ip3
I0428 20:02:28.238747 29949 net.cpp:369] relu3 -> ip3 (in-place)
I0428 20:02:28.239689 29949 net.cpp:124] Setting up relu3
I0428 20:02:28.239706 29949 net.cpp:131] Top shape: 100 10 (1000)
I0428 20:02:28.239709 29949 net.cpp:139] Memory required for data: 4850800
I0428 20:02:28.239713 29949 layer_factory.hpp:77] Creating layer ip3_relu3_0_split
I0428 20:02:28.239719 29949 net.cpp:86] Creating Layer ip3_relu3_0_split
I0428 20:02:28.239723 29949 net.cpp:408] ip3_relu3_0_split <- ip3
I0428 20:02:28.239729 29949 net.cpp:382] ip3_relu3_0_split -> ip3_relu3_0_split_0
I0428 20:02:28.239737 29949 net.cpp:382] ip3_relu3_0_split -> ip3_relu3_0_split_1
I0428 20:02:28.239794 29949 net.cpp:124] Setting up ip3_relu3_0_split
I0428 20:02:28.239804 29949 net.cpp:131] Top shape: 100 10 (1000)
I0428 20:02:28.239807 29949 net.cpp:131] Top shape: 100 10 (1000)
I0428 20:02:28.239811 29949 net.cpp:139] Memory required for data: 4858800
I0428 20:02:28.239814 29949 layer_factory.hpp:77] Creating layer accuracy
I0428 20:02:28.239821 29949 net.cpp:86] Creating Layer accuracy
I0428 20:02:28.239825 29949 net.cpp:408] accuracy <- ip3_relu3_0_split_0
I0428 20:02:28.239837 29949 net.cpp:408] accuracy <- label_mnist_1_split_0
I0428 20:02:28.239843 29949 net.cpp:382] accuracy -> accuracy
…
