…
I0428 20:24:03.694102  2352 net.cpp:296] The NetState phase (0) differed from the phase (1) specified by a rule in layer mnist
I0428 20:24:03.694119  2352 net.cpp:296] The NetState phase (0) differed from the phase (1) specified by a rule in layer accuracy
I0428 20:24:03.694216  2352 net.cpp:53] Initializing net from parameters: 
name: "LeNet"
state {
  phase: TRAIN
  level: 0
  stage: ""
}
layer {
  name: "mnist"
  type: "Data"
  top: "data"
  top: "label"
  include {
    phase: TRAIN
  }
  transform_param {
    scale: 0.00390625
  }
  data_param {
    source: "examples/mnist/mnist_train_lmdb"
    batch_size: 64
    backend: LMDB
  }
}
layer {
  name: "conv0"
  type: "Convolution"
  bottom: "data"
  top: "conv0"
  param {
    lr_mult: 1
  }
  param {
    lr_mult: 2
  }
  convolution_param {
    num_output: 50
    kernel_size: 5
    stride: 1
    weight_filler {
      type: "xavier"
    }
    bias_filler {
      type: "constant"
    }
  }
}
layer {
  name: "pool0"
  type: "Pooling"
  bottom: "conv0"
  top: "pool0"
  pooling_param {
    pool: MAX
    kernel_size: 2
    stride: 2
  }
}
layer {
  name: "conv1"
  type: "Convolution"
  bottom: "pool0"
  top: "conv1"
  param {
    lr_mult: 1
  }
  param {
    lr_mult: 2
  }
  convolution_param {
    num_output: 100
    kernel_size: 5
    stride: 1
    weight_filler {
      type: "xavier"
    }
    bias_filler {
      type: "constant"
    }
  }
}
layer {
  name: "pool1"
  type: "Pooling"
  bottom: "conv1"
  top: "pool1"
  pooling_param {
    pool: MAX
    kernel_size: 2
    stride: 2
  }
}
layer {
  name: "ip1"
  type: "InnerProduct"
  bottom: "pool1"
  top: "ip1"
  param {
    lr_mult: 1
  }
  param {
    lr_mult: 2
  }
  inner_product_param {
    num_output: 25
    weight_filler {
      type: "xavier"
    }
    bias_filler {
      type: "constant"
    }
  }
}
layer {
  name: "relu1"
  type: "ReLU"
  bottom: "ip1"
  top: "ip1"
}
layer {
  name: "ip2"
  type: "InnerProduct"
  bottom: "ip1"
  top: "ip2"
  param {
    lr_mult: 1
  }
  param {
    lr_mult: 2
  }
  inner_product_param {
    num_output: 50
    weight_filler {
      type: "xavier"
    }
    bias_filler {
      type: "constant"
    }
  }
}
layer {
  name: "relu2"
  type: "ReLU"
  bottom: "ip2"
  top: "ip2"
}
layer {
  name: "ip3"
  type: "InnerProduct"
  bottom: "ip2"
  top: "ip3"
  param {
    lr_mult: 1
  }
  param {
    lr_mult: 2
  }
  inner_product_param {
    num_output: 10
    weight_filler {
      type: "xavier"
    }
    bias_filler {
      type: "constant"
    }
  }
}
layer {
  name: "relu3"
  type: "ReLU"
  bottom: "ip3"
  top: "ip3"
}
layer {
  name: "loss"
  type: "SoftmaxWithLoss"
  bottom: "ip3"
  bottom: "label"
  top: "loss"
}
I0428 20:24:03.694289  2352 layer_factory.hpp:77] Creating layer mnist
I0428 20:24:03.694387  2352 db_lmdb.cpp:35] Opened lmdb examples/mnist/mnist_train_lmdb
I0428 20:24:03.694411  2352 net.cpp:86] Creating Layer mnist
I0428 20:24:03.694418  2352 net.cpp:382] mnist -> data
I0428 20:24:03.694442  2352 net.cpp:382] mnist -> label
I0428 20:24:03.695544  2352 data_layer.cpp:45] output data size: 64,1,28,28
I0428 20:24:03.698009  2352 net.cpp:124] Setting up mnist
I0428 20:24:03.698025  2352 net.cpp:131] Top shape: 64 1 28 28 (50176)
I0428 20:24:03.698032  2352 net.cpp:131] Top shape: 64 (64)
I0428 20:24:03.698036  2352 net.cpp:139] Memory required for data: 200960
I0428 20:24:03.698043  2352 layer_factory.hpp:77] Creating layer conv0
I0428 20:24:03.698060  2352 net.cpp:86] Creating Layer conv0
I0428 20:24:03.698081  2352 net.cpp:408] conv0 <- data
I0428 20:24:03.698092  2352 net.cpp:382] conv0 -> conv0
I0428 20:24:03.989842  2352 net.cpp:124] Setting up conv0
I0428 20:24:03.989876  2352 net.cpp:131] Top shape: 64 50 24 24 (1843200)
I0428 20:24:03.989881  2352 net.cpp:139] Memory required for data: 7573760
I0428 20:24:03.989898  2352 layer_factory.hpp:77] Creating layer pool0
I0428 20:24:03.989914  2352 net.cpp:86] Creating Layer pool0
I0428 20:24:03.989919  2352 net.cpp:408] pool0 <- conv0
I0428 20:24:03.989926  2352 net.cpp:382] pool0 -> pool0
I0428 20:24:03.989982  2352 net.cpp:124] Setting up pool0
I0428 20:24:03.989991  2352 net.cpp:131] Top shape: 64 50 12 12 (460800)
I0428 20:24:03.989995  2352 net.cpp:139] Memory required for data: 9416960
I0428 20:24:03.989998  2352 layer_factory.hpp:77] Creating layer conv1
I0428 20:24:03.990011  2352 net.cpp:86] Creating Layer conv1
I0428 20:24:03.990015  2352 net.cpp:408] conv1 <- pool0
I0428 20:24:03.990021  2352 net.cpp:382] conv1 -> conv1
I0428 20:24:03.993996  2352 net.cpp:124] Setting up conv1
I0428 20:24:03.994016  2352 net.cpp:131] Top shape: 64 100 8 8 (409600)
I0428 20:24:03.994020  2352 net.cpp:139] Memory required for data: 11055360
I0428 20:24:03.994031  2352 layer_factory.hpp:77] Creating layer pool1
I0428 20:24:03.994040  2352 net.cpp:86] Creating Layer pool1
I0428 20:24:03.994046  2352 net.cpp:408] pool1 <- conv1
I0428 20:24:03.994053  2352 net.cpp:382] pool1 -> pool1
I0428 20:24:03.994099  2352 net.cpp:124] Setting up pool1
I0428 20:24:03.994108  2352 net.cpp:131] Top shape: 64 100 4 4 (102400)
I0428 20:24:03.994112  2352 net.cpp:139] Memory required for data: 11464960
I0428 20:24:03.994115  2352 layer_factory.hpp:77] Creating layer ip1
I0428 20:24:03.994124  2352 net.cpp:86] Creating Layer ip1
I0428 20:24:03.994128  2352 net.cpp:408] ip1 <- pool1
I0428 20:24:03.994134  2352 net.cpp:382] ip1 -> ip1
I0428 20:24:03.994529  2352 net.cpp:124] Setting up ip1
I0428 20:24:03.994537  2352 net.cpp:131] Top shape: 64 25 (1600)
I0428 20:24:03.994541  2352 net.cpp:139] Memory required for data: 11471360
I0428 20:24:03.994550  2352 layer_factory.hpp:77] Creating layer relu1
I0428 20:24:03.994559  2352 net.cpp:86] Creating Layer relu1
I0428 20:24:03.994562  2352 net.cpp:408] relu1 <- ip1
I0428 20:24:03.994567  2352 net.cpp:369] relu1 -> ip1 (in-place)
I0428 20:24:03.994774  2352 net.cpp:124] Setting up relu1
I0428 20:24:03.994786  2352 net.cpp:131] Top shape: 64 25 (1600)
I0428 20:24:03.994789  2352 net.cpp:139] Memory required for data: 11477760
I0428 20:24:03.994793  2352 layer_factory.hpp:77] Creating layer ip2
I0428 20:24:03.994802  2352 net.cpp:86] Creating Layer ip2
I0428 20:24:03.994806  2352 net.cpp:408] ip2 <- ip1
I0428 20:24:03.994812  2352 net.cpp:382] ip2 -> ip2
I0428 20:24:03.994941  2352 net.cpp:124] Setting up ip2
I0428 20:24:03.994951  2352 net.cpp:131] Top shape: 64 50 (3200)
I0428 20:24:03.994954  2352 net.cpp:139] Memory required for data: 11490560
I0428 20:24:03.994961  2352 layer_factory.hpp:77] Creating layer relu2
I0428 20:24:03.994968  2352 net.cpp:86] Creating Layer relu2
I0428 20:24:03.994971  2352 net.cpp:408] relu2 <- ip2
I0428 20:24:03.994976  2352 net.cpp:369] relu2 -> ip2 (in-place)
I0428 20:24:03.995831  2352 net.cpp:124] Setting up relu2
I0428 20:24:03.995846  2352 net.cpp:131] Top shape: 64 50 (3200)
I0428 20:24:03.995851  2352 net.cpp:139] Memory required for data: 11503360
I0428 20:24:03.995854  2352 layer_factory.hpp:77] Creating layer ip3
I0428 20:24:03.995867  2352 net.cpp:86] Creating Layer ip3
I0428 20:24:03.995870  2352 net.cpp:408] ip3 <- ip2
I0428 20:24:03.995878  2352 net.cpp:382] ip3 -> ip3
I0428 20:24:03.996006  2352 net.cpp:124] Setting up ip3
I0428 20:24:03.996016  2352 net.cpp:131] Top shape: 64 10 (640)
I0428 20:24:03.996019  2352 net.cpp:139] Memory required for data: 11505920
I0428 20:24:03.996028  2352 layer_factory.hpp:77] Creating layer relu3
I0428 20:24:03.996034  2352 net.cpp:86] Creating Layer relu3
I0428 20:24:03.996038  2352 net.cpp:408] relu3 <- ip3
I0428 20:24:03.996043  2352 net.cpp:369] relu3 -> ip3 (in-place)
I0428 20:24:03.996254  2352 net.cpp:124] Setting up relu3
I0428 20:24:03.996265  2352 net.cpp:131] Top shape: 64 10 (640)
I0428 20:24:03.996269  2352 net.cpp:139] Memory required for data: 11508480
I0428 20:24:03.996273  2352 layer_factory.hpp:77] Creating layer loss
I0428 20:24:03.996280  2352 net.cpp:86] Creating Layer loss
I0428 20:24:03.996284  2352 net.cpp:408] loss <- ip3
I0428 20:24:03.996289  2352 net.cpp:408] loss <- label
I0428 20:24:03.996296  2352 net.cpp:382] loss -> loss
I0428 20:24:03.996316  2352 layer_factory.hpp:77] Creating layer loss
…
I0428 20:24:03.997090  2352 solver.cpp:173] Creating test net (#0) specified by net file: ECE595/mnist/train_test/var_everything2/lenet_train_test1431.prototxt
I0428 20:24:03.997123  2352 net.cpp:296] The NetState phase (1) differed from the phase (0) specified by a rule in layer mnist
I0428 20:24:03.997237  2352 net.cpp:53] Initializing net from parameters: 
name: "LeNet"
state {
  phase: TEST
}
layer {
  name: "mnist"
  type: "Data"
  top: "data"
  top: "label"
  include {
    phase: TEST
  }
  transform_param {
    scale: 0.00390625
  }
  data_param {
    source: "examples/mnist/mnist_test_lmdb"
    batch_size: 100
    backend: LMDB
  }
}
layer {
  name: "conv0"
  type: "Convolution"
  bottom: "data"
  top: "conv0"
  param {
    lr_mult: 1
  }
  param {
    lr_mult: 2
  }
  convolution_param {
    num_output: 50
    kernel_size: 5
    stride: 1
    weight_filler {
      type: "xavier"
    }
    bias_filler {
      type: "constant"
    }
  }
}
layer {
  name: "pool0"
  type: "Pooling"
  bottom: "conv0"
  top: "pool0"
  pooling_param {
    pool: MAX
    kernel_size: 2
    stride: 2
  }
}
layer {
  name: "conv1"
  type: "Convolution"
  bottom: "pool0"
  top: "conv1"
  param {
    lr_mult: 1
  }
  param {
    lr_mult: 2
  }
  convolution_param {
    num_output: 100
    kernel_size: 5
    stride: 1
    weight_filler {
      type: "xavier"
    }
    bias_filler {
      type: "constant"
    }
  }
}
layer {
  name: "pool1"
  type: "Pooling"
  bottom: "conv1"
  top: "pool1"
  pooling_param {
    pool: MAX
    kernel_size: 2
    stride: 2
  }
}
layer {
  name: "ip1"
  type: "InnerProduct"
  bottom: "pool1"
  top: "ip1"
  param {
    lr_mult: 1
  }
  param {
    lr_mult: 2
  }
  inner_product_param {
    num_output: 25
    weight_filler {
      type: "xavier"
    }
    bias_filler {
      type: "constant"
    }
  }
}
layer {
  name: "relu1"
  type: "ReLU"
  bottom: "ip1"
  top: "ip1"
}
layer {
  name: "ip2"
  type: "InnerProduct"
  bottom: "ip1"
  top: "ip2"
  param {
    lr_mult: 1
  }
  param {
    lr_mult: 2
  }
  inner_product_param {
    num_output: 50
    weight_filler {
      type: "xavier"
    }
    bias_filler {
      type: "constant"
    }
  }
}
layer {
  name: "relu2"
  type: "ReLU"
  bottom: "ip2"
  top: "ip2"
}
layer {
  name: "ip3"
  type: "InnerProduct"
  bottom: "ip2"
  top: "ip3"
  param {
    lr_mult: 1
  }
  param {
    lr_mult: 2
  }
  inner_product_param {
    num_output: 10
    weight_filler {
      type: "xavier"
    }
    bias_filler {
      type: "constant"
    }
  }
}
layer {
  name: "relu3"
  type: "ReLU"
  bottom: "ip3"
  top: "ip3"
}
layer {
  name: "accuracy"
  type: "Accuracy"
  bottom: "ip3"
  bottom: "label"
  top: "accuracy"
  include {
    phase: TEST
  }
}
layer {
  name: "loss"
  type: "SoftmaxWithLoss"
  bottom: "ip3"
  bottom: "label"
  top: "loss"
}
I0428 20:24:03.997337  2352 layer_factory.hpp:77] Creating layer mnist
I0428 20:24:03.997391  2352 db_lmdb.cpp:35] Opened lmdb examples/mnist/mnist_test_lmdb
I0428 20:24:03.997406  2352 net.cpp:86] Creating Layer mnist
I0428 20:24:03.997412  2352 net.cpp:382] mnist -> data
I0428 20:24:03.997421  2352 net.cpp:382] mnist -> label
I0428 20:24:03.997525  2352 data_layer.cpp:45] output data size: 100,1,28,28
I0428 20:24:03.998764  2352 net.cpp:124] Setting up mnist
I0428 20:24:03.998780  2352 net.cpp:131] Top shape: 100 1 28 28 (78400)
I0428 20:24:03.998786  2352 net.cpp:131] Top shape: 100 (100)
I0428 20:24:03.998790  2352 net.cpp:139] Memory required for data: 314000
I0428 20:24:03.998795  2352 layer_factory.hpp:77] Creating layer label_mnist_1_split
I0428 20:24:03.998839  2352 net.cpp:86] Creating Layer label_mnist_1_split
I0428 20:24:03.998847  2352 net.cpp:408] label_mnist_1_split <- label
I0428 20:24:03.998852  2352 net.cpp:382] label_mnist_1_split -> label_mnist_1_split_0
I0428 20:24:03.998860  2352 net.cpp:382] label_mnist_1_split -> label_mnist_1_split_1
I0428 20:24:03.998915  2352 net.cpp:124] Setting up label_mnist_1_split
I0428 20:24:03.998924  2352 net.cpp:131] Top shape: 100 (100)
I0428 20:24:03.998929  2352 net.cpp:131] Top shape: 100 (100)
I0428 20:24:03.998931  2352 net.cpp:139] Memory required for data: 314800
I0428 20:24:03.998935  2352 layer_factory.hpp:77] Creating layer conv0
I0428 20:24:03.998946  2352 net.cpp:86] Creating Layer conv0
I0428 20:24:03.998950  2352 net.cpp:408] conv0 <- data
I0428 20:24:03.998957  2352 net.cpp:382] conv0 -> conv0
I0428 20:24:04.000931  2352 net.cpp:124] Setting up conv0
I0428 20:24:04.000948  2352 net.cpp:131] Top shape: 100 50 24 24 (2880000)
I0428 20:24:04.000953  2352 net.cpp:139] Memory required for data: 11834800
I0428 20:24:04.000967  2352 layer_factory.hpp:77] Creating layer pool0
I0428 20:24:04.000974  2352 net.cpp:86] Creating Layer pool0
I0428 20:24:04.000978  2352 net.cpp:408] pool0 <- conv0
I0428 20:24:04.000983  2352 net.cpp:382] pool0 -> pool0
I0428 20:24:04.001030  2352 net.cpp:124] Setting up pool0
I0428 20:24:04.001039  2352 net.cpp:131] Top shape: 100 50 12 12 (720000)
I0428 20:24:04.001044  2352 net.cpp:139] Memory required for data: 14714800
I0428 20:24:04.001046  2352 layer_factory.hpp:77] Creating layer conv1
I0428 20:24:04.001058  2352 net.cpp:86] Creating Layer conv1
I0428 20:24:04.001062  2352 net.cpp:408] conv1 <- pool0
I0428 20:24:04.001070  2352 net.cpp:382] conv1 -> conv1
I0428 20:24:04.004648  2352 net.cpp:124] Setting up conv1
I0428 20:24:04.004665  2352 net.cpp:131] Top shape: 100 100 8 8 (640000)
I0428 20:24:04.004670  2352 net.cpp:139] Memory required for data: 17274800
I0428 20:24:04.004681  2352 layer_factory.hpp:77] Creating layer pool1
I0428 20:24:04.004689  2352 net.cpp:86] Creating Layer pool1
I0428 20:24:04.004694  2352 net.cpp:408] pool1 <- conv1
I0428 20:24:04.004703  2352 net.cpp:382] pool1 -> pool1
I0428 20:24:04.004746  2352 net.cpp:124] Setting up pool1
I0428 20:24:04.004755  2352 net.cpp:131] Top shape: 100 100 4 4 (160000)
I0428 20:24:04.004758  2352 net.cpp:139] Memory required for data: 17914800
I0428 20:24:04.004762  2352 layer_factory.hpp:77] Creating layer ip1
I0428 20:24:04.004770  2352 net.cpp:86] Creating Layer ip1
I0428 20:24:04.004775  2352 net.cpp:408] ip1 <- pool1
I0428 20:24:04.004781  2352 net.cpp:382] ip1 -> ip1
I0428 20:24:04.005208  2352 net.cpp:124] Setting up ip1
I0428 20:24:04.005230  2352 net.cpp:131] Top shape: 100 25 (2500)
I0428 20:24:04.005234  2352 net.cpp:139] Memory required for data: 17924800
I0428 20:24:04.005244  2352 layer_factory.hpp:77] Creating layer relu1
I0428 20:24:04.005249  2352 net.cpp:86] Creating Layer relu1
I0428 20:24:04.005254  2352 net.cpp:408] relu1 <- ip1
I0428 20:24:04.005261  2352 net.cpp:369] relu1 -> ip1 (in-place)
I0428 20:24:04.005527  2352 net.cpp:124] Setting up relu1
I0428 20:24:04.005540  2352 net.cpp:131] Top shape: 100 25 (2500)
I0428 20:24:04.005544  2352 net.cpp:139] Memory required for data: 17934800
I0428 20:24:04.005548  2352 layer_factory.hpp:77] Creating layer ip2
I0428 20:24:04.005560  2352 net.cpp:86] Creating Layer ip2
I0428 20:24:04.005565  2352 net.cpp:408] ip2 <- ip1
I0428 20:24:04.005571  2352 net.cpp:382] ip2 -> ip2
I0428 20:24:04.005705  2352 net.cpp:124] Setting up ip2
I0428 20:24:04.005713  2352 net.cpp:131] Top shape: 100 50 (5000)
I0428 20:24:04.005717  2352 net.cpp:139] Memory required for data: 17954800
I0428 20:24:04.005723  2352 layer_factory.hpp:77] Creating layer relu2
I0428 20:24:04.005729  2352 net.cpp:86] Creating Layer relu2
I0428 20:24:04.005733  2352 net.cpp:408] relu2 <- ip2
I0428 20:24:04.005739  2352 net.cpp:369] relu2 -> ip2 (in-place)
I0428 20:24:04.005929  2352 net.cpp:124] Setting up relu2
I0428 20:24:04.005939  2352 net.cpp:131] Top shape: 100 50 (5000)
I0428 20:24:04.005944  2352 net.cpp:139] Memory required for data: 17974800
I0428 20:24:04.005947  2352 layer_factory.hpp:77] Creating layer ip3
I0428 20:24:04.005955  2352 net.cpp:86] Creating Layer ip3
I0428 20:24:04.005959  2352 net.cpp:408] ip3 <- ip2
I0428 20:24:04.005964  2352 net.cpp:382] ip3 -> ip3
I0428 20:24:04.006085  2352 net.cpp:124] Setting up ip3
I0428 20:24:04.006093  2352 net.cpp:131] Top shape: 100 10 (1000)
I0428 20:24:04.006096  2352 net.cpp:139] Memory required for data: 17978800
I0428 20:24:04.006106  2352 layer_factory.hpp:77] Creating layer relu3
I0428 20:24:04.006114  2352 net.cpp:86] Creating Layer relu3
I0428 20:24:04.006119  2352 net.cpp:408] relu3 <- ip3
I0428 20:24:04.006124  2352 net.cpp:369] relu3 -> ip3 (in-place)
I0428 20:24:04.007051  2352 net.cpp:124] Setting up relu3
I0428 20:24:04.007069  2352 net.cpp:131] Top shape: 100 10 (1000)
I0428 20:24:04.007074  2352 net.cpp:139] Memory required for data: 17982800
I0428 20:24:04.007078  2352 layer_factory.hpp:77] Creating layer ip3_relu3_0_split
I0428 20:24:04.007084  2352 net.cpp:86] Creating Layer ip3_relu3_0_split
I0428 20:24:04.007089  2352 net.cpp:408] ip3_relu3_0_split <- ip3
I0428 20:24:04.007095  2352 net.cpp:382] ip3_relu3_0_split -> ip3_relu3_0_split_0
I0428 20:24:04.007102  2352 net.cpp:382] ip3_relu3_0_split -> ip3_relu3_0_split_1
I0428 20:24:04.007166  2352 net.cpp:124] Setting up ip3_relu3_0_split
I0428 20:24:04.007174  2352 net.cpp:131] Top shape: 100 10 (1000)
I0428 20:24:04.007179  2352 net.cpp:131] Top shape: 100 10 (1000)
I0428 20:24:04.007182  2352 net.cpp:139] Memory required for data: 17990800
I0428 20:24:04.007187  2352 layer_factory.hpp:77] Creating layer accuracy
I0428 20:24:04.007194  2352 net.cpp:86] Creating Layer accuracy
I0428 20:24:04.007197  2352 net.cpp:408] accuracy <- ip3_relu3_0_split_0
I0428 20:24:04.007203  2352 net.cpp:408] accuracy <- label_mnist_1_split_0
I0428 20:24:04.007210  2352 net.cpp:382] accuracy -> accuracy
…
