…
I0428 20:00:57.639477 29618 net.cpp:296] The NetState phase (0) differed from the phase (1) specified by a rule in layer mnist
I0428 20:00:57.639511 29618 net.cpp:296] The NetState phase (0) differed from the phase (1) specified by a rule in layer accuracy
I0428 20:00:57.639621 29618 net.cpp:53] Initializing net from parameters: 
name: "LeNet"
state {
  phase: TRAIN
  level: 0
  stage: ""
}
layer {
  name: "mnist"
  type: "Data"
  top: "data"
  top: "label"
  include {
    phase: TRAIN
  }
  transform_param {
    scale: 0.00390625
  }
  data_param {
    source: "examples/mnist/mnist_train_lmdb"
    batch_size: 64
    backend: LMDB
  }
}
layer {
  name: "conv0"
  type: "Convolution"
  bottom: "data"
  top: "conv0"
  param {
    lr_mult: 1
  }
  param {
    lr_mult: 2
  }
  convolution_param {
    num_output: 10
    kernel_size: 5
    stride: 1
    weight_filler {
      type: "xavier"
    }
    bias_filler {
      type: "constant"
    }
  }
}
layer {
  name: "pool0"
  type: "Pooling"
  bottom: "conv0"
  top: "pool0"
  pooling_param {
    pool: MAX
    kernel_size: 2
    stride: 2
  }
}
layer {
  name: "conv1"
  type: "Convolution"
  bottom: "pool0"
  top: "conv1"
  param {
    lr_mult: 1
  }
  param {
    lr_mult: 2
  }
  convolution_param {
    num_output: 25
    kernel_size: 5
    stride: 1
    weight_filler {
      type: "xavier"
    }
    bias_filler {
      type: "constant"
    }
  }
}
layer {
  name: "pool1"
  type: "Pooling"
  bottom: "conv1"
  top: "pool1"
  pooling_param {
    pool: MAX
    kernel_size: 2
    stride: 2
  }
}
layer {
  name: "ip1"
  type: "InnerProduct"
  bottom: "pool1"
  top: "ip1"
  param {
    lr_mult: 1
  }
  param {
    lr_mult: 2
  }
  inner_product_param {
    num_output: 50
    weight_filler {
      type: "xavier"
    }
    bias_filler {
      type: "constant"
    }
  }
}
layer {
  name: "relu1"
  type: "ReLU"
  bottom: "ip1"
  top: "ip1"
}
layer {
  name: "ip2"
  type: "InnerProduct"
  bottom: "ip1"
  top: "ip2"
  param {
    lr_mult: 1
  }
  param {
    lr_mult: 2
  }
  inner_product_param {
    num_output: 10
    weight_filler {
      type: "xavier"
    }
    bias_filler {
      type: "constant"
    }
  }
}
layer {
  name: "relu2"
  type: "ReLU"
  bottom: "ip2"
  top: "ip2"
}
layer {
  name: "ip3"
  type: "InnerProduct"
  bottom: "ip2"
  top: "ip3"
  param {
    lr_mult: 1
  }
  param {
    lr_mult: 2
  }
  inner_product_param {
    num_output: 10
    weight_filler {
      type: "xavier"
    }
    bias_filler {
      type: "constant"
    }
  }
}
layer {
  name: "relu3"
  type: "ReLU"
  bottom: "ip3"
  top: "ip3"
}
layer {
  name: "loss"
  type: "SoftmaxWithLoss"
  bottom: "ip3"
  bottom: "label"
  top: "loss"
}
I0428 20:00:57.639700 29618 layer_factory.hpp:77] Creating layer mnist
I0428 20:00:57.639813 29618 db_lmdb.cpp:35] Opened lmdb examples/mnist/mnist_train_lmdb
I0428 20:00:57.639839 29618 net.cpp:86] Creating Layer mnist
I0428 20:00:57.639849 29618 net.cpp:382] mnist -> data
I0428 20:00:57.639873 29618 net.cpp:382] mnist -> label
I0428 20:00:57.641135 29618 data_layer.cpp:45] output data size: 64,1,28,28
I0428 20:00:57.644050 29618 net.cpp:124] Setting up mnist
I0428 20:00:57.644084 29618 net.cpp:131] Top shape: 64 1 28 28 (50176)
I0428 20:00:57.644091 29618 net.cpp:131] Top shape: 64 (64)
I0428 20:00:57.644098 29618 net.cpp:139] Memory required for data: 200960
I0428 20:00:57.644104 29618 layer_factory.hpp:77] Creating layer conv0
I0428 20:00:57.644122 29618 net.cpp:86] Creating Layer conv0
I0428 20:00:57.644160 29618 net.cpp:408] conv0 <- data
I0428 20:00:57.644203 29618 net.cpp:382] conv0 -> conv0
I0428 20:00:57.934154 29618 net.cpp:124] Setting up conv0
I0428 20:00:57.934186 29618 net.cpp:131] Top shape: 64 10 24 24 (368640)
I0428 20:00:57.934191 29618 net.cpp:139] Memory required for data: 1675520
I0428 20:00:57.934211 29618 layer_factory.hpp:77] Creating layer pool0
I0428 20:00:57.934226 29618 net.cpp:86] Creating Layer pool0
I0428 20:00:57.934231 29618 net.cpp:408] pool0 <- conv0
I0428 20:00:57.934254 29618 net.cpp:382] pool0 -> pool0
I0428 20:00:57.934325 29618 net.cpp:124] Setting up pool0
I0428 20:00:57.934337 29618 net.cpp:131] Top shape: 64 10 12 12 (92160)
I0428 20:00:57.934342 29618 net.cpp:139] Memory required for data: 2044160
I0428 20:00:57.934346 29618 layer_factory.hpp:77] Creating layer conv1
I0428 20:00:57.934360 29618 net.cpp:86] Creating Layer conv1
I0428 20:00:57.934365 29618 net.cpp:408] conv1 <- pool0
I0428 20:00:57.934372 29618 net.cpp:382] conv1 -> conv1
I0428 20:00:57.938053 29618 net.cpp:124] Setting up conv1
I0428 20:00:57.938071 29618 net.cpp:131] Top shape: 64 25 8 8 (102400)
I0428 20:00:57.938076 29618 net.cpp:139] Memory required for data: 2453760
I0428 20:00:57.938086 29618 layer_factory.hpp:77] Creating layer pool1
I0428 20:00:57.938094 29618 net.cpp:86] Creating Layer pool1
I0428 20:00:57.938099 29618 net.cpp:408] pool1 <- conv1
I0428 20:00:57.938105 29618 net.cpp:382] pool1 -> pool1
I0428 20:00:57.938163 29618 net.cpp:124] Setting up pool1
I0428 20:00:57.938170 29618 net.cpp:131] Top shape: 64 25 4 4 (25600)
I0428 20:00:57.938174 29618 net.cpp:139] Memory required for data: 2556160
I0428 20:00:57.938179 29618 layer_factory.hpp:77] Creating layer ip1
I0428 20:00:57.938189 29618 net.cpp:86] Creating Layer ip1
I0428 20:00:57.938192 29618 net.cpp:408] ip1 <- pool1
I0428 20:00:57.938199 29618 net.cpp:382] ip1 -> ip1
I0428 20:00:57.938473 29618 net.cpp:124] Setting up ip1
I0428 20:00:57.938484 29618 net.cpp:131] Top shape: 64 50 (3200)
I0428 20:00:57.938488 29618 net.cpp:139] Memory required for data: 2568960
I0428 20:00:57.938498 29618 layer_factory.hpp:77] Creating layer relu1
I0428 20:00:57.938521 29618 net.cpp:86] Creating Layer relu1
I0428 20:00:57.938526 29618 net.cpp:408] relu1 <- ip1
I0428 20:00:57.938532 29618 net.cpp:369] relu1 -> ip1 (in-place)
I0428 20:00:57.938750 29618 net.cpp:124] Setting up relu1
I0428 20:00:57.938761 29618 net.cpp:131] Top shape: 64 50 (3200)
I0428 20:00:57.938766 29618 net.cpp:139] Memory required for data: 2581760
I0428 20:00:57.938771 29618 layer_factory.hpp:77] Creating layer ip2
I0428 20:00:57.938779 29618 net.cpp:86] Creating Layer ip2
I0428 20:00:57.938784 29618 net.cpp:408] ip2 <- ip1
I0428 20:00:57.938791 29618 net.cpp:382] ip2 -> ip2
I0428 20:00:57.938923 29618 net.cpp:124] Setting up ip2
I0428 20:00:57.938933 29618 net.cpp:131] Top shape: 64 10 (640)
I0428 20:00:57.938938 29618 net.cpp:139] Memory required for data: 2584320
I0428 20:00:57.938946 29618 layer_factory.hpp:77] Creating layer relu2
I0428 20:00:57.938953 29618 net.cpp:86] Creating Layer relu2
I0428 20:00:57.938958 29618 net.cpp:408] relu2 <- ip2
I0428 20:00:57.938964 29618 net.cpp:369] relu2 -> ip2 (in-place)
I0428 20:00:57.940063 29618 net.cpp:124] Setting up relu2
I0428 20:00:57.940107 29618 net.cpp:131] Top shape: 64 10 (640)
I0428 20:00:57.940112 29618 net.cpp:139] Memory required for data: 2586880
I0428 20:00:57.940117 29618 layer_factory.hpp:77] Creating layer ip3
I0428 20:00:57.940126 29618 net.cpp:86] Creating Layer ip3
I0428 20:00:57.940131 29618 net.cpp:408] ip3 <- ip2
I0428 20:00:57.940140 29618 net.cpp:382] ip3 -> ip3
I0428 20:00:57.940256 29618 net.cpp:124] Setting up ip3
I0428 20:00:57.940266 29618 net.cpp:131] Top shape: 64 10 (640)
I0428 20:00:57.940270 29618 net.cpp:139] Memory required for data: 2589440
I0428 20:00:57.940281 29618 layer_factory.hpp:77] Creating layer relu3
I0428 20:00:57.940289 29618 net.cpp:86] Creating Layer relu3
I0428 20:00:57.940294 29618 net.cpp:408] relu3 <- ip3
I0428 20:00:57.940299 29618 net.cpp:369] relu3 -> ip3 (in-place)
I0428 20:00:57.940507 29618 net.cpp:124] Setting up relu3
I0428 20:00:57.940518 29618 net.cpp:131] Top shape: 64 10 (640)
I0428 20:00:57.940523 29618 net.cpp:139] Memory required for data: 2592000
I0428 20:00:57.940527 29618 layer_factory.hpp:77] Creating layer loss
I0428 20:00:57.940536 29618 net.cpp:86] Creating Layer loss
I0428 20:00:57.940539 29618 net.cpp:408] loss <- ip3
I0428 20:00:57.940546 29618 net.cpp:408] loss <- label
I0428 20:00:57.940553 29618 net.cpp:382] loss -> loss
I0428 20:00:57.940573 29618 layer_factory.hpp:77] Creating layer loss
…
I0428 20:00:57.941684 29618 solver.cpp:173] Creating test net (#0) specified by net file: ECE595/mnist/train_test/var_everything2/lenet_train_test890.prototxt
I0428 20:00:57.941752 29618 net.cpp:296] The NetState phase (1) differed from the phase (0) specified by a rule in layer mnist
I0428 20:00:57.941885 29618 net.cpp:53] Initializing net from parameters: 
name: "LeNet"
state {
  phase: TEST
}
layer {
  name: "mnist"
  type: "Data"
  top: "data"
  top: "label"
  include {
    phase: TEST
  }
  transform_param {
    scale: 0.00390625
  }
  data_param {
    source: "examples/mnist/mnist_test_lmdb"
    batch_size: 100
    backend: LMDB
  }
}
layer {
  name: "conv0"
  type: "Convolution"
  bottom: "data"
  top: "conv0"
  param {
    lr_mult: 1
  }
  param {
    lr_mult: 2
  }
  convolution_param {
    num_output: 10
    kernel_size: 5
    stride: 1
    weight_filler {
      type: "xavier"
    }
    bias_filler {
      type: "constant"
    }
  }
}
layer {
  name: "pool0"
  type: "Pooling"
  bottom: "conv0"
  top: "pool0"
  pooling_param {
    pool: MAX
    kernel_size: 2
    stride: 2
  }
}
layer {
  name: "conv1"
  type: "Convolution"
  bottom: "pool0"
  top: "conv1"
  param {
    lr_mult: 1
  }
  param {
    lr_mult: 2
  }
  convolution_param {
    num_output: 25
    kernel_size: 5
    stride: 1
    weight_filler {
      type: "xavier"
    }
    bias_filler {
      type: "constant"
    }
  }
}
layer {
  name: "pool1"
  type: "Pooling"
  bottom: "conv1"
  top: "pool1"
  pooling_param {
    pool: MAX
    kernel_size: 2
    stride: 2
  }
}
layer {
  name: "ip1"
  type: "InnerProduct"
  bottom: "pool1"
  top: "ip1"
  param {
    lr_mult: 1
  }
  param {
    lr_mult: 2
  }
  inner_product_param {
    num_output: 50
    weight_filler {
      type: "xavier"
    }
    bias_filler {
      type: "constant"
    }
  }
}
layer {
  name: "relu1"
  type: "ReLU"
  bottom: "ip1"
  top: "ip1"
}
layer {
  name: "ip2"
  type: "InnerProduct"
  bottom: "ip1"
  top: "ip2"
  param {
    lr_mult: 1
  }
  param {
    lr_mult: 2
  }
  inner_product_param {
    num_output: 10
    weight_filler {
      type: "xavier"
    }
    bias_filler {
      type: "constant"
    }
  }
}
layer {
  name: "relu2"
  type: "ReLU"
  bottom: "ip2"
  top: "ip2"
}
layer {
  name: "ip3"
  type: "InnerProduct"
  bottom: "ip2"
  top: "ip3"
  param {
    lr_mult: 1
  }
  param {
    lr_mult: 2
  }
  inner_product_param {
    num_output: 10
    weight_filler {
      type: "xavier"
    }
    bias_filler {
      type: "constant"
    }
  }
}
layer {
  name: "relu3"
  type: "ReLU"
  bottom: "ip3"
  top: "ip3"
}
layer {
  name: "accuracy"
  type: "Accuracy"
  bottom: "ip3"
  bottom: "label"
  top: "accuracy"
  include {
    phase: TEST
  }
}
layer {
  name: "loss"
  type: "SoftmaxWithLoss"
  bottom: "ip3"
  bottom: "label"
  top: "loss"
}
I0428 20:00:57.942013 29618 layer_factory.hpp:77] Creating layer mnist
I0428 20:00:57.942080 29618 db_lmdb.cpp:35] Opened lmdb examples/mnist/mnist_test_lmdb
I0428 20:00:57.942097 29618 net.cpp:86] Creating Layer mnist
I0428 20:00:57.942104 29618 net.cpp:382] mnist -> data
I0428 20:00:57.942114 29618 net.cpp:382] mnist -> label
I0428 20:00:57.942236 29618 data_layer.cpp:45] output data size: 100,1,28,28
I0428 20:00:57.944995 29618 net.cpp:124] Setting up mnist
I0428 20:00:57.945027 29618 net.cpp:131] Top shape: 100 1 28 28 (78400)
I0428 20:00:57.945037 29618 net.cpp:131] Top shape: 100 (100)
I0428 20:00:57.945041 29618 net.cpp:139] Memory required for data: 314000
I0428 20:00:57.945047 29618 layer_factory.hpp:77] Creating layer label_mnist_1_split
I0428 20:00:57.945060 29618 net.cpp:86] Creating Layer label_mnist_1_split
I0428 20:00:57.945080 29618 net.cpp:408] label_mnist_1_split <- label
I0428 20:00:57.945087 29618 net.cpp:382] label_mnist_1_split -> label_mnist_1_split_0
I0428 20:00:57.945096 29618 net.cpp:382] label_mnist_1_split -> label_mnist_1_split_1
I0428 20:00:57.945216 29618 net.cpp:124] Setting up label_mnist_1_split
I0428 20:00:57.945227 29618 net.cpp:131] Top shape: 100 (100)
I0428 20:00:57.945233 29618 net.cpp:131] Top shape: 100 (100)
I0428 20:00:57.945237 29618 net.cpp:139] Memory required for data: 314800
I0428 20:00:57.945241 29618 layer_factory.hpp:77] Creating layer conv0
I0428 20:00:57.945255 29618 net.cpp:86] Creating Layer conv0
I0428 20:00:57.945274 29618 net.cpp:408] conv0 <- data
I0428 20:00:57.945284 29618 net.cpp:382] conv0 -> conv0
I0428 20:00:57.947374 29618 net.cpp:124] Setting up conv0
I0428 20:00:57.947407 29618 net.cpp:131] Top shape: 100 10 24 24 (576000)
I0428 20:00:57.947412 29618 net.cpp:139] Memory required for data: 2618800
I0428 20:00:57.947424 29618 layer_factory.hpp:77] Creating layer pool0
I0428 20:00:57.947434 29618 net.cpp:86] Creating Layer pool0
I0428 20:00:57.947439 29618 net.cpp:408] pool0 <- conv0
I0428 20:00:57.947463 29618 net.cpp:382] pool0 -> pool0
I0428 20:00:57.947535 29618 net.cpp:124] Setting up pool0
I0428 20:00:57.947545 29618 net.cpp:131] Top shape: 100 10 12 12 (144000)
I0428 20:00:57.947549 29618 net.cpp:139] Memory required for data: 3194800
I0428 20:00:57.947566 29618 layer_factory.hpp:77] Creating layer conv1
I0428 20:00:57.947580 29618 net.cpp:86] Creating Layer conv1
I0428 20:00:57.947585 29618 net.cpp:408] conv1 <- pool0
I0428 20:00:57.947594 29618 net.cpp:382] conv1 -> conv1
I0428 20:00:57.950582 29618 net.cpp:124] Setting up conv1
I0428 20:00:57.950599 29618 net.cpp:131] Top shape: 100 25 8 8 (160000)
I0428 20:00:57.950605 29618 net.cpp:139] Memory required for data: 3834800
I0428 20:00:57.950634 29618 layer_factory.hpp:77] Creating layer pool1
I0428 20:00:57.950644 29618 net.cpp:86] Creating Layer pool1
I0428 20:00:57.950649 29618 net.cpp:408] pool1 <- conv1
I0428 20:00:57.950659 29618 net.cpp:382] pool1 -> pool1
I0428 20:00:57.950742 29618 net.cpp:124] Setting up pool1
I0428 20:00:57.950754 29618 net.cpp:131] Top shape: 100 25 4 4 (40000)
I0428 20:00:57.950767 29618 net.cpp:139] Memory required for data: 3994800
I0428 20:00:57.950773 29618 layer_factory.hpp:77] Creating layer ip1
I0428 20:00:57.950781 29618 net.cpp:86] Creating Layer ip1
I0428 20:00:57.950786 29618 net.cpp:408] ip1 <- pool1
I0428 20:00:57.950795 29618 net.cpp:382] ip1 -> ip1
I0428 20:00:57.951133 29618 net.cpp:124] Setting up ip1
I0428 20:00:57.951144 29618 net.cpp:131] Top shape: 100 50 (5000)
I0428 20:00:57.951161 29618 net.cpp:139] Memory required for data: 4014800
I0428 20:00:57.951174 29618 layer_factory.hpp:77] Creating layer relu1
I0428 20:00:57.951181 29618 net.cpp:86] Creating Layer relu1
I0428 20:00:57.951187 29618 net.cpp:408] relu1 <- ip1
I0428 20:00:57.951196 29618 net.cpp:369] relu1 -> ip1 (in-place)
I0428 20:00:57.951431 29618 net.cpp:124] Setting up relu1
I0428 20:00:57.951444 29618 net.cpp:131] Top shape: 100 50 (5000)
I0428 20:00:57.951449 29618 net.cpp:139] Memory required for data: 4034800
I0428 20:00:57.951454 29618 layer_factory.hpp:77] Creating layer ip2
I0428 20:00:57.951467 29618 net.cpp:86] Creating Layer ip2
I0428 20:00:57.951472 29618 net.cpp:408] ip2 <- ip1
I0428 20:00:57.951480 29618 net.cpp:382] ip2 -> ip2
I0428 20:00:57.951643 29618 net.cpp:124] Setting up ip2
I0428 20:00:57.951654 29618 net.cpp:131] Top shape: 100 10 (1000)
I0428 20:00:57.951659 29618 net.cpp:139] Memory required for data: 4038800
I0428 20:00:57.951668 29618 layer_factory.hpp:77] Creating layer relu2
I0428 20:00:57.951675 29618 net.cpp:86] Creating Layer relu2
I0428 20:00:57.951681 29618 net.cpp:408] relu2 <- ip2
I0428 20:00:57.951689 29618 net.cpp:369] relu2 -> ip2 (in-place)
I0428 20:00:57.951998 29618 net.cpp:124] Setting up relu2
I0428 20:00:57.952026 29618 net.cpp:131] Top shape: 100 10 (1000)
I0428 20:00:57.952031 29618 net.cpp:139] Memory required for data: 4042800
I0428 20:00:57.952038 29618 layer_factory.hpp:77] Creating layer ip3
I0428 20:00:57.952047 29618 net.cpp:86] Creating Layer ip3
I0428 20:00:57.952052 29618 net.cpp:408] ip3 <- ip2
I0428 20:00:57.952059 29618 net.cpp:382] ip3 -> ip3
I0428 20:00:57.952193 29618 net.cpp:124] Setting up ip3
I0428 20:00:57.952203 29618 net.cpp:131] Top shape: 100 10 (1000)
I0428 20:00:57.952209 29618 net.cpp:139] Memory required for data: 4046800
I0428 20:00:57.952222 29618 layer_factory.hpp:77] Creating layer relu3
I0428 20:00:57.952229 29618 net.cpp:86] Creating Layer relu3
I0428 20:00:57.952234 29618 net.cpp:408] relu3 <- ip3
I0428 20:00:57.952247 29618 net.cpp:369] relu3 -> ip3 (in-place)
I0428 20:00:57.953392 29618 net.cpp:124] Setting up relu3
I0428 20:00:57.953423 29618 net.cpp:131] Top shape: 100 10 (1000)
I0428 20:00:57.953428 29618 net.cpp:139] Memory required for data: 4050800
I0428 20:00:57.953433 29618 layer_factory.hpp:77] Creating layer ip3_relu3_0_split
I0428 20:00:57.953441 29618 net.cpp:86] Creating Layer ip3_relu3_0_split
I0428 20:00:57.953446 29618 net.cpp:408] ip3_relu3_0_split <- ip3
I0428 20:00:57.953454 29618 net.cpp:382] ip3_relu3_0_split -> ip3_relu3_0_split_0
I0428 20:00:57.953461 29618 net.cpp:382] ip3_relu3_0_split -> ip3_relu3_0_split_1
I0428 20:00:57.953508 29618 net.cpp:124] Setting up ip3_relu3_0_split
I0428 20:00:57.953516 29618 net.cpp:131] Top shape: 100 10 (1000)
I0428 20:00:57.953521 29618 net.cpp:131] Top shape: 100 10 (1000)
I0428 20:00:57.953526 29618 net.cpp:139] Memory required for data: 4058800
I0428 20:00:57.953531 29618 layer_factory.hpp:77] Creating layer accuracy
I0428 20:00:57.953538 29618 net.cpp:86] Creating Layer accuracy
I0428 20:00:57.953543 29618 net.cpp:408] accuracy <- ip3_relu3_0_split_0
I0428 20:00:57.953548 29618 net.cpp:408] accuracy <- label_mnist_1_split_0
I0428 20:00:57.953555 29618 net.cpp:382] accuracy -> accuracy
…
