…
I0428 20:20:15.799672  1514 net.cpp:296] The NetState phase (0) differed from the phase (1) specified by a rule in layer mnist
I0428 20:20:15.799705  1514 net.cpp:296] The NetState phase (0) differed from the phase (1) specified by a rule in layer accuracy
I0428 20:20:15.799890  1514 net.cpp:53] Initializing net from parameters: 
name: "LeNet"
state {
  phase: TRAIN
  level: 0
  stage: ""
}
layer {
  name: "mnist"
  type: "Data"
  top: "data"
  top: "label"
  include {
    phase: TRAIN
  }
  transform_param {
    scale: 0.00390625
  }
  data_param {
    source: "examples/mnist/mnist_train_lmdb"
    batch_size: 64
    backend: LMDB
  }
}
layer {
  name: "conv0"
  type: "Convolution"
  bottom: "data"
  top: "conv0"
  param {
    lr_mult: 1
  }
  param {
    lr_mult: 2
  }
  convolution_param {
    num_output: 50
    kernel_size: 5
    stride: 1
    weight_filler {
      type: "xavier"
    }
    bias_filler {
      type: "constant"
    }
  }
}
layer {
  name: "pool0"
  type: "Pooling"
  bottom: "conv0"
  top: "pool0"
  pooling_param {
    pool: MAX
    kernel_size: 2
    stride: 2
  }
}
layer {
  name: "conv1"
  type: "Convolution"
  bottom: "pool0"
  top: "conv1"
  param {
    lr_mult: 1
  }
  param {
    lr_mult: 2
  }
  convolution_param {
    num_output: 25
    kernel_size: 5
    stride: 1
    weight_filler {
      type: "xavier"
    }
    bias_filler {
      type: "constant"
    }
  }
}
layer {
  name: "pool1"
  type: "Pooling"
  bottom: "conv1"
  top: "pool1"
  pooling_param {
    pool: MAX
    kernel_size: 2
    stride: 2
  }
}
layer {
  name: "ip1"
  type: "InnerProduct"
  bottom: "pool1"
  top: "ip1"
  param {
    lr_mult: 1
  }
  param {
    lr_mult: 2
  }
  inner_product_param {
    num_output: 50
    weight_filler {
      type: "xavier"
    }
    bias_filler {
      type: "constant"
    }
  }
}
layer {
  name: "relu1"
  type: "ReLU"
  bottom: "ip1"
  top: "ip1"
}
layer {
  name: "ip2"
  type: "InnerProduct"
  bottom: "ip1"
  top: "ip2"
  param {
    lr_mult: 1
  }
  param {
    lr_mult: 2
  }
  inner_product_param {
    num_output: 25
    weight_filler {
      type: "xavier"
    }
    bias_filler {
      type: "constant"
    }
  }
}
layer {
  name: "relu2"
  type: "ReLU"
  bottom: "ip2"
  top: "ip2"
}
layer {
  name: "ip3"
  type: "InnerProduct"
  bottom: "ip2"
  top: "ip3"
  param {
    lr_mult: 1
  }
  param {
    lr_mult: 2
  }
  inner_product_param {
    num_output: 10
    weight_filler {
      type: "xavier"
    }
    bias_filler {
      type: "constant"
    }
  }
}
layer {
  name: "relu3"
  type: "ReLU"
  bottom: "ip3"
  top: "ip3"
}
layer {
  name: "loss"
  type: "SoftmaxWithLoss"
  bottom: "ip3"
  bottom: "label"
  top: "loss"
}
I0428 20:20:15.800017  1514 layer_factory.hpp:77] Creating layer mnist
I0428 20:20:15.800184  1514 db_lmdb.cpp:35] Opened lmdb examples/mnist/mnist_train_lmdb
I0428 20:20:15.800220  1514 net.cpp:86] Creating Layer mnist
I0428 20:20:15.800233  1514 net.cpp:382] mnist -> data
I0428 20:20:15.800266  1514 net.cpp:382] mnist -> label
I0428 20:20:15.802101  1514 data_layer.cpp:45] output data size: 64,1,28,28
I0428 20:20:15.806123  1514 net.cpp:124] Setting up mnist
I0428 20:20:15.806166  1514 net.cpp:131] Top shape: 64 1 28 28 (50176)
I0428 20:20:15.806192  1514 net.cpp:131] Top shape: 64 (64)
I0428 20:20:15.806200  1514 net.cpp:139] Memory required for data: 200960
I0428 20:20:15.806215  1514 layer_factory.hpp:77] Creating layer conv0
I0428 20:20:15.806246  1514 net.cpp:86] Creating Layer conv0
I0428 20:20:15.806279  1514 net.cpp:408] conv0 <- data
I0428 20:20:15.806301  1514 net.cpp:382] conv0 -> conv0
I0428 20:20:16.121249  1514 net.cpp:124] Setting up conv0
I0428 20:20:16.121279  1514 net.cpp:131] Top shape: 64 50 24 24 (1843200)
I0428 20:20:16.121285  1514 net.cpp:139] Memory required for data: 7573760
I0428 20:20:16.121304  1514 layer_factory.hpp:77] Creating layer pool0
I0428 20:20:16.121320  1514 net.cpp:86] Creating Layer pool0
I0428 20:20:16.121325  1514 net.cpp:408] pool0 <- conv0
I0428 20:20:16.121332  1514 net.cpp:382] pool0 -> pool0
I0428 20:20:16.121392  1514 net.cpp:124] Setting up pool0
I0428 20:20:16.121402  1514 net.cpp:131] Top shape: 64 50 12 12 (460800)
I0428 20:20:16.121408  1514 net.cpp:139] Memory required for data: 9416960
I0428 20:20:16.121412  1514 layer_factory.hpp:77] Creating layer conv1
I0428 20:20:16.121428  1514 net.cpp:86] Creating Layer conv1
I0428 20:20:16.121433  1514 net.cpp:408] conv1 <- pool0
I0428 20:20:16.121438  1514 net.cpp:382] conv1 -> conv1
I0428 20:20:16.123813  1514 net.cpp:124] Setting up conv1
I0428 20:20:16.123831  1514 net.cpp:131] Top shape: 64 25 8 8 (102400)
I0428 20:20:16.123842  1514 net.cpp:139] Memory required for data: 9826560
I0428 20:20:16.123852  1514 layer_factory.hpp:77] Creating layer pool1
I0428 20:20:16.123865  1514 net.cpp:86] Creating Layer pool1
I0428 20:20:16.123872  1514 net.cpp:408] pool1 <- conv1
I0428 20:20:16.123878  1514 net.cpp:382] pool1 -> pool1
I0428 20:20:16.123920  1514 net.cpp:124] Setting up pool1
I0428 20:20:16.123929  1514 net.cpp:131] Top shape: 64 25 4 4 (25600)
I0428 20:20:16.123932  1514 net.cpp:139] Memory required for data: 9928960
I0428 20:20:16.123935  1514 layer_factory.hpp:77] Creating layer ip1
I0428 20:20:16.123944  1514 net.cpp:86] Creating Layer ip1
I0428 20:20:16.123950  1514 net.cpp:408] ip1 <- pool1
I0428 20:20:16.123955  1514 net.cpp:382] ip1 -> ip1
I0428 20:20:16.124207  1514 net.cpp:124] Setting up ip1
I0428 20:20:16.124215  1514 net.cpp:131] Top shape: 64 50 (3200)
I0428 20:20:16.124219  1514 net.cpp:139] Memory required for data: 9941760
I0428 20:20:16.124228  1514 layer_factory.hpp:77] Creating layer relu1
I0428 20:20:16.124235  1514 net.cpp:86] Creating Layer relu1
I0428 20:20:16.124240  1514 net.cpp:408] relu1 <- ip1
I0428 20:20:16.124245  1514 net.cpp:369] relu1 -> ip1 (in-place)
I0428 20:20:16.124438  1514 net.cpp:124] Setting up relu1
I0428 20:20:16.124447  1514 net.cpp:131] Top shape: 64 50 (3200)
I0428 20:20:16.124451  1514 net.cpp:139] Memory required for data: 9954560
I0428 20:20:16.124455  1514 layer_factory.hpp:77] Creating layer ip2
I0428 20:20:16.124464  1514 net.cpp:86] Creating Layer ip2
I0428 20:20:16.124469  1514 net.cpp:408] ip2 <- ip1
I0428 20:20:16.124474  1514 net.cpp:382] ip2 -> ip2
I0428 20:20:16.124596  1514 net.cpp:124] Setting up ip2
I0428 20:20:16.124604  1514 net.cpp:131] Top shape: 64 25 (1600)
I0428 20:20:16.124608  1514 net.cpp:139] Memory required for data: 9960960
I0428 20:20:16.124615  1514 layer_factory.hpp:77] Creating layer relu2
I0428 20:20:16.124622  1514 net.cpp:86] Creating Layer relu2
I0428 20:20:16.124626  1514 net.cpp:408] relu2 <- ip2
I0428 20:20:16.124631  1514 net.cpp:369] relu2 -> ip2 (in-place)
I0428 20:20:16.125483  1514 net.cpp:124] Setting up relu2
I0428 20:20:16.125499  1514 net.cpp:131] Top shape: 64 25 (1600)
I0428 20:20:16.125504  1514 net.cpp:139] Memory required for data: 9967360
I0428 20:20:16.125509  1514 layer_factory.hpp:77] Creating layer ip3
I0428 20:20:16.125517  1514 net.cpp:86] Creating Layer ip3
I0428 20:20:16.125522  1514 net.cpp:408] ip3 <- ip2
I0428 20:20:16.125530  1514 net.cpp:382] ip3 -> ip3
I0428 20:20:16.125646  1514 net.cpp:124] Setting up ip3
I0428 20:20:16.125655  1514 net.cpp:131] Top shape: 64 10 (640)
I0428 20:20:16.125659  1514 net.cpp:139] Memory required for data: 9969920
I0428 20:20:16.125669  1514 layer_factory.hpp:77] Creating layer relu3
I0428 20:20:16.125675  1514 net.cpp:86] Creating Layer relu3
I0428 20:20:16.125679  1514 net.cpp:408] relu3 <- ip3
I0428 20:20:16.125684  1514 net.cpp:369] relu3 -> ip3 (in-place)
I0428 20:20:16.125881  1514 net.cpp:124] Setting up relu3
I0428 20:20:16.125890  1514 net.cpp:131] Top shape: 64 10 (640)
I0428 20:20:16.125896  1514 net.cpp:139] Memory required for data: 9972480
I0428 20:20:16.125900  1514 layer_factory.hpp:77] Creating layer loss
I0428 20:20:16.125912  1514 net.cpp:86] Creating Layer loss
I0428 20:20:16.125917  1514 net.cpp:408] loss <- ip3
I0428 20:20:16.125922  1514 net.cpp:408] loss <- label
I0428 20:20:16.125928  1514 net.cpp:382] loss -> loss
I0428 20:20:16.125944  1514 layer_factory.hpp:77] Creating layer loss
…
I0428 20:20:16.126723  1514 solver.cpp:173] Creating test net (#0) specified by net file: ECE595/mnist/train_test/var_everything2/lenet_train_test1359.prototxt
I0428 20:20:16.126754  1514 net.cpp:296] The NetState phase (1) differed from the phase (0) specified by a rule in layer mnist
I0428 20:20:16.126869  1514 net.cpp:53] Initializing net from parameters: 
name: "LeNet"
state {
  phase: TEST
}
layer {
  name: "mnist"
  type: "Data"
  top: "data"
  top: "label"
  include {
    phase: TEST
  }
  transform_param {
    scale: 0.00390625
  }
  data_param {
    source: "examples/mnist/mnist_test_lmdb"
    batch_size: 100
    backend: LMDB
  }
}
layer {
  name: "conv0"
  type: "Convolution"
  bottom: "data"
  top: "conv0"
  param {
    lr_mult: 1
  }
  param {
    lr_mult: 2
  }
  convolution_param {
    num_output: 50
    kernel_size: 5
    stride: 1
    weight_filler {
      type: "xavier"
    }
    bias_filler {
      type: "constant"
    }
  }
}
layer {
  name: "pool0"
  type: "Pooling"
  bottom: "conv0"
  top: "pool0"
  pooling_param {
    pool: MAX
    kernel_size: 2
    stride: 2
  }
}
layer {
  name: "conv1"
  type: "Convolution"
  bottom: "pool0"
  top: "conv1"
  param {
    lr_mult: 1
  }
  param {
    lr_mult: 2
  }
  convolution_param {
    num_output: 25
    kernel_size: 5
    stride: 1
    weight_filler {
      type: "xavier"
    }
    bias_filler {
      type: "constant"
    }
  }
}
layer {
  name: "pool1"
  type: "Pooling"
  bottom: "conv1"
  top: "pool1"
  pooling_param {
    pool: MAX
    kernel_size: 2
    stride: 2
  }
}
layer {
  name: "ip1"
  type: "InnerProduct"
  bottom: "pool1"
  top: "ip1"
  param {
    lr_mult: 1
  }
  param {
    lr_mult: 2
  }
  inner_product_param {
    num_output: 50
    weight_filler {
      type: "xavier"
    }
    bias_filler {
      type: "constant"
    }
  }
}
layer {
  name: "relu1"
  type: "ReLU"
  bottom: "ip1"
  top: "ip1"
}
layer {
  name: "ip2"
  type: "InnerProduct"
  bottom: "ip1"
  top: "ip2"
  param {
    lr_mult: 1
  }
  param {
    lr_mult: 2
  }
  inner_product_param {
    num_output: 25
    weight_filler {
      type: "xavier"
    }
    bias_filler {
      type: "constant"
    }
  }
}
layer {
  name: "relu2"
  type: "ReLU"
  bottom: "ip2"
  top: "ip2"
}
layer {
  name: "ip3"
  type: "InnerProduct"
  bottom: "ip2"
  top: "ip3"
  param {
    lr_mult: 1
  }
  param {
    lr_mult: 2
  }
  inner_product_param {
    num_output: 10
    weight_filler {
      type: "xavier"
    }
    bias_filler {
      type: "constant"
    }
  }
}
layer {
  name: "relu3"
  type: "ReLU"
  bottom: "ip3"
  top: "ip3"
}
layer {
  name: "accuracy"
  type: "Accuracy"
  bottom: "ip3"
  bottom: "label"
  top: "accuracy"
  include {
    phase: TEST
  }
}
layer {
  name: "loss"
  type: "SoftmaxWithLoss"
  bottom: "ip3"
  bottom: "label"
  top: "loss"
}
I0428 20:20:16.126965  1514 layer_factory.hpp:77] Creating layer mnist
I0428 20:20:16.127014  1514 db_lmdb.cpp:35] Opened lmdb examples/mnist/mnist_test_lmdb
I0428 20:20:16.127034  1514 net.cpp:86] Creating Layer mnist
I0428 20:20:16.127039  1514 net.cpp:382] mnist -> data
I0428 20:20:16.127048  1514 net.cpp:382] mnist -> label
I0428 20:20:16.127149  1514 data_layer.cpp:45] output data size: 100,1,28,28
I0428 20:20:16.129309  1514 net.cpp:124] Setting up mnist
I0428 20:20:16.129325  1514 net.cpp:131] Top shape: 100 1 28 28 (78400)
I0428 20:20:16.129333  1514 net.cpp:131] Top shape: 100 (100)
I0428 20:20:16.129338  1514 net.cpp:139] Memory required for data: 314000
I0428 20:20:16.129343  1514 layer_factory.hpp:77] Creating layer label_mnist_1_split
I0428 20:20:16.129350  1514 net.cpp:86] Creating Layer label_mnist_1_split
I0428 20:20:16.129355  1514 net.cpp:408] label_mnist_1_split <- label
I0428 20:20:16.129361  1514 net.cpp:382] label_mnist_1_split -> label_mnist_1_split_0
I0428 20:20:16.129369  1514 net.cpp:382] label_mnist_1_split -> label_mnist_1_split_1
I0428 20:20:16.129420  1514 net.cpp:124] Setting up label_mnist_1_split
I0428 20:20:16.129428  1514 net.cpp:131] Top shape: 100 (100)
I0428 20:20:16.129433  1514 net.cpp:131] Top shape: 100 (100)
I0428 20:20:16.129437  1514 net.cpp:139] Memory required for data: 314800
I0428 20:20:16.129441  1514 layer_factory.hpp:77] Creating layer conv0
I0428 20:20:16.129451  1514 net.cpp:86] Creating Layer conv0
I0428 20:20:16.129456  1514 net.cpp:408] conv0 <- data
I0428 20:20:16.129463  1514 net.cpp:382] conv0 -> conv0
I0428 20:20:16.131181  1514 net.cpp:124] Setting up conv0
I0428 20:20:16.131198  1514 net.cpp:131] Top shape: 100 50 24 24 (2880000)
I0428 20:20:16.131204  1514 net.cpp:139] Memory required for data: 11834800
I0428 20:20:16.131216  1514 layer_factory.hpp:77] Creating layer pool0
I0428 20:20:16.131224  1514 net.cpp:86] Creating Layer pool0
I0428 20:20:16.131229  1514 net.cpp:408] pool0 <- conv0
I0428 20:20:16.131235  1514 net.cpp:382] pool0 -> pool0
I0428 20:20:16.131276  1514 net.cpp:124] Setting up pool0
I0428 20:20:16.131284  1514 net.cpp:131] Top shape: 100 50 12 12 (720000)
I0428 20:20:16.131288  1514 net.cpp:139] Memory required for data: 14714800
I0428 20:20:16.131291  1514 layer_factory.hpp:77] Creating layer conv1
I0428 20:20:16.131301  1514 net.cpp:86] Creating Layer conv1
I0428 20:20:16.131309  1514 net.cpp:408] conv1 <- pool0
I0428 20:20:16.131314  1514 net.cpp:382] conv1 -> conv1
I0428 20:20:16.133296  1514 net.cpp:124] Setting up conv1
I0428 20:20:16.133323  1514 net.cpp:131] Top shape: 100 25 8 8 (160000)
I0428 20:20:16.133329  1514 net.cpp:139] Memory required for data: 15354800
I0428 20:20:16.133352  1514 layer_factory.hpp:77] Creating layer pool1
I0428 20:20:16.133360  1514 net.cpp:86] Creating Layer pool1
I0428 20:20:16.133365  1514 net.cpp:408] pool1 <- conv1
I0428 20:20:16.133373  1514 net.cpp:382] pool1 -> pool1
I0428 20:20:16.133417  1514 net.cpp:124] Setting up pool1
I0428 20:20:16.133425  1514 net.cpp:131] Top shape: 100 25 4 4 (40000)
I0428 20:20:16.133430  1514 net.cpp:139] Memory required for data: 15514800
I0428 20:20:16.133433  1514 layer_factory.hpp:77] Creating layer ip1
I0428 20:20:16.133440  1514 net.cpp:86] Creating Layer ip1
I0428 20:20:16.133446  1514 net.cpp:408] ip1 <- pool1
I0428 20:20:16.133452  1514 net.cpp:382] ip1 -> ip1
I0428 20:20:16.133704  1514 net.cpp:124] Setting up ip1
I0428 20:20:16.133714  1514 net.cpp:131] Top shape: 100 50 (5000)
I0428 20:20:16.133733  1514 net.cpp:139] Memory required for data: 15534800
I0428 20:20:16.133741  1514 layer_factory.hpp:77] Creating layer relu1
I0428 20:20:16.133749  1514 net.cpp:86] Creating Layer relu1
I0428 20:20:16.133752  1514 net.cpp:408] relu1 <- ip1
I0428 20:20:16.133759  1514 net.cpp:369] relu1 -> ip1 (in-place)
I0428 20:20:16.133946  1514 net.cpp:124] Setting up relu1
I0428 20:20:16.133955  1514 net.cpp:131] Top shape: 100 50 (5000)
I0428 20:20:16.133961  1514 net.cpp:139] Memory required for data: 15554800
I0428 20:20:16.133965  1514 layer_factory.hpp:77] Creating layer ip2
I0428 20:20:16.133975  1514 net.cpp:86] Creating Layer ip2
I0428 20:20:16.133980  1514 net.cpp:408] ip2 <- ip1
I0428 20:20:16.133985  1514 net.cpp:382] ip2 -> ip2
I0428 20:20:16.134150  1514 net.cpp:124] Setting up ip2
I0428 20:20:16.134158  1514 net.cpp:131] Top shape: 100 25 (2500)
I0428 20:20:16.134162  1514 net.cpp:139] Memory required for data: 15564800
I0428 20:20:16.134168  1514 layer_factory.hpp:77] Creating layer relu2
I0428 20:20:16.134176  1514 net.cpp:86] Creating Layer relu2
I0428 20:20:16.134191  1514 net.cpp:408] relu2 <- ip2
I0428 20:20:16.134196  1514 net.cpp:369] relu2 -> ip2 (in-place)
I0428 20:20:16.134414  1514 net.cpp:124] Setting up relu2
I0428 20:20:16.134425  1514 net.cpp:131] Top shape: 100 25 (2500)
I0428 20:20:16.134428  1514 net.cpp:139] Memory required for data: 15574800
I0428 20:20:16.134433  1514 layer_factory.hpp:77] Creating layer ip3
I0428 20:20:16.134439  1514 net.cpp:86] Creating Layer ip3
I0428 20:20:16.134443  1514 net.cpp:408] ip3 <- ip2
I0428 20:20:16.134449  1514 net.cpp:382] ip3 -> ip3
I0428 20:20:16.134563  1514 net.cpp:124] Setting up ip3
I0428 20:20:16.134572  1514 net.cpp:131] Top shape: 100 10 (1000)
I0428 20:20:16.134577  1514 net.cpp:139] Memory required for data: 15578800
I0428 20:20:16.134585  1514 layer_factory.hpp:77] Creating layer relu3
I0428 20:20:16.134603  1514 net.cpp:86] Creating Layer relu3
I0428 20:20:16.134608  1514 net.cpp:408] relu3 <- ip3
I0428 20:20:16.134613  1514 net.cpp:369] relu3 -> ip3 (in-place)
I0428 20:20:16.135529  1514 net.cpp:124] Setting up relu3
I0428 20:20:16.135542  1514 net.cpp:131] Top shape: 100 10 (1000)
I0428 20:20:16.135548  1514 net.cpp:139] Memory required for data: 15582800
I0428 20:20:16.135552  1514 layer_factory.hpp:77] Creating layer ip3_relu3_0_split
I0428 20:20:16.135558  1514 net.cpp:86] Creating Layer ip3_relu3_0_split
I0428 20:20:16.135563  1514 net.cpp:408] ip3_relu3_0_split <- ip3
I0428 20:20:16.135581  1514 net.cpp:382] ip3_relu3_0_split -> ip3_relu3_0_split_0
I0428 20:20:16.135588  1514 net.cpp:382] ip3_relu3_0_split -> ip3_relu3_0_split_1
I0428 20:20:16.135632  1514 net.cpp:124] Setting up ip3_relu3_0_split
I0428 20:20:16.135639  1514 net.cpp:131] Top shape: 100 10 (1000)
I0428 20:20:16.135644  1514 net.cpp:131] Top shape: 100 10 (1000)
I0428 20:20:16.135648  1514 net.cpp:139] Memory required for data: 15590800
I0428 20:20:16.135653  1514 layer_factory.hpp:77] Creating layer accuracy
I0428 20:20:16.135658  1514 net.cpp:86] Creating Layer accuracy
I0428 20:20:16.135663  1514 net.cpp:408] accuracy <- ip3_relu3_0_split_0
I0428 20:20:16.135666  1514 net.cpp:408] accuracy <- label_mnist_1_split_0
I0428 20:20:16.135674  1514 net.cpp:382] accuracy -> accuracy
…
