…
I0428 20:29:34.191776  3553 net.cpp:296] The NetState phase (0) differed from the phase (1) specified by a rule in layer mnist
I0428 20:29:34.191799  3553 net.cpp:296] The NetState phase (0) differed from the phase (1) specified by a rule in layer accuracy
I0428 20:29:34.191905  3553 net.cpp:53] Initializing net from parameters: 
name: "LeNet"
state {
  phase: TRAIN
  level: 0
  stage: ""
}
layer {
  name: "mnist"
  type: "Data"
  top: "data"
  top: "label"
  include {
    phase: TRAIN
  }
  transform_param {
    scale: 0.00390625
  }
  data_param {
    source: "examples/mnist/mnist_train_lmdb"
    batch_size: 64
    backend: LMDB
  }
}
layer {
  name: "conv0"
  type: "Convolution"
  bottom: "data"
  top: "conv0"
  param {
    lr_mult: 1
  }
  param {
    lr_mult: 2
  }
  convolution_param {
    num_output: 100
    kernel_size: 5
    stride: 1
    weight_filler {
      type: "xavier"
    }
    bias_filler {
      type: "constant"
    }
  }
}
layer {
  name: "pool0"
  type: "Pooling"
  bottom: "conv0"
  top: "pool0"
  pooling_param {
    pool: MAX
    kernel_size: 2
    stride: 2
  }
}
layer {
  name: "conv1"
  type: "Convolution"
  bottom: "pool0"
  top: "conv1"
  param {
    lr_mult: 1
  }
  param {
    lr_mult: 2
  }
  convolution_param {
    num_output: 10
    kernel_size: 5
    stride: 1
    weight_filler {
      type: "xavier"
    }
    bias_filler {
      type: "constant"
    }
  }
}
layer {
  name: "pool1"
  type: "Pooling"
  bottom: "conv1"
  top: "pool1"
  pooling_param {
    pool: MAX
    kernel_size: 2
    stride: 2
  }
}
layer {
  name: "ip1"
  type: "InnerProduct"
  bottom: "pool1"
  top: "ip1"
  param {
    lr_mult: 1
  }
  param {
    lr_mult: 2
  }
  inner_product_param {
    num_output: 10
    weight_filler {
      type: "xavier"
    }
    bias_filler {
      type: "constant"
    }
  }
}
layer {
  name: "relu1"
  type: "ReLU"
  bottom: "ip1"
  top: "ip1"
}
layer {
  name: "ip2"
  type: "InnerProduct"
  bottom: "ip1"
  top: "ip2"
  param {
    lr_mult: 1
  }
  param {
    lr_mult: 2
  }
  inner_product_param {
    num_output: 10
    weight_filler {
      type: "xavier"
    }
    bias_filler {
      type: "constant"
    }
  }
}
layer {
  name: "relu2"
  type: "ReLU"
  bottom: "ip2"
  top: "ip2"
}
layer {
  name: "loss"
  type: "SoftmaxWithLoss"
  bottom: "ip2"
  bottom: "label"
  top: "loss"
}
I0428 20:29:34.192013  3553 layer_factory.hpp:77] Creating layer mnist
I0428 20:29:34.192150  3553 db_lmdb.cpp:35] Opened lmdb examples/mnist/mnist_train_lmdb
I0428 20:29:34.192183  3553 net.cpp:86] Creating Layer mnist
I0428 20:29:34.192198  3553 net.cpp:382] mnist -> data
I0428 20:29:34.192227  3553 net.cpp:382] mnist -> label
I0428 20:29:34.193464  3553 data_layer.cpp:45] output data size: 64,1,28,28
I0428 20:29:34.195945  3553 net.cpp:124] Setting up mnist
I0428 20:29:34.195966  3553 net.cpp:131] Top shape: 64 1 28 28 (50176)
I0428 20:29:34.195976  3553 net.cpp:131] Top shape: 64 (64)
I0428 20:29:34.195981  3553 net.cpp:139] Memory required for data: 200960
I0428 20:29:34.195992  3553 layer_factory.hpp:77] Creating layer conv0
I0428 20:29:34.196017  3553 net.cpp:86] Creating Layer conv0
I0428 20:29:34.196028  3553 net.cpp:408] conv0 <- data
I0428 20:29:34.196048  3553 net.cpp:382] conv0 -> conv0
I0428 20:29:34.486428  3553 net.cpp:124] Setting up conv0
I0428 20:29:34.486464  3553 net.cpp:131] Top shape: 64 100 24 24 (3686400)
I0428 20:29:34.486470  3553 net.cpp:139] Memory required for data: 14946560
I0428 20:29:34.486523  3553 layer_factory.hpp:77] Creating layer pool0
I0428 20:29:34.486547  3553 net.cpp:86] Creating Layer pool0
I0428 20:29:34.486557  3553 net.cpp:408] pool0 <- conv0
I0428 20:29:34.486568  3553 net.cpp:382] pool0 -> pool0
I0428 20:29:34.486634  3553 net.cpp:124] Setting up pool0
I0428 20:29:34.486645  3553 net.cpp:131] Top shape: 64 100 12 12 (921600)
I0428 20:29:34.486651  3553 net.cpp:139] Memory required for data: 18632960
I0428 20:29:34.486659  3553 layer_factory.hpp:77] Creating layer conv1
I0428 20:29:34.486677  3553 net.cpp:86] Creating Layer conv1
I0428 20:29:34.486685  3553 net.cpp:408] conv1 <- pool0
I0428 20:29:34.486696  3553 net.cpp:382] conv1 -> conv1
I0428 20:29:34.489027  3553 net.cpp:124] Setting up conv1
I0428 20:29:34.489045  3553 net.cpp:131] Top shape: 64 10 8 8 (40960)
I0428 20:29:34.489053  3553 net.cpp:139] Memory required for data: 18796800
I0428 20:29:34.489069  3553 layer_factory.hpp:77] Creating layer pool1
I0428 20:29:34.489084  3553 net.cpp:86] Creating Layer pool1
I0428 20:29:34.489091  3553 net.cpp:408] pool1 <- conv1
I0428 20:29:34.489104  3553 net.cpp:382] pool1 -> pool1
I0428 20:29:34.489164  3553 net.cpp:124] Setting up pool1
I0428 20:29:34.489176  3553 net.cpp:131] Top shape: 64 10 4 4 (10240)
I0428 20:29:34.489181  3553 net.cpp:139] Memory required for data: 18837760
I0428 20:29:34.489188  3553 layer_factory.hpp:77] Creating layer ip1
I0428 20:29:34.489202  3553 net.cpp:86] Creating Layer ip1
I0428 20:29:34.489208  3553 net.cpp:408] ip1 <- pool1
I0428 20:29:34.489218  3553 net.cpp:382] ip1 -> ip1
I0428 20:29:34.489367  3553 net.cpp:124] Setting up ip1
I0428 20:29:34.489380  3553 net.cpp:131] Top shape: 64 10 (640)
I0428 20:29:34.489387  3553 net.cpp:139] Memory required for data: 18840320
I0428 20:29:34.489401  3553 layer_factory.hpp:77] Creating layer relu1
I0428 20:29:34.489411  3553 net.cpp:86] Creating Layer relu1
I0428 20:29:34.489419  3553 net.cpp:408] relu1 <- ip1
I0428 20:29:34.489428  3553 net.cpp:369] relu1 -> ip1 (in-place)
I0428 20:29:34.489634  3553 net.cpp:124] Setting up relu1
I0428 20:29:34.489645  3553 net.cpp:131] Top shape: 64 10 (640)
I0428 20:29:34.489651  3553 net.cpp:139] Memory required for data: 18842880
I0428 20:29:34.489657  3553 layer_factory.hpp:77] Creating layer ip2
I0428 20:29:34.489670  3553 net.cpp:86] Creating Layer ip2
I0428 20:29:34.489676  3553 net.cpp:408] ip2 <- ip1
I0428 20:29:34.489686  3553 net.cpp:382] ip2 -> ip2
I0428 20:29:34.489809  3553 net.cpp:124] Setting up ip2
I0428 20:29:34.489817  3553 net.cpp:131] Top shape: 64 10 (640)
I0428 20:29:34.489825  3553 net.cpp:139] Memory required for data: 18845440
I0428 20:29:34.489835  3553 layer_factory.hpp:77] Creating layer relu2
I0428 20:29:34.489846  3553 net.cpp:86] Creating Layer relu2
I0428 20:29:34.489855  3553 net.cpp:408] relu2 <- ip2
I0428 20:29:34.489863  3553 net.cpp:369] relu2 -> ip2 (in-place)
I0428 20:29:34.490720  3553 net.cpp:124] Setting up relu2
I0428 20:29:34.490737  3553 net.cpp:131] Top shape: 64 10 (640)
I0428 20:29:34.490744  3553 net.cpp:139] Memory required for data: 18848000
I0428 20:29:34.490752  3553 layer_factory.hpp:77] Creating layer loss
I0428 20:29:34.490763  3553 net.cpp:86] Creating Layer loss
I0428 20:29:34.490770  3553 net.cpp:408] loss <- ip2
I0428 20:29:34.490778  3553 net.cpp:408] loss <- label
I0428 20:29:34.490789  3553 net.cpp:382] loss -> loss
I0428 20:29:34.490814  3553 layer_factory.hpp:77] Creating layer loss
…
I0428 20:29:34.491606  3553 solver.cpp:173] Creating test net (#0) specified by net file: ECE595/mnist/train_test/var_everything2/lenet_train_test1524.prototxt
I0428 20:29:34.491646  3553 net.cpp:296] The NetState phase (1) differed from the phase (0) specified by a rule in layer mnist
I0428 20:29:34.491755  3553 net.cpp:53] Initializing net from parameters: 
name: "LeNet"
state {
  phase: TEST
}
layer {
  name: "mnist"
  type: "Data"
  top: "data"
  top: "label"
  include {
    phase: TEST
  }
  transform_param {
    scale: 0.00390625
  }
  data_param {
    source: "examples/mnist/mnist_test_lmdb"
    batch_size: 100
    backend: LMDB
  }
}
layer {
  name: "conv0"
  type: "Convolution"
  bottom: "data"
  top: "conv0"
  param {
    lr_mult: 1
  }
  param {
    lr_mult: 2
  }
  convolution_param {
    num_output: 100
    kernel_size: 5
    stride: 1
    weight_filler {
      type: "xavier"
    }
    bias_filler {
      type: "constant"
    }
  }
}
layer {
  name: "pool0"
  type: "Pooling"
  bottom: "conv0"
  top: "pool0"
  pooling_param {
    pool: MAX
    kernel_size: 2
    stride: 2
  }
}
layer {
  name: "conv1"
  type: "Convolution"
  bottom: "pool0"
  top: "conv1"
  param {
    lr_mult: 1
  }
  param {
    lr_mult: 2
  }
  convolution_param {
    num_output: 10
    kernel_size: 5
    stride: 1
    weight_filler {
      type: "xavier"
    }
    bias_filler {
      type: "constant"
    }
  }
}
layer {
  name: "pool1"
  type: "Pooling"
  bottom: "conv1"
  top: "pool1"
  pooling_param {
    pool: MAX
    kernel_size: 2
    stride: 2
  }
}
layer {
  name: "ip1"
  type: "InnerProduct"
  bottom: "pool1"
  top: "ip1"
  param {
    lr_mult: 1
  }
  param {
    lr_mult: 2
  }
  inner_product_param {
    num_output: 10
    weight_filler {
      type: "xavier"
    }
    bias_filler {
      type: "constant"
    }
  }
}
layer {
  name: "relu1"
  type: "ReLU"
  bottom: "ip1"
  top: "ip1"
}
layer {
  name: "ip2"
  type: "InnerProduct"
  bottom: "ip1"
  top: "ip2"
  param {
    lr_mult: 1
  }
  param {
    lr_mult: 2
  }
  inner_product_param {
    num_output: 10
    weight_filler {
      type: "xavier"
    }
    bias_filler {
      type: "constant"
    }
  }
}
layer {
  name: "relu2"
  type: "ReLU"
  bottom: "ip2"
  top: "ip2"
}
layer {
  name: "accuracy"
  type: "Accuracy"
  bottom: "ip2"
  bottom: "label"
  top: "accuracy"
  include {
    phase: TEST
  }
}
layer {
  name: "loss"
  type: "SoftmaxWithLoss"
  bottom: "ip2"
  bottom: "label"
  top: "loss"
}
I0428 20:29:34.491873  3553 layer_factory.hpp:77] Creating layer mnist
I0428 20:29:34.491942  3553 db_lmdb.cpp:35] Opened lmdb examples/mnist/mnist_test_lmdb
I0428 20:29:34.491964  3553 net.cpp:86] Creating Layer mnist
I0428 20:29:34.491973  3553 net.cpp:382] mnist -> data
I0428 20:29:34.491988  3553 net.cpp:382] mnist -> label
I0428 20:29:34.492130  3553 data_layer.cpp:45] output data size: 100,1,28,28
I0428 20:29:34.494694  3553 net.cpp:124] Setting up mnist
I0428 20:29:34.494714  3553 net.cpp:131] Top shape: 100 1 28 28 (78400)
I0428 20:29:34.494724  3553 net.cpp:131] Top shape: 100 (100)
I0428 20:29:34.494730  3553 net.cpp:139] Memory required for data: 314000
I0428 20:29:34.494737  3553 layer_factory.hpp:77] Creating layer label_mnist_1_split
I0428 20:29:34.494750  3553 net.cpp:86] Creating Layer label_mnist_1_split
I0428 20:29:34.494756  3553 net.cpp:408] label_mnist_1_split <- label
I0428 20:29:34.494766  3553 net.cpp:382] label_mnist_1_split -> label_mnist_1_split_0
I0428 20:29:34.494779  3553 net.cpp:382] label_mnist_1_split -> label_mnist_1_split_1
I0428 20:29:34.494876  3553 net.cpp:124] Setting up label_mnist_1_split
I0428 20:29:34.494889  3553 net.cpp:131] Top shape: 100 (100)
I0428 20:29:34.494896  3553 net.cpp:131] Top shape: 100 (100)
I0428 20:29:34.494902  3553 net.cpp:139] Memory required for data: 314800
I0428 20:29:34.494909  3553 layer_factory.hpp:77] Creating layer conv0
I0428 20:29:34.494925  3553 net.cpp:86] Creating Layer conv0
I0428 20:29:34.494932  3553 net.cpp:408] conv0 <- data
I0428 20:29:34.494942  3553 net.cpp:382] conv0 -> conv0
I0428 20:29:34.496685  3553 net.cpp:124] Setting up conv0
I0428 20:29:34.496704  3553 net.cpp:131] Top shape: 100 100 24 24 (5760000)
I0428 20:29:34.496711  3553 net.cpp:139] Memory required for data: 23354800
I0428 20:29:34.496728  3553 layer_factory.hpp:77] Creating layer pool0
I0428 20:29:34.496742  3553 net.cpp:86] Creating Layer pool0
I0428 20:29:34.496749  3553 net.cpp:408] pool0 <- conv0
I0428 20:29:34.496759  3553 net.cpp:382] pool0 -> pool0
I0428 20:29:34.496821  3553 net.cpp:124] Setting up pool0
I0428 20:29:34.496834  3553 net.cpp:131] Top shape: 100 100 12 12 (1440000)
I0428 20:29:34.496840  3553 net.cpp:139] Memory required for data: 29114800
I0428 20:29:34.496845  3553 layer_factory.hpp:77] Creating layer conv1
I0428 20:29:34.496868  3553 net.cpp:86] Creating Layer conv1
I0428 20:29:34.496876  3553 net.cpp:408] conv1 <- pool0
I0428 20:29:34.496887  3553 net.cpp:382] conv1 -> conv1
I0428 20:29:34.498654  3553 net.cpp:124] Setting up conv1
I0428 20:29:34.498672  3553 net.cpp:131] Top shape: 100 10 8 8 (64000)
I0428 20:29:34.498679  3553 net.cpp:139] Memory required for data: 29370800
I0428 20:29:34.498694  3553 layer_factory.hpp:77] Creating layer pool1
I0428 20:29:34.498706  3553 net.cpp:86] Creating Layer pool1
I0428 20:29:34.498715  3553 net.cpp:408] pool1 <- conv1
I0428 20:29:34.498725  3553 net.cpp:382] pool1 -> pool1
I0428 20:29:34.498777  3553 net.cpp:124] Setting up pool1
I0428 20:29:34.498788  3553 net.cpp:131] Top shape: 100 10 4 4 (16000)
I0428 20:29:34.498795  3553 net.cpp:139] Memory required for data: 29434800
I0428 20:29:34.498800  3553 layer_factory.hpp:77] Creating layer ip1
I0428 20:29:34.498812  3553 net.cpp:86] Creating Layer ip1
I0428 20:29:34.498819  3553 net.cpp:408] ip1 <- pool1
I0428 20:29:34.498829  3553 net.cpp:382] ip1 -> ip1
I0428 20:29:34.498967  3553 net.cpp:124] Setting up ip1
I0428 20:29:34.498978  3553 net.cpp:131] Top shape: 100 10 (1000)
I0428 20:29:34.498986  3553 net.cpp:139] Memory required for data: 29438800
I0428 20:29:34.499001  3553 layer_factory.hpp:77] Creating layer relu1
I0428 20:29:34.499011  3553 net.cpp:86] Creating Layer relu1
I0428 20:29:34.499018  3553 net.cpp:408] relu1 <- ip1
I0428 20:29:34.499028  3553 net.cpp:369] relu1 -> ip1 (in-place)
I0428 20:29:34.499227  3553 net.cpp:124] Setting up relu1
I0428 20:29:34.499238  3553 net.cpp:131] Top shape: 100 10 (1000)
I0428 20:29:34.499244  3553 net.cpp:139] Memory required for data: 29442800
I0428 20:29:34.499253  3553 layer_factory.hpp:77] Creating layer ip2
I0428 20:29:34.499265  3553 net.cpp:86] Creating Layer ip2
I0428 20:29:34.499274  3553 net.cpp:408] ip2 <- ip1
I0428 20:29:34.499289  3553 net.cpp:382] ip2 -> ip2
I0428 20:29:34.499413  3553 net.cpp:124] Setting up ip2
I0428 20:29:34.499423  3553 net.cpp:131] Top shape: 100 10 (1000)
I0428 20:29:34.499433  3553 net.cpp:139] Memory required for data: 29446800
I0428 20:29:34.499444  3553 layer_factory.hpp:77] Creating layer relu2
I0428 20:29:34.499454  3553 net.cpp:86] Creating Layer relu2
I0428 20:29:34.499459  3553 net.cpp:408] relu2 <- ip2
I0428 20:29:34.499469  3553 net.cpp:369] relu2 -> ip2 (in-place)
I0428 20:29:34.499761  3553 net.cpp:124] Setting up relu2
I0428 20:29:34.499775  3553 net.cpp:131] Top shape: 100 10 (1000)
I0428 20:29:34.499783  3553 net.cpp:139] Memory required for data: 29450800
I0428 20:29:34.499789  3553 layer_factory.hpp:77] Creating layer ip2_relu2_0_split
I0428 20:29:34.499799  3553 net.cpp:86] Creating Layer ip2_relu2_0_split
I0428 20:29:34.499805  3553 net.cpp:408] ip2_relu2_0_split <- ip2
I0428 20:29:34.499817  3553 net.cpp:382] ip2_relu2_0_split -> ip2_relu2_0_split_0
I0428 20:29:34.499843  3553 net.cpp:382] ip2_relu2_0_split -> ip2_relu2_0_split_1
I0428 20:29:34.499894  3553 net.cpp:124] Setting up ip2_relu2_0_split
I0428 20:29:34.499904  3553 net.cpp:131] Top shape: 100 10 (1000)
I0428 20:29:34.499912  3553 net.cpp:131] Top shape: 100 10 (1000)
I0428 20:29:34.499922  3553 net.cpp:139] Memory required for data: 29458800
I0428 20:29:34.499928  3553 layer_factory.hpp:77] Creating layer accuracy
I0428 20:29:34.499938  3553 net.cpp:86] Creating Layer accuracy
I0428 20:29:34.499945  3553 net.cpp:408] accuracy <- ip2_relu2_0_split_0
I0428 20:29:34.499953  3553 net.cpp:408] accuracy <- label_mnist_1_split_0
I0428 20:29:34.499963  3553 net.cpp:382] accuracy -> accuracy
…
