…
I0428 20:01:34.057720 29751 net.cpp:296] The NetState phase (0) differed from the phase (1) specified by a rule in layer mnist
I0428 20:01:34.057739 29751 net.cpp:296] The NetState phase (0) differed from the phase (1) specified by a rule in layer accuracy
I0428 20:01:34.057832 29751 net.cpp:53] Initializing net from parameters: 
name: "LeNet"
state {
  phase: TRAIN
  level: 0
  stage: ""
}
layer {
  name: "mnist"
  type: "Data"
  top: "data"
  top: "label"
  include {
    phase: TRAIN
  }
  transform_param {
    scale: 0.00390625
  }
  data_param {
    source: "examples/mnist/mnist_train_lmdb"
    batch_size: 64
    backend: LMDB
  }
}
layer {
  name: "conv0"
  type: "Convolution"
  bottom: "data"
  top: "conv0"
  param {
    lr_mult: 1
  }
  param {
    lr_mult: 2
  }
  convolution_param {
    num_output: 10
    kernel_size: 5
    stride: 1
    weight_filler {
      type: "xavier"
    }
    bias_filler {
      type: "constant"
    }
  }
}
layer {
  name: "pool0"
  type: "Pooling"
  bottom: "conv0"
  top: "pool0"
  pooling_param {
    pool: MAX
    kernel_size: 2
    stride: 2
  }
}
layer {
  name: "conv1"
  type: "Convolution"
  bottom: "pool0"
  top: "conv1"
  param {
    lr_mult: 1
  }
  param {
    lr_mult: 2
  }
  convolution_param {
    num_output: 50
    kernel_size: 5
    stride: 1
    weight_filler {
      type: "xavier"
    }
    bias_filler {
      type: "constant"
    }
  }
}
layer {
  name: "pool1"
  type: "Pooling"
  bottom: "conv1"
  top: "pool1"
  pooling_param {
    pool: MAX
    kernel_size: 2
    stride: 2
  }
}
layer {
  name: "ip1"
  type: "InnerProduct"
  bottom: "pool1"
  top: "ip1"
  param {
    lr_mult: 1
  }
  param {
    lr_mult: 2
  }
  inner_product_param {
    num_output: 50
    weight_filler {
      type: "xavier"
    }
    bias_filler {
      type: "constant"
    }
  }
}
layer {
  name: "relu1"
  type: "ReLU"
  bottom: "ip1"
  top: "ip1"
}
layer {
  name: "ip2"
  type: "InnerProduct"
  bottom: "ip1"
  top: "ip2"
  param {
    lr_mult: 1
  }
  param {
    lr_mult: 2
  }
  inner_product_param {
    num_output: 10
    weight_filler {
      type: "xavier"
    }
    bias_filler {
      type: "constant"
    }
  }
}
layer {
  name: "relu2"
  type: "ReLU"
  bottom: "ip2"
  top: "ip2"
}
layer {
  name: "loss"
  type: "SoftmaxWithLoss"
  bottom: "ip2"
  bottom: "label"
  top: "loss"
}
I0428 20:01:34.057909 29751 layer_factory.hpp:77] Creating layer mnist
I0428 20:01:34.058007 29751 db_lmdb.cpp:35] Opened lmdb examples/mnist/mnist_train_lmdb
I0428 20:01:34.058032 29751 net.cpp:86] Creating Layer mnist
I0428 20:01:34.058040 29751 net.cpp:382] mnist -> data
I0428 20:01:34.058061 29751 net.cpp:382] mnist -> label
I0428 20:01:34.059154 29751 data_layer.cpp:45] output data size: 64,1,28,28
I0428 20:01:34.061617 29751 net.cpp:124] Setting up mnist
I0428 20:01:34.061635 29751 net.cpp:131] Top shape: 64 1 28 28 (50176)
I0428 20:01:34.061641 29751 net.cpp:131] Top shape: 64 (64)
I0428 20:01:34.061645 29751 net.cpp:139] Memory required for data: 200960
I0428 20:01:34.061651 29751 layer_factory.hpp:77] Creating layer conv0
I0428 20:01:34.061702 29751 net.cpp:86] Creating Layer conv0
I0428 20:01:34.061709 29751 net.cpp:408] conv0 <- data
I0428 20:01:34.061722 29751 net.cpp:382] conv0 -> conv0
I0428 20:01:34.322046 29751 net.cpp:124] Setting up conv0
I0428 20:01:34.322087 29751 net.cpp:131] Top shape: 64 10 24 24 (368640)
I0428 20:01:34.322090 29751 net.cpp:139] Memory required for data: 1675520
I0428 20:01:34.322123 29751 layer_factory.hpp:77] Creating layer pool0
I0428 20:01:34.322150 29751 net.cpp:86] Creating Layer pool0
I0428 20:01:34.322154 29751 net.cpp:408] pool0 <- conv0
I0428 20:01:34.322160 29751 net.cpp:382] pool0 -> pool0
I0428 20:01:34.322207 29751 net.cpp:124] Setting up pool0
I0428 20:01:34.322217 29751 net.cpp:131] Top shape: 64 10 12 12 (92160)
I0428 20:01:34.322221 29751 net.cpp:139] Memory required for data: 2044160
I0428 20:01:34.322223 29751 layer_factory.hpp:77] Creating layer conv1
I0428 20:01:34.322234 29751 net.cpp:86] Creating Layer conv1
I0428 20:01:34.322237 29751 net.cpp:408] conv1 <- pool0
I0428 20:01:34.322242 29751 net.cpp:382] conv1 -> conv1
I0428 20:01:34.325095 29751 net.cpp:124] Setting up conv1
I0428 20:01:34.325125 29751 net.cpp:131] Top shape: 64 50 8 8 (204800)
I0428 20:01:34.325129 29751 net.cpp:139] Memory required for data: 2863360
I0428 20:01:34.325151 29751 layer_factory.hpp:77] Creating layer pool1
I0428 20:01:34.325160 29751 net.cpp:86] Creating Layer pool1
I0428 20:01:34.325163 29751 net.cpp:408] pool1 <- conv1
I0428 20:01:34.325168 29751 net.cpp:382] pool1 -> pool1
I0428 20:01:34.325237 29751 net.cpp:124] Setting up pool1
I0428 20:01:34.325242 29751 net.cpp:131] Top shape: 64 50 4 4 (51200)
I0428 20:01:34.325244 29751 net.cpp:139] Memory required for data: 3068160
I0428 20:01:34.325248 29751 layer_factory.hpp:77] Creating layer ip1
I0428 20:01:34.325258 29751 net.cpp:86] Creating Layer ip1
I0428 20:01:34.325263 29751 net.cpp:408] ip1 <- pool1
I0428 20:01:34.325266 29751 net.cpp:382] ip1 -> ip1
I0428 20:01:34.325609 29751 net.cpp:124] Setting up ip1
I0428 20:01:34.325615 29751 net.cpp:131] Top shape: 64 50 (3200)
I0428 20:01:34.325634 29751 net.cpp:139] Memory required for data: 3080960
I0428 20:01:34.325641 29751 layer_factory.hpp:77] Creating layer relu1
I0428 20:01:34.325646 29751 net.cpp:86] Creating Layer relu1
I0428 20:01:34.325649 29751 net.cpp:408] relu1 <- ip1
I0428 20:01:34.325654 29751 net.cpp:369] relu1 -> ip1 (in-place)
I0428 20:01:34.325805 29751 net.cpp:124] Setting up relu1
I0428 20:01:34.325814 29751 net.cpp:131] Top shape: 64 50 (3200)
I0428 20:01:34.325817 29751 net.cpp:139] Memory required for data: 3093760
I0428 20:01:34.325820 29751 layer_factory.hpp:77] Creating layer ip2
I0428 20:01:34.325825 29751 net.cpp:86] Creating Layer ip2
I0428 20:01:34.325829 29751 net.cpp:408] ip2 <- ip1
I0428 20:01:34.325834 29751 net.cpp:382] ip2 -> ip2
I0428 20:01:34.325925 29751 net.cpp:124] Setting up ip2
I0428 20:01:34.325932 29751 net.cpp:131] Top shape: 64 10 (640)
I0428 20:01:34.325935 29751 net.cpp:139] Memory required for data: 3096320
I0428 20:01:34.325940 29751 layer_factory.hpp:77] Creating layer relu2
I0428 20:01:34.325945 29751 net.cpp:86] Creating Layer relu2
I0428 20:01:34.325948 29751 net.cpp:408] relu2 <- ip2
I0428 20:01:34.325953 29751 net.cpp:369] relu2 -> ip2 (in-place)
I0428 20:01:34.326753 29751 net.cpp:124] Setting up relu2
I0428 20:01:34.326766 29751 net.cpp:131] Top shape: 64 10 (640)
I0428 20:01:34.326783 29751 net.cpp:139] Memory required for data: 3098880
I0428 20:01:34.326787 29751 layer_factory.hpp:77] Creating layer loss
I0428 20:01:34.326793 29751 net.cpp:86] Creating Layer loss
I0428 20:01:34.326797 29751 net.cpp:408] loss <- ip2
I0428 20:01:34.326802 29751 net.cpp:408] loss <- label
I0428 20:01:34.326807 29751 net.cpp:382] loss -> loss
I0428 20:01:34.326827 29751 layer_factory.hpp:77] Creating layer loss
…
I0428 20:01:34.327538 29751 solver.cpp:173] Creating test net (#0) specified by net file: ECE595/mnist/train_test/var_everything2/lenet_train_test906.prototxt
I0428 20:01:34.327577 29751 net.cpp:296] The NetState phase (1) differed from the phase (0) specified by a rule in layer mnist
I0428 20:01:34.327682 29751 net.cpp:53] Initializing net from parameters: 
name: "LeNet"
state {
  phase: TEST
}
layer {
  name: "mnist"
  type: "Data"
  top: "data"
  top: "label"
  include {
    phase: TEST
  }
  transform_param {
    scale: 0.00390625
  }
  data_param {
    source: "examples/mnist/mnist_test_lmdb"
    batch_size: 100
    backend: LMDB
  }
}
layer {
  name: "conv0"
  type: "Convolution"
  bottom: "data"
  top: "conv0"
  param {
    lr_mult: 1
  }
  param {
    lr_mult: 2
  }
  convolution_param {
    num_output: 10
    kernel_size: 5
    stride: 1
    weight_filler {
      type: "xavier"
    }
    bias_filler {
      type: "constant"
    }
  }
}
layer {
  name: "pool0"
  type: "Pooling"
  bottom: "conv0"
  top: "pool0"
  pooling_param {
    pool: MAX
    kernel_size: 2
    stride: 2
  }
}
layer {
  name: "conv1"
  type: "Convolution"
  bottom: "pool0"
  top: "conv1"
  param {
    lr_mult: 1
  }
  param {
    lr_mult: 2
  }
  convolution_param {
    num_output: 50
    kernel_size: 5
    stride: 1
    weight_filler {
      type: "xavier"
    }
    bias_filler {
      type: "constant"
    }
  }
}
layer {
  name: "pool1"
  type: "Pooling"
  bottom: "conv1"
  top: "pool1"
  pooling_param {
    pool: MAX
    kernel_size: 2
    stride: 2
  }
}
layer {
  name: "ip1"
  type: "InnerProduct"
  bottom: "pool1"
  top: "ip1"
  param {
    lr_mult: 1
  }
  param {
    lr_mult: 2
  }
  inner_product_param {
    num_output: 50
    weight_filler {
      type: "xavier"
    }
    bias_filler {
      type: "constant"
    }
  }
}
layer {
  name: "relu1"
  type: "ReLU"
  bottom: "ip1"
  top: "ip1"
}
layer {
  name: "ip2"
  type: "InnerProduct"
  bottom: "ip1"
  top: "ip2"
  param {
    lr_mult: 1
  }
  param {
    lr_mult: 2
  }
  inner_product_param {
    num_output: 10
    weight_filler {
      type: "xavier"
    }
    bias_filler {
      type: "constant"
    }
  }
}
layer {
  name: "relu2"
  type: "ReLU"
  bottom: "ip2"
  top: "ip2"
}
layer {
  name: "accuracy"
  type: "Accuracy"
  bottom: "ip2"
  bottom: "label"
  top: "accuracy"
  include {
    phase: TEST
  }
}
layer {
  name: "loss"
  type: "SoftmaxWithLoss"
  bottom: "ip2"
  bottom: "label"
  top: "loss"
}
I0428 20:01:34.327767 29751 layer_factory.hpp:77] Creating layer mnist
I0428 20:01:34.327816 29751 db_lmdb.cpp:35] Opened lmdb examples/mnist/mnist_test_lmdb
I0428 20:01:34.327828 29751 net.cpp:86] Creating Layer mnist
I0428 20:01:34.327833 29751 net.cpp:382] mnist -> data
I0428 20:01:34.327841 29751 net.cpp:382] mnist -> label
I0428 20:01:34.327931 29751 data_layer.cpp:45] output data size: 100,1,28,28
I0428 20:01:34.329990 29751 net.cpp:124] Setting up mnist
I0428 20:01:34.330020 29751 net.cpp:131] Top shape: 100 1 28 28 (78400)
I0428 20:01:34.330025 29751 net.cpp:131] Top shape: 100 (100)
I0428 20:01:34.330029 29751 net.cpp:139] Memory required for data: 314000
I0428 20:01:34.330031 29751 layer_factory.hpp:77] Creating layer label_mnist_1_split
I0428 20:01:34.330098 29751 net.cpp:86] Creating Layer label_mnist_1_split
I0428 20:01:34.330103 29751 net.cpp:408] label_mnist_1_split <- label
I0428 20:01:34.330109 29751 net.cpp:382] label_mnist_1_split -> label_mnist_1_split_0
I0428 20:01:34.330116 29751 net.cpp:382] label_mnist_1_split -> label_mnist_1_split_1
I0428 20:01:34.330234 29751 net.cpp:124] Setting up label_mnist_1_split
I0428 20:01:34.330242 29751 net.cpp:131] Top shape: 100 (100)
I0428 20:01:34.330246 29751 net.cpp:131] Top shape: 100 (100)
I0428 20:01:34.330250 29751 net.cpp:139] Memory required for data: 314800
I0428 20:01:34.330252 29751 layer_factory.hpp:77] Creating layer conv0
I0428 20:01:34.330262 29751 net.cpp:86] Creating Layer conv0
I0428 20:01:34.330266 29751 net.cpp:408] conv0 <- data
I0428 20:01:34.330273 29751 net.cpp:382] conv0 -> conv0
I0428 20:01:34.332139 29751 net.cpp:124] Setting up conv0
I0428 20:01:34.332151 29751 net.cpp:131] Top shape: 100 10 24 24 (576000)
I0428 20:01:34.332155 29751 net.cpp:139] Memory required for data: 2618800
I0428 20:01:34.332165 29751 layer_factory.hpp:77] Creating layer pool0
I0428 20:01:34.332172 29751 net.cpp:86] Creating Layer pool0
I0428 20:01:34.332175 29751 net.cpp:408] pool0 <- conv0
I0428 20:01:34.332180 29751 net.cpp:382] pool0 -> pool0
I0428 20:01:34.332217 29751 net.cpp:124] Setting up pool0
I0428 20:01:34.332223 29751 net.cpp:131] Top shape: 100 10 12 12 (144000)
I0428 20:01:34.332226 29751 net.cpp:139] Memory required for data: 3194800
I0428 20:01:34.332228 29751 layer_factory.hpp:77] Creating layer conv1
I0428 20:01:34.332237 29751 net.cpp:86] Creating Layer conv1
I0428 20:01:34.332242 29751 net.cpp:408] conv1 <- pool0
I0428 20:01:34.332248 29751 net.cpp:382] conv1 -> conv1
I0428 20:01:34.334059 29751 net.cpp:124] Setting up conv1
I0428 20:01:34.334074 29751 net.cpp:131] Top shape: 100 50 8 8 (320000)
I0428 20:01:34.334079 29751 net.cpp:139] Memory required for data: 4474800
I0428 20:01:34.334089 29751 layer_factory.hpp:77] Creating layer pool1
I0428 20:01:34.334096 29751 net.cpp:86] Creating Layer pool1
I0428 20:01:34.334100 29751 net.cpp:408] pool1 <- conv1
I0428 20:01:34.334107 29751 net.cpp:382] pool1 -> pool1
I0428 20:01:34.334182 29751 net.cpp:124] Setting up pool1
I0428 20:01:34.334189 29751 net.cpp:131] Top shape: 100 50 4 4 (80000)
I0428 20:01:34.334193 29751 net.cpp:139] Memory required for data: 4794800
I0428 20:01:34.334197 29751 layer_factory.hpp:77] Creating layer ip1
I0428 20:01:34.334204 29751 net.cpp:86] Creating Layer ip1
I0428 20:01:34.334208 29751 net.cpp:408] ip1 <- pool1
I0428 20:01:34.334213 29751 net.cpp:382] ip1 -> ip1
I0428 20:01:34.334585 29751 net.cpp:124] Setting up ip1
I0428 20:01:34.334594 29751 net.cpp:131] Top shape: 100 50 (5000)
I0428 20:01:34.334597 29751 net.cpp:139] Memory required for data: 4814800
I0428 20:01:34.334604 29751 layer_factory.hpp:77] Creating layer relu1
I0428 20:01:34.334619 29751 net.cpp:86] Creating Layer relu1
I0428 20:01:34.334622 29751 net.cpp:408] relu1 <- ip1
I0428 20:01:34.334626 29751 net.cpp:369] relu1 -> ip1 (in-place)
I0428 20:01:34.334790 29751 net.cpp:124] Setting up relu1
I0428 20:01:34.334800 29751 net.cpp:131] Top shape: 100 50 (5000)
I0428 20:01:34.334802 29751 net.cpp:139] Memory required for data: 4834800
I0428 20:01:34.334812 29751 layer_factory.hpp:77] Creating layer ip2
I0428 20:01:34.334820 29751 net.cpp:86] Creating Layer ip2
I0428 20:01:34.334823 29751 net.cpp:408] ip2 <- ip1
I0428 20:01:34.334830 29751 net.cpp:382] ip2 -> ip2
I0428 20:01:34.334949 29751 net.cpp:124] Setting up ip2
I0428 20:01:34.334974 29751 net.cpp:131] Top shape: 100 10 (1000)
I0428 20:01:34.334976 29751 net.cpp:139] Memory required for data: 4838800
I0428 20:01:34.334981 29751 layer_factory.hpp:77] Creating layer relu2
I0428 20:01:34.334986 29751 net.cpp:86] Creating Layer relu2
I0428 20:01:34.335001 29751 net.cpp:408] relu2 <- ip2
I0428 20:01:34.335005 29751 net.cpp:369] relu2 -> ip2 (in-place)
I0428 20:01:34.335165 29751 net.cpp:124] Setting up relu2
I0428 20:01:34.335175 29751 net.cpp:131] Top shape: 100 10 (1000)
I0428 20:01:34.335177 29751 net.cpp:139] Memory required for data: 4842800
I0428 20:01:34.335180 29751 layer_factory.hpp:77] Creating layer ip2_relu2_0_split
I0428 20:01:34.335191 29751 net.cpp:86] Creating Layer ip2_relu2_0_split
I0428 20:01:34.335194 29751 net.cpp:408] ip2_relu2_0_split <- ip2
I0428 20:01:34.335198 29751 net.cpp:382] ip2_relu2_0_split -> ip2_relu2_0_split_0
I0428 20:01:34.335216 29751 net.cpp:382] ip2_relu2_0_split -> ip2_relu2_0_split_1
I0428 20:01:34.335253 29751 net.cpp:124] Setting up ip2_relu2_0_split
I0428 20:01:34.335259 29751 net.cpp:131] Top shape: 100 10 (1000)
I0428 20:01:34.335263 29751 net.cpp:131] Top shape: 100 10 (1000)
I0428 20:01:34.335265 29751 net.cpp:139] Memory required for data: 4850800
I0428 20:01:34.335268 29751 layer_factory.hpp:77] Creating layer accuracy
I0428 20:01:34.335274 29751 net.cpp:86] Creating Layer accuracy
I0428 20:01:34.335278 29751 net.cpp:408] accuracy <- ip2_relu2_0_split_0
I0428 20:01:34.335281 29751 net.cpp:408] accuracy <- label_mnist_1_split_0
I0428 20:01:34.335286 29751 net.cpp:382] accuracy -> accuracy
…
