…
I0428 19:49:39.553624 26817 net.cpp:296] The NetState phase (0) differed from the phase (1) specified by a rule in layer mnist
I0428 19:49:39.553638 26817 net.cpp:296] The NetState phase (0) differed from the phase (1) specified by a rule in layer accuracy
I0428 19:49:39.553720 26817 net.cpp:53] Initializing net from parameters: 
name: "LeNet"
state {
  phase: TRAIN
  level: 0
  stage: ""
}
layer {
  name: "mnist"
  type: "Data"
  top: "data"
  top: "label"
  include {
    phase: TRAIN
  }
  transform_param {
    scale: 0.00390625
  }
  data_param {
    source: "examples/mnist/mnist_train_lmdb"
    batch_size: 64
    backend: LMDB
  }
}
layer {
  name: "conv0"
  type: "Convolution"
  bottom: "data"
  top: "conv0"
  param {
    lr_mult: 1
  }
  param {
    lr_mult: 2
  }
  convolution_param {
    num_output: 5
    kernel_size: 5
    stride: 1
    weight_filler {
      type: "xavier"
    }
    bias_filler {
      type: "constant"
    }
  }
}
layer {
  name: "pool0"
  type: "Pooling"
  bottom: "conv0"
  top: "pool0"
  pooling_param {
    pool: MAX
    kernel_size: 2
    stride: 2
  }
}
layer {
  name: "conv1"
  type: "Convolution"
  bottom: "pool0"
  top: "conv1"
  param {
    lr_mult: 1
  }
  param {
    lr_mult: 2
  }
  convolution_param {
    num_output: 5
    kernel_size: 5
    stride: 1
    weight_filler {
      type: "xavier"
    }
    bias_filler {
      type: "constant"
    }
  }
}
layer {
  name: "pool1"
  type: "Pooling"
  bottom: "conv1"
  top: "pool1"
  pooling_param {
    pool: MAX
    kernel_size: 2
    stride: 2
  }
}
layer {
  name: "ip1"
  type: "InnerProduct"
  bottom: "pool1"
  top: "ip1"
  param {
    lr_mult: 1
  }
  param {
    lr_mult: 2
  }
  inner_product_param {
    num_output: 50
    weight_filler {
      type: "xavier"
    }
    bias_filler {
      type: "constant"
    }
  }
}
layer {
  name: "relu1"
  type: "ReLU"
  bottom: "ip1"
  top: "ip1"
}
layer {
  name: "ip2"
  type: "InnerProduct"
  bottom: "ip1"
  top: "ip2"
  param {
    lr_mult: 1
  }
  param {
    lr_mult: 2
  }
  inner_product_param {
    num_output: 25
    weight_filler {
      type: "xavier"
    }
    bias_filler {
      type: "constant"
    }
  }
}
layer {
  name: "relu2"
  type: "ReLU"
  bottom: "ip2"
  top: "ip2"
}
layer {
  name: "ip3"
  type: "InnerProduct"
  bottom: "ip2"
  top: "ip3"
  param {
    lr_mult: 1
  }
  param {
    lr_mult: 2
  }
  inner_product_param {
    num_output: 10
    weight_filler {
      type: "xavier"
    }
    bias_filler {
      type: "constant"
    }
  }
}
layer {
  name: "relu3"
  type: "ReLU"
  bottom: "ip3"
  top: "ip3"
}
layer {
  name: "loss"
  type: "SoftmaxWithLoss"
  bottom: "ip3"
  bottom: "label"
  top: "loss"
}
I0428 19:49:39.553786 26817 layer_factory.hpp:77] Creating layer mnist
I0428 19:49:39.553869 26817 db_lmdb.cpp:35] Opened lmdb examples/mnist/mnist_train_lmdb
I0428 19:49:39.553889 26817 net.cpp:86] Creating Layer mnist
I0428 19:49:39.553895 26817 net.cpp:382] mnist -> data
I0428 19:49:39.553913 26817 net.cpp:382] mnist -> label
I0428 19:49:39.554877 26817 data_layer.cpp:45] output data size: 64,1,28,28
I0428 19:49:39.556938 26817 net.cpp:124] Setting up mnist
I0428 19:49:39.556969 26817 net.cpp:131] Top shape: 64 1 28 28 (50176)
I0428 19:49:39.556977 26817 net.cpp:131] Top shape: 64 (64)
I0428 19:49:39.556979 26817 net.cpp:139] Memory required for data: 200960
I0428 19:49:39.556984 26817 layer_factory.hpp:77] Creating layer conv0
I0428 19:49:39.557011 26817 net.cpp:86] Creating Layer conv0
I0428 19:49:39.557030 26817 net.cpp:408] conv0 <- data
I0428 19:49:39.557041 26817 net.cpp:382] conv0 -> conv0
I0428 19:49:39.785518 26817 net.cpp:124] Setting up conv0
I0428 19:49:39.785544 26817 net.cpp:131] Top shape: 64 5 24 24 (184320)
I0428 19:49:39.785548 26817 net.cpp:139] Memory required for data: 938240
I0428 19:49:39.785562 26817 layer_factory.hpp:77] Creating layer pool0
I0428 19:49:39.785574 26817 net.cpp:86] Creating Layer pool0
I0428 19:49:39.785578 26817 net.cpp:408] pool0 <- conv0
I0428 19:49:39.785583 26817 net.cpp:382] pool0 -> pool0
I0428 19:49:39.785657 26817 net.cpp:124] Setting up pool0
I0428 19:49:39.785662 26817 net.cpp:131] Top shape: 64 5 12 12 (46080)
I0428 19:49:39.785665 26817 net.cpp:139] Memory required for data: 1122560
I0428 19:49:39.785668 26817 layer_factory.hpp:77] Creating layer conv1
I0428 19:49:39.785678 26817 net.cpp:86] Creating Layer conv1
I0428 19:49:39.785681 26817 net.cpp:408] conv1 <- pool0
I0428 19:49:39.785686 26817 net.cpp:382] conv1 -> conv1
I0428 19:49:39.787504 26817 net.cpp:124] Setting up conv1
I0428 19:49:39.787534 26817 net.cpp:131] Top shape: 64 5 8 8 (20480)
I0428 19:49:39.787539 26817 net.cpp:139] Memory required for data: 1204480
I0428 19:49:39.787546 26817 layer_factory.hpp:77] Creating layer pool1
I0428 19:49:39.787554 26817 net.cpp:86] Creating Layer pool1
I0428 19:49:39.787557 26817 net.cpp:408] pool1 <- conv1
I0428 19:49:39.787562 26817 net.cpp:382] pool1 -> pool1
I0428 19:49:39.787598 26817 net.cpp:124] Setting up pool1
I0428 19:49:39.787603 26817 net.cpp:131] Top shape: 64 5 4 4 (5120)
I0428 19:49:39.787607 26817 net.cpp:139] Memory required for data: 1224960
I0428 19:49:39.787609 26817 layer_factory.hpp:77] Creating layer ip1
I0428 19:49:39.787616 26817 net.cpp:86] Creating Layer ip1
I0428 19:49:39.787619 26817 net.cpp:408] ip1 <- pool1
I0428 19:49:39.787623 26817 net.cpp:382] ip1 -> ip1
I0428 19:49:39.788590 26817 net.cpp:124] Setting up ip1
I0428 19:49:39.788602 26817 net.cpp:131] Top shape: 64 50 (3200)
I0428 19:49:39.788622 26817 net.cpp:139] Memory required for data: 1237760
I0428 19:49:39.788630 26817 layer_factory.hpp:77] Creating layer relu1
I0428 19:49:39.788635 26817 net.cpp:86] Creating Layer relu1
I0428 19:49:39.788640 26817 net.cpp:408] relu1 <- ip1
I0428 19:49:39.788643 26817 net.cpp:369] relu1 -> ip1 (in-place)
I0428 19:49:39.788802 26817 net.cpp:124] Setting up relu1
I0428 19:49:39.788833 26817 net.cpp:131] Top shape: 64 50 (3200)
I0428 19:49:39.788838 26817 net.cpp:139] Memory required for data: 1250560
I0428 19:49:39.788843 26817 layer_factory.hpp:77] Creating layer ip2
I0428 19:49:39.788852 26817 net.cpp:86] Creating Layer ip2
I0428 19:49:39.788857 26817 net.cpp:408] ip2 <- ip1
I0428 19:49:39.788864 26817 net.cpp:382] ip2 -> ip2
I0428 19:49:39.789012 26817 net.cpp:124] Setting up ip2
I0428 19:49:39.789022 26817 net.cpp:131] Top shape: 64 25 (1600)
I0428 19:49:39.789027 26817 net.cpp:139] Memory required for data: 1256960
I0428 19:49:39.789036 26817 layer_factory.hpp:77] Creating layer relu2
I0428 19:49:39.789044 26817 net.cpp:86] Creating Layer relu2
I0428 19:49:39.789049 26817 net.cpp:408] relu2 <- ip2
I0428 19:49:39.789055 26817 net.cpp:369] relu2 -> ip2 (in-place)
I0428 19:49:39.790026 26817 net.cpp:124] Setting up relu2
I0428 19:49:39.790057 26817 net.cpp:131] Top shape: 64 25 (1600)
I0428 19:49:39.790062 26817 net.cpp:139] Memory required for data: 1263360
I0428 19:49:39.790067 26817 layer_factory.hpp:77] Creating layer ip3
I0428 19:49:39.790076 26817 net.cpp:86] Creating Layer ip3
I0428 19:49:39.790081 26817 net.cpp:408] ip3 <- ip2
I0428 19:49:39.790088 26817 net.cpp:382] ip3 -> ip3
I0428 19:49:39.790210 26817 net.cpp:124] Setting up ip3
I0428 19:49:39.790220 26817 net.cpp:131] Top shape: 64 10 (640)
I0428 19:49:39.790225 26817 net.cpp:139] Memory required for data: 1265920
I0428 19:49:39.790235 26817 layer_factory.hpp:77] Creating layer relu3
I0428 19:49:39.790243 26817 net.cpp:86] Creating Layer relu3
I0428 19:49:39.790248 26817 net.cpp:408] relu3 <- ip3
I0428 19:49:39.790254 26817 net.cpp:369] relu3 -> ip3 (in-place)
I0428 19:49:39.790467 26817 net.cpp:124] Setting up relu3
I0428 19:49:39.790478 26817 net.cpp:131] Top shape: 64 10 (640)
I0428 19:49:39.790482 26817 net.cpp:139] Memory required for data: 1268480
I0428 19:49:39.790487 26817 layer_factory.hpp:77] Creating layer loss
I0428 19:49:39.790494 26817 net.cpp:86] Creating Layer loss
I0428 19:49:39.790498 26817 net.cpp:408] loss <- ip3
I0428 19:49:39.790504 26817 net.cpp:408] loss <- label
I0428 19:49:39.790511 26817 net.cpp:382] loss -> loss
I0428 19:49:39.790532 26817 layer_factory.hpp:77] Creating layer loss
…
I0428 19:49:39.791456 26817 solver.cpp:173] Creating test net (#0) specified by net file: ECE595/mnist/train_test/var_everything2/lenet_train_test581.prototxt
I0428 19:49:39.791507 26817 net.cpp:296] The NetState phase (1) differed from the phase (0) specified by a rule in layer mnist
I0428 19:49:39.791635 26817 net.cpp:53] Initializing net from parameters: 
name: "LeNet"
state {
  phase: TEST
}
layer {
  name: "mnist"
  type: "Data"
  top: "data"
  top: "label"
  include {
    phase: TEST
  }
  transform_param {
    scale: 0.00390625
  }
  data_param {
    source: "examples/mnist/mnist_test_lmdb"
    batch_size: 100
    backend: LMDB
  }
}
layer {
  name: "conv0"
  type: "Convolution"
  bottom: "data"
  top: "conv0"
  param {
    lr_mult: 1
  }
  param {
    lr_mult: 2
  }
  convolution_param {
    num_output: 5
    kernel_size: 5
    stride: 1
    weight_filler {
      type: "xavier"
    }
    bias_filler {
      type: "constant"
    }
  }
}
layer {
  name: "pool0"
  type: "Pooling"
  bottom: "conv0"
  top: "pool0"
  pooling_param {
    pool: MAX
    kernel_size: 2
    stride: 2
  }
}
layer {
  name: "conv1"
  type: "Convolution"
  bottom: "pool0"
  top: "conv1"
  param {
    lr_mult: 1
  }
  param {
    lr_mult: 2
  }
  convolution_param {
    num_output: 5
    kernel_size: 5
    stride: 1
    weight_filler {
      type: "xavier"
    }
    bias_filler {
      type: "constant"
    }
  }
}
layer {
  name: "pool1"
  type: "Pooling"
  bottom: "conv1"
  top: "pool1"
  pooling_param {
    pool: MAX
    kernel_size: 2
    stride: 2
  }
}
layer {
  name: "ip1"
  type: "InnerProduct"
  bottom: "pool1"
  top: "ip1"
  param {
    lr_mult: 1
  }
  param {
    lr_mult: 2
  }
  inner_product_param {
    num_output: 50
    weight_filler {
      type: "xavier"
    }
    bias_filler {
      type: "constant"
    }
  }
}
layer {
  name: "relu1"
  type: "ReLU"
  bottom: "ip1"
  top: "ip1"
}
layer {
  name: "ip2"
  type: "InnerProduct"
  bottom: "ip1"
  top: "ip2"
  param {
    lr_mult: 1
  }
  param {
    lr_mult: 2
  }
  inner_product_param {
    num_output: 25
    weight_filler {
      type: "xavier"
    }
    bias_filler {
      type: "constant"
    }
  }
}
layer {
  name: "relu2"
  type: "ReLU"
  bottom: "ip2"
  top: "ip2"
}
layer {
  name: "ip3"
  type: "InnerProduct"
  bottom: "ip2"
  top: "ip3"
  param {
    lr_mult: 1
  }
  param {
    lr_mult: 2
  }
  inner_product_param {
    num_output: 10
    weight_filler {
      type: "xavier"
    }
    bias_filler {
      type: "constant"
    }
  }
}
layer {
  name: "relu3"
  type: "ReLU"
  bottom: "ip3"
  top: "ip3"
}
layer {
  name: "accuracy"
  type: "Accuracy"
  bottom: "ip3"
  bottom: "label"
  top: "accuracy"
  include {
    phase: TEST
  }
}
layer {
  name: "loss"
  type: "SoftmaxWithLoss"
  bottom: "ip3"
  bottom: "label"
  top: "loss"
}
I0428 19:49:39.791754 26817 layer_factory.hpp:77] Creating layer mnist
I0428 19:49:39.791806 26817 db_lmdb.cpp:35] Opened lmdb examples/mnist/mnist_test_lmdb
I0428 19:49:39.791821 26817 net.cpp:86] Creating Layer mnist
I0428 19:49:39.791827 26817 net.cpp:382] mnist -> data
I0428 19:49:39.791837 26817 net.cpp:382] mnist -> label
I0428 19:49:39.791934 26817 data_layer.cpp:45] output data size: 100,1,28,28
I0428 19:49:39.794682 26817 net.cpp:124] Setting up mnist
I0428 19:49:39.794713 26817 net.cpp:131] Top shape: 100 1 28 28 (78400)
I0428 19:49:39.794721 26817 net.cpp:131] Top shape: 100 (100)
I0428 19:49:39.794725 26817 net.cpp:139] Memory required for data: 314000
I0428 19:49:39.794730 26817 layer_factory.hpp:77] Creating layer label_mnist_1_split
I0428 19:49:39.794739 26817 net.cpp:86] Creating Layer label_mnist_1_split
I0428 19:49:39.794744 26817 net.cpp:408] label_mnist_1_split <- label
I0428 19:49:39.794749 26817 net.cpp:382] label_mnist_1_split -> label_mnist_1_split_0
I0428 19:49:39.794759 26817 net.cpp:382] label_mnist_1_split -> label_mnist_1_split_1
I0428 19:49:39.794817 26817 net.cpp:124] Setting up label_mnist_1_split
I0428 19:49:39.794824 26817 net.cpp:131] Top shape: 100 (100)
I0428 19:49:39.794831 26817 net.cpp:131] Top shape: 100 (100)
I0428 19:49:39.794834 26817 net.cpp:139] Memory required for data: 314800
I0428 19:49:39.794838 26817 layer_factory.hpp:77] Creating layer conv0
I0428 19:49:39.794848 26817 net.cpp:86] Creating Layer conv0
I0428 19:49:39.794853 26817 net.cpp:408] conv0 <- data
I0428 19:49:39.794859 26817 net.cpp:382] conv0 -> conv0
I0428 19:49:39.796891 26817 net.cpp:124] Setting up conv0
I0428 19:49:39.796908 26817 net.cpp:131] Top shape: 100 5 24 24 (288000)
I0428 19:49:39.796928 26817 net.cpp:139] Memory required for data: 1466800
I0428 19:49:39.796941 26817 layer_factory.hpp:77] Creating layer pool0
I0428 19:49:39.796949 26817 net.cpp:86] Creating Layer pool0
I0428 19:49:39.796955 26817 net.cpp:408] pool0 <- conv0
I0428 19:49:39.796962 26817 net.cpp:382] pool0 -> pool0
I0428 19:49:39.797006 26817 net.cpp:124] Setting up pool0
I0428 19:49:39.797013 26817 net.cpp:131] Top shape: 100 5 12 12 (72000)
I0428 19:49:39.797019 26817 net.cpp:139] Memory required for data: 1754800
I0428 19:49:39.797024 26817 layer_factory.hpp:77] Creating layer conv1
I0428 19:49:39.797049 26817 net.cpp:86] Creating Layer conv1
I0428 19:49:39.797055 26817 net.cpp:408] conv1 <- pool0
I0428 19:49:39.797062 26817 net.cpp:382] conv1 -> conv1
I0428 19:49:39.799733 26817 net.cpp:124] Setting up conv1
I0428 19:49:39.799748 26817 net.cpp:131] Top shape: 100 5 8 8 (32000)
I0428 19:49:39.799753 26817 net.cpp:139] Memory required for data: 1882800
I0428 19:49:39.799780 26817 layer_factory.hpp:77] Creating layer pool1
I0428 19:49:39.799788 26817 net.cpp:86] Creating Layer pool1
I0428 19:49:39.799793 26817 net.cpp:408] pool1 <- conv1
I0428 19:49:39.799800 26817 net.cpp:382] pool1 -> pool1
I0428 19:49:39.799924 26817 net.cpp:124] Setting up pool1
I0428 19:49:39.799934 26817 net.cpp:131] Top shape: 100 5 4 4 (8000)
I0428 19:49:39.799939 26817 net.cpp:139] Memory required for data: 1914800
I0428 19:49:39.799944 26817 layer_factory.hpp:77] Creating layer ip1
I0428 19:49:39.799959 26817 net.cpp:86] Creating Layer ip1
I0428 19:49:39.799964 26817 net.cpp:408] ip1 <- pool1
I0428 19:49:39.799978 26817 net.cpp:382] ip1 -> ip1
I0428 19:49:39.800165 26817 net.cpp:124] Setting up ip1
I0428 19:49:39.800176 26817 net.cpp:131] Top shape: 100 50 (5000)
I0428 19:49:39.800192 26817 net.cpp:139] Memory required for data: 1934800
I0428 19:49:39.800202 26817 layer_factory.hpp:77] Creating layer relu1
I0428 19:49:39.800209 26817 net.cpp:86] Creating Layer relu1
I0428 19:49:39.800213 26817 net.cpp:408] relu1 <- ip1
I0428 19:49:39.800226 26817 net.cpp:369] relu1 -> ip1 (in-place)
I0428 19:49:39.800428 26817 net.cpp:124] Setting up relu1
I0428 19:49:39.800438 26817 net.cpp:131] Top shape: 100 50 (5000)
I0428 19:49:39.800443 26817 net.cpp:139] Memory required for data: 1954800
I0428 19:49:39.800447 26817 layer_factory.hpp:77] Creating layer ip2
I0428 19:49:39.800457 26817 net.cpp:86] Creating Layer ip2
I0428 19:49:39.800460 26817 net.cpp:408] ip2 <- ip1
I0428 19:49:39.800467 26817 net.cpp:382] ip2 -> ip2
I0428 19:49:39.800595 26817 net.cpp:124] Setting up ip2
I0428 19:49:39.800619 26817 net.cpp:131] Top shape: 100 25 (2500)
I0428 19:49:39.800631 26817 net.cpp:139] Memory required for data: 1964800
I0428 19:49:39.800637 26817 layer_factory.hpp:77] Creating layer relu2
I0428 19:49:39.800665 26817 net.cpp:86] Creating Layer relu2
I0428 19:49:39.800674 26817 net.cpp:408] relu2 <- ip2
I0428 19:49:39.800681 26817 net.cpp:369] relu2 -> ip2 (in-place)
I0428 19:49:39.800889 26817 net.cpp:124] Setting up relu2
I0428 19:49:39.800918 26817 net.cpp:131] Top shape: 100 25 (2500)
I0428 19:49:39.800923 26817 net.cpp:139] Memory required for data: 1974800
I0428 19:49:39.800935 26817 layer_factory.hpp:77] Creating layer ip3
I0428 19:49:39.800943 26817 net.cpp:86] Creating Layer ip3
I0428 19:49:39.800948 26817 net.cpp:408] ip3 <- ip2
I0428 19:49:39.800956 26817 net.cpp:382] ip3 -> ip3
I0428 19:49:39.801111 26817 net.cpp:124] Setting up ip3
I0428 19:49:39.801121 26817 net.cpp:131] Top shape: 100 10 (1000)
I0428 19:49:39.801126 26817 net.cpp:139] Memory required for data: 1978800
I0428 19:49:39.801151 26817 layer_factory.hpp:77] Creating layer relu3
I0428 19:49:39.801157 26817 net.cpp:86] Creating Layer relu3
I0428 19:49:39.801162 26817 net.cpp:408] relu3 <- ip3
I0428 19:49:39.801167 26817 net.cpp:369] relu3 -> ip3 (in-place)
I0428 19:49:39.802261 26817 net.cpp:124] Setting up relu3
I0428 19:49:39.802275 26817 net.cpp:131] Top shape: 100 10 (1000)
I0428 19:49:39.802281 26817 net.cpp:139] Memory required for data: 1982800
I0428 19:49:39.802286 26817 layer_factory.hpp:77] Creating layer ip3_relu3_0_split
I0428 19:49:39.802294 26817 net.cpp:86] Creating Layer ip3_relu3_0_split
I0428 19:49:39.802312 26817 net.cpp:408] ip3_relu3_0_split <- ip3
I0428 19:49:39.802320 26817 net.cpp:382] ip3_relu3_0_split -> ip3_relu3_0_split_0
I0428 19:49:39.802327 26817 net.cpp:382] ip3_relu3_0_split -> ip3_relu3_0_split_1
I0428 19:49:39.802381 26817 net.cpp:124] Setting up ip3_relu3_0_split
I0428 19:49:39.802397 26817 net.cpp:131] Top shape: 100 10 (1000)
I0428 19:49:39.802402 26817 net.cpp:131] Top shape: 100 10 (1000)
I0428 19:49:39.802407 26817 net.cpp:139] Memory required for data: 1990800
I0428 19:49:39.802410 26817 layer_factory.hpp:77] Creating layer accuracy
I0428 19:49:39.802422 26817 net.cpp:86] Creating Layer accuracy
I0428 19:49:39.802426 26817 net.cpp:408] accuracy <- ip3_relu3_0_split_0
I0428 19:49:39.802431 26817 net.cpp:408] accuracy <- label_mnist_1_split_0
I0428 19:49:39.802438 26817 net.cpp:382] accuracy -> accuracy
…
