…
I0428 20:11:07.642745 32006 net.cpp:296] The NetState phase (0) differed from the phase (1) specified by a rule in layer mnist
I0428 20:11:07.642763 32006 net.cpp:296] The NetState phase (0) differed from the phase (1) specified by a rule in layer accuracy
I0428 20:11:07.642853 32006 net.cpp:53] Initializing net from parameters: 
name: "LeNet"
state {
  phase: TRAIN
  level: 0
  stage: ""
}
layer {
  name: "mnist"
  type: "Data"
  top: "data"
  top: "label"
  include {
    phase: TRAIN
  }
  transform_param {
    scale: 0.00390625
  }
  data_param {
    source: "examples/mnist/mnist_train_lmdb"
    batch_size: 64
    backend: LMDB
  }
}
layer {
  name: "conv0"
  type: "Convolution"
  bottom: "data"
  top: "conv0"
  param {
    lr_mult: 1
  }
  param {
    lr_mult: 2
  }
  convolution_param {
    num_output: 25
    kernel_size: 5
    stride: 1
    weight_filler {
      type: "xavier"
    }
    bias_filler {
      type: "constant"
    }
  }
}
layer {
  name: "pool0"
  type: "Pooling"
  bottom: "conv0"
  top: "pool0"
  pooling_param {
    pool: MAX
    kernel_size: 2
    stride: 2
  }
}
layer {
  name: "conv1"
  type: "Convolution"
  bottom: "pool0"
  top: "conv1"
  param {
    lr_mult: 1
  }
  param {
    lr_mult: 2
  }
  convolution_param {
    num_output: 50
    kernel_size: 5
    stride: 1
    weight_filler {
      type: "xavier"
    }
    bias_filler {
      type: "constant"
    }
  }
}
layer {
  name: "pool1"
  type: "Pooling"
  bottom: "conv1"
  top: "pool1"
  pooling_param {
    pool: MAX
    kernel_size: 2
    stride: 2
  }
}
layer {
  name: "ip1"
  type: "InnerProduct"
  bottom: "pool1"
  top: "ip1"
  param {
    lr_mult: 1
  }
  param {
    lr_mult: 2
  }
  inner_product_param {
    num_output: 10
    weight_filler {
      type: "xavier"
    }
    bias_filler {
      type: "constant"
    }
  }
}
layer {
  name: "relu1"
  type: "ReLU"
  bottom: "ip1"
  top: "ip1"
}
layer {
  name: "ip2"
  type: "InnerProduct"
  bottom: "ip1"
  top: "ip2"
  param {
    lr_mult: 1
  }
  param {
    lr_mult: 2
  }
  inner_product_param {
    num_output: 50
    weight_filler {
      type: "xavier"
    }
    bias_filler {
      type: "constant"
    }
  }
}
layer {
  name: "relu2"
  type: "ReLU"
  bottom: "ip2"
  top: "ip2"
}
layer {
  name: "ip3"
  type: "InnerProduct"
  bottom: "ip2"
  top: "ip3"
  param {
    lr_mult: 1
  }
  param {
    lr_mult: 2
  }
  inner_product_param {
    num_output: 10
    weight_filler {
      type: "xavier"
    }
    bias_filler {
      type: "constant"
    }
  }
}
layer {
  name: "relu3"
  type: "ReLU"
  bottom: "ip3"
  top: "ip3"
}
layer {
  name: "loss"
  type: "SoftmaxWithLoss"
  bottom: "ip3"
  bottom: "label"
  top: "loss"
}
I0428 20:11:07.642918 32006 layer_factory.hpp:77] Creating layer mnist
I0428 20:11:07.643000 32006 db_lmdb.cpp:35] Opened lmdb examples/mnist/mnist_train_lmdb
I0428 20:11:07.643023 32006 net.cpp:86] Creating Layer mnist
I0428 20:11:07.643028 32006 net.cpp:382] mnist -> data
I0428 20:11:07.643049 32006 net.cpp:382] mnist -> label
I0428 20:11:07.644008 32006 data_layer.cpp:45] output data size: 64,1,28,28
I0428 20:11:07.646203 32006 net.cpp:124] Setting up mnist
I0428 20:11:07.646219 32006 net.cpp:131] Top shape: 64 1 28 28 (50176)
I0428 20:11:07.646224 32006 net.cpp:131] Top shape: 64 (64)
I0428 20:11:07.646226 32006 net.cpp:139] Memory required for data: 200960
I0428 20:11:07.646232 32006 layer_factory.hpp:77] Creating layer conv0
I0428 20:11:07.646265 32006 net.cpp:86] Creating Layer conv0
I0428 20:11:07.646301 32006 net.cpp:408] conv0 <- data
I0428 20:11:07.646311 32006 net.cpp:382] conv0 -> conv0
I0428 20:11:07.876574 32006 net.cpp:124] Setting up conv0
I0428 20:11:07.876601 32006 net.cpp:131] Top shape: 64 25 24 24 (921600)
I0428 20:11:07.876605 32006 net.cpp:139] Memory required for data: 3887360
I0428 20:11:07.876634 32006 layer_factory.hpp:77] Creating layer pool0
I0428 20:11:07.876648 32006 net.cpp:86] Creating Layer pool0
I0428 20:11:07.876652 32006 net.cpp:408] pool0 <- conv0
I0428 20:11:07.876657 32006 net.cpp:382] pool0 -> pool0
I0428 20:11:07.876715 32006 net.cpp:124] Setting up pool0
I0428 20:11:07.876729 32006 net.cpp:131] Top shape: 64 25 12 12 (230400)
I0428 20:11:07.876730 32006 net.cpp:139] Memory required for data: 4808960
I0428 20:11:07.876734 32006 layer_factory.hpp:77] Creating layer conv1
I0428 20:11:07.876744 32006 net.cpp:86] Creating Layer conv1
I0428 20:11:07.876747 32006 net.cpp:408] conv1 <- pool0
I0428 20:11:07.876752 32006 net.cpp:382] conv1 -> conv1
I0428 20:11:07.878772 32006 net.cpp:124] Setting up conv1
I0428 20:11:07.878803 32006 net.cpp:131] Top shape: 64 50 8 8 (204800)
I0428 20:11:07.878806 32006 net.cpp:139] Memory required for data: 5628160
I0428 20:11:07.878831 32006 layer_factory.hpp:77] Creating layer pool1
I0428 20:11:07.878854 32006 net.cpp:86] Creating Layer pool1
I0428 20:11:07.878857 32006 net.cpp:408] pool1 <- conv1
I0428 20:11:07.878876 32006 net.cpp:382] pool1 -> pool1
I0428 20:11:07.878928 32006 net.cpp:124] Setting up pool1
I0428 20:11:07.878933 32006 net.cpp:131] Top shape: 64 50 4 4 (51200)
I0428 20:11:07.878937 32006 net.cpp:139] Memory required for data: 5832960
I0428 20:11:07.878939 32006 layer_factory.hpp:77] Creating layer ip1
I0428 20:11:07.878947 32006 net.cpp:86] Creating Layer ip1
I0428 20:11:07.878950 32006 net.cpp:408] ip1 <- pool1
I0428 20:11:07.878960 32006 net.cpp:382] ip1 -> ip1
I0428 20:11:07.879962 32006 net.cpp:124] Setting up ip1
I0428 20:11:07.879976 32006 net.cpp:131] Top shape: 64 10 (640)
I0428 20:11:07.879994 32006 net.cpp:139] Memory required for data: 5835520
I0428 20:11:07.880003 32006 layer_factory.hpp:77] Creating layer relu1
I0428 20:11:07.880009 32006 net.cpp:86] Creating Layer relu1
I0428 20:11:07.880013 32006 net.cpp:408] relu1 <- ip1
I0428 20:11:07.880018 32006 net.cpp:369] relu1 -> ip1 (in-place)
I0428 20:11:07.880210 32006 net.cpp:124] Setting up relu1
I0428 20:11:07.880234 32006 net.cpp:131] Top shape: 64 10 (640)
I0428 20:11:07.880250 32006 net.cpp:139] Memory required for data: 5838080
I0428 20:11:07.880254 32006 layer_factory.hpp:77] Creating layer ip2
I0428 20:11:07.880260 32006 net.cpp:86] Creating Layer ip2
I0428 20:11:07.880264 32006 net.cpp:408] ip2 <- ip1
I0428 20:11:07.880267 32006 net.cpp:382] ip2 -> ip2
I0428 20:11:07.880358 32006 net.cpp:124] Setting up ip2
I0428 20:11:07.880365 32006 net.cpp:131] Top shape: 64 50 (3200)
I0428 20:11:07.880368 32006 net.cpp:139] Memory required for data: 5850880
I0428 20:11:07.880373 32006 layer_factory.hpp:77] Creating layer relu2
I0428 20:11:07.880379 32006 net.cpp:86] Creating Layer relu2
I0428 20:11:07.880383 32006 net.cpp:408] relu2 <- ip2
I0428 20:11:07.880386 32006 net.cpp:369] relu2 -> ip2 (in-place)
I0428 20:11:07.881224 32006 net.cpp:124] Setting up relu2
I0428 20:11:07.881250 32006 net.cpp:131] Top shape: 64 50 (3200)
I0428 20:11:07.881269 32006 net.cpp:139] Memory required for data: 5863680
I0428 20:11:07.881273 32006 layer_factory.hpp:77] Creating layer ip3
I0428 20:11:07.881294 32006 net.cpp:86] Creating Layer ip3
I0428 20:11:07.881297 32006 net.cpp:408] ip3 <- ip2
I0428 20:11:07.881304 32006 net.cpp:382] ip3 -> ip3
I0428 20:11:07.881405 32006 net.cpp:124] Setting up ip3
I0428 20:11:07.881412 32006 net.cpp:131] Top shape: 64 10 (640)
I0428 20:11:07.881415 32006 net.cpp:139] Memory required for data: 5866240
I0428 20:11:07.881424 32006 layer_factory.hpp:77] Creating layer relu3
I0428 20:11:07.881429 32006 net.cpp:86] Creating Layer relu3
I0428 20:11:07.881431 32006 net.cpp:408] relu3 <- ip3
I0428 20:11:07.881435 32006 net.cpp:369] relu3 -> ip3 (in-place)
I0428 20:11:07.881597 32006 net.cpp:124] Setting up relu3
I0428 20:11:07.881606 32006 net.cpp:131] Top shape: 64 10 (640)
I0428 20:11:07.881609 32006 net.cpp:139] Memory required for data: 5868800
I0428 20:11:07.881613 32006 layer_factory.hpp:77] Creating layer loss
I0428 20:11:07.881618 32006 net.cpp:86] Creating Layer loss
I0428 20:11:07.881638 32006 net.cpp:408] loss <- ip3
I0428 20:11:07.881640 32006 net.cpp:408] loss <- label
I0428 20:11:07.881645 32006 net.cpp:382] loss -> loss
I0428 20:11:07.881664 32006 layer_factory.hpp:77] Creating layer loss
…
I0428 20:11:07.882385 32006 solver.cpp:173] Creating test net (#0) specified by net file: ECE595/mnist/train_test/var_everything2/lenet_train_test1151.prototxt
I0428 20:11:07.882454 32006 net.cpp:296] The NetState phase (1) differed from the phase (0) specified by a rule in layer mnist
I0428 20:11:07.882540 32006 net.cpp:53] Initializing net from parameters: 
name: "LeNet"
state {
  phase: TEST
}
layer {
  name: "mnist"
  type: "Data"
  top: "data"
  top: "label"
  include {
    phase: TEST
  }
  transform_param {
    scale: 0.00390625
  }
  data_param {
    source: "examples/mnist/mnist_test_lmdb"
    batch_size: 100
    backend: LMDB
  }
}
layer {
  name: "conv0"
  type: "Convolution"
  bottom: "data"
  top: "conv0"
  param {
    lr_mult: 1
  }
  param {
    lr_mult: 2
  }
  convolution_param {
    num_output: 25
    kernel_size: 5
    stride: 1
    weight_filler {
      type: "xavier"
    }
    bias_filler {
      type: "constant"
    }
  }
}
layer {
  name: "pool0"
  type: "Pooling"
  bottom: "conv0"
  top: "pool0"
  pooling_param {
    pool: MAX
    kernel_size: 2
    stride: 2
  }
}
layer {
  name: "conv1"
  type: "Convolution"
  bottom: "pool0"
  top: "conv1"
  param {
    lr_mult: 1
  }
  param {
    lr_mult: 2
  }
  convolution_param {
    num_output: 50
    kernel_size: 5
    stride: 1
    weight_filler {
      type: "xavier"
    }
    bias_filler {
      type: "constant"
    }
  }
}
layer {
  name: "pool1"
  type: "Pooling"
  bottom: "conv1"
  top: "pool1"
  pooling_param {
    pool: MAX
    kernel_size: 2
    stride: 2
  }
}
layer {
  name: "ip1"
  type: "InnerProduct"
  bottom: "pool1"
  top: "ip1"
  param {
    lr_mult: 1
  }
  param {
    lr_mult: 2
  }
  inner_product_param {
    num_output: 10
    weight_filler {
      type: "xavier"
    }
    bias_filler {
      type: "constant"
    }
  }
}
layer {
  name: "relu1"
  type: "ReLU"
  bottom: "ip1"
  top: "ip1"
}
layer {
  name: "ip2"
  type: "InnerProduct"
  bottom: "ip1"
  top: "ip2"
  param {
    lr_mult: 1
  }
  param {
    lr_mult: 2
  }
  inner_product_param {
    num_output: 50
    weight_filler {
      type: "xavier"
    }
    bias_filler {
      type: "constant"
    }
  }
}
layer {
  name: "relu2"
  type: "ReLU"
  bottom: "ip2"
  top: "ip2"
}
layer {
  name: "ip3"
  type: "InnerProduct"
  bottom: "ip2"
  top: "ip3"
  param {
    lr_mult: 1
  }
  param {
    lr_mult: 2
  }
  inner_product_param {
    num_output: 10
    weight_filler {
      type: "xavier"
    }
    bias_filler {
      type: "constant"
    }
  }
}
layer {
  name: "relu3"
  type: "ReLU"
  bottom: "ip3"
  top: "ip3"
}
layer {
  name: "accuracy"
  type: "Accuracy"
  bottom: "ip3"
  bottom: "label"
  top: "accuracy"
  include {
    phase: TEST
  }
}
layer {
  name: "loss"
  type: "SoftmaxWithLoss"
  bottom: "ip3"
  bottom: "label"
  top: "loss"
}
I0428 20:11:07.882617 32006 layer_factory.hpp:77] Creating layer mnist
I0428 20:11:07.882663 32006 db_lmdb.cpp:35] Opened lmdb examples/mnist/mnist_test_lmdb
I0428 20:11:07.882675 32006 net.cpp:86] Creating Layer mnist
I0428 20:11:07.882680 32006 net.cpp:382] mnist -> data
I0428 20:11:07.882688 32006 net.cpp:382] mnist -> label
I0428 20:11:07.882768 32006 data_layer.cpp:45] output data size: 100,1,28,28
I0428 20:11:07.885012 32006 net.cpp:124] Setting up mnist
I0428 20:11:07.885042 32006 net.cpp:131] Top shape: 100 1 28 28 (78400)
I0428 20:11:07.885047 32006 net.cpp:131] Top shape: 100 (100)
I0428 20:11:07.885051 32006 net.cpp:139] Memory required for data: 314000
I0428 20:11:07.885054 32006 layer_factory.hpp:77] Creating layer label_mnist_1_split
I0428 20:11:07.885061 32006 net.cpp:86] Creating Layer label_mnist_1_split
I0428 20:11:07.885064 32006 net.cpp:408] label_mnist_1_split <- label
I0428 20:11:07.885071 32006 net.cpp:382] label_mnist_1_split -> label_mnist_1_split_0
I0428 20:11:07.885078 32006 net.cpp:382] label_mnist_1_split -> label_mnist_1_split_1
I0428 20:11:07.885133 32006 net.cpp:124] Setting up label_mnist_1_split
I0428 20:11:07.885143 32006 net.cpp:131] Top shape: 100 (100)
I0428 20:11:07.885145 32006 net.cpp:131] Top shape: 100 (100)
I0428 20:11:07.885159 32006 net.cpp:139] Memory required for data: 314800
I0428 20:11:07.885162 32006 layer_factory.hpp:77] Creating layer conv0
I0428 20:11:07.885181 32006 net.cpp:86] Creating Layer conv0
I0428 20:11:07.885185 32006 net.cpp:408] conv0 <- data
I0428 20:11:07.885190 32006 net.cpp:382] conv0 -> conv0
I0428 20:11:07.886852 32006 net.cpp:124] Setting up conv0
I0428 20:11:07.886864 32006 net.cpp:131] Top shape: 100 25 24 24 (1440000)
I0428 20:11:07.886883 32006 net.cpp:139] Memory required for data: 6074800
I0428 20:11:07.886893 32006 layer_factory.hpp:77] Creating layer pool0
I0428 20:11:07.886898 32006 net.cpp:86] Creating Layer pool0
I0428 20:11:07.886901 32006 net.cpp:408] pool0 <- conv0
I0428 20:11:07.886907 32006 net.cpp:382] pool0 -> pool0
I0428 20:11:07.886942 32006 net.cpp:124] Setting up pool0
I0428 20:11:07.886955 32006 net.cpp:131] Top shape: 100 25 12 12 (360000)
I0428 20:11:07.886957 32006 net.cpp:139] Memory required for data: 7514800
I0428 20:11:07.886975 32006 layer_factory.hpp:77] Creating layer conv1
I0428 20:11:07.886984 32006 net.cpp:86] Creating Layer conv1
I0428 20:11:07.886987 32006 net.cpp:408] conv1 <- pool0
I0428 20:11:07.886992 32006 net.cpp:382] conv1 -> conv1
I0428 20:11:07.888718 32006 net.cpp:124] Setting up conv1
I0428 20:11:07.888731 32006 net.cpp:131] Top shape: 100 50 8 8 (320000)
I0428 20:11:07.888751 32006 net.cpp:139] Memory required for data: 8794800
I0428 20:11:07.888761 32006 layer_factory.hpp:77] Creating layer pool1
I0428 20:11:07.888768 32006 net.cpp:86] Creating Layer pool1
I0428 20:11:07.888787 32006 net.cpp:408] pool1 <- conv1
I0428 20:11:07.888793 32006 net.cpp:382] pool1 -> pool1
I0428 20:11:07.888867 32006 net.cpp:124] Setting up pool1
I0428 20:11:07.888875 32006 net.cpp:131] Top shape: 100 50 4 4 (80000)
I0428 20:11:07.888878 32006 net.cpp:139] Memory required for data: 9114800
I0428 20:11:07.888881 32006 layer_factory.hpp:77] Creating layer ip1
I0428 20:11:07.888887 32006 net.cpp:86] Creating Layer ip1
I0428 20:11:07.888898 32006 net.cpp:408] ip1 <- pool1
I0428 20:11:07.888906 32006 net.cpp:382] ip1 -> ip1
I0428 20:11:07.889071 32006 net.cpp:124] Setting up ip1
I0428 20:11:07.889081 32006 net.cpp:131] Top shape: 100 10 (1000)
I0428 20:11:07.889111 32006 net.cpp:139] Memory required for data: 9118800
I0428 20:11:07.889132 32006 layer_factory.hpp:77] Creating layer relu1
I0428 20:11:07.889139 32006 net.cpp:86] Creating Layer relu1
I0428 20:11:07.889143 32006 net.cpp:408] relu1 <- ip1
I0428 20:11:07.889147 32006 net.cpp:369] relu1 -> ip1 (in-place)
I0428 20:11:07.889320 32006 net.cpp:124] Setting up relu1
I0428 20:11:07.889329 32006 net.cpp:131] Top shape: 100 10 (1000)
I0428 20:11:07.889333 32006 net.cpp:139] Memory required for data: 9122800
I0428 20:11:07.889336 32006 layer_factory.hpp:77] Creating layer ip2
I0428 20:11:07.889343 32006 net.cpp:86] Creating Layer ip2
I0428 20:11:07.889348 32006 net.cpp:408] ip2 <- ip1
I0428 20:11:07.889374 32006 net.cpp:382] ip2 -> ip2
I0428 20:11:07.889487 32006 net.cpp:124] Setting up ip2
I0428 20:11:07.889494 32006 net.cpp:131] Top shape: 100 50 (5000)
I0428 20:11:07.889497 32006 net.cpp:139] Memory required for data: 9142800
I0428 20:11:07.889503 32006 layer_factory.hpp:77] Creating layer relu2
I0428 20:11:07.889508 32006 net.cpp:86] Creating Layer relu2
I0428 20:11:07.889511 32006 net.cpp:408] relu2 <- ip2
I0428 20:11:07.889515 32006 net.cpp:369] relu2 -> ip2 (in-place)
I0428 20:11:07.889755 32006 net.cpp:124] Setting up relu2
I0428 20:11:07.889765 32006 net.cpp:131] Top shape: 100 50 (5000)
I0428 20:11:07.889767 32006 net.cpp:139] Memory required for data: 9162800
I0428 20:11:07.889770 32006 layer_factory.hpp:77] Creating layer ip3
I0428 20:11:07.889777 32006 net.cpp:86] Creating Layer ip3
I0428 20:11:07.889781 32006 net.cpp:408] ip3 <- ip2
I0428 20:11:07.889787 32006 net.cpp:382] ip3 -> ip3
I0428 20:11:07.889895 32006 net.cpp:124] Setting up ip3
I0428 20:11:07.889919 32006 net.cpp:131] Top shape: 100 10 (1000)
I0428 20:11:07.889924 32006 net.cpp:139] Memory required for data: 9166800
I0428 20:11:07.889931 32006 layer_factory.hpp:77] Creating layer relu3
I0428 20:11:07.889936 32006 net.cpp:86] Creating Layer relu3
I0428 20:11:07.889940 32006 net.cpp:408] relu3 <- ip3
I0428 20:11:07.889943 32006 net.cpp:369] relu3 -> ip3 (in-place)
I0428 20:11:07.890781 32006 net.cpp:124] Setting up relu3
I0428 20:11:07.890792 32006 net.cpp:131] Top shape: 100 10 (1000)
I0428 20:11:07.890815 32006 net.cpp:139] Memory required for data: 9170800
I0428 20:11:07.890832 32006 layer_factory.hpp:77] Creating layer ip3_relu3_0_split
I0428 20:11:07.890839 32006 net.cpp:86] Creating Layer ip3_relu3_0_split
I0428 20:11:07.890843 32006 net.cpp:408] ip3_relu3_0_split <- ip3
I0428 20:11:07.890849 32006 net.cpp:382] ip3_relu3_0_split -> ip3_relu3_0_split_0
I0428 20:11:07.890856 32006 net.cpp:382] ip3_relu3_0_split -> ip3_relu3_0_split_1
I0428 20:11:07.890903 32006 net.cpp:124] Setting up ip3_relu3_0_split
I0428 20:11:07.890909 32006 net.cpp:131] Top shape: 100 10 (1000)
I0428 20:11:07.890913 32006 net.cpp:131] Top shape: 100 10 (1000)
I0428 20:11:07.890916 32006 net.cpp:139] Memory required for data: 9178800
I0428 20:11:07.890919 32006 layer_factory.hpp:77] Creating layer accuracy
I0428 20:11:07.890930 32006 net.cpp:86] Creating Layer accuracy
I0428 20:11:07.890933 32006 net.cpp:408] accuracy <- ip3_relu3_0_split_0
I0428 20:11:07.890938 32006 net.cpp:408] accuracy <- label_mnist_1_split_0
I0428 20:11:07.890943 32006 net.cpp:382] accuracy -> accuracy
…
