…
I0428 20:05:33.779575 30643 net.cpp:296] The NetState phase (0) differed from the phase (1) specified by a rule in layer mnist
I0428 20:05:33.779603 30643 net.cpp:296] The NetState phase (0) differed from the phase (1) specified by a rule in layer accuracy
I0428 20:05:33.779677 30643 net.cpp:53] Initializing net from parameters: 
name: "LeNet"
state {
  phase: TRAIN
  level: 0
  stage: ""
}
layer {
  name: "mnist"
  type: "Data"
  top: "data"
  top: "label"
  include {
    phase: TRAIN
  }
  transform_param {
    scale: 0.00390625
  }
  data_param {
    source: "examples/mnist/mnist_train_lmdb"
    batch_size: 64
    backend: LMDB
  }
}
layer {
  name: "conv0"
  type: "Convolution"
  bottom: "data"
  top: "conv0"
  param {
    lr_mult: 1
  }
  param {
    lr_mult: 2
  }
  convolution_param {
    num_output: 25
    kernel_size: 5
    stride: 1
    weight_filler {
      type: "xavier"
    }
    bias_filler {
      type: "constant"
    }
  }
}
layer {
  name: "pool0"
  type: "Pooling"
  bottom: "conv0"
  top: "pool0"
  pooling_param {
    pool: MAX
    kernel_size: 2
    stride: 2
  }
}
layer {
  name: "conv1"
  type: "Convolution"
  bottom: "pool0"
  top: "conv1"
  param {
    lr_mult: 1
  }
  param {
    lr_mult: 2
  }
  convolution_param {
    num_output: 2
    kernel_size: 5
    stride: 1
    weight_filler {
      type: "xavier"
    }
    bias_filler {
      type: "constant"
    }
  }
}
layer {
  name: "pool1"
  type: "Pooling"
  bottom: "conv1"
  top: "pool1"
  pooling_param {
    pool: MAX
    kernel_size: 2
    stride: 2
  }
}
layer {
  name: "ip1"
  type: "InnerProduct"
  bottom: "pool1"
  top: "ip1"
  param {
    lr_mult: 1
  }
  param {
    lr_mult: 2
  }
  inner_product_param {
    num_output: 25
    weight_filler {
      type: "xavier"
    }
    bias_filler {
      type: "constant"
    }
  }
}
layer {
  name: "relu1"
  type: "ReLU"
  bottom: "ip1"
  top: "ip1"
}
layer {
  name: "ip2"
  type: "InnerProduct"
  bottom: "ip1"
  top: "ip2"
  param {
    lr_mult: 1
  }
  param {
    lr_mult: 2
  }
  inner_product_param {
    num_output: 50
    weight_filler {
      type: "xavier"
    }
    bias_filler {
      type: "constant"
    }
  }
}
layer {
  name: "relu2"
  type: "ReLU"
  bottom: "ip2"
  top: "ip2"
}
layer {
  name: "ip3"
  type: "InnerProduct"
  bottom: "ip2"
  top: "ip3"
  param {
    lr_mult: 1
  }
  param {
    lr_mult: 2
  }
  inner_product_param {
    num_output: 10
    weight_filler {
      type: "xavier"
    }
    bias_filler {
      type: "constant"
    }
  }
}
layer {
  name: "relu3"
  type: "ReLU"
  bottom: "ip3"
  top: "ip3"
}
layer {
  name: "loss"
  type: "SoftmaxWithLoss"
  bottom: "ip3"
  bottom: "label"
  top: "loss"
}
I0428 20:05:33.779736 30643 layer_factory.hpp:77] Creating layer mnist
I0428 20:05:33.779834 30643 db_lmdb.cpp:35] Opened lmdb examples/mnist/mnist_train_lmdb
I0428 20:05:33.779855 30643 net.cpp:86] Creating Layer mnist
I0428 20:05:33.779862 30643 net.cpp:382] mnist -> data
I0428 20:05:33.779881 30643 net.cpp:382] mnist -> label
I0428 20:05:33.780923 30643 data_layer.cpp:45] output data size: 64,1,28,28
I0428 20:05:33.783144 30643 net.cpp:124] Setting up mnist
I0428 20:05:33.783174 30643 net.cpp:131] Top shape: 64 1 28 28 (50176)
I0428 20:05:33.783179 30643 net.cpp:131] Top shape: 64 (64)
I0428 20:05:33.783181 30643 net.cpp:139] Memory required for data: 200960
I0428 20:05:33.783187 30643 layer_factory.hpp:77] Creating layer conv0
I0428 20:05:33.783200 30643 net.cpp:86] Creating Layer conv0
I0428 20:05:33.783219 30643 net.cpp:408] conv0 <- data
I0428 20:05:33.783228 30643 net.cpp:382] conv0 -> conv0
I0428 20:05:34.019578 30643 net.cpp:124] Setting up conv0
I0428 20:05:34.019604 30643 net.cpp:131] Top shape: 64 25 24 24 (921600)
I0428 20:05:34.019608 30643 net.cpp:139] Memory required for data: 3887360
I0428 20:05:34.019623 30643 layer_factory.hpp:77] Creating layer pool0
I0428 20:05:34.019634 30643 net.cpp:86] Creating Layer pool0
I0428 20:05:34.019639 30643 net.cpp:408] pool0 <- conv0
I0428 20:05:34.019644 30643 net.cpp:382] pool0 -> pool0
I0428 20:05:34.019702 30643 net.cpp:124] Setting up pool0
I0428 20:05:34.019711 30643 net.cpp:131] Top shape: 64 25 12 12 (230400)
I0428 20:05:34.019713 30643 net.cpp:139] Memory required for data: 4808960
I0428 20:05:34.019716 30643 layer_factory.hpp:77] Creating layer conv1
I0428 20:05:34.019726 30643 net.cpp:86] Creating Layer conv1
I0428 20:05:34.019731 30643 net.cpp:408] conv1 <- pool0
I0428 20:05:34.019752 30643 net.cpp:382] conv1 -> conv1
I0428 20:05:34.022549 30643 net.cpp:124] Setting up conv1
I0428 20:05:34.022563 30643 net.cpp:131] Top shape: 64 2 8 8 (8192)
I0428 20:05:34.022567 30643 net.cpp:139] Memory required for data: 4841728
I0428 20:05:34.022575 30643 layer_factory.hpp:77] Creating layer pool1
I0428 20:05:34.022583 30643 net.cpp:86] Creating Layer pool1
I0428 20:05:34.022586 30643 net.cpp:408] pool1 <- conv1
I0428 20:05:34.022591 30643 net.cpp:382] pool1 -> pool1
I0428 20:05:34.022626 30643 net.cpp:124] Setting up pool1
I0428 20:05:34.022632 30643 net.cpp:131] Top shape: 64 2 4 4 (2048)
I0428 20:05:34.022635 30643 net.cpp:139] Memory required for data: 4849920
I0428 20:05:34.022639 30643 layer_factory.hpp:77] Creating layer ip1
I0428 20:05:34.022646 30643 net.cpp:86] Creating Layer ip1
I0428 20:05:34.022650 30643 net.cpp:408] ip1 <- pool1
I0428 20:05:34.022655 30643 net.cpp:382] ip1 -> ip1
I0428 20:05:34.022753 30643 net.cpp:124] Setting up ip1
I0428 20:05:34.022761 30643 net.cpp:131] Top shape: 64 25 (1600)
I0428 20:05:34.022764 30643 net.cpp:139] Memory required for data: 4856320
I0428 20:05:34.022770 30643 layer_factory.hpp:77] Creating layer relu1
I0428 20:05:34.022776 30643 net.cpp:86] Creating Layer relu1
I0428 20:05:34.022779 30643 net.cpp:408] relu1 <- ip1
I0428 20:05:34.022783 30643 net.cpp:369] relu1 -> ip1 (in-place)
I0428 20:05:34.022945 30643 net.cpp:124] Setting up relu1
I0428 20:05:34.022954 30643 net.cpp:131] Top shape: 64 25 (1600)
I0428 20:05:34.022958 30643 net.cpp:139] Memory required for data: 4862720
I0428 20:05:34.022960 30643 layer_factory.hpp:77] Creating layer ip2
I0428 20:05:34.022967 30643 net.cpp:86] Creating Layer ip2
I0428 20:05:34.022970 30643 net.cpp:408] ip2 <- ip1
I0428 20:05:34.022975 30643 net.cpp:382] ip2 -> ip2
I0428 20:05:34.023079 30643 net.cpp:124] Setting up ip2
I0428 20:05:34.023087 30643 net.cpp:131] Top shape: 64 50 (3200)
I0428 20:05:34.023089 30643 net.cpp:139] Memory required for data: 4875520
I0428 20:05:34.023094 30643 layer_factory.hpp:77] Creating layer relu2
I0428 20:05:34.023099 30643 net.cpp:86] Creating Layer relu2
I0428 20:05:34.023102 30643 net.cpp:408] relu2 <- ip2
I0428 20:05:34.023108 30643 net.cpp:369] relu2 -> ip2 (in-place)
I0428 20:05:34.023846 30643 net.cpp:124] Setting up relu2
I0428 20:05:34.023859 30643 net.cpp:131] Top shape: 64 50 (3200)
I0428 20:05:34.023864 30643 net.cpp:139] Memory required for data: 4888320
I0428 20:05:34.023903 30643 layer_factory.hpp:77] Creating layer ip3
I0428 20:05:34.023911 30643 net.cpp:86] Creating Layer ip3
I0428 20:05:34.023916 30643 net.cpp:408] ip3 <- ip2
I0428 20:05:34.023921 30643 net.cpp:382] ip3 -> ip3
I0428 20:05:34.024024 30643 net.cpp:124] Setting up ip3
I0428 20:05:34.024031 30643 net.cpp:131] Top shape: 64 10 (640)
I0428 20:05:34.024034 30643 net.cpp:139] Memory required for data: 4890880
I0428 20:05:34.024041 30643 layer_factory.hpp:77] Creating layer relu3
I0428 20:05:34.024046 30643 net.cpp:86] Creating Layer relu3
I0428 20:05:34.024049 30643 net.cpp:408] relu3 <- ip3
I0428 20:05:34.024054 30643 net.cpp:369] relu3 -> ip3 (in-place)
I0428 20:05:34.024232 30643 net.cpp:124] Setting up relu3
I0428 20:05:34.024242 30643 net.cpp:131] Top shape: 64 10 (640)
I0428 20:05:34.024245 30643 net.cpp:139] Memory required for data: 4893440
I0428 20:05:34.024248 30643 layer_factory.hpp:77] Creating layer loss
I0428 20:05:34.024253 30643 net.cpp:86] Creating Layer loss
I0428 20:05:34.024257 30643 net.cpp:408] loss <- ip3
I0428 20:05:34.024260 30643 net.cpp:408] loss <- label
I0428 20:05:34.024266 30643 net.cpp:382] loss -> loss
I0428 20:05:34.024283 30643 layer_factory.hpp:77] Creating layer loss
…
I0428 20:05:34.024910 30643 solver.cpp:173] Creating test net (#0) specified by net file: ECE595/mnist/train_test/var_everything2/lenet_train_test1003.prototxt
I0428 20:05:34.024953 30643 net.cpp:296] The NetState phase (1) differed from the phase (0) specified by a rule in layer mnist
I0428 20:05:34.025058 30643 net.cpp:53] Initializing net from parameters: 
name: "LeNet"
state {
  phase: TEST
}
layer {
  name: "mnist"
  type: "Data"
  top: "data"
  top: "label"
  include {
    phase: TEST
  }
  transform_param {
    scale: 0.00390625
  }
  data_param {
    source: "examples/mnist/mnist_test_lmdb"
    batch_size: 100
    backend: LMDB
  }
}
layer {
  name: "conv0"
  type: "Convolution"
  bottom: "data"
  top: "conv0"
  param {
    lr_mult: 1
  }
  param {
    lr_mult: 2
  }
  convolution_param {
    num_output: 25
    kernel_size: 5
    stride: 1
    weight_filler {
      type: "xavier"
    }
    bias_filler {
      type: "constant"
    }
  }
}
layer {
  name: "pool0"
  type: "Pooling"
  bottom: "conv0"
  top: "pool0"
  pooling_param {
    pool: MAX
    kernel_size: 2
    stride: 2
  }
}
layer {
  name: "conv1"
  type: "Convolution"
  bottom: "pool0"
  top: "conv1"
  param {
    lr_mult: 1
  }
  param {
    lr_mult: 2
  }
  convolution_param {
    num_output: 2
    kernel_size: 5
    stride: 1
    weight_filler {
      type: "xavier"
    }
    bias_filler {
      type: "constant"
    }
  }
}
layer {
  name: "pool1"
  type: "Pooling"
  bottom: "conv1"
  top: "pool1"
  pooling_param {
    pool: MAX
    kernel_size: 2
    stride: 2
  }
}
layer {
  name: "ip1"
  type: "InnerProduct"
  bottom: "pool1"
  top: "ip1"
  param {
    lr_mult: 1
  }
  param {
    lr_mult: 2
  }
  inner_product_param {
    num_output: 25
    weight_filler {
      type: "xavier"
    }
    bias_filler {
      type: "constant"
    }
  }
}
layer {
  name: "relu1"
  type: "ReLU"
  bottom: "ip1"
  top: "ip1"
}
layer {
  name: "ip2"
  type: "InnerProduct"
  bottom: "ip1"
  top: "ip2"
  param {
    lr_mult: 1
  }
  param {
    lr_mult: 2
  }
  inner_product_param {
    num_output: 50
    weight_filler {
      type: "xavier"
    }
    bias_filler {
      type: "constant"
    }
  }
}
layer {
  name: "relu2"
  type: "ReLU"
  bottom: "ip2"
  top: "ip2"
}
layer {
  name: "ip3"
  type: "InnerProduct"
  bottom: "ip2"
  top: "ip3"
  param {
    lr_mult: 1
  }
  param {
    lr_mult: 2
  }
  inner_product_param {
    num_output: 10
    weight_filler {
      type: "xavier"
    }
    bias_filler {
      type: "constant"
    }
  }
}
layer {
  name: "relu3"
  type: "ReLU"
  bottom: "ip3"
  top: "ip3"
}
layer {
  name: "accuracy"
  type: "Accuracy"
  bottom: "ip3"
  bottom: "label"
  top: "accuracy"
  include {
    phase: TEST
  }
}
layer {
  name: "loss"
  type: "SoftmaxWithLoss"
  bottom: "ip3"
  bottom: "label"
  top: "loss"
}
I0428 20:05:34.025149 30643 layer_factory.hpp:77] Creating layer mnist
I0428 20:05:34.025192 30643 db_lmdb.cpp:35] Opened lmdb examples/mnist/mnist_test_lmdb
I0428 20:05:34.025214 30643 net.cpp:86] Creating Layer mnist
I0428 20:05:34.025219 30643 net.cpp:382] mnist -> data
I0428 20:05:34.025228 30643 net.cpp:382] mnist -> label
I0428 20:05:34.025319 30643 data_layer.cpp:45] output data size: 100,1,28,28
I0428 20:05:34.027217 30643 net.cpp:124] Setting up mnist
I0428 20:05:34.027230 30643 net.cpp:131] Top shape: 100 1 28 28 (78400)
I0428 20:05:34.027248 30643 net.cpp:131] Top shape: 100 (100)
I0428 20:05:34.027252 30643 net.cpp:139] Memory required for data: 314000
I0428 20:05:34.027256 30643 layer_factory.hpp:77] Creating layer label_mnist_1_split
I0428 20:05:34.027262 30643 net.cpp:86] Creating Layer label_mnist_1_split
I0428 20:05:34.027266 30643 net.cpp:408] label_mnist_1_split <- label
I0428 20:05:34.027271 30643 net.cpp:382] label_mnist_1_split -> label_mnist_1_split_0
I0428 20:05:34.027276 30643 net.cpp:382] label_mnist_1_split -> label_mnist_1_split_1
I0428 20:05:34.027318 30643 net.cpp:124] Setting up label_mnist_1_split
I0428 20:05:34.027323 30643 net.cpp:131] Top shape: 100 (100)
I0428 20:05:34.027328 30643 net.cpp:131] Top shape: 100 (100)
I0428 20:05:34.027331 30643 net.cpp:139] Memory required for data: 314800
I0428 20:05:34.027334 30643 layer_factory.hpp:77] Creating layer conv0
I0428 20:05:34.027341 30643 net.cpp:86] Creating Layer conv0
I0428 20:05:34.027344 30643 net.cpp:408] conv0 <- data
I0428 20:05:34.027349 30643 net.cpp:382] conv0 -> conv0
I0428 20:05:34.029203 30643 net.cpp:124] Setting up conv0
I0428 20:05:34.029232 30643 net.cpp:131] Top shape: 100 25 24 24 (1440000)
I0428 20:05:34.029235 30643 net.cpp:139] Memory required for data: 6074800
I0428 20:05:34.029259 30643 layer_factory.hpp:77] Creating layer pool0
I0428 20:05:34.029265 30643 net.cpp:86] Creating Layer pool0
I0428 20:05:34.029268 30643 net.cpp:408] pool0 <- conv0
I0428 20:05:34.029273 30643 net.cpp:382] pool0 -> pool0
I0428 20:05:34.029320 30643 net.cpp:124] Setting up pool0
I0428 20:05:34.029326 30643 net.cpp:131] Top shape: 100 25 12 12 (360000)
I0428 20:05:34.029330 30643 net.cpp:139] Memory required for data: 7514800
I0428 20:05:34.029332 30643 layer_factory.hpp:77] Creating layer conv1
I0428 20:05:34.029355 30643 net.cpp:86] Creating Layer conv1
I0428 20:05:34.029357 30643 net.cpp:408] conv1 <- pool0
I0428 20:05:34.029362 30643 net.cpp:382] conv1 -> conv1
I0428 20:05:34.031554 30643 net.cpp:124] Setting up conv1
I0428 20:05:34.031568 30643 net.cpp:131] Top shape: 100 2 8 8 (12800)
I0428 20:05:34.031571 30643 net.cpp:139] Memory required for data: 7566000
I0428 20:05:34.031580 30643 layer_factory.hpp:77] Creating layer pool1
I0428 20:05:34.031586 30643 net.cpp:86] Creating Layer pool1
I0428 20:05:34.031590 30643 net.cpp:408] pool1 <- conv1
I0428 20:05:34.031595 30643 net.cpp:382] pool1 -> pool1
I0428 20:05:34.031646 30643 net.cpp:124] Setting up pool1
I0428 20:05:34.031651 30643 net.cpp:131] Top shape: 100 2 4 4 (3200)
I0428 20:05:34.031653 30643 net.cpp:139] Memory required for data: 7578800
I0428 20:05:34.031656 30643 layer_factory.hpp:77] Creating layer ip1
I0428 20:05:34.031662 30643 net.cpp:86] Creating Layer ip1
I0428 20:05:34.031666 30643 net.cpp:408] ip1 <- pool1
I0428 20:05:34.031671 30643 net.cpp:382] ip1 -> ip1
I0428 20:05:34.031775 30643 net.cpp:124] Setting up ip1
I0428 20:05:34.031783 30643 net.cpp:131] Top shape: 100 25 (2500)
I0428 20:05:34.031796 30643 net.cpp:139] Memory required for data: 7588800
I0428 20:05:34.031803 30643 layer_factory.hpp:77] Creating layer relu1
I0428 20:05:34.031808 30643 net.cpp:86] Creating Layer relu1
I0428 20:05:34.031811 30643 net.cpp:408] relu1 <- ip1
I0428 20:05:34.031816 30643 net.cpp:369] relu1 -> ip1 (in-place)
I0428 20:05:34.032059 30643 net.cpp:124] Setting up relu1
I0428 20:05:34.032068 30643 net.cpp:131] Top shape: 100 25 (2500)
I0428 20:05:34.032071 30643 net.cpp:139] Memory required for data: 7598800
I0428 20:05:34.032079 30643 layer_factory.hpp:77] Creating layer ip2
I0428 20:05:34.032086 30643 net.cpp:86] Creating Layer ip2
I0428 20:05:34.032090 30643 net.cpp:408] ip2 <- ip1
I0428 20:05:34.032095 30643 net.cpp:382] ip2 -> ip2
I0428 20:05:34.032198 30643 net.cpp:124] Setting up ip2
I0428 20:05:34.032207 30643 net.cpp:131] Top shape: 100 50 (5000)
I0428 20:05:34.032222 30643 net.cpp:139] Memory required for data: 7618800
I0428 20:05:34.032227 30643 layer_factory.hpp:77] Creating layer relu2
I0428 20:05:34.032232 30643 net.cpp:86] Creating Layer relu2
I0428 20:05:34.032235 30643 net.cpp:408] relu2 <- ip2
I0428 20:05:34.032240 30643 net.cpp:369] relu2 -> ip2 (in-place)
I0428 20:05:34.032400 30643 net.cpp:124] Setting up relu2
I0428 20:05:34.032409 30643 net.cpp:131] Top shape: 100 50 (5000)
I0428 20:05:34.032413 30643 net.cpp:139] Memory required for data: 7638800
I0428 20:05:34.032415 30643 layer_factory.hpp:77] Creating layer ip3
I0428 20:05:34.032420 30643 net.cpp:86] Creating Layer ip3
I0428 20:05:34.032424 30643 net.cpp:408] ip3 <- ip2
I0428 20:05:34.032429 30643 net.cpp:382] ip3 -> ip3
I0428 20:05:34.032526 30643 net.cpp:124] Setting up ip3
I0428 20:05:34.032534 30643 net.cpp:131] Top shape: 100 10 (1000)
I0428 20:05:34.032537 30643 net.cpp:139] Memory required for data: 7642800
I0428 20:05:34.032552 30643 layer_factory.hpp:77] Creating layer relu3
I0428 20:05:34.032557 30643 net.cpp:86] Creating Layer relu3
I0428 20:05:34.032559 30643 net.cpp:408] relu3 <- ip3
I0428 20:05:34.032563 30643 net.cpp:369] relu3 -> ip3 (in-place)
I0428 20:05:34.033373 30643 net.cpp:124] Setting up relu3
I0428 20:05:34.033385 30643 net.cpp:131] Top shape: 100 10 (1000)
I0428 20:05:34.033403 30643 net.cpp:139] Memory required for data: 7646800
I0428 20:05:34.033406 30643 layer_factory.hpp:77] Creating layer ip3_relu3_0_split
I0428 20:05:34.033427 30643 net.cpp:86] Creating Layer ip3_relu3_0_split
I0428 20:05:34.033430 30643 net.cpp:408] ip3_relu3_0_split <- ip3
I0428 20:05:34.033445 30643 net.cpp:382] ip3_relu3_0_split -> ip3_relu3_0_split_0
I0428 20:05:34.033452 30643 net.cpp:382] ip3_relu3_0_split -> ip3_relu3_0_split_1
I0428 20:05:34.033527 30643 net.cpp:124] Setting up ip3_relu3_0_split
I0428 20:05:34.033536 30643 net.cpp:131] Top shape: 100 10 (1000)
I0428 20:05:34.033541 30643 net.cpp:131] Top shape: 100 10 (1000)
I0428 20:05:34.033545 30643 net.cpp:139] Memory required for data: 7654800
I0428 20:05:34.033547 30643 layer_factory.hpp:77] Creating layer accuracy
I0428 20:05:34.033552 30643 net.cpp:86] Creating Layer accuracy
I0428 20:05:34.033556 30643 net.cpp:408] accuracy <- ip3_relu3_0_split_0
I0428 20:05:34.033560 30643 net.cpp:408] accuracy <- label_mnist_1_split_0
I0428 20:05:34.033565 30643 net.cpp:382] accuracy -> accuracy
…
