…
I0428 20:16:48.163942   733 net.cpp:296] The NetState phase (0) differed from the phase (1) specified by a rule in layer mnist
I0428 20:16:48.163969   733 net.cpp:296] The NetState phase (0) differed from the phase (1) specified by a rule in layer accuracy
I0428 20:16:48.164057   733 net.cpp:53] Initializing net from parameters: 
name: "LeNet"
state {
  phase: TRAIN
  level: 0
  stage: ""
}
layer {
  name: "mnist"
  type: "Data"
  top: "data"
  top: "label"
  include {
    phase: TRAIN
  }
  transform_param {
    scale: 0.00390625
  }
  data_param {
    source: "examples/mnist/mnist_train_lmdb"
    batch_size: 64
    backend: LMDB
  }
}
layer {
  name: "conv0"
  type: "Convolution"
  bottom: "data"
  top: "conv0"
  param {
    lr_mult: 1
  }
  param {
    lr_mult: 2
  }
  convolution_param {
    num_output: 50
    kernel_size: 5
    stride: 1
    weight_filler {
      type: "xavier"
    }
    bias_filler {
      type: "constant"
    }
  }
}
layer {
  name: "pool0"
  type: "Pooling"
  bottom: "conv0"
  top: "pool0"
  pooling_param {
    pool: MAX
    kernel_size: 2
    stride: 2
  }
}
layer {
  name: "conv1"
  type: "Convolution"
  bottom: "pool0"
  top: "conv1"
  param {
    lr_mult: 1
  }
  param {
    lr_mult: 2
  }
  convolution_param {
    num_output: 5
    kernel_size: 5
    stride: 1
    weight_filler {
      type: "xavier"
    }
    bias_filler {
      type: "constant"
    }
  }
}
layer {
  name: "pool1"
  type: "Pooling"
  bottom: "conv1"
  top: "pool1"
  pooling_param {
    pool: MAX
    kernel_size: 2
    stride: 2
  }
}
layer {
  name: "ip1"
  type: "InnerProduct"
  bottom: "pool1"
  top: "ip1"
  param {
    lr_mult: 1
  }
  param {
    lr_mult: 2
  }
  inner_product_param {
    num_output: 50
    weight_filler {
      type: "xavier"
    }
    bias_filler {
      type: "constant"
    }
  }
}
layer {
  name: "relu1"
  type: "ReLU"
  bottom: "ip1"
  top: "ip1"
}
layer {
  name: "ip2"
  type: "InnerProduct"
  bottom: "ip1"
  top: "ip2"
  param {
    lr_mult: 1
  }
  param {
    lr_mult: 2
  }
  inner_product_param {
    num_output: 10
    weight_filler {
      type: "xavier"
    }
    bias_filler {
      type: "constant"
    }
  }
}
layer {
  name: "relu2"
  type: "ReLU"
  bottom: "ip2"
  top: "ip2"
}
layer {
  name: "ip3"
  type: "InnerProduct"
  bottom: "ip2"
  top: "ip3"
  param {
    lr_mult: 1
  }
  param {
    lr_mult: 2
  }
  inner_product_param {
    num_output: 10
    weight_filler {
      type: "xavier"
    }
    bias_filler {
      type: "constant"
    }
  }
}
layer {
  name: "relu3"
  type: "ReLU"
  bottom: "ip3"
  top: "ip3"
}
layer {
  name: "loss"
  type: "SoftmaxWithLoss"
  bottom: "ip3"
  bottom: "label"
  top: "loss"
}
I0428 20:16:48.164120   733 layer_factory.hpp:77] Creating layer mnist
I0428 20:16:48.164201   733 db_lmdb.cpp:35] Opened lmdb examples/mnist/mnist_train_lmdb
I0428 20:16:48.164235   733 net.cpp:86] Creating Layer mnist
I0428 20:16:48.164242   733 net.cpp:382] mnist -> data
I0428 20:16:48.164260   733 net.cpp:382] mnist -> label
I0428 20:16:48.165259   733 data_layer.cpp:45] output data size: 64,1,28,28
I0428 20:16:48.167531   733 net.cpp:124] Setting up mnist
I0428 20:16:48.167546   733 net.cpp:131] Top shape: 64 1 28 28 (50176)
I0428 20:16:48.167551   733 net.cpp:131] Top shape: 64 (64)
I0428 20:16:48.167554   733 net.cpp:139] Memory required for data: 200960
I0428 20:16:48.167560   733 layer_factory.hpp:77] Creating layer conv0
I0428 20:16:48.167573   733 net.cpp:86] Creating Layer conv0
I0428 20:16:48.167592   733 net.cpp:408] conv0 <- data
I0428 20:16:48.167603   733 net.cpp:382] conv0 -> conv0
I0428 20:16:48.402900   733 net.cpp:124] Setting up conv0
I0428 20:16:48.402942   733 net.cpp:131] Top shape: 64 50 24 24 (1843200)
I0428 20:16:48.402947   733 net.cpp:139] Memory required for data: 7573760
I0428 20:16:48.402961   733 layer_factory.hpp:77] Creating layer pool0
I0428 20:16:48.402974   733 net.cpp:86] Creating Layer pool0
I0428 20:16:48.402978   733 net.cpp:408] pool0 <- conv0
I0428 20:16:48.402983   733 net.cpp:382] pool0 -> pool0
I0428 20:16:48.403028   733 net.cpp:124] Setting up pool0
I0428 20:16:48.403033   733 net.cpp:131] Top shape: 64 50 12 12 (460800)
I0428 20:16:48.403035   733 net.cpp:139] Memory required for data: 9416960
I0428 20:16:48.403038   733 layer_factory.hpp:77] Creating layer conv1
I0428 20:16:48.403048   733 net.cpp:86] Creating Layer conv1
I0428 20:16:48.403051   733 net.cpp:408] conv1 <- pool0
I0428 20:16:48.403056   733 net.cpp:382] conv1 -> conv1
I0428 20:16:48.405781   733 net.cpp:124] Setting up conv1
I0428 20:16:48.405809   733 net.cpp:131] Top shape: 64 5 8 8 (20480)
I0428 20:16:48.405813   733 net.cpp:139] Memory required for data: 9498880
I0428 20:16:48.405836   733 layer_factory.hpp:77] Creating layer pool1
I0428 20:16:48.405843   733 net.cpp:86] Creating Layer pool1
I0428 20:16:48.405848   733 net.cpp:408] pool1 <- conv1
I0428 20:16:48.405853   733 net.cpp:382] pool1 -> pool1
I0428 20:16:48.405886   733 net.cpp:124] Setting up pool1
I0428 20:16:48.405892   733 net.cpp:131] Top shape: 64 5 4 4 (5120)
I0428 20:16:48.405894   733 net.cpp:139] Memory required for data: 9519360
I0428 20:16:48.405897   733 layer_factory.hpp:77] Creating layer ip1
I0428 20:16:48.405905   733 net.cpp:86] Creating Layer ip1
I0428 20:16:48.405907   733 net.cpp:408] ip1 <- pool1
I0428 20:16:48.405911   733 net.cpp:382] ip1 -> ip1
I0428 20:16:48.406045   733 net.cpp:124] Setting up ip1
I0428 20:16:48.406054   733 net.cpp:131] Top shape: 64 50 (3200)
I0428 20:16:48.406056   733 net.cpp:139] Memory required for data: 9532160
I0428 20:16:48.406064   733 layer_factory.hpp:77] Creating layer relu1
I0428 20:16:48.406069   733 net.cpp:86] Creating Layer relu1
I0428 20:16:48.406072   733 net.cpp:408] relu1 <- ip1
I0428 20:16:48.406076   733 net.cpp:369] relu1 -> ip1 (in-place)
I0428 20:16:48.406250   733 net.cpp:124] Setting up relu1
I0428 20:16:48.406258   733 net.cpp:131] Top shape: 64 50 (3200)
I0428 20:16:48.406277   733 net.cpp:139] Memory required for data: 9544960
I0428 20:16:48.406280   733 layer_factory.hpp:77] Creating layer ip2
I0428 20:16:48.406286   733 net.cpp:86] Creating Layer ip2
I0428 20:16:48.406289   733 net.cpp:408] ip2 <- ip1
I0428 20:16:48.406294   733 net.cpp:382] ip2 -> ip2
I0428 20:16:48.406404   733 net.cpp:124] Setting up ip2
I0428 20:16:48.406411   733 net.cpp:131] Top shape: 64 10 (640)
I0428 20:16:48.406414   733 net.cpp:139] Memory required for data: 9547520
I0428 20:16:48.406420   733 layer_factory.hpp:77] Creating layer relu2
I0428 20:16:48.406426   733 net.cpp:86] Creating Layer relu2
I0428 20:16:48.406430   733 net.cpp:408] relu2 <- ip2
I0428 20:16:48.406433   733 net.cpp:369] relu2 -> ip2 (in-place)
I0428 20:16:48.407162   733 net.cpp:124] Setting up relu2
I0428 20:16:48.407174   733 net.cpp:131] Top shape: 64 10 (640)
I0428 20:16:48.407193   733 net.cpp:139] Memory required for data: 9550080
I0428 20:16:48.407196   733 layer_factory.hpp:77] Creating layer ip3
I0428 20:16:48.407203   733 net.cpp:86] Creating Layer ip3
I0428 20:16:48.407207   733 net.cpp:408] ip3 <- ip2
I0428 20:16:48.407212   733 net.cpp:382] ip3 -> ip3
I0428 20:16:48.407305   733 net.cpp:124] Setting up ip3
I0428 20:16:48.407312   733 net.cpp:131] Top shape: 64 10 (640)
I0428 20:16:48.407315   733 net.cpp:139] Memory required for data: 9552640
I0428 20:16:48.407322   733 layer_factory.hpp:77] Creating layer relu3
I0428 20:16:48.407328   733 net.cpp:86] Creating Layer relu3
I0428 20:16:48.407330   733 net.cpp:408] relu3 <- ip3
I0428 20:16:48.407335   733 net.cpp:369] relu3 -> ip3 (in-place)
I0428 20:16:48.407503   733 net.cpp:124] Setting up relu3
I0428 20:16:48.407512   733 net.cpp:131] Top shape: 64 10 (640)
I0428 20:16:48.407516   733 net.cpp:139] Memory required for data: 9555200
I0428 20:16:48.407518   733 layer_factory.hpp:77] Creating layer loss
I0428 20:16:48.407523   733 net.cpp:86] Creating Layer loss
I0428 20:16:48.407526   733 net.cpp:408] loss <- ip3
I0428 20:16:48.407546   733 net.cpp:408] loss <- label
I0428 20:16:48.407551   733 net.cpp:382] loss -> loss
I0428 20:16:48.407575   733 layer_factory.hpp:77] Creating layer loss
…
I0428 20:16:48.408287   733 solver.cpp:173] Creating test net (#0) specified by net file: ECE595/mnist/train_test/var_everything2/lenet_train_test1279.prototxt
I0428 20:16:48.408344   733 net.cpp:296] The NetState phase (1) differed from the phase (0) specified by a rule in layer mnist
I0428 20:16:48.408447   733 net.cpp:53] Initializing net from parameters: 
name: "LeNet"
state {
  phase: TEST
}
layer {
  name: "mnist"
  type: "Data"
  top: "data"
  top: "label"
  include {
    phase: TEST
  }
  transform_param {
    scale: 0.00390625
  }
  data_param {
    source: "examples/mnist/mnist_test_lmdb"
    batch_size: 100
    backend: LMDB
  }
}
layer {
  name: "conv0"
  type: "Convolution"
  bottom: "data"
  top: "conv0"
  param {
    lr_mult: 1
  }
  param {
    lr_mult: 2
  }
  convolution_param {
    num_output: 50
    kernel_size: 5
    stride: 1
    weight_filler {
      type: "xavier"
    }
    bias_filler {
      type: "constant"
    }
  }
}
layer {
  name: "pool0"
  type: "Pooling"
  bottom: "conv0"
  top: "pool0"
  pooling_param {
    pool: MAX
    kernel_size: 2
    stride: 2
  }
}
layer {
  name: "conv1"
  type: "Convolution"
  bottom: "pool0"
  top: "conv1"
  param {
    lr_mult: 1
  }
  param {
    lr_mult: 2
  }
  convolution_param {
    num_output: 5
    kernel_size: 5
    stride: 1
    weight_filler {
      type: "xavier"
    }
    bias_filler {
      type: "constant"
    }
  }
}
layer {
  name: "pool1"
  type: "Pooling"
  bottom: "conv1"
  top: "pool1"
  pooling_param {
    pool: MAX
    kernel_size: 2
    stride: 2
  }
}
layer {
  name: "ip1"
  type: "InnerProduct"
  bottom: "pool1"
  top: "ip1"
  param {
    lr_mult: 1
  }
  param {
    lr_mult: 2
  }
  inner_product_param {
    num_output: 50
    weight_filler {
      type: "xavier"
    }
    bias_filler {
      type: "constant"
    }
  }
}
layer {
  name: "relu1"
  type: "ReLU"
  bottom: "ip1"
  top: "ip1"
}
layer {
  name: "ip2"
  type: "InnerProduct"
  bottom: "ip1"
  top: "ip2"
  param {
    lr_mult: 1
  }
  param {
    lr_mult: 2
  }
  inner_product_param {
    num_output: 10
    weight_filler {
      type: "xavier"
    }
    bias_filler {
      type: "constant"
    }
  }
}
layer {
  name: "relu2"
  type: "ReLU"
  bottom: "ip2"
  top: "ip2"
}
layer {
  name: "ip3"
  type: "InnerProduct"
  bottom: "ip2"
  top: "ip3"
  param {
    lr_mult: 1
  }
  param {
    lr_mult: 2
  }
  inner_product_param {
    num_output: 10
    weight_filler {
      type: "xavier"
    }
    bias_filler {
      type: "constant"
    }
  }
}
layer {
  name: "relu3"
  type: "ReLU"
  bottom: "ip3"
  top: "ip3"
}
layer {
  name: "accuracy"
  type: "Accuracy"
  bottom: "ip3"
  bottom: "label"
  top: "accuracy"
  include {
    phase: TEST
  }
}
layer {
  name: "loss"
  type: "SoftmaxWithLoss"
  bottom: "ip3"
  bottom: "label"
  top: "loss"
}
I0428 20:16:48.408522   733 layer_factory.hpp:77] Creating layer mnist
I0428 20:16:48.408565   733 db_lmdb.cpp:35] Opened lmdb examples/mnist/mnist_test_lmdb
I0428 20:16:48.408576   733 net.cpp:86] Creating Layer mnist
I0428 20:16:48.408581   733 net.cpp:382] mnist -> data
I0428 20:16:48.408603   733 net.cpp:382] mnist -> label
I0428 20:16:48.408704   733 data_layer.cpp:45] output data size: 100,1,28,28
I0428 20:16:48.410708   733 net.cpp:124] Setting up mnist
I0428 20:16:48.410737   733 net.cpp:131] Top shape: 100 1 28 28 (78400)
I0428 20:16:48.410742   733 net.cpp:131] Top shape: 100 (100)
I0428 20:16:48.410745   733 net.cpp:139] Memory required for data: 314000
I0428 20:16:48.410748   733 layer_factory.hpp:77] Creating layer label_mnist_1_split
I0428 20:16:48.410755   733 net.cpp:86] Creating Layer label_mnist_1_split
I0428 20:16:48.410758   733 net.cpp:408] label_mnist_1_split <- label
I0428 20:16:48.410763   733 net.cpp:382] label_mnist_1_split -> label_mnist_1_split_0
I0428 20:16:48.410769   733 net.cpp:382] label_mnist_1_split -> label_mnist_1_split_1
I0428 20:16:48.410805   733 net.cpp:124] Setting up label_mnist_1_split
I0428 20:16:48.410810   733 net.cpp:131] Top shape: 100 (100)
I0428 20:16:48.410815   733 net.cpp:131] Top shape: 100 (100)
I0428 20:16:48.410816   733 net.cpp:139] Memory required for data: 314800
I0428 20:16:48.410820   733 layer_factory.hpp:77] Creating layer conv0
I0428 20:16:48.410827   733 net.cpp:86] Creating Layer conv0
I0428 20:16:48.410830   733 net.cpp:408] conv0 <- data
I0428 20:16:48.410835   733 net.cpp:382] conv0 -> conv0
I0428 20:16:48.412318   733 net.cpp:124] Setting up conv0
I0428 20:16:48.412348   733 net.cpp:131] Top shape: 100 50 24 24 (2880000)
I0428 20:16:48.412351   733 net.cpp:139] Memory required for data: 11834800
I0428 20:16:48.412360   733 layer_factory.hpp:77] Creating layer pool0
I0428 20:16:48.412366   733 net.cpp:86] Creating Layer pool0
I0428 20:16:48.412369   733 net.cpp:408] pool0 <- conv0
I0428 20:16:48.412374   733 net.cpp:382] pool0 -> pool0
I0428 20:16:48.412427   733 net.cpp:124] Setting up pool0
I0428 20:16:48.412432   733 net.cpp:131] Top shape: 100 50 12 12 (720000)
I0428 20:16:48.412436   733 net.cpp:139] Memory required for data: 14714800
I0428 20:16:48.412439   733 layer_factory.hpp:77] Creating layer conv1
I0428 20:16:48.412464   733 net.cpp:86] Creating Layer conv1
I0428 20:16:48.412468   733 net.cpp:408] conv1 <- pool0
I0428 20:16:48.412473   733 net.cpp:382] conv1 -> conv1
I0428 20:16:48.414153   733 net.cpp:124] Setting up conv1
I0428 20:16:48.414167   733 net.cpp:131] Top shape: 100 5 8 8 (32000)
I0428 20:16:48.414171   733 net.cpp:139] Memory required for data: 14842800
I0428 20:16:48.414180   733 layer_factory.hpp:77] Creating layer pool1
I0428 20:16:48.414187   733 net.cpp:86] Creating Layer pool1
I0428 20:16:48.414191   733 net.cpp:408] pool1 <- conv1
I0428 20:16:48.414196   733 net.cpp:382] pool1 -> pool1
I0428 20:16:48.414232   733 net.cpp:124] Setting up pool1
I0428 20:16:48.414238   733 net.cpp:131] Top shape: 100 5 4 4 (8000)
I0428 20:16:48.414242   733 net.cpp:139] Memory required for data: 14874800
I0428 20:16:48.414257   733 layer_factory.hpp:77] Creating layer ip1
I0428 20:16:48.414263   733 net.cpp:86] Creating Layer ip1
I0428 20:16:48.414265   733 net.cpp:408] ip1 <- pool1
I0428 20:16:48.414276   733 net.cpp:382] ip1 -> ip1
I0428 20:16:48.414402   733 net.cpp:124] Setting up ip1
I0428 20:16:48.414409   733 net.cpp:131] Top shape: 100 50 (5000)
I0428 20:16:48.414433   733 net.cpp:139] Memory required for data: 14894800
I0428 20:16:48.414440   733 layer_factory.hpp:77] Creating layer relu1
I0428 20:16:48.414448   733 net.cpp:86] Creating Layer relu1
I0428 20:16:48.414451   733 net.cpp:408] relu1 <- ip1
I0428 20:16:48.414455   733 net.cpp:369] relu1 -> ip1 (in-place)
I0428 20:16:48.414640   733 net.cpp:124] Setting up relu1
I0428 20:16:48.414650   733 net.cpp:131] Top shape: 100 50 (5000)
I0428 20:16:48.414654   733 net.cpp:139] Memory required for data: 14914800
I0428 20:16:48.414656   733 layer_factory.hpp:77] Creating layer ip2
I0428 20:16:48.414664   733 net.cpp:86] Creating Layer ip2
I0428 20:16:48.414667   733 net.cpp:408] ip2 <- ip1
I0428 20:16:48.414680   733 net.cpp:382] ip2 -> ip2
I0428 20:16:48.414783   733 net.cpp:124] Setting up ip2
I0428 20:16:48.414789   733 net.cpp:131] Top shape: 100 10 (1000)
I0428 20:16:48.414806   733 net.cpp:139] Memory required for data: 14918800
I0428 20:16:48.414811   733 layer_factory.hpp:77] Creating layer relu2
I0428 20:16:48.414816   733 net.cpp:86] Creating Layer relu2
I0428 20:16:48.414819   733 net.cpp:408] relu2 <- ip2
I0428 20:16:48.414824   733 net.cpp:369] relu2 -> ip2 (in-place)
I0428 20:16:48.414971   733 net.cpp:124] Setting up relu2
I0428 20:16:48.414979   733 net.cpp:131] Top shape: 100 10 (1000)
I0428 20:16:48.414983   733 net.cpp:139] Memory required for data: 14922800
I0428 20:16:48.414985   733 layer_factory.hpp:77] Creating layer ip3
I0428 20:16:48.414990   733 net.cpp:86] Creating Layer ip3
I0428 20:16:48.414993   733 net.cpp:408] ip3 <- ip2
I0428 20:16:48.414999   733 net.cpp:382] ip3 -> ip3
I0428 20:16:48.415089   733 net.cpp:124] Setting up ip3
I0428 20:16:48.415096   733 net.cpp:131] Top shape: 100 10 (1000)
I0428 20:16:48.415098   733 net.cpp:139] Memory required for data: 14926800
I0428 20:16:48.415105   733 layer_factory.hpp:77] Creating layer relu3
I0428 20:16:48.415112   733 net.cpp:86] Creating Layer relu3
I0428 20:16:48.415115   733 net.cpp:408] relu3 <- ip3
I0428 20:16:48.415118   733 net.cpp:369] relu3 -> ip3 (in-place)
I0428 20:16:48.415973   733 net.cpp:124] Setting up relu3
I0428 20:16:48.415985   733 net.cpp:131] Top shape: 100 10 (1000)
I0428 20:16:48.415989   733 net.cpp:139] Memory required for data: 14930800
I0428 20:16:48.415993   733 layer_factory.hpp:77] Creating layer ip3_relu3_0_split
I0428 20:16:48.415999   733 net.cpp:86] Creating Layer ip3_relu3_0_split
I0428 20:16:48.416003   733 net.cpp:408] ip3_relu3_0_split <- ip3
I0428 20:16:48.416008   733 net.cpp:382] ip3_relu3_0_split -> ip3_relu3_0_split_0
I0428 20:16:48.416014   733 net.cpp:382] ip3_relu3_0_split -> ip3_relu3_0_split_1
I0428 20:16:48.416059   733 net.cpp:124] Setting up ip3_relu3_0_split
I0428 20:16:48.416064   733 net.cpp:131] Top shape: 100 10 (1000)
I0428 20:16:48.416069   733 net.cpp:131] Top shape: 100 10 (1000)
I0428 20:16:48.416071   733 net.cpp:139] Memory required for data: 14938800
I0428 20:16:48.416075   733 layer_factory.hpp:77] Creating layer accuracy
I0428 20:16:48.416085   733 net.cpp:86] Creating Layer accuracy
I0428 20:16:48.416087   733 net.cpp:408] accuracy <- ip3_relu3_0_split_0
I0428 20:16:48.416091   733 net.cpp:408] accuracy <- label_mnist_1_split_0
I0428 20:16:48.416097   733 net.cpp:382] accuracy -> accuracy
…
