…
I0428 19:37:26.002501 23819 net.cpp:296] The NetState phase (0) differed from the phase (1) specified by a rule in layer mnist
I0428 19:37:26.002517 23819 net.cpp:296] The NetState phase (0) differed from the phase (1) specified by a rule in layer accuracy
I0428 19:37:26.002605 23819 net.cpp:53] Initializing net from parameters: 
name: "LeNet"
state {
  phase: TRAIN
  level: 0
  stage: ""
}
layer {
  name: "mnist"
  type: "Data"
  top: "data"
  top: "label"
  include {
    phase: TRAIN
  }
  transform_param {
    scale: 0.00390625
  }
  data_param {
    source: "examples/mnist/mnist_train_lmdb"
    batch_size: 64
    backend: LMDB
  }
}
layer {
  name: "conv0"
  type: "Convolution"
  bottom: "data"
  top: "conv0"
  param {
    lr_mult: 1
  }
  param {
    lr_mult: 2
  }
  convolution_param {
    num_output: 100
    kernel_size: 5
    stride: 1
    weight_filler {
      type: "xavier"
    }
    bias_filler {
      type: "constant"
    }
  }
}
layer {
  name: "pool0"
  type: "Pooling"
  bottom: "conv0"
  top: "pool0"
  pooling_param {
    pool: MAX
    kernel_size: 2
    stride: 2
  }
}
layer {
  name: "ip1"
  type: "InnerProduct"
  bottom: "pool0"
  top: "ip1"
  param {
    lr_mult: 1
  }
  param {
    lr_mult: 2
  }
  inner_product_param {
    num_output: 25
    weight_filler {
      type: "xavier"
    }
    bias_filler {
      type: "constant"
    }
  }
}
layer {
  name: "relu1"
  type: "ReLU"
  bottom: "ip1"
  top: "ip1"
}
layer {
  name: "ip2"
  type: "InnerProduct"
  bottom: "ip1"
  top: "ip2"
  param {
    lr_mult: 1
  }
  param {
    lr_mult: 2
  }
  inner_product_param {
    num_output: 25
    weight_filler {
      type: "xavier"
    }
    bias_filler {
      type: "constant"
    }
  }
}
layer {
  name: "relu2"
  type: "ReLU"
  bottom: "ip2"
  top: "ip2"
}
layer {
  name: "ip3"
  type: "InnerProduct"
  bottom: "ip2"
  top: "ip3"
  param {
    lr_mult: 1
  }
  param {
    lr_mult: 2
  }
  inner_product_param {
    num_output: 10
    weight_filler {
      type: "xavier"
    }
    bias_filler {
      type: "constant"
    }
  }
}
layer {
  name: "relu3"
  type: "ReLU"
  bottom: "ip3"
  top: "ip3"
}
layer {
  name: "loss"
  type: "SoftmaxWithLoss"
  bottom: "ip3"
  bottom: "label"
  top: "loss"
}
I0428 19:37:26.002681 23819 layer_factory.hpp:77] Creating layer mnist
I0428 19:37:26.002790 23819 db_lmdb.cpp:35] Opened lmdb examples/mnist/mnist_train_lmdb
I0428 19:37:26.002817 23819 net.cpp:86] Creating Layer mnist
I0428 19:37:26.002827 23819 net.cpp:382] mnist -> data
I0428 19:37:26.002853 23819 net.cpp:382] mnist -> label
I0428 19:37:26.003940 23819 data_layer.cpp:45] output data size: 64,1,28,28
I0428 19:37:26.006201 23819 net.cpp:124] Setting up mnist
I0428 19:37:26.006247 23819 net.cpp:131] Top shape: 64 1 28 28 (50176)
I0428 19:37:26.006255 23819 net.cpp:131] Top shape: 64 (64)
I0428 19:37:26.006261 23819 net.cpp:139] Memory required for data: 200960
I0428 19:37:26.006271 23819 layer_factory.hpp:77] Creating layer conv0
I0428 19:37:26.006290 23819 net.cpp:86] Creating Layer conv0
I0428 19:37:26.006299 23819 net.cpp:408] conv0 <- data
I0428 19:37:26.006314 23819 net.cpp:382] conv0 -> conv0
I0428 19:37:26.239244 23819 net.cpp:124] Setting up conv0
I0428 19:37:26.239274 23819 net.cpp:131] Top shape: 64 100 24 24 (3686400)
I0428 19:37:26.239281 23819 net.cpp:139] Memory required for data: 14946560
I0428 19:37:26.239315 23819 layer_factory.hpp:77] Creating layer pool0
I0428 19:37:26.239334 23819 net.cpp:86] Creating Layer pool0
I0428 19:37:26.239354 23819 net.cpp:408] pool0 <- conv0
I0428 19:37:26.239365 23819 net.cpp:382] pool0 -> pool0
I0428 19:37:26.239423 23819 net.cpp:124] Setting up pool0
I0428 19:37:26.239433 23819 net.cpp:131] Top shape: 64 100 12 12 (921600)
I0428 19:37:26.239439 23819 net.cpp:139] Memory required for data: 18632960
I0428 19:37:26.239444 23819 layer_factory.hpp:77] Creating layer ip1
I0428 19:37:26.239456 23819 net.cpp:86] Creating Layer ip1
I0428 19:37:26.239464 23819 net.cpp:408] ip1 <- pool0
I0428 19:37:26.239473 23819 net.cpp:382] ip1 -> ip1
I0428 19:37:26.242471 23819 net.cpp:124] Setting up ip1
I0428 19:37:26.242486 23819 net.cpp:131] Top shape: 64 25 (1600)
I0428 19:37:26.242491 23819 net.cpp:139] Memory required for data: 18639360
I0428 19:37:26.242503 23819 layer_factory.hpp:77] Creating layer relu1
I0428 19:37:26.242514 23819 net.cpp:86] Creating Layer relu1
I0428 19:37:26.242525 23819 net.cpp:408] relu1 <- ip1
I0428 19:37:26.242533 23819 net.cpp:369] relu1 -> ip1 (in-place)
I0428 19:37:26.242713 23819 net.cpp:124] Setting up relu1
I0428 19:37:26.242725 23819 net.cpp:131] Top shape: 64 25 (1600)
I0428 19:37:26.242732 23819 net.cpp:139] Memory required for data: 18645760
I0428 19:37:26.242738 23819 layer_factory.hpp:77] Creating layer ip2
I0428 19:37:26.242748 23819 net.cpp:86] Creating Layer ip2
I0428 19:37:26.242754 23819 net.cpp:408] ip2 <- ip1
I0428 19:37:26.242763 23819 net.cpp:382] ip2 -> ip2
I0428 19:37:26.242863 23819 net.cpp:124] Setting up ip2
I0428 19:37:26.242873 23819 net.cpp:131] Top shape: 64 25 (1600)
I0428 19:37:26.242879 23819 net.cpp:139] Memory required for data: 18652160
I0428 19:37:26.242892 23819 layer_factory.hpp:77] Creating layer relu2
I0428 19:37:26.242916 23819 net.cpp:86] Creating Layer relu2
I0428 19:37:26.242923 23819 net.cpp:408] relu2 <- ip2
I0428 19:37:26.242929 23819 net.cpp:369] relu2 -> ip2 (in-place)
I0428 19:37:26.243669 23819 net.cpp:124] Setting up relu2
I0428 19:37:26.243683 23819 net.cpp:131] Top shape: 64 25 (1600)
I0428 19:37:26.243705 23819 net.cpp:139] Memory required for data: 18658560
I0428 19:37:26.243726 23819 layer_factory.hpp:77] Creating layer ip3
I0428 19:37:26.243736 23819 net.cpp:86] Creating Layer ip3
I0428 19:37:26.243743 23819 net.cpp:408] ip3 <- ip2
I0428 19:37:26.243752 23819 net.cpp:382] ip3 -> ip3
I0428 19:37:26.243854 23819 net.cpp:124] Setting up ip3
I0428 19:37:26.243865 23819 net.cpp:131] Top shape: 64 10 (640)
I0428 19:37:26.243870 23819 net.cpp:139] Memory required for data: 18661120
I0428 19:37:26.243880 23819 layer_factory.hpp:77] Creating layer relu3
I0428 19:37:26.243891 23819 net.cpp:86] Creating Layer relu3
I0428 19:37:26.243898 23819 net.cpp:408] relu3 <- ip3
I0428 19:37:26.243906 23819 net.cpp:369] relu3 -> ip3 (in-place)
I0428 19:37:26.244072 23819 net.cpp:124] Setting up relu3
I0428 19:37:26.244083 23819 net.cpp:131] Top shape: 64 10 (640)
I0428 19:37:26.244088 23819 net.cpp:139] Memory required for data: 18663680
I0428 19:37:26.244094 23819 layer_factory.hpp:77] Creating layer loss
I0428 19:37:26.244104 23819 net.cpp:86] Creating Layer loss
I0428 19:37:26.244109 23819 net.cpp:408] loss <- ip3
I0428 19:37:26.244117 23819 net.cpp:408] loss <- label
I0428 19:37:26.244127 23819 net.cpp:382] loss -> loss
I0428 19:37:26.244146 23819 layer_factory.hpp:77] Creating layer loss
…
I0428 19:37:26.244868 23819 solver.cpp:173] Creating test net (#0) specified by net file: ECE595/mnist/train_test/var_everything2/lenet_train_test258.prototxt
I0428 19:37:26.244920 23819 net.cpp:296] The NetState phase (1) differed from the phase (0) specified by a rule in layer mnist
I0428 19:37:26.245012 23819 net.cpp:53] Initializing net from parameters: 
name: "LeNet"
state {
  phase: TEST
}
layer {
  name: "mnist"
  type: "Data"
  top: "data"
  top: "label"
  include {
    phase: TEST
  }
  transform_param {
    scale: 0.00390625
  }
  data_param {
    source: "examples/mnist/mnist_test_lmdb"
    batch_size: 100
    backend: LMDB
  }
}
layer {
  name: "conv0"
  type: "Convolution"
  bottom: "data"
  top: "conv0"
  param {
    lr_mult: 1
  }
  param {
    lr_mult: 2
  }
  convolution_param {
    num_output: 100
    kernel_size: 5
    stride: 1
    weight_filler {
      type: "xavier"
    }
    bias_filler {
      type: "constant"
    }
  }
}
layer {
  name: "pool0"
  type: "Pooling"
  bottom: "conv0"
  top: "pool0"
  pooling_param {
    pool: MAX
    kernel_size: 2
    stride: 2
  }
}
layer {
  name: "ip1"
  type: "InnerProduct"
  bottom: "pool0"
  top: "ip1"
  param {
    lr_mult: 1
  }
  param {
    lr_mult: 2
  }
  inner_product_param {
    num_output: 25
    weight_filler {
      type: "xavier"
    }
    bias_filler {
      type: "constant"
    }
  }
}
layer {
  name: "relu1"
  type: "ReLU"
  bottom: "ip1"
  top: "ip1"
}
layer {
  name: "ip2"
  type: "InnerProduct"
  bottom: "ip1"
  top: "ip2"
  param {
    lr_mult: 1
  }
  param {
    lr_mult: 2
  }
  inner_product_param {
    num_output: 25
    weight_filler {
      type: "xavier"
    }
    bias_filler {
      type: "constant"
    }
  }
}
layer {
  name: "relu2"
  type: "ReLU"
  bottom: "ip2"
  top: "ip2"
}
layer {
  name: "ip3"
  type: "InnerProduct"
  bottom: "ip2"
  top: "ip3"
  param {
    lr_mult: 1
  }
  param {
    lr_mult: 2
  }
  inner_product_param {
    num_output: 10
    weight_filler {
      type: "xavier"
    }
    bias_filler {
      type: "constant"
    }
  }
}
layer {
  name: "relu3"
  type: "ReLU"
  bottom: "ip3"
  top: "ip3"
}
layer {
  name: "accuracy"
  type: "Accuracy"
  bottom: "ip3"
  bottom: "label"
  top: "accuracy"
  include {
    phase: TEST
  }
}
layer {
  name: "loss"
  type: "SoftmaxWithLoss"
  bottom: "ip3"
  bottom: "label"
  top: "loss"
}
I0428 19:37:26.245115 23819 layer_factory.hpp:77] Creating layer mnist
I0428 19:37:26.245216 23819 db_lmdb.cpp:35] Opened lmdb examples/mnist/mnist_test_lmdb
I0428 19:37:26.245237 23819 net.cpp:86] Creating Layer mnist
I0428 19:37:26.245246 23819 net.cpp:382] mnist -> data
I0428 19:37:26.245259 23819 net.cpp:382] mnist -> label
I0428 19:37:26.245381 23819 data_layer.cpp:45] output data size: 100,1,28,28
I0428 19:37:26.247444 23819 net.cpp:124] Setting up mnist
I0428 19:37:26.247474 23819 net.cpp:131] Top shape: 100 1 28 28 (78400)
I0428 19:37:26.247483 23819 net.cpp:131] Top shape: 100 (100)
I0428 19:37:26.247489 23819 net.cpp:139] Memory required for data: 314000
I0428 19:37:26.247496 23819 layer_factory.hpp:77] Creating layer label_mnist_1_split
I0428 19:37:26.247506 23819 net.cpp:86] Creating Layer label_mnist_1_split
I0428 19:37:26.247527 23819 net.cpp:408] label_mnist_1_split <- label
I0428 19:37:26.247535 23819 net.cpp:382] label_mnist_1_split -> label_mnist_1_split_0
I0428 19:37:26.247547 23819 net.cpp:382] label_mnist_1_split -> label_mnist_1_split_1
I0428 19:37:26.247649 23819 net.cpp:124] Setting up label_mnist_1_split
I0428 19:37:26.247659 23819 net.cpp:131] Top shape: 100 (100)
I0428 19:37:26.247666 23819 net.cpp:131] Top shape: 100 (100)
I0428 19:37:26.247673 23819 net.cpp:139] Memory required for data: 314800
I0428 19:37:26.247704 23819 layer_factory.hpp:77] Creating layer conv0
I0428 19:37:26.247720 23819 net.cpp:86] Creating Layer conv0
I0428 19:37:26.247727 23819 net.cpp:408] conv0 <- data
I0428 19:37:26.247738 23819 net.cpp:382] conv0 -> conv0
I0428 19:37:26.249342 23819 net.cpp:124] Setting up conv0
I0428 19:37:26.249359 23819 net.cpp:131] Top shape: 100 100 24 24 (5760000)
I0428 19:37:26.249366 23819 net.cpp:139] Memory required for data: 23354800
I0428 19:37:26.249382 23819 layer_factory.hpp:77] Creating layer pool0
I0428 19:37:26.249393 23819 net.cpp:86] Creating Layer pool0
I0428 19:37:26.249400 23819 net.cpp:408] pool0 <- conv0
I0428 19:37:26.249409 23819 net.cpp:382] pool0 -> pool0
I0428 19:37:26.249450 23819 net.cpp:124] Setting up pool0
I0428 19:37:26.249460 23819 net.cpp:131] Top shape: 100 100 12 12 (1440000)
I0428 19:37:26.249466 23819 net.cpp:139] Memory required for data: 29114800
I0428 19:37:26.249472 23819 layer_factory.hpp:77] Creating layer ip1
I0428 19:37:26.249483 23819 net.cpp:86] Creating Layer ip1
I0428 19:37:26.249490 23819 net.cpp:408] ip1 <- pool0
I0428 19:37:26.249513 23819 net.cpp:382] ip1 -> ip1
I0428 19:37:26.251899 23819 net.cpp:124] Setting up ip1
I0428 19:37:26.251909 23819 net.cpp:131] Top shape: 100 25 (2500)
I0428 19:37:26.251915 23819 net.cpp:139] Memory required for data: 29124800
I0428 19:37:26.251943 23819 layer_factory.hpp:77] Creating layer relu1
I0428 19:37:26.251953 23819 net.cpp:86] Creating Layer relu1
I0428 19:37:26.251960 23819 net.cpp:408] relu1 <- ip1
I0428 19:37:26.251968 23819 net.cpp:369] relu1 -> ip1 (in-place)
I0428 19:37:26.252131 23819 net.cpp:124] Setting up relu1
I0428 19:37:26.252143 23819 net.cpp:131] Top shape: 100 25 (2500)
I0428 19:37:26.252149 23819 net.cpp:139] Memory required for data: 29134800
I0428 19:37:26.252156 23819 layer_factory.hpp:77] Creating layer ip2
I0428 19:37:26.252166 23819 net.cpp:86] Creating Layer ip2
I0428 19:37:26.252174 23819 net.cpp:408] ip2 <- ip1
I0428 19:37:26.252194 23819 net.cpp:382] ip2 -> ip2
I0428 19:37:26.252315 23819 net.cpp:124] Setting up ip2
I0428 19:37:26.252323 23819 net.cpp:131] Top shape: 100 25 (2500)
I0428 19:37:26.252331 23819 net.cpp:139] Memory required for data: 29144800
I0428 19:37:26.252343 23819 layer_factory.hpp:77] Creating layer relu2
I0428 19:37:26.252351 23819 net.cpp:86] Creating Layer relu2
I0428 19:37:26.252358 23819 net.cpp:408] relu2 <- ip2
I0428 19:37:26.252365 23819 net.cpp:369] relu2 -> ip2 (in-place)
I0428 19:37:26.253224 23819 net.cpp:124] Setting up relu2
I0428 19:37:26.253238 23819 net.cpp:131] Top shape: 100 25 (2500)
I0428 19:37:26.253245 23819 net.cpp:139] Memory required for data: 29154800
I0428 19:37:26.253252 23819 layer_factory.hpp:77] Creating layer ip3
I0428 19:37:26.253264 23819 net.cpp:86] Creating Layer ip3
I0428 19:37:26.253286 23819 net.cpp:408] ip3 <- ip2
I0428 19:37:26.253298 23819 net.cpp:382] ip3 -> ip3
I0428 19:37:26.253410 23819 net.cpp:124] Setting up ip3
I0428 19:37:26.253422 23819 net.cpp:131] Top shape: 100 10 (1000)
I0428 19:37:26.253428 23819 net.cpp:139] Memory required for data: 29158800
I0428 19:37:26.253440 23819 layer_factory.hpp:77] Creating layer relu3
I0428 19:37:26.253450 23819 net.cpp:86] Creating Layer relu3
I0428 19:37:26.253458 23819 net.cpp:408] relu3 <- ip3
I0428 19:37:26.253468 23819 net.cpp:369] relu3 -> ip3 (in-place)
I0428 19:37:26.253674 23819 net.cpp:124] Setting up relu3
I0428 19:37:26.253685 23819 net.cpp:131] Top shape: 100 10 (1000)
I0428 19:37:26.253691 23819 net.cpp:139] Memory required for data: 29162800
I0428 19:37:26.253697 23819 layer_factory.hpp:77] Creating layer ip3_relu3_0_split
I0428 19:37:26.253708 23819 net.cpp:86] Creating Layer ip3_relu3_0_split
I0428 19:37:26.253715 23819 net.cpp:408] ip3_relu3_0_split <- ip3
I0428 19:37:26.253724 23819 net.cpp:382] ip3_relu3_0_split -> ip3_relu3_0_split_0
I0428 19:37:26.253736 23819 net.cpp:382] ip3_relu3_0_split -> ip3_relu3_0_split_1
I0428 19:37:26.253782 23819 net.cpp:124] Setting up ip3_relu3_0_split
I0428 19:37:26.253793 23819 net.cpp:131] Top shape: 100 10 (1000)
I0428 19:37:26.253810 23819 net.cpp:131] Top shape: 100 10 (1000)
I0428 19:37:26.253818 23819 net.cpp:139] Memory required for data: 29170800
I0428 19:37:26.253823 23819 layer_factory.hpp:77] Creating layer accuracy
I0428 19:37:26.253832 23819 net.cpp:86] Creating Layer accuracy
I0428 19:37:26.253839 23819 net.cpp:408] accuracy <- ip3_relu3_0_split_0
I0428 19:37:26.253846 23819 net.cpp:408] accuracy <- label_mnist_1_split_0
I0428 19:37:26.253856 23819 net.cpp:382] accuracy -> accuracy
…
