…
I0428 20:09:36.037916 31657 net.cpp:296] The NetState phase (0) differed from the phase (1) specified by a rule in layer mnist
I0428 20:09:36.037933 31657 net.cpp:296] The NetState phase (0) differed from the phase (1) specified by a rule in layer accuracy
I0428 20:09:36.038012 31657 net.cpp:53] Initializing net from parameters: 
name: "LeNet"
state {
  phase: TRAIN
  level: 0
  stage: ""
}
layer {
  name: "mnist"
  type: "Data"
  top: "data"
  top: "label"
  include {
    phase: TRAIN
  }
  transform_param {
    scale: 0.00390625
  }
  data_param {
    source: "examples/mnist/mnist_train_lmdb"
    batch_size: 64
    backend: LMDB
  }
}
layer {
  name: "conv0"
  type: "Convolution"
  bottom: "data"
  top: "conv0"
  param {
    lr_mult: 1
  }
  param {
    lr_mult: 2
  }
  convolution_param {
    num_output: 25
    kernel_size: 5
    stride: 1
    weight_filler {
      type: "xavier"
    }
    bias_filler {
      type: "constant"
    }
  }
}
layer {
  name: "pool0"
  type: "Pooling"
  bottom: "conv0"
  top: "pool0"
  pooling_param {
    pool: MAX
    kernel_size: 2
    stride: 2
  }
}
layer {
  name: "conv1"
  type: "Convolution"
  bottom: "pool0"
  top: "conv1"
  param {
    lr_mult: 1
  }
  param {
    lr_mult: 2
  }
  convolution_param {
    num_output: 25
    kernel_size: 5
    stride: 1
    weight_filler {
      type: "xavier"
    }
    bias_filler {
      type: "constant"
    }
  }
}
layer {
  name: "pool1"
  type: "Pooling"
  bottom: "conv1"
  top: "pool1"
  pooling_param {
    pool: MAX
    kernel_size: 2
    stride: 2
  }
}
layer {
  name: "ip1"
  type: "InnerProduct"
  bottom: "pool1"
  top: "ip1"
  param {
    lr_mult: 1
  }
  param {
    lr_mult: 2
  }
  inner_product_param {
    num_output: 25
    weight_filler {
      type: "xavier"
    }
    bias_filler {
      type: "constant"
    }
  }
}
layer {
  name: "relu1"
  type: "ReLU"
  bottom: "ip1"
  top: "ip1"
}
layer {
  name: "ip2"
  type: "InnerProduct"
  bottom: "ip1"
  top: "ip2"
  param {
    lr_mult: 1
  }
  param {
    lr_mult: 2
  }
  inner_product_param {
    num_output: 10
    weight_filler {
      type: "xavier"
    }
    bias_filler {
      type: "constant"
    }
  }
}
layer {
  name: "relu2"
  type: "ReLU"
  bottom: "ip2"
  top: "ip2"
}
layer {
  name: "ip3"
  type: "InnerProduct"
  bottom: "ip2"
  top: "ip3"
  param {
    lr_mult: 1
  }
  param {
    lr_mult: 2
  }
  inner_product_param {
    num_output: 10
    weight_filler {
      type: "xavier"
    }
    bias_filler {
      type: "constant"
    }
  }
}
layer {
  name: "relu3"
  type: "ReLU"
  bottom: "ip3"
  top: "ip3"
}
layer {
  name: "loss"
  type: "SoftmaxWithLoss"
  bottom: "ip3"
  bottom: "label"
  top: "loss"
}
I0428 20:09:36.038077 31657 layer_factory.hpp:77] Creating layer mnist
I0428 20:09:36.038157 31657 db_lmdb.cpp:35] Opened lmdb examples/mnist/mnist_train_lmdb
I0428 20:09:36.038177 31657 net.cpp:86] Creating Layer mnist
I0428 20:09:36.038185 31657 net.cpp:382] mnist -> data
I0428 20:09:36.038204 31657 net.cpp:382] mnist -> label
I0428 20:09:36.039075 31657 data_layer.cpp:45] output data size: 64,1,28,28
I0428 20:09:36.041198 31657 net.cpp:124] Setting up mnist
I0428 20:09:36.041229 31657 net.cpp:131] Top shape: 64 1 28 28 (50176)
I0428 20:09:36.041234 31657 net.cpp:131] Top shape: 64 (64)
I0428 20:09:36.041236 31657 net.cpp:139] Memory required for data: 200960
I0428 20:09:36.041241 31657 layer_factory.hpp:77] Creating layer conv0
I0428 20:09:36.041256 31657 net.cpp:86] Creating Layer conv0
I0428 20:09:36.041273 31657 net.cpp:408] conv0 <- data
I0428 20:09:36.041285 31657 net.cpp:382] conv0 -> conv0
I0428 20:09:36.276214 31657 net.cpp:124] Setting up conv0
I0428 20:09:36.276257 31657 net.cpp:131] Top shape: 64 25 24 24 (921600)
I0428 20:09:36.276262 31657 net.cpp:139] Memory required for data: 3887360
I0428 20:09:36.276276 31657 layer_factory.hpp:77] Creating layer pool0
I0428 20:09:36.276305 31657 net.cpp:86] Creating Layer pool0
I0428 20:09:36.276312 31657 net.cpp:408] pool0 <- conv0
I0428 20:09:36.276334 31657 net.cpp:382] pool0 -> pool0
I0428 20:09:36.276396 31657 net.cpp:124] Setting up pool0
I0428 20:09:36.276404 31657 net.cpp:131] Top shape: 64 25 12 12 (230400)
I0428 20:09:36.276423 31657 net.cpp:139] Memory required for data: 4808960
I0428 20:09:36.276427 31657 layer_factory.hpp:77] Creating layer conv1
I0428 20:09:36.276438 31657 net.cpp:86] Creating Layer conv1
I0428 20:09:36.276443 31657 net.cpp:408] conv1 <- pool0
I0428 20:09:36.276448 31657 net.cpp:382] conv1 -> conv1
I0428 20:09:36.279578 31657 net.cpp:124] Setting up conv1
I0428 20:09:36.279608 31657 net.cpp:131] Top shape: 64 25 8 8 (102400)
I0428 20:09:36.279613 31657 net.cpp:139] Memory required for data: 5218560
I0428 20:09:36.279636 31657 layer_factory.hpp:77] Creating layer pool1
I0428 20:09:36.279644 31657 net.cpp:86] Creating Layer pool1
I0428 20:09:36.279649 31657 net.cpp:408] pool1 <- conv1
I0428 20:09:36.279654 31657 net.cpp:382] pool1 -> pool1
I0428 20:09:36.279708 31657 net.cpp:124] Setting up pool1
I0428 20:09:36.279717 31657 net.cpp:131] Top shape: 64 25 4 4 (25600)
I0428 20:09:36.279721 31657 net.cpp:139] Memory required for data: 5320960
I0428 20:09:36.279723 31657 layer_factory.hpp:77] Creating layer ip1
I0428 20:09:36.279731 31657 net.cpp:86] Creating Layer ip1
I0428 20:09:36.279734 31657 net.cpp:408] ip1 <- pool1
I0428 20:09:36.279739 31657 net.cpp:382] ip1 -> ip1
I0428 20:09:36.279901 31657 net.cpp:124] Setting up ip1
I0428 20:09:36.279909 31657 net.cpp:131] Top shape: 64 25 (1600)
I0428 20:09:36.279927 31657 net.cpp:139] Memory required for data: 5327360
I0428 20:09:36.279935 31657 layer_factory.hpp:77] Creating layer relu1
I0428 20:09:36.279943 31657 net.cpp:86] Creating Layer relu1
I0428 20:09:36.279947 31657 net.cpp:408] relu1 <- ip1
I0428 20:09:36.279952 31657 net.cpp:369] relu1 -> ip1 (in-place)
I0428 20:09:36.280118 31657 net.cpp:124] Setting up relu1
I0428 20:09:36.280128 31657 net.cpp:131] Top shape: 64 25 (1600)
I0428 20:09:36.280130 31657 net.cpp:139] Memory required for data: 5333760
I0428 20:09:36.280134 31657 layer_factory.hpp:77] Creating layer ip2
I0428 20:09:36.280140 31657 net.cpp:86] Creating Layer ip2
I0428 20:09:36.280145 31657 net.cpp:408] ip2 <- ip1
I0428 20:09:36.280150 31657 net.cpp:382] ip2 -> ip2
I0428 20:09:36.280258 31657 net.cpp:124] Setting up ip2
I0428 20:09:36.280267 31657 net.cpp:131] Top shape: 64 10 (640)
I0428 20:09:36.280269 31657 net.cpp:139] Memory required for data: 5336320
I0428 20:09:36.280275 31657 layer_factory.hpp:77] Creating layer relu2
I0428 20:09:36.280280 31657 net.cpp:86] Creating Layer relu2
I0428 20:09:36.280284 31657 net.cpp:408] relu2 <- ip2
I0428 20:09:36.280288 31657 net.cpp:369] relu2 -> ip2 (in-place)
I0428 20:09:36.281046 31657 net.cpp:124] Setting up relu2
I0428 20:09:36.281059 31657 net.cpp:131] Top shape: 64 10 (640)
I0428 20:09:36.281064 31657 net.cpp:139] Memory required for data: 5338880
I0428 20:09:36.281067 31657 layer_factory.hpp:77] Creating layer ip3
I0428 20:09:36.281075 31657 net.cpp:86] Creating Layer ip3
I0428 20:09:36.281082 31657 net.cpp:408] ip3 <- ip2
I0428 20:09:36.281088 31657 net.cpp:382] ip3 -> ip3
I0428 20:09:36.281193 31657 net.cpp:124] Setting up ip3
I0428 20:09:36.281201 31657 net.cpp:131] Top shape: 64 10 (640)
I0428 20:09:36.281204 31657 net.cpp:139] Memory required for data: 5341440
I0428 20:09:36.281213 31657 layer_factory.hpp:77] Creating layer relu3
I0428 20:09:36.281221 31657 net.cpp:86] Creating Layer relu3
I0428 20:09:36.281240 31657 net.cpp:408] relu3 <- ip3
I0428 20:09:36.281245 31657 net.cpp:369] relu3 -> ip3 (in-place)
I0428 20:09:36.281425 31657 net.cpp:124] Setting up relu3
I0428 20:09:36.281448 31657 net.cpp:131] Top shape: 64 10 (640)
I0428 20:09:36.281451 31657 net.cpp:139] Memory required for data: 5344000
I0428 20:09:36.281455 31657 layer_factory.hpp:77] Creating layer loss
I0428 20:09:36.281461 31657 net.cpp:86] Creating Layer loss
I0428 20:09:36.281464 31657 net.cpp:408] loss <- ip3
I0428 20:09:36.281469 31657 net.cpp:408] loss <- label
I0428 20:09:36.281476 31657 net.cpp:382] loss -> loss
I0428 20:09:36.281505 31657 layer_factory.hpp:77] Creating layer loss
…
I0428 20:09:36.282254 31657 solver.cpp:173] Creating test net (#0) specified by net file: ECE595/mnist/train_test/var_everything2/lenet_train_test1113.prototxt
I0428 20:09:36.282299 31657 net.cpp:296] The NetState phase (1) differed from the phase (0) specified by a rule in layer mnist
I0428 20:09:36.282392 31657 net.cpp:53] Initializing net from parameters: 
name: "LeNet"
state {
  phase: TEST
}
layer {
  name: "mnist"
  type: "Data"
  top: "data"
  top: "label"
  include {
    phase: TEST
  }
  transform_param {
    scale: 0.00390625
  }
  data_param {
    source: "examples/mnist/mnist_test_lmdb"
    batch_size: 100
    backend: LMDB
  }
}
layer {
  name: "conv0"
  type: "Convolution"
  bottom: "data"
  top: "conv0"
  param {
    lr_mult: 1
  }
  param {
    lr_mult: 2
  }
  convolution_param {
    num_output: 25
    kernel_size: 5
    stride: 1
    weight_filler {
      type: "xavier"
    }
    bias_filler {
      type: "constant"
    }
  }
}
layer {
  name: "pool0"
  type: "Pooling"
  bottom: "conv0"
  top: "pool0"
  pooling_param {
    pool: MAX
    kernel_size: 2
    stride: 2
  }
}
layer {
  name: "conv1"
  type: "Convolution"
  bottom: "pool0"
  top: "conv1"
  param {
    lr_mult: 1
  }
  param {
    lr_mult: 2
  }
  convolution_param {
    num_output: 25
    kernel_size: 5
    stride: 1
    weight_filler {
      type: "xavier"
    }
    bias_filler {
      type: "constant"
    }
  }
}
layer {
  name: "pool1"
  type: "Pooling"
  bottom: "conv1"
  top: "pool1"
  pooling_param {
    pool: MAX
    kernel_size: 2
    stride: 2
  }
}
layer {
  name: "ip1"
  type: "InnerProduct"
  bottom: "pool1"
  top: "ip1"
  param {
    lr_mult: 1
  }
  param {
    lr_mult: 2
  }
  inner_product_param {
    num_output: 25
    weight_filler {
      type: "xavier"
    }
    bias_filler {
      type: "constant"
    }
  }
}
layer {
  name: "relu1"
  type: "ReLU"
  bottom: "ip1"
  top: "ip1"
}
layer {
  name: "ip2"
  type: "InnerProduct"
  bottom: "ip1"
  top: "ip2"
  param {
    lr_mult: 1
  }
  param {
    lr_mult: 2
  }
  inner_product_param {
    num_output: 10
    weight_filler {
      type: "xavier"
    }
    bias_filler {
      type: "constant"
    }
  }
}
layer {
  name: "relu2"
  type: "ReLU"
  bottom: "ip2"
  top: "ip2"
}
layer {
  name: "ip3"
  type: "InnerProduct"
  bottom: "ip2"
  top: "ip3"
  param {
    lr_mult: 1
  }
  param {
    lr_mult: 2
  }
  inner_product_param {
    num_output: 10
    weight_filler {
      type: "xavier"
    }
    bias_filler {
      type: "constant"
    }
  }
}
layer {
  name: "relu3"
  type: "ReLU"
  bottom: "ip3"
  top: "ip3"
}
layer {
  name: "accuracy"
  type: "Accuracy"
  bottom: "ip3"
  bottom: "label"
  top: "accuracy"
  include {
    phase: TEST
  }
}
layer {
  name: "loss"
  type: "SoftmaxWithLoss"
  bottom: "ip3"
  bottom: "label"
  top: "loss"
}
I0428 20:09:36.282474 31657 layer_factory.hpp:77] Creating layer mnist
I0428 20:09:36.282519 31657 db_lmdb.cpp:35] Opened lmdb examples/mnist/mnist_test_lmdb
I0428 20:09:36.282534 31657 net.cpp:86] Creating Layer mnist
I0428 20:09:36.282541 31657 net.cpp:382] mnist -> data
I0428 20:09:36.282551 31657 net.cpp:382] mnist -> label
I0428 20:09:36.282650 31657 data_layer.cpp:45] output data size: 100,1,28,28
I0428 20:09:36.285058 31657 net.cpp:124] Setting up mnist
I0428 20:09:36.285073 31657 net.cpp:131] Top shape: 100 1 28 28 (78400)
I0428 20:09:36.285079 31657 net.cpp:131] Top shape: 100 (100)
I0428 20:09:36.285082 31657 net.cpp:139] Memory required for data: 314000
I0428 20:09:36.285086 31657 layer_factory.hpp:77] Creating layer label_mnist_1_split
I0428 20:09:36.285094 31657 net.cpp:86] Creating Layer label_mnist_1_split
I0428 20:09:36.285099 31657 net.cpp:408] label_mnist_1_split <- label
I0428 20:09:36.285104 31657 net.cpp:382] label_mnist_1_split -> label_mnist_1_split_0
I0428 20:09:36.285111 31657 net.cpp:382] label_mnist_1_split -> label_mnist_1_split_1
I0428 20:09:36.285198 31657 net.cpp:124] Setting up label_mnist_1_split
I0428 20:09:36.285207 31657 net.cpp:131] Top shape: 100 (100)
I0428 20:09:36.285210 31657 net.cpp:131] Top shape: 100 (100)
I0428 20:09:36.285215 31657 net.cpp:139] Memory required for data: 314800
I0428 20:09:36.285219 31657 layer_factory.hpp:77] Creating layer conv0
I0428 20:09:36.285228 31657 net.cpp:86] Creating Layer conv0
I0428 20:09:36.285233 31657 net.cpp:408] conv0 <- data
I0428 20:09:36.285238 31657 net.cpp:382] conv0 -> conv0
I0428 20:09:36.286945 31657 net.cpp:124] Setting up conv0
I0428 20:09:36.286974 31657 net.cpp:131] Top shape: 100 25 24 24 (1440000)
I0428 20:09:36.286978 31657 net.cpp:139] Memory required for data: 6074800
I0428 20:09:36.286988 31657 layer_factory.hpp:77] Creating layer pool0
I0428 20:09:36.286993 31657 net.cpp:86] Creating Layer pool0
I0428 20:09:36.286998 31657 net.cpp:408] pool0 <- conv0
I0428 20:09:36.287003 31657 net.cpp:382] pool0 -> pool0
I0428 20:09:36.287039 31657 net.cpp:124] Setting up pool0
I0428 20:09:36.287045 31657 net.cpp:131] Top shape: 100 25 12 12 (360000)
I0428 20:09:36.287048 31657 net.cpp:139] Memory required for data: 7514800
I0428 20:09:36.287051 31657 layer_factory.hpp:77] Creating layer conv1
I0428 20:09:36.287060 31657 net.cpp:86] Creating Layer conv1
I0428 20:09:36.287065 31657 net.cpp:408] conv1 <- pool0
I0428 20:09:36.287070 31657 net.cpp:382] conv1 -> conv1
I0428 20:09:36.289439 31657 net.cpp:124] Setting up conv1
I0428 20:09:36.289453 31657 net.cpp:131] Top shape: 100 25 8 8 (160000)
I0428 20:09:36.289476 31657 net.cpp:139] Memory required for data: 8154800
I0428 20:09:36.289485 31657 layer_factory.hpp:77] Creating layer pool1
I0428 20:09:36.289492 31657 net.cpp:86] Creating Layer pool1
I0428 20:09:36.289496 31657 net.cpp:408] pool1 <- conv1
I0428 20:09:36.289501 31657 net.cpp:382] pool1 -> pool1
I0428 20:09:36.289556 31657 net.cpp:124] Setting up pool1
I0428 20:09:36.289564 31657 net.cpp:131] Top shape: 100 25 4 4 (40000)
I0428 20:09:36.289568 31657 net.cpp:139] Memory required for data: 8314800
I0428 20:09:36.289572 31657 layer_factory.hpp:77] Creating layer ip1
I0428 20:09:36.289578 31657 net.cpp:86] Creating Layer ip1
I0428 20:09:36.289582 31657 net.cpp:408] ip1 <- pool1
I0428 20:09:36.289587 31657 net.cpp:382] ip1 -> ip1
I0428 20:09:36.289805 31657 net.cpp:124] Setting up ip1
I0428 20:09:36.289813 31657 net.cpp:131] Top shape: 100 25 (2500)
I0428 20:09:36.289836 31657 net.cpp:139] Memory required for data: 8324800
I0428 20:09:36.289845 31657 layer_factory.hpp:77] Creating layer relu1
I0428 20:09:36.289850 31657 net.cpp:86] Creating Layer relu1
I0428 20:09:36.289855 31657 net.cpp:408] relu1 <- ip1
I0428 20:09:36.289860 31657 net.cpp:369] relu1 -> ip1 (in-place)
I0428 20:09:36.290086 31657 net.cpp:124] Setting up relu1
I0428 20:09:36.290097 31657 net.cpp:131] Top shape: 100 25 (2500)
I0428 20:09:36.290102 31657 net.cpp:139] Memory required for data: 8334800
I0428 20:09:36.290105 31657 layer_factory.hpp:77] Creating layer ip2
I0428 20:09:36.290129 31657 net.cpp:86] Creating Layer ip2
I0428 20:09:36.290143 31657 net.cpp:408] ip2 <- ip1
I0428 20:09:36.290148 31657 net.cpp:382] ip2 -> ip2
I0428 20:09:36.290254 31657 net.cpp:124] Setting up ip2
I0428 20:09:36.290262 31657 net.cpp:131] Top shape: 100 10 (1000)
I0428 20:09:36.290266 31657 net.cpp:139] Memory required for data: 8338800
I0428 20:09:36.290271 31657 layer_factory.hpp:77] Creating layer relu2
I0428 20:09:36.290277 31657 net.cpp:86] Creating Layer relu2
I0428 20:09:36.290279 31657 net.cpp:408] relu2 <- ip2
I0428 20:09:36.290284 31657 net.cpp:369] relu2 -> ip2 (in-place)
I0428 20:09:36.290462 31657 net.cpp:124] Setting up relu2
I0428 20:09:36.290470 31657 net.cpp:131] Top shape: 100 10 (1000)
I0428 20:09:36.290473 31657 net.cpp:139] Memory required for data: 8342800
I0428 20:09:36.290477 31657 layer_factory.hpp:77] Creating layer ip3
I0428 20:09:36.290482 31657 net.cpp:86] Creating Layer ip3
I0428 20:09:36.290503 31657 net.cpp:408] ip3 <- ip2
I0428 20:09:36.290518 31657 net.cpp:382] ip3 -> ip3
I0428 20:09:36.290632 31657 net.cpp:124] Setting up ip3
I0428 20:09:36.290640 31657 net.cpp:131] Top shape: 100 10 (1000)
I0428 20:09:36.290644 31657 net.cpp:139] Memory required for data: 8346800
I0428 20:09:36.290653 31657 layer_factory.hpp:77] Creating layer relu3
I0428 20:09:36.290659 31657 net.cpp:86] Creating Layer relu3
I0428 20:09:36.290663 31657 net.cpp:408] relu3 <- ip3
I0428 20:09:36.290668 31657 net.cpp:369] relu3 -> ip3 (in-place)
I0428 20:09:36.291503 31657 net.cpp:124] Setting up relu3
I0428 20:09:36.291514 31657 net.cpp:131] Top shape: 100 10 (1000)
I0428 20:09:36.291529 31657 net.cpp:139] Memory required for data: 8350800
I0428 20:09:36.291533 31657 layer_factory.hpp:77] Creating layer ip3_relu3_0_split
I0428 20:09:36.291538 31657 net.cpp:86] Creating Layer ip3_relu3_0_split
I0428 20:09:36.291543 31657 net.cpp:408] ip3_relu3_0_split <- ip3
I0428 20:09:36.291548 31657 net.cpp:382] ip3_relu3_0_split -> ip3_relu3_0_split_0
I0428 20:09:36.291554 31657 net.cpp:382] ip3_relu3_0_split -> ip3_relu3_0_split_1
I0428 20:09:36.291656 31657 net.cpp:124] Setting up ip3_relu3_0_split
I0428 20:09:36.291663 31657 net.cpp:131] Top shape: 100 10 (1000)
I0428 20:09:36.291667 31657 net.cpp:131] Top shape: 100 10 (1000)
I0428 20:09:36.291671 31657 net.cpp:139] Memory required for data: 8358800
I0428 20:09:36.291673 31657 layer_factory.hpp:77] Creating layer accuracy
I0428 20:09:36.291684 31657 net.cpp:86] Creating Layer accuracy
I0428 20:09:36.291690 31657 net.cpp:408] accuracy <- ip3_relu3_0_split_0
I0428 20:09:36.291694 31657 net.cpp:408] accuracy <- label_mnist_1_split_0
I0428 20:09:36.291700 31657 net.cpp:382] accuracy -> accuracy
…
