…
I0428 19:32:48.967991 22963 net.cpp:296] The NetState phase (0) differed from the phase (1) specified by a rule in layer mnist
I0428 19:32:48.968013 22963 net.cpp:296] The NetState phase (0) differed from the phase (1) specified by a rule in layer accuracy
I0428 19:32:48.968101 22963 net.cpp:53] Initializing net from parameters: 
name: "LeNet"
state {
  phase: TRAIN
  level: 0
  stage: ""
}
layer {
  name: "mnist"
  type: "Data"
  top: "data"
  top: "label"
  include {
    phase: TRAIN
  }
  transform_param {
    scale: 0.00390625
  }
  data_param {
    source: "examples/mnist/mnist_train_lmdb"
    batch_size: 64
    backend: LMDB
  }
}
layer {
  name: "conv0"
  type: "Convolution"
  bottom: "data"
  top: "conv0"
  param {
    lr_mult: 1
  }
  param {
    lr_mult: 2
  }
  convolution_param {
    num_output: 25
    kernel_size: 5
    stride: 1
    weight_filler {
      type: "xavier"
    }
    bias_filler {
      type: "constant"
    }
  }
}
layer {
  name: "pool0"
  type: "Pooling"
  bottom: "conv0"
  top: "pool0"
  pooling_param {
    pool: MAX
    kernel_size: 2
    stride: 2
  }
}
layer {
  name: "ip1"
  type: "InnerProduct"
  bottom: "pool0"
  top: "ip1"
  param {
    lr_mult: 1
  }
  param {
    lr_mult: 2
  }
  inner_product_param {
    num_output: 25
    weight_filler {
      type: "xavier"
    }
    bias_filler {
      type: "constant"
    }
  }
}
layer {
  name: "relu1"
  type: "ReLU"
  bottom: "ip1"
  top: "ip1"
}
layer {
  name: "ip2"
  type: "InnerProduct"
  bottom: "ip1"
  top: "ip2"
  param {
    lr_mult: 1
  }
  param {
    lr_mult: 2
  }
  inner_product_param {
    num_output: 10
    weight_filler {
      type: "xavier"
    }
    bias_filler {
      type: "constant"
    }
  }
}
layer {
  name: "relu2"
  type: "ReLU"
  bottom: "ip2"
  top: "ip2"
}
layer {
  name: "loss"
  type: "SoftmaxWithLoss"
  bottom: "ip2"
  bottom: "label"
  top: "loss"
}
I0428 19:32:48.968194 22963 layer_factory.hpp:77] Creating layer mnist
I0428 19:32:48.968333 22963 db_lmdb.cpp:35] Opened lmdb examples/mnist/mnist_train_lmdb
I0428 19:32:48.968367 22963 net.cpp:86] Creating Layer mnist
I0428 19:32:48.968380 22963 net.cpp:382] mnist -> data
I0428 19:32:48.968412 22963 net.cpp:382] mnist -> label
I0428 19:32:48.969619 22963 data_layer.cpp:45] output data size: 64,1,28,28
I0428 19:32:48.972110 22963 net.cpp:124] Setting up mnist
I0428 19:32:48.972131 22963 net.cpp:131] Top shape: 64 1 28 28 (50176)
I0428 19:32:48.972142 22963 net.cpp:131] Top shape: 64 (64)
I0428 19:32:48.972149 22963 net.cpp:139] Memory required for data: 200960
I0428 19:32:48.972162 22963 layer_factory.hpp:77] Creating layer conv0
I0428 19:32:48.972185 22963 net.cpp:86] Creating Layer conv0
I0428 19:32:48.972198 22963 net.cpp:408] conv0 <- data
I0428 19:32:48.972216 22963 net.cpp:382] conv0 -> conv0
I0428 19:32:49.260727 22963 net.cpp:124] Setting up conv0
I0428 19:32:49.260761 22963 net.cpp:131] Top shape: 64 25 24 24 (921600)
I0428 19:32:49.260767 22963 net.cpp:139] Memory required for data: 3887360
I0428 19:32:49.260792 22963 layer_factory.hpp:77] Creating layer pool0
I0428 19:32:49.260818 22963 net.cpp:86] Creating Layer pool0
I0428 19:32:49.260828 22963 net.cpp:408] pool0 <- conv0
I0428 19:32:49.260839 22963 net.cpp:382] pool0 -> pool0
I0428 19:32:49.260905 22963 net.cpp:124] Setting up pool0
I0428 19:32:49.260915 22963 net.cpp:131] Top shape: 64 25 12 12 (230400)
I0428 19:32:49.260922 22963 net.cpp:139] Memory required for data: 4808960
I0428 19:32:49.260948 22963 layer_factory.hpp:77] Creating layer ip1
I0428 19:32:49.260963 22963 net.cpp:86] Creating Layer ip1
I0428 19:32:49.260972 22963 net.cpp:408] ip1 <- pool0
I0428 19:32:49.260982 22963 net.cpp:382] ip1 -> ip1
I0428 19:32:49.262573 22963 net.cpp:124] Setting up ip1
I0428 19:32:49.262589 22963 net.cpp:131] Top shape: 64 25 (1600)
I0428 19:32:49.262598 22963 net.cpp:139] Memory required for data: 4815360
I0428 19:32:49.262612 22963 layer_factory.hpp:77] Creating layer relu1
I0428 19:32:49.262625 22963 net.cpp:86] Creating Layer relu1
I0428 19:32:49.262640 22963 net.cpp:408] relu1 <- ip1
I0428 19:32:49.262650 22963 net.cpp:369] relu1 -> ip1 (in-place)
I0428 19:32:49.262843 22963 net.cpp:124] Setting up relu1
I0428 19:32:49.262856 22963 net.cpp:131] Top shape: 64 25 (1600)
I0428 19:32:49.262861 22963 net.cpp:139] Memory required for data: 4821760
I0428 19:32:49.262868 22963 layer_factory.hpp:77] Creating layer ip2
I0428 19:32:49.262881 22963 net.cpp:86] Creating Layer ip2
I0428 19:32:49.262890 22963 net.cpp:408] ip2 <- ip1
I0428 19:32:49.262902 22963 net.cpp:382] ip2 -> ip2
I0428 19:32:49.263013 22963 net.cpp:124] Setting up ip2
I0428 19:32:49.263025 22963 net.cpp:131] Top shape: 64 10 (640)
I0428 19:32:49.263031 22963 net.cpp:139] Memory required for data: 4824320
I0428 19:32:49.263046 22963 layer_factory.hpp:77] Creating layer relu2
I0428 19:32:49.263057 22963 net.cpp:86] Creating Layer relu2
I0428 19:32:49.263064 22963 net.cpp:408] relu2 <- ip2
I0428 19:32:49.263073 22963 net.cpp:369] relu2 -> ip2 (in-place)
I0428 19:32:49.263870 22963 net.cpp:124] Setting up relu2
I0428 19:32:49.263886 22963 net.cpp:131] Top shape: 64 10 (640)
I0428 19:32:49.263893 22963 net.cpp:139] Memory required for data: 4826880
I0428 19:32:49.263901 22963 layer_factory.hpp:77] Creating layer loss
I0428 19:32:49.263919 22963 net.cpp:86] Creating Layer loss
I0428 19:32:49.263928 22963 net.cpp:408] loss <- ip2
I0428 19:32:49.263937 22963 net.cpp:408] loss <- label
I0428 19:32:49.263948 22963 net.cpp:382] loss -> loss
I0428 19:32:49.263972 22963 layer_factory.hpp:77] Creating layer loss
…
I0428 19:32:49.264628 22963 solver.cpp:173] Creating test net (#0) specified by net file: ECE595/mnist/train_test/var_everything2/lenet_train_test163.prototxt
I0428 19:32:49.264663 22963 net.cpp:296] The NetState phase (1) differed from the phase (0) specified by a rule in layer mnist
I0428 19:32:49.264752 22963 net.cpp:53] Initializing net from parameters: 
name: "LeNet"
state {
  phase: TEST
}
layer {
  name: "mnist"
  type: "Data"
  top: "data"
  top: "label"
  include {
    phase: TEST
  }
  transform_param {
    scale: 0.00390625
  }
  data_param {
    source: "examples/mnist/mnist_test_lmdb"
    batch_size: 100
    backend: LMDB
  }
}
layer {
  name: "conv0"
  type: "Convolution"
  bottom: "data"
  top: "conv0"
  param {
    lr_mult: 1
  }
  param {
    lr_mult: 2
  }
  convolution_param {
    num_output: 25
    kernel_size: 5
    stride: 1
    weight_filler {
      type: "xavier"
    }
    bias_filler {
      type: "constant"
    }
  }
}
layer {
  name: "pool0"
  type: "Pooling"
  bottom: "conv0"
  top: "pool0"
  pooling_param {
    pool: MAX
    kernel_size: 2
    stride: 2
  }
}
layer {
  name: "ip1"
  type: "InnerProduct"
  bottom: "pool0"
  top: "ip1"
  param {
    lr_mult: 1
  }
  param {
    lr_mult: 2
  }
  inner_product_param {
    num_output: 25
    weight_filler {
      type: "xavier"
    }
    bias_filler {
      type: "constant"
    }
  }
}
layer {
  name: "relu1"
  type: "ReLU"
  bottom: "ip1"
  top: "ip1"
}
layer {
  name: "ip2"
  type: "InnerProduct"
  bottom: "ip1"
  top: "ip2"
  param {
    lr_mult: 1
  }
  param {
    lr_mult: 2
  }
  inner_product_param {
    num_output: 10
    weight_filler {
      type: "xavier"
    }
    bias_filler {
      type: "constant"
    }
  }
}
layer {
  name: "relu2"
  type: "ReLU"
  bottom: "ip2"
  top: "ip2"
}
layer {
  name: "accuracy"
  type: "Accuracy"
  bottom: "ip2"
  bottom: "label"
  top: "accuracy"
  include {
    phase: TEST
  }
}
layer {
  name: "loss"
  type: "SoftmaxWithLoss"
  bottom: "ip2"
  bottom: "label"
  top: "loss"
}
I0428 19:32:49.264881 22963 layer_factory.hpp:77] Creating layer mnist
I0428 19:32:49.264961 22963 db_lmdb.cpp:35] Opened lmdb examples/mnist/mnist_test_lmdb
I0428 19:32:49.264986 22963 net.cpp:86] Creating Layer mnist
I0428 19:32:49.264995 22963 net.cpp:382] mnist -> data
I0428 19:32:49.265009 22963 net.cpp:382] mnist -> label
I0428 19:32:49.265137 22963 data_layer.cpp:45] output data size: 100,1,28,28
I0428 19:32:49.266347 22963 net.cpp:124] Setting up mnist
I0428 19:32:49.266363 22963 net.cpp:131] Top shape: 100 1 28 28 (78400)
I0428 19:32:49.266373 22963 net.cpp:131] Top shape: 100 (100)
I0428 19:32:49.266379 22963 net.cpp:139] Memory required for data: 314000
I0428 19:32:49.266387 22963 layer_factory.hpp:77] Creating layer label_mnist_1_split
I0428 19:32:49.266398 22963 net.cpp:86] Creating Layer label_mnist_1_split
I0428 19:32:49.266405 22963 net.cpp:408] label_mnist_1_split <- label
I0428 19:32:49.266415 22963 net.cpp:382] label_mnist_1_split -> label_mnist_1_split_0
I0428 19:32:49.266430 22963 net.cpp:382] label_mnist_1_split -> label_mnist_1_split_1
I0428 19:32:49.266510 22963 net.cpp:124] Setting up label_mnist_1_split
I0428 19:32:49.266520 22963 net.cpp:131] Top shape: 100 (100)
I0428 19:32:49.266528 22963 net.cpp:131] Top shape: 100 (100)
I0428 19:32:49.266535 22963 net.cpp:139] Memory required for data: 314800
I0428 19:32:49.266541 22963 layer_factory.hpp:77] Creating layer conv0
I0428 19:32:49.266557 22963 net.cpp:86] Creating Layer conv0
I0428 19:32:49.266566 22963 net.cpp:408] conv0 <- data
I0428 19:32:49.266577 22963 net.cpp:382] conv0 -> conv0
I0428 19:32:49.268162 22963 net.cpp:124] Setting up conv0
I0428 19:32:49.268180 22963 net.cpp:131] Top shape: 100 25 24 24 (1440000)
I0428 19:32:49.268187 22963 net.cpp:139] Memory required for data: 6074800
I0428 19:32:49.268203 22963 layer_factory.hpp:77] Creating layer pool0
I0428 19:32:49.268215 22963 net.cpp:86] Creating Layer pool0
I0428 19:32:49.268223 22963 net.cpp:408] pool0 <- conv0
I0428 19:32:49.268231 22963 net.cpp:382] pool0 -> pool0
I0428 19:32:49.268278 22963 net.cpp:124] Setting up pool0
I0428 19:32:49.268288 22963 net.cpp:131] Top shape: 100 25 12 12 (360000)
I0428 19:32:49.268296 22963 net.cpp:139] Memory required for data: 7514800
I0428 19:32:49.268302 22963 layer_factory.hpp:77] Creating layer ip1
I0428 19:32:49.268314 22963 net.cpp:86] Creating Layer ip1
I0428 19:32:49.268322 22963 net.cpp:408] ip1 <- pool0
I0428 19:32:49.268332 22963 net.cpp:382] ip1 -> ip1
I0428 19:32:49.269032 22963 net.cpp:124] Setting up ip1
I0428 19:32:49.269045 22963 net.cpp:131] Top shape: 100 25 (2500)
I0428 19:32:49.269052 22963 net.cpp:139] Memory required for data: 7524800
I0428 19:32:49.269067 22963 layer_factory.hpp:77] Creating layer relu1
I0428 19:32:49.269076 22963 net.cpp:86] Creating Layer relu1
I0428 19:32:49.269084 22963 net.cpp:408] relu1 <- ip1
I0428 19:32:49.269094 22963 net.cpp:369] relu1 -> ip1 (in-place)
I0428 19:32:49.269285 22963 net.cpp:124] Setting up relu1
I0428 19:32:49.269297 22963 net.cpp:131] Top shape: 100 25 (2500)
I0428 19:32:49.269316 22963 net.cpp:139] Memory required for data: 7534800
I0428 19:32:49.269325 22963 layer_factory.hpp:77] Creating layer ip2
I0428 19:32:49.269336 22963 net.cpp:86] Creating Layer ip2
I0428 19:32:49.269343 22963 net.cpp:408] ip2 <- ip1
I0428 19:32:49.269354 22963 net.cpp:382] ip2 -> ip2
I0428 19:32:49.269461 22963 net.cpp:124] Setting up ip2
I0428 19:32:49.269471 22963 net.cpp:131] Top shape: 100 10 (1000)
I0428 19:32:49.269479 22963 net.cpp:139] Memory required for data: 7538800
I0428 19:32:49.269493 22963 layer_factory.hpp:77] Creating layer relu2
I0428 19:32:49.269503 22963 net.cpp:86] Creating Layer relu2
I0428 19:32:49.269510 22963 net.cpp:408] relu2 <- ip2
I0428 19:32:49.269520 22963 net.cpp:369] relu2 -> ip2 (in-place)
I0428 19:32:49.269690 22963 net.cpp:124] Setting up relu2
I0428 19:32:49.269702 22963 net.cpp:131] Top shape: 100 10 (1000)
I0428 19:32:49.269708 22963 net.cpp:139] Memory required for data: 7542800
I0428 19:32:49.269716 22963 layer_factory.hpp:77] Creating layer ip2_relu2_0_split
I0428 19:32:49.269727 22963 net.cpp:86] Creating Layer ip2_relu2_0_split
I0428 19:32:49.269734 22963 net.cpp:408] ip2_relu2_0_split <- ip2
I0428 19:32:49.269744 22963 net.cpp:382] ip2_relu2_0_split -> ip2_relu2_0_split_0
I0428 19:32:49.269758 22963 net.cpp:382] ip2_relu2_0_split -> ip2_relu2_0_split_1
I0428 19:32:49.269803 22963 net.cpp:124] Setting up ip2_relu2_0_split
I0428 19:32:49.269812 22963 net.cpp:131] Top shape: 100 10 (1000)
I0428 19:32:49.269820 22963 net.cpp:131] Top shape: 100 10 (1000)
I0428 19:32:49.269827 22963 net.cpp:139] Memory required for data: 7550800
I0428 19:32:49.269834 22963 layer_factory.hpp:77] Creating layer accuracy
I0428 19:32:49.269843 22963 net.cpp:86] Creating Layer accuracy
I0428 19:32:49.269850 22963 net.cpp:408] accuracy <- ip2_relu2_0_split_0
I0428 19:32:49.269858 22963 net.cpp:408] accuracy <- label_mnist_1_split_0
I0428 19:32:49.269867 22963 net.cpp:382] accuracy -> accuracy
…
