…
I0428 20:30:35.530740  3750 net.cpp:296] The NetState phase (0) differed from the phase (1) specified by a rule in layer mnist
I0428 20:30:35.530760  3750 net.cpp:296] The NetState phase (0) differed from the phase (1) specified by a rule in layer accuracy
I0428 20:30:35.530864  3750 net.cpp:53] Initializing net from parameters: 
name: "LeNet"
state {
  phase: TRAIN
  level: 0
  stage: ""
}
layer {
  name: "mnist"
  type: "Data"
  top: "data"
  top: "label"
  include {
    phase: TRAIN
  }
  transform_param {
    scale: 0.00390625
  }
  data_param {
    source: "examples/mnist/mnist_train_lmdb"
    batch_size: 64
    backend: LMDB
  }
}
layer {
  name: "conv0"
  type: "Convolution"
  bottom: "data"
  top: "conv0"
  param {
    lr_mult: 1
  }
  param {
    lr_mult: 2
  }
  convolution_param {
    num_output: 100
    kernel_size: 5
    stride: 1
    weight_filler {
      type: "xavier"
    }
    bias_filler {
      type: "constant"
    }
  }
}
layer {
  name: "pool0"
  type: "Pooling"
  bottom: "conv0"
  top: "pool0"
  pooling_param {
    pool: MAX
    kernel_size: 2
    stride: 2
  }
}
layer {
  name: "conv1"
  type: "Convolution"
  bottom: "pool0"
  top: "conv1"
  param {
    lr_mult: 1
  }
  param {
    lr_mult: 2
  }
  convolution_param {
    num_output: 10
    kernel_size: 5
    stride: 1
    weight_filler {
      type: "xavier"
    }
    bias_filler {
      type: "constant"
    }
  }
}
layer {
  name: "pool1"
  type: "Pooling"
  bottom: "conv1"
  top: "pool1"
  pooling_param {
    pool: MAX
    kernel_size: 2
    stride: 2
  }
}
layer {
  name: "ip1"
  type: "InnerProduct"
  bottom: "pool1"
  top: "ip1"
  param {
    lr_mult: 1
  }
  param {
    lr_mult: 2
  }
  inner_product_param {
    num_output: 10
    weight_filler {
      type: "xavier"
    }
    bias_filler {
      type: "constant"
    }
  }
}
layer {
  name: "relu1"
  type: "ReLU"
  bottom: "ip1"
  top: "ip1"
}
layer {
  name: "ip2"
  type: "InnerProduct"
  bottom: "ip1"
  top: "ip2"
  param {
    lr_mult: 1
  }
  param {
    lr_mult: 2
  }
  inner_product_param {
    num_output: 50
    weight_filler {
      type: "xavier"
    }
    bias_filler {
      type: "constant"
    }
  }
}
layer {
  name: "relu2"
  type: "ReLU"
  bottom: "ip2"
  top: "ip2"
}
layer {
  name: "ip3"
  type: "InnerProduct"
  bottom: "ip2"
  top: "ip3"
  param {
    lr_mult: 1
  }
  param {
    lr_mult: 2
  }
  inner_product_param {
    num_output: 10
    weight_filler {
      type: "xavier"
    }
    bias_filler {
      type: "constant"
    }
  }
}
layer {
  name: "relu3"
  type: "ReLU"
  bottom: "ip3"
  top: "ip3"
}
layer {
  name: "loss"
  type: "SoftmaxWithLoss"
  bottom: "ip3"
  bottom: "label"
  top: "loss"
}
I0428 20:30:35.530942  3750 layer_factory.hpp:77] Creating layer mnist
I0428 20:30:35.531039  3750 db_lmdb.cpp:35] Opened lmdb examples/mnist/mnist_train_lmdb
I0428 20:30:35.531064  3750 net.cpp:86] Creating Layer mnist
I0428 20:30:35.531072  3750 net.cpp:382] mnist -> data
I0428 20:30:35.531096  3750 net.cpp:382] mnist -> label
I0428 20:30:35.532193  3750 data_layer.cpp:45] output data size: 64,1,28,28
I0428 20:30:35.534884  3750 net.cpp:124] Setting up mnist
I0428 20:30:35.534903  3750 net.cpp:131] Top shape: 64 1 28 28 (50176)
I0428 20:30:35.534910  3750 net.cpp:131] Top shape: 64 (64)
I0428 20:30:35.534914  3750 net.cpp:139] Memory required for data: 200960
I0428 20:30:35.534921  3750 layer_factory.hpp:77] Creating layer conv0
I0428 20:30:35.534937  3750 net.cpp:86] Creating Layer conv0
I0428 20:30:35.534957  3750 net.cpp:408] conv0 <- data
I0428 20:30:35.534972  3750 net.cpp:382] conv0 -> conv0
I0428 20:30:35.824762  3750 net.cpp:124] Setting up conv0
I0428 20:30:35.824795  3750 net.cpp:131] Top shape: 64 100 24 24 (3686400)
I0428 20:30:35.824800  3750 net.cpp:139] Memory required for data: 14946560
I0428 20:30:35.824828  3750 layer_factory.hpp:77] Creating layer pool0
I0428 20:30:35.824844  3750 net.cpp:86] Creating Layer pool0
I0428 20:30:35.824849  3750 net.cpp:408] pool0 <- conv0
I0428 20:30:35.824856  3750 net.cpp:382] pool0 -> pool0
I0428 20:30:35.824918  3750 net.cpp:124] Setting up pool0
I0428 20:30:35.824929  3750 net.cpp:131] Top shape: 64 100 12 12 (921600)
I0428 20:30:35.824934  3750 net.cpp:139] Memory required for data: 18632960
I0428 20:30:35.824937  3750 layer_factory.hpp:77] Creating layer conv1
I0428 20:30:35.824950  3750 net.cpp:86] Creating Layer conv1
I0428 20:30:35.824954  3750 net.cpp:408] conv1 <- pool0
I0428 20:30:35.824960  3750 net.cpp:382] conv1 -> conv1
I0428 20:30:35.827267  3750 net.cpp:124] Setting up conv1
I0428 20:30:35.827286  3750 net.cpp:131] Top shape: 64 10 8 8 (40960)
I0428 20:30:35.827291  3750 net.cpp:139] Memory required for data: 18796800
I0428 20:30:35.827301  3750 layer_factory.hpp:77] Creating layer pool1
I0428 20:30:35.827311  3750 net.cpp:86] Creating Layer pool1
I0428 20:30:35.827314  3750 net.cpp:408] pool1 <- conv1
I0428 20:30:35.827320  3750 net.cpp:382] pool1 -> pool1
I0428 20:30:35.827364  3750 net.cpp:124] Setting up pool1
I0428 20:30:35.827371  3750 net.cpp:131] Top shape: 64 10 4 4 (10240)
I0428 20:30:35.827375  3750 net.cpp:139] Memory required for data: 18837760
I0428 20:30:35.827379  3750 layer_factory.hpp:77] Creating layer ip1
I0428 20:30:35.827392  3750 net.cpp:86] Creating Layer ip1
I0428 20:30:35.827396  3750 net.cpp:408] ip1 <- pool1
I0428 20:30:35.827404  3750 net.cpp:382] ip1 -> ip1
I0428 20:30:35.827533  3750 net.cpp:124] Setting up ip1
I0428 20:30:35.827543  3750 net.cpp:131] Top shape: 64 10 (640)
I0428 20:30:35.827546  3750 net.cpp:139] Memory required for data: 18840320
I0428 20:30:35.827554  3750 layer_factory.hpp:77] Creating layer relu1
I0428 20:30:35.827561  3750 net.cpp:86] Creating Layer relu1
I0428 20:30:35.827565  3750 net.cpp:408] relu1 <- ip1
I0428 20:30:35.827570  3750 net.cpp:369] relu1 -> ip1 (in-place)
I0428 20:30:35.827764  3750 net.cpp:124] Setting up relu1
I0428 20:30:35.827775  3750 net.cpp:131] Top shape: 64 10 (640)
I0428 20:30:35.827780  3750 net.cpp:139] Memory required for data: 18842880
I0428 20:30:35.827783  3750 layer_factory.hpp:77] Creating layer ip2
I0428 20:30:35.827791  3750 net.cpp:86] Creating Layer ip2
I0428 20:30:35.827795  3750 net.cpp:408] ip2 <- ip1
I0428 20:30:35.827805  3750 net.cpp:382] ip2 -> ip2
I0428 20:30:35.827922  3750 net.cpp:124] Setting up ip2
I0428 20:30:35.827931  3750 net.cpp:131] Top shape: 64 50 (3200)
I0428 20:30:35.827934  3750 net.cpp:139] Memory required for data: 18855680
I0428 20:30:35.827941  3750 layer_factory.hpp:77] Creating layer relu2
I0428 20:30:35.827949  3750 net.cpp:86] Creating Layer relu2
I0428 20:30:35.827952  3750 net.cpp:408] relu2 <- ip2
I0428 20:30:35.827957  3750 net.cpp:369] relu2 -> ip2 (in-place)
I0428 20:30:35.828804  3750 net.cpp:124] Setting up relu2
I0428 20:30:35.828825  3750 net.cpp:131] Top shape: 64 50 (3200)
I0428 20:30:35.828830  3750 net.cpp:139] Memory required for data: 18868480
I0428 20:30:35.828835  3750 layer_factory.hpp:77] Creating layer ip3
I0428 20:30:35.828843  3750 net.cpp:86] Creating Layer ip3
I0428 20:30:35.828847  3750 net.cpp:408] ip3 <- ip2
I0428 20:30:35.828855  3750 net.cpp:382] ip3 -> ip3
I0428 20:30:35.828977  3750 net.cpp:124] Setting up ip3
I0428 20:30:35.828986  3750 net.cpp:131] Top shape: 64 10 (640)
I0428 20:30:35.828990  3750 net.cpp:139] Memory required for data: 18871040
I0428 20:30:35.829000  3750 layer_factory.hpp:77] Creating layer relu3
I0428 20:30:35.829006  3750 net.cpp:86] Creating Layer relu3
I0428 20:30:35.829010  3750 net.cpp:408] relu3 <- ip3
I0428 20:30:35.829015  3750 net.cpp:369] relu3 -> ip3 (in-place)
I0428 20:30:35.829216  3750 net.cpp:124] Setting up relu3
I0428 20:30:35.829226  3750 net.cpp:131] Top shape: 64 10 (640)
I0428 20:30:35.829231  3750 net.cpp:139] Memory required for data: 18873600
I0428 20:30:35.829234  3750 layer_factory.hpp:77] Creating layer loss
I0428 20:30:35.829241  3750 net.cpp:86] Creating Layer loss
I0428 20:30:35.829246  3750 net.cpp:408] loss <- ip3
I0428 20:30:35.829251  3750 net.cpp:408] loss <- label
I0428 20:30:35.829257  3750 net.cpp:382] loss -> loss
I0428 20:30:35.829277  3750 layer_factory.hpp:77] Creating layer loss
…
I0428 20:30:35.830034  3750 solver.cpp:173] Creating test net (#0) specified by net file: ECE595/mnist/train_test/var_everything2/lenet_train_test1541.prototxt
I0428 20:30:35.830065  3750 net.cpp:296] The NetState phase (1) differed from the phase (0) specified by a rule in layer mnist
I0428 20:30:35.830178  3750 net.cpp:53] Initializing net from parameters: 
name: "LeNet"
state {
  phase: TEST
}
layer {
  name: "mnist"
  type: "Data"
  top: "data"
  top: "label"
  include {
    phase: TEST
  }
  transform_param {
    scale: 0.00390625
  }
  data_param {
    source: "examples/mnist/mnist_test_lmdb"
    batch_size: 100
    backend: LMDB
  }
}
layer {
  name: "conv0"
  type: "Convolution"
  bottom: "data"
  top: "conv0"
  param {
    lr_mult: 1
  }
  param {
    lr_mult: 2
  }
  convolution_param {
    num_output: 100
    kernel_size: 5
    stride: 1
    weight_filler {
      type: "xavier"
    }
    bias_filler {
      type: "constant"
    }
  }
}
layer {
  name: "pool0"
  type: "Pooling"
  bottom: "conv0"
  top: "pool0"
  pooling_param {
    pool: MAX
    kernel_size: 2
    stride: 2
  }
}
layer {
  name: "conv1"
  type: "Convolution"
  bottom: "pool0"
  top: "conv1"
  param {
    lr_mult: 1
  }
  param {
    lr_mult: 2
  }
  convolution_param {
    num_output: 10
    kernel_size: 5
    stride: 1
    weight_filler {
      type: "xavier"
    }
    bias_filler {
      type: "constant"
    }
  }
}
layer {
  name: "pool1"
  type: "Pooling"
  bottom: "conv1"
  top: "pool1"
  pooling_param {
    pool: MAX
    kernel_size: 2
    stride: 2
  }
}
layer {
  name: "ip1"
  type: "InnerProduct"
  bottom: "pool1"
  top: "ip1"
  param {
    lr_mult: 1
  }
  param {
    lr_mult: 2
  }
  inner_product_param {
    num_output: 10
    weight_filler {
      type: "xavier"
    }
    bias_filler {
      type: "constant"
    }
  }
}
layer {
  name: "relu1"
  type: "ReLU"
  bottom: "ip1"
  top: "ip1"
}
layer {
  name: "ip2"
  type: "InnerProduct"
  bottom: "ip1"
  top: "ip2"
  param {
    lr_mult: 1
  }
  param {
    lr_mult: 2
  }
  inner_product_param {
    num_output: 50
    weight_filler {
      type: "xavier"
    }
    bias_filler {
      type: "constant"
    }
  }
}
layer {
  name: "relu2"
  type: "ReLU"
  bottom: "ip2"
  top: "ip2"
}
layer {
  name: "ip3"
  type: "InnerProduct"
  bottom: "ip2"
  top: "ip3"
  param {
    lr_mult: 1
  }
  param {
    lr_mult: 2
  }
  inner_product_param {
    num_output: 10
    weight_filler {
      type: "xavier"
    }
    bias_filler {
      type: "constant"
    }
  }
}
layer {
  name: "relu3"
  type: "ReLU"
  bottom: "ip3"
  top: "ip3"
}
layer {
  name: "accuracy"
  type: "Accuracy"
  bottom: "ip3"
  bottom: "label"
  top: "accuracy"
  include {
    phase: TEST
  }
}
layer {
  name: "loss"
  type: "SoftmaxWithLoss"
  bottom: "ip3"
  bottom: "label"
  top: "loss"
}
I0428 20:30:35.830278  3750 layer_factory.hpp:77] Creating layer mnist
I0428 20:30:35.830333  3750 db_lmdb.cpp:35] Opened lmdb examples/mnist/mnist_test_lmdb
I0428 20:30:35.830348  3750 net.cpp:86] Creating Layer mnist
I0428 20:30:35.830355  3750 net.cpp:382] mnist -> data
I0428 20:30:35.830365  3750 net.cpp:382] mnist -> label
I0428 20:30:35.830469  3750 data_layer.cpp:45] output data size: 100,1,28,28
I0428 20:30:35.832669  3750 net.cpp:124] Setting up mnist
I0428 20:30:35.832684  3750 net.cpp:131] Top shape: 100 1 28 28 (78400)
I0428 20:30:35.832690  3750 net.cpp:131] Top shape: 100 (100)
I0428 20:30:35.832695  3750 net.cpp:139] Memory required for data: 314000
I0428 20:30:35.832700  3750 layer_factory.hpp:77] Creating layer label_mnist_1_split
I0428 20:30:35.832726  3750 net.cpp:86] Creating Layer label_mnist_1_split
I0428 20:30:35.832731  3750 net.cpp:408] label_mnist_1_split <- label
I0428 20:30:35.832757  3750 net.cpp:382] label_mnist_1_split -> label_mnist_1_split_0
I0428 20:30:35.832767  3750 net.cpp:382] label_mnist_1_split -> label_mnist_1_split_1
I0428 20:30:35.832836  3750 net.cpp:124] Setting up label_mnist_1_split
I0428 20:30:35.832849  3750 net.cpp:131] Top shape: 100 (100)
I0428 20:30:35.832854  3750 net.cpp:131] Top shape: 100 (100)
I0428 20:30:35.832856  3750 net.cpp:139] Memory required for data: 314800
I0428 20:30:35.832860  3750 layer_factory.hpp:77] Creating layer conv0
I0428 20:30:35.832870  3750 net.cpp:86] Creating Layer conv0
I0428 20:30:35.832875  3750 net.cpp:408] conv0 <- data
I0428 20:30:35.832882  3750 net.cpp:382] conv0 -> conv0
I0428 20:30:35.834834  3750 net.cpp:124] Setting up conv0
I0428 20:30:35.834851  3750 net.cpp:131] Top shape: 100 100 24 24 (5760000)
I0428 20:30:35.834856  3750 net.cpp:139] Memory required for data: 23354800
I0428 20:30:35.834867  3750 layer_factory.hpp:77] Creating layer pool0
I0428 20:30:35.834874  3750 net.cpp:86] Creating Layer pool0
I0428 20:30:35.834878  3750 net.cpp:408] pool0 <- conv0
I0428 20:30:35.834887  3750 net.cpp:382] pool0 -> pool0
I0428 20:30:35.834930  3750 net.cpp:124] Setting up pool0
I0428 20:30:35.834938  3750 net.cpp:131] Top shape: 100 100 12 12 (1440000)
I0428 20:30:35.834940  3750 net.cpp:139] Memory required for data: 29114800
I0428 20:30:35.834944  3750 layer_factory.hpp:77] Creating layer conv1
I0428 20:30:35.834956  3750 net.cpp:86] Creating Layer conv1
I0428 20:30:35.834960  3750 net.cpp:408] conv1 <- pool0
I0428 20:30:35.834966  3750 net.cpp:382] conv1 -> conv1
I0428 20:30:35.836900  3750 net.cpp:124] Setting up conv1
I0428 20:30:35.836921  3750 net.cpp:131] Top shape: 100 10 8 8 (64000)
I0428 20:30:35.836926  3750 net.cpp:139] Memory required for data: 29370800
I0428 20:30:35.836937  3750 layer_factory.hpp:77] Creating layer pool1
I0428 20:30:35.836947  3750 net.cpp:86] Creating Layer pool1
I0428 20:30:35.836952  3750 net.cpp:408] pool1 <- conv1
I0428 20:30:35.836958  3750 net.cpp:382] pool1 -> pool1
I0428 20:30:35.837004  3750 net.cpp:124] Setting up pool1
I0428 20:30:35.837010  3750 net.cpp:131] Top shape: 100 10 4 4 (16000)
I0428 20:30:35.837014  3750 net.cpp:139] Memory required for data: 29434800
I0428 20:30:35.837018  3750 layer_factory.hpp:77] Creating layer ip1
I0428 20:30:35.837024  3750 net.cpp:86] Creating Layer ip1
I0428 20:30:35.837029  3750 net.cpp:408] ip1 <- pool1
I0428 20:30:35.837036  3750 net.cpp:382] ip1 -> ip1
I0428 20:30:35.837170  3750 net.cpp:124] Setting up ip1
I0428 20:30:35.837193  3750 net.cpp:131] Top shape: 100 10 (1000)
I0428 20:30:35.837198  3750 net.cpp:139] Memory required for data: 29438800
I0428 20:30:35.837206  3750 layer_factory.hpp:77] Creating layer relu1
I0428 20:30:35.837213  3750 net.cpp:86] Creating Layer relu1
I0428 20:30:35.837218  3750 net.cpp:408] relu1 <- ip1
I0428 20:30:35.837224  3750 net.cpp:369] relu1 -> ip1 (in-place)
I0428 20:30:35.837430  3750 net.cpp:124] Setting up relu1
I0428 20:30:35.837441  3750 net.cpp:131] Top shape: 100 10 (1000)
I0428 20:30:35.837445  3750 net.cpp:139] Memory required for data: 29442800
I0428 20:30:35.837448  3750 layer_factory.hpp:77] Creating layer ip2
I0428 20:30:35.837458  3750 net.cpp:86] Creating Layer ip2
I0428 20:30:35.837462  3750 net.cpp:408] ip2 <- ip1
I0428 20:30:35.837468  3750 net.cpp:382] ip2 -> ip2
I0428 20:30:35.837611  3750 net.cpp:124] Setting up ip2
I0428 20:30:35.837620  3750 net.cpp:131] Top shape: 100 50 (5000)
I0428 20:30:35.837625  3750 net.cpp:139] Memory required for data: 29462800
I0428 20:30:35.837630  3750 layer_factory.hpp:77] Creating layer relu2
I0428 20:30:35.837636  3750 net.cpp:86] Creating Layer relu2
I0428 20:30:35.837641  3750 net.cpp:408] relu2 <- ip2
I0428 20:30:35.837646  3750 net.cpp:369] relu2 -> ip2 (in-place)
I0428 20:30:35.837888  3750 net.cpp:124] Setting up relu2
I0428 20:30:35.837898  3750 net.cpp:131] Top shape: 100 50 (5000)
I0428 20:30:35.837903  3750 net.cpp:139] Memory required for data: 29482800
I0428 20:30:35.837906  3750 layer_factory.hpp:77] Creating layer ip3
I0428 20:30:35.837914  3750 net.cpp:86] Creating Layer ip3
I0428 20:30:35.837918  3750 net.cpp:408] ip3 <- ip2
I0428 20:30:35.837926  3750 net.cpp:382] ip3 -> ip3
I0428 20:30:35.838048  3750 net.cpp:124] Setting up ip3
I0428 20:30:35.838057  3750 net.cpp:131] Top shape: 100 10 (1000)
I0428 20:30:35.838060  3750 net.cpp:139] Memory required for data: 29486800
I0428 20:30:35.838070  3750 layer_factory.hpp:77] Creating layer relu3
I0428 20:30:35.838076  3750 net.cpp:86] Creating Layer relu3
I0428 20:30:35.838079  3750 net.cpp:408] relu3 <- ip3
I0428 20:30:35.838084  3750 net.cpp:369] relu3 -> ip3 (in-place)
I0428 20:30:35.839038  3750 net.cpp:124] Setting up relu3
I0428 20:30:35.839053  3750 net.cpp:131] Top shape: 100 10 (1000)
I0428 20:30:35.839057  3750 net.cpp:139] Memory required for data: 29490800
I0428 20:30:35.839061  3750 layer_factory.hpp:77] Creating layer ip3_relu3_0_split
I0428 20:30:35.839069  3750 net.cpp:86] Creating Layer ip3_relu3_0_split
I0428 20:30:35.839074  3750 net.cpp:408] ip3_relu3_0_split <- ip3
I0428 20:30:35.839081  3750 net.cpp:382] ip3_relu3_0_split -> ip3_relu3_0_split_0
I0428 20:30:35.839088  3750 net.cpp:382] ip3_relu3_0_split -> ip3_relu3_0_split_1
I0428 20:30:35.839146  3750 net.cpp:124] Setting up ip3_relu3_0_split
I0428 20:30:35.839155  3750 net.cpp:131] Top shape: 100 10 (1000)
I0428 20:30:35.839160  3750 net.cpp:131] Top shape: 100 10 (1000)
I0428 20:30:35.839164  3750 net.cpp:139] Memory required for data: 29498800
I0428 20:30:35.839179  3750 layer_factory.hpp:77] Creating layer accuracy
I0428 20:30:35.839186  3750 net.cpp:86] Creating Layer accuracy
I0428 20:30:35.839191  3750 net.cpp:408] accuracy <- ip3_relu3_0_split_0
I0428 20:30:35.839196  3750 net.cpp:408] accuracy <- label_mnist_1_split_0
I0428 20:30:35.839201  3750 net.cpp:382] accuracy -> accuracy
…
