…
I0428 19:31:10.941352 22511 net.cpp:296] The NetState phase (0) differed from the phase (1) specified by a rule in layer mnist
I0428 19:31:10.941370 22511 net.cpp:296] The NetState phase (0) differed from the phase (1) specified by a rule in layer accuracy
I0428 19:31:10.941459 22511 net.cpp:53] Initializing net from parameters: 
name: "LeNet"
state {
  phase: TRAIN
  level: 0
  stage: ""
}
layer {
  name: "mnist"
  type: "Data"
  top: "data"
  top: "label"
  include {
    phase: TRAIN
  }
  transform_param {
    scale: 0.00390625
  }
  data_param {
    source: "examples/mnist/mnist_train_lmdb"
    batch_size: 64
    backend: LMDB
  }
}
layer {
  name: "conv0"
  type: "Convolution"
  bottom: "data"
  top: "conv0"
  param {
    lr_mult: 1
  }
  param {
    lr_mult: 2
  }
  convolution_param {
    num_output: 5
    kernel_size: 5
    stride: 1
    weight_filler {
      type: "xavier"
    }
    bias_filler {
      type: "constant"
    }
  }
}
layer {
  name: "pool0"
  type: "Pooling"
  bottom: "conv0"
  top: "pool0"
  pooling_param {
    pool: MAX
    kernel_size: 2
    stride: 2
  }
}
layer {
  name: "ip1"
  type: "InnerProduct"
  bottom: "pool0"
  top: "ip1"
  param {
    lr_mult: 1
  }
  param {
    lr_mult: 2
  }
  inner_product_param {
    num_output: 50
    weight_filler {
      type: "xavier"
    }
    bias_filler {
      type: "constant"
    }
  }
}
layer {
  name: "relu1"
  type: "ReLU"
  bottom: "ip1"
  top: "ip1"
}
layer {
  name: "ip2"
  type: "InnerProduct"
  bottom: "ip1"
  top: "ip2"
  param {
    lr_mult: 1
  }
  param {
    lr_mult: 2
  }
  inner_product_param {
    num_output: 50
    weight_filler {
      type: "xavier"
    }
    bias_filler {
      type: "constant"
    }
  }
}
layer {
  name: "relu2"
  type: "ReLU"
  bottom: "ip2"
  top: "ip2"
}
layer {
  name: "ip3"
  type: "InnerProduct"
  bottom: "ip2"
  top: "ip3"
  param {
    lr_mult: 1
  }
  param {
    lr_mult: 2
  }
  inner_product_param {
    num_output: 10
    weight_filler {
      type: "xavier"
    }
    bias_filler {
      type: "constant"
    }
  }
}
layer {
  name: "relu3"
  type: "ReLU"
  bottom: "ip3"
  top: "ip3"
}
layer {
  name: "loss"
  type: "SoftmaxWithLoss"
  bottom: "ip3"
  bottom: "label"
  top: "loss"
}
I0428 19:31:10.941536 22511 layer_factory.hpp:77] Creating layer mnist
I0428 19:31:10.941633 22511 db_lmdb.cpp:35] Opened lmdb examples/mnist/mnist_train_lmdb
I0428 19:31:10.941656 22511 net.cpp:86] Creating Layer mnist
I0428 19:31:10.941665 22511 net.cpp:382] mnist -> data
I0428 19:31:10.941689 22511 net.cpp:382] mnist -> label
I0428 19:31:10.942786 22511 data_layer.cpp:45] output data size: 64,1,28,28
I0428 19:31:10.945242 22511 net.cpp:124] Setting up mnist
I0428 19:31:10.945261 22511 net.cpp:131] Top shape: 64 1 28 28 (50176)
I0428 19:31:10.945266 22511 net.cpp:131] Top shape: 64 (64)
I0428 19:31:10.945271 22511 net.cpp:139] Memory required for data: 200960
I0428 19:31:10.945277 22511 layer_factory.hpp:77] Creating layer conv0
I0428 19:31:10.945327 22511 net.cpp:86] Creating Layer conv0
I0428 19:31:10.945333 22511 net.cpp:408] conv0 <- data
I0428 19:31:10.945348 22511 net.cpp:382] conv0 -> conv0
I0428 19:31:11.237313 22511 net.cpp:124] Setting up conv0
I0428 19:31:11.237346 22511 net.cpp:131] Top shape: 64 5 24 24 (184320)
I0428 19:31:11.237351 22511 net.cpp:139] Memory required for data: 938240
I0428 19:31:11.237370 22511 layer_factory.hpp:77] Creating layer pool0
I0428 19:31:11.237385 22511 net.cpp:86] Creating Layer pool0
I0428 19:31:11.237411 22511 net.cpp:408] pool0 <- conv0
I0428 19:31:11.237421 22511 net.cpp:382] pool0 -> pool0
I0428 19:31:11.237478 22511 net.cpp:124] Setting up pool0
I0428 19:31:11.237488 22511 net.cpp:131] Top shape: 64 5 12 12 (46080)
I0428 19:31:11.237490 22511 net.cpp:139] Memory required for data: 1122560
I0428 19:31:11.237494 22511 layer_factory.hpp:77] Creating layer ip1
I0428 19:31:11.237504 22511 net.cpp:86] Creating Layer ip1
I0428 19:31:11.237507 22511 net.cpp:408] ip1 <- pool0
I0428 19:31:11.237514 22511 net.cpp:382] ip1 -> ip1
I0428 19:31:11.237887 22511 net.cpp:124] Setting up ip1
I0428 19:31:11.237896 22511 net.cpp:131] Top shape: 64 50 (3200)
I0428 19:31:11.237900 22511 net.cpp:139] Memory required for data: 1135360
I0428 19:31:11.237908 22511 layer_factory.hpp:77] Creating layer relu1
I0428 19:31:11.237916 22511 net.cpp:86] Creating Layer relu1
I0428 19:31:11.237921 22511 net.cpp:408] relu1 <- ip1
I0428 19:31:11.237926 22511 net.cpp:369] relu1 -> ip1 (in-place)
I0428 19:31:11.238126 22511 net.cpp:124] Setting up relu1
I0428 19:31:11.238137 22511 net.cpp:131] Top shape: 64 50 (3200)
I0428 19:31:11.238142 22511 net.cpp:139] Memory required for data: 1148160
I0428 19:31:11.238145 22511 layer_factory.hpp:77] Creating layer ip2
I0428 19:31:11.238152 22511 net.cpp:86] Creating Layer ip2
I0428 19:31:11.238157 22511 net.cpp:408] ip2 <- ip1
I0428 19:31:11.238162 22511 net.cpp:382] ip2 -> ip2
I0428 19:31:11.239270 22511 net.cpp:124] Setting up ip2
I0428 19:31:11.239284 22511 net.cpp:131] Top shape: 64 50 (3200)
I0428 19:31:11.239289 22511 net.cpp:139] Memory required for data: 1160960
I0428 19:31:11.239300 22511 layer_factory.hpp:77] Creating layer relu2
I0428 19:31:11.239306 22511 net.cpp:86] Creating Layer relu2
I0428 19:31:11.239311 22511 net.cpp:408] relu2 <- ip2
I0428 19:31:11.239316 22511 net.cpp:369] relu2 -> ip2 (in-place)
I0428 19:31:11.240170 22511 net.cpp:124] Setting up relu2
I0428 19:31:11.240185 22511 net.cpp:131] Top shape: 64 50 (3200)
I0428 19:31:11.240190 22511 net.cpp:139] Memory required for data: 1173760
I0428 19:31:11.240195 22511 layer_factory.hpp:77] Creating layer ip3
I0428 19:31:11.240202 22511 net.cpp:86] Creating Layer ip3
I0428 19:31:11.240206 22511 net.cpp:408] ip3 <- ip2
I0428 19:31:11.240213 22511 net.cpp:382] ip3 -> ip3
I0428 19:31:11.240335 22511 net.cpp:124] Setting up ip3
I0428 19:31:11.240345 22511 net.cpp:131] Top shape: 64 10 (640)
I0428 19:31:11.240350 22511 net.cpp:139] Memory required for data: 1176320
I0428 19:31:11.240356 22511 layer_factory.hpp:77] Creating layer relu3
I0428 19:31:11.240363 22511 net.cpp:86] Creating Layer relu3
I0428 19:31:11.240370 22511 net.cpp:408] relu3 <- ip3
I0428 19:31:11.240375 22511 net.cpp:369] relu3 -> ip3 (in-place)
I0428 19:31:11.240556 22511 net.cpp:124] Setting up relu3
I0428 19:31:11.240566 22511 net.cpp:131] Top shape: 64 10 (640)
I0428 19:31:11.240569 22511 net.cpp:139] Memory required for data: 1178880
I0428 19:31:11.240574 22511 layer_factory.hpp:77] Creating layer loss
I0428 19:31:11.240581 22511 net.cpp:86] Creating Layer loss
I0428 19:31:11.240586 22511 net.cpp:408] loss <- ip3
I0428 19:31:11.240591 22511 net.cpp:408] loss <- label
I0428 19:31:11.240597 22511 net.cpp:382] loss -> loss
I0428 19:31:11.240613 22511 layer_factory.hpp:77] Creating layer loss
…
I0428 19:31:11.241339 22511 solver.cpp:173] Creating test net (#0) specified by net file: ECE595/mnist/train_test/var_everything2/lenet_train_test114.prototxt
I0428 19:31:11.241370 22511 net.cpp:296] The NetState phase (1) differed from the phase (0) specified by a rule in layer mnist
I0428 19:31:11.241466 22511 net.cpp:53] Initializing net from parameters: 
name: "LeNet"
state {
  phase: TEST
}
layer {
  name: "mnist"
  type: "Data"
  top: "data"
  top: "label"
  include {
    phase: TEST
  }
  transform_param {
    scale: 0.00390625
  }
  data_param {
    source: "examples/mnist/mnist_test_lmdb"
    batch_size: 100
    backend: LMDB
  }
}
layer {
  name: "conv0"
  type: "Convolution"
  bottom: "data"
  top: "conv0"
  param {
    lr_mult: 1
  }
  param {
    lr_mult: 2
  }
  convolution_param {
    num_output: 5
    kernel_size: 5
    stride: 1
    weight_filler {
      type: "xavier"
    }
    bias_filler {
      type: "constant"
    }
  }
}
layer {
  name: "pool0"
  type: "Pooling"
  bottom: "conv0"
  top: "pool0"
  pooling_param {
    pool: MAX
    kernel_size: 2
    stride: 2
  }
}
layer {
  name: "ip1"
  type: "InnerProduct"
  bottom: "pool0"
  top: "ip1"
  param {
    lr_mult: 1
  }
  param {
    lr_mult: 2
  }
  inner_product_param {
    num_output: 50
    weight_filler {
      type: "xavier"
    }
    bias_filler {
      type: "constant"
    }
  }
}
layer {
  name: "relu1"
  type: "ReLU"
  bottom: "ip1"
  top: "ip1"
}
layer {
  name: "ip2"
  type: "InnerProduct"
  bottom: "ip1"
  top: "ip2"
  param {
    lr_mult: 1
  }
  param {
    lr_mult: 2
  }
  inner_product_param {
    num_output: 50
    weight_filler {
      type: "xavier"
    }
    bias_filler {
      type: "constant"
    }
  }
}
layer {
  name: "relu2"
  type: "ReLU"
  bottom: "ip2"
  top: "ip2"
}
layer {
  name: "ip3"
  type: "InnerProduct"
  bottom: "ip2"
  top: "ip3"
  param {
    lr_mult: 1
  }
  param {
    lr_mult: 2
  }
  inner_product_param {
    num_output: 10
    weight_filler {
      type: "xavier"
    }
    bias_filler {
      type: "constant"
    }
  }
}
layer {
  name: "relu3"
  type: "ReLU"
  bottom: "ip3"
  top: "ip3"
}
layer {
  name: "accuracy"
  type: "Accuracy"
  bottom: "ip3"
  bottom: "label"
  top: "accuracy"
  include {
    phase: TEST
  }
}
layer {
  name: "loss"
  type: "SoftmaxWithLoss"
  bottom: "ip3"
  bottom: "label"
  top: "loss"
}
I0428 19:31:11.241541 22511 layer_factory.hpp:77] Creating layer mnist
I0428 19:31:11.241593 22511 db_lmdb.cpp:35] Opened lmdb examples/mnist/mnist_test_lmdb
I0428 19:31:11.241611 22511 net.cpp:86] Creating Layer mnist
I0428 19:31:11.241616 22511 net.cpp:382] mnist -> data
I0428 19:31:11.241626 22511 net.cpp:382] mnist -> label
I0428 19:31:11.241726 22511 data_layer.cpp:45] output data size: 100,1,28,28
I0428 19:31:11.243914 22511 net.cpp:124] Setting up mnist
I0428 19:31:11.243930 22511 net.cpp:131] Top shape: 100 1 28 28 (78400)
I0428 19:31:11.243937 22511 net.cpp:131] Top shape: 100 (100)
I0428 19:31:11.243940 22511 net.cpp:139] Memory required for data: 314000
I0428 19:31:11.243945 22511 layer_factory.hpp:77] Creating layer label_mnist_1_split
I0428 19:31:11.243953 22511 net.cpp:86] Creating Layer label_mnist_1_split
I0428 19:31:11.243957 22511 net.cpp:408] label_mnist_1_split <- label
I0428 19:31:11.243963 22511 net.cpp:382] label_mnist_1_split -> label_mnist_1_split_0
I0428 19:31:11.243973 22511 net.cpp:382] label_mnist_1_split -> label_mnist_1_split_1
I0428 19:31:11.244081 22511 net.cpp:124] Setting up label_mnist_1_split
I0428 19:31:11.244089 22511 net.cpp:131] Top shape: 100 (100)
I0428 19:31:11.244094 22511 net.cpp:131] Top shape: 100 (100)
I0428 19:31:11.244097 22511 net.cpp:139] Memory required for data: 314800
I0428 19:31:11.244112 22511 layer_factory.hpp:77] Creating layer conv0
I0428 19:31:11.244124 22511 net.cpp:86] Creating Layer conv0
I0428 19:31:11.244129 22511 net.cpp:408] conv0 <- data
I0428 19:31:11.244137 22511 net.cpp:382] conv0 -> conv0
I0428 19:31:11.245829 22511 net.cpp:124] Setting up conv0
I0428 19:31:11.245846 22511 net.cpp:131] Top shape: 100 5 24 24 (288000)
I0428 19:31:11.245851 22511 net.cpp:139] Memory required for data: 1466800
I0428 19:31:11.245862 22511 layer_factory.hpp:77] Creating layer pool0
I0428 19:31:11.245869 22511 net.cpp:86] Creating Layer pool0
I0428 19:31:11.245874 22511 net.cpp:408] pool0 <- conv0
I0428 19:31:11.245882 22511 net.cpp:382] pool0 -> pool0
I0428 19:31:11.245925 22511 net.cpp:124] Setting up pool0
I0428 19:31:11.245934 22511 net.cpp:131] Top shape: 100 5 12 12 (72000)
I0428 19:31:11.245949 22511 net.cpp:139] Memory required for data: 1754800
I0428 19:31:11.245954 22511 layer_factory.hpp:77] Creating layer ip1
I0428 19:31:11.245961 22511 net.cpp:86] Creating Layer ip1
I0428 19:31:11.245965 22511 net.cpp:408] ip1 <- pool0
I0428 19:31:11.245972 22511 net.cpp:382] ip1 -> ip1
I0428 19:31:11.246337 22511 net.cpp:124] Setting up ip1
I0428 19:31:11.246347 22511 net.cpp:131] Top shape: 100 50 (5000)
I0428 19:31:11.246351 22511 net.cpp:139] Memory required for data: 1774800
I0428 19:31:11.246361 22511 layer_factory.hpp:77] Creating layer relu1
I0428 19:31:11.246367 22511 net.cpp:86] Creating Layer relu1
I0428 19:31:11.246371 22511 net.cpp:408] relu1 <- ip1
I0428 19:31:11.246376 22511 net.cpp:369] relu1 -> ip1 (in-place)
I0428 19:31:11.246567 22511 net.cpp:124] Setting up relu1
I0428 19:31:11.246577 22511 net.cpp:131] Top shape: 100 50 (5000)
I0428 19:31:11.246580 22511 net.cpp:139] Memory required for data: 1794800
I0428 19:31:11.246584 22511 layer_factory.hpp:77] Creating layer ip2
I0428 19:31:11.246592 22511 net.cpp:86] Creating Layer ip2
I0428 19:31:11.246595 22511 net.cpp:408] ip2 <- ip1
I0428 19:31:11.246601 22511 net.cpp:382] ip2 -> ip2
I0428 19:31:11.246752 22511 net.cpp:124] Setting up ip2
I0428 19:31:11.246760 22511 net.cpp:131] Top shape: 100 50 (5000)
I0428 19:31:11.246763 22511 net.cpp:139] Memory required for data: 1814800
I0428 19:31:11.246773 22511 layer_factory.hpp:77] Creating layer relu2
I0428 19:31:11.246778 22511 net.cpp:86] Creating Layer relu2
I0428 19:31:11.246783 22511 net.cpp:408] relu2 <- ip2
I0428 19:31:11.246786 22511 net.cpp:369] relu2 -> ip2 (in-place)
I0428 19:31:11.247723 22511 net.cpp:124] Setting up relu2
I0428 19:31:11.247738 22511 net.cpp:131] Top shape: 100 50 (5000)
I0428 19:31:11.247743 22511 net.cpp:139] Memory required for data: 1834800
I0428 19:31:11.247748 22511 layer_factory.hpp:77] Creating layer ip3
I0428 19:31:11.247758 22511 net.cpp:86] Creating Layer ip3
I0428 19:31:11.247769 22511 net.cpp:408] ip3 <- ip2
I0428 19:31:11.247776 22511 net.cpp:382] ip3 -> ip3
I0428 19:31:11.247905 22511 net.cpp:124] Setting up ip3
I0428 19:31:11.247915 22511 net.cpp:131] Top shape: 100 10 (1000)
I0428 19:31:11.247918 22511 net.cpp:139] Memory required for data: 1838800
I0428 19:31:11.247925 22511 layer_factory.hpp:77] Creating layer relu3
I0428 19:31:11.247931 22511 net.cpp:86] Creating Layer relu3
I0428 19:31:11.247936 22511 net.cpp:408] relu3 <- ip3
I0428 19:31:11.247941 22511 net.cpp:369] relu3 -> ip3 (in-place)
I0428 19:31:11.248121 22511 net.cpp:124] Setting up relu3
I0428 19:31:11.248133 22511 net.cpp:131] Top shape: 100 10 (1000)
I0428 19:31:11.248137 22511 net.cpp:139] Memory required for data: 1842800
I0428 19:31:11.248142 22511 layer_factory.hpp:77] Creating layer ip3_relu3_0_split
I0428 19:31:11.248147 22511 net.cpp:86] Creating Layer ip3_relu3_0_split
I0428 19:31:11.248152 22511 net.cpp:408] ip3_relu3_0_split <- ip3
I0428 19:31:11.248157 22511 net.cpp:382] ip3_relu3_0_split -> ip3_relu3_0_split_0
I0428 19:31:11.248164 22511 net.cpp:382] ip3_relu3_0_split -> ip3_relu3_0_split_1
I0428 19:31:11.248205 22511 net.cpp:124] Setting up ip3_relu3_0_split
I0428 19:31:11.248214 22511 net.cpp:131] Top shape: 100 10 (1000)
I0428 19:31:11.248219 22511 net.cpp:131] Top shape: 100 10 (1000)
I0428 19:31:11.248235 22511 net.cpp:139] Memory required for data: 1850800
I0428 19:31:11.248239 22511 layer_factory.hpp:77] Creating layer accuracy
I0428 19:31:11.248245 22511 net.cpp:86] Creating Layer accuracy
I0428 19:31:11.248250 22511 net.cpp:408] accuracy <- ip3_relu3_0_split_0
I0428 19:31:11.248255 22511 net.cpp:408] accuracy <- label_mnist_1_split_0
I0428 19:31:11.248260 22511 net.cpp:382] accuracy -> accuracy
…
