…
I0428 19:49:15.760457 26714 net.cpp:296] The NetState phase (0) differed from the phase (1) specified by a rule in layer mnist
I0428 19:49:15.760484 26714 net.cpp:296] The NetState phase (0) differed from the phase (1) specified by a rule in layer accuracy
I0428 19:49:15.760645 26714 net.cpp:53] Initializing net from parameters: 
name: "LeNet"
state {
  phase: TRAIN
  level: 0
  stage: ""
}
layer {
  name: "mnist"
  type: "Data"
  top: "data"
  top: "label"
  include {
    phase: TRAIN
  }
  transform_param {
    scale: 0.00390625
  }
  data_param {
    source: "examples/mnist/mnist_train_lmdb"
    batch_size: 64
    backend: LMDB
  }
}
layer {
  name: "conv0"
  type: "Convolution"
  bottom: "data"
  top: "conv0"
  param {
    lr_mult: 1
  }
  param {
    lr_mult: 2
  }
  convolution_param {
    num_output: 5
    kernel_size: 5
    stride: 1
    weight_filler {
      type: "xavier"
    }
    bias_filler {
      type: "constant"
    }
  }
}
layer {
  name: "pool0"
  type: "Pooling"
  bottom: "conv0"
  top: "pool0"
  pooling_param {
    pool: MAX
    kernel_size: 2
    stride: 2
  }
}
layer {
  name: "conv1"
  type: "Convolution"
  bottom: "pool0"
  top: "conv1"
  param {
    lr_mult: 1
  }
  param {
    lr_mult: 2
  }
  convolution_param {
    num_output: 5
    kernel_size: 5
    stride: 1
    weight_filler {
      type: "xavier"
    }
    bias_filler {
      type: "constant"
    }
  }
}
layer {
  name: "pool1"
  type: "Pooling"
  bottom: "conv1"
  top: "pool1"
  pooling_param {
    pool: MAX
    kernel_size: 2
    stride: 2
  }
}
layer {
  name: "ip1"
  type: "InnerProduct"
  bottom: "pool1"
  top: "ip1"
  param {
    lr_mult: 1
  }
  param {
    lr_mult: 2
  }
  inner_product_param {
    num_output: 25
    weight_filler {
      type: "xavier"
    }
    bias_filler {
      type: "constant"
    }
  }
}
layer {
  name: "relu1"
  type: "ReLU"
  bottom: "ip1"
  top: "ip1"
}
layer {
  name: "ip2"
  type: "InnerProduct"
  bottom: "ip1"
  top: "ip2"
  param {
    lr_mult: 1
  }
  param {
    lr_mult: 2
  }
  inner_product_param {
    num_output: 10
    weight_filler {
      type: "xavier"
    }
    bias_filler {
      type: "constant"
    }
  }
}
layer {
  name: "relu2"
  type: "ReLU"
  bottom: "ip2"
  top: "ip2"
}
layer {
  name: "ip3"
  type: "InnerProduct"
  bottom: "ip2"
  top: "ip3"
  param {
    lr_mult: 1
  }
  param {
    lr_mult: 2
  }
  inner_product_param {
    num_output: 10
    weight_filler {
      type: "xavier"
    }
    bias_filler {
      type: "constant"
    }
  }
}
layer {
  name: "relu3"
  type: "ReLU"
  bottom: "ip3"
  top: "ip3"
}
layer {
  name: "loss"
  type: "SoftmaxWithLoss"
  bottom: "ip3"
  bottom: "label"
  top: "loss"
}
I0428 19:49:15.760762 26714 layer_factory.hpp:77] Creating layer mnist
I0428 19:49:15.760902 26714 db_lmdb.cpp:35] Opened lmdb examples/mnist/mnist_train_lmdb
I0428 19:49:15.760941 26714 net.cpp:86] Creating Layer mnist
I0428 19:49:15.760956 26714 net.cpp:382] mnist -> data
I0428 19:49:15.760987 26714 net.cpp:382] mnist -> label
I0428 19:49:15.762562 26714 data_layer.cpp:45] output data size: 64,1,28,28
I0428 19:49:15.765429 26714 net.cpp:124] Setting up mnist
I0428 19:49:15.765447 26714 net.cpp:131] Top shape: 64 1 28 28 (50176)
I0428 19:49:15.765455 26714 net.cpp:131] Top shape: 64 (64)
I0428 19:49:15.765460 26714 net.cpp:139] Memory required for data: 200960
I0428 19:49:15.765468 26714 layer_factory.hpp:77] Creating layer conv0
I0428 19:49:15.765489 26714 net.cpp:86] Creating Layer conv0
I0428 19:49:15.765519 26714 net.cpp:408] conv0 <- data
I0428 19:49:15.765540 26714 net.cpp:382] conv0 -> conv0
I0428 19:49:16.039881 26714 net.cpp:124] Setting up conv0
I0428 19:49:16.039923 26714 net.cpp:131] Top shape: 64 5 24 24 (184320)
I0428 19:49:16.039927 26714 net.cpp:139] Memory required for data: 938240
I0428 19:49:16.039942 26714 layer_factory.hpp:77] Creating layer pool0
I0428 19:49:16.039957 26714 net.cpp:86] Creating Layer pool0
I0428 19:49:16.039963 26714 net.cpp:408] pool0 <- conv0
I0428 19:49:16.039969 26714 net.cpp:382] pool0 -> pool0
I0428 19:49:16.040046 26714 net.cpp:124] Setting up pool0
I0428 19:49:16.040057 26714 net.cpp:131] Top shape: 64 5 12 12 (46080)
I0428 19:49:16.040066 26714 net.cpp:139] Memory required for data: 1122560
I0428 19:49:16.040069 26714 layer_factory.hpp:77] Creating layer conv1
I0428 19:49:16.040083 26714 net.cpp:86] Creating Layer conv1
I0428 19:49:16.040089 26714 net.cpp:408] conv1 <- pool0
I0428 19:49:16.040097 26714 net.cpp:382] conv1 -> conv1
I0428 19:49:16.042424 26714 net.cpp:124] Setting up conv1
I0428 19:49:16.042454 26714 net.cpp:131] Top shape: 64 5 8 8 (20480)
I0428 19:49:16.042459 26714 net.cpp:139] Memory required for data: 1204480
I0428 19:49:16.042466 26714 layer_factory.hpp:77] Creating layer pool1
I0428 19:49:16.042475 26714 net.cpp:86] Creating Layer pool1
I0428 19:49:16.042480 26714 net.cpp:408] pool1 <- conv1
I0428 19:49:16.042487 26714 net.cpp:382] pool1 -> pool1
I0428 19:49:16.042537 26714 net.cpp:124] Setting up pool1
I0428 19:49:16.042548 26714 net.cpp:131] Top shape: 64 5 4 4 (5120)
I0428 19:49:16.042557 26714 net.cpp:139] Memory required for data: 1224960
I0428 19:49:16.042562 26714 layer_factory.hpp:77] Creating layer ip1
I0428 19:49:16.042572 26714 net.cpp:86] Creating Layer ip1
I0428 19:49:16.042579 26714 net.cpp:408] ip1 <- pool1
I0428 19:49:16.042587 26714 net.cpp:382] ip1 -> ip1
I0428 19:49:16.043995 26714 net.cpp:124] Setting up ip1
I0428 19:49:16.044026 26714 net.cpp:131] Top shape: 64 25 (1600)
I0428 19:49:16.044034 26714 net.cpp:139] Memory required for data: 1231360
I0428 19:49:16.044075 26714 layer_factory.hpp:77] Creating layer relu1
I0428 19:49:16.044083 26714 net.cpp:86] Creating Layer relu1
I0428 19:49:16.044107 26714 net.cpp:408] relu1 <- ip1
I0428 19:49:16.044116 26714 net.cpp:369] relu1 -> ip1 (in-place)
I0428 19:49:16.044437 26714 net.cpp:124] Setting up relu1
I0428 19:49:16.044450 26714 net.cpp:131] Top shape: 64 25 (1600)
I0428 19:49:16.044471 26714 net.cpp:139] Memory required for data: 1237760
I0428 19:49:16.044488 26714 layer_factory.hpp:77] Creating layer ip2
I0428 19:49:16.044512 26714 net.cpp:86] Creating Layer ip2
I0428 19:49:16.044517 26714 net.cpp:408] ip2 <- ip1
I0428 19:49:16.044525 26714 net.cpp:382] ip2 -> ip2
I0428 19:49:16.044661 26714 net.cpp:124] Setting up ip2
I0428 19:49:16.044670 26714 net.cpp:131] Top shape: 64 10 (640)
I0428 19:49:16.044677 26714 net.cpp:139] Memory required for data: 1240320
I0428 19:49:16.044685 26714 layer_factory.hpp:77] Creating layer relu2
I0428 19:49:16.044695 26714 net.cpp:86] Creating Layer relu2
I0428 19:49:16.044701 26714 net.cpp:408] relu2 <- ip2
I0428 19:49:16.044708 26714 net.cpp:369] relu2 -> ip2 (in-place)
I0428 19:49:16.045814 26714 net.cpp:124] Setting up relu2
I0428 19:49:16.045845 26714 net.cpp:131] Top shape: 64 10 (640)
I0428 19:49:16.045851 26714 net.cpp:139] Memory required for data: 1242880
I0428 19:49:16.045856 26714 layer_factory.hpp:77] Creating layer ip3
I0428 19:49:16.045866 26714 net.cpp:86] Creating Layer ip3
I0428 19:49:16.045871 26714 net.cpp:408] ip3 <- ip2
I0428 19:49:16.045879 26714 net.cpp:382] ip3 -> ip3
I0428 19:49:16.046005 26714 net.cpp:124] Setting up ip3
I0428 19:49:16.046015 26714 net.cpp:131] Top shape: 64 10 (640)
I0428 19:49:16.046021 26714 net.cpp:139] Memory required for data: 1245440
I0428 19:49:16.046032 26714 layer_factory.hpp:77] Creating layer relu3
I0428 19:49:16.046041 26714 net.cpp:86] Creating Layer relu3
I0428 19:49:16.046048 26714 net.cpp:408] relu3 <- ip3
I0428 19:49:16.046056 26714 net.cpp:369] relu3 -> ip3 (in-place)
I0428 19:49:16.046334 26714 net.cpp:124] Setting up relu3
I0428 19:49:16.046349 26714 net.cpp:131] Top shape: 64 10 (640)
I0428 19:49:16.046355 26714 net.cpp:139] Memory required for data: 1248000
I0428 19:49:16.046361 26714 layer_factory.hpp:77] Creating layer loss
I0428 19:49:16.046371 26714 net.cpp:86] Creating Layer loss
I0428 19:49:16.046391 26714 net.cpp:408] loss <- ip3
I0428 19:49:16.046398 26714 net.cpp:408] loss <- label
I0428 19:49:16.046418 26714 net.cpp:382] loss -> loss
I0428 19:49:16.046443 26714 layer_factory.hpp:77] Creating layer loss
…
I0428 19:49:16.047521 26714 solver.cpp:173] Creating test net (#0) specified by net file: ECE595/mnist/train_test/var_everything2/lenet_train_test569.prototxt
I0428 19:49:16.047562 26714 net.cpp:296] The NetState phase (1) differed from the phase (0) specified by a rule in layer mnist
I0428 19:49:16.047718 26714 net.cpp:53] Initializing net from parameters: 
name: "LeNet"
state {
  phase: TEST
}
layer {
  name: "mnist"
  type: "Data"
  top: "data"
  top: "label"
  include {
    phase: TEST
  }
  transform_param {
    scale: 0.00390625
  }
  data_param {
    source: "examples/mnist/mnist_test_lmdb"
    batch_size: 100
    backend: LMDB
  }
}
layer {
  name: "conv0"
  type: "Convolution"
  bottom: "data"
  top: "conv0"
  param {
    lr_mult: 1
  }
  param {
    lr_mult: 2
  }
  convolution_param {
    num_output: 5
    kernel_size: 5
    stride: 1
    weight_filler {
      type: "xavier"
    }
    bias_filler {
      type: "constant"
    }
  }
}
layer {
  name: "pool0"
  type: "Pooling"
  bottom: "conv0"
  top: "pool0"
  pooling_param {
    pool: MAX
    kernel_size: 2
    stride: 2
  }
}
layer {
  name: "conv1"
  type: "Convolution"
  bottom: "pool0"
  top: "conv1"
  param {
    lr_mult: 1
  }
  param {
    lr_mult: 2
  }
  convolution_param {
    num_output: 5
    kernel_size: 5
    stride: 1
    weight_filler {
      type: "xavier"
    }
    bias_filler {
      type: "constant"
    }
  }
}
layer {
  name: "pool1"
  type: "Pooling"
  bottom: "conv1"
  top: "pool1"
  pooling_param {
    pool: MAX
    kernel_size: 2
    stride: 2
  }
}
layer {
  name: "ip1"
  type: "InnerProduct"
  bottom: "pool1"
  top: "ip1"
  param {
    lr_mult: 1
  }
  param {
    lr_mult: 2
  }
  inner_product_param {
    num_output: 25
    weight_filler {
      type: "xavier"
    }
    bias_filler {
      type: "constant"
    }
  }
}
layer {
  name: "relu1"
  type: "ReLU"
  bottom: "ip1"
  top: "ip1"
}
layer {
  name: "ip2"
  type: "InnerProduct"
  bottom: "ip1"
  top: "ip2"
  param {
    lr_mult: 1
  }
  param {
    lr_mult: 2
  }
  inner_product_param {
    num_output: 10
    weight_filler {
      type: "xavier"
    }
    bias_filler {
      type: "constant"
    }
  }
}
layer {
  name: "relu2"
  type: "ReLU"
  bottom: "ip2"
  top: "ip2"
}
layer {
  name: "ip3"
  type: "InnerProduct"
  bottom: "ip2"
  top: "ip3"
  param {
    lr_mult: 1
  }
  param {
    lr_mult: 2
  }
  inner_product_param {
    num_output: 10
    weight_filler {
      type: "xavier"
    }
    bias_filler {
      type: "constant"
    }
  }
}
layer {
  name: "relu3"
  type: "ReLU"
  bottom: "ip3"
  top: "ip3"
}
layer {
  name: "accuracy"
  type: "Accuracy"
  bottom: "ip3"
  bottom: "label"
  top: "accuracy"
  include {
    phase: TEST
  }
}
layer {
  name: "loss"
  type: "SoftmaxWithLoss"
  bottom: "ip3"
  bottom: "label"
  top: "loss"
}
I0428 19:49:16.047838 26714 layer_factory.hpp:77] Creating layer mnist
I0428 19:49:16.047909 26714 db_lmdb.cpp:35] Opened lmdb examples/mnist/mnist_test_lmdb
I0428 19:49:16.047945 26714 net.cpp:86] Creating Layer mnist
I0428 19:49:16.047952 26714 net.cpp:382] mnist -> data
I0428 19:49:16.047962 26714 net.cpp:382] mnist -> label
I0428 19:49:16.048071 26714 data_layer.cpp:45] output data size: 100,1,28,28
I0428 19:49:16.050779 26714 net.cpp:124] Setting up mnist
I0428 19:49:16.050794 26714 net.cpp:131] Top shape: 100 1 28 28 (78400)
I0428 19:49:16.050812 26714 net.cpp:131] Top shape: 100 (100)
I0428 19:49:16.050818 26714 net.cpp:139] Memory required for data: 314000
I0428 19:49:16.050824 26714 layer_factory.hpp:77] Creating layer label_mnist_1_split
I0428 19:49:16.050837 26714 net.cpp:86] Creating Layer label_mnist_1_split
I0428 19:49:16.050844 26714 net.cpp:408] label_mnist_1_split <- label
I0428 19:49:16.050853 26714 net.cpp:382] label_mnist_1_split -> label_mnist_1_split_0
I0428 19:49:16.050863 26714 net.cpp:382] label_mnist_1_split -> label_mnist_1_split_1
I0428 19:49:16.050977 26714 net.cpp:124] Setting up label_mnist_1_split
I0428 19:49:16.050989 26714 net.cpp:131] Top shape: 100 (100)
I0428 19:49:16.050995 26714 net.cpp:131] Top shape: 100 (100)
I0428 19:49:16.050999 26714 net.cpp:139] Memory required for data: 314800
I0428 19:49:16.051004 26714 layer_factory.hpp:77] Creating layer conv0
I0428 19:49:16.051018 26714 net.cpp:86] Creating Layer conv0
I0428 19:49:16.051025 26714 net.cpp:408] conv0 <- data
I0428 19:49:16.051035 26714 net.cpp:382] conv0 -> conv0
I0428 19:49:16.052956 26714 net.cpp:124] Setting up conv0
I0428 19:49:16.052973 26714 net.cpp:131] Top shape: 100 5 24 24 (288000)
I0428 19:49:16.052978 26714 net.cpp:139] Memory required for data: 1466800
I0428 19:49:16.052989 26714 layer_factory.hpp:77] Creating layer pool0
I0428 19:49:16.053000 26714 net.cpp:86] Creating Layer pool0
I0428 19:49:16.053006 26714 net.cpp:408] pool0 <- conv0
I0428 19:49:16.053014 26714 net.cpp:382] pool0 -> pool0
I0428 19:49:16.053072 26714 net.cpp:124] Setting up pool0
I0428 19:49:16.053086 26714 net.cpp:131] Top shape: 100 5 12 12 (72000)
I0428 19:49:16.053092 26714 net.cpp:139] Memory required for data: 1754800
I0428 19:49:16.053112 26714 layer_factory.hpp:77] Creating layer conv1
I0428 19:49:16.053127 26714 net.cpp:86] Creating Layer conv1
I0428 19:49:16.053133 26714 net.cpp:408] conv1 <- pool0
I0428 19:49:16.053143 26714 net.cpp:382] conv1 -> conv1
I0428 19:49:16.055757 26714 net.cpp:124] Setting up conv1
I0428 19:49:16.055768 26714 net.cpp:131] Top shape: 100 5 8 8 (32000)
I0428 19:49:16.055773 26714 net.cpp:139] Memory required for data: 1882800
I0428 19:49:16.055784 26714 layer_factory.hpp:77] Creating layer pool1
I0428 19:49:16.055794 26714 net.cpp:86] Creating Layer pool1
I0428 19:49:16.055799 26714 net.cpp:408] pool1 <- conv1
I0428 19:49:16.055809 26714 net.cpp:382] pool1 -> pool1
I0428 19:49:16.055894 26714 net.cpp:124] Setting up pool1
I0428 19:49:16.055907 26714 net.cpp:131] Top shape: 100 5 4 4 (8000)
I0428 19:49:16.055912 26714 net.cpp:139] Memory required for data: 1914800
I0428 19:49:16.055917 26714 layer_factory.hpp:77] Creating layer ip1
I0428 19:49:16.055925 26714 net.cpp:86] Creating Layer ip1
I0428 19:49:16.055930 26714 net.cpp:408] ip1 <- pool1
I0428 19:49:16.055938 26714 net.cpp:382] ip1 -> ip1
I0428 19:49:16.056124 26714 net.cpp:124] Setting up ip1
I0428 19:49:16.056135 26714 net.cpp:131] Top shape: 100 25 (2500)
I0428 19:49:16.056159 26714 net.cpp:139] Memory required for data: 1924800
I0428 19:49:16.056171 26714 layer_factory.hpp:77] Creating layer relu1
I0428 19:49:16.056181 26714 net.cpp:86] Creating Layer relu1
I0428 19:49:16.056188 26714 net.cpp:408] relu1 <- ip1
I0428 19:49:16.056198 26714 net.cpp:369] relu1 -> ip1 (in-place)
I0428 19:49:16.056453 26714 net.cpp:124] Setting up relu1
I0428 19:49:16.056464 26714 net.cpp:131] Top shape: 100 25 (2500)
I0428 19:49:16.056469 26714 net.cpp:139] Memory required for data: 1934800
I0428 19:49:16.056474 26714 layer_factory.hpp:77] Creating layer ip2
I0428 19:49:16.056502 26714 net.cpp:86] Creating Layer ip2
I0428 19:49:16.056524 26714 net.cpp:408] ip2 <- ip1
I0428 19:49:16.056532 26714 net.cpp:382] ip2 -> ip2
I0428 19:49:16.056711 26714 net.cpp:124] Setting up ip2
I0428 19:49:16.056722 26714 net.cpp:131] Top shape: 100 10 (1000)
I0428 19:49:16.056730 26714 net.cpp:139] Memory required for data: 1938800
I0428 19:49:16.056738 26714 layer_factory.hpp:77] Creating layer relu2
I0428 19:49:16.056747 26714 net.cpp:86] Creating Layer relu2
I0428 19:49:16.056754 26714 net.cpp:408] relu2 <- ip2
I0428 19:49:16.056763 26714 net.cpp:369] relu2 -> ip2 (in-place)
I0428 19:49:16.057062 26714 net.cpp:124] Setting up relu2
I0428 19:49:16.057085 26714 net.cpp:131] Top shape: 100 10 (1000)
I0428 19:49:16.057090 26714 net.cpp:139] Memory required for data: 1942800
I0428 19:49:16.057096 26714 layer_factory.hpp:77] Creating layer ip3
I0428 19:49:16.057103 26714 net.cpp:86] Creating Layer ip3
I0428 19:49:16.057109 26714 net.cpp:408] ip3 <- ip2
I0428 19:49:16.057118 26714 net.cpp:382] ip3 -> ip3
I0428 19:49:16.057277 26714 net.cpp:124] Setting up ip3
I0428 19:49:16.057287 26714 net.cpp:131] Top shape: 100 10 (1000)
I0428 19:49:16.057293 26714 net.cpp:139] Memory required for data: 1946800
I0428 19:49:16.057304 26714 layer_factory.hpp:77] Creating layer relu3
I0428 19:49:16.057314 26714 net.cpp:86] Creating Layer relu3
I0428 19:49:16.057320 26714 net.cpp:408] relu3 <- ip3
I0428 19:49:16.057327 26714 net.cpp:369] relu3 -> ip3 (in-place)
I0428 19:49:16.058409 26714 net.cpp:124] Setting up relu3
I0428 19:49:16.058426 26714 net.cpp:131] Top shape: 100 10 (1000)
I0428 19:49:16.058434 26714 net.cpp:139] Memory required for data: 1950800
I0428 19:49:16.058439 26714 layer_factory.hpp:77] Creating layer ip3_relu3_0_split
I0428 19:49:16.058449 26714 net.cpp:86] Creating Layer ip3_relu3_0_split
I0428 19:49:16.058456 26714 net.cpp:408] ip3_relu3_0_split <- ip3
I0428 19:49:16.058480 26714 net.cpp:382] ip3_relu3_0_split -> ip3_relu3_0_split_0
I0428 19:49:16.058490 26714 net.cpp:382] ip3_relu3_0_split -> ip3_relu3_0_split_1
I0428 19:49:16.058557 26714 net.cpp:124] Setting up ip3_relu3_0_split
I0428 19:49:16.058565 26714 net.cpp:131] Top shape: 100 10 (1000)
I0428 19:49:16.058573 26714 net.cpp:131] Top shape: 100 10 (1000)
I0428 19:49:16.058576 26714 net.cpp:139] Memory required for data: 1958800
I0428 19:49:16.058583 26714 layer_factory.hpp:77] Creating layer accuracy
I0428 19:49:16.058590 26714 net.cpp:86] Creating Layer accuracy
I0428 19:49:16.058596 26714 net.cpp:408] accuracy <- ip3_relu3_0_split_0
I0428 19:49:16.058603 26714 net.cpp:408] accuracy <- label_mnist_1_split_0
I0428 19:49:16.058611 26714 net.cpp:382] accuracy -> accuracy
…
