…
I0428 19:30:10.523135 22217 net.cpp:296] The NetState phase (0) differed from the phase (1) specified by a rule in layer mnist
I0428 19:30:10.523155 22217 net.cpp:296] The NetState phase (0) differed from the phase (1) specified by a rule in layer accuracy
I0428 19:30:10.523241 22217 net.cpp:53] Initializing net from parameters: 
name: "LeNet"
state {
  phase: TRAIN
  level: 0
  stage: ""
}
layer {
  name: "mnist"
  type: "Data"
  top: "data"
  top: "label"
  include {
    phase: TRAIN
  }
  transform_param {
    scale: 0.00390625
  }
  data_param {
    source: "examples/mnist/mnist_train_lmdb"
    batch_size: 64
    backend: LMDB
  }
}
layer {
  name: "conv0"
  type: "Convolution"
  bottom: "data"
  top: "conv0"
  param {
    lr_mult: 1
  }
  param {
    lr_mult: 2
  }
  convolution_param {
    num_output: 5
    kernel_size: 5
    stride: 1
    weight_filler {
      type: "xavier"
    }
    bias_filler {
      type: "constant"
    }
  }
}
layer {
  name: "pool0"
  type: "Pooling"
  bottom: "conv0"
  top: "pool0"
  pooling_param {
    pool: MAX
    kernel_size: 2
    stride: 2
  }
}
layer {
  name: "ip1"
  type: "InnerProduct"
  bottom: "pool0"
  top: "ip1"
  param {
    lr_mult: 1
  }
  param {
    lr_mult: 2
  }
  inner_product_param {
    num_output: 10
    weight_filler {
      type: "xavier"
    }
    bias_filler {
      type: "constant"
    }
  }
}
layer {
  name: "relu1"
  type: "ReLU"
  bottom: "ip1"
  top: "ip1"
}
layer {
  name: "ip2"
  type: "InnerProduct"
  bottom: "ip1"
  top: "ip2"
  param {
    lr_mult: 1
  }
  param {
    lr_mult: 2
  }
  inner_product_param {
    num_output: 10
    weight_filler {
      type: "xavier"
    }
    bias_filler {
      type: "constant"
    }
  }
}
layer {
  name: "relu2"
  type: "ReLU"
  bottom: "ip2"
  top: "ip2"
}
layer {
  name: "loss"
  type: "SoftmaxWithLoss"
  bottom: "ip2"
  bottom: "label"
  top: "loss"
}
I0428 19:30:10.523330 22217 layer_factory.hpp:77] Creating layer mnist
I0428 19:30:10.523463 22217 db_lmdb.cpp:35] Opened lmdb examples/mnist/mnist_train_lmdb
I0428 19:30:10.523497 22217 net.cpp:86] Creating Layer mnist
I0428 19:30:10.523509 22217 net.cpp:382] mnist -> data
I0428 19:30:10.523541 22217 net.cpp:382] mnist -> label
I0428 19:30:10.524732 22217 data_layer.cpp:45] output data size: 64,1,28,28
I0428 19:30:10.527204 22217 net.cpp:124] Setting up mnist
I0428 19:30:10.527225 22217 net.cpp:131] Top shape: 64 1 28 28 (50176)
I0428 19:30:10.527235 22217 net.cpp:131] Top shape: 64 (64)
I0428 19:30:10.527241 22217 net.cpp:139] Memory required for data: 200960
I0428 19:30:10.527252 22217 layer_factory.hpp:77] Creating layer conv0
I0428 19:30:10.527276 22217 net.cpp:86] Creating Layer conv0
I0428 19:30:10.527287 22217 net.cpp:408] conv0 <- data
I0428 19:30:10.527303 22217 net.cpp:382] conv0 -> conv0
I0428 19:30:10.815362 22217 net.cpp:124] Setting up conv0
I0428 19:30:10.815397 22217 net.cpp:131] Top shape: 64 5 24 24 (184320)
I0428 19:30:10.815403 22217 net.cpp:139] Memory required for data: 938240
I0428 19:30:10.815429 22217 layer_factory.hpp:77] Creating layer pool0
I0428 19:30:10.815450 22217 net.cpp:86] Creating Layer pool0
I0428 19:30:10.815467 22217 net.cpp:408] pool0 <- conv0
I0428 19:30:10.815479 22217 net.cpp:382] pool0 -> pool0
I0428 19:30:10.815547 22217 net.cpp:124] Setting up pool0
I0428 19:30:10.815559 22217 net.cpp:131] Top shape: 64 5 12 12 (46080)
I0428 19:30:10.815565 22217 net.cpp:139] Memory required for data: 1122560
I0428 19:30:10.815593 22217 layer_factory.hpp:77] Creating layer ip1
I0428 19:30:10.815608 22217 net.cpp:86] Creating Layer ip1
I0428 19:30:10.815614 22217 net.cpp:408] ip1 <- pool0
I0428 19:30:10.815625 22217 net.cpp:382] ip1 -> ip1
I0428 19:30:10.816781 22217 net.cpp:124] Setting up ip1
I0428 19:30:10.816800 22217 net.cpp:131] Top shape: 64 10 (640)
I0428 19:30:10.816807 22217 net.cpp:139] Memory required for data: 1125120
I0428 19:30:10.816831 22217 layer_factory.hpp:77] Creating layer relu1
I0428 19:30:10.816845 22217 net.cpp:86] Creating Layer relu1
I0428 19:30:10.816853 22217 net.cpp:408] relu1 <- ip1
I0428 19:30:10.816862 22217 net.cpp:369] relu1 -> ip1 (in-place)
I0428 19:30:10.817072 22217 net.cpp:124] Setting up relu1
I0428 19:30:10.817085 22217 net.cpp:131] Top shape: 64 10 (640)
I0428 19:30:10.817091 22217 net.cpp:139] Memory required for data: 1127680
I0428 19:30:10.817097 22217 layer_factory.hpp:77] Creating layer ip2
I0428 19:30:10.817109 22217 net.cpp:86] Creating Layer ip2
I0428 19:30:10.817116 22217 net.cpp:408] ip2 <- ip1
I0428 19:30:10.817127 22217 net.cpp:382] ip2 -> ip2
I0428 19:30:10.817251 22217 net.cpp:124] Setting up ip2
I0428 19:30:10.817262 22217 net.cpp:131] Top shape: 64 10 (640)
I0428 19:30:10.817268 22217 net.cpp:139] Memory required for data: 1130240
I0428 19:30:10.817284 22217 layer_factory.hpp:77] Creating layer relu2
I0428 19:30:10.817297 22217 net.cpp:86] Creating Layer relu2
I0428 19:30:10.817306 22217 net.cpp:408] relu2 <- ip2
I0428 19:30:10.817314 22217 net.cpp:369] relu2 -> ip2 (in-place)
I0428 19:30:10.818177 22217 net.cpp:124] Setting up relu2
I0428 19:30:10.818193 22217 net.cpp:131] Top shape: 64 10 (640)
I0428 19:30:10.818200 22217 net.cpp:139] Memory required for data: 1132800
I0428 19:30:10.818207 22217 layer_factory.hpp:77] Creating layer loss
I0428 19:30:10.818219 22217 net.cpp:86] Creating Layer loss
I0428 19:30:10.818228 22217 net.cpp:408] loss <- ip2
I0428 19:30:10.818236 22217 net.cpp:408] loss <- label
I0428 19:30:10.818248 22217 net.cpp:382] loss -> loss
I0428 19:30:10.818270 22217 layer_factory.hpp:77] Creating layer loss
…
I0428 19:30:10.818976 22217 solver.cpp:173] Creating test net (#0) specified by net file: ECE595/mnist/train_test/var_everything2/lenet_train_test82.prototxt
I0428 19:30:10.819015 22217 net.cpp:296] The NetState phase (1) differed from the phase (0) specified by a rule in layer mnist
I0428 19:30:10.819111 22217 net.cpp:53] Initializing net from parameters: 
name: "LeNet"
state {
  phase: TEST
}
layer {
  name: "mnist"
  type: "Data"
  top: "data"
  top: "label"
  include {
    phase: TEST
  }
  transform_param {
    scale: 0.00390625
  }
  data_param {
    source: "examples/mnist/mnist_test_lmdb"
    batch_size: 100
    backend: LMDB
  }
}
layer {
  name: "conv0"
  type: "Convolution"
  bottom: "data"
  top: "conv0"
  param {
    lr_mult: 1
  }
  param {
    lr_mult: 2
  }
  convolution_param {
    num_output: 5
    kernel_size: 5
    stride: 1
    weight_filler {
      type: "xavier"
    }
    bias_filler {
      type: "constant"
    }
  }
}
layer {
  name: "pool0"
  type: "Pooling"
  bottom: "conv0"
  top: "pool0"
  pooling_param {
    pool: MAX
    kernel_size: 2
    stride: 2
  }
}
layer {
  name: "ip1"
  type: "InnerProduct"
  bottom: "pool0"
  top: "ip1"
  param {
    lr_mult: 1
  }
  param {
    lr_mult: 2
  }
  inner_product_param {
    num_output: 10
    weight_filler {
      type: "xavier"
    }
    bias_filler {
      type: "constant"
    }
  }
}
layer {
  name: "relu1"
  type: "ReLU"
  bottom: "ip1"
  top: "ip1"
}
layer {
  name: "ip2"
  type: "InnerProduct"
  bottom: "ip1"
  top: "ip2"
  param {
    lr_mult: 1
  }
  param {
    lr_mult: 2
  }
  inner_product_param {
    num_output: 10
    weight_filler {
      type: "xavier"
    }
    bias_filler {
      type: "constant"
    }
  }
}
layer {
  name: "relu2"
  type: "ReLU"
  bottom: "ip2"
  top: "ip2"
}
layer {
  name: "accuracy"
  type: "Accuracy"
  bottom: "ip2"
  bottom: "label"
  top: "accuracy"
  include {
    phase: TEST
  }
}
layer {
  name: "loss"
  type: "SoftmaxWithLoss"
  bottom: "ip2"
  bottom: "label"
  top: "loss"
}
I0428 19:30:10.819229 22217 layer_factory.hpp:77] Creating layer mnist
I0428 19:30:10.819298 22217 db_lmdb.cpp:35] Opened lmdb examples/mnist/mnist_test_lmdb
I0428 19:30:10.819319 22217 net.cpp:86] Creating Layer mnist
I0428 19:30:10.819329 22217 net.cpp:382] mnist -> data
I0428 19:30:10.819344 22217 net.cpp:382] mnist -> label
I0428 19:30:10.819486 22217 data_layer.cpp:45] output data size: 100,1,28,28
I0428 19:30:10.821998 22217 net.cpp:124] Setting up mnist
I0428 19:30:10.822017 22217 net.cpp:131] Top shape: 100 1 28 28 (78400)
I0428 19:30:10.822027 22217 net.cpp:131] Top shape: 100 (100)
I0428 19:30:10.822033 22217 net.cpp:139] Memory required for data: 314000
I0428 19:30:10.822041 22217 layer_factory.hpp:77] Creating layer label_mnist_1_split
I0428 19:30:10.822052 22217 net.cpp:86] Creating Layer label_mnist_1_split
I0428 19:30:10.822059 22217 net.cpp:408] label_mnist_1_split <- label
I0428 19:30:10.822069 22217 net.cpp:382] label_mnist_1_split -> label_mnist_1_split_0
I0428 19:30:10.822082 22217 net.cpp:382] label_mnist_1_split -> label_mnist_1_split_1
I0428 19:30:10.822180 22217 net.cpp:124] Setting up label_mnist_1_split
I0428 19:30:10.822192 22217 net.cpp:131] Top shape: 100 (100)
I0428 19:30:10.822199 22217 net.cpp:131] Top shape: 100 (100)
I0428 19:30:10.822206 22217 net.cpp:139] Memory required for data: 314800
I0428 19:30:10.822212 22217 layer_factory.hpp:77] Creating layer conv0
I0428 19:30:10.822228 22217 net.cpp:86] Creating Layer conv0
I0428 19:30:10.822237 22217 net.cpp:408] conv0 <- data
I0428 19:30:10.822248 22217 net.cpp:382] conv0 -> conv0
I0428 19:30:10.824021 22217 net.cpp:124] Setting up conv0
I0428 19:30:10.824040 22217 net.cpp:131] Top shape: 100 5 24 24 (288000)
I0428 19:30:10.824046 22217 net.cpp:139] Memory required for data: 1466800
I0428 19:30:10.824064 22217 layer_factory.hpp:77] Creating layer pool0
I0428 19:30:10.824077 22217 net.cpp:86] Creating Layer pool0
I0428 19:30:10.824091 22217 net.cpp:408] pool0 <- conv0
I0428 19:30:10.824100 22217 net.cpp:382] pool0 -> pool0
I0428 19:30:10.824151 22217 net.cpp:124] Setting up pool0
I0428 19:30:10.824160 22217 net.cpp:131] Top shape: 100 5 12 12 (72000)
I0428 19:30:10.824167 22217 net.cpp:139] Memory required for data: 1754800
I0428 19:30:10.824172 22217 layer_factory.hpp:77] Creating layer ip1
I0428 19:30:10.824185 22217 net.cpp:86] Creating Layer ip1
I0428 19:30:10.824192 22217 net.cpp:408] ip1 <- pool0
I0428 19:30:10.824201 22217 net.cpp:382] ip1 -> ip1
I0428 19:30:10.824362 22217 net.cpp:124] Setting up ip1
I0428 19:30:10.824373 22217 net.cpp:131] Top shape: 100 10 (1000)
I0428 19:30:10.824379 22217 net.cpp:139] Memory required for data: 1758800
I0428 19:30:10.824393 22217 layer_factory.hpp:77] Creating layer relu1
I0428 19:30:10.824404 22217 net.cpp:86] Creating Layer relu1
I0428 19:30:10.824409 22217 net.cpp:408] relu1 <- ip1
I0428 19:30:10.824419 22217 net.cpp:369] relu1 -> ip1 (in-place)
I0428 19:30:10.824687 22217 net.cpp:124] Setting up relu1
I0428 19:30:10.824699 22217 net.cpp:131] Top shape: 100 10 (1000)
I0428 19:30:10.824720 22217 net.cpp:139] Memory required for data: 1762800
I0428 19:30:10.824728 22217 layer_factory.hpp:77] Creating layer ip2
I0428 19:30:10.824739 22217 net.cpp:86] Creating Layer ip2
I0428 19:30:10.824746 22217 net.cpp:408] ip2 <- ip1
I0428 19:30:10.824756 22217 net.cpp:382] ip2 -> ip2
I0428 19:30:10.824893 22217 net.cpp:124] Setting up ip2
I0428 19:30:10.824904 22217 net.cpp:131] Top shape: 100 10 (1000)
I0428 19:30:10.824910 22217 net.cpp:139] Memory required for data: 1766800
I0428 19:30:10.824925 22217 layer_factory.hpp:77] Creating layer relu2
I0428 19:30:10.824934 22217 net.cpp:86] Creating Layer relu2
I0428 19:30:10.824944 22217 net.cpp:408] relu2 <- ip2
I0428 19:30:10.824954 22217 net.cpp:369] relu2 -> ip2 (in-place)
I0428 19:30:10.825136 22217 net.cpp:124] Setting up relu2
I0428 19:30:10.825147 22217 net.cpp:131] Top shape: 100 10 (1000)
I0428 19:30:10.825155 22217 net.cpp:139] Memory required for data: 1770800
I0428 19:30:10.825160 22217 layer_factory.hpp:77] Creating layer ip2_relu2_0_split
I0428 19:30:10.825171 22217 net.cpp:86] Creating Layer ip2_relu2_0_split
I0428 19:30:10.825178 22217 net.cpp:408] ip2_relu2_0_split <- ip2
I0428 19:30:10.825186 22217 net.cpp:382] ip2_relu2_0_split -> ip2_relu2_0_split_0
I0428 19:30:10.825199 22217 net.cpp:382] ip2_relu2_0_split -> ip2_relu2_0_split_1
I0428 19:30:10.825248 22217 net.cpp:124] Setting up ip2_relu2_0_split
I0428 19:30:10.825258 22217 net.cpp:131] Top shape: 100 10 (1000)
I0428 19:30:10.825265 22217 net.cpp:131] Top shape: 100 10 (1000)
I0428 19:30:10.825271 22217 net.cpp:139] Memory required for data: 1778800
I0428 19:30:10.825278 22217 layer_factory.hpp:77] Creating layer accuracy
I0428 19:30:10.825287 22217 net.cpp:86] Creating Layer accuracy
I0428 19:30:10.825294 22217 net.cpp:408] accuracy <- ip2_relu2_0_split_0
I0428 19:30:10.825301 22217 net.cpp:408] accuracy <- label_mnist_1_split_0
I0428 19:30:10.825310 22217 net.cpp:382] accuracy -> accuracy
…
