…
I0428 20:37:31.478407  4959 net.cpp:296] The NetState phase (0) differed from the phase (1) specified by a rule in layer mnist
I0428 20:37:31.478437  4959 net.cpp:296] The NetState phase (0) differed from the phase (1) specified by a rule in layer accuracy
I0428 20:37:31.478516  4959 net.cpp:53] Initializing net from parameters: 
name: "LeNet"
state {
  phase: TRAIN
  level: 0
  stage: ""
}
layer {
  name: "mnist"
  type: "Data"
  top: "data"
  top: "label"
  include {
    phase: TRAIN
  }
  transform_param {
    scale: 0.00390625
  }
  data_param {
    source: "examples/mnist/mnist_train_lmdb"
    batch_size: 64
    backend: LMDB
  }
}
layer {
  name: "conv0"
  type: "Convolution"
  bottom: "data"
  top: "conv0"
  param {
    lr_mult: 1
  }
  param {
    lr_mult: 2
  }
  convolution_param {
    num_output: 100
    kernel_size: 5
    stride: 1
    weight_filler {
      type: "xavier"
    }
    bias_filler {
      type: "constant"
    }
  }
}
layer {
  name: "pool0"
  type: "Pooling"
  bottom: "conv0"
  top: "pool0"
  pooling_param {
    pool: MAX
    kernel_size: 2
    stride: 2
  }
}
layer {
  name: "conv1"
  type: "Convolution"
  bottom: "pool0"
  top: "conv1"
  param {
    lr_mult: 1
  }
  param {
    lr_mult: 2
  }
  convolution_param {
    num_output: 100
    kernel_size: 5
    stride: 1
    weight_filler {
      type: "xavier"
    }
    bias_filler {
      type: "constant"
    }
  }
}
layer {
  name: "pool1"
  type: "Pooling"
  bottom: "conv1"
  top: "pool1"
  pooling_param {
    pool: MAX
    kernel_size: 2
    stride: 2
  }
}
layer {
  name: "ip1"
  type: "InnerProduct"
  bottom: "pool1"
  top: "ip1"
  param {
    lr_mult: 1
  }
  param {
    lr_mult: 2
  }
  inner_product_param {
    num_output: 10
    weight_filler {
      type: "xavier"
    }
    bias_filler {
      type: "constant"
    }
  }
}
layer {
  name: "relu1"
  type: "ReLU"
  bottom: "ip1"
  top: "ip1"
}
layer {
  name: "ip2"
  type: "InnerProduct"
  bottom: "ip1"
  top: "ip2"
  param {
    lr_mult: 1
  }
  param {
    lr_mult: 2
  }
  inner_product_param {
    num_output: 10
    weight_filler {
      type: "xavier"
    }
    bias_filler {
      type: "constant"
    }
  }
}
layer {
  name: "relu2"
  type: "ReLU"
  bottom: "ip2"
  top: "ip2"
}
layer {
  name: "ip3"
  type: "InnerProduct"
  bottom: "ip2"
  top: "ip3"
  param {
    lr_mult: 1
  }
  param {
    lr_mult: 2
  }
  inner_product_param {
    num_output: 10
    weight_filler {
      type: "xavier"
    }
    bias_filler {
      type: "constant"
    }
  }
}
layer {
  name: "relu3"
  type: "ReLU"
  bottom: "ip3"
  top: "ip3"
}
layer {
  name: "loss"
  type: "SoftmaxWithLoss"
  bottom: "ip3"
  bottom: "label"
  top: "loss"
}
I0428 20:37:31.478577  4959 layer_factory.hpp:77] Creating layer mnist
I0428 20:37:31.478654  4959 db_lmdb.cpp:35] Opened lmdb examples/mnist/mnist_train_lmdb
I0428 20:37:31.478673  4959 net.cpp:86] Creating Layer mnist
I0428 20:37:31.478679  4959 net.cpp:382] mnist -> data
I0428 20:37:31.478698  4959 net.cpp:382] mnist -> label
I0428 20:37:31.479588  4959 data_layer.cpp:45] output data size: 64,1,28,28
I0428 20:37:31.481714  4959 net.cpp:124] Setting up mnist
I0428 20:37:31.481745  4959 net.cpp:131] Top shape: 64 1 28 28 (50176)
I0428 20:37:31.481750  4959 net.cpp:131] Top shape: 64 (64)
I0428 20:37:31.481751  4959 net.cpp:139] Memory required for data: 200960
I0428 20:37:31.481757  4959 layer_factory.hpp:77] Creating layer conv0
I0428 20:37:31.481786  4959 net.cpp:86] Creating Layer conv0
I0428 20:37:31.481802  4959 net.cpp:408] conv0 <- data
I0428 20:37:31.481813  4959 net.cpp:382] conv0 -> conv0
I0428 20:37:31.716467  4959 net.cpp:124] Setting up conv0
I0428 20:37:31.716495  4959 net.cpp:131] Top shape: 64 100 24 24 (3686400)
I0428 20:37:31.716498  4959 net.cpp:139] Memory required for data: 14946560
I0428 20:37:31.716512  4959 layer_factory.hpp:77] Creating layer pool0
I0428 20:37:31.716524  4959 net.cpp:86] Creating Layer pool0
I0428 20:37:31.716528  4959 net.cpp:408] pool0 <- conv0
I0428 20:37:31.716533  4959 net.cpp:382] pool0 -> pool0
I0428 20:37:31.716595  4959 net.cpp:124] Setting up pool0
I0428 20:37:31.716600  4959 net.cpp:131] Top shape: 64 100 12 12 (921600)
I0428 20:37:31.716603  4959 net.cpp:139] Memory required for data: 18632960
I0428 20:37:31.716606  4959 layer_factory.hpp:77] Creating layer conv1
I0428 20:37:31.716616  4959 net.cpp:86] Creating Layer conv1
I0428 20:37:31.716619  4959 net.cpp:408] conv1 <- pool0
I0428 20:37:31.716624  4959 net.cpp:382] conv1 -> conv1
I0428 20:37:31.720835  4959 net.cpp:124] Setting up conv1
I0428 20:37:31.720865  4959 net.cpp:131] Top shape: 64 100 8 8 (409600)
I0428 20:37:31.720868  4959 net.cpp:139] Memory required for data: 20271360
I0428 20:37:31.720876  4959 layer_factory.hpp:77] Creating layer pool1
I0428 20:37:31.720883  4959 net.cpp:86] Creating Layer pool1
I0428 20:37:31.720887  4959 net.cpp:408] pool1 <- conv1
I0428 20:37:31.720891  4959 net.cpp:382] pool1 -> pool1
I0428 20:37:31.720927  4959 net.cpp:124] Setting up pool1
I0428 20:37:31.720932  4959 net.cpp:131] Top shape: 64 100 4 4 (102400)
I0428 20:37:31.720934  4959 net.cpp:139] Memory required for data: 20680960
I0428 20:37:31.720937  4959 layer_factory.hpp:77] Creating layer ip1
I0428 20:37:31.720947  4959 net.cpp:86] Creating Layer ip1
I0428 20:37:31.720950  4959 net.cpp:408] ip1 <- pool1
I0428 20:37:31.720955  4959 net.cpp:382] ip1 -> ip1
I0428 20:37:31.721972  4959 net.cpp:124] Setting up ip1
I0428 20:37:31.721985  4959 net.cpp:131] Top shape: 64 10 (640)
I0428 20:37:31.721989  4959 net.cpp:139] Memory required for data: 20683520
I0428 20:37:31.722002  4959 layer_factory.hpp:77] Creating layer relu1
I0428 20:37:31.722007  4959 net.cpp:86] Creating Layer relu1
I0428 20:37:31.722010  4959 net.cpp:408] relu1 <- ip1
I0428 20:37:31.722015  4959 net.cpp:369] relu1 -> ip1 (in-place)
I0428 20:37:31.722206  4959 net.cpp:124] Setting up relu1
I0428 20:37:31.722214  4959 net.cpp:131] Top shape: 64 10 (640)
I0428 20:37:31.722218  4959 net.cpp:139] Memory required for data: 20686080
I0428 20:37:31.722220  4959 layer_factory.hpp:77] Creating layer ip2
I0428 20:37:31.722226  4959 net.cpp:86] Creating Layer ip2
I0428 20:37:31.722229  4959 net.cpp:408] ip2 <- ip1
I0428 20:37:31.722234  4959 net.cpp:382] ip2 -> ip2
I0428 20:37:31.722321  4959 net.cpp:124] Setting up ip2
I0428 20:37:31.722327  4959 net.cpp:131] Top shape: 64 10 (640)
I0428 20:37:31.722329  4959 net.cpp:139] Memory required for data: 20688640
I0428 20:37:31.722335  4959 layer_factory.hpp:77] Creating layer relu2
I0428 20:37:31.722340  4959 net.cpp:86] Creating Layer relu2
I0428 20:37:31.722343  4959 net.cpp:408] relu2 <- ip2
I0428 20:37:31.722347  4959 net.cpp:369] relu2 -> ip2 (in-place)
I0428 20:37:31.723019  4959 net.cpp:124] Setting up relu2
I0428 20:37:31.723031  4959 net.cpp:131] Top shape: 64 10 (640)
I0428 20:37:31.723044  4959 net.cpp:139] Memory required for data: 20691200
I0428 20:37:31.723047  4959 layer_factory.hpp:77] Creating layer ip3
I0428 20:37:31.723054  4959 net.cpp:86] Creating Layer ip3
I0428 20:37:31.723057  4959 net.cpp:408] ip3 <- ip2
I0428 20:37:31.723062  4959 net.cpp:382] ip3 -> ip3
I0428 20:37:31.723186  4959 net.cpp:124] Setting up ip3
I0428 20:37:31.723193  4959 net.cpp:131] Top shape: 64 10 (640)
I0428 20:37:31.723196  4959 net.cpp:139] Memory required for data: 20693760
I0428 20:37:31.723203  4959 layer_factory.hpp:77] Creating layer relu3
I0428 20:37:31.723208  4959 net.cpp:86] Creating Layer relu3
I0428 20:37:31.723212  4959 net.cpp:408] relu3 <- ip3
I0428 20:37:31.723230  4959 net.cpp:369] relu3 -> ip3 (in-place)
I0428 20:37:31.723379  4959 net.cpp:124] Setting up relu3
I0428 20:37:31.723388  4959 net.cpp:131] Top shape: 64 10 (640)
I0428 20:37:31.723392  4959 net.cpp:139] Memory required for data: 20696320
I0428 20:37:31.723394  4959 layer_factory.hpp:77] Creating layer loss
I0428 20:37:31.723400  4959 net.cpp:86] Creating Layer loss
I0428 20:37:31.723403  4959 net.cpp:408] loss <- ip3
I0428 20:37:31.723407  4959 net.cpp:408] loss <- label
I0428 20:37:31.723412  4959 net.cpp:382] loss -> loss
I0428 20:37:31.723429  4959 layer_factory.hpp:77] Creating layer loss
…
I0428 20:37:31.724097  4959 solver.cpp:173] Creating test net (#0) specified by net file: ECE595/mnist/train_test/var_everything2/lenet_train_test1652.prototxt
I0428 20:37:31.724134  4959 net.cpp:296] The NetState phase (1) differed from the phase (0) specified by a rule in layer mnist
I0428 20:37:31.724226  4959 net.cpp:53] Initializing net from parameters: 
name: "LeNet"
state {
  phase: TEST
}
layer {
  name: "mnist"
  type: "Data"
  top: "data"
  top: "label"
  include {
    phase: TEST
  }
  transform_param {
    scale: 0.00390625
  }
  data_param {
    source: "examples/mnist/mnist_test_lmdb"
    batch_size: 100
    backend: LMDB
  }
}
layer {
  name: "conv0"
  type: "Convolution"
  bottom: "data"
  top: "conv0"
  param {
    lr_mult: 1
  }
  param {
    lr_mult: 2
  }
  convolution_param {
    num_output: 100
    kernel_size: 5
    stride: 1
    weight_filler {
      type: "xavier"
    }
    bias_filler {
      type: "constant"
    }
  }
}
layer {
  name: "pool0"
  type: "Pooling"
  bottom: "conv0"
  top: "pool0"
  pooling_param {
    pool: MAX
    kernel_size: 2
    stride: 2
  }
}
layer {
  name: "conv1"
  type: "Convolution"
  bottom: "pool0"
  top: "conv1"
  param {
    lr_mult: 1
  }
  param {
    lr_mult: 2
  }
  convolution_param {
    num_output: 100
    kernel_size: 5
    stride: 1
    weight_filler {
      type: "xavier"
    }
    bias_filler {
      type: "constant"
    }
  }
}
layer {
  name: "pool1"
  type: "Pooling"
  bottom: "conv1"
  top: "pool1"
  pooling_param {
    pool: MAX
    kernel_size: 2
    stride: 2
  }
}
layer {
  name: "ip1"
  type: "InnerProduct"
  bottom: "pool1"
  top: "ip1"
  param {
    lr_mult: 1
  }
  param {
    lr_mult: 2
  }
  inner_product_param {
    num_output: 10
    weight_filler {
      type: "xavier"
    }
    bias_filler {
      type: "constant"
    }
  }
}
layer {
  name: "relu1"
  type: "ReLU"
  bottom: "ip1"
  top: "ip1"
}
layer {
  name: "ip2"
  type: "InnerProduct"
  bottom: "ip1"
  top: "ip2"
  param {
    lr_mult: 1
  }
  param {
    lr_mult: 2
  }
  inner_product_param {
    num_output: 10
    weight_filler {
      type: "xavier"
    }
    bias_filler {
      type: "constant"
    }
  }
}
layer {
  name: "relu2"
  type: "ReLU"
  bottom: "ip2"
  top: "ip2"
}
layer {
  name: "ip3"
  type: "InnerProduct"
  bottom: "ip2"
  top: "ip3"
  param {
    lr_mult: 1
  }
  param {
    lr_mult: 2
  }
  inner_product_param {
    num_output: 10
    weight_filler {
      type: "xavier"
    }
    bias_filler {
      type: "constant"
    }
  }
}
layer {
  name: "relu3"
  type: "ReLU"
  bottom: "ip3"
  top: "ip3"
}
layer {
  name: "accuracy"
  type: "Accuracy"
  bottom: "ip3"
  bottom: "label"
  top: "accuracy"
  include {
    phase: TEST
  }
}
layer {
  name: "loss"
  type: "SoftmaxWithLoss"
  bottom: "ip3"
  bottom: "label"
  top: "loss"
}
I0428 20:37:31.724303  4959 layer_factory.hpp:77] Creating layer mnist
I0428 20:37:31.724376  4959 db_lmdb.cpp:35] Opened lmdb examples/mnist/mnist_test_lmdb
I0428 20:37:31.724388  4959 net.cpp:86] Creating Layer mnist
I0428 20:37:31.724392  4959 net.cpp:382] mnist -> data
I0428 20:37:31.724414  4959 net.cpp:382] mnist -> label
I0428 20:37:31.724494  4959 data_layer.cpp:45] output data size: 100,1,28,28
I0428 20:37:31.726413  4959 net.cpp:124] Setting up mnist
I0428 20:37:31.726442  4959 net.cpp:131] Top shape: 100 1 28 28 (78400)
I0428 20:37:31.726447  4959 net.cpp:131] Top shape: 100 (100)
I0428 20:37:31.726451  4959 net.cpp:139] Memory required for data: 314000
I0428 20:37:31.726454  4959 layer_factory.hpp:77] Creating layer label_mnist_1_split
I0428 20:37:31.726481  4959 net.cpp:86] Creating Layer label_mnist_1_split
I0428 20:37:31.726487  4959 net.cpp:408] label_mnist_1_split <- label
I0428 20:37:31.726492  4959 net.cpp:382] label_mnist_1_split -> label_mnist_1_split_0
I0428 20:37:31.726500  4959 net.cpp:382] label_mnist_1_split -> label_mnist_1_split_1
I0428 20:37:31.726541  4959 net.cpp:124] Setting up label_mnist_1_split
I0428 20:37:31.726547  4959 net.cpp:131] Top shape: 100 (100)
I0428 20:37:31.726550  4959 net.cpp:131] Top shape: 100 (100)
I0428 20:37:31.726553  4959 net.cpp:139] Memory required for data: 314800
I0428 20:37:31.726557  4959 layer_factory.hpp:77] Creating layer conv0
I0428 20:37:31.726564  4959 net.cpp:86] Creating Layer conv0
I0428 20:37:31.726567  4959 net.cpp:408] conv0 <- data
I0428 20:37:31.726572  4959 net.cpp:382] conv0 -> conv0
I0428 20:37:31.728416  4959 net.cpp:124] Setting up conv0
I0428 20:37:31.728446  4959 net.cpp:131] Top shape: 100 100 24 24 (5760000)
I0428 20:37:31.728448  4959 net.cpp:139] Memory required for data: 23354800
I0428 20:37:31.728457  4959 layer_factory.hpp:77] Creating layer pool0
I0428 20:37:31.728464  4959 net.cpp:86] Creating Layer pool0
I0428 20:37:31.728467  4959 net.cpp:408] pool0 <- conv0
I0428 20:37:31.728472  4959 net.cpp:382] pool0 -> pool0
I0428 20:37:31.728518  4959 net.cpp:124] Setting up pool0
I0428 20:37:31.728523  4959 net.cpp:131] Top shape: 100 100 12 12 (1440000)
I0428 20:37:31.728526  4959 net.cpp:139] Memory required for data: 29114800
I0428 20:37:31.728529  4959 layer_factory.hpp:77] Creating layer conv1
I0428 20:37:31.728538  4959 net.cpp:86] Creating Layer conv1
I0428 20:37:31.728540  4959 net.cpp:408] conv1 <- pool0
I0428 20:37:31.728545  4959 net.cpp:382] conv1 -> conv1
I0428 20:37:31.731650  4959 net.cpp:124] Setting up conv1
I0428 20:37:31.731679  4959 net.cpp:131] Top shape: 100 100 8 8 (640000)
I0428 20:37:31.731683  4959 net.cpp:139] Memory required for data: 31674800
I0428 20:37:31.731691  4959 layer_factory.hpp:77] Creating layer pool1
I0428 20:37:31.731699  4959 net.cpp:86] Creating Layer pool1
I0428 20:37:31.731703  4959 net.cpp:408] pool1 <- conv1
I0428 20:37:31.731709  4959 net.cpp:382] pool1 -> pool1
I0428 20:37:31.731755  4959 net.cpp:124] Setting up pool1
I0428 20:37:31.731761  4959 net.cpp:131] Top shape: 100 100 4 4 (160000)
I0428 20:37:31.731765  4959 net.cpp:139] Memory required for data: 32314800
I0428 20:37:31.731768  4959 layer_factory.hpp:77] Creating layer ip1
I0428 20:37:31.731775  4959 net.cpp:86] Creating Layer ip1
I0428 20:37:31.731777  4959 net.cpp:408] ip1 <- pool1
I0428 20:37:31.731782  4959 net.cpp:382] ip1 -> ip1
I0428 20:37:31.731971  4959 net.cpp:124] Setting up ip1
I0428 20:37:31.731988  4959 net.cpp:131] Top shape: 100 10 (1000)
I0428 20:37:31.731992  4959 net.cpp:139] Memory required for data: 32318800
I0428 20:37:31.731999  4959 layer_factory.hpp:77] Creating layer relu1
I0428 20:37:31.732004  4959 net.cpp:86] Creating Layer relu1
I0428 20:37:31.732014  4959 net.cpp:408] relu1 <- ip1
I0428 20:37:31.732018  4959 net.cpp:369] relu1 -> ip1 (in-place)
I0428 20:37:31.732178  4959 net.cpp:124] Setting up relu1
I0428 20:37:31.732187  4959 net.cpp:131] Top shape: 100 10 (1000)
I0428 20:37:31.732190  4959 net.cpp:139] Memory required for data: 32322800
I0428 20:37:31.732193  4959 layer_factory.hpp:77] Creating layer ip2
I0428 20:37:31.732201  4959 net.cpp:86] Creating Layer ip2
I0428 20:37:31.732204  4959 net.cpp:408] ip2 <- ip1
I0428 20:37:31.732208  4959 net.cpp:382] ip2 -> ip2
I0428 20:37:31.732321  4959 net.cpp:124] Setting up ip2
I0428 20:37:31.732328  4959 net.cpp:131] Top shape: 100 10 (1000)
I0428 20:37:31.732331  4959 net.cpp:139] Memory required for data: 32326800
I0428 20:37:31.732337  4959 layer_factory.hpp:77] Creating layer relu2
I0428 20:37:31.732342  4959 net.cpp:86] Creating Layer relu2
I0428 20:37:31.732345  4959 net.cpp:408] relu2 <- ip2
I0428 20:37:31.732349  4959 net.cpp:369] relu2 -> ip2 (in-place)
I0428 20:37:31.732558  4959 net.cpp:124] Setting up relu2
I0428 20:37:31.732566  4959 net.cpp:131] Top shape: 100 10 (1000)
I0428 20:37:31.732569  4959 net.cpp:139] Memory required for data: 32330800
I0428 20:37:31.732573  4959 layer_factory.hpp:77] Creating layer ip3
I0428 20:37:31.732579  4959 net.cpp:86] Creating Layer ip3
I0428 20:37:31.732583  4959 net.cpp:408] ip3 <- ip2
I0428 20:37:31.732587  4959 net.cpp:382] ip3 -> ip3
I0428 20:37:31.732709  4959 net.cpp:124] Setting up ip3
I0428 20:37:31.732717  4959 net.cpp:131] Top shape: 100 10 (1000)
I0428 20:37:31.732720  4959 net.cpp:139] Memory required for data: 32334800
I0428 20:37:31.732728  4959 layer_factory.hpp:77] Creating layer relu3
I0428 20:37:31.732733  4959 net.cpp:86] Creating Layer relu3
I0428 20:37:31.732734  4959 net.cpp:408] relu3 <- ip3
I0428 20:37:31.732738  4959 net.cpp:369] relu3 -> ip3 (in-place)
I0428 20:37:31.733590  4959 net.cpp:124] Setting up relu3
I0428 20:37:31.733606  4959 net.cpp:131] Top shape: 100 10 (1000)
I0428 20:37:31.733609  4959 net.cpp:139] Memory required for data: 32338800
I0428 20:37:31.733613  4959 layer_factory.hpp:77] Creating layer ip3_relu3_0_split
I0428 20:37:31.733619  4959 net.cpp:86] Creating Layer ip3_relu3_0_split
I0428 20:37:31.733623  4959 net.cpp:408] ip3_relu3_0_split <- ip3
I0428 20:37:31.733628  4959 net.cpp:382] ip3_relu3_0_split -> ip3_relu3_0_split_0
I0428 20:37:31.733634  4959 net.cpp:382] ip3_relu3_0_split -> ip3_relu3_0_split_1
I0428 20:37:31.733674  4959 net.cpp:124] Setting up ip3_relu3_0_split
I0428 20:37:31.733680  4959 net.cpp:131] Top shape: 100 10 (1000)
I0428 20:37:31.733685  4959 net.cpp:131] Top shape: 100 10 (1000)
I0428 20:37:31.733687  4959 net.cpp:139] Memory required for data: 32346800
I0428 20:37:31.733690  4959 layer_factory.hpp:77] Creating layer accuracy
I0428 20:37:31.733696  4959 net.cpp:86] Creating Layer accuracy
I0428 20:37:31.733700  4959 net.cpp:408] accuracy <- ip3_relu3_0_split_0
I0428 20:37:31.733703  4959 net.cpp:408] accuracy <- label_mnist_1_split_0
I0428 20:37:31.733708  4959 net.cpp:382] accuracy -> accuracy
…
