…
I0428 19:32:33.821460 22865 net.cpp:296] The NetState phase (0) differed from the phase (1) specified by a rule in layer mnist
I0428 19:32:33.821480 22865 net.cpp:296] The NetState phase (0) differed from the phase (1) specified by a rule in layer accuracy
I0428 19:32:33.821561 22865 net.cpp:53] Initializing net from parameters: 
name: "LeNet"
state {
  phase: TRAIN
  level: 0
  stage: ""
}
layer {
  name: "mnist"
  type: "Data"
  top: "data"
  top: "label"
  include {
    phase: TRAIN
  }
  transform_param {
    scale: 0.00390625
  }
  data_param {
    source: "examples/mnist/mnist_train_lmdb"
    batch_size: 64
    backend: LMDB
  }
}
layer {
  name: "conv0"
  type: "Convolution"
  bottom: "data"
  top: "conv0"
  param {
    lr_mult: 1
  }
  param {
    lr_mult: 2
  }
  convolution_param {
    num_output: 25
    kernel_size: 5
    stride: 1
    weight_filler {
      type: "xavier"
    }
    bias_filler {
      type: "constant"
    }
  }
}
layer {
  name: "pool0"
  type: "Pooling"
  bottom: "conv0"
  top: "pool0"
  pooling_param {
    pool: MAX
    kernel_size: 2
    stride: 2
  }
}
layer {
  name: "ip1"
  type: "InnerProduct"
  bottom: "pool0"
  top: "ip1"
  param {
    lr_mult: 1
  }
  param {
    lr_mult: 2
  }
  inner_product_param {
    num_output: 10
    weight_filler {
      type: "xavier"
    }
    bias_filler {
      type: "constant"
    }
  }
}
layer {
  name: "relu1"
  type: "ReLU"
  bottom: "ip1"
  top: "ip1"
}
layer {
  name: "loss"
  type: "SoftmaxWithLoss"
  bottom: "ip1"
  bottom: "label"
  top: "loss"
}
I0428 19:32:33.821650 22865 layer_factory.hpp:77] Creating layer mnist
I0428 19:32:33.821780 22865 db_lmdb.cpp:35] Opened lmdb examples/mnist/mnist_train_lmdb
I0428 19:32:33.821815 22865 net.cpp:86] Creating Layer mnist
I0428 19:32:33.821828 22865 net.cpp:382] mnist -> data
I0428 19:32:33.821861 22865 net.cpp:382] mnist -> label
I0428 19:32:33.823014 22865 data_layer.cpp:45] output data size: 64,1,28,28
I0428 19:32:33.825495 22865 net.cpp:124] Setting up mnist
I0428 19:32:33.825517 22865 net.cpp:131] Top shape: 64 1 28 28 (50176)
I0428 19:32:33.825528 22865 net.cpp:131] Top shape: 64 (64)
I0428 19:32:33.825534 22865 net.cpp:139] Memory required for data: 200960
I0428 19:32:33.825546 22865 layer_factory.hpp:77] Creating layer conv0
I0428 19:32:33.825577 22865 net.cpp:86] Creating Layer conv0
I0428 19:32:33.825587 22865 net.cpp:408] conv0 <- data
I0428 19:32:33.825605 22865 net.cpp:382] conv0 -> conv0
I0428 19:32:34.108467 22865 net.cpp:124] Setting up conv0
I0428 19:32:34.108499 22865 net.cpp:131] Top shape: 64 25 24 24 (921600)
I0428 19:32:34.108505 22865 net.cpp:139] Memory required for data: 3887360
I0428 19:32:34.108525 22865 layer_factory.hpp:77] Creating layer pool0
I0428 19:32:34.108541 22865 net.cpp:86] Creating Layer pool0
I0428 19:32:34.108554 22865 net.cpp:408] pool0 <- conv0
I0428 19:32:34.108563 22865 net.cpp:382] pool0 -> pool0
I0428 19:32:34.108618 22865 net.cpp:124] Setting up pool0
I0428 19:32:34.108628 22865 net.cpp:131] Top shape: 64 25 12 12 (230400)
I0428 19:32:34.108633 22865 net.cpp:139] Memory required for data: 4808960
I0428 19:32:34.108638 22865 layer_factory.hpp:77] Creating layer ip1
I0428 19:32:34.108649 22865 net.cpp:86] Creating Layer ip1
I0428 19:32:34.108659 22865 net.cpp:408] ip1 <- pool0
I0428 19:32:34.108667 22865 net.cpp:382] ip1 -> ip1
I0428 19:32:34.108978 22865 net.cpp:124] Setting up ip1
I0428 19:32:34.108989 22865 net.cpp:131] Top shape: 64 10 (640)
I0428 19:32:34.109009 22865 net.cpp:139] Memory required for data: 4811520
I0428 19:32:34.109021 22865 layer_factory.hpp:77] Creating layer relu1
I0428 19:32:34.109031 22865 net.cpp:86] Creating Layer relu1
I0428 19:32:34.109038 22865 net.cpp:408] relu1 <- ip1
I0428 19:32:34.109045 22865 net.cpp:369] relu1 -> ip1 (in-place)
I0428 19:32:34.109213 22865 net.cpp:124] Setting up relu1
I0428 19:32:34.109223 22865 net.cpp:131] Top shape: 64 10 (640)
I0428 19:32:34.109228 22865 net.cpp:139] Memory required for data: 4814080
I0428 19:32:34.109233 22865 layer_factory.hpp:77] Creating layer loss
I0428 19:32:34.109241 22865 net.cpp:86] Creating Layer loss
I0428 19:32:34.109247 22865 net.cpp:408] loss <- ip1
I0428 19:32:34.109254 22865 net.cpp:408] loss <- label
I0428 19:32:34.109262 22865 net.cpp:382] loss -> loss
I0428 19:32:34.109282 22865 layer_factory.hpp:77] Creating layer loss
…
I0428 19:32:34.110394 22865 solver.cpp:173] Creating test net (#0) specified by net file: ECE595/mnist/train_test/var_everything2/lenet_train_test156.prototxt
I0428 19:32:34.110422 22865 net.cpp:296] The NetState phase (1) differed from the phase (0) specified by a rule in layer mnist
I0428 19:32:34.110493 22865 net.cpp:53] Initializing net from parameters: 
name: "LeNet"
state {
  phase: TEST
}
layer {
  name: "mnist"
  type: "Data"
  top: "data"
  top: "label"
  include {
    phase: TEST
  }
  transform_param {
    scale: 0.00390625
  }
  data_param {
    source: "examples/mnist/mnist_test_lmdb"
    batch_size: 100
    backend: LMDB
  }
}
layer {
  name: "conv0"
  type: "Convolution"
  bottom: "data"
  top: "conv0"
  param {
    lr_mult: 1
  }
  param {
    lr_mult: 2
  }
  convolution_param {
    num_output: 25
    kernel_size: 5
    stride: 1
    weight_filler {
      type: "xavier"
    }
    bias_filler {
      type: "constant"
    }
  }
}
layer {
  name: "pool0"
  type: "Pooling"
  bottom: "conv0"
  top: "pool0"
  pooling_param {
    pool: MAX
    kernel_size: 2
    stride: 2
  }
}
layer {
  name: "ip1"
  type: "InnerProduct"
  bottom: "pool0"
  top: "ip1"
  param {
    lr_mult: 1
  }
  param {
    lr_mult: 2
  }
  inner_product_param {
    num_output: 10
    weight_filler {
      type: "xavier"
    }
    bias_filler {
      type: "constant"
    }
  }
}
layer {
  name: "relu1"
  type: "ReLU"
  bottom: "ip1"
  top: "ip1"
}
layer {
  name: "accuracy"
  type: "Accuracy"
  bottom: "ip1"
  bottom: "label"
  top: "accuracy"
  include {
    phase: TEST
  }
}
layer {
  name: "loss"
  type: "SoftmaxWithLoss"
  bottom: "ip1"
  bottom: "label"
  top: "loss"
}
I0428 19:32:34.110579 22865 layer_factory.hpp:77] Creating layer mnist
I0428 19:32:34.110637 22865 db_lmdb.cpp:35] Opened lmdb examples/mnist/mnist_test_lmdb
I0428 19:32:34.110654 22865 net.cpp:86] Creating Layer mnist
I0428 19:32:34.110666 22865 net.cpp:382] mnist -> data
I0428 19:32:34.110677 22865 net.cpp:382] mnist -> label
I0428 19:32:34.110817 22865 data_layer.cpp:45] output data size: 100,1,28,28
I0428 19:32:34.112725 22865 net.cpp:124] Setting up mnist
I0428 19:32:34.112740 22865 net.cpp:131] Top shape: 100 1 28 28 (78400)
I0428 19:32:34.112747 22865 net.cpp:131] Top shape: 100 (100)
I0428 19:32:34.112751 22865 net.cpp:139] Memory required for data: 314000
I0428 19:32:34.112769 22865 layer_factory.hpp:77] Creating layer label_mnist_1_split
I0428 19:32:34.112779 22865 net.cpp:86] Creating Layer label_mnist_1_split
I0428 19:32:34.112785 22865 net.cpp:408] label_mnist_1_split <- label
I0428 19:32:34.112795 22865 net.cpp:382] label_mnist_1_split -> label_mnist_1_split_0
I0428 19:32:34.112807 22865 net.cpp:382] label_mnist_1_split -> label_mnist_1_split_1
I0428 19:32:34.112951 22865 net.cpp:124] Setting up label_mnist_1_split
I0428 19:32:34.112962 22865 net.cpp:131] Top shape: 100 (100)
I0428 19:32:34.112969 22865 net.cpp:131] Top shape: 100 (100)
I0428 19:32:34.112974 22865 net.cpp:139] Memory required for data: 314800
I0428 19:32:34.112980 22865 layer_factory.hpp:77] Creating layer conv0
I0428 19:32:34.112996 22865 net.cpp:86] Creating Layer conv0
I0428 19:32:34.113004 22865 net.cpp:408] conv0 <- data
I0428 19:32:34.113018 22865 net.cpp:382] conv0 -> conv0
I0428 19:32:34.114644 22865 net.cpp:124] Setting up conv0
I0428 19:32:34.114658 22865 net.cpp:131] Top shape: 100 25 24 24 (1440000)
I0428 19:32:34.114665 22865 net.cpp:139] Memory required for data: 6074800
I0428 19:32:34.114678 22865 layer_factory.hpp:77] Creating layer pool0
I0428 19:32:34.114689 22865 net.cpp:86] Creating Layer pool0
I0428 19:32:34.114696 22865 net.cpp:408] pool0 <- conv0
I0428 19:32:34.114704 22865 net.cpp:382] pool0 -> pool0
I0428 19:32:34.114747 22865 net.cpp:124] Setting up pool0
I0428 19:32:34.114755 22865 net.cpp:131] Top shape: 100 25 12 12 (360000)
I0428 19:32:34.114760 22865 net.cpp:139] Memory required for data: 7514800
I0428 19:32:34.114765 22865 layer_factory.hpp:77] Creating layer ip1
I0428 19:32:34.114776 22865 net.cpp:86] Creating Layer ip1
I0428 19:32:34.114781 22865 net.cpp:408] ip1 <- pool0
I0428 19:32:34.114791 22865 net.cpp:382] ip1 -> ip1
I0428 19:32:34.115137 22865 net.cpp:124] Setting up ip1
I0428 19:32:34.115147 22865 net.cpp:131] Top shape: 100 10 (1000)
I0428 19:32:34.115152 22865 net.cpp:139] Memory required for data: 7518800
I0428 19:32:34.115165 22865 layer_factory.hpp:77] Creating layer relu1
I0428 19:32:34.115175 22865 net.cpp:86] Creating Layer relu1
I0428 19:32:34.115180 22865 net.cpp:408] relu1 <- ip1
I0428 19:32:34.115190 22865 net.cpp:369] relu1 -> ip1 (in-place)
I0428 19:32:34.115468 22865 net.cpp:124] Setting up relu1
I0428 19:32:34.115478 22865 net.cpp:131] Top shape: 100 10 (1000)
I0428 19:32:34.115483 22865 net.cpp:139] Memory required for data: 7522800
I0428 19:32:34.115490 22865 layer_factory.hpp:77] Creating layer ip1_relu1_0_split
I0428 19:32:34.115499 22865 net.cpp:86] Creating Layer ip1_relu1_0_split
I0428 19:32:34.115506 22865 net.cpp:408] ip1_relu1_0_split <- ip1
I0428 19:32:34.115519 22865 net.cpp:382] ip1_relu1_0_split -> ip1_relu1_0_split_0
I0428 19:32:34.115530 22865 net.cpp:382] ip1_relu1_0_split -> ip1_relu1_0_split_1
I0428 19:32:34.115577 22865 net.cpp:124] Setting up ip1_relu1_0_split
I0428 19:32:34.115586 22865 net.cpp:131] Top shape: 100 10 (1000)
I0428 19:32:34.115592 22865 net.cpp:131] Top shape: 100 10 (1000)
I0428 19:32:34.115599 22865 net.cpp:139] Memory required for data: 7530800
I0428 19:32:34.115604 22865 layer_factory.hpp:77] Creating layer accuracy
I0428 19:32:34.115613 22865 net.cpp:86] Creating Layer accuracy
I0428 19:32:34.115619 22865 net.cpp:408] accuracy <- ip1_relu1_0_split_0
I0428 19:32:34.115627 22865 net.cpp:408] accuracy <- label_mnist_1_split_0
I0428 19:32:34.115635 22865 net.cpp:382] accuracy -> accuracy
…
