…
I0428 19:27:43.873708 21383 net.cpp:296] The NetState phase (0) differed from the phase (1) specified by a rule in layer mnist
I0428 19:27:43.873723 21383 net.cpp:296] The NetState phase (0) differed from the phase (1) specified by a rule in layer accuracy
I0428 19:27:43.873785 21383 net.cpp:53] Initializing net from parameters: 
name: "LeNet"
state {
  phase: TRAIN
  level: 0
  stage: ""
}
layer {
  name: "mnist"
  type: "Data"
  top: "data"
  top: "label"
  include {
    phase: TRAIN
  }
  transform_param {
    scale: 0.00390625
  }
  data_param {
    source: "examples/mnist/mnist_train_lmdb"
    batch_size: 64
    backend: LMDB
  }
}
layer {
  name: "ip1"
  type: "InnerProduct"
  bottom: "data"
  top: "ip1"
  param {
    lr_mult: 1
  }
  param {
    lr_mult: 2
  }
  inner_product_param {
    num_output: 10
    weight_filler {
      type: "xavier"
    }
    bias_filler {
      type: "constant"
    }
  }
}
layer {
  name: "relu1"
  type: "ReLU"
  bottom: "ip1"
  top: "ip1"
}
layer {
  name: "loss"
  type: "SoftmaxWithLoss"
  bottom: "ip1"
  bottom: "label"
  top: "loss"
}
I0428 19:27:43.873853 21383 layer_factory.hpp:77] Creating layer mnist
I0428 19:27:43.873963 21383 db_lmdb.cpp:35] Opened lmdb examples/mnist/mnist_train_lmdb
I0428 19:27:43.873996 21383 net.cpp:86] Creating Layer mnist
I0428 19:27:43.874007 21383 net.cpp:382] mnist -> data
I0428 19:27:43.874038 21383 net.cpp:382] mnist -> label
I0428 19:27:43.875150 21383 data_layer.cpp:45] output data size: 64,1,28,28
I0428 19:27:43.877640 21383 net.cpp:124] Setting up mnist
I0428 19:27:43.877660 21383 net.cpp:131] Top shape: 64 1 28 28 (50176)
I0428 19:27:43.877671 21383 net.cpp:131] Top shape: 64 (64)
I0428 19:27:43.877676 21383 net.cpp:139] Memory required for data: 200960
I0428 19:27:43.877687 21383 layer_factory.hpp:77] Creating layer ip1
I0428 19:27:43.877706 21383 net.cpp:86] Creating Layer ip1
I0428 19:27:43.877720 21383 net.cpp:408] ip1 <- data
I0428 19:27:43.877739 21383 net.cpp:382] ip1 -> ip1
I0428 19:27:43.878957 21383 net.cpp:124] Setting up ip1
I0428 19:27:43.878973 21383 net.cpp:131] Top shape: 64 10 (640)
I0428 19:27:43.878980 21383 net.cpp:139] Memory required for data: 203520
I0428 19:27:43.879007 21383 layer_factory.hpp:77] Creating layer relu1
I0428 19:27:43.879024 21383 net.cpp:86] Creating Layer relu1
I0428 19:27:43.879034 21383 net.cpp:408] relu1 <- ip1
I0428 19:27:43.879045 21383 net.cpp:369] relu1 -> ip1 (in-place)
I0428 19:27:44.154999 21383 net.cpp:124] Setting up relu1
I0428 19:27:44.155030 21383 net.cpp:131] Top shape: 64 10 (640)
I0428 19:27:44.155035 21383 net.cpp:139] Memory required for data: 206080
I0428 19:27:44.155041 21383 layer_factory.hpp:77] Creating layer loss
I0428 19:27:44.155055 21383 net.cpp:86] Creating Layer loss
I0428 19:27:44.155061 21383 net.cpp:408] loss <- ip1
I0428 19:27:44.155069 21383 net.cpp:408] loss <- label
I0428 19:27:44.155078 21383 net.cpp:382] loss -> loss
I0428 19:27:44.155102 21383 layer_factory.hpp:77] Creating layer loss
…
I0428 19:27:44.157218 21383 solver.cpp:173] Creating test net (#0) specified by net file: ECE595/mnist/train_test/var_everything2/lenet_train_test1.prototxt
I0428 19:27:44.157243 21383 net.cpp:296] The NetState phase (1) differed from the phase (0) specified by a rule in layer mnist
I0428 19:27:44.157300 21383 net.cpp:53] Initializing net from parameters: 
name: "LeNet"
state {
  phase: TEST
}
layer {
  name: "mnist"
  type: "Data"
  top: "data"
  top: "label"
  include {
    phase: TEST
  }
  transform_param {
    scale: 0.00390625
  }
  data_param {
    source: "examples/mnist/mnist_test_lmdb"
    batch_size: 100
    backend: LMDB
  }
}
layer {
  name: "ip1"
  type: "InnerProduct"
  bottom: "data"
  top: "ip1"
  param {
    lr_mult: 1
  }
  param {
    lr_mult: 2
  }
  inner_product_param {
    num_output: 10
    weight_filler {
      type: "xavier"
    }
    bias_filler {
      type: "constant"
    }
  }
}
layer {
  name: "relu1"
  type: "ReLU"
  bottom: "ip1"
  top: "ip1"
}
layer {
  name: "accuracy"
  type: "Accuracy"
  bottom: "ip1"
  bottom: "label"
  top: "accuracy"
  include {
    phase: TEST
  }
}
layer {
  name: "loss"
  type: "SoftmaxWithLoss"
  bottom: "ip1"
  bottom: "label"
  top: "loss"
}
I0428 19:27:44.157400 21383 layer_factory.hpp:77] Creating layer mnist
I0428 19:27:44.157456 21383 db_lmdb.cpp:35] Opened lmdb examples/mnist/mnist_test_lmdb
I0428 19:27:44.157474 21383 net.cpp:86] Creating Layer mnist
I0428 19:27:44.157480 21383 net.cpp:382] mnist -> data
I0428 19:27:44.157492 21383 net.cpp:382] mnist -> label
I0428 19:27:44.157603 21383 data_layer.cpp:45] output data size: 100,1,28,28
I0428 19:27:44.159543 21383 net.cpp:124] Setting up mnist
I0428 19:27:44.159579 21383 net.cpp:131] Top shape: 100 1 28 28 (78400)
I0428 19:27:44.159600 21383 net.cpp:131] Top shape: 100 (100)
I0428 19:27:44.159621 21383 net.cpp:139] Memory required for data: 314000
I0428 19:27:44.159628 21383 layer_factory.hpp:77] Creating layer label_mnist_1_split
I0428 19:27:44.159643 21383 net.cpp:86] Creating Layer label_mnist_1_split
I0428 19:27:44.159653 21383 net.cpp:408] label_mnist_1_split <- label
I0428 19:27:44.159662 21383 net.cpp:382] label_mnist_1_split -> label_mnist_1_split_0
I0428 19:27:44.159673 21383 net.cpp:382] label_mnist_1_split -> label_mnist_1_split_1
I0428 19:27:44.159751 21383 net.cpp:124] Setting up label_mnist_1_split
I0428 19:27:44.159759 21383 net.cpp:131] Top shape: 100 (100)
I0428 19:27:44.159766 21383 net.cpp:131] Top shape: 100 (100)
I0428 19:27:44.159771 21383 net.cpp:139] Memory required for data: 314800
I0428 19:27:44.159776 21383 layer_factory.hpp:77] Creating layer ip1
I0428 19:27:44.159787 21383 net.cpp:86] Creating Layer ip1
I0428 19:27:44.159793 21383 net.cpp:408] ip1 <- data
I0428 19:27:44.159801 21383 net.cpp:382] ip1 -> ip1
I0428 19:27:44.159953 21383 net.cpp:124] Setting up ip1
I0428 19:27:44.159962 21383 net.cpp:131] Top shape: 100 10 (1000)
I0428 19:27:44.159967 21383 net.cpp:139] Memory required for data: 318800
I0428 19:27:44.159982 21383 layer_factory.hpp:77] Creating layer relu1
I0428 19:27:44.159991 21383 net.cpp:86] Creating Layer relu1
I0428 19:27:44.159997 21383 net.cpp:408] relu1 <- ip1
I0428 19:27:44.160004 21383 net.cpp:369] relu1 -> ip1 (in-place)
I0428 19:27:44.160171 21383 net.cpp:124] Setting up relu1
I0428 19:27:44.160181 21383 net.cpp:131] Top shape: 100 10 (1000)
I0428 19:27:44.160187 21383 net.cpp:139] Memory required for data: 322800
I0428 19:27:44.160192 21383 layer_factory.hpp:77] Creating layer ip1_relu1_0_split
I0428 19:27:44.160200 21383 net.cpp:86] Creating Layer ip1_relu1_0_split
I0428 19:27:44.160205 21383 net.cpp:408] ip1_relu1_0_split <- ip1
I0428 19:27:44.160213 21383 net.cpp:382] ip1_relu1_0_split -> ip1_relu1_0_split_0
I0428 19:27:44.160223 21383 net.cpp:382] ip1_relu1_0_split -> ip1_relu1_0_split_1
I0428 19:27:44.160264 21383 net.cpp:124] Setting up ip1_relu1_0_split
I0428 19:27:44.160281 21383 net.cpp:131] Top shape: 100 10 (1000)
I0428 19:27:44.160290 21383 net.cpp:131] Top shape: 100 10 (1000)
I0428 19:27:44.160295 21383 net.cpp:139] Memory required for data: 330800
I0428 19:27:44.160300 21383 layer_factory.hpp:77] Creating layer accuracy
I0428 19:27:44.160312 21383 net.cpp:86] Creating Layer accuracy
I0428 19:27:44.160334 21383 net.cpp:408] accuracy <- ip1_relu1_0_split_0
I0428 19:27:44.160341 21383 net.cpp:408] accuracy <- label_mnist_1_split_0
I0428 19:27:44.160364 21383 net.cpp:382] accuracy -> accuracy
…
