…
I0428 19:58:35.848623 29011 net.cpp:296] The NetState phase (0) differed from the phase (1) specified by a rule in layer mnist
I0428 19:58:35.848641 29011 net.cpp:296] The NetState phase (0) differed from the phase (1) specified by a rule in layer accuracy
I0428 19:58:35.848731 29011 net.cpp:53] Initializing net from parameters: 
name: "LeNet"
state {
  phase: TRAIN
  level: 0
  stage: ""
}
layer {
  name: "mnist"
  type: "Data"
  top: "data"
  top: "label"
  include {
    phase: TRAIN
  }
  transform_param {
    scale: 0.00390625
  }
  data_param {
    source: "examples/mnist/mnist_train_lmdb"
    batch_size: 64
    backend: LMDB
  }
}
layer {
  name: "conv0"
  type: "Convolution"
  bottom: "data"
  top: "conv0"
  param {
    lr_mult: 1
  }
  param {
    lr_mult: 2
  }
  convolution_param {
    num_output: 10
    kernel_size: 5
    stride: 1
    weight_filler {
      type: "xavier"
    }
    bias_filler {
      type: "constant"
    }
  }
}
layer {
  name: "pool0"
  type: "Pooling"
  bottom: "conv0"
  top: "pool0"
  pooling_param {
    pool: MAX
    kernel_size: 2
    stride: 2
  }
}
layer {
  name: "conv1"
  type: "Convolution"
  bottom: "pool0"
  top: "conv1"
  param {
    lr_mult: 1
  }
  param {
    lr_mult: 2
  }
  convolution_param {
    num_output: 10
    kernel_size: 5
    stride: 1
    weight_filler {
      type: "xavier"
    }
    bias_filler {
      type: "constant"
    }
  }
}
layer {
  name: "pool1"
  type: "Pooling"
  bottom: "conv1"
  top: "pool1"
  pooling_param {
    pool: MAX
    kernel_size: 2
    stride: 2
  }
}
layer {
  name: "ip1"
  type: "InnerProduct"
  bottom: "pool1"
  top: "ip1"
  param {
    lr_mult: 1
  }
  param {
    lr_mult: 2
  }
  inner_product_param {
    num_output: 10
    weight_filler {
      type: "xavier"
    }
    bias_filler {
      type: "constant"
    }
  }
}
layer {
  name: "relu1"
  type: "ReLU"
  bottom: "ip1"
  top: "ip1"
}
layer {
  name: "ip2"
  type: "InnerProduct"
  bottom: "ip1"
  top: "ip2"
  param {
    lr_mult: 1
  }
  param {
    lr_mult: 2
  }
  inner_product_param {
    num_output: 10
    weight_filler {
      type: "xavier"
    }
    bias_filler {
      type: "constant"
    }
  }
}
layer {
  name: "relu2"
  type: "ReLU"
  bottom: "ip2"
  top: "ip2"
}
layer {
  name: "loss"
  type: "SoftmaxWithLoss"
  bottom: "ip2"
  bottom: "label"
  top: "loss"
}
I0428 19:58:35.848805 29011 layer_factory.hpp:77] Creating layer mnist
I0428 19:58:35.848930 29011 db_lmdb.cpp:35] Opened lmdb examples/mnist/mnist_train_lmdb
I0428 19:58:35.848955 29011 net.cpp:86] Creating Layer mnist
I0428 19:58:35.848963 29011 net.cpp:382] mnist -> data
I0428 19:58:35.848986 29011 net.cpp:382] mnist -> label
I0428 19:58:35.850082 29011 data_layer.cpp:45] output data size: 64,1,28,28
I0428 19:58:35.852551 29011 net.cpp:124] Setting up mnist
I0428 19:58:35.852571 29011 net.cpp:131] Top shape: 64 1 28 28 (50176)
I0428 19:58:35.852577 29011 net.cpp:131] Top shape: 64 (64)
I0428 19:58:35.852581 29011 net.cpp:139] Memory required for data: 200960
I0428 19:58:35.852588 29011 layer_factory.hpp:77] Creating layer conv0
I0428 19:58:35.852607 29011 net.cpp:86] Creating Layer conv0
I0428 19:58:35.852612 29011 net.cpp:408] conv0 <- data
I0428 19:58:35.852622 29011 net.cpp:382] conv0 -> conv0
I0428 19:58:36.139262 29011 net.cpp:124] Setting up conv0
I0428 19:58:36.139292 29011 net.cpp:131] Top shape: 64 10 24 24 (368640)
I0428 19:58:36.139297 29011 net.cpp:139] Memory required for data: 1675520
I0428 19:58:36.139334 29011 layer_factory.hpp:77] Creating layer pool0
I0428 19:58:36.139348 29011 net.cpp:86] Creating Layer pool0
I0428 19:58:36.139353 29011 net.cpp:408] pool0 <- conv0
I0428 19:58:36.139364 29011 net.cpp:382] pool0 -> pool0
I0428 19:58:36.139423 29011 net.cpp:124] Setting up pool0
I0428 19:58:36.139433 29011 net.cpp:131] Top shape: 64 10 12 12 (92160)
I0428 19:58:36.139437 29011 net.cpp:139] Memory required for data: 2044160
I0428 19:58:36.139441 29011 layer_factory.hpp:77] Creating layer conv1
I0428 19:58:36.139453 29011 net.cpp:86] Creating Layer conv1
I0428 19:58:36.139457 29011 net.cpp:408] conv1 <- pool0
I0428 19:58:36.139463 29011 net.cpp:382] conv1 -> conv1
I0428 19:58:36.142583 29011 net.cpp:124] Setting up conv1
I0428 19:58:36.142601 29011 net.cpp:131] Top shape: 64 10 8 8 (40960)
I0428 19:58:36.142606 29011 net.cpp:139] Memory required for data: 2208000
I0428 19:58:36.142616 29011 layer_factory.hpp:77] Creating layer pool1
I0428 19:58:36.142624 29011 net.cpp:86] Creating Layer pool1
I0428 19:58:36.142628 29011 net.cpp:408] pool1 <- conv1
I0428 19:58:36.142634 29011 net.cpp:382] pool1 -> pool1
I0428 19:58:36.142679 29011 net.cpp:124] Setting up pool1
I0428 19:58:36.142688 29011 net.cpp:131] Top shape: 64 10 4 4 (10240)
I0428 19:58:36.142691 29011 net.cpp:139] Memory required for data: 2248960
I0428 19:58:36.142695 29011 layer_factory.hpp:77] Creating layer ip1
I0428 19:58:36.142709 29011 net.cpp:86] Creating Layer ip1
I0428 19:58:36.142714 29011 net.cpp:408] ip1 <- pool1
I0428 19:58:36.142719 29011 net.cpp:382] ip1 -> ip1
I0428 19:58:36.142848 29011 net.cpp:124] Setting up ip1
I0428 19:58:36.142855 29011 net.cpp:131] Top shape: 64 10 (640)
I0428 19:58:36.142859 29011 net.cpp:139] Memory required for data: 2251520
I0428 19:58:36.142868 29011 layer_factory.hpp:77] Creating layer relu1
I0428 19:58:36.142875 29011 net.cpp:86] Creating Layer relu1
I0428 19:58:36.142879 29011 net.cpp:408] relu1 <- ip1
I0428 19:58:36.142884 29011 net.cpp:369] relu1 -> ip1 (in-place)
I0428 19:58:36.143080 29011 net.cpp:124] Setting up relu1
I0428 19:58:36.143091 29011 net.cpp:131] Top shape: 64 10 (640)
I0428 19:58:36.143095 29011 net.cpp:139] Memory required for data: 2254080
I0428 19:58:36.143100 29011 layer_factory.hpp:77] Creating layer ip2
I0428 19:58:36.143107 29011 net.cpp:86] Creating Layer ip2
I0428 19:58:36.143110 29011 net.cpp:408] ip2 <- ip1
I0428 19:58:36.143116 29011 net.cpp:382] ip2 -> ip2
I0428 19:58:36.143230 29011 net.cpp:124] Setting up ip2
I0428 19:58:36.143239 29011 net.cpp:131] Top shape: 64 10 (640)
I0428 19:58:36.143242 29011 net.cpp:139] Memory required for data: 2256640
I0428 19:58:36.143249 29011 layer_factory.hpp:77] Creating layer relu2
I0428 19:58:36.143256 29011 net.cpp:86] Creating Layer relu2
I0428 19:58:36.143260 29011 net.cpp:408] relu2 <- ip2
I0428 19:58:36.143265 29011 net.cpp:369] relu2 -> ip2 (in-place)
I0428 19:58:36.144100 29011 net.cpp:124] Setting up relu2
I0428 19:58:36.144114 29011 net.cpp:131] Top shape: 64 10 (640)
I0428 19:58:36.144119 29011 net.cpp:139] Memory required for data: 2259200
I0428 19:58:36.144124 29011 layer_factory.hpp:77] Creating layer loss
I0428 19:58:36.144130 29011 net.cpp:86] Creating Layer loss
I0428 19:58:36.144134 29011 net.cpp:408] loss <- ip2
I0428 19:58:36.144140 29011 net.cpp:408] loss <- label
I0428 19:58:36.144146 29011 net.cpp:382] loss -> loss
I0428 19:58:36.144167 29011 layer_factory.hpp:77] Creating layer loss
…
I0428 19:58:36.144896 29011 solver.cpp:173] Creating test net (#0) specified by net file: ECE595/mnist/train_test/var_everything2/lenet_train_test823.prototxt
I0428 19:58:36.144927 29011 net.cpp:296] The NetState phase (1) differed from the phase (0) specified by a rule in layer mnist
I0428 19:58:36.145023 29011 net.cpp:53] Initializing net from parameters: 
name: "LeNet"
state {
  phase: TEST
}
layer {
  name: "mnist"
  type: "Data"
  top: "data"
  top: "label"
  include {
    phase: TEST
  }
  transform_param {
    scale: 0.00390625
  }
  data_param {
    source: "examples/mnist/mnist_test_lmdb"
    batch_size: 100
    backend: LMDB
  }
}
layer {
  name: "conv0"
  type: "Convolution"
  bottom: "data"
  top: "conv0"
  param {
    lr_mult: 1
  }
  param {
    lr_mult: 2
  }
  convolution_param {
    num_output: 10
    kernel_size: 5
    stride: 1
    weight_filler {
      type: "xavier"
    }
    bias_filler {
      type: "constant"
    }
  }
}
layer {
  name: "pool0"
  type: "Pooling"
  bottom: "conv0"
  top: "pool0"
  pooling_param {
    pool: MAX
    kernel_size: 2
    stride: 2
  }
}
layer {
  name: "conv1"
  type: "Convolution"
  bottom: "pool0"
  top: "conv1"
  param {
    lr_mult: 1
  }
  param {
    lr_mult: 2
  }
  convolution_param {
    num_output: 10
    kernel_size: 5
    stride: 1
    weight_filler {
      type: "xavier"
    }
    bias_filler {
      type: "constant"
    }
  }
}
layer {
  name: "pool1"
  type: "Pooling"
  bottom: "conv1"
  top: "pool1"
  pooling_param {
    pool: MAX
    kernel_size: 2
    stride: 2
  }
}
layer {
  name: "ip1"
  type: "InnerProduct"
  bottom: "pool1"
  top: "ip1"
  param {
    lr_mult: 1
  }
  param {
    lr_mult: 2
  }
  inner_product_param {
    num_output: 10
    weight_filler {
      type: "xavier"
    }
    bias_filler {
      type: "constant"
    }
  }
}
layer {
  name: "relu1"
  type: "ReLU"
  bottom: "ip1"
  top: "ip1"
}
layer {
  name: "ip2"
  type: "InnerProduct"
  bottom: "ip1"
  top: "ip2"
  param {
    lr_mult: 1
  }
  param {
    lr_mult: 2
  }
  inner_product_param {
    num_output: 10
    weight_filler {
      type: "xavier"
    }
    bias_filler {
      type: "constant"
    }
  }
}
layer {
  name: "relu2"
  type: "ReLU"
  bottom: "ip2"
  top: "ip2"
}
layer {
  name: "accuracy"
  type: "Accuracy"
  bottom: "ip2"
  bottom: "label"
  top: "accuracy"
  include {
    phase: TEST
  }
}
layer {
  name: "loss"
  type: "SoftmaxWithLoss"
  bottom: "ip2"
  bottom: "label"
  top: "loss"
}
I0428 19:58:36.145097 29011 layer_factory.hpp:77] Creating layer mnist
I0428 19:58:36.145148 29011 db_lmdb.cpp:35] Opened lmdb examples/mnist/mnist_test_lmdb
I0428 19:58:36.145161 29011 net.cpp:86] Creating Layer mnist
I0428 19:58:36.145166 29011 net.cpp:382] mnist -> data
I0428 19:58:36.145175 29011 net.cpp:382] mnist -> label
I0428 19:58:36.145277 29011 data_layer.cpp:45] output data size: 100,1,28,28
I0428 19:58:36.147608 29011 net.cpp:124] Setting up mnist
I0428 19:58:36.147624 29011 net.cpp:131] Top shape: 100 1 28 28 (78400)
I0428 19:58:36.147630 29011 net.cpp:131] Top shape: 100 (100)
I0428 19:58:36.147634 29011 net.cpp:139] Memory required for data: 314000
I0428 19:58:36.147639 29011 layer_factory.hpp:77] Creating layer label_mnist_1_split
I0428 19:58:36.147650 29011 net.cpp:86] Creating Layer label_mnist_1_split
I0428 19:58:36.147655 29011 net.cpp:408] label_mnist_1_split <- label
I0428 19:58:36.147660 29011 net.cpp:382] label_mnist_1_split -> label_mnist_1_split_0
I0428 19:58:36.147668 29011 net.cpp:382] label_mnist_1_split -> label_mnist_1_split_1
I0428 19:58:36.147754 29011 net.cpp:124] Setting up label_mnist_1_split
I0428 19:58:36.147775 29011 net.cpp:131] Top shape: 100 (100)
I0428 19:58:36.147780 29011 net.cpp:131] Top shape: 100 (100)
I0428 19:58:36.147784 29011 net.cpp:139] Memory required for data: 314800
I0428 19:58:36.147788 29011 layer_factory.hpp:77] Creating layer conv0
I0428 19:58:36.147799 29011 net.cpp:86] Creating Layer conv0
I0428 19:58:36.147802 29011 net.cpp:408] conv0 <- data
I0428 19:58:36.147809 29011 net.cpp:382] conv0 -> conv0
I0428 19:58:36.149657 29011 net.cpp:124] Setting up conv0
I0428 19:58:36.149674 29011 net.cpp:131] Top shape: 100 10 24 24 (576000)
I0428 19:58:36.149678 29011 net.cpp:139] Memory required for data: 2618800
I0428 19:58:36.149689 29011 layer_factory.hpp:77] Creating layer pool0
I0428 19:58:36.149696 29011 net.cpp:86] Creating Layer pool0
I0428 19:58:36.149701 29011 net.cpp:408] pool0 <- conv0
I0428 19:58:36.149706 29011 net.cpp:382] pool0 -> pool0
I0428 19:58:36.149749 29011 net.cpp:124] Setting up pool0
I0428 19:58:36.149756 29011 net.cpp:131] Top shape: 100 10 12 12 (144000)
I0428 19:58:36.149760 29011 net.cpp:139] Memory required for data: 3194800
I0428 19:58:36.149765 29011 layer_factory.hpp:77] Creating layer conv1
I0428 19:58:36.149775 29011 net.cpp:86] Creating Layer conv1
I0428 19:58:36.149778 29011 net.cpp:408] conv1 <- pool0
I0428 19:58:36.149785 29011 net.cpp:382] conv1 -> conv1
I0428 19:58:36.152135 29011 net.cpp:124] Setting up conv1
I0428 19:58:36.152150 29011 net.cpp:131] Top shape: 100 10 8 8 (64000)
I0428 19:58:36.152154 29011 net.cpp:139] Memory required for data: 3450800
I0428 19:58:36.152164 29011 layer_factory.hpp:77] Creating layer pool1
I0428 19:58:36.152171 29011 net.cpp:86] Creating Layer pool1
I0428 19:58:36.152176 29011 net.cpp:408] pool1 <- conv1
I0428 19:58:36.152182 29011 net.cpp:382] pool1 -> pool1
I0428 19:58:36.152227 29011 net.cpp:124] Setting up pool1
I0428 19:58:36.152235 29011 net.cpp:131] Top shape: 100 10 4 4 (16000)
I0428 19:58:36.152240 29011 net.cpp:139] Memory required for data: 3514800
I0428 19:58:36.152243 29011 layer_factory.hpp:77] Creating layer ip1
I0428 19:58:36.152251 29011 net.cpp:86] Creating Layer ip1
I0428 19:58:36.152254 29011 net.cpp:408] ip1 <- pool1
I0428 19:58:36.152261 29011 net.cpp:382] ip1 -> ip1
I0428 19:58:36.152389 29011 net.cpp:124] Setting up ip1
I0428 19:58:36.152397 29011 net.cpp:131] Top shape: 100 10 (1000)
I0428 19:58:36.152401 29011 net.cpp:139] Memory required for data: 3518800
I0428 19:58:36.152410 29011 layer_factory.hpp:77] Creating layer relu1
I0428 19:58:36.152415 29011 net.cpp:86] Creating Layer relu1
I0428 19:58:36.152420 29011 net.cpp:408] relu1 <- ip1
I0428 19:58:36.152426 29011 net.cpp:369] relu1 -> ip1 (in-place)
I0428 19:58:36.152617 29011 net.cpp:124] Setting up relu1
I0428 19:58:36.152628 29011 net.cpp:131] Top shape: 100 10 (1000)
I0428 19:58:36.152633 29011 net.cpp:139] Memory required for data: 3522800
I0428 19:58:36.152637 29011 layer_factory.hpp:77] Creating layer ip2
I0428 19:58:36.152644 29011 net.cpp:86] Creating Layer ip2
I0428 19:58:36.152648 29011 net.cpp:408] ip2 <- ip1
I0428 19:58:36.152654 29011 net.cpp:382] ip2 -> ip2
I0428 19:58:36.152765 29011 net.cpp:124] Setting up ip2
I0428 19:58:36.152773 29011 net.cpp:131] Top shape: 100 10 (1000)
I0428 19:58:36.152777 29011 net.cpp:139] Memory required for data: 3526800
I0428 19:58:36.152784 29011 layer_factory.hpp:77] Creating layer relu2
I0428 19:58:36.152789 29011 net.cpp:86] Creating Layer relu2
I0428 19:58:36.152793 29011 net.cpp:408] relu2 <- ip2
I0428 19:58:36.152798 29011 net.cpp:369] relu2 -> ip2 (in-place)
I0428 19:58:36.153010 29011 net.cpp:124] Setting up relu2
I0428 19:58:36.153023 29011 net.cpp:131] Top shape: 100 10 (1000)
I0428 19:58:36.153028 29011 net.cpp:139] Memory required for data: 3530800
I0428 19:58:36.153030 29011 layer_factory.hpp:77] Creating layer ip2_relu2_0_split
I0428 19:58:36.153036 29011 net.cpp:86] Creating Layer ip2_relu2_0_split
I0428 19:58:36.153040 29011 net.cpp:408] ip2_relu2_0_split <- ip2
I0428 19:58:36.153045 29011 net.cpp:382] ip2_relu2_0_split -> ip2_relu2_0_split_0
I0428 19:58:36.153065 29011 net.cpp:382] ip2_relu2_0_split -> ip2_relu2_0_split_1
I0428 19:58:36.153115 29011 net.cpp:124] Setting up ip2_relu2_0_split
I0428 19:58:36.153122 29011 net.cpp:131] Top shape: 100 10 (1000)
I0428 19:58:36.153127 29011 net.cpp:131] Top shape: 100 10 (1000)
I0428 19:58:36.153131 29011 net.cpp:139] Memory required for data: 3538800
I0428 19:58:36.153136 29011 layer_factory.hpp:77] Creating layer accuracy
I0428 19:58:36.153141 29011 net.cpp:86] Creating Layer accuracy
I0428 19:58:36.153144 29011 net.cpp:408] accuracy <- ip2_relu2_0_split_0
I0428 19:58:36.153149 29011 net.cpp:408] accuracy <- label_mnist_1_split_0
I0428 19:58:36.153154 29011 net.cpp:382] accuracy -> accuracy
…
