…
I0428 19:46:50.882721 26069 net.cpp:296] The NetState phase (0) differed from the phase (1) specified by a rule in layer mnist
I0428 19:46:50.882742 26069 net.cpp:296] The NetState phase (0) differed from the phase (1) specified by a rule in layer accuracy
I0428 19:46:50.882830 26069 net.cpp:53] Initializing net from parameters: 
name: "LeNet"
state {
  phase: TRAIN
  level: 0
  stage: ""
}
layer {
  name: "mnist"
  type: "Data"
  top: "data"
  top: "label"
  include {
    phase: TRAIN
  }
  transform_param {
    scale: 0.00390625
  }
  data_param {
    source: "examples/mnist/mnist_train_lmdb"
    batch_size: 64
    backend: LMDB
  }
}
layer {
  name: "conv0"
  type: "Convolution"
  bottom: "data"
  top: "conv0"
  param {
    lr_mult: 1
  }
  param {
    lr_mult: 2
  }
  convolution_param {
    num_output: 2
    kernel_size: 5
    stride: 1
    weight_filler {
      type: "xavier"
    }
    bias_filler {
      type: "constant"
    }
  }
}
layer {
  name: "pool0"
  type: "Pooling"
  bottom: "conv0"
  top: "pool0"
  pooling_param {
    pool: MAX
    kernel_size: 2
    stride: 2
  }
}
layer {
  name: "conv1"
  type: "Convolution"
  bottom: "pool0"
  top: "conv1"
  param {
    lr_mult: 1
  }
  param {
    lr_mult: 2
  }
  convolution_param {
    num_output: 100
    kernel_size: 5
    stride: 1
    weight_filler {
      type: "xavier"
    }
    bias_filler {
      type: "constant"
    }
  }
}
layer {
  name: "pool1"
  type: "Pooling"
  bottom: "conv1"
  top: "pool1"
  pooling_param {
    pool: MAX
    kernel_size: 2
    stride: 2
  }
}
layer {
  name: "ip1"
  type: "InnerProduct"
  bottom: "pool1"
  top: "ip1"
  param {
    lr_mult: 1
  }
  param {
    lr_mult: 2
  }
  inner_product_param {
    num_output: 50
    weight_filler {
      type: "xavier"
    }
    bias_filler {
      type: "constant"
    }
  }
}
layer {
  name: "relu1"
  type: "ReLU"
  bottom: "ip1"
  top: "ip1"
}
layer {
  name: "ip2"
  type: "InnerProduct"
  bottom: "ip1"
  top: "ip2"
  param {
    lr_mult: 1
  }
  param {
    lr_mult: 2
  }
  inner_product_param {
    num_output: 10
    weight_filler {
      type: "xavier"
    }
    bias_filler {
      type: "constant"
    }
  }
}
layer {
  name: "relu2"
  type: "ReLU"
  bottom: "ip2"
  top: "ip2"
}
layer {
  name: "ip3"
  type: "InnerProduct"
  bottom: "ip2"
  top: "ip3"
  param {
    lr_mult: 1
  }
  param {
    lr_mult: 2
  }
  inner_product_param {
    num_output: 10
    weight_filler {
      type: "xavier"
    }
    bias_filler {
      type: "constant"
    }
  }
}
layer {
  name: "relu3"
  type: "ReLU"
  bottom: "ip3"
  top: "ip3"
}
layer {
  name: "loss"
  type: "SoftmaxWithLoss"
  bottom: "ip3"
  bottom: "label"
  top: "loss"
}
I0428 19:46:50.882933 26069 layer_factory.hpp:77] Creating layer mnist
I0428 19:46:50.883035 26069 db_lmdb.cpp:35] Opened lmdb examples/mnist/mnist_train_lmdb
I0428 19:46:50.883062 26069 net.cpp:86] Creating Layer mnist
I0428 19:46:50.883074 26069 net.cpp:382] mnist -> data
I0428 19:46:50.883097 26069 net.cpp:382] mnist -> label
I0428 19:46:50.884145 26069 data_layer.cpp:45] output data size: 64,1,28,28
I0428 19:46:50.886409 26069 net.cpp:124] Setting up mnist
I0428 19:46:50.886440 26069 net.cpp:131] Top shape: 64 1 28 28 (50176)
I0428 19:46:50.886452 26069 net.cpp:131] Top shape: 64 (64)
I0428 19:46:50.886458 26069 net.cpp:139] Memory required for data: 200960
I0428 19:46:50.886466 26069 layer_factory.hpp:77] Creating layer conv0
I0428 19:46:50.886484 26069 net.cpp:86] Creating Layer conv0
I0428 19:46:50.886502 26069 net.cpp:408] conv0 <- data
I0428 19:46:50.886520 26069 net.cpp:382] conv0 -> conv0
I0428 19:46:51.119772 26069 net.cpp:124] Setting up conv0
I0428 19:46:51.119801 26069 net.cpp:131] Top shape: 64 2 24 24 (73728)
I0428 19:46:51.119807 26069 net.cpp:139] Memory required for data: 495872
I0428 19:46:51.119841 26069 layer_factory.hpp:77] Creating layer pool0
I0428 19:46:51.119858 26069 net.cpp:86] Creating Layer pool0
I0428 19:46:51.119871 26069 net.cpp:408] pool0 <- conv0
I0428 19:46:51.119880 26069 net.cpp:382] pool0 -> pool0
I0428 19:46:51.119948 26069 net.cpp:124] Setting up pool0
I0428 19:46:51.119957 26069 net.cpp:131] Top shape: 64 2 12 12 (18432)
I0428 19:46:51.119962 26069 net.cpp:139] Memory required for data: 569600
I0428 19:46:51.119967 26069 layer_factory.hpp:77] Creating layer conv1
I0428 19:46:51.119983 26069 net.cpp:86] Creating Layer conv1
I0428 19:46:51.119989 26069 net.cpp:408] conv1 <- pool0
I0428 19:46:51.119997 26069 net.cpp:382] conv1 -> conv1
I0428 19:46:51.123011 26069 net.cpp:124] Setting up conv1
I0428 19:46:51.123026 26069 net.cpp:131] Top shape: 64 100 8 8 (409600)
I0428 19:46:51.123033 26069 net.cpp:139] Memory required for data: 2208000
I0428 19:46:51.123062 26069 layer_factory.hpp:77] Creating layer pool1
I0428 19:46:51.123075 26069 net.cpp:86] Creating Layer pool1
I0428 19:46:51.123080 26069 net.cpp:408] pool1 <- conv1
I0428 19:46:51.123090 26069 net.cpp:382] pool1 -> pool1
I0428 19:46:51.123137 26069 net.cpp:124] Setting up pool1
I0428 19:46:51.123147 26069 net.cpp:131] Top shape: 64 100 4 4 (102400)
I0428 19:46:51.123152 26069 net.cpp:139] Memory required for data: 2617600
I0428 19:46:51.123157 26069 layer_factory.hpp:77] Creating layer ip1
I0428 19:46:51.123168 26069 net.cpp:86] Creating Layer ip1
I0428 19:46:51.123177 26069 net.cpp:408] ip1 <- pool1
I0428 19:46:51.123184 26069 net.cpp:382] ip1 -> ip1
I0428 19:46:51.124758 26069 net.cpp:124] Setting up ip1
I0428 19:46:51.124771 26069 net.cpp:131] Top shape: 64 50 (3200)
I0428 19:46:51.124776 26069 net.cpp:139] Memory required for data: 2630400
I0428 19:46:51.124806 26069 layer_factory.hpp:77] Creating layer relu1
I0428 19:46:51.124840 26069 net.cpp:86] Creating Layer relu1
I0428 19:46:51.124846 26069 net.cpp:408] relu1 <- ip1
I0428 19:46:51.124855 26069 net.cpp:369] relu1 -> ip1 (in-place)
I0428 19:46:51.125113 26069 net.cpp:124] Setting up relu1
I0428 19:46:51.125125 26069 net.cpp:131] Top shape: 64 50 (3200)
I0428 19:46:51.125131 26069 net.cpp:139] Memory required for data: 2643200
I0428 19:46:51.125138 26069 layer_factory.hpp:77] Creating layer ip2
I0428 19:46:51.125166 26069 net.cpp:86] Creating Layer ip2
I0428 19:46:51.125172 26069 net.cpp:408] ip2 <- ip1
I0428 19:46:51.125195 26069 net.cpp:382] ip2 -> ip2
I0428 19:46:51.125322 26069 net.cpp:124] Setting up ip2
I0428 19:46:51.125331 26069 net.cpp:131] Top shape: 64 10 (640)
I0428 19:46:51.125336 26069 net.cpp:139] Memory required for data: 2645760
I0428 19:46:51.125346 26069 layer_factory.hpp:77] Creating layer relu2
I0428 19:46:51.125356 26069 net.cpp:86] Creating Layer relu2
I0428 19:46:51.125363 26069 net.cpp:408] relu2 <- ip2
I0428 19:46:51.125371 26069 net.cpp:369] relu2 -> ip2 (in-place)
I0428 19:46:51.126207 26069 net.cpp:124] Setting up relu2
I0428 19:46:51.126221 26069 net.cpp:131] Top shape: 64 10 (640)
I0428 19:46:51.126241 26069 net.cpp:139] Memory required for data: 2648320
I0428 19:46:51.126247 26069 layer_factory.hpp:77] Creating layer ip3
I0428 19:46:51.126260 26069 net.cpp:86] Creating Layer ip3
I0428 19:46:51.126265 26069 net.cpp:408] ip3 <- ip2
I0428 19:46:51.126276 26069 net.cpp:382] ip3 -> ip3
I0428 19:46:51.126401 26069 net.cpp:124] Setting up ip3
I0428 19:46:51.126411 26069 net.cpp:131] Top shape: 64 10 (640)
I0428 19:46:51.126416 26069 net.cpp:139] Memory required for data: 2650880
I0428 19:46:51.126430 26069 layer_factory.hpp:77] Creating layer relu3
I0428 19:46:51.126438 26069 net.cpp:86] Creating Layer relu3
I0428 19:46:51.126446 26069 net.cpp:408] relu3 <- ip3
I0428 19:46:51.126454 26069 net.cpp:369] relu3 -> ip3 (in-place)
I0428 19:46:51.126674 26069 net.cpp:124] Setting up relu3
I0428 19:46:51.126684 26069 net.cpp:131] Top shape: 64 10 (640)
I0428 19:46:51.126689 26069 net.cpp:139] Memory required for data: 2653440
I0428 19:46:51.126694 26069 layer_factory.hpp:77] Creating layer loss
I0428 19:46:51.126703 26069 net.cpp:86] Creating Layer loss
I0428 19:46:51.126709 26069 net.cpp:408] loss <- ip3
I0428 19:46:51.126718 26069 net.cpp:408] loss <- label
I0428 19:46:51.126726 26069 net.cpp:382] loss -> loss
I0428 19:46:51.126749 26069 layer_factory.hpp:77] Creating layer loss
…
I0428 19:46:51.127526 26069 solver.cpp:173] Creating test net (#0) specified by net file: ECE595/mnist/train_test/var_everything2/lenet_train_test500.prototxt
I0428 19:46:51.127559 26069 net.cpp:296] The NetState phase (1) differed from the phase (0) specified by a rule in layer mnist
I0428 19:46:51.127677 26069 net.cpp:53] Initializing net from parameters: 
name: "LeNet"
state {
  phase: TEST
}
layer {
  name: "mnist"
  type: "Data"
  top: "data"
  top: "label"
  include {
    phase: TEST
  }
  transform_param {
    scale: 0.00390625
  }
  data_param {
    source: "examples/mnist/mnist_test_lmdb"
    batch_size: 100
    backend: LMDB
  }
}
layer {
  name: "conv0"
  type: "Convolution"
  bottom: "data"
  top: "conv0"
  param {
    lr_mult: 1
  }
  param {
    lr_mult: 2
  }
  convolution_param {
    num_output: 2
    kernel_size: 5
    stride: 1
    weight_filler {
      type: "xavier"
    }
    bias_filler {
      type: "constant"
    }
  }
}
layer {
  name: "pool0"
  type: "Pooling"
  bottom: "conv0"
  top: "pool0"
  pooling_param {
    pool: MAX
    kernel_size: 2
    stride: 2
  }
}
layer {
  name: "conv1"
  type: "Convolution"
  bottom: "pool0"
  top: "conv1"
  param {
    lr_mult: 1
  }
  param {
    lr_mult: 2
  }
  convolution_param {
    num_output: 100
    kernel_size: 5
    stride: 1
    weight_filler {
      type: "xavier"
    }
    bias_filler {
      type: "constant"
    }
  }
}
layer {
  name: "pool1"
  type: "Pooling"
  bottom: "conv1"
  top: "pool1"
  pooling_param {
    pool: MAX
    kernel_size: 2
    stride: 2
  }
}
layer {
  name: "ip1"
  type: "InnerProduct"
  bottom: "pool1"
  top: "ip1"
  param {
    lr_mult: 1
  }
  param {
    lr_mult: 2
  }
  inner_product_param {
    num_output: 50
    weight_filler {
      type: "xavier"
    }
    bias_filler {
      type: "constant"
    }
  }
}
layer {
  name: "relu1"
  type: "ReLU"
  bottom: "ip1"
  top: "ip1"
}
layer {
  name: "ip2"
  type: "InnerProduct"
  bottom: "ip1"
  top: "ip2"
  param {
    lr_mult: 1
  }
  param {
    lr_mult: 2
  }
  inner_product_param {
    num_output: 10
    weight_filler {
      type: "xavier"
    }
    bias_filler {
      type: "constant"
    }
  }
}
layer {
  name: "relu2"
  type: "ReLU"
  bottom: "ip2"
  top: "ip2"
}
layer {
  name: "ip3"
  type: "InnerProduct"
  bottom: "ip2"
  top: "ip3"
  param {
    lr_mult: 1
  }
  param {
    lr_mult: 2
  }
  inner_product_param {
    num_output: 10
    weight_filler {
      type: "xavier"
    }
    bias_filler {
      type: "constant"
    }
  }
}
layer {
  name: "relu3"
  type: "ReLU"
  bottom: "ip3"
  top: "ip3"
}
layer {
  name: "accuracy"
  type: "Accuracy"
  bottom: "ip3"
  bottom: "label"
  top: "accuracy"
  include {
    phase: TEST
  }
}
layer {
  name: "loss"
  type: "SoftmaxWithLoss"
  bottom: "ip3"
  bottom: "label"
  top: "loss"
}
I0428 19:46:51.127815 26069 layer_factory.hpp:77] Creating layer mnist
I0428 19:46:51.127871 26069 db_lmdb.cpp:35] Opened lmdb examples/mnist/mnist_test_lmdb
I0428 19:46:51.127889 26069 net.cpp:86] Creating Layer mnist
I0428 19:46:51.127912 26069 net.cpp:382] mnist -> data
I0428 19:46:51.127923 26069 net.cpp:382] mnist -> label
I0428 19:46:51.128074 26069 data_layer.cpp:45] output data size: 100,1,28,28
I0428 19:46:51.129643 26069 net.cpp:124] Setting up mnist
I0428 19:46:51.129658 26069 net.cpp:131] Top shape: 100 1 28 28 (78400)
I0428 19:46:51.129667 26069 net.cpp:131] Top shape: 100 (100)
I0428 19:46:51.129673 26069 net.cpp:139] Memory required for data: 314000
I0428 19:46:51.129678 26069 layer_factory.hpp:77] Creating layer label_mnist_1_split
I0428 19:46:51.129694 26069 net.cpp:86] Creating Layer label_mnist_1_split
I0428 19:46:51.129700 26069 net.cpp:408] label_mnist_1_split <- label
I0428 19:46:51.129709 26069 net.cpp:382] label_mnist_1_split -> label_mnist_1_split_0
I0428 19:46:51.129719 26069 net.cpp:382] label_mnist_1_split -> label_mnist_1_split_1
I0428 19:46:51.129792 26069 net.cpp:124] Setting up label_mnist_1_split
I0428 19:46:51.129801 26069 net.cpp:131] Top shape: 100 (100)
I0428 19:46:51.129808 26069 net.cpp:131] Top shape: 100 (100)
I0428 19:46:51.129813 26069 net.cpp:139] Memory required for data: 314800
I0428 19:46:51.129819 26069 layer_factory.hpp:77] Creating layer conv0
I0428 19:46:51.129848 26069 net.cpp:86] Creating Layer conv0
I0428 19:46:51.129855 26069 net.cpp:408] conv0 <- data
I0428 19:46:51.129866 26069 net.cpp:382] conv0 -> conv0
I0428 19:46:51.131551 26069 net.cpp:124] Setting up conv0
I0428 19:46:51.131566 26069 net.cpp:131] Top shape: 100 2 24 24 (115200)
I0428 19:46:51.131587 26069 net.cpp:139] Memory required for data: 775600
I0428 19:46:51.131603 26069 layer_factory.hpp:77] Creating layer pool0
I0428 19:46:51.131613 26069 net.cpp:86] Creating Layer pool0
I0428 19:46:51.131620 26069 net.cpp:408] pool0 <- conv0
I0428 19:46:51.131628 26069 net.cpp:382] pool0 -> pool0
I0428 19:46:51.131685 26069 net.cpp:124] Setting up pool0
I0428 19:46:51.131705 26069 net.cpp:131] Top shape: 100 2 12 12 (28800)
I0428 19:46:51.131711 26069 net.cpp:139] Memory required for data: 890800
I0428 19:46:51.131716 26069 layer_factory.hpp:77] Creating layer conv1
I0428 19:46:51.131731 26069 net.cpp:86] Creating Layer conv1
I0428 19:46:51.131738 26069 net.cpp:408] conv1 <- pool0
I0428 19:46:51.131749 26069 net.cpp:382] conv1 -> conv1
I0428 19:46:51.133498 26069 net.cpp:124] Setting up conv1
I0428 19:46:51.133514 26069 net.cpp:131] Top shape: 100 100 8 8 (640000)
I0428 19:46:51.133520 26069 net.cpp:139] Memory required for data: 3450800
I0428 19:46:51.133551 26069 layer_factory.hpp:77] Creating layer pool1
I0428 19:46:51.133561 26069 net.cpp:86] Creating Layer pool1
I0428 19:46:51.133568 26069 net.cpp:408] pool1 <- conv1
I0428 19:46:51.133577 26069 net.cpp:382] pool1 -> pool1
I0428 19:46:51.133621 26069 net.cpp:124] Setting up pool1
I0428 19:46:51.133630 26069 net.cpp:131] Top shape: 100 100 4 4 (160000)
I0428 19:46:51.133636 26069 net.cpp:139] Memory required for data: 4090800
I0428 19:46:51.133641 26069 layer_factory.hpp:77] Creating layer ip1
I0428 19:46:51.133653 26069 net.cpp:86] Creating Layer ip1
I0428 19:46:51.133661 26069 net.cpp:408] ip1 <- pool1
I0428 19:46:51.133668 26069 net.cpp:382] ip1 -> ip1
I0428 19:46:51.134271 26069 net.cpp:124] Setting up ip1
I0428 19:46:51.134282 26069 net.cpp:131] Top shape: 100 50 (5000)
I0428 19:46:51.134300 26069 net.cpp:139] Memory required for data: 4110800
I0428 19:46:51.134315 26069 layer_factory.hpp:77] Creating layer relu1
I0428 19:46:51.134330 26069 net.cpp:86] Creating Layer relu1
I0428 19:46:51.134340 26069 net.cpp:408] relu1 <- ip1
I0428 19:46:51.134347 26069 net.cpp:369] relu1 -> ip1 (in-place)
I0428 19:46:51.134564 26069 net.cpp:124] Setting up relu1
I0428 19:46:51.134574 26069 net.cpp:131] Top shape: 100 50 (5000)
I0428 19:46:51.134579 26069 net.cpp:139] Memory required for data: 4130800
I0428 19:46:51.134584 26069 layer_factory.hpp:77] Creating layer ip2
I0428 19:46:51.134598 26069 net.cpp:86] Creating Layer ip2
I0428 19:46:51.134605 26069 net.cpp:408] ip2 <- ip1
I0428 19:46:51.134615 26069 net.cpp:382] ip2 -> ip2
I0428 19:46:51.134721 26069 net.cpp:124] Setting up ip2
I0428 19:46:51.134730 26069 net.cpp:131] Top shape: 100 10 (1000)
I0428 19:46:51.134735 26069 net.cpp:139] Memory required for data: 4134800
I0428 19:46:51.134744 26069 layer_factory.hpp:77] Creating layer relu2
I0428 19:46:51.134752 26069 net.cpp:86] Creating Layer relu2
I0428 19:46:51.134757 26069 net.cpp:408] relu2 <- ip2
I0428 19:46:51.134764 26069 net.cpp:369] relu2 -> ip2 (in-place)
I0428 19:46:51.134965 26069 net.cpp:124] Setting up relu2
I0428 19:46:51.134975 26069 net.cpp:131] Top shape: 100 10 (1000)
I0428 19:46:51.134981 26069 net.cpp:139] Memory required for data: 4138800
I0428 19:46:51.134987 26069 layer_factory.hpp:77] Creating layer ip3
I0428 19:46:51.134996 26069 net.cpp:86] Creating Layer ip3
I0428 19:46:51.135001 26069 net.cpp:408] ip3 <- ip2
I0428 19:46:51.135011 26069 net.cpp:382] ip3 -> ip3
I0428 19:46:51.135215 26069 net.cpp:124] Setting up ip3
I0428 19:46:51.135223 26069 net.cpp:131] Top shape: 100 10 (1000)
I0428 19:46:51.135243 26069 net.cpp:139] Memory required for data: 4142800
I0428 19:46:51.135257 26069 layer_factory.hpp:77] Creating layer relu3
I0428 19:46:51.135264 26069 net.cpp:86] Creating Layer relu3
I0428 19:46:51.135272 26069 net.cpp:408] relu3 <- ip3
I0428 19:46:51.135279 26069 net.cpp:369] relu3 -> ip3 (in-place)
I0428 19:46:51.136149 26069 net.cpp:124] Setting up relu3
I0428 19:46:51.136163 26069 net.cpp:131] Top shape: 100 10 (1000)
I0428 19:46:51.136168 26069 net.cpp:139] Memory required for data: 4146800
I0428 19:46:51.136174 26069 layer_factory.hpp:77] Creating layer ip3_relu3_0_split
I0428 19:46:51.136183 26069 net.cpp:86] Creating Layer ip3_relu3_0_split
I0428 19:46:51.136188 26069 net.cpp:408] ip3_relu3_0_split <- ip3
I0428 19:46:51.136199 26069 net.cpp:382] ip3_relu3_0_split -> ip3_relu3_0_split_0
I0428 19:46:51.136209 26069 net.cpp:382] ip3_relu3_0_split -> ip3_relu3_0_split_1
I0428 19:46:51.136258 26069 net.cpp:124] Setting up ip3_relu3_0_split
I0428 19:46:51.136266 26069 net.cpp:131] Top shape: 100 10 (1000)
I0428 19:46:51.136273 26069 net.cpp:131] Top shape: 100 10 (1000)
I0428 19:46:51.136278 26069 net.cpp:139] Memory required for data: 4154800
I0428 19:46:51.136284 26069 layer_factory.hpp:77] Creating layer accuracy
I0428 19:46:51.136294 26069 net.cpp:86] Creating Layer accuracy
I0428 19:46:51.136301 26069 net.cpp:408] accuracy <- ip3_relu3_0_split_0
I0428 19:46:51.136307 26069 net.cpp:408] accuracy <- label_mnist_1_split_0
I0428 19:46:51.136317 26069 net.cpp:382] accuracy -> accuracy
…
