…
I0428 19:40:20.096549 24522 net.cpp:296] The NetState phase (0) differed from the phase (1) specified by a rule in layer mnist
I0428 19:40:20.096563 24522 net.cpp:296] The NetState phase (0) differed from the phase (1) specified by a rule in layer accuracy
I0428 19:40:20.096640 24522 net.cpp:53] Initializing net from parameters: 
name: "LeNet"
state {
  phase: TRAIN
  level: 0
  stage: ""
}
layer {
  name: "mnist"
  type: "Data"
  top: "data"
  top: "label"
  include {
    phase: TRAIN
  }
  transform_param {
    scale: 0.00390625
  }
  data_param {
    source: "examples/mnist/mnist_train_lmdb"
    batch_size: 64
    backend: LMDB
  }
}
layer {
  name: "conv0"
  type: "Convolution"
  bottom: "data"
  top: "conv0"
  param {
    lr_mult: 1
  }
  param {
    lr_mult: 2
  }
  convolution_param {
    num_output: 2
    kernel_size: 5
    stride: 1
    weight_filler {
      type: "xavier"
    }
    bias_filler {
      type: "constant"
    }
  }
}
layer {
  name: "pool0"
  type: "Pooling"
  bottom: "conv0"
  top: "pool0"
  pooling_param {
    pool: MAX
    kernel_size: 2
    stride: 2
  }
}
layer {
  name: "conv1"
  type: "Convolution"
  bottom: "pool0"
  top: "conv1"
  param {
    lr_mult: 1
  }
  param {
    lr_mult: 2
  }
  convolution_param {
    num_output: 5
    kernel_size: 5
    stride: 1
    weight_filler {
      type: "xavier"
    }
    bias_filler {
      type: "constant"
    }
  }
}
layer {
  name: "pool1"
  type: "Pooling"
  bottom: "conv1"
  top: "pool1"
  pooling_param {
    pool: MAX
    kernel_size: 2
    stride: 2
  }
}
layer {
  name: "ip1"
  type: "InnerProduct"
  bottom: "pool1"
  top: "ip1"
  param {
    lr_mult: 1
  }
  param {
    lr_mult: 2
  }
  inner_product_param {
    num_output: 10
    weight_filler {
      type: "xavier"
    }
    bias_filler {
      type: "constant"
    }
  }
}
layer {
  name: "relu1"
  type: "ReLU"
  bottom: "ip1"
  top: "ip1"
}
layer {
  name: "ip2"
  type: "InnerProduct"
  bottom: "ip1"
  top: "ip2"
  param {
    lr_mult: 1
  }
  param {
    lr_mult: 2
  }
  inner_product_param {
    num_output: 50
    weight_filler {
      type: "xavier"
    }
    bias_filler {
      type: "constant"
    }
  }
}
layer {
  name: "relu2"
  type: "ReLU"
  bottom: "ip2"
  top: "ip2"
}
layer {
  name: "ip3"
  type: "InnerProduct"
  bottom: "ip2"
  top: "ip3"
  param {
    lr_mult: 1
  }
  param {
    lr_mult: 2
  }
  inner_product_param {
    num_output: 10
    weight_filler {
      type: "xavier"
    }
    bias_filler {
      type: "constant"
    }
  }
}
layer {
  name: "relu3"
  type: "ReLU"
  bottom: "ip3"
  top: "ip3"
}
layer {
  name: "loss"
  type: "SoftmaxWithLoss"
  bottom: "ip3"
  bottom: "label"
  top: "loss"
}
I0428 19:40:20.096700 24522 layer_factory.hpp:77] Creating layer mnist
I0428 19:40:20.096781 24522 db_lmdb.cpp:35] Opened lmdb examples/mnist/mnist_train_lmdb
I0428 19:40:20.096801 24522 net.cpp:86] Creating Layer mnist
I0428 19:40:20.096807 24522 net.cpp:382] mnist -> data
I0428 19:40:20.096848 24522 net.cpp:382] mnist -> label
I0428 19:40:20.097770 24522 data_layer.cpp:45] output data size: 64,1,28,28
I0428 19:40:20.099854 24522 net.cpp:124] Setting up mnist
I0428 19:40:20.099869 24522 net.cpp:131] Top shape: 64 1 28 28 (50176)
I0428 19:40:20.099874 24522 net.cpp:131] Top shape: 64 (64)
I0428 19:40:20.099877 24522 net.cpp:139] Memory required for data: 200960
I0428 19:40:20.099884 24522 layer_factory.hpp:77] Creating layer conv0
I0428 19:40:20.099897 24522 net.cpp:86] Creating Layer conv0
I0428 19:40:20.099932 24522 net.cpp:408] conv0 <- data
I0428 19:40:20.099943 24522 net.cpp:382] conv0 -> conv0
I0428 19:40:20.331768 24522 net.cpp:124] Setting up conv0
I0428 19:40:20.331794 24522 net.cpp:131] Top shape: 64 2 24 24 (73728)
I0428 19:40:20.331797 24522 net.cpp:139] Memory required for data: 495872
I0428 19:40:20.331810 24522 layer_factory.hpp:77] Creating layer pool0
I0428 19:40:20.331822 24522 net.cpp:86] Creating Layer pool0
I0428 19:40:20.331826 24522 net.cpp:408] pool0 <- conv0
I0428 19:40:20.331830 24522 net.cpp:382] pool0 -> pool0
I0428 19:40:20.331892 24522 net.cpp:124] Setting up pool0
I0428 19:40:20.331897 24522 net.cpp:131] Top shape: 64 2 12 12 (18432)
I0428 19:40:20.331900 24522 net.cpp:139] Memory required for data: 569600
I0428 19:40:20.331902 24522 layer_factory.hpp:77] Creating layer conv1
I0428 19:40:20.331912 24522 net.cpp:86] Creating Layer conv1
I0428 19:40:20.331915 24522 net.cpp:408] conv1 <- pool0
I0428 19:40:20.331919 24522 net.cpp:382] conv1 -> conv1
I0428 19:40:20.333835 24522 net.cpp:124] Setting up conv1
I0428 19:40:20.333865 24522 net.cpp:131] Top shape: 64 5 8 8 (20480)
I0428 19:40:20.333869 24522 net.cpp:139] Memory required for data: 651520
I0428 19:40:20.333878 24522 layer_factory.hpp:77] Creating layer pool1
I0428 19:40:20.333886 24522 net.cpp:86] Creating Layer pool1
I0428 19:40:20.333889 24522 net.cpp:408] pool1 <- conv1
I0428 19:40:20.333894 24522 net.cpp:382] pool1 -> pool1
I0428 19:40:20.333933 24522 net.cpp:124] Setting up pool1
I0428 19:40:20.333940 24522 net.cpp:131] Top shape: 64 5 4 4 (5120)
I0428 19:40:20.333942 24522 net.cpp:139] Memory required for data: 672000
I0428 19:40:20.333945 24522 layer_factory.hpp:77] Creating layer ip1
I0428 19:40:20.333956 24522 net.cpp:86] Creating Layer ip1
I0428 19:40:20.333959 24522 net.cpp:408] ip1 <- pool1
I0428 19:40:20.333964 24522 net.cpp:382] ip1 -> ip1
I0428 19:40:20.334064 24522 net.cpp:124] Setting up ip1
I0428 19:40:20.334072 24522 net.cpp:131] Top shape: 64 10 (640)
I0428 19:40:20.334075 24522 net.cpp:139] Memory required for data: 674560
I0428 19:40:20.334082 24522 layer_factory.hpp:77] Creating layer relu1
I0428 19:40:20.334087 24522 net.cpp:86] Creating Layer relu1
I0428 19:40:20.334090 24522 net.cpp:408] relu1 <- ip1
I0428 19:40:20.334110 24522 net.cpp:369] relu1 -> ip1 (in-place)
I0428 19:40:20.334270 24522 net.cpp:124] Setting up relu1
I0428 19:40:20.334277 24522 net.cpp:131] Top shape: 64 10 (640)
I0428 19:40:20.334280 24522 net.cpp:139] Memory required for data: 677120
I0428 19:40:20.334283 24522 layer_factory.hpp:77] Creating layer ip2
I0428 19:40:20.334290 24522 net.cpp:86] Creating Layer ip2
I0428 19:40:20.334292 24522 net.cpp:408] ip2 <- ip1
I0428 19:40:20.334297 24522 net.cpp:382] ip2 -> ip2
I0428 19:40:20.334393 24522 net.cpp:124] Setting up ip2
I0428 19:40:20.334400 24522 net.cpp:131] Top shape: 64 50 (3200)
I0428 19:40:20.334403 24522 net.cpp:139] Memory required for data: 689920
I0428 19:40:20.334408 24522 layer_factory.hpp:77] Creating layer relu2
I0428 19:40:20.334414 24522 net.cpp:86] Creating Layer relu2
I0428 19:40:20.334417 24522 net.cpp:408] relu2 <- ip2
I0428 19:40:20.334421 24522 net.cpp:369] relu2 -> ip2 (in-place)
I0428 19:40:20.335168 24522 net.cpp:124] Setting up relu2
I0428 19:40:20.335180 24522 net.cpp:131] Top shape: 64 50 (3200)
I0428 19:40:20.335199 24522 net.cpp:139] Memory required for data: 702720
I0428 19:40:20.335203 24522 layer_factory.hpp:77] Creating layer ip3
I0428 19:40:20.335211 24522 net.cpp:86] Creating Layer ip3
I0428 19:40:20.335213 24522 net.cpp:408] ip3 <- ip2
I0428 19:40:20.335218 24522 net.cpp:382] ip3 -> ip3
I0428 19:40:20.335319 24522 net.cpp:124] Setting up ip3
I0428 19:40:20.335327 24522 net.cpp:131] Top shape: 64 10 (640)
I0428 19:40:20.335330 24522 net.cpp:139] Memory required for data: 705280
I0428 19:40:20.335337 24522 layer_factory.hpp:77] Creating layer relu3
I0428 19:40:20.335342 24522 net.cpp:86] Creating Layer relu3
I0428 19:40:20.335345 24522 net.cpp:408] relu3 <- ip3
I0428 19:40:20.335350 24522 net.cpp:369] relu3 -> ip3 (in-place)
I0428 19:40:20.335512 24522 net.cpp:124] Setting up relu3
I0428 19:40:20.335520 24522 net.cpp:131] Top shape: 64 10 (640)
I0428 19:40:20.335523 24522 net.cpp:139] Memory required for data: 707840
I0428 19:40:20.335526 24522 layer_factory.hpp:77] Creating layer loss
I0428 19:40:20.335532 24522 net.cpp:86] Creating Layer loss
I0428 19:40:20.335536 24522 net.cpp:408] loss <- ip3
I0428 19:40:20.335539 24522 net.cpp:408] loss <- label
I0428 19:40:20.335544 24522 net.cpp:382] loss -> loss
I0428 19:40:20.335562 24522 layer_factory.hpp:77] Creating layer loss
…
I0428 19:40:20.336230 24522 solver.cpp:173] Creating test net (#0) specified by net file: ECE595/mnist/train_test/var_everything2/lenet_train_test331.prototxt
I0428 19:40:20.336273 24522 net.cpp:296] The NetState phase (1) differed from the phase (0) specified by a rule in layer mnist
I0428 19:40:20.336360 24522 net.cpp:53] Initializing net from parameters: 
name: "LeNet"
state {
  phase: TEST
}
layer {
  name: "mnist"
  type: "Data"
  top: "data"
  top: "label"
  include {
    phase: TEST
  }
  transform_param {
    scale: 0.00390625
  }
  data_param {
    source: "examples/mnist/mnist_test_lmdb"
    batch_size: 100
    backend: LMDB
  }
}
layer {
  name: "conv0"
  type: "Convolution"
  bottom: "data"
  top: "conv0"
  param {
    lr_mult: 1
  }
  param {
    lr_mult: 2
  }
  convolution_param {
    num_output: 2
    kernel_size: 5
    stride: 1
    weight_filler {
      type: "xavier"
    }
    bias_filler {
      type: "constant"
    }
  }
}
layer {
  name: "pool0"
  type: "Pooling"
  bottom: "conv0"
  top: "pool0"
  pooling_param {
    pool: MAX
    kernel_size: 2
    stride: 2
  }
}
layer {
  name: "conv1"
  type: "Convolution"
  bottom: "pool0"
  top: "conv1"
  param {
    lr_mult: 1
  }
  param {
    lr_mult: 2
  }
  convolution_param {
    num_output: 5
    kernel_size: 5
    stride: 1
    weight_filler {
      type: "xavier"
    }
    bias_filler {
      type: "constant"
    }
  }
}
layer {
  name: "pool1"
  type: "Pooling"
  bottom: "conv1"
  top: "pool1"
  pooling_param {
    pool: MAX
    kernel_size: 2
    stride: 2
  }
}
layer {
  name: "ip1"
  type: "InnerProduct"
  bottom: "pool1"
  top: "ip1"
  param {
    lr_mult: 1
  }
  param {
    lr_mult: 2
  }
  inner_product_param {
    num_output: 10
    weight_filler {
      type: "xavier"
    }
    bias_filler {
      type: "constant"
    }
  }
}
layer {
  name: "relu1"
  type: "ReLU"
  bottom: "ip1"
  top: "ip1"
}
layer {
  name: "ip2"
  type: "InnerProduct"
  bottom: "ip1"
  top: "ip2"
  param {
    lr_mult: 1
  }
  param {
    lr_mult: 2
  }
  inner_product_param {
    num_output: 50
    weight_filler {
      type: "xavier"
    }
    bias_filler {
      type: "constant"
    }
  }
}
layer {
  name: "relu2"
  type: "ReLU"
  bottom: "ip2"
  top: "ip2"
}
layer {
  name: "ip3"
  type: "InnerProduct"
  bottom: "ip2"
  top: "ip3"
  param {
    lr_mult: 1
  }
  param {
    lr_mult: 2
  }
  inner_product_param {
    num_output: 10
    weight_filler {
      type: "xavier"
    }
    bias_filler {
      type: "constant"
    }
  }
}
layer {
  name: "relu3"
  type: "ReLU"
  bottom: "ip3"
  top: "ip3"
}
layer {
  name: "accuracy"
  type: "Accuracy"
  bottom: "ip3"
  bottom: "label"
  top: "accuracy"
  include {
    phase: TEST
  }
}
layer {
  name: "loss"
  type: "SoftmaxWithLoss"
  bottom: "ip3"
  bottom: "label"
  top: "loss"
}
I0428 19:40:20.336437 24522 layer_factory.hpp:77] Creating layer mnist
I0428 19:40:20.336480 24522 db_lmdb.cpp:35] Opened lmdb examples/mnist/mnist_test_lmdb
I0428 19:40:20.336493 24522 net.cpp:86] Creating Layer mnist
I0428 19:40:20.336498 24522 net.cpp:382] mnist -> data
I0428 19:40:20.336504 24522 net.cpp:382] mnist -> label
I0428 19:40:20.336585 24522 data_layer.cpp:45] output data size: 100,1,28,28
I0428 19:40:20.339033 24522 net.cpp:124] Setting up mnist
I0428 19:40:20.339072 24522 net.cpp:131] Top shape: 100 1 28 28 (78400)
I0428 19:40:20.339078 24522 net.cpp:131] Top shape: 100 (100)
I0428 19:40:20.339082 24522 net.cpp:139] Memory required for data: 314000
I0428 19:40:20.339085 24522 layer_factory.hpp:77] Creating layer label_mnist_1_split
I0428 19:40:20.339135 24522 net.cpp:86] Creating Layer label_mnist_1_split
I0428 19:40:20.339140 24522 net.cpp:408] label_mnist_1_split <- label
I0428 19:40:20.339145 24522 net.cpp:382] label_mnist_1_split -> label_mnist_1_split_0
I0428 19:40:20.339153 24522 net.cpp:382] label_mnist_1_split -> label_mnist_1_split_1
I0428 19:40:20.339205 24522 net.cpp:124] Setting up label_mnist_1_split
I0428 19:40:20.339213 24522 net.cpp:131] Top shape: 100 (100)
I0428 19:40:20.339217 24522 net.cpp:131] Top shape: 100 (100)
I0428 19:40:20.339221 24522 net.cpp:139] Memory required for data: 314800
I0428 19:40:20.339223 24522 layer_factory.hpp:77] Creating layer conv0
I0428 19:40:20.339232 24522 net.cpp:86] Creating Layer conv0
I0428 19:40:20.339236 24522 net.cpp:408] conv0 <- data
I0428 19:40:20.339241 24522 net.cpp:382] conv0 -> conv0
I0428 19:40:20.340920 24522 net.cpp:124] Setting up conv0
I0428 19:40:20.340936 24522 net.cpp:131] Top shape: 100 2 24 24 (115200)
I0428 19:40:20.340940 24522 net.cpp:139] Memory required for data: 775600
I0428 19:40:20.340951 24522 layer_factory.hpp:77] Creating layer pool0
I0428 19:40:20.340958 24522 net.cpp:86] Creating Layer pool0
I0428 19:40:20.340961 24522 net.cpp:408] pool0 <- conv0
I0428 19:40:20.340966 24522 net.cpp:382] pool0 -> pool0
I0428 19:40:20.341006 24522 net.cpp:124] Setting up pool0
I0428 19:40:20.341012 24522 net.cpp:131] Top shape: 100 2 12 12 (28800)
I0428 19:40:20.341014 24522 net.cpp:139] Memory required for data: 890800
I0428 19:40:20.341017 24522 layer_factory.hpp:77] Creating layer conv1
I0428 19:40:20.341027 24522 net.cpp:86] Creating Layer conv1
I0428 19:40:20.341030 24522 net.cpp:408] conv1 <- pool0
I0428 19:40:20.341037 24522 net.cpp:382] conv1 -> conv1
I0428 19:40:20.342808 24522 net.cpp:124] Setting up conv1
I0428 19:40:20.342821 24522 net.cpp:131] Top shape: 100 5 8 8 (32000)
I0428 19:40:20.342840 24522 net.cpp:139] Memory required for data: 1018800
I0428 19:40:20.342849 24522 layer_factory.hpp:77] Creating layer pool1
I0428 19:40:20.342855 24522 net.cpp:86] Creating Layer pool1
I0428 19:40:20.342859 24522 net.cpp:408] pool1 <- conv1
I0428 19:40:20.342864 24522 net.cpp:382] pool1 -> pool1
I0428 19:40:20.342916 24522 net.cpp:124] Setting up pool1
I0428 19:40:20.342923 24522 net.cpp:131] Top shape: 100 5 4 4 (8000)
I0428 19:40:20.342926 24522 net.cpp:139] Memory required for data: 1050800
I0428 19:40:20.342928 24522 layer_factory.hpp:77] Creating layer ip1
I0428 19:40:20.342936 24522 net.cpp:86] Creating Layer ip1
I0428 19:40:20.342938 24522 net.cpp:408] ip1 <- pool1
I0428 19:40:20.342942 24522 net.cpp:382] ip1 -> ip1
I0428 19:40:20.343060 24522 net.cpp:124] Setting up ip1
I0428 19:40:20.343067 24522 net.cpp:131] Top shape: 100 10 (1000)
I0428 19:40:20.343080 24522 net.cpp:139] Memory required for data: 1054800
I0428 19:40:20.343088 24522 layer_factory.hpp:77] Creating layer relu1
I0428 19:40:20.343094 24522 net.cpp:86] Creating Layer relu1
I0428 19:40:20.343098 24522 net.cpp:408] relu1 <- ip1
I0428 19:40:20.343102 24522 net.cpp:369] relu1 -> ip1 (in-place)
I0428 19:40:20.343273 24522 net.cpp:124] Setting up relu1
I0428 19:40:20.343298 24522 net.cpp:131] Top shape: 100 10 (1000)
I0428 19:40:20.343302 24522 net.cpp:139] Memory required for data: 1058800
I0428 19:40:20.343305 24522 layer_factory.hpp:77] Creating layer ip2
I0428 19:40:20.343313 24522 net.cpp:86] Creating Layer ip2
I0428 19:40:20.343317 24522 net.cpp:408] ip2 <- ip1
I0428 19:40:20.343323 24522 net.cpp:382] ip2 -> ip2
I0428 19:40:20.343482 24522 net.cpp:124] Setting up ip2
I0428 19:40:20.343489 24522 net.cpp:131] Top shape: 100 50 (5000)
I0428 19:40:20.343492 24522 net.cpp:139] Memory required for data: 1078800
I0428 19:40:20.343499 24522 layer_factory.hpp:77] Creating layer relu2
I0428 19:40:20.343504 24522 net.cpp:86] Creating Layer relu2
I0428 19:40:20.343508 24522 net.cpp:408] relu2 <- ip2
I0428 19:40:20.343513 24522 net.cpp:369] relu2 -> ip2 (in-place)
I0428 19:40:20.343786 24522 net.cpp:124] Setting up relu2
I0428 19:40:20.343796 24522 net.cpp:131] Top shape: 100 50 (5000)
I0428 19:40:20.343797 24522 net.cpp:139] Memory required for data: 1098800
I0428 19:40:20.343801 24522 layer_factory.hpp:77] Creating layer ip3
I0428 19:40:20.343806 24522 net.cpp:86] Creating Layer ip3
I0428 19:40:20.343808 24522 net.cpp:408] ip3 <- ip2
I0428 19:40:20.343814 24522 net.cpp:382] ip3 -> ip3
I0428 19:40:20.344005 24522 net.cpp:124] Setting up ip3
I0428 19:40:20.344014 24522 net.cpp:131] Top shape: 100 10 (1000)
I0428 19:40:20.344017 24522 net.cpp:139] Memory required for data: 1102800
I0428 19:40:20.344027 24522 layer_factory.hpp:77] Creating layer relu3
I0428 19:40:20.344032 24522 net.cpp:86] Creating Layer relu3
I0428 19:40:20.344034 24522 net.cpp:408] relu3 <- ip3
I0428 19:40:20.344040 24522 net.cpp:369] relu3 -> ip3 (in-place)
I0428 19:40:20.344941 24522 net.cpp:124] Setting up relu3
I0428 19:40:20.344954 24522 net.cpp:131] Top shape: 100 10 (1000)
I0428 19:40:20.344957 24522 net.cpp:139] Memory required for data: 1106800
I0428 19:40:20.344961 24522 layer_factory.hpp:77] Creating layer ip3_relu3_0_split
I0428 19:40:20.344966 24522 net.cpp:86] Creating Layer ip3_relu3_0_split
I0428 19:40:20.344969 24522 net.cpp:408] ip3_relu3_0_split <- ip3
I0428 19:40:20.344975 24522 net.cpp:382] ip3_relu3_0_split -> ip3_relu3_0_split_0
I0428 19:40:20.344981 24522 net.cpp:382] ip3_relu3_0_split -> ip3_relu3_0_split_1
I0428 19:40:20.345052 24522 net.cpp:124] Setting up ip3_relu3_0_split
I0428 19:40:20.345058 24522 net.cpp:131] Top shape: 100 10 (1000)
I0428 19:40:20.345062 24522 net.cpp:131] Top shape: 100 10 (1000)
I0428 19:40:20.345064 24522 net.cpp:139] Memory required for data: 1114800
I0428 19:40:20.345067 24522 layer_factory.hpp:77] Creating layer accuracy
I0428 19:40:20.345075 24522 net.cpp:86] Creating Layer accuracy
I0428 19:40:20.345079 24522 net.cpp:408] accuracy <- ip3_relu3_0_split_0
I0428 19:40:20.345083 24522 net.cpp:408] accuracy <- label_mnist_1_split_0
I0428 19:40:20.345094 24522 net.cpp:382] accuracy -> accuracy
…
