…
I0428 20:20:18.624843  1522 net.cpp:296] The NetState phase (0) differed from the phase (1) specified by a rule in layer mnist
I0428 20:20:18.624868  1522 net.cpp:296] The NetState phase (0) differed from the phase (1) specified by a rule in layer accuracy
I0428 20:20:18.624986  1522 net.cpp:53] Initializing net from parameters: 
name: "LeNet"
state {
  phase: TRAIN
  level: 0
  stage: ""
}
layer {
  name: "mnist"
  type: "Data"
  top: "data"
  top: "label"
  include {
    phase: TRAIN
  }
  transform_param {
    scale: 0.00390625
  }
  data_param {
    source: "examples/mnist/mnist_train_lmdb"
    batch_size: 64
    backend: LMDB
  }
}
layer {
  name: "conv0"
  type: "Convolution"
  bottom: "data"
  top: "conv0"
  param {
    lr_mult: 1
  }
  param {
    lr_mult: 2
  }
  convolution_param {
    num_output: 50
    kernel_size: 5
    stride: 1
    weight_filler {
      type: "xavier"
    }
    bias_filler {
      type: "constant"
    }
  }
}
layer {
  name: "pool0"
  type: "Pooling"
  bottom: "conv0"
  top: "pool0"
  pooling_param {
    pool: MAX
    kernel_size: 2
    stride: 2
  }
}
layer {
  name: "conv1"
  type: "Convolution"
  bottom: "pool0"
  top: "conv1"
  param {
    lr_mult: 1
  }
  param {
    lr_mult: 2
  }
  convolution_param {
    num_output: 25
    kernel_size: 5
    stride: 1
    weight_filler {
      type: "xavier"
    }
    bias_filler {
      type: "constant"
    }
  }
}
layer {
  name: "pool1"
  type: "Pooling"
  bottom: "conv1"
  top: "pool1"
  pooling_param {
    pool: MAX
    kernel_size: 2
    stride: 2
  }
}
layer {
  name: "ip1"
  type: "InnerProduct"
  bottom: "pool1"
  top: "ip1"
  param {
    lr_mult: 1
  }
  param {
    lr_mult: 2
  }
  inner_product_param {
    num_output: 50
    weight_filler {
      type: "xavier"
    }
    bias_filler {
      type: "constant"
    }
  }
}
layer {
  name: "relu1"
  type: "ReLU"
  bottom: "ip1"
  top: "ip1"
}
layer {
  name: "ip2"
  type: "InnerProduct"
  bottom: "ip1"
  top: "ip2"
  param {
    lr_mult: 1
  }
  param {
    lr_mult: 2
  }
  inner_product_param {
    num_output: 25
    weight_filler {
      type: "xavier"
    }
    bias_filler {
      type: "constant"
    }
  }
}
layer {
  name: "relu2"
  type: "ReLU"
  bottom: "ip2"
  top: "ip2"
}
layer {
  name: "ip3"
  type: "InnerProduct"
  bottom: "ip2"
  top: "ip3"
  param {
    lr_mult: 1
  }
  param {
    lr_mult: 2
  }
  inner_product_param {
    num_output: 10
    weight_filler {
      type: "xavier"
    }
    bias_filler {
      type: "constant"
    }
  }
}
layer {
  name: "relu3"
  type: "ReLU"
  bottom: "ip3"
  top: "ip3"
}
layer {
  name: "loss"
  type: "SoftmaxWithLoss"
  bottom: "ip3"
  bottom: "label"
  top: "loss"
}
I0428 20:20:18.625097  1522 layer_factory.hpp:77] Creating layer mnist
I0428 20:20:18.625226  1522 db_lmdb.cpp:35] Opened lmdb examples/mnist/mnist_train_lmdb
I0428 20:20:18.625257  1522 net.cpp:86] Creating Layer mnist
I0428 20:20:18.625272  1522 net.cpp:382] mnist -> data
I0428 20:20:18.625301  1522 net.cpp:382] mnist -> label
I0428 20:20:18.626552  1522 data_layer.cpp:45] output data size: 64,1,28,28
I0428 20:20:18.629153  1522 net.cpp:124] Setting up mnist
I0428 20:20:18.629173  1522 net.cpp:131] Top shape: 64 1 28 28 (50176)
I0428 20:20:18.629184  1522 net.cpp:131] Top shape: 64 (64)
I0428 20:20:18.629189  1522 net.cpp:139] Memory required for data: 200960
I0428 20:20:18.629199  1522 layer_factory.hpp:77] Creating layer conv0
I0428 20:20:18.629225  1522 net.cpp:86] Creating Layer conv0
I0428 20:20:18.629250  1522 net.cpp:408] conv0 <- data
I0428 20:20:18.629268  1522 net.cpp:382] conv0 -> conv0
I0428 20:20:18.937130  1522 net.cpp:124] Setting up conv0
I0428 20:20:18.937166  1522 net.cpp:131] Top shape: 64 50 24 24 (1843200)
I0428 20:20:18.937175  1522 net.cpp:139] Memory required for data: 7573760
I0428 20:20:18.937199  1522 layer_factory.hpp:77] Creating layer pool0
I0428 20:20:18.937219  1522 net.cpp:86] Creating Layer pool0
I0428 20:20:18.937230  1522 net.cpp:408] pool0 <- conv0
I0428 20:20:18.937242  1522 net.cpp:382] pool0 -> pool0
I0428 20:20:18.937309  1522 net.cpp:124] Setting up pool0
I0428 20:20:18.937320  1522 net.cpp:131] Top shape: 64 50 12 12 (460800)
I0428 20:20:18.937326  1522 net.cpp:139] Memory required for data: 9416960
I0428 20:20:18.937332  1522 layer_factory.hpp:77] Creating layer conv1
I0428 20:20:18.937351  1522 net.cpp:86] Creating Layer conv1
I0428 20:20:18.937360  1522 net.cpp:408] conv1 <- pool0
I0428 20:20:18.937371  1522 net.cpp:382] conv1 -> conv1
I0428 20:20:18.939707  1522 net.cpp:124] Setting up conv1
I0428 20:20:18.939728  1522 net.cpp:131] Top shape: 64 25 8 8 (102400)
I0428 20:20:18.939734  1522 net.cpp:139] Memory required for data: 9826560
I0428 20:20:18.939752  1522 layer_factory.hpp:77] Creating layer pool1
I0428 20:20:18.939766  1522 net.cpp:86] Creating Layer pool1
I0428 20:20:18.939780  1522 net.cpp:408] pool1 <- conv1
I0428 20:20:18.939790  1522 net.cpp:382] pool1 -> pool1
I0428 20:20:18.939841  1522 net.cpp:124] Setting up pool1
I0428 20:20:18.939851  1522 net.cpp:131] Top shape: 64 25 4 4 (25600)
I0428 20:20:18.939858  1522 net.cpp:139] Memory required for data: 9928960
I0428 20:20:18.939864  1522 layer_factory.hpp:77] Creating layer ip1
I0428 20:20:18.939877  1522 net.cpp:86] Creating Layer ip1
I0428 20:20:18.939889  1522 net.cpp:408] ip1 <- pool1
I0428 20:20:18.939899  1522 net.cpp:382] ip1 -> ip1
I0428 20:20:18.940157  1522 net.cpp:124] Setting up ip1
I0428 20:20:18.940167  1522 net.cpp:131] Top shape: 64 50 (3200)
I0428 20:20:18.940174  1522 net.cpp:139] Memory required for data: 9941760
I0428 20:20:18.940188  1522 layer_factory.hpp:77] Creating layer relu1
I0428 20:20:18.940202  1522 net.cpp:86] Creating Layer relu1
I0428 20:20:18.940210  1522 net.cpp:408] relu1 <- ip1
I0428 20:20:18.940220  1522 net.cpp:369] relu1 -> ip1 (in-place)
I0428 20:20:18.940420  1522 net.cpp:124] Setting up relu1
I0428 20:20:18.940433  1522 net.cpp:131] Top shape: 64 50 (3200)
I0428 20:20:18.940438  1522 net.cpp:139] Memory required for data: 9954560
I0428 20:20:18.940445  1522 layer_factory.hpp:77] Creating layer ip2
I0428 20:20:18.940456  1522 net.cpp:86] Creating Layer ip2
I0428 20:20:18.940462  1522 net.cpp:408] ip2 <- ip1
I0428 20:20:18.940472  1522 net.cpp:382] ip2 -> ip2
I0428 20:20:18.940603  1522 net.cpp:124] Setting up ip2
I0428 20:20:18.940613  1522 net.cpp:131] Top shape: 64 25 (1600)
I0428 20:20:18.940619  1522 net.cpp:139] Memory required for data: 9960960
I0428 20:20:18.940630  1522 layer_factory.hpp:77] Creating layer relu2
I0428 20:20:18.940642  1522 net.cpp:86] Creating Layer relu2
I0428 20:20:18.940649  1522 net.cpp:408] relu2 <- ip2
I0428 20:20:18.940657  1522 net.cpp:369] relu2 -> ip2 (in-place)
I0428 20:20:18.941525  1522 net.cpp:124] Setting up relu2
I0428 20:20:18.941542  1522 net.cpp:131] Top shape: 64 25 (1600)
I0428 20:20:18.941550  1522 net.cpp:139] Memory required for data: 9967360
I0428 20:20:18.941556  1522 layer_factory.hpp:77] Creating layer ip3
I0428 20:20:18.941568  1522 net.cpp:86] Creating Layer ip3
I0428 20:20:18.941576  1522 net.cpp:408] ip3 <- ip2
I0428 20:20:18.941586  1522 net.cpp:382] ip3 -> ip3
I0428 20:20:18.941711  1522 net.cpp:124] Setting up ip3
I0428 20:20:18.941722  1522 net.cpp:131] Top shape: 64 10 (640)
I0428 20:20:18.941728  1522 net.cpp:139] Memory required for data: 9969920
I0428 20:20:18.941745  1522 layer_factory.hpp:77] Creating layer relu3
I0428 20:20:18.941756  1522 net.cpp:86] Creating Layer relu3
I0428 20:20:18.941763  1522 net.cpp:408] relu3 <- ip3
I0428 20:20:18.941772  1522 net.cpp:369] relu3 -> ip3 (in-place)
I0428 20:20:18.941972  1522 net.cpp:124] Setting up relu3
I0428 20:20:18.941983  1522 net.cpp:131] Top shape: 64 10 (640)
I0428 20:20:18.941990  1522 net.cpp:139] Memory required for data: 9972480
I0428 20:20:18.941997  1522 layer_factory.hpp:77] Creating layer loss
I0428 20:20:18.942013  1522 net.cpp:86] Creating Layer loss
I0428 20:20:18.942021  1522 net.cpp:408] loss <- ip3
I0428 20:20:18.942029  1522 net.cpp:408] loss <- label
I0428 20:20:18.942039  1522 net.cpp:382] loss -> loss
I0428 20:20:18.942060  1522 layer_factory.hpp:77] Creating layer loss
…
I0428 20:20:18.942863  1522 solver.cpp:173] Creating test net (#0) specified by net file: ECE595/mnist/train_test/var_everything2/lenet_train_test1360.prototxt
I0428 20:20:18.942904  1522 net.cpp:296] The NetState phase (1) differed from the phase (0) specified by a rule in layer mnist
I0428 20:20:18.943028  1522 net.cpp:53] Initializing net from parameters: 
name: "LeNet"
state {
  phase: TEST
}
layer {
  name: "mnist"
  type: "Data"
  top: "data"
  top: "label"
  include {
    phase: TEST
  }
  transform_param {
    scale: 0.00390625
  }
  data_param {
    source: "examples/mnist/mnist_test_lmdb"
    batch_size: 100
    backend: LMDB
  }
}
layer {
  name: "conv0"
  type: "Convolution"
  bottom: "data"
  top: "conv0"
  param {
    lr_mult: 1
  }
  param {
    lr_mult: 2
  }
  convolution_param {
    num_output: 50
    kernel_size: 5
    stride: 1
    weight_filler {
      type: "xavier"
    }
    bias_filler {
      type: "constant"
    }
  }
}
layer {
  name: "pool0"
  type: "Pooling"
  bottom: "conv0"
  top: "pool0"
  pooling_param {
    pool: MAX
    kernel_size: 2
    stride: 2
  }
}
layer {
  name: "conv1"
  type: "Convolution"
  bottom: "pool0"
  top: "conv1"
  param {
    lr_mult: 1
  }
  param {
    lr_mult: 2
  }
  convolution_param {
    num_output: 25
    kernel_size: 5
    stride: 1
    weight_filler {
      type: "xavier"
    }
    bias_filler {
      type: "constant"
    }
  }
}
layer {
  name: "pool1"
  type: "Pooling"
  bottom: "conv1"
  top: "pool1"
  pooling_param {
    pool: MAX
    kernel_size: 2
    stride: 2
  }
}
layer {
  name: "ip1"
  type: "InnerProduct"
  bottom: "pool1"
  top: "ip1"
  param {
    lr_mult: 1
  }
  param {
    lr_mult: 2
  }
  inner_product_param {
    num_output: 50
    weight_filler {
      type: "xavier"
    }
    bias_filler {
      type: "constant"
    }
  }
}
layer {
  name: "relu1"
  type: "ReLU"
  bottom: "ip1"
  top: "ip1"
}
layer {
  name: "ip2"
  type: "InnerProduct"
  bottom: "ip1"
  top: "ip2"
  param {
    lr_mult: 1
  }
  param {
    lr_mult: 2
  }
  inner_product_param {
    num_output: 25
    weight_filler {
      type: "xavier"
    }
    bias_filler {
      type: "constant"
    }
  }
}
layer {
  name: "relu2"
  type: "ReLU"
  bottom: "ip2"
  top: "ip2"
}
layer {
  name: "ip3"
  type: "InnerProduct"
  bottom: "ip2"
  top: "ip3"
  param {
    lr_mult: 1
  }
  param {
    lr_mult: 2
  }
  inner_product_param {
    num_output: 10
    weight_filler {
      type: "xavier"
    }
    bias_filler {
      type: "constant"
    }
  }
}
layer {
  name: "relu3"
  type: "ReLU"
  bottom: "ip3"
  top: "ip3"
}
layer {
  name: "accuracy"
  type: "Accuracy"
  bottom: "ip3"
  bottom: "label"
  top: "accuracy"
  include {
    phase: TEST
  }
}
layer {
  name: "loss"
  type: "SoftmaxWithLoss"
  bottom: "ip3"
  bottom: "label"
  top: "loss"
}
I0428 20:20:18.943162  1522 layer_factory.hpp:77] Creating layer mnist
I0428 20:20:18.943230  1522 db_lmdb.cpp:35] Opened lmdb examples/mnist/mnist_test_lmdb
I0428 20:20:18.943250  1522 net.cpp:86] Creating Layer mnist
I0428 20:20:18.943259  1522 net.cpp:382] mnist -> data
I0428 20:20:18.943274  1522 net.cpp:382] mnist -> label
I0428 20:20:18.943413  1522 data_layer.cpp:45] output data size: 100,1,28,28
I0428 20:20:18.945778  1522 net.cpp:124] Setting up mnist
I0428 20:20:18.945796  1522 net.cpp:131] Top shape: 100 1 28 28 (78400)
I0428 20:20:18.945806  1522 net.cpp:131] Top shape: 100 (100)
I0428 20:20:18.945812  1522 net.cpp:139] Memory required for data: 314000
I0428 20:20:18.945819  1522 layer_factory.hpp:77] Creating layer label_mnist_1_split
I0428 20:20:18.945832  1522 net.cpp:86] Creating Layer label_mnist_1_split
I0428 20:20:18.945838  1522 net.cpp:408] label_mnist_1_split <- label
I0428 20:20:18.945848  1522 net.cpp:382] label_mnist_1_split -> label_mnist_1_split_0
I0428 20:20:18.945861  1522 net.cpp:382] label_mnist_1_split -> label_mnist_1_split_1
I0428 20:20:18.945951  1522 net.cpp:124] Setting up label_mnist_1_split
I0428 20:20:18.945961  1522 net.cpp:131] Top shape: 100 (100)
I0428 20:20:18.945969  1522 net.cpp:131] Top shape: 100 (100)
I0428 20:20:18.945976  1522 net.cpp:139] Memory required for data: 314800
I0428 20:20:18.945981  1522 layer_factory.hpp:77] Creating layer conv0
I0428 20:20:18.945996  1522 net.cpp:86] Creating Layer conv0
I0428 20:20:18.946005  1522 net.cpp:408] conv0 <- data
I0428 20:20:18.946015  1522 net.cpp:382] conv0 -> conv0
I0428 20:20:18.947763  1522 net.cpp:124] Setting up conv0
I0428 20:20:18.947784  1522 net.cpp:131] Top shape: 100 50 24 24 (2880000)
I0428 20:20:18.947791  1522 net.cpp:139] Memory required for data: 11834800
I0428 20:20:18.947809  1522 layer_factory.hpp:77] Creating layer pool0
I0428 20:20:18.947820  1522 net.cpp:86] Creating Layer pool0
I0428 20:20:18.947829  1522 net.cpp:408] pool0 <- conv0
I0428 20:20:18.947839  1522 net.cpp:382] pool0 -> pool0
I0428 20:20:18.947887  1522 net.cpp:124] Setting up pool0
I0428 20:20:18.947897  1522 net.cpp:131] Top shape: 100 50 12 12 (720000)
I0428 20:20:18.947903  1522 net.cpp:139] Memory required for data: 14714800
I0428 20:20:18.947909  1522 layer_factory.hpp:77] Creating layer conv1
I0428 20:20:18.947924  1522 net.cpp:86] Creating Layer conv1
I0428 20:20:18.947932  1522 net.cpp:408] conv1 <- pool0
I0428 20:20:18.947943  1522 net.cpp:382] conv1 -> conv1
I0428 20:20:18.949815  1522 net.cpp:124] Setting up conv1
I0428 20:20:18.949833  1522 net.cpp:131] Top shape: 100 25 8 8 (160000)
I0428 20:20:18.949841  1522 net.cpp:139] Memory required for data: 15354800
I0428 20:20:18.949857  1522 layer_factory.hpp:77] Creating layer pool1
I0428 20:20:18.949870  1522 net.cpp:86] Creating Layer pool1
I0428 20:20:18.949877  1522 net.cpp:408] pool1 <- conv1
I0428 20:20:18.949887  1522 net.cpp:382] pool1 -> pool1
I0428 20:20:18.949939  1522 net.cpp:124] Setting up pool1
I0428 20:20:18.949949  1522 net.cpp:131] Top shape: 100 25 4 4 (40000)
I0428 20:20:18.949955  1522 net.cpp:139] Memory required for data: 15514800
I0428 20:20:18.949961  1522 layer_factory.hpp:77] Creating layer ip1
I0428 20:20:18.949973  1522 net.cpp:86] Creating Layer ip1
I0428 20:20:18.949980  1522 net.cpp:408] ip1 <- pool1
I0428 20:20:18.949990  1522 net.cpp:382] ip1 -> ip1
I0428 20:20:18.950249  1522 net.cpp:124] Setting up ip1
I0428 20:20:18.950261  1522 net.cpp:131] Top shape: 100 50 (5000)
I0428 20:20:18.950280  1522 net.cpp:139] Memory required for data: 15534800
I0428 20:20:18.950296  1522 layer_factory.hpp:77] Creating layer relu1
I0428 20:20:18.950307  1522 net.cpp:86] Creating Layer relu1
I0428 20:20:18.950314  1522 net.cpp:408] relu1 <- ip1
I0428 20:20:18.950322  1522 net.cpp:369] relu1 -> ip1 (in-place)
I0428 20:20:18.950587  1522 net.cpp:124] Setting up relu1
I0428 20:20:18.950599  1522 net.cpp:131] Top shape: 100 50 (5000)
I0428 20:20:18.950605  1522 net.cpp:139] Memory required for data: 15554800
I0428 20:20:18.950613  1522 layer_factory.hpp:77] Creating layer ip2
I0428 20:20:18.950625  1522 net.cpp:86] Creating Layer ip2
I0428 20:20:18.950636  1522 net.cpp:408] ip2 <- ip1
I0428 20:20:18.950647  1522 net.cpp:382] ip2 -> ip2
I0428 20:20:18.950780  1522 net.cpp:124] Setting up ip2
I0428 20:20:18.950790  1522 net.cpp:131] Top shape: 100 25 (2500)
I0428 20:20:18.950796  1522 net.cpp:139] Memory required for data: 15564800
I0428 20:20:18.950808  1522 layer_factory.hpp:77] Creating layer relu2
I0428 20:20:18.950816  1522 net.cpp:86] Creating Layer relu2
I0428 20:20:18.950824  1522 net.cpp:408] relu2 <- ip2
I0428 20:20:18.950832  1522 net.cpp:369] relu2 -> ip2 (in-place)
I0428 20:20:18.951019  1522 net.cpp:124] Setting up relu2
I0428 20:20:18.951030  1522 net.cpp:131] Top shape: 100 25 (2500)
I0428 20:20:18.951036  1522 net.cpp:139] Memory required for data: 15574800
I0428 20:20:18.951042  1522 layer_factory.hpp:77] Creating layer ip3
I0428 20:20:18.951052  1522 net.cpp:86] Creating Layer ip3
I0428 20:20:18.951063  1522 net.cpp:408] ip3 <- ip2
I0428 20:20:18.951073  1522 net.cpp:382] ip3 -> ip3
I0428 20:20:18.951195  1522 net.cpp:124] Setting up ip3
I0428 20:20:18.951205  1522 net.cpp:131] Top shape: 100 10 (1000)
I0428 20:20:18.951211  1522 net.cpp:139] Memory required for data: 15578800
I0428 20:20:18.951226  1522 layer_factory.hpp:77] Creating layer relu3
I0428 20:20:18.951237  1522 net.cpp:86] Creating Layer relu3
I0428 20:20:18.951246  1522 net.cpp:408] relu3 <- ip3
I0428 20:20:18.951254  1522 net.cpp:369] relu3 -> ip3 (in-place)
I0428 20:20:18.952173  1522 net.cpp:124] Setting up relu3
I0428 20:20:18.952189  1522 net.cpp:131] Top shape: 100 10 (1000)
I0428 20:20:18.952196  1522 net.cpp:139] Memory required for data: 15582800
I0428 20:20:18.952203  1522 layer_factory.hpp:77] Creating layer ip3_relu3_0_split
I0428 20:20:18.952214  1522 net.cpp:86] Creating Layer ip3_relu3_0_split
I0428 20:20:18.952219  1522 net.cpp:408] ip3_relu3_0_split <- ip3
I0428 20:20:18.952229  1522 net.cpp:382] ip3_relu3_0_split -> ip3_relu3_0_split_0
I0428 20:20:18.952241  1522 net.cpp:382] ip3_relu3_0_split -> ip3_relu3_0_split_1
I0428 20:20:18.952292  1522 net.cpp:124] Setting up ip3_relu3_0_split
I0428 20:20:18.952301  1522 net.cpp:131] Top shape: 100 10 (1000)
I0428 20:20:18.952309  1522 net.cpp:131] Top shape: 100 10 (1000)
I0428 20:20:18.952316  1522 net.cpp:139] Memory required for data: 15590800
I0428 20:20:18.952322  1522 layer_factory.hpp:77] Creating layer accuracy
I0428 20:20:18.952332  1522 net.cpp:86] Creating Layer accuracy
I0428 20:20:18.952338  1522 net.cpp:408] accuracy <- ip3_relu3_0_split_0
I0428 20:20:18.952347  1522 net.cpp:408] accuracy <- label_mnist_1_split_0
I0428 20:20:18.952355  1522 net.cpp:382] accuracy -> accuracy
…
