…
I0428 19:31:20.720690 22552 net.cpp:296] The NetState phase (0) differed from the phase (1) specified by a rule in layer mnist
I0428 19:31:20.720705 22552 net.cpp:296] The NetState phase (0) differed from the phase (1) specified by a rule in layer accuracy
I0428 19:31:20.720775 22552 net.cpp:53] Initializing net from parameters: 
name: "LeNet"
state {
  phase: TRAIN
  level: 0
  stage: ""
}
layer {
  name: "mnist"
  type: "Data"
  top: "data"
  top: "label"
  include {
    phase: TRAIN
  }
  transform_param {
    scale: 0.00390625
  }
  data_param {
    source: "examples/mnist/mnist_train_lmdb"
    batch_size: 64
    backend: LMDB
  }
}
layer {
  name: "conv0"
  type: "Convolution"
  bottom: "data"
  top: "conv0"
  param {
    lr_mult: 1
  }
  param {
    lr_mult: 2
  }
  convolution_param {
    num_output: 10
    kernel_size: 5
    stride: 1
    weight_filler {
      type: "xavier"
    }
    bias_filler {
      type: "constant"
    }
  }
}
layer {
  name: "pool0"
  type: "Pooling"
  bottom: "conv0"
  top: "pool0"
  pooling_param {
    pool: MAX
    kernel_size: 2
    stride: 2
  }
}
layer {
  name: "ip1"
  type: "InnerProduct"
  bottom: "pool0"
  top: "ip1"
  param {
    lr_mult: 1
  }
  param {
    lr_mult: 2
  }
  inner_product_param {
    num_output: 10
    weight_filler {
      type: "xavier"
    }
    bias_filler {
      type: "constant"
    }
  }
}
layer {
  name: "relu1"
  type: "ReLU"
  bottom: "ip1"
  top: "ip1"
}
layer {
  name: "loss"
  type: "SoftmaxWithLoss"
  bottom: "ip1"
  bottom: "label"
  top: "loss"
}
I0428 19:31:20.720854 22552 layer_factory.hpp:77] Creating layer mnist
I0428 19:31:20.720952 22552 db_lmdb.cpp:35] Opened lmdb examples/mnist/mnist_train_lmdb
I0428 19:31:20.720976 22552 net.cpp:86] Creating Layer mnist
I0428 19:31:20.720984 22552 net.cpp:382] mnist -> data
I0428 19:31:20.721007 22552 net.cpp:382] mnist -> label
I0428 19:31:20.722096 22552 data_layer.cpp:45] output data size: 64,1,28,28
I0428 19:31:20.724545 22552 net.cpp:124] Setting up mnist
I0428 19:31:20.724563 22552 net.cpp:131] Top shape: 64 1 28 28 (50176)
I0428 19:31:20.724570 22552 net.cpp:131] Top shape: 64 (64)
I0428 19:31:20.724572 22552 net.cpp:139] Memory required for data: 200960
I0428 19:31:20.724580 22552 layer_factory.hpp:77] Creating layer conv0
I0428 19:31:20.724611 22552 net.cpp:86] Creating Layer conv0
I0428 19:31:20.724617 22552 net.cpp:408] conv0 <- data
I0428 19:31:20.724630 22552 net.cpp:382] conv0 -> conv0
I0428 19:31:21.010434 22552 net.cpp:124] Setting up conv0
I0428 19:31:21.010462 22552 net.cpp:131] Top shape: 64 10 24 24 (368640)
I0428 19:31:21.010466 22552 net.cpp:139] Memory required for data: 1675520
I0428 19:31:21.010481 22552 layer_factory.hpp:77] Creating layer pool0
I0428 19:31:21.010494 22552 net.cpp:86] Creating Layer pool0
I0428 19:31:21.010499 22552 net.cpp:408] pool0 <- conv0
I0428 19:31:21.010505 22552 net.cpp:382] pool0 -> pool0
I0428 19:31:21.010552 22552 net.cpp:124] Setting up pool0
I0428 19:31:21.010558 22552 net.cpp:131] Top shape: 64 10 12 12 (92160)
I0428 19:31:21.010561 22552 net.cpp:139] Memory required for data: 2044160
I0428 19:31:21.010565 22552 layer_factory.hpp:77] Creating layer ip1
I0428 19:31:21.010571 22552 net.cpp:86] Creating Layer ip1
I0428 19:31:21.010576 22552 net.cpp:408] ip1 <- pool0
I0428 19:31:21.010581 22552 net.cpp:382] ip1 -> ip1
I0428 19:31:21.011611 22552 net.cpp:124] Setting up ip1
I0428 19:31:21.011625 22552 net.cpp:131] Top shape: 64 10 (640)
I0428 19:31:21.011642 22552 net.cpp:139] Memory required for data: 2046720
I0428 19:31:21.011651 22552 layer_factory.hpp:77] Creating layer relu1
I0428 19:31:21.011658 22552 net.cpp:86] Creating Layer relu1
I0428 19:31:21.011662 22552 net.cpp:408] relu1 <- ip1
I0428 19:31:21.011667 22552 net.cpp:369] relu1 -> ip1 (in-place)
I0428 19:31:21.011834 22552 net.cpp:124] Setting up relu1
I0428 19:31:21.011843 22552 net.cpp:131] Top shape: 64 10 (640)
I0428 19:31:21.011847 22552 net.cpp:139] Memory required for data: 2049280
I0428 19:31:21.011849 22552 layer_factory.hpp:77] Creating layer loss
I0428 19:31:21.011857 22552 net.cpp:86] Creating Layer loss
I0428 19:31:21.011859 22552 net.cpp:408] loss <- ip1
I0428 19:31:21.011863 22552 net.cpp:408] loss <- label
I0428 19:31:21.011868 22552 net.cpp:382] loss -> loss
I0428 19:31:21.011886 22552 layer_factory.hpp:77] Creating layer loss
…
I0428 19:31:21.013043 22552 solver.cpp:173] Creating test net (#0) specified by net file: ECE595/mnist/train_test/var_everything2/lenet_train_test119.prototxt
I0428 19:31:21.013068 22552 net.cpp:296] The NetState phase (1) differed from the phase (0) specified by a rule in layer mnist
I0428 19:31:21.013155 22552 net.cpp:53] Initializing net from parameters: 
name: "LeNet"
state {
  phase: TEST
}
layer {
  name: "mnist"
  type: "Data"
  top: "data"
  top: "label"
  include {
    phase: TEST
  }
  transform_param {
    scale: 0.00390625
  }
  data_param {
    source: "examples/mnist/mnist_test_lmdb"
    batch_size: 100
    backend: LMDB
  }
}
layer {
  name: "conv0"
  type: "Convolution"
  bottom: "data"
  top: "conv0"
  param {
    lr_mult: 1
  }
  param {
    lr_mult: 2
  }
  convolution_param {
    num_output: 10
    kernel_size: 5
    stride: 1
    weight_filler {
      type: "xavier"
    }
    bias_filler {
      type: "constant"
    }
  }
}
layer {
  name: "pool0"
  type: "Pooling"
  bottom: "conv0"
  top: "pool0"
  pooling_param {
    pool: MAX
    kernel_size: 2
    stride: 2
  }
}
layer {
  name: "ip1"
  type: "InnerProduct"
  bottom: "pool0"
  top: "ip1"
  param {
    lr_mult: 1
  }
  param {
    lr_mult: 2
  }
  inner_product_param {
    num_output: 10
    weight_filler {
      type: "xavier"
    }
    bias_filler {
      type: "constant"
    }
  }
}
layer {
  name: "relu1"
  type: "ReLU"
  bottom: "ip1"
  top: "ip1"
}
layer {
  name: "accuracy"
  type: "Accuracy"
  bottom: "ip1"
  bottom: "label"
  top: "accuracy"
  include {
    phase: TEST
  }
}
layer {
  name: "loss"
  type: "SoftmaxWithLoss"
  bottom: "ip1"
  bottom: "label"
  top: "loss"
}
I0428 19:31:21.013242 22552 layer_factory.hpp:77] Creating layer mnist
I0428 19:31:21.013286 22552 db_lmdb.cpp:35] Opened lmdb examples/mnist/mnist_test_lmdb
I0428 19:31:21.013299 22552 net.cpp:86] Creating Layer mnist
I0428 19:31:21.013303 22552 net.cpp:382] mnist -> data
I0428 19:31:21.013311 22552 net.cpp:382] mnist -> label
I0428 19:31:21.013397 22552 data_layer.cpp:45] output data size: 100,1,28,28
I0428 19:31:21.015470 22552 net.cpp:124] Setting up mnist
I0428 19:31:21.015483 22552 net.cpp:131] Top shape: 100 1 28 28 (78400)
I0428 19:31:21.015488 22552 net.cpp:131] Top shape: 100 (100)
I0428 19:31:21.015491 22552 net.cpp:139] Memory required for data: 314000
I0428 19:31:21.015506 22552 layer_factory.hpp:77] Creating layer label_mnist_1_split
I0428 19:31:21.015512 22552 net.cpp:86] Creating Layer label_mnist_1_split
I0428 19:31:21.015516 22552 net.cpp:408] label_mnist_1_split <- label
I0428 19:31:21.015521 22552 net.cpp:382] label_mnist_1_split -> label_mnist_1_split_0
I0428 19:31:21.015527 22552 net.cpp:382] label_mnist_1_split -> label_mnist_1_split_1
I0428 19:31:21.015635 22552 net.cpp:124] Setting up label_mnist_1_split
I0428 19:31:21.015643 22552 net.cpp:131] Top shape: 100 (100)
I0428 19:31:21.015661 22552 net.cpp:131] Top shape: 100 (100)
I0428 19:31:21.015664 22552 net.cpp:139] Memory required for data: 314800
I0428 19:31:21.015667 22552 layer_factory.hpp:77] Creating layer conv0
I0428 19:31:21.015677 22552 net.cpp:86] Creating Layer conv0
I0428 19:31:21.015696 22552 net.cpp:408] conv0 <- data
I0428 19:31:21.015702 22552 net.cpp:382] conv0 -> conv0
I0428 19:31:21.017298 22552 net.cpp:124] Setting up conv0
I0428 19:31:21.017314 22552 net.cpp:131] Top shape: 100 10 24 24 (576000)
I0428 19:31:21.017318 22552 net.cpp:139] Memory required for data: 2618800
I0428 19:31:21.017326 22552 layer_factory.hpp:77] Creating layer pool0
I0428 19:31:21.017333 22552 net.cpp:86] Creating Layer pool0
I0428 19:31:21.017336 22552 net.cpp:408] pool0 <- conv0
I0428 19:31:21.017341 22552 net.cpp:382] pool0 -> pool0
I0428 19:31:21.017379 22552 net.cpp:124] Setting up pool0
I0428 19:31:21.017385 22552 net.cpp:131] Top shape: 100 10 12 12 (144000)
I0428 19:31:21.017387 22552 net.cpp:139] Memory required for data: 3194800
I0428 19:31:21.017390 22552 layer_factory.hpp:77] Creating layer ip1
I0428 19:31:21.017397 22552 net.cpp:86] Creating Layer ip1
I0428 19:31:21.017401 22552 net.cpp:408] ip1 <- pool0
I0428 19:31:21.017406 22552 net.cpp:382] ip1 -> ip1
I0428 19:31:21.017585 22552 net.cpp:124] Setting up ip1
I0428 19:31:21.017593 22552 net.cpp:131] Top shape: 100 10 (1000)
I0428 19:31:21.017596 22552 net.cpp:139] Memory required for data: 3198800
I0428 19:31:21.017603 22552 layer_factory.hpp:77] Creating layer relu1
I0428 19:31:21.017608 22552 net.cpp:86] Creating Layer relu1
I0428 19:31:21.017611 22552 net.cpp:408] relu1 <- ip1
I0428 19:31:21.017616 22552 net.cpp:369] relu1 -> ip1 (in-place)
I0428 19:31:21.017894 22552 net.cpp:124] Setting up relu1
I0428 19:31:21.017904 22552 net.cpp:131] Top shape: 100 10 (1000)
I0428 19:31:21.017907 22552 net.cpp:139] Memory required for data: 3202800
I0428 19:31:21.017910 22552 layer_factory.hpp:77] Creating layer ip1_relu1_0_split
I0428 19:31:21.017915 22552 net.cpp:86] Creating Layer ip1_relu1_0_split
I0428 19:31:21.017920 22552 net.cpp:408] ip1_relu1_0_split <- ip1
I0428 19:31:21.017925 22552 net.cpp:382] ip1_relu1_0_split -> ip1_relu1_0_split_0
I0428 19:31:21.017930 22552 net.cpp:382] ip1_relu1_0_split -> ip1_relu1_0_split_1
I0428 19:31:21.017972 22552 net.cpp:124] Setting up ip1_relu1_0_split
I0428 19:31:21.017985 22552 net.cpp:131] Top shape: 100 10 (1000)
I0428 19:31:21.017990 22552 net.cpp:131] Top shape: 100 10 (1000)
I0428 19:31:21.017993 22552 net.cpp:139] Memory required for data: 3210800
I0428 19:31:21.017997 22552 layer_factory.hpp:77] Creating layer accuracy
I0428 19:31:21.018008 22552 net.cpp:86] Creating Layer accuracy
I0428 19:31:21.018012 22552 net.cpp:408] accuracy <- ip1_relu1_0_split_0
I0428 19:31:21.018015 22552 net.cpp:408] accuracy <- label_mnist_1_split_0
I0428 19:31:21.018020 22552 net.cpp:382] accuracy -> accuracy
…
