…
I0428 20:13:29.503340 32471 net.cpp:296] The NetState phase (0) differed from the phase (1) specified by a rule in layer mnist
I0428 20:13:29.503372 32471 net.cpp:296] The NetState phase (0) differed from the phase (1) specified by a rule in layer accuracy
I0428 20:13:29.503458 32471 net.cpp:53] Initializing net from parameters: 
name: "LeNet"
state {
  phase: TRAIN
  level: 0
  stage: ""
}
layer {
  name: "mnist"
  type: "Data"
  top: "data"
  top: "label"
  include {
    phase: TRAIN
  }
  transform_param {
    scale: 0.00390625
  }
  data_param {
    source: "examples/mnist/mnist_train_lmdb"
    batch_size: 64
    backend: LMDB
  }
}
layer {
  name: "conv0"
  type: "Convolution"
  bottom: "data"
  top: "conv0"
  param {
    lr_mult: 1
  }
  param {
    lr_mult: 2
  }
  convolution_param {
    num_output: 25
    kernel_size: 5
    stride: 1
    weight_filler {
      type: "xavier"
    }
    bias_filler {
      type: "constant"
    }
  }
}
layer {
  name: "pool0"
  type: "Pooling"
  bottom: "conv0"
  top: "pool0"
  pooling_param {
    pool: MAX
    kernel_size: 2
    stride: 2
  }
}
layer {
  name: "conv1"
  type: "Convolution"
  bottom: "pool0"
  top: "conv1"
  param {
    lr_mult: 1
  }
  param {
    lr_mult: 2
  }
  convolution_param {
    num_output: 100
    kernel_size: 5
    stride: 1
    weight_filler {
      type: "xavier"
    }
    bias_filler {
      type: "constant"
    }
  }
}
layer {
  name: "pool1"
  type: "Pooling"
  bottom: "conv1"
  top: "pool1"
  pooling_param {
    pool: MAX
    kernel_size: 2
    stride: 2
  }
}
layer {
  name: "ip1"
  type: "InnerProduct"
  bottom: "pool1"
  top: "ip1"
  param {
    lr_mult: 1
  }
  param {
    lr_mult: 2
  }
  inner_product_param {
    num_output: 50
    weight_filler {
      type: "xavier"
    }
    bias_filler {
      type: "constant"
    }
  }
}
layer {
  name: "relu1"
  type: "ReLU"
  bottom: "ip1"
  top: "ip1"
}
layer {
  name: "ip2"
  type: "InnerProduct"
  bottom: "ip1"
  top: "ip2"
  param {
    lr_mult: 1
  }
  param {
    lr_mult: 2
  }
  inner_product_param {
    num_output: 10
    weight_filler {
      type: "xavier"
    }
    bias_filler {
      type: "constant"
    }
  }
}
layer {
  name: "relu2"
  type: "ReLU"
  bottom: "ip2"
  top: "ip2"
}
layer {
  name: "ip3"
  type: "InnerProduct"
  bottom: "ip2"
  top: "ip3"
  param {
    lr_mult: 1
  }
  param {
    lr_mult: 2
  }
  inner_product_param {
    num_output: 10
    weight_filler {
      type: "xavier"
    }
    bias_filler {
      type: "constant"
    }
  }
}
layer {
  name: "relu3"
  type: "ReLU"
  bottom: "ip3"
  top: "ip3"
}
layer {
  name: "loss"
  type: "SoftmaxWithLoss"
  bottom: "ip3"
  bottom: "label"
  top: "loss"
}
I0428 20:13:29.503522 32471 layer_factory.hpp:77] Creating layer mnist
I0428 20:13:29.503618 32471 db_lmdb.cpp:35] Opened lmdb examples/mnist/mnist_train_lmdb
I0428 20:13:29.503636 32471 net.cpp:86] Creating Layer mnist
I0428 20:13:29.503645 32471 net.cpp:382] mnist -> data
I0428 20:13:29.503664 32471 net.cpp:382] mnist -> label
I0428 20:13:29.504619 32471 data_layer.cpp:45] output data size: 64,1,28,28
I0428 20:13:29.506850 32471 net.cpp:124] Setting up mnist
I0428 20:13:29.506881 32471 net.cpp:131] Top shape: 64 1 28 28 (50176)
I0428 20:13:29.506886 32471 net.cpp:131] Top shape: 64 (64)
I0428 20:13:29.506889 32471 net.cpp:139] Memory required for data: 200960
I0428 20:13:29.506894 32471 layer_factory.hpp:77] Creating layer conv0
I0428 20:13:29.506908 32471 net.cpp:86] Creating Layer conv0
I0428 20:13:29.506925 32471 net.cpp:408] conv0 <- data
I0428 20:13:29.506937 32471 net.cpp:382] conv0 -> conv0
I0428 20:13:29.727912 32471 net.cpp:124] Setting up conv0
I0428 20:13:29.727937 32471 net.cpp:131] Top shape: 64 25 24 24 (921600)
I0428 20:13:29.727941 32471 net.cpp:139] Memory required for data: 3887360
I0428 20:13:29.727954 32471 layer_factory.hpp:77] Creating layer pool0
I0428 20:13:29.727967 32471 net.cpp:86] Creating Layer pool0
I0428 20:13:29.727972 32471 net.cpp:408] pool0 <- conv0
I0428 20:13:29.727993 32471 net.cpp:382] pool0 -> pool0
I0428 20:13:29.728036 32471 net.cpp:124] Setting up pool0
I0428 20:13:29.728044 32471 net.cpp:131] Top shape: 64 25 12 12 (230400)
I0428 20:13:29.728045 32471 net.cpp:139] Memory required for data: 4808960
I0428 20:13:29.728049 32471 layer_factory.hpp:77] Creating layer conv1
I0428 20:13:29.728060 32471 net.cpp:86] Creating Layer conv1
I0428 20:13:29.728065 32471 net.cpp:408] conv1 <- pool0
I0428 20:13:29.728070 32471 net.cpp:382] conv1 -> conv1
I0428 20:13:29.730468 32471 net.cpp:124] Setting up conv1
I0428 20:13:29.730481 32471 net.cpp:131] Top shape: 64 100 8 8 (409600)
I0428 20:13:29.730484 32471 net.cpp:139] Memory required for data: 6447360
I0428 20:13:29.730492 32471 layer_factory.hpp:77] Creating layer pool1
I0428 20:13:29.730500 32471 net.cpp:86] Creating Layer pool1
I0428 20:13:29.730504 32471 net.cpp:408] pool1 <- conv1
I0428 20:13:29.730507 32471 net.cpp:382] pool1 -> pool1
I0428 20:13:29.730558 32471 net.cpp:124] Setting up pool1
I0428 20:13:29.730564 32471 net.cpp:131] Top shape: 64 100 4 4 (102400)
I0428 20:13:29.730567 32471 net.cpp:139] Memory required for data: 6856960
I0428 20:13:29.730571 32471 layer_factory.hpp:77] Creating layer ip1
I0428 20:13:29.730577 32471 net.cpp:86] Creating Layer ip1
I0428 20:13:29.730581 32471 net.cpp:408] ip1 <- pool1
I0428 20:13:29.730585 32471 net.cpp:382] ip1 -> ip1
I0428 20:13:29.731984 32471 net.cpp:124] Setting up ip1
I0428 20:13:29.731997 32471 net.cpp:131] Top shape: 64 50 (3200)
I0428 20:13:29.732015 32471 net.cpp:139] Memory required for data: 6869760
I0428 20:13:29.732023 32471 layer_factory.hpp:77] Creating layer relu1
I0428 20:13:29.732030 32471 net.cpp:86] Creating Layer relu1
I0428 20:13:29.732034 32471 net.cpp:408] relu1 <- ip1
I0428 20:13:29.732039 32471 net.cpp:369] relu1 -> ip1 (in-place)
I0428 20:13:29.732221 32471 net.cpp:124] Setting up relu1
I0428 20:13:29.732229 32471 net.cpp:131] Top shape: 64 50 (3200)
I0428 20:13:29.732233 32471 net.cpp:139] Memory required for data: 6882560
I0428 20:13:29.732235 32471 layer_factory.hpp:77] Creating layer ip2
I0428 20:13:29.732244 32471 net.cpp:86] Creating Layer ip2
I0428 20:13:29.732249 32471 net.cpp:408] ip2 <- ip1
I0428 20:13:29.732254 32471 net.cpp:382] ip2 -> ip2
I0428 20:13:29.732364 32471 net.cpp:124] Setting up ip2
I0428 20:13:29.732370 32471 net.cpp:131] Top shape: 64 10 (640)
I0428 20:13:29.732373 32471 net.cpp:139] Memory required for data: 6885120
I0428 20:13:29.732378 32471 layer_factory.hpp:77] Creating layer relu2
I0428 20:13:29.732385 32471 net.cpp:86] Creating Layer relu2
I0428 20:13:29.732390 32471 net.cpp:408] relu2 <- ip2
I0428 20:13:29.732394 32471 net.cpp:369] relu2 -> ip2 (in-place)
I0428 20:13:29.733218 32471 net.cpp:124] Setting up relu2
I0428 20:13:29.733232 32471 net.cpp:131] Top shape: 64 10 (640)
I0428 20:13:29.733250 32471 net.cpp:139] Memory required for data: 6887680
I0428 20:13:29.733254 32471 layer_factory.hpp:77] Creating layer ip3
I0428 20:13:29.733278 32471 net.cpp:86] Creating Layer ip3
I0428 20:13:29.733280 32471 net.cpp:408] ip3 <- ip2
I0428 20:13:29.733288 32471 net.cpp:382] ip3 -> ip3
I0428 20:13:29.733383 32471 net.cpp:124] Setting up ip3
I0428 20:13:29.733392 32471 net.cpp:131] Top shape: 64 10 (640)
I0428 20:13:29.733395 32471 net.cpp:139] Memory required for data: 6890240
I0428 20:13:29.733402 32471 layer_factory.hpp:77] Creating layer relu3
I0428 20:13:29.733408 32471 net.cpp:86] Creating Layer relu3
I0428 20:13:29.733412 32471 net.cpp:408] relu3 <- ip3
I0428 20:13:29.733415 32471 net.cpp:369] relu3 -> ip3 (in-place)
I0428 20:13:29.733583 32471 net.cpp:124] Setting up relu3
I0428 20:13:29.733592 32471 net.cpp:131] Top shape: 64 10 (640)
I0428 20:13:29.733594 32471 net.cpp:139] Memory required for data: 6892800
I0428 20:13:29.733597 32471 layer_factory.hpp:77] Creating layer loss
I0428 20:13:29.733603 32471 net.cpp:86] Creating Layer loss
I0428 20:13:29.733606 32471 net.cpp:408] loss <- ip3
I0428 20:13:29.733609 32471 net.cpp:408] loss <- label
I0428 20:13:29.733614 32471 net.cpp:382] loss -> loss
I0428 20:13:29.733633 32471 layer_factory.hpp:77] Creating layer loss
…
I0428 20:13:29.734333 32471 solver.cpp:173] Creating test net (#0) specified by net file: ECE595/mnist/train_test/var_everything2/lenet_train_test1200.prototxt
I0428 20:13:29.734390 32471 net.cpp:296] The NetState phase (1) differed from the phase (0) specified by a rule in layer mnist
I0428 20:13:29.734475 32471 net.cpp:53] Initializing net from parameters: 
name: "LeNet"
state {
  phase: TEST
}
layer {
  name: "mnist"
  type: "Data"
  top: "data"
  top: "label"
  include {
    phase: TEST
  }
  transform_param {
    scale: 0.00390625
  }
  data_param {
    source: "examples/mnist/mnist_test_lmdb"
    batch_size: 100
    backend: LMDB
  }
}
layer {
  name: "conv0"
  type: "Convolution"
  bottom: "data"
  top: "conv0"
  param {
    lr_mult: 1
  }
  param {
    lr_mult: 2
  }
  convolution_param {
    num_output: 25
    kernel_size: 5
    stride: 1
    weight_filler {
      type: "xavier"
    }
    bias_filler {
      type: "constant"
    }
  }
}
layer {
  name: "pool0"
  type: "Pooling"
  bottom: "conv0"
  top: "pool0"
  pooling_param {
    pool: MAX
    kernel_size: 2
    stride: 2
  }
}
layer {
  name: "conv1"
  type: "Convolution"
  bottom: "pool0"
  top: "conv1"
  param {
    lr_mult: 1
  }
  param {
    lr_mult: 2
  }
  convolution_param {
    num_output: 100
    kernel_size: 5
    stride: 1
    weight_filler {
      type: "xavier"
    }
    bias_filler {
      type: "constant"
    }
  }
}
layer {
  name: "pool1"
  type: "Pooling"
  bottom: "conv1"
  top: "pool1"
  pooling_param {
    pool: MAX
    kernel_size: 2
    stride: 2
  }
}
layer {
  name: "ip1"
  type: "InnerProduct"
  bottom: "pool1"
  top: "ip1"
  param {
    lr_mult: 1
  }
  param {
    lr_mult: 2
  }
  inner_product_param {
    num_output: 50
    weight_filler {
      type: "xavier"
    }
    bias_filler {
      type: "constant"
    }
  }
}
layer {
  name: "relu1"
  type: "ReLU"
  bottom: "ip1"
  top: "ip1"
}
layer {
  name: "ip2"
  type: "InnerProduct"
  bottom: "ip1"
  top: "ip2"
  param {
    lr_mult: 1
  }
  param {
    lr_mult: 2
  }
  inner_product_param {
    num_output: 10
    weight_filler {
      type: "xavier"
    }
    bias_filler {
      type: "constant"
    }
  }
}
layer {
  name: "relu2"
  type: "ReLU"
  bottom: "ip2"
  top: "ip2"
}
layer {
  name: "ip3"
  type: "InnerProduct"
  bottom: "ip2"
  top: "ip3"
  param {
    lr_mult: 1
  }
  param {
    lr_mult: 2
  }
  inner_product_param {
    num_output: 10
    weight_filler {
      type: "xavier"
    }
    bias_filler {
      type: "constant"
    }
  }
}
layer {
  name: "relu3"
  type: "ReLU"
  bottom: "ip3"
  top: "ip3"
}
layer {
  name: "accuracy"
  type: "Accuracy"
  bottom: "ip3"
  bottom: "label"
  top: "accuracy"
  include {
    phase: TEST
  }
}
layer {
  name: "loss"
  type: "SoftmaxWithLoss"
  bottom: "ip3"
  bottom: "label"
  top: "loss"
}
I0428 20:13:29.734570 32471 layer_factory.hpp:77] Creating layer mnist
I0428 20:13:29.734616 32471 db_lmdb.cpp:35] Opened lmdb examples/mnist/mnist_test_lmdb
I0428 20:13:29.734628 32471 net.cpp:86] Creating Layer mnist
I0428 20:13:29.734633 32471 net.cpp:382] mnist -> data
I0428 20:13:29.734640 32471 net.cpp:382] mnist -> label
I0428 20:13:29.734724 32471 data_layer.cpp:45] output data size: 100,1,28,28
I0428 20:13:29.736081 32471 net.cpp:124] Setting up mnist
I0428 20:13:29.736094 32471 net.cpp:131] Top shape: 100 1 28 28 (78400)
I0428 20:13:29.736099 32471 net.cpp:131] Top shape: 100 (100)
I0428 20:13:29.736101 32471 net.cpp:139] Memory required for data: 314000
I0428 20:13:29.736105 32471 layer_factory.hpp:77] Creating layer label_mnist_1_split
I0428 20:13:29.736114 32471 net.cpp:86] Creating Layer label_mnist_1_split
I0428 20:13:29.736117 32471 net.cpp:408] label_mnist_1_split <- label
I0428 20:13:29.736124 32471 net.cpp:382] label_mnist_1_split -> label_mnist_1_split_0
I0428 20:13:29.736129 32471 net.cpp:382] label_mnist_1_split -> label_mnist_1_split_1
I0428 20:13:29.736209 32471 net.cpp:124] Setting up label_mnist_1_split
I0428 20:13:29.736217 32471 net.cpp:131] Top shape: 100 (100)
I0428 20:13:29.736235 32471 net.cpp:131] Top shape: 100 (100)
I0428 20:13:29.736238 32471 net.cpp:139] Memory required for data: 314800
I0428 20:13:29.736241 32471 layer_factory.hpp:77] Creating layer conv0
I0428 20:13:29.736253 32471 net.cpp:86] Creating Layer conv0
I0428 20:13:29.736255 32471 net.cpp:408] conv0 <- data
I0428 20:13:29.736260 32471 net.cpp:382] conv0 -> conv0
I0428 20:13:29.737906 32471 net.cpp:124] Setting up conv0
I0428 20:13:29.737918 32471 net.cpp:131] Top shape: 100 25 24 24 (1440000)
I0428 20:13:29.737922 32471 net.cpp:139] Memory required for data: 6074800
I0428 20:13:29.737931 32471 layer_factory.hpp:77] Creating layer pool0
I0428 20:13:29.737938 32471 net.cpp:86] Creating Layer pool0
I0428 20:13:29.737957 32471 net.cpp:408] pool0 <- conv0
I0428 20:13:29.737963 32471 net.cpp:382] pool0 -> pool0
I0428 20:13:29.738046 32471 net.cpp:124] Setting up pool0
I0428 20:13:29.738054 32471 net.cpp:131] Top shape: 100 25 12 12 (360000)
I0428 20:13:29.738057 32471 net.cpp:139] Memory required for data: 7514800
I0428 20:13:29.738060 32471 layer_factory.hpp:77] Creating layer conv1
I0428 20:13:29.738070 32471 net.cpp:86] Creating Layer conv1
I0428 20:13:29.738073 32471 net.cpp:408] conv1 <- pool0
I0428 20:13:29.738080 32471 net.cpp:382] conv1 -> conv1
I0428 20:13:29.739992 32471 net.cpp:124] Setting up conv1
I0428 20:13:29.740010 32471 net.cpp:131] Top shape: 100 100 8 8 (640000)
I0428 20:13:29.740015 32471 net.cpp:139] Memory required for data: 10074800
I0428 20:13:29.740023 32471 layer_factory.hpp:77] Creating layer pool1
I0428 20:13:29.740031 32471 net.cpp:86] Creating Layer pool1
I0428 20:13:29.740034 32471 net.cpp:408] pool1 <- conv1
I0428 20:13:29.740041 32471 net.cpp:382] pool1 -> pool1
I0428 20:13:29.740084 32471 net.cpp:124] Setting up pool1
I0428 20:13:29.740092 32471 net.cpp:131] Top shape: 100 100 4 4 (160000)
I0428 20:13:29.740094 32471 net.cpp:139] Memory required for data: 10714800
I0428 20:13:29.740097 32471 layer_factory.hpp:77] Creating layer ip1
I0428 20:13:29.740104 32471 net.cpp:86] Creating Layer ip1
I0428 20:13:29.740108 32471 net.cpp:408] ip1 <- pool1
I0428 20:13:29.740113 32471 net.cpp:382] ip1 -> ip1
I0428 20:13:29.740685 32471 net.cpp:124] Setting up ip1
I0428 20:13:29.740694 32471 net.cpp:131] Top shape: 100 50 (5000)
I0428 20:13:29.740705 32471 net.cpp:139] Memory required for data: 10734800
I0428 20:13:29.740713 32471 layer_factory.hpp:77] Creating layer relu1
I0428 20:13:29.740720 32471 net.cpp:86] Creating Layer relu1
I0428 20:13:29.740723 32471 net.cpp:408] relu1 <- ip1
I0428 20:13:29.740728 32471 net.cpp:369] relu1 -> ip1 (in-place)
I0428 20:13:29.740964 32471 net.cpp:124] Setting up relu1
I0428 20:13:29.740975 32471 net.cpp:131] Top shape: 100 50 (5000)
I0428 20:13:29.740978 32471 net.cpp:139] Memory required for data: 10754800
I0428 20:13:29.740981 32471 layer_factory.hpp:77] Creating layer ip2
I0428 20:13:29.740990 32471 net.cpp:86] Creating Layer ip2
I0428 20:13:29.740993 32471 net.cpp:408] ip2 <- ip1
I0428 20:13:29.741000 32471 net.cpp:382] ip2 -> ip2
I0428 20:13:29.741111 32471 net.cpp:124] Setting up ip2
I0428 20:13:29.741118 32471 net.cpp:131] Top shape: 100 10 (1000)
I0428 20:13:29.741122 32471 net.cpp:139] Memory required for data: 10758800
I0428 20:13:29.741127 32471 layer_factory.hpp:77] Creating layer relu2
I0428 20:13:29.741132 32471 net.cpp:86] Creating Layer relu2
I0428 20:13:29.741134 32471 net.cpp:408] relu2 <- ip2
I0428 20:13:29.741138 32471 net.cpp:369] relu2 -> ip2 (in-place)
I0428 20:13:29.741353 32471 net.cpp:124] Setting up relu2
I0428 20:13:29.741361 32471 net.cpp:131] Top shape: 100 10 (1000)
I0428 20:13:29.741364 32471 net.cpp:139] Memory required for data: 10762800
I0428 20:13:29.741367 32471 layer_factory.hpp:77] Creating layer ip3
I0428 20:13:29.741372 32471 net.cpp:86] Creating Layer ip3
I0428 20:13:29.741375 32471 net.cpp:408] ip3 <- ip2
I0428 20:13:29.741382 32471 net.cpp:382] ip3 -> ip3
I0428 20:13:29.741473 32471 net.cpp:124] Setting up ip3
I0428 20:13:29.741480 32471 net.cpp:131] Top shape: 100 10 (1000)
I0428 20:13:29.741483 32471 net.cpp:139] Memory required for data: 10766800
I0428 20:13:29.741490 32471 layer_factory.hpp:77] Creating layer relu3
I0428 20:13:29.741495 32471 net.cpp:86] Creating Layer relu3
I0428 20:13:29.741498 32471 net.cpp:408] relu3 <- ip3
I0428 20:13:29.741503 32471 net.cpp:369] relu3 -> ip3 (in-place)
I0428 20:13:29.742261 32471 net.cpp:124] Setting up relu3
I0428 20:13:29.742274 32471 net.cpp:131] Top shape: 100 10 (1000)
I0428 20:13:29.742276 32471 net.cpp:139] Memory required for data: 10770800
I0428 20:13:29.742280 32471 layer_factory.hpp:77] Creating layer ip3_relu3_0_split
I0428 20:13:29.742285 32471 net.cpp:86] Creating Layer ip3_relu3_0_split
I0428 20:13:29.742288 32471 net.cpp:408] ip3_relu3_0_split <- ip3
I0428 20:13:29.742295 32471 net.cpp:382] ip3_relu3_0_split -> ip3_relu3_0_split_0
I0428 20:13:29.742300 32471 net.cpp:382] ip3_relu3_0_split -> ip3_relu3_0_split_1
I0428 20:13:29.742336 32471 net.cpp:124] Setting up ip3_relu3_0_split
I0428 20:13:29.742342 32471 net.cpp:131] Top shape: 100 10 (1000)
I0428 20:13:29.742347 32471 net.cpp:131] Top shape: 100 10 (1000)
I0428 20:13:29.742348 32471 net.cpp:139] Memory required for data: 10778800
I0428 20:13:29.742352 32471 layer_factory.hpp:77] Creating layer accuracy
I0428 20:13:29.742357 32471 net.cpp:86] Creating Layer accuracy
I0428 20:13:29.742360 32471 net.cpp:408] accuracy <- ip3_relu3_0_split_0
I0428 20:13:29.742364 32471 net.cpp:408] accuracy <- label_mnist_1_split_0
I0428 20:13:29.742369 32471 net.cpp:382] accuracy -> accuracy
…
