…
I0428 19:43:47.852452 25454 net.cpp:296] The NetState phase (0) differed from the phase (1) specified by a rule in layer mnist
I0428 19:43:47.852465 25454 net.cpp:296] The NetState phase (0) differed from the phase (1) specified by a rule in layer accuracy
I0428 19:43:47.852529 25454 net.cpp:53] Initializing net from parameters: 
name: "LeNet"
state {
  phase: TRAIN
  level: 0
  stage: ""
}
layer {
  name: "mnist"
  type: "Data"
  top: "data"
  top: "label"
  include {
    phase: TRAIN
  }
  transform_param {
    scale: 0.00390625
  }
  data_param {
    source: "examples/mnist/mnist_train_lmdb"
    batch_size: 64
    backend: LMDB
  }
}
layer {
  name: "conv0"
  type: "Convolution"
  bottom: "data"
  top: "conv0"
  param {
    lr_mult: 1
  }
  param {
    lr_mult: 2
  }
  convolution_param {
    num_output: 2
    kernel_size: 5
    stride: 1
    weight_filler {
      type: "xavier"
    }
    bias_filler {
      type: "constant"
    }
  }
}
layer {
  name: "pool0"
  type: "Pooling"
  bottom: "conv0"
  top: "pool0"
  pooling_param {
    pool: MAX
    kernel_size: 2
    stride: 2
  }
}
layer {
  name: "conv1"
  type: "Convolution"
  bottom: "pool0"
  top: "conv1"
  param {
    lr_mult: 1
  }
  param {
    lr_mult: 2
  }
  convolution_param {
    num_output: 50
    kernel_size: 5
    stride: 1
    weight_filler {
      type: "xavier"
    }
    bias_filler {
      type: "constant"
    }
  }
}
layer {
  name: "pool1"
  type: "Pooling"
  bottom: "conv1"
  top: "pool1"
  pooling_param {
    pool: MAX
    kernel_size: 2
    stride: 2
  }
}
layer {
  name: "ip1"
  type: "InnerProduct"
  bottom: "pool1"
  top: "ip1"
  param {
    lr_mult: 1
  }
  param {
    lr_mult: 2
  }
  inner_product_param {
    num_output: 10
    weight_filler {
      type: "xavier"
    }
    bias_filler {
      type: "constant"
    }
  }
}
layer {
  name: "relu1"
  type: "ReLU"
  bottom: "ip1"
  top: "ip1"
}
layer {
  name: "loss"
  type: "SoftmaxWithLoss"
  bottom: "ip1"
  bottom: "label"
  top: "loss"
}
I0428 19:43:47.852586 25454 layer_factory.hpp:77] Creating layer mnist
I0428 19:43:47.852679 25454 db_lmdb.cpp:35] Opened lmdb examples/mnist/mnist_train_lmdb
I0428 19:43:47.852700 25454 net.cpp:86] Creating Layer mnist
I0428 19:43:47.852707 25454 net.cpp:382] mnist -> data
I0428 19:43:47.852725 25454 net.cpp:382] mnist -> label
I0428 19:43:47.853880 25454 data_layer.cpp:45] output data size: 64,1,28,28
I0428 19:43:47.856252 25454 net.cpp:124] Setting up mnist
I0428 19:43:47.856283 25454 net.cpp:131] Top shape: 64 1 28 28 (50176)
I0428 19:43:47.856288 25454 net.cpp:131] Top shape: 64 (64)
I0428 19:43:47.856292 25454 net.cpp:139] Memory required for data: 200960
I0428 19:43:47.856297 25454 layer_factory.hpp:77] Creating layer conv0
I0428 19:43:47.856310 25454 net.cpp:86] Creating Layer conv0
I0428 19:43:47.856315 25454 net.cpp:408] conv0 <- data
I0428 19:43:47.856324 25454 net.cpp:382] conv0 -> conv0
I0428 19:43:48.087369 25454 net.cpp:124] Setting up conv0
I0428 19:43:48.087412 25454 net.cpp:131] Top shape: 64 2 24 24 (73728)
I0428 19:43:48.087416 25454 net.cpp:139] Memory required for data: 495872
I0428 19:43:48.087430 25454 layer_factory.hpp:77] Creating layer pool0
I0428 19:43:48.087443 25454 net.cpp:86] Creating Layer pool0
I0428 19:43:48.087446 25454 net.cpp:408] pool0 <- conv0
I0428 19:43:48.087467 25454 net.cpp:382] pool0 -> pool0
I0428 19:43:48.087527 25454 net.cpp:124] Setting up pool0
I0428 19:43:48.087543 25454 net.cpp:131] Top shape: 64 2 12 12 (18432)
I0428 19:43:48.087561 25454 net.cpp:139] Memory required for data: 569600
I0428 19:43:48.087564 25454 layer_factory.hpp:77] Creating layer conv1
I0428 19:43:48.087575 25454 net.cpp:86] Creating Layer conv1
I0428 19:43:48.087579 25454 net.cpp:408] conv1 <- pool0
I0428 19:43:48.087584 25454 net.cpp:382] conv1 -> conv1
I0428 19:43:48.090414 25454 net.cpp:124] Setting up conv1
I0428 19:43:48.090443 25454 net.cpp:131] Top shape: 64 50 8 8 (204800)
I0428 19:43:48.090446 25454 net.cpp:139] Memory required for data: 1388800
I0428 19:43:48.090454 25454 layer_factory.hpp:77] Creating layer pool1
I0428 19:43:48.090462 25454 net.cpp:86] Creating Layer pool1
I0428 19:43:48.090466 25454 net.cpp:408] pool1 <- conv1
I0428 19:43:48.090471 25454 net.cpp:382] pool1 -> pool1
I0428 19:43:48.090524 25454 net.cpp:124] Setting up pool1
I0428 19:43:48.090530 25454 net.cpp:131] Top shape: 64 50 4 4 (51200)
I0428 19:43:48.090533 25454 net.cpp:139] Memory required for data: 1593600
I0428 19:43:48.090535 25454 layer_factory.hpp:77] Creating layer ip1
I0428 19:43:48.090543 25454 net.cpp:86] Creating Layer ip1
I0428 19:43:48.090546 25454 net.cpp:408] ip1 <- pool1
I0428 19:43:48.090553 25454 net.cpp:382] ip1 -> ip1
I0428 19:43:48.091552 25454 net.cpp:124] Setting up ip1
I0428 19:43:48.091564 25454 net.cpp:131] Top shape: 64 10 (640)
I0428 19:43:48.091583 25454 net.cpp:139] Memory required for data: 1596160
I0428 19:43:48.091593 25454 layer_factory.hpp:77] Creating layer relu1
I0428 19:43:48.091598 25454 net.cpp:86] Creating Layer relu1
I0428 19:43:48.091603 25454 net.cpp:408] relu1 <- ip1
I0428 19:43:48.091609 25454 net.cpp:369] relu1 -> ip1 (in-place)
I0428 19:43:48.091794 25454 net.cpp:124] Setting up relu1
I0428 19:43:48.091804 25454 net.cpp:131] Top shape: 64 10 (640)
I0428 19:43:48.091806 25454 net.cpp:139] Memory required for data: 1598720
I0428 19:43:48.091809 25454 layer_factory.hpp:77] Creating layer loss
I0428 19:43:48.091830 25454 net.cpp:86] Creating Layer loss
I0428 19:43:48.091835 25454 net.cpp:408] loss <- ip1
I0428 19:43:48.091837 25454 net.cpp:408] loss <- label
I0428 19:43:48.091843 25454 net.cpp:382] loss -> loss
I0428 19:43:48.091857 25454 layer_factory.hpp:77] Creating layer loss
…
I0428 19:43:48.093112 25454 solver.cpp:173] Creating test net (#0) specified by net file: ECE595/mnist/train_test/var_everything2/lenet_train_test431.prototxt
I0428 19:43:48.093153 25454 net.cpp:296] The NetState phase (1) differed from the phase (0) specified by a rule in layer mnist
I0428 19:43:48.093243 25454 net.cpp:53] Initializing net from parameters: 
name: "LeNet"
state {
  phase: TEST
}
layer {
  name: "mnist"
  type: "Data"
  top: "data"
  top: "label"
  include {
    phase: TEST
  }
  transform_param {
    scale: 0.00390625
  }
  data_param {
    source: "examples/mnist/mnist_test_lmdb"
    batch_size: 100
    backend: LMDB
  }
}
layer {
  name: "conv0"
  type: "Convolution"
  bottom: "data"
  top: "conv0"
  param {
    lr_mult: 1
  }
  param {
    lr_mult: 2
  }
  convolution_param {
    num_output: 2
    kernel_size: 5
    stride: 1
    weight_filler {
      type: "xavier"
    }
    bias_filler {
      type: "constant"
    }
  }
}
layer {
  name: "pool0"
  type: "Pooling"
  bottom: "conv0"
  top: "pool0"
  pooling_param {
    pool: MAX
    kernel_size: 2
    stride: 2
  }
}
layer {
  name: "conv1"
  type: "Convolution"
  bottom: "pool0"
  top: "conv1"
  param {
    lr_mult: 1
  }
  param {
    lr_mult: 2
  }
  convolution_param {
    num_output: 50
    kernel_size: 5
    stride: 1
    weight_filler {
      type: "xavier"
    }
    bias_filler {
      type: "constant"
    }
  }
}
layer {
  name: "pool1"
  type: "Pooling"
  bottom: "conv1"
  top: "pool1"
  pooling_param {
    pool: MAX
    kernel_size: 2
    stride: 2
  }
}
layer {
  name: "ip1"
  type: "InnerProduct"
  bottom: "pool1"
  top: "ip1"
  param {
    lr_mult: 1
  }
  param {
    lr_mult: 2
  }
  inner_product_param {
    num_output: 10
    weight_filler {
      type: "xavier"
    }
    bias_filler {
      type: "constant"
    }
  }
}
layer {
  name: "relu1"
  type: "ReLU"
  bottom: "ip1"
  top: "ip1"
}
layer {
  name: "accuracy"
  type: "Accuracy"
  bottom: "ip1"
  bottom: "label"
  top: "accuracy"
  include {
    phase: TEST
  }
}
layer {
  name: "loss"
  type: "SoftmaxWithLoss"
  bottom: "ip1"
  bottom: "label"
  top: "loss"
}
I0428 19:43:48.093317 25454 layer_factory.hpp:77] Creating layer mnist
I0428 19:43:48.093363 25454 db_lmdb.cpp:35] Opened lmdb examples/mnist/mnist_test_lmdb
I0428 19:43:48.093376 25454 net.cpp:86] Creating Layer mnist
I0428 19:43:48.093382 25454 net.cpp:382] mnist -> data
I0428 19:43:48.093389 25454 net.cpp:382] mnist -> label
I0428 19:43:48.093477 25454 data_layer.cpp:45] output data size: 100,1,28,28
I0428 19:43:48.095388 25454 net.cpp:124] Setting up mnist
I0428 19:43:48.095418 25454 net.cpp:131] Top shape: 100 1 28 28 (78400)
I0428 19:43:48.095424 25454 net.cpp:131] Top shape: 100 (100)
I0428 19:43:48.095427 25454 net.cpp:139] Memory required for data: 314000
I0428 19:43:48.095430 25454 layer_factory.hpp:77] Creating layer label_mnist_1_split
I0428 19:43:48.095437 25454 net.cpp:86] Creating Layer label_mnist_1_split
I0428 19:43:48.095439 25454 net.cpp:408] label_mnist_1_split <- label
I0428 19:43:48.095464 25454 net.cpp:382] label_mnist_1_split -> label_mnist_1_split_0
I0428 19:43:48.095471 25454 net.cpp:382] label_mnist_1_split -> label_mnist_1_split_1
I0428 19:43:48.095513 25454 net.cpp:124] Setting up label_mnist_1_split
I0428 19:43:48.095520 25454 net.cpp:131] Top shape: 100 (100)
I0428 19:43:48.095525 25454 net.cpp:131] Top shape: 100 (100)
I0428 19:43:48.095526 25454 net.cpp:139] Memory required for data: 314800
I0428 19:43:48.095530 25454 layer_factory.hpp:77] Creating layer conv0
I0428 19:43:48.095536 25454 net.cpp:86] Creating Layer conv0
I0428 19:43:48.095541 25454 net.cpp:408] conv0 <- data
I0428 19:43:48.095546 25454 net.cpp:382] conv0 -> conv0
I0428 19:43:48.096501 25454 net.cpp:124] Setting up conv0
I0428 19:43:48.096513 25454 net.cpp:131] Top shape: 100 2 24 24 (115200)
I0428 19:43:48.096515 25454 net.cpp:139] Memory required for data: 775600
I0428 19:43:48.096540 25454 layer_factory.hpp:77] Creating layer pool0
I0428 19:43:48.096546 25454 net.cpp:86] Creating Layer pool0
I0428 19:43:48.096550 25454 net.cpp:408] pool0 <- conv0
I0428 19:43:48.096555 25454 net.cpp:382] pool0 -> pool0
I0428 19:43:48.096606 25454 net.cpp:124] Setting up pool0
I0428 19:43:48.096632 25454 net.cpp:131] Top shape: 100 2 12 12 (28800)
I0428 19:43:48.096635 25454 net.cpp:139] Memory required for data: 890800
I0428 19:43:48.096638 25454 layer_factory.hpp:77] Creating layer conv1
I0428 19:43:48.096648 25454 net.cpp:86] Creating Layer conv1
I0428 19:43:48.096652 25454 net.cpp:408] conv1 <- pool0
I0428 19:43:48.096657 25454 net.cpp:382] conv1 -> conv1
I0428 19:43:48.098382 25454 net.cpp:124] Setting up conv1
I0428 19:43:48.098397 25454 net.cpp:131] Top shape: 100 50 8 8 (320000)
I0428 19:43:48.098402 25454 net.cpp:139] Memory required for data: 2170800
I0428 19:43:48.098410 25454 layer_factory.hpp:77] Creating layer pool1
I0428 19:43:48.098417 25454 net.cpp:86] Creating Layer pool1
I0428 19:43:48.098429 25454 net.cpp:408] pool1 <- conv1
I0428 19:43:48.098436 25454 net.cpp:382] pool1 -> pool1
I0428 19:43:48.098475 25454 net.cpp:124] Setting up pool1
I0428 19:43:48.098480 25454 net.cpp:131] Top shape: 100 50 4 4 (80000)
I0428 19:43:48.098484 25454 net.cpp:139] Memory required for data: 2490800
I0428 19:43:48.098495 25454 layer_factory.hpp:77] Creating layer ip1
I0428 19:43:48.098501 25454 net.cpp:86] Creating Layer ip1
I0428 19:43:48.098505 25454 net.cpp:408] ip1 <- pool1
I0428 19:43:48.098510 25454 net.cpp:382] ip1 -> ip1
I0428 19:43:48.098656 25454 net.cpp:124] Setting up ip1
I0428 19:43:48.098664 25454 net.cpp:131] Top shape: 100 10 (1000)
I0428 19:43:48.098667 25454 net.cpp:139] Memory required for data: 2494800
I0428 19:43:48.098690 25454 layer_factory.hpp:77] Creating layer relu1
I0428 19:43:48.098696 25454 net.cpp:86] Creating Layer relu1
I0428 19:43:48.098700 25454 net.cpp:408] relu1 <- ip1
I0428 19:43:48.098704 25454 net.cpp:369] relu1 -> ip1 (in-place)
I0428 19:43:48.099525 25454 net.cpp:124] Setting up relu1
I0428 19:43:48.099537 25454 net.cpp:131] Top shape: 100 10 (1000)
I0428 19:43:48.099540 25454 net.cpp:139] Memory required for data: 2498800
I0428 19:43:48.099544 25454 layer_factory.hpp:77] Creating layer ip1_relu1_0_split
I0428 19:43:48.099552 25454 net.cpp:86] Creating Layer ip1_relu1_0_split
I0428 19:43:48.099555 25454 net.cpp:408] ip1_relu1_0_split <- ip1
I0428 19:43:48.099560 25454 net.cpp:382] ip1_relu1_0_split -> ip1_relu1_0_split_0
I0428 19:43:48.099566 25454 net.cpp:382] ip1_relu1_0_split -> ip1_relu1_0_split_1
I0428 19:43:48.099608 25454 net.cpp:124] Setting up ip1_relu1_0_split
I0428 19:43:48.099614 25454 net.cpp:131] Top shape: 100 10 (1000)
I0428 19:43:48.099633 25454 net.cpp:131] Top shape: 100 10 (1000)
I0428 19:43:48.099637 25454 net.cpp:139] Memory required for data: 2506800
I0428 19:43:48.099639 25454 layer_factory.hpp:77] Creating layer accuracy
I0428 19:43:48.099644 25454 net.cpp:86] Creating Layer accuracy
I0428 19:43:48.099647 25454 net.cpp:408] accuracy <- ip1_relu1_0_split_0
I0428 19:43:48.099651 25454 net.cpp:408] accuracy <- label_mnist_1_split_0
I0428 19:43:48.099655 25454 net.cpp:382] accuracy -> accuracy
…
