…
I0428 20:26:40.900533  2859 net.cpp:296] The NetState phase (0) differed from the phase (1) specified by a rule in layer mnist
I0428 20:26:40.900552  2859 net.cpp:296] The NetState phase (0) differed from the phase (1) specified by a rule in layer accuracy
I0428 20:26:40.900655  2859 net.cpp:53] Initializing net from parameters: 
name: "LeNet"
state {
  phase: TRAIN
  level: 0
  stage: ""
}
layer {
  name: "mnist"
  type: "Data"
  top: "data"
  top: "label"
  include {
    phase: TRAIN
  }
  transform_param {
    scale: 0.00390625
  }
  data_param {
    source: "examples/mnist/mnist_train_lmdb"
    batch_size: 64
    backend: LMDB
  }
}
layer {
  name: "conv0"
  type: "Convolution"
  bottom: "data"
  top: "conv0"
  param {
    lr_mult: 1
  }
  param {
    lr_mult: 2
  }
  convolution_param {
    num_output: 100
    kernel_size: 5
    stride: 1
    weight_filler {
      type: "xavier"
    }
    bias_filler {
      type: "constant"
    }
  }
}
layer {
  name: "pool0"
  type: "Pooling"
  bottom: "conv0"
  top: "pool0"
  pooling_param {
    pool: MAX
    kernel_size: 2
    stride: 2
  }
}
layer {
  name: "conv1"
  type: "Convolution"
  bottom: "pool0"
  top: "conv1"
  param {
    lr_mult: 1
  }
  param {
    lr_mult: 2
  }
  convolution_param {
    num_output: 2
    kernel_size: 5
    stride: 1
    weight_filler {
      type: "xavier"
    }
    bias_filler {
      type: "constant"
    }
  }
}
layer {
  name: "pool1"
  type: "Pooling"
  bottom: "conv1"
  top: "pool1"
  pooling_param {
    pool: MAX
    kernel_size: 2
    stride: 2
  }
}
layer {
  name: "ip1"
  type: "InnerProduct"
  bottom: "pool1"
  top: "ip1"
  param {
    lr_mult: 1
  }
  param {
    lr_mult: 2
  }
  inner_product_param {
    num_output: 50
    weight_filler {
      type: "xavier"
    }
    bias_filler {
      type: "constant"
    }
  }
}
layer {
  name: "relu1"
  type: "ReLU"
  bottom: "ip1"
  top: "ip1"
}
layer {
  name: "ip2"
  type: "InnerProduct"
  bottom: "ip1"
  top: "ip2"
  param {
    lr_mult: 1
  }
  param {
    lr_mult: 2
  }
  inner_product_param {
    num_output: 10
    weight_filler {
      type: "xavier"
    }
    bias_filler {
      type: "constant"
    }
  }
}
layer {
  name: "relu2"
  type: "ReLU"
  bottom: "ip2"
  top: "ip2"
}
layer {
  name: "ip3"
  type: "InnerProduct"
  bottom: "ip2"
  top: "ip3"
  param {
    lr_mult: 1
  }
  param {
    lr_mult: 2
  }
  inner_product_param {
    num_output: 10
    weight_filler {
      type: "xavier"
    }
    bias_filler {
      type: "constant"
    }
  }
}
layer {
  name: "relu3"
  type: "ReLU"
  bottom: "ip3"
  top: "ip3"
}
layer {
  name: "loss"
  type: "SoftmaxWithLoss"
  bottom: "ip3"
  bottom: "label"
  top: "loss"
}
I0428 20:26:40.900735  2859 layer_factory.hpp:77] Creating layer mnist
I0428 20:26:40.900843  2859 db_lmdb.cpp:35] Opened lmdb examples/mnist/mnist_train_lmdb
I0428 20:26:40.900869  2859 net.cpp:86] Creating Layer mnist
I0428 20:26:40.900877  2859 net.cpp:382] mnist -> data
I0428 20:26:40.900899  2859 net.cpp:382] mnist -> label
I0428 20:26:40.901993  2859 data_layer.cpp:45] output data size: 64,1,28,28
I0428 20:26:40.904445  2859 net.cpp:124] Setting up mnist
I0428 20:26:40.904464  2859 net.cpp:131] Top shape: 64 1 28 28 (50176)
I0428 20:26:40.904470  2859 net.cpp:131] Top shape: 64 (64)
I0428 20:26:40.904474  2859 net.cpp:139] Memory required for data: 200960
I0428 20:26:40.904481  2859 layer_factory.hpp:77] Creating layer conv0
I0428 20:26:40.904497  2859 net.cpp:86] Creating Layer conv0
I0428 20:26:40.904517  2859 net.cpp:408] conv0 <- data
I0428 20:26:40.904532  2859 net.cpp:382] conv0 -> conv0
I0428 20:26:41.196763  2859 net.cpp:124] Setting up conv0
I0428 20:26:41.196792  2859 net.cpp:131] Top shape: 64 100 24 24 (3686400)
I0428 20:26:41.196797  2859 net.cpp:139] Memory required for data: 14946560
I0428 20:26:41.196820  2859 layer_factory.hpp:77] Creating layer pool0
I0428 20:26:41.196835  2859 net.cpp:86] Creating Layer pool0
I0428 20:26:41.196841  2859 net.cpp:408] pool0 <- conv0
I0428 20:26:41.196846  2859 net.cpp:382] pool0 -> pool0
I0428 20:26:41.196900  2859 net.cpp:124] Setting up pool0
I0428 20:26:41.196908  2859 net.cpp:131] Top shape: 64 100 12 12 (921600)
I0428 20:26:41.196912  2859 net.cpp:139] Memory required for data: 18632960
I0428 20:26:41.196915  2859 layer_factory.hpp:77] Creating layer conv1
I0428 20:26:41.196928  2859 net.cpp:86] Creating Layer conv1
I0428 20:26:41.196931  2859 net.cpp:408] conv1 <- pool0
I0428 20:26:41.196938  2859 net.cpp:382] conv1 -> conv1
I0428 20:26:41.199905  2859 net.cpp:124] Setting up conv1
I0428 20:26:41.199923  2859 net.cpp:131] Top shape: 64 2 8 8 (8192)
I0428 20:26:41.199926  2859 net.cpp:139] Memory required for data: 18665728
I0428 20:26:41.199936  2859 layer_factory.hpp:77] Creating layer pool1
I0428 20:26:41.199945  2859 net.cpp:86] Creating Layer pool1
I0428 20:26:41.199949  2859 net.cpp:408] pool1 <- conv1
I0428 20:26:41.199955  2859 net.cpp:382] pool1 -> pool1
I0428 20:26:41.199996  2859 net.cpp:124] Setting up pool1
I0428 20:26:41.200002  2859 net.cpp:131] Top shape: 64 2 4 4 (2048)
I0428 20:26:41.200006  2859 net.cpp:139] Memory required for data: 18673920
I0428 20:26:41.200009  2859 layer_factory.hpp:77] Creating layer ip1
I0428 20:26:41.200016  2859 net.cpp:86] Creating Layer ip1
I0428 20:26:41.200021  2859 net.cpp:408] ip1 <- pool1
I0428 20:26:41.200026  2859 net.cpp:382] ip1 -> ip1
I0428 20:26:41.200146  2859 net.cpp:124] Setting up ip1
I0428 20:26:41.200155  2859 net.cpp:131] Top shape: 64 50 (3200)
I0428 20:26:41.200158  2859 net.cpp:139] Memory required for data: 18686720
I0428 20:26:41.200166  2859 layer_factory.hpp:77] Creating layer relu1
I0428 20:26:41.200171  2859 net.cpp:86] Creating Layer relu1
I0428 20:26:41.200176  2859 net.cpp:408] relu1 <- ip1
I0428 20:26:41.200179  2859 net.cpp:369] relu1 -> ip1 (in-place)
I0428 20:26:41.200359  2859 net.cpp:124] Setting up relu1
I0428 20:26:41.200369  2859 net.cpp:131] Top shape: 64 50 (3200)
I0428 20:26:41.200373  2859 net.cpp:139] Memory required for data: 18699520
I0428 20:26:41.200376  2859 layer_factory.hpp:77] Creating layer ip2
I0428 20:26:41.200383  2859 net.cpp:86] Creating Layer ip2
I0428 20:26:41.200387  2859 net.cpp:408] ip2 <- ip1
I0428 20:26:41.200392  2859 net.cpp:382] ip2 -> ip2
I0428 20:26:41.200497  2859 net.cpp:124] Setting up ip2
I0428 20:26:41.200505  2859 net.cpp:131] Top shape: 64 10 (640)
I0428 20:26:41.200508  2859 net.cpp:139] Memory required for data: 18702080
I0428 20:26:41.200515  2859 layer_factory.hpp:77] Creating layer relu2
I0428 20:26:41.200520  2859 net.cpp:86] Creating Layer relu2
I0428 20:26:41.200523  2859 net.cpp:408] relu2 <- ip2
I0428 20:26:41.200528  2859 net.cpp:369] relu2 -> ip2 (in-place)
I0428 20:26:41.201324  2859 net.cpp:124] Setting up relu2
I0428 20:26:41.201339  2859 net.cpp:131] Top shape: 64 10 (640)
I0428 20:26:41.201342  2859 net.cpp:139] Memory required for data: 18704640
I0428 20:26:41.201345  2859 layer_factory.hpp:77] Creating layer ip3
I0428 20:26:41.201354  2859 net.cpp:86] Creating Layer ip3
I0428 20:26:41.201357  2859 net.cpp:408] ip3 <- ip2
I0428 20:26:41.201364  2859 net.cpp:382] ip3 -> ip3
I0428 20:26:41.201479  2859 net.cpp:124] Setting up ip3
I0428 20:26:41.201488  2859 net.cpp:131] Top shape: 64 10 (640)
I0428 20:26:41.201490  2859 net.cpp:139] Memory required for data: 18707200
I0428 20:26:41.201499  2859 layer_factory.hpp:77] Creating layer relu3
I0428 20:26:41.201504  2859 net.cpp:86] Creating Layer relu3
I0428 20:26:41.201508  2859 net.cpp:408] relu3 <- ip3
I0428 20:26:41.201511  2859 net.cpp:369] relu3 -> ip3 (in-place)
I0428 20:26:41.201689  2859 net.cpp:124] Setting up relu3
I0428 20:26:41.201699  2859 net.cpp:131] Top shape: 64 10 (640)
I0428 20:26:41.201704  2859 net.cpp:139] Memory required for data: 18709760
I0428 20:26:41.201706  2859 layer_factory.hpp:77] Creating layer loss
I0428 20:26:41.201712  2859 net.cpp:86] Creating Layer loss
I0428 20:26:41.201715  2859 net.cpp:408] loss <- ip3
I0428 20:26:41.201719  2859 net.cpp:408] loss <- label
I0428 20:26:41.201725  2859 net.cpp:382] loss -> loss
I0428 20:26:41.201743  2859 layer_factory.hpp:77] Creating layer loss
…
I0428 20:26:41.202404  2859 solver.cpp:173] Creating test net (#0) specified by net file: ECE595/mnist/train_test/var_everything2/lenet_train_test1475.prototxt
I0428 20:26:41.202433  2859 net.cpp:296] The NetState phase (1) differed from the phase (0) specified by a rule in layer mnist
I0428 20:26:41.202527  2859 net.cpp:53] Initializing net from parameters: 
name: "LeNet"
state {
  phase: TEST
}
layer {
  name: "mnist"
  type: "Data"
  top: "data"
  top: "label"
  include {
    phase: TEST
  }
  transform_param {
    scale: 0.00390625
  }
  data_param {
    source: "examples/mnist/mnist_test_lmdb"
    batch_size: 100
    backend: LMDB
  }
}
layer {
  name: "conv0"
  type: "Convolution"
  bottom: "data"
  top: "conv0"
  param {
    lr_mult: 1
  }
  param {
    lr_mult: 2
  }
  convolution_param {
    num_output: 100
    kernel_size: 5
    stride: 1
    weight_filler {
      type: "xavier"
    }
    bias_filler {
      type: "constant"
    }
  }
}
layer {
  name: "pool0"
  type: "Pooling"
  bottom: "conv0"
  top: "pool0"
  pooling_param {
    pool: MAX
    kernel_size: 2
    stride: 2
  }
}
layer {
  name: "conv1"
  type: "Convolution"
  bottom: "pool0"
  top: "conv1"
  param {
    lr_mult: 1
  }
  param {
    lr_mult: 2
  }
  convolution_param {
    num_output: 2
    kernel_size: 5
    stride: 1
    weight_filler {
      type: "xavier"
    }
    bias_filler {
      type: "constant"
    }
  }
}
layer {
  name: "pool1"
  type: "Pooling"
  bottom: "conv1"
  top: "pool1"
  pooling_param {
    pool: MAX
    kernel_size: 2
    stride: 2
  }
}
layer {
  name: "ip1"
  type: "InnerProduct"
  bottom: "pool1"
  top: "ip1"
  param {
    lr_mult: 1
  }
  param {
    lr_mult: 2
  }
  inner_product_param {
    num_output: 50
    weight_filler {
      type: "xavier"
    }
    bias_filler {
      type: "constant"
    }
  }
}
layer {
  name: "relu1"
  type: "ReLU"
  bottom: "ip1"
  top: "ip1"
}
layer {
  name: "ip2"
  type: "InnerProduct"
  bottom: "ip1"
  top: "ip2"
  param {
    lr_mult: 1
  }
  param {
    lr_mult: 2
  }
  inner_product_param {
    num_output: 10
    weight_filler {
      type: "xavier"
    }
    bias_filler {
      type: "constant"
    }
  }
}
layer {
  name: "relu2"
  type: "ReLU"
  bottom: "ip2"
  top: "ip2"
}
layer {
  name: "ip3"
  type: "InnerProduct"
  bottom: "ip2"
  top: "ip3"
  param {
    lr_mult: 1
  }
  param {
    lr_mult: 2
  }
  inner_product_param {
    num_output: 10
    weight_filler {
      type: "xavier"
    }
    bias_filler {
      type: "constant"
    }
  }
}
layer {
  name: "relu3"
  type: "ReLU"
  bottom: "ip3"
  top: "ip3"
}
layer {
  name: "accuracy"
  type: "Accuracy"
  bottom: "ip3"
  bottom: "label"
  top: "accuracy"
  include {
    phase: TEST
  }
}
layer {
  name: "loss"
  type: "SoftmaxWithLoss"
  bottom: "ip3"
  bottom: "label"
  top: "loss"
}
I0428 20:26:41.202610  2859 layer_factory.hpp:77] Creating layer mnist
I0428 20:26:41.202656  2859 db_lmdb.cpp:35] Opened lmdb examples/mnist/mnist_test_lmdb
I0428 20:26:41.202668  2859 net.cpp:86] Creating Layer mnist
I0428 20:26:41.202673  2859 net.cpp:382] mnist -> data
I0428 20:26:41.202682  2859 net.cpp:382] mnist -> label
I0428 20:26:41.202770  2859 data_layer.cpp:45] output data size: 100,1,28,28
I0428 20:26:41.204776  2859 net.cpp:124] Setting up mnist
I0428 20:26:41.204790  2859 net.cpp:131] Top shape: 100 1 28 28 (78400)
I0428 20:26:41.204797  2859 net.cpp:131] Top shape: 100 (100)
I0428 20:26:41.204799  2859 net.cpp:139] Memory required for data: 314000
I0428 20:26:41.204803  2859 layer_factory.hpp:77] Creating layer label_mnist_1_split
I0428 20:26:41.204820  2859 net.cpp:86] Creating Layer label_mnist_1_split
I0428 20:26:41.204825  2859 net.cpp:408] label_mnist_1_split <- label
I0428 20:26:41.204830  2859 net.cpp:382] label_mnist_1_split -> label_mnist_1_split_0
I0428 20:26:41.204838  2859 net.cpp:382] label_mnist_1_split -> label_mnist_1_split_1
I0428 20:26:41.204881  2859 net.cpp:124] Setting up label_mnist_1_split
I0428 20:26:41.204887  2859 net.cpp:131] Top shape: 100 (100)
I0428 20:26:41.204891  2859 net.cpp:131] Top shape: 100 (100)
I0428 20:26:41.204895  2859 net.cpp:139] Memory required for data: 314800
I0428 20:26:41.204897  2859 layer_factory.hpp:77] Creating layer conv0
I0428 20:26:41.204906  2859 net.cpp:86] Creating Layer conv0
I0428 20:26:41.204910  2859 net.cpp:408] conv0 <- data
I0428 20:26:41.204915  2859 net.cpp:382] conv0 -> conv0
I0428 20:26:41.206701  2859 net.cpp:124] Setting up conv0
I0428 20:26:41.206717  2859 net.cpp:131] Top shape: 100 100 24 24 (5760000)
I0428 20:26:41.206720  2859 net.cpp:139] Memory required for data: 23354800
I0428 20:26:41.206730  2859 layer_factory.hpp:77] Creating layer pool0
I0428 20:26:41.206737  2859 net.cpp:86] Creating Layer pool0
I0428 20:26:41.206740  2859 net.cpp:408] pool0 <- conv0
I0428 20:26:41.206745  2859 net.cpp:382] pool0 -> pool0
I0428 20:26:41.206784  2859 net.cpp:124] Setting up pool0
I0428 20:26:41.206789  2859 net.cpp:131] Top shape: 100 100 12 12 (1440000)
I0428 20:26:41.206792  2859 net.cpp:139] Memory required for data: 29114800
I0428 20:26:41.206795  2859 layer_factory.hpp:77] Creating layer conv1
I0428 20:26:41.206804  2859 net.cpp:86] Creating Layer conv1
I0428 20:26:41.206809  2859 net.cpp:408] conv1 <- pool0
I0428 20:26:41.206814  2859 net.cpp:382] conv1 -> conv1
I0428 20:26:41.208380  2859 net.cpp:124] Setting up conv1
I0428 20:26:41.208395  2859 net.cpp:131] Top shape: 100 2 8 8 (12800)
I0428 20:26:41.208400  2859 net.cpp:139] Memory required for data: 29166000
I0428 20:26:41.208408  2859 layer_factory.hpp:77] Creating layer pool1
I0428 20:26:41.208415  2859 net.cpp:86] Creating Layer pool1
I0428 20:26:41.208418  2859 net.cpp:408] pool1 <- conv1
I0428 20:26:41.208425  2859 net.cpp:382] pool1 -> pool1
I0428 20:26:41.208462  2859 net.cpp:124] Setting up pool1
I0428 20:26:41.208467  2859 net.cpp:131] Top shape: 100 2 4 4 (3200)
I0428 20:26:41.208470  2859 net.cpp:139] Memory required for data: 29178800
I0428 20:26:41.208474  2859 layer_factory.hpp:77] Creating layer ip1
I0428 20:26:41.208480  2859 net.cpp:86] Creating Layer ip1
I0428 20:26:41.208484  2859 net.cpp:408] ip1 <- pool1
I0428 20:26:41.208489  2859 net.cpp:382] ip1 -> ip1
I0428 20:26:41.208600  2859 net.cpp:124] Setting up ip1
I0428 20:26:41.208607  2859 net.cpp:131] Top shape: 100 50 (5000)
I0428 20:26:41.208622  2859 net.cpp:139] Memory required for data: 29198800
I0428 20:26:41.208631  2859 layer_factory.hpp:77] Creating layer relu1
I0428 20:26:41.208636  2859 net.cpp:86] Creating Layer relu1
I0428 20:26:41.208640  2859 net.cpp:408] relu1 <- ip1
I0428 20:26:41.208644  2859 net.cpp:369] relu1 -> ip1 (in-place)
I0428 20:26:41.208844  2859 net.cpp:124] Setting up relu1
I0428 20:26:41.208854  2859 net.cpp:131] Top shape: 100 50 (5000)
I0428 20:26:41.208858  2859 net.cpp:139] Memory required for data: 29218800
I0428 20:26:41.208863  2859 layer_factory.hpp:77] Creating layer ip2
I0428 20:26:41.208869  2859 net.cpp:86] Creating Layer ip2
I0428 20:26:41.208873  2859 net.cpp:408] ip2 <- ip1
I0428 20:26:41.208878  2859 net.cpp:382] ip2 -> ip2
I0428 20:26:41.209002  2859 net.cpp:124] Setting up ip2
I0428 20:26:41.209009  2859 net.cpp:131] Top shape: 100 10 (1000)
I0428 20:26:41.209019  2859 net.cpp:139] Memory required for data: 29222800
I0428 20:26:41.209024  2859 layer_factory.hpp:77] Creating layer relu2
I0428 20:26:41.209029  2859 net.cpp:86] Creating Layer relu2
I0428 20:26:41.209033  2859 net.cpp:408] relu2 <- ip2
I0428 20:26:41.209038  2859 net.cpp:369] relu2 -> ip2 (in-place)
I0428 20:26:41.209245  2859 net.cpp:124] Setting up relu2
I0428 20:26:41.209255  2859 net.cpp:131] Top shape: 100 10 (1000)
I0428 20:26:41.209259  2859 net.cpp:139] Memory required for data: 29226800
I0428 20:26:41.209261  2859 layer_factory.hpp:77] Creating layer ip3
I0428 20:26:41.209267  2859 net.cpp:86] Creating Layer ip3
I0428 20:26:41.209271  2859 net.cpp:408] ip3 <- ip2
I0428 20:26:41.209276  2859 net.cpp:382] ip3 -> ip3
I0428 20:26:41.209424  2859 net.cpp:124] Setting up ip3
I0428 20:26:41.209431  2859 net.cpp:131] Top shape: 100 10 (1000)
I0428 20:26:41.209435  2859 net.cpp:139] Memory required for data: 29230800
I0428 20:26:41.209444  2859 layer_factory.hpp:77] Creating layer relu3
I0428 20:26:41.209448  2859 net.cpp:86] Creating Layer relu3
I0428 20:26:41.209451  2859 net.cpp:408] relu3 <- ip3
I0428 20:26:41.209456  2859 net.cpp:369] relu3 -> ip3 (in-place)
I0428 20:26:41.210304  2859 net.cpp:124] Setting up relu3
I0428 20:26:41.210317  2859 net.cpp:131] Top shape: 100 10 (1000)
I0428 20:26:41.210320  2859 net.cpp:139] Memory required for data: 29234800
I0428 20:26:41.210325  2859 layer_factory.hpp:77] Creating layer ip3_relu3_0_split
I0428 20:26:41.210330  2859 net.cpp:86] Creating Layer ip3_relu3_0_split
I0428 20:26:41.210333  2859 net.cpp:408] ip3_relu3_0_split <- ip3
I0428 20:26:41.210340  2859 net.cpp:382] ip3_relu3_0_split -> ip3_relu3_0_split_0
I0428 20:26:41.210345  2859 net.cpp:382] ip3_relu3_0_split -> ip3_relu3_0_split_1
I0428 20:26:41.210388  2859 net.cpp:124] Setting up ip3_relu3_0_split
I0428 20:26:41.210396  2859 net.cpp:131] Top shape: 100 10 (1000)
I0428 20:26:41.210399  2859 net.cpp:131] Top shape: 100 10 (1000)
I0428 20:26:41.210402  2859 net.cpp:139] Memory required for data: 29242800
I0428 20:26:41.210405  2859 layer_factory.hpp:77] Creating layer accuracy
I0428 20:26:41.210412  2859 net.cpp:86] Creating Layer accuracy
I0428 20:26:41.210414  2859 net.cpp:408] accuracy <- ip3_relu3_0_split_0
I0428 20:26:41.210418  2859 net.cpp:408] accuracy <- label_mnist_1_split_0
I0428 20:26:41.210423  2859 net.cpp:382] accuracy -> accuracy
…
