…
I0428 20:17:58.159077  1023 net.cpp:296] The NetState phase (0) differed from the phase (1) specified by a rule in layer mnist
I0428 20:17:58.159108  1023 net.cpp:296] The NetState phase (0) differed from the phase (1) specified by a rule in layer accuracy
I0428 20:17:58.159204  1023 net.cpp:53] Initializing net from parameters: 
name: "LeNet"
state {
  phase: TRAIN
  level: 0
  stage: ""
}
layer {
  name: "mnist"
  type: "Data"
  top: "data"
  top: "label"
  include {
    phase: TRAIN
  }
  transform_param {
    scale: 0.00390625
  }
  data_param {
    source: "examples/mnist/mnist_train_lmdb"
    batch_size: 64
    backend: LMDB
  }
}
layer {
  name: "conv0"
  type: "Convolution"
  bottom: "data"
  top: "conv0"
  param {
    lr_mult: 1
  }
  param {
    lr_mult: 2
  }
  convolution_param {
    num_output: 50
    kernel_size: 5
    stride: 1
    weight_filler {
      type: "xavier"
    }
    bias_filler {
      type: "constant"
    }
  }
}
layer {
  name: "pool0"
  type: "Pooling"
  bottom: "conv0"
  top: "pool0"
  pooling_param {
    pool: MAX
    kernel_size: 2
    stride: 2
  }
}
layer {
  name: "conv1"
  type: "Convolution"
  bottom: "pool0"
  top: "conv1"
  param {
    lr_mult: 1
  }
  param {
    lr_mult: 2
  }
  convolution_param {
    num_output: 10
    kernel_size: 5
    stride: 1
    weight_filler {
      type: "xavier"
    }
    bias_filler {
      type: "constant"
    }
  }
}
layer {
  name: "pool1"
  type: "Pooling"
  bottom: "conv1"
  top: "pool1"
  pooling_param {
    pool: MAX
    kernel_size: 2
    stride: 2
  }
}
layer {
  name: "ip1"
  type: "InnerProduct"
  bottom: "pool1"
  top: "ip1"
  param {
    lr_mult: 1
  }
  param {
    lr_mult: 2
  }
  inner_product_param {
    num_output: 10
    weight_filler {
      type: "xavier"
    }
    bias_filler {
      type: "constant"
    }
  }
}
layer {
  name: "relu1"
  type: "ReLU"
  bottom: "ip1"
  top: "ip1"
}
layer {
  name: "ip2"
  type: "InnerProduct"
  bottom: "ip1"
  top: "ip2"
  param {
    lr_mult: 1
  }
  param {
    lr_mult: 2
  }
  inner_product_param {
    num_output: 50
    weight_filler {
      type: "xavier"
    }
    bias_filler {
      type: "constant"
    }
  }
}
layer {
  name: "relu2"
  type: "ReLU"
  bottom: "ip2"
  top: "ip2"
}
layer {
  name: "ip3"
  type: "InnerProduct"
  bottom: "ip2"
  top: "ip3"
  param {
    lr_mult: 1
  }
  param {
    lr_mult: 2
  }
  inner_product_param {
    num_output: 10
    weight_filler {
      type: "xavier"
    }
    bias_filler {
      type: "constant"
    }
  }
}
layer {
  name: "relu3"
  type: "ReLU"
  bottom: "ip3"
  top: "ip3"
}
layer {
  name: "loss"
  type: "SoftmaxWithLoss"
  bottom: "ip3"
  bottom: "label"
  top: "loss"
}
I0428 20:17:58.159265  1023 layer_factory.hpp:77] Creating layer mnist
I0428 20:17:58.159343  1023 db_lmdb.cpp:35] Opened lmdb examples/mnist/mnist_train_lmdb
I0428 20:17:58.159361  1023 net.cpp:86] Creating Layer mnist
I0428 20:17:58.159368  1023 net.cpp:382] mnist -> data
I0428 20:17:58.159385  1023 net.cpp:382] mnist -> label
I0428 20:17:58.160300  1023 data_layer.cpp:45] output data size: 64,1,28,28
I0428 20:17:58.162798  1023 net.cpp:124] Setting up mnist
I0428 20:17:58.162829  1023 net.cpp:131] Top shape: 64 1 28 28 (50176)
I0428 20:17:58.162848  1023 net.cpp:131] Top shape: 64 (64)
I0428 20:17:58.162852  1023 net.cpp:139] Memory required for data: 200960
I0428 20:17:58.162858  1023 layer_factory.hpp:77] Creating layer conv0
I0428 20:17:58.162869  1023 net.cpp:86] Creating Layer conv0
I0428 20:17:58.162888  1023 net.cpp:408] conv0 <- data
I0428 20:17:58.162900  1023 net.cpp:382] conv0 -> conv0
I0428 20:17:58.386574  1023 net.cpp:124] Setting up conv0
I0428 20:17:58.386600  1023 net.cpp:131] Top shape: 64 50 24 24 (1843200)
I0428 20:17:58.386605  1023 net.cpp:139] Memory required for data: 7573760
I0428 20:17:58.386617  1023 layer_factory.hpp:77] Creating layer pool0
I0428 20:17:58.386629  1023 net.cpp:86] Creating Layer pool0
I0428 20:17:58.386633  1023 net.cpp:408] pool0 <- conv0
I0428 20:17:58.386638  1023 net.cpp:382] pool0 -> pool0
I0428 20:17:58.386695  1023 net.cpp:124] Setting up pool0
I0428 20:17:58.386700  1023 net.cpp:131] Top shape: 64 50 12 12 (460800)
I0428 20:17:58.386703  1023 net.cpp:139] Memory required for data: 9416960
I0428 20:17:58.386706  1023 layer_factory.hpp:77] Creating layer conv1
I0428 20:17:58.386716  1023 net.cpp:86] Creating Layer conv1
I0428 20:17:58.386719  1023 net.cpp:408] conv1 <- pool0
I0428 20:17:58.386724  1023 net.cpp:382] conv1 -> conv1
I0428 20:17:58.389578  1023 net.cpp:124] Setting up conv1
I0428 20:17:58.389608  1023 net.cpp:131] Top shape: 64 10 8 8 (40960)
I0428 20:17:58.389612  1023 net.cpp:139] Memory required for data: 9580800
I0428 20:17:58.389621  1023 layer_factory.hpp:77] Creating layer pool1
I0428 20:17:58.389628  1023 net.cpp:86] Creating Layer pool1
I0428 20:17:58.389632  1023 net.cpp:408] pool1 <- conv1
I0428 20:17:58.389636  1023 net.cpp:382] pool1 -> pool1
I0428 20:17:58.389700  1023 net.cpp:124] Setting up pool1
I0428 20:17:58.389706  1023 net.cpp:131] Top shape: 64 10 4 4 (10240)
I0428 20:17:58.389708  1023 net.cpp:139] Memory required for data: 9621760
I0428 20:17:58.389711  1023 layer_factory.hpp:77] Creating layer ip1
I0428 20:17:58.389719  1023 net.cpp:86] Creating Layer ip1
I0428 20:17:58.389720  1023 net.cpp:408] ip1 <- pool1
I0428 20:17:58.389725  1023 net.cpp:382] ip1 -> ip1
I0428 20:17:58.389822  1023 net.cpp:124] Setting up ip1
I0428 20:17:58.389829  1023 net.cpp:131] Top shape: 64 10 (640)
I0428 20:17:58.389833  1023 net.cpp:139] Memory required for data: 9624320
I0428 20:17:58.389839  1023 layer_factory.hpp:77] Creating layer relu1
I0428 20:17:58.389844  1023 net.cpp:86] Creating Layer relu1
I0428 20:17:58.389847  1023 net.cpp:408] relu1 <- ip1
I0428 20:17:58.389852  1023 net.cpp:369] relu1 -> ip1 (in-place)
I0428 20:17:58.390020  1023 net.cpp:124] Setting up relu1
I0428 20:17:58.390028  1023 net.cpp:131] Top shape: 64 10 (640)
I0428 20:17:58.390031  1023 net.cpp:139] Memory required for data: 9626880
I0428 20:17:58.390034  1023 layer_factory.hpp:77] Creating layer ip2
I0428 20:17:58.390040  1023 net.cpp:86] Creating Layer ip2
I0428 20:17:58.390043  1023 net.cpp:408] ip2 <- ip1
I0428 20:17:58.390048  1023 net.cpp:382] ip2 -> ip2
I0428 20:17:58.390136  1023 net.cpp:124] Setting up ip2
I0428 20:17:58.390141  1023 net.cpp:131] Top shape: 64 50 (3200)
I0428 20:17:58.390144  1023 net.cpp:139] Memory required for data: 9639680
I0428 20:17:58.390149  1023 layer_factory.hpp:77] Creating layer relu2
I0428 20:17:58.390154  1023 net.cpp:86] Creating Layer relu2
I0428 20:17:58.390157  1023 net.cpp:408] relu2 <- ip2
I0428 20:17:58.390161  1023 net.cpp:369] relu2 -> ip2 (in-place)
I0428 20:17:58.390818  1023 net.cpp:124] Setting up relu2
I0428 20:17:58.390830  1023 net.cpp:131] Top shape: 64 50 (3200)
I0428 20:17:58.390849  1023 net.cpp:139] Memory required for data: 9652480
I0428 20:17:58.390852  1023 layer_factory.hpp:77] Creating layer ip3
I0428 20:17:58.390859  1023 net.cpp:86] Creating Layer ip3
I0428 20:17:58.390862  1023 net.cpp:408] ip3 <- ip2
I0428 20:17:58.390867  1023 net.cpp:382] ip3 -> ip3
I0428 20:17:58.390959  1023 net.cpp:124] Setting up ip3
I0428 20:17:58.390965  1023 net.cpp:131] Top shape: 64 10 (640)
I0428 20:17:58.390969  1023 net.cpp:139] Memory required for data: 9655040
I0428 20:17:58.390975  1023 layer_factory.hpp:77] Creating layer relu3
I0428 20:17:58.390982  1023 net.cpp:86] Creating Layer relu3
I0428 20:17:58.390985  1023 net.cpp:408] relu3 <- ip3
I0428 20:17:58.390990  1023 net.cpp:369] relu3 -> ip3 (in-place)
I0428 20:17:58.391154  1023 net.cpp:124] Setting up relu3
I0428 20:17:58.391176  1023 net.cpp:131] Top shape: 64 10 (640)
I0428 20:17:58.391180  1023 net.cpp:139] Memory required for data: 9657600
I0428 20:17:58.391182  1023 layer_factory.hpp:77] Creating layer loss
I0428 20:17:58.391188  1023 net.cpp:86] Creating Layer loss
I0428 20:17:58.391191  1023 net.cpp:408] loss <- ip3
I0428 20:17:58.391196  1023 net.cpp:408] loss <- label
I0428 20:17:58.391201  1023 net.cpp:382] loss -> loss
I0428 20:17:58.391213  1023 layer_factory.hpp:77] Creating layer loss
…
I0428 20:17:58.391871  1023 solver.cpp:173] Creating test net (#0) specified by net file: ECE595/mnist/train_test/var_everything2/lenet_train_test1307.prototxt
I0428 20:17:58.391913  1023 net.cpp:296] The NetState phase (1) differed from the phase (0) specified by a rule in layer mnist
I0428 20:17:58.392019  1023 net.cpp:53] Initializing net from parameters: 
name: "LeNet"
state {
  phase: TEST
}
layer {
  name: "mnist"
  type: "Data"
  top: "data"
  top: "label"
  include {
    phase: TEST
  }
  transform_param {
    scale: 0.00390625
  }
  data_param {
    source: "examples/mnist/mnist_test_lmdb"
    batch_size: 100
    backend: LMDB
  }
}
layer {
  name: "conv0"
  type: "Convolution"
  bottom: "data"
  top: "conv0"
  param {
    lr_mult: 1
  }
  param {
    lr_mult: 2
  }
  convolution_param {
    num_output: 50
    kernel_size: 5
    stride: 1
    weight_filler {
      type: "xavier"
    }
    bias_filler {
      type: "constant"
    }
  }
}
layer {
  name: "pool0"
  type: "Pooling"
  bottom: "conv0"
  top: "pool0"
  pooling_param {
    pool: MAX
    kernel_size: 2
    stride: 2
  }
}
layer {
  name: "conv1"
  type: "Convolution"
  bottom: "pool0"
  top: "conv1"
  param {
    lr_mult: 1
  }
  param {
    lr_mult: 2
  }
  convolution_param {
    num_output: 10
    kernel_size: 5
    stride: 1
    weight_filler {
      type: "xavier"
    }
    bias_filler {
      type: "constant"
    }
  }
}
layer {
  name: "pool1"
  type: "Pooling"
  bottom: "conv1"
  top: "pool1"
  pooling_param {
    pool: MAX
    kernel_size: 2
    stride: 2
  }
}
layer {
  name: "ip1"
  type: "InnerProduct"
  bottom: "pool1"
  top: "ip1"
  param {
    lr_mult: 1
  }
  param {
    lr_mult: 2
  }
  inner_product_param {
    num_output: 10
    weight_filler {
      type: "xavier"
    }
    bias_filler {
      type: "constant"
    }
  }
}
layer {
  name: "relu1"
  type: "ReLU"
  bottom: "ip1"
  top: "ip1"
}
layer {
  name: "ip2"
  type: "InnerProduct"
  bottom: "ip1"
  top: "ip2"
  param {
    lr_mult: 1
  }
  param {
    lr_mult: 2
  }
  inner_product_param {
    num_output: 50
    weight_filler {
      type: "xavier"
    }
    bias_filler {
      type: "constant"
    }
  }
}
layer {
  name: "relu2"
  type: "ReLU"
  bottom: "ip2"
  top: "ip2"
}
layer {
  name: "ip3"
  type: "InnerProduct"
  bottom: "ip2"
  top: "ip3"
  param {
    lr_mult: 1
  }
  param {
    lr_mult: 2
  }
  inner_product_param {
    num_output: 10
    weight_filler {
      type: "xavier"
    }
    bias_filler {
      type: "constant"
    }
  }
}
layer {
  name: "relu3"
  type: "ReLU"
  bottom: "ip3"
  top: "ip3"
}
layer {
  name: "accuracy"
  type: "Accuracy"
  bottom: "ip3"
  bottom: "label"
  top: "accuracy"
  include {
    phase: TEST
  }
}
layer {
  name: "loss"
  type: "SoftmaxWithLoss"
  bottom: "ip3"
  bottom: "label"
  top: "loss"
}
I0428 20:17:58.392112  1023 layer_factory.hpp:77] Creating layer mnist
I0428 20:17:58.392161  1023 db_lmdb.cpp:35] Opened lmdb examples/mnist/mnist_test_lmdb
I0428 20:17:58.392174  1023 net.cpp:86] Creating Layer mnist
I0428 20:17:58.392179  1023 net.cpp:382] mnist -> data
I0428 20:17:58.392185  1023 net.cpp:382] mnist -> label
I0428 20:17:58.392271  1023 data_layer.cpp:45] output data size: 100,1,28,28
I0428 20:17:58.394310  1023 net.cpp:124] Setting up mnist
I0428 20:17:58.394340  1023 net.cpp:131] Top shape: 100 1 28 28 (78400)
I0428 20:17:58.394361  1023 net.cpp:131] Top shape: 100 (100)
I0428 20:17:58.394366  1023 net.cpp:139] Memory required for data: 314000
I0428 20:17:58.394368  1023 layer_factory.hpp:77] Creating layer label_mnist_1_split
I0428 20:17:58.394376  1023 net.cpp:86] Creating Layer label_mnist_1_split
I0428 20:17:58.394378  1023 net.cpp:408] label_mnist_1_split <- label
I0428 20:17:58.394383  1023 net.cpp:382] label_mnist_1_split -> label_mnist_1_split_0
I0428 20:17:58.394389  1023 net.cpp:382] label_mnist_1_split -> label_mnist_1_split_1
I0428 20:17:58.394464  1023 net.cpp:124] Setting up label_mnist_1_split
I0428 20:17:58.394470  1023 net.cpp:131] Top shape: 100 (100)
I0428 20:17:58.394474  1023 net.cpp:131] Top shape: 100 (100)
I0428 20:17:58.394477  1023 net.cpp:139] Memory required for data: 314800
I0428 20:17:58.394480  1023 layer_factory.hpp:77] Creating layer conv0
I0428 20:17:58.394489  1023 net.cpp:86] Creating Layer conv0
I0428 20:17:58.394491  1023 net.cpp:408] conv0 <- data
I0428 20:17:58.394496  1023 net.cpp:382] conv0 -> conv0
I0428 20:17:58.396045  1023 net.cpp:124] Setting up conv0
I0428 20:17:58.396059  1023 net.cpp:131] Top shape: 100 50 24 24 (2880000)
I0428 20:17:58.396062  1023 net.cpp:139] Memory required for data: 11834800
I0428 20:17:58.396071  1023 layer_factory.hpp:77] Creating layer pool0
I0428 20:17:58.396077  1023 net.cpp:86] Creating Layer pool0
I0428 20:17:58.396096  1023 net.cpp:408] pool0 <- conv0
I0428 20:17:58.396101  1023 net.cpp:382] pool0 -> pool0
I0428 20:17:58.396136  1023 net.cpp:124] Setting up pool0
I0428 20:17:58.396142  1023 net.cpp:131] Top shape: 100 50 12 12 (720000)
I0428 20:17:58.396144  1023 net.cpp:139] Memory required for data: 14714800
I0428 20:17:58.396147  1023 layer_factory.hpp:77] Creating layer conv1
I0428 20:17:58.396155  1023 net.cpp:86] Creating Layer conv1
I0428 20:17:58.396159  1023 net.cpp:408] conv1 <- pool0
I0428 20:17:58.396167  1023 net.cpp:382] conv1 -> conv1
I0428 20:17:58.397788  1023 net.cpp:124] Setting up conv1
I0428 20:17:58.397800  1023 net.cpp:131] Top shape: 100 10 8 8 (64000)
I0428 20:17:58.397827  1023 net.cpp:139] Memory required for data: 14970800
I0428 20:17:58.397836  1023 layer_factory.hpp:77] Creating layer pool1
I0428 20:17:58.397843  1023 net.cpp:86] Creating Layer pool1
I0428 20:17:58.397846  1023 net.cpp:408] pool1 <- conv1
I0428 20:17:58.397851  1023 net.cpp:382] pool1 -> pool1
I0428 20:17:58.397905  1023 net.cpp:124] Setting up pool1
I0428 20:17:58.397910  1023 net.cpp:131] Top shape: 100 10 4 4 (16000)
I0428 20:17:58.397913  1023 net.cpp:139] Memory required for data: 15034800
I0428 20:17:58.397917  1023 layer_factory.hpp:77] Creating layer ip1
I0428 20:17:58.397922  1023 net.cpp:86] Creating Layer ip1
I0428 20:17:58.397927  1023 net.cpp:408] ip1 <- pool1
I0428 20:17:58.397931  1023 net.cpp:382] ip1 -> ip1
I0428 20:17:58.398056  1023 net.cpp:124] Setting up ip1
I0428 20:17:58.398062  1023 net.cpp:131] Top shape: 100 10 (1000)
I0428 20:17:58.398075  1023 net.cpp:139] Memory required for data: 15038800
I0428 20:17:58.398083  1023 layer_factory.hpp:77] Creating layer relu1
I0428 20:17:58.398087  1023 net.cpp:86] Creating Layer relu1
I0428 20:17:58.398092  1023 net.cpp:408] relu1 <- ip1
I0428 20:17:58.398111  1023 net.cpp:369] relu1 -> ip1 (in-place)
I0428 20:17:58.398317  1023 net.cpp:124] Setting up relu1
I0428 20:17:58.398326  1023 net.cpp:131] Top shape: 100 10 (1000)
I0428 20:17:58.398329  1023 net.cpp:139] Memory required for data: 15042800
I0428 20:17:58.398332  1023 layer_factory.hpp:77] Creating layer ip2
I0428 20:17:58.398339  1023 net.cpp:86] Creating Layer ip2
I0428 20:17:58.398342  1023 net.cpp:408] ip2 <- ip1
I0428 20:17:58.398349  1023 net.cpp:382] ip2 -> ip2
I0428 20:17:58.398476  1023 net.cpp:124] Setting up ip2
I0428 20:17:58.398483  1023 net.cpp:131] Top shape: 100 50 (5000)
I0428 20:17:58.398486  1023 net.cpp:139] Memory required for data: 15062800
I0428 20:17:58.398493  1023 layer_factory.hpp:77] Creating layer relu2
I0428 20:17:58.398497  1023 net.cpp:86] Creating Layer relu2
I0428 20:17:58.398500  1023 net.cpp:408] relu2 <- ip2
I0428 20:17:58.398504  1023 net.cpp:369] relu2 -> ip2 (in-place)
I0428 20:17:58.398661  1023 net.cpp:124] Setting up relu2
I0428 20:17:58.398671  1023 net.cpp:131] Top shape: 100 50 (5000)
I0428 20:17:58.398674  1023 net.cpp:139] Memory required for data: 15082800
I0428 20:17:58.398677  1023 layer_factory.hpp:77] Creating layer ip3
I0428 20:17:58.398684  1023 net.cpp:86] Creating Layer ip3
I0428 20:17:58.398686  1023 net.cpp:408] ip3 <- ip2
I0428 20:17:58.398691  1023 net.cpp:382] ip3 -> ip3
I0428 20:17:58.398807  1023 net.cpp:124] Setting up ip3
I0428 20:17:58.398813  1023 net.cpp:131] Top shape: 100 10 (1000)
I0428 20:17:58.398816  1023 net.cpp:139] Memory required for data: 15086800
I0428 20:17:58.398824  1023 layer_factory.hpp:77] Creating layer relu3
I0428 20:17:58.398828  1023 net.cpp:86] Creating Layer relu3
I0428 20:17:58.398831  1023 net.cpp:408] relu3 <- ip3
I0428 20:17:58.398835  1023 net.cpp:369] relu3 -> ip3 (in-place)
I0428 20:17:58.399654  1023 net.cpp:124] Setting up relu3
I0428 20:17:58.399667  1023 net.cpp:131] Top shape: 100 10 (1000)
I0428 20:17:58.399686  1023 net.cpp:139] Memory required for data: 15090800
I0428 20:17:58.399689  1023 layer_factory.hpp:77] Creating layer ip3_relu3_0_split
I0428 20:17:58.399694  1023 net.cpp:86] Creating Layer ip3_relu3_0_split
I0428 20:17:58.399699  1023 net.cpp:408] ip3_relu3_0_split <- ip3
I0428 20:17:58.399704  1023 net.cpp:382] ip3_relu3_0_split -> ip3_relu3_0_split_0
I0428 20:17:58.399710  1023 net.cpp:382] ip3_relu3_0_split -> ip3_relu3_0_split_1
I0428 20:17:58.399756  1023 net.cpp:124] Setting up ip3_relu3_0_split
I0428 20:17:58.399761  1023 net.cpp:131] Top shape: 100 10 (1000)
I0428 20:17:58.399765  1023 net.cpp:131] Top shape: 100 10 (1000)
I0428 20:17:58.399767  1023 net.cpp:139] Memory required for data: 15098800
I0428 20:17:58.399770  1023 layer_factory.hpp:77] Creating layer accuracy
I0428 20:17:58.399775  1023 net.cpp:86] Creating Layer accuracy
I0428 20:17:58.399778  1023 net.cpp:408] accuracy <- ip3_relu3_0_split_0
I0428 20:17:58.399782  1023 net.cpp:408] accuracy <- label_mnist_1_split_0
I0428 20:17:58.399786  1023 net.cpp:382] accuracy -> accuracy
…
