…
I0428 20:14:15.494294 32635 net.cpp:296] The NetState phase (0) differed from the phase (1) specified by a rule in layer mnist
I0428 20:14:15.494324 32635 net.cpp:296] The NetState phase (0) differed from the phase (1) specified by a rule in layer accuracy
I0428 20:14:15.494397 32635 net.cpp:53] Initializing net from parameters: 
name: "LeNet"
state {
  phase: TRAIN
  level: 0
  stage: ""
}
layer {
  name: "mnist"
  type: "Data"
  top: "data"
  top: "label"
  include {
    phase: TRAIN
  }
  transform_param {
    scale: 0.00390625
  }
  data_param {
    source: "examples/mnist/mnist_train_lmdb"
    batch_size: 64
    backend: LMDB
  }
}
layer {
  name: "conv0"
  type: "Convolution"
  bottom: "data"
  top: "conv0"
  param {
    lr_mult: 1
  }
  param {
    lr_mult: 2
  }
  convolution_param {
    num_output: 50
    kernel_size: 5
    stride: 1
    weight_filler {
      type: "xavier"
    }
    bias_filler {
      type: "constant"
    }
  }
}
layer {
  name: "pool0"
  type: "Pooling"
  bottom: "conv0"
  top: "pool0"
  pooling_param {
    pool: MAX
    kernel_size: 2
    stride: 2
  }
}
layer {
  name: "conv1"
  type: "Convolution"
  bottom: "pool0"
  top: "conv1"
  param {
    lr_mult: 1
  }
  param {
    lr_mult: 2
  }
  convolution_param {
    num_output: 2
    kernel_size: 5
    stride: 1
    weight_filler {
      type: "xavier"
    }
    bias_filler {
      type: "constant"
    }
  }
}
layer {
  name: "pool1"
  type: "Pooling"
  bottom: "conv1"
  top: "pool1"
  pooling_param {
    pool: MAX
    kernel_size: 2
    stride: 2
  }
}
layer {
  name: "ip1"
  type: "InnerProduct"
  bottom: "pool1"
  top: "ip1"
  param {
    lr_mult: 1
  }
  param {
    lr_mult: 2
  }
  inner_product_param {
    num_output: 25
    weight_filler {
      type: "xavier"
    }
    bias_filler {
      type: "constant"
    }
  }
}
layer {
  name: "relu1"
  type: "ReLU"
  bottom: "ip1"
  top: "ip1"
}
layer {
  name: "ip2"
  type: "InnerProduct"
  bottom: "ip1"
  top: "ip2"
  param {
    lr_mult: 1
  }
  param {
    lr_mult: 2
  }
  inner_product_param {
    num_output: 10
    weight_filler {
      type: "xavier"
    }
    bias_filler {
      type: "constant"
    }
  }
}
layer {
  name: "relu2"
  type: "ReLU"
  bottom: "ip2"
  top: "ip2"
}
layer {
  name: "loss"
  type: "SoftmaxWithLoss"
  bottom: "ip2"
  bottom: "label"
  top: "loss"
}
I0428 20:14:15.494472 32635 layer_factory.hpp:77] Creating layer mnist
I0428 20:14:15.494550 32635 db_lmdb.cpp:35] Opened lmdb examples/mnist/mnist_train_lmdb
I0428 20:14:15.494570 32635 net.cpp:86] Creating Layer mnist
I0428 20:14:15.494575 32635 net.cpp:382] mnist -> data
I0428 20:14:15.494592 32635 net.cpp:382] mnist -> label
I0428 20:14:15.495563 32635 data_layer.cpp:45] output data size: 64,1,28,28
I0428 20:14:15.497802 32635 net.cpp:124] Setting up mnist
I0428 20:14:15.497848 32635 net.cpp:131] Top shape: 64 1 28 28 (50176)
I0428 20:14:15.497854 32635 net.cpp:131] Top shape: 64 (64)
I0428 20:14:15.497858 32635 net.cpp:139] Memory required for data: 200960
I0428 20:14:15.497862 32635 layer_factory.hpp:77] Creating layer conv0
I0428 20:14:15.497874 32635 net.cpp:86] Creating Layer conv0
I0428 20:14:15.497879 32635 net.cpp:408] conv0 <- data
I0428 20:14:15.497889 32635 net.cpp:382] conv0 -> conv0
I0428 20:14:15.727339 32635 net.cpp:124] Setting up conv0
I0428 20:14:15.727380 32635 net.cpp:131] Top shape: 64 50 24 24 (1843200)
I0428 20:14:15.727383 32635 net.cpp:139] Memory required for data: 7573760
I0428 20:14:15.727421 32635 layer_factory.hpp:77] Creating layer pool0
I0428 20:14:15.727447 32635 net.cpp:86] Creating Layer pool0
I0428 20:14:15.727452 32635 net.cpp:408] pool0 <- conv0
I0428 20:14:15.727458 32635 net.cpp:382] pool0 -> pool0
I0428 20:14:15.727504 32635 net.cpp:124] Setting up pool0
I0428 20:14:15.727514 32635 net.cpp:131] Top shape: 64 50 12 12 (460800)
I0428 20:14:15.727516 32635 net.cpp:139] Memory required for data: 9416960
I0428 20:14:15.727519 32635 layer_factory.hpp:77] Creating layer conv1
I0428 20:14:15.727543 32635 net.cpp:86] Creating Layer conv1
I0428 20:14:15.727546 32635 net.cpp:408] conv1 <- pool0
I0428 20:14:15.727550 32635 net.cpp:382] conv1 -> conv1
I0428 20:14:15.729511 32635 net.cpp:124] Setting up conv1
I0428 20:14:15.729542 32635 net.cpp:131] Top shape: 64 2 8 8 (8192)
I0428 20:14:15.729547 32635 net.cpp:139] Memory required for data: 9449728
I0428 20:14:15.729555 32635 layer_factory.hpp:77] Creating layer pool1
I0428 20:14:15.729564 32635 net.cpp:86] Creating Layer pool1
I0428 20:14:15.729568 32635 net.cpp:408] pool1 <- conv1
I0428 20:14:15.729573 32635 net.cpp:382] pool1 -> pool1
I0428 20:14:15.729614 32635 net.cpp:124] Setting up pool1
I0428 20:14:15.729634 32635 net.cpp:131] Top shape: 64 2 4 4 (2048)
I0428 20:14:15.729636 32635 net.cpp:139] Memory required for data: 9457920
I0428 20:14:15.729640 32635 layer_factory.hpp:77] Creating layer ip1
I0428 20:14:15.729646 32635 net.cpp:86] Creating Layer ip1
I0428 20:14:15.729650 32635 net.cpp:408] ip1 <- pool1
I0428 20:14:15.729655 32635 net.cpp:382] ip1 -> ip1
I0428 20:14:15.729790 32635 net.cpp:124] Setting up ip1
I0428 20:14:15.729797 32635 net.cpp:131] Top shape: 64 25 (1600)
I0428 20:14:15.729800 32635 net.cpp:139] Memory required for data: 9464320
I0428 20:14:15.729807 32635 layer_factory.hpp:77] Creating layer relu1
I0428 20:14:15.729813 32635 net.cpp:86] Creating Layer relu1
I0428 20:14:15.729817 32635 net.cpp:408] relu1 <- ip1
I0428 20:14:15.729825 32635 net.cpp:369] relu1 -> ip1 (in-place)
I0428 20:14:15.730022 32635 net.cpp:124] Setting up relu1
I0428 20:14:15.730031 32635 net.cpp:131] Top shape: 64 25 (1600)
I0428 20:14:15.730034 32635 net.cpp:139] Memory required for data: 9470720
I0428 20:14:15.730037 32635 layer_factory.hpp:77] Creating layer ip2
I0428 20:14:15.730046 32635 net.cpp:86] Creating Layer ip2
I0428 20:14:15.730048 32635 net.cpp:408] ip2 <- ip1
I0428 20:14:15.730053 32635 net.cpp:382] ip2 -> ip2
I0428 20:14:15.730159 32635 net.cpp:124] Setting up ip2
I0428 20:14:15.730165 32635 net.cpp:131] Top shape: 64 10 (640)
I0428 20:14:15.730168 32635 net.cpp:139] Memory required for data: 9473280
I0428 20:14:15.730173 32635 layer_factory.hpp:77] Creating layer relu2
I0428 20:14:15.730180 32635 net.cpp:86] Creating Layer relu2
I0428 20:14:15.730183 32635 net.cpp:408] relu2 <- ip2
I0428 20:14:15.730188 32635 net.cpp:369] relu2 -> ip2 (in-place)
I0428 20:14:15.731176 32635 net.cpp:124] Setting up relu2
I0428 20:14:15.731205 32635 net.cpp:131] Top shape: 64 10 (640)
I0428 20:14:15.731209 32635 net.cpp:139] Memory required for data: 9475840
I0428 20:14:15.731212 32635 layer_factory.hpp:77] Creating layer loss
I0428 20:14:15.731220 32635 net.cpp:86] Creating Layer loss
I0428 20:14:15.731225 32635 net.cpp:408] loss <- ip2
I0428 20:14:15.731228 32635 net.cpp:408] loss <- label
I0428 20:14:15.731235 32635 net.cpp:382] loss -> loss
I0428 20:14:15.731253 32635 layer_factory.hpp:77] Creating layer loss
…
I0428 20:14:15.731966 32635 solver.cpp:173] Creating test net (#0) specified by net file: ECE595/mnist/train_test/var_everything2/lenet_train_test1217.prototxt
I0428 20:14:15.732022 32635 net.cpp:296] The NetState phase (1) differed from the phase (0) specified by a rule in layer mnist
I0428 20:14:15.732125 32635 net.cpp:53] Initializing net from parameters: 
name: "LeNet"
state {
  phase: TEST
}
layer {
  name: "mnist"
  type: "Data"
  top: "data"
  top: "label"
  include {
    phase: TEST
  }
  transform_param {
    scale: 0.00390625
  }
  data_param {
    source: "examples/mnist/mnist_test_lmdb"
    batch_size: 100
    backend: LMDB
  }
}
layer {
  name: "conv0"
  type: "Convolution"
  bottom: "data"
  top: "conv0"
  param {
    lr_mult: 1
  }
  param {
    lr_mult: 2
  }
  convolution_param {
    num_output: 50
    kernel_size: 5
    stride: 1
    weight_filler {
      type: "xavier"
    }
    bias_filler {
      type: "constant"
    }
  }
}
layer {
  name: "pool0"
  type: "Pooling"
  bottom: "conv0"
  top: "pool0"
  pooling_param {
    pool: MAX
    kernel_size: 2
    stride: 2
  }
}
layer {
  name: "conv1"
  type: "Convolution"
  bottom: "pool0"
  top: "conv1"
  param {
    lr_mult: 1
  }
  param {
    lr_mult: 2
  }
  convolution_param {
    num_output: 2
    kernel_size: 5
    stride: 1
    weight_filler {
      type: "xavier"
    }
    bias_filler {
      type: "constant"
    }
  }
}
layer {
  name: "pool1"
  type: "Pooling"
  bottom: "conv1"
  top: "pool1"
  pooling_param {
    pool: MAX
    kernel_size: 2
    stride: 2
  }
}
layer {
  name: "ip1"
  type: "InnerProduct"
  bottom: "pool1"
  top: "ip1"
  param {
    lr_mult: 1
  }
  param {
    lr_mult: 2
  }
  inner_product_param {
    num_output: 25
    weight_filler {
      type: "xavier"
    }
    bias_filler {
      type: "constant"
    }
  }
}
layer {
  name: "relu1"
  type: "ReLU"
  bottom: "ip1"
  top: "ip1"
}
layer {
  name: "ip2"
  type: "InnerProduct"
  bottom: "ip1"
  top: "ip2"
  param {
    lr_mult: 1
  }
  param {
    lr_mult: 2
  }
  inner_product_param {
    num_output: 10
    weight_filler {
      type: "xavier"
    }
    bias_filler {
      type: "constant"
    }
  }
}
layer {
  name: "relu2"
  type: "ReLU"
  bottom: "ip2"
  top: "ip2"
}
layer {
  name: "accuracy"
  type: "Accuracy"
  bottom: "ip2"
  bottom: "label"
  top: "accuracy"
  include {
    phase: TEST
  }
}
layer {
  name: "loss"
  type: "SoftmaxWithLoss"
  bottom: "ip2"
  bottom: "label"
  top: "loss"
}
I0428 20:14:15.732197 32635 layer_factory.hpp:77] Creating layer mnist
I0428 20:14:15.732241 32635 db_lmdb.cpp:35] Opened lmdb examples/mnist/mnist_test_lmdb
I0428 20:14:15.732254 32635 net.cpp:86] Creating Layer mnist
I0428 20:14:15.732260 32635 net.cpp:382] mnist -> data
I0428 20:14:15.732269 32635 net.cpp:382] mnist -> label
I0428 20:14:15.732374 32635 data_layer.cpp:45] output data size: 100,1,28,28
I0428 20:14:15.734689 32635 net.cpp:124] Setting up mnist
I0428 20:14:15.734717 32635 net.cpp:131] Top shape: 100 1 28 28 (78400)
I0428 20:14:15.734722 32635 net.cpp:131] Top shape: 100 (100)
I0428 20:14:15.734724 32635 net.cpp:139] Memory required for data: 314000
I0428 20:14:15.734729 32635 layer_factory.hpp:77] Creating layer label_mnist_1_split
I0428 20:14:15.734738 32635 net.cpp:86] Creating Layer label_mnist_1_split
I0428 20:14:15.734741 32635 net.cpp:408] label_mnist_1_split <- label
I0428 20:14:15.734747 32635 net.cpp:382] label_mnist_1_split -> label_mnist_1_split_0
I0428 20:14:15.734755 32635 net.cpp:382] label_mnist_1_split -> label_mnist_1_split_1
I0428 20:14:15.734845 32635 net.cpp:124] Setting up label_mnist_1_split
I0428 20:14:15.734864 32635 net.cpp:131] Top shape: 100 (100)
I0428 20:14:15.734869 32635 net.cpp:131] Top shape: 100 (100)
I0428 20:14:15.734870 32635 net.cpp:139] Memory required for data: 314800
I0428 20:14:15.734874 32635 layer_factory.hpp:77] Creating layer conv0
I0428 20:14:15.734899 32635 net.cpp:86] Creating Layer conv0
I0428 20:14:15.734901 32635 net.cpp:408] conv0 <- data
I0428 20:14:15.734907 32635 net.cpp:382] conv0 -> conv0
I0428 20:14:15.736668 32635 net.cpp:124] Setting up conv0
I0428 20:14:15.736681 32635 net.cpp:131] Top shape: 100 50 24 24 (2880000)
I0428 20:14:15.736701 32635 net.cpp:139] Memory required for data: 11834800
I0428 20:14:15.736709 32635 layer_factory.hpp:77] Creating layer pool0
I0428 20:14:15.736716 32635 net.cpp:86] Creating Layer pool0
I0428 20:14:15.736721 32635 net.cpp:408] pool0 <- conv0
I0428 20:14:15.736724 32635 net.cpp:382] pool0 -> pool0
I0428 20:14:15.736760 32635 net.cpp:124] Setting up pool0
I0428 20:14:15.736765 32635 net.cpp:131] Top shape: 100 50 12 12 (720000)
I0428 20:14:15.736768 32635 net.cpp:139] Memory required for data: 14714800
I0428 20:14:15.736770 32635 layer_factory.hpp:77] Creating layer conv1
I0428 20:14:15.736779 32635 net.cpp:86] Creating Layer conv1
I0428 20:14:15.736783 32635 net.cpp:408] conv1 <- pool0
I0428 20:14:15.736788 32635 net.cpp:382] conv1 -> conv1
I0428 20:14:15.738431 32635 net.cpp:124] Setting up conv1
I0428 20:14:15.738445 32635 net.cpp:131] Top shape: 100 2 8 8 (12800)
I0428 20:14:15.738466 32635 net.cpp:139] Memory required for data: 14766000
I0428 20:14:15.738490 32635 layer_factory.hpp:77] Creating layer pool1
I0428 20:14:15.738497 32635 net.cpp:86] Creating Layer pool1
I0428 20:14:15.738502 32635 net.cpp:408] pool1 <- conv1
I0428 20:14:15.738507 32635 net.cpp:382] pool1 -> pool1
I0428 20:14:15.738546 32635 net.cpp:124] Setting up pool1
I0428 20:14:15.738553 32635 net.cpp:131] Top shape: 100 2 4 4 (3200)
I0428 20:14:15.738555 32635 net.cpp:139] Memory required for data: 14778800
I0428 20:14:15.738559 32635 layer_factory.hpp:77] Creating layer ip1
I0428 20:14:15.738565 32635 net.cpp:86] Creating Layer ip1
I0428 20:14:15.738569 32635 net.cpp:408] ip1 <- pool1
I0428 20:14:15.738574 32635 net.cpp:382] ip1 -> ip1
I0428 20:14:15.738694 32635 net.cpp:124] Setting up ip1
I0428 20:14:15.738703 32635 net.cpp:131] Top shape: 100 25 (2500)
I0428 20:14:15.738705 32635 net.cpp:139] Memory required for data: 14788800
I0428 20:14:15.738713 32635 layer_factory.hpp:77] Creating layer relu1
I0428 20:14:15.738719 32635 net.cpp:86] Creating Layer relu1
I0428 20:14:15.738723 32635 net.cpp:408] relu1 <- ip1
I0428 20:14:15.738728 32635 net.cpp:369] relu1 -> ip1 (in-place)
I0428 20:14:15.738888 32635 net.cpp:124] Setting up relu1
I0428 20:14:15.738898 32635 net.cpp:131] Top shape: 100 25 (2500)
I0428 20:14:15.738900 32635 net.cpp:139] Memory required for data: 14798800
I0428 20:14:15.738903 32635 layer_factory.hpp:77] Creating layer ip2
I0428 20:14:15.738911 32635 net.cpp:86] Creating Layer ip2
I0428 20:14:15.738915 32635 net.cpp:408] ip2 <- ip1
I0428 20:14:15.738921 32635 net.cpp:382] ip2 -> ip2
I0428 20:14:15.739019 32635 net.cpp:124] Setting up ip2
I0428 20:14:15.739027 32635 net.cpp:131] Top shape: 100 10 (1000)
I0428 20:14:15.739029 32635 net.cpp:139] Memory required for data: 14802800
I0428 20:14:15.739050 32635 layer_factory.hpp:77] Creating layer relu2
I0428 20:14:15.739055 32635 net.cpp:86] Creating Layer relu2
I0428 20:14:15.739058 32635 net.cpp:408] relu2 <- ip2
I0428 20:14:15.739069 32635 net.cpp:369] relu2 -> ip2 (in-place)
I0428 20:14:15.739226 32635 net.cpp:124] Setting up relu2
I0428 20:14:15.739235 32635 net.cpp:131] Top shape: 100 10 (1000)
I0428 20:14:15.739238 32635 net.cpp:139] Memory required for data: 14806800
I0428 20:14:15.739241 32635 layer_factory.hpp:77] Creating layer ip2_relu2_0_split
I0428 20:14:15.739246 32635 net.cpp:86] Creating Layer ip2_relu2_0_split
I0428 20:14:15.739264 32635 net.cpp:408] ip2_relu2_0_split <- ip2
I0428 20:14:15.739269 32635 net.cpp:382] ip2_relu2_0_split -> ip2_relu2_0_split_0
I0428 20:14:15.739285 32635 net.cpp:382] ip2_relu2_0_split -> ip2_relu2_0_split_1
I0428 20:14:15.739326 32635 net.cpp:124] Setting up ip2_relu2_0_split
I0428 20:14:15.739333 32635 net.cpp:131] Top shape: 100 10 (1000)
I0428 20:14:15.739337 32635 net.cpp:131] Top shape: 100 10 (1000)
I0428 20:14:15.739341 32635 net.cpp:139] Memory required for data: 14814800
I0428 20:14:15.739342 32635 layer_factory.hpp:77] Creating layer accuracy
I0428 20:14:15.739347 32635 net.cpp:86] Creating Layer accuracy
I0428 20:14:15.739351 32635 net.cpp:408] accuracy <- ip2_relu2_0_split_0
I0428 20:14:15.739356 32635 net.cpp:408] accuracy <- label_mnist_1_split_0
I0428 20:14:15.739375 32635 net.cpp:382] accuracy -> accuracy
…
