…
I0428 20:00:35.582255 29509 net.cpp:296] The NetState phase (0) differed from the phase (1) specified by a rule in layer mnist
I0428 20:00:35.582299 29509 net.cpp:296] The NetState phase (0) differed from the phase (1) specified by a rule in layer accuracy
I0428 20:00:35.582465 29509 net.cpp:53] Initializing net from parameters: 
name: "LeNet"
state {
  phase: TRAIN
  level: 0
  stage: ""
}
layer {
  name: "mnist"
  type: "Data"
  top: "data"
  top: "label"
  include {
    phase: TRAIN
  }
  transform_param {
    scale: 0.00390625
  }
  data_param {
    source: "examples/mnist/mnist_train_lmdb"
    batch_size: 64
    backend: LMDB
  }
}
layer {
  name: "conv0"
  type: "Convolution"
  bottom: "data"
  top: "conv0"
  param {
    lr_mult: 1
  }
  param {
    lr_mult: 2
  }
  convolution_param {
    num_output: 10
    kernel_size: 5
    stride: 1
    weight_filler {
      type: "xavier"
    }
    bias_filler {
      type: "constant"
    }
  }
}
layer {
  name: "pool0"
  type: "Pooling"
  bottom: "conv0"
  top: "pool0"
  pooling_param {
    pool: MAX
    kernel_size: 2
    stride: 2
  }
}
layer {
  name: "conv1"
  type: "Convolution"
  bottom: "pool0"
  top: "conv1"
  param {
    lr_mult: 1
  }
  param {
    lr_mult: 2
  }
  convolution_param {
    num_output: 25
    kernel_size: 5
    stride: 1
    weight_filler {
      type: "xavier"
    }
    bias_filler {
      type: "constant"
    }
  }
}
layer {
  name: "pool1"
  type: "Pooling"
  bottom: "conv1"
  top: "pool1"
  pooling_param {
    pool: MAX
    kernel_size: 2
    stride: 2
  }
}
layer {
  name: "ip1"
  type: "InnerProduct"
  bottom: "pool1"
  top: "ip1"
  param {
    lr_mult: 1
  }
  param {
    lr_mult: 2
  }
  inner_product_param {
    num_output: 25
    weight_filler {
      type: "xavier"
    }
    bias_filler {
      type: "constant"
    }
  }
}
layer {
  name: "relu1"
  type: "ReLU"
  bottom: "ip1"
  top: "ip1"
}
layer {
  name: "ip2"
  type: "InnerProduct"
  bottom: "ip1"
  top: "ip2"
  param {
    lr_mult: 1
  }
  param {
    lr_mult: 2
  }
  inner_product_param {
    num_output: 10
    weight_filler {
      type: "xavier"
    }
    bias_filler {
      type: "constant"
    }
  }
}
layer {
  name: "relu2"
  type: "ReLU"
  bottom: "ip2"
  top: "ip2"
}
layer {
  name: "ip3"
  type: "InnerProduct"
  bottom: "ip2"
  top: "ip3"
  param {
    lr_mult: 1
  }
  param {
    lr_mult: 2
  }
  inner_product_param {
    num_output: 10
    weight_filler {
      type: "xavier"
    }
    bias_filler {
      type: "constant"
    }
  }
}
layer {
  name: "relu3"
  type: "ReLU"
  bottom: "ip3"
  top: "ip3"
}
layer {
  name: "loss"
  type: "SoftmaxWithLoss"
  bottom: "ip3"
  bottom: "label"
  top: "loss"
}
I0428 20:00:35.582589 29509 layer_factory.hpp:77] Creating layer mnist
I0428 20:00:35.582737 29509 db_lmdb.cpp:35] Opened lmdb examples/mnist/mnist_train_lmdb
I0428 20:00:35.582770 29509 net.cpp:86] Creating Layer mnist
I0428 20:00:35.582785 29509 net.cpp:382] mnist -> data
I0428 20:00:35.582818 29509 net.cpp:382] mnist -> label
I0428 20:00:35.584465 29509 data_layer.cpp:45] output data size: 64,1,28,28
I0428 20:00:35.588186 29509 net.cpp:124] Setting up mnist
I0428 20:00:35.588215 29509 net.cpp:131] Top shape: 64 1 28 28 (50176)
I0428 20:00:35.588227 29509 net.cpp:131] Top shape: 64 (64)
I0428 20:00:35.588232 29509 net.cpp:139] Memory required for data: 200960
I0428 20:00:35.588243 29509 layer_factory.hpp:77] Creating layer conv0
I0428 20:00:35.588268 29509 net.cpp:86] Creating Layer conv0
I0428 20:00:35.588299 29509 net.cpp:408] conv0 <- data
I0428 20:00:35.588318 29509 net.cpp:382] conv0 -> conv0
I0428 20:00:35.900851 29509 net.cpp:124] Setting up conv0
I0428 20:00:35.900882 29509 net.cpp:131] Top shape: 64 10 24 24 (368640)
I0428 20:00:35.900887 29509 net.cpp:139] Memory required for data: 1675520
I0428 20:00:35.900904 29509 layer_factory.hpp:77] Creating layer pool0
I0428 20:00:35.900919 29509 net.cpp:86] Creating Layer pool0
I0428 20:00:35.900924 29509 net.cpp:408] pool0 <- conv0
I0428 20:00:35.900931 29509 net.cpp:382] pool0 -> pool0
I0428 20:00:35.900987 29509 net.cpp:124] Setting up pool0
I0428 20:00:35.900996 29509 net.cpp:131] Top shape: 64 10 12 12 (92160)
I0428 20:00:35.901001 29509 net.cpp:139] Memory required for data: 2044160
I0428 20:00:35.901005 29509 layer_factory.hpp:77] Creating layer conv1
I0428 20:00:35.901018 29509 net.cpp:86] Creating Layer conv1
I0428 20:00:35.901022 29509 net.cpp:408] conv1 <- pool0
I0428 20:00:35.901028 29509 net.cpp:382] conv1 -> conv1
I0428 20:00:35.904181 29509 net.cpp:124] Setting up conv1
I0428 20:00:35.904198 29509 net.cpp:131] Top shape: 64 25 8 8 (102400)
I0428 20:00:35.904203 29509 net.cpp:139] Memory required for data: 2453760
I0428 20:00:35.904214 29509 layer_factory.hpp:77] Creating layer pool1
I0428 20:00:35.904223 29509 net.cpp:86] Creating Layer pool1
I0428 20:00:35.904227 29509 net.cpp:408] pool1 <- conv1
I0428 20:00:35.904233 29509 net.cpp:382] pool1 -> pool1
I0428 20:00:35.904279 29509 net.cpp:124] Setting up pool1
I0428 20:00:35.904289 29509 net.cpp:131] Top shape: 64 25 4 4 (25600)
I0428 20:00:35.904291 29509 net.cpp:139] Memory required for data: 2556160
I0428 20:00:35.904295 29509 layer_factory.hpp:77] Creating layer ip1
I0428 20:00:35.904304 29509 net.cpp:86] Creating Layer ip1
I0428 20:00:35.904307 29509 net.cpp:408] ip1 <- pool1
I0428 20:00:35.904314 29509 net.cpp:382] ip1 -> ip1
I0428 20:00:35.904497 29509 net.cpp:124] Setting up ip1
I0428 20:00:35.904506 29509 net.cpp:131] Top shape: 64 25 (1600)
I0428 20:00:35.904510 29509 net.cpp:139] Memory required for data: 2562560
I0428 20:00:35.904520 29509 layer_factory.hpp:77] Creating layer relu1
I0428 20:00:35.904526 29509 net.cpp:86] Creating Layer relu1
I0428 20:00:35.904531 29509 net.cpp:408] relu1 <- ip1
I0428 20:00:35.904536 29509 net.cpp:369] relu1 -> ip1 (in-place)
I0428 20:00:35.904727 29509 net.cpp:124] Setting up relu1
I0428 20:00:35.904737 29509 net.cpp:131] Top shape: 64 25 (1600)
I0428 20:00:35.904742 29509 net.cpp:139] Memory required for data: 2568960
I0428 20:00:35.904744 29509 layer_factory.hpp:77] Creating layer ip2
I0428 20:00:35.904752 29509 net.cpp:86] Creating Layer ip2
I0428 20:00:35.904757 29509 net.cpp:408] ip2 <- ip1
I0428 20:00:35.904762 29509 net.cpp:382] ip2 -> ip2
I0428 20:00:35.904898 29509 net.cpp:124] Setting up ip2
I0428 20:00:35.904908 29509 net.cpp:131] Top shape: 64 10 (640)
I0428 20:00:35.904912 29509 net.cpp:139] Memory required for data: 2571520
I0428 20:00:35.904918 29509 layer_factory.hpp:77] Creating layer relu2
I0428 20:00:35.904927 29509 net.cpp:86] Creating Layer relu2
I0428 20:00:35.904929 29509 net.cpp:408] relu2 <- ip2
I0428 20:00:35.904934 29509 net.cpp:369] relu2 -> ip2 (in-place)
I0428 20:00:35.905773 29509 net.cpp:124] Setting up relu2
I0428 20:00:35.905789 29509 net.cpp:131] Top shape: 64 10 (640)
I0428 20:00:35.905793 29509 net.cpp:139] Memory required for data: 2574080
I0428 20:00:35.905798 29509 layer_factory.hpp:77] Creating layer ip3
I0428 20:00:35.905807 29509 net.cpp:86] Creating Layer ip3
I0428 20:00:35.905810 29509 net.cpp:408] ip3 <- ip2
I0428 20:00:35.905817 29509 net.cpp:382] ip3 -> ip3
I0428 20:00:35.905936 29509 net.cpp:124] Setting up ip3
I0428 20:00:35.905956 29509 net.cpp:131] Top shape: 64 10 (640)
I0428 20:00:35.905959 29509 net.cpp:139] Memory required for data: 2576640
I0428 20:00:35.905968 29509 layer_factory.hpp:77] Creating layer relu3
I0428 20:00:35.905975 29509 net.cpp:86] Creating Layer relu3
I0428 20:00:35.905978 29509 net.cpp:408] relu3 <- ip3
I0428 20:00:35.905984 29509 net.cpp:369] relu3 -> ip3 (in-place)
I0428 20:00:35.906182 29509 net.cpp:124] Setting up relu3
I0428 20:00:35.906191 29509 net.cpp:131] Top shape: 64 10 (640)
I0428 20:00:35.906195 29509 net.cpp:139] Memory required for data: 2579200
I0428 20:00:35.906199 29509 layer_factory.hpp:77] Creating layer loss
I0428 20:00:35.906206 29509 net.cpp:86] Creating Layer loss
I0428 20:00:35.906210 29509 net.cpp:408] loss <- ip3
I0428 20:00:35.906215 29509 net.cpp:408] loss <- label
I0428 20:00:35.906221 29509 net.cpp:382] loss -> loss
I0428 20:00:35.906239 29509 layer_factory.hpp:77] Creating layer loss
…
I0428 20:00:35.906988 29509 solver.cpp:173] Creating test net (#0) specified by net file: ECE595/mnist/train_test/var_everything2/lenet_train_test880.prototxt
I0428 20:00:35.907030 29509 net.cpp:296] The NetState phase (1) differed from the phase (0) specified by a rule in layer mnist
I0428 20:00:35.907137 29509 net.cpp:53] Initializing net from parameters: 
name: "LeNet"
state {
  phase: TEST
}
layer {
  name: "mnist"
  type: "Data"
  top: "data"
  top: "label"
  include {
    phase: TEST
  }
  transform_param {
    scale: 0.00390625
  }
  data_param {
    source: "examples/mnist/mnist_test_lmdb"
    batch_size: 100
    backend: LMDB
  }
}
layer {
  name: "conv0"
  type: "Convolution"
  bottom: "data"
  top: "conv0"
  param {
    lr_mult: 1
  }
  param {
    lr_mult: 2
  }
  convolution_param {
    num_output: 10
    kernel_size: 5
    stride: 1
    weight_filler {
      type: "xavier"
    }
    bias_filler {
      type: "constant"
    }
  }
}
layer {
  name: "pool0"
  type: "Pooling"
  bottom: "conv0"
  top: "pool0"
  pooling_param {
    pool: MAX
    kernel_size: 2
    stride: 2
  }
}
layer {
  name: "conv1"
  type: "Convolution"
  bottom: "pool0"
  top: "conv1"
  param {
    lr_mult: 1
  }
  param {
    lr_mult: 2
  }
  convolution_param {
    num_output: 25
    kernel_size: 5
    stride: 1
    weight_filler {
      type: "xavier"
    }
    bias_filler {
      type: "constant"
    }
  }
}
layer {
  name: "pool1"
  type: "Pooling"
  bottom: "conv1"
  top: "pool1"
  pooling_param {
    pool: MAX
    kernel_size: 2
    stride: 2
  }
}
layer {
  name: "ip1"
  type: "InnerProduct"
  bottom: "pool1"
  top: "ip1"
  param {
    lr_mult: 1
  }
  param {
    lr_mult: 2
  }
  inner_product_param {
    num_output: 25
    weight_filler {
      type: "xavier"
    }
    bias_filler {
      type: "constant"
    }
  }
}
layer {
  name: "relu1"
  type: "ReLU"
  bottom: "ip1"
  top: "ip1"
}
layer {
  name: "ip2"
  type: "InnerProduct"
  bottom: "ip1"
  top: "ip2"
  param {
    lr_mult: 1
  }
  param {
    lr_mult: 2
  }
  inner_product_param {
    num_output: 10
    weight_filler {
      type: "xavier"
    }
    bias_filler {
      type: "constant"
    }
  }
}
layer {
  name: "relu2"
  type: "ReLU"
  bottom: "ip2"
  top: "ip2"
}
layer {
  name: "ip3"
  type: "InnerProduct"
  bottom: "ip2"
  top: "ip3"
  param {
    lr_mult: 1
  }
  param {
    lr_mult: 2
  }
  inner_product_param {
    num_output: 10
    weight_filler {
      type: "xavier"
    }
    bias_filler {
      type: "constant"
    }
  }
}
layer {
  name: "relu3"
  type: "ReLU"
  bottom: "ip3"
  top: "ip3"
}
layer {
  name: "accuracy"
  type: "Accuracy"
  bottom: "ip3"
  bottom: "label"
  top: "accuracy"
  include {
    phase: TEST
  }
}
layer {
  name: "loss"
  type: "SoftmaxWithLoss"
  bottom: "ip3"
  bottom: "label"
  top: "loss"
}
I0428 20:00:35.907232 29509 layer_factory.hpp:77] Creating layer mnist
I0428 20:00:35.907286 29509 db_lmdb.cpp:35] Opened lmdb examples/mnist/mnist_test_lmdb
I0428 20:00:35.907301 29509 net.cpp:86] Creating Layer mnist
I0428 20:00:35.907306 29509 net.cpp:382] mnist -> data
I0428 20:00:35.907316 29509 net.cpp:382] mnist -> label
I0428 20:00:35.907415 29509 data_layer.cpp:45] output data size: 100,1,28,28
I0428 20:00:35.909826 29509 net.cpp:124] Setting up mnist
I0428 20:00:35.909842 29509 net.cpp:131] Top shape: 100 1 28 28 (78400)
I0428 20:00:35.909848 29509 net.cpp:131] Top shape: 100 (100)
I0428 20:00:35.909852 29509 net.cpp:139] Memory required for data: 314000
I0428 20:00:35.909857 29509 layer_factory.hpp:77] Creating layer label_mnist_1_split
I0428 20:00:35.909865 29509 net.cpp:86] Creating Layer label_mnist_1_split
I0428 20:00:35.909869 29509 net.cpp:408] label_mnist_1_split <- label
I0428 20:00:35.909875 29509 net.cpp:382] label_mnist_1_split -> label_mnist_1_split_0
I0428 20:00:35.909883 29509 net.cpp:382] label_mnist_1_split -> label_mnist_1_split_1
I0428 20:00:35.909939 29509 net.cpp:124] Setting up label_mnist_1_split
I0428 20:00:35.909947 29509 net.cpp:131] Top shape: 100 (100)
I0428 20:00:35.909952 29509 net.cpp:131] Top shape: 100 (100)
I0428 20:00:35.909955 29509 net.cpp:139] Memory required for data: 314800
I0428 20:00:35.909960 29509 layer_factory.hpp:77] Creating layer conv0
I0428 20:00:35.909970 29509 net.cpp:86] Creating Layer conv0
I0428 20:00:35.909973 29509 net.cpp:408] conv0 <- data
I0428 20:00:35.909981 29509 net.cpp:382] conv0 -> conv0
I0428 20:00:35.911893 29509 net.cpp:124] Setting up conv0
I0428 20:00:35.911911 29509 net.cpp:131] Top shape: 100 10 24 24 (576000)
I0428 20:00:35.911916 29509 net.cpp:139] Memory required for data: 2618800
I0428 20:00:35.911926 29509 layer_factory.hpp:77] Creating layer pool0
I0428 20:00:35.911934 29509 net.cpp:86] Creating Layer pool0
I0428 20:00:35.911938 29509 net.cpp:408] pool0 <- conv0
I0428 20:00:35.911944 29509 net.cpp:382] pool0 -> pool0
I0428 20:00:35.911988 29509 net.cpp:124] Setting up pool0
I0428 20:00:35.911996 29509 net.cpp:131] Top shape: 100 10 12 12 (144000)
I0428 20:00:35.912000 29509 net.cpp:139] Memory required for data: 3194800
I0428 20:00:35.912003 29509 layer_factory.hpp:77] Creating layer conv1
I0428 20:00:35.912014 29509 net.cpp:86] Creating Layer conv1
I0428 20:00:35.912019 29509 net.cpp:408] conv1 <- pool0
I0428 20:00:35.912025 29509 net.cpp:382] conv1 -> conv1
I0428 20:00:35.914362 29509 net.cpp:124] Setting up conv1
I0428 20:00:35.914378 29509 net.cpp:131] Top shape: 100 25 8 8 (160000)
I0428 20:00:35.914382 29509 net.cpp:139] Memory required for data: 3834800
I0428 20:00:35.914393 29509 layer_factory.hpp:77] Creating layer pool1
I0428 20:00:35.914400 29509 net.cpp:86] Creating Layer pool1
I0428 20:00:35.914404 29509 net.cpp:408] pool1 <- conv1
I0428 20:00:35.914412 29509 net.cpp:382] pool1 -> pool1
I0428 20:00:35.914465 29509 net.cpp:124] Setting up pool1
I0428 20:00:35.914472 29509 net.cpp:131] Top shape: 100 25 4 4 (40000)
I0428 20:00:35.914476 29509 net.cpp:139] Memory required for data: 3994800
I0428 20:00:35.914480 29509 layer_factory.hpp:77] Creating layer ip1
I0428 20:00:35.914489 29509 net.cpp:86] Creating Layer ip1
I0428 20:00:35.914492 29509 net.cpp:408] ip1 <- pool1
I0428 20:00:35.914497 29509 net.cpp:382] ip1 -> ip1
I0428 20:00:35.914718 29509 net.cpp:124] Setting up ip1
I0428 20:00:35.914729 29509 net.cpp:131] Top shape: 100 25 (2500)
I0428 20:00:35.914747 29509 net.cpp:139] Memory required for data: 4004800
I0428 20:00:35.914757 29509 layer_factory.hpp:77] Creating layer relu1
I0428 20:00:35.914763 29509 net.cpp:86] Creating Layer relu1
I0428 20:00:35.914767 29509 net.cpp:408] relu1 <- ip1
I0428 20:00:35.914773 29509 net.cpp:369] relu1 -> ip1 (in-place)
I0428 20:00:35.914971 29509 net.cpp:124] Setting up relu1
I0428 20:00:35.914983 29509 net.cpp:131] Top shape: 100 25 (2500)
I0428 20:00:35.914986 29509 net.cpp:139] Memory required for data: 4014800
I0428 20:00:35.914990 29509 layer_factory.hpp:77] Creating layer ip2
I0428 20:00:35.914999 29509 net.cpp:86] Creating Layer ip2
I0428 20:00:35.915004 29509 net.cpp:408] ip2 <- ip1
I0428 20:00:35.915009 29509 net.cpp:382] ip2 -> ip2
I0428 20:00:35.915127 29509 net.cpp:124] Setting up ip2
I0428 20:00:35.915134 29509 net.cpp:131] Top shape: 100 10 (1000)
I0428 20:00:35.915138 29509 net.cpp:139] Memory required for data: 4018800
I0428 20:00:35.915145 29509 layer_factory.hpp:77] Creating layer relu2
I0428 20:00:35.915150 29509 net.cpp:86] Creating Layer relu2
I0428 20:00:35.915154 29509 net.cpp:408] relu2 <- ip2
I0428 20:00:35.915159 29509 net.cpp:369] relu2 -> ip2 (in-place)
I0428 20:00:35.915361 29509 net.cpp:124] Setting up relu2
I0428 20:00:35.915371 29509 net.cpp:131] Top shape: 100 10 (1000)
I0428 20:00:35.915375 29509 net.cpp:139] Memory required for data: 4022800
I0428 20:00:35.915379 29509 layer_factory.hpp:77] Creating layer ip3
I0428 20:00:35.915387 29509 net.cpp:86] Creating Layer ip3
I0428 20:00:35.915390 29509 net.cpp:408] ip3 <- ip2
I0428 20:00:35.915397 29509 net.cpp:382] ip3 -> ip3
I0428 20:00:35.915565 29509 net.cpp:124] Setting up ip3
I0428 20:00:35.915585 29509 net.cpp:131] Top shape: 100 10 (1000)
I0428 20:00:35.915591 29509 net.cpp:139] Memory required for data: 4026800
I0428 20:00:35.915599 29509 layer_factory.hpp:77] Creating layer relu3
I0428 20:00:35.915606 29509 net.cpp:86] Creating Layer relu3
I0428 20:00:35.915609 29509 net.cpp:408] relu3 <- ip3
I0428 20:00:35.915614 29509 net.cpp:369] relu3 -> ip3 (in-place)
I0428 20:00:35.916532 29509 net.cpp:124] Setting up relu3
I0428 20:00:35.916546 29509 net.cpp:131] Top shape: 100 10 (1000)
I0428 20:00:35.916550 29509 net.cpp:139] Memory required for data: 4030800
I0428 20:00:35.916554 29509 layer_factory.hpp:77] Creating layer ip3_relu3_0_split
I0428 20:00:35.916561 29509 net.cpp:86] Creating Layer ip3_relu3_0_split
I0428 20:00:35.916565 29509 net.cpp:408] ip3_relu3_0_split <- ip3
I0428 20:00:35.916571 29509 net.cpp:382] ip3_relu3_0_split -> ip3_relu3_0_split_0
I0428 20:00:35.916579 29509 net.cpp:382] ip3_relu3_0_split -> ip3_relu3_0_split_1
I0428 20:00:35.916625 29509 net.cpp:124] Setting up ip3_relu3_0_split
I0428 20:00:35.916630 29509 net.cpp:131] Top shape: 100 10 (1000)
I0428 20:00:35.916635 29509 net.cpp:131] Top shape: 100 10 (1000)
I0428 20:00:35.916637 29509 net.cpp:139] Memory required for data: 4038800
I0428 20:00:35.916641 29509 layer_factory.hpp:77] Creating layer accuracy
I0428 20:00:35.916647 29509 net.cpp:86] Creating Layer accuracy
I0428 20:00:35.916651 29509 net.cpp:408] accuracy <- ip3_relu3_0_split_0
I0428 20:00:35.916656 29509 net.cpp:408] accuracy <- label_mnist_1_split_0
I0428 20:00:35.916661 29509 net.cpp:382] accuracy -> accuracy
…
