…
I0428 20:33:01.167101  4229 net.cpp:296] The NetState phase (0) differed from the phase (1) specified by a rule in layer mnist
I0428 20:33:01.167122  4229 net.cpp:296] The NetState phase (0) differed from the phase (1) specified by a rule in layer accuracy
I0428 20:33:01.167223  4229 net.cpp:53] Initializing net from parameters: 
name: "LeNet"
state {
  phase: TRAIN
  level: 0
  stage: ""
}
layer {
  name: "mnist"
  type: "Data"
  top: "data"
  top: "label"
  include {
    phase: TRAIN
  }
  transform_param {
    scale: 0.00390625
  }
  data_param {
    source: "examples/mnist/mnist_train_lmdb"
    batch_size: 64
    backend: LMDB
  }
}
layer {
  name: "conv0"
  type: "Convolution"
  bottom: "data"
  top: "conv0"
  param {
    lr_mult: 1
  }
  param {
    lr_mult: 2
  }
  convolution_param {
    num_output: 100
    kernel_size: 5
    stride: 1
    weight_filler {
      type: "xavier"
    }
    bias_filler {
      type: "constant"
    }
  }
}
layer {
  name: "pool0"
  type: "Pooling"
  bottom: "conv0"
  top: "pool0"
  pooling_param {
    pool: MAX
    kernel_size: 2
    stride: 2
  }
}
layer {
  name: "conv1"
  type: "Convolution"
  bottom: "pool0"
  top: "conv1"
  param {
    lr_mult: 1
  }
  param {
    lr_mult: 2
  }
  convolution_param {
    num_output: 25
    kernel_size: 5
    stride: 1
    weight_filler {
      type: "xavier"
    }
    bias_filler {
      type: "constant"
    }
  }
}
layer {
  name: "pool1"
  type: "Pooling"
  bottom: "conv1"
  top: "pool1"
  pooling_param {
    pool: MAX
    kernel_size: 2
    stride: 2
  }
}
layer {
  name: "ip1"
  type: "InnerProduct"
  bottom: "pool1"
  top: "ip1"
  param {
    lr_mult: 1
  }
  param {
    lr_mult: 2
  }
  inner_product_param {
    num_output: 25
    weight_filler {
      type: "xavier"
    }
    bias_filler {
      type: "constant"
    }
  }
}
layer {
  name: "relu1"
  type: "ReLU"
  bottom: "ip1"
  top: "ip1"
}
layer {
  name: "ip2"
  type: "InnerProduct"
  bottom: "ip1"
  top: "ip2"
  param {
    lr_mult: 1
  }
  param {
    lr_mult: 2
  }
  inner_product_param {
    num_output: 10
    weight_filler {
      type: "xavier"
    }
    bias_filler {
      type: "constant"
    }
  }
}
layer {
  name: "relu2"
  type: "ReLU"
  bottom: "ip2"
  top: "ip2"
}
layer {
  name: "ip3"
  type: "InnerProduct"
  bottom: "ip2"
  top: "ip3"
  param {
    lr_mult: 1
  }
  param {
    lr_mult: 2
  }
  inner_product_param {
    num_output: 10
    weight_filler {
      type: "xavier"
    }
    bias_filler {
      type: "constant"
    }
  }
}
layer {
  name: "relu3"
  type: "ReLU"
  bottom: "ip3"
  top: "ip3"
}
layer {
  name: "loss"
  type: "SoftmaxWithLoss"
  bottom: "ip3"
  bottom: "label"
  top: "loss"
}
I0428 20:33:01.167302  4229 layer_factory.hpp:77] Creating layer mnist
I0428 20:33:01.167397  4229 db_lmdb.cpp:35] Opened lmdb examples/mnist/mnist_train_lmdb
I0428 20:33:01.167419  4229 net.cpp:86] Creating Layer mnist
I0428 20:33:01.167428  4229 net.cpp:382] mnist -> data
I0428 20:33:01.167450  4229 net.cpp:382] mnist -> label
I0428 20:33:01.168535  4229 data_layer.cpp:45] output data size: 64,1,28,28
I0428 20:33:01.170999  4229 net.cpp:124] Setting up mnist
I0428 20:33:01.171016  4229 net.cpp:131] Top shape: 64 1 28 28 (50176)
I0428 20:33:01.171023  4229 net.cpp:131] Top shape: 64 (64)
I0428 20:33:01.171027  4229 net.cpp:139] Memory required for data: 200960
I0428 20:33:01.171035  4229 layer_factory.hpp:77] Creating layer conv0
I0428 20:33:01.171051  4229 net.cpp:86] Creating Layer conv0
I0428 20:33:01.171082  4229 net.cpp:408] conv0 <- data
I0428 20:33:01.171097  4229 net.cpp:382] conv0 -> conv0
I0428 20:33:01.448242  4229 net.cpp:124] Setting up conv0
I0428 20:33:01.448269  4229 net.cpp:131] Top shape: 64 100 24 24 (3686400)
I0428 20:33:01.448273  4229 net.cpp:139] Memory required for data: 14946560
I0428 20:33:01.448288  4229 layer_factory.hpp:77] Creating layer pool0
I0428 20:33:01.448302  4229 net.cpp:86] Creating Layer pool0
I0428 20:33:01.448305  4229 net.cpp:408] pool0 <- conv0
I0428 20:33:01.448310  4229 net.cpp:382] pool0 -> pool0
I0428 20:33:01.448354  4229 net.cpp:124] Setting up pool0
I0428 20:33:01.448360  4229 net.cpp:131] Top shape: 64 100 12 12 (921600)
I0428 20:33:01.448362  4229 net.cpp:139] Memory required for data: 18632960
I0428 20:33:01.448365  4229 layer_factory.hpp:77] Creating layer conv1
I0428 20:33:01.448376  4229 net.cpp:86] Creating Layer conv1
I0428 20:33:01.448379  4229 net.cpp:408] conv1 <- pool0
I0428 20:33:01.448384  4229 net.cpp:382] conv1 -> conv1
I0428 20:33:01.450654  4229 net.cpp:124] Setting up conv1
I0428 20:33:01.450683  4229 net.cpp:131] Top shape: 64 25 8 8 (102400)
I0428 20:33:01.450686  4229 net.cpp:139] Memory required for data: 19042560
I0428 20:33:01.450695  4229 layer_factory.hpp:77] Creating layer pool1
I0428 20:33:01.450701  4229 net.cpp:86] Creating Layer pool1
I0428 20:33:01.450706  4229 net.cpp:408] pool1 <- conv1
I0428 20:33:01.450711  4229 net.cpp:382] pool1 -> pool1
I0428 20:33:01.450762  4229 net.cpp:124] Setting up pool1
I0428 20:33:01.450767  4229 net.cpp:131] Top shape: 64 25 4 4 (25600)
I0428 20:33:01.450770  4229 net.cpp:139] Memory required for data: 19144960
I0428 20:33:01.450773  4229 layer_factory.hpp:77] Creating layer ip1
I0428 20:33:01.450780  4229 net.cpp:86] Creating Layer ip1
I0428 20:33:01.450783  4229 net.cpp:408] ip1 <- pool1
I0428 20:33:01.450788  4229 net.cpp:382] ip1 -> ip1
I0428 20:33:01.451774  4229 net.cpp:124] Setting up ip1
I0428 20:33:01.451786  4229 net.cpp:131] Top shape: 64 25 (1600)
I0428 20:33:01.451805  4229 net.cpp:139] Memory required for data: 19151360
I0428 20:33:01.451813  4229 layer_factory.hpp:77] Creating layer relu1
I0428 20:33:01.451819  4229 net.cpp:86] Creating Layer relu1
I0428 20:33:01.451823  4229 net.cpp:408] relu1 <- ip1
I0428 20:33:01.451828  4229 net.cpp:369] relu1 -> ip1 (in-place)
I0428 20:33:01.451990  4229 net.cpp:124] Setting up relu1
I0428 20:33:01.451999  4229 net.cpp:131] Top shape: 64 25 (1600)
I0428 20:33:01.452003  4229 net.cpp:139] Memory required for data: 19157760
I0428 20:33:01.452005  4229 layer_factory.hpp:77] Creating layer ip2
I0428 20:33:01.452013  4229 net.cpp:86] Creating Layer ip2
I0428 20:33:01.452015  4229 net.cpp:408] ip2 <- ip1
I0428 20:33:01.452020  4229 net.cpp:382] ip2 -> ip2
I0428 20:33:01.452126  4229 net.cpp:124] Setting up ip2
I0428 20:33:01.452133  4229 net.cpp:131] Top shape: 64 10 (640)
I0428 20:33:01.452136  4229 net.cpp:139] Memory required for data: 19160320
I0428 20:33:01.452142  4229 layer_factory.hpp:77] Creating layer relu2
I0428 20:33:01.452147  4229 net.cpp:86] Creating Layer relu2
I0428 20:33:01.452150  4229 net.cpp:408] relu2 <- ip2
I0428 20:33:01.452154  4229 net.cpp:369] relu2 -> ip2 (in-place)
I0428 20:33:01.452922  4229 net.cpp:124] Setting up relu2
I0428 20:33:01.452935  4229 net.cpp:131] Top shape: 64 10 (640)
I0428 20:33:01.452955  4229 net.cpp:139] Memory required for data: 19162880
I0428 20:33:01.452958  4229 layer_factory.hpp:77] Creating layer ip3
I0428 20:33:01.452965  4229 net.cpp:86] Creating Layer ip3
I0428 20:33:01.452970  4229 net.cpp:408] ip3 <- ip2
I0428 20:33:01.452975  4229 net.cpp:382] ip3 -> ip3
I0428 20:33:01.453086  4229 net.cpp:124] Setting up ip3
I0428 20:33:01.453095  4229 net.cpp:131] Top shape: 64 10 (640)
I0428 20:33:01.453099  4229 net.cpp:139] Memory required for data: 19165440
I0428 20:33:01.453106  4229 layer_factory.hpp:77] Creating layer relu3
I0428 20:33:01.453110  4229 net.cpp:86] Creating Layer relu3
I0428 20:33:01.453114  4229 net.cpp:408] relu3 <- ip3
I0428 20:33:01.453119  4229 net.cpp:369] relu3 -> ip3 (in-place)
I0428 20:33:01.453279  4229 net.cpp:124] Setting up relu3
I0428 20:33:01.453289  4229 net.cpp:131] Top shape: 64 10 (640)
I0428 20:33:01.453291  4229 net.cpp:139] Memory required for data: 19168000
I0428 20:33:01.453310  4229 layer_factory.hpp:77] Creating layer loss
I0428 20:33:01.453315  4229 net.cpp:86] Creating Layer loss
I0428 20:33:01.453318  4229 net.cpp:408] loss <- ip3
I0428 20:33:01.453322  4229 net.cpp:408] loss <- label
I0428 20:33:01.453327  4229 net.cpp:382] loss -> loss
I0428 20:33:01.453341  4229 layer_factory.hpp:77] Creating layer loss
…
I0428 20:33:01.454010  4229 solver.cpp:173] Creating test net (#0) specified by net file: ECE595/mnist/train_test/var_everything2/lenet_train_test1581.prototxt
I0428 20:33:01.454051  4229 net.cpp:296] The NetState phase (1) differed from the phase (0) specified by a rule in layer mnist
I0428 20:33:01.454144  4229 net.cpp:53] Initializing net from parameters: 
name: "LeNet"
state {
  phase: TEST
}
layer {
  name: "mnist"
  type: "Data"
  top: "data"
  top: "label"
  include {
    phase: TEST
  }
  transform_param {
    scale: 0.00390625
  }
  data_param {
    source: "examples/mnist/mnist_test_lmdb"
    batch_size: 100
    backend: LMDB
  }
}
layer {
  name: "conv0"
  type: "Convolution"
  bottom: "data"
  top: "conv0"
  param {
    lr_mult: 1
  }
  param {
    lr_mult: 2
  }
  convolution_param {
    num_output: 100
    kernel_size: 5
    stride: 1
    weight_filler {
      type: "xavier"
    }
    bias_filler {
      type: "constant"
    }
  }
}
layer {
  name: "pool0"
  type: "Pooling"
  bottom: "conv0"
  top: "pool0"
  pooling_param {
    pool: MAX
    kernel_size: 2
    stride: 2
  }
}
layer {
  name: "conv1"
  type: "Convolution"
  bottom: "pool0"
  top: "conv1"
  param {
    lr_mult: 1
  }
  param {
    lr_mult: 2
  }
  convolution_param {
    num_output: 25
    kernel_size: 5
    stride: 1
    weight_filler {
      type: "xavier"
    }
    bias_filler {
      type: "constant"
    }
  }
}
layer {
  name: "pool1"
  type: "Pooling"
  bottom: "conv1"
  top: "pool1"
  pooling_param {
    pool: MAX
    kernel_size: 2
    stride: 2
  }
}
layer {
  name: "ip1"
  type: "InnerProduct"
  bottom: "pool1"
  top: "ip1"
  param {
    lr_mult: 1
  }
  param {
    lr_mult: 2
  }
  inner_product_param {
    num_output: 25
    weight_filler {
      type: "xavier"
    }
    bias_filler {
      type: "constant"
    }
  }
}
layer {
  name: "relu1"
  type: "ReLU"
  bottom: "ip1"
  top: "ip1"
}
layer {
  name: "ip2"
  type: "InnerProduct"
  bottom: "ip1"
  top: "ip2"
  param {
    lr_mult: 1
  }
  param {
    lr_mult: 2
  }
  inner_product_param {
    num_output: 10
    weight_filler {
      type: "xavier"
    }
    bias_filler {
      type: "constant"
    }
  }
}
layer {
  name: "relu2"
  type: "ReLU"
  bottom: "ip2"
  top: "ip2"
}
layer {
  name: "ip3"
  type: "InnerProduct"
  bottom: "ip2"
  top: "ip3"
  param {
    lr_mult: 1
  }
  param {
    lr_mult: 2
  }
  inner_product_param {
    num_output: 10
    weight_filler {
      type: "xavier"
    }
    bias_filler {
      type: "constant"
    }
  }
}
layer {
  name: "relu3"
  type: "ReLU"
  bottom: "ip3"
  top: "ip3"
}
layer {
  name: "accuracy"
  type: "Accuracy"
  bottom: "ip3"
  bottom: "label"
  top: "accuracy"
  include {
    phase: TEST
  }
}
layer {
  name: "loss"
  type: "SoftmaxWithLoss"
  bottom: "ip3"
  bottom: "label"
  top: "loss"
}
I0428 20:33:01.454231  4229 layer_factory.hpp:77] Creating layer mnist
I0428 20:33:01.454277  4229 db_lmdb.cpp:35] Opened lmdb examples/mnist/mnist_test_lmdb
I0428 20:33:01.454288  4229 net.cpp:86] Creating Layer mnist
I0428 20:33:01.454293  4229 net.cpp:382] mnist -> data
I0428 20:33:01.454300  4229 net.cpp:382] mnist -> label
I0428 20:33:01.454396  4229 data_layer.cpp:45] output data size: 100,1,28,28
I0428 20:33:01.456408  4229 net.cpp:124] Setting up mnist
I0428 20:33:01.456436  4229 net.cpp:131] Top shape: 100 1 28 28 (78400)
I0428 20:33:01.456441  4229 net.cpp:131] Top shape: 100 (100)
I0428 20:33:01.456444  4229 net.cpp:139] Memory required for data: 314000
I0428 20:33:01.456449  4229 layer_factory.hpp:77] Creating layer label_mnist_1_split
I0428 20:33:01.456454  4229 net.cpp:86] Creating Layer label_mnist_1_split
I0428 20:33:01.456459  4229 net.cpp:408] label_mnist_1_split <- label
I0428 20:33:01.456462  4229 net.cpp:382] label_mnist_1_split -> label_mnist_1_split_0
I0428 20:33:01.456468  4229 net.cpp:382] label_mnist_1_split -> label_mnist_1_split_1
I0428 20:33:01.456503  4229 net.cpp:124] Setting up label_mnist_1_split
I0428 20:33:01.456509  4229 net.cpp:131] Top shape: 100 (100)
I0428 20:33:01.456512  4229 net.cpp:131] Top shape: 100 (100)
I0428 20:33:01.456516  4229 net.cpp:139] Memory required for data: 314800
I0428 20:33:01.456518  4229 layer_factory.hpp:77] Creating layer conv0
I0428 20:33:01.456526  4229 net.cpp:86] Creating Layer conv0
I0428 20:33:01.456529  4229 net.cpp:408] conv0 <- data
I0428 20:33:01.456533  4229 net.cpp:382] conv0 -> conv0
I0428 20:33:01.458317  4229 net.cpp:124] Setting up conv0
I0428 20:33:01.458331  4229 net.cpp:131] Top shape: 100 100 24 24 (5760000)
I0428 20:33:01.458335  4229 net.cpp:139] Memory required for data: 23354800
I0428 20:33:01.458344  4229 layer_factory.hpp:77] Creating layer pool0
I0428 20:33:01.458350  4229 net.cpp:86] Creating Layer pool0
I0428 20:33:01.458353  4229 net.cpp:408] pool0 <- conv0
I0428 20:33:01.458359  4229 net.cpp:382] pool0 -> pool0
I0428 20:33:01.458392  4229 net.cpp:124] Setting up pool0
I0428 20:33:01.458398  4229 net.cpp:131] Top shape: 100 100 12 12 (1440000)
I0428 20:33:01.458401  4229 net.cpp:139] Memory required for data: 29114800
I0428 20:33:01.458403  4229 layer_factory.hpp:77] Creating layer conv1
I0428 20:33:01.458412  4229 net.cpp:86] Creating Layer conv1
I0428 20:33:01.458415  4229 net.cpp:408] conv1 <- pool0
I0428 20:33:01.458420  4229 net.cpp:382] conv1 -> conv1
I0428 20:33:01.460330  4229 net.cpp:124] Setting up conv1
I0428 20:33:01.460343  4229 net.cpp:131] Top shape: 100 25 8 8 (160000)
I0428 20:33:01.460347  4229 net.cpp:139] Memory required for data: 29754800
I0428 20:33:01.460355  4229 layer_factory.hpp:77] Creating layer pool1
I0428 20:33:01.460362  4229 net.cpp:86] Creating Layer pool1
I0428 20:33:01.460366  4229 net.cpp:408] pool1 <- conv1
I0428 20:33:01.460371  4229 net.cpp:382] pool1 -> pool1
I0428 20:33:01.460407  4229 net.cpp:124] Setting up pool1
I0428 20:33:01.460412  4229 net.cpp:131] Top shape: 100 25 4 4 (40000)
I0428 20:33:01.460415  4229 net.cpp:139] Memory required for data: 29914800
I0428 20:33:01.460418  4229 layer_factory.hpp:77] Creating layer ip1
I0428 20:33:01.460424  4229 net.cpp:86] Creating Layer ip1
I0428 20:33:01.460427  4229 net.cpp:408] ip1 <- pool1
I0428 20:33:01.460443  4229 net.cpp:382] ip1 -> ip1
I0428 20:33:01.460602  4229 net.cpp:124] Setting up ip1
I0428 20:33:01.460621  4229 net.cpp:131] Top shape: 100 25 (2500)
I0428 20:33:01.460624  4229 net.cpp:139] Memory required for data: 29924800
I0428 20:33:01.460633  4229 layer_factory.hpp:77] Creating layer relu1
I0428 20:33:01.460636  4229 net.cpp:86] Creating Layer relu1
I0428 20:33:01.460639  4229 net.cpp:408] relu1 <- ip1
I0428 20:33:01.460644  4229 net.cpp:369] relu1 -> ip1 (in-place)
I0428 20:33:01.460804  4229 net.cpp:124] Setting up relu1
I0428 20:33:01.460819  4229 net.cpp:131] Top shape: 100 25 (2500)
I0428 20:33:01.460822  4229 net.cpp:139] Memory required for data: 29934800
I0428 20:33:01.460826  4229 layer_factory.hpp:77] Creating layer ip2
I0428 20:33:01.460834  4229 net.cpp:86] Creating Layer ip2
I0428 20:33:01.460836  4229 net.cpp:408] ip2 <- ip1
I0428 20:33:01.460841  4229 net.cpp:382] ip2 -> ip2
I0428 20:33:01.460949  4229 net.cpp:124] Setting up ip2
I0428 20:33:01.460958  4229 net.cpp:131] Top shape: 100 10 (1000)
I0428 20:33:01.460960  4229 net.cpp:139] Memory required for data: 29938800
I0428 20:33:01.460965  4229 layer_factory.hpp:77] Creating layer relu2
I0428 20:33:01.460970  4229 net.cpp:86] Creating Layer relu2
I0428 20:33:01.460973  4229 net.cpp:408] relu2 <- ip2
I0428 20:33:01.460978  4229 net.cpp:369] relu2 -> ip2 (in-place)
I0428 20:33:01.461174  4229 net.cpp:124] Setting up relu2
I0428 20:33:01.461182  4229 net.cpp:131] Top shape: 100 10 (1000)
I0428 20:33:01.461185  4229 net.cpp:139] Memory required for data: 29942800
I0428 20:33:01.461189  4229 layer_factory.hpp:77] Creating layer ip3
I0428 20:33:01.461194  4229 net.cpp:86] Creating Layer ip3
I0428 20:33:01.461197  4229 net.cpp:408] ip3 <- ip2
I0428 20:33:01.461202  4229 net.cpp:382] ip3 -> ip3
I0428 20:33:01.461339  4229 net.cpp:124] Setting up ip3
I0428 20:33:01.461347  4229 net.cpp:131] Top shape: 100 10 (1000)
I0428 20:33:01.461350  4229 net.cpp:139] Memory required for data: 29946800
I0428 20:33:01.461359  4229 layer_factory.hpp:77] Creating layer relu3
I0428 20:33:01.461362  4229 net.cpp:86] Creating Layer relu3
I0428 20:33:01.461365  4229 net.cpp:408] relu3 <- ip3
I0428 20:33:01.461371  4229 net.cpp:369] relu3 -> ip3 (in-place)
I0428 20:33:01.462180  4229 net.cpp:124] Setting up relu3
I0428 20:33:01.462193  4229 net.cpp:131] Top shape: 100 10 (1000)
I0428 20:33:01.462196  4229 net.cpp:139] Memory required for data: 29950800
I0428 20:33:01.462200  4229 layer_factory.hpp:77] Creating layer ip3_relu3_0_split
I0428 20:33:01.462211  4229 net.cpp:86] Creating Layer ip3_relu3_0_split
I0428 20:33:01.462215  4229 net.cpp:408] ip3_relu3_0_split <- ip3
I0428 20:33:01.462227  4229 net.cpp:382] ip3_relu3_0_split -> ip3_relu3_0_split_0
I0428 20:33:01.462234  4229 net.cpp:382] ip3_relu3_0_split -> ip3_relu3_0_split_1
I0428 20:33:01.462271  4229 net.cpp:124] Setting up ip3_relu3_0_split
I0428 20:33:01.462277  4229 net.cpp:131] Top shape: 100 10 (1000)
I0428 20:33:01.462281  4229 net.cpp:131] Top shape: 100 10 (1000)
I0428 20:33:01.462285  4229 net.cpp:139] Memory required for data: 29958800
I0428 20:33:01.462287  4229 layer_factory.hpp:77] Creating layer accuracy
I0428 20:33:01.462293  4229 net.cpp:86] Creating Layer accuracy
I0428 20:33:01.462296  4229 net.cpp:408] accuracy <- ip3_relu3_0_split_0
I0428 20:33:01.462301  4229 net.cpp:408] accuracy <- label_mnist_1_split_0
I0428 20:33:01.462306  4229 net.cpp:382] accuracy -> accuracy
…
