…
I0428 20:23:26.683501  2237 net.cpp:296] The NetState phase (0) differed from the phase (1) specified by a rule in layer mnist
I0428 20:23:26.683532  2237 net.cpp:296] The NetState phase (0) differed from the phase (1) specified by a rule in layer accuracy
I0428 20:23:26.683614  2237 net.cpp:53] Initializing net from parameters: 
name: "LeNet"
state {
  phase: TRAIN
  level: 0
  stage: ""
}
layer {
  name: "mnist"
  type: "Data"
  top: "data"
  top: "label"
  include {
    phase: TRAIN
  }
  transform_param {
    scale: 0.00390625
  }
  data_param {
    source: "examples/mnist/mnist_train_lmdb"
    batch_size: 64
    backend: LMDB
  }
}
layer {
  name: "conv0"
  type: "Convolution"
  bottom: "data"
  top: "conv0"
  param {
    lr_mult: 1
  }
  param {
    lr_mult: 2
  }
  convolution_param {
    num_output: 50
    kernel_size: 5
    stride: 1
    weight_filler {
      type: "xavier"
    }
    bias_filler {
      type: "constant"
    }
  }
}
layer {
  name: "pool0"
  type: "Pooling"
  bottom: "conv0"
  top: "pool0"
  pooling_param {
    pool: MAX
    kernel_size: 2
    stride: 2
  }
}
layer {
  name: "conv1"
  type: "Convolution"
  bottom: "pool0"
  top: "conv1"
  param {
    lr_mult: 1
  }
  param {
    lr_mult: 2
  }
  convolution_param {
    num_output: 100
    kernel_size: 5
    stride: 1
    weight_filler {
      type: "xavier"
    }
    bias_filler {
      type: "constant"
    }
  }
}
layer {
  name: "pool1"
  type: "Pooling"
  bottom: "conv1"
  top: "pool1"
  pooling_param {
    pool: MAX
    kernel_size: 2
    stride: 2
  }
}
layer {
  name: "ip1"
  type: "InnerProduct"
  bottom: "pool1"
  top: "ip1"
  param {
    lr_mult: 1
  }
  param {
    lr_mult: 2
  }
  inner_product_param {
    num_output: 10
    weight_filler {
      type: "xavier"
    }
    bias_filler {
      type: "constant"
    }
  }
}
layer {
  name: "relu1"
  type: "ReLU"
  bottom: "ip1"
  top: "ip1"
}
layer {
  name: "ip2"
  type: "InnerProduct"
  bottom: "ip1"
  top: "ip2"
  param {
    lr_mult: 1
  }
  param {
    lr_mult: 2
  }
  inner_product_param {
    num_output: 25
    weight_filler {
      type: "xavier"
    }
    bias_filler {
      type: "constant"
    }
  }
}
layer {
  name: "relu2"
  type: "ReLU"
  bottom: "ip2"
  top: "ip2"
}
layer {
  name: "ip3"
  type: "InnerProduct"
  bottom: "ip2"
  top: "ip3"
  param {
    lr_mult: 1
  }
  param {
    lr_mult: 2
  }
  inner_product_param {
    num_output: 10
    weight_filler {
      type: "xavier"
    }
    bias_filler {
      type: "constant"
    }
  }
}
layer {
  name: "relu3"
  type: "ReLU"
  bottom: "ip3"
  top: "ip3"
}
layer {
  name: "loss"
  type: "SoftmaxWithLoss"
  bottom: "ip3"
  bottom: "label"
  top: "loss"
}
I0428 20:23:26.683679  2237 layer_factory.hpp:77] Creating layer mnist
I0428 20:23:26.683763  2237 db_lmdb.cpp:35] Opened lmdb examples/mnist/mnist_train_lmdb
I0428 20:23:26.683781  2237 net.cpp:86] Creating Layer mnist
I0428 20:23:26.683789  2237 net.cpp:382] mnist -> data
I0428 20:23:26.683806  2237 net.cpp:382] mnist -> label
I0428 20:23:26.684850  2237 data_layer.cpp:45] output data size: 64,1,28,28
I0428 20:23:26.687124  2237 net.cpp:124] Setting up mnist
I0428 20:23:26.687155  2237 net.cpp:131] Top shape: 64 1 28 28 (50176)
I0428 20:23:26.687160  2237 net.cpp:131] Top shape: 64 (64)
I0428 20:23:26.687163  2237 net.cpp:139] Memory required for data: 200960
I0428 20:23:26.687170  2237 layer_factory.hpp:77] Creating layer conv0
I0428 20:23:26.687183  2237 net.cpp:86] Creating Layer conv0
I0428 20:23:26.687201  2237 net.cpp:408] conv0 <- data
I0428 20:23:26.687212  2237 net.cpp:382] conv0 -> conv0
I0428 20:23:26.917968  2237 net.cpp:124] Setting up conv0
I0428 20:23:26.918009  2237 net.cpp:131] Top shape: 64 50 24 24 (1843200)
I0428 20:23:26.918014  2237 net.cpp:139] Memory required for data: 7573760
I0428 20:23:26.918028  2237 layer_factory.hpp:77] Creating layer pool0
I0428 20:23:26.918056  2237 net.cpp:86] Creating Layer pool0
I0428 20:23:26.918061  2237 net.cpp:408] pool0 <- conv0
I0428 20:23:26.918066  2237 net.cpp:382] pool0 -> pool0
I0428 20:23:26.918110  2237 net.cpp:124] Setting up pool0
I0428 20:23:26.918118  2237 net.cpp:131] Top shape: 64 50 12 12 (460800)
I0428 20:23:26.918121  2237 net.cpp:139] Memory required for data: 9416960
I0428 20:23:26.918123  2237 layer_factory.hpp:77] Creating layer conv1
I0428 20:23:26.918134  2237 net.cpp:86] Creating Layer conv1
I0428 20:23:26.918138  2237 net.cpp:408] conv1 <- pool0
I0428 20:23:26.918143  2237 net.cpp:382] conv1 -> conv1
I0428 20:23:26.921672  2237 net.cpp:124] Setting up conv1
I0428 20:23:26.921702  2237 net.cpp:131] Top shape: 64 100 8 8 (409600)
I0428 20:23:26.921706  2237 net.cpp:139] Memory required for data: 11055360
I0428 20:23:26.921715  2237 layer_factory.hpp:77] Creating layer pool1
I0428 20:23:26.921722  2237 net.cpp:86] Creating Layer pool1
I0428 20:23:26.921725  2237 net.cpp:408] pool1 <- conv1
I0428 20:23:26.921746  2237 net.cpp:382] pool1 -> pool1
I0428 20:23:26.921782  2237 net.cpp:124] Setting up pool1
I0428 20:23:26.921788  2237 net.cpp:131] Top shape: 64 100 4 4 (102400)
I0428 20:23:26.921792  2237 net.cpp:139] Memory required for data: 11464960
I0428 20:23:26.921794  2237 layer_factory.hpp:77] Creating layer ip1
I0428 20:23:26.921802  2237 net.cpp:86] Creating Layer ip1
I0428 20:23:26.921803  2237 net.cpp:408] ip1 <- pool1
I0428 20:23:26.921808  2237 net.cpp:382] ip1 -> ip1
I0428 20:23:26.922821  2237 net.cpp:124] Setting up ip1
I0428 20:23:26.922848  2237 net.cpp:131] Top shape: 64 10 (640)
I0428 20:23:26.922852  2237 net.cpp:139] Memory required for data: 11467520
I0428 20:23:26.922860  2237 layer_factory.hpp:77] Creating layer relu1
I0428 20:23:26.922868  2237 net.cpp:86] Creating Layer relu1
I0428 20:23:26.922870  2237 net.cpp:408] relu1 <- ip1
I0428 20:23:26.922875  2237 net.cpp:369] relu1 -> ip1 (in-place)
I0428 20:23:26.923048  2237 net.cpp:124] Setting up relu1
I0428 20:23:26.923056  2237 net.cpp:131] Top shape: 64 10 (640)
I0428 20:23:26.923059  2237 net.cpp:139] Memory required for data: 11470080
I0428 20:23:26.923077  2237 layer_factory.hpp:77] Creating layer ip2
I0428 20:23:26.923084  2237 net.cpp:86] Creating Layer ip2
I0428 20:23:26.923087  2237 net.cpp:408] ip2 <- ip1
I0428 20:23:26.923091  2237 net.cpp:382] ip2 -> ip2
I0428 20:23:26.923200  2237 net.cpp:124] Setting up ip2
I0428 20:23:26.923207  2237 net.cpp:131] Top shape: 64 25 (1600)
I0428 20:23:26.923210  2237 net.cpp:139] Memory required for data: 11476480
I0428 20:23:26.923215  2237 layer_factory.hpp:77] Creating layer relu2
I0428 20:23:26.923221  2237 net.cpp:86] Creating Layer relu2
I0428 20:23:26.923224  2237 net.cpp:408] relu2 <- ip2
I0428 20:23:26.923228  2237 net.cpp:369] relu2 -> ip2 (in-place)
I0428 20:23:26.923979  2237 net.cpp:124] Setting up relu2
I0428 20:23:26.923992  2237 net.cpp:131] Top shape: 64 25 (1600)
I0428 20:23:26.923996  2237 net.cpp:139] Memory required for data: 11482880
I0428 20:23:26.924000  2237 layer_factory.hpp:77] Creating layer ip3
I0428 20:23:26.924007  2237 net.cpp:86] Creating Layer ip3
I0428 20:23:26.924010  2237 net.cpp:408] ip3 <- ip2
I0428 20:23:26.924016  2237 net.cpp:382] ip3 -> ip3
I0428 20:23:26.924118  2237 net.cpp:124] Setting up ip3
I0428 20:23:26.924125  2237 net.cpp:131] Top shape: 64 10 (640)
I0428 20:23:26.924129  2237 net.cpp:139] Memory required for data: 11485440
I0428 20:23:26.924137  2237 layer_factory.hpp:77] Creating layer relu3
I0428 20:23:26.924142  2237 net.cpp:86] Creating Layer relu3
I0428 20:23:26.924145  2237 net.cpp:408] relu3 <- ip3
I0428 20:23:26.924166  2237 net.cpp:369] relu3 -> ip3 (in-place)
I0428 20:23:26.924346  2237 net.cpp:124] Setting up relu3
I0428 20:23:26.924355  2237 net.cpp:131] Top shape: 64 10 (640)
I0428 20:23:26.924357  2237 net.cpp:139] Memory required for data: 11488000
I0428 20:23:26.924360  2237 layer_factory.hpp:77] Creating layer loss
I0428 20:23:26.924365  2237 net.cpp:86] Creating Layer loss
I0428 20:23:26.924368  2237 net.cpp:408] loss <- ip3
I0428 20:23:26.924371  2237 net.cpp:408] loss <- label
I0428 20:23:26.924378  2237 net.cpp:382] loss -> loss
I0428 20:23:26.924394  2237 layer_factory.hpp:77] Creating layer loss
…
I0428 20:23:26.925127  2237 solver.cpp:173] Creating test net (#0) specified by net file: ECE595/mnist/train_test/var_everything2/lenet_train_test1421.prototxt
I0428 20:23:26.925170  2237 net.cpp:296] The NetState phase (1) differed from the phase (0) specified by a rule in layer mnist
I0428 20:23:26.925312  2237 net.cpp:53] Initializing net from parameters: 
name: "LeNet"
state {
  phase: TEST
}
layer {
  name: "mnist"
  type: "Data"
  top: "data"
  top: "label"
  include {
    phase: TEST
  }
  transform_param {
    scale: 0.00390625
  }
  data_param {
    source: "examples/mnist/mnist_test_lmdb"
    batch_size: 100
    backend: LMDB
  }
}
layer {
  name: "conv0"
  type: "Convolution"
  bottom: "data"
  top: "conv0"
  param {
    lr_mult: 1
  }
  param {
    lr_mult: 2
  }
  convolution_param {
    num_output: 50
    kernel_size: 5
    stride: 1
    weight_filler {
      type: "xavier"
    }
    bias_filler {
      type: "constant"
    }
  }
}
layer {
  name: "pool0"
  type: "Pooling"
  bottom: "conv0"
  top: "pool0"
  pooling_param {
    pool: MAX
    kernel_size: 2
    stride: 2
  }
}
layer {
  name: "conv1"
  type: "Convolution"
  bottom: "pool0"
  top: "conv1"
  param {
    lr_mult: 1
  }
  param {
    lr_mult: 2
  }
  convolution_param {
    num_output: 100
    kernel_size: 5
    stride: 1
    weight_filler {
      type: "xavier"
    }
    bias_filler {
      type: "constant"
    }
  }
}
layer {
  name: "pool1"
  type: "Pooling"
  bottom: "conv1"
  top: "pool1"
  pooling_param {
    pool: MAX
    kernel_size: 2
    stride: 2
  }
}
layer {
  name: "ip1"
  type: "InnerProduct"
  bottom: "pool1"
  top: "ip1"
  param {
    lr_mult: 1
  }
  param {
    lr_mult: 2
  }
  inner_product_param {
    num_output: 10
    weight_filler {
      type: "xavier"
    }
    bias_filler {
      type: "constant"
    }
  }
}
layer {
  name: "relu1"
  type: "ReLU"
  bottom: "ip1"
  top: "ip1"
}
layer {
  name: "ip2"
  type: "InnerProduct"
  bottom: "ip1"
  top: "ip2"
  param {
    lr_mult: 1
  }
  param {
    lr_mult: 2
  }
  inner_product_param {
    num_output: 25
    weight_filler {
      type: "xavier"
    }
    bias_filler {
      type: "constant"
    }
  }
}
layer {
  name: "relu2"
  type: "ReLU"
  bottom: "ip2"
  top: "ip2"
}
layer {
  name: "ip3"
  type: "InnerProduct"
  bottom: "ip2"
  top: "ip3"
  param {
    lr_mult: 1
  }
  param {
    lr_mult: 2
  }
  inner_product_param {
    num_output: 10
    weight_filler {
      type: "xavier"
    }
    bias_filler {
      type: "constant"
    }
  }
}
layer {
  name: "relu3"
  type: "ReLU"
  bottom: "ip3"
  top: "ip3"
}
layer {
  name: "accuracy"
  type: "Accuracy"
  bottom: "ip3"
  bottom: "label"
  top: "accuracy"
  include {
    phase: TEST
  }
}
layer {
  name: "loss"
  type: "SoftmaxWithLoss"
  bottom: "ip3"
  bottom: "label"
  top: "loss"
}
I0428 20:23:26.925391  2237 layer_factory.hpp:77] Creating layer mnist
I0428 20:23:26.925433  2237 db_lmdb.cpp:35] Opened lmdb examples/mnist/mnist_test_lmdb
I0428 20:23:26.925447  2237 net.cpp:86] Creating Layer mnist
I0428 20:23:26.925451  2237 net.cpp:382] mnist -> data
I0428 20:23:26.925458  2237 net.cpp:382] mnist -> label
I0428 20:23:26.925544  2237 data_layer.cpp:45] output data size: 100,1,28,28
I0428 20:23:26.926887  2237 net.cpp:124] Setting up mnist
I0428 20:23:26.926930  2237 net.cpp:131] Top shape: 100 1 28 28 (78400)
I0428 20:23:26.926935  2237 net.cpp:131] Top shape: 100 (100)
I0428 20:23:26.926937  2237 net.cpp:139] Memory required for data: 314000
I0428 20:23:26.926941  2237 layer_factory.hpp:77] Creating layer label_mnist_1_split
I0428 20:23:26.926949  2237 net.cpp:86] Creating Layer label_mnist_1_split
I0428 20:23:26.926952  2237 net.cpp:408] label_mnist_1_split <- label
I0428 20:23:26.926957  2237 net.cpp:382] label_mnist_1_split -> label_mnist_1_split_0
I0428 20:23:26.926964  2237 net.cpp:382] label_mnist_1_split -> label_mnist_1_split_1
I0428 20:23:26.927075  2237 net.cpp:124] Setting up label_mnist_1_split
I0428 20:23:26.927083  2237 net.cpp:131] Top shape: 100 (100)
I0428 20:23:26.927085  2237 net.cpp:131] Top shape: 100 (100)
I0428 20:23:26.927088  2237 net.cpp:139] Memory required for data: 314800
I0428 20:23:26.927091  2237 layer_factory.hpp:77] Creating layer conv0
I0428 20:23:26.927100  2237 net.cpp:86] Creating Layer conv0
I0428 20:23:26.927103  2237 net.cpp:408] conv0 <- data
I0428 20:23:26.927109  2237 net.cpp:382] conv0 -> conv0
I0428 20:23:26.928941  2237 net.cpp:124] Setting up conv0
I0428 20:23:26.928970  2237 net.cpp:131] Top shape: 100 50 24 24 (2880000)
I0428 20:23:26.928975  2237 net.cpp:139] Memory required for data: 11834800
I0428 20:23:26.928984  2237 layer_factory.hpp:77] Creating layer pool0
I0428 20:23:26.928990  2237 net.cpp:86] Creating Layer pool0
I0428 20:23:26.928993  2237 net.cpp:408] pool0 <- conv0
I0428 20:23:26.929013  2237 net.cpp:382] pool0 -> pool0
I0428 20:23:26.929052  2237 net.cpp:124] Setting up pool0
I0428 20:23:26.929059  2237 net.cpp:131] Top shape: 100 50 12 12 (720000)
I0428 20:23:26.929062  2237 net.cpp:139] Memory required for data: 14714800
I0428 20:23:26.929064  2237 layer_factory.hpp:77] Creating layer conv1
I0428 20:23:26.929074  2237 net.cpp:86] Creating Layer conv1
I0428 20:23:26.929076  2237 net.cpp:408] conv1 <- pool0
I0428 20:23:26.929082  2237 net.cpp:382] conv1 -> conv1
I0428 20:23:26.932265  2237 net.cpp:124] Setting up conv1
I0428 20:23:26.932276  2237 net.cpp:131] Top shape: 100 100 8 8 (640000)
I0428 20:23:26.932296  2237 net.cpp:139] Memory required for data: 17274800
I0428 20:23:26.932303  2237 layer_factory.hpp:77] Creating layer pool1
I0428 20:23:26.932309  2237 net.cpp:86] Creating Layer pool1
I0428 20:23:26.932312  2237 net.cpp:408] pool1 <- conv1
I0428 20:23:26.932333  2237 net.cpp:382] pool1 -> pool1
I0428 20:23:26.932368  2237 net.cpp:124] Setting up pool1
I0428 20:23:26.932376  2237 net.cpp:131] Top shape: 100 100 4 4 (160000)
I0428 20:23:26.932379  2237 net.cpp:139] Memory required for data: 17914800
I0428 20:23:26.932381  2237 layer_factory.hpp:77] Creating layer ip1
I0428 20:23:26.932390  2237 net.cpp:86] Creating Layer ip1
I0428 20:23:26.932394  2237 net.cpp:408] ip1 <- pool1
I0428 20:23:26.932399  2237 net.cpp:382] ip1 -> ip1
I0428 20:23:26.932577  2237 net.cpp:124] Setting up ip1
I0428 20:23:26.932595  2237 net.cpp:131] Top shape: 100 10 (1000)
I0428 20:23:26.932598  2237 net.cpp:139] Memory required for data: 17918800
I0428 20:23:26.932605  2237 layer_factory.hpp:77] Creating layer relu1
I0428 20:23:26.932610  2237 net.cpp:86] Creating Layer relu1
I0428 20:23:26.932613  2237 net.cpp:408] relu1 <- ip1
I0428 20:23:26.932617  2237 net.cpp:369] relu1 -> ip1 (in-place)
I0428 20:23:26.932796  2237 net.cpp:124] Setting up relu1
I0428 20:23:26.932804  2237 net.cpp:131] Top shape: 100 10 (1000)
I0428 20:23:26.932807  2237 net.cpp:139] Memory required for data: 17922800
I0428 20:23:26.932832  2237 layer_factory.hpp:77] Creating layer ip2
I0428 20:23:26.932839  2237 net.cpp:86] Creating Layer ip2
I0428 20:23:26.932842  2237 net.cpp:408] ip2 <- ip1
I0428 20:23:26.932848  2237 net.cpp:382] ip2 -> ip2
I0428 20:23:26.932973  2237 net.cpp:124] Setting up ip2
I0428 20:23:26.932981  2237 net.cpp:131] Top shape: 100 25 (2500)
I0428 20:23:26.932983  2237 net.cpp:139] Memory required for data: 17932800
I0428 20:23:26.932988  2237 layer_factory.hpp:77] Creating layer relu2
I0428 20:23:26.932993  2237 net.cpp:86] Creating Layer relu2
I0428 20:23:26.932997  2237 net.cpp:408] relu2 <- ip2
I0428 20:23:26.933002  2237 net.cpp:369] relu2 -> ip2 (in-place)
I0428 20:23:26.933202  2237 net.cpp:124] Setting up relu2
I0428 20:23:26.933210  2237 net.cpp:131] Top shape: 100 25 (2500)
I0428 20:23:26.933213  2237 net.cpp:139] Memory required for data: 17942800
I0428 20:23:26.933217  2237 layer_factory.hpp:77] Creating layer ip3
I0428 20:23:26.933223  2237 net.cpp:86] Creating Layer ip3
I0428 20:23:26.933225  2237 net.cpp:408] ip3 <- ip2
I0428 20:23:26.933230  2237 net.cpp:382] ip3 -> ip3
I0428 20:23:26.933400  2237 net.cpp:124] Setting up ip3
I0428 20:23:26.933408  2237 net.cpp:131] Top shape: 100 10 (1000)
I0428 20:23:26.933410  2237 net.cpp:139] Memory required for data: 17946800
I0428 20:23:26.933434  2237 layer_factory.hpp:77] Creating layer relu3
I0428 20:23:26.933440  2237 net.cpp:86] Creating Layer relu3
I0428 20:23:26.933444  2237 net.cpp:408] relu3 <- ip3
I0428 20:23:26.933449  2237 net.cpp:369] relu3 -> ip3 (in-place)
I0428 20:23:26.934286  2237 net.cpp:124] Setting up relu3
I0428 20:23:26.934298  2237 net.cpp:131] Top shape: 100 10 (1000)
I0428 20:23:26.934301  2237 net.cpp:139] Memory required for data: 17950800
I0428 20:23:26.934305  2237 layer_factory.hpp:77] Creating layer ip3_relu3_0_split
I0428 20:23:26.934311  2237 net.cpp:86] Creating Layer ip3_relu3_0_split
I0428 20:23:26.934314  2237 net.cpp:408] ip3_relu3_0_split <- ip3
I0428 20:23:26.934319  2237 net.cpp:382] ip3_relu3_0_split -> ip3_relu3_0_split_0
I0428 20:23:26.934325  2237 net.cpp:382] ip3_relu3_0_split -> ip3_relu3_0_split_1
I0428 20:23:26.934366  2237 net.cpp:124] Setting up ip3_relu3_0_split
I0428 20:23:26.934373  2237 net.cpp:131] Top shape: 100 10 (1000)
I0428 20:23:26.934377  2237 net.cpp:131] Top shape: 100 10 (1000)
I0428 20:23:26.934379  2237 net.cpp:139] Memory required for data: 17958800
I0428 20:23:26.934382  2237 layer_factory.hpp:77] Creating layer accuracy
I0428 20:23:26.934387  2237 net.cpp:86] Creating Layer accuracy
I0428 20:23:26.934391  2237 net.cpp:408] accuracy <- ip3_relu3_0_split_0
I0428 20:23:26.934394  2237 net.cpp:408] accuracy <- label_mnist_1_split_0
I0428 20:23:26.934399  2237 net.cpp:382] accuracy -> accuracy
…
