…
I0428 19:49:51.694553 26870 net.cpp:296] The NetState phase (0) differed from the phase (1) specified by a rule in layer mnist
I0428 19:49:51.694571 26870 net.cpp:296] The NetState phase (0) differed from the phase (1) specified by a rule in layer accuracy
I0428 19:49:51.694653 26870 net.cpp:53] Initializing net from parameters: 
name: "LeNet"
state {
  phase: TRAIN
  level: 0
  stage: ""
}
layer {
  name: "mnist"
  type: "Data"
  top: "data"
  top: "label"
  include {
    phase: TRAIN
  }
  transform_param {
    scale: 0.00390625
  }
  data_param {
    source: "examples/mnist/mnist_train_lmdb"
    batch_size: 64
    backend: LMDB
  }
}
layer {
  name: "conv0"
  type: "Convolution"
  bottom: "data"
  top: "conv0"
  param {
    lr_mult: 1
  }
  param {
    lr_mult: 2
  }
  convolution_param {
    num_output: 5
    kernel_size: 5
    stride: 1
    weight_filler {
      type: "xavier"
    }
    bias_filler {
      type: "constant"
    }
  }
}
layer {
  name: "pool0"
  type: "Pooling"
  bottom: "conv0"
  top: "pool0"
  pooling_param {
    pool: MAX
    kernel_size: 2
    stride: 2
  }
}
layer {
  name: "conv1"
  type: "Convolution"
  bottom: "pool0"
  top: "conv1"
  param {
    lr_mult: 1
  }
  param {
    lr_mult: 2
  }
  convolution_param {
    num_output: 10
    kernel_size: 5
    stride: 1
    weight_filler {
      type: "xavier"
    }
    bias_filler {
      type: "constant"
    }
  }
}
layer {
  name: "pool1"
  type: "Pooling"
  bottom: "conv1"
  top: "pool1"
  pooling_param {
    pool: MAX
    kernel_size: 2
    stride: 2
  }
}
layer {
  name: "ip1"
  type: "InnerProduct"
  bottom: "pool1"
  top: "ip1"
  param {
    lr_mult: 1
  }
  param {
    lr_mult: 2
  }
  inner_product_param {
    num_output: 10
    weight_filler {
      type: "xavier"
    }
    bias_filler {
      type: "constant"
    }
  }
}
layer {
  name: "relu1"
  type: "ReLU"
  bottom: "ip1"
  top: "ip1"
}
layer {
  name: "loss"
  type: "SoftmaxWithLoss"
  bottom: "ip1"
  bottom: "label"
  top: "loss"
}
I0428 19:49:51.694721 26870 layer_factory.hpp:77] Creating layer mnist
I0428 19:49:51.694818 26870 db_lmdb.cpp:35] Opened lmdb examples/mnist/mnist_train_lmdb
I0428 19:49:51.694842 26870 net.cpp:86] Creating Layer mnist
I0428 19:49:51.694850 26870 net.cpp:382] mnist -> data
I0428 19:49:51.694871 26870 net.cpp:382] mnist -> label
I0428 19:49:51.695974 26870 data_layer.cpp:45] output data size: 64,1,28,28
I0428 19:49:51.698441 26870 net.cpp:124] Setting up mnist
I0428 19:49:51.698459 26870 net.cpp:131] Top shape: 64 1 28 28 (50176)
I0428 19:49:51.698465 26870 net.cpp:131] Top shape: 64 (64)
I0428 19:49:51.698469 26870 net.cpp:139] Memory required for data: 200960
I0428 19:49:51.698477 26870 layer_factory.hpp:77] Creating layer conv0
I0428 19:49:51.698529 26870 net.cpp:86] Creating Layer conv0
I0428 19:49:51.698536 26870 net.cpp:408] conv0 <- data
I0428 19:49:51.698549 26870 net.cpp:382] conv0 -> conv0
I0428 19:49:51.958781 26870 net.cpp:124] Setting up conv0
I0428 19:49:51.958808 26870 net.cpp:131] Top shape: 64 5 24 24 (184320)
I0428 19:49:51.958812 26870 net.cpp:139] Memory required for data: 938240
I0428 19:49:51.958825 26870 layer_factory.hpp:77] Creating layer pool0
I0428 19:49:51.958838 26870 net.cpp:86] Creating Layer pool0
I0428 19:49:51.958842 26870 net.cpp:408] pool0 <- conv0
I0428 19:49:51.958847 26870 net.cpp:382] pool0 -> pool0
I0428 19:49:51.958921 26870 net.cpp:124] Setting up pool0
I0428 19:49:51.958927 26870 net.cpp:131] Top shape: 64 5 12 12 (46080)
I0428 19:49:51.958945 26870 net.cpp:139] Memory required for data: 1122560
I0428 19:49:51.958948 26870 layer_factory.hpp:77] Creating layer conv1
I0428 19:49:51.958959 26870 net.cpp:86] Creating Layer conv1
I0428 19:49:51.958962 26870 net.cpp:408] conv1 <- pool0
I0428 19:49:51.958967 26870 net.cpp:382] conv1 -> conv1
I0428 19:49:51.961733 26870 net.cpp:124] Setting up conv1
I0428 19:49:51.961762 26870 net.cpp:131] Top shape: 64 10 8 8 (40960)
I0428 19:49:51.961766 26870 net.cpp:139] Memory required for data: 1286400
I0428 19:49:51.961789 26870 layer_factory.hpp:77] Creating layer pool1
I0428 19:49:51.961796 26870 net.cpp:86] Creating Layer pool1
I0428 19:49:51.961802 26870 net.cpp:408] pool1 <- conv1
I0428 19:49:51.961807 26870 net.cpp:382] pool1 -> pool1
I0428 19:49:51.961841 26870 net.cpp:124] Setting up pool1
I0428 19:49:51.961848 26870 net.cpp:131] Top shape: 64 10 4 4 (10240)
I0428 19:49:51.961849 26870 net.cpp:139] Memory required for data: 1327360
I0428 19:49:51.961853 26870 layer_factory.hpp:77] Creating layer ip1
I0428 19:49:51.961858 26870 net.cpp:86] Creating Layer ip1
I0428 19:49:51.961861 26870 net.cpp:408] ip1 <- pool1
I0428 19:49:51.961866 26870 net.cpp:382] ip1 -> ip1
I0428 19:49:51.961964 26870 net.cpp:124] Setting up ip1
I0428 19:49:51.961971 26870 net.cpp:131] Top shape: 64 10 (640)
I0428 19:49:51.961976 26870 net.cpp:139] Memory required for data: 1329920
I0428 19:49:51.961982 26870 layer_factory.hpp:77] Creating layer relu1
I0428 19:49:51.961987 26870 net.cpp:86] Creating Layer relu1
I0428 19:49:51.961989 26870 net.cpp:408] relu1 <- ip1
I0428 19:49:51.961993 26870 net.cpp:369] relu1 -> ip1 (in-place)
I0428 19:49:51.962155 26870 net.cpp:124] Setting up relu1
I0428 19:49:51.962164 26870 net.cpp:131] Top shape: 64 10 (640)
I0428 19:49:51.962167 26870 net.cpp:139] Memory required for data: 1332480
I0428 19:49:51.962169 26870 layer_factory.hpp:77] Creating layer loss
I0428 19:49:51.962175 26870 net.cpp:86] Creating Layer loss
I0428 19:49:51.962178 26870 net.cpp:408] loss <- ip1
I0428 19:49:51.962182 26870 net.cpp:408] loss <- label
I0428 19:49:51.962186 26870 net.cpp:382] loss -> loss
I0428 19:49:51.962215 26870 layer_factory.hpp:77] Creating layer loss
…
I0428 19:49:51.963405 26870 solver.cpp:173] Creating test net (#0) specified by net file: ECE595/mnist/train_test/var_everything2/lenet_train_test587.prototxt
I0428 19:49:51.963428 26870 net.cpp:296] The NetState phase (1) differed from the phase (0) specified by a rule in layer mnist
I0428 19:49:51.963501 26870 net.cpp:53] Initializing net from parameters: 
name: "LeNet"
state {
  phase: TEST
}
layer {
  name: "mnist"
  type: "Data"
  top: "data"
  top: "label"
  include {
    phase: TEST
  }
  transform_param {
    scale: 0.00390625
  }
  data_param {
    source: "examples/mnist/mnist_test_lmdb"
    batch_size: 100
    backend: LMDB
  }
}
layer {
  name: "conv0"
  type: "Convolution"
  bottom: "data"
  top: "conv0"
  param {
    lr_mult: 1
  }
  param {
    lr_mult: 2
  }
  convolution_param {
    num_output: 5
    kernel_size: 5
    stride: 1
    weight_filler {
      type: "xavier"
    }
    bias_filler {
      type: "constant"
    }
  }
}
layer {
  name: "pool0"
  type: "Pooling"
  bottom: "conv0"
  top: "pool0"
  pooling_param {
    pool: MAX
    kernel_size: 2
    stride: 2
  }
}
layer {
  name: "conv1"
  type: "Convolution"
  bottom: "pool0"
  top: "conv1"
  param {
    lr_mult: 1
  }
  param {
    lr_mult: 2
  }
  convolution_param {
    num_output: 10
    kernel_size: 5
    stride: 1
    weight_filler {
      type: "xavier"
    }
    bias_filler {
      type: "constant"
    }
  }
}
layer {
  name: "pool1"
  type: "Pooling"
  bottom: "conv1"
  top: "pool1"
  pooling_param {
    pool: MAX
    kernel_size: 2
    stride: 2
  }
}
layer {
  name: "ip1"
  type: "InnerProduct"
  bottom: "pool1"
  top: "ip1"
  param {
    lr_mult: 1
  }
  param {
    lr_mult: 2
  }
  inner_product_param {
    num_output: 10
    weight_filler {
      type: "xavier"
    }
    bias_filler {
      type: "constant"
    }
  }
}
layer {
  name: "relu1"
  type: "ReLU"
  bottom: "ip1"
  top: "ip1"
}
layer {
  name: "accuracy"
  type: "Accuracy"
  bottom: "ip1"
  bottom: "label"
  top: "accuracy"
  include {
    phase: TEST
  }
}
layer {
  name: "loss"
  type: "SoftmaxWithLoss"
  bottom: "ip1"
  bottom: "label"
  top: "loss"
}
I0428 19:49:51.963570 26870 layer_factory.hpp:77] Creating layer mnist
I0428 19:49:51.963629 26870 db_lmdb.cpp:35] Opened lmdb examples/mnist/mnist_test_lmdb
I0428 19:49:51.963641 26870 net.cpp:86] Creating Layer mnist
I0428 19:49:51.963645 26870 net.cpp:382] mnist -> data
I0428 19:49:51.963654 26870 net.cpp:382] mnist -> label
I0428 19:49:51.963748 26870 data_layer.cpp:45] output data size: 100,1,28,28
I0428 19:49:51.965880 26870 net.cpp:124] Setting up mnist
I0428 19:49:51.965909 26870 net.cpp:131] Top shape: 100 1 28 28 (78400)
I0428 19:49:51.965914 26870 net.cpp:131] Top shape: 100 (100)
I0428 19:49:51.965917 26870 net.cpp:139] Memory required for data: 314000
I0428 19:49:51.965921 26870 layer_factory.hpp:77] Creating layer label_mnist_1_split
I0428 19:49:51.965927 26870 net.cpp:86] Creating Layer label_mnist_1_split
I0428 19:49:51.965931 26870 net.cpp:408] label_mnist_1_split <- label
I0428 19:49:51.965935 26870 net.cpp:382] label_mnist_1_split -> label_mnist_1_split_0
I0428 19:49:51.965942 26870 net.cpp:382] label_mnist_1_split -> label_mnist_1_split_1
I0428 19:49:51.965991 26870 net.cpp:124] Setting up label_mnist_1_split
I0428 19:49:51.965996 26870 net.cpp:131] Top shape: 100 (100)
I0428 19:49:51.965999 26870 net.cpp:131] Top shape: 100 (100)
I0428 19:49:51.966002 26870 net.cpp:139] Memory required for data: 314800
I0428 19:49:51.966006 26870 layer_factory.hpp:77] Creating layer conv0
I0428 19:49:51.966012 26870 net.cpp:86] Creating Layer conv0
I0428 19:49:51.966015 26870 net.cpp:408] conv0 <- data
I0428 19:49:51.966020 26870 net.cpp:382] conv0 -> conv0
I0428 19:49:51.966962 26870 net.cpp:124] Setting up conv0
I0428 19:49:51.966974 26870 net.cpp:131] Top shape: 100 5 24 24 (288000)
I0428 19:49:51.966977 26870 net.cpp:139] Memory required for data: 1466800
I0428 19:49:51.966985 26870 layer_factory.hpp:77] Creating layer pool0
I0428 19:49:51.967002 26870 net.cpp:86] Creating Layer pool0
I0428 19:49:51.967005 26870 net.cpp:408] pool0 <- conv0
I0428 19:49:51.967010 26870 net.cpp:382] pool0 -> pool0
I0428 19:49:51.967042 26870 net.cpp:124] Setting up pool0
I0428 19:49:51.967047 26870 net.cpp:131] Top shape: 100 5 12 12 (72000)
I0428 19:49:51.967051 26870 net.cpp:139] Memory required for data: 1754800
I0428 19:49:51.967052 26870 layer_factory.hpp:77] Creating layer conv1
I0428 19:49:51.967061 26870 net.cpp:86] Creating Layer conv1
I0428 19:49:51.967063 26870 net.cpp:408] conv1 <- pool0
I0428 19:49:51.967068 26870 net.cpp:382] conv1 -> conv1
I0428 19:49:51.969179 26870 net.cpp:124] Setting up conv1
I0428 19:49:51.969207 26870 net.cpp:131] Top shape: 100 10 8 8 (64000)
I0428 19:49:51.969210 26870 net.cpp:139] Memory required for data: 2010800
I0428 19:49:51.969218 26870 layer_factory.hpp:77] Creating layer pool1
I0428 19:49:51.969224 26870 net.cpp:86] Creating Layer pool1
I0428 19:49:51.969236 26870 net.cpp:408] pool1 <- conv1
I0428 19:49:51.969241 26870 net.cpp:382] pool1 -> pool1
I0428 19:49:51.969290 26870 net.cpp:124] Setting up pool1
I0428 19:49:51.969295 26870 net.cpp:131] Top shape: 100 10 4 4 (16000)
I0428 19:49:51.969305 26870 net.cpp:139] Memory required for data: 2074800
I0428 19:49:51.969307 26870 layer_factory.hpp:77] Creating layer ip1
I0428 19:49:51.969312 26870 net.cpp:86] Creating Layer ip1
I0428 19:49:51.969316 26870 net.cpp:408] ip1 <- pool1
I0428 19:49:51.969319 26870 net.cpp:382] ip1 -> ip1
I0428 19:49:51.969475 26870 net.cpp:124] Setting up ip1
I0428 19:49:51.969485 26870 net.cpp:131] Top shape: 100 10 (1000)
I0428 19:49:51.969487 26870 net.cpp:139] Memory required for data: 2078800
I0428 19:49:51.969494 26870 layer_factory.hpp:77] Creating layer relu1
I0428 19:49:51.969499 26870 net.cpp:86] Creating Layer relu1
I0428 19:49:51.969503 26870 net.cpp:408] relu1 <- ip1
I0428 19:49:51.969507 26870 net.cpp:369] relu1 -> ip1 (in-place)
I0428 19:49:51.970394 26870 net.cpp:124] Setting up relu1
I0428 19:49:51.970405 26870 net.cpp:131] Top shape: 100 10 (1000)
I0428 19:49:51.970409 26870 net.cpp:139] Memory required for data: 2082800
I0428 19:49:51.970412 26870 layer_factory.hpp:77] Creating layer ip1_relu1_0_split
I0428 19:49:51.970422 26870 net.cpp:86] Creating Layer ip1_relu1_0_split
I0428 19:49:51.970424 26870 net.cpp:408] ip1_relu1_0_split <- ip1
I0428 19:49:51.970429 26870 net.cpp:382] ip1_relu1_0_split -> ip1_relu1_0_split_0
I0428 19:49:51.970434 26870 net.cpp:382] ip1_relu1_0_split -> ip1_relu1_0_split_1
I0428 19:49:51.970489 26870 net.cpp:124] Setting up ip1_relu1_0_split
I0428 19:49:51.970497 26870 net.cpp:131] Top shape: 100 10 (1000)
I0428 19:49:51.970502 26870 net.cpp:131] Top shape: 100 10 (1000)
I0428 19:49:51.970504 26870 net.cpp:139] Memory required for data: 2090800
I0428 19:49:51.970507 26870 layer_factory.hpp:77] Creating layer accuracy
I0428 19:49:51.970513 26870 net.cpp:86] Creating Layer accuracy
I0428 19:49:51.970521 26870 net.cpp:408] accuracy <- ip1_relu1_0_split_0
I0428 19:49:51.970525 26870 net.cpp:408] accuracy <- label_mnist_1_split_0
I0428 19:49:51.970530 26870 net.cpp:382] accuracy -> accuracy
…
