…
I0428 20:02:34.976189 29973 net.cpp:296] The NetState phase (0) differed from the phase (1) specified by a rule in layer mnist
I0428 20:02:34.976208 29973 net.cpp:296] The NetState phase (0) differed from the phase (1) specified by a rule in layer accuracy
I0428 20:02:34.976305 29973 net.cpp:53] Initializing net from parameters: 
name: "LeNet"
state {
  phase: TRAIN
  level: 0
  stage: ""
}
layer {
  name: "mnist"
  type: "Data"
  top: "data"
  top: "label"
  include {
    phase: TRAIN
  }
  transform_param {
    scale: 0.00390625
  }
  data_param {
    source: "examples/mnist/mnist_train_lmdb"
    batch_size: 64
    backend: LMDB
  }
}
layer {
  name: "conv0"
  type: "Convolution"
  bottom: "data"
  top: "conv0"
  param {
    lr_mult: 1
  }
  param {
    lr_mult: 2
  }
  convolution_param {
    num_output: 10
    kernel_size: 5
    stride: 1
    weight_filler {
      type: "xavier"
    }
    bias_filler {
      type: "constant"
    }
  }
}
layer {
  name: "pool0"
  type: "Pooling"
  bottom: "conv0"
  top: "pool0"
  pooling_param {
    pool: MAX
    kernel_size: 2
    stride: 2
  }
}
layer {
  name: "conv1"
  type: "Convolution"
  bottom: "pool0"
  top: "conv1"
  param {
    lr_mult: 1
  }
  param {
    lr_mult: 2
  }
  convolution_param {
    num_output: 50
    kernel_size: 5
    stride: 1
    weight_filler {
      type: "xavier"
    }
    bias_filler {
      type: "constant"
    }
  }
}
layer {
  name: "pool1"
  type: "Pooling"
  bottom: "conv1"
  top: "pool1"
  pooling_param {
    pool: MAX
    kernel_size: 2
    stride: 2
  }
}
layer {
  name: "ip1"
  type: "InnerProduct"
  bottom: "pool1"
  top: "ip1"
  param {
    lr_mult: 1
  }
  param {
    lr_mult: 2
  }
  inner_product_param {
    num_output: 50
    weight_filler {
      type: "xavier"
    }
    bias_filler {
      type: "constant"
    }
  }
}
layer {
  name: "relu1"
  type: "ReLU"
  bottom: "ip1"
  top: "ip1"
}
layer {
  name: "ip2"
  type: "InnerProduct"
  bottom: "ip1"
  top: "ip2"
  param {
    lr_mult: 1
  }
  param {
    lr_mult: 2
  }
  inner_product_param {
    num_output: 25
    weight_filler {
      type: "xavier"
    }
    bias_filler {
      type: "constant"
    }
  }
}
layer {
  name: "relu2"
  type: "ReLU"
  bottom: "ip2"
  top: "ip2"
}
layer {
  name: "ip3"
  type: "InnerProduct"
  bottom: "ip2"
  top: "ip3"
  param {
    lr_mult: 1
  }
  param {
    lr_mult: 2
  }
  inner_product_param {
    num_output: 10
    weight_filler {
      type: "xavier"
    }
    bias_filler {
      type: "constant"
    }
  }
}
layer {
  name: "relu3"
  type: "ReLU"
  bottom: "ip3"
  top: "ip3"
}
layer {
  name: "loss"
  type: "SoftmaxWithLoss"
  bottom: "ip3"
  bottom: "label"
  top: "loss"
}
I0428 20:02:34.976379 29973 layer_factory.hpp:77] Creating layer mnist
I0428 20:02:34.976481 29973 db_lmdb.cpp:35] Opened lmdb examples/mnist/mnist_train_lmdb
I0428 20:02:34.976503 29973 net.cpp:86] Creating Layer mnist
I0428 20:02:34.976511 29973 net.cpp:382] mnist -> data
I0428 20:02:34.976533 29973 net.cpp:382] mnist -> label
I0428 20:02:34.977627 29973 data_layer.cpp:45] output data size: 64,1,28,28
I0428 20:02:34.980060 29973 net.cpp:124] Setting up mnist
I0428 20:02:34.980078 29973 net.cpp:131] Top shape: 64 1 28 28 (50176)
I0428 20:02:34.980085 29973 net.cpp:131] Top shape: 64 (64)
I0428 20:02:34.980088 29973 net.cpp:139] Memory required for data: 200960
I0428 20:02:34.980095 29973 layer_factory.hpp:77] Creating layer conv0
I0428 20:02:34.980111 29973 net.cpp:86] Creating Layer conv0
I0428 20:02:34.980132 29973 net.cpp:408] conv0 <- data
I0428 20:02:34.980144 29973 net.cpp:382] conv0 -> conv0
I0428 20:02:35.244887 29973 net.cpp:124] Setting up conv0
I0428 20:02:35.244930 29973 net.cpp:131] Top shape: 64 10 24 24 (368640)
I0428 20:02:35.244933 29973 net.cpp:139] Memory required for data: 1675520
I0428 20:02:35.244948 29973 layer_factory.hpp:77] Creating layer pool0
I0428 20:02:35.244961 29973 net.cpp:86] Creating Layer pool0
I0428 20:02:35.244966 29973 net.cpp:408] pool0 <- conv0
I0428 20:02:35.244971 29973 net.cpp:382] pool0 -> pool0
I0428 20:02:35.245018 29973 net.cpp:124] Setting up pool0
I0428 20:02:35.245023 29973 net.cpp:131] Top shape: 64 10 12 12 (92160)
I0428 20:02:35.245025 29973 net.cpp:139] Memory required for data: 2044160
I0428 20:02:35.245029 29973 layer_factory.hpp:77] Creating layer conv1
I0428 20:02:35.245040 29973 net.cpp:86] Creating Layer conv1
I0428 20:02:35.245043 29973 net.cpp:408] conv1 <- pool0
I0428 20:02:35.245048 29973 net.cpp:382] conv1 -> conv1
I0428 20:02:35.247990 29973 net.cpp:124] Setting up conv1
I0428 20:02:35.248020 29973 net.cpp:131] Top shape: 64 50 8 8 (204800)
I0428 20:02:35.248024 29973 net.cpp:139] Memory required for data: 2863360
I0428 20:02:35.248033 29973 layer_factory.hpp:77] Creating layer pool1
I0428 20:02:35.248040 29973 net.cpp:86] Creating Layer pool1
I0428 20:02:35.248044 29973 net.cpp:408] pool1 <- conv1
I0428 20:02:35.248049 29973 net.cpp:382] pool1 -> pool1
I0428 20:02:35.248085 29973 net.cpp:124] Setting up pool1
I0428 20:02:35.248090 29973 net.cpp:131] Top shape: 64 50 4 4 (51200)
I0428 20:02:35.248092 29973 net.cpp:139] Memory required for data: 3068160
I0428 20:02:35.248095 29973 layer_factory.hpp:77] Creating layer ip1
I0428 20:02:35.248102 29973 net.cpp:86] Creating Layer ip1
I0428 20:02:35.248105 29973 net.cpp:408] ip1 <- pool1
I0428 20:02:35.248109 29973 net.cpp:382] ip1 -> ip1
I0428 20:02:35.248415 29973 net.cpp:124] Setting up ip1
I0428 20:02:35.248423 29973 net.cpp:131] Top shape: 64 50 (3200)
I0428 20:02:35.248426 29973 net.cpp:139] Memory required for data: 3080960
I0428 20:02:35.248432 29973 layer_factory.hpp:77] Creating layer relu1
I0428 20:02:35.248438 29973 net.cpp:86] Creating Layer relu1
I0428 20:02:35.248441 29973 net.cpp:408] relu1 <- ip1
I0428 20:02:35.248445 29973 net.cpp:369] relu1 -> ip1 (in-place)
I0428 20:02:35.248600 29973 net.cpp:124] Setting up relu1
I0428 20:02:35.248610 29973 net.cpp:131] Top shape: 64 50 (3200)
I0428 20:02:35.248612 29973 net.cpp:139] Memory required for data: 3093760
I0428 20:02:35.248615 29973 layer_factory.hpp:77] Creating layer ip2
I0428 20:02:35.248621 29973 net.cpp:86] Creating Layer ip2
I0428 20:02:35.248625 29973 net.cpp:408] ip2 <- ip1
I0428 20:02:35.248630 29973 net.cpp:382] ip2 -> ip2
I0428 20:02:35.249686 29973 net.cpp:124] Setting up ip2
I0428 20:02:35.249714 29973 net.cpp:131] Top shape: 64 25 (1600)
I0428 20:02:35.249718 29973 net.cpp:139] Memory required for data: 3100160
I0428 20:02:35.249724 29973 layer_factory.hpp:77] Creating layer relu2
I0428 20:02:35.249730 29973 net.cpp:86] Creating Layer relu2
I0428 20:02:35.249734 29973 net.cpp:408] relu2 <- ip2
I0428 20:02:35.249738 29973 net.cpp:369] relu2 -> ip2 (in-place)
I0428 20:02:35.250542 29973 net.cpp:124] Setting up relu2
I0428 20:02:35.250553 29973 net.cpp:131] Top shape: 64 25 (1600)
I0428 20:02:35.250572 29973 net.cpp:139] Memory required for data: 3106560
I0428 20:02:35.250576 29973 layer_factory.hpp:77] Creating layer ip3
I0428 20:02:35.250594 29973 net.cpp:86] Creating Layer ip3
I0428 20:02:35.250598 29973 net.cpp:408] ip3 <- ip2
I0428 20:02:35.250603 29973 net.cpp:382] ip3 -> ip3
I0428 20:02:35.250696 29973 net.cpp:124] Setting up ip3
I0428 20:02:35.250704 29973 net.cpp:131] Top shape: 64 10 (640)
I0428 20:02:35.250706 29973 net.cpp:139] Memory required for data: 3109120
I0428 20:02:35.250715 29973 layer_factory.hpp:77] Creating layer relu3
I0428 20:02:35.250720 29973 net.cpp:86] Creating Layer relu3
I0428 20:02:35.250722 29973 net.cpp:408] relu3 <- ip3
I0428 20:02:35.250726 29973 net.cpp:369] relu3 -> ip3 (in-place)
I0428 20:02:35.250911 29973 net.cpp:124] Setting up relu3
I0428 20:02:35.250921 29973 net.cpp:131] Top shape: 64 10 (640)
I0428 20:02:35.250923 29973 net.cpp:139] Memory required for data: 3111680
I0428 20:02:35.250926 29973 layer_factory.hpp:77] Creating layer loss
I0428 20:02:35.250932 29973 net.cpp:86] Creating Layer loss
I0428 20:02:35.250936 29973 net.cpp:408] loss <- ip3
I0428 20:02:35.250939 29973 net.cpp:408] loss <- label
I0428 20:02:35.250946 29973 net.cpp:382] loss -> loss
I0428 20:02:35.250964 29973 layer_factory.hpp:77] Creating layer loss
…
I0428 20:02:35.251667 29973 solver.cpp:173] Creating test net (#0) specified by net file: ECE595/mnist/train_test/var_everything2/lenet_train_test932.prototxt
I0428 20:02:35.251708 29973 net.cpp:296] The NetState phase (1) differed from the phase (0) specified by a rule in layer mnist
I0428 20:02:35.251794 29973 net.cpp:53] Initializing net from parameters: 
name: "LeNet"
state {
  phase: TEST
}
layer {
  name: "mnist"
  type: "Data"
  top: "data"
  top: "label"
  include {
    phase: TEST
  }
  transform_param {
    scale: 0.00390625
  }
  data_param {
    source: "examples/mnist/mnist_test_lmdb"
    batch_size: 100
    backend: LMDB
  }
}
layer {
  name: "conv0"
  type: "Convolution"
  bottom: "data"
  top: "conv0"
  param {
    lr_mult: 1
  }
  param {
    lr_mult: 2
  }
  convolution_param {
    num_output: 10
    kernel_size: 5
    stride: 1
    weight_filler {
      type: "xavier"
    }
    bias_filler {
      type: "constant"
    }
  }
}
layer {
  name: "pool0"
  type: "Pooling"
  bottom: "conv0"
  top: "pool0"
  pooling_param {
    pool: MAX
    kernel_size: 2
    stride: 2
  }
}
layer {
  name: "conv1"
  type: "Convolution"
  bottom: "pool0"
  top: "conv1"
  param {
    lr_mult: 1
  }
  param {
    lr_mult: 2
  }
  convolution_param {
    num_output: 50
    kernel_size: 5
    stride: 1
    weight_filler {
      type: "xavier"
    }
    bias_filler {
      type: "constant"
    }
  }
}
layer {
  name: "pool1"
  type: "Pooling"
  bottom: "conv1"
  top: "pool1"
  pooling_param {
    pool: MAX
    kernel_size: 2
    stride: 2
  }
}
layer {
  name: "ip1"
  type: "InnerProduct"
  bottom: "pool1"
  top: "ip1"
  param {
    lr_mult: 1
  }
  param {
    lr_mult: 2
  }
  inner_product_param {
    num_output: 50
    weight_filler {
      type: "xavier"
    }
    bias_filler {
      type: "constant"
    }
  }
}
layer {
  name: "relu1"
  type: "ReLU"
  bottom: "ip1"
  top: "ip1"
}
layer {
  name: "ip2"
  type: "InnerProduct"
  bottom: "ip1"
  top: "ip2"
  param {
    lr_mult: 1
  }
  param {
    lr_mult: 2
  }
  inner_product_param {
    num_output: 25
    weight_filler {
      type: "xavier"
    }
    bias_filler {
      type: "constant"
    }
  }
}
layer {
  name: "relu2"
  type: "ReLU"
  bottom: "ip2"
  top: "ip2"
}
layer {
  name: "ip3"
  type: "InnerProduct"
  bottom: "ip2"
  top: "ip3"
  param {
    lr_mult: 1
  }
  param {
    lr_mult: 2
  }
  inner_product_param {
    num_output: 10
    weight_filler {
      type: "xavier"
    }
    bias_filler {
      type: "constant"
    }
  }
}
layer {
  name: "relu3"
  type: "ReLU"
  bottom: "ip3"
  top: "ip3"
}
layer {
  name: "accuracy"
  type: "Accuracy"
  bottom: "ip3"
  bottom: "label"
  top: "accuracy"
  include {
    phase: TEST
  }
}
layer {
  name: "loss"
  type: "SoftmaxWithLoss"
  bottom: "ip3"
  bottom: "label"
  top: "loss"
}
I0428 20:02:35.251868 29973 layer_factory.hpp:77] Creating layer mnist
I0428 20:02:35.251922 29973 db_lmdb.cpp:35] Opened lmdb examples/mnist/mnist_test_lmdb
I0428 20:02:35.251935 29973 net.cpp:86] Creating Layer mnist
I0428 20:02:35.251938 29973 net.cpp:382] mnist -> data
I0428 20:02:35.251946 29973 net.cpp:382] mnist -> label
I0428 20:02:35.252058 29973 data_layer.cpp:45] output data size: 100,1,28,28
I0428 20:02:35.254109 29973 net.cpp:124] Setting up mnist
I0428 20:02:35.254154 29973 net.cpp:131] Top shape: 100 1 28 28 (78400)
I0428 20:02:35.254159 29973 net.cpp:131] Top shape: 100 (100)
I0428 20:02:35.254178 29973 net.cpp:139] Memory required for data: 314000
I0428 20:02:35.254181 29973 layer_factory.hpp:77] Creating layer label_mnist_1_split
I0428 20:02:35.254189 29973 net.cpp:86] Creating Layer label_mnist_1_split
I0428 20:02:35.254192 29973 net.cpp:408] label_mnist_1_split <- label
I0428 20:02:35.254197 29973 net.cpp:382] label_mnist_1_split -> label_mnist_1_split_0
I0428 20:02:35.254204 29973 net.cpp:382] label_mnist_1_split -> label_mnist_1_split_1
I0428 20:02:35.254250 29973 net.cpp:124] Setting up label_mnist_1_split
I0428 20:02:35.254256 29973 net.cpp:131] Top shape: 100 (100)
I0428 20:02:35.254259 29973 net.cpp:131] Top shape: 100 (100)
I0428 20:02:35.254262 29973 net.cpp:139] Memory required for data: 314800
I0428 20:02:35.254266 29973 layer_factory.hpp:77] Creating layer conv0
I0428 20:02:35.254273 29973 net.cpp:86] Creating Layer conv0
I0428 20:02:35.254276 29973 net.cpp:408] conv0 <- data
I0428 20:02:35.254281 29973 net.cpp:382] conv0 -> conv0
I0428 20:02:35.255864 29973 net.cpp:124] Setting up conv0
I0428 20:02:35.255893 29973 net.cpp:131] Top shape: 100 10 24 24 (576000)
I0428 20:02:35.255897 29973 net.cpp:139] Memory required for data: 2618800
I0428 20:02:35.255905 29973 layer_factory.hpp:77] Creating layer pool0
I0428 20:02:35.255911 29973 net.cpp:86] Creating Layer pool0
I0428 20:02:35.255915 29973 net.cpp:408] pool0 <- conv0
I0428 20:02:35.255919 29973 net.cpp:382] pool0 -> pool0
I0428 20:02:35.255954 29973 net.cpp:124] Setting up pool0
I0428 20:02:35.255959 29973 net.cpp:131] Top shape: 100 10 12 12 (144000)
I0428 20:02:35.255961 29973 net.cpp:139] Memory required for data: 3194800
I0428 20:02:35.255964 29973 layer_factory.hpp:77] Creating layer conv1
I0428 20:02:35.255972 29973 net.cpp:86] Creating Layer conv1
I0428 20:02:35.255975 29973 net.cpp:408] conv1 <- pool0
I0428 20:02:35.255980 29973 net.cpp:382] conv1 -> conv1
I0428 20:02:35.257632 29973 net.cpp:124] Setting up conv1
I0428 20:02:35.257663 29973 net.cpp:131] Top shape: 100 50 8 8 (320000)
I0428 20:02:35.257666 29973 net.cpp:139] Memory required for data: 4474800
I0428 20:02:35.257676 29973 layer_factory.hpp:77] Creating layer pool1
I0428 20:02:35.257683 29973 net.cpp:86] Creating Layer pool1
I0428 20:02:35.257688 29973 net.cpp:408] pool1 <- conv1
I0428 20:02:35.257694 29973 net.cpp:382] pool1 -> pool1
I0428 20:02:35.257736 29973 net.cpp:124] Setting up pool1
I0428 20:02:35.257750 29973 net.cpp:131] Top shape: 100 50 4 4 (80000)
I0428 20:02:35.257753 29973 net.cpp:139] Memory required for data: 4794800
I0428 20:02:35.257756 29973 layer_factory.hpp:77] Creating layer ip1
I0428 20:02:35.257762 29973 net.cpp:86] Creating Layer ip1
I0428 20:02:35.257766 29973 net.cpp:408] ip1 <- pool1
I0428 20:02:35.257771 29973 net.cpp:382] ip1 -> ip1
I0428 20:02:35.258139 29973 net.cpp:124] Setting up ip1
I0428 20:02:35.258148 29973 net.cpp:131] Top shape: 100 50 (5000)
I0428 20:02:35.258177 29973 net.cpp:139] Memory required for data: 4814800
I0428 20:02:35.258186 29973 layer_factory.hpp:77] Creating layer relu1
I0428 20:02:35.258191 29973 net.cpp:86] Creating Layer relu1
I0428 20:02:35.258196 29973 net.cpp:408] relu1 <- ip1
I0428 20:02:35.258200 29973 net.cpp:369] relu1 -> ip1 (in-place)
I0428 20:02:35.258443 29973 net.cpp:124] Setting up relu1
I0428 20:02:35.258452 29973 net.cpp:131] Top shape: 100 50 (5000)
I0428 20:02:35.258455 29973 net.cpp:139] Memory required for data: 4834800
I0428 20:02:35.258460 29973 layer_factory.hpp:77] Creating layer ip2
I0428 20:02:35.258466 29973 net.cpp:86] Creating Layer ip2
I0428 20:02:35.258469 29973 net.cpp:408] ip2 <- ip1
I0428 20:02:35.258474 29973 net.cpp:382] ip2 -> ip2
I0428 20:02:35.258641 29973 net.cpp:124] Setting up ip2
I0428 20:02:35.258648 29973 net.cpp:131] Top shape: 100 25 (2500)
I0428 20:02:35.258651 29973 net.cpp:139] Memory required for data: 4844800
I0428 20:02:35.258657 29973 layer_factory.hpp:77] Creating layer relu2
I0428 20:02:35.258663 29973 net.cpp:86] Creating Layer relu2
I0428 20:02:35.258666 29973 net.cpp:408] relu2 <- ip2
I0428 20:02:35.258671 29973 net.cpp:369] relu2 -> ip2 (in-place)
I0428 20:02:35.258854 29973 net.cpp:124] Setting up relu2
I0428 20:02:35.258863 29973 net.cpp:131] Top shape: 100 25 (2500)
I0428 20:02:35.258867 29973 net.cpp:139] Memory required for data: 4854800
I0428 20:02:35.258869 29973 layer_factory.hpp:77] Creating layer ip3
I0428 20:02:35.258878 29973 net.cpp:86] Creating Layer ip3
I0428 20:02:35.258882 29973 net.cpp:408] ip3 <- ip2
I0428 20:02:35.258888 29973 net.cpp:382] ip3 -> ip3
I0428 20:02:35.258991 29973 net.cpp:124] Setting up ip3
I0428 20:02:35.258999 29973 net.cpp:131] Top shape: 100 10 (1000)
I0428 20:02:35.259002 29973 net.cpp:139] Memory required for data: 4858800
I0428 20:02:35.259011 29973 layer_factory.hpp:77] Creating layer relu3
I0428 20:02:35.259016 29973 net.cpp:86] Creating Layer relu3
I0428 20:02:35.259019 29973 net.cpp:408] relu3 <- ip3
I0428 20:02:35.259032 29973 net.cpp:369] relu3 -> ip3 (in-place)
I0428 20:02:35.259925 29973 net.cpp:124] Setting up relu3
I0428 20:02:35.259938 29973 net.cpp:131] Top shape: 100 10 (1000)
I0428 20:02:35.259958 29973 net.cpp:139] Memory required for data: 4862800
I0428 20:02:35.259960 29973 layer_factory.hpp:77] Creating layer ip3_relu3_0_split
I0428 20:02:35.259965 29973 net.cpp:86] Creating Layer ip3_relu3_0_split
I0428 20:02:35.259968 29973 net.cpp:408] ip3_relu3_0_split <- ip3
I0428 20:02:35.259975 29973 net.cpp:382] ip3_relu3_0_split -> ip3_relu3_0_split_0
I0428 20:02:35.259981 29973 net.cpp:382] ip3_relu3_0_split -> ip3_relu3_0_split_1
I0428 20:02:35.260041 29973 net.cpp:124] Setting up ip3_relu3_0_split
I0428 20:02:35.260049 29973 net.cpp:131] Top shape: 100 10 (1000)
I0428 20:02:35.260053 29973 net.cpp:131] Top shape: 100 10 (1000)
I0428 20:02:35.260056 29973 net.cpp:139] Memory required for data: 4870800
I0428 20:02:35.260059 29973 layer_factory.hpp:77] Creating layer accuracy
I0428 20:02:35.260064 29973 net.cpp:86] Creating Layer accuracy
I0428 20:02:35.260067 29973 net.cpp:408] accuracy <- ip3_relu3_0_split_0
I0428 20:02:35.260071 29973 net.cpp:408] accuracy <- label_mnist_1_split_0
I0428 20:02:35.260076 29973 net.cpp:382] accuracy -> accuracy
…
