…
I0428 20:07:10.653813 31041 net.cpp:296] The NetState phase (0) differed from the phase (1) specified by a rule in layer mnist
I0428 20:07:10.653830 31041 net.cpp:296] The NetState phase (0) differed from the phase (1) specified by a rule in layer accuracy
I0428 20:07:10.653913 31041 net.cpp:53] Initializing net from parameters: 
name: "LeNet"
state {
  phase: TRAIN
  level: 0
  stage: ""
}
layer {
  name: "mnist"
  type: "Data"
  top: "data"
  top: "label"
  include {
    phase: TRAIN
  }
  transform_param {
    scale: 0.00390625
  }
  data_param {
    source: "examples/mnist/mnist_train_lmdb"
    batch_size: 64
    backend: LMDB
  }
}
layer {
  name: "conv0"
  type: "Convolution"
  bottom: "data"
  top: "conv0"
  param {
    lr_mult: 1
  }
  param {
    lr_mult: 2
  }
  convolution_param {
    num_output: 25
    kernel_size: 5
    stride: 1
    weight_filler {
      type: "xavier"
    }
    bias_filler {
      type: "constant"
    }
  }
}
layer {
  name: "pool0"
  type: "Pooling"
  bottom: "conv0"
  top: "pool0"
  pooling_param {
    pool: MAX
    kernel_size: 2
    stride: 2
  }
}
layer {
  name: "conv1"
  type: "Convolution"
  bottom: "pool0"
  top: "conv1"
  param {
    lr_mult: 1
  }
  param {
    lr_mult: 2
  }
  convolution_param {
    num_output: 5
    kernel_size: 5
    stride: 1
    weight_filler {
      type: "xavier"
    }
    bias_filler {
      type: "constant"
    }
  }
}
layer {
  name: "pool1"
  type: "Pooling"
  bottom: "conv1"
  top: "pool1"
  pooling_param {
    pool: MAX
    kernel_size: 2
    stride: 2
  }
}
layer {
  name: "ip1"
  type: "InnerProduct"
  bottom: "pool1"
  top: "ip1"
  param {
    lr_mult: 1
  }
  param {
    lr_mult: 2
  }
  inner_product_param {
    num_output: 50
    weight_filler {
      type: "xavier"
    }
    bias_filler {
      type: "constant"
    }
  }
}
layer {
  name: "relu1"
  type: "ReLU"
  bottom: "ip1"
  top: "ip1"
}
layer {
  name: "ip2"
  type: "InnerProduct"
  bottom: "ip1"
  top: "ip2"
  param {
    lr_mult: 1
  }
  param {
    lr_mult: 2
  }
  inner_product_param {
    num_output: 25
    weight_filler {
      type: "xavier"
    }
    bias_filler {
      type: "constant"
    }
  }
}
layer {
  name: "relu2"
  type: "ReLU"
  bottom: "ip2"
  top: "ip2"
}
layer {
  name: "ip3"
  type: "InnerProduct"
  bottom: "ip2"
  top: "ip3"
  param {
    lr_mult: 1
  }
  param {
    lr_mult: 2
  }
  inner_product_param {
    num_output: 10
    weight_filler {
      type: "xavier"
    }
    bias_filler {
      type: "constant"
    }
  }
}
layer {
  name: "relu3"
  type: "ReLU"
  bottom: "ip3"
  top: "ip3"
}
layer {
  name: "loss"
  type: "SoftmaxWithLoss"
  bottom: "ip3"
  bottom: "label"
  top: "loss"
}
I0428 20:07:10.653975 31041 layer_factory.hpp:77] Creating layer mnist
I0428 20:07:10.654057 31041 db_lmdb.cpp:35] Opened lmdb examples/mnist/mnist_train_lmdb
I0428 20:07:10.654075 31041 net.cpp:86] Creating Layer mnist
I0428 20:07:10.654083 31041 net.cpp:382] mnist -> data
I0428 20:07:10.654103 31041 net.cpp:382] mnist -> label
I0428 20:07:10.655061 31041 data_layer.cpp:45] output data size: 64,1,28,28
I0428 20:07:10.657596 31041 net.cpp:124] Setting up mnist
I0428 20:07:10.657611 31041 net.cpp:131] Top shape: 64 1 28 28 (50176)
I0428 20:07:10.657618 31041 net.cpp:131] Top shape: 64 (64)
I0428 20:07:10.657620 31041 net.cpp:139] Memory required for data: 200960
I0428 20:07:10.657626 31041 layer_factory.hpp:77] Creating layer conv0
I0428 20:07:10.657660 31041 net.cpp:86] Creating Layer conv0
I0428 20:07:10.657677 31041 net.cpp:408] conv0 <- data
I0428 20:07:10.657691 31041 net.cpp:382] conv0 -> conv0
I0428 20:07:10.895606 31041 net.cpp:124] Setting up conv0
I0428 20:07:10.895632 31041 net.cpp:131] Top shape: 64 25 24 24 (921600)
I0428 20:07:10.895637 31041 net.cpp:139] Memory required for data: 3887360
I0428 20:07:10.895650 31041 layer_factory.hpp:77] Creating layer pool0
I0428 20:07:10.895663 31041 net.cpp:86] Creating Layer pool0
I0428 20:07:10.895666 31041 net.cpp:408] pool0 <- conv0
I0428 20:07:10.895673 31041 net.cpp:382] pool0 -> pool0
I0428 20:07:10.895715 31041 net.cpp:124] Setting up pool0
I0428 20:07:10.895737 31041 net.cpp:131] Top shape: 64 25 12 12 (230400)
I0428 20:07:10.895740 31041 net.cpp:139] Memory required for data: 4808960
I0428 20:07:10.895743 31041 layer_factory.hpp:77] Creating layer conv1
I0428 20:07:10.895753 31041 net.cpp:86] Creating Layer conv1
I0428 20:07:10.895756 31041 net.cpp:408] conv1 <- pool0
I0428 20:07:10.895761 31041 net.cpp:382] conv1 -> conv1
I0428 20:07:10.898524 31041 net.cpp:124] Setting up conv1
I0428 20:07:10.898537 31041 net.cpp:131] Top shape: 64 5 8 8 (20480)
I0428 20:07:10.898540 31041 net.cpp:139] Memory required for data: 4890880
I0428 20:07:10.898548 31041 layer_factory.hpp:77] Creating layer pool1
I0428 20:07:10.898555 31041 net.cpp:86] Creating Layer pool1
I0428 20:07:10.898558 31041 net.cpp:408] pool1 <- conv1
I0428 20:07:10.898563 31041 net.cpp:382] pool1 -> pool1
I0428 20:07:10.898613 31041 net.cpp:124] Setting up pool1
I0428 20:07:10.898618 31041 net.cpp:131] Top shape: 64 5 4 4 (5120)
I0428 20:07:10.898622 31041 net.cpp:139] Memory required for data: 4911360
I0428 20:07:10.898624 31041 layer_factory.hpp:77] Creating layer ip1
I0428 20:07:10.898632 31041 net.cpp:86] Creating Layer ip1
I0428 20:07:10.898634 31041 net.cpp:408] ip1 <- pool1
I0428 20:07:10.898638 31041 net.cpp:382] ip1 -> ip1
I0428 20:07:10.898747 31041 net.cpp:124] Setting up ip1
I0428 20:07:10.898756 31041 net.cpp:131] Top shape: 64 50 (3200)
I0428 20:07:10.898758 31041 net.cpp:139] Memory required for data: 4924160
I0428 20:07:10.898764 31041 layer_factory.hpp:77] Creating layer relu1
I0428 20:07:10.898771 31041 net.cpp:86] Creating Layer relu1
I0428 20:07:10.898773 31041 net.cpp:408] relu1 <- ip1
I0428 20:07:10.898777 31041 net.cpp:369] relu1 -> ip1 (in-place)
I0428 20:07:10.898934 31041 net.cpp:124] Setting up relu1
I0428 20:07:10.898942 31041 net.cpp:131] Top shape: 64 50 (3200)
I0428 20:07:10.898962 31041 net.cpp:139] Memory required for data: 4936960
I0428 20:07:10.898965 31041 layer_factory.hpp:77] Creating layer ip2
I0428 20:07:10.898972 31041 net.cpp:86] Creating Layer ip2
I0428 20:07:10.898974 31041 net.cpp:408] ip2 <- ip1
I0428 20:07:10.898979 31041 net.cpp:382] ip2 -> ip2
I0428 20:07:10.899077 31041 net.cpp:124] Setting up ip2
I0428 20:07:10.899085 31041 net.cpp:131] Top shape: 64 25 (1600)
I0428 20:07:10.899087 31041 net.cpp:139] Memory required for data: 4943360
I0428 20:07:10.899092 31041 layer_factory.hpp:77] Creating layer relu2
I0428 20:07:10.899097 31041 net.cpp:86] Creating Layer relu2
I0428 20:07:10.899101 31041 net.cpp:408] relu2 <- ip2
I0428 20:07:10.899104 31041 net.cpp:369] relu2 -> ip2 (in-place)
I0428 20:07:10.899812 31041 net.cpp:124] Setting up relu2
I0428 20:07:10.899823 31041 net.cpp:131] Top shape: 64 25 (1600)
I0428 20:07:10.899842 31041 net.cpp:139] Memory required for data: 4949760
I0428 20:07:10.899845 31041 layer_factory.hpp:77] Creating layer ip3
I0428 20:07:10.899852 31041 net.cpp:86] Creating Layer ip3
I0428 20:07:10.899855 31041 net.cpp:408] ip3 <- ip2
I0428 20:07:10.899860 31041 net.cpp:382] ip3 -> ip3
I0428 20:07:10.899952 31041 net.cpp:124] Setting up ip3
I0428 20:07:10.899960 31041 net.cpp:131] Top shape: 64 10 (640)
I0428 20:07:10.899962 31041 net.cpp:139] Memory required for data: 4952320
I0428 20:07:10.899971 31041 layer_factory.hpp:77] Creating layer relu3
I0428 20:07:10.899976 31041 net.cpp:86] Creating Layer relu3
I0428 20:07:10.899978 31041 net.cpp:408] relu3 <- ip3
I0428 20:07:10.899981 31041 net.cpp:369] relu3 -> ip3 (in-place)
I0428 20:07:10.900176 31041 net.cpp:124] Setting up relu3
I0428 20:07:10.900185 31041 net.cpp:131] Top shape: 64 10 (640)
I0428 20:07:10.900188 31041 net.cpp:139] Memory required for data: 4954880
I0428 20:07:10.900192 31041 layer_factory.hpp:77] Creating layer loss
I0428 20:07:10.900197 31041 net.cpp:86] Creating Layer loss
I0428 20:07:10.900200 31041 net.cpp:408] loss <- ip3
I0428 20:07:10.900204 31041 net.cpp:408] loss <- label
I0428 20:07:10.900209 31041 net.cpp:382] loss -> loss
I0428 20:07:10.900228 31041 layer_factory.hpp:77] Creating layer loss
…
I0428 20:07:10.900895 31041 solver.cpp:173] Creating test net (#0) specified by net file: ECE595/mnist/train_test/var_everything2/lenet_train_test1048.prototxt
I0428 20:07:10.900938 31041 net.cpp:296] The NetState phase (1) differed from the phase (0) specified by a rule in layer mnist
I0428 20:07:10.901031 31041 net.cpp:53] Initializing net from parameters: 
name: "LeNet"
state {
  phase: TEST
}
layer {
  name: "mnist"
  type: "Data"
  top: "data"
  top: "label"
  include {
    phase: TEST
  }
  transform_param {
    scale: 0.00390625
  }
  data_param {
    source: "examples/mnist/mnist_test_lmdb"
    batch_size: 100
    backend: LMDB
  }
}
layer {
  name: "conv0"
  type: "Convolution"
  bottom: "data"
  top: "conv0"
  param {
    lr_mult: 1
  }
  param {
    lr_mult: 2
  }
  convolution_param {
    num_output: 25
    kernel_size: 5
    stride: 1
    weight_filler {
      type: "xavier"
    }
    bias_filler {
      type: "constant"
    }
  }
}
layer {
  name: "pool0"
  type: "Pooling"
  bottom: "conv0"
  top: "pool0"
  pooling_param {
    pool: MAX
    kernel_size: 2
    stride: 2
  }
}
layer {
  name: "conv1"
  type: "Convolution"
  bottom: "pool0"
  top: "conv1"
  param {
    lr_mult: 1
  }
  param {
    lr_mult: 2
  }
  convolution_param {
    num_output: 5
    kernel_size: 5
    stride: 1
    weight_filler {
      type: "xavier"
    }
    bias_filler {
      type: "constant"
    }
  }
}
layer {
  name: "pool1"
  type: "Pooling"
  bottom: "conv1"
  top: "pool1"
  pooling_param {
    pool: MAX
    kernel_size: 2
    stride: 2
  }
}
layer {
  name: "ip1"
  type: "InnerProduct"
  bottom: "pool1"
  top: "ip1"
  param {
    lr_mult: 1
  }
  param {
    lr_mult: 2
  }
  inner_product_param {
    num_output: 50
    weight_filler {
      type: "xavier"
    }
    bias_filler {
      type: "constant"
    }
  }
}
layer {
  name: "relu1"
  type: "ReLU"
  bottom: "ip1"
  top: "ip1"
}
layer {
  name: "ip2"
  type: "InnerProduct"
  bottom: "ip1"
  top: "ip2"
  param {
    lr_mult: 1
  }
  param {
    lr_mult: 2
  }
  inner_product_param {
    num_output: 25
    weight_filler {
      type: "xavier"
    }
    bias_filler {
      type: "constant"
    }
  }
}
layer {
  name: "relu2"
  type: "ReLU"
  bottom: "ip2"
  top: "ip2"
}
layer {
  name: "ip3"
  type: "InnerProduct"
  bottom: "ip2"
  top: "ip3"
  param {
    lr_mult: 1
  }
  param {
    lr_mult: 2
  }
  inner_product_param {
    num_output: 10
    weight_filler {
      type: "xavier"
    }
    bias_filler {
      type: "constant"
    }
  }
}
layer {
  name: "relu3"
  type: "ReLU"
  bottom: "ip3"
  top: "ip3"
}
layer {
  name: "accuracy"
  type: "Accuracy"
  bottom: "ip3"
  bottom: "label"
  top: "accuracy"
  include {
    phase: TEST
  }
}
layer {
  name: "loss"
  type: "SoftmaxWithLoss"
  bottom: "ip3"
  bottom: "label"
  top: "loss"
}
I0428 20:07:10.901108 31041 layer_factory.hpp:77] Creating layer mnist
I0428 20:07:10.901168 31041 db_lmdb.cpp:35] Opened lmdb examples/mnist/mnist_test_lmdb
I0428 20:07:10.901180 31041 net.cpp:86] Creating Layer mnist
I0428 20:07:10.901185 31041 net.cpp:382] mnist -> data
I0428 20:07:10.901193 31041 net.cpp:382] mnist -> label
I0428 20:07:10.901278 31041 data_layer.cpp:45] output data size: 100,1,28,28
I0428 20:07:10.903405 31041 net.cpp:124] Setting up mnist
I0428 20:07:10.903434 31041 net.cpp:131] Top shape: 100 1 28 28 (78400)
I0428 20:07:10.903439 31041 net.cpp:131] Top shape: 100 (100)
I0428 20:07:10.903443 31041 net.cpp:139] Memory required for data: 314000
I0428 20:07:10.903447 31041 layer_factory.hpp:77] Creating layer label_mnist_1_split
I0428 20:07:10.903482 31041 net.cpp:86] Creating Layer label_mnist_1_split
I0428 20:07:10.903487 31041 net.cpp:408] label_mnist_1_split <- label
I0428 20:07:10.903492 31041 net.cpp:382] label_mnist_1_split -> label_mnist_1_split_0
I0428 20:07:10.903499 31041 net.cpp:382] label_mnist_1_split -> label_mnist_1_split_1
I0428 20:07:10.903554 31041 net.cpp:124] Setting up label_mnist_1_split
I0428 20:07:10.903560 31041 net.cpp:131] Top shape: 100 (100)
I0428 20:07:10.903564 31041 net.cpp:131] Top shape: 100 (100)
I0428 20:07:10.903568 31041 net.cpp:139] Memory required for data: 314800
I0428 20:07:10.903570 31041 layer_factory.hpp:77] Creating layer conv0
I0428 20:07:10.903578 31041 net.cpp:86] Creating Layer conv0
I0428 20:07:10.903581 31041 net.cpp:408] conv0 <- data
I0428 20:07:10.903586 31041 net.cpp:382] conv0 -> conv0
I0428 20:07:10.905477 31041 net.cpp:124] Setting up conv0
I0428 20:07:10.905490 31041 net.cpp:131] Top shape: 100 25 24 24 (1440000)
I0428 20:07:10.905505 31041 net.cpp:139] Memory required for data: 6074800
I0428 20:07:10.905515 31041 layer_factory.hpp:77] Creating layer pool0
I0428 20:07:10.905536 31041 net.cpp:86] Creating Layer pool0
I0428 20:07:10.905540 31041 net.cpp:408] pool0 <- conv0
I0428 20:07:10.905545 31041 net.cpp:382] pool0 -> pool0
I0428 20:07:10.905581 31041 net.cpp:124] Setting up pool0
I0428 20:07:10.905587 31041 net.cpp:131] Top shape: 100 25 12 12 (360000)
I0428 20:07:10.905591 31041 net.cpp:139] Memory required for data: 7514800
I0428 20:07:10.905593 31041 layer_factory.hpp:77] Creating layer conv1
I0428 20:07:10.905601 31041 net.cpp:86] Creating Layer conv1
I0428 20:07:10.905606 31041 net.cpp:408] conv1 <- pool0
I0428 20:07:10.905609 31041 net.cpp:382] conv1 -> conv1
I0428 20:07:10.907862 31041 net.cpp:124] Setting up conv1
I0428 20:07:10.907876 31041 net.cpp:131] Top shape: 100 5 8 8 (32000)
I0428 20:07:10.907881 31041 net.cpp:139] Memory required for data: 7642800
I0428 20:07:10.907889 31041 layer_factory.hpp:77] Creating layer pool1
I0428 20:07:10.907912 31041 net.cpp:86] Creating Layer pool1
I0428 20:07:10.907915 31041 net.cpp:408] pool1 <- conv1
I0428 20:07:10.907920 31041 net.cpp:382] pool1 -> pool1
I0428 20:07:10.907960 31041 net.cpp:124] Setting up pool1
I0428 20:07:10.907974 31041 net.cpp:131] Top shape: 100 5 4 4 (8000)
I0428 20:07:10.907976 31041 net.cpp:139] Memory required for data: 7674800
I0428 20:07:10.907979 31041 layer_factory.hpp:77] Creating layer ip1
I0428 20:07:10.908006 31041 net.cpp:86] Creating Layer ip1
I0428 20:07:10.908010 31041 net.cpp:408] ip1 <- pool1
I0428 20:07:10.908023 31041 net.cpp:382] ip1 -> ip1
I0428 20:07:10.908154 31041 net.cpp:124] Setting up ip1
I0428 20:07:10.908160 31041 net.cpp:131] Top shape: 100 50 (5000)
I0428 20:07:10.908174 31041 net.cpp:139] Memory required for data: 7694800
I0428 20:07:10.908181 31041 layer_factory.hpp:77] Creating layer relu1
I0428 20:07:10.908186 31041 net.cpp:86] Creating Layer relu1
I0428 20:07:10.908190 31041 net.cpp:408] relu1 <- ip1
I0428 20:07:10.908193 31041 net.cpp:369] relu1 -> ip1 (in-place)
I0428 20:07:10.908460 31041 net.cpp:124] Setting up relu1
I0428 20:07:10.908469 31041 net.cpp:131] Top shape: 100 50 (5000)
I0428 20:07:10.908473 31041 net.cpp:139] Memory required for data: 7714800
I0428 20:07:10.908476 31041 layer_factory.hpp:77] Creating layer ip2
I0428 20:07:10.908489 31041 net.cpp:86] Creating Layer ip2
I0428 20:07:10.908493 31041 net.cpp:408] ip2 <- ip1
I0428 20:07:10.908498 31041 net.cpp:382] ip2 -> ip2
I0428 20:07:10.908608 31041 net.cpp:124] Setting up ip2
I0428 20:07:10.908615 31041 net.cpp:131] Top shape: 100 25 (2500)
I0428 20:07:10.908618 31041 net.cpp:139] Memory required for data: 7724800
I0428 20:07:10.908623 31041 layer_factory.hpp:77] Creating layer relu2
I0428 20:07:10.908627 31041 net.cpp:86] Creating Layer relu2
I0428 20:07:10.908630 31041 net.cpp:408] relu2 <- ip2
I0428 20:07:10.908640 31041 net.cpp:369] relu2 -> ip2 (in-place)
I0428 20:07:10.908793 31041 net.cpp:124] Setting up relu2
I0428 20:07:10.908802 31041 net.cpp:131] Top shape: 100 25 (2500)
I0428 20:07:10.908804 31041 net.cpp:139] Memory required for data: 7734800
I0428 20:07:10.908807 31041 layer_factory.hpp:77] Creating layer ip3
I0428 20:07:10.908830 31041 net.cpp:86] Creating Layer ip3
I0428 20:07:10.908840 31041 net.cpp:408] ip3 <- ip2
I0428 20:07:10.908845 31041 net.cpp:382] ip3 -> ip3
I0428 20:07:10.908936 31041 net.cpp:124] Setting up ip3
I0428 20:07:10.908943 31041 net.cpp:131] Top shape: 100 10 (1000)
I0428 20:07:10.908947 31041 net.cpp:139] Memory required for data: 7738800
I0428 20:07:10.908954 31041 layer_factory.hpp:77] Creating layer relu3
I0428 20:07:10.908958 31041 net.cpp:86] Creating Layer relu3
I0428 20:07:10.908977 31041 net.cpp:408] relu3 <- ip3
I0428 20:07:10.908982 31041 net.cpp:369] relu3 -> ip3 (in-place)
I0428 20:07:10.909756 31041 net.cpp:124] Setting up relu3
I0428 20:07:10.909768 31041 net.cpp:131] Top shape: 100 10 (1000)
I0428 20:07:10.909771 31041 net.cpp:139] Memory required for data: 7742800
I0428 20:07:10.909775 31041 layer_factory.hpp:77] Creating layer ip3_relu3_0_split
I0428 20:07:10.909780 31041 net.cpp:86] Creating Layer ip3_relu3_0_split
I0428 20:07:10.909782 31041 net.cpp:408] ip3_relu3_0_split <- ip3
I0428 20:07:10.909787 31041 net.cpp:382] ip3_relu3_0_split -> ip3_relu3_0_split_0
I0428 20:07:10.909793 31041 net.cpp:382] ip3_relu3_0_split -> ip3_relu3_0_split_1
I0428 20:07:10.909848 31041 net.cpp:124] Setting up ip3_relu3_0_split
I0428 20:07:10.909854 31041 net.cpp:131] Top shape: 100 10 (1000)
I0428 20:07:10.909858 31041 net.cpp:131] Top shape: 100 10 (1000)
I0428 20:07:10.909860 31041 net.cpp:139] Memory required for data: 7750800
I0428 20:07:10.909863 31041 layer_factory.hpp:77] Creating layer accuracy
I0428 20:07:10.909868 31041 net.cpp:86] Creating Layer accuracy
I0428 20:07:10.909871 31041 net.cpp:408] accuracy <- ip3_relu3_0_split_0
I0428 20:07:10.909875 31041 net.cpp:408] accuracy <- label_mnist_1_split_0
I0428 20:07:10.909879 31041 net.cpp:382] accuracy -> accuracy
…
