…
I0428 19:31:36.311259 22620 net.cpp:296] The NetState phase (0) differed from the phase (1) specified by a rule in layer mnist
I0428 19:31:36.311275 22620 net.cpp:296] The NetState phase (0) differed from the phase (1) specified by a rule in layer accuracy
I0428 19:31:36.311353 22620 net.cpp:53] Initializing net from parameters: 
name: "LeNet"
state {
  phase: TRAIN
  level: 0
  stage: ""
}
layer {
  name: "mnist"
  type: "Data"
  top: "data"
  top: "label"
  include {
    phase: TRAIN
  }
  transform_param {
    scale: 0.00390625
  }
  data_param {
    source: "examples/mnist/mnist_train_lmdb"
    batch_size: 64
    backend: LMDB
  }
}
layer {
  name: "conv0"
  type: "Convolution"
  bottom: "data"
  top: "conv0"
  param {
    lr_mult: 1
  }
  param {
    lr_mult: 2
  }
  convolution_param {
    num_output: 10
    kernel_size: 5
    stride: 1
    weight_filler {
      type: "xavier"
    }
    bias_filler {
      type: "constant"
    }
  }
}
layer {
  name: "pool0"
  type: "Pooling"
  bottom: "conv0"
  top: "pool0"
  pooling_param {
    pool: MAX
    kernel_size: 2
    stride: 2
  }
}
layer {
  name: "ip1"
  type: "InnerProduct"
  bottom: "pool0"
  top: "ip1"
  param {
    lr_mult: 1
  }
  param {
    lr_mult: 2
  }
  inner_product_param {
    num_output: 50
    weight_filler {
      type: "xavier"
    }
    bias_filler {
      type: "constant"
    }
  }
}
layer {
  name: "relu1"
  type: "ReLU"
  bottom: "ip1"
  top: "ip1"
}
layer {
  name: "ip2"
  type: "InnerProduct"
  bottom: "ip1"
  top: "ip2"
  param {
    lr_mult: 1
  }
  param {
    lr_mult: 2
  }
  inner_product_param {
    num_output: 10
    weight_filler {
      type: "xavier"
    }
    bias_filler {
      type: "constant"
    }
  }
}
layer {
  name: "relu2"
  type: "ReLU"
  bottom: "ip2"
  top: "ip2"
}
layer {
  name: "loss"
  type: "SoftmaxWithLoss"
  bottom: "ip2"
  bottom: "label"
  top: "loss"
}
I0428 19:31:36.311417 22620 layer_factory.hpp:77] Creating layer mnist
I0428 19:31:36.311517 22620 db_lmdb.cpp:35] Opened lmdb examples/mnist/mnist_train_lmdb
I0428 19:31:36.311539 22620 net.cpp:86] Creating Layer mnist
I0428 19:31:36.311547 22620 net.cpp:382] mnist -> data
I0428 19:31:36.311568 22620 net.cpp:382] mnist -> label
I0428 19:31:36.312605 22620 data_layer.cpp:45] output data size: 64,1,28,28
I0428 19:31:36.315008 22620 net.cpp:124] Setting up mnist
I0428 19:31:36.315027 22620 net.cpp:131] Top shape: 64 1 28 28 (50176)
I0428 19:31:36.315034 22620 net.cpp:131] Top shape: 64 (64)
I0428 19:31:36.315037 22620 net.cpp:139] Memory required for data: 200960
I0428 19:31:36.315044 22620 layer_factory.hpp:77] Creating layer conv0
I0428 19:31:36.315071 22620 net.cpp:86] Creating Layer conv0
I0428 19:31:36.315078 22620 net.cpp:408] conv0 <- data
I0428 19:31:36.315089 22620 net.cpp:382] conv0 -> conv0
I0428 19:31:36.591922 22620 net.cpp:124] Setting up conv0
I0428 19:31:36.591948 22620 net.cpp:131] Top shape: 64 10 24 24 (368640)
I0428 19:31:36.591953 22620 net.cpp:139] Memory required for data: 1675520
I0428 19:31:36.591967 22620 layer_factory.hpp:77] Creating layer pool0
I0428 19:31:36.591979 22620 net.cpp:86] Creating Layer pool0
I0428 19:31:36.591984 22620 net.cpp:408] pool0 <- conv0
I0428 19:31:36.591989 22620 net.cpp:382] pool0 -> pool0
I0428 19:31:36.592033 22620 net.cpp:124] Setting up pool0
I0428 19:31:36.592038 22620 net.cpp:131] Top shape: 64 10 12 12 (92160)
I0428 19:31:36.592041 22620 net.cpp:139] Memory required for data: 2044160
I0428 19:31:36.592059 22620 layer_factory.hpp:77] Creating layer ip1
I0428 19:31:36.592067 22620 net.cpp:86] Creating Layer ip1
I0428 19:31:36.592072 22620 net.cpp:408] ip1 <- pool0
I0428 19:31:36.592075 22620 net.cpp:382] ip1 -> ip1
I0428 19:31:36.593533 22620 net.cpp:124] Setting up ip1
I0428 19:31:36.593561 22620 net.cpp:131] Top shape: 64 50 (3200)
I0428 19:31:36.593564 22620 net.cpp:139] Memory required for data: 2056960
I0428 19:31:36.593574 22620 layer_factory.hpp:77] Creating layer relu1
I0428 19:31:36.593580 22620 net.cpp:86] Creating Layer relu1
I0428 19:31:36.593583 22620 net.cpp:408] relu1 <- ip1
I0428 19:31:36.593587 22620 net.cpp:369] relu1 -> ip1 (in-place)
I0428 19:31:36.593767 22620 net.cpp:124] Setting up relu1
I0428 19:31:36.593777 22620 net.cpp:131] Top shape: 64 50 (3200)
I0428 19:31:36.593780 22620 net.cpp:139] Memory required for data: 2069760
I0428 19:31:36.593783 22620 layer_factory.hpp:77] Creating layer ip2
I0428 19:31:36.593791 22620 net.cpp:86] Creating Layer ip2
I0428 19:31:36.593794 22620 net.cpp:408] ip2 <- ip1
I0428 19:31:36.593798 22620 net.cpp:382] ip2 -> ip2
I0428 19:31:36.593916 22620 net.cpp:124] Setting up ip2
I0428 19:31:36.593924 22620 net.cpp:131] Top shape: 64 10 (640)
I0428 19:31:36.593927 22620 net.cpp:139] Memory required for data: 2072320
I0428 19:31:36.593935 22620 layer_factory.hpp:77] Creating layer relu2
I0428 19:31:36.593941 22620 net.cpp:86] Creating Layer relu2
I0428 19:31:36.593945 22620 net.cpp:408] relu2 <- ip2
I0428 19:31:36.593950 22620 net.cpp:369] relu2 -> ip2 (in-place)
I0428 19:31:36.594745 22620 net.cpp:124] Setting up relu2
I0428 19:31:36.594774 22620 net.cpp:131] Top shape: 64 10 (640)
I0428 19:31:36.594777 22620 net.cpp:139] Memory required for data: 2074880
I0428 19:31:36.594781 22620 layer_factory.hpp:77] Creating layer loss
I0428 19:31:36.594787 22620 net.cpp:86] Creating Layer loss
I0428 19:31:36.594791 22620 net.cpp:408] loss <- ip2
I0428 19:31:36.594795 22620 net.cpp:408] loss <- label
I0428 19:31:36.594801 22620 net.cpp:382] loss -> loss
I0428 19:31:36.594815 22620 layer_factory.hpp:77] Creating layer loss
…
I0428 19:31:36.595402 22620 solver.cpp:173] Creating test net (#0) specified by net file: ECE595/mnist/train_test/var_everything2/lenet_train_test127.prototxt
I0428 19:31:36.595427 22620 net.cpp:296] The NetState phase (1) differed from the phase (0) specified by a rule in layer mnist
I0428 19:31:36.595502 22620 net.cpp:53] Initializing net from parameters: 
name: "LeNet"
state {
  phase: TEST
}
layer {
  name: "mnist"
  type: "Data"
  top: "data"
  top: "label"
  include {
    phase: TEST
  }
  transform_param {
    scale: 0.00390625
  }
  data_param {
    source: "examples/mnist/mnist_test_lmdb"
    batch_size: 100
    backend: LMDB
  }
}
layer {
  name: "conv0"
  type: "Convolution"
  bottom: "data"
  top: "conv0"
  param {
    lr_mult: 1
  }
  param {
    lr_mult: 2
  }
  convolution_param {
    num_output: 10
    kernel_size: 5
    stride: 1
    weight_filler {
      type: "xavier"
    }
    bias_filler {
      type: "constant"
    }
  }
}
layer {
  name: "pool0"
  type: "Pooling"
  bottom: "conv0"
  top: "pool0"
  pooling_param {
    pool: MAX
    kernel_size: 2
    stride: 2
  }
}
layer {
  name: "ip1"
  type: "InnerProduct"
  bottom: "pool0"
  top: "ip1"
  param {
    lr_mult: 1
  }
  param {
    lr_mult: 2
  }
  inner_product_param {
    num_output: 50
    weight_filler {
      type: "xavier"
    }
    bias_filler {
      type: "constant"
    }
  }
}
layer {
  name: "relu1"
  type: "ReLU"
  bottom: "ip1"
  top: "ip1"
}
layer {
  name: "ip2"
  type: "InnerProduct"
  bottom: "ip1"
  top: "ip2"
  param {
    lr_mult: 1
  }
  param {
    lr_mult: 2
  }
  inner_product_param {
    num_output: 10
    weight_filler {
      type: "xavier"
    }
    bias_filler {
      type: "constant"
    }
  }
}
layer {
  name: "relu2"
  type: "ReLU"
  bottom: "ip2"
  top: "ip2"
}
layer {
  name: "accuracy"
  type: "Accuracy"
  bottom: "ip2"
  bottom: "label"
  top: "accuracy"
  include {
    phase: TEST
  }
}
layer {
  name: "loss"
  type: "SoftmaxWithLoss"
  bottom: "ip2"
  bottom: "label"
  top: "loss"
}
I0428 19:31:36.595582 22620 layer_factory.hpp:77] Creating layer mnist
I0428 19:31:36.595626 22620 db_lmdb.cpp:35] Opened lmdb examples/mnist/mnist_test_lmdb
I0428 19:31:36.595640 22620 net.cpp:86] Creating Layer mnist
I0428 19:31:36.595645 22620 net.cpp:382] mnist -> data
I0428 19:31:36.595652 22620 net.cpp:382] mnist -> label
I0428 19:31:36.595754 22620 data_layer.cpp:45] output data size: 100,1,28,28
I0428 19:31:36.597106 22620 net.cpp:124] Setting up mnist
I0428 19:31:36.597121 22620 net.cpp:131] Top shape: 100 1 28 28 (78400)
I0428 19:31:36.597126 22620 net.cpp:131] Top shape: 100 (100)
I0428 19:31:36.597129 22620 net.cpp:139] Memory required for data: 314000
I0428 19:31:36.597132 22620 layer_factory.hpp:77] Creating layer label_mnist_1_split
I0428 19:31:36.597141 22620 net.cpp:86] Creating Layer label_mnist_1_split
I0428 19:31:36.597144 22620 net.cpp:408] label_mnist_1_split <- label
I0428 19:31:36.597163 22620 net.cpp:382] label_mnist_1_split -> label_mnist_1_split_0
I0428 19:31:36.597169 22620 net.cpp:382] label_mnist_1_split -> label_mnist_1_split_1
I0428 19:31:36.597259 22620 net.cpp:124] Setting up label_mnist_1_split
I0428 19:31:36.597266 22620 net.cpp:131] Top shape: 100 (100)
I0428 19:31:36.597270 22620 net.cpp:131] Top shape: 100 (100)
I0428 19:31:36.597273 22620 net.cpp:139] Memory required for data: 314800
I0428 19:31:36.597276 22620 layer_factory.hpp:77] Creating layer conv0
I0428 19:31:36.597285 22620 net.cpp:86] Creating Layer conv0
I0428 19:31:36.597291 22620 net.cpp:408] conv0 <- data
I0428 19:31:36.597314 22620 net.cpp:382] conv0 -> conv0
I0428 19:31:36.599122 22620 net.cpp:124] Setting up conv0
I0428 19:31:36.599134 22620 net.cpp:131] Top shape: 100 10 24 24 (576000)
I0428 19:31:36.599138 22620 net.cpp:139] Memory required for data: 2618800
I0428 19:31:36.599148 22620 layer_factory.hpp:77] Creating layer pool0
I0428 19:31:36.599159 22620 net.cpp:86] Creating Layer pool0
I0428 19:31:36.599164 22620 net.cpp:408] pool0 <- conv0
I0428 19:31:36.599169 22620 net.cpp:382] pool0 -> pool0
I0428 19:31:36.599205 22620 net.cpp:124] Setting up pool0
I0428 19:31:36.599211 22620 net.cpp:131] Top shape: 100 10 12 12 (144000)
I0428 19:31:36.599215 22620 net.cpp:139] Memory required for data: 3194800
I0428 19:31:36.599217 22620 layer_factory.hpp:77] Creating layer ip1
I0428 19:31:36.599231 22620 net.cpp:86] Creating Layer ip1
I0428 19:31:36.599236 22620 net.cpp:408] ip1 <- pool0
I0428 19:31:36.599239 22620 net.cpp:382] ip1 -> ip1
I0428 19:31:36.599752 22620 net.cpp:124] Setting up ip1
I0428 19:31:36.599759 22620 net.cpp:131] Top shape: 100 50 (5000)
I0428 19:31:36.599762 22620 net.cpp:139] Memory required for data: 3214800
I0428 19:31:36.599786 22620 layer_factory.hpp:77] Creating layer relu1
I0428 19:31:36.599793 22620 net.cpp:86] Creating Layer relu1
I0428 19:31:36.599797 22620 net.cpp:408] relu1 <- ip1
I0428 19:31:36.599802 22620 net.cpp:369] relu1 -> ip1 (in-place)
I0428 19:31:36.600119 22620 net.cpp:124] Setting up relu1
I0428 19:31:36.600142 22620 net.cpp:131] Top shape: 100 50 (5000)
I0428 19:31:36.600158 22620 net.cpp:139] Memory required for data: 3234800
I0428 19:31:36.600162 22620 layer_factory.hpp:77] Creating layer ip2
I0428 19:31:36.600169 22620 net.cpp:86] Creating Layer ip2
I0428 19:31:36.600172 22620 net.cpp:408] ip2 <- ip1
I0428 19:31:36.600178 22620 net.cpp:382] ip2 -> ip2
I0428 19:31:36.600301 22620 net.cpp:124] Setting up ip2
I0428 19:31:36.600308 22620 net.cpp:131] Top shape: 100 10 (1000)
I0428 19:31:36.600311 22620 net.cpp:139] Memory required for data: 3238800
I0428 19:31:36.600319 22620 layer_factory.hpp:77] Creating layer relu2
I0428 19:31:36.600325 22620 net.cpp:86] Creating Layer relu2
I0428 19:31:36.600329 22620 net.cpp:408] relu2 <- ip2
I0428 19:31:36.600338 22620 net.cpp:369] relu2 -> ip2 (in-place)
I0428 19:31:36.600494 22620 net.cpp:124] Setting up relu2
I0428 19:31:36.600502 22620 net.cpp:131] Top shape: 100 10 (1000)
I0428 19:31:36.600505 22620 net.cpp:139] Memory required for data: 3242800
I0428 19:31:36.600509 22620 layer_factory.hpp:77] Creating layer ip2_relu2_0_split
I0428 19:31:36.600514 22620 net.cpp:86] Creating Layer ip2_relu2_0_split
I0428 19:31:36.600517 22620 net.cpp:408] ip2_relu2_0_split <- ip2
I0428 19:31:36.600522 22620 net.cpp:382] ip2_relu2_0_split -> ip2_relu2_0_split_0
I0428 19:31:36.600535 22620 net.cpp:382] ip2_relu2_0_split -> ip2_relu2_0_split_1
I0428 19:31:36.600571 22620 net.cpp:124] Setting up ip2_relu2_0_split
I0428 19:31:36.600577 22620 net.cpp:131] Top shape: 100 10 (1000)
I0428 19:31:36.600580 22620 net.cpp:131] Top shape: 100 10 (1000)
I0428 19:31:36.600584 22620 net.cpp:139] Memory required for data: 3250800
I0428 19:31:36.600586 22620 layer_factory.hpp:77] Creating layer accuracy
I0428 19:31:36.600596 22620 net.cpp:86] Creating Layer accuracy
I0428 19:31:36.600600 22620 net.cpp:408] accuracy <- ip2_relu2_0_split_0
I0428 19:31:36.600603 22620 net.cpp:408] accuracy <- label_mnist_1_split_0
I0428 19:31:36.600613 22620 net.cpp:382] accuracy -> accuracy
…
