…
I0428 20:09:40.793877 31677 net.cpp:296] The NetState phase (0) differed from the phase (1) specified by a rule in layer mnist
I0428 20:09:40.793896 31677 net.cpp:296] The NetState phase (0) differed from the phase (1) specified by a rule in layer accuracy
I0428 20:09:40.793993 31677 net.cpp:53] Initializing net from parameters: 
name: "LeNet"
state {
  phase: TRAIN
  level: 0
  stage: ""
}
layer {
  name: "mnist"
  type: "Data"
  top: "data"
  top: "label"
  include {
    phase: TRAIN
  }
  transform_param {
    scale: 0.00390625
  }
  data_param {
    source: "examples/mnist/mnist_train_lmdb"
    batch_size: 64
    backend: LMDB
  }
}
layer {
  name: "conv0"
  type: "Convolution"
  bottom: "data"
  top: "conv0"
  param {
    lr_mult: 1
  }
  param {
    lr_mult: 2
  }
  convolution_param {
    num_output: 25
    kernel_size: 5
    stride: 1
    weight_filler {
      type: "xavier"
    }
    bias_filler {
      type: "constant"
    }
  }
}
layer {
  name: "pool0"
  type: "Pooling"
  bottom: "conv0"
  top: "pool0"
  pooling_param {
    pool: MAX
    kernel_size: 2
    stride: 2
  }
}
layer {
  name: "conv1"
  type: "Convolution"
  bottom: "pool0"
  top: "conv1"
  param {
    lr_mult: 1
  }
  param {
    lr_mult: 2
  }
  convolution_param {
    num_output: 25
    kernel_size: 5
    stride: 1
    weight_filler {
      type: "xavier"
    }
    bias_filler {
      type: "constant"
    }
  }
}
layer {
  name: "pool1"
  type: "Pooling"
  bottom: "conv1"
  top: "pool1"
  pooling_param {
    pool: MAX
    kernel_size: 2
    stride: 2
  }
}
layer {
  name: "ip1"
  type: "InnerProduct"
  bottom: "pool1"
  top: "ip1"
  param {
    lr_mult: 1
  }
  param {
    lr_mult: 2
  }
  inner_product_param {
    num_output: 25
    weight_filler {
      type: "xavier"
    }
    bias_filler {
      type: "constant"
    }
  }
}
layer {
  name: "relu1"
  type: "ReLU"
  bottom: "ip1"
  top: "ip1"
}
layer {
  name: "ip2"
  type: "InnerProduct"
  bottom: "ip1"
  top: "ip2"
  param {
    lr_mult: 1
  }
  param {
    lr_mult: 2
  }
  inner_product_param {
    num_output: 10
    weight_filler {
      type: "xavier"
    }
    bias_filler {
      type: "constant"
    }
  }
}
layer {
  name: "relu2"
  type: "ReLU"
  bottom: "ip2"
  top: "ip2"
}
layer {
  name: "ip3"
  type: "InnerProduct"
  bottom: "ip2"
  top: "ip3"
  param {
    lr_mult: 1
  }
  param {
    lr_mult: 2
  }
  inner_product_param {
    num_output: 10
    weight_filler {
      type: "xavier"
    }
    bias_filler {
      type: "constant"
    }
  }
}
layer {
  name: "relu3"
  type: "ReLU"
  bottom: "ip3"
  top: "ip3"
}
layer {
  name: "loss"
  type: "SoftmaxWithLoss"
  bottom: "ip3"
  bottom: "label"
  top: "loss"
}
I0428 20:09:40.794068 31677 layer_factory.hpp:77] Creating layer mnist
I0428 20:09:40.794163 31677 db_lmdb.cpp:35] Opened lmdb examples/mnist/mnist_train_lmdb
I0428 20:09:40.794186 31677 net.cpp:86] Creating Layer mnist
I0428 20:09:40.794194 31677 net.cpp:382] mnist -> data
I0428 20:09:40.794216 31677 net.cpp:382] mnist -> label
I0428 20:09:40.795298 31677 data_layer.cpp:45] output data size: 64,1,28,28
I0428 20:09:40.797742 31677 net.cpp:124] Setting up mnist
I0428 20:09:40.797767 31677 net.cpp:131] Top shape: 64 1 28 28 (50176)
I0428 20:09:40.797782 31677 net.cpp:131] Top shape: 64 (64)
I0428 20:09:40.797785 31677 net.cpp:139] Memory required for data: 200960
I0428 20:09:40.797793 31677 layer_factory.hpp:77] Creating layer conv0
I0428 20:09:40.797808 31677 net.cpp:86] Creating Layer conv0
I0428 20:09:40.797827 31677 net.cpp:408] conv0 <- data
I0428 20:09:40.797839 31677 net.cpp:382] conv0 -> conv0
I0428 20:09:41.079833 31677 net.cpp:124] Setting up conv0
I0428 20:09:41.079859 31677 net.cpp:131] Top shape: 64 25 24 24 (921600)
I0428 20:09:41.079864 31677 net.cpp:139] Memory required for data: 3887360
I0428 20:09:41.079879 31677 layer_factory.hpp:77] Creating layer pool0
I0428 20:09:41.079891 31677 net.cpp:86] Creating Layer pool0
I0428 20:09:41.079895 31677 net.cpp:408] pool0 <- conv0
I0428 20:09:41.079900 31677 net.cpp:382] pool0 -> pool0
I0428 20:09:41.079943 31677 net.cpp:124] Setting up pool0
I0428 20:09:41.079951 31677 net.cpp:131] Top shape: 64 25 12 12 (230400)
I0428 20:09:41.079954 31677 net.cpp:139] Memory required for data: 4808960
I0428 20:09:41.079957 31677 layer_factory.hpp:77] Creating layer conv1
I0428 20:09:41.079968 31677 net.cpp:86] Creating Layer conv1
I0428 20:09:41.079972 31677 net.cpp:408] conv1 <- pool0
I0428 20:09:41.079977 31677 net.cpp:382] conv1 -> conv1
I0428 20:09:41.082886 31677 net.cpp:124] Setting up conv1
I0428 20:09:41.082901 31677 net.cpp:131] Top shape: 64 25 8 8 (102400)
I0428 20:09:41.082904 31677 net.cpp:139] Memory required for data: 5218560
I0428 20:09:41.082913 31677 layer_factory.hpp:77] Creating layer pool1
I0428 20:09:41.082921 31677 net.cpp:86] Creating Layer pool1
I0428 20:09:41.082923 31677 net.cpp:408] pool1 <- conv1
I0428 20:09:41.082928 31677 net.cpp:382] pool1 -> pool1
I0428 20:09:41.082963 31677 net.cpp:124] Setting up pool1
I0428 20:09:41.082969 31677 net.cpp:131] Top shape: 64 25 4 4 (25600)
I0428 20:09:41.082973 31677 net.cpp:139] Memory required for data: 5320960
I0428 20:09:41.082975 31677 layer_factory.hpp:77] Creating layer ip1
I0428 20:09:41.082983 31677 net.cpp:86] Creating Layer ip1
I0428 20:09:41.082985 31677 net.cpp:408] ip1 <- pool1
I0428 20:09:41.082989 31677 net.cpp:382] ip1 -> ip1
I0428 20:09:41.083133 31677 net.cpp:124] Setting up ip1
I0428 20:09:41.083140 31677 net.cpp:131] Top shape: 64 25 (1600)
I0428 20:09:41.083143 31677 net.cpp:139] Memory required for data: 5327360
I0428 20:09:41.083150 31677 layer_factory.hpp:77] Creating layer relu1
I0428 20:09:41.083155 31677 net.cpp:86] Creating Layer relu1
I0428 20:09:41.083158 31677 net.cpp:408] relu1 <- ip1
I0428 20:09:41.083163 31677 net.cpp:369] relu1 -> ip1 (in-place)
I0428 20:09:41.083314 31677 net.cpp:124] Setting up relu1
I0428 20:09:41.083326 31677 net.cpp:131] Top shape: 64 25 (1600)
I0428 20:09:41.083330 31677 net.cpp:139] Memory required for data: 5333760
I0428 20:09:41.083335 31677 layer_factory.hpp:77] Creating layer ip2
I0428 20:09:41.083344 31677 net.cpp:86] Creating Layer ip2
I0428 20:09:41.083348 31677 net.cpp:408] ip2 <- ip1
I0428 20:09:41.083353 31677 net.cpp:382] ip2 -> ip2
I0428 20:09:41.083441 31677 net.cpp:124] Setting up ip2
I0428 20:09:41.083448 31677 net.cpp:131] Top shape: 64 10 (640)
I0428 20:09:41.083451 31677 net.cpp:139] Memory required for data: 5336320
I0428 20:09:41.083457 31677 layer_factory.hpp:77] Creating layer relu2
I0428 20:09:41.083462 31677 net.cpp:86] Creating Layer relu2
I0428 20:09:41.083465 31677 net.cpp:408] relu2 <- ip2
I0428 20:09:41.083469 31677 net.cpp:369] relu2 -> ip2 (in-place)
I0428 20:09:41.084187 31677 net.cpp:124] Setting up relu2
I0428 20:09:41.084199 31677 net.cpp:131] Top shape: 64 10 (640)
I0428 20:09:41.084203 31677 net.cpp:139] Memory required for data: 5338880
I0428 20:09:41.084206 31677 layer_factory.hpp:77] Creating layer ip3
I0428 20:09:41.084225 31677 net.cpp:86] Creating Layer ip3
I0428 20:09:41.084228 31677 net.cpp:408] ip3 <- ip2
I0428 20:09:41.084233 31677 net.cpp:382] ip3 -> ip3
I0428 20:09:41.084338 31677 net.cpp:124] Setting up ip3
I0428 20:09:41.084345 31677 net.cpp:131] Top shape: 64 10 (640)
I0428 20:09:41.084348 31677 net.cpp:139] Memory required for data: 5341440
I0428 20:09:41.084355 31677 layer_factory.hpp:77] Creating layer relu3
I0428 20:09:41.084360 31677 net.cpp:86] Creating Layer relu3
I0428 20:09:41.084363 31677 net.cpp:408] relu3 <- ip3
I0428 20:09:41.084367 31677 net.cpp:369] relu3 -> ip3 (in-place)
I0428 20:09:41.084532 31677 net.cpp:124] Setting up relu3
I0428 20:09:41.084542 31677 net.cpp:131] Top shape: 64 10 (640)
I0428 20:09:41.084544 31677 net.cpp:139] Memory required for data: 5344000
I0428 20:09:41.084547 31677 layer_factory.hpp:77] Creating layer loss
I0428 20:09:41.084553 31677 net.cpp:86] Creating Layer loss
I0428 20:09:41.084555 31677 net.cpp:408] loss <- ip3
I0428 20:09:41.084559 31677 net.cpp:408] loss <- label
I0428 20:09:41.084564 31677 net.cpp:382] loss -> loss
I0428 20:09:41.084578 31677 layer_factory.hpp:77] Creating layer loss
…
I0428 20:09:41.085316 31677 solver.cpp:173] Creating test net (#0) specified by net file: ECE595/mnist/train_test/var_everything2/lenet_train_test1115.prototxt
I0428 20:09:41.085342 31677 net.cpp:296] The NetState phase (1) differed from the phase (0) specified by a rule in layer mnist
I0428 20:09:41.085429 31677 net.cpp:53] Initializing net from parameters: 
name: "LeNet"
state {
  phase: TEST
}
layer {
  name: "mnist"
  type: "Data"
  top: "data"
  top: "label"
  include {
    phase: TEST
  }
  transform_param {
    scale: 0.00390625
  }
  data_param {
    source: "examples/mnist/mnist_test_lmdb"
    batch_size: 100
    backend: LMDB
  }
}
layer {
  name: "conv0"
  type: "Convolution"
  bottom: "data"
  top: "conv0"
  param {
    lr_mult: 1
  }
  param {
    lr_mult: 2
  }
  convolution_param {
    num_output: 25
    kernel_size: 5
    stride: 1
    weight_filler {
      type: "xavier"
    }
    bias_filler {
      type: "constant"
    }
  }
}
layer {
  name: "pool0"
  type: "Pooling"
  bottom: "conv0"
  top: "pool0"
  pooling_param {
    pool: MAX
    kernel_size: 2
    stride: 2
  }
}
layer {
  name: "conv1"
  type: "Convolution"
  bottom: "pool0"
  top: "conv1"
  param {
    lr_mult: 1
  }
  param {
    lr_mult: 2
  }
  convolution_param {
    num_output: 25
    kernel_size: 5
    stride: 1
    weight_filler {
      type: "xavier"
    }
    bias_filler {
      type: "constant"
    }
  }
}
layer {
  name: "pool1"
  type: "Pooling"
  bottom: "conv1"
  top: "pool1"
  pooling_param {
    pool: MAX
    kernel_size: 2
    stride: 2
  }
}
layer {
  name: "ip1"
  type: "InnerProduct"
  bottom: "pool1"
  top: "ip1"
  param {
    lr_mult: 1
  }
  param {
    lr_mult: 2
  }
  inner_product_param {
    num_output: 25
    weight_filler {
      type: "xavier"
    }
    bias_filler {
      type: "constant"
    }
  }
}
layer {
  name: "relu1"
  type: "ReLU"
  bottom: "ip1"
  top: "ip1"
}
layer {
  name: "ip2"
  type: "InnerProduct"
  bottom: "ip1"
  top: "ip2"
  param {
    lr_mult: 1
  }
  param {
    lr_mult: 2
  }
  inner_product_param {
    num_output: 10
    weight_filler {
      type: "xavier"
    }
    bias_filler {
      type: "constant"
    }
  }
}
layer {
  name: "relu2"
  type: "ReLU"
  bottom: "ip2"
  top: "ip2"
}
layer {
  name: "ip3"
  type: "InnerProduct"
  bottom: "ip2"
  top: "ip3"
  param {
    lr_mult: 1
  }
  param {
    lr_mult: 2
  }
  inner_product_param {
    num_output: 10
    weight_filler {
      type: "xavier"
    }
    bias_filler {
      type: "constant"
    }
  }
}
layer {
  name: "relu3"
  type: "ReLU"
  bottom: "ip3"
  top: "ip3"
}
layer {
  name: "accuracy"
  type: "Accuracy"
  bottom: "ip3"
  bottom: "label"
  top: "accuracy"
  include {
    phase: TEST
  }
}
layer {
  name: "loss"
  type: "SoftmaxWithLoss"
  bottom: "ip3"
  bottom: "label"
  top: "loss"
}
I0428 20:09:41.085505 31677 layer_factory.hpp:77] Creating layer mnist
I0428 20:09:41.085546 31677 db_lmdb.cpp:35] Opened lmdb examples/mnist/mnist_test_lmdb
I0428 20:09:41.085556 31677 net.cpp:86] Creating Layer mnist
I0428 20:09:41.085561 31677 net.cpp:382] mnist -> data
I0428 20:09:41.085568 31677 net.cpp:382] mnist -> label
I0428 20:09:41.085645 31677 data_layer.cpp:45] output data size: 100,1,28,28
I0428 20:09:41.087636 31677 net.cpp:124] Setting up mnist
I0428 20:09:41.087666 31677 net.cpp:131] Top shape: 100 1 28 28 (78400)
I0428 20:09:41.087671 31677 net.cpp:131] Top shape: 100 (100)
I0428 20:09:41.087673 31677 net.cpp:139] Memory required for data: 314000
I0428 20:09:41.087677 31677 layer_factory.hpp:77] Creating layer label_mnist_1_split
I0428 20:09:41.087683 31677 net.cpp:86] Creating Layer label_mnist_1_split
I0428 20:09:41.087687 31677 net.cpp:408] label_mnist_1_split <- label
I0428 20:09:41.087692 31677 net.cpp:382] label_mnist_1_split -> label_mnist_1_split_0
I0428 20:09:41.087698 31677 net.cpp:382] label_mnist_1_split -> label_mnist_1_split_1
I0428 20:09:41.087806 31677 net.cpp:124] Setting up label_mnist_1_split
I0428 20:09:41.087815 31677 net.cpp:131] Top shape: 100 (100)
I0428 20:09:41.087818 31677 net.cpp:131] Top shape: 100 (100)
I0428 20:09:41.087821 31677 net.cpp:139] Memory required for data: 314800
I0428 20:09:41.087824 31677 layer_factory.hpp:77] Creating layer conv0
I0428 20:09:41.087833 31677 net.cpp:86] Creating Layer conv0
I0428 20:09:41.087837 31677 net.cpp:408] conv0 <- data
I0428 20:09:41.087842 31677 net.cpp:382] conv0 -> conv0
I0428 20:09:41.089499 31677 net.cpp:124] Setting up conv0
I0428 20:09:41.089529 31677 net.cpp:131] Top shape: 100 25 24 24 (1440000)
I0428 20:09:41.089532 31677 net.cpp:139] Memory required for data: 6074800
I0428 20:09:41.089541 31677 layer_factory.hpp:77] Creating layer pool0
I0428 20:09:41.089550 31677 net.cpp:86] Creating Layer pool0
I0428 20:09:41.089552 31677 net.cpp:408] pool0 <- conv0
I0428 20:09:41.089557 31677 net.cpp:382] pool0 -> pool0
I0428 20:09:41.089607 31677 net.cpp:124] Setting up pool0
I0428 20:09:41.089613 31677 net.cpp:131] Top shape: 100 25 12 12 (360000)
I0428 20:09:41.089617 31677 net.cpp:139] Memory required for data: 7514800
I0428 20:09:41.089619 31677 layer_factory.hpp:77] Creating layer conv1
I0428 20:09:41.089627 31677 net.cpp:86] Creating Layer conv1
I0428 20:09:41.089630 31677 net.cpp:408] conv1 <- pool0
I0428 20:09:41.089635 31677 net.cpp:382] conv1 -> conv1
I0428 20:09:41.091868 31677 net.cpp:124] Setting up conv1
I0428 20:09:41.091897 31677 net.cpp:131] Top shape: 100 25 8 8 (160000)
I0428 20:09:41.091902 31677 net.cpp:139] Memory required for data: 8154800
I0428 20:09:41.091909 31677 layer_factory.hpp:77] Creating layer pool1
I0428 20:09:41.091918 31677 net.cpp:86] Creating Layer pool1
I0428 20:09:41.091922 31677 net.cpp:408] pool1 <- conv1
I0428 20:09:41.091927 31677 net.cpp:382] pool1 -> pool1
I0428 20:09:41.091979 31677 net.cpp:124] Setting up pool1
I0428 20:09:41.091998 31677 net.cpp:131] Top shape: 100 25 4 4 (40000)
I0428 20:09:41.092001 31677 net.cpp:139] Memory required for data: 8314800
I0428 20:09:41.092005 31677 layer_factory.hpp:77] Creating layer ip1
I0428 20:09:41.092010 31677 net.cpp:86] Creating Layer ip1
I0428 20:09:41.092013 31677 net.cpp:408] ip1 <- pool1
I0428 20:09:41.092017 31677 net.cpp:382] ip1 -> ip1
I0428 20:09:41.092219 31677 net.cpp:124] Setting up ip1
I0428 20:09:41.092227 31677 net.cpp:131] Top shape: 100 25 (2500)
I0428 20:09:41.092242 31677 net.cpp:139] Memory required for data: 8324800
I0428 20:09:41.092249 31677 layer_factory.hpp:77] Creating layer relu1
I0428 20:09:41.092255 31677 net.cpp:86] Creating Layer relu1
I0428 20:09:41.092259 31677 net.cpp:408] relu1 <- ip1
I0428 20:09:41.092268 31677 net.cpp:369] relu1 -> ip1 (in-place)
I0428 20:09:41.092466 31677 net.cpp:124] Setting up relu1
I0428 20:09:41.092474 31677 net.cpp:131] Top shape: 100 25 (2500)
I0428 20:09:41.092478 31677 net.cpp:139] Memory required for data: 8334800
I0428 20:09:41.092483 31677 layer_factory.hpp:77] Creating layer ip2
I0428 20:09:41.092489 31677 net.cpp:86] Creating Layer ip2
I0428 20:09:41.092492 31677 net.cpp:408] ip2 <- ip1
I0428 20:09:41.092497 31677 net.cpp:382] ip2 -> ip2
I0428 20:09:41.092607 31677 net.cpp:124] Setting up ip2
I0428 20:09:41.092613 31677 net.cpp:131] Top shape: 100 10 (1000)
I0428 20:09:41.092617 31677 net.cpp:139] Memory required for data: 8338800
I0428 20:09:41.092622 31677 layer_factory.hpp:77] Creating layer relu2
I0428 20:09:41.092628 31677 net.cpp:86] Creating Layer relu2
I0428 20:09:41.092630 31677 net.cpp:408] relu2 <- ip2
I0428 20:09:41.092635 31677 net.cpp:369] relu2 -> ip2 (in-place)
I0428 20:09:41.092772 31677 net.cpp:124] Setting up relu2
I0428 20:09:41.092780 31677 net.cpp:131] Top shape: 100 10 (1000)
I0428 20:09:41.092783 31677 net.cpp:139] Memory required for data: 8342800
I0428 20:09:41.092787 31677 layer_factory.hpp:77] Creating layer ip3
I0428 20:09:41.092806 31677 net.cpp:86] Creating Layer ip3
I0428 20:09:41.092816 31677 net.cpp:408] ip3 <- ip2
I0428 20:09:41.092838 31677 net.cpp:382] ip3 -> ip3
I0428 20:09:41.092963 31677 net.cpp:124] Setting up ip3
I0428 20:09:41.092970 31677 net.cpp:131] Top shape: 100 10 (1000)
I0428 20:09:41.092973 31677 net.cpp:139] Memory required for data: 8346800
I0428 20:09:41.092981 31677 layer_factory.hpp:77] Creating layer relu3
I0428 20:09:41.092986 31677 net.cpp:86] Creating Layer relu3
I0428 20:09:41.092989 31677 net.cpp:408] relu3 <- ip3
I0428 20:09:41.092993 31677 net.cpp:369] relu3 -> ip3 (in-place)
I0428 20:09:41.093832 31677 net.cpp:124] Setting up relu3
I0428 20:09:41.093844 31677 net.cpp:131] Top shape: 100 10 (1000)
I0428 20:09:41.093863 31677 net.cpp:139] Memory required for data: 8350800
I0428 20:09:41.093866 31677 layer_factory.hpp:77] Creating layer ip3_relu3_0_split
I0428 20:09:41.093871 31677 net.cpp:86] Creating Layer ip3_relu3_0_split
I0428 20:09:41.093875 31677 net.cpp:408] ip3_relu3_0_split <- ip3
I0428 20:09:41.093880 31677 net.cpp:382] ip3_relu3_0_split -> ip3_relu3_0_split_0
I0428 20:09:41.093888 31677 net.cpp:382] ip3_relu3_0_split -> ip3_relu3_0_split_1
I0428 20:09:41.093927 31677 net.cpp:124] Setting up ip3_relu3_0_split
I0428 20:09:41.093932 31677 net.cpp:131] Top shape: 100 10 (1000)
I0428 20:09:41.093936 31677 net.cpp:131] Top shape: 100 10 (1000)
I0428 20:09:41.093940 31677 net.cpp:139] Memory required for data: 8358800
I0428 20:09:41.093942 31677 layer_factory.hpp:77] Creating layer accuracy
I0428 20:09:41.093946 31677 net.cpp:86] Creating Layer accuracy
I0428 20:09:41.093950 31677 net.cpp:408] accuracy <- ip3_relu3_0_split_0
I0428 20:09:41.093955 31677 net.cpp:408] accuracy <- label_mnist_1_split_0
I0428 20:09:41.093958 31677 net.cpp:382] accuracy -> accuracy
…
