…
I0428 20:11:30.669499 32083 net.cpp:296] The NetState phase (0) differed from the phase (1) specified by a rule in layer mnist
I0428 20:11:30.669530 32083 net.cpp:296] The NetState phase (0) differed from the phase (1) specified by a rule in layer accuracy
I0428 20:11:30.669610 32083 net.cpp:53] Initializing net from parameters: 
name: "LeNet"
state {
  phase: TRAIN
  level: 0
  stage: ""
}
layer {
  name: "mnist"
  type: "Data"
  top: "data"
  top: "label"
  include {
    phase: TRAIN
  }
  transform_param {
    scale: 0.00390625
  }
  data_param {
    source: "examples/mnist/mnist_train_lmdb"
    batch_size: 64
    backend: LMDB
  }
}
layer {
  name: "conv0"
  type: "Convolution"
  bottom: "data"
  top: "conv0"
  param {
    lr_mult: 1
  }
  param {
    lr_mult: 2
  }
  convolution_param {
    num_output: 25
    kernel_size: 5
    stride: 1
    weight_filler {
      type: "xavier"
    }
    bias_filler {
      type: "constant"
    }
  }
}
layer {
  name: "pool0"
  type: "Pooling"
  bottom: "conv0"
  top: "pool0"
  pooling_param {
    pool: MAX
    kernel_size: 2
    stride: 2
  }
}
layer {
  name: "conv1"
  type: "Convolution"
  bottom: "pool0"
  top: "conv1"
  param {
    lr_mult: 1
  }
  param {
    lr_mult: 2
  }
  convolution_param {
    num_output: 50
    kernel_size: 5
    stride: 1
    weight_filler {
      type: "xavier"
    }
    bias_filler {
      type: "constant"
    }
  }
}
layer {
  name: "pool1"
  type: "Pooling"
  bottom: "conv1"
  top: "pool1"
  pooling_param {
    pool: MAX
    kernel_size: 2
    stride: 2
  }
}
layer {
  name: "ip1"
  type: "InnerProduct"
  bottom: "pool1"
  top: "ip1"
  param {
    lr_mult: 1
  }
  param {
    lr_mult: 2
  }
  inner_product_param {
    num_output: 25
    weight_filler {
      type: "xavier"
    }
    bias_filler {
      type: "constant"
    }
  }
}
layer {
  name: "relu1"
  type: "ReLU"
  bottom: "ip1"
  top: "ip1"
}
layer {
  name: "ip2"
  type: "InnerProduct"
  bottom: "ip1"
  top: "ip2"
  param {
    lr_mult: 1
  }
  param {
    lr_mult: 2
  }
  inner_product_param {
    num_output: 50
    weight_filler {
      type: "xavier"
    }
    bias_filler {
      type: "constant"
    }
  }
}
layer {
  name: "relu2"
  type: "ReLU"
  bottom: "ip2"
  top: "ip2"
}
layer {
  name: "ip3"
  type: "InnerProduct"
  bottom: "ip2"
  top: "ip3"
  param {
    lr_mult: 1
  }
  param {
    lr_mult: 2
  }
  inner_product_param {
    num_output: 10
    weight_filler {
      type: "xavier"
    }
    bias_filler {
      type: "constant"
    }
  }
}
layer {
  name: "relu3"
  type: "ReLU"
  bottom: "ip3"
  top: "ip3"
}
layer {
  name: "loss"
  type: "SoftmaxWithLoss"
  bottom: "ip3"
  bottom: "label"
  top: "loss"
}
I0428 20:11:30.669672 32083 layer_factory.hpp:77] Creating layer mnist
I0428 20:11:30.669766 32083 db_lmdb.cpp:35] Opened lmdb examples/mnist/mnist_train_lmdb
I0428 20:11:30.669785 32083 net.cpp:86] Creating Layer mnist
I0428 20:11:30.669792 32083 net.cpp:382] mnist -> data
I0428 20:11:30.669811 32083 net.cpp:382] mnist -> label
I0428 20:11:30.670817 32083 data_layer.cpp:45] output data size: 64,1,28,28
I0428 20:11:30.672997 32083 net.cpp:124] Setting up mnist
I0428 20:11:30.673028 32083 net.cpp:131] Top shape: 64 1 28 28 (50176)
I0428 20:11:30.673053 32083 net.cpp:131] Top shape: 64 (64)
I0428 20:11:30.673075 32083 net.cpp:139] Memory required for data: 200960
I0428 20:11:30.673081 32083 layer_factory.hpp:77] Creating layer conv0
I0428 20:11:30.673094 32083 net.cpp:86] Creating Layer conv0
I0428 20:11:30.673113 32083 net.cpp:408] conv0 <- data
I0428 20:11:30.673125 32083 net.cpp:382] conv0 -> conv0
I0428 20:11:30.904116 32083 net.cpp:124] Setting up conv0
I0428 20:11:30.904158 32083 net.cpp:131] Top shape: 64 25 24 24 (921600)
I0428 20:11:30.904162 32083 net.cpp:139] Memory required for data: 3887360
I0428 20:11:30.904176 32083 layer_factory.hpp:77] Creating layer pool0
I0428 20:11:30.904189 32083 net.cpp:86] Creating Layer pool0
I0428 20:11:30.904208 32083 net.cpp:408] pool0 <- conv0
I0428 20:11:30.904213 32083 net.cpp:382] pool0 -> pool0
I0428 20:11:30.904255 32083 net.cpp:124] Setting up pool0
I0428 20:11:30.904276 32083 net.cpp:131] Top shape: 64 25 12 12 (230400)
I0428 20:11:30.904279 32083 net.cpp:139] Memory required for data: 4808960
I0428 20:11:30.904283 32083 layer_factory.hpp:77] Creating layer conv1
I0428 20:11:30.904292 32083 net.cpp:86] Creating Layer conv1
I0428 20:11:30.904295 32083 net.cpp:408] conv1 <- pool0
I0428 20:11:30.904300 32083 net.cpp:382] conv1 -> conv1
I0428 20:11:30.906369 32083 net.cpp:124] Setting up conv1
I0428 20:11:30.906400 32083 net.cpp:131] Top shape: 64 50 8 8 (204800)
I0428 20:11:30.906404 32083 net.cpp:139] Memory required for data: 5628160
I0428 20:11:30.906414 32083 layer_factory.hpp:77] Creating layer pool1
I0428 20:11:30.906435 32083 net.cpp:86] Creating Layer pool1
I0428 20:11:30.906438 32083 net.cpp:408] pool1 <- conv1
I0428 20:11:30.906460 32083 net.cpp:382] pool1 -> pool1
I0428 20:11:30.906510 32083 net.cpp:124] Setting up pool1
I0428 20:11:30.906517 32083 net.cpp:131] Top shape: 64 50 4 4 (51200)
I0428 20:11:30.906538 32083 net.cpp:139] Memory required for data: 5832960
I0428 20:11:30.906541 32083 layer_factory.hpp:77] Creating layer ip1
I0428 20:11:30.906548 32083 net.cpp:86] Creating Layer ip1
I0428 20:11:30.906551 32083 net.cpp:408] ip1 <- pool1
I0428 20:11:30.906556 32083 net.cpp:382] ip1 -> ip1
I0428 20:11:30.906787 32083 net.cpp:124] Setting up ip1
I0428 20:11:30.906795 32083 net.cpp:131] Top shape: 64 25 (1600)
I0428 20:11:30.906797 32083 net.cpp:139] Memory required for data: 5839360
I0428 20:11:30.906805 32083 layer_factory.hpp:77] Creating layer relu1
I0428 20:11:30.906810 32083 net.cpp:86] Creating Layer relu1
I0428 20:11:30.906813 32083 net.cpp:408] relu1 <- ip1
I0428 20:11:30.906817 32083 net.cpp:369] relu1 -> ip1 (in-place)
I0428 20:11:30.906980 32083 net.cpp:124] Setting up relu1
I0428 20:11:30.906990 32083 net.cpp:131] Top shape: 64 25 (1600)
I0428 20:11:30.906992 32083 net.cpp:139] Memory required for data: 5845760
I0428 20:11:30.906996 32083 layer_factory.hpp:77] Creating layer ip2
I0428 20:11:30.907002 32083 net.cpp:86] Creating Layer ip2
I0428 20:11:30.907006 32083 net.cpp:408] ip2 <- ip1
I0428 20:11:30.907011 32083 net.cpp:382] ip2 -> ip2
I0428 20:11:30.908004 32083 net.cpp:124] Setting up ip2
I0428 20:11:30.908032 32083 net.cpp:131] Top shape: 64 50 (3200)
I0428 20:11:30.908036 32083 net.cpp:139] Memory required for data: 5858560
I0428 20:11:30.908042 32083 layer_factory.hpp:77] Creating layer relu2
I0428 20:11:30.908049 32083 net.cpp:86] Creating Layer relu2
I0428 20:11:30.908053 32083 net.cpp:408] relu2 <- ip2
I0428 20:11:30.908058 32083 net.cpp:369] relu2 -> ip2 (in-place)
I0428 20:11:30.908895 32083 net.cpp:124] Setting up relu2
I0428 20:11:30.908910 32083 net.cpp:131] Top shape: 64 50 (3200)
I0428 20:11:30.908913 32083 net.cpp:139] Memory required for data: 5871360
I0428 20:11:30.908917 32083 layer_factory.hpp:77] Creating layer ip3
I0428 20:11:30.908924 32083 net.cpp:86] Creating Layer ip3
I0428 20:11:30.908928 32083 net.cpp:408] ip3 <- ip2
I0428 20:11:30.908934 32083 net.cpp:382] ip3 -> ip3
I0428 20:11:30.909044 32083 net.cpp:124] Setting up ip3
I0428 20:11:30.909052 32083 net.cpp:131] Top shape: 64 10 (640)
I0428 20:11:30.909056 32083 net.cpp:139] Memory required for data: 5873920
I0428 20:11:30.909065 32083 layer_factory.hpp:77] Creating layer relu3
I0428 20:11:30.909070 32083 net.cpp:86] Creating Layer relu3
I0428 20:11:30.909073 32083 net.cpp:408] relu3 <- ip3
I0428 20:11:30.909077 32083 net.cpp:369] relu3 -> ip3 (in-place)
I0428 20:11:30.909298 32083 net.cpp:124] Setting up relu3
I0428 20:11:30.909307 32083 net.cpp:131] Top shape: 64 10 (640)
I0428 20:11:30.909310 32083 net.cpp:139] Memory required for data: 5876480
I0428 20:11:30.909313 32083 layer_factory.hpp:77] Creating layer loss
I0428 20:11:30.909319 32083 net.cpp:86] Creating Layer loss
I0428 20:11:30.909322 32083 net.cpp:408] loss <- ip3
I0428 20:11:30.909327 32083 net.cpp:408] loss <- label
I0428 20:11:30.909332 32083 net.cpp:382] loss -> loss
I0428 20:11:30.909345 32083 layer_factory.hpp:77] Creating layer loss
…
I0428 20:11:30.910019 32083 solver.cpp:173] Creating test net (#0) specified by net file: ECE595/mnist/train_test/var_everything2/lenet_train_test1160.prototxt
I0428 20:11:30.910060 32083 net.cpp:296] The NetState phase (1) differed from the phase (0) specified by a rule in layer mnist
I0428 20:11:30.910168 32083 net.cpp:53] Initializing net from parameters: 
name: "LeNet"
state {
  phase: TEST
}
layer {
  name: "mnist"
  type: "Data"
  top: "data"
  top: "label"
  include {
    phase: TEST
  }
  transform_param {
    scale: 0.00390625
  }
  data_param {
    source: "examples/mnist/mnist_test_lmdb"
    batch_size: 100
    backend: LMDB
  }
}
layer {
  name: "conv0"
  type: "Convolution"
  bottom: "data"
  top: "conv0"
  param {
    lr_mult: 1
  }
  param {
    lr_mult: 2
  }
  convolution_param {
    num_output: 25
    kernel_size: 5
    stride: 1
    weight_filler {
      type: "xavier"
    }
    bias_filler {
      type: "constant"
    }
  }
}
layer {
  name: "pool0"
  type: "Pooling"
  bottom: "conv0"
  top: "pool0"
  pooling_param {
    pool: MAX
    kernel_size: 2
    stride: 2
  }
}
layer {
  name: "conv1"
  type: "Convolution"
  bottom: "pool0"
  top: "conv1"
  param {
    lr_mult: 1
  }
  param {
    lr_mult: 2
  }
  convolution_param {
    num_output: 50
    kernel_size: 5
    stride: 1
    weight_filler {
      type: "xavier"
    }
    bias_filler {
      type: "constant"
    }
  }
}
layer {
  name: "pool1"
  type: "Pooling"
  bottom: "conv1"
  top: "pool1"
  pooling_param {
    pool: MAX
    kernel_size: 2
    stride: 2
  }
}
layer {
  name: "ip1"
  type: "InnerProduct"
  bottom: "pool1"
  top: "ip1"
  param {
    lr_mult: 1
  }
  param {
    lr_mult: 2
  }
  inner_product_param {
    num_output: 25
    weight_filler {
      type: "xavier"
    }
    bias_filler {
      type: "constant"
    }
  }
}
layer {
  name: "relu1"
  type: "ReLU"
  bottom: "ip1"
  top: "ip1"
}
layer {
  name: "ip2"
  type: "InnerProduct"
  bottom: "ip1"
  top: "ip2"
  param {
    lr_mult: 1
  }
  param {
    lr_mult: 2
  }
  inner_product_param {
    num_output: 50
    weight_filler {
      type: "xavier"
    }
    bias_filler {
      type: "constant"
    }
  }
}
layer {
  name: "relu2"
  type: "ReLU"
  bottom: "ip2"
  top: "ip2"
}
layer {
  name: "ip3"
  type: "InnerProduct"
  bottom: "ip2"
  top: "ip3"
  param {
    lr_mult: 1
  }
  param {
    lr_mult: 2
  }
  inner_product_param {
    num_output: 10
    weight_filler {
      type: "xavier"
    }
    bias_filler {
      type: "constant"
    }
  }
}
layer {
  name: "relu3"
  type: "ReLU"
  bottom: "ip3"
  top: "ip3"
}
layer {
  name: "accuracy"
  type: "Accuracy"
  bottom: "ip3"
  bottom: "label"
  top: "accuracy"
  include {
    phase: TEST
  }
}
layer {
  name: "loss"
  type: "SoftmaxWithLoss"
  bottom: "ip3"
  bottom: "label"
  top: "loss"
}
I0428 20:11:30.910251 32083 layer_factory.hpp:77] Creating layer mnist
I0428 20:11:30.910293 32083 db_lmdb.cpp:35] Opened lmdb examples/mnist/mnist_test_lmdb
I0428 20:11:30.910308 32083 net.cpp:86] Creating Layer mnist
I0428 20:11:30.910315 32083 net.cpp:382] mnist -> data
I0428 20:11:30.910322 32083 net.cpp:382] mnist -> label
I0428 20:11:30.910423 32083 data_layer.cpp:45] output data size: 100,1,28,28
I0428 20:11:30.912410 32083 net.cpp:124] Setting up mnist
I0428 20:11:30.912439 32083 net.cpp:131] Top shape: 100 1 28 28 (78400)
I0428 20:11:30.912446 32083 net.cpp:131] Top shape: 100 (100)
I0428 20:11:30.912448 32083 net.cpp:139] Memory required for data: 314000
I0428 20:11:30.912452 32083 layer_factory.hpp:77] Creating layer label_mnist_1_split
I0428 20:11:30.912458 32083 net.cpp:86] Creating Layer label_mnist_1_split
I0428 20:11:30.912462 32083 net.cpp:408] label_mnist_1_split <- label
I0428 20:11:30.912467 32083 net.cpp:382] label_mnist_1_split -> label_mnist_1_split_0
I0428 20:11:30.912473 32083 net.cpp:382] label_mnist_1_split -> label_mnist_1_split_1
I0428 20:11:30.912609 32083 net.cpp:124] Setting up label_mnist_1_split
I0428 20:11:30.912617 32083 net.cpp:131] Top shape: 100 (100)
I0428 20:11:30.912621 32083 net.cpp:131] Top shape: 100 (100)
I0428 20:11:30.912623 32083 net.cpp:139] Memory required for data: 314800
I0428 20:11:30.912626 32083 layer_factory.hpp:77] Creating layer conv0
I0428 20:11:30.912636 32083 net.cpp:86] Creating Layer conv0
I0428 20:11:30.912638 32083 net.cpp:408] conv0 <- data
I0428 20:11:30.912644 32083 net.cpp:382] conv0 -> conv0
I0428 20:11:30.914382 32083 net.cpp:124] Setting up conv0
I0428 20:11:30.914412 32083 net.cpp:131] Top shape: 100 25 24 24 (1440000)
I0428 20:11:30.914414 32083 net.cpp:139] Memory required for data: 6074800
I0428 20:11:30.914438 32083 layer_factory.hpp:77] Creating layer pool0
I0428 20:11:30.914446 32083 net.cpp:86] Creating Layer pool0
I0428 20:11:30.914449 32083 net.cpp:408] pool0 <- conv0
I0428 20:11:30.914454 32083 net.cpp:382] pool0 -> pool0
I0428 20:11:30.914491 32083 net.cpp:124] Setting up pool0
I0428 20:11:30.914497 32083 net.cpp:131] Top shape: 100 25 12 12 (360000)
I0428 20:11:30.914500 32083 net.cpp:139] Memory required for data: 7514800
I0428 20:11:30.914504 32083 layer_factory.hpp:77] Creating layer conv1
I0428 20:11:30.914511 32083 net.cpp:86] Creating Layer conv1
I0428 20:11:30.914515 32083 net.cpp:408] conv1 <- pool0
I0428 20:11:30.914520 32083 net.cpp:382] conv1 -> conv1
I0428 20:11:30.916211 32083 net.cpp:124] Setting up conv1
I0428 20:11:30.916225 32083 net.cpp:131] Top shape: 100 50 8 8 (320000)
I0428 20:11:30.916229 32083 net.cpp:139] Memory required for data: 8794800
I0428 20:11:30.916254 32083 layer_factory.hpp:77] Creating layer pool1
I0428 20:11:30.916260 32083 net.cpp:86] Creating Layer pool1
I0428 20:11:30.916265 32083 net.cpp:408] pool1 <- conv1
I0428 20:11:30.916270 32083 net.cpp:382] pool1 -> pool1
I0428 20:11:30.916307 32083 net.cpp:124] Setting up pool1
I0428 20:11:30.916319 32083 net.cpp:131] Top shape: 100 50 4 4 (80000)
I0428 20:11:30.916322 32083 net.cpp:139] Memory required for data: 9114800
I0428 20:11:30.916324 32083 layer_factory.hpp:77] Creating layer ip1
I0428 20:11:30.916333 32083 net.cpp:86] Creating Layer ip1
I0428 20:11:30.916337 32083 net.cpp:408] ip1 <- pool1
I0428 20:11:30.916342 32083 net.cpp:382] ip1 -> ip1
I0428 20:11:30.916573 32083 net.cpp:124] Setting up ip1
I0428 20:11:30.916579 32083 net.cpp:131] Top shape: 100 25 (2500)
I0428 20:11:30.916592 32083 net.cpp:139] Memory required for data: 9124800
I0428 20:11:30.916599 32083 layer_factory.hpp:77] Creating layer relu1
I0428 20:11:30.916604 32083 net.cpp:86] Creating Layer relu1
I0428 20:11:30.916610 32083 net.cpp:408] relu1 <- ip1
I0428 20:11:30.916630 32083 net.cpp:369] relu1 -> ip1 (in-place)
I0428 20:11:30.916821 32083 net.cpp:124] Setting up relu1
I0428 20:11:30.916841 32083 net.cpp:131] Top shape: 100 25 (2500)
I0428 20:11:30.916846 32083 net.cpp:139] Memory required for data: 9134800
I0428 20:11:30.916864 32083 layer_factory.hpp:77] Creating layer ip2
I0428 20:11:30.916872 32083 net.cpp:86] Creating Layer ip2
I0428 20:11:30.916874 32083 net.cpp:408] ip2 <- ip1
I0428 20:11:30.916882 32083 net.cpp:382] ip2 -> ip2
I0428 20:11:30.917078 32083 net.cpp:124] Setting up ip2
I0428 20:11:30.917086 32083 net.cpp:131] Top shape: 100 50 (5000)
I0428 20:11:30.917090 32083 net.cpp:139] Memory required for data: 9154800
I0428 20:11:30.917102 32083 layer_factory.hpp:77] Creating layer relu2
I0428 20:11:30.917127 32083 net.cpp:86] Creating Layer relu2
I0428 20:11:30.917147 32083 net.cpp:408] relu2 <- ip2
I0428 20:11:30.917153 32083 net.cpp:369] relu2 -> ip2 (in-place)
I0428 20:11:30.917361 32083 net.cpp:124] Setting up relu2
I0428 20:11:30.917372 32083 net.cpp:131] Top shape: 100 50 (5000)
I0428 20:11:30.917376 32083 net.cpp:139] Memory required for data: 9174800
I0428 20:11:30.917378 32083 layer_factory.hpp:77] Creating layer ip3
I0428 20:11:30.917385 32083 net.cpp:86] Creating Layer ip3
I0428 20:11:30.917388 32083 net.cpp:408] ip3 <- ip2
I0428 20:11:30.917393 32083 net.cpp:382] ip3 -> ip3
I0428 20:11:30.917511 32083 net.cpp:124] Setting up ip3
I0428 20:11:30.917518 32083 net.cpp:131] Top shape: 100 10 (1000)
I0428 20:11:30.917521 32083 net.cpp:139] Memory required for data: 9178800
I0428 20:11:30.917536 32083 layer_factory.hpp:77] Creating layer relu3
I0428 20:11:30.917541 32083 net.cpp:86] Creating Layer relu3
I0428 20:11:30.917544 32083 net.cpp:408] relu3 <- ip3
I0428 20:11:30.917549 32083 net.cpp:369] relu3 -> ip3 (in-place)
I0428 20:11:30.918378 32083 net.cpp:124] Setting up relu3
I0428 20:11:30.918390 32083 net.cpp:131] Top shape: 100 10 (1000)
I0428 20:11:30.918393 32083 net.cpp:139] Memory required for data: 9182800
I0428 20:11:30.918396 32083 layer_factory.hpp:77] Creating layer ip3_relu3_0_split
I0428 20:11:30.918402 32083 net.cpp:86] Creating Layer ip3_relu3_0_split
I0428 20:11:30.918406 32083 net.cpp:408] ip3_relu3_0_split <- ip3
I0428 20:11:30.918411 32083 net.cpp:382] ip3_relu3_0_split -> ip3_relu3_0_split_0
I0428 20:11:30.918416 32083 net.cpp:382] ip3_relu3_0_split -> ip3_relu3_0_split_1
I0428 20:11:30.918483 32083 net.cpp:124] Setting up ip3_relu3_0_split
I0428 20:11:30.918490 32083 net.cpp:131] Top shape: 100 10 (1000)
I0428 20:11:30.918495 32083 net.cpp:131] Top shape: 100 10 (1000)
I0428 20:11:30.918498 32083 net.cpp:139] Memory required for data: 9190800
I0428 20:11:30.918501 32083 layer_factory.hpp:77] Creating layer accuracy
I0428 20:11:30.918506 32083 net.cpp:86] Creating Layer accuracy
I0428 20:11:30.918509 32083 net.cpp:408] accuracy <- ip3_relu3_0_split_0
I0428 20:11:30.918514 32083 net.cpp:408] accuracy <- label_mnist_1_split_0
I0428 20:11:30.918530 32083 net.cpp:382] accuracy -> accuracy
…
