…
I0428 19:49:19.647943 26731 net.cpp:296] The NetState phase (0) differed from the phase (1) specified by a rule in layer mnist
I0428 19:49:19.647976 26731 net.cpp:296] The NetState phase (0) differed from the phase (1) specified by a rule in layer accuracy
I0428 19:49:19.648056 26731 net.cpp:53] Initializing net from parameters: 
name: "LeNet"
state {
  phase: TRAIN
  level: 0
  stage: ""
}
layer {
  name: "mnist"
  type: "Data"
  top: "data"
  top: "label"
  include {
    phase: TRAIN
  }
  transform_param {
    scale: 0.00390625
  }
  data_param {
    source: "examples/mnist/mnist_train_lmdb"
    batch_size: 64
    backend: LMDB
  }
}
layer {
  name: "conv0"
  type: "Convolution"
  bottom: "data"
  top: "conv0"
  param {
    lr_mult: 1
  }
  param {
    lr_mult: 2
  }
  convolution_param {
    num_output: 5
    kernel_size: 5
    stride: 1
    weight_filler {
      type: "xavier"
    }
    bias_filler {
      type: "constant"
    }
  }
}
layer {
  name: "pool0"
  type: "Pooling"
  bottom: "conv0"
  top: "pool0"
  pooling_param {
    pool: MAX
    kernel_size: 2
    stride: 2
  }
}
layer {
  name: "conv1"
  type: "Convolution"
  bottom: "pool0"
  top: "conv1"
  param {
    lr_mult: 1
  }
  param {
    lr_mult: 2
  }
  convolution_param {
    num_output: 5
    kernel_size: 5
    stride: 1
    weight_filler {
      type: "xavier"
    }
    bias_filler {
      type: "constant"
    }
  }
}
layer {
  name: "pool1"
  type: "Pooling"
  bottom: "conv1"
  top: "pool1"
  pooling_param {
    pool: MAX
    kernel_size: 2
    stride: 2
  }
}
layer {
  name: "ip1"
  type: "InnerProduct"
  bottom: "pool1"
  top: "ip1"
  param {
    lr_mult: 1
  }
  param {
    lr_mult: 2
  }
  inner_product_param {
    num_output: 25
    weight_filler {
      type: "xavier"
    }
    bias_filler {
      type: "constant"
    }
  }
}
layer {
  name: "relu1"
  type: "ReLU"
  bottom: "ip1"
  top: "ip1"
}
layer {
  name: "ip2"
  type: "InnerProduct"
  bottom: "ip1"
  top: "ip2"
  param {
    lr_mult: 1
  }
  param {
    lr_mult: 2
  }
  inner_product_param {
    num_output: 25
    weight_filler {
      type: "xavier"
    }
    bias_filler {
      type: "constant"
    }
  }
}
layer {
  name: "relu2"
  type: "ReLU"
  bottom: "ip2"
  top: "ip2"
}
layer {
  name: "ip3"
  type: "InnerProduct"
  bottom: "ip2"
  top: "ip3"
  param {
    lr_mult: 1
  }
  param {
    lr_mult: 2
  }
  inner_product_param {
    num_output: 10
    weight_filler {
      type: "xavier"
    }
    bias_filler {
      type: "constant"
    }
  }
}
layer {
  name: "relu3"
  type: "ReLU"
  bottom: "ip3"
  top: "ip3"
}
layer {
  name: "loss"
  type: "SoftmaxWithLoss"
  bottom: "ip3"
  bottom: "label"
  top: "loss"
}
I0428 19:49:19.648119 26731 layer_factory.hpp:77] Creating layer mnist
I0428 19:49:19.648205 26731 db_lmdb.cpp:35] Opened lmdb examples/mnist/mnist_train_lmdb
I0428 19:49:19.648224 26731 net.cpp:86] Creating Layer mnist
I0428 19:49:19.648231 26731 net.cpp:382] mnist -> data
I0428 19:49:19.648249 26731 net.cpp:382] mnist -> label
I0428 19:49:19.649238 26731 data_layer.cpp:45] output data size: 64,1,28,28
I0428 19:49:19.651530 26731 net.cpp:124] Setting up mnist
I0428 19:49:19.651578 26731 net.cpp:131] Top shape: 64 1 28 28 (50176)
I0428 19:49:19.651583 26731 net.cpp:131] Top shape: 64 (64)
I0428 19:49:19.651587 26731 net.cpp:139] Memory required for data: 200960
I0428 19:49:19.651592 26731 layer_factory.hpp:77] Creating layer conv0
I0428 19:49:19.651607 26731 net.cpp:86] Creating Layer conv0
I0428 19:49:19.651624 26731 net.cpp:408] conv0 <- data
I0428 19:49:19.651634 26731 net.cpp:382] conv0 -> conv0
I0428 19:49:19.890732 26731 net.cpp:124] Setting up conv0
I0428 19:49:19.890772 26731 net.cpp:131] Top shape: 64 5 24 24 (184320)
I0428 19:49:19.890776 26731 net.cpp:139] Memory required for data: 938240
I0428 19:49:19.890791 26731 layer_factory.hpp:77] Creating layer pool0
I0428 19:49:19.890805 26731 net.cpp:86] Creating Layer pool0
I0428 19:49:19.890810 26731 net.cpp:408] pool0 <- conv0
I0428 19:49:19.890830 26731 net.cpp:382] pool0 -> pool0
I0428 19:49:19.890879 26731 net.cpp:124] Setting up pool0
I0428 19:49:19.890892 26731 net.cpp:131] Top shape: 64 5 12 12 (46080)
I0428 19:49:19.890894 26731 net.cpp:139] Memory required for data: 1122560
I0428 19:49:19.890897 26731 layer_factory.hpp:77] Creating layer conv1
I0428 19:49:19.890908 26731 net.cpp:86] Creating Layer conv1
I0428 19:49:19.890911 26731 net.cpp:408] conv1 <- pool0
I0428 19:49:19.890918 26731 net.cpp:382] conv1 -> conv1
I0428 19:49:19.892789 26731 net.cpp:124] Setting up conv1
I0428 19:49:19.892827 26731 net.cpp:131] Top shape: 64 5 8 8 (20480)
I0428 19:49:19.892832 26731 net.cpp:139] Memory required for data: 1204480
I0428 19:49:19.892840 26731 layer_factory.hpp:77] Creating layer pool1
I0428 19:49:19.892850 26731 net.cpp:86] Creating Layer pool1
I0428 19:49:19.892853 26731 net.cpp:408] pool1 <- conv1
I0428 19:49:19.892858 26731 net.cpp:382] pool1 -> pool1
I0428 19:49:19.892900 26731 net.cpp:124] Setting up pool1
I0428 19:49:19.892906 26731 net.cpp:131] Top shape: 64 5 4 4 (5120)
I0428 19:49:19.892909 26731 net.cpp:139] Memory required for data: 1224960
I0428 19:49:19.892911 26731 layer_factory.hpp:77] Creating layer ip1
I0428 19:49:19.892920 26731 net.cpp:86] Creating Layer ip1
I0428 19:49:19.892922 26731 net.cpp:408] ip1 <- pool1
I0428 19:49:19.892930 26731 net.cpp:382] ip1 -> ip1
I0428 19:49:19.893962 26731 net.cpp:124] Setting up ip1
I0428 19:49:19.893990 26731 net.cpp:131] Top shape: 64 25 (1600)
I0428 19:49:19.893992 26731 net.cpp:139] Memory required for data: 1231360
I0428 19:49:19.894001 26731 layer_factory.hpp:77] Creating layer relu1
I0428 19:49:19.894022 26731 net.cpp:86] Creating Layer relu1
I0428 19:49:19.894026 26731 net.cpp:408] relu1 <- ip1
I0428 19:49:19.894032 26731 net.cpp:369] relu1 -> ip1 (in-place)
I0428 19:49:19.894209 26731 net.cpp:124] Setting up relu1
I0428 19:49:19.894218 26731 net.cpp:131] Top shape: 64 25 (1600)
I0428 19:49:19.894222 26731 net.cpp:139] Memory required for data: 1237760
I0428 19:49:19.894224 26731 layer_factory.hpp:77] Creating layer ip2
I0428 19:49:19.894232 26731 net.cpp:86] Creating Layer ip2
I0428 19:49:19.894235 26731 net.cpp:408] ip2 <- ip1
I0428 19:49:19.894239 26731 net.cpp:382] ip2 -> ip2
I0428 19:49:19.894346 26731 net.cpp:124] Setting up ip2
I0428 19:49:19.894354 26731 net.cpp:131] Top shape: 64 25 (1600)
I0428 19:49:19.894356 26731 net.cpp:139] Memory required for data: 1244160
I0428 19:49:19.894362 26731 layer_factory.hpp:77] Creating layer relu2
I0428 19:49:19.894368 26731 net.cpp:86] Creating Layer relu2
I0428 19:49:19.894371 26731 net.cpp:408] relu2 <- ip2
I0428 19:49:19.894376 26731 net.cpp:369] relu2 -> ip2 (in-place)
I0428 19:49:19.895148 26731 net.cpp:124] Setting up relu2
I0428 19:49:19.895159 26731 net.cpp:131] Top shape: 64 25 (1600)
I0428 19:49:19.895179 26731 net.cpp:139] Memory required for data: 1250560
I0428 19:49:19.895181 26731 layer_factory.hpp:77] Creating layer ip3
I0428 19:49:19.895190 26731 net.cpp:86] Creating Layer ip3
I0428 19:49:19.895192 26731 net.cpp:408] ip3 <- ip2
I0428 19:49:19.895198 26731 net.cpp:382] ip3 -> ip3
I0428 19:49:19.895313 26731 net.cpp:124] Setting up ip3
I0428 19:49:19.895319 26731 net.cpp:131] Top shape: 64 10 (640)
I0428 19:49:19.895323 26731 net.cpp:139] Memory required for data: 1253120
I0428 19:49:19.895330 26731 layer_factory.hpp:77] Creating layer relu3
I0428 19:49:19.895335 26731 net.cpp:86] Creating Layer relu3
I0428 19:49:19.895339 26731 net.cpp:408] relu3 <- ip3
I0428 19:49:19.895342 26731 net.cpp:369] relu3 -> ip3 (in-place)
I0428 19:49:19.895530 26731 net.cpp:124] Setting up relu3
I0428 19:49:19.895539 26731 net.cpp:131] Top shape: 64 10 (640)
I0428 19:49:19.895542 26731 net.cpp:139] Memory required for data: 1255680
I0428 19:49:19.895545 26731 layer_factory.hpp:77] Creating layer loss
I0428 19:49:19.895552 26731 net.cpp:86] Creating Layer loss
I0428 19:49:19.895555 26731 net.cpp:408] loss <- ip3
I0428 19:49:19.895560 26731 net.cpp:408] loss <- label
I0428 19:49:19.895565 26731 net.cpp:382] loss -> loss
I0428 19:49:19.895578 26731 layer_factory.hpp:77] Creating layer loss
…
I0428 19:49:19.896320 26731 solver.cpp:173] Creating test net (#0) specified by net file: ECE595/mnist/train_test/var_everything2/lenet_train_test571.prototxt
I0428 19:49:19.896360 26731 net.cpp:296] The NetState phase (1) differed from the phase (0) specified by a rule in layer mnist
I0428 19:49:19.896447 26731 net.cpp:53] Initializing net from parameters: 
name: "LeNet"
state {
  phase: TEST
}
layer {
  name: "mnist"
  type: "Data"
  top: "data"
  top: "label"
  include {
    phase: TEST
  }
  transform_param {
    scale: 0.00390625
  }
  data_param {
    source: "examples/mnist/mnist_test_lmdb"
    batch_size: 100
    backend: LMDB
  }
}
layer {
  name: "conv0"
  type: "Convolution"
  bottom: "data"
  top: "conv0"
  param {
    lr_mult: 1
  }
  param {
    lr_mult: 2
  }
  convolution_param {
    num_output: 5
    kernel_size: 5
    stride: 1
    weight_filler {
      type: "xavier"
    }
    bias_filler {
      type: "constant"
    }
  }
}
layer {
  name: "pool0"
  type: "Pooling"
  bottom: "conv0"
  top: "pool0"
  pooling_param {
    pool: MAX
    kernel_size: 2
    stride: 2
  }
}
layer {
  name: "conv1"
  type: "Convolution"
  bottom: "pool0"
  top: "conv1"
  param {
    lr_mult: 1
  }
  param {
    lr_mult: 2
  }
  convolution_param {
    num_output: 5
    kernel_size: 5
    stride: 1
    weight_filler {
      type: "xavier"
    }
    bias_filler {
      type: "constant"
    }
  }
}
layer {
  name: "pool1"
  type: "Pooling"
  bottom: "conv1"
  top: "pool1"
  pooling_param {
    pool: MAX
    kernel_size: 2
    stride: 2
  }
}
layer {
  name: "ip1"
  type: "InnerProduct"
  bottom: "pool1"
  top: "ip1"
  param {
    lr_mult: 1
  }
  param {
    lr_mult: 2
  }
  inner_product_param {
    num_output: 25
    weight_filler {
      type: "xavier"
    }
    bias_filler {
      type: "constant"
    }
  }
}
layer {
  name: "relu1"
  type: "ReLU"
  bottom: "ip1"
  top: "ip1"
}
layer {
  name: "ip2"
  type: "InnerProduct"
  bottom: "ip1"
  top: "ip2"
  param {
    lr_mult: 1
  }
  param {
    lr_mult: 2
  }
  inner_product_param {
    num_output: 25
    weight_filler {
      type: "xavier"
    }
    bias_filler {
      type: "constant"
    }
  }
}
layer {
  name: "relu2"
  type: "ReLU"
  bottom: "ip2"
  top: "ip2"
}
layer {
  name: "ip3"
  type: "InnerProduct"
  bottom: "ip2"
  top: "ip3"
  param {
    lr_mult: 1
  }
  param {
    lr_mult: 2
  }
  inner_product_param {
    num_output: 10
    weight_filler {
      type: "xavier"
    }
    bias_filler {
      type: "constant"
    }
  }
}
layer {
  name: "relu3"
  type: "ReLU"
  bottom: "ip3"
  top: "ip3"
}
layer {
  name: "accuracy"
  type: "Accuracy"
  bottom: "ip3"
  bottom: "label"
  top: "accuracy"
  include {
    phase: TEST
  }
}
layer {
  name: "loss"
  type: "SoftmaxWithLoss"
  bottom: "ip3"
  bottom: "label"
  top: "loss"
}
I0428 19:49:19.896526 26731 layer_factory.hpp:77] Creating layer mnist
I0428 19:49:19.896567 26731 db_lmdb.cpp:35] Opened lmdb examples/mnist/mnist_test_lmdb
I0428 19:49:19.896579 26731 net.cpp:86] Creating Layer mnist
I0428 19:49:19.896585 26731 net.cpp:382] mnist -> data
I0428 19:49:19.896592 26731 net.cpp:382] mnist -> label
I0428 19:49:19.896674 26731 data_layer.cpp:45] output data size: 100,1,28,28
I0428 19:49:19.898744 26731 net.cpp:124] Setting up mnist
I0428 19:49:19.898773 26731 net.cpp:131] Top shape: 100 1 28 28 (78400)
I0428 19:49:19.898793 26731 net.cpp:131] Top shape: 100 (100)
I0428 19:49:19.898797 26731 net.cpp:139] Memory required for data: 314000
I0428 19:49:19.898800 26731 layer_factory.hpp:77] Creating layer label_mnist_1_split
I0428 19:49:19.898807 26731 net.cpp:86] Creating Layer label_mnist_1_split
I0428 19:49:19.898811 26731 net.cpp:408] label_mnist_1_split <- label
I0428 19:49:19.898818 26731 net.cpp:382] label_mnist_1_split -> label_mnist_1_split_0
I0428 19:49:19.898824 26731 net.cpp:382] label_mnist_1_split -> label_mnist_1_split_1
I0428 19:49:19.898907 26731 net.cpp:124] Setting up label_mnist_1_split
I0428 19:49:19.898916 26731 net.cpp:131] Top shape: 100 (100)
I0428 19:49:19.898918 26731 net.cpp:131] Top shape: 100 (100)
I0428 19:49:19.898921 26731 net.cpp:139] Memory required for data: 314800
I0428 19:49:19.898924 26731 layer_factory.hpp:77] Creating layer conv0
I0428 19:49:19.898936 26731 net.cpp:86] Creating Layer conv0
I0428 19:49:19.898938 26731 net.cpp:408] conv0 <- data
I0428 19:49:19.898943 26731 net.cpp:382] conv0 -> conv0
I0428 19:49:19.900676 26731 net.cpp:124] Setting up conv0
I0428 19:49:19.900704 26731 net.cpp:131] Top shape: 100 5 24 24 (288000)
I0428 19:49:19.900707 26731 net.cpp:139] Memory required for data: 1466800
I0428 19:49:19.900717 26731 layer_factory.hpp:77] Creating layer pool0
I0428 19:49:19.900724 26731 net.cpp:86] Creating Layer pool0
I0428 19:49:19.900727 26731 net.cpp:408] pool0 <- conv0
I0428 19:49:19.900732 26731 net.cpp:382] pool0 -> pool0
I0428 19:49:19.900769 26731 net.cpp:124] Setting up pool0
I0428 19:49:19.900775 26731 net.cpp:131] Top shape: 100 5 12 12 (72000)
I0428 19:49:19.900777 26731 net.cpp:139] Memory required for data: 1754800
I0428 19:49:19.900780 26731 layer_factory.hpp:77] Creating layer conv1
I0428 19:49:19.900789 26731 net.cpp:86] Creating Layer conv1
I0428 19:49:19.900792 26731 net.cpp:408] conv1 <- pool0
I0428 19:49:19.900799 26731 net.cpp:382] conv1 -> conv1
I0428 19:49:19.903106 26731 net.cpp:124] Setting up conv1
I0428 19:49:19.903120 26731 net.cpp:131] Top shape: 100 5 8 8 (32000)
I0428 19:49:19.903123 26731 net.cpp:139] Memory required for data: 1882800
I0428 19:49:19.903131 26731 layer_factory.hpp:77] Creating layer pool1
I0428 19:49:19.903137 26731 net.cpp:86] Creating Layer pool1
I0428 19:49:19.903141 26731 net.cpp:408] pool1 <- conv1
I0428 19:49:19.903146 26731 net.cpp:382] pool1 -> pool1
I0428 19:49:19.903223 26731 net.cpp:124] Setting up pool1
I0428 19:49:19.903229 26731 net.cpp:131] Top shape: 100 5 4 4 (8000)
I0428 19:49:19.903233 26731 net.cpp:139] Memory required for data: 1914800
I0428 19:49:19.903235 26731 layer_factory.hpp:77] Creating layer ip1
I0428 19:49:19.903241 26731 net.cpp:86] Creating Layer ip1
I0428 19:49:19.903244 26731 net.cpp:408] ip1 <- pool1
I0428 19:49:19.903250 26731 net.cpp:382] ip1 -> ip1
I0428 19:49:19.903404 26731 net.cpp:124] Setting up ip1
I0428 19:49:19.903415 26731 net.cpp:131] Top shape: 100 25 (2500)
I0428 19:49:19.903429 26731 net.cpp:139] Memory required for data: 1924800
I0428 19:49:19.903436 26731 layer_factory.hpp:77] Creating layer relu1
I0428 19:49:19.903442 26731 net.cpp:86] Creating Layer relu1
I0428 19:49:19.903445 26731 net.cpp:408] relu1 <- ip1
I0428 19:49:19.903450 26731 net.cpp:369] relu1 -> ip1 (in-place)
I0428 19:49:19.903645 26731 net.cpp:124] Setting up relu1
I0428 19:49:19.903656 26731 net.cpp:131] Top shape: 100 25 (2500)
I0428 19:49:19.903659 26731 net.cpp:139] Memory required for data: 1934800
I0428 19:49:19.903662 26731 layer_factory.hpp:77] Creating layer ip2
I0428 19:49:19.903671 26731 net.cpp:86] Creating Layer ip2
I0428 19:49:19.903692 26731 net.cpp:408] ip2 <- ip1
I0428 19:49:19.903698 26731 net.cpp:382] ip2 -> ip2
I0428 19:49:19.903808 26731 net.cpp:124] Setting up ip2
I0428 19:49:19.903815 26731 net.cpp:131] Top shape: 100 25 (2500)
I0428 19:49:19.903818 26731 net.cpp:139] Memory required for data: 1944800
I0428 19:49:19.903825 26731 layer_factory.hpp:77] Creating layer relu2
I0428 19:49:19.903830 26731 net.cpp:86] Creating Layer relu2
I0428 19:49:19.903832 26731 net.cpp:408] relu2 <- ip2
I0428 19:49:19.903837 26731 net.cpp:369] relu2 -> ip2 (in-place)
I0428 19:49:19.904006 26731 net.cpp:124] Setting up relu2
I0428 19:49:19.904014 26731 net.cpp:131] Top shape: 100 25 (2500)
I0428 19:49:19.904017 26731 net.cpp:139] Memory required for data: 1954800
I0428 19:49:19.904021 26731 layer_factory.hpp:77] Creating layer ip3
I0428 19:49:19.904026 26731 net.cpp:86] Creating Layer ip3
I0428 19:49:19.904031 26731 net.cpp:408] ip3 <- ip2
I0428 19:49:19.904036 26731 net.cpp:382] ip3 -> ip3
I0428 19:49:19.904134 26731 net.cpp:124] Setting up ip3
I0428 19:49:19.904140 26731 net.cpp:131] Top shape: 100 10 (1000)
I0428 19:49:19.904144 26731 net.cpp:139] Memory required for data: 1958800
I0428 19:49:19.904150 26731 layer_factory.hpp:77] Creating layer relu3
I0428 19:49:19.904155 26731 net.cpp:86] Creating Layer relu3
I0428 19:49:19.904158 26731 net.cpp:408] relu3 <- ip3
I0428 19:49:19.904163 26731 net.cpp:369] relu3 -> ip3 (in-place)
I0428 19:49:19.905179 26731 net.cpp:124] Setting up relu3
I0428 19:49:19.905191 26731 net.cpp:131] Top shape: 100 10 (1000)
I0428 19:49:19.905210 26731 net.cpp:139] Memory required for data: 1962800
I0428 19:49:19.905213 26731 layer_factory.hpp:77] Creating layer ip3_relu3_0_split
I0428 19:49:19.905221 26731 net.cpp:86] Creating Layer ip3_relu3_0_split
I0428 19:49:19.905231 26731 net.cpp:408] ip3_relu3_0_split <- ip3
I0428 19:49:19.905236 26731 net.cpp:382] ip3_relu3_0_split -> ip3_relu3_0_split_0
I0428 19:49:19.905242 26731 net.cpp:382] ip3_relu3_0_split -> ip3_relu3_0_split_1
I0428 19:49:19.905283 26731 net.cpp:124] Setting up ip3_relu3_0_split
I0428 19:49:19.905288 26731 net.cpp:131] Top shape: 100 10 (1000)
I0428 19:49:19.905293 26731 net.cpp:131] Top shape: 100 10 (1000)
I0428 19:49:19.905295 26731 net.cpp:139] Memory required for data: 1970800
I0428 19:49:19.905298 26731 layer_factory.hpp:77] Creating layer accuracy
I0428 19:49:19.905304 26731 net.cpp:86] Creating Layer accuracy
I0428 19:49:19.905308 26731 net.cpp:408] accuracy <- ip3_relu3_0_split_0
I0428 19:49:19.905311 26731 net.cpp:408] accuracy <- label_mnist_1_split_0
I0428 19:49:19.905318 26731 net.cpp:382] accuracy -> accuracy
…
