…
I0428 20:02:20.772362 29922 net.cpp:296] The NetState phase (0) differed from the phase (1) specified by a rule in layer mnist
I0428 20:02:20.772378 29922 net.cpp:296] The NetState phase (0) differed from the phase (1) specified by a rule in layer accuracy
I0428 20:02:20.772474 29922 net.cpp:53] Initializing net from parameters: 
name: "LeNet"
state {
  phase: TRAIN
  level: 0
  stage: ""
}
layer {
  name: "mnist"
  type: "Data"
  top: "data"
  top: "label"
  include {
    phase: TRAIN
  }
  transform_param {
    scale: 0.00390625
  }
  data_param {
    source: "examples/mnist/mnist_train_lmdb"
    batch_size: 64
    backend: LMDB
  }
}
layer {
  name: "conv0"
  type: "Convolution"
  bottom: "data"
  top: "conv0"
  param {
    lr_mult: 1
  }
  param {
    lr_mult: 2
  }
  convolution_param {
    num_output: 10
    kernel_size: 5
    stride: 1
    weight_filler {
      type: "xavier"
    }
    bias_filler {
      type: "constant"
    }
  }
}
layer {
  name: "pool0"
  type: "Pooling"
  bottom: "conv0"
  top: "pool0"
  pooling_param {
    pool: MAX
    kernel_size: 2
    stride: 2
  }
}
layer {
  name: "conv1"
  type: "Convolution"
  bottom: "pool0"
  top: "conv1"
  param {
    lr_mult: 1
  }
  param {
    lr_mult: 2
  }
  convolution_param {
    num_output: 50
    kernel_size: 5
    stride: 1
    weight_filler {
      type: "xavier"
    }
    bias_filler {
      type: "constant"
    }
  }
}
layer {
  name: "pool1"
  type: "Pooling"
  bottom: "conv1"
  top: "pool1"
  pooling_param {
    pool: MAX
    kernel_size: 2
    stride: 2
  }
}
layer {
  name: "ip1"
  type: "InnerProduct"
  bottom: "pool1"
  top: "ip1"
  param {
    lr_mult: 1
  }
  param {
    lr_mult: 2
  }
  inner_product_param {
    num_output: 25
    weight_filler {
      type: "xavier"
    }
    bias_filler {
      type: "constant"
    }
  }
}
layer {
  name: "relu1"
  type: "ReLU"
  bottom: "ip1"
  top: "ip1"
}
layer {
  name: "ip2"
  type: "InnerProduct"
  bottom: "ip1"
  top: "ip2"
  param {
    lr_mult: 1
  }
  param {
    lr_mult: 2
  }
  inner_product_param {
    num_output: 50
    weight_filler {
      type: "xavier"
    }
    bias_filler {
      type: "constant"
    }
  }
}
layer {
  name: "relu2"
  type: "ReLU"
  bottom: "ip2"
  top: "ip2"
}
layer {
  name: "ip3"
  type: "InnerProduct"
  bottom: "ip2"
  top: "ip3"
  param {
    lr_mult: 1
  }
  param {
    lr_mult: 2
  }
  inner_product_param {
    num_output: 10
    weight_filler {
      type: "xavier"
    }
    bias_filler {
      type: "constant"
    }
  }
}
layer {
  name: "relu3"
  type: "ReLU"
  bottom: "ip3"
  top: "ip3"
}
layer {
  name: "loss"
  type: "SoftmaxWithLoss"
  bottom: "ip3"
  bottom: "label"
  top: "loss"
}
I0428 20:02:20.772555 29922 layer_factory.hpp:77] Creating layer mnist
I0428 20:02:20.772639 29922 db_lmdb.cpp:35] Opened lmdb examples/mnist/mnist_train_lmdb
I0428 20:02:20.772675 29922 net.cpp:86] Creating Layer mnist
I0428 20:02:20.772682 29922 net.cpp:382] mnist -> data
I0428 20:02:20.772701 29922 net.cpp:382] mnist -> label
I0428 20:02:20.773707 29922 data_layer.cpp:45] output data size: 64,1,28,28
I0428 20:02:20.775992 29922 net.cpp:124] Setting up mnist
I0428 20:02:20.776007 29922 net.cpp:131] Top shape: 64 1 28 28 (50176)
I0428 20:02:20.776011 29922 net.cpp:131] Top shape: 64 (64)
I0428 20:02:20.776015 29922 net.cpp:139] Memory required for data: 200960
I0428 20:02:20.776021 29922 layer_factory.hpp:77] Creating layer conv0
I0428 20:02:20.776036 29922 net.cpp:86] Creating Layer conv0
I0428 20:02:20.776051 29922 net.cpp:408] conv0 <- data
I0428 20:02:20.776063 29922 net.cpp:382] conv0 -> conv0
I0428 20:02:21.010254 29922 net.cpp:124] Setting up conv0
I0428 20:02:21.010280 29922 net.cpp:131] Top shape: 64 10 24 24 (368640)
I0428 20:02:21.010284 29922 net.cpp:139] Memory required for data: 1675520
I0428 20:02:21.010299 29922 layer_factory.hpp:77] Creating layer pool0
I0428 20:02:21.010327 29922 net.cpp:86] Creating Layer pool0
I0428 20:02:21.010331 29922 net.cpp:408] pool0 <- conv0
I0428 20:02:21.010336 29922 net.cpp:382] pool0 -> pool0
I0428 20:02:21.010382 29922 net.cpp:124] Setting up pool0
I0428 20:02:21.010390 29922 net.cpp:131] Top shape: 64 10 12 12 (92160)
I0428 20:02:21.010392 29922 net.cpp:139] Memory required for data: 2044160
I0428 20:02:21.010396 29922 layer_factory.hpp:77] Creating layer conv1
I0428 20:02:21.010406 29922 net.cpp:86] Creating Layer conv1
I0428 20:02:21.010409 29922 net.cpp:408] conv1 <- pool0
I0428 20:02:21.010414 29922 net.cpp:382] conv1 -> conv1
I0428 20:02:21.013355 29922 net.cpp:124] Setting up conv1
I0428 20:02:21.013370 29922 net.cpp:131] Top shape: 64 50 8 8 (204800)
I0428 20:02:21.013372 29922 net.cpp:139] Memory required for data: 2863360
I0428 20:02:21.013397 29922 layer_factory.hpp:77] Creating layer pool1
I0428 20:02:21.013406 29922 net.cpp:86] Creating Layer pool1
I0428 20:02:21.013409 29922 net.cpp:408] pool1 <- conv1
I0428 20:02:21.013414 29922 net.cpp:382] pool1 -> pool1
I0428 20:02:21.013453 29922 net.cpp:124] Setting up pool1
I0428 20:02:21.013459 29922 net.cpp:131] Top shape: 64 50 4 4 (51200)
I0428 20:02:21.013463 29922 net.cpp:139] Memory required for data: 3068160
I0428 20:02:21.013465 29922 layer_factory.hpp:77] Creating layer ip1
I0428 20:02:21.013473 29922 net.cpp:86] Creating Layer ip1
I0428 20:02:21.013476 29922 net.cpp:408] ip1 <- pool1
I0428 20:02:21.013480 29922 net.cpp:382] ip1 -> ip1
I0428 20:02:21.013716 29922 net.cpp:124] Setting up ip1
I0428 20:02:21.013723 29922 net.cpp:131] Top shape: 64 25 (1600)
I0428 20:02:21.013726 29922 net.cpp:139] Memory required for data: 3074560
I0428 20:02:21.013733 29922 layer_factory.hpp:77] Creating layer relu1
I0428 20:02:21.013739 29922 net.cpp:86] Creating Layer relu1
I0428 20:02:21.013742 29922 net.cpp:408] relu1 <- ip1
I0428 20:02:21.013746 29922 net.cpp:369] relu1 -> ip1 (in-place)
I0428 20:02:21.013898 29922 net.cpp:124] Setting up relu1
I0428 20:02:21.013906 29922 net.cpp:131] Top shape: 64 25 (1600)
I0428 20:02:21.013909 29922 net.cpp:139] Memory required for data: 3080960
I0428 20:02:21.013912 29922 layer_factory.hpp:77] Creating layer ip2
I0428 20:02:21.013918 29922 net.cpp:86] Creating Layer ip2
I0428 20:02:21.013921 29922 net.cpp:408] ip2 <- ip1
I0428 20:02:21.013926 29922 net.cpp:382] ip2 -> ip2
I0428 20:02:21.014885 29922 net.cpp:124] Setting up ip2
I0428 20:02:21.014897 29922 net.cpp:131] Top shape: 64 50 (3200)
I0428 20:02:21.014901 29922 net.cpp:139] Memory required for data: 3093760
I0428 20:02:21.014906 29922 layer_factory.hpp:77] Creating layer relu2
I0428 20:02:21.014914 29922 net.cpp:86] Creating Layer relu2
I0428 20:02:21.014916 29922 net.cpp:408] relu2 <- ip2
I0428 20:02:21.014921 29922 net.cpp:369] relu2 -> ip2 (in-place)
I0428 20:02:21.015662 29922 net.cpp:124] Setting up relu2
I0428 20:02:21.015674 29922 net.cpp:131] Top shape: 64 50 (3200)
I0428 20:02:21.015678 29922 net.cpp:139] Memory required for data: 3106560
I0428 20:02:21.015681 29922 layer_factory.hpp:77] Creating layer ip3
I0428 20:02:21.015689 29922 net.cpp:86] Creating Layer ip3
I0428 20:02:21.015693 29922 net.cpp:408] ip3 <- ip2
I0428 20:02:21.015698 29922 net.cpp:382] ip3 -> ip3
I0428 20:02:21.015817 29922 net.cpp:124] Setting up ip3
I0428 20:02:21.015825 29922 net.cpp:131] Top shape: 64 10 (640)
I0428 20:02:21.015828 29922 net.cpp:139] Memory required for data: 3109120
I0428 20:02:21.015836 29922 layer_factory.hpp:77] Creating layer relu3
I0428 20:02:21.015841 29922 net.cpp:86] Creating Layer relu3
I0428 20:02:21.015844 29922 net.cpp:408] relu3 <- ip3
I0428 20:02:21.015848 29922 net.cpp:369] relu3 -> ip3 (in-place)
I0428 20:02:21.016037 29922 net.cpp:124] Setting up relu3
I0428 20:02:21.016046 29922 net.cpp:131] Top shape: 64 10 (640)
I0428 20:02:21.016048 29922 net.cpp:139] Memory required for data: 3111680
I0428 20:02:21.016052 29922 layer_factory.hpp:77] Creating layer loss
I0428 20:02:21.016057 29922 net.cpp:86] Creating Layer loss
I0428 20:02:21.016059 29922 net.cpp:408] loss <- ip3
I0428 20:02:21.016063 29922 net.cpp:408] loss <- label
I0428 20:02:21.016068 29922 net.cpp:382] loss -> loss
I0428 20:02:21.016083 29922 layer_factory.hpp:77] Creating layer loss
…
I0428 20:02:21.016715 29922 solver.cpp:173] Creating test net (#0) specified by net file: ECE595/mnist/train_test/var_everything2/lenet_train_test926.prototxt
I0428 20:02:21.016741 29922 net.cpp:296] The NetState phase (1) differed from the phase (0) specified by a rule in layer mnist
I0428 20:02:21.016847 29922 net.cpp:53] Initializing net from parameters: 
name: "LeNet"
state {
  phase: TEST
}
layer {
  name: "mnist"
  type: "Data"
  top: "data"
  top: "label"
  include {
    phase: TEST
  }
  transform_param {
    scale: 0.00390625
  }
  data_param {
    source: "examples/mnist/mnist_test_lmdb"
    batch_size: 100
    backend: LMDB
  }
}
layer {
  name: "conv0"
  type: "Convolution"
  bottom: "data"
  top: "conv0"
  param {
    lr_mult: 1
  }
  param {
    lr_mult: 2
  }
  convolution_param {
    num_output: 10
    kernel_size: 5
    stride: 1
    weight_filler {
      type: "xavier"
    }
    bias_filler {
      type: "constant"
    }
  }
}
layer {
  name: "pool0"
  type: "Pooling"
  bottom: "conv0"
  top: "pool0"
  pooling_param {
    pool: MAX
    kernel_size: 2
    stride: 2
  }
}
layer {
  name: "conv1"
  type: "Convolution"
  bottom: "pool0"
  top: "conv1"
  param {
    lr_mult: 1
  }
  param {
    lr_mult: 2
  }
  convolution_param {
    num_output: 50
    kernel_size: 5
    stride: 1
    weight_filler {
      type: "xavier"
    }
    bias_filler {
      type: "constant"
    }
  }
}
layer {
  name: "pool1"
  type: "Pooling"
  bottom: "conv1"
  top: "pool1"
  pooling_param {
    pool: MAX
    kernel_size: 2
    stride: 2
  }
}
layer {
  name: "ip1"
  type: "InnerProduct"
  bottom: "pool1"
  top: "ip1"
  param {
    lr_mult: 1
  }
  param {
    lr_mult: 2
  }
  inner_product_param {
    num_output: 25
    weight_filler {
      type: "xavier"
    }
    bias_filler {
      type: "constant"
    }
  }
}
layer {
  name: "relu1"
  type: "ReLU"
  bottom: "ip1"
  top: "ip1"
}
layer {
  name: "ip2"
  type: "InnerProduct"
  bottom: "ip1"
  top: "ip2"
  param {
    lr_mult: 1
  }
  param {
    lr_mult: 2
  }
  inner_product_param {
    num_output: 50
    weight_filler {
      type: "xavier"
    }
    bias_filler {
      type: "constant"
    }
  }
}
layer {
  name: "relu2"
  type: "ReLU"
  bottom: "ip2"
  top: "ip2"
}
layer {
  name: "ip3"
  type: "InnerProduct"
  bottom: "ip2"
  top: "ip3"
  param {
    lr_mult: 1
  }
  param {
    lr_mult: 2
  }
  inner_product_param {
    num_output: 10
    weight_filler {
      type: "xavier"
    }
    bias_filler {
      type: "constant"
    }
  }
}
layer {
  name: "relu3"
  type: "ReLU"
  bottom: "ip3"
  top: "ip3"
}
layer {
  name: "accuracy"
  type: "Accuracy"
  bottom: "ip3"
  bottom: "label"
  top: "accuracy"
  include {
    phase: TEST
  }
}
layer {
  name: "loss"
  type: "SoftmaxWithLoss"
  bottom: "ip3"
  bottom: "label"
  top: "loss"
}
I0428 20:02:21.016929 29922 layer_factory.hpp:77] Creating layer mnist
I0428 20:02:21.016991 29922 db_lmdb.cpp:35] Opened lmdb examples/mnist/mnist_test_lmdb
I0428 20:02:21.017019 29922 net.cpp:86] Creating Layer mnist
I0428 20:02:21.017022 29922 net.cpp:382] mnist -> data
I0428 20:02:21.017030 29922 net.cpp:382] mnist -> label
I0428 20:02:21.017109 29922 data_layer.cpp:45] output data size: 100,1,28,28
I0428 20:02:21.019037 29922 net.cpp:124] Setting up mnist
I0428 20:02:21.019050 29922 net.cpp:131] Top shape: 100 1 28 28 (78400)
I0428 20:02:21.019054 29922 net.cpp:131] Top shape: 100 (100)
I0428 20:02:21.019057 29922 net.cpp:139] Memory required for data: 314000
I0428 20:02:21.019062 29922 layer_factory.hpp:77] Creating layer label_mnist_1_split
I0428 20:02:21.019068 29922 net.cpp:86] Creating Layer label_mnist_1_split
I0428 20:02:21.019071 29922 net.cpp:408] label_mnist_1_split <- label
I0428 20:02:21.019075 29922 net.cpp:382] label_mnist_1_split -> label_mnist_1_split_0
I0428 20:02:21.019083 29922 net.cpp:382] label_mnist_1_split -> label_mnist_1_split_1
I0428 20:02:21.019170 29922 net.cpp:124] Setting up label_mnist_1_split
I0428 20:02:21.019177 29922 net.cpp:131] Top shape: 100 (100)
I0428 20:02:21.019181 29922 net.cpp:131] Top shape: 100 (100)
I0428 20:02:21.019184 29922 net.cpp:139] Memory required for data: 314800
I0428 20:02:21.019186 29922 layer_factory.hpp:77] Creating layer conv0
I0428 20:02:21.019196 29922 net.cpp:86] Creating Layer conv0
I0428 20:02:21.019214 29922 net.cpp:408] conv0 <- data
I0428 20:02:21.019219 29922 net.cpp:382] conv0 -> conv0
I0428 20:02:21.020964 29922 net.cpp:124] Setting up conv0
I0428 20:02:21.020979 29922 net.cpp:131] Top shape: 100 10 24 24 (576000)
I0428 20:02:21.020983 29922 net.cpp:139] Memory required for data: 2618800
I0428 20:02:21.020992 29922 layer_factory.hpp:77] Creating layer pool0
I0428 20:02:21.021014 29922 net.cpp:86] Creating Layer pool0
I0428 20:02:21.021018 29922 net.cpp:408] pool0 <- conv0
I0428 20:02:21.021023 29922 net.cpp:382] pool0 -> pool0
I0428 20:02:21.021061 29922 net.cpp:124] Setting up pool0
I0428 20:02:21.021069 29922 net.cpp:131] Top shape: 100 10 12 12 (144000)
I0428 20:02:21.021071 29922 net.cpp:139] Memory required for data: 3194800
I0428 20:02:21.021075 29922 layer_factory.hpp:77] Creating layer conv1
I0428 20:02:21.021083 29922 net.cpp:86] Creating Layer conv1
I0428 20:02:21.021086 29922 net.cpp:408] conv1 <- pool0
I0428 20:02:21.021092 29922 net.cpp:382] conv1 -> conv1
I0428 20:02:21.022723 29922 net.cpp:124] Setting up conv1
I0428 20:02:21.022739 29922 net.cpp:131] Top shape: 100 50 8 8 (320000)
I0428 20:02:21.022743 29922 net.cpp:139] Memory required for data: 4474800
I0428 20:02:21.022753 29922 layer_factory.hpp:77] Creating layer pool1
I0428 20:02:21.022759 29922 net.cpp:86] Creating Layer pool1
I0428 20:02:21.022763 29922 net.cpp:408] pool1 <- conv1
I0428 20:02:21.022768 29922 net.cpp:382] pool1 -> pool1
I0428 20:02:21.022804 29922 net.cpp:124] Setting up pool1
I0428 20:02:21.022811 29922 net.cpp:131] Top shape: 100 50 4 4 (80000)
I0428 20:02:21.022814 29922 net.cpp:139] Memory required for data: 4794800
I0428 20:02:21.022817 29922 layer_factory.hpp:77] Creating layer ip1
I0428 20:02:21.022824 29922 net.cpp:86] Creating Layer ip1
I0428 20:02:21.022827 29922 net.cpp:408] ip1 <- pool1
I0428 20:02:21.022831 29922 net.cpp:382] ip1 -> ip1
I0428 20:02:21.023083 29922 net.cpp:124] Setting up ip1
I0428 20:02:21.023092 29922 net.cpp:131] Top shape: 100 25 (2500)
I0428 20:02:21.023108 29922 net.cpp:139] Memory required for data: 4804800
I0428 20:02:21.023115 29922 layer_factory.hpp:77] Creating layer relu1
I0428 20:02:21.023121 29922 net.cpp:86] Creating Layer relu1
I0428 20:02:21.023124 29922 net.cpp:408] relu1 <- ip1
I0428 20:02:21.023129 29922 net.cpp:369] relu1 -> ip1 (in-place)
I0428 20:02:21.023298 29922 net.cpp:124] Setting up relu1
I0428 20:02:21.023322 29922 net.cpp:131] Top shape: 100 25 (2500)
I0428 20:02:21.023325 29922 net.cpp:139] Memory required for data: 4814800
I0428 20:02:21.023329 29922 layer_factory.hpp:77] Creating layer ip2
I0428 20:02:21.023337 29922 net.cpp:86] Creating Layer ip2
I0428 20:02:21.023342 29922 net.cpp:408] ip2 <- ip1
I0428 20:02:21.023347 29922 net.cpp:382] ip2 -> ip2
I0428 20:02:21.023473 29922 net.cpp:124] Setting up ip2
I0428 20:02:21.023480 29922 net.cpp:131] Top shape: 100 50 (5000)
I0428 20:02:21.023483 29922 net.cpp:139] Memory required for data: 4834800
I0428 20:02:21.023488 29922 layer_factory.hpp:77] Creating layer relu2
I0428 20:02:21.023494 29922 net.cpp:86] Creating Layer relu2
I0428 20:02:21.023496 29922 net.cpp:408] relu2 <- ip2
I0428 20:02:21.023500 29922 net.cpp:369] relu2 -> ip2 (in-place)
I0428 20:02:21.023715 29922 net.cpp:124] Setting up relu2
I0428 20:02:21.023723 29922 net.cpp:131] Top shape: 100 50 (5000)
I0428 20:02:21.023727 29922 net.cpp:139] Memory required for data: 4854800
I0428 20:02:21.023730 29922 layer_factory.hpp:77] Creating layer ip3
I0428 20:02:21.023736 29922 net.cpp:86] Creating Layer ip3
I0428 20:02:21.023741 29922 net.cpp:408] ip3 <- ip2
I0428 20:02:21.023746 29922 net.cpp:382] ip3 -> ip3
I0428 20:02:21.023843 29922 net.cpp:124] Setting up ip3
I0428 20:02:21.023849 29922 net.cpp:131] Top shape: 100 10 (1000)
I0428 20:02:21.023852 29922 net.cpp:139] Memory required for data: 4858800
I0428 20:02:21.023860 29922 layer_factory.hpp:77] Creating layer relu3
I0428 20:02:21.023864 29922 net.cpp:86] Creating Layer relu3
I0428 20:02:21.023867 29922 net.cpp:408] relu3 <- ip3
I0428 20:02:21.023872 29922 net.cpp:369] relu3 -> ip3 (in-place)
I0428 20:02:21.024693 29922 net.cpp:124] Setting up relu3
I0428 20:02:21.024705 29922 net.cpp:131] Top shape: 100 10 (1000)
I0428 20:02:21.024709 29922 net.cpp:139] Memory required for data: 4862800
I0428 20:02:21.024713 29922 layer_factory.hpp:77] Creating layer ip3_relu3_0_split
I0428 20:02:21.024718 29922 net.cpp:86] Creating Layer ip3_relu3_0_split
I0428 20:02:21.024721 29922 net.cpp:408] ip3_relu3_0_split <- ip3
I0428 20:02:21.024726 29922 net.cpp:382] ip3_relu3_0_split -> ip3_relu3_0_split_0
I0428 20:02:21.024732 29922 net.cpp:382] ip3_relu3_0_split -> ip3_relu3_0_split_1
I0428 20:02:21.024787 29922 net.cpp:124] Setting up ip3_relu3_0_split
I0428 20:02:21.024793 29922 net.cpp:131] Top shape: 100 10 (1000)
I0428 20:02:21.024797 29922 net.cpp:131] Top shape: 100 10 (1000)
I0428 20:02:21.024801 29922 net.cpp:139] Memory required for data: 4870800
I0428 20:02:21.024803 29922 layer_factory.hpp:77] Creating layer accuracy
I0428 20:02:21.024816 29922 net.cpp:86] Creating Layer accuracy
I0428 20:02:21.024837 29922 net.cpp:408] accuracy <- ip3_relu3_0_split_0
I0428 20:02:21.024843 29922 net.cpp:408] accuracy <- label_mnist_1_split_0
I0428 20:02:21.024852 29922 net.cpp:382] accuracy -> accuracy
…
