…
I0428 20:03:29.183573 30190 net.cpp:296] The NetState phase (0) differed from the phase (1) specified by a rule in layer mnist
I0428 20:03:29.183591 30190 net.cpp:296] The NetState phase (0) differed from the phase (1) specified by a rule in layer accuracy
I0428 20:03:29.183687 30190 net.cpp:53] Initializing net from parameters: 
name: "LeNet"
state {
  phase: TRAIN
  level: 0
  stage: ""
}
layer {
  name: "mnist"
  type: "Data"
  top: "data"
  top: "label"
  include {
    phase: TRAIN
  }
  transform_param {
    scale: 0.00390625
  }
  data_param {
    source: "examples/mnist/mnist_train_lmdb"
    batch_size: 64
    backend: LMDB
  }
}
layer {
  name: "conv0"
  type: "Convolution"
  bottom: "data"
  top: "conv0"
  param {
    lr_mult: 1
  }
  param {
    lr_mult: 2
  }
  convolution_param {
    num_output: 10
    kernel_size: 5
    stride: 1
    weight_filler {
      type: "xavier"
    }
    bias_filler {
      type: "constant"
    }
  }
}
layer {
  name: "pool0"
  type: "Pooling"
  bottom: "conv0"
  top: "pool0"
  pooling_param {
    pool: MAX
    kernel_size: 2
    stride: 2
  }
}
layer {
  name: "conv1"
  type: "Convolution"
  bottom: "pool0"
  top: "conv1"
  param {
    lr_mult: 1
  }
  param {
    lr_mult: 2
  }
  convolution_param {
    num_output: 100
    kernel_size: 5
    stride: 1
    weight_filler {
      type: "xavier"
    }
    bias_filler {
      type: "constant"
    }
  }
}
layer {
  name: "pool1"
  type: "Pooling"
  bottom: "conv1"
  top: "pool1"
  pooling_param {
    pool: MAX
    kernel_size: 2
    stride: 2
  }
}
layer {
  name: "ip1"
  type: "InnerProduct"
  bottom: "pool1"
  top: "ip1"
  param {
    lr_mult: 1
  }
  param {
    lr_mult: 2
  }
  inner_product_param {
    num_output: 10
    weight_filler {
      type: "xavier"
    }
    bias_filler {
      type: "constant"
    }
  }
}
layer {
  name: "relu1"
  type: "ReLU"
  bottom: "ip1"
  top: "ip1"
}
layer {
  name: "ip2"
  type: "InnerProduct"
  bottom: "ip1"
  top: "ip2"
  param {
    lr_mult: 1
  }
  param {
    lr_mult: 2
  }
  inner_product_param {
    num_output: 25
    weight_filler {
      type: "xavier"
    }
    bias_filler {
      type: "constant"
    }
  }
}
layer {
  name: "relu2"
  type: "ReLU"
  bottom: "ip2"
  top: "ip2"
}
layer {
  name: "ip3"
  type: "InnerProduct"
  bottom: "ip2"
  top: "ip3"
  param {
    lr_mult: 1
  }
  param {
    lr_mult: 2
  }
  inner_product_param {
    num_output: 10
    weight_filler {
      type: "xavier"
    }
    bias_filler {
      type: "constant"
    }
  }
}
layer {
  name: "relu3"
  type: "ReLU"
  bottom: "ip3"
  top: "ip3"
}
layer {
  name: "loss"
  type: "SoftmaxWithLoss"
  bottom: "ip3"
  bottom: "label"
  top: "loss"
}
I0428 20:03:29.183763 30190 layer_factory.hpp:77] Creating layer mnist
I0428 20:03:29.183863 30190 db_lmdb.cpp:35] Opened lmdb examples/mnist/mnist_train_lmdb
I0428 20:03:29.183886 30190 net.cpp:86] Creating Layer mnist
I0428 20:03:29.183892 30190 net.cpp:382] mnist -> data
I0428 20:03:29.183914 30190 net.cpp:382] mnist -> label
I0428 20:03:29.185029 30190 data_layer.cpp:45] output data size: 64,1,28,28
I0428 20:03:29.187499 30190 net.cpp:124] Setting up mnist
I0428 20:03:29.187516 30190 net.cpp:131] Top shape: 64 1 28 28 (50176)
I0428 20:03:29.187522 30190 net.cpp:131] Top shape: 64 (64)
I0428 20:03:29.187526 30190 net.cpp:139] Memory required for data: 200960
I0428 20:03:29.187535 30190 layer_factory.hpp:77] Creating layer conv0
I0428 20:03:29.187549 30190 net.cpp:86] Creating Layer conv0
I0428 20:03:29.187571 30190 net.cpp:408] conv0 <- data
I0428 20:03:29.187582 30190 net.cpp:382] conv0 -> conv0
I0428 20:03:29.478626 30190 net.cpp:124] Setting up conv0
I0428 20:03:29.478654 30190 net.cpp:131] Top shape: 64 10 24 24 (368640)
I0428 20:03:29.478659 30190 net.cpp:139] Memory required for data: 1675520
I0428 20:03:29.478674 30190 layer_factory.hpp:77] Creating layer pool0
I0428 20:03:29.478688 30190 net.cpp:86] Creating Layer pool0
I0428 20:03:29.478693 30190 net.cpp:408] pool0 <- conv0
I0428 20:03:29.478698 30190 net.cpp:382] pool0 -> pool0
I0428 20:03:29.478751 30190 net.cpp:124] Setting up pool0
I0428 20:03:29.478760 30190 net.cpp:131] Top shape: 64 10 12 12 (92160)
I0428 20:03:29.478762 30190 net.cpp:139] Memory required for data: 2044160
I0428 20:03:29.478766 30190 layer_factory.hpp:77] Creating layer conv1
I0428 20:03:29.478777 30190 net.cpp:86] Creating Layer conv1
I0428 20:03:29.478781 30190 net.cpp:408] conv1 <- pool0
I0428 20:03:29.478786 30190 net.cpp:382] conv1 -> conv1
I0428 20:03:29.480839 30190 net.cpp:124] Setting up conv1
I0428 20:03:29.480855 30190 net.cpp:131] Top shape: 64 100 8 8 (409600)
I0428 20:03:29.480859 30190 net.cpp:139] Memory required for data: 3682560
I0428 20:03:29.480868 30190 layer_factory.hpp:77] Creating layer pool1
I0428 20:03:29.480876 30190 net.cpp:86] Creating Layer pool1
I0428 20:03:29.480880 30190 net.cpp:408] pool1 <- conv1
I0428 20:03:29.480885 30190 net.cpp:382] pool1 -> pool1
I0428 20:03:29.480924 30190 net.cpp:124] Setting up pool1
I0428 20:03:29.480932 30190 net.cpp:131] Top shape: 64 100 4 4 (102400)
I0428 20:03:29.480936 30190 net.cpp:139] Memory required for data: 4092160
I0428 20:03:29.480938 30190 layer_factory.hpp:77] Creating layer ip1
I0428 20:03:29.480949 30190 net.cpp:86] Creating Layer ip1
I0428 20:03:29.480953 30190 net.cpp:408] ip1 <- pool1
I0428 20:03:29.480958 30190 net.cpp:382] ip1 -> ip1
I0428 20:03:29.482044 30190 net.cpp:124] Setting up ip1
I0428 20:03:29.482058 30190 net.cpp:131] Top shape: 64 10 (640)
I0428 20:03:29.482061 30190 net.cpp:139] Memory required for data: 4094720
I0428 20:03:29.482069 30190 layer_factory.hpp:77] Creating layer relu1
I0428 20:03:29.482094 30190 net.cpp:86] Creating Layer relu1
I0428 20:03:29.482096 30190 net.cpp:408] relu1 <- ip1
I0428 20:03:29.482101 30190 net.cpp:369] relu1 -> ip1 (in-place)
I0428 20:03:29.482278 30190 net.cpp:124] Setting up relu1
I0428 20:03:29.482287 30190 net.cpp:131] Top shape: 64 10 (640)
I0428 20:03:29.482291 30190 net.cpp:139] Memory required for data: 4097280
I0428 20:03:29.482295 30190 layer_factory.hpp:77] Creating layer ip2
I0428 20:03:29.482301 30190 net.cpp:86] Creating Layer ip2
I0428 20:03:29.482306 30190 net.cpp:408] ip2 <- ip1
I0428 20:03:29.482311 30190 net.cpp:382] ip2 -> ip2
I0428 20:03:29.482414 30190 net.cpp:124] Setting up ip2
I0428 20:03:29.482421 30190 net.cpp:131] Top shape: 64 25 (1600)
I0428 20:03:29.482424 30190 net.cpp:139] Memory required for data: 4103680
I0428 20:03:29.482430 30190 layer_factory.hpp:77] Creating layer relu2
I0428 20:03:29.482437 30190 net.cpp:86] Creating Layer relu2
I0428 20:03:29.482440 30190 net.cpp:408] relu2 <- ip2
I0428 20:03:29.482445 30190 net.cpp:369] relu2 -> ip2 (in-place)
I0428 20:03:29.483252 30190 net.cpp:124] Setting up relu2
I0428 20:03:29.483264 30190 net.cpp:131] Top shape: 64 25 (1600)
I0428 20:03:29.483268 30190 net.cpp:139] Memory required for data: 4110080
I0428 20:03:29.483271 30190 layer_factory.hpp:77] Creating layer ip3
I0428 20:03:29.483280 30190 net.cpp:86] Creating Layer ip3
I0428 20:03:29.483283 30190 net.cpp:408] ip3 <- ip2
I0428 20:03:29.483290 30190 net.cpp:382] ip3 -> ip3
I0428 20:03:29.483395 30190 net.cpp:124] Setting up ip3
I0428 20:03:29.483403 30190 net.cpp:131] Top shape: 64 10 (640)
I0428 20:03:29.483407 30190 net.cpp:139] Memory required for data: 4112640
I0428 20:03:29.483414 30190 layer_factory.hpp:77] Creating layer relu3
I0428 20:03:29.483419 30190 net.cpp:86] Creating Layer relu3
I0428 20:03:29.483423 30190 net.cpp:408] relu3 <- ip3
I0428 20:03:29.483428 30190 net.cpp:369] relu3 -> ip3 (in-place)
I0428 20:03:29.483604 30190 net.cpp:124] Setting up relu3
I0428 20:03:29.483614 30190 net.cpp:131] Top shape: 64 10 (640)
I0428 20:03:29.483618 30190 net.cpp:139] Memory required for data: 4115200
I0428 20:03:29.483620 30190 layer_factory.hpp:77] Creating layer loss
I0428 20:03:29.483626 30190 net.cpp:86] Creating Layer loss
I0428 20:03:29.483629 30190 net.cpp:408] loss <- ip3
I0428 20:03:29.483633 30190 net.cpp:408] loss <- label
I0428 20:03:29.483640 30190 net.cpp:382] loss -> loss
I0428 20:03:29.483659 30190 layer_factory.hpp:77] Creating layer loss
…
I0428 20:03:29.484300 30190 solver.cpp:173] Creating test net (#0) specified by net file: ECE595/mnist/train_test/var_everything2/lenet_train_test952.prototxt
I0428 20:03:29.484328 30190 net.cpp:296] The NetState phase (1) differed from the phase (0) specified by a rule in layer mnist
I0428 20:03:29.484423 30190 net.cpp:53] Initializing net from parameters: 
name: "LeNet"
state {
  phase: TEST
}
layer {
  name: "mnist"
  type: "Data"
  top: "data"
  top: "label"
  include {
    phase: TEST
  }
  transform_param {
    scale: 0.00390625
  }
  data_param {
    source: "examples/mnist/mnist_test_lmdb"
    batch_size: 100
    backend: LMDB
  }
}
layer {
  name: "conv0"
  type: "Convolution"
  bottom: "data"
  top: "conv0"
  param {
    lr_mult: 1
  }
  param {
    lr_mult: 2
  }
  convolution_param {
    num_output: 10
    kernel_size: 5
    stride: 1
    weight_filler {
      type: "xavier"
    }
    bias_filler {
      type: "constant"
    }
  }
}
layer {
  name: "pool0"
  type: "Pooling"
  bottom: "conv0"
  top: "pool0"
  pooling_param {
    pool: MAX
    kernel_size: 2
    stride: 2
  }
}
layer {
  name: "conv1"
  type: "Convolution"
  bottom: "pool0"
  top: "conv1"
  param {
    lr_mult: 1
  }
  param {
    lr_mult: 2
  }
  convolution_param {
    num_output: 100
    kernel_size: 5
    stride: 1
    weight_filler {
      type: "xavier"
    }
    bias_filler {
      type: "constant"
    }
  }
}
layer {
  name: "pool1"
  type: "Pooling"
  bottom: "conv1"
  top: "pool1"
  pooling_param {
    pool: MAX
    kernel_size: 2
    stride: 2
  }
}
layer {
  name: "ip1"
  type: "InnerProduct"
  bottom: "pool1"
  top: "ip1"
  param {
    lr_mult: 1
  }
  param {
    lr_mult: 2
  }
  inner_product_param {
    num_output: 10
    weight_filler {
      type: "xavier"
    }
    bias_filler {
      type: "constant"
    }
  }
}
layer {
  name: "relu1"
  type: "ReLU"
  bottom: "ip1"
  top: "ip1"
}
layer {
  name: "ip2"
  type: "InnerProduct"
  bottom: "ip1"
  top: "ip2"
  param {
    lr_mult: 1
  }
  param {
    lr_mult: 2
  }
  inner_product_param {
    num_output: 25
    weight_filler {
      type: "xavier"
    }
    bias_filler {
      type: "constant"
    }
  }
}
layer {
  name: "relu2"
  type: "ReLU"
  bottom: "ip2"
  top: "ip2"
}
layer {
  name: "ip3"
  type: "InnerProduct"
  bottom: "ip2"
  top: "ip3"
  param {
    lr_mult: 1
  }
  param {
    lr_mult: 2
  }
  inner_product_param {
    num_output: 10
    weight_filler {
      type: "xavier"
    }
    bias_filler {
      type: "constant"
    }
  }
}
layer {
  name: "relu3"
  type: "ReLU"
  bottom: "ip3"
  top: "ip3"
}
layer {
  name: "accuracy"
  type: "Accuracy"
  bottom: "ip3"
  bottom: "label"
  top: "accuracy"
  include {
    phase: TEST
  }
}
layer {
  name: "loss"
  type: "SoftmaxWithLoss"
  bottom: "ip3"
  bottom: "label"
  top: "loss"
}
I0428 20:03:29.484505 30190 layer_factory.hpp:77] Creating layer mnist
I0428 20:03:29.484549 30190 db_lmdb.cpp:35] Opened lmdb examples/mnist/mnist_test_lmdb
I0428 20:03:29.484563 30190 net.cpp:86] Creating Layer mnist
I0428 20:03:29.484567 30190 net.cpp:382] mnist -> data
I0428 20:03:29.484575 30190 net.cpp:382] mnist -> label
I0428 20:03:29.484661 30190 data_layer.cpp:45] output data size: 100,1,28,28
I0428 20:03:29.486598 30190 net.cpp:124] Setting up mnist
I0428 20:03:29.486613 30190 net.cpp:131] Top shape: 100 1 28 28 (78400)
I0428 20:03:29.486618 30190 net.cpp:131] Top shape: 100 (100)
I0428 20:03:29.486620 30190 net.cpp:139] Memory required for data: 314000
I0428 20:03:29.486624 30190 layer_factory.hpp:77] Creating layer label_mnist_1_split
I0428 20:03:29.486635 30190 net.cpp:86] Creating Layer label_mnist_1_split
I0428 20:03:29.486639 30190 net.cpp:408] label_mnist_1_split <- label
I0428 20:03:29.486644 30190 net.cpp:382] label_mnist_1_split -> label_mnist_1_split_0
I0428 20:03:29.486651 30190 net.cpp:382] label_mnist_1_split -> label_mnist_1_split_1
I0428 20:03:29.486729 30190 net.cpp:124] Setting up label_mnist_1_split
I0428 20:03:29.486737 30190 net.cpp:131] Top shape: 100 (100)
I0428 20:03:29.486740 30190 net.cpp:131] Top shape: 100 (100)
I0428 20:03:29.486744 30190 net.cpp:139] Memory required for data: 314800
I0428 20:03:29.486747 30190 layer_factory.hpp:77] Creating layer conv0
I0428 20:03:29.486757 30190 net.cpp:86] Creating Layer conv0
I0428 20:03:29.486759 30190 net.cpp:408] conv0 <- data
I0428 20:03:29.486764 30190 net.cpp:382] conv0 -> conv0
I0428 20:03:29.488345 30190 net.cpp:124] Setting up conv0
I0428 20:03:29.488359 30190 net.cpp:131] Top shape: 100 10 24 24 (576000)
I0428 20:03:29.488363 30190 net.cpp:139] Memory required for data: 2618800
I0428 20:03:29.488373 30190 layer_factory.hpp:77] Creating layer pool0
I0428 20:03:29.488379 30190 net.cpp:86] Creating Layer pool0
I0428 20:03:29.488382 30190 net.cpp:408] pool0 <- conv0
I0428 20:03:29.488387 30190 net.cpp:382] pool0 -> pool0
I0428 20:03:29.488453 30190 net.cpp:124] Setting up pool0
I0428 20:03:29.488461 30190 net.cpp:131] Top shape: 100 10 12 12 (144000)
I0428 20:03:29.488463 30190 net.cpp:139] Memory required for data: 3194800
I0428 20:03:29.488466 30190 layer_factory.hpp:77] Creating layer conv1
I0428 20:03:29.488476 30190 net.cpp:86] Creating Layer conv1
I0428 20:03:29.488478 30190 net.cpp:408] conv1 <- pool0
I0428 20:03:29.488483 30190 net.cpp:382] conv1 -> conv1
I0428 20:03:29.490113 30190 net.cpp:124] Setting up conv1
I0428 20:03:29.490126 30190 net.cpp:131] Top shape: 100 100 8 8 (640000)
I0428 20:03:29.490130 30190 net.cpp:139] Memory required for data: 5754800
I0428 20:03:29.490139 30190 layer_factory.hpp:77] Creating layer pool1
I0428 20:03:29.490146 30190 net.cpp:86] Creating Layer pool1
I0428 20:03:29.490150 30190 net.cpp:408] pool1 <- conv1
I0428 20:03:29.490155 30190 net.cpp:382] pool1 -> pool1
I0428 20:03:29.490191 30190 net.cpp:124] Setting up pool1
I0428 20:03:29.490196 30190 net.cpp:131] Top shape: 100 100 4 4 (160000)
I0428 20:03:29.490200 30190 net.cpp:139] Memory required for data: 6394800
I0428 20:03:29.490203 30190 layer_factory.hpp:77] Creating layer ip1
I0428 20:03:29.490209 30190 net.cpp:86] Creating Layer ip1
I0428 20:03:29.490212 30190 net.cpp:408] ip1 <- pool1
I0428 20:03:29.490218 30190 net.cpp:382] ip1 -> ip1
I0428 20:03:29.490430 30190 net.cpp:124] Setting up ip1
I0428 20:03:29.490439 30190 net.cpp:131] Top shape: 100 10 (1000)
I0428 20:03:29.490455 30190 net.cpp:139] Memory required for data: 6398800
I0428 20:03:29.490464 30190 layer_factory.hpp:77] Creating layer relu1
I0428 20:03:29.490469 30190 net.cpp:86] Creating Layer relu1
I0428 20:03:29.490478 30190 net.cpp:408] relu1 <- ip1
I0428 20:03:29.490483 30190 net.cpp:369] relu1 -> ip1 (in-place)
I0428 20:03:29.490680 30190 net.cpp:124] Setting up relu1
I0428 20:03:29.490689 30190 net.cpp:131] Top shape: 100 10 (1000)
I0428 20:03:29.490692 30190 net.cpp:139] Memory required for data: 6402800
I0428 20:03:29.490697 30190 layer_factory.hpp:77] Creating layer ip2
I0428 20:03:29.490705 30190 net.cpp:86] Creating Layer ip2
I0428 20:03:29.490707 30190 net.cpp:408] ip2 <- ip1
I0428 20:03:29.490722 30190 net.cpp:382] ip2 -> ip2
I0428 20:03:29.490818 30190 net.cpp:124] Setting up ip2
I0428 20:03:29.490825 30190 net.cpp:131] Top shape: 100 25 (2500)
I0428 20:03:29.490828 30190 net.cpp:139] Memory required for data: 6412800
I0428 20:03:29.490841 30190 layer_factory.hpp:77] Creating layer relu2
I0428 20:03:29.490846 30190 net.cpp:86] Creating Layer relu2
I0428 20:03:29.490849 30190 net.cpp:408] relu2 <- ip2
I0428 20:03:29.490854 30190 net.cpp:369] relu2 -> ip2 (in-place)
I0428 20:03:29.491036 30190 net.cpp:124] Setting up relu2
I0428 20:03:29.491044 30190 net.cpp:131] Top shape: 100 25 (2500)
I0428 20:03:29.491047 30190 net.cpp:139] Memory required for data: 6422800
I0428 20:03:29.491051 30190 layer_factory.hpp:77] Creating layer ip3
I0428 20:03:29.491056 30190 net.cpp:86] Creating Layer ip3
I0428 20:03:29.491060 30190 net.cpp:408] ip3 <- ip2
I0428 20:03:29.491065 30190 net.cpp:382] ip3 -> ip3
I0428 20:03:29.491188 30190 net.cpp:124] Setting up ip3
I0428 20:03:29.491195 30190 net.cpp:131] Top shape: 100 10 (1000)
I0428 20:03:29.491199 30190 net.cpp:139] Memory required for data: 6426800
I0428 20:03:29.491206 30190 layer_factory.hpp:77] Creating layer relu3
I0428 20:03:29.491211 30190 net.cpp:86] Creating Layer relu3
I0428 20:03:29.491215 30190 net.cpp:408] relu3 <- ip3
I0428 20:03:29.491219 30190 net.cpp:369] relu3 -> ip3 (in-place)
I0428 20:03:29.492216 30190 net.cpp:124] Setting up relu3
I0428 20:03:29.492228 30190 net.cpp:131] Top shape: 100 10 (1000)
I0428 20:03:29.492233 30190 net.cpp:139] Memory required for data: 6430800
I0428 20:03:29.492235 30190 layer_factory.hpp:77] Creating layer ip3_relu3_0_split
I0428 20:03:29.492241 30190 net.cpp:86] Creating Layer ip3_relu3_0_split
I0428 20:03:29.492244 30190 net.cpp:408] ip3_relu3_0_split <- ip3
I0428 20:03:29.492249 30190 net.cpp:382] ip3_relu3_0_split -> ip3_relu3_0_split_0
I0428 20:03:29.492256 30190 net.cpp:382] ip3_relu3_0_split -> ip3_relu3_0_split_1
I0428 20:03:29.492296 30190 net.cpp:124] Setting up ip3_relu3_0_split
I0428 20:03:29.492303 30190 net.cpp:131] Top shape: 100 10 (1000)
I0428 20:03:29.492307 30190 net.cpp:131] Top shape: 100 10 (1000)
I0428 20:03:29.492311 30190 net.cpp:139] Memory required for data: 6438800
I0428 20:03:29.492313 30190 layer_factory.hpp:77] Creating layer accuracy
I0428 20:03:29.492318 30190 net.cpp:86] Creating Layer accuracy
I0428 20:03:29.492321 30190 net.cpp:408] accuracy <- ip3_relu3_0_split_0
I0428 20:03:29.492326 30190 net.cpp:408] accuracy <- label_mnist_1_split_0
I0428 20:03:29.492331 30190 net.cpp:382] accuracy -> accuracy
…
