…
I0428 19:45:19.212486 25782 net.cpp:296] The NetState phase (0) differed from the phase (1) specified by a rule in layer mnist
I0428 19:45:19.212503 25782 net.cpp:296] The NetState phase (0) differed from the phase (1) specified by a rule in layer accuracy
I0428 19:45:19.212584 25782 net.cpp:53] Initializing net from parameters: 
name: "LeNet"
state {
  phase: TRAIN
  level: 0
  stage: ""
}
layer {
  name: "mnist"
  type: "Data"
  top: "data"
  top: "label"
  include {
    phase: TRAIN
  }
  transform_param {
    scale: 0.00390625
  }
  data_param {
    source: "examples/mnist/mnist_train_lmdb"
    batch_size: 64
    backend: LMDB
  }
}
layer {
  name: "conv0"
  type: "Convolution"
  bottom: "data"
  top: "conv0"
  param {
    lr_mult: 1
  }
  param {
    lr_mult: 2
  }
  convolution_param {
    num_output: 2
    kernel_size: 5
    stride: 1
    weight_filler {
      type: "xavier"
    }
    bias_filler {
      type: "constant"
    }
  }
}
layer {
  name: "pool0"
  type: "Pooling"
  bottom: "conv0"
  top: "pool0"
  pooling_param {
    pool: MAX
    kernel_size: 2
    stride: 2
  }
}
layer {
  name: "conv1"
  type: "Convolution"
  bottom: "pool0"
  top: "conv1"
  param {
    lr_mult: 1
  }
  param {
    lr_mult: 2
  }
  convolution_param {
    num_output: 100
    kernel_size: 5
    stride: 1
    weight_filler {
      type: "xavier"
    }
    bias_filler {
      type: "constant"
    }
  }
}
layer {
  name: "pool1"
  type: "Pooling"
  bottom: "conv1"
  top: "pool1"
  pooling_param {
    pool: MAX
    kernel_size: 2
    stride: 2
  }
}
layer {
  name: "ip1"
  type: "InnerProduct"
  bottom: "pool1"
  top: "ip1"
  param {
    lr_mult: 1
  }
  param {
    lr_mult: 2
  }
  inner_product_param {
    num_output: 10
    weight_filler {
      type: "xavier"
    }
    bias_filler {
      type: "constant"
    }
  }
}
layer {
  name: "relu1"
  type: "ReLU"
  bottom: "ip1"
  top: "ip1"
}
layer {
  name: "loss"
  type: "SoftmaxWithLoss"
  bottom: "ip1"
  bottom: "label"
  top: "loss"
}
I0428 19:45:19.212654 25782 layer_factory.hpp:77] Creating layer mnist
I0428 19:45:19.212754 25782 db_lmdb.cpp:35] Opened lmdb examples/mnist/mnist_train_lmdb
I0428 19:45:19.212777 25782 net.cpp:86] Creating Layer mnist
I0428 19:45:19.212787 25782 net.cpp:382] mnist -> data
I0428 19:45:19.212818 25782 net.cpp:382] mnist -> label
I0428 19:45:19.213913 25782 data_layer.cpp:45] output data size: 64,1,28,28
I0428 19:45:19.216349 25782 net.cpp:124] Setting up mnist
I0428 19:45:19.216367 25782 net.cpp:131] Top shape: 64 1 28 28 (50176)
I0428 19:45:19.216375 25782 net.cpp:131] Top shape: 64 (64)
I0428 19:45:19.216378 25782 net.cpp:139] Memory required for data: 200960
I0428 19:45:19.216385 25782 layer_factory.hpp:77] Creating layer conv0
I0428 19:45:19.216426 25782 net.cpp:86] Creating Layer conv0
I0428 19:45:19.216434 25782 net.cpp:408] conv0 <- data
I0428 19:45:19.216445 25782 net.cpp:382] conv0 -> conv0
I0428 19:45:19.508760 25782 net.cpp:124] Setting up conv0
I0428 19:45:19.508792 25782 net.cpp:131] Top shape: 64 2 24 24 (73728)
I0428 19:45:19.508798 25782 net.cpp:139] Memory required for data: 495872
I0428 19:45:19.508822 25782 layer_factory.hpp:77] Creating layer pool0
I0428 19:45:19.508838 25782 net.cpp:86] Creating Layer pool0
I0428 19:45:19.508843 25782 net.cpp:408] pool0 <- conv0
I0428 19:45:19.508851 25782 net.cpp:382] pool0 -> pool0
I0428 19:45:19.508905 25782 net.cpp:124] Setting up pool0
I0428 19:45:19.508913 25782 net.cpp:131] Top shape: 64 2 12 12 (18432)
I0428 19:45:19.508932 25782 net.cpp:139] Memory required for data: 569600
I0428 19:45:19.508936 25782 layer_factory.hpp:77] Creating layer conv1
I0428 19:45:19.508950 25782 net.cpp:86] Creating Layer conv1
I0428 19:45:19.508955 25782 net.cpp:408] conv1 <- pool0
I0428 19:45:19.508960 25782 net.cpp:382] conv1 -> conv1
I0428 19:45:19.512104 25782 net.cpp:124] Setting up conv1
I0428 19:45:19.512122 25782 net.cpp:131] Top shape: 64 100 8 8 (409600)
I0428 19:45:19.512126 25782 net.cpp:139] Memory required for data: 2208000
I0428 19:45:19.512137 25782 layer_factory.hpp:77] Creating layer pool1
I0428 19:45:19.512146 25782 net.cpp:86] Creating Layer pool1
I0428 19:45:19.512151 25782 net.cpp:408] pool1 <- conv1
I0428 19:45:19.512158 25782 net.cpp:382] pool1 -> pool1
I0428 19:45:19.512202 25782 net.cpp:124] Setting up pool1
I0428 19:45:19.512209 25782 net.cpp:131] Top shape: 64 100 4 4 (102400)
I0428 19:45:19.512213 25782 net.cpp:139] Memory required for data: 2617600
I0428 19:45:19.512217 25782 layer_factory.hpp:77] Creating layer ip1
I0428 19:45:19.512225 25782 net.cpp:86] Creating Layer ip1
I0428 19:45:19.512228 25782 net.cpp:408] ip1 <- pool1
I0428 19:45:19.512234 25782 net.cpp:382] ip1 -> ip1
I0428 19:45:19.512455 25782 net.cpp:124] Setting up ip1
I0428 19:45:19.512465 25782 net.cpp:131] Top shape: 64 10 (640)
I0428 19:45:19.512470 25782 net.cpp:139] Memory required for data: 2620160
I0428 19:45:19.512478 25782 layer_factory.hpp:77] Creating layer relu1
I0428 19:45:19.512485 25782 net.cpp:86] Creating Layer relu1
I0428 19:45:19.512490 25782 net.cpp:408] relu1 <- ip1
I0428 19:45:19.512495 25782 net.cpp:369] relu1 -> ip1 (in-place)
I0428 19:45:19.512692 25782 net.cpp:124] Setting up relu1
I0428 19:45:19.512703 25782 net.cpp:131] Top shape: 64 10 (640)
I0428 19:45:19.512707 25782 net.cpp:139] Memory required for data: 2622720
I0428 19:45:19.512712 25782 layer_factory.hpp:77] Creating layer loss
I0428 19:45:19.512719 25782 net.cpp:86] Creating Layer loss
I0428 19:45:19.512722 25782 net.cpp:408] loss <- ip1
I0428 19:45:19.512727 25782 net.cpp:408] loss <- label
I0428 19:45:19.512733 25782 net.cpp:382] loss -> loss
I0428 19:45:19.512754 25782 layer_factory.hpp:77] Creating layer loss
…
I0428 19:45:19.514092 25782 solver.cpp:173] Creating test net (#0) specified by net file: ECE595/mnist/train_test/var_everything2/lenet_train_test469.prototxt
I0428 19:45:19.514120 25782 net.cpp:296] The NetState phase (1) differed from the phase (0) specified by a rule in layer mnist
I0428 19:45:19.514214 25782 net.cpp:53] Initializing net from parameters: 
name: "LeNet"
state {
  phase: TEST
}
layer {
  name: "mnist"
  type: "Data"
  top: "data"
  top: "label"
  include {
    phase: TEST
  }
  transform_param {
    scale: 0.00390625
  }
  data_param {
    source: "examples/mnist/mnist_test_lmdb"
    batch_size: 100
    backend: LMDB
  }
}
layer {
  name: "conv0"
  type: "Convolution"
  bottom: "data"
  top: "conv0"
  param {
    lr_mult: 1
  }
  param {
    lr_mult: 2
  }
  convolution_param {
    num_output: 2
    kernel_size: 5
    stride: 1
    weight_filler {
      type: "xavier"
    }
    bias_filler {
      type: "constant"
    }
  }
}
layer {
  name: "pool0"
  type: "Pooling"
  bottom: "conv0"
  top: "pool0"
  pooling_param {
    pool: MAX
    kernel_size: 2
    stride: 2
  }
}
layer {
  name: "conv1"
  type: "Convolution"
  bottom: "pool0"
  top: "conv1"
  param {
    lr_mult: 1
  }
  param {
    lr_mult: 2
  }
  convolution_param {
    num_output: 100
    kernel_size: 5
    stride: 1
    weight_filler {
      type: "xavier"
    }
    bias_filler {
      type: "constant"
    }
  }
}
layer {
  name: "pool1"
  type: "Pooling"
  bottom: "conv1"
  top: "pool1"
  pooling_param {
    pool: MAX
    kernel_size: 2
    stride: 2
  }
}
layer {
  name: "ip1"
  type: "InnerProduct"
  bottom: "pool1"
  top: "ip1"
  param {
    lr_mult: 1
  }
  param {
    lr_mult: 2
  }
  inner_product_param {
    num_output: 10
    weight_filler {
      type: "xavier"
    }
    bias_filler {
      type: "constant"
    }
  }
}
layer {
  name: "relu1"
  type: "ReLU"
  bottom: "ip1"
  top: "ip1"
}
layer {
  name: "accuracy"
  type: "Accuracy"
  bottom: "ip1"
  bottom: "label"
  top: "accuracy"
  include {
    phase: TEST
  }
}
layer {
  name: "loss"
  type: "SoftmaxWithLoss"
  bottom: "ip1"
  bottom: "label"
  top: "loss"
}
I0428 19:45:19.514298 25782 layer_factory.hpp:77] Creating layer mnist
I0428 19:45:19.514351 25782 db_lmdb.cpp:35] Opened lmdb examples/mnist/mnist_test_lmdb
I0428 19:45:19.514366 25782 net.cpp:86] Creating Layer mnist
I0428 19:45:19.514371 25782 net.cpp:382] mnist -> data
I0428 19:45:19.514380 25782 net.cpp:382] mnist -> label
I0428 19:45:19.514479 25782 data_layer.cpp:45] output data size: 100,1,28,28
I0428 19:45:19.516670 25782 net.cpp:124] Setting up mnist
I0428 19:45:19.516686 25782 net.cpp:131] Top shape: 100 1 28 28 (78400)
I0428 19:45:19.516692 25782 net.cpp:131] Top shape: 100 (100)
I0428 19:45:19.516696 25782 net.cpp:139] Memory required for data: 314000
I0428 19:45:19.516700 25782 layer_factory.hpp:77] Creating layer label_mnist_1_split
I0428 19:45:19.516708 25782 net.cpp:86] Creating Layer label_mnist_1_split
I0428 19:45:19.516712 25782 net.cpp:408] label_mnist_1_split <- label
I0428 19:45:19.516718 25782 net.cpp:382] label_mnist_1_split -> label_mnist_1_split_0
I0428 19:45:19.516728 25782 net.cpp:382] label_mnist_1_split -> label_mnist_1_split_1
I0428 19:45:19.516849 25782 net.cpp:124] Setting up label_mnist_1_split
I0428 19:45:19.516860 25782 net.cpp:131] Top shape: 100 (100)
I0428 19:45:19.516865 25782 net.cpp:131] Top shape: 100 (100)
I0428 19:45:19.516868 25782 net.cpp:139] Memory required for data: 314800
I0428 19:45:19.516871 25782 layer_factory.hpp:77] Creating layer conv0
I0428 19:45:19.516882 25782 net.cpp:86] Creating Layer conv0
I0428 19:45:19.516886 25782 net.cpp:408] conv0 <- data
I0428 19:45:19.516892 25782 net.cpp:382] conv0 -> conv0
I0428 19:45:19.517930 25782 net.cpp:124] Setting up conv0
I0428 19:45:19.517945 25782 net.cpp:131] Top shape: 100 2 24 24 (115200)
I0428 19:45:19.517949 25782 net.cpp:139] Memory required for data: 775600
I0428 19:45:19.517961 25782 layer_factory.hpp:77] Creating layer pool0
I0428 19:45:19.517967 25782 net.cpp:86] Creating Layer pool0
I0428 19:45:19.517971 25782 net.cpp:408] pool0 <- conv0
I0428 19:45:19.517978 25782 net.cpp:382] pool0 -> pool0
I0428 19:45:19.518023 25782 net.cpp:124] Setting up pool0
I0428 19:45:19.518028 25782 net.cpp:131] Top shape: 100 2 12 12 (28800)
I0428 19:45:19.518033 25782 net.cpp:139] Memory required for data: 890800
I0428 19:45:19.518035 25782 layer_factory.hpp:77] Creating layer conv1
I0428 19:45:19.518049 25782 net.cpp:86] Creating Layer conv1
I0428 19:45:19.518052 25782 net.cpp:408] conv1 <- pool0
I0428 19:45:19.518059 25782 net.cpp:382] conv1 -> conv1
I0428 19:45:19.519881 25782 net.cpp:124] Setting up conv1
I0428 19:45:19.519899 25782 net.cpp:131] Top shape: 100 100 8 8 (640000)
I0428 19:45:19.519904 25782 net.cpp:139] Memory required for data: 3450800
I0428 19:45:19.519915 25782 layer_factory.hpp:77] Creating layer pool1
I0428 19:45:19.519922 25782 net.cpp:86] Creating Layer pool1
I0428 19:45:19.519939 25782 net.cpp:408] pool1 <- conv1
I0428 19:45:19.519948 25782 net.cpp:382] pool1 -> pool1
I0428 19:45:19.519992 25782 net.cpp:124] Setting up pool1
I0428 19:45:19.520004 25782 net.cpp:131] Top shape: 100 100 4 4 (160000)
I0428 19:45:19.520006 25782 net.cpp:139] Memory required for data: 4090800
I0428 19:45:19.520011 25782 layer_factory.hpp:77] Creating layer ip1
I0428 19:45:19.520018 25782 net.cpp:86] Creating Layer ip1
I0428 19:45:19.520022 25782 net.cpp:408] ip1 <- pool1
I0428 19:45:19.520030 25782 net.cpp:382] ip1 -> ip1
I0428 19:45:19.520256 25782 net.cpp:124] Setting up ip1
I0428 19:45:19.520267 25782 net.cpp:131] Top shape: 100 10 (1000)
I0428 19:45:19.520270 25782 net.cpp:139] Memory required for data: 4094800
I0428 19:45:19.520278 25782 layer_factory.hpp:77] Creating layer relu1
I0428 19:45:19.520287 25782 net.cpp:86] Creating Layer relu1
I0428 19:45:19.520290 25782 net.cpp:408] relu1 <- ip1
I0428 19:45:19.520298 25782 net.cpp:369] relu1 -> ip1 (in-place)
I0428 19:45:19.521236 25782 net.cpp:124] Setting up relu1
I0428 19:45:19.521251 25782 net.cpp:131] Top shape: 100 10 (1000)
I0428 19:45:19.521255 25782 net.cpp:139] Memory required for data: 4098800
I0428 19:45:19.521260 25782 layer_factory.hpp:77] Creating layer ip1_relu1_0_split
I0428 19:45:19.521267 25782 net.cpp:86] Creating Layer ip1_relu1_0_split
I0428 19:45:19.521271 25782 net.cpp:408] ip1_relu1_0_split <- ip1
I0428 19:45:19.521277 25782 net.cpp:382] ip1_relu1_0_split -> ip1_relu1_0_split_0
I0428 19:45:19.521286 25782 net.cpp:382] ip1_relu1_0_split -> ip1_relu1_0_split_1
I0428 19:45:19.521332 25782 net.cpp:124] Setting up ip1_relu1_0_split
I0428 19:45:19.521339 25782 net.cpp:131] Top shape: 100 10 (1000)
I0428 19:45:19.521343 25782 net.cpp:131] Top shape: 100 10 (1000)
I0428 19:45:19.521347 25782 net.cpp:139] Memory required for data: 4106800
I0428 19:45:19.521351 25782 layer_factory.hpp:77] Creating layer accuracy
I0428 19:45:19.521359 25782 net.cpp:86] Creating Layer accuracy
I0428 19:45:19.521363 25782 net.cpp:408] accuracy <- ip1_relu1_0_split_0
I0428 19:45:19.521368 25782 net.cpp:408] accuracy <- label_mnist_1_split_0
I0428 19:45:19.521373 25782 net.cpp:382] accuracy -> accuracy
…
