…
I0428 20:12:06.041118 32193 net.cpp:296] The NetState phase (0) differed from the phase (1) specified by a rule in layer mnist
I0428 20:12:06.041134 32193 net.cpp:296] The NetState phase (0) differed from the phase (1) specified by a rule in layer accuracy
I0428 20:12:06.041214 32193 net.cpp:53] Initializing net from parameters: 
name: "LeNet"
state {
  phase: TRAIN
  level: 0
  stage: ""
}
layer {
  name: "mnist"
  type: "Data"
  top: "data"
  top: "label"
  include {
    phase: TRAIN
  }
  transform_param {
    scale: 0.00390625
  }
  data_param {
    source: "examples/mnist/mnist_train_lmdb"
    batch_size: 64
    backend: LMDB
  }
}
layer {
  name: "conv0"
  type: "Convolution"
  bottom: "data"
  top: "conv0"
  param {
    lr_mult: 1
  }
  param {
    lr_mult: 2
  }
  convolution_param {
    num_output: 25
    kernel_size: 5
    stride: 1
    weight_filler {
      type: "xavier"
    }
    bias_filler {
      type: "constant"
    }
  }
}
layer {
  name: "pool0"
  type: "Pooling"
  bottom: "conv0"
  top: "pool0"
  pooling_param {
    pool: MAX
    kernel_size: 2
    stride: 2
  }
}
layer {
  name: "conv1"
  type: "Convolution"
  bottom: "pool0"
  top: "conv1"
  param {
    lr_mult: 1
  }
  param {
    lr_mult: 2
  }
  convolution_param {
    num_output: 100
    kernel_size: 5
    stride: 1
    weight_filler {
      type: "xavier"
    }
    bias_filler {
      type: "constant"
    }
  }
}
layer {
  name: "pool1"
  type: "Pooling"
  bottom: "conv1"
  top: "pool1"
  pooling_param {
    pool: MAX
    kernel_size: 2
    stride: 2
  }
}
layer {
  name: "ip1"
  type: "InnerProduct"
  bottom: "pool1"
  top: "ip1"
  param {
    lr_mult: 1
  }
  param {
    lr_mult: 2
  }
  inner_product_param {
    num_output: 10
    weight_filler {
      type: "xavier"
    }
    bias_filler {
      type: "constant"
    }
  }
}
layer {
  name: "relu1"
  type: "ReLU"
  bottom: "ip1"
  top: "ip1"
}
layer {
  name: "ip2"
  type: "InnerProduct"
  bottom: "ip1"
  top: "ip2"
  param {
    lr_mult: 1
  }
  param {
    lr_mult: 2
  }
  inner_product_param {
    num_output: 10
    weight_filler {
      type: "xavier"
    }
    bias_filler {
      type: "constant"
    }
  }
}
layer {
  name: "relu2"
  type: "ReLU"
  bottom: "ip2"
  top: "ip2"
}
layer {
  name: "loss"
  type: "SoftmaxWithLoss"
  bottom: "ip2"
  bottom: "label"
  top: "loss"
}
I0428 20:12:06.041276 32193 layer_factory.hpp:77] Creating layer mnist
I0428 20:12:06.041368 32193 db_lmdb.cpp:35] Opened lmdb examples/mnist/mnist_train_lmdb
I0428 20:12:06.041388 32193 net.cpp:86] Creating Layer mnist
I0428 20:12:06.041395 32193 net.cpp:382] mnist -> data
I0428 20:12:06.041416 32193 net.cpp:382] mnist -> label
I0428 20:12:06.042428 32193 data_layer.cpp:45] output data size: 64,1,28,28
I0428 20:12:06.044708 32193 net.cpp:124] Setting up mnist
I0428 20:12:06.044725 32193 net.cpp:131] Top shape: 64 1 28 28 (50176)
I0428 20:12:06.044731 32193 net.cpp:131] Top shape: 64 (64)
I0428 20:12:06.044734 32193 net.cpp:139] Memory required for data: 200960
I0428 20:12:06.044742 32193 layer_factory.hpp:77] Creating layer conv0
I0428 20:12:06.044756 32193 net.cpp:86] Creating Layer conv0
I0428 20:12:06.044764 32193 net.cpp:408] conv0 <- data
I0428 20:12:06.044775 32193 net.cpp:382] conv0 -> conv0
I0428 20:12:06.280361 32193 net.cpp:124] Setting up conv0
I0428 20:12:06.280402 32193 net.cpp:131] Top shape: 64 25 24 24 (921600)
I0428 20:12:06.280406 32193 net.cpp:139] Memory required for data: 3887360
I0428 20:12:06.280434 32193 layer_factory.hpp:77] Creating layer pool0
I0428 20:12:06.280462 32193 net.cpp:86] Creating Layer pool0
I0428 20:12:06.280480 32193 net.cpp:408] pool0 <- conv0
I0428 20:12:06.280485 32193 net.cpp:382] pool0 -> pool0
I0428 20:12:06.280561 32193 net.cpp:124] Setting up pool0
I0428 20:12:06.280586 32193 net.cpp:131] Top shape: 64 25 12 12 (230400)
I0428 20:12:06.280591 32193 net.cpp:139] Memory required for data: 4808960
I0428 20:12:06.280593 32193 layer_factory.hpp:77] Creating layer conv1
I0428 20:12:06.280606 32193 net.cpp:86] Creating Layer conv1
I0428 20:12:06.280608 32193 net.cpp:408] conv1 <- pool0
I0428 20:12:06.280614 32193 net.cpp:382] conv1 -> conv1
I0428 20:12:06.282979 32193 net.cpp:124] Setting up conv1
I0428 20:12:06.283010 32193 net.cpp:131] Top shape: 64 100 8 8 (409600)
I0428 20:12:06.283013 32193 net.cpp:139] Memory required for data: 6447360
I0428 20:12:06.283022 32193 layer_factory.hpp:77] Creating layer pool1
I0428 20:12:06.283030 32193 net.cpp:86] Creating Layer pool1
I0428 20:12:06.283033 32193 net.cpp:408] pool1 <- conv1
I0428 20:12:06.283038 32193 net.cpp:382] pool1 -> pool1
I0428 20:12:06.283092 32193 net.cpp:124] Setting up pool1
I0428 20:12:06.283097 32193 net.cpp:131] Top shape: 64 100 4 4 (102400)
I0428 20:12:06.283100 32193 net.cpp:139] Memory required for data: 6856960
I0428 20:12:06.283104 32193 layer_factory.hpp:77] Creating layer ip1
I0428 20:12:06.283112 32193 net.cpp:86] Creating Layer ip1
I0428 20:12:06.283114 32193 net.cpp:408] ip1 <- pool1
I0428 20:12:06.283119 32193 net.cpp:382] ip1 -> ip1
I0428 20:12:06.284274 32193 net.cpp:124] Setting up ip1
I0428 20:12:06.284289 32193 net.cpp:131] Top shape: 64 10 (640)
I0428 20:12:06.284294 32193 net.cpp:139] Memory required for data: 6859520
I0428 20:12:06.284303 32193 layer_factory.hpp:77] Creating layer relu1
I0428 20:12:06.284312 32193 net.cpp:86] Creating Layer relu1
I0428 20:12:06.284315 32193 net.cpp:408] relu1 <- ip1
I0428 20:12:06.284320 32193 net.cpp:369] relu1 -> ip1 (in-place)
I0428 20:12:06.284519 32193 net.cpp:124] Setting up relu1
I0428 20:12:06.284531 32193 net.cpp:131] Top shape: 64 10 (640)
I0428 20:12:06.284535 32193 net.cpp:139] Memory required for data: 6862080
I0428 20:12:06.284554 32193 layer_factory.hpp:77] Creating layer ip2
I0428 20:12:06.284560 32193 net.cpp:86] Creating Layer ip2
I0428 20:12:06.284564 32193 net.cpp:408] ip2 <- ip1
I0428 20:12:06.284569 32193 net.cpp:382] ip2 -> ip2
I0428 20:12:06.284662 32193 net.cpp:124] Setting up ip2
I0428 20:12:06.284668 32193 net.cpp:131] Top shape: 64 10 (640)
I0428 20:12:06.284672 32193 net.cpp:139] Memory required for data: 6864640
I0428 20:12:06.284677 32193 layer_factory.hpp:77] Creating layer relu2
I0428 20:12:06.284684 32193 net.cpp:86] Creating Layer relu2
I0428 20:12:06.284687 32193 net.cpp:408] relu2 <- ip2
I0428 20:12:06.284692 32193 net.cpp:369] relu2 -> ip2 (in-place)
I0428 20:12:06.285523 32193 net.cpp:124] Setting up relu2
I0428 20:12:06.285537 32193 net.cpp:131] Top shape: 64 10 (640)
I0428 20:12:06.285542 32193 net.cpp:139] Memory required for data: 6867200
I0428 20:12:06.285544 32193 layer_factory.hpp:77] Creating layer loss
I0428 20:12:06.285552 32193 net.cpp:86] Creating Layer loss
I0428 20:12:06.285555 32193 net.cpp:408] loss <- ip2
I0428 20:12:06.285559 32193 net.cpp:408] loss <- label
I0428 20:12:06.285567 32193 net.cpp:382] loss -> loss
I0428 20:12:06.285598 32193 layer_factory.hpp:77] Creating layer loss
…
I0428 20:12:06.286272 32193 solver.cpp:173] Creating test net (#0) specified by net file: ECE595/mnist/train_test/var_everything2/lenet_train_test1173.prototxt
I0428 20:12:06.286314 32193 net.cpp:296] The NetState phase (1) differed from the phase (0) specified by a rule in layer mnist
I0428 20:12:06.286398 32193 net.cpp:53] Initializing net from parameters: 
name: "LeNet"
state {
  phase: TEST
}
layer {
  name: "mnist"
  type: "Data"
  top: "data"
  top: "label"
  include {
    phase: TEST
  }
  transform_param {
    scale: 0.00390625
  }
  data_param {
    source: "examples/mnist/mnist_test_lmdb"
    batch_size: 100
    backend: LMDB
  }
}
layer {
  name: "conv0"
  type: "Convolution"
  bottom: "data"
  top: "conv0"
  param {
    lr_mult: 1
  }
  param {
    lr_mult: 2
  }
  convolution_param {
    num_output: 25
    kernel_size: 5
    stride: 1
    weight_filler {
      type: "xavier"
    }
    bias_filler {
      type: "constant"
    }
  }
}
layer {
  name: "pool0"
  type: "Pooling"
  bottom: "conv0"
  top: "pool0"
  pooling_param {
    pool: MAX
    kernel_size: 2
    stride: 2
  }
}
layer {
  name: "conv1"
  type: "Convolution"
  bottom: "pool0"
  top: "conv1"
  param {
    lr_mult: 1
  }
  param {
    lr_mult: 2
  }
  convolution_param {
    num_output: 100
    kernel_size: 5
    stride: 1
    weight_filler {
      type: "xavier"
    }
    bias_filler {
      type: "constant"
    }
  }
}
layer {
  name: "pool1"
  type: "Pooling"
  bottom: "conv1"
  top: "pool1"
  pooling_param {
    pool: MAX
    kernel_size: 2
    stride: 2
  }
}
layer {
  name: "ip1"
  type: "InnerProduct"
  bottom: "pool1"
  top: "ip1"
  param {
    lr_mult: 1
  }
  param {
    lr_mult: 2
  }
  inner_product_param {
    num_output: 10
    weight_filler {
      type: "xavier"
    }
    bias_filler {
      type: "constant"
    }
  }
}
layer {
  name: "relu1"
  type: "ReLU"
  bottom: "ip1"
  top: "ip1"
}
layer {
  name: "ip2"
  type: "InnerProduct"
  bottom: "ip1"
  top: "ip2"
  param {
    lr_mult: 1
  }
  param {
    lr_mult: 2
  }
  inner_product_param {
    num_output: 10
    weight_filler {
      type: "xavier"
    }
    bias_filler {
      type: "constant"
    }
  }
}
layer {
  name: "relu2"
  type: "ReLU"
  bottom: "ip2"
  top: "ip2"
}
layer {
  name: "accuracy"
  type: "Accuracy"
  bottom: "ip2"
  bottom: "label"
  top: "accuracy"
  include {
    phase: TEST
  }
}
layer {
  name: "loss"
  type: "SoftmaxWithLoss"
  bottom: "ip2"
  bottom: "label"
  top: "loss"
}
I0428 20:12:06.286490 32193 layer_factory.hpp:77] Creating layer mnist
I0428 20:12:06.286537 32193 db_lmdb.cpp:35] Opened lmdb examples/mnist/mnist_test_lmdb
I0428 20:12:06.286550 32193 net.cpp:86] Creating Layer mnist
I0428 20:12:06.286554 32193 net.cpp:382] mnist -> data
I0428 20:12:06.286563 32193 net.cpp:382] mnist -> label
I0428 20:12:06.286654 32193 data_layer.cpp:45] output data size: 100,1,28,28
I0428 20:12:06.289014 32193 net.cpp:124] Setting up mnist
I0428 20:12:06.289042 32193 net.cpp:131] Top shape: 100 1 28 28 (78400)
I0428 20:12:06.289047 32193 net.cpp:131] Top shape: 100 (100)
I0428 20:12:06.289065 32193 net.cpp:139] Memory required for data: 314000
I0428 20:12:06.289068 32193 layer_factory.hpp:77] Creating layer label_mnist_1_split
I0428 20:12:06.289078 32193 net.cpp:86] Creating Layer label_mnist_1_split
I0428 20:12:06.289083 32193 net.cpp:408] label_mnist_1_split <- label
I0428 20:12:06.289103 32193 net.cpp:382] label_mnist_1_split -> label_mnist_1_split_0
I0428 20:12:06.289109 32193 net.cpp:382] label_mnist_1_split -> label_mnist_1_split_1
I0428 20:12:06.289204 32193 net.cpp:124] Setting up label_mnist_1_split
I0428 20:12:06.289212 32193 net.cpp:131] Top shape: 100 (100)
I0428 20:12:06.289216 32193 net.cpp:131] Top shape: 100 (100)
I0428 20:12:06.289219 32193 net.cpp:139] Memory required for data: 314800
I0428 20:12:06.289222 32193 layer_factory.hpp:77] Creating layer conv0
I0428 20:12:06.289232 32193 net.cpp:86] Creating Layer conv0
I0428 20:12:06.289237 32193 net.cpp:408] conv0 <- data
I0428 20:12:06.289243 32193 net.cpp:382] conv0 -> conv0
I0428 20:12:06.290925 32193 net.cpp:124] Setting up conv0
I0428 20:12:06.290940 32193 net.cpp:131] Top shape: 100 25 24 24 (1440000)
I0428 20:12:06.290944 32193 net.cpp:139] Memory required for data: 6074800
I0428 20:12:06.290954 32193 layer_factory.hpp:77] Creating layer pool0
I0428 20:12:06.290963 32193 net.cpp:86] Creating Layer pool0
I0428 20:12:06.290967 32193 net.cpp:408] pool0 <- conv0
I0428 20:12:06.290972 32193 net.cpp:382] pool0 -> pool0
I0428 20:12:06.291014 32193 net.cpp:124] Setting up pool0
I0428 20:12:06.291021 32193 net.cpp:131] Top shape: 100 25 12 12 (360000)
I0428 20:12:06.291024 32193 net.cpp:139] Memory required for data: 7514800
I0428 20:12:06.291028 32193 layer_factory.hpp:77] Creating layer conv1
I0428 20:12:06.291038 32193 net.cpp:86] Creating Layer conv1
I0428 20:12:06.291045 32193 net.cpp:408] conv1 <- pool0
I0428 20:12:06.291051 32193 net.cpp:382] conv1 -> conv1
I0428 20:12:06.293282 32193 net.cpp:124] Setting up conv1
I0428 20:12:06.293298 32193 net.cpp:131] Top shape: 100 100 8 8 (640000)
I0428 20:12:06.293321 32193 net.cpp:139] Memory required for data: 10074800
I0428 20:12:06.293332 32193 layer_factory.hpp:77] Creating layer pool1
I0428 20:12:06.293340 32193 net.cpp:86] Creating Layer pool1
I0428 20:12:06.293344 32193 net.cpp:408] pool1 <- conv1
I0428 20:12:06.293351 32193 net.cpp:382] pool1 -> pool1
I0428 20:12:06.293390 32193 net.cpp:124] Setting up pool1
I0428 20:12:06.293398 32193 net.cpp:131] Top shape: 100 100 4 4 (160000)
I0428 20:12:06.293402 32193 net.cpp:139] Memory required for data: 10714800
I0428 20:12:06.293406 32193 layer_factory.hpp:77] Creating layer ip1
I0428 20:12:06.293413 32193 net.cpp:86] Creating Layer ip1
I0428 20:12:06.293416 32193 net.cpp:408] ip1 <- pool1
I0428 20:12:06.293421 32193 net.cpp:382] ip1 -> ip1
I0428 20:12:06.293623 32193 net.cpp:124] Setting up ip1
I0428 20:12:06.293632 32193 net.cpp:131] Top shape: 100 10 (1000)
I0428 20:12:06.293651 32193 net.cpp:139] Memory required for data: 10718800
I0428 20:12:06.293659 32193 layer_factory.hpp:77] Creating layer relu1
I0428 20:12:06.293665 32193 net.cpp:86] Creating Layer relu1
I0428 20:12:06.293669 32193 net.cpp:408] relu1 <- ip1
I0428 20:12:06.293674 32193 net.cpp:369] relu1 -> ip1 (in-place)
I0428 20:12:06.293844 32193 net.cpp:124] Setting up relu1
I0428 20:12:06.293853 32193 net.cpp:131] Top shape: 100 10 (1000)
I0428 20:12:06.293858 32193 net.cpp:139] Memory required for data: 10722800
I0428 20:12:06.293860 32193 layer_factory.hpp:77] Creating layer ip2
I0428 20:12:06.293869 32193 net.cpp:86] Creating Layer ip2
I0428 20:12:06.293872 32193 net.cpp:408] ip2 <- ip1
I0428 20:12:06.293877 32193 net.cpp:382] ip2 -> ip2
I0428 20:12:06.293983 32193 net.cpp:124] Setting up ip2
I0428 20:12:06.293992 32193 net.cpp:131] Top shape: 100 10 (1000)
I0428 20:12:06.293997 32193 net.cpp:139] Memory required for data: 10726800
I0428 20:12:06.294001 32193 layer_factory.hpp:77] Creating layer relu2
I0428 20:12:06.294006 32193 net.cpp:86] Creating Layer relu2
I0428 20:12:06.294010 32193 net.cpp:408] relu2 <- ip2
I0428 20:12:06.294014 32193 net.cpp:369] relu2 -> ip2 (in-place)
I0428 20:12:06.294303 32193 net.cpp:124] Setting up relu2
I0428 20:12:06.294324 32193 net.cpp:131] Top shape: 100 10 (1000)
I0428 20:12:06.294327 32193 net.cpp:139] Memory required for data: 10730800
I0428 20:12:06.294347 32193 layer_factory.hpp:77] Creating layer ip2_relu2_0_split
I0428 20:12:06.294351 32193 net.cpp:86] Creating Layer ip2_relu2_0_split
I0428 20:12:06.294354 32193 net.cpp:408] ip2_relu2_0_split <- ip2
I0428 20:12:06.294359 32193 net.cpp:382] ip2_relu2_0_split -> ip2_relu2_0_split_0
I0428 20:12:06.294375 32193 net.cpp:382] ip2_relu2_0_split -> ip2_relu2_0_split_1
I0428 20:12:06.294416 32193 net.cpp:124] Setting up ip2_relu2_0_split
I0428 20:12:06.294423 32193 net.cpp:131] Top shape: 100 10 (1000)
I0428 20:12:06.294427 32193 net.cpp:131] Top shape: 100 10 (1000)
I0428 20:12:06.294431 32193 net.cpp:139] Memory required for data: 10738800
I0428 20:12:06.294435 32193 layer_factory.hpp:77] Creating layer accuracy
I0428 20:12:06.294440 32193 net.cpp:86] Creating Layer accuracy
I0428 20:12:06.294443 32193 net.cpp:408] accuracy <- ip2_relu2_0_split_0
I0428 20:12:06.294450 32193 net.cpp:408] accuracy <- label_mnist_1_split_0
I0428 20:12:06.294457 32193 net.cpp:382] accuracy -> accuracy
…
