…
I0428 19:28:17.252516 21583 net.cpp:296] The NetState phase (0) differed from the phase (1) specified by a rule in layer mnist
I0428 19:28:17.252532 21583 net.cpp:296] The NetState phase (0) differed from the phase (1) specified by a rule in layer accuracy
I0428 19:28:17.252602 21583 net.cpp:53] Initializing net from parameters: 
name: "LeNet"
state {
  phase: TRAIN
  level: 0
  stage: ""
}
layer {
  name: "mnist"
  type: "Data"
  top: "data"
  top: "label"
  include {
    phase: TRAIN
  }
  transform_param {
    scale: 0.00390625
  }
  data_param {
    source: "examples/mnist/mnist_train_lmdb"
    batch_size: 64
    backend: LMDB
  }
}
layer {
  name: "ip1"
  type: "InnerProduct"
  bottom: "data"
  top: "ip1"
  param {
    lr_mult: 1
  }
  param {
    lr_mult: 2
  }
  inner_product_param {
    num_output: 10
    weight_filler {
      type: "xavier"
    }
    bias_filler {
      type: "constant"
    }
  }
}
layer {
  name: "relu1"
  type: "ReLU"
  bottom: "ip1"
  top: "ip1"
}
layer {
  name: "ip2"
  type: "InnerProduct"
  bottom: "ip1"
  top: "ip2"
  param {
    lr_mult: 1
  }
  param {
    lr_mult: 2
  }
  inner_product_param {
    num_output: 50
    weight_filler {
      type: "xavier"
    }
    bias_filler {
      type: "constant"
    }
  }
}
layer {
  name: "relu2"
  type: "ReLU"
  bottom: "ip2"
  top: "ip2"
}
layer {
  name: "ip3"
  type: "InnerProduct"
  bottom: "ip2"
  top: "ip3"
  param {
    lr_mult: 1
  }
  param {
    lr_mult: 2
  }
  inner_product_param {
    num_output: 10
    weight_filler {
      type: "xavier"
    }
    bias_filler {
      type: "constant"
    }
  }
}
layer {
  name: "relu3"
  type: "ReLU"
  bottom: "ip3"
  top: "ip3"
}
layer {
  name: "loss"
  type: "SoftmaxWithLoss"
  bottom: "ip3"
  bottom: "label"
  top: "loss"
}
I0428 19:28:17.252662 21583 layer_factory.hpp:77] Creating layer mnist
I0428 19:28:17.252763 21583 db_lmdb.cpp:35] Opened lmdb examples/mnist/mnist_train_lmdb
I0428 19:28:17.252787 21583 net.cpp:86] Creating Layer mnist
I0428 19:28:17.252794 21583 net.cpp:382] mnist -> data
I0428 19:28:17.252822 21583 net.cpp:382] mnist -> label
I0428 19:28:17.253906 21583 data_layer.cpp:45] output data size: 64,1,28,28
I0428 19:28:17.256333 21583 net.cpp:124] Setting up mnist
I0428 19:28:17.256350 21583 net.cpp:131] Top shape: 64 1 28 28 (50176)
I0428 19:28:17.256356 21583 net.cpp:131] Top shape: 64 (64)
I0428 19:28:17.256361 21583 net.cpp:139] Memory required for data: 200960
I0428 19:28:17.256367 21583 layer_factory.hpp:77] Creating layer ip1
I0428 19:28:17.256378 21583 net.cpp:86] Creating Layer ip1
I0428 19:28:17.256383 21583 net.cpp:408] ip1 <- data
I0428 19:28:17.256394 21583 net.cpp:382] ip1 -> ip1
I0428 19:28:17.257685 21583 net.cpp:124] Setting up ip1
I0428 19:28:17.257700 21583 net.cpp:131] Top shape: 64 10 (640)
I0428 19:28:17.257704 21583 net.cpp:139] Memory required for data: 203520
I0428 19:28:17.257719 21583 layer_factory.hpp:77] Creating layer relu1
I0428 19:28:17.257727 21583 net.cpp:86] Creating Layer relu1
I0428 19:28:17.257732 21583 net.cpp:408] relu1 <- ip1
I0428 19:28:17.257737 21583 net.cpp:369] relu1 -> ip1 (in-place)
I0428 19:28:17.547128 21583 net.cpp:124] Setting up relu1
I0428 19:28:17.547160 21583 net.cpp:131] Top shape: 64 10 (640)
I0428 19:28:17.547164 21583 net.cpp:139] Memory required for data: 206080
I0428 19:28:17.547171 21583 layer_factory.hpp:77] Creating layer ip2
I0428 19:28:17.547186 21583 net.cpp:86] Creating Layer ip2
I0428 19:28:17.547212 21583 net.cpp:408] ip2 <- ip1
I0428 19:28:17.547222 21583 net.cpp:382] ip2 -> ip2
I0428 19:28:17.548390 21583 net.cpp:124] Setting up ip2
I0428 19:28:17.548405 21583 net.cpp:131] Top shape: 64 50 (3200)
I0428 19:28:17.548409 21583 net.cpp:139] Memory required for data: 218880
I0428 19:28:17.548422 21583 layer_factory.hpp:77] Creating layer relu2
I0428 19:28:17.548431 21583 net.cpp:86] Creating Layer relu2
I0428 19:28:17.548436 21583 net.cpp:408] relu2 <- ip2
I0428 19:28:17.548441 21583 net.cpp:369] relu2 -> ip2 (in-place)
I0428 19:28:17.549315 21583 net.cpp:124] Setting up relu2
I0428 19:28:17.549330 21583 net.cpp:131] Top shape: 64 50 (3200)
I0428 19:28:17.549335 21583 net.cpp:139] Memory required for data: 231680
I0428 19:28:17.549340 21583 layer_factory.hpp:77] Creating layer ip3
I0428 19:28:17.549347 21583 net.cpp:86] Creating Layer ip3
I0428 19:28:17.549351 21583 net.cpp:408] ip3 <- ip2
I0428 19:28:17.549358 21583 net.cpp:382] ip3 -> ip3
I0428 19:28:17.549479 21583 net.cpp:124] Setting up ip3
I0428 19:28:17.549487 21583 net.cpp:131] Top shape: 64 10 (640)
I0428 19:28:17.549491 21583 net.cpp:139] Memory required for data: 234240
I0428 19:28:17.549500 21583 layer_factory.hpp:77] Creating layer relu3
I0428 19:28:17.549507 21583 net.cpp:86] Creating Layer relu3
I0428 19:28:17.549511 21583 net.cpp:408] relu3 <- ip3
I0428 19:28:17.549516 21583 net.cpp:369] relu3 -> ip3 (in-place)
I0428 19:28:17.549695 21583 net.cpp:124] Setting up relu3
I0428 19:28:17.549705 21583 net.cpp:131] Top shape: 64 10 (640)
I0428 19:28:17.549707 21583 net.cpp:139] Memory required for data: 236800
I0428 19:28:17.549711 21583 layer_factory.hpp:77] Creating layer loss
I0428 19:28:17.549720 21583 net.cpp:86] Creating Layer loss
I0428 19:28:17.549722 21583 net.cpp:408] loss <- ip3
I0428 19:28:17.549727 21583 net.cpp:408] loss <- label
I0428 19:28:17.549733 21583 net.cpp:382] loss -> loss
I0428 19:28:17.549752 21583 layer_factory.hpp:77] Creating layer loss
…
I0428 19:28:17.550377 21583 solver.cpp:173] Creating test net (#0) specified by net file: ECE595/mnist/train_test/var_everything2/lenet_train_test20.prototxt
I0428 19:28:17.550406 21583 net.cpp:296] The NetState phase (1) differed from the phase (0) specified by a rule in layer mnist
I0428 19:28:17.550488 21583 net.cpp:53] Initializing net from parameters: 
name: "LeNet"
state {
  phase: TEST
}
layer {
  name: "mnist"
  type: "Data"
  top: "data"
  top: "label"
  include {
    phase: TEST
  }
  transform_param {
    scale: 0.00390625
  }
  data_param {
    source: "examples/mnist/mnist_test_lmdb"
    batch_size: 100
    backend: LMDB
  }
}
layer {
  name: "ip1"
  type: "InnerProduct"
  bottom: "data"
  top: "ip1"
  param {
    lr_mult: 1
  }
  param {
    lr_mult: 2
  }
  inner_product_param {
    num_output: 10
    weight_filler {
      type: "xavier"
    }
    bias_filler {
      type: "constant"
    }
  }
}
layer {
  name: "relu1"
  type: "ReLU"
  bottom: "ip1"
  top: "ip1"
}
layer {
  name: "ip2"
  type: "InnerProduct"
  bottom: "ip1"
  top: "ip2"
  param {
    lr_mult: 1
  }
  param {
    lr_mult: 2
  }
  inner_product_param {
    num_output: 50
    weight_filler {
      type: "xavier"
    }
    bias_filler {
      type: "constant"
    }
  }
}
layer {
  name: "relu2"
  type: "ReLU"
  bottom: "ip2"
  top: "ip2"
}
layer {
  name: "ip3"
  type: "InnerProduct"
  bottom: "ip2"
  top: "ip3"
  param {
    lr_mult: 1
  }
  param {
    lr_mult: 2
  }
  inner_product_param {
    num_output: 10
    weight_filler {
      type: "xavier"
    }
    bias_filler {
      type: "constant"
    }
  }
}
layer {
  name: "relu3"
  type: "ReLU"
  bottom: "ip3"
  top: "ip3"
}
layer {
  name: "accuracy"
  type: "Accuracy"
  bottom: "ip3"
  bottom: "label"
  top: "accuracy"
  include {
    phase: TEST
  }
}
layer {
  name: "loss"
  type: "SoftmaxWithLoss"
  bottom: "ip3"
  bottom: "label"
  top: "loss"
}
I0428 19:28:17.550571 21583 layer_factory.hpp:77] Creating layer mnist
I0428 19:28:17.550624 21583 db_lmdb.cpp:35] Opened lmdb examples/mnist/mnist_test_lmdb
I0428 19:28:17.550638 21583 net.cpp:86] Creating Layer mnist
I0428 19:28:17.550644 21583 net.cpp:382] mnist -> data
I0428 19:28:17.550653 21583 net.cpp:382] mnist -> label
I0428 19:28:17.550757 21583 data_layer.cpp:45] output data size: 100,1,28,28
I0428 19:28:17.552934 21583 net.cpp:124] Setting up mnist
I0428 19:28:17.552950 21583 net.cpp:131] Top shape: 100 1 28 28 (78400)
I0428 19:28:17.552956 21583 net.cpp:131] Top shape: 100 (100)
I0428 19:28:17.552960 21583 net.cpp:139] Memory required for data: 314000
I0428 19:28:17.552965 21583 layer_factory.hpp:77] Creating layer label_mnist_1_split
I0428 19:28:17.552978 21583 net.cpp:86] Creating Layer label_mnist_1_split
I0428 19:28:17.552983 21583 net.cpp:408] label_mnist_1_split <- label
I0428 19:28:17.552987 21583 net.cpp:382] label_mnist_1_split -> label_mnist_1_split_0
I0428 19:28:17.552995 21583 net.cpp:382] label_mnist_1_split -> label_mnist_1_split_1
I0428 19:28:17.553078 21583 net.cpp:124] Setting up label_mnist_1_split
I0428 19:28:17.553087 21583 net.cpp:131] Top shape: 100 (100)
I0428 19:28:17.553092 21583 net.cpp:131] Top shape: 100 (100)
I0428 19:28:17.553095 21583 net.cpp:139] Memory required for data: 314800
I0428 19:28:17.553100 21583 layer_factory.hpp:77] Creating layer ip1
I0428 19:28:17.553108 21583 net.cpp:86] Creating Layer ip1
I0428 19:28:17.553112 21583 net.cpp:408] ip1 <- data
I0428 19:28:17.553117 21583 net.cpp:382] ip1 -> ip1
I0428 19:28:17.553318 21583 net.cpp:124] Setting up ip1
I0428 19:28:17.553328 21583 net.cpp:131] Top shape: 100 10 (1000)
I0428 19:28:17.553330 21583 net.cpp:139] Memory required for data: 318800
I0428 19:28:17.553341 21583 layer_factory.hpp:77] Creating layer relu1
I0428 19:28:17.553347 21583 net.cpp:86] Creating Layer relu1
I0428 19:28:17.553351 21583 net.cpp:408] relu1 <- ip1
I0428 19:28:17.553356 21583 net.cpp:369] relu1 -> ip1 (in-place)
I0428 19:28:17.554399 21583 net.cpp:124] Setting up relu1
I0428 19:28:17.554414 21583 net.cpp:131] Top shape: 100 10 (1000)
I0428 19:28:17.554419 21583 net.cpp:139] Memory required for data: 322800
I0428 19:28:17.554422 21583 layer_factory.hpp:77] Creating layer ip2
I0428 19:28:17.554431 21583 net.cpp:86] Creating Layer ip2
I0428 19:28:17.554435 21583 net.cpp:408] ip2 <- ip1
I0428 19:28:17.554442 21583 net.cpp:382] ip2 -> ip2
I0428 19:28:17.554558 21583 net.cpp:124] Setting up ip2
I0428 19:28:17.554567 21583 net.cpp:131] Top shape: 100 50 (5000)
I0428 19:28:17.554571 21583 net.cpp:139] Memory required for data: 342800
I0428 19:28:17.554580 21583 layer_factory.hpp:77] Creating layer relu2
I0428 19:28:17.554586 21583 net.cpp:86] Creating Layer relu2
I0428 19:28:17.554590 21583 net.cpp:408] relu2 <- ip2
I0428 19:28:17.554594 21583 net.cpp:369] relu2 -> ip2 (in-place)
I0428 19:28:17.554780 21583 net.cpp:124] Setting up relu2
I0428 19:28:17.554788 21583 net.cpp:131] Top shape: 100 50 (5000)
I0428 19:28:17.554792 21583 net.cpp:139] Memory required for data: 362800
I0428 19:28:17.554796 21583 layer_factory.hpp:77] Creating layer ip3
I0428 19:28:17.554803 21583 net.cpp:86] Creating Layer ip3
I0428 19:28:17.554807 21583 net.cpp:408] ip3 <- ip2
I0428 19:28:17.554812 21583 net.cpp:382] ip3 -> ip3
I0428 19:28:17.554941 21583 net.cpp:124] Setting up ip3
I0428 19:28:17.554950 21583 net.cpp:131] Top shape: 100 10 (1000)
I0428 19:28:17.554955 21583 net.cpp:139] Memory required for data: 366800
I0428 19:28:17.554963 21583 layer_factory.hpp:77] Creating layer relu3
I0428 19:28:17.554968 21583 net.cpp:86] Creating Layer relu3
I0428 19:28:17.554972 21583 net.cpp:408] relu3 <- ip3
I0428 19:28:17.554977 21583 net.cpp:369] relu3 -> ip3 (in-place)
I0428 19:28:17.555217 21583 net.cpp:124] Setting up relu3
I0428 19:28:17.555227 21583 net.cpp:131] Top shape: 100 10 (1000)
I0428 19:28:17.555230 21583 net.cpp:139] Memory required for data: 370800
I0428 19:28:17.555234 21583 layer_factory.hpp:77] Creating layer ip3_relu3_0_split
I0428 19:28:17.555243 21583 net.cpp:86] Creating Layer ip3_relu3_0_split
I0428 19:28:17.555246 21583 net.cpp:408] ip3_relu3_0_split <- ip3
I0428 19:28:17.555251 21583 net.cpp:382] ip3_relu3_0_split -> ip3_relu3_0_split_0
I0428 19:28:17.555258 21583 net.cpp:382] ip3_relu3_0_split -> ip3_relu3_0_split_1
I0428 19:28:17.555327 21583 net.cpp:124] Setting up ip3_relu3_0_split
I0428 19:28:17.555335 21583 net.cpp:131] Top shape: 100 10 (1000)
I0428 19:28:17.555341 21583 net.cpp:131] Top shape: 100 10 (1000)
I0428 19:28:17.555349 21583 net.cpp:139] Memory required for data: 378800
I0428 19:28:17.555353 21583 layer_factory.hpp:77] Creating layer accuracy
I0428 19:28:17.555359 21583 net.cpp:86] Creating Layer accuracy
I0428 19:28:17.555363 21583 net.cpp:408] accuracy <- ip3_relu3_0_split_0
I0428 19:28:17.555368 21583 net.cpp:408] accuracy <- label_mnist_1_split_0
I0428 19:28:17.555373 21583 net.cpp:382] accuracy -> accuracy
…
