…
I0428 20:20:57.981529  1667 net.cpp:296] The NetState phase (0) differed from the phase (1) specified by a rule in layer mnist
I0428 20:20:57.981557  1667 net.cpp:296] The NetState phase (0) differed from the phase (1) specified by a rule in layer accuracy
I0428 20:20:57.981624  1667 net.cpp:53] Initializing net from parameters: 
name: "LeNet"
state {
  phase: TRAIN
  level: 0
  stage: ""
}
layer {
  name: "mnist"
  type: "Data"
  top: "data"
  top: "label"
  include {
    phase: TRAIN
  }
  transform_param {
    scale: 0.00390625
  }
  data_param {
    source: "examples/mnist/mnist_train_lmdb"
    batch_size: 64
    backend: LMDB
  }
}
layer {
  name: "conv0"
  type: "Convolution"
  bottom: "data"
  top: "conv0"
  param {
    lr_mult: 1
  }
  param {
    lr_mult: 2
  }
  convolution_param {
    num_output: 50
    kernel_size: 5
    stride: 1
    weight_filler {
      type: "xavier"
    }
    bias_filler {
      type: "constant"
    }
  }
}
layer {
  name: "pool0"
  type: "Pooling"
  bottom: "conv0"
  top: "pool0"
  pooling_param {
    pool: MAX
    kernel_size: 2
    stride: 2
  }
}
layer {
  name: "conv1"
  type: "Convolution"
  bottom: "pool0"
  top: "conv1"
  param {
    lr_mult: 1
  }
  param {
    lr_mult: 2
  }
  convolution_param {
    num_output: 50
    kernel_size: 5
    stride: 1
    weight_filler {
      type: "xavier"
    }
    bias_filler {
      type: "constant"
    }
  }
}
layer {
  name: "pool1"
  type: "Pooling"
  bottom: "conv1"
  top: "pool1"
  pooling_param {
    pool: MAX
    kernel_size: 2
    stride: 2
  }
}
layer {
  name: "ip1"
  type: "InnerProduct"
  bottom: "pool1"
  top: "ip1"
  param {
    lr_mult: 1
  }
  param {
    lr_mult: 2
  }
  inner_product_param {
    num_output: 50
    weight_filler {
      type: "xavier"
    }
    bias_filler {
      type: "constant"
    }
  }
}
layer {
  name: "relu1"
  type: "ReLU"
  bottom: "ip1"
  top: "ip1"
}
layer {
  name: "ip2"
  type: "InnerProduct"
  bottom: "ip1"
  top: "ip2"
  param {
    lr_mult: 1
  }
  param {
    lr_mult: 2
  }
  inner_product_param {
    num_output: 10
    weight_filler {
      type: "xavier"
    }
    bias_filler {
      type: "constant"
    }
  }
}
layer {
  name: "relu2"
  type: "ReLU"
  bottom: "ip2"
  top: "ip2"
}
layer {
  name: "loss"
  type: "SoftmaxWithLoss"
  bottom: "ip2"
  bottom: "label"
  top: "loss"
}
I0428 20:20:57.981703  1667 layer_factory.hpp:77] Creating layer mnist
I0428 20:20:57.981782  1667 db_lmdb.cpp:35] Opened lmdb examples/mnist/mnist_train_lmdb
I0428 20:20:57.981802  1667 net.cpp:86] Creating Layer mnist
I0428 20:20:57.981808  1667 net.cpp:382] mnist -> data
I0428 20:20:57.981827  1667 net.cpp:382] mnist -> label
I0428 20:20:57.982727  1667 data_layer.cpp:45] output data size: 64,1,28,28
I0428 20:20:57.984841  1667 net.cpp:124] Setting up mnist
I0428 20:20:57.984866  1667 net.cpp:131] Top shape: 64 1 28 28 (50176)
I0428 20:20:57.984871  1667 net.cpp:131] Top shape: 64 (64)
I0428 20:20:57.984875  1667 net.cpp:139] Memory required for data: 200960
I0428 20:20:57.984881  1667 layer_factory.hpp:77] Creating layer conv0
I0428 20:20:57.984894  1667 net.cpp:86] Creating Layer conv0
I0428 20:20:57.984899  1667 net.cpp:408] conv0 <- data
I0428 20:20:57.984908  1667 net.cpp:382] conv0 -> conv0
I0428 20:20:58.220358  1667 net.cpp:124] Setting up conv0
I0428 20:20:58.220402  1667 net.cpp:131] Top shape: 64 50 24 24 (1843200)
I0428 20:20:58.220405  1667 net.cpp:139] Memory required for data: 7573760
I0428 20:20:58.220458  1667 layer_factory.hpp:77] Creating layer pool0
I0428 20:20:58.220469  1667 net.cpp:86] Creating Layer pool0
I0428 20:20:58.220474  1667 net.cpp:408] pool0 <- conv0
I0428 20:20:58.220479  1667 net.cpp:382] pool0 -> pool0
I0428 20:20:58.220527  1667 net.cpp:124] Setting up pool0
I0428 20:20:58.220535  1667 net.cpp:131] Top shape: 64 50 12 12 (460800)
I0428 20:20:58.220538  1667 net.cpp:139] Memory required for data: 9416960
I0428 20:20:58.220541  1667 layer_factory.hpp:77] Creating layer conv1
I0428 20:20:58.220551  1667 net.cpp:86] Creating Layer conv1
I0428 20:20:58.220554  1667 net.cpp:408] conv1 <- pool0
I0428 20:20:58.220577  1667 net.cpp:382] conv1 -> conv1
I0428 20:20:58.222956  1667 net.cpp:124] Setting up conv1
I0428 20:20:58.222970  1667 net.cpp:131] Top shape: 64 50 8 8 (204800)
I0428 20:20:58.222973  1667 net.cpp:139] Memory required for data: 10236160
I0428 20:20:58.222981  1667 layer_factory.hpp:77] Creating layer pool1
I0428 20:20:58.223003  1667 net.cpp:86] Creating Layer pool1
I0428 20:20:58.223006  1667 net.cpp:408] pool1 <- conv1
I0428 20:20:58.223011  1667 net.cpp:382] pool1 -> pool1
I0428 20:20:58.223060  1667 net.cpp:124] Setting up pool1
I0428 20:20:58.223067  1667 net.cpp:131] Top shape: 64 50 4 4 (51200)
I0428 20:20:58.223070  1667 net.cpp:139] Memory required for data: 10440960
I0428 20:20:58.223073  1667 layer_factory.hpp:77] Creating layer ip1
I0428 20:20:58.223079  1667 net.cpp:86] Creating Layer ip1
I0428 20:20:58.223083  1667 net.cpp:408] ip1 <- pool1
I0428 20:20:58.223088  1667 net.cpp:382] ip1 -> ip1
I0428 20:20:58.223407  1667 net.cpp:124] Setting up ip1
I0428 20:20:58.223414  1667 net.cpp:131] Top shape: 64 50 (3200)
I0428 20:20:58.223431  1667 net.cpp:139] Memory required for data: 10453760
I0428 20:20:58.223438  1667 layer_factory.hpp:77] Creating layer relu1
I0428 20:20:58.223443  1667 net.cpp:86] Creating Layer relu1
I0428 20:20:58.223446  1667 net.cpp:408] relu1 <- ip1
I0428 20:20:58.223450  1667 net.cpp:369] relu1 -> ip1 (in-place)
I0428 20:20:58.223645  1667 net.cpp:124] Setting up relu1
I0428 20:20:58.223654  1667 net.cpp:131] Top shape: 64 50 (3200)
I0428 20:20:58.223657  1667 net.cpp:139] Memory required for data: 10466560
I0428 20:20:58.223667  1667 layer_factory.hpp:77] Creating layer ip2
I0428 20:20:58.223673  1667 net.cpp:86] Creating Layer ip2
I0428 20:20:58.223677  1667 net.cpp:408] ip2 <- ip1
I0428 20:20:58.223681  1667 net.cpp:382] ip2 -> ip2
I0428 20:20:58.223778  1667 net.cpp:124] Setting up ip2
I0428 20:20:58.223784  1667 net.cpp:131] Top shape: 64 10 (640)
I0428 20:20:58.223788  1667 net.cpp:139] Memory required for data: 10469120
I0428 20:20:58.223809  1667 layer_factory.hpp:77] Creating layer relu2
I0428 20:20:58.223815  1667 net.cpp:86] Creating Layer relu2
I0428 20:20:58.223834  1667 net.cpp:408] relu2 <- ip2
I0428 20:20:58.223839  1667 net.cpp:369] relu2 -> ip2 (in-place)
I0428 20:20:58.224649  1667 net.cpp:124] Setting up relu2
I0428 20:20:58.224661  1667 net.cpp:131] Top shape: 64 10 (640)
I0428 20:20:58.224665  1667 net.cpp:139] Memory required for data: 10471680
I0428 20:20:58.224668  1667 layer_factory.hpp:77] Creating layer loss
I0428 20:20:58.224675  1667 net.cpp:86] Creating Layer loss
I0428 20:20:58.224678  1667 net.cpp:408] loss <- ip2
I0428 20:20:58.224683  1667 net.cpp:408] loss <- label
I0428 20:20:58.224687  1667 net.cpp:382] loss -> loss
I0428 20:20:58.224702  1667 layer_factory.hpp:77] Creating layer loss
…
I0428 20:20:58.225366  1667 solver.cpp:173] Creating test net (#0) specified by net file: ECE595/mnist/train_test/var_everything2/lenet_train_test1374.prototxt
I0428 20:20:58.225422  1667 net.cpp:296] The NetState phase (1) differed from the phase (0) specified by a rule in layer mnist
I0428 20:20:58.225502  1667 net.cpp:53] Initializing net from parameters: 
name: "LeNet"
state {
  phase: TEST
}
layer {
  name: "mnist"
  type: "Data"
  top: "data"
  top: "label"
  include {
    phase: TEST
  }
  transform_param {
    scale: 0.00390625
  }
  data_param {
    source: "examples/mnist/mnist_test_lmdb"
    batch_size: 100
    backend: LMDB
  }
}
layer {
  name: "conv0"
  type: "Convolution"
  bottom: "data"
  top: "conv0"
  param {
    lr_mult: 1
  }
  param {
    lr_mult: 2
  }
  convolution_param {
    num_output: 50
    kernel_size: 5
    stride: 1
    weight_filler {
      type: "xavier"
    }
    bias_filler {
      type: "constant"
    }
  }
}
layer {
  name: "pool0"
  type: "Pooling"
  bottom: "conv0"
  top: "pool0"
  pooling_param {
    pool: MAX
    kernel_size: 2
    stride: 2
  }
}
layer {
  name: "conv1"
  type: "Convolution"
  bottom: "pool0"
  top: "conv1"
  param {
    lr_mult: 1
  }
  param {
    lr_mult: 2
  }
  convolution_param {
    num_output: 50
    kernel_size: 5
    stride: 1
    weight_filler {
      type: "xavier"
    }
    bias_filler {
      type: "constant"
    }
  }
}
layer {
  name: "pool1"
  type: "Pooling"
  bottom: "conv1"
  top: "pool1"
  pooling_param {
    pool: MAX
    kernel_size: 2
    stride: 2
  }
}
layer {
  name: "ip1"
  type: "InnerProduct"
  bottom: "pool1"
  top: "ip1"
  param {
    lr_mult: 1
  }
  param {
    lr_mult: 2
  }
  inner_product_param {
    num_output: 50
    weight_filler {
      type: "xavier"
    }
    bias_filler {
      type: "constant"
    }
  }
}
layer {
  name: "relu1"
  type: "ReLU"
  bottom: "ip1"
  top: "ip1"
}
layer {
  name: "ip2"
  type: "InnerProduct"
  bottom: "ip1"
  top: "ip2"
  param {
    lr_mult: 1
  }
  param {
    lr_mult: 2
  }
  inner_product_param {
    num_output: 10
    weight_filler {
      type: "xavier"
    }
    bias_filler {
      type: "constant"
    }
  }
}
layer {
  name: "relu2"
  type: "ReLU"
  bottom: "ip2"
  top: "ip2"
}
layer {
  name: "accuracy"
  type: "Accuracy"
  bottom: "ip2"
  bottom: "label"
  top: "accuracy"
  include {
    phase: TEST
  }
}
layer {
  name: "loss"
  type: "SoftmaxWithLoss"
  bottom: "ip2"
  bottom: "label"
  top: "loss"
}
I0428 20:20:58.225564  1667 layer_factory.hpp:77] Creating layer mnist
I0428 20:20:58.225607  1667 db_lmdb.cpp:35] Opened lmdb examples/mnist/mnist_test_lmdb
I0428 20:20:58.225622  1667 net.cpp:86] Creating Layer mnist
I0428 20:20:58.225627  1667 net.cpp:382] mnist -> data
I0428 20:20:58.225634  1667 net.cpp:382] mnist -> label
I0428 20:20:58.225745  1667 data_layer.cpp:45] output data size: 100,1,28,28
I0428 20:20:58.227695  1667 net.cpp:124] Setting up mnist
I0428 20:20:58.227725  1667 net.cpp:131] Top shape: 100 1 28 28 (78400)
I0428 20:20:58.227730  1667 net.cpp:131] Top shape: 100 (100)
I0428 20:20:58.227733  1667 net.cpp:139] Memory required for data: 314000
I0428 20:20:58.227737  1667 layer_factory.hpp:77] Creating layer label_mnist_1_split
I0428 20:20:58.227743  1667 net.cpp:86] Creating Layer label_mnist_1_split
I0428 20:20:58.227747  1667 net.cpp:408] label_mnist_1_split <- label
I0428 20:20:58.227751  1667 net.cpp:382] label_mnist_1_split -> label_mnist_1_split_0
I0428 20:20:58.227758  1667 net.cpp:382] label_mnist_1_split -> label_mnist_1_split_1
I0428 20:20:58.227809  1667 net.cpp:124] Setting up label_mnist_1_split
I0428 20:20:58.227816  1667 net.cpp:131] Top shape: 100 (100)
I0428 20:20:58.227819  1667 net.cpp:131] Top shape: 100 (100)
I0428 20:20:58.227823  1667 net.cpp:139] Memory required for data: 314800
I0428 20:20:58.227825  1667 layer_factory.hpp:77] Creating layer conv0
I0428 20:20:58.227833  1667 net.cpp:86] Creating Layer conv0
I0428 20:20:58.227836  1667 net.cpp:408] conv0 <- data
I0428 20:20:58.227841  1667 net.cpp:382] conv0 -> conv0
I0428 20:20:58.229573  1667 net.cpp:124] Setting up conv0
I0428 20:20:58.229602  1667 net.cpp:131] Top shape: 100 50 24 24 (2880000)
I0428 20:20:58.229606  1667 net.cpp:139] Memory required for data: 11834800
I0428 20:20:58.229629  1667 layer_factory.hpp:77] Creating layer pool0
I0428 20:20:58.229635  1667 net.cpp:86] Creating Layer pool0
I0428 20:20:58.229638  1667 net.cpp:408] pool0 <- conv0
I0428 20:20:58.229642  1667 net.cpp:382] pool0 -> pool0
I0428 20:20:58.229691  1667 net.cpp:124] Setting up pool0
I0428 20:20:58.229696  1667 net.cpp:131] Top shape: 100 50 12 12 (720000)
I0428 20:20:58.229699  1667 net.cpp:139] Memory required for data: 14714800
I0428 20:20:58.229702  1667 layer_factory.hpp:77] Creating layer conv1
I0428 20:20:58.229712  1667 net.cpp:86] Creating Layer conv1
I0428 20:20:58.229714  1667 net.cpp:408] conv1 <- pool0
I0428 20:20:58.229719  1667 net.cpp:382] conv1 -> conv1
I0428 20:20:58.231552  1667 net.cpp:124] Setting up conv1
I0428 20:20:58.231580  1667 net.cpp:131] Top shape: 100 50 8 8 (320000)
I0428 20:20:58.231586  1667 net.cpp:139] Memory required for data: 15994800
I0428 20:20:58.231595  1667 layer_factory.hpp:77] Creating layer pool1
I0428 20:20:58.231601  1667 net.cpp:86] Creating Layer pool1
I0428 20:20:58.231604  1667 net.cpp:408] pool1 <- conv1
I0428 20:20:58.231609  1667 net.cpp:382] pool1 -> pool1
I0428 20:20:58.231660  1667 net.cpp:124] Setting up pool1
I0428 20:20:58.231667  1667 net.cpp:131] Top shape: 100 50 4 4 (80000)
I0428 20:20:58.231669  1667 net.cpp:139] Memory required for data: 16314800
I0428 20:20:58.231673  1667 layer_factory.hpp:77] Creating layer ip1
I0428 20:20:58.231678  1667 net.cpp:86] Creating Layer ip1
I0428 20:20:58.231680  1667 net.cpp:408] ip1 <- pool1
I0428 20:20:58.231685  1667 net.cpp:382] ip1 -> ip1
I0428 20:20:58.232089  1667 net.cpp:124] Setting up ip1
I0428 20:20:58.232097  1667 net.cpp:131] Top shape: 100 50 (5000)
I0428 20:20:58.232116  1667 net.cpp:139] Memory required for data: 16334800
I0428 20:20:58.232123  1667 layer_factory.hpp:77] Creating layer relu1
I0428 20:20:58.232127  1667 net.cpp:86] Creating Layer relu1
I0428 20:20:58.232131  1667 net.cpp:408] relu1 <- ip1
I0428 20:20:58.232136  1667 net.cpp:369] relu1 -> ip1 (in-place)
I0428 20:20:58.232285  1667 net.cpp:124] Setting up relu1
I0428 20:20:58.232292  1667 net.cpp:131] Top shape: 100 50 (5000)
I0428 20:20:58.232296  1667 net.cpp:139] Memory required for data: 16354800
I0428 20:20:58.232298  1667 layer_factory.hpp:77] Creating layer ip2
I0428 20:20:58.232306  1667 net.cpp:86] Creating Layer ip2
I0428 20:20:58.232308  1667 net.cpp:408] ip2 <- ip1
I0428 20:20:58.232314  1667 net.cpp:382] ip2 -> ip2
I0428 20:20:58.232444  1667 net.cpp:124] Setting up ip2
I0428 20:20:58.232451  1667 net.cpp:131] Top shape: 100 10 (1000)
I0428 20:20:58.232455  1667 net.cpp:139] Memory required for data: 16358800
I0428 20:20:58.232460  1667 layer_factory.hpp:77] Creating layer relu2
I0428 20:20:58.232465  1667 net.cpp:86] Creating Layer relu2
I0428 20:20:58.232468  1667 net.cpp:408] relu2 <- ip2
I0428 20:20:58.232473  1667 net.cpp:369] relu2 -> ip2 (in-place)
I0428 20:20:58.232702  1667 net.cpp:124] Setting up relu2
I0428 20:20:58.232710  1667 net.cpp:131] Top shape: 100 10 (1000)
I0428 20:20:58.232714  1667 net.cpp:139] Memory required for data: 16362800
I0428 20:20:58.232717  1667 layer_factory.hpp:77] Creating layer ip2_relu2_0_split
I0428 20:20:58.232722  1667 net.cpp:86] Creating Layer ip2_relu2_0_split
I0428 20:20:58.232724  1667 net.cpp:408] ip2_relu2_0_split <- ip2
I0428 20:20:58.232731  1667 net.cpp:382] ip2_relu2_0_split -> ip2_relu2_0_split_0
I0428 20:20:58.232748  1667 net.cpp:382] ip2_relu2_0_split -> ip2_relu2_0_split_1
I0428 20:20:58.232784  1667 net.cpp:124] Setting up ip2_relu2_0_split
I0428 20:20:58.232808  1667 net.cpp:131] Top shape: 100 10 (1000)
I0428 20:20:58.232836  1667 net.cpp:131] Top shape: 100 10 (1000)
I0428 20:20:58.232838  1667 net.cpp:139] Memory required for data: 16370800
I0428 20:20:58.232856  1667 layer_factory.hpp:77] Creating layer accuracy
I0428 20:20:58.232862  1667 net.cpp:86] Creating Layer accuracy
I0428 20:20:58.232866  1667 net.cpp:408] accuracy <- ip2_relu2_0_split_0
I0428 20:20:58.232869  1667 net.cpp:408] accuracy <- label_mnist_1_split_0
I0428 20:20:58.232874  1667 net.cpp:382] accuracy -> accuracy
…
