…
I0428 20:18:22.935004  1113 net.cpp:296] The NetState phase (0) differed from the phase (1) specified by a rule in layer mnist
I0428 20:18:22.935019  1113 net.cpp:296] The NetState phase (0) differed from the phase (1) specified by a rule in layer accuracy
I0428 20:18:22.935099  1113 net.cpp:53] Initializing net from parameters: 
name: "LeNet"
state {
  phase: TRAIN
  level: 0
  stage: ""
}
layer {
  name: "mnist"
  type: "Data"
  top: "data"
  top: "label"
  include {
    phase: TRAIN
  }
  transform_param {
    scale: 0.00390625
  }
  data_param {
    source: "examples/mnist/mnist_train_lmdb"
    batch_size: 64
    backend: LMDB
  }
}
layer {
  name: "conv0"
  type: "Convolution"
  bottom: "data"
  top: "conv0"
  param {
    lr_mult: 1
  }
  param {
    lr_mult: 2
  }
  convolution_param {
    num_output: 50
    kernel_size: 5
    stride: 1
    weight_filler {
      type: "xavier"
    }
    bias_filler {
      type: "constant"
    }
  }
}
layer {
  name: "pool0"
  type: "Pooling"
  bottom: "conv0"
  top: "pool0"
  pooling_param {
    pool: MAX
    kernel_size: 2
    stride: 2
  }
}
layer {
  name: "conv1"
  type: "Convolution"
  bottom: "pool0"
  top: "conv1"
  param {
    lr_mult: 1
  }
  param {
    lr_mult: 2
  }
  convolution_param {
    num_output: 10
    kernel_size: 5
    stride: 1
    weight_filler {
      type: "xavier"
    }
    bias_filler {
      type: "constant"
    }
  }
}
layer {
  name: "pool1"
  type: "Pooling"
  bottom: "conv1"
  top: "pool1"
  pooling_param {
    pool: MAX
    kernel_size: 2
    stride: 2
  }
}
layer {
  name: "ip1"
  type: "InnerProduct"
  bottom: "pool1"
  top: "ip1"
  param {
    lr_mult: 1
  }
  param {
    lr_mult: 2
  }
  inner_product_param {
    num_output: 50
    weight_filler {
      type: "xavier"
    }
    bias_filler {
      type: "constant"
    }
  }
}
layer {
  name: "relu1"
  type: "ReLU"
  bottom: "ip1"
  top: "ip1"
}
layer {
  name: "ip2"
  type: "InnerProduct"
  bottom: "ip1"
  top: "ip2"
  param {
    lr_mult: 1
  }
  param {
    lr_mult: 2
  }
  inner_product_param {
    num_output: 10
    weight_filler {
      type: "xavier"
    }
    bias_filler {
      type: "constant"
    }
  }
}
layer {
  name: "relu2"
  type: "ReLU"
  bottom: "ip2"
  top: "ip2"
}
layer {
  name: "ip3"
  type: "InnerProduct"
  bottom: "ip2"
  top: "ip3"
  param {
    lr_mult: 1
  }
  param {
    lr_mult: 2
  }
  inner_product_param {
    num_output: 10
    weight_filler {
      type: "xavier"
    }
    bias_filler {
      type: "constant"
    }
  }
}
layer {
  name: "relu3"
  type: "ReLU"
  bottom: "ip3"
  top: "ip3"
}
layer {
  name: "loss"
  type: "SoftmaxWithLoss"
  bottom: "ip3"
  bottom: "label"
  top: "loss"
}
I0428 20:18:22.935163  1113 layer_factory.hpp:77] Creating layer mnist
I0428 20:18:22.935240  1113 db_lmdb.cpp:35] Opened lmdb examples/mnist/mnist_train_lmdb
I0428 20:18:22.935258  1113 net.cpp:86] Creating Layer mnist
I0428 20:18:22.935266  1113 net.cpp:382] mnist -> data
I0428 20:18:22.935284  1113 net.cpp:382] mnist -> label
I0428 20:18:22.936226  1113 data_layer.cpp:45] output data size: 64,1,28,28
I0428 20:18:22.938402  1113 net.cpp:124] Setting up mnist
I0428 20:18:22.938417  1113 net.cpp:131] Top shape: 64 1 28 28 (50176)
I0428 20:18:22.938421  1113 net.cpp:131] Top shape: 64 (64)
I0428 20:18:22.938424  1113 net.cpp:139] Memory required for data: 200960
I0428 20:18:22.938431  1113 layer_factory.hpp:77] Creating layer conv0
I0428 20:18:22.938460  1113 net.cpp:86] Creating Layer conv0
I0428 20:18:22.938477  1113 net.cpp:408] conv0 <- data
I0428 20:18:22.938488  1113 net.cpp:382] conv0 -> conv0
I0428 20:18:23.167140  1113 net.cpp:124] Setting up conv0
I0428 20:18:23.167165  1113 net.cpp:131] Top shape: 64 50 24 24 (1843200)
I0428 20:18:23.167170  1113 net.cpp:139] Memory required for data: 7573760
I0428 20:18:23.167184  1113 layer_factory.hpp:77] Creating layer pool0
I0428 20:18:23.167198  1113 net.cpp:86] Creating Layer pool0
I0428 20:18:23.167201  1113 net.cpp:408] pool0 <- conv0
I0428 20:18:23.167207  1113 net.cpp:382] pool0 -> pool0
I0428 20:18:23.167266  1113 net.cpp:124] Setting up pool0
I0428 20:18:23.167274  1113 net.cpp:131] Top shape: 64 50 12 12 (460800)
I0428 20:18:23.167278  1113 net.cpp:139] Memory required for data: 9416960
I0428 20:18:23.167279  1113 layer_factory.hpp:77] Creating layer conv1
I0428 20:18:23.167290  1113 net.cpp:86] Creating Layer conv1
I0428 20:18:23.167294  1113 net.cpp:408] conv1 <- pool0
I0428 20:18:23.167299  1113 net.cpp:382] conv1 -> conv1
I0428 20:18:23.170107  1113 net.cpp:124] Setting up conv1
I0428 20:18:23.170137  1113 net.cpp:131] Top shape: 64 10 8 8 (40960)
I0428 20:18:23.170141  1113 net.cpp:139] Memory required for data: 9580800
I0428 20:18:23.170150  1113 layer_factory.hpp:77] Creating layer pool1
I0428 20:18:23.170157  1113 net.cpp:86] Creating Layer pool1
I0428 20:18:23.170161  1113 net.cpp:408] pool1 <- conv1
I0428 20:18:23.170181  1113 net.cpp:382] pool1 -> pool1
I0428 20:18:23.170217  1113 net.cpp:124] Setting up pool1
I0428 20:18:23.170224  1113 net.cpp:131] Top shape: 64 10 4 4 (10240)
I0428 20:18:23.170228  1113 net.cpp:139] Memory required for data: 9621760
I0428 20:18:23.170230  1113 layer_factory.hpp:77] Creating layer ip1
I0428 20:18:23.170238  1113 net.cpp:86] Creating Layer ip1
I0428 20:18:23.170240  1113 net.cpp:408] ip1 <- pool1
I0428 20:18:23.170244  1113 net.cpp:382] ip1 -> ip1
I0428 20:18:23.170382  1113 net.cpp:124] Setting up ip1
I0428 20:18:23.170388  1113 net.cpp:131] Top shape: 64 50 (3200)
I0428 20:18:23.170392  1113 net.cpp:139] Memory required for data: 9634560
I0428 20:18:23.170398  1113 layer_factory.hpp:77] Creating layer relu1
I0428 20:18:23.170404  1113 net.cpp:86] Creating Layer relu1
I0428 20:18:23.170408  1113 net.cpp:408] relu1 <- ip1
I0428 20:18:23.170411  1113 net.cpp:369] relu1 -> ip1 (in-place)
I0428 20:18:23.170584  1113 net.cpp:124] Setting up relu1
I0428 20:18:23.170593  1113 net.cpp:131] Top shape: 64 50 (3200)
I0428 20:18:23.170595  1113 net.cpp:139] Memory required for data: 9647360
I0428 20:18:23.170598  1113 layer_factory.hpp:77] Creating layer ip2
I0428 20:18:23.170604  1113 net.cpp:86] Creating Layer ip2
I0428 20:18:23.170621  1113 net.cpp:408] ip2 <- ip1
I0428 20:18:23.170626  1113 net.cpp:382] ip2 -> ip2
I0428 20:18:23.170718  1113 net.cpp:124] Setting up ip2
I0428 20:18:23.170725  1113 net.cpp:131] Top shape: 64 10 (640)
I0428 20:18:23.170728  1113 net.cpp:139] Memory required for data: 9649920
I0428 20:18:23.170733  1113 layer_factory.hpp:77] Creating layer relu2
I0428 20:18:23.170739  1113 net.cpp:86] Creating Layer relu2
I0428 20:18:23.170742  1113 net.cpp:408] relu2 <- ip2
I0428 20:18:23.170747  1113 net.cpp:369] relu2 -> ip2 (in-place)
I0428 20:18:23.171511  1113 net.cpp:124] Setting up relu2
I0428 20:18:23.171525  1113 net.cpp:131] Top shape: 64 10 (640)
I0428 20:18:23.171543  1113 net.cpp:139] Memory required for data: 9652480
I0428 20:18:23.171547  1113 layer_factory.hpp:77] Creating layer ip3
I0428 20:18:23.171555  1113 net.cpp:86] Creating Layer ip3
I0428 20:18:23.171557  1113 net.cpp:408] ip3 <- ip2
I0428 20:18:23.171563  1113 net.cpp:382] ip3 -> ip3
I0428 20:18:23.171658  1113 net.cpp:124] Setting up ip3
I0428 20:18:23.171667  1113 net.cpp:131] Top shape: 64 10 (640)
I0428 20:18:23.171670  1113 net.cpp:139] Memory required for data: 9655040
I0428 20:18:23.171679  1113 layer_factory.hpp:77] Creating layer relu3
I0428 20:18:23.171684  1113 net.cpp:86] Creating Layer relu3
I0428 20:18:23.171686  1113 net.cpp:408] relu3 <- ip3
I0428 20:18:23.171690  1113 net.cpp:369] relu3 -> ip3 (in-place)
I0428 20:18:23.171849  1113 net.cpp:124] Setting up relu3
I0428 20:18:23.171857  1113 net.cpp:131] Top shape: 64 10 (640)
I0428 20:18:23.171861  1113 net.cpp:139] Memory required for data: 9657600
I0428 20:18:23.171864  1113 layer_factory.hpp:77] Creating layer loss
I0428 20:18:23.171869  1113 net.cpp:86] Creating Layer loss
I0428 20:18:23.171874  1113 net.cpp:408] loss <- ip3
I0428 20:18:23.171876  1113 net.cpp:408] loss <- label
I0428 20:18:23.171881  1113 net.cpp:382] loss -> loss
I0428 20:18:23.171900  1113 layer_factory.hpp:77] Creating layer loss
…
I0428 20:18:23.172586  1113 solver.cpp:173] Creating test net (#0) specified by net file: ECE595/mnist/train_test/var_everything2/lenet_train_test1317.prototxt
I0428 20:18:23.172629  1113 net.cpp:296] The NetState phase (1) differed from the phase (0) specified by a rule in layer mnist
I0428 20:18:23.172751  1113 net.cpp:53] Initializing net from parameters: 
name: "LeNet"
state {
  phase: TEST
}
layer {
  name: "mnist"
  type: "Data"
  top: "data"
  top: "label"
  include {
    phase: TEST
  }
  transform_param {
    scale: 0.00390625
  }
  data_param {
    source: "examples/mnist/mnist_test_lmdb"
    batch_size: 100
    backend: LMDB
  }
}
layer {
  name: "conv0"
  type: "Convolution"
  bottom: "data"
  top: "conv0"
  param {
    lr_mult: 1
  }
  param {
    lr_mult: 2
  }
  convolution_param {
    num_output: 50
    kernel_size: 5
    stride: 1
    weight_filler {
      type: "xavier"
    }
    bias_filler {
      type: "constant"
    }
  }
}
layer {
  name: "pool0"
  type: "Pooling"
  bottom: "conv0"
  top: "pool0"
  pooling_param {
    pool: MAX
    kernel_size: 2
    stride: 2
  }
}
layer {
  name: "conv1"
  type: "Convolution"
  bottom: "pool0"
  top: "conv1"
  param {
    lr_mult: 1
  }
  param {
    lr_mult: 2
  }
  convolution_param {
    num_output: 10
    kernel_size: 5
    stride: 1
    weight_filler {
      type: "xavier"
    }
    bias_filler {
      type: "constant"
    }
  }
}
layer {
  name: "pool1"
  type: "Pooling"
  bottom: "conv1"
  top: "pool1"
  pooling_param {
    pool: MAX
    kernel_size: 2
    stride: 2
  }
}
layer {
  name: "ip1"
  type: "InnerProduct"
  bottom: "pool1"
  top: "ip1"
  param {
    lr_mult: 1
  }
  param {
    lr_mult: 2
  }
  inner_product_param {
    num_output: 50
    weight_filler {
      type: "xavier"
    }
    bias_filler {
      type: "constant"
    }
  }
}
layer {
  name: "relu1"
  type: "ReLU"
  bottom: "ip1"
  top: "ip1"
}
layer {
  name: "ip2"
  type: "InnerProduct"
  bottom: "ip1"
  top: "ip2"
  param {
    lr_mult: 1
  }
  param {
    lr_mult: 2
  }
  inner_product_param {
    num_output: 10
    weight_filler {
      type: "xavier"
    }
    bias_filler {
      type: "constant"
    }
  }
}
layer {
  name: "relu2"
  type: "ReLU"
  bottom: "ip2"
  top: "ip2"
}
layer {
  name: "ip3"
  type: "InnerProduct"
  bottom: "ip2"
  top: "ip3"
  param {
    lr_mult: 1
  }
  param {
    lr_mult: 2
  }
  inner_product_param {
    num_output: 10
    weight_filler {
      type: "xavier"
    }
    bias_filler {
      type: "constant"
    }
  }
}
layer {
  name: "relu3"
  type: "ReLU"
  bottom: "ip3"
  top: "ip3"
}
layer {
  name: "accuracy"
  type: "Accuracy"
  bottom: "ip3"
  bottom: "label"
  top: "accuracy"
  include {
    phase: TEST
  }
}
layer {
  name: "loss"
  type: "SoftmaxWithLoss"
  bottom: "ip3"
  bottom: "label"
  top: "loss"
}
I0428 20:18:23.172847  1113 layer_factory.hpp:77] Creating layer mnist
I0428 20:18:23.172891  1113 db_lmdb.cpp:35] Opened lmdb examples/mnist/mnist_test_lmdb
I0428 20:18:23.172907  1113 net.cpp:86] Creating Layer mnist
I0428 20:18:23.172912  1113 net.cpp:382] mnist -> data
I0428 20:18:23.172919  1113 net.cpp:382] mnist -> label
I0428 20:18:23.173002  1113 data_layer.cpp:45] output data size: 100,1,28,28
I0428 20:18:23.174944  1113 net.cpp:124] Setting up mnist
I0428 20:18:23.174973  1113 net.cpp:131] Top shape: 100 1 28 28 (78400)
I0428 20:18:23.174978  1113 net.cpp:131] Top shape: 100 (100)
I0428 20:18:23.174981  1113 net.cpp:139] Memory required for data: 314000
I0428 20:18:23.174985  1113 layer_factory.hpp:77] Creating layer label_mnist_1_split
I0428 20:18:23.174995  1113 net.cpp:86] Creating Layer label_mnist_1_split
I0428 20:18:23.174999  1113 net.cpp:408] label_mnist_1_split <- label
I0428 20:18:23.175004  1113 net.cpp:382] label_mnist_1_split -> label_mnist_1_split_0
I0428 20:18:23.175011  1113 net.cpp:382] label_mnist_1_split -> label_mnist_1_split_1
I0428 20:18:23.175108  1113 net.cpp:124] Setting up label_mnist_1_split
I0428 20:18:23.175117  1113 net.cpp:131] Top shape: 100 (100)
I0428 20:18:23.175120  1113 net.cpp:131] Top shape: 100 (100)
I0428 20:18:23.175123  1113 net.cpp:139] Memory required for data: 314800
I0428 20:18:23.175127  1113 layer_factory.hpp:77] Creating layer conv0
I0428 20:18:23.175135  1113 net.cpp:86] Creating Layer conv0
I0428 20:18:23.175138  1113 net.cpp:408] conv0 <- data
I0428 20:18:23.175143  1113 net.cpp:382] conv0 -> conv0
I0428 20:18:23.176713  1113 net.cpp:124] Setting up conv0
I0428 20:18:23.176726  1113 net.cpp:131] Top shape: 100 50 24 24 (2880000)
I0428 20:18:23.176730  1113 net.cpp:139] Memory required for data: 11834800
I0428 20:18:23.176756  1113 layer_factory.hpp:77] Creating layer pool0
I0428 20:18:23.176762  1113 net.cpp:86] Creating Layer pool0
I0428 20:18:23.176765  1113 net.cpp:408] pool0 <- conv0
I0428 20:18:23.176770  1113 net.cpp:382] pool0 -> pool0
I0428 20:18:23.176807  1113 net.cpp:124] Setting up pool0
I0428 20:18:23.176821  1113 net.cpp:131] Top shape: 100 50 12 12 (720000)
I0428 20:18:23.176825  1113 net.cpp:139] Memory required for data: 14714800
I0428 20:18:23.176827  1113 layer_factory.hpp:77] Creating layer conv1
I0428 20:18:23.176836  1113 net.cpp:86] Creating Layer conv1
I0428 20:18:23.176841  1113 net.cpp:408] conv1 <- pool0
I0428 20:18:23.176846  1113 net.cpp:382] conv1 -> conv1
I0428 20:18:23.178549  1113 net.cpp:124] Setting up conv1
I0428 20:18:23.178562  1113 net.cpp:131] Top shape: 100 10 8 8 (64000)
I0428 20:18:23.178567  1113 net.cpp:139] Memory required for data: 14970800
I0428 20:18:23.178578  1113 layer_factory.hpp:77] Creating layer pool1
I0428 20:18:23.178586  1113 net.cpp:86] Creating Layer pool1
I0428 20:18:23.178588  1113 net.cpp:408] pool1 <- conv1
I0428 20:18:23.178596  1113 net.cpp:382] pool1 -> pool1
I0428 20:18:23.178633  1113 net.cpp:124] Setting up pool1
I0428 20:18:23.178640  1113 net.cpp:131] Top shape: 100 10 4 4 (16000)
I0428 20:18:23.178643  1113 net.cpp:139] Memory required for data: 15034800
I0428 20:18:23.178647  1113 layer_factory.hpp:77] Creating layer ip1
I0428 20:18:23.178653  1113 net.cpp:86] Creating Layer ip1
I0428 20:18:23.178663  1113 net.cpp:408] ip1 <- pool1
I0428 20:18:23.178668  1113 net.cpp:382] ip1 -> ip1
I0428 20:18:23.178820  1113 net.cpp:124] Setting up ip1
I0428 20:18:23.178828  1113 net.cpp:131] Top shape: 100 50 (5000)
I0428 20:18:23.178843  1113 net.cpp:139] Memory required for data: 15054800
I0428 20:18:23.178850  1113 layer_factory.hpp:77] Creating layer relu1
I0428 20:18:23.178856  1113 net.cpp:86] Creating Layer relu1
I0428 20:18:23.178860  1113 net.cpp:408] relu1 <- ip1
I0428 20:18:23.178866  1113 net.cpp:369] relu1 -> ip1 (in-place)
I0428 20:18:23.179033  1113 net.cpp:124] Setting up relu1
I0428 20:18:23.179044  1113 net.cpp:131] Top shape: 100 50 (5000)
I0428 20:18:23.179046  1113 net.cpp:139] Memory required for data: 15074800
I0428 20:18:23.179050  1113 layer_factory.hpp:77] Creating layer ip2
I0428 20:18:23.179064  1113 net.cpp:86] Creating Layer ip2
I0428 20:18:23.179074  1113 net.cpp:408] ip2 <- ip1
I0428 20:18:23.179078  1113 net.cpp:382] ip2 -> ip2
I0428 20:18:23.179188  1113 net.cpp:124] Setting up ip2
I0428 20:18:23.179194  1113 net.cpp:131] Top shape: 100 10 (1000)
I0428 20:18:23.179198  1113 net.cpp:139] Memory required for data: 15078800
I0428 20:18:23.179203  1113 layer_factory.hpp:77] Creating layer relu2
I0428 20:18:23.179224  1113 net.cpp:86] Creating Layer relu2
I0428 20:18:23.179234  1113 net.cpp:408] relu2 <- ip2
I0428 20:18:23.179239  1113 net.cpp:369] relu2 -> ip2 (in-place)
I0428 20:18:23.179414  1113 net.cpp:124] Setting up relu2
I0428 20:18:23.179424  1113 net.cpp:131] Top shape: 100 10 (1000)
I0428 20:18:23.179426  1113 net.cpp:139] Memory required for data: 15082800
I0428 20:18:23.179430  1113 layer_factory.hpp:77] Creating layer ip3
I0428 20:18:23.179436  1113 net.cpp:86] Creating Layer ip3
I0428 20:18:23.179440  1113 net.cpp:408] ip3 <- ip2
I0428 20:18:23.179443  1113 net.cpp:382] ip3 -> ip3
I0428 20:18:23.179540  1113 net.cpp:124] Setting up ip3
I0428 20:18:23.179548  1113 net.cpp:131] Top shape: 100 10 (1000)
I0428 20:18:23.179550  1113 net.cpp:139] Memory required for data: 15086800
I0428 20:18:23.179558  1113 layer_factory.hpp:77] Creating layer relu3
I0428 20:18:23.179564  1113 net.cpp:86] Creating Layer relu3
I0428 20:18:23.179566  1113 net.cpp:408] relu3 <- ip3
I0428 20:18:23.179570  1113 net.cpp:369] relu3 -> ip3 (in-place)
I0428 20:18:23.180474  1113 net.cpp:124] Setting up relu3
I0428 20:18:23.180491  1113 net.cpp:131] Top shape: 100 10 (1000)
I0428 20:18:23.180495  1113 net.cpp:139] Memory required for data: 15090800
I0428 20:18:23.180500  1113 layer_factory.hpp:77] Creating layer ip3_relu3_0_split
I0428 20:18:23.180506  1113 net.cpp:86] Creating Layer ip3_relu3_0_split
I0428 20:18:23.180510  1113 net.cpp:408] ip3_relu3_0_split <- ip3
I0428 20:18:23.180516  1113 net.cpp:382] ip3_relu3_0_split -> ip3_relu3_0_split_0
I0428 20:18:23.180521  1113 net.cpp:382] ip3_relu3_0_split -> ip3_relu3_0_split_1
I0428 20:18:23.180560  1113 net.cpp:124] Setting up ip3_relu3_0_split
I0428 20:18:23.180565  1113 net.cpp:131] Top shape: 100 10 (1000)
I0428 20:18:23.180569  1113 net.cpp:131] Top shape: 100 10 (1000)
I0428 20:18:23.180572  1113 net.cpp:139] Memory required for data: 15098800
I0428 20:18:23.180574  1113 layer_factory.hpp:77] Creating layer accuracy
I0428 20:18:23.180585  1113 net.cpp:86] Creating Layer accuracy
I0428 20:18:23.180590  1113 net.cpp:408] accuracy <- ip3_relu3_0_split_0
I0428 20:18:23.180594  1113 net.cpp:408] accuracy <- label_mnist_1_split_0
I0428 20:18:23.180598  1113 net.cpp:382] accuracy -> accuracy
…
