…
I0428 19:42:27.732278 25071 net.cpp:296] The NetState phase (0) differed from the phase (1) specified by a rule in layer mnist
I0428 19:42:27.732295 25071 net.cpp:296] The NetState phase (0) differed from the phase (1) specified by a rule in layer accuracy
I0428 19:42:27.732385 25071 net.cpp:53] Initializing net from parameters: 
name: "LeNet"
state {
  phase: TRAIN
  level: 0
  stage: ""
}
layer {
  name: "mnist"
  type: "Data"
  top: "data"
  top: "label"
  include {
    phase: TRAIN
  }
  transform_param {
    scale: 0.00390625
  }
  data_param {
    source: "examples/mnist/mnist_train_lmdb"
    batch_size: 64
    backend: LMDB
  }
}
layer {
  name: "conv0"
  type: "Convolution"
  bottom: "data"
  top: "conv0"
  param {
    lr_mult: 1
  }
  param {
    lr_mult: 2
  }
  convolution_param {
    num_output: 2
    kernel_size: 5
    stride: 1
    weight_filler {
      type: "xavier"
    }
    bias_filler {
      type: "constant"
    }
  }
}
layer {
  name: "pool0"
  type: "Pooling"
  bottom: "conv0"
  top: "pool0"
  pooling_param {
    pool: MAX
    kernel_size: 2
    stride: 2
  }
}
layer {
  name: "conv1"
  type: "Convolution"
  bottom: "pool0"
  top: "conv1"
  param {
    lr_mult: 1
  }
  param {
    lr_mult: 2
  }
  convolution_param {
    num_output: 25
    kernel_size: 5
    stride: 1
    weight_filler {
      type: "xavier"
    }
    bias_filler {
      type: "constant"
    }
  }
}
layer {
  name: "pool1"
  type: "Pooling"
  bottom: "conv1"
  top: "pool1"
  pooling_param {
    pool: MAX
    kernel_size: 2
    stride: 2
  }
}
layer {
  name: "ip1"
  type: "InnerProduct"
  bottom: "pool1"
  top: "ip1"
  param {
    lr_mult: 1
  }
  param {
    lr_mult: 2
  }
  inner_product_param {
    num_output: 10
    weight_filler {
      type: "xavier"
    }
    bias_filler {
      type: "constant"
    }
  }
}
layer {
  name: "relu1"
  type: "ReLU"
  bottom: "ip1"
  top: "ip1"
}
layer {
  name: "ip2"
  type: "InnerProduct"
  bottom: "ip1"
  top: "ip2"
  param {
    lr_mult: 1
  }
  param {
    lr_mult: 2
  }
  inner_product_param {
    num_output: 10
    weight_filler {
      type: "xavier"
    }
    bias_filler {
      type: "constant"
    }
  }
}
layer {
  name: "relu2"
  type: "ReLU"
  bottom: "ip2"
  top: "ip2"
}
layer {
  name: "loss"
  type: "SoftmaxWithLoss"
  bottom: "ip2"
  bottom: "label"
  top: "loss"
}
I0428 19:42:27.732453 25071 layer_factory.hpp:77] Creating layer mnist
I0428 19:42:27.732558 25071 db_lmdb.cpp:35] Opened lmdb examples/mnist/mnist_train_lmdb
I0428 19:42:27.732583 25071 net.cpp:86] Creating Layer mnist
I0428 19:42:27.732590 25071 net.cpp:382] mnist -> data
I0428 19:42:27.732612 25071 net.cpp:382] mnist -> label
I0428 19:42:27.733711 25071 data_layer.cpp:45] output data size: 64,1,28,28
I0428 19:42:27.736156 25071 net.cpp:124] Setting up mnist
I0428 19:42:27.736174 25071 net.cpp:131] Top shape: 64 1 28 28 (50176)
I0428 19:42:27.736181 25071 net.cpp:131] Top shape: 64 (64)
I0428 19:42:27.736184 25071 net.cpp:139] Memory required for data: 200960
I0428 19:42:27.736192 25071 layer_factory.hpp:77] Creating layer conv0
I0428 19:42:27.736209 25071 net.cpp:86] Creating Layer conv0
I0428 19:42:27.736214 25071 net.cpp:408] conv0 <- data
I0428 19:42:27.736227 25071 net.cpp:382] conv0 -> conv0
I0428 19:42:27.981012 25071 net.cpp:124] Setting up conv0
I0428 19:42:27.981055 25071 net.cpp:131] Top shape: 64 2 24 24 (73728)
I0428 19:42:27.981058 25071 net.cpp:139] Memory required for data: 495872
I0428 19:42:27.981091 25071 layer_factory.hpp:77] Creating layer pool0
I0428 19:42:27.981118 25071 net.cpp:86] Creating Layer pool0
I0428 19:42:27.981122 25071 net.cpp:408] pool0 <- conv0
I0428 19:42:27.981127 25071 net.cpp:382] pool0 -> pool0
I0428 19:42:27.981187 25071 net.cpp:124] Setting up pool0
I0428 19:42:27.981199 25071 net.cpp:131] Top shape: 64 2 12 12 (18432)
I0428 19:42:27.981201 25071 net.cpp:139] Memory required for data: 569600
I0428 19:42:27.981204 25071 layer_factory.hpp:77] Creating layer conv1
I0428 19:42:27.981215 25071 net.cpp:86] Creating Layer conv1
I0428 19:42:27.981217 25071 net.cpp:408] conv1 <- pool0
I0428 19:42:27.981221 25071 net.cpp:382] conv1 -> conv1
I0428 19:42:27.983886 25071 net.cpp:124] Setting up conv1
I0428 19:42:27.983899 25071 net.cpp:131] Top shape: 64 25 8 8 (102400)
I0428 19:42:27.983903 25071 net.cpp:139] Memory required for data: 979200
I0428 19:42:27.983911 25071 layer_factory.hpp:77] Creating layer pool1
I0428 19:42:27.983932 25071 net.cpp:86] Creating Layer pool1
I0428 19:42:27.983952 25071 net.cpp:408] pool1 <- conv1
I0428 19:42:27.983956 25071 net.cpp:382] pool1 -> pool1
I0428 19:42:27.983991 25071 net.cpp:124] Setting up pool1
I0428 19:42:27.984004 25071 net.cpp:131] Top shape: 64 25 4 4 (25600)
I0428 19:42:27.984006 25071 net.cpp:139] Memory required for data: 1081600
I0428 19:42:27.984009 25071 layer_factory.hpp:77] Creating layer ip1
I0428 19:42:27.984015 25071 net.cpp:86] Creating Layer ip1
I0428 19:42:27.984019 25071 net.cpp:408] ip1 <- pool1
I0428 19:42:27.984022 25071 net.cpp:382] ip1 -> ip1
I0428 19:42:27.984156 25071 net.cpp:124] Setting up ip1
I0428 19:42:27.984163 25071 net.cpp:131] Top shape: 64 10 (640)
I0428 19:42:27.984166 25071 net.cpp:139] Memory required for data: 1084160
I0428 19:42:27.984174 25071 layer_factory.hpp:77] Creating layer relu1
I0428 19:42:27.984179 25071 net.cpp:86] Creating Layer relu1
I0428 19:42:27.984181 25071 net.cpp:408] relu1 <- ip1
I0428 19:42:27.984185 25071 net.cpp:369] relu1 -> ip1 (in-place)
I0428 19:42:27.984347 25071 net.cpp:124] Setting up relu1
I0428 19:42:27.984356 25071 net.cpp:131] Top shape: 64 10 (640)
I0428 19:42:27.984359 25071 net.cpp:139] Memory required for data: 1086720
I0428 19:42:27.984362 25071 layer_factory.hpp:77] Creating layer ip2
I0428 19:42:27.984369 25071 net.cpp:86] Creating Layer ip2
I0428 19:42:27.984371 25071 net.cpp:408] ip2 <- ip1
I0428 19:42:27.984376 25071 net.cpp:382] ip2 -> ip2
I0428 19:42:27.984468 25071 net.cpp:124] Setting up ip2
I0428 19:42:27.984489 25071 net.cpp:131] Top shape: 64 10 (640)
I0428 19:42:27.984493 25071 net.cpp:139] Memory required for data: 1089280
I0428 19:42:27.984498 25071 layer_factory.hpp:77] Creating layer relu2
I0428 19:42:27.984503 25071 net.cpp:86] Creating Layer relu2
I0428 19:42:27.984506 25071 net.cpp:408] relu2 <- ip2
I0428 19:42:27.984509 25071 net.cpp:369] relu2 -> ip2 (in-place)
I0428 19:42:27.985344 25071 net.cpp:124] Setting up relu2
I0428 19:42:27.985357 25071 net.cpp:131] Top shape: 64 10 (640)
I0428 19:42:27.985376 25071 net.cpp:139] Memory required for data: 1091840
I0428 19:42:27.985379 25071 layer_factory.hpp:77] Creating layer loss
I0428 19:42:27.985399 25071 net.cpp:86] Creating Layer loss
I0428 19:42:27.985404 25071 net.cpp:408] loss <- ip2
I0428 19:42:27.985407 25071 net.cpp:408] loss <- label
I0428 19:42:27.985412 25071 net.cpp:382] loss -> loss
I0428 19:42:27.985426 25071 layer_factory.hpp:77] Creating layer loss
…
I0428 19:42:27.985998 25071 solver.cpp:173] Creating test net (#0) specified by net file: ECE595/mnist/train_test/var_everything2/lenet_train_test394.prototxt
I0428 19:42:27.986023 25071 net.cpp:296] The NetState phase (1) differed from the phase (0) specified by a rule in layer mnist
I0428 19:42:27.986105 25071 net.cpp:53] Initializing net from parameters: 
name: "LeNet"
state {
  phase: TEST
}
layer {
  name: "mnist"
  type: "Data"
  top: "data"
  top: "label"
  include {
    phase: TEST
  }
  transform_param {
    scale: 0.00390625
  }
  data_param {
    source: "examples/mnist/mnist_test_lmdb"
    batch_size: 100
    backend: LMDB
  }
}
layer {
  name: "conv0"
  type: "Convolution"
  bottom: "data"
  top: "conv0"
  param {
    lr_mult: 1
  }
  param {
    lr_mult: 2
  }
  convolution_param {
    num_output: 2
    kernel_size: 5
    stride: 1
    weight_filler {
      type: "xavier"
    }
    bias_filler {
      type: "constant"
    }
  }
}
layer {
  name: "pool0"
  type: "Pooling"
  bottom: "conv0"
  top: "pool0"
  pooling_param {
    pool: MAX
    kernel_size: 2
    stride: 2
  }
}
layer {
  name: "conv1"
  type: "Convolution"
  bottom: "pool0"
  top: "conv1"
  param {
    lr_mult: 1
  }
  param {
    lr_mult: 2
  }
  convolution_param {
    num_output: 25
    kernel_size: 5
    stride: 1
    weight_filler {
      type: "xavier"
    }
    bias_filler {
      type: "constant"
    }
  }
}
layer {
  name: "pool1"
  type: "Pooling"
  bottom: "conv1"
  top: "pool1"
  pooling_param {
    pool: MAX
    kernel_size: 2
    stride: 2
  }
}
layer {
  name: "ip1"
  type: "InnerProduct"
  bottom: "pool1"
  top: "ip1"
  param {
    lr_mult: 1
  }
  param {
    lr_mult: 2
  }
  inner_product_param {
    num_output: 10
    weight_filler {
      type: "xavier"
    }
    bias_filler {
      type: "constant"
    }
  }
}
layer {
  name: "relu1"
  type: "ReLU"
  bottom: "ip1"
  top: "ip1"
}
layer {
  name: "ip2"
  type: "InnerProduct"
  bottom: "ip1"
  top: "ip2"
  param {
    lr_mult: 1
  }
  param {
    lr_mult: 2
  }
  inner_product_param {
    num_output: 10
    weight_filler {
      type: "xavier"
    }
    bias_filler {
      type: "constant"
    }
  }
}
layer {
  name: "relu2"
  type: "ReLU"
  bottom: "ip2"
  top: "ip2"
}
layer {
  name: "accuracy"
  type: "Accuracy"
  bottom: "ip2"
  bottom: "label"
  top: "accuracy"
  include {
    phase: TEST
  }
}
layer {
  name: "loss"
  type: "SoftmaxWithLoss"
  bottom: "ip2"
  bottom: "label"
  top: "loss"
}
I0428 19:42:27.986166 25071 layer_factory.hpp:77] Creating layer mnist
I0428 19:42:27.986205 25071 db_lmdb.cpp:35] Opened lmdb examples/mnist/mnist_test_lmdb
I0428 19:42:27.986220 25071 net.cpp:86] Creating Layer mnist
I0428 19:42:27.986224 25071 net.cpp:382] mnist -> data
I0428 19:42:27.986232 25071 net.cpp:382] mnist -> label
I0428 19:42:27.986312 25071 data_layer.cpp:45] output data size: 100,1,28,28
I0428 19:42:27.988276 25071 net.cpp:124] Setting up mnist
I0428 19:42:27.988303 25071 net.cpp:131] Top shape: 100 1 28 28 (78400)
I0428 19:42:27.988323 25071 net.cpp:131] Top shape: 100 (100)
I0428 19:42:27.988327 25071 net.cpp:139] Memory required for data: 314000
I0428 19:42:27.988332 25071 layer_factory.hpp:77] Creating layer label_mnist_1_split
I0428 19:42:27.988337 25071 net.cpp:86] Creating Layer label_mnist_1_split
I0428 19:42:27.988340 25071 net.cpp:408] label_mnist_1_split <- label
I0428 19:42:27.988345 25071 net.cpp:382] label_mnist_1_split -> label_mnist_1_split_0
I0428 19:42:27.988351 25071 net.cpp:382] label_mnist_1_split -> label_mnist_1_split_1
I0428 19:42:27.988435 25071 net.cpp:124] Setting up label_mnist_1_split
I0428 19:42:27.988452 25071 net.cpp:131] Top shape: 100 (100)
I0428 19:42:27.988456 25071 net.cpp:131] Top shape: 100 (100)
I0428 19:42:27.988458 25071 net.cpp:139] Memory required for data: 314800
I0428 19:42:27.988461 25071 layer_factory.hpp:77] Creating layer conv0
I0428 19:42:27.988469 25071 net.cpp:86] Creating Layer conv0
I0428 19:42:27.988473 25071 net.cpp:408] conv0 <- data
I0428 19:42:27.988477 25071 net.cpp:382] conv0 -> conv0
I0428 19:42:27.990464 25071 net.cpp:124] Setting up conv0
I0428 19:42:27.990494 25071 net.cpp:131] Top shape: 100 2 24 24 (115200)
I0428 19:42:27.990496 25071 net.cpp:139] Memory required for data: 775600
I0428 19:42:27.990504 25071 layer_factory.hpp:77] Creating layer pool0
I0428 19:42:27.990527 25071 net.cpp:86] Creating Layer pool0
I0428 19:42:27.990531 25071 net.cpp:408] pool0 <- conv0
I0428 19:42:27.990535 25071 net.cpp:382] pool0 -> pool0
I0428 19:42:27.990571 25071 net.cpp:124] Setting up pool0
I0428 19:42:27.990576 25071 net.cpp:131] Top shape: 100 2 12 12 (28800)
I0428 19:42:27.990578 25071 net.cpp:139] Memory required for data: 890800
I0428 19:42:27.990581 25071 layer_factory.hpp:77] Creating layer conv1
I0428 19:42:27.990591 25071 net.cpp:86] Creating Layer conv1
I0428 19:42:27.990593 25071 net.cpp:408] conv1 <- pool0
I0428 19:42:27.990599 25071 net.cpp:382] conv1 -> conv1
I0428 19:42:27.992138 25071 net.cpp:124] Setting up conv1
I0428 19:42:27.992152 25071 net.cpp:131] Top shape: 100 25 8 8 (160000)
I0428 19:42:27.992156 25071 net.cpp:139] Memory required for data: 1530800
I0428 19:42:27.992164 25071 layer_factory.hpp:77] Creating layer pool1
I0428 19:42:27.992171 25071 net.cpp:86] Creating Layer pool1
I0428 19:42:27.992173 25071 net.cpp:408] pool1 <- conv1
I0428 19:42:27.992178 25071 net.cpp:382] pool1 -> pool1
I0428 19:42:27.992214 25071 net.cpp:124] Setting up pool1
I0428 19:42:27.992219 25071 net.cpp:131] Top shape: 100 25 4 4 (40000)
I0428 19:42:27.992223 25071 net.cpp:139] Memory required for data: 1690800
I0428 19:42:27.992224 25071 layer_factory.hpp:77] Creating layer ip1
I0428 19:42:27.992231 25071 net.cpp:86] Creating Layer ip1
I0428 19:42:27.992234 25071 net.cpp:408] ip1 <- pool1
I0428 19:42:27.992254 25071 net.cpp:382] ip1 -> ip1
I0428 19:42:27.992388 25071 net.cpp:124] Setting up ip1
I0428 19:42:27.992396 25071 net.cpp:131] Top shape: 100 10 (1000)
I0428 19:42:27.992421 25071 net.cpp:139] Memory required for data: 1694800
I0428 19:42:27.992429 25071 layer_factory.hpp:77] Creating layer relu1
I0428 19:42:27.992435 25071 net.cpp:86] Creating Layer relu1
I0428 19:42:27.992439 25071 net.cpp:408] relu1 <- ip1
I0428 19:42:27.992442 25071 net.cpp:369] relu1 -> ip1 (in-place)
I0428 19:42:27.992609 25071 net.cpp:124] Setting up relu1
I0428 19:42:27.992619 25071 net.cpp:131] Top shape: 100 10 (1000)
I0428 19:42:27.992629 25071 net.cpp:139] Memory required for data: 1698800
I0428 19:42:27.992631 25071 layer_factory.hpp:77] Creating layer ip2
I0428 19:42:27.992638 25071 net.cpp:86] Creating Layer ip2
I0428 19:42:27.992641 25071 net.cpp:408] ip2 <- ip1
I0428 19:42:27.992658 25071 net.cpp:382] ip2 -> ip2
I0428 19:42:27.992771 25071 net.cpp:124] Setting up ip2
I0428 19:42:27.992779 25071 net.cpp:131] Top shape: 100 10 (1000)
I0428 19:42:27.992780 25071 net.cpp:139] Memory required for data: 1702800
I0428 19:42:27.992785 25071 layer_factory.hpp:77] Creating layer relu2
I0428 19:42:27.992791 25071 net.cpp:86] Creating Layer relu2
I0428 19:42:27.992794 25071 net.cpp:408] relu2 <- ip2
I0428 19:42:27.992799 25071 net.cpp:369] relu2 -> ip2 (in-place)
I0428 19:42:27.992990 25071 net.cpp:124] Setting up relu2
I0428 19:42:27.992998 25071 net.cpp:131] Top shape: 100 10 (1000)
I0428 19:42:27.993001 25071 net.cpp:139] Memory required for data: 1706800
I0428 19:42:27.993005 25071 layer_factory.hpp:77] Creating layer ip2_relu2_0_split
I0428 19:42:27.993011 25071 net.cpp:86] Creating Layer ip2_relu2_0_split
I0428 19:42:27.993015 25071 net.cpp:408] ip2_relu2_0_split <- ip2
I0428 19:42:27.993018 25071 net.cpp:382] ip2_relu2_0_split -> ip2_relu2_0_split_0
I0428 19:42:27.993036 25071 net.cpp:382] ip2_relu2_0_split -> ip2_relu2_0_split_1
I0428 19:42:27.993080 25071 net.cpp:124] Setting up ip2_relu2_0_split
I0428 19:42:27.993085 25071 net.cpp:131] Top shape: 100 10 (1000)
I0428 19:42:27.993089 25071 net.cpp:131] Top shape: 100 10 (1000)
I0428 19:42:27.993093 25071 net.cpp:139] Memory required for data: 1714800
I0428 19:42:27.993100 25071 layer_factory.hpp:77] Creating layer accuracy
I0428 19:42:27.993106 25071 net.cpp:86] Creating Layer accuracy
I0428 19:42:27.993110 25071 net.cpp:408] accuracy <- ip2_relu2_0_split_0
I0428 19:42:27.993114 25071 net.cpp:408] accuracy <- label_mnist_1_split_0
I0428 19:42:27.993119 25071 net.cpp:382] accuracy -> accuracy
…
