…
I0428 20:12:23.511380 32244 net.cpp:296] The NetState phase (0) differed from the phase (1) specified by a rule in layer mnist
I0428 20:12:23.511397 32244 net.cpp:296] The NetState phase (0) differed from the phase (1) specified by a rule in layer accuracy
I0428 20:12:23.511484 32244 net.cpp:53] Initializing net from parameters: 
name: "LeNet"
state {
  phase: TRAIN
  level: 0
  stage: ""
}
layer {
  name: "mnist"
  type: "Data"
  top: "data"
  top: "label"
  include {
    phase: TRAIN
  }
  transform_param {
    scale: 0.00390625
  }
  data_param {
    source: "examples/mnist/mnist_train_lmdb"
    batch_size: 64
    backend: LMDB
  }
}
layer {
  name: "conv0"
  type: "Convolution"
  bottom: "data"
  top: "conv0"
  param {
    lr_mult: 1
  }
  param {
    lr_mult: 2
  }
  convolution_param {
    num_output: 25
    kernel_size: 5
    stride: 1
    weight_filler {
      type: "xavier"
    }
    bias_filler {
      type: "constant"
    }
  }
}
layer {
  name: "pool0"
  type: "Pooling"
  bottom: "conv0"
  top: "pool0"
  pooling_param {
    pool: MAX
    kernel_size: 2
    stride: 2
  }
}
layer {
  name: "conv1"
  type: "Convolution"
  bottom: "pool0"
  top: "conv1"
  param {
    lr_mult: 1
  }
  param {
    lr_mult: 2
  }
  convolution_param {
    num_output: 100
    kernel_size: 5
    stride: 1
    weight_filler {
      type: "xavier"
    }
    bias_filler {
      type: "constant"
    }
  }
}
layer {
  name: "pool1"
  type: "Pooling"
  bottom: "conv1"
  top: "pool1"
  pooling_param {
    pool: MAX
    kernel_size: 2
    stride: 2
  }
}
layer {
  name: "ip1"
  type: "InnerProduct"
  bottom: "pool1"
  top: "ip1"
  param {
    lr_mult: 1
  }
  param {
    lr_mult: 2
  }
  inner_product_param {
    num_output: 50
    weight_filler {
      type: "xavier"
    }
    bias_filler {
      type: "constant"
    }
  }
}
layer {
  name: "relu1"
  type: "ReLU"
  bottom: "ip1"
  top: "ip1"
}
layer {
  name: "ip2"
  type: "InnerProduct"
  bottom: "ip1"
  top: "ip2"
  param {
    lr_mult: 1
  }
  param {
    lr_mult: 2
  }
  inner_product_param {
    num_output: 10
    weight_filler {
      type: "xavier"
    }
    bias_filler {
      type: "constant"
    }
  }
}
layer {
  name: "relu2"
  type: "ReLU"
  bottom: "ip2"
  top: "ip2"
}
layer {
  name: "loss"
  type: "SoftmaxWithLoss"
  bottom: "ip2"
  bottom: "label"
  top: "loss"
}
I0428 20:12:23.511554 32244 layer_factory.hpp:77] Creating layer mnist
I0428 20:12:23.511653 32244 db_lmdb.cpp:35] Opened lmdb examples/mnist/mnist_train_lmdb
I0428 20:12:23.511678 32244 net.cpp:86] Creating Layer mnist
I0428 20:12:23.511687 32244 net.cpp:382] mnist -> data
I0428 20:12:23.511708 32244 net.cpp:382] mnist -> label
I0428 20:12:23.512820 32244 data_layer.cpp:45] output data size: 64,1,28,28
I0428 20:12:23.515256 32244 net.cpp:124] Setting up mnist
I0428 20:12:23.515275 32244 net.cpp:131] Top shape: 64 1 28 28 (50176)
I0428 20:12:23.515280 32244 net.cpp:131] Top shape: 64 (64)
I0428 20:12:23.515285 32244 net.cpp:139] Memory required for data: 200960
I0428 20:12:23.515291 32244 layer_factory.hpp:77] Creating layer conv0
I0428 20:12:23.515307 32244 net.cpp:86] Creating Layer conv0
I0428 20:12:23.515314 32244 net.cpp:408] conv0 <- data
I0428 20:12:23.515326 32244 net.cpp:382] conv0 -> conv0
I0428 20:12:23.806797 32244 net.cpp:124] Setting up conv0
I0428 20:12:23.806828 32244 net.cpp:131] Top shape: 64 25 24 24 (921600)
I0428 20:12:23.806834 32244 net.cpp:139] Memory required for data: 3887360
I0428 20:12:23.806875 32244 layer_factory.hpp:77] Creating layer pool0
I0428 20:12:23.806891 32244 net.cpp:86] Creating Layer pool0
I0428 20:12:23.806900 32244 net.cpp:408] pool0 <- conv0
I0428 20:12:23.806907 32244 net.cpp:382] pool0 -> pool0
I0428 20:12:23.806965 32244 net.cpp:124] Setting up pool0
I0428 20:12:23.806973 32244 net.cpp:131] Top shape: 64 25 12 12 (230400)
I0428 20:12:23.806977 32244 net.cpp:139] Memory required for data: 4808960
I0428 20:12:23.806982 32244 layer_factory.hpp:77] Creating layer conv1
I0428 20:12:23.806994 32244 net.cpp:86] Creating Layer conv1
I0428 20:12:23.806999 32244 net.cpp:408] conv1 <- pool0
I0428 20:12:23.807005 32244 net.cpp:382] conv1 -> conv1
I0428 20:12:23.809566 32244 net.cpp:124] Setting up conv1
I0428 20:12:23.809583 32244 net.cpp:131] Top shape: 64 100 8 8 (409600)
I0428 20:12:23.809588 32244 net.cpp:139] Memory required for data: 6447360
I0428 20:12:23.809598 32244 layer_factory.hpp:77] Creating layer pool1
I0428 20:12:23.809607 32244 net.cpp:86] Creating Layer pool1
I0428 20:12:23.809612 32244 net.cpp:408] pool1 <- conv1
I0428 20:12:23.809617 32244 net.cpp:382] pool1 -> pool1
I0428 20:12:23.809660 32244 net.cpp:124] Setting up pool1
I0428 20:12:23.809669 32244 net.cpp:131] Top shape: 64 100 4 4 (102400)
I0428 20:12:23.809672 32244 net.cpp:139] Memory required for data: 6856960
I0428 20:12:23.809676 32244 layer_factory.hpp:77] Creating layer ip1
I0428 20:12:23.809684 32244 net.cpp:86] Creating Layer ip1
I0428 20:12:23.809691 32244 net.cpp:408] ip1 <- pool1
I0428 20:12:23.809697 32244 net.cpp:382] ip1 -> ip1
I0428 20:12:23.811309 32244 net.cpp:124] Setting up ip1
I0428 20:12:23.811324 32244 net.cpp:131] Top shape: 64 50 (3200)
I0428 20:12:23.811328 32244 net.cpp:139] Memory required for data: 6869760
I0428 20:12:23.811337 32244 layer_factory.hpp:77] Creating layer relu1
I0428 20:12:23.811347 32244 net.cpp:86] Creating Layer relu1
I0428 20:12:23.811353 32244 net.cpp:408] relu1 <- ip1
I0428 20:12:23.811358 32244 net.cpp:369] relu1 -> ip1 (in-place)
I0428 20:12:23.811560 32244 net.cpp:124] Setting up relu1
I0428 20:12:23.811570 32244 net.cpp:131] Top shape: 64 50 (3200)
I0428 20:12:23.811574 32244 net.cpp:139] Memory required for data: 6882560
I0428 20:12:23.811578 32244 layer_factory.hpp:77] Creating layer ip2
I0428 20:12:23.811586 32244 net.cpp:86] Creating Layer ip2
I0428 20:12:23.811591 32244 net.cpp:408] ip2 <- ip1
I0428 20:12:23.811597 32244 net.cpp:382] ip2 -> ip2
I0428 20:12:23.811709 32244 net.cpp:124] Setting up ip2
I0428 20:12:23.811717 32244 net.cpp:131] Top shape: 64 10 (640)
I0428 20:12:23.811722 32244 net.cpp:139] Memory required for data: 6885120
I0428 20:12:23.811728 32244 layer_factory.hpp:77] Creating layer relu2
I0428 20:12:23.811735 32244 net.cpp:86] Creating Layer relu2
I0428 20:12:23.811740 32244 net.cpp:408] relu2 <- ip2
I0428 20:12:23.811745 32244 net.cpp:369] relu2 -> ip2 (in-place)
I0428 20:12:23.812561 32244 net.cpp:124] Setting up relu2
I0428 20:12:23.812575 32244 net.cpp:131] Top shape: 64 10 (640)
I0428 20:12:23.812579 32244 net.cpp:139] Memory required for data: 6887680
I0428 20:12:23.812583 32244 layer_factory.hpp:77] Creating layer loss
I0428 20:12:23.812592 32244 net.cpp:86] Creating Layer loss
I0428 20:12:23.812595 32244 net.cpp:408] loss <- ip2
I0428 20:12:23.812600 32244 net.cpp:408] loss <- label
I0428 20:12:23.812608 32244 net.cpp:382] loss -> loss
I0428 20:12:23.812626 32244 layer_factory.hpp:77] Creating layer loss
…
I0428 20:12:23.813354 32244 solver.cpp:173] Creating test net (#0) specified by net file: ECE595/mnist/train_test/var_everything2/lenet_train_test1179.prototxt
I0428 20:12:23.813383 32244 net.cpp:296] The NetState phase (1) differed from the phase (0) specified by a rule in layer mnist
I0428 20:12:23.813479 32244 net.cpp:53] Initializing net from parameters: 
name: "LeNet"
state {
  phase: TEST
}
layer {
  name: "mnist"
  type: "Data"
  top: "data"
  top: "label"
  include {
    phase: TEST
  }
  transform_param {
    scale: 0.00390625
  }
  data_param {
    source: "examples/mnist/mnist_test_lmdb"
    batch_size: 100
    backend: LMDB
  }
}
layer {
  name: "conv0"
  type: "Convolution"
  bottom: "data"
  top: "conv0"
  param {
    lr_mult: 1
  }
  param {
    lr_mult: 2
  }
  convolution_param {
    num_output: 25
    kernel_size: 5
    stride: 1
    weight_filler {
      type: "xavier"
    }
    bias_filler {
      type: "constant"
    }
  }
}
layer {
  name: "pool0"
  type: "Pooling"
  bottom: "conv0"
  top: "pool0"
  pooling_param {
    pool: MAX
    kernel_size: 2
    stride: 2
  }
}
layer {
  name: "conv1"
  type: "Convolution"
  bottom: "pool0"
  top: "conv1"
  param {
    lr_mult: 1
  }
  param {
    lr_mult: 2
  }
  convolution_param {
    num_output: 100
    kernel_size: 5
    stride: 1
    weight_filler {
      type: "xavier"
    }
    bias_filler {
      type: "constant"
    }
  }
}
layer {
  name: "pool1"
  type: "Pooling"
  bottom: "conv1"
  top: "pool1"
  pooling_param {
    pool: MAX
    kernel_size: 2
    stride: 2
  }
}
layer {
  name: "ip1"
  type: "InnerProduct"
  bottom: "pool1"
  top: "ip1"
  param {
    lr_mult: 1
  }
  param {
    lr_mult: 2
  }
  inner_product_param {
    num_output: 50
    weight_filler {
      type: "xavier"
    }
    bias_filler {
      type: "constant"
    }
  }
}
layer {
  name: "relu1"
  type: "ReLU"
  bottom: "ip1"
  top: "ip1"
}
layer {
  name: "ip2"
  type: "InnerProduct"
  bottom: "ip1"
  top: "ip2"
  param {
    lr_mult: 1
  }
  param {
    lr_mult: 2
  }
  inner_product_param {
    num_output: 10
    weight_filler {
      type: "xavier"
    }
    bias_filler {
      type: "constant"
    }
  }
}
layer {
  name: "relu2"
  type: "ReLU"
  bottom: "ip2"
  top: "ip2"
}
layer {
  name: "accuracy"
  type: "Accuracy"
  bottom: "ip2"
  bottom: "label"
  top: "accuracy"
  include {
    phase: TEST
  }
}
layer {
  name: "loss"
  type: "SoftmaxWithLoss"
  bottom: "ip2"
  bottom: "label"
  top: "loss"
}
I0428 20:12:23.813552 32244 layer_factory.hpp:77] Creating layer mnist
I0428 20:12:23.813613 32244 db_lmdb.cpp:35] Opened lmdb examples/mnist/mnist_test_lmdb
I0428 20:12:23.813627 32244 net.cpp:86] Creating Layer mnist
I0428 20:12:23.813633 32244 net.cpp:382] mnist -> data
I0428 20:12:23.813642 32244 net.cpp:382] mnist -> label
I0428 20:12:23.813735 32244 data_layer.cpp:45] output data size: 100,1,28,28
I0428 20:12:23.814924 32244 net.cpp:124] Setting up mnist
I0428 20:12:23.814950 32244 net.cpp:131] Top shape: 100 1 28 28 (78400)
I0428 20:12:23.814957 32244 net.cpp:131] Top shape: 100 (100)
I0428 20:12:23.814961 32244 net.cpp:139] Memory required for data: 314000
I0428 20:12:23.814965 32244 layer_factory.hpp:77] Creating layer label_mnist_1_split
I0428 20:12:23.814973 32244 net.cpp:86] Creating Layer label_mnist_1_split
I0428 20:12:23.814978 32244 net.cpp:408] label_mnist_1_split <- label
I0428 20:12:23.814985 32244 net.cpp:382] label_mnist_1_split -> label_mnist_1_split_0
I0428 20:12:23.814992 32244 net.cpp:382] label_mnist_1_split -> label_mnist_1_split_1
I0428 20:12:23.815114 32244 net.cpp:124] Setting up label_mnist_1_split
I0428 20:12:23.815122 32244 net.cpp:131] Top shape: 100 (100)
I0428 20:12:23.815126 32244 net.cpp:131] Top shape: 100 (100)
I0428 20:12:23.815130 32244 net.cpp:139] Memory required for data: 314800
I0428 20:12:23.815134 32244 layer_factory.hpp:77] Creating layer conv0
I0428 20:12:23.815143 32244 net.cpp:86] Creating Layer conv0
I0428 20:12:23.815148 32244 net.cpp:408] conv0 <- data
I0428 20:12:23.815155 32244 net.cpp:382] conv0 -> conv0
I0428 20:12:23.816959 32244 net.cpp:124] Setting up conv0
I0428 20:12:23.816977 32244 net.cpp:131] Top shape: 100 25 24 24 (1440000)
I0428 20:12:23.816980 32244 net.cpp:139] Memory required for data: 6074800
I0428 20:12:23.816992 32244 layer_factory.hpp:77] Creating layer pool0
I0428 20:12:23.816998 32244 net.cpp:86] Creating Layer pool0
I0428 20:12:23.817013 32244 net.cpp:408] pool0 <- conv0
I0428 20:12:23.817019 32244 net.cpp:382] pool0 -> pool0
I0428 20:12:23.817059 32244 net.cpp:124] Setting up pool0
I0428 20:12:23.817067 32244 net.cpp:131] Top shape: 100 25 12 12 (360000)
I0428 20:12:23.817070 32244 net.cpp:139] Memory required for data: 7514800
I0428 20:12:23.817075 32244 layer_factory.hpp:77] Creating layer conv1
I0428 20:12:23.817083 32244 net.cpp:86] Creating Layer conv1
I0428 20:12:23.817088 32244 net.cpp:408] conv1 <- pool0
I0428 20:12:23.817095 32244 net.cpp:382] conv1 -> conv1
I0428 20:12:23.819039 32244 net.cpp:124] Setting up conv1
I0428 20:12:23.819062 32244 net.cpp:131] Top shape: 100 100 8 8 (640000)
I0428 20:12:23.819067 32244 net.cpp:139] Memory required for data: 10074800
I0428 20:12:23.819087 32244 layer_factory.hpp:77] Creating layer pool1
I0428 20:12:23.819094 32244 net.cpp:86] Creating Layer pool1
I0428 20:12:23.819098 32244 net.cpp:408] pool1 <- conv1
I0428 20:12:23.819104 32244 net.cpp:382] pool1 -> pool1
I0428 20:12:23.819169 32244 net.cpp:124] Setting up pool1
I0428 20:12:23.819177 32244 net.cpp:131] Top shape: 100 100 4 4 (160000)
I0428 20:12:23.819182 32244 net.cpp:139] Memory required for data: 10714800
I0428 20:12:23.819186 32244 layer_factory.hpp:77] Creating layer ip1
I0428 20:12:23.819195 32244 net.cpp:86] Creating Layer ip1
I0428 20:12:23.819198 32244 net.cpp:408] ip1 <- pool1
I0428 20:12:23.819205 32244 net.cpp:382] ip1 -> ip1
I0428 20:12:23.819823 32244 net.cpp:124] Setting up ip1
I0428 20:12:23.819833 32244 net.cpp:131] Top shape: 100 50 (5000)
I0428 20:12:23.819838 32244 net.cpp:139] Memory required for data: 10734800
I0428 20:12:23.819845 32244 layer_factory.hpp:77] Creating layer relu1
I0428 20:12:23.819851 32244 net.cpp:86] Creating Layer relu1
I0428 20:12:23.819856 32244 net.cpp:408] relu1 <- ip1
I0428 20:12:23.819862 32244 net.cpp:369] relu1 -> ip1 (in-place)
I0428 20:12:23.820076 32244 net.cpp:124] Setting up relu1
I0428 20:12:23.820087 32244 net.cpp:131] Top shape: 100 50 (5000)
I0428 20:12:23.820091 32244 net.cpp:139] Memory required for data: 10754800
I0428 20:12:23.820096 32244 layer_factory.hpp:77] Creating layer ip2
I0428 20:12:23.820103 32244 net.cpp:86] Creating Layer ip2
I0428 20:12:23.820108 32244 net.cpp:408] ip2 <- ip1
I0428 20:12:23.820114 32244 net.cpp:382] ip2 -> ip2
I0428 20:12:23.820261 32244 net.cpp:124] Setting up ip2
I0428 20:12:23.820269 32244 net.cpp:131] Top shape: 100 10 (1000)
I0428 20:12:23.820281 32244 net.cpp:139] Memory required for data: 10758800
I0428 20:12:23.820287 32244 layer_factory.hpp:77] Creating layer relu2
I0428 20:12:23.820294 32244 net.cpp:86] Creating Layer relu2
I0428 20:12:23.820297 32244 net.cpp:408] relu2 <- ip2
I0428 20:12:23.820303 32244 net.cpp:369] relu2 -> ip2 (in-place)
I0428 20:12:23.820483 32244 net.cpp:124] Setting up relu2
I0428 20:12:23.820493 32244 net.cpp:131] Top shape: 100 10 (1000)
I0428 20:12:23.820497 32244 net.cpp:139] Memory required for data: 10762800
I0428 20:12:23.820502 32244 layer_factory.hpp:77] Creating layer ip2_relu2_0_split
I0428 20:12:23.820507 32244 net.cpp:86] Creating Layer ip2_relu2_0_split
I0428 20:12:23.820511 32244 net.cpp:408] ip2_relu2_0_split <- ip2
I0428 20:12:23.820518 32244 net.cpp:382] ip2_relu2_0_split -> ip2_relu2_0_split_0
I0428 20:12:23.820540 32244 net.cpp:382] ip2_relu2_0_split -> ip2_relu2_0_split_1
I0428 20:12:23.820581 32244 net.cpp:124] Setting up ip2_relu2_0_split
I0428 20:12:23.820590 32244 net.cpp:131] Top shape: 100 10 (1000)
I0428 20:12:23.820593 32244 net.cpp:131] Top shape: 100 10 (1000)
I0428 20:12:23.820597 32244 net.cpp:139] Memory required for data: 10770800
I0428 20:12:23.820600 32244 layer_factory.hpp:77] Creating layer accuracy
I0428 20:12:23.820607 32244 net.cpp:86] Creating Layer accuracy
I0428 20:12:23.820611 32244 net.cpp:408] accuracy <- ip2_relu2_0_split_0
I0428 20:12:23.820616 32244 net.cpp:408] accuracy <- label_mnist_1_split_0
I0428 20:12:23.820622 32244 net.cpp:382] accuracy -> accuracy
…
