…
I0428 19:31:18.827002 22544 net.cpp:296] The NetState phase (0) differed from the phase (1) specified by a rule in layer mnist
I0428 19:31:18.827018 22544 net.cpp:296] The NetState phase (0) differed from the phase (1) specified by a rule in layer accuracy
I0428 19:31:18.827100 22544 net.cpp:53] Initializing net from parameters: 
name: "LeNet"
state {
  phase: TRAIN
  level: 0
  stage: ""
}
layer {
  name: "mnist"
  type: "Data"
  top: "data"
  top: "label"
  include {
    phase: TRAIN
  }
  transform_param {
    scale: 0.00390625
  }
  data_param {
    source: "examples/mnist/mnist_train_lmdb"
    batch_size: 64
    backend: LMDB
  }
}
layer {
  name: "conv0"
  type: "Convolution"
  bottom: "data"
  top: "conv0"
  param {
    lr_mult: 1
  }
  param {
    lr_mult: 2
  }
  convolution_param {
    num_output: 10
    kernel_size: 5
    stride: 1
    weight_filler {
      type: "xavier"
    }
    bias_filler {
      type: "constant"
    }
  }
}
layer {
  name: "pool0"
  type: "Pooling"
  bottom: "conv0"
  top: "pool0"
  pooling_param {
    pool: MAX
    kernel_size: 2
    stride: 2
  }
}
layer {
  name: "ip1"
  type: "InnerProduct"
  bottom: "pool0"
  top: "ip1"
  param {
    lr_mult: 1
  }
  param {
    lr_mult: 2
  }
  inner_product_param {
    num_output: 10
    weight_filler {
      type: "xavier"
    }
    bias_filler {
      type: "constant"
    }
  }
}
layer {
  name: "relu1"
  type: "ReLU"
  bottom: "ip1"
  top: "ip1"
}
layer {
  name: "loss"
  type: "SoftmaxWithLoss"
  bottom: "ip1"
  bottom: "label"
  top: "loss"
}
I0428 19:31:18.827180 22544 layer_factory.hpp:77] Creating layer mnist
I0428 19:31:18.827316 22544 db_lmdb.cpp:35] Opened lmdb examples/mnist/mnist_train_lmdb
I0428 19:31:18.827349 22544 net.cpp:86] Creating Layer mnist
I0428 19:31:18.827361 22544 net.cpp:382] mnist -> data
I0428 19:31:18.827394 22544 net.cpp:382] mnist -> label
I0428 19:31:18.828528 22544 data_layer.cpp:45] output data size: 64,1,28,28
I0428 19:31:18.831001 22544 net.cpp:124] Setting up mnist
I0428 19:31:18.831020 22544 net.cpp:131] Top shape: 64 1 28 28 (50176)
I0428 19:31:18.831032 22544 net.cpp:131] Top shape: 64 (64)
I0428 19:31:18.831038 22544 net.cpp:139] Memory required for data: 200960
I0428 19:31:18.831049 22544 layer_factory.hpp:77] Creating layer conv0
I0428 19:31:18.831073 22544 net.cpp:86] Creating Layer conv0
I0428 19:31:18.831084 22544 net.cpp:408] conv0 <- data
I0428 19:31:18.831101 22544 net.cpp:382] conv0 -> conv0
I0428 19:31:19.118222 22544 net.cpp:124] Setting up conv0
I0428 19:31:19.118252 22544 net.cpp:131] Top shape: 64 10 24 24 (368640)
I0428 19:31:19.118258 22544 net.cpp:139] Memory required for data: 1675520
I0428 19:31:19.118278 22544 layer_factory.hpp:77] Creating layer pool0
I0428 19:31:19.118295 22544 net.cpp:86] Creating Layer pool0
I0428 19:31:19.118311 22544 net.cpp:408] pool0 <- conv0
I0428 19:31:19.118321 22544 net.cpp:382] pool0 -> pool0
I0428 19:31:19.118379 22544 net.cpp:124] Setting up pool0
I0428 19:31:19.118388 22544 net.cpp:131] Top shape: 64 10 12 12 (92160)
I0428 19:31:19.118393 22544 net.cpp:139] Memory required for data: 2044160
I0428 19:31:19.118398 22544 layer_factory.hpp:77] Creating layer ip1
I0428 19:31:19.118409 22544 net.cpp:86] Creating Layer ip1
I0428 19:31:19.118415 22544 net.cpp:408] ip1 <- pool0
I0428 19:31:19.118423 22544 net.cpp:382] ip1 -> ip1
I0428 19:31:19.119426 22544 net.cpp:124] Setting up ip1
I0428 19:31:19.119441 22544 net.cpp:131] Top shape: 64 10 (640)
I0428 19:31:19.119469 22544 net.cpp:139] Memory required for data: 2046720
I0428 19:31:19.119483 22544 layer_factory.hpp:77] Creating layer relu1
I0428 19:31:19.119495 22544 net.cpp:86] Creating Layer relu1
I0428 19:31:19.119504 22544 net.cpp:408] relu1 <- ip1
I0428 19:31:19.119513 22544 net.cpp:369] relu1 -> ip1 (in-place)
I0428 19:31:19.119678 22544 net.cpp:124] Setting up relu1
I0428 19:31:19.119689 22544 net.cpp:131] Top shape: 64 10 (640)
I0428 19:31:19.119694 22544 net.cpp:139] Memory required for data: 2049280
I0428 19:31:19.119699 22544 layer_factory.hpp:77] Creating layer loss
I0428 19:31:19.119709 22544 net.cpp:86] Creating Layer loss
I0428 19:31:19.119714 22544 net.cpp:408] loss <- ip1
I0428 19:31:19.119720 22544 net.cpp:408] loss <- label
I0428 19:31:19.119729 22544 net.cpp:382] loss -> loss
I0428 19:31:19.119751 22544 layer_factory.hpp:77] Creating layer loss
…
I0428 19:31:19.120991 22544 solver.cpp:173] Creating test net (#0) specified by net file: ECE595/mnist/train_test/var_everything2/lenet_train_test118.prototxt
I0428 19:31:19.121021 22544 net.cpp:296] The NetState phase (1) differed from the phase (0) specified by a rule in layer mnist
I0428 19:31:19.121090 22544 net.cpp:53] Initializing net from parameters: 
name: "LeNet"
state {
  phase: TEST
}
layer {
  name: "mnist"
  type: "Data"
  top: "data"
  top: "label"
  include {
    phase: TEST
  }
  transform_param {
    scale: 0.00390625
  }
  data_param {
    source: "examples/mnist/mnist_test_lmdb"
    batch_size: 100
    backend: LMDB
  }
}
layer {
  name: "conv0"
  type: "Convolution"
  bottom: "data"
  top: "conv0"
  param {
    lr_mult: 1
  }
  param {
    lr_mult: 2
  }
  convolution_param {
    num_output: 10
    kernel_size: 5
    stride: 1
    weight_filler {
      type: "xavier"
    }
    bias_filler {
      type: "constant"
    }
  }
}
layer {
  name: "pool0"
  type: "Pooling"
  bottom: "conv0"
  top: "pool0"
  pooling_param {
    pool: MAX
    kernel_size: 2
    stride: 2
  }
}
layer {
  name: "ip1"
  type: "InnerProduct"
  bottom: "pool0"
  top: "ip1"
  param {
    lr_mult: 1
  }
  param {
    lr_mult: 2
  }
  inner_product_param {
    num_output: 10
    weight_filler {
      type: "xavier"
    }
    bias_filler {
      type: "constant"
    }
  }
}
layer {
  name: "relu1"
  type: "ReLU"
  bottom: "ip1"
  top: "ip1"
}
layer {
  name: "accuracy"
  type: "Accuracy"
  bottom: "ip1"
  bottom: "label"
  top: "accuracy"
  include {
    phase: TEST
  }
}
layer {
  name: "loss"
  type: "SoftmaxWithLoss"
  bottom: "ip1"
  bottom: "label"
  top: "loss"
}
I0428 19:31:19.121170 22544 layer_factory.hpp:77] Creating layer mnist
I0428 19:31:19.121232 22544 db_lmdb.cpp:35] Opened lmdb examples/mnist/mnist_test_lmdb
I0428 19:31:19.121249 22544 net.cpp:86] Creating Layer mnist
I0428 19:31:19.121256 22544 net.cpp:382] mnist -> data
I0428 19:31:19.121269 22544 net.cpp:382] mnist -> label
I0428 19:31:19.121387 22544 data_layer.cpp:45] output data size: 100,1,28,28
I0428 19:31:19.123467 22544 net.cpp:124] Setting up mnist
I0428 19:31:19.123482 22544 net.cpp:131] Top shape: 100 1 28 28 (78400)
I0428 19:31:19.123491 22544 net.cpp:131] Top shape: 100 (100)
I0428 19:31:19.123495 22544 net.cpp:139] Memory required for data: 314000
I0428 19:31:19.123513 22544 layer_factory.hpp:77] Creating layer label_mnist_1_split
I0428 19:31:19.123523 22544 net.cpp:86] Creating Layer label_mnist_1_split
I0428 19:31:19.123529 22544 net.cpp:408] label_mnist_1_split <- label
I0428 19:31:19.123538 22544 net.cpp:382] label_mnist_1_split -> label_mnist_1_split_0
I0428 19:31:19.123548 22544 net.cpp:382] label_mnist_1_split -> label_mnist_1_split_1
I0428 19:31:19.123636 22544 net.cpp:124] Setting up label_mnist_1_split
I0428 19:31:19.123643 22544 net.cpp:131] Top shape: 100 (100)
I0428 19:31:19.123651 22544 net.cpp:131] Top shape: 100 (100)
I0428 19:31:19.123654 22544 net.cpp:139] Memory required for data: 314800
I0428 19:31:19.123661 22544 layer_factory.hpp:77] Creating layer conv0
I0428 19:31:19.123673 22544 net.cpp:86] Creating Layer conv0
I0428 19:31:19.123679 22544 net.cpp:408] conv0 <- data
I0428 19:31:19.123688 22544 net.cpp:382] conv0 -> conv0
I0428 19:31:19.125253 22544 net.cpp:124] Setting up conv0
I0428 19:31:19.125268 22544 net.cpp:131] Top shape: 100 10 24 24 (576000)
I0428 19:31:19.125274 22544 net.cpp:139] Memory required for data: 2618800
I0428 19:31:19.125288 22544 layer_factory.hpp:77] Creating layer pool0
I0428 19:31:19.125298 22544 net.cpp:86] Creating Layer pool0
I0428 19:31:19.125304 22544 net.cpp:408] pool0 <- conv0
I0428 19:31:19.125311 22544 net.cpp:382] pool0 -> pool0
I0428 19:31:19.125354 22544 net.cpp:124] Setting up pool0
I0428 19:31:19.125361 22544 net.cpp:131] Top shape: 100 10 12 12 (144000)
I0428 19:31:19.125366 22544 net.cpp:139] Memory required for data: 3194800
I0428 19:31:19.125371 22544 layer_factory.hpp:77] Creating layer ip1
I0428 19:31:19.125382 22544 net.cpp:86] Creating Layer ip1
I0428 19:31:19.125388 22544 net.cpp:408] ip1 <- pool0
I0428 19:31:19.125396 22544 net.cpp:382] ip1 -> ip1
I0428 19:31:19.125571 22544 net.cpp:124] Setting up ip1
I0428 19:31:19.125581 22544 net.cpp:131] Top shape: 100 10 (1000)
I0428 19:31:19.125586 22544 net.cpp:139] Memory required for data: 3198800
I0428 19:31:19.125597 22544 layer_factory.hpp:77] Creating layer relu1
I0428 19:31:19.125604 22544 net.cpp:86] Creating Layer relu1
I0428 19:31:19.125610 22544 net.cpp:408] relu1 <- ip1
I0428 19:31:19.125617 22544 net.cpp:369] relu1 -> ip1 (in-place)
I0428 19:31:19.125807 22544 net.cpp:124] Setting up relu1
I0428 19:31:19.125833 22544 net.cpp:131] Top shape: 100 10 (1000)
I0428 19:31:19.125838 22544 net.cpp:139] Memory required for data: 3202800
I0428 19:31:19.125844 22544 layer_factory.hpp:77] Creating layer ip1_relu1_0_split
I0428 19:31:19.125852 22544 net.cpp:86] Creating Layer ip1_relu1_0_split
I0428 19:31:19.125859 22544 net.cpp:408] ip1_relu1_0_split <- ip1
I0428 19:31:19.125866 22544 net.cpp:382] ip1_relu1_0_split -> ip1_relu1_0_split_0
I0428 19:31:19.125876 22544 net.cpp:382] ip1_relu1_0_split -> ip1_relu1_0_split_1
I0428 19:31:19.125929 22544 net.cpp:124] Setting up ip1_relu1_0_split
I0428 19:31:19.125938 22544 net.cpp:131] Top shape: 100 10 (1000)
I0428 19:31:19.125946 22544 net.cpp:131] Top shape: 100 10 (1000)
I0428 19:31:19.125952 22544 net.cpp:139] Memory required for data: 3210800
I0428 19:31:19.125957 22544 layer_factory.hpp:77] Creating layer accuracy
I0428 19:31:19.125967 22544 net.cpp:86] Creating Layer accuracy
I0428 19:31:19.125972 22544 net.cpp:408] accuracy <- ip1_relu1_0_split_0
I0428 19:31:19.125979 22544 net.cpp:408] accuracy <- label_mnist_1_split_0
I0428 19:31:19.125988 22544 net.cpp:382] accuracy -> accuracy
…
