…
I0428 19:30:06.832068 22201 net.cpp:296] The NetState phase (0) differed from the phase (1) specified by a rule in layer mnist
I0428 19:30:06.832083 22201 net.cpp:296] The NetState phase (0) differed from the phase (1) specified by a rule in layer accuracy
I0428 19:30:06.832152 22201 net.cpp:53] Initializing net from parameters: 
name: "LeNet"
state {
  phase: TRAIN
  level: 0
  stage: ""
}
layer {
  name: "mnist"
  type: "Data"
  top: "data"
  top: "label"
  include {
    phase: TRAIN
  }
  transform_param {
    scale: 0.00390625
  }
  data_param {
    source: "examples/mnist/mnist_train_lmdb"
    batch_size: 64
    backend: LMDB
  }
}
layer {
  name: "conv0"
  type: "Convolution"
  bottom: "data"
  top: "conv0"
  param {
    lr_mult: 1
  }
  param {
    lr_mult: 2
  }
  convolution_param {
    num_output: 5
    kernel_size: 5
    stride: 1
    weight_filler {
      type: "xavier"
    }
    bias_filler {
      type: "constant"
    }
  }
}
layer {
  name: "pool0"
  type: "Pooling"
  bottom: "conv0"
  top: "pool0"
  pooling_param {
    pool: MAX
    kernel_size: 2
    stride: 2
  }
}
layer {
  name: "ip1"
  type: "InnerProduct"
  bottom: "pool0"
  top: "ip1"
  param {
    lr_mult: 1
  }
  param {
    lr_mult: 2
  }
  inner_product_param {
    num_output: 10
    weight_filler {
      type: "xavier"
    }
    bias_filler {
      type: "constant"
    }
  }
}
layer {
  name: "relu1"
  type: "ReLU"
  bottom: "ip1"
  top: "ip1"
}
layer {
  name: "loss"
  type: "SoftmaxWithLoss"
  bottom: "ip1"
  bottom: "label"
  top: "loss"
}
I0428 19:30:06.832211 22201 layer_factory.hpp:77] Creating layer mnist
I0428 19:30:06.832305 22201 db_lmdb.cpp:35] Opened lmdb examples/mnist/mnist_train_lmdb
I0428 19:30:06.832330 22201 net.cpp:86] Creating Layer mnist
I0428 19:30:06.832340 22201 net.cpp:382] mnist -> data
I0428 19:30:06.832360 22201 net.cpp:382] mnist -> label
I0428 19:30:06.833462 22201 data_layer.cpp:45] output data size: 64,1,28,28
I0428 19:30:06.835906 22201 net.cpp:124] Setting up mnist
I0428 19:30:06.835925 22201 net.cpp:131] Top shape: 64 1 28 28 (50176)
I0428 19:30:06.835932 22201 net.cpp:131] Top shape: 64 (64)
I0428 19:30:06.835935 22201 net.cpp:139] Memory required for data: 200960
I0428 19:30:06.835943 22201 layer_factory.hpp:77] Creating layer conv0
I0428 19:30:06.835959 22201 net.cpp:86] Creating Layer conv0
I0428 19:30:06.835965 22201 net.cpp:408] conv0 <- data
I0428 19:30:06.835976 22201 net.cpp:382] conv0 -> conv0
I0428 19:30:07.124228 22201 net.cpp:124] Setting up conv0
I0428 19:30:07.124258 22201 net.cpp:131] Top shape: 64 5 24 24 (184320)
I0428 19:30:07.124263 22201 net.cpp:139] Memory required for data: 938240
I0428 19:30:07.124279 22201 layer_factory.hpp:77] Creating layer pool0
I0428 19:30:07.124292 22201 net.cpp:86] Creating Layer pool0
I0428 19:30:07.124296 22201 net.cpp:408] pool0 <- conv0
I0428 19:30:07.124302 22201 net.cpp:382] pool0 -> pool0
I0428 19:30:07.124353 22201 net.cpp:124] Setting up pool0
I0428 19:30:07.124359 22201 net.cpp:131] Top shape: 64 5 12 12 (46080)
I0428 19:30:07.124362 22201 net.cpp:139] Memory required for data: 1122560
I0428 19:30:07.124366 22201 layer_factory.hpp:77] Creating layer ip1
I0428 19:30:07.124374 22201 net.cpp:86] Creating Layer ip1
I0428 19:30:07.124377 22201 net.cpp:408] ip1 <- pool0
I0428 19:30:07.124382 22201 net.cpp:382] ip1 -> ip1
I0428 19:30:07.125459 22201 net.cpp:124] Setting up ip1
I0428 19:30:07.125474 22201 net.cpp:131] Top shape: 64 10 (640)
I0428 19:30:07.125494 22201 net.cpp:139] Memory required for data: 1125120
I0428 19:30:07.125504 22201 layer_factory.hpp:77] Creating layer relu1
I0428 19:30:07.125512 22201 net.cpp:86] Creating Layer relu1
I0428 19:30:07.125516 22201 net.cpp:408] relu1 <- ip1
I0428 19:30:07.125521 22201 net.cpp:369] relu1 -> ip1 (in-place)
I0428 19:30:07.125702 22201 net.cpp:124] Setting up relu1
I0428 19:30:07.125725 22201 net.cpp:131] Top shape: 64 10 (640)
I0428 19:30:07.125728 22201 net.cpp:139] Memory required for data: 1127680
I0428 19:30:07.125732 22201 layer_factory.hpp:77] Creating layer loss
I0428 19:30:07.125743 22201 net.cpp:86] Creating Layer loss
I0428 19:30:07.125747 22201 net.cpp:408] loss <- ip1
I0428 19:30:07.125751 22201 net.cpp:408] loss <- label
I0428 19:30:07.125756 22201 net.cpp:382] loss -> loss
I0428 19:30:07.125771 22201 layer_factory.hpp:77] Creating layer loss
…
I0428 19:30:07.126947 22201 solver.cpp:173] Creating test net (#0) specified by net file: ECE595/mnist/train_test/var_everything2/lenet_train_test80.prototxt
I0428 19:30:07.126971 22201 net.cpp:296] The NetState phase (1) differed from the phase (0) specified by a rule in layer mnist
I0428 19:30:07.127041 22201 net.cpp:53] Initializing net from parameters: 
name: "LeNet"
state {
  phase: TEST
}
layer {
  name: "mnist"
  type: "Data"
  top: "data"
  top: "label"
  include {
    phase: TEST
  }
  transform_param {
    scale: 0.00390625
  }
  data_param {
    source: "examples/mnist/mnist_test_lmdb"
    batch_size: 100
    backend: LMDB
  }
}
layer {
  name: "conv0"
  type: "Convolution"
  bottom: "data"
  top: "conv0"
  param {
    lr_mult: 1
  }
  param {
    lr_mult: 2
  }
  convolution_param {
    num_output: 5
    kernel_size: 5
    stride: 1
    weight_filler {
      type: "xavier"
    }
    bias_filler {
      type: "constant"
    }
  }
}
layer {
  name: "pool0"
  type: "Pooling"
  bottom: "conv0"
  top: "pool0"
  pooling_param {
    pool: MAX
    kernel_size: 2
    stride: 2
  }
}
layer {
  name: "ip1"
  type: "InnerProduct"
  bottom: "pool0"
  top: "ip1"
  param {
    lr_mult: 1
  }
  param {
    lr_mult: 2
  }
  inner_product_param {
    num_output: 10
    weight_filler {
      type: "xavier"
    }
    bias_filler {
      type: "constant"
    }
  }
}
layer {
  name: "relu1"
  type: "ReLU"
  bottom: "ip1"
  top: "ip1"
}
layer {
  name: "accuracy"
  type: "Accuracy"
  bottom: "ip1"
  bottom: "label"
  top: "accuracy"
  include {
    phase: TEST
  }
}
layer {
  name: "loss"
  type: "SoftmaxWithLoss"
  bottom: "ip1"
  bottom: "label"
  top: "loss"
}
I0428 19:30:07.127099 22201 layer_factory.hpp:77] Creating layer mnist
I0428 19:30:07.127149 22201 db_lmdb.cpp:35] Opened lmdb examples/mnist/mnist_test_lmdb
I0428 19:30:07.127162 22201 net.cpp:86] Creating Layer mnist
I0428 19:30:07.127167 22201 net.cpp:382] mnist -> data
I0428 19:30:07.127176 22201 net.cpp:382] mnist -> label
I0428 19:30:07.127267 22201 data_layer.cpp:45] output data size: 100,1,28,28
I0428 19:30:07.129323 22201 net.cpp:124] Setting up mnist
I0428 19:30:07.129338 22201 net.cpp:131] Top shape: 100 1 28 28 (78400)
I0428 19:30:07.129343 22201 net.cpp:131] Top shape: 100 (100)
I0428 19:30:07.129348 22201 net.cpp:139] Memory required for data: 314000
I0428 19:30:07.129362 22201 layer_factory.hpp:77] Creating layer label_mnist_1_split
I0428 19:30:07.129370 22201 net.cpp:86] Creating Layer label_mnist_1_split
I0428 19:30:07.129374 22201 net.cpp:408] label_mnist_1_split <- label
I0428 19:30:07.129379 22201 net.cpp:382] label_mnist_1_split -> label_mnist_1_split_0
I0428 19:30:07.129386 22201 net.cpp:382] label_mnist_1_split -> label_mnist_1_split_1
I0428 19:30:07.129439 22201 net.cpp:124] Setting up label_mnist_1_split
I0428 19:30:07.129446 22201 net.cpp:131] Top shape: 100 (100)
I0428 19:30:07.129451 22201 net.cpp:131] Top shape: 100 (100)
I0428 19:30:07.129454 22201 net.cpp:139] Memory required for data: 314800
I0428 19:30:07.129458 22201 layer_factory.hpp:77] Creating layer conv0
I0428 19:30:07.129467 22201 net.cpp:86] Creating Layer conv0
I0428 19:30:07.129470 22201 net.cpp:408] conv0 <- data
I0428 19:30:07.129477 22201 net.cpp:382] conv0 -> conv0
I0428 19:30:07.131173 22201 net.cpp:124] Setting up conv0
I0428 19:30:07.131188 22201 net.cpp:131] Top shape: 100 5 24 24 (288000)
I0428 19:30:07.131193 22201 net.cpp:139] Memory required for data: 1466800
I0428 19:30:07.131203 22201 layer_factory.hpp:77] Creating layer pool0
I0428 19:30:07.131211 22201 net.cpp:86] Creating Layer pool0
I0428 19:30:07.131214 22201 net.cpp:408] pool0 <- conv0
I0428 19:30:07.131219 22201 net.cpp:382] pool0 -> pool0
I0428 19:30:07.131258 22201 net.cpp:124] Setting up pool0
I0428 19:30:07.131263 22201 net.cpp:131] Top shape: 100 5 12 12 (72000)
I0428 19:30:07.131266 22201 net.cpp:139] Memory required for data: 1754800
I0428 19:30:07.131269 22201 layer_factory.hpp:77] Creating layer ip1
I0428 19:30:07.131278 22201 net.cpp:86] Creating Layer ip1
I0428 19:30:07.131280 22201 net.cpp:408] ip1 <- pool0
I0428 19:30:07.131285 22201 net.cpp:382] ip1 -> ip1
I0428 19:30:07.131428 22201 net.cpp:124] Setting up ip1
I0428 19:30:07.131435 22201 net.cpp:131] Top shape: 100 10 (1000)
I0428 19:30:07.131439 22201 net.cpp:139] Memory required for data: 1758800
I0428 19:30:07.131446 22201 layer_factory.hpp:77] Creating layer relu1
I0428 19:30:07.131453 22201 net.cpp:86] Creating Layer relu1
I0428 19:30:07.131455 22201 net.cpp:408] relu1 <- ip1
I0428 19:30:07.131459 22201 net.cpp:369] relu1 -> ip1 (in-place)
I0428 19:30:07.131629 22201 net.cpp:124] Setting up relu1
I0428 19:30:07.131639 22201 net.cpp:131] Top shape: 100 10 (1000)
I0428 19:30:07.131642 22201 net.cpp:139] Memory required for data: 1762800
I0428 19:30:07.131645 22201 layer_factory.hpp:77] Creating layer ip1_relu1_0_split
I0428 19:30:07.131650 22201 net.cpp:86] Creating Layer ip1_relu1_0_split
I0428 19:30:07.131654 22201 net.cpp:408] ip1_relu1_0_split <- ip1
I0428 19:30:07.131659 22201 net.cpp:382] ip1_relu1_0_split -> ip1_relu1_0_split_0
I0428 19:30:07.131664 22201 net.cpp:382] ip1_relu1_0_split -> ip1_relu1_0_split_1
I0428 19:30:07.131702 22201 net.cpp:124] Setting up ip1_relu1_0_split
I0428 19:30:07.131707 22201 net.cpp:131] Top shape: 100 10 (1000)
I0428 19:30:07.131712 22201 net.cpp:131] Top shape: 100 10 (1000)
I0428 19:30:07.131716 22201 net.cpp:139] Memory required for data: 1770800
I0428 19:30:07.131718 22201 layer_factory.hpp:77] Creating layer accuracy
I0428 19:30:07.131729 22201 net.cpp:86] Creating Layer accuracy
I0428 19:30:07.131733 22201 net.cpp:408] accuracy <- ip1_relu1_0_split_0
I0428 19:30:07.131738 22201 net.cpp:408] accuracy <- label_mnist_1_split_0
I0428 19:30:07.131743 22201 net.cpp:382] accuracy -> accuracy
…
