…
I0428 19:42:40.661526 25123 net.cpp:296] The NetState phase (0) differed from the phase (1) specified by a rule in layer mnist
I0428 19:42:40.661543 25123 net.cpp:296] The NetState phase (0) differed from the phase (1) specified by a rule in layer accuracy
I0428 19:42:40.661638 25123 net.cpp:53] Initializing net from parameters: 
name: "LeNet"
state {
  phase: TRAIN
  level: 0
  stage: ""
}
layer {
  name: "mnist"
  type: "Data"
  top: "data"
  top: "label"
  include {
    phase: TRAIN
  }
  transform_param {
    scale: 0.00390625
  }
  data_param {
    source: "examples/mnist/mnist_train_lmdb"
    batch_size: 64
    backend: LMDB
  }
}
layer {
  name: "conv0"
  type: "Convolution"
  bottom: "data"
  top: "conv0"
  param {
    lr_mult: 1
  }
  param {
    lr_mult: 2
  }
  convolution_param {
    num_output: 2
    kernel_size: 5
    stride: 1
    weight_filler {
      type: "xavier"
    }
    bias_filler {
      type: "constant"
    }
  }
}
layer {
  name: "pool0"
  type: "Pooling"
  bottom: "conv0"
  top: "pool0"
  pooling_param {
    pool: MAX
    kernel_size: 2
    stride: 2
  }
}
layer {
  name: "conv1"
  type: "Convolution"
  bottom: "pool0"
  top: "conv1"
  param {
    lr_mult: 1
  }
  param {
    lr_mult: 2
  }
  convolution_param {
    num_output: 25
    kernel_size: 5
    stride: 1
    weight_filler {
      type: "xavier"
    }
    bias_filler {
      type: "constant"
    }
  }
}
layer {
  name: "pool1"
  type: "Pooling"
  bottom: "conv1"
  top: "pool1"
  pooling_param {
    pool: MAX
    kernel_size: 2
    stride: 2
  }
}
layer {
  name: "ip1"
  type: "InnerProduct"
  bottom: "pool1"
  top: "ip1"
  param {
    lr_mult: 1
  }
  param {
    lr_mult: 2
  }
  inner_product_param {
    num_output: 50
    weight_filler {
      type: "xavier"
    }
    bias_filler {
      type: "constant"
    }
  }
}
layer {
  name: "relu1"
  type: "ReLU"
  bottom: "ip1"
  top: "ip1"
}
layer {
  name: "ip2"
  type: "InnerProduct"
  bottom: "ip1"
  top: "ip2"
  param {
    lr_mult: 1
  }
  param {
    lr_mult: 2
  }
  inner_product_param {
    num_output: 10
    weight_filler {
      type: "xavier"
    }
    bias_filler {
      type: "constant"
    }
  }
}
layer {
  name: "relu2"
  type: "ReLU"
  bottom: "ip2"
  top: "ip2"
}
layer {
  name: "loss"
  type: "SoftmaxWithLoss"
  bottom: "ip2"
  bottom: "label"
  top: "loss"
}
I0428 19:42:40.661725 25123 layer_factory.hpp:77] Creating layer mnist
I0428 19:42:40.661833 25123 db_lmdb.cpp:35] Opened lmdb examples/mnist/mnist_train_lmdb
I0428 19:42:40.661859 25123 net.cpp:86] Creating Layer mnist
I0428 19:42:40.661870 25123 net.cpp:382] mnist -> data
I0428 19:42:40.661909 25123 net.cpp:382] mnist -> label
I0428 19:42:40.662976 25123 data_layer.cpp:45] output data size: 64,1,28,28
I0428 19:42:40.665315 25123 net.cpp:124] Setting up mnist
I0428 19:42:40.665347 25123 net.cpp:131] Top shape: 64 1 28 28 (50176)
I0428 19:42:40.665355 25123 net.cpp:131] Top shape: 64 (64)
I0428 19:42:40.665360 25123 net.cpp:139] Memory required for data: 200960
I0428 19:42:40.665369 25123 layer_factory.hpp:77] Creating layer conv0
I0428 19:42:40.665400 25123 net.cpp:86] Creating Layer conv0
I0428 19:42:40.665408 25123 net.cpp:408] conv0 <- data
I0428 19:42:40.665426 25123 net.cpp:382] conv0 -> conv0
I0428 19:42:40.890190 25123 net.cpp:124] Setting up conv0
I0428 19:42:40.890220 25123 net.cpp:131] Top shape: 64 2 24 24 (73728)
I0428 19:42:40.890225 25123 net.cpp:139] Memory required for data: 495872
I0428 19:42:40.890267 25123 layer_factory.hpp:77] Creating layer pool0
I0428 19:42:40.890286 25123 net.cpp:86] Creating Layer pool0
I0428 19:42:40.890292 25123 net.cpp:408] pool0 <- conv0
I0428 19:42:40.890301 25123 net.cpp:382] pool0 -> pool0
I0428 19:42:40.890372 25123 net.cpp:124] Setting up pool0
I0428 19:42:40.890379 25123 net.cpp:131] Top shape: 64 2 12 12 (18432)
I0428 19:42:40.890384 25123 net.cpp:139] Memory required for data: 569600
I0428 19:42:40.890389 25123 layer_factory.hpp:77] Creating layer conv1
I0428 19:42:40.890404 25123 net.cpp:86] Creating Layer conv1
I0428 19:42:40.890410 25123 net.cpp:408] conv1 <- pool0
I0428 19:42:40.890419 25123 net.cpp:382] conv1 -> conv1
I0428 19:42:40.892998 25123 net.cpp:124] Setting up conv1
I0428 19:42:40.893013 25123 net.cpp:131] Top shape: 64 25 8 8 (102400)
I0428 19:42:40.893018 25123 net.cpp:139] Memory required for data: 979200
I0428 19:42:40.893046 25123 layer_factory.hpp:77] Creating layer pool1
I0428 19:42:40.893056 25123 net.cpp:86] Creating Layer pool1
I0428 19:42:40.893062 25123 net.cpp:408] pool1 <- conv1
I0428 19:42:40.893070 25123 net.cpp:382] pool1 -> pool1
I0428 19:42:40.893112 25123 net.cpp:124] Setting up pool1
I0428 19:42:40.893121 25123 net.cpp:131] Top shape: 64 25 4 4 (25600)
I0428 19:42:40.893126 25123 net.cpp:139] Memory required for data: 1081600
I0428 19:42:40.893131 25123 layer_factory.hpp:77] Creating layer ip1
I0428 19:42:40.893141 25123 net.cpp:86] Creating Layer ip1
I0428 19:42:40.893146 25123 net.cpp:408] ip1 <- pool1
I0428 19:42:40.893155 25123 net.cpp:382] ip1 -> ip1
I0428 19:42:40.893393 25123 net.cpp:124] Setting up ip1
I0428 19:42:40.893401 25123 net.cpp:131] Top shape: 64 50 (3200)
I0428 19:42:40.893406 25123 net.cpp:139] Memory required for data: 1094400
I0428 19:42:40.893419 25123 layer_factory.hpp:77] Creating layer relu1
I0428 19:42:40.893426 25123 net.cpp:86] Creating Layer relu1
I0428 19:42:40.893435 25123 net.cpp:408] relu1 <- ip1
I0428 19:42:40.893441 25123 net.cpp:369] relu1 -> ip1 (in-place)
I0428 19:42:40.893611 25123 net.cpp:124] Setting up relu1
I0428 19:42:40.893620 25123 net.cpp:131] Top shape: 64 50 (3200)
I0428 19:42:40.893625 25123 net.cpp:139] Memory required for data: 1107200
I0428 19:42:40.893631 25123 layer_factory.hpp:77] Creating layer ip2
I0428 19:42:40.893640 25123 net.cpp:86] Creating Layer ip2
I0428 19:42:40.893646 25123 net.cpp:408] ip2 <- ip1
I0428 19:42:40.893654 25123 net.cpp:382] ip2 -> ip2
I0428 19:42:40.893764 25123 net.cpp:124] Setting up ip2
I0428 19:42:40.893774 25123 net.cpp:131] Top shape: 64 10 (640)
I0428 19:42:40.893777 25123 net.cpp:139] Memory required for data: 1109760
I0428 19:42:40.893786 25123 layer_factory.hpp:77] Creating layer relu2
I0428 19:42:40.893795 25123 net.cpp:86] Creating Layer relu2
I0428 19:42:40.893800 25123 net.cpp:408] relu2 <- ip2
I0428 19:42:40.893807 25123 net.cpp:369] relu2 -> ip2 (in-place)
I0428 19:42:40.894572 25123 net.cpp:124] Setting up relu2
I0428 19:42:40.894601 25123 net.cpp:131] Top shape: 64 10 (640)
I0428 19:42:40.894606 25123 net.cpp:139] Memory required for data: 1112320
I0428 19:42:40.894613 25123 layer_factory.hpp:77] Creating layer loss
I0428 19:42:40.894635 25123 net.cpp:86] Creating Layer loss
I0428 19:42:40.894656 25123 net.cpp:408] loss <- ip2
I0428 19:42:40.894664 25123 net.cpp:408] loss <- label
I0428 19:42:40.894672 25123 net.cpp:382] loss -> loss
I0428 19:42:40.894695 25123 layer_factory.hpp:77] Creating layer loss
…
I0428 19:42:40.895447 25123 solver.cpp:173] Creating test net (#0) specified by net file: ECE595/mnist/train_test/var_everything2/lenet_train_test400.prototxt
I0428 19:42:40.895480 25123 net.cpp:296] The NetState phase (1) differed from the phase (0) specified by a rule in layer mnist
I0428 19:42:40.895570 25123 net.cpp:53] Initializing net from parameters: 
name: "LeNet"
state {
  phase: TEST
}
layer {
  name: "mnist"
  type: "Data"
  top: "data"
  top: "label"
  include {
    phase: TEST
  }
  transform_param {
    scale: 0.00390625
  }
  data_param {
    source: "examples/mnist/mnist_test_lmdb"
    batch_size: 100
    backend: LMDB
  }
}
layer {
  name: "conv0"
  type: "Convolution"
  bottom: "data"
  top: "conv0"
  param {
    lr_mult: 1
  }
  param {
    lr_mult: 2
  }
  convolution_param {
    num_output: 2
    kernel_size: 5
    stride: 1
    weight_filler {
      type: "xavier"
    }
    bias_filler {
      type: "constant"
    }
  }
}
layer {
  name: "pool0"
  type: "Pooling"
  bottom: "conv0"
  top: "pool0"
  pooling_param {
    pool: MAX
    kernel_size: 2
    stride: 2
  }
}
layer {
  name: "conv1"
  type: "Convolution"
  bottom: "pool0"
  top: "conv1"
  param {
    lr_mult: 1
  }
  param {
    lr_mult: 2
  }
  convolution_param {
    num_output: 25
    kernel_size: 5
    stride: 1
    weight_filler {
      type: "xavier"
    }
    bias_filler {
      type: "constant"
    }
  }
}
layer {
  name: "pool1"
  type: "Pooling"
  bottom: "conv1"
  top: "pool1"
  pooling_param {
    pool: MAX
    kernel_size: 2
    stride: 2
  }
}
layer {
  name: "ip1"
  type: "InnerProduct"
  bottom: "pool1"
  top: "ip1"
  param {
    lr_mult: 1
  }
  param {
    lr_mult: 2
  }
  inner_product_param {
    num_output: 50
    weight_filler {
      type: "xavier"
    }
    bias_filler {
      type: "constant"
    }
  }
}
layer {
  name: "relu1"
  type: "ReLU"
  bottom: "ip1"
  top: "ip1"
}
layer {
  name: "ip2"
  type: "InnerProduct"
  bottom: "ip1"
  top: "ip2"
  param {
    lr_mult: 1
  }
  param {
    lr_mult: 2
  }
  inner_product_param {
    num_output: 10
    weight_filler {
      type: "xavier"
    }
    bias_filler {
      type: "constant"
    }
  }
}
layer {
  name: "relu2"
  type: "ReLU"
  bottom: "ip2"
  top: "ip2"
}
layer {
  name: "accuracy"
  type: "Accuracy"
  bottom: "ip2"
  bottom: "label"
  top: "accuracy"
  include {
    phase: TEST
  }
}
layer {
  name: "loss"
  type: "SoftmaxWithLoss"
  bottom: "ip2"
  bottom: "label"
  top: "loss"
}
I0428 19:42:40.895679 25123 layer_factory.hpp:77] Creating layer mnist
I0428 19:42:40.895736 25123 db_lmdb.cpp:35] Opened lmdb examples/mnist/mnist_test_lmdb
I0428 19:42:40.895754 25123 net.cpp:86] Creating Layer mnist
I0428 19:42:40.895761 25123 net.cpp:382] mnist -> data
I0428 19:42:40.895773 25123 net.cpp:382] mnist -> label
I0428 19:42:40.895885 25123 data_layer.cpp:45] output data size: 100,1,28,28
I0428 19:42:40.897927 25123 net.cpp:124] Setting up mnist
I0428 19:42:40.897958 25123 net.cpp:131] Top shape: 100 1 28 28 (78400)
I0428 19:42:40.897965 25123 net.cpp:131] Top shape: 100 (100)
I0428 19:42:40.897985 25123 net.cpp:139] Memory required for data: 314000
I0428 19:42:40.897991 25123 layer_factory.hpp:77] Creating layer label_mnist_1_split
I0428 19:42:40.898000 25123 net.cpp:86] Creating Layer label_mnist_1_split
I0428 19:42:40.898006 25123 net.cpp:408] label_mnist_1_split <- label
I0428 19:42:40.898013 25123 net.cpp:382] label_mnist_1_split -> label_mnist_1_split_0
I0428 19:42:40.898025 25123 net.cpp:382] label_mnist_1_split -> label_mnist_1_split_1
I0428 19:42:40.898113 25123 net.cpp:124] Setting up label_mnist_1_split
I0428 19:42:40.898130 25123 net.cpp:131] Top shape: 100 (100)
I0428 19:42:40.898138 25123 net.cpp:131] Top shape: 100 (100)
I0428 19:42:40.898142 25123 net.cpp:139] Memory required for data: 314800
I0428 19:42:40.898147 25123 layer_factory.hpp:77] Creating layer conv0
I0428 19:42:40.898160 25123 net.cpp:86] Creating Layer conv0
I0428 19:42:40.898167 25123 net.cpp:408] conv0 <- data
I0428 19:42:40.898175 25123 net.cpp:382] conv0 -> conv0
I0428 19:42:40.899803 25123 net.cpp:124] Setting up conv0
I0428 19:42:40.899818 25123 net.cpp:131] Top shape: 100 2 24 24 (115200)
I0428 19:42:40.899823 25123 net.cpp:139] Memory required for data: 775600
I0428 19:42:40.899863 25123 layer_factory.hpp:77] Creating layer pool0
I0428 19:42:40.899874 25123 net.cpp:86] Creating Layer pool0
I0428 19:42:40.899881 25123 net.cpp:408] pool0 <- conv0
I0428 19:42:40.899889 25123 net.cpp:382] pool0 -> pool0
I0428 19:42:40.899932 25123 net.cpp:124] Setting up pool0
I0428 19:42:40.899940 25123 net.cpp:131] Top shape: 100 2 12 12 (28800)
I0428 19:42:40.899946 25123 net.cpp:139] Memory required for data: 890800
I0428 19:42:40.899951 25123 layer_factory.hpp:77] Creating layer conv1
I0428 19:42:40.899965 25123 net.cpp:86] Creating Layer conv1
I0428 19:42:40.899971 25123 net.cpp:408] conv1 <- pool0
I0428 19:42:40.899981 25123 net.cpp:382] conv1 -> conv1
I0428 19:42:40.901624 25123 net.cpp:124] Setting up conv1
I0428 19:42:40.901643 25123 net.cpp:131] Top shape: 100 25 8 8 (160000)
I0428 19:42:40.901650 25123 net.cpp:139] Memory required for data: 1530800
I0428 19:42:40.901667 25123 layer_factory.hpp:77] Creating layer pool1
I0428 19:42:40.901677 25123 net.cpp:86] Creating Layer pool1
I0428 19:42:40.901684 25123 net.cpp:408] pool1 <- conv1
I0428 19:42:40.901692 25123 net.cpp:382] pool1 -> pool1
I0428 19:42:40.901751 25123 net.cpp:124] Setting up pool1
I0428 19:42:40.901760 25123 net.cpp:131] Top shape: 100 25 4 4 (40000)
I0428 19:42:40.901765 25123 net.cpp:139] Memory required for data: 1690800
I0428 19:42:40.901772 25123 layer_factory.hpp:77] Creating layer ip1
I0428 19:42:40.901796 25123 net.cpp:86] Creating Layer ip1
I0428 19:42:40.901803 25123 net.cpp:408] ip1 <- pool1
I0428 19:42:40.901811 25123 net.cpp:382] ip1 -> ip1
I0428 19:42:40.902046 25123 net.cpp:124] Setting up ip1
I0428 19:42:40.902060 25123 net.cpp:131] Top shape: 100 50 (5000)
I0428 19:42:40.902066 25123 net.cpp:139] Memory required for data: 1710800
I0428 19:42:40.902079 25123 layer_factory.hpp:77] Creating layer relu1
I0428 19:42:40.902088 25123 net.cpp:86] Creating Layer relu1
I0428 19:42:40.902096 25123 net.cpp:408] relu1 <- ip1
I0428 19:42:40.902103 25123 net.cpp:369] relu1 -> ip1 (in-place)
I0428 19:42:40.902369 25123 net.cpp:124] Setting up relu1
I0428 19:42:40.902379 25123 net.cpp:131] Top shape: 100 50 (5000)
I0428 19:42:40.902384 25123 net.cpp:139] Memory required for data: 1730800
I0428 19:42:40.902389 25123 layer_factory.hpp:77] Creating layer ip2
I0428 19:42:40.902398 25123 net.cpp:86] Creating Layer ip2
I0428 19:42:40.902405 25123 net.cpp:408] ip2 <- ip1
I0428 19:42:40.902416 25123 net.cpp:382] ip2 -> ip2
I0428 19:42:40.902546 25123 net.cpp:124] Setting up ip2
I0428 19:42:40.902555 25123 net.cpp:131] Top shape: 100 10 (1000)
I0428 19:42:40.902561 25123 net.cpp:139] Memory required for data: 1734800
I0428 19:42:40.902570 25123 layer_factory.hpp:77] Creating layer relu2
I0428 19:42:40.902578 25123 net.cpp:86] Creating Layer relu2
I0428 19:42:40.902583 25123 net.cpp:408] relu2 <- ip2
I0428 19:42:40.902592 25123 net.cpp:369] relu2 -> ip2 (in-place)
I0428 19:42:40.902756 25123 net.cpp:124] Setting up relu2
I0428 19:42:40.902766 25123 net.cpp:131] Top shape: 100 10 (1000)
I0428 19:42:40.902771 25123 net.cpp:139] Memory required for data: 1738800
I0428 19:42:40.902776 25123 layer_factory.hpp:77] Creating layer ip2_relu2_0_split
I0428 19:42:40.902784 25123 net.cpp:86] Creating Layer ip2_relu2_0_split
I0428 19:42:40.902789 25123 net.cpp:408] ip2_relu2_0_split <- ip2
I0428 19:42:40.902798 25123 net.cpp:382] ip2_relu2_0_split -> ip2_relu2_0_split_0
I0428 19:42:40.902819 25123 net.cpp:382] ip2_relu2_0_split -> ip2_relu2_0_split_1
I0428 19:42:40.902869 25123 net.cpp:124] Setting up ip2_relu2_0_split
I0428 19:42:40.902889 25123 net.cpp:131] Top shape: 100 10 (1000)
I0428 19:42:40.902910 25123 net.cpp:131] Top shape: 100 10 (1000)
I0428 19:42:40.902916 25123 net.cpp:139] Memory required for data: 1746800
I0428 19:42:40.902921 25123 layer_factory.hpp:77] Creating layer accuracy
I0428 19:42:40.902930 25123 net.cpp:86] Creating Layer accuracy
I0428 19:42:40.902935 25123 net.cpp:408] accuracy <- ip2_relu2_0_split_0
I0428 19:42:40.902941 25123 net.cpp:408] accuracy <- label_mnist_1_split_0
I0428 19:42:40.902948 25123 net.cpp:382] accuracy -> accuracy
…
