…
I0428 20:08:33.280709 31408 net.cpp:296] The NetState phase (0) differed from the phase (1) specified by a rule in layer mnist
I0428 20:08:33.280725 31408 net.cpp:296] The NetState phase (0) differed from the phase (1) specified by a rule in layer accuracy
I0428 20:08:33.280807 31408 net.cpp:53] Initializing net from parameters: 
name: "LeNet"
state {
  phase: TRAIN
  level: 0
  stage: ""
}
layer {
  name: "mnist"
  type: "Data"
  top: "data"
  top: "label"
  include {
    phase: TRAIN
  }
  transform_param {
    scale: 0.00390625
  }
  data_param {
    source: "examples/mnist/mnist_train_lmdb"
    batch_size: 64
    backend: LMDB
  }
}
layer {
  name: "conv0"
  type: "Convolution"
  bottom: "data"
  top: "conv0"
  param {
    lr_mult: 1
  }
  param {
    lr_mult: 2
  }
  convolution_param {
    num_output: 25
    kernel_size: 5
    stride: 1
    weight_filler {
      type: "xavier"
    }
    bias_filler {
      type: "constant"
    }
  }
}
layer {
  name: "pool0"
  type: "Pooling"
  bottom: "conv0"
  top: "pool0"
  pooling_param {
    pool: MAX
    kernel_size: 2
    stride: 2
  }
}
layer {
  name: "conv1"
  type: "Convolution"
  bottom: "pool0"
  top: "conv1"
  param {
    lr_mult: 1
  }
  param {
    lr_mult: 2
  }
  convolution_param {
    num_output: 10
    kernel_size: 5
    stride: 1
    weight_filler {
      type: "xavier"
    }
    bias_filler {
      type: "constant"
    }
  }
}
layer {
  name: "pool1"
  type: "Pooling"
  bottom: "conv1"
  top: "pool1"
  pooling_param {
    pool: MAX
    kernel_size: 2
    stride: 2
  }
}
layer {
  name: "ip1"
  type: "InnerProduct"
  bottom: "pool1"
  top: "ip1"
  param {
    lr_mult: 1
  }
  param {
    lr_mult: 2
  }
  inner_product_param {
    num_output: 50
    weight_filler {
      type: "xavier"
    }
    bias_filler {
      type: "constant"
    }
  }
}
layer {
  name: "relu1"
  type: "ReLU"
  bottom: "ip1"
  top: "ip1"
}
layer {
  name: "ip2"
  type: "InnerProduct"
  bottom: "ip1"
  top: "ip2"
  param {
    lr_mult: 1
  }
  param {
    lr_mult: 2
  }
  inner_product_param {
    num_output: 25
    weight_filler {
      type: "xavier"
    }
    bias_filler {
      type: "constant"
    }
  }
}
layer {
  name: "relu2"
  type: "ReLU"
  bottom: "ip2"
  top: "ip2"
}
layer {
  name: "ip3"
  type: "InnerProduct"
  bottom: "ip2"
  top: "ip3"
  param {
    lr_mult: 1
  }
  param {
    lr_mult: 2
  }
  inner_product_param {
    num_output: 10
    weight_filler {
      type: "xavier"
    }
    bias_filler {
      type: "constant"
    }
  }
}
layer {
  name: "relu3"
  type: "ReLU"
  bottom: "ip3"
  top: "ip3"
}
layer {
  name: "loss"
  type: "SoftmaxWithLoss"
  bottom: "ip3"
  bottom: "label"
  top: "loss"
}
I0428 20:08:33.280876 31408 layer_factory.hpp:77] Creating layer mnist
I0428 20:08:33.280958 31408 db_lmdb.cpp:35] Opened lmdb examples/mnist/mnist_train_lmdb
I0428 20:08:33.280977 31408 net.cpp:86] Creating Layer mnist
I0428 20:08:33.280985 31408 net.cpp:382] mnist -> data
I0428 20:08:33.281004 31408 net.cpp:382] mnist -> label
I0428 20:08:33.281947 31408 data_layer.cpp:45] output data size: 64,1,28,28
I0428 20:08:33.284113 31408 net.cpp:124] Setting up mnist
I0428 20:08:33.284139 31408 net.cpp:131] Top shape: 64 1 28 28 (50176)
I0428 20:08:33.284144 31408 net.cpp:131] Top shape: 64 (64)
I0428 20:08:33.284147 31408 net.cpp:139] Memory required for data: 200960
I0428 20:08:33.284152 31408 layer_factory.hpp:77] Creating layer conv0
I0428 20:08:33.284165 31408 net.cpp:86] Creating Layer conv0
I0428 20:08:33.284184 31408 net.cpp:408] conv0 <- data
I0428 20:08:33.284195 31408 net.cpp:382] conv0 -> conv0
I0428 20:08:33.509488 31408 net.cpp:124] Setting up conv0
I0428 20:08:33.509515 31408 net.cpp:131] Top shape: 64 25 24 24 (921600)
I0428 20:08:33.509518 31408 net.cpp:139] Memory required for data: 3887360
I0428 20:08:33.509531 31408 layer_factory.hpp:77] Creating layer pool0
I0428 20:08:33.509544 31408 net.cpp:86] Creating Layer pool0
I0428 20:08:33.509548 31408 net.cpp:408] pool0 <- conv0
I0428 20:08:33.509553 31408 net.cpp:382] pool0 -> pool0
I0428 20:08:33.509613 31408 net.cpp:124] Setting up pool0
I0428 20:08:33.509618 31408 net.cpp:131] Top shape: 64 25 12 12 (230400)
I0428 20:08:33.509621 31408 net.cpp:139] Memory required for data: 4808960
I0428 20:08:33.509624 31408 layer_factory.hpp:77] Creating layer conv1
I0428 20:08:33.509635 31408 net.cpp:86] Creating Layer conv1
I0428 20:08:33.509639 31408 net.cpp:408] conv1 <- pool0
I0428 20:08:33.509644 31408 net.cpp:382] conv1 -> conv1
I0428 20:08:33.512496 31408 net.cpp:124] Setting up conv1
I0428 20:08:33.512509 31408 net.cpp:131] Top shape: 64 10 8 8 (40960)
I0428 20:08:33.512528 31408 net.cpp:139] Memory required for data: 4972800
I0428 20:08:33.512537 31408 layer_factory.hpp:77] Creating layer pool1
I0428 20:08:33.512545 31408 net.cpp:86] Creating Layer pool1
I0428 20:08:33.512548 31408 net.cpp:408] pool1 <- conv1
I0428 20:08:33.512553 31408 net.cpp:382] pool1 -> pool1
I0428 20:08:33.512605 31408 net.cpp:124] Setting up pool1
I0428 20:08:33.512611 31408 net.cpp:131] Top shape: 64 10 4 4 (10240)
I0428 20:08:33.512614 31408 net.cpp:139] Memory required for data: 5013760
I0428 20:08:33.512631 31408 layer_factory.hpp:77] Creating layer ip1
I0428 20:08:33.512639 31408 net.cpp:86] Creating Layer ip1
I0428 20:08:33.512642 31408 net.cpp:408] ip1 <- pool1
I0428 20:08:33.512647 31408 net.cpp:382] ip1 -> ip1
I0428 20:08:33.512787 31408 net.cpp:124] Setting up ip1
I0428 20:08:33.512794 31408 net.cpp:131] Top shape: 64 50 (3200)
I0428 20:08:33.512797 31408 net.cpp:139] Memory required for data: 5026560
I0428 20:08:33.512805 31408 layer_factory.hpp:77] Creating layer relu1
I0428 20:08:33.512835 31408 net.cpp:86] Creating Layer relu1
I0428 20:08:33.512840 31408 net.cpp:408] relu1 <- ip1
I0428 20:08:33.512861 31408 net.cpp:369] relu1 -> ip1 (in-place)
I0428 20:08:33.513110 31408 net.cpp:124] Setting up relu1
I0428 20:08:33.513120 31408 net.cpp:131] Top shape: 64 50 (3200)
I0428 20:08:33.513123 31408 net.cpp:139] Memory required for data: 5039360
I0428 20:08:33.513128 31408 layer_factory.hpp:77] Creating layer ip2
I0428 20:08:33.513134 31408 net.cpp:86] Creating Layer ip2
I0428 20:08:33.513136 31408 net.cpp:408] ip2 <- ip1
I0428 20:08:33.513142 31408 net.cpp:382] ip2 -> ip2
I0428 20:08:33.514221 31408 net.cpp:124] Setting up ip2
I0428 20:08:33.514233 31408 net.cpp:131] Top shape: 64 25 (1600)
I0428 20:08:33.514252 31408 net.cpp:139] Memory required for data: 5045760
I0428 20:08:33.514257 31408 layer_factory.hpp:77] Creating layer relu2
I0428 20:08:33.514263 31408 net.cpp:86] Creating Layer relu2
I0428 20:08:33.514268 31408 net.cpp:408] relu2 <- ip2
I0428 20:08:33.514273 31408 net.cpp:369] relu2 -> ip2 (in-place)
I0428 20:08:33.515084 31408 net.cpp:124] Setting up relu2
I0428 20:08:33.515096 31408 net.cpp:131] Top shape: 64 25 (1600)
I0428 20:08:33.515115 31408 net.cpp:139] Memory required for data: 5052160
I0428 20:08:33.515120 31408 layer_factory.hpp:77] Creating layer ip3
I0428 20:08:33.515126 31408 net.cpp:86] Creating Layer ip3
I0428 20:08:33.515130 31408 net.cpp:408] ip3 <- ip2
I0428 20:08:33.515136 31408 net.cpp:382] ip3 -> ip3
I0428 20:08:33.515264 31408 net.cpp:124] Setting up ip3
I0428 20:08:33.515272 31408 net.cpp:131] Top shape: 64 10 (640)
I0428 20:08:33.515275 31408 net.cpp:139] Memory required for data: 5054720
I0428 20:08:33.515282 31408 layer_factory.hpp:77] Creating layer relu3
I0428 20:08:33.515287 31408 net.cpp:86] Creating Layer relu3
I0428 20:08:33.515290 31408 net.cpp:408] relu3 <- ip3
I0428 20:08:33.515300 31408 net.cpp:369] relu3 -> ip3 (in-place)
I0428 20:08:33.515482 31408 net.cpp:124] Setting up relu3
I0428 20:08:33.515491 31408 net.cpp:131] Top shape: 64 10 (640)
I0428 20:08:33.515494 31408 net.cpp:139] Memory required for data: 5057280
I0428 20:08:33.515497 31408 layer_factory.hpp:77] Creating layer loss
I0428 20:08:33.515504 31408 net.cpp:86] Creating Layer loss
I0428 20:08:33.515507 31408 net.cpp:408] loss <- ip3
I0428 20:08:33.515511 31408 net.cpp:408] loss <- label
I0428 20:08:33.515516 31408 net.cpp:382] loss -> loss
I0428 20:08:33.515548 31408 layer_factory.hpp:77] Creating layer loss
…
I0428 20:08:33.516222 31408 solver.cpp:173] Creating test net (#0) specified by net file: ECE595/mnist/train_test/var_everything2/lenet_train_test1086.prototxt
I0428 20:08:33.516261 31408 net.cpp:296] The NetState phase (1) differed from the phase (0) specified by a rule in layer mnist
I0428 20:08:33.516366 31408 net.cpp:53] Initializing net from parameters: 
name: "LeNet"
state {
  phase: TEST
}
layer {
  name: "mnist"
  type: "Data"
  top: "data"
  top: "label"
  include {
    phase: TEST
  }
  transform_param {
    scale: 0.00390625
  }
  data_param {
    source: "examples/mnist/mnist_test_lmdb"
    batch_size: 100
    backend: LMDB
  }
}
layer {
  name: "conv0"
  type: "Convolution"
  bottom: "data"
  top: "conv0"
  param {
    lr_mult: 1
  }
  param {
    lr_mult: 2
  }
  convolution_param {
    num_output: 25
    kernel_size: 5
    stride: 1
    weight_filler {
      type: "xavier"
    }
    bias_filler {
      type: "constant"
    }
  }
}
layer {
  name: "pool0"
  type: "Pooling"
  bottom: "conv0"
  top: "pool0"
  pooling_param {
    pool: MAX
    kernel_size: 2
    stride: 2
  }
}
layer {
  name: "conv1"
  type: "Convolution"
  bottom: "pool0"
  top: "conv1"
  param {
    lr_mult: 1
  }
  param {
    lr_mult: 2
  }
  convolution_param {
    num_output: 10
    kernel_size: 5
    stride: 1
    weight_filler {
      type: "xavier"
    }
    bias_filler {
      type: "constant"
    }
  }
}
layer {
  name: "pool1"
  type: "Pooling"
  bottom: "conv1"
  top: "pool1"
  pooling_param {
    pool: MAX
    kernel_size: 2
    stride: 2
  }
}
layer {
  name: "ip1"
  type: "InnerProduct"
  bottom: "pool1"
  top: "ip1"
  param {
    lr_mult: 1
  }
  param {
    lr_mult: 2
  }
  inner_product_param {
    num_output: 50
    weight_filler {
      type: "xavier"
    }
    bias_filler {
      type: "constant"
    }
  }
}
layer {
  name: "relu1"
  type: "ReLU"
  bottom: "ip1"
  top: "ip1"
}
layer {
  name: "ip2"
  type: "InnerProduct"
  bottom: "ip1"
  top: "ip2"
  param {
    lr_mult: 1
  }
  param {
    lr_mult: 2
  }
  inner_product_param {
    num_output: 25
    weight_filler {
      type: "xavier"
    }
    bias_filler {
      type: "constant"
    }
  }
}
layer {
  name: "relu2"
  type: "ReLU"
  bottom: "ip2"
  top: "ip2"
}
layer {
  name: "ip3"
  type: "InnerProduct"
  bottom: "ip2"
  top: "ip3"
  param {
    lr_mult: 1
  }
  param {
    lr_mult: 2
  }
  inner_product_param {
    num_output: 10
    weight_filler {
      type: "xavier"
    }
    bias_filler {
      type: "constant"
    }
  }
}
layer {
  name: "relu3"
  type: "ReLU"
  bottom: "ip3"
  top: "ip3"
}
layer {
  name: "accuracy"
  type: "Accuracy"
  bottom: "ip3"
  bottom: "label"
  top: "accuracy"
  include {
    phase: TEST
  }
}
layer {
  name: "loss"
  type: "SoftmaxWithLoss"
  bottom: "ip3"
  bottom: "label"
  top: "loss"
}
I0428 20:08:33.516465 31408 layer_factory.hpp:77] Creating layer mnist
I0428 20:08:33.516507 31408 db_lmdb.cpp:35] Opened lmdb examples/mnist/mnist_test_lmdb
I0428 20:08:33.516520 31408 net.cpp:86] Creating Layer mnist
I0428 20:08:33.516525 31408 net.cpp:382] mnist -> data
I0428 20:08:33.516549 31408 net.cpp:382] mnist -> label
I0428 20:08:33.516655 31408 data_layer.cpp:45] output data size: 100,1,28,28
I0428 20:08:33.518776 31408 net.cpp:124] Setting up mnist
I0428 20:08:33.518791 31408 net.cpp:131] Top shape: 100 1 28 28 (78400)
I0428 20:08:33.518812 31408 net.cpp:131] Top shape: 100 (100)
I0428 20:08:33.518815 31408 net.cpp:139] Memory required for data: 314000
I0428 20:08:33.518820 31408 layer_factory.hpp:77] Creating layer label_mnist_1_split
I0428 20:08:33.518867 31408 net.cpp:86] Creating Layer label_mnist_1_split
I0428 20:08:33.518872 31408 net.cpp:408] label_mnist_1_split <- label
I0428 20:08:33.518877 31408 net.cpp:382] label_mnist_1_split -> label_mnist_1_split_0
I0428 20:08:33.518885 31408 net.cpp:382] label_mnist_1_split -> label_mnist_1_split_1
I0428 20:08:33.518949 31408 net.cpp:124] Setting up label_mnist_1_split
I0428 20:08:33.518965 31408 net.cpp:131] Top shape: 100 (100)
I0428 20:08:33.518968 31408 net.cpp:131] Top shape: 100 (100)
I0428 20:08:33.518972 31408 net.cpp:139] Memory required for data: 314800
I0428 20:08:33.518975 31408 layer_factory.hpp:77] Creating layer conv0
I0428 20:08:33.518985 31408 net.cpp:86] Creating Layer conv0
I0428 20:08:33.518988 31408 net.cpp:408] conv0 <- data
I0428 20:08:33.518995 31408 net.cpp:382] conv0 -> conv0
I0428 20:08:33.520838 31408 net.cpp:124] Setting up conv0
I0428 20:08:33.520851 31408 net.cpp:131] Top shape: 100 25 24 24 (1440000)
I0428 20:08:33.520855 31408 net.cpp:139] Memory required for data: 6074800
I0428 20:08:33.520880 31408 layer_factory.hpp:77] Creating layer pool0
I0428 20:08:33.520887 31408 net.cpp:86] Creating Layer pool0
I0428 20:08:33.520890 31408 net.cpp:408] pool0 <- conv0
I0428 20:08:33.520895 31408 net.cpp:382] pool0 -> pool0
I0428 20:08:33.520967 31408 net.cpp:124] Setting up pool0
I0428 20:08:33.520982 31408 net.cpp:131] Top shape: 100 25 12 12 (360000)
I0428 20:08:33.520984 31408 net.cpp:139] Memory required for data: 7514800
I0428 20:08:33.520987 31408 layer_factory.hpp:77] Creating layer conv1
I0428 20:08:33.520997 31408 net.cpp:86] Creating Layer conv1
I0428 20:08:33.521000 31408 net.cpp:408] conv1 <- pool0
I0428 20:08:33.521006 31408 net.cpp:382] conv1 -> conv1
I0428 20:08:33.523336 31408 net.cpp:124] Setting up conv1
I0428 20:08:33.523351 31408 net.cpp:131] Top shape: 100 10 8 8 (64000)
I0428 20:08:33.523355 31408 net.cpp:139] Memory required for data: 7770800
I0428 20:08:33.523387 31408 layer_factory.hpp:77] Creating layer pool1
I0428 20:08:33.523396 31408 net.cpp:86] Creating Layer pool1
I0428 20:08:33.523406 31408 net.cpp:408] pool1 <- conv1
I0428 20:08:33.523411 31408 net.cpp:382] pool1 -> pool1
I0428 20:08:33.523465 31408 net.cpp:124] Setting up pool1
I0428 20:08:33.523473 31408 net.cpp:131] Top shape: 100 10 4 4 (16000)
I0428 20:08:33.523475 31408 net.cpp:139] Memory required for data: 7834800
I0428 20:08:33.523484 31408 layer_factory.hpp:77] Creating layer ip1
I0428 20:08:33.523490 31408 net.cpp:86] Creating Layer ip1
I0428 20:08:33.523494 31408 net.cpp:408] ip1 <- pool1
I0428 20:08:33.523499 31408 net.cpp:382] ip1 -> ip1
I0428 20:08:33.523707 31408 net.cpp:124] Setting up ip1
I0428 20:08:33.523730 31408 net.cpp:131] Top shape: 100 50 (5000)
I0428 20:08:33.523747 31408 net.cpp:139] Memory required for data: 7854800
I0428 20:08:33.523756 31408 layer_factory.hpp:77] Creating layer relu1
I0428 20:08:33.523761 31408 net.cpp:86] Creating Layer relu1
I0428 20:08:33.523766 31408 net.cpp:408] relu1 <- ip1
I0428 20:08:33.523771 31408 net.cpp:369] relu1 -> ip1 (in-place)
I0428 20:08:33.523932 31408 net.cpp:124] Setting up relu1
I0428 20:08:33.523941 31408 net.cpp:131] Top shape: 100 50 (5000)
I0428 20:08:33.523944 31408 net.cpp:139] Memory required for data: 7874800
I0428 20:08:33.523947 31408 layer_factory.hpp:77] Creating layer ip2
I0428 20:08:33.523954 31408 net.cpp:86] Creating Layer ip2
I0428 20:08:33.523968 31408 net.cpp:408] ip2 <- ip1
I0428 20:08:33.523972 31408 net.cpp:382] ip2 -> ip2
I0428 20:08:33.524081 31408 net.cpp:124] Setting up ip2
I0428 20:08:33.524088 31408 net.cpp:131] Top shape: 100 25 (2500)
I0428 20:08:33.524091 31408 net.cpp:139] Memory required for data: 7884800
I0428 20:08:33.524097 31408 layer_factory.hpp:77] Creating layer relu2
I0428 20:08:33.524101 31408 net.cpp:86] Creating Layer relu2
I0428 20:08:33.524104 31408 net.cpp:408] relu2 <- ip2
I0428 20:08:33.524111 31408 net.cpp:369] relu2 -> ip2 (in-place)
I0428 20:08:33.524278 31408 net.cpp:124] Setting up relu2
I0428 20:08:33.524287 31408 net.cpp:131] Top shape: 100 25 (2500)
I0428 20:08:33.524291 31408 net.cpp:139] Memory required for data: 7894800
I0428 20:08:33.524315 31408 layer_factory.hpp:77] Creating layer ip3
I0428 20:08:33.524322 31408 net.cpp:86] Creating Layer ip3
I0428 20:08:33.524335 31408 net.cpp:408] ip3 <- ip2
I0428 20:08:33.524340 31408 net.cpp:382] ip3 -> ip3
I0428 20:08:33.524464 31408 net.cpp:124] Setting up ip3
I0428 20:08:33.524472 31408 net.cpp:131] Top shape: 100 10 (1000)
I0428 20:08:33.524476 31408 net.cpp:139] Memory required for data: 7898800
I0428 20:08:33.524484 31408 layer_factory.hpp:77] Creating layer relu3
I0428 20:08:33.524489 31408 net.cpp:86] Creating Layer relu3
I0428 20:08:33.524493 31408 net.cpp:408] relu3 <- ip3
I0428 20:08:33.524497 31408 net.cpp:369] relu3 -> ip3 (in-place)
I0428 20:08:33.525388 31408 net.cpp:124] Setting up relu3
I0428 20:08:33.525400 31408 net.cpp:131] Top shape: 100 10 (1000)
I0428 20:08:33.525404 31408 net.cpp:139] Memory required for data: 7902800
I0428 20:08:33.525408 31408 layer_factory.hpp:77] Creating layer ip3_relu3_0_split
I0428 20:08:33.525413 31408 net.cpp:86] Creating Layer ip3_relu3_0_split
I0428 20:08:33.525418 31408 net.cpp:408] ip3_relu3_0_split <- ip3
I0428 20:08:33.525423 31408 net.cpp:382] ip3_relu3_0_split -> ip3_relu3_0_split_0
I0428 20:08:33.525429 31408 net.cpp:382] ip3_relu3_0_split -> ip3_relu3_0_split_1
I0428 20:08:33.525485 31408 net.cpp:124] Setting up ip3_relu3_0_split
I0428 20:08:33.525490 31408 net.cpp:131] Top shape: 100 10 (1000)
I0428 20:08:33.525493 31408 net.cpp:131] Top shape: 100 10 (1000)
I0428 20:08:33.525496 31408 net.cpp:139] Memory required for data: 7910800
I0428 20:08:33.525499 31408 layer_factory.hpp:77] Creating layer accuracy
I0428 20:08:33.525511 31408 net.cpp:86] Creating Layer accuracy
I0428 20:08:33.525514 31408 net.cpp:408] accuracy <- ip3_relu3_0_split_0
I0428 20:08:33.525518 31408 net.cpp:408] accuracy <- label_mnist_1_split_0
I0428 20:08:33.525522 31408 net.cpp:382] accuracy -> accuracy
…
