…
I0428 19:42:19.379236 25038 net.cpp:296] The NetState phase (0) differed from the phase (1) specified by a rule in layer mnist
I0428 19:42:19.379279 25038 net.cpp:296] The NetState phase (0) differed from the phase (1) specified by a rule in layer accuracy
I0428 19:42:19.379343 25038 net.cpp:53] Initializing net from parameters: 
name: "LeNet"
state {
  phase: TRAIN
  level: 0
  stage: ""
}
layer {
  name: "mnist"
  type: "Data"
  top: "data"
  top: "label"
  include {
    phase: TRAIN
  }
  transform_param {
    scale: 0.00390625
  }
  data_param {
    source: "examples/mnist/mnist_train_lmdb"
    batch_size: 64
    backend: LMDB
  }
}
layer {
  name: "conv0"
  type: "Convolution"
  bottom: "data"
  top: "conv0"
  param {
    lr_mult: 1
  }
  param {
    lr_mult: 2
  }
  convolution_param {
    num_output: 2
    kernel_size: 5
    stride: 1
    weight_filler {
      type: "xavier"
    }
    bias_filler {
      type: "constant"
    }
  }
}
layer {
  name: "pool0"
  type: "Pooling"
  bottom: "conv0"
  top: "pool0"
  pooling_param {
    pool: MAX
    kernel_size: 2
    stride: 2
  }
}
layer {
  name: "conv1"
  type: "Convolution"
  bottom: "pool0"
  top: "conv1"
  param {
    lr_mult: 1
  }
  param {
    lr_mult: 2
  }
  convolution_param {
    num_output: 25
    kernel_size: 5
    stride: 1
    weight_filler {
      type: "xavier"
    }
    bias_filler {
      type: "constant"
    }
  }
}
layer {
  name: "pool1"
  type: "Pooling"
  bottom: "conv1"
  top: "pool1"
  pooling_param {
    pool: MAX
    kernel_size: 2
    stride: 2
  }
}
layer {
  name: "ip1"
  type: "InnerProduct"
  bottom: "pool1"
  top: "ip1"
  param {
    lr_mult: 1
  }
  param {
    lr_mult: 2
  }
  inner_product_param {
    num_output: 10
    weight_filler {
      type: "xavier"
    }
    bias_filler {
      type: "constant"
    }
  }
}
layer {
  name: "relu1"
  type: "ReLU"
  bottom: "ip1"
  top: "ip1"
}
layer {
  name: "loss"
  type: "SoftmaxWithLoss"
  bottom: "ip1"
  bottom: "label"
  top: "loss"
}
I0428 19:42:19.379400 25038 layer_factory.hpp:77] Creating layer mnist
I0428 19:42:19.379487 25038 db_lmdb.cpp:35] Opened lmdb examples/mnist/mnist_train_lmdb
I0428 19:42:19.379524 25038 net.cpp:86] Creating Layer mnist
I0428 19:42:19.379532 25038 net.cpp:382] mnist -> data
I0428 19:42:19.379551 25038 net.cpp:382] mnist -> label
I0428 19:42:19.380463 25038 data_layer.cpp:45] output data size: 64,1,28,28
I0428 19:42:19.382952 25038 net.cpp:124] Setting up mnist
I0428 19:42:19.382985 25038 net.cpp:131] Top shape: 64 1 28 28 (50176)
I0428 19:42:19.382992 25038 net.cpp:131] Top shape: 64 (64)
I0428 19:42:19.382994 25038 net.cpp:139] Memory required for data: 200960
I0428 19:42:19.383000 25038 layer_factory.hpp:77] Creating layer conv0
I0428 19:42:19.383015 25038 net.cpp:86] Creating Layer conv0
I0428 19:42:19.383023 25038 net.cpp:408] conv0 <- data
I0428 19:42:19.383033 25038 net.cpp:382] conv0 -> conv0
I0428 19:42:19.615816 25038 net.cpp:124] Setting up conv0
I0428 19:42:19.615859 25038 net.cpp:131] Top shape: 64 2 24 24 (73728)
I0428 19:42:19.615862 25038 net.cpp:139] Memory required for data: 495872
I0428 19:42:19.615876 25038 layer_factory.hpp:77] Creating layer pool0
I0428 19:42:19.615888 25038 net.cpp:86] Creating Layer pool0
I0428 19:42:19.615892 25038 net.cpp:408] pool0 <- conv0
I0428 19:42:19.615897 25038 net.cpp:382] pool0 -> pool0
I0428 19:42:19.615958 25038 net.cpp:124] Setting up pool0
I0428 19:42:19.615973 25038 net.cpp:131] Top shape: 64 2 12 12 (18432)
I0428 19:42:19.615990 25038 net.cpp:139] Memory required for data: 569600
I0428 19:42:19.615994 25038 layer_factory.hpp:77] Creating layer conv1
I0428 19:42:19.616005 25038 net.cpp:86] Creating Layer conv1
I0428 19:42:19.616008 25038 net.cpp:408] conv1 <- pool0
I0428 19:42:19.616014 25038 net.cpp:382] conv1 -> conv1
I0428 19:42:19.618867 25038 net.cpp:124] Setting up conv1
I0428 19:42:19.618897 25038 net.cpp:131] Top shape: 64 25 8 8 (102400)
I0428 19:42:19.618901 25038 net.cpp:139] Memory required for data: 979200
I0428 19:42:19.618909 25038 layer_factory.hpp:77] Creating layer pool1
I0428 19:42:19.618917 25038 net.cpp:86] Creating Layer pool1
I0428 19:42:19.618921 25038 net.cpp:408] pool1 <- conv1
I0428 19:42:19.618927 25038 net.cpp:382] pool1 -> pool1
I0428 19:42:19.618981 25038 net.cpp:124] Setting up pool1
I0428 19:42:19.618988 25038 net.cpp:131] Top shape: 64 25 4 4 (25600)
I0428 19:42:19.618990 25038 net.cpp:139] Memory required for data: 1081600
I0428 19:42:19.618993 25038 layer_factory.hpp:77] Creating layer ip1
I0428 19:42:19.619001 25038 net.cpp:86] Creating Layer ip1
I0428 19:42:19.619005 25038 net.cpp:408] ip1 <- pool1
I0428 19:42:19.619010 25038 net.cpp:382] ip1 -> ip1
I0428 19:42:19.619139 25038 net.cpp:124] Setting up ip1
I0428 19:42:19.619148 25038 net.cpp:131] Top shape: 64 10 (640)
I0428 19:42:19.619151 25038 net.cpp:139] Memory required for data: 1084160
I0428 19:42:19.619159 25038 layer_factory.hpp:77] Creating layer relu1
I0428 19:42:19.619165 25038 net.cpp:86] Creating Layer relu1
I0428 19:42:19.619168 25038 net.cpp:408] relu1 <- ip1
I0428 19:42:19.619173 25038 net.cpp:369] relu1 -> ip1 (in-place)
I0428 19:42:19.619362 25038 net.cpp:124] Setting up relu1
I0428 19:42:19.619370 25038 net.cpp:131] Top shape: 64 10 (640)
I0428 19:42:19.619374 25038 net.cpp:139] Memory required for data: 1086720
I0428 19:42:19.619377 25038 layer_factory.hpp:77] Creating layer loss
I0428 19:42:19.619384 25038 net.cpp:86] Creating Layer loss
I0428 19:42:19.619386 25038 net.cpp:408] loss <- ip1
I0428 19:42:19.619390 25038 net.cpp:408] loss <- label
I0428 19:42:19.619395 25038 net.cpp:382] loss -> loss
I0428 19:42:19.619410 25038 layer_factory.hpp:77] Creating layer loss
…
I0428 19:42:19.620613 25038 solver.cpp:173] Creating test net (#0) specified by net file: ECE595/mnist/train_test/var_everything2/lenet_train_test390.prototxt
I0428 19:42:19.620640 25038 net.cpp:296] The NetState phase (1) differed from the phase (0) specified by a rule in layer mnist
I0428 19:42:19.620756 25038 net.cpp:53] Initializing net from parameters: 
name: "LeNet"
state {
  phase: TEST
}
layer {
  name: "mnist"
  type: "Data"
  top: "data"
  top: "label"
  include {
    phase: TEST
  }
  transform_param {
    scale: 0.00390625
  }
  data_param {
    source: "examples/mnist/mnist_test_lmdb"
    batch_size: 100
    backend: LMDB
  }
}
layer {
  name: "conv0"
  type: "Convolution"
  bottom: "data"
  top: "conv0"
  param {
    lr_mult: 1
  }
  param {
    lr_mult: 2
  }
  convolution_param {
    num_output: 2
    kernel_size: 5
    stride: 1
    weight_filler {
      type: "xavier"
    }
    bias_filler {
      type: "constant"
    }
  }
}
layer {
  name: "pool0"
  type: "Pooling"
  bottom: "conv0"
  top: "pool0"
  pooling_param {
    pool: MAX
    kernel_size: 2
    stride: 2
  }
}
layer {
  name: "conv1"
  type: "Convolution"
  bottom: "pool0"
  top: "conv1"
  param {
    lr_mult: 1
  }
  param {
    lr_mult: 2
  }
  convolution_param {
    num_output: 25
    kernel_size: 5
    stride: 1
    weight_filler {
      type: "xavier"
    }
    bias_filler {
      type: "constant"
    }
  }
}
layer {
  name: "pool1"
  type: "Pooling"
  bottom: "conv1"
  top: "pool1"
  pooling_param {
    pool: MAX
    kernel_size: 2
    stride: 2
  }
}
layer {
  name: "ip1"
  type: "InnerProduct"
  bottom: "pool1"
  top: "ip1"
  param {
    lr_mult: 1
  }
  param {
    lr_mult: 2
  }
  inner_product_param {
    num_output: 10
    weight_filler {
      type: "xavier"
    }
    bias_filler {
      type: "constant"
    }
  }
}
layer {
  name: "relu1"
  type: "ReLU"
  bottom: "ip1"
  top: "ip1"
}
layer {
  name: "accuracy"
  type: "Accuracy"
  bottom: "ip1"
  bottom: "label"
  top: "accuracy"
  include {
    phase: TEST
  }
}
layer {
  name: "loss"
  type: "SoftmaxWithLoss"
  bottom: "ip1"
  bottom: "label"
  top: "loss"
}
I0428 19:42:19.620872 25038 layer_factory.hpp:77] Creating layer mnist
I0428 19:42:19.620925 25038 db_lmdb.cpp:35] Opened lmdb examples/mnist/mnist_test_lmdb
I0428 19:42:19.620939 25038 net.cpp:86] Creating Layer mnist
I0428 19:42:19.620944 25038 net.cpp:382] mnist -> data
I0428 19:42:19.620951 25038 net.cpp:382] mnist -> label
I0428 19:42:19.621044 25038 data_layer.cpp:45] output data size: 100,1,28,28
I0428 19:42:19.623087 25038 net.cpp:124] Setting up mnist
I0428 19:42:19.623133 25038 net.cpp:131] Top shape: 100 1 28 28 (78400)
I0428 19:42:19.623138 25038 net.cpp:131] Top shape: 100 (100)
I0428 19:42:19.623141 25038 net.cpp:139] Memory required for data: 314000
I0428 19:42:19.623144 25038 layer_factory.hpp:77] Creating layer label_mnist_1_split
I0428 19:42:19.623150 25038 net.cpp:86] Creating Layer label_mnist_1_split
I0428 19:42:19.623154 25038 net.cpp:408] label_mnist_1_split <- label
I0428 19:42:19.623159 25038 net.cpp:382] label_mnist_1_split -> label_mnist_1_split_0
I0428 19:42:19.623179 25038 net.cpp:382] label_mnist_1_split -> label_mnist_1_split_1
I0428 19:42:19.623244 25038 net.cpp:124] Setting up label_mnist_1_split
I0428 19:42:19.623248 25038 net.cpp:131] Top shape: 100 (100)
I0428 19:42:19.623252 25038 net.cpp:131] Top shape: 100 (100)
I0428 19:42:19.623255 25038 net.cpp:139] Memory required for data: 314800
I0428 19:42:19.623258 25038 layer_factory.hpp:77] Creating layer conv0
I0428 19:42:19.623267 25038 net.cpp:86] Creating Layer conv0
I0428 19:42:19.623271 25038 net.cpp:408] conv0 <- data
I0428 19:42:19.623277 25038 net.cpp:382] conv0 -> conv0
I0428 19:42:19.624290 25038 net.cpp:124] Setting up conv0
I0428 19:42:19.624320 25038 net.cpp:131] Top shape: 100 2 24 24 (115200)
I0428 19:42:19.624323 25038 net.cpp:139] Memory required for data: 775600
I0428 19:42:19.624347 25038 layer_factory.hpp:77] Creating layer pool0
I0428 19:42:19.624354 25038 net.cpp:86] Creating Layer pool0
I0428 19:42:19.624358 25038 net.cpp:408] pool0 <- conv0
I0428 19:42:19.624362 25038 net.cpp:382] pool0 -> pool0
I0428 19:42:19.624418 25038 net.cpp:124] Setting up pool0
I0428 19:42:19.624423 25038 net.cpp:131] Top shape: 100 2 12 12 (28800)
I0428 19:42:19.624426 25038 net.cpp:139] Memory required for data: 890800
I0428 19:42:19.624429 25038 layer_factory.hpp:77] Creating layer conv1
I0428 19:42:19.624440 25038 net.cpp:86] Creating Layer conv1
I0428 19:42:19.624444 25038 net.cpp:408] conv1 <- pool0
I0428 19:42:19.624449 25038 net.cpp:382] conv1 -> conv1
I0428 19:42:19.626149 25038 net.cpp:124] Setting up conv1
I0428 19:42:19.626163 25038 net.cpp:131] Top shape: 100 25 8 8 (160000)
I0428 19:42:19.626185 25038 net.cpp:139] Memory required for data: 1530800
I0428 19:42:19.626194 25038 layer_factory.hpp:77] Creating layer pool1
I0428 19:42:19.626202 25038 net.cpp:86] Creating Layer pool1
I0428 19:42:19.626216 25038 net.cpp:408] pool1 <- conv1
I0428 19:42:19.626238 25038 net.cpp:382] pool1 -> pool1
I0428 19:42:19.626278 25038 net.cpp:124] Setting up pool1
I0428 19:42:19.626286 25038 net.cpp:131] Top shape: 100 25 4 4 (40000)
I0428 19:42:19.626288 25038 net.cpp:139] Memory required for data: 1690800
I0428 19:42:19.626302 25038 layer_factory.hpp:77] Creating layer ip1
I0428 19:42:19.626309 25038 net.cpp:86] Creating Layer ip1
I0428 19:42:19.626312 25038 net.cpp:408] ip1 <- pool1
I0428 19:42:19.626318 25038 net.cpp:382] ip1 -> ip1
I0428 19:42:19.626456 25038 net.cpp:124] Setting up ip1
I0428 19:42:19.626463 25038 net.cpp:131] Top shape: 100 10 (1000)
I0428 19:42:19.626467 25038 net.cpp:139] Memory required for data: 1694800
I0428 19:42:19.626476 25038 layer_factory.hpp:77] Creating layer relu1
I0428 19:42:19.626480 25038 net.cpp:86] Creating Layer relu1
I0428 19:42:19.626484 25038 net.cpp:408] relu1 <- ip1
I0428 19:42:19.626490 25038 net.cpp:369] relu1 -> ip1 (in-place)
I0428 19:42:19.627394 25038 net.cpp:124] Setting up relu1
I0428 19:42:19.627423 25038 net.cpp:131] Top shape: 100 10 (1000)
I0428 19:42:19.627425 25038 net.cpp:139] Memory required for data: 1698800
I0428 19:42:19.627429 25038 layer_factory.hpp:77] Creating layer ip1_relu1_0_split
I0428 19:42:19.627435 25038 net.cpp:86] Creating Layer ip1_relu1_0_split
I0428 19:42:19.627440 25038 net.cpp:408] ip1_relu1_0_split <- ip1
I0428 19:42:19.627447 25038 net.cpp:382] ip1_relu1_0_split -> ip1_relu1_0_split_0
I0428 19:42:19.627454 25038 net.cpp:382] ip1_relu1_0_split -> ip1_relu1_0_split_1
I0428 19:42:19.627501 25038 net.cpp:124] Setting up ip1_relu1_0_split
I0428 19:42:19.627506 25038 net.cpp:131] Top shape: 100 10 (1000)
I0428 19:42:19.627511 25038 net.cpp:131] Top shape: 100 10 (1000)
I0428 19:42:19.627513 25038 net.cpp:139] Memory required for data: 1706800
I0428 19:42:19.627516 25038 layer_factory.hpp:77] Creating layer accuracy
I0428 19:42:19.627522 25038 net.cpp:86] Creating Layer accuracy
I0428 19:42:19.627526 25038 net.cpp:408] accuracy <- ip1_relu1_0_split_0
I0428 19:42:19.627530 25038 net.cpp:408] accuracy <- label_mnist_1_split_0
I0428 19:42:19.627535 25038 net.cpp:382] accuracy -> accuracy
…
