…
I0428 20:10:25.442550 31833 net.cpp:296] The NetState phase (0) differed from the phase (1) specified by a rule in layer mnist
I0428 20:10:25.442566 31833 net.cpp:296] The NetState phase (0) differed from the phase (1) specified by a rule in layer accuracy
I0428 20:10:25.442654 31833 net.cpp:53] Initializing net from parameters: 
name: "LeNet"
state {
  phase: TRAIN
  level: 0
  stage: ""
}
layer {
  name: "mnist"
  type: "Data"
  top: "data"
  top: "label"
  include {
    phase: TRAIN
  }
  transform_param {
    scale: 0.00390625
  }
  data_param {
    source: "examples/mnist/mnist_train_lmdb"
    batch_size: 64
    backend: LMDB
  }
}
layer {
  name: "conv0"
  type: "Convolution"
  bottom: "data"
  top: "conv0"
  param {
    lr_mult: 1
  }
  param {
    lr_mult: 2
  }
  convolution_param {
    num_output: 25
    kernel_size: 5
    stride: 1
    weight_filler {
      type: "xavier"
    }
    bias_filler {
      type: "constant"
    }
  }
}
layer {
  name: "pool0"
  type: "Pooling"
  bottom: "conv0"
  top: "pool0"
  pooling_param {
    pool: MAX
    kernel_size: 2
    stride: 2
  }
}
layer {
  name: "conv1"
  type: "Convolution"
  bottom: "pool0"
  top: "conv1"
  param {
    lr_mult: 1
  }
  param {
    lr_mult: 2
  }
  convolution_param {
    num_output: 50
    kernel_size: 5
    stride: 1
    weight_filler {
      type: "xavier"
    }
    bias_filler {
      type: "constant"
    }
  }
}
layer {
  name: "pool1"
  type: "Pooling"
  bottom: "conv1"
  top: "pool1"
  pooling_param {
    pool: MAX
    kernel_size: 2
    stride: 2
  }
}
layer {
  name: "ip1"
  type: "InnerProduct"
  bottom: "pool1"
  top: "ip1"
  param {
    lr_mult: 1
  }
  param {
    lr_mult: 2
  }
  inner_product_param {
    num_output: 10
    weight_filler {
      type: "xavier"
    }
    bias_filler {
      type: "constant"
    }
  }
}
layer {
  name: "relu1"
  type: "ReLU"
  bottom: "ip1"
  top: "ip1"
}
layer {
  name: "ip2"
  type: "InnerProduct"
  bottom: "ip1"
  top: "ip2"
  param {
    lr_mult: 1
  }
  param {
    lr_mult: 2
  }
  inner_product_param {
    num_output: 10
    weight_filler {
      type: "xavier"
    }
    bias_filler {
      type: "constant"
    }
  }
}
layer {
  name: "relu2"
  type: "ReLU"
  bottom: "ip2"
  top: "ip2"
}
layer {
  name: "loss"
  type: "SoftmaxWithLoss"
  bottom: "ip2"
  bottom: "label"
  top: "loss"
}
I0428 20:10:25.442723 31833 layer_factory.hpp:77] Creating layer mnist
I0428 20:10:25.442826 31833 db_lmdb.cpp:35] Opened lmdb examples/mnist/mnist_train_lmdb
I0428 20:10:25.442848 31833 net.cpp:86] Creating Layer mnist
I0428 20:10:25.442855 31833 net.cpp:382] mnist -> data
I0428 20:10:25.442878 31833 net.cpp:382] mnist -> label
I0428 20:10:25.443933 31833 data_layer.cpp:45] output data size: 64,1,28,28
I0428 20:10:25.446321 31833 net.cpp:124] Setting up mnist
I0428 20:10:25.446339 31833 net.cpp:131] Top shape: 64 1 28 28 (50176)
I0428 20:10:25.446346 31833 net.cpp:131] Top shape: 64 (64)
I0428 20:10:25.446349 31833 net.cpp:139] Memory required for data: 200960
I0428 20:10:25.446357 31833 layer_factory.hpp:77] Creating layer conv0
I0428 20:10:25.446372 31833 net.cpp:86] Creating Layer conv0
I0428 20:10:25.446377 31833 net.cpp:408] conv0 <- data
I0428 20:10:25.446388 31833 net.cpp:382] conv0 -> conv0
I0428 20:10:25.729897 31833 net.cpp:124] Setting up conv0
I0428 20:10:25.729926 31833 net.cpp:131] Top shape: 64 25 24 24 (921600)
I0428 20:10:25.729931 31833 net.cpp:139] Memory required for data: 3887360
I0428 20:10:25.729971 31833 layer_factory.hpp:77] Creating layer pool0
I0428 20:10:25.729988 31833 net.cpp:86] Creating Layer pool0
I0428 20:10:25.729993 31833 net.cpp:408] pool0 <- conv0
I0428 20:10:25.730002 31833 net.cpp:382] pool0 -> pool0
I0428 20:10:25.730060 31833 net.cpp:124] Setting up pool0
I0428 20:10:25.730069 31833 net.cpp:131] Top shape: 64 25 12 12 (230400)
I0428 20:10:25.730072 31833 net.cpp:139] Memory required for data: 4808960
I0428 20:10:25.730077 31833 layer_factory.hpp:77] Creating layer conv1
I0428 20:10:25.730090 31833 net.cpp:86] Creating Layer conv1
I0428 20:10:25.730095 31833 net.cpp:408] conv1 <- pool0
I0428 20:10:25.730103 31833 net.cpp:382] conv1 -> conv1
I0428 20:10:25.732491 31833 net.cpp:124] Setting up conv1
I0428 20:10:25.732508 31833 net.cpp:131] Top shape: 64 50 8 8 (204800)
I0428 20:10:25.732530 31833 net.cpp:139] Memory required for data: 5628160
I0428 20:10:25.732542 31833 layer_factory.hpp:77] Creating layer pool1
I0428 20:10:25.732553 31833 net.cpp:86] Creating Layer pool1
I0428 20:10:25.732558 31833 net.cpp:408] pool1 <- conv1
I0428 20:10:25.732568 31833 net.cpp:382] pool1 -> pool1
I0428 20:10:25.732612 31833 net.cpp:124] Setting up pool1
I0428 20:10:25.732620 31833 net.cpp:131] Top shape: 64 50 4 4 (51200)
I0428 20:10:25.732623 31833 net.cpp:139] Memory required for data: 5832960
I0428 20:10:25.732627 31833 layer_factory.hpp:77] Creating layer ip1
I0428 20:10:25.732635 31833 net.cpp:86] Creating Layer ip1
I0428 20:10:25.732640 31833 net.cpp:408] ip1 <- pool1
I0428 20:10:25.732646 31833 net.cpp:382] ip1 -> ip1
I0428 20:10:25.733798 31833 net.cpp:124] Setting up ip1
I0428 20:10:25.733813 31833 net.cpp:131] Top shape: 64 10 (640)
I0428 20:10:25.733817 31833 net.cpp:139] Memory required for data: 5835520
I0428 20:10:25.733829 31833 layer_factory.hpp:77] Creating layer relu1
I0428 20:10:25.733836 31833 net.cpp:86] Creating Layer relu1
I0428 20:10:25.733841 31833 net.cpp:408] relu1 <- ip1
I0428 20:10:25.733847 31833 net.cpp:369] relu1 -> ip1 (in-place)
I0428 20:10:25.734064 31833 net.cpp:124] Setting up relu1
I0428 20:10:25.734074 31833 net.cpp:131] Top shape: 64 10 (640)
I0428 20:10:25.734077 31833 net.cpp:139] Memory required for data: 5838080
I0428 20:10:25.734081 31833 layer_factory.hpp:77] Creating layer ip2
I0428 20:10:25.734091 31833 net.cpp:86] Creating Layer ip2
I0428 20:10:25.734096 31833 net.cpp:408] ip2 <- ip1
I0428 20:10:25.734102 31833 net.cpp:382] ip2 -> ip2
I0428 20:10:25.734220 31833 net.cpp:124] Setting up ip2
I0428 20:10:25.734228 31833 net.cpp:131] Top shape: 64 10 (640)
I0428 20:10:25.734231 31833 net.cpp:139] Memory required for data: 5840640
I0428 20:10:25.734238 31833 layer_factory.hpp:77] Creating layer relu2
I0428 20:10:25.734247 31833 net.cpp:86] Creating Layer relu2
I0428 20:10:25.734251 31833 net.cpp:408] relu2 <- ip2
I0428 20:10:25.734258 31833 net.cpp:369] relu2 -> ip2 (in-place)
I0428 20:10:25.735116 31833 net.cpp:124] Setting up relu2
I0428 20:10:25.735131 31833 net.cpp:131] Top shape: 64 10 (640)
I0428 20:10:25.735134 31833 net.cpp:139] Memory required for data: 5843200
I0428 20:10:25.735138 31833 layer_factory.hpp:77] Creating layer loss
I0428 20:10:25.735146 31833 net.cpp:86] Creating Layer loss
I0428 20:10:25.735150 31833 net.cpp:408] loss <- ip2
I0428 20:10:25.735155 31833 net.cpp:408] loss <- label
I0428 20:10:25.735162 31833 net.cpp:382] loss -> loss
I0428 20:10:25.735179 31833 layer_factory.hpp:77] Creating layer loss
…
I0428 20:10:25.735920 31833 solver.cpp:173] Creating test net (#0) specified by net file: ECE595/mnist/train_test/var_everything2/lenet_train_test1134.prototxt
I0428 20:10:25.735950 31833 net.cpp:296] The NetState phase (1) differed from the phase (0) specified by a rule in layer mnist
I0428 20:10:25.736052 31833 net.cpp:53] Initializing net from parameters: 
name: "LeNet"
state {
  phase: TEST
}
layer {
  name: "mnist"
  type: "Data"
  top: "data"
  top: "label"
  include {
    phase: TEST
  }
  transform_param {
    scale: 0.00390625
  }
  data_param {
    source: "examples/mnist/mnist_test_lmdb"
    batch_size: 100
    backend: LMDB
  }
}
layer {
  name: "conv0"
  type: "Convolution"
  bottom: "data"
  top: "conv0"
  param {
    lr_mult: 1
  }
  param {
    lr_mult: 2
  }
  convolution_param {
    num_output: 25
    kernel_size: 5
    stride: 1
    weight_filler {
      type: "xavier"
    }
    bias_filler {
      type: "constant"
    }
  }
}
layer {
  name: "pool0"
  type: "Pooling"
  bottom: "conv0"
  top: "pool0"
  pooling_param {
    pool: MAX
    kernel_size: 2
    stride: 2
  }
}
layer {
  name: "conv1"
  type: "Convolution"
  bottom: "pool0"
  top: "conv1"
  param {
    lr_mult: 1
  }
  param {
    lr_mult: 2
  }
  convolution_param {
    num_output: 50
    kernel_size: 5
    stride: 1
    weight_filler {
      type: "xavier"
    }
    bias_filler {
      type: "constant"
    }
  }
}
layer {
  name: "pool1"
  type: "Pooling"
  bottom: "conv1"
  top: "pool1"
  pooling_param {
    pool: MAX
    kernel_size: 2
    stride: 2
  }
}
layer {
  name: "ip1"
  type: "InnerProduct"
  bottom: "pool1"
  top: "ip1"
  param {
    lr_mult: 1
  }
  param {
    lr_mult: 2
  }
  inner_product_param {
    num_output: 10
    weight_filler {
      type: "xavier"
    }
    bias_filler {
      type: "constant"
    }
  }
}
layer {
  name: "relu1"
  type: "ReLU"
  bottom: "ip1"
  top: "ip1"
}
layer {
  name: "ip2"
  type: "InnerProduct"
  bottom: "ip1"
  top: "ip2"
  param {
    lr_mult: 1
  }
  param {
    lr_mult: 2
  }
  inner_product_param {
    num_output: 10
    weight_filler {
      type: "xavier"
    }
    bias_filler {
      type: "constant"
    }
  }
}
layer {
  name: "relu2"
  type: "ReLU"
  bottom: "ip2"
  top: "ip2"
}
layer {
  name: "accuracy"
  type: "Accuracy"
  bottom: "ip2"
  bottom: "label"
  top: "accuracy"
  include {
    phase: TEST
  }
}
layer {
  name: "loss"
  type: "SoftmaxWithLoss"
  bottom: "ip2"
  bottom: "label"
  top: "loss"
}
I0428 20:10:25.736130 31833 layer_factory.hpp:77] Creating layer mnist
I0428 20:10:25.736181 31833 db_lmdb.cpp:35] Opened lmdb examples/mnist/mnist_test_lmdb
I0428 20:10:25.736194 31833 net.cpp:86] Creating Layer mnist
I0428 20:10:25.736202 31833 net.cpp:382] mnist -> data
I0428 20:10:25.736210 31833 net.cpp:382] mnist -> label
I0428 20:10:25.736313 31833 data_layer.cpp:45] output data size: 100,1,28,28
I0428 20:10:25.738672 31833 net.cpp:124] Setting up mnist
I0428 20:10:25.738687 31833 net.cpp:131] Top shape: 100 1 28 28 (78400)
I0428 20:10:25.738693 31833 net.cpp:131] Top shape: 100 (100)
I0428 20:10:25.738696 31833 net.cpp:139] Memory required for data: 314000
I0428 20:10:25.738701 31833 layer_factory.hpp:77] Creating layer label_mnist_1_split
I0428 20:10:25.738708 31833 net.cpp:86] Creating Layer label_mnist_1_split
I0428 20:10:25.738723 31833 net.cpp:408] label_mnist_1_split <- label
I0428 20:10:25.738731 31833 net.cpp:382] label_mnist_1_split -> label_mnist_1_split_0
I0428 20:10:25.738751 31833 net.cpp:382] label_mnist_1_split -> label_mnist_1_split_1
I0428 20:10:25.738860 31833 net.cpp:124] Setting up label_mnist_1_split
I0428 20:10:25.738869 31833 net.cpp:131] Top shape: 100 (100)
I0428 20:10:25.738874 31833 net.cpp:131] Top shape: 100 (100)
I0428 20:10:25.738878 31833 net.cpp:139] Memory required for data: 314800
I0428 20:10:25.738881 31833 layer_factory.hpp:77] Creating layer conv0
I0428 20:10:25.738893 31833 net.cpp:86] Creating Layer conv0
I0428 20:10:25.738899 31833 net.cpp:408] conv0 <- data
I0428 20:10:25.738905 31833 net.cpp:382] conv0 -> conv0
I0428 20:10:25.740612 31833 net.cpp:124] Setting up conv0
I0428 20:10:25.740627 31833 net.cpp:131] Top shape: 100 25 24 24 (1440000)
I0428 20:10:25.740631 31833 net.cpp:139] Memory required for data: 6074800
I0428 20:10:25.740643 31833 layer_factory.hpp:77] Creating layer pool0
I0428 20:10:25.740651 31833 net.cpp:86] Creating Layer pool0
I0428 20:10:25.740656 31833 net.cpp:408] pool0 <- conv0
I0428 20:10:25.740661 31833 net.cpp:382] pool0 -> pool0
I0428 20:10:25.740707 31833 net.cpp:124] Setting up pool0
I0428 20:10:25.740723 31833 net.cpp:131] Top shape: 100 25 12 12 (360000)
I0428 20:10:25.740727 31833 net.cpp:139] Memory required for data: 7514800
I0428 20:10:25.740731 31833 layer_factory.hpp:77] Creating layer conv1
I0428 20:10:25.740741 31833 net.cpp:86] Creating Layer conv1
I0428 20:10:25.740746 31833 net.cpp:408] conv1 <- pool0
I0428 20:10:25.740751 31833 net.cpp:382] conv1 -> conv1
I0428 20:10:25.742722 31833 net.cpp:124] Setting up conv1
I0428 20:10:25.742738 31833 net.cpp:131] Top shape: 100 50 8 8 (320000)
I0428 20:10:25.742743 31833 net.cpp:139] Memory required for data: 8794800
I0428 20:10:25.742754 31833 layer_factory.hpp:77] Creating layer pool1
I0428 20:10:25.742764 31833 net.cpp:86] Creating Layer pool1
I0428 20:10:25.742769 31833 net.cpp:408] pool1 <- conv1
I0428 20:10:25.742775 31833 net.cpp:382] pool1 -> pool1
I0428 20:10:25.742820 31833 net.cpp:124] Setting up pool1
I0428 20:10:25.742828 31833 net.cpp:131] Top shape: 100 50 4 4 (80000)
I0428 20:10:25.742832 31833 net.cpp:139] Memory required for data: 9114800
I0428 20:10:25.742835 31833 layer_factory.hpp:77] Creating layer ip1
I0428 20:10:25.742843 31833 net.cpp:86] Creating Layer ip1
I0428 20:10:25.742847 31833 net.cpp:408] ip1 <- pool1
I0428 20:10:25.742853 31833 net.cpp:382] ip1 -> ip1
I0428 20:10:25.743026 31833 net.cpp:124] Setting up ip1
I0428 20:10:25.743034 31833 net.cpp:131] Top shape: 100 10 (1000)
I0428 20:10:25.743038 31833 net.cpp:139] Memory required for data: 9118800
I0428 20:10:25.743046 31833 layer_factory.hpp:77] Creating layer relu1
I0428 20:10:25.743053 31833 net.cpp:86] Creating Layer relu1
I0428 20:10:25.743057 31833 net.cpp:408] relu1 <- ip1
I0428 20:10:25.743062 31833 net.cpp:369] relu1 -> ip1 (in-place)
I0428 20:10:25.743257 31833 net.cpp:124] Setting up relu1
I0428 20:10:25.743266 31833 net.cpp:131] Top shape: 100 10 (1000)
I0428 20:10:25.743270 31833 net.cpp:139] Memory required for data: 9122800
I0428 20:10:25.743274 31833 layer_factory.hpp:77] Creating layer ip2
I0428 20:10:25.743283 31833 net.cpp:86] Creating Layer ip2
I0428 20:10:25.743288 31833 net.cpp:408] ip2 <- ip1
I0428 20:10:25.743294 31833 net.cpp:382] ip2 -> ip2
I0428 20:10:25.743414 31833 net.cpp:124] Setting up ip2
I0428 20:10:25.743422 31833 net.cpp:131] Top shape: 100 10 (1000)
I0428 20:10:25.743425 31833 net.cpp:139] Memory required for data: 9126800
I0428 20:10:25.743432 31833 layer_factory.hpp:77] Creating layer relu2
I0428 20:10:25.743438 31833 net.cpp:86] Creating Layer relu2
I0428 20:10:25.743443 31833 net.cpp:408] relu2 <- ip2
I0428 20:10:25.743446 31833 net.cpp:369] relu2 -> ip2 (in-place)
I0428 20:10:25.743633 31833 net.cpp:124] Setting up relu2
I0428 20:10:25.743641 31833 net.cpp:131] Top shape: 100 10 (1000)
I0428 20:10:25.743644 31833 net.cpp:139] Memory required for data: 9130800
I0428 20:10:25.743649 31833 layer_factory.hpp:77] Creating layer ip2_relu2_0_split
I0428 20:10:25.743654 31833 net.cpp:86] Creating Layer ip2_relu2_0_split
I0428 20:10:25.743656 31833 net.cpp:408] ip2_relu2_0_split <- ip2
I0428 20:10:25.743661 31833 net.cpp:382] ip2_relu2_0_split -> ip2_relu2_0_split_0
I0428 20:10:25.743683 31833 net.cpp:382] ip2_relu2_0_split -> ip2_relu2_0_split_1
I0428 20:10:25.743727 31833 net.cpp:124] Setting up ip2_relu2_0_split
I0428 20:10:25.743734 31833 net.cpp:131] Top shape: 100 10 (1000)
I0428 20:10:25.743738 31833 net.cpp:131] Top shape: 100 10 (1000)
I0428 20:10:25.743741 31833 net.cpp:139] Memory required for data: 9138800
I0428 20:10:25.743746 31833 layer_factory.hpp:77] Creating layer accuracy
I0428 20:10:25.743752 31833 net.cpp:86] Creating Layer accuracy
I0428 20:10:25.743757 31833 net.cpp:408] accuracy <- ip2_relu2_0_split_0
I0428 20:10:25.743760 31833 net.cpp:408] accuracy <- label_mnist_1_split_0
I0428 20:10:25.743765 31833 net.cpp:382] accuracy -> accuracy
…
