…
I0428 19:36:19.558370 23669 net.cpp:296] The NetState phase (0) differed from the phase (1) specified by a rule in layer mnist
I0428 19:36:19.558385 23669 net.cpp:296] The NetState phase (0) differed from the phase (1) specified by a rule in layer accuracy
I0428 19:36:19.558454 23669 net.cpp:53] Initializing net from parameters: 
name: "LeNet"
state {
  phase: TRAIN
  level: 0
  stage: ""
}
layer {
  name: "mnist"
  type: "Data"
  top: "data"
  top: "label"
  include {
    phase: TRAIN
  }
  transform_param {
    scale: 0.00390625
  }
  data_param {
    source: "examples/mnist/mnist_train_lmdb"
    batch_size: 64
    backend: LMDB
  }
}
layer {
  name: "conv0"
  type: "Convolution"
  bottom: "data"
  top: "conv0"
  param {
    lr_mult: 1
  }
  param {
    lr_mult: 2
  }
  convolution_param {
    num_output: 100
    kernel_size: 5
    stride: 1
    weight_filler {
      type: "xavier"
    }
    bias_filler {
      type: "constant"
    }
  }
}
layer {
  name: "pool0"
  type: "Pooling"
  bottom: "conv0"
  top: "pool0"
  pooling_param {
    pool: MAX
    kernel_size: 2
    stride: 2
  }
}
layer {
  name: "ip1"
  type: "InnerProduct"
  bottom: "pool0"
  top: "ip1"
  param {
    lr_mult: 1
  }
  param {
    lr_mult: 2
  }
  inner_product_param {
    num_output: 25
    weight_filler {
      type: "xavier"
    }
    bias_filler {
      type: "constant"
    }
  }
}
layer {
  name: "relu1"
  type: "ReLU"
  bottom: "ip1"
  top: "ip1"
}
layer {
  name: "ip2"
  type: "InnerProduct"
  bottom: "ip1"
  top: "ip2"
  param {
    lr_mult: 1
  }
  param {
    lr_mult: 2
  }
  inner_product_param {
    num_output: 10
    weight_filler {
      type: "xavier"
    }
    bias_filler {
      type: "constant"
    }
  }
}
layer {
  name: "relu2"
  type: "ReLU"
  bottom: "ip2"
  top: "ip2"
}
layer {
  name: "loss"
  type: "SoftmaxWithLoss"
  bottom: "ip2"
  bottom: "label"
  top: "loss"
}
I0428 19:36:19.558526 23669 layer_factory.hpp:77] Creating layer mnist
I0428 19:36:19.558650 23669 db_lmdb.cpp:35] Opened lmdb examples/mnist/mnist_train_lmdb
I0428 19:36:19.558676 23669 net.cpp:86] Creating Layer mnist
I0428 19:36:19.558686 23669 net.cpp:382] mnist -> data
I0428 19:36:19.558710 23669 net.cpp:382] mnist -> label
I0428 19:36:19.559793 23669 data_layer.cpp:45] output data size: 64,1,28,28
I0428 19:36:19.562075 23669 net.cpp:124] Setting up mnist
I0428 19:36:19.562108 23669 net.cpp:131] Top shape: 64 1 28 28 (50176)
I0428 19:36:19.562115 23669 net.cpp:131] Top shape: 64 (64)
I0428 19:36:19.562120 23669 net.cpp:139] Memory required for data: 200960
I0428 19:36:19.562129 23669 layer_factory.hpp:77] Creating layer conv0
I0428 19:36:19.562149 23669 net.cpp:86] Creating Layer conv0
I0428 19:36:19.562156 23669 net.cpp:408] conv0 <- data
I0428 19:36:19.562170 23669 net.cpp:382] conv0 -> conv0
I0428 19:36:19.796694 23669 net.cpp:124] Setting up conv0
I0428 19:36:19.796722 23669 net.cpp:131] Top shape: 64 100 24 24 (3686400)
I0428 19:36:19.796727 23669 net.cpp:139] Memory required for data: 14946560
I0428 19:36:19.796746 23669 layer_factory.hpp:77] Creating layer pool0
I0428 19:36:19.796761 23669 net.cpp:86] Creating Layer pool0
I0428 19:36:19.796768 23669 net.cpp:408] pool0 <- conv0
I0428 19:36:19.796777 23669 net.cpp:382] pool0 -> pool0
I0428 19:36:19.796855 23669 net.cpp:124] Setting up pool0
I0428 19:36:19.796864 23669 net.cpp:131] Top shape: 64 100 12 12 (921600)
I0428 19:36:19.796869 23669 net.cpp:139] Memory required for data: 18632960
I0428 19:36:19.796895 23669 layer_factory.hpp:77] Creating layer ip1
I0428 19:36:19.796906 23669 net.cpp:86] Creating Layer ip1
I0428 19:36:19.796912 23669 net.cpp:408] ip1 <- pool0
I0428 19:36:19.796921 23669 net.cpp:382] ip1 -> ip1
I0428 19:36:19.799952 23669 net.cpp:124] Setting up ip1
I0428 19:36:19.799965 23669 net.cpp:131] Top shape: 64 25 (1600)
I0428 19:36:19.799971 23669 net.cpp:139] Memory required for data: 18639360
I0428 19:36:19.799998 23669 layer_factory.hpp:77] Creating layer relu1
I0428 19:36:19.800009 23669 net.cpp:86] Creating Layer relu1
I0428 19:36:19.800014 23669 net.cpp:408] relu1 <- ip1
I0428 19:36:19.800021 23669 net.cpp:369] relu1 -> ip1 (in-place)
I0428 19:36:19.800185 23669 net.cpp:124] Setting up relu1
I0428 19:36:19.800196 23669 net.cpp:131] Top shape: 64 25 (1600)
I0428 19:36:19.800200 23669 net.cpp:139] Memory required for data: 18645760
I0428 19:36:19.800205 23669 layer_factory.hpp:77] Creating layer ip2
I0428 19:36:19.800215 23669 net.cpp:86] Creating Layer ip2
I0428 19:36:19.800220 23669 net.cpp:408] ip2 <- ip1
I0428 19:36:19.800228 23669 net.cpp:382] ip2 -> ip2
I0428 19:36:19.800325 23669 net.cpp:124] Setting up ip2
I0428 19:36:19.800333 23669 net.cpp:131] Top shape: 64 10 (640)
I0428 19:36:19.800338 23669 net.cpp:139] Memory required for data: 18648320
I0428 19:36:19.800364 23669 layer_factory.hpp:77] Creating layer relu2
I0428 19:36:19.800372 23669 net.cpp:86] Creating Layer relu2
I0428 19:36:19.800380 23669 net.cpp:408] relu2 <- ip2
I0428 19:36:19.800387 23669 net.cpp:369] relu2 -> ip2 (in-place)
I0428 19:36:19.801198 23669 net.cpp:124] Setting up relu2
I0428 19:36:19.801213 23669 net.cpp:131] Top shape: 64 10 (640)
I0428 19:36:19.801218 23669 net.cpp:139] Memory required for data: 18650880
I0428 19:36:19.801223 23669 layer_factory.hpp:77] Creating layer loss
I0428 19:36:19.801247 23669 net.cpp:86] Creating Layer loss
I0428 19:36:19.801252 23669 net.cpp:408] loss <- ip2
I0428 19:36:19.801259 23669 net.cpp:408] loss <- label
I0428 19:36:19.801267 23669 net.cpp:382] loss -> loss
I0428 19:36:19.801291 23669 layer_factory.hpp:77] Creating layer loss
…
I0428 19:36:19.801978 23669 solver.cpp:173] Creating test net (#0) specified by net file: ECE595/mnist/train_test/var_everything2/lenet_train_test241.prototxt
I0428 19:36:19.802009 23669 net.cpp:296] The NetState phase (1) differed from the phase (0) specified by a rule in layer mnist
I0428 19:36:19.802085 23669 net.cpp:53] Initializing net from parameters: 
name: "LeNet"
state {
  phase: TEST
}
layer {
  name: "mnist"
  type: "Data"
  top: "data"
  top: "label"
  include {
    phase: TEST
  }
  transform_param {
    scale: 0.00390625
  }
  data_param {
    source: "examples/mnist/mnist_test_lmdb"
    batch_size: 100
    backend: LMDB
  }
}
layer {
  name: "conv0"
  type: "Convolution"
  bottom: "data"
  top: "conv0"
  param {
    lr_mult: 1
  }
  param {
    lr_mult: 2
  }
  convolution_param {
    num_output: 100
    kernel_size: 5
    stride: 1
    weight_filler {
      type: "xavier"
    }
    bias_filler {
      type: "constant"
    }
  }
}
layer {
  name: "pool0"
  type: "Pooling"
  bottom: "conv0"
  top: "pool0"
  pooling_param {
    pool: MAX
    kernel_size: 2
    stride: 2
  }
}
layer {
  name: "ip1"
  type: "InnerProduct"
  bottom: "pool0"
  top: "ip1"
  param {
    lr_mult: 1
  }
  param {
    lr_mult: 2
  }
  inner_product_param {
    num_output: 25
    weight_filler {
      type: "xavier"
    }
    bias_filler {
      type: "constant"
    }
  }
}
layer {
  name: "relu1"
  type: "ReLU"
  bottom: "ip1"
  top: "ip1"
}
layer {
  name: "ip2"
  type: "InnerProduct"
  bottom: "ip1"
  top: "ip2"
  param {
    lr_mult: 1
  }
  param {
    lr_mult: 2
  }
  inner_product_param {
    num_output: 10
    weight_filler {
      type: "xavier"
    }
    bias_filler {
      type: "constant"
    }
  }
}
layer {
  name: "relu2"
  type: "ReLU"
  bottom: "ip2"
  top: "ip2"
}
layer {
  name: "accuracy"
  type: "Accuracy"
  bottom: "ip2"
  bottom: "label"
  top: "accuracy"
  include {
    phase: TEST
  }
}
layer {
  name: "loss"
  type: "SoftmaxWithLoss"
  bottom: "ip2"
  bottom: "label"
  top: "loss"
}
I0428 19:36:19.802181 23669 layer_factory.hpp:77] Creating layer mnist
I0428 19:36:19.802237 23669 db_lmdb.cpp:35] Opened lmdb examples/mnist/mnist_test_lmdb
I0428 19:36:19.802254 23669 net.cpp:86] Creating Layer mnist
I0428 19:36:19.802263 23669 net.cpp:382] mnist -> data
I0428 19:36:19.802273 23669 net.cpp:382] mnist -> label
I0428 19:36:19.802387 23669 data_layer.cpp:45] output data size: 100,1,28,28
I0428 19:36:19.804612 23669 net.cpp:124] Setting up mnist
I0428 19:36:19.804642 23669 net.cpp:131] Top shape: 100 1 28 28 (78400)
I0428 19:36:19.804651 23669 net.cpp:131] Top shape: 100 (100)
I0428 19:36:19.804656 23669 net.cpp:139] Memory required for data: 314000
I0428 19:36:19.804661 23669 layer_factory.hpp:77] Creating layer label_mnist_1_split
I0428 19:36:19.804685 23669 net.cpp:86] Creating Layer label_mnist_1_split
I0428 19:36:19.804692 23669 net.cpp:408] label_mnist_1_split <- label
I0428 19:36:19.804699 23669 net.cpp:382] label_mnist_1_split -> label_mnist_1_split_0
I0428 19:36:19.804710 23669 net.cpp:382] label_mnist_1_split -> label_mnist_1_split_1
I0428 19:36:19.804857 23669 net.cpp:124] Setting up label_mnist_1_split
I0428 19:36:19.804867 23669 net.cpp:131] Top shape: 100 (100)
I0428 19:36:19.804874 23669 net.cpp:131] Top shape: 100 (100)
I0428 19:36:19.804880 23669 net.cpp:139] Memory required for data: 314800
I0428 19:36:19.804886 23669 layer_factory.hpp:77] Creating layer conv0
I0428 19:36:19.804903 23669 net.cpp:86] Creating Layer conv0
I0428 19:36:19.804915 23669 net.cpp:408] conv0 <- data
I0428 19:36:19.804925 23669 net.cpp:382] conv0 -> conv0
I0428 19:36:19.806589 23669 net.cpp:124] Setting up conv0
I0428 19:36:19.806604 23669 net.cpp:131] Top shape: 100 100 24 24 (5760000)
I0428 19:36:19.806610 23669 net.cpp:139] Memory required for data: 23354800
I0428 19:36:19.806623 23669 layer_factory.hpp:77] Creating layer pool0
I0428 19:36:19.806632 23669 net.cpp:86] Creating Layer pool0
I0428 19:36:19.806643 23669 net.cpp:408] pool0 <- conv0
I0428 19:36:19.806650 23669 net.cpp:382] pool0 -> pool0
I0428 19:36:19.806690 23669 net.cpp:124] Setting up pool0
I0428 19:36:19.806699 23669 net.cpp:131] Top shape: 100 100 12 12 (1440000)
I0428 19:36:19.806702 23669 net.cpp:139] Memory required for data: 29114800
I0428 19:36:19.806707 23669 layer_factory.hpp:77] Creating layer ip1
I0428 19:36:19.806717 23669 net.cpp:86] Creating Layer ip1
I0428 19:36:19.806723 23669 net.cpp:408] ip1 <- pool0
I0428 19:36:19.806730 23669 net.cpp:382] ip1 -> ip1
I0428 19:36:19.808948 23669 net.cpp:124] Setting up ip1
I0428 19:36:19.808959 23669 net.cpp:131] Top shape: 100 25 (2500)
I0428 19:36:19.808964 23669 net.cpp:139] Memory required for data: 29124800
I0428 19:36:19.808992 23669 layer_factory.hpp:77] Creating layer relu1
I0428 19:36:19.809001 23669 net.cpp:86] Creating Layer relu1
I0428 19:36:19.809007 23669 net.cpp:408] relu1 <- ip1
I0428 19:36:19.809028 23669 net.cpp:369] relu1 -> ip1 (in-place)
I0428 19:36:19.809207 23669 net.cpp:124] Setting up relu1
I0428 19:36:19.809218 23669 net.cpp:131] Top shape: 100 25 (2500)
I0428 19:36:19.809240 23669 net.cpp:139] Memory required for data: 29134800
I0428 19:36:19.809247 23669 layer_factory.hpp:77] Creating layer ip2
I0428 19:36:19.809257 23669 net.cpp:86] Creating Layer ip2
I0428 19:36:19.809280 23669 net.cpp:408] ip2 <- ip1
I0428 19:36:19.809298 23669 net.cpp:382] ip2 -> ip2
I0428 19:36:19.809393 23669 net.cpp:124] Setting up ip2
I0428 19:36:19.809402 23669 net.cpp:131] Top shape: 100 10 (1000)
I0428 19:36:19.809409 23669 net.cpp:139] Memory required for data: 29138800
I0428 19:36:19.809435 23669 layer_factory.hpp:77] Creating layer relu2
I0428 19:36:19.809443 23669 net.cpp:86] Creating Layer relu2
I0428 19:36:19.809449 23669 net.cpp:408] relu2 <- ip2
I0428 19:36:19.809456 23669 net.cpp:369] relu2 -> ip2 (in-place)
I0428 19:36:19.809602 23669 net.cpp:124] Setting up relu2
I0428 19:36:19.809612 23669 net.cpp:131] Top shape: 100 10 (1000)
I0428 19:36:19.809617 23669 net.cpp:139] Memory required for data: 29142800
I0428 19:36:19.809622 23669 layer_factory.hpp:77] Creating layer ip2_relu2_0_split
I0428 19:36:19.809630 23669 net.cpp:86] Creating Layer ip2_relu2_0_split
I0428 19:36:19.809636 23669 net.cpp:408] ip2_relu2_0_split <- ip2
I0428 19:36:19.809643 23669 net.cpp:382] ip2_relu2_0_split -> ip2_relu2_0_split_0
I0428 19:36:19.809653 23669 net.cpp:382] ip2_relu2_0_split -> ip2_relu2_0_split_1
I0428 19:36:19.809697 23669 net.cpp:124] Setting up ip2_relu2_0_split
I0428 19:36:19.809705 23669 net.cpp:131] Top shape: 100 10 (1000)
I0428 19:36:19.809712 23669 net.cpp:131] Top shape: 100 10 (1000)
I0428 19:36:19.809716 23669 net.cpp:139] Memory required for data: 29150800
I0428 19:36:19.809721 23669 layer_factory.hpp:77] Creating layer accuracy
I0428 19:36:19.809729 23669 net.cpp:86] Creating Layer accuracy
I0428 19:36:19.809734 23669 net.cpp:408] accuracy <- ip2_relu2_0_split_0
I0428 19:36:19.809741 23669 net.cpp:408] accuracy <- label_mnist_1_split_0
I0428 19:36:19.809747 23669 net.cpp:382] accuracy -> accuracy
…
