…
I0428 19:48:32.513941 26504 net.cpp:296] The NetState phase (0) differed from the phase (1) specified by a rule in layer mnist
I0428 19:48:32.513964 26504 net.cpp:296] The NetState phase (0) differed from the phase (1) specified by a rule in layer accuracy
I0428 19:48:32.514060 26504 net.cpp:53] Initializing net from parameters: 
name: "LeNet"
state {
  phase: TRAIN
  level: 0
  stage: ""
}
layer {
  name: "mnist"
  type: "Data"
  top: "data"
  top: "label"
  include {
    phase: TRAIN
  }
  transform_param {
    scale: 0.00390625
  }
  data_param {
    source: "examples/mnist/mnist_train_lmdb"
    batch_size: 64
    backend: LMDB
  }
}
layer {
  name: "conv0"
  type: "Convolution"
  bottom: "data"
  top: "conv0"
  param {
    lr_mult: 1
  }
  param {
    lr_mult: 2
  }
  convolution_param {
    num_output: 5
    kernel_size: 5
    stride: 1
    weight_filler {
      type: "xavier"
    }
    bias_filler {
      type: "constant"
    }
  }
}
layer {
  name: "pool0"
  type: "Pooling"
  bottom: "conv0"
  top: "pool0"
  pooling_param {
    pool: MAX
    kernel_size: 2
    stride: 2
  }
}
layer {
  name: "conv1"
  type: "Convolution"
  bottom: "pool0"
  top: "conv1"
  param {
    lr_mult: 1
  }
  param {
    lr_mult: 2
  }
  convolution_param {
    num_output: 5
    kernel_size: 5
    stride: 1
    weight_filler {
      type: "xavier"
    }
    bias_filler {
      type: "constant"
    }
  }
}
layer {
  name: "pool1"
  type: "Pooling"
  bottom: "conv1"
  top: "pool1"
  pooling_param {
    pool: MAX
    kernel_size: 2
    stride: 2
  }
}
layer {
  name: "ip1"
  type: "InnerProduct"
  bottom: "pool1"
  top: "ip1"
  param {
    lr_mult: 1
  }
  param {
    lr_mult: 2
  }
  inner_product_param {
    num_output: 10
    weight_filler {
      type: "xavier"
    }
    bias_filler {
      type: "constant"
    }
  }
}
layer {
  name: "relu1"
  type: "ReLU"
  bottom: "ip1"
  top: "ip1"
}
layer {
  name: "loss"
  type: "SoftmaxWithLoss"
  bottom: "ip1"
  bottom: "label"
  top: "loss"
}
I0428 19:48:32.514159 26504 layer_factory.hpp:77] Creating layer mnist
I0428 19:48:32.514289 26504 db_lmdb.cpp:35] Opened lmdb examples/mnist/mnist_train_lmdb
I0428 19:48:32.514323 26504 net.cpp:86] Creating Layer mnist
I0428 19:48:32.514335 26504 net.cpp:382] mnist -> data
I0428 19:48:32.514365 26504 net.cpp:382] mnist -> label
I0428 19:48:32.515568 26504 data_layer.cpp:45] output data size: 64,1,28,28
I0428 19:48:32.518051 26504 net.cpp:124] Setting up mnist
I0428 19:48:32.518072 26504 net.cpp:131] Top shape: 64 1 28 28 (50176)
I0428 19:48:32.518101 26504 net.cpp:131] Top shape: 64 (64)
I0428 19:48:32.518110 26504 net.cpp:139] Memory required for data: 200960
I0428 19:48:32.518121 26504 layer_factory.hpp:77] Creating layer conv0
I0428 19:48:32.518143 26504 net.cpp:86] Creating Layer conv0
I0428 19:48:32.518152 26504 net.cpp:408] conv0 <- data
I0428 19:48:32.518173 26504 net.cpp:382] conv0 -> conv0
I0428 19:48:32.808033 26504 net.cpp:124] Setting up conv0
I0428 19:48:32.808068 26504 net.cpp:131] Top shape: 64 5 24 24 (184320)
I0428 19:48:32.808075 26504 net.cpp:139] Memory required for data: 938240
I0428 19:48:32.808099 26504 layer_factory.hpp:77] Creating layer pool0
I0428 19:48:32.808120 26504 net.cpp:86] Creating Layer pool0
I0428 19:48:32.808137 26504 net.cpp:408] pool0 <- conv0
I0428 19:48:32.808148 26504 net.cpp:382] pool0 -> pool0
I0428 19:48:32.808218 26504 net.cpp:124] Setting up pool0
I0428 19:48:32.808229 26504 net.cpp:131] Top shape: 64 5 12 12 (46080)
I0428 19:48:32.808257 26504 net.cpp:139] Memory required for data: 1122560
I0428 19:48:32.808264 26504 layer_factory.hpp:77] Creating layer conv1
I0428 19:48:32.808284 26504 net.cpp:86] Creating Layer conv1
I0428 19:48:32.808291 26504 net.cpp:408] conv1 <- pool0
I0428 19:48:32.808302 26504 net.cpp:382] conv1 -> conv1
I0428 19:48:32.811740 26504 net.cpp:124] Setting up conv1
I0428 19:48:32.811774 26504 net.cpp:131] Top shape: 64 5 8 8 (20480)
I0428 19:48:32.811784 26504 net.cpp:139] Memory required for data: 1204480
I0428 19:48:32.811808 26504 layer_factory.hpp:77] Creating layer pool1
I0428 19:48:32.811827 26504 net.cpp:86] Creating Layer pool1
I0428 19:48:32.811837 26504 net.cpp:408] pool1 <- conv1
I0428 19:48:32.811848 26504 net.cpp:382] pool1 -> pool1
I0428 19:48:32.811930 26504 net.cpp:124] Setting up pool1
I0428 19:48:32.811942 26504 net.cpp:131] Top shape: 64 5 4 4 (5120)
I0428 19:48:32.811951 26504 net.cpp:139] Memory required for data: 1224960
I0428 19:48:32.811957 26504 layer_factory.hpp:77] Creating layer ip1
I0428 19:48:32.811974 26504 net.cpp:86] Creating Layer ip1
I0428 19:48:32.811981 26504 net.cpp:408] ip1 <- pool1
I0428 19:48:32.811992 26504 net.cpp:382] ip1 -> ip1
I0428 19:48:32.812201 26504 net.cpp:124] Setting up ip1
I0428 19:48:32.812213 26504 net.cpp:131] Top shape: 64 10 (640)
I0428 19:48:32.812222 26504 net.cpp:139] Memory required for data: 1227520
I0428 19:48:32.812237 26504 layer_factory.hpp:77] Creating layer relu1
I0428 19:48:32.812249 26504 net.cpp:86] Creating Layer relu1
I0428 19:48:32.812258 26504 net.cpp:408] relu1 <- ip1
I0428 19:48:32.812268 26504 net.cpp:369] relu1 -> ip1 (in-place)
I0428 19:48:32.812609 26504 net.cpp:124] Setting up relu1
I0428 19:48:32.812626 26504 net.cpp:131] Top shape: 64 10 (640)
I0428 19:48:32.812634 26504 net.cpp:139] Memory required for data: 1230080
I0428 19:48:32.812641 26504 layer_factory.hpp:77] Creating layer loss
I0428 19:48:32.812654 26504 net.cpp:86] Creating Layer loss
I0428 19:48:32.812664 26504 net.cpp:408] loss <- ip1
I0428 19:48:32.812671 26504 net.cpp:408] loss <- label
I0428 19:48:32.812683 26504 net.cpp:382] loss -> loss
I0428 19:48:32.812718 26504 layer_factory.hpp:77] Creating layer loss
…
I0428 19:48:32.815038 26504 solver.cpp:173] Creating test net (#0) specified by net file: ECE595/mnist/train_test/var_everything2/lenet_train_test547.prototxt
I0428 19:48:32.815085 26504 net.cpp:296] The NetState phase (1) differed from the phase (0) specified by a rule in layer mnist
I0428 19:48:32.815237 26504 net.cpp:53] Initializing net from parameters: 
name: "LeNet"
state {
  phase: TEST
}
layer {
  name: "mnist"
  type: "Data"
  top: "data"
  top: "label"
  include {
    phase: TEST
  }
  transform_param {
    scale: 0.00390625
  }
  data_param {
    source: "examples/mnist/mnist_test_lmdb"
    batch_size: 100
    backend: LMDB
  }
}
layer {
  name: "conv0"
  type: "Convolution"
  bottom: "data"
  top: "conv0"
  param {
    lr_mult: 1
  }
  param {
    lr_mult: 2
  }
  convolution_param {
    num_output: 5
    kernel_size: 5
    stride: 1
    weight_filler {
      type: "xavier"
    }
    bias_filler {
      type: "constant"
    }
  }
}
layer {
  name: "pool0"
  type: "Pooling"
  bottom: "conv0"
  top: "pool0"
  pooling_param {
    pool: MAX
    kernel_size: 2
    stride: 2
  }
}
layer {
  name: "conv1"
  type: "Convolution"
  bottom: "pool0"
  top: "conv1"
  param {
    lr_mult: 1
  }
  param {
    lr_mult: 2
  }
  convolution_param {
    num_output: 5
    kernel_size: 5
    stride: 1
    weight_filler {
      type: "xavier"
    }
    bias_filler {
      type: "constant"
    }
  }
}
layer {
  name: "pool1"
  type: "Pooling"
  bottom: "conv1"
  top: "pool1"
  pooling_param {
    pool: MAX
    kernel_size: 2
    stride: 2
  }
}
layer {
  name: "ip1"
  type: "InnerProduct"
  bottom: "pool1"
  top: "ip1"
  param {
    lr_mult: 1
  }
  param {
    lr_mult: 2
  }
  inner_product_param {
    num_output: 10
    weight_filler {
      type: "xavier"
    }
    bias_filler {
      type: "constant"
    }
  }
}
layer {
  name: "relu1"
  type: "ReLU"
  bottom: "ip1"
  top: "ip1"
}
layer {
  name: "accuracy"
  type: "Accuracy"
  bottom: "ip1"
  bottom: "label"
  top: "accuracy"
  include {
    phase: TEST
  }
}
layer {
  name: "loss"
  type: "SoftmaxWithLoss"
  bottom: "ip1"
  bottom: "label"
  top: "loss"
}
I0428 19:48:32.815381 26504 layer_factory.hpp:77] Creating layer mnist
I0428 19:48:32.815459 26504 db_lmdb.cpp:35] Opened lmdb examples/mnist/mnist_test_lmdb
I0428 19:48:32.815488 26504 net.cpp:86] Creating Layer mnist
I0428 19:48:32.815498 26504 net.cpp:382] mnist -> data
I0428 19:48:32.815515 26504 net.cpp:382] mnist -> label
I0428 19:48:32.815685 26504 data_layer.cpp:45] output data size: 100,1,28,28
I0428 19:48:32.819187 26504 net.cpp:124] Setting up mnist
I0428 19:48:32.819214 26504 net.cpp:131] Top shape: 100 1 28 28 (78400)
I0428 19:48:32.819226 26504 net.cpp:131] Top shape: 100 (100)
I0428 19:48:32.819239 26504 net.cpp:139] Memory required for data: 314000
I0428 19:48:32.819247 26504 layer_factory.hpp:77] Creating layer label_mnist_1_split
I0428 19:48:32.819260 26504 net.cpp:86] Creating Layer label_mnist_1_split
I0428 19:48:32.819269 26504 net.cpp:408] label_mnist_1_split <- label
I0428 19:48:32.819280 26504 net.cpp:382] label_mnist_1_split -> label_mnist_1_split_0
I0428 19:48:32.819294 26504 net.cpp:382] label_mnist_1_split -> label_mnist_1_split_1
I0428 19:48:32.819399 26504 net.cpp:124] Setting up label_mnist_1_split
I0428 19:48:32.819413 26504 net.cpp:131] Top shape: 100 (100)
I0428 19:48:32.819422 26504 net.cpp:131] Top shape: 100 (100)
I0428 19:48:32.819427 26504 net.cpp:139] Memory required for data: 314800
I0428 19:48:32.819435 26504 layer_factory.hpp:77] Creating layer conv0
I0428 19:48:32.819453 26504 net.cpp:86] Creating Layer conv0
I0428 19:48:32.819461 26504 net.cpp:408] conv0 <- data
I0428 19:48:32.819473 26504 net.cpp:382] conv0 -> conv0
I0428 19:48:32.821202 26504 net.cpp:124] Setting up conv0
I0428 19:48:32.821226 26504 net.cpp:131] Top shape: 100 5 24 24 (288000)
I0428 19:48:32.821233 26504 net.cpp:139] Memory required for data: 1466800
I0428 19:48:32.821251 26504 layer_factory.hpp:77] Creating layer pool0
I0428 19:48:32.821264 26504 net.cpp:86] Creating Layer pool0
I0428 19:48:32.821272 26504 net.cpp:408] pool0 <- conv0
I0428 19:48:32.821290 26504 net.cpp:382] pool0 -> pool0
I0428 19:48:32.821364 26504 net.cpp:124] Setting up pool0
I0428 19:48:32.821379 26504 net.cpp:131] Top shape: 100 5 12 12 (72000)
I0428 19:48:32.821385 26504 net.cpp:139] Memory required for data: 1754800
I0428 19:48:32.821391 26504 layer_factory.hpp:77] Creating layer conv1
I0428 19:48:32.821411 26504 net.cpp:86] Creating Layer conv1
I0428 19:48:32.821419 26504 net.cpp:408] conv1 <- pool0
I0428 19:48:32.821430 26504 net.cpp:382] conv1 -> conv1
I0428 19:48:32.825150 26504 net.cpp:124] Setting up conv1
I0428 19:48:32.825176 26504 net.cpp:131] Top shape: 100 5 8 8 (32000)
I0428 19:48:32.825182 26504 net.cpp:139] Memory required for data: 1882800
I0428 19:48:32.825201 26504 layer_factory.hpp:77] Creating layer pool1
I0428 19:48:32.825217 26504 net.cpp:86] Creating Layer pool1
I0428 19:48:32.825244 26504 net.cpp:408] pool1 <- conv1
I0428 19:48:32.825254 26504 net.cpp:382] pool1 -> pool1
I0428 19:48:32.825335 26504 net.cpp:124] Setting up pool1
I0428 19:48:32.825348 26504 net.cpp:131] Top shape: 100 5 4 4 (8000)
I0428 19:48:32.825356 26504 net.cpp:139] Memory required for data: 1914800
I0428 19:48:32.825361 26504 layer_factory.hpp:77] Creating layer ip1
I0428 19:48:32.825374 26504 net.cpp:86] Creating Layer ip1
I0428 19:48:32.825382 26504 net.cpp:408] ip1 <- pool1
I0428 19:48:32.825392 26504 net.cpp:382] ip1 -> ip1
I0428 19:48:32.825594 26504 net.cpp:124] Setting up ip1
I0428 19:48:32.825608 26504 net.cpp:131] Top shape: 100 10 (1000)
I0428 19:48:32.825615 26504 net.cpp:139] Memory required for data: 1918800
I0428 19:48:32.825629 26504 layer_factory.hpp:77] Creating layer relu1
I0428 19:48:32.825642 26504 net.cpp:86] Creating Layer relu1
I0428 19:48:32.825650 26504 net.cpp:408] relu1 <- ip1
I0428 19:48:32.825659 26504 net.cpp:369] relu1 -> ip1 (in-place)
I0428 19:48:32.827038 26504 net.cpp:124] Setting up relu1
I0428 19:48:32.827062 26504 net.cpp:131] Top shape: 100 10 (1000)
I0428 19:48:32.827071 26504 net.cpp:139] Memory required for data: 1922800
I0428 19:48:32.827077 26504 layer_factory.hpp:77] Creating layer ip1_relu1_0_split
I0428 19:48:32.827090 26504 net.cpp:86] Creating Layer ip1_relu1_0_split
I0428 19:48:32.827098 26504 net.cpp:408] ip1_relu1_0_split <- ip1
I0428 19:48:32.827108 26504 net.cpp:382] ip1_relu1_0_split -> ip1_relu1_0_split_0
I0428 19:48:32.827122 26504 net.cpp:382] ip1_relu1_0_split -> ip1_relu1_0_split_1
I0428 19:48:32.827203 26504 net.cpp:124] Setting up ip1_relu1_0_split
I0428 19:48:32.827214 26504 net.cpp:131] Top shape: 100 10 (1000)
I0428 19:48:32.827224 26504 net.cpp:131] Top shape: 100 10 (1000)
I0428 19:48:32.827229 26504 net.cpp:139] Memory required for data: 1930800
I0428 19:48:32.827235 26504 layer_factory.hpp:77] Creating layer accuracy
I0428 19:48:32.827245 26504 net.cpp:86] Creating Layer accuracy
I0428 19:48:32.827253 26504 net.cpp:408] accuracy <- ip1_relu1_0_split_0
I0428 19:48:32.827261 26504 net.cpp:408] accuracy <- label_mnist_1_split_0
I0428 19:48:32.827273 26504 net.cpp:382] accuracy -> accuracy
…
