…
I0428 19:33:14.319689 23055 net.cpp:296] The NetState phase (0) differed from the phase (1) specified by a rule in layer mnist
I0428 19:33:14.319706 23055 net.cpp:296] The NetState phase (0) differed from the phase (1) specified by a rule in layer accuracy
I0428 19:33:14.319794 23055 net.cpp:53] Initializing net from parameters: 
name: "LeNet"
state {
  phase: TRAIN
  level: 0
  stage: ""
}
layer {
  name: "mnist"
  type: "Data"
  top: "data"
  top: "label"
  include {
    phase: TRAIN
  }
  transform_param {
    scale: 0.00390625
  }
  data_param {
    source: "examples/mnist/mnist_train_lmdb"
    batch_size: 64
    backend: LMDB
  }
}
layer {
  name: "conv0"
  type: "Convolution"
  bottom: "data"
  top: "conv0"
  param {
    lr_mult: 1
  }
  param {
    lr_mult: 2
  }
  convolution_param {
    num_output: 25
    kernel_size: 5
    stride: 1
    weight_filler {
      type: "xavier"
    }
    bias_filler {
      type: "constant"
    }
  }
}
layer {
  name: "pool0"
  type: "Pooling"
  bottom: "conv0"
  top: "pool0"
  pooling_param {
    pool: MAX
    kernel_size: 2
    stride: 2
  }
}
layer {
  name: "ip1"
  type: "InnerProduct"
  bottom: "pool0"
  top: "ip1"
  param {
    lr_mult: 1
  }
  param {
    lr_mult: 2
  }
  inner_product_param {
    num_output: 10
    weight_filler {
      type: "xavier"
    }
    bias_filler {
      type: "constant"
    }
  }
}
layer {
  name: "relu1"
  type: "ReLU"
  bottom: "ip1"
  top: "ip1"
}
layer {
  name: "ip2"
  type: "InnerProduct"
  bottom: "ip1"
  top: "ip2"
  param {
    lr_mult: 1
  }
  param {
    lr_mult: 2
  }
  inner_product_param {
    num_output: 50
    weight_filler {
      type: "xavier"
    }
    bias_filler {
      type: "constant"
    }
  }
}
layer {
  name: "relu2"
  type: "ReLU"
  bottom: "ip2"
  top: "ip2"
}
layer {
  name: "ip3"
  type: "InnerProduct"
  bottom: "ip2"
  top: "ip3"
  param {
    lr_mult: 1
  }
  param {
    lr_mult: 2
  }
  inner_product_param {
    num_output: 10
    weight_filler {
      type: "xavier"
    }
    bias_filler {
      type: "constant"
    }
  }
}
layer {
  name: "relu3"
  type: "ReLU"
  bottom: "ip3"
  top: "ip3"
}
layer {
  name: "loss"
  type: "SoftmaxWithLoss"
  bottom: "ip3"
  bottom: "label"
  top: "loss"
}
I0428 19:33:14.319871 23055 layer_factory.hpp:77] Creating layer mnist
I0428 19:33:14.319972 23055 db_lmdb.cpp:35] Opened lmdb examples/mnist/mnist_train_lmdb
I0428 19:33:14.319993 23055 net.cpp:86] Creating Layer mnist
I0428 19:33:14.320003 23055 net.cpp:382] mnist -> data
I0428 19:33:14.320024 23055 net.cpp:382] mnist -> label
I0428 19:33:14.321140 23055 data_layer.cpp:45] output data size: 64,1,28,28
I0428 19:33:14.323590 23055 net.cpp:124] Setting up mnist
I0428 19:33:14.323606 23055 net.cpp:131] Top shape: 64 1 28 28 (50176)
I0428 19:33:14.323612 23055 net.cpp:131] Top shape: 64 (64)
I0428 19:33:14.323616 23055 net.cpp:139] Memory required for data: 200960
I0428 19:33:14.323622 23055 layer_factory.hpp:77] Creating layer conv0
I0428 19:33:14.323659 23055 net.cpp:86] Creating Layer conv0
I0428 19:33:14.323667 23055 net.cpp:408] conv0 <- data
I0428 19:33:14.323678 23055 net.cpp:382] conv0 -> conv0
I0428 19:33:14.607652 23055 net.cpp:124] Setting up conv0
I0428 19:33:14.607679 23055 net.cpp:131] Top shape: 64 25 24 24 (921600)
I0428 19:33:14.607683 23055 net.cpp:139] Memory required for data: 3887360
I0428 19:33:14.607698 23055 layer_factory.hpp:77] Creating layer pool0
I0428 19:33:14.607710 23055 net.cpp:86] Creating Layer pool0
I0428 19:33:14.607733 23055 net.cpp:408] pool0 <- conv0
I0428 19:33:14.607739 23055 net.cpp:382] pool0 -> pool0
I0428 19:33:14.607785 23055 net.cpp:124] Setting up pool0
I0428 19:33:14.607792 23055 net.cpp:131] Top shape: 64 25 12 12 (230400)
I0428 19:33:14.607795 23055 net.cpp:139] Memory required for data: 4808960
I0428 19:33:14.607797 23055 layer_factory.hpp:77] Creating layer ip1
I0428 19:33:14.607806 23055 net.cpp:86] Creating Layer ip1
I0428 19:33:14.607808 23055 net.cpp:408] ip1 <- pool0
I0428 19:33:14.607815 23055 net.cpp:382] ip1 -> ip1
I0428 19:33:14.608117 23055 net.cpp:124] Setting up ip1
I0428 19:33:14.608140 23055 net.cpp:131] Top shape: 64 10 (640)
I0428 19:33:14.608157 23055 net.cpp:139] Memory required for data: 4811520
I0428 19:33:14.608163 23055 layer_factory.hpp:77] Creating layer relu1
I0428 19:33:14.608191 23055 net.cpp:86] Creating Layer relu1
I0428 19:33:14.608194 23055 net.cpp:408] relu1 <- ip1
I0428 19:33:14.608216 23055 net.cpp:369] relu1 -> ip1 (in-place)
I0428 19:33:14.608402 23055 net.cpp:124] Setting up relu1
I0428 19:33:14.608410 23055 net.cpp:131] Top shape: 64 10 (640)
I0428 19:33:14.608413 23055 net.cpp:139] Memory required for data: 4814080
I0428 19:33:14.608417 23055 layer_factory.hpp:77] Creating layer ip2
I0428 19:33:14.608423 23055 net.cpp:86] Creating Layer ip2
I0428 19:33:14.608427 23055 net.cpp:408] ip2 <- ip1
I0428 19:33:14.608433 23055 net.cpp:382] ip2 -> ip2
I0428 19:33:14.608532 23055 net.cpp:124] Setting up ip2
I0428 19:33:14.608539 23055 net.cpp:131] Top shape: 64 50 (3200)
I0428 19:33:14.608542 23055 net.cpp:139] Memory required for data: 4826880
I0428 19:33:14.608549 23055 layer_factory.hpp:77] Creating layer relu2
I0428 19:33:14.608554 23055 net.cpp:86] Creating Layer relu2
I0428 19:33:14.608557 23055 net.cpp:408] relu2 <- ip2
I0428 19:33:14.608562 23055 net.cpp:369] relu2 -> ip2 (in-place)
I0428 19:33:14.609411 23055 net.cpp:124] Setting up relu2
I0428 19:33:14.609424 23055 net.cpp:131] Top shape: 64 50 (3200)
I0428 19:33:14.609427 23055 net.cpp:139] Memory required for data: 4839680
I0428 19:33:14.609431 23055 layer_factory.hpp:77] Creating layer ip3
I0428 19:33:14.609438 23055 net.cpp:86] Creating Layer ip3
I0428 19:33:14.609441 23055 net.cpp:408] ip3 <- ip2
I0428 19:33:14.609447 23055 net.cpp:382] ip3 -> ip3
I0428 19:33:14.609549 23055 net.cpp:124] Setting up ip3
I0428 19:33:14.609555 23055 net.cpp:131] Top shape: 64 10 (640)
I0428 19:33:14.609558 23055 net.cpp:139] Memory required for data: 4842240
I0428 19:33:14.609563 23055 layer_factory.hpp:77] Creating layer relu3
I0428 19:33:14.609570 23055 net.cpp:86] Creating Layer relu3
I0428 19:33:14.609572 23055 net.cpp:408] relu3 <- ip3
I0428 19:33:14.609577 23055 net.cpp:369] relu3 -> ip3 (in-place)
I0428 19:33:14.609732 23055 net.cpp:124] Setting up relu3
I0428 19:33:14.609740 23055 net.cpp:131] Top shape: 64 10 (640)
I0428 19:33:14.609743 23055 net.cpp:139] Memory required for data: 4844800
I0428 19:33:14.609746 23055 layer_factory.hpp:77] Creating layer loss
I0428 19:33:14.609752 23055 net.cpp:86] Creating Layer loss
I0428 19:33:14.609755 23055 net.cpp:408] loss <- ip3
I0428 19:33:14.609758 23055 net.cpp:408] loss <- label
I0428 19:33:14.609764 23055 net.cpp:382] loss -> loss
I0428 19:33:14.609778 23055 layer_factory.hpp:77] Creating layer loss
…
I0428 19:33:14.610426 23055 solver.cpp:173] Creating test net (#0) specified by net file: ECE595/mnist/train_test/var_everything2/lenet_train_test174.prototxt
I0428 19:33:14.610466 23055 net.cpp:296] The NetState phase (1) differed from the phase (0) specified by a rule in layer mnist
I0428 19:33:14.610543 23055 net.cpp:53] Initializing net from parameters: 
name: "LeNet"
state {
  phase: TEST
}
layer {
  name: "mnist"
  type: "Data"
  top: "data"
  top: "label"
  include {
    phase: TEST
  }
  transform_param {
    scale: 0.00390625
  }
  data_param {
    source: "examples/mnist/mnist_test_lmdb"
    batch_size: 100
    backend: LMDB
  }
}
layer {
  name: "conv0"
  type: "Convolution"
  bottom: "data"
  top: "conv0"
  param {
    lr_mult: 1
  }
  param {
    lr_mult: 2
  }
  convolution_param {
    num_output: 25
    kernel_size: 5
    stride: 1
    weight_filler {
      type: "xavier"
    }
    bias_filler {
      type: "constant"
    }
  }
}
layer {
  name: "pool0"
  type: "Pooling"
  bottom: "conv0"
  top: "pool0"
  pooling_param {
    pool: MAX
    kernel_size: 2
    stride: 2
  }
}
layer {
  name: "ip1"
  type: "InnerProduct"
  bottom: "pool0"
  top: "ip1"
  param {
    lr_mult: 1
  }
  param {
    lr_mult: 2
  }
  inner_product_param {
    num_output: 10
    weight_filler {
      type: "xavier"
    }
    bias_filler {
      type: "constant"
    }
  }
}
layer {
  name: "relu1"
  type: "ReLU"
  bottom: "ip1"
  top: "ip1"
}
layer {
  name: "ip2"
  type: "InnerProduct"
  bottom: "ip1"
  top: "ip2"
  param {
    lr_mult: 1
  }
  param {
    lr_mult: 2
  }
  inner_product_param {
    num_output: 50
    weight_filler {
      type: "xavier"
    }
    bias_filler {
      type: "constant"
    }
  }
}
layer {
  name: "relu2"
  type: "ReLU"
  bottom: "ip2"
  top: "ip2"
}
layer {
  name: "ip3"
  type: "InnerProduct"
  bottom: "ip2"
  top: "ip3"
  param {
    lr_mult: 1
  }
  param {
    lr_mult: 2
  }
  inner_product_param {
    num_output: 10
    weight_filler {
      type: "xavier"
    }
    bias_filler {
      type: "constant"
    }
  }
}
layer {
  name: "relu3"
  type: "ReLU"
  bottom: "ip3"
  top: "ip3"
}
layer {
  name: "accuracy"
  type: "Accuracy"
  bottom: "ip3"
  bottom: "label"
  top: "accuracy"
  include {
    phase: TEST
  }
}
layer {
  name: "loss"
  type: "SoftmaxWithLoss"
  bottom: "ip3"
  bottom: "label"
  top: "loss"
}
I0428 19:33:14.610610 23055 layer_factory.hpp:77] Creating layer mnist
I0428 19:33:14.610656 23055 db_lmdb.cpp:35] Opened lmdb examples/mnist/mnist_test_lmdb
I0428 19:33:14.610667 23055 net.cpp:86] Creating Layer mnist
I0428 19:33:14.610671 23055 net.cpp:382] mnist -> data
I0428 19:33:14.610682 23055 net.cpp:382] mnist -> label
I0428 19:33:14.610765 23055 data_layer.cpp:45] output data size: 100,1,28,28
I0428 19:33:14.612692 23055 net.cpp:124] Setting up mnist
I0428 19:33:14.612705 23055 net.cpp:131] Top shape: 100 1 28 28 (78400)
I0428 19:33:14.612709 23055 net.cpp:131] Top shape: 100 (100)
I0428 19:33:14.612712 23055 net.cpp:139] Memory required for data: 314000
I0428 19:33:14.612716 23055 layer_factory.hpp:77] Creating layer label_mnist_1_split
I0428 19:33:14.612722 23055 net.cpp:86] Creating Layer label_mnist_1_split
I0428 19:33:14.612725 23055 net.cpp:408] label_mnist_1_split <- label
I0428 19:33:14.612730 23055 net.cpp:382] label_mnist_1_split -> label_mnist_1_split_0
I0428 19:33:14.612763 23055 net.cpp:382] label_mnist_1_split -> label_mnist_1_split_1
I0428 19:33:14.612802 23055 net.cpp:124] Setting up label_mnist_1_split
I0428 19:33:14.612807 23055 net.cpp:131] Top shape: 100 (100)
I0428 19:33:14.612817 23055 net.cpp:131] Top shape: 100 (100)
I0428 19:33:14.612819 23055 net.cpp:139] Memory required for data: 314800
I0428 19:33:14.612831 23055 layer_factory.hpp:77] Creating layer conv0
I0428 19:33:14.612843 23055 net.cpp:86] Creating Layer conv0
I0428 19:33:14.612848 23055 net.cpp:408] conv0 <- data
I0428 19:33:14.612851 23055 net.cpp:382] conv0 -> conv0
I0428 19:33:14.614727 23055 net.cpp:124] Setting up conv0
I0428 19:33:14.614740 23055 net.cpp:131] Top shape: 100 25 24 24 (1440000)
I0428 19:33:14.614743 23055 net.cpp:139] Memory required for data: 6074800
I0428 19:33:14.614753 23055 layer_factory.hpp:77] Creating layer pool0
I0428 19:33:14.614759 23055 net.cpp:86] Creating Layer pool0
I0428 19:33:14.614763 23055 net.cpp:408] pool0 <- conv0
I0428 19:33:14.614768 23055 net.cpp:382] pool0 -> pool0
I0428 19:33:14.614802 23055 net.cpp:124] Setting up pool0
I0428 19:33:14.614806 23055 net.cpp:131] Top shape: 100 25 12 12 (360000)
I0428 19:33:14.614809 23055 net.cpp:139] Memory required for data: 7514800
I0428 19:33:14.614812 23055 layer_factory.hpp:77] Creating layer ip1
I0428 19:33:14.614820 23055 net.cpp:86] Creating Layer ip1
I0428 19:33:14.614822 23055 net.cpp:408] ip1 <- pool0
I0428 19:33:14.614827 23055 net.cpp:382] ip1 -> ip1
I0428 19:33:14.615126 23055 net.cpp:124] Setting up ip1
I0428 19:33:14.615134 23055 net.cpp:131] Top shape: 100 10 (1000)
I0428 19:33:14.615137 23055 net.cpp:139] Memory required for data: 7518800
I0428 19:33:14.615144 23055 layer_factory.hpp:77] Creating layer relu1
I0428 19:33:14.615149 23055 net.cpp:86] Creating Layer relu1
I0428 19:33:14.615152 23055 net.cpp:408] relu1 <- ip1
I0428 19:33:14.615156 23055 net.cpp:369] relu1 -> ip1 (in-place)
I0428 19:33:14.615329 23055 net.cpp:124] Setting up relu1
I0428 19:33:14.615336 23055 net.cpp:131] Top shape: 100 10 (1000)
I0428 19:33:14.615339 23055 net.cpp:139] Memory required for data: 7522800
I0428 19:33:14.615342 23055 layer_factory.hpp:77] Creating layer ip2
I0428 19:33:14.615347 23055 net.cpp:86] Creating Layer ip2
I0428 19:33:14.615350 23055 net.cpp:408] ip2 <- ip1
I0428 19:33:14.615356 23055 net.cpp:382] ip2 -> ip2
I0428 19:33:14.615469 23055 net.cpp:124] Setting up ip2
I0428 19:33:14.615478 23055 net.cpp:131] Top shape: 100 50 (5000)
I0428 19:33:14.615480 23055 net.cpp:139] Memory required for data: 7542800
I0428 19:33:14.615489 23055 layer_factory.hpp:77] Creating layer relu2
I0428 19:33:14.615494 23055 net.cpp:86] Creating Layer relu2
I0428 19:33:14.615496 23055 net.cpp:408] relu2 <- ip2
I0428 19:33:14.615502 23055 net.cpp:369] relu2 -> ip2 (in-place)
I0428 19:33:14.616343 23055 net.cpp:124] Setting up relu2
I0428 19:33:14.616355 23055 net.cpp:131] Top shape: 100 50 (5000)
I0428 19:33:14.616359 23055 net.cpp:139] Memory required for data: 7562800
I0428 19:33:14.616363 23055 layer_factory.hpp:77] Creating layer ip3
I0428 19:33:14.616370 23055 net.cpp:86] Creating Layer ip3
I0428 19:33:14.616374 23055 net.cpp:408] ip3 <- ip2
I0428 19:33:14.616379 23055 net.cpp:382] ip3 -> ip3
I0428 19:33:14.616534 23055 net.cpp:124] Setting up ip3
I0428 19:33:14.616542 23055 net.cpp:131] Top shape: 100 10 (1000)
I0428 19:33:14.616545 23055 net.cpp:139] Memory required for data: 7566800
I0428 19:33:14.616550 23055 layer_factory.hpp:77] Creating layer relu3
I0428 19:33:14.616556 23055 net.cpp:86] Creating Layer relu3
I0428 19:33:14.616559 23055 net.cpp:408] relu3 <- ip3
I0428 19:33:14.616564 23055 net.cpp:369] relu3 -> ip3 (in-place)
I0428 19:33:14.616740 23055 net.cpp:124] Setting up relu3
I0428 19:33:14.616749 23055 net.cpp:131] Top shape: 100 10 (1000)
I0428 19:33:14.616752 23055 net.cpp:139] Memory required for data: 7570800
I0428 19:33:14.616756 23055 layer_factory.hpp:77] Creating layer ip3_relu3_0_split
I0428 19:33:14.616761 23055 net.cpp:86] Creating Layer ip3_relu3_0_split
I0428 19:33:14.616765 23055 net.cpp:408] ip3_relu3_0_split <- ip3
I0428 19:33:14.616783 23055 net.cpp:382] ip3_relu3_0_split -> ip3_relu3_0_split_0
I0428 19:33:14.616789 23055 net.cpp:382] ip3_relu3_0_split -> ip3_relu3_0_split_1
I0428 19:33:14.616860 23055 net.cpp:124] Setting up ip3_relu3_0_split
I0428 19:33:14.616873 23055 net.cpp:131] Top shape: 100 10 (1000)
I0428 19:33:14.616878 23055 net.cpp:131] Top shape: 100 10 (1000)
I0428 19:33:14.616889 23055 net.cpp:139] Memory required for data: 7578800
I0428 19:33:14.616892 23055 layer_factory.hpp:77] Creating layer accuracy
I0428 19:33:14.616897 23055 net.cpp:86] Creating Layer accuracy
I0428 19:33:14.616900 23055 net.cpp:408] accuracy <- ip3_relu3_0_split_0
I0428 19:33:14.616904 23055 net.cpp:408] accuracy <- label_mnist_1_split_0
I0428 19:33:14.616910 23055 net.cpp:382] accuracy -> accuracy
…
