…
I0428 19:59:42.260195 29303 net.cpp:296] The NetState phase (0) differed from the phase (1) specified by a rule in layer mnist
I0428 19:59:42.260208 29303 net.cpp:296] The NetState phase (0) differed from the phase (1) specified by a rule in layer accuracy
I0428 19:59:42.260285 29303 net.cpp:53] Initializing net from parameters: 
name: "LeNet"
state {
  phase: TRAIN
  level: 0
  stage: ""
}
layer {
  name: "mnist"
  type: "Data"
  top: "data"
  top: "label"
  include {
    phase: TRAIN
  }
  transform_param {
    scale: 0.00390625
  }
  data_param {
    source: "examples/mnist/mnist_train_lmdb"
    batch_size: 64
    backend: LMDB
  }
}
layer {
  name: "conv0"
  type: "Convolution"
  bottom: "data"
  top: "conv0"
  param {
    lr_mult: 1
  }
  param {
    lr_mult: 2
  }
  convolution_param {
    num_output: 10
    kernel_size: 5
    stride: 1
    weight_filler {
      type: "xavier"
    }
    bias_filler {
      type: "constant"
    }
  }
}
layer {
  name: "pool0"
  type: "Pooling"
  bottom: "conv0"
  top: "pool0"
  pooling_param {
    pool: MAX
    kernel_size: 2
    stride: 2
  }
}
layer {
  name: "conv1"
  type: "Convolution"
  bottom: "pool0"
  top: "conv1"
  param {
    lr_mult: 1
  }
  param {
    lr_mult: 2
  }
  convolution_param {
    num_output: 10
    kernel_size: 5
    stride: 1
    weight_filler {
      type: "xavier"
    }
    bias_filler {
      type: "constant"
    }
  }
}
layer {
  name: "pool1"
  type: "Pooling"
  bottom: "conv1"
  top: "pool1"
  pooling_param {
    pool: MAX
    kernel_size: 2
    stride: 2
  }
}
layer {
  name: "ip1"
  type: "InnerProduct"
  bottom: "pool1"
  top: "ip1"
  param {
    lr_mult: 1
  }
  param {
    lr_mult: 2
  }
  inner_product_param {
    num_output: 50
    weight_filler {
      type: "xavier"
    }
    bias_filler {
      type: "constant"
    }
  }
}
layer {
  name: "relu1"
  type: "ReLU"
  bottom: "ip1"
  top: "ip1"
}
layer {
  name: "ip2"
  type: "InnerProduct"
  bottom: "ip1"
  top: "ip2"
  param {
    lr_mult: 1
  }
  param {
    lr_mult: 2
  }
  inner_product_param {
    num_output: 50
    weight_filler {
      type: "xavier"
    }
    bias_filler {
      type: "constant"
    }
  }
}
layer {
  name: "relu2"
  type: "ReLU"
  bottom: "ip2"
  top: "ip2"
}
layer {
  name: "ip3"
  type: "InnerProduct"
  bottom: "ip2"
  top: "ip3"
  param {
    lr_mult: 1
  }
  param {
    lr_mult: 2
  }
  inner_product_param {
    num_output: 10
    weight_filler {
      type: "xavier"
    }
    bias_filler {
      type: "constant"
    }
  }
}
layer {
  name: "relu3"
  type: "ReLU"
  bottom: "ip3"
  top: "ip3"
}
layer {
  name: "loss"
  type: "SoftmaxWithLoss"
  bottom: "ip3"
  bottom: "label"
  top: "loss"
}
I0428 19:59:42.260344 29303 layer_factory.hpp:77] Creating layer mnist
I0428 19:59:42.260426 29303 db_lmdb.cpp:35] Opened lmdb examples/mnist/mnist_train_lmdb
I0428 19:59:42.260444 29303 net.cpp:86] Creating Layer mnist
I0428 19:59:42.260450 29303 net.cpp:382] mnist -> data
I0428 19:59:42.260468 29303 net.cpp:382] mnist -> label
I0428 19:59:42.261428 29303 data_layer.cpp:45] output data size: 64,1,28,28
I0428 19:59:42.263907 29303 net.cpp:124] Setting up mnist
I0428 19:59:42.263923 29303 net.cpp:131] Top shape: 64 1 28 28 (50176)
I0428 19:59:42.263929 29303 net.cpp:131] Top shape: 64 (64)
I0428 19:59:42.263933 29303 net.cpp:139] Memory required for data: 200960
I0428 19:59:42.263939 29303 layer_factory.hpp:77] Creating layer conv0
I0428 19:59:42.263954 29303 net.cpp:86] Creating Layer conv0
I0428 19:59:42.263973 29303 net.cpp:408] conv0 <- data
I0428 19:59:42.263984 29303 net.cpp:382] conv0 -> conv0
I0428 19:59:42.499598 29303 net.cpp:124] Setting up conv0
I0428 19:59:42.499624 29303 net.cpp:131] Top shape: 64 10 24 24 (368640)
I0428 19:59:42.499629 29303 net.cpp:139] Memory required for data: 1675520
I0428 19:59:42.499658 29303 layer_factory.hpp:77] Creating layer pool0
I0428 19:59:42.499670 29303 net.cpp:86] Creating Layer pool0
I0428 19:59:42.499675 29303 net.cpp:408] pool0 <- conv0
I0428 19:59:42.499680 29303 net.cpp:382] pool0 -> pool0
I0428 19:59:42.499723 29303 net.cpp:124] Setting up pool0
I0428 19:59:42.499730 29303 net.cpp:131] Top shape: 64 10 12 12 (92160)
I0428 19:59:42.499733 29303 net.cpp:139] Memory required for data: 2044160
I0428 19:59:42.499737 29303 layer_factory.hpp:77] Creating layer conv1
I0428 19:59:42.499747 29303 net.cpp:86] Creating Layer conv1
I0428 19:59:42.499749 29303 net.cpp:408] conv1 <- pool0
I0428 19:59:42.499753 29303 net.cpp:382] conv1 -> conv1
I0428 19:59:42.502568 29303 net.cpp:124] Setting up conv1
I0428 19:59:42.502583 29303 net.cpp:131] Top shape: 64 10 8 8 (40960)
I0428 19:59:42.502586 29303 net.cpp:139] Memory required for data: 2208000
I0428 19:59:42.502614 29303 layer_factory.hpp:77] Creating layer pool1
I0428 19:59:42.502624 29303 net.cpp:86] Creating Layer pool1
I0428 19:59:42.502627 29303 net.cpp:408] pool1 <- conv1
I0428 19:59:42.502632 29303 net.cpp:382] pool1 -> pool1
I0428 19:59:42.502668 29303 net.cpp:124] Setting up pool1
I0428 19:59:42.502676 29303 net.cpp:131] Top shape: 64 10 4 4 (10240)
I0428 19:59:42.502677 29303 net.cpp:139] Memory required for data: 2248960
I0428 19:59:42.502681 29303 layer_factory.hpp:77] Creating layer ip1
I0428 19:59:42.502687 29303 net.cpp:86] Creating Layer ip1
I0428 19:59:42.502691 29303 net.cpp:408] ip1 <- pool1
I0428 19:59:42.502694 29303 net.cpp:382] ip1 -> ip1
I0428 19:59:42.503723 29303 net.cpp:124] Setting up ip1
I0428 19:59:42.503736 29303 net.cpp:131] Top shape: 64 50 (3200)
I0428 19:59:42.503756 29303 net.cpp:139] Memory required for data: 2261760
I0428 19:59:42.503764 29303 layer_factory.hpp:77] Creating layer relu1
I0428 19:59:42.503775 29303 net.cpp:86] Creating Layer relu1
I0428 19:59:42.503779 29303 net.cpp:408] relu1 <- ip1
I0428 19:59:42.503784 29303 net.cpp:369] relu1 -> ip1 (in-place)
I0428 19:59:42.503999 29303 net.cpp:124] Setting up relu1
I0428 19:59:42.504007 29303 net.cpp:131] Top shape: 64 50 (3200)
I0428 19:59:42.504010 29303 net.cpp:139] Memory required for data: 2274560
I0428 19:59:42.504014 29303 layer_factory.hpp:77] Creating layer ip2
I0428 19:59:42.504020 29303 net.cpp:86] Creating Layer ip2
I0428 19:59:42.504022 29303 net.cpp:408] ip2 <- ip1
I0428 19:59:42.504027 29303 net.cpp:382] ip2 -> ip2
I0428 19:59:42.504137 29303 net.cpp:124] Setting up ip2
I0428 19:59:42.504142 29303 net.cpp:131] Top shape: 64 50 (3200)
I0428 19:59:42.504145 29303 net.cpp:139] Memory required for data: 2287360
I0428 19:59:42.504151 29303 layer_factory.hpp:77] Creating layer relu2
I0428 19:59:42.504156 29303 net.cpp:86] Creating Layer relu2
I0428 19:59:42.504160 29303 net.cpp:408] relu2 <- ip2
I0428 19:59:42.504163 29303 net.cpp:369] relu2 -> ip2 (in-place)
I0428 19:59:42.504992 29303 net.cpp:124] Setting up relu2
I0428 19:59:42.505018 29303 net.cpp:131] Top shape: 64 50 (3200)
I0428 19:59:42.505022 29303 net.cpp:139] Memory required for data: 2300160
I0428 19:59:42.505025 29303 layer_factory.hpp:77] Creating layer ip3
I0428 19:59:42.505031 29303 net.cpp:86] Creating Layer ip3
I0428 19:59:42.505034 29303 net.cpp:408] ip3 <- ip2
I0428 19:59:42.505039 29303 net.cpp:382] ip3 -> ip3
I0428 19:59:42.505132 29303 net.cpp:124] Setting up ip3
I0428 19:59:42.505139 29303 net.cpp:131] Top shape: 64 10 (640)
I0428 19:59:42.505142 29303 net.cpp:139] Memory required for data: 2302720
I0428 19:59:42.505151 29303 layer_factory.hpp:77] Creating layer relu3
I0428 19:59:42.505154 29303 net.cpp:86] Creating Layer relu3
I0428 19:59:42.505157 29303 net.cpp:408] relu3 <- ip3
I0428 19:59:42.505162 29303 net.cpp:369] relu3 -> ip3 (in-place)
I0428 19:59:42.505339 29303 net.cpp:124] Setting up relu3
I0428 19:59:42.505348 29303 net.cpp:131] Top shape: 64 10 (640)
I0428 19:59:42.505352 29303 net.cpp:139] Memory required for data: 2305280
I0428 19:59:42.505354 29303 layer_factory.hpp:77] Creating layer loss
I0428 19:59:42.505359 29303 net.cpp:86] Creating Layer loss
I0428 19:59:42.505362 29303 net.cpp:408] loss <- ip3
I0428 19:59:42.505367 29303 net.cpp:408] loss <- label
I0428 19:59:42.505372 29303 net.cpp:382] loss -> loss
I0428 19:59:42.505385 29303 layer_factory.hpp:77] Creating layer loss
…
I0428 19:59:42.506037 29303 solver.cpp:173] Creating test net (#0) specified by net file: ECE595/mnist/train_test/var_everything2/lenet_train_test855.prototxt
I0428 19:59:42.506078 29303 net.cpp:296] The NetState phase (1) differed from the phase (0) specified by a rule in layer mnist
I0428 19:59:42.506176 29303 net.cpp:53] Initializing net from parameters: 
name: "LeNet"
state {
  phase: TEST
}
layer {
  name: "mnist"
  type: "Data"
  top: "data"
  top: "label"
  include {
    phase: TEST
  }
  transform_param {
    scale: 0.00390625
  }
  data_param {
    source: "examples/mnist/mnist_test_lmdb"
    batch_size: 100
    backend: LMDB
  }
}
layer {
  name: "conv0"
  type: "Convolution"
  bottom: "data"
  top: "conv0"
  param {
    lr_mult: 1
  }
  param {
    lr_mult: 2
  }
  convolution_param {
    num_output: 10
    kernel_size: 5
    stride: 1
    weight_filler {
      type: "xavier"
    }
    bias_filler {
      type: "constant"
    }
  }
}
layer {
  name: "pool0"
  type: "Pooling"
  bottom: "conv0"
  top: "pool0"
  pooling_param {
    pool: MAX
    kernel_size: 2
    stride: 2
  }
}
layer {
  name: "conv1"
  type: "Convolution"
  bottom: "pool0"
  top: "conv1"
  param {
    lr_mult: 1
  }
  param {
    lr_mult: 2
  }
  convolution_param {
    num_output: 10
    kernel_size: 5
    stride: 1
    weight_filler {
      type: "xavier"
    }
    bias_filler {
      type: "constant"
    }
  }
}
layer {
  name: "pool1"
  type: "Pooling"
  bottom: "conv1"
  top: "pool1"
  pooling_param {
    pool: MAX
    kernel_size: 2
    stride: 2
  }
}
layer {
  name: "ip1"
  type: "InnerProduct"
  bottom: "pool1"
  top: "ip1"
  param {
    lr_mult: 1
  }
  param {
    lr_mult: 2
  }
  inner_product_param {
    num_output: 50
    weight_filler {
      type: "xavier"
    }
    bias_filler {
      type: "constant"
    }
  }
}
layer {
  name: "relu1"
  type: "ReLU"
  bottom: "ip1"
  top: "ip1"
}
layer {
  name: "ip2"
  type: "InnerProduct"
  bottom: "ip1"
  top: "ip2"
  param {
    lr_mult: 1
  }
  param {
    lr_mult: 2
  }
  inner_product_param {
    num_output: 50
    weight_filler {
      type: "xavier"
    }
    bias_filler {
      type: "constant"
    }
  }
}
layer {
  name: "relu2"
  type: "ReLU"
  bottom: "ip2"
  top: "ip2"
}
layer {
  name: "ip3"
  type: "InnerProduct"
  bottom: "ip2"
  top: "ip3"
  param {
    lr_mult: 1
  }
  param {
    lr_mult: 2
  }
  inner_product_param {
    num_output: 10
    weight_filler {
      type: "xavier"
    }
    bias_filler {
      type: "constant"
    }
  }
}
layer {
  name: "relu3"
  type: "ReLU"
  bottom: "ip3"
  top: "ip3"
}
layer {
  name: "accuracy"
  type: "Accuracy"
  bottom: "ip3"
  bottom: "label"
  top: "accuracy"
  include {
    phase: TEST
  }
}
layer {
  name: "loss"
  type: "SoftmaxWithLoss"
  bottom: "ip3"
  bottom: "label"
  top: "loss"
}
I0428 19:59:42.506248 29303 layer_factory.hpp:77] Creating layer mnist
I0428 19:59:42.506291 29303 db_lmdb.cpp:35] Opened lmdb examples/mnist/mnist_test_lmdb
I0428 19:59:42.506302 29303 net.cpp:86] Creating Layer mnist
I0428 19:59:42.506306 29303 net.cpp:382] mnist -> data
I0428 19:59:42.506314 29303 net.cpp:382] mnist -> label
I0428 19:59:42.506392 29303 data_layer.cpp:45] output data size: 100,1,28,28
I0428 19:59:42.508517 29303 net.cpp:124] Setting up mnist
I0428 19:59:42.508528 29303 net.cpp:131] Top shape: 100 1 28 28 (78400)
I0428 19:59:42.508549 29303 net.cpp:131] Top shape: 100 (100)
I0428 19:59:42.508553 29303 net.cpp:139] Memory required for data: 314000
I0428 19:59:42.508570 29303 layer_factory.hpp:77] Creating layer label_mnist_1_split
I0428 19:59:42.508576 29303 net.cpp:86] Creating Layer label_mnist_1_split
I0428 19:59:42.508579 29303 net.cpp:408] label_mnist_1_split <- label
I0428 19:59:42.508584 29303 net.cpp:382] label_mnist_1_split -> label_mnist_1_split_0
I0428 19:59:42.508591 29303 net.cpp:382] label_mnist_1_split -> label_mnist_1_split_1
I0428 19:59:42.508633 29303 net.cpp:124] Setting up label_mnist_1_split
I0428 19:59:42.508640 29303 net.cpp:131] Top shape: 100 (100)
I0428 19:59:42.508643 29303 net.cpp:131] Top shape: 100 (100)
I0428 19:59:42.508646 29303 net.cpp:139] Memory required for data: 314800
I0428 19:59:42.508649 29303 layer_factory.hpp:77] Creating layer conv0
I0428 19:59:42.508656 29303 net.cpp:86] Creating Layer conv0
I0428 19:59:42.508661 29303 net.cpp:408] conv0 <- data
I0428 19:59:42.508664 29303 net.cpp:382] conv0 -> conv0
I0428 19:59:42.510537 29303 net.cpp:124] Setting up conv0
I0428 19:59:42.510566 29303 net.cpp:131] Top shape: 100 10 24 24 (576000)
I0428 19:59:42.510571 29303 net.cpp:139] Memory required for data: 2618800
I0428 19:59:42.510579 29303 layer_factory.hpp:77] Creating layer pool0
I0428 19:59:42.510586 29303 net.cpp:86] Creating Layer pool0
I0428 19:59:42.510589 29303 net.cpp:408] pool0 <- conv0
I0428 19:59:42.510594 29303 net.cpp:382] pool0 -> pool0
I0428 19:59:42.510630 29303 net.cpp:124] Setting up pool0
I0428 19:59:42.510637 29303 net.cpp:131] Top shape: 100 10 12 12 (144000)
I0428 19:59:42.510640 29303 net.cpp:139] Memory required for data: 3194800
I0428 19:59:42.510644 29303 layer_factory.hpp:77] Creating layer conv1
I0428 19:59:42.510653 29303 net.cpp:86] Creating Layer conv1
I0428 19:59:42.510656 29303 net.cpp:408] conv1 <- pool0
I0428 19:59:42.510660 29303 net.cpp:382] conv1 -> conv1
I0428 19:59:42.512854 29303 net.cpp:124] Setting up conv1
I0428 19:59:42.512868 29303 net.cpp:131] Top shape: 100 10 8 8 (64000)
I0428 19:59:42.512873 29303 net.cpp:139] Memory required for data: 3450800
I0428 19:59:42.512898 29303 layer_factory.hpp:77] Creating layer pool1
I0428 19:59:42.512907 29303 net.cpp:86] Creating Layer pool1
I0428 19:59:42.512910 29303 net.cpp:408] pool1 <- conv1
I0428 19:59:42.512925 29303 net.cpp:382] pool1 -> pool1
I0428 19:59:42.512969 29303 net.cpp:124] Setting up pool1
I0428 19:59:42.512975 29303 net.cpp:131] Top shape: 100 10 4 4 (16000)
I0428 19:59:42.512979 29303 net.cpp:139] Memory required for data: 3514800
I0428 19:59:42.512982 29303 layer_factory.hpp:77] Creating layer ip1
I0428 19:59:42.512989 29303 net.cpp:86] Creating Layer ip1
I0428 19:59:42.512992 29303 net.cpp:408] ip1 <- pool1
I0428 19:59:42.513010 29303 net.cpp:382] ip1 -> ip1
I0428 19:59:42.513177 29303 net.cpp:124] Setting up ip1
I0428 19:59:42.513185 29303 net.cpp:131] Top shape: 100 50 (5000)
I0428 19:59:42.513201 29303 net.cpp:139] Memory required for data: 3534800
I0428 19:59:42.513209 29303 layer_factory.hpp:77] Creating layer relu1
I0428 19:59:42.513216 29303 net.cpp:86] Creating Layer relu1
I0428 19:59:42.513218 29303 net.cpp:408] relu1 <- ip1
I0428 19:59:42.513223 29303 net.cpp:369] relu1 -> ip1 (in-place)
I0428 19:59:42.513447 29303 net.cpp:124] Setting up relu1
I0428 19:59:42.513455 29303 net.cpp:131] Top shape: 100 50 (5000)
I0428 19:59:42.513460 29303 net.cpp:139] Memory required for data: 3554800
I0428 19:59:42.513463 29303 layer_factory.hpp:77] Creating layer ip2
I0428 19:59:42.513471 29303 net.cpp:86] Creating Layer ip2
I0428 19:59:42.513475 29303 net.cpp:408] ip2 <- ip1
I0428 19:59:42.513481 29303 net.cpp:382] ip2 -> ip2
I0428 19:59:42.513600 29303 net.cpp:124] Setting up ip2
I0428 19:59:42.513608 29303 net.cpp:131] Top shape: 100 50 (5000)
I0428 19:59:42.513612 29303 net.cpp:139] Memory required for data: 3574800
I0428 19:59:42.513617 29303 layer_factory.hpp:77] Creating layer relu2
I0428 19:59:42.513622 29303 net.cpp:86] Creating Layer relu2
I0428 19:59:42.513625 29303 net.cpp:408] relu2 <- ip2
I0428 19:59:42.513630 29303 net.cpp:369] relu2 -> ip2 (in-place)
I0428 19:59:42.513799 29303 net.cpp:124] Setting up relu2
I0428 19:59:42.513808 29303 net.cpp:131] Top shape: 100 50 (5000)
I0428 19:59:42.513811 29303 net.cpp:139] Memory required for data: 3594800
I0428 19:59:42.513815 29303 layer_factory.hpp:77] Creating layer ip3
I0428 19:59:42.513820 29303 net.cpp:86] Creating Layer ip3
I0428 19:59:42.513823 29303 net.cpp:408] ip3 <- ip2
I0428 19:59:42.513828 29303 net.cpp:382] ip3 -> ip3
I0428 19:59:42.513927 29303 net.cpp:124] Setting up ip3
I0428 19:59:42.513934 29303 net.cpp:131] Top shape: 100 10 (1000)
I0428 19:59:42.513937 29303 net.cpp:139] Memory required for data: 3598800
I0428 19:59:42.513945 29303 layer_factory.hpp:77] Creating layer relu3
I0428 19:59:42.513950 29303 net.cpp:86] Creating Layer relu3
I0428 19:59:42.513953 29303 net.cpp:408] relu3 <- ip3
I0428 19:59:42.513957 29303 net.cpp:369] relu3 -> ip3 (in-place)
I0428 19:59:42.514760 29303 net.cpp:124] Setting up relu3
I0428 19:59:42.514772 29303 net.cpp:131] Top shape: 100 10 (1000)
I0428 19:59:42.514791 29303 net.cpp:139] Memory required for data: 3602800
I0428 19:59:42.514796 29303 layer_factory.hpp:77] Creating layer ip3_relu3_0_split
I0428 19:59:42.514819 29303 net.cpp:86] Creating Layer ip3_relu3_0_split
I0428 19:59:42.514823 29303 net.cpp:408] ip3_relu3_0_split <- ip3
I0428 19:59:42.514828 29303 net.cpp:382] ip3_relu3_0_split -> ip3_relu3_0_split_0
I0428 19:59:42.514835 29303 net.cpp:382] ip3_relu3_0_split -> ip3_relu3_0_split_1
I0428 19:59:42.514904 29303 net.cpp:124] Setting up ip3_relu3_0_split
I0428 19:59:42.514910 29303 net.cpp:131] Top shape: 100 10 (1000)
I0428 19:59:42.514914 29303 net.cpp:131] Top shape: 100 10 (1000)
I0428 19:59:42.514917 29303 net.cpp:139] Memory required for data: 3610800
I0428 19:59:42.514921 29303 layer_factory.hpp:77] Creating layer accuracy
I0428 19:59:42.514926 29303 net.cpp:86] Creating Layer accuracy
I0428 19:59:42.514930 29303 net.cpp:408] accuracy <- ip3_relu3_0_split_0
I0428 19:59:42.514935 29303 net.cpp:408] accuracy <- label_mnist_1_split_0
I0428 19:59:42.514940 29303 net.cpp:382] accuracy -> accuracy
…
