…
I0428 19:50:55.110821 27151 net.cpp:296] The NetState phase (0) differed from the phase (1) specified by a rule in layer mnist
I0428 19:50:55.110839 27151 net.cpp:296] The NetState phase (0) differed from the phase (1) specified by a rule in layer accuracy
I0428 19:50:55.110934 27151 net.cpp:53] Initializing net from parameters: 
name: "LeNet"
state {
  phase: TRAIN
  level: 0
  stage: ""
}
layer {
  name: "mnist"
  type: "Data"
  top: "data"
  top: "label"
  include {
    phase: TRAIN
  }
  transform_param {
    scale: 0.00390625
  }
  data_param {
    source: "examples/mnist/mnist_train_lmdb"
    batch_size: 64
    backend: LMDB
  }
}
layer {
  name: "conv0"
  type: "Convolution"
  bottom: "data"
  top: "conv0"
  param {
    lr_mult: 1
  }
  param {
    lr_mult: 2
  }
  convolution_param {
    num_output: 5
    kernel_size: 5
    stride: 1
    weight_filler {
      type: "xavier"
    }
    bias_filler {
      type: "constant"
    }
  }
}
layer {
  name: "pool0"
  type: "Pooling"
  bottom: "conv0"
  top: "pool0"
  pooling_param {
    pool: MAX
    kernel_size: 2
    stride: 2
  }
}
layer {
  name: "conv1"
  type: "Convolution"
  bottom: "pool0"
  top: "conv1"
  param {
    lr_mult: 1
  }
  param {
    lr_mult: 2
  }
  convolution_param {
    num_output: 10
    kernel_size: 5
    stride: 1
    weight_filler {
      type: "xavier"
    }
    bias_filler {
      type: "constant"
    }
  }
}
layer {
  name: "pool1"
  type: "Pooling"
  bottom: "conv1"
  top: "pool1"
  pooling_param {
    pool: MAX
    kernel_size: 2
    stride: 2
  }
}
layer {
  name: "ip1"
  type: "InnerProduct"
  bottom: "pool1"
  top: "ip1"
  param {
    lr_mult: 1
  }
  param {
    lr_mult: 2
  }
  inner_product_param {
    num_output: 50
    weight_filler {
      type: "xavier"
    }
    bias_filler {
      type: "constant"
    }
  }
}
layer {
  name: "relu1"
  type: "ReLU"
  bottom: "ip1"
  top: "ip1"
}
layer {
  name: "ip2"
  type: "InnerProduct"
  bottom: "ip1"
  top: "ip2"
  param {
    lr_mult: 1
  }
  param {
    lr_mult: 2
  }
  inner_product_param {
    num_output: 25
    weight_filler {
      type: "xavier"
    }
    bias_filler {
      type: "constant"
    }
  }
}
layer {
  name: "relu2"
  type: "ReLU"
  bottom: "ip2"
  top: "ip2"
}
layer {
  name: "ip3"
  type: "InnerProduct"
  bottom: "ip2"
  top: "ip3"
  param {
    lr_mult: 1
  }
  param {
    lr_mult: 2
  }
  inner_product_param {
    num_output: 10
    weight_filler {
      type: "xavier"
    }
    bias_filler {
      type: "constant"
    }
  }
}
layer {
  name: "relu3"
  type: "ReLU"
  bottom: "ip3"
  top: "ip3"
}
layer {
  name: "loss"
  type: "SoftmaxWithLoss"
  bottom: "ip3"
  bottom: "label"
  top: "loss"
}
I0428 19:50:55.111006 27151 layer_factory.hpp:77] Creating layer mnist
I0428 19:50:55.111093 27151 db_lmdb.cpp:35] Opened lmdb examples/mnist/mnist_train_lmdb
I0428 19:50:55.111114 27151 net.cpp:86] Creating Layer mnist
I0428 19:50:55.111121 27151 net.cpp:382] mnist -> data
I0428 19:50:55.111140 27151 net.cpp:382] mnist -> label
I0428 19:50:55.112105 27151 data_layer.cpp:45] output data size: 64,1,28,28
I0428 19:50:55.114490 27151 net.cpp:124] Setting up mnist
I0428 19:50:55.114522 27151 net.cpp:131] Top shape: 64 1 28 28 (50176)
I0428 19:50:55.114528 27151 net.cpp:131] Top shape: 64 (64)
I0428 19:50:55.114531 27151 net.cpp:139] Memory required for data: 200960
I0428 19:50:55.114537 27151 layer_factory.hpp:77] Creating layer conv0
I0428 19:50:55.114553 27151 net.cpp:86] Creating Layer conv0
I0428 19:50:55.114573 27151 net.cpp:408] conv0 <- data
I0428 19:50:55.114583 27151 net.cpp:382] conv0 -> conv0
I0428 19:50:55.349375 27151 net.cpp:124] Setting up conv0
I0428 19:50:55.349416 27151 net.cpp:131] Top shape: 64 5 24 24 (184320)
I0428 19:50:55.349419 27151 net.cpp:139] Memory required for data: 938240
I0428 19:50:55.349434 27151 layer_factory.hpp:77] Creating layer pool0
I0428 19:50:55.349447 27151 net.cpp:86] Creating Layer pool0
I0428 19:50:55.349452 27151 net.cpp:408] pool0 <- conv0
I0428 19:50:55.349472 27151 net.cpp:382] pool0 -> pool0
I0428 19:50:55.349521 27151 net.cpp:124] Setting up pool0
I0428 19:50:55.349531 27151 net.cpp:131] Top shape: 64 5 12 12 (46080)
I0428 19:50:55.349534 27151 net.cpp:139] Memory required for data: 1122560
I0428 19:50:55.349537 27151 layer_factory.hpp:77] Creating layer conv1
I0428 19:50:55.349548 27151 net.cpp:86] Creating Layer conv1
I0428 19:50:55.349551 27151 net.cpp:408] conv1 <- pool0
I0428 19:50:55.349556 27151 net.cpp:382] conv1 -> conv1
I0428 19:50:55.352391 27151 net.cpp:124] Setting up conv1
I0428 19:50:55.352419 27151 net.cpp:131] Top shape: 64 10 8 8 (40960)
I0428 19:50:55.352423 27151 net.cpp:139] Memory required for data: 1286400
I0428 19:50:55.352432 27151 layer_factory.hpp:77] Creating layer pool1
I0428 19:50:55.352440 27151 net.cpp:86] Creating Layer pool1
I0428 19:50:55.352444 27151 net.cpp:408] pool1 <- conv1
I0428 19:50:55.352448 27151 net.cpp:382] pool1 -> pool1
I0428 19:50:55.352517 27151 net.cpp:124] Setting up pool1
I0428 19:50:55.352540 27151 net.cpp:131] Top shape: 64 10 4 4 (10240)
I0428 19:50:55.352543 27151 net.cpp:139] Memory required for data: 1327360
I0428 19:50:55.352546 27151 layer_factory.hpp:77] Creating layer ip1
I0428 19:50:55.352553 27151 net.cpp:86] Creating Layer ip1
I0428 19:50:55.352556 27151 net.cpp:408] ip1 <- pool1
I0428 19:50:55.352562 27151 net.cpp:382] ip1 -> ip1
I0428 19:50:55.353584 27151 net.cpp:124] Setting up ip1
I0428 19:50:55.353610 27151 net.cpp:131] Top shape: 64 50 (3200)
I0428 19:50:55.353615 27151 net.cpp:139] Memory required for data: 1340160
I0428 19:50:55.353637 27151 layer_factory.hpp:77] Creating layer relu1
I0428 19:50:55.353644 27151 net.cpp:86] Creating Layer relu1
I0428 19:50:55.353648 27151 net.cpp:408] relu1 <- ip1
I0428 19:50:55.353653 27151 net.cpp:369] relu1 -> ip1 (in-place)
I0428 19:50:55.353839 27151 net.cpp:124] Setting up relu1
I0428 19:50:55.353849 27151 net.cpp:131] Top shape: 64 50 (3200)
I0428 19:50:55.353868 27151 net.cpp:139] Memory required for data: 1352960
I0428 19:50:55.353870 27151 layer_factory.hpp:77] Creating layer ip2
I0428 19:50:55.353878 27151 net.cpp:86] Creating Layer ip2
I0428 19:50:55.353883 27151 net.cpp:408] ip2 <- ip1
I0428 19:50:55.353886 27151 net.cpp:382] ip2 -> ip2
I0428 19:50:55.354012 27151 net.cpp:124] Setting up ip2
I0428 19:50:55.354019 27151 net.cpp:131] Top shape: 64 25 (1600)
I0428 19:50:55.354022 27151 net.cpp:139] Memory required for data: 1359360
I0428 19:50:55.354027 27151 layer_factory.hpp:77] Creating layer relu2
I0428 19:50:55.354033 27151 net.cpp:86] Creating Layer relu2
I0428 19:50:55.354037 27151 net.cpp:408] relu2 <- ip2
I0428 19:50:55.354041 27151 net.cpp:369] relu2 -> ip2 (in-place)
I0428 19:50:55.354807 27151 net.cpp:124] Setting up relu2
I0428 19:50:55.354820 27151 net.cpp:131] Top shape: 64 25 (1600)
I0428 19:50:55.354840 27151 net.cpp:139] Memory required for data: 1365760
I0428 19:50:55.354842 27151 layer_factory.hpp:77] Creating layer ip3
I0428 19:50:55.354866 27151 net.cpp:86] Creating Layer ip3
I0428 19:50:55.354869 27151 net.cpp:408] ip3 <- ip2
I0428 19:50:55.354874 27151 net.cpp:382] ip3 -> ip3
I0428 19:50:55.354977 27151 net.cpp:124] Setting up ip3
I0428 19:50:55.354986 27151 net.cpp:131] Top shape: 64 10 (640)
I0428 19:50:55.354990 27151 net.cpp:139] Memory required for data: 1368320
I0428 19:50:55.354997 27151 layer_factory.hpp:77] Creating layer relu3
I0428 19:50:55.355005 27151 net.cpp:86] Creating Layer relu3
I0428 19:50:55.355008 27151 net.cpp:408] relu3 <- ip3
I0428 19:50:55.355012 27151 net.cpp:369] relu3 -> ip3 (in-place)
I0428 19:50:55.355219 27151 net.cpp:124] Setting up relu3
I0428 19:50:55.355228 27151 net.cpp:131] Top shape: 64 10 (640)
I0428 19:50:55.355232 27151 net.cpp:139] Memory required for data: 1370880
I0428 19:50:55.355234 27151 layer_factory.hpp:77] Creating layer loss
I0428 19:50:55.355242 27151 net.cpp:86] Creating Layer loss
I0428 19:50:55.355245 27151 net.cpp:408] loss <- ip3
I0428 19:50:55.355249 27151 net.cpp:408] loss <- label
I0428 19:50:55.355254 27151 net.cpp:382] loss -> loss
I0428 19:50:55.355273 27151 layer_factory.hpp:77] Creating layer loss
…
I0428 19:50:55.355976 27151 solver.cpp:173] Creating test net (#0) specified by net file: ECE595/mnist/train_test/var_everything2/lenet_train_test618.prototxt
I0428 19:50:55.356019 27151 net.cpp:296] The NetState phase (1) differed from the phase (0) specified by a rule in layer mnist
I0428 19:50:55.356158 27151 net.cpp:53] Initializing net from parameters: 
name: "LeNet"
state {
  phase: TEST
}
layer {
  name: "mnist"
  type: "Data"
  top: "data"
  top: "label"
  include {
    phase: TEST
  }
  transform_param {
    scale: 0.00390625
  }
  data_param {
    source: "examples/mnist/mnist_test_lmdb"
    batch_size: 100
    backend: LMDB
  }
}
layer {
  name: "conv0"
  type: "Convolution"
  bottom: "data"
  top: "conv0"
  param {
    lr_mult: 1
  }
  param {
    lr_mult: 2
  }
  convolution_param {
    num_output: 5
    kernel_size: 5
    stride: 1
    weight_filler {
      type: "xavier"
    }
    bias_filler {
      type: "constant"
    }
  }
}
layer {
  name: "pool0"
  type: "Pooling"
  bottom: "conv0"
  top: "pool0"
  pooling_param {
    pool: MAX
    kernel_size: 2
    stride: 2
  }
}
layer {
  name: "conv1"
  type: "Convolution"
  bottom: "pool0"
  top: "conv1"
  param {
    lr_mult: 1
  }
  param {
    lr_mult: 2
  }
  convolution_param {
    num_output: 10
    kernel_size: 5
    stride: 1
    weight_filler {
      type: "xavier"
    }
    bias_filler {
      type: "constant"
    }
  }
}
layer {
  name: "pool1"
  type: "Pooling"
  bottom: "conv1"
  top: "pool1"
  pooling_param {
    pool: MAX
    kernel_size: 2
    stride: 2
  }
}
layer {
  name: "ip1"
  type: "InnerProduct"
  bottom: "pool1"
  top: "ip1"
  param {
    lr_mult: 1
  }
  param {
    lr_mult: 2
  }
  inner_product_param {
    num_output: 50
    weight_filler {
      type: "xavier"
    }
    bias_filler {
      type: "constant"
    }
  }
}
layer {
  name: "relu1"
  type: "ReLU"
  bottom: "ip1"
  top: "ip1"
}
layer {
  name: "ip2"
  type: "InnerProduct"
  bottom: "ip1"
  top: "ip2"
  param {
    lr_mult: 1
  }
  param {
    lr_mult: 2
  }
  inner_product_param {
    num_output: 25
    weight_filler {
      type: "xavier"
    }
    bias_filler {
      type: "constant"
    }
  }
}
layer {
  name: "relu2"
  type: "ReLU"
  bottom: "ip2"
  top: "ip2"
}
layer {
  name: "ip3"
  type: "InnerProduct"
  bottom: "ip2"
  top: "ip3"
  param {
    lr_mult: 1
  }
  param {
    lr_mult: 2
  }
  inner_product_param {
    num_output: 10
    weight_filler {
      type: "xavier"
    }
    bias_filler {
      type: "constant"
    }
  }
}
layer {
  name: "relu3"
  type: "ReLU"
  bottom: "ip3"
  top: "ip3"
}
layer {
  name: "accuracy"
  type: "Accuracy"
  bottom: "ip3"
  bottom: "label"
  top: "accuracy"
  include {
    phase: TEST
  }
}
layer {
  name: "loss"
  type: "SoftmaxWithLoss"
  bottom: "ip3"
  bottom: "label"
  top: "loss"
}
I0428 19:50:55.356242 27151 layer_factory.hpp:77] Creating layer mnist
I0428 19:50:55.356290 27151 db_lmdb.cpp:35] Opened lmdb examples/mnist/mnist_test_lmdb
I0428 19:50:55.356302 27151 net.cpp:86] Creating Layer mnist
I0428 19:50:55.356308 27151 net.cpp:382] mnist -> data
I0428 19:50:55.356317 27151 net.cpp:382] mnist -> label
I0428 19:50:55.356420 27151 data_layer.cpp:45] output data size: 100,1,28,28
I0428 19:50:55.358491 27151 net.cpp:124] Setting up mnist
I0428 19:50:55.358505 27151 net.cpp:131] Top shape: 100 1 28 28 (78400)
I0428 19:50:55.358525 27151 net.cpp:131] Top shape: 100 (100)
I0428 19:50:55.358527 27151 net.cpp:139] Memory required for data: 314000
I0428 19:50:55.358531 27151 layer_factory.hpp:77] Creating layer label_mnist_1_split
I0428 19:50:55.358541 27151 net.cpp:86] Creating Layer label_mnist_1_split
I0428 19:50:55.358544 27151 net.cpp:408] label_mnist_1_split <- label
I0428 19:50:55.358551 27151 net.cpp:382] label_mnist_1_split -> label_mnist_1_split_0
I0428 19:50:55.358557 27151 net.cpp:382] label_mnist_1_split -> label_mnist_1_split_1
I0428 19:50:55.358649 27151 net.cpp:124] Setting up label_mnist_1_split
I0428 19:50:55.358656 27151 net.cpp:131] Top shape: 100 (100)
I0428 19:50:55.358660 27151 net.cpp:131] Top shape: 100 (100)
I0428 19:50:55.358664 27151 net.cpp:139] Memory required for data: 314800
I0428 19:50:55.358666 27151 layer_factory.hpp:77] Creating layer conv0
I0428 19:50:55.358677 27151 net.cpp:86] Creating Layer conv0
I0428 19:50:55.358680 27151 net.cpp:408] conv0 <- data
I0428 19:50:55.358685 27151 net.cpp:382] conv0 -> conv0
I0428 19:50:55.360394 27151 net.cpp:124] Setting up conv0
I0428 19:50:55.360406 27151 net.cpp:131] Top shape: 100 5 24 24 (288000)
I0428 19:50:55.360425 27151 net.cpp:139] Memory required for data: 1466800
I0428 19:50:55.360433 27151 layer_factory.hpp:77] Creating layer pool0
I0428 19:50:55.360441 27151 net.cpp:86] Creating Layer pool0
I0428 19:50:55.360445 27151 net.cpp:408] pool0 <- conv0
I0428 19:50:55.360450 27151 net.cpp:382] pool0 -> pool0
I0428 19:50:55.360501 27151 net.cpp:124] Setting up pool0
I0428 19:50:55.360507 27151 net.cpp:131] Top shape: 100 5 12 12 (72000)
I0428 19:50:55.360508 27151 net.cpp:139] Memory required for data: 1754800
I0428 19:50:55.360512 27151 layer_factory.hpp:77] Creating layer conv1
I0428 19:50:55.360519 27151 net.cpp:86] Creating Layer conv1
I0428 19:50:55.360522 27151 net.cpp:408] conv1 <- pool0
I0428 19:50:55.360528 27151 net.cpp:382] conv1 -> conv1
I0428 19:50:55.362768 27151 net.cpp:124] Setting up conv1
I0428 19:50:55.362797 27151 net.cpp:131] Top shape: 100 10 8 8 (64000)
I0428 19:50:55.362817 27151 net.cpp:139] Memory required for data: 2010800
I0428 19:50:55.362843 27151 layer_factory.hpp:77] Creating layer pool1
I0428 19:50:55.362848 27151 net.cpp:86] Creating Layer pool1
I0428 19:50:55.362853 27151 net.cpp:408] pool1 <- conv1
I0428 19:50:55.362857 27151 net.cpp:382] pool1 -> pool1
I0428 19:50:55.362898 27151 net.cpp:124] Setting up pool1
I0428 19:50:55.362905 27151 net.cpp:131] Top shape: 100 10 4 4 (16000)
I0428 19:50:55.362908 27151 net.cpp:139] Memory required for data: 2074800
I0428 19:50:55.362911 27151 layer_factory.hpp:77] Creating layer ip1
I0428 19:50:55.362916 27151 net.cpp:86] Creating Layer ip1
I0428 19:50:55.362920 27151 net.cpp:408] ip1 <- pool1
I0428 19:50:55.362926 27151 net.cpp:382] ip1 -> ip1
I0428 19:50:55.363122 27151 net.cpp:124] Setting up ip1
I0428 19:50:55.363147 27151 net.cpp:131] Top shape: 100 50 (5000)
I0428 19:50:55.363158 27151 net.cpp:139] Memory required for data: 2094800
I0428 19:50:55.363165 27151 layer_factory.hpp:77] Creating layer relu1
I0428 19:50:55.363173 27151 net.cpp:86] Creating Layer relu1
I0428 19:50:55.363175 27151 net.cpp:408] relu1 <- ip1
I0428 19:50:55.363179 27151 net.cpp:369] relu1 -> ip1 (in-place)
I0428 19:50:55.363391 27151 net.cpp:124] Setting up relu1
I0428 19:50:55.363400 27151 net.cpp:131] Top shape: 100 50 (5000)
I0428 19:50:55.363404 27151 net.cpp:139] Memory required for data: 2114800
I0428 19:50:55.363407 27151 layer_factory.hpp:77] Creating layer ip2
I0428 19:50:55.363415 27151 net.cpp:86] Creating Layer ip2
I0428 19:50:55.363418 27151 net.cpp:408] ip2 <- ip1
I0428 19:50:55.363423 27151 net.cpp:382] ip2 -> ip2
I0428 19:50:55.363561 27151 net.cpp:124] Setting up ip2
I0428 19:50:55.363569 27151 net.cpp:131] Top shape: 100 25 (2500)
I0428 19:50:55.363571 27151 net.cpp:139] Memory required for data: 2124800
I0428 19:50:55.363577 27151 layer_factory.hpp:77] Creating layer relu2
I0428 19:50:55.363582 27151 net.cpp:86] Creating Layer relu2
I0428 19:50:55.363585 27151 net.cpp:408] relu2 <- ip2
I0428 19:50:55.363590 27151 net.cpp:369] relu2 -> ip2 (in-place)
I0428 19:50:55.363745 27151 net.cpp:124] Setting up relu2
I0428 19:50:55.363754 27151 net.cpp:131] Top shape: 100 25 (2500)
I0428 19:50:55.363771 27151 net.cpp:139] Memory required for data: 2134800
I0428 19:50:55.363775 27151 layer_factory.hpp:77] Creating layer ip3
I0428 19:50:55.363782 27151 net.cpp:86] Creating Layer ip3
I0428 19:50:55.363785 27151 net.cpp:408] ip3 <- ip2
I0428 19:50:55.363791 27151 net.cpp:382] ip3 -> ip3
I0428 19:50:55.363919 27151 net.cpp:124] Setting up ip3
I0428 19:50:55.363942 27151 net.cpp:131] Top shape: 100 10 (1000)
I0428 19:50:55.363946 27151 net.cpp:139] Memory required for data: 2138800
I0428 19:50:55.363955 27151 layer_factory.hpp:77] Creating layer relu3
I0428 19:50:55.363958 27151 net.cpp:86] Creating Layer relu3
I0428 19:50:55.363962 27151 net.cpp:408] relu3 <- ip3
I0428 19:50:55.363967 27151 net.cpp:369] relu3 -> ip3 (in-place)
I0428 19:50:55.364900 27151 net.cpp:124] Setting up relu3
I0428 19:50:55.364912 27151 net.cpp:131] Top shape: 100 10 (1000)
I0428 19:50:55.364931 27151 net.cpp:139] Memory required for data: 2142800
I0428 19:50:55.364935 27151 layer_factory.hpp:77] Creating layer ip3_relu3_0_split
I0428 19:50:55.364940 27151 net.cpp:86] Creating Layer ip3_relu3_0_split
I0428 19:50:55.364944 27151 net.cpp:408] ip3_relu3_0_split <- ip3
I0428 19:50:55.364950 27151 net.cpp:382] ip3_relu3_0_split -> ip3_relu3_0_split_0
I0428 19:50:55.364971 27151 net.cpp:382] ip3_relu3_0_split -> ip3_relu3_0_split_1
I0428 19:50:55.365010 27151 net.cpp:124] Setting up ip3_relu3_0_split
I0428 19:50:55.365017 27151 net.cpp:131] Top shape: 100 10 (1000)
I0428 19:50:55.365021 27151 net.cpp:131] Top shape: 100 10 (1000)
I0428 19:50:55.365025 27151 net.cpp:139] Memory required for data: 2150800
I0428 19:50:55.365027 27151 layer_factory.hpp:77] Creating layer accuracy
I0428 19:50:55.365032 27151 net.cpp:86] Creating Layer accuracy
I0428 19:50:55.365036 27151 net.cpp:408] accuracy <- ip3_relu3_0_split_0
I0428 19:50:55.365041 27151 net.cpp:408] accuracy <- label_mnist_1_split_0
I0428 19:50:55.365044 27151 net.cpp:382] accuracy -> accuracy
…
