…
I0428 20:19:17.221035  1329 net.cpp:296] The NetState phase (0) differed from the phase (1) specified by a rule in layer mnist
I0428 20:19:17.221052  1329 net.cpp:296] The NetState phase (0) differed from the phase (1) specified by a rule in layer accuracy
I0428 20:19:17.221150  1329 net.cpp:53] Initializing net from parameters: 
name: "LeNet"
state {
  phase: TRAIN
  level: 0
  stage: ""
}
layer {
  name: "mnist"
  type: "Data"
  top: "data"
  top: "label"
  include {
    phase: TRAIN
  }
  transform_param {
    scale: 0.00390625
  }
  data_param {
    source: "examples/mnist/mnist_train_lmdb"
    batch_size: 64
    backend: LMDB
  }
}
layer {
  name: "conv0"
  type: "Convolution"
  bottom: "data"
  top: "conv0"
  param {
    lr_mult: 1
  }
  param {
    lr_mult: 2
  }
  convolution_param {
    num_output: 50
    kernel_size: 5
    stride: 1
    weight_filler {
      type: "xavier"
    }
    bias_filler {
      type: "constant"
    }
  }
}
layer {
  name: "pool0"
  type: "Pooling"
  bottom: "conv0"
  top: "pool0"
  pooling_param {
    pool: MAX
    kernel_size: 2
    stride: 2
  }
}
layer {
  name: "conv1"
  type: "Convolution"
  bottom: "pool0"
  top: "conv1"
  param {
    lr_mult: 1
  }
  param {
    lr_mult: 2
  }
  convolution_param {
    num_output: 25
    kernel_size: 5
    stride: 1
    weight_filler {
      type: "xavier"
    }
    bias_filler {
      type: "constant"
    }
  }
}
layer {
  name: "pool1"
  type: "Pooling"
  bottom: "conv1"
  top: "pool1"
  pooling_param {
    pool: MAX
    kernel_size: 2
    stride: 2
  }
}
layer {
  name: "ip1"
  type: "InnerProduct"
  bottom: "pool1"
  top: "ip1"
  param {
    lr_mult: 1
  }
  param {
    lr_mult: 2
  }
  inner_product_param {
    num_output: 10
    weight_filler {
      type: "xavier"
    }
    bias_filler {
      type: "constant"
    }
  }
}
layer {
  name: "relu1"
  type: "ReLU"
  bottom: "ip1"
  top: "ip1"
}
layer {
  name: "ip2"
  type: "InnerProduct"
  bottom: "ip1"
  top: "ip2"
  param {
    lr_mult: 1
  }
  param {
    lr_mult: 2
  }
  inner_product_param {
    num_output: 10
    weight_filler {
      type: "xavier"
    }
    bias_filler {
      type: "constant"
    }
  }
}
layer {
  name: "relu2"
  type: "ReLU"
  bottom: "ip2"
  top: "ip2"
}
layer {
  name: "ip3"
  type: "InnerProduct"
  bottom: "ip2"
  top: "ip3"
  param {
    lr_mult: 1
  }
  param {
    lr_mult: 2
  }
  inner_product_param {
    num_output: 10
    weight_filler {
      type: "xavier"
    }
    bias_filler {
      type: "constant"
    }
  }
}
layer {
  name: "relu3"
  type: "ReLU"
  bottom: "ip3"
  top: "ip3"
}
layer {
  name: "loss"
  type: "SoftmaxWithLoss"
  bottom: "ip3"
  bottom: "label"
  top: "loss"
}
I0428 20:19:17.221223  1329 layer_factory.hpp:77] Creating layer mnist
I0428 20:19:17.221328  1329 db_lmdb.cpp:35] Opened lmdb examples/mnist/mnist_train_lmdb
I0428 20:19:17.221354  1329 net.cpp:86] Creating Layer mnist
I0428 20:19:17.221362  1329 net.cpp:382] mnist -> data
I0428 20:19:17.221385  1329 net.cpp:382] mnist -> label
I0428 20:19:17.222486  1329 data_layer.cpp:45] output data size: 64,1,28,28
I0428 20:19:17.224936  1329 net.cpp:124] Setting up mnist
I0428 20:19:17.224953  1329 net.cpp:131] Top shape: 64 1 28 28 (50176)
I0428 20:19:17.224959  1329 net.cpp:131] Top shape: 64 (64)
I0428 20:19:17.224963  1329 net.cpp:139] Memory required for data: 200960
I0428 20:19:17.224970  1329 layer_factory.hpp:77] Creating layer conv0
I0428 20:19:17.224987  1329 net.cpp:86] Creating Layer conv0
I0428 20:19:17.225014  1329 net.cpp:408] conv0 <- data
I0428 20:19:17.225033  1329 net.cpp:382] conv0 -> conv0
I0428 20:19:17.497210  1329 net.cpp:124] Setting up conv0
I0428 20:19:17.497236  1329 net.cpp:131] Top shape: 64 50 24 24 (1843200)
I0428 20:19:17.497239  1329 net.cpp:139] Memory required for data: 7573760
I0428 20:19:17.497252  1329 layer_factory.hpp:77] Creating layer pool0
I0428 20:19:17.497264  1329 net.cpp:86] Creating Layer pool0
I0428 20:19:17.497284  1329 net.cpp:408] pool0 <- conv0
I0428 20:19:17.497289  1329 net.cpp:382] pool0 -> pool0
I0428 20:19:17.497349  1329 net.cpp:124] Setting up pool0
I0428 20:19:17.497357  1329 net.cpp:131] Top shape: 64 50 12 12 (460800)
I0428 20:19:17.497360  1329 net.cpp:139] Memory required for data: 9416960
I0428 20:19:17.497362  1329 layer_factory.hpp:77] Creating layer conv1
I0428 20:19:17.497375  1329 net.cpp:86] Creating Layer conv1
I0428 20:19:17.497377  1329 net.cpp:408] conv1 <- pool0
I0428 20:19:17.497382  1329 net.cpp:382] conv1 -> conv1
I0428 20:19:17.499601  1329 net.cpp:124] Setting up conv1
I0428 20:19:17.499631  1329 net.cpp:131] Top shape: 64 25 8 8 (102400)
I0428 20:19:17.499635  1329 net.cpp:139] Memory required for data: 9826560
I0428 20:19:17.499644  1329 layer_factory.hpp:77] Creating layer pool1
I0428 20:19:17.499652  1329 net.cpp:86] Creating Layer pool1
I0428 20:19:17.499655  1329 net.cpp:408] pool1 <- conv1
I0428 20:19:17.499660  1329 net.cpp:382] pool1 -> pool1
I0428 20:19:17.499713  1329 net.cpp:124] Setting up pool1
I0428 20:19:17.499718  1329 net.cpp:131] Top shape: 64 25 4 4 (25600)
I0428 20:19:17.499722  1329 net.cpp:139] Memory required for data: 9928960
I0428 20:19:17.499725  1329 layer_factory.hpp:77] Creating layer ip1
I0428 20:19:17.499732  1329 net.cpp:86] Creating Layer ip1
I0428 20:19:17.499735  1329 net.cpp:408] ip1 <- pool1
I0428 20:19:17.499740  1329 net.cpp:382] ip1 -> ip1
I0428 20:19:17.499877  1329 net.cpp:124] Setting up ip1
I0428 20:19:17.499886  1329 net.cpp:131] Top shape: 64 10 (640)
I0428 20:19:17.499888  1329 net.cpp:139] Memory required for data: 9931520
I0428 20:19:17.499896  1329 layer_factory.hpp:77] Creating layer relu1
I0428 20:19:17.499902  1329 net.cpp:86] Creating Layer relu1
I0428 20:19:17.499904  1329 net.cpp:408] relu1 <- ip1
I0428 20:19:17.499908  1329 net.cpp:369] relu1 -> ip1 (in-place)
I0428 20:19:17.500069  1329 net.cpp:124] Setting up relu1
I0428 20:19:17.500078  1329 net.cpp:131] Top shape: 64 10 (640)
I0428 20:19:17.500082  1329 net.cpp:139] Memory required for data: 9934080
I0428 20:19:17.500084  1329 layer_factory.hpp:77] Creating layer ip2
I0428 20:19:17.500090  1329 net.cpp:86] Creating Layer ip2
I0428 20:19:17.500093  1329 net.cpp:408] ip2 <- ip1
I0428 20:19:17.500097  1329 net.cpp:382] ip2 -> ip2
I0428 20:19:17.500188  1329 net.cpp:124] Setting up ip2
I0428 20:19:17.500195  1329 net.cpp:131] Top shape: 64 10 (640)
I0428 20:19:17.500198  1329 net.cpp:139] Memory required for data: 9936640
I0428 20:19:17.500203  1329 layer_factory.hpp:77] Creating layer relu2
I0428 20:19:17.500208  1329 net.cpp:86] Creating Layer relu2
I0428 20:19:17.500211  1329 net.cpp:408] relu2 <- ip2
I0428 20:19:17.500216  1329 net.cpp:369] relu2 -> ip2 (in-place)
I0428 20:19:17.500996  1329 net.cpp:124] Setting up relu2
I0428 20:19:17.501009  1329 net.cpp:131] Top shape: 64 10 (640)
I0428 20:19:17.501029  1329 net.cpp:139] Memory required for data: 9939200
I0428 20:19:17.501032  1329 layer_factory.hpp:77] Creating layer ip3
I0428 20:19:17.501054  1329 net.cpp:86] Creating Layer ip3
I0428 20:19:17.501056  1329 net.cpp:408] ip3 <- ip2
I0428 20:19:17.501062  1329 net.cpp:382] ip3 -> ip3
I0428 20:19:17.501200  1329 net.cpp:124] Setting up ip3
I0428 20:19:17.501209  1329 net.cpp:131] Top shape: 64 10 (640)
I0428 20:19:17.501211  1329 net.cpp:139] Memory required for data: 9941760
I0428 20:19:17.501219  1329 layer_factory.hpp:77] Creating layer relu3
I0428 20:19:17.501224  1329 net.cpp:86] Creating Layer relu3
I0428 20:19:17.501226  1329 net.cpp:408] relu3 <- ip3
I0428 20:19:17.501247  1329 net.cpp:369] relu3 -> ip3 (in-place)
I0428 20:19:17.501408  1329 net.cpp:124] Setting up relu3
I0428 20:19:17.501418  1329 net.cpp:131] Top shape: 64 10 (640)
I0428 20:19:17.501422  1329 net.cpp:139] Memory required for data: 9944320
I0428 20:19:17.501425  1329 layer_factory.hpp:77] Creating layer loss
I0428 20:19:17.501430  1329 net.cpp:86] Creating Layer loss
I0428 20:19:17.501433  1329 net.cpp:408] loss <- ip3
I0428 20:19:17.501437  1329 net.cpp:408] loss <- label
I0428 20:19:17.501443  1329 net.cpp:382] loss -> loss
I0428 20:19:17.501457  1329 layer_factory.hpp:77] Creating layer loss
…
I0428 20:19:17.502140  1329 solver.cpp:173] Creating test net (#0) specified by net file: ECE595/mnist/train_test/var_everything2/lenet_train_test1338.prototxt
I0428 20:19:17.502182  1329 net.cpp:296] The NetState phase (1) differed from the phase (0) specified by a rule in layer mnist
I0428 20:19:17.502270  1329 net.cpp:53] Initializing net from parameters: 
name: "LeNet"
state {
  phase: TEST
}
layer {
  name: "mnist"
  type: "Data"
  top: "data"
  top: "label"
  include {
    phase: TEST
  }
  transform_param {
    scale: 0.00390625
  }
  data_param {
    source: "examples/mnist/mnist_test_lmdb"
    batch_size: 100
    backend: LMDB
  }
}
layer {
  name: "conv0"
  type: "Convolution"
  bottom: "data"
  top: "conv0"
  param {
    lr_mult: 1
  }
  param {
    lr_mult: 2
  }
  convolution_param {
    num_output: 50
    kernel_size: 5
    stride: 1
    weight_filler {
      type: "xavier"
    }
    bias_filler {
      type: "constant"
    }
  }
}
layer {
  name: "pool0"
  type: "Pooling"
  bottom: "conv0"
  top: "pool0"
  pooling_param {
    pool: MAX
    kernel_size: 2
    stride: 2
  }
}
layer {
  name: "conv1"
  type: "Convolution"
  bottom: "pool0"
  top: "conv1"
  param {
    lr_mult: 1
  }
  param {
    lr_mult: 2
  }
  convolution_param {
    num_output: 25
    kernel_size: 5
    stride: 1
    weight_filler {
      type: "xavier"
    }
    bias_filler {
      type: "constant"
    }
  }
}
layer {
  name: "pool1"
  type: "Pooling"
  bottom: "conv1"
  top: "pool1"
  pooling_param {
    pool: MAX
    kernel_size: 2
    stride: 2
  }
}
layer {
  name: "ip1"
  type: "InnerProduct"
  bottom: "pool1"
  top: "ip1"
  param {
    lr_mult: 1
  }
  param {
    lr_mult: 2
  }
  inner_product_param {
    num_output: 10
    weight_filler {
      type: "xavier"
    }
    bias_filler {
      type: "constant"
    }
  }
}
layer {
  name: "relu1"
  type: "ReLU"
  bottom: "ip1"
  top: "ip1"
}
layer {
  name: "ip2"
  type: "InnerProduct"
  bottom: "ip1"
  top: "ip2"
  param {
    lr_mult: 1
  }
  param {
    lr_mult: 2
  }
  inner_product_param {
    num_output: 10
    weight_filler {
      type: "xavier"
    }
    bias_filler {
      type: "constant"
    }
  }
}
layer {
  name: "relu2"
  type: "ReLU"
  bottom: "ip2"
  top: "ip2"
}
layer {
  name: "ip3"
  type: "InnerProduct"
  bottom: "ip2"
  top: "ip3"
  param {
    lr_mult: 1
  }
  param {
    lr_mult: 2
  }
  inner_product_param {
    num_output: 10
    weight_filler {
      type: "xavier"
    }
    bias_filler {
      type: "constant"
    }
  }
}
layer {
  name: "relu3"
  type: "ReLU"
  bottom: "ip3"
  top: "ip3"
}
layer {
  name: "accuracy"
  type: "Accuracy"
  bottom: "ip3"
  bottom: "label"
  top: "accuracy"
  include {
    phase: TEST
  }
}
layer {
  name: "loss"
  type: "SoftmaxWithLoss"
  bottom: "ip3"
  bottom: "label"
  top: "loss"
}
I0428 20:19:17.502348  1329 layer_factory.hpp:77] Creating layer mnist
I0428 20:19:17.502394  1329 db_lmdb.cpp:35] Opened lmdb examples/mnist/mnist_test_lmdb
I0428 20:19:17.502406  1329 net.cpp:86] Creating Layer mnist
I0428 20:19:17.502411  1329 net.cpp:382] mnist -> data
I0428 20:19:17.502418  1329 net.cpp:382] mnist -> label
I0428 20:19:17.502501  1329 data_layer.cpp:45] output data size: 100,1,28,28
I0428 20:19:17.504472  1329 net.cpp:124] Setting up mnist
I0428 20:19:17.504500  1329 net.cpp:131] Top shape: 100 1 28 28 (78400)
I0428 20:19:17.504521  1329 net.cpp:131] Top shape: 100 (100)
I0428 20:19:17.504524  1329 net.cpp:139] Memory required for data: 314000
I0428 20:19:17.504528  1329 layer_factory.hpp:77] Creating layer label_mnist_1_split
I0428 20:19:17.504534  1329 net.cpp:86] Creating Layer label_mnist_1_split
I0428 20:19:17.504537  1329 net.cpp:408] label_mnist_1_split <- label
I0428 20:19:17.504542  1329 net.cpp:382] label_mnist_1_split -> label_mnist_1_split_0
I0428 20:19:17.504549  1329 net.cpp:382] label_mnist_1_split -> label_mnist_1_split_1
I0428 20:19:17.504593  1329 net.cpp:124] Setting up label_mnist_1_split
I0428 20:19:17.504601  1329 net.cpp:131] Top shape: 100 (100)
I0428 20:19:17.504613  1329 net.cpp:131] Top shape: 100 (100)
I0428 20:19:17.504616  1329 net.cpp:139] Memory required for data: 314800
I0428 20:19:17.504619  1329 layer_factory.hpp:77] Creating layer conv0
I0428 20:19:17.504627  1329 net.cpp:86] Creating Layer conv0
I0428 20:19:17.504631  1329 net.cpp:408] conv0 <- data
I0428 20:19:17.504634  1329 net.cpp:382] conv0 -> conv0
I0428 20:19:17.506460  1329 net.cpp:124] Setting up conv0
I0428 20:19:17.506490  1329 net.cpp:131] Top shape: 100 50 24 24 (2880000)
I0428 20:19:17.506494  1329 net.cpp:139] Memory required for data: 11834800
I0428 20:19:17.506502  1329 layer_factory.hpp:77] Creating layer pool0
I0428 20:19:17.506508  1329 net.cpp:86] Creating Layer pool0
I0428 20:19:17.506511  1329 net.cpp:408] pool0 <- conv0
I0428 20:19:17.506531  1329 net.cpp:382] pool0 -> pool0
I0428 20:19:17.506566  1329 net.cpp:124] Setting up pool0
I0428 20:19:17.506572  1329 net.cpp:131] Top shape: 100 50 12 12 (720000)
I0428 20:19:17.506575  1329 net.cpp:139] Memory required for data: 14714800
I0428 20:19:17.506578  1329 layer_factory.hpp:77] Creating layer conv1
I0428 20:19:17.506587  1329 net.cpp:86] Creating Layer conv1
I0428 20:19:17.506589  1329 net.cpp:408] conv1 <- pool0
I0428 20:19:17.506594  1329 net.cpp:382] conv1 -> conv1
I0428 20:19:17.508252  1329 net.cpp:124] Setting up conv1
I0428 20:19:17.508265  1329 net.cpp:131] Top shape: 100 25 8 8 (160000)
I0428 20:19:17.508285  1329 net.cpp:139] Memory required for data: 15354800
I0428 20:19:17.508293  1329 layer_factory.hpp:77] Creating layer pool1
I0428 20:19:17.508314  1329 net.cpp:86] Creating Layer pool1
I0428 20:19:17.508319  1329 net.cpp:408] pool1 <- conv1
I0428 20:19:17.508339  1329 net.cpp:382] pool1 -> pool1
I0428 20:19:17.508376  1329 net.cpp:124] Setting up pool1
I0428 20:19:17.508384  1329 net.cpp:131] Top shape: 100 25 4 4 (40000)
I0428 20:19:17.508388  1329 net.cpp:139] Memory required for data: 15514800
I0428 20:19:17.508391  1329 layer_factory.hpp:77] Creating layer ip1
I0428 20:19:17.508399  1329 net.cpp:86] Creating Layer ip1
I0428 20:19:17.508401  1329 net.cpp:408] ip1 <- pool1
I0428 20:19:17.508406  1329 net.cpp:382] ip1 -> ip1
I0428 20:19:17.508532  1329 net.cpp:124] Setting up ip1
I0428 20:19:17.508539  1329 net.cpp:131] Top shape: 100 10 (1000)
I0428 20:19:17.508554  1329 net.cpp:139] Memory required for data: 15518800
I0428 20:19:17.508563  1329 layer_factory.hpp:77] Creating layer relu1
I0428 20:19:17.508569  1329 net.cpp:86] Creating Layer relu1
I0428 20:19:17.508572  1329 net.cpp:408] relu1 <- ip1
I0428 20:19:17.508577  1329 net.cpp:369] relu1 -> ip1 (in-place)
I0428 20:19:17.508793  1329 net.cpp:124] Setting up relu1
I0428 20:19:17.508803  1329 net.cpp:131] Top shape: 100 10 (1000)
I0428 20:19:17.508807  1329 net.cpp:139] Memory required for data: 15522800
I0428 20:19:17.508818  1329 layer_factory.hpp:77] Creating layer ip2
I0428 20:19:17.508826  1329 net.cpp:86] Creating Layer ip2
I0428 20:19:17.508831  1329 net.cpp:408] ip2 <- ip1
I0428 20:19:17.508836  1329 net.cpp:382] ip2 -> ip2
I0428 20:19:17.508967  1329 net.cpp:124] Setting up ip2
I0428 20:19:17.508975  1329 net.cpp:131] Top shape: 100 10 (1000)
I0428 20:19:17.508980  1329 net.cpp:139] Memory required for data: 15526800
I0428 20:19:17.508985  1329 layer_factory.hpp:77] Creating layer relu2
I0428 20:19:17.509001  1329 net.cpp:86] Creating Layer relu2
I0428 20:19:17.509004  1329 net.cpp:408] relu2 <- ip2
I0428 20:19:17.509009  1329 net.cpp:369] relu2 -> ip2 (in-place)
I0428 20:19:17.509222  1329 net.cpp:124] Setting up relu2
I0428 20:19:17.509232  1329 net.cpp:131] Top shape: 100 10 (1000)
I0428 20:19:17.509234  1329 net.cpp:139] Memory required for data: 15530800
I0428 20:19:17.509238  1329 layer_factory.hpp:77] Creating layer ip3
I0428 20:19:17.509243  1329 net.cpp:86] Creating Layer ip3
I0428 20:19:17.509248  1329 net.cpp:408] ip3 <- ip2
I0428 20:19:17.509258  1329 net.cpp:382] ip3 -> ip3
I0428 20:19:17.509372  1329 net.cpp:124] Setting up ip3
I0428 20:19:17.509379  1329 net.cpp:131] Top shape: 100 10 (1000)
I0428 20:19:17.509383  1329 net.cpp:139] Memory required for data: 15534800
I0428 20:19:17.509392  1329 layer_factory.hpp:77] Creating layer relu3
I0428 20:19:17.509397  1329 net.cpp:86] Creating Layer relu3
I0428 20:19:17.509404  1329 net.cpp:408] relu3 <- ip3
I0428 20:19:17.509409  1329 net.cpp:369] relu3 -> ip3 (in-place)
I0428 20:19:17.510253  1329 net.cpp:124] Setting up relu3
I0428 20:19:17.510264  1329 net.cpp:131] Top shape: 100 10 (1000)
I0428 20:19:17.510284  1329 net.cpp:139] Memory required for data: 15538800
I0428 20:19:17.510288  1329 layer_factory.hpp:77] Creating layer ip3_relu3_0_split
I0428 20:19:17.510293  1329 net.cpp:86] Creating Layer ip3_relu3_0_split
I0428 20:19:17.510296  1329 net.cpp:408] ip3_relu3_0_split <- ip3
I0428 20:19:17.510303  1329 net.cpp:382] ip3_relu3_0_split -> ip3_relu3_0_split_0
I0428 20:19:17.510308  1329 net.cpp:382] ip3_relu3_0_split -> ip3_relu3_0_split_1
I0428 20:19:17.510357  1329 net.cpp:124] Setting up ip3_relu3_0_split
I0428 20:19:17.510365  1329 net.cpp:131] Top shape: 100 10 (1000)
I0428 20:19:17.510370  1329 net.cpp:131] Top shape: 100 10 (1000)
I0428 20:19:17.510372  1329 net.cpp:139] Memory required for data: 15546800
I0428 20:19:17.510375  1329 layer_factory.hpp:77] Creating layer accuracy
I0428 20:19:17.510381  1329 net.cpp:86] Creating Layer accuracy
I0428 20:19:17.510385  1329 net.cpp:408] accuracy <- ip3_relu3_0_split_0
I0428 20:19:17.510390  1329 net.cpp:408] accuracy <- label_mnist_1_split_0
I0428 20:19:17.510393  1329 net.cpp:382] accuracy -> accuracy
…
