…
I0428 19:46:48.024559 26061 net.cpp:296] The NetState phase (0) differed from the phase (1) specified by a rule in layer mnist
I0428 19:46:48.024586 26061 net.cpp:296] The NetState phase (0) differed from the phase (1) specified by a rule in layer accuracy
I0428 19:46:48.024701 26061 net.cpp:53] Initializing net from parameters: 
name: "LeNet"
state {
  phase: TRAIN
  level: 0
  stage: ""
}
layer {
  name: "mnist"
  type: "Data"
  top: "data"
  top: "label"
  include {
    phase: TRAIN
  }
  transform_param {
    scale: 0.00390625
  }
  data_param {
    source: "examples/mnist/mnist_train_lmdb"
    batch_size: 64
    backend: LMDB
  }
}
layer {
  name: "conv0"
  type: "Convolution"
  bottom: "data"
  top: "conv0"
  param {
    lr_mult: 1
  }
  param {
    lr_mult: 2
  }
  convolution_param {
    num_output: 2
    kernel_size: 5
    stride: 1
    weight_filler {
      type: "xavier"
    }
    bias_filler {
      type: "constant"
    }
  }
}
layer {
  name: "pool0"
  type: "Pooling"
  bottom: "conv0"
  top: "pool0"
  pooling_param {
    pool: MAX
    kernel_size: 2
    stride: 2
  }
}
layer {
  name: "conv1"
  type: "Convolution"
  bottom: "pool0"
  top: "conv1"
  param {
    lr_mult: 1
  }
  param {
    lr_mult: 2
  }
  convolution_param {
    num_output: 100
    kernel_size: 5
    stride: 1
    weight_filler {
      type: "xavier"
    }
    bias_filler {
      type: "constant"
    }
  }
}
layer {
  name: "pool1"
  type: "Pooling"
  bottom: "conv1"
  top: "pool1"
  pooling_param {
    pool: MAX
    kernel_size: 2
    stride: 2
  }
}
layer {
  name: "ip1"
  type: "InnerProduct"
  bottom: "pool1"
  top: "ip1"
  param {
    lr_mult: 1
  }
  param {
    lr_mult: 2
  }
  inner_product_param {
    num_output: 50
    weight_filler {
      type: "xavier"
    }
    bias_filler {
      type: "constant"
    }
  }
}
layer {
  name: "relu1"
  type: "ReLU"
  bottom: "ip1"
  top: "ip1"
}
layer {
  name: "ip2"
  type: "InnerProduct"
  bottom: "ip1"
  top: "ip2"
  param {
    lr_mult: 1
  }
  param {
    lr_mult: 2
  }
  inner_product_param {
    num_output: 10
    weight_filler {
      type: "xavier"
    }
    bias_filler {
      type: "constant"
    }
  }
}
layer {
  name: "relu2"
  type: "ReLU"
  bottom: "ip2"
  top: "ip2"
}
layer {
  name: "ip3"
  type: "InnerProduct"
  bottom: "ip2"
  top: "ip3"
  param {
    lr_mult: 1
  }
  param {
    lr_mult: 2
  }
  inner_product_param {
    num_output: 10
    weight_filler {
      type: "xavier"
    }
    bias_filler {
      type: "constant"
    }
  }
}
layer {
  name: "relu3"
  type: "ReLU"
  bottom: "ip3"
  top: "ip3"
}
layer {
  name: "loss"
  type: "SoftmaxWithLoss"
  bottom: "ip3"
  bottom: "label"
  top: "loss"
}
I0428 19:46:48.024822 26061 layer_factory.hpp:77] Creating layer mnist
I0428 19:46:48.024965 26061 db_lmdb.cpp:35] Opened lmdb examples/mnist/mnist_train_lmdb
I0428 19:46:48.024998 26061 net.cpp:86] Creating Layer mnist
I0428 19:46:48.025012 26061 net.cpp:382] mnist -> data
I0428 19:46:48.025043 26061 net.cpp:382] mnist -> label
I0428 19:46:48.026312 26061 data_layer.cpp:45] output data size: 64,1,28,28
I0428 19:46:48.028770 26061 net.cpp:124] Setting up mnist
I0428 19:46:48.028790 26061 net.cpp:131] Top shape: 64 1 28 28 (50176)
I0428 19:46:48.028800 26061 net.cpp:131] Top shape: 64 (64)
I0428 19:46:48.028806 26061 net.cpp:139] Memory required for data: 200960
I0428 19:46:48.028823 26061 layer_factory.hpp:77] Creating layer conv0
I0428 19:46:48.028861 26061 net.cpp:86] Creating Layer conv0
I0428 19:46:48.028883 26061 net.cpp:408] conv0 <- data
I0428 19:46:48.028904 26061 net.cpp:382] conv0 -> conv0
I0428 19:46:48.319572 26061 net.cpp:124] Setting up conv0
I0428 19:46:48.319607 26061 net.cpp:131] Top shape: 64 2 24 24 (73728)
I0428 19:46:48.319613 26061 net.cpp:139] Memory required for data: 495872
I0428 19:46:48.319636 26061 layer_factory.hpp:77] Creating layer pool0
I0428 19:46:48.319655 26061 net.cpp:86] Creating Layer pool0
I0428 19:46:48.319664 26061 net.cpp:408] pool0 <- conv0
I0428 19:46:48.319674 26061 net.cpp:382] pool0 -> pool0
I0428 19:46:48.319746 26061 net.cpp:124] Setting up pool0
I0428 19:46:48.319757 26061 net.cpp:131] Top shape: 64 2 12 12 (18432)
I0428 19:46:48.319763 26061 net.cpp:139] Memory required for data: 569600
I0428 19:46:48.319769 26061 layer_factory.hpp:77] Creating layer conv1
I0428 19:46:48.319787 26061 net.cpp:86] Creating Layer conv1
I0428 19:46:48.319795 26061 net.cpp:408] conv1 <- pool0
I0428 19:46:48.319805 26061 net.cpp:382] conv1 -> conv1
I0428 19:46:48.322804 26061 net.cpp:124] Setting up conv1
I0428 19:46:48.322824 26061 net.cpp:131] Top shape: 64 100 8 8 (409600)
I0428 19:46:48.322830 26061 net.cpp:139] Memory required for data: 2208000
I0428 19:46:48.322845 26061 layer_factory.hpp:77] Creating layer pool1
I0428 19:46:48.322859 26061 net.cpp:86] Creating Layer pool1
I0428 19:46:48.322865 26061 net.cpp:408] pool1 <- conv1
I0428 19:46:48.322875 26061 net.cpp:382] pool1 -> pool1
I0428 19:46:48.322923 26061 net.cpp:124] Setting up pool1
I0428 19:46:48.322933 26061 net.cpp:131] Top shape: 64 100 4 4 (102400)
I0428 19:46:48.322939 26061 net.cpp:139] Memory required for data: 2617600
I0428 19:46:48.322945 26061 layer_factory.hpp:77] Creating layer ip1
I0428 19:46:48.322957 26061 net.cpp:86] Creating Layer ip1
I0428 19:46:48.322968 26061 net.cpp:408] ip1 <- pool1
I0428 19:46:48.322978 26061 net.cpp:382] ip1 -> ip1
I0428 19:46:48.324506 26061 net.cpp:124] Setting up ip1
I0428 19:46:48.324522 26061 net.cpp:131] Top shape: 64 50 (3200)
I0428 19:46:48.324527 26061 net.cpp:139] Memory required for data: 2630400
I0428 19:46:48.324542 26061 layer_factory.hpp:77] Creating layer relu1
I0428 19:46:48.324553 26061 net.cpp:86] Creating Layer relu1
I0428 19:46:48.324559 26061 net.cpp:408] relu1 <- ip1
I0428 19:46:48.324568 26061 net.cpp:369] relu1 -> ip1 (in-place)
I0428 19:46:48.324771 26061 net.cpp:124] Setting up relu1
I0428 19:46:48.324793 26061 net.cpp:131] Top shape: 64 50 (3200)
I0428 19:46:48.324798 26061 net.cpp:139] Memory required for data: 2643200
I0428 19:46:48.324820 26061 layer_factory.hpp:77] Creating layer ip2
I0428 19:46:48.324832 26061 net.cpp:86] Creating Layer ip2
I0428 19:46:48.324851 26061 net.cpp:408] ip2 <- ip1
I0428 19:46:48.324862 26061 net.cpp:382] ip2 -> ip2
I0428 19:46:48.324997 26061 net.cpp:124] Setting up ip2
I0428 19:46:48.325007 26061 net.cpp:131] Top shape: 64 10 (640)
I0428 19:46:48.325013 26061 net.cpp:139] Memory required for data: 2645760
I0428 19:46:48.325023 26061 layer_factory.hpp:77] Creating layer relu2
I0428 19:46:48.325034 26061 net.cpp:86] Creating Layer relu2
I0428 19:46:48.325044 26061 net.cpp:408] relu2 <- ip2
I0428 19:46:48.325052 26061 net.cpp:369] relu2 -> ip2 (in-place)
I0428 19:46:48.325865 26061 net.cpp:124] Setting up relu2
I0428 19:46:48.325883 26061 net.cpp:131] Top shape: 64 10 (640)
I0428 19:46:48.325889 26061 net.cpp:139] Memory required for data: 2648320
I0428 19:46:48.325896 26061 layer_factory.hpp:77] Creating layer ip3
I0428 19:46:48.325908 26061 net.cpp:86] Creating Layer ip3
I0428 19:46:48.325914 26061 net.cpp:408] ip3 <- ip2
I0428 19:46:48.325924 26061 net.cpp:382] ip3 -> ip3
I0428 19:46:48.326038 26061 net.cpp:124] Setting up ip3
I0428 19:46:48.326050 26061 net.cpp:131] Top shape: 64 10 (640)
I0428 19:46:48.326055 26061 net.cpp:139] Memory required for data: 2650880
I0428 19:46:48.326069 26061 layer_factory.hpp:77] Creating layer relu3
I0428 19:46:48.326078 26061 net.cpp:86] Creating Layer relu3
I0428 19:46:48.326088 26061 net.cpp:408] relu3 <- ip3
I0428 19:46:48.326097 26061 net.cpp:369] relu3 -> ip3 (in-place)
I0428 19:46:48.326287 26061 net.cpp:124] Setting up relu3
I0428 19:46:48.326298 26061 net.cpp:131] Top shape: 64 10 (640)
I0428 19:46:48.326304 26061 net.cpp:139] Memory required for data: 2653440
I0428 19:46:48.326309 26061 layer_factory.hpp:77] Creating layer loss
I0428 19:46:48.326319 26061 net.cpp:86] Creating Layer loss
I0428 19:46:48.326325 26061 net.cpp:408] loss <- ip3
I0428 19:46:48.326333 26061 net.cpp:408] loss <- label
I0428 19:46:48.326342 26061 net.cpp:382] loss -> loss
I0428 19:46:48.326364 26061 layer_factory.hpp:77] Creating layer loss
…
I0428 19:46:48.327118 26061 solver.cpp:173] Creating test net (#0) specified by net file: ECE595/mnist/train_test/var_everything2/lenet_train_test499.prototxt
I0428 19:46:48.327157 26061 net.cpp:296] The NetState phase (1) differed from the phase (0) specified by a rule in layer mnist
I0428 19:46:48.327265 26061 net.cpp:53] Initializing net from parameters: 
name: "LeNet"
state {
  phase: TEST
}
layer {
  name: "mnist"
  type: "Data"
  top: "data"
  top: "label"
  include {
    phase: TEST
  }
  transform_param {
    scale: 0.00390625
  }
  data_param {
    source: "examples/mnist/mnist_test_lmdb"
    batch_size: 100
    backend: LMDB
  }
}
layer {
  name: "conv0"
  type: "Convolution"
  bottom: "data"
  top: "conv0"
  param {
    lr_mult: 1
  }
  param {
    lr_mult: 2
  }
  convolution_param {
    num_output: 2
    kernel_size: 5
    stride: 1
    weight_filler {
      type: "xavier"
    }
    bias_filler {
      type: "constant"
    }
  }
}
layer {
  name: "pool0"
  type: "Pooling"
  bottom: "conv0"
  top: "pool0"
  pooling_param {
    pool: MAX
    kernel_size: 2
    stride: 2
  }
}
layer {
  name: "conv1"
  type: "Convolution"
  bottom: "pool0"
  top: "conv1"
  param {
    lr_mult: 1
  }
  param {
    lr_mult: 2
  }
  convolution_param {
    num_output: 100
    kernel_size: 5
    stride: 1
    weight_filler {
      type: "xavier"
    }
    bias_filler {
      type: "constant"
    }
  }
}
layer {
  name: "pool1"
  type: "Pooling"
  bottom: "conv1"
  top: "pool1"
  pooling_param {
    pool: MAX
    kernel_size: 2
    stride: 2
  }
}
layer {
  name: "ip1"
  type: "InnerProduct"
  bottom: "pool1"
  top: "ip1"
  param {
    lr_mult: 1
  }
  param {
    lr_mult: 2
  }
  inner_product_param {
    num_output: 50
    weight_filler {
      type: "xavier"
    }
    bias_filler {
      type: "constant"
    }
  }
}
layer {
  name: "relu1"
  type: "ReLU"
  bottom: "ip1"
  top: "ip1"
}
layer {
  name: "ip2"
  type: "InnerProduct"
  bottom: "ip1"
  top: "ip2"
  param {
    lr_mult: 1
  }
  param {
    lr_mult: 2
  }
  inner_product_param {
    num_output: 10
    weight_filler {
      type: "xavier"
    }
    bias_filler {
      type: "constant"
    }
  }
}
layer {
  name: "relu2"
  type: "ReLU"
  bottom: "ip2"
  top: "ip2"
}
layer {
  name: "ip3"
  type: "InnerProduct"
  bottom: "ip2"
  top: "ip3"
  param {
    lr_mult: 1
  }
  param {
    lr_mult: 2
  }
  inner_product_param {
    num_output: 10
    weight_filler {
      type: "xavier"
    }
    bias_filler {
      type: "constant"
    }
  }
}
layer {
  name: "relu3"
  type: "ReLU"
  bottom: "ip3"
  top: "ip3"
}
layer {
  name: "accuracy"
  type: "Accuracy"
  bottom: "ip3"
  bottom: "label"
  top: "accuracy"
  include {
    phase: TEST
  }
}
layer {
  name: "loss"
  type: "SoftmaxWithLoss"
  bottom: "ip3"
  bottom: "label"
  top: "loss"
}
I0428 19:46:48.327389 26061 layer_factory.hpp:77] Creating layer mnist
I0428 19:46:48.327455 26061 db_lmdb.cpp:35] Opened lmdb examples/mnist/mnist_test_lmdb
I0428 19:46:48.327476 26061 net.cpp:86] Creating Layer mnist
I0428 19:46:48.327483 26061 net.cpp:382] mnist -> data
I0428 19:46:48.327497 26061 net.cpp:382] mnist -> label
I0428 19:46:48.327627 26061 data_layer.cpp:45] output data size: 100,1,28,28
I0428 19:46:48.328969 26061 net.cpp:124] Setting up mnist
I0428 19:46:48.328986 26061 net.cpp:131] Top shape: 100 1 28 28 (78400)
I0428 19:46:48.328995 26061 net.cpp:131] Top shape: 100 (100)
I0428 19:46:48.329001 26061 net.cpp:139] Memory required for data: 314000
I0428 19:46:48.329012 26061 layer_factory.hpp:77] Creating layer label_mnist_1_split
I0428 19:46:48.329023 26061 net.cpp:86] Creating Layer label_mnist_1_split
I0428 19:46:48.329030 26061 net.cpp:408] label_mnist_1_split <- label
I0428 19:46:48.329040 26061 net.cpp:382] label_mnist_1_split -> label_mnist_1_split_0
I0428 19:46:48.329051 26061 net.cpp:382] label_mnist_1_split -> label_mnist_1_split_1
I0428 19:46:48.329111 26061 net.cpp:124] Setting up label_mnist_1_split
I0428 19:46:48.329121 26061 net.cpp:131] Top shape: 100 (100)
I0428 19:46:48.329128 26061 net.cpp:131] Top shape: 100 (100)
I0428 19:46:48.329133 26061 net.cpp:139] Memory required for data: 314800
I0428 19:46:48.329139 26061 layer_factory.hpp:77] Creating layer conv0
I0428 19:46:48.329154 26061 net.cpp:86] Creating Layer conv0
I0428 19:46:48.329162 26061 net.cpp:408] conv0 <- data
I0428 19:46:48.329171 26061 net.cpp:382] conv0 -> conv0
I0428 19:46:48.330690 26061 net.cpp:124] Setting up conv0
I0428 19:46:48.330710 26061 net.cpp:131] Top shape: 100 2 24 24 (115200)
I0428 19:46:48.330718 26061 net.cpp:139] Memory required for data: 775600
I0428 19:46:48.330734 26061 layer_factory.hpp:77] Creating layer pool0
I0428 19:46:48.330744 26061 net.cpp:86] Creating Layer pool0
I0428 19:46:48.330752 26061 net.cpp:408] pool0 <- conv0
I0428 19:46:48.330761 26061 net.cpp:382] pool0 -> pool0
I0428 19:46:48.330866 26061 net.cpp:124] Setting up pool0
I0428 19:46:48.330875 26061 net.cpp:131] Top shape: 100 2 12 12 (28800)
I0428 19:46:48.330883 26061 net.cpp:139] Memory required for data: 890800
I0428 19:46:48.330896 26061 layer_factory.hpp:77] Creating layer conv1
I0428 19:46:48.330911 26061 net.cpp:86] Creating Layer conv1
I0428 19:46:48.330919 26061 net.cpp:408] conv1 <- pool0
I0428 19:46:48.330929 26061 net.cpp:382] conv1 -> conv1
I0428 19:46:48.332550 26061 net.cpp:124] Setting up conv1
I0428 19:46:48.332568 26061 net.cpp:131] Top shape: 100 100 8 8 (640000)
I0428 19:46:48.332574 26061 net.cpp:139] Memory required for data: 3450800
I0428 19:46:48.332588 26061 layer_factory.hpp:77] Creating layer pool1
I0428 19:46:48.332600 26061 net.cpp:86] Creating Layer pool1
I0428 19:46:48.332607 26061 net.cpp:408] pool1 <- conv1
I0428 19:46:48.332626 26061 net.cpp:382] pool1 -> pool1
I0428 19:46:48.332672 26061 net.cpp:124] Setting up pool1
I0428 19:46:48.332684 26061 net.cpp:131] Top shape: 100 100 4 4 (160000)
I0428 19:46:48.332690 26061 net.cpp:139] Memory required for data: 4090800
I0428 19:46:48.332698 26061 layer_factory.hpp:77] Creating layer ip1
I0428 19:46:48.332708 26061 net.cpp:86] Creating Layer ip1
I0428 19:46:48.332715 26061 net.cpp:408] ip1 <- pool1
I0428 19:46:48.332725 26061 net.cpp:382] ip1 -> ip1
I0428 19:46:48.333354 26061 net.cpp:124] Setting up ip1
I0428 19:46:48.333366 26061 net.cpp:131] Top shape: 100 50 (5000)
I0428 19:46:48.333386 26061 net.cpp:139] Memory required for data: 4110800
I0428 19:46:48.333401 26061 layer_factory.hpp:77] Creating layer relu1
I0428 19:46:48.333411 26061 net.cpp:86] Creating Layer relu1
I0428 19:46:48.333418 26061 net.cpp:408] relu1 <- ip1
I0428 19:46:48.333426 26061 net.cpp:369] relu1 -> ip1 (in-place)
I0428 19:46:48.333607 26061 net.cpp:124] Setting up relu1
I0428 19:46:48.333618 26061 net.cpp:131] Top shape: 100 50 (5000)
I0428 19:46:48.333624 26061 net.cpp:139] Memory required for data: 4130800
I0428 19:46:48.333631 26061 layer_factory.hpp:77] Creating layer ip2
I0428 19:46:48.333643 26061 net.cpp:86] Creating Layer ip2
I0428 19:46:48.333650 26061 net.cpp:408] ip2 <- ip1
I0428 19:46:48.333659 26061 net.cpp:382] ip2 -> ip2
I0428 19:46:48.333778 26061 net.cpp:124] Setting up ip2
I0428 19:46:48.333788 26061 net.cpp:131] Top shape: 100 10 (1000)
I0428 19:46:48.333793 26061 net.cpp:139] Memory required for data: 4134800
I0428 19:46:48.333804 26061 layer_factory.hpp:77] Creating layer relu2
I0428 19:46:48.333817 26061 net.cpp:86] Creating Layer relu2
I0428 19:46:48.333823 26061 net.cpp:408] relu2 <- ip2
I0428 19:46:48.333832 26061 net.cpp:369] relu2 -> ip2 (in-place)
I0428 19:46:48.334087 26061 net.cpp:124] Setting up relu2
I0428 19:46:48.334098 26061 net.cpp:131] Top shape: 100 10 (1000)
I0428 19:46:48.334105 26061 net.cpp:139] Memory required for data: 4138800
I0428 19:46:48.334110 26061 layer_factory.hpp:77] Creating layer ip3
I0428 19:46:48.334121 26061 net.cpp:86] Creating Layer ip3
I0428 19:46:48.334128 26061 net.cpp:408] ip3 <- ip2
I0428 19:46:48.334139 26061 net.cpp:382] ip3 -> ip3
I0428 19:46:48.334259 26061 net.cpp:124] Setting up ip3
I0428 19:46:48.334269 26061 net.cpp:131] Top shape: 100 10 (1000)
I0428 19:46:48.334273 26061 net.cpp:139] Memory required for data: 4142800
I0428 19:46:48.334290 26061 layer_factory.hpp:77] Creating layer relu3
I0428 19:46:48.334300 26061 net.cpp:86] Creating Layer relu3
I0428 19:46:48.334305 26061 net.cpp:408] relu3 <- ip3
I0428 19:46:48.334312 26061 net.cpp:369] relu3 -> ip3 (in-place)
I0428 19:46:48.335214 26061 net.cpp:124] Setting up relu3
I0428 19:46:48.335229 26061 net.cpp:131] Top shape: 100 10 (1000)
I0428 19:46:48.335235 26061 net.cpp:139] Memory required for data: 4146800
I0428 19:46:48.335242 26061 layer_factory.hpp:77] Creating layer ip3_relu3_0_split
I0428 19:46:48.335253 26061 net.cpp:86] Creating Layer ip3_relu3_0_split
I0428 19:46:48.335258 26061 net.cpp:408] ip3_relu3_0_split <- ip3
I0428 19:46:48.335268 26061 net.cpp:382] ip3_relu3_0_split -> ip3_relu3_0_split_0
I0428 19:46:48.335280 26061 net.cpp:382] ip3_relu3_0_split -> ip3_relu3_0_split_1
I0428 19:46:48.335330 26061 net.cpp:124] Setting up ip3_relu3_0_split
I0428 19:46:48.335338 26061 net.cpp:131] Top shape: 100 10 (1000)
I0428 19:46:48.335346 26061 net.cpp:131] Top shape: 100 10 (1000)
I0428 19:46:48.335351 26061 net.cpp:139] Memory required for data: 4154800
I0428 19:46:48.335357 26061 layer_factory.hpp:77] Creating layer accuracy
I0428 19:46:48.335367 26061 net.cpp:86] Creating Layer accuracy
I0428 19:46:48.335374 26061 net.cpp:408] accuracy <- ip3_relu3_0_split_0
I0428 19:46:48.335382 26061 net.cpp:408] accuracy <- label_mnist_1_split_0
I0428 19:46:48.335391 26061 net.cpp:382] accuracy -> accuracy
…
