…
I0428 19:55:12.287221 28136 net.cpp:296] The NetState phase (0) differed from the phase (1) specified by a rule in layer mnist
I0428 19:55:12.287250 28136 net.cpp:296] The NetState phase (0) differed from the phase (1) specified by a rule in layer accuracy
I0428 19:55:12.287346 28136 net.cpp:53] Initializing net from parameters: 
name: "LeNet"
state {
  phase: TRAIN
  level: 0
  stage: ""
}
layer {
  name: "mnist"
  type: "Data"
  top: "data"
  top: "label"
  include {
    phase: TRAIN
  }
  transform_param {
    scale: 0.00390625
  }
  data_param {
    source: "examples/mnist/mnist_train_lmdb"
    batch_size: 64
    backend: LMDB
  }
}
layer {
  name: "conv0"
  type: "Convolution"
  bottom: "data"
  top: "conv0"
  param {
    lr_mult: 1
  }
  param {
    lr_mult: 2
  }
  convolution_param {
    num_output: 5
    kernel_size: 5
    stride: 1
    weight_filler {
      type: "xavier"
    }
    bias_filler {
      type: "constant"
    }
  }
}
layer {
  name: "pool0"
  type: "Pooling"
  bottom: "conv0"
  top: "pool0"
  pooling_param {
    pool: MAX
    kernel_size: 2
    stride: 2
  }
}
layer {
  name: "conv1"
  type: "Convolution"
  bottom: "pool0"
  top: "conv1"
  param {
    lr_mult: 1
  }
  param {
    lr_mult: 2
  }
  convolution_param {
    num_output: 100
    kernel_size: 5
    stride: 1
    weight_filler {
      type: "xavier"
    }
    bias_filler {
      type: "constant"
    }
  }
}
layer {
  name: "pool1"
  type: "Pooling"
  bottom: "conv1"
  top: "pool1"
  pooling_param {
    pool: MAX
    kernel_size: 2
    stride: 2
  }
}
layer {
  name: "ip1"
  type: "InnerProduct"
  bottom: "pool1"
  top: "ip1"
  param {
    lr_mult: 1
  }
  param {
    lr_mult: 2
  }
  inner_product_param {
    num_output: 25
    weight_filler {
      type: "xavier"
    }
    bias_filler {
      type: "constant"
    }
  }
}
layer {
  name: "relu1"
  type: "ReLU"
  bottom: "ip1"
  top: "ip1"
}
layer {
  name: "ip2"
  type: "InnerProduct"
  bottom: "ip1"
  top: "ip2"
  param {
    lr_mult: 1
  }
  param {
    lr_mult: 2
  }
  inner_product_param {
    num_output: 25
    weight_filler {
      type: "xavier"
    }
    bias_filler {
      type: "constant"
    }
  }
}
layer {
  name: "relu2"
  type: "ReLU"
  bottom: "ip2"
  top: "ip2"
}
layer {
  name: "ip3"
  type: "InnerProduct"
  bottom: "ip2"
  top: "ip3"
  param {
    lr_mult: 1
  }
  param {
    lr_mult: 2
  }
  inner_product_param {
    num_output: 10
    weight_filler {
      type: "xavier"
    }
    bias_filler {
      type: "constant"
    }
  }
}
layer {
  name: "relu3"
  type: "ReLU"
  bottom: "ip3"
  top: "ip3"
}
layer {
  name: "loss"
  type: "SoftmaxWithLoss"
  bottom: "ip3"
  bottom: "label"
  top: "loss"
}
I0428 19:55:12.287410 28136 layer_factory.hpp:77] Creating layer mnist
I0428 19:55:12.287488 28136 db_lmdb.cpp:35] Opened lmdb examples/mnist/mnist_train_lmdb
I0428 19:55:12.287508 28136 net.cpp:86] Creating Layer mnist
I0428 19:55:12.287514 28136 net.cpp:382] mnist -> data
I0428 19:55:12.287533 28136 net.cpp:382] mnist -> label
I0428 19:55:12.288601 28136 data_layer.cpp:45] output data size: 64,1,28,28
I0428 19:55:12.290947 28136 net.cpp:124] Setting up mnist
I0428 19:55:12.290993 28136 net.cpp:131] Top shape: 64 1 28 28 (50176)
I0428 19:55:12.290998 28136 net.cpp:131] Top shape: 64 (64)
I0428 19:55:12.291002 28136 net.cpp:139] Memory required for data: 200960
I0428 19:55:12.291024 28136 layer_factory.hpp:77] Creating layer conv0
I0428 19:55:12.291049 28136 net.cpp:86] Creating Layer conv0
I0428 19:55:12.291066 28136 net.cpp:408] conv0 <- data
I0428 19:55:12.291077 28136 net.cpp:382] conv0 -> conv0
I0428 19:55:12.526945 28136 net.cpp:124] Setting up conv0
I0428 19:55:12.526988 28136 net.cpp:131] Top shape: 64 5 24 24 (184320)
I0428 19:55:12.526990 28136 net.cpp:139] Memory required for data: 938240
I0428 19:55:12.527005 28136 layer_factory.hpp:77] Creating layer pool0
I0428 19:55:12.527016 28136 net.cpp:86] Creating Layer pool0
I0428 19:55:12.527020 28136 net.cpp:408] pool0 <- conv0
I0428 19:55:12.527040 28136 net.cpp:382] pool0 -> pool0
I0428 19:55:12.527086 28136 net.cpp:124] Setting up pool0
I0428 19:55:12.527091 28136 net.cpp:131] Top shape: 64 5 12 12 (46080)
I0428 19:55:12.527094 28136 net.cpp:139] Memory required for data: 1122560
I0428 19:55:12.527097 28136 layer_factory.hpp:77] Creating layer conv1
I0428 19:55:12.527107 28136 net.cpp:86] Creating Layer conv1
I0428 19:55:12.527110 28136 net.cpp:408] conv1 <- pool0
I0428 19:55:12.527115 28136 net.cpp:382] conv1 -> conv1
I0428 19:55:12.529947 28136 net.cpp:124] Setting up conv1
I0428 19:55:12.529976 28136 net.cpp:131] Top shape: 64 100 8 8 (409600)
I0428 19:55:12.529979 28136 net.cpp:139] Memory required for data: 2760960
I0428 19:55:12.530004 28136 layer_factory.hpp:77] Creating layer pool1
I0428 19:55:12.530011 28136 net.cpp:86] Creating Layer pool1
I0428 19:55:12.530014 28136 net.cpp:408] pool1 <- conv1
I0428 19:55:12.530019 28136 net.cpp:382] pool1 -> pool1
I0428 19:55:12.530071 28136 net.cpp:124] Setting up pool1
I0428 19:55:12.530076 28136 net.cpp:131] Top shape: 64 100 4 4 (102400)
I0428 19:55:12.530078 28136 net.cpp:139] Memory required for data: 3170560
I0428 19:55:12.530081 28136 layer_factory.hpp:77] Creating layer ip1
I0428 19:55:12.530087 28136 net.cpp:86] Creating Layer ip1
I0428 19:55:12.530091 28136 net.cpp:408] ip1 <- pool1
I0428 19:55:12.530095 28136 net.cpp:382] ip1 -> ip1
I0428 19:55:12.530431 28136 net.cpp:124] Setting up ip1
I0428 19:55:12.530438 28136 net.cpp:131] Top shape: 64 25 (1600)
I0428 19:55:12.530457 28136 net.cpp:139] Memory required for data: 3176960
I0428 19:55:12.530463 28136 layer_factory.hpp:77] Creating layer relu1
I0428 19:55:12.530469 28136 net.cpp:86] Creating Layer relu1
I0428 19:55:12.530472 28136 net.cpp:408] relu1 <- ip1
I0428 19:55:12.530477 28136 net.cpp:369] relu1 -> ip1 (in-place)
I0428 19:55:12.530648 28136 net.cpp:124] Setting up relu1
I0428 19:55:12.530658 28136 net.cpp:131] Top shape: 64 25 (1600)
I0428 19:55:12.530660 28136 net.cpp:139] Memory required for data: 3183360
I0428 19:55:12.530663 28136 layer_factory.hpp:77] Creating layer ip2
I0428 19:55:12.530669 28136 net.cpp:86] Creating Layer ip2
I0428 19:55:12.530673 28136 net.cpp:408] ip2 <- ip1
I0428 19:55:12.530678 28136 net.cpp:382] ip2 -> ip2
I0428 19:55:12.530783 28136 net.cpp:124] Setting up ip2
I0428 19:55:12.530791 28136 net.cpp:131] Top shape: 64 25 (1600)
I0428 19:55:12.530793 28136 net.cpp:139] Memory required for data: 3189760
I0428 19:55:12.530798 28136 layer_factory.hpp:77] Creating layer relu2
I0428 19:55:12.530804 28136 net.cpp:86] Creating Layer relu2
I0428 19:55:12.530807 28136 net.cpp:408] relu2 <- ip2
I0428 19:55:12.530812 28136 net.cpp:369] relu2 -> ip2 (in-place)
I0428 19:55:12.531507 28136 net.cpp:124] Setting up relu2
I0428 19:55:12.531518 28136 net.cpp:131] Top shape: 64 25 (1600)
I0428 19:55:12.531538 28136 net.cpp:139] Memory required for data: 3196160
I0428 19:55:12.531541 28136 layer_factory.hpp:77] Creating layer ip3
I0428 19:55:12.531548 28136 net.cpp:86] Creating Layer ip3
I0428 19:55:12.531553 28136 net.cpp:408] ip3 <- ip2
I0428 19:55:12.531558 28136 net.cpp:382] ip3 -> ip3
I0428 19:55:12.531648 28136 net.cpp:124] Setting up ip3
I0428 19:55:12.531656 28136 net.cpp:131] Top shape: 64 10 (640)
I0428 19:55:12.531658 28136 net.cpp:139] Memory required for data: 3198720
I0428 19:55:12.531666 28136 layer_factory.hpp:77] Creating layer relu3
I0428 19:55:12.531671 28136 net.cpp:86] Creating Layer relu3
I0428 19:55:12.531673 28136 net.cpp:408] relu3 <- ip3
I0428 19:55:12.531677 28136 net.cpp:369] relu3 -> ip3 (in-place)
I0428 19:55:12.531847 28136 net.cpp:124] Setting up relu3
I0428 19:55:12.531857 28136 net.cpp:131] Top shape: 64 10 (640)
I0428 19:55:12.531859 28136 net.cpp:139] Memory required for data: 3201280
I0428 19:55:12.531862 28136 layer_factory.hpp:77] Creating layer loss
I0428 19:55:12.531868 28136 net.cpp:86] Creating Layer loss
I0428 19:55:12.531872 28136 net.cpp:408] loss <- ip3
I0428 19:55:12.531875 28136 net.cpp:408] loss <- label
I0428 19:55:12.531880 28136 net.cpp:382] loss -> loss
I0428 19:55:12.531893 28136 layer_factory.hpp:77] Creating layer loss
…
I0428 19:55:12.532497 28136 solver.cpp:173] Creating test net (#0) specified by net file: ECE595/mnist/train_test/var_everything2/lenet_train_test727.prototxt
I0428 19:55:12.532544 28136 net.cpp:296] The NetState phase (1) differed from the phase (0) specified by a rule in layer mnist
I0428 19:55:12.532629 28136 net.cpp:53] Initializing net from parameters: 
name: "LeNet"
state {
  phase: TEST
}
layer {
  name: "mnist"
  type: "Data"
  top: "data"
  top: "label"
  include {
    phase: TEST
  }
  transform_param {
    scale: 0.00390625
  }
  data_param {
    source: "examples/mnist/mnist_test_lmdb"
    batch_size: 100
    backend: LMDB
  }
}
layer {
  name: "conv0"
  type: "Convolution"
  bottom: "data"
  top: "conv0"
  param {
    lr_mult: 1
  }
  param {
    lr_mult: 2
  }
  convolution_param {
    num_output: 5
    kernel_size: 5
    stride: 1
    weight_filler {
      type: "xavier"
    }
    bias_filler {
      type: "constant"
    }
  }
}
layer {
  name: "pool0"
  type: "Pooling"
  bottom: "conv0"
  top: "pool0"
  pooling_param {
    pool: MAX
    kernel_size: 2
    stride: 2
  }
}
layer {
  name: "conv1"
  type: "Convolution"
  bottom: "pool0"
  top: "conv1"
  param {
    lr_mult: 1
  }
  param {
    lr_mult: 2
  }
  convolution_param {
    num_output: 100
    kernel_size: 5
    stride: 1
    weight_filler {
      type: "xavier"
    }
    bias_filler {
      type: "constant"
    }
  }
}
layer {
  name: "pool1"
  type: "Pooling"
  bottom: "conv1"
  top: "pool1"
  pooling_param {
    pool: MAX
    kernel_size: 2
    stride: 2
  }
}
layer {
  name: "ip1"
  type: "InnerProduct"
  bottom: "pool1"
  top: "ip1"
  param {
    lr_mult: 1
  }
  param {
    lr_mult: 2
  }
  inner_product_param {
    num_output: 25
    weight_filler {
      type: "xavier"
    }
    bias_filler {
      type: "constant"
    }
  }
}
layer {
  name: "relu1"
  type: "ReLU"
  bottom: "ip1"
  top: "ip1"
}
layer {
  name: "ip2"
  type: "InnerProduct"
  bottom: "ip1"
  top: "ip2"
  param {
    lr_mult: 1
  }
  param {
    lr_mult: 2
  }
  inner_product_param {
    num_output: 25
    weight_filler {
      type: "xavier"
    }
    bias_filler {
      type: "constant"
    }
  }
}
layer {
  name: "relu2"
  type: "ReLU"
  bottom: "ip2"
  top: "ip2"
}
layer {
  name: "ip3"
  type: "InnerProduct"
  bottom: "ip2"
  top: "ip3"
  param {
    lr_mult: 1
  }
  param {
    lr_mult: 2
  }
  inner_product_param {
    num_output: 10
    weight_filler {
      type: "xavier"
    }
    bias_filler {
      type: "constant"
    }
  }
}
layer {
  name: "relu3"
  type: "ReLU"
  bottom: "ip3"
  top: "ip3"
}
layer {
  name: "accuracy"
  type: "Accuracy"
  bottom: "ip3"
  bottom: "label"
  top: "accuracy"
  include {
    phase: TEST
  }
}
layer {
  name: "loss"
  type: "SoftmaxWithLoss"
  bottom: "ip3"
  bottom: "label"
  top: "loss"
}
I0428 19:55:12.532706 28136 layer_factory.hpp:77] Creating layer mnist
I0428 19:55:12.532747 28136 db_lmdb.cpp:35] Opened lmdb examples/mnist/mnist_test_lmdb
I0428 19:55:12.532758 28136 net.cpp:86] Creating Layer mnist
I0428 19:55:12.532763 28136 net.cpp:382] mnist -> data
I0428 19:55:12.532770 28136 net.cpp:382] mnist -> label
I0428 19:55:12.532910 28136 data_layer.cpp:45] output data size: 100,1,28,28
I0428 19:55:12.534831 28136 net.cpp:124] Setting up mnist
I0428 19:55:12.534842 28136 net.cpp:131] Top shape: 100 1 28 28 (78400)
I0428 19:55:12.534863 28136 net.cpp:131] Top shape: 100 (100)
I0428 19:55:12.534867 28136 net.cpp:139] Memory required for data: 314000
I0428 19:55:12.534870 28136 layer_factory.hpp:77] Creating layer label_mnist_1_split
I0428 19:55:12.534876 28136 net.cpp:86] Creating Layer label_mnist_1_split
I0428 19:55:12.534879 28136 net.cpp:408] label_mnist_1_split <- label
I0428 19:55:12.534884 28136 net.cpp:382] label_mnist_1_split -> label_mnist_1_split_0
I0428 19:55:12.534890 28136 net.cpp:382] label_mnist_1_split -> label_mnist_1_split_1
I0428 19:55:12.534935 28136 net.cpp:124] Setting up label_mnist_1_split
I0428 19:55:12.534941 28136 net.cpp:131] Top shape: 100 (100)
I0428 19:55:12.534945 28136 net.cpp:131] Top shape: 100 (100)
I0428 19:55:12.534947 28136 net.cpp:139] Memory required for data: 314800
I0428 19:55:12.534950 28136 layer_factory.hpp:77] Creating layer conv0
I0428 19:55:12.534957 28136 net.cpp:86] Creating Layer conv0
I0428 19:55:12.534961 28136 net.cpp:408] conv0 <- data
I0428 19:55:12.534965 28136 net.cpp:382] conv0 -> conv0
I0428 19:55:12.536501 28136 net.cpp:124] Setting up conv0
I0428 19:55:12.536531 28136 net.cpp:131] Top shape: 100 5 24 24 (288000)
I0428 19:55:12.536536 28136 net.cpp:139] Memory required for data: 1466800
I0428 19:55:12.536546 28136 layer_factory.hpp:77] Creating layer pool0
I0428 19:55:12.536552 28136 net.cpp:86] Creating Layer pool0
I0428 19:55:12.536556 28136 net.cpp:408] pool0 <- conv0
I0428 19:55:12.536561 28136 net.cpp:382] pool0 -> pool0
I0428 19:55:12.536614 28136 net.cpp:124] Setting up pool0
I0428 19:55:12.536619 28136 net.cpp:131] Top shape: 100 5 12 12 (72000)
I0428 19:55:12.536623 28136 net.cpp:139] Memory required for data: 1754800
I0428 19:55:12.536643 28136 layer_factory.hpp:77] Creating layer conv1
I0428 19:55:12.536653 28136 net.cpp:86] Creating Layer conv1
I0428 19:55:12.536658 28136 net.cpp:408] conv1 <- pool0
I0428 19:55:12.536679 28136 net.cpp:382] conv1 -> conv1
I0428 19:55:12.538275 28136 net.cpp:124] Setting up conv1
I0428 19:55:12.538305 28136 net.cpp:131] Top shape: 100 100 8 8 (640000)
I0428 19:55:12.538308 28136 net.cpp:139] Memory required for data: 4314800
I0428 19:55:12.538333 28136 layer_factory.hpp:77] Creating layer pool1
I0428 19:55:12.538341 28136 net.cpp:86] Creating Layer pool1
I0428 19:55:12.538343 28136 net.cpp:408] pool1 <- conv1
I0428 19:55:12.538350 28136 net.cpp:382] pool1 -> pool1
I0428 19:55:12.538388 28136 net.cpp:124] Setting up pool1
I0428 19:55:12.538393 28136 net.cpp:131] Top shape: 100 100 4 4 (160000)
I0428 19:55:12.538396 28136 net.cpp:139] Memory required for data: 4954800
I0428 19:55:12.538400 28136 layer_factory.hpp:77] Creating layer ip1
I0428 19:55:12.538408 28136 net.cpp:86] Creating Layer ip1
I0428 19:55:12.538410 28136 net.cpp:408] ip1 <- pool1
I0428 19:55:12.538416 28136 net.cpp:382] ip1 -> ip1
I0428 19:55:12.538805 28136 net.cpp:124] Setting up ip1
I0428 19:55:12.538813 28136 net.cpp:131] Top shape: 100 25 (2500)
I0428 19:55:12.538841 28136 net.cpp:139] Memory required for data: 4964800
I0428 19:55:12.538848 28136 layer_factory.hpp:77] Creating layer relu1
I0428 19:55:12.538854 28136 net.cpp:86] Creating Layer relu1
I0428 19:55:12.538857 28136 net.cpp:408] relu1 <- ip1
I0428 19:55:12.538862 28136 net.cpp:369] relu1 -> ip1 (in-place)
I0428 19:55:12.539026 28136 net.cpp:124] Setting up relu1
I0428 19:55:12.539034 28136 net.cpp:131] Top shape: 100 25 (2500)
I0428 19:55:12.539037 28136 net.cpp:139] Memory required for data: 4974800
I0428 19:55:12.539041 28136 layer_factory.hpp:77] Creating layer ip2
I0428 19:55:12.539048 28136 net.cpp:86] Creating Layer ip2
I0428 19:55:12.539052 28136 net.cpp:408] ip2 <- ip1
I0428 19:55:12.539058 28136 net.cpp:382] ip2 -> ip2
I0428 19:55:12.539165 28136 net.cpp:124] Setting up ip2
I0428 19:55:12.539173 28136 net.cpp:131] Top shape: 100 25 (2500)
I0428 19:55:12.539176 28136 net.cpp:139] Memory required for data: 4984800
I0428 19:55:12.539182 28136 layer_factory.hpp:77] Creating layer relu2
I0428 19:55:12.539186 28136 net.cpp:86] Creating Layer relu2
I0428 19:55:12.539189 28136 net.cpp:408] relu2 <- ip2
I0428 19:55:12.539196 28136 net.cpp:369] relu2 -> ip2 (in-place)
I0428 19:55:12.539438 28136 net.cpp:124] Setting up relu2
I0428 19:55:12.539448 28136 net.cpp:131] Top shape: 100 25 (2500)
I0428 19:55:12.539450 28136 net.cpp:139] Memory required for data: 4994800
I0428 19:55:12.539453 28136 layer_factory.hpp:77] Creating layer ip3
I0428 19:55:12.539461 28136 net.cpp:86] Creating Layer ip3
I0428 19:55:12.539464 28136 net.cpp:408] ip3 <- ip2
I0428 19:55:12.539469 28136 net.cpp:382] ip3 -> ip3
I0428 19:55:12.539572 28136 net.cpp:124] Setting up ip3
I0428 19:55:12.539579 28136 net.cpp:131] Top shape: 100 10 (1000)
I0428 19:55:12.539583 28136 net.cpp:139] Memory required for data: 4998800
I0428 19:55:12.539592 28136 layer_factory.hpp:77] Creating layer relu3
I0428 19:55:12.539597 28136 net.cpp:86] Creating Layer relu3
I0428 19:55:12.539600 28136 net.cpp:408] relu3 <- ip3
I0428 19:55:12.539605 28136 net.cpp:369] relu3 -> ip3 (in-place)
I0428 19:55:12.540392 28136 net.cpp:124] Setting up relu3
I0428 19:55:12.540403 28136 net.cpp:131] Top shape: 100 10 (1000)
I0428 19:55:12.540423 28136 net.cpp:139] Memory required for data: 5002800
I0428 19:55:12.540426 28136 layer_factory.hpp:77] Creating layer ip3_relu3_0_split
I0428 19:55:12.540433 28136 net.cpp:86] Creating Layer ip3_relu3_0_split
I0428 19:55:12.540436 28136 net.cpp:408] ip3_relu3_0_split <- ip3
I0428 19:55:12.540441 28136 net.cpp:382] ip3_relu3_0_split -> ip3_relu3_0_split_0
I0428 19:55:12.540447 28136 net.cpp:382] ip3_relu3_0_split -> ip3_relu3_0_split_1
I0428 19:55:12.540488 28136 net.cpp:124] Setting up ip3_relu3_0_split
I0428 19:55:12.540493 28136 net.cpp:131] Top shape: 100 10 (1000)
I0428 19:55:12.540496 28136 net.cpp:131] Top shape: 100 10 (1000)
I0428 19:55:12.540499 28136 net.cpp:139] Memory required for data: 5010800
I0428 19:55:12.540503 28136 layer_factory.hpp:77] Creating layer accuracy
I0428 19:55:12.540524 28136 net.cpp:86] Creating Layer accuracy
I0428 19:55:12.540526 28136 net.cpp:408] accuracy <- ip3_relu3_0_split_0
I0428 19:55:12.540530 28136 net.cpp:408] accuracy <- label_mnist_1_split_0
I0428 19:55:12.540536 28136 net.cpp:382] accuracy -> accuracy
…
