…
I0428 20:05:10.165241 30551 net.cpp:296] The NetState phase (0) differed from the phase (1) specified by a rule in layer mnist
I0428 20:05:10.165271 30551 net.cpp:296] The NetState phase (0) differed from the phase (1) specified by a rule in layer accuracy
I0428 20:05:10.165352 30551 net.cpp:53] Initializing net from parameters: 
name: "LeNet"
state {
  phase: TRAIN
  level: 0
  stage: ""
}
layer {
  name: "mnist"
  type: "Data"
  top: "data"
  top: "label"
  include {
    phase: TRAIN
  }
  transform_param {
    scale: 0.00390625
  }
  data_param {
    source: "examples/mnist/mnist_train_lmdb"
    batch_size: 64
    backend: LMDB
  }
}
layer {
  name: "conv0"
  type: "Convolution"
  bottom: "data"
  top: "conv0"
  param {
    lr_mult: 1
  }
  param {
    lr_mult: 2
  }
  convolution_param {
    num_output: 25
    kernel_size: 5
    stride: 1
    weight_filler {
      type: "xavier"
    }
    bias_filler {
      type: "constant"
    }
  }
}
layer {
  name: "pool0"
  type: "Pooling"
  bottom: "conv0"
  top: "pool0"
  pooling_param {
    pool: MAX
    kernel_size: 2
    stride: 2
  }
}
layer {
  name: "conv1"
  type: "Convolution"
  bottom: "pool0"
  top: "conv1"
  param {
    lr_mult: 1
  }
  param {
    lr_mult: 2
  }
  convolution_param {
    num_output: 2
    kernel_size: 5
    stride: 1
    weight_filler {
      type: "xavier"
    }
    bias_filler {
      type: "constant"
    }
  }
}
layer {
  name: "pool1"
  type: "Pooling"
  bottom: "conv1"
  top: "pool1"
  pooling_param {
    pool: MAX
    kernel_size: 2
    stride: 2
  }
}
layer {
  name: "ip1"
  type: "InnerProduct"
  bottom: "pool1"
  top: "ip1"
  param {
    lr_mult: 1
  }
  param {
    lr_mult: 2
  }
  inner_product_param {
    num_output: 10
    weight_filler {
      type: "xavier"
    }
    bias_filler {
      type: "constant"
    }
  }
}
layer {
  name: "relu1"
  type: "ReLU"
  bottom: "ip1"
  top: "ip1"
}
layer {
  name: "ip2"
  type: "InnerProduct"
  bottom: "ip1"
  top: "ip2"
  param {
    lr_mult: 1
  }
  param {
    lr_mult: 2
  }
  inner_product_param {
    num_output: 25
    weight_filler {
      type: "xavier"
    }
    bias_filler {
      type: "constant"
    }
  }
}
layer {
  name: "relu2"
  type: "ReLU"
  bottom: "ip2"
  top: "ip2"
}
layer {
  name: "ip3"
  type: "InnerProduct"
  bottom: "ip2"
  top: "ip3"
  param {
    lr_mult: 1
  }
  param {
    lr_mult: 2
  }
  inner_product_param {
    num_output: 10
    weight_filler {
      type: "xavier"
    }
    bias_filler {
      type: "constant"
    }
  }
}
layer {
  name: "relu3"
  type: "ReLU"
  bottom: "ip3"
  top: "ip3"
}
layer {
  name: "loss"
  type: "SoftmaxWithLoss"
  bottom: "ip3"
  bottom: "label"
  top: "loss"
}
I0428 20:05:10.165419 30551 layer_factory.hpp:77] Creating layer mnist
I0428 20:05:10.165499 30551 db_lmdb.cpp:35] Opened lmdb examples/mnist/mnist_train_lmdb
I0428 20:05:10.165520 30551 net.cpp:86] Creating Layer mnist
I0428 20:05:10.165526 30551 net.cpp:382] mnist -> data
I0428 20:05:10.165545 30551 net.cpp:382] mnist -> label
I0428 20:05:10.166472 30551 data_layer.cpp:45] output data size: 64,1,28,28
I0428 20:05:10.168753 30551 net.cpp:124] Setting up mnist
I0428 20:05:10.168782 30551 net.cpp:131] Top shape: 64 1 28 28 (50176)
I0428 20:05:10.168789 30551 net.cpp:131] Top shape: 64 (64)
I0428 20:05:10.168792 30551 net.cpp:139] Memory required for data: 200960
I0428 20:05:10.168798 30551 layer_factory.hpp:77] Creating layer conv0
I0428 20:05:10.168833 30551 net.cpp:86] Creating Layer conv0
I0428 20:05:10.168884 30551 net.cpp:408] conv0 <- data
I0428 20:05:10.168896 30551 net.cpp:382] conv0 -> conv0
I0428 20:05:10.403122 30551 net.cpp:124] Setting up conv0
I0428 20:05:10.403148 30551 net.cpp:131] Top shape: 64 25 24 24 (921600)
I0428 20:05:10.403152 30551 net.cpp:139] Memory required for data: 3887360
I0428 20:05:10.403167 30551 layer_factory.hpp:77] Creating layer pool0
I0428 20:05:10.403179 30551 net.cpp:86] Creating Layer pool0
I0428 20:05:10.403183 30551 net.cpp:408] pool0 <- conv0
I0428 20:05:10.403188 30551 net.cpp:382] pool0 -> pool0
I0428 20:05:10.403246 30551 net.cpp:124] Setting up pool0
I0428 20:05:10.403251 30551 net.cpp:131] Top shape: 64 25 12 12 (230400)
I0428 20:05:10.403254 30551 net.cpp:139] Memory required for data: 4808960
I0428 20:05:10.403257 30551 layer_factory.hpp:77] Creating layer conv1
I0428 20:05:10.403267 30551 net.cpp:86] Creating Layer conv1
I0428 20:05:10.403270 30551 net.cpp:408] conv1 <- pool0
I0428 20:05:10.403275 30551 net.cpp:382] conv1 -> conv1
I0428 20:05:10.405946 30551 net.cpp:124] Setting up conv1
I0428 20:05:10.405977 30551 net.cpp:131] Top shape: 64 2 8 8 (8192)
I0428 20:05:10.405979 30551 net.cpp:139] Memory required for data: 4841728
I0428 20:05:10.405988 30551 layer_factory.hpp:77] Creating layer pool1
I0428 20:05:10.405997 30551 net.cpp:86] Creating Layer pool1
I0428 20:05:10.405999 30551 net.cpp:408] pool1 <- conv1
I0428 20:05:10.406004 30551 net.cpp:382] pool1 -> pool1
I0428 20:05:10.406056 30551 net.cpp:124] Setting up pool1
I0428 20:05:10.406061 30551 net.cpp:131] Top shape: 64 2 4 4 (2048)
I0428 20:05:10.406064 30551 net.cpp:139] Memory required for data: 4849920
I0428 20:05:10.406067 30551 layer_factory.hpp:77] Creating layer ip1
I0428 20:05:10.406075 30551 net.cpp:86] Creating Layer ip1
I0428 20:05:10.406077 30551 net.cpp:408] ip1 <- pool1
I0428 20:05:10.406082 30551 net.cpp:382] ip1 -> ip1
I0428 20:05:10.406174 30551 net.cpp:124] Setting up ip1
I0428 20:05:10.406182 30551 net.cpp:131] Top shape: 64 10 (640)
I0428 20:05:10.406184 30551 net.cpp:139] Memory required for data: 4852480
I0428 20:05:10.406191 30551 layer_factory.hpp:77] Creating layer relu1
I0428 20:05:10.406198 30551 net.cpp:86] Creating Layer relu1
I0428 20:05:10.406200 30551 net.cpp:408] relu1 <- ip1
I0428 20:05:10.406204 30551 net.cpp:369] relu1 -> ip1 (in-place)
I0428 20:05:10.406365 30551 net.cpp:124] Setting up relu1
I0428 20:05:10.406374 30551 net.cpp:131] Top shape: 64 10 (640)
I0428 20:05:10.406378 30551 net.cpp:139] Memory required for data: 4855040
I0428 20:05:10.406380 30551 layer_factory.hpp:77] Creating layer ip2
I0428 20:05:10.406386 30551 net.cpp:86] Creating Layer ip2
I0428 20:05:10.406389 30551 net.cpp:408] ip2 <- ip1
I0428 20:05:10.406394 30551 net.cpp:382] ip2 -> ip2
I0428 20:05:10.406486 30551 net.cpp:124] Setting up ip2
I0428 20:05:10.406491 30551 net.cpp:131] Top shape: 64 25 (1600)
I0428 20:05:10.406494 30551 net.cpp:139] Memory required for data: 4861440
I0428 20:05:10.406500 30551 layer_factory.hpp:77] Creating layer relu2
I0428 20:05:10.406505 30551 net.cpp:86] Creating Layer relu2
I0428 20:05:10.406508 30551 net.cpp:408] relu2 <- ip2
I0428 20:05:10.406512 30551 net.cpp:369] relu2 -> ip2 (in-place)
I0428 20:05:10.407256 30551 net.cpp:124] Setting up relu2
I0428 20:05:10.407269 30551 net.cpp:131] Top shape: 64 25 (1600)
I0428 20:05:10.407287 30551 net.cpp:139] Memory required for data: 4867840
I0428 20:05:10.407290 30551 layer_factory.hpp:77] Creating layer ip3
I0428 20:05:10.407297 30551 net.cpp:86] Creating Layer ip3
I0428 20:05:10.407302 30551 net.cpp:408] ip3 <- ip2
I0428 20:05:10.407307 30551 net.cpp:382] ip3 -> ip3
I0428 20:05:10.407418 30551 net.cpp:124] Setting up ip3
I0428 20:05:10.407425 30551 net.cpp:131] Top shape: 64 10 (640)
I0428 20:05:10.407428 30551 net.cpp:139] Memory required for data: 4870400
I0428 20:05:10.407436 30551 layer_factory.hpp:77] Creating layer relu3
I0428 20:05:10.407441 30551 net.cpp:86] Creating Layer relu3
I0428 20:05:10.407444 30551 net.cpp:408] relu3 <- ip3
I0428 20:05:10.407447 30551 net.cpp:369] relu3 -> ip3 (in-place)
I0428 20:05:10.407606 30551 net.cpp:124] Setting up relu3
I0428 20:05:10.407614 30551 net.cpp:131] Top shape: 64 10 (640)
I0428 20:05:10.407618 30551 net.cpp:139] Memory required for data: 4872960
I0428 20:05:10.407620 30551 layer_factory.hpp:77] Creating layer loss
I0428 20:05:10.407626 30551 net.cpp:86] Creating Layer loss
I0428 20:05:10.407629 30551 net.cpp:408] loss <- ip3
I0428 20:05:10.407634 30551 net.cpp:408] loss <- label
I0428 20:05:10.407639 30551 net.cpp:382] loss -> loss
I0428 20:05:10.407655 30551 layer_factory.hpp:77] Creating layer loss
…
I0428 20:05:10.408329 30551 solver.cpp:173] Creating test net (#0) specified by net file: ECE595/mnist/train_test/var_everything2/lenet_train_test992.prototxt
I0428 20:05:10.408376 30551 net.cpp:296] The NetState phase (1) differed from the phase (0) specified by a rule in layer mnist
I0428 20:05:10.408469 30551 net.cpp:53] Initializing net from parameters: 
name: "LeNet"
state {
  phase: TEST
}
layer {
  name: "mnist"
  type: "Data"
  top: "data"
  top: "label"
  include {
    phase: TEST
  }
  transform_param {
    scale: 0.00390625
  }
  data_param {
    source: "examples/mnist/mnist_test_lmdb"
    batch_size: 100
    backend: LMDB
  }
}
layer {
  name: "conv0"
  type: "Convolution"
  bottom: "data"
  top: "conv0"
  param {
    lr_mult: 1
  }
  param {
    lr_mult: 2
  }
  convolution_param {
    num_output: 25
    kernel_size: 5
    stride: 1
    weight_filler {
      type: "xavier"
    }
    bias_filler {
      type: "constant"
    }
  }
}
layer {
  name: "pool0"
  type: "Pooling"
  bottom: "conv0"
  top: "pool0"
  pooling_param {
    pool: MAX
    kernel_size: 2
    stride: 2
  }
}
layer {
  name: "conv1"
  type: "Convolution"
  bottom: "pool0"
  top: "conv1"
  param {
    lr_mult: 1
  }
  param {
    lr_mult: 2
  }
  convolution_param {
    num_output: 2
    kernel_size: 5
    stride: 1
    weight_filler {
      type: "xavier"
    }
    bias_filler {
      type: "constant"
    }
  }
}
layer {
  name: "pool1"
  type: "Pooling"
  bottom: "conv1"
  top: "pool1"
  pooling_param {
    pool: MAX
    kernel_size: 2
    stride: 2
  }
}
layer {
  name: "ip1"
  type: "InnerProduct"
  bottom: "pool1"
  top: "ip1"
  param {
    lr_mult: 1
  }
  param {
    lr_mult: 2
  }
  inner_product_param {
    num_output: 10
    weight_filler {
      type: "xavier"
    }
    bias_filler {
      type: "constant"
    }
  }
}
layer {
  name: "relu1"
  type: "ReLU"
  bottom: "ip1"
  top: "ip1"
}
layer {
  name: "ip2"
  type: "InnerProduct"
  bottom: "ip1"
  top: "ip2"
  param {
    lr_mult: 1
  }
  param {
    lr_mult: 2
  }
  inner_product_param {
    num_output: 25
    weight_filler {
      type: "xavier"
    }
    bias_filler {
      type: "constant"
    }
  }
}
layer {
  name: "relu2"
  type: "ReLU"
  bottom: "ip2"
  top: "ip2"
}
layer {
  name: "ip3"
  type: "InnerProduct"
  bottom: "ip2"
  top: "ip3"
  param {
    lr_mult: 1
  }
  param {
    lr_mult: 2
  }
  inner_product_param {
    num_output: 10
    weight_filler {
      type: "xavier"
    }
    bias_filler {
      type: "constant"
    }
  }
}
layer {
  name: "relu3"
  type: "ReLU"
  bottom: "ip3"
  top: "ip3"
}
layer {
  name: "accuracy"
  type: "Accuracy"
  bottom: "ip3"
  bottom: "label"
  top: "accuracy"
  include {
    phase: TEST
  }
}
layer {
  name: "loss"
  type: "SoftmaxWithLoss"
  bottom: "ip3"
  bottom: "label"
  top: "loss"
}
I0428 20:05:10.408550 30551 layer_factory.hpp:77] Creating layer mnist
I0428 20:05:10.408605 30551 db_lmdb.cpp:35] Opened lmdb examples/mnist/mnist_test_lmdb
I0428 20:05:10.408617 30551 net.cpp:86] Creating Layer mnist
I0428 20:05:10.408622 30551 net.cpp:382] mnist -> data
I0428 20:05:10.408629 30551 net.cpp:382] mnist -> label
I0428 20:05:10.408725 30551 data_layer.cpp:45] output data size: 100,1,28,28
I0428 20:05:10.410949 30551 net.cpp:124] Setting up mnist
I0428 20:05:10.410979 30551 net.cpp:131] Top shape: 100 1 28 28 (78400)
I0428 20:05:10.410984 30551 net.cpp:131] Top shape: 100 (100)
I0428 20:05:10.410986 30551 net.cpp:139] Memory required for data: 314000
I0428 20:05:10.410990 30551 layer_factory.hpp:77] Creating layer label_mnist_1_split
I0428 20:05:10.411022 30551 net.cpp:86] Creating Layer label_mnist_1_split
I0428 20:05:10.411026 30551 net.cpp:408] label_mnist_1_split <- label
I0428 20:05:10.411031 30551 net.cpp:382] label_mnist_1_split -> label_mnist_1_split_0
I0428 20:05:10.411038 30551 net.cpp:382] label_mnist_1_split -> label_mnist_1_split_1
I0428 20:05:10.411088 30551 net.cpp:124] Setting up label_mnist_1_split
I0428 20:05:10.411094 30551 net.cpp:131] Top shape: 100 (100)
I0428 20:05:10.411098 30551 net.cpp:131] Top shape: 100 (100)
I0428 20:05:10.411100 30551 net.cpp:139] Memory required for data: 314800
I0428 20:05:10.411103 30551 layer_factory.hpp:77] Creating layer conv0
I0428 20:05:10.411111 30551 net.cpp:86] Creating Layer conv0
I0428 20:05:10.411114 30551 net.cpp:408] conv0 <- data
I0428 20:05:10.411118 30551 net.cpp:382] conv0 -> conv0
I0428 20:05:10.412853 30551 net.cpp:124] Setting up conv0
I0428 20:05:10.412868 30551 net.cpp:131] Top shape: 100 25 24 24 (1440000)
I0428 20:05:10.412871 30551 net.cpp:139] Memory required for data: 6074800
I0428 20:05:10.412880 30551 layer_factory.hpp:77] Creating layer pool0
I0428 20:05:10.412886 30551 net.cpp:86] Creating Layer pool0
I0428 20:05:10.412905 30551 net.cpp:408] pool0 <- conv0
I0428 20:05:10.412910 30551 net.cpp:382] pool0 -> pool0
I0428 20:05:10.412946 30551 net.cpp:124] Setting up pool0
I0428 20:05:10.412951 30551 net.cpp:131] Top shape: 100 25 12 12 (360000)
I0428 20:05:10.412955 30551 net.cpp:139] Memory required for data: 7514800
I0428 20:05:10.412957 30551 layer_factory.hpp:77] Creating layer conv1
I0428 20:05:10.412966 30551 net.cpp:86] Creating Layer conv1
I0428 20:05:10.412968 30551 net.cpp:408] conv1 <- pool0
I0428 20:05:10.412973 30551 net.cpp:382] conv1 -> conv1
I0428 20:05:10.414983 30551 net.cpp:124] Setting up conv1
I0428 20:05:10.414997 30551 net.cpp:131] Top shape: 100 2 8 8 (12800)
I0428 20:05:10.415001 30551 net.cpp:139] Memory required for data: 7566000
I0428 20:05:10.415011 30551 layer_factory.hpp:77] Creating layer pool1
I0428 20:05:10.415032 30551 net.cpp:86] Creating Layer pool1
I0428 20:05:10.415036 30551 net.cpp:408] pool1 <- conv1
I0428 20:05:10.415058 30551 net.cpp:382] pool1 -> pool1
I0428 20:05:10.415112 30551 net.cpp:124] Setting up pool1
I0428 20:05:10.415117 30551 net.cpp:131] Top shape: 100 2 4 4 (3200)
I0428 20:05:10.415120 30551 net.cpp:139] Memory required for data: 7578800
I0428 20:05:10.415122 30551 layer_factory.hpp:77] Creating layer ip1
I0428 20:05:10.415129 30551 net.cpp:86] Creating Layer ip1
I0428 20:05:10.415132 30551 net.cpp:408] ip1 <- pool1
I0428 20:05:10.415138 30551 net.cpp:382] ip1 -> ip1
I0428 20:05:10.415235 30551 net.cpp:124] Setting up ip1
I0428 20:05:10.415242 30551 net.cpp:131] Top shape: 100 10 (1000)
I0428 20:05:10.415254 30551 net.cpp:139] Memory required for data: 7582800
I0428 20:05:10.415261 30551 layer_factory.hpp:77] Creating layer relu1
I0428 20:05:10.415267 30551 net.cpp:86] Creating Layer relu1
I0428 20:05:10.415271 30551 net.cpp:408] relu1 <- ip1
I0428 20:05:10.415274 30551 net.cpp:369] relu1 -> ip1 (in-place)
I0428 20:05:10.415550 30551 net.cpp:124] Setting up relu1
I0428 20:05:10.415560 30551 net.cpp:131] Top shape: 100 10 (1000)
I0428 20:05:10.415563 30551 net.cpp:139] Memory required for data: 7586800
I0428 20:05:10.415566 30551 layer_factory.hpp:77] Creating layer ip2
I0428 20:05:10.415575 30551 net.cpp:86] Creating Layer ip2
I0428 20:05:10.415578 30551 net.cpp:408] ip2 <- ip1
I0428 20:05:10.415585 30551 net.cpp:382] ip2 -> ip2
I0428 20:05:10.415684 30551 net.cpp:124] Setting up ip2
I0428 20:05:10.415693 30551 net.cpp:131] Top shape: 100 25 (2500)
I0428 20:05:10.415695 30551 net.cpp:139] Memory required for data: 7596800
I0428 20:05:10.415700 30551 layer_factory.hpp:77] Creating layer relu2
I0428 20:05:10.415705 30551 net.cpp:86] Creating Layer relu2
I0428 20:05:10.415709 30551 net.cpp:408] relu2 <- ip2
I0428 20:05:10.415712 30551 net.cpp:369] relu2 -> ip2 (in-place)
I0428 20:05:10.415881 30551 net.cpp:124] Setting up relu2
I0428 20:05:10.415889 30551 net.cpp:131] Top shape: 100 25 (2500)
I0428 20:05:10.415892 30551 net.cpp:139] Memory required for data: 7606800
I0428 20:05:10.415895 30551 layer_factory.hpp:77] Creating layer ip3
I0428 20:05:10.415900 30551 net.cpp:86] Creating Layer ip3
I0428 20:05:10.415904 30551 net.cpp:408] ip3 <- ip2
I0428 20:05:10.415908 30551 net.cpp:382] ip3 -> ip3
I0428 20:05:10.416018 30551 net.cpp:124] Setting up ip3
I0428 20:05:10.416024 30551 net.cpp:131] Top shape: 100 10 (1000)
I0428 20:05:10.416028 30551 net.cpp:139] Memory required for data: 7610800
I0428 20:05:10.416035 30551 layer_factory.hpp:77] Creating layer relu3
I0428 20:05:10.416046 30551 net.cpp:86] Creating Layer relu3
I0428 20:05:10.416051 30551 net.cpp:408] relu3 <- ip3
I0428 20:05:10.416055 30551 net.cpp:369] relu3 -> ip3 (in-place)
I0428 20:05:10.416863 30551 net.cpp:124] Setting up relu3
I0428 20:05:10.416896 30551 net.cpp:131] Top shape: 100 10 (1000)
I0428 20:05:10.416899 30551 net.cpp:139] Memory required for data: 7614800
I0428 20:05:10.416903 30551 layer_factory.hpp:77] Creating layer ip3_relu3_0_split
I0428 20:05:10.416908 30551 net.cpp:86] Creating Layer ip3_relu3_0_split
I0428 20:05:10.416913 30551 net.cpp:408] ip3_relu3_0_split <- ip3
I0428 20:05:10.416929 30551 net.cpp:382] ip3_relu3_0_split -> ip3_relu3_0_split_0
I0428 20:05:10.416936 30551 net.cpp:382] ip3_relu3_0_split -> ip3_relu3_0_split_1
I0428 20:05:10.416993 30551 net.cpp:124] Setting up ip3_relu3_0_split
I0428 20:05:10.417003 30551 net.cpp:131] Top shape: 100 10 (1000)
I0428 20:05:10.417007 30551 net.cpp:131] Top shape: 100 10 (1000)
I0428 20:05:10.417011 30551 net.cpp:139] Memory required for data: 7622800
I0428 20:05:10.417019 30551 layer_factory.hpp:77] Creating layer accuracy
I0428 20:05:10.417031 30551 net.cpp:86] Creating Layer accuracy
I0428 20:05:10.417033 30551 net.cpp:408] accuracy <- ip3_relu3_0_split_0
I0428 20:05:10.417038 30551 net.cpp:408] accuracy <- label_mnist_1_split_0
I0428 20:05:10.417047 30551 net.cpp:382] accuracy -> accuracy
…
