…
I0428 20:12:17.729383 32227 net.cpp:296] The NetState phase (0) differed from the phase (1) specified by a rule in layer mnist
I0428 20:12:17.729406 32227 net.cpp:296] The NetState phase (0) differed from the phase (1) specified by a rule in layer accuracy
I0428 20:12:17.729501 32227 net.cpp:53] Initializing net from parameters: 
name: "LeNet"
state {
  phase: TRAIN
  level: 0
  stage: ""
}
layer {
  name: "mnist"
  type: "Data"
  top: "data"
  top: "label"
  include {
    phase: TRAIN
  }
  transform_param {
    scale: 0.00390625
  }
  data_param {
    source: "examples/mnist/mnist_train_lmdb"
    batch_size: 64
    backend: LMDB
  }
}
layer {
  name: "conv0"
  type: "Convolution"
  bottom: "data"
  top: "conv0"
  param {
    lr_mult: 1
  }
  param {
    lr_mult: 2
  }
  convolution_param {
    num_output: 25
    kernel_size: 5
    stride: 1
    weight_filler {
      type: "xavier"
    }
    bias_filler {
      type: "constant"
    }
  }
}
layer {
  name: "pool0"
  type: "Pooling"
  bottom: "conv0"
  top: "pool0"
  pooling_param {
    pool: MAX
    kernel_size: 2
    stride: 2
  }
}
layer {
  name: "conv1"
  type: "Convolution"
  bottom: "pool0"
  top: "conv1"
  param {
    lr_mult: 1
  }
  param {
    lr_mult: 2
  }
  convolution_param {
    num_output: 100
    kernel_size: 5
    stride: 1
    weight_filler {
      type: "xavier"
    }
    bias_filler {
      type: "constant"
    }
  }
}
layer {
  name: "pool1"
  type: "Pooling"
  bottom: "conv1"
  top: "pool1"
  pooling_param {
    pool: MAX
    kernel_size: 2
    stride: 2
  }
}
layer {
  name: "ip1"
  type: "InnerProduct"
  bottom: "pool1"
  top: "ip1"
  param {
    lr_mult: 1
  }
  param {
    lr_mult: 2
  }
  inner_product_param {
    num_output: 25
    weight_filler {
      type: "xavier"
    }
    bias_filler {
      type: "constant"
    }
  }
}
layer {
  name: "relu1"
  type: "ReLU"
  bottom: "ip1"
  top: "ip1"
}
layer {
  name: "ip2"
  type: "InnerProduct"
  bottom: "ip1"
  top: "ip2"
  param {
    lr_mult: 1
  }
  param {
    lr_mult: 2
  }
  inner_product_param {
    num_output: 10
    weight_filler {
      type: "xavier"
    }
    bias_filler {
      type: "constant"
    }
  }
}
layer {
  name: "relu2"
  type: "ReLU"
  bottom: "ip2"
  top: "ip2"
}
layer {
  name: "loss"
  type: "SoftmaxWithLoss"
  bottom: "ip2"
  bottom: "label"
  top: "loss"
}
I0428 20:12:17.729601 32227 layer_factory.hpp:77] Creating layer mnist
I0428 20:12:17.729732 32227 db_lmdb.cpp:35] Opened lmdb examples/mnist/mnist_train_lmdb
I0428 20:12:17.729765 32227 net.cpp:86] Creating Layer mnist
I0428 20:12:17.729778 32227 net.cpp:382] mnist -> data
I0428 20:12:17.729807 32227 net.cpp:382] mnist -> label
I0428 20:12:17.731053 32227 data_layer.cpp:45] output data size: 64,1,28,28
I0428 20:12:17.733547 32227 net.cpp:124] Setting up mnist
I0428 20:12:17.733567 32227 net.cpp:131] Top shape: 64 1 28 28 (50176)
I0428 20:12:17.733578 32227 net.cpp:131] Top shape: 64 (64)
I0428 20:12:17.733585 32227 net.cpp:139] Memory required for data: 200960
I0428 20:12:17.733597 32227 layer_factory.hpp:77] Creating layer conv0
I0428 20:12:17.733619 32227 net.cpp:86] Creating Layer conv0
I0428 20:12:17.733630 32227 net.cpp:408] conv0 <- data
I0428 20:12:17.733649 32227 net.cpp:382] conv0 -> conv0
I0428 20:12:18.024523 32227 net.cpp:124] Setting up conv0
I0428 20:12:18.024556 32227 net.cpp:131] Top shape: 64 25 24 24 (921600)
I0428 20:12:18.024564 32227 net.cpp:139] Memory required for data: 3887360
I0428 20:12:18.024618 32227 layer_factory.hpp:77] Creating layer pool0
I0428 20:12:18.024641 32227 net.cpp:86] Creating Layer pool0
I0428 20:12:18.024652 32227 net.cpp:408] pool0 <- conv0
I0428 20:12:18.024663 32227 net.cpp:382] pool0 -> pool0
I0428 20:12:18.024725 32227 net.cpp:124] Setting up pool0
I0428 20:12:18.024736 32227 net.cpp:131] Top shape: 64 25 12 12 (230400)
I0428 20:12:18.024744 32227 net.cpp:139] Memory required for data: 4808960
I0428 20:12:18.024749 32227 layer_factory.hpp:77] Creating layer conv1
I0428 20:12:18.024770 32227 net.cpp:86] Creating Layer conv1
I0428 20:12:18.024777 32227 net.cpp:408] conv1 <- pool0
I0428 20:12:18.024787 32227 net.cpp:382] conv1 -> conv1
I0428 20:12:18.027389 32227 net.cpp:124] Setting up conv1
I0428 20:12:18.027408 32227 net.cpp:131] Top shape: 64 100 8 8 (409600)
I0428 20:12:18.027416 32227 net.cpp:139] Memory required for data: 6447360
I0428 20:12:18.027431 32227 layer_factory.hpp:77] Creating layer pool1
I0428 20:12:18.027446 32227 net.cpp:86] Creating Layer pool1
I0428 20:12:18.027453 32227 net.cpp:408] pool1 <- conv1
I0428 20:12:18.027463 32227 net.cpp:382] pool1 -> pool1
I0428 20:12:18.027516 32227 net.cpp:124] Setting up pool1
I0428 20:12:18.027528 32227 net.cpp:131] Top shape: 64 100 4 4 (102400)
I0428 20:12:18.027534 32227 net.cpp:139] Memory required for data: 6856960
I0428 20:12:18.027540 32227 layer_factory.hpp:77] Creating layer ip1
I0428 20:12:18.027554 32227 net.cpp:86] Creating Layer ip1
I0428 20:12:18.027560 32227 net.cpp:408] ip1 <- pool1
I0428 20:12:18.027570 32227 net.cpp:382] ip1 -> ip1
I0428 20:12:18.027973 32227 net.cpp:124] Setting up ip1
I0428 20:12:18.027986 32227 net.cpp:131] Top shape: 64 25 (1600)
I0428 20:12:18.027992 32227 net.cpp:139] Memory required for data: 6863360
I0428 20:12:18.028005 32227 layer_factory.hpp:77] Creating layer relu1
I0428 20:12:18.028023 32227 net.cpp:86] Creating Layer relu1
I0428 20:12:18.028033 32227 net.cpp:408] relu1 <- ip1
I0428 20:12:18.028043 32227 net.cpp:369] relu1 -> ip1 (in-place)
I0428 20:12:18.028249 32227 net.cpp:124] Setting up relu1
I0428 20:12:18.028260 32227 net.cpp:131] Top shape: 64 25 (1600)
I0428 20:12:18.028266 32227 net.cpp:139] Memory required for data: 6869760
I0428 20:12:18.028273 32227 layer_factory.hpp:77] Creating layer ip2
I0428 20:12:18.028285 32227 net.cpp:86] Creating Layer ip2
I0428 20:12:18.028292 32227 net.cpp:408] ip2 <- ip1
I0428 20:12:18.028303 32227 net.cpp:382] ip2 -> ip2
I0428 20:12:18.028425 32227 net.cpp:124] Setting up ip2
I0428 20:12:18.028435 32227 net.cpp:131] Top shape: 64 10 (640)
I0428 20:12:18.028441 32227 net.cpp:139] Memory required for data: 6872320
I0428 20:12:18.028452 32227 layer_factory.hpp:77] Creating layer relu2
I0428 20:12:18.028465 32227 net.cpp:86] Creating Layer relu2
I0428 20:12:18.028471 32227 net.cpp:408] relu2 <- ip2
I0428 20:12:18.028481 32227 net.cpp:369] relu2 -> ip2 (in-place)
I0428 20:12:18.029345 32227 net.cpp:124] Setting up relu2
I0428 20:12:18.029362 32227 net.cpp:131] Top shape: 64 10 (640)
I0428 20:12:18.029369 32227 net.cpp:139] Memory required for data: 6874880
I0428 20:12:18.029376 32227 layer_factory.hpp:77] Creating layer loss
I0428 20:12:18.029387 32227 net.cpp:86] Creating Layer loss
I0428 20:12:18.029394 32227 net.cpp:408] loss <- ip2
I0428 20:12:18.029404 32227 net.cpp:408] loss <- label
I0428 20:12:18.029414 32227 net.cpp:382] loss -> loss
I0428 20:12:18.029440 32227 layer_factory.hpp:77] Creating layer loss
…
I0428 20:12:18.030230 32227 solver.cpp:173] Creating test net (#0) specified by net file: ECE595/mnist/train_test/var_everything2/lenet_train_test1177.prototxt
I0428 20:12:18.030272 32227 net.cpp:296] The NetState phase (1) differed from the phase (0) specified by a rule in layer mnist
I0428 20:12:18.030382 32227 net.cpp:53] Initializing net from parameters: 
name: "LeNet"
state {
  phase: TEST
}
layer {
  name: "mnist"
  type: "Data"
  top: "data"
  top: "label"
  include {
    phase: TEST
  }
  transform_param {
    scale: 0.00390625
  }
  data_param {
    source: "examples/mnist/mnist_test_lmdb"
    batch_size: 100
    backend: LMDB
  }
}
layer {
  name: "conv0"
  type: "Convolution"
  bottom: "data"
  top: "conv0"
  param {
    lr_mult: 1
  }
  param {
    lr_mult: 2
  }
  convolution_param {
    num_output: 25
    kernel_size: 5
    stride: 1
    weight_filler {
      type: "xavier"
    }
    bias_filler {
      type: "constant"
    }
  }
}
layer {
  name: "pool0"
  type: "Pooling"
  bottom: "conv0"
  top: "pool0"
  pooling_param {
    pool: MAX
    kernel_size: 2
    stride: 2
  }
}
layer {
  name: "conv1"
  type: "Convolution"
  bottom: "pool0"
  top: "conv1"
  param {
    lr_mult: 1
  }
  param {
    lr_mult: 2
  }
  convolution_param {
    num_output: 100
    kernel_size: 5
    stride: 1
    weight_filler {
      type: "xavier"
    }
    bias_filler {
      type: "constant"
    }
  }
}
layer {
  name: "pool1"
  type: "Pooling"
  bottom: "conv1"
  top: "pool1"
  pooling_param {
    pool: MAX
    kernel_size: 2
    stride: 2
  }
}
layer {
  name: "ip1"
  type: "InnerProduct"
  bottom: "pool1"
  top: "ip1"
  param {
    lr_mult: 1
  }
  param {
    lr_mult: 2
  }
  inner_product_param {
    num_output: 25
    weight_filler {
      type: "xavier"
    }
    bias_filler {
      type: "constant"
    }
  }
}
layer {
  name: "relu1"
  type: "ReLU"
  bottom: "ip1"
  top: "ip1"
}
layer {
  name: "ip2"
  type: "InnerProduct"
  bottom: "ip1"
  top: "ip2"
  param {
    lr_mult: 1
  }
  param {
    lr_mult: 2
  }
  inner_product_param {
    num_output: 10
    weight_filler {
      type: "xavier"
    }
    bias_filler {
      type: "constant"
    }
  }
}
layer {
  name: "relu2"
  type: "ReLU"
  bottom: "ip2"
  top: "ip2"
}
layer {
  name: "accuracy"
  type: "Accuracy"
  bottom: "ip2"
  bottom: "label"
  top: "accuracy"
  include {
    phase: TEST
  }
}
layer {
  name: "loss"
  type: "SoftmaxWithLoss"
  bottom: "ip2"
  bottom: "label"
  top: "loss"
}
I0428 20:12:18.030503 32227 layer_factory.hpp:77] Creating layer mnist
I0428 20:12:18.030568 32227 db_lmdb.cpp:35] Opened lmdb examples/mnist/mnist_test_lmdb
I0428 20:12:18.030594 32227 net.cpp:86] Creating Layer mnist
I0428 20:12:18.030603 32227 net.cpp:382] mnist -> data
I0428 20:12:18.030617 32227 net.cpp:382] mnist -> label
I0428 20:12:18.030758 32227 data_layer.cpp:45] output data size: 100,1,28,28
I0428 20:12:18.033149 32227 net.cpp:124] Setting up mnist
I0428 20:12:18.033167 32227 net.cpp:131] Top shape: 100 1 28 28 (78400)
I0428 20:12:18.033179 32227 net.cpp:131] Top shape: 100 (100)
I0428 20:12:18.033185 32227 net.cpp:139] Memory required for data: 314000
I0428 20:12:18.033192 32227 layer_factory.hpp:77] Creating layer label_mnist_1_split
I0428 20:12:18.033205 32227 net.cpp:86] Creating Layer label_mnist_1_split
I0428 20:12:18.033211 32227 net.cpp:408] label_mnist_1_split <- label
I0428 20:12:18.033221 32227 net.cpp:382] label_mnist_1_split -> label_mnist_1_split_0
I0428 20:12:18.033234 32227 net.cpp:382] label_mnist_1_split -> label_mnist_1_split_1
I0428 20:12:18.033330 32227 net.cpp:124] Setting up label_mnist_1_split
I0428 20:12:18.033342 32227 net.cpp:131] Top shape: 100 (100)
I0428 20:12:18.033350 32227 net.cpp:131] Top shape: 100 (100)
I0428 20:12:18.033357 32227 net.cpp:139] Memory required for data: 314800
I0428 20:12:18.033363 32227 layer_factory.hpp:77] Creating layer conv0
I0428 20:12:18.033380 32227 net.cpp:86] Creating Layer conv0
I0428 20:12:18.033388 32227 net.cpp:408] conv0 <- data
I0428 20:12:18.033399 32227 net.cpp:382] conv0 -> conv0
I0428 20:12:18.035076 32227 net.cpp:124] Setting up conv0
I0428 20:12:18.035094 32227 net.cpp:131] Top shape: 100 25 24 24 (1440000)
I0428 20:12:18.035104 32227 net.cpp:139] Memory required for data: 6074800
I0428 20:12:18.035125 32227 layer_factory.hpp:77] Creating layer pool0
I0428 20:12:18.035141 32227 net.cpp:86] Creating Layer pool0
I0428 20:12:18.035152 32227 net.cpp:408] pool0 <- conv0
I0428 20:12:18.035162 32227 net.cpp:382] pool0 -> pool0
I0428 20:12:18.035218 32227 net.cpp:124] Setting up pool0
I0428 20:12:18.035228 32227 net.cpp:131] Top shape: 100 25 12 12 (360000)
I0428 20:12:18.035238 32227 net.cpp:139] Memory required for data: 7514800
I0428 20:12:18.035245 32227 layer_factory.hpp:77] Creating layer conv1
I0428 20:12:18.035264 32227 net.cpp:86] Creating Layer conv1
I0428 20:12:18.035271 32227 net.cpp:408] conv1 <- pool0
I0428 20:12:18.035282 32227 net.cpp:382] conv1 -> conv1
I0428 20:12:18.037444 32227 net.cpp:124] Setting up conv1
I0428 20:12:18.037466 32227 net.cpp:131] Top shape: 100 100 8 8 (640000)
I0428 20:12:18.037475 32227 net.cpp:139] Memory required for data: 10074800
I0428 20:12:18.037492 32227 layer_factory.hpp:77] Creating layer pool1
I0428 20:12:18.037504 32227 net.cpp:86] Creating Layer pool1
I0428 20:12:18.037513 32227 net.cpp:408] pool1 <- conv1
I0428 20:12:18.037528 32227 net.cpp:382] pool1 -> pool1
I0428 20:12:18.037583 32227 net.cpp:124] Setting up pool1
I0428 20:12:18.037595 32227 net.cpp:131] Top shape: 100 100 4 4 (160000)
I0428 20:12:18.037605 32227 net.cpp:139] Memory required for data: 10714800
I0428 20:12:18.037614 32227 layer_factory.hpp:77] Creating layer ip1
I0428 20:12:18.037631 32227 net.cpp:86] Creating Layer ip1
I0428 20:12:18.037641 32227 net.cpp:408] ip1 <- pool1
I0428 20:12:18.037652 32227 net.cpp:382] ip1 -> ip1
I0428 20:12:18.038053 32227 net.cpp:124] Setting up ip1
I0428 20:12:18.038064 32227 net.cpp:131] Top shape: 100 25 (2500)
I0428 20:12:18.038070 32227 net.cpp:139] Memory required for data: 10724800
I0428 20:12:18.038085 32227 layer_factory.hpp:77] Creating layer relu1
I0428 20:12:18.038095 32227 net.cpp:86] Creating Layer relu1
I0428 20:12:18.038105 32227 net.cpp:408] relu1 <- ip1
I0428 20:12:18.038113 32227 net.cpp:369] relu1 -> ip1 (in-place)
I0428 20:12:18.038306 32227 net.cpp:124] Setting up relu1
I0428 20:12:18.038318 32227 net.cpp:131] Top shape: 100 25 (2500)
I0428 20:12:18.038324 32227 net.cpp:139] Memory required for data: 10734800
I0428 20:12:18.038331 32227 layer_factory.hpp:77] Creating layer ip2
I0428 20:12:18.038344 32227 net.cpp:86] Creating Layer ip2
I0428 20:12:18.038352 32227 net.cpp:408] ip2 <- ip1
I0428 20:12:18.038362 32227 net.cpp:382] ip2 -> ip2
I0428 20:12:18.038486 32227 net.cpp:124] Setting up ip2
I0428 20:12:18.038497 32227 net.cpp:131] Top shape: 100 10 (1000)
I0428 20:12:18.038503 32227 net.cpp:139] Memory required for data: 10738800
I0428 20:12:18.038514 32227 layer_factory.hpp:77] Creating layer relu2
I0428 20:12:18.038523 32227 net.cpp:86] Creating Layer relu2
I0428 20:12:18.038530 32227 net.cpp:408] relu2 <- ip2
I0428 20:12:18.038538 32227 net.cpp:369] relu2 -> ip2 (in-place)
I0428 20:12:18.038760 32227 net.cpp:124] Setting up relu2
I0428 20:12:18.038774 32227 net.cpp:131] Top shape: 100 10 (1000)
I0428 20:12:18.038779 32227 net.cpp:139] Memory required for data: 10742800
I0428 20:12:18.038785 32227 layer_factory.hpp:77] Creating layer ip2_relu2_0_split
I0428 20:12:18.038795 32227 net.cpp:86] Creating Layer ip2_relu2_0_split
I0428 20:12:18.038802 32227 net.cpp:408] ip2_relu2_0_split <- ip2
I0428 20:12:18.038811 32227 net.cpp:382] ip2_relu2_0_split -> ip2_relu2_0_split_0
I0428 20:12:18.038838 32227 net.cpp:382] ip2_relu2_0_split -> ip2_relu2_0_split_1
I0428 20:12:18.038889 32227 net.cpp:124] Setting up ip2_relu2_0_split
I0428 20:12:18.038899 32227 net.cpp:131] Top shape: 100 10 (1000)
I0428 20:12:18.038908 32227 net.cpp:131] Top shape: 100 10 (1000)
I0428 20:12:18.038913 32227 net.cpp:139] Memory required for data: 10750800
I0428 20:12:18.038920 32227 layer_factory.hpp:77] Creating layer accuracy
I0428 20:12:18.038930 32227 net.cpp:86] Creating Layer accuracy
I0428 20:12:18.038936 32227 net.cpp:408] accuracy <- ip2_relu2_0_split_0
I0428 20:12:18.038945 32227 net.cpp:408] accuracy <- label_mnist_1_split_0
I0428 20:12:18.038954 32227 net.cpp:382] accuracy -> accuracy
…
