…
I0428 19:28:15.414589 21575 net.cpp:296] The NetState phase (0) differed from the phase (1) specified by a rule in layer mnist
I0428 19:28:15.414605 21575 net.cpp:296] The NetState phase (0) differed from the phase (1) specified by a rule in layer accuracy
I0428 19:28:15.414679 21575 net.cpp:53] Initializing net from parameters: 
name: "LeNet"
state {
  phase: TRAIN
  level: 0
  stage: ""
}
layer {
  name: "mnist"
  type: "Data"
  top: "data"
  top: "label"
  include {
    phase: TRAIN
  }
  transform_param {
    scale: 0.00390625
  }
  data_param {
    source: "examples/mnist/mnist_train_lmdb"
    batch_size: 64
    backend: LMDB
  }
}
layer {
  name: "ip1"
  type: "InnerProduct"
  bottom: "data"
  top: "ip1"
  param {
    lr_mult: 1
  }
  param {
    lr_mult: 2
  }
  inner_product_param {
    num_output: 10
    weight_filler {
      type: "xavier"
    }
    bias_filler {
      type: "constant"
    }
  }
}
layer {
  name: "relu1"
  type: "ReLU"
  bottom: "ip1"
  top: "ip1"
}
layer {
  name: "ip2"
  type: "InnerProduct"
  bottom: "ip1"
  top: "ip2"
  param {
    lr_mult: 1
  }
  param {
    lr_mult: 2
  }
  inner_product_param {
    num_output: 50
    weight_filler {
      type: "xavier"
    }
    bias_filler {
      type: "constant"
    }
  }
}
layer {
  name: "relu2"
  type: "ReLU"
  bottom: "ip2"
  top: "ip2"
}
layer {
  name: "ip3"
  type: "InnerProduct"
  bottom: "ip2"
  top: "ip3"
  param {
    lr_mult: 1
  }
  param {
    lr_mult: 2
  }
  inner_product_param {
    num_output: 10
    weight_filler {
      type: "xavier"
    }
    bias_filler {
      type: "constant"
    }
  }
}
layer {
  name: "relu3"
  type: "ReLU"
  bottom: "ip3"
  top: "ip3"
}
layer {
  name: "loss"
  type: "SoftmaxWithLoss"
  bottom: "ip3"
  bottom: "label"
  top: "loss"
}
I0428 19:28:15.414744 21575 layer_factory.hpp:77] Creating layer mnist
I0428 19:28:15.414845 21575 db_lmdb.cpp:35] Opened lmdb examples/mnist/mnist_train_lmdb
I0428 19:28:15.414867 21575 net.cpp:86] Creating Layer mnist
I0428 19:28:15.414876 21575 net.cpp:382] mnist -> data
I0428 19:28:15.414898 21575 net.cpp:382] mnist -> label
I0428 19:28:15.415997 21575 data_layer.cpp:45] output data size: 64,1,28,28
I0428 19:28:15.418473 21575 net.cpp:124] Setting up mnist
I0428 19:28:15.418493 21575 net.cpp:131] Top shape: 64 1 28 28 (50176)
I0428 19:28:15.418499 21575 net.cpp:131] Top shape: 64 (64)
I0428 19:28:15.418503 21575 net.cpp:139] Memory required for data: 200960
I0428 19:28:15.418510 21575 layer_factory.hpp:77] Creating layer ip1
I0428 19:28:15.418520 21575 net.cpp:86] Creating Layer ip1
I0428 19:28:15.418526 21575 net.cpp:408] ip1 <- data
I0428 19:28:15.418540 21575 net.cpp:382] ip1 -> ip1
I0428 19:28:15.419831 21575 net.cpp:124] Setting up ip1
I0428 19:28:15.419847 21575 net.cpp:131] Top shape: 64 10 (640)
I0428 19:28:15.419852 21575 net.cpp:139] Memory required for data: 203520
I0428 19:28:15.419865 21575 layer_factory.hpp:77] Creating layer relu1
I0428 19:28:15.419875 21575 net.cpp:86] Creating Layer relu1
I0428 19:28:15.419879 21575 net.cpp:408] relu1 <- ip1
I0428 19:28:15.419884 21575 net.cpp:369] relu1 -> ip1 (in-place)
I0428 19:28:15.698964 21575 net.cpp:124] Setting up relu1
I0428 19:28:15.698992 21575 net.cpp:131] Top shape: 64 10 (640)
I0428 19:28:15.698995 21575 net.cpp:139] Memory required for data: 206080
I0428 19:28:15.699000 21575 layer_factory.hpp:77] Creating layer ip2
I0428 19:28:15.699012 21575 net.cpp:86] Creating Layer ip2
I0428 19:28:15.699034 21575 net.cpp:408] ip2 <- ip1
I0428 19:28:15.699041 21575 net.cpp:382] ip2 -> ip2
I0428 19:28:15.699986 21575 net.cpp:124] Setting up ip2
I0428 19:28:15.700000 21575 net.cpp:131] Top shape: 64 50 (3200)
I0428 19:28:15.700003 21575 net.cpp:139] Memory required for data: 218880
I0428 19:28:15.700012 21575 layer_factory.hpp:77] Creating layer relu2
I0428 19:28:15.700019 21575 net.cpp:86] Creating Layer relu2
I0428 19:28:15.700023 21575 net.cpp:408] relu2 <- ip2
I0428 19:28:15.700027 21575 net.cpp:369] relu2 -> ip2 (in-place)
I0428 19:28:15.700940 21575 net.cpp:124] Setting up relu2
I0428 19:28:15.700953 21575 net.cpp:131] Top shape: 64 50 (3200)
I0428 19:28:15.700958 21575 net.cpp:139] Memory required for data: 231680
I0428 19:28:15.700961 21575 layer_factory.hpp:77] Creating layer ip3
I0428 19:28:15.700970 21575 net.cpp:86] Creating Layer ip3
I0428 19:28:15.700974 21575 net.cpp:408] ip3 <- ip2
I0428 19:28:15.700979 21575 net.cpp:382] ip3 -> ip3
I0428 19:28:15.701081 21575 net.cpp:124] Setting up ip3
I0428 19:28:15.701088 21575 net.cpp:131] Top shape: 64 10 (640)
I0428 19:28:15.701092 21575 net.cpp:139] Memory required for data: 234240
I0428 19:28:15.701099 21575 layer_factory.hpp:77] Creating layer relu3
I0428 19:28:15.701104 21575 net.cpp:86] Creating Layer relu3
I0428 19:28:15.701108 21575 net.cpp:408] relu3 <- ip3
I0428 19:28:15.701112 21575 net.cpp:369] relu3 -> ip3 (in-place)
I0428 19:28:15.701272 21575 net.cpp:124] Setting up relu3
I0428 19:28:15.701279 21575 net.cpp:131] Top shape: 64 10 (640)
I0428 19:28:15.701282 21575 net.cpp:139] Memory required for data: 236800
I0428 19:28:15.701285 21575 layer_factory.hpp:77] Creating layer loss
I0428 19:28:15.701290 21575 net.cpp:86] Creating Layer loss
I0428 19:28:15.701294 21575 net.cpp:408] loss <- ip3
I0428 19:28:15.701298 21575 net.cpp:408] loss <- label
I0428 19:28:15.701318 21575 net.cpp:382] loss -> loss
I0428 19:28:15.701333 21575 layer_factory.hpp:77] Creating layer loss
…
I0428 19:28:15.701896 21575 solver.cpp:173] Creating test net (#0) specified by net file: ECE595/mnist/train_test/var_everything2/lenet_train_test19.prototxt
I0428 19:28:15.701917 21575 net.cpp:296] The NetState phase (1) differed from the phase (0) specified by a rule in layer mnist
I0428 19:28:15.701987 21575 net.cpp:53] Initializing net from parameters: 
name: "LeNet"
state {
  phase: TEST
}
layer {
  name: "mnist"
  type: "Data"
  top: "data"
  top: "label"
  include {
    phase: TEST
  }
  transform_param {
    scale: 0.00390625
  }
  data_param {
    source: "examples/mnist/mnist_test_lmdb"
    batch_size: 100
    backend: LMDB
  }
}
layer {
  name: "ip1"
  type: "InnerProduct"
  bottom: "data"
  top: "ip1"
  param {
    lr_mult: 1
  }
  param {
    lr_mult: 2
  }
  inner_product_param {
    num_output: 10
    weight_filler {
      type: "xavier"
    }
    bias_filler {
      type: "constant"
    }
  }
}
layer {
  name: "relu1"
  type: "ReLU"
  bottom: "ip1"
  top: "ip1"
}
layer {
  name: "ip2"
  type: "InnerProduct"
  bottom: "ip1"
  top: "ip2"
  param {
    lr_mult: 1
  }
  param {
    lr_mult: 2
  }
  inner_product_param {
    num_output: 50
    weight_filler {
      type: "xavier"
    }
    bias_filler {
      type: "constant"
    }
  }
}
layer {
  name: "relu2"
  type: "ReLU"
  bottom: "ip2"
  top: "ip2"
}
layer {
  name: "ip3"
  type: "InnerProduct"
  bottom: "ip2"
  top: "ip3"
  param {
    lr_mult: 1
  }
  param {
    lr_mult: 2
  }
  inner_product_param {
    num_output: 10
    weight_filler {
      type: "xavier"
    }
    bias_filler {
      type: "constant"
    }
  }
}
layer {
  name: "relu3"
  type: "ReLU"
  bottom: "ip3"
  top: "ip3"
}
layer {
  name: "accuracy"
  type: "Accuracy"
  bottom: "ip3"
  bottom: "label"
  top: "accuracy"
  include {
    phase: TEST
  }
}
layer {
  name: "loss"
  type: "SoftmaxWithLoss"
  bottom: "ip3"
  bottom: "label"
  top: "loss"
}
I0428 19:28:15.702052 21575 layer_factory.hpp:77] Creating layer mnist
I0428 19:28:15.702093 21575 db_lmdb.cpp:35] Opened lmdb examples/mnist/mnist_test_lmdb
I0428 19:28:15.702108 21575 net.cpp:86] Creating Layer mnist
I0428 19:28:15.702112 21575 net.cpp:382] mnist -> data
I0428 19:28:15.702119 21575 net.cpp:382] mnist -> label
I0428 19:28:15.702200 21575 data_layer.cpp:45] output data size: 100,1,28,28
I0428 19:28:15.704133 21575 net.cpp:124] Setting up mnist
I0428 19:28:15.704145 21575 net.cpp:131] Top shape: 100 1 28 28 (78400)
I0428 19:28:15.704150 21575 net.cpp:131] Top shape: 100 (100)
I0428 19:28:15.704154 21575 net.cpp:139] Memory required for data: 314000
I0428 19:28:15.704156 21575 layer_factory.hpp:77] Creating layer label_mnist_1_split
I0428 19:28:15.704166 21575 net.cpp:86] Creating Layer label_mnist_1_split
I0428 19:28:15.704170 21575 net.cpp:408] label_mnist_1_split <- label
I0428 19:28:15.704174 21575 net.cpp:382] label_mnist_1_split -> label_mnist_1_split_0
I0428 19:28:15.704180 21575 net.cpp:382] label_mnist_1_split -> label_mnist_1_split_1
I0428 19:28:15.704229 21575 net.cpp:124] Setting up label_mnist_1_split
I0428 19:28:15.704236 21575 net.cpp:131] Top shape: 100 (100)
I0428 19:28:15.704239 21575 net.cpp:131] Top shape: 100 (100)
I0428 19:28:15.704241 21575 net.cpp:139] Memory required for data: 314800
I0428 19:28:15.704244 21575 layer_factory.hpp:77] Creating layer ip1
I0428 19:28:15.704252 21575 net.cpp:86] Creating Layer ip1
I0428 19:28:15.704254 21575 net.cpp:408] ip1 <- data
I0428 19:28:15.704258 21575 net.cpp:382] ip1 -> ip1
I0428 19:28:15.704499 21575 net.cpp:124] Setting up ip1
I0428 19:28:15.704507 21575 net.cpp:131] Top shape: 100 10 (1000)
I0428 19:28:15.704511 21575 net.cpp:139] Memory required for data: 318800
I0428 19:28:15.704520 21575 layer_factory.hpp:77] Creating layer relu1
I0428 19:28:15.704525 21575 net.cpp:86] Creating Layer relu1
I0428 19:28:15.704530 21575 net.cpp:408] relu1 <- ip1
I0428 19:28:15.704533 21575 net.cpp:369] relu1 -> ip1 (in-place)
I0428 19:28:15.705415 21575 net.cpp:124] Setting up relu1
I0428 19:28:15.705426 21575 net.cpp:131] Top shape: 100 10 (1000)
I0428 19:28:15.705430 21575 net.cpp:139] Memory required for data: 322800
I0428 19:28:15.705433 21575 layer_factory.hpp:77] Creating layer ip2
I0428 19:28:15.705441 21575 net.cpp:86] Creating Layer ip2
I0428 19:28:15.705445 21575 net.cpp:408] ip2 <- ip1
I0428 19:28:15.705449 21575 net.cpp:382] ip2 -> ip2
I0428 19:28:15.705590 21575 net.cpp:124] Setting up ip2
I0428 19:28:15.705596 21575 net.cpp:131] Top shape: 100 50 (5000)
I0428 19:28:15.705600 21575 net.cpp:139] Memory required for data: 342800
I0428 19:28:15.705607 21575 layer_factory.hpp:77] Creating layer relu2
I0428 19:28:15.705612 21575 net.cpp:86] Creating Layer relu2
I0428 19:28:15.705615 21575 net.cpp:408] relu2 <- ip2
I0428 19:28:15.705620 21575 net.cpp:369] relu2 -> ip2 (in-place)
I0428 19:28:15.705806 21575 net.cpp:124] Setting up relu2
I0428 19:28:15.705816 21575 net.cpp:131] Top shape: 100 50 (5000)
I0428 19:28:15.705818 21575 net.cpp:139] Memory required for data: 362800
I0428 19:28:15.705821 21575 layer_factory.hpp:77] Creating layer ip3
I0428 19:28:15.705826 21575 net.cpp:86] Creating Layer ip3
I0428 19:28:15.705829 21575 net.cpp:408] ip3 <- ip2
I0428 19:28:15.705834 21575 net.cpp:382] ip3 -> ip3
I0428 19:28:15.705942 21575 net.cpp:124] Setting up ip3
I0428 19:28:15.705950 21575 net.cpp:131] Top shape: 100 10 (1000)
I0428 19:28:15.705952 21575 net.cpp:139] Memory required for data: 366800
I0428 19:28:15.705960 21575 layer_factory.hpp:77] Creating layer relu3
I0428 19:28:15.705965 21575 net.cpp:86] Creating Layer relu3
I0428 19:28:15.705967 21575 net.cpp:408] relu3 <- ip3
I0428 19:28:15.705972 21575 net.cpp:369] relu3 -> ip3 (in-place)
I0428 19:28:15.706128 21575 net.cpp:124] Setting up relu3
I0428 19:28:15.706136 21575 net.cpp:131] Top shape: 100 10 (1000)
I0428 19:28:15.706140 21575 net.cpp:139] Memory required for data: 370800
I0428 19:28:15.706142 21575 layer_factory.hpp:77] Creating layer ip3_relu3_0_split
I0428 19:28:15.706147 21575 net.cpp:86] Creating Layer ip3_relu3_0_split
I0428 19:28:15.706151 21575 net.cpp:408] ip3_relu3_0_split <- ip3
I0428 19:28:15.706156 21575 net.cpp:382] ip3_relu3_0_split -> ip3_relu3_0_split_0
I0428 19:28:15.706161 21575 net.cpp:382] ip3_relu3_0_split -> ip3_relu3_0_split_1
I0428 19:28:15.706207 21575 net.cpp:124] Setting up ip3_relu3_0_split
I0428 19:28:15.706210 21575 net.cpp:131] Top shape: 100 10 (1000)
I0428 19:28:15.706214 21575 net.cpp:131] Top shape: 100 10 (1000)
I0428 19:28:15.706217 21575 net.cpp:139] Memory required for data: 378800
I0428 19:28:15.706219 21575 layer_factory.hpp:77] Creating layer accuracy
I0428 19:28:15.706228 21575 net.cpp:86] Creating Layer accuracy
I0428 19:28:15.706230 21575 net.cpp:408] accuracy <- ip3_relu3_0_split_0
I0428 19:28:15.706234 21575 net.cpp:408] accuracy <- label_mnist_1_split_0
I0428 19:28:15.706238 21575 net.cpp:382] accuracy -> accuracy
…
