…
I0428 20:31:04.692638  3901 net.cpp:296] The NetState phase (0) differed from the phase (1) specified by a rule in layer mnist
I0428 20:31:04.692663  3901 net.cpp:296] The NetState phase (0) differed from the phase (1) specified by a rule in layer accuracy
I0428 20:31:04.692782  3901 net.cpp:53] Initializing net from parameters: 
name: "LeNet"
state {
  phase: TRAIN
  level: 0
  stage: ""
}
layer {
  name: "mnist"
  type: "Data"
  top: "data"
  top: "label"
  include {
    phase: TRAIN
  }
  transform_param {
    scale: 0.00390625
  }
  data_param {
    source: "examples/mnist/mnist_train_lmdb"
    batch_size: 64
    backend: LMDB
  }
}
layer {
  name: "conv0"
  type: "Convolution"
  bottom: "data"
  top: "conv0"
  param {
    lr_mult: 1
  }
  param {
    lr_mult: 2
  }
  convolution_param {
    num_output: 100
    kernel_size: 5
    stride: 1
    weight_filler {
      type: "xavier"
    }
    bias_filler {
      type: "constant"
    }
  }
}
layer {
  name: "pool0"
  type: "Pooling"
  bottom: "conv0"
  top: "pool0"
  pooling_param {
    pool: MAX
    kernel_size: 2
    stride: 2
  }
}
layer {
  name: "conv1"
  type: "Convolution"
  bottom: "pool0"
  top: "conv1"
  param {
    lr_mult: 1
  }
  param {
    lr_mult: 2
  }
  convolution_param {
    num_output: 10
    kernel_size: 5
    stride: 1
    weight_filler {
      type: "xavier"
    }
    bias_filler {
      type: "constant"
    }
  }
}
layer {
  name: "pool1"
  type: "Pooling"
  bottom: "conv1"
  top: "pool1"
  pooling_param {
    pool: MAX
    kernel_size: 2
    stride: 2
  }
}
layer {
  name: "ip1"
  type: "InnerProduct"
  bottom: "pool1"
  top: "ip1"
  param {
    lr_mult: 1
  }
  param {
    lr_mult: 2
  }
  inner_product_param {
    num_output: 25
    weight_filler {
      type: "xavier"
    }
    bias_filler {
      type: "constant"
    }
  }
}
layer {
  name: "relu1"
  type: "ReLU"
  bottom: "ip1"
  top: "ip1"
}
layer {
  name: "ip2"
  type: "InnerProduct"
  bottom: "ip1"
  top: "ip2"
  param {
    lr_mult: 1
  }
  param {
    lr_mult: 2
  }
  inner_product_param {
    num_output: 50
    weight_filler {
      type: "xavier"
    }
    bias_filler {
      type: "constant"
    }
  }
}
layer {
  name: "relu2"
  type: "ReLU"
  bottom: "ip2"
  top: "ip2"
}
layer {
  name: "ip3"
  type: "InnerProduct"
  bottom: "ip2"
  top: "ip3"
  param {
    lr_mult: 1
  }
  param {
    lr_mult: 2
  }
  inner_product_param {
    num_output: 10
    weight_filler {
      type: "xavier"
    }
    bias_filler {
      type: "constant"
    }
  }
}
layer {
  name: "relu3"
  type: "ReLU"
  bottom: "ip3"
  top: "ip3"
}
layer {
  name: "loss"
  type: "SoftmaxWithLoss"
  bottom: "ip3"
  bottom: "label"
  top: "loss"
}
I0428 20:31:04.692905  3901 layer_factory.hpp:77] Creating layer mnist
I0428 20:31:04.693039  3901 db_lmdb.cpp:35] Opened lmdb examples/mnist/mnist_train_lmdb
I0428 20:31:04.693073  3901 net.cpp:86] Creating Layer mnist
I0428 20:31:04.693084  3901 net.cpp:382] mnist -> data
I0428 20:31:04.693116  3901 net.cpp:382] mnist -> label
I0428 20:31:04.694404  3901 data_layer.cpp:45] output data size: 64,1,28,28
I0428 20:31:04.696872  3901 net.cpp:124] Setting up mnist
I0428 20:31:04.696893  3901 net.cpp:131] Top shape: 64 1 28 28 (50176)
I0428 20:31:04.696903  3901 net.cpp:131] Top shape: 64 (64)
I0428 20:31:04.696909  3901 net.cpp:139] Memory required for data: 200960
I0428 20:31:04.696920  3901 layer_factory.hpp:77] Creating layer conv0
I0428 20:31:04.696946  3901 net.cpp:86] Creating Layer conv0
I0428 20:31:04.696970  3901 net.cpp:408] conv0 <- data
I0428 20:31:04.696990  3901 net.cpp:382] conv0 -> conv0
I0428 20:31:04.989913  3901 net.cpp:124] Setting up conv0
I0428 20:31:04.989948  3901 net.cpp:131] Top shape: 64 100 24 24 (3686400)
I0428 20:31:04.989956  3901 net.cpp:139] Memory required for data: 14946560
I0428 20:31:04.989980  3901 layer_factory.hpp:77] Creating layer pool0
I0428 20:31:04.990001  3901 net.cpp:86] Creating Layer pool0
I0428 20:31:04.990020  3901 net.cpp:408] pool0 <- conv0
I0428 20:31:04.990032  3901 net.cpp:382] pool0 -> pool0
I0428 20:31:04.990101  3901 net.cpp:124] Setting up pool0
I0428 20:31:04.990113  3901 net.cpp:131] Top shape: 64 100 12 12 (921600)
I0428 20:31:04.990118  3901 net.cpp:139] Memory required for data: 18632960
I0428 20:31:04.990124  3901 layer_factory.hpp:77] Creating layer conv1
I0428 20:31:04.990149  3901 net.cpp:86] Creating Layer conv1
I0428 20:31:04.990157  3901 net.cpp:408] conv1 <- pool0
I0428 20:31:04.990169  3901 net.cpp:382] conv1 -> conv1
I0428 20:31:04.992544  3901 net.cpp:124] Setting up conv1
I0428 20:31:04.992565  3901 net.cpp:131] Top shape: 64 10 8 8 (40960)
I0428 20:31:04.992573  3901 net.cpp:139] Memory required for data: 18796800
I0428 20:31:04.992589  3901 layer_factory.hpp:77] Creating layer pool1
I0428 20:31:04.992606  3901 net.cpp:86] Creating Layer pool1
I0428 20:31:04.992617  3901 net.cpp:408] pool1 <- conv1
I0428 20:31:04.992630  3901 net.cpp:382] pool1 -> pool1
I0428 20:31:04.992686  3901 net.cpp:124] Setting up pool1
I0428 20:31:04.992697  3901 net.cpp:131] Top shape: 64 10 4 4 (10240)
I0428 20:31:04.992702  3901 net.cpp:139] Memory required for data: 18837760
I0428 20:31:04.992709  3901 layer_factory.hpp:77] Creating layer ip1
I0428 20:31:04.992724  3901 net.cpp:86] Creating Layer ip1
I0428 20:31:04.992735  3901 net.cpp:408] ip1 <- pool1
I0428 20:31:04.992746  3901 net.cpp:382] ip1 -> ip1
I0428 20:31:04.992926  3901 net.cpp:124] Setting up ip1
I0428 20:31:04.992938  3901 net.cpp:131] Top shape: 64 25 (1600)
I0428 20:31:04.992944  3901 net.cpp:139] Memory required for data: 18844160
I0428 20:31:04.992959  3901 layer_factory.hpp:77] Creating layer relu1
I0428 20:31:04.992970  3901 net.cpp:86] Creating Layer relu1
I0428 20:31:04.992979  3901 net.cpp:408] relu1 <- ip1
I0428 20:31:04.992987  3901 net.cpp:369] relu1 -> ip1 (in-place)
I0428 20:31:04.993196  3901 net.cpp:124] Setting up relu1
I0428 20:31:04.993208  3901 net.cpp:131] Top shape: 64 25 (1600)
I0428 20:31:04.993214  3901 net.cpp:139] Memory required for data: 18850560
I0428 20:31:04.993221  3901 layer_factory.hpp:77] Creating layer ip2
I0428 20:31:04.993233  3901 net.cpp:86] Creating Layer ip2
I0428 20:31:04.993240  3901 net.cpp:408] ip2 <- ip1
I0428 20:31:04.993250  3901 net.cpp:382] ip2 -> ip2
I0428 20:31:04.993382  3901 net.cpp:124] Setting up ip2
I0428 20:31:04.993393  3901 net.cpp:131] Top shape: 64 50 (3200)
I0428 20:31:04.993399  3901 net.cpp:139] Memory required for data: 18863360
I0428 20:31:04.993410  3901 layer_factory.hpp:77] Creating layer relu2
I0428 20:31:04.993422  3901 net.cpp:86] Creating Layer relu2
I0428 20:31:04.993429  3901 net.cpp:408] relu2 <- ip2
I0428 20:31:04.993438  3901 net.cpp:369] relu2 -> ip2 (in-place)
I0428 20:31:04.994292  3901 net.cpp:124] Setting up relu2
I0428 20:31:04.994309  3901 net.cpp:131] Top shape: 64 50 (3200)
I0428 20:31:04.994316  3901 net.cpp:139] Memory required for data: 18876160
I0428 20:31:04.994323  3901 layer_factory.hpp:77] Creating layer ip3
I0428 20:31:04.994336  3901 net.cpp:86] Creating Layer ip3
I0428 20:31:04.994343  3901 net.cpp:408] ip3 <- ip2
I0428 20:31:04.994354  3901 net.cpp:382] ip3 -> ip3
I0428 20:31:04.994483  3901 net.cpp:124] Setting up ip3
I0428 20:31:04.994494  3901 net.cpp:131] Top shape: 64 10 (640)
I0428 20:31:04.994501  3901 net.cpp:139] Memory required for data: 18878720
I0428 20:31:04.994516  3901 layer_factory.hpp:77] Creating layer relu3
I0428 20:31:04.994529  3901 net.cpp:86] Creating Layer relu3
I0428 20:31:04.994536  3901 net.cpp:408] relu3 <- ip3
I0428 20:31:04.994545  3901 net.cpp:369] relu3 -> ip3 (in-place)
I0428 20:31:04.994750  3901 net.cpp:124] Setting up relu3
I0428 20:31:04.994761  3901 net.cpp:131] Top shape: 64 10 (640)
I0428 20:31:04.994767  3901 net.cpp:139] Memory required for data: 18881280
I0428 20:31:04.994773  3901 layer_factory.hpp:77] Creating layer loss
I0428 20:31:04.994784  3901 net.cpp:86] Creating Layer loss
I0428 20:31:04.994791  3901 net.cpp:408] loss <- ip3
I0428 20:31:04.994799  3901 net.cpp:408] loss <- label
I0428 20:31:04.994809  3901 net.cpp:382] loss -> loss
I0428 20:31:04.994838  3901 layer_factory.hpp:77] Creating layer loss
…
I0428 20:31:04.995658  3901 solver.cpp:173] Creating test net (#0) specified by net file: ECE595/mnist/train_test/var_everything2/lenet_train_test1549.prototxt
I0428 20:31:04.995700  3901 net.cpp:296] The NetState phase (1) differed from the phase (0) specified by a rule in layer mnist
I0428 20:31:04.995816  3901 net.cpp:53] Initializing net from parameters: 
name: "LeNet"
state {
  phase: TEST
}
layer {
  name: "mnist"
  type: "Data"
  top: "data"
  top: "label"
  include {
    phase: TEST
  }
  transform_param {
    scale: 0.00390625
  }
  data_param {
    source: "examples/mnist/mnist_test_lmdb"
    batch_size: 100
    backend: LMDB
  }
}
layer {
  name: "conv0"
  type: "Convolution"
  bottom: "data"
  top: "conv0"
  param {
    lr_mult: 1
  }
  param {
    lr_mult: 2
  }
  convolution_param {
    num_output: 100
    kernel_size: 5
    stride: 1
    weight_filler {
      type: "xavier"
    }
    bias_filler {
      type: "constant"
    }
  }
}
layer {
  name: "pool0"
  type: "Pooling"
  bottom: "conv0"
  top: "pool0"
  pooling_param {
    pool: MAX
    kernel_size: 2
    stride: 2
  }
}
layer {
  name: "conv1"
  type: "Convolution"
  bottom: "pool0"
  top: "conv1"
  param {
    lr_mult: 1
  }
  param {
    lr_mult: 2
  }
  convolution_param {
    num_output: 10
    kernel_size: 5
    stride: 1
    weight_filler {
      type: "xavier"
    }
    bias_filler {
      type: "constant"
    }
  }
}
layer {
  name: "pool1"
  type: "Pooling"
  bottom: "conv1"
  top: "pool1"
  pooling_param {
    pool: MAX
    kernel_size: 2
    stride: 2
  }
}
layer {
  name: "ip1"
  type: "InnerProduct"
  bottom: "pool1"
  top: "ip1"
  param {
    lr_mult: 1
  }
  param {
    lr_mult: 2
  }
  inner_product_param {
    num_output: 25
    weight_filler {
      type: "xavier"
    }
    bias_filler {
      type: "constant"
    }
  }
}
layer {
  name: "relu1"
  type: "ReLU"
  bottom: "ip1"
  top: "ip1"
}
layer {
  name: "ip2"
  type: "InnerProduct"
  bottom: "ip1"
  top: "ip2"
  param {
    lr_mult: 1
  }
  param {
    lr_mult: 2
  }
  inner_product_param {
    num_output: 50
    weight_filler {
      type: "xavier"
    }
    bias_filler {
      type: "constant"
    }
  }
}
layer {
  name: "relu2"
  type: "ReLU"
  bottom: "ip2"
  top: "ip2"
}
layer {
  name: "ip3"
  type: "InnerProduct"
  bottom: "ip2"
  top: "ip3"
  param {
    lr_mult: 1
  }
  param {
    lr_mult: 2
  }
  inner_product_param {
    num_output: 10
    weight_filler {
      type: "xavier"
    }
    bias_filler {
      type: "constant"
    }
  }
}
layer {
  name: "relu3"
  type: "ReLU"
  bottom: "ip3"
  top: "ip3"
}
layer {
  name: "accuracy"
  type: "Accuracy"
  bottom: "ip3"
  bottom: "label"
  top: "accuracy"
  include {
    phase: TEST
  }
}
layer {
  name: "loss"
  type: "SoftmaxWithLoss"
  bottom: "ip3"
  bottom: "label"
  top: "loss"
}
I0428 20:31:04.995955  3901 layer_factory.hpp:77] Creating layer mnist
I0428 20:31:04.996026  3901 db_lmdb.cpp:35] Opened lmdb examples/mnist/mnist_test_lmdb
I0428 20:31:04.996048  3901 net.cpp:86] Creating Layer mnist
I0428 20:31:04.996058  3901 net.cpp:382] mnist -> data
I0428 20:31:04.996073  3901 net.cpp:382] mnist -> label
I0428 20:31:04.996217  3901 data_layer.cpp:45] output data size: 100,1,28,28
I0428 20:31:04.998842  3901 net.cpp:124] Setting up mnist
I0428 20:31:04.998859  3901 net.cpp:131] Top shape: 100 1 28 28 (78400)
I0428 20:31:04.998869  3901 net.cpp:131] Top shape: 100 (100)
I0428 20:31:04.998877  3901 net.cpp:139] Memory required for data: 314000
I0428 20:31:04.998883  3901 layer_factory.hpp:77] Creating layer label_mnist_1_split
I0428 20:31:04.998895  3901 net.cpp:86] Creating Layer label_mnist_1_split
I0428 20:31:04.998903  3901 net.cpp:408] label_mnist_1_split <- label
I0428 20:31:04.998913  3901 net.cpp:382] label_mnist_1_split -> label_mnist_1_split_0
I0428 20:31:04.998925  3901 net.cpp:382] label_mnist_1_split -> label_mnist_1_split_1
I0428 20:31:04.999024  3901 net.cpp:124] Setting up label_mnist_1_split
I0428 20:31:04.999035  3901 net.cpp:131] Top shape: 100 (100)
I0428 20:31:04.999042  3901 net.cpp:131] Top shape: 100 (100)
I0428 20:31:04.999049  3901 net.cpp:139] Memory required for data: 314800
I0428 20:31:04.999055  3901 layer_factory.hpp:77] Creating layer conv0
I0428 20:31:04.999071  3901 net.cpp:86] Creating Layer conv0
I0428 20:31:04.999080  3901 net.cpp:408] conv0 <- data
I0428 20:31:04.999091  3901 net.cpp:382] conv0 -> conv0
I0428 20:31:05.000849  3901 net.cpp:124] Setting up conv0
I0428 20:31:05.000869  3901 net.cpp:131] Top shape: 100 100 24 24 (5760000)
I0428 20:31:05.000876  3901 net.cpp:139] Memory required for data: 23354800
I0428 20:31:05.000893  3901 layer_factory.hpp:77] Creating layer pool0
I0428 20:31:05.000906  3901 net.cpp:86] Creating Layer pool0
I0428 20:31:05.000913  3901 net.cpp:408] pool0 <- conv0
I0428 20:31:05.000923  3901 net.cpp:382] pool0 -> pool0
I0428 20:31:05.000974  3901 net.cpp:124] Setting up pool0
I0428 20:31:05.000985  3901 net.cpp:131] Top shape: 100 100 12 12 (1440000)
I0428 20:31:05.000993  3901 net.cpp:139] Memory required for data: 29114800
I0428 20:31:05.000998  3901 layer_factory.hpp:77] Creating layer conv1
I0428 20:31:05.001014  3901 net.cpp:86] Creating Layer conv1
I0428 20:31:05.001024  3901 net.cpp:408] conv1 <- pool0
I0428 20:31:05.001034  3901 net.cpp:382] conv1 -> conv1
I0428 20:31:05.002912  3901 net.cpp:124] Setting up conv1
I0428 20:31:05.002929  3901 net.cpp:131] Top shape: 100 10 8 8 (64000)
I0428 20:31:05.002936  3901 net.cpp:139] Memory required for data: 29370800
I0428 20:31:05.002952  3901 layer_factory.hpp:77] Creating layer pool1
I0428 20:31:05.002964  3901 net.cpp:86] Creating Layer pool1
I0428 20:31:05.002972  3901 net.cpp:408] pool1 <- conv1
I0428 20:31:05.002981  3901 net.cpp:382] pool1 -> pool1
I0428 20:31:05.003034  3901 net.cpp:124] Setting up pool1
I0428 20:31:05.003046  3901 net.cpp:131] Top shape: 100 10 4 4 (16000)
I0428 20:31:05.003051  3901 net.cpp:139] Memory required for data: 29434800
I0428 20:31:05.003058  3901 layer_factory.hpp:77] Creating layer ip1
I0428 20:31:05.003069  3901 net.cpp:86] Creating Layer ip1
I0428 20:31:05.003077  3901 net.cpp:408] ip1 <- pool1
I0428 20:31:05.003087  3901 net.cpp:382] ip1 -> ip1
I0428 20:31:05.003249  3901 net.cpp:124] Setting up ip1
I0428 20:31:05.003274  3901 net.cpp:131] Top shape: 100 25 (2500)
I0428 20:31:05.003281  3901 net.cpp:139] Memory required for data: 29444800
I0428 20:31:05.003296  3901 layer_factory.hpp:77] Creating layer relu1
I0428 20:31:05.003307  3901 net.cpp:86] Creating Layer relu1
I0428 20:31:05.003314  3901 net.cpp:408] relu1 <- ip1
I0428 20:31:05.003324  3901 net.cpp:369] relu1 -> ip1 (in-place)
I0428 20:31:05.003531  3901 net.cpp:124] Setting up relu1
I0428 20:31:05.003543  3901 net.cpp:131] Top shape: 100 25 (2500)
I0428 20:31:05.003551  3901 net.cpp:139] Memory required for data: 29454800
I0428 20:31:05.003558  3901 layer_factory.hpp:77] Creating layer ip2
I0428 20:31:05.003571  3901 net.cpp:86] Creating Layer ip2
I0428 20:31:05.003578  3901 net.cpp:408] ip2 <- ip1
I0428 20:31:05.003589  3901 net.cpp:382] ip2 -> ip2
I0428 20:31:05.003742  3901 net.cpp:124] Setting up ip2
I0428 20:31:05.003752  3901 net.cpp:131] Top shape: 100 50 (5000)
I0428 20:31:05.003758  3901 net.cpp:139] Memory required for data: 29474800
I0428 20:31:05.003769  3901 layer_factory.hpp:77] Creating layer relu2
I0428 20:31:05.003779  3901 net.cpp:86] Creating Layer relu2
I0428 20:31:05.003787  3901 net.cpp:408] relu2 <- ip2
I0428 20:31:05.003794  3901 net.cpp:369] relu2 -> ip2 (in-place)
I0428 20:31:05.003985  3901 net.cpp:124] Setting up relu2
I0428 20:31:05.004000  3901 net.cpp:131] Top shape: 100 50 (5000)
I0428 20:31:05.004006  3901 net.cpp:139] Memory required for data: 29494800
I0428 20:31:05.004014  3901 layer_factory.hpp:77] Creating layer ip3
I0428 20:31:05.004024  3901 net.cpp:86] Creating Layer ip3
I0428 20:31:05.004030  3901 net.cpp:408] ip3 <- ip2
I0428 20:31:05.004040  3901 net.cpp:382] ip3 -> ip3
I0428 20:31:05.004170  3901 net.cpp:124] Setting up ip3
I0428 20:31:05.004181  3901 net.cpp:131] Top shape: 100 10 (1000)
I0428 20:31:05.004191  3901 net.cpp:139] Memory required for data: 29498800
I0428 20:31:05.004207  3901 layer_factory.hpp:77] Creating layer relu3
I0428 20:31:05.004217  3901 net.cpp:86] Creating Layer relu3
I0428 20:31:05.004225  3901 net.cpp:408] relu3 <- ip3
I0428 20:31:05.004233  3901 net.cpp:369] relu3 -> ip3 (in-place)
I0428 20:31:05.005189  3901 net.cpp:124] Setting up relu3
I0428 20:31:05.005206  3901 net.cpp:131] Top shape: 100 10 (1000)
I0428 20:31:05.005213  3901 net.cpp:139] Memory required for data: 29502800
I0428 20:31:05.005220  3901 layer_factory.hpp:77] Creating layer ip3_relu3_0_split
I0428 20:31:05.005230  3901 net.cpp:86] Creating Layer ip3_relu3_0_split
I0428 20:31:05.005237  3901 net.cpp:408] ip3_relu3_0_split <- ip3
I0428 20:31:05.005247  3901 net.cpp:382] ip3_relu3_0_split -> ip3_relu3_0_split_0
I0428 20:31:05.005259  3901 net.cpp:382] ip3_relu3_0_split -> ip3_relu3_0_split_1
I0428 20:31:05.005311  3901 net.cpp:124] Setting up ip3_relu3_0_split
I0428 20:31:05.005322  3901 net.cpp:131] Top shape: 100 10 (1000)
I0428 20:31:05.005331  3901 net.cpp:131] Top shape: 100 10 (1000)
I0428 20:31:05.005337  3901 net.cpp:139] Memory required for data: 29510800
I0428 20:31:05.005343  3901 layer_factory.hpp:77] Creating layer accuracy
I0428 20:31:05.005359  3901 net.cpp:86] Creating Layer accuracy
I0428 20:31:05.005367  3901 net.cpp:408] accuracy <- ip3_relu3_0_split_0
I0428 20:31:05.005378  3901 net.cpp:408] accuracy <- label_mnist_1_split_0
I0428 20:31:05.005388  3901 net.cpp:382] accuracy -> accuracy
…
