…
I0428 20:15:40.565413   492 net.cpp:296] The NetState phase (0) differed from the phase (1) specified by a rule in layer mnist
I0428 20:15:40.565441   492 net.cpp:296] The NetState phase (0) differed from the phase (1) specified by a rule in layer accuracy
I0428 20:15:40.565510   492 net.cpp:53] Initializing net from parameters: 
name: "LeNet"
state {
  phase: TRAIN
  level: 0
  stage: ""
}
layer {
  name: "mnist"
  type: "Data"
  top: "data"
  top: "label"
  include {
    phase: TRAIN
  }
  transform_param {
    scale: 0.00390625
  }
  data_param {
    source: "examples/mnist/mnist_train_lmdb"
    batch_size: 64
    backend: LMDB
  }
}
layer {
  name: "conv0"
  type: "Convolution"
  bottom: "data"
  top: "conv0"
  param {
    lr_mult: 1
  }
  param {
    lr_mult: 2
  }
  convolution_param {
    num_output: 50
    kernel_size: 5
    stride: 1
    weight_filler {
      type: "xavier"
    }
    bias_filler {
      type: "constant"
    }
  }
}
layer {
  name: "pool0"
  type: "Pooling"
  bottom: "conv0"
  top: "pool0"
  pooling_param {
    pool: MAX
    kernel_size: 2
    stride: 2
  }
}
layer {
  name: "conv1"
  type: "Convolution"
  bottom: "pool0"
  top: "conv1"
  param {
    lr_mult: 1
  }
  param {
    lr_mult: 2
  }
  convolution_param {
    num_output: 5
    kernel_size: 5
    stride: 1
    weight_filler {
      type: "xavier"
    }
    bias_filler {
      type: "constant"
    }
  }
}
layer {
  name: "pool1"
  type: "Pooling"
  bottom: "conv1"
  top: "pool1"
  pooling_param {
    pool: MAX
    kernel_size: 2
    stride: 2
  }
}
layer {
  name: "ip1"
  type: "InnerProduct"
  bottom: "pool1"
  top: "ip1"
  param {
    lr_mult: 1
  }
  param {
    lr_mult: 2
  }
  inner_product_param {
    num_output: 10
    weight_filler {
      type: "xavier"
    }
    bias_filler {
      type: "constant"
    }
  }
}
layer {
  name: "relu1"
  type: "ReLU"
  bottom: "ip1"
  top: "ip1"
}
layer {
  name: "ip2"
  type: "InnerProduct"
  bottom: "ip1"
  top: "ip2"
  param {
    lr_mult: 1
  }
  param {
    lr_mult: 2
  }
  inner_product_param {
    num_output: 10
    weight_filler {
      type: "xavier"
    }
    bias_filler {
      type: "constant"
    }
  }
}
layer {
  name: "relu2"
  type: "ReLU"
  bottom: "ip2"
  top: "ip2"
}
layer {
  name: "loss"
  type: "SoftmaxWithLoss"
  bottom: "ip2"
  bottom: "label"
  top: "loss"
}
I0428 20:15:40.565562   492 layer_factory.hpp:77] Creating layer mnist
I0428 20:15:40.565642   492 db_lmdb.cpp:35] Opened lmdb examples/mnist/mnist_train_lmdb
I0428 20:15:40.565661   492 net.cpp:86] Creating Layer mnist
I0428 20:15:40.565667   492 net.cpp:382] mnist -> data
I0428 20:15:40.565685   492 net.cpp:382] mnist -> label
I0428 20:15:40.566634   492 data_layer.cpp:45] output data size: 64,1,28,28
I0428 20:15:40.568822   492 net.cpp:124] Setting up mnist
I0428 20:15:40.568867   492 net.cpp:131] Top shape: 64 1 28 28 (50176)
I0428 20:15:40.568873   492 net.cpp:131] Top shape: 64 (64)
I0428 20:15:40.568876   492 net.cpp:139] Memory required for data: 200960
I0428 20:15:40.568882   492 layer_factory.hpp:77] Creating layer conv0
I0428 20:15:40.568910   492 net.cpp:86] Creating Layer conv0
I0428 20:15:40.568915   492 net.cpp:408] conv0 <- data
I0428 20:15:40.568924   492 net.cpp:382] conv0 -> conv0
I0428 20:15:40.803146   492 net.cpp:124] Setting up conv0
I0428 20:15:40.803172   492 net.cpp:131] Top shape: 64 50 24 24 (1843200)
I0428 20:15:40.803176   492 net.cpp:139] Memory required for data: 7573760
I0428 20:15:40.803225   492 layer_factory.hpp:77] Creating layer pool0
I0428 20:15:40.803236   492 net.cpp:86] Creating Layer pool0
I0428 20:15:40.803256   492 net.cpp:408] pool0 <- conv0
I0428 20:15:40.803262   492 net.cpp:382] pool0 -> pool0
I0428 20:15:40.803308   492 net.cpp:124] Setting up pool0
I0428 20:15:40.803313   492 net.cpp:131] Top shape: 64 50 12 12 (460800)
I0428 20:15:40.803315   492 net.cpp:139] Memory required for data: 9416960
I0428 20:15:40.803318   492 layer_factory.hpp:77] Creating layer conv1
I0428 20:15:40.803328   492 net.cpp:86] Creating Layer conv1
I0428 20:15:40.803333   492 net.cpp:408] conv1 <- pool0
I0428 20:15:40.803336   492 net.cpp:382] conv1 -> conv1
I0428 20:15:40.806151   492 net.cpp:124] Setting up conv1
I0428 20:15:40.806165   492 net.cpp:131] Top shape: 64 5 8 8 (20480)
I0428 20:15:40.806169   492 net.cpp:139] Memory required for data: 9498880
I0428 20:15:40.806176   492 layer_factory.hpp:77] Creating layer pool1
I0428 20:15:40.806183   492 net.cpp:86] Creating Layer pool1
I0428 20:15:40.806186   492 net.cpp:408] pool1 <- conv1
I0428 20:15:40.806190   492 net.cpp:382] pool1 -> pool1
I0428 20:15:40.806241   492 net.cpp:124] Setting up pool1
I0428 20:15:40.806246   492 net.cpp:131] Top shape: 64 5 4 4 (5120)
I0428 20:15:40.806247   492 net.cpp:139] Memory required for data: 9519360
I0428 20:15:40.806251   492 layer_factory.hpp:77] Creating layer ip1
I0428 20:15:40.806257   492 net.cpp:86] Creating Layer ip1
I0428 20:15:40.806259   492 net.cpp:408] ip1 <- pool1
I0428 20:15:40.806264   492 net.cpp:382] ip1 -> ip1
I0428 20:15:40.806351   492 net.cpp:124] Setting up ip1
I0428 20:15:40.806358   492 net.cpp:131] Top shape: 64 10 (640)
I0428 20:15:40.806361   492 net.cpp:139] Memory required for data: 9521920
I0428 20:15:40.806367   492 layer_factory.hpp:77] Creating layer relu1
I0428 20:15:40.806373   492 net.cpp:86] Creating Layer relu1
I0428 20:15:40.806376   492 net.cpp:408] relu1 <- ip1
I0428 20:15:40.806380   492 net.cpp:369] relu1 -> ip1 (in-place)
I0428 20:15:40.806529   492 net.cpp:124] Setting up relu1
I0428 20:15:40.806537   492 net.cpp:131] Top shape: 64 10 (640)
I0428 20:15:40.806540   492 net.cpp:139] Memory required for data: 9524480
I0428 20:15:40.806543   492 layer_factory.hpp:77] Creating layer ip2
I0428 20:15:40.806548   492 net.cpp:86] Creating Layer ip2
I0428 20:15:40.806551   492 net.cpp:408] ip2 <- ip1
I0428 20:15:40.806556   492 net.cpp:382] ip2 -> ip2
I0428 20:15:40.806638   492 net.cpp:124] Setting up ip2
I0428 20:15:40.806644   492 net.cpp:131] Top shape: 64 10 (640)
I0428 20:15:40.806648   492 net.cpp:139] Memory required for data: 9527040
I0428 20:15:40.806653   492 layer_factory.hpp:77] Creating layer relu2
I0428 20:15:40.806658   492 net.cpp:86] Creating Layer relu2
I0428 20:15:40.806660   492 net.cpp:408] relu2 <- ip2
I0428 20:15:40.806664   492 net.cpp:369] relu2 -> ip2 (in-place)
I0428 20:15:40.807428   492 net.cpp:124] Setting up relu2
I0428 20:15:40.807457   492 net.cpp:131] Top shape: 64 10 (640)
I0428 20:15:40.807461   492 net.cpp:139] Memory required for data: 9529600
I0428 20:15:40.807463   492 layer_factory.hpp:77] Creating layer loss
I0428 20:15:40.807469   492 net.cpp:86] Creating Layer loss
I0428 20:15:40.807472   492 net.cpp:408] loss <- ip2
I0428 20:15:40.807477   492 net.cpp:408] loss <- label
I0428 20:15:40.807482   492 net.cpp:382] loss -> loss
I0428 20:15:40.807503   492 layer_factory.hpp:77] Creating layer loss
…
I0428 20:15:40.808200   492 solver.cpp:173] Creating test net (#0) specified by net file: ECE595/mnist/train_test/var_everything2/lenet_train_test1252.prototxt
I0428 20:15:40.808246   492 net.cpp:296] The NetState phase (1) differed from the phase (0) specified by a rule in layer mnist
I0428 20:15:40.808342   492 net.cpp:53] Initializing net from parameters: 
name: "LeNet"
state {
  phase: TEST
}
layer {
  name: "mnist"
  type: "Data"
  top: "data"
  top: "label"
  include {
    phase: TEST
  }
  transform_param {
    scale: 0.00390625
  }
  data_param {
    source: "examples/mnist/mnist_test_lmdb"
    batch_size: 100
    backend: LMDB
  }
}
layer {
  name: "conv0"
  type: "Convolution"
  bottom: "data"
  top: "conv0"
  param {
    lr_mult: 1
  }
  param {
    lr_mult: 2
  }
  convolution_param {
    num_output: 50
    kernel_size: 5
    stride: 1
    weight_filler {
      type: "xavier"
    }
    bias_filler {
      type: "constant"
    }
  }
}
layer {
  name: "pool0"
  type: "Pooling"
  bottom: "conv0"
  top: "pool0"
  pooling_param {
    pool: MAX
    kernel_size: 2
    stride: 2
  }
}
layer {
  name: "conv1"
  type: "Convolution"
  bottom: "pool0"
  top: "conv1"
  param {
    lr_mult: 1
  }
  param {
    lr_mult: 2
  }
  convolution_param {
    num_output: 5
    kernel_size: 5
    stride: 1
    weight_filler {
      type: "xavier"
    }
    bias_filler {
      type: "constant"
    }
  }
}
layer {
  name: "pool1"
  type: "Pooling"
  bottom: "conv1"
  top: "pool1"
  pooling_param {
    pool: MAX
    kernel_size: 2
    stride: 2
  }
}
layer {
  name: "ip1"
  type: "InnerProduct"
  bottom: "pool1"
  top: "ip1"
  param {
    lr_mult: 1
  }
  param {
    lr_mult: 2
  }
  inner_product_param {
    num_output: 10
    weight_filler {
      type: "xavier"
    }
    bias_filler {
      type: "constant"
    }
  }
}
layer {
  name: "relu1"
  type: "ReLU"
  bottom: "ip1"
  top: "ip1"
}
layer {
  name: "ip2"
  type: "InnerProduct"
  bottom: "ip1"
  top: "ip2"
  param {
    lr_mult: 1
  }
  param {
    lr_mult: 2
  }
  inner_product_param {
    num_output: 10
    weight_filler {
      type: "xavier"
    }
    bias_filler {
      type: "constant"
    }
  }
}
layer {
  name: "relu2"
  type: "ReLU"
  bottom: "ip2"
  top: "ip2"
}
layer {
  name: "accuracy"
  type: "Accuracy"
  bottom: "ip2"
  bottom: "label"
  top: "accuracy"
  include {
    phase: TEST
  }
}
layer {
  name: "loss"
  type: "SoftmaxWithLoss"
  bottom: "ip2"
  bottom: "label"
  top: "loss"
}
I0428 20:15:40.808403   492 layer_factory.hpp:77] Creating layer mnist
I0428 20:15:40.808451   492 db_lmdb.cpp:35] Opened lmdb examples/mnist/mnist_test_lmdb
I0428 20:15:40.808465   492 net.cpp:86] Creating Layer mnist
I0428 20:15:40.808470   492 net.cpp:382] mnist -> data
I0428 20:15:40.808476   492 net.cpp:382] mnist -> label
I0428 20:15:40.808557   492 data_layer.cpp:45] output data size: 100,1,28,28
I0428 20:15:40.810777   492 net.cpp:124] Setting up mnist
I0428 20:15:40.810789   492 net.cpp:131] Top shape: 100 1 28 28 (78400)
I0428 20:15:40.810794   492 net.cpp:131] Top shape: 100 (100)
I0428 20:15:40.810797   492 net.cpp:139] Memory required for data: 314000
I0428 20:15:40.810801   492 layer_factory.hpp:77] Creating layer label_mnist_1_split
I0428 20:15:40.810809   492 net.cpp:86] Creating Layer label_mnist_1_split
I0428 20:15:40.810813   492 net.cpp:408] label_mnist_1_split <- label
I0428 20:15:40.810817   492 net.cpp:382] label_mnist_1_split -> label_mnist_1_split_0
I0428 20:15:40.810823   492 net.cpp:382] label_mnist_1_split -> label_mnist_1_split_1
I0428 20:15:40.810868   492 net.cpp:124] Setting up label_mnist_1_split
I0428 20:15:40.810897   492 net.cpp:131] Top shape: 100 (100)
I0428 20:15:40.810901   492 net.cpp:131] Top shape: 100 (100)
I0428 20:15:40.810904   492 net.cpp:139] Memory required for data: 314800
I0428 20:15:40.810907   492 layer_factory.hpp:77] Creating layer conv0
I0428 20:15:40.810914   492 net.cpp:86] Creating Layer conv0
I0428 20:15:40.810917   492 net.cpp:408] conv0 <- data
I0428 20:15:40.810922   492 net.cpp:382] conv0 -> conv0
I0428 20:15:40.812638   492 net.cpp:124] Setting up conv0
I0428 20:15:40.812656   492 net.cpp:131] Top shape: 100 50 24 24 (2880000)
I0428 20:15:40.812662   492 net.cpp:139] Memory required for data: 11834800
I0428 20:15:40.812675   492 layer_factory.hpp:77] Creating layer pool0
I0428 20:15:40.812685   492 net.cpp:86] Creating Layer pool0
I0428 20:15:40.812690   492 net.cpp:408] pool0 <- conv0
I0428 20:15:40.812698   492 net.cpp:382] pool0 -> pool0
I0428 20:15:40.812736   492 net.cpp:124] Setting up pool0
I0428 20:15:40.812741   492 net.cpp:131] Top shape: 100 50 12 12 (720000)
I0428 20:15:40.812743   492 net.cpp:139] Memory required for data: 14714800
I0428 20:15:40.812747   492 layer_factory.hpp:77] Creating layer conv1
I0428 20:15:40.812754   492 net.cpp:86] Creating Layer conv1
I0428 20:15:40.812757   492 net.cpp:408] conv1 <- pool0
I0428 20:15:40.812762   492 net.cpp:382] conv1 -> conv1
I0428 20:15:40.814349   492 net.cpp:124] Setting up conv1
I0428 20:15:40.814363   492 net.cpp:131] Top shape: 100 5 8 8 (32000)
I0428 20:15:40.814365   492 net.cpp:139] Memory required for data: 14842800
I0428 20:15:40.814380   492 layer_factory.hpp:77] Creating layer pool1
I0428 20:15:40.814386   492 net.cpp:86] Creating Layer pool1
I0428 20:15:40.814389   492 net.cpp:408] pool1 <- conv1
I0428 20:15:40.814394   492 net.cpp:382] pool1 -> pool1
I0428 20:15:40.814450   492 net.cpp:124] Setting up pool1
I0428 20:15:40.814474   492 net.cpp:131] Top shape: 100 5 4 4 (8000)
I0428 20:15:40.814481   492 net.cpp:139] Memory required for data: 14874800
I0428 20:15:40.814486   492 layer_factory.hpp:77] Creating layer ip1
I0428 20:15:40.814508   492 net.cpp:86] Creating Layer ip1
I0428 20:15:40.814513   492 net.cpp:408] ip1 <- pool1
I0428 20:15:40.814537   492 net.cpp:382] ip1 -> ip1
I0428 20:15:40.814646   492 net.cpp:124] Setting up ip1
I0428 20:15:40.814656   492 net.cpp:131] Top shape: 100 10 (1000)
I0428 20:15:40.814659   492 net.cpp:139] Memory required for data: 14878800
I0428 20:15:40.814667   492 layer_factory.hpp:77] Creating layer relu1
I0428 20:15:40.814672   492 net.cpp:86] Creating Layer relu1
I0428 20:15:40.814677   492 net.cpp:408] relu1 <- ip1
I0428 20:15:40.814680   492 net.cpp:369] relu1 -> ip1 (in-place)
I0428 20:15:40.814862   492 net.cpp:124] Setting up relu1
I0428 20:15:40.814870   492 net.cpp:131] Top shape: 100 10 (1000)
I0428 20:15:40.814880   492 net.cpp:139] Memory required for data: 14882800
I0428 20:15:40.814883   492 layer_factory.hpp:77] Creating layer ip2
I0428 20:15:40.814890   492 net.cpp:86] Creating Layer ip2
I0428 20:15:40.814900   492 net.cpp:408] ip2 <- ip1
I0428 20:15:40.814905   492 net.cpp:382] ip2 -> ip2
I0428 20:15:40.814995   492 net.cpp:124] Setting up ip2
I0428 20:15:40.815001   492 net.cpp:131] Top shape: 100 10 (1000)
I0428 20:15:40.815004   492 net.cpp:139] Memory required for data: 14886800
I0428 20:15:40.815009   492 layer_factory.hpp:77] Creating layer relu2
I0428 20:15:40.815014   492 net.cpp:86] Creating Layer relu2
I0428 20:15:40.815023   492 net.cpp:408] relu2 <- ip2
I0428 20:15:40.815027   492 net.cpp:369] relu2 -> ip2 (in-place)
I0428 20:15:40.815165   492 net.cpp:124] Setting up relu2
I0428 20:15:40.815173   492 net.cpp:131] Top shape: 100 10 (1000)
I0428 20:15:40.815176   492 net.cpp:139] Memory required for data: 14890800
I0428 20:15:40.815179   492 layer_factory.hpp:77] Creating layer ip2_relu2_0_split
I0428 20:15:40.815184   492 net.cpp:86] Creating Layer ip2_relu2_0_split
I0428 20:15:40.815186   492 net.cpp:408] ip2_relu2_0_split <- ip2
I0428 20:15:40.815191   492 net.cpp:382] ip2_relu2_0_split -> ip2_relu2_0_split_0
I0428 20:15:40.815207   492 net.cpp:382] ip2_relu2_0_split -> ip2_relu2_0_split_1
I0428 20:15:40.815244   492 net.cpp:124] Setting up ip2_relu2_0_split
I0428 20:15:40.815249   492 net.cpp:131] Top shape: 100 10 (1000)
I0428 20:15:40.815253   492 net.cpp:131] Top shape: 100 10 (1000)
I0428 20:15:40.815255   492 net.cpp:139] Memory required for data: 14898800
I0428 20:15:40.815258   492 layer_factory.hpp:77] Creating layer accuracy
I0428 20:15:40.815263   492 net.cpp:86] Creating Layer accuracy
I0428 20:15:40.815266   492 net.cpp:408] accuracy <- ip2_relu2_0_split_0
I0428 20:15:40.815270   492 net.cpp:408] accuracy <- label_mnist_1_split_0
I0428 20:15:40.815274   492 net.cpp:382] accuracy -> accuracy
…
