…
I0428 19:50:29.850256 27026 net.cpp:296] The NetState phase (0) differed from the phase (1) specified by a rule in layer mnist
I0428 19:50:29.850271 27026 net.cpp:296] The NetState phase (0) differed from the phase (1) specified by a rule in layer accuracy
I0428 19:50:29.850360 27026 net.cpp:53] Initializing net from parameters: 
name: "LeNet"
state {
  phase: TRAIN
  level: 0
  stage: ""
}
layer {
  name: "mnist"
  type: "Data"
  top: "data"
  top: "label"
  include {
    phase: TRAIN
  }
  transform_param {
    scale: 0.00390625
  }
  data_param {
    source: "examples/mnist/mnist_train_lmdb"
    batch_size: 64
    backend: LMDB
  }
}
layer {
  name: "conv0"
  type: "Convolution"
  bottom: "data"
  top: "conv0"
  param {
    lr_mult: 1
  }
  param {
    lr_mult: 2
  }
  convolution_param {
    num_output: 5
    kernel_size: 5
    stride: 1
    weight_filler {
      type: "xavier"
    }
    bias_filler {
      type: "constant"
    }
  }
}
layer {
  name: "pool0"
  type: "Pooling"
  bottom: "conv0"
  top: "pool0"
  pooling_param {
    pool: MAX
    kernel_size: 2
    stride: 2
  }
}
layer {
  name: "conv1"
  type: "Convolution"
  bottom: "pool0"
  top: "conv1"
  param {
    lr_mult: 1
  }
  param {
    lr_mult: 2
  }
  convolution_param {
    num_output: 10
    kernel_size: 5
    stride: 1
    weight_filler {
      type: "xavier"
    }
    bias_filler {
      type: "constant"
    }
  }
}
layer {
  name: "pool1"
  type: "Pooling"
  bottom: "conv1"
  top: "pool1"
  pooling_param {
    pool: MAX
    kernel_size: 2
    stride: 2
  }
}
layer {
  name: "ip1"
  type: "InnerProduct"
  bottom: "pool1"
  top: "ip1"
  param {
    lr_mult: 1
  }
  param {
    lr_mult: 2
  }
  inner_product_param {
    num_output: 25
    weight_filler {
      type: "xavier"
    }
    bias_filler {
      type: "constant"
    }
  }
}
layer {
  name: "relu1"
  type: "ReLU"
  bottom: "ip1"
  top: "ip1"
}
layer {
  name: "ip2"
  type: "InnerProduct"
  bottom: "ip1"
  top: "ip2"
  param {
    lr_mult: 1
  }
  param {
    lr_mult: 2
  }
  inner_product_param {
    num_output: 10
    weight_filler {
      type: "xavier"
    }
    bias_filler {
      type: "constant"
    }
  }
}
layer {
  name: "relu2"
  type: "ReLU"
  bottom: "ip2"
  top: "ip2"
}
layer {
  name: "ip3"
  type: "InnerProduct"
  bottom: "ip2"
  top: "ip3"
  param {
    lr_mult: 1
  }
  param {
    lr_mult: 2
  }
  inner_product_param {
    num_output: 10
    weight_filler {
      type: "xavier"
    }
    bias_filler {
      type: "constant"
    }
  }
}
layer {
  name: "relu3"
  type: "ReLU"
  bottom: "ip3"
  top: "ip3"
}
layer {
  name: "loss"
  type: "SoftmaxWithLoss"
  bottom: "ip3"
  bottom: "label"
  top: "loss"
}
I0428 19:50:29.850419 27026 layer_factory.hpp:77] Creating layer mnist
I0428 19:50:29.850498 27026 db_lmdb.cpp:35] Opened lmdb examples/mnist/mnist_train_lmdb
I0428 19:50:29.850517 27026 net.cpp:86] Creating Layer mnist
I0428 19:50:29.850523 27026 net.cpp:382] mnist -> data
I0428 19:50:29.850541 27026 net.cpp:382] mnist -> label
I0428 19:50:29.851502 27026 data_layer.cpp:45] output data size: 64,1,28,28
I0428 19:50:29.853799 27026 net.cpp:124] Setting up mnist
I0428 19:50:29.853844 27026 net.cpp:131] Top shape: 64 1 28 28 (50176)
I0428 19:50:29.853849 27026 net.cpp:131] Top shape: 64 (64)
I0428 19:50:29.853853 27026 net.cpp:139] Memory required for data: 200960
I0428 19:50:29.853858 27026 layer_factory.hpp:77] Creating layer conv0
I0428 19:50:29.853873 27026 net.cpp:86] Creating Layer conv0
I0428 19:50:29.853889 27026 net.cpp:408] conv0 <- data
I0428 19:50:29.853899 27026 net.cpp:382] conv0 -> conv0
I0428 19:50:30.084908 27026 net.cpp:124] Setting up conv0
I0428 19:50:30.084949 27026 net.cpp:131] Top shape: 64 5 24 24 (184320)
I0428 19:50:30.084954 27026 net.cpp:139] Memory required for data: 938240
I0428 19:50:30.084985 27026 layer_factory.hpp:77] Creating layer pool0
I0428 19:50:30.084997 27026 net.cpp:86] Creating Layer pool0
I0428 19:50:30.085001 27026 net.cpp:408] pool0 <- conv0
I0428 19:50:30.085022 27026 net.cpp:382] pool0 -> pool0
I0428 19:50:30.085070 27026 net.cpp:124] Setting up pool0
I0428 19:50:30.085088 27026 net.cpp:131] Top shape: 64 5 12 12 (46080)
I0428 19:50:30.085090 27026 net.cpp:139] Memory required for data: 1122560
I0428 19:50:30.085094 27026 layer_factory.hpp:77] Creating layer conv1
I0428 19:50:30.085105 27026 net.cpp:86] Creating Layer conv1
I0428 19:50:30.085108 27026 net.cpp:408] conv1 <- pool0
I0428 19:50:30.085114 27026 net.cpp:382] conv1 -> conv1
I0428 19:50:30.087849 27026 net.cpp:124] Setting up conv1
I0428 19:50:30.087879 27026 net.cpp:131] Top shape: 64 10 8 8 (40960)
I0428 19:50:30.087882 27026 net.cpp:139] Memory required for data: 1286400
I0428 19:50:30.087890 27026 layer_factory.hpp:77] Creating layer pool1
I0428 19:50:30.087898 27026 net.cpp:86] Creating Layer pool1
I0428 19:50:30.087901 27026 net.cpp:408] pool1 <- conv1
I0428 19:50:30.087906 27026 net.cpp:382] pool1 -> pool1
I0428 19:50:30.087941 27026 net.cpp:124] Setting up pool1
I0428 19:50:30.087946 27026 net.cpp:131] Top shape: 64 10 4 4 (10240)
I0428 19:50:30.087949 27026 net.cpp:139] Memory required for data: 1327360
I0428 19:50:30.087952 27026 layer_factory.hpp:77] Creating layer ip1
I0428 19:50:30.087960 27026 net.cpp:86] Creating Layer ip1
I0428 19:50:30.087962 27026 net.cpp:408] ip1 <- pool1
I0428 19:50:30.087967 27026 net.cpp:382] ip1 -> ip1
I0428 19:50:30.088086 27026 net.cpp:124] Setting up ip1
I0428 19:50:30.088094 27026 net.cpp:131] Top shape: 64 25 (1600)
I0428 19:50:30.088098 27026 net.cpp:139] Memory required for data: 1333760
I0428 19:50:30.088104 27026 layer_factory.hpp:77] Creating layer relu1
I0428 19:50:30.088109 27026 net.cpp:86] Creating Layer relu1
I0428 19:50:30.088112 27026 net.cpp:408] relu1 <- ip1
I0428 19:50:30.088116 27026 net.cpp:369] relu1 -> ip1 (in-place)
I0428 19:50:30.088281 27026 net.cpp:124] Setting up relu1
I0428 19:50:30.088289 27026 net.cpp:131] Top shape: 64 25 (1600)
I0428 19:50:30.088292 27026 net.cpp:139] Memory required for data: 1340160
I0428 19:50:30.088295 27026 layer_factory.hpp:77] Creating layer ip2
I0428 19:50:30.088301 27026 net.cpp:86] Creating Layer ip2
I0428 19:50:30.088304 27026 net.cpp:408] ip2 <- ip1
I0428 19:50:30.088310 27026 net.cpp:382] ip2 -> ip2
I0428 19:50:30.088397 27026 net.cpp:124] Setting up ip2
I0428 19:50:30.088403 27026 net.cpp:131] Top shape: 64 10 (640)
I0428 19:50:30.088407 27026 net.cpp:139] Memory required for data: 1342720
I0428 19:50:30.088412 27026 layer_factory.hpp:77] Creating layer relu2
I0428 19:50:30.088416 27026 net.cpp:86] Creating Layer relu2
I0428 19:50:30.088420 27026 net.cpp:408] relu2 <- ip2
I0428 19:50:30.088423 27026 net.cpp:369] relu2 -> ip2 (in-place)
I0428 19:50:30.089242 27026 net.cpp:124] Setting up relu2
I0428 19:50:30.089254 27026 net.cpp:131] Top shape: 64 10 (640)
I0428 19:50:30.089273 27026 net.cpp:139] Memory required for data: 1345280
I0428 19:50:30.089277 27026 layer_factory.hpp:77] Creating layer ip3
I0428 19:50:30.089283 27026 net.cpp:86] Creating Layer ip3
I0428 19:50:30.089287 27026 net.cpp:408] ip3 <- ip2
I0428 19:50:30.089293 27026 net.cpp:382] ip3 -> ip3
I0428 19:50:30.089401 27026 net.cpp:124] Setting up ip3
I0428 19:50:30.089407 27026 net.cpp:131] Top shape: 64 10 (640)
I0428 19:50:30.089411 27026 net.cpp:139] Memory required for data: 1347840
I0428 19:50:30.089418 27026 layer_factory.hpp:77] Creating layer relu3
I0428 19:50:30.089423 27026 net.cpp:86] Creating Layer relu3
I0428 19:50:30.089426 27026 net.cpp:408] relu3 <- ip3
I0428 19:50:30.089431 27026 net.cpp:369] relu3 -> ip3 (in-place)
I0428 19:50:30.089589 27026 net.cpp:124] Setting up relu3
I0428 19:50:30.089598 27026 net.cpp:131] Top shape: 64 10 (640)
I0428 19:50:30.089601 27026 net.cpp:139] Memory required for data: 1350400
I0428 19:50:30.089604 27026 layer_factory.hpp:77] Creating layer loss
I0428 19:50:30.089609 27026 net.cpp:86] Creating Layer loss
I0428 19:50:30.089613 27026 net.cpp:408] loss <- ip3
I0428 19:50:30.089617 27026 net.cpp:408] loss <- label
I0428 19:50:30.089622 27026 net.cpp:382] loss -> loss
I0428 19:50:30.089639 27026 layer_factory.hpp:77] Creating layer loss
…
I0428 19:50:30.090288 27026 solver.cpp:173] Creating test net (#0) specified by net file: ECE595/mnist/train_test/var_everything2/lenet_train_test606.prototxt
I0428 19:50:30.090330 27026 net.cpp:296] The NetState phase (1) differed from the phase (0) specified by a rule in layer mnist
I0428 19:50:30.090473 27026 net.cpp:53] Initializing net from parameters: 
name: "LeNet"
state {
  phase: TEST
}
layer {
  name: "mnist"
  type: "Data"
  top: "data"
  top: "label"
  include {
    phase: TEST
  }
  transform_param {
    scale: 0.00390625
  }
  data_param {
    source: "examples/mnist/mnist_test_lmdb"
    batch_size: 100
    backend: LMDB
  }
}
layer {
  name: "conv0"
  type: "Convolution"
  bottom: "data"
  top: "conv0"
  param {
    lr_mult: 1
  }
  param {
    lr_mult: 2
  }
  convolution_param {
    num_output: 5
    kernel_size: 5
    stride: 1
    weight_filler {
      type: "xavier"
    }
    bias_filler {
      type: "constant"
    }
  }
}
layer {
  name: "pool0"
  type: "Pooling"
  bottom: "conv0"
  top: "pool0"
  pooling_param {
    pool: MAX
    kernel_size: 2
    stride: 2
  }
}
layer {
  name: "conv1"
  type: "Convolution"
  bottom: "pool0"
  top: "conv1"
  param {
    lr_mult: 1
  }
  param {
    lr_mult: 2
  }
  convolution_param {
    num_output: 10
    kernel_size: 5
    stride: 1
    weight_filler {
      type: "xavier"
    }
    bias_filler {
      type: "constant"
    }
  }
}
layer {
  name: "pool1"
  type: "Pooling"
  bottom: "conv1"
  top: "pool1"
  pooling_param {
    pool: MAX
    kernel_size: 2
    stride: 2
  }
}
layer {
  name: "ip1"
  type: "InnerProduct"
  bottom: "pool1"
  top: "ip1"
  param {
    lr_mult: 1
  }
  param {
    lr_mult: 2
  }
  inner_product_param {
    num_output: 25
    weight_filler {
      type: "xavier"
    }
    bias_filler {
      type: "constant"
    }
  }
}
layer {
  name: "relu1"
  type: "ReLU"
  bottom: "ip1"
  top: "ip1"
}
layer {
  name: "ip2"
  type: "InnerProduct"
  bottom: "ip1"
  top: "ip2"
  param {
    lr_mult: 1
  }
  param {
    lr_mult: 2
  }
  inner_product_param {
    num_output: 10
    weight_filler {
      type: "xavier"
    }
    bias_filler {
      type: "constant"
    }
  }
}
layer {
  name: "relu2"
  type: "ReLU"
  bottom: "ip2"
  top: "ip2"
}
layer {
  name: "ip3"
  type: "InnerProduct"
  bottom: "ip2"
  top: "ip3"
  param {
    lr_mult: 1
  }
  param {
    lr_mult: 2
  }
  inner_product_param {
    num_output: 10
    weight_filler {
      type: "xavier"
    }
    bias_filler {
      type: "constant"
    }
  }
}
layer {
  name: "relu3"
  type: "ReLU"
  bottom: "ip3"
  top: "ip3"
}
layer {
  name: "accuracy"
  type: "Accuracy"
  bottom: "ip3"
  bottom: "label"
  top: "accuracy"
  include {
    phase: TEST
  }
}
layer {
  name: "loss"
  type: "SoftmaxWithLoss"
  bottom: "ip3"
  bottom: "label"
  top: "loss"
}
I0428 19:50:30.090574 27026 layer_factory.hpp:77] Creating layer mnist
I0428 19:50:30.090616 27026 db_lmdb.cpp:35] Opened lmdb examples/mnist/mnist_test_lmdb
I0428 19:50:30.090631 27026 net.cpp:86] Creating Layer mnist
I0428 19:50:30.090636 27026 net.cpp:382] mnist -> data
I0428 19:50:30.090659 27026 net.cpp:382] mnist -> label
I0428 19:50:30.090771 27026 data_layer.cpp:45] output data size: 100,1,28,28
I0428 19:50:30.092715 27026 net.cpp:124] Setting up mnist
I0428 19:50:30.092742 27026 net.cpp:131] Top shape: 100 1 28 28 (78400)
I0428 19:50:30.092747 27026 net.cpp:131] Top shape: 100 (100)
I0428 19:50:30.092751 27026 net.cpp:139] Memory required for data: 314000
I0428 19:50:30.092768 27026 layer_factory.hpp:77] Creating layer label_mnist_1_split
I0428 19:50:30.092792 27026 net.cpp:86] Creating Layer label_mnist_1_split
I0428 19:50:30.092797 27026 net.cpp:408] label_mnist_1_split <- label
I0428 19:50:30.092802 27026 net.cpp:382] label_mnist_1_split -> label_mnist_1_split_0
I0428 19:50:30.092808 27026 net.cpp:382] label_mnist_1_split -> label_mnist_1_split_1
I0428 19:50:30.092957 27026 net.cpp:124] Setting up label_mnist_1_split
I0428 19:50:30.092965 27026 net.cpp:131] Top shape: 100 (100)
I0428 19:50:30.092969 27026 net.cpp:131] Top shape: 100 (100)
I0428 19:50:30.092972 27026 net.cpp:139] Memory required for data: 314800
I0428 19:50:30.092977 27026 layer_factory.hpp:77] Creating layer conv0
I0428 19:50:30.092985 27026 net.cpp:86] Creating Layer conv0
I0428 19:50:30.092988 27026 net.cpp:408] conv0 <- data
I0428 19:50:30.092994 27026 net.cpp:382] conv0 -> conv0
I0428 19:50:30.094708 27026 net.cpp:124] Setting up conv0
I0428 19:50:30.094738 27026 net.cpp:131] Top shape: 100 5 24 24 (288000)
I0428 19:50:30.094740 27026 net.cpp:139] Memory required for data: 1466800
I0428 19:50:30.094749 27026 layer_factory.hpp:77] Creating layer pool0
I0428 19:50:30.094755 27026 net.cpp:86] Creating Layer pool0
I0428 19:50:30.094758 27026 net.cpp:408] pool0 <- conv0
I0428 19:50:30.094763 27026 net.cpp:382] pool0 -> pool0
I0428 19:50:30.094796 27026 net.cpp:124] Setting up pool0
I0428 19:50:30.094801 27026 net.cpp:131] Top shape: 100 5 12 12 (72000)
I0428 19:50:30.094805 27026 net.cpp:139] Memory required for data: 1754800
I0428 19:50:30.094807 27026 layer_factory.hpp:77] Creating layer conv1
I0428 19:50:30.094815 27026 net.cpp:86] Creating Layer conv1
I0428 19:50:30.094818 27026 net.cpp:408] conv1 <- pool0
I0428 19:50:30.094823 27026 net.cpp:382] conv1 -> conv1
I0428 19:50:30.096904 27026 net.cpp:124] Setting up conv1
I0428 19:50:30.096935 27026 net.cpp:131] Top shape: 100 10 8 8 (64000)
I0428 19:50:30.096940 27026 net.cpp:139] Memory required for data: 2010800
I0428 19:50:30.096949 27026 layer_factory.hpp:77] Creating layer pool1
I0428 19:50:30.096972 27026 net.cpp:86] Creating Layer pool1
I0428 19:50:30.096976 27026 net.cpp:408] pool1 <- conv1
I0428 19:50:30.096982 27026 net.cpp:382] pool1 -> pool1
I0428 19:50:30.097025 27026 net.cpp:124] Setting up pool1
I0428 19:50:30.097056 27026 net.cpp:131] Top shape: 100 10 4 4 (16000)
I0428 19:50:30.097059 27026 net.cpp:139] Memory required for data: 2074800
I0428 19:50:30.097062 27026 layer_factory.hpp:77] Creating layer ip1
I0428 19:50:30.097070 27026 net.cpp:86] Creating Layer ip1
I0428 19:50:30.097074 27026 net.cpp:408] ip1 <- pool1
I0428 19:50:30.097079 27026 net.cpp:382] ip1 -> ip1
I0428 19:50:30.097234 27026 net.cpp:124] Setting up ip1
I0428 19:50:30.097242 27026 net.cpp:131] Top shape: 100 25 (2500)
I0428 19:50:30.097256 27026 net.cpp:139] Memory required for data: 2084800
I0428 19:50:30.097264 27026 layer_factory.hpp:77] Creating layer relu1
I0428 19:50:30.097270 27026 net.cpp:86] Creating Layer relu1
I0428 19:50:30.097288 27026 net.cpp:408] relu1 <- ip1
I0428 19:50:30.097293 27026 net.cpp:369] relu1 -> ip1 (in-place)
I0428 19:50:30.097476 27026 net.cpp:124] Setting up relu1
I0428 19:50:30.097484 27026 net.cpp:131] Top shape: 100 25 (2500)
I0428 19:50:30.097488 27026 net.cpp:139] Memory required for data: 2094800
I0428 19:50:30.097491 27026 layer_factory.hpp:77] Creating layer ip2
I0428 19:50:30.097499 27026 net.cpp:86] Creating Layer ip2
I0428 19:50:30.097503 27026 net.cpp:408] ip2 <- ip1
I0428 19:50:30.097509 27026 net.cpp:382] ip2 -> ip2
I0428 19:50:30.097609 27026 net.cpp:124] Setting up ip2
I0428 19:50:30.097616 27026 net.cpp:131] Top shape: 100 10 (1000)
I0428 19:50:30.097620 27026 net.cpp:139] Memory required for data: 2098800
I0428 19:50:30.097625 27026 layer_factory.hpp:77] Creating layer relu2
I0428 19:50:30.097645 27026 net.cpp:86] Creating Layer relu2
I0428 19:50:30.097648 27026 net.cpp:408] relu2 <- ip2
I0428 19:50:30.097653 27026 net.cpp:369] relu2 -> ip2 (in-place)
I0428 19:50:30.097821 27026 net.cpp:124] Setting up relu2
I0428 19:50:30.097831 27026 net.cpp:131] Top shape: 100 10 (1000)
I0428 19:50:30.097841 27026 net.cpp:139] Memory required for data: 2102800
I0428 19:50:30.097846 27026 layer_factory.hpp:77] Creating layer ip3
I0428 19:50:30.097851 27026 net.cpp:86] Creating Layer ip3
I0428 19:50:30.097858 27026 net.cpp:408] ip3 <- ip2
I0428 19:50:30.097864 27026 net.cpp:382] ip3 -> ip3
I0428 19:50:30.097992 27026 net.cpp:124] Setting up ip3
I0428 19:50:30.098001 27026 net.cpp:131] Top shape: 100 10 (1000)
I0428 19:50:30.098003 27026 net.cpp:139] Memory required for data: 2106800
I0428 19:50:30.098011 27026 layer_factory.hpp:77] Creating layer relu3
I0428 19:50:30.098016 27026 net.cpp:86] Creating Layer relu3
I0428 19:50:30.098019 27026 net.cpp:408] relu3 <- ip3
I0428 19:50:30.098024 27026 net.cpp:369] relu3 -> ip3 (in-place)
I0428 19:50:30.098831 27026 net.cpp:124] Setting up relu3
I0428 19:50:30.098842 27026 net.cpp:131] Top shape: 100 10 (1000)
I0428 19:50:30.098861 27026 net.cpp:139] Memory required for data: 2110800
I0428 19:50:30.098865 27026 layer_factory.hpp:77] Creating layer ip3_relu3_0_split
I0428 19:50:30.098870 27026 net.cpp:86] Creating Layer ip3_relu3_0_split
I0428 19:50:30.098873 27026 net.cpp:408] ip3_relu3_0_split <- ip3
I0428 19:50:30.098881 27026 net.cpp:382] ip3_relu3_0_split -> ip3_relu3_0_split_0
I0428 19:50:30.098886 27026 net.cpp:382] ip3_relu3_0_split -> ip3_relu3_0_split_1
I0428 19:50:30.098937 27026 net.cpp:124] Setting up ip3_relu3_0_split
I0428 19:50:30.098943 27026 net.cpp:131] Top shape: 100 10 (1000)
I0428 19:50:30.098948 27026 net.cpp:131] Top shape: 100 10 (1000)
I0428 19:50:30.098949 27026 net.cpp:139] Memory required for data: 2118800
I0428 19:50:30.098953 27026 layer_factory.hpp:77] Creating layer accuracy
I0428 19:50:30.098959 27026 net.cpp:86] Creating Layer accuracy
I0428 19:50:30.098963 27026 net.cpp:408] accuracy <- ip3_relu3_0_split_0
I0428 19:50:30.098981 27026 net.cpp:408] accuracy <- label_mnist_1_split_0
I0428 19:50:30.098985 27026 net.cpp:382] accuracy -> accuracy
…
