…
I0428 20:00:48.983827 29584 net.cpp:296] The NetState phase (0) differed from the phase (1) specified by a rule in layer mnist
I0428 20:00:48.983842 29584 net.cpp:296] The NetState phase (0) differed from the phase (1) specified by a rule in layer accuracy
I0428 20:00:48.983922 29584 net.cpp:53] Initializing net from parameters: 
name: "LeNet"
state {
  phase: TRAIN
  level: 0
  stage: ""
}
layer {
  name: "mnist"
  type: "Data"
  top: "data"
  top: "label"
  include {
    phase: TRAIN
  }
  transform_param {
    scale: 0.00390625
  }
  data_param {
    source: "examples/mnist/mnist_train_lmdb"
    batch_size: 64
    backend: LMDB
  }
}
layer {
  name: "conv0"
  type: "Convolution"
  bottom: "data"
  top: "conv0"
  param {
    lr_mult: 1
  }
  param {
    lr_mult: 2
  }
  convolution_param {
    num_output: 10
    kernel_size: 5
    stride: 1
    weight_filler {
      type: "xavier"
    }
    bias_filler {
      type: "constant"
    }
  }
}
layer {
  name: "pool0"
  type: "Pooling"
  bottom: "conv0"
  top: "pool0"
  pooling_param {
    pool: MAX
    kernel_size: 2
    stride: 2
  }
}
layer {
  name: "conv1"
  type: "Convolution"
  bottom: "pool0"
  top: "conv1"
  param {
    lr_mult: 1
  }
  param {
    lr_mult: 2
  }
  convolution_param {
    num_output: 25
    kernel_size: 5
    stride: 1
    weight_filler {
      type: "xavier"
    }
    bias_filler {
      type: "constant"
    }
  }
}
layer {
  name: "pool1"
  type: "Pooling"
  bottom: "conv1"
  top: "pool1"
  pooling_param {
    pool: MAX
    kernel_size: 2
    stride: 2
  }
}
layer {
  name: "ip1"
  type: "InnerProduct"
  bottom: "pool1"
  top: "ip1"
  param {
    lr_mult: 1
  }
  param {
    lr_mult: 2
  }
  inner_product_param {
    num_output: 25
    weight_filler {
      type: "xavier"
    }
    bias_filler {
      type: "constant"
    }
  }
}
layer {
  name: "relu1"
  type: "ReLU"
  bottom: "ip1"
  top: "ip1"
}
layer {
  name: "ip2"
  type: "InnerProduct"
  bottom: "ip1"
  top: "ip2"
  param {
    lr_mult: 1
  }
  param {
    lr_mult: 2
  }
  inner_product_param {
    num_output: 50
    weight_filler {
      type: "xavier"
    }
    bias_filler {
      type: "constant"
    }
  }
}
layer {
  name: "relu2"
  type: "ReLU"
  bottom: "ip2"
  top: "ip2"
}
layer {
  name: "ip3"
  type: "InnerProduct"
  bottom: "ip2"
  top: "ip3"
  param {
    lr_mult: 1
  }
  param {
    lr_mult: 2
  }
  inner_product_param {
    num_output: 10
    weight_filler {
      type: "xavier"
    }
    bias_filler {
      type: "constant"
    }
  }
}
layer {
  name: "relu3"
  type: "ReLU"
  bottom: "ip3"
  top: "ip3"
}
layer {
  name: "loss"
  type: "SoftmaxWithLoss"
  bottom: "ip3"
  bottom: "label"
  top: "loss"
}
I0428 20:00:48.983983 29584 layer_factory.hpp:77] Creating layer mnist
I0428 20:00:48.984069 29584 db_lmdb.cpp:35] Opened lmdb examples/mnist/mnist_train_lmdb
I0428 20:00:48.984089 29584 net.cpp:86] Creating Layer mnist
I0428 20:00:48.984096 29584 net.cpp:382] mnist -> data
I0428 20:00:48.984114 29584 net.cpp:382] mnist -> label
I0428 20:00:48.985036 29584 data_layer.cpp:45] output data size: 64,1,28,28
I0428 20:00:48.987200 29584 net.cpp:124] Setting up mnist
I0428 20:00:48.987215 29584 net.cpp:131] Top shape: 64 1 28 28 (50176)
I0428 20:00:48.987221 29584 net.cpp:131] Top shape: 64 (64)
I0428 20:00:48.987224 29584 net.cpp:139] Memory required for data: 200960
I0428 20:00:48.987231 29584 layer_factory.hpp:77] Creating layer conv0
I0428 20:00:48.987244 29584 net.cpp:86] Creating Layer conv0
I0428 20:00:48.987262 29584 net.cpp:408] conv0 <- data
I0428 20:00:48.987274 29584 net.cpp:382] conv0 -> conv0
I0428 20:00:49.216624 29584 net.cpp:124] Setting up conv0
I0428 20:00:49.216647 29584 net.cpp:131] Top shape: 64 10 24 24 (368640)
I0428 20:00:49.216651 29584 net.cpp:139] Memory required for data: 1675520
I0428 20:00:49.216666 29584 layer_factory.hpp:77] Creating layer pool0
I0428 20:00:49.216693 29584 net.cpp:86] Creating Layer pool0
I0428 20:00:49.216696 29584 net.cpp:408] pool0 <- conv0
I0428 20:00:49.216701 29584 net.cpp:382] pool0 -> pool0
I0428 20:00:49.216747 29584 net.cpp:124] Setting up pool0
I0428 20:00:49.216756 29584 net.cpp:131] Top shape: 64 10 12 12 (92160)
I0428 20:00:49.216759 29584 net.cpp:139] Memory required for data: 2044160
I0428 20:00:49.216763 29584 layer_factory.hpp:77] Creating layer conv1
I0428 20:00:49.216773 29584 net.cpp:86] Creating Layer conv1
I0428 20:00:49.216775 29584 net.cpp:408] conv1 <- pool0
I0428 20:00:49.216780 29584 net.cpp:382] conv1 -> conv1
I0428 20:00:49.219660 29584 net.cpp:124] Setting up conv1
I0428 20:00:49.219689 29584 net.cpp:131] Top shape: 64 25 8 8 (102400)
I0428 20:00:49.219693 29584 net.cpp:139] Memory required for data: 2453760
I0428 20:00:49.219702 29584 layer_factory.hpp:77] Creating layer pool1
I0428 20:00:49.219709 29584 net.cpp:86] Creating Layer pool1
I0428 20:00:49.219712 29584 net.cpp:408] pool1 <- conv1
I0428 20:00:49.219717 29584 net.cpp:382] pool1 -> pool1
I0428 20:00:49.219768 29584 net.cpp:124] Setting up pool1
I0428 20:00:49.219774 29584 net.cpp:131] Top shape: 64 25 4 4 (25600)
I0428 20:00:49.219776 29584 net.cpp:139] Memory required for data: 2556160
I0428 20:00:49.219779 29584 layer_factory.hpp:77] Creating layer ip1
I0428 20:00:49.219786 29584 net.cpp:86] Creating Layer ip1
I0428 20:00:49.219789 29584 net.cpp:408] ip1 <- pool1
I0428 20:00:49.219794 29584 net.cpp:382] ip1 -> ip1
I0428 20:00:49.219940 29584 net.cpp:124] Setting up ip1
I0428 20:00:49.219949 29584 net.cpp:131] Top shape: 64 25 (1600)
I0428 20:00:49.219951 29584 net.cpp:139] Memory required for data: 2562560
I0428 20:00:49.219959 29584 layer_factory.hpp:77] Creating layer relu1
I0428 20:00:49.219964 29584 net.cpp:86] Creating Layer relu1
I0428 20:00:49.219966 29584 net.cpp:408] relu1 <- ip1
I0428 20:00:49.219970 29584 net.cpp:369] relu1 -> ip1 (in-place)
I0428 20:00:49.220126 29584 net.cpp:124] Setting up relu1
I0428 20:00:49.220135 29584 net.cpp:131] Top shape: 64 25 (1600)
I0428 20:00:49.220139 29584 net.cpp:139] Memory required for data: 2568960
I0428 20:00:49.220141 29584 layer_factory.hpp:77] Creating layer ip2
I0428 20:00:49.220147 29584 net.cpp:86] Creating Layer ip2
I0428 20:00:49.220150 29584 net.cpp:408] ip2 <- ip1
I0428 20:00:49.220155 29584 net.cpp:382] ip2 -> ip2
I0428 20:00:49.221207 29584 net.cpp:124] Setting up ip2
I0428 20:00:49.221220 29584 net.cpp:131] Top shape: 64 50 (3200)
I0428 20:00:49.221225 29584 net.cpp:139] Memory required for data: 2581760
I0428 20:00:49.221230 29584 layer_factory.hpp:77] Creating layer relu2
I0428 20:00:49.221252 29584 net.cpp:86] Creating Layer relu2
I0428 20:00:49.221256 29584 net.cpp:408] relu2 <- ip2
I0428 20:00:49.221261 29584 net.cpp:369] relu2 -> ip2 (in-place)
I0428 20:00:49.222074 29584 net.cpp:124] Setting up relu2
I0428 20:00:49.222087 29584 net.cpp:131] Top shape: 64 50 (3200)
I0428 20:00:49.222107 29584 net.cpp:139] Memory required for data: 2594560
I0428 20:00:49.222110 29584 layer_factory.hpp:77] Creating layer ip3
I0428 20:00:49.222118 29584 net.cpp:86] Creating Layer ip3
I0428 20:00:49.222121 29584 net.cpp:408] ip3 <- ip2
I0428 20:00:49.222126 29584 net.cpp:382] ip3 -> ip3
I0428 20:00:49.222246 29584 net.cpp:124] Setting up ip3
I0428 20:00:49.222255 29584 net.cpp:131] Top shape: 64 10 (640)
I0428 20:00:49.222259 29584 net.cpp:139] Memory required for data: 2597120
I0428 20:00:49.222267 29584 layer_factory.hpp:77] Creating layer relu3
I0428 20:00:49.222272 29584 net.cpp:86] Creating Layer relu3
I0428 20:00:49.222275 29584 net.cpp:408] relu3 <- ip3
I0428 20:00:49.222280 29584 net.cpp:369] relu3 -> ip3 (in-place)
I0428 20:00:49.222453 29584 net.cpp:124] Setting up relu3
I0428 20:00:49.222463 29584 net.cpp:131] Top shape: 64 10 (640)
I0428 20:00:49.222467 29584 net.cpp:139] Memory required for data: 2599680
I0428 20:00:49.222470 29584 layer_factory.hpp:77] Creating layer loss
I0428 20:00:49.222476 29584 net.cpp:86] Creating Layer loss
I0428 20:00:49.222479 29584 net.cpp:408] loss <- ip3
I0428 20:00:49.222483 29584 net.cpp:408] loss <- label
I0428 20:00:49.222489 29584 net.cpp:382] loss -> loss
I0428 20:00:49.222503 29584 layer_factory.hpp:77] Creating layer loss
…
I0428 20:00:49.223173 29584 solver.cpp:173] Creating test net (#0) specified by net file: ECE595/mnist/train_test/var_everything2/lenet_train_test886.prototxt
I0428 20:00:49.223230 29584 net.cpp:296] The NetState phase (1) differed from the phase (0) specified by a rule in layer mnist
I0428 20:00:49.223317 29584 net.cpp:53] Initializing net from parameters: 
name: "LeNet"
state {
  phase: TEST
}
layer {
  name: "mnist"
  type: "Data"
  top: "data"
  top: "label"
  include {
    phase: TEST
  }
  transform_param {
    scale: 0.00390625
  }
  data_param {
    source: "examples/mnist/mnist_test_lmdb"
    batch_size: 100
    backend: LMDB
  }
}
layer {
  name: "conv0"
  type: "Convolution"
  bottom: "data"
  top: "conv0"
  param {
    lr_mult: 1
  }
  param {
    lr_mult: 2
  }
  convolution_param {
    num_output: 10
    kernel_size: 5
    stride: 1
    weight_filler {
      type: "xavier"
    }
    bias_filler {
      type: "constant"
    }
  }
}
layer {
  name: "pool0"
  type: "Pooling"
  bottom: "conv0"
  top: "pool0"
  pooling_param {
    pool: MAX
    kernel_size: 2
    stride: 2
  }
}
layer {
  name: "conv1"
  type: "Convolution"
  bottom: "pool0"
  top: "conv1"
  param {
    lr_mult: 1
  }
  param {
    lr_mult: 2
  }
  convolution_param {
    num_output: 25
    kernel_size: 5
    stride: 1
    weight_filler {
      type: "xavier"
    }
    bias_filler {
      type: "constant"
    }
  }
}
layer {
  name: "pool1"
  type: "Pooling"
  bottom: "conv1"
  top: "pool1"
  pooling_param {
    pool: MAX
    kernel_size: 2
    stride: 2
  }
}
layer {
  name: "ip1"
  type: "InnerProduct"
  bottom: "pool1"
  top: "ip1"
  param {
    lr_mult: 1
  }
  param {
    lr_mult: 2
  }
  inner_product_param {
    num_output: 25
    weight_filler {
      type: "xavier"
    }
    bias_filler {
      type: "constant"
    }
  }
}
layer {
  name: "relu1"
  type: "ReLU"
  bottom: "ip1"
  top: "ip1"
}
layer {
  name: "ip2"
  type: "InnerProduct"
  bottom: "ip1"
  top: "ip2"
  param {
    lr_mult: 1
  }
  param {
    lr_mult: 2
  }
  inner_product_param {
    num_output: 50
    weight_filler {
      type: "xavier"
    }
    bias_filler {
      type: "constant"
    }
  }
}
layer {
  name: "relu2"
  type: "ReLU"
  bottom: "ip2"
  top: "ip2"
}
layer {
  name: "ip3"
  type: "InnerProduct"
  bottom: "ip2"
  top: "ip3"
  param {
    lr_mult: 1
  }
  param {
    lr_mult: 2
  }
  inner_product_param {
    num_output: 10
    weight_filler {
      type: "xavier"
    }
    bias_filler {
      type: "constant"
    }
  }
}
layer {
  name: "relu3"
  type: "ReLU"
  bottom: "ip3"
  top: "ip3"
}
layer {
  name: "accuracy"
  type: "Accuracy"
  bottom: "ip3"
  bottom: "label"
  top: "accuracy"
  include {
    phase: TEST
  }
}
layer {
  name: "loss"
  type: "SoftmaxWithLoss"
  bottom: "ip3"
  bottom: "label"
  top: "loss"
}
I0428 20:00:49.223408 29584 layer_factory.hpp:77] Creating layer mnist
I0428 20:00:49.223451 29584 db_lmdb.cpp:35] Opened lmdb examples/mnist/mnist_test_lmdb
I0428 20:00:49.223477 29584 net.cpp:86] Creating Layer mnist
I0428 20:00:49.223482 29584 net.cpp:382] mnist -> data
I0428 20:00:49.223489 29584 net.cpp:382] mnist -> label
I0428 20:00:49.223572 29584 data_layer.cpp:45] output data size: 100,1,28,28
I0428 20:00:49.225693 29584 net.cpp:124] Setting up mnist
I0428 20:00:49.225736 29584 net.cpp:131] Top shape: 100 1 28 28 (78400)
I0428 20:00:49.225756 29584 net.cpp:131] Top shape: 100 (100)
I0428 20:00:49.225759 29584 net.cpp:139] Memory required for data: 314000
I0428 20:00:49.225764 29584 layer_factory.hpp:77] Creating layer label_mnist_1_split
I0428 20:00:49.225797 29584 net.cpp:86] Creating Layer label_mnist_1_split
I0428 20:00:49.225802 29584 net.cpp:408] label_mnist_1_split <- label
I0428 20:00:49.225807 29584 net.cpp:382] label_mnist_1_split -> label_mnist_1_split_0
I0428 20:00:49.225813 29584 net.cpp:382] label_mnist_1_split -> label_mnist_1_split_1
I0428 20:00:49.225922 29584 net.cpp:124] Setting up label_mnist_1_split
I0428 20:00:49.225930 29584 net.cpp:131] Top shape: 100 (100)
I0428 20:00:49.225934 29584 net.cpp:131] Top shape: 100 (100)
I0428 20:00:49.225936 29584 net.cpp:139] Memory required for data: 314800
I0428 20:00:49.225939 29584 layer_factory.hpp:77] Creating layer conv0
I0428 20:00:49.225949 29584 net.cpp:86] Creating Layer conv0
I0428 20:00:49.225951 29584 net.cpp:408] conv0 <- data
I0428 20:00:49.225957 29584 net.cpp:382] conv0 -> conv0
I0428 20:00:49.227831 29584 net.cpp:124] Setting up conv0
I0428 20:00:49.227860 29584 net.cpp:131] Top shape: 100 10 24 24 (576000)
I0428 20:00:49.227864 29584 net.cpp:139] Memory required for data: 2618800
I0428 20:00:49.227874 29584 layer_factory.hpp:77] Creating layer pool0
I0428 20:00:49.227880 29584 net.cpp:86] Creating Layer pool0
I0428 20:00:49.227883 29584 net.cpp:408] pool0 <- conv0
I0428 20:00:49.227887 29584 net.cpp:382] pool0 -> pool0
I0428 20:00:49.227923 29584 net.cpp:124] Setting up pool0
I0428 20:00:49.227928 29584 net.cpp:131] Top shape: 100 10 12 12 (144000)
I0428 20:00:49.227931 29584 net.cpp:139] Memory required for data: 3194800
I0428 20:00:49.227933 29584 layer_factory.hpp:77] Creating layer conv1
I0428 20:00:49.227942 29584 net.cpp:86] Creating Layer conv1
I0428 20:00:49.227946 29584 net.cpp:408] conv1 <- pool0
I0428 20:00:49.227952 29584 net.cpp:382] conv1 -> conv1
I0428 20:00:49.230361 29584 net.cpp:124] Setting up conv1
I0428 20:00:49.230377 29584 net.cpp:131] Top shape: 100 25 8 8 (160000)
I0428 20:00:49.230382 29584 net.cpp:139] Memory required for data: 3834800
I0428 20:00:49.230391 29584 layer_factory.hpp:77] Creating layer pool1
I0428 20:00:49.230412 29584 net.cpp:86] Creating Layer pool1
I0428 20:00:49.230415 29584 net.cpp:408] pool1 <- conv1
I0428 20:00:49.230429 29584 net.cpp:382] pool1 -> pool1
I0428 20:00:49.230469 29584 net.cpp:124] Setting up pool1
I0428 20:00:49.230475 29584 net.cpp:131] Top shape: 100 25 4 4 (40000)
I0428 20:00:49.230484 29584 net.cpp:139] Memory required for data: 3994800
I0428 20:00:49.230487 29584 layer_factory.hpp:77] Creating layer ip1
I0428 20:00:49.230494 29584 net.cpp:86] Creating Layer ip1
I0428 20:00:49.230499 29584 net.cpp:408] ip1 <- pool1
I0428 20:00:49.230509 29584 net.cpp:382] ip1 -> ip1
I0428 20:00:49.230675 29584 net.cpp:124] Setting up ip1
I0428 20:00:49.230684 29584 net.cpp:131] Top shape: 100 25 (2500)
I0428 20:00:49.230697 29584 net.cpp:139] Memory required for data: 4004800
I0428 20:00:49.230711 29584 layer_factory.hpp:77] Creating layer relu1
I0428 20:00:49.230717 29584 net.cpp:86] Creating Layer relu1
I0428 20:00:49.230720 29584 net.cpp:408] relu1 <- ip1
I0428 20:00:49.230732 29584 net.cpp:369] relu1 -> ip1 (in-place)
I0428 20:00:49.231001 29584 net.cpp:124] Setting up relu1
I0428 20:00:49.231017 29584 net.cpp:131] Top shape: 100 25 (2500)
I0428 20:00:49.231020 29584 net.cpp:139] Memory required for data: 4014800
I0428 20:00:49.231024 29584 layer_factory.hpp:77] Creating layer ip2
I0428 20:00:49.231030 29584 net.cpp:86] Creating Layer ip2
I0428 20:00:49.231034 29584 net.cpp:408] ip2 <- ip1
I0428 20:00:49.231039 29584 net.cpp:382] ip2 -> ip2
I0428 20:00:49.231192 29584 net.cpp:124] Setting up ip2
I0428 20:00:49.231199 29584 net.cpp:131] Top shape: 100 50 (5000)
I0428 20:00:49.231204 29584 net.cpp:139] Memory required for data: 4034800
I0428 20:00:49.231209 29584 layer_factory.hpp:77] Creating layer relu2
I0428 20:00:49.231212 29584 net.cpp:86] Creating Layer relu2
I0428 20:00:49.231216 29584 net.cpp:408] relu2 <- ip2
I0428 20:00:49.231220 29584 net.cpp:369] relu2 -> ip2 (in-place)
I0428 20:00:49.231417 29584 net.cpp:124] Setting up relu2
I0428 20:00:49.231427 29584 net.cpp:131] Top shape: 100 50 (5000)
I0428 20:00:49.231431 29584 net.cpp:139] Memory required for data: 4054800
I0428 20:00:49.231441 29584 layer_factory.hpp:77] Creating layer ip3
I0428 20:00:49.231447 29584 net.cpp:86] Creating Layer ip3
I0428 20:00:49.231456 29584 net.cpp:408] ip3 <- ip2
I0428 20:00:49.231462 29584 net.cpp:382] ip3 -> ip3
I0428 20:00:49.231570 29584 net.cpp:124] Setting up ip3
I0428 20:00:49.231576 29584 net.cpp:131] Top shape: 100 10 (1000)
I0428 20:00:49.231580 29584 net.cpp:139] Memory required for data: 4058800
I0428 20:00:49.231587 29584 layer_factory.hpp:77] Creating layer relu3
I0428 20:00:49.231592 29584 net.cpp:86] Creating Layer relu3
I0428 20:00:49.231596 29584 net.cpp:408] relu3 <- ip3
I0428 20:00:49.231601 29584 net.cpp:369] relu3 -> ip3 (in-place)
I0428 20:00:49.232511 29584 net.cpp:124] Setting up relu3
I0428 20:00:49.232522 29584 net.cpp:131] Top shape: 100 10 (1000)
I0428 20:00:49.232525 29584 net.cpp:139] Memory required for data: 4062800
I0428 20:00:49.232528 29584 layer_factory.hpp:77] Creating layer ip3_relu3_0_split
I0428 20:00:49.232533 29584 net.cpp:86] Creating Layer ip3_relu3_0_split
I0428 20:00:49.232537 29584 net.cpp:408] ip3_relu3_0_split <- ip3
I0428 20:00:49.232542 29584 net.cpp:382] ip3_relu3_0_split -> ip3_relu3_0_split_0
I0428 20:00:49.232548 29584 net.cpp:382] ip3_relu3_0_split -> ip3_relu3_0_split_1
I0428 20:00:49.232606 29584 net.cpp:124] Setting up ip3_relu3_0_split
I0428 20:00:49.232627 29584 net.cpp:131] Top shape: 100 10 (1000)
I0428 20:00:49.232631 29584 net.cpp:131] Top shape: 100 10 (1000)
I0428 20:00:49.232635 29584 net.cpp:139] Memory required for data: 4070800
I0428 20:00:49.232637 29584 layer_factory.hpp:77] Creating layer accuracy
I0428 20:00:49.232641 29584 net.cpp:86] Creating Layer accuracy
I0428 20:00:49.232645 29584 net.cpp:408] accuracy <- ip3_relu3_0_split_0
I0428 20:00:49.232648 29584 net.cpp:408] accuracy <- label_mnist_1_split_0
I0428 20:00:49.232655 29584 net.cpp:382] accuracy -> accuracy
…
