…
I0428 20:05:51.315253 30732 net.cpp:296] The NetState phase (0) differed from the phase (1) specified by a rule in layer mnist
I0428 20:05:51.315271 30732 net.cpp:296] The NetState phase (0) differed from the phase (1) specified by a rule in layer accuracy
I0428 20:05:51.315368 30732 net.cpp:53] Initializing net from parameters: 
name: "LeNet"
state {
  phase: TRAIN
  level: 0
  stage: ""
}
layer {
  name: "mnist"
  type: "Data"
  top: "data"
  top: "label"
  include {
    phase: TRAIN
  }
  transform_param {
    scale: 0.00390625
  }
  data_param {
    source: "examples/mnist/mnist_train_lmdb"
    batch_size: 64
    backend: LMDB
  }
}
layer {
  name: "conv0"
  type: "Convolution"
  bottom: "data"
  top: "conv0"
  param {
    lr_mult: 1
  }
  param {
    lr_mult: 2
  }
  convolution_param {
    num_output: 25
    kernel_size: 5
    stride: 1
    weight_filler {
      type: "xavier"
    }
    bias_filler {
      type: "constant"
    }
  }
}
layer {
  name: "pool0"
  type: "Pooling"
  bottom: "conv0"
  top: "pool0"
  pooling_param {
    pool: MAX
    kernel_size: 2
    stride: 2
  }
}
layer {
  name: "conv1"
  type: "Convolution"
  bottom: "pool0"
  top: "conv1"
  param {
    lr_mult: 1
  }
  param {
    lr_mult: 2
  }
  convolution_param {
    num_output: 2
    kernel_size: 5
    stride: 1
    weight_filler {
      type: "xavier"
    }
    bias_filler {
      type: "constant"
    }
  }
}
layer {
  name: "pool1"
  type: "Pooling"
  bottom: "conv1"
  top: "pool1"
  pooling_param {
    pool: MAX
    kernel_size: 2
    stride: 2
  }
}
layer {
  name: "ip1"
  type: "InnerProduct"
  bottom: "pool1"
  top: "ip1"
  param {
    lr_mult: 1
  }
  param {
    lr_mult: 2
  }
  inner_product_param {
    num_output: 50
    weight_filler {
      type: "xavier"
    }
    bias_filler {
      type: "constant"
    }
  }
}
layer {
  name: "relu1"
  type: "ReLU"
  bottom: "ip1"
  top: "ip1"
}
layer {
  name: "ip2"
  type: "InnerProduct"
  bottom: "ip1"
  top: "ip2"
  param {
    lr_mult: 1
  }
  param {
    lr_mult: 2
  }
  inner_product_param {
    num_output: 50
    weight_filler {
      type: "xavier"
    }
    bias_filler {
      type: "constant"
    }
  }
}
layer {
  name: "relu2"
  type: "ReLU"
  bottom: "ip2"
  top: "ip2"
}
layer {
  name: "ip3"
  type: "InnerProduct"
  bottom: "ip2"
  top: "ip3"
  param {
    lr_mult: 1
  }
  param {
    lr_mult: 2
  }
  inner_product_param {
    num_output: 10
    weight_filler {
      type: "xavier"
    }
    bias_filler {
      type: "constant"
    }
  }
}
layer {
  name: "relu3"
  type: "ReLU"
  bottom: "ip3"
  top: "ip3"
}
layer {
  name: "loss"
  type: "SoftmaxWithLoss"
  bottom: "ip3"
  bottom: "label"
  top: "loss"
}
I0428 20:05:51.315443 30732 layer_factory.hpp:77] Creating layer mnist
I0428 20:05:51.315548 30732 db_lmdb.cpp:35] Opened lmdb examples/mnist/mnist_train_lmdb
I0428 20:05:51.315572 30732 net.cpp:86] Creating Layer mnist
I0428 20:05:51.315580 30732 net.cpp:382] mnist -> data
I0428 20:05:51.315603 30732 net.cpp:382] mnist -> label
I0428 20:05:51.316687 30732 data_layer.cpp:45] output data size: 64,1,28,28
I0428 20:05:51.319146 30732 net.cpp:124] Setting up mnist
I0428 20:05:51.319164 30732 net.cpp:131] Top shape: 64 1 28 28 (50176)
I0428 20:05:51.319170 30732 net.cpp:131] Top shape: 64 (64)
I0428 20:05:51.319175 30732 net.cpp:139] Memory required for data: 200960
I0428 20:05:51.319182 30732 layer_factory.hpp:77] Creating layer conv0
I0428 20:05:51.319197 30732 net.cpp:86] Creating Layer conv0
I0428 20:05:51.319218 30732 net.cpp:408] conv0 <- data
I0428 20:05:51.319231 30732 net.cpp:382] conv0 -> conv0
I0428 20:05:51.610532 30732 net.cpp:124] Setting up conv0
I0428 20:05:51.610563 30732 net.cpp:131] Top shape: 64 25 24 24 (921600)
I0428 20:05:51.610569 30732 net.cpp:139] Memory required for data: 3887360
I0428 20:05:51.610585 30732 layer_factory.hpp:77] Creating layer pool0
I0428 20:05:51.610604 30732 net.cpp:86] Creating Layer pool0
I0428 20:05:51.610607 30732 net.cpp:408] pool0 <- conv0
I0428 20:05:51.610613 30732 net.cpp:382] pool0 -> pool0
I0428 20:05:51.610666 30732 net.cpp:124] Setting up pool0
I0428 20:05:51.610672 30732 net.cpp:131] Top shape: 64 25 12 12 (230400)
I0428 20:05:51.610676 30732 net.cpp:139] Memory required for data: 4808960
I0428 20:05:51.610679 30732 layer_factory.hpp:77] Creating layer conv1
I0428 20:05:51.610692 30732 net.cpp:86] Creating Layer conv1
I0428 20:05:51.610695 30732 net.cpp:408] conv1 <- pool0
I0428 20:05:51.610700 30732 net.cpp:382] conv1 -> conv1
I0428 20:05:51.613844 30732 net.cpp:124] Setting up conv1
I0428 20:05:51.613863 30732 net.cpp:131] Top shape: 64 2 8 8 (8192)
I0428 20:05:51.613868 30732 net.cpp:139] Memory required for data: 4841728
I0428 20:05:51.613879 30732 layer_factory.hpp:77] Creating layer pool1
I0428 20:05:51.613888 30732 net.cpp:86] Creating Layer pool1
I0428 20:05:51.613909 30732 net.cpp:408] pool1 <- conv1
I0428 20:05:51.613916 30732 net.cpp:382] pool1 -> pool1
I0428 20:05:51.613968 30732 net.cpp:124] Setting up pool1
I0428 20:05:51.613976 30732 net.cpp:131] Top shape: 64 2 4 4 (2048)
I0428 20:05:51.613981 30732 net.cpp:139] Memory required for data: 4849920
I0428 20:05:51.613984 30732 layer_factory.hpp:77] Creating layer ip1
I0428 20:05:51.613991 30732 net.cpp:86] Creating Layer ip1
I0428 20:05:51.613996 30732 net.cpp:408] ip1 <- pool1
I0428 20:05:51.614001 30732 net.cpp:382] ip1 -> ip1
I0428 20:05:51.614135 30732 net.cpp:124] Setting up ip1
I0428 20:05:51.614142 30732 net.cpp:131] Top shape: 64 50 (3200)
I0428 20:05:51.614146 30732 net.cpp:139] Memory required for data: 4862720
I0428 20:05:51.614156 30732 layer_factory.hpp:77] Creating layer relu1
I0428 20:05:51.614161 30732 net.cpp:86] Creating Layer relu1
I0428 20:05:51.614166 30732 net.cpp:408] relu1 <- ip1
I0428 20:05:51.614171 30732 net.cpp:369] relu1 -> ip1 (in-place)
I0428 20:05:51.614365 30732 net.cpp:124] Setting up relu1
I0428 20:05:51.614375 30732 net.cpp:131] Top shape: 64 50 (3200)
I0428 20:05:51.614379 30732 net.cpp:139] Memory required for data: 4875520
I0428 20:05:51.614382 30732 layer_factory.hpp:77] Creating layer ip2
I0428 20:05:51.614390 30732 net.cpp:86] Creating Layer ip2
I0428 20:05:51.614394 30732 net.cpp:408] ip2 <- ip1
I0428 20:05:51.614400 30732 net.cpp:382] ip2 -> ip2
I0428 20:05:51.614524 30732 net.cpp:124] Setting up ip2
I0428 20:05:51.614532 30732 net.cpp:131] Top shape: 64 50 (3200)
I0428 20:05:51.614537 30732 net.cpp:139] Memory required for data: 4888320
I0428 20:05:51.614542 30732 layer_factory.hpp:77] Creating layer relu2
I0428 20:05:51.614549 30732 net.cpp:86] Creating Layer relu2
I0428 20:05:51.614553 30732 net.cpp:408] relu2 <- ip2
I0428 20:05:51.614558 30732 net.cpp:369] relu2 -> ip2 (in-place)
I0428 20:05:51.615401 30732 net.cpp:124] Setting up relu2
I0428 20:05:51.615417 30732 net.cpp:131] Top shape: 64 50 (3200)
I0428 20:05:51.615420 30732 net.cpp:139] Memory required for data: 4901120
I0428 20:05:51.615424 30732 layer_factory.hpp:77] Creating layer ip3
I0428 20:05:51.615433 30732 net.cpp:86] Creating Layer ip3
I0428 20:05:51.615437 30732 net.cpp:408] ip3 <- ip2
I0428 20:05:51.615443 30732 net.cpp:382] ip3 -> ip3
I0428 20:05:51.615562 30732 net.cpp:124] Setting up ip3
I0428 20:05:51.615571 30732 net.cpp:131] Top shape: 64 10 (640)
I0428 20:05:51.615576 30732 net.cpp:139] Memory required for data: 4903680
I0428 20:05:51.615584 30732 layer_factory.hpp:77] Creating layer relu3
I0428 20:05:51.615591 30732 net.cpp:86] Creating Layer relu3
I0428 20:05:51.615594 30732 net.cpp:408] relu3 <- ip3
I0428 20:05:51.615599 30732 net.cpp:369] relu3 -> ip3 (in-place)
I0428 20:05:51.615792 30732 net.cpp:124] Setting up relu3
I0428 20:05:51.615803 30732 net.cpp:131] Top shape: 64 10 (640)
I0428 20:05:51.615806 30732 net.cpp:139] Memory required for data: 4906240
I0428 20:05:51.615810 30732 layer_factory.hpp:77] Creating layer loss
I0428 20:05:51.615818 30732 net.cpp:86] Creating Layer loss
I0428 20:05:51.615820 30732 net.cpp:408] loss <- ip3
I0428 20:05:51.615825 30732 net.cpp:408] loss <- label
I0428 20:05:51.615833 30732 net.cpp:382] loss -> loss
I0428 20:05:51.615854 30732 layer_factory.hpp:77] Creating layer loss
…
I0428 20:05:51.616586 30732 solver.cpp:173] Creating test net (#0) specified by net file: ECE595/mnist/train_test/var_everything2/lenet_train_test1011.prototxt
I0428 20:05:51.616619 30732 net.cpp:296] The NetState phase (1) differed from the phase (0) specified by a rule in layer mnist
I0428 20:05:51.616727 30732 net.cpp:53] Initializing net from parameters: 
name: "LeNet"
state {
  phase: TEST
}
layer {
  name: "mnist"
  type: "Data"
  top: "data"
  top: "label"
  include {
    phase: TEST
  }
  transform_param {
    scale: 0.00390625
  }
  data_param {
    source: "examples/mnist/mnist_test_lmdb"
    batch_size: 100
    backend: LMDB
  }
}
layer {
  name: "conv0"
  type: "Convolution"
  bottom: "data"
  top: "conv0"
  param {
    lr_mult: 1
  }
  param {
    lr_mult: 2
  }
  convolution_param {
    num_output: 25
    kernel_size: 5
    stride: 1
    weight_filler {
      type: "xavier"
    }
    bias_filler {
      type: "constant"
    }
  }
}
layer {
  name: "pool0"
  type: "Pooling"
  bottom: "conv0"
  top: "pool0"
  pooling_param {
    pool: MAX
    kernel_size: 2
    stride: 2
  }
}
layer {
  name: "conv1"
  type: "Convolution"
  bottom: "pool0"
  top: "conv1"
  param {
    lr_mult: 1
  }
  param {
    lr_mult: 2
  }
  convolution_param {
    num_output: 2
    kernel_size: 5
    stride: 1
    weight_filler {
      type: "xavier"
    }
    bias_filler {
      type: "constant"
    }
  }
}
layer {
  name: "pool1"
  type: "Pooling"
  bottom: "conv1"
  top: "pool1"
  pooling_param {
    pool: MAX
    kernel_size: 2
    stride: 2
  }
}
layer {
  name: "ip1"
  type: "InnerProduct"
  bottom: "pool1"
  top: "ip1"
  param {
    lr_mult: 1
  }
  param {
    lr_mult: 2
  }
  inner_product_param {
    num_output: 50
    weight_filler {
      type: "xavier"
    }
    bias_filler {
      type: "constant"
    }
  }
}
layer {
  name: "relu1"
  type: "ReLU"
  bottom: "ip1"
  top: "ip1"
}
layer {
  name: "ip2"
  type: "InnerProduct"
  bottom: "ip1"
  top: "ip2"
  param {
    lr_mult: 1
  }
  param {
    lr_mult: 2
  }
  inner_product_param {
    num_output: 50
    weight_filler {
      type: "xavier"
    }
    bias_filler {
      type: "constant"
    }
  }
}
layer {
  name: "relu2"
  type: "ReLU"
  bottom: "ip2"
  top: "ip2"
}
layer {
  name: "ip3"
  type: "InnerProduct"
  bottom: "ip2"
  top: "ip3"
  param {
    lr_mult: 1
  }
  param {
    lr_mult: 2
  }
  inner_product_param {
    num_output: 10
    weight_filler {
      type: "xavier"
    }
    bias_filler {
      type: "constant"
    }
  }
}
layer {
  name: "relu3"
  type: "ReLU"
  bottom: "ip3"
  top: "ip3"
}
layer {
  name: "accuracy"
  type: "Accuracy"
  bottom: "ip3"
  bottom: "label"
  top: "accuracy"
  include {
    phase: TEST
  }
}
layer {
  name: "loss"
  type: "SoftmaxWithLoss"
  bottom: "ip3"
  bottom: "label"
  top: "loss"
}
I0428 20:05:51.616828 30732 layer_factory.hpp:77] Creating layer mnist
I0428 20:05:51.616879 30732 db_lmdb.cpp:35] Opened lmdb examples/mnist/mnist_test_lmdb
I0428 20:05:51.616897 30732 net.cpp:86] Creating Layer mnist
I0428 20:05:51.616904 30732 net.cpp:382] mnist -> data
I0428 20:05:51.616912 30732 net.cpp:382] mnist -> label
I0428 20:05:51.617012 30732 data_layer.cpp:45] output data size: 100,1,28,28
I0428 20:05:51.619199 30732 net.cpp:124] Setting up mnist
I0428 20:05:51.619215 30732 net.cpp:131] Top shape: 100 1 28 28 (78400)
I0428 20:05:51.619220 30732 net.cpp:131] Top shape: 100 (100)
I0428 20:05:51.619225 30732 net.cpp:139] Memory required for data: 314000
I0428 20:05:51.619228 30732 layer_factory.hpp:77] Creating layer label_mnist_1_split
I0428 20:05:51.619240 30732 net.cpp:86] Creating Layer label_mnist_1_split
I0428 20:05:51.619246 30732 net.cpp:408] label_mnist_1_split <- label
I0428 20:05:51.619251 30732 net.cpp:382] label_mnist_1_split -> label_mnist_1_split_0
I0428 20:05:51.619259 30732 net.cpp:382] label_mnist_1_split -> label_mnist_1_split_1
I0428 20:05:51.619314 30732 net.cpp:124] Setting up label_mnist_1_split
I0428 20:05:51.619320 30732 net.cpp:131] Top shape: 100 (100)
I0428 20:05:51.619325 30732 net.cpp:131] Top shape: 100 (100)
I0428 20:05:51.619328 30732 net.cpp:139] Memory required for data: 314800
I0428 20:05:51.619333 30732 layer_factory.hpp:77] Creating layer conv0
I0428 20:05:51.619341 30732 net.cpp:86] Creating Layer conv0
I0428 20:05:51.619345 30732 net.cpp:408] conv0 <- data
I0428 20:05:51.619351 30732 net.cpp:382] conv0 -> conv0
I0428 20:05:51.621206 30732 net.cpp:124] Setting up conv0
I0428 20:05:51.621223 30732 net.cpp:131] Top shape: 100 25 24 24 (1440000)
I0428 20:05:51.621229 30732 net.cpp:139] Memory required for data: 6074800
I0428 20:05:51.621240 30732 layer_factory.hpp:77] Creating layer pool0
I0428 20:05:51.621248 30732 net.cpp:86] Creating Layer pool0
I0428 20:05:51.621251 30732 net.cpp:408] pool0 <- conv0
I0428 20:05:51.621258 30732 net.cpp:382] pool0 -> pool0
I0428 20:05:51.621300 30732 net.cpp:124] Setting up pool0
I0428 20:05:51.621316 30732 net.cpp:131] Top shape: 100 25 12 12 (360000)
I0428 20:05:51.621320 30732 net.cpp:139] Memory required for data: 7514800
I0428 20:05:51.621323 30732 layer_factory.hpp:77] Creating layer conv1
I0428 20:05:51.621335 30732 net.cpp:86] Creating Layer conv1
I0428 20:05:51.621338 30732 net.cpp:408] conv1 <- pool0
I0428 20:05:51.621345 30732 net.cpp:382] conv1 -> conv1
I0428 20:05:51.623621 30732 net.cpp:124] Setting up conv1
I0428 20:05:51.623638 30732 net.cpp:131] Top shape: 100 2 8 8 (12800)
I0428 20:05:51.623642 30732 net.cpp:139] Memory required for data: 7566000
I0428 20:05:51.623653 30732 layer_factory.hpp:77] Creating layer pool1
I0428 20:05:51.623661 30732 net.cpp:86] Creating Layer pool1
I0428 20:05:51.623666 30732 net.cpp:408] pool1 <- conv1
I0428 20:05:51.623672 30732 net.cpp:382] pool1 -> pool1
I0428 20:05:51.623723 30732 net.cpp:124] Setting up pool1
I0428 20:05:51.623734 30732 net.cpp:131] Top shape: 100 2 4 4 (3200)
I0428 20:05:51.623739 30732 net.cpp:139] Memory required for data: 7578800
I0428 20:05:51.623742 30732 layer_factory.hpp:77] Creating layer ip1
I0428 20:05:51.623749 30732 net.cpp:86] Creating Layer ip1
I0428 20:05:51.623752 30732 net.cpp:408] ip1 <- pool1
I0428 20:05:51.623759 30732 net.cpp:382] ip1 -> ip1
I0428 20:05:51.623939 30732 net.cpp:124] Setting up ip1
I0428 20:05:51.623949 30732 net.cpp:131] Top shape: 100 50 (5000)
I0428 20:05:51.623965 30732 net.cpp:139] Memory required for data: 7598800
I0428 20:05:51.623975 30732 layer_factory.hpp:77] Creating layer relu1
I0428 20:05:51.623980 30732 net.cpp:86] Creating Layer relu1
I0428 20:05:51.623984 30732 net.cpp:408] relu1 <- ip1
I0428 20:05:51.623991 30732 net.cpp:369] relu1 -> ip1 (in-place)
I0428 20:05:51.624187 30732 net.cpp:124] Setting up relu1
I0428 20:05:51.624198 30732 net.cpp:131] Top shape: 100 50 (5000)
I0428 20:05:51.624202 30732 net.cpp:139] Memory required for data: 7618800
I0428 20:05:51.624205 30732 layer_factory.hpp:77] Creating layer ip2
I0428 20:05:51.624214 30732 net.cpp:86] Creating Layer ip2
I0428 20:05:51.624218 30732 net.cpp:408] ip2 <- ip1
I0428 20:05:51.624224 30732 net.cpp:382] ip2 -> ip2
I0428 20:05:51.624356 30732 net.cpp:124] Setting up ip2
I0428 20:05:51.624363 30732 net.cpp:131] Top shape: 100 50 (5000)
I0428 20:05:51.624367 30732 net.cpp:139] Memory required for data: 7638800
I0428 20:05:51.624373 30732 layer_factory.hpp:77] Creating layer relu2
I0428 20:05:51.624379 30732 net.cpp:86] Creating Layer relu2
I0428 20:05:51.624383 30732 net.cpp:408] relu2 <- ip2
I0428 20:05:51.624388 30732 net.cpp:369] relu2 -> ip2 (in-place)
I0428 20:05:51.624557 30732 net.cpp:124] Setting up relu2
I0428 20:05:51.624567 30732 net.cpp:131] Top shape: 100 50 (5000)
I0428 20:05:51.624570 30732 net.cpp:139] Memory required for data: 7658800
I0428 20:05:51.624574 30732 layer_factory.hpp:77] Creating layer ip3
I0428 20:05:51.624580 30732 net.cpp:86] Creating Layer ip3
I0428 20:05:51.624584 30732 net.cpp:408] ip3 <- ip2
I0428 20:05:51.624590 30732 net.cpp:382] ip3 -> ip3
I0428 20:05:51.624703 30732 net.cpp:124] Setting up ip3
I0428 20:05:51.624711 30732 net.cpp:131] Top shape: 100 10 (1000)
I0428 20:05:51.624716 30732 net.cpp:139] Memory required for data: 7662800
I0428 20:05:51.624725 30732 layer_factory.hpp:77] Creating layer relu3
I0428 20:05:51.624730 30732 net.cpp:86] Creating Layer relu3
I0428 20:05:51.624734 30732 net.cpp:408] relu3 <- ip3
I0428 20:05:51.624739 30732 net.cpp:369] relu3 -> ip3 (in-place)
I0428 20:05:51.625674 30732 net.cpp:124] Setting up relu3
I0428 20:05:51.625689 30732 net.cpp:131] Top shape: 100 10 (1000)
I0428 20:05:51.625694 30732 net.cpp:139] Memory required for data: 7666800
I0428 20:05:51.625697 30732 layer_factory.hpp:77] Creating layer ip3_relu3_0_split
I0428 20:05:51.625704 30732 net.cpp:86] Creating Layer ip3_relu3_0_split
I0428 20:05:51.625707 30732 net.cpp:408] ip3_relu3_0_split <- ip3
I0428 20:05:51.625715 30732 net.cpp:382] ip3_relu3_0_split -> ip3_relu3_0_split_0
I0428 20:05:51.625721 30732 net.cpp:382] ip3_relu3_0_split -> ip3_relu3_0_split_1
I0428 20:05:51.625764 30732 net.cpp:124] Setting up ip3_relu3_0_split
I0428 20:05:51.625771 30732 net.cpp:131] Top shape: 100 10 (1000)
I0428 20:05:51.625777 30732 net.cpp:131] Top shape: 100 10 (1000)
I0428 20:05:51.625780 30732 net.cpp:139] Memory required for data: 7674800
I0428 20:05:51.625784 30732 layer_factory.hpp:77] Creating layer accuracy
I0428 20:05:51.625790 30732 net.cpp:86] Creating Layer accuracy
I0428 20:05:51.625794 30732 net.cpp:408] accuracy <- ip3_relu3_0_split_0
I0428 20:05:51.625799 30732 net.cpp:408] accuracy <- label_mnist_1_split_0
I0428 20:05:51.625804 30732 net.cpp:382] accuracy -> accuracy
…
