…
I0428 19:33:39.651635 23150 net.cpp:296] The NetState phase (0) differed from the phase (1) specified by a rule in layer mnist
I0428 19:33:39.651653 23150 net.cpp:296] The NetState phase (0) differed from the phase (1) specified by a rule in layer accuracy
I0428 19:33:39.651741 23150 net.cpp:53] Initializing net from parameters: 
name: "LeNet"
state {
  phase: TRAIN
  level: 0
  stage: ""
}
layer {
  name: "mnist"
  type: "Data"
  top: "data"
  top: "label"
  include {
    phase: TRAIN
  }
  transform_param {
    scale: 0.00390625
  }
  data_param {
    source: "examples/mnist/mnist_train_lmdb"
    batch_size: 64
    backend: LMDB
  }
}
layer {
  name: "conv0"
  type: "Convolution"
  bottom: "data"
  top: "conv0"
  param {
    lr_mult: 1
  }
  param {
    lr_mult: 2
  }
  convolution_param {
    num_output: 25
    kernel_size: 5
    stride: 1
    weight_filler {
      type: "xavier"
    }
    bias_filler {
      type: "constant"
    }
  }
}
layer {
  name: "pool0"
  type: "Pooling"
  bottom: "conv0"
  top: "pool0"
  pooling_param {
    pool: MAX
    kernel_size: 2
    stride: 2
  }
}
layer {
  name: "ip1"
  type: "InnerProduct"
  bottom: "pool0"
  top: "ip1"
  param {
    lr_mult: 1
  }
  param {
    lr_mult: 2
  }
  inner_product_param {
    num_output: 25
    weight_filler {
      type: "xavier"
    }
    bias_filler {
      type: "constant"
    }
  }
}
layer {
  name: "relu1"
  type: "ReLU"
  bottom: "ip1"
  top: "ip1"
}
layer {
  name: "ip2"
  type: "InnerProduct"
  bottom: "ip1"
  top: "ip2"
  param {
    lr_mult: 1
  }
  param {
    lr_mult: 2
  }
  inner_product_param {
    num_output: 50
    weight_filler {
      type: "xavier"
    }
    bias_filler {
      type: "constant"
    }
  }
}
layer {
  name: "relu2"
  type: "ReLU"
  bottom: "ip2"
  top: "ip2"
}
layer {
  name: "ip3"
  type: "InnerProduct"
  bottom: "ip2"
  top: "ip3"
  param {
    lr_mult: 1
  }
  param {
    lr_mult: 2
  }
  inner_product_param {
    num_output: 10
    weight_filler {
      type: "xavier"
    }
    bias_filler {
      type: "constant"
    }
  }
}
layer {
  name: "relu3"
  type: "ReLU"
  bottom: "ip3"
  top: "ip3"
}
layer {
  name: "loss"
  type: "SoftmaxWithLoss"
  bottom: "ip3"
  bottom: "label"
  top: "loss"
}
I0428 19:33:39.651813 23150 layer_factory.hpp:77] Creating layer mnist
I0428 19:33:39.651913 23150 db_lmdb.cpp:35] Opened lmdb examples/mnist/mnist_train_lmdb
I0428 19:33:39.651939 23150 net.cpp:86] Creating Layer mnist
I0428 19:33:39.651949 23150 net.cpp:382] mnist -> data
I0428 19:33:39.651973 23150 net.cpp:382] mnist -> label
I0428 19:33:39.653097 23150 data_layer.cpp:45] output data size: 64,1,28,28
I0428 19:33:39.655573 23150 net.cpp:124] Setting up mnist
I0428 19:33:39.655592 23150 net.cpp:131] Top shape: 64 1 28 28 (50176)
I0428 19:33:39.655603 23150 net.cpp:131] Top shape: 64 (64)
I0428 19:33:39.655609 23150 net.cpp:139] Memory required for data: 200960
I0428 19:33:39.655618 23150 layer_factory.hpp:77] Creating layer conv0
I0428 19:33:39.655634 23150 net.cpp:86] Creating Layer conv0
I0428 19:33:39.655640 23150 net.cpp:408] conv0 <- data
I0428 19:33:39.655653 23150 net.cpp:382] conv0 -> conv0
I0428 19:33:39.941460 23150 net.cpp:124] Setting up conv0
I0428 19:33:39.941493 23150 net.cpp:131] Top shape: 64 25 24 24 (921600)
I0428 19:33:39.941498 23150 net.cpp:139] Memory required for data: 3887360
I0428 19:33:39.941515 23150 layer_factory.hpp:77] Creating layer pool0
I0428 19:33:39.941530 23150 net.cpp:86] Creating Layer pool0
I0428 19:33:39.941556 23150 net.cpp:408] pool0 <- conv0
I0428 19:33:39.941565 23150 net.cpp:382] pool0 -> pool0
I0428 19:33:39.941622 23150 net.cpp:124] Setting up pool0
I0428 19:33:39.941632 23150 net.cpp:131] Top shape: 64 25 12 12 (230400)
I0428 19:33:39.941635 23150 net.cpp:139] Memory required for data: 4808960
I0428 19:33:39.941639 23150 layer_factory.hpp:77] Creating layer ip1
I0428 19:33:39.941651 23150 net.cpp:86] Creating Layer ip1
I0428 19:33:39.941655 23150 net.cpp:408] ip1 <- pool0
I0428 19:33:39.941661 23150 net.cpp:382] ip1 -> ip1
I0428 19:33:39.943382 23150 net.cpp:124] Setting up ip1
I0428 19:33:39.943399 23150 net.cpp:131] Top shape: 64 25 (1600)
I0428 19:33:39.943403 23150 net.cpp:139] Memory required for data: 4815360
I0428 19:33:39.943413 23150 layer_factory.hpp:77] Creating layer relu1
I0428 19:33:39.943421 23150 net.cpp:86] Creating Layer relu1
I0428 19:33:39.943425 23150 net.cpp:408] relu1 <- ip1
I0428 19:33:39.943431 23150 net.cpp:369] relu1 -> ip1 (in-place)
I0428 19:33:39.943648 23150 net.cpp:124] Setting up relu1
I0428 19:33:39.943658 23150 net.cpp:131] Top shape: 64 25 (1600)
I0428 19:33:39.943662 23150 net.cpp:139] Memory required for data: 4821760
I0428 19:33:39.943666 23150 layer_factory.hpp:77] Creating layer ip2
I0428 19:33:39.943677 23150 net.cpp:86] Creating Layer ip2
I0428 19:33:39.943681 23150 net.cpp:408] ip2 <- ip1
I0428 19:33:39.943688 23150 net.cpp:382] ip2 -> ip2
I0428 19:33:39.944800 23150 net.cpp:124] Setting up ip2
I0428 19:33:39.944821 23150 net.cpp:131] Top shape: 64 50 (3200)
I0428 19:33:39.944825 23150 net.cpp:139] Memory required for data: 4834560
I0428 19:33:39.944836 23150 layer_factory.hpp:77] Creating layer relu2
I0428 19:33:39.944842 23150 net.cpp:86] Creating Layer relu2
I0428 19:33:39.944846 23150 net.cpp:408] relu2 <- ip2
I0428 19:33:39.944854 23150 net.cpp:369] relu2 -> ip2 (in-place)
I0428 19:33:39.945729 23150 net.cpp:124] Setting up relu2
I0428 19:33:39.945744 23150 net.cpp:131] Top shape: 64 50 (3200)
I0428 19:33:39.945749 23150 net.cpp:139] Memory required for data: 4847360
I0428 19:33:39.945752 23150 layer_factory.hpp:77] Creating layer ip3
I0428 19:33:39.945760 23150 net.cpp:86] Creating Layer ip3
I0428 19:33:39.945765 23150 net.cpp:408] ip3 <- ip2
I0428 19:33:39.945772 23150 net.cpp:382] ip3 -> ip3
I0428 19:33:39.945900 23150 net.cpp:124] Setting up ip3
I0428 19:33:39.945909 23150 net.cpp:131] Top shape: 64 10 (640)
I0428 19:33:39.945914 23150 net.cpp:139] Memory required for data: 4849920
I0428 19:33:39.945920 23150 layer_factory.hpp:77] Creating layer relu3
I0428 19:33:39.945927 23150 net.cpp:86] Creating Layer relu3
I0428 19:33:39.945930 23150 net.cpp:408] relu3 <- ip3
I0428 19:33:39.945937 23150 net.cpp:369] relu3 -> ip3 (in-place)
I0428 19:33:39.946137 23150 net.cpp:124] Setting up relu3
I0428 19:33:39.946148 23150 net.cpp:131] Top shape: 64 10 (640)
I0428 19:33:39.946151 23150 net.cpp:139] Memory required for data: 4852480
I0428 19:33:39.946156 23150 layer_factory.hpp:77] Creating layer loss
I0428 19:33:39.946166 23150 net.cpp:86] Creating Layer loss
I0428 19:33:39.946168 23150 net.cpp:408] loss <- ip3
I0428 19:33:39.946173 23150 net.cpp:408] loss <- label
I0428 19:33:39.946180 23150 net.cpp:382] loss -> loss
I0428 19:33:39.946199 23150 layer_factory.hpp:77] Creating layer loss
…
I0428 19:33:39.946918 23150 solver.cpp:173] Creating test net (#0) specified by net file: ECE595/mnist/train_test/var_everything2/lenet_train_test185.prototxt
I0428 19:33:39.946949 23150 net.cpp:296] The NetState phase (1) differed from the phase (0) specified by a rule in layer mnist
I0428 19:33:39.947044 23150 net.cpp:53] Initializing net from parameters: 
name: "LeNet"
state {
  phase: TEST
}
layer {
  name: "mnist"
  type: "Data"
  top: "data"
  top: "label"
  include {
    phase: TEST
  }
  transform_param {
    scale: 0.00390625
  }
  data_param {
    source: "examples/mnist/mnist_test_lmdb"
    batch_size: 100
    backend: LMDB
  }
}
layer {
  name: "conv0"
  type: "Convolution"
  bottom: "data"
  top: "conv0"
  param {
    lr_mult: 1
  }
  param {
    lr_mult: 2
  }
  convolution_param {
    num_output: 25
    kernel_size: 5
    stride: 1
    weight_filler {
      type: "xavier"
    }
    bias_filler {
      type: "constant"
    }
  }
}
layer {
  name: "pool0"
  type: "Pooling"
  bottom: "conv0"
  top: "pool0"
  pooling_param {
    pool: MAX
    kernel_size: 2
    stride: 2
  }
}
layer {
  name: "ip1"
  type: "InnerProduct"
  bottom: "pool0"
  top: "ip1"
  param {
    lr_mult: 1
  }
  param {
    lr_mult: 2
  }
  inner_product_param {
    num_output: 25
    weight_filler {
      type: "xavier"
    }
    bias_filler {
      type: "constant"
    }
  }
}
layer {
  name: "relu1"
  type: "ReLU"
  bottom: "ip1"
  top: "ip1"
}
layer {
  name: "ip2"
  type: "InnerProduct"
  bottom: "ip1"
  top: "ip2"
  param {
    lr_mult: 1
  }
  param {
    lr_mult: 2
  }
  inner_product_param {
    num_output: 50
    weight_filler {
      type: "xavier"
    }
    bias_filler {
      type: "constant"
    }
  }
}
layer {
  name: "relu2"
  type: "ReLU"
  bottom: "ip2"
  top: "ip2"
}
layer {
  name: "ip3"
  type: "InnerProduct"
  bottom: "ip2"
  top: "ip3"
  param {
    lr_mult: 1
  }
  param {
    lr_mult: 2
  }
  inner_product_param {
    num_output: 10
    weight_filler {
      type: "xavier"
    }
    bias_filler {
      type: "constant"
    }
  }
}
layer {
  name: "relu3"
  type: "ReLU"
  bottom: "ip3"
  top: "ip3"
}
layer {
  name: "accuracy"
  type: "Accuracy"
  bottom: "ip3"
  bottom: "label"
  top: "accuracy"
  include {
    phase: TEST
  }
}
layer {
  name: "loss"
  type: "SoftmaxWithLoss"
  bottom: "ip3"
  bottom: "label"
  top: "loss"
}
I0428 19:33:39.947131 23150 layer_factory.hpp:77] Creating layer mnist
I0428 19:33:39.947183 23150 db_lmdb.cpp:35] Opened lmdb examples/mnist/mnist_test_lmdb
I0428 19:33:39.947201 23150 net.cpp:86] Creating Layer mnist
I0428 19:33:39.947206 23150 net.cpp:382] mnist -> data
I0428 19:33:39.947216 23150 net.cpp:382] mnist -> label
I0428 19:33:39.947320 23150 data_layer.cpp:45] output data size: 100,1,28,28
I0428 19:33:39.948566 23150 net.cpp:124] Setting up mnist
I0428 19:33:39.948582 23150 net.cpp:131] Top shape: 100 1 28 28 (78400)
I0428 19:33:39.948588 23150 net.cpp:131] Top shape: 100 (100)
I0428 19:33:39.948591 23150 net.cpp:139] Memory required for data: 314000
I0428 19:33:39.948596 23150 layer_factory.hpp:77] Creating layer label_mnist_1_split
I0428 19:33:39.948612 23150 net.cpp:86] Creating Layer label_mnist_1_split
I0428 19:33:39.948616 23150 net.cpp:408] label_mnist_1_split <- label
I0428 19:33:39.948622 23150 net.cpp:382] label_mnist_1_split -> label_mnist_1_split_0
I0428 19:33:39.948632 23150 net.cpp:382] label_mnist_1_split -> label_mnist_1_split_1
I0428 19:33:39.948684 23150 net.cpp:124] Setting up label_mnist_1_split
I0428 19:33:39.948691 23150 net.cpp:131] Top shape: 100 (100)
I0428 19:33:39.948695 23150 net.cpp:131] Top shape: 100 (100)
I0428 19:33:39.948698 23150 net.cpp:139] Memory required for data: 314800
I0428 19:33:39.948714 23150 layer_factory.hpp:77] Creating layer conv0
I0428 19:33:39.948727 23150 net.cpp:86] Creating Layer conv0
I0428 19:33:39.948731 23150 net.cpp:408] conv0 <- data
I0428 19:33:39.948737 23150 net.cpp:382] conv0 -> conv0
I0428 19:33:39.950702 23150 net.cpp:124] Setting up conv0
I0428 19:33:39.950719 23150 net.cpp:131] Top shape: 100 25 24 24 (1440000)
I0428 19:33:39.950723 23150 net.cpp:139] Memory required for data: 6074800
I0428 19:33:39.950734 23150 layer_factory.hpp:77] Creating layer pool0
I0428 19:33:39.950743 23150 net.cpp:86] Creating Layer pool0
I0428 19:33:39.950749 23150 net.cpp:408] pool0 <- conv0
I0428 19:33:39.950757 23150 net.cpp:382] pool0 -> pool0
I0428 19:33:39.950798 23150 net.cpp:124] Setting up pool0
I0428 19:33:39.950805 23150 net.cpp:131] Top shape: 100 25 12 12 (360000)
I0428 19:33:39.950809 23150 net.cpp:139] Memory required for data: 7514800
I0428 19:33:39.950812 23150 layer_factory.hpp:77] Creating layer ip1
I0428 19:33:39.950821 23150 net.cpp:86] Creating Layer ip1
I0428 19:33:39.950824 23150 net.cpp:408] ip1 <- pool0
I0428 19:33:39.950830 23150 net.cpp:382] ip1 -> ip1
I0428 19:33:39.951550 23150 net.cpp:124] Setting up ip1
I0428 19:33:39.951560 23150 net.cpp:131] Top shape: 100 25 (2500)
I0428 19:33:39.951565 23150 net.cpp:139] Memory required for data: 7524800
I0428 19:33:39.951573 23150 layer_factory.hpp:77] Creating layer relu1
I0428 19:33:39.951581 23150 net.cpp:86] Creating Layer relu1
I0428 19:33:39.951584 23150 net.cpp:408] relu1 <- ip1
I0428 19:33:39.951589 23150 net.cpp:369] relu1 -> ip1 (in-place)
I0428 19:33:39.951797 23150 net.cpp:124] Setting up relu1
I0428 19:33:39.951808 23150 net.cpp:131] Top shape: 100 25 (2500)
I0428 19:33:39.951812 23150 net.cpp:139] Memory required for data: 7534800
I0428 19:33:39.951815 23150 layer_factory.hpp:77] Creating layer ip2
I0428 19:33:39.951824 23150 net.cpp:86] Creating Layer ip2
I0428 19:33:39.951828 23150 net.cpp:408] ip2 <- ip1
I0428 19:33:39.951835 23150 net.cpp:382] ip2 -> ip2
I0428 19:33:39.951984 23150 net.cpp:124] Setting up ip2
I0428 19:33:39.951993 23150 net.cpp:131] Top shape: 100 50 (5000)
I0428 19:33:39.951997 23150 net.cpp:139] Memory required for data: 7554800
I0428 19:33:39.952005 23150 layer_factory.hpp:77] Creating layer relu2
I0428 19:33:39.952011 23150 net.cpp:86] Creating Layer relu2
I0428 19:33:39.952015 23150 net.cpp:408] relu2 <- ip2
I0428 19:33:39.952023 23150 net.cpp:369] relu2 -> ip2 (in-place)
I0428 19:33:39.953016 23150 net.cpp:124] Setting up relu2
I0428 19:33:39.953032 23150 net.cpp:131] Top shape: 100 50 (5000)
I0428 19:33:39.953035 23150 net.cpp:139] Memory required for data: 7574800
I0428 19:33:39.953039 23150 layer_factory.hpp:77] Creating layer ip3
I0428 19:33:39.953050 23150 net.cpp:86] Creating Layer ip3
I0428 19:33:39.953055 23150 net.cpp:408] ip3 <- ip2
I0428 19:33:39.953063 23150 net.cpp:382] ip3 -> ip3
I0428 19:33:39.953194 23150 net.cpp:124] Setting up ip3
I0428 19:33:39.953204 23150 net.cpp:131] Top shape: 100 10 (1000)
I0428 19:33:39.953208 23150 net.cpp:139] Memory required for data: 7578800
I0428 19:33:39.953215 23150 layer_factory.hpp:77] Creating layer relu3
I0428 19:33:39.953222 23150 net.cpp:86] Creating Layer relu3
I0428 19:33:39.953227 23150 net.cpp:408] relu3 <- ip3
I0428 19:33:39.953233 23150 net.cpp:369] relu3 -> ip3 (in-place)
I0428 19:33:39.953423 23150 net.cpp:124] Setting up relu3
I0428 19:33:39.953433 23150 net.cpp:131] Top shape: 100 10 (1000)
I0428 19:33:39.953435 23150 net.cpp:139] Memory required for data: 7582800
I0428 19:33:39.953440 23150 layer_factory.hpp:77] Creating layer ip3_relu3_0_split
I0428 19:33:39.953447 23150 net.cpp:86] Creating Layer ip3_relu3_0_split
I0428 19:33:39.953451 23150 net.cpp:408] ip3_relu3_0_split <- ip3
I0428 19:33:39.953457 23150 net.cpp:382] ip3_relu3_0_split -> ip3_relu3_0_split_0
I0428 19:33:39.953464 23150 net.cpp:382] ip3_relu3_0_split -> ip3_relu3_0_split_1
I0428 19:33:39.953508 23150 net.cpp:124] Setting up ip3_relu3_0_split
I0428 19:33:39.953516 23150 net.cpp:131] Top shape: 100 10 (1000)
I0428 19:33:39.953521 23150 net.cpp:131] Top shape: 100 10 (1000)
I0428 19:33:39.953536 23150 net.cpp:139] Memory required for data: 7590800
I0428 19:33:39.953541 23150 layer_factory.hpp:77] Creating layer accuracy
I0428 19:33:39.953547 23150 net.cpp:86] Creating Layer accuracy
I0428 19:33:39.953552 23150 net.cpp:408] accuracy <- ip3_relu3_0_split_0
I0428 19:33:39.953565 23150 net.cpp:408] accuracy <- label_mnist_1_split_0
I0428 19:33:39.953572 23150 net.cpp:382] accuracy -> accuracy
…
