…
I0428 19:33:25.806536 23101 net.cpp:296] The NetState phase (0) differed from the phase (1) specified by a rule in layer mnist
I0428 19:33:25.806566 23101 net.cpp:296] The NetState phase (0) differed from the phase (1) specified by a rule in layer accuracy
I0428 19:33:25.806638 23101 net.cpp:53] Initializing net from parameters: 
name: "LeNet"
state {
  phase: TRAIN
  level: 0
  stage: ""
}
layer {
  name: "mnist"
  type: "Data"
  top: "data"
  top: "label"
  include {
    phase: TRAIN
  }
  transform_param {
    scale: 0.00390625
  }
  data_param {
    source: "examples/mnist/mnist_train_lmdb"
    batch_size: 64
    backend: LMDB
  }
}
layer {
  name: "conv0"
  type: "Convolution"
  bottom: "data"
  top: "conv0"
  param {
    lr_mult: 1
  }
  param {
    lr_mult: 2
  }
  convolution_param {
    num_output: 25
    kernel_size: 5
    stride: 1
    weight_filler {
      type: "xavier"
    }
    bias_filler {
      type: "constant"
    }
  }
}
layer {
  name: "pool0"
  type: "Pooling"
  bottom: "conv0"
  top: "pool0"
  pooling_param {
    pool: MAX
    kernel_size: 2
    stride: 2
  }
}
layer {
  name: "ip1"
  type: "InnerProduct"
  bottom: "pool0"
  top: "ip1"
  param {
    lr_mult: 1
  }
  param {
    lr_mult: 2
  }
  inner_product_param {
    num_output: 25
    weight_filler {
      type: "xavier"
    }
    bias_filler {
      type: "constant"
    }
  }
}
layer {
  name: "relu1"
  type: "ReLU"
  bottom: "ip1"
  top: "ip1"
}
layer {
  name: "ip2"
  type: "InnerProduct"
  bottom: "ip1"
  top: "ip2"
  param {
    lr_mult: 1
  }
  param {
    lr_mult: 2
  }
  inner_product_param {
    num_output: 10
    weight_filler {
      type: "xavier"
    }
    bias_filler {
      type: "constant"
    }
  }
}
layer {
  name: "relu2"
  type: "ReLU"
  bottom: "ip2"
  top: "ip2"
}
layer {
  name: "ip3"
  type: "InnerProduct"
  bottom: "ip2"
  top: "ip3"
  param {
    lr_mult: 1
  }
  param {
    lr_mult: 2
  }
  inner_product_param {
    num_output: 10
    weight_filler {
      type: "xavier"
    }
    bias_filler {
      type: "constant"
    }
  }
}
layer {
  name: "relu3"
  type: "ReLU"
  bottom: "ip3"
  top: "ip3"
}
layer {
  name: "loss"
  type: "SoftmaxWithLoss"
  bottom: "ip3"
  bottom: "label"
  top: "loss"
}
I0428 19:33:25.806699 23101 layer_factory.hpp:77] Creating layer mnist
I0428 19:33:25.806788 23101 db_lmdb.cpp:35] Opened lmdb examples/mnist/mnist_train_lmdb
I0428 19:33:25.806808 23101 net.cpp:86] Creating Layer mnist
I0428 19:33:25.806818 23101 net.cpp:382] mnist -> data
I0428 19:33:25.806835 23101 net.cpp:382] mnist -> label
I0428 19:33:25.807792 23101 data_layer.cpp:45] output data size: 64,1,28,28
I0428 19:33:25.810175 23101 net.cpp:124] Setting up mnist
I0428 19:33:25.810207 23101 net.cpp:131] Top shape: 64 1 28 28 (50176)
I0428 19:33:25.810212 23101 net.cpp:131] Top shape: 64 (64)
I0428 19:33:25.810215 23101 net.cpp:139] Memory required for data: 200960
I0428 19:33:25.810221 23101 layer_factory.hpp:77] Creating layer conv0
I0428 19:33:25.810235 23101 net.cpp:86] Creating Layer conv0
I0428 19:33:25.810242 23101 net.cpp:408] conv0 <- data
I0428 19:33:25.810253 23101 net.cpp:382] conv0 -> conv0
I0428 19:33:26.040076 23101 net.cpp:124] Setting up conv0
I0428 19:33:26.040101 23101 net.cpp:131] Top shape: 64 25 24 24 (921600)
I0428 19:33:26.040104 23101 net.cpp:139] Memory required for data: 3887360
I0428 19:33:26.040119 23101 layer_factory.hpp:77] Creating layer pool0
I0428 19:33:26.040130 23101 net.cpp:86] Creating Layer pool0
I0428 19:33:26.040151 23101 net.cpp:408] pool0 <- conv0
I0428 19:33:26.040158 23101 net.cpp:382] pool0 -> pool0
I0428 19:33:26.040215 23101 net.cpp:124] Setting up pool0
I0428 19:33:26.040221 23101 net.cpp:131] Top shape: 64 25 12 12 (230400)
I0428 19:33:26.040225 23101 net.cpp:139] Memory required for data: 4808960
I0428 19:33:26.040227 23101 layer_factory.hpp:77] Creating layer ip1
I0428 19:33:26.040235 23101 net.cpp:86] Creating Layer ip1
I0428 19:33:26.040237 23101 net.cpp:408] ip1 <- pool0
I0428 19:33:26.040242 23101 net.cpp:382] ip1 -> ip1
I0428 19:33:26.041806 23101 net.cpp:124] Setting up ip1
I0428 19:33:26.041818 23101 net.cpp:131] Top shape: 64 25 (1600)
I0428 19:33:26.041838 23101 net.cpp:139] Memory required for data: 4815360
I0428 19:33:26.041846 23101 layer_factory.hpp:77] Creating layer relu1
I0428 19:33:26.041853 23101 net.cpp:86] Creating Layer relu1
I0428 19:33:26.041857 23101 net.cpp:408] relu1 <- ip1
I0428 19:33:26.041860 23101 net.cpp:369] relu1 -> ip1 (in-place)
I0428 19:33:26.042047 23101 net.cpp:124] Setting up relu1
I0428 19:33:26.042055 23101 net.cpp:131] Top shape: 64 25 (1600)
I0428 19:33:26.042058 23101 net.cpp:139] Memory required for data: 4821760
I0428 19:33:26.042062 23101 layer_factory.hpp:77] Creating layer ip2
I0428 19:33:26.042068 23101 net.cpp:86] Creating Layer ip2
I0428 19:33:26.042073 23101 net.cpp:408] ip2 <- ip1
I0428 19:33:26.042093 23101 net.cpp:382] ip2 -> ip2
I0428 19:33:26.042201 23101 net.cpp:124] Setting up ip2
I0428 19:33:26.042209 23101 net.cpp:131] Top shape: 64 10 (640)
I0428 19:33:26.042212 23101 net.cpp:139] Memory required for data: 4824320
I0428 19:33:26.042219 23101 layer_factory.hpp:77] Creating layer relu2
I0428 19:33:26.042224 23101 net.cpp:86] Creating Layer relu2
I0428 19:33:26.042228 23101 net.cpp:408] relu2 <- ip2
I0428 19:33:26.042232 23101 net.cpp:369] relu2 -> ip2 (in-place)
I0428 19:33:26.042986 23101 net.cpp:124] Setting up relu2
I0428 19:33:26.043011 23101 net.cpp:131] Top shape: 64 10 (640)
I0428 19:33:26.043015 23101 net.cpp:139] Memory required for data: 4826880
I0428 19:33:26.043018 23101 layer_factory.hpp:77] Creating layer ip3
I0428 19:33:26.043040 23101 net.cpp:86] Creating Layer ip3
I0428 19:33:26.043043 23101 net.cpp:408] ip3 <- ip2
I0428 19:33:26.043048 23101 net.cpp:382] ip3 -> ip3
I0428 19:33:26.043138 23101 net.cpp:124] Setting up ip3
I0428 19:33:26.043144 23101 net.cpp:131] Top shape: 64 10 (640)
I0428 19:33:26.043148 23101 net.cpp:139] Memory required for data: 4829440
I0428 19:33:26.043153 23101 layer_factory.hpp:77] Creating layer relu3
I0428 19:33:26.043159 23101 net.cpp:86] Creating Layer relu3
I0428 19:33:26.043161 23101 net.cpp:408] relu3 <- ip3
I0428 19:33:26.043165 23101 net.cpp:369] relu3 -> ip3 (in-place)
I0428 19:33:26.043308 23101 net.cpp:124] Setting up relu3
I0428 19:33:26.043314 23101 net.cpp:131] Top shape: 64 10 (640)
I0428 19:33:26.043318 23101 net.cpp:139] Memory required for data: 4832000
I0428 19:33:26.043320 23101 layer_factory.hpp:77] Creating layer loss
I0428 19:33:26.043325 23101 net.cpp:86] Creating Layer loss
I0428 19:33:26.043329 23101 net.cpp:408] loss <- ip3
I0428 19:33:26.043332 23101 net.cpp:408] loss <- label
I0428 19:33:26.043337 23101 net.cpp:382] loss -> loss
I0428 19:33:26.043351 23101 layer_factory.hpp:77] Creating layer loss
…
I0428 19:33:26.043928 23101 solver.cpp:173] Creating test net (#0) specified by net file: ECE595/mnist/train_test/var_everything2/lenet_train_test179.prototxt
I0428 19:33:26.043954 23101 net.cpp:296] The NetState phase (1) differed from the phase (0) specified by a rule in layer mnist
I0428 19:33:26.044054 23101 net.cpp:53] Initializing net from parameters: 
name: "LeNet"
state {
  phase: TEST
}
layer {
  name: "mnist"
  type: "Data"
  top: "data"
  top: "label"
  include {
    phase: TEST
  }
  transform_param {
    scale: 0.00390625
  }
  data_param {
    source: "examples/mnist/mnist_test_lmdb"
    batch_size: 100
    backend: LMDB
  }
}
layer {
  name: "conv0"
  type: "Convolution"
  bottom: "data"
  top: "conv0"
  param {
    lr_mult: 1
  }
  param {
    lr_mult: 2
  }
  convolution_param {
    num_output: 25
    kernel_size: 5
    stride: 1
    weight_filler {
      type: "xavier"
    }
    bias_filler {
      type: "constant"
    }
  }
}
layer {
  name: "pool0"
  type: "Pooling"
  bottom: "conv0"
  top: "pool0"
  pooling_param {
    pool: MAX
    kernel_size: 2
    stride: 2
  }
}
layer {
  name: "ip1"
  type: "InnerProduct"
  bottom: "pool0"
  top: "ip1"
  param {
    lr_mult: 1
  }
  param {
    lr_mult: 2
  }
  inner_product_param {
    num_output: 25
    weight_filler {
      type: "xavier"
    }
    bias_filler {
      type: "constant"
    }
  }
}
layer {
  name: "relu1"
  type: "ReLU"
  bottom: "ip1"
  top: "ip1"
}
layer {
  name: "ip2"
  type: "InnerProduct"
  bottom: "ip1"
  top: "ip2"
  param {
    lr_mult: 1
  }
  param {
    lr_mult: 2
  }
  inner_product_param {
    num_output: 10
    weight_filler {
      type: "xavier"
    }
    bias_filler {
      type: "constant"
    }
  }
}
layer {
  name: "relu2"
  type: "ReLU"
  bottom: "ip2"
  top: "ip2"
}
layer {
  name: "ip3"
  type: "InnerProduct"
  bottom: "ip2"
  top: "ip3"
  param {
    lr_mult: 1
  }
  param {
    lr_mult: 2
  }
  inner_product_param {
    num_output: 10
    weight_filler {
      type: "xavier"
    }
    bias_filler {
      type: "constant"
    }
  }
}
layer {
  name: "relu3"
  type: "ReLU"
  bottom: "ip3"
  top: "ip3"
}
layer {
  name: "accuracy"
  type: "Accuracy"
  bottom: "ip3"
  bottom: "label"
  top: "accuracy"
  include {
    phase: TEST
  }
}
layer {
  name: "loss"
  type: "SoftmaxWithLoss"
  bottom: "ip3"
  bottom: "label"
  top: "loss"
}
I0428 19:33:26.044129 23101 layer_factory.hpp:77] Creating layer mnist
I0428 19:33:26.044173 23101 db_lmdb.cpp:35] Opened lmdb examples/mnist/mnist_test_lmdb
I0428 19:33:26.044185 23101 net.cpp:86] Creating Layer mnist
I0428 19:33:26.044189 23101 net.cpp:382] mnist -> data
I0428 19:33:26.044198 23101 net.cpp:382] mnist -> label
I0428 19:33:26.044277 23101 data_layer.cpp:45] output data size: 100,1,28,28
I0428 19:33:26.045377 23101 net.cpp:124] Setting up mnist
I0428 19:33:26.045404 23101 net.cpp:131] Top shape: 100 1 28 28 (78400)
I0428 19:33:26.045409 23101 net.cpp:131] Top shape: 100 (100)
I0428 19:33:26.045413 23101 net.cpp:139] Memory required for data: 314000
I0428 19:33:26.045416 23101 layer_factory.hpp:77] Creating layer label_mnist_1_split
I0428 19:33:26.045423 23101 net.cpp:86] Creating Layer label_mnist_1_split
I0428 19:33:26.045425 23101 net.cpp:408] label_mnist_1_split <- label
I0428 19:33:26.045430 23101 net.cpp:382] label_mnist_1_split -> label_mnist_1_split_0
I0428 19:33:26.045451 23101 net.cpp:382] label_mnist_1_split -> label_mnist_1_split_1
I0428 19:33:26.045523 23101 net.cpp:124] Setting up label_mnist_1_split
I0428 19:33:26.045529 23101 net.cpp:131] Top shape: 100 (100)
I0428 19:33:26.045532 23101 net.cpp:131] Top shape: 100 (100)
I0428 19:33:26.045536 23101 net.cpp:139] Memory required for data: 314800
I0428 19:33:26.045547 23101 layer_factory.hpp:77] Creating layer conv0
I0428 19:33:26.045572 23101 net.cpp:86] Creating Layer conv0
I0428 19:33:26.045575 23101 net.cpp:408] conv0 <- data
I0428 19:33:26.045580 23101 net.cpp:382] conv0 -> conv0
I0428 19:33:26.047241 23101 net.cpp:124] Setting up conv0
I0428 19:33:26.047255 23101 net.cpp:131] Top shape: 100 25 24 24 (1440000)
I0428 19:33:26.047260 23101 net.cpp:139] Memory required for data: 6074800
I0428 19:33:26.047268 23101 layer_factory.hpp:77] Creating layer pool0
I0428 19:33:26.047276 23101 net.cpp:86] Creating Layer pool0
I0428 19:33:26.047278 23101 net.cpp:408] pool0 <- conv0
I0428 19:33:26.047283 23101 net.cpp:382] pool0 -> pool0
I0428 19:33:26.047346 23101 net.cpp:124] Setting up pool0
I0428 19:33:26.047363 23101 net.cpp:131] Top shape: 100 25 12 12 (360000)
I0428 19:33:26.047365 23101 net.cpp:139] Memory required for data: 7514800
I0428 19:33:26.047368 23101 layer_factory.hpp:77] Creating layer ip1
I0428 19:33:26.047374 23101 net.cpp:86] Creating Layer ip1
I0428 19:33:26.047376 23101 net.cpp:408] ip1 <- pool0
I0428 19:33:26.047380 23101 net.cpp:382] ip1 -> ip1
I0428 19:33:26.047937 23101 net.cpp:124] Setting up ip1
I0428 19:33:26.047945 23101 net.cpp:131] Top shape: 100 25 (2500)
I0428 19:33:26.047950 23101 net.cpp:139] Memory required for data: 7524800
I0428 19:33:26.047956 23101 layer_factory.hpp:77] Creating layer relu1
I0428 19:33:26.047960 23101 net.cpp:86] Creating Layer relu1
I0428 19:33:26.047963 23101 net.cpp:408] relu1 <- ip1
I0428 19:33:26.047967 23101 net.cpp:369] relu1 -> ip1 (in-place)
I0428 19:33:26.048197 23101 net.cpp:124] Setting up relu1
I0428 19:33:26.048205 23101 net.cpp:131] Top shape: 100 25 (2500)
I0428 19:33:26.048208 23101 net.cpp:139] Memory required for data: 7534800
I0428 19:33:26.048212 23101 layer_factory.hpp:77] Creating layer ip2
I0428 19:33:26.048218 23101 net.cpp:86] Creating Layer ip2
I0428 19:33:26.048220 23101 net.cpp:408] ip2 <- ip1
I0428 19:33:26.048224 23101 net.cpp:382] ip2 -> ip2
I0428 19:33:26.048352 23101 net.cpp:124] Setting up ip2
I0428 19:33:26.048359 23101 net.cpp:131] Top shape: 100 10 (1000)
I0428 19:33:26.048362 23101 net.cpp:139] Memory required for data: 7538800
I0428 19:33:26.048368 23101 layer_factory.hpp:77] Creating layer relu2
I0428 19:33:26.048373 23101 net.cpp:86] Creating Layer relu2
I0428 19:33:26.048375 23101 net.cpp:408] relu2 <- ip2
I0428 19:33:26.048387 23101 net.cpp:369] relu2 -> ip2 (in-place)
I0428 19:33:26.049121 23101 net.cpp:124] Setting up relu2
I0428 19:33:26.049134 23101 net.cpp:131] Top shape: 100 10 (1000)
I0428 19:33:26.049139 23101 net.cpp:139] Memory required for data: 7542800
I0428 19:33:26.049141 23101 layer_factory.hpp:77] Creating layer ip3
I0428 19:33:26.049157 23101 net.cpp:86] Creating Layer ip3
I0428 19:33:26.049160 23101 net.cpp:408] ip3 <- ip2
I0428 19:33:26.049166 23101 net.cpp:382] ip3 -> ip3
I0428 19:33:26.049273 23101 net.cpp:124] Setting up ip3
I0428 19:33:26.049279 23101 net.cpp:131] Top shape: 100 10 (1000)
I0428 19:33:26.049283 23101 net.cpp:139] Memory required for data: 7546800
I0428 19:33:26.049288 23101 layer_factory.hpp:77] Creating layer relu3
I0428 19:33:26.049293 23101 net.cpp:86] Creating Layer relu3
I0428 19:33:26.049295 23101 net.cpp:408] relu3 <- ip3
I0428 19:33:26.049300 23101 net.cpp:369] relu3 -> ip3 (in-place)
I0428 19:33:26.049567 23101 net.cpp:124] Setting up relu3
I0428 19:33:26.049577 23101 net.cpp:131] Top shape: 100 10 (1000)
I0428 19:33:26.049581 23101 net.cpp:139] Memory required for data: 7550800
I0428 19:33:26.049583 23101 layer_factory.hpp:77] Creating layer ip3_relu3_0_split
I0428 19:33:26.049593 23101 net.cpp:86] Creating Layer ip3_relu3_0_split
I0428 19:33:26.049597 23101 net.cpp:408] ip3_relu3_0_split <- ip3
I0428 19:33:26.049607 23101 net.cpp:382] ip3_relu3_0_split -> ip3_relu3_0_split_0
I0428 19:33:26.049612 23101 net.cpp:382] ip3_relu3_0_split -> ip3_relu3_0_split_1
I0428 19:33:26.049643 23101 net.cpp:124] Setting up ip3_relu3_0_split
I0428 19:33:26.049648 23101 net.cpp:131] Top shape: 100 10 (1000)
I0428 19:33:26.049656 23101 net.cpp:131] Top shape: 100 10 (1000)
I0428 19:33:26.049669 23101 net.cpp:139] Memory required for data: 7558800
I0428 19:33:26.049671 23101 layer_factory.hpp:77] Creating layer accuracy
I0428 19:33:26.049675 23101 net.cpp:86] Creating Layer accuracy
I0428 19:33:26.049679 23101 net.cpp:408] accuracy <- ip3_relu3_0_split_0
I0428 19:33:26.049684 23101 net.cpp:408] accuracy <- label_mnist_1_split_0
I0428 19:33:26.049702 23101 net.cpp:382] accuracy -> accuracy
…
