…
I0428 19:32:01.532196 22732 net.cpp:296] The NetState phase (0) differed from the phase (1) specified by a rule in layer mnist
I0428 19:32:01.532213 22732 net.cpp:296] The NetState phase (0) differed from the phase (1) specified by a rule in layer accuracy
I0428 19:32:01.532289 22732 net.cpp:53] Initializing net from parameters: 
name: "LeNet"
state {
  phase: TRAIN
  level: 0
  stage: ""
}
layer {
  name: "mnist"
  type: "Data"
  top: "data"
  top: "label"
  include {
    phase: TRAIN
  }
  transform_param {
    scale: 0.00390625
  }
  data_param {
    source: "examples/mnist/mnist_train_lmdb"
    batch_size: 64
    backend: LMDB
  }
}
layer {
  name: "conv0"
  type: "Convolution"
  bottom: "data"
  top: "conv0"
  param {
    lr_mult: 1
  }
  param {
    lr_mult: 2
  }
  convolution_param {
    num_output: 10
    kernel_size: 5
    stride: 1
    weight_filler {
      type: "xavier"
    }
    bias_filler {
      type: "constant"
    }
  }
}
layer {
  name: "pool0"
  type: "Pooling"
  bottom: "conv0"
  top: "pool0"
  pooling_param {
    pool: MAX
    kernel_size: 2
    stride: 2
  }
}
layer {
  name: "ip1"
  type: "InnerProduct"
  bottom: "pool0"
  top: "ip1"
  param {
    lr_mult: 1
  }
  param {
    lr_mult: 2
  }
  inner_product_param {
    num_output: 25
    weight_filler {
      type: "xavier"
    }
    bias_filler {
      type: "constant"
    }
  }
}
layer {
  name: "relu1"
  type: "ReLU"
  bottom: "ip1"
  top: "ip1"
}
layer {
  name: "ip2"
  type: "InnerProduct"
  bottom: "ip1"
  top: "ip2"
  param {
    lr_mult: 1
  }
  param {
    lr_mult: 2
  }
  inner_product_param {
    num_output: 10
    weight_filler {
      type: "xavier"
    }
    bias_filler {
      type: "constant"
    }
  }
}
layer {
  name: "relu2"
  type: "ReLU"
  bottom: "ip2"
  top: "ip2"
}
layer {
  name: "ip3"
  type: "InnerProduct"
  bottom: "ip2"
  top: "ip3"
  param {
    lr_mult: 1
  }
  param {
    lr_mult: 2
  }
  inner_product_param {
    num_output: 10
    weight_filler {
      type: "xavier"
    }
    bias_filler {
      type: "constant"
    }
  }
}
layer {
  name: "relu3"
  type: "ReLU"
  bottom: "ip3"
  top: "ip3"
}
layer {
  name: "loss"
  type: "SoftmaxWithLoss"
  bottom: "ip3"
  bottom: "label"
  top: "loss"
}
I0428 19:32:01.532366 22732 layer_factory.hpp:77] Creating layer mnist
I0428 19:32:01.532502 22732 db_lmdb.cpp:35] Opened lmdb examples/mnist/mnist_train_lmdb
I0428 19:32:01.532532 22732 net.cpp:86] Creating Layer mnist
I0428 19:32:01.532541 22732 net.cpp:382] mnist -> data
I0428 19:32:01.532582 22732 net.cpp:382] mnist -> label
I0428 19:32:01.533732 22732 data_layer.cpp:45] output data size: 64,1,28,28
I0428 19:32:01.536123 22732 net.cpp:124] Setting up mnist
I0428 19:32:01.536157 22732 net.cpp:131] Top shape: 64 1 28 28 (50176)
I0428 19:32:01.536165 22732 net.cpp:131] Top shape: 64 (64)
I0428 19:32:01.536171 22732 net.cpp:139] Memory required for data: 200960
I0428 19:32:01.536180 22732 layer_factory.hpp:77] Creating layer conv0
I0428 19:32:01.536216 22732 net.cpp:86] Creating Layer conv0
I0428 19:32:01.536226 22732 net.cpp:408] conv0 <- data
I0428 19:32:01.536240 22732 net.cpp:382] conv0 -> conv0
I0428 19:32:01.765240 22732 net.cpp:124] Setting up conv0
I0428 19:32:01.765269 22732 net.cpp:131] Top shape: 64 10 24 24 (368640)
I0428 19:32:01.765275 22732 net.cpp:139] Memory required for data: 1675520
I0428 19:32:01.765310 22732 layer_factory.hpp:77] Creating layer pool0
I0428 19:32:01.765326 22732 net.cpp:86] Creating Layer pool0
I0428 19:32:01.765352 22732 net.cpp:408] pool0 <- conv0
I0428 19:32:01.765362 22732 net.cpp:382] pool0 -> pool0
I0428 19:32:01.765431 22732 net.cpp:124] Setting up pool0
I0428 19:32:01.765439 22732 net.cpp:131] Top shape: 64 10 12 12 (92160)
I0428 19:32:01.765444 22732 net.cpp:139] Memory required for data: 2044160
I0428 19:32:01.765450 22732 layer_factory.hpp:77] Creating layer ip1
I0428 19:32:01.765460 22732 net.cpp:86] Creating Layer ip1
I0428 19:32:01.765465 22732 net.cpp:408] ip1 <- pool0
I0428 19:32:01.765473 22732 net.cpp:382] ip1 -> ip1
I0428 19:32:01.765769 22732 net.cpp:124] Setting up ip1
I0428 19:32:01.765779 22732 net.cpp:131] Top shape: 64 25 (1600)
I0428 19:32:01.765782 22732 net.cpp:139] Memory required for data: 2050560
I0428 19:32:01.765794 22732 layer_factory.hpp:77] Creating layer relu1
I0428 19:32:01.765806 22732 net.cpp:86] Creating Layer relu1
I0428 19:32:01.765813 22732 net.cpp:408] relu1 <- ip1
I0428 19:32:01.765820 22732 net.cpp:369] relu1 -> ip1 (in-place)
I0428 19:32:01.765977 22732 net.cpp:124] Setting up relu1
I0428 19:32:01.765987 22732 net.cpp:131] Top shape: 64 25 (1600)
I0428 19:32:01.765991 22732 net.cpp:139] Memory required for data: 2056960
I0428 19:32:01.765996 22732 layer_factory.hpp:77] Creating layer ip2
I0428 19:32:01.766005 22732 net.cpp:86] Creating Layer ip2
I0428 19:32:01.766010 22732 net.cpp:408] ip2 <- ip1
I0428 19:32:01.766018 22732 net.cpp:382] ip2 -> ip2
I0428 19:32:01.766113 22732 net.cpp:124] Setting up ip2
I0428 19:32:01.766121 22732 net.cpp:131] Top shape: 64 10 (640)
I0428 19:32:01.766126 22732 net.cpp:139] Memory required for data: 2059520
I0428 19:32:01.766137 22732 layer_factory.hpp:77] Creating layer relu2
I0428 19:32:01.766145 22732 net.cpp:86] Creating Layer relu2
I0428 19:32:01.766151 22732 net.cpp:408] relu2 <- ip2
I0428 19:32:01.766157 22732 net.cpp:369] relu2 -> ip2 (in-place)
I0428 19:32:01.766955 22732 net.cpp:124] Setting up relu2
I0428 19:32:01.766984 22732 net.cpp:131] Top shape: 64 10 (640)
I0428 19:32:01.766989 22732 net.cpp:139] Memory required for data: 2062080
I0428 19:32:01.766995 22732 layer_factory.hpp:77] Creating layer ip3
I0428 19:32:01.767006 22732 net.cpp:86] Creating Layer ip3
I0428 19:32:01.767011 22732 net.cpp:408] ip3 <- ip2
I0428 19:32:01.767020 22732 net.cpp:382] ip3 -> ip3
I0428 19:32:01.767118 22732 net.cpp:124] Setting up ip3
I0428 19:32:01.767127 22732 net.cpp:131] Top shape: 64 10 (640)
I0428 19:32:01.767132 22732 net.cpp:139] Memory required for data: 2064640
I0428 19:32:01.767141 22732 layer_factory.hpp:77] Creating layer relu3
I0428 19:32:01.767151 22732 net.cpp:86] Creating Layer relu3
I0428 19:32:01.767158 22732 net.cpp:408] relu3 <- ip3
I0428 19:32:01.767164 22732 net.cpp:369] relu3 -> ip3 (in-place)
I0428 19:32:01.767334 22732 net.cpp:124] Setting up relu3
I0428 19:32:01.767344 22732 net.cpp:131] Top shape: 64 10 (640)
I0428 19:32:01.767349 22732 net.cpp:139] Memory required for data: 2067200
I0428 19:32:01.767354 22732 layer_factory.hpp:77] Creating layer loss
I0428 19:32:01.767376 22732 net.cpp:86] Creating Layer loss
I0428 19:32:01.767381 22732 net.cpp:408] loss <- ip3
I0428 19:32:01.767388 22732 net.cpp:408] loss <- label
I0428 19:32:01.767396 22732 net.cpp:382] loss -> loss
I0428 19:32:01.767418 22732 layer_factory.hpp:77] Creating layer loss
…
I0428 19:32:01.768096 22732 solver.cpp:173] Creating test net (#0) specified by net file: ECE595/mnist/train_test/var_everything2/lenet_train_test140.prototxt
I0428 19:32:01.768127 22732 net.cpp:296] The NetState phase (1) differed from the phase (0) specified by a rule in layer mnist
I0428 19:32:01.768206 22732 net.cpp:53] Initializing net from parameters: 
name: "LeNet"
state {
  phase: TEST
}
layer {
  name: "mnist"
  type: "Data"
  top: "data"
  top: "label"
  include {
    phase: TEST
  }
  transform_param {
    scale: 0.00390625
  }
  data_param {
    source: "examples/mnist/mnist_test_lmdb"
    batch_size: 100
    backend: LMDB
  }
}
layer {
  name: "conv0"
  type: "Convolution"
  bottom: "data"
  top: "conv0"
  param {
    lr_mult: 1
  }
  param {
    lr_mult: 2
  }
  convolution_param {
    num_output: 10
    kernel_size: 5
    stride: 1
    weight_filler {
      type: "xavier"
    }
    bias_filler {
      type: "constant"
    }
  }
}
layer {
  name: "pool0"
  type: "Pooling"
  bottom: "conv0"
  top: "pool0"
  pooling_param {
    pool: MAX
    kernel_size: 2
    stride: 2
  }
}
layer {
  name: "ip1"
  type: "InnerProduct"
  bottom: "pool0"
  top: "ip1"
  param {
    lr_mult: 1
  }
  param {
    lr_mult: 2
  }
  inner_product_param {
    num_output: 25
    weight_filler {
      type: "xavier"
    }
    bias_filler {
      type: "constant"
    }
  }
}
layer {
  name: "relu1"
  type: "ReLU"
  bottom: "ip1"
  top: "ip1"
}
layer {
  name: "ip2"
  type: "InnerProduct"
  bottom: "ip1"
  top: "ip2"
  param {
    lr_mult: 1
  }
  param {
    lr_mult: 2
  }
  inner_product_param {
    num_output: 10
    weight_filler {
      type: "xavier"
    }
    bias_filler {
      type: "constant"
    }
  }
}
layer {
  name: "relu2"
  type: "ReLU"
  bottom: "ip2"
  top: "ip2"
}
layer {
  name: "ip3"
  type: "InnerProduct"
  bottom: "ip2"
  top: "ip3"
  param {
    lr_mult: 1
  }
  param {
    lr_mult: 2
  }
  inner_product_param {
    num_output: 10
    weight_filler {
      type: "xavier"
    }
    bias_filler {
      type: "constant"
    }
  }
}
layer {
  name: "relu3"
  type: "ReLU"
  bottom: "ip3"
  top: "ip3"
}
layer {
  name: "accuracy"
  type: "Accuracy"
  bottom: "ip3"
  bottom: "label"
  top: "accuracy"
  include {
    phase: TEST
  }
}
layer {
  name: "loss"
  type: "SoftmaxWithLoss"
  bottom: "ip3"
  bottom: "label"
  top: "loss"
}
I0428 19:32:01.768304 22732 layer_factory.hpp:77] Creating layer mnist
I0428 19:32:01.768373 22732 db_lmdb.cpp:35] Opened lmdb examples/mnist/mnist_test_lmdb
I0428 19:32:01.768405 22732 net.cpp:86] Creating Layer mnist
I0428 19:32:01.768415 22732 net.cpp:382] mnist -> data
I0428 19:32:01.768426 22732 net.cpp:382] mnist -> label
I0428 19:32:01.768548 22732 data_layer.cpp:45] output data size: 100,1,28,28
I0428 19:32:01.770736 22732 net.cpp:124] Setting up mnist
I0428 19:32:01.770751 22732 net.cpp:131] Top shape: 100 1 28 28 (78400)
I0428 19:32:01.770773 22732 net.cpp:131] Top shape: 100 (100)
I0428 19:32:01.770779 22732 net.cpp:139] Memory required for data: 314000
I0428 19:32:01.770784 22732 layer_factory.hpp:77] Creating layer label_mnist_1_split
I0428 19:32:01.770802 22732 net.cpp:86] Creating Layer label_mnist_1_split
I0428 19:32:01.770812 22732 net.cpp:408] label_mnist_1_split <- label
I0428 19:32:01.770819 22732 net.cpp:382] label_mnist_1_split -> label_mnist_1_split_0
I0428 19:32:01.770830 22732 net.cpp:382] label_mnist_1_split -> label_mnist_1_split_1
I0428 19:32:01.770884 22732 net.cpp:124] Setting up label_mnist_1_split
I0428 19:32:01.770894 22732 net.cpp:131] Top shape: 100 (100)
I0428 19:32:01.770900 22732 net.cpp:131] Top shape: 100 (100)
I0428 19:32:01.770905 22732 net.cpp:139] Memory required for data: 314800
I0428 19:32:01.770920 22732 layer_factory.hpp:77] Creating layer conv0
I0428 19:32:01.770936 22732 net.cpp:86] Creating Layer conv0
I0428 19:32:01.770943 22732 net.cpp:408] conv0 <- data
I0428 19:32:01.770954 22732 net.cpp:382] conv0 -> conv0
I0428 19:32:01.772656 22732 net.cpp:124] Setting up conv0
I0428 19:32:01.772671 22732 net.cpp:131] Top shape: 100 10 24 24 (576000)
I0428 19:32:01.772677 22732 net.cpp:139] Memory required for data: 2618800
I0428 19:32:01.772693 22732 layer_factory.hpp:77] Creating layer pool0
I0428 19:32:01.772702 22732 net.cpp:86] Creating Layer pool0
I0428 19:32:01.772709 22732 net.cpp:408] pool0 <- conv0
I0428 19:32:01.772717 22732 net.cpp:382] pool0 -> pool0
I0428 19:32:01.772760 22732 net.cpp:124] Setting up pool0
I0428 19:32:01.772768 22732 net.cpp:131] Top shape: 100 10 12 12 (144000)
I0428 19:32:01.772773 22732 net.cpp:139] Memory required for data: 3194800
I0428 19:32:01.772778 22732 layer_factory.hpp:77] Creating layer ip1
I0428 19:32:01.772789 22732 net.cpp:86] Creating Layer ip1
I0428 19:32:01.772794 22732 net.cpp:408] ip1 <- pool0
I0428 19:32:01.772804 22732 net.cpp:382] ip1 -> ip1
I0428 19:32:01.773151 22732 net.cpp:124] Setting up ip1
I0428 19:32:01.773161 22732 net.cpp:131] Top shape: 100 25 (2500)
I0428 19:32:01.773166 22732 net.cpp:139] Memory required for data: 3204800
I0428 19:32:01.773178 22732 layer_factory.hpp:77] Creating layer relu1
I0428 19:32:01.773190 22732 net.cpp:86] Creating Layer relu1
I0428 19:32:01.773195 22732 net.cpp:408] relu1 <- ip1
I0428 19:32:01.773205 22732 net.cpp:369] relu1 -> ip1 (in-place)
I0428 19:32:01.773383 22732 net.cpp:124] Setting up relu1
I0428 19:32:01.773393 22732 net.cpp:131] Top shape: 100 25 (2500)
I0428 19:32:01.773399 22732 net.cpp:139] Memory required for data: 3214800
I0428 19:32:01.773404 22732 layer_factory.hpp:77] Creating layer ip2
I0428 19:32:01.773416 22732 net.cpp:86] Creating Layer ip2
I0428 19:32:01.773422 22732 net.cpp:408] ip2 <- ip1
I0428 19:32:01.773430 22732 net.cpp:382] ip2 -> ip2
I0428 19:32:01.773540 22732 net.cpp:124] Setting up ip2
I0428 19:32:01.773550 22732 net.cpp:131] Top shape: 100 10 (1000)
I0428 19:32:01.773553 22732 net.cpp:139] Memory required for data: 3218800
I0428 19:32:01.773567 22732 layer_factory.hpp:77] Creating layer relu2
I0428 19:32:01.773577 22732 net.cpp:86] Creating Layer relu2
I0428 19:32:01.773584 22732 net.cpp:408] relu2 <- ip2
I0428 19:32:01.773592 22732 net.cpp:369] relu2 -> ip2 (in-place)
I0428 19:32:01.774456 22732 net.cpp:124] Setting up relu2
I0428 19:32:01.774471 22732 net.cpp:131] Top shape: 100 10 (1000)
I0428 19:32:01.774477 22732 net.cpp:139] Memory required for data: 3222800
I0428 19:32:01.774482 22732 layer_factory.hpp:77] Creating layer ip3
I0428 19:32:01.774492 22732 net.cpp:86] Creating Layer ip3
I0428 19:32:01.774498 22732 net.cpp:408] ip3 <- ip2
I0428 19:32:01.774508 22732 net.cpp:382] ip3 -> ip3
I0428 19:32:01.774659 22732 net.cpp:124] Setting up ip3
I0428 19:32:01.774668 22732 net.cpp:131] Top shape: 100 10 (1000)
I0428 19:32:01.774673 22732 net.cpp:139] Memory required for data: 3226800
I0428 19:32:01.774682 22732 layer_factory.hpp:77] Creating layer relu3
I0428 19:32:01.774691 22732 net.cpp:86] Creating Layer relu3
I0428 19:32:01.774696 22732 net.cpp:408] relu3 <- ip3
I0428 19:32:01.774705 22732 net.cpp:369] relu3 -> ip3 (in-place)
I0428 19:32:01.774924 22732 net.cpp:124] Setting up relu3
I0428 19:32:01.774935 22732 net.cpp:131] Top shape: 100 10 (1000)
I0428 19:32:01.774941 22732 net.cpp:139] Memory required for data: 3230800
I0428 19:32:01.774946 22732 layer_factory.hpp:77] Creating layer ip3_relu3_0_split
I0428 19:32:01.774958 22732 net.cpp:86] Creating Layer ip3_relu3_0_split
I0428 19:32:01.774965 22732 net.cpp:408] ip3_relu3_0_split <- ip3
I0428 19:32:01.774974 22732 net.cpp:382] ip3_relu3_0_split -> ip3_relu3_0_split_0
I0428 19:32:01.774988 22732 net.cpp:382] ip3_relu3_0_split -> ip3_relu3_0_split_1
I0428 19:32:01.775033 22732 net.cpp:124] Setting up ip3_relu3_0_split
I0428 19:32:01.775043 22732 net.cpp:131] Top shape: 100 10 (1000)
I0428 19:32:01.775050 22732 net.cpp:131] Top shape: 100 10 (1000)
I0428 19:32:01.775068 22732 net.cpp:139] Memory required for data: 3238800
I0428 19:32:01.775074 22732 layer_factory.hpp:77] Creating layer accuracy
I0428 19:32:01.775082 22732 net.cpp:86] Creating Layer accuracy
I0428 19:32:01.775089 22732 net.cpp:408] accuracy <- ip3_relu3_0_split_0
I0428 19:32:01.775110 22732 net.cpp:408] accuracy <- label_mnist_1_split_0
I0428 19:32:01.775117 22732 net.cpp:382] accuracy -> accuracy
…
