…
I0428 19:49:00.080569 26645 net.cpp:296] The NetState phase (0) differed from the phase (1) specified by a rule in layer mnist
I0428 19:49:00.080600 26645 net.cpp:296] The NetState phase (0) differed from the phase (1) specified by a rule in layer accuracy
I0428 19:49:00.080705 26645 net.cpp:53] Initializing net from parameters: 
name: "LeNet"
state {
  phase: TRAIN
  level: 0
  stage: ""
}
layer {
  name: "mnist"
  type: "Data"
  top: "data"
  top: "label"
  include {
    phase: TRAIN
  }
  transform_param {
    scale: 0.00390625
  }
  data_param {
    source: "examples/mnist/mnist_train_lmdb"
    batch_size: 64
    backend: LMDB
  }
}
layer {
  name: "conv0"
  type: "Convolution"
  bottom: "data"
  top: "conv0"
  param {
    lr_mult: 1
  }
  param {
    lr_mult: 2
  }
  convolution_param {
    num_output: 5
    kernel_size: 5
    stride: 1
    weight_filler {
      type: "xavier"
    }
    bias_filler {
      type: "constant"
    }
  }
}
layer {
  name: "pool0"
  type: "Pooling"
  bottom: "conv0"
  top: "pool0"
  pooling_param {
    pool: MAX
    kernel_size: 2
    stride: 2
  }
}
layer {
  name: "conv1"
  type: "Convolution"
  bottom: "pool0"
  top: "conv1"
  param {
    lr_mult: 1
  }
  param {
    lr_mult: 2
  }
  convolution_param {
    num_output: 5
    kernel_size: 5
    stride: 1
    weight_filler {
      type: "xavier"
    }
    bias_filler {
      type: "constant"
    }
  }
}
layer {
  name: "pool1"
  type: "Pooling"
  bottom: "conv1"
  top: "pool1"
  pooling_param {
    pool: MAX
    kernel_size: 2
    stride: 2
  }
}
layer {
  name: "ip1"
  type: "InnerProduct"
  bottom: "pool1"
  top: "ip1"
  param {
    lr_mult: 1
  }
  param {
    lr_mult: 2
  }
  inner_product_param {
    num_output: 10
    weight_filler {
      type: "xavier"
    }
    bias_filler {
      type: "constant"
    }
  }
}
layer {
  name: "relu1"
  type: "ReLU"
  bottom: "ip1"
  top: "ip1"
}
layer {
  name: "ip2"
  type: "InnerProduct"
  bottom: "ip1"
  top: "ip2"
  param {
    lr_mult: 1
  }
  param {
    lr_mult: 2
  }
  inner_product_param {
    num_output: 25
    weight_filler {
      type: "xavier"
    }
    bias_filler {
      type: "constant"
    }
  }
}
layer {
  name: "relu2"
  type: "ReLU"
  bottom: "ip2"
  top: "ip2"
}
layer {
  name: "ip3"
  type: "InnerProduct"
  bottom: "ip2"
  top: "ip3"
  param {
    lr_mult: 1
  }
  param {
    lr_mult: 2
  }
  inner_product_param {
    num_output: 10
    weight_filler {
      type: "xavier"
    }
    bias_filler {
      type: "constant"
    }
  }
}
layer {
  name: "relu3"
  type: "ReLU"
  bottom: "ip3"
  top: "ip3"
}
layer {
  name: "loss"
  type: "SoftmaxWithLoss"
  bottom: "ip3"
  bottom: "label"
  top: "loss"
}
I0428 19:49:00.080767 26645 layer_factory.hpp:77] Creating layer mnist
I0428 19:49:00.080886 26645 db_lmdb.cpp:35] Opened lmdb examples/mnist/mnist_train_lmdb
I0428 19:49:00.080906 26645 net.cpp:86] Creating Layer mnist
I0428 19:49:00.080914 26645 net.cpp:382] mnist -> data
I0428 19:49:00.080932 26645 net.cpp:382] mnist -> label
I0428 19:49:00.081965 26645 data_layer.cpp:45] output data size: 64,1,28,28
I0428 19:49:00.084194 26645 net.cpp:124] Setting up mnist
I0428 19:49:00.084224 26645 net.cpp:131] Top shape: 64 1 28 28 (50176)
I0428 19:49:00.084229 26645 net.cpp:131] Top shape: 64 (64)
I0428 19:49:00.084233 26645 net.cpp:139] Memory required for data: 200960
I0428 19:49:00.084239 26645 layer_factory.hpp:77] Creating layer conv0
I0428 19:49:00.084265 26645 net.cpp:86] Creating Layer conv0
I0428 19:49:00.084283 26645 net.cpp:408] conv0 <- data
I0428 19:49:00.084293 26645 net.cpp:382] conv0 -> conv0
I0428 19:49:00.318313 26645 net.cpp:124] Setting up conv0
I0428 19:49:00.318339 26645 net.cpp:131] Top shape: 64 5 24 24 (184320)
I0428 19:49:00.318343 26645 net.cpp:139] Memory required for data: 938240
I0428 19:49:00.318357 26645 layer_factory.hpp:77] Creating layer pool0
I0428 19:49:00.318387 26645 net.cpp:86] Creating Layer pool0
I0428 19:49:00.318392 26645 net.cpp:408] pool0 <- conv0
I0428 19:49:00.318397 26645 net.cpp:382] pool0 -> pool0
I0428 19:49:00.318440 26645 net.cpp:124] Setting up pool0
I0428 19:49:00.318449 26645 net.cpp:131] Top shape: 64 5 12 12 (46080)
I0428 19:49:00.318452 26645 net.cpp:139] Memory required for data: 1122560
I0428 19:49:00.318455 26645 layer_factory.hpp:77] Creating layer conv1
I0428 19:49:00.318465 26645 net.cpp:86] Creating Layer conv1
I0428 19:49:00.318469 26645 net.cpp:408] conv1 <- pool0
I0428 19:49:00.318473 26645 net.cpp:382] conv1 -> conv1
I0428 19:49:00.320493 26645 net.cpp:124] Setting up conv1
I0428 19:49:00.320508 26645 net.cpp:131] Top shape: 64 5 8 8 (20480)
I0428 19:49:00.320513 26645 net.cpp:139] Memory required for data: 1204480
I0428 19:49:00.320536 26645 layer_factory.hpp:77] Creating layer pool1
I0428 19:49:00.320544 26645 net.cpp:86] Creating Layer pool1
I0428 19:49:00.320549 26645 net.cpp:408] pool1 <- conv1
I0428 19:49:00.320554 26645 net.cpp:382] pool1 -> pool1
I0428 19:49:00.320590 26645 net.cpp:124] Setting up pool1
I0428 19:49:00.320597 26645 net.cpp:131] Top shape: 64 5 4 4 (5120)
I0428 19:49:00.320600 26645 net.cpp:139] Memory required for data: 1224960
I0428 19:49:00.320603 26645 layer_factory.hpp:77] Creating layer ip1
I0428 19:49:00.320611 26645 net.cpp:86] Creating Layer ip1
I0428 19:49:00.320613 26645 net.cpp:408] ip1 <- pool1
I0428 19:49:00.320618 26645 net.cpp:382] ip1 -> ip1
I0428 19:49:00.320719 26645 net.cpp:124] Setting up ip1
I0428 19:49:00.320725 26645 net.cpp:131] Top shape: 64 10 (640)
I0428 19:49:00.320729 26645 net.cpp:139] Memory required for data: 1227520
I0428 19:49:00.320736 26645 layer_factory.hpp:77] Creating layer relu1
I0428 19:49:00.320741 26645 net.cpp:86] Creating Layer relu1
I0428 19:49:00.320745 26645 net.cpp:408] relu1 <- ip1
I0428 19:49:00.320749 26645 net.cpp:369] relu1 -> ip1 (in-place)
I0428 19:49:00.320938 26645 net.cpp:124] Setting up relu1
I0428 19:49:00.320948 26645 net.cpp:131] Top shape: 64 10 (640)
I0428 19:49:00.320951 26645 net.cpp:139] Memory required for data: 1230080
I0428 19:49:00.320955 26645 layer_factory.hpp:77] Creating layer ip2
I0428 19:49:00.320961 26645 net.cpp:86] Creating Layer ip2
I0428 19:49:00.320964 26645 net.cpp:408] ip2 <- ip1
I0428 19:49:00.320971 26645 net.cpp:382] ip2 -> ip2
I0428 19:49:00.321064 26645 net.cpp:124] Setting up ip2
I0428 19:49:00.321071 26645 net.cpp:131] Top shape: 64 25 (1600)
I0428 19:49:00.321075 26645 net.cpp:139] Memory required for data: 1236480
I0428 19:49:00.321080 26645 layer_factory.hpp:77] Creating layer relu2
I0428 19:49:00.321087 26645 net.cpp:86] Creating Layer relu2
I0428 19:49:00.321090 26645 net.cpp:408] relu2 <- ip2
I0428 19:49:00.321094 26645 net.cpp:369] relu2 -> ip2 (in-place)
I0428 19:49:00.321857 26645 net.cpp:124] Setting up relu2
I0428 19:49:00.321871 26645 net.cpp:131] Top shape: 64 25 (1600)
I0428 19:49:00.321874 26645 net.cpp:139] Memory required for data: 1242880
I0428 19:49:00.321878 26645 layer_factory.hpp:77] Creating layer ip3
I0428 19:49:00.321885 26645 net.cpp:86] Creating Layer ip3
I0428 19:49:00.321903 26645 net.cpp:408] ip3 <- ip2
I0428 19:49:00.321909 26645 net.cpp:382] ip3 -> ip3
I0428 19:49:00.322001 26645 net.cpp:124] Setting up ip3
I0428 19:49:00.322010 26645 net.cpp:131] Top shape: 64 10 (640)
I0428 19:49:00.322012 26645 net.cpp:139] Memory required for data: 1245440
I0428 19:49:00.322019 26645 layer_factory.hpp:77] Creating layer relu3
I0428 19:49:00.322039 26645 net.cpp:86] Creating Layer relu3
I0428 19:49:00.322043 26645 net.cpp:408] relu3 <- ip3
I0428 19:49:00.322047 26645 net.cpp:369] relu3 -> ip3 (in-place)
I0428 19:49:00.322244 26645 net.cpp:124] Setting up relu3
I0428 19:49:00.322253 26645 net.cpp:131] Top shape: 64 10 (640)
I0428 19:49:00.322257 26645 net.cpp:139] Memory required for data: 1248000
I0428 19:49:00.322260 26645 layer_factory.hpp:77] Creating layer loss
I0428 19:49:00.322266 26645 net.cpp:86] Creating Layer loss
I0428 19:49:00.322269 26645 net.cpp:408] loss <- ip3
I0428 19:49:00.322274 26645 net.cpp:408] loss <- label
I0428 19:49:00.322279 26645 net.cpp:382] loss -> loss
I0428 19:49:00.322298 26645 layer_factory.hpp:77] Creating layer loss
…
I0428 19:49:00.322942 26645 solver.cpp:173] Creating test net (#0) specified by net file: ECE595/mnist/train_test/var_everything2/lenet_train_test561.prototxt
I0428 19:49:00.322970 26645 net.cpp:296] The NetState phase (1) differed from the phase (0) specified by a rule in layer mnist
I0428 19:49:00.323063 26645 net.cpp:53] Initializing net from parameters: 
name: "LeNet"
state {
  phase: TEST
}
layer {
  name: "mnist"
  type: "Data"
  top: "data"
  top: "label"
  include {
    phase: TEST
  }
  transform_param {
    scale: 0.00390625
  }
  data_param {
    source: "examples/mnist/mnist_test_lmdb"
    batch_size: 100
    backend: LMDB
  }
}
layer {
  name: "conv0"
  type: "Convolution"
  bottom: "data"
  top: "conv0"
  param {
    lr_mult: 1
  }
  param {
    lr_mult: 2
  }
  convolution_param {
    num_output: 5
    kernel_size: 5
    stride: 1
    weight_filler {
      type: "xavier"
    }
    bias_filler {
      type: "constant"
    }
  }
}
layer {
  name: "pool0"
  type: "Pooling"
  bottom: "conv0"
  top: "pool0"
  pooling_param {
    pool: MAX
    kernel_size: 2
    stride: 2
  }
}
layer {
  name: "conv1"
  type: "Convolution"
  bottom: "pool0"
  top: "conv1"
  param {
    lr_mult: 1
  }
  param {
    lr_mult: 2
  }
  convolution_param {
    num_output: 5
    kernel_size: 5
    stride: 1
    weight_filler {
      type: "xavier"
    }
    bias_filler {
      type: "constant"
    }
  }
}
layer {
  name: "pool1"
  type: "Pooling"
  bottom: "conv1"
  top: "pool1"
  pooling_param {
    pool: MAX
    kernel_size: 2
    stride: 2
  }
}
layer {
  name: "ip1"
  type: "InnerProduct"
  bottom: "pool1"
  top: "ip1"
  param {
    lr_mult: 1
  }
  param {
    lr_mult: 2
  }
  inner_product_param {
    num_output: 10
    weight_filler {
      type: "xavier"
    }
    bias_filler {
      type: "constant"
    }
  }
}
layer {
  name: "relu1"
  type: "ReLU"
  bottom: "ip1"
  top: "ip1"
}
layer {
  name: "ip2"
  type: "InnerProduct"
  bottom: "ip1"
  top: "ip2"
  param {
    lr_mult: 1
  }
  param {
    lr_mult: 2
  }
  inner_product_param {
    num_output: 25
    weight_filler {
      type: "xavier"
    }
    bias_filler {
      type: "constant"
    }
  }
}
layer {
  name: "relu2"
  type: "ReLU"
  bottom: "ip2"
  top: "ip2"
}
layer {
  name: "ip3"
  type: "InnerProduct"
  bottom: "ip2"
  top: "ip3"
  param {
    lr_mult: 1
  }
  param {
    lr_mult: 2
  }
  inner_product_param {
    num_output: 10
    weight_filler {
      type: "xavier"
    }
    bias_filler {
      type: "constant"
    }
  }
}
layer {
  name: "relu3"
  type: "ReLU"
  bottom: "ip3"
  top: "ip3"
}
layer {
  name: "accuracy"
  type: "Accuracy"
  bottom: "ip3"
  bottom: "label"
  top: "accuracy"
  include {
    phase: TEST
  }
}
layer {
  name: "loss"
  type: "SoftmaxWithLoss"
  bottom: "ip3"
  bottom: "label"
  top: "loss"
}
I0428 19:49:00.323158 26645 layer_factory.hpp:77] Creating layer mnist
I0428 19:49:00.323204 26645 db_lmdb.cpp:35] Opened lmdb examples/mnist/mnist_test_lmdb
I0428 19:49:00.323230 26645 net.cpp:86] Creating Layer mnist
I0428 19:49:00.323235 26645 net.cpp:382] mnist -> data
I0428 19:49:00.323243 26645 net.cpp:382] mnist -> label
I0428 19:49:00.323325 26645 data_layer.cpp:45] output data size: 100,1,28,28
I0428 19:49:00.325642 26645 net.cpp:124] Setting up mnist
I0428 19:49:00.325673 26645 net.cpp:131] Top shape: 100 1 28 28 (78400)
I0428 19:49:00.325680 26645 net.cpp:131] Top shape: 100 (100)
I0428 19:49:00.325683 26645 net.cpp:139] Memory required for data: 314000
I0428 19:49:00.325687 26645 layer_factory.hpp:77] Creating layer label_mnist_1_split
I0428 19:49:00.325700 26645 net.cpp:86] Creating Layer label_mnist_1_split
I0428 19:49:00.325705 26645 net.cpp:408] label_mnist_1_split <- label
I0428 19:49:00.325709 26645 net.cpp:382] label_mnist_1_split -> label_mnist_1_split_0
I0428 19:49:00.325731 26645 net.cpp:382] label_mnist_1_split -> label_mnist_1_split_1
I0428 19:49:00.325855 26645 net.cpp:124] Setting up label_mnist_1_split
I0428 19:49:00.325861 26645 net.cpp:131] Top shape: 100 (100)
I0428 19:49:00.325865 26645 net.cpp:131] Top shape: 100 (100)
I0428 19:49:00.325868 26645 net.cpp:139] Memory required for data: 314800
I0428 19:49:00.325871 26645 layer_factory.hpp:77] Creating layer conv0
I0428 19:49:00.325881 26645 net.cpp:86] Creating Layer conv0
I0428 19:49:00.325883 26645 net.cpp:408] conv0 <- data
I0428 19:49:00.325888 26645 net.cpp:382] conv0 -> conv0
I0428 19:49:00.327589 26645 net.cpp:124] Setting up conv0
I0428 19:49:00.327633 26645 net.cpp:131] Top shape: 100 5 24 24 (288000)
I0428 19:49:00.327637 26645 net.cpp:139] Memory required for data: 1466800
I0428 19:49:00.327646 26645 layer_factory.hpp:77] Creating layer pool0
I0428 19:49:00.327653 26645 net.cpp:86] Creating Layer pool0
I0428 19:49:00.327656 26645 net.cpp:408] pool0 <- conv0
I0428 19:49:00.327661 26645 net.cpp:382] pool0 -> pool0
I0428 19:49:00.327697 26645 net.cpp:124] Setting up pool0
I0428 19:49:00.327702 26645 net.cpp:131] Top shape: 100 5 12 12 (72000)
I0428 19:49:00.327705 26645 net.cpp:139] Memory required for data: 1754800
I0428 19:49:00.327708 26645 layer_factory.hpp:77] Creating layer conv1
I0428 19:49:00.327718 26645 net.cpp:86] Creating Layer conv1
I0428 19:49:00.327720 26645 net.cpp:408] conv1 <- pool0
I0428 19:49:00.327725 26645 net.cpp:382] conv1 -> conv1
I0428 19:49:00.329933 26645 net.cpp:124] Setting up conv1
I0428 19:49:00.329963 26645 net.cpp:131] Top shape: 100 5 8 8 (32000)
I0428 19:49:00.329968 26645 net.cpp:139] Memory required for data: 1882800
I0428 19:49:00.329993 26645 layer_factory.hpp:77] Creating layer pool1
I0428 19:49:00.329998 26645 net.cpp:86] Creating Layer pool1
I0428 19:49:00.330003 26645 net.cpp:408] pool1 <- conv1
I0428 19:49:00.330008 26645 net.cpp:382] pool1 -> pool1
I0428 19:49:00.330065 26645 net.cpp:124] Setting up pool1
I0428 19:49:00.330070 26645 net.cpp:131] Top shape: 100 5 4 4 (8000)
I0428 19:49:00.330073 26645 net.cpp:139] Memory required for data: 1914800
I0428 19:49:00.330076 26645 layer_factory.hpp:77] Creating layer ip1
I0428 19:49:00.330082 26645 net.cpp:86] Creating Layer ip1
I0428 19:49:00.330085 26645 net.cpp:408] ip1 <- pool1
I0428 19:49:00.330090 26645 net.cpp:382] ip1 -> ip1
I0428 19:49:00.330238 26645 net.cpp:124] Setting up ip1
I0428 19:49:00.330247 26645 net.cpp:131] Top shape: 100 10 (1000)
I0428 19:49:00.330263 26645 net.cpp:139] Memory required for data: 1918800
I0428 19:49:00.330271 26645 layer_factory.hpp:77] Creating layer relu1
I0428 19:49:00.330276 26645 net.cpp:86] Creating Layer relu1
I0428 19:49:00.330281 26645 net.cpp:408] relu1 <- ip1
I0428 19:49:00.330284 26645 net.cpp:369] relu1 -> ip1 (in-place)
I0428 19:49:00.330492 26645 net.cpp:124] Setting up relu1
I0428 19:49:00.330502 26645 net.cpp:131] Top shape: 100 10 (1000)
I0428 19:49:00.330505 26645 net.cpp:139] Memory required for data: 1922800
I0428 19:49:00.330508 26645 layer_factory.hpp:77] Creating layer ip2
I0428 19:49:00.330515 26645 net.cpp:86] Creating Layer ip2
I0428 19:49:00.330530 26645 net.cpp:408] ip2 <- ip1
I0428 19:49:00.330536 26645 net.cpp:382] ip2 -> ip2
I0428 19:49:00.330633 26645 net.cpp:124] Setting up ip2
I0428 19:49:00.330641 26645 net.cpp:131] Top shape: 100 25 (2500)
I0428 19:49:00.330643 26645 net.cpp:139] Memory required for data: 1932800
I0428 19:49:00.330649 26645 layer_factory.hpp:77] Creating layer relu2
I0428 19:49:00.330654 26645 net.cpp:86] Creating Layer relu2
I0428 19:49:00.330657 26645 net.cpp:408] relu2 <- ip2
I0428 19:49:00.330662 26645 net.cpp:369] relu2 -> ip2 (in-place)
I0428 19:49:00.330811 26645 net.cpp:124] Setting up relu2
I0428 19:49:00.330819 26645 net.cpp:131] Top shape: 100 25 (2500)
I0428 19:49:00.330823 26645 net.cpp:139] Memory required for data: 1942800
I0428 19:49:00.330827 26645 layer_factory.hpp:77] Creating layer ip3
I0428 19:49:00.330832 26645 net.cpp:86] Creating Layer ip3
I0428 19:49:00.330837 26645 net.cpp:408] ip3 <- ip2
I0428 19:49:00.330840 26645 net.cpp:382] ip3 -> ip3
I0428 19:49:00.330962 26645 net.cpp:124] Setting up ip3
I0428 19:49:00.330970 26645 net.cpp:131] Top shape: 100 10 (1000)
I0428 19:49:00.330973 26645 net.cpp:139] Memory required for data: 1946800
I0428 19:49:00.330981 26645 layer_factory.hpp:77] Creating layer relu3
I0428 19:49:00.330986 26645 net.cpp:86] Creating Layer relu3
I0428 19:49:00.330988 26645 net.cpp:408] relu3 <- ip3
I0428 19:49:00.330992 26645 net.cpp:369] relu3 -> ip3 (in-place)
I0428 19:49:00.331923 26645 net.cpp:124] Setting up relu3
I0428 19:49:00.331936 26645 net.cpp:131] Top shape: 100 10 (1000)
I0428 19:49:00.331956 26645 net.cpp:139] Memory required for data: 1950800
I0428 19:49:00.331959 26645 layer_factory.hpp:77] Creating layer ip3_relu3_0_split
I0428 19:49:00.331965 26645 net.cpp:86] Creating Layer ip3_relu3_0_split
I0428 19:49:00.331969 26645 net.cpp:408] ip3_relu3_0_split <- ip3
I0428 19:49:00.331975 26645 net.cpp:382] ip3_relu3_0_split -> ip3_relu3_0_split_0
I0428 19:49:00.331981 26645 net.cpp:382] ip3_relu3_0_split -> ip3_relu3_0_split_1
I0428 19:49:00.332028 26645 net.cpp:124] Setting up ip3_relu3_0_split
I0428 19:49:00.332036 26645 net.cpp:131] Top shape: 100 10 (1000)
I0428 19:49:00.332039 26645 net.cpp:131] Top shape: 100 10 (1000)
I0428 19:49:00.332042 26645 net.cpp:139] Memory required for data: 1958800
I0428 19:49:00.332046 26645 layer_factory.hpp:77] Creating layer accuracy
I0428 19:49:00.332051 26645 net.cpp:86] Creating Layer accuracy
I0428 19:49:00.332056 26645 net.cpp:408] accuracy <- ip3_relu3_0_split_0
I0428 19:49:00.332060 26645 net.cpp:408] accuracy <- label_mnist_1_split_0
I0428 19:49:00.332065 26645 net.cpp:382] accuracy -> accuracy
…
