…
I0428 19:46:39.120345 26036 net.cpp:296] The NetState phase (0) differed from the phase (1) specified by a rule in layer mnist
I0428 19:46:39.120364 26036 net.cpp:296] The NetState phase (0) differed from the phase (1) specified by a rule in layer accuracy
I0428 19:46:39.120467 26036 net.cpp:53] Initializing net from parameters: 
name: "LeNet"
state {
  phase: TRAIN
  level: 0
  stage: ""
}
layer {
  name: "mnist"
  type: "Data"
  top: "data"
  top: "label"
  include {
    phase: TRAIN
  }
  transform_param {
    scale: 0.00390625
  }
  data_param {
    source: "examples/mnist/mnist_train_lmdb"
    batch_size: 64
    backend: LMDB
  }
}
layer {
  name: "conv0"
  type: "Convolution"
  bottom: "data"
  top: "conv0"
  param {
    lr_mult: 1
  }
  param {
    lr_mult: 2
  }
  convolution_param {
    num_output: 2
    kernel_size: 5
    stride: 1
    weight_filler {
      type: "xavier"
    }
    bias_filler {
      type: "constant"
    }
  }
}
layer {
  name: "pool0"
  type: "Pooling"
  bottom: "conv0"
  top: "pool0"
  pooling_param {
    pool: MAX
    kernel_size: 2
    stride: 2
  }
}
layer {
  name: "conv1"
  type: "Convolution"
  bottom: "pool0"
  top: "conv1"
  param {
    lr_mult: 1
  }
  param {
    lr_mult: 2
  }
  convolution_param {
    num_output: 100
    kernel_size: 5
    stride: 1
    weight_filler {
      type: "xavier"
    }
    bias_filler {
      type: "constant"
    }
  }
}
layer {
  name: "pool1"
  type: "Pooling"
  bottom: "conv1"
  top: "pool1"
  pooling_param {
    pool: MAX
    kernel_size: 2
    stride: 2
  }
}
layer {
  name: "ip1"
  type: "InnerProduct"
  bottom: "pool1"
  top: "ip1"
  param {
    lr_mult: 1
  }
  param {
    lr_mult: 2
  }
  inner_product_param {
    num_output: 25
    weight_filler {
      type: "xavier"
    }
    bias_filler {
      type: "constant"
    }
  }
}
layer {
  name: "relu1"
  type: "ReLU"
  bottom: "ip1"
  top: "ip1"
}
layer {
  name: "ip2"
  type: "InnerProduct"
  bottom: "ip1"
  top: "ip2"
  param {
    lr_mult: 1
  }
  param {
    lr_mult: 2
  }
  inner_product_param {
    num_output: 50
    weight_filler {
      type: "xavier"
    }
    bias_filler {
      type: "constant"
    }
  }
}
layer {
  name: "relu2"
  type: "ReLU"
  bottom: "ip2"
  top: "ip2"
}
layer {
  name: "ip3"
  type: "InnerProduct"
  bottom: "ip2"
  top: "ip3"
  param {
    lr_mult: 1
  }
  param {
    lr_mult: 2
  }
  inner_product_param {
    num_output: 10
    weight_filler {
      type: "xavier"
    }
    bias_filler {
      type: "constant"
    }
  }
}
layer {
  name: "relu3"
  type: "ReLU"
  bottom: "ip3"
  top: "ip3"
}
layer {
  name: "loss"
  type: "SoftmaxWithLoss"
  bottom: "ip3"
  bottom: "label"
  top: "loss"
}
I0428 19:46:39.120546 26036 layer_factory.hpp:77] Creating layer mnist
I0428 19:46:39.120648 26036 db_lmdb.cpp:35] Opened lmdb examples/mnist/mnist_train_lmdb
I0428 19:46:39.120671 26036 net.cpp:86] Creating Layer mnist
I0428 19:46:39.120678 26036 net.cpp:382] mnist -> data
I0428 19:46:39.120702 26036 net.cpp:382] mnist -> label
I0428 19:46:39.121804 26036 data_layer.cpp:45] output data size: 64,1,28,28
I0428 19:46:39.124248 26036 net.cpp:124] Setting up mnist
I0428 19:46:39.124264 26036 net.cpp:131] Top shape: 64 1 28 28 (50176)
I0428 19:46:39.124272 26036 net.cpp:131] Top shape: 64 (64)
I0428 19:46:39.124275 26036 net.cpp:139] Memory required for data: 200960
I0428 19:46:39.124284 26036 layer_factory.hpp:77] Creating layer conv0
I0428 19:46:39.124318 26036 net.cpp:86] Creating Layer conv0
I0428 19:46:39.124339 26036 net.cpp:408] conv0 <- data
I0428 19:46:39.124351 26036 net.cpp:382] conv0 -> conv0
I0428 19:46:39.410732 26036 net.cpp:124] Setting up conv0
I0428 19:46:39.410764 26036 net.cpp:131] Top shape: 64 2 24 24 (73728)
I0428 19:46:39.410769 26036 net.cpp:139] Memory required for data: 495872
I0428 19:46:39.410787 26036 layer_factory.hpp:77] Creating layer pool0
I0428 19:46:39.410802 26036 net.cpp:86] Creating Layer pool0
I0428 19:46:39.410807 26036 net.cpp:408] pool0 <- conv0
I0428 19:46:39.410814 26036 net.cpp:382] pool0 -> pool0
I0428 19:46:39.410868 26036 net.cpp:124] Setting up pool0
I0428 19:46:39.410874 26036 net.cpp:131] Top shape: 64 2 12 12 (18432)
I0428 19:46:39.410878 26036 net.cpp:139] Memory required for data: 569600
I0428 19:46:39.410882 26036 layer_factory.hpp:77] Creating layer conv1
I0428 19:46:39.410895 26036 net.cpp:86] Creating Layer conv1
I0428 19:46:39.410899 26036 net.cpp:408] conv1 <- pool0
I0428 19:46:39.410905 26036 net.cpp:382] conv1 -> conv1
I0428 19:46:39.414044 26036 net.cpp:124] Setting up conv1
I0428 19:46:39.414062 26036 net.cpp:131] Top shape: 64 100 8 8 (409600)
I0428 19:46:39.414067 26036 net.cpp:139] Memory required for data: 2208000
I0428 19:46:39.414077 26036 layer_factory.hpp:77] Creating layer pool1
I0428 19:46:39.414086 26036 net.cpp:86] Creating Layer pool1
I0428 19:46:39.414093 26036 net.cpp:408] pool1 <- conv1
I0428 19:46:39.414098 26036 net.cpp:382] pool1 -> pool1
I0428 19:46:39.414141 26036 net.cpp:124] Setting up pool1
I0428 19:46:39.414147 26036 net.cpp:131] Top shape: 64 100 4 4 (102400)
I0428 19:46:39.414151 26036 net.cpp:139] Memory required for data: 2617600
I0428 19:46:39.414155 26036 layer_factory.hpp:77] Creating layer ip1
I0428 19:46:39.414162 26036 net.cpp:86] Creating Layer ip1
I0428 19:46:39.414166 26036 net.cpp:408] ip1 <- pool1
I0428 19:46:39.414172 26036 net.cpp:382] ip1 -> ip1
I0428 19:46:39.414566 26036 net.cpp:124] Setting up ip1
I0428 19:46:39.414575 26036 net.cpp:131] Top shape: 64 25 (1600)
I0428 19:46:39.414579 26036 net.cpp:139] Memory required for data: 2624000
I0428 19:46:39.414587 26036 layer_factory.hpp:77] Creating layer relu1
I0428 19:46:39.414594 26036 net.cpp:86] Creating Layer relu1
I0428 19:46:39.414598 26036 net.cpp:408] relu1 <- ip1
I0428 19:46:39.414603 26036 net.cpp:369] relu1 -> ip1 (in-place)
I0428 19:46:39.414808 26036 net.cpp:124] Setting up relu1
I0428 19:46:39.414818 26036 net.cpp:131] Top shape: 64 25 (1600)
I0428 19:46:39.414820 26036 net.cpp:139] Memory required for data: 2630400
I0428 19:46:39.414824 26036 layer_factory.hpp:77] Creating layer ip2
I0428 19:46:39.414834 26036 net.cpp:86] Creating Layer ip2
I0428 19:46:39.414836 26036 net.cpp:408] ip2 <- ip1
I0428 19:46:39.414844 26036 net.cpp:382] ip2 -> ip2
I0428 19:46:39.415942 26036 net.cpp:124] Setting up ip2
I0428 19:46:39.415958 26036 net.cpp:131] Top shape: 64 50 (3200)
I0428 19:46:39.415961 26036 net.cpp:139] Memory required for data: 2643200
I0428 19:46:39.415968 26036 layer_factory.hpp:77] Creating layer relu2
I0428 19:46:39.415978 26036 net.cpp:86] Creating Layer relu2
I0428 19:46:39.415982 26036 net.cpp:408] relu2 <- ip2
I0428 19:46:39.415987 26036 net.cpp:369] relu2 -> ip2 (in-place)
I0428 19:46:39.416856 26036 net.cpp:124] Setting up relu2
I0428 19:46:39.416873 26036 net.cpp:131] Top shape: 64 50 (3200)
I0428 19:46:39.416877 26036 net.cpp:139] Memory required for data: 2656000
I0428 19:46:39.416882 26036 layer_factory.hpp:77] Creating layer ip3
I0428 19:46:39.416890 26036 net.cpp:86] Creating Layer ip3
I0428 19:46:39.416894 26036 net.cpp:408] ip3 <- ip2
I0428 19:46:39.416901 26036 net.cpp:382] ip3 -> ip3
I0428 19:46:39.417034 26036 net.cpp:124] Setting up ip3
I0428 19:46:39.417044 26036 net.cpp:131] Top shape: 64 10 (640)
I0428 19:46:39.417047 26036 net.cpp:139] Memory required for data: 2658560
I0428 19:46:39.417057 26036 layer_factory.hpp:77] Creating layer relu3
I0428 19:46:39.417062 26036 net.cpp:86] Creating Layer relu3
I0428 19:46:39.417067 26036 net.cpp:408] relu3 <- ip3
I0428 19:46:39.417073 26036 net.cpp:369] relu3 -> ip3 (in-place)
I0428 19:46:39.417276 26036 net.cpp:124] Setting up relu3
I0428 19:46:39.417287 26036 net.cpp:131] Top shape: 64 10 (640)
I0428 19:46:39.417290 26036 net.cpp:139] Memory required for data: 2661120
I0428 19:46:39.417294 26036 layer_factory.hpp:77] Creating layer loss
I0428 19:46:39.417300 26036 net.cpp:86] Creating Layer loss
I0428 19:46:39.417304 26036 net.cpp:408] loss <- ip3
I0428 19:46:39.417309 26036 net.cpp:408] loss <- label
I0428 19:46:39.417316 26036 net.cpp:382] loss -> loss
I0428 19:46:39.417340 26036 layer_factory.hpp:77] Creating layer loss
…
I0428 19:46:39.418097 26036 solver.cpp:173] Creating test net (#0) specified by net file: ECE595/mnist/train_test/var_everything2/lenet_train_test496.prototxt
I0428 19:46:39.418128 26036 net.cpp:296] The NetState phase (1) differed from the phase (0) specified by a rule in layer mnist
I0428 19:46:39.418237 26036 net.cpp:53] Initializing net from parameters: 
name: "LeNet"
state {
  phase: TEST
}
layer {
  name: "mnist"
  type: "Data"
  top: "data"
  top: "label"
  include {
    phase: TEST
  }
  transform_param {
    scale: 0.00390625
  }
  data_param {
    source: "examples/mnist/mnist_test_lmdb"
    batch_size: 100
    backend: LMDB
  }
}
layer {
  name: "conv0"
  type: "Convolution"
  bottom: "data"
  top: "conv0"
  param {
    lr_mult: 1
  }
  param {
    lr_mult: 2
  }
  convolution_param {
    num_output: 2
    kernel_size: 5
    stride: 1
    weight_filler {
      type: "xavier"
    }
    bias_filler {
      type: "constant"
    }
  }
}
layer {
  name: "pool0"
  type: "Pooling"
  bottom: "conv0"
  top: "pool0"
  pooling_param {
    pool: MAX
    kernel_size: 2
    stride: 2
  }
}
layer {
  name: "conv1"
  type: "Convolution"
  bottom: "pool0"
  top: "conv1"
  param {
    lr_mult: 1
  }
  param {
    lr_mult: 2
  }
  convolution_param {
    num_output: 100
    kernel_size: 5
    stride: 1
    weight_filler {
      type: "xavier"
    }
    bias_filler {
      type: "constant"
    }
  }
}
layer {
  name: "pool1"
  type: "Pooling"
  bottom: "conv1"
  top: "pool1"
  pooling_param {
    pool: MAX
    kernel_size: 2
    stride: 2
  }
}
layer {
  name: "ip1"
  type: "InnerProduct"
  bottom: "pool1"
  top: "ip1"
  param {
    lr_mult: 1
  }
  param {
    lr_mult: 2
  }
  inner_product_param {
    num_output: 25
    weight_filler {
      type: "xavier"
    }
    bias_filler {
      type: "constant"
    }
  }
}
layer {
  name: "relu1"
  type: "ReLU"
  bottom: "ip1"
  top: "ip1"
}
layer {
  name: "ip2"
  type: "InnerProduct"
  bottom: "ip1"
  top: "ip2"
  param {
    lr_mult: 1
  }
  param {
    lr_mult: 2
  }
  inner_product_param {
    num_output: 50
    weight_filler {
      type: "xavier"
    }
    bias_filler {
      type: "constant"
    }
  }
}
layer {
  name: "relu2"
  type: "ReLU"
  bottom: "ip2"
  top: "ip2"
}
layer {
  name: "ip3"
  type: "InnerProduct"
  bottom: "ip2"
  top: "ip3"
  param {
    lr_mult: 1
  }
  param {
    lr_mult: 2
  }
  inner_product_param {
    num_output: 10
    weight_filler {
      type: "xavier"
    }
    bias_filler {
      type: "constant"
    }
  }
}
layer {
  name: "relu3"
  type: "ReLU"
  bottom: "ip3"
  top: "ip3"
}
layer {
  name: "accuracy"
  type: "Accuracy"
  bottom: "ip3"
  bottom: "label"
  top: "accuracy"
  include {
    phase: TEST
  }
}
layer {
  name: "loss"
  type: "SoftmaxWithLoss"
  bottom: "ip3"
  bottom: "label"
  top: "loss"
}
I0428 19:46:39.418337 26036 layer_factory.hpp:77] Creating layer mnist
I0428 19:46:39.418386 26036 db_lmdb.cpp:35] Opened lmdb examples/mnist/mnist_test_lmdb
I0428 19:46:39.418401 26036 net.cpp:86] Creating Layer mnist
I0428 19:46:39.418407 26036 net.cpp:382] mnist -> data
I0428 19:46:39.418416 26036 net.cpp:382] mnist -> label
I0428 19:46:39.418519 26036 data_layer.cpp:45] output data size: 100,1,28,28
I0428 19:46:39.420938 26036 net.cpp:124] Setting up mnist
I0428 19:46:39.420953 26036 net.cpp:131] Top shape: 100 1 28 28 (78400)
I0428 19:46:39.420959 26036 net.cpp:131] Top shape: 100 (100)
I0428 19:46:39.420964 26036 net.cpp:139] Memory required for data: 314000
I0428 19:46:39.420967 26036 layer_factory.hpp:77] Creating layer label_mnist_1_split
I0428 19:46:39.421008 26036 net.cpp:86] Creating Layer label_mnist_1_split
I0428 19:46:39.421013 26036 net.cpp:408] label_mnist_1_split <- label
I0428 19:46:39.421018 26036 net.cpp:382] label_mnist_1_split -> label_mnist_1_split_0
I0428 19:46:39.421026 26036 net.cpp:382] label_mnist_1_split -> label_mnist_1_split_1
I0428 19:46:39.421171 26036 net.cpp:124] Setting up label_mnist_1_split
I0428 19:46:39.421180 26036 net.cpp:131] Top shape: 100 (100)
I0428 19:46:39.421185 26036 net.cpp:131] Top shape: 100 (100)
I0428 19:46:39.421188 26036 net.cpp:139] Memory required for data: 314800
I0428 19:46:39.421191 26036 layer_factory.hpp:77] Creating layer conv0
I0428 19:46:39.421203 26036 net.cpp:86] Creating Layer conv0
I0428 19:46:39.421207 26036 net.cpp:408] conv0 <- data
I0428 19:46:39.421214 26036 net.cpp:382] conv0 -> conv0
I0428 19:46:39.423100 26036 net.cpp:124] Setting up conv0
I0428 19:46:39.423116 26036 net.cpp:131] Top shape: 100 2 24 24 (115200)
I0428 19:46:39.423121 26036 net.cpp:139] Memory required for data: 775600
I0428 19:46:39.423133 26036 layer_factory.hpp:77] Creating layer pool0
I0428 19:46:39.423141 26036 net.cpp:86] Creating Layer pool0
I0428 19:46:39.423146 26036 net.cpp:408] pool0 <- conv0
I0428 19:46:39.423151 26036 net.cpp:382] pool0 -> pool0
I0428 19:46:39.423197 26036 net.cpp:124] Setting up pool0
I0428 19:46:39.423202 26036 net.cpp:131] Top shape: 100 2 12 12 (28800)
I0428 19:46:39.423205 26036 net.cpp:139] Memory required for data: 890800
I0428 19:46:39.423209 26036 layer_factory.hpp:77] Creating layer conv1
I0428 19:46:39.423219 26036 net.cpp:86] Creating Layer conv1
I0428 19:46:39.423223 26036 net.cpp:408] conv1 <- pool0
I0428 19:46:39.423231 26036 net.cpp:382] conv1 -> conv1
I0428 19:46:39.425034 26036 net.cpp:124] Setting up conv1
I0428 19:46:39.425050 26036 net.cpp:131] Top shape: 100 100 8 8 (640000)
I0428 19:46:39.425055 26036 net.cpp:139] Memory required for data: 3450800
I0428 19:46:39.425066 26036 layer_factory.hpp:77] Creating layer pool1
I0428 19:46:39.425074 26036 net.cpp:86] Creating Layer pool1
I0428 19:46:39.425079 26036 net.cpp:408] pool1 <- conv1
I0428 19:46:39.425094 26036 net.cpp:382] pool1 -> pool1
I0428 19:46:39.425138 26036 net.cpp:124] Setting up pool1
I0428 19:46:39.425145 26036 net.cpp:131] Top shape: 100 100 4 4 (160000)
I0428 19:46:39.425155 26036 net.cpp:139] Memory required for data: 4090800
I0428 19:46:39.425159 26036 layer_factory.hpp:77] Creating layer ip1
I0428 19:46:39.425168 26036 net.cpp:86] Creating Layer ip1
I0428 19:46:39.425171 26036 net.cpp:408] ip1 <- pool1
I0428 19:46:39.425178 26036 net.cpp:382] ip1 -> ip1
I0428 19:46:39.425580 26036 net.cpp:124] Setting up ip1
I0428 19:46:39.425588 26036 net.cpp:131] Top shape: 100 25 (2500)
I0428 19:46:39.425603 26036 net.cpp:139] Memory required for data: 4100800
I0428 19:46:39.425612 26036 layer_factory.hpp:77] Creating layer relu1
I0428 19:46:39.425621 26036 net.cpp:86] Creating Layer relu1
I0428 19:46:39.425624 26036 net.cpp:408] relu1 <- ip1
I0428 19:46:39.425629 26036 net.cpp:369] relu1 -> ip1 (in-place)
I0428 19:46:39.425827 26036 net.cpp:124] Setting up relu1
I0428 19:46:39.425837 26036 net.cpp:131] Top shape: 100 25 (2500)
I0428 19:46:39.425840 26036 net.cpp:139] Memory required for data: 4110800
I0428 19:46:39.425843 26036 layer_factory.hpp:77] Creating layer ip2
I0428 19:46:39.425853 26036 net.cpp:86] Creating Layer ip2
I0428 19:46:39.425856 26036 net.cpp:408] ip2 <- ip1
I0428 19:46:39.425865 26036 net.cpp:382] ip2 -> ip2
I0428 19:46:39.426009 26036 net.cpp:124] Setting up ip2
I0428 19:46:39.426017 26036 net.cpp:131] Top shape: 100 50 (5000)
I0428 19:46:39.426020 26036 net.cpp:139] Memory required for data: 4130800
I0428 19:46:39.426026 26036 layer_factory.hpp:77] Creating layer relu2
I0428 19:46:39.426033 26036 net.cpp:86] Creating Layer relu2
I0428 19:46:39.426035 26036 net.cpp:408] relu2 <- ip2
I0428 19:46:39.426040 26036 net.cpp:369] relu2 -> ip2 (in-place)
I0428 19:46:39.426324 26036 net.cpp:124] Setting up relu2
I0428 19:46:39.426334 26036 net.cpp:131] Top shape: 100 50 (5000)
I0428 19:46:39.426337 26036 net.cpp:139] Memory required for data: 4150800
I0428 19:46:39.426342 26036 layer_factory.hpp:77] Creating layer ip3
I0428 19:46:39.426347 26036 net.cpp:86] Creating Layer ip3
I0428 19:46:39.426352 26036 net.cpp:408] ip3 <- ip2
I0428 19:46:39.426357 26036 net.cpp:382] ip3 -> ip3
I0428 19:46:39.426487 26036 net.cpp:124] Setting up ip3
I0428 19:46:39.426496 26036 net.cpp:131] Top shape: 100 10 (1000)
I0428 19:46:39.426501 26036 net.cpp:139] Memory required for data: 4154800
I0428 19:46:39.426509 26036 layer_factory.hpp:77] Creating layer relu3
I0428 19:46:39.426528 26036 net.cpp:86] Creating Layer relu3
I0428 19:46:39.426532 26036 net.cpp:408] relu3 <- ip3
I0428 19:46:39.426537 26036 net.cpp:369] relu3 -> ip3 (in-place)
I0428 19:46:39.427450 26036 net.cpp:124] Setting up relu3
I0428 19:46:39.427464 26036 net.cpp:131] Top shape: 100 10 (1000)
I0428 19:46:39.427469 26036 net.cpp:139] Memory required for data: 4158800
I0428 19:46:39.427474 26036 layer_factory.hpp:77] Creating layer ip3_relu3_0_split
I0428 19:46:39.427479 26036 net.cpp:86] Creating Layer ip3_relu3_0_split
I0428 19:46:39.427484 26036 net.cpp:408] ip3_relu3_0_split <- ip3
I0428 19:46:39.427490 26036 net.cpp:382] ip3_relu3_0_split -> ip3_relu3_0_split_0
I0428 19:46:39.427498 26036 net.cpp:382] ip3_relu3_0_split -> ip3_relu3_0_split_1
I0428 19:46:39.427564 26036 net.cpp:124] Setting up ip3_relu3_0_split
I0428 19:46:39.427574 26036 net.cpp:131] Top shape: 100 10 (1000)
I0428 19:46:39.427579 26036 net.cpp:131] Top shape: 100 10 (1000)
I0428 19:46:39.427582 26036 net.cpp:139] Memory required for data: 4166800
I0428 19:46:39.427587 26036 layer_factory.hpp:77] Creating layer accuracy
I0428 19:46:39.427592 26036 net.cpp:86] Creating Layer accuracy
I0428 19:46:39.427595 26036 net.cpp:408] accuracy <- ip3_relu3_0_split_0
I0428 19:46:39.427600 26036 net.cpp:408] accuracy <- label_mnist_1_split_0
I0428 19:46:39.427613 26036 net.cpp:382] accuracy -> accuracy
…
