…
I0428 20:06:12.428009 30815 net.cpp:296] The NetState phase (0) differed from the phase (1) specified by a rule in layer mnist
I0428 20:06:12.428028 30815 net.cpp:296] The NetState phase (0) differed from the phase (1) specified by a rule in layer accuracy
I0428 20:06:12.428118 30815 net.cpp:53] Initializing net from parameters: 
name: "LeNet"
state {
  phase: TRAIN
  level: 0
  stage: ""
}
layer {
  name: "mnist"
  type: "Data"
  top: "data"
  top: "label"
  include {
    phase: TRAIN
  }
  transform_param {
    scale: 0.00390625
  }
  data_param {
    source: "examples/mnist/mnist_train_lmdb"
    batch_size: 64
    backend: LMDB
  }
}
layer {
  name: "conv0"
  type: "Convolution"
  bottom: "data"
  top: "conv0"
  param {
    lr_mult: 1
  }
  param {
    lr_mult: 2
  }
  convolution_param {
    num_output: 25
    kernel_size: 5
    stride: 1
    weight_filler {
      type: "xavier"
    }
    bias_filler {
      type: "constant"
    }
  }
}
layer {
  name: "pool0"
  type: "Pooling"
  bottom: "conv0"
  top: "pool0"
  pooling_param {
    pool: MAX
    kernel_size: 2
    stride: 2
  }
}
layer {
  name: "conv1"
  type: "Convolution"
  bottom: "pool0"
  top: "conv1"
  param {
    lr_mult: 1
  }
  param {
    lr_mult: 2
  }
  convolution_param {
    num_output: 5
    kernel_size: 5
    stride: 1
    weight_filler {
      type: "xavier"
    }
    bias_filler {
      type: "constant"
    }
  }
}
layer {
  name: "pool1"
  type: "Pooling"
  bottom: "conv1"
  top: "pool1"
  pooling_param {
    pool: MAX
    kernel_size: 2
    stride: 2
  }
}
layer {
  name: "ip1"
  type: "InnerProduct"
  bottom: "pool1"
  top: "ip1"
  param {
    lr_mult: 1
  }
  param {
    lr_mult: 2
  }
  inner_product_param {
    num_output: 25
    weight_filler {
      type: "xavier"
    }
    bias_filler {
      type: "constant"
    }
  }
}
layer {
  name: "relu1"
  type: "ReLU"
  bottom: "ip1"
  top: "ip1"
}
layer {
  name: "ip2"
  type: "InnerProduct"
  bottom: "ip1"
  top: "ip2"
  param {
    lr_mult: 1
  }
  param {
    lr_mult: 2
  }
  inner_product_param {
    num_output: 10
    weight_filler {
      type: "xavier"
    }
    bias_filler {
      type: "constant"
    }
  }
}
layer {
  name: "relu2"
  type: "ReLU"
  bottom: "ip2"
  top: "ip2"
}
layer {
  name: "loss"
  type: "SoftmaxWithLoss"
  bottom: "ip2"
  bottom: "label"
  top: "loss"
}
I0428 20:06:12.428192 30815 layer_factory.hpp:77] Creating layer mnist
I0428 20:06:12.428294 30815 db_lmdb.cpp:35] Opened lmdb examples/mnist/mnist_train_lmdb
I0428 20:06:12.428316 30815 net.cpp:86] Creating Layer mnist
I0428 20:06:12.428328 30815 net.cpp:382] mnist -> data
I0428 20:06:12.428349 30815 net.cpp:382] mnist -> label
I0428 20:06:12.429472 30815 data_layer.cpp:45] output data size: 64,1,28,28
I0428 20:06:12.432097 30815 net.cpp:124] Setting up mnist
I0428 20:06:12.432117 30815 net.cpp:131] Top shape: 64 1 28 28 (50176)
I0428 20:06:12.432130 30815 net.cpp:131] Top shape: 64 (64)
I0428 20:06:12.432134 30815 net.cpp:139] Memory required for data: 200960
I0428 20:06:12.432142 30815 layer_factory.hpp:77] Creating layer conv0
I0428 20:06:12.432169 30815 net.cpp:86] Creating Layer conv0
I0428 20:06:12.432180 30815 net.cpp:408] conv0 <- data
I0428 20:06:12.432204 30815 net.cpp:382] conv0 -> conv0
I0428 20:06:12.698366 30815 net.cpp:124] Setting up conv0
I0428 20:06:12.698415 30815 net.cpp:131] Top shape: 64 25 24 24 (921600)
I0428 20:06:12.698423 30815 net.cpp:139] Memory required for data: 3887360
I0428 20:06:12.698498 30815 layer_factory.hpp:77] Creating layer pool0
I0428 20:06:12.698516 30815 net.cpp:86] Creating Layer pool0
I0428 20:06:12.698523 30815 net.cpp:408] pool0 <- conv0
I0428 20:06:12.698532 30815 net.cpp:382] pool0 -> pool0
I0428 20:06:12.698603 30815 net.cpp:124] Setting up pool0
I0428 20:06:12.698617 30815 net.cpp:131] Top shape: 64 25 12 12 (230400)
I0428 20:06:12.698623 30815 net.cpp:139] Memory required for data: 4808960
I0428 20:06:12.698631 30815 layer_factory.hpp:77] Creating layer conv1
I0428 20:06:12.698647 30815 net.cpp:86] Creating Layer conv1
I0428 20:06:12.698652 30815 net.cpp:408] conv1 <- pool0
I0428 20:06:12.698662 30815 net.cpp:382] conv1 -> conv1
I0428 20:06:12.702913 30815 net.cpp:124] Setting up conv1
I0428 20:06:12.702935 30815 net.cpp:131] Top shape: 64 5 8 8 (20480)
I0428 20:06:12.702942 30815 net.cpp:139] Memory required for data: 4890880
I0428 20:06:12.702956 30815 layer_factory.hpp:77] Creating layer pool1
I0428 20:06:12.702968 30815 net.cpp:86] Creating Layer pool1
I0428 20:06:12.702975 30815 net.cpp:408] pool1 <- conv1
I0428 20:06:12.702982 30815 net.cpp:382] pool1 -> pool1
I0428 20:06:12.703049 30815 net.cpp:124] Setting up pool1
I0428 20:06:12.703064 30815 net.cpp:131] Top shape: 64 5 4 4 (5120)
I0428 20:06:12.703070 30815 net.cpp:139] Memory required for data: 4911360
I0428 20:06:12.703076 30815 layer_factory.hpp:77] Creating layer ip1
I0428 20:06:12.703088 30815 net.cpp:86] Creating Layer ip1
I0428 20:06:12.703092 30815 net.cpp:408] ip1 <- pool1
I0428 20:06:12.703101 30815 net.cpp:382] ip1 -> ip1
I0428 20:06:12.703275 30815 net.cpp:124] Setting up ip1
I0428 20:06:12.703287 30815 net.cpp:131] Top shape: 64 25 (1600)
I0428 20:06:12.703292 30815 net.cpp:139] Memory required for data: 4917760
I0428 20:06:12.703305 30815 layer_factory.hpp:77] Creating layer relu1
I0428 20:06:12.703312 30815 net.cpp:86] Creating Layer relu1
I0428 20:06:12.703318 30815 net.cpp:408] relu1 <- ip1
I0428 20:06:12.703325 30815 net.cpp:369] relu1 -> ip1 (in-place)
I0428 20:06:12.703586 30815 net.cpp:124] Setting up relu1
I0428 20:06:12.703600 30815 net.cpp:131] Top shape: 64 25 (1600)
I0428 20:06:12.703606 30815 net.cpp:139] Memory required for data: 4924160
I0428 20:06:12.703611 30815 layer_factory.hpp:77] Creating layer ip2
I0428 20:06:12.703621 30815 net.cpp:86] Creating Layer ip2
I0428 20:06:12.703627 30815 net.cpp:408] ip2 <- ip1
I0428 20:06:12.703635 30815 net.cpp:382] ip2 -> ip2
I0428 20:06:12.703783 30815 net.cpp:124] Setting up ip2
I0428 20:06:12.703794 30815 net.cpp:131] Top shape: 64 10 (640)
I0428 20:06:12.703799 30815 net.cpp:139] Memory required for data: 4926720
I0428 20:06:12.703809 30815 layer_factory.hpp:77] Creating layer relu2
I0428 20:06:12.703819 30815 net.cpp:86] Creating Layer relu2
I0428 20:06:12.703825 30815 net.cpp:408] relu2 <- ip2
I0428 20:06:12.703832 30815 net.cpp:369] relu2 -> ip2 (in-place)
I0428 20:06:12.704955 30815 net.cpp:124] Setting up relu2
I0428 20:06:12.704974 30815 net.cpp:131] Top shape: 64 10 (640)
I0428 20:06:12.704980 30815 net.cpp:139] Memory required for data: 4929280
I0428 20:06:12.704987 30815 layer_factory.hpp:77] Creating layer loss
I0428 20:06:12.704996 30815 net.cpp:86] Creating Layer loss
I0428 20:06:12.705003 30815 net.cpp:408] loss <- ip2
I0428 20:06:12.705010 30815 net.cpp:408] loss <- label
I0428 20:06:12.705019 30815 net.cpp:382] loss -> loss
I0428 20:06:12.705049 30815 layer_factory.hpp:77] Creating layer loss
…
I0428 20:06:12.706034 30815 solver.cpp:173] Creating test net (#0) specified by net file: ECE595/mnist/train_test/var_everything2/lenet_train_test1021.prototxt
I0428 20:06:12.706085 30815 net.cpp:296] The NetState phase (1) differed from the phase (0) specified by a rule in layer mnist
I0428 20:06:12.706217 30815 net.cpp:53] Initializing net from parameters: 
name: "LeNet"
state {
  phase: TEST
}
layer {
  name: "mnist"
  type: "Data"
  top: "data"
  top: "label"
  include {
    phase: TEST
  }
  transform_param {
    scale: 0.00390625
  }
  data_param {
    source: "examples/mnist/mnist_test_lmdb"
    batch_size: 100
    backend: LMDB
  }
}
layer {
  name: "conv0"
  type: "Convolution"
  bottom: "data"
  top: "conv0"
  param {
    lr_mult: 1
  }
  param {
    lr_mult: 2
  }
  convolution_param {
    num_output: 25
    kernel_size: 5
    stride: 1
    weight_filler {
      type: "xavier"
    }
    bias_filler {
      type: "constant"
    }
  }
}
layer {
  name: "pool0"
  type: "Pooling"
  bottom: "conv0"
  top: "pool0"
  pooling_param {
    pool: MAX
    kernel_size: 2
    stride: 2
  }
}
layer {
  name: "conv1"
  type: "Convolution"
  bottom: "pool0"
  top: "conv1"
  param {
    lr_mult: 1
  }
  param {
    lr_mult: 2
  }
  convolution_param {
    num_output: 5
    kernel_size: 5
    stride: 1
    weight_filler {
      type: "xavier"
    }
    bias_filler {
      type: "constant"
    }
  }
}
layer {
  name: "pool1"
  type: "Pooling"
  bottom: "conv1"
  top: "pool1"
  pooling_param {
    pool: MAX
    kernel_size: 2
    stride: 2
  }
}
layer {
  name: "ip1"
  type: "InnerProduct"
  bottom: "pool1"
  top: "ip1"
  param {
    lr_mult: 1
  }
  param {
    lr_mult: 2
  }
  inner_product_param {
    num_output: 25
    weight_filler {
      type: "xavier"
    }
    bias_filler {
      type: "constant"
    }
  }
}
layer {
  name: "relu1"
  type: "ReLU"
  bottom: "ip1"
  top: "ip1"
}
layer {
  name: "ip2"
  type: "InnerProduct"
  bottom: "ip1"
  top: "ip2"
  param {
    lr_mult: 1
  }
  param {
    lr_mult: 2
  }
  inner_product_param {
    num_output: 10
    weight_filler {
      type: "xavier"
    }
    bias_filler {
      type: "constant"
    }
  }
}
layer {
  name: "relu2"
  type: "ReLU"
  bottom: "ip2"
  top: "ip2"
}
layer {
  name: "accuracy"
  type: "Accuracy"
  bottom: "ip2"
  bottom: "label"
  top: "accuracy"
  include {
    phase: TEST
  }
}
layer {
  name: "loss"
  type: "SoftmaxWithLoss"
  bottom: "ip2"
  bottom: "label"
  top: "loss"
}
I0428 20:06:12.706315 30815 layer_factory.hpp:77] Creating layer mnist
I0428 20:06:12.706414 30815 db_lmdb.cpp:35] Opened lmdb examples/mnist/mnist_test_lmdb
I0428 20:06:12.706444 30815 net.cpp:86] Creating Layer mnist
I0428 20:06:12.706451 30815 net.cpp:382] mnist -> data
I0428 20:06:12.706463 30815 net.cpp:382] mnist -> label
I0428 20:06:12.706596 30815 data_layer.cpp:45] output data size: 100,1,28,28
I0428 20:06:12.709429 30815 net.cpp:124] Setting up mnist
I0428 20:06:12.709455 30815 net.cpp:131] Top shape: 100 1 28 28 (78400)
I0428 20:06:12.709463 30815 net.cpp:131] Top shape: 100 (100)
I0428 20:06:12.709470 30815 net.cpp:139] Memory required for data: 314000
I0428 20:06:12.709475 30815 layer_factory.hpp:77] Creating layer label_mnist_1_split
I0428 20:06:12.709497 30815 net.cpp:86] Creating Layer label_mnist_1_split
I0428 20:06:12.709503 30815 net.cpp:408] label_mnist_1_split <- label
I0428 20:06:12.709511 30815 net.cpp:382] label_mnist_1_split -> label_mnist_1_split_0
I0428 20:06:12.709522 30815 net.cpp:382] label_mnist_1_split -> label_mnist_1_split_1
I0428 20:06:12.709651 30815 net.cpp:124] Setting up label_mnist_1_split
I0428 20:06:12.709681 30815 net.cpp:131] Top shape: 100 (100)
I0428 20:06:12.709689 30815 net.cpp:131] Top shape: 100 (100)
I0428 20:06:12.709694 30815 net.cpp:139] Memory required for data: 314800
I0428 20:06:12.709699 30815 layer_factory.hpp:77] Creating layer conv0
I0428 20:06:12.709714 30815 net.cpp:86] Creating Layer conv0
I0428 20:06:12.709719 30815 net.cpp:408] conv0 <- data
I0428 20:06:12.709728 30815 net.cpp:382] conv0 -> conv0
I0428 20:06:12.711912 30815 net.cpp:124] Setting up conv0
I0428 20:06:12.711935 30815 net.cpp:131] Top shape: 100 25 24 24 (1440000)
I0428 20:06:12.711948 30815 net.cpp:139] Memory required for data: 6074800
I0428 20:06:12.711963 30815 layer_factory.hpp:77] Creating layer pool0
I0428 20:06:12.711974 30815 net.cpp:86] Creating Layer pool0
I0428 20:06:12.711979 30815 net.cpp:408] pool0 <- conv0
I0428 20:06:12.711997 30815 net.cpp:382] pool0 -> pool0
I0428 20:06:12.712054 30815 net.cpp:124] Setting up pool0
I0428 20:06:12.712065 30815 net.cpp:131] Top shape: 100 25 12 12 (360000)
I0428 20:06:12.712074 30815 net.cpp:139] Memory required for data: 7514800
I0428 20:06:12.712080 30815 layer_factory.hpp:77] Creating layer conv1
I0428 20:06:12.712093 30815 net.cpp:86] Creating Layer conv1
I0428 20:06:12.712098 30815 net.cpp:408] conv1 <- pool0
I0428 20:06:12.712107 30815 net.cpp:382] conv1 -> conv1
I0428 20:06:12.715000 30815 net.cpp:124] Setting up conv1
I0428 20:06:12.715020 30815 net.cpp:131] Top shape: 100 5 8 8 (32000)
I0428 20:06:12.715026 30815 net.cpp:139] Memory required for data: 7642800
I0428 20:06:12.715039 30815 layer_factory.hpp:77] Creating layer pool1
I0428 20:06:12.715049 30815 net.cpp:86] Creating Layer pool1
I0428 20:06:12.715065 30815 net.cpp:408] pool1 <- conv1
I0428 20:06:12.715072 30815 net.cpp:382] pool1 -> pool1
I0428 20:06:12.715148 30815 net.cpp:124] Setting up pool1
I0428 20:06:12.715160 30815 net.cpp:131] Top shape: 100 5 4 4 (8000)
I0428 20:06:12.715167 30815 net.cpp:139] Memory required for data: 7674800
I0428 20:06:12.715171 30815 layer_factory.hpp:77] Creating layer ip1
I0428 20:06:12.715180 30815 net.cpp:86] Creating Layer ip1
I0428 20:06:12.715185 30815 net.cpp:408] ip1 <- pool1
I0428 20:06:12.715193 30815 net.cpp:382] ip1 -> ip1
I0428 20:06:12.715353 30815 net.cpp:124] Setting up ip1
I0428 20:06:12.715368 30815 net.cpp:131] Top shape: 100 25 (2500)
I0428 20:06:12.715375 30815 net.cpp:139] Memory required for data: 7684800
I0428 20:06:12.715386 30815 layer_factory.hpp:77] Creating layer relu1
I0428 20:06:12.715394 30815 net.cpp:86] Creating Layer relu1
I0428 20:06:12.715399 30815 net.cpp:408] relu1 <- ip1
I0428 20:06:12.715406 30815 net.cpp:369] relu1 -> ip1 (in-place)
I0428 20:06:12.715699 30815 net.cpp:124] Setting up relu1
I0428 20:06:12.715713 30815 net.cpp:131] Top shape: 100 25 (2500)
I0428 20:06:12.715719 30815 net.cpp:139] Memory required for data: 7694800
I0428 20:06:12.715724 30815 layer_factory.hpp:77] Creating layer ip2
I0428 20:06:12.715735 30815 net.cpp:86] Creating Layer ip2
I0428 20:06:12.715742 30815 net.cpp:408] ip2 <- ip1
I0428 20:06:12.715754 30815 net.cpp:382] ip2 -> ip2
I0428 20:06:12.715909 30815 net.cpp:124] Setting up ip2
I0428 20:06:12.715920 30815 net.cpp:131] Top shape: 100 10 (1000)
I0428 20:06:12.715926 30815 net.cpp:139] Memory required for data: 7698800
I0428 20:06:12.715935 30815 layer_factory.hpp:77] Creating layer relu2
I0428 20:06:12.715942 30815 net.cpp:86] Creating Layer relu2
I0428 20:06:12.715947 30815 net.cpp:408] relu2 <- ip2
I0428 20:06:12.715955 30815 net.cpp:369] relu2 -> ip2 (in-place)
I0428 20:06:12.716186 30815 net.cpp:124] Setting up relu2
I0428 20:06:12.716197 30815 net.cpp:131] Top shape: 100 10 (1000)
I0428 20:06:12.716203 30815 net.cpp:139] Memory required for data: 7702800
I0428 20:06:12.716207 30815 layer_factory.hpp:77] Creating layer ip2_relu2_0_split
I0428 20:06:12.716215 30815 net.cpp:86] Creating Layer ip2_relu2_0_split
I0428 20:06:12.716220 30815 net.cpp:408] ip2_relu2_0_split <- ip2
I0428 20:06:12.716228 30815 net.cpp:382] ip2_relu2_0_split -> ip2_relu2_0_split_0
I0428 20:06:12.716251 30815 net.cpp:382] ip2_relu2_0_split -> ip2_relu2_0_split_1
I0428 20:06:12.716303 30815 net.cpp:124] Setting up ip2_relu2_0_split
I0428 20:06:12.716315 30815 net.cpp:131] Top shape: 100 10 (1000)
I0428 20:06:12.716320 30815 net.cpp:131] Top shape: 100 10 (1000)
I0428 20:06:12.716325 30815 net.cpp:139] Memory required for data: 7710800
I0428 20:06:12.716331 30815 layer_factory.hpp:77] Creating layer accuracy
I0428 20:06:12.716338 30815 net.cpp:86] Creating Layer accuracy
I0428 20:06:12.716343 30815 net.cpp:408] accuracy <- ip2_relu2_0_split_0
I0428 20:06:12.716349 30815 net.cpp:408] accuracy <- label_mnist_1_split_0
I0428 20:06:12.716356 30815 net.cpp:382] accuracy -> accuracy
…
