…
I0428 20:06:23.122632 30858 net.cpp:296] The NetState phase (0) differed from the phase (1) specified by a rule in layer mnist
I0428 20:06:23.122651 30858 net.cpp:296] The NetState phase (0) differed from the phase (1) specified by a rule in layer accuracy
I0428 20:06:23.122755 30858 net.cpp:53] Initializing net from parameters: 
name: "LeNet"
state {
  phase: TRAIN
  level: 0
  stage: ""
}
layer {
  name: "mnist"
  type: "Data"
  top: "data"
  top: "label"
  include {
    phase: TRAIN
  }
  transform_param {
    scale: 0.00390625
  }
  data_param {
    source: "examples/mnist/mnist_train_lmdb"
    batch_size: 64
    backend: LMDB
  }
}
layer {
  name: "conv0"
  type: "Convolution"
  bottom: "data"
  top: "conv0"
  param {
    lr_mult: 1
  }
  param {
    lr_mult: 2
  }
  convolution_param {
    num_output: 25
    kernel_size: 5
    stride: 1
    weight_filler {
      type: "xavier"
    }
    bias_filler {
      type: "constant"
    }
  }
}
layer {
  name: "pool0"
  type: "Pooling"
  bottom: "conv0"
  top: "pool0"
  pooling_param {
    pool: MAX
    kernel_size: 2
    stride: 2
  }
}
layer {
  name: "conv1"
  type: "Convolution"
  bottom: "pool0"
  top: "conv1"
  param {
    lr_mult: 1
  }
  param {
    lr_mult: 2
  }
  convolution_param {
    num_output: 5
    kernel_size: 5
    stride: 1
    weight_filler {
      type: "xavier"
    }
    bias_filler {
      type: "constant"
    }
  }
}
layer {
  name: "pool1"
  type: "Pooling"
  bottom: "conv1"
  top: "pool1"
  pooling_param {
    pool: MAX
    kernel_size: 2
    stride: 2
  }
}
layer {
  name: "ip1"
  type: "InnerProduct"
  bottom: "pool1"
  top: "ip1"
  param {
    lr_mult: 1
  }
  param {
    lr_mult: 2
  }
  inner_product_param {
    num_output: 10
    weight_filler {
      type: "xavier"
    }
    bias_filler {
      type: "constant"
    }
  }
}
layer {
  name: "relu1"
  type: "ReLU"
  bottom: "ip1"
  top: "ip1"
}
layer {
  name: "ip2"
  type: "InnerProduct"
  bottom: "ip1"
  top: "ip2"
  param {
    lr_mult: 1
  }
  param {
    lr_mult: 2
  }
  inner_product_param {
    num_output: 10
    weight_filler {
      type: "xavier"
    }
    bias_filler {
      type: "constant"
    }
  }
}
layer {
  name: "relu2"
  type: "ReLU"
  bottom: "ip2"
  top: "ip2"
}
layer {
  name: "ip3"
  type: "InnerProduct"
  bottom: "ip2"
  top: "ip3"
  param {
    lr_mult: 1
  }
  param {
    lr_mult: 2
  }
  inner_product_param {
    num_output: 10
    weight_filler {
      type: "xavier"
    }
    bias_filler {
      type: "constant"
    }
  }
}
layer {
  name: "relu3"
  type: "ReLU"
  bottom: "ip3"
  top: "ip3"
}
layer {
  name: "loss"
  type: "SoftmaxWithLoss"
  bottom: "ip3"
  bottom: "label"
  top: "loss"
}
I0428 20:06:23.122834 30858 layer_factory.hpp:77] Creating layer mnist
I0428 20:06:23.122947 30858 db_lmdb.cpp:35] Opened lmdb examples/mnist/mnist_train_lmdb
I0428 20:06:23.122975 30858 net.cpp:86] Creating Layer mnist
I0428 20:06:23.122983 30858 net.cpp:382] mnist -> data
I0428 20:06:23.123010 30858 net.cpp:382] mnist -> label
I0428 20:06:23.124114 30858 data_layer.cpp:45] output data size: 64,1,28,28
I0428 20:06:23.126600 30858 net.cpp:124] Setting up mnist
I0428 20:06:23.126618 30858 net.cpp:131] Top shape: 64 1 28 28 (50176)
I0428 20:06:23.126626 30858 net.cpp:131] Top shape: 64 (64)
I0428 20:06:23.126629 30858 net.cpp:139] Memory required for data: 200960
I0428 20:06:23.126636 30858 layer_factory.hpp:77] Creating layer conv0
I0428 20:06:23.126652 30858 net.cpp:86] Creating Layer conv0
I0428 20:06:23.126672 30858 net.cpp:408] conv0 <- data
I0428 20:06:23.126687 30858 net.cpp:382] conv0 -> conv0
I0428 20:06:23.413552 30858 net.cpp:124] Setting up conv0
I0428 20:06:23.413580 30858 net.cpp:131] Top shape: 64 25 24 24 (921600)
I0428 20:06:23.413584 30858 net.cpp:139] Memory required for data: 3887360
I0428 20:06:23.413600 30858 layer_factory.hpp:77] Creating layer pool0
I0428 20:06:23.413614 30858 net.cpp:86] Creating Layer pool0
I0428 20:06:23.413617 30858 net.cpp:408] pool0 <- conv0
I0428 20:06:23.413624 30858 net.cpp:382] pool0 -> pool0
I0428 20:06:23.413668 30858 net.cpp:124] Setting up pool0
I0428 20:06:23.413674 30858 net.cpp:131] Top shape: 64 25 12 12 (230400)
I0428 20:06:23.413677 30858 net.cpp:139] Memory required for data: 4808960
I0428 20:06:23.413681 30858 layer_factory.hpp:77] Creating layer conv1
I0428 20:06:23.413691 30858 net.cpp:86] Creating Layer conv1
I0428 20:06:23.413694 30858 net.cpp:408] conv1 <- pool0
I0428 20:06:23.413699 30858 net.cpp:382] conv1 -> conv1
I0428 20:06:23.416456 30858 net.cpp:124] Setting up conv1
I0428 20:06:23.416471 30858 net.cpp:131] Top shape: 64 5 8 8 (20480)
I0428 20:06:23.416476 30858 net.cpp:139] Memory required for data: 4890880
I0428 20:06:23.416484 30858 layer_factory.hpp:77] Creating layer pool1
I0428 20:06:23.416492 30858 net.cpp:86] Creating Layer pool1
I0428 20:06:23.416496 30858 net.cpp:408] pool1 <- conv1
I0428 20:06:23.416501 30858 net.cpp:382] pool1 -> pool1
I0428 20:06:23.416538 30858 net.cpp:124] Setting up pool1
I0428 20:06:23.416544 30858 net.cpp:131] Top shape: 64 5 4 4 (5120)
I0428 20:06:23.416548 30858 net.cpp:139] Memory required for data: 4911360
I0428 20:06:23.416550 30858 layer_factory.hpp:77] Creating layer ip1
I0428 20:06:23.416558 30858 net.cpp:86] Creating Layer ip1
I0428 20:06:23.416560 30858 net.cpp:408] ip1 <- pool1
I0428 20:06:23.416565 30858 net.cpp:382] ip1 -> ip1
I0428 20:06:23.416664 30858 net.cpp:124] Setting up ip1
I0428 20:06:23.416671 30858 net.cpp:131] Top shape: 64 10 (640)
I0428 20:06:23.416676 30858 net.cpp:139] Memory required for data: 4913920
I0428 20:06:23.416682 30858 layer_factory.hpp:77] Creating layer relu1
I0428 20:06:23.416688 30858 net.cpp:86] Creating Layer relu1
I0428 20:06:23.416692 30858 net.cpp:408] relu1 <- ip1
I0428 20:06:23.416695 30858 net.cpp:369] relu1 -> ip1 (in-place)
I0428 20:06:23.416887 30858 net.cpp:124] Setting up relu1
I0428 20:06:23.416898 30858 net.cpp:131] Top shape: 64 10 (640)
I0428 20:06:23.416900 30858 net.cpp:139] Memory required for data: 4916480
I0428 20:06:23.416904 30858 layer_factory.hpp:77] Creating layer ip2
I0428 20:06:23.416910 30858 net.cpp:86] Creating Layer ip2
I0428 20:06:23.416914 30858 net.cpp:408] ip2 <- ip1
I0428 20:06:23.416919 30858 net.cpp:382] ip2 -> ip2
I0428 20:06:23.417032 30858 net.cpp:124] Setting up ip2
I0428 20:06:23.417039 30858 net.cpp:131] Top shape: 64 10 (640)
I0428 20:06:23.417042 30858 net.cpp:139] Memory required for data: 4919040
I0428 20:06:23.417048 30858 layer_factory.hpp:77] Creating layer relu2
I0428 20:06:23.417054 30858 net.cpp:86] Creating Layer relu2
I0428 20:06:23.417057 30858 net.cpp:408] relu2 <- ip2
I0428 20:06:23.417062 30858 net.cpp:369] relu2 -> ip2 (in-place)
I0428 20:06:23.417793 30858 net.cpp:124] Setting up relu2
I0428 20:06:23.417805 30858 net.cpp:131] Top shape: 64 10 (640)
I0428 20:06:23.417809 30858 net.cpp:139] Memory required for data: 4921600
I0428 20:06:23.417812 30858 layer_factory.hpp:77] Creating layer ip3
I0428 20:06:23.417821 30858 net.cpp:86] Creating Layer ip3
I0428 20:06:23.417829 30858 net.cpp:408] ip3 <- ip2
I0428 20:06:23.417835 30858 net.cpp:382] ip3 -> ip3
I0428 20:06:23.417934 30858 net.cpp:124] Setting up ip3
I0428 20:06:23.417943 30858 net.cpp:131] Top shape: 64 10 (640)
I0428 20:06:23.417945 30858 net.cpp:139] Memory required for data: 4924160
I0428 20:06:23.417954 30858 layer_factory.hpp:77] Creating layer relu3
I0428 20:06:23.417959 30858 net.cpp:86] Creating Layer relu3
I0428 20:06:23.417963 30858 net.cpp:408] relu3 <- ip3
I0428 20:06:23.417966 30858 net.cpp:369] relu3 -> ip3 (in-place)
I0428 20:06:23.418140 30858 net.cpp:124] Setting up relu3
I0428 20:06:23.418150 30858 net.cpp:131] Top shape: 64 10 (640)
I0428 20:06:23.418154 30858 net.cpp:139] Memory required for data: 4926720
I0428 20:06:23.418156 30858 layer_factory.hpp:77] Creating layer loss
I0428 20:06:23.418162 30858 net.cpp:86] Creating Layer loss
I0428 20:06:23.418166 30858 net.cpp:408] loss <- ip3
I0428 20:06:23.418170 30858 net.cpp:408] loss <- label
I0428 20:06:23.418175 30858 net.cpp:382] loss -> loss
I0428 20:06:23.418195 30858 layer_factory.hpp:77] Creating layer loss
…
I0428 20:06:23.418841 30858 solver.cpp:173] Creating test net (#0) specified by net file: ECE595/mnist/train_test/var_everything2/lenet_train_test1026.prototxt
I0428 20:06:23.418869 30858 net.cpp:296] The NetState phase (1) differed from the phase (0) specified by a rule in layer mnist
I0428 20:06:23.418979 30858 net.cpp:53] Initializing net from parameters: 
name: "LeNet"
state {
  phase: TEST
}
layer {
  name: "mnist"
  type: "Data"
  top: "data"
  top: "label"
  include {
    phase: TEST
  }
  transform_param {
    scale: 0.00390625
  }
  data_param {
    source: "examples/mnist/mnist_test_lmdb"
    batch_size: 100
    backend: LMDB
  }
}
layer {
  name: "conv0"
  type: "Convolution"
  bottom: "data"
  top: "conv0"
  param {
    lr_mult: 1
  }
  param {
    lr_mult: 2
  }
  convolution_param {
    num_output: 25
    kernel_size: 5
    stride: 1
    weight_filler {
      type: "xavier"
    }
    bias_filler {
      type: "constant"
    }
  }
}
layer {
  name: "pool0"
  type: "Pooling"
  bottom: "conv0"
  top: "pool0"
  pooling_param {
    pool: MAX
    kernel_size: 2
    stride: 2
  }
}
layer {
  name: "conv1"
  type: "Convolution"
  bottom: "pool0"
  top: "conv1"
  param {
    lr_mult: 1
  }
  param {
    lr_mult: 2
  }
  convolution_param {
    num_output: 5
    kernel_size: 5
    stride: 1
    weight_filler {
      type: "xavier"
    }
    bias_filler {
      type: "constant"
    }
  }
}
layer {
  name: "pool1"
  type: "Pooling"
  bottom: "conv1"
  top: "pool1"
  pooling_param {
    pool: MAX
    kernel_size: 2
    stride: 2
  }
}
layer {
  name: "ip1"
  type: "InnerProduct"
  bottom: "pool1"
  top: "ip1"
  param {
    lr_mult: 1
  }
  param {
    lr_mult: 2
  }
  inner_product_param {
    num_output: 10
    weight_filler {
      type: "xavier"
    }
    bias_filler {
      type: "constant"
    }
  }
}
layer {
  name: "relu1"
  type: "ReLU"
  bottom: "ip1"
  top: "ip1"
}
layer {
  name: "ip2"
  type: "InnerProduct"
  bottom: "ip1"
  top: "ip2"
  param {
    lr_mult: 1
  }
  param {
    lr_mult: 2
  }
  inner_product_param {
    num_output: 10
    weight_filler {
      type: "xavier"
    }
    bias_filler {
      type: "constant"
    }
  }
}
layer {
  name: "relu2"
  type: "ReLU"
  bottom: "ip2"
  top: "ip2"
}
layer {
  name: "ip3"
  type: "InnerProduct"
  bottom: "ip2"
  top: "ip3"
  param {
    lr_mult: 1
  }
  param {
    lr_mult: 2
  }
  inner_product_param {
    num_output: 10
    weight_filler {
      type: "xavier"
    }
    bias_filler {
      type: "constant"
    }
  }
}
layer {
  name: "relu3"
  type: "ReLU"
  bottom: "ip3"
  top: "ip3"
}
layer {
  name: "accuracy"
  type: "Accuracy"
  bottom: "ip3"
  bottom: "label"
  top: "accuracy"
  include {
    phase: TEST
  }
}
layer {
  name: "loss"
  type: "SoftmaxWithLoss"
  bottom: "ip3"
  bottom: "label"
  top: "loss"
}
I0428 20:06:23.419083 30858 layer_factory.hpp:77] Creating layer mnist
I0428 20:06:23.419131 30858 db_lmdb.cpp:35] Opened lmdb examples/mnist/mnist_test_lmdb
I0428 20:06:23.419148 30858 net.cpp:86] Creating Layer mnist
I0428 20:06:23.419153 30858 net.cpp:382] mnist -> data
I0428 20:06:23.419162 30858 net.cpp:382] mnist -> label
I0428 20:06:23.419250 30858 data_layer.cpp:45] output data size: 100,1,28,28
I0428 20:06:23.421193 30858 net.cpp:124] Setting up mnist
I0428 20:06:23.421210 30858 net.cpp:131] Top shape: 100 1 28 28 (78400)
I0428 20:06:23.421214 30858 net.cpp:131] Top shape: 100 (100)
I0428 20:06:23.421217 30858 net.cpp:139] Memory required for data: 314000
I0428 20:06:23.421221 30858 layer_factory.hpp:77] Creating layer label_mnist_1_split
I0428 20:06:23.421231 30858 net.cpp:86] Creating Layer label_mnist_1_split
I0428 20:06:23.421234 30858 net.cpp:408] label_mnist_1_split <- label
I0428 20:06:23.421239 30858 net.cpp:382] label_mnist_1_split -> label_mnist_1_split_0
I0428 20:06:23.421245 30858 net.cpp:382] label_mnist_1_split -> label_mnist_1_split_1
I0428 20:06:23.421353 30858 net.cpp:124] Setting up label_mnist_1_split
I0428 20:06:23.421360 30858 net.cpp:131] Top shape: 100 (100)
I0428 20:06:23.421365 30858 net.cpp:131] Top shape: 100 (100)
I0428 20:06:23.421367 30858 net.cpp:139] Memory required for data: 314800
I0428 20:06:23.421370 30858 layer_factory.hpp:77] Creating layer conv0
I0428 20:06:23.421380 30858 net.cpp:86] Creating Layer conv0
I0428 20:06:23.421383 30858 net.cpp:408] conv0 <- data
I0428 20:06:23.421391 30858 net.cpp:382] conv0 -> conv0
I0428 20:06:23.423069 30858 net.cpp:124] Setting up conv0
I0428 20:06:23.423081 30858 net.cpp:131] Top shape: 100 25 24 24 (1440000)
I0428 20:06:23.423085 30858 net.cpp:139] Memory required for data: 6074800
I0428 20:06:23.423094 30858 layer_factory.hpp:77] Creating layer pool0
I0428 20:06:23.423102 30858 net.cpp:86] Creating Layer pool0
I0428 20:06:23.423105 30858 net.cpp:408] pool0 <- conv0
I0428 20:06:23.423110 30858 net.cpp:382] pool0 -> pool0
I0428 20:06:23.423146 30858 net.cpp:124] Setting up pool0
I0428 20:06:23.423151 30858 net.cpp:131] Top shape: 100 25 12 12 (360000)
I0428 20:06:23.423154 30858 net.cpp:139] Memory required for data: 7514800
I0428 20:06:23.423157 30858 layer_factory.hpp:77] Creating layer conv1
I0428 20:06:23.423166 30858 net.cpp:86] Creating Layer conv1
I0428 20:06:23.423169 30858 net.cpp:408] conv1 <- pool0
I0428 20:06:23.423176 30858 net.cpp:382] conv1 -> conv1
I0428 20:06:23.425249 30858 net.cpp:124] Setting up conv1
I0428 20:06:23.425264 30858 net.cpp:131] Top shape: 100 5 8 8 (32000)
I0428 20:06:23.425268 30858 net.cpp:139] Memory required for data: 7642800
I0428 20:06:23.425287 30858 layer_factory.hpp:77] Creating layer pool1
I0428 20:06:23.425297 30858 net.cpp:86] Creating Layer pool1
I0428 20:06:23.425300 30858 net.cpp:408] pool1 <- conv1
I0428 20:06:23.425307 30858 net.cpp:382] pool1 -> pool1
I0428 20:06:23.425346 30858 net.cpp:124] Setting up pool1
I0428 20:06:23.425356 30858 net.cpp:131] Top shape: 100 5 4 4 (8000)
I0428 20:06:23.425359 30858 net.cpp:139] Memory required for data: 7674800
I0428 20:06:23.425361 30858 layer_factory.hpp:77] Creating layer ip1
I0428 20:06:23.425369 30858 net.cpp:86] Creating Layer ip1
I0428 20:06:23.425372 30858 net.cpp:408] ip1 <- pool1
I0428 20:06:23.425376 30858 net.cpp:382] ip1 -> ip1
I0428 20:06:23.425524 30858 net.cpp:124] Setting up ip1
I0428 20:06:23.425532 30858 net.cpp:131] Top shape: 100 10 (1000)
I0428 20:06:23.425546 30858 net.cpp:139] Memory required for data: 7678800
I0428 20:06:23.425554 30858 layer_factory.hpp:77] Creating layer relu1
I0428 20:06:23.425561 30858 net.cpp:86] Creating Layer relu1
I0428 20:06:23.425565 30858 net.cpp:408] relu1 <- ip1
I0428 20:06:23.425570 30858 net.cpp:369] relu1 -> ip1 (in-place)
I0428 20:06:23.425796 30858 net.cpp:124] Setting up relu1
I0428 20:06:23.425806 30858 net.cpp:131] Top shape: 100 10 (1000)
I0428 20:06:23.425809 30858 net.cpp:139] Memory required for data: 7682800
I0428 20:06:23.425817 30858 layer_factory.hpp:77] Creating layer ip2
I0428 20:06:23.425827 30858 net.cpp:86] Creating Layer ip2
I0428 20:06:23.425829 30858 net.cpp:408] ip2 <- ip1
I0428 20:06:23.425843 30858 net.cpp:382] ip2 -> ip2
I0428 20:06:23.425946 30858 net.cpp:124] Setting up ip2
I0428 20:06:23.425953 30858 net.cpp:131] Top shape: 100 10 (1000)
I0428 20:06:23.425956 30858 net.cpp:139] Memory required for data: 7686800
I0428 20:06:23.425961 30858 layer_factory.hpp:77] Creating layer relu2
I0428 20:06:23.425966 30858 net.cpp:86] Creating Layer relu2
I0428 20:06:23.425969 30858 net.cpp:408] relu2 <- ip2
I0428 20:06:23.425973 30858 net.cpp:369] relu2 -> ip2 (in-place)
I0428 20:06:23.426129 30858 net.cpp:124] Setting up relu2
I0428 20:06:23.426137 30858 net.cpp:131] Top shape: 100 10 (1000)
I0428 20:06:23.426141 30858 net.cpp:139] Memory required for data: 7690800
I0428 20:06:23.426143 30858 layer_factory.hpp:77] Creating layer ip3
I0428 20:06:23.426148 30858 net.cpp:86] Creating Layer ip3
I0428 20:06:23.426151 30858 net.cpp:408] ip3 <- ip2
I0428 20:06:23.426157 30858 net.cpp:382] ip3 -> ip3
I0428 20:06:23.426251 30858 net.cpp:124] Setting up ip3
I0428 20:06:23.426259 30858 net.cpp:131] Top shape: 100 10 (1000)
I0428 20:06:23.426261 30858 net.cpp:139] Memory required for data: 7694800
I0428 20:06:23.426270 30858 layer_factory.hpp:77] Creating layer relu3
I0428 20:06:23.426275 30858 net.cpp:86] Creating Layer relu3
I0428 20:06:23.426278 30858 net.cpp:408] relu3 <- ip3
I0428 20:06:23.426282 30858 net.cpp:369] relu3 -> ip3 (in-place)
I0428 20:06:23.427088 30858 net.cpp:124] Setting up relu3
I0428 20:06:23.427100 30858 net.cpp:131] Top shape: 100 10 (1000)
I0428 20:06:23.427103 30858 net.cpp:139] Memory required for data: 7698800
I0428 20:06:23.427106 30858 layer_factory.hpp:77] Creating layer ip3_relu3_0_split
I0428 20:06:23.427111 30858 net.cpp:86] Creating Layer ip3_relu3_0_split
I0428 20:06:23.427115 30858 net.cpp:408] ip3_relu3_0_split <- ip3
I0428 20:06:23.427121 30858 net.cpp:382] ip3_relu3_0_split -> ip3_relu3_0_split_0
I0428 20:06:23.427126 30858 net.cpp:382] ip3_relu3_0_split -> ip3_relu3_0_split_1
I0428 20:06:23.427175 30858 net.cpp:124] Setting up ip3_relu3_0_split
I0428 20:06:23.427181 30858 net.cpp:131] Top shape: 100 10 (1000)
I0428 20:06:23.427186 30858 net.cpp:131] Top shape: 100 10 (1000)
I0428 20:06:23.427188 30858 net.cpp:139] Memory required for data: 7706800
I0428 20:06:23.427191 30858 layer_factory.hpp:77] Creating layer accuracy
I0428 20:06:23.427196 30858 net.cpp:86] Creating Layer accuracy
I0428 20:06:23.427199 30858 net.cpp:408] accuracy <- ip3_relu3_0_split_0
I0428 20:06:23.427203 30858 net.cpp:408] accuracy <- label_mnist_1_split_0
I0428 20:06:23.427209 30858 net.cpp:382] accuracy -> accuracy
…
