…
I0428 20:30:13.650655  3691 net.cpp:296] The NetState phase (0) differed from the phase (1) specified by a rule in layer mnist
I0428 20:30:13.650674  3691 net.cpp:296] The NetState phase (0) differed from the phase (1) specified by a rule in layer accuracy
I0428 20:30:13.650776  3691 net.cpp:53] Initializing net from parameters: 
name: "LeNet"
state {
  phase: TRAIN
  level: 0
  stage: ""
}
layer {
  name: "mnist"
  type: "Data"
  top: "data"
  top: "label"
  include {
    phase: TRAIN
  }
  transform_param {
    scale: 0.00390625
  }
  data_param {
    source: "examples/mnist/mnist_train_lmdb"
    batch_size: 64
    backend: LMDB
  }
}
layer {
  name: "conv0"
  type: "Convolution"
  bottom: "data"
  top: "conv0"
  param {
    lr_mult: 1
  }
  param {
    lr_mult: 2
  }
  convolution_param {
    num_output: 100
    kernel_size: 5
    stride: 1
    weight_filler {
      type: "xavier"
    }
    bias_filler {
      type: "constant"
    }
  }
}
layer {
  name: "pool0"
  type: "Pooling"
  bottom: "conv0"
  top: "pool0"
  pooling_param {
    pool: MAX
    kernel_size: 2
    stride: 2
  }
}
layer {
  name: "conv1"
  type: "Convolution"
  bottom: "pool0"
  top: "conv1"
  param {
    lr_mult: 1
  }
  param {
    lr_mult: 2
  }
  convolution_param {
    num_output: 10
    kernel_size: 5
    stride: 1
    weight_filler {
      type: "xavier"
    }
    bias_filler {
      type: "constant"
    }
  }
}
layer {
  name: "pool1"
  type: "Pooling"
  bottom: "conv1"
  top: "pool1"
  pooling_param {
    pool: MAX
    kernel_size: 2
    stride: 2
  }
}
layer {
  name: "ip1"
  type: "InnerProduct"
  bottom: "pool1"
  top: "ip1"
  param {
    lr_mult: 1
  }
  param {
    lr_mult: 2
  }
  inner_product_param {
    num_output: 10
    weight_filler {
      type: "xavier"
    }
    bias_filler {
      type: "constant"
    }
  }
}
layer {
  name: "relu1"
  type: "ReLU"
  bottom: "ip1"
  top: "ip1"
}
layer {
  name: "ip2"
  type: "InnerProduct"
  bottom: "ip1"
  top: "ip2"
  param {
    lr_mult: 1
  }
  param {
    lr_mult: 2
  }
  inner_product_param {
    num_output: 10
    weight_filler {
      type: "xavier"
    }
    bias_filler {
      type: "constant"
    }
  }
}
layer {
  name: "relu2"
  type: "ReLU"
  bottom: "ip2"
  top: "ip2"
}
layer {
  name: "ip3"
  type: "InnerProduct"
  bottom: "ip2"
  top: "ip3"
  param {
    lr_mult: 1
  }
  param {
    lr_mult: 2
  }
  inner_product_param {
    num_output: 10
    weight_filler {
      type: "xavier"
    }
    bias_filler {
      type: "constant"
    }
  }
}
layer {
  name: "relu3"
  type: "ReLU"
  bottom: "ip3"
  top: "ip3"
}
layer {
  name: "loss"
  type: "SoftmaxWithLoss"
  bottom: "ip3"
  bottom: "label"
  top: "loss"
}
I0428 20:30:13.650856  3691 layer_factory.hpp:77] Creating layer mnist
I0428 20:30:13.650954  3691 db_lmdb.cpp:35] Opened lmdb examples/mnist/mnist_train_lmdb
I0428 20:30:13.650976  3691 net.cpp:86] Creating Layer mnist
I0428 20:30:13.650985  3691 net.cpp:382] mnist -> data
I0428 20:30:13.651007  3691 net.cpp:382] mnist -> label
I0428 20:30:13.652099  3691 data_layer.cpp:45] output data size: 64,1,28,28
I0428 20:30:13.654570  3691 net.cpp:124] Setting up mnist
I0428 20:30:13.654588  3691 net.cpp:131] Top shape: 64 1 28 28 (50176)
I0428 20:30:13.654595  3691 net.cpp:131] Top shape: 64 (64)
I0428 20:30:13.654599  3691 net.cpp:139] Memory required for data: 200960
I0428 20:30:13.654606  3691 layer_factory.hpp:77] Creating layer conv0
I0428 20:30:13.654624  3691 net.cpp:86] Creating Layer conv0
I0428 20:30:13.654645  3691 net.cpp:408] conv0 <- data
I0428 20:30:13.654659  3691 net.cpp:382] conv0 -> conv0
I0428 20:30:13.944631  3691 net.cpp:124] Setting up conv0
I0428 20:30:13.944665  3691 net.cpp:131] Top shape: 64 100 24 24 (3686400)
I0428 20:30:13.944670  3691 net.cpp:139] Memory required for data: 14946560
I0428 20:30:13.944689  3691 layer_factory.hpp:77] Creating layer pool0
I0428 20:30:13.944705  3691 net.cpp:86] Creating Layer pool0
I0428 20:30:13.944710  3691 net.cpp:408] pool0 <- conv0
I0428 20:30:13.944715  3691 net.cpp:382] pool0 -> pool0
I0428 20:30:13.944777  3691 net.cpp:124] Setting up pool0
I0428 20:30:13.944793  3691 net.cpp:131] Top shape: 64 100 12 12 (921600)
I0428 20:30:13.944797  3691 net.cpp:139] Memory required for data: 18632960
I0428 20:30:13.944802  3691 layer_factory.hpp:77] Creating layer conv1
I0428 20:30:13.944821  3691 net.cpp:86] Creating Layer conv1
I0428 20:30:13.944825  3691 net.cpp:408] conv1 <- pool0
I0428 20:30:13.944833  3691 net.cpp:382] conv1 -> conv1
I0428 20:30:13.947145  3691 net.cpp:124] Setting up conv1
I0428 20:30:13.947162  3691 net.cpp:131] Top shape: 64 10 8 8 (40960)
I0428 20:30:13.947167  3691 net.cpp:139] Memory required for data: 18796800
I0428 20:30:13.947178  3691 layer_factory.hpp:77] Creating layer pool1
I0428 20:30:13.947187  3691 net.cpp:86] Creating Layer pool1
I0428 20:30:13.947191  3691 net.cpp:408] pool1 <- conv1
I0428 20:30:13.947197  3691 net.cpp:382] pool1 -> pool1
I0428 20:30:13.947242  3691 net.cpp:124] Setting up pool1
I0428 20:30:13.947248  3691 net.cpp:131] Top shape: 64 10 4 4 (10240)
I0428 20:30:13.947252  3691 net.cpp:139] Memory required for data: 18837760
I0428 20:30:13.947255  3691 layer_factory.hpp:77] Creating layer ip1
I0428 20:30:13.947268  3691 net.cpp:86] Creating Layer ip1
I0428 20:30:13.947273  3691 net.cpp:408] ip1 <- pool1
I0428 20:30:13.947278  3691 net.cpp:382] ip1 -> ip1
I0428 20:30:13.947407  3691 net.cpp:124] Setting up ip1
I0428 20:30:13.947415  3691 net.cpp:131] Top shape: 64 10 (640)
I0428 20:30:13.947419  3691 net.cpp:139] Memory required for data: 18840320
I0428 20:30:13.947427  3691 layer_factory.hpp:77] Creating layer relu1
I0428 20:30:13.947434  3691 net.cpp:86] Creating Layer relu1
I0428 20:30:13.947438  3691 net.cpp:408] relu1 <- ip1
I0428 20:30:13.947443  3691 net.cpp:369] relu1 -> ip1 (in-place)
I0428 20:30:13.947640  3691 net.cpp:124] Setting up relu1
I0428 20:30:13.947651  3691 net.cpp:131] Top shape: 64 10 (640)
I0428 20:30:13.947654  3691 net.cpp:139] Memory required for data: 18842880
I0428 20:30:13.947659  3691 layer_factory.hpp:77] Creating layer ip2
I0428 20:30:13.947666  3691 net.cpp:86] Creating Layer ip2
I0428 20:30:13.947670  3691 net.cpp:408] ip2 <- ip1
I0428 20:30:13.947675  3691 net.cpp:382] ip2 -> ip2
I0428 20:30:13.947787  3691 net.cpp:124] Setting up ip2
I0428 20:30:13.947795  3691 net.cpp:131] Top shape: 64 10 (640)
I0428 20:30:13.947798  3691 net.cpp:139] Memory required for data: 18845440
I0428 20:30:13.947805  3691 layer_factory.hpp:77] Creating layer relu2
I0428 20:30:13.947813  3691 net.cpp:86] Creating Layer relu2
I0428 20:30:13.947816  3691 net.cpp:408] relu2 <- ip2
I0428 20:30:13.947820  3691 net.cpp:369] relu2 -> ip2 (in-place)
I0428 20:30:13.948669  3691 net.cpp:124] Setting up relu2
I0428 20:30:13.948684  3691 net.cpp:131] Top shape: 64 10 (640)
I0428 20:30:13.948688  3691 net.cpp:139] Memory required for data: 18848000
I0428 20:30:13.948693  3691 layer_factory.hpp:77] Creating layer ip3
I0428 20:30:13.948701  3691 net.cpp:86] Creating Layer ip3
I0428 20:30:13.948705  3691 net.cpp:408] ip3 <- ip2
I0428 20:30:13.948711  3691 net.cpp:382] ip3 -> ip3
I0428 20:30:13.948837  3691 net.cpp:124] Setting up ip3
I0428 20:30:13.948848  3691 net.cpp:131] Top shape: 64 10 (640)
I0428 20:30:13.948851  3691 net.cpp:139] Memory required for data: 18850560
I0428 20:30:13.948860  3691 layer_factory.hpp:77] Creating layer relu3
I0428 20:30:13.948868  3691 net.cpp:86] Creating Layer relu3
I0428 20:30:13.948870  3691 net.cpp:408] relu3 <- ip3
I0428 20:30:13.948875  3691 net.cpp:369] relu3 -> ip3 (in-place)
I0428 20:30:13.949077  3691 net.cpp:124] Setting up relu3
I0428 20:30:13.949089  3691 net.cpp:131] Top shape: 64 10 (640)
I0428 20:30:13.949092  3691 net.cpp:139] Memory required for data: 18853120
I0428 20:30:13.949096  3691 layer_factory.hpp:77] Creating layer loss
I0428 20:30:13.949105  3691 net.cpp:86] Creating Layer loss
I0428 20:30:13.949108  3691 net.cpp:408] loss <- ip3
I0428 20:30:13.949112  3691 net.cpp:408] loss <- label
I0428 20:30:13.949120  3691 net.cpp:382] loss -> loss
I0428 20:30:13.949139  3691 layer_factory.hpp:77] Creating layer loss
…
I0428 20:30:13.949887  3691 solver.cpp:173] Creating test net (#0) specified by net file: ECE595/mnist/train_test/var_everything2/lenet_train_test1535.prototxt
I0428 20:30:13.949920  3691 net.cpp:296] The NetState phase (1) differed from the phase (0) specified by a rule in layer mnist
I0428 20:30:13.950033  3691 net.cpp:53] Initializing net from parameters: 
name: "LeNet"
state {
  phase: TEST
}
layer {
  name: "mnist"
  type: "Data"
  top: "data"
  top: "label"
  include {
    phase: TEST
  }
  transform_param {
    scale: 0.00390625
  }
  data_param {
    source: "examples/mnist/mnist_test_lmdb"
    batch_size: 100
    backend: LMDB
  }
}
layer {
  name: "conv0"
  type: "Convolution"
  bottom: "data"
  top: "conv0"
  param {
    lr_mult: 1
  }
  param {
    lr_mult: 2
  }
  convolution_param {
    num_output: 100
    kernel_size: 5
    stride: 1
    weight_filler {
      type: "xavier"
    }
    bias_filler {
      type: "constant"
    }
  }
}
layer {
  name: "pool0"
  type: "Pooling"
  bottom: "conv0"
  top: "pool0"
  pooling_param {
    pool: MAX
    kernel_size: 2
    stride: 2
  }
}
layer {
  name: "conv1"
  type: "Convolution"
  bottom: "pool0"
  top: "conv1"
  param {
    lr_mult: 1
  }
  param {
    lr_mult: 2
  }
  convolution_param {
    num_output: 10
    kernel_size: 5
    stride: 1
    weight_filler {
      type: "xavier"
    }
    bias_filler {
      type: "constant"
    }
  }
}
layer {
  name: "pool1"
  type: "Pooling"
  bottom: "conv1"
  top: "pool1"
  pooling_param {
    pool: MAX
    kernel_size: 2
    stride: 2
  }
}
layer {
  name: "ip1"
  type: "InnerProduct"
  bottom: "pool1"
  top: "ip1"
  param {
    lr_mult: 1
  }
  param {
    lr_mult: 2
  }
  inner_product_param {
    num_output: 10
    weight_filler {
      type: "xavier"
    }
    bias_filler {
      type: "constant"
    }
  }
}
layer {
  name: "relu1"
  type: "ReLU"
  bottom: "ip1"
  top: "ip1"
}
layer {
  name: "ip2"
  type: "InnerProduct"
  bottom: "ip1"
  top: "ip2"
  param {
    lr_mult: 1
  }
  param {
    lr_mult: 2
  }
  inner_product_param {
    num_output: 10
    weight_filler {
      type: "xavier"
    }
    bias_filler {
      type: "constant"
    }
  }
}
layer {
  name: "relu2"
  type: "ReLU"
  bottom: "ip2"
  top: "ip2"
}
layer {
  name: "ip3"
  type: "InnerProduct"
  bottom: "ip2"
  top: "ip3"
  param {
    lr_mult: 1
  }
  param {
    lr_mult: 2
  }
  inner_product_param {
    num_output: 10
    weight_filler {
      type: "xavier"
    }
    bias_filler {
      type: "constant"
    }
  }
}
layer {
  name: "relu3"
  type: "ReLU"
  bottom: "ip3"
  top: "ip3"
}
layer {
  name: "accuracy"
  type: "Accuracy"
  bottom: "ip3"
  bottom: "label"
  top: "accuracy"
  include {
    phase: TEST
  }
}
layer {
  name: "loss"
  type: "SoftmaxWithLoss"
  bottom: "ip3"
  bottom: "label"
  top: "loss"
}
I0428 20:30:13.950134  3691 layer_factory.hpp:77] Creating layer mnist
I0428 20:30:13.950186  3691 db_lmdb.cpp:35] Opened lmdb examples/mnist/mnist_test_lmdb
I0428 20:30:13.950201  3691 net.cpp:86] Creating Layer mnist
I0428 20:30:13.950207  3691 net.cpp:382] mnist -> data
I0428 20:30:13.950217  3691 net.cpp:382] mnist -> label
I0428 20:30:13.950325  3691 data_layer.cpp:45] output data size: 100,1,28,28
I0428 20:30:13.952517  3691 net.cpp:124] Setting up mnist
I0428 20:30:13.952533  3691 net.cpp:131] Top shape: 100 1 28 28 (78400)
I0428 20:30:13.952539  3691 net.cpp:131] Top shape: 100 (100)
I0428 20:30:13.952543  3691 net.cpp:139] Memory required for data: 314000
I0428 20:30:13.952546  3691 layer_factory.hpp:77] Creating layer label_mnist_1_split
I0428 20:30:13.952560  3691 net.cpp:86] Creating Layer label_mnist_1_split
I0428 20:30:13.952564  3691 net.cpp:408] label_mnist_1_split <- label
I0428 20:30:13.952602  3691 net.cpp:382] label_mnist_1_split -> label_mnist_1_split_0
I0428 20:30:13.952612  3691 net.cpp:382] label_mnist_1_split -> label_mnist_1_split_1
I0428 20:30:13.952729  3691 net.cpp:124] Setting up label_mnist_1_split
I0428 20:30:13.952739  3691 net.cpp:131] Top shape: 100 (100)
I0428 20:30:13.952742  3691 net.cpp:131] Top shape: 100 (100)
I0428 20:30:13.952745  3691 net.cpp:139] Memory required for data: 314800
I0428 20:30:13.952749  3691 layer_factory.hpp:77] Creating layer conv0
I0428 20:30:13.952760  3691 net.cpp:86] Creating Layer conv0
I0428 20:30:13.952764  3691 net.cpp:408] conv0 <- data
I0428 20:30:13.952771  3691 net.cpp:382] conv0 -> conv0
I0428 20:30:13.954639  3691 net.cpp:124] Setting up conv0
I0428 20:30:13.954660  3691 net.cpp:131] Top shape: 100 100 24 24 (5760000)
I0428 20:30:13.954664  3691 net.cpp:139] Memory required for data: 23354800
I0428 20:30:13.954675  3691 layer_factory.hpp:77] Creating layer pool0
I0428 20:30:13.954684  3691 net.cpp:86] Creating Layer pool0
I0428 20:30:13.954687  3691 net.cpp:408] pool0 <- conv0
I0428 20:30:13.954694  3691 net.cpp:382] pool0 -> pool0
I0428 20:30:13.954737  3691 net.cpp:124] Setting up pool0
I0428 20:30:13.954744  3691 net.cpp:131] Top shape: 100 100 12 12 (1440000)
I0428 20:30:13.954747  3691 net.cpp:139] Memory required for data: 29114800
I0428 20:30:13.954751  3691 layer_factory.hpp:77] Creating layer conv1
I0428 20:30:13.954763  3691 net.cpp:86] Creating Layer conv1
I0428 20:30:13.954767  3691 net.cpp:408] conv1 <- pool0
I0428 20:30:13.954773  3691 net.cpp:382] conv1 -> conv1
I0428 20:30:13.956782  3691 net.cpp:124] Setting up conv1
I0428 20:30:13.956799  3691 net.cpp:131] Top shape: 100 10 8 8 (64000)
I0428 20:30:13.956804  3691 net.cpp:139] Memory required for data: 29370800
I0428 20:30:13.956825  3691 layer_factory.hpp:77] Creating layer pool1
I0428 20:30:13.956833  3691 net.cpp:86] Creating Layer pool1
I0428 20:30:13.956837  3691 net.cpp:408] pool1 <- conv1
I0428 20:30:13.956843  3691 net.cpp:382] pool1 -> pool1
I0428 20:30:13.956890  3691 net.cpp:124] Setting up pool1
I0428 20:30:13.956897  3691 net.cpp:131] Top shape: 100 10 4 4 (16000)
I0428 20:30:13.956902  3691 net.cpp:139] Memory required for data: 29434800
I0428 20:30:13.956904  3691 layer_factory.hpp:77] Creating layer ip1
I0428 20:30:13.956912  3691 net.cpp:86] Creating Layer ip1
I0428 20:30:13.956915  3691 net.cpp:408] ip1 <- pool1
I0428 20:30:13.956921  3691 net.cpp:382] ip1 -> ip1
I0428 20:30:13.957051  3691 net.cpp:124] Setting up ip1
I0428 20:30:13.957062  3691 net.cpp:131] Top shape: 100 10 (1000)
I0428 20:30:13.957077  3691 net.cpp:139] Memory required for data: 29438800
I0428 20:30:13.957087  3691 layer_factory.hpp:77] Creating layer relu1
I0428 20:30:13.957094  3691 net.cpp:86] Creating Layer relu1
I0428 20:30:13.957098  3691 net.cpp:408] relu1 <- ip1
I0428 20:30:13.957113  3691 net.cpp:369] relu1 -> ip1 (in-place)
I0428 20:30:13.957310  3691 net.cpp:124] Setting up relu1
I0428 20:30:13.957330  3691 net.cpp:131] Top shape: 100 10 (1000)
I0428 20:30:13.957334  3691 net.cpp:139] Memory required for data: 29442800
I0428 20:30:13.957339  3691 layer_factory.hpp:77] Creating layer ip2
I0428 20:30:13.957347  3691 net.cpp:86] Creating Layer ip2
I0428 20:30:13.957351  3691 net.cpp:408] ip2 <- ip1
I0428 20:30:13.957357  3691 net.cpp:382] ip2 -> ip2
I0428 20:30:13.957473  3691 net.cpp:124] Setting up ip2
I0428 20:30:13.957481  3691 net.cpp:131] Top shape: 100 10 (1000)
I0428 20:30:13.957485  3691 net.cpp:139] Memory required for data: 29446800
I0428 20:30:13.957492  3691 layer_factory.hpp:77] Creating layer relu2
I0428 20:30:13.957499  3691 net.cpp:86] Creating Layer relu2
I0428 20:30:13.957504  3691 net.cpp:408] relu2 <- ip2
I0428 20:30:13.957509  3691 net.cpp:369] relu2 -> ip2 (in-place)
I0428 20:30:13.957715  3691 net.cpp:124] Setting up relu2
I0428 20:30:13.957726  3691 net.cpp:131] Top shape: 100 10 (1000)
I0428 20:30:13.957728  3691 net.cpp:139] Memory required for data: 29450800
I0428 20:30:13.957732  3691 layer_factory.hpp:77] Creating layer ip3
I0428 20:30:13.957741  3691 net.cpp:86] Creating Layer ip3
I0428 20:30:13.957743  3691 net.cpp:408] ip3 <- ip2
I0428 20:30:13.957751  3691 net.cpp:382] ip3 -> ip3
I0428 20:30:13.957880  3691 net.cpp:124] Setting up ip3
I0428 20:30:13.957890  3691 net.cpp:131] Top shape: 100 10 (1000)
I0428 20:30:13.957893  3691 net.cpp:139] Memory required for data: 29454800
I0428 20:30:13.957902  3691 layer_factory.hpp:77] Creating layer relu3
I0428 20:30:13.957907  3691 net.cpp:86] Creating Layer relu3
I0428 20:30:13.957911  3691 net.cpp:408] relu3 <- ip3
I0428 20:30:13.957916  3691 net.cpp:369] relu3 -> ip3 (in-place)
I0428 20:30:13.958844  3691 net.cpp:124] Setting up relu3
I0428 20:30:13.958861  3691 net.cpp:131] Top shape: 100 10 (1000)
I0428 20:30:13.958865  3691 net.cpp:139] Memory required for data: 29458800
I0428 20:30:13.958869  3691 layer_factory.hpp:77] Creating layer ip3_relu3_0_split
I0428 20:30:13.958876  3691 net.cpp:86] Creating Layer ip3_relu3_0_split
I0428 20:30:13.958880  3691 net.cpp:408] ip3_relu3_0_split <- ip3
I0428 20:30:13.958887  3691 net.cpp:382] ip3_relu3_0_split -> ip3_relu3_0_split_0
I0428 20:30:13.958894  3691 net.cpp:382] ip3_relu3_0_split -> ip3_relu3_0_split_1
I0428 20:30:13.958940  3691 net.cpp:124] Setting up ip3_relu3_0_split
I0428 20:30:13.958956  3691 net.cpp:131] Top shape: 100 10 (1000)
I0428 20:30:13.958961  3691 net.cpp:131] Top shape: 100 10 (1000)
I0428 20:30:13.958964  3691 net.cpp:139] Memory required for data: 29466800
I0428 20:30:13.958967  3691 layer_factory.hpp:77] Creating layer accuracy
I0428 20:30:13.958983  3691 net.cpp:86] Creating Layer accuracy
I0428 20:30:13.958987  3691 net.cpp:408] accuracy <- ip3_relu3_0_split_0
I0428 20:30:13.958992  3691 net.cpp:408] accuracy <- label_mnist_1_split_0
I0428 20:30:13.958997  3691 net.cpp:382] accuracy -> accuracy
…
