…
I0428 20:10:06.602562 31768 net.cpp:296] The NetState phase (0) differed from the phase (1) specified by a rule in layer mnist
I0428 20:10:06.602581 31768 net.cpp:296] The NetState phase (0) differed from the phase (1) specified by a rule in layer accuracy
I0428 20:10:06.602684 31768 net.cpp:53] Initializing net from parameters: 
name: "LeNet"
state {
  phase: TRAIN
  level: 0
  stage: ""
}
layer {
  name: "mnist"
  type: "Data"
  top: "data"
  top: "label"
  include {
    phase: TRAIN
  }
  transform_param {
    scale: 0.00390625
  }
  data_param {
    source: "examples/mnist/mnist_train_lmdb"
    batch_size: 64
    backend: LMDB
  }
}
layer {
  name: "conv0"
  type: "Convolution"
  bottom: "data"
  top: "conv0"
  param {
    lr_mult: 1
  }
  param {
    lr_mult: 2
  }
  convolution_param {
    num_output: 25
    kernel_size: 5
    stride: 1
    weight_filler {
      type: "xavier"
    }
    bias_filler {
      type: "constant"
    }
  }
}
layer {
  name: "pool0"
  type: "Pooling"
  bottom: "conv0"
  top: "pool0"
  pooling_param {
    pool: MAX
    kernel_size: 2
    stride: 2
  }
}
layer {
  name: "conv1"
  type: "Convolution"
  bottom: "pool0"
  top: "conv1"
  param {
    lr_mult: 1
  }
  param {
    lr_mult: 2
  }
  convolution_param {
    num_output: 25
    kernel_size: 5
    stride: 1
    weight_filler {
      type: "xavier"
    }
    bias_filler {
      type: "constant"
    }
  }
}
layer {
  name: "pool1"
  type: "Pooling"
  bottom: "conv1"
  top: "pool1"
  pooling_param {
    pool: MAX
    kernel_size: 2
    stride: 2
  }
}
layer {
  name: "ip1"
  type: "InnerProduct"
  bottom: "pool1"
  top: "ip1"
  param {
    lr_mult: 1
  }
  param {
    lr_mult: 2
  }
  inner_product_param {
    num_output: 50
    weight_filler {
      type: "xavier"
    }
    bias_filler {
      type: "constant"
    }
  }
}
layer {
  name: "relu1"
  type: "ReLU"
  bottom: "ip1"
  top: "ip1"
}
layer {
  name: "ip2"
  type: "InnerProduct"
  bottom: "ip1"
  top: "ip2"
  param {
    lr_mult: 1
  }
  param {
    lr_mult: 2
  }
  inner_product_param {
    num_output: 25
    weight_filler {
      type: "xavier"
    }
    bias_filler {
      type: "constant"
    }
  }
}
layer {
  name: "relu2"
  type: "ReLU"
  bottom: "ip2"
  top: "ip2"
}
layer {
  name: "ip3"
  type: "InnerProduct"
  bottom: "ip2"
  top: "ip3"
  param {
    lr_mult: 1
  }
  param {
    lr_mult: 2
  }
  inner_product_param {
    num_output: 10
    weight_filler {
      type: "xavier"
    }
    bias_filler {
      type: "constant"
    }
  }
}
layer {
  name: "relu3"
  type: "ReLU"
  bottom: "ip3"
  top: "ip3"
}
layer {
  name: "loss"
  type: "SoftmaxWithLoss"
  bottom: "ip3"
  bottom: "label"
  top: "loss"
}
I0428 20:10:06.602766 31768 layer_factory.hpp:77] Creating layer mnist
I0428 20:10:06.602864 31768 db_lmdb.cpp:35] Opened lmdb examples/mnist/mnist_train_lmdb
I0428 20:10:06.602886 31768 net.cpp:86] Creating Layer mnist
I0428 20:10:06.602895 31768 net.cpp:382] mnist -> data
I0428 20:10:06.602916 31768 net.cpp:382] mnist -> label
I0428 20:10:06.604012 31768 data_layer.cpp:45] output data size: 64,1,28,28
I0428 20:10:06.606485 31768 net.cpp:124] Setting up mnist
I0428 20:10:06.606503 31768 net.cpp:131] Top shape: 64 1 28 28 (50176)
I0428 20:10:06.606509 31768 net.cpp:131] Top shape: 64 (64)
I0428 20:10:06.606513 31768 net.cpp:139] Memory required for data: 200960
I0428 20:10:06.606520 31768 layer_factory.hpp:77] Creating layer conv0
I0428 20:10:06.606560 31768 net.cpp:86] Creating Layer conv0
I0428 20:10:06.606582 31768 net.cpp:408] conv0 <- data
I0428 20:10:06.606595 31768 net.cpp:382] conv0 -> conv0
I0428 20:10:06.899168 31768 net.cpp:124] Setting up conv0
I0428 20:10:06.899197 31768 net.cpp:131] Top shape: 64 25 24 24 (921600)
I0428 20:10:06.899204 31768 net.cpp:139] Memory required for data: 3887360
I0428 20:10:06.899221 31768 layer_factory.hpp:77] Creating layer pool0
I0428 20:10:06.899235 31768 net.cpp:86] Creating Layer pool0
I0428 20:10:06.899243 31768 net.cpp:408] pool0 <- conv0
I0428 20:10:06.899250 31768 net.cpp:382] pool0 -> pool0
I0428 20:10:06.899304 31768 net.cpp:124] Setting up pool0
I0428 20:10:06.899312 31768 net.cpp:131] Top shape: 64 25 12 12 (230400)
I0428 20:10:06.899317 31768 net.cpp:139] Memory required for data: 4808960
I0428 20:10:06.899320 31768 layer_factory.hpp:77] Creating layer conv1
I0428 20:10:06.899333 31768 net.cpp:86] Creating Layer conv1
I0428 20:10:06.899338 31768 net.cpp:408] conv1 <- pool0
I0428 20:10:06.899344 31768 net.cpp:382] conv1 -> conv1
I0428 20:10:06.902581 31768 net.cpp:124] Setting up conv1
I0428 20:10:06.902600 31768 net.cpp:131] Top shape: 64 25 8 8 (102400)
I0428 20:10:06.902604 31768 net.cpp:139] Memory required for data: 5218560
I0428 20:10:06.902616 31768 layer_factory.hpp:77] Creating layer pool1
I0428 20:10:06.902624 31768 net.cpp:86] Creating Layer pool1
I0428 20:10:06.902628 31768 net.cpp:408] pool1 <- conv1
I0428 20:10:06.902634 31768 net.cpp:382] pool1 -> pool1
I0428 20:10:06.902679 31768 net.cpp:124] Setting up pool1
I0428 20:10:06.902688 31768 net.cpp:131] Top shape: 64 25 4 4 (25600)
I0428 20:10:06.902693 31768 net.cpp:139] Memory required for data: 5320960
I0428 20:10:06.902696 31768 layer_factory.hpp:77] Creating layer ip1
I0428 20:10:06.902704 31768 net.cpp:86] Creating Layer ip1
I0428 20:10:06.902709 31768 net.cpp:408] ip1 <- pool1
I0428 20:10:06.902714 31768 net.cpp:382] ip1 -> ip1
I0428 20:10:06.902963 31768 net.cpp:124] Setting up ip1
I0428 20:10:06.902972 31768 net.cpp:131] Top shape: 64 50 (3200)
I0428 20:10:06.902976 31768 net.cpp:139] Memory required for data: 5333760
I0428 20:10:06.902986 31768 layer_factory.hpp:77] Creating layer relu1
I0428 20:10:06.902992 31768 net.cpp:86] Creating Layer relu1
I0428 20:10:06.902995 31768 net.cpp:408] relu1 <- ip1
I0428 20:10:06.903000 31768 net.cpp:369] relu1 -> ip1 (in-place)
I0428 20:10:06.903197 31768 net.cpp:124] Setting up relu1
I0428 20:10:06.903206 31768 net.cpp:131] Top shape: 64 50 (3200)
I0428 20:10:06.903210 31768 net.cpp:139] Memory required for data: 5346560
I0428 20:10:06.903214 31768 layer_factory.hpp:77] Creating layer ip2
I0428 20:10:06.903221 31768 net.cpp:86] Creating Layer ip2
I0428 20:10:06.903225 31768 net.cpp:408] ip2 <- ip1
I0428 20:10:06.903231 31768 net.cpp:382] ip2 -> ip2
I0428 20:10:06.904328 31768 net.cpp:124] Setting up ip2
I0428 20:10:06.904343 31768 net.cpp:131] Top shape: 64 25 (1600)
I0428 20:10:06.904347 31768 net.cpp:139] Memory required for data: 5352960
I0428 20:10:06.904356 31768 layer_factory.hpp:77] Creating layer relu2
I0428 20:10:06.904363 31768 net.cpp:86] Creating Layer relu2
I0428 20:10:06.904367 31768 net.cpp:408] relu2 <- ip2
I0428 20:10:06.904373 31768 net.cpp:369] relu2 -> ip2 (in-place)
I0428 20:10:06.905246 31768 net.cpp:124] Setting up relu2
I0428 20:10:06.905261 31768 net.cpp:131] Top shape: 64 25 (1600)
I0428 20:10:06.905266 31768 net.cpp:139] Memory required for data: 5359360
I0428 20:10:06.905270 31768 layer_factory.hpp:77] Creating layer ip3
I0428 20:10:06.905278 31768 net.cpp:86] Creating Layer ip3
I0428 20:10:06.905283 31768 net.cpp:408] ip3 <- ip2
I0428 20:10:06.905289 31768 net.cpp:382] ip3 -> ip3
I0428 20:10:06.905407 31768 net.cpp:124] Setting up ip3
I0428 20:10:06.905417 31768 net.cpp:131] Top shape: 64 10 (640)
I0428 20:10:06.905421 31768 net.cpp:139] Memory required for data: 5361920
I0428 20:10:06.905431 31768 layer_factory.hpp:77] Creating layer relu3
I0428 20:10:06.905437 31768 net.cpp:86] Creating Layer relu3
I0428 20:10:06.905441 31768 net.cpp:408] relu3 <- ip3
I0428 20:10:06.905450 31768 net.cpp:369] relu3 -> ip3 (in-place)
I0428 20:10:06.905655 31768 net.cpp:124] Setting up relu3
I0428 20:10:06.905668 31768 net.cpp:131] Top shape: 64 10 (640)
I0428 20:10:06.905670 31768 net.cpp:139] Memory required for data: 5364480
I0428 20:10:06.905675 31768 layer_factory.hpp:77] Creating layer loss
I0428 20:10:06.905685 31768 net.cpp:86] Creating Layer loss
I0428 20:10:06.905690 31768 net.cpp:408] loss <- ip3
I0428 20:10:06.905695 31768 net.cpp:408] loss <- label
I0428 20:10:06.905701 31768 net.cpp:382] loss -> loss
I0428 20:10:06.905721 31768 layer_factory.hpp:77] Creating layer loss
…
I0428 20:10:06.906505 31768 solver.cpp:173] Creating test net (#0) specified by net file: ECE595/mnist/train_test/var_everything2/lenet_train_test1126.prototxt
I0428 20:10:06.906538 31768 net.cpp:296] The NetState phase (1) differed from the phase (0) specified by a rule in layer mnist
I0428 20:10:06.906647 31768 net.cpp:53] Initializing net from parameters: 
name: "LeNet"
state {
  phase: TEST
}
layer {
  name: "mnist"
  type: "Data"
  top: "data"
  top: "label"
  include {
    phase: TEST
  }
  transform_param {
    scale: 0.00390625
  }
  data_param {
    source: "examples/mnist/mnist_test_lmdb"
    batch_size: 100
    backend: LMDB
  }
}
layer {
  name: "conv0"
  type: "Convolution"
  bottom: "data"
  top: "conv0"
  param {
    lr_mult: 1
  }
  param {
    lr_mult: 2
  }
  convolution_param {
    num_output: 25
    kernel_size: 5
    stride: 1
    weight_filler {
      type: "xavier"
    }
    bias_filler {
      type: "constant"
    }
  }
}
layer {
  name: "pool0"
  type: "Pooling"
  bottom: "conv0"
  top: "pool0"
  pooling_param {
    pool: MAX
    kernel_size: 2
    stride: 2
  }
}
layer {
  name: "conv1"
  type: "Convolution"
  bottom: "pool0"
  top: "conv1"
  param {
    lr_mult: 1
  }
  param {
    lr_mult: 2
  }
  convolution_param {
    num_output: 25
    kernel_size: 5
    stride: 1
    weight_filler {
      type: "xavier"
    }
    bias_filler {
      type: "constant"
    }
  }
}
layer {
  name: "pool1"
  type: "Pooling"
  bottom: "conv1"
  top: "pool1"
  pooling_param {
    pool: MAX
    kernel_size: 2
    stride: 2
  }
}
layer {
  name: "ip1"
  type: "InnerProduct"
  bottom: "pool1"
  top: "ip1"
  param {
    lr_mult: 1
  }
  param {
    lr_mult: 2
  }
  inner_product_param {
    num_output: 50
    weight_filler {
      type: "xavier"
    }
    bias_filler {
      type: "constant"
    }
  }
}
layer {
  name: "relu1"
  type: "ReLU"
  bottom: "ip1"
  top: "ip1"
}
layer {
  name: "ip2"
  type: "InnerProduct"
  bottom: "ip1"
  top: "ip2"
  param {
    lr_mult: 1
  }
  param {
    lr_mult: 2
  }
  inner_product_param {
    num_output: 25
    weight_filler {
      type: "xavier"
    }
    bias_filler {
      type: "constant"
    }
  }
}
layer {
  name: "relu2"
  type: "ReLU"
  bottom: "ip2"
  top: "ip2"
}
layer {
  name: "ip3"
  type: "InnerProduct"
  bottom: "ip2"
  top: "ip3"
  param {
    lr_mult: 1
  }
  param {
    lr_mult: 2
  }
  inner_product_param {
    num_output: 10
    weight_filler {
      type: "xavier"
    }
    bias_filler {
      type: "constant"
    }
  }
}
layer {
  name: "relu3"
  type: "ReLU"
  bottom: "ip3"
  top: "ip3"
}
layer {
  name: "accuracy"
  type: "Accuracy"
  bottom: "ip3"
  bottom: "label"
  top: "accuracy"
  include {
    phase: TEST
  }
}
layer {
  name: "loss"
  type: "SoftmaxWithLoss"
  bottom: "ip3"
  bottom: "label"
  top: "loss"
}
I0428 20:10:06.906744 31768 layer_factory.hpp:77] Creating layer mnist
I0428 20:10:06.906792 31768 db_lmdb.cpp:35] Opened lmdb examples/mnist/mnist_test_lmdb
I0428 20:10:06.906806 31768 net.cpp:86] Creating Layer mnist
I0428 20:10:06.906812 31768 net.cpp:382] mnist -> data
I0428 20:10:06.906822 31768 net.cpp:382] mnist -> label
I0428 20:10:06.906925 31768 data_layer.cpp:45] output data size: 100,1,28,28
I0428 20:10:06.909318 31768 net.cpp:124] Setting up mnist
I0428 20:10:06.909335 31768 net.cpp:131] Top shape: 100 1 28 28 (78400)
I0428 20:10:06.909342 31768 net.cpp:131] Top shape: 100 (100)
I0428 20:10:06.909345 31768 net.cpp:139] Memory required for data: 314000
I0428 20:10:06.909349 31768 layer_factory.hpp:77] Creating layer label_mnist_1_split
I0428 20:10:06.909365 31768 net.cpp:86] Creating Layer label_mnist_1_split
I0428 20:10:06.909370 31768 net.cpp:408] label_mnist_1_split <- label
I0428 20:10:06.909376 31768 net.cpp:382] label_mnist_1_split -> label_mnist_1_split_0
I0428 20:10:06.909385 31768 net.cpp:382] label_mnist_1_split -> label_mnist_1_split_1
I0428 20:10:06.909438 31768 net.cpp:124] Setting up label_mnist_1_split
I0428 20:10:06.909446 31768 net.cpp:131] Top shape: 100 (100)
I0428 20:10:06.909451 31768 net.cpp:131] Top shape: 100 (100)
I0428 20:10:06.909454 31768 net.cpp:139] Memory required for data: 314800
I0428 20:10:06.909459 31768 layer_factory.hpp:77] Creating layer conv0
I0428 20:10:06.909471 31768 net.cpp:86] Creating Layer conv0
I0428 20:10:06.909477 31768 net.cpp:408] conv0 <- data
I0428 20:10:06.909484 31768 net.cpp:382] conv0 -> conv0
I0428 20:10:06.911279 31768 net.cpp:124] Setting up conv0
I0428 20:10:06.911295 31768 net.cpp:131] Top shape: 100 25 24 24 (1440000)
I0428 20:10:06.911300 31768 net.cpp:139] Memory required for data: 6074800
I0428 20:10:06.911312 31768 layer_factory.hpp:77] Creating layer pool0
I0428 20:10:06.911320 31768 net.cpp:86] Creating Layer pool0
I0428 20:10:06.911324 31768 net.cpp:408] pool0 <- conv0
I0428 20:10:06.911331 31768 net.cpp:382] pool0 -> pool0
I0428 20:10:06.911376 31768 net.cpp:124] Setting up pool0
I0428 20:10:06.911386 31768 net.cpp:131] Top shape: 100 25 12 12 (360000)
I0428 20:10:06.911389 31768 net.cpp:139] Memory required for data: 7514800
I0428 20:10:06.911393 31768 layer_factory.hpp:77] Creating layer conv1
I0428 20:10:06.911404 31768 net.cpp:86] Creating Layer conv1
I0428 20:10:06.911409 31768 net.cpp:408] conv1 <- pool0
I0428 20:10:06.911417 31768 net.cpp:382] conv1 -> conv1
I0428 20:10:06.913861 31768 net.cpp:124] Setting up conv1
I0428 20:10:06.913877 31768 net.cpp:131] Top shape: 100 25 8 8 (160000)
I0428 20:10:06.913882 31768 net.cpp:139] Memory required for data: 8154800
I0428 20:10:06.913893 31768 layer_factory.hpp:77] Creating layer pool1
I0428 20:10:06.913902 31768 net.cpp:86] Creating Layer pool1
I0428 20:10:06.913907 31768 net.cpp:408] pool1 <- conv1
I0428 20:10:06.913914 31768 net.cpp:382] pool1 -> pool1
I0428 20:10:06.914008 31768 net.cpp:124] Setting up pool1
I0428 20:10:06.914017 31768 net.cpp:131] Top shape: 100 25 4 4 (40000)
I0428 20:10:06.914028 31768 net.cpp:139] Memory required for data: 8314800
I0428 20:10:06.914031 31768 layer_factory.hpp:77] Creating layer ip1
I0428 20:10:06.914039 31768 net.cpp:86] Creating Layer ip1
I0428 20:10:06.914043 31768 net.cpp:408] ip1 <- pool1
I0428 20:10:06.914050 31768 net.cpp:382] ip1 -> ip1
I0428 20:10:06.914310 31768 net.cpp:124] Setting up ip1
I0428 20:10:06.914319 31768 net.cpp:131] Top shape: 100 50 (5000)
I0428 20:10:06.914335 31768 net.cpp:139] Memory required for data: 8334800
I0428 20:10:06.914345 31768 layer_factory.hpp:77] Creating layer relu1
I0428 20:10:06.914352 31768 net.cpp:86] Creating Layer relu1
I0428 20:10:06.914356 31768 net.cpp:408] relu1 <- ip1
I0428 20:10:06.914363 31768 net.cpp:369] relu1 -> ip1 (in-place)
I0428 20:10:06.914566 31768 net.cpp:124] Setting up relu1
I0428 20:10:06.914577 31768 net.cpp:131] Top shape: 100 50 (5000)
I0428 20:10:06.914582 31768 net.cpp:139] Memory required for data: 8354800
I0428 20:10:06.914584 31768 layer_factory.hpp:77] Creating layer ip2
I0428 20:10:06.914594 31768 net.cpp:86] Creating Layer ip2
I0428 20:10:06.914599 31768 net.cpp:408] ip2 <- ip1
I0428 20:10:06.914605 31768 net.cpp:382] ip2 -> ip2
I0428 20:10:06.914748 31768 net.cpp:124] Setting up ip2
I0428 20:10:06.914757 31768 net.cpp:131] Top shape: 100 25 (2500)
I0428 20:10:06.914760 31768 net.cpp:139] Memory required for data: 8364800
I0428 20:10:06.914767 31768 layer_factory.hpp:77] Creating layer relu2
I0428 20:10:06.914772 31768 net.cpp:86] Creating Layer relu2
I0428 20:10:06.914775 31768 net.cpp:408] relu2 <- ip2
I0428 20:10:06.914782 31768 net.cpp:369] relu2 -> ip2 (in-place)
I0428 20:10:06.915061 31768 net.cpp:124] Setting up relu2
I0428 20:10:06.915072 31768 net.cpp:131] Top shape: 100 25 (2500)
I0428 20:10:06.915076 31768 net.cpp:139] Memory required for data: 8374800
I0428 20:10:06.915081 31768 layer_factory.hpp:77] Creating layer ip3
I0428 20:10:06.915088 31768 net.cpp:86] Creating Layer ip3
I0428 20:10:06.915093 31768 net.cpp:408] ip3 <- ip2
I0428 20:10:06.915101 31768 net.cpp:382] ip3 -> ip3
I0428 20:10:06.915218 31768 net.cpp:124] Setting up ip3
I0428 20:10:06.915226 31768 net.cpp:131] Top shape: 100 10 (1000)
I0428 20:10:06.915230 31768 net.cpp:139] Memory required for data: 8378800
I0428 20:10:06.915241 31768 layer_factory.hpp:77] Creating layer relu3
I0428 20:10:06.915247 31768 net.cpp:86] Creating Layer relu3
I0428 20:10:06.915251 31768 net.cpp:408] relu3 <- ip3
I0428 20:10:06.915256 31768 net.cpp:369] relu3 -> ip3 (in-place)
I0428 20:10:06.916179 31768 net.cpp:124] Setting up relu3
I0428 20:10:06.916194 31768 net.cpp:131] Top shape: 100 10 (1000)
I0428 20:10:06.916198 31768 net.cpp:139] Memory required for data: 8382800
I0428 20:10:06.916203 31768 layer_factory.hpp:77] Creating layer ip3_relu3_0_split
I0428 20:10:06.916210 31768 net.cpp:86] Creating Layer ip3_relu3_0_split
I0428 20:10:06.916214 31768 net.cpp:408] ip3_relu3_0_split <- ip3
I0428 20:10:06.916220 31768 net.cpp:382] ip3_relu3_0_split -> ip3_relu3_0_split_0
I0428 20:10:06.916229 31768 net.cpp:382] ip3_relu3_0_split -> ip3_relu3_0_split_1
I0428 20:10:06.916273 31768 net.cpp:124] Setting up ip3_relu3_0_split
I0428 20:10:06.916281 31768 net.cpp:131] Top shape: 100 10 (1000)
I0428 20:10:06.916286 31768 net.cpp:131] Top shape: 100 10 (1000)
I0428 20:10:06.916290 31768 net.cpp:139] Memory required for data: 8390800
I0428 20:10:06.916295 31768 layer_factory.hpp:77] Creating layer accuracy
I0428 20:10:06.916301 31768 net.cpp:86] Creating Layer accuracy
I0428 20:10:06.916306 31768 net.cpp:408] accuracy <- ip3_relu3_0_split_0
I0428 20:10:06.916317 31768 net.cpp:408] accuracy <- label_mnist_1_split_0
I0428 20:10:06.916322 31768 net.cpp:382] accuracy -> accuracy
…
