…
I0428 19:35:53.584043 23609 net.cpp:296] The NetState phase (0) differed from the phase (1) specified by a rule in layer mnist
I0428 19:35:53.584054 23609 net.cpp:296] The NetState phase (0) differed from the phase (1) specified by a rule in layer accuracy
I0428 19:35:53.584110 23609 net.cpp:53] Initializing net from parameters: 
name: "LeNet"
state {
  phase: TRAIN
  level: 0
  stage: ""
}
layer {
  name: "mnist"
  type: "Data"
  top: "data"
  top: "label"
  include {
    phase: TRAIN
  }
  transform_param {
    scale: 0.00390625
  }
  data_param {
    source: "examples/mnist/mnist_train_lmdb"
    batch_size: 64
    backend: LMDB
  }
}
layer {
  name: "conv0"
  type: "Convolution"
  bottom: "data"
  top: "conv0"
  param {
    lr_mult: 1
  }
  param {
    lr_mult: 2
  }
  convolution_param {
    num_output: 100
    kernel_size: 5
    stride: 1
    weight_filler {
      type: "xavier"
    }
    bias_filler {
      type: "constant"
    }
  }
}
layer {
  name: "pool0"
  type: "Pooling"
  bottom: "conv0"
  top: "pool0"
  pooling_param {
    pool: MAX
    kernel_size: 2
    stride: 2
  }
}
layer {
  name: "ip1"
  type: "InnerProduct"
  bottom: "pool0"
  top: "ip1"
  param {
    lr_mult: 1
  }
  param {
    lr_mult: 2
  }
  inner_product_param {
    num_output: 10
    weight_filler {
      type: "xavier"
    }
    bias_filler {
      type: "constant"
    }
  }
}
layer {
  name: "relu1"
  type: "ReLU"
  bottom: "ip1"
  top: "ip1"
}
layer {
  name: "loss"
  type: "SoftmaxWithLoss"
  bottom: "ip1"
  bottom: "label"
  top: "loss"
}
I0428 19:35:53.584157 23609 layer_factory.hpp:77] Creating layer mnist
I0428 19:35:53.584240 23609 db_lmdb.cpp:35] Opened lmdb examples/mnist/mnist_train_lmdb
I0428 19:35:53.584259 23609 net.cpp:86] Creating Layer mnist
I0428 19:35:53.584266 23609 net.cpp:382] mnist -> data
I0428 19:35:53.584285 23609 net.cpp:382] mnist -> label
I0428 19:35:53.585273 23609 data_layer.cpp:45] output data size: 64,1,28,28
I0428 19:35:53.587448 23609 net.cpp:124] Setting up mnist
I0428 19:35:53.587478 23609 net.cpp:131] Top shape: 64 1 28 28 (50176)
I0428 19:35:53.587482 23609 net.cpp:131] Top shape: 64 (64)
I0428 19:35:53.587486 23609 net.cpp:139] Memory required for data: 200960
I0428 19:35:53.587491 23609 layer_factory.hpp:77] Creating layer conv0
I0428 19:35:53.587532 23609 net.cpp:86] Creating Layer conv0
I0428 19:35:53.587538 23609 net.cpp:408] conv0 <- data
I0428 19:35:53.587550 23609 net.cpp:382] conv0 -> conv0
I0428 19:35:53.821497 23609 net.cpp:124] Setting up conv0
I0428 19:35:53.821538 23609 net.cpp:131] Top shape: 64 100 24 24 (3686400)
I0428 19:35:53.821543 23609 net.cpp:139] Memory required for data: 14946560
I0428 19:35:53.821558 23609 layer_factory.hpp:77] Creating layer pool0
I0428 19:35:53.821571 23609 net.cpp:86] Creating Layer pool0
I0428 19:35:53.821574 23609 net.cpp:408] pool0 <- conv0
I0428 19:35:53.821596 23609 net.cpp:382] pool0 -> pool0
I0428 19:35:53.821643 23609 net.cpp:124] Setting up pool0
I0428 19:35:53.821650 23609 net.cpp:131] Top shape: 64 100 12 12 (921600)
I0428 19:35:53.821653 23609 net.cpp:139] Memory required for data: 18632960
I0428 19:35:53.821656 23609 layer_factory.hpp:77] Creating layer ip1
I0428 19:35:53.821663 23609 net.cpp:86] Creating Layer ip1
I0428 19:35:53.821666 23609 net.cpp:408] ip1 <- pool0
I0428 19:35:53.821671 23609 net.cpp:382] ip1 -> ip1
I0428 19:35:53.823463 23609 net.cpp:124] Setting up ip1
I0428 19:35:53.823477 23609 net.cpp:131] Top shape: 64 10 (640)
I0428 19:35:53.823513 23609 net.cpp:139] Memory required for data: 18635520
I0428 19:35:53.823523 23609 layer_factory.hpp:77] Creating layer relu1
I0428 19:35:53.823535 23609 net.cpp:86] Creating Layer relu1
I0428 19:35:53.823541 23609 net.cpp:408] relu1 <- ip1
I0428 19:35:53.823546 23609 net.cpp:369] relu1 -> ip1 (in-place)
I0428 19:35:53.823726 23609 net.cpp:124] Setting up relu1
I0428 19:35:53.823735 23609 net.cpp:131] Top shape: 64 10 (640)
I0428 19:35:53.823738 23609 net.cpp:139] Memory required for data: 18638080
I0428 19:35:53.823741 23609 layer_factory.hpp:77] Creating layer loss
I0428 19:35:53.823748 23609 net.cpp:86] Creating Layer loss
I0428 19:35:53.823751 23609 net.cpp:408] loss <- ip1
I0428 19:35:53.823755 23609 net.cpp:408] loss <- label
I0428 19:35:53.823760 23609 net.cpp:382] loss -> loss
I0428 19:35:53.823793 23609 layer_factory.hpp:77] Creating layer loss
…
I0428 19:35:53.824995 23609 solver.cpp:173] Creating test net (#0) specified by net file: ECE595/mnist/train_test/var_everything2/lenet_train_test234.prototxt
I0428 19:35:53.825018 23609 net.cpp:296] The NetState phase (1) differed from the phase (0) specified by a rule in layer mnist
I0428 19:35:53.825083 23609 net.cpp:53] Initializing net from parameters: 
name: "LeNet"
state {
  phase: TEST
}
layer {
  name: "mnist"
  type: "Data"
  top: "data"
  top: "label"
  include {
    phase: TEST
  }
  transform_param {
    scale: 0.00390625
  }
  data_param {
    source: "examples/mnist/mnist_test_lmdb"
    batch_size: 100
    backend: LMDB
  }
}
layer {
  name: "conv0"
  type: "Convolution"
  bottom: "data"
  top: "conv0"
  param {
    lr_mult: 1
  }
  param {
    lr_mult: 2
  }
  convolution_param {
    num_output: 100
    kernel_size: 5
    stride: 1
    weight_filler {
      type: "xavier"
    }
    bias_filler {
      type: "constant"
    }
  }
}
layer {
  name: "pool0"
  type: "Pooling"
  bottom: "conv0"
  top: "pool0"
  pooling_param {
    pool: MAX
    kernel_size: 2
    stride: 2
  }
}
layer {
  name: "ip1"
  type: "InnerProduct"
  bottom: "pool0"
  top: "ip1"
  param {
    lr_mult: 1
  }
  param {
    lr_mult: 2
  }
  inner_product_param {
    num_output: 10
    weight_filler {
      type: "xavier"
    }
    bias_filler {
      type: "constant"
    }
  }
}
layer {
  name: "relu1"
  type: "ReLU"
  bottom: "ip1"
  top: "ip1"
}
layer {
  name: "accuracy"
  type: "Accuracy"
  bottom: "ip1"
  bottom: "label"
  top: "accuracy"
  include {
    phase: TEST
  }
}
layer {
  name: "loss"
  type: "SoftmaxWithLoss"
  bottom: "ip1"
  bottom: "label"
  top: "loss"
}
I0428 19:35:53.825136 23609 layer_factory.hpp:77] Creating layer mnist
I0428 19:35:53.825207 23609 db_lmdb.cpp:35] Opened lmdb examples/mnist/mnist_test_lmdb
I0428 19:35:53.825220 23609 net.cpp:86] Creating Layer mnist
I0428 19:35:53.825224 23609 net.cpp:382] mnist -> data
I0428 19:35:53.825232 23609 net.cpp:382] mnist -> label
I0428 19:35:53.825311 23609 data_layer.cpp:45] output data size: 100,1,28,28
I0428 19:35:53.826535 23609 net.cpp:124] Setting up mnist
I0428 19:35:53.826565 23609 net.cpp:131] Top shape: 100 1 28 28 (78400)
I0428 19:35:53.826571 23609 net.cpp:131] Top shape: 100 (100)
I0428 19:35:53.826575 23609 net.cpp:139] Memory required for data: 314000
I0428 19:35:53.826591 23609 layer_factory.hpp:77] Creating layer label_mnist_1_split
I0428 19:35:53.826611 23609 net.cpp:86] Creating Layer label_mnist_1_split
I0428 19:35:53.826617 23609 net.cpp:408] label_mnist_1_split <- label
I0428 19:35:53.826622 23609 net.cpp:382] label_mnist_1_split -> label_mnist_1_split_0
I0428 19:35:53.826644 23609 net.cpp:382] label_mnist_1_split -> label_mnist_1_split_1
I0428 19:35:53.826726 23609 net.cpp:124] Setting up label_mnist_1_split
I0428 19:35:53.826735 23609 net.cpp:131] Top shape: 100 (100)
I0428 19:35:53.826738 23609 net.cpp:131] Top shape: 100 (100)
I0428 19:35:53.826741 23609 net.cpp:139] Memory required for data: 314800
I0428 19:35:53.826745 23609 layer_factory.hpp:77] Creating layer conv0
I0428 19:35:53.826753 23609 net.cpp:86] Creating Layer conv0
I0428 19:35:53.826757 23609 net.cpp:408] conv0 <- data
I0428 19:35:53.826762 23609 net.cpp:382] conv0 -> conv0
I0428 19:35:53.828387 23609 net.cpp:124] Setting up conv0
I0428 19:35:53.828402 23609 net.cpp:131] Top shape: 100 100 24 24 (5760000)
I0428 19:35:53.828408 23609 net.cpp:139] Memory required for data: 23354800
I0428 19:35:53.828416 23609 layer_factory.hpp:77] Creating layer pool0
I0428 19:35:53.828424 23609 net.cpp:86] Creating Layer pool0
I0428 19:35:53.828428 23609 net.cpp:408] pool0 <- conv0
I0428 19:35:53.828433 23609 net.cpp:382] pool0 -> pool0
I0428 19:35:53.828469 23609 net.cpp:124] Setting up pool0
I0428 19:35:53.828476 23609 net.cpp:131] Top shape: 100 100 12 12 (1440000)
I0428 19:35:53.828480 23609 net.cpp:139] Memory required for data: 29114800
I0428 19:35:53.828497 23609 layer_factory.hpp:77] Creating layer ip1
I0428 19:35:53.828505 23609 net.cpp:86] Creating Layer ip1
I0428 19:35:53.828507 23609 net.cpp:408] ip1 <- pool0
I0428 19:35:53.828511 23609 net.cpp:382] ip1 -> ip1
I0428 19:35:53.830482 23609 net.cpp:124] Setting up ip1
I0428 19:35:53.830495 23609 net.cpp:131] Top shape: 100 10 (1000)
I0428 19:35:53.830499 23609 net.cpp:139] Memory required for data: 29118800
I0428 19:35:53.830523 23609 layer_factory.hpp:77] Creating layer relu1
I0428 19:35:53.830530 23609 net.cpp:86] Creating Layer relu1
I0428 19:35:53.830534 23609 net.cpp:408] relu1 <- ip1
I0428 19:35:53.830539 23609 net.cpp:369] relu1 -> ip1 (in-place)
I0428 19:35:53.830845 23609 net.cpp:124] Setting up relu1
I0428 19:35:53.830855 23609 net.cpp:131] Top shape: 100 10 (1000)
I0428 19:35:53.830858 23609 net.cpp:139] Memory required for data: 29122800
I0428 19:35:53.830869 23609 layer_factory.hpp:77] Creating layer ip1_relu1_0_split
I0428 19:35:53.830875 23609 net.cpp:86] Creating Layer ip1_relu1_0_split
I0428 19:35:53.830878 23609 net.cpp:408] ip1_relu1_0_split <- ip1
I0428 19:35:53.830900 23609 net.cpp:382] ip1_relu1_0_split -> ip1_relu1_0_split_0
I0428 19:35:53.830906 23609 net.cpp:382] ip1_relu1_0_split -> ip1_relu1_0_split_1
I0428 19:35:53.830948 23609 net.cpp:124] Setting up ip1_relu1_0_split
I0428 19:35:53.830956 23609 net.cpp:131] Top shape: 100 10 (1000)
I0428 19:35:53.830960 23609 net.cpp:131] Top shape: 100 10 (1000)
I0428 19:35:53.830963 23609 net.cpp:139] Memory required for data: 29130800
I0428 19:35:53.830966 23609 layer_factory.hpp:77] Creating layer accuracy
I0428 19:35:53.830972 23609 net.cpp:86] Creating Layer accuracy
I0428 19:35:53.830976 23609 net.cpp:408] accuracy <- ip1_relu1_0_split_0
I0428 19:35:53.830981 23609 net.cpp:408] accuracy <- label_mnist_1_split_0
I0428 19:35:53.830986 23609 net.cpp:382] accuracy -> accuracy
…
