…
I0428 20:24:21.991372  2395 net.cpp:296] The NetState phase (0) differed from the phase (1) specified by a rule in layer mnist
I0428 20:24:21.991391  2395 net.cpp:296] The NetState phase (0) differed from the phase (1) specified by a rule in layer accuracy
I0428 20:24:21.991488  2395 net.cpp:53] Initializing net from parameters: 
name: "LeNet"
state {
  phase: TRAIN
  level: 0
  stage: ""
}
layer {
  name: "mnist"
  type: "Data"
  top: "data"
  top: "label"
  include {
    phase: TRAIN
  }
  transform_param {
    scale: 0.00390625
  }
  data_param {
    source: "examples/mnist/mnist_train_lmdb"
    batch_size: 64
    backend: LMDB
  }
}
layer {
  name: "conv0"
  type: "Convolution"
  bottom: "data"
  top: "conv0"
  param {
    lr_mult: 1
  }
  param {
    lr_mult: 2
  }
  convolution_param {
    num_output: 50
    kernel_size: 5
    stride: 1
    weight_filler {
      type: "xavier"
    }
    bias_filler {
      type: "constant"
    }
  }
}
layer {
  name: "pool0"
  type: "Pooling"
  bottom: "conv0"
  top: "pool0"
  pooling_param {
    pool: MAX
    kernel_size: 2
    stride: 2
  }
}
layer {
  name: "conv1"
  type: "Convolution"
  bottom: "pool0"
  top: "conv1"
  param {
    lr_mult: 1
  }
  param {
    lr_mult: 2
  }
  convolution_param {
    num_output: 100
    kernel_size: 5
    stride: 1
    weight_filler {
      type: "xavier"
    }
    bias_filler {
      type: "constant"
    }
  }
}
layer {
  name: "pool1"
  type: "Pooling"
  bottom: "conv1"
  top: "pool1"
  pooling_param {
    pool: MAX
    kernel_size: 2
    stride: 2
  }
}
layer {
  name: "ip1"
  type: "InnerProduct"
  bottom: "pool1"
  top: "ip1"
  param {
    lr_mult: 1
  }
  param {
    lr_mult: 2
  }
  inner_product_param {
    num_output: 50
    weight_filler {
      type: "xavier"
    }
    bias_filler {
      type: "constant"
    }
  }
}
layer {
  name: "relu1"
  type: "ReLU"
  bottom: "ip1"
  top: "ip1"
}
layer {
  name: "ip2"
  type: "InnerProduct"
  bottom: "ip1"
  top: "ip2"
  param {
    lr_mult: 1
  }
  param {
    lr_mult: 2
  }
  inner_product_param {
    num_output: 10
    weight_filler {
      type: "xavier"
    }
    bias_filler {
      type: "constant"
    }
  }
}
layer {
  name: "relu2"
  type: "ReLU"
  bottom: "ip2"
  top: "ip2"
}
layer {
  name: "ip3"
  type: "InnerProduct"
  bottom: "ip2"
  top: "ip3"
  param {
    lr_mult: 1
  }
  param {
    lr_mult: 2
  }
  inner_product_param {
    num_output: 10
    weight_filler {
      type: "xavier"
    }
    bias_filler {
      type: "constant"
    }
  }
}
layer {
  name: "relu3"
  type: "ReLU"
  bottom: "ip3"
  top: "ip3"
}
layer {
  name: "loss"
  type: "SoftmaxWithLoss"
  bottom: "ip3"
  bottom: "label"
  top: "loss"
}
I0428 20:24:21.991564  2395 layer_factory.hpp:77] Creating layer mnist
I0428 20:24:21.991667  2395 db_lmdb.cpp:35] Opened lmdb examples/mnist/mnist_train_lmdb
I0428 20:24:21.991688  2395 net.cpp:86] Creating Layer mnist
I0428 20:24:21.991696  2395 net.cpp:382] mnist -> data
I0428 20:24:21.991719  2395 net.cpp:382] mnist -> label
I0428 20:24:21.992823  2395 data_layer.cpp:45] output data size: 64,1,28,28
I0428 20:24:21.995492  2395 net.cpp:124] Setting up mnist
I0428 20:24:21.995509  2395 net.cpp:131] Top shape: 64 1 28 28 (50176)
I0428 20:24:21.995517  2395 net.cpp:131] Top shape: 64 (64)
I0428 20:24:21.995519  2395 net.cpp:139] Memory required for data: 200960
I0428 20:24:21.995527  2395 layer_factory.hpp:77] Creating layer conv0
I0428 20:24:21.995543  2395 net.cpp:86] Creating Layer conv0
I0428 20:24:21.995563  2395 net.cpp:408] conv0 <- data
I0428 20:24:21.995575  2395 net.cpp:382] conv0 -> conv0
I0428 20:24:22.268856  2395 net.cpp:124] Setting up conv0
I0428 20:24:22.268882  2395 net.cpp:131] Top shape: 64 50 24 24 (1843200)
I0428 20:24:22.268887  2395 net.cpp:139] Memory required for data: 7573760
I0428 20:24:22.268900  2395 layer_factory.hpp:77] Creating layer pool0
I0428 20:24:22.268929  2395 net.cpp:86] Creating Layer pool0
I0428 20:24:22.268931  2395 net.cpp:408] pool0 <- conv0
I0428 20:24:22.268937  2395 net.cpp:382] pool0 -> pool0
I0428 20:24:22.268981  2395 net.cpp:124] Setting up pool0
I0428 20:24:22.268992  2395 net.cpp:131] Top shape: 64 50 12 12 (460800)
I0428 20:24:22.268996  2395 net.cpp:139] Memory required for data: 9416960
I0428 20:24:22.268998  2395 layer_factory.hpp:77] Creating layer conv1
I0428 20:24:22.269008  2395 net.cpp:86] Creating Layer conv1
I0428 20:24:22.269011  2395 net.cpp:408] conv1 <- pool0
I0428 20:24:22.269016  2395 net.cpp:382] conv1 -> conv1
I0428 20:24:22.272517  2395 net.cpp:124] Setting up conv1
I0428 20:24:22.272542  2395 net.cpp:131] Top shape: 64 100 8 8 (409600)
I0428 20:24:22.272547  2395 net.cpp:139] Memory required for data: 11055360
I0428 20:24:22.272554  2395 layer_factory.hpp:77] Creating layer pool1
I0428 20:24:22.272562  2395 net.cpp:86] Creating Layer pool1
I0428 20:24:22.272565  2395 net.cpp:408] pool1 <- conv1
I0428 20:24:22.272569  2395 net.cpp:382] pool1 -> pool1
I0428 20:24:22.272603  2395 net.cpp:124] Setting up pool1
I0428 20:24:22.272608  2395 net.cpp:131] Top shape: 64 100 4 4 (102400)
I0428 20:24:22.272610  2395 net.cpp:139] Memory required for data: 11464960
I0428 20:24:22.272614  2395 layer_factory.hpp:77] Creating layer ip1
I0428 20:24:22.272620  2395 net.cpp:86] Creating Layer ip1
I0428 20:24:22.272622  2395 net.cpp:408] ip1 <- pool1
I0428 20:24:22.272627  2395 net.cpp:382] ip1 -> ip1
I0428 20:24:22.273288  2395 net.cpp:124] Setting up ip1
I0428 20:24:22.273295  2395 net.cpp:131] Top shape: 64 50 (3200)
I0428 20:24:22.273313  2395 net.cpp:139] Memory required for data: 11477760
I0428 20:24:22.273320  2395 layer_factory.hpp:77] Creating layer relu1
I0428 20:24:22.273325  2395 net.cpp:86] Creating Layer relu1
I0428 20:24:22.273329  2395 net.cpp:408] relu1 <- ip1
I0428 20:24:22.273332  2395 net.cpp:369] relu1 -> ip1 (in-place)
I0428 20:24:22.273516  2395 net.cpp:124] Setting up relu1
I0428 20:24:22.273524  2395 net.cpp:131] Top shape: 64 50 (3200)
I0428 20:24:22.273528  2395 net.cpp:139] Memory required for data: 11490560
I0428 20:24:22.273530  2395 layer_factory.hpp:77] Creating layer ip2
I0428 20:24:22.273537  2395 net.cpp:86] Creating Layer ip2
I0428 20:24:22.273540  2395 net.cpp:408] ip2 <- ip1
I0428 20:24:22.273545  2395 net.cpp:382] ip2 -> ip2
I0428 20:24:22.273638  2395 net.cpp:124] Setting up ip2
I0428 20:24:22.273644  2395 net.cpp:131] Top shape: 64 10 (640)
I0428 20:24:22.273648  2395 net.cpp:139] Memory required for data: 11493120
I0428 20:24:22.273653  2395 layer_factory.hpp:77] Creating layer relu2
I0428 20:24:22.273659  2395 net.cpp:86] Creating Layer relu2
I0428 20:24:22.273663  2395 net.cpp:408] relu2 <- ip2
I0428 20:24:22.273666  2395 net.cpp:369] relu2 -> ip2 (in-place)
I0428 20:24:22.274411  2395 net.cpp:124] Setting up relu2
I0428 20:24:22.274423  2395 net.cpp:131] Top shape: 64 10 (640)
I0428 20:24:22.274426  2395 net.cpp:139] Memory required for data: 11495680
I0428 20:24:22.274430  2395 layer_factory.hpp:77] Creating layer ip3
I0428 20:24:22.274436  2395 net.cpp:86] Creating Layer ip3
I0428 20:24:22.274440  2395 net.cpp:408] ip3 <- ip2
I0428 20:24:22.274444  2395 net.cpp:382] ip3 -> ip3
I0428 20:24:22.274531  2395 net.cpp:124] Setting up ip3
I0428 20:24:22.274538  2395 net.cpp:131] Top shape: 64 10 (640)
I0428 20:24:22.274541  2395 net.cpp:139] Memory required for data: 11498240
I0428 20:24:22.274549  2395 layer_factory.hpp:77] Creating layer relu3
I0428 20:24:22.274554  2395 net.cpp:86] Creating Layer relu3
I0428 20:24:22.274556  2395 net.cpp:408] relu3 <- ip3
I0428 20:24:22.274560  2395 net.cpp:369] relu3 -> ip3 (in-place)
I0428 20:24:22.274750  2395 net.cpp:124] Setting up relu3
I0428 20:24:22.274760  2395 net.cpp:131] Top shape: 64 10 (640)
I0428 20:24:22.274762  2395 net.cpp:139] Memory required for data: 11500800
I0428 20:24:22.274765  2395 layer_factory.hpp:77] Creating layer loss
I0428 20:24:22.274771  2395 net.cpp:86] Creating Layer loss
I0428 20:24:22.274775  2395 net.cpp:408] loss <- ip3
I0428 20:24:22.274777  2395 net.cpp:408] loss <- label
I0428 20:24:22.274783  2395 net.cpp:382] loss -> loss
I0428 20:24:22.274801  2395 layer_factory.hpp:77] Creating layer loss
…
I0428 20:24:22.275450  2395 solver.cpp:173] Creating test net (#0) specified by net file: ECE595/mnist/train_test/var_everything2/lenet_train_test1436.prototxt
I0428 20:24:22.275477  2395 net.cpp:296] The NetState phase (1) differed from the phase (0) specified by a rule in layer mnist
I0428 20:24:22.275563  2395 net.cpp:53] Initializing net from parameters: 
name: "LeNet"
state {
  phase: TEST
}
layer {
  name: "mnist"
  type: "Data"
  top: "data"
  top: "label"
  include {
    phase: TEST
  }
  transform_param {
    scale: 0.00390625
  }
  data_param {
    source: "examples/mnist/mnist_test_lmdb"
    batch_size: 100
    backend: LMDB
  }
}
layer {
  name: "conv0"
  type: "Convolution"
  bottom: "data"
  top: "conv0"
  param {
    lr_mult: 1
  }
  param {
    lr_mult: 2
  }
  convolution_param {
    num_output: 50
    kernel_size: 5
    stride: 1
    weight_filler {
      type: "xavier"
    }
    bias_filler {
      type: "constant"
    }
  }
}
layer {
  name: "pool0"
  type: "Pooling"
  bottom: "conv0"
  top: "pool0"
  pooling_param {
    pool: MAX
    kernel_size: 2
    stride: 2
  }
}
layer {
  name: "conv1"
  type: "Convolution"
  bottom: "pool0"
  top: "conv1"
  param {
    lr_mult: 1
  }
  param {
    lr_mult: 2
  }
  convolution_param {
    num_output: 100
    kernel_size: 5
    stride: 1
    weight_filler {
      type: "xavier"
    }
    bias_filler {
      type: "constant"
    }
  }
}
layer {
  name: "pool1"
  type: "Pooling"
  bottom: "conv1"
  top: "pool1"
  pooling_param {
    pool: MAX
    kernel_size: 2
    stride: 2
  }
}
layer {
  name: "ip1"
  type: "InnerProduct"
  bottom: "pool1"
  top: "ip1"
  param {
    lr_mult: 1
  }
  param {
    lr_mult: 2
  }
  inner_product_param {
    num_output: 50
    weight_filler {
      type: "xavier"
    }
    bias_filler {
      type: "constant"
    }
  }
}
layer {
  name: "relu1"
  type: "ReLU"
  bottom: "ip1"
  top: "ip1"
}
layer {
  name: "ip2"
  type: "InnerProduct"
  bottom: "ip1"
  top: "ip2"
  param {
    lr_mult: 1
  }
  param {
    lr_mult: 2
  }
  inner_product_param {
    num_output: 10
    weight_filler {
      type: "xavier"
    }
    bias_filler {
      type: "constant"
    }
  }
}
layer {
  name: "relu2"
  type: "ReLU"
  bottom: "ip2"
  top: "ip2"
}
layer {
  name: "ip3"
  type: "InnerProduct"
  bottom: "ip2"
  top: "ip3"
  param {
    lr_mult: 1
  }
  param {
    lr_mult: 2
  }
  inner_product_param {
    num_output: 10
    weight_filler {
      type: "xavier"
    }
    bias_filler {
      type: "constant"
    }
  }
}
layer {
  name: "relu3"
  type: "ReLU"
  bottom: "ip3"
  top: "ip3"
}
layer {
  name: "accuracy"
  type: "Accuracy"
  bottom: "ip3"
  bottom: "label"
  top: "accuracy"
  include {
    phase: TEST
  }
}
layer {
  name: "loss"
  type: "SoftmaxWithLoss"
  bottom: "ip3"
  bottom: "label"
  top: "loss"
}
I0428 20:24:22.275635  2395 layer_factory.hpp:77] Creating layer mnist
I0428 20:24:22.275678  2395 db_lmdb.cpp:35] Opened lmdb examples/mnist/mnist_test_lmdb
I0428 20:24:22.275691  2395 net.cpp:86] Creating Layer mnist
I0428 20:24:22.275694  2395 net.cpp:382] mnist -> data
I0428 20:24:22.275701  2395 net.cpp:382] mnist -> label
I0428 20:24:22.275777  2395 data_layer.cpp:45] output data size: 100,1,28,28
I0428 20:24:22.276880  2395 net.cpp:124] Setting up mnist
I0428 20:24:22.276908  2395 net.cpp:131] Top shape: 100 1 28 28 (78400)
I0428 20:24:22.276913  2395 net.cpp:131] Top shape: 100 (100)
I0428 20:24:22.276916  2395 net.cpp:139] Memory required for data: 314000
I0428 20:24:22.276919  2395 layer_factory.hpp:77] Creating layer label_mnist_1_split
I0428 20:24:22.276929  2395 net.cpp:86] Creating Layer label_mnist_1_split
I0428 20:24:22.276932  2395 net.cpp:408] label_mnist_1_split <- label
I0428 20:24:22.276937  2395 net.cpp:382] label_mnist_1_split -> label_mnist_1_split_0
I0428 20:24:22.276943  2395 net.cpp:382] label_mnist_1_split -> label_mnist_1_split_1
I0428 20:24:22.277026  2395 net.cpp:124] Setting up label_mnist_1_split
I0428 20:24:22.277034  2395 net.cpp:131] Top shape: 100 (100)
I0428 20:24:22.277039  2395 net.cpp:131] Top shape: 100 (100)
I0428 20:24:22.277040  2395 net.cpp:139] Memory required for data: 314800
I0428 20:24:22.277043  2395 layer_factory.hpp:77] Creating layer conv0
I0428 20:24:22.277051  2395 net.cpp:86] Creating Layer conv0
I0428 20:24:22.277057  2395 net.cpp:408] conv0 <- data
I0428 20:24:22.277078  2395 net.cpp:382] conv0 -> conv0
I0428 20:24:22.278823  2395 net.cpp:124] Setting up conv0
I0428 20:24:22.278851  2395 net.cpp:131] Top shape: 100 50 24 24 (2880000)
I0428 20:24:22.278856  2395 net.cpp:139] Memory required for data: 11834800
I0428 20:24:22.278864  2395 layer_factory.hpp:77] Creating layer pool0
I0428 20:24:22.278869  2395 net.cpp:86] Creating Layer pool0
I0428 20:24:22.278873  2395 net.cpp:408] pool0 <- conv0
I0428 20:24:22.278877  2395 net.cpp:382] pool0 -> pool0
I0428 20:24:22.278911  2395 net.cpp:124] Setting up pool0
I0428 20:24:22.278916  2395 net.cpp:131] Top shape: 100 50 12 12 (720000)
I0428 20:24:22.278918  2395 net.cpp:139] Memory required for data: 14714800
I0428 20:24:22.278921  2395 layer_factory.hpp:77] Creating layer conv1
I0428 20:24:22.278929  2395 net.cpp:86] Creating Layer conv1
I0428 20:24:22.278933  2395 net.cpp:408] conv1 <- pool0
I0428 20:24:22.278936  2395 net.cpp:382] conv1 -> conv1
I0428 20:24:22.282042  2395 net.cpp:124] Setting up conv1
I0428 20:24:22.282069  2395 net.cpp:131] Top shape: 100 100 8 8 (640000)
I0428 20:24:22.282073  2395 net.cpp:139] Memory required for data: 17274800
I0428 20:24:22.282095  2395 layer_factory.hpp:77] Creating layer pool1
I0428 20:24:22.282101  2395 net.cpp:86] Creating Layer pool1
I0428 20:24:22.282105  2395 net.cpp:408] pool1 <- conv1
I0428 20:24:22.282109  2395 net.cpp:382] pool1 -> pool1
I0428 20:24:22.282161  2395 net.cpp:124] Setting up pool1
I0428 20:24:22.282167  2395 net.cpp:131] Top shape: 100 100 4 4 (160000)
I0428 20:24:22.282171  2395 net.cpp:139] Memory required for data: 17914800
I0428 20:24:22.282172  2395 layer_factory.hpp:77] Creating layer ip1
I0428 20:24:22.282178  2395 net.cpp:86] Creating Layer ip1
I0428 20:24:22.282181  2395 net.cpp:408] ip1 <- pool1
I0428 20:24:22.282186  2395 net.cpp:382] ip1 -> ip1
I0428 20:24:22.282709  2395 net.cpp:124] Setting up ip1
I0428 20:24:22.282743  2395 net.cpp:131] Top shape: 100 50 (5000)
I0428 20:24:22.282763  2395 net.cpp:139] Memory required for data: 17934800
I0428 20:24:22.282776  2395 layer_factory.hpp:77] Creating layer relu1
I0428 20:24:22.282781  2395 net.cpp:86] Creating Layer relu1
I0428 20:24:22.282785  2395 net.cpp:408] relu1 <- ip1
I0428 20:24:22.282789  2395 net.cpp:369] relu1 -> ip1 (in-place)
I0428 20:24:22.282938  2395 net.cpp:124] Setting up relu1
I0428 20:24:22.282948  2395 net.cpp:131] Top shape: 100 50 (5000)
I0428 20:24:22.282950  2395 net.cpp:139] Memory required for data: 17954800
I0428 20:24:22.282953  2395 layer_factory.hpp:77] Creating layer ip2
I0428 20:24:22.282960  2395 net.cpp:86] Creating Layer ip2
I0428 20:24:22.282963  2395 net.cpp:408] ip2 <- ip1
I0428 20:24:22.282968  2395 net.cpp:382] ip2 -> ip2
I0428 20:24:22.283088  2395 net.cpp:124] Setting up ip2
I0428 20:24:22.283095  2395 net.cpp:131] Top shape: 100 10 (1000)
I0428 20:24:22.283097  2395 net.cpp:139] Memory required for data: 17958800
I0428 20:24:22.283102  2395 layer_factory.hpp:77] Creating layer relu2
I0428 20:24:22.283107  2395 net.cpp:86] Creating Layer relu2
I0428 20:24:22.283110  2395 net.cpp:408] relu2 <- ip2
I0428 20:24:22.283113  2395 net.cpp:369] relu2 -> ip2 (in-place)
I0428 20:24:22.283372  2395 net.cpp:124] Setting up relu2
I0428 20:24:22.283380  2395 net.cpp:131] Top shape: 100 10 (1000)
I0428 20:24:22.283385  2395 net.cpp:139] Memory required for data: 17962800
I0428 20:24:22.283387  2395 layer_factory.hpp:77] Creating layer ip3
I0428 20:24:22.283393  2395 net.cpp:86] Creating Layer ip3
I0428 20:24:22.283396  2395 net.cpp:408] ip3 <- ip2
I0428 20:24:22.283401  2395 net.cpp:382] ip3 -> ip3
I0428 20:24:22.283506  2395 net.cpp:124] Setting up ip3
I0428 20:24:22.283517  2395 net.cpp:131] Top shape: 100 10 (1000)
I0428 20:24:22.283520  2395 net.cpp:139] Memory required for data: 17966800
I0428 20:24:22.283542  2395 layer_factory.hpp:77] Creating layer relu3
I0428 20:24:22.283546  2395 net.cpp:86] Creating Layer relu3
I0428 20:24:22.283550  2395 net.cpp:408] relu3 <- ip3
I0428 20:24:22.283553  2395 net.cpp:369] relu3 -> ip3 (in-place)
I0428 20:24:22.284329  2395 net.cpp:124] Setting up relu3
I0428 20:24:22.284340  2395 net.cpp:131] Top shape: 100 10 (1000)
I0428 20:24:22.284359  2395 net.cpp:139] Memory required for data: 17970800
I0428 20:24:22.284363  2395 layer_factory.hpp:77] Creating layer ip3_relu3_0_split
I0428 20:24:22.284368  2395 net.cpp:86] Creating Layer ip3_relu3_0_split
I0428 20:24:22.284370  2395 net.cpp:408] ip3_relu3_0_split <- ip3
I0428 20:24:22.284376  2395 net.cpp:382] ip3_relu3_0_split -> ip3_relu3_0_split_0
I0428 20:24:22.284382  2395 net.cpp:382] ip3_relu3_0_split -> ip3_relu3_0_split_1
I0428 20:24:22.284420  2395 net.cpp:124] Setting up ip3_relu3_0_split
I0428 20:24:22.284425  2395 net.cpp:131] Top shape: 100 10 (1000)
I0428 20:24:22.284428  2395 net.cpp:131] Top shape: 100 10 (1000)
I0428 20:24:22.284431  2395 net.cpp:139] Memory required for data: 17978800
I0428 20:24:22.284435  2395 layer_factory.hpp:77] Creating layer accuracy
I0428 20:24:22.284445  2395 net.cpp:86] Creating Layer accuracy
I0428 20:24:22.284447  2395 net.cpp:408] accuracy <- ip3_relu3_0_split_0
I0428 20:24:22.284451  2395 net.cpp:408] accuracy <- label_mnist_1_split_0
I0428 20:24:22.284471  2395 net.cpp:382] accuracy -> accuracy
…
