…
I0428 20:29:20.411335  3515 net.cpp:296] The NetState phase (0) differed from the phase (1) specified by a rule in layer mnist
I0428 20:29:20.411366  3515 net.cpp:296] The NetState phase (0) differed from the phase (1) specified by a rule in layer accuracy
I0428 20:29:20.411445  3515 net.cpp:53] Initializing net from parameters: 
name: "LeNet"
state {
  phase: TRAIN
  level: 0
  stage: ""
}
layer {
  name: "mnist"
  type: "Data"
  top: "data"
  top: "label"
  include {
    phase: TRAIN
  }
  transform_param {
    scale: 0.00390625
  }
  data_param {
    source: "examples/mnist/mnist_train_lmdb"
    batch_size: 64
    backend: LMDB
  }
}
layer {
  name: "conv0"
  type: "Convolution"
  bottom: "data"
  top: "conv0"
  param {
    lr_mult: 1
  }
  param {
    lr_mult: 2
  }
  convolution_param {
    num_output: 100
    kernel_size: 5
    stride: 1
    weight_filler {
      type: "xavier"
    }
    bias_filler {
      type: "constant"
    }
  }
}
layer {
  name: "pool0"
  type: "Pooling"
  bottom: "conv0"
  top: "pool0"
  pooling_param {
    pool: MAX
    kernel_size: 2
    stride: 2
  }
}
layer {
  name: "conv1"
  type: "Convolution"
  bottom: "pool0"
  top: "conv1"
  param {
    lr_mult: 1
  }
  param {
    lr_mult: 2
  }
  convolution_param {
    num_output: 5
    kernel_size: 5
    stride: 1
    weight_filler {
      type: "xavier"
    }
    bias_filler {
      type: "constant"
    }
  }
}
layer {
  name: "pool1"
  type: "Pooling"
  bottom: "conv1"
  top: "pool1"
  pooling_param {
    pool: MAX
    kernel_size: 2
    stride: 2
  }
}
layer {
  name: "ip1"
  type: "InnerProduct"
  bottom: "pool1"
  top: "ip1"
  param {
    lr_mult: 1
  }
  param {
    lr_mult: 2
  }
  inner_product_param {
    num_output: 50
    weight_filler {
      type: "xavier"
    }
    bias_filler {
      type: "constant"
    }
  }
}
layer {
  name: "relu1"
  type: "ReLU"
  bottom: "ip1"
  top: "ip1"
}
layer {
  name: "ip2"
  type: "InnerProduct"
  bottom: "ip1"
  top: "ip2"
  param {
    lr_mult: 1
  }
  param {
    lr_mult: 2
  }
  inner_product_param {
    num_output: 50
    weight_filler {
      type: "xavier"
    }
    bias_filler {
      type: "constant"
    }
  }
}
layer {
  name: "relu2"
  type: "ReLU"
  bottom: "ip2"
  top: "ip2"
}
layer {
  name: "ip3"
  type: "InnerProduct"
  bottom: "ip2"
  top: "ip3"
  param {
    lr_mult: 1
  }
  param {
    lr_mult: 2
  }
  inner_product_param {
    num_output: 10
    weight_filler {
      type: "xavier"
    }
    bias_filler {
      type: "constant"
    }
  }
}
layer {
  name: "relu3"
  type: "ReLU"
  bottom: "ip3"
  top: "ip3"
}
layer {
  name: "loss"
  type: "SoftmaxWithLoss"
  bottom: "ip3"
  bottom: "label"
  top: "loss"
}
I0428 20:29:20.411507  3515 layer_factory.hpp:77] Creating layer mnist
I0428 20:29:20.411586  3515 db_lmdb.cpp:35] Opened lmdb examples/mnist/mnist_train_lmdb
I0428 20:29:20.411603  3515 net.cpp:86] Creating Layer mnist
I0428 20:29:20.411610  3515 net.cpp:382] mnist -> data
I0428 20:29:20.411628  3515 net.cpp:382] mnist -> label
I0428 20:29:20.412607  3515 data_layer.cpp:45] output data size: 64,1,28,28
I0428 20:29:20.414875  3515 net.cpp:124] Setting up mnist
I0428 20:29:20.414906  3515 net.cpp:131] Top shape: 64 1 28 28 (50176)
I0428 20:29:20.414909  3515 net.cpp:131] Top shape: 64 (64)
I0428 20:29:20.414912  3515 net.cpp:139] Memory required for data: 200960
I0428 20:29:20.414918  3515 layer_factory.hpp:77] Creating layer conv0
I0428 20:29:20.414932  3515 net.cpp:86] Creating Layer conv0
I0428 20:29:20.414949  3515 net.cpp:408] conv0 <- data
I0428 20:29:20.414963  3515 net.cpp:382] conv0 -> conv0
I0428 20:29:20.643843  3515 net.cpp:124] Setting up conv0
I0428 20:29:20.643887  3515 net.cpp:131] Top shape: 64 100 24 24 (3686400)
I0428 20:29:20.643890  3515 net.cpp:139] Memory required for data: 14946560
I0428 20:29:20.643906  3515 layer_factory.hpp:77] Creating layer pool0
I0428 20:29:20.643934  3515 net.cpp:86] Creating Layer pool0
I0428 20:29:20.643939  3515 net.cpp:408] pool0 <- conv0
I0428 20:29:20.643944  3515 net.cpp:382] pool0 -> pool0
I0428 20:29:20.643988  3515 net.cpp:124] Setting up pool0
I0428 20:29:20.643996  3515 net.cpp:131] Top shape: 64 100 12 12 (921600)
I0428 20:29:20.643998  3515 net.cpp:139] Memory required for data: 18632960
I0428 20:29:20.644001  3515 layer_factory.hpp:77] Creating layer conv1
I0428 20:29:20.644011  3515 net.cpp:86] Creating Layer conv1
I0428 20:29:20.644014  3515 net.cpp:408] conv1 <- pool0
I0428 20:29:20.644018  3515 net.cpp:382] conv1 -> conv1
I0428 20:29:20.646862  3515 net.cpp:124] Setting up conv1
I0428 20:29:20.646891  3515 net.cpp:131] Top shape: 64 5 8 8 (20480)
I0428 20:29:20.646894  3515 net.cpp:139] Memory required for data: 18714880
I0428 20:29:20.646903  3515 layer_factory.hpp:77] Creating layer pool1
I0428 20:29:20.646910  3515 net.cpp:86] Creating Layer pool1
I0428 20:29:20.646914  3515 net.cpp:408] pool1 <- conv1
I0428 20:29:20.646934  3515 net.cpp:382] pool1 -> pool1
I0428 20:29:20.646970  3515 net.cpp:124] Setting up pool1
I0428 20:29:20.646976  3515 net.cpp:131] Top shape: 64 5 4 4 (5120)
I0428 20:29:20.646980  3515 net.cpp:139] Memory required for data: 18735360
I0428 20:29:20.646982  3515 layer_factory.hpp:77] Creating layer ip1
I0428 20:29:20.646988  3515 net.cpp:86] Creating Layer ip1
I0428 20:29:20.646991  3515 net.cpp:408] ip1 <- pool1
I0428 20:29:20.646996  3515 net.cpp:382] ip1 -> ip1
I0428 20:29:20.647130  3515 net.cpp:124] Setting up ip1
I0428 20:29:20.647137  3515 net.cpp:131] Top shape: 64 50 (3200)
I0428 20:29:20.647140  3515 net.cpp:139] Memory required for data: 18748160
I0428 20:29:20.647147  3515 layer_factory.hpp:77] Creating layer relu1
I0428 20:29:20.647153  3515 net.cpp:86] Creating Layer relu1
I0428 20:29:20.647156  3515 net.cpp:408] relu1 <- ip1
I0428 20:29:20.647161  3515 net.cpp:369] relu1 -> ip1 (in-place)
I0428 20:29:20.647322  3515 net.cpp:124] Setting up relu1
I0428 20:29:20.647330  3515 net.cpp:131] Top shape: 64 50 (3200)
I0428 20:29:20.647334  3515 net.cpp:139] Memory required for data: 18760960
I0428 20:29:20.647337  3515 layer_factory.hpp:77] Creating layer ip2
I0428 20:29:20.647343  3515 net.cpp:86] Creating Layer ip2
I0428 20:29:20.647346  3515 net.cpp:408] ip2 <- ip1
I0428 20:29:20.647351  3515 net.cpp:382] ip2 -> ip2
I0428 20:29:20.647469  3515 net.cpp:124] Setting up ip2
I0428 20:29:20.647475  3515 net.cpp:131] Top shape: 64 50 (3200)
I0428 20:29:20.647478  3515 net.cpp:139] Memory required for data: 18773760
I0428 20:29:20.647483  3515 layer_factory.hpp:77] Creating layer relu2
I0428 20:29:20.647488  3515 net.cpp:86] Creating Layer relu2
I0428 20:29:20.647491  3515 net.cpp:408] relu2 <- ip2
I0428 20:29:20.647495  3515 net.cpp:369] relu2 -> ip2 (in-place)
I0428 20:29:20.648216  3515 net.cpp:124] Setting up relu2
I0428 20:29:20.648228  3515 net.cpp:131] Top shape: 64 50 (3200)
I0428 20:29:20.648247  3515 net.cpp:139] Memory required for data: 18786560
I0428 20:29:20.648252  3515 layer_factory.hpp:77] Creating layer ip3
I0428 20:29:20.648258  3515 net.cpp:86] Creating Layer ip3
I0428 20:29:20.648262  3515 net.cpp:408] ip3 <- ip2
I0428 20:29:20.648267  3515 net.cpp:382] ip3 -> ip3
I0428 20:29:20.648370  3515 net.cpp:124] Setting up ip3
I0428 20:29:20.648377  3515 net.cpp:131] Top shape: 64 10 (640)
I0428 20:29:20.648380  3515 net.cpp:139] Memory required for data: 18789120
I0428 20:29:20.648388  3515 layer_factory.hpp:77] Creating layer relu3
I0428 20:29:20.648396  3515 net.cpp:86] Creating Layer relu3
I0428 20:29:20.648401  3515 net.cpp:408] relu3 <- ip3
I0428 20:29:20.648404  3515 net.cpp:369] relu3 -> ip3 (in-place)
I0428 20:29:20.648584  3515 net.cpp:124] Setting up relu3
I0428 20:29:20.648592  3515 net.cpp:131] Top shape: 64 10 (640)
I0428 20:29:20.648596  3515 net.cpp:139] Memory required for data: 18791680
I0428 20:29:20.648598  3515 layer_factory.hpp:77] Creating layer loss
I0428 20:29:20.648604  3515 net.cpp:86] Creating Layer loss
I0428 20:29:20.648607  3515 net.cpp:408] loss <- ip3
I0428 20:29:20.648610  3515 net.cpp:408] loss <- label
I0428 20:29:20.648617  3515 net.cpp:382] loss -> loss
I0428 20:29:20.648633  3515 layer_factory.hpp:77] Creating layer loss
…
I0428 20:29:20.649312  3515 solver.cpp:173] Creating test net (#0) specified by net file: ECE595/mnist/train_test/var_everything2/lenet_train_test1520.prototxt
I0428 20:29:20.649370  3515 net.cpp:296] The NetState phase (1) differed from the phase (0) specified by a rule in layer mnist
I0428 20:29:20.649462  3515 net.cpp:53] Initializing net from parameters: 
name: "LeNet"
state {
  phase: TEST
}
layer {
  name: "mnist"
  type: "Data"
  top: "data"
  top: "label"
  include {
    phase: TEST
  }
  transform_param {
    scale: 0.00390625
  }
  data_param {
    source: "examples/mnist/mnist_test_lmdb"
    batch_size: 100
    backend: LMDB
  }
}
layer {
  name: "conv0"
  type: "Convolution"
  bottom: "data"
  top: "conv0"
  param {
    lr_mult: 1
  }
  param {
    lr_mult: 2
  }
  convolution_param {
    num_output: 100
    kernel_size: 5
    stride: 1
    weight_filler {
      type: "xavier"
    }
    bias_filler {
      type: "constant"
    }
  }
}
layer {
  name: "pool0"
  type: "Pooling"
  bottom: "conv0"
  top: "pool0"
  pooling_param {
    pool: MAX
    kernel_size: 2
    stride: 2
  }
}
layer {
  name: "conv1"
  type: "Convolution"
  bottom: "pool0"
  top: "conv1"
  param {
    lr_mult: 1
  }
  param {
    lr_mult: 2
  }
  convolution_param {
    num_output: 5
    kernel_size: 5
    stride: 1
    weight_filler {
      type: "xavier"
    }
    bias_filler {
      type: "constant"
    }
  }
}
layer {
  name: "pool1"
  type: "Pooling"
  bottom: "conv1"
  top: "pool1"
  pooling_param {
    pool: MAX
    kernel_size: 2
    stride: 2
  }
}
layer {
  name: "ip1"
  type: "InnerProduct"
  bottom: "pool1"
  top: "ip1"
  param {
    lr_mult: 1
  }
  param {
    lr_mult: 2
  }
  inner_product_param {
    num_output: 50
    weight_filler {
      type: "xavier"
    }
    bias_filler {
      type: "constant"
    }
  }
}
layer {
  name: "relu1"
  type: "ReLU"
  bottom: "ip1"
  top: "ip1"
}
layer {
  name: "ip2"
  type: "InnerProduct"
  bottom: "ip1"
  top: "ip2"
  param {
    lr_mult: 1
  }
  param {
    lr_mult: 2
  }
  inner_product_param {
    num_output: 50
    weight_filler {
      type: "xavier"
    }
    bias_filler {
      type: "constant"
    }
  }
}
layer {
  name: "relu2"
  type: "ReLU"
  bottom: "ip2"
  top: "ip2"
}
layer {
  name: "ip3"
  type: "InnerProduct"
  bottom: "ip2"
  top: "ip3"
  param {
    lr_mult: 1
  }
  param {
    lr_mult: 2
  }
  inner_product_param {
    num_output: 10
    weight_filler {
      type: "xavier"
    }
    bias_filler {
      type: "constant"
    }
  }
}
layer {
  name: "relu3"
  type: "ReLU"
  bottom: "ip3"
  top: "ip3"
}
layer {
  name: "accuracy"
  type: "Accuracy"
  bottom: "ip3"
  bottom: "label"
  top: "accuracy"
  include {
    phase: TEST
  }
}
layer {
  name: "loss"
  type: "SoftmaxWithLoss"
  bottom: "ip3"
  bottom: "label"
  top: "loss"
}
I0428 20:29:20.649541  3515 layer_factory.hpp:77] Creating layer mnist
I0428 20:29:20.649585  3515 db_lmdb.cpp:35] Opened lmdb examples/mnist/mnist_test_lmdb
I0428 20:29:20.649596  3515 net.cpp:86] Creating Layer mnist
I0428 20:29:20.649601  3515 net.cpp:382] mnist -> data
I0428 20:29:20.649610  3515 net.cpp:382] mnist -> label
I0428 20:29:20.649710  3515 data_layer.cpp:45] output data size: 100,1,28,28
I0428 20:29:20.651682  3515 net.cpp:124] Setting up mnist
I0428 20:29:20.651710  3515 net.cpp:131] Top shape: 100 1 28 28 (78400)
I0428 20:29:20.651715  3515 net.cpp:131] Top shape: 100 (100)
I0428 20:29:20.651718  3515 net.cpp:139] Memory required for data: 314000
I0428 20:29:20.651722  3515 layer_factory.hpp:77] Creating layer label_mnist_1_split
I0428 20:29:20.651732  3515 net.cpp:86] Creating Layer label_mnist_1_split
I0428 20:29:20.651736  3515 net.cpp:408] label_mnist_1_split <- label
I0428 20:29:20.651741  3515 net.cpp:382] label_mnist_1_split -> label_mnist_1_split_0
I0428 20:29:20.651747  3515 net.cpp:382] label_mnist_1_split -> label_mnist_1_split_1
I0428 20:29:20.651835  3515 net.cpp:124] Setting up label_mnist_1_split
I0428 20:29:20.651856  3515 net.cpp:131] Top shape: 100 (100)
I0428 20:29:20.651860  3515 net.cpp:131] Top shape: 100 (100)
I0428 20:29:20.651862  3515 net.cpp:139] Memory required for data: 314800
I0428 20:29:20.651865  3515 layer_factory.hpp:77] Creating layer conv0
I0428 20:29:20.651873  3515 net.cpp:86] Creating Layer conv0
I0428 20:29:20.651876  3515 net.cpp:408] conv0 <- data
I0428 20:29:20.651881  3515 net.cpp:382] conv0 -> conv0
I0428 20:29:20.653504  3515 net.cpp:124] Setting up conv0
I0428 20:29:20.653517  3515 net.cpp:131] Top shape: 100 100 24 24 (5760000)
I0428 20:29:20.653522  3515 net.cpp:139] Memory required for data: 23354800
I0428 20:29:20.653545  3515 layer_factory.hpp:77] Creating layer pool0
I0428 20:29:20.653551  3515 net.cpp:86] Creating Layer pool0
I0428 20:29:20.653554  3515 net.cpp:408] pool0 <- conv0
I0428 20:29:20.653559  3515 net.cpp:382] pool0 -> pool0
I0428 20:29:20.653599  3515 net.cpp:124] Setting up pool0
I0428 20:29:20.653604  3515 net.cpp:131] Top shape: 100 100 12 12 (1440000)
I0428 20:29:20.653607  3515 net.cpp:139] Memory required for data: 29114800
I0428 20:29:20.653610  3515 layer_factory.hpp:77] Creating layer conv1
I0428 20:29:20.653619  3515 net.cpp:86] Creating Layer conv1
I0428 20:29:20.653621  3515 net.cpp:408] conv1 <- pool0
I0428 20:29:20.653626  3515 net.cpp:382] conv1 -> conv1
I0428 20:29:20.655292  3515 net.cpp:124] Setting up conv1
I0428 20:29:20.655304  3515 net.cpp:131] Top shape: 100 5 8 8 (32000)
I0428 20:29:20.655308  3515 net.cpp:139] Memory required for data: 29242800
I0428 20:29:20.655316  3515 layer_factory.hpp:77] Creating layer pool1
I0428 20:29:20.655323  3515 net.cpp:86] Creating Layer pool1
I0428 20:29:20.655326  3515 net.cpp:408] pool1 <- conv1
I0428 20:29:20.655331  3515 net.cpp:382] pool1 -> pool1
I0428 20:29:20.655366  3515 net.cpp:124] Setting up pool1
I0428 20:29:20.655374  3515 net.cpp:131] Top shape: 100 5 4 4 (8000)
I0428 20:29:20.655376  3515 net.cpp:139] Memory required for data: 29274800
I0428 20:29:20.655378  3515 layer_factory.hpp:77] Creating layer ip1
I0428 20:29:20.655385  3515 net.cpp:86] Creating Layer ip1
I0428 20:29:20.655387  3515 net.cpp:408] ip1 <- pool1
I0428 20:29:20.655392  3515 net.cpp:382] ip1 -> ip1
I0428 20:29:20.655509  3515 net.cpp:124] Setting up ip1
I0428 20:29:20.655516  3515 net.cpp:131] Top shape: 100 50 (5000)
I0428 20:29:20.655530  3515 net.cpp:139] Memory required for data: 29294800
I0428 20:29:20.655537  3515 layer_factory.hpp:77] Creating layer relu1
I0428 20:29:20.655542  3515 net.cpp:86] Creating Layer relu1
I0428 20:29:20.655545  3515 net.cpp:408] relu1 <- ip1
I0428 20:29:20.655550  3515 net.cpp:369] relu1 -> ip1 (in-place)
I0428 20:29:20.655721  3515 net.cpp:124] Setting up relu1
I0428 20:29:20.655730  3515 net.cpp:131] Top shape: 100 50 (5000)
I0428 20:29:20.655733  3515 net.cpp:139] Memory required for data: 29314800
I0428 20:29:20.655736  3515 layer_factory.hpp:77] Creating layer ip2
I0428 20:29:20.655742  3515 net.cpp:86] Creating Layer ip2
I0428 20:29:20.655746  3515 net.cpp:408] ip2 <- ip1
I0428 20:29:20.655750  3515 net.cpp:382] ip2 -> ip2
I0428 20:29:20.655910  3515 net.cpp:124] Setting up ip2
I0428 20:29:20.655918  3515 net.cpp:131] Top shape: 100 50 (5000)
I0428 20:29:20.655930  3515 net.cpp:139] Memory required for data: 29334800
I0428 20:29:20.655935  3515 layer_factory.hpp:77] Creating layer relu2
I0428 20:29:20.655939  3515 net.cpp:86] Creating Layer relu2
I0428 20:29:20.655942  3515 net.cpp:408] relu2 <- ip2
I0428 20:29:20.655962  3515 net.cpp:369] relu2 -> ip2 (in-place)
I0428 20:29:20.656131  3515 net.cpp:124] Setting up relu2
I0428 20:29:20.656139  3515 net.cpp:131] Top shape: 100 50 (5000)
I0428 20:29:20.656142  3515 net.cpp:139] Memory required for data: 29354800
I0428 20:29:20.656150  3515 layer_factory.hpp:77] Creating layer ip3
I0428 20:29:20.656155  3515 net.cpp:86] Creating Layer ip3
I0428 20:29:20.656158  3515 net.cpp:408] ip3 <- ip2
I0428 20:29:20.656163  3515 net.cpp:382] ip3 -> ip3
I0428 20:29:20.656291  3515 net.cpp:124] Setting up ip3
I0428 20:29:20.656298  3515 net.cpp:131] Top shape: 100 10 (1000)
I0428 20:29:20.656301  3515 net.cpp:139] Memory required for data: 29358800
I0428 20:29:20.656308  3515 layer_factory.hpp:77] Creating layer relu3
I0428 20:29:20.656313  3515 net.cpp:86] Creating Layer relu3
I0428 20:29:20.656316  3515 net.cpp:408] relu3 <- ip3
I0428 20:29:20.656319  3515 net.cpp:369] relu3 -> ip3 (in-place)
I0428 20:29:20.657214  3515 net.cpp:124] Setting up relu3
I0428 20:29:20.657227  3515 net.cpp:131] Top shape: 100 10 (1000)
I0428 20:29:20.657230  3515 net.cpp:139] Memory required for data: 29362800
I0428 20:29:20.657240  3515 layer_factory.hpp:77] Creating layer ip3_relu3_0_split
I0428 20:29:20.657245  3515 net.cpp:86] Creating Layer ip3_relu3_0_split
I0428 20:29:20.657249  3515 net.cpp:408] ip3_relu3_0_split <- ip3
I0428 20:29:20.657254  3515 net.cpp:382] ip3_relu3_0_split -> ip3_relu3_0_split_0
I0428 20:29:20.657260  3515 net.cpp:382] ip3_relu3_0_split -> ip3_relu3_0_split_1
I0428 20:29:20.657302  3515 net.cpp:124] Setting up ip3_relu3_0_split
I0428 20:29:20.657310  3515 net.cpp:131] Top shape: 100 10 (1000)
I0428 20:29:20.657313  3515 net.cpp:131] Top shape: 100 10 (1000)
I0428 20:29:20.657317  3515 net.cpp:139] Memory required for data: 29370800
I0428 20:29:20.657320  3515 layer_factory.hpp:77] Creating layer accuracy
I0428 20:29:20.657330  3515 net.cpp:86] Creating Layer accuracy
I0428 20:29:20.657333  3515 net.cpp:408] accuracy <- ip3_relu3_0_split_0
I0428 20:29:20.657338  3515 net.cpp:408] accuracy <- label_mnist_1_split_0
I0428 20:29:20.657342  3515 net.cpp:382] accuracy -> accuracy
…
