…
I0428 20:15:21.581931   426 net.cpp:296] The NetState phase (0) differed from the phase (1) specified by a rule in layer mnist
I0428 20:15:21.581950   426 net.cpp:296] The NetState phase (0) differed from the phase (1) specified by a rule in layer accuracy
I0428 20:15:21.582054   426 net.cpp:53] Initializing net from parameters: 
name: "LeNet"
state {
  phase: TRAIN
  level: 0
  stage: ""
}
layer {
  name: "mnist"
  type: "Data"
  top: "data"
  top: "label"
  include {
    phase: TRAIN
  }
  transform_param {
    scale: 0.00390625
  }
  data_param {
    source: "examples/mnist/mnist_train_lmdb"
    batch_size: 64
    backend: LMDB
  }
}
layer {
  name: "conv0"
  type: "Convolution"
  bottom: "data"
  top: "conv0"
  param {
    lr_mult: 1
  }
  param {
    lr_mult: 2
  }
  convolution_param {
    num_output: 50
    kernel_size: 5
    stride: 1
    weight_filler {
      type: "xavier"
    }
    bias_filler {
      type: "constant"
    }
  }
}
layer {
  name: "pool0"
  type: "Pooling"
  bottom: "conv0"
  top: "pool0"
  pooling_param {
    pool: MAX
    kernel_size: 2
    stride: 2
  }
}
layer {
  name: "conv1"
  type: "Convolution"
  bottom: "pool0"
  top: "conv1"
  param {
    lr_mult: 1
  }
  param {
    lr_mult: 2
  }
  convolution_param {
    num_output: 2
    kernel_size: 5
    stride: 1
    weight_filler {
      type: "xavier"
    }
    bias_filler {
      type: "constant"
    }
  }
}
layer {
  name: "pool1"
  type: "Pooling"
  bottom: "conv1"
  top: "pool1"
  pooling_param {
    pool: MAX
    kernel_size: 2
    stride: 2
  }
}
layer {
  name: "ip1"
  type: "InnerProduct"
  bottom: "pool1"
  top: "ip1"
  param {
    lr_mult: 1
  }
  param {
    lr_mult: 2
  }
  inner_product_param {
    num_output: 50
    weight_filler {
      type: "xavier"
    }
    bias_filler {
      type: "constant"
    }
  }
}
layer {
  name: "relu1"
  type: "ReLU"
  bottom: "ip1"
  top: "ip1"
}
layer {
  name: "ip2"
  type: "InnerProduct"
  bottom: "ip1"
  top: "ip2"
  param {
    lr_mult: 1
  }
  param {
    lr_mult: 2
  }
  inner_product_param {
    num_output: 25
    weight_filler {
      type: "xavier"
    }
    bias_filler {
      type: "constant"
    }
  }
}
layer {
  name: "relu2"
  type: "ReLU"
  bottom: "ip2"
  top: "ip2"
}
layer {
  name: "ip3"
  type: "InnerProduct"
  bottom: "ip2"
  top: "ip3"
  param {
    lr_mult: 1
  }
  param {
    lr_mult: 2
  }
  inner_product_param {
    num_output: 10
    weight_filler {
      type: "xavier"
    }
    bias_filler {
      type: "constant"
    }
  }
}
layer {
  name: "relu3"
  type: "ReLU"
  bottom: "ip3"
  top: "ip3"
}
layer {
  name: "loss"
  type: "SoftmaxWithLoss"
  bottom: "ip3"
  bottom: "label"
  top: "loss"
}
I0428 20:15:21.582134   426 layer_factory.hpp:77] Creating layer mnist
I0428 20:15:21.582232   426 db_lmdb.cpp:35] Opened lmdb examples/mnist/mnist_train_lmdb
I0428 20:15:21.582258   426 net.cpp:86] Creating Layer mnist
I0428 20:15:21.582267   426 net.cpp:382] mnist -> data
I0428 20:15:21.582289   426 net.cpp:382] mnist -> label
I0428 20:15:21.583442   426 data_layer.cpp:45] output data size: 64,1,28,28
I0428 20:15:21.585995   426 net.cpp:124] Setting up mnist
I0428 20:15:21.586014   426 net.cpp:131] Top shape: 64 1 28 28 (50176)
I0428 20:15:21.586022   426 net.cpp:131] Top shape: 64 (64)
I0428 20:15:21.586025   426 net.cpp:139] Memory required for data: 200960
I0428 20:15:21.586033   426 layer_factory.hpp:77] Creating layer conv0
I0428 20:15:21.586048   426 net.cpp:86] Creating Layer conv0
I0428 20:15:21.586068   426 net.cpp:408] conv0 <- data
I0428 20:15:21.586082   426 net.cpp:382] conv0 -> conv0
I0428 20:15:21.871798   426 net.cpp:124] Setting up conv0
I0428 20:15:21.871829   426 net.cpp:131] Top shape: 64 50 24 24 (1843200)
I0428 20:15:21.871834   426 net.cpp:139] Memory required for data: 7573760
I0428 20:15:21.871848   426 layer_factory.hpp:77] Creating layer pool0
I0428 20:15:21.871862   426 net.cpp:86] Creating Layer pool0
I0428 20:15:21.871868   426 net.cpp:408] pool0 <- conv0
I0428 20:15:21.871875   426 net.cpp:382] pool0 -> pool0
I0428 20:15:21.871929   426 net.cpp:124] Setting up pool0
I0428 20:15:21.871939   426 net.cpp:131] Top shape: 64 50 12 12 (460800)
I0428 20:15:21.871945   426 net.cpp:139] Memory required for data: 9416960
I0428 20:15:21.871950   426 layer_factory.hpp:77] Creating layer conv1
I0428 20:15:21.871968   426 net.cpp:86] Creating Layer conv1
I0428 20:15:21.871973   426 net.cpp:408] conv1 <- pool0
I0428 20:15:21.871980   426 net.cpp:382] conv1 -> conv1
I0428 20:15:21.874063   426 net.cpp:124] Setting up conv1
I0428 20:15:21.874083   426 net.cpp:131] Top shape: 64 2 8 8 (8192)
I0428 20:15:21.874089   426 net.cpp:139] Memory required for data: 9449728
I0428 20:15:21.874104   426 layer_factory.hpp:77] Creating layer pool1
I0428 20:15:21.874115   426 net.cpp:86] Creating Layer pool1
I0428 20:15:21.874122   426 net.cpp:408] pool1 <- conv1
I0428 20:15:21.874131   426 net.cpp:382] pool1 -> pool1
I0428 20:15:21.874181   426 net.cpp:124] Setting up pool1
I0428 20:15:21.874191   426 net.cpp:131] Top shape: 64 2 4 4 (2048)
I0428 20:15:21.874195   426 net.cpp:139] Memory required for data: 9457920
I0428 20:15:21.874200   426 layer_factory.hpp:77] Creating layer ip1
I0428 20:15:21.874214   426 net.cpp:86] Creating Layer ip1
I0428 20:15:21.874222   426 net.cpp:408] ip1 <- pool1
I0428 20:15:21.874229   426 net.cpp:382] ip1 -> ip1
I0428 20:15:21.874353   426 net.cpp:124] Setting up ip1
I0428 20:15:21.874363   426 net.cpp:131] Top shape: 64 50 (3200)
I0428 20:15:21.874368   426 net.cpp:139] Memory required for data: 9470720
I0428 20:15:21.874382   426 layer_factory.hpp:77] Creating layer relu1
I0428 20:15:21.874393   426 net.cpp:86] Creating Layer relu1
I0428 20:15:21.874400   426 net.cpp:408] relu1 <- ip1
I0428 20:15:21.874408   426 net.cpp:369] relu1 -> ip1 (in-place)
I0428 20:15:21.874593   426 net.cpp:124] Setting up relu1
I0428 20:15:21.874604   426 net.cpp:131] Top shape: 64 50 (3200)
I0428 20:15:21.874609   426 net.cpp:139] Memory required for data: 9483520
I0428 20:15:21.874614   426 layer_factory.hpp:77] Creating layer ip2
I0428 20:15:21.874626   426 net.cpp:86] Creating Layer ip2
I0428 20:15:21.874632   426 net.cpp:408] ip2 <- ip1
I0428 20:15:21.874641   426 net.cpp:382] ip2 -> ip2
I0428 20:15:21.874761   426 net.cpp:124] Setting up ip2
I0428 20:15:21.874773   426 net.cpp:131] Top shape: 64 25 (1600)
I0428 20:15:21.874778   426 net.cpp:139] Memory required for data: 9489920
I0428 20:15:21.874788   426 layer_factory.hpp:77] Creating layer relu2
I0428 20:15:21.874797   426 net.cpp:86] Creating Layer relu2
I0428 20:15:21.874804   426 net.cpp:408] relu2 <- ip2
I0428 20:15:21.874811   426 net.cpp:369] relu2 -> ip2 (in-place)
I0428 20:15:21.875605   426 net.cpp:124] Setting up relu2
I0428 20:15:21.875622   426 net.cpp:131] Top shape: 64 25 (1600)
I0428 20:15:21.875627   426 net.cpp:139] Memory required for data: 9496320
I0428 20:15:21.875633   426 layer_factory.hpp:77] Creating layer ip3
I0428 20:15:21.875645   426 net.cpp:86] Creating Layer ip3
I0428 20:15:21.875651   426 net.cpp:408] ip3 <- ip2
I0428 20:15:21.875661   426 net.cpp:382] ip3 -> ip3
I0428 20:15:21.875773   426 net.cpp:124] Setting up ip3
I0428 20:15:21.875783   426 net.cpp:131] Top shape: 64 10 (640)
I0428 20:15:21.875788   426 net.cpp:139] Memory required for data: 9498880
I0428 20:15:21.875802   426 layer_factory.hpp:77] Creating layer relu3
I0428 20:15:21.875811   426 net.cpp:86] Creating Layer relu3
I0428 20:15:21.875816   426 net.cpp:408] relu3 <- ip3
I0428 20:15:21.875825   426 net.cpp:369] relu3 -> ip3 (in-place)
I0428 20:15:21.876014   426 net.cpp:124] Setting up relu3
I0428 20:15:21.876025   426 net.cpp:131] Top shape: 64 10 (640)
I0428 20:15:21.876031   426 net.cpp:139] Memory required for data: 9501440
I0428 20:15:21.876036   426 layer_factory.hpp:77] Creating layer loss
I0428 20:15:21.876045   426 net.cpp:86] Creating Layer loss
I0428 20:15:21.876050   426 net.cpp:408] loss <- ip3
I0428 20:15:21.876057   426 net.cpp:408] loss <- label
I0428 20:15:21.876067   426 net.cpp:382] loss -> loss
I0428 20:15:21.876092   426 layer_factory.hpp:77] Creating layer loss
…
I0428 20:15:21.876806   426 solver.cpp:173] Creating test net (#0) specified by net file: ECE595/mnist/train_test/var_everything2/lenet_train_test1244.prototxt
I0428 20:15:21.876848   426 net.cpp:296] The NetState phase (1) differed from the phase (0) specified by a rule in layer mnist
I0428 20:15:21.876953   426 net.cpp:53] Initializing net from parameters: 
name: "LeNet"
state {
  phase: TEST
}
layer {
  name: "mnist"
  type: "Data"
  top: "data"
  top: "label"
  include {
    phase: TEST
  }
  transform_param {
    scale: 0.00390625
  }
  data_param {
    source: "examples/mnist/mnist_test_lmdb"
    batch_size: 100
    backend: LMDB
  }
}
layer {
  name: "conv0"
  type: "Convolution"
  bottom: "data"
  top: "conv0"
  param {
    lr_mult: 1
  }
  param {
    lr_mult: 2
  }
  convolution_param {
    num_output: 50
    kernel_size: 5
    stride: 1
    weight_filler {
      type: "xavier"
    }
    bias_filler {
      type: "constant"
    }
  }
}
layer {
  name: "pool0"
  type: "Pooling"
  bottom: "conv0"
  top: "pool0"
  pooling_param {
    pool: MAX
    kernel_size: 2
    stride: 2
  }
}
layer {
  name: "conv1"
  type: "Convolution"
  bottom: "pool0"
  top: "conv1"
  param {
    lr_mult: 1
  }
  param {
    lr_mult: 2
  }
  convolution_param {
    num_output: 2
    kernel_size: 5
    stride: 1
    weight_filler {
      type: "xavier"
    }
    bias_filler {
      type: "constant"
    }
  }
}
layer {
  name: "pool1"
  type: "Pooling"
  bottom: "conv1"
  top: "pool1"
  pooling_param {
    pool: MAX
    kernel_size: 2
    stride: 2
  }
}
layer {
  name: "ip1"
  type: "InnerProduct"
  bottom: "pool1"
  top: "ip1"
  param {
    lr_mult: 1
  }
  param {
    lr_mult: 2
  }
  inner_product_param {
    num_output: 50
    weight_filler {
      type: "xavier"
    }
    bias_filler {
      type: "constant"
    }
  }
}
layer {
  name: "relu1"
  type: "ReLU"
  bottom: "ip1"
  top: "ip1"
}
layer {
  name: "ip2"
  type: "InnerProduct"
  bottom: "ip1"
  top: "ip2"
  param {
    lr_mult: 1
  }
  param {
    lr_mult: 2
  }
  inner_product_param {
    num_output: 25
    weight_filler {
      type: "xavier"
    }
    bias_filler {
      type: "constant"
    }
  }
}
layer {
  name: "relu2"
  type: "ReLU"
  bottom: "ip2"
  top: "ip2"
}
layer {
  name: "ip3"
  type: "InnerProduct"
  bottom: "ip2"
  top: "ip3"
  param {
    lr_mult: 1
  }
  param {
    lr_mult: 2
  }
  inner_product_param {
    num_output: 10
    weight_filler {
      type: "xavier"
    }
    bias_filler {
      type: "constant"
    }
  }
}
layer {
  name: "relu3"
  type: "ReLU"
  bottom: "ip3"
  top: "ip3"
}
layer {
  name: "accuracy"
  type: "Accuracy"
  bottom: "ip3"
  bottom: "label"
  top: "accuracy"
  include {
    phase: TEST
  }
}
layer {
  name: "loss"
  type: "SoftmaxWithLoss"
  bottom: "ip3"
  bottom: "label"
  top: "loss"
}
I0428 20:15:21.877079   426 layer_factory.hpp:77] Creating layer mnist
I0428 20:15:21.877141   426 db_lmdb.cpp:35] Opened lmdb examples/mnist/mnist_test_lmdb
I0428 20:15:21.877161   426 net.cpp:86] Creating Layer mnist
I0428 20:15:21.877169   426 net.cpp:382] mnist -> data
I0428 20:15:21.877182   426 net.cpp:382] mnist -> label
I0428 20:15:21.877308   426 data_layer.cpp:45] output data size: 100,1,28,28
I0428 20:15:21.879592   426 net.cpp:124] Setting up mnist
I0428 20:15:21.879631   426 net.cpp:131] Top shape: 100 1 28 28 (78400)
I0428 20:15:21.879639   426 net.cpp:131] Top shape: 100 (100)
I0428 20:15:21.879645   426 net.cpp:139] Memory required for data: 314000
I0428 20:15:21.879652   426 layer_factory.hpp:77] Creating layer label_mnist_1_split
I0428 20:15:21.879665   426 net.cpp:86] Creating Layer label_mnist_1_split
I0428 20:15:21.879673   426 net.cpp:408] label_mnist_1_split <- label
I0428 20:15:21.879681   426 net.cpp:382] label_mnist_1_split -> label_mnist_1_split_0
I0428 20:15:21.879693   426 net.cpp:382] label_mnist_1_split -> label_mnist_1_split_1
I0428 20:15:21.879758   426 net.cpp:124] Setting up label_mnist_1_split
I0428 20:15:21.879767   426 net.cpp:131] Top shape: 100 (100)
I0428 20:15:21.879775   426 net.cpp:131] Top shape: 100 (100)
I0428 20:15:21.879779   426 net.cpp:139] Memory required for data: 314800
I0428 20:15:21.879784   426 layer_factory.hpp:77] Creating layer conv0
I0428 20:15:21.879799   426 net.cpp:86] Creating Layer conv0
I0428 20:15:21.879806   426 net.cpp:408] conv0 <- data
I0428 20:15:21.879817   426 net.cpp:382] conv0 -> conv0
I0428 20:15:21.881472   426 net.cpp:124] Setting up conv0
I0428 20:15:21.881490   426 net.cpp:131] Top shape: 100 50 24 24 (2880000)
I0428 20:15:21.881496   426 net.cpp:139] Memory required for data: 11834800
I0428 20:15:21.881511   426 layer_factory.hpp:77] Creating layer pool0
I0428 20:15:21.881523   426 net.cpp:86] Creating Layer pool0
I0428 20:15:21.881531   426 net.cpp:408] pool0 <- conv0
I0428 20:15:21.881541   426 net.cpp:382] pool0 -> pool0
I0428 20:15:21.881583   426 net.cpp:124] Setting up pool0
I0428 20:15:21.881592   426 net.cpp:131] Top shape: 100 50 12 12 (720000)
I0428 20:15:21.881598   426 net.cpp:139] Memory required for data: 14714800
I0428 20:15:21.881603   426 layer_factory.hpp:77] Creating layer conv1
I0428 20:15:21.881618   426 net.cpp:86] Creating Layer conv1
I0428 20:15:21.881624   426 net.cpp:408] conv1 <- pool0
I0428 20:15:21.881635   426 net.cpp:382] conv1 -> conv1
I0428 20:15:21.883230   426 net.cpp:124] Setting up conv1
I0428 20:15:21.883247   426 net.cpp:131] Top shape: 100 2 8 8 (12800)
I0428 20:15:21.883254   426 net.cpp:139] Memory required for data: 14766000
I0428 20:15:21.883267   426 layer_factory.hpp:77] Creating layer pool1
I0428 20:15:21.883277   426 net.cpp:86] Creating Layer pool1
I0428 20:15:21.883283   426 net.cpp:408] pool1 <- conv1
I0428 20:15:21.883294   426 net.cpp:382] pool1 -> pool1
I0428 20:15:21.883340   426 net.cpp:124] Setting up pool1
I0428 20:15:21.883349   426 net.cpp:131] Top shape: 100 2 4 4 (3200)
I0428 20:15:21.883354   426 net.cpp:139] Memory required for data: 14778800
I0428 20:15:21.883360   426 layer_factory.hpp:77] Creating layer ip1
I0428 20:15:21.883373   426 net.cpp:86] Creating Layer ip1
I0428 20:15:21.883379   426 net.cpp:408] ip1 <- pool1
I0428 20:15:21.883390   426 net.cpp:382] ip1 -> ip1
I0428 20:15:21.883512   426 net.cpp:124] Setting up ip1
I0428 20:15:21.883522   426 net.cpp:131] Top shape: 100 50 (5000)
I0428 20:15:21.883538   426 net.cpp:139] Memory required for data: 14798800
I0428 20:15:21.883553   426 layer_factory.hpp:77] Creating layer relu1
I0428 20:15:21.883560   426 net.cpp:86] Creating Layer relu1
I0428 20:15:21.883566   426 net.cpp:408] relu1 <- ip1
I0428 20:15:21.883574   426 net.cpp:369] relu1 -> ip1 (in-place)
I0428 20:15:21.883812   426 net.cpp:124] Setting up relu1
I0428 20:15:21.883823   426 net.cpp:131] Top shape: 100 50 (5000)
I0428 20:15:21.883829   426 net.cpp:139] Memory required for data: 14818800
I0428 20:15:21.883834   426 layer_factory.hpp:77] Creating layer ip2
I0428 20:15:21.883846   426 net.cpp:86] Creating Layer ip2
I0428 20:15:21.883852   426 net.cpp:408] ip2 <- ip1
I0428 20:15:21.883862   426 net.cpp:382] ip2 -> ip2
I0428 20:15:21.883983   426 net.cpp:124] Setting up ip2
I0428 20:15:21.883993   426 net.cpp:131] Top shape: 100 25 (2500)
I0428 20:15:21.883998   426 net.cpp:139] Memory required for data: 14828800
I0428 20:15:21.884008   426 layer_factory.hpp:77] Creating layer relu2
I0428 20:15:21.884016   426 net.cpp:86] Creating Layer relu2
I0428 20:15:21.884021   426 net.cpp:408] relu2 <- ip2
I0428 20:15:21.884030   426 net.cpp:369] relu2 -> ip2 (in-place)
I0428 20:15:21.884203   426 net.cpp:124] Setting up relu2
I0428 20:15:21.884215   426 net.cpp:131] Top shape: 100 25 (2500)
I0428 20:15:21.884220   426 net.cpp:139] Memory required for data: 14838800
I0428 20:15:21.884227   426 layer_factory.hpp:77] Creating layer ip3
I0428 20:15:21.884238   426 net.cpp:86] Creating Layer ip3
I0428 20:15:21.884243   426 net.cpp:408] ip3 <- ip2
I0428 20:15:21.884251   426 net.cpp:382] ip3 -> ip3
I0428 20:15:21.884358   426 net.cpp:124] Setting up ip3
I0428 20:15:21.884368   426 net.cpp:131] Top shape: 100 10 (1000)
I0428 20:15:21.884373   426 net.cpp:139] Memory required for data: 14842800
I0428 20:15:21.884387   426 layer_factory.hpp:77] Creating layer relu3
I0428 20:15:21.884397   426 net.cpp:86] Creating Layer relu3
I0428 20:15:21.884403   426 net.cpp:408] relu3 <- ip3
I0428 20:15:21.884413   426 net.cpp:369] relu3 -> ip3 (in-place)
I0428 20:15:21.885304   426 net.cpp:124] Setting up relu3
I0428 20:15:21.885319   426 net.cpp:131] Top shape: 100 10 (1000)
I0428 20:15:21.885324   426 net.cpp:139] Memory required for data: 14846800
I0428 20:15:21.885329   426 layer_factory.hpp:77] Creating layer ip3_relu3_0_split
I0428 20:15:21.885339   426 net.cpp:86] Creating Layer ip3_relu3_0_split
I0428 20:15:21.885346   426 net.cpp:408] ip3_relu3_0_split <- ip3
I0428 20:15:21.885354   426 net.cpp:382] ip3_relu3_0_split -> ip3_relu3_0_split_0
I0428 20:15:21.885365   426 net.cpp:382] ip3_relu3_0_split -> ip3_relu3_0_split_1
I0428 20:15:21.885422   426 net.cpp:124] Setting up ip3_relu3_0_split
I0428 20:15:21.885432   426 net.cpp:131] Top shape: 100 10 (1000)
I0428 20:15:21.885438   426 net.cpp:131] Top shape: 100 10 (1000)
I0428 20:15:21.885442   426 net.cpp:139] Memory required for data: 14854800
I0428 20:15:21.885447   426 layer_factory.hpp:77] Creating layer accuracy
I0428 20:15:21.885455   426 net.cpp:86] Creating Layer accuracy
I0428 20:15:21.885462   426 net.cpp:408] accuracy <- ip3_relu3_0_split_0
I0428 20:15:21.885468   426 net.cpp:408] accuracy <- label_mnist_1_split_0
I0428 20:15:21.885478   426 net.cpp:382] accuracy -> accuracy
…
