…
I0428 19:33:51.284041 23217 net.cpp:296] The NetState phase (0) differed from the phase (1) specified by a rule in layer mnist
I0428 19:33:51.284060 23217 net.cpp:296] The NetState phase (0) differed from the phase (1) specified by a rule in layer accuracy
I0428 19:33:51.284148 23217 net.cpp:53] Initializing net from parameters: 
name: "LeNet"
state {
  phase: TRAIN
  level: 0
  stage: ""
}
layer {
  name: "mnist"
  type: "Data"
  top: "data"
  top: "label"
  include {
    phase: TRAIN
  }
  transform_param {
    scale: 0.00390625
  }
  data_param {
    source: "examples/mnist/mnist_train_lmdb"
    batch_size: 64
    backend: LMDB
  }
}
layer {
  name: "conv0"
  type: "Convolution"
  bottom: "data"
  top: "conv0"
  param {
    lr_mult: 1
  }
  param {
    lr_mult: 2
  }
  convolution_param {
    num_output: 25
    kernel_size: 5
    stride: 1
    weight_filler {
      type: "xavier"
    }
    bias_filler {
      type: "constant"
    }
  }
}
layer {
  name: "pool0"
  type: "Pooling"
  bottom: "conv0"
  top: "pool0"
  pooling_param {
    pool: MAX
    kernel_size: 2
    stride: 2
  }
}
layer {
  name: "ip1"
  type: "InnerProduct"
  bottom: "pool0"
  top: "ip1"
  param {
    lr_mult: 1
  }
  param {
    lr_mult: 2
  }
  inner_product_param {
    num_output: 50
    weight_filler {
      type: "xavier"
    }
    bias_filler {
      type: "constant"
    }
  }
}
layer {
  name: "relu1"
  type: "ReLU"
  bottom: "ip1"
  top: "ip1"
}
layer {
  name: "ip2"
  type: "InnerProduct"
  bottom: "ip1"
  top: "ip2"
  param {
    lr_mult: 1
  }
  param {
    lr_mult: 2
  }
  inner_product_param {
    num_output: 25
    weight_filler {
      type: "xavier"
    }
    bias_filler {
      type: "constant"
    }
  }
}
layer {
  name: "relu2"
  type: "ReLU"
  bottom: "ip2"
  top: "ip2"
}
layer {
  name: "ip3"
  type: "InnerProduct"
  bottom: "ip2"
  top: "ip3"
  param {
    lr_mult: 1
  }
  param {
    lr_mult: 2
  }
  inner_product_param {
    num_output: 10
    weight_filler {
      type: "xavier"
    }
    bias_filler {
      type: "constant"
    }
  }
}
layer {
  name: "relu3"
  type: "ReLU"
  bottom: "ip3"
  top: "ip3"
}
layer {
  name: "loss"
  type: "SoftmaxWithLoss"
  bottom: "ip3"
  bottom: "label"
  top: "loss"
}
I0428 19:33:51.284224 23217 layer_factory.hpp:77] Creating layer mnist
I0428 19:33:51.284322 23217 db_lmdb.cpp:35] Opened lmdb examples/mnist/mnist_train_lmdb
I0428 19:33:51.284346 23217 net.cpp:86] Creating Layer mnist
I0428 19:33:51.284358 23217 net.cpp:382] mnist -> data
I0428 19:33:51.284382 23217 net.cpp:382] mnist -> label
I0428 19:33:51.285490 23217 data_layer.cpp:45] output data size: 64,1,28,28
I0428 19:33:51.287950 23217 net.cpp:124] Setting up mnist
I0428 19:33:51.287968 23217 net.cpp:131] Top shape: 64 1 28 28 (50176)
I0428 19:33:51.287978 23217 net.cpp:131] Top shape: 64 (64)
I0428 19:33:51.287981 23217 net.cpp:139] Memory required for data: 200960
I0428 19:33:51.287988 23217 layer_factory.hpp:77] Creating layer conv0
I0428 19:33:51.288018 23217 net.cpp:86] Creating Layer conv0
I0428 19:33:51.288025 23217 net.cpp:408] conv0 <- data
I0428 19:33:51.288039 23217 net.cpp:382] conv0 -> conv0
I0428 19:33:51.577036 23217 net.cpp:124] Setting up conv0
I0428 19:33:51.577066 23217 net.cpp:131] Top shape: 64 25 24 24 (921600)
I0428 19:33:51.577070 23217 net.cpp:139] Memory required for data: 3887360
I0428 19:33:51.577087 23217 layer_factory.hpp:77] Creating layer pool0
I0428 19:33:51.577100 23217 net.cpp:86] Creating Layer pool0
I0428 19:33:51.577121 23217 net.cpp:408] pool0 <- conv0
I0428 19:33:51.577127 23217 net.cpp:382] pool0 -> pool0
I0428 19:33:51.577188 23217 net.cpp:124] Setting up pool0
I0428 19:33:51.577196 23217 net.cpp:131] Top shape: 64 25 12 12 (230400)
I0428 19:33:51.577199 23217 net.cpp:139] Memory required for data: 4808960
I0428 19:33:51.577203 23217 layer_factory.hpp:77] Creating layer ip1
I0428 19:33:51.577214 23217 net.cpp:86] Creating Layer ip1
I0428 19:33:51.577217 23217 net.cpp:408] ip1 <- pool0
I0428 19:33:51.577221 23217 net.cpp:382] ip1 -> ip1
I0428 19:33:51.579293 23217 net.cpp:124] Setting up ip1
I0428 19:33:51.579308 23217 net.cpp:131] Top shape: 64 50 (3200)
I0428 19:33:51.579311 23217 net.cpp:139] Memory required for data: 4821760
I0428 19:33:51.579320 23217 layer_factory.hpp:77] Creating layer relu1
I0428 19:33:51.579329 23217 net.cpp:86] Creating Layer relu1
I0428 19:33:51.579331 23217 net.cpp:408] relu1 <- ip1
I0428 19:33:51.579336 23217 net.cpp:369] relu1 -> ip1 (in-place)
I0428 19:33:51.579509 23217 net.cpp:124] Setting up relu1
I0428 19:33:51.579519 23217 net.cpp:131] Top shape: 64 50 (3200)
I0428 19:33:51.579521 23217 net.cpp:139] Memory required for data: 4834560
I0428 19:33:51.579524 23217 layer_factory.hpp:77] Creating layer ip2
I0428 19:33:51.579531 23217 net.cpp:86] Creating Layer ip2
I0428 19:33:51.579535 23217 net.cpp:408] ip2 <- ip1
I0428 19:33:51.579540 23217 net.cpp:382] ip2 -> ip2
I0428 19:33:51.580487 23217 net.cpp:124] Setting up ip2
I0428 19:33:51.580499 23217 net.cpp:131] Top shape: 64 25 (1600)
I0428 19:33:51.580503 23217 net.cpp:139] Memory required for data: 4840960
I0428 19:33:51.580513 23217 layer_factory.hpp:77] Creating layer relu2
I0428 19:33:51.580518 23217 net.cpp:86] Creating Layer relu2
I0428 19:33:51.580521 23217 net.cpp:408] relu2 <- ip2
I0428 19:33:51.580526 23217 net.cpp:369] relu2 -> ip2 (in-place)
I0428 19:33:51.581353 23217 net.cpp:124] Setting up relu2
I0428 19:33:51.581367 23217 net.cpp:131] Top shape: 64 25 (1600)
I0428 19:33:51.581372 23217 net.cpp:139] Memory required for data: 4847360
I0428 19:33:51.581375 23217 layer_factory.hpp:77] Creating layer ip3
I0428 19:33:51.581382 23217 net.cpp:86] Creating Layer ip3
I0428 19:33:51.581385 23217 net.cpp:408] ip3 <- ip2
I0428 19:33:51.581392 23217 net.cpp:382] ip3 -> ip3
I0428 19:33:51.581485 23217 net.cpp:124] Setting up ip3
I0428 19:33:51.581493 23217 net.cpp:131] Top shape: 64 10 (640)
I0428 19:33:51.581496 23217 net.cpp:139] Memory required for data: 4849920
I0428 19:33:51.581502 23217 layer_factory.hpp:77] Creating layer relu3
I0428 19:33:51.581508 23217 net.cpp:86] Creating Layer relu3
I0428 19:33:51.581511 23217 net.cpp:408] relu3 <- ip3
I0428 19:33:51.581516 23217 net.cpp:369] relu3 -> ip3 (in-place)
I0428 19:33:51.581670 23217 net.cpp:124] Setting up relu3
I0428 19:33:51.581678 23217 net.cpp:131] Top shape: 64 10 (640)
I0428 19:33:51.581681 23217 net.cpp:139] Memory required for data: 4852480
I0428 19:33:51.581684 23217 layer_factory.hpp:77] Creating layer loss
I0428 19:33:51.581693 23217 net.cpp:86] Creating Layer loss
I0428 19:33:51.581697 23217 net.cpp:408] loss <- ip3
I0428 19:33:51.581701 23217 net.cpp:408] loss <- label
I0428 19:33:51.581707 23217 net.cpp:382] loss -> loss
I0428 19:33:51.581725 23217 layer_factory.hpp:77] Creating layer loss
…
I0428 19:33:51.582331 23217 solver.cpp:173] Creating test net (#0) specified by net file: ECE595/mnist/train_test/var_everything2/lenet_train_test190.prototxt
I0428 19:33:51.582357 23217 net.cpp:296] The NetState phase (1) differed from the phase (0) specified by a rule in layer mnist
I0428 19:33:51.582442 23217 net.cpp:53] Initializing net from parameters: 
name: "LeNet"
state {
  phase: TEST
}
layer {
  name: "mnist"
  type: "Data"
  top: "data"
  top: "label"
  include {
    phase: TEST
  }
  transform_param {
    scale: 0.00390625
  }
  data_param {
    source: "examples/mnist/mnist_test_lmdb"
    batch_size: 100
    backend: LMDB
  }
}
layer {
  name: "conv0"
  type: "Convolution"
  bottom: "data"
  top: "conv0"
  param {
    lr_mult: 1
  }
  param {
    lr_mult: 2
  }
  convolution_param {
    num_output: 25
    kernel_size: 5
    stride: 1
    weight_filler {
      type: "xavier"
    }
    bias_filler {
      type: "constant"
    }
  }
}
layer {
  name: "pool0"
  type: "Pooling"
  bottom: "conv0"
  top: "pool0"
  pooling_param {
    pool: MAX
    kernel_size: 2
    stride: 2
  }
}
layer {
  name: "ip1"
  type: "InnerProduct"
  bottom: "pool0"
  top: "ip1"
  param {
    lr_mult: 1
  }
  param {
    lr_mult: 2
  }
  inner_product_param {
    num_output: 50
    weight_filler {
      type: "xavier"
    }
    bias_filler {
      type: "constant"
    }
  }
}
layer {
  name: "relu1"
  type: "ReLU"
  bottom: "ip1"
  top: "ip1"
}
layer {
  name: "ip2"
  type: "InnerProduct"
  bottom: "ip1"
  top: "ip2"
  param {
    lr_mult: 1
  }
  param {
    lr_mult: 2
  }
  inner_product_param {
    num_output: 25
    weight_filler {
      type: "xavier"
    }
    bias_filler {
      type: "constant"
    }
  }
}
layer {
  name: "relu2"
  type: "ReLU"
  bottom: "ip2"
  top: "ip2"
}
layer {
  name: "ip3"
  type: "InnerProduct"
  bottom: "ip2"
  top: "ip3"
  param {
    lr_mult: 1
  }
  param {
    lr_mult: 2
  }
  inner_product_param {
    num_output: 10
    weight_filler {
      type: "xavier"
    }
    bias_filler {
      type: "constant"
    }
  }
}
layer {
  name: "relu3"
  type: "ReLU"
  bottom: "ip3"
  top: "ip3"
}
layer {
  name: "accuracy"
  type: "Accuracy"
  bottom: "ip3"
  bottom: "label"
  top: "accuracy"
  include {
    phase: TEST
  }
}
layer {
  name: "loss"
  type: "SoftmaxWithLoss"
  bottom: "ip3"
  bottom: "label"
  top: "loss"
}
I0428 19:33:51.582507 23217 layer_factory.hpp:77] Creating layer mnist
I0428 19:33:51.582551 23217 db_lmdb.cpp:35] Opened lmdb examples/mnist/mnist_test_lmdb
I0428 19:33:51.582564 23217 net.cpp:86] Creating Layer mnist
I0428 19:33:51.582569 23217 net.cpp:382] mnist -> data
I0428 19:33:51.582576 23217 net.cpp:382] mnist -> label
I0428 19:33:51.582665 23217 data_layer.cpp:45] output data size: 100,1,28,28
I0428 19:33:51.583761 23217 net.cpp:124] Setting up mnist
I0428 19:33:51.583776 23217 net.cpp:131] Top shape: 100 1 28 28 (78400)
I0428 19:33:51.583781 23217 net.cpp:131] Top shape: 100 (100)
I0428 19:33:51.583784 23217 net.cpp:139] Memory required for data: 314000
I0428 19:33:51.583788 23217 layer_factory.hpp:77] Creating layer label_mnist_1_split
I0428 19:33:51.583798 23217 net.cpp:86] Creating Layer label_mnist_1_split
I0428 19:33:51.583802 23217 net.cpp:408] label_mnist_1_split <- label
I0428 19:33:51.583807 23217 net.cpp:382] label_mnist_1_split -> label_mnist_1_split_0
I0428 19:33:51.583813 23217 net.cpp:382] label_mnist_1_split -> label_mnist_1_split_1
I0428 19:33:51.583915 23217 net.cpp:124] Setting up label_mnist_1_split
I0428 19:33:51.583923 23217 net.cpp:131] Top shape: 100 (100)
I0428 19:33:51.583927 23217 net.cpp:131] Top shape: 100 (100)
I0428 19:33:51.583930 23217 net.cpp:139] Memory required for data: 314800
I0428 19:33:51.583942 23217 layer_factory.hpp:77] Creating layer conv0
I0428 19:33:51.583953 23217 net.cpp:86] Creating Layer conv0
I0428 19:33:51.583956 23217 net.cpp:408] conv0 <- data
I0428 19:33:51.583963 23217 net.cpp:382] conv0 -> conv0
I0428 19:33:51.585676 23217 net.cpp:124] Setting up conv0
I0428 19:33:51.585691 23217 net.cpp:131] Top shape: 100 25 24 24 (1440000)
I0428 19:33:51.585695 23217 net.cpp:139] Memory required for data: 6074800
I0428 19:33:51.585705 23217 layer_factory.hpp:77] Creating layer pool0
I0428 19:33:51.585712 23217 net.cpp:86] Creating Layer pool0
I0428 19:33:51.585716 23217 net.cpp:408] pool0 <- conv0
I0428 19:33:51.585721 23217 net.cpp:382] pool0 -> pool0
I0428 19:33:51.585775 23217 net.cpp:124] Setting up pool0
I0428 19:33:51.585783 23217 net.cpp:131] Top shape: 100 25 12 12 (360000)
I0428 19:33:51.585785 23217 net.cpp:139] Memory required for data: 7514800
I0428 19:33:51.585788 23217 layer_factory.hpp:77] Creating layer ip1
I0428 19:33:51.585798 23217 net.cpp:86] Creating Layer ip1
I0428 19:33:51.585801 23217 net.cpp:408] ip1 <- pool0
I0428 19:33:51.585806 23217 net.cpp:382] ip1 -> ip1
I0428 19:33:51.587836 23217 net.cpp:124] Setting up ip1
I0428 19:33:51.587847 23217 net.cpp:131] Top shape: 100 50 (5000)
I0428 19:33:51.587851 23217 net.cpp:139] Memory required for data: 7534800
I0428 19:33:51.587859 23217 layer_factory.hpp:77] Creating layer relu1
I0428 19:33:51.587867 23217 net.cpp:86] Creating Layer relu1
I0428 19:33:51.587870 23217 net.cpp:408] relu1 <- ip1
I0428 19:33:51.587875 23217 net.cpp:369] relu1 -> ip1 (in-place)
I0428 19:33:51.588109 23217 net.cpp:124] Setting up relu1
I0428 19:33:51.588120 23217 net.cpp:131] Top shape: 100 50 (5000)
I0428 19:33:51.588124 23217 net.cpp:139] Memory required for data: 7554800
I0428 19:33:51.588129 23217 layer_factory.hpp:77] Creating layer ip2
I0428 19:33:51.588135 23217 net.cpp:86] Creating Layer ip2
I0428 19:33:51.588137 23217 net.cpp:408] ip2 <- ip1
I0428 19:33:51.588143 23217 net.cpp:382] ip2 -> ip2
I0428 19:33:51.588259 23217 net.cpp:124] Setting up ip2
I0428 19:33:51.588268 23217 net.cpp:131] Top shape: 100 25 (2500)
I0428 19:33:51.588270 23217 net.cpp:139] Memory required for data: 7564800
I0428 19:33:51.588279 23217 layer_factory.hpp:77] Creating layer relu2
I0428 19:33:51.588285 23217 net.cpp:86] Creating Layer relu2
I0428 19:33:51.588289 23217 net.cpp:408] relu2 <- ip2
I0428 19:33:51.588294 23217 net.cpp:369] relu2 -> ip2 (in-place)
I0428 19:33:51.589164 23217 net.cpp:124] Setting up relu2
I0428 19:33:51.589179 23217 net.cpp:131] Top shape: 100 25 (2500)
I0428 19:33:51.589182 23217 net.cpp:139] Memory required for data: 7574800
I0428 19:33:51.589186 23217 layer_factory.hpp:77] Creating layer ip3
I0428 19:33:51.589195 23217 net.cpp:86] Creating Layer ip3
I0428 19:33:51.589197 23217 net.cpp:408] ip3 <- ip2
I0428 19:33:51.589205 23217 net.cpp:382] ip3 -> ip3
I0428 19:33:51.589313 23217 net.cpp:124] Setting up ip3
I0428 19:33:51.589323 23217 net.cpp:131] Top shape: 100 10 (1000)
I0428 19:33:51.589330 23217 net.cpp:139] Memory required for data: 7578800
I0428 19:33:51.589336 23217 layer_factory.hpp:77] Creating layer relu3
I0428 19:33:51.589341 23217 net.cpp:86] Creating Layer relu3
I0428 19:33:51.589345 23217 net.cpp:408] relu3 <- ip3
I0428 19:33:51.589350 23217 net.cpp:369] relu3 -> ip3 (in-place)
I0428 19:33:51.589519 23217 net.cpp:124] Setting up relu3
I0428 19:33:51.589527 23217 net.cpp:131] Top shape: 100 10 (1000)
I0428 19:33:51.589530 23217 net.cpp:139] Memory required for data: 7582800
I0428 19:33:51.589534 23217 layer_factory.hpp:77] Creating layer ip3_relu3_0_split
I0428 19:33:51.589540 23217 net.cpp:86] Creating Layer ip3_relu3_0_split
I0428 19:33:51.589543 23217 net.cpp:408] ip3_relu3_0_split <- ip3
I0428 19:33:51.589550 23217 net.cpp:382] ip3_relu3_0_split -> ip3_relu3_0_split_0
I0428 19:33:51.589555 23217 net.cpp:382] ip3_relu3_0_split -> ip3_relu3_0_split_1
I0428 19:33:51.589592 23217 net.cpp:124] Setting up ip3_relu3_0_split
I0428 19:33:51.589599 23217 net.cpp:131] Top shape: 100 10 (1000)
I0428 19:33:51.589603 23217 net.cpp:131] Top shape: 100 10 (1000)
I0428 19:33:51.589617 23217 net.cpp:139] Memory required for data: 7590800
I0428 19:33:51.589620 23217 layer_factory.hpp:77] Creating layer accuracy
I0428 19:33:51.589625 23217 net.cpp:86] Creating Layer accuracy
I0428 19:33:51.589628 23217 net.cpp:408] accuracy <- ip3_relu3_0_split_0
I0428 19:33:51.589632 23217 net.cpp:408] accuracy <- label_mnist_1_split_0
I0428 19:33:51.589637 23217 net.cpp:382] accuracy -> accuracy
…
