…
I0428 19:54:35.599442 28023 net.cpp:296] The NetState phase (0) differed from the phase (1) specified by a rule in layer mnist
I0428 19:54:35.599473 28023 net.cpp:296] The NetState phase (0) differed from the phase (1) specified by a rule in layer accuracy
I0428 19:54:35.599634 28023 net.cpp:53] Initializing net from parameters: 
name: "LeNet"
state {
  phase: TRAIN
  level: 0
  stage: ""
}
layer {
  name: "mnist"
  type: "Data"
  top: "data"
  top: "label"
  include {
    phase: TRAIN
  }
  transform_param {
    scale: 0.00390625
  }
  data_param {
    source: "examples/mnist/mnist_train_lmdb"
    batch_size: 64
    backend: LMDB
  }
}
layer {
  name: "conv0"
  type: "Convolution"
  bottom: "data"
  top: "conv0"
  param {
    lr_mult: 1
  }
  param {
    lr_mult: 2
  }
  convolution_param {
    num_output: 5
    kernel_size: 5
    stride: 1
    weight_filler {
      type: "xavier"
    }
    bias_filler {
      type: "constant"
    }
  }
}
layer {
  name: "pool0"
  type: "Pooling"
  bottom: "conv0"
  top: "pool0"
  pooling_param {
    pool: MAX
    kernel_size: 2
    stride: 2
  }
}
layer {
  name: "conv1"
  type: "Convolution"
  bottom: "pool0"
  top: "conv1"
  param {
    lr_mult: 1
  }
  param {
    lr_mult: 2
  }
  convolution_param {
    num_output: 100
    kernel_size: 5
    stride: 1
    weight_filler {
      type: "xavier"
    }
    bias_filler {
      type: "constant"
    }
  }
}
layer {
  name: "pool1"
  type: "Pooling"
  bottom: "conv1"
  top: "pool1"
  pooling_param {
    pool: MAX
    kernel_size: 2
    stride: 2
  }
}
layer {
  name: "ip1"
  type: "InnerProduct"
  bottom: "pool1"
  top: "ip1"
  param {
    lr_mult: 1
  }
  param {
    lr_mult: 2
  }
  inner_product_param {
    num_output: 10
    weight_filler {
      type: "xavier"
    }
    bias_filler {
      type: "constant"
    }
  }
}
layer {
  name: "relu1"
  type: "ReLU"
  bottom: "ip1"
  top: "ip1"
}
layer {
  name: "ip2"
  type: "InnerProduct"
  bottom: "ip1"
  top: "ip2"
  param {
    lr_mult: 1
  }
  param {
    lr_mult: 2
  }
  inner_product_param {
    num_output: 10
    weight_filler {
      type: "xavier"
    }
    bias_filler {
      type: "constant"
    }
  }
}
layer {
  name: "relu2"
  type: "ReLU"
  bottom: "ip2"
  top: "ip2"
}
layer {
  name: "ip3"
  type: "InnerProduct"
  bottom: "ip2"
  top: "ip3"
  param {
    lr_mult: 1
  }
  param {
    lr_mult: 2
  }
  inner_product_param {
    num_output: 10
    weight_filler {
      type: "xavier"
    }
    bias_filler {
      type: "constant"
    }
  }
}
layer {
  name: "relu3"
  type: "ReLU"
  bottom: "ip3"
  top: "ip3"
}
layer {
  name: "loss"
  type: "SoftmaxWithLoss"
  bottom: "ip3"
  bottom: "label"
  top: "loss"
}
I0428 19:54:35.599751 28023 layer_factory.hpp:77] Creating layer mnist
I0428 19:54:35.599884 28023 db_lmdb.cpp:35] Opened lmdb examples/mnist/mnist_train_lmdb
I0428 19:54:35.599918 28023 net.cpp:86] Creating Layer mnist
I0428 19:54:35.599933 28023 net.cpp:382] mnist -> data
I0428 19:54:35.599964 28023 net.cpp:382] mnist -> label
I0428 19:54:35.601541 28023 data_layer.cpp:45] output data size: 64,1,28,28
I0428 19:54:35.604390 28023 net.cpp:124] Setting up mnist
I0428 19:54:35.604408 28023 net.cpp:131] Top shape: 64 1 28 28 (50176)
I0428 19:54:35.604414 28023 net.cpp:131] Top shape: 64 (64)
I0428 19:54:35.604418 28023 net.cpp:139] Memory required for data: 200960
I0428 19:54:35.604425 28023 layer_factory.hpp:77] Creating layer conv0
I0428 19:54:35.604449 28023 net.cpp:86] Creating Layer conv0
I0428 19:54:35.604480 28023 net.cpp:408] conv0 <- data
I0428 19:54:35.604499 28023 net.cpp:382] conv0 -> conv0
I0428 19:54:35.884289 28023 net.cpp:124] Setting up conv0
I0428 19:54:35.884313 28023 net.cpp:131] Top shape: 64 5 24 24 (184320)
I0428 19:54:35.884317 28023 net.cpp:139] Memory required for data: 938240
I0428 19:54:35.884331 28023 layer_factory.hpp:77] Creating layer pool0
I0428 19:54:35.884343 28023 net.cpp:86] Creating Layer pool0
I0428 19:54:35.884347 28023 net.cpp:408] pool0 <- conv0
I0428 19:54:35.884353 28023 net.cpp:382] pool0 -> pool0
I0428 19:54:35.884404 28023 net.cpp:124] Setting up pool0
I0428 19:54:35.884413 28023 net.cpp:131] Top shape: 64 5 12 12 (46080)
I0428 19:54:35.884418 28023 net.cpp:139] Memory required for data: 1122560
I0428 19:54:35.884423 28023 layer_factory.hpp:77] Creating layer conv1
I0428 19:54:35.884435 28023 net.cpp:86] Creating Layer conv1
I0428 19:54:35.884440 28023 net.cpp:408] conv1 <- pool0
I0428 19:54:35.884448 28023 net.cpp:382] conv1 -> conv1
I0428 19:54:35.887706 28023 net.cpp:124] Setting up conv1
I0428 19:54:35.887735 28023 net.cpp:131] Top shape: 64 100 8 8 (409600)
I0428 19:54:35.887739 28023 net.cpp:139] Memory required for data: 2760960
I0428 19:54:35.887748 28023 layer_factory.hpp:77] Creating layer pool1
I0428 19:54:35.887756 28023 net.cpp:86] Creating Layer pool1
I0428 19:54:35.887759 28023 net.cpp:408] pool1 <- conv1
I0428 19:54:35.887763 28023 net.cpp:382] pool1 -> pool1
I0428 19:54:35.887812 28023 net.cpp:124] Setting up pool1
I0428 19:54:35.887821 28023 net.cpp:131] Top shape: 64 100 4 4 (102400)
I0428 19:54:35.887826 28023 net.cpp:139] Memory required for data: 3170560
I0428 19:54:35.887831 28023 layer_factory.hpp:77] Creating layer ip1
I0428 19:54:35.887842 28023 net.cpp:86] Creating Layer ip1
I0428 19:54:35.887847 28023 net.cpp:408] ip1 <- pool1
I0428 19:54:35.887854 28023 net.cpp:382] ip1 -> ip1
I0428 19:54:35.888134 28023 net.cpp:124] Setting up ip1
I0428 19:54:35.888146 28023 net.cpp:131] Top shape: 64 10 (640)
I0428 19:54:35.888150 28023 net.cpp:139] Memory required for data: 3173120
I0428 19:54:35.888178 28023 layer_factory.hpp:77] Creating layer relu1
I0428 19:54:35.888188 28023 net.cpp:86] Creating Layer relu1
I0428 19:54:35.888195 28023 net.cpp:408] relu1 <- ip1
I0428 19:54:35.888200 28023 net.cpp:369] relu1 -> ip1 (in-place)
I0428 19:54:35.888429 28023 net.cpp:124] Setting up relu1
I0428 19:54:35.888443 28023 net.cpp:131] Top shape: 64 10 (640)
I0428 19:54:35.888448 28023 net.cpp:139] Memory required for data: 3175680
I0428 19:54:35.888453 28023 layer_factory.hpp:77] Creating layer ip2
I0428 19:54:35.888479 28023 net.cpp:86] Creating Layer ip2
I0428 19:54:35.888484 28023 net.cpp:408] ip2 <- ip1
I0428 19:54:35.888494 28023 net.cpp:382] ip2 -> ip2
I0428 19:54:35.888634 28023 net.cpp:124] Setting up ip2
I0428 19:54:35.888648 28023 net.cpp:131] Top shape: 64 10 (640)
I0428 19:54:35.888653 28023 net.cpp:139] Memory required for data: 3178240
I0428 19:54:35.888662 28023 layer_factory.hpp:77] Creating layer relu2
I0428 19:54:35.888671 28023 net.cpp:86] Creating Layer relu2
I0428 19:54:35.888677 28023 net.cpp:408] relu2 <- ip2
I0428 19:54:35.888684 28023 net.cpp:369] relu2 -> ip2 (in-place)
I0428 19:54:35.889833 28023 net.cpp:124] Setting up relu2
I0428 19:54:35.889865 28023 net.cpp:131] Top shape: 64 10 (640)
I0428 19:54:35.889870 28023 net.cpp:139] Memory required for data: 3180800
I0428 19:54:35.889876 28023 layer_factory.hpp:77] Creating layer ip3
I0428 19:54:35.889889 28023 net.cpp:86] Creating Layer ip3
I0428 19:54:35.889894 28023 net.cpp:408] ip3 <- ip2
I0428 19:54:35.889904 28023 net.cpp:382] ip3 -> ip3
I0428 19:54:35.890059 28023 net.cpp:124] Setting up ip3
I0428 19:54:35.890070 28023 net.cpp:131] Top shape: 64 10 (640)
I0428 19:54:35.890075 28023 net.cpp:139] Memory required for data: 3183360
I0428 19:54:35.890086 28023 layer_factory.hpp:77] Creating layer relu3
I0428 19:54:35.890094 28023 net.cpp:86] Creating Layer relu3
I0428 19:54:35.890099 28023 net.cpp:408] relu3 <- ip3
I0428 19:54:35.890105 28023 net.cpp:369] relu3 -> ip3 (in-place)
I0428 19:54:35.890362 28023 net.cpp:124] Setting up relu3
I0428 19:54:35.890375 28023 net.cpp:131] Top shape: 64 10 (640)
I0428 19:54:35.890380 28023 net.cpp:139] Memory required for data: 3185920
I0428 19:54:35.890385 28023 layer_factory.hpp:77] Creating layer loss
I0428 19:54:35.890393 28023 net.cpp:86] Creating Layer loss
I0428 19:54:35.890413 28023 net.cpp:408] loss <- ip3
I0428 19:54:35.890419 28023 net.cpp:408] loss <- label
I0428 19:54:35.890429 28023 net.cpp:382] loss -> loss
I0428 19:54:35.890449 28023 layer_factory.hpp:77] Creating layer loss
…
I0428 19:54:35.891511 28023 solver.cpp:173] Creating test net (#0) specified by net file: ECE595/mnist/train_test/var_everything2/lenet_train_test714.prototxt
I0428 19:54:35.891566 28023 net.cpp:296] The NetState phase (1) differed from the phase (0) specified by a rule in layer mnist
I0428 19:54:35.891726 28023 net.cpp:53] Initializing net from parameters: 
name: "LeNet"
state {
  phase: TEST
}
layer {
  name: "mnist"
  type: "Data"
  top: "data"
  top: "label"
  include {
    phase: TEST
  }
  transform_param {
    scale: 0.00390625
  }
  data_param {
    source: "examples/mnist/mnist_test_lmdb"
    batch_size: 100
    backend: LMDB
  }
}
layer {
  name: "conv0"
  type: "Convolution"
  bottom: "data"
  top: "conv0"
  param {
    lr_mult: 1
  }
  param {
    lr_mult: 2
  }
  convolution_param {
    num_output: 5
    kernel_size: 5
    stride: 1
    weight_filler {
      type: "xavier"
    }
    bias_filler {
      type: "constant"
    }
  }
}
layer {
  name: "pool0"
  type: "Pooling"
  bottom: "conv0"
  top: "pool0"
  pooling_param {
    pool: MAX
    kernel_size: 2
    stride: 2
  }
}
layer {
  name: "conv1"
  type: "Convolution"
  bottom: "pool0"
  top: "conv1"
  param {
    lr_mult: 1
  }
  param {
    lr_mult: 2
  }
  convolution_param {
    num_output: 100
    kernel_size: 5
    stride: 1
    weight_filler {
      type: "xavier"
    }
    bias_filler {
      type: "constant"
    }
  }
}
layer {
  name: "pool1"
  type: "Pooling"
  bottom: "conv1"
  top: "pool1"
  pooling_param {
    pool: MAX
    kernel_size: 2
    stride: 2
  }
}
layer {
  name: "ip1"
  type: "InnerProduct"
  bottom: "pool1"
  top: "ip1"
  param {
    lr_mult: 1
  }
  param {
    lr_mult: 2
  }
  inner_product_param {
    num_output: 10
    weight_filler {
      type: "xavier"
    }
    bias_filler {
      type: "constant"
    }
  }
}
layer {
  name: "relu1"
  type: "ReLU"
  bottom: "ip1"
  top: "ip1"
}
layer {
  name: "ip2"
  type: "InnerProduct"
  bottom: "ip1"
  top: "ip2"
  param {
    lr_mult: 1
  }
  param {
    lr_mult: 2
  }
  inner_product_param {
    num_output: 10
    weight_filler {
      type: "xavier"
    }
    bias_filler {
      type: "constant"
    }
  }
}
layer {
  name: "relu2"
  type: "ReLU"
  bottom: "ip2"
  top: "ip2"
}
layer {
  name: "ip3"
  type: "InnerProduct"
  bottom: "ip2"
  top: "ip3"
  param {
    lr_mult: 1
  }
  param {
    lr_mult: 2
  }
  inner_product_param {
    num_output: 10
    weight_filler {
      type: "xavier"
    }
    bias_filler {
      type: "constant"
    }
  }
}
layer {
  name: "relu3"
  type: "ReLU"
  bottom: "ip3"
  top: "ip3"
}
layer {
  name: "accuracy"
  type: "Accuracy"
  bottom: "ip3"
  bottom: "label"
  top: "accuracy"
  include {
    phase: TEST
  }
}
layer {
  name: "loss"
  type: "SoftmaxWithLoss"
  bottom: "ip3"
  bottom: "label"
  top: "loss"
}
I0428 19:54:35.891872 28023 layer_factory.hpp:77] Creating layer mnist
I0428 19:54:35.891953 28023 db_lmdb.cpp:35] Opened lmdb examples/mnist/mnist_test_lmdb
I0428 19:54:35.891988 28023 net.cpp:86] Creating Layer mnist
I0428 19:54:35.891995 28023 net.cpp:382] mnist -> data
I0428 19:54:35.892007 28023 net.cpp:382] mnist -> label
I0428 19:54:35.892129 28023 data_layer.cpp:45] output data size: 100,1,28,28
I0428 19:54:35.895123 28023 net.cpp:124] Setting up mnist
I0428 19:54:35.895153 28023 net.cpp:131] Top shape: 100 1 28 28 (78400)
I0428 19:54:35.895159 28023 net.cpp:131] Top shape: 100 (100)
I0428 19:54:35.895161 28023 net.cpp:139] Memory required for data: 314000
I0428 19:54:35.895164 28023 layer_factory.hpp:77] Creating layer label_mnist_1_split
I0428 19:54:35.895172 28023 net.cpp:86] Creating Layer label_mnist_1_split
I0428 19:54:35.895175 28023 net.cpp:408] label_mnist_1_split <- label
I0428 19:54:35.895180 28023 net.cpp:382] label_mnist_1_split -> label_mnist_1_split_0
I0428 19:54:35.895186 28023 net.cpp:382] label_mnist_1_split -> label_mnist_1_split_1
I0428 19:54:35.895254 28023 net.cpp:124] Setting up label_mnist_1_split
I0428 19:54:35.895265 28023 net.cpp:131] Top shape: 100 (100)
I0428 19:54:35.895272 28023 net.cpp:131] Top shape: 100 (100)
I0428 19:54:35.895277 28023 net.cpp:139] Memory required for data: 314800
I0428 19:54:35.895282 28023 layer_factory.hpp:77] Creating layer conv0
I0428 19:54:35.895294 28023 net.cpp:86] Creating Layer conv0
I0428 19:54:35.895300 28023 net.cpp:408] conv0 <- data
I0428 19:54:35.895309 28023 net.cpp:382] conv0 -> conv0
I0428 19:54:35.897339 28023 net.cpp:124] Setting up conv0
I0428 19:54:35.897369 28023 net.cpp:131] Top shape: 100 5 24 24 (288000)
I0428 19:54:35.897373 28023 net.cpp:139] Memory required for data: 1466800
I0428 19:54:35.897382 28023 layer_factory.hpp:77] Creating layer pool0
I0428 19:54:35.897390 28023 net.cpp:86] Creating Layer pool0
I0428 19:54:35.897395 28023 net.cpp:408] pool0 <- conv0
I0428 19:54:35.897403 28023 net.cpp:382] pool0 -> pool0
I0428 19:54:35.897452 28023 net.cpp:124] Setting up pool0
I0428 19:54:35.897464 28023 net.cpp:131] Top shape: 100 5 12 12 (72000)
I0428 19:54:35.897469 28023 net.cpp:139] Memory required for data: 1754800
I0428 19:54:35.897475 28023 layer_factory.hpp:77] Creating layer conv1
I0428 19:54:35.897487 28023 net.cpp:86] Creating Layer conv1
I0428 19:54:35.897493 28023 net.cpp:408] conv1 <- pool0
I0428 19:54:35.897502 28023 net.cpp:382] conv1 -> conv1
I0428 19:54:35.899680 28023 net.cpp:124] Setting up conv1
I0428 19:54:35.899693 28023 net.cpp:131] Top shape: 100 100 8 8 (640000)
I0428 19:54:35.899713 28023 net.cpp:139] Memory required for data: 4314800
I0428 19:54:35.899721 28023 layer_factory.hpp:77] Creating layer pool1
I0428 19:54:35.899727 28023 net.cpp:86] Creating Layer pool1
I0428 19:54:35.899732 28023 net.cpp:408] pool1 <- conv1
I0428 19:54:35.899742 28023 net.cpp:382] pool1 -> pool1
I0428 19:54:35.899792 28023 net.cpp:124] Setting up pool1
I0428 19:54:35.899803 28023 net.cpp:131] Top shape: 100 100 4 4 (160000)
I0428 19:54:35.899809 28023 net.cpp:139] Memory required for data: 4954800
I0428 19:54:35.899816 28023 layer_factory.hpp:77] Creating layer ip1
I0428 19:54:35.899826 28023 net.cpp:86] Creating Layer ip1
I0428 19:54:35.899832 28023 net.cpp:408] ip1 <- pool1
I0428 19:54:35.899842 28023 net.cpp:382] ip1 -> ip1
I0428 19:54:35.900146 28023 net.cpp:124] Setting up ip1
I0428 19:54:35.900157 28023 net.cpp:131] Top shape: 100 10 (1000)
I0428 19:54:35.900177 28023 net.cpp:139] Memory required for data: 4958800
I0428 19:54:35.900199 28023 layer_factory.hpp:77] Creating layer relu1
I0428 19:54:35.900208 28023 net.cpp:86] Creating Layer relu1
I0428 19:54:35.900215 28023 net.cpp:408] relu1 <- ip1
I0428 19:54:35.900223 28023 net.cpp:369] relu1 -> ip1 (in-place)
I0428 19:54:35.900542 28023 net.cpp:124] Setting up relu1
I0428 19:54:35.900555 28023 net.cpp:131] Top shape: 100 10 (1000)
I0428 19:54:35.900560 28023 net.cpp:139] Memory required for data: 4962800
I0428 19:54:35.900565 28023 layer_factory.hpp:77] Creating layer ip2
I0428 19:54:35.900576 28023 net.cpp:86] Creating Layer ip2
I0428 19:54:35.900581 28023 net.cpp:408] ip2 <- ip1
I0428 19:54:35.900591 28023 net.cpp:382] ip2 -> ip2
I0428 19:54:35.900727 28023 net.cpp:124] Setting up ip2
I0428 19:54:35.900738 28023 net.cpp:131] Top shape: 100 10 (1000)
I0428 19:54:35.900743 28023 net.cpp:139] Memory required for data: 4966800
I0428 19:54:35.900753 28023 layer_factory.hpp:77] Creating layer relu2
I0428 19:54:35.900779 28023 net.cpp:86] Creating Layer relu2
I0428 19:54:35.900784 28023 net.cpp:408] relu2 <- ip2
I0428 19:54:35.900792 28023 net.cpp:369] relu2 -> ip2 (in-place)
I0428 19:54:35.901063 28023 net.cpp:124] Setting up relu2
I0428 19:54:35.901078 28023 net.cpp:131] Top shape: 100 10 (1000)
I0428 19:54:35.901085 28023 net.cpp:139] Memory required for data: 4970800
I0428 19:54:35.901090 28023 layer_factory.hpp:77] Creating layer ip3
I0428 19:54:35.901101 28023 net.cpp:86] Creating Layer ip3
I0428 19:54:35.901108 28023 net.cpp:408] ip3 <- ip2
I0428 19:54:35.901130 28023 net.cpp:382] ip3 -> ip3
I0428 19:54:35.901278 28023 net.cpp:124] Setting up ip3
I0428 19:54:35.901288 28023 net.cpp:131] Top shape: 100 10 (1000)
I0428 19:54:35.901293 28023 net.cpp:139] Memory required for data: 4974800
I0428 19:54:35.901305 28023 layer_factory.hpp:77] Creating layer relu3
I0428 19:54:35.901314 28023 net.cpp:86] Creating Layer relu3
I0428 19:54:35.901319 28023 net.cpp:408] relu3 <- ip3
I0428 19:54:35.901326 28023 net.cpp:369] relu3 -> ip3 (in-place)
I0428 19:54:35.902601 28023 net.cpp:124] Setting up relu3
I0428 19:54:35.902631 28023 net.cpp:131] Top shape: 100 10 (1000)
I0428 19:54:35.902637 28023 net.cpp:139] Memory required for data: 4978800
I0428 19:54:35.902642 28023 layer_factory.hpp:77] Creating layer ip3_relu3_0_split
I0428 19:54:35.902652 28023 net.cpp:86] Creating Layer ip3_relu3_0_split
I0428 19:54:35.902657 28023 net.cpp:408] ip3_relu3_0_split <- ip3
I0428 19:54:35.902664 28023 net.cpp:382] ip3_relu3_0_split -> ip3_relu3_0_split_0
I0428 19:54:35.902673 28023 net.cpp:382] ip3_relu3_0_split -> ip3_relu3_0_split_1
I0428 19:54:35.902722 28023 net.cpp:124] Setting up ip3_relu3_0_split
I0428 19:54:35.902734 28023 net.cpp:131] Top shape: 100 10 (1000)
I0428 19:54:35.902740 28023 net.cpp:131] Top shape: 100 10 (1000)
I0428 19:54:35.902745 28023 net.cpp:139] Memory required for data: 4986800
I0428 19:54:35.902750 28023 layer_factory.hpp:77] Creating layer accuracy
I0428 19:54:35.902763 28023 net.cpp:86] Creating Layer accuracy
I0428 19:54:35.902770 28023 net.cpp:408] accuracy <- ip3_relu3_0_split_0
I0428 19:54:35.902776 28023 net.cpp:408] accuracy <- label_mnist_1_split_0
I0428 19:54:35.902783 28023 net.cpp:382] accuracy -> accuracy
…
