…
I0428 20:32:06.291724  4050 net.cpp:296] The NetState phase (0) differed from the phase (1) specified by a rule in layer mnist
I0428 20:32:06.291750  4050 net.cpp:296] The NetState phase (0) differed from the phase (1) specified by a rule in layer accuracy
I0428 20:32:06.291844  4050 net.cpp:53] Initializing net from parameters: 
name: "LeNet"
state {
  phase: TRAIN
  level: 0
  stage: ""
}
layer {
  name: "mnist"
  type: "Data"
  top: "data"
  top: "label"
  include {
    phase: TRAIN
  }
  transform_param {
    scale: 0.00390625
  }
  data_param {
    source: "examples/mnist/mnist_train_lmdb"
    batch_size: 64
    backend: LMDB
  }
}
layer {
  name: "conv0"
  type: "Convolution"
  bottom: "data"
  top: "conv0"
  param {
    lr_mult: 1
  }
  param {
    lr_mult: 2
  }
  convolution_param {
    num_output: 100
    kernel_size: 5
    stride: 1
    weight_filler {
      type: "xavier"
    }
    bias_filler {
      type: "constant"
    }
  }
}
layer {
  name: "pool0"
  type: "Pooling"
  bottom: "conv0"
  top: "pool0"
  pooling_param {
    pool: MAX
    kernel_size: 2
    stride: 2
  }
}
layer {
  name: "conv1"
  type: "Convolution"
  bottom: "pool0"
  top: "conv1"
  param {
    lr_mult: 1
  }
  param {
    lr_mult: 2
  }
  convolution_param {
    num_output: 25
    kernel_size: 5
    stride: 1
    weight_filler {
      type: "xavier"
    }
    bias_filler {
      type: "constant"
    }
  }
}
layer {
  name: "pool1"
  type: "Pooling"
  bottom: "conv1"
  top: "pool1"
  pooling_param {
    pool: MAX
    kernel_size: 2
    stride: 2
  }
}
layer {
  name: "ip1"
  type: "InnerProduct"
  bottom: "pool1"
  top: "ip1"
  param {
    lr_mult: 1
  }
  param {
    lr_mult: 2
  }
  inner_product_param {
    num_output: 25
    weight_filler {
      type: "xavier"
    }
    bias_filler {
      type: "constant"
    }
  }
}
layer {
  name: "relu1"
  type: "ReLU"
  bottom: "ip1"
  top: "ip1"
}
layer {
  name: "ip2"
  type: "InnerProduct"
  bottom: "ip1"
  top: "ip2"
  param {
    lr_mult: 1
  }
  param {
    lr_mult: 2
  }
  inner_product_param {
    num_output: 10
    weight_filler {
      type: "xavier"
    }
    bias_filler {
      type: "constant"
    }
  }
}
layer {
  name: "relu2"
  type: "ReLU"
  bottom: "ip2"
  top: "ip2"
}
layer {
  name: "loss"
  type: "SoftmaxWithLoss"
  bottom: "ip2"
  bottom: "label"
  top: "loss"
}
I0428 20:32:06.291918  4050 layer_factory.hpp:77] Creating layer mnist
I0428 20:32:06.292016  4050 db_lmdb.cpp:35] Opened lmdb examples/mnist/mnist_train_lmdb
I0428 20:32:06.292038  4050 net.cpp:86] Creating Layer mnist
I0428 20:32:06.292047  4050 net.cpp:382] mnist -> data
I0428 20:32:06.292068  4050 net.cpp:382] mnist -> label
I0428 20:32:06.293167  4050 data_layer.cpp:45] output data size: 64,1,28,28
I0428 20:32:06.295637  4050 net.cpp:124] Setting up mnist
I0428 20:32:06.295655  4050 net.cpp:131] Top shape: 64 1 28 28 (50176)
I0428 20:32:06.295662  4050 net.cpp:131] Top shape: 64 (64)
I0428 20:32:06.295665  4050 net.cpp:139] Memory required for data: 200960
I0428 20:32:06.295672  4050 layer_factory.hpp:77] Creating layer conv0
I0428 20:32:06.295689  4050 net.cpp:86] Creating Layer conv0
I0428 20:32:06.295696  4050 net.cpp:408] conv0 <- data
I0428 20:32:06.295706  4050 net.cpp:382] conv0 -> conv0
I0428 20:32:06.588979  4050 net.cpp:124] Setting up conv0
I0428 20:32:06.589010  4050 net.cpp:131] Top shape: 64 100 24 24 (3686400)
I0428 20:32:06.589015  4050 net.cpp:139] Memory required for data: 14946560
I0428 20:32:06.589056  4050 layer_factory.hpp:77] Creating layer pool0
I0428 20:32:06.589071  4050 net.cpp:86] Creating Layer pool0
I0428 20:32:06.589076  4050 net.cpp:408] pool0 <- conv0
I0428 20:32:06.589082  4050 net.cpp:382] pool0 -> pool0
I0428 20:32:06.589139  4050 net.cpp:124] Setting up pool0
I0428 20:32:06.589149  4050 net.cpp:131] Top shape: 64 100 12 12 (921600)
I0428 20:32:06.589154  4050 net.cpp:139] Memory required for data: 18632960
I0428 20:32:06.589156  4050 layer_factory.hpp:77] Creating layer conv1
I0428 20:32:06.589170  4050 net.cpp:86] Creating Layer conv1
I0428 20:32:06.589174  4050 net.cpp:408] conv1 <- pool0
I0428 20:32:06.589180  4050 net.cpp:382] conv1 -> conv1
I0428 20:32:06.591806  4050 net.cpp:124] Setting up conv1
I0428 20:32:06.591825  4050 net.cpp:131] Top shape: 64 25 8 8 (102400)
I0428 20:32:06.591828  4050 net.cpp:139] Memory required for data: 19042560
I0428 20:32:06.591840  4050 layer_factory.hpp:77] Creating layer pool1
I0428 20:32:06.591848  4050 net.cpp:86] Creating Layer pool1
I0428 20:32:06.591853  4050 net.cpp:408] pool1 <- conv1
I0428 20:32:06.591859  4050 net.cpp:382] pool1 -> pool1
I0428 20:32:06.591905  4050 net.cpp:124] Setting up pool1
I0428 20:32:06.591912  4050 net.cpp:131] Top shape: 64 25 4 4 (25600)
I0428 20:32:06.591915  4050 net.cpp:139] Memory required for data: 19144960
I0428 20:32:06.591922  4050 layer_factory.hpp:77] Creating layer ip1
I0428 20:32:06.591929  4050 net.cpp:86] Creating Layer ip1
I0428 20:32:06.591933  4050 net.cpp:408] ip1 <- pool1
I0428 20:32:06.591939  4050 net.cpp:382] ip1 -> ip1
I0428 20:32:06.593088  4050 net.cpp:124] Setting up ip1
I0428 20:32:06.593104  4050 net.cpp:131] Top shape: 64 25 (1600)
I0428 20:32:06.593108  4050 net.cpp:139] Memory required for data: 19151360
I0428 20:32:06.593118  4050 layer_factory.hpp:77] Creating layer relu1
I0428 20:32:06.593125  4050 net.cpp:86] Creating Layer relu1
I0428 20:32:06.593129  4050 net.cpp:408] relu1 <- ip1
I0428 20:32:06.593135  4050 net.cpp:369] relu1 -> ip1 (in-place)
I0428 20:32:06.593339  4050 net.cpp:124] Setting up relu1
I0428 20:32:06.593350  4050 net.cpp:131] Top shape: 64 25 (1600)
I0428 20:32:06.593353  4050 net.cpp:139] Memory required for data: 19157760
I0428 20:32:06.593358  4050 layer_factory.hpp:77] Creating layer ip2
I0428 20:32:06.593365  4050 net.cpp:86] Creating Layer ip2
I0428 20:32:06.593369  4050 net.cpp:408] ip2 <- ip1
I0428 20:32:06.593375  4050 net.cpp:382] ip2 -> ip2
I0428 20:32:06.593493  4050 net.cpp:124] Setting up ip2
I0428 20:32:06.593502  4050 net.cpp:131] Top shape: 64 10 (640)
I0428 20:32:06.593507  4050 net.cpp:139] Memory required for data: 19160320
I0428 20:32:06.593513  4050 layer_factory.hpp:77] Creating layer relu2
I0428 20:32:06.593519  4050 net.cpp:86] Creating Layer relu2
I0428 20:32:06.593523  4050 net.cpp:408] relu2 <- ip2
I0428 20:32:06.593528  4050 net.cpp:369] relu2 -> ip2 (in-place)
I0428 20:32:06.594377  4050 net.cpp:124] Setting up relu2
I0428 20:32:06.594393  4050 net.cpp:131] Top shape: 64 10 (640)
I0428 20:32:06.594396  4050 net.cpp:139] Memory required for data: 19162880
I0428 20:32:06.594400  4050 layer_factory.hpp:77] Creating layer loss
I0428 20:32:06.594408  4050 net.cpp:86] Creating Layer loss
I0428 20:32:06.594413  4050 net.cpp:408] loss <- ip2
I0428 20:32:06.594418  4050 net.cpp:408] loss <- label
I0428 20:32:06.594425  4050 net.cpp:382] loss -> loss
I0428 20:32:06.594449  4050 layer_factory.hpp:77] Creating layer loss
…
I0428 20:32:06.595170  4050 solver.cpp:173] Creating test net (#0) specified by net file: ECE595/mnist/train_test/var_everything2/lenet_train_test1566.prototxt
I0428 20:32:06.595199  4050 net.cpp:296] The NetState phase (1) differed from the phase (0) specified by a rule in layer mnist
I0428 20:32:06.595299  4050 net.cpp:53] Initializing net from parameters: 
name: "LeNet"
state {
  phase: TEST
}
layer {
  name: "mnist"
  type: "Data"
  top: "data"
  top: "label"
  include {
    phase: TEST
  }
  transform_param {
    scale: 0.00390625
  }
  data_param {
    source: "examples/mnist/mnist_test_lmdb"
    batch_size: 100
    backend: LMDB
  }
}
layer {
  name: "conv0"
  type: "Convolution"
  bottom: "data"
  top: "conv0"
  param {
    lr_mult: 1
  }
  param {
    lr_mult: 2
  }
  convolution_param {
    num_output: 100
    kernel_size: 5
    stride: 1
    weight_filler {
      type: "xavier"
    }
    bias_filler {
      type: "constant"
    }
  }
}
layer {
  name: "pool0"
  type: "Pooling"
  bottom: "conv0"
  top: "pool0"
  pooling_param {
    pool: MAX
    kernel_size: 2
    stride: 2
  }
}
layer {
  name: "conv1"
  type: "Convolution"
  bottom: "pool0"
  top: "conv1"
  param {
    lr_mult: 1
  }
  param {
    lr_mult: 2
  }
  convolution_param {
    num_output: 25
    kernel_size: 5
    stride: 1
    weight_filler {
      type: "xavier"
    }
    bias_filler {
      type: "constant"
    }
  }
}
layer {
  name: "pool1"
  type: "Pooling"
  bottom: "conv1"
  top: "pool1"
  pooling_param {
    pool: MAX
    kernel_size: 2
    stride: 2
  }
}
layer {
  name: "ip1"
  type: "InnerProduct"
  bottom: "pool1"
  top: "ip1"
  param {
    lr_mult: 1
  }
  param {
    lr_mult: 2
  }
  inner_product_param {
    num_output: 25
    weight_filler {
      type: "xavier"
    }
    bias_filler {
      type: "constant"
    }
  }
}
layer {
  name: "relu1"
  type: "ReLU"
  bottom: "ip1"
  top: "ip1"
}
layer {
  name: "ip2"
  type: "InnerProduct"
  bottom: "ip1"
  top: "ip2"
  param {
    lr_mult: 1
  }
  param {
    lr_mult: 2
  }
  inner_product_param {
    num_output: 10
    weight_filler {
      type: "xavier"
    }
    bias_filler {
      type: "constant"
    }
  }
}
layer {
  name: "relu2"
  type: "ReLU"
  bottom: "ip2"
  top: "ip2"
}
layer {
  name: "accuracy"
  type: "Accuracy"
  bottom: "ip2"
  bottom: "label"
  top: "accuracy"
  include {
    phase: TEST
  }
}
layer {
  name: "loss"
  type: "SoftmaxWithLoss"
  bottom: "ip2"
  bottom: "label"
  top: "loss"
}
I0428 20:32:06.595374  4050 layer_factory.hpp:77] Creating layer mnist
I0428 20:32:06.595425  4050 db_lmdb.cpp:35] Opened lmdb examples/mnist/mnist_test_lmdb
I0428 20:32:06.595441  4050 net.cpp:86] Creating Layer mnist
I0428 20:32:06.595446  4050 net.cpp:382] mnist -> data
I0428 20:32:06.595455  4050 net.cpp:382] mnist -> label
I0428 20:32:06.595558  4050 data_layer.cpp:45] output data size: 100,1,28,28
I0428 20:32:06.597986  4050 net.cpp:124] Setting up mnist
I0428 20:32:06.598002  4050 net.cpp:131] Top shape: 100 1 28 28 (78400)
I0428 20:32:06.598008  4050 net.cpp:131] Top shape: 100 (100)
I0428 20:32:06.598012  4050 net.cpp:139] Memory required for data: 314000
I0428 20:32:06.598016  4050 layer_factory.hpp:77] Creating layer label_mnist_1_split
I0428 20:32:06.598028  4050 net.cpp:86] Creating Layer label_mnist_1_split
I0428 20:32:06.598032  4050 net.cpp:408] label_mnist_1_split <- label
I0428 20:32:06.598038  4050 net.cpp:382] label_mnist_1_split -> label_mnist_1_split_0
I0428 20:32:06.598047  4050 net.cpp:382] label_mnist_1_split -> label_mnist_1_split_1
I0428 20:32:06.598110  4050 net.cpp:124] Setting up label_mnist_1_split
I0428 20:32:06.598119  4050 net.cpp:131] Top shape: 100 (100)
I0428 20:32:06.598122  4050 net.cpp:131] Top shape: 100 (100)
I0428 20:32:06.598125  4050 net.cpp:139] Memory required for data: 314800
I0428 20:32:06.598129  4050 layer_factory.hpp:77] Creating layer conv0
I0428 20:32:06.598140  4050 net.cpp:86] Creating Layer conv0
I0428 20:32:06.598143  4050 net.cpp:408] conv0 <- data
I0428 20:32:06.598150  4050 net.cpp:382] conv0 -> conv0
I0428 20:32:06.600047  4050 net.cpp:124] Setting up conv0
I0428 20:32:06.600064  4050 net.cpp:131] Top shape: 100 100 24 24 (5760000)
I0428 20:32:06.600069  4050 net.cpp:139] Memory required for data: 23354800
I0428 20:32:06.600080  4050 layer_factory.hpp:77] Creating layer pool0
I0428 20:32:06.600086  4050 net.cpp:86] Creating Layer pool0
I0428 20:32:06.600090  4050 net.cpp:408] pool0 <- conv0
I0428 20:32:06.600096  4050 net.cpp:382] pool0 -> pool0
I0428 20:32:06.600138  4050 net.cpp:124] Setting up pool0
I0428 20:32:06.600145  4050 net.cpp:131] Top shape: 100 100 12 12 (1440000)
I0428 20:32:06.600149  4050 net.cpp:139] Memory required for data: 29114800
I0428 20:32:06.600152  4050 layer_factory.hpp:77] Creating layer conv1
I0428 20:32:06.600162  4050 net.cpp:86] Creating Layer conv1
I0428 20:32:06.600167  4050 net.cpp:408] conv1 <- pool0
I0428 20:32:06.600172  4050 net.cpp:382] conv1 -> conv1
I0428 20:32:06.602260  4050 net.cpp:124] Setting up conv1
I0428 20:32:06.602277  4050 net.cpp:131] Top shape: 100 25 8 8 (160000)
I0428 20:32:06.602280  4050 net.cpp:139] Memory required for data: 29754800
I0428 20:32:06.602290  4050 layer_factory.hpp:77] Creating layer pool1
I0428 20:32:06.602298  4050 net.cpp:86] Creating Layer pool1
I0428 20:32:06.602303  4050 net.cpp:408] pool1 <- conv1
I0428 20:32:06.602309  4050 net.cpp:382] pool1 -> pool1
I0428 20:32:06.602355  4050 net.cpp:124] Setting up pool1
I0428 20:32:06.602361  4050 net.cpp:131] Top shape: 100 25 4 4 (40000)
I0428 20:32:06.602365  4050 net.cpp:139] Memory required for data: 29914800
I0428 20:32:06.602368  4050 layer_factory.hpp:77] Creating layer ip1
I0428 20:32:06.602375  4050 net.cpp:86] Creating Layer ip1
I0428 20:32:06.602380  4050 net.cpp:408] ip1 <- pool1
I0428 20:32:06.602392  4050 net.cpp:382] ip1 -> ip1
I0428 20:32:06.602573  4050 net.cpp:124] Setting up ip1
I0428 20:32:06.602583  4050 net.cpp:131] Top shape: 100 25 (2500)
I0428 20:32:06.602587  4050 net.cpp:139] Memory required for data: 29924800
I0428 20:32:06.602596  4050 layer_factory.hpp:77] Creating layer relu1
I0428 20:32:06.602602  4050 net.cpp:86] Creating Layer relu1
I0428 20:32:06.602605  4050 net.cpp:408] relu1 <- ip1
I0428 20:32:06.602610  4050 net.cpp:369] relu1 -> ip1 (in-place)
I0428 20:32:06.602797  4050 net.cpp:124] Setting up relu1
I0428 20:32:06.602807  4050 net.cpp:131] Top shape: 100 25 (2500)
I0428 20:32:06.602810  4050 net.cpp:139] Memory required for data: 29934800
I0428 20:32:06.602816  4050 layer_factory.hpp:77] Creating layer ip2
I0428 20:32:06.602824  4050 net.cpp:86] Creating Layer ip2
I0428 20:32:06.602828  4050 net.cpp:408] ip2 <- ip1
I0428 20:32:06.602834  4050 net.cpp:382] ip2 -> ip2
I0428 20:32:06.602951  4050 net.cpp:124] Setting up ip2
I0428 20:32:06.602959  4050 net.cpp:131] Top shape: 100 10 (1000)
I0428 20:32:06.602963  4050 net.cpp:139] Memory required for data: 29938800
I0428 20:32:06.602970  4050 layer_factory.hpp:77] Creating layer relu2
I0428 20:32:06.602975  4050 net.cpp:86] Creating Layer relu2
I0428 20:32:06.602979  4050 net.cpp:408] relu2 <- ip2
I0428 20:32:06.602983  4050 net.cpp:369] relu2 -> ip2 (in-place)
I0428 20:32:06.603219  4050 net.cpp:124] Setting up relu2
I0428 20:32:06.603229  4050 net.cpp:131] Top shape: 100 10 (1000)
I0428 20:32:06.603232  4050 net.cpp:139] Memory required for data: 29942800
I0428 20:32:06.603235  4050 layer_factory.hpp:77] Creating layer ip2_relu2_0_split
I0428 20:32:06.603242  4050 net.cpp:86] Creating Layer ip2_relu2_0_split
I0428 20:32:06.603245  4050 net.cpp:408] ip2_relu2_0_split <- ip2
I0428 20:32:06.603250  4050 net.cpp:382] ip2_relu2_0_split -> ip2_relu2_0_split_0
I0428 20:32:06.603271  4050 net.cpp:382] ip2_relu2_0_split -> ip2_relu2_0_split_1
I0428 20:32:06.603313  4050 net.cpp:124] Setting up ip2_relu2_0_split
I0428 20:32:06.603322  4050 net.cpp:131] Top shape: 100 10 (1000)
I0428 20:32:06.603327  4050 net.cpp:131] Top shape: 100 10 (1000)
I0428 20:32:06.603329  4050 net.cpp:139] Memory required for data: 29950800
I0428 20:32:06.603333  4050 layer_factory.hpp:77] Creating layer accuracy
I0428 20:32:06.603340  4050 net.cpp:86] Creating Layer accuracy
I0428 20:32:06.603344  4050 net.cpp:408] accuracy <- ip2_relu2_0_split_0
I0428 20:32:06.603348  4050 net.cpp:408] accuracy <- label_mnist_1_split_0
I0428 20:32:06.603354  4050 net.cpp:382] accuracy -> accuracy
…
