…
I0428 20:20:24.338703  1543 net.cpp:296] The NetState phase (0) differed from the phase (1) specified by a rule in layer mnist
I0428 20:20:24.338739  1543 net.cpp:296] The NetState phase (0) differed from the phase (1) specified by a rule in layer accuracy
I0428 20:20:24.338907  1543 net.cpp:53] Initializing net from parameters: 
name: "LeNet"
state {
  phase: TRAIN
  level: 0
  stage: ""
}
layer {
  name: "mnist"
  type: "Data"
  top: "data"
  top: "label"
  include {
    phase: TRAIN
  }
  transform_param {
    scale: 0.00390625
  }
  data_param {
    source: "examples/mnist/mnist_train_lmdb"
    batch_size: 64
    backend: LMDB
  }
}
layer {
  name: "conv0"
  type: "Convolution"
  bottom: "data"
  top: "conv0"
  param {
    lr_mult: 1
  }
  param {
    lr_mult: 2
  }
  convolution_param {
    num_output: 50
    kernel_size: 5
    stride: 1
    weight_filler {
      type: "xavier"
    }
    bias_filler {
      type: "constant"
    }
  }
}
layer {
  name: "pool0"
  type: "Pooling"
  bottom: "conv0"
  top: "pool0"
  pooling_param {
    pool: MAX
    kernel_size: 2
    stride: 2
  }
}
layer {
  name: "conv1"
  type: "Convolution"
  bottom: "pool0"
  top: "conv1"
  param {
    lr_mult: 1
  }
  param {
    lr_mult: 2
  }
  convolution_param {
    num_output: 25
    kernel_size: 5
    stride: 1
    weight_filler {
      type: "xavier"
    }
    bias_filler {
      type: "constant"
    }
  }
}
layer {
  name: "pool1"
  type: "Pooling"
  bottom: "conv1"
  top: "pool1"
  pooling_param {
    pool: MAX
    kernel_size: 2
    stride: 2
  }
}
layer {
  name: "ip1"
  type: "InnerProduct"
  bottom: "pool1"
  top: "ip1"
  param {
    lr_mult: 1
  }
  param {
    lr_mult: 2
  }
  inner_product_param {
    num_output: 50
    weight_filler {
      type: "xavier"
    }
    bias_filler {
      type: "constant"
    }
  }
}
layer {
  name: "relu1"
  type: "ReLU"
  bottom: "ip1"
  top: "ip1"
}
layer {
  name: "ip2"
  type: "InnerProduct"
  bottom: "ip1"
  top: "ip2"
  param {
    lr_mult: 1
  }
  param {
    lr_mult: 2
  }
  inner_product_param {
    num_output: 50
    weight_filler {
      type: "xavier"
    }
    bias_filler {
      type: "constant"
    }
  }
}
layer {
  name: "relu2"
  type: "ReLU"
  bottom: "ip2"
  top: "ip2"
}
layer {
  name: "ip3"
  type: "InnerProduct"
  bottom: "ip2"
  top: "ip3"
  param {
    lr_mult: 1
  }
  param {
    lr_mult: 2
  }
  inner_product_param {
    num_output: 10
    weight_filler {
      type: "xavier"
    }
    bias_filler {
      type: "constant"
    }
  }
}
layer {
  name: "relu3"
  type: "ReLU"
  bottom: "ip3"
  top: "ip3"
}
layer {
  name: "loss"
  type: "SoftmaxWithLoss"
  bottom: "ip3"
  bottom: "label"
  top: "loss"
}
I0428 20:20:24.339068  1543 layer_factory.hpp:77] Creating layer mnist
I0428 20:20:24.339251  1543 db_lmdb.cpp:35] Opened lmdb examples/mnist/mnist_train_lmdb
I0428 20:20:24.339295  1543 net.cpp:86] Creating Layer mnist
I0428 20:20:24.339313  1543 net.cpp:382] mnist -> data
I0428 20:20:24.339356  1543 net.cpp:382] mnist -> label
I0428 20:20:24.341126  1543 data_layer.cpp:45] output data size: 64,1,28,28
I0428 20:20:24.344784  1543 net.cpp:124] Setting up mnist
I0428 20:20:24.344830  1543 net.cpp:131] Top shape: 64 1 28 28 (50176)
I0428 20:20:24.344846  1543 net.cpp:131] Top shape: 64 (64)
I0428 20:20:24.344856  1543 net.cpp:139] Memory required for data: 200960
I0428 20:20:24.344871  1543 layer_factory.hpp:77] Creating layer conv0
I0428 20:20:24.344905  1543 net.cpp:86] Creating Layer conv0
I0428 20:20:24.344939  1543 net.cpp:408] conv0 <- data
I0428 20:20:24.344967  1543 net.cpp:382] conv0 -> conv0
I0428 20:20:24.648146  1543 net.cpp:124] Setting up conv0
I0428 20:20:24.648186  1543 net.cpp:131] Top shape: 64 50 24 24 (1843200)
I0428 20:20:24.648193  1543 net.cpp:139] Memory required for data: 7573760
I0428 20:20:24.648217  1543 layer_factory.hpp:77] Creating layer pool0
I0428 20:20:24.648238  1543 net.cpp:86] Creating Layer pool0
I0428 20:20:24.648257  1543 net.cpp:408] pool0 <- conv0
I0428 20:20:24.648268  1543 net.cpp:382] pool0 -> pool0
I0428 20:20:24.648334  1543 net.cpp:124] Setting up pool0
I0428 20:20:24.648344  1543 net.cpp:131] Top shape: 64 50 12 12 (460800)
I0428 20:20:24.648350  1543 net.cpp:139] Memory required for data: 9416960
I0428 20:20:24.648357  1543 layer_factory.hpp:77] Creating layer conv1
I0428 20:20:24.648375  1543 net.cpp:86] Creating Layer conv1
I0428 20:20:24.648385  1543 net.cpp:408] conv1 <- pool0
I0428 20:20:24.648394  1543 net.cpp:382] conv1 -> conv1
I0428 20:20:24.650760  1543 net.cpp:124] Setting up conv1
I0428 20:20:24.650781  1543 net.cpp:131] Top shape: 64 25 8 8 (102400)
I0428 20:20:24.650789  1543 net.cpp:139] Memory required for data: 9826560
I0428 20:20:24.650804  1543 layer_factory.hpp:77] Creating layer pool1
I0428 20:20:24.650818  1543 net.cpp:86] Creating Layer pool1
I0428 20:20:24.650825  1543 net.cpp:408] pool1 <- conv1
I0428 20:20:24.650835  1543 net.cpp:382] pool1 -> pool1
I0428 20:20:24.650887  1543 net.cpp:124] Setting up pool1
I0428 20:20:24.650899  1543 net.cpp:131] Top shape: 64 25 4 4 (25600)
I0428 20:20:24.650905  1543 net.cpp:139] Memory required for data: 9928960
I0428 20:20:24.650912  1543 layer_factory.hpp:77] Creating layer ip1
I0428 20:20:24.650924  1543 net.cpp:86] Creating Layer ip1
I0428 20:20:24.650931  1543 net.cpp:408] ip1 <- pool1
I0428 20:20:24.650941  1543 net.cpp:382] ip1 -> ip1
I0428 20:20:24.651206  1543 net.cpp:124] Setting up ip1
I0428 20:20:24.651217  1543 net.cpp:131] Top shape: 64 50 (3200)
I0428 20:20:24.651223  1543 net.cpp:139] Memory required for data: 9941760
I0428 20:20:24.651238  1543 layer_factory.hpp:77] Creating layer relu1
I0428 20:20:24.651252  1543 net.cpp:86] Creating Layer relu1
I0428 20:20:24.651263  1543 net.cpp:408] relu1 <- ip1
I0428 20:20:24.651273  1543 net.cpp:369] relu1 -> ip1 (in-place)
I0428 20:20:24.651476  1543 net.cpp:124] Setting up relu1
I0428 20:20:24.651489  1543 net.cpp:131] Top shape: 64 50 (3200)
I0428 20:20:24.651494  1543 net.cpp:139] Memory required for data: 9954560
I0428 20:20:24.651501  1543 layer_factory.hpp:77] Creating layer ip2
I0428 20:20:24.651513  1543 net.cpp:86] Creating Layer ip2
I0428 20:20:24.651520  1543 net.cpp:408] ip2 <- ip1
I0428 20:20:24.651530  1543 net.cpp:382] ip2 -> ip2
I0428 20:20:24.651672  1543 net.cpp:124] Setting up ip2
I0428 20:20:24.651684  1543 net.cpp:131] Top shape: 64 50 (3200)
I0428 20:20:24.651690  1543 net.cpp:139] Memory required for data: 9967360
I0428 20:20:24.651700  1543 layer_factory.hpp:77] Creating layer relu2
I0428 20:20:24.651712  1543 net.cpp:86] Creating Layer relu2
I0428 20:20:24.651720  1543 net.cpp:408] relu2 <- ip2
I0428 20:20:24.651728  1543 net.cpp:369] relu2 -> ip2 (in-place)
I0428 20:20:24.652582  1543 net.cpp:124] Setting up relu2
I0428 20:20:24.652600  1543 net.cpp:131] Top shape: 64 50 (3200)
I0428 20:20:24.652606  1543 net.cpp:139] Memory required for data: 9980160
I0428 20:20:24.652614  1543 layer_factory.hpp:77] Creating layer ip3
I0428 20:20:24.652627  1543 net.cpp:86] Creating Layer ip3
I0428 20:20:24.652633  1543 net.cpp:408] ip3 <- ip2
I0428 20:20:24.652645  1543 net.cpp:382] ip3 -> ip3
I0428 20:20:24.652775  1543 net.cpp:124] Setting up ip3
I0428 20:20:24.652786  1543 net.cpp:131] Top shape: 64 10 (640)
I0428 20:20:24.652792  1543 net.cpp:139] Memory required for data: 9982720
I0428 20:20:24.652814  1543 layer_factory.hpp:77] Creating layer relu3
I0428 20:20:24.652825  1543 net.cpp:86] Creating Layer relu3
I0428 20:20:24.652832  1543 net.cpp:408] relu3 <- ip3
I0428 20:20:24.652842  1543 net.cpp:369] relu3 -> ip3 (in-place)
I0428 20:20:24.653050  1543 net.cpp:124] Setting up relu3
I0428 20:20:24.653064  1543 net.cpp:131] Top shape: 64 10 (640)
I0428 20:20:24.653069  1543 net.cpp:139] Memory required for data: 9985280
I0428 20:20:24.653076  1543 layer_factory.hpp:77] Creating layer loss
I0428 20:20:24.653086  1543 net.cpp:86] Creating Layer loss
I0428 20:20:24.653093  1543 net.cpp:408] loss <- ip3
I0428 20:20:24.653101  1543 net.cpp:408] loss <- label
I0428 20:20:24.653111  1543 net.cpp:382] loss -> loss
I0428 20:20:24.653139  1543 layer_factory.hpp:77] Creating layer loss
…
I0428 20:20:24.653970  1543 solver.cpp:173] Creating test net (#0) specified by net file: ECE595/mnist/train_test/var_everything2/lenet_train_test1362.prototxt
I0428 20:20:24.654011  1543 net.cpp:296] The NetState phase (1) differed from the phase (0) specified by a rule in layer mnist
I0428 20:20:24.654132  1543 net.cpp:53] Initializing net from parameters: 
name: "LeNet"
state {
  phase: TEST
}
layer {
  name: "mnist"
  type: "Data"
  top: "data"
  top: "label"
  include {
    phase: TEST
  }
  transform_param {
    scale: 0.00390625
  }
  data_param {
    source: "examples/mnist/mnist_test_lmdb"
    batch_size: 100
    backend: LMDB
  }
}
layer {
  name: "conv0"
  type: "Convolution"
  bottom: "data"
  top: "conv0"
  param {
    lr_mult: 1
  }
  param {
    lr_mult: 2
  }
  convolution_param {
    num_output: 50
    kernel_size: 5
    stride: 1
    weight_filler {
      type: "xavier"
    }
    bias_filler {
      type: "constant"
    }
  }
}
layer {
  name: "pool0"
  type: "Pooling"
  bottom: "conv0"
  top: "pool0"
  pooling_param {
    pool: MAX
    kernel_size: 2
    stride: 2
  }
}
layer {
  name: "conv1"
  type: "Convolution"
  bottom: "pool0"
  top: "conv1"
  param {
    lr_mult: 1
  }
  param {
    lr_mult: 2
  }
  convolution_param {
    num_output: 25
    kernel_size: 5
    stride: 1
    weight_filler {
      type: "xavier"
    }
    bias_filler {
      type: "constant"
    }
  }
}
layer {
  name: "pool1"
  type: "Pooling"
  bottom: "conv1"
  top: "pool1"
  pooling_param {
    pool: MAX
    kernel_size: 2
    stride: 2
  }
}
layer {
  name: "ip1"
  type: "InnerProduct"
  bottom: "pool1"
  top: "ip1"
  param {
    lr_mult: 1
  }
  param {
    lr_mult: 2
  }
  inner_product_param {
    num_output: 50
    weight_filler {
      type: "xavier"
    }
    bias_filler {
      type: "constant"
    }
  }
}
layer {
  name: "relu1"
  type: "ReLU"
  bottom: "ip1"
  top: "ip1"
}
layer {
  name: "ip2"
  type: "InnerProduct"
  bottom: "ip1"
  top: "ip2"
  param {
    lr_mult: 1
  }
  param {
    lr_mult: 2
  }
  inner_product_param {
    num_output: 50
    weight_filler {
      type: "xavier"
    }
    bias_filler {
      type: "constant"
    }
  }
}
layer {
  name: "relu2"
  type: "ReLU"
  bottom: "ip2"
  top: "ip2"
}
layer {
  name: "ip3"
  type: "InnerProduct"
  bottom: "ip2"
  top: "ip3"
  param {
    lr_mult: 1
  }
  param {
    lr_mult: 2
  }
  inner_product_param {
    num_output: 10
    weight_filler {
      type: "xavier"
    }
    bias_filler {
      type: "constant"
    }
  }
}
layer {
  name: "relu3"
  type: "ReLU"
  bottom: "ip3"
  top: "ip3"
}
layer {
  name: "accuracy"
  type: "Accuracy"
  bottom: "ip3"
  bottom: "label"
  top: "accuracy"
  include {
    phase: TEST
  }
}
layer {
  name: "loss"
  type: "SoftmaxWithLoss"
  bottom: "ip3"
  bottom: "label"
  top: "loss"
}
I0428 20:20:24.654284  1543 layer_factory.hpp:77] Creating layer mnist
I0428 20:20:24.654356  1543 db_lmdb.cpp:35] Opened lmdb examples/mnist/mnist_test_lmdb
I0428 20:20:24.654377  1543 net.cpp:86] Creating Layer mnist
I0428 20:20:24.654386  1543 net.cpp:382] mnist -> data
I0428 20:20:24.654400  1543 net.cpp:382] mnist -> label
I0428 20:20:24.654548  1543 data_layer.cpp:45] output data size: 100,1,28,28
I0428 20:20:24.656941  1543 net.cpp:124] Setting up mnist
I0428 20:20:24.656960  1543 net.cpp:131] Top shape: 100 1 28 28 (78400)
I0428 20:20:24.656971  1543 net.cpp:131] Top shape: 100 (100)
I0428 20:20:24.656977  1543 net.cpp:139] Memory required for data: 314000
I0428 20:20:24.656985  1543 layer_factory.hpp:77] Creating layer label_mnist_1_split
I0428 20:20:24.656996  1543 net.cpp:86] Creating Layer label_mnist_1_split
I0428 20:20:24.657003  1543 net.cpp:408] label_mnist_1_split <- label
I0428 20:20:24.657012  1543 net.cpp:382] label_mnist_1_split -> label_mnist_1_split_0
I0428 20:20:24.657025  1543 net.cpp:382] label_mnist_1_split -> label_mnist_1_split_1
I0428 20:20:24.657162  1543 net.cpp:124] Setting up label_mnist_1_split
I0428 20:20:24.657174  1543 net.cpp:131] Top shape: 100 (100)
I0428 20:20:24.657181  1543 net.cpp:131] Top shape: 100 (100)
I0428 20:20:24.657187  1543 net.cpp:139] Memory required for data: 314800
I0428 20:20:24.657193  1543 layer_factory.hpp:77] Creating layer conv0
I0428 20:20:24.657212  1543 net.cpp:86] Creating Layer conv0
I0428 20:20:24.657219  1543 net.cpp:408] conv0 <- data
I0428 20:20:24.657233  1543 net.cpp:382] conv0 -> conv0
I0428 20:20:24.658987  1543 net.cpp:124] Setting up conv0
I0428 20:20:24.659005  1543 net.cpp:131] Top shape: 100 50 24 24 (2880000)
I0428 20:20:24.659013  1543 net.cpp:139] Memory required for data: 11834800
I0428 20:20:24.659029  1543 layer_factory.hpp:77] Creating layer pool0
I0428 20:20:24.659044  1543 net.cpp:86] Creating Layer pool0
I0428 20:20:24.659052  1543 net.cpp:408] pool0 <- conv0
I0428 20:20:24.659062  1543 net.cpp:382] pool0 -> pool0
I0428 20:20:24.659129  1543 net.cpp:124] Setting up pool0
I0428 20:20:24.659142  1543 net.cpp:131] Top shape: 100 50 12 12 (720000)
I0428 20:20:24.659148  1543 net.cpp:139] Memory required for data: 14714800
I0428 20:20:24.659154  1543 layer_factory.hpp:77] Creating layer conv1
I0428 20:20:24.659173  1543 net.cpp:86] Creating Layer conv1
I0428 20:20:24.659181  1543 net.cpp:408] conv1 <- pool0
I0428 20:20:24.659194  1543 net.cpp:382] conv1 -> conv1
I0428 20:20:24.661283  1543 net.cpp:124] Setting up conv1
I0428 20:20:24.661301  1543 net.cpp:131] Top shape: 100 25 8 8 (160000)
I0428 20:20:24.661309  1543 net.cpp:139] Memory required for data: 15354800
I0428 20:20:24.661326  1543 layer_factory.hpp:77] Creating layer pool1
I0428 20:20:24.661337  1543 net.cpp:86] Creating Layer pool1
I0428 20:20:24.661345  1543 net.cpp:408] pool1 <- conv1
I0428 20:20:24.661360  1543 net.cpp:382] pool1 -> pool1
I0428 20:20:24.661417  1543 net.cpp:124] Setting up pool1
I0428 20:20:24.661429  1543 net.cpp:131] Top shape: 100 25 4 4 (40000)
I0428 20:20:24.661435  1543 net.cpp:139] Memory required for data: 15514800
I0428 20:20:24.661442  1543 layer_factory.hpp:77] Creating layer ip1
I0428 20:20:24.661456  1543 net.cpp:86] Creating Layer ip1
I0428 20:20:24.661464  1543 net.cpp:408] ip1 <- pool1
I0428 20:20:24.661478  1543 net.cpp:382] ip1 -> ip1
I0428 20:20:24.661751  1543 net.cpp:124] Setting up ip1
I0428 20:20:24.661762  1543 net.cpp:131] Top shape: 100 50 (5000)
I0428 20:20:24.661782  1543 net.cpp:139] Memory required for data: 15534800
I0428 20:20:24.661798  1543 layer_factory.hpp:77] Creating layer relu1
I0428 20:20:24.661809  1543 net.cpp:86] Creating Layer relu1
I0428 20:20:24.661816  1543 net.cpp:408] relu1 <- ip1
I0428 20:20:24.661829  1543 net.cpp:369] relu1 -> ip1 (in-place)
I0428 20:20:24.662081  1543 net.cpp:124] Setting up relu1
I0428 20:20:24.662094  1543 net.cpp:131] Top shape: 100 50 (5000)
I0428 20:20:24.662101  1543 net.cpp:139] Memory required for data: 15554800
I0428 20:20:24.662106  1543 layer_factory.hpp:77] Creating layer ip2
I0428 20:20:24.662119  1543 net.cpp:86] Creating Layer ip2
I0428 20:20:24.662127  1543 net.cpp:408] ip2 <- ip1
I0428 20:20:24.662138  1543 net.cpp:382] ip2 -> ip2
I0428 20:20:24.662292  1543 net.cpp:124] Setting up ip2
I0428 20:20:24.662302  1543 net.cpp:131] Top shape: 100 50 (5000)
I0428 20:20:24.662309  1543 net.cpp:139] Memory required for data: 15574800
I0428 20:20:24.662320  1543 layer_factory.hpp:77] Creating layer relu2
I0428 20:20:24.662330  1543 net.cpp:86] Creating Layer relu2
I0428 20:20:24.662336  1543 net.cpp:408] relu2 <- ip2
I0428 20:20:24.662348  1543 net.cpp:369] relu2 -> ip2 (in-place)
I0428 20:20:24.662547  1543 net.cpp:124] Setting up relu2
I0428 20:20:24.662559  1543 net.cpp:131] Top shape: 100 50 (5000)
I0428 20:20:24.662565  1543 net.cpp:139] Memory required for data: 15594800
I0428 20:20:24.662571  1543 layer_factory.hpp:77] Creating layer ip3
I0428 20:20:24.662585  1543 net.cpp:86] Creating Layer ip3
I0428 20:20:24.662590  1543 net.cpp:408] ip3 <- ip2
I0428 20:20:24.662600  1543 net.cpp:382] ip3 -> ip3
I0428 20:20:24.662734  1543 net.cpp:124] Setting up ip3
I0428 20:20:24.662745  1543 net.cpp:131] Top shape: 100 10 (1000)
I0428 20:20:24.662752  1543 net.cpp:139] Memory required for data: 15598800
I0428 20:20:24.662770  1543 layer_factory.hpp:77] Creating layer relu3
I0428 20:20:24.662782  1543 net.cpp:86] Creating Layer relu3
I0428 20:20:24.662789  1543 net.cpp:408] relu3 <- ip3
I0428 20:20:24.662798  1543 net.cpp:369] relu3 -> ip3 (in-place)
I0428 20:20:24.663740  1543 net.cpp:124] Setting up relu3
I0428 20:20:24.663758  1543 net.cpp:131] Top shape: 100 10 (1000)
I0428 20:20:24.663765  1543 net.cpp:139] Memory required for data: 15602800
I0428 20:20:24.663772  1543 layer_factory.hpp:77] Creating layer ip3_relu3_0_split
I0428 20:20:24.663781  1543 net.cpp:86] Creating Layer ip3_relu3_0_split
I0428 20:20:24.663789  1543 net.cpp:408] ip3_relu3_0_split <- ip3
I0428 20:20:24.663797  1543 net.cpp:382] ip3_relu3_0_split -> ip3_relu3_0_split_0
I0428 20:20:24.663810  1543 net.cpp:382] ip3_relu3_0_split -> ip3_relu3_0_split_1
I0428 20:20:24.663864  1543 net.cpp:124] Setting up ip3_relu3_0_split
I0428 20:20:24.663875  1543 net.cpp:131] Top shape: 100 10 (1000)
I0428 20:20:24.663882  1543 net.cpp:131] Top shape: 100 10 (1000)
I0428 20:20:24.663888  1543 net.cpp:139] Memory required for data: 15610800
I0428 20:20:24.663894  1543 layer_factory.hpp:77] Creating layer accuracy
I0428 20:20:24.663909  1543 net.cpp:86] Creating Layer accuracy
I0428 20:20:24.663918  1543 net.cpp:408] accuracy <- ip3_relu3_0_split_0
I0428 20:20:24.663926  1543 net.cpp:408] accuracy <- label_mnist_1_split_0
I0428 20:20:24.663938  1543 net.cpp:382] accuracy -> accuracy
…
