…
I0428 20:24:25.702708  2403 net.cpp:296] The NetState phase (0) differed from the phase (1) specified by a rule in layer mnist
I0428 20:24:25.702728  2403 net.cpp:296] The NetState phase (0) differed from the phase (1) specified by a rule in layer accuracy
I0428 20:24:25.702828  2403 net.cpp:53] Initializing net from parameters: 
name: "LeNet"
state {
  phase: TRAIN
  level: 0
  stage: ""
}
layer {
  name: "mnist"
  type: "Data"
  top: "data"
  top: "label"
  include {
    phase: TRAIN
  }
  transform_param {
    scale: 0.00390625
  }
  data_param {
    source: "examples/mnist/mnist_train_lmdb"
    batch_size: 64
    backend: LMDB
  }
}
layer {
  name: "conv0"
  type: "Convolution"
  bottom: "data"
  top: "conv0"
  param {
    lr_mult: 1
  }
  param {
    lr_mult: 2
  }
  convolution_param {
    num_output: 50
    kernel_size: 5
    stride: 1
    weight_filler {
      type: "xavier"
    }
    bias_filler {
      type: "constant"
    }
  }
}
layer {
  name: "pool0"
  type: "Pooling"
  bottom: "conv0"
  top: "pool0"
  pooling_param {
    pool: MAX
    kernel_size: 2
    stride: 2
  }
}
layer {
  name: "conv1"
  type: "Convolution"
  bottom: "pool0"
  top: "conv1"
  param {
    lr_mult: 1
  }
  param {
    lr_mult: 2
  }
  convolution_param {
    num_output: 100
    kernel_size: 5
    stride: 1
    weight_filler {
      type: "xavier"
    }
    bias_filler {
      type: "constant"
    }
  }
}
layer {
  name: "pool1"
  type: "Pooling"
  bottom: "conv1"
  top: "pool1"
  pooling_param {
    pool: MAX
    kernel_size: 2
    stride: 2
  }
}
layer {
  name: "ip1"
  type: "InnerProduct"
  bottom: "pool1"
  top: "ip1"
  param {
    lr_mult: 1
  }
  param {
    lr_mult: 2
  }
  inner_product_param {
    num_output: 50
    weight_filler {
      type: "xavier"
    }
    bias_filler {
      type: "constant"
    }
  }
}
layer {
  name: "relu1"
  type: "ReLU"
  bottom: "ip1"
  top: "ip1"
}
layer {
  name: "ip2"
  type: "InnerProduct"
  bottom: "ip1"
  top: "ip2"
  param {
    lr_mult: 1
  }
  param {
    lr_mult: 2
  }
  inner_product_param {
    num_output: 25
    weight_filler {
      type: "xavier"
    }
    bias_filler {
      type: "constant"
    }
  }
}
layer {
  name: "relu2"
  type: "ReLU"
  bottom: "ip2"
  top: "ip2"
}
layer {
  name: "ip3"
  type: "InnerProduct"
  bottom: "ip2"
  top: "ip3"
  param {
    lr_mult: 1
  }
  param {
    lr_mult: 2
  }
  inner_product_param {
    num_output: 10
    weight_filler {
      type: "xavier"
    }
    bias_filler {
      type: "constant"
    }
  }
}
layer {
  name: "relu3"
  type: "ReLU"
  bottom: "ip3"
  top: "ip3"
}
layer {
  name: "loss"
  type: "SoftmaxWithLoss"
  bottom: "ip3"
  bottom: "label"
  top: "loss"
}
I0428 20:24:25.702908  2403 layer_factory.hpp:77] Creating layer mnist
I0428 20:24:25.703007  2403 db_lmdb.cpp:35] Opened lmdb examples/mnist/mnist_train_lmdb
I0428 20:24:25.703032  2403 net.cpp:86] Creating Layer mnist
I0428 20:24:25.703040  2403 net.cpp:382] mnist -> data
I0428 20:24:25.703063  2403 net.cpp:382] mnist -> label
I0428 20:24:25.704157  2403 data_layer.cpp:45] output data size: 64,1,28,28
I0428 20:24:25.706620  2403 net.cpp:124] Setting up mnist
I0428 20:24:25.706639  2403 net.cpp:131] Top shape: 64 1 28 28 (50176)
I0428 20:24:25.706645  2403 net.cpp:131] Top shape: 64 (64)
I0428 20:24:25.706647  2403 net.cpp:139] Memory required for data: 200960
I0428 20:24:25.706655  2403 layer_factory.hpp:77] Creating layer conv0
I0428 20:24:25.706671  2403 net.cpp:86] Creating Layer conv0
I0428 20:24:25.706692  2403 net.cpp:408] conv0 <- data
I0428 20:24:25.706706  2403 net.cpp:382] conv0 -> conv0
I0428 20:24:25.996868  2403 net.cpp:124] Setting up conv0
I0428 20:24:25.996898  2403 net.cpp:131] Top shape: 64 50 24 24 (1843200)
I0428 20:24:25.996903  2403 net.cpp:139] Memory required for data: 7573760
I0428 20:24:25.996922  2403 layer_factory.hpp:77] Creating layer pool0
I0428 20:24:25.996937  2403 net.cpp:86] Creating Layer pool0
I0428 20:24:25.996942  2403 net.cpp:408] pool0 <- conv0
I0428 20:24:25.996948  2403 net.cpp:382] pool0 -> pool0
I0428 20:24:25.997009  2403 net.cpp:124] Setting up pool0
I0428 20:24:25.997018  2403 net.cpp:131] Top shape: 64 50 12 12 (460800)
I0428 20:24:25.997022  2403 net.cpp:139] Memory required for data: 9416960
I0428 20:24:25.997026  2403 layer_factory.hpp:77] Creating layer conv1
I0428 20:24:25.997040  2403 net.cpp:86] Creating Layer conv1
I0428 20:24:25.997043  2403 net.cpp:408] conv1 <- pool0
I0428 20:24:25.997050  2403 net.cpp:382] conv1 -> conv1
I0428 20:24:26.001013  2403 net.cpp:124] Setting up conv1
I0428 20:24:26.001031  2403 net.cpp:131] Top shape: 64 100 8 8 (409600)
I0428 20:24:26.001036  2403 net.cpp:139] Memory required for data: 11055360
I0428 20:24:26.001046  2403 layer_factory.hpp:77] Creating layer pool1
I0428 20:24:26.001055  2403 net.cpp:86] Creating Layer pool1
I0428 20:24:26.001060  2403 net.cpp:408] pool1 <- conv1
I0428 20:24:26.001066  2403 net.cpp:382] pool1 -> pool1
I0428 20:24:26.001111  2403 net.cpp:124] Setting up pool1
I0428 20:24:26.001117  2403 net.cpp:131] Top shape: 64 100 4 4 (102400)
I0428 20:24:26.001121  2403 net.cpp:139] Memory required for data: 11464960
I0428 20:24:26.001124  2403 layer_factory.hpp:77] Creating layer ip1
I0428 20:24:26.001137  2403 net.cpp:86] Creating Layer ip1
I0428 20:24:26.001142  2403 net.cpp:408] ip1 <- pool1
I0428 20:24:26.001147  2403 net.cpp:382] ip1 -> ip1
I0428 20:24:26.001801  2403 net.cpp:124] Setting up ip1
I0428 20:24:26.001811  2403 net.cpp:131] Top shape: 64 50 (3200)
I0428 20:24:26.001814  2403 net.cpp:139] Memory required for data: 11477760
I0428 20:24:26.001823  2403 layer_factory.hpp:77] Creating layer relu1
I0428 20:24:26.001829  2403 net.cpp:86] Creating Layer relu1
I0428 20:24:26.001833  2403 net.cpp:408] relu1 <- ip1
I0428 20:24:26.001838  2403 net.cpp:369] relu1 -> ip1 (in-place)
I0428 20:24:26.002033  2403 net.cpp:124] Setting up relu1
I0428 20:24:26.002044  2403 net.cpp:131] Top shape: 64 50 (3200)
I0428 20:24:26.002048  2403 net.cpp:139] Memory required for data: 11490560
I0428 20:24:26.002051  2403 layer_factory.hpp:77] Creating layer ip2
I0428 20:24:26.002058  2403 net.cpp:86] Creating Layer ip2
I0428 20:24:26.002063  2403 net.cpp:408] ip2 <- ip1
I0428 20:24:26.002068  2403 net.cpp:382] ip2 -> ip2
I0428 20:24:26.002193  2403 net.cpp:124] Setting up ip2
I0428 20:24:26.002202  2403 net.cpp:131] Top shape: 64 25 (1600)
I0428 20:24:26.002205  2403 net.cpp:139] Memory required for data: 11496960
I0428 20:24:26.002212  2403 layer_factory.hpp:77] Creating layer relu2
I0428 20:24:26.002218  2403 net.cpp:86] Creating Layer relu2
I0428 20:24:26.002223  2403 net.cpp:408] relu2 <- ip2
I0428 20:24:26.002228  2403 net.cpp:369] relu2 -> ip2 (in-place)
I0428 20:24:26.003067  2403 net.cpp:124] Setting up relu2
I0428 20:24:26.003083  2403 net.cpp:131] Top shape: 64 25 (1600)
I0428 20:24:26.003087  2403 net.cpp:139] Memory required for data: 11503360
I0428 20:24:26.003092  2403 layer_factory.hpp:77] Creating layer ip3
I0428 20:24:26.003100  2403 net.cpp:86] Creating Layer ip3
I0428 20:24:26.003103  2403 net.cpp:408] ip3 <- ip2
I0428 20:24:26.003110  2403 net.cpp:382] ip3 -> ip3
I0428 20:24:26.003226  2403 net.cpp:124] Setting up ip3
I0428 20:24:26.003235  2403 net.cpp:131] Top shape: 64 10 (640)
I0428 20:24:26.003239  2403 net.cpp:139] Memory required for data: 11505920
I0428 20:24:26.003249  2403 layer_factory.hpp:77] Creating layer relu3
I0428 20:24:26.003255  2403 net.cpp:86] Creating Layer relu3
I0428 20:24:26.003259  2403 net.cpp:408] relu3 <- ip3
I0428 20:24:26.003264  2403 net.cpp:369] relu3 -> ip3 (in-place)
I0428 20:24:26.003460  2403 net.cpp:124] Setting up relu3
I0428 20:24:26.003471  2403 net.cpp:131] Top shape: 64 10 (640)
I0428 20:24:26.003475  2403 net.cpp:139] Memory required for data: 11508480
I0428 20:24:26.003479  2403 layer_factory.hpp:77] Creating layer loss
I0428 20:24:26.003485  2403 net.cpp:86] Creating Layer loss
I0428 20:24:26.003489  2403 net.cpp:408] loss <- ip3
I0428 20:24:26.003494  2403 net.cpp:408] loss <- label
I0428 20:24:26.003500  2403 net.cpp:382] loss -> loss
I0428 20:24:26.003520  2403 layer_factory.hpp:77] Creating layer loss
…
I0428 20:24:26.004251  2403 solver.cpp:173] Creating test net (#0) specified by net file: ECE595/mnist/train_test/var_everything2/lenet_train_test1437.prototxt
I0428 20:24:26.004282  2403 net.cpp:296] The NetState phase (1) differed from the phase (0) specified by a rule in layer mnist
I0428 20:24:26.004389  2403 net.cpp:53] Initializing net from parameters: 
name: "LeNet"
state {
  phase: TEST
}
layer {
  name: "mnist"
  type: "Data"
  top: "data"
  top: "label"
  include {
    phase: TEST
  }
  transform_param {
    scale: 0.00390625
  }
  data_param {
    source: "examples/mnist/mnist_test_lmdb"
    batch_size: 100
    backend: LMDB
  }
}
layer {
  name: "conv0"
  type: "Convolution"
  bottom: "data"
  top: "conv0"
  param {
    lr_mult: 1
  }
  param {
    lr_mult: 2
  }
  convolution_param {
    num_output: 50
    kernel_size: 5
    stride: 1
    weight_filler {
      type: "xavier"
    }
    bias_filler {
      type: "constant"
    }
  }
}
layer {
  name: "pool0"
  type: "Pooling"
  bottom: "conv0"
  top: "pool0"
  pooling_param {
    pool: MAX
    kernel_size: 2
    stride: 2
  }
}
layer {
  name: "conv1"
  type: "Convolution"
  bottom: "pool0"
  top: "conv1"
  param {
    lr_mult: 1
  }
  param {
    lr_mult: 2
  }
  convolution_param {
    num_output: 100
    kernel_size: 5
    stride: 1
    weight_filler {
      type: "xavier"
    }
    bias_filler {
      type: "constant"
    }
  }
}
layer {
  name: "pool1"
  type: "Pooling"
  bottom: "conv1"
  top: "pool1"
  pooling_param {
    pool: MAX
    kernel_size: 2
    stride: 2
  }
}
layer {
  name: "ip1"
  type: "InnerProduct"
  bottom: "pool1"
  top: "ip1"
  param {
    lr_mult: 1
  }
  param {
    lr_mult: 2
  }
  inner_product_param {
    num_output: 50
    weight_filler {
      type: "xavier"
    }
    bias_filler {
      type: "constant"
    }
  }
}
layer {
  name: "relu1"
  type: "ReLU"
  bottom: "ip1"
  top: "ip1"
}
layer {
  name: "ip2"
  type: "InnerProduct"
  bottom: "ip1"
  top: "ip2"
  param {
    lr_mult: 1
  }
  param {
    lr_mult: 2
  }
  inner_product_param {
    num_output: 25
    weight_filler {
      type: "xavier"
    }
    bias_filler {
      type: "constant"
    }
  }
}
layer {
  name: "relu2"
  type: "ReLU"
  bottom: "ip2"
  top: "ip2"
}
layer {
  name: "ip3"
  type: "InnerProduct"
  bottom: "ip2"
  top: "ip3"
  param {
    lr_mult: 1
  }
  param {
    lr_mult: 2
  }
  inner_product_param {
    num_output: 10
    weight_filler {
      type: "xavier"
    }
    bias_filler {
      type: "constant"
    }
  }
}
layer {
  name: "relu3"
  type: "ReLU"
  bottom: "ip3"
  top: "ip3"
}
layer {
  name: "accuracy"
  type: "Accuracy"
  bottom: "ip3"
  bottom: "label"
  top: "accuracy"
  include {
    phase: TEST
  }
}
layer {
  name: "loss"
  type: "SoftmaxWithLoss"
  bottom: "ip3"
  bottom: "label"
  top: "loss"
}
I0428 20:24:26.004480  2403 layer_factory.hpp:77] Creating layer mnist
I0428 20:24:26.004531  2403 db_lmdb.cpp:35] Opened lmdb examples/mnist/mnist_test_lmdb
I0428 20:24:26.004546  2403 net.cpp:86] Creating Layer mnist
I0428 20:24:26.004551  2403 net.cpp:382] mnist -> data
I0428 20:24:26.004560  2403 net.cpp:382] mnist -> label
I0428 20:24:26.004660  2403 data_layer.cpp:45] output data size: 100,1,28,28
I0428 20:24:26.005899  2403 net.cpp:124] Setting up mnist
I0428 20:24:26.005915  2403 net.cpp:131] Top shape: 100 1 28 28 (78400)
I0428 20:24:26.005921  2403 net.cpp:131] Top shape: 100 (100)
I0428 20:24:26.005924  2403 net.cpp:139] Memory required for data: 314000
I0428 20:24:26.005929  2403 layer_factory.hpp:77] Creating layer label_mnist_1_split
I0428 20:24:26.005941  2403 net.cpp:86] Creating Layer label_mnist_1_split
I0428 20:24:26.005946  2403 net.cpp:408] label_mnist_1_split <- label
I0428 20:24:26.005952  2403 net.cpp:382] label_mnist_1_split -> label_mnist_1_split_0
I0428 20:24:26.005960  2403 net.cpp:382] label_mnist_1_split -> label_mnist_1_split_1
I0428 20:24:26.006011  2403 net.cpp:124] Setting up label_mnist_1_split
I0428 20:24:26.006019  2403 net.cpp:131] Top shape: 100 (100)
I0428 20:24:26.006023  2403 net.cpp:131] Top shape: 100 (100)
I0428 20:24:26.006027  2403 net.cpp:139] Memory required for data: 314800
I0428 20:24:26.006031  2403 layer_factory.hpp:77] Creating layer conv0
I0428 20:24:26.006041  2403 net.cpp:86] Creating Layer conv0
I0428 20:24:26.006044  2403 net.cpp:408] conv0 <- data
I0428 20:24:26.006050  2403 net.cpp:382] conv0 -> conv0
I0428 20:24:26.007980  2403 net.cpp:124] Setting up conv0
I0428 20:24:26.007997  2403 net.cpp:131] Top shape: 100 50 24 24 (2880000)
I0428 20:24:26.008002  2403 net.cpp:139] Memory required for data: 11834800
I0428 20:24:26.008013  2403 layer_factory.hpp:77] Creating layer pool0
I0428 20:24:26.008020  2403 net.cpp:86] Creating Layer pool0
I0428 20:24:26.008024  2403 net.cpp:408] pool0 <- conv0
I0428 20:24:26.008030  2403 net.cpp:382] pool0 -> pool0
I0428 20:24:26.008074  2403 net.cpp:124] Setting up pool0
I0428 20:24:26.008080  2403 net.cpp:131] Top shape: 100 50 12 12 (720000)
I0428 20:24:26.008083  2403 net.cpp:139] Memory required for data: 14714800
I0428 20:24:26.008086  2403 layer_factory.hpp:77] Creating layer conv1
I0428 20:24:26.008096  2403 net.cpp:86] Creating Layer conv1
I0428 20:24:26.008100  2403 net.cpp:408] conv1 <- pool0
I0428 20:24:26.008106  2403 net.cpp:382] conv1 -> conv1
I0428 20:24:26.011636  2403 net.cpp:124] Setting up conv1
I0428 20:24:26.011654  2403 net.cpp:131] Top shape: 100 100 8 8 (640000)
I0428 20:24:26.011658  2403 net.cpp:139] Memory required for data: 17274800
I0428 20:24:26.011668  2403 layer_factory.hpp:77] Creating layer pool1
I0428 20:24:26.011677  2403 net.cpp:86] Creating Layer pool1
I0428 20:24:26.011680  2403 net.cpp:408] pool1 <- conv1
I0428 20:24:26.011687  2403 net.cpp:382] pool1 -> pool1
I0428 20:24:26.011740  2403 net.cpp:124] Setting up pool1
I0428 20:24:26.011746  2403 net.cpp:131] Top shape: 100 100 4 4 (160000)
I0428 20:24:26.011750  2403 net.cpp:139] Memory required for data: 17914800
I0428 20:24:26.011754  2403 layer_factory.hpp:77] Creating layer ip1
I0428 20:24:26.011760  2403 net.cpp:86] Creating Layer ip1
I0428 20:24:26.011765  2403 net.cpp:408] ip1 <- pool1
I0428 20:24:26.011771  2403 net.cpp:382] ip1 -> ip1
I0428 20:24:26.012421  2403 net.cpp:124] Setting up ip1
I0428 20:24:26.012444  2403 net.cpp:131] Top shape: 100 50 (5000)
I0428 20:24:26.012449  2403 net.cpp:139] Memory required for data: 17934800
I0428 20:24:26.012456  2403 layer_factory.hpp:77] Creating layer relu1
I0428 20:24:26.012464  2403 net.cpp:86] Creating Layer relu1
I0428 20:24:26.012467  2403 net.cpp:408] relu1 <- ip1
I0428 20:24:26.012472  2403 net.cpp:369] relu1 -> ip1 (in-place)
I0428 20:24:26.012660  2403 net.cpp:124] Setting up relu1
I0428 20:24:26.012671  2403 net.cpp:131] Top shape: 100 50 (5000)
I0428 20:24:26.012676  2403 net.cpp:139] Memory required for data: 17954800
I0428 20:24:26.012678  2403 layer_factory.hpp:77] Creating layer ip2
I0428 20:24:26.012687  2403 net.cpp:86] Creating Layer ip2
I0428 20:24:26.012691  2403 net.cpp:408] ip2 <- ip1
I0428 20:24:26.012697  2403 net.cpp:382] ip2 -> ip2
I0428 20:24:26.012835  2403 net.cpp:124] Setting up ip2
I0428 20:24:26.012843  2403 net.cpp:131] Top shape: 100 25 (2500)
I0428 20:24:26.012848  2403 net.cpp:139] Memory required for data: 17964800
I0428 20:24:26.012856  2403 layer_factory.hpp:77] Creating layer relu2
I0428 20:24:26.012861  2403 net.cpp:86] Creating Layer relu2
I0428 20:24:26.012866  2403 net.cpp:408] relu2 <- ip2
I0428 20:24:26.012871  2403 net.cpp:369] relu2 -> ip2 (in-place)
I0428 20:24:26.013052  2403 net.cpp:124] Setting up relu2
I0428 20:24:26.013062  2403 net.cpp:131] Top shape: 100 25 (2500)
I0428 20:24:26.013067  2403 net.cpp:139] Memory required for data: 17974800
I0428 20:24:26.013070  2403 layer_factory.hpp:77] Creating layer ip3
I0428 20:24:26.013077  2403 net.cpp:86] Creating Layer ip3
I0428 20:24:26.013080  2403 net.cpp:408] ip3 <- ip2
I0428 20:24:26.013085  2403 net.cpp:382] ip3 -> ip3
I0428 20:24:26.013221  2403 net.cpp:124] Setting up ip3
I0428 20:24:26.013231  2403 net.cpp:131] Top shape: 100 10 (1000)
I0428 20:24:26.013234  2403 net.cpp:139] Memory required for data: 17978800
I0428 20:24:26.013243  2403 layer_factory.hpp:77] Creating layer relu3
I0428 20:24:26.013249  2403 net.cpp:86] Creating Layer relu3
I0428 20:24:26.013252  2403 net.cpp:408] relu3 <- ip3
I0428 20:24:26.013257  2403 net.cpp:369] relu3 -> ip3 (in-place)
I0428 20:24:26.014158  2403 net.cpp:124] Setting up relu3
I0428 20:24:26.014173  2403 net.cpp:131] Top shape: 100 10 (1000)
I0428 20:24:26.014178  2403 net.cpp:139] Memory required for data: 17982800
I0428 20:24:26.014181  2403 layer_factory.hpp:77] Creating layer ip3_relu3_0_split
I0428 20:24:26.014188  2403 net.cpp:86] Creating Layer ip3_relu3_0_split
I0428 20:24:26.014192  2403 net.cpp:408] ip3_relu3_0_split <- ip3
I0428 20:24:26.014199  2403 net.cpp:382] ip3_relu3_0_split -> ip3_relu3_0_split_0
I0428 20:24:26.014207  2403 net.cpp:382] ip3_relu3_0_split -> ip3_relu3_0_split_1
I0428 20:24:26.014250  2403 net.cpp:124] Setting up ip3_relu3_0_split
I0428 20:24:26.014256  2403 net.cpp:131] Top shape: 100 10 (1000)
I0428 20:24:26.014261  2403 net.cpp:131] Top shape: 100 10 (1000)
I0428 20:24:26.014264  2403 net.cpp:139] Memory required for data: 17990800
I0428 20:24:26.014268  2403 layer_factory.hpp:77] Creating layer accuracy
I0428 20:24:26.014274  2403 net.cpp:86] Creating Layer accuracy
I0428 20:24:26.014278  2403 net.cpp:408] accuracy <- ip3_relu3_0_split_0
I0428 20:24:26.014284  2403 net.cpp:408] accuracy <- label_mnist_1_split_0
I0428 20:24:26.014289  2403 net.cpp:382] accuracy -> accuracy
…
