…
I0428 20:14:22.677742 32662 net.cpp:296] The NetState phase (0) differed from the phase (1) specified by a rule in layer mnist
I0428 20:14:22.677755 32662 net.cpp:296] The NetState phase (0) differed from the phase (1) specified by a rule in layer accuracy
I0428 20:14:22.677829 32662 net.cpp:53] Initializing net from parameters: 
name: "LeNet"
state {
  phase: TRAIN
  level: 0
  stage: ""
}
layer {
  name: "mnist"
  type: "Data"
  top: "data"
  top: "label"
  include {
    phase: TRAIN
  }
  transform_param {
    scale: 0.00390625
  }
  data_param {
    source: "examples/mnist/mnist_train_lmdb"
    batch_size: 64
    backend: LMDB
  }
}
layer {
  name: "conv0"
  type: "Convolution"
  bottom: "data"
  top: "conv0"
  param {
    lr_mult: 1
  }
  param {
    lr_mult: 2
  }
  convolution_param {
    num_output: 50
    kernel_size: 5
    stride: 1
    weight_filler {
      type: "xavier"
    }
    bias_filler {
      type: "constant"
    }
  }
}
layer {
  name: "pool0"
  type: "Pooling"
  bottom: "conv0"
  top: "pool0"
  pooling_param {
    pool: MAX
    kernel_size: 2
    stride: 2
  }
}
layer {
  name: "conv1"
  type: "Convolution"
  bottom: "pool0"
  top: "conv1"
  param {
    lr_mult: 1
  }
  param {
    lr_mult: 2
  }
  convolution_param {
    num_output: 2
    kernel_size: 5
    stride: 1
    weight_filler {
      type: "xavier"
    }
    bias_filler {
      type: "constant"
    }
  }
}
layer {
  name: "pool1"
  type: "Pooling"
  bottom: "conv1"
  top: "pool1"
  pooling_param {
    pool: MAX
    kernel_size: 2
    stride: 2
  }
}
layer {
  name: "ip1"
  type: "InnerProduct"
  bottom: "pool1"
  top: "ip1"
  param {
    lr_mult: 1
  }
  param {
    lr_mult: 2
  }
  inner_product_param {
    num_output: 50
    weight_filler {
      type: "xavier"
    }
    bias_filler {
      type: "constant"
    }
  }
}
layer {
  name: "relu1"
  type: "ReLU"
  bottom: "ip1"
  top: "ip1"
}
layer {
  name: "ip2"
  type: "InnerProduct"
  bottom: "ip1"
  top: "ip2"
  param {
    lr_mult: 1
  }
  param {
    lr_mult: 2
  }
  inner_product_param {
    num_output: 10
    weight_filler {
      type: "xavier"
    }
    bias_filler {
      type: "constant"
    }
  }
}
layer {
  name: "relu2"
  type: "ReLU"
  bottom: "ip2"
  top: "ip2"
}
layer {
  name: "loss"
  type: "SoftmaxWithLoss"
  bottom: "ip2"
  bottom: "label"
  top: "loss"
}
I0428 20:14:22.677888 32662 layer_factory.hpp:77] Creating layer mnist
I0428 20:14:22.677973 32662 db_lmdb.cpp:35] Opened lmdb examples/mnist/mnist_train_lmdb
I0428 20:14:22.677992 32662 net.cpp:86] Creating Layer mnist
I0428 20:14:22.677999 32662 net.cpp:382] mnist -> data
I0428 20:14:22.678017 32662 net.cpp:382] mnist -> label
I0428 20:14:22.678920 32662 data_layer.cpp:45] output data size: 64,1,28,28
I0428 20:14:22.681146 32662 net.cpp:124] Setting up mnist
I0428 20:14:22.681161 32662 net.cpp:131] Top shape: 64 1 28 28 (50176)
I0428 20:14:22.681167 32662 net.cpp:131] Top shape: 64 (64)
I0428 20:14:22.681170 32662 net.cpp:139] Memory required for data: 200960
I0428 20:14:22.681176 32662 layer_factory.hpp:77] Creating layer conv0
I0428 20:14:22.681190 32662 net.cpp:86] Creating Layer conv0
I0428 20:14:22.681195 32662 net.cpp:408] conv0 <- data
I0428 20:14:22.681206 32662 net.cpp:382] conv0 -> conv0
I0428 20:14:22.912693 32662 net.cpp:124] Setting up conv0
I0428 20:14:22.912719 32662 net.cpp:131] Top shape: 64 50 24 24 (1843200)
I0428 20:14:22.912724 32662 net.cpp:139] Memory required for data: 7573760
I0428 20:14:22.912756 32662 layer_factory.hpp:77] Creating layer pool0
I0428 20:14:22.912784 32662 net.cpp:86] Creating Layer pool0
I0428 20:14:22.912787 32662 net.cpp:408] pool0 <- conv0
I0428 20:14:22.912792 32662 net.cpp:382] pool0 -> pool0
I0428 20:14:22.912859 32662 net.cpp:124] Setting up pool0
I0428 20:14:22.912868 32662 net.cpp:131] Top shape: 64 50 12 12 (460800)
I0428 20:14:22.912871 32662 net.cpp:139] Memory required for data: 9416960
I0428 20:14:22.912874 32662 layer_factory.hpp:77] Creating layer conv1
I0428 20:14:22.912885 32662 net.cpp:86] Creating Layer conv1
I0428 20:14:22.912889 32662 net.cpp:408] conv1 <- pool0
I0428 20:14:22.912894 32662 net.cpp:382] conv1 -> conv1
I0428 20:14:22.914867 32662 net.cpp:124] Setting up conv1
I0428 20:14:22.914882 32662 net.cpp:131] Top shape: 64 2 8 8 (8192)
I0428 20:14:22.914902 32662 net.cpp:139] Memory required for data: 9449728
I0428 20:14:22.914911 32662 layer_factory.hpp:77] Creating layer pool1
I0428 20:14:22.914919 32662 net.cpp:86] Creating Layer pool1
I0428 20:14:22.914923 32662 net.cpp:408] pool1 <- conv1
I0428 20:14:22.914928 32662 net.cpp:382] pool1 -> pool1
I0428 20:14:22.914965 32662 net.cpp:124] Setting up pool1
I0428 20:14:22.914988 32662 net.cpp:131] Top shape: 64 2 4 4 (2048)
I0428 20:14:22.914991 32662 net.cpp:139] Memory required for data: 9457920
I0428 20:14:22.914994 32662 layer_factory.hpp:77] Creating layer ip1
I0428 20:14:22.915001 32662 net.cpp:86] Creating Layer ip1
I0428 20:14:22.915004 32662 net.cpp:408] ip1 <- pool1
I0428 20:14:22.915009 32662 net.cpp:382] ip1 -> ip1
I0428 20:14:22.915117 32662 net.cpp:124] Setting up ip1
I0428 20:14:22.915123 32662 net.cpp:131] Top shape: 64 50 (3200)
I0428 20:14:22.915127 32662 net.cpp:139] Memory required for data: 9470720
I0428 20:14:22.915133 32662 layer_factory.hpp:77] Creating layer relu1
I0428 20:14:22.915139 32662 net.cpp:86] Creating Layer relu1
I0428 20:14:22.915143 32662 net.cpp:408] relu1 <- ip1
I0428 20:14:22.915148 32662 net.cpp:369] relu1 -> ip1 (in-place)
I0428 20:14:22.915333 32662 net.cpp:124] Setting up relu1
I0428 20:14:22.915341 32662 net.cpp:131] Top shape: 64 50 (3200)
I0428 20:14:22.915344 32662 net.cpp:139] Memory required for data: 9483520
I0428 20:14:22.915349 32662 layer_factory.hpp:77] Creating layer ip2
I0428 20:14:22.915354 32662 net.cpp:86] Creating Layer ip2
I0428 20:14:22.915357 32662 net.cpp:408] ip2 <- ip1
I0428 20:14:22.915362 32662 net.cpp:382] ip2 -> ip2
I0428 20:14:22.915459 32662 net.cpp:124] Setting up ip2
I0428 20:14:22.915467 32662 net.cpp:131] Top shape: 64 10 (640)
I0428 20:14:22.915484 32662 net.cpp:139] Memory required for data: 9486080
I0428 20:14:22.915490 32662 layer_factory.hpp:77] Creating layer relu2
I0428 20:14:22.915496 32662 net.cpp:86] Creating Layer relu2
I0428 20:14:22.915499 32662 net.cpp:408] relu2 <- ip2
I0428 20:14:22.915503 32662 net.cpp:369] relu2 -> ip2 (in-place)
I0428 20:14:22.916209 32662 net.cpp:124] Setting up relu2
I0428 20:14:22.916221 32662 net.cpp:131] Top shape: 64 10 (640)
I0428 20:14:22.916241 32662 net.cpp:139] Memory required for data: 9488640
I0428 20:14:22.916244 32662 layer_factory.hpp:77] Creating layer loss
I0428 20:14:22.916266 32662 net.cpp:86] Creating Layer loss
I0428 20:14:22.916270 32662 net.cpp:408] loss <- ip2
I0428 20:14:22.916275 32662 net.cpp:408] loss <- label
I0428 20:14:22.916280 32662 net.cpp:382] loss -> loss
I0428 20:14:22.916301 32662 layer_factory.hpp:77] Creating layer loss
…
I0428 20:14:22.916975 32662 solver.cpp:173] Creating test net (#0) specified by net file: ECE595/mnist/train_test/var_everything2/lenet_train_test1220.prototxt
I0428 20:14:22.917002 32662 net.cpp:296] The NetState phase (1) differed from the phase (0) specified by a rule in layer mnist
I0428 20:14:22.917088 32662 net.cpp:53] Initializing net from parameters: 
name: "LeNet"
state {
  phase: TEST
}
layer {
  name: "mnist"
  type: "Data"
  top: "data"
  top: "label"
  include {
    phase: TEST
  }
  transform_param {
    scale: 0.00390625
  }
  data_param {
    source: "examples/mnist/mnist_test_lmdb"
    batch_size: 100
    backend: LMDB
  }
}
layer {
  name: "conv0"
  type: "Convolution"
  bottom: "data"
  top: "conv0"
  param {
    lr_mult: 1
  }
  param {
    lr_mult: 2
  }
  convolution_param {
    num_output: 50
    kernel_size: 5
    stride: 1
    weight_filler {
      type: "xavier"
    }
    bias_filler {
      type: "constant"
    }
  }
}
layer {
  name: "pool0"
  type: "Pooling"
  bottom: "conv0"
  top: "pool0"
  pooling_param {
    pool: MAX
    kernel_size: 2
    stride: 2
  }
}
layer {
  name: "conv1"
  type: "Convolution"
  bottom: "pool0"
  top: "conv1"
  param {
    lr_mult: 1
  }
  param {
    lr_mult: 2
  }
  convolution_param {
    num_output: 2
    kernel_size: 5
    stride: 1
    weight_filler {
      type: "xavier"
    }
    bias_filler {
      type: "constant"
    }
  }
}
layer {
  name: "pool1"
  type: "Pooling"
  bottom: "conv1"
  top: "pool1"
  pooling_param {
    pool: MAX
    kernel_size: 2
    stride: 2
  }
}
layer {
  name: "ip1"
  type: "InnerProduct"
  bottom: "pool1"
  top: "ip1"
  param {
    lr_mult: 1
  }
  param {
    lr_mult: 2
  }
  inner_product_param {
    num_output: 50
    weight_filler {
      type: "xavier"
    }
    bias_filler {
      type: "constant"
    }
  }
}
layer {
  name: "relu1"
  type: "ReLU"
  bottom: "ip1"
  top: "ip1"
}
layer {
  name: "ip2"
  type: "InnerProduct"
  bottom: "ip1"
  top: "ip2"
  param {
    lr_mult: 1
  }
  param {
    lr_mult: 2
  }
  inner_product_param {
    num_output: 10
    weight_filler {
      type: "xavier"
    }
    bias_filler {
      type: "constant"
    }
  }
}
layer {
  name: "relu2"
  type: "ReLU"
  bottom: "ip2"
  top: "ip2"
}
layer {
  name: "accuracy"
  type: "Accuracy"
  bottom: "ip2"
  bottom: "label"
  top: "accuracy"
  include {
    phase: TEST
  }
}
layer {
  name: "loss"
  type: "SoftmaxWithLoss"
  bottom: "ip2"
  bottom: "label"
  top: "loss"
}
I0428 20:14:22.917152 32662 layer_factory.hpp:77] Creating layer mnist
I0428 20:14:22.917223 32662 db_lmdb.cpp:35] Opened lmdb examples/mnist/mnist_test_lmdb
I0428 20:14:22.917238 32662 net.cpp:86] Creating Layer mnist
I0428 20:14:22.917243 32662 net.cpp:382] mnist -> data
I0428 20:14:22.917250 32662 net.cpp:382] mnist -> label
I0428 20:14:22.917362 32662 data_layer.cpp:45] output data size: 100,1,28,28
I0428 20:14:22.919435 32662 net.cpp:124] Setting up mnist
I0428 20:14:22.919447 32662 net.cpp:131] Top shape: 100 1 28 28 (78400)
I0428 20:14:22.919468 32662 net.cpp:131] Top shape: 100 (100)
I0428 20:14:22.919471 32662 net.cpp:139] Memory required for data: 314000
I0428 20:14:22.919476 32662 layer_factory.hpp:77] Creating layer label_mnist_1_split
I0428 20:14:22.919482 32662 net.cpp:86] Creating Layer label_mnist_1_split
I0428 20:14:22.919486 32662 net.cpp:408] label_mnist_1_split <- label
I0428 20:14:22.919490 32662 net.cpp:382] label_mnist_1_split -> label_mnist_1_split_0
I0428 20:14:22.919497 32662 net.cpp:382] label_mnist_1_split -> label_mnist_1_split_1
I0428 20:14:22.919634 32662 net.cpp:124] Setting up label_mnist_1_split
I0428 20:14:22.919669 32662 net.cpp:131] Top shape: 100 (100)
I0428 20:14:22.919674 32662 net.cpp:131] Top shape: 100 (100)
I0428 20:14:22.919677 32662 net.cpp:139] Memory required for data: 314800
I0428 20:14:22.919682 32662 layer_factory.hpp:77] Creating layer conv0
I0428 20:14:22.919694 32662 net.cpp:86] Creating Layer conv0
I0428 20:14:22.919703 32662 net.cpp:408] conv0 <- data
I0428 20:14:22.919713 32662 net.cpp:382] conv0 -> conv0
I0428 20:14:22.921339 32662 net.cpp:124] Setting up conv0
I0428 20:14:22.921370 32662 net.cpp:131] Top shape: 100 50 24 24 (2880000)
I0428 20:14:22.921375 32662 net.cpp:139] Memory required for data: 11834800
I0428 20:14:22.921383 32662 layer_factory.hpp:77] Creating layer pool0
I0428 20:14:22.921389 32662 net.cpp:86] Creating Layer pool0
I0428 20:14:22.921392 32662 net.cpp:408] pool0 <- conv0
I0428 20:14:22.921397 32662 net.cpp:382] pool0 -> pool0
I0428 20:14:22.921447 32662 net.cpp:124] Setting up pool0
I0428 20:14:22.921453 32662 net.cpp:131] Top shape: 100 50 12 12 (720000)
I0428 20:14:22.921458 32662 net.cpp:139] Memory required for data: 14714800
I0428 20:14:22.921460 32662 layer_factory.hpp:77] Creating layer conv1
I0428 20:14:22.921468 32662 net.cpp:86] Creating Layer conv1
I0428 20:14:22.921473 32662 net.cpp:408] conv1 <- pool0
I0428 20:14:22.921478 32662 net.cpp:382] conv1 -> conv1
I0428 20:14:22.923045 32662 net.cpp:124] Setting up conv1
I0428 20:14:22.923058 32662 net.cpp:131] Top shape: 100 2 8 8 (12800)
I0428 20:14:22.923079 32662 net.cpp:139] Memory required for data: 14766000
I0428 20:14:22.923089 32662 layer_factory.hpp:77] Creating layer pool1
I0428 20:14:22.923097 32662 net.cpp:86] Creating Layer pool1
I0428 20:14:22.923101 32662 net.cpp:408] pool1 <- conv1
I0428 20:14:22.923110 32662 net.cpp:382] pool1 -> pool1
I0428 20:14:22.923163 32662 net.cpp:124] Setting up pool1
I0428 20:14:22.923171 32662 net.cpp:131] Top shape: 100 2 4 4 (3200)
I0428 20:14:22.923174 32662 net.cpp:139] Memory required for data: 14778800
I0428 20:14:22.923192 32662 layer_factory.hpp:77] Creating layer ip1
I0428 20:14:22.923199 32662 net.cpp:86] Creating Layer ip1
I0428 20:14:22.923202 32662 net.cpp:408] ip1 <- pool1
I0428 20:14:22.923207 32662 net.cpp:382] ip1 -> ip1
I0428 20:14:22.923346 32662 net.cpp:124] Setting up ip1
I0428 20:14:22.923353 32662 net.cpp:131] Top shape: 100 50 (5000)
I0428 20:14:22.923357 32662 net.cpp:139] Memory required for data: 14798800
I0428 20:14:22.923364 32662 layer_factory.hpp:77] Creating layer relu1
I0428 20:14:22.923370 32662 net.cpp:86] Creating Layer relu1
I0428 20:14:22.923373 32662 net.cpp:408] relu1 <- ip1
I0428 20:14:22.923377 32662 net.cpp:369] relu1 -> ip1 (in-place)
I0428 20:14:22.923590 32662 net.cpp:124] Setting up relu1
I0428 20:14:22.923600 32662 net.cpp:131] Top shape: 100 50 (5000)
I0428 20:14:22.923604 32662 net.cpp:139] Memory required for data: 14818800
I0428 20:14:22.923607 32662 layer_factory.hpp:77] Creating layer ip2
I0428 20:14:22.923630 32662 net.cpp:86] Creating Layer ip2
I0428 20:14:22.923633 32662 net.cpp:408] ip2 <- ip1
I0428 20:14:22.923640 32662 net.cpp:382] ip2 -> ip2
I0428 20:14:22.923755 32662 net.cpp:124] Setting up ip2
I0428 20:14:22.923763 32662 net.cpp:131] Top shape: 100 10 (1000)
I0428 20:14:22.923766 32662 net.cpp:139] Memory required for data: 14822800
I0428 20:14:22.923773 32662 layer_factory.hpp:77] Creating layer relu2
I0428 20:14:22.923777 32662 net.cpp:86] Creating Layer relu2
I0428 20:14:22.923780 32662 net.cpp:408] relu2 <- ip2
I0428 20:14:22.923785 32662 net.cpp:369] relu2 -> ip2 (in-place)
I0428 20:14:22.923959 32662 net.cpp:124] Setting up relu2
I0428 20:14:22.923969 32662 net.cpp:131] Top shape: 100 10 (1000)
I0428 20:14:22.923972 32662 net.cpp:139] Memory required for data: 14826800
I0428 20:14:22.923975 32662 layer_factory.hpp:77] Creating layer ip2_relu2_0_split
I0428 20:14:22.923980 32662 net.cpp:86] Creating Layer ip2_relu2_0_split
I0428 20:14:22.923984 32662 net.cpp:408] ip2_relu2_0_split <- ip2
I0428 20:14:22.923988 32662 net.cpp:382] ip2_relu2_0_split -> ip2_relu2_0_split_0
I0428 20:14:22.924005 32662 net.cpp:382] ip2_relu2_0_split -> ip2_relu2_0_split_1
I0428 20:14:22.924041 32662 net.cpp:124] Setting up ip2_relu2_0_split
I0428 20:14:22.924048 32662 net.cpp:131] Top shape: 100 10 (1000)
I0428 20:14:22.924052 32662 net.cpp:131] Top shape: 100 10 (1000)
I0428 20:14:22.924055 32662 net.cpp:139] Memory required for data: 14834800
I0428 20:14:22.924058 32662 layer_factory.hpp:77] Creating layer accuracy
I0428 20:14:22.924065 32662 net.cpp:86] Creating Layer accuracy
I0428 20:14:22.924068 32662 net.cpp:408] accuracy <- ip2_relu2_0_split_0
I0428 20:14:22.924072 32662 net.cpp:408] accuracy <- label_mnist_1_split_0
I0428 20:14:22.924077 32662 net.cpp:382] accuracy -> accuracy
…
