…
I0428 19:44:57.040359 25707 net.cpp:296] The NetState phase (0) differed from the phase (1) specified by a rule in layer mnist
I0428 19:44:57.040379 25707 net.cpp:296] The NetState phase (0) differed from the phase (1) specified by a rule in layer accuracy
I0428 19:44:57.040482 25707 net.cpp:53] Initializing net from parameters: 
name: "LeNet"
state {
  phase: TRAIN
  level: 0
  stage: ""
}
layer {
  name: "mnist"
  type: "Data"
  top: "data"
  top: "label"
  include {
    phase: TRAIN
  }
  transform_param {
    scale: 0.00390625
  }
  data_param {
    source: "examples/mnist/mnist_train_lmdb"
    batch_size: 64
    backend: LMDB
  }
}
layer {
  name: "conv0"
  type: "Convolution"
  bottom: "data"
  top: "conv0"
  param {
    lr_mult: 1
  }
  param {
    lr_mult: 2
  }
  convolution_param {
    num_output: 2
    kernel_size: 5
    stride: 1
    weight_filler {
      type: "xavier"
    }
    bias_filler {
      type: "constant"
    }
  }
}
layer {
  name: "pool0"
  type: "Pooling"
  bottom: "conv0"
  top: "pool0"
  pooling_param {
    pool: MAX
    kernel_size: 2
    stride: 2
  }
}
layer {
  name: "conv1"
  type: "Convolution"
  bottom: "pool0"
  top: "conv1"
  param {
    lr_mult: 1
  }
  param {
    lr_mult: 2
  }
  convolution_param {
    num_output: 50
    kernel_size: 5
    stride: 1
    weight_filler {
      type: "xavier"
    }
    bias_filler {
      type: "constant"
    }
  }
}
layer {
  name: "pool1"
  type: "Pooling"
  bottom: "conv1"
  top: "pool1"
  pooling_param {
    pool: MAX
    kernel_size: 2
    stride: 2
  }
}
layer {
  name: "ip1"
  type: "InnerProduct"
  bottom: "pool1"
  top: "ip1"
  param {
    lr_mult: 1
  }
  param {
    lr_mult: 2
  }
  inner_product_param {
    num_output: 50
    weight_filler {
      type: "xavier"
    }
    bias_filler {
      type: "constant"
    }
  }
}
layer {
  name: "relu1"
  type: "ReLU"
  bottom: "ip1"
  top: "ip1"
}
layer {
  name: "ip2"
  type: "InnerProduct"
  bottom: "ip1"
  top: "ip2"
  param {
    lr_mult: 1
  }
  param {
    lr_mult: 2
  }
  inner_product_param {
    num_output: 10
    weight_filler {
      type: "xavier"
    }
    bias_filler {
      type: "constant"
    }
  }
}
layer {
  name: "relu2"
  type: "ReLU"
  bottom: "ip2"
  top: "ip2"
}
layer {
  name: "ip3"
  type: "InnerProduct"
  bottom: "ip2"
  top: "ip3"
  param {
    lr_mult: 1
  }
  param {
    lr_mult: 2
  }
  inner_product_param {
    num_output: 10
    weight_filler {
      type: "xavier"
    }
    bias_filler {
      type: "constant"
    }
  }
}
layer {
  name: "relu3"
  type: "ReLU"
  bottom: "ip3"
  top: "ip3"
}
layer {
  name: "loss"
  type: "SoftmaxWithLoss"
  bottom: "ip3"
  bottom: "label"
  top: "loss"
}
I0428 19:44:57.040562 25707 layer_factory.hpp:77] Creating layer mnist
I0428 19:44:57.040668 25707 db_lmdb.cpp:35] Opened lmdb examples/mnist/mnist_train_lmdb
I0428 19:44:57.040690 25707 net.cpp:86] Creating Layer mnist
I0428 19:44:57.040699 25707 net.cpp:382] mnist -> data
I0428 19:44:57.040721 25707 net.cpp:382] mnist -> label
I0428 19:44:57.041823 25707 data_layer.cpp:45] output data size: 64,1,28,28
I0428 19:44:57.044268 25707 net.cpp:124] Setting up mnist
I0428 19:44:57.044288 25707 net.cpp:131] Top shape: 64 1 28 28 (50176)
I0428 19:44:57.044294 25707 net.cpp:131] Top shape: 64 (64)
I0428 19:44:57.044297 25707 net.cpp:139] Memory required for data: 200960
I0428 19:44:57.044304 25707 layer_factory.hpp:77] Creating layer conv0
I0428 19:44:57.044350 25707 net.cpp:86] Creating Layer conv0
I0428 19:44:57.044373 25707 net.cpp:408] conv0 <- data
I0428 19:44:57.044385 25707 net.cpp:382] conv0 -> conv0
I0428 19:44:57.333590 25707 net.cpp:124] Setting up conv0
I0428 19:44:57.333619 25707 net.cpp:131] Top shape: 64 2 24 24 (73728)
I0428 19:44:57.333623 25707 net.cpp:139] Memory required for data: 495872
I0428 19:44:57.333640 25707 layer_factory.hpp:77] Creating layer pool0
I0428 19:44:57.333655 25707 net.cpp:86] Creating Layer pool0
I0428 19:44:57.333660 25707 net.cpp:408] pool0 <- conv0
I0428 19:44:57.333667 25707 net.cpp:382] pool0 -> pool0
I0428 19:44:57.333719 25707 net.cpp:124] Setting up pool0
I0428 19:44:57.333725 25707 net.cpp:131] Top shape: 64 2 12 12 (18432)
I0428 19:44:57.333729 25707 net.cpp:139] Memory required for data: 569600
I0428 19:44:57.333732 25707 layer_factory.hpp:77] Creating layer conv1
I0428 19:44:57.333745 25707 net.cpp:86] Creating Layer conv1
I0428 19:44:57.333748 25707 net.cpp:408] conv1 <- pool0
I0428 19:44:57.333753 25707 net.cpp:382] conv1 -> conv1
I0428 19:44:57.336727 25707 net.cpp:124] Setting up conv1
I0428 19:44:57.336745 25707 net.cpp:131] Top shape: 64 50 8 8 (204800)
I0428 19:44:57.336748 25707 net.cpp:139] Memory required for data: 1388800
I0428 19:44:57.336758 25707 layer_factory.hpp:77] Creating layer pool1
I0428 19:44:57.336767 25707 net.cpp:86] Creating Layer pool1
I0428 19:44:57.336771 25707 net.cpp:408] pool1 <- conv1
I0428 19:44:57.336776 25707 net.cpp:382] pool1 -> pool1
I0428 19:44:57.336827 25707 net.cpp:124] Setting up pool1
I0428 19:44:57.336834 25707 net.cpp:131] Top shape: 64 50 4 4 (51200)
I0428 19:44:57.336838 25707 net.cpp:139] Memory required for data: 1593600
I0428 19:44:57.336840 25707 layer_factory.hpp:77] Creating layer ip1
I0428 19:44:57.336848 25707 net.cpp:86] Creating Layer ip1
I0428 19:44:57.336853 25707 net.cpp:408] ip1 <- pool1
I0428 19:44:57.336858 25707 net.cpp:382] ip1 -> ip1
I0428 19:44:57.337232 25707 net.cpp:124] Setting up ip1
I0428 19:44:57.337240 25707 net.cpp:131] Top shape: 64 50 (3200)
I0428 19:44:57.337244 25707 net.cpp:139] Memory required for data: 1606400
I0428 19:44:57.337251 25707 layer_factory.hpp:77] Creating layer relu1
I0428 19:44:57.337257 25707 net.cpp:86] Creating Layer relu1
I0428 19:44:57.337261 25707 net.cpp:408] relu1 <- ip1
I0428 19:44:57.337266 25707 net.cpp:369] relu1 -> ip1 (in-place)
I0428 19:44:57.337453 25707 net.cpp:124] Setting up relu1
I0428 19:44:57.337465 25707 net.cpp:131] Top shape: 64 50 (3200)
I0428 19:44:57.337467 25707 net.cpp:139] Memory required for data: 1619200
I0428 19:44:57.337471 25707 layer_factory.hpp:77] Creating layer ip2
I0428 19:44:57.337478 25707 net.cpp:86] Creating Layer ip2
I0428 19:44:57.337481 25707 net.cpp:408] ip2 <- ip1
I0428 19:44:57.337486 25707 net.cpp:382] ip2 -> ip2
I0428 19:44:57.337594 25707 net.cpp:124] Setting up ip2
I0428 19:44:57.337602 25707 net.cpp:131] Top shape: 64 10 (640)
I0428 19:44:57.337605 25707 net.cpp:139] Memory required for data: 1621760
I0428 19:44:57.337612 25707 layer_factory.hpp:77] Creating layer relu2
I0428 19:44:57.337618 25707 net.cpp:86] Creating Layer relu2
I0428 19:44:57.337622 25707 net.cpp:408] relu2 <- ip2
I0428 19:44:57.337626 25707 net.cpp:369] relu2 -> ip2 (in-place)
I0428 19:44:57.338434 25707 net.cpp:124] Setting up relu2
I0428 19:44:57.338450 25707 net.cpp:131] Top shape: 64 10 (640)
I0428 19:44:57.338454 25707 net.cpp:139] Memory required for data: 1624320
I0428 19:44:57.338459 25707 layer_factory.hpp:77] Creating layer ip3
I0428 19:44:57.338465 25707 net.cpp:86] Creating Layer ip3
I0428 19:44:57.338469 25707 net.cpp:408] ip3 <- ip2
I0428 19:44:57.338475 25707 net.cpp:382] ip3 -> ip3
I0428 19:44:57.338587 25707 net.cpp:124] Setting up ip3
I0428 19:44:57.338595 25707 net.cpp:131] Top shape: 64 10 (640)
I0428 19:44:57.338599 25707 net.cpp:139] Memory required for data: 1626880
I0428 19:44:57.338608 25707 layer_factory.hpp:77] Creating layer relu3
I0428 19:44:57.338613 25707 net.cpp:86] Creating Layer relu3
I0428 19:44:57.338618 25707 net.cpp:408] relu3 <- ip3
I0428 19:44:57.338621 25707 net.cpp:369] relu3 -> ip3 (in-place)
I0428 19:44:57.338809 25707 net.cpp:124] Setting up relu3
I0428 19:44:57.338819 25707 net.cpp:131] Top shape: 64 10 (640)
I0428 19:44:57.338824 25707 net.cpp:139] Memory required for data: 1629440
I0428 19:44:57.338827 25707 layer_factory.hpp:77] Creating layer loss
I0428 19:44:57.338834 25707 net.cpp:86] Creating Layer loss
I0428 19:44:57.338837 25707 net.cpp:408] loss <- ip3
I0428 19:44:57.338841 25707 net.cpp:408] loss <- label
I0428 19:44:57.338847 25707 net.cpp:382] loss -> loss
I0428 19:44:57.338863 25707 layer_factory.hpp:77] Creating layer loss
…
I0428 19:44:57.339567 25707 solver.cpp:173] Creating test net (#0) specified by net file: ECE595/mnist/train_test/var_everything2/lenet_train_test460.prototxt
I0428 19:44:57.339597 25707 net.cpp:296] The NetState phase (1) differed from the phase (0) specified by a rule in layer mnist
I0428 19:44:57.339699 25707 net.cpp:53] Initializing net from parameters: 
name: "LeNet"
state {
  phase: TEST
}
layer {
  name: "mnist"
  type: "Data"
  top: "data"
  top: "label"
  include {
    phase: TEST
  }
  transform_param {
    scale: 0.00390625
  }
  data_param {
    source: "examples/mnist/mnist_test_lmdb"
    batch_size: 100
    backend: LMDB
  }
}
layer {
  name: "conv0"
  type: "Convolution"
  bottom: "data"
  top: "conv0"
  param {
    lr_mult: 1
  }
  param {
    lr_mult: 2
  }
  convolution_param {
    num_output: 2
    kernel_size: 5
    stride: 1
    weight_filler {
      type: "xavier"
    }
    bias_filler {
      type: "constant"
    }
  }
}
layer {
  name: "pool0"
  type: "Pooling"
  bottom: "conv0"
  top: "pool0"
  pooling_param {
    pool: MAX
    kernel_size: 2
    stride: 2
  }
}
layer {
  name: "conv1"
  type: "Convolution"
  bottom: "pool0"
  top: "conv1"
  param {
    lr_mult: 1
  }
  param {
    lr_mult: 2
  }
  convolution_param {
    num_output: 50
    kernel_size: 5
    stride: 1
    weight_filler {
      type: "xavier"
    }
    bias_filler {
      type: "constant"
    }
  }
}
layer {
  name: "pool1"
  type: "Pooling"
  bottom: "conv1"
  top: "pool1"
  pooling_param {
    pool: MAX
    kernel_size: 2
    stride: 2
  }
}
layer {
  name: "ip1"
  type: "InnerProduct"
  bottom: "pool1"
  top: "ip1"
  param {
    lr_mult: 1
  }
  param {
    lr_mult: 2
  }
  inner_product_param {
    num_output: 50
    weight_filler {
      type: "xavier"
    }
    bias_filler {
      type: "constant"
    }
  }
}
layer {
  name: "relu1"
  type: "ReLU"
  bottom: "ip1"
  top: "ip1"
}
layer {
  name: "ip2"
  type: "InnerProduct"
  bottom: "ip1"
  top: "ip2"
  param {
    lr_mult: 1
  }
  param {
    lr_mult: 2
  }
  inner_product_param {
    num_output: 10
    weight_filler {
      type: "xavier"
    }
    bias_filler {
      type: "constant"
    }
  }
}
layer {
  name: "relu2"
  type: "ReLU"
  bottom: "ip2"
  top: "ip2"
}
layer {
  name: "ip3"
  type: "InnerProduct"
  bottom: "ip2"
  top: "ip3"
  param {
    lr_mult: 1
  }
  param {
    lr_mult: 2
  }
  inner_product_param {
    num_output: 10
    weight_filler {
      type: "xavier"
    }
    bias_filler {
      type: "constant"
    }
  }
}
layer {
  name: "relu3"
  type: "ReLU"
  bottom: "ip3"
  top: "ip3"
}
layer {
  name: "accuracy"
  type: "Accuracy"
  bottom: "ip3"
  bottom: "label"
  top: "accuracy"
  include {
    phase: TEST
  }
}
layer {
  name: "loss"
  type: "SoftmaxWithLoss"
  bottom: "ip3"
  bottom: "label"
  top: "loss"
}
I0428 19:44:57.339787 25707 layer_factory.hpp:77] Creating layer mnist
I0428 19:44:57.339835 25707 db_lmdb.cpp:35] Opened lmdb examples/mnist/mnist_test_lmdb
I0428 19:44:57.339854 25707 net.cpp:86] Creating Layer mnist
I0428 19:44:57.339859 25707 net.cpp:382] mnist -> data
I0428 19:44:57.339867 25707 net.cpp:382] mnist -> label
I0428 19:44:57.339962 25707 data_layer.cpp:45] output data size: 100,1,28,28
I0428 19:44:57.342387 25707 net.cpp:124] Setting up mnist
I0428 19:44:57.342406 25707 net.cpp:131] Top shape: 100 1 28 28 (78400)
I0428 19:44:57.342416 25707 net.cpp:131] Top shape: 100 (100)
I0428 19:44:57.342420 25707 net.cpp:139] Memory required for data: 314000
I0428 19:44:57.342427 25707 layer_factory.hpp:77] Creating layer label_mnist_1_split
I0428 19:44:57.342437 25707 net.cpp:86] Creating Layer label_mnist_1_split
I0428 19:44:57.342442 25707 net.cpp:408] label_mnist_1_split <- label
I0428 19:44:57.342450 25707 net.cpp:382] label_mnist_1_split -> label_mnist_1_split_0
I0428 19:44:57.342461 25707 net.cpp:382] label_mnist_1_split -> label_mnist_1_split_1
I0428 19:44:57.342593 25707 net.cpp:124] Setting up label_mnist_1_split
I0428 19:44:57.342605 25707 net.cpp:131] Top shape: 100 (100)
I0428 19:44:57.342612 25707 net.cpp:131] Top shape: 100 (100)
I0428 19:44:57.342620 25707 net.cpp:139] Memory required for data: 314800
I0428 19:44:57.342627 25707 layer_factory.hpp:77] Creating layer conv0
I0428 19:44:57.342640 25707 net.cpp:86] Creating Layer conv0
I0428 19:44:57.342645 25707 net.cpp:408] conv0 <- data
I0428 19:44:57.342654 25707 net.cpp:382] conv0 -> conv0
I0428 19:44:57.344791 25707 net.cpp:124] Setting up conv0
I0428 19:44:57.344820 25707 net.cpp:131] Top shape: 100 2 24 24 (115200)
I0428 19:44:57.344828 25707 net.cpp:139] Memory required for data: 775600
I0428 19:44:57.344842 25707 layer_factory.hpp:77] Creating layer pool0
I0428 19:44:57.344852 25707 net.cpp:86] Creating Layer pool0
I0428 19:44:57.344857 25707 net.cpp:408] pool0 <- conv0
I0428 19:44:57.344867 25707 net.cpp:382] pool0 -> pool0
I0428 19:44:57.344920 25707 net.cpp:124] Setting up pool0
I0428 19:44:57.344933 25707 net.cpp:131] Top shape: 100 2 12 12 (28800)
I0428 19:44:57.344938 25707 net.cpp:139] Memory required for data: 890800
I0428 19:44:57.344943 25707 layer_factory.hpp:77] Creating layer conv1
I0428 19:44:57.344959 25707 net.cpp:86] Creating Layer conv1
I0428 19:44:57.344964 25707 net.cpp:408] conv1 <- pool0
I0428 19:44:57.344974 25707 net.cpp:382] conv1 -> conv1
I0428 19:44:57.347090 25707 net.cpp:124] Setting up conv1
I0428 19:44:57.347110 25707 net.cpp:131] Top shape: 100 50 8 8 (320000)
I0428 19:44:57.347117 25707 net.cpp:139] Memory required for data: 2170800
I0428 19:44:57.347131 25707 layer_factory.hpp:77] Creating layer pool1
I0428 19:44:57.347139 25707 net.cpp:86] Creating Layer pool1
I0428 19:44:57.347144 25707 net.cpp:408] pool1 <- conv1
I0428 19:44:57.347153 25707 net.cpp:382] pool1 -> pool1
I0428 19:44:57.347204 25707 net.cpp:124] Setting up pool1
I0428 19:44:57.347223 25707 net.cpp:131] Top shape: 100 50 4 4 (80000)
I0428 19:44:57.347229 25707 net.cpp:139] Memory required for data: 2490800
I0428 19:44:57.347234 25707 layer_factory.hpp:77] Creating layer ip1
I0428 19:44:57.347244 25707 net.cpp:86] Creating Layer ip1
I0428 19:44:57.347249 25707 net.cpp:408] ip1 <- pool1
I0428 19:44:57.347256 25707 net.cpp:382] ip1 -> ip1
I0428 19:44:57.347810 25707 net.cpp:124] Setting up ip1
I0428 19:44:57.347821 25707 net.cpp:131] Top shape: 100 50 (5000)
I0428 19:44:57.347841 25707 net.cpp:139] Memory required for data: 2510800
I0428 19:44:57.347852 25707 layer_factory.hpp:77] Creating layer relu1
I0428 19:44:57.347862 25707 net.cpp:86] Creating Layer relu1
I0428 19:44:57.347875 25707 net.cpp:408] relu1 <- ip1
I0428 19:44:57.347882 25707 net.cpp:369] relu1 -> ip1 (in-place)
I0428 19:44:57.348116 25707 net.cpp:124] Setting up relu1
I0428 19:44:57.348132 25707 net.cpp:131] Top shape: 100 50 (5000)
I0428 19:44:57.348139 25707 net.cpp:139] Memory required for data: 2530800
I0428 19:44:57.348145 25707 layer_factory.hpp:77] Creating layer ip2
I0428 19:44:57.348155 25707 net.cpp:86] Creating Layer ip2
I0428 19:44:57.348160 25707 net.cpp:408] ip2 <- ip1
I0428 19:44:57.348170 25707 net.cpp:382] ip2 -> ip2
I0428 19:44:57.348316 25707 net.cpp:124] Setting up ip2
I0428 19:44:57.348326 25707 net.cpp:131] Top shape: 100 10 (1000)
I0428 19:44:57.348331 25707 net.cpp:139] Memory required for data: 2534800
I0428 19:44:57.348340 25707 layer_factory.hpp:77] Creating layer relu2
I0428 19:44:57.348350 25707 net.cpp:86] Creating Layer relu2
I0428 19:44:57.348354 25707 net.cpp:408] relu2 <- ip2
I0428 19:44:57.348361 25707 net.cpp:369] relu2 -> ip2 (in-place)
I0428 19:44:57.348657 25707 net.cpp:124] Setting up relu2
I0428 19:44:57.348670 25707 net.cpp:131] Top shape: 100 10 (1000)
I0428 19:44:57.348675 25707 net.cpp:139] Memory required for data: 2538800
I0428 19:44:57.348680 25707 layer_factory.hpp:77] Creating layer ip3
I0428 19:44:57.348691 25707 net.cpp:86] Creating Layer ip3
I0428 19:44:57.348696 25707 net.cpp:408] ip3 <- ip2
I0428 19:44:57.348706 25707 net.cpp:382] ip3 -> ip3
I0428 19:44:57.348851 25707 net.cpp:124] Setting up ip3
I0428 19:44:57.348863 25707 net.cpp:131] Top shape: 100 10 (1000)
I0428 19:44:57.348870 25707 net.cpp:139] Memory required for data: 2542800
I0428 19:44:57.348889 25707 layer_factory.hpp:77] Creating layer relu3
I0428 19:44:57.348897 25707 net.cpp:86] Creating Layer relu3
I0428 19:44:57.348902 25707 net.cpp:408] relu3 <- ip3
I0428 19:44:57.348912 25707 net.cpp:369] relu3 -> ip3 (in-place)
I0428 19:44:57.350031 25707 net.cpp:124] Setting up relu3
I0428 19:44:57.350049 25707 net.cpp:131] Top shape: 100 10 (1000)
I0428 19:44:57.350054 25707 net.cpp:139] Memory required for data: 2546800
I0428 19:44:57.350059 25707 layer_factory.hpp:77] Creating layer ip3_relu3_0_split
I0428 19:44:57.350066 25707 net.cpp:86] Creating Layer ip3_relu3_0_split
I0428 19:44:57.350071 25707 net.cpp:408] ip3_relu3_0_split <- ip3
I0428 19:44:57.350081 25707 net.cpp:382] ip3_relu3_0_split -> ip3_relu3_0_split_0
I0428 19:44:57.350090 25707 net.cpp:382] ip3_relu3_0_split -> ip3_relu3_0_split_1
I0428 19:44:57.350141 25707 net.cpp:124] Setting up ip3_relu3_0_split
I0428 19:44:57.350152 25707 net.cpp:131] Top shape: 100 10 (1000)
I0428 19:44:57.350177 25707 net.cpp:131] Top shape: 100 10 (1000)
I0428 19:44:57.350180 25707 net.cpp:139] Memory required for data: 2554800
I0428 19:44:57.350186 25707 layer_factory.hpp:77] Creating layer accuracy
I0428 19:44:57.350193 25707 net.cpp:86] Creating Layer accuracy
I0428 19:44:57.350198 25707 net.cpp:408] accuracy <- ip3_relu3_0_split_0
I0428 19:44:57.350204 25707 net.cpp:408] accuracy <- label_mnist_1_split_0
I0428 19:44:57.350211 25707 net.cpp:382] accuracy -> accuracy
…
