…
I0428 20:28:29.907266  3360 net.cpp:296] The NetState phase (0) differed from the phase (1) specified by a rule in layer mnist
I0428 20:28:29.907285  3360 net.cpp:296] The NetState phase (0) differed from the phase (1) specified by a rule in layer accuracy
I0428 20:28:29.907388  3360 net.cpp:53] Initializing net from parameters: 
name: "LeNet"
state {
  phase: TRAIN
  level: 0
  stage: ""
}
layer {
  name: "mnist"
  type: "Data"
  top: "data"
  top: "label"
  include {
    phase: TRAIN
  }
  transform_param {
    scale: 0.00390625
  }
  data_param {
    source: "examples/mnist/mnist_train_lmdb"
    batch_size: 64
    backend: LMDB
  }
}
layer {
  name: "conv0"
  type: "Convolution"
  bottom: "data"
  top: "conv0"
  param {
    lr_mult: 1
  }
  param {
    lr_mult: 2
  }
  convolution_param {
    num_output: 100
    kernel_size: 5
    stride: 1
    weight_filler {
      type: "xavier"
    }
    bias_filler {
      type: "constant"
    }
  }
}
layer {
  name: "pool0"
  type: "Pooling"
  bottom: "conv0"
  top: "pool0"
  pooling_param {
    pool: MAX
    kernel_size: 2
    stride: 2
  }
}
layer {
  name: "conv1"
  type: "Convolution"
  bottom: "pool0"
  top: "conv1"
  param {
    lr_mult: 1
  }
  param {
    lr_mult: 2
  }
  convolution_param {
    num_output: 5
    kernel_size: 5
    stride: 1
    weight_filler {
      type: "xavier"
    }
    bias_filler {
      type: "constant"
    }
  }
}
layer {
  name: "pool1"
  type: "Pooling"
  bottom: "conv1"
  top: "pool1"
  pooling_param {
    pool: MAX
    kernel_size: 2
    stride: 2
  }
}
layer {
  name: "ip1"
  type: "InnerProduct"
  bottom: "pool1"
  top: "ip1"
  param {
    lr_mult: 1
  }
  param {
    lr_mult: 2
  }
  inner_product_param {
    num_output: 25
    weight_filler {
      type: "xavier"
    }
    bias_filler {
      type: "constant"
    }
  }
}
layer {
  name: "relu1"
  type: "ReLU"
  bottom: "ip1"
  top: "ip1"
}
layer {
  name: "ip2"
  type: "InnerProduct"
  bottom: "ip1"
  top: "ip2"
  param {
    lr_mult: 1
  }
  param {
    lr_mult: 2
  }
  inner_product_param {
    num_output: 25
    weight_filler {
      type: "xavier"
    }
    bias_filler {
      type: "constant"
    }
  }
}
layer {
  name: "relu2"
  type: "ReLU"
  bottom: "ip2"
  top: "ip2"
}
layer {
  name: "ip3"
  type: "InnerProduct"
  bottom: "ip2"
  top: "ip3"
  param {
    lr_mult: 1
  }
  param {
    lr_mult: 2
  }
  inner_product_param {
    num_output: 10
    weight_filler {
      type: "xavier"
    }
    bias_filler {
      type: "constant"
    }
  }
}
layer {
  name: "relu3"
  type: "ReLU"
  bottom: "ip3"
  top: "ip3"
}
layer {
  name: "loss"
  type: "SoftmaxWithLoss"
  bottom: "ip3"
  bottom: "label"
  top: "loss"
}
I0428 20:28:29.907469  3360 layer_factory.hpp:77] Creating layer mnist
I0428 20:28:29.907567  3360 db_lmdb.cpp:35] Opened lmdb examples/mnist/mnist_train_lmdb
I0428 20:28:29.907591  3360 net.cpp:86] Creating Layer mnist
I0428 20:28:29.907599  3360 net.cpp:382] mnist -> data
I0428 20:28:29.907621  3360 net.cpp:382] mnist -> label
I0428 20:28:29.908715  3360 data_layer.cpp:45] output data size: 64,1,28,28
I0428 20:28:29.911175  3360 net.cpp:124] Setting up mnist
I0428 20:28:29.911193  3360 net.cpp:131] Top shape: 64 1 28 28 (50176)
I0428 20:28:29.911200  3360 net.cpp:131] Top shape: 64 (64)
I0428 20:28:29.911203  3360 net.cpp:139] Memory required for data: 200960
I0428 20:28:29.911211  3360 layer_factory.hpp:77] Creating layer conv0
I0428 20:28:29.911231  3360 net.cpp:86] Creating Layer conv0
I0428 20:28:29.911252  3360 net.cpp:408] conv0 <- data
I0428 20:28:29.911264  3360 net.cpp:382] conv0 -> conv0
I0428 20:28:30.204067  3360 net.cpp:124] Setting up conv0
I0428 20:28:30.204098  3360 net.cpp:131] Top shape: 64 100 24 24 (3686400)
I0428 20:28:30.204103  3360 net.cpp:139] Memory required for data: 14946560
I0428 20:28:30.204120  3360 layer_factory.hpp:77] Creating layer pool0
I0428 20:28:30.204135  3360 net.cpp:86] Creating Layer pool0
I0428 20:28:30.204139  3360 net.cpp:408] pool0 <- conv0
I0428 20:28:30.204146  3360 net.cpp:382] pool0 -> pool0
I0428 20:28:30.204205  3360 net.cpp:124] Setting up pool0
I0428 20:28:30.204211  3360 net.cpp:131] Top shape: 64 100 12 12 (921600)
I0428 20:28:30.204215  3360 net.cpp:139] Memory required for data: 18632960
I0428 20:28:30.204218  3360 layer_factory.hpp:77] Creating layer conv1
I0428 20:28:30.204231  3360 net.cpp:86] Creating Layer conv1
I0428 20:28:30.204236  3360 net.cpp:408] conv1 <- pool0
I0428 20:28:30.204241  3360 net.cpp:382] conv1 -> conv1
I0428 20:28:30.207324  3360 net.cpp:124] Setting up conv1
I0428 20:28:30.207342  3360 net.cpp:131] Top shape: 64 5 8 8 (20480)
I0428 20:28:30.207346  3360 net.cpp:139] Memory required for data: 18714880
I0428 20:28:30.207356  3360 layer_factory.hpp:77] Creating layer pool1
I0428 20:28:30.207365  3360 net.cpp:86] Creating Layer pool1
I0428 20:28:30.207371  3360 net.cpp:408] pool1 <- conv1
I0428 20:28:30.207377  3360 net.cpp:382] pool1 -> pool1
I0428 20:28:30.207422  3360 net.cpp:124] Setting up pool1
I0428 20:28:30.207429  3360 net.cpp:131] Top shape: 64 5 4 4 (5120)
I0428 20:28:30.207432  3360 net.cpp:139] Memory required for data: 18735360
I0428 20:28:30.207437  3360 layer_factory.hpp:77] Creating layer ip1
I0428 20:28:30.207449  3360 net.cpp:86] Creating Layer ip1
I0428 20:28:30.207453  3360 net.cpp:408] ip1 <- pool1
I0428 20:28:30.207459  3360 net.cpp:382] ip1 -> ip1
I0428 20:28:30.207581  3360 net.cpp:124] Setting up ip1
I0428 20:28:30.207592  3360 net.cpp:131] Top shape: 64 25 (1600)
I0428 20:28:30.207594  3360 net.cpp:139] Memory required for data: 18741760
I0428 20:28:30.207603  3360 layer_factory.hpp:77] Creating layer relu1
I0428 20:28:30.207610  3360 net.cpp:86] Creating Layer relu1
I0428 20:28:30.207614  3360 net.cpp:408] relu1 <- ip1
I0428 20:28:30.207619  3360 net.cpp:369] relu1 -> ip1 (in-place)
I0428 20:28:30.207808  3360 net.cpp:124] Setting up relu1
I0428 20:28:30.207818  3360 net.cpp:131] Top shape: 64 25 (1600)
I0428 20:28:30.207823  3360 net.cpp:139] Memory required for data: 18748160
I0428 20:28:30.207826  3360 layer_factory.hpp:77] Creating layer ip2
I0428 20:28:30.207834  3360 net.cpp:86] Creating Layer ip2
I0428 20:28:30.207836  3360 net.cpp:408] ip2 <- ip1
I0428 20:28:30.207842  3360 net.cpp:382] ip2 -> ip2
I0428 20:28:30.207950  3360 net.cpp:124] Setting up ip2
I0428 20:28:30.207958  3360 net.cpp:131] Top shape: 64 25 (1600)
I0428 20:28:30.207962  3360 net.cpp:139] Memory required for data: 18754560
I0428 20:28:30.207968  3360 layer_factory.hpp:77] Creating layer relu2
I0428 20:28:30.207975  3360 net.cpp:86] Creating Layer relu2
I0428 20:28:30.207978  3360 net.cpp:408] relu2 <- ip2
I0428 20:28:30.207983  3360 net.cpp:369] relu2 -> ip2 (in-place)
I0428 20:28:30.208796  3360 net.cpp:124] Setting up relu2
I0428 20:28:30.208817  3360 net.cpp:131] Top shape: 64 25 (1600)
I0428 20:28:30.208822  3360 net.cpp:139] Memory required for data: 18760960
I0428 20:28:30.208827  3360 layer_factory.hpp:77] Creating layer ip3
I0428 20:28:30.208834  3360 net.cpp:86] Creating Layer ip3
I0428 20:28:30.208838  3360 net.cpp:408] ip3 <- ip2
I0428 20:28:30.208845  3360 net.cpp:382] ip3 -> ip3
I0428 20:28:30.208956  3360 net.cpp:124] Setting up ip3
I0428 20:28:30.208966  3360 net.cpp:131] Top shape: 64 10 (640)
I0428 20:28:30.208969  3360 net.cpp:139] Memory required for data: 18763520
I0428 20:28:30.208978  3360 layer_factory.hpp:77] Creating layer relu3
I0428 20:28:30.208984  3360 net.cpp:86] Creating Layer relu3
I0428 20:28:30.208988  3360 net.cpp:408] relu3 <- ip3
I0428 20:28:30.208993  3360 net.cpp:369] relu3 -> ip3 (in-place)
I0428 20:28:30.209185  3360 net.cpp:124] Setting up relu3
I0428 20:28:30.209195  3360 net.cpp:131] Top shape: 64 10 (640)
I0428 20:28:30.209199  3360 net.cpp:139] Memory required for data: 18766080
I0428 20:28:30.209203  3360 layer_factory.hpp:77] Creating layer loss
I0428 20:28:30.209210  3360 net.cpp:86] Creating Layer loss
I0428 20:28:30.209213  3360 net.cpp:408] loss <- ip3
I0428 20:28:30.209218  3360 net.cpp:408] loss <- label
I0428 20:28:30.209224  3360 net.cpp:382] loss -> loss
I0428 20:28:30.209244  3360 layer_factory.hpp:77] Creating layer loss
…
I0428 20:28:30.209972  3360 solver.cpp:173] Creating test net (#0) specified by net file: ECE595/mnist/train_test/var_everything2/lenet_train_test1506.prototxt
I0428 20:28:30.210012  3360 net.cpp:296] The NetState phase (1) differed from the phase (0) specified by a rule in layer mnist
I0428 20:28:30.210115  3360 net.cpp:53] Initializing net from parameters: 
name: "LeNet"
state {
  phase: TEST
}
layer {
  name: "mnist"
  type: "Data"
  top: "data"
  top: "label"
  include {
    phase: TEST
  }
  transform_param {
    scale: 0.00390625
  }
  data_param {
    source: "examples/mnist/mnist_test_lmdb"
    batch_size: 100
    backend: LMDB
  }
}
layer {
  name: "conv0"
  type: "Convolution"
  bottom: "data"
  top: "conv0"
  param {
    lr_mult: 1
  }
  param {
    lr_mult: 2
  }
  convolution_param {
    num_output: 100
    kernel_size: 5
    stride: 1
    weight_filler {
      type: "xavier"
    }
    bias_filler {
      type: "constant"
    }
  }
}
layer {
  name: "pool0"
  type: "Pooling"
  bottom: "conv0"
  top: "pool0"
  pooling_param {
    pool: MAX
    kernel_size: 2
    stride: 2
  }
}
layer {
  name: "conv1"
  type: "Convolution"
  bottom: "pool0"
  top: "conv1"
  param {
    lr_mult: 1
  }
  param {
    lr_mult: 2
  }
  convolution_param {
    num_output: 5
    kernel_size: 5
    stride: 1
    weight_filler {
      type: "xavier"
    }
    bias_filler {
      type: "constant"
    }
  }
}
layer {
  name: "pool1"
  type: "Pooling"
  bottom: "conv1"
  top: "pool1"
  pooling_param {
    pool: MAX
    kernel_size: 2
    stride: 2
  }
}
layer {
  name: "ip1"
  type: "InnerProduct"
  bottom: "pool1"
  top: "ip1"
  param {
    lr_mult: 1
  }
  param {
    lr_mult: 2
  }
  inner_product_param {
    num_output: 25
    weight_filler {
      type: "xavier"
    }
    bias_filler {
      type: "constant"
    }
  }
}
layer {
  name: "relu1"
  type: "ReLU"
  bottom: "ip1"
  top: "ip1"
}
layer {
  name: "ip2"
  type: "InnerProduct"
  bottom: "ip1"
  top: "ip2"
  param {
    lr_mult: 1
  }
  param {
    lr_mult: 2
  }
  inner_product_param {
    num_output: 25
    weight_filler {
      type: "xavier"
    }
    bias_filler {
      type: "constant"
    }
  }
}
layer {
  name: "relu2"
  type: "ReLU"
  bottom: "ip2"
  top: "ip2"
}
layer {
  name: "ip3"
  type: "InnerProduct"
  bottom: "ip2"
  top: "ip3"
  param {
    lr_mult: 1
  }
  param {
    lr_mult: 2
  }
  inner_product_param {
    num_output: 10
    weight_filler {
      type: "xavier"
    }
    bias_filler {
      type: "constant"
    }
  }
}
layer {
  name: "relu3"
  type: "ReLU"
  bottom: "ip3"
  top: "ip3"
}
layer {
  name: "accuracy"
  type: "Accuracy"
  bottom: "ip3"
  bottom: "label"
  top: "accuracy"
  include {
    phase: TEST
  }
}
layer {
  name: "loss"
  type: "SoftmaxWithLoss"
  bottom: "ip3"
  bottom: "label"
  top: "loss"
}
I0428 20:28:30.210203  3360 layer_factory.hpp:77] Creating layer mnist
I0428 20:28:30.210252  3360 db_lmdb.cpp:35] Opened lmdb examples/mnist/mnist_test_lmdb
I0428 20:28:30.210266  3360 net.cpp:86] Creating Layer mnist
I0428 20:28:30.210271  3360 net.cpp:382] mnist -> data
I0428 20:28:30.210280  3360 net.cpp:382] mnist -> label
I0428 20:28:30.210376  3360 data_layer.cpp:45] output data size: 100,1,28,28
I0428 20:28:30.212472  3360 net.cpp:124] Setting up mnist
I0428 20:28:30.212487  3360 net.cpp:131] Top shape: 100 1 28 28 (78400)
I0428 20:28:30.212493  3360 net.cpp:131] Top shape: 100 (100)
I0428 20:28:30.212497  3360 net.cpp:139] Memory required for data: 314000
I0428 20:28:30.212502  3360 layer_factory.hpp:77] Creating layer label_mnist_1_split
I0428 20:28:30.212514  3360 net.cpp:86] Creating Layer label_mnist_1_split
I0428 20:28:30.212518  3360 net.cpp:408] label_mnist_1_split <- label
I0428 20:28:30.212524  3360 net.cpp:382] label_mnist_1_split -> label_mnist_1_split_0
I0428 20:28:30.212532  3360 net.cpp:382] label_mnist_1_split -> label_mnist_1_split_1
I0428 20:28:30.212585  3360 net.cpp:124] Setting up label_mnist_1_split
I0428 20:28:30.212591  3360 net.cpp:131] Top shape: 100 (100)
I0428 20:28:30.212596  3360 net.cpp:131] Top shape: 100 (100)
I0428 20:28:30.212599  3360 net.cpp:139] Memory required for data: 314800
I0428 20:28:30.212604  3360 layer_factory.hpp:77] Creating layer conv0
I0428 20:28:30.212612  3360 net.cpp:86] Creating Layer conv0
I0428 20:28:30.212616  3360 net.cpp:408] conv0 <- data
I0428 20:28:30.212622  3360 net.cpp:382] conv0 -> conv0
I0428 20:28:30.214457  3360 net.cpp:124] Setting up conv0
I0428 20:28:30.214473  3360 net.cpp:131] Top shape: 100 100 24 24 (5760000)
I0428 20:28:30.214478  3360 net.cpp:139] Memory required for data: 23354800
I0428 20:28:30.214489  3360 layer_factory.hpp:77] Creating layer pool0
I0428 20:28:30.214496  3360 net.cpp:86] Creating Layer pool0
I0428 20:28:30.214501  3360 net.cpp:408] pool0 <- conv0
I0428 20:28:30.214507  3360 net.cpp:382] pool0 -> pool0
I0428 20:28:30.214550  3360 net.cpp:124] Setting up pool0
I0428 20:28:30.214555  3360 net.cpp:131] Top shape: 100 100 12 12 (1440000)
I0428 20:28:30.214560  3360 net.cpp:139] Memory required for data: 29114800
I0428 20:28:30.214563  3360 layer_factory.hpp:77] Creating layer conv1
I0428 20:28:30.214572  3360 net.cpp:86] Creating Layer conv1
I0428 20:28:30.214576  3360 net.cpp:408] conv1 <- pool0
I0428 20:28:30.214582  3360 net.cpp:382] conv1 -> conv1
I0428 20:28:30.216310  3360 net.cpp:124] Setting up conv1
I0428 20:28:30.216325  3360 net.cpp:131] Top shape: 100 5 8 8 (32000)
I0428 20:28:30.216328  3360 net.cpp:139] Memory required for data: 29242800
I0428 20:28:30.216339  3360 layer_factory.hpp:77] Creating layer pool1
I0428 20:28:30.216346  3360 net.cpp:86] Creating Layer pool1
I0428 20:28:30.216351  3360 net.cpp:408] pool1 <- conv1
I0428 20:28:30.216359  3360 net.cpp:382] pool1 -> pool1
I0428 20:28:30.216400  3360 net.cpp:124] Setting up pool1
I0428 20:28:30.216408  3360 net.cpp:131] Top shape: 100 5 4 4 (8000)
I0428 20:28:30.216410  3360 net.cpp:139] Memory required for data: 29274800
I0428 20:28:30.216414  3360 layer_factory.hpp:77] Creating layer ip1
I0428 20:28:30.216423  3360 net.cpp:86] Creating Layer ip1
I0428 20:28:30.216425  3360 net.cpp:408] ip1 <- pool1
I0428 20:28:30.216433  3360 net.cpp:382] ip1 -> ip1
I0428 20:28:30.216562  3360 net.cpp:124] Setting up ip1
I0428 20:28:30.216572  3360 net.cpp:131] Top shape: 100 25 (2500)
I0428 20:28:30.216598  3360 net.cpp:139] Memory required for data: 29284800
I0428 20:28:30.216608  3360 layer_factory.hpp:77] Creating layer relu1
I0428 20:28:30.216614  3360 net.cpp:86] Creating Layer relu1
I0428 20:28:30.216619  3360 net.cpp:408] relu1 <- ip1
I0428 20:28:30.216624  3360 net.cpp:369] relu1 -> ip1 (in-place)
I0428 20:28:30.216830  3360 net.cpp:124] Setting up relu1
I0428 20:28:30.216840  3360 net.cpp:131] Top shape: 100 25 (2500)
I0428 20:28:30.216845  3360 net.cpp:139] Memory required for data: 29294800
I0428 20:28:30.216848  3360 layer_factory.hpp:77] Creating layer ip2
I0428 20:28:30.216856  3360 net.cpp:86] Creating Layer ip2
I0428 20:28:30.216859  3360 net.cpp:408] ip2 <- ip1
I0428 20:28:30.216866  3360 net.cpp:382] ip2 -> ip2
I0428 20:28:30.217075  3360 net.cpp:124] Setting up ip2
I0428 20:28:30.217084  3360 net.cpp:131] Top shape: 100 25 (2500)
I0428 20:28:30.217088  3360 net.cpp:139] Memory required for data: 29304800
I0428 20:28:30.217095  3360 layer_factory.hpp:77] Creating layer relu2
I0428 20:28:30.217102  3360 net.cpp:86] Creating Layer relu2
I0428 20:28:30.217104  3360 net.cpp:408] relu2 <- ip2
I0428 20:28:30.217110  3360 net.cpp:369] relu2 -> ip2 (in-place)
I0428 20:28:30.217288  3360 net.cpp:124] Setting up relu2
I0428 20:28:30.217298  3360 net.cpp:131] Top shape: 100 25 (2500)
I0428 20:28:30.217301  3360 net.cpp:139] Memory required for data: 29314800
I0428 20:28:30.217305  3360 layer_factory.hpp:77] Creating layer ip3
I0428 20:28:30.217314  3360 net.cpp:86] Creating Layer ip3
I0428 20:28:30.217317  3360 net.cpp:408] ip3 <- ip2
I0428 20:28:30.217322  3360 net.cpp:382] ip3 -> ip3
I0428 20:28:30.217432  3360 net.cpp:124] Setting up ip3
I0428 20:28:30.217440  3360 net.cpp:131] Top shape: 100 10 (1000)
I0428 20:28:30.217444  3360 net.cpp:139] Memory required for data: 29318800
I0428 20:28:30.217453  3360 layer_factory.hpp:77] Creating layer relu3
I0428 20:28:30.217458  3360 net.cpp:86] Creating Layer relu3
I0428 20:28:30.217461  3360 net.cpp:408] relu3 <- ip3
I0428 20:28:30.217468  3360 net.cpp:369] relu3 -> ip3 (in-place)
I0428 20:28:30.218338  3360 net.cpp:124] Setting up relu3
I0428 20:28:30.218351  3360 net.cpp:131] Top shape: 100 10 (1000)
I0428 20:28:30.218355  3360 net.cpp:139] Memory required for data: 29322800
I0428 20:28:30.218358  3360 layer_factory.hpp:77] Creating layer ip3_relu3_0_split
I0428 20:28:30.218366  3360 net.cpp:86] Creating Layer ip3_relu3_0_split
I0428 20:28:30.218370  3360 net.cpp:408] ip3_relu3_0_split <- ip3
I0428 20:28:30.218376  3360 net.cpp:382] ip3_relu3_0_split -> ip3_relu3_0_split_0
I0428 20:28:30.218382  3360 net.cpp:382] ip3_relu3_0_split -> ip3_relu3_0_split_1
I0428 20:28:30.218426  3360 net.cpp:124] Setting up ip3_relu3_0_split
I0428 20:28:30.218431  3360 net.cpp:131] Top shape: 100 10 (1000)
I0428 20:28:30.218436  3360 net.cpp:131] Top shape: 100 10 (1000)
I0428 20:28:30.218439  3360 net.cpp:139] Memory required for data: 29330800
I0428 20:28:30.218443  3360 layer_factory.hpp:77] Creating layer accuracy
I0428 20:28:30.218449  3360 net.cpp:86] Creating Layer accuracy
I0428 20:28:30.218453  3360 net.cpp:408] accuracy <- ip3_relu3_0_split_0
I0428 20:28:30.218457  3360 net.cpp:408] accuracy <- label_mnist_1_split_0
I0428 20:28:30.218466  3360 net.cpp:382] accuracy -> accuracy
…
