…
I0428 20:07:57.953200 31275 net.cpp:296] The NetState phase (0) differed from the phase (1) specified by a rule in layer mnist
I0428 20:07:57.953218 31275 net.cpp:296] The NetState phase (0) differed from the phase (1) specified by a rule in layer accuracy
I0428 20:07:57.953315 31275 net.cpp:53] Initializing net from parameters: 
name: "LeNet"
state {
  phase: TRAIN
  level: 0
  stage: ""
}
layer {
  name: "mnist"
  type: "Data"
  top: "data"
  top: "label"
  include {
    phase: TRAIN
  }
  transform_param {
    scale: 0.00390625
  }
  data_param {
    source: "examples/mnist/mnist_train_lmdb"
    batch_size: 64
    backend: LMDB
  }
}
layer {
  name: "conv0"
  type: "Convolution"
  bottom: "data"
  top: "conv0"
  param {
    lr_mult: 1
  }
  param {
    lr_mult: 2
  }
  convolution_param {
    num_output: 25
    kernel_size: 5
    stride: 1
    weight_filler {
      type: "xavier"
    }
    bias_filler {
      type: "constant"
    }
  }
}
layer {
  name: "pool0"
  type: "Pooling"
  bottom: "conv0"
  top: "pool0"
  pooling_param {
    pool: MAX
    kernel_size: 2
    stride: 2
  }
}
layer {
  name: "conv1"
  type: "Convolution"
  bottom: "pool0"
  top: "conv1"
  param {
    lr_mult: 1
  }
  param {
    lr_mult: 2
  }
  convolution_param {
    num_output: 10
    kernel_size: 5
    stride: 1
    weight_filler {
      type: "xavier"
    }
    bias_filler {
      type: "constant"
    }
  }
}
layer {
  name: "pool1"
  type: "Pooling"
  bottom: "conv1"
  top: "pool1"
  pooling_param {
    pool: MAX
    kernel_size: 2
    stride: 2
  }
}
layer {
  name: "ip1"
  type: "InnerProduct"
  bottom: "pool1"
  top: "ip1"
  param {
    lr_mult: 1
  }
  param {
    lr_mult: 2
  }
  inner_product_param {
    num_output: 10
    weight_filler {
      type: "xavier"
    }
    bias_filler {
      type: "constant"
    }
  }
}
layer {
  name: "relu1"
  type: "ReLU"
  bottom: "ip1"
  top: "ip1"
}
layer {
  name: "ip2"
  type: "InnerProduct"
  bottom: "ip1"
  top: "ip2"
  param {
    lr_mult: 1
  }
  param {
    lr_mult: 2
  }
  inner_product_param {
    num_output: 25
    weight_filler {
      type: "xavier"
    }
    bias_filler {
      type: "constant"
    }
  }
}
layer {
  name: "relu2"
  type: "ReLU"
  bottom: "ip2"
  top: "ip2"
}
layer {
  name: "ip3"
  type: "InnerProduct"
  bottom: "ip2"
  top: "ip3"
  param {
    lr_mult: 1
  }
  param {
    lr_mult: 2
  }
  inner_product_param {
    num_output: 10
    weight_filler {
      type: "xavier"
    }
    bias_filler {
      type: "constant"
    }
  }
}
layer {
  name: "relu3"
  type: "ReLU"
  bottom: "ip3"
  top: "ip3"
}
layer {
  name: "loss"
  type: "SoftmaxWithLoss"
  bottom: "ip3"
  bottom: "label"
  top: "loss"
}
I0428 20:07:57.953390 31275 layer_factory.hpp:77] Creating layer mnist
I0428 20:07:57.953491 31275 db_lmdb.cpp:35] Opened lmdb examples/mnist/mnist_train_lmdb
I0428 20:07:57.953514 31275 net.cpp:86] Creating Layer mnist
I0428 20:07:57.953521 31275 net.cpp:382] mnist -> data
I0428 20:07:57.953543 31275 net.cpp:382] mnist -> label
I0428 20:07:57.954628 31275 data_layer.cpp:45] output data size: 64,1,28,28
I0428 20:07:57.957067 31275 net.cpp:124] Setting up mnist
I0428 20:07:57.957084 31275 net.cpp:131] Top shape: 64 1 28 28 (50176)
I0428 20:07:57.957092 31275 net.cpp:131] Top shape: 64 (64)
I0428 20:07:57.957095 31275 net.cpp:139] Memory required for data: 200960
I0428 20:07:57.957103 31275 layer_factory.hpp:77] Creating layer conv0
I0428 20:07:57.957118 31275 net.cpp:86] Creating Layer conv0
I0428 20:07:57.957139 31275 net.cpp:408] conv0 <- data
I0428 20:07:57.957150 31275 net.cpp:382] conv0 -> conv0
I0428 20:07:58.214010 31275 net.cpp:124] Setting up conv0
I0428 20:07:58.214051 31275 net.cpp:131] Top shape: 64 25 24 24 (921600)
I0428 20:07:58.214054 31275 net.cpp:139] Memory required for data: 3887360
I0428 20:07:58.214069 31275 layer_factory.hpp:77] Creating layer pool0
I0428 20:07:58.214082 31275 net.cpp:86] Creating Layer pool0
I0428 20:07:58.214085 31275 net.cpp:408] pool0 <- conv0
I0428 20:07:58.214090 31275 net.cpp:382] pool0 -> pool0
I0428 20:07:58.214134 31275 net.cpp:124] Setting up pool0
I0428 20:07:58.214140 31275 net.cpp:131] Top shape: 64 25 12 12 (230400)
I0428 20:07:58.214143 31275 net.cpp:139] Memory required for data: 4808960
I0428 20:07:58.214145 31275 layer_factory.hpp:77] Creating layer conv1
I0428 20:07:58.214155 31275 net.cpp:86] Creating Layer conv1
I0428 20:07:58.214159 31275 net.cpp:408] conv1 <- pool0
I0428 20:07:58.214164 31275 net.cpp:382] conv1 -> conv1
I0428 20:07:58.216841 31275 net.cpp:124] Setting up conv1
I0428 20:07:58.216871 31275 net.cpp:131] Top shape: 64 10 8 8 (40960)
I0428 20:07:58.216876 31275 net.cpp:139] Memory required for data: 4972800
I0428 20:07:58.216884 31275 layer_factory.hpp:77] Creating layer pool1
I0428 20:07:58.216892 31275 net.cpp:86] Creating Layer pool1
I0428 20:07:58.216895 31275 net.cpp:408] pool1 <- conv1
I0428 20:07:58.216899 31275 net.cpp:382] pool1 -> pool1
I0428 20:07:58.216939 31275 net.cpp:124] Setting up pool1
I0428 20:07:58.216944 31275 net.cpp:131] Top shape: 64 10 4 4 (10240)
I0428 20:07:58.216948 31275 net.cpp:139] Memory required for data: 5013760
I0428 20:07:58.216950 31275 layer_factory.hpp:77] Creating layer ip1
I0428 20:07:58.216959 31275 net.cpp:86] Creating Layer ip1
I0428 20:07:58.216962 31275 net.cpp:408] ip1 <- pool1
I0428 20:07:58.216967 31275 net.cpp:382] ip1 -> ip1
I0428 20:07:58.217916 31275 net.cpp:124] Setting up ip1
I0428 20:07:58.217927 31275 net.cpp:131] Top shape: 64 10 (640)
I0428 20:07:58.217947 31275 net.cpp:139] Memory required for data: 5016320
I0428 20:07:58.217954 31275 layer_factory.hpp:77] Creating layer relu1
I0428 20:07:58.217962 31275 net.cpp:86] Creating Layer relu1
I0428 20:07:58.217965 31275 net.cpp:408] relu1 <- ip1
I0428 20:07:58.217970 31275 net.cpp:369] relu1 -> ip1 (in-place)
I0428 20:07:58.218158 31275 net.cpp:124] Setting up relu1
I0428 20:07:58.218166 31275 net.cpp:131] Top shape: 64 10 (640)
I0428 20:07:58.218169 31275 net.cpp:139] Memory required for data: 5018880
I0428 20:07:58.218173 31275 layer_factory.hpp:77] Creating layer ip2
I0428 20:07:58.218179 31275 net.cpp:86] Creating Layer ip2
I0428 20:07:58.218183 31275 net.cpp:408] ip2 <- ip1
I0428 20:07:58.218186 31275 net.cpp:382] ip2 -> ip2
I0428 20:07:58.218282 31275 net.cpp:124] Setting up ip2
I0428 20:07:58.218288 31275 net.cpp:131] Top shape: 64 25 (1600)
I0428 20:07:58.218291 31275 net.cpp:139] Memory required for data: 5025280
I0428 20:07:58.218297 31275 layer_factory.hpp:77] Creating layer relu2
I0428 20:07:58.218303 31275 net.cpp:86] Creating Layer relu2
I0428 20:07:58.218307 31275 net.cpp:408] relu2 <- ip2
I0428 20:07:58.218310 31275 net.cpp:369] relu2 -> ip2 (in-place)
I0428 20:07:58.219077 31275 net.cpp:124] Setting up relu2
I0428 20:07:58.219105 31275 net.cpp:131] Top shape: 64 25 (1600)
I0428 20:07:58.219108 31275 net.cpp:139] Memory required for data: 5031680
I0428 20:07:58.219111 31275 layer_factory.hpp:77] Creating layer ip3
I0428 20:07:58.219118 31275 net.cpp:86] Creating Layer ip3
I0428 20:07:58.219123 31275 net.cpp:408] ip3 <- ip2
I0428 20:07:58.219130 31275 net.cpp:382] ip3 -> ip3
I0428 20:07:58.219244 31275 net.cpp:124] Setting up ip3
I0428 20:07:58.219250 31275 net.cpp:131] Top shape: 64 10 (640)
I0428 20:07:58.219254 31275 net.cpp:139] Memory required for data: 5034240
I0428 20:07:58.219261 31275 layer_factory.hpp:77] Creating layer relu3
I0428 20:07:58.219265 31275 net.cpp:86] Creating Layer relu3
I0428 20:07:58.219269 31275 net.cpp:408] relu3 <- ip3
I0428 20:07:58.219274 31275 net.cpp:369] relu3 -> ip3 (in-place)
I0428 20:07:58.219451 31275 net.cpp:124] Setting up relu3
I0428 20:07:58.219460 31275 net.cpp:131] Top shape: 64 10 (640)
I0428 20:07:58.219463 31275 net.cpp:139] Memory required for data: 5036800
I0428 20:07:58.219466 31275 layer_factory.hpp:77] Creating layer loss
I0428 20:07:58.219472 31275 net.cpp:86] Creating Layer loss
I0428 20:07:58.219475 31275 net.cpp:408] loss <- ip3
I0428 20:07:58.219480 31275 net.cpp:408] loss <- label
I0428 20:07:58.219485 31275 net.cpp:382] loss -> loss
I0428 20:07:58.219497 31275 layer_factory.hpp:77] Creating layer loss
…
I0428 20:07:58.220229 31275 solver.cpp:173] Creating test net (#0) specified by net file: ECE595/mnist/train_test/var_everything2/lenet_train_test1070.prototxt
I0428 20:07:58.220270 31275 net.cpp:296] The NetState phase (1) differed from the phase (0) specified by a rule in layer mnist
I0428 20:07:58.220360 31275 net.cpp:53] Initializing net from parameters: 
name: "LeNet"
state {
  phase: TEST
}
layer {
  name: "mnist"
  type: "Data"
  top: "data"
  top: "label"
  include {
    phase: TEST
  }
  transform_param {
    scale: 0.00390625
  }
  data_param {
    source: "examples/mnist/mnist_test_lmdb"
    batch_size: 100
    backend: LMDB
  }
}
layer {
  name: "conv0"
  type: "Convolution"
  bottom: "data"
  top: "conv0"
  param {
    lr_mult: 1
  }
  param {
    lr_mult: 2
  }
  convolution_param {
    num_output: 25
    kernel_size: 5
    stride: 1
    weight_filler {
      type: "xavier"
    }
    bias_filler {
      type: "constant"
    }
  }
}
layer {
  name: "pool0"
  type: "Pooling"
  bottom: "conv0"
  top: "pool0"
  pooling_param {
    pool: MAX
    kernel_size: 2
    stride: 2
  }
}
layer {
  name: "conv1"
  type: "Convolution"
  bottom: "pool0"
  top: "conv1"
  param {
    lr_mult: 1
  }
  param {
    lr_mult: 2
  }
  convolution_param {
    num_output: 10
    kernel_size: 5
    stride: 1
    weight_filler {
      type: "xavier"
    }
    bias_filler {
      type: "constant"
    }
  }
}
layer {
  name: "pool1"
  type: "Pooling"
  bottom: "conv1"
  top: "pool1"
  pooling_param {
    pool: MAX
    kernel_size: 2
    stride: 2
  }
}
layer {
  name: "ip1"
  type: "InnerProduct"
  bottom: "pool1"
  top: "ip1"
  param {
    lr_mult: 1
  }
  param {
    lr_mult: 2
  }
  inner_product_param {
    num_output: 10
    weight_filler {
      type: "xavier"
    }
    bias_filler {
      type: "constant"
    }
  }
}
layer {
  name: "relu1"
  type: "ReLU"
  bottom: "ip1"
  top: "ip1"
}
layer {
  name: "ip2"
  type: "InnerProduct"
  bottom: "ip1"
  top: "ip2"
  param {
    lr_mult: 1
  }
  param {
    lr_mult: 2
  }
  inner_product_param {
    num_output: 25
    weight_filler {
      type: "xavier"
    }
    bias_filler {
      type: "constant"
    }
  }
}
layer {
  name: "relu2"
  type: "ReLU"
  bottom: "ip2"
  top: "ip2"
}
layer {
  name: "ip3"
  type: "InnerProduct"
  bottom: "ip2"
  top: "ip3"
  param {
    lr_mult: 1
  }
  param {
    lr_mult: 2
  }
  inner_product_param {
    num_output: 10
    weight_filler {
      type: "xavier"
    }
    bias_filler {
      type: "constant"
    }
  }
}
layer {
  name: "relu3"
  type: "ReLU"
  bottom: "ip3"
  top: "ip3"
}
layer {
  name: "accuracy"
  type: "Accuracy"
  bottom: "ip3"
  bottom: "label"
  top: "accuracy"
  include {
    phase: TEST
  }
}
layer {
  name: "loss"
  type: "SoftmaxWithLoss"
  bottom: "ip3"
  bottom: "label"
  top: "loss"
}
I0428 20:07:58.220438 31275 layer_factory.hpp:77] Creating layer mnist
I0428 20:07:58.220480 31275 db_lmdb.cpp:35] Opened lmdb examples/mnist/mnist_test_lmdb
I0428 20:07:58.220492 31275 net.cpp:86] Creating Layer mnist
I0428 20:07:58.220512 31275 net.cpp:382] mnist -> data
I0428 20:07:58.220520 31275 net.cpp:382] mnist -> label
I0428 20:07:58.220621 31275 data_layer.cpp:45] output data size: 100,1,28,28
I0428 20:07:58.222640 31275 net.cpp:124] Setting up mnist
I0428 20:07:58.222683 31275 net.cpp:131] Top shape: 100 1 28 28 (78400)
I0428 20:07:58.222688 31275 net.cpp:131] Top shape: 100 (100)
I0428 20:07:58.222692 31275 net.cpp:139] Memory required for data: 314000
I0428 20:07:58.222705 31275 layer_factory.hpp:77] Creating layer label_mnist_1_split
I0428 20:07:58.222731 31275 net.cpp:86] Creating Layer label_mnist_1_split
I0428 20:07:58.222735 31275 net.cpp:408] label_mnist_1_split <- label
I0428 20:07:58.222740 31275 net.cpp:382] label_mnist_1_split -> label_mnist_1_split_0
I0428 20:07:58.222748 31275 net.cpp:382] label_mnist_1_split -> label_mnist_1_split_1
I0428 20:07:58.222792 31275 net.cpp:124] Setting up label_mnist_1_split
I0428 20:07:58.222800 31275 net.cpp:131] Top shape: 100 (100)
I0428 20:07:58.222803 31275 net.cpp:131] Top shape: 100 (100)
I0428 20:07:58.222806 31275 net.cpp:139] Memory required for data: 314800
I0428 20:07:58.222808 31275 layer_factory.hpp:77] Creating layer conv0
I0428 20:07:58.222817 31275 net.cpp:86] Creating Layer conv0
I0428 20:07:58.222820 31275 net.cpp:408] conv0 <- data
I0428 20:07:58.222826 31275 net.cpp:382] conv0 -> conv0
I0428 20:07:58.224551 31275 net.cpp:124] Setting up conv0
I0428 20:07:58.224581 31275 net.cpp:131] Top shape: 100 25 24 24 (1440000)
I0428 20:07:58.224584 31275 net.cpp:139] Memory required for data: 6074800
I0428 20:07:58.224596 31275 layer_factory.hpp:77] Creating layer pool0
I0428 20:07:58.224603 31275 net.cpp:86] Creating Layer pool0
I0428 20:07:58.224606 31275 net.cpp:408] pool0 <- conv0
I0428 20:07:58.224611 31275 net.cpp:382] pool0 -> pool0
I0428 20:07:58.224651 31275 net.cpp:124] Setting up pool0
I0428 20:07:58.224656 31275 net.cpp:131] Top shape: 100 25 12 12 (360000)
I0428 20:07:58.224659 31275 net.cpp:139] Memory required for data: 7514800
I0428 20:07:58.224663 31275 layer_factory.hpp:77] Creating layer conv1
I0428 20:07:58.224673 31275 net.cpp:86] Creating Layer conv1
I0428 20:07:58.224675 31275 net.cpp:408] conv1 <- pool0
I0428 20:07:58.224681 31275 net.cpp:382] conv1 -> conv1
I0428 20:07:58.226898 31275 net.cpp:124] Setting up conv1
I0428 20:07:58.226927 31275 net.cpp:131] Top shape: 100 10 8 8 (64000)
I0428 20:07:58.226932 31275 net.cpp:139] Memory required for data: 7770800
I0428 20:07:58.226955 31275 layer_factory.hpp:77] Creating layer pool1
I0428 20:07:58.226963 31275 net.cpp:86] Creating Layer pool1
I0428 20:07:58.226965 31275 net.cpp:408] pool1 <- conv1
I0428 20:07:58.226971 31275 net.cpp:382] pool1 -> pool1
I0428 20:07:58.227012 31275 net.cpp:124] Setting up pool1
I0428 20:07:58.227017 31275 net.cpp:131] Top shape: 100 10 4 4 (16000)
I0428 20:07:58.227020 31275 net.cpp:139] Memory required for data: 7834800
I0428 20:07:58.227025 31275 layer_factory.hpp:77] Creating layer ip1
I0428 20:07:58.227030 31275 net.cpp:86] Creating Layer ip1
I0428 20:07:58.227035 31275 net.cpp:408] ip1 <- pool1
I0428 20:07:58.227039 31275 net.cpp:382] ip1 -> ip1
I0428 20:07:58.227164 31275 net.cpp:124] Setting up ip1
I0428 20:07:58.227174 31275 net.cpp:131] Top shape: 100 10 (1000)
I0428 20:07:58.227186 31275 net.cpp:139] Memory required for data: 7838800
I0428 20:07:58.227195 31275 layer_factory.hpp:77] Creating layer relu1
I0428 20:07:58.227200 31275 net.cpp:86] Creating Layer relu1
I0428 20:07:58.227203 31275 net.cpp:408] relu1 <- ip1
I0428 20:07:58.227207 31275 net.cpp:369] relu1 -> ip1 (in-place)
I0428 20:07:58.227473 31275 net.cpp:124] Setting up relu1
I0428 20:07:58.227483 31275 net.cpp:131] Top shape: 100 10 (1000)
I0428 20:07:58.227486 31275 net.cpp:139] Memory required for data: 7842800
I0428 20:07:58.227490 31275 layer_factory.hpp:77] Creating layer ip2
I0428 20:07:58.227501 31275 net.cpp:86] Creating Layer ip2
I0428 20:07:58.227504 31275 net.cpp:408] ip2 <- ip1
I0428 20:07:58.227510 31275 net.cpp:382] ip2 -> ip2
I0428 20:07:58.227618 31275 net.cpp:124] Setting up ip2
I0428 20:07:58.227625 31275 net.cpp:131] Top shape: 100 25 (2500)
I0428 20:07:58.227628 31275 net.cpp:139] Memory required for data: 7852800
I0428 20:07:58.227633 31275 layer_factory.hpp:77] Creating layer relu2
I0428 20:07:58.227638 31275 net.cpp:86] Creating Layer relu2
I0428 20:07:58.227641 31275 net.cpp:408] relu2 <- ip2
I0428 20:07:58.227646 31275 net.cpp:369] relu2 -> ip2 (in-place)
I0428 20:07:58.227807 31275 net.cpp:124] Setting up relu2
I0428 20:07:58.227815 31275 net.cpp:131] Top shape: 100 25 (2500)
I0428 20:07:58.227818 31275 net.cpp:139] Memory required for data: 7862800
I0428 20:07:58.227821 31275 layer_factory.hpp:77] Creating layer ip3
I0428 20:07:58.227828 31275 net.cpp:86] Creating Layer ip3
I0428 20:07:58.227830 31275 net.cpp:408] ip3 <- ip2
I0428 20:07:58.227835 31275 net.cpp:382] ip3 -> ip3
I0428 20:07:58.227936 31275 net.cpp:124] Setting up ip3
I0428 20:07:58.227942 31275 net.cpp:131] Top shape: 100 10 (1000)
I0428 20:07:58.227946 31275 net.cpp:139] Memory required for data: 7866800
I0428 20:07:58.227952 31275 layer_factory.hpp:77] Creating layer relu3
I0428 20:07:58.227957 31275 net.cpp:86] Creating Layer relu3
I0428 20:07:58.227960 31275 net.cpp:408] relu3 <- ip3
I0428 20:07:58.227965 31275 net.cpp:369] relu3 -> ip3 (in-place)
I0428 20:07:58.228796 31275 net.cpp:124] Setting up relu3
I0428 20:07:58.228808 31275 net.cpp:131] Top shape: 100 10 (1000)
I0428 20:07:58.228832 31275 net.cpp:139] Memory required for data: 7870800
I0428 20:07:58.228852 31275 layer_factory.hpp:77] Creating layer ip3_relu3_0_split
I0428 20:07:58.228859 31275 net.cpp:86] Creating Layer ip3_relu3_0_split
I0428 20:07:58.228863 31275 net.cpp:408] ip3_relu3_0_split <- ip3
I0428 20:07:58.228868 31275 net.cpp:382] ip3_relu3_0_split -> ip3_relu3_0_split_0
I0428 20:07:58.228874 31275 net.cpp:382] ip3_relu3_0_split -> ip3_relu3_0_split_1
I0428 20:07:58.228915 31275 net.cpp:124] Setting up ip3_relu3_0_split
I0428 20:07:58.228921 31275 net.cpp:131] Top shape: 100 10 (1000)
I0428 20:07:58.228924 31275 net.cpp:131] Top shape: 100 10 (1000)
I0428 20:07:58.228929 31275 net.cpp:139] Memory required for data: 7878800
I0428 20:07:58.228932 31275 layer_factory.hpp:77] Creating layer accuracy
I0428 20:07:58.228936 31275 net.cpp:86] Creating Layer accuracy
I0428 20:07:58.228940 31275 net.cpp:408] accuracy <- ip3_relu3_0_split_0
I0428 20:07:58.228945 31275 net.cpp:408] accuracy <- label_mnist_1_split_0
I0428 20:07:58.228950 31275 net.cpp:382] accuracy -> accuracy
…
