…
I0428 19:57:13.805065 28624 net.cpp:296] The NetState phase (0) differed from the phase (1) specified by a rule in layer mnist
I0428 19:57:13.805084 28624 net.cpp:296] The NetState phase (0) differed from the phase (1) specified by a rule in layer accuracy
I0428 19:57:13.805181 28624 net.cpp:53] Initializing net from parameters: 
name: "LeNet"
state {
  phase: TRAIN
  level: 0
  stage: ""
}
layer {
  name: "mnist"
  type: "Data"
  top: "data"
  top: "label"
  include {
    phase: TRAIN
  }
  transform_param {
    scale: 0.00390625
  }
  data_param {
    source: "examples/mnist/mnist_train_lmdb"
    batch_size: 64
    backend: LMDB
  }
}
layer {
  name: "conv0"
  type: "Convolution"
  bottom: "data"
  top: "conv0"
  param {
    lr_mult: 1
  }
  param {
    lr_mult: 2
  }
  convolution_param {
    num_output: 10
    kernel_size: 5
    stride: 1
    weight_filler {
      type: "xavier"
    }
    bias_filler {
      type: "constant"
    }
  }
}
layer {
  name: "pool0"
  type: "Pooling"
  bottom: "conv0"
  top: "pool0"
  pooling_param {
    pool: MAX
    kernel_size: 2
    stride: 2
  }
}
layer {
  name: "conv1"
  type: "Convolution"
  bottom: "pool0"
  top: "conv1"
  param {
    lr_mult: 1
  }
  param {
    lr_mult: 2
  }
  convolution_param {
    num_output: 5
    kernel_size: 5
    stride: 1
    weight_filler {
      type: "xavier"
    }
    bias_filler {
      type: "constant"
    }
  }
}
layer {
  name: "pool1"
  type: "Pooling"
  bottom: "conv1"
  top: "pool1"
  pooling_param {
    pool: MAX
    kernel_size: 2
    stride: 2
  }
}
layer {
  name: "ip1"
  type: "InnerProduct"
  bottom: "pool1"
  top: "ip1"
  param {
    lr_mult: 1
  }
  param {
    lr_mult: 2
  }
  inner_product_param {
    num_output: 10
    weight_filler {
      type: "xavier"
    }
    bias_filler {
      type: "constant"
    }
  }
}
layer {
  name: "relu1"
  type: "ReLU"
  bottom: "ip1"
  top: "ip1"
}
layer {
  name: "loss"
  type: "SoftmaxWithLoss"
  bottom: "ip1"
  bottom: "label"
  top: "loss"
}
I0428 19:57:13.805255 28624 layer_factory.hpp:77] Creating layer mnist
I0428 19:57:13.805375 28624 db_lmdb.cpp:35] Opened lmdb examples/mnist/mnist_train_lmdb
I0428 19:57:13.805403 28624 net.cpp:86] Creating Layer mnist
I0428 19:57:13.805413 28624 net.cpp:382] mnist -> data
I0428 19:57:13.805438 28624 net.cpp:382] mnist -> label
I0428 19:57:13.806752 28624 data_layer.cpp:45] output data size: 64,1,28,28
I0428 19:57:13.809685 28624 net.cpp:124] Setting up mnist
I0428 19:57:13.809706 28624 net.cpp:131] Top shape: 64 1 28 28 (50176)
I0428 19:57:13.809713 28624 net.cpp:131] Top shape: 64 (64)
I0428 19:57:13.809718 28624 net.cpp:139] Memory required for data: 200960
I0428 19:57:13.809726 28624 layer_factory.hpp:77] Creating layer conv0
I0428 19:57:13.809743 28624 net.cpp:86] Creating Layer conv0
I0428 19:57:13.809751 28624 net.cpp:408] conv0 <- data
I0428 19:57:13.809762 28624 net.cpp:382] conv0 -> conv0
I0428 19:57:14.100466 28624 net.cpp:124] Setting up conv0
I0428 19:57:14.100495 28624 net.cpp:131] Top shape: 64 10 24 24 (368640)
I0428 19:57:14.100500 28624 net.cpp:139] Memory required for data: 1675520
I0428 19:57:14.100517 28624 layer_factory.hpp:77] Creating layer pool0
I0428 19:57:14.100531 28624 net.cpp:86] Creating Layer pool0
I0428 19:57:14.100536 28624 net.cpp:408] pool0 <- conv0
I0428 19:57:14.100543 28624 net.cpp:382] pool0 -> pool0
I0428 19:57:14.100596 28624 net.cpp:124] Setting up pool0
I0428 19:57:14.100605 28624 net.cpp:131] Top shape: 64 10 12 12 (92160)
I0428 19:57:14.100627 28624 net.cpp:139] Memory required for data: 2044160
I0428 19:57:14.100631 28624 layer_factory.hpp:77] Creating layer conv1
I0428 19:57:14.100644 28624 net.cpp:86] Creating Layer conv1
I0428 19:57:14.100649 28624 net.cpp:408] conv1 <- pool0
I0428 19:57:14.100656 28624 net.cpp:382] conv1 -> conv1
I0428 19:57:14.103735 28624 net.cpp:124] Setting up conv1
I0428 19:57:14.103754 28624 net.cpp:131] Top shape: 64 5 8 8 (20480)
I0428 19:57:14.103759 28624 net.cpp:139] Memory required for data: 2126080
I0428 19:57:14.103768 28624 layer_factory.hpp:77] Creating layer pool1
I0428 19:57:14.103776 28624 net.cpp:86] Creating Layer pool1
I0428 19:57:14.103780 28624 net.cpp:408] pool1 <- conv1
I0428 19:57:14.103786 28624 net.cpp:382] pool1 -> pool1
I0428 19:57:14.103830 28624 net.cpp:124] Setting up pool1
I0428 19:57:14.103838 28624 net.cpp:131] Top shape: 64 5 4 4 (5120)
I0428 19:57:14.103842 28624 net.cpp:139] Memory required for data: 2146560
I0428 19:57:14.103847 28624 layer_factory.hpp:77] Creating layer ip1
I0428 19:57:14.103854 28624 net.cpp:86] Creating Layer ip1
I0428 19:57:14.103857 28624 net.cpp:408] ip1 <- pool1
I0428 19:57:14.103863 28624 net.cpp:382] ip1 -> ip1
I0428 19:57:14.103981 28624 net.cpp:124] Setting up ip1
I0428 19:57:14.103988 28624 net.cpp:131] Top shape: 64 10 (640)
I0428 19:57:14.103992 28624 net.cpp:139] Memory required for data: 2149120
I0428 19:57:14.104001 28624 layer_factory.hpp:77] Creating layer relu1
I0428 19:57:14.104007 28624 net.cpp:86] Creating Layer relu1
I0428 19:57:14.104010 28624 net.cpp:408] relu1 <- ip1
I0428 19:57:14.104015 28624 net.cpp:369] relu1 -> ip1 (in-place)
I0428 19:57:14.104210 28624 net.cpp:124] Setting up relu1
I0428 19:57:14.104219 28624 net.cpp:131] Top shape: 64 10 (640)
I0428 19:57:14.104223 28624 net.cpp:139] Memory required for data: 2151680
I0428 19:57:14.104226 28624 layer_factory.hpp:77] Creating layer loss
I0428 19:57:14.104239 28624 net.cpp:86] Creating Layer loss
I0428 19:57:14.104244 28624 net.cpp:408] loss <- ip1
I0428 19:57:14.104249 28624 net.cpp:408] loss <- label
I0428 19:57:14.104255 28624 net.cpp:382] loss -> loss
I0428 19:57:14.104269 28624 layer_factory.hpp:77] Creating layer loss
…
I0428 19:57:14.105588 28624 solver.cpp:173] Creating test net (#0) specified by net file: ECE595/mnist/train_test/var_everything2/lenet_train_test782.prototxt
I0428 19:57:14.105615 28624 net.cpp:296] The NetState phase (1) differed from the phase (0) specified by a rule in layer mnist
I0428 19:57:14.105700 28624 net.cpp:53] Initializing net from parameters: 
name: "LeNet"
state {
  phase: TEST
}
layer {
  name: "mnist"
  type: "Data"
  top: "data"
  top: "label"
  include {
    phase: TEST
  }
  transform_param {
    scale: 0.00390625
  }
  data_param {
    source: "examples/mnist/mnist_test_lmdb"
    batch_size: 100
    backend: LMDB
  }
}
layer {
  name: "conv0"
  type: "Convolution"
  bottom: "data"
  top: "conv0"
  param {
    lr_mult: 1
  }
  param {
    lr_mult: 2
  }
  convolution_param {
    num_output: 10
    kernel_size: 5
    stride: 1
    weight_filler {
      type: "xavier"
    }
    bias_filler {
      type: "constant"
    }
  }
}
layer {
  name: "pool0"
  type: "Pooling"
  bottom: "conv0"
  top: "pool0"
  pooling_param {
    pool: MAX
    kernel_size: 2
    stride: 2
  }
}
layer {
  name: "conv1"
  type: "Convolution"
  bottom: "pool0"
  top: "conv1"
  param {
    lr_mult: 1
  }
  param {
    lr_mult: 2
  }
  convolution_param {
    num_output: 5
    kernel_size: 5
    stride: 1
    weight_filler {
      type: "xavier"
    }
    bias_filler {
      type: "constant"
    }
  }
}
layer {
  name: "pool1"
  type: "Pooling"
  bottom: "conv1"
  top: "pool1"
  pooling_param {
    pool: MAX
    kernel_size: 2
    stride: 2
  }
}
layer {
  name: "ip1"
  type: "InnerProduct"
  bottom: "pool1"
  top: "ip1"
  param {
    lr_mult: 1
  }
  param {
    lr_mult: 2
  }
  inner_product_param {
    num_output: 10
    weight_filler {
      type: "xavier"
    }
    bias_filler {
      type: "constant"
    }
  }
}
layer {
  name: "relu1"
  type: "ReLU"
  bottom: "ip1"
  top: "ip1"
}
layer {
  name: "accuracy"
  type: "Accuracy"
  bottom: "ip1"
  bottom: "label"
  top: "accuracy"
  include {
    phase: TEST
  }
}
layer {
  name: "loss"
  type: "SoftmaxWithLoss"
  bottom: "ip1"
  bottom: "label"
  top: "loss"
}
I0428 19:57:14.105780 28624 layer_factory.hpp:77] Creating layer mnist
I0428 19:57:14.105828 28624 db_lmdb.cpp:35] Opened lmdb examples/mnist/mnist_test_lmdb
I0428 19:57:14.105842 28624 net.cpp:86] Creating Layer mnist
I0428 19:57:14.105847 28624 net.cpp:382] mnist -> data
I0428 19:57:14.105856 28624 net.cpp:382] mnist -> label
I0428 19:57:14.105957 28624 data_layer.cpp:45] output data size: 100,1,28,28
I0428 19:57:14.108106 28624 net.cpp:124] Setting up mnist
I0428 19:57:14.108121 28624 net.cpp:131] Top shape: 100 1 28 28 (78400)
I0428 19:57:14.108127 28624 net.cpp:131] Top shape: 100 (100)
I0428 19:57:14.108131 28624 net.cpp:139] Memory required for data: 314000
I0428 19:57:14.108135 28624 layer_factory.hpp:77] Creating layer label_mnist_1_split
I0428 19:57:14.108144 28624 net.cpp:86] Creating Layer label_mnist_1_split
I0428 19:57:14.108147 28624 net.cpp:408] label_mnist_1_split <- label
I0428 19:57:14.108152 28624 net.cpp:382] label_mnist_1_split -> label_mnist_1_split_0
I0428 19:57:14.108160 28624 net.cpp:382] label_mnist_1_split -> label_mnist_1_split_1
I0428 19:57:14.108278 28624 net.cpp:124] Setting up label_mnist_1_split
I0428 19:57:14.108288 28624 net.cpp:131] Top shape: 100 (100)
I0428 19:57:14.108291 28624 net.cpp:131] Top shape: 100 (100)
I0428 19:57:14.108295 28624 net.cpp:139] Memory required for data: 314800
I0428 19:57:14.108299 28624 layer_factory.hpp:77] Creating layer conv0
I0428 19:57:14.108309 28624 net.cpp:86] Creating Layer conv0
I0428 19:57:14.108316 28624 net.cpp:408] conv0 <- data
I0428 19:57:14.108322 28624 net.cpp:382] conv0 -> conv0
I0428 19:57:14.109252 28624 net.cpp:124] Setting up conv0
I0428 19:57:14.109267 28624 net.cpp:131] Top shape: 100 10 24 24 (576000)
I0428 19:57:14.109272 28624 net.cpp:139] Memory required for data: 2618800
I0428 19:57:14.109282 28624 layer_factory.hpp:77] Creating layer pool0
I0428 19:57:14.109288 28624 net.cpp:86] Creating Layer pool0
I0428 19:57:14.109292 28624 net.cpp:408] pool0 <- conv0
I0428 19:57:14.109298 28624 net.cpp:382] pool0 -> pool0
I0428 19:57:14.109339 28624 net.cpp:124] Setting up pool0
I0428 19:57:14.109347 28624 net.cpp:131] Top shape: 100 10 12 12 (144000)
I0428 19:57:14.109351 28624 net.cpp:139] Memory required for data: 3194800
I0428 19:57:14.109354 28624 layer_factory.hpp:77] Creating layer conv1
I0428 19:57:14.109364 28624 net.cpp:86] Creating Layer conv1
I0428 19:57:14.109367 28624 net.cpp:408] conv1 <- pool0
I0428 19:57:14.109374 28624 net.cpp:382] conv1 -> conv1
I0428 19:57:14.111683 28624 net.cpp:124] Setting up conv1
I0428 19:57:14.111698 28624 net.cpp:131] Top shape: 100 5 8 8 (32000)
I0428 19:57:14.111702 28624 net.cpp:139] Memory required for data: 3322800
I0428 19:57:14.111712 28624 layer_factory.hpp:77] Creating layer pool1
I0428 19:57:14.111723 28624 net.cpp:86] Creating Layer pool1
I0428 19:57:14.111739 28624 net.cpp:408] pool1 <- conv1
I0428 19:57:14.111747 28624 net.cpp:382] pool1 -> pool1
I0428 19:57:14.111855 28624 net.cpp:124] Setting up pool1
I0428 19:57:14.111865 28624 net.cpp:131] Top shape: 100 5 4 4 (8000)
I0428 19:57:14.111867 28624 net.cpp:139] Memory required for data: 3354800
I0428 19:57:14.111871 28624 layer_factory.hpp:77] Creating layer ip1
I0428 19:57:14.111879 28624 net.cpp:86] Creating Layer ip1
I0428 19:57:14.111882 28624 net.cpp:408] ip1 <- pool1
I0428 19:57:14.111889 28624 net.cpp:382] ip1 -> ip1
I0428 19:57:14.112022 28624 net.cpp:124] Setting up ip1
I0428 19:57:14.112031 28624 net.cpp:131] Top shape: 100 10 (1000)
I0428 19:57:14.112035 28624 net.cpp:139] Memory required for data: 3358800
I0428 19:57:14.112045 28624 layer_factory.hpp:77] Creating layer relu1
I0428 19:57:14.112053 28624 net.cpp:86] Creating Layer relu1
I0428 19:57:14.112064 28624 net.cpp:408] relu1 <- ip1
I0428 19:57:14.112071 28624 net.cpp:369] relu1 -> ip1 (in-place)
I0428 19:57:14.113003 28624 net.cpp:124] Setting up relu1
I0428 19:57:14.113018 28624 net.cpp:131] Top shape: 100 10 (1000)
I0428 19:57:14.113021 28624 net.cpp:139] Memory required for data: 3362800
I0428 19:57:14.113025 28624 layer_factory.hpp:77] Creating layer ip1_relu1_0_split
I0428 19:57:14.113034 28624 net.cpp:86] Creating Layer ip1_relu1_0_split
I0428 19:57:14.113037 28624 net.cpp:408] ip1_relu1_0_split <- ip1
I0428 19:57:14.113044 28624 net.cpp:382] ip1_relu1_0_split -> ip1_relu1_0_split_0
I0428 19:57:14.113050 28624 net.cpp:382] ip1_relu1_0_split -> ip1_relu1_0_split_1
I0428 19:57:14.113097 28624 net.cpp:124] Setting up ip1_relu1_0_split
I0428 19:57:14.113106 28624 net.cpp:131] Top shape: 100 10 (1000)
I0428 19:57:14.113109 28624 net.cpp:131] Top shape: 100 10 (1000)
I0428 19:57:14.113113 28624 net.cpp:139] Memory required for data: 3370800
I0428 19:57:14.113116 28624 layer_factory.hpp:77] Creating layer accuracy
I0428 19:57:14.113121 28624 net.cpp:86] Creating Layer accuracy
I0428 19:57:14.113126 28624 net.cpp:408] accuracy <- ip1_relu1_0_split_0
I0428 19:57:14.113131 28624 net.cpp:408] accuracy <- label_mnist_1_split_0
I0428 19:57:14.113137 28624 net.cpp:382] accuracy -> accuracy
…
