…
I0428 19:31:22.601933 22561 net.cpp:296] The NetState phase (0) differed from the phase (1) specified by a rule in layer mnist
I0428 19:31:22.601950 22561 net.cpp:296] The NetState phase (0) differed from the phase (1) specified by a rule in layer accuracy
I0428 19:31:22.602027 22561 net.cpp:53] Initializing net from parameters: 
name: "LeNet"
state {
  phase: TRAIN
  level: 0
  stage: ""
}
layer {
  name: "mnist"
  type: "Data"
  top: "data"
  top: "label"
  include {
    phase: TRAIN
  }
  transform_param {
    scale: 0.00390625
  }
  data_param {
    source: "examples/mnist/mnist_train_lmdb"
    batch_size: 64
    backend: LMDB
  }
}
layer {
  name: "conv0"
  type: "Convolution"
  bottom: "data"
  top: "conv0"
  param {
    lr_mult: 1
  }
  param {
    lr_mult: 2
  }
  convolution_param {
    num_output: 10
    kernel_size: 5
    stride: 1
    weight_filler {
      type: "xavier"
    }
    bias_filler {
      type: "constant"
    }
  }
}
layer {
  name: "pool0"
  type: "Pooling"
  bottom: "conv0"
  top: "pool0"
  pooling_param {
    pool: MAX
    kernel_size: 2
    stride: 2
  }
}
layer {
  name: "ip1"
  type: "InnerProduct"
  bottom: "pool0"
  top: "ip1"
  param {
    lr_mult: 1
  }
  param {
    lr_mult: 2
  }
  inner_product_param {
    num_output: 10
    weight_filler {
      type: "xavier"
    }
    bias_filler {
      type: "constant"
    }
  }
}
layer {
  name: "relu1"
  type: "ReLU"
  bottom: "ip1"
  top: "ip1"
}
layer {
  name: "ip2"
  type: "InnerProduct"
  bottom: "ip1"
  top: "ip2"
  param {
    lr_mult: 1
  }
  param {
    lr_mult: 2
  }
  inner_product_param {
    num_output: 10
    weight_filler {
      type: "xavier"
    }
    bias_filler {
      type: "constant"
    }
  }
}
layer {
  name: "relu2"
  type: "ReLU"
  bottom: "ip2"
  top: "ip2"
}
layer {
  name: "loss"
  type: "SoftmaxWithLoss"
  bottom: "ip2"
  bottom: "label"
  top: "loss"
}
I0428 19:31:22.602100 22561 layer_factory.hpp:77] Creating layer mnist
I0428 19:31:22.602201 22561 db_lmdb.cpp:35] Opened lmdb examples/mnist/mnist_train_lmdb
I0428 19:31:22.602224 22561 net.cpp:86] Creating Layer mnist
I0428 19:31:22.602233 22561 net.cpp:382] mnist -> data
I0428 19:31:22.602257 22561 net.cpp:382] mnist -> label
I0428 19:31:22.603351 22561 data_layer.cpp:45] output data size: 64,1,28,28
I0428 19:31:22.606034 22561 net.cpp:124] Setting up mnist
I0428 19:31:22.606051 22561 net.cpp:131] Top shape: 64 1 28 28 (50176)
I0428 19:31:22.606056 22561 net.cpp:131] Top shape: 64 (64)
I0428 19:31:22.606060 22561 net.cpp:139] Memory required for data: 200960
I0428 19:31:22.606067 22561 layer_factory.hpp:77] Creating layer conv0
I0428 19:31:22.606084 22561 net.cpp:86] Creating Layer conv0
I0428 19:31:22.606091 22561 net.cpp:408] conv0 <- data
I0428 19:31:22.606101 22561 net.cpp:382] conv0 -> conv0
I0428 19:31:22.895056 22561 net.cpp:124] Setting up conv0
I0428 19:31:22.895082 22561 net.cpp:131] Top shape: 64 10 24 24 (368640)
I0428 19:31:22.895088 22561 net.cpp:139] Memory required for data: 1675520
I0428 19:31:22.895103 22561 layer_factory.hpp:77] Creating layer pool0
I0428 19:31:22.895115 22561 net.cpp:86] Creating Layer pool0
I0428 19:31:22.895119 22561 net.cpp:408] pool0 <- conv0
I0428 19:31:22.895124 22561 net.cpp:382] pool0 -> pool0
I0428 19:31:22.895175 22561 net.cpp:124] Setting up pool0
I0428 19:31:22.895181 22561 net.cpp:131] Top shape: 64 10 12 12 (92160)
I0428 19:31:22.895184 22561 net.cpp:139] Memory required for data: 2044160
I0428 19:31:22.895202 22561 layer_factory.hpp:77] Creating layer ip1
I0428 19:31:22.895212 22561 net.cpp:86] Creating Layer ip1
I0428 19:31:22.895215 22561 net.cpp:408] ip1 <- pool0
I0428 19:31:22.895220 22561 net.cpp:382] ip1 -> ip1
I0428 19:31:22.896281 22561 net.cpp:124] Setting up ip1
I0428 19:31:22.896296 22561 net.cpp:131] Top shape: 64 10 (640)
I0428 19:31:22.896298 22561 net.cpp:139] Memory required for data: 2046720
I0428 19:31:22.896307 22561 layer_factory.hpp:77] Creating layer relu1
I0428 19:31:22.896316 22561 net.cpp:86] Creating Layer relu1
I0428 19:31:22.896319 22561 net.cpp:408] relu1 <- ip1
I0428 19:31:22.896324 22561 net.cpp:369] relu1 -> ip1 (in-place)
I0428 19:31:22.896508 22561 net.cpp:124] Setting up relu1
I0428 19:31:22.896517 22561 net.cpp:131] Top shape: 64 10 (640)
I0428 19:31:22.896522 22561 net.cpp:139] Memory required for data: 2049280
I0428 19:31:22.896524 22561 layer_factory.hpp:77] Creating layer ip2
I0428 19:31:22.896533 22561 net.cpp:86] Creating Layer ip2
I0428 19:31:22.896535 22561 net.cpp:408] ip2 <- ip1
I0428 19:31:22.896541 22561 net.cpp:382] ip2 -> ip2
I0428 19:31:22.896643 22561 net.cpp:124] Setting up ip2
I0428 19:31:22.896651 22561 net.cpp:131] Top shape: 64 10 (640)
I0428 19:31:22.896653 22561 net.cpp:139] Memory required for data: 2051840
I0428 19:31:22.896661 22561 layer_factory.hpp:77] Creating layer relu2
I0428 19:31:22.896667 22561 net.cpp:86] Creating Layer relu2
I0428 19:31:22.896670 22561 net.cpp:408] relu2 <- ip2
I0428 19:31:22.896675 22561 net.cpp:369] relu2 -> ip2 (in-place)
I0428 19:31:22.897459 22561 net.cpp:124] Setting up relu2
I0428 19:31:22.897471 22561 net.cpp:131] Top shape: 64 10 (640)
I0428 19:31:22.897475 22561 net.cpp:139] Memory required for data: 2054400
I0428 19:31:22.897478 22561 layer_factory.hpp:77] Creating layer loss
I0428 19:31:22.897490 22561 net.cpp:86] Creating Layer loss
I0428 19:31:22.897492 22561 net.cpp:408] loss <- ip2
I0428 19:31:22.897496 22561 net.cpp:408] loss <- label
I0428 19:31:22.897503 22561 net.cpp:382] loss -> loss
I0428 19:31:22.897517 22561 layer_factory.hpp:77] Creating layer loss
…
I0428 19:31:22.898077 22561 solver.cpp:173] Creating test net (#0) specified by net file: ECE595/mnist/train_test/var_everything2/lenet_train_test120.prototxt
I0428 19:31:22.898102 22561 net.cpp:296] The NetState phase (1) differed from the phase (0) specified by a rule in layer mnist
I0428 19:31:22.898176 22561 net.cpp:53] Initializing net from parameters: 
name: "LeNet"
state {
  phase: TEST
}
layer {
  name: "mnist"
  type: "Data"
  top: "data"
  top: "label"
  include {
    phase: TEST
  }
  transform_param {
    scale: 0.00390625
  }
  data_param {
    source: "examples/mnist/mnist_test_lmdb"
    batch_size: 100
    backend: LMDB
  }
}
layer {
  name: "conv0"
  type: "Convolution"
  bottom: "data"
  top: "conv0"
  param {
    lr_mult: 1
  }
  param {
    lr_mult: 2
  }
  convolution_param {
    num_output: 10
    kernel_size: 5
    stride: 1
    weight_filler {
      type: "xavier"
    }
    bias_filler {
      type: "constant"
    }
  }
}
layer {
  name: "pool0"
  type: "Pooling"
  bottom: "conv0"
  top: "pool0"
  pooling_param {
    pool: MAX
    kernel_size: 2
    stride: 2
  }
}
layer {
  name: "ip1"
  type: "InnerProduct"
  bottom: "pool0"
  top: "ip1"
  param {
    lr_mult: 1
  }
  param {
    lr_mult: 2
  }
  inner_product_param {
    num_output: 10
    weight_filler {
      type: "xavier"
    }
    bias_filler {
      type: "constant"
    }
  }
}
layer {
  name: "relu1"
  type: "ReLU"
  bottom: "ip1"
  top: "ip1"
}
layer {
  name: "ip2"
  type: "InnerProduct"
  bottom: "ip1"
  top: "ip2"
  param {
    lr_mult: 1
  }
  param {
    lr_mult: 2
  }
  inner_product_param {
    num_output: 10
    weight_filler {
      type: "xavier"
    }
    bias_filler {
      type: "constant"
    }
  }
}
layer {
  name: "relu2"
  type: "ReLU"
  bottom: "ip2"
  top: "ip2"
}
layer {
  name: "accuracy"
  type: "Accuracy"
  bottom: "ip2"
  bottom: "label"
  top: "accuracy"
  include {
    phase: TEST
  }
}
layer {
  name: "loss"
  type: "SoftmaxWithLoss"
  bottom: "ip2"
  bottom: "label"
  top: "loss"
}
I0428 19:31:22.898267 22561 layer_factory.hpp:77] Creating layer mnist
I0428 19:31:22.898313 22561 db_lmdb.cpp:35] Opened lmdb examples/mnist/mnist_test_lmdb
I0428 19:31:22.898327 22561 net.cpp:86] Creating Layer mnist
I0428 19:31:22.898331 22561 net.cpp:382] mnist -> data
I0428 19:31:22.898340 22561 net.cpp:382] mnist -> label
I0428 19:31:22.898430 22561 data_layer.cpp:45] output data size: 100,1,28,28
I0428 19:31:22.900337 22561 net.cpp:124] Setting up mnist
I0428 19:31:22.900352 22561 net.cpp:131] Top shape: 100 1 28 28 (78400)
I0428 19:31:22.900357 22561 net.cpp:131] Top shape: 100 (100)
I0428 19:31:22.900359 22561 net.cpp:139] Memory required for data: 314000
I0428 19:31:22.900363 22561 layer_factory.hpp:77] Creating layer label_mnist_1_split
I0428 19:31:22.900372 22561 net.cpp:86] Creating Layer label_mnist_1_split
I0428 19:31:22.900374 22561 net.cpp:408] label_mnist_1_split <- label
I0428 19:31:22.900398 22561 net.cpp:382] label_mnist_1_split -> label_mnist_1_split_0
I0428 19:31:22.900405 22561 net.cpp:382] label_mnist_1_split -> label_mnist_1_split_1
I0428 19:31:22.900449 22561 net.cpp:124] Setting up label_mnist_1_split
I0428 19:31:22.900455 22561 net.cpp:131] Top shape: 100 (100)
I0428 19:31:22.900460 22561 net.cpp:131] Top shape: 100 (100)
I0428 19:31:22.900462 22561 net.cpp:139] Memory required for data: 314800
I0428 19:31:22.900465 22561 layer_factory.hpp:77] Creating layer conv0
I0428 19:31:22.900475 22561 net.cpp:86] Creating Layer conv0
I0428 19:31:22.900478 22561 net.cpp:408] conv0 <- data
I0428 19:31:22.900485 22561 net.cpp:382] conv0 -> conv0
I0428 19:31:22.902215 22561 net.cpp:124] Setting up conv0
I0428 19:31:22.902230 22561 net.cpp:131] Top shape: 100 10 24 24 (576000)
I0428 19:31:22.902235 22561 net.cpp:139] Memory required for data: 2618800
I0428 19:31:22.902243 22561 layer_factory.hpp:77] Creating layer pool0
I0428 19:31:22.902251 22561 net.cpp:86] Creating Layer pool0
I0428 19:31:22.902254 22561 net.cpp:408] pool0 <- conv0
I0428 19:31:22.902261 22561 net.cpp:382] pool0 -> pool0
I0428 19:31:22.902297 22561 net.cpp:124] Setting up pool0
I0428 19:31:22.902302 22561 net.cpp:131] Top shape: 100 10 12 12 (144000)
I0428 19:31:22.902305 22561 net.cpp:139] Memory required for data: 3194800
I0428 19:31:22.902307 22561 layer_factory.hpp:77] Creating layer ip1
I0428 19:31:22.902315 22561 net.cpp:86] Creating Layer ip1
I0428 19:31:22.902318 22561 net.cpp:408] ip1 <- pool0
I0428 19:31:22.902323 22561 net.cpp:382] ip1 -> ip1
I0428 19:31:22.902503 22561 net.cpp:124] Setting up ip1
I0428 19:31:22.902509 22561 net.cpp:131] Top shape: 100 10 (1000)
I0428 19:31:22.902513 22561 net.cpp:139] Memory required for data: 3198800
I0428 19:31:22.902519 22561 layer_factory.hpp:77] Creating layer relu1
I0428 19:31:22.902525 22561 net.cpp:86] Creating Layer relu1
I0428 19:31:22.902529 22561 net.cpp:408] relu1 <- ip1
I0428 19:31:22.902532 22561 net.cpp:369] relu1 -> ip1 (in-place)
I0428 19:31:22.902699 22561 net.cpp:124] Setting up relu1
I0428 19:31:22.902709 22561 net.cpp:131] Top shape: 100 10 (1000)
I0428 19:31:22.902722 22561 net.cpp:139] Memory required for data: 3202800
I0428 19:31:22.902725 22561 layer_factory.hpp:77] Creating layer ip2
I0428 19:31:22.902734 22561 net.cpp:86] Creating Layer ip2
I0428 19:31:22.902736 22561 net.cpp:408] ip2 <- ip1
I0428 19:31:22.902742 22561 net.cpp:382] ip2 -> ip2
I0428 19:31:22.902842 22561 net.cpp:124] Setting up ip2
I0428 19:31:22.902848 22561 net.cpp:131] Top shape: 100 10 (1000)
I0428 19:31:22.902851 22561 net.cpp:139] Memory required for data: 3206800
I0428 19:31:22.902858 22561 layer_factory.hpp:77] Creating layer relu2
I0428 19:31:22.902863 22561 net.cpp:86] Creating Layer relu2
I0428 19:31:22.902866 22561 net.cpp:408] relu2 <- ip2
I0428 19:31:22.902871 22561 net.cpp:369] relu2 -> ip2 (in-place)
I0428 19:31:22.903128 22561 net.cpp:124] Setting up relu2
I0428 19:31:22.903153 22561 net.cpp:131] Top shape: 100 10 (1000)
I0428 19:31:22.903157 22561 net.cpp:139] Memory required for data: 3210800
I0428 19:31:22.903161 22561 layer_factory.hpp:77] Creating layer ip2_relu2_0_split
I0428 19:31:22.903167 22561 net.cpp:86] Creating Layer ip2_relu2_0_split
I0428 19:31:22.903170 22561 net.cpp:408] ip2_relu2_0_split <- ip2
I0428 19:31:22.903175 22561 net.cpp:382] ip2_relu2_0_split -> ip2_relu2_0_split_0
I0428 19:31:22.903182 22561 net.cpp:382] ip2_relu2_0_split -> ip2_relu2_0_split_1
I0428 19:31:22.903237 22561 net.cpp:124] Setting up ip2_relu2_0_split
I0428 19:31:22.903244 22561 net.cpp:131] Top shape: 100 10 (1000)
I0428 19:31:22.903249 22561 net.cpp:131] Top shape: 100 10 (1000)
I0428 19:31:22.903251 22561 net.cpp:139] Memory required for data: 3218800
I0428 19:31:22.903254 22561 layer_factory.hpp:77] Creating layer accuracy
I0428 19:31:22.903259 22561 net.cpp:86] Creating Layer accuracy
I0428 19:31:22.903262 22561 net.cpp:408] accuracy <- ip2_relu2_0_split_0
I0428 19:31:22.903266 22561 net.cpp:408] accuracy <- label_mnist_1_split_0
I0428 19:31:22.903271 22561 net.cpp:382] accuracy -> accuracy
…
