…
I0428 19:32:03.511215 22740 net.cpp:296] The NetState phase (0) differed from the phase (1) specified by a rule in layer mnist
I0428 19:32:03.511236 22740 net.cpp:296] The NetState phase (0) differed from the phase (1) specified by a rule in layer accuracy
I0428 19:32:03.511334 22740 net.cpp:53] Initializing net from parameters: 
name: "LeNet"
state {
  phase: TRAIN
  level: 0
  stage: ""
}
layer {
  name: "mnist"
  type: "Data"
  top: "data"
  top: "label"
  include {
    phase: TRAIN
  }
  transform_param {
    scale: 0.00390625
  }
  data_param {
    source: "examples/mnist/mnist_train_lmdb"
    batch_size: 64
    backend: LMDB
  }
}
layer {
  name: "conv0"
  type: "Convolution"
  bottom: "data"
  top: "conv0"
  param {
    lr_mult: 1
  }
  param {
    lr_mult: 2
  }
  convolution_param {
    num_output: 10
    kernel_size: 5
    stride: 1
    weight_filler {
      type: "xavier"
    }
    bias_filler {
      type: "constant"
    }
  }
}
layer {
  name: "pool0"
  type: "Pooling"
  bottom: "conv0"
  top: "pool0"
  pooling_param {
    pool: MAX
    kernel_size: 2
    stride: 2
  }
}
layer {
  name: "ip1"
  type: "InnerProduct"
  bottom: "pool0"
  top: "ip1"
  param {
    lr_mult: 1
  }
  param {
    lr_mult: 2
  }
  inner_product_param {
    num_output: 25
    weight_filler {
      type: "xavier"
    }
    bias_filler {
      type: "constant"
    }
  }
}
layer {
  name: "relu1"
  type: "ReLU"
  bottom: "ip1"
  top: "ip1"
}
layer {
  name: "ip2"
  type: "InnerProduct"
  bottom: "ip1"
  top: "ip2"
  param {
    lr_mult: 1
  }
  param {
    lr_mult: 2
  }
  inner_product_param {
    num_output: 25
    weight_filler {
      type: "xavier"
    }
    bias_filler {
      type: "constant"
    }
  }
}
layer {
  name: "relu2"
  type: "ReLU"
  bottom: "ip2"
  top: "ip2"
}
layer {
  name: "ip3"
  type: "InnerProduct"
  bottom: "ip2"
  top: "ip3"
  param {
    lr_mult: 1
  }
  param {
    lr_mult: 2
  }
  inner_product_param {
    num_output: 10
    weight_filler {
      type: "xavier"
    }
    bias_filler {
      type: "constant"
    }
  }
}
layer {
  name: "relu3"
  type: "ReLU"
  bottom: "ip3"
  top: "ip3"
}
layer {
  name: "loss"
  type: "SoftmaxWithLoss"
  bottom: "ip3"
  bottom: "label"
  top: "loss"
}
I0428 19:32:03.511443 22740 layer_factory.hpp:77] Creating layer mnist
I0428 19:32:03.511576 22740 db_lmdb.cpp:35] Opened lmdb examples/mnist/mnist_train_lmdb
I0428 19:32:03.511610 22740 net.cpp:86] Creating Layer mnist
I0428 19:32:03.511623 22740 net.cpp:382] mnist -> data
I0428 19:32:03.511654 22740 net.cpp:382] mnist -> label
I0428 19:32:03.512897 22740 data_layer.cpp:45] output data size: 64,1,28,28
I0428 19:32:03.515378 22740 net.cpp:124] Setting up mnist
I0428 19:32:03.515399 22740 net.cpp:131] Top shape: 64 1 28 28 (50176)
I0428 19:32:03.515409 22740 net.cpp:131] Top shape: 64 (64)
I0428 19:32:03.515415 22740 net.cpp:139] Memory required for data: 200960
I0428 19:32:03.515426 22740 layer_factory.hpp:77] Creating layer conv0
I0428 19:32:03.515451 22740 net.cpp:86] Creating Layer conv0
I0428 19:32:03.515462 22740 net.cpp:408] conv0 <- data
I0428 19:32:03.515482 22740 net.cpp:382] conv0 -> conv0
I0428 19:32:03.804955 22740 net.cpp:124] Setting up conv0
I0428 19:32:03.804986 22740 net.cpp:131] Top shape: 64 10 24 24 (368640)
I0428 19:32:03.804991 22740 net.cpp:139] Memory required for data: 1675520
I0428 19:32:03.805013 22740 layer_factory.hpp:77] Creating layer pool0
I0428 19:32:03.805032 22740 net.cpp:86] Creating Layer pool0
I0428 19:32:03.805058 22740 net.cpp:408] pool0 <- conv0
I0428 19:32:03.805070 22740 net.cpp:382] pool0 -> pool0
I0428 19:32:03.805145 22740 net.cpp:124] Setting up pool0
I0428 19:32:03.805155 22740 net.cpp:131] Top shape: 64 10 12 12 (92160)
I0428 19:32:03.805160 22740 net.cpp:139] Memory required for data: 2044160
I0428 19:32:03.805166 22740 layer_factory.hpp:77] Creating layer ip1
I0428 19:32:03.805182 22740 net.cpp:86] Creating Layer ip1
I0428 19:32:03.805189 22740 net.cpp:408] ip1 <- pool0
I0428 19:32:03.805198 22740 net.cpp:382] ip1 -> ip1
I0428 19:32:03.805521 22740 net.cpp:124] Setting up ip1
I0428 19:32:03.805531 22740 net.cpp:131] Top shape: 64 25 (1600)
I0428 19:32:03.805537 22740 net.cpp:139] Memory required for data: 2050560
I0428 19:32:03.805549 22740 layer_factory.hpp:77] Creating layer relu1
I0428 19:32:03.805559 22740 net.cpp:86] Creating Layer relu1
I0428 19:32:03.805568 22740 net.cpp:408] relu1 <- ip1
I0428 19:32:03.805577 22740 net.cpp:369] relu1 -> ip1 (in-place)
I0428 19:32:03.805754 22740 net.cpp:124] Setting up relu1
I0428 19:32:03.805764 22740 net.cpp:131] Top shape: 64 25 (1600)
I0428 19:32:03.805770 22740 net.cpp:139] Memory required for data: 2056960
I0428 19:32:03.805775 22740 layer_factory.hpp:77] Creating layer ip2
I0428 19:32:03.805785 22740 net.cpp:86] Creating Layer ip2
I0428 19:32:03.805791 22740 net.cpp:408] ip2 <- ip1
I0428 19:32:03.805800 22740 net.cpp:382] ip2 -> ip2
I0428 19:32:03.805905 22740 net.cpp:124] Setting up ip2
I0428 19:32:03.805914 22740 net.cpp:131] Top shape: 64 25 (1600)
I0428 19:32:03.805920 22740 net.cpp:139] Memory required for data: 2063360
I0428 19:32:03.805932 22740 layer_factory.hpp:77] Creating layer relu2
I0428 19:32:03.805941 22740 net.cpp:86] Creating Layer relu2
I0428 19:32:03.805948 22740 net.cpp:408] relu2 <- ip2
I0428 19:32:03.805955 22740 net.cpp:369] relu2 -> ip2 (in-place)
I0428 19:32:03.806705 22740 net.cpp:124] Setting up relu2
I0428 19:32:03.806721 22740 net.cpp:131] Top shape: 64 25 (1600)
I0428 19:32:03.806727 22740 net.cpp:139] Memory required for data: 2069760
I0428 19:32:03.806733 22740 layer_factory.hpp:77] Creating layer ip3
I0428 19:32:03.806744 22740 net.cpp:86] Creating Layer ip3
I0428 19:32:03.806751 22740 net.cpp:408] ip3 <- ip2
I0428 19:32:03.806759 22740 net.cpp:382] ip3 -> ip3
I0428 19:32:03.806867 22740 net.cpp:124] Setting up ip3
I0428 19:32:03.806876 22740 net.cpp:131] Top shape: 64 10 (640)
I0428 19:32:03.806882 22740 net.cpp:139] Memory required for data: 2072320
I0428 19:32:03.806891 22740 layer_factory.hpp:77] Creating layer relu3
I0428 19:32:03.806902 22740 net.cpp:86] Creating Layer relu3
I0428 19:32:03.806907 22740 net.cpp:408] relu3 <- ip3
I0428 19:32:03.806915 22740 net.cpp:369] relu3 -> ip3 (in-place)
I0428 19:32:03.807077 22740 net.cpp:124] Setting up relu3
I0428 19:32:03.807087 22740 net.cpp:131] Top shape: 64 10 (640)
I0428 19:32:03.807092 22740 net.cpp:139] Memory required for data: 2074880
I0428 19:32:03.807097 22740 layer_factory.hpp:77] Creating layer loss
I0428 19:32:03.807107 22740 net.cpp:86] Creating Layer loss
I0428 19:32:03.807112 22740 net.cpp:408] loss <- ip3
I0428 19:32:03.807119 22740 net.cpp:408] loss <- label
I0428 19:32:03.807128 22740 net.cpp:382] loss -> loss
I0428 19:32:03.807153 22740 layer_factory.hpp:77] Creating layer loss
…
I0428 19:32:03.807813 22740 solver.cpp:173] Creating test net (#0) specified by net file: ECE595/mnist/train_test/var_everything2/lenet_train_test141.prototxt
I0428 19:32:03.807847 22740 net.cpp:296] The NetState phase (1) differed from the phase (0) specified by a rule in layer mnist
I0428 19:32:03.807934 22740 net.cpp:53] Initializing net from parameters: 
name: "LeNet"
state {
  phase: TEST
}
layer {
  name: "mnist"
  type: "Data"
  top: "data"
  top: "label"
  include {
    phase: TEST
  }
  transform_param {
    scale: 0.00390625
  }
  data_param {
    source: "examples/mnist/mnist_test_lmdb"
    batch_size: 100
    backend: LMDB
  }
}
layer {
  name: "conv0"
  type: "Convolution"
  bottom: "data"
  top: "conv0"
  param {
    lr_mult: 1
  }
  param {
    lr_mult: 2
  }
  convolution_param {
    num_output: 10
    kernel_size: 5
    stride: 1
    weight_filler {
      type: "xavier"
    }
    bias_filler {
      type: "constant"
    }
  }
}
layer {
  name: "pool0"
  type: "Pooling"
  bottom: "conv0"
  top: "pool0"
  pooling_param {
    pool: MAX
    kernel_size: 2
    stride: 2
  }
}
layer {
  name: "ip1"
  type: "InnerProduct"
  bottom: "pool0"
  top: "ip1"
  param {
    lr_mult: 1
  }
  param {
    lr_mult: 2
  }
  inner_product_param {
    num_output: 25
    weight_filler {
      type: "xavier"
    }
    bias_filler {
      type: "constant"
    }
  }
}
layer {
  name: "relu1"
  type: "ReLU"
  bottom: "ip1"
  top: "ip1"
}
layer {
  name: "ip2"
  type: "InnerProduct"
  bottom: "ip1"
  top: "ip2"
  param {
    lr_mult: 1
  }
  param {
    lr_mult: 2
  }
  inner_product_param {
    num_output: 25
    weight_filler {
      type: "xavier"
    }
    bias_filler {
      type: "constant"
    }
  }
}
layer {
  name: "relu2"
  type: "ReLU"
  bottom: "ip2"
  top: "ip2"
}
layer {
  name: "ip3"
  type: "InnerProduct"
  bottom: "ip2"
  top: "ip3"
  param {
    lr_mult: 1
  }
  param {
    lr_mult: 2
  }
  inner_product_param {
    num_output: 10
    weight_filler {
      type: "xavier"
    }
    bias_filler {
      type: "constant"
    }
  }
}
layer {
  name: "relu3"
  type: "ReLU"
  bottom: "ip3"
  top: "ip3"
}
layer {
  name: "accuracy"
  type: "Accuracy"
  bottom: "ip3"
  bottom: "label"
  top: "accuracy"
  include {
    phase: TEST
  }
}
layer {
  name: "loss"
  type: "SoftmaxWithLoss"
  bottom: "ip3"
  bottom: "label"
  top: "loss"
}
I0428 19:32:03.808032 22740 layer_factory.hpp:77] Creating layer mnist
I0428 19:32:03.808091 22740 db_lmdb.cpp:35] Opened lmdb examples/mnist/mnist_test_lmdb
I0428 19:32:03.808109 22740 net.cpp:86] Creating Layer mnist
I0428 19:32:03.808117 22740 net.cpp:382] mnist -> data
I0428 19:32:03.808130 22740 net.cpp:382] mnist -> label
I0428 19:32:03.808249 22740 data_layer.cpp:45] output data size: 100,1,28,28
I0428 19:32:03.810294 22740 net.cpp:124] Setting up mnist
I0428 19:32:03.810326 22740 net.cpp:131] Top shape: 100 1 28 28 (78400)
I0428 19:32:03.810335 22740 net.cpp:131] Top shape: 100 (100)
I0428 19:32:03.810341 22740 net.cpp:139] Memory required for data: 314000
I0428 19:32:03.810348 22740 layer_factory.hpp:77] Creating layer label_mnist_1_split
I0428 19:32:03.810364 22740 net.cpp:86] Creating Layer label_mnist_1_split
I0428 19:32:03.810371 22740 net.cpp:408] label_mnist_1_split <- label
I0428 19:32:03.810394 22740 net.cpp:382] label_mnist_1_split -> label_mnist_1_split_0
I0428 19:32:03.810405 22740 net.cpp:382] label_mnist_1_split -> label_mnist_1_split_1
I0428 19:32:03.810478 22740 net.cpp:124] Setting up label_mnist_1_split
I0428 19:32:03.810487 22740 net.cpp:131] Top shape: 100 (100)
I0428 19:32:03.810494 22740 net.cpp:131] Top shape: 100 (100)
I0428 19:32:03.810499 22740 net.cpp:139] Memory required for data: 314800
I0428 19:32:03.810518 22740 layer_factory.hpp:77] Creating layer conv0
I0428 19:32:03.810534 22740 net.cpp:86] Creating Layer conv0
I0428 19:32:03.810540 22740 net.cpp:408] conv0 <- data
I0428 19:32:03.810549 22740 net.cpp:382] conv0 -> conv0
I0428 19:32:03.812115 22740 net.cpp:124] Setting up conv0
I0428 19:32:03.812131 22740 net.cpp:131] Top shape: 100 10 24 24 (576000)
I0428 19:32:03.812139 22740 net.cpp:139] Memory required for data: 2618800
I0428 19:32:03.812153 22740 layer_factory.hpp:77] Creating layer pool0
I0428 19:32:03.812163 22740 net.cpp:86] Creating Layer pool0
I0428 19:32:03.812170 22740 net.cpp:408] pool0 <- conv0
I0428 19:32:03.812177 22740 net.cpp:382] pool0 -> pool0
I0428 19:32:03.812221 22740 net.cpp:124] Setting up pool0
I0428 19:32:03.812230 22740 net.cpp:131] Top shape: 100 10 12 12 (144000)
I0428 19:32:03.812235 22740 net.cpp:139] Memory required for data: 3194800
I0428 19:32:03.812242 22740 layer_factory.hpp:77] Creating layer ip1
I0428 19:32:03.812253 22740 net.cpp:86] Creating Layer ip1
I0428 19:32:03.812260 22740 net.cpp:408] ip1 <- pool0
I0428 19:32:03.812269 22740 net.cpp:382] ip1 -> ip1
I0428 19:32:03.812583 22740 net.cpp:124] Setting up ip1
I0428 19:32:03.812593 22740 net.cpp:131] Top shape: 100 25 (2500)
I0428 19:32:03.812598 22740 net.cpp:139] Memory required for data: 3204800
I0428 19:32:03.812610 22740 layer_factory.hpp:77] Creating layer relu1
I0428 19:32:03.812619 22740 net.cpp:86] Creating Layer relu1
I0428 19:32:03.812626 22740 net.cpp:408] relu1 <- ip1
I0428 19:32:03.812634 22740 net.cpp:369] relu1 -> ip1 (in-place)
I0428 19:32:03.812906 22740 net.cpp:124] Setting up relu1
I0428 19:32:03.812916 22740 net.cpp:131] Top shape: 100 25 (2500)
I0428 19:32:03.812922 22740 net.cpp:139] Memory required for data: 3214800
I0428 19:32:03.812927 22740 layer_factory.hpp:77] Creating layer ip2
I0428 19:32:03.812937 22740 net.cpp:86] Creating Layer ip2
I0428 19:32:03.812942 22740 net.cpp:408] ip2 <- ip1
I0428 19:32:03.812952 22740 net.cpp:382] ip2 -> ip2
I0428 19:32:03.813069 22740 net.cpp:124] Setting up ip2
I0428 19:32:03.813079 22740 net.cpp:131] Top shape: 100 25 (2500)
I0428 19:32:03.813100 22740 net.cpp:139] Memory required for data: 3224800
I0428 19:32:03.813113 22740 layer_factory.hpp:77] Creating layer relu2
I0428 19:32:03.813136 22740 net.cpp:86] Creating Layer relu2
I0428 19:32:03.813144 22740 net.cpp:408] relu2 <- ip2
I0428 19:32:03.813153 22740 net.cpp:369] relu2 -> ip2 (in-place)
I0428 19:32:03.814010 22740 net.cpp:124] Setting up relu2
I0428 19:32:03.814024 22740 net.cpp:131] Top shape: 100 25 (2500)
I0428 19:32:03.814030 22740 net.cpp:139] Memory required for data: 3234800
I0428 19:32:03.814036 22740 layer_factory.hpp:77] Creating layer ip3
I0428 19:32:03.814049 22740 net.cpp:86] Creating Layer ip3
I0428 19:32:03.814054 22740 net.cpp:408] ip3 <- ip2
I0428 19:32:03.814064 22740 net.cpp:382] ip3 -> ip3
I0428 19:32:03.814175 22740 net.cpp:124] Setting up ip3
I0428 19:32:03.814185 22740 net.cpp:131] Top shape: 100 10 (1000)
I0428 19:32:03.814190 22740 net.cpp:139] Memory required for data: 3238800
I0428 19:32:03.814200 22740 layer_factory.hpp:77] Creating layer relu3
I0428 19:32:03.814209 22740 net.cpp:86] Creating Layer relu3
I0428 19:32:03.814214 22740 net.cpp:408] relu3 <- ip3
I0428 19:32:03.814223 22740 net.cpp:369] relu3 -> ip3 (in-place)
I0428 19:32:03.814384 22740 net.cpp:124] Setting up relu3
I0428 19:32:03.814394 22740 net.cpp:131] Top shape: 100 10 (1000)
I0428 19:32:03.814399 22740 net.cpp:139] Memory required for data: 3242800
I0428 19:32:03.814405 22740 layer_factory.hpp:77] Creating layer ip3_relu3_0_split
I0428 19:32:03.814414 22740 net.cpp:86] Creating Layer ip3_relu3_0_split
I0428 19:32:03.814419 22740 net.cpp:408] ip3_relu3_0_split <- ip3
I0428 19:32:03.814427 22740 net.cpp:382] ip3_relu3_0_split -> ip3_relu3_0_split_0
I0428 19:32:03.814438 22740 net.cpp:382] ip3_relu3_0_split -> ip3_relu3_0_split_1
I0428 19:32:03.814496 22740 net.cpp:124] Setting up ip3_relu3_0_split
I0428 19:32:03.814504 22740 net.cpp:131] Top shape: 100 10 (1000)
I0428 19:32:03.814512 22740 net.cpp:131] Top shape: 100 10 (1000)
I0428 19:32:03.814530 22740 net.cpp:139] Memory required for data: 3250800
I0428 19:32:03.814538 22740 layer_factory.hpp:77] Creating layer accuracy
I0428 19:32:03.814546 22740 net.cpp:86] Creating Layer accuracy
I0428 19:32:03.814553 22740 net.cpp:408] accuracy <- ip3_relu3_0_split_0
I0428 19:32:03.814560 22740 net.cpp:408] accuracy <- label_mnist_1_split_0
I0428 19:32:03.814568 22740 net.cpp:382] accuracy -> accuracy
…
