…
I0428 19:29:16.479089 21973 net.cpp:296] The NetState phase (0) differed from the phase (1) specified by a rule in layer mnist
I0428 19:29:16.479113 21973 net.cpp:296] The NetState phase (0) differed from the phase (1) specified by a rule in layer accuracy
I0428 19:29:16.479218 21973 net.cpp:53] Initializing net from parameters: 
name: "LeNet"
state {
  phase: TRAIN
  level: 0
  stage: ""
}
layer {
  name: "mnist"
  type: "Data"
  top: "data"
  top: "label"
  include {
    phase: TRAIN
  }
  transform_param {
    scale: 0.00390625
  }
  data_param {
    source: "examples/mnist/mnist_train_lmdb"
    batch_size: 64
    backend: LMDB
  }
}
layer {
  name: "conv0"
  type: "Convolution"
  bottom: "data"
  top: "conv0"
  param {
    lr_mult: 1
  }
  param {
    lr_mult: 2
  }
  convolution_param {
    num_output: 2
    kernel_size: 5
    stride: 1
    weight_filler {
      type: "xavier"
    }
    bias_filler {
      type: "constant"
    }
  }
}
layer {
  name: "pool0"
  type: "Pooling"
  bottom: "conv0"
  top: "pool0"
  pooling_param {
    pool: MAX
    kernel_size: 2
    stride: 2
  }
}
layer {
  name: "ip1"
  type: "InnerProduct"
  bottom: "pool0"
  top: "ip1"
  param {
    lr_mult: 1
  }
  param {
    lr_mult: 2
  }
  inner_product_param {
    num_output: 10
    weight_filler {
      type: "xavier"
    }
    bias_filler {
      type: "constant"
    }
  }
}
layer {
  name: "relu1"
  type: "ReLU"
  bottom: "ip1"
  top: "ip1"
}
layer {
  name: "ip2"
  type: "InnerProduct"
  bottom: "ip1"
  top: "ip2"
  param {
    lr_mult: 1
  }
  param {
    lr_mult: 2
  }
  inner_product_param {
    num_output: 10
    weight_filler {
      type: "xavier"
    }
    bias_filler {
      type: "constant"
    }
  }
}
layer {
  name: "relu2"
  type: "ReLU"
  bottom: "ip2"
  top: "ip2"
}
layer {
  name: "ip3"
  type: "InnerProduct"
  bottom: "ip2"
  top: "ip3"
  param {
    lr_mult: 1
  }
  param {
    lr_mult: 2
  }
  inner_product_param {
    num_output: 10
    weight_filler {
      type: "xavier"
    }
    bias_filler {
      type: "constant"
    }
  }
}
layer {
  name: "relu3"
  type: "ReLU"
  bottom: "ip3"
  top: "ip3"
}
layer {
  name: "loss"
  type: "SoftmaxWithLoss"
  bottom: "ip3"
  bottom: "label"
  top: "loss"
}
I0428 19:29:16.479326 21973 layer_factory.hpp:77] Creating layer mnist
I0428 19:29:16.479454 21973 db_lmdb.cpp:35] Opened lmdb examples/mnist/mnist_train_lmdb
I0428 19:29:16.479485 21973 net.cpp:86] Creating Layer mnist
I0428 19:29:16.479499 21973 net.cpp:382] mnist -> data
I0428 19:29:16.479529 21973 net.cpp:382] mnist -> label
I0428 19:29:16.480758 21973 data_layer.cpp:45] output data size: 64,1,28,28
I0428 19:29:16.483250 21973 net.cpp:124] Setting up mnist
I0428 19:29:16.483271 21973 net.cpp:131] Top shape: 64 1 28 28 (50176)
I0428 19:29:16.483280 21973 net.cpp:131] Top shape: 64 (64)
I0428 19:29:16.483286 21973 net.cpp:139] Memory required for data: 200960
I0428 19:29:16.483297 21973 layer_factory.hpp:77] Creating layer conv0
I0428 19:29:16.483321 21973 net.cpp:86] Creating Layer conv0
I0428 19:29:16.483332 21973 net.cpp:408] conv0 <- data
I0428 19:29:16.483352 21973 net.cpp:382] conv0 -> conv0
I0428 19:29:16.765813 21973 net.cpp:124] Setting up conv0
I0428 19:29:16.765843 21973 net.cpp:131] Top shape: 64 2 24 24 (73728)
I0428 19:29:16.765849 21973 net.cpp:139] Memory required for data: 495872
I0428 19:29:16.765871 21973 layer_factory.hpp:77] Creating layer pool0
I0428 19:29:16.765888 21973 net.cpp:86] Creating Layer pool0
I0428 19:29:16.765914 21973 net.cpp:408] pool0 <- conv0
I0428 19:29:16.765924 21973 net.cpp:382] pool0 -> pool0
I0428 19:29:16.765983 21973 net.cpp:124] Setting up pool0
I0428 19:29:16.765992 21973 net.cpp:131] Top shape: 64 2 12 12 (18432)
I0428 19:29:16.765997 21973 net.cpp:139] Memory required for data: 569600
I0428 19:29:16.766003 21973 layer_factory.hpp:77] Creating layer ip1
I0428 19:29:16.766016 21973 net.cpp:86] Creating Layer ip1
I0428 19:29:16.766024 21973 net.cpp:408] ip1 <- pool0
I0428 19:29:16.766033 21973 net.cpp:382] ip1 -> ip1
I0428 19:29:16.766995 21973 net.cpp:124] Setting up ip1
I0428 19:29:16.767011 21973 net.cpp:131] Top shape: 64 10 (640)
I0428 19:29:16.767016 21973 net.cpp:139] Memory required for data: 572160
I0428 19:29:16.767030 21973 layer_factory.hpp:77] Creating layer relu1
I0428 19:29:16.767040 21973 net.cpp:86] Creating Layer relu1
I0428 19:29:16.767052 21973 net.cpp:408] relu1 <- ip1
I0428 19:29:16.767060 21973 net.cpp:369] relu1 -> ip1 (in-place)
I0428 19:29:16.767235 21973 net.cpp:124] Setting up relu1
I0428 19:29:16.767246 21973 net.cpp:131] Top shape: 64 10 (640)
I0428 19:29:16.767251 21973 net.cpp:139] Memory required for data: 574720
I0428 19:29:16.767256 21973 layer_factory.hpp:77] Creating layer ip2
I0428 19:29:16.767266 21973 net.cpp:86] Creating Layer ip2
I0428 19:29:16.767272 21973 net.cpp:408] ip2 <- ip1
I0428 19:29:16.767280 21973 net.cpp:382] ip2 -> ip2
I0428 19:29:16.767382 21973 net.cpp:124] Setting up ip2
I0428 19:29:16.767391 21973 net.cpp:131] Top shape: 64 10 (640)
I0428 19:29:16.767396 21973 net.cpp:139] Memory required for data: 577280
I0428 19:29:16.767408 21973 layer_factory.hpp:77] Creating layer relu2
I0428 19:29:16.767417 21973 net.cpp:86] Creating Layer relu2
I0428 19:29:16.767423 21973 net.cpp:408] relu2 <- ip2
I0428 19:29:16.767431 21973 net.cpp:369] relu2 -> ip2 (in-place)
I0428 19:29:16.768168 21973 net.cpp:124] Setting up relu2
I0428 19:29:16.768182 21973 net.cpp:131] Top shape: 64 10 (640)
I0428 19:29:16.768188 21973 net.cpp:139] Memory required for data: 579840
I0428 19:29:16.768193 21973 layer_factory.hpp:77] Creating layer ip3
I0428 19:29:16.768204 21973 net.cpp:86] Creating Layer ip3
I0428 19:29:16.768210 21973 net.cpp:408] ip3 <- ip2
I0428 19:29:16.768219 21973 net.cpp:382] ip3 -> ip3
I0428 19:29:16.768324 21973 net.cpp:124] Setting up ip3
I0428 19:29:16.768333 21973 net.cpp:131] Top shape: 64 10 (640)
I0428 19:29:16.768338 21973 net.cpp:139] Memory required for data: 582400
I0428 19:29:16.768348 21973 layer_factory.hpp:77] Creating layer relu3
I0428 19:29:16.768358 21973 net.cpp:86] Creating Layer relu3
I0428 19:29:16.768364 21973 net.cpp:408] relu3 <- ip3
I0428 19:29:16.768373 21973 net.cpp:369] relu3 -> ip3 (in-place)
I0428 19:29:16.768530 21973 net.cpp:124] Setting up relu3
I0428 19:29:16.768540 21973 net.cpp:131] Top shape: 64 10 (640)
I0428 19:29:16.768545 21973 net.cpp:139] Memory required for data: 584960
I0428 19:29:16.768551 21973 layer_factory.hpp:77] Creating layer loss
I0428 19:29:16.768560 21973 net.cpp:86] Creating Layer loss
I0428 19:29:16.768566 21973 net.cpp:408] loss <- ip3
I0428 19:29:16.768573 21973 net.cpp:408] loss <- label
I0428 19:29:16.768582 21973 net.cpp:382] loss -> loss
I0428 19:29:16.768602 21973 layer_factory.hpp:77] Creating layer loss
…
I0428 19:29:16.769330 21973 solver.cpp:173] Creating test net (#0) specified by net file: ECE595/mnist/train_test/var_everything2/lenet_train_test53.prototxt
I0428 19:29:16.769362 21973 net.cpp:296] The NetState phase (1) differed from the phase (0) specified by a rule in layer mnist
I0428 19:29:16.769448 21973 net.cpp:53] Initializing net from parameters: 
name: "LeNet"
state {
  phase: TEST
}
layer {
  name: "mnist"
  type: "Data"
  top: "data"
  top: "label"
  include {
    phase: TEST
  }
  transform_param {
    scale: 0.00390625
  }
  data_param {
    source: "examples/mnist/mnist_test_lmdb"
    batch_size: 100
    backend: LMDB
  }
}
layer {
  name: "conv0"
  type: "Convolution"
  bottom: "data"
  top: "conv0"
  param {
    lr_mult: 1
  }
  param {
    lr_mult: 2
  }
  convolution_param {
    num_output: 2
    kernel_size: 5
    stride: 1
    weight_filler {
      type: "xavier"
    }
    bias_filler {
      type: "constant"
    }
  }
}
layer {
  name: "pool0"
  type: "Pooling"
  bottom: "conv0"
  top: "pool0"
  pooling_param {
    pool: MAX
    kernel_size: 2
    stride: 2
  }
}
layer {
  name: "ip1"
  type: "InnerProduct"
  bottom: "pool0"
  top: "ip1"
  param {
    lr_mult: 1
  }
  param {
    lr_mult: 2
  }
  inner_product_param {
    num_output: 10
    weight_filler {
      type: "xavier"
    }
    bias_filler {
      type: "constant"
    }
  }
}
layer {
  name: "relu1"
  type: "ReLU"
  bottom: "ip1"
  top: "ip1"
}
layer {
  name: "ip2"
  type: "InnerProduct"
  bottom: "ip1"
  top: "ip2"
  param {
    lr_mult: 1
  }
  param {
    lr_mult: 2
  }
  inner_product_param {
    num_output: 10
    weight_filler {
      type: "xavier"
    }
    bias_filler {
      type: "constant"
    }
  }
}
layer {
  name: "relu2"
  type: "ReLU"
  bottom: "ip2"
  top: "ip2"
}
layer {
  name: "ip3"
  type: "InnerProduct"
  bottom: "ip2"
  top: "ip3"
  param {
    lr_mult: 1
  }
  param {
    lr_mult: 2
  }
  inner_product_param {
    num_output: 10
    weight_filler {
      type: "xavier"
    }
    bias_filler {
      type: "constant"
    }
  }
}
layer {
  name: "relu3"
  type: "ReLU"
  bottom: "ip3"
  top: "ip3"
}
layer {
  name: "accuracy"
  type: "Accuracy"
  bottom: "ip3"
  bottom: "label"
  top: "accuracy"
  include {
    phase: TEST
  }
}
layer {
  name: "loss"
  type: "SoftmaxWithLoss"
  bottom: "ip3"
  bottom: "label"
  top: "loss"
}
I0428 19:29:16.769543 21973 layer_factory.hpp:77] Creating layer mnist
I0428 19:29:16.769601 21973 db_lmdb.cpp:35] Opened lmdb examples/mnist/mnist_test_lmdb
I0428 19:29:16.769618 21973 net.cpp:86] Creating Layer mnist
I0428 19:29:16.769625 21973 net.cpp:382] mnist -> data
I0428 19:29:16.769637 21973 net.cpp:382] mnist -> label
I0428 19:29:16.769752 21973 data_layer.cpp:45] output data size: 100,1,28,28
I0428 19:29:16.772048 21973 net.cpp:124] Setting up mnist
I0428 19:29:16.772080 21973 net.cpp:131] Top shape: 100 1 28 28 (78400)
I0428 19:29:16.772089 21973 net.cpp:131] Top shape: 100 (100)
I0428 19:29:16.772094 21973 net.cpp:139] Memory required for data: 314000
I0428 19:29:16.772101 21973 layer_factory.hpp:77] Creating layer label_mnist_1_split
I0428 19:29:16.772111 21973 net.cpp:86] Creating Layer label_mnist_1_split
I0428 19:29:16.772117 21973 net.cpp:408] label_mnist_1_split <- label
I0428 19:29:16.772126 21973 net.cpp:382] label_mnist_1_split -> label_mnist_1_split_0
I0428 19:29:16.772137 21973 net.cpp:382] label_mnist_1_split -> label_mnist_1_split_1
I0428 19:29:16.772254 21973 net.cpp:124] Setting up label_mnist_1_split
I0428 19:29:16.772264 21973 net.cpp:131] Top shape: 100 (100)
I0428 19:29:16.772269 21973 net.cpp:131] Top shape: 100 (100)
I0428 19:29:16.772275 21973 net.cpp:139] Memory required for data: 314800
I0428 19:29:16.772292 21973 layer_factory.hpp:77] Creating layer conv0
I0428 19:29:16.772306 21973 net.cpp:86] Creating Layer conv0
I0428 19:29:16.772312 21973 net.cpp:408] conv0 <- data
I0428 19:29:16.772321 21973 net.cpp:382] conv0 -> conv0
I0428 19:29:16.773756 21973 net.cpp:124] Setting up conv0
I0428 19:29:16.773772 21973 net.cpp:131] Top shape: 100 2 24 24 (115200)
I0428 19:29:16.773777 21973 net.cpp:139] Memory required for data: 775600
I0428 19:29:16.773792 21973 layer_factory.hpp:77] Creating layer pool0
I0428 19:29:16.773802 21973 net.cpp:86] Creating Layer pool0
I0428 19:29:16.773808 21973 net.cpp:408] pool0 <- conv0
I0428 19:29:16.773815 21973 net.cpp:382] pool0 -> pool0
I0428 19:29:16.773855 21973 net.cpp:124] Setting up pool0
I0428 19:29:16.773864 21973 net.cpp:131] Top shape: 100 2 12 12 (28800)
I0428 19:29:16.773869 21973 net.cpp:139] Memory required for data: 890800
I0428 19:29:16.773874 21973 layer_factory.hpp:77] Creating layer ip1
I0428 19:29:16.773885 21973 net.cpp:86] Creating Layer ip1
I0428 19:29:16.773890 21973 net.cpp:408] ip1 <- pool0
I0428 19:29:16.773897 21973 net.cpp:382] ip1 -> ip1
I0428 19:29:16.774009 21973 net.cpp:124] Setting up ip1
I0428 19:29:16.774018 21973 net.cpp:131] Top shape: 100 10 (1000)
I0428 19:29:16.774022 21973 net.cpp:139] Memory required for data: 894800
I0428 19:29:16.774034 21973 layer_factory.hpp:77] Creating layer relu1
I0428 19:29:16.774042 21973 net.cpp:86] Creating Layer relu1
I0428 19:29:16.774049 21973 net.cpp:408] relu1 <- ip1
I0428 19:29:16.774055 21973 net.cpp:369] relu1 -> ip1 (in-place)
I0428 19:29:16.774217 21973 net.cpp:124] Setting up relu1
I0428 19:29:16.774243 21973 net.cpp:131] Top shape: 100 10 (1000)
I0428 19:29:16.774248 21973 net.cpp:139] Memory required for data: 898800
I0428 19:29:16.774253 21973 layer_factory.hpp:77] Creating layer ip2
I0428 19:29:16.774262 21973 net.cpp:86] Creating Layer ip2
I0428 19:29:16.774268 21973 net.cpp:408] ip2 <- ip1
I0428 19:29:16.774292 21973 net.cpp:382] ip2 -> ip2
I0428 19:29:16.774447 21973 net.cpp:124] Setting up ip2
I0428 19:29:16.774456 21973 net.cpp:131] Top shape: 100 10 (1000)
I0428 19:29:16.774461 21973 net.cpp:139] Memory required for data: 902800
I0428 19:29:16.774474 21973 layer_factory.hpp:77] Creating layer relu2
I0428 19:29:16.774484 21973 net.cpp:86] Creating Layer relu2
I0428 19:29:16.774492 21973 net.cpp:408] relu2 <- ip2
I0428 19:29:16.774499 21973 net.cpp:369] relu2 -> ip2 (in-place)
I0428 19:29:16.775310 21973 net.cpp:124] Setting up relu2
I0428 19:29:16.775341 21973 net.cpp:131] Top shape: 100 10 (1000)
I0428 19:29:16.775348 21973 net.cpp:139] Memory required for data: 906800
I0428 19:29:16.775354 21973 layer_factory.hpp:77] Creating layer ip3
I0428 19:29:16.775367 21973 net.cpp:86] Creating Layer ip3
I0428 19:29:16.775373 21973 net.cpp:408] ip3 <- ip2
I0428 19:29:16.775382 21973 net.cpp:382] ip3 -> ip3
I0428 19:29:16.775530 21973 net.cpp:124] Setting up ip3
I0428 19:29:16.775539 21973 net.cpp:131] Top shape: 100 10 (1000)
I0428 19:29:16.775544 21973 net.cpp:139] Memory required for data: 910800
I0428 19:29:16.775554 21973 layer_factory.hpp:77] Creating layer relu3
I0428 19:29:16.775563 21973 net.cpp:86] Creating Layer relu3
I0428 19:29:16.775568 21973 net.cpp:408] relu3 <- ip3
I0428 19:29:16.775575 21973 net.cpp:369] relu3 -> ip3 (in-place)
I0428 19:29:16.775756 21973 net.cpp:124] Setting up relu3
I0428 19:29:16.775766 21973 net.cpp:131] Top shape: 100 10 (1000)
I0428 19:29:16.775771 21973 net.cpp:139] Memory required for data: 914800
I0428 19:29:16.775776 21973 layer_factory.hpp:77] Creating layer ip3_relu3_0_split
I0428 19:29:16.775784 21973 net.cpp:86] Creating Layer ip3_relu3_0_split
I0428 19:29:16.775790 21973 net.cpp:408] ip3_relu3_0_split <- ip3
I0428 19:29:16.775797 21973 net.cpp:382] ip3_relu3_0_split -> ip3_relu3_0_split_0
I0428 19:29:16.775806 21973 net.cpp:382] ip3_relu3_0_split -> ip3_relu3_0_split_1
I0428 19:29:16.775846 21973 net.cpp:124] Setting up ip3_relu3_0_split
I0428 19:29:16.775856 21973 net.cpp:131] Top shape: 100 10 (1000)
I0428 19:29:16.775862 21973 net.cpp:131] Top shape: 100 10 (1000)
I0428 19:29:16.775878 21973 net.cpp:139] Memory required for data: 922800
I0428 19:29:16.775884 21973 layer_factory.hpp:77] Creating layer accuracy
I0428 19:29:16.775892 21973 net.cpp:86] Creating Layer accuracy
I0428 19:29:16.775898 21973 net.cpp:408] accuracy <- ip3_relu3_0_split_0
I0428 19:29:16.775905 21973 net.cpp:408] accuracy <- label_mnist_1_split_0
I0428 19:29:16.775913 21973 net.cpp:382] accuracy -> accuracy
…
