…
I0428 20:02:30.259969 29957 net.cpp:296] The NetState phase (0) differed from the phase (1) specified by a rule in layer mnist
I0428 20:02:30.259984 29957 net.cpp:296] The NetState phase (0) differed from the phase (1) specified by a rule in layer accuracy
I0428 20:02:30.260063 29957 net.cpp:53] Initializing net from parameters: 
name: "LeNet"
state {
  phase: TRAIN
  level: 0
  stage: ""
}
layer {
  name: "mnist"
  type: "Data"
  top: "data"
  top: "label"
  include {
    phase: TRAIN
  }
  transform_param {
    scale: 0.00390625
  }
  data_param {
    source: "examples/mnist/mnist_train_lmdb"
    batch_size: 64
    backend: LMDB
  }
}
layer {
  name: "conv0"
  type: "Convolution"
  bottom: "data"
  top: "conv0"
  param {
    lr_mult: 1
  }
  param {
    lr_mult: 2
  }
  convolution_param {
    num_output: 10
    kernel_size: 5
    stride: 1
    weight_filler {
      type: "xavier"
    }
    bias_filler {
      type: "constant"
    }
  }
}
layer {
  name: "pool0"
  type: "Pooling"
  bottom: "conv0"
  top: "pool0"
  pooling_param {
    pool: MAX
    kernel_size: 2
    stride: 2
  }
}
layer {
  name: "conv1"
  type: "Convolution"
  bottom: "pool0"
  top: "conv1"
  param {
    lr_mult: 1
  }
  param {
    lr_mult: 2
  }
  convolution_param {
    num_output: 50
    kernel_size: 5
    stride: 1
    weight_filler {
      type: "xavier"
    }
    bias_filler {
      type: "constant"
    }
  }
}
layer {
  name: "pool1"
  type: "Pooling"
  bottom: "conv1"
  top: "pool1"
  pooling_param {
    pool: MAX
    kernel_size: 2
    stride: 2
  }
}
layer {
  name: "ip1"
  type: "InnerProduct"
  bottom: "pool1"
  top: "ip1"
  param {
    lr_mult: 1
  }
  param {
    lr_mult: 2
  }
  inner_product_param {
    num_output: 50
    weight_filler {
      type: "xavier"
    }
    bias_filler {
      type: "constant"
    }
  }
}
layer {
  name: "relu1"
  type: "ReLU"
  bottom: "ip1"
  top: "ip1"
}
layer {
  name: "ip2"
  type: "InnerProduct"
  bottom: "ip1"
  top: "ip2"
  param {
    lr_mult: 1
  }
  param {
    lr_mult: 2
  }
  inner_product_param {
    num_output: 25
    weight_filler {
      type: "xavier"
    }
    bias_filler {
      type: "constant"
    }
  }
}
layer {
  name: "relu2"
  type: "ReLU"
  bottom: "ip2"
  top: "ip2"
}
layer {
  name: "ip3"
  type: "InnerProduct"
  bottom: "ip2"
  top: "ip3"
  param {
    lr_mult: 1
  }
  param {
    lr_mult: 2
  }
  inner_product_param {
    num_output: 10
    weight_filler {
      type: "xavier"
    }
    bias_filler {
      type: "constant"
    }
  }
}
layer {
  name: "relu3"
  type: "ReLU"
  bottom: "ip3"
  top: "ip3"
}
layer {
  name: "loss"
  type: "SoftmaxWithLoss"
  bottom: "ip3"
  bottom: "label"
  top: "loss"
}
I0428 20:02:30.260144 29957 layer_factory.hpp:77] Creating layer mnist
I0428 20:02:30.260223 29957 db_lmdb.cpp:35] Opened lmdb examples/mnist/mnist_train_lmdb
I0428 20:02:30.260242 29957 net.cpp:86] Creating Layer mnist
I0428 20:02:30.260249 29957 net.cpp:382] mnist -> data
I0428 20:02:30.260267 29957 net.cpp:382] mnist -> label
I0428 20:02:30.261207 29957 data_layer.cpp:45] output data size: 64,1,28,28
I0428 20:02:30.263366 29957 net.cpp:124] Setting up mnist
I0428 20:02:30.263413 29957 net.cpp:131] Top shape: 64 1 28 28 (50176)
I0428 20:02:30.263419 29957 net.cpp:131] Top shape: 64 (64)
I0428 20:02:30.263433 29957 net.cpp:139] Memory required for data: 200960
I0428 20:02:30.263439 29957 layer_factory.hpp:77] Creating layer conv0
I0428 20:02:30.263454 29957 net.cpp:86] Creating Layer conv0
I0428 20:02:30.263471 29957 net.cpp:408] conv0 <- data
I0428 20:02:30.263484 29957 net.cpp:382] conv0 -> conv0
I0428 20:02:30.495669 29957 net.cpp:124] Setting up conv0
I0428 20:02:30.495697 29957 net.cpp:131] Top shape: 64 10 24 24 (368640)
I0428 20:02:30.495700 29957 net.cpp:139] Memory required for data: 1675520
I0428 20:02:30.495714 29957 layer_factory.hpp:77] Creating layer pool0
I0428 20:02:30.495726 29957 net.cpp:86] Creating Layer pool0
I0428 20:02:30.495730 29957 net.cpp:408] pool0 <- conv0
I0428 20:02:30.495735 29957 net.cpp:382] pool0 -> pool0
I0428 20:02:30.495797 29957 net.cpp:124] Setting up pool0
I0428 20:02:30.495802 29957 net.cpp:131] Top shape: 64 10 12 12 (92160)
I0428 20:02:30.495805 29957 net.cpp:139] Memory required for data: 2044160
I0428 20:02:30.495807 29957 layer_factory.hpp:77] Creating layer conv1
I0428 20:02:30.495817 29957 net.cpp:86] Creating Layer conv1
I0428 20:02:30.495821 29957 net.cpp:408] conv1 <- pool0
I0428 20:02:30.495826 29957 net.cpp:382] conv1 -> conv1
I0428 20:02:30.498710 29957 net.cpp:124] Setting up conv1
I0428 20:02:30.498740 29957 net.cpp:131] Top shape: 64 50 8 8 (204800)
I0428 20:02:30.498744 29957 net.cpp:139] Memory required for data: 2863360
I0428 20:02:30.498754 29957 layer_factory.hpp:77] Creating layer pool1
I0428 20:02:30.498761 29957 net.cpp:86] Creating Layer pool1
I0428 20:02:30.498765 29957 net.cpp:408] pool1 <- conv1
I0428 20:02:30.498770 29957 net.cpp:382] pool1 -> pool1
I0428 20:02:30.498824 29957 net.cpp:124] Setting up pool1
I0428 20:02:30.498844 29957 net.cpp:131] Top shape: 64 50 4 4 (51200)
I0428 20:02:30.498847 29957 net.cpp:139] Memory required for data: 3068160
I0428 20:02:30.498850 29957 layer_factory.hpp:77] Creating layer ip1
I0428 20:02:30.498858 29957 net.cpp:86] Creating Layer ip1
I0428 20:02:30.498860 29957 net.cpp:408] ip1 <- pool1
I0428 20:02:30.498867 29957 net.cpp:382] ip1 -> ip1
I0428 20:02:30.499220 29957 net.cpp:124] Setting up ip1
I0428 20:02:30.499228 29957 net.cpp:131] Top shape: 64 50 (3200)
I0428 20:02:30.499245 29957 net.cpp:139] Memory required for data: 3080960
I0428 20:02:30.499253 29957 layer_factory.hpp:77] Creating layer relu1
I0428 20:02:30.499258 29957 net.cpp:86] Creating Layer relu1
I0428 20:02:30.499263 29957 net.cpp:408] relu1 <- ip1
I0428 20:02:30.499266 29957 net.cpp:369] relu1 -> ip1 (in-place)
I0428 20:02:30.499423 29957 net.cpp:124] Setting up relu1
I0428 20:02:30.499433 29957 net.cpp:131] Top shape: 64 50 (3200)
I0428 20:02:30.499435 29957 net.cpp:139] Memory required for data: 3093760
I0428 20:02:30.499439 29957 layer_factory.hpp:77] Creating layer ip2
I0428 20:02:30.499444 29957 net.cpp:86] Creating Layer ip2
I0428 20:02:30.499447 29957 net.cpp:408] ip2 <- ip1
I0428 20:02:30.499452 29957 net.cpp:382] ip2 -> ip2
I0428 20:02:30.500452 29957 net.cpp:124] Setting up ip2
I0428 20:02:30.500463 29957 net.cpp:131] Top shape: 64 25 (1600)
I0428 20:02:30.500481 29957 net.cpp:139] Memory required for data: 3100160
I0428 20:02:30.500488 29957 layer_factory.hpp:77] Creating layer relu2
I0428 20:02:30.500494 29957 net.cpp:86] Creating Layer relu2
I0428 20:02:30.500497 29957 net.cpp:408] relu2 <- ip2
I0428 20:02:30.500501 29957 net.cpp:369] relu2 -> ip2 (in-place)
I0428 20:02:30.501323 29957 net.cpp:124] Setting up relu2
I0428 20:02:30.501350 29957 net.cpp:131] Top shape: 64 25 (1600)
I0428 20:02:30.501368 29957 net.cpp:139] Memory required for data: 3106560
I0428 20:02:30.501372 29957 layer_factory.hpp:77] Creating layer ip3
I0428 20:02:30.501394 29957 net.cpp:86] Creating Layer ip3
I0428 20:02:30.501396 29957 net.cpp:408] ip3 <- ip2
I0428 20:02:30.501418 29957 net.cpp:382] ip3 -> ip3
I0428 20:02:30.501535 29957 net.cpp:124] Setting up ip3
I0428 20:02:30.501543 29957 net.cpp:131] Top shape: 64 10 (640)
I0428 20:02:30.501545 29957 net.cpp:139] Memory required for data: 3109120
I0428 20:02:30.501554 29957 layer_factory.hpp:77] Creating layer relu3
I0428 20:02:30.501559 29957 net.cpp:86] Creating Layer relu3
I0428 20:02:30.501561 29957 net.cpp:408] relu3 <- ip3
I0428 20:02:30.501566 29957 net.cpp:369] relu3 -> ip3 (in-place)
I0428 20:02:30.501755 29957 net.cpp:124] Setting up relu3
I0428 20:02:30.501780 29957 net.cpp:131] Top shape: 64 10 (640)
I0428 20:02:30.501782 29957 net.cpp:139] Memory required for data: 3111680
I0428 20:02:30.501786 29957 layer_factory.hpp:77] Creating layer loss
I0428 20:02:30.501792 29957 net.cpp:86] Creating Layer loss
I0428 20:02:30.501796 29957 net.cpp:408] loss <- ip3
I0428 20:02:30.501799 29957 net.cpp:408] loss <- label
I0428 20:02:30.501804 29957 net.cpp:382] loss -> loss
I0428 20:02:30.501833 29957 layer_factory.hpp:77] Creating layer loss
…
I0428 20:02:30.502589 29957 solver.cpp:173] Creating test net (#0) specified by net file: ECE595/mnist/train_test/var_everything2/lenet_train_test930.prototxt
I0428 20:02:30.502645 29957 net.cpp:296] The NetState phase (1) differed from the phase (0) specified by a rule in layer mnist
I0428 20:02:30.502746 29957 net.cpp:53] Initializing net from parameters: 
name: "LeNet"
state {
  phase: TEST
}
layer {
  name: "mnist"
  type: "Data"
  top: "data"
  top: "label"
  include {
    phase: TEST
  }
  transform_param {
    scale: 0.00390625
  }
  data_param {
    source: "examples/mnist/mnist_test_lmdb"
    batch_size: 100
    backend: LMDB
  }
}
layer {
  name: "conv0"
  type: "Convolution"
  bottom: "data"
  top: "conv0"
  param {
    lr_mult: 1
  }
  param {
    lr_mult: 2
  }
  convolution_param {
    num_output: 10
    kernel_size: 5
    stride: 1
    weight_filler {
      type: "xavier"
    }
    bias_filler {
      type: "constant"
    }
  }
}
layer {
  name: "pool0"
  type: "Pooling"
  bottom: "conv0"
  top: "pool0"
  pooling_param {
    pool: MAX
    kernel_size: 2
    stride: 2
  }
}
layer {
  name: "conv1"
  type: "Convolution"
  bottom: "pool0"
  top: "conv1"
  param {
    lr_mult: 1
  }
  param {
    lr_mult: 2
  }
  convolution_param {
    num_output: 50
    kernel_size: 5
    stride: 1
    weight_filler {
      type: "xavier"
    }
    bias_filler {
      type: "constant"
    }
  }
}
layer {
  name: "pool1"
  type: "Pooling"
  bottom: "conv1"
  top: "pool1"
  pooling_param {
    pool: MAX
    kernel_size: 2
    stride: 2
  }
}
layer {
  name: "ip1"
  type: "InnerProduct"
  bottom: "pool1"
  top: "ip1"
  param {
    lr_mult: 1
  }
  param {
    lr_mult: 2
  }
  inner_product_param {
    num_output: 50
    weight_filler {
      type: "xavier"
    }
    bias_filler {
      type: "constant"
    }
  }
}
layer {
  name: "relu1"
  type: "ReLU"
  bottom: "ip1"
  top: "ip1"
}
layer {
  name: "ip2"
  type: "InnerProduct"
  bottom: "ip1"
  top: "ip2"
  param {
    lr_mult: 1
  }
  param {
    lr_mult: 2
  }
  inner_product_param {
    num_output: 25
    weight_filler {
      type: "xavier"
    }
    bias_filler {
      type: "constant"
    }
  }
}
layer {
  name: "relu2"
  type: "ReLU"
  bottom: "ip2"
  top: "ip2"
}
layer {
  name: "ip3"
  type: "InnerProduct"
  bottom: "ip2"
  top: "ip3"
  param {
    lr_mult: 1
  }
  param {
    lr_mult: 2
  }
  inner_product_param {
    num_output: 10
    weight_filler {
      type: "xavier"
    }
    bias_filler {
      type: "constant"
    }
  }
}
layer {
  name: "relu3"
  type: "ReLU"
  bottom: "ip3"
  top: "ip3"
}
layer {
  name: "accuracy"
  type: "Accuracy"
  bottom: "ip3"
  bottom: "label"
  top: "accuracy"
  include {
    phase: TEST
  }
}
layer {
  name: "loss"
  type: "SoftmaxWithLoss"
  bottom: "ip3"
  bottom: "label"
  top: "loss"
}
I0428 20:02:30.502825 29957 layer_factory.hpp:77] Creating layer mnist
I0428 20:02:30.502882 29957 db_lmdb.cpp:35] Opened lmdb examples/mnist/mnist_test_lmdb
I0428 20:02:30.502894 29957 net.cpp:86] Creating Layer mnist
I0428 20:02:30.502899 29957 net.cpp:382] mnist -> data
I0428 20:02:30.502907 29957 net.cpp:382] mnist -> label
I0428 20:02:30.502990 29957 data_layer.cpp:45] output data size: 100,1,28,28
I0428 20:02:30.505085 29957 net.cpp:124] Setting up mnist
I0428 20:02:30.505113 29957 net.cpp:131] Top shape: 100 1 28 28 (78400)
I0428 20:02:30.505120 29957 net.cpp:131] Top shape: 100 (100)
I0428 20:02:30.505121 29957 net.cpp:139] Memory required for data: 314000
I0428 20:02:30.505125 29957 layer_factory.hpp:77] Creating layer label_mnist_1_split
I0428 20:02:30.505136 29957 net.cpp:86] Creating Layer label_mnist_1_split
I0428 20:02:30.505139 29957 net.cpp:408] label_mnist_1_split <- label
I0428 20:02:30.505143 29957 net.cpp:382] label_mnist_1_split -> label_mnist_1_split_0
I0428 20:02:30.505152 29957 net.cpp:382] label_mnist_1_split -> label_mnist_1_split_1
I0428 20:02:30.505285 29957 net.cpp:124] Setting up label_mnist_1_split
I0428 20:02:30.505291 29957 net.cpp:131] Top shape: 100 (100)
I0428 20:02:30.505295 29957 net.cpp:131] Top shape: 100 (100)
I0428 20:02:30.505298 29957 net.cpp:139] Memory required for data: 314800
I0428 20:02:30.505301 29957 layer_factory.hpp:77] Creating layer conv0
I0428 20:02:30.505311 29957 net.cpp:86] Creating Layer conv0
I0428 20:02:30.505316 29957 net.cpp:408] conv0 <- data
I0428 20:02:30.505321 29957 net.cpp:382] conv0 -> conv0
I0428 20:02:30.507038 29957 net.cpp:124] Setting up conv0
I0428 20:02:30.507051 29957 net.cpp:131] Top shape: 100 10 24 24 (576000)
I0428 20:02:30.507071 29957 net.cpp:139] Memory required for data: 2618800
I0428 20:02:30.507081 29957 layer_factory.hpp:77] Creating layer pool0
I0428 20:02:30.507087 29957 net.cpp:86] Creating Layer pool0
I0428 20:02:30.507091 29957 net.cpp:408] pool0 <- conv0
I0428 20:02:30.507095 29957 net.cpp:382] pool0 -> pool0
I0428 20:02:30.507130 29957 net.cpp:124] Setting up pool0
I0428 20:02:30.507135 29957 net.cpp:131] Top shape: 100 10 12 12 (144000)
I0428 20:02:30.507138 29957 net.cpp:139] Memory required for data: 3194800
I0428 20:02:30.507140 29957 layer_factory.hpp:77] Creating layer conv1
I0428 20:02:30.507149 29957 net.cpp:86] Creating Layer conv1
I0428 20:02:30.507153 29957 net.cpp:408] conv1 <- pool0
I0428 20:02:30.507158 29957 net.cpp:382] conv1 -> conv1
I0428 20:02:30.508832 29957 net.cpp:124] Setting up conv1
I0428 20:02:30.508877 29957 net.cpp:131] Top shape: 100 50 8 8 (320000)
I0428 20:02:30.508880 29957 net.cpp:139] Memory required for data: 4474800
I0428 20:02:30.508889 29957 layer_factory.hpp:77] Creating layer pool1
I0428 20:02:30.508895 29957 net.cpp:86] Creating Layer pool1
I0428 20:02:30.508900 29957 net.cpp:408] pool1 <- conv1
I0428 20:02:30.508906 29957 net.cpp:382] pool1 -> pool1
I0428 20:02:30.508944 29957 net.cpp:124] Setting up pool1
I0428 20:02:30.508949 29957 net.cpp:131] Top shape: 100 50 4 4 (80000)
I0428 20:02:30.508952 29957 net.cpp:139] Memory required for data: 4794800
I0428 20:02:30.508955 29957 layer_factory.hpp:77] Creating layer ip1
I0428 20:02:30.508961 29957 net.cpp:86] Creating Layer ip1
I0428 20:02:30.508965 29957 net.cpp:408] ip1 <- pool1
I0428 20:02:30.508985 29957 net.cpp:382] ip1 -> ip1
I0428 20:02:30.509328 29957 net.cpp:124] Setting up ip1
I0428 20:02:30.509335 29957 net.cpp:131] Top shape: 100 50 (5000)
I0428 20:02:30.509378 29957 net.cpp:139] Memory required for data: 4814800
I0428 20:02:30.509387 29957 layer_factory.hpp:77] Creating layer relu1
I0428 20:02:30.509392 29957 net.cpp:86] Creating Layer relu1
I0428 20:02:30.509394 29957 net.cpp:408] relu1 <- ip1
I0428 20:02:30.509400 29957 net.cpp:369] relu1 -> ip1 (in-place)
I0428 20:02:30.509676 29957 net.cpp:124] Setting up relu1
I0428 20:02:30.509685 29957 net.cpp:131] Top shape: 100 50 (5000)
I0428 20:02:30.509690 29957 net.cpp:139] Memory required for data: 4834800
I0428 20:02:30.509692 29957 layer_factory.hpp:77] Creating layer ip2
I0428 20:02:30.509701 29957 net.cpp:86] Creating Layer ip2
I0428 20:02:30.509704 29957 net.cpp:408] ip2 <- ip1
I0428 20:02:30.509709 29957 net.cpp:382] ip2 -> ip2
I0428 20:02:30.509824 29957 net.cpp:124] Setting up ip2
I0428 20:02:30.509831 29957 net.cpp:131] Top shape: 100 25 (2500)
I0428 20:02:30.509835 29957 net.cpp:139] Memory required for data: 4844800
I0428 20:02:30.509840 29957 layer_factory.hpp:77] Creating layer relu2
I0428 20:02:30.509845 29957 net.cpp:86] Creating Layer relu2
I0428 20:02:30.509850 29957 net.cpp:408] relu2 <- ip2
I0428 20:02:30.509855 29957 net.cpp:369] relu2 -> ip2 (in-place)
I0428 20:02:30.510028 29957 net.cpp:124] Setting up relu2
I0428 20:02:30.510036 29957 net.cpp:131] Top shape: 100 25 (2500)
I0428 20:02:30.510040 29957 net.cpp:139] Memory required for data: 4854800
I0428 20:02:30.510043 29957 layer_factory.hpp:77] Creating layer ip3
I0428 20:02:30.510049 29957 net.cpp:86] Creating Layer ip3
I0428 20:02:30.510052 29957 net.cpp:408] ip3 <- ip2
I0428 20:02:30.510057 29957 net.cpp:382] ip3 -> ip3
I0428 20:02:30.510167 29957 net.cpp:124] Setting up ip3
I0428 20:02:30.510174 29957 net.cpp:131] Top shape: 100 10 (1000)
I0428 20:02:30.510177 29957 net.cpp:139] Memory required for data: 4858800
I0428 20:02:30.510185 29957 layer_factory.hpp:77] Creating layer relu3
I0428 20:02:30.510196 29957 net.cpp:86] Creating Layer relu3
I0428 20:02:30.510200 29957 net.cpp:408] relu3 <- ip3
I0428 20:02:30.510205 29957 net.cpp:369] relu3 -> ip3 (in-place)
I0428 20:02:30.510994 29957 net.cpp:124] Setting up relu3
I0428 20:02:30.511023 29957 net.cpp:131] Top shape: 100 10 (1000)
I0428 20:02:30.511026 29957 net.cpp:139] Memory required for data: 4862800
I0428 20:02:30.511030 29957 layer_factory.hpp:77] Creating layer ip3_relu3_0_split
I0428 20:02:30.511035 29957 net.cpp:86] Creating Layer ip3_relu3_0_split
I0428 20:02:30.511054 29957 net.cpp:408] ip3_relu3_0_split <- ip3
I0428 20:02:30.511059 29957 net.cpp:382] ip3_relu3_0_split -> ip3_relu3_0_split_0
I0428 20:02:30.511065 29957 net.cpp:382] ip3_relu3_0_split -> ip3_relu3_0_split_1
I0428 20:02:30.511126 29957 net.cpp:124] Setting up ip3_relu3_0_split
I0428 20:02:30.511137 29957 net.cpp:131] Top shape: 100 10 (1000)
I0428 20:02:30.511145 29957 net.cpp:131] Top shape: 100 10 (1000)
I0428 20:02:30.511148 29957 net.cpp:139] Memory required for data: 4870800
I0428 20:02:30.511155 29957 layer_factory.hpp:77] Creating layer accuracy
I0428 20:02:30.511160 29957 net.cpp:86] Creating Layer accuracy
I0428 20:02:30.511164 29957 net.cpp:408] accuracy <- ip3_relu3_0_split_0
I0428 20:02:30.511168 29957 net.cpp:408] accuracy <- label_mnist_1_split_0
I0428 20:02:30.511175 29957 net.cpp:382] accuracy -> accuracy
…
