…
I0428 20:21:41.369181  1807 net.cpp:296] The NetState phase (0) differed from the phase (1) specified by a rule in layer mnist
I0428 20:21:41.369197  1807 net.cpp:296] The NetState phase (0) differed from the phase (1) specified by a rule in layer accuracy
I0428 20:21:41.369307  1807 net.cpp:53] Initializing net from parameters: 
name: "LeNet"
state {
  phase: TRAIN
  level: 0
  stage: ""
}
layer {
  name: "mnist"
  type: "Data"
  top: "data"
  top: "label"
  include {
    phase: TRAIN
  }
  transform_param {
    scale: 0.00390625
  }
  data_param {
    source: "examples/mnist/mnist_train_lmdb"
    batch_size: 64
    backend: LMDB
  }
}
layer {
  name: "conv0"
  type: "Convolution"
  bottom: "data"
  top: "conv0"
  param {
    lr_mult: 1
  }
  param {
    lr_mult: 2
  }
  convolution_param {
    num_output: 50
    kernel_size: 5
    stride: 1
    weight_filler {
      type: "xavier"
    }
    bias_filler {
      type: "constant"
    }
  }
}
layer {
  name: "pool0"
  type: "Pooling"
  bottom: "conv0"
  top: "pool0"
  pooling_param {
    pool: MAX
    kernel_size: 2
    stride: 2
  }
}
layer {
  name: "conv1"
  type: "Convolution"
  bottom: "pool0"
  top: "conv1"
  param {
    lr_mult: 1
  }
  param {
    lr_mult: 2
  }
  convolution_param {
    num_output: 50
    kernel_size: 5
    stride: 1
    weight_filler {
      type: "xavier"
    }
    bias_filler {
      type: "constant"
    }
  }
}
layer {
  name: "pool1"
  type: "Pooling"
  bottom: "conv1"
  top: "pool1"
  pooling_param {
    pool: MAX
    kernel_size: 2
    stride: 2
  }
}
layer {
  name: "ip1"
  type: "InnerProduct"
  bottom: "pool1"
  top: "ip1"
  param {
    lr_mult: 1
  }
  param {
    lr_mult: 2
  }
  inner_product_param {
    num_output: 25
    weight_filler {
      type: "xavier"
    }
    bias_filler {
      type: "constant"
    }
  }
}
layer {
  name: "relu1"
  type: "ReLU"
  bottom: "ip1"
  top: "ip1"
}
layer {
  name: "ip2"
  type: "InnerProduct"
  bottom: "ip1"
  top: "ip2"
  param {
    lr_mult: 1
  }
  param {
    lr_mult: 2
  }
  inner_product_param {
    num_output: 25
    weight_filler {
      type: "xavier"
    }
    bias_filler {
      type: "constant"
    }
  }
}
layer {
  name: "relu2"
  type: "ReLU"
  bottom: "ip2"
  top: "ip2"
}
layer {
  name: "ip3"
  type: "InnerProduct"
  bottom: "ip2"
  top: "ip3"
  param {
    lr_mult: 1
  }
  param {
    lr_mult: 2
  }
  inner_product_param {
    num_output: 10
    weight_filler {
      type: "xavier"
    }
    bias_filler {
      type: "constant"
    }
  }
}
layer {
  name: "relu3"
  type: "ReLU"
  bottom: "ip3"
  top: "ip3"
}
layer {
  name: "loss"
  type: "SoftmaxWithLoss"
  bottom: "ip3"
  bottom: "label"
  top: "loss"
}
I0428 20:21:41.369372  1807 layer_factory.hpp:77] Creating layer mnist
I0428 20:21:41.369459  1807 db_lmdb.cpp:35] Opened lmdb examples/mnist/mnist_train_lmdb
I0428 20:21:41.369478  1807 net.cpp:86] Creating Layer mnist
I0428 20:21:41.369484  1807 net.cpp:382] mnist -> data
I0428 20:21:41.369503  1807 net.cpp:382] mnist -> label
I0428 20:21:41.370496  1807 data_layer.cpp:45] output data size: 64,1,28,28
I0428 20:21:41.372668  1807 net.cpp:124] Setting up mnist
I0428 20:21:41.372699  1807 net.cpp:131] Top shape: 64 1 28 28 (50176)
I0428 20:21:41.372704  1807 net.cpp:131] Top shape: 64 (64)
I0428 20:21:41.372706  1807 net.cpp:139] Memory required for data: 200960
I0428 20:21:41.372726  1807 layer_factory.hpp:77] Creating layer conv0
I0428 20:21:41.372740  1807 net.cpp:86] Creating Layer conv0
I0428 20:21:41.372757  1807 net.cpp:408] conv0 <- data
I0428 20:21:41.372767  1807 net.cpp:382] conv0 -> conv0
I0428 20:21:41.603014  1807 net.cpp:124] Setting up conv0
I0428 20:21:41.603041  1807 net.cpp:131] Top shape: 64 50 24 24 (1843200)
I0428 20:21:41.603045  1807 net.cpp:139] Memory required for data: 7573760
I0428 20:21:41.603060  1807 layer_factory.hpp:77] Creating layer pool0
I0428 20:21:41.603072  1807 net.cpp:86] Creating Layer pool0
I0428 20:21:41.603091  1807 net.cpp:408] pool0 <- conv0
I0428 20:21:41.603096  1807 net.cpp:382] pool0 -> pool0
I0428 20:21:41.603142  1807 net.cpp:124] Setting up pool0
I0428 20:21:41.603148  1807 net.cpp:131] Top shape: 64 50 12 12 (460800)
I0428 20:21:41.603152  1807 net.cpp:139] Memory required for data: 9416960
I0428 20:21:41.603154  1807 layer_factory.hpp:77] Creating layer conv1
I0428 20:21:41.603165  1807 net.cpp:86] Creating Layer conv1
I0428 20:21:41.603168  1807 net.cpp:408] conv1 <- pool0
I0428 20:21:41.603173  1807 net.cpp:382] conv1 -> conv1
I0428 20:21:41.605507  1807 net.cpp:124] Setting up conv1
I0428 20:21:41.605536  1807 net.cpp:131] Top shape: 64 50 8 8 (204800)
I0428 20:21:41.605540  1807 net.cpp:139] Memory required for data: 10236160
I0428 20:21:41.605548  1807 layer_factory.hpp:77] Creating layer pool1
I0428 20:21:41.605556  1807 net.cpp:86] Creating Layer pool1
I0428 20:21:41.605558  1807 net.cpp:408] pool1 <- conv1
I0428 20:21:41.605563  1807 net.cpp:382] pool1 -> pool1
I0428 20:21:41.605629  1807 net.cpp:124] Setting up pool1
I0428 20:21:41.605635  1807 net.cpp:131] Top shape: 64 50 4 4 (51200)
I0428 20:21:41.605638  1807 net.cpp:139] Memory required for data: 10440960
I0428 20:21:41.605641  1807 layer_factory.hpp:77] Creating layer ip1
I0428 20:21:41.605648  1807 net.cpp:86] Creating Layer ip1
I0428 20:21:41.605651  1807 net.cpp:408] ip1 <- pool1
I0428 20:21:41.605656  1807 net.cpp:382] ip1 -> ip1
I0428 20:21:41.605871  1807 net.cpp:124] Setting up ip1
I0428 20:21:41.605881  1807 net.cpp:131] Top shape: 64 25 (1600)
I0428 20:21:41.605885  1807 net.cpp:139] Memory required for data: 10447360
I0428 20:21:41.605892  1807 layer_factory.hpp:77] Creating layer relu1
I0428 20:21:41.605898  1807 net.cpp:86] Creating Layer relu1
I0428 20:21:41.605901  1807 net.cpp:408] relu1 <- ip1
I0428 20:21:41.605906  1807 net.cpp:369] relu1 -> ip1 (in-place)
I0428 20:21:41.606087  1807 net.cpp:124] Setting up relu1
I0428 20:21:41.606096  1807 net.cpp:131] Top shape: 64 25 (1600)
I0428 20:21:41.606098  1807 net.cpp:139] Memory required for data: 10453760
I0428 20:21:41.606101  1807 layer_factory.hpp:77] Creating layer ip2
I0428 20:21:41.606108  1807 net.cpp:86] Creating Layer ip2
I0428 20:21:41.606112  1807 net.cpp:408] ip2 <- ip1
I0428 20:21:41.606117  1807 net.cpp:382] ip2 -> ip2
I0428 20:21:41.606211  1807 net.cpp:124] Setting up ip2
I0428 20:21:41.606218  1807 net.cpp:131] Top shape: 64 25 (1600)
I0428 20:21:41.606221  1807 net.cpp:139] Memory required for data: 10460160
I0428 20:21:41.606226  1807 layer_factory.hpp:77] Creating layer relu2
I0428 20:21:41.606231  1807 net.cpp:86] Creating Layer relu2
I0428 20:21:41.606235  1807 net.cpp:408] relu2 <- ip2
I0428 20:21:41.606238  1807 net.cpp:369] relu2 -> ip2 (in-place)
I0428 20:21:41.607056  1807 net.cpp:124] Setting up relu2
I0428 20:21:41.607069  1807 net.cpp:131] Top shape: 64 25 (1600)
I0428 20:21:41.607086  1807 net.cpp:139] Memory required for data: 10466560
I0428 20:21:41.607089  1807 layer_factory.hpp:77] Creating layer ip3
I0428 20:21:41.607096  1807 net.cpp:86] Creating Layer ip3
I0428 20:21:41.607100  1807 net.cpp:408] ip3 <- ip2
I0428 20:21:41.607105  1807 net.cpp:382] ip3 -> ip3
I0428 20:21:41.607201  1807 net.cpp:124] Setting up ip3
I0428 20:21:41.607208  1807 net.cpp:131] Top shape: 64 10 (640)
I0428 20:21:41.607211  1807 net.cpp:139] Memory required for data: 10469120
I0428 20:21:41.607218  1807 layer_factory.hpp:77] Creating layer relu3
I0428 20:21:41.607223  1807 net.cpp:86] Creating Layer relu3
I0428 20:21:41.607225  1807 net.cpp:408] relu3 <- ip3
I0428 20:21:41.607230  1807 net.cpp:369] relu3 -> ip3 (in-place)
I0428 20:21:41.607414  1807 net.cpp:124] Setting up relu3
I0428 20:21:41.607422  1807 net.cpp:131] Top shape: 64 10 (640)
I0428 20:21:41.607425  1807 net.cpp:139] Memory required for data: 10471680
I0428 20:21:41.607429  1807 layer_factory.hpp:77] Creating layer loss
I0428 20:21:41.607435  1807 net.cpp:86] Creating Layer loss
I0428 20:21:41.607439  1807 net.cpp:408] loss <- ip3
I0428 20:21:41.607442  1807 net.cpp:408] loss <- label
I0428 20:21:41.607447  1807 net.cpp:382] loss -> loss
I0428 20:21:41.607461  1807 layer_factory.hpp:77] Creating layer loss
…
I0428 20:21:41.608172  1807 solver.cpp:173] Creating test net (#0) specified by net file: ECE595/mnist/train_test/var_everything2/lenet_train_test1389.prototxt
I0428 20:21:41.608208  1807 net.cpp:296] The NetState phase (1) differed from the phase (0) specified by a rule in layer mnist
I0428 20:21:41.608331  1807 net.cpp:53] Initializing net from parameters: 
name: "LeNet"
state {
  phase: TEST
}
layer {
  name: "mnist"
  type: "Data"
  top: "data"
  top: "label"
  include {
    phase: TEST
  }
  transform_param {
    scale: 0.00390625
  }
  data_param {
    source: "examples/mnist/mnist_test_lmdb"
    batch_size: 100
    backend: LMDB
  }
}
layer {
  name: "conv0"
  type: "Convolution"
  bottom: "data"
  top: "conv0"
  param {
    lr_mult: 1
  }
  param {
    lr_mult: 2
  }
  convolution_param {
    num_output: 50
    kernel_size: 5
    stride: 1
    weight_filler {
      type: "xavier"
    }
    bias_filler {
      type: "constant"
    }
  }
}
layer {
  name: "pool0"
  type: "Pooling"
  bottom: "conv0"
  top: "pool0"
  pooling_param {
    pool: MAX
    kernel_size: 2
    stride: 2
  }
}
layer {
  name: "conv1"
  type: "Convolution"
  bottom: "pool0"
  top: "conv1"
  param {
    lr_mult: 1
  }
  param {
    lr_mult: 2
  }
  convolution_param {
    num_output: 50
    kernel_size: 5
    stride: 1
    weight_filler {
      type: "xavier"
    }
    bias_filler {
      type: "constant"
    }
  }
}
layer {
  name: "pool1"
  type: "Pooling"
  bottom: "conv1"
  top: "pool1"
  pooling_param {
    pool: MAX
    kernel_size: 2
    stride: 2
  }
}
layer {
  name: "ip1"
  type: "InnerProduct"
  bottom: "pool1"
  top: "ip1"
  param {
    lr_mult: 1
  }
  param {
    lr_mult: 2
  }
  inner_product_param {
    num_output: 25
    weight_filler {
      type: "xavier"
    }
    bias_filler {
      type: "constant"
    }
  }
}
layer {
  name: "relu1"
  type: "ReLU"
  bottom: "ip1"
  top: "ip1"
}
layer {
  name: "ip2"
  type: "InnerProduct"
  bottom: "ip1"
  top: "ip2"
  param {
    lr_mult: 1
  }
  param {
    lr_mult: 2
  }
  inner_product_param {
    num_output: 25
    weight_filler {
      type: "xavier"
    }
    bias_filler {
      type: "constant"
    }
  }
}
layer {
  name: "relu2"
  type: "ReLU"
  bottom: "ip2"
  top: "ip2"
}
layer {
  name: "ip3"
  type: "InnerProduct"
  bottom: "ip2"
  top: "ip3"
  param {
    lr_mult: 1
  }
  param {
    lr_mult: 2
  }
  inner_product_param {
    num_output: 10
    weight_filler {
      type: "xavier"
    }
    bias_filler {
      type: "constant"
    }
  }
}
layer {
  name: "relu3"
  type: "ReLU"
  bottom: "ip3"
  top: "ip3"
}
layer {
  name: "accuracy"
  type: "Accuracy"
  bottom: "ip3"
  bottom: "label"
  top: "accuracy"
  include {
    phase: TEST
  }
}
layer {
  name: "loss"
  type: "SoftmaxWithLoss"
  bottom: "ip3"
  bottom: "label"
  top: "loss"
}
I0428 20:21:41.608412  1807 layer_factory.hpp:77] Creating layer mnist
I0428 20:21:41.608456  1807 db_lmdb.cpp:35] Opened lmdb examples/mnist/mnist_test_lmdb
I0428 20:21:41.608469  1807 net.cpp:86] Creating Layer mnist
I0428 20:21:41.608474  1807 net.cpp:382] mnist -> data
I0428 20:21:41.608481  1807 net.cpp:382] mnist -> label
I0428 20:21:41.608566  1807 data_layer.cpp:45] output data size: 100,1,28,28
I0428 20:21:41.610692  1807 net.cpp:124] Setting up mnist
I0428 20:21:41.610715  1807 net.cpp:131] Top shape: 100 1 28 28 (78400)
I0428 20:21:41.610719  1807 net.cpp:131] Top shape: 100 (100)
I0428 20:21:41.610723  1807 net.cpp:139] Memory required for data: 314000
I0428 20:21:41.610726  1807 layer_factory.hpp:77] Creating layer label_mnist_1_split
I0428 20:21:41.610733  1807 net.cpp:86] Creating Layer label_mnist_1_split
I0428 20:21:41.610735  1807 net.cpp:408] label_mnist_1_split <- label
I0428 20:21:41.610741  1807 net.cpp:382] label_mnist_1_split -> label_mnist_1_split_0
I0428 20:21:41.610747  1807 net.cpp:382] label_mnist_1_split -> label_mnist_1_split_1
I0428 20:21:41.610796  1807 net.cpp:124] Setting up label_mnist_1_split
I0428 20:21:41.610802  1807 net.cpp:131] Top shape: 100 (100)
I0428 20:21:41.610805  1807 net.cpp:131] Top shape: 100 (100)
I0428 20:21:41.610808  1807 net.cpp:139] Memory required for data: 314800
I0428 20:21:41.610811  1807 layer_factory.hpp:77] Creating layer conv0
I0428 20:21:41.610821  1807 net.cpp:86] Creating Layer conv0
I0428 20:21:41.610824  1807 net.cpp:408] conv0 <- data
I0428 20:21:41.610828  1807 net.cpp:382] conv0 -> conv0
I0428 20:21:41.612725  1807 net.cpp:124] Setting up conv0
I0428 20:21:41.612738  1807 net.cpp:131] Top shape: 100 50 24 24 (2880000)
I0428 20:21:41.612741  1807 net.cpp:139] Memory required for data: 11834800
I0428 20:21:41.612751  1807 layer_factory.hpp:77] Creating layer pool0
I0428 20:21:41.612756  1807 net.cpp:86] Creating Layer pool0
I0428 20:21:41.612759  1807 net.cpp:408] pool0 <- conv0
I0428 20:21:41.612764  1807 net.cpp:382] pool0 -> pool0
I0428 20:21:41.612799  1807 net.cpp:124] Setting up pool0
I0428 20:21:41.612805  1807 net.cpp:131] Top shape: 100 50 12 12 (720000)
I0428 20:21:41.612807  1807 net.cpp:139] Memory required for data: 14714800
I0428 20:21:41.612831  1807 layer_factory.hpp:77] Creating layer conv1
I0428 20:21:41.612840  1807 net.cpp:86] Creating Layer conv1
I0428 20:21:41.612843  1807 net.cpp:408] conv1 <- pool0
I0428 20:21:41.612848  1807 net.cpp:382] conv1 -> conv1
I0428 20:21:41.614969  1807 net.cpp:124] Setting up conv1
I0428 20:21:41.614980  1807 net.cpp:131] Top shape: 100 50 8 8 (320000)
I0428 20:21:41.614984  1807 net.cpp:139] Memory required for data: 15994800
I0428 20:21:41.614991  1807 layer_factory.hpp:77] Creating layer pool1
I0428 20:21:41.614998  1807 net.cpp:86] Creating Layer pool1
I0428 20:21:41.615016  1807 net.cpp:408] pool1 <- conv1
I0428 20:21:41.615020  1807 net.cpp:382] pool1 -> pool1
I0428 20:21:41.615072  1807 net.cpp:124] Setting up pool1
I0428 20:21:41.615078  1807 net.cpp:131] Top shape: 100 50 4 4 (80000)
I0428 20:21:41.615080  1807 net.cpp:139] Memory required for data: 16314800
I0428 20:21:41.615083  1807 layer_factory.hpp:77] Creating layer ip1
I0428 20:21:41.615089  1807 net.cpp:86] Creating Layer ip1
I0428 20:21:41.615093  1807 net.cpp:408] ip1 <- pool1
I0428 20:21:41.615097  1807 net.cpp:382] ip1 -> ip1
I0428 20:21:41.615316  1807 net.cpp:124] Setting up ip1
I0428 20:21:41.615324  1807 net.cpp:131] Top shape: 100 25 (2500)
I0428 20:21:41.615337  1807 net.cpp:139] Memory required for data: 16324800
I0428 20:21:41.615345  1807 layer_factory.hpp:77] Creating layer relu1
I0428 20:21:41.615351  1807 net.cpp:86] Creating Layer relu1
I0428 20:21:41.615355  1807 net.cpp:408] relu1 <- ip1
I0428 20:21:41.615360  1807 net.cpp:369] relu1 -> ip1 (in-place)
I0428 20:21:41.615537  1807 net.cpp:124] Setting up relu1
I0428 20:21:41.615545  1807 net.cpp:131] Top shape: 100 25 (2500)
I0428 20:21:41.615548  1807 net.cpp:139] Memory required for data: 16334800
I0428 20:21:41.615551  1807 layer_factory.hpp:77] Creating layer ip2
I0428 20:21:41.615567  1807 net.cpp:86] Creating Layer ip2
I0428 20:21:41.615571  1807 net.cpp:408] ip2 <- ip1
I0428 20:21:41.615576  1807 net.cpp:382] ip2 -> ip2
I0428 20:21:41.615679  1807 net.cpp:124] Setting up ip2
I0428 20:21:41.615687  1807 net.cpp:131] Top shape: 100 25 (2500)
I0428 20:21:41.615690  1807 net.cpp:139] Memory required for data: 16344800
I0428 20:21:41.615695  1807 layer_factory.hpp:77] Creating layer relu2
I0428 20:21:41.615700  1807 net.cpp:86] Creating Layer relu2
I0428 20:21:41.615702  1807 net.cpp:408] relu2 <- ip2
I0428 20:21:41.615707  1807 net.cpp:369] relu2 -> ip2 (in-place)
I0428 20:21:41.615883  1807 net.cpp:124] Setting up relu2
I0428 20:21:41.615892  1807 net.cpp:131] Top shape: 100 25 (2500)
I0428 20:21:41.615895  1807 net.cpp:139] Memory required for data: 16354800
I0428 20:21:41.615898  1807 layer_factory.hpp:77] Creating layer ip3
I0428 20:21:41.615903  1807 net.cpp:86] Creating Layer ip3
I0428 20:21:41.615912  1807 net.cpp:408] ip3 <- ip2
I0428 20:21:41.615918  1807 net.cpp:382] ip3 -> ip3
I0428 20:21:41.616016  1807 net.cpp:124] Setting up ip3
I0428 20:21:41.616024  1807 net.cpp:131] Top shape: 100 10 (1000)
I0428 20:21:41.616026  1807 net.cpp:139] Memory required for data: 16358800
I0428 20:21:41.616040  1807 layer_factory.hpp:77] Creating layer relu3
I0428 20:21:41.616045  1807 net.cpp:86] Creating Layer relu3
I0428 20:21:41.616049  1807 net.cpp:408] relu3 <- ip3
I0428 20:21:41.616052  1807 net.cpp:369] relu3 -> ip3 (in-place)
I0428 20:21:41.616879  1807 net.cpp:124] Setting up relu3
I0428 20:21:41.616894  1807 net.cpp:131] Top shape: 100 10 (1000)
I0428 20:21:41.616902  1807 net.cpp:139] Memory required for data: 16362800
I0428 20:21:41.616906  1807 layer_factory.hpp:77] Creating layer ip3_relu3_0_split
I0428 20:21:41.616911  1807 net.cpp:86] Creating Layer ip3_relu3_0_split
I0428 20:21:41.616914  1807 net.cpp:408] ip3_relu3_0_split <- ip3
I0428 20:21:41.616920  1807 net.cpp:382] ip3_relu3_0_split -> ip3_relu3_0_split_0
I0428 20:21:41.616926  1807 net.cpp:382] ip3_relu3_0_split -> ip3_relu3_0_split_1
I0428 20:21:41.616981  1807 net.cpp:124] Setting up ip3_relu3_0_split
I0428 20:21:41.616986  1807 net.cpp:131] Top shape: 100 10 (1000)
I0428 20:21:41.616989  1807 net.cpp:131] Top shape: 100 10 (1000)
I0428 20:21:41.616992  1807 net.cpp:139] Memory required for data: 16370800
I0428 20:21:41.616996  1807 layer_factory.hpp:77] Creating layer accuracy
I0428 20:21:41.617002  1807 net.cpp:86] Creating Layer accuracy
I0428 20:21:41.617004  1807 net.cpp:408] accuracy <- ip3_relu3_0_split_0
I0428 20:21:41.617009  1807 net.cpp:408] accuracy <- label_mnist_1_split_0
I0428 20:21:41.617014  1807 net.cpp:382] accuracy -> accuracy
…
