…
I0428 20:18:53.266072  1255 net.cpp:296] The NetState phase (0) differed from the phase (1) specified by a rule in layer mnist
I0428 20:18:53.266086  1255 net.cpp:296] The NetState phase (0) differed from the phase (1) specified by a rule in layer accuracy
I0428 20:18:53.266155  1255 net.cpp:53] Initializing net from parameters: 
name: "LeNet"
state {
  phase: TRAIN
  level: 0
  stage: ""
}
layer {
  name: "mnist"
  type: "Data"
  top: "data"
  top: "label"
  include {
    phase: TRAIN
  }
  transform_param {
    scale: 0.00390625
  }
  data_param {
    source: "examples/mnist/mnist_train_lmdb"
    batch_size: 64
    backend: LMDB
  }
}
layer {
  name: "conv0"
  type: "Convolution"
  bottom: "data"
  top: "conv0"
  param {
    lr_mult: 1
  }
  param {
    lr_mult: 2
  }
  convolution_param {
    num_output: 50
    kernel_size: 5
    stride: 1
    weight_filler {
      type: "xavier"
    }
    bias_filler {
      type: "constant"
    }
  }
}
layer {
  name: "pool0"
  type: "Pooling"
  bottom: "conv0"
  top: "pool0"
  pooling_param {
    pool: MAX
    kernel_size: 2
    stride: 2
  }
}
layer {
  name: "conv1"
  type: "Convolution"
  bottom: "pool0"
  top: "conv1"
  param {
    lr_mult: 1
  }
  param {
    lr_mult: 2
  }
  convolution_param {
    num_output: 25
    kernel_size: 5
    stride: 1
    weight_filler {
      type: "xavier"
    }
    bias_filler {
      type: "constant"
    }
  }
}
layer {
  name: "pool1"
  type: "Pooling"
  bottom: "conv1"
  top: "pool1"
  pooling_param {
    pool: MAX
    kernel_size: 2
    stride: 2
  }
}
layer {
  name: "ip1"
  type: "InnerProduct"
  bottom: "pool1"
  top: "ip1"
  param {
    lr_mult: 1
  }
  param {
    lr_mult: 2
  }
  inner_product_param {
    num_output: 10
    weight_filler {
      type: "xavier"
    }
    bias_filler {
      type: "constant"
    }
  }
}
layer {
  name: "relu1"
  type: "ReLU"
  bottom: "ip1"
  top: "ip1"
}
layer {
  name: "ip2"
  type: "InnerProduct"
  bottom: "ip1"
  top: "ip2"
  param {
    lr_mult: 1
  }
  param {
    lr_mult: 2
  }
  inner_product_param {
    num_output: 10
    weight_filler {
      type: "xavier"
    }
    bias_filler {
      type: "constant"
    }
  }
}
layer {
  name: "relu2"
  type: "ReLU"
  bottom: "ip2"
  top: "ip2"
}
layer {
  name: "loss"
  type: "SoftmaxWithLoss"
  bottom: "ip2"
  bottom: "label"
  top: "loss"
}
I0428 20:18:53.266214  1255 layer_factory.hpp:77] Creating layer mnist
I0428 20:18:53.266295  1255 db_lmdb.cpp:35] Opened lmdb examples/mnist/mnist_train_lmdb
I0428 20:18:53.266314  1255 net.cpp:86] Creating Layer mnist
I0428 20:18:53.266321  1255 net.cpp:382] mnist -> data
I0428 20:18:53.266338  1255 net.cpp:382] mnist -> label
I0428 20:18:53.267333  1255 data_layer.cpp:45] output data size: 64,1,28,28
I0428 20:18:53.269549  1255 net.cpp:124] Setting up mnist
I0428 20:18:53.269583  1255 net.cpp:131] Top shape: 64 1 28 28 (50176)
I0428 20:18:53.269588  1255 net.cpp:131] Top shape: 64 (64)
I0428 20:18:53.269592  1255 net.cpp:139] Memory required for data: 200960
I0428 20:18:53.269598  1255 layer_factory.hpp:77] Creating layer conv0
I0428 20:18:53.269611  1255 net.cpp:86] Creating Layer conv0
I0428 20:18:53.269616  1255 net.cpp:408] conv0 <- data
I0428 20:18:53.269625  1255 net.cpp:382] conv0 -> conv0
I0428 20:18:53.495959  1255 net.cpp:124] Setting up conv0
I0428 20:18:53.495983  1255 net.cpp:131] Top shape: 64 50 24 24 (1843200)
I0428 20:18:53.495987  1255 net.cpp:139] Memory required for data: 7573760
I0428 20:18:53.496018  1255 layer_factory.hpp:77] Creating layer pool0
I0428 20:18:53.496050  1255 net.cpp:86] Creating Layer pool0
I0428 20:18:53.496054  1255 net.cpp:408] pool0 <- conv0
I0428 20:18:53.496059  1255 net.cpp:382] pool0 -> pool0
I0428 20:18:53.496104  1255 net.cpp:124] Setting up pool0
I0428 20:18:53.496109  1255 net.cpp:131] Top shape: 64 50 12 12 (460800)
I0428 20:18:53.496111  1255 net.cpp:139] Memory required for data: 9416960
I0428 20:18:53.496114  1255 layer_factory.hpp:77] Creating layer conv1
I0428 20:18:53.496124  1255 net.cpp:86] Creating Layer conv1
I0428 20:18:53.496127  1255 net.cpp:408] conv1 <- pool0
I0428 20:18:53.496132  1255 net.cpp:382] conv1 -> conv1
I0428 20:18:53.498081  1255 net.cpp:124] Setting up conv1
I0428 20:18:53.498111  1255 net.cpp:131] Top shape: 64 25 8 8 (102400)
I0428 20:18:53.498116  1255 net.cpp:139] Memory required for data: 9826560
I0428 20:18:53.498123  1255 layer_factory.hpp:77] Creating layer pool1
I0428 20:18:53.498147  1255 net.cpp:86] Creating Layer pool1
I0428 20:18:53.498150  1255 net.cpp:408] pool1 <- conv1
I0428 20:18:53.498154  1255 net.cpp:382] pool1 -> pool1
I0428 20:18:53.498190  1255 net.cpp:124] Setting up pool1
I0428 20:18:53.498199  1255 net.cpp:131] Top shape: 64 25 4 4 (25600)
I0428 20:18:53.498203  1255 net.cpp:139] Memory required for data: 9928960
I0428 20:18:53.498205  1255 layer_factory.hpp:77] Creating layer ip1
I0428 20:18:53.498212  1255 net.cpp:86] Creating Layer ip1
I0428 20:18:53.498215  1255 net.cpp:408] ip1 <- pool1
I0428 20:18:53.498219  1255 net.cpp:382] ip1 -> ip1
I0428 20:18:53.498347  1255 net.cpp:124] Setting up ip1
I0428 20:18:53.498354  1255 net.cpp:131] Top shape: 64 10 (640)
I0428 20:18:53.498358  1255 net.cpp:139] Memory required for data: 9931520
I0428 20:18:53.498363  1255 layer_factory.hpp:77] Creating layer relu1
I0428 20:18:53.498368  1255 net.cpp:86] Creating Layer relu1
I0428 20:18:53.498371  1255 net.cpp:408] relu1 <- ip1
I0428 20:18:53.498375  1255 net.cpp:369] relu1 -> ip1 (in-place)
I0428 20:18:53.498530  1255 net.cpp:124] Setting up relu1
I0428 20:18:53.498539  1255 net.cpp:131] Top shape: 64 10 (640)
I0428 20:18:53.498541  1255 net.cpp:139] Memory required for data: 9934080
I0428 20:18:53.498544  1255 layer_factory.hpp:77] Creating layer ip2
I0428 20:18:53.498550  1255 net.cpp:86] Creating Layer ip2
I0428 20:18:53.498553  1255 net.cpp:408] ip2 <- ip1
I0428 20:18:53.498558  1255 net.cpp:382] ip2 -> ip2
I0428 20:18:53.498662  1255 net.cpp:124] Setting up ip2
I0428 20:18:53.498669  1255 net.cpp:131] Top shape: 64 10 (640)
I0428 20:18:53.498672  1255 net.cpp:139] Memory required for data: 9936640
I0428 20:18:53.498677  1255 layer_factory.hpp:77] Creating layer relu2
I0428 20:18:53.498683  1255 net.cpp:86] Creating Layer relu2
I0428 20:18:53.498687  1255 net.cpp:408] relu2 <- ip2
I0428 20:18:53.498690  1255 net.cpp:369] relu2 -> ip2 (in-place)
I0428 20:18:53.499445  1255 net.cpp:124] Setting up relu2
I0428 20:18:53.499456  1255 net.cpp:131] Top shape: 64 10 (640)
I0428 20:18:53.499475  1255 net.cpp:139] Memory required for data: 9939200
I0428 20:18:53.499478  1255 layer_factory.hpp:77] Creating layer loss
I0428 20:18:53.499485  1255 net.cpp:86] Creating Layer loss
I0428 20:18:53.499487  1255 net.cpp:408] loss <- ip2
I0428 20:18:53.499492  1255 net.cpp:408] loss <- label
I0428 20:18:53.499496  1255 net.cpp:382] loss -> loss
I0428 20:18:53.499516  1255 layer_factory.hpp:77] Creating layer loss
…
I0428 20:18:53.500074  1255 solver.cpp:173] Creating test net (#0) specified by net file: ECE595/mnist/train_test/var_everything2/lenet_train_test1329.prototxt
I0428 20:18:53.500098  1255 net.cpp:296] The NetState phase (1) differed from the phase (0) specified by a rule in layer mnist
I0428 20:18:53.500196  1255 net.cpp:53] Initializing net from parameters: 
name: "LeNet"
state {
  phase: TEST
}
layer {
  name: "mnist"
  type: "Data"
  top: "data"
  top: "label"
  include {
    phase: TEST
  }
  transform_param {
    scale: 0.00390625
  }
  data_param {
    source: "examples/mnist/mnist_test_lmdb"
    batch_size: 100
    backend: LMDB
  }
}
layer {
  name: "conv0"
  type: "Convolution"
  bottom: "data"
  top: "conv0"
  param {
    lr_mult: 1
  }
  param {
    lr_mult: 2
  }
  convolution_param {
    num_output: 50
    kernel_size: 5
    stride: 1
    weight_filler {
      type: "xavier"
    }
    bias_filler {
      type: "constant"
    }
  }
}
layer {
  name: "pool0"
  type: "Pooling"
  bottom: "conv0"
  top: "pool0"
  pooling_param {
    pool: MAX
    kernel_size: 2
    stride: 2
  }
}
layer {
  name: "conv1"
  type: "Convolution"
  bottom: "pool0"
  top: "conv1"
  param {
    lr_mult: 1
  }
  param {
    lr_mult: 2
  }
  convolution_param {
    num_output: 25
    kernel_size: 5
    stride: 1
    weight_filler {
      type: "xavier"
    }
    bias_filler {
      type: "constant"
    }
  }
}
layer {
  name: "pool1"
  type: "Pooling"
  bottom: "conv1"
  top: "pool1"
  pooling_param {
    pool: MAX
    kernel_size: 2
    stride: 2
  }
}
layer {
  name: "ip1"
  type: "InnerProduct"
  bottom: "pool1"
  top: "ip1"
  param {
    lr_mult: 1
  }
  param {
    lr_mult: 2
  }
  inner_product_param {
    num_output: 10
    weight_filler {
      type: "xavier"
    }
    bias_filler {
      type: "constant"
    }
  }
}
layer {
  name: "relu1"
  type: "ReLU"
  bottom: "ip1"
  top: "ip1"
}
layer {
  name: "ip2"
  type: "InnerProduct"
  bottom: "ip1"
  top: "ip2"
  param {
    lr_mult: 1
  }
  param {
    lr_mult: 2
  }
  inner_product_param {
    num_output: 10
    weight_filler {
      type: "xavier"
    }
    bias_filler {
      type: "constant"
    }
  }
}
layer {
  name: "relu2"
  type: "ReLU"
  bottom: "ip2"
  top: "ip2"
}
layer {
  name: "accuracy"
  type: "Accuracy"
  bottom: "ip2"
  bottom: "label"
  top: "accuracy"
  include {
    phase: TEST
  }
}
layer {
  name: "loss"
  type: "SoftmaxWithLoss"
  bottom: "ip2"
  bottom: "label"
  top: "loss"
}
I0428 20:18:53.500259  1255 layer_factory.hpp:77] Creating layer mnist
I0428 20:18:53.500304  1255 db_lmdb.cpp:35] Opened lmdb examples/mnist/mnist_test_lmdb
I0428 20:18:53.500316  1255 net.cpp:86] Creating Layer mnist
I0428 20:18:53.500320  1255 net.cpp:382] mnist -> data
I0428 20:18:53.500329  1255 net.cpp:382] mnist -> label
I0428 20:18:53.500411  1255 data_layer.cpp:45] output data size: 100,1,28,28
I0428 20:18:53.502581  1255 net.cpp:124] Setting up mnist
I0428 20:18:53.502611  1255 net.cpp:131] Top shape: 100 1 28 28 (78400)
I0428 20:18:53.502616  1255 net.cpp:131] Top shape: 100 (100)
I0428 20:18:53.502619  1255 net.cpp:139] Memory required for data: 314000
I0428 20:18:53.502638  1255 layer_factory.hpp:77] Creating layer label_mnist_1_split
I0428 20:18:53.502667  1255 net.cpp:86] Creating Layer label_mnist_1_split
I0428 20:18:53.502671  1255 net.cpp:408] label_mnist_1_split <- label
I0428 20:18:53.502678  1255 net.cpp:382] label_mnist_1_split -> label_mnist_1_split_0
I0428 20:18:53.502684  1255 net.cpp:382] label_mnist_1_split -> label_mnist_1_split_1
I0428 20:18:53.502784  1255 net.cpp:124] Setting up label_mnist_1_split
I0428 20:18:53.502792  1255 net.cpp:131] Top shape: 100 (100)
I0428 20:18:53.502796  1255 net.cpp:131] Top shape: 100 (100)
I0428 20:18:53.502799  1255 net.cpp:139] Memory required for data: 314800
I0428 20:18:53.502802  1255 layer_factory.hpp:77] Creating layer conv0
I0428 20:18:53.502812  1255 net.cpp:86] Creating Layer conv0
I0428 20:18:53.502816  1255 net.cpp:408] conv0 <- data
I0428 20:18:53.502821  1255 net.cpp:382] conv0 -> conv0
I0428 20:18:53.504616  1255 net.cpp:124] Setting up conv0
I0428 20:18:53.504658  1255 net.cpp:131] Top shape: 100 50 24 24 (2880000)
I0428 20:18:53.504662  1255 net.cpp:139] Memory required for data: 11834800
I0428 20:18:53.504672  1255 layer_factory.hpp:77] Creating layer pool0
I0428 20:18:53.504678  1255 net.cpp:86] Creating Layer pool0
I0428 20:18:53.504683  1255 net.cpp:408] pool0 <- conv0
I0428 20:18:53.504688  1255 net.cpp:382] pool0 -> pool0
I0428 20:18:53.504739  1255 net.cpp:124] Setting up pool0
I0428 20:18:53.504745  1255 net.cpp:131] Top shape: 100 50 12 12 (720000)
I0428 20:18:53.504750  1255 net.cpp:139] Memory required for data: 14714800
I0428 20:18:53.504752  1255 layer_factory.hpp:77] Creating layer conv1
I0428 20:18:53.504761  1255 net.cpp:86] Creating Layer conv1
I0428 20:18:53.504765  1255 net.cpp:408] conv1 <- pool0
I0428 20:18:53.504770  1255 net.cpp:382] conv1 -> conv1
I0428 20:18:53.506412  1255 net.cpp:124] Setting up conv1
I0428 20:18:53.506425  1255 net.cpp:131] Top shape: 100 25 8 8 (160000)
I0428 20:18:53.506429  1255 net.cpp:139] Memory required for data: 15354800
I0428 20:18:53.506438  1255 layer_factory.hpp:77] Creating layer pool1
I0428 20:18:53.506445  1255 net.cpp:86] Creating Layer pool1
I0428 20:18:53.506448  1255 net.cpp:408] pool1 <- conv1
I0428 20:18:53.506453  1255 net.cpp:382] pool1 -> pool1
I0428 20:18:53.506490  1255 net.cpp:124] Setting up pool1
I0428 20:18:53.506495  1255 net.cpp:131] Top shape: 100 25 4 4 (40000)
I0428 20:18:53.506498  1255 net.cpp:139] Memory required for data: 15514800
I0428 20:18:53.506501  1255 layer_factory.hpp:77] Creating layer ip1
I0428 20:18:53.506508  1255 net.cpp:86] Creating Layer ip1
I0428 20:18:53.506511  1255 net.cpp:408] ip1 <- pool1
I0428 20:18:53.506515  1255 net.cpp:382] ip1 -> ip1
I0428 20:18:53.506639  1255 net.cpp:124] Setting up ip1
I0428 20:18:53.506645  1255 net.cpp:131] Top shape: 100 10 (1000)
I0428 20:18:53.506649  1255 net.cpp:139] Memory required for data: 15518800
I0428 20:18:53.506655  1255 layer_factory.hpp:77] Creating layer relu1
I0428 20:18:53.506678  1255 net.cpp:86] Creating Layer relu1
I0428 20:18:53.506681  1255 net.cpp:408] relu1 <- ip1
I0428 20:18:53.506685  1255 net.cpp:369] relu1 -> ip1 (in-place)
I0428 20:18:53.506850  1255 net.cpp:124] Setting up relu1
I0428 20:18:53.506857  1255 net.cpp:131] Top shape: 100 10 (1000)
I0428 20:18:53.506861  1255 net.cpp:139] Memory required for data: 15522800
I0428 20:18:53.506865  1255 layer_factory.hpp:77] Creating layer ip2
I0428 20:18:53.506871  1255 net.cpp:86] Creating Layer ip2
I0428 20:18:53.506875  1255 net.cpp:408] ip2 <- ip1
I0428 20:18:53.506881  1255 net.cpp:382] ip2 -> ip2
I0428 20:18:53.506994  1255 net.cpp:124] Setting up ip2
I0428 20:18:53.507000  1255 net.cpp:131] Top shape: 100 10 (1000)
I0428 20:18:53.507004  1255 net.cpp:139] Memory required for data: 15526800
I0428 20:18:53.507009  1255 layer_factory.hpp:77] Creating layer relu2
I0428 20:18:53.507014  1255 net.cpp:86] Creating Layer relu2
I0428 20:18:53.507016  1255 net.cpp:408] relu2 <- ip2
I0428 20:18:53.507020  1255 net.cpp:369] relu2 -> ip2 (in-place)
I0428 20:18:53.507282  1255 net.cpp:124] Setting up relu2
I0428 20:18:53.507290  1255 net.cpp:131] Top shape: 100 10 (1000)
I0428 20:18:53.507293  1255 net.cpp:139] Memory required for data: 15530800
I0428 20:18:53.507297  1255 layer_factory.hpp:77] Creating layer ip2_relu2_0_split
I0428 20:18:53.507302  1255 net.cpp:86] Creating Layer ip2_relu2_0_split
I0428 20:18:53.507305  1255 net.cpp:408] ip2_relu2_0_split <- ip2
I0428 20:18:53.507309  1255 net.cpp:382] ip2_relu2_0_split -> ip2_relu2_0_split_0
I0428 20:18:53.507324  1255 net.cpp:382] ip2_relu2_0_split -> ip2_relu2_0_split_1
I0428 20:18:53.507362  1255 net.cpp:124] Setting up ip2_relu2_0_split
I0428 20:18:53.507369  1255 net.cpp:131] Top shape: 100 10 (1000)
I0428 20:18:53.507374  1255 net.cpp:131] Top shape: 100 10 (1000)
I0428 20:18:53.507376  1255 net.cpp:139] Memory required for data: 15538800
I0428 20:18:53.507378  1255 layer_factory.hpp:77] Creating layer accuracy
I0428 20:18:53.507385  1255 net.cpp:86] Creating Layer accuracy
I0428 20:18:53.507388  1255 net.cpp:408] accuracy <- ip2_relu2_0_split_0
I0428 20:18:53.507392  1255 net.cpp:408] accuracy <- label_mnist_1_split_0
I0428 20:18:53.507396  1255 net.cpp:382] accuracy -> accuracy
…
