…
I0428 20:13:44.807493 32511 net.cpp:296] The NetState phase (0) differed from the phase (1) specified by a rule in layer mnist
I0428 20:13:44.807512 32511 net.cpp:296] The NetState phase (0) differed from the phase (1) specified by a rule in layer accuracy
I0428 20:13:44.807613 32511 net.cpp:53] Initializing net from parameters: 
name: "LeNet"
state {
  phase: TRAIN
  level: 0
  stage: ""
}
layer {
  name: "mnist"
  type: "Data"
  top: "data"
  top: "label"
  include {
    phase: TRAIN
  }
  transform_param {
    scale: 0.00390625
  }
  data_param {
    source: "examples/mnist/mnist_train_lmdb"
    batch_size: 64
    backend: LMDB
  }
}
layer {
  name: "conv0"
  type: "Convolution"
  bottom: "data"
  top: "conv0"
  param {
    lr_mult: 1
  }
  param {
    lr_mult: 2
  }
  convolution_param {
    num_output: 25
    kernel_size: 5
    stride: 1
    weight_filler {
      type: "xavier"
    }
    bias_filler {
      type: "constant"
    }
  }
}
layer {
  name: "pool0"
  type: "Pooling"
  bottom: "conv0"
  top: "pool0"
  pooling_param {
    pool: MAX
    kernel_size: 2
    stride: 2
  }
}
layer {
  name: "conv1"
  type: "Convolution"
  bottom: "pool0"
  top: "conv1"
  param {
    lr_mult: 1
  }
  param {
    lr_mult: 2
  }
  convolution_param {
    num_output: 100
    kernel_size: 5
    stride: 1
    weight_filler {
      type: "xavier"
    }
    bias_filler {
      type: "constant"
    }
  }
}
layer {
  name: "pool1"
  type: "Pooling"
  bottom: "conv1"
  top: "pool1"
  pooling_param {
    pool: MAX
    kernel_size: 2
    stride: 2
  }
}
layer {
  name: "ip1"
  type: "InnerProduct"
  bottom: "pool1"
  top: "ip1"
  param {
    lr_mult: 1
  }
  param {
    lr_mult: 2
  }
  inner_product_param {
    num_output: 50
    weight_filler {
      type: "xavier"
    }
    bias_filler {
      type: "constant"
    }
  }
}
layer {
  name: "relu1"
  type: "ReLU"
  bottom: "ip1"
  top: "ip1"
}
layer {
  name: "ip2"
  type: "InnerProduct"
  bottom: "ip1"
  top: "ip2"
  param {
    lr_mult: 1
  }
  param {
    lr_mult: 2
  }
  inner_product_param {
    num_output: 25
    weight_filler {
      type: "xavier"
    }
    bias_filler {
      type: "constant"
    }
  }
}
layer {
  name: "relu2"
  type: "ReLU"
  bottom: "ip2"
  top: "ip2"
}
layer {
  name: "ip3"
  type: "InnerProduct"
  bottom: "ip2"
  top: "ip3"
  param {
    lr_mult: 1
  }
  param {
    lr_mult: 2
  }
  inner_product_param {
    num_output: 10
    weight_filler {
      type: "xavier"
    }
    bias_filler {
      type: "constant"
    }
  }
}
layer {
  name: "relu3"
  type: "ReLU"
  bottom: "ip3"
  top: "ip3"
}
layer {
  name: "loss"
  type: "SoftmaxWithLoss"
  bottom: "ip3"
  bottom: "label"
  top: "loss"
}
I0428 20:13:44.807696 32511 layer_factory.hpp:77] Creating layer mnist
I0428 20:13:44.807798 32511 db_lmdb.cpp:35] Opened lmdb examples/mnist/mnist_train_lmdb
I0428 20:13:44.807821 32511 net.cpp:86] Creating Layer mnist
I0428 20:13:44.807831 32511 net.cpp:382] mnist -> data
I0428 20:13:44.807852 32511 net.cpp:382] mnist -> label
I0428 20:13:44.808946 32511 data_layer.cpp:45] output data size: 64,1,28,28
I0428 20:13:44.811419 32511 net.cpp:124] Setting up mnist
I0428 20:13:44.811439 32511 net.cpp:131] Top shape: 64 1 28 28 (50176)
I0428 20:13:44.811450 32511 net.cpp:131] Top shape: 64 (64)
I0428 20:13:44.811455 32511 net.cpp:139] Memory required for data: 200960
I0428 20:13:44.811463 32511 layer_factory.hpp:77] Creating layer conv0
I0428 20:13:44.811480 32511 net.cpp:86] Creating Layer conv0
I0428 20:13:44.811501 32511 net.cpp:408] conv0 <- data
I0428 20:13:44.811512 32511 net.cpp:382] conv0 -> conv0
I0428 20:13:45.090561 32511 net.cpp:124] Setting up conv0
I0428 20:13:45.090605 32511 net.cpp:131] Top shape: 64 25 24 24 (921600)
I0428 20:13:45.090610 32511 net.cpp:139] Memory required for data: 3887360
I0428 20:13:45.090623 32511 layer_factory.hpp:77] Creating layer pool0
I0428 20:13:45.090636 32511 net.cpp:86] Creating Layer pool0
I0428 20:13:45.090641 32511 net.cpp:408] pool0 <- conv0
I0428 20:13:45.090646 32511 net.cpp:382] pool0 -> pool0
I0428 20:13:45.090704 32511 net.cpp:124] Setting up pool0
I0428 20:13:45.090709 32511 net.cpp:131] Top shape: 64 25 12 12 (230400)
I0428 20:13:45.090713 32511 net.cpp:139] Memory required for data: 4808960
I0428 20:13:45.090715 32511 layer_factory.hpp:77] Creating layer conv1
I0428 20:13:45.090740 32511 net.cpp:86] Creating Layer conv1
I0428 20:13:45.090744 32511 net.cpp:408] conv1 <- pool0
I0428 20:13:45.090747 32511 net.cpp:382] conv1 -> conv1
I0428 20:13:45.093031 32511 net.cpp:124] Setting up conv1
I0428 20:13:45.093060 32511 net.cpp:131] Top shape: 64 100 8 8 (409600)
I0428 20:13:45.093065 32511 net.cpp:139] Memory required for data: 6447360
I0428 20:13:45.093072 32511 layer_factory.hpp:77] Creating layer pool1
I0428 20:13:45.093081 32511 net.cpp:86] Creating Layer pool1
I0428 20:13:45.093086 32511 net.cpp:408] pool1 <- conv1
I0428 20:13:45.093091 32511 net.cpp:382] pool1 -> pool1
I0428 20:13:45.093168 32511 net.cpp:124] Setting up pool1
I0428 20:13:45.093183 32511 net.cpp:131] Top shape: 64 100 4 4 (102400)
I0428 20:13:45.093186 32511 net.cpp:139] Memory required for data: 6856960
I0428 20:13:45.093189 32511 layer_factory.hpp:77] Creating layer ip1
I0428 20:13:45.093196 32511 net.cpp:86] Creating Layer ip1
I0428 20:13:45.093199 32511 net.cpp:408] ip1 <- pool1
I0428 20:13:45.093204 32511 net.cpp:382] ip1 -> ip1
I0428 20:13:45.094565 32511 net.cpp:124] Setting up ip1
I0428 20:13:45.094578 32511 net.cpp:131] Top shape: 64 50 (3200)
I0428 20:13:45.094596 32511 net.cpp:139] Memory required for data: 6869760
I0428 20:13:45.094619 32511 layer_factory.hpp:77] Creating layer relu1
I0428 20:13:45.094625 32511 net.cpp:86] Creating Layer relu1
I0428 20:13:45.094629 32511 net.cpp:408] relu1 <- ip1
I0428 20:13:45.094632 32511 net.cpp:369] relu1 -> ip1 (in-place)
I0428 20:13:45.094841 32511 net.cpp:124] Setting up relu1
I0428 20:13:45.094849 32511 net.cpp:131] Top shape: 64 50 (3200)
I0428 20:13:45.094852 32511 net.cpp:139] Memory required for data: 6882560
I0428 20:13:45.094856 32511 layer_factory.hpp:77] Creating layer ip2
I0428 20:13:45.094861 32511 net.cpp:86] Creating Layer ip2
I0428 20:13:45.094866 32511 net.cpp:408] ip2 <- ip1
I0428 20:13:45.094869 32511 net.cpp:382] ip2 -> ip2
I0428 20:13:45.095831 32511 net.cpp:124] Setting up ip2
I0428 20:13:45.095844 32511 net.cpp:131] Top shape: 64 25 (1600)
I0428 20:13:45.095861 32511 net.cpp:139] Memory required for data: 6888960
I0428 20:13:45.095867 32511 layer_factory.hpp:77] Creating layer relu2
I0428 20:13:45.095873 32511 net.cpp:86] Creating Layer relu2
I0428 20:13:45.095877 32511 net.cpp:408] relu2 <- ip2
I0428 20:13:45.095881 32511 net.cpp:369] relu2 -> ip2 (in-place)
I0428 20:13:45.096693 32511 net.cpp:124] Setting up relu2
I0428 20:13:45.096704 32511 net.cpp:131] Top shape: 64 25 (1600)
I0428 20:13:45.096722 32511 net.cpp:139] Memory required for data: 6895360
I0428 20:13:45.096725 32511 layer_factory.hpp:77] Creating layer ip3
I0428 20:13:45.096732 32511 net.cpp:86] Creating Layer ip3
I0428 20:13:45.096735 32511 net.cpp:408] ip3 <- ip2
I0428 20:13:45.096741 32511 net.cpp:382] ip3 -> ip3
I0428 20:13:45.096884 32511 net.cpp:124] Setting up ip3
I0428 20:13:45.096894 32511 net.cpp:131] Top shape: 64 10 (640)
I0428 20:13:45.096896 32511 net.cpp:139] Memory required for data: 6897920
I0428 20:13:45.096904 32511 layer_factory.hpp:77] Creating layer relu3
I0428 20:13:45.096909 32511 net.cpp:86] Creating Layer relu3
I0428 20:13:45.096928 32511 net.cpp:408] relu3 <- ip3
I0428 20:13:45.096935 32511 net.cpp:369] relu3 -> ip3 (in-place)
I0428 20:13:45.097118 32511 net.cpp:124] Setting up relu3
I0428 20:13:45.097128 32511 net.cpp:131] Top shape: 64 10 (640)
I0428 20:13:45.097131 32511 net.cpp:139] Memory required for data: 6900480
I0428 20:13:45.097136 32511 layer_factory.hpp:77] Creating layer loss
I0428 20:13:45.097141 32511 net.cpp:86] Creating Layer loss
I0428 20:13:45.097144 32511 net.cpp:408] loss <- ip3
I0428 20:13:45.097149 32511 net.cpp:408] loss <- label
I0428 20:13:45.097168 32511 net.cpp:382] loss -> loss
I0428 20:13:45.097185 32511 layer_factory.hpp:77] Creating layer loss
…
I0428 20:13:45.097828 32511 solver.cpp:173] Creating test net (#0) specified by net file: ECE595/mnist/train_test/var_everything2/lenet_train_test1205.prototxt
I0428 20:13:45.097853 32511 net.cpp:296] The NetState phase (1) differed from the phase (0) specified by a rule in layer mnist
I0428 20:13:45.097935 32511 net.cpp:53] Initializing net from parameters: 
name: "LeNet"
state {
  phase: TEST
}
layer {
  name: "mnist"
  type: "Data"
  top: "data"
  top: "label"
  include {
    phase: TEST
  }
  transform_param {
    scale: 0.00390625
  }
  data_param {
    source: "examples/mnist/mnist_test_lmdb"
    batch_size: 100
    backend: LMDB
  }
}
layer {
  name: "conv0"
  type: "Convolution"
  bottom: "data"
  top: "conv0"
  param {
    lr_mult: 1
  }
  param {
    lr_mult: 2
  }
  convolution_param {
    num_output: 25
    kernel_size: 5
    stride: 1
    weight_filler {
      type: "xavier"
    }
    bias_filler {
      type: "constant"
    }
  }
}
layer {
  name: "pool0"
  type: "Pooling"
  bottom: "conv0"
  top: "pool0"
  pooling_param {
    pool: MAX
    kernel_size: 2
    stride: 2
  }
}
layer {
  name: "conv1"
  type: "Convolution"
  bottom: "pool0"
  top: "conv1"
  param {
    lr_mult: 1
  }
  param {
    lr_mult: 2
  }
  convolution_param {
    num_output: 100
    kernel_size: 5
    stride: 1
    weight_filler {
      type: "xavier"
    }
    bias_filler {
      type: "constant"
    }
  }
}
layer {
  name: "pool1"
  type: "Pooling"
  bottom: "conv1"
  top: "pool1"
  pooling_param {
    pool: MAX
    kernel_size: 2
    stride: 2
  }
}
layer {
  name: "ip1"
  type: "InnerProduct"
  bottom: "pool1"
  top: "ip1"
  param {
    lr_mult: 1
  }
  param {
    lr_mult: 2
  }
  inner_product_param {
    num_output: 50
    weight_filler {
      type: "xavier"
    }
    bias_filler {
      type: "constant"
    }
  }
}
layer {
  name: "relu1"
  type: "ReLU"
  bottom: "ip1"
  top: "ip1"
}
layer {
  name: "ip2"
  type: "InnerProduct"
  bottom: "ip1"
  top: "ip2"
  param {
    lr_mult: 1
  }
  param {
    lr_mult: 2
  }
  inner_product_param {
    num_output: 25
    weight_filler {
      type: "xavier"
    }
    bias_filler {
      type: "constant"
    }
  }
}
layer {
  name: "relu2"
  type: "ReLU"
  bottom: "ip2"
  top: "ip2"
}
layer {
  name: "ip3"
  type: "InnerProduct"
  bottom: "ip2"
  top: "ip3"
  param {
    lr_mult: 1
  }
  param {
    lr_mult: 2
  }
  inner_product_param {
    num_output: 10
    weight_filler {
      type: "xavier"
    }
    bias_filler {
      type: "constant"
    }
  }
}
layer {
  name: "relu3"
  type: "ReLU"
  bottom: "ip3"
  top: "ip3"
}
layer {
  name: "accuracy"
  type: "Accuracy"
  bottom: "ip3"
  bottom: "label"
  top: "accuracy"
  include {
    phase: TEST
  }
}
layer {
  name: "loss"
  type: "SoftmaxWithLoss"
  bottom: "ip3"
  bottom: "label"
  top: "loss"
}
I0428 20:13:45.098031 32511 layer_factory.hpp:77] Creating layer mnist
I0428 20:13:45.098075 32511 db_lmdb.cpp:35] Opened lmdb examples/mnist/mnist_test_lmdb
I0428 20:13:45.098088 32511 net.cpp:86] Creating Layer mnist
I0428 20:13:45.098091 32511 net.cpp:382] mnist -> data
I0428 20:13:45.098099 32511 net.cpp:382] mnist -> label
I0428 20:13:45.098194 32511 data_layer.cpp:45] output data size: 100,1,28,28
I0428 20:13:45.099341 32511 net.cpp:124] Setting up mnist
I0428 20:13:45.099385 32511 net.cpp:131] Top shape: 100 1 28 28 (78400)
I0428 20:13:45.099390 32511 net.cpp:131] Top shape: 100 (100)
I0428 20:13:45.099393 32511 net.cpp:139] Memory required for data: 314000
I0428 20:13:45.099397 32511 layer_factory.hpp:77] Creating layer label_mnist_1_split
I0428 20:13:45.099405 32511 net.cpp:86] Creating Layer label_mnist_1_split
I0428 20:13:45.099408 32511 net.cpp:408] label_mnist_1_split <- label
I0428 20:13:45.099413 32511 net.cpp:382] label_mnist_1_split -> label_mnist_1_split_0
I0428 20:13:45.099421 32511 net.cpp:382] label_mnist_1_split -> label_mnist_1_split_1
I0428 20:13:45.099470 32511 net.cpp:124] Setting up label_mnist_1_split
I0428 20:13:45.099475 32511 net.cpp:131] Top shape: 100 (100)
I0428 20:13:45.099479 32511 net.cpp:131] Top shape: 100 (100)
I0428 20:13:45.099498 32511 net.cpp:139] Memory required for data: 314800
I0428 20:13:45.099500 32511 layer_factory.hpp:77] Creating layer conv0
I0428 20:13:45.099519 32511 net.cpp:86] Creating Layer conv0
I0428 20:13:45.099521 32511 net.cpp:408] conv0 <- data
I0428 20:13:45.099526 32511 net.cpp:382] conv0 -> conv0
I0428 20:13:45.101285 32511 net.cpp:124] Setting up conv0
I0428 20:13:45.101315 32511 net.cpp:131] Top shape: 100 25 24 24 (1440000)
I0428 20:13:45.101318 32511 net.cpp:139] Memory required for data: 6074800
I0428 20:13:45.101326 32511 layer_factory.hpp:77] Creating layer pool0
I0428 20:13:45.101332 32511 net.cpp:86] Creating Layer pool0
I0428 20:13:45.101336 32511 net.cpp:408] pool0 <- conv0
I0428 20:13:45.101341 32511 net.cpp:382] pool0 -> pool0
I0428 20:13:45.101390 32511 net.cpp:124] Setting up pool0
I0428 20:13:45.101397 32511 net.cpp:131] Top shape: 100 25 12 12 (360000)
I0428 20:13:45.101398 32511 net.cpp:139] Memory required for data: 7514800
I0428 20:13:45.101402 32511 layer_factory.hpp:77] Creating layer conv1
I0428 20:13:45.101409 32511 net.cpp:86] Creating Layer conv1
I0428 20:13:45.101413 32511 net.cpp:408] conv1 <- pool0
I0428 20:13:45.101418 32511 net.cpp:382] conv1 -> conv1
I0428 20:13:45.103312 32511 net.cpp:124] Setting up conv1
I0428 20:13:45.103338 32511 net.cpp:131] Top shape: 100 100 8 8 (640000)
I0428 20:13:45.103343 32511 net.cpp:139] Memory required for data: 10074800
I0428 20:13:45.103351 32511 layer_factory.hpp:77] Creating layer pool1
I0428 20:13:45.103358 32511 net.cpp:86] Creating Layer pool1
I0428 20:13:45.103360 32511 net.cpp:408] pool1 <- conv1
I0428 20:13:45.103365 32511 net.cpp:382] pool1 -> pool1
I0428 20:13:45.103404 32511 net.cpp:124] Setting up pool1
I0428 20:13:45.103410 32511 net.cpp:131] Top shape: 100 100 4 4 (160000)
I0428 20:13:45.103412 32511 net.cpp:139] Memory required for data: 10714800
I0428 20:13:45.103415 32511 layer_factory.hpp:77] Creating layer ip1
I0428 20:13:45.103421 32511 net.cpp:86] Creating Layer ip1
I0428 20:13:45.103425 32511 net.cpp:408] ip1 <- pool1
I0428 20:13:45.103430 32511 net.cpp:382] ip1 -> ip1
I0428 20:13:45.104054 32511 net.cpp:124] Setting up ip1
I0428 20:13:45.104063 32511 net.cpp:131] Top shape: 100 50 (5000)
I0428 20:13:45.104090 32511 net.cpp:139] Memory required for data: 10734800
I0428 20:13:45.104099 32511 layer_factory.hpp:77] Creating layer relu1
I0428 20:13:45.104104 32511 net.cpp:86] Creating Layer relu1
I0428 20:13:45.104106 32511 net.cpp:408] relu1 <- ip1
I0428 20:13:45.104111 32511 net.cpp:369] relu1 -> ip1 (in-place)
I0428 20:13:45.104287 32511 net.cpp:124] Setting up relu1
I0428 20:13:45.104295 32511 net.cpp:131] Top shape: 100 50 (5000)
I0428 20:13:45.104298 32511 net.cpp:139] Memory required for data: 10754800
I0428 20:13:45.104302 32511 layer_factory.hpp:77] Creating layer ip2
I0428 20:13:45.104310 32511 net.cpp:86] Creating Layer ip2
I0428 20:13:45.104315 32511 net.cpp:408] ip2 <- ip1
I0428 20:13:45.104320 32511 net.cpp:382] ip2 -> ip2
I0428 20:13:45.104436 32511 net.cpp:124] Setting up ip2
I0428 20:13:45.104444 32511 net.cpp:131] Top shape: 100 25 (2500)
I0428 20:13:45.104446 32511 net.cpp:139] Memory required for data: 10764800
I0428 20:13:45.104452 32511 layer_factory.hpp:77] Creating layer relu2
I0428 20:13:45.104456 32511 net.cpp:86] Creating Layer relu2
I0428 20:13:45.104460 32511 net.cpp:408] relu2 <- ip2
I0428 20:13:45.104463 32511 net.cpp:369] relu2 -> ip2 (in-place)
I0428 20:13:45.104689 32511 net.cpp:124] Setting up relu2
I0428 20:13:45.104698 32511 net.cpp:131] Top shape: 100 25 (2500)
I0428 20:13:45.104701 32511 net.cpp:139] Memory required for data: 10774800
I0428 20:13:45.104704 32511 layer_factory.hpp:77] Creating layer ip3
I0428 20:13:45.104715 32511 net.cpp:86] Creating Layer ip3
I0428 20:13:45.104718 32511 net.cpp:408] ip3 <- ip2
I0428 20:13:45.104723 32511 net.cpp:382] ip3 -> ip3
I0428 20:13:45.104835 32511 net.cpp:124] Setting up ip3
I0428 20:13:45.104842 32511 net.cpp:131] Top shape: 100 10 (1000)
I0428 20:13:45.104873 32511 net.cpp:139] Memory required for data: 10778800
I0428 20:13:45.104882 32511 layer_factory.hpp:77] Creating layer relu3
I0428 20:13:45.104887 32511 net.cpp:86] Creating Layer relu3
I0428 20:13:45.104890 32511 net.cpp:408] relu3 <- ip3
I0428 20:13:45.104902 32511 net.cpp:369] relu3 -> ip3 (in-place)
I0428 20:13:45.105767 32511 net.cpp:124] Setting up relu3
I0428 20:13:45.105794 32511 net.cpp:131] Top shape: 100 10 (1000)
I0428 20:13:45.105811 32511 net.cpp:139] Memory required for data: 10782800
I0428 20:13:45.105815 32511 layer_factory.hpp:77] Creating layer ip3_relu3_0_split
I0428 20:13:45.105820 32511 net.cpp:86] Creating Layer ip3_relu3_0_split
I0428 20:13:45.105823 32511 net.cpp:408] ip3_relu3_0_split <- ip3
I0428 20:13:45.105829 32511 net.cpp:382] ip3_relu3_0_split -> ip3_relu3_0_split_0
I0428 20:13:45.105834 32511 net.cpp:382] ip3_relu3_0_split -> ip3_relu3_0_split_1
I0428 20:13:45.105870 32511 net.cpp:124] Setting up ip3_relu3_0_split
I0428 20:13:45.105875 32511 net.cpp:131] Top shape: 100 10 (1000)
I0428 20:13:45.105878 32511 net.cpp:131] Top shape: 100 10 (1000)
I0428 20:13:45.105881 32511 net.cpp:139] Memory required for data: 10790800
I0428 20:13:45.105890 32511 layer_factory.hpp:77] Creating layer accuracy
I0428 20:13:45.105895 32511 net.cpp:86] Creating Layer accuracy
I0428 20:13:45.105897 32511 net.cpp:408] accuracy <- ip3_relu3_0_split_0
I0428 20:13:45.105901 32511 net.cpp:408] accuracy <- label_mnist_1_split_0
I0428 20:13:45.105906 32511 net.cpp:382] accuracy -> accuracy
…
