…
I0428 20:19:09.283566  1305 net.cpp:296] The NetState phase (0) differed from the phase (1) specified by a rule in layer mnist
I0428 20:19:09.283591  1305 net.cpp:296] The NetState phase (0) differed from the phase (1) specified by a rule in layer accuracy
I0428 20:19:09.283680  1305 net.cpp:53] Initializing net from parameters: 
name: "LeNet"
state {
  phase: TRAIN
  level: 0
  stage: ""
}
layer {
  name: "mnist"
  type: "Data"
  top: "data"
  top: "label"
  include {
    phase: TRAIN
  }
  transform_param {
    scale: 0.00390625
  }
  data_param {
    source: "examples/mnist/mnist_train_lmdb"
    batch_size: 64
    backend: LMDB
  }
}
layer {
  name: "conv0"
  type: "Convolution"
  bottom: "data"
  top: "conv0"
  param {
    lr_mult: 1
  }
  param {
    lr_mult: 2
  }
  convolution_param {
    num_output: 50
    kernel_size: 5
    stride: 1
    weight_filler {
      type: "xavier"
    }
    bias_filler {
      type: "constant"
    }
  }
}
layer {
  name: "pool0"
  type: "Pooling"
  bottom: "conv0"
  top: "pool0"
  pooling_param {
    pool: MAX
    kernel_size: 2
    stride: 2
  }
}
layer {
  name: "conv1"
  type: "Convolution"
  bottom: "pool0"
  top: "conv1"
  param {
    lr_mult: 1
  }
  param {
    lr_mult: 2
  }
  convolution_param {
    num_output: 25
    kernel_size: 5
    stride: 1
    weight_filler {
      type: "xavier"
    }
    bias_filler {
      type: "constant"
    }
  }
}
layer {
  name: "pool1"
  type: "Pooling"
  bottom: "conv1"
  top: "pool1"
  pooling_param {
    pool: MAX
    kernel_size: 2
    stride: 2
  }
}
layer {
  name: "ip1"
  type: "InnerProduct"
  bottom: "pool1"
  top: "ip1"
  param {
    lr_mult: 1
  }
  param {
    lr_mult: 2
  }
  inner_product_param {
    num_output: 50
    weight_filler {
      type: "xavier"
    }
    bias_filler {
      type: "constant"
    }
  }
}
layer {
  name: "relu1"
  type: "ReLU"
  bottom: "ip1"
  top: "ip1"
}
layer {
  name: "ip2"
  type: "InnerProduct"
  bottom: "ip1"
  top: "ip2"
  param {
    lr_mult: 1
  }
  param {
    lr_mult: 2
  }
  inner_product_param {
    num_output: 10
    weight_filler {
      type: "xavier"
    }
    bias_filler {
      type: "constant"
    }
  }
}
layer {
  name: "relu2"
  type: "ReLU"
  bottom: "ip2"
  top: "ip2"
}
layer {
  name: "loss"
  type: "SoftmaxWithLoss"
  bottom: "ip2"
  bottom: "label"
  top: "loss"
}
I0428 20:19:09.283764  1305 layer_factory.hpp:77] Creating layer mnist
I0428 20:19:09.283864  1305 db_lmdb.cpp:35] Opened lmdb examples/mnist/mnist_train_lmdb
I0428 20:19:09.283886  1305 net.cpp:86] Creating Layer mnist
I0428 20:19:09.283895  1305 net.cpp:382] mnist -> data
I0428 20:19:09.283917  1305 net.cpp:382] mnist -> label
I0428 20:19:09.285014  1305 data_layer.cpp:45] output data size: 64,1,28,28
I0428 20:19:09.287469  1305 net.cpp:124] Setting up mnist
I0428 20:19:09.287487  1305 net.cpp:131] Top shape: 64 1 28 28 (50176)
I0428 20:19:09.287493  1305 net.cpp:131] Top shape: 64 (64)
I0428 20:19:09.287508  1305 net.cpp:139] Memory required for data: 200960
I0428 20:19:09.287515  1305 layer_factory.hpp:77] Creating layer conv0
I0428 20:19:09.287535  1305 net.cpp:86] Creating Layer conv0
I0428 20:19:09.287541  1305 net.cpp:408] conv0 <- data
I0428 20:19:09.287554  1305 net.cpp:382] conv0 -> conv0
I0428 20:19:09.535569  1305 net.cpp:124] Setting up conv0
I0428 20:19:09.535595  1305 net.cpp:131] Top shape: 64 50 24 24 (1843200)
I0428 20:19:09.535599  1305 net.cpp:139] Memory required for data: 7573760
I0428 20:19:09.535630  1305 layer_factory.hpp:77] Creating layer pool0
I0428 20:19:09.535643  1305 net.cpp:86] Creating Layer pool0
I0428 20:19:09.535647  1305 net.cpp:408] pool0 <- conv0
I0428 20:19:09.535668  1305 net.cpp:382] pool0 -> pool0
I0428 20:19:09.535713  1305 net.cpp:124] Setting up pool0
I0428 20:19:09.535719  1305 net.cpp:131] Top shape: 64 50 12 12 (460800)
I0428 20:19:09.535722  1305 net.cpp:139] Memory required for data: 9416960
I0428 20:19:09.535725  1305 layer_factory.hpp:77] Creating layer conv1
I0428 20:19:09.535737  1305 net.cpp:86] Creating Layer conv1
I0428 20:19:09.535739  1305 net.cpp:408] conv1 <- pool0
I0428 20:19:09.535743  1305 net.cpp:382] conv1 -> conv1
I0428 20:19:09.537747  1305 net.cpp:124] Setting up conv1
I0428 20:19:09.537776  1305 net.cpp:131] Top shape: 64 25 8 8 (102400)
I0428 20:19:09.537781  1305 net.cpp:139] Memory required for data: 9826560
I0428 20:19:09.537789  1305 layer_factory.hpp:77] Creating layer pool1
I0428 20:19:09.537797  1305 net.cpp:86] Creating Layer pool1
I0428 20:19:09.537801  1305 net.cpp:408] pool1 <- conv1
I0428 20:19:09.537806  1305 net.cpp:382] pool1 -> pool1
I0428 20:19:09.537842  1305 net.cpp:124] Setting up pool1
I0428 20:19:09.537847  1305 net.cpp:131] Top shape: 64 25 4 4 (25600)
I0428 20:19:09.537850  1305 net.cpp:139] Memory required for data: 9928960
I0428 20:19:09.537853  1305 layer_factory.hpp:77] Creating layer ip1
I0428 20:19:09.537859  1305 net.cpp:86] Creating Layer ip1
I0428 20:19:09.537863  1305 net.cpp:408] ip1 <- pool1
I0428 20:19:09.537868  1305 net.cpp:382] ip1 -> ip1
I0428 20:19:09.538084  1305 net.cpp:124] Setting up ip1
I0428 20:19:09.538091  1305 net.cpp:131] Top shape: 64 50 (3200)
I0428 20:19:09.538094  1305 net.cpp:139] Memory required for data: 9941760
I0428 20:19:09.538100  1305 layer_factory.hpp:77] Creating layer relu1
I0428 20:19:09.538106  1305 net.cpp:86] Creating Layer relu1
I0428 20:19:09.538110  1305 net.cpp:408] relu1 <- ip1
I0428 20:19:09.538113  1305 net.cpp:369] relu1 -> ip1 (in-place)
I0428 20:19:09.538269  1305 net.cpp:124] Setting up relu1
I0428 20:19:09.538277  1305 net.cpp:131] Top shape: 64 50 (3200)
I0428 20:19:09.538280  1305 net.cpp:139] Memory required for data: 9954560
I0428 20:19:09.538283  1305 layer_factory.hpp:77] Creating layer ip2
I0428 20:19:09.538290  1305 net.cpp:86] Creating Layer ip2
I0428 20:19:09.538293  1305 net.cpp:408] ip2 <- ip1
I0428 20:19:09.538297  1305 net.cpp:382] ip2 -> ip2
I0428 20:19:09.538385  1305 net.cpp:124] Setting up ip2
I0428 20:19:09.538391  1305 net.cpp:131] Top shape: 64 10 (640)
I0428 20:19:09.538394  1305 net.cpp:139] Memory required for data: 9957120
I0428 20:19:09.538399  1305 layer_factory.hpp:77] Creating layer relu2
I0428 20:19:09.538405  1305 net.cpp:86] Creating Layer relu2
I0428 20:19:09.538408  1305 net.cpp:408] relu2 <- ip2
I0428 20:19:09.538427  1305 net.cpp:369] relu2 -> ip2 (in-place)
I0428 20:19:09.539178  1305 net.cpp:124] Setting up relu2
I0428 20:19:09.539191  1305 net.cpp:131] Top shape: 64 10 (640)
I0428 20:19:09.539206  1305 net.cpp:139] Memory required for data: 9959680
I0428 20:19:09.539208  1305 layer_factory.hpp:77] Creating layer loss
I0428 20:19:09.539216  1305 net.cpp:86] Creating Layer loss
I0428 20:19:09.539218  1305 net.cpp:408] loss <- ip2
I0428 20:19:09.539222  1305 net.cpp:408] loss <- label
I0428 20:19:09.539227  1305 net.cpp:382] loss -> loss
I0428 20:19:09.539247  1305 layer_factory.hpp:77] Creating layer loss
…
I0428 20:19:09.539851  1305 solver.cpp:173] Creating test net (#0) specified by net file: ECE595/mnist/train_test/var_everything2/lenet_train_test1335.prototxt
I0428 20:19:09.539891  1305 net.cpp:296] The NetState phase (1) differed from the phase (0) specified by a rule in layer mnist
I0428 20:19:09.539973  1305 net.cpp:53] Initializing net from parameters: 
name: "LeNet"
state {
  phase: TEST
}
layer {
  name: "mnist"
  type: "Data"
  top: "data"
  top: "label"
  include {
    phase: TEST
  }
  transform_param {
    scale: 0.00390625
  }
  data_param {
    source: "examples/mnist/mnist_test_lmdb"
    batch_size: 100
    backend: LMDB
  }
}
layer {
  name: "conv0"
  type: "Convolution"
  bottom: "data"
  top: "conv0"
  param {
    lr_mult: 1
  }
  param {
    lr_mult: 2
  }
  convolution_param {
    num_output: 50
    kernel_size: 5
    stride: 1
    weight_filler {
      type: "xavier"
    }
    bias_filler {
      type: "constant"
    }
  }
}
layer {
  name: "pool0"
  type: "Pooling"
  bottom: "conv0"
  top: "pool0"
  pooling_param {
    pool: MAX
    kernel_size: 2
    stride: 2
  }
}
layer {
  name: "conv1"
  type: "Convolution"
  bottom: "pool0"
  top: "conv1"
  param {
    lr_mult: 1
  }
  param {
    lr_mult: 2
  }
  convolution_param {
    num_output: 25
    kernel_size: 5
    stride: 1
    weight_filler {
      type: "xavier"
    }
    bias_filler {
      type: "constant"
    }
  }
}
layer {
  name: "pool1"
  type: "Pooling"
  bottom: "conv1"
  top: "pool1"
  pooling_param {
    pool: MAX
    kernel_size: 2
    stride: 2
  }
}
layer {
  name: "ip1"
  type: "InnerProduct"
  bottom: "pool1"
  top: "ip1"
  param {
    lr_mult: 1
  }
  param {
    lr_mult: 2
  }
  inner_product_param {
    num_output: 50
    weight_filler {
      type: "xavier"
    }
    bias_filler {
      type: "constant"
    }
  }
}
layer {
  name: "relu1"
  type: "ReLU"
  bottom: "ip1"
  top: "ip1"
}
layer {
  name: "ip2"
  type: "InnerProduct"
  bottom: "ip1"
  top: "ip2"
  param {
    lr_mult: 1
  }
  param {
    lr_mult: 2
  }
  inner_product_param {
    num_output: 10
    weight_filler {
      type: "xavier"
    }
    bias_filler {
      type: "constant"
    }
  }
}
layer {
  name: "relu2"
  type: "ReLU"
  bottom: "ip2"
  top: "ip2"
}
layer {
  name: "accuracy"
  type: "Accuracy"
  bottom: "ip2"
  bottom: "label"
  top: "accuracy"
  include {
    phase: TEST
  }
}
layer {
  name: "loss"
  type: "SoftmaxWithLoss"
  bottom: "ip2"
  bottom: "label"
  top: "loss"
}
I0428 20:19:09.540035  1305 layer_factory.hpp:77] Creating layer mnist
I0428 20:19:09.540074  1305 db_lmdb.cpp:35] Opened lmdb examples/mnist/mnist_test_lmdb
I0428 20:19:09.540086  1305 net.cpp:86] Creating Layer mnist
I0428 20:19:09.540091  1305 net.cpp:382] mnist -> data
I0428 20:19:09.540098  1305 net.cpp:382] mnist -> label
I0428 20:19:09.540179  1305 data_layer.cpp:45] output data size: 100,1,28,28
I0428 20:19:09.542248  1305 net.cpp:124] Setting up mnist
I0428 20:19:09.542276  1305 net.cpp:131] Top shape: 100 1 28 28 (78400)
I0428 20:19:09.542280  1305 net.cpp:131] Top shape: 100 (100)
I0428 20:19:09.542284  1305 net.cpp:139] Memory required for data: 314000
I0428 20:19:09.542287  1305 layer_factory.hpp:77] Creating layer label_mnist_1_split
I0428 20:19:09.542323  1305 net.cpp:86] Creating Layer label_mnist_1_split
I0428 20:19:09.542327  1305 net.cpp:408] label_mnist_1_split <- label
I0428 20:19:09.542333  1305 net.cpp:382] label_mnist_1_split -> label_mnist_1_split_0
I0428 20:19:09.542342  1305 net.cpp:382] label_mnist_1_split -> label_mnist_1_split_1
I0428 20:19:09.542402  1305 net.cpp:124] Setting up label_mnist_1_split
I0428 20:19:09.542408  1305 net.cpp:131] Top shape: 100 (100)
I0428 20:19:09.542412  1305 net.cpp:131] Top shape: 100 (100)
I0428 20:19:09.542413  1305 net.cpp:139] Memory required for data: 314800
I0428 20:19:09.542417  1305 layer_factory.hpp:77] Creating layer conv0
I0428 20:19:09.542426  1305 net.cpp:86] Creating Layer conv0
I0428 20:19:09.542429  1305 net.cpp:408] conv0 <- data
I0428 20:19:09.542434  1305 net.cpp:382] conv0 -> conv0
I0428 20:19:09.544258  1305 net.cpp:124] Setting up conv0
I0428 20:19:09.544272  1305 net.cpp:131] Top shape: 100 50 24 24 (2880000)
I0428 20:19:09.544276  1305 net.cpp:139] Memory required for data: 11834800
I0428 20:19:09.544286  1305 layer_factory.hpp:77] Creating layer pool0
I0428 20:19:09.544307  1305 net.cpp:86] Creating Layer pool0
I0428 20:19:09.544311  1305 net.cpp:408] pool0 <- conv0
I0428 20:19:09.544317  1305 net.cpp:382] pool0 -> pool0
I0428 20:19:09.544350  1305 net.cpp:124] Setting up pool0
I0428 20:19:09.544355  1305 net.cpp:131] Top shape: 100 50 12 12 (720000)
I0428 20:19:09.544358  1305 net.cpp:139] Memory required for data: 14714800
I0428 20:19:09.544360  1305 layer_factory.hpp:77] Creating layer conv1
I0428 20:19:09.544371  1305 net.cpp:86] Creating Layer conv1
I0428 20:19:09.544374  1305 net.cpp:408] conv1 <- pool0
I0428 20:19:09.544379  1305 net.cpp:382] conv1 -> conv1
I0428 20:19:09.546219  1305 net.cpp:124] Setting up conv1
I0428 20:19:09.546233  1305 net.cpp:131] Top shape: 100 25 8 8 (160000)
I0428 20:19:09.546250  1305 net.cpp:139] Memory required for data: 15354800
I0428 20:19:09.546259  1305 layer_factory.hpp:77] Creating layer pool1
I0428 20:19:09.546265  1305 net.cpp:86] Creating Layer pool1
I0428 20:19:09.546269  1305 net.cpp:408] pool1 <- conv1
I0428 20:19:09.546277  1305 net.cpp:382] pool1 -> pool1
I0428 20:19:09.546314  1305 net.cpp:124] Setting up pool1
I0428 20:19:09.546319  1305 net.cpp:131] Top shape: 100 25 4 4 (40000)
I0428 20:19:09.546321  1305 net.cpp:139] Memory required for data: 15514800
I0428 20:19:09.546324  1305 layer_factory.hpp:77] Creating layer ip1
I0428 20:19:09.546331  1305 net.cpp:86] Creating Layer ip1
I0428 20:19:09.546335  1305 net.cpp:408] ip1 <- pool1
I0428 20:19:09.546347  1305 net.cpp:382] ip1 -> ip1
I0428 20:19:09.546576  1305 net.cpp:124] Setting up ip1
I0428 20:19:09.546586  1305 net.cpp:131] Top shape: 100 50 (5000)
I0428 20:19:09.546588  1305 net.cpp:139] Memory required for data: 15534800
I0428 20:19:09.546596  1305 layer_factory.hpp:77] Creating layer relu1
I0428 20:19:09.546599  1305 net.cpp:86] Creating Layer relu1
I0428 20:19:09.546603  1305 net.cpp:408] relu1 <- ip1
I0428 20:19:09.546615  1305 net.cpp:369] relu1 -> ip1 (in-place)
I0428 20:19:09.546778  1305 net.cpp:124] Setting up relu1
I0428 20:19:09.546787  1305 net.cpp:131] Top shape: 100 50 (5000)
I0428 20:19:09.546790  1305 net.cpp:139] Memory required for data: 15554800
I0428 20:19:09.546793  1305 layer_factory.hpp:77] Creating layer ip2
I0428 20:19:09.546802  1305 net.cpp:86] Creating Layer ip2
I0428 20:19:09.546804  1305 net.cpp:408] ip2 <- ip1
I0428 20:19:09.546815  1305 net.cpp:382] ip2 -> ip2
I0428 20:19:09.546917  1305 net.cpp:124] Setting up ip2
I0428 20:19:09.546924  1305 net.cpp:131] Top shape: 100 10 (1000)
I0428 20:19:09.546927  1305 net.cpp:139] Memory required for data: 15558800
I0428 20:19:09.546933  1305 layer_factory.hpp:77] Creating layer relu2
I0428 20:19:09.546937  1305 net.cpp:86] Creating Layer relu2
I0428 20:19:09.546941  1305 net.cpp:408] relu2 <- ip2
I0428 20:19:09.546952  1305 net.cpp:369] relu2 -> ip2 (in-place)
I0428 20:19:09.547104  1305 net.cpp:124] Setting up relu2
I0428 20:19:09.547112  1305 net.cpp:131] Top shape: 100 10 (1000)
I0428 20:19:09.547116  1305 net.cpp:139] Memory required for data: 15562800
I0428 20:19:09.547118  1305 layer_factory.hpp:77] Creating layer ip2_relu2_0_split
I0428 20:19:09.547130  1305 net.cpp:86] Creating Layer ip2_relu2_0_split
I0428 20:19:09.547133  1305 net.cpp:408] ip2_relu2_0_split <- ip2
I0428 20:19:09.547137  1305 net.cpp:382] ip2_relu2_0_split -> ip2_relu2_0_split_0
I0428 20:19:09.547153  1305 net.cpp:382] ip2_relu2_0_split -> ip2_relu2_0_split_1
I0428 20:19:09.547229  1305 net.cpp:124] Setting up ip2_relu2_0_split
I0428 20:19:09.547236  1305 net.cpp:131] Top shape: 100 10 (1000)
I0428 20:19:09.547240  1305 net.cpp:131] Top shape: 100 10 (1000)
I0428 20:19:09.547242  1305 net.cpp:139] Memory required for data: 15570800
I0428 20:19:09.547245  1305 layer_factory.hpp:77] Creating layer accuracy
I0428 20:19:09.547250  1305 net.cpp:86] Creating Layer accuracy
I0428 20:19:09.547253  1305 net.cpp:408] accuracy <- ip2_relu2_0_split_0
I0428 20:19:09.547258  1305 net.cpp:408] accuracy <- label_mnist_1_split_0
I0428 20:19:09.547263  1305 net.cpp:382] accuracy -> accuracy
…
