…
I0428 19:57:49.662212 28819 net.cpp:296] The NetState phase (0) differed from the phase (1) specified by a rule in layer mnist
I0428 19:57:49.662228 28819 net.cpp:296] The NetState phase (0) differed from the phase (1) specified by a rule in layer accuracy
I0428 19:57:49.662315 28819 net.cpp:53] Initializing net from parameters: 
name: "LeNet"
state {
  phase: TRAIN
  level: 0
  stage: ""
}
layer {
  name: "mnist"
  type: "Data"
  top: "data"
  top: "label"
  include {
    phase: TRAIN
  }
  transform_param {
    scale: 0.00390625
  }
  data_param {
    source: "examples/mnist/mnist_train_lmdb"
    batch_size: 64
    backend: LMDB
  }
}
layer {
  name: "conv0"
  type: "Convolution"
  bottom: "data"
  top: "conv0"
  param {
    lr_mult: 1
  }
  param {
    lr_mult: 2
  }
  convolution_param {
    num_output: 10
    kernel_size: 5
    stride: 1
    weight_filler {
      type: "xavier"
    }
    bias_filler {
      type: "constant"
    }
  }
}
layer {
  name: "pool0"
  type: "Pooling"
  bottom: "conv0"
  top: "pool0"
  pooling_param {
    pool: MAX
    kernel_size: 2
    stride: 2
  }
}
layer {
  name: "conv1"
  type: "Convolution"
  bottom: "pool0"
  top: "conv1"
  param {
    lr_mult: 1
  }
  param {
    lr_mult: 2
  }
  convolution_param {
    num_output: 5
    kernel_size: 5
    stride: 1
    weight_filler {
      type: "xavier"
    }
    bias_filler {
      type: "constant"
    }
  }
}
layer {
  name: "pool1"
  type: "Pooling"
  bottom: "conv1"
  top: "pool1"
  pooling_param {
    pool: MAX
    kernel_size: 2
    stride: 2
  }
}
layer {
  name: "ip1"
  type: "InnerProduct"
  bottom: "pool1"
  top: "ip1"
  param {
    lr_mult: 1
  }
  param {
    lr_mult: 2
  }
  inner_product_param {
    num_output: 10
    weight_filler {
      type: "xavier"
    }
    bias_filler {
      type: "constant"
    }
  }
}
layer {
  name: "relu1"
  type: "ReLU"
  bottom: "ip1"
  top: "ip1"
}
layer {
  name: "ip2"
  type: "InnerProduct"
  bottom: "ip1"
  top: "ip2"
  param {
    lr_mult: 1
  }
  param {
    lr_mult: 2
  }
  inner_product_param {
    num_output: 50
    weight_filler {
      type: "xavier"
    }
    bias_filler {
      type: "constant"
    }
  }
}
layer {
  name: "relu2"
  type: "ReLU"
  bottom: "ip2"
  top: "ip2"
}
layer {
  name: "ip3"
  type: "InnerProduct"
  bottom: "ip2"
  top: "ip3"
  param {
    lr_mult: 1
  }
  param {
    lr_mult: 2
  }
  inner_product_param {
    num_output: 10
    weight_filler {
      type: "xavier"
    }
    bias_filler {
      type: "constant"
    }
  }
}
layer {
  name: "relu3"
  type: "ReLU"
  bottom: "ip3"
  top: "ip3"
}
layer {
  name: "loss"
  type: "SoftmaxWithLoss"
  bottom: "ip3"
  bottom: "label"
  top: "loss"
}
I0428 19:57:49.662395 28819 layer_factory.hpp:77] Creating layer mnist
I0428 19:57:49.662479 28819 db_lmdb.cpp:35] Opened lmdb examples/mnist/mnist_train_lmdb
I0428 19:57:49.662498 28819 net.cpp:86] Creating Layer mnist
I0428 19:57:49.662505 28819 net.cpp:382] mnist -> data
I0428 19:57:49.662523 28819 net.cpp:382] mnist -> label
I0428 19:57:49.663523 28819 data_layer.cpp:45] output data size: 64,1,28,28
I0428 19:57:49.665647 28819 net.cpp:124] Setting up mnist
I0428 19:57:49.665663 28819 net.cpp:131] Top shape: 64 1 28 28 (50176)
I0428 19:57:49.665668 28819 net.cpp:131] Top shape: 64 (64)
I0428 19:57:49.665670 28819 net.cpp:139] Memory required for data: 200960
I0428 19:57:49.665676 28819 layer_factory.hpp:77] Creating layer conv0
I0428 19:57:49.665730 28819 net.cpp:86] Creating Layer conv0
I0428 19:57:49.665750 28819 net.cpp:408] conv0 <- data
I0428 19:57:49.665760 28819 net.cpp:382] conv0 -> conv0
I0428 19:57:49.895838 28819 net.cpp:124] Setting up conv0
I0428 19:57:49.895864 28819 net.cpp:131] Top shape: 64 10 24 24 (368640)
I0428 19:57:49.895867 28819 net.cpp:139] Memory required for data: 1675520
I0428 19:57:49.895882 28819 layer_factory.hpp:77] Creating layer pool0
I0428 19:57:49.895895 28819 net.cpp:86] Creating Layer pool0
I0428 19:57:49.895898 28819 net.cpp:408] pool0 <- conv0
I0428 19:57:49.895903 28819 net.cpp:382] pool0 -> pool0
I0428 19:57:49.895982 28819 net.cpp:124] Setting up pool0
I0428 19:57:49.895987 28819 net.cpp:131] Top shape: 64 10 12 12 (92160)
I0428 19:57:49.895990 28819 net.cpp:139] Memory required for data: 2044160
I0428 19:57:49.895993 28819 layer_factory.hpp:77] Creating layer conv1
I0428 19:57:49.896004 28819 net.cpp:86] Creating Layer conv1
I0428 19:57:49.896008 28819 net.cpp:408] conv1 <- pool0
I0428 19:57:49.896013 28819 net.cpp:382] conv1 -> conv1
I0428 19:57:49.898859 28819 net.cpp:124] Setting up conv1
I0428 19:57:49.898872 28819 net.cpp:131] Top shape: 64 5 8 8 (20480)
I0428 19:57:49.898892 28819 net.cpp:139] Memory required for data: 2126080
I0428 19:57:49.898900 28819 layer_factory.hpp:77] Creating layer pool1
I0428 19:57:49.898908 28819 net.cpp:86] Creating Layer pool1
I0428 19:57:49.898911 28819 net.cpp:408] pool1 <- conv1
I0428 19:57:49.898916 28819 net.cpp:382] pool1 -> pool1
I0428 19:57:49.898982 28819 net.cpp:124] Setting up pool1
I0428 19:57:49.898986 28819 net.cpp:131] Top shape: 64 5 4 4 (5120)
I0428 19:57:49.898989 28819 net.cpp:139] Memory required for data: 2146560
I0428 19:57:49.898993 28819 layer_factory.hpp:77] Creating layer ip1
I0428 19:57:49.899003 28819 net.cpp:86] Creating Layer ip1
I0428 19:57:49.899006 28819 net.cpp:408] ip1 <- pool1
I0428 19:57:49.899010 28819 net.cpp:382] ip1 -> ip1
I0428 19:57:49.899106 28819 net.cpp:124] Setting up ip1
I0428 19:57:49.899112 28819 net.cpp:131] Top shape: 64 10 (640)
I0428 19:57:49.899116 28819 net.cpp:139] Memory required for data: 2149120
I0428 19:57:49.899122 28819 layer_factory.hpp:77] Creating layer relu1
I0428 19:57:49.899128 28819 net.cpp:86] Creating Layer relu1
I0428 19:57:49.899132 28819 net.cpp:408] relu1 <- ip1
I0428 19:57:49.899135 28819 net.cpp:369] relu1 -> ip1 (in-place)
I0428 19:57:49.899322 28819 net.cpp:124] Setting up relu1
I0428 19:57:49.899330 28819 net.cpp:131] Top shape: 64 10 (640)
I0428 19:57:49.899333 28819 net.cpp:139] Memory required for data: 2151680
I0428 19:57:49.899336 28819 layer_factory.hpp:77] Creating layer ip2
I0428 19:57:49.899343 28819 net.cpp:86] Creating Layer ip2
I0428 19:57:49.899345 28819 net.cpp:408] ip2 <- ip1
I0428 19:57:49.899349 28819 net.cpp:382] ip2 -> ip2
I0428 19:57:49.899441 28819 net.cpp:124] Setting up ip2
I0428 19:57:49.899448 28819 net.cpp:131] Top shape: 64 50 (3200)
I0428 19:57:49.899451 28819 net.cpp:139] Memory required for data: 2164480
I0428 19:57:49.899456 28819 layer_factory.hpp:77] Creating layer relu2
I0428 19:57:49.899461 28819 net.cpp:86] Creating Layer relu2
I0428 19:57:49.899464 28819 net.cpp:408] relu2 <- ip2
I0428 19:57:49.899468 28819 net.cpp:369] relu2 -> ip2 (in-place)
I0428 19:57:49.900219 28819 net.cpp:124] Setting up relu2
I0428 19:57:49.900231 28819 net.cpp:131] Top shape: 64 50 (3200)
I0428 19:57:49.900235 28819 net.cpp:139] Memory required for data: 2177280
I0428 19:57:49.900238 28819 layer_factory.hpp:77] Creating layer ip3
I0428 19:57:49.900245 28819 net.cpp:86] Creating Layer ip3
I0428 19:57:49.900249 28819 net.cpp:408] ip3 <- ip2
I0428 19:57:49.900254 28819 net.cpp:382] ip3 -> ip3
I0428 19:57:49.900384 28819 net.cpp:124] Setting up ip3
I0428 19:57:49.900393 28819 net.cpp:131] Top shape: 64 10 (640)
I0428 19:57:49.900395 28819 net.cpp:139] Memory required for data: 2179840
I0428 19:57:49.900403 28819 layer_factory.hpp:77] Creating layer relu3
I0428 19:57:49.900408 28819 net.cpp:86] Creating Layer relu3
I0428 19:57:49.900410 28819 net.cpp:408] relu3 <- ip3
I0428 19:57:49.900414 28819 net.cpp:369] relu3 -> ip3 (in-place)
I0428 19:57:49.900576 28819 net.cpp:124] Setting up relu3
I0428 19:57:49.900585 28819 net.cpp:131] Top shape: 64 10 (640)
I0428 19:57:49.900588 28819 net.cpp:139] Memory required for data: 2182400
I0428 19:57:49.900591 28819 layer_factory.hpp:77] Creating layer loss
I0428 19:57:49.900598 28819 net.cpp:86] Creating Layer loss
I0428 19:57:49.900600 28819 net.cpp:408] loss <- ip3
I0428 19:57:49.900604 28819 net.cpp:408] loss <- label
I0428 19:57:49.900609 28819 net.cpp:382] loss -> loss
I0428 19:57:49.900627 28819 layer_factory.hpp:77] Creating layer loss
…
I0428 19:57:49.901372 28819 solver.cpp:173] Creating test net (#0) specified by net file: ECE595/mnist/train_test/var_everything2/lenet_train_test800.prototxt
I0428 19:57:49.901414 28819 net.cpp:296] The NetState phase (1) differed from the phase (0) specified by a rule in layer mnist
I0428 19:57:49.901540 28819 net.cpp:53] Initializing net from parameters: 
name: "LeNet"
state {
  phase: TEST
}
layer {
  name: "mnist"
  type: "Data"
  top: "data"
  top: "label"
  include {
    phase: TEST
  }
  transform_param {
    scale: 0.00390625
  }
  data_param {
    source: "examples/mnist/mnist_test_lmdb"
    batch_size: 100
    backend: LMDB
  }
}
layer {
  name: "conv0"
  type: "Convolution"
  bottom: "data"
  top: "conv0"
  param {
    lr_mult: 1
  }
  param {
    lr_mult: 2
  }
  convolution_param {
    num_output: 10
    kernel_size: 5
    stride: 1
    weight_filler {
      type: "xavier"
    }
    bias_filler {
      type: "constant"
    }
  }
}
layer {
  name: "pool0"
  type: "Pooling"
  bottom: "conv0"
  top: "pool0"
  pooling_param {
    pool: MAX
    kernel_size: 2
    stride: 2
  }
}
layer {
  name: "conv1"
  type: "Convolution"
  bottom: "pool0"
  top: "conv1"
  param {
    lr_mult: 1
  }
  param {
    lr_mult: 2
  }
  convolution_param {
    num_output: 5
    kernel_size: 5
    stride: 1
    weight_filler {
      type: "xavier"
    }
    bias_filler {
      type: "constant"
    }
  }
}
layer {
  name: "pool1"
  type: "Pooling"
  bottom: "conv1"
  top: "pool1"
  pooling_param {
    pool: MAX
    kernel_size: 2
    stride: 2
  }
}
layer {
  name: "ip1"
  type: "InnerProduct"
  bottom: "pool1"
  top: "ip1"
  param {
    lr_mult: 1
  }
  param {
    lr_mult: 2
  }
  inner_product_param {
    num_output: 10
    weight_filler {
      type: "xavier"
    }
    bias_filler {
      type: "constant"
    }
  }
}
layer {
  name: "relu1"
  type: "ReLU"
  bottom: "ip1"
  top: "ip1"
}
layer {
  name: "ip2"
  type: "InnerProduct"
  bottom: "ip1"
  top: "ip2"
  param {
    lr_mult: 1
  }
  param {
    lr_mult: 2
  }
  inner_product_param {
    num_output: 50
    weight_filler {
      type: "xavier"
    }
    bias_filler {
      type: "constant"
    }
  }
}
layer {
  name: "relu2"
  type: "ReLU"
  bottom: "ip2"
  top: "ip2"
}
layer {
  name: "ip3"
  type: "InnerProduct"
  bottom: "ip2"
  top: "ip3"
  param {
    lr_mult: 1
  }
  param {
    lr_mult: 2
  }
  inner_product_param {
    num_output: 10
    weight_filler {
      type: "xavier"
    }
    bias_filler {
      type: "constant"
    }
  }
}
layer {
  name: "relu3"
  type: "ReLU"
  bottom: "ip3"
  top: "ip3"
}
layer {
  name: "accuracy"
  type: "Accuracy"
  bottom: "ip3"
  bottom: "label"
  top: "accuracy"
  include {
    phase: TEST
  }
}
layer {
  name: "loss"
  type: "SoftmaxWithLoss"
  bottom: "ip3"
  bottom: "label"
  top: "loss"
}
I0428 19:57:49.901621 28819 layer_factory.hpp:77] Creating layer mnist
I0428 19:57:49.901682 28819 db_lmdb.cpp:35] Opened lmdb examples/mnist/mnist_test_lmdb
I0428 19:57:49.901696 28819 net.cpp:86] Creating Layer mnist
I0428 19:57:49.901700 28819 net.cpp:382] mnist -> data
I0428 19:57:49.901708 28819 net.cpp:382] mnist -> label
I0428 19:57:49.901818 28819 data_layer.cpp:45] output data size: 100,1,28,28
I0428 19:57:49.903833 28819 net.cpp:124] Setting up mnist
I0428 19:57:49.903861 28819 net.cpp:131] Top shape: 100 1 28 28 (78400)
I0428 19:57:49.903867 28819 net.cpp:131] Top shape: 100 (100)
I0428 19:57:49.903870 28819 net.cpp:139] Memory required for data: 314000
I0428 19:57:49.903873 28819 layer_factory.hpp:77] Creating layer label_mnist_1_split
I0428 19:57:49.903913 28819 net.cpp:86] Creating Layer label_mnist_1_split
I0428 19:57:49.903918 28819 net.cpp:408] label_mnist_1_split <- label
I0428 19:57:49.903923 28819 net.cpp:382] label_mnist_1_split -> label_mnist_1_split_0
I0428 19:57:49.903929 28819 net.cpp:382] label_mnist_1_split -> label_mnist_1_split_1
I0428 19:57:49.904053 28819 net.cpp:124] Setting up label_mnist_1_split
I0428 19:57:49.904062 28819 net.cpp:131] Top shape: 100 (100)
I0428 19:57:49.904080 28819 net.cpp:131] Top shape: 100 (100)
I0428 19:57:49.904083 28819 net.cpp:139] Memory required for data: 314800
I0428 19:57:49.904085 28819 layer_factory.hpp:77] Creating layer conv0
I0428 19:57:49.904093 28819 net.cpp:86] Creating Layer conv0
I0428 19:57:49.904096 28819 net.cpp:408] conv0 <- data
I0428 19:57:49.904101 28819 net.cpp:382] conv0 -> conv0
I0428 19:57:49.905872 28819 net.cpp:124] Setting up conv0
I0428 19:57:49.905886 28819 net.cpp:131] Top shape: 100 10 24 24 (576000)
I0428 19:57:49.905890 28819 net.cpp:139] Memory required for data: 2618800
I0428 19:57:49.905899 28819 layer_factory.hpp:77] Creating layer pool0
I0428 19:57:49.905905 28819 net.cpp:86] Creating Layer pool0
I0428 19:57:49.905925 28819 net.cpp:408] pool0 <- conv0
I0428 19:57:49.905930 28819 net.cpp:382] pool0 -> pool0
I0428 19:57:49.905966 28819 net.cpp:124] Setting up pool0
I0428 19:57:49.905971 28819 net.cpp:131] Top shape: 100 10 12 12 (144000)
I0428 19:57:49.905973 28819 net.cpp:139] Memory required for data: 3194800
I0428 19:57:49.905977 28819 layer_factory.hpp:77] Creating layer conv1
I0428 19:57:49.905984 28819 net.cpp:86] Creating Layer conv1
I0428 19:57:49.905988 28819 net.cpp:408] conv1 <- pool0
I0428 19:57:49.905992 28819 net.cpp:382] conv1 -> conv1
I0428 19:57:49.908074 28819 net.cpp:124] Setting up conv1
I0428 19:57:49.908087 28819 net.cpp:131] Top shape: 100 5 8 8 (32000)
I0428 19:57:49.908092 28819 net.cpp:139] Memory required for data: 3322800
I0428 19:57:49.908100 28819 layer_factory.hpp:77] Creating layer pool1
I0428 19:57:49.908121 28819 net.cpp:86] Creating Layer pool1
I0428 19:57:49.908125 28819 net.cpp:408] pool1 <- conv1
I0428 19:57:49.908145 28819 net.cpp:382] pool1 -> pool1
I0428 19:57:49.908182 28819 net.cpp:124] Setting up pool1
I0428 19:57:49.908188 28819 net.cpp:131] Top shape: 100 5 4 4 (8000)
I0428 19:57:49.908198 28819 net.cpp:139] Memory required for data: 3354800
I0428 19:57:49.908201 28819 layer_factory.hpp:77] Creating layer ip1
I0428 19:57:49.908206 28819 net.cpp:86] Creating Layer ip1
I0428 19:57:49.908210 28819 net.cpp:408] ip1 <- pool1
I0428 19:57:49.908219 28819 net.cpp:382] ip1 -> ip1
I0428 19:57:49.908324 28819 net.cpp:124] Setting up ip1
I0428 19:57:49.908332 28819 net.cpp:131] Top shape: 100 10 (1000)
I0428 19:57:49.908360 28819 net.cpp:139] Memory required for data: 3358800
I0428 19:57:49.908367 28819 layer_factory.hpp:77] Creating layer relu1
I0428 19:57:49.908373 28819 net.cpp:86] Creating Layer relu1
I0428 19:57:49.908375 28819 net.cpp:408] relu1 <- ip1
I0428 19:57:49.908380 28819 net.cpp:369] relu1 -> ip1 (in-place)
I0428 19:57:49.908646 28819 net.cpp:124] Setting up relu1
I0428 19:57:49.908670 28819 net.cpp:131] Top shape: 100 10 (1000)
I0428 19:57:49.908674 28819 net.cpp:139] Memory required for data: 3362800
I0428 19:57:49.908677 28819 layer_factory.hpp:77] Creating layer ip2
I0428 19:57:49.908684 28819 net.cpp:86] Creating Layer ip2
I0428 19:57:49.908686 28819 net.cpp:408] ip2 <- ip1
I0428 19:57:49.908692 28819 net.cpp:382] ip2 -> ip2
I0428 19:57:49.908844 28819 net.cpp:124] Setting up ip2
I0428 19:57:49.908854 28819 net.cpp:131] Top shape: 100 50 (5000)
I0428 19:57:49.908856 28819 net.cpp:139] Memory required for data: 3382800
I0428 19:57:49.908861 28819 layer_factory.hpp:77] Creating layer relu2
I0428 19:57:49.908872 28819 net.cpp:86] Creating Layer relu2
I0428 19:57:49.908875 28819 net.cpp:408] relu2 <- ip2
I0428 19:57:49.908880 28819 net.cpp:369] relu2 -> ip2 (in-place)
I0428 19:57:49.909067 28819 net.cpp:124] Setting up relu2
I0428 19:57:49.909075 28819 net.cpp:131] Top shape: 100 50 (5000)
I0428 19:57:49.909078 28819 net.cpp:139] Memory required for data: 3402800
I0428 19:57:49.909081 28819 layer_factory.hpp:77] Creating layer ip3
I0428 19:57:49.909088 28819 net.cpp:86] Creating Layer ip3
I0428 19:57:49.909091 28819 net.cpp:408] ip3 <- ip2
I0428 19:57:49.909096 28819 net.cpp:382] ip3 -> ip3
I0428 19:57:49.909276 28819 net.cpp:124] Setting up ip3
I0428 19:57:49.909282 28819 net.cpp:131] Top shape: 100 10 (1000)
I0428 19:57:49.909292 28819 net.cpp:139] Memory required for data: 3406800
I0428 19:57:49.909299 28819 layer_factory.hpp:77] Creating layer relu3
I0428 19:57:49.909307 28819 net.cpp:86] Creating Layer relu3
I0428 19:57:49.909309 28819 net.cpp:408] relu3 <- ip3
I0428 19:57:49.909313 28819 net.cpp:369] relu3 -> ip3 (in-place)
I0428 19:57:49.910128 28819 net.cpp:124] Setting up relu3
I0428 19:57:49.910140 28819 net.cpp:131] Top shape: 100 10 (1000)
I0428 19:57:49.910143 28819 net.cpp:139] Memory required for data: 3410800
I0428 19:57:49.910147 28819 layer_factory.hpp:77] Creating layer ip3_relu3_0_split
I0428 19:57:49.910151 28819 net.cpp:86] Creating Layer ip3_relu3_0_split
I0428 19:57:49.910156 28819 net.cpp:408] ip3_relu3_0_split <- ip3
I0428 19:57:49.910159 28819 net.cpp:382] ip3_relu3_0_split -> ip3_relu3_0_split_0
I0428 19:57:49.910166 28819 net.cpp:382] ip3_relu3_0_split -> ip3_relu3_0_split_1
I0428 19:57:49.910231 28819 net.cpp:124] Setting up ip3_relu3_0_split
I0428 19:57:49.910238 28819 net.cpp:131] Top shape: 100 10 (1000)
I0428 19:57:49.910240 28819 net.cpp:131] Top shape: 100 10 (1000)
I0428 19:57:49.910243 28819 net.cpp:139] Memory required for data: 3418800
I0428 19:57:49.910246 28819 layer_factory.hpp:77] Creating layer accuracy
I0428 19:57:49.910251 28819 net.cpp:86] Creating Layer accuracy
I0428 19:57:49.910260 28819 net.cpp:408] accuracy <- ip3_relu3_0_split_0
I0428 19:57:49.910264 28819 net.cpp:408] accuracy <- label_mnist_1_split_0
I0428 19:57:49.910269 28819 net.cpp:382] accuracy -> accuracy
…
