…
I0428 19:52:16.586007 27475 net.cpp:296] The NetState phase (0) differed from the phase (1) specified by a rule in layer mnist
I0428 19:52:16.586022 27475 net.cpp:296] The NetState phase (0) differed from the phase (1) specified by a rule in layer accuracy
I0428 19:52:16.586099 27475 net.cpp:53] Initializing net from parameters: 
name: "LeNet"
state {
  phase: TRAIN
  level: 0
  stage: ""
}
layer {
  name: "mnist"
  type: "Data"
  top: "data"
  top: "label"
  include {
    phase: TRAIN
  }
  transform_param {
    scale: 0.00390625
  }
  data_param {
    source: "examples/mnist/mnist_train_lmdb"
    batch_size: 64
    backend: LMDB
  }
}
layer {
  name: "conv0"
  type: "Convolution"
  bottom: "data"
  top: "conv0"
  param {
    lr_mult: 1
  }
  param {
    lr_mult: 2
  }
  convolution_param {
    num_output: 5
    kernel_size: 5
    stride: 1
    weight_filler {
      type: "xavier"
    }
    bias_filler {
      type: "constant"
    }
  }
}
layer {
  name: "pool0"
  type: "Pooling"
  bottom: "conv0"
  top: "pool0"
  pooling_param {
    pool: MAX
    kernel_size: 2
    stride: 2
  }
}
layer {
  name: "conv1"
  type: "Convolution"
  bottom: "pool0"
  top: "conv1"
  param {
    lr_mult: 1
  }
  param {
    lr_mult: 2
  }
  convolution_param {
    num_output: 25
    kernel_size: 5
    stride: 1
    weight_filler {
      type: "xavier"
    }
    bias_filler {
      type: "constant"
    }
  }
}
layer {
  name: "pool1"
  type: "Pooling"
  bottom: "conv1"
  top: "pool1"
  pooling_param {
    pool: MAX
    kernel_size: 2
    stride: 2
  }
}
layer {
  name: "ip1"
  type: "InnerProduct"
  bottom: "pool1"
  top: "ip1"
  param {
    lr_mult: 1
  }
  param {
    lr_mult: 2
  }
  inner_product_param {
    num_output: 50
    weight_filler {
      type: "xavier"
    }
    bias_filler {
      type: "constant"
    }
  }
}
layer {
  name: "relu1"
  type: "ReLU"
  bottom: "ip1"
  top: "ip1"
}
layer {
  name: "ip2"
  type: "InnerProduct"
  bottom: "ip1"
  top: "ip2"
  param {
    lr_mult: 1
  }
  param {
    lr_mult: 2
  }
  inner_product_param {
    num_output: 25
    weight_filler {
      type: "xavier"
    }
    bias_filler {
      type: "constant"
    }
  }
}
layer {
  name: "relu2"
  type: "ReLU"
  bottom: "ip2"
  top: "ip2"
}
layer {
  name: "ip3"
  type: "InnerProduct"
  bottom: "ip2"
  top: "ip3"
  param {
    lr_mult: 1
  }
  param {
    lr_mult: 2
  }
  inner_product_param {
    num_output: 10
    weight_filler {
      type: "xavier"
    }
    bias_filler {
      type: "constant"
    }
  }
}
layer {
  name: "relu3"
  type: "ReLU"
  bottom: "ip3"
  top: "ip3"
}
layer {
  name: "loss"
  type: "SoftmaxWithLoss"
  bottom: "ip3"
  bottom: "label"
  top: "loss"
}
I0428 19:52:16.586174 27475 layer_factory.hpp:77] Creating layer mnist
I0428 19:52:16.586256 27475 db_lmdb.cpp:35] Opened lmdb examples/mnist/mnist_train_lmdb
I0428 19:52:16.586274 27475 net.cpp:86] Creating Layer mnist
I0428 19:52:16.586280 27475 net.cpp:382] mnist -> data
I0428 19:52:16.586298 27475 net.cpp:382] mnist -> label
I0428 19:52:16.587224 27475 data_layer.cpp:45] output data size: 64,1,28,28
I0428 19:52:16.589465 27475 net.cpp:124] Setting up mnist
I0428 19:52:16.589506 27475 net.cpp:131] Top shape: 64 1 28 28 (50176)
I0428 19:52:16.589512 27475 net.cpp:131] Top shape: 64 (64)
I0428 19:52:16.589530 27475 net.cpp:139] Memory required for data: 200960
I0428 19:52:16.589536 27475 layer_factory.hpp:77] Creating layer conv0
I0428 19:52:16.589550 27475 net.cpp:86] Creating Layer conv0
I0428 19:52:16.589566 27475 net.cpp:408] conv0 <- data
I0428 19:52:16.589576 27475 net.cpp:382] conv0 -> conv0
I0428 19:52:16.815502 27475 net.cpp:124] Setting up conv0
I0428 19:52:16.815543 27475 net.cpp:131] Top shape: 64 5 24 24 (184320)
I0428 19:52:16.815548 27475 net.cpp:139] Memory required for data: 938240
I0428 19:52:16.815563 27475 layer_factory.hpp:77] Creating layer pool0
I0428 19:52:16.815575 27475 net.cpp:86] Creating Layer pool0
I0428 19:52:16.815579 27475 net.cpp:408] pool0 <- conv0
I0428 19:52:16.815584 27475 net.cpp:382] pool0 -> pool0
I0428 19:52:16.815647 27475 net.cpp:124] Setting up pool0
I0428 19:52:16.815654 27475 net.cpp:131] Top shape: 64 5 12 12 (46080)
I0428 19:52:16.815656 27475 net.cpp:139] Memory required for data: 1122560
I0428 19:52:16.815659 27475 layer_factory.hpp:77] Creating layer conv1
I0428 19:52:16.815670 27475 net.cpp:86] Creating Layer conv1
I0428 19:52:16.815673 27475 net.cpp:408] conv1 <- pool0
I0428 19:52:16.815677 27475 net.cpp:382] conv1 -> conv1
I0428 19:52:16.818450 27475 net.cpp:124] Setting up conv1
I0428 19:52:16.818466 27475 net.cpp:131] Top shape: 64 25 8 8 (102400)
I0428 19:52:16.818470 27475 net.cpp:139] Memory required for data: 1532160
I0428 19:52:16.818477 27475 layer_factory.hpp:77] Creating layer pool1
I0428 19:52:16.818486 27475 net.cpp:86] Creating Layer pool1
I0428 19:52:16.818490 27475 net.cpp:408] pool1 <- conv1
I0428 19:52:16.818509 27475 net.cpp:382] pool1 -> pool1
I0428 19:52:16.818549 27475 net.cpp:124] Setting up pool1
I0428 19:52:16.818554 27475 net.cpp:131] Top shape: 64 25 4 4 (25600)
I0428 19:52:16.818557 27475 net.cpp:139] Memory required for data: 1634560
I0428 19:52:16.818560 27475 layer_factory.hpp:77] Creating layer ip1
I0428 19:52:16.818572 27475 net.cpp:86] Creating Layer ip1
I0428 19:52:16.818575 27475 net.cpp:408] ip1 <- pool1
I0428 19:52:16.818579 27475 net.cpp:382] ip1 -> ip1
I0428 19:52:16.818796 27475 net.cpp:124] Setting up ip1
I0428 19:52:16.818804 27475 net.cpp:131] Top shape: 64 50 (3200)
I0428 19:52:16.818806 27475 net.cpp:139] Memory required for data: 1647360
I0428 19:52:16.818814 27475 layer_factory.hpp:77] Creating layer relu1
I0428 19:52:16.818819 27475 net.cpp:86] Creating Layer relu1
I0428 19:52:16.818823 27475 net.cpp:408] relu1 <- ip1
I0428 19:52:16.818827 27475 net.cpp:369] relu1 -> ip1 (in-place)
I0428 19:52:16.819016 27475 net.cpp:124] Setting up relu1
I0428 19:52:16.819025 27475 net.cpp:131] Top shape: 64 50 (3200)
I0428 19:52:16.819028 27475 net.cpp:139] Memory required for data: 1660160
I0428 19:52:16.819031 27475 layer_factory.hpp:77] Creating layer ip2
I0428 19:52:16.819038 27475 net.cpp:86] Creating Layer ip2
I0428 19:52:16.819041 27475 net.cpp:408] ip2 <- ip1
I0428 19:52:16.819046 27475 net.cpp:382] ip2 -> ip2
I0428 19:52:16.819162 27475 net.cpp:124] Setting up ip2
I0428 19:52:16.819169 27475 net.cpp:131] Top shape: 64 25 (1600)
I0428 19:52:16.819172 27475 net.cpp:139] Memory required for data: 1666560
I0428 19:52:16.819177 27475 layer_factory.hpp:77] Creating layer relu2
I0428 19:52:16.819183 27475 net.cpp:86] Creating Layer relu2
I0428 19:52:16.819187 27475 net.cpp:408] relu2 <- ip2
I0428 19:52:16.819192 27475 net.cpp:369] relu2 -> ip2 (in-place)
I0428 19:52:16.819921 27475 net.cpp:124] Setting up relu2
I0428 19:52:16.819934 27475 net.cpp:131] Top shape: 64 25 (1600)
I0428 19:52:16.819937 27475 net.cpp:139] Memory required for data: 1672960
I0428 19:52:16.819941 27475 layer_factory.hpp:77] Creating layer ip3
I0428 19:52:16.819949 27475 net.cpp:86] Creating Layer ip3
I0428 19:52:16.819952 27475 net.cpp:408] ip3 <- ip2
I0428 19:52:16.819957 27475 net.cpp:382] ip3 -> ip3
I0428 19:52:16.820057 27475 net.cpp:124] Setting up ip3
I0428 19:52:16.820065 27475 net.cpp:131] Top shape: 64 10 (640)
I0428 19:52:16.820068 27475 net.cpp:139] Memory required for data: 1675520
I0428 19:52:16.820075 27475 layer_factory.hpp:77] Creating layer relu3
I0428 19:52:16.820082 27475 net.cpp:86] Creating Layer relu3
I0428 19:52:16.820085 27475 net.cpp:408] relu3 <- ip3
I0428 19:52:16.820088 27475 net.cpp:369] relu3 -> ip3 (in-place)
I0428 19:52:16.820274 27475 net.cpp:124] Setting up relu3
I0428 19:52:16.820282 27475 net.cpp:131] Top shape: 64 10 (640)
I0428 19:52:16.820286 27475 net.cpp:139] Memory required for data: 1678080
I0428 19:52:16.820288 27475 layer_factory.hpp:77] Creating layer loss
I0428 19:52:16.820294 27475 net.cpp:86] Creating Layer loss
I0428 19:52:16.820298 27475 net.cpp:408] loss <- ip3
I0428 19:52:16.820302 27475 net.cpp:408] loss <- label
I0428 19:52:16.820307 27475 net.cpp:382] loss -> loss
I0428 19:52:16.820324 27475 layer_factory.hpp:77] Creating layer loss
…
I0428 19:52:16.820966 27475 solver.cpp:173] Creating test net (#0) specified by net file: ECE595/mnist/train_test/var_everything2/lenet_train_test657.prototxt
I0428 19:52:16.820996 27475 net.cpp:296] The NetState phase (1) differed from the phase (0) specified by a rule in layer mnist
I0428 19:52:16.821092 27475 net.cpp:53] Initializing net from parameters: 
name: "LeNet"
state {
  phase: TEST
}
layer {
  name: "mnist"
  type: "Data"
  top: "data"
  top: "label"
  include {
    phase: TEST
  }
  transform_param {
    scale: 0.00390625
  }
  data_param {
    source: "examples/mnist/mnist_test_lmdb"
    batch_size: 100
    backend: LMDB
  }
}
layer {
  name: "conv0"
  type: "Convolution"
  bottom: "data"
  top: "conv0"
  param {
    lr_mult: 1
  }
  param {
    lr_mult: 2
  }
  convolution_param {
    num_output: 5
    kernel_size: 5
    stride: 1
    weight_filler {
      type: "xavier"
    }
    bias_filler {
      type: "constant"
    }
  }
}
layer {
  name: "pool0"
  type: "Pooling"
  bottom: "conv0"
  top: "pool0"
  pooling_param {
    pool: MAX
    kernel_size: 2
    stride: 2
  }
}
layer {
  name: "conv1"
  type: "Convolution"
  bottom: "pool0"
  top: "conv1"
  param {
    lr_mult: 1
  }
  param {
    lr_mult: 2
  }
  convolution_param {
    num_output: 25
    kernel_size: 5
    stride: 1
    weight_filler {
      type: "xavier"
    }
    bias_filler {
      type: "constant"
    }
  }
}
layer {
  name: "pool1"
  type: "Pooling"
  bottom: "conv1"
  top: "pool1"
  pooling_param {
    pool: MAX
    kernel_size: 2
    stride: 2
  }
}
layer {
  name: "ip1"
  type: "InnerProduct"
  bottom: "pool1"
  top: "ip1"
  param {
    lr_mult: 1
  }
  param {
    lr_mult: 2
  }
  inner_product_param {
    num_output: 50
    weight_filler {
      type: "xavier"
    }
    bias_filler {
      type: "constant"
    }
  }
}
layer {
  name: "relu1"
  type: "ReLU"
  bottom: "ip1"
  top: "ip1"
}
layer {
  name: "ip2"
  type: "InnerProduct"
  bottom: "ip1"
  top: "ip2"
  param {
    lr_mult: 1
  }
  param {
    lr_mult: 2
  }
  inner_product_param {
    num_output: 25
    weight_filler {
      type: "xavier"
    }
    bias_filler {
      type: "constant"
    }
  }
}
layer {
  name: "relu2"
  type: "ReLU"
  bottom: "ip2"
  top: "ip2"
}
layer {
  name: "ip3"
  type: "InnerProduct"
  bottom: "ip2"
  top: "ip3"
  param {
    lr_mult: 1
  }
  param {
    lr_mult: 2
  }
  inner_product_param {
    num_output: 10
    weight_filler {
      type: "xavier"
    }
    bias_filler {
      type: "constant"
    }
  }
}
layer {
  name: "relu3"
  type: "ReLU"
  bottom: "ip3"
  top: "ip3"
}
layer {
  name: "accuracy"
  type: "Accuracy"
  bottom: "ip3"
  bottom: "label"
  top: "accuracy"
  include {
    phase: TEST
  }
}
layer {
  name: "loss"
  type: "SoftmaxWithLoss"
  bottom: "ip3"
  bottom: "label"
  top: "loss"
}
I0428 19:52:16.821204 27475 layer_factory.hpp:77] Creating layer mnist
I0428 19:52:16.821245 27475 db_lmdb.cpp:35] Opened lmdb examples/mnist/mnist_test_lmdb
I0428 19:52:16.821257 27475 net.cpp:86] Creating Layer mnist
I0428 19:52:16.821262 27475 net.cpp:382] mnist -> data
I0428 19:52:16.821285 27475 net.cpp:382] mnist -> label
I0428 19:52:16.821365 27475 data_layer.cpp:45] output data size: 100,1,28,28
I0428 19:52:16.823520 27475 net.cpp:124] Setting up mnist
I0428 19:52:16.823549 27475 net.cpp:131] Top shape: 100 1 28 28 (78400)
I0428 19:52:16.823570 27475 net.cpp:131] Top shape: 100 (100)
I0428 19:52:16.823572 27475 net.cpp:139] Memory required for data: 314000
I0428 19:52:16.823576 27475 layer_factory.hpp:77] Creating layer label_mnist_1_split
I0428 19:52:16.823586 27475 net.cpp:86] Creating Layer label_mnist_1_split
I0428 19:52:16.823590 27475 net.cpp:408] label_mnist_1_split <- label
I0428 19:52:16.823596 27475 net.cpp:382] label_mnist_1_split -> label_mnist_1_split_0
I0428 19:52:16.823602 27475 net.cpp:382] label_mnist_1_split -> label_mnist_1_split_1
I0428 19:52:16.823673 27475 net.cpp:124] Setting up label_mnist_1_split
I0428 19:52:16.823680 27475 net.cpp:131] Top shape: 100 (100)
I0428 19:52:16.823684 27475 net.cpp:131] Top shape: 100 (100)
I0428 19:52:16.823688 27475 net.cpp:139] Memory required for data: 314800
I0428 19:52:16.823690 27475 layer_factory.hpp:77] Creating layer conv0
I0428 19:52:16.823701 27475 net.cpp:86] Creating Layer conv0
I0428 19:52:16.823705 27475 net.cpp:408] conv0 <- data
I0428 19:52:16.823710 27475 net.cpp:382] conv0 -> conv0
I0428 19:52:16.825377 27475 net.cpp:124] Setting up conv0
I0428 19:52:16.825393 27475 net.cpp:131] Top shape: 100 5 24 24 (288000)
I0428 19:52:16.825412 27475 net.cpp:139] Memory required for data: 1466800
I0428 19:52:16.825423 27475 layer_factory.hpp:77] Creating layer pool0
I0428 19:52:16.825446 27475 net.cpp:86] Creating Layer pool0
I0428 19:52:16.825450 27475 net.cpp:408] pool0 <- conv0
I0428 19:52:16.825456 27475 net.cpp:382] pool0 -> pool0
I0428 19:52:16.825494 27475 net.cpp:124] Setting up pool0
I0428 19:52:16.825498 27475 net.cpp:131] Top shape: 100 5 12 12 (72000)
I0428 19:52:16.825502 27475 net.cpp:139] Memory required for data: 1754800
I0428 19:52:16.825505 27475 layer_factory.hpp:77] Creating layer conv1
I0428 19:52:16.825515 27475 net.cpp:86] Creating Layer conv1
I0428 19:52:16.825518 27475 net.cpp:408] conv1 <- pool0
I0428 19:52:16.825523 27475 net.cpp:382] conv1 -> conv1
I0428 19:52:16.827782 27475 net.cpp:124] Setting up conv1
I0428 19:52:16.827795 27475 net.cpp:131] Top shape: 100 25 8 8 (160000)
I0428 19:52:16.827798 27475 net.cpp:139] Memory required for data: 2394800
I0428 19:52:16.827810 27475 layer_factory.hpp:77] Creating layer pool1
I0428 19:52:16.827816 27475 net.cpp:86] Creating Layer pool1
I0428 19:52:16.827818 27475 net.cpp:408] pool1 <- conv1
I0428 19:52:16.827839 27475 net.cpp:382] pool1 -> pool1
I0428 19:52:16.827930 27475 net.cpp:124] Setting up pool1
I0428 19:52:16.827937 27475 net.cpp:131] Top shape: 100 25 4 4 (40000)
I0428 19:52:16.827940 27475 net.cpp:139] Memory required for data: 2554800
I0428 19:52:16.827944 27475 layer_factory.hpp:77] Creating layer ip1
I0428 19:52:16.827950 27475 net.cpp:86] Creating Layer ip1
I0428 19:52:16.827953 27475 net.cpp:408] ip1 <- pool1
I0428 19:52:16.827960 27475 net.cpp:382] ip1 -> ip1
I0428 19:52:16.828176 27475 net.cpp:124] Setting up ip1
I0428 19:52:16.828183 27475 net.cpp:131] Top shape: 100 50 (5000)
I0428 19:52:16.828197 27475 net.cpp:139] Memory required for data: 2574800
I0428 19:52:16.828204 27475 layer_factory.hpp:77] Creating layer relu1
I0428 19:52:16.828212 27475 net.cpp:86] Creating Layer relu1
I0428 19:52:16.828214 27475 net.cpp:408] relu1 <- ip1
I0428 19:52:16.828219 27475 net.cpp:369] relu1 -> ip1 (in-place)
I0428 19:52:16.828413 27475 net.cpp:124] Setting up relu1
I0428 19:52:16.828423 27475 net.cpp:131] Top shape: 100 50 (5000)
I0428 19:52:16.828425 27475 net.cpp:139] Memory required for data: 2594800
I0428 19:52:16.828428 27475 layer_factory.hpp:77] Creating layer ip2
I0428 19:52:16.828436 27475 net.cpp:86] Creating Layer ip2
I0428 19:52:16.828439 27475 net.cpp:408] ip2 <- ip1
I0428 19:52:16.828444 27475 net.cpp:382] ip2 -> ip2
I0428 19:52:16.828552 27475 net.cpp:124] Setting up ip2
I0428 19:52:16.828558 27475 net.cpp:131] Top shape: 100 25 (2500)
I0428 19:52:16.828562 27475 net.cpp:139] Memory required for data: 2604800
I0428 19:52:16.828567 27475 layer_factory.hpp:77] Creating layer relu2
I0428 19:52:16.828572 27475 net.cpp:86] Creating Layer relu2
I0428 19:52:16.828574 27475 net.cpp:408] relu2 <- ip2
I0428 19:52:16.828578 27475 net.cpp:369] relu2 -> ip2 (in-place)
I0428 19:52:16.828760 27475 net.cpp:124] Setting up relu2
I0428 19:52:16.828768 27475 net.cpp:131] Top shape: 100 25 (2500)
I0428 19:52:16.828771 27475 net.cpp:139] Memory required for data: 2614800
I0428 19:52:16.828774 27475 layer_factory.hpp:77] Creating layer ip3
I0428 19:52:16.828780 27475 net.cpp:86] Creating Layer ip3
I0428 19:52:16.828783 27475 net.cpp:408] ip3 <- ip2
I0428 19:52:16.828791 27475 net.cpp:382] ip3 -> ip3
I0428 19:52:16.828933 27475 net.cpp:124] Setting up ip3
I0428 19:52:16.828940 27475 net.cpp:131] Top shape: 100 10 (1000)
I0428 19:52:16.828944 27475 net.cpp:139] Memory required for data: 2618800
I0428 19:52:16.828953 27475 layer_factory.hpp:77] Creating layer relu3
I0428 19:52:16.828971 27475 net.cpp:86] Creating Layer relu3
I0428 19:52:16.828974 27475 net.cpp:408] relu3 <- ip3
I0428 19:52:16.828979 27475 net.cpp:369] relu3 -> ip3 (in-place)
I0428 19:52:16.829761 27475 net.cpp:124] Setting up relu3
I0428 19:52:16.829772 27475 net.cpp:131] Top shape: 100 10 (1000)
I0428 19:52:16.829777 27475 net.cpp:139] Memory required for data: 2622800
I0428 19:52:16.829779 27475 layer_factory.hpp:77] Creating layer ip3_relu3_0_split
I0428 19:52:16.829784 27475 net.cpp:86] Creating Layer ip3_relu3_0_split
I0428 19:52:16.829788 27475 net.cpp:408] ip3_relu3_0_split <- ip3
I0428 19:52:16.829794 27475 net.cpp:382] ip3_relu3_0_split -> ip3_relu3_0_split_0
I0428 19:52:16.829800 27475 net.cpp:382] ip3_relu3_0_split -> ip3_relu3_0_split_1
I0428 19:52:16.829838 27475 net.cpp:124] Setting up ip3_relu3_0_split
I0428 19:52:16.829845 27475 net.cpp:131] Top shape: 100 10 (1000)
I0428 19:52:16.829850 27475 net.cpp:131] Top shape: 100 10 (1000)
I0428 19:52:16.829854 27475 net.cpp:139] Memory required for data: 2630800
I0428 19:52:16.829856 27475 layer_factory.hpp:77] Creating layer accuracy
I0428 19:52:16.829861 27475 net.cpp:86] Creating Layer accuracy
I0428 19:52:16.829864 27475 net.cpp:408] accuracy <- ip3_relu3_0_split_0
I0428 19:52:16.829867 27475 net.cpp:408] accuracy <- label_mnist_1_split_0
I0428 19:52:16.829872 27475 net.cpp:382] accuracy -> accuracy
…
