…
I0428 19:34:08.556046 23275 net.cpp:296] The NetState phase (0) differed from the phase (1) specified by a rule in layer mnist
I0428 19:34:08.556057 23275 net.cpp:296] The NetState phase (0) differed from the phase (1) specified by a rule in layer accuracy
I0428 19:34:08.556113 23275 net.cpp:53] Initializing net from parameters: 
name: "LeNet"
state {
  phase: TRAIN
  level: 0
  stage: ""
}
layer {
  name: "mnist"
  type: "Data"
  top: "data"
  top: "label"
  include {
    phase: TRAIN
  }
  transform_param {
    scale: 0.00390625
  }
  data_param {
    source: "examples/mnist/mnist_train_lmdb"
    batch_size: 64
    backend: LMDB
  }
}
layer {
  name: "conv0"
  type: "Convolution"
  bottom: "data"
  top: "conv0"
  param {
    lr_mult: 1
  }
  param {
    lr_mult: 2
  }
  convolution_param {
    num_output: 50
    kernel_size: 5
    stride: 1
    weight_filler {
      type: "xavier"
    }
    bias_filler {
      type: "constant"
    }
  }
}
layer {
  name: "pool0"
  type: "Pooling"
  bottom: "conv0"
  top: "pool0"
  pooling_param {
    pool: MAX
    kernel_size: 2
    stride: 2
  }
}
layer {
  name: "ip1"
  type: "InnerProduct"
  bottom: "pool0"
  top: "ip1"
  param {
    lr_mult: 1
  }
  param {
    lr_mult: 2
  }
  inner_product_param {
    num_output: 10
    weight_filler {
      type: "xavier"
    }
    bias_filler {
      type: "constant"
    }
  }
}
layer {
  name: "relu1"
  type: "ReLU"
  bottom: "ip1"
  top: "ip1"
}
layer {
  name: "loss"
  type: "SoftmaxWithLoss"
  bottom: "ip1"
  bottom: "label"
  top: "loss"
}
I0428 19:34:08.556161 23275 layer_factory.hpp:77] Creating layer mnist
I0428 19:34:08.556241 23275 db_lmdb.cpp:35] Opened lmdb examples/mnist/mnist_train_lmdb
I0428 19:34:08.556259 23275 net.cpp:86] Creating Layer mnist
I0428 19:34:08.556268 23275 net.cpp:382] mnist -> data
I0428 19:34:08.556287 23275 net.cpp:382] mnist -> label
I0428 19:34:08.557344 23275 data_layer.cpp:45] output data size: 64,1,28,28
I0428 19:34:08.559600 23275 net.cpp:124] Setting up mnist
I0428 19:34:08.559629 23275 net.cpp:131] Top shape: 64 1 28 28 (50176)
I0428 19:34:08.559634 23275 net.cpp:131] Top shape: 64 (64)
I0428 19:34:08.559638 23275 net.cpp:139] Memory required for data: 200960
I0428 19:34:08.559643 23275 layer_factory.hpp:77] Creating layer conv0
I0428 19:34:08.559682 23275 net.cpp:86] Creating Layer conv0
I0428 19:34:08.559687 23275 net.cpp:408] conv0 <- data
I0428 19:34:08.559697 23275 net.cpp:382] conv0 -> conv0
I0428 19:34:08.797550 23275 net.cpp:124] Setting up conv0
I0428 19:34:08.797591 23275 net.cpp:131] Top shape: 64 50 24 24 (1843200)
I0428 19:34:08.797595 23275 net.cpp:139] Memory required for data: 7573760
I0428 19:34:08.797610 23275 layer_factory.hpp:77] Creating layer pool0
I0428 19:34:08.797622 23275 net.cpp:86] Creating Layer pool0
I0428 19:34:08.797626 23275 net.cpp:408] pool0 <- conv0
I0428 19:34:08.797631 23275 net.cpp:382] pool0 -> pool0
I0428 19:34:08.797693 23275 net.cpp:124] Setting up pool0
I0428 19:34:08.797700 23275 net.cpp:131] Top shape: 64 50 12 12 (460800)
I0428 19:34:08.797703 23275 net.cpp:139] Memory required for data: 9416960
I0428 19:34:08.797706 23275 layer_factory.hpp:77] Creating layer ip1
I0428 19:34:08.797714 23275 net.cpp:86] Creating Layer ip1
I0428 19:34:08.797736 23275 net.cpp:408] ip1 <- pool0
I0428 19:34:08.797756 23275 net.cpp:382] ip1 -> ip1
I0428 19:34:08.799178 23275 net.cpp:124] Setting up ip1
I0428 19:34:08.799207 23275 net.cpp:131] Top shape: 64 10 (640)
I0428 19:34:08.799226 23275 net.cpp:139] Memory required for data: 9419520
I0428 19:34:08.799247 23275 layer_factory.hpp:77] Creating layer relu1
I0428 19:34:08.799253 23275 net.cpp:86] Creating Layer relu1
I0428 19:34:08.799257 23275 net.cpp:408] relu1 <- ip1
I0428 19:34:08.799262 23275 net.cpp:369] relu1 -> ip1 (in-place)
I0428 19:34:08.799437 23275 net.cpp:124] Setting up relu1
I0428 19:34:08.799445 23275 net.cpp:131] Top shape: 64 10 (640)
I0428 19:34:08.799448 23275 net.cpp:139] Memory required for data: 9422080
I0428 19:34:08.799451 23275 layer_factory.hpp:77] Creating layer loss
I0428 19:34:08.799458 23275 net.cpp:86] Creating Layer loss
I0428 19:34:08.799460 23275 net.cpp:408] loss <- ip1
I0428 19:34:08.799464 23275 net.cpp:408] loss <- label
I0428 19:34:08.799469 23275 net.cpp:382] loss -> loss
I0428 19:34:08.799484 23275 layer_factory.hpp:77] Creating layer loss
…
I0428 19:34:08.800577 23275 solver.cpp:173] Creating test net (#0) specified by net file: ECE595/mnist/train_test/var_everything2/lenet_train_test197.prototxt
I0428 19:34:08.800597 23275 net.cpp:296] The NetState phase (1) differed from the phase (0) specified by a rule in layer mnist
I0428 19:34:08.800659 23275 net.cpp:53] Initializing net from parameters: 
name: "LeNet"
state {
  phase: TEST
}
layer {
  name: "mnist"
  type: "Data"
  top: "data"
  top: "label"
  include {
    phase: TEST
  }
  transform_param {
    scale: 0.00390625
  }
  data_param {
    source: "examples/mnist/mnist_test_lmdb"
    batch_size: 100
    backend: LMDB
  }
}
layer {
  name: "conv0"
  type: "Convolution"
  bottom: "data"
  top: "conv0"
  param {
    lr_mult: 1
  }
  param {
    lr_mult: 2
  }
  convolution_param {
    num_output: 50
    kernel_size: 5
    stride: 1
    weight_filler {
      type: "xavier"
    }
    bias_filler {
      type: "constant"
    }
  }
}
layer {
  name: "pool0"
  type: "Pooling"
  bottom: "conv0"
  top: "pool0"
  pooling_param {
    pool: MAX
    kernel_size: 2
    stride: 2
  }
}
layer {
  name: "ip1"
  type: "InnerProduct"
  bottom: "pool0"
  top: "ip1"
  param {
    lr_mult: 1
  }
  param {
    lr_mult: 2
  }
  inner_product_param {
    num_output: 10
    weight_filler {
      type: "xavier"
    }
    bias_filler {
      type: "constant"
    }
  }
}
layer {
  name: "relu1"
  type: "ReLU"
  bottom: "ip1"
  top: "ip1"
}
layer {
  name: "accuracy"
  type: "Accuracy"
  bottom: "ip1"
  bottom: "label"
  top: "accuracy"
  include {
    phase: TEST
  }
}
layer {
  name: "loss"
  type: "SoftmaxWithLoss"
  bottom: "ip1"
  bottom: "label"
  top: "loss"
}
I0428 19:34:08.800710 23275 layer_factory.hpp:77] Creating layer mnist
I0428 19:34:08.800786 23275 db_lmdb.cpp:35] Opened lmdb examples/mnist/mnist_test_lmdb
I0428 19:34:08.800801 23275 net.cpp:86] Creating Layer mnist
I0428 19:34:08.800806 23275 net.cpp:382] mnist -> data
I0428 19:34:08.800837 23275 net.cpp:382] mnist -> label
I0428 19:34:08.800952 23275 data_layer.cpp:45] output data size: 100,1,28,28
I0428 19:34:08.802259 23275 net.cpp:124] Setting up mnist
I0428 19:34:08.802287 23275 net.cpp:131] Top shape: 100 1 28 28 (78400)
I0428 19:34:08.802309 23275 net.cpp:131] Top shape: 100 (100)
I0428 19:34:08.802311 23275 net.cpp:139] Memory required for data: 314000
I0428 19:34:08.802326 23275 layer_factory.hpp:77] Creating layer label_mnist_1_split
I0428 19:34:08.802333 23275 net.cpp:86] Creating Layer label_mnist_1_split
I0428 19:34:08.802337 23275 net.cpp:408] label_mnist_1_split <- label
I0428 19:34:08.802342 23275 net.cpp:382] label_mnist_1_split -> label_mnist_1_split_0
I0428 19:34:08.802348 23275 net.cpp:382] label_mnist_1_split -> label_mnist_1_split_1
I0428 19:34:08.802446 23275 net.cpp:124] Setting up label_mnist_1_split
I0428 19:34:08.802454 23275 net.cpp:131] Top shape: 100 (100)
I0428 19:34:08.802459 23275 net.cpp:131] Top shape: 100 (100)
I0428 19:34:08.802461 23275 net.cpp:139] Memory required for data: 314800
I0428 19:34:08.802464 23275 layer_factory.hpp:77] Creating layer conv0
I0428 19:34:08.802474 23275 net.cpp:86] Creating Layer conv0
I0428 19:34:08.802477 23275 net.cpp:408] conv0 <- data
I0428 19:34:08.802482 23275 net.cpp:382] conv0 -> conv0
I0428 19:34:08.804172 23275 net.cpp:124] Setting up conv0
I0428 19:34:08.804200 23275 net.cpp:131] Top shape: 100 50 24 24 (2880000)
I0428 19:34:08.804204 23275 net.cpp:139] Memory required for data: 11834800
I0428 19:34:08.804213 23275 layer_factory.hpp:77] Creating layer pool0
I0428 19:34:08.804219 23275 net.cpp:86] Creating Layer pool0
I0428 19:34:08.804222 23275 net.cpp:408] pool0 <- conv0
I0428 19:34:08.804226 23275 net.cpp:382] pool0 -> pool0
I0428 19:34:08.804276 23275 net.cpp:124] Setting up pool0
I0428 19:34:08.804281 23275 net.cpp:131] Top shape: 100 50 12 12 (720000)
I0428 19:34:08.804285 23275 net.cpp:139] Memory required for data: 14714800
I0428 19:34:08.804287 23275 layer_factory.hpp:77] Creating layer ip1
I0428 19:34:08.804294 23275 net.cpp:86] Creating Layer ip1
I0428 19:34:08.804297 23275 net.cpp:408] ip1 <- pool0
I0428 19:34:08.804302 23275 net.cpp:382] ip1 -> ip1
I0428 19:34:08.804865 23275 net.cpp:124] Setting up ip1
I0428 19:34:08.804873 23275 net.cpp:131] Top shape: 100 10 (1000)
I0428 19:34:08.804893 23275 net.cpp:139] Memory required for data: 14718800
I0428 19:34:08.804899 23275 layer_factory.hpp:77] Creating layer relu1
I0428 19:34:08.804905 23275 net.cpp:86] Creating Layer relu1
I0428 19:34:08.804909 23275 net.cpp:408] relu1 <- ip1
I0428 19:34:08.804913 23275 net.cpp:369] relu1 -> ip1 (in-place)
I0428 19:34:08.805161 23275 net.cpp:124] Setting up relu1
I0428 19:34:08.805171 23275 net.cpp:131] Top shape: 100 10 (1000)
I0428 19:34:08.805173 23275 net.cpp:139] Memory required for data: 14722800
I0428 19:34:08.805176 23275 layer_factory.hpp:77] Creating layer ip1_relu1_0_split
I0428 19:34:08.805181 23275 net.cpp:86] Creating Layer ip1_relu1_0_split
I0428 19:34:08.805194 23275 net.cpp:408] ip1_relu1_0_split <- ip1
I0428 19:34:08.805199 23275 net.cpp:382] ip1_relu1_0_split -> ip1_relu1_0_split_0
I0428 19:34:08.805204 23275 net.cpp:382] ip1_relu1_0_split -> ip1_relu1_0_split_1
I0428 19:34:08.805259 23275 net.cpp:124] Setting up ip1_relu1_0_split
I0428 19:34:08.805265 23275 net.cpp:131] Top shape: 100 10 (1000)
I0428 19:34:08.805270 23275 net.cpp:131] Top shape: 100 10 (1000)
I0428 19:34:08.805272 23275 net.cpp:139] Memory required for data: 14730800
I0428 19:34:08.805275 23275 layer_factory.hpp:77] Creating layer accuracy
I0428 19:34:08.805280 23275 net.cpp:86] Creating Layer accuracy
I0428 19:34:08.805284 23275 net.cpp:408] accuracy <- ip1_relu1_0_split_0
I0428 19:34:08.805304 23275 net.cpp:408] accuracy <- label_mnist_1_split_0
I0428 19:34:08.805308 23275 net.cpp:382] accuracy -> accuracy
…
