…
I0428 19:43:34.614960 25376 net.cpp:296] The NetState phase (0) differed from the phase (1) specified by a rule in layer mnist
I0428 19:43:34.614980 25376 net.cpp:296] The NetState phase (0) differed from the phase (1) specified by a rule in layer accuracy
I0428 19:43:34.615069 25376 net.cpp:53] Initializing net from parameters: 
name: "LeNet"
state {
  phase: TRAIN
  level: 0
  stage: ""
}
layer {
  name: "mnist"
  type: "Data"
  top: "data"
  top: "label"
  include {
    phase: TRAIN
  }
  transform_param {
    scale: 0.00390625
  }
  data_param {
    source: "examples/mnist/mnist_train_lmdb"
    batch_size: 64
    backend: LMDB
  }
}
layer {
  name: "conv0"
  type: "Convolution"
  bottom: "data"
  top: "conv0"
  param {
    lr_mult: 1
  }
  param {
    lr_mult: 2
  }
  convolution_param {
    num_output: 2
    kernel_size: 5
    stride: 1
    weight_filler {
      type: "xavier"
    }
    bias_filler {
      type: "constant"
    }
  }
}
layer {
  name: "pool0"
  type: "Pooling"
  bottom: "conv0"
  top: "pool0"
  pooling_param {
    pool: MAX
    kernel_size: 2
    stride: 2
  }
}
layer {
  name: "conv1"
  type: "Convolution"
  bottom: "pool0"
  top: "conv1"
  param {
    lr_mult: 1
  }
  param {
    lr_mult: 2
  }
  convolution_param {
    num_output: 25
    kernel_size: 5
    stride: 1
    weight_filler {
      type: "xavier"
    }
    bias_filler {
      type: "constant"
    }
  }
}
layer {
  name: "pool1"
  type: "Pooling"
  bottom: "conv1"
  top: "pool1"
  pooling_param {
    pool: MAX
    kernel_size: 2
    stride: 2
  }
}
layer {
  name: "ip1"
  type: "InnerProduct"
  bottom: "pool1"
  top: "ip1"
  param {
    lr_mult: 1
  }
  param {
    lr_mult: 2
  }
  inner_product_param {
    num_output: 50
    weight_filler {
      type: "xavier"
    }
    bias_filler {
      type: "constant"
    }
  }
}
layer {
  name: "relu1"
  type: "ReLU"
  bottom: "ip1"
  top: "ip1"
}
layer {
  name: "ip2"
  type: "InnerProduct"
  bottom: "ip1"
  top: "ip2"
  param {
    lr_mult: 1
  }
  param {
    lr_mult: 2
  }
  inner_product_param {
    num_output: 25
    weight_filler {
      type: "xavier"
    }
    bias_filler {
      type: "constant"
    }
  }
}
layer {
  name: "relu2"
  type: "ReLU"
  bottom: "ip2"
  top: "ip2"
}
layer {
  name: "ip3"
  type: "InnerProduct"
  bottom: "ip2"
  top: "ip3"
  param {
    lr_mult: 1
  }
  param {
    lr_mult: 2
  }
  inner_product_param {
    num_output: 10
    weight_filler {
      type: "xavier"
    }
    bias_filler {
      type: "constant"
    }
  }
}
layer {
  name: "relu3"
  type: "ReLU"
  bottom: "ip3"
  top: "ip3"
}
layer {
  name: "loss"
  type: "SoftmaxWithLoss"
  bottom: "ip3"
  bottom: "label"
  top: "loss"
}
I0428 19:43:34.615162 25376 layer_factory.hpp:77] Creating layer mnist
I0428 19:43:34.615286 25376 db_lmdb.cpp:35] Opened lmdb examples/mnist/mnist_train_lmdb
I0428 19:43:34.615314 25376 net.cpp:86] Creating Layer mnist
I0428 19:43:34.615322 25376 net.cpp:382] mnist -> data
I0428 19:43:34.615347 25376 net.cpp:382] mnist -> label
I0428 19:43:34.616479 25376 data_layer.cpp:45] output data size: 64,1,28,28
I0428 19:43:34.618854 25376 net.cpp:124] Setting up mnist
I0428 19:43:34.618887 25376 net.cpp:131] Top shape: 64 1 28 28 (50176)
I0428 19:43:34.618896 25376 net.cpp:131] Top shape: 64 (64)
I0428 19:43:34.618901 25376 net.cpp:139] Memory required for data: 200960
I0428 19:43:34.618908 25376 layer_factory.hpp:77] Creating layer conv0
I0428 19:43:34.618927 25376 net.cpp:86] Creating Layer conv0
I0428 19:43:34.618945 25376 net.cpp:408] conv0 <- data
I0428 19:43:34.618960 25376 net.cpp:382] conv0 -> conv0
I0428 19:43:34.854501 25376 net.cpp:124] Setting up conv0
I0428 19:43:34.854528 25376 net.cpp:131] Top shape: 64 2 24 24 (73728)
I0428 19:43:34.854533 25376 net.cpp:139] Memory required for data: 495872
I0428 19:43:34.854584 25376 layer_factory.hpp:77] Creating layer pool0
I0428 19:43:34.854601 25376 net.cpp:86] Creating Layer pool0
I0428 19:43:34.854609 25376 net.cpp:408] pool0 <- conv0
I0428 19:43:34.854619 25376 net.cpp:382] pool0 -> pool0
I0428 19:43:34.854676 25376 net.cpp:124] Setting up pool0
I0428 19:43:34.854684 25376 net.cpp:131] Top shape: 64 2 12 12 (18432)
I0428 19:43:34.854689 25376 net.cpp:139] Memory required for data: 569600
I0428 19:43:34.854694 25376 layer_factory.hpp:77] Creating layer conv1
I0428 19:43:34.854709 25376 net.cpp:86] Creating Layer conv1
I0428 19:43:34.854715 25376 net.cpp:408] conv1 <- pool0
I0428 19:43:34.854724 25376 net.cpp:382] conv1 -> conv1
I0428 19:43:34.857553 25376 net.cpp:124] Setting up conv1
I0428 19:43:34.857568 25376 net.cpp:131] Top shape: 64 25 8 8 (102400)
I0428 19:43:34.857574 25376 net.cpp:139] Memory required for data: 979200
I0428 19:43:34.857602 25376 layer_factory.hpp:77] Creating layer pool1
I0428 19:43:34.857614 25376 net.cpp:86] Creating Layer pool1
I0428 19:43:34.857619 25376 net.cpp:408] pool1 <- conv1
I0428 19:43:34.857626 25376 net.cpp:382] pool1 -> pool1
I0428 19:43:34.857669 25376 net.cpp:124] Setting up pool1
I0428 19:43:34.857678 25376 net.cpp:131] Top shape: 64 25 4 4 (25600)
I0428 19:43:34.857683 25376 net.cpp:139] Memory required for data: 1081600
I0428 19:43:34.857688 25376 layer_factory.hpp:77] Creating layer ip1
I0428 19:43:34.857699 25376 net.cpp:86] Creating Layer ip1
I0428 19:43:34.857708 25376 net.cpp:408] ip1 <- pool1
I0428 19:43:34.857717 25376 net.cpp:382] ip1 -> ip1
I0428 19:43:34.857951 25376 net.cpp:124] Setting up ip1
I0428 19:43:34.857960 25376 net.cpp:131] Top shape: 64 50 (3200)
I0428 19:43:34.857965 25376 net.cpp:139] Memory required for data: 1094400
I0428 19:43:34.857976 25376 layer_factory.hpp:77] Creating layer relu1
I0428 19:43:34.857987 25376 net.cpp:86] Creating Layer relu1
I0428 19:43:34.857993 25376 net.cpp:408] relu1 <- ip1
I0428 19:43:34.858000 25376 net.cpp:369] relu1 -> ip1 (in-place)
I0428 19:43:34.858161 25376 net.cpp:124] Setting up relu1
I0428 19:43:34.858171 25376 net.cpp:131] Top shape: 64 50 (3200)
I0428 19:43:34.858176 25376 net.cpp:139] Memory required for data: 1107200
I0428 19:43:34.858181 25376 layer_factory.hpp:77] Creating layer ip2
I0428 19:43:34.858191 25376 net.cpp:86] Creating Layer ip2
I0428 19:43:34.858196 25376 net.cpp:408] ip2 <- ip1
I0428 19:43:34.858218 25376 net.cpp:382] ip2 -> ip2
I0428 19:43:34.858324 25376 net.cpp:124] Setting up ip2
I0428 19:43:34.858331 25376 net.cpp:131] Top shape: 64 25 (1600)
I0428 19:43:34.858336 25376 net.cpp:139] Memory required for data: 1113600
I0428 19:43:34.858345 25376 layer_factory.hpp:77] Creating layer relu2
I0428 19:43:34.858353 25376 net.cpp:86] Creating Layer relu2
I0428 19:43:34.858361 25376 net.cpp:408] relu2 <- ip2
I0428 19:43:34.858366 25376 net.cpp:369] relu2 -> ip2 (in-place)
I0428 19:43:34.859117 25376 net.cpp:124] Setting up relu2
I0428 19:43:34.859132 25376 net.cpp:131] Top shape: 64 25 (1600)
I0428 19:43:34.859138 25376 net.cpp:139] Memory required for data: 1120000
I0428 19:43:34.859143 25376 layer_factory.hpp:77] Creating layer ip3
I0428 19:43:34.859156 25376 net.cpp:86] Creating Layer ip3
I0428 19:43:34.859163 25376 net.cpp:408] ip3 <- ip2
I0428 19:43:34.859187 25376 net.cpp:382] ip3 -> ip3
I0428 19:43:34.859309 25376 net.cpp:124] Setting up ip3
I0428 19:43:34.859334 25376 net.cpp:131] Top shape: 64 10 (640)
I0428 19:43:34.859339 25376 net.cpp:139] Memory required for data: 1122560
I0428 19:43:34.859366 25376 layer_factory.hpp:77] Creating layer relu3
I0428 19:43:34.859376 25376 net.cpp:86] Creating Layer relu3
I0428 19:43:34.859383 25376 net.cpp:408] relu3 <- ip3
I0428 19:43:34.859391 25376 net.cpp:369] relu3 -> ip3 (in-place)
I0428 19:43:34.859593 25376 net.cpp:124] Setting up relu3
I0428 19:43:34.859603 25376 net.cpp:131] Top shape: 64 10 (640)
I0428 19:43:34.859607 25376 net.cpp:139] Memory required for data: 1125120
I0428 19:43:34.859612 25376 layer_factory.hpp:77] Creating layer loss
I0428 19:43:34.859621 25376 net.cpp:86] Creating Layer loss
I0428 19:43:34.859625 25376 net.cpp:408] loss <- ip3
I0428 19:43:34.859632 25376 net.cpp:408] loss <- label
I0428 19:43:34.859642 25376 net.cpp:382] loss -> loss
I0428 19:43:34.859663 25376 layer_factory.hpp:77] Creating layer loss
…
I0428 19:43:34.860461 25376 solver.cpp:173] Creating test net (#0) specified by net file: ECE595/mnist/train_test/var_everything2/lenet_train_test425.prototxt
I0428 19:43:34.860494 25376 net.cpp:296] The NetState phase (1) differed from the phase (0) specified by a rule in layer mnist
I0428 19:43:34.860589 25376 net.cpp:53] Initializing net from parameters: 
name: "LeNet"
state {
  phase: TEST
}
layer {
  name: "mnist"
  type: "Data"
  top: "data"
  top: "label"
  include {
    phase: TEST
  }
  transform_param {
    scale: 0.00390625
  }
  data_param {
    source: "examples/mnist/mnist_test_lmdb"
    batch_size: 100
    backend: LMDB
  }
}
layer {
  name: "conv0"
  type: "Convolution"
  bottom: "data"
  top: "conv0"
  param {
    lr_mult: 1
  }
  param {
    lr_mult: 2
  }
  convolution_param {
    num_output: 2
    kernel_size: 5
    stride: 1
    weight_filler {
      type: "xavier"
    }
    bias_filler {
      type: "constant"
    }
  }
}
layer {
  name: "pool0"
  type: "Pooling"
  bottom: "conv0"
  top: "pool0"
  pooling_param {
    pool: MAX
    kernel_size: 2
    stride: 2
  }
}
layer {
  name: "conv1"
  type: "Convolution"
  bottom: "pool0"
  top: "conv1"
  param {
    lr_mult: 1
  }
  param {
    lr_mult: 2
  }
  convolution_param {
    num_output: 25
    kernel_size: 5
    stride: 1
    weight_filler {
      type: "xavier"
    }
    bias_filler {
      type: "constant"
    }
  }
}
layer {
  name: "pool1"
  type: "Pooling"
  bottom: "conv1"
  top: "pool1"
  pooling_param {
    pool: MAX
    kernel_size: 2
    stride: 2
  }
}
layer {
  name: "ip1"
  type: "InnerProduct"
  bottom: "pool1"
  top: "ip1"
  param {
    lr_mult: 1
  }
  param {
    lr_mult: 2
  }
  inner_product_param {
    num_output: 50
    weight_filler {
      type: "xavier"
    }
    bias_filler {
      type: "constant"
    }
  }
}
layer {
  name: "relu1"
  type: "ReLU"
  bottom: "ip1"
  top: "ip1"
}
layer {
  name: "ip2"
  type: "InnerProduct"
  bottom: "ip1"
  top: "ip2"
  param {
    lr_mult: 1
  }
  param {
    lr_mult: 2
  }
  inner_product_param {
    num_output: 25
    weight_filler {
      type: "xavier"
    }
    bias_filler {
      type: "constant"
    }
  }
}
layer {
  name: "relu2"
  type: "ReLU"
  bottom: "ip2"
  top: "ip2"
}
layer {
  name: "ip3"
  type: "InnerProduct"
  bottom: "ip2"
  top: "ip3"
  param {
    lr_mult: 1
  }
  param {
    lr_mult: 2
  }
  inner_product_param {
    num_output: 10
    weight_filler {
      type: "xavier"
    }
    bias_filler {
      type: "constant"
    }
  }
}
layer {
  name: "relu3"
  type: "ReLU"
  bottom: "ip3"
  top: "ip3"
}
layer {
  name: "accuracy"
  type: "Accuracy"
  bottom: "ip3"
  bottom: "label"
  top: "accuracy"
  include {
    phase: TEST
  }
}
layer {
  name: "loss"
  type: "SoftmaxWithLoss"
  bottom: "ip3"
  bottom: "label"
  top: "loss"
}
I0428 19:43:34.860724 25376 layer_factory.hpp:77] Creating layer mnist
I0428 19:43:34.860781 25376 db_lmdb.cpp:35] Opened lmdb examples/mnist/mnist_test_lmdb
I0428 19:43:34.860800 25376 net.cpp:86] Creating Layer mnist
I0428 19:43:34.860807 25376 net.cpp:382] mnist -> data
I0428 19:43:34.860839 25376 net.cpp:382] mnist -> label
I0428 19:43:34.861011 25376 data_layer.cpp:45] output data size: 100,1,28,28
I0428 19:43:34.863261 25376 net.cpp:124] Setting up mnist
I0428 19:43:34.863281 25376 net.cpp:131] Top shape: 100 1 28 28 (78400)
I0428 19:43:34.863291 25376 net.cpp:131] Top shape: 100 (100)
I0428 19:43:34.863294 25376 net.cpp:139] Memory required for data: 314000
I0428 19:43:34.863301 25376 layer_factory.hpp:77] Creating layer label_mnist_1_split
I0428 19:43:34.863310 25376 net.cpp:86] Creating Layer label_mnist_1_split
I0428 19:43:34.863315 25376 net.cpp:408] label_mnist_1_split <- label
I0428 19:43:34.863322 25376 net.cpp:382] label_mnist_1_split -> label_mnist_1_split_0
I0428 19:43:34.863348 25376 net.cpp:382] label_mnist_1_split -> label_mnist_1_split_1
I0428 19:43:34.863425 25376 net.cpp:124] Setting up label_mnist_1_split
I0428 19:43:34.863433 25376 net.cpp:131] Top shape: 100 (100)
I0428 19:43:34.863440 25376 net.cpp:131] Top shape: 100 (100)
I0428 19:43:34.863443 25376 net.cpp:139] Memory required for data: 314800
I0428 19:43:34.863448 25376 layer_factory.hpp:77] Creating layer conv0
I0428 19:43:34.863463 25376 net.cpp:86] Creating Layer conv0
I0428 19:43:34.863471 25376 net.cpp:408] conv0 <- data
I0428 19:43:34.863497 25376 net.cpp:382] conv0 -> conv0
I0428 19:43:34.865257 25376 net.cpp:124] Setting up conv0
I0428 19:43:34.865272 25376 net.cpp:131] Top shape: 100 2 24 24 (115200)
I0428 19:43:34.865278 25376 net.cpp:139] Memory required for data: 775600
I0428 19:43:34.865291 25376 layer_factory.hpp:77] Creating layer pool0
I0428 19:43:34.865305 25376 net.cpp:86] Creating Layer pool0
I0428 19:43:34.865311 25376 net.cpp:408] pool0 <- conv0
I0428 19:43:34.865320 25376 net.cpp:382] pool0 -> pool0
I0428 19:43:34.865360 25376 net.cpp:124] Setting up pool0
I0428 19:43:34.865367 25376 net.cpp:131] Top shape: 100 2 12 12 (28800)
I0428 19:43:34.865372 25376 net.cpp:139] Memory required for data: 890800
I0428 19:43:34.865376 25376 layer_factory.hpp:77] Creating layer conv1
I0428 19:43:34.865389 25376 net.cpp:86] Creating Layer conv1
I0428 19:43:34.865396 25376 net.cpp:408] conv1 <- pool0
I0428 19:43:34.865406 25376 net.cpp:382] conv1 -> conv1
I0428 19:43:34.867205 25376 net.cpp:124] Setting up conv1
I0428 19:43:34.867219 25376 net.cpp:131] Top shape: 100 25 8 8 (160000)
I0428 19:43:34.867224 25376 net.cpp:139] Memory required for data: 1530800
I0428 19:43:34.867254 25376 layer_factory.hpp:77] Creating layer pool1
I0428 19:43:34.867262 25376 net.cpp:86] Creating Layer pool1
I0428 19:43:34.867267 25376 net.cpp:408] pool1 <- conv1
I0428 19:43:34.867277 25376 net.cpp:382] pool1 -> pool1
I0428 19:43:34.867337 25376 net.cpp:124] Setting up pool1
I0428 19:43:34.867346 25376 net.cpp:131] Top shape: 100 25 4 4 (40000)
I0428 19:43:34.867352 25376 net.cpp:139] Memory required for data: 1690800
I0428 19:43:34.867357 25376 layer_factory.hpp:77] Creating layer ip1
I0428 19:43:34.867368 25376 net.cpp:86] Creating Layer ip1
I0428 19:43:34.867374 25376 net.cpp:408] ip1 <- pool1
I0428 19:43:34.867383 25376 net.cpp:382] ip1 -> ip1
I0428 19:43:34.867614 25376 net.cpp:124] Setting up ip1
I0428 19:43:34.867624 25376 net.cpp:131] Top shape: 100 50 (5000)
I0428 19:43:34.867640 25376 net.cpp:139] Memory required for data: 1710800
I0428 19:43:34.867652 25376 layer_factory.hpp:77] Creating layer relu1
I0428 19:43:34.867661 25376 net.cpp:86] Creating Layer relu1
I0428 19:43:34.867666 25376 net.cpp:408] relu1 <- ip1
I0428 19:43:34.867678 25376 net.cpp:369] relu1 -> ip1 (in-place)
I0428 19:43:34.867858 25376 net.cpp:124] Setting up relu1
I0428 19:43:34.867868 25376 net.cpp:131] Top shape: 100 50 (5000)
I0428 19:43:34.867873 25376 net.cpp:139] Memory required for data: 1730800
I0428 19:43:34.867878 25376 layer_factory.hpp:77] Creating layer ip2
I0428 19:43:34.867892 25376 net.cpp:86] Creating Layer ip2
I0428 19:43:34.867897 25376 net.cpp:408] ip2 <- ip1
I0428 19:43:34.867907 25376 net.cpp:382] ip2 -> ip2
I0428 19:43:34.868021 25376 net.cpp:124] Setting up ip2
I0428 19:43:34.868029 25376 net.cpp:131] Top shape: 100 25 (2500)
I0428 19:43:34.868034 25376 net.cpp:139] Memory required for data: 1740800
I0428 19:43:34.868043 25376 layer_factory.hpp:77] Creating layer relu2
I0428 19:43:34.868052 25376 net.cpp:86] Creating Layer relu2
I0428 19:43:34.868058 25376 net.cpp:408] relu2 <- ip2
I0428 19:43:34.868065 25376 net.cpp:369] relu2 -> ip2 (in-place)
I0428 19:43:34.868326 25376 net.cpp:124] Setting up relu2
I0428 19:43:34.868335 25376 net.cpp:131] Top shape: 100 25 (2500)
I0428 19:43:34.868340 25376 net.cpp:139] Memory required for data: 1750800
I0428 19:43:34.868345 25376 layer_factory.hpp:77] Creating layer ip3
I0428 19:43:34.868357 25376 net.cpp:86] Creating Layer ip3
I0428 19:43:34.868363 25376 net.cpp:408] ip3 <- ip2
I0428 19:43:34.868381 25376 net.cpp:382] ip3 -> ip3
I0428 19:43:34.868492 25376 net.cpp:124] Setting up ip3
I0428 19:43:34.868501 25376 net.cpp:131] Top shape: 100 10 (1000)
I0428 19:43:34.868506 25376 net.cpp:139] Memory required for data: 1754800
I0428 19:43:34.868520 25376 layer_factory.hpp:77] Creating layer relu3
I0428 19:43:34.868531 25376 net.cpp:86] Creating Layer relu3
I0428 19:43:34.868538 25376 net.cpp:408] relu3 <- ip3
I0428 19:43:34.868544 25376 net.cpp:369] relu3 -> ip3 (in-place)
I0428 19:43:34.869510 25376 net.cpp:124] Setting up relu3
I0428 19:43:34.869524 25376 net.cpp:131] Top shape: 100 10 (1000)
I0428 19:43:34.869529 25376 net.cpp:139] Memory required for data: 1758800
I0428 19:43:34.869534 25376 layer_factory.hpp:77] Creating layer ip3_relu3_0_split
I0428 19:43:34.869542 25376 net.cpp:86] Creating Layer ip3_relu3_0_split
I0428 19:43:34.869547 25376 net.cpp:408] ip3_relu3_0_split <- ip3
I0428 19:43:34.869555 25376 net.cpp:382] ip3_relu3_0_split -> ip3_relu3_0_split_0
I0428 19:43:34.869565 25376 net.cpp:382] ip3_relu3_0_split -> ip3_relu3_0_split_1
I0428 19:43:34.869623 25376 net.cpp:124] Setting up ip3_relu3_0_split
I0428 19:43:34.869632 25376 net.cpp:131] Top shape: 100 10 (1000)
I0428 19:43:34.869637 25376 net.cpp:131] Top shape: 100 10 (1000)
I0428 19:43:34.869642 25376 net.cpp:139] Memory required for data: 1766800
I0428 19:43:34.869647 25376 layer_factory.hpp:77] Creating layer accuracy
I0428 19:43:34.869660 25376 net.cpp:86] Creating Layer accuracy
I0428 19:43:34.869666 25376 net.cpp:408] accuracy <- ip3_relu3_0_split_0
I0428 19:43:34.869673 25376 net.cpp:408] accuracy <- label_mnist_1_split_0
I0428 19:43:34.869680 25376 net.cpp:382] accuracy -> accuracy
…
