…
I0428 19:50:05.604636 26927 net.cpp:296] The NetState phase (0) differed from the phase (1) specified by a rule in layer mnist
I0428 19:50:05.604655 26927 net.cpp:296] The NetState phase (0) differed from the phase (1) specified by a rule in layer accuracy
I0428 19:50:05.604745 26927 net.cpp:53] Initializing net from parameters: 
name: "LeNet"
state {
  phase: TRAIN
  level: 0
  stage: ""
}
layer {
  name: "mnist"
  type: "Data"
  top: "data"
  top: "label"
  include {
    phase: TRAIN
  }
  transform_param {
    scale: 0.00390625
  }
  data_param {
    source: "examples/mnist/mnist_train_lmdb"
    batch_size: 64
    backend: LMDB
  }
}
layer {
  name: "conv0"
  type: "Convolution"
  bottom: "data"
  top: "conv0"
  param {
    lr_mult: 1
  }
  param {
    lr_mult: 2
  }
  convolution_param {
    num_output: 5
    kernel_size: 5
    stride: 1
    weight_filler {
      type: "xavier"
    }
    bias_filler {
      type: "constant"
    }
  }
}
layer {
  name: "pool0"
  type: "Pooling"
  bottom: "conv0"
  top: "pool0"
  pooling_param {
    pool: MAX
    kernel_size: 2
    stride: 2
  }
}
layer {
  name: "conv1"
  type: "Convolution"
  bottom: "pool0"
  top: "conv1"
  param {
    lr_mult: 1
  }
  param {
    lr_mult: 2
  }
  convolution_param {
    num_output: 10
    kernel_size: 5
    stride: 1
    weight_filler {
      type: "xavier"
    }
    bias_filler {
      type: "constant"
    }
  }
}
layer {
  name: "pool1"
  type: "Pooling"
  bottom: "conv1"
  top: "pool1"
  pooling_param {
    pool: MAX
    kernel_size: 2
    stride: 2
  }
}
layer {
  name: "ip1"
  type: "InnerProduct"
  bottom: "pool1"
  top: "ip1"
  param {
    lr_mult: 1
  }
  param {
    lr_mult: 2
  }
  inner_product_param {
    num_output: 50
    weight_filler {
      type: "xavier"
    }
    bias_filler {
      type: "constant"
    }
  }
}
layer {
  name: "relu1"
  type: "ReLU"
  bottom: "ip1"
  top: "ip1"
}
layer {
  name: "ip2"
  type: "InnerProduct"
  bottom: "ip1"
  top: "ip2"
  param {
    lr_mult: 1
  }
  param {
    lr_mult: 2
  }
  inner_product_param {
    num_output: 10
    weight_filler {
      type: "xavier"
    }
    bias_filler {
      type: "constant"
    }
  }
}
layer {
  name: "relu2"
  type: "ReLU"
  bottom: "ip2"
  top: "ip2"
}
layer {
  name: "loss"
  type: "SoftmaxWithLoss"
  bottom: "ip2"
  bottom: "label"
  top: "loss"
}
I0428 19:50:05.604833 26927 layer_factory.hpp:77] Creating layer mnist
I0428 19:50:05.604935 26927 db_lmdb.cpp:35] Opened lmdb examples/mnist/mnist_train_lmdb
I0428 19:50:05.604961 26927 net.cpp:86] Creating Layer mnist
I0428 19:50:05.604969 26927 net.cpp:382] mnist -> data
I0428 19:50:05.604992 26927 net.cpp:382] mnist -> label
I0428 19:50:05.606076 26927 data_layer.cpp:45] output data size: 64,1,28,28
I0428 19:50:05.608525 26927 net.cpp:124] Setting up mnist
I0428 19:50:05.608543 26927 net.cpp:131] Top shape: 64 1 28 28 (50176)
I0428 19:50:05.608549 26927 net.cpp:131] Top shape: 64 (64)
I0428 19:50:05.608553 26927 net.cpp:139] Memory required for data: 200960
I0428 19:50:05.608561 26927 layer_factory.hpp:77] Creating layer conv0
I0428 19:50:05.608588 26927 net.cpp:86] Creating Layer conv0
I0428 19:50:05.608594 26927 net.cpp:408] conv0 <- data
I0428 19:50:05.608606 26927 net.cpp:382] conv0 -> conv0
I0428 19:50:05.893172 26927 net.cpp:124] Setting up conv0
I0428 19:50:05.893198 26927 net.cpp:131] Top shape: 64 5 24 24 (184320)
I0428 19:50:05.893219 26927 net.cpp:139] Memory required for data: 938240
I0428 19:50:05.893247 26927 layer_factory.hpp:77] Creating layer pool0
I0428 19:50:05.893261 26927 net.cpp:86] Creating Layer pool0
I0428 19:50:05.893265 26927 net.cpp:408] pool0 <- conv0
I0428 19:50:05.893271 26927 net.cpp:382] pool0 -> pool0
I0428 19:50:05.893321 26927 net.cpp:124] Setting up pool0
I0428 19:50:05.893333 26927 net.cpp:131] Top shape: 64 5 12 12 (46080)
I0428 19:50:05.893337 26927 net.cpp:139] Memory required for data: 1122560
I0428 19:50:05.893339 26927 layer_factory.hpp:77] Creating layer conv1
I0428 19:50:05.893350 26927 net.cpp:86] Creating Layer conv1
I0428 19:50:05.893353 26927 net.cpp:408] conv1 <- pool0
I0428 19:50:05.893358 26927 net.cpp:382] conv1 -> conv1
I0428 19:50:05.896064 26927 net.cpp:124] Setting up conv1
I0428 19:50:05.896077 26927 net.cpp:131] Top shape: 64 10 8 8 (40960)
I0428 19:50:05.896081 26927 net.cpp:139] Memory required for data: 1286400
I0428 19:50:05.896090 26927 layer_factory.hpp:77] Creating layer pool1
I0428 19:50:05.896097 26927 net.cpp:86] Creating Layer pool1
I0428 19:50:05.896101 26927 net.cpp:408] pool1 <- conv1
I0428 19:50:05.896106 26927 net.cpp:382] pool1 -> pool1
I0428 19:50:05.896144 26927 net.cpp:124] Setting up pool1
I0428 19:50:05.896149 26927 net.cpp:131] Top shape: 64 10 4 4 (10240)
I0428 19:50:05.896152 26927 net.cpp:139] Memory required for data: 1327360
I0428 19:50:05.896154 26927 layer_factory.hpp:77] Creating layer ip1
I0428 19:50:05.896162 26927 net.cpp:86] Creating Layer ip1
I0428 19:50:05.896165 26927 net.cpp:408] ip1 <- pool1
I0428 19:50:05.896172 26927 net.cpp:382] ip1 -> ip1
I0428 19:50:05.897135 26927 net.cpp:124] Setting up ip1
I0428 19:50:05.897148 26927 net.cpp:131] Top shape: 64 50 (3200)
I0428 19:50:05.897151 26927 net.cpp:139] Memory required for data: 1340160
I0428 19:50:05.897159 26927 layer_factory.hpp:77] Creating layer relu1
I0428 19:50:05.897166 26927 net.cpp:86] Creating Layer relu1
I0428 19:50:05.897169 26927 net.cpp:408] relu1 <- ip1
I0428 19:50:05.897173 26927 net.cpp:369] relu1 -> ip1 (in-place)
I0428 19:50:05.897382 26927 net.cpp:124] Setting up relu1
I0428 19:50:05.897392 26927 net.cpp:131] Top shape: 64 50 (3200)
I0428 19:50:05.897397 26927 net.cpp:139] Memory required for data: 1352960
I0428 19:50:05.897399 26927 layer_factory.hpp:77] Creating layer ip2
I0428 19:50:05.897405 26927 net.cpp:86] Creating Layer ip2
I0428 19:50:05.897408 26927 net.cpp:408] ip2 <- ip1
I0428 19:50:05.897415 26927 net.cpp:382] ip2 -> ip2
I0428 19:50:05.897531 26927 net.cpp:124] Setting up ip2
I0428 19:50:05.897538 26927 net.cpp:131] Top shape: 64 10 (640)
I0428 19:50:05.897541 26927 net.cpp:139] Memory required for data: 1355520
I0428 19:50:05.897547 26927 layer_factory.hpp:77] Creating layer relu2
I0428 19:50:05.897554 26927 net.cpp:86] Creating Layer relu2
I0428 19:50:05.897557 26927 net.cpp:408] relu2 <- ip2
I0428 19:50:05.897562 26927 net.cpp:369] relu2 -> ip2 (in-place)
I0428 19:50:05.898310 26927 net.cpp:124] Setting up relu2
I0428 19:50:05.898322 26927 net.cpp:131] Top shape: 64 10 (640)
I0428 19:50:05.898342 26927 net.cpp:139] Memory required for data: 1358080
I0428 19:50:05.898345 26927 layer_factory.hpp:77] Creating layer loss
I0428 19:50:05.898351 26927 net.cpp:86] Creating Layer loss
I0428 19:50:05.898355 26927 net.cpp:408] loss <- ip2
I0428 19:50:05.898375 26927 net.cpp:408] loss <- label
I0428 19:50:05.898381 26927 net.cpp:382] loss -> loss
I0428 19:50:05.898401 26927 layer_factory.hpp:77] Creating layer loss
…
I0428 19:50:05.899060 26927 solver.cpp:173] Creating test net (#0) specified by net file: ECE595/mnist/train_test/var_everything2/lenet_train_test594.prototxt
I0428 19:50:05.899085 26927 net.cpp:296] The NetState phase (1) differed from the phase (0) specified by a rule in layer mnist
I0428 19:50:05.899199 26927 net.cpp:53] Initializing net from parameters: 
name: "LeNet"
state {
  phase: TEST
}
layer {
  name: "mnist"
  type: "Data"
  top: "data"
  top: "label"
  include {
    phase: TEST
  }
  transform_param {
    scale: 0.00390625
  }
  data_param {
    source: "examples/mnist/mnist_test_lmdb"
    batch_size: 100
    backend: LMDB
  }
}
layer {
  name: "conv0"
  type: "Convolution"
  bottom: "data"
  top: "conv0"
  param {
    lr_mult: 1
  }
  param {
    lr_mult: 2
  }
  convolution_param {
    num_output: 5
    kernel_size: 5
    stride: 1
    weight_filler {
      type: "xavier"
    }
    bias_filler {
      type: "constant"
    }
  }
}
layer {
  name: "pool0"
  type: "Pooling"
  bottom: "conv0"
  top: "pool0"
  pooling_param {
    pool: MAX
    kernel_size: 2
    stride: 2
  }
}
layer {
  name: "conv1"
  type: "Convolution"
  bottom: "pool0"
  top: "conv1"
  param {
    lr_mult: 1
  }
  param {
    lr_mult: 2
  }
  convolution_param {
    num_output: 10
    kernel_size: 5
    stride: 1
    weight_filler {
      type: "xavier"
    }
    bias_filler {
      type: "constant"
    }
  }
}
layer {
  name: "pool1"
  type: "Pooling"
  bottom: "conv1"
  top: "pool1"
  pooling_param {
    pool: MAX
    kernel_size: 2
    stride: 2
  }
}
layer {
  name: "ip1"
  type: "InnerProduct"
  bottom: "pool1"
  top: "ip1"
  param {
    lr_mult: 1
  }
  param {
    lr_mult: 2
  }
  inner_product_param {
    num_output: 50
    weight_filler {
      type: "xavier"
    }
    bias_filler {
      type: "constant"
    }
  }
}
layer {
  name: "relu1"
  type: "ReLU"
  bottom: "ip1"
  top: "ip1"
}
layer {
  name: "ip2"
  type: "InnerProduct"
  bottom: "ip1"
  top: "ip2"
  param {
    lr_mult: 1
  }
  param {
    lr_mult: 2
  }
  inner_product_param {
    num_output: 10
    weight_filler {
      type: "xavier"
    }
    bias_filler {
      type: "constant"
    }
  }
}
layer {
  name: "relu2"
  type: "ReLU"
  bottom: "ip2"
  top: "ip2"
}
layer {
  name: "accuracy"
  type: "Accuracy"
  bottom: "ip2"
  bottom: "label"
  top: "accuracy"
  include {
    phase: TEST
  }
}
layer {
  name: "loss"
  type: "SoftmaxWithLoss"
  bottom: "ip2"
  bottom: "label"
  top: "loss"
}
I0428 19:50:05.899266 26927 layer_factory.hpp:77] Creating layer mnist
I0428 19:50:05.899312 26927 db_lmdb.cpp:35] Opened lmdb examples/mnist/mnist_test_lmdb
I0428 19:50:05.899323 26927 net.cpp:86] Creating Layer mnist
I0428 19:50:05.899328 26927 net.cpp:382] mnist -> data
I0428 19:50:05.899336 26927 net.cpp:382] mnist -> label
I0428 19:50:05.899441 26927 data_layer.cpp:45] output data size: 100,1,28,28
I0428 19:50:05.901382 26927 net.cpp:124] Setting up mnist
I0428 19:50:05.901396 26927 net.cpp:131] Top shape: 100 1 28 28 (78400)
I0428 19:50:05.901401 26927 net.cpp:131] Top shape: 100 (100)
I0428 19:50:05.901403 26927 net.cpp:139] Memory required for data: 314000
I0428 19:50:05.901407 26927 layer_factory.hpp:77] Creating layer label_mnist_1_split
I0428 19:50:05.901413 26927 net.cpp:86] Creating Layer label_mnist_1_split
I0428 19:50:05.901417 26927 net.cpp:408] label_mnist_1_split <- label
I0428 19:50:05.901422 26927 net.cpp:382] label_mnist_1_split -> label_mnist_1_split_0
I0428 19:50:05.901453 26927 net.cpp:382] label_mnist_1_split -> label_mnist_1_split_1
I0428 19:50:05.901494 26927 net.cpp:124] Setting up label_mnist_1_split
I0428 19:50:05.901509 26927 net.cpp:131] Top shape: 100 (100)
I0428 19:50:05.901512 26927 net.cpp:131] Top shape: 100 (100)
I0428 19:50:05.901515 26927 net.cpp:139] Memory required for data: 314800
I0428 19:50:05.901518 26927 layer_factory.hpp:77] Creating layer conv0
I0428 19:50:05.901528 26927 net.cpp:86] Creating Layer conv0
I0428 19:50:05.901531 26927 net.cpp:408] conv0 <- data
I0428 19:50:05.901537 26927 net.cpp:382] conv0 -> conv0
I0428 19:50:05.903282 26927 net.cpp:124] Setting up conv0
I0428 19:50:05.903296 26927 net.cpp:131] Top shape: 100 5 24 24 (288000)
I0428 19:50:05.903300 26927 net.cpp:139] Memory required for data: 1466800
I0428 19:50:05.903321 26927 layer_factory.hpp:77] Creating layer pool0
I0428 19:50:05.903338 26927 net.cpp:86] Creating Layer pool0
I0428 19:50:05.903342 26927 net.cpp:408] pool0 <- conv0
I0428 19:50:05.903362 26927 net.cpp:382] pool0 -> pool0
I0428 19:50:05.903398 26927 net.cpp:124] Setting up pool0
I0428 19:50:05.903405 26927 net.cpp:131] Top shape: 100 5 12 12 (72000)
I0428 19:50:05.903409 26927 net.cpp:139] Memory required for data: 1754800
I0428 19:50:05.903411 26927 layer_factory.hpp:77] Creating layer conv1
I0428 19:50:05.903420 26927 net.cpp:86] Creating Layer conv1
I0428 19:50:05.903424 26927 net.cpp:408] conv1 <- pool0
I0428 19:50:05.903429 26927 net.cpp:382] conv1 -> conv1
I0428 19:50:05.905484 26927 net.cpp:124] Setting up conv1
I0428 19:50:05.905498 26927 net.cpp:131] Top shape: 100 10 8 8 (64000)
I0428 19:50:05.905503 26927 net.cpp:139] Memory required for data: 2010800
I0428 19:50:05.905511 26927 layer_factory.hpp:77] Creating layer pool1
I0428 19:50:05.905519 26927 net.cpp:86] Creating Layer pool1
I0428 19:50:05.905522 26927 net.cpp:408] pool1 <- conv1
I0428 19:50:05.905527 26927 net.cpp:382] pool1 -> pool1
I0428 19:50:05.905597 26927 net.cpp:124] Setting up pool1
I0428 19:50:05.905603 26927 net.cpp:131] Top shape: 100 10 4 4 (16000)
I0428 19:50:05.905606 26927 net.cpp:139] Memory required for data: 2074800
I0428 19:50:05.905616 26927 layer_factory.hpp:77] Creating layer ip1
I0428 19:50:05.905622 26927 net.cpp:86] Creating Layer ip1
I0428 19:50:05.905624 26927 net.cpp:408] ip1 <- pool1
I0428 19:50:05.905630 26927 net.cpp:382] ip1 -> ip1
I0428 19:50:05.905777 26927 net.cpp:124] Setting up ip1
I0428 19:50:05.905786 26927 net.cpp:131] Top shape: 100 50 (5000)
I0428 19:50:05.905799 26927 net.cpp:139] Memory required for data: 2094800
I0428 19:50:05.905807 26927 layer_factory.hpp:77] Creating layer relu1
I0428 19:50:05.905813 26927 net.cpp:86] Creating Layer relu1
I0428 19:50:05.905817 26927 net.cpp:408] relu1 <- ip1
I0428 19:50:05.905822 26927 net.cpp:369] relu1 -> ip1 (in-place)
I0428 19:50:05.906086 26927 net.cpp:124] Setting up relu1
I0428 19:50:05.906095 26927 net.cpp:131] Top shape: 100 50 (5000)
I0428 19:50:05.906102 26927 net.cpp:139] Memory required for data: 2114800
I0428 19:50:05.906106 26927 layer_factory.hpp:77] Creating layer ip2
I0428 19:50:05.906114 26927 net.cpp:86] Creating Layer ip2
I0428 19:50:05.906122 26927 net.cpp:408] ip2 <- ip1
I0428 19:50:05.906127 26927 net.cpp:382] ip2 -> ip2
I0428 19:50:05.906232 26927 net.cpp:124] Setting up ip2
I0428 19:50:05.906239 26927 net.cpp:131] Top shape: 100 10 (1000)
I0428 19:50:05.906242 26927 net.cpp:139] Memory required for data: 2118800
I0428 19:50:05.906249 26927 layer_factory.hpp:77] Creating layer relu2
I0428 19:50:05.906252 26927 net.cpp:86] Creating Layer relu2
I0428 19:50:05.906255 26927 net.cpp:408] relu2 <- ip2
I0428 19:50:05.906261 26927 net.cpp:369] relu2 -> ip2 (in-place)
I0428 19:50:05.906420 26927 net.cpp:124] Setting up relu2
I0428 19:50:05.906428 26927 net.cpp:131] Top shape: 100 10 (1000)
I0428 19:50:05.906438 26927 net.cpp:139] Memory required for data: 2122800
I0428 19:50:05.906441 26927 layer_factory.hpp:77] Creating layer ip2_relu2_0_split
I0428 19:50:05.906445 26927 net.cpp:86] Creating Layer ip2_relu2_0_split
I0428 19:50:05.906448 26927 net.cpp:408] ip2_relu2_0_split <- ip2
I0428 19:50:05.906455 26927 net.cpp:382] ip2_relu2_0_split -> ip2_relu2_0_split_0
I0428 19:50:05.906469 26927 net.cpp:382] ip2_relu2_0_split -> ip2_relu2_0_split_1
I0428 19:50:05.906507 26927 net.cpp:124] Setting up ip2_relu2_0_split
I0428 19:50:05.906518 26927 net.cpp:131] Top shape: 100 10 (1000)
I0428 19:50:05.906523 26927 net.cpp:131] Top shape: 100 10 (1000)
I0428 19:50:05.906527 26927 net.cpp:139] Memory required for data: 2130800
I0428 19:50:05.906545 26927 layer_factory.hpp:77] Creating layer accuracy
I0428 19:50:05.906551 26927 net.cpp:86] Creating Layer accuracy
I0428 19:50:05.906554 26927 net.cpp:408] accuracy <- ip2_relu2_0_split_0
I0428 19:50:05.906558 26927 net.cpp:408] accuracy <- label_mnist_1_split_0
I0428 19:50:05.906584 26927 net.cpp:382] accuracy -> accuracy
…
