…
I0428 20:09:29.138775 31633 net.cpp:296] The NetState phase (0) differed from the phase (1) specified by a rule in layer mnist
I0428 20:09:29.138795 31633 net.cpp:296] The NetState phase (0) differed from the phase (1) specified by a rule in layer accuracy
I0428 20:09:29.138897 31633 net.cpp:53] Initializing net from parameters: 
name: "LeNet"
state {
  phase: TRAIN
  level: 0
  stage: ""
}
layer {
  name: "mnist"
  type: "Data"
  top: "data"
  top: "label"
  include {
    phase: TRAIN
  }
  transform_param {
    scale: 0.00390625
  }
  data_param {
    source: "examples/mnist/mnist_train_lmdb"
    batch_size: 64
    backend: LMDB
  }
}
layer {
  name: "conv0"
  type: "Convolution"
  bottom: "data"
  top: "conv0"
  param {
    lr_mult: 1
  }
  param {
    lr_mult: 2
  }
  convolution_param {
    num_output: 25
    kernel_size: 5
    stride: 1
    weight_filler {
      type: "xavier"
    }
    bias_filler {
      type: "constant"
    }
  }
}
layer {
  name: "pool0"
  type: "Pooling"
  bottom: "conv0"
  top: "pool0"
  pooling_param {
    pool: MAX
    kernel_size: 2
    stride: 2
  }
}
layer {
  name: "conv1"
  type: "Convolution"
  bottom: "pool0"
  top: "conv1"
  param {
    lr_mult: 1
  }
  param {
    lr_mult: 2
  }
  convolution_param {
    num_output: 25
    kernel_size: 5
    stride: 1
    weight_filler {
      type: "xavier"
    }
    bias_filler {
      type: "constant"
    }
  }
}
layer {
  name: "pool1"
  type: "Pooling"
  bottom: "conv1"
  top: "pool1"
  pooling_param {
    pool: MAX
    kernel_size: 2
    stride: 2
  }
}
layer {
  name: "ip1"
  type: "InnerProduct"
  bottom: "pool1"
  top: "ip1"
  param {
    lr_mult: 1
  }
  param {
    lr_mult: 2
  }
  inner_product_param {
    num_output: 10
    weight_filler {
      type: "xavier"
    }
    bias_filler {
      type: "constant"
    }
  }
}
layer {
  name: "relu1"
  type: "ReLU"
  bottom: "ip1"
  top: "ip1"
}
layer {
  name: "ip2"
  type: "InnerProduct"
  bottom: "ip1"
  top: "ip2"
  param {
    lr_mult: 1
  }
  param {
    lr_mult: 2
  }
  inner_product_param {
    num_output: 50
    weight_filler {
      type: "xavier"
    }
    bias_filler {
      type: "constant"
    }
  }
}
layer {
  name: "relu2"
  type: "ReLU"
  bottom: "ip2"
  top: "ip2"
}
layer {
  name: "ip3"
  type: "InnerProduct"
  bottom: "ip2"
  top: "ip3"
  param {
    lr_mult: 1
  }
  param {
    lr_mult: 2
  }
  inner_product_param {
    num_output: 10
    weight_filler {
      type: "xavier"
    }
    bias_filler {
      type: "constant"
    }
  }
}
layer {
  name: "relu3"
  type: "ReLU"
  bottom: "ip3"
  top: "ip3"
}
layer {
  name: "loss"
  type: "SoftmaxWithLoss"
  bottom: "ip3"
  bottom: "label"
  top: "loss"
}
I0428 20:09:29.138979 31633 layer_factory.hpp:77] Creating layer mnist
I0428 20:09:29.139078 31633 db_lmdb.cpp:35] Opened lmdb examples/mnist/mnist_train_lmdb
I0428 20:09:29.139101 31633 net.cpp:86] Creating Layer mnist
I0428 20:09:29.139111 31633 net.cpp:382] mnist -> data
I0428 20:09:29.139133 31633 net.cpp:382] mnist -> label
I0428 20:09:29.140230 31633 data_layer.cpp:45] output data size: 64,1,28,28
I0428 20:09:29.142698 31633 net.cpp:124] Setting up mnist
I0428 20:09:29.142716 31633 net.cpp:131] Top shape: 64 1 28 28 (50176)
I0428 20:09:29.142722 31633 net.cpp:131] Top shape: 64 (64)
I0428 20:09:29.142726 31633 net.cpp:139] Memory required for data: 200960
I0428 20:09:29.142734 31633 layer_factory.hpp:77] Creating layer conv0
I0428 20:09:29.142765 31633 net.cpp:86] Creating Layer conv0
I0428 20:09:29.142787 31633 net.cpp:408] conv0 <- data
I0428 20:09:29.142802 31633 net.cpp:382] conv0 -> conv0
I0428 20:09:29.417248 31633 net.cpp:124] Setting up conv0
I0428 20:09:29.417289 31633 net.cpp:131] Top shape: 64 25 24 24 (921600)
I0428 20:09:29.417294 31633 net.cpp:139] Memory required for data: 3887360
I0428 20:09:29.417309 31633 layer_factory.hpp:77] Creating layer pool0
I0428 20:09:29.417320 31633 net.cpp:86] Creating Layer pool0
I0428 20:09:29.417325 31633 net.cpp:408] pool0 <- conv0
I0428 20:09:29.417346 31633 net.cpp:382] pool0 -> pool0
I0428 20:09:29.417393 31633 net.cpp:124] Setting up pool0
I0428 20:09:29.417405 31633 net.cpp:131] Top shape: 64 25 12 12 (230400)
I0428 20:09:29.417408 31633 net.cpp:139] Memory required for data: 4808960
I0428 20:09:29.417412 31633 layer_factory.hpp:77] Creating layer conv1
I0428 20:09:29.417423 31633 net.cpp:86] Creating Layer conv1
I0428 20:09:29.417425 31633 net.cpp:408] conv1 <- pool0
I0428 20:09:29.417430 31633 net.cpp:382] conv1 -> conv1
I0428 20:09:29.420298 31633 net.cpp:124] Setting up conv1
I0428 20:09:29.420327 31633 net.cpp:131] Top shape: 64 25 8 8 (102400)
I0428 20:09:29.420331 31633 net.cpp:139] Memory required for data: 5218560
I0428 20:09:29.420354 31633 layer_factory.hpp:77] Creating layer pool1
I0428 20:09:29.420362 31633 net.cpp:86] Creating Layer pool1
I0428 20:09:29.420366 31633 net.cpp:408] pool1 <- conv1
I0428 20:09:29.420372 31633 net.cpp:382] pool1 -> pool1
I0428 20:09:29.420428 31633 net.cpp:124] Setting up pool1
I0428 20:09:29.420433 31633 net.cpp:131] Top shape: 64 25 4 4 (25600)
I0428 20:09:29.420435 31633 net.cpp:139] Memory required for data: 5320960
I0428 20:09:29.420439 31633 layer_factory.hpp:77] Creating layer ip1
I0428 20:09:29.420450 31633 net.cpp:86] Creating Layer ip1
I0428 20:09:29.420454 31633 net.cpp:408] ip1 <- pool1
I0428 20:09:29.420459 31633 net.cpp:382] ip1 -> ip1
I0428 20:09:29.421459 31633 net.cpp:124] Setting up ip1
I0428 20:09:29.421489 31633 net.cpp:131] Top shape: 64 10 (640)
I0428 20:09:29.421507 31633 net.cpp:139] Memory required for data: 5323520
I0428 20:09:29.421516 31633 layer_factory.hpp:77] Creating layer relu1
I0428 20:09:29.421525 31633 net.cpp:86] Creating Layer relu1
I0428 20:09:29.421528 31633 net.cpp:408] relu1 <- ip1
I0428 20:09:29.421533 31633 net.cpp:369] relu1 -> ip1 (in-place)
I0428 20:09:29.421717 31633 net.cpp:124] Setting up relu1
I0428 20:09:29.421726 31633 net.cpp:131] Top shape: 64 10 (640)
I0428 20:09:29.421730 31633 net.cpp:139] Memory required for data: 5326080
I0428 20:09:29.421733 31633 layer_factory.hpp:77] Creating layer ip2
I0428 20:09:29.421741 31633 net.cpp:86] Creating Layer ip2
I0428 20:09:29.421743 31633 net.cpp:408] ip2 <- ip1
I0428 20:09:29.421749 31633 net.cpp:382] ip2 -> ip2
I0428 20:09:29.421859 31633 net.cpp:124] Setting up ip2
I0428 20:09:29.421866 31633 net.cpp:131] Top shape: 64 50 (3200)
I0428 20:09:29.421869 31633 net.cpp:139] Memory required for data: 5338880
I0428 20:09:29.421875 31633 layer_factory.hpp:77] Creating layer relu2
I0428 20:09:29.421881 31633 net.cpp:86] Creating Layer relu2
I0428 20:09:29.421885 31633 net.cpp:408] relu2 <- ip2
I0428 20:09:29.421890 31633 net.cpp:369] relu2 -> ip2 (in-place)
I0428 20:09:29.422662 31633 net.cpp:124] Setting up relu2
I0428 20:09:29.422674 31633 net.cpp:131] Top shape: 64 50 (3200)
I0428 20:09:29.422693 31633 net.cpp:139] Memory required for data: 5351680
I0428 20:09:29.422698 31633 layer_factory.hpp:77] Creating layer ip3
I0428 20:09:29.422704 31633 net.cpp:86] Creating Layer ip3
I0428 20:09:29.422708 31633 net.cpp:408] ip3 <- ip2
I0428 20:09:29.422715 31633 net.cpp:382] ip3 -> ip3
I0428 20:09:29.422828 31633 net.cpp:124] Setting up ip3
I0428 20:09:29.422837 31633 net.cpp:131] Top shape: 64 10 (640)
I0428 20:09:29.422839 31633 net.cpp:139] Memory required for data: 5354240
I0428 20:09:29.422847 31633 layer_factory.hpp:77] Creating layer relu3
I0428 20:09:29.422854 31633 net.cpp:86] Creating Layer relu3
I0428 20:09:29.422857 31633 net.cpp:408] relu3 <- ip3
I0428 20:09:29.422861 31633 net.cpp:369] relu3 -> ip3 (in-place)
I0428 20:09:29.423044 31633 net.cpp:124] Setting up relu3
I0428 20:09:29.423053 31633 net.cpp:131] Top shape: 64 10 (640)
I0428 20:09:29.423058 31633 net.cpp:139] Memory required for data: 5356800
I0428 20:09:29.423061 31633 layer_factory.hpp:77] Creating layer loss
I0428 20:09:29.423068 31633 net.cpp:86] Creating Layer loss
I0428 20:09:29.423070 31633 net.cpp:408] loss <- ip3
I0428 20:09:29.423074 31633 net.cpp:408] loss <- label
I0428 20:09:29.423080 31633 net.cpp:382] loss -> loss
I0428 20:09:29.423104 31633 layer_factory.hpp:77] Creating layer loss
…
I0428 20:09:29.423810 31633 solver.cpp:173] Creating test net (#0) specified by net file: ECE595/mnist/train_test/var_everything2/lenet_train_test1110.prototxt
I0428 20:09:29.423852 31633 net.cpp:296] The NetState phase (1) differed from the phase (0) specified by a rule in layer mnist
I0428 20:09:29.423949 31633 net.cpp:53] Initializing net from parameters: 
name: "LeNet"
state {
  phase: TEST
}
layer {
  name: "mnist"
  type: "Data"
  top: "data"
  top: "label"
  include {
    phase: TEST
  }
  transform_param {
    scale: 0.00390625
  }
  data_param {
    source: "examples/mnist/mnist_test_lmdb"
    batch_size: 100
    backend: LMDB
  }
}
layer {
  name: "conv0"
  type: "Convolution"
  bottom: "data"
  top: "conv0"
  param {
    lr_mult: 1
  }
  param {
    lr_mult: 2
  }
  convolution_param {
    num_output: 25
    kernel_size: 5
    stride: 1
    weight_filler {
      type: "xavier"
    }
    bias_filler {
      type: "constant"
    }
  }
}
layer {
  name: "pool0"
  type: "Pooling"
  bottom: "conv0"
  top: "pool0"
  pooling_param {
    pool: MAX
    kernel_size: 2
    stride: 2
  }
}
layer {
  name: "conv1"
  type: "Convolution"
  bottom: "pool0"
  top: "conv1"
  param {
    lr_mult: 1
  }
  param {
    lr_mult: 2
  }
  convolution_param {
    num_output: 25
    kernel_size: 5
    stride: 1
    weight_filler {
      type: "xavier"
    }
    bias_filler {
      type: "constant"
    }
  }
}
layer {
  name: "pool1"
  type: "Pooling"
  bottom: "conv1"
  top: "pool1"
  pooling_param {
    pool: MAX
    kernel_size: 2
    stride: 2
  }
}
layer {
  name: "ip1"
  type: "InnerProduct"
  bottom: "pool1"
  top: "ip1"
  param {
    lr_mult: 1
  }
  param {
    lr_mult: 2
  }
  inner_product_param {
    num_output: 10
    weight_filler {
      type: "xavier"
    }
    bias_filler {
      type: "constant"
    }
  }
}
layer {
  name: "relu1"
  type: "ReLU"
  bottom: "ip1"
  top: "ip1"
}
layer {
  name: "ip2"
  type: "InnerProduct"
  bottom: "ip1"
  top: "ip2"
  param {
    lr_mult: 1
  }
  param {
    lr_mult: 2
  }
  inner_product_param {
    num_output: 50
    weight_filler {
      type: "xavier"
    }
    bias_filler {
      type: "constant"
    }
  }
}
layer {
  name: "relu2"
  type: "ReLU"
  bottom: "ip2"
  top: "ip2"
}
layer {
  name: "ip3"
  type: "InnerProduct"
  bottom: "ip2"
  top: "ip3"
  param {
    lr_mult: 1
  }
  param {
    lr_mult: 2
  }
  inner_product_param {
    num_output: 10
    weight_filler {
      type: "xavier"
    }
    bias_filler {
      type: "constant"
    }
  }
}
layer {
  name: "relu3"
  type: "ReLU"
  bottom: "ip3"
  top: "ip3"
}
layer {
  name: "accuracy"
  type: "Accuracy"
  bottom: "ip3"
  bottom: "label"
  top: "accuracy"
  include {
    phase: TEST
  }
}
layer {
  name: "loss"
  type: "SoftmaxWithLoss"
  bottom: "ip3"
  bottom: "label"
  top: "loss"
}
I0428 20:09:29.424046 31633 layer_factory.hpp:77] Creating layer mnist
I0428 20:09:29.424088 31633 db_lmdb.cpp:35] Opened lmdb examples/mnist/mnist_test_lmdb
I0428 20:09:29.424101 31633 net.cpp:86] Creating Layer mnist
I0428 20:09:29.424106 31633 net.cpp:382] mnist -> data
I0428 20:09:29.424114 31633 net.cpp:382] mnist -> label
I0428 20:09:29.424203 31633 data_layer.cpp:45] output data size: 100,1,28,28
I0428 20:09:29.426620 31633 net.cpp:124] Setting up mnist
I0428 20:09:29.426645 31633 net.cpp:131] Top shape: 100 1 28 28 (78400)
I0428 20:09:29.426651 31633 net.cpp:131] Top shape: 100 (100)
I0428 20:09:29.426653 31633 net.cpp:139] Memory required for data: 314000
I0428 20:09:29.426657 31633 layer_factory.hpp:77] Creating layer label_mnist_1_split
I0428 20:09:29.426695 31633 net.cpp:86] Creating Layer label_mnist_1_split
I0428 20:09:29.426699 31633 net.cpp:408] label_mnist_1_split <- label
I0428 20:09:29.426707 31633 net.cpp:382] label_mnist_1_split -> label_mnist_1_split_0
I0428 20:09:29.426712 31633 net.cpp:382] label_mnist_1_split -> label_mnist_1_split_1
I0428 20:09:29.426781 31633 net.cpp:124] Setting up label_mnist_1_split
I0428 20:09:29.426790 31633 net.cpp:131] Top shape: 100 (100)
I0428 20:09:29.426795 31633 net.cpp:131] Top shape: 100 (100)
I0428 20:09:29.426813 31633 net.cpp:139] Memory required for data: 314800
I0428 20:09:29.426817 31633 layer_factory.hpp:77] Creating layer conv0
I0428 20:09:29.426842 31633 net.cpp:86] Creating Layer conv0
I0428 20:09:29.426846 31633 net.cpp:408] conv0 <- data
I0428 20:09:29.426851 31633 net.cpp:382] conv0 -> conv0
I0428 20:09:29.428719 31633 net.cpp:124] Setting up conv0
I0428 20:09:29.428733 31633 net.cpp:131] Top shape: 100 25 24 24 (1440000)
I0428 20:09:29.428737 31633 net.cpp:139] Memory required for data: 6074800
I0428 20:09:29.428746 31633 layer_factory.hpp:77] Creating layer pool0
I0428 20:09:29.428753 31633 net.cpp:86] Creating Layer pool0
I0428 20:09:29.428756 31633 net.cpp:408] pool0 <- conv0
I0428 20:09:29.428762 31633 net.cpp:382] pool0 -> pool0
I0428 20:09:29.428802 31633 net.cpp:124] Setting up pool0
I0428 20:09:29.428807 31633 net.cpp:131] Top shape: 100 25 12 12 (360000)
I0428 20:09:29.428818 31633 net.cpp:139] Memory required for data: 7514800
I0428 20:09:29.428823 31633 layer_factory.hpp:77] Creating layer conv1
I0428 20:09:29.428833 31633 net.cpp:86] Creating Layer conv1
I0428 20:09:29.428836 31633 net.cpp:408] conv1 <- pool0
I0428 20:09:29.428858 31633 net.cpp:382] conv1 -> conv1
I0428 20:09:29.431217 31633 net.cpp:124] Setting up conv1
I0428 20:09:29.431231 31633 net.cpp:131] Top shape: 100 25 8 8 (160000)
I0428 20:09:29.431233 31633 net.cpp:139] Memory required for data: 8154800
I0428 20:09:29.431242 31633 layer_factory.hpp:77] Creating layer pool1
I0428 20:09:29.431265 31633 net.cpp:86] Creating Layer pool1
I0428 20:09:29.431269 31633 net.cpp:408] pool1 <- conv1
I0428 20:09:29.431274 31633 net.cpp:382] pool1 -> pool1
I0428 20:09:29.431318 31633 net.cpp:124] Setting up pool1
I0428 20:09:29.431324 31633 net.cpp:131] Top shape: 100 25 4 4 (40000)
I0428 20:09:29.431327 31633 net.cpp:139] Memory required for data: 8314800
I0428 20:09:29.431337 31633 layer_factory.hpp:77] Creating layer ip1
I0428 20:09:29.431344 31633 net.cpp:86] Creating Layer ip1
I0428 20:09:29.431349 31633 net.cpp:408] ip1 <- pool1
I0428 20:09:29.431354 31633 net.cpp:382] ip1 -> ip1
I0428 20:09:29.431545 31633 net.cpp:124] Setting up ip1
I0428 20:09:29.431555 31633 net.cpp:131] Top shape: 100 10 (1000)
I0428 20:09:29.431566 31633 net.cpp:139] Memory required for data: 8318800
I0428 20:09:29.431574 31633 layer_factory.hpp:77] Creating layer relu1
I0428 20:09:29.431586 31633 net.cpp:86] Creating Layer relu1
I0428 20:09:29.431589 31633 net.cpp:408] relu1 <- ip1
I0428 20:09:29.431602 31633 net.cpp:369] relu1 -> ip1 (in-place)
I0428 20:09:29.431787 31633 net.cpp:124] Setting up relu1
I0428 20:09:29.431797 31633 net.cpp:131] Top shape: 100 10 (1000)
I0428 20:09:29.431799 31633 net.cpp:139] Memory required for data: 8322800
I0428 20:09:29.431802 31633 layer_factory.hpp:77] Creating layer ip2
I0428 20:09:29.431810 31633 net.cpp:86] Creating Layer ip2
I0428 20:09:29.431814 31633 net.cpp:408] ip2 <- ip1
I0428 20:09:29.431819 31633 net.cpp:382] ip2 -> ip2
I0428 20:09:29.431928 31633 net.cpp:124] Setting up ip2
I0428 20:09:29.431936 31633 net.cpp:131] Top shape: 100 50 (5000)
I0428 20:09:29.431939 31633 net.cpp:139] Memory required for data: 8342800
I0428 20:09:29.431946 31633 layer_factory.hpp:77] Creating layer relu2
I0428 20:09:29.431951 31633 net.cpp:86] Creating Layer relu2
I0428 20:09:29.431955 31633 net.cpp:408] relu2 <- ip2
I0428 20:09:29.431959 31633 net.cpp:369] relu2 -> ip2 (in-place)
I0428 20:09:29.432129 31633 net.cpp:124] Setting up relu2
I0428 20:09:29.432137 31633 net.cpp:131] Top shape: 100 50 (5000)
I0428 20:09:29.432140 31633 net.cpp:139] Memory required for data: 8362800
I0428 20:09:29.432144 31633 layer_factory.hpp:77] Creating layer ip3
I0428 20:09:29.432163 31633 net.cpp:86] Creating Layer ip3
I0428 20:09:29.432166 31633 net.cpp:408] ip3 <- ip2
I0428 20:09:29.432188 31633 net.cpp:382] ip3 -> ip3
I0428 20:09:29.432307 31633 net.cpp:124] Setting up ip3
I0428 20:09:29.432315 31633 net.cpp:131] Top shape: 100 10 (1000)
I0428 20:09:29.432319 31633 net.cpp:139] Memory required for data: 8366800
I0428 20:09:29.432327 31633 layer_factory.hpp:77] Creating layer relu3
I0428 20:09:29.432333 31633 net.cpp:86] Creating Layer relu3
I0428 20:09:29.432337 31633 net.cpp:408] relu3 <- ip3
I0428 20:09:29.432340 31633 net.cpp:369] relu3 -> ip3 (in-place)
I0428 20:09:29.433190 31633 net.cpp:124] Setting up relu3
I0428 20:09:29.433203 31633 net.cpp:131] Top shape: 100 10 (1000)
I0428 20:09:29.433208 31633 net.cpp:139] Memory required for data: 8370800
I0428 20:09:29.433212 31633 layer_factory.hpp:77] Creating layer ip3_relu3_0_split
I0428 20:09:29.433217 31633 net.cpp:86] Creating Layer ip3_relu3_0_split
I0428 20:09:29.433220 31633 net.cpp:408] ip3_relu3_0_split <- ip3
I0428 20:09:29.433225 31633 net.cpp:382] ip3_relu3_0_split -> ip3_relu3_0_split_0
I0428 20:09:29.433231 31633 net.cpp:382] ip3_relu3_0_split -> ip3_relu3_0_split_1
I0428 20:09:29.433277 31633 net.cpp:124] Setting up ip3_relu3_0_split
I0428 20:09:29.433284 31633 net.cpp:131] Top shape: 100 10 (1000)
I0428 20:09:29.433286 31633 net.cpp:131] Top shape: 100 10 (1000)
I0428 20:09:29.433290 31633 net.cpp:139] Memory required for data: 8378800
I0428 20:09:29.433292 31633 layer_factory.hpp:77] Creating layer accuracy
I0428 20:09:29.433298 31633 net.cpp:86] Creating Layer accuracy
I0428 20:09:29.433301 31633 net.cpp:408] accuracy <- ip3_relu3_0_split_0
I0428 20:09:29.433305 31633 net.cpp:408] accuracy <- label_mnist_1_split_0
I0428 20:09:29.433310 31633 net.cpp:382] accuracy -> accuracy
…
