…
I0428 19:41:35.855823 24862 net.cpp:296] The NetState phase (0) differed from the phase (1) specified by a rule in layer mnist
I0428 19:41:35.855842 24862 net.cpp:296] The NetState phase (0) differed from the phase (1) specified by a rule in layer accuracy
I0428 19:41:35.855944 24862 net.cpp:53] Initializing net from parameters: 
name: "LeNet"
state {
  phase: TRAIN
  level: 0
  stage: ""
}
layer {
  name: "mnist"
  type: "Data"
  top: "data"
  top: "label"
  include {
    phase: TRAIN
  }
  transform_param {
    scale: 0.00390625
  }
  data_param {
    source: "examples/mnist/mnist_train_lmdb"
    batch_size: 64
    backend: LMDB
  }
}
layer {
  name: "conv0"
  type: "Convolution"
  bottom: "data"
  top: "conv0"
  param {
    lr_mult: 1
  }
  param {
    lr_mult: 2
  }
  convolution_param {
    num_output: 2
    kernel_size: 5
    stride: 1
    weight_filler {
      type: "xavier"
    }
    bias_filler {
      type: "constant"
    }
  }
}
layer {
  name: "pool0"
  type: "Pooling"
  bottom: "conv0"
  top: "pool0"
  pooling_param {
    pool: MAX
    kernel_size: 2
    stride: 2
  }
}
layer {
  name: "conv1"
  type: "Convolution"
  bottom: "pool0"
  top: "conv1"
  param {
    lr_mult: 1
  }
  param {
    lr_mult: 2
  }
  convolution_param {
    num_output: 10
    kernel_size: 5
    stride: 1
    weight_filler {
      type: "xavier"
    }
    bias_filler {
      type: "constant"
    }
  }
}
layer {
  name: "pool1"
  type: "Pooling"
  bottom: "conv1"
  top: "pool1"
  pooling_param {
    pool: MAX
    kernel_size: 2
    stride: 2
  }
}
layer {
  name: "ip1"
  type: "InnerProduct"
  bottom: "pool1"
  top: "ip1"
  param {
    lr_mult: 1
  }
  param {
    lr_mult: 2
  }
  inner_product_param {
    num_output: 10
    weight_filler {
      type: "xavier"
    }
    bias_filler {
      type: "constant"
    }
  }
}
layer {
  name: "relu1"
  type: "ReLU"
  bottom: "ip1"
  top: "ip1"
}
layer {
  name: "ip2"
  type: "InnerProduct"
  bottom: "ip1"
  top: "ip2"
  param {
    lr_mult: 1
  }
  param {
    lr_mult: 2
  }
  inner_product_param {
    num_output: 50
    weight_filler {
      type: "xavier"
    }
    bias_filler {
      type: "constant"
    }
  }
}
layer {
  name: "relu2"
  type: "ReLU"
  bottom: "ip2"
  top: "ip2"
}
layer {
  name: "ip3"
  type: "InnerProduct"
  bottom: "ip2"
  top: "ip3"
  param {
    lr_mult: 1
  }
  param {
    lr_mult: 2
  }
  inner_product_param {
    num_output: 10
    weight_filler {
      type: "xavier"
    }
    bias_filler {
      type: "constant"
    }
  }
}
layer {
  name: "relu3"
  type: "ReLU"
  bottom: "ip3"
  top: "ip3"
}
layer {
  name: "loss"
  type: "SoftmaxWithLoss"
  bottom: "ip3"
  bottom: "label"
  top: "loss"
}
I0428 19:41:35.856024 24862 layer_factory.hpp:77] Creating layer mnist
I0428 19:41:35.856122 24862 db_lmdb.cpp:35] Opened lmdb examples/mnist/mnist_train_lmdb
I0428 19:41:35.856149 24862 net.cpp:86] Creating Layer mnist
I0428 19:41:35.856158 24862 net.cpp:382] mnist -> data
I0428 19:41:35.856181 24862 net.cpp:382] mnist -> label
I0428 19:41:35.857297 24862 data_layer.cpp:45] output data size: 64,1,28,28
I0428 19:41:35.859760 24862 net.cpp:124] Setting up mnist
I0428 19:41:35.859777 24862 net.cpp:131] Top shape: 64 1 28 28 (50176)
I0428 19:41:35.859786 24862 net.cpp:131] Top shape: 64 (64)
I0428 19:41:35.859788 24862 net.cpp:139] Memory required for data: 200960
I0428 19:41:35.859796 24862 layer_factory.hpp:77] Creating layer conv0
I0428 19:41:35.859810 24862 net.cpp:86] Creating Layer conv0
I0428 19:41:35.859832 24862 net.cpp:408] conv0 <- data
I0428 19:41:35.859845 24862 net.cpp:382] conv0 -> conv0
I0428 19:41:36.132645 24862 net.cpp:124] Setting up conv0
I0428 19:41:36.132673 24862 net.cpp:131] Top shape: 64 2 24 24 (73728)
I0428 19:41:36.132676 24862 net.cpp:139] Memory required for data: 495872
I0428 19:41:36.132689 24862 layer_factory.hpp:77] Creating layer pool0
I0428 19:41:36.132700 24862 net.cpp:86] Creating Layer pool0
I0428 19:41:36.132704 24862 net.cpp:408] pool0 <- conv0
I0428 19:41:36.132710 24862 net.cpp:382] pool0 -> pool0
I0428 19:41:36.132787 24862 net.cpp:124] Setting up pool0
I0428 19:41:36.132796 24862 net.cpp:131] Top shape: 64 2 12 12 (18432)
I0428 19:41:36.132798 24862 net.cpp:139] Memory required for data: 569600
I0428 19:41:36.132802 24862 layer_factory.hpp:77] Creating layer conv1
I0428 19:41:36.132834 24862 net.cpp:86] Creating Layer conv1
I0428 19:41:36.132838 24862 net.cpp:408] conv1 <- pool0
I0428 19:41:36.132858 24862 net.cpp:382] conv1 -> conv1
I0428 19:41:36.134799 24862 net.cpp:124] Setting up conv1
I0428 19:41:36.134814 24862 net.cpp:131] Top shape: 64 10 8 8 (40960)
I0428 19:41:36.134834 24862 net.cpp:139] Memory required for data: 733440
I0428 19:41:36.134842 24862 layer_factory.hpp:77] Creating layer pool1
I0428 19:41:36.134850 24862 net.cpp:86] Creating Layer pool1
I0428 19:41:36.134853 24862 net.cpp:408] pool1 <- conv1
I0428 19:41:36.134858 24862 net.cpp:382] pool1 -> pool1
I0428 19:41:36.134894 24862 net.cpp:124] Setting up pool1
I0428 19:41:36.134899 24862 net.cpp:131] Top shape: 64 10 4 4 (10240)
I0428 19:41:36.134903 24862 net.cpp:139] Memory required for data: 774400
I0428 19:41:36.134907 24862 layer_factory.hpp:77] Creating layer ip1
I0428 19:41:36.134917 24862 net.cpp:86] Creating Layer ip1
I0428 19:41:36.134937 24862 net.cpp:408] ip1 <- pool1
I0428 19:41:36.134941 24862 net.cpp:382] ip1 -> ip1
I0428 19:41:36.135897 24862 net.cpp:124] Setting up ip1
I0428 19:41:36.135910 24862 net.cpp:131] Top shape: 64 10 (640)
I0428 19:41:36.135928 24862 net.cpp:139] Memory required for data: 776960
I0428 19:41:36.135936 24862 layer_factory.hpp:77] Creating layer relu1
I0428 19:41:36.135943 24862 net.cpp:86] Creating Layer relu1
I0428 19:41:36.135946 24862 net.cpp:408] relu1 <- ip1
I0428 19:41:36.135951 24862 net.cpp:369] relu1 -> ip1 (in-place)
I0428 19:41:36.136137 24862 net.cpp:124] Setting up relu1
I0428 19:41:36.136147 24862 net.cpp:131] Top shape: 64 10 (640)
I0428 19:41:36.136149 24862 net.cpp:139] Memory required for data: 779520
I0428 19:41:36.136153 24862 layer_factory.hpp:77] Creating layer ip2
I0428 19:41:36.136159 24862 net.cpp:86] Creating Layer ip2
I0428 19:41:36.136162 24862 net.cpp:408] ip2 <- ip1
I0428 19:41:36.136168 24862 net.cpp:382] ip2 -> ip2
I0428 19:41:36.136272 24862 net.cpp:124] Setting up ip2
I0428 19:41:36.136279 24862 net.cpp:131] Top shape: 64 50 (3200)
I0428 19:41:36.136282 24862 net.cpp:139] Memory required for data: 792320
I0428 19:41:36.136288 24862 layer_factory.hpp:77] Creating layer relu2
I0428 19:41:36.136296 24862 net.cpp:86] Creating Layer relu2
I0428 19:41:36.136298 24862 net.cpp:408] relu2 <- ip2
I0428 19:41:36.136302 24862 net.cpp:369] relu2 -> ip2 (in-place)
I0428 19:41:36.137079 24862 net.cpp:124] Setting up relu2
I0428 19:41:36.137107 24862 net.cpp:131] Top shape: 64 50 (3200)
I0428 19:41:36.137111 24862 net.cpp:139] Memory required for data: 805120
I0428 19:41:36.137115 24862 layer_factory.hpp:77] Creating layer ip3
I0428 19:41:36.137137 24862 net.cpp:86] Creating Layer ip3
I0428 19:41:36.137156 24862 net.cpp:408] ip3 <- ip2
I0428 19:41:36.137162 24862 net.cpp:382] ip3 -> ip3
I0428 19:41:36.137264 24862 net.cpp:124] Setting up ip3
I0428 19:41:36.137271 24862 net.cpp:131] Top shape: 64 10 (640)
I0428 19:41:36.137275 24862 net.cpp:139] Memory required for data: 807680
I0428 19:41:36.137284 24862 layer_factory.hpp:77] Creating layer relu3
I0428 19:41:36.137289 24862 net.cpp:86] Creating Layer relu3
I0428 19:41:36.137292 24862 net.cpp:408] relu3 <- ip3
I0428 19:41:36.137296 24862 net.cpp:369] relu3 -> ip3 (in-place)
I0428 19:41:36.137478 24862 net.cpp:124] Setting up relu3
I0428 19:41:36.137487 24862 net.cpp:131] Top shape: 64 10 (640)
I0428 19:41:36.137490 24862 net.cpp:139] Memory required for data: 810240
I0428 19:41:36.137495 24862 layer_factory.hpp:77] Creating layer loss
I0428 19:41:36.137501 24862 net.cpp:86] Creating Layer loss
I0428 19:41:36.137503 24862 net.cpp:408] loss <- ip3
I0428 19:41:36.137507 24862 net.cpp:408] loss <- label
I0428 19:41:36.137512 24862 net.cpp:382] loss -> loss
I0428 19:41:36.137529 24862 layer_factory.hpp:77] Creating layer loss
…
I0428 19:41:36.138193 24862 solver.cpp:173] Creating test net (#0) specified by net file: ECE595/mnist/train_test/var_everything2/lenet_train_test369.prototxt
I0428 19:41:36.138252 24862 net.cpp:296] The NetState phase (1) differed from the phase (0) specified by a rule in layer mnist
I0428 19:41:36.138355 24862 net.cpp:53] Initializing net from parameters: 
name: "LeNet"
state {
  phase: TEST
}
layer {
  name: "mnist"
  type: "Data"
  top: "data"
  top: "label"
  include {
    phase: TEST
  }
  transform_param {
    scale: 0.00390625
  }
  data_param {
    source: "examples/mnist/mnist_test_lmdb"
    batch_size: 100
    backend: LMDB
  }
}
layer {
  name: "conv0"
  type: "Convolution"
  bottom: "data"
  top: "conv0"
  param {
    lr_mult: 1
  }
  param {
    lr_mult: 2
  }
  convolution_param {
    num_output: 2
    kernel_size: 5
    stride: 1
    weight_filler {
      type: "xavier"
    }
    bias_filler {
      type: "constant"
    }
  }
}
layer {
  name: "pool0"
  type: "Pooling"
  bottom: "conv0"
  top: "pool0"
  pooling_param {
    pool: MAX
    kernel_size: 2
    stride: 2
  }
}
layer {
  name: "conv1"
  type: "Convolution"
  bottom: "pool0"
  top: "conv1"
  param {
    lr_mult: 1
  }
  param {
    lr_mult: 2
  }
  convolution_param {
    num_output: 10
    kernel_size: 5
    stride: 1
    weight_filler {
      type: "xavier"
    }
    bias_filler {
      type: "constant"
    }
  }
}
layer {
  name: "pool1"
  type: "Pooling"
  bottom: "conv1"
  top: "pool1"
  pooling_param {
    pool: MAX
    kernel_size: 2
    stride: 2
  }
}
layer {
  name: "ip1"
  type: "InnerProduct"
  bottom: "pool1"
  top: "ip1"
  param {
    lr_mult: 1
  }
  param {
    lr_mult: 2
  }
  inner_product_param {
    num_output: 10
    weight_filler {
      type: "xavier"
    }
    bias_filler {
      type: "constant"
    }
  }
}
layer {
  name: "relu1"
  type: "ReLU"
  bottom: "ip1"
  top: "ip1"
}
layer {
  name: "ip2"
  type: "InnerProduct"
  bottom: "ip1"
  top: "ip2"
  param {
    lr_mult: 1
  }
  param {
    lr_mult: 2
  }
  inner_product_param {
    num_output: 50
    weight_filler {
      type: "xavier"
    }
    bias_filler {
      type: "constant"
    }
  }
}
layer {
  name: "relu2"
  type: "ReLU"
  bottom: "ip2"
  top: "ip2"
}
layer {
  name: "ip3"
  type: "InnerProduct"
  bottom: "ip2"
  top: "ip3"
  param {
    lr_mult: 1
  }
  param {
    lr_mult: 2
  }
  inner_product_param {
    num_output: 10
    weight_filler {
      type: "xavier"
    }
    bias_filler {
      type: "constant"
    }
  }
}
layer {
  name: "relu3"
  type: "ReLU"
  bottom: "ip3"
  top: "ip3"
}
layer {
  name: "accuracy"
  type: "Accuracy"
  bottom: "ip3"
  bottom: "label"
  top: "accuracy"
  include {
    phase: TEST
  }
}
layer {
  name: "loss"
  type: "SoftmaxWithLoss"
  bottom: "ip3"
  bottom: "label"
  top: "loss"
}
I0428 19:41:36.138447 24862 layer_factory.hpp:77] Creating layer mnist
I0428 19:41:36.138491 24862 db_lmdb.cpp:35] Opened lmdb examples/mnist/mnist_test_lmdb
I0428 19:41:36.138504 24862 net.cpp:86] Creating Layer mnist
I0428 19:41:36.138509 24862 net.cpp:382] mnist -> data
I0428 19:41:36.138516 24862 net.cpp:382] mnist -> label
I0428 19:41:36.138613 24862 data_layer.cpp:45] output data size: 100,1,28,28
I0428 19:41:36.140841 24862 net.cpp:124] Setting up mnist
I0428 19:41:36.140885 24862 net.cpp:131] Top shape: 100 1 28 28 (78400)
I0428 19:41:36.140890 24862 net.cpp:131] Top shape: 100 (100)
I0428 19:41:36.140894 24862 net.cpp:139] Memory required for data: 314000
I0428 19:41:36.140898 24862 layer_factory.hpp:77] Creating layer label_mnist_1_split
I0428 19:41:36.140931 24862 net.cpp:86] Creating Layer label_mnist_1_split
I0428 19:41:36.140952 24862 net.cpp:408] label_mnist_1_split <- label
I0428 19:41:36.140957 24862 net.cpp:382] label_mnist_1_split -> label_mnist_1_split_0
I0428 19:41:36.140979 24862 net.cpp:382] label_mnist_1_split -> label_mnist_1_split_1
I0428 19:41:36.141018 24862 net.cpp:124] Setting up label_mnist_1_split
I0428 19:41:36.141023 24862 net.cpp:131] Top shape: 100 (100)
I0428 19:41:36.141027 24862 net.cpp:131] Top shape: 100 (100)
I0428 19:41:36.141031 24862 net.cpp:139] Memory required for data: 314800
I0428 19:41:36.141033 24862 layer_factory.hpp:77] Creating layer conv0
I0428 19:41:36.141041 24862 net.cpp:86] Creating Layer conv0
I0428 19:41:36.141044 24862 net.cpp:408] conv0 <- data
I0428 19:41:36.141048 24862 net.cpp:382] conv0 -> conv0
I0428 19:41:36.142951 24862 net.cpp:124] Setting up conv0
I0428 19:41:36.142966 24862 net.cpp:131] Top shape: 100 2 24 24 (115200)
I0428 19:41:36.142984 24862 net.cpp:139] Memory required for data: 775600
I0428 19:41:36.143009 24862 layer_factory.hpp:77] Creating layer pool0
I0428 19:41:36.143016 24862 net.cpp:86] Creating Layer pool0
I0428 19:41:36.143021 24862 net.cpp:408] pool0 <- conv0
I0428 19:41:36.143026 24862 net.cpp:382] pool0 -> pool0
I0428 19:41:36.143077 24862 net.cpp:124] Setting up pool0
I0428 19:41:36.143097 24862 net.cpp:131] Top shape: 100 2 12 12 (28800)
I0428 19:41:36.143100 24862 net.cpp:139] Memory required for data: 890800
I0428 19:41:36.143103 24862 layer_factory.hpp:77] Creating layer conv1
I0428 19:41:36.143112 24862 net.cpp:86] Creating Layer conv1
I0428 19:41:36.143115 24862 net.cpp:408] conv1 <- pool0
I0428 19:41:36.143121 24862 net.cpp:382] conv1 -> conv1
I0428 19:41:36.144929 24862 net.cpp:124] Setting up conv1
I0428 19:41:36.144945 24862 net.cpp:131] Top shape: 100 10 8 8 (64000)
I0428 19:41:36.144949 24862 net.cpp:139] Memory required for data: 1146800
I0428 19:41:36.144958 24862 layer_factory.hpp:77] Creating layer pool1
I0428 19:41:36.144968 24862 net.cpp:86] Creating Layer pool1
I0428 19:41:36.144971 24862 net.cpp:408] pool1 <- conv1
I0428 19:41:36.144976 24862 net.cpp:382] pool1 -> pool1
I0428 19:41:36.145018 24862 net.cpp:124] Setting up pool1
I0428 19:41:36.145023 24862 net.cpp:131] Top shape: 100 10 4 4 (16000)
I0428 19:41:36.145027 24862 net.cpp:139] Memory required for data: 1210800
I0428 19:41:36.145038 24862 layer_factory.hpp:77] Creating layer ip1
I0428 19:41:36.145045 24862 net.cpp:86] Creating Layer ip1
I0428 19:41:36.145054 24862 net.cpp:408] ip1 <- pool1
I0428 19:41:36.145061 24862 net.cpp:382] ip1 -> ip1
I0428 19:41:36.145208 24862 net.cpp:124] Setting up ip1
I0428 19:41:36.145216 24862 net.cpp:131] Top shape: 100 10 (1000)
I0428 19:41:36.145231 24862 net.cpp:139] Memory required for data: 1214800
I0428 19:41:36.145239 24862 layer_factory.hpp:77] Creating layer relu1
I0428 19:41:36.145244 24862 net.cpp:86] Creating Layer relu1
I0428 19:41:36.145262 24862 net.cpp:408] relu1 <- ip1
I0428 19:41:36.145267 24862 net.cpp:369] relu1 -> ip1 (in-place)
I0428 19:41:36.145457 24862 net.cpp:124] Setting up relu1
I0428 19:41:36.145465 24862 net.cpp:131] Top shape: 100 10 (1000)
I0428 19:41:36.145469 24862 net.cpp:139] Memory required for data: 1218800
I0428 19:41:36.145473 24862 layer_factory.hpp:77] Creating layer ip2
I0428 19:41:36.145480 24862 net.cpp:86] Creating Layer ip2
I0428 19:41:36.145494 24862 net.cpp:408] ip2 <- ip1
I0428 19:41:36.145519 24862 net.cpp:382] ip2 -> ip2
I0428 19:41:36.145625 24862 net.cpp:124] Setting up ip2
I0428 19:41:36.145633 24862 net.cpp:131] Top shape: 100 50 (5000)
I0428 19:41:36.145637 24862 net.cpp:139] Memory required for data: 1238800
I0428 19:41:36.145649 24862 layer_factory.hpp:77] Creating layer relu2
I0428 19:41:36.145655 24862 net.cpp:86] Creating Layer relu2
I0428 19:41:36.145663 24862 net.cpp:408] relu2 <- ip2
I0428 19:41:36.145668 24862 net.cpp:369] relu2 -> ip2 (in-place)
I0428 19:41:36.145831 24862 net.cpp:124] Setting up relu2
I0428 19:41:36.145839 24862 net.cpp:131] Top shape: 100 50 (5000)
I0428 19:41:36.145843 24862 net.cpp:139] Memory required for data: 1258800
I0428 19:41:36.145846 24862 layer_factory.hpp:77] Creating layer ip3
I0428 19:41:36.145851 24862 net.cpp:86] Creating Layer ip3
I0428 19:41:36.145854 24862 net.cpp:408] ip3 <- ip2
I0428 19:41:36.145859 24862 net.cpp:382] ip3 -> ip3
I0428 19:41:36.145995 24862 net.cpp:124] Setting up ip3
I0428 19:41:36.146014 24862 net.cpp:131] Top shape: 100 10 (1000)
I0428 19:41:36.146018 24862 net.cpp:139] Memory required for data: 1262800
I0428 19:41:36.146024 24862 layer_factory.hpp:77] Creating layer relu3
I0428 19:41:36.146030 24862 net.cpp:86] Creating Layer relu3
I0428 19:41:36.146033 24862 net.cpp:408] relu3 <- ip3
I0428 19:41:36.146036 24862 net.cpp:369] relu3 -> ip3 (in-place)
I0428 19:41:36.147023 24862 net.cpp:124] Setting up relu3
I0428 19:41:36.147037 24862 net.cpp:131] Top shape: 100 10 (1000)
I0428 19:41:36.147040 24862 net.cpp:139] Memory required for data: 1266800
I0428 19:41:36.147044 24862 layer_factory.hpp:77] Creating layer ip3_relu3_0_split
I0428 19:41:36.147049 24862 net.cpp:86] Creating Layer ip3_relu3_0_split
I0428 19:41:36.147053 24862 net.cpp:408] ip3_relu3_0_split <- ip3
I0428 19:41:36.147058 24862 net.cpp:382] ip3_relu3_0_split -> ip3_relu3_0_split_0
I0428 19:41:36.147066 24862 net.cpp:382] ip3_relu3_0_split -> ip3_relu3_0_split_1
I0428 19:41:36.147106 24862 net.cpp:124] Setting up ip3_relu3_0_split
I0428 19:41:36.147112 24862 net.cpp:131] Top shape: 100 10 (1000)
I0428 19:41:36.147116 24862 net.cpp:131] Top shape: 100 10 (1000)
I0428 19:41:36.147119 24862 net.cpp:139] Memory required for data: 1274800
I0428 19:41:36.147122 24862 layer_factory.hpp:77] Creating layer accuracy
I0428 19:41:36.147128 24862 net.cpp:86] Creating Layer accuracy
I0428 19:41:36.147131 24862 net.cpp:408] accuracy <- ip3_relu3_0_split_0
I0428 19:41:36.147135 24862 net.cpp:408] accuracy <- label_mnist_1_split_0
I0428 19:41:36.147140 24862 net.cpp:382] accuracy -> accuracy
…
