…
I0428 19:33:11.997678 23047 net.cpp:296] The NetState phase (0) differed from the phase (1) specified by a rule in layer mnist
I0428 19:33:11.997695 23047 net.cpp:296] The NetState phase (0) differed from the phase (1) specified by a rule in layer accuracy
I0428 19:33:11.997786 23047 net.cpp:53] Initializing net from parameters: 
name: "LeNet"
state {
  phase: TRAIN
  level: 0
  stage: ""
}
layer {
  name: "mnist"
  type: "Data"
  top: "data"
  top: "label"
  include {
    phase: TRAIN
  }
  transform_param {
    scale: 0.00390625
  }
  data_param {
    source: "examples/mnist/mnist_train_lmdb"
    batch_size: 64
    backend: LMDB
  }
}
layer {
  name: "conv0"
  type: "Convolution"
  bottom: "data"
  top: "conv0"
  param {
    lr_mult: 1
  }
  param {
    lr_mult: 2
  }
  convolution_param {
    num_output: 25
    kernel_size: 5
    stride: 1
    weight_filler {
      type: "xavier"
    }
    bias_filler {
      type: "constant"
    }
  }
}
layer {
  name: "pool0"
  type: "Pooling"
  bottom: "conv0"
  top: "pool0"
  pooling_param {
    pool: MAX
    kernel_size: 2
    stride: 2
  }
}
layer {
  name: "ip1"
  type: "InnerProduct"
  bottom: "pool0"
  top: "ip1"
  param {
    lr_mult: 1
  }
  param {
    lr_mult: 2
  }
  inner_product_param {
    num_output: 10
    weight_filler {
      type: "xavier"
    }
    bias_filler {
      type: "constant"
    }
  }
}
layer {
  name: "relu1"
  type: "ReLU"
  bottom: "ip1"
  top: "ip1"
}
layer {
  name: "ip2"
  type: "InnerProduct"
  bottom: "ip1"
  top: "ip2"
  param {
    lr_mult: 1
  }
  param {
    lr_mult: 2
  }
  inner_product_param {
    num_output: 25
    weight_filler {
      type: "xavier"
    }
    bias_filler {
      type: "constant"
    }
  }
}
layer {
  name: "relu2"
  type: "ReLU"
  bottom: "ip2"
  top: "ip2"
}
layer {
  name: "ip3"
  type: "InnerProduct"
  bottom: "ip2"
  top: "ip3"
  param {
    lr_mult: 1
  }
  param {
    lr_mult: 2
  }
  inner_product_param {
    num_output: 10
    weight_filler {
      type: "xavier"
    }
    bias_filler {
      type: "constant"
    }
  }
}
layer {
  name: "relu3"
  type: "ReLU"
  bottom: "ip3"
  top: "ip3"
}
layer {
  name: "loss"
  type: "SoftmaxWithLoss"
  bottom: "ip3"
  bottom: "label"
  top: "loss"
}
I0428 19:33:11.997861 23047 layer_factory.hpp:77] Creating layer mnist
I0428 19:33:11.997966 23047 db_lmdb.cpp:35] Opened lmdb examples/mnist/mnist_train_lmdb
I0428 19:33:11.997990 23047 net.cpp:86] Creating Layer mnist
I0428 19:33:11.998000 23047 net.cpp:382] mnist -> data
I0428 19:33:11.998023 23047 net.cpp:382] mnist -> label
I0428 19:33:11.999128 23047 data_layer.cpp:45] output data size: 64,1,28,28
I0428 19:33:12.001611 23047 net.cpp:124] Setting up mnist
I0428 19:33:12.001629 23047 net.cpp:131] Top shape: 64 1 28 28 (50176)
I0428 19:33:12.001636 23047 net.cpp:131] Top shape: 64 (64)
I0428 19:33:12.001639 23047 net.cpp:139] Memory required for data: 200960
I0428 19:33:12.001647 23047 layer_factory.hpp:77] Creating layer conv0
I0428 19:33:12.001703 23047 net.cpp:86] Creating Layer conv0
I0428 19:33:12.001709 23047 net.cpp:408] conv0 <- data
I0428 19:33:12.001724 23047 net.cpp:382] conv0 -> conv0
I0428 19:33:12.294608 23047 net.cpp:124] Setting up conv0
I0428 19:33:12.294641 23047 net.cpp:131] Top shape: 64 25 24 24 (921600)
I0428 19:33:12.294646 23047 net.cpp:139] Memory required for data: 3887360
I0428 19:33:12.294663 23047 layer_factory.hpp:77] Creating layer pool0
I0428 19:33:12.294678 23047 net.cpp:86] Creating Layer pool0
I0428 19:33:12.294706 23047 net.cpp:408] pool0 <- conv0
I0428 19:33:12.294714 23047 net.cpp:382] pool0 -> pool0
I0428 19:33:12.294778 23047 net.cpp:124] Setting up pool0
I0428 19:33:12.294786 23047 net.cpp:131] Top shape: 64 25 12 12 (230400)
I0428 19:33:12.294790 23047 net.cpp:139] Memory required for data: 4808960
I0428 19:33:12.294795 23047 layer_factory.hpp:77] Creating layer ip1
I0428 19:33:12.294803 23047 net.cpp:86] Creating Layer ip1
I0428 19:33:12.294807 23047 net.cpp:408] ip1 <- pool0
I0428 19:33:12.294813 23047 net.cpp:382] ip1 -> ip1
I0428 19:33:12.295178 23047 net.cpp:124] Setting up ip1
I0428 19:33:12.295188 23047 net.cpp:131] Top shape: 64 10 (640)
I0428 19:33:12.295192 23047 net.cpp:139] Memory required for data: 4811520
I0428 19:33:12.295200 23047 layer_factory.hpp:77] Creating layer relu1
I0428 19:33:12.295208 23047 net.cpp:86] Creating Layer relu1
I0428 19:33:12.295213 23047 net.cpp:408] relu1 <- ip1
I0428 19:33:12.295218 23047 net.cpp:369] relu1 -> ip1 (in-place)
I0428 19:33:12.295411 23047 net.cpp:124] Setting up relu1
I0428 19:33:12.295423 23047 net.cpp:131] Top shape: 64 10 (640)
I0428 19:33:12.295426 23047 net.cpp:139] Memory required for data: 4814080
I0428 19:33:12.295430 23047 layer_factory.hpp:77] Creating layer ip2
I0428 19:33:12.295439 23047 net.cpp:86] Creating Layer ip2
I0428 19:33:12.295442 23047 net.cpp:408] ip2 <- ip1
I0428 19:33:12.295449 23047 net.cpp:382] ip2 -> ip2
I0428 19:33:12.295562 23047 net.cpp:124] Setting up ip2
I0428 19:33:12.295570 23047 net.cpp:131] Top shape: 64 25 (1600)
I0428 19:33:12.295573 23047 net.cpp:139] Memory required for data: 4820480
I0428 19:33:12.295583 23047 layer_factory.hpp:77] Creating layer relu2
I0428 19:33:12.295589 23047 net.cpp:86] Creating Layer relu2
I0428 19:33:12.295593 23047 net.cpp:408] relu2 <- ip2
I0428 19:33:12.295598 23047 net.cpp:369] relu2 -> ip2 (in-place)
I0428 19:33:12.296444 23047 net.cpp:124] Setting up relu2
I0428 19:33:12.296459 23047 net.cpp:131] Top shape: 64 25 (1600)
I0428 19:33:12.296463 23047 net.cpp:139] Memory required for data: 4826880
I0428 19:33:12.296468 23047 layer_factory.hpp:77] Creating layer ip3
I0428 19:33:12.296475 23047 net.cpp:86] Creating Layer ip3
I0428 19:33:12.296479 23047 net.cpp:408] ip3 <- ip2
I0428 19:33:12.296485 23047 net.cpp:382] ip3 -> ip3
I0428 19:33:12.296596 23047 net.cpp:124] Setting up ip3
I0428 19:33:12.296604 23047 net.cpp:131] Top shape: 64 10 (640)
I0428 19:33:12.296608 23047 net.cpp:139] Memory required for data: 4829440
I0428 19:33:12.296615 23047 layer_factory.hpp:77] Creating layer relu3
I0428 19:33:12.296622 23047 net.cpp:86] Creating Layer relu3
I0428 19:33:12.296627 23047 net.cpp:408] relu3 <- ip3
I0428 19:33:12.296632 23047 net.cpp:369] relu3 -> ip3 (in-place)
I0428 19:33:12.296805 23047 net.cpp:124] Setting up relu3
I0428 19:33:12.296823 23047 net.cpp:131] Top shape: 64 10 (640)
I0428 19:33:12.296826 23047 net.cpp:139] Memory required for data: 4832000
I0428 19:33:12.296830 23047 layer_factory.hpp:77] Creating layer loss
I0428 19:33:12.296838 23047 net.cpp:86] Creating Layer loss
I0428 19:33:12.296841 23047 net.cpp:408] loss <- ip3
I0428 19:33:12.296845 23047 net.cpp:408] loss <- label
I0428 19:33:12.296854 23047 net.cpp:382] loss -> loss
I0428 19:33:12.296876 23047 layer_factory.hpp:77] Creating layer loss
…
I0428 19:33:12.297574 23047 solver.cpp:173] Creating test net (#0) specified by net file: ECE595/mnist/train_test/var_everything2/lenet_train_test173.prototxt
I0428 19:33:12.297605 23047 net.cpp:296] The NetState phase (1) differed from the phase (0) specified by a rule in layer mnist
I0428 19:33:12.297703 23047 net.cpp:53] Initializing net from parameters: 
name: "LeNet"
state {
  phase: TEST
}
layer {
  name: "mnist"
  type: "Data"
  top: "data"
  top: "label"
  include {
    phase: TEST
  }
  transform_param {
    scale: 0.00390625
  }
  data_param {
    source: "examples/mnist/mnist_test_lmdb"
    batch_size: 100
    backend: LMDB
  }
}
layer {
  name: "conv0"
  type: "Convolution"
  bottom: "data"
  top: "conv0"
  param {
    lr_mult: 1
  }
  param {
    lr_mult: 2
  }
  convolution_param {
    num_output: 25
    kernel_size: 5
    stride: 1
    weight_filler {
      type: "xavier"
    }
    bias_filler {
      type: "constant"
    }
  }
}
layer {
  name: "pool0"
  type: "Pooling"
  bottom: "conv0"
  top: "pool0"
  pooling_param {
    pool: MAX
    kernel_size: 2
    stride: 2
  }
}
layer {
  name: "ip1"
  type: "InnerProduct"
  bottom: "pool0"
  top: "ip1"
  param {
    lr_mult: 1
  }
  param {
    lr_mult: 2
  }
  inner_product_param {
    num_output: 10
    weight_filler {
      type: "xavier"
    }
    bias_filler {
      type: "constant"
    }
  }
}
layer {
  name: "relu1"
  type: "ReLU"
  bottom: "ip1"
  top: "ip1"
}
layer {
  name: "ip2"
  type: "InnerProduct"
  bottom: "ip1"
  top: "ip2"
  param {
    lr_mult: 1
  }
  param {
    lr_mult: 2
  }
  inner_product_param {
    num_output: 25
    weight_filler {
      type: "xavier"
    }
    bias_filler {
      type: "constant"
    }
  }
}
layer {
  name: "relu2"
  type: "ReLU"
  bottom: "ip2"
  top: "ip2"
}
layer {
  name: "ip3"
  type: "InnerProduct"
  bottom: "ip2"
  top: "ip3"
  param {
    lr_mult: 1
  }
  param {
    lr_mult: 2
  }
  inner_product_param {
    num_output: 10
    weight_filler {
      type: "xavier"
    }
    bias_filler {
      type: "constant"
    }
  }
}
layer {
  name: "relu3"
  type: "ReLU"
  bottom: "ip3"
  top: "ip3"
}
layer {
  name: "accuracy"
  type: "Accuracy"
  bottom: "ip3"
  bottom: "label"
  top: "accuracy"
  include {
    phase: TEST
  }
}
layer {
  name: "loss"
  type: "SoftmaxWithLoss"
  bottom: "ip3"
  bottom: "label"
  top: "loss"
}
I0428 19:33:12.297781 23047 layer_factory.hpp:77] Creating layer mnist
I0428 19:33:12.297832 23047 db_lmdb.cpp:35] Opened lmdb examples/mnist/mnist_test_lmdb
I0428 19:33:12.297852 23047 net.cpp:86] Creating Layer mnist
I0428 19:33:12.297857 23047 net.cpp:382] mnist -> data
I0428 19:33:12.297866 23047 net.cpp:382] mnist -> label
I0428 19:33:12.297967 23047 data_layer.cpp:45] output data size: 100,1,28,28
I0428 19:33:12.300165 23047 net.cpp:124] Setting up mnist
I0428 19:33:12.300181 23047 net.cpp:131] Top shape: 100 1 28 28 (78400)
I0428 19:33:12.300187 23047 net.cpp:131] Top shape: 100 (100)
I0428 19:33:12.300190 23047 net.cpp:139] Memory required for data: 314000
I0428 19:33:12.300195 23047 layer_factory.hpp:77] Creating layer label_mnist_1_split
I0428 19:33:12.300207 23047 net.cpp:86] Creating Layer label_mnist_1_split
I0428 19:33:12.300211 23047 net.cpp:408] label_mnist_1_split <- label
I0428 19:33:12.300217 23047 net.cpp:382] label_mnist_1_split -> label_mnist_1_split_0
I0428 19:33:12.300225 23047 net.cpp:382] label_mnist_1_split -> label_mnist_1_split_1
I0428 19:33:12.300274 23047 net.cpp:124] Setting up label_mnist_1_split
I0428 19:33:12.300282 23047 net.cpp:131] Top shape: 100 (100)
I0428 19:33:12.300287 23047 net.cpp:131] Top shape: 100 (100)
I0428 19:33:12.300289 23047 net.cpp:139] Memory required for data: 314800
I0428 19:33:12.300304 23047 layer_factory.hpp:77] Creating layer conv0
I0428 19:33:12.300314 23047 net.cpp:86] Creating Layer conv0
I0428 19:33:12.300318 23047 net.cpp:408] conv0 <- data
I0428 19:33:12.300325 23047 net.cpp:382] conv0 -> conv0
I0428 19:33:12.302207 23047 net.cpp:124] Setting up conv0
I0428 19:33:12.302224 23047 net.cpp:131] Top shape: 100 25 24 24 (1440000)
I0428 19:33:12.302229 23047 net.cpp:139] Memory required for data: 6074800
I0428 19:33:12.302240 23047 layer_factory.hpp:77] Creating layer pool0
I0428 19:33:12.302248 23047 net.cpp:86] Creating Layer pool0
I0428 19:33:12.302253 23047 net.cpp:408] pool0 <- conv0
I0428 19:33:12.302258 23047 net.cpp:382] pool0 -> pool0
I0428 19:33:12.302300 23047 net.cpp:124] Setting up pool0
I0428 19:33:12.302307 23047 net.cpp:131] Top shape: 100 25 12 12 (360000)
I0428 19:33:12.302310 23047 net.cpp:139] Memory required for data: 7514800
I0428 19:33:12.302314 23047 layer_factory.hpp:77] Creating layer ip1
I0428 19:33:12.302322 23047 net.cpp:86] Creating Layer ip1
I0428 19:33:12.302325 23047 net.cpp:408] ip1 <- pool0
I0428 19:33:12.302331 23047 net.cpp:382] ip1 -> ip1
I0428 19:33:12.302717 23047 net.cpp:124] Setting up ip1
I0428 19:33:12.302726 23047 net.cpp:131] Top shape: 100 10 (1000)
I0428 19:33:12.302731 23047 net.cpp:139] Memory required for data: 7518800
I0428 19:33:12.302739 23047 layer_factory.hpp:77] Creating layer relu1
I0428 19:33:12.302745 23047 net.cpp:86] Creating Layer relu1
I0428 19:33:12.302749 23047 net.cpp:408] relu1 <- ip1
I0428 19:33:12.302754 23047 net.cpp:369] relu1 -> ip1 (in-place)
I0428 19:33:12.303014 23047 net.cpp:124] Setting up relu1
I0428 19:33:12.303025 23047 net.cpp:131] Top shape: 100 10 (1000)
I0428 19:33:12.303030 23047 net.cpp:139] Memory required for data: 7522800
I0428 19:33:12.303033 23047 layer_factory.hpp:77] Creating layer ip2
I0428 19:33:12.303040 23047 net.cpp:86] Creating Layer ip2
I0428 19:33:12.303045 23047 net.cpp:408] ip2 <- ip1
I0428 19:33:12.303050 23047 net.cpp:382] ip2 -> ip2
I0428 19:33:12.303166 23047 net.cpp:124] Setting up ip2
I0428 19:33:12.303174 23047 net.cpp:131] Top shape: 100 25 (2500)
I0428 19:33:12.303179 23047 net.cpp:139] Memory required for data: 7532800
I0428 19:33:12.303189 23047 layer_factory.hpp:77] Creating layer relu2
I0428 19:33:12.303194 23047 net.cpp:86] Creating Layer relu2
I0428 19:33:12.303198 23047 net.cpp:408] relu2 <- ip2
I0428 19:33:12.303205 23047 net.cpp:369] relu2 -> ip2 (in-place)
I0428 19:33:12.304137 23047 net.cpp:124] Setting up relu2
I0428 19:33:12.304152 23047 net.cpp:131] Top shape: 100 25 (2500)
I0428 19:33:12.304155 23047 net.cpp:139] Memory required for data: 7542800
I0428 19:33:12.304159 23047 layer_factory.hpp:77] Creating layer ip3
I0428 19:33:12.304168 23047 net.cpp:86] Creating Layer ip3
I0428 19:33:12.304173 23047 net.cpp:408] ip3 <- ip2
I0428 19:33:12.304179 23047 net.cpp:382] ip3 -> ip3
I0428 19:33:12.304308 23047 net.cpp:124] Setting up ip3
I0428 19:33:12.304318 23047 net.cpp:131] Top shape: 100 10 (1000)
I0428 19:33:12.304322 23047 net.cpp:139] Memory required for data: 7546800
I0428 19:33:12.304329 23047 layer_factory.hpp:77] Creating layer relu3
I0428 19:33:12.304335 23047 net.cpp:86] Creating Layer relu3
I0428 19:33:12.304339 23047 net.cpp:408] relu3 <- ip3
I0428 19:33:12.304344 23047 net.cpp:369] relu3 -> ip3 (in-place)
I0428 19:33:12.304523 23047 net.cpp:124] Setting up relu3
I0428 19:33:12.304533 23047 net.cpp:131] Top shape: 100 10 (1000)
I0428 19:33:12.304538 23047 net.cpp:139] Memory required for data: 7550800
I0428 19:33:12.304543 23047 layer_factory.hpp:77] Creating layer ip3_relu3_0_split
I0428 19:33:12.304548 23047 net.cpp:86] Creating Layer ip3_relu3_0_split
I0428 19:33:12.304553 23047 net.cpp:408] ip3_relu3_0_split <- ip3
I0428 19:33:12.304558 23047 net.cpp:382] ip3_relu3_0_split -> ip3_relu3_0_split_0
I0428 19:33:12.304565 23047 net.cpp:382] ip3_relu3_0_split -> ip3_relu3_0_split_1
I0428 19:33:12.304605 23047 net.cpp:124] Setting up ip3_relu3_0_split
I0428 19:33:12.304613 23047 net.cpp:131] Top shape: 100 10 (1000)
I0428 19:33:12.304618 23047 net.cpp:131] Top shape: 100 10 (1000)
I0428 19:33:12.304633 23047 net.cpp:139] Memory required for data: 7558800
I0428 19:33:12.304637 23047 layer_factory.hpp:77] Creating layer accuracy
I0428 19:33:12.304643 23047 net.cpp:86] Creating Layer accuracy
I0428 19:33:12.304647 23047 net.cpp:408] accuracy <- ip3_relu3_0_split_0
I0428 19:33:12.304652 23047 net.cpp:408] accuracy <- label_mnist_1_split_0
I0428 19:33:12.304657 23047 net.cpp:382] accuracy -> accuracy
…
