…
I0428 19:49:47.876674 26854 net.cpp:296] The NetState phase (0) differed from the phase (1) specified by a rule in layer mnist
I0428 19:49:47.876688 26854 net.cpp:296] The NetState phase (0) differed from the phase (1) specified by a rule in layer accuracy
I0428 19:49:47.876765 26854 net.cpp:53] Initializing net from parameters: 
name: "LeNet"
state {
  phase: TRAIN
  level: 0
  stage: ""
}
layer {
  name: "mnist"
  type: "Data"
  top: "data"
  top: "label"
  include {
    phase: TRAIN
  }
  transform_param {
    scale: 0.00390625
  }
  data_param {
    source: "examples/mnist/mnist_train_lmdb"
    batch_size: 64
    backend: LMDB
  }
}
layer {
  name: "conv0"
  type: "Convolution"
  bottom: "data"
  top: "conv0"
  param {
    lr_mult: 1
  }
  param {
    lr_mult: 2
  }
  convolution_param {
    num_output: 5
    kernel_size: 5
    stride: 1
    weight_filler {
      type: "xavier"
    }
    bias_filler {
      type: "constant"
    }
  }
}
layer {
  name: "pool0"
  type: "Pooling"
  bottom: "conv0"
  top: "pool0"
  pooling_param {
    pool: MAX
    kernel_size: 2
    stride: 2
  }
}
layer {
  name: "conv1"
  type: "Convolution"
  bottom: "pool0"
  top: "conv1"
  param {
    lr_mult: 1
  }
  param {
    lr_mult: 2
  }
  convolution_param {
    num_output: 10
    kernel_size: 5
    stride: 1
    weight_filler {
      type: "xavier"
    }
    bias_filler {
      type: "constant"
    }
  }
}
layer {
  name: "pool1"
  type: "Pooling"
  bottom: "conv1"
  top: "pool1"
  pooling_param {
    pool: MAX
    kernel_size: 2
    stride: 2
  }
}
layer {
  name: "ip1"
  type: "InnerProduct"
  bottom: "pool1"
  top: "ip1"
  param {
    lr_mult: 1
  }
  param {
    lr_mult: 2
  }
  inner_product_param {
    num_output: 10
    weight_filler {
      type: "xavier"
    }
    bias_filler {
      type: "constant"
    }
  }
}
layer {
  name: "relu1"
  type: "ReLU"
  bottom: "ip1"
  top: "ip1"
}
layer {
  name: "loss"
  type: "SoftmaxWithLoss"
  bottom: "ip1"
  bottom: "label"
  top: "loss"
}
I0428 19:49:47.876847 26854 layer_factory.hpp:77] Creating layer mnist
I0428 19:49:47.876966 26854 db_lmdb.cpp:35] Opened lmdb examples/mnist/mnist_train_lmdb
I0428 19:49:47.876987 26854 net.cpp:86] Creating Layer mnist
I0428 19:49:47.876996 26854 net.cpp:382] mnist -> data
I0428 19:49:47.877015 26854 net.cpp:382] mnist -> label
I0428 19:49:47.877986 26854 data_layer.cpp:45] output data size: 64,1,28,28
I0428 19:49:47.880276 26854 net.cpp:124] Setting up mnist
I0428 19:49:47.880290 26854 net.cpp:131] Top shape: 64 1 28 28 (50176)
I0428 19:49:47.880295 26854 net.cpp:131] Top shape: 64 (64)
I0428 19:49:47.880298 26854 net.cpp:139] Memory required for data: 200960
I0428 19:49:47.880303 26854 layer_factory.hpp:77] Creating layer conv0
I0428 19:49:47.880317 26854 net.cpp:86] Creating Layer conv0
I0428 19:49:47.880322 26854 net.cpp:408] conv0 <- data
I0428 19:49:47.880333 26854 net.cpp:382] conv0 -> conv0
I0428 19:49:48.108899 26854 net.cpp:124] Setting up conv0
I0428 19:49:48.108942 26854 net.cpp:131] Top shape: 64 5 24 24 (184320)
I0428 19:49:48.108945 26854 net.cpp:139] Memory required for data: 938240
I0428 19:49:48.108976 26854 layer_factory.hpp:77] Creating layer pool0
I0428 19:49:48.109006 26854 net.cpp:86] Creating Layer pool0
I0428 19:49:48.109026 26854 net.cpp:408] pool0 <- conv0
I0428 19:49:48.109048 26854 net.cpp:382] pool0 -> pool0
I0428 19:49:48.109100 26854 net.cpp:124] Setting up pool0
I0428 19:49:48.109108 26854 net.cpp:131] Top shape: 64 5 12 12 (46080)
I0428 19:49:48.109127 26854 net.cpp:139] Memory required for data: 1122560
I0428 19:49:48.109133 26854 layer_factory.hpp:77] Creating layer conv1
I0428 19:49:48.109145 26854 net.cpp:86] Creating Layer conv1
I0428 19:49:48.109149 26854 net.cpp:408] conv1 <- pool0
I0428 19:49:48.109155 26854 net.cpp:382] conv1 -> conv1
I0428 19:49:48.112078 26854 net.cpp:124] Setting up conv1
I0428 19:49:48.112109 26854 net.cpp:131] Top shape: 64 10 8 8 (40960)
I0428 19:49:48.112113 26854 net.cpp:139] Memory required for data: 1286400
I0428 19:49:48.112121 26854 layer_factory.hpp:77] Creating layer pool1
I0428 19:49:48.112130 26854 net.cpp:86] Creating Layer pool1
I0428 19:49:48.112134 26854 net.cpp:408] pool1 <- conv1
I0428 19:49:48.112139 26854 net.cpp:382] pool1 -> pool1
I0428 19:49:48.112179 26854 net.cpp:124] Setting up pool1
I0428 19:49:48.112185 26854 net.cpp:131] Top shape: 64 10 4 4 (10240)
I0428 19:49:48.112186 26854 net.cpp:139] Memory required for data: 1327360
I0428 19:49:48.112190 26854 layer_factory.hpp:77] Creating layer ip1
I0428 19:49:48.112197 26854 net.cpp:86] Creating Layer ip1
I0428 19:49:48.112200 26854 net.cpp:408] ip1 <- pool1
I0428 19:49:48.112206 26854 net.cpp:382] ip1 -> ip1
I0428 19:49:48.112325 26854 net.cpp:124] Setting up ip1
I0428 19:49:48.112332 26854 net.cpp:131] Top shape: 64 10 (640)
I0428 19:49:48.112336 26854 net.cpp:139] Memory required for data: 1329920
I0428 19:49:48.112344 26854 layer_factory.hpp:77] Creating layer relu1
I0428 19:49:48.112349 26854 net.cpp:86] Creating Layer relu1
I0428 19:49:48.112352 26854 net.cpp:408] relu1 <- ip1
I0428 19:49:48.112356 26854 net.cpp:369] relu1 -> ip1 (in-place)
I0428 19:49:48.112526 26854 net.cpp:124] Setting up relu1
I0428 19:49:48.112534 26854 net.cpp:131] Top shape: 64 10 (640)
I0428 19:49:48.112537 26854 net.cpp:139] Memory required for data: 1332480
I0428 19:49:48.112540 26854 layer_factory.hpp:77] Creating layer loss
I0428 19:49:48.112547 26854 net.cpp:86] Creating Layer loss
I0428 19:49:48.112550 26854 net.cpp:408] loss <- ip1
I0428 19:49:48.112555 26854 net.cpp:408] loss <- label
I0428 19:49:48.112560 26854 net.cpp:382] loss -> loss
I0428 19:49:48.112571 26854 layer_factory.hpp:77] Creating layer loss
…
I0428 19:49:48.113826 26854 solver.cpp:173] Creating test net (#0) specified by net file: ECE595/mnist/train_test/var_everything2/lenet_train_test585.prototxt
I0428 19:49:48.113848 26854 net.cpp:296] The NetState phase (1) differed from the phase (0) specified by a rule in layer mnist
I0428 19:49:48.113919 26854 net.cpp:53] Initializing net from parameters: 
name: "LeNet"
state {
  phase: TEST
}
layer {
  name: "mnist"
  type: "Data"
  top: "data"
  top: "label"
  include {
    phase: TEST
  }
  transform_param {
    scale: 0.00390625
  }
  data_param {
    source: "examples/mnist/mnist_test_lmdb"
    batch_size: 100
    backend: LMDB
  }
}
layer {
  name: "conv0"
  type: "Convolution"
  bottom: "data"
  top: "conv0"
  param {
    lr_mult: 1
  }
  param {
    lr_mult: 2
  }
  convolution_param {
    num_output: 5
    kernel_size: 5
    stride: 1
    weight_filler {
      type: "xavier"
    }
    bias_filler {
      type: "constant"
    }
  }
}
layer {
  name: "pool0"
  type: "Pooling"
  bottom: "conv0"
  top: "pool0"
  pooling_param {
    pool: MAX
    kernel_size: 2
    stride: 2
  }
}
layer {
  name: "conv1"
  type: "Convolution"
  bottom: "pool0"
  top: "conv1"
  param {
    lr_mult: 1
  }
  param {
    lr_mult: 2
  }
  convolution_param {
    num_output: 10
    kernel_size: 5
    stride: 1
    weight_filler {
      type: "xavier"
    }
    bias_filler {
      type: "constant"
    }
  }
}
layer {
  name: "pool1"
  type: "Pooling"
  bottom: "conv1"
  top: "pool1"
  pooling_param {
    pool: MAX
    kernel_size: 2
    stride: 2
  }
}
layer {
  name: "ip1"
  type: "InnerProduct"
  bottom: "pool1"
  top: "ip1"
  param {
    lr_mult: 1
  }
  param {
    lr_mult: 2
  }
  inner_product_param {
    num_output: 10
    weight_filler {
      type: "xavier"
    }
    bias_filler {
      type: "constant"
    }
  }
}
layer {
  name: "relu1"
  type: "ReLU"
  bottom: "ip1"
  top: "ip1"
}
layer {
  name: "accuracy"
  type: "Accuracy"
  bottom: "ip1"
  bottom: "label"
  top: "accuracy"
  include {
    phase: TEST
  }
}
layer {
  name: "loss"
  type: "SoftmaxWithLoss"
  bottom: "ip1"
  bottom: "label"
  top: "loss"
}
I0428 19:49:48.113991 26854 layer_factory.hpp:77] Creating layer mnist
I0428 19:49:48.114034 26854 db_lmdb.cpp:35] Opened lmdb examples/mnist/mnist_test_lmdb
I0428 19:49:48.114047 26854 net.cpp:86] Creating Layer mnist
I0428 19:49:48.114051 26854 net.cpp:382] mnist -> data
I0428 19:49:48.114073 26854 net.cpp:382] mnist -> label
I0428 19:49:48.114188 26854 data_layer.cpp:45] output data size: 100,1,28,28
I0428 19:49:48.116192 26854 net.cpp:124] Setting up mnist
I0428 19:49:48.116238 26854 net.cpp:131] Top shape: 100 1 28 28 (78400)
I0428 19:49:48.116243 26854 net.cpp:131] Top shape: 100 (100)
I0428 19:49:48.116245 26854 net.cpp:139] Memory required for data: 314000
I0428 19:49:48.116250 26854 layer_factory.hpp:77] Creating layer label_mnist_1_split
I0428 19:49:48.116255 26854 net.cpp:86] Creating Layer label_mnist_1_split
I0428 19:49:48.116259 26854 net.cpp:408] label_mnist_1_split <- label
I0428 19:49:48.116263 26854 net.cpp:382] label_mnist_1_split -> label_mnist_1_split_0
I0428 19:49:48.116271 26854 net.cpp:382] label_mnist_1_split -> label_mnist_1_split_1
I0428 19:49:48.116331 26854 net.cpp:124] Setting up label_mnist_1_split
I0428 19:49:48.116353 26854 net.cpp:131] Top shape: 100 (100)
I0428 19:49:48.116356 26854 net.cpp:131] Top shape: 100 (100)
I0428 19:49:48.116359 26854 net.cpp:139] Memory required for data: 314800
I0428 19:49:48.116363 26854 layer_factory.hpp:77] Creating layer conv0
I0428 19:49:48.116372 26854 net.cpp:86] Creating Layer conv0
I0428 19:49:48.116375 26854 net.cpp:408] conv0 <- data
I0428 19:49:48.116381 26854 net.cpp:382] conv0 -> conv0
I0428 19:49:48.117355 26854 net.cpp:124] Setting up conv0
I0428 19:49:48.117383 26854 net.cpp:131] Top shape: 100 5 24 24 (288000)
I0428 19:49:48.117386 26854 net.cpp:139] Memory required for data: 1466800
I0428 19:49:48.117409 26854 layer_factory.hpp:77] Creating layer pool0
I0428 19:49:48.117416 26854 net.cpp:86] Creating Layer pool0
I0428 19:49:48.117419 26854 net.cpp:408] pool0 <- conv0
I0428 19:49:48.117424 26854 net.cpp:382] pool0 -> pool0
I0428 19:49:48.117475 26854 net.cpp:124] Setting up pool0
I0428 19:49:48.117480 26854 net.cpp:131] Top shape: 100 5 12 12 (72000)
I0428 19:49:48.117482 26854 net.cpp:139] Memory required for data: 1754800
I0428 19:49:48.117486 26854 layer_factory.hpp:77] Creating layer conv1
I0428 19:49:48.117493 26854 net.cpp:86] Creating Layer conv1
I0428 19:49:48.117496 26854 net.cpp:408] conv1 <- pool0
I0428 19:49:48.117501 26854 net.cpp:382] conv1 -> conv1
I0428 19:49:48.119663 26854 net.cpp:124] Setting up conv1
I0428 19:49:48.119690 26854 net.cpp:131] Top shape: 100 10 8 8 (64000)
I0428 19:49:48.119694 26854 net.cpp:139] Memory required for data: 2010800
I0428 19:49:48.119702 26854 layer_factory.hpp:77] Creating layer pool1
I0428 19:49:48.119709 26854 net.cpp:86] Creating Layer pool1
I0428 19:49:48.119738 26854 net.cpp:408] pool1 <- conv1
I0428 19:49:48.119750 26854 net.cpp:382] pool1 -> pool1
I0428 19:49:48.119808 26854 net.cpp:124] Setting up pool1
I0428 19:49:48.119814 26854 net.cpp:131] Top shape: 100 10 4 4 (16000)
I0428 19:49:48.119817 26854 net.cpp:139] Memory required for data: 2074800
I0428 19:49:48.119820 26854 layer_factory.hpp:77] Creating layer ip1
I0428 19:49:48.119827 26854 net.cpp:86] Creating Layer ip1
I0428 19:49:48.119830 26854 net.cpp:408] ip1 <- pool1
I0428 19:49:48.119834 26854 net.cpp:382] ip1 -> ip1
I0428 19:49:48.119976 26854 net.cpp:124] Setting up ip1
I0428 19:49:48.119983 26854 net.cpp:131] Top shape: 100 10 (1000)
I0428 19:49:48.119987 26854 net.cpp:139] Memory required for data: 2078800
I0428 19:49:48.119994 26854 layer_factory.hpp:77] Creating layer relu1
I0428 19:49:48.119999 26854 net.cpp:86] Creating Layer relu1
I0428 19:49:48.120003 26854 net.cpp:408] relu1 <- ip1
I0428 19:49:48.120007 26854 net.cpp:369] relu1 -> ip1 (in-place)
I0428 19:49:48.120893 26854 net.cpp:124] Setting up relu1
I0428 19:49:48.120905 26854 net.cpp:131] Top shape: 100 10 (1000)
I0428 19:49:48.120925 26854 net.cpp:139] Memory required for data: 2082800
I0428 19:49:48.120929 26854 layer_factory.hpp:77] Creating layer ip1_relu1_0_split
I0428 19:49:48.120935 26854 net.cpp:86] Creating Layer ip1_relu1_0_split
I0428 19:49:48.120939 26854 net.cpp:408] ip1_relu1_0_split <- ip1
I0428 19:49:48.120944 26854 net.cpp:382] ip1_relu1_0_split -> ip1_relu1_0_split_0
I0428 19:49:48.120950 26854 net.cpp:382] ip1_relu1_0_split -> ip1_relu1_0_split_1
I0428 19:49:48.121001 26854 net.cpp:124] Setting up ip1_relu1_0_split
I0428 19:49:48.121006 26854 net.cpp:131] Top shape: 100 10 (1000)
I0428 19:49:48.121011 26854 net.cpp:131] Top shape: 100 10 (1000)
I0428 19:49:48.121013 26854 net.cpp:139] Memory required for data: 2090800
I0428 19:49:48.121016 26854 layer_factory.hpp:77] Creating layer accuracy
I0428 19:49:48.121026 26854 net.cpp:86] Creating Layer accuracy
I0428 19:49:48.121031 26854 net.cpp:408] accuracy <- ip1_relu1_0_split_0
I0428 19:49:48.121035 26854 net.cpp:408] accuracy <- label_mnist_1_split_0
I0428 19:49:48.121040 26854 net.cpp:382] accuracy -> accuracy
…
