…
I0428 20:04:36.904145 30418 net.cpp:296] The NetState phase (0) differed from the phase (1) specified by a rule in layer mnist
I0428 20:04:36.904161 30418 net.cpp:296] The NetState phase (0) differed from the phase (1) specified by a rule in layer accuracy
I0428 20:04:36.904247 30418 net.cpp:53] Initializing net from parameters: 
name: "LeNet"
state {
  phase: TRAIN
  level: 0
  stage: ""
}
layer {
  name: "mnist"
  type: "Data"
  top: "data"
  top: "label"
  include {
    phase: TRAIN
  }
  transform_param {
    scale: 0.00390625
  }
  data_param {
    source: "examples/mnist/mnist_train_lmdb"
    batch_size: 64
    backend: LMDB
  }
}
layer {
  name: "conv0"
  type: "Convolution"
  bottom: "data"
  top: "conv0"
  param {
    lr_mult: 1
  }
  param {
    lr_mult: 2
  }
  convolution_param {
    num_output: 25
    kernel_size: 5
    stride: 1
    weight_filler {
      type: "xavier"
    }
    bias_filler {
      type: "constant"
    }
  }
}
layer {
  name: "pool0"
  type: "Pooling"
  bottom: "conv0"
  top: "pool0"
  pooling_param {
    pool: MAX
    kernel_size: 2
    stride: 2
  }
}
layer {
  name: "conv1"
  type: "Convolution"
  bottom: "pool0"
  top: "conv1"
  param {
    lr_mult: 1
  }
  param {
    lr_mult: 2
  }
  convolution_param {
    num_output: 2
    kernel_size: 5
    stride: 1
    weight_filler {
      type: "xavier"
    }
    bias_filler {
      type: "constant"
    }
  }
}
layer {
  name: "pool1"
  type: "Pooling"
  bottom: "conv1"
  top: "pool1"
  pooling_param {
    pool: MAX
    kernel_size: 2
    stride: 2
  }
}
layer {
  name: "ip1"
  type: "InnerProduct"
  bottom: "pool1"
  top: "ip1"
  param {
    lr_mult: 1
  }
  param {
    lr_mult: 2
  }
  inner_product_param {
    num_output: 10
    weight_filler {
      type: "xavier"
    }
    bias_filler {
      type: "constant"
    }
  }
}
layer {
  name: "relu1"
  type: "ReLU"
  bottom: "ip1"
  top: "ip1"
}
layer {
  name: "loss"
  type: "SoftmaxWithLoss"
  bottom: "ip1"
  bottom: "label"
  top: "loss"
}
I0428 20:04:36.904320 30418 layer_factory.hpp:77] Creating layer mnist
I0428 20:04:36.904420 30418 db_lmdb.cpp:35] Opened lmdb examples/mnist/mnist_train_lmdb
I0428 20:04:36.904443 30418 net.cpp:86] Creating Layer mnist
I0428 20:04:36.904453 30418 net.cpp:382] mnist -> data
I0428 20:04:36.904474 30418 net.cpp:382] mnist -> label
I0428 20:04:36.905702 30418 data_layer.cpp:45] output data size: 64,1,28,28
I0428 20:04:36.908344 30418 net.cpp:124] Setting up mnist
I0428 20:04:36.908362 30418 net.cpp:131] Top shape: 64 1 28 28 (50176)
I0428 20:04:36.908375 30418 net.cpp:131] Top shape: 64 (64)
I0428 20:04:36.908380 30418 net.cpp:139] Memory required for data: 200960
I0428 20:04:36.908386 30418 layer_factory.hpp:77] Creating layer conv0
I0428 20:04:36.908403 30418 net.cpp:86] Creating Layer conv0
I0428 20:04:36.908409 30418 net.cpp:408] conv0 <- data
I0428 20:04:36.908422 30418 net.cpp:382] conv0 -> conv0
I0428 20:04:37.197163 30418 net.cpp:124] Setting up conv0
I0428 20:04:37.197192 30418 net.cpp:131] Top shape: 64 25 24 24 (921600)
I0428 20:04:37.197197 30418 net.cpp:139] Memory required for data: 3887360
I0428 20:04:37.197214 30418 layer_factory.hpp:77] Creating layer pool0
I0428 20:04:37.197228 30418 net.cpp:86] Creating Layer pool0
I0428 20:04:37.197233 30418 net.cpp:408] pool0 <- conv0
I0428 20:04:37.197239 30418 net.cpp:382] pool0 -> pool0
I0428 20:04:37.197291 30418 net.cpp:124] Setting up pool0
I0428 20:04:37.197298 30418 net.cpp:131] Top shape: 64 25 12 12 (230400)
I0428 20:04:37.197319 30418 net.cpp:139] Memory required for data: 4808960
I0428 20:04:37.197322 30418 layer_factory.hpp:77] Creating layer conv1
I0428 20:04:37.197335 30418 net.cpp:86] Creating Layer conv1
I0428 20:04:37.197340 30418 net.cpp:408] conv1 <- pool0
I0428 20:04:37.197345 30418 net.cpp:382] conv1 -> conv1
I0428 20:04:37.200446 30418 net.cpp:124] Setting up conv1
I0428 20:04:37.200464 30418 net.cpp:131] Top shape: 64 2 8 8 (8192)
I0428 20:04:37.200469 30418 net.cpp:139] Memory required for data: 4841728
I0428 20:04:37.200479 30418 layer_factory.hpp:77] Creating layer pool1
I0428 20:04:37.200487 30418 net.cpp:86] Creating Layer pool1
I0428 20:04:37.200491 30418 net.cpp:408] pool1 <- conv1
I0428 20:04:37.200497 30418 net.cpp:382] pool1 -> pool1
I0428 20:04:37.200541 30418 net.cpp:124] Setting up pool1
I0428 20:04:37.200546 30418 net.cpp:131] Top shape: 64 2 4 4 (2048)
I0428 20:04:37.200549 30418 net.cpp:139] Memory required for data: 4849920
I0428 20:04:37.200553 30418 layer_factory.hpp:77] Creating layer ip1
I0428 20:04:37.200562 30418 net.cpp:86] Creating Layer ip1
I0428 20:04:37.200564 30418 net.cpp:408] ip1 <- pool1
I0428 20:04:37.200570 30418 net.cpp:382] ip1 -> ip1
I0428 20:04:37.200686 30418 net.cpp:124] Setting up ip1
I0428 20:04:37.200695 30418 net.cpp:131] Top shape: 64 10 (640)
I0428 20:04:37.200700 30418 net.cpp:139] Memory required for data: 4852480
I0428 20:04:37.200708 30418 layer_factory.hpp:77] Creating layer relu1
I0428 20:04:37.200714 30418 net.cpp:86] Creating Layer relu1
I0428 20:04:37.200718 30418 net.cpp:408] relu1 <- ip1
I0428 20:04:37.200723 30418 net.cpp:369] relu1 -> ip1 (in-place)
I0428 20:04:37.200937 30418 net.cpp:124] Setting up relu1
I0428 20:04:37.200948 30418 net.cpp:131] Top shape: 64 10 (640)
I0428 20:04:37.200953 30418 net.cpp:139] Memory required for data: 4855040
I0428 20:04:37.200955 30418 layer_factory.hpp:77] Creating layer loss
I0428 20:04:37.200963 30418 net.cpp:86] Creating Layer loss
I0428 20:04:37.200966 30418 net.cpp:408] loss <- ip1
I0428 20:04:37.200970 30418 net.cpp:408] loss <- label
I0428 20:04:37.200976 30418 net.cpp:382] loss -> loss
I0428 20:04:37.200996 30418 layer_factory.hpp:77] Creating layer loss
…
I0428 20:04:37.202311 30418 solver.cpp:173] Creating test net (#0) specified by net file: ECE595/mnist/train_test/var_everything2/lenet_train_test976.prototxt
I0428 20:04:37.202340 30418 net.cpp:296] The NetState phase (1) differed from the phase (0) specified by a rule in layer mnist
I0428 20:04:37.202427 30418 net.cpp:53] Initializing net from parameters: 
name: "LeNet"
state {
  phase: TEST
}
layer {
  name: "mnist"
  type: "Data"
  top: "data"
  top: "label"
  include {
    phase: TEST
  }
  transform_param {
    scale: 0.00390625
  }
  data_param {
    source: "examples/mnist/mnist_test_lmdb"
    batch_size: 100
    backend: LMDB
  }
}
layer {
  name: "conv0"
  type: "Convolution"
  bottom: "data"
  top: "conv0"
  param {
    lr_mult: 1
  }
  param {
    lr_mult: 2
  }
  convolution_param {
    num_output: 25
    kernel_size: 5
    stride: 1
    weight_filler {
      type: "xavier"
    }
    bias_filler {
      type: "constant"
    }
  }
}
layer {
  name: "pool0"
  type: "Pooling"
  bottom: "conv0"
  top: "pool0"
  pooling_param {
    pool: MAX
    kernel_size: 2
    stride: 2
  }
}
layer {
  name: "conv1"
  type: "Convolution"
  bottom: "pool0"
  top: "conv1"
  param {
    lr_mult: 1
  }
  param {
    lr_mult: 2
  }
  convolution_param {
    num_output: 2
    kernel_size: 5
    stride: 1
    weight_filler {
      type: "xavier"
    }
    bias_filler {
      type: "constant"
    }
  }
}
layer {
  name: "pool1"
  type: "Pooling"
  bottom: "conv1"
  top: "pool1"
  pooling_param {
    pool: MAX
    kernel_size: 2
    stride: 2
  }
}
layer {
  name: "ip1"
  type: "InnerProduct"
  bottom: "pool1"
  top: "ip1"
  param {
    lr_mult: 1
  }
  param {
    lr_mult: 2
  }
  inner_product_param {
    num_output: 10
    weight_filler {
      type: "xavier"
    }
    bias_filler {
      type: "constant"
    }
  }
}
layer {
  name: "relu1"
  type: "ReLU"
  bottom: "ip1"
  top: "ip1"
}
layer {
  name: "accuracy"
  type: "Accuracy"
  bottom: "ip1"
  bottom: "label"
  top: "accuracy"
  include {
    phase: TEST
  }
}
layer {
  name: "loss"
  type: "SoftmaxWithLoss"
  bottom: "ip1"
  bottom: "label"
  top: "loss"
}
I0428 20:04:37.202507 30418 layer_factory.hpp:77] Creating layer mnist
I0428 20:04:37.202558 30418 db_lmdb.cpp:35] Opened lmdb examples/mnist/mnist_test_lmdb
I0428 20:04:37.202570 30418 net.cpp:86] Creating Layer mnist
I0428 20:04:37.202575 30418 net.cpp:382] mnist -> data
I0428 20:04:37.202584 30418 net.cpp:382] mnist -> label
I0428 20:04:37.202682 30418 data_layer.cpp:45] output data size: 100,1,28,28
I0428 20:04:37.204828 30418 net.cpp:124] Setting up mnist
I0428 20:04:37.204854 30418 net.cpp:131] Top shape: 100 1 28 28 (78400)
I0428 20:04:37.204869 30418 net.cpp:131] Top shape: 100 (100)
I0428 20:04:37.204872 30418 net.cpp:139] Memory required for data: 314000
I0428 20:04:37.204877 30418 layer_factory.hpp:77] Creating layer label_mnist_1_split
I0428 20:04:37.204905 30418 net.cpp:86] Creating Layer label_mnist_1_split
I0428 20:04:37.204910 30418 net.cpp:408] label_mnist_1_split <- label
I0428 20:04:37.204916 30418 net.cpp:382] label_mnist_1_split -> label_mnist_1_split_0
I0428 20:04:37.204923 30418 net.cpp:382] label_mnist_1_split -> label_mnist_1_split_1
I0428 20:04:37.205029 30418 net.cpp:124] Setting up label_mnist_1_split
I0428 20:04:37.205036 30418 net.cpp:131] Top shape: 100 (100)
I0428 20:04:37.205041 30418 net.cpp:131] Top shape: 100 (100)
I0428 20:04:37.205044 30418 net.cpp:139] Memory required for data: 314800
I0428 20:04:37.205049 30418 layer_factory.hpp:77] Creating layer conv0
I0428 20:04:37.205057 30418 net.cpp:86] Creating Layer conv0
I0428 20:04:37.205061 30418 net.cpp:408] conv0 <- data
I0428 20:04:37.205067 30418 net.cpp:382] conv0 -> conv0
I0428 20:04:37.206084 30418 net.cpp:124] Setting up conv0
I0428 20:04:37.206099 30418 net.cpp:131] Top shape: 100 25 24 24 (1440000)
I0428 20:04:37.206104 30418 net.cpp:139] Memory required for data: 6074800
I0428 20:04:37.206115 30418 layer_factory.hpp:77] Creating layer pool0
I0428 20:04:37.206122 30418 net.cpp:86] Creating Layer pool0
I0428 20:04:37.206126 30418 net.cpp:408] pool0 <- conv0
I0428 20:04:37.206132 30418 net.cpp:382] pool0 -> pool0
I0428 20:04:37.206174 30418 net.cpp:124] Setting up pool0
I0428 20:04:37.206190 30418 net.cpp:131] Top shape: 100 25 12 12 (360000)
I0428 20:04:37.206193 30418 net.cpp:139] Memory required for data: 7514800
I0428 20:04:37.206197 30418 layer_factory.hpp:77] Creating layer conv1
I0428 20:04:37.206207 30418 net.cpp:86] Creating Layer conv1
I0428 20:04:37.206210 30418 net.cpp:408] conv1 <- pool0
I0428 20:04:37.206217 30418 net.cpp:382] conv1 -> conv1
I0428 20:04:37.208515 30418 net.cpp:124] Setting up conv1
I0428 20:04:37.208530 30418 net.cpp:131] Top shape: 100 2 8 8 (12800)
I0428 20:04:37.208544 30418 net.cpp:139] Memory required for data: 7566000
I0428 20:04:37.208554 30418 layer_factory.hpp:77] Creating layer pool1
I0428 20:04:37.208561 30418 net.cpp:86] Creating Layer pool1
I0428 20:04:37.208577 30418 net.cpp:408] pool1 <- conv1
I0428 20:04:37.208583 30418 net.cpp:382] pool1 -> pool1
I0428 20:04:37.208636 30418 net.cpp:124] Setting up pool1
I0428 20:04:37.208642 30418 net.cpp:131] Top shape: 100 2 4 4 (3200)
I0428 20:04:37.208645 30418 net.cpp:139] Memory required for data: 7578800
I0428 20:04:37.208649 30418 layer_factory.hpp:77] Creating layer ip1
I0428 20:04:37.208655 30418 net.cpp:86] Creating Layer ip1
I0428 20:04:37.208659 30418 net.cpp:408] ip1 <- pool1
I0428 20:04:37.208665 30418 net.cpp:382] ip1 -> ip1
I0428 20:04:37.208825 30418 net.cpp:124] Setting up ip1
I0428 20:04:37.208837 30418 net.cpp:131] Top shape: 100 10 (1000)
I0428 20:04:37.208840 30418 net.cpp:139] Memory required for data: 7582800
I0428 20:04:37.208850 30418 layer_factory.hpp:77] Creating layer relu1
I0428 20:04:37.208856 30418 net.cpp:86] Creating Layer relu1
I0428 20:04:37.208860 30418 net.cpp:408] relu1 <- ip1
I0428 20:04:37.208866 30418 net.cpp:369] relu1 -> ip1 (in-place)
I0428 20:04:37.209780 30418 net.cpp:124] Setting up relu1
I0428 20:04:37.209795 30418 net.cpp:131] Top shape: 100 10 (1000)
I0428 20:04:37.209800 30418 net.cpp:139] Memory required for data: 7586800
I0428 20:04:37.209803 30418 layer_factory.hpp:77] Creating layer ip1_relu1_0_split
I0428 20:04:37.209811 30418 net.cpp:86] Creating Layer ip1_relu1_0_split
I0428 20:04:37.209815 30418 net.cpp:408] ip1_relu1_0_split <- ip1
I0428 20:04:37.209821 30418 net.cpp:382] ip1_relu1_0_split -> ip1_relu1_0_split_0
I0428 20:04:37.209828 30418 net.cpp:382] ip1_relu1_0_split -> ip1_relu1_0_split_1
I0428 20:04:37.209882 30418 net.cpp:124] Setting up ip1_relu1_0_split
I0428 20:04:37.209887 30418 net.cpp:131] Top shape: 100 10 (1000)
I0428 20:04:37.209892 30418 net.cpp:131] Top shape: 100 10 (1000)
I0428 20:04:37.209897 30418 net.cpp:139] Memory required for data: 7594800
I0428 20:04:37.209899 30418 layer_factory.hpp:77] Creating layer accuracy
I0428 20:04:37.209906 30418 net.cpp:86] Creating Layer accuracy
I0428 20:04:37.209910 30418 net.cpp:408] accuracy <- ip1_relu1_0_split_0
I0428 20:04:37.209915 30418 net.cpp:408] accuracy <- label_mnist_1_split_0
I0428 20:04:37.209921 30418 net.cpp:382] accuracy -> accuracy
…
