…
I0428 19:38:55.009416 24164 net.cpp:296] The NetState phase (0) differed from the phase (1) specified by a rule in layer mnist
I0428 19:38:55.009435 24164 net.cpp:296] The NetState phase (0) differed from the phase (1) specified by a rule in layer accuracy
I0428 19:38:55.009538 24164 net.cpp:53] Initializing net from parameters: 
name: "LeNet"
state {
  phase: TRAIN
  level: 0
  stage: ""
}
layer {
  name: "mnist"
  type: "Data"
  top: "data"
  top: "label"
  include {
    phase: TRAIN
  }
  transform_param {
    scale: 0.00390625
  }
  data_param {
    source: "examples/mnist/mnist_train_lmdb"
    batch_size: 64
    backend: LMDB
  }
}
layer {
  name: "conv0"
  type: "Convolution"
  bottom: "data"
  top: "conv0"
  param {
    lr_mult: 1
  }
  param {
    lr_mult: 2
  }
  convolution_param {
    num_output: 2
    kernel_size: 5
    stride: 1
    weight_filler {
      type: "xavier"
    }
    bias_filler {
      type: "constant"
    }
  }
}
layer {
  name: "pool0"
  type: "Pooling"
  bottom: "conv0"
  top: "pool0"
  pooling_param {
    pool: MAX
    kernel_size: 2
    stride: 2
  }
}
layer {
  name: "conv1"
  type: "Convolution"
  bottom: "pool0"
  top: "conv1"
  param {
    lr_mult: 1
  }
  param {
    lr_mult: 2
  }
  convolution_param {
    num_output: 2
    kernel_size: 5
    stride: 1
    weight_filler {
      type: "xavier"
    }
    bias_filler {
      type: "constant"
    }
  }
}
layer {
  name: "pool1"
  type: "Pooling"
  bottom: "conv1"
  top: "pool1"
  pooling_param {
    pool: MAX
    kernel_size: 2
    stride: 2
  }
}
layer {
  name: "ip1"
  type: "InnerProduct"
  bottom: "pool1"
  top: "ip1"
  param {
    lr_mult: 1
  }
  param {
    lr_mult: 2
  }
  inner_product_param {
    num_output: 10
    weight_filler {
      type: "xavier"
    }
    bias_filler {
      type: "constant"
    }
  }
}
layer {
  name: "relu1"
  type: "ReLU"
  bottom: "ip1"
  top: "ip1"
}
layer {
  name: "ip2"
  type: "InnerProduct"
  bottom: "ip1"
  top: "ip2"
  param {
    lr_mult: 1
  }
  param {
    lr_mult: 2
  }
  inner_product_param {
    num_output: 25
    weight_filler {
      type: "xavier"
    }
    bias_filler {
      type: "constant"
    }
  }
}
layer {
  name: "relu2"
  type: "ReLU"
  bottom: "ip2"
  top: "ip2"
}
layer {
  name: "ip3"
  type: "InnerProduct"
  bottom: "ip2"
  top: "ip3"
  param {
    lr_mult: 1
  }
  param {
    lr_mult: 2
  }
  inner_product_param {
    num_output: 10
    weight_filler {
      type: "xavier"
    }
    bias_filler {
      type: "constant"
    }
  }
}
layer {
  name: "relu3"
  type: "ReLU"
  bottom: "ip3"
  top: "ip3"
}
layer {
  name: "loss"
  type: "SoftmaxWithLoss"
  bottom: "ip3"
  bottom: "label"
  top: "loss"
}
I0428 19:38:55.009620 24164 layer_factory.hpp:77] Creating layer mnist
I0428 19:38:55.009719 24164 db_lmdb.cpp:35] Opened lmdb examples/mnist/mnist_train_lmdb
I0428 19:38:55.009747 24164 net.cpp:86] Creating Layer mnist
I0428 19:38:55.009759 24164 net.cpp:382] mnist -> data
I0428 19:38:55.009783 24164 net.cpp:382] mnist -> label
I0428 19:38:55.010874 24164 data_layer.cpp:45] output data size: 64,1,28,28
I0428 19:38:55.013330 24164 net.cpp:124] Setting up mnist
I0428 19:38:55.013350 24164 net.cpp:131] Top shape: 64 1 28 28 (50176)
I0428 19:38:55.013356 24164 net.cpp:131] Top shape: 64 (64)
I0428 19:38:55.013360 24164 net.cpp:139] Memory required for data: 200960
I0428 19:38:55.013366 24164 layer_factory.hpp:77] Creating layer conv0
I0428 19:38:55.013417 24164 net.cpp:86] Creating Layer conv0
I0428 19:38:55.013439 24164 net.cpp:408] conv0 <- data
I0428 19:38:55.013455 24164 net.cpp:382] conv0 -> conv0
I0428 19:38:55.303159 24164 net.cpp:124] Setting up conv0
I0428 19:38:55.303191 24164 net.cpp:131] Top shape: 64 2 24 24 (73728)
I0428 19:38:55.303197 24164 net.cpp:139] Memory required for data: 495872
I0428 19:38:55.303215 24164 layer_factory.hpp:77] Creating layer pool0
I0428 19:38:55.303231 24164 net.cpp:86] Creating Layer pool0
I0428 19:38:55.303236 24164 net.cpp:408] pool0 <- conv0
I0428 19:38:55.303241 24164 net.cpp:382] pool0 -> pool0
I0428 19:38:55.303299 24164 net.cpp:124] Setting up pool0
I0428 19:38:55.303306 24164 net.cpp:131] Top shape: 64 2 12 12 (18432)
I0428 19:38:55.303310 24164 net.cpp:139] Memory required for data: 569600
I0428 19:38:55.303314 24164 layer_factory.hpp:77] Creating layer conv1
I0428 19:38:55.303326 24164 net.cpp:86] Creating Layer conv1
I0428 19:38:55.303330 24164 net.cpp:408] conv1 <- pool0
I0428 19:38:55.303336 24164 net.cpp:382] conv1 -> conv1
I0428 19:38:55.305620 24164 net.cpp:124] Setting up conv1
I0428 19:38:55.305637 24164 net.cpp:131] Top shape: 64 2 8 8 (8192)
I0428 19:38:55.305642 24164 net.cpp:139] Memory required for data: 602368
I0428 19:38:55.305652 24164 layer_factory.hpp:77] Creating layer pool1
I0428 19:38:55.305662 24164 net.cpp:86] Creating Layer pool1
I0428 19:38:55.305667 24164 net.cpp:408] pool1 <- conv1
I0428 19:38:55.305673 24164 net.cpp:382] pool1 -> pool1
I0428 19:38:55.305717 24164 net.cpp:124] Setting up pool1
I0428 19:38:55.305724 24164 net.cpp:131] Top shape: 64 2 4 4 (2048)
I0428 19:38:55.305728 24164 net.cpp:139] Memory required for data: 610560
I0428 19:38:55.305732 24164 layer_factory.hpp:77] Creating layer ip1
I0428 19:38:55.305745 24164 net.cpp:86] Creating Layer ip1
I0428 19:38:55.305749 24164 net.cpp:408] ip1 <- pool1
I0428 19:38:55.305755 24164 net.cpp:382] ip1 -> ip1
I0428 19:38:55.305869 24164 net.cpp:124] Setting up ip1
I0428 19:38:55.305879 24164 net.cpp:131] Top shape: 64 10 (640)
I0428 19:38:55.305882 24164 net.cpp:139] Memory required for data: 613120
I0428 19:38:55.305893 24164 layer_factory.hpp:77] Creating layer relu1
I0428 19:38:55.305899 24164 net.cpp:86] Creating Layer relu1
I0428 19:38:55.305903 24164 net.cpp:408] relu1 <- ip1
I0428 19:38:55.305908 24164 net.cpp:369] relu1 -> ip1 (in-place)
I0428 19:38:55.306120 24164 net.cpp:124] Setting up relu1
I0428 19:38:55.306130 24164 net.cpp:131] Top shape: 64 10 (640)
I0428 19:38:55.306134 24164 net.cpp:139] Memory required for data: 615680
I0428 19:38:55.306138 24164 layer_factory.hpp:77] Creating layer ip2
I0428 19:38:55.306145 24164 net.cpp:86] Creating Layer ip2
I0428 19:38:55.306149 24164 net.cpp:408] ip2 <- ip1
I0428 19:38:55.306155 24164 net.cpp:382] ip2 -> ip2
I0428 19:38:55.306267 24164 net.cpp:124] Setting up ip2
I0428 19:38:55.306274 24164 net.cpp:131] Top shape: 64 25 (1600)
I0428 19:38:55.306278 24164 net.cpp:139] Memory required for data: 622080
I0428 19:38:55.306285 24164 layer_factory.hpp:77] Creating layer relu2
I0428 19:38:55.306293 24164 net.cpp:86] Creating Layer relu2
I0428 19:38:55.306296 24164 net.cpp:408] relu2 <- ip2
I0428 19:38:55.306301 24164 net.cpp:369] relu2 -> ip2 (in-place)
I0428 19:38:55.307137 24164 net.cpp:124] Setting up relu2
I0428 19:38:55.307152 24164 net.cpp:131] Top shape: 64 25 (1600)
I0428 19:38:55.307157 24164 net.cpp:139] Memory required for data: 628480
I0428 19:38:55.307160 24164 layer_factory.hpp:77] Creating layer ip3
I0428 19:38:55.307169 24164 net.cpp:86] Creating Layer ip3
I0428 19:38:55.307173 24164 net.cpp:408] ip3 <- ip2
I0428 19:38:55.307180 24164 net.cpp:382] ip3 -> ip3
I0428 19:38:55.307294 24164 net.cpp:124] Setting up ip3
I0428 19:38:55.307304 24164 net.cpp:131] Top shape: 64 10 (640)
I0428 19:38:55.307307 24164 net.cpp:139] Memory required for data: 631040
I0428 19:38:55.307317 24164 layer_factory.hpp:77] Creating layer relu3
I0428 19:38:55.307323 24164 net.cpp:86] Creating Layer relu3
I0428 19:38:55.307327 24164 net.cpp:408] relu3 <- ip3
I0428 19:38:55.307332 24164 net.cpp:369] relu3 -> ip3 (in-place)
I0428 19:38:55.307528 24164 net.cpp:124] Setting up relu3
I0428 19:38:55.307538 24164 net.cpp:131] Top shape: 64 10 (640)
I0428 19:38:55.307543 24164 net.cpp:139] Memory required for data: 633600
I0428 19:38:55.307546 24164 layer_factory.hpp:77] Creating layer loss
I0428 19:38:55.307554 24164 net.cpp:86] Creating Layer loss
I0428 19:38:55.307557 24164 net.cpp:408] loss <- ip3
I0428 19:38:55.307562 24164 net.cpp:408] loss <- label
I0428 19:38:55.307569 24164 net.cpp:382] loss -> loss
I0428 19:38:55.307591 24164 layer_factory.hpp:77] Creating layer loss
…
I0428 19:38:55.308334 24164 solver.cpp:173] Creating test net (#0) specified by net file: ECE595/mnist/train_test/var_everything2/lenet_train_test288.prototxt
I0428 19:38:55.308367 24164 net.cpp:296] The NetState phase (1) differed from the phase (0) specified by a rule in layer mnist
I0428 19:38:55.308473 24164 net.cpp:53] Initializing net from parameters: 
name: "LeNet"
state {
  phase: TEST
}
layer {
  name: "mnist"
  type: "Data"
  top: "data"
  top: "label"
  include {
    phase: TEST
  }
  transform_param {
    scale: 0.00390625
  }
  data_param {
    source: "examples/mnist/mnist_test_lmdb"
    batch_size: 100
    backend: LMDB
  }
}
layer {
  name: "conv0"
  type: "Convolution"
  bottom: "data"
  top: "conv0"
  param {
    lr_mult: 1
  }
  param {
    lr_mult: 2
  }
  convolution_param {
    num_output: 2
    kernel_size: 5
    stride: 1
    weight_filler {
      type: "xavier"
    }
    bias_filler {
      type: "constant"
    }
  }
}
layer {
  name: "pool0"
  type: "Pooling"
  bottom: "conv0"
  top: "pool0"
  pooling_param {
    pool: MAX
    kernel_size: 2
    stride: 2
  }
}
layer {
  name: "conv1"
  type: "Convolution"
  bottom: "pool0"
  top: "conv1"
  param {
    lr_mult: 1
  }
  param {
    lr_mult: 2
  }
  convolution_param {
    num_output: 2
    kernel_size: 5
    stride: 1
    weight_filler {
      type: "xavier"
    }
    bias_filler {
      type: "constant"
    }
  }
}
layer {
  name: "pool1"
  type: "Pooling"
  bottom: "conv1"
  top: "pool1"
  pooling_param {
    pool: MAX
    kernel_size: 2
    stride: 2
  }
}
layer {
  name: "ip1"
  type: "InnerProduct"
  bottom: "pool1"
  top: "ip1"
  param {
    lr_mult: 1
  }
  param {
    lr_mult: 2
  }
  inner_product_param {
    num_output: 10
    weight_filler {
      type: "xavier"
    }
    bias_filler {
      type: "constant"
    }
  }
}
layer {
  name: "relu1"
  type: "ReLU"
  bottom: "ip1"
  top: "ip1"
}
layer {
  name: "ip2"
  type: "InnerProduct"
  bottom: "ip1"
  top: "ip2"
  param {
    lr_mult: 1
  }
  param {
    lr_mult: 2
  }
  inner_product_param {
    num_output: 25
    weight_filler {
      type: "xavier"
    }
    bias_filler {
      type: "constant"
    }
  }
}
layer {
  name: "relu2"
  type: "ReLU"
  bottom: "ip2"
  top: "ip2"
}
layer {
  name: "ip3"
  type: "InnerProduct"
  bottom: "ip2"
  top: "ip3"
  param {
    lr_mult: 1
  }
  param {
    lr_mult: 2
  }
  inner_product_param {
    num_output: 10
    weight_filler {
      type: "xavier"
    }
    bias_filler {
      type: "constant"
    }
  }
}
layer {
  name: "relu3"
  type: "ReLU"
  bottom: "ip3"
  top: "ip3"
}
layer {
  name: "accuracy"
  type: "Accuracy"
  bottom: "ip3"
  bottom: "label"
  top: "accuracy"
  include {
    phase: TEST
  }
}
layer {
  name: "loss"
  type: "SoftmaxWithLoss"
  bottom: "ip3"
  bottom: "label"
  top: "loss"
}
I0428 19:38:55.308567 24164 layer_factory.hpp:77] Creating layer mnist
I0428 19:38:55.308619 24164 db_lmdb.cpp:35] Opened lmdb examples/mnist/mnist_test_lmdb
I0428 19:38:55.308634 24164 net.cpp:86] Creating Layer mnist
I0428 19:38:55.308639 24164 net.cpp:382] mnist -> data
I0428 19:38:55.308647 24164 net.cpp:382] mnist -> label
I0428 19:38:55.308748 24164 data_layer.cpp:45] output data size: 100,1,28,28
I0428 19:38:55.311020 24164 net.cpp:124] Setting up mnist
I0428 19:38:55.311038 24164 net.cpp:131] Top shape: 100 1 28 28 (78400)
I0428 19:38:55.311044 24164 net.cpp:131] Top shape: 100 (100)
I0428 19:38:55.311048 24164 net.cpp:139] Memory required for data: 314000
I0428 19:38:55.311053 24164 layer_factory.hpp:77] Creating layer label_mnist_1_split
I0428 19:38:55.311065 24164 net.cpp:86] Creating Layer label_mnist_1_split
I0428 19:38:55.311069 24164 net.cpp:408] label_mnist_1_split <- label
I0428 19:38:55.311075 24164 net.cpp:382] label_mnist_1_split -> label_mnist_1_split_0
I0428 19:38:55.311084 24164 net.cpp:382] label_mnist_1_split -> label_mnist_1_split_1
I0428 19:38:55.311141 24164 net.cpp:124] Setting up label_mnist_1_split
I0428 19:38:55.311148 24164 net.cpp:131] Top shape: 100 (100)
I0428 19:38:55.311153 24164 net.cpp:131] Top shape: 100 (100)
I0428 19:38:55.311156 24164 net.cpp:139] Memory required for data: 314800
I0428 19:38:55.311161 24164 layer_factory.hpp:77] Creating layer conv0
I0428 19:38:55.311170 24164 net.cpp:86] Creating Layer conv0
I0428 19:38:55.311174 24164 net.cpp:408] conv0 <- data
I0428 19:38:55.311180 24164 net.cpp:382] conv0 -> conv0
I0428 19:38:55.313060 24164 net.cpp:124] Setting up conv0
I0428 19:38:55.313077 24164 net.cpp:131] Top shape: 100 2 24 24 (115200)
I0428 19:38:55.313082 24164 net.cpp:139] Memory required for data: 775600
I0428 19:38:55.313093 24164 layer_factory.hpp:77] Creating layer pool0
I0428 19:38:55.313102 24164 net.cpp:86] Creating Layer pool0
I0428 19:38:55.313105 24164 net.cpp:408] pool0 <- conv0
I0428 19:38:55.313112 24164 net.cpp:382] pool0 -> pool0
I0428 19:38:55.313154 24164 net.cpp:124] Setting up pool0
I0428 19:38:55.313161 24164 net.cpp:131] Top shape: 100 2 12 12 (28800)
I0428 19:38:55.313165 24164 net.cpp:139] Memory required for data: 890800
I0428 19:38:55.313169 24164 layer_factory.hpp:77] Creating layer conv1
I0428 19:38:55.313179 24164 net.cpp:86] Creating Layer conv1
I0428 19:38:55.313184 24164 net.cpp:408] conv1 <- pool0
I0428 19:38:55.313189 24164 net.cpp:382] conv1 -> conv1
I0428 19:38:55.315003 24164 net.cpp:124] Setting up conv1
I0428 19:38:55.315018 24164 net.cpp:131] Top shape: 100 2 8 8 (12800)
I0428 19:38:55.315023 24164 net.cpp:139] Memory required for data: 942000
I0428 19:38:55.315033 24164 layer_factory.hpp:77] Creating layer pool1
I0428 19:38:55.315042 24164 net.cpp:86] Creating Layer pool1
I0428 19:38:55.315045 24164 net.cpp:408] pool1 <- conv1
I0428 19:38:55.315052 24164 net.cpp:382] pool1 -> pool1
I0428 19:38:55.315096 24164 net.cpp:124] Setting up pool1
I0428 19:38:55.315102 24164 net.cpp:131] Top shape: 100 2 4 4 (3200)
I0428 19:38:55.315112 24164 net.cpp:139] Memory required for data: 954800
I0428 19:38:55.315121 24164 layer_factory.hpp:77] Creating layer ip1
I0428 19:38:55.315129 24164 net.cpp:86] Creating Layer ip1
I0428 19:38:55.315134 24164 net.cpp:408] ip1 <- pool1
I0428 19:38:55.315140 24164 net.cpp:382] ip1 -> ip1
I0428 19:38:55.315254 24164 net.cpp:124] Setting up ip1
I0428 19:38:55.315264 24164 net.cpp:131] Top shape: 100 10 (1000)
I0428 19:38:55.315284 24164 net.cpp:139] Memory required for data: 958800
I0428 19:38:55.315294 24164 layer_factory.hpp:77] Creating layer relu1
I0428 19:38:55.315301 24164 net.cpp:86] Creating Layer relu1
I0428 19:38:55.315305 24164 net.cpp:408] relu1 <- ip1
I0428 19:38:55.315311 24164 net.cpp:369] relu1 -> ip1 (in-place)
I0428 19:38:55.315495 24164 net.cpp:124] Setting up relu1
I0428 19:38:55.315505 24164 net.cpp:131] Top shape: 100 10 (1000)
I0428 19:38:55.315510 24164 net.cpp:139] Memory required for data: 962800
I0428 19:38:55.315513 24164 layer_factory.hpp:77] Creating layer ip2
I0428 19:38:55.315528 24164 net.cpp:86] Creating Layer ip2
I0428 19:38:55.315533 24164 net.cpp:408] ip2 <- ip1
I0428 19:38:55.315539 24164 net.cpp:382] ip2 -> ip2
I0428 19:38:55.315651 24164 net.cpp:124] Setting up ip2
I0428 19:38:55.315660 24164 net.cpp:131] Top shape: 100 25 (2500)
I0428 19:38:55.315665 24164 net.cpp:139] Memory required for data: 972800
I0428 19:38:55.315671 24164 layer_factory.hpp:77] Creating layer relu2
I0428 19:38:55.315676 24164 net.cpp:86] Creating Layer relu2
I0428 19:38:55.315680 24164 net.cpp:408] relu2 <- ip2
I0428 19:38:55.315685 24164 net.cpp:369] relu2 -> ip2 (in-place)
I0428 19:38:55.315954 24164 net.cpp:124] Setting up relu2
I0428 19:38:55.315964 24164 net.cpp:131] Top shape: 100 25 (2500)
I0428 19:38:55.315974 24164 net.cpp:139] Memory required for data: 982800
I0428 19:38:55.315979 24164 layer_factory.hpp:77] Creating layer ip3
I0428 19:38:55.315985 24164 net.cpp:86] Creating Layer ip3
I0428 19:38:55.315989 24164 net.cpp:408] ip3 <- ip2
I0428 19:38:55.315995 24164 net.cpp:382] ip3 -> ip3
I0428 19:38:55.316107 24164 net.cpp:124] Setting up ip3
I0428 19:38:55.316117 24164 net.cpp:131] Top shape: 100 10 (1000)
I0428 19:38:55.316120 24164 net.cpp:139] Memory required for data: 986800
I0428 19:38:55.316129 24164 layer_factory.hpp:77] Creating layer relu3
I0428 19:38:55.316135 24164 net.cpp:86] Creating Layer relu3
I0428 19:38:55.316138 24164 net.cpp:408] relu3 <- ip3
I0428 19:38:55.316144 24164 net.cpp:369] relu3 -> ip3 (in-place)
I0428 19:38:55.317065 24164 net.cpp:124] Setting up relu3
I0428 19:38:55.317078 24164 net.cpp:131] Top shape: 100 10 (1000)
I0428 19:38:55.317083 24164 net.cpp:139] Memory required for data: 990800
I0428 19:38:55.317087 24164 layer_factory.hpp:77] Creating layer ip3_relu3_0_split
I0428 19:38:55.317095 24164 net.cpp:86] Creating Layer ip3_relu3_0_split
I0428 19:38:55.317098 24164 net.cpp:408] ip3_relu3_0_split <- ip3
I0428 19:38:55.317104 24164 net.cpp:382] ip3_relu3_0_split -> ip3_relu3_0_split_0
I0428 19:38:55.317113 24164 net.cpp:382] ip3_relu3_0_split -> ip3_relu3_0_split_1
I0428 19:38:55.317158 24164 net.cpp:124] Setting up ip3_relu3_0_split
I0428 19:38:55.317165 24164 net.cpp:131] Top shape: 100 10 (1000)
I0428 19:38:55.317170 24164 net.cpp:131] Top shape: 100 10 (1000)
I0428 19:38:55.317173 24164 net.cpp:139] Memory required for data: 998800
I0428 19:38:55.317178 24164 layer_factory.hpp:77] Creating layer accuracy
I0428 19:38:55.317183 24164 net.cpp:86] Creating Layer accuracy
I0428 19:38:55.317188 24164 net.cpp:408] accuracy <- ip3_relu3_0_split_0
I0428 19:38:55.317193 24164 net.cpp:408] accuracy <- label_mnist_1_split_0
I0428 19:38:55.317199 24164 net.cpp:382] accuracy -> accuracy
…
