…
I0428 19:46:12.488307 25958 net.cpp:296] The NetState phase (0) differed from the phase (1) specified by a rule in layer mnist
I0428 19:46:12.488333 25958 net.cpp:296] The NetState phase (0) differed from the phase (1) specified by a rule in layer accuracy
I0428 19:46:12.488448 25958 net.cpp:53] Initializing net from parameters: 
name: "LeNet"
state {
  phase: TRAIN
  level: 0
  stage: ""
}
layer {
  name: "mnist"
  type: "Data"
  top: "data"
  top: "label"
  include {
    phase: TRAIN
  }
  transform_param {
    scale: 0.00390625
  }
  data_param {
    source: "examples/mnist/mnist_train_lmdb"
    batch_size: 64
    backend: LMDB
  }
}
layer {
  name: "conv0"
  type: "Convolution"
  bottom: "data"
  top: "conv0"
  param {
    lr_mult: 1
  }
  param {
    lr_mult: 2
  }
  convolution_param {
    num_output: 2
    kernel_size: 5
    stride: 1
    weight_filler {
      type: "xavier"
    }
    bias_filler {
      type: "constant"
    }
  }
}
layer {
  name: "pool0"
  type: "Pooling"
  bottom: "conv0"
  top: "pool0"
  pooling_param {
    pool: MAX
    kernel_size: 2
    stride: 2
  }
}
layer {
  name: "conv1"
  type: "Convolution"
  bottom: "pool0"
  top: "conv1"
  param {
    lr_mult: 1
  }
  param {
    lr_mult: 2
  }
  convolution_param {
    num_output: 100
    kernel_size: 5
    stride: 1
    weight_filler {
      type: "xavier"
    }
    bias_filler {
      type: "constant"
    }
  }
}
layer {
  name: "pool1"
  type: "Pooling"
  bottom: "conv1"
  top: "pool1"
  pooling_param {
    pool: MAX
    kernel_size: 2
    stride: 2
  }
}
layer {
  name: "ip1"
  type: "InnerProduct"
  bottom: "pool1"
  top: "ip1"
  param {
    lr_mult: 1
  }
  param {
    lr_mult: 2
  }
  inner_product_param {
    num_output: 10
    weight_filler {
      type: "xavier"
    }
    bias_filler {
      type: "constant"
    }
  }
}
layer {
  name: "relu1"
  type: "ReLU"
  bottom: "ip1"
  top: "ip1"
}
layer {
  name: "ip2"
  type: "InnerProduct"
  bottom: "ip1"
  top: "ip2"
  param {
    lr_mult: 1
  }
  param {
    lr_mult: 2
  }
  inner_product_param {
    num_output: 50
    weight_filler {
      type: "xavier"
    }
    bias_filler {
      type: "constant"
    }
  }
}
layer {
  name: "relu2"
  type: "ReLU"
  bottom: "ip2"
  top: "ip2"
}
layer {
  name: "ip3"
  type: "InnerProduct"
  bottom: "ip2"
  top: "ip3"
  param {
    lr_mult: 1
  }
  param {
    lr_mult: 2
  }
  inner_product_param {
    num_output: 10
    weight_filler {
      type: "xavier"
    }
    bias_filler {
      type: "constant"
    }
  }
}
layer {
  name: "relu3"
  type: "ReLU"
  bottom: "ip3"
  top: "ip3"
}
layer {
  name: "loss"
  type: "SoftmaxWithLoss"
  bottom: "ip3"
  bottom: "label"
  top: "loss"
}
I0428 19:46:12.488564 25958 layer_factory.hpp:77] Creating layer mnist
I0428 19:46:12.488696 25958 db_lmdb.cpp:35] Opened lmdb examples/mnist/mnist_train_lmdb
I0428 19:46:12.488730 25958 net.cpp:86] Creating Layer mnist
I0428 19:46:12.488746 25958 net.cpp:382] mnist -> data
I0428 19:46:12.488776 25958 net.cpp:382] mnist -> label
I0428 19:46:12.490053 25958 data_layer.cpp:45] output data size: 64,1,28,28
I0428 19:46:12.492519 25958 net.cpp:124] Setting up mnist
I0428 19:46:12.492540 25958 net.cpp:131] Top shape: 64 1 28 28 (50176)
I0428 19:46:12.492550 25958 net.cpp:131] Top shape: 64 (64)
I0428 19:46:12.492557 25958 net.cpp:139] Memory required for data: 200960
I0428 19:46:12.492566 25958 layer_factory.hpp:77] Creating layer conv0
I0428 19:46:12.492591 25958 net.cpp:86] Creating Layer conv0
I0428 19:46:12.492621 25958 net.cpp:408] conv0 <- data
I0428 19:46:12.492642 25958 net.cpp:382] conv0 -> conv0
I0428 19:46:12.812754 25958 net.cpp:124] Setting up conv0
I0428 19:46:12.812786 25958 net.cpp:131] Top shape: 64 2 24 24 (73728)
I0428 19:46:12.812793 25958 net.cpp:139] Memory required for data: 495872
I0428 19:46:12.812815 25958 layer_factory.hpp:77] Creating layer pool0
I0428 19:46:12.812830 25958 net.cpp:86] Creating Layer pool0
I0428 19:46:12.812835 25958 net.cpp:408] pool0 <- conv0
I0428 19:46:12.812842 25958 net.cpp:382] pool0 -> pool0
I0428 19:46:12.812906 25958 net.cpp:124] Setting up pool0
I0428 19:46:12.812916 25958 net.cpp:131] Top shape: 64 2 12 12 (18432)
I0428 19:46:12.812919 25958 net.cpp:139] Memory required for data: 569600
I0428 19:46:12.812923 25958 layer_factory.hpp:77] Creating layer conv1
I0428 19:46:12.812937 25958 net.cpp:86] Creating Layer conv1
I0428 19:46:12.812940 25958 net.cpp:408] conv1 <- pool0
I0428 19:46:12.812947 25958 net.cpp:382] conv1 -> conv1
I0428 19:46:12.816069 25958 net.cpp:124] Setting up conv1
I0428 19:46:12.816087 25958 net.cpp:131] Top shape: 64 100 8 8 (409600)
I0428 19:46:12.816092 25958 net.cpp:139] Memory required for data: 2208000
I0428 19:46:12.816102 25958 layer_factory.hpp:77] Creating layer pool1
I0428 19:46:12.816112 25958 net.cpp:86] Creating Layer pool1
I0428 19:46:12.816117 25958 net.cpp:408] pool1 <- conv1
I0428 19:46:12.816123 25958 net.cpp:382] pool1 -> pool1
I0428 19:46:12.816165 25958 net.cpp:124] Setting up pool1
I0428 19:46:12.816174 25958 net.cpp:131] Top shape: 64 100 4 4 (102400)
I0428 19:46:12.816179 25958 net.cpp:139] Memory required for data: 2617600
I0428 19:46:12.816181 25958 layer_factory.hpp:77] Creating layer ip1
I0428 19:46:12.816190 25958 net.cpp:86] Creating Layer ip1
I0428 19:46:12.816193 25958 net.cpp:408] ip1 <- pool1
I0428 19:46:12.816200 25958 net.cpp:382] ip1 -> ip1
I0428 19:46:12.816414 25958 net.cpp:124] Setting up ip1
I0428 19:46:12.816422 25958 net.cpp:131] Top shape: 64 10 (640)
I0428 19:46:12.816426 25958 net.cpp:139] Memory required for data: 2620160
I0428 19:46:12.816435 25958 layer_factory.hpp:77] Creating layer relu1
I0428 19:46:12.816442 25958 net.cpp:86] Creating Layer relu1
I0428 19:46:12.816445 25958 net.cpp:408] relu1 <- ip1
I0428 19:46:12.816452 25958 net.cpp:369] relu1 -> ip1 (in-place)
I0428 19:46:12.816644 25958 net.cpp:124] Setting up relu1
I0428 19:46:12.816654 25958 net.cpp:131] Top shape: 64 10 (640)
I0428 19:46:12.816658 25958 net.cpp:139] Memory required for data: 2622720
I0428 19:46:12.816663 25958 layer_factory.hpp:77] Creating layer ip2
I0428 19:46:12.816670 25958 net.cpp:86] Creating Layer ip2
I0428 19:46:12.816673 25958 net.cpp:408] ip2 <- ip1
I0428 19:46:12.816679 25958 net.cpp:382] ip2 -> ip2
I0428 19:46:12.816797 25958 net.cpp:124] Setting up ip2
I0428 19:46:12.816804 25958 net.cpp:131] Top shape: 64 50 (3200)
I0428 19:46:12.816808 25958 net.cpp:139] Memory required for data: 2635520
I0428 19:46:12.816823 25958 layer_factory.hpp:77] Creating layer relu2
I0428 19:46:12.816830 25958 net.cpp:86] Creating Layer relu2
I0428 19:46:12.816834 25958 net.cpp:408] relu2 <- ip2
I0428 19:46:12.816839 25958 net.cpp:369] relu2 -> ip2 (in-place)
I0428 19:46:12.817679 25958 net.cpp:124] Setting up relu2
I0428 19:46:12.817694 25958 net.cpp:131] Top shape: 64 50 (3200)
I0428 19:46:12.817698 25958 net.cpp:139] Memory required for data: 2648320
I0428 19:46:12.817703 25958 layer_factory.hpp:77] Creating layer ip3
I0428 19:46:12.817713 25958 net.cpp:86] Creating Layer ip3
I0428 19:46:12.817716 25958 net.cpp:408] ip3 <- ip2
I0428 19:46:12.817723 25958 net.cpp:382] ip3 -> ip3
I0428 19:46:12.817842 25958 net.cpp:124] Setting up ip3
I0428 19:46:12.817852 25958 net.cpp:131] Top shape: 64 10 (640)
I0428 19:46:12.817855 25958 net.cpp:139] Memory required for data: 2650880
I0428 19:46:12.817865 25958 layer_factory.hpp:77] Creating layer relu3
I0428 19:46:12.817872 25958 net.cpp:86] Creating Layer relu3
I0428 19:46:12.817875 25958 net.cpp:408] relu3 <- ip3
I0428 19:46:12.817880 25958 net.cpp:369] relu3 -> ip3 (in-place)
I0428 19:46:12.818078 25958 net.cpp:124] Setting up relu3
I0428 19:46:12.818087 25958 net.cpp:131] Top shape: 64 10 (640)
I0428 19:46:12.818090 25958 net.cpp:139] Memory required for data: 2653440
I0428 19:46:12.818094 25958 layer_factory.hpp:77] Creating layer loss
I0428 19:46:12.818101 25958 net.cpp:86] Creating Layer loss
I0428 19:46:12.818105 25958 net.cpp:408] loss <- ip3
I0428 19:46:12.818110 25958 net.cpp:408] loss <- label
I0428 19:46:12.818116 25958 net.cpp:382] loss -> loss
I0428 19:46:12.818137 25958 layer_factory.hpp:77] Creating layer loss
…
I0428 19:46:12.818878 25958 solver.cpp:173] Creating test net (#0) specified by net file: ECE595/mnist/train_test/var_everything2/lenet_train_test487.prototxt
I0428 19:46:12.818910 25958 net.cpp:296] The NetState phase (1) differed from the phase (0) specified by a rule in layer mnist
I0428 19:46:12.819020 25958 net.cpp:53] Initializing net from parameters: 
name: "LeNet"
state {
  phase: TEST
}
layer {
  name: "mnist"
  type: "Data"
  top: "data"
  top: "label"
  include {
    phase: TEST
  }
  transform_param {
    scale: 0.00390625
  }
  data_param {
    source: "examples/mnist/mnist_test_lmdb"
    batch_size: 100
    backend: LMDB
  }
}
layer {
  name: "conv0"
  type: "Convolution"
  bottom: "data"
  top: "conv0"
  param {
    lr_mult: 1
  }
  param {
    lr_mult: 2
  }
  convolution_param {
    num_output: 2
    kernel_size: 5
    stride: 1
    weight_filler {
      type: "xavier"
    }
    bias_filler {
      type: "constant"
    }
  }
}
layer {
  name: "pool0"
  type: "Pooling"
  bottom: "conv0"
  top: "pool0"
  pooling_param {
    pool: MAX
    kernel_size: 2
    stride: 2
  }
}
layer {
  name: "conv1"
  type: "Convolution"
  bottom: "pool0"
  top: "conv1"
  param {
    lr_mult: 1
  }
  param {
    lr_mult: 2
  }
  convolution_param {
    num_output: 100
    kernel_size: 5
    stride: 1
    weight_filler {
      type: "xavier"
    }
    bias_filler {
      type: "constant"
    }
  }
}
layer {
  name: "pool1"
  type: "Pooling"
  bottom: "conv1"
  top: "pool1"
  pooling_param {
    pool: MAX
    kernel_size: 2
    stride: 2
  }
}
layer {
  name: "ip1"
  type: "InnerProduct"
  bottom: "pool1"
  top: "ip1"
  param {
    lr_mult: 1
  }
  param {
    lr_mult: 2
  }
  inner_product_param {
    num_output: 10
    weight_filler {
      type: "xavier"
    }
    bias_filler {
      type: "constant"
    }
  }
}
layer {
  name: "relu1"
  type: "ReLU"
  bottom: "ip1"
  top: "ip1"
}
layer {
  name: "ip2"
  type: "InnerProduct"
  bottom: "ip1"
  top: "ip2"
  param {
    lr_mult: 1
  }
  param {
    lr_mult: 2
  }
  inner_product_param {
    num_output: 50
    weight_filler {
      type: "xavier"
    }
    bias_filler {
      type: "constant"
    }
  }
}
layer {
  name: "relu2"
  type: "ReLU"
  bottom: "ip2"
  top: "ip2"
}
layer {
  name: "ip3"
  type: "InnerProduct"
  bottom: "ip2"
  top: "ip3"
  param {
    lr_mult: 1
  }
  param {
    lr_mult: 2
  }
  inner_product_param {
    num_output: 10
    weight_filler {
      type: "xavier"
    }
    bias_filler {
      type: "constant"
    }
  }
}
layer {
  name: "relu3"
  type: "ReLU"
  bottom: "ip3"
  top: "ip3"
}
layer {
  name: "accuracy"
  type: "Accuracy"
  bottom: "ip3"
  bottom: "label"
  top: "accuracy"
  include {
    phase: TEST
  }
}
layer {
  name: "loss"
  type: "SoftmaxWithLoss"
  bottom: "ip3"
  bottom: "label"
  top: "loss"
}
I0428 19:46:12.819113 25958 layer_factory.hpp:77] Creating layer mnist
I0428 19:46:12.819166 25958 db_lmdb.cpp:35] Opened lmdb examples/mnist/mnist_test_lmdb
I0428 19:46:12.819181 25958 net.cpp:86] Creating Layer mnist
I0428 19:46:12.819187 25958 net.cpp:382] mnist -> data
I0428 19:46:12.819196 25958 net.cpp:382] mnist -> label
I0428 19:46:12.819296 25958 data_layer.cpp:45] output data size: 100,1,28,28
I0428 19:46:12.821497 25958 net.cpp:124] Setting up mnist
I0428 19:46:12.821514 25958 net.cpp:131] Top shape: 100 1 28 28 (78400)
I0428 19:46:12.821521 25958 net.cpp:131] Top shape: 100 (100)
I0428 19:46:12.821524 25958 net.cpp:139] Memory required for data: 314000
I0428 19:46:12.821529 25958 layer_factory.hpp:77] Creating layer label_mnist_1_split
I0428 19:46:12.821554 25958 net.cpp:86] Creating Layer label_mnist_1_split
I0428 19:46:12.821558 25958 net.cpp:408] label_mnist_1_split <- label
I0428 19:46:12.821564 25958 net.cpp:382] label_mnist_1_split -> label_mnist_1_split_0
I0428 19:46:12.821573 25958 net.cpp:382] label_mnist_1_split -> label_mnist_1_split_1
I0428 19:46:12.821624 25958 net.cpp:124] Setting up label_mnist_1_split
I0428 19:46:12.821631 25958 net.cpp:131] Top shape: 100 (100)
I0428 19:46:12.821636 25958 net.cpp:131] Top shape: 100 (100)
I0428 19:46:12.821640 25958 net.cpp:139] Memory required for data: 314800
I0428 19:46:12.821645 25958 layer_factory.hpp:77] Creating layer conv0
I0428 19:46:12.821653 25958 net.cpp:86] Creating Layer conv0
I0428 19:46:12.821657 25958 net.cpp:408] conv0 <- data
I0428 19:46:12.821663 25958 net.cpp:382] conv0 -> conv0
I0428 19:46:12.823583 25958 net.cpp:124] Setting up conv0
I0428 19:46:12.823601 25958 net.cpp:131] Top shape: 100 2 24 24 (115200)
I0428 19:46:12.823606 25958 net.cpp:139] Memory required for data: 775600
I0428 19:46:12.823616 25958 layer_factory.hpp:77] Creating layer pool0
I0428 19:46:12.823624 25958 net.cpp:86] Creating Layer pool0
I0428 19:46:12.823629 25958 net.cpp:408] pool0 <- conv0
I0428 19:46:12.823634 25958 net.cpp:382] pool0 -> pool0
I0428 19:46:12.823678 25958 net.cpp:124] Setting up pool0
I0428 19:46:12.823685 25958 net.cpp:131] Top shape: 100 2 12 12 (28800)
I0428 19:46:12.823689 25958 net.cpp:139] Memory required for data: 890800
I0428 19:46:12.823693 25958 layer_factory.hpp:77] Creating layer conv1
I0428 19:46:12.823703 25958 net.cpp:86] Creating Layer conv1
I0428 19:46:12.823706 25958 net.cpp:408] conv1 <- pool0
I0428 19:46:12.823712 25958 net.cpp:382] conv1 -> conv1
I0428 19:46:12.825462 25958 net.cpp:124] Setting up conv1
I0428 19:46:12.825479 25958 net.cpp:131] Top shape: 100 100 8 8 (640000)
I0428 19:46:12.825484 25958 net.cpp:139] Memory required for data: 3450800
I0428 19:46:12.825495 25958 layer_factory.hpp:77] Creating layer pool1
I0428 19:46:12.825501 25958 net.cpp:86] Creating Layer pool1
I0428 19:46:12.825506 25958 net.cpp:408] pool1 <- conv1
I0428 19:46:12.825512 25958 net.cpp:382] pool1 -> pool1
I0428 19:46:12.825553 25958 net.cpp:124] Setting up pool1
I0428 19:46:12.825562 25958 net.cpp:131] Top shape: 100 100 4 4 (160000)
I0428 19:46:12.825567 25958 net.cpp:139] Memory required for data: 4090800
I0428 19:46:12.825569 25958 layer_factory.hpp:77] Creating layer ip1
I0428 19:46:12.825577 25958 net.cpp:86] Creating Layer ip1
I0428 19:46:12.825582 25958 net.cpp:408] ip1 <- pool1
I0428 19:46:12.825587 25958 net.cpp:382] ip1 -> ip1
I0428 19:46:12.825806 25958 net.cpp:124] Setting up ip1
I0428 19:46:12.825815 25958 net.cpp:131] Top shape: 100 10 (1000)
I0428 19:46:12.825836 25958 net.cpp:139] Memory required for data: 4094800
I0428 19:46:12.825845 25958 layer_factory.hpp:77] Creating layer relu1
I0428 19:46:12.825851 25958 net.cpp:86] Creating Layer relu1
I0428 19:46:12.825855 25958 net.cpp:408] relu1 <- ip1
I0428 19:46:12.825862 25958 net.cpp:369] relu1 -> ip1 (in-place)
I0428 19:46:12.826050 25958 net.cpp:124] Setting up relu1
I0428 19:46:12.826061 25958 net.cpp:131] Top shape: 100 10 (1000)
I0428 19:46:12.826064 25958 net.cpp:139] Memory required for data: 4098800
I0428 19:46:12.826068 25958 layer_factory.hpp:77] Creating layer ip2
I0428 19:46:12.826077 25958 net.cpp:86] Creating Layer ip2
I0428 19:46:12.826081 25958 net.cpp:408] ip2 <- ip1
I0428 19:46:12.826087 25958 net.cpp:382] ip2 -> ip2
I0428 19:46:12.826216 25958 net.cpp:124] Setting up ip2
I0428 19:46:12.826225 25958 net.cpp:131] Top shape: 100 50 (5000)
I0428 19:46:12.826228 25958 net.cpp:139] Memory required for data: 4118800
I0428 19:46:12.826234 25958 layer_factory.hpp:77] Creating layer relu2
I0428 19:46:12.826241 25958 net.cpp:86] Creating Layer relu2
I0428 19:46:12.826244 25958 net.cpp:408] relu2 <- ip2
I0428 19:46:12.826248 25958 net.cpp:369] relu2 -> ip2 (in-place)
I0428 19:46:12.826511 25958 net.cpp:124] Setting up relu2
I0428 19:46:12.826522 25958 net.cpp:131] Top shape: 100 50 (5000)
I0428 19:46:12.826525 25958 net.cpp:139] Memory required for data: 4138800
I0428 19:46:12.826529 25958 layer_factory.hpp:77] Creating layer ip3
I0428 19:46:12.826536 25958 net.cpp:86] Creating Layer ip3
I0428 19:46:12.826540 25958 net.cpp:408] ip3 <- ip2
I0428 19:46:12.826546 25958 net.cpp:382] ip3 -> ip3
I0428 19:46:12.826668 25958 net.cpp:124] Setting up ip3
I0428 19:46:12.826678 25958 net.cpp:131] Top shape: 100 10 (1000)
I0428 19:46:12.826681 25958 net.cpp:139] Memory required for data: 4142800
I0428 19:46:12.826690 25958 layer_factory.hpp:77] Creating layer relu3
I0428 19:46:12.826695 25958 net.cpp:86] Creating Layer relu3
I0428 19:46:12.826700 25958 net.cpp:408] relu3 <- ip3
I0428 19:46:12.826705 25958 net.cpp:369] relu3 -> ip3 (in-place)
I0428 19:46:12.827621 25958 net.cpp:124] Setting up relu3
I0428 19:46:12.827638 25958 net.cpp:131] Top shape: 100 10 (1000)
I0428 19:46:12.827642 25958 net.cpp:139] Memory required for data: 4146800
I0428 19:46:12.827647 25958 layer_factory.hpp:77] Creating layer ip3_relu3_0_split
I0428 19:46:12.827653 25958 net.cpp:86] Creating Layer ip3_relu3_0_split
I0428 19:46:12.827657 25958 net.cpp:408] ip3_relu3_0_split <- ip3
I0428 19:46:12.827663 25958 net.cpp:382] ip3_relu3_0_split -> ip3_relu3_0_split_0
I0428 19:46:12.827672 25958 net.cpp:382] ip3_relu3_0_split -> ip3_relu3_0_split_1
I0428 19:46:12.827725 25958 net.cpp:124] Setting up ip3_relu3_0_split
I0428 19:46:12.827733 25958 net.cpp:131] Top shape: 100 10 (1000)
I0428 19:46:12.827739 25958 net.cpp:131] Top shape: 100 10 (1000)
I0428 19:46:12.827742 25958 net.cpp:139] Memory required for data: 4154800
I0428 19:46:12.827745 25958 layer_factory.hpp:77] Creating layer accuracy
I0428 19:46:12.827752 25958 net.cpp:86] Creating Layer accuracy
I0428 19:46:12.827756 25958 net.cpp:408] accuracy <- ip3_relu3_0_split_0
I0428 19:46:12.827761 25958 net.cpp:408] accuracy <- label_mnist_1_split_0
I0428 19:46:12.827767 25958 net.cpp:382] accuracy -> accuracy
…
