…
I0428 20:03:23.320618 30171 net.cpp:296] The NetState phase (0) differed from the phase (1) specified by a rule in layer mnist
I0428 20:03:23.320649 30171 net.cpp:296] The NetState phase (0) differed from the phase (1) specified by a rule in layer accuracy
I0428 20:03:23.320729 30171 net.cpp:53] Initializing net from parameters: 
name: "LeNet"
state {
  phase: TRAIN
  level: 0
  stage: ""
}
layer {
  name: "mnist"
  type: "Data"
  top: "data"
  top: "label"
  include {
    phase: TRAIN
  }
  transform_param {
    scale: 0.00390625
  }
  data_param {
    source: "examples/mnist/mnist_train_lmdb"
    batch_size: 64
    backend: LMDB
  }
}
layer {
  name: "conv0"
  type: "Convolution"
  bottom: "data"
  top: "conv0"
  param {
    lr_mult: 1
  }
  param {
    lr_mult: 2
  }
  convolution_param {
    num_output: 10
    kernel_size: 5
    stride: 1
    weight_filler {
      type: "xavier"
    }
    bias_filler {
      type: "constant"
    }
  }
}
layer {
  name: "pool0"
  type: "Pooling"
  bottom: "conv0"
  top: "pool0"
  pooling_param {
    pool: MAX
    kernel_size: 2
    stride: 2
  }
}
layer {
  name: "conv1"
  type: "Convolution"
  bottom: "pool0"
  top: "conv1"
  param {
    lr_mult: 1
  }
  param {
    lr_mult: 2
  }
  convolution_param {
    num_output: 100
    kernel_size: 5
    stride: 1
    weight_filler {
      type: "xavier"
    }
    bias_filler {
      type: "constant"
    }
  }
}
layer {
  name: "pool1"
  type: "Pooling"
  bottom: "conv1"
  top: "pool1"
  pooling_param {
    pool: MAX
    kernel_size: 2
    stride: 2
  }
}
layer {
  name: "ip1"
  type: "InnerProduct"
  bottom: "pool1"
  top: "ip1"
  param {
    lr_mult: 1
  }
  param {
    lr_mult: 2
  }
  inner_product_param {
    num_output: 10
    weight_filler {
      type: "xavier"
    }
    bias_filler {
      type: "constant"
    }
  }
}
layer {
  name: "relu1"
  type: "ReLU"
  bottom: "ip1"
  top: "ip1"
}
layer {
  name: "ip2"
  type: "InnerProduct"
  bottom: "ip1"
  top: "ip2"
  param {
    lr_mult: 1
  }
  param {
    lr_mult: 2
  }
  inner_product_param {
    num_output: 10
    weight_filler {
      type: "xavier"
    }
    bias_filler {
      type: "constant"
    }
  }
}
layer {
  name: "relu2"
  type: "ReLU"
  bottom: "ip2"
  top: "ip2"
}
layer {
  name: "ip3"
  type: "InnerProduct"
  bottom: "ip2"
  top: "ip3"
  param {
    lr_mult: 1
  }
  param {
    lr_mult: 2
  }
  inner_product_param {
    num_output: 10
    weight_filler {
      type: "xavier"
    }
    bias_filler {
      type: "constant"
    }
  }
}
layer {
  name: "relu3"
  type: "ReLU"
  bottom: "ip3"
  top: "ip3"
}
layer {
  name: "loss"
  type: "SoftmaxWithLoss"
  bottom: "ip3"
  bottom: "label"
  top: "loss"
}
I0428 20:03:23.320796 30171 layer_factory.hpp:77] Creating layer mnist
I0428 20:03:23.320904 30171 db_lmdb.cpp:35] Opened lmdb examples/mnist/mnist_train_lmdb
I0428 20:03:23.320926 30171 net.cpp:86] Creating Layer mnist
I0428 20:03:23.320935 30171 net.cpp:382] mnist -> data
I0428 20:03:23.320972 30171 net.cpp:382] mnist -> label
I0428 20:03:23.322079 30171 data_layer.cpp:45] output data size: 64,1,28,28
I0428 20:03:23.324391 30171 net.cpp:124] Setting up mnist
I0428 20:03:23.324421 30171 net.cpp:131] Top shape: 64 1 28 28 (50176)
I0428 20:03:23.324429 30171 net.cpp:131] Top shape: 64 (64)
I0428 20:03:23.324432 30171 net.cpp:139] Memory required for data: 200960
I0428 20:03:23.324440 30171 layer_factory.hpp:77] Creating layer conv0
I0428 20:03:23.324455 30171 net.cpp:86] Creating Layer conv0
I0428 20:03:23.324472 30171 net.cpp:408] conv0 <- data
I0428 20:03:23.324483 30171 net.cpp:382] conv0 -> conv0
I0428 20:03:23.551530 30171 net.cpp:124] Setting up conv0
I0428 20:03:23.551571 30171 net.cpp:131] Top shape: 64 10 24 24 (368640)
I0428 20:03:23.551575 30171 net.cpp:139] Memory required for data: 1675520
I0428 20:03:23.551590 30171 layer_factory.hpp:77] Creating layer pool0
I0428 20:03:23.551617 30171 net.cpp:86] Creating Layer pool0
I0428 20:03:23.551622 30171 net.cpp:408] pool0 <- conv0
I0428 20:03:23.551643 30171 net.cpp:382] pool0 -> pool0
I0428 20:03:23.551692 30171 net.cpp:124] Setting up pool0
I0428 20:03:23.551704 30171 net.cpp:131] Top shape: 64 10 12 12 (92160)
I0428 20:03:23.551708 30171 net.cpp:139] Memory required for data: 2044160
I0428 20:03:23.551712 30171 layer_factory.hpp:77] Creating layer conv1
I0428 20:03:23.551723 30171 net.cpp:86] Creating Layer conv1
I0428 20:03:23.551725 30171 net.cpp:408] conv1 <- pool0
I0428 20:03:23.551730 30171 net.cpp:382] conv1 -> conv1
I0428 20:03:23.553794 30171 net.cpp:124] Setting up conv1
I0428 20:03:23.553839 30171 net.cpp:131] Top shape: 64 100 8 8 (409600)
I0428 20:03:23.553843 30171 net.cpp:139] Memory required for data: 3682560
I0428 20:03:23.553866 30171 layer_factory.hpp:77] Creating layer pool1
I0428 20:03:23.553874 30171 net.cpp:86] Creating Layer pool1
I0428 20:03:23.553877 30171 net.cpp:408] pool1 <- conv1
I0428 20:03:23.553882 30171 net.cpp:382] pool1 -> pool1
I0428 20:03:23.553935 30171 net.cpp:124] Setting up pool1
I0428 20:03:23.553941 30171 net.cpp:131] Top shape: 64 100 4 4 (102400)
I0428 20:03:23.553942 30171 net.cpp:139] Memory required for data: 4092160
I0428 20:03:23.553946 30171 layer_factory.hpp:77] Creating layer ip1
I0428 20:03:23.553952 30171 net.cpp:86] Creating Layer ip1
I0428 20:03:23.553956 30171 net.cpp:408] ip1 <- pool1
I0428 20:03:23.553961 30171 net.cpp:382] ip1 -> ip1
I0428 20:03:23.555049 30171 net.cpp:124] Setting up ip1
I0428 20:03:23.555063 30171 net.cpp:131] Top shape: 64 10 (640)
I0428 20:03:23.555076 30171 net.cpp:139] Memory required for data: 4094720
I0428 20:03:23.555085 30171 layer_factory.hpp:77] Creating layer relu1
I0428 20:03:23.555093 30171 net.cpp:86] Creating Layer relu1
I0428 20:03:23.555095 30171 net.cpp:408] relu1 <- ip1
I0428 20:03:23.555100 30171 net.cpp:369] relu1 -> ip1 (in-place)
I0428 20:03:23.555312 30171 net.cpp:124] Setting up relu1
I0428 20:03:23.555321 30171 net.cpp:131] Top shape: 64 10 (640)
I0428 20:03:23.555325 30171 net.cpp:139] Memory required for data: 4097280
I0428 20:03:23.555327 30171 layer_factory.hpp:77] Creating layer ip2
I0428 20:03:23.555333 30171 net.cpp:86] Creating Layer ip2
I0428 20:03:23.555336 30171 net.cpp:408] ip2 <- ip1
I0428 20:03:23.555341 30171 net.cpp:382] ip2 -> ip2
I0428 20:03:23.555428 30171 net.cpp:124] Setting up ip2
I0428 20:03:23.555434 30171 net.cpp:131] Top shape: 64 10 (640)
I0428 20:03:23.555438 30171 net.cpp:139] Memory required for data: 4099840
I0428 20:03:23.555443 30171 layer_factory.hpp:77] Creating layer relu2
I0428 20:03:23.555447 30171 net.cpp:86] Creating Layer relu2
I0428 20:03:23.555451 30171 net.cpp:408] relu2 <- ip2
I0428 20:03:23.555454 30171 net.cpp:369] relu2 -> ip2 (in-place)
I0428 20:03:23.556237 30171 net.cpp:124] Setting up relu2
I0428 20:03:23.556249 30171 net.cpp:131] Top shape: 64 10 (640)
I0428 20:03:23.556268 30171 net.cpp:139] Memory required for data: 4102400
I0428 20:03:23.556272 30171 layer_factory.hpp:77] Creating layer ip3
I0428 20:03:23.556279 30171 net.cpp:86] Creating Layer ip3
I0428 20:03:23.556283 30171 net.cpp:408] ip3 <- ip2
I0428 20:03:23.556288 30171 net.cpp:382] ip3 -> ip3
I0428 20:03:23.556401 30171 net.cpp:124] Setting up ip3
I0428 20:03:23.556409 30171 net.cpp:131] Top shape: 64 10 (640)
I0428 20:03:23.556412 30171 net.cpp:139] Memory required for data: 4104960
I0428 20:03:23.556419 30171 layer_factory.hpp:77] Creating layer relu3
I0428 20:03:23.556424 30171 net.cpp:86] Creating Layer relu3
I0428 20:03:23.556427 30171 net.cpp:408] relu3 <- ip3
I0428 20:03:23.556432 30171 net.cpp:369] relu3 -> ip3 (in-place)
I0428 20:03:23.556591 30171 net.cpp:124] Setting up relu3
I0428 20:03:23.556599 30171 net.cpp:131] Top shape: 64 10 (640)
I0428 20:03:23.556602 30171 net.cpp:139] Memory required for data: 4107520
I0428 20:03:23.556605 30171 layer_factory.hpp:77] Creating layer loss
I0428 20:03:23.556610 30171 net.cpp:86] Creating Layer loss
I0428 20:03:23.556614 30171 net.cpp:408] loss <- ip3
I0428 20:03:23.556617 30171 net.cpp:408] loss <- label
I0428 20:03:23.556622 30171 net.cpp:382] loss -> loss
I0428 20:03:23.556637 30171 layer_factory.hpp:77] Creating layer loss
…
I0428 20:03:23.557358 30171 solver.cpp:173] Creating test net (#0) specified by net file: ECE595/mnist/train_test/var_everything2/lenet_train_test950.prototxt
I0428 20:03:23.557399 30171 net.cpp:296] The NetState phase (1) differed from the phase (0) specified by a rule in layer mnist
I0428 20:03:23.557499 30171 net.cpp:53] Initializing net from parameters: 
name: "LeNet"
state {
  phase: TEST
}
layer {
  name: "mnist"
  type: "Data"
  top: "data"
  top: "label"
  include {
    phase: TEST
  }
  transform_param {
    scale: 0.00390625
  }
  data_param {
    source: "examples/mnist/mnist_test_lmdb"
    batch_size: 100
    backend: LMDB
  }
}
layer {
  name: "conv0"
  type: "Convolution"
  bottom: "data"
  top: "conv0"
  param {
    lr_mult: 1
  }
  param {
    lr_mult: 2
  }
  convolution_param {
    num_output: 10
    kernel_size: 5
    stride: 1
    weight_filler {
      type: "xavier"
    }
    bias_filler {
      type: "constant"
    }
  }
}
layer {
  name: "pool0"
  type: "Pooling"
  bottom: "conv0"
  top: "pool0"
  pooling_param {
    pool: MAX
    kernel_size: 2
    stride: 2
  }
}
layer {
  name: "conv1"
  type: "Convolution"
  bottom: "pool0"
  top: "conv1"
  param {
    lr_mult: 1
  }
  param {
    lr_mult: 2
  }
  convolution_param {
    num_output: 100
    kernel_size: 5
    stride: 1
    weight_filler {
      type: "xavier"
    }
    bias_filler {
      type: "constant"
    }
  }
}
layer {
  name: "pool1"
  type: "Pooling"
  bottom: "conv1"
  top: "pool1"
  pooling_param {
    pool: MAX
    kernel_size: 2
    stride: 2
  }
}
layer {
  name: "ip1"
  type: "InnerProduct"
  bottom: "pool1"
  top: "ip1"
  param {
    lr_mult: 1
  }
  param {
    lr_mult: 2
  }
  inner_product_param {
    num_output: 10
    weight_filler {
      type: "xavier"
    }
    bias_filler {
      type: "constant"
    }
  }
}
layer {
  name: "relu1"
  type: "ReLU"
  bottom: "ip1"
  top: "ip1"
}
layer {
  name: "ip2"
  type: "InnerProduct"
  bottom: "ip1"
  top: "ip2"
  param {
    lr_mult: 1
  }
  param {
    lr_mult: 2
  }
  inner_product_param {
    num_output: 10
    weight_filler {
      type: "xavier"
    }
    bias_filler {
      type: "constant"
    }
  }
}
layer {
  name: "relu2"
  type: "ReLU"
  bottom: "ip2"
  top: "ip2"
}
layer {
  name: "ip3"
  type: "InnerProduct"
  bottom: "ip2"
  top: "ip3"
  param {
    lr_mult: 1
  }
  param {
    lr_mult: 2
  }
  inner_product_param {
    num_output: 10
    weight_filler {
      type: "xavier"
    }
    bias_filler {
      type: "constant"
    }
  }
}
layer {
  name: "relu3"
  type: "ReLU"
  bottom: "ip3"
  top: "ip3"
}
layer {
  name: "accuracy"
  type: "Accuracy"
  bottom: "ip3"
  bottom: "label"
  top: "accuracy"
  include {
    phase: TEST
  }
}
layer {
  name: "loss"
  type: "SoftmaxWithLoss"
  bottom: "ip3"
  bottom: "label"
  top: "loss"
}
I0428 20:03:23.557593 30171 layer_factory.hpp:77] Creating layer mnist
I0428 20:03:23.557636 30171 db_lmdb.cpp:35] Opened lmdb examples/mnist/mnist_test_lmdb
I0428 20:03:23.557649 30171 net.cpp:86] Creating Layer mnist
I0428 20:03:23.557654 30171 net.cpp:382] mnist -> data
I0428 20:03:23.557662 30171 net.cpp:382] mnist -> label
I0428 20:03:23.557744 30171 data_layer.cpp:45] output data size: 100,1,28,28
I0428 20:03:23.559804 30171 net.cpp:124] Setting up mnist
I0428 20:03:23.559833 30171 net.cpp:131] Top shape: 100 1 28 28 (78400)
I0428 20:03:23.559849 30171 net.cpp:131] Top shape: 100 (100)
I0428 20:03:23.559851 30171 net.cpp:139] Memory required for data: 314000
I0428 20:03:23.559872 30171 layer_factory.hpp:77] Creating layer label_mnist_1_split
I0428 20:03:23.559880 30171 net.cpp:86] Creating Layer label_mnist_1_split
I0428 20:03:23.559882 30171 net.cpp:408] label_mnist_1_split <- label
I0428 20:03:23.559887 30171 net.cpp:382] label_mnist_1_split -> label_mnist_1_split_0
I0428 20:03:23.559895 30171 net.cpp:382] label_mnist_1_split -> label_mnist_1_split_1
I0428 20:03:23.559990 30171 net.cpp:124] Setting up label_mnist_1_split
I0428 20:03:23.559998 30171 net.cpp:131] Top shape: 100 (100)
I0428 20:03:23.560003 30171 net.cpp:131] Top shape: 100 (100)
I0428 20:03:23.560005 30171 net.cpp:139] Memory required for data: 314800
I0428 20:03:23.560009 30171 layer_factory.hpp:77] Creating layer conv0
I0428 20:03:23.560017 30171 net.cpp:86] Creating Layer conv0
I0428 20:03:23.560020 30171 net.cpp:408] conv0 <- data
I0428 20:03:23.560025 30171 net.cpp:382] conv0 -> conv0
I0428 20:03:23.561715 30171 net.cpp:124] Setting up conv0
I0428 20:03:23.561744 30171 net.cpp:131] Top shape: 100 10 24 24 (576000)
I0428 20:03:23.561748 30171 net.cpp:139] Memory required for data: 2618800
I0428 20:03:23.561758 30171 layer_factory.hpp:77] Creating layer pool0
I0428 20:03:23.561764 30171 net.cpp:86] Creating Layer pool0
I0428 20:03:23.561767 30171 net.cpp:408] pool0 <- conv0
I0428 20:03:23.561772 30171 net.cpp:382] pool0 -> pool0
I0428 20:03:23.561807 30171 net.cpp:124] Setting up pool0
I0428 20:03:23.561813 30171 net.cpp:131] Top shape: 100 10 12 12 (144000)
I0428 20:03:23.561816 30171 net.cpp:139] Memory required for data: 3194800
I0428 20:03:23.561833 30171 layer_factory.hpp:77] Creating layer conv1
I0428 20:03:23.561841 30171 net.cpp:86] Creating Layer conv1
I0428 20:03:23.561844 30171 net.cpp:408] conv1 <- pool0
I0428 20:03:23.561849 30171 net.cpp:382] conv1 -> conv1
I0428 20:03:23.563601 30171 net.cpp:124] Setting up conv1
I0428 20:03:23.563612 30171 net.cpp:131] Top shape: 100 100 8 8 (640000)
I0428 20:03:23.563633 30171 net.cpp:139] Memory required for data: 5754800
I0428 20:03:23.563642 30171 layer_factory.hpp:77] Creating layer pool1
I0428 20:03:23.563649 30171 net.cpp:86] Creating Layer pool1
I0428 20:03:23.563652 30171 net.cpp:408] pool1 <- conv1
I0428 20:03:23.563659 30171 net.cpp:382] pool1 -> pool1
I0428 20:03:23.563726 30171 net.cpp:124] Setting up pool1
I0428 20:03:23.563731 30171 net.cpp:131] Top shape: 100 100 4 4 (160000)
I0428 20:03:23.563735 30171 net.cpp:139] Memory required for data: 6394800
I0428 20:03:23.563738 30171 layer_factory.hpp:77] Creating layer ip1
I0428 20:03:23.563760 30171 net.cpp:86] Creating Layer ip1
I0428 20:03:23.563763 30171 net.cpp:408] ip1 <- pool1
I0428 20:03:23.563769 30171 net.cpp:382] ip1 -> ip1
I0428 20:03:23.563954 30171 net.cpp:124] Setting up ip1
I0428 20:03:23.563961 30171 net.cpp:131] Top shape: 100 10 (1000)
I0428 20:03:23.563974 30171 net.cpp:139] Memory required for data: 6398800
I0428 20:03:23.563982 30171 layer_factory.hpp:77] Creating layer relu1
I0428 20:03:23.563988 30171 net.cpp:86] Creating Layer relu1
I0428 20:03:23.563992 30171 net.cpp:408] relu1 <- ip1
I0428 20:03:23.564013 30171 net.cpp:369] relu1 -> ip1 (in-place)
I0428 20:03:23.564196 30171 net.cpp:124] Setting up relu1
I0428 20:03:23.564204 30171 net.cpp:131] Top shape: 100 10 (1000)
I0428 20:03:23.564209 30171 net.cpp:139] Memory required for data: 6402800
I0428 20:03:23.564213 30171 layer_factory.hpp:77] Creating layer ip2
I0428 20:03:23.564226 30171 net.cpp:86] Creating Layer ip2
I0428 20:03:23.564230 30171 net.cpp:408] ip2 <- ip1
I0428 20:03:23.564236 30171 net.cpp:382] ip2 -> ip2
I0428 20:03:23.564345 30171 net.cpp:124] Setting up ip2
I0428 20:03:23.564352 30171 net.cpp:131] Top shape: 100 10 (1000)
I0428 20:03:23.564355 30171 net.cpp:139] Memory required for data: 6406800
I0428 20:03:23.564360 30171 layer_factory.hpp:77] Creating layer relu2
I0428 20:03:23.564366 30171 net.cpp:86] Creating Layer relu2
I0428 20:03:23.564369 30171 net.cpp:408] relu2 <- ip2
I0428 20:03:23.564373 30171 net.cpp:369] relu2 -> ip2 (in-place)
I0428 20:03:23.564617 30171 net.cpp:124] Setting up relu2
I0428 20:03:23.564642 30171 net.cpp:131] Top shape: 100 10 (1000)
I0428 20:03:23.564646 30171 net.cpp:139] Memory required for data: 6410800
I0428 20:03:23.564649 30171 layer_factory.hpp:77] Creating layer ip3
I0428 20:03:23.564656 30171 net.cpp:86] Creating Layer ip3
I0428 20:03:23.564659 30171 net.cpp:408] ip3 <- ip2
I0428 20:03:23.564664 30171 net.cpp:382] ip3 -> ip3
I0428 20:03:23.564766 30171 net.cpp:124] Setting up ip3
I0428 20:03:23.564774 30171 net.cpp:131] Top shape: 100 10 (1000)
I0428 20:03:23.564776 30171 net.cpp:139] Memory required for data: 6414800
I0428 20:03:23.564784 30171 layer_factory.hpp:77] Creating layer relu3
I0428 20:03:23.564788 30171 net.cpp:86] Creating Layer relu3
I0428 20:03:23.564791 30171 net.cpp:408] relu3 <- ip3
I0428 20:03:23.564818 30171 net.cpp:369] relu3 -> ip3 (in-place)
I0428 20:03:23.565699 30171 net.cpp:124] Setting up relu3
I0428 20:03:23.565711 30171 net.cpp:131] Top shape: 100 10 (1000)
I0428 20:03:23.565729 30171 net.cpp:139] Memory required for data: 6418800
I0428 20:03:23.565732 30171 layer_factory.hpp:77] Creating layer ip3_relu3_0_split
I0428 20:03:23.565737 30171 net.cpp:86] Creating Layer ip3_relu3_0_split
I0428 20:03:23.565742 30171 net.cpp:408] ip3_relu3_0_split <- ip3
I0428 20:03:23.565748 30171 net.cpp:382] ip3_relu3_0_split -> ip3_relu3_0_split_0
I0428 20:03:23.565754 30171 net.cpp:382] ip3_relu3_0_split -> ip3_relu3_0_split_1
I0428 20:03:23.565793 30171 net.cpp:124] Setting up ip3_relu3_0_split
I0428 20:03:23.565798 30171 net.cpp:131] Top shape: 100 10 (1000)
I0428 20:03:23.565804 30171 net.cpp:131] Top shape: 100 10 (1000)
I0428 20:03:23.565806 30171 net.cpp:139] Memory required for data: 6426800
I0428 20:03:23.565809 30171 layer_factory.hpp:77] Creating layer accuracy
I0428 20:03:23.565814 30171 net.cpp:86] Creating Layer accuracy
I0428 20:03:23.565824 30171 net.cpp:408] accuracy <- ip3_relu3_0_split_0
I0428 20:03:23.565827 30171 net.cpp:408] accuracy <- label_mnist_1_split_0
I0428 20:03:23.565832 30171 net.cpp:382] accuracy -> accuracy
…
