…
I0428 20:00:53.237040 29602 net.cpp:296] The NetState phase (0) differed from the phase (1) specified by a rule in layer mnist
I0428 20:00:53.237071 29602 net.cpp:296] The NetState phase (0) differed from the phase (1) specified by a rule in layer accuracy
I0428 20:00:53.237166 29602 net.cpp:53] Initializing net from parameters: 
name: "LeNet"
state {
  phase: TRAIN
  level: 0
  stage: ""
}
layer {
  name: "mnist"
  type: "Data"
  top: "data"
  top: "label"
  include {
    phase: TRAIN
  }
  transform_param {
    scale: 0.00390625
  }
  data_param {
    source: "examples/mnist/mnist_train_lmdb"
    batch_size: 64
    backend: LMDB
  }
}
layer {
  name: "conv0"
  type: "Convolution"
  bottom: "data"
  top: "conv0"
  param {
    lr_mult: 1
  }
  param {
    lr_mult: 2
  }
  convolution_param {
    num_output: 10
    kernel_size: 5
    stride: 1
    weight_filler {
      type: "xavier"
    }
    bias_filler {
      type: "constant"
    }
  }
}
layer {
  name: "pool0"
  type: "Pooling"
  bottom: "conv0"
  top: "pool0"
  pooling_param {
    pool: MAX
    kernel_size: 2
    stride: 2
  }
}
layer {
  name: "conv1"
  type: "Convolution"
  bottom: "pool0"
  top: "conv1"
  param {
    lr_mult: 1
  }
  param {
    lr_mult: 2
  }
  convolution_param {
    num_output: 25
    kernel_size: 5
    stride: 1
    weight_filler {
      type: "xavier"
    }
    bias_filler {
      type: "constant"
    }
  }
}
layer {
  name: "pool1"
  type: "Pooling"
  bottom: "conv1"
  top: "pool1"
  pooling_param {
    pool: MAX
    kernel_size: 2
    stride: 2
  }
}
layer {
  name: "ip1"
  type: "InnerProduct"
  bottom: "pool1"
  top: "ip1"
  param {
    lr_mult: 1
  }
  param {
    lr_mult: 2
  }
  inner_product_param {
    num_output: 50
    weight_filler {
      type: "xavier"
    }
    bias_filler {
      type: "constant"
    }
  }
}
layer {
  name: "relu1"
  type: "ReLU"
  bottom: "ip1"
  top: "ip1"
}
layer {
  name: "ip2"
  type: "InnerProduct"
  bottom: "ip1"
  top: "ip2"
  param {
    lr_mult: 1
  }
  param {
    lr_mult: 2
  }
  inner_product_param {
    num_output: 10
    weight_filler {
      type: "xavier"
    }
    bias_filler {
      type: "constant"
    }
  }
}
layer {
  name: "relu2"
  type: "ReLU"
  bottom: "ip2"
  top: "ip2"
}
layer {
  name: "ip3"
  type: "InnerProduct"
  bottom: "ip2"
  top: "ip3"
  param {
    lr_mult: 1
  }
  param {
    lr_mult: 2
  }
  inner_product_param {
    num_output: 10
    weight_filler {
      type: "xavier"
    }
    bias_filler {
      type: "constant"
    }
  }
}
layer {
  name: "relu3"
  type: "ReLU"
  bottom: "ip3"
  top: "ip3"
}
layer {
  name: "loss"
  type: "SoftmaxWithLoss"
  bottom: "ip3"
  bottom: "label"
  top: "loss"
}
I0428 20:00:53.237251 29602 layer_factory.hpp:77] Creating layer mnist
I0428 20:00:53.237331 29602 db_lmdb.cpp:35] Opened lmdb examples/mnist/mnist_train_lmdb
I0428 20:00:53.237349 29602 net.cpp:86] Creating Layer mnist
I0428 20:00:53.237355 29602 net.cpp:382] mnist -> data
I0428 20:00:53.237373 29602 net.cpp:382] mnist -> label
I0428 20:00:53.238276 29602 data_layer.cpp:45] output data size: 64,1,28,28
I0428 20:00:53.240481 29602 net.cpp:124] Setting up mnist
I0428 20:00:53.240510 29602 net.cpp:131] Top shape: 64 1 28 28 (50176)
I0428 20:00:53.240515 29602 net.cpp:131] Top shape: 64 (64)
I0428 20:00:53.240519 29602 net.cpp:139] Memory required for data: 200960
I0428 20:00:53.240525 29602 layer_factory.hpp:77] Creating layer conv0
I0428 20:00:53.240536 29602 net.cpp:86] Creating Layer conv0
I0428 20:00:53.240552 29602 net.cpp:408] conv0 <- data
I0428 20:00:53.240563 29602 net.cpp:382] conv0 -> conv0
I0428 20:00:53.474485 29602 net.cpp:124] Setting up conv0
I0428 20:00:53.474529 29602 net.cpp:131] Top shape: 64 10 24 24 (368640)
I0428 20:00:53.474532 29602 net.cpp:139] Memory required for data: 1675520
I0428 20:00:53.474548 29602 layer_factory.hpp:77] Creating layer pool0
I0428 20:00:53.474561 29602 net.cpp:86] Creating Layer pool0
I0428 20:00:53.474565 29602 net.cpp:408] pool0 <- conv0
I0428 20:00:53.474586 29602 net.cpp:382] pool0 -> pool0
I0428 20:00:53.474633 29602 net.cpp:124] Setting up pool0
I0428 20:00:53.474649 29602 net.cpp:131] Top shape: 64 10 12 12 (92160)
I0428 20:00:53.474653 29602 net.cpp:139] Memory required for data: 2044160
I0428 20:00:53.474655 29602 layer_factory.hpp:77] Creating layer conv1
I0428 20:00:53.474666 29602 net.cpp:86] Creating Layer conv1
I0428 20:00:53.474684 29602 net.cpp:408] conv1 <- pool0
I0428 20:00:53.474689 29602 net.cpp:382] conv1 -> conv1
I0428 20:00:53.477604 29602 net.cpp:124] Setting up conv1
I0428 20:00:53.477634 29602 net.cpp:131] Top shape: 64 25 8 8 (102400)
I0428 20:00:53.477638 29602 net.cpp:139] Memory required for data: 2453760
I0428 20:00:53.477663 29602 layer_factory.hpp:77] Creating layer pool1
I0428 20:00:53.477670 29602 net.cpp:86] Creating Layer pool1
I0428 20:00:53.477674 29602 net.cpp:408] pool1 <- conv1
I0428 20:00:53.477679 29602 net.cpp:382] pool1 -> pool1
I0428 20:00:53.477732 29602 net.cpp:124] Setting up pool1
I0428 20:00:53.477738 29602 net.cpp:131] Top shape: 64 25 4 4 (25600)
I0428 20:00:53.477741 29602 net.cpp:139] Memory required for data: 2556160
I0428 20:00:53.477744 29602 layer_factory.hpp:77] Creating layer ip1
I0428 20:00:53.477751 29602 net.cpp:86] Creating Layer ip1
I0428 20:00:53.477754 29602 net.cpp:408] ip1 <- pool1
I0428 20:00:53.477758 29602 net.cpp:382] ip1 -> ip1
I0428 20:00:53.477996 29602 net.cpp:124] Setting up ip1
I0428 20:00:53.478004 29602 net.cpp:131] Top shape: 64 50 (3200)
I0428 20:00:53.478008 29602 net.cpp:139] Memory required for data: 2568960
I0428 20:00:53.478014 29602 layer_factory.hpp:77] Creating layer relu1
I0428 20:00:53.478019 29602 net.cpp:86] Creating Layer relu1
I0428 20:00:53.478022 29602 net.cpp:408] relu1 <- ip1
I0428 20:00:53.478026 29602 net.cpp:369] relu1 -> ip1 (in-place)
I0428 20:00:53.478184 29602 net.cpp:124] Setting up relu1
I0428 20:00:53.478193 29602 net.cpp:131] Top shape: 64 50 (3200)
I0428 20:00:53.478196 29602 net.cpp:139] Memory required for data: 2581760
I0428 20:00:53.478199 29602 layer_factory.hpp:77] Creating layer ip2
I0428 20:00:53.478204 29602 net.cpp:86] Creating Layer ip2
I0428 20:00:53.478207 29602 net.cpp:408] ip2 <- ip1
I0428 20:00:53.478212 29602 net.cpp:382] ip2 -> ip2
I0428 20:00:53.478303 29602 net.cpp:124] Setting up ip2
I0428 20:00:53.478310 29602 net.cpp:131] Top shape: 64 10 (640)
I0428 20:00:53.478313 29602 net.cpp:139] Memory required for data: 2584320
I0428 20:00:53.478318 29602 layer_factory.hpp:77] Creating layer relu2
I0428 20:00:53.478324 29602 net.cpp:86] Creating Layer relu2
I0428 20:00:53.478327 29602 net.cpp:408] relu2 <- ip2
I0428 20:00:53.478330 29602 net.cpp:369] relu2 -> ip2 (in-place)
I0428 20:00:53.479154 29602 net.cpp:124] Setting up relu2
I0428 20:00:53.479166 29602 net.cpp:131] Top shape: 64 10 (640)
I0428 20:00:53.479185 29602 net.cpp:139] Memory required for data: 2586880
I0428 20:00:53.479188 29602 layer_factory.hpp:77] Creating layer ip3
I0428 20:00:53.479195 29602 net.cpp:86] Creating Layer ip3
I0428 20:00:53.479198 29602 net.cpp:408] ip3 <- ip2
I0428 20:00:53.479204 29602 net.cpp:382] ip3 -> ip3
I0428 20:00:53.479300 29602 net.cpp:124] Setting up ip3
I0428 20:00:53.479307 29602 net.cpp:131] Top shape: 64 10 (640)
I0428 20:00:53.479310 29602 net.cpp:139] Memory required for data: 2589440
I0428 20:00:53.479317 29602 layer_factory.hpp:77] Creating layer relu3
I0428 20:00:53.479322 29602 net.cpp:86] Creating Layer relu3
I0428 20:00:53.479326 29602 net.cpp:408] relu3 <- ip3
I0428 20:00:53.479329 29602 net.cpp:369] relu3 -> ip3 (in-place)
I0428 20:00:53.479506 29602 net.cpp:124] Setting up relu3
I0428 20:00:53.479514 29602 net.cpp:131] Top shape: 64 10 (640)
I0428 20:00:53.479517 29602 net.cpp:139] Memory required for data: 2592000
I0428 20:00:53.479521 29602 layer_factory.hpp:77] Creating layer loss
I0428 20:00:53.479527 29602 net.cpp:86] Creating Layer loss
I0428 20:00:53.479531 29602 net.cpp:408] loss <- ip3
I0428 20:00:53.479534 29602 net.cpp:408] loss <- label
I0428 20:00:53.479539 29602 net.cpp:382] loss -> loss
I0428 20:00:53.479553 29602 layer_factory.hpp:77] Creating layer loss
…
I0428 20:00:53.480293 29602 solver.cpp:173] Creating test net (#0) specified by net file: ECE595/mnist/train_test/var_everything2/lenet_train_test888.prototxt
I0428 20:00:53.480335 29602 net.cpp:296] The NetState phase (1) differed from the phase (0) specified by a rule in layer mnist
I0428 20:00:53.480444 29602 net.cpp:53] Initializing net from parameters: 
name: "LeNet"
state {
  phase: TEST
}
layer {
  name: "mnist"
  type: "Data"
  top: "data"
  top: "label"
  include {
    phase: TEST
  }
  transform_param {
    scale: 0.00390625
  }
  data_param {
    source: "examples/mnist/mnist_test_lmdb"
    batch_size: 100
    backend: LMDB
  }
}
layer {
  name: "conv0"
  type: "Convolution"
  bottom: "data"
  top: "conv0"
  param {
    lr_mult: 1
  }
  param {
    lr_mult: 2
  }
  convolution_param {
    num_output: 10
    kernel_size: 5
    stride: 1
    weight_filler {
      type: "xavier"
    }
    bias_filler {
      type: "constant"
    }
  }
}
layer {
  name: "pool0"
  type: "Pooling"
  bottom: "conv0"
  top: "pool0"
  pooling_param {
    pool: MAX
    kernel_size: 2
    stride: 2
  }
}
layer {
  name: "conv1"
  type: "Convolution"
  bottom: "pool0"
  top: "conv1"
  param {
    lr_mult: 1
  }
  param {
    lr_mult: 2
  }
  convolution_param {
    num_output: 25
    kernel_size: 5
    stride: 1
    weight_filler {
      type: "xavier"
    }
    bias_filler {
      type: "constant"
    }
  }
}
layer {
  name: "pool1"
  type: "Pooling"
  bottom: "conv1"
  top: "pool1"
  pooling_param {
    pool: MAX
    kernel_size: 2
    stride: 2
  }
}
layer {
  name: "ip1"
  type: "InnerProduct"
  bottom: "pool1"
  top: "ip1"
  param {
    lr_mult: 1
  }
  param {
    lr_mult: 2
  }
  inner_product_param {
    num_output: 50
    weight_filler {
      type: "xavier"
    }
    bias_filler {
      type: "constant"
    }
  }
}
layer {
  name: "relu1"
  type: "ReLU"
  bottom: "ip1"
  top: "ip1"
}
layer {
  name: "ip2"
  type: "InnerProduct"
  bottom: "ip1"
  top: "ip2"
  param {
    lr_mult: 1
  }
  param {
    lr_mult: 2
  }
  inner_product_param {
    num_output: 10
    weight_filler {
      type: "xavier"
    }
    bias_filler {
      type: "constant"
    }
  }
}
layer {
  name: "relu2"
  type: "ReLU"
  bottom: "ip2"
  top: "ip2"
}
layer {
  name: "ip3"
  type: "InnerProduct"
  bottom: "ip2"
  top: "ip3"
  param {
    lr_mult: 1
  }
  param {
    lr_mult: 2
  }
  inner_product_param {
    num_output: 10
    weight_filler {
      type: "xavier"
    }
    bias_filler {
      type: "constant"
    }
  }
}
layer {
  name: "relu3"
  type: "ReLU"
  bottom: "ip3"
  top: "ip3"
}
layer {
  name: "accuracy"
  type: "Accuracy"
  bottom: "ip3"
  bottom: "label"
  top: "accuracy"
  include {
    phase: TEST
  }
}
layer {
  name: "loss"
  type: "SoftmaxWithLoss"
  bottom: "ip3"
  bottom: "label"
  top: "loss"
}
I0428 20:00:53.480537 29602 layer_factory.hpp:77] Creating layer mnist
I0428 20:00:53.480582 29602 db_lmdb.cpp:35] Opened lmdb examples/mnist/mnist_test_lmdb
I0428 20:00:53.480594 29602 net.cpp:86] Creating Layer mnist
I0428 20:00:53.480598 29602 net.cpp:382] mnist -> data
I0428 20:00:53.480607 29602 net.cpp:382] mnist -> label
I0428 20:00:53.480686 29602 data_layer.cpp:45] output data size: 100,1,28,28
I0428 20:00:53.482882 29602 net.cpp:124] Setting up mnist
I0428 20:00:53.482913 29602 net.cpp:131] Top shape: 100 1 28 28 (78400)
I0428 20:00:53.482918 29602 net.cpp:131] Top shape: 100 (100)
I0428 20:00:53.482921 29602 net.cpp:139] Memory required for data: 314000
I0428 20:00:53.482925 29602 layer_factory.hpp:77] Creating layer label_mnist_1_split
I0428 20:00:53.482931 29602 net.cpp:86] Creating Layer label_mnist_1_split
I0428 20:00:53.482935 29602 net.cpp:408] label_mnist_1_split <- label
I0428 20:00:53.482940 29602 net.cpp:382] label_mnist_1_split -> label_mnist_1_split_0
I0428 20:00:53.482947 29602 net.cpp:382] label_mnist_1_split -> label_mnist_1_split_1
I0428 20:00:53.482998 29602 net.cpp:124] Setting up label_mnist_1_split
I0428 20:00:53.483005 29602 net.cpp:131] Top shape: 100 (100)
I0428 20:00:53.483008 29602 net.cpp:131] Top shape: 100 (100)
I0428 20:00:53.483011 29602 net.cpp:139] Memory required for data: 314800
I0428 20:00:53.483014 29602 layer_factory.hpp:77] Creating layer conv0
I0428 20:00:53.483022 29602 net.cpp:86] Creating Layer conv0
I0428 20:00:53.483026 29602 net.cpp:408] conv0 <- data
I0428 20:00:53.483031 29602 net.cpp:382] conv0 -> conv0
I0428 20:00:53.484956 29602 net.cpp:124] Setting up conv0
I0428 20:00:53.484972 29602 net.cpp:131] Top shape: 100 10 24 24 (576000)
I0428 20:00:53.484975 29602 net.cpp:139] Memory required for data: 2618800
I0428 20:00:53.484987 29602 layer_factory.hpp:77] Creating layer pool0
I0428 20:00:53.484992 29602 net.cpp:86] Creating Layer pool0
I0428 20:00:53.484997 29602 net.cpp:408] pool0 <- conv0
I0428 20:00:53.485002 29602 net.cpp:382] pool0 -> pool0
I0428 20:00:53.485040 29602 net.cpp:124] Setting up pool0
I0428 20:00:53.485046 29602 net.cpp:131] Top shape: 100 10 12 12 (144000)
I0428 20:00:53.485049 29602 net.cpp:139] Memory required for data: 3194800
I0428 20:00:53.485054 29602 layer_factory.hpp:77] Creating layer conv1
I0428 20:00:53.485061 29602 net.cpp:86] Creating Layer conv1
I0428 20:00:53.485065 29602 net.cpp:408] conv1 <- pool0
I0428 20:00:53.485070 29602 net.cpp:382] conv1 -> conv1
I0428 20:00:53.487335 29602 net.cpp:124] Setting up conv1
I0428 20:00:53.487349 29602 net.cpp:131] Top shape: 100 25 8 8 (160000)
I0428 20:00:53.487352 29602 net.cpp:139] Memory required for data: 3834800
I0428 20:00:53.487361 29602 layer_factory.hpp:77] Creating layer pool1
I0428 20:00:53.487367 29602 net.cpp:86] Creating Layer pool1
I0428 20:00:53.487386 29602 net.cpp:408] pool1 <- conv1
I0428 20:00:53.487391 29602 net.cpp:382] pool1 -> pool1
I0428 20:00:53.487428 29602 net.cpp:124] Setting up pool1
I0428 20:00:53.487454 29602 net.cpp:131] Top shape: 100 25 4 4 (40000)
I0428 20:00:53.487473 29602 net.cpp:139] Memory required for data: 3994800
I0428 20:00:53.487485 29602 layer_factory.hpp:77] Creating layer ip1
I0428 20:00:53.487491 29602 net.cpp:86] Creating Layer ip1
I0428 20:00:53.487495 29602 net.cpp:408] ip1 <- pool1
I0428 20:00:53.487500 29602 net.cpp:382] ip1 -> ip1
I0428 20:00:53.487737 29602 net.cpp:124] Setting up ip1
I0428 20:00:53.487746 29602 net.cpp:131] Top shape: 100 50 (5000)
I0428 20:00:53.487759 29602 net.cpp:139] Memory required for data: 4014800
I0428 20:00:53.487767 29602 layer_factory.hpp:77] Creating layer relu1
I0428 20:00:53.487772 29602 net.cpp:86] Creating Layer relu1
I0428 20:00:53.487776 29602 net.cpp:408] relu1 <- ip1
I0428 20:00:53.487795 29602 net.cpp:369] relu1 -> ip1 (in-place)
I0428 20:00:53.487992 29602 net.cpp:124] Setting up relu1
I0428 20:00:53.488001 29602 net.cpp:131] Top shape: 100 50 (5000)
I0428 20:00:53.488004 29602 net.cpp:139] Memory required for data: 4034800
I0428 20:00:53.488008 29602 layer_factory.hpp:77] Creating layer ip2
I0428 20:00:53.488021 29602 net.cpp:86] Creating Layer ip2
I0428 20:00:53.488025 29602 net.cpp:408] ip2 <- ip1
I0428 20:00:53.488035 29602 net.cpp:382] ip2 -> ip2
I0428 20:00:53.488131 29602 net.cpp:124] Setting up ip2
I0428 20:00:53.488138 29602 net.cpp:131] Top shape: 100 10 (1000)
I0428 20:00:53.488142 29602 net.cpp:139] Memory required for data: 4038800
I0428 20:00:53.488147 29602 layer_factory.hpp:77] Creating layer relu2
I0428 20:00:53.488150 29602 net.cpp:86] Creating Layer relu2
I0428 20:00:53.488164 29602 net.cpp:408] relu2 <- ip2
I0428 20:00:53.488169 29602 net.cpp:369] relu2 -> ip2 (in-place)
I0428 20:00:53.488309 29602 net.cpp:124] Setting up relu2
I0428 20:00:53.488317 29602 net.cpp:131] Top shape: 100 10 (1000)
I0428 20:00:53.488320 29602 net.cpp:139] Memory required for data: 4042800
I0428 20:00:53.488323 29602 layer_factory.hpp:77] Creating layer ip3
I0428 20:00:53.488328 29602 net.cpp:86] Creating Layer ip3
I0428 20:00:53.488332 29602 net.cpp:408] ip3 <- ip2
I0428 20:00:53.488335 29602 net.cpp:382] ip3 -> ip3
I0428 20:00:53.488474 29602 net.cpp:124] Setting up ip3
I0428 20:00:53.488481 29602 net.cpp:131] Top shape: 100 10 (1000)
I0428 20:00:53.488486 29602 net.cpp:139] Memory required for data: 4046800
I0428 20:00:53.488492 29602 layer_factory.hpp:77] Creating layer relu3
I0428 20:00:53.488508 29602 net.cpp:86] Creating Layer relu3
I0428 20:00:53.488518 29602 net.cpp:408] relu3 <- ip3
I0428 20:00:53.488523 29602 net.cpp:369] relu3 -> ip3 (in-place)
I0428 20:00:53.489418 29602 net.cpp:124] Setting up relu3
I0428 20:00:53.489430 29602 net.cpp:131] Top shape: 100 10 (1000)
I0428 20:00:53.489434 29602 net.cpp:139] Memory required for data: 4050800
I0428 20:00:53.489437 29602 layer_factory.hpp:77] Creating layer ip3_relu3_0_split
I0428 20:00:53.489442 29602 net.cpp:86] Creating Layer ip3_relu3_0_split
I0428 20:00:53.489445 29602 net.cpp:408] ip3_relu3_0_split <- ip3
I0428 20:00:53.489450 29602 net.cpp:382] ip3_relu3_0_split -> ip3_relu3_0_split_0
I0428 20:00:53.489457 29602 net.cpp:382] ip3_relu3_0_split -> ip3_relu3_0_split_1
I0428 20:00:53.489500 29602 net.cpp:124] Setting up ip3_relu3_0_split
I0428 20:00:53.489504 29602 net.cpp:131] Top shape: 100 10 (1000)
I0428 20:00:53.489508 29602 net.cpp:131] Top shape: 100 10 (1000)
I0428 20:00:53.489511 29602 net.cpp:139] Memory required for data: 4058800
I0428 20:00:53.489513 29602 layer_factory.hpp:77] Creating layer accuracy
I0428 20:00:53.489519 29602 net.cpp:86] Creating Layer accuracy
I0428 20:00:53.489522 29602 net.cpp:408] accuracy <- ip3_relu3_0_split_0
I0428 20:00:53.489532 29602 net.cpp:408] accuracy <- label_mnist_1_split_0
I0428 20:00:53.489537 29602 net.cpp:382] accuracy -> accuracy
…
