…
I0428 20:19:14.566332  1321 net.cpp:296] The NetState phase (0) differed from the phase (1) specified by a rule in layer mnist
I0428 20:19:14.566354  1321 net.cpp:296] The NetState phase (0) differed from the phase (1) specified by a rule in layer accuracy
I0428 20:19:14.566444  1321 net.cpp:53] Initializing net from parameters: 
name: "LeNet"
state {
  phase: TRAIN
  level: 0
  stage: ""
}
layer {
  name: "mnist"
  type: "Data"
  top: "data"
  top: "label"
  include {
    phase: TRAIN
  }
  transform_param {
    scale: 0.00390625
  }
  data_param {
    source: "examples/mnist/mnist_train_lmdb"
    batch_size: 64
    backend: LMDB
  }
}
layer {
  name: "conv0"
  type: "Convolution"
  bottom: "data"
  top: "conv0"
  param {
    lr_mult: 1
  }
  param {
    lr_mult: 2
  }
  convolution_param {
    num_output: 50
    kernel_size: 5
    stride: 1
    weight_filler {
      type: "xavier"
    }
    bias_filler {
      type: "constant"
    }
  }
}
layer {
  name: "pool0"
  type: "Pooling"
  bottom: "conv0"
  top: "pool0"
  pooling_param {
    pool: MAX
    kernel_size: 2
    stride: 2
  }
}
layer {
  name: "conv1"
  type: "Convolution"
  bottom: "pool0"
  top: "conv1"
  param {
    lr_mult: 1
  }
  param {
    lr_mult: 2
  }
  convolution_param {
    num_output: 25
    kernel_size: 5
    stride: 1
    weight_filler {
      type: "xavier"
    }
    bias_filler {
      type: "constant"
    }
  }
}
layer {
  name: "pool1"
  type: "Pooling"
  bottom: "conv1"
  top: "pool1"
  pooling_param {
    pool: MAX
    kernel_size: 2
    stride: 2
  }
}
layer {
  name: "ip1"
  type: "InnerProduct"
  bottom: "pool1"
  top: "ip1"
  param {
    lr_mult: 1
  }
  param {
    lr_mult: 2
  }
  inner_product_param {
    num_output: 50
    weight_filler {
      type: "xavier"
    }
    bias_filler {
      type: "constant"
    }
  }
}
layer {
  name: "relu1"
  type: "ReLU"
  bottom: "ip1"
  top: "ip1"
}
layer {
  name: "ip2"
  type: "InnerProduct"
  bottom: "ip1"
  top: "ip2"
  param {
    lr_mult: 1
  }
  param {
    lr_mult: 2
  }
  inner_product_param {
    num_output: 10
    weight_filler {
      type: "xavier"
    }
    bias_filler {
      type: "constant"
    }
  }
}
layer {
  name: "relu2"
  type: "ReLU"
  bottom: "ip2"
  top: "ip2"
}
layer {
  name: "loss"
  type: "SoftmaxWithLoss"
  bottom: "ip2"
  bottom: "label"
  top: "loss"
}
I0428 20:19:14.566519  1321 layer_factory.hpp:77] Creating layer mnist
I0428 20:19:14.566619  1321 db_lmdb.cpp:35] Opened lmdb examples/mnist/mnist_train_lmdb
I0428 20:19:14.566644  1321 net.cpp:86] Creating Layer mnist
I0428 20:19:14.566653  1321 net.cpp:382] mnist -> data
I0428 20:19:14.566676  1321 net.cpp:382] mnist -> label
I0428 20:19:14.567765  1321 data_layer.cpp:45] output data size: 64,1,28,28
I0428 20:19:14.570253  1321 net.cpp:124] Setting up mnist
I0428 20:19:14.570276  1321 net.cpp:131] Top shape: 64 1 28 28 (50176)
I0428 20:19:14.570281  1321 net.cpp:131] Top shape: 64 (64)
I0428 20:19:14.570286  1321 net.cpp:139] Memory required for data: 200960
I0428 20:19:14.570293  1321 layer_factory.hpp:77] Creating layer conv0
I0428 20:19:14.570335  1321 net.cpp:86] Creating Layer conv0
I0428 20:19:14.570344  1321 net.cpp:408] conv0 <- data
I0428 20:19:14.570356  1321 net.cpp:382] conv0 -> conv0
I0428 20:19:14.845084  1321 net.cpp:124] Setting up conv0
I0428 20:19:14.845126  1321 net.cpp:131] Top shape: 64 50 24 24 (1843200)
I0428 20:19:14.845131  1321 net.cpp:139] Memory required for data: 7573760
I0428 20:19:14.845178  1321 layer_factory.hpp:77] Creating layer pool0
I0428 20:19:14.845192  1321 net.cpp:86] Creating Layer pool0
I0428 20:19:14.845196  1321 net.cpp:408] pool0 <- conv0
I0428 20:19:14.845201  1321 net.cpp:382] pool0 -> pool0
I0428 20:19:14.845263  1321 net.cpp:124] Setting up pool0
I0428 20:19:14.845269  1321 net.cpp:131] Top shape: 64 50 12 12 (460800)
I0428 20:19:14.845273  1321 net.cpp:139] Memory required for data: 9416960
I0428 20:19:14.845275  1321 layer_factory.hpp:77] Creating layer conv1
I0428 20:19:14.845285  1321 net.cpp:86] Creating Layer conv1
I0428 20:19:14.845289  1321 net.cpp:408] conv1 <- pool0
I0428 20:19:14.845293  1321 net.cpp:382] conv1 -> conv1
I0428 20:19:14.847308  1321 net.cpp:124] Setting up conv1
I0428 20:19:14.847338  1321 net.cpp:131] Top shape: 64 25 8 8 (102400)
I0428 20:19:14.847342  1321 net.cpp:139] Memory required for data: 9826560
I0428 20:19:14.847350  1321 layer_factory.hpp:77] Creating layer pool1
I0428 20:19:14.847359  1321 net.cpp:86] Creating Layer pool1
I0428 20:19:14.847362  1321 net.cpp:408] pool1 <- conv1
I0428 20:19:14.847368  1321 net.cpp:382] pool1 -> pool1
I0428 20:19:14.847419  1321 net.cpp:124] Setting up pool1
I0428 20:19:14.847424  1321 net.cpp:131] Top shape: 64 25 4 4 (25600)
I0428 20:19:14.847427  1321 net.cpp:139] Memory required for data: 9928960
I0428 20:19:14.847430  1321 layer_factory.hpp:77] Creating layer ip1
I0428 20:19:14.847436  1321 net.cpp:86] Creating Layer ip1
I0428 20:19:14.847440  1321 net.cpp:408] ip1 <- pool1
I0428 20:19:14.847445  1321 net.cpp:382] ip1 -> ip1
I0428 20:19:14.847651  1321 net.cpp:124] Setting up ip1
I0428 20:19:14.847658  1321 net.cpp:131] Top shape: 64 50 (3200)
I0428 20:19:14.847661  1321 net.cpp:139] Memory required for data: 9941760
I0428 20:19:14.847668  1321 layer_factory.hpp:77] Creating layer relu1
I0428 20:19:14.847673  1321 net.cpp:86] Creating Layer relu1
I0428 20:19:14.847676  1321 net.cpp:408] relu1 <- ip1
I0428 20:19:14.847681  1321 net.cpp:369] relu1 -> ip1 (in-place)
I0428 20:19:14.847848  1321 net.cpp:124] Setting up relu1
I0428 20:19:14.847857  1321 net.cpp:131] Top shape: 64 50 (3200)
I0428 20:19:14.847861  1321 net.cpp:139] Memory required for data: 9954560
I0428 20:19:14.847864  1321 layer_factory.hpp:77] Creating layer ip2
I0428 20:19:14.847870  1321 net.cpp:86] Creating Layer ip2
I0428 20:19:14.847873  1321 net.cpp:408] ip2 <- ip1
I0428 20:19:14.847878  1321 net.cpp:382] ip2 -> ip2
I0428 20:19:14.847970  1321 net.cpp:124] Setting up ip2
I0428 20:19:14.847975  1321 net.cpp:131] Top shape: 64 10 (640)
I0428 20:19:14.847978  1321 net.cpp:139] Memory required for data: 9957120
I0428 20:19:14.847983  1321 layer_factory.hpp:77] Creating layer relu2
I0428 20:19:14.847990  1321 net.cpp:86] Creating Layer relu2
I0428 20:19:14.847992  1321 net.cpp:408] relu2 <- ip2
I0428 20:19:14.847996  1321 net.cpp:369] relu2 -> ip2 (in-place)
I0428 20:19:14.848762  1321 net.cpp:124] Setting up relu2
I0428 20:19:14.848773  1321 net.cpp:131] Top shape: 64 10 (640)
I0428 20:19:14.848791  1321 net.cpp:139] Memory required for data: 9959680
I0428 20:19:14.848794  1321 layer_factory.hpp:77] Creating layer loss
I0428 20:19:14.848839  1321 net.cpp:86] Creating Layer loss
I0428 20:19:14.848845  1321 net.cpp:408] loss <- ip2
I0428 20:19:14.848850  1321 net.cpp:408] loss <- label
I0428 20:19:14.848855  1321 net.cpp:382] loss -> loss
I0428 20:19:14.848889  1321 layer_factory.hpp:77] Creating layer loss
…
I0428 20:19:14.849591  1321 solver.cpp:173] Creating test net (#0) specified by net file: ECE595/mnist/train_test/var_everything2/lenet_train_test1337.prototxt
I0428 20:19:14.849617  1321 net.cpp:296] The NetState phase (1) differed from the phase (0) specified by a rule in layer mnist
I0428 20:19:14.849715  1321 net.cpp:53] Initializing net from parameters: 
name: "LeNet"
state {
  phase: TEST
}
layer {
  name: "mnist"
  type: "Data"
  top: "data"
  top: "label"
  include {
    phase: TEST
  }
  transform_param {
    scale: 0.00390625
  }
  data_param {
    source: "examples/mnist/mnist_test_lmdb"
    batch_size: 100
    backend: LMDB
  }
}
layer {
  name: "conv0"
  type: "Convolution"
  bottom: "data"
  top: "conv0"
  param {
    lr_mult: 1
  }
  param {
    lr_mult: 2
  }
  convolution_param {
    num_output: 50
    kernel_size: 5
    stride: 1
    weight_filler {
      type: "xavier"
    }
    bias_filler {
      type: "constant"
    }
  }
}
layer {
  name: "pool0"
  type: "Pooling"
  bottom: "conv0"
  top: "pool0"
  pooling_param {
    pool: MAX
    kernel_size: 2
    stride: 2
  }
}
layer {
  name: "conv1"
  type: "Convolution"
  bottom: "pool0"
  top: "conv1"
  param {
    lr_mult: 1
  }
  param {
    lr_mult: 2
  }
  convolution_param {
    num_output: 25
    kernel_size: 5
    stride: 1
    weight_filler {
      type: "xavier"
    }
    bias_filler {
      type: "constant"
    }
  }
}
layer {
  name: "pool1"
  type: "Pooling"
  bottom: "conv1"
  top: "pool1"
  pooling_param {
    pool: MAX
    kernel_size: 2
    stride: 2
  }
}
layer {
  name: "ip1"
  type: "InnerProduct"
  bottom: "pool1"
  top: "ip1"
  param {
    lr_mult: 1
  }
  param {
    lr_mult: 2
  }
  inner_product_param {
    num_output: 50
    weight_filler {
      type: "xavier"
    }
    bias_filler {
      type: "constant"
    }
  }
}
layer {
  name: "relu1"
  type: "ReLU"
  bottom: "ip1"
  top: "ip1"
}
layer {
  name: "ip2"
  type: "InnerProduct"
  bottom: "ip1"
  top: "ip2"
  param {
    lr_mult: 1
  }
  param {
    lr_mult: 2
  }
  inner_product_param {
    num_output: 10
    weight_filler {
      type: "xavier"
    }
    bias_filler {
      type: "constant"
    }
  }
}
layer {
  name: "relu2"
  type: "ReLU"
  bottom: "ip2"
  top: "ip2"
}
layer {
  name: "accuracy"
  type: "Accuracy"
  bottom: "ip2"
  bottom: "label"
  top: "accuracy"
  include {
    phase: TEST
  }
}
layer {
  name: "loss"
  type: "SoftmaxWithLoss"
  bottom: "ip2"
  bottom: "label"
  top: "loss"
}
I0428 20:19:14.849797  1321 layer_factory.hpp:77] Creating layer mnist
I0428 20:19:14.849838  1321 db_lmdb.cpp:35] Opened lmdb examples/mnist/mnist_test_lmdb
I0428 20:19:14.849855  1321 net.cpp:86] Creating Layer mnist
I0428 20:19:14.849860  1321 net.cpp:382] mnist -> data
I0428 20:19:14.849867  1321 net.cpp:382] mnist -> label
I0428 20:19:14.849970  1321 data_layer.cpp:45] output data size: 100,1,28,28
I0428 20:19:14.851987  1321 net.cpp:124] Setting up mnist
I0428 20:19:14.852016  1321 net.cpp:131] Top shape: 100 1 28 28 (78400)
I0428 20:19:14.852021  1321 net.cpp:131] Top shape: 100 (100)
I0428 20:19:14.852025  1321 net.cpp:139] Memory required for data: 314000
I0428 20:19:14.852028  1321 layer_factory.hpp:77] Creating layer label_mnist_1_split
I0428 20:19:14.852035  1321 net.cpp:86] Creating Layer label_mnist_1_split
I0428 20:19:14.852038  1321 net.cpp:408] label_mnist_1_split <- label
I0428 20:19:14.852043  1321 net.cpp:382] label_mnist_1_split -> label_mnist_1_split_0
I0428 20:19:14.852049  1321 net.cpp:382] label_mnist_1_split -> label_mnist_1_split_1
I0428 20:19:14.852111  1321 net.cpp:124] Setting up label_mnist_1_split
I0428 20:19:14.852118  1321 net.cpp:131] Top shape: 100 (100)
I0428 20:19:14.852120  1321 net.cpp:131] Top shape: 100 (100)
I0428 20:19:14.852123  1321 net.cpp:139] Memory required for data: 314800
I0428 20:19:14.852126  1321 layer_factory.hpp:77] Creating layer conv0
I0428 20:19:14.852134  1321 net.cpp:86] Creating Layer conv0
I0428 20:19:14.852138  1321 net.cpp:408] conv0 <- data
I0428 20:19:14.852141  1321 net.cpp:382] conv0 -> conv0
I0428 20:19:14.853931  1321 net.cpp:124] Setting up conv0
I0428 20:19:14.853945  1321 net.cpp:131] Top shape: 100 50 24 24 (2880000)
I0428 20:19:14.853948  1321 net.cpp:139] Memory required for data: 11834800
I0428 20:19:14.853957  1321 layer_factory.hpp:77] Creating layer pool0
I0428 20:19:14.853965  1321 net.cpp:86] Creating Layer pool0
I0428 20:19:14.853967  1321 net.cpp:408] pool0 <- conv0
I0428 20:19:14.853972  1321 net.cpp:382] pool0 -> pool0
I0428 20:19:14.854007  1321 net.cpp:124] Setting up pool0
I0428 20:19:14.854012  1321 net.cpp:131] Top shape: 100 50 12 12 (720000)
I0428 20:19:14.854014  1321 net.cpp:139] Memory required for data: 14714800
I0428 20:19:14.854017  1321 layer_factory.hpp:77] Creating layer conv1
I0428 20:19:14.854027  1321 net.cpp:86] Creating Layer conv1
I0428 20:19:14.854029  1321 net.cpp:408] conv1 <- pool0
I0428 20:19:14.854035  1321 net.cpp:382] conv1 -> conv1
I0428 20:19:14.855821  1321 net.cpp:124] Setting up conv1
I0428 20:19:14.855835  1321 net.cpp:131] Top shape: 100 25 8 8 (160000)
I0428 20:19:14.855839  1321 net.cpp:139] Memory required for data: 15354800
I0428 20:19:14.855849  1321 layer_factory.hpp:77] Creating layer pool1
I0428 20:19:14.855855  1321 net.cpp:86] Creating Layer pool1
I0428 20:19:14.855859  1321 net.cpp:408] pool1 <- conv1
I0428 20:19:14.855865  1321 net.cpp:382] pool1 -> pool1
I0428 20:19:14.855911  1321 net.cpp:124] Setting up pool1
I0428 20:19:14.855916  1321 net.cpp:131] Top shape: 100 25 4 4 (40000)
I0428 20:19:14.855919  1321 net.cpp:139] Memory required for data: 15514800
I0428 20:19:14.855922  1321 layer_factory.hpp:77] Creating layer ip1
I0428 20:19:14.855931  1321 net.cpp:86] Creating Layer ip1
I0428 20:19:14.855934  1321 net.cpp:408] ip1 <- pool1
I0428 20:19:14.855939  1321 net.cpp:382] ip1 -> ip1
I0428 20:19:14.856178  1321 net.cpp:124] Setting up ip1
I0428 20:19:14.856187  1321 net.cpp:131] Top shape: 100 50 (5000)
I0428 20:19:14.856190  1321 net.cpp:139] Memory required for data: 15534800
I0428 20:19:14.856197  1321 layer_factory.hpp:77] Creating layer relu1
I0428 20:19:14.856214  1321 net.cpp:86] Creating Layer relu1
I0428 20:19:14.856222  1321 net.cpp:408] relu1 <- ip1
I0428 20:19:14.856227  1321 net.cpp:369] relu1 -> ip1 (in-place)
I0428 20:19:14.856382  1321 net.cpp:124] Setting up relu1
I0428 20:19:14.856391  1321 net.cpp:131] Top shape: 100 50 (5000)
I0428 20:19:14.856395  1321 net.cpp:139] Memory required for data: 15554800
I0428 20:19:14.856397  1321 layer_factory.hpp:77] Creating layer ip2
I0428 20:19:14.856405  1321 net.cpp:86] Creating Layer ip2
I0428 20:19:14.856407  1321 net.cpp:408] ip2 <- ip1
I0428 20:19:14.856421  1321 net.cpp:382] ip2 -> ip2
I0428 20:19:14.856526  1321 net.cpp:124] Setting up ip2
I0428 20:19:14.856534  1321 net.cpp:131] Top shape: 100 10 (1000)
I0428 20:19:14.856536  1321 net.cpp:139] Memory required for data: 15558800
I0428 20:19:14.856541  1321 layer_factory.hpp:77] Creating layer relu2
I0428 20:19:14.856552  1321 net.cpp:86] Creating Layer relu2
I0428 20:19:14.856555  1321 net.cpp:408] relu2 <- ip2
I0428 20:19:14.856560  1321 net.cpp:369] relu2 -> ip2 (in-place)
I0428 20:19:14.856834  1321 net.cpp:124] Setting up relu2
I0428 20:19:14.856843  1321 net.cpp:131] Top shape: 100 10 (1000)
I0428 20:19:14.856848  1321 net.cpp:139] Memory required for data: 15562800
I0428 20:19:14.856850  1321 layer_factory.hpp:77] Creating layer ip2_relu2_0_split
I0428 20:19:14.856861  1321 net.cpp:86] Creating Layer ip2_relu2_0_split
I0428 20:19:14.856865  1321 net.cpp:408] ip2_relu2_0_split <- ip2
I0428 20:19:14.856871  1321 net.cpp:382] ip2_relu2_0_split -> ip2_relu2_0_split_0
I0428 20:19:14.856904  1321 net.cpp:382] ip2_relu2_0_split -> ip2_relu2_0_split_1
I0428 20:19:14.856956  1321 net.cpp:124] Setting up ip2_relu2_0_split
I0428 20:19:14.856969  1321 net.cpp:131] Top shape: 100 10 (1000)
I0428 20:19:14.856973  1321 net.cpp:131] Top shape: 100 10 (1000)
I0428 20:19:14.856976  1321 net.cpp:139] Memory required for data: 15570800
I0428 20:19:14.856986  1321 layer_factory.hpp:77] Creating layer accuracy
I0428 20:19:14.856992  1321 net.cpp:86] Creating Layer accuracy
I0428 20:19:14.857000  1321 net.cpp:408] accuracy <- ip2_relu2_0_split_0
I0428 20:19:14.857019  1321 net.cpp:408] accuracy <- label_mnist_1_split_0
I0428 20:19:14.857023  1321 net.cpp:382] accuracy -> accuracy
…
