…
I0428 19:56:20.605496 28411 net.cpp:296] The NetState phase (0) differed from the phase (1) specified by a rule in layer mnist
I0428 19:56:20.605526 28411 net.cpp:296] The NetState phase (0) differed from the phase (1) specified by a rule in layer accuracy
I0428 19:56:20.605687 28411 net.cpp:53] Initializing net from parameters: 
name: "LeNet"
state {
  phase: TRAIN
  level: 0
  stage: ""
}
layer {
  name: "mnist"
  type: "Data"
  top: "data"
  top: "label"
  include {
    phase: TRAIN
  }
  transform_param {
    scale: 0.00390625
  }
  data_param {
    source: "examples/mnist/mnist_train_lmdb"
    batch_size: 64
    backend: LMDB
  }
}
layer {
  name: "conv0"
  type: "Convolution"
  bottom: "data"
  top: "conv0"
  param {
    lr_mult: 1
  }
  param {
    lr_mult: 2
  }
  convolution_param {
    num_output: 10
    kernel_size: 5
    stride: 1
    weight_filler {
      type: "xavier"
    }
    bias_filler {
      type: "constant"
    }
  }
}
layer {
  name: "pool0"
  type: "Pooling"
  bottom: "conv0"
  top: "pool0"
  pooling_param {
    pool: MAX
    kernel_size: 2
    stride: 2
  }
}
layer {
  name: "conv1"
  type: "Convolution"
  bottom: "pool0"
  top: "conv1"
  param {
    lr_mult: 1
  }
  param {
    lr_mult: 2
  }
  convolution_param {
    num_output: 2
    kernel_size: 5
    stride: 1
    weight_filler {
      type: "xavier"
    }
    bias_filler {
      type: "constant"
    }
  }
}
layer {
  name: "pool1"
  type: "Pooling"
  bottom: "conv1"
  top: "pool1"
  pooling_param {
    pool: MAX
    kernel_size: 2
    stride: 2
  }
}
layer {
  name: "ip1"
  type: "InnerProduct"
  bottom: "pool1"
  top: "ip1"
  param {
    lr_mult: 1
  }
  param {
    lr_mult: 2
  }
  inner_product_param {
    num_output: 10
    weight_filler {
      type: "xavier"
    }
    bias_filler {
      type: "constant"
    }
  }
}
layer {
  name: "relu1"
  type: "ReLU"
  bottom: "ip1"
  top: "ip1"
}
layer {
  name: "ip2"
  type: "InnerProduct"
  bottom: "ip1"
  top: "ip2"
  param {
    lr_mult: 1
  }
  param {
    lr_mult: 2
  }
  inner_product_param {
    num_output: 25
    weight_filler {
      type: "xavier"
    }
    bias_filler {
      type: "constant"
    }
  }
}
layer {
  name: "relu2"
  type: "ReLU"
  bottom: "ip2"
  top: "ip2"
}
layer {
  name: "ip3"
  type: "InnerProduct"
  bottom: "ip2"
  top: "ip3"
  param {
    lr_mult: 1
  }
  param {
    lr_mult: 2
  }
  inner_product_param {
    num_output: 10
    weight_filler {
      type: "xavier"
    }
    bias_filler {
      type: "constant"
    }
  }
}
layer {
  name: "relu3"
  type: "ReLU"
  bottom: "ip3"
  top: "ip3"
}
layer {
  name: "loss"
  type: "SoftmaxWithLoss"
  bottom: "ip3"
  bottom: "label"
  top: "loss"
}
I0428 19:56:20.605806 28411 layer_factory.hpp:77] Creating layer mnist
I0428 19:56:20.605937 28411 db_lmdb.cpp:35] Opened lmdb examples/mnist/mnist_train_lmdb
I0428 19:56:20.605973 28411 net.cpp:86] Creating Layer mnist
I0428 19:56:20.605988 28411 net.cpp:382] mnist -> data
I0428 19:56:20.606019 28411 net.cpp:382] mnist -> label
I0428 19:56:20.607580 28411 data_layer.cpp:45] output data size: 64,1,28,28
I0428 19:56:20.610435 28411 net.cpp:124] Setting up mnist
I0428 19:56:20.610453 28411 net.cpp:131] Top shape: 64 1 28 28 (50176)
I0428 19:56:20.610460 28411 net.cpp:131] Top shape: 64 (64)
I0428 19:56:20.610463 28411 net.cpp:139] Memory required for data: 200960
I0428 19:56:20.610471 28411 layer_factory.hpp:77] Creating layer conv0
I0428 19:56:20.610502 28411 net.cpp:86] Creating Layer conv0
I0428 19:56:20.610529 28411 net.cpp:408] conv0 <- data
I0428 19:56:20.610560 28411 net.cpp:382] conv0 -> conv0
I0428 19:56:20.885603 28411 net.cpp:124] Setting up conv0
I0428 19:56:20.885645 28411 net.cpp:131] Top shape: 64 10 24 24 (368640)
I0428 19:56:20.885649 28411 net.cpp:139] Memory required for data: 1675520
I0428 19:56:20.885664 28411 layer_factory.hpp:77] Creating layer pool0
I0428 19:56:20.885676 28411 net.cpp:86] Creating Layer pool0
I0428 19:56:20.885681 28411 net.cpp:408] pool0 <- conv0
I0428 19:56:20.885689 28411 net.cpp:382] pool0 -> pool0
I0428 19:56:20.885746 28411 net.cpp:124] Setting up pool0
I0428 19:56:20.885758 28411 net.cpp:131] Top shape: 64 10 12 12 (92160)
I0428 19:56:20.885763 28411 net.cpp:139] Memory required for data: 2044160
I0428 19:56:20.885768 28411 layer_factory.hpp:77] Creating layer conv1
I0428 19:56:20.885783 28411 net.cpp:86] Creating Layer conv1
I0428 19:56:20.885788 28411 net.cpp:408] conv1 <- pool0
I0428 19:56:20.885795 28411 net.cpp:382] conv1 -> conv1
I0428 19:56:20.888346 28411 net.cpp:124] Setting up conv1
I0428 19:56:20.888376 28411 net.cpp:131] Top shape: 64 2 8 8 (8192)
I0428 19:56:20.888381 28411 net.cpp:139] Memory required for data: 2076928
I0428 19:56:20.888389 28411 layer_factory.hpp:77] Creating layer pool1
I0428 19:56:20.888398 28411 net.cpp:86] Creating Layer pool1
I0428 19:56:20.888402 28411 net.cpp:408] pool1 <- conv1
I0428 19:56:20.888407 28411 net.cpp:382] pool1 -> pool1
I0428 19:56:20.888494 28411 net.cpp:124] Setting up pool1
I0428 19:56:20.888506 28411 net.cpp:131] Top shape: 64 2 4 4 (2048)
I0428 19:56:20.888512 28411 net.cpp:139] Memory required for data: 2085120
I0428 19:56:20.888517 28411 layer_factory.hpp:77] Creating layer ip1
I0428 19:56:20.888530 28411 net.cpp:86] Creating Layer ip1
I0428 19:56:20.888536 28411 net.cpp:408] ip1 <- pool1
I0428 19:56:20.888545 28411 net.cpp:382] ip1 -> ip1
I0428 19:56:20.888685 28411 net.cpp:124] Setting up ip1
I0428 19:56:20.888705 28411 net.cpp:131] Top shape: 64 10 (640)
I0428 19:56:20.888710 28411 net.cpp:139] Memory required for data: 2087680
I0428 19:56:20.888721 28411 layer_factory.hpp:77] Creating layer relu1
I0428 19:56:20.888747 28411 net.cpp:86] Creating Layer relu1
I0428 19:56:20.888752 28411 net.cpp:408] relu1 <- ip1
I0428 19:56:20.888761 28411 net.cpp:369] relu1 -> ip1 (in-place)
I0428 19:56:20.889017 28411 net.cpp:124] Setting up relu1
I0428 19:56:20.889030 28411 net.cpp:131] Top shape: 64 10 (640)
I0428 19:56:20.889035 28411 net.cpp:139] Memory required for data: 2090240
I0428 19:56:20.889040 28411 layer_factory.hpp:77] Creating layer ip2
I0428 19:56:20.889050 28411 net.cpp:86] Creating Layer ip2
I0428 19:56:20.889055 28411 net.cpp:408] ip2 <- ip1
I0428 19:56:20.889062 28411 net.cpp:382] ip2 -> ip2
I0428 19:56:20.889219 28411 net.cpp:124] Setting up ip2
I0428 19:56:20.889246 28411 net.cpp:131] Top shape: 64 25 (1600)
I0428 19:56:20.889251 28411 net.cpp:139] Memory required for data: 2096640
I0428 19:56:20.889261 28411 layer_factory.hpp:77] Creating layer relu2
I0428 19:56:20.889272 28411 net.cpp:86] Creating Layer relu2
I0428 19:56:20.889278 28411 net.cpp:408] relu2 <- ip2
I0428 19:56:20.889286 28411 net.cpp:369] relu2 -> ip2 (in-place)
I0428 19:56:20.890426 28411 net.cpp:124] Setting up relu2
I0428 19:56:20.890460 28411 net.cpp:131] Top shape: 64 25 (1600)
I0428 19:56:20.890466 28411 net.cpp:139] Memory required for data: 2103040
I0428 19:56:20.890471 28411 layer_factory.hpp:77] Creating layer ip3
I0428 19:56:20.890496 28411 net.cpp:86] Creating Layer ip3
I0428 19:56:20.890501 28411 net.cpp:408] ip3 <- ip2
I0428 19:56:20.890512 28411 net.cpp:382] ip3 -> ip3
I0428 19:56:20.890697 28411 net.cpp:124] Setting up ip3
I0428 19:56:20.890712 28411 net.cpp:131] Top shape: 64 10 (640)
I0428 19:56:20.890717 28411 net.cpp:139] Memory required for data: 2105600
I0428 19:56:20.890732 28411 layer_factory.hpp:77] Creating layer relu3
I0428 19:56:20.890740 28411 net.cpp:86] Creating Layer relu3
I0428 19:56:20.890745 28411 net.cpp:408] relu3 <- ip3
I0428 19:56:20.890754 28411 net.cpp:369] relu3 -> ip3 (in-place)
I0428 19:56:20.891047 28411 net.cpp:124] Setting up relu3
I0428 19:56:20.891059 28411 net.cpp:131] Top shape: 64 10 (640)
I0428 19:56:20.891065 28411 net.cpp:139] Memory required for data: 2108160
I0428 19:56:20.891070 28411 layer_factory.hpp:77] Creating layer loss
I0428 19:56:20.891078 28411 net.cpp:86] Creating Layer loss
I0428 19:56:20.891083 28411 net.cpp:408] loss <- ip3
I0428 19:56:20.891089 28411 net.cpp:408] loss <- label
I0428 19:56:20.891099 28411 net.cpp:382] loss -> loss
I0428 19:56:20.891119 28411 layer_factory.hpp:77] Creating layer loss
…
I0428 19:56:20.892258 28411 solver.cpp:173] Creating test net (#0) specified by net file: ECE595/mnist/train_test/var_everything2/lenet_train_test756.prototxt
I0428 19:56:20.892324 28411 net.cpp:296] The NetState phase (1) differed from the phase (0) specified by a rule in layer mnist
I0428 19:56:20.892487 28411 net.cpp:53] Initializing net from parameters: 
name: "LeNet"
state {
  phase: TEST
}
layer {
  name: "mnist"
  type: "Data"
  top: "data"
  top: "label"
  include {
    phase: TEST
  }
  transform_param {
    scale: 0.00390625
  }
  data_param {
    source: "examples/mnist/mnist_test_lmdb"
    batch_size: 100
    backend: LMDB
  }
}
layer {
  name: "conv0"
  type: "Convolution"
  bottom: "data"
  top: "conv0"
  param {
    lr_mult: 1
  }
  param {
    lr_mult: 2
  }
  convolution_param {
    num_output: 10
    kernel_size: 5
    stride: 1
    weight_filler {
      type: "xavier"
    }
    bias_filler {
      type: "constant"
    }
  }
}
layer {
  name: "pool0"
  type: "Pooling"
  bottom: "conv0"
  top: "pool0"
  pooling_param {
    pool: MAX
    kernel_size: 2
    stride: 2
  }
}
layer {
  name: "conv1"
  type: "Convolution"
  bottom: "pool0"
  top: "conv1"
  param {
    lr_mult: 1
  }
  param {
    lr_mult: 2
  }
  convolution_param {
    num_output: 2
    kernel_size: 5
    stride: 1
    weight_filler {
      type: "xavier"
    }
    bias_filler {
      type: "constant"
    }
  }
}
layer {
  name: "pool1"
  type: "Pooling"
  bottom: "conv1"
  top: "pool1"
  pooling_param {
    pool: MAX
    kernel_size: 2
    stride: 2
  }
}
layer {
  name: "ip1"
  type: "InnerProduct"
  bottom: "pool1"
  top: "ip1"
  param {
    lr_mult: 1
  }
  param {
    lr_mult: 2
  }
  inner_product_param {
    num_output: 10
    weight_filler {
      type: "xavier"
    }
    bias_filler {
      type: "constant"
    }
  }
}
layer {
  name: "relu1"
  type: "ReLU"
  bottom: "ip1"
  top: "ip1"
}
layer {
  name: "ip2"
  type: "InnerProduct"
  bottom: "ip1"
  top: "ip2"
  param {
    lr_mult: 1
  }
  param {
    lr_mult: 2
  }
  inner_product_param {
    num_output: 25
    weight_filler {
      type: "xavier"
    }
    bias_filler {
      type: "constant"
    }
  }
}
layer {
  name: "relu2"
  type: "ReLU"
  bottom: "ip2"
  top: "ip2"
}
layer {
  name: "ip3"
  type: "InnerProduct"
  bottom: "ip2"
  top: "ip3"
  param {
    lr_mult: 1
  }
  param {
    lr_mult: 2
  }
  inner_product_param {
    num_output: 10
    weight_filler {
      type: "xavier"
    }
    bias_filler {
      type: "constant"
    }
  }
}
layer {
  name: "relu3"
  type: "ReLU"
  bottom: "ip3"
  top: "ip3"
}
layer {
  name: "accuracy"
  type: "Accuracy"
  bottom: "ip3"
  bottom: "label"
  top: "accuracy"
  include {
    phase: TEST
  }
}
layer {
  name: "loss"
  type: "SoftmaxWithLoss"
  bottom: "ip3"
  bottom: "label"
  top: "loss"
}
I0428 19:56:20.892608 28411 layer_factory.hpp:77] Creating layer mnist
I0428 19:56:20.892664 28411 db_lmdb.cpp:35] Opened lmdb examples/mnist/mnist_test_lmdb
I0428 19:56:20.892680 28411 net.cpp:86] Creating Layer mnist
I0428 19:56:20.892689 28411 net.cpp:382] mnist -> data
I0428 19:56:20.892700 28411 net.cpp:382] mnist -> label
I0428 19:56:20.892879 28411 data_layer.cpp:45] output data size: 100,1,28,28
I0428 19:56:20.895606 28411 net.cpp:124] Setting up mnist
I0428 19:56:20.895619 28411 net.cpp:131] Top shape: 100 1 28 28 (78400)
I0428 19:56:20.895624 28411 net.cpp:131] Top shape: 100 (100)
I0428 19:56:20.895627 28411 net.cpp:139] Memory required for data: 314000
I0428 19:56:20.895632 28411 layer_factory.hpp:77] Creating layer label_mnist_1_split
I0428 19:56:20.895663 28411 net.cpp:86] Creating Layer label_mnist_1_split
I0428 19:56:20.895670 28411 net.cpp:408] label_mnist_1_split <- label
I0428 19:56:20.895678 28411 net.cpp:382] label_mnist_1_split -> label_mnist_1_split_0
I0428 19:56:20.895689 28411 net.cpp:382] label_mnist_1_split -> label_mnist_1_split_1
I0428 19:56:20.895747 28411 net.cpp:124] Setting up label_mnist_1_split
I0428 19:56:20.895764 28411 net.cpp:131] Top shape: 100 (100)
I0428 19:56:20.895771 28411 net.cpp:131] Top shape: 100 (100)
I0428 19:56:20.895776 28411 net.cpp:139] Memory required for data: 314800
I0428 19:56:20.895781 28411 layer_factory.hpp:77] Creating layer conv0
I0428 19:56:20.895794 28411 net.cpp:86] Creating Layer conv0
I0428 19:56:20.895799 28411 net.cpp:408] conv0 <- data
I0428 19:56:20.895809 28411 net.cpp:382] conv0 -> conv0
I0428 19:56:20.898079 28411 net.cpp:124] Setting up conv0
I0428 19:56:20.898093 28411 net.cpp:131] Top shape: 100 10 24 24 (576000)
I0428 19:56:20.898097 28411 net.cpp:139] Memory required for data: 2618800
I0428 19:56:20.898108 28411 layer_factory.hpp:77] Creating layer pool0
I0428 19:56:20.898116 28411 net.cpp:86] Creating Layer pool0
I0428 19:56:20.898121 28411 net.cpp:408] pool0 <- conv0
I0428 19:56:20.898128 28411 net.cpp:382] pool0 -> pool0
I0428 19:56:20.898197 28411 net.cpp:124] Setting up pool0
I0428 19:56:20.898226 28411 net.cpp:131] Top shape: 100 10 12 12 (144000)
I0428 19:56:20.898231 28411 net.cpp:139] Memory required for data: 3194800
I0428 19:56:20.898237 28411 layer_factory.hpp:77] Creating layer conv1
I0428 19:56:20.898252 28411 net.cpp:86] Creating Layer conv1
I0428 19:56:20.898257 28411 net.cpp:408] conv1 <- pool0
I0428 19:56:20.898267 28411 net.cpp:382] conv1 -> conv1
I0428 19:56:20.901221 28411 net.cpp:124] Setting up conv1
I0428 19:56:20.901234 28411 net.cpp:131] Top shape: 100 2 8 8 (12800)
I0428 19:56:20.901238 28411 net.cpp:139] Memory required for data: 3246000
I0428 19:56:20.901247 28411 layer_factory.hpp:77] Creating layer pool1
I0428 19:56:20.901254 28411 net.cpp:86] Creating Layer pool1
I0428 19:56:20.901259 28411 net.cpp:408] pool1 <- conv1
I0428 19:56:20.901269 28411 net.cpp:382] pool1 -> pool1
I0428 19:56:20.901338 28411 net.cpp:124] Setting up pool1
I0428 19:56:20.901353 28411 net.cpp:131] Top shape: 100 2 4 4 (3200)
I0428 19:56:20.901366 28411 net.cpp:139] Memory required for data: 3258800
I0428 19:56:20.901371 28411 layer_factory.hpp:77] Creating layer ip1
I0428 19:56:20.901382 28411 net.cpp:86] Creating Layer ip1
I0428 19:56:20.901387 28411 net.cpp:408] ip1 <- pool1
I0428 19:56:20.901396 28411 net.cpp:382] ip1 -> ip1
I0428 19:56:20.901552 28411 net.cpp:124] Setting up ip1
I0428 19:56:20.901563 28411 net.cpp:131] Top shape: 100 10 (1000)
I0428 19:56:20.901582 28411 net.cpp:139] Memory required for data: 3262800
I0428 19:56:20.901593 28411 layer_factory.hpp:77] Creating layer relu1
I0428 19:56:20.901607 28411 net.cpp:86] Creating Layer relu1
I0428 19:56:20.901612 28411 net.cpp:408] relu1 <- ip1
I0428 19:56:20.901628 28411 net.cpp:369] relu1 -> ip1 (in-place)
I0428 19:56:20.901872 28411 net.cpp:124] Setting up relu1
I0428 19:56:20.901885 28411 net.cpp:131] Top shape: 100 10 (1000)
I0428 19:56:20.901890 28411 net.cpp:139] Memory required for data: 3266800
I0428 19:56:20.901895 28411 layer_factory.hpp:77] Creating layer ip2
I0428 19:56:20.901911 28411 net.cpp:86] Creating Layer ip2
I0428 19:56:20.901916 28411 net.cpp:408] ip2 <- ip1
I0428 19:56:20.901926 28411 net.cpp:382] ip2 -> ip2
I0428 19:56:20.902102 28411 net.cpp:124] Setting up ip2
I0428 19:56:20.902117 28411 net.cpp:131] Top shape: 100 25 (2500)
I0428 19:56:20.902122 28411 net.cpp:139] Memory required for data: 3276800
I0428 19:56:20.902142 28411 layer_factory.hpp:77] Creating layer relu2
I0428 19:56:20.902149 28411 net.cpp:86] Creating Layer relu2
I0428 19:56:20.902155 28411 net.cpp:408] relu2 <- ip2
I0428 19:56:20.902164 28411 net.cpp:369] relu2 -> ip2 (in-place)
I0428 19:56:20.902562 28411 net.cpp:124] Setting up relu2
I0428 19:56:20.902575 28411 net.cpp:131] Top shape: 100 25 (2500)
I0428 19:56:20.902581 28411 net.cpp:139] Memory required for data: 3286800
I0428 19:56:20.902586 28411 layer_factory.hpp:77] Creating layer ip3
I0428 19:56:20.902597 28411 net.cpp:86] Creating Layer ip3
I0428 19:56:20.902602 28411 net.cpp:408] ip3 <- ip2
I0428 19:56:20.902611 28411 net.cpp:382] ip3 -> ip3
I0428 19:56:20.902753 28411 net.cpp:124] Setting up ip3
I0428 19:56:20.902765 28411 net.cpp:131] Top shape: 100 10 (1000)
I0428 19:56:20.902770 28411 net.cpp:139] Memory required for data: 3290800
I0428 19:56:20.902782 28411 layer_factory.hpp:77] Creating layer relu3
I0428 19:56:20.902791 28411 net.cpp:86] Creating Layer relu3
I0428 19:56:20.902796 28411 net.cpp:408] relu3 <- ip3
I0428 19:56:20.902809 28411 net.cpp:369] relu3 -> ip3 (in-place)
I0428 19:56:20.904124 28411 net.cpp:124] Setting up relu3
I0428 19:56:20.904152 28411 net.cpp:131] Top shape: 100 10 (1000)
I0428 19:56:20.904157 28411 net.cpp:139] Memory required for data: 3294800
I0428 19:56:20.904163 28411 layer_factory.hpp:77] Creating layer ip3_relu3_0_split
I0428 19:56:20.904171 28411 net.cpp:86] Creating Layer ip3_relu3_0_split
I0428 19:56:20.904176 28411 net.cpp:408] ip3_relu3_0_split <- ip3
I0428 19:56:20.904184 28411 net.cpp:382] ip3_relu3_0_split -> ip3_relu3_0_split_0
I0428 19:56:20.904193 28411 net.cpp:382] ip3_relu3_0_split -> ip3_relu3_0_split_1
I0428 19:56:20.904253 28411 net.cpp:124] Setting up ip3_relu3_0_split
I0428 19:56:20.904264 28411 net.cpp:131] Top shape: 100 10 (1000)
I0428 19:56:20.904270 28411 net.cpp:131] Top shape: 100 10 (1000)
I0428 19:56:20.904275 28411 net.cpp:139] Memory required for data: 3302800
I0428 19:56:20.904280 28411 layer_factory.hpp:77] Creating layer accuracy
I0428 19:56:20.904289 28411 net.cpp:86] Creating Layer accuracy
I0428 19:56:20.904294 28411 net.cpp:408] accuracy <- ip3_relu3_0_split_0
I0428 19:56:20.904299 28411 net.cpp:408] accuracy <- label_mnist_1_split_0
I0428 19:56:20.904309 28411 net.cpp:382] accuracy -> accuracy
…
