…
I0428 20:13:10.652501 32410 net.cpp:296] The NetState phase (0) differed from the phase (1) specified by a rule in layer mnist
I0428 20:13:10.652520 32410 net.cpp:296] The NetState phase (0) differed from the phase (1) specified by a rule in layer accuracy
I0428 20:13:10.652632 32410 net.cpp:53] Initializing net from parameters: 
name: "LeNet"
state {
  phase: TRAIN
  level: 0
  stage: ""
}
layer {
  name: "mnist"
  type: "Data"
  top: "data"
  top: "label"
  include {
    phase: TRAIN
  }
  transform_param {
    scale: 0.00390625
  }
  data_param {
    source: "examples/mnist/mnist_train_lmdb"
    batch_size: 64
    backend: LMDB
  }
}
layer {
  name: "conv0"
  type: "Convolution"
  bottom: "data"
  top: "conv0"
  param {
    lr_mult: 1
  }
  param {
    lr_mult: 2
  }
  convolution_param {
    num_output: 25
    kernel_size: 5
    stride: 1
    weight_filler {
      type: "xavier"
    }
    bias_filler {
      type: "constant"
    }
  }
}
layer {
  name: "pool0"
  type: "Pooling"
  bottom: "conv0"
  top: "pool0"
  pooling_param {
    pool: MAX
    kernel_size: 2
    stride: 2
  }
}
layer {
  name: "conv1"
  type: "Convolution"
  bottom: "pool0"
  top: "conv1"
  param {
    lr_mult: 1
  }
  param {
    lr_mult: 2
  }
  convolution_param {
    num_output: 100
    kernel_size: 5
    stride: 1
    weight_filler {
      type: "xavier"
    }
    bias_filler {
      type: "constant"
    }
  }
}
layer {
  name: "pool1"
  type: "Pooling"
  bottom: "conv1"
  top: "pool1"
  pooling_param {
    pool: MAX
    kernel_size: 2
    stride: 2
  }
}
layer {
  name: "ip1"
  type: "InnerProduct"
  bottom: "pool1"
  top: "ip1"
  param {
    lr_mult: 1
  }
  param {
    lr_mult: 2
  }
  inner_product_param {
    num_output: 25
    weight_filler {
      type: "xavier"
    }
    bias_filler {
      type: "constant"
    }
  }
}
layer {
  name: "relu1"
  type: "ReLU"
  bottom: "ip1"
  top: "ip1"
}
layer {
  name: "ip2"
  type: "InnerProduct"
  bottom: "ip1"
  top: "ip2"
  param {
    lr_mult: 1
  }
  param {
    lr_mult: 2
  }
  inner_product_param {
    num_output: 25
    weight_filler {
      type: "xavier"
    }
    bias_filler {
      type: "constant"
    }
  }
}
layer {
  name: "relu2"
  type: "ReLU"
  bottom: "ip2"
  top: "ip2"
}
layer {
  name: "ip3"
  type: "InnerProduct"
  bottom: "ip2"
  top: "ip3"
  param {
    lr_mult: 1
  }
  param {
    lr_mult: 2
  }
  inner_product_param {
    num_output: 10
    weight_filler {
      type: "xavier"
    }
    bias_filler {
      type: "constant"
    }
  }
}
layer {
  name: "relu3"
  type: "ReLU"
  bottom: "ip3"
  top: "ip3"
}
layer {
  name: "loss"
  type: "SoftmaxWithLoss"
  bottom: "ip3"
  bottom: "label"
  top: "loss"
}
I0428 20:13:10.652711 32410 layer_factory.hpp:77] Creating layer mnist
I0428 20:13:10.652818 32410 db_lmdb.cpp:35] Opened lmdb examples/mnist/mnist_train_lmdb
I0428 20:13:10.652842 32410 net.cpp:86] Creating Layer mnist
I0428 20:13:10.652853 32410 net.cpp:382] mnist -> data
I0428 20:13:10.652878 32410 net.cpp:382] mnist -> label
I0428 20:13:10.653985 32410 data_layer.cpp:45] output data size: 64,1,28,28
I0428 20:13:10.656692 32410 net.cpp:124] Setting up mnist
I0428 20:13:10.656710 32410 net.cpp:131] Top shape: 64 1 28 28 (50176)
I0428 20:13:10.656716 32410 net.cpp:131] Top shape: 64 (64)
I0428 20:13:10.656719 32410 net.cpp:139] Memory required for data: 200960
I0428 20:13:10.656726 32410 layer_factory.hpp:77] Creating layer conv0
I0428 20:13:10.656772 32410 net.cpp:86] Creating Layer conv0
I0428 20:13:10.656795 32410 net.cpp:408] conv0 <- data
I0428 20:13:10.656816 32410 net.cpp:382] conv0 -> conv0
I0428 20:13:10.942313 32410 net.cpp:124] Setting up conv0
I0428 20:13:10.942342 32410 net.cpp:131] Top shape: 64 25 24 24 (921600)
I0428 20:13:10.942345 32410 net.cpp:139] Memory required for data: 3887360
I0428 20:13:10.942360 32410 layer_factory.hpp:77] Creating layer pool0
I0428 20:13:10.942373 32410 net.cpp:86] Creating Layer pool0
I0428 20:13:10.942376 32410 net.cpp:408] pool0 <- conv0
I0428 20:13:10.942381 32410 net.cpp:382] pool0 -> pool0
I0428 20:13:10.942425 32410 net.cpp:124] Setting up pool0
I0428 20:13:10.942438 32410 net.cpp:131] Top shape: 64 25 12 12 (230400)
I0428 20:13:10.942441 32410 net.cpp:139] Memory required for data: 4808960
I0428 20:13:10.942445 32410 layer_factory.hpp:77] Creating layer conv1
I0428 20:13:10.942454 32410 net.cpp:86] Creating Layer conv1
I0428 20:13:10.942457 32410 net.cpp:408] conv1 <- pool0
I0428 20:13:10.942462 32410 net.cpp:382] conv1 -> conv1
I0428 20:13:10.944910 32410 net.cpp:124] Setting up conv1
I0428 20:13:10.944924 32410 net.cpp:131] Top shape: 64 100 8 8 (409600)
I0428 20:13:10.944927 32410 net.cpp:139] Memory required for data: 6447360
I0428 20:13:10.944936 32410 layer_factory.hpp:77] Creating layer pool1
I0428 20:13:10.944943 32410 net.cpp:86] Creating Layer pool1
I0428 20:13:10.944947 32410 net.cpp:408] pool1 <- conv1
I0428 20:13:10.944952 32410 net.cpp:382] pool1 -> pool1
I0428 20:13:10.944985 32410 net.cpp:124] Setting up pool1
I0428 20:13:10.944993 32410 net.cpp:131] Top shape: 64 100 4 4 (102400)
I0428 20:13:10.944996 32410 net.cpp:139] Memory required for data: 6856960
I0428 20:13:10.944999 32410 layer_factory.hpp:77] Creating layer ip1
I0428 20:13:10.945005 32410 net.cpp:86] Creating Layer ip1
I0428 20:13:10.945008 32410 net.cpp:408] ip1 <- pool1
I0428 20:13:10.945013 32410 net.cpp:382] ip1 -> ip1
I0428 20:13:10.945356 32410 net.cpp:124] Setting up ip1
I0428 20:13:10.945363 32410 net.cpp:131] Top shape: 64 25 (1600)
I0428 20:13:10.945366 32410 net.cpp:139] Memory required for data: 6863360
I0428 20:13:10.945372 32410 layer_factory.hpp:77] Creating layer relu1
I0428 20:13:10.945377 32410 net.cpp:86] Creating Layer relu1
I0428 20:13:10.945380 32410 net.cpp:408] relu1 <- ip1
I0428 20:13:10.945384 32410 net.cpp:369] relu1 -> ip1 (in-place)
I0428 20:13:10.945541 32410 net.cpp:124] Setting up relu1
I0428 20:13:10.945549 32410 net.cpp:131] Top shape: 64 25 (1600)
I0428 20:13:10.945567 32410 net.cpp:139] Memory required for data: 6869760
I0428 20:13:10.945571 32410 layer_factory.hpp:77] Creating layer ip2
I0428 20:13:10.945577 32410 net.cpp:86] Creating Layer ip2
I0428 20:13:10.945580 32410 net.cpp:408] ip2 <- ip1
I0428 20:13:10.945585 32410 net.cpp:382] ip2 -> ip2
I0428 20:13:10.945677 32410 net.cpp:124] Setting up ip2
I0428 20:13:10.945684 32410 net.cpp:131] Top shape: 64 25 (1600)
I0428 20:13:10.945688 32410 net.cpp:139] Memory required for data: 6876160
I0428 20:13:10.945693 32410 layer_factory.hpp:77] Creating layer relu2
I0428 20:13:10.945698 32410 net.cpp:86] Creating Layer relu2
I0428 20:13:10.945700 32410 net.cpp:408] relu2 <- ip2
I0428 20:13:10.945704 32410 net.cpp:369] relu2 -> ip2 (in-place)
I0428 20:13:10.946436 32410 net.cpp:124] Setting up relu2
I0428 20:13:10.946449 32410 net.cpp:131] Top shape: 64 25 (1600)
I0428 20:13:10.946452 32410 net.cpp:139] Memory required for data: 6882560
I0428 20:13:10.946455 32410 layer_factory.hpp:77] Creating layer ip3
I0428 20:13:10.946462 32410 net.cpp:86] Creating Layer ip3
I0428 20:13:10.946465 32410 net.cpp:408] ip3 <- ip2
I0428 20:13:10.946470 32410 net.cpp:382] ip3 -> ip3
I0428 20:13:10.946565 32410 net.cpp:124] Setting up ip3
I0428 20:13:10.946573 32410 net.cpp:131] Top shape: 64 10 (640)
I0428 20:13:10.946575 32410 net.cpp:139] Memory required for data: 6885120
I0428 20:13:10.946583 32410 layer_factory.hpp:77] Creating layer relu3
I0428 20:13:10.946588 32410 net.cpp:86] Creating Layer relu3
I0428 20:13:10.946591 32410 net.cpp:408] relu3 <- ip3
I0428 20:13:10.946595 32410 net.cpp:369] relu3 -> ip3 (in-place)
I0428 20:13:10.946749 32410 net.cpp:124] Setting up relu3
I0428 20:13:10.946758 32410 net.cpp:131] Top shape: 64 10 (640)
I0428 20:13:10.946761 32410 net.cpp:139] Memory required for data: 6887680
I0428 20:13:10.946764 32410 layer_factory.hpp:77] Creating layer loss
I0428 20:13:10.946769 32410 net.cpp:86] Creating Layer loss
I0428 20:13:10.946772 32410 net.cpp:408] loss <- ip3
I0428 20:13:10.946791 32410 net.cpp:408] loss <- label
I0428 20:13:10.946797 32410 net.cpp:382] loss -> loss
I0428 20:13:10.946813 32410 layer_factory.hpp:77] Creating layer loss
…
I0428 20:13:10.947415 32410 solver.cpp:173] Creating test net (#0) specified by net file: ECE595/mnist/train_test/var_everything2/lenet_train_test1194.prototxt
I0428 20:13:10.947441 32410 net.cpp:296] The NetState phase (1) differed from the phase (0) specified by a rule in layer mnist
I0428 20:13:10.947535 32410 net.cpp:53] Initializing net from parameters: 
name: "LeNet"
state {
  phase: TEST
}
layer {
  name: "mnist"
  type: "Data"
  top: "data"
  top: "label"
  include {
    phase: TEST
  }
  transform_param {
    scale: 0.00390625
  }
  data_param {
    source: "examples/mnist/mnist_test_lmdb"
    batch_size: 100
    backend: LMDB
  }
}
layer {
  name: "conv0"
  type: "Convolution"
  bottom: "data"
  top: "conv0"
  param {
    lr_mult: 1
  }
  param {
    lr_mult: 2
  }
  convolution_param {
    num_output: 25
    kernel_size: 5
    stride: 1
    weight_filler {
      type: "xavier"
    }
    bias_filler {
      type: "constant"
    }
  }
}
layer {
  name: "pool0"
  type: "Pooling"
  bottom: "conv0"
  top: "pool0"
  pooling_param {
    pool: MAX
    kernel_size: 2
    stride: 2
  }
}
layer {
  name: "conv1"
  type: "Convolution"
  bottom: "pool0"
  top: "conv1"
  param {
    lr_mult: 1
  }
  param {
    lr_mult: 2
  }
  convolution_param {
    num_output: 100
    kernel_size: 5
    stride: 1
    weight_filler {
      type: "xavier"
    }
    bias_filler {
      type: "constant"
    }
  }
}
layer {
  name: "pool1"
  type: "Pooling"
  bottom: "conv1"
  top: "pool1"
  pooling_param {
    pool: MAX
    kernel_size: 2
    stride: 2
  }
}
layer {
  name: "ip1"
  type: "InnerProduct"
  bottom: "pool1"
  top: "ip1"
  param {
    lr_mult: 1
  }
  param {
    lr_mult: 2
  }
  inner_product_param {
    num_output: 25
    weight_filler {
      type: "xavier"
    }
    bias_filler {
      type: "constant"
    }
  }
}
layer {
  name: "relu1"
  type: "ReLU"
  bottom: "ip1"
  top: "ip1"
}
layer {
  name: "ip2"
  type: "InnerProduct"
  bottom: "ip1"
  top: "ip2"
  param {
    lr_mult: 1
  }
  param {
    lr_mult: 2
  }
  inner_product_param {
    num_output: 25
    weight_filler {
      type: "xavier"
    }
    bias_filler {
      type: "constant"
    }
  }
}
layer {
  name: "relu2"
  type: "ReLU"
  bottom: "ip2"
  top: "ip2"
}
layer {
  name: "ip3"
  type: "InnerProduct"
  bottom: "ip2"
  top: "ip3"
  param {
    lr_mult: 1
  }
  param {
    lr_mult: 2
  }
  inner_product_param {
    num_output: 10
    weight_filler {
      type: "xavier"
    }
    bias_filler {
      type: "constant"
    }
  }
}
layer {
  name: "relu3"
  type: "ReLU"
  bottom: "ip3"
  top: "ip3"
}
layer {
  name: "accuracy"
  type: "Accuracy"
  bottom: "ip3"
  bottom: "label"
  top: "accuracy"
  include {
    phase: TEST
  }
}
layer {
  name: "loss"
  type: "SoftmaxWithLoss"
  bottom: "ip3"
  bottom: "label"
  top: "loss"
}
I0428 20:13:10.947609 32410 layer_factory.hpp:77] Creating layer mnist
I0428 20:13:10.947654 32410 db_lmdb.cpp:35] Opened lmdb examples/mnist/mnist_test_lmdb
I0428 20:13:10.947666 32410 net.cpp:86] Creating Layer mnist
I0428 20:13:10.947670 32410 net.cpp:382] mnist -> data
I0428 20:13:10.947679 32410 net.cpp:382] mnist -> label
I0428 20:13:10.947755 32410 data_layer.cpp:45] output data size: 100,1,28,28
I0428 20:13:10.949722 32410 net.cpp:124] Setting up mnist
I0428 20:13:10.949734 32410 net.cpp:131] Top shape: 100 1 28 28 (78400)
I0428 20:13:10.949739 32410 net.cpp:131] Top shape: 100 (100)
I0428 20:13:10.949743 32410 net.cpp:139] Memory required for data: 314000
I0428 20:13:10.949746 32410 layer_factory.hpp:77] Creating layer label_mnist_1_split
I0428 20:13:10.949753 32410 net.cpp:86] Creating Layer label_mnist_1_split
I0428 20:13:10.949755 32410 net.cpp:408] label_mnist_1_split <- label
I0428 20:13:10.949760 32410 net.cpp:382] label_mnist_1_split -> label_mnist_1_split_0
I0428 20:13:10.949766 32410 net.cpp:382] label_mnist_1_split -> label_mnist_1_split_1
I0428 20:13:10.949801 32410 net.cpp:124] Setting up label_mnist_1_split
I0428 20:13:10.949806 32410 net.cpp:131] Top shape: 100 (100)
I0428 20:13:10.949810 32410 net.cpp:131] Top shape: 100 (100)
I0428 20:13:10.949812 32410 net.cpp:139] Memory required for data: 314800
I0428 20:13:10.949815 32410 layer_factory.hpp:77] Creating layer conv0
I0428 20:13:10.949822 32410 net.cpp:86] Creating Layer conv0
I0428 20:13:10.949826 32410 net.cpp:408] conv0 <- data
I0428 20:13:10.949831 32410 net.cpp:382] conv0 -> conv0
I0428 20:13:10.951489 32410 net.cpp:124] Setting up conv0
I0428 20:13:10.951503 32410 net.cpp:131] Top shape: 100 25 24 24 (1440000)
I0428 20:13:10.951506 32410 net.cpp:139] Memory required for data: 6074800
I0428 20:13:10.951514 32410 layer_factory.hpp:77] Creating layer pool0
I0428 20:13:10.951520 32410 net.cpp:86] Creating Layer pool0
I0428 20:13:10.951524 32410 net.cpp:408] pool0 <- conv0
I0428 20:13:10.951529 32410 net.cpp:382] pool0 -> pool0
I0428 20:13:10.951562 32410 net.cpp:124] Setting up pool0
I0428 20:13:10.951567 32410 net.cpp:131] Top shape: 100 25 12 12 (360000)
I0428 20:13:10.951570 32410 net.cpp:139] Memory required for data: 7514800
I0428 20:13:10.951572 32410 layer_factory.hpp:77] Creating layer conv1
I0428 20:13:10.951581 32410 net.cpp:86] Creating Layer conv1
I0428 20:13:10.951583 32410 net.cpp:408] conv1 <- pool0
I0428 20:13:10.951587 32410 net.cpp:382] conv1 -> conv1
I0428 20:13:10.953394 32410 net.cpp:124] Setting up conv1
I0428 20:13:10.953408 32410 net.cpp:131] Top shape: 100 100 8 8 (640000)
I0428 20:13:10.953413 32410 net.cpp:139] Memory required for data: 10074800
I0428 20:13:10.953420 32410 layer_factory.hpp:77] Creating layer pool1
I0428 20:13:10.953428 32410 net.cpp:86] Creating Layer pool1
I0428 20:13:10.953430 32410 net.cpp:408] pool1 <- conv1
I0428 20:13:10.953435 32410 net.cpp:382] pool1 -> pool1
I0428 20:13:10.953470 32410 net.cpp:124] Setting up pool1
I0428 20:13:10.953475 32410 net.cpp:131] Top shape: 100 100 4 4 (160000)
I0428 20:13:10.953479 32410 net.cpp:139] Memory required for data: 10714800
I0428 20:13:10.953481 32410 layer_factory.hpp:77] Creating layer ip1
I0428 20:13:10.953486 32410 net.cpp:86] Creating Layer ip1
I0428 20:13:10.953490 32410 net.cpp:408] ip1 <- pool1
I0428 20:13:10.953495 32410 net.cpp:382] ip1 -> ip1
I0428 20:13:10.953827 32410 net.cpp:124] Setting up ip1
I0428 20:13:10.953835 32410 net.cpp:131] Top shape: 100 25 (2500)
I0428 20:13:10.953848 32410 net.cpp:139] Memory required for data: 10724800
I0428 20:13:10.953856 32410 layer_factory.hpp:77] Creating layer relu1
I0428 20:13:10.953861 32410 net.cpp:86] Creating Layer relu1
I0428 20:13:10.953865 32410 net.cpp:408] relu1 <- ip1
I0428 20:13:10.953869 32410 net.cpp:369] relu1 -> ip1 (in-place)
I0428 20:13:10.954058 32410 net.cpp:124] Setting up relu1
I0428 20:13:10.954067 32410 net.cpp:131] Top shape: 100 25 (2500)
I0428 20:13:10.954071 32410 net.cpp:139] Memory required for data: 10734800
I0428 20:13:10.954074 32410 layer_factory.hpp:77] Creating layer ip2
I0428 20:13:10.954080 32410 net.cpp:86] Creating Layer ip2
I0428 20:13:10.954084 32410 net.cpp:408] ip2 <- ip1
I0428 20:13:10.954094 32410 net.cpp:382] ip2 -> ip2
I0428 20:13:10.954242 32410 net.cpp:124] Setting up ip2
I0428 20:13:10.954267 32410 net.cpp:131] Top shape: 100 25 (2500)
I0428 20:13:10.954269 32410 net.cpp:139] Memory required for data: 10744800
I0428 20:13:10.954289 32410 layer_factory.hpp:77] Creating layer relu2
I0428 20:13:10.954294 32410 net.cpp:86] Creating Layer relu2
I0428 20:13:10.954298 32410 net.cpp:408] relu2 <- ip2
I0428 20:13:10.954316 32410 net.cpp:369] relu2 -> ip2 (in-place)
I0428 20:13:10.954476 32410 net.cpp:124] Setting up relu2
I0428 20:13:10.954486 32410 net.cpp:131] Top shape: 100 25 (2500)
I0428 20:13:10.954489 32410 net.cpp:139] Memory required for data: 10754800
I0428 20:13:10.954493 32410 layer_factory.hpp:77] Creating layer ip3
I0428 20:13:10.954499 32410 net.cpp:86] Creating Layer ip3
I0428 20:13:10.954504 32410 net.cpp:408] ip3 <- ip2
I0428 20:13:10.954509 32410 net.cpp:382] ip3 -> ip3
I0428 20:13:10.954633 32410 net.cpp:124] Setting up ip3
I0428 20:13:10.954639 32410 net.cpp:131] Top shape: 100 10 (1000)
I0428 20:13:10.954643 32410 net.cpp:139] Memory required for data: 10758800
I0428 20:13:10.954651 32410 layer_factory.hpp:77] Creating layer relu3
I0428 20:13:10.954665 32410 net.cpp:86] Creating Layer relu3
I0428 20:13:10.954668 32410 net.cpp:408] relu3 <- ip3
I0428 20:13:10.954672 32410 net.cpp:369] relu3 -> ip3 (in-place)
I0428 20:13:10.955456 32410 net.cpp:124] Setting up relu3
I0428 20:13:10.955483 32410 net.cpp:131] Top shape: 100 10 (1000)
I0428 20:13:10.955487 32410 net.cpp:139] Memory required for data: 10762800
I0428 20:13:10.955490 32410 layer_factory.hpp:77] Creating layer ip3_relu3_0_split
I0428 20:13:10.955497 32410 net.cpp:86] Creating Layer ip3_relu3_0_split
I0428 20:13:10.955515 32410 net.cpp:408] ip3_relu3_0_split <- ip3
I0428 20:13:10.955521 32410 net.cpp:382] ip3_relu3_0_split -> ip3_relu3_0_split_0
I0428 20:13:10.955528 32410 net.cpp:382] ip3_relu3_0_split -> ip3_relu3_0_split_1
I0428 20:13:10.955591 32410 net.cpp:124] Setting up ip3_relu3_0_split
I0428 20:13:10.955598 32410 net.cpp:131] Top shape: 100 10 (1000)
I0428 20:13:10.955602 32410 net.cpp:131] Top shape: 100 10 (1000)
I0428 20:13:10.955606 32410 net.cpp:139] Memory required for data: 10770800
I0428 20:13:10.955610 32410 layer_factory.hpp:77] Creating layer accuracy
I0428 20:13:10.955615 32410 net.cpp:86] Creating Layer accuracy
I0428 20:13:10.955622 32410 net.cpp:408] accuracy <- ip3_relu3_0_split_0
I0428 20:13:10.955628 32410 net.cpp:408] accuracy <- label_mnist_1_split_0
I0428 20:13:10.955633 32410 net.cpp:382] accuracy -> accuracy
…
