…
I0428 19:28:37.497635 21677 net.cpp:296] The NetState phase (0) differed from the phase (1) specified by a rule in layer mnist
I0428 19:28:37.497649 21677 net.cpp:296] The NetState phase (0) differed from the phase (1) specified by a rule in layer accuracy
I0428 19:28:37.497720 21677 net.cpp:53] Initializing net from parameters: 
name: "LeNet"
state {
  phase: TRAIN
  level: 0
  stage: ""
}
layer {
  name: "mnist"
  type: "Data"
  top: "data"
  top: "label"
  include {
    phase: TRAIN
  }
  transform_param {
    scale: 0.00390625
  }
  data_param {
    source: "examples/mnist/mnist_train_lmdb"
    batch_size: 64
    backend: LMDB
  }
}
layer {
  name: "ip1"
  type: "InnerProduct"
  bottom: "data"
  top: "ip1"
  param {
    lr_mult: 1
  }
  param {
    lr_mult: 2
  }
  inner_product_param {
    num_output: 50
    weight_filler {
      type: "xavier"
    }
    bias_filler {
      type: "constant"
    }
  }
}
layer {
  name: "relu1"
  type: "ReLU"
  bottom: "ip1"
  top: "ip1"
}
layer {
  name: "ip2"
  type: "InnerProduct"
  bottom: "ip1"
  top: "ip2"
  param {
    lr_mult: 1
  }
  param {
    lr_mult: 2
  }
  inner_product_param {
    num_output: 10
    weight_filler {
      type: "xavier"
    }
    bias_filler {
      type: "constant"
    }
  }
}
layer {
  name: "relu2"
  type: "ReLU"
  bottom: "ip2"
  top: "ip2"
}
layer {
  name: "ip3"
  type: "InnerProduct"
  bottom: "ip2"
  top: "ip3"
  param {
    lr_mult: 1
  }
  param {
    lr_mult: 2
  }
  inner_product_param {
    num_output: 10
    weight_filler {
      type: "xavier"
    }
    bias_filler {
      type: "constant"
    }
  }
}
layer {
  name: "relu3"
  type: "ReLU"
  bottom: "ip3"
  top: "ip3"
}
layer {
  name: "loss"
  type: "SoftmaxWithLoss"
  bottom: "ip3"
  bottom: "label"
  top: "loss"
}
I0428 19:28:37.497781 21677 layer_factory.hpp:77] Creating layer mnist
I0428 19:28:37.497884 21677 db_lmdb.cpp:35] Opened lmdb examples/mnist/mnist_train_lmdb
I0428 19:28:37.497908 21677 net.cpp:86] Creating Layer mnist
I0428 19:28:37.497917 21677 net.cpp:382] mnist -> data
I0428 19:28:37.497939 21677 net.cpp:382] mnist -> label
I0428 19:28:37.499037 21677 data_layer.cpp:45] output data size: 64,1,28,28
I0428 19:28:37.501507 21677 net.cpp:124] Setting up mnist
I0428 19:28:37.501524 21677 net.cpp:131] Top shape: 64 1 28 28 (50176)
I0428 19:28:37.501531 21677 net.cpp:131] Top shape: 64 (64)
I0428 19:28:37.501535 21677 net.cpp:139] Memory required for data: 200960
I0428 19:28:37.501543 21677 layer_factory.hpp:77] Creating layer ip1
I0428 19:28:37.501554 21677 net.cpp:86] Creating Layer ip1
I0428 19:28:37.501559 21677 net.cpp:408] ip1 <- data
I0428 19:28:37.501569 21677 net.cpp:382] ip1 -> ip1
I0428 19:28:37.502010 21677 net.cpp:124] Setting up ip1
I0428 19:28:37.502020 21677 net.cpp:131] Top shape: 64 50 (3200)
I0428 19:28:37.502024 21677 net.cpp:139] Memory required for data: 213760
I0428 19:28:37.502038 21677 layer_factory.hpp:77] Creating layer relu1
I0428 19:28:37.502045 21677 net.cpp:86] Creating Layer relu1
I0428 19:28:37.502049 21677 net.cpp:408] relu1 <- ip1
I0428 19:28:37.502054 21677 net.cpp:369] relu1 -> ip1 (in-place)
I0428 19:28:37.789830 21677 net.cpp:124] Setting up relu1
I0428 19:28:37.789860 21677 net.cpp:131] Top shape: 64 50 (3200)
I0428 19:28:37.789865 21677 net.cpp:139] Memory required for data: 226560
I0428 19:28:37.789871 21677 layer_factory.hpp:77] Creating layer ip2
I0428 19:28:37.789885 21677 net.cpp:86] Creating Layer ip2
I0428 19:28:37.789908 21677 net.cpp:408] ip2 <- ip1
I0428 19:28:37.789916 21677 net.cpp:382] ip2 -> ip2
I0428 19:28:37.791007 21677 net.cpp:124] Setting up ip2
I0428 19:28:37.791023 21677 net.cpp:131] Top shape: 64 10 (640)
I0428 19:28:37.791026 21677 net.cpp:139] Memory required for data: 229120
I0428 19:28:37.791038 21677 layer_factory.hpp:77] Creating layer relu2
I0428 19:28:37.791045 21677 net.cpp:86] Creating Layer relu2
I0428 19:28:37.791049 21677 net.cpp:408] relu2 <- ip2
I0428 19:28:37.791056 21677 net.cpp:369] relu2 -> ip2 (in-place)
I0428 19:28:37.791872 21677 net.cpp:124] Setting up relu2
I0428 19:28:37.791887 21677 net.cpp:131] Top shape: 64 10 (640)
I0428 19:28:37.791890 21677 net.cpp:139] Memory required for data: 231680
I0428 19:28:37.791894 21677 layer_factory.hpp:77] Creating layer ip3
I0428 19:28:37.791904 21677 net.cpp:86] Creating Layer ip3
I0428 19:28:37.791909 21677 net.cpp:408] ip3 <- ip2
I0428 19:28:37.791915 21677 net.cpp:382] ip3 -> ip3
I0428 19:28:37.792024 21677 net.cpp:124] Setting up ip3
I0428 19:28:37.792033 21677 net.cpp:131] Top shape: 64 10 (640)
I0428 19:28:37.792037 21677 net.cpp:139] Memory required for data: 234240
I0428 19:28:37.792045 21677 layer_factory.hpp:77] Creating layer relu3
I0428 19:28:37.792052 21677 net.cpp:86] Creating Layer relu3
I0428 19:28:37.792055 21677 net.cpp:408] relu3 <- ip3
I0428 19:28:37.792060 21677 net.cpp:369] relu3 -> ip3 (in-place)
I0428 19:28:37.792232 21677 net.cpp:124] Setting up relu3
I0428 19:28:37.792240 21677 net.cpp:131] Top shape: 64 10 (640)
I0428 19:28:37.792243 21677 net.cpp:139] Memory required for data: 236800
I0428 19:28:37.792248 21677 layer_factory.hpp:77] Creating layer loss
I0428 19:28:37.792253 21677 net.cpp:86] Creating Layer loss
I0428 19:28:37.792256 21677 net.cpp:408] loss <- ip3
I0428 19:28:37.792260 21677 net.cpp:408] loss <- label
I0428 19:28:37.792268 21677 net.cpp:382] loss -> loss
I0428 19:28:37.792289 21677 layer_factory.hpp:77] Creating layer loss
…
I0428 19:28:37.792881 21677 solver.cpp:173] Creating test net (#0) specified by net file: ECE595/mnist/train_test/var_everything2/lenet_train_test31.prototxt
I0428 19:28:37.792907 21677 net.cpp:296] The NetState phase (1) differed from the phase (0) specified by a rule in layer mnist
I0428 19:28:37.792981 21677 net.cpp:53] Initializing net from parameters: 
name: "LeNet"
state {
  phase: TEST
}
layer {
  name: "mnist"
  type: "Data"
  top: "data"
  top: "label"
  include {
    phase: TEST
  }
  transform_param {
    scale: 0.00390625
  }
  data_param {
    source: "examples/mnist/mnist_test_lmdb"
    batch_size: 100
    backend: LMDB
  }
}
layer {
  name: "ip1"
  type: "InnerProduct"
  bottom: "data"
  top: "ip1"
  param {
    lr_mult: 1
  }
  param {
    lr_mult: 2
  }
  inner_product_param {
    num_output: 50
    weight_filler {
      type: "xavier"
    }
    bias_filler {
      type: "constant"
    }
  }
}
layer {
  name: "relu1"
  type: "ReLU"
  bottom: "ip1"
  top: "ip1"
}
layer {
  name: "ip2"
  type: "InnerProduct"
  bottom: "ip1"
  top: "ip2"
  param {
    lr_mult: 1
  }
  param {
    lr_mult: 2
  }
  inner_product_param {
    num_output: 10
    weight_filler {
      type: "xavier"
    }
    bias_filler {
      type: "constant"
    }
  }
}
layer {
  name: "relu2"
  type: "ReLU"
  bottom: "ip2"
  top: "ip2"
}
layer {
  name: "ip3"
  type: "InnerProduct"
  bottom: "ip2"
  top: "ip3"
  param {
    lr_mult: 1
  }
  param {
    lr_mult: 2
  }
  inner_product_param {
    num_output: 10
    weight_filler {
      type: "xavier"
    }
    bias_filler {
      type: "constant"
    }
  }
}
layer {
  name: "relu3"
  type: "ReLU"
  bottom: "ip3"
  top: "ip3"
}
layer {
  name: "accuracy"
  type: "Accuracy"
  bottom: "ip3"
  bottom: "label"
  top: "accuracy"
  include {
    phase: TEST
  }
}
layer {
  name: "loss"
  type: "SoftmaxWithLoss"
  bottom: "ip3"
  bottom: "label"
  top: "loss"
}
I0428 19:28:37.793054 21677 layer_factory.hpp:77] Creating layer mnist
I0428 19:28:37.793100 21677 db_lmdb.cpp:35] Opened lmdb examples/mnist/mnist_test_lmdb
I0428 19:28:37.793114 21677 net.cpp:86] Creating Layer mnist
I0428 19:28:37.793119 21677 net.cpp:382] mnist -> data
I0428 19:28:37.793128 21677 net.cpp:382] mnist -> label
I0428 19:28:37.793218 21677 data_layer.cpp:45] output data size: 100,1,28,28
I0428 19:28:37.795260 21677 net.cpp:124] Setting up mnist
I0428 19:28:37.795274 21677 net.cpp:131] Top shape: 100 1 28 28 (78400)
I0428 19:28:37.795280 21677 net.cpp:131] Top shape: 100 (100)
I0428 19:28:37.795284 21677 net.cpp:139] Memory required for data: 314000
I0428 19:28:37.795289 21677 layer_factory.hpp:77] Creating layer label_mnist_1_split
I0428 19:28:37.795300 21677 net.cpp:86] Creating Layer label_mnist_1_split
I0428 19:28:37.795305 21677 net.cpp:408] label_mnist_1_split <- label
I0428 19:28:37.795310 21677 net.cpp:382] label_mnist_1_split -> label_mnist_1_split_0
I0428 19:28:37.795317 21677 net.cpp:382] label_mnist_1_split -> label_mnist_1_split_1
I0428 19:28:37.795372 21677 net.cpp:124] Setting up label_mnist_1_split
I0428 19:28:37.795378 21677 net.cpp:131] Top shape: 100 (100)
I0428 19:28:37.795382 21677 net.cpp:131] Top shape: 100 (100)
I0428 19:28:37.795387 21677 net.cpp:139] Memory required for data: 314800
I0428 19:28:37.795389 21677 layer_factory.hpp:77] Creating layer ip1
I0428 19:28:37.795397 21677 net.cpp:86] Creating Layer ip1
I0428 19:28:37.795399 21677 net.cpp:408] ip1 <- data
I0428 19:28:37.795404 21677 net.cpp:382] ip1 -> ip1
I0428 19:28:37.795830 21677 net.cpp:124] Setting up ip1
I0428 19:28:37.795840 21677 net.cpp:131] Top shape: 100 50 (5000)
I0428 19:28:37.795843 21677 net.cpp:139] Memory required for data: 334800
I0428 19:28:37.795852 21677 layer_factory.hpp:77] Creating layer relu1
I0428 19:28:37.795858 21677 net.cpp:86] Creating Layer relu1
I0428 19:28:37.795862 21677 net.cpp:408] relu1 <- ip1
I0428 19:28:37.795866 21677 net.cpp:369] relu1 -> ip1 (in-place)
I0428 19:28:37.796856 21677 net.cpp:124] Setting up relu1
I0428 19:28:37.796870 21677 net.cpp:131] Top shape: 100 50 (5000)
I0428 19:28:37.796875 21677 net.cpp:139] Memory required for data: 354800
I0428 19:28:37.796878 21677 layer_factory.hpp:77] Creating layer ip2
I0428 19:28:37.796887 21677 net.cpp:86] Creating Layer ip2
I0428 19:28:37.796891 21677 net.cpp:408] ip2 <- ip1
I0428 19:28:37.796896 21677 net.cpp:382] ip2 -> ip2
I0428 19:28:37.796999 21677 net.cpp:124] Setting up ip2
I0428 19:28:37.797008 21677 net.cpp:131] Top shape: 100 10 (1000)
I0428 19:28:37.797010 21677 net.cpp:139] Memory required for data: 358800
I0428 19:28:37.797019 21677 layer_factory.hpp:77] Creating layer relu2
I0428 19:28:37.797024 21677 net.cpp:86] Creating Layer relu2
I0428 19:28:37.797027 21677 net.cpp:408] relu2 <- ip2
I0428 19:28:37.797031 21677 net.cpp:369] relu2 -> ip2 (in-place)
I0428 19:28:37.797196 21677 net.cpp:124] Setting up relu2
I0428 19:28:37.797205 21677 net.cpp:131] Top shape: 100 10 (1000)
I0428 19:28:37.797209 21677 net.cpp:139] Memory required for data: 362800
I0428 19:28:37.797212 21677 layer_factory.hpp:77] Creating layer ip3
I0428 19:28:37.797219 21677 net.cpp:86] Creating Layer ip3
I0428 19:28:37.797221 21677 net.cpp:408] ip3 <- ip2
I0428 19:28:37.797226 21677 net.cpp:382] ip3 -> ip3
I0428 19:28:37.797346 21677 net.cpp:124] Setting up ip3
I0428 19:28:37.797354 21677 net.cpp:131] Top shape: 100 10 (1000)
I0428 19:28:37.797358 21677 net.cpp:139] Memory required for data: 366800
I0428 19:28:37.797365 21677 layer_factory.hpp:77] Creating layer relu3
I0428 19:28:37.797370 21677 net.cpp:86] Creating Layer relu3
I0428 19:28:37.797374 21677 net.cpp:408] relu3 <- ip3
I0428 19:28:37.797377 21677 net.cpp:369] relu3 -> ip3 (in-place)
I0428 19:28:37.797665 21677 net.cpp:124] Setting up relu3
I0428 19:28:37.797675 21677 net.cpp:131] Top shape: 100 10 (1000)
I0428 19:28:37.797679 21677 net.cpp:139] Memory required for data: 370800
I0428 19:28:37.797683 21677 layer_factory.hpp:77] Creating layer ip3_relu3_0_split
I0428 19:28:37.797689 21677 net.cpp:86] Creating Layer ip3_relu3_0_split
I0428 19:28:37.797693 21677 net.cpp:408] ip3_relu3_0_split <- ip3
I0428 19:28:37.797698 21677 net.cpp:382] ip3_relu3_0_split -> ip3_relu3_0_split_0
I0428 19:28:37.797703 21677 net.cpp:382] ip3_relu3_0_split -> ip3_relu3_0_split_1
I0428 19:28:37.797737 21677 net.cpp:124] Setting up ip3_relu3_0_split
I0428 19:28:37.797744 21677 net.cpp:131] Top shape: 100 10 (1000)
I0428 19:28:37.797749 21677 net.cpp:131] Top shape: 100 10 (1000)
I0428 19:28:37.797752 21677 net.cpp:139] Memory required for data: 378800
I0428 19:28:37.797755 21677 layer_factory.hpp:77] Creating layer accuracy
I0428 19:28:37.797761 21677 net.cpp:86] Creating Layer accuracy
I0428 19:28:37.797765 21677 net.cpp:408] accuracy <- ip3_relu3_0_split_0
I0428 19:28:37.797770 21677 net.cpp:408] accuracy <- label_mnist_1_split_0
I0428 19:28:37.797775 21677 net.cpp:382] accuracy -> accuracy
…
