…
I0428 19:32:15.249089 22792 net.cpp:296] The NetState phase (0) differed from the phase (1) specified by a rule in layer mnist
I0428 19:32:15.249104 22792 net.cpp:296] The NetState phase (0) differed from the phase (1) specified by a rule in layer accuracy
I0428 19:32:15.249207 22792 net.cpp:53] Initializing net from parameters: 
name: "LeNet"
state {
  phase: TRAIN
  level: 0
  stage: ""
}
layer {
  name: "mnist"
  type: "Data"
  top: "data"
  top: "label"
  include {
    phase: TRAIN
  }
  transform_param {
    scale: 0.00390625
  }
  data_param {
    source: "examples/mnist/mnist_train_lmdb"
    batch_size: 64
    backend: LMDB
  }
}
layer {
  name: "conv0"
  type: "Convolution"
  bottom: "data"
  top: "conv0"
  param {
    lr_mult: 1
  }
  param {
    lr_mult: 2
  }
  convolution_param {
    num_output: 10
    kernel_size: 5
    stride: 1
    weight_filler {
      type: "xavier"
    }
    bias_filler {
      type: "constant"
    }
  }
}
layer {
  name: "pool0"
  type: "Pooling"
  bottom: "conv0"
  top: "pool0"
  pooling_param {
    pool: MAX
    kernel_size: 2
    stride: 2
  }
}
layer {
  name: "ip1"
  type: "InnerProduct"
  bottom: "pool0"
  top: "ip1"
  param {
    lr_mult: 1
  }
  param {
    lr_mult: 2
  }
  inner_product_param {
    num_output: 50
    weight_filler {
      type: "xavier"
    }
    bias_filler {
      type: "constant"
    }
  }
}
layer {
  name: "relu1"
  type: "ReLU"
  bottom: "ip1"
  top: "ip1"
}
layer {
  name: "ip2"
  type: "InnerProduct"
  bottom: "ip1"
  top: "ip2"
  param {
    lr_mult: 1
  }
  param {
    lr_mult: 2
  }
  inner_product_param {
    num_output: 10
    weight_filler {
      type: "xavier"
    }
    bias_filler {
      type: "constant"
    }
  }
}
layer {
  name: "relu2"
  type: "ReLU"
  bottom: "ip2"
  top: "ip2"
}
layer {
  name: "ip3"
  type: "InnerProduct"
  bottom: "ip2"
  top: "ip3"
  param {
    lr_mult: 1
  }
  param {
    lr_mult: 2
  }
  inner_product_param {
    num_output: 10
    weight_filler {
      type: "xavier"
    }
    bias_filler {
      type: "constant"
    }
  }
}
layer {
  name: "relu3"
  type: "ReLU"
  bottom: "ip3"
  top: "ip3"
}
layer {
  name: "loss"
  type: "SoftmaxWithLoss"
  bottom: "ip3"
  bottom: "label"
  top: "loss"
}
I0428 19:32:15.249269 22792 layer_factory.hpp:77] Creating layer mnist
I0428 19:32:15.249368 22792 db_lmdb.cpp:35] Opened lmdb examples/mnist/mnist_train_lmdb
I0428 19:32:15.249389 22792 net.cpp:86] Creating Layer mnist
I0428 19:32:15.249395 22792 net.cpp:382] mnist -> data
I0428 19:32:15.249414 22792 net.cpp:382] mnist -> label
I0428 19:32:15.250371 22792 data_layer.cpp:45] output data size: 64,1,28,28
I0428 19:32:15.252694 22792 net.cpp:124] Setting up mnist
I0428 19:32:15.252725 22792 net.cpp:131] Top shape: 64 1 28 28 (50176)
I0428 19:32:15.252732 22792 net.cpp:131] Top shape: 64 (64)
I0428 19:32:15.252735 22792 net.cpp:139] Memory required for data: 200960
I0428 19:32:15.252741 22792 layer_factory.hpp:77] Creating layer conv0
I0428 19:32:15.252769 22792 net.cpp:86] Creating Layer conv0
I0428 19:32:15.252774 22792 net.cpp:408] conv0 <- data
I0428 19:32:15.252785 22792 net.cpp:382] conv0 -> conv0
I0428 19:32:15.485240 22792 net.cpp:124] Setting up conv0
I0428 19:32:15.485268 22792 net.cpp:131] Top shape: 64 10 24 24 (368640)
I0428 19:32:15.485272 22792 net.cpp:139] Memory required for data: 1675520
I0428 19:32:15.485301 22792 layer_factory.hpp:77] Creating layer pool0
I0428 19:32:15.485314 22792 net.cpp:86] Creating Layer pool0
I0428 19:32:15.485333 22792 net.cpp:408] pool0 <- conv0
I0428 19:32:15.485340 22792 net.cpp:382] pool0 -> pool0
I0428 19:32:15.485388 22792 net.cpp:124] Setting up pool0
I0428 19:32:15.485396 22792 net.cpp:131] Top shape: 64 10 12 12 (92160)
I0428 19:32:15.485399 22792 net.cpp:139] Memory required for data: 2044160
I0428 19:32:15.485402 22792 layer_factory.hpp:77] Creating layer ip1
I0428 19:32:15.485410 22792 net.cpp:86] Creating Layer ip1
I0428 19:32:15.485427 22792 net.cpp:408] ip1 <- pool0
I0428 19:32:15.485432 22792 net.cpp:382] ip1 -> ip1
I0428 19:32:15.486739 22792 net.cpp:124] Setting up ip1
I0428 19:32:15.486752 22792 net.cpp:131] Top shape: 64 50 (3200)
I0428 19:32:15.486757 22792 net.cpp:139] Memory required for data: 2056960
I0428 19:32:15.486764 22792 layer_factory.hpp:77] Creating layer relu1
I0428 19:32:15.486771 22792 net.cpp:86] Creating Layer relu1
I0428 19:32:15.486774 22792 net.cpp:408] relu1 <- ip1
I0428 19:32:15.486779 22792 net.cpp:369] relu1 -> ip1 (in-place)
I0428 19:32:15.486939 22792 net.cpp:124] Setting up relu1
I0428 19:32:15.486949 22792 net.cpp:131] Top shape: 64 50 (3200)
I0428 19:32:15.486953 22792 net.cpp:139] Memory required for data: 2069760
I0428 19:32:15.486955 22792 layer_factory.hpp:77] Creating layer ip2
I0428 19:32:15.486963 22792 net.cpp:86] Creating Layer ip2
I0428 19:32:15.486965 22792 net.cpp:408] ip2 <- ip1
I0428 19:32:15.486970 22792 net.cpp:382] ip2 -> ip2
I0428 19:32:15.487067 22792 net.cpp:124] Setting up ip2
I0428 19:32:15.487074 22792 net.cpp:131] Top shape: 64 10 (640)
I0428 19:32:15.487077 22792 net.cpp:139] Memory required for data: 2072320
I0428 19:32:15.487087 22792 layer_factory.hpp:77] Creating layer relu2
I0428 19:32:15.487092 22792 net.cpp:86] Creating Layer relu2
I0428 19:32:15.487094 22792 net.cpp:408] relu2 <- ip2
I0428 19:32:15.487099 22792 net.cpp:369] relu2 -> ip2 (in-place)
I0428 19:32:15.487869 22792 net.cpp:124] Setting up relu2
I0428 19:32:15.487881 22792 net.cpp:131] Top shape: 64 10 (640)
I0428 19:32:15.487885 22792 net.cpp:139] Memory required for data: 2074880
I0428 19:32:15.487889 22792 layer_factory.hpp:77] Creating layer ip3
I0428 19:32:15.487895 22792 net.cpp:86] Creating Layer ip3
I0428 19:32:15.487898 22792 net.cpp:408] ip3 <- ip2
I0428 19:32:15.487905 22792 net.cpp:382] ip3 -> ip3
I0428 19:32:15.488005 22792 net.cpp:124] Setting up ip3
I0428 19:32:15.488011 22792 net.cpp:131] Top shape: 64 10 (640)
I0428 19:32:15.488014 22792 net.cpp:139] Memory required for data: 2077440
I0428 19:32:15.488020 22792 layer_factory.hpp:77] Creating layer relu3
I0428 19:32:15.488026 22792 net.cpp:86] Creating Layer relu3
I0428 19:32:15.488029 22792 net.cpp:408] relu3 <- ip3
I0428 19:32:15.488034 22792 net.cpp:369] relu3 -> ip3 (in-place)
I0428 19:32:15.488188 22792 net.cpp:124] Setting up relu3
I0428 19:32:15.488195 22792 net.cpp:131] Top shape: 64 10 (640)
I0428 19:32:15.488198 22792 net.cpp:139] Memory required for data: 2080000
I0428 19:32:15.488201 22792 layer_factory.hpp:77] Creating layer loss
I0428 19:32:15.488207 22792 net.cpp:86] Creating Layer loss
I0428 19:32:15.488211 22792 net.cpp:408] loss <- ip3
I0428 19:32:15.488216 22792 net.cpp:408] loss <- label
I0428 19:32:15.488221 22792 net.cpp:382] loss -> loss
I0428 19:32:15.488239 22792 layer_factory.hpp:77] Creating layer loss
…
I0428 19:32:15.488857 22792 solver.cpp:173] Creating test net (#0) specified by net file: ECE595/mnist/train_test/var_everything2/lenet_train_test147.prototxt
I0428 19:32:15.488903 22792 net.cpp:296] The NetState phase (1) differed from the phase (0) specified by a rule in layer mnist
I0428 19:32:15.489006 22792 net.cpp:53] Initializing net from parameters: 
name: "LeNet"
state {
  phase: TEST
}
layer {
  name: "mnist"
  type: "Data"
  top: "data"
  top: "label"
  include {
    phase: TEST
  }
  transform_param {
    scale: 0.00390625
  }
  data_param {
    source: "examples/mnist/mnist_test_lmdb"
    batch_size: 100
    backend: LMDB
  }
}
layer {
  name: "conv0"
  type: "Convolution"
  bottom: "data"
  top: "conv0"
  param {
    lr_mult: 1
  }
  param {
    lr_mult: 2
  }
  convolution_param {
    num_output: 10
    kernel_size: 5
    stride: 1
    weight_filler {
      type: "xavier"
    }
    bias_filler {
      type: "constant"
    }
  }
}
layer {
  name: "pool0"
  type: "Pooling"
  bottom: "conv0"
  top: "pool0"
  pooling_param {
    pool: MAX
    kernel_size: 2
    stride: 2
  }
}
layer {
  name: "ip1"
  type: "InnerProduct"
  bottom: "pool0"
  top: "ip1"
  param {
    lr_mult: 1
  }
  param {
    lr_mult: 2
  }
  inner_product_param {
    num_output: 50
    weight_filler {
      type: "xavier"
    }
    bias_filler {
      type: "constant"
    }
  }
}
layer {
  name: "relu1"
  type: "ReLU"
  bottom: "ip1"
  top: "ip1"
}
layer {
  name: "ip2"
  type: "InnerProduct"
  bottom: "ip1"
  top: "ip2"
  param {
    lr_mult: 1
  }
  param {
    lr_mult: 2
  }
  inner_product_param {
    num_output: 10
    weight_filler {
      type: "xavier"
    }
    bias_filler {
      type: "constant"
    }
  }
}
layer {
  name: "relu2"
  type: "ReLU"
  bottom: "ip2"
  top: "ip2"
}
layer {
  name: "ip3"
  type: "InnerProduct"
  bottom: "ip2"
  top: "ip3"
  param {
    lr_mult: 1
  }
  param {
    lr_mult: 2
  }
  inner_product_param {
    num_output: 10
    weight_filler {
      type: "xavier"
    }
    bias_filler {
      type: "constant"
    }
  }
}
layer {
  name: "relu3"
  type: "ReLU"
  bottom: "ip3"
  top: "ip3"
}
layer {
  name: "accuracy"
  type: "Accuracy"
  bottom: "ip3"
  bottom: "label"
  top: "accuracy"
  include {
    phase: TEST
  }
}
layer {
  name: "loss"
  type: "SoftmaxWithLoss"
  bottom: "ip3"
  bottom: "label"
  top: "loss"
}
I0428 19:32:15.489074 22792 layer_factory.hpp:77] Creating layer mnist
I0428 19:32:15.489117 22792 db_lmdb.cpp:35] Opened lmdb examples/mnist/mnist_test_lmdb
I0428 19:32:15.489131 22792 net.cpp:86] Creating Layer mnist
I0428 19:32:15.489136 22792 net.cpp:382] mnist -> data
I0428 19:32:15.489145 22792 net.cpp:382] mnist -> label
I0428 19:32:15.489275 22792 data_layer.cpp:45] output data size: 100,1,28,28
I0428 19:32:15.490622 22792 net.cpp:124] Setting up mnist
I0428 19:32:15.490651 22792 net.cpp:131] Top shape: 100 1 28 28 (78400)
I0428 19:32:15.490656 22792 net.cpp:131] Top shape: 100 (100)
I0428 19:32:15.490660 22792 net.cpp:139] Memory required for data: 314000
I0428 19:32:15.490664 22792 layer_factory.hpp:77] Creating layer label_mnist_1_split
I0428 19:32:15.490690 22792 net.cpp:86] Creating Layer label_mnist_1_split
I0428 19:32:15.490696 22792 net.cpp:408] label_mnist_1_split <- label
I0428 19:32:15.490701 22792 net.cpp:382] label_mnist_1_split -> label_mnist_1_split_0
I0428 19:32:15.490708 22792 net.cpp:382] label_mnist_1_split -> label_mnist_1_split_1
I0428 19:32:15.490752 22792 net.cpp:124] Setting up label_mnist_1_split
I0428 19:32:15.490759 22792 net.cpp:131] Top shape: 100 (100)
I0428 19:32:15.490763 22792 net.cpp:131] Top shape: 100 (100)
I0428 19:32:15.490767 22792 net.cpp:139] Memory required for data: 314800
I0428 19:32:15.490779 22792 layer_factory.hpp:77] Creating layer conv0
I0428 19:32:15.490789 22792 net.cpp:86] Creating Layer conv0
I0428 19:32:15.490793 22792 net.cpp:408] conv0 <- data
I0428 19:32:15.490799 22792 net.cpp:382] conv0 -> conv0
I0428 19:32:15.492595 22792 net.cpp:124] Setting up conv0
I0428 19:32:15.492609 22792 net.cpp:131] Top shape: 100 10 24 24 (576000)
I0428 19:32:15.492612 22792 net.cpp:139] Memory required for data: 2618800
I0428 19:32:15.492621 22792 layer_factory.hpp:77] Creating layer pool0
I0428 19:32:15.492630 22792 net.cpp:86] Creating Layer pool0
I0428 19:32:15.492633 22792 net.cpp:408] pool0 <- conv0
I0428 19:32:15.492638 22792 net.cpp:382] pool0 -> pool0
I0428 19:32:15.492676 22792 net.cpp:124] Setting up pool0
I0428 19:32:15.492682 22792 net.cpp:131] Top shape: 100 10 12 12 (144000)
I0428 19:32:15.492686 22792 net.cpp:139] Memory required for data: 3194800
I0428 19:32:15.492687 22792 layer_factory.hpp:77] Creating layer ip1
I0428 19:32:15.492696 22792 net.cpp:86] Creating Layer ip1
I0428 19:32:15.492698 22792 net.cpp:408] ip1 <- pool0
I0428 19:32:15.492703 22792 net.cpp:382] ip1 -> ip1
I0428 19:32:15.493257 22792 net.cpp:124] Setting up ip1
I0428 19:32:15.493264 22792 net.cpp:131] Top shape: 100 50 (5000)
I0428 19:32:15.493268 22792 net.cpp:139] Memory required for data: 3214800
I0428 19:32:15.493274 22792 layer_factory.hpp:77] Creating layer relu1
I0428 19:32:15.493280 22792 net.cpp:86] Creating Layer relu1
I0428 19:32:15.493283 22792 net.cpp:408] relu1 <- ip1
I0428 19:32:15.493288 22792 net.cpp:369] relu1 -> ip1 (in-place)
I0428 19:32:15.493604 22792 net.cpp:124] Setting up relu1
I0428 19:32:15.493613 22792 net.cpp:131] Top shape: 100 50 (5000)
I0428 19:32:15.493616 22792 net.cpp:139] Memory required for data: 3234800
I0428 19:32:15.493635 22792 layer_factory.hpp:77] Creating layer ip2
I0428 19:32:15.493643 22792 net.cpp:86] Creating Layer ip2
I0428 19:32:15.493646 22792 net.cpp:408] ip2 <- ip1
I0428 19:32:15.493652 22792 net.cpp:382] ip2 -> ip2
I0428 19:32:15.493765 22792 net.cpp:124] Setting up ip2
I0428 19:32:15.493773 22792 net.cpp:131] Top shape: 100 10 (1000)
I0428 19:32:15.493777 22792 net.cpp:139] Memory required for data: 3238800
I0428 19:32:15.493784 22792 layer_factory.hpp:77] Creating layer relu2
I0428 19:32:15.493790 22792 net.cpp:86] Creating Layer relu2
I0428 19:32:15.493793 22792 net.cpp:408] relu2 <- ip2
I0428 19:32:15.493801 22792 net.cpp:369] relu2 -> ip2 (in-place)
I0428 19:32:15.494635 22792 net.cpp:124] Setting up relu2
I0428 19:32:15.494648 22792 net.cpp:131] Top shape: 100 10 (1000)
I0428 19:32:15.494652 22792 net.cpp:139] Memory required for data: 3242800
I0428 19:32:15.494655 22792 layer_factory.hpp:77] Creating layer ip3
I0428 19:32:15.494664 22792 net.cpp:86] Creating Layer ip3
I0428 19:32:15.494668 22792 net.cpp:408] ip3 <- ip2
I0428 19:32:15.494673 22792 net.cpp:382] ip3 -> ip3
I0428 19:32:15.494848 22792 net.cpp:124] Setting up ip3
I0428 19:32:15.494856 22792 net.cpp:131] Top shape: 100 10 (1000)
I0428 19:32:15.494860 22792 net.cpp:139] Memory required for data: 3246800
I0428 19:32:15.494865 22792 layer_factory.hpp:77] Creating layer relu3
I0428 19:32:15.494871 22792 net.cpp:86] Creating Layer relu3
I0428 19:32:15.494880 22792 net.cpp:408] relu3 <- ip3
I0428 19:32:15.494887 22792 net.cpp:369] relu3 -> ip3 (in-place)
I0428 19:32:15.495085 22792 net.cpp:124] Setting up relu3
I0428 19:32:15.495093 22792 net.cpp:131] Top shape: 100 10 (1000)
I0428 19:32:15.495096 22792 net.cpp:139] Memory required for data: 3250800
I0428 19:32:15.495100 22792 layer_factory.hpp:77] Creating layer ip3_relu3_0_split
I0428 19:32:15.495103 22792 net.cpp:86] Creating Layer ip3_relu3_0_split
I0428 19:32:15.495106 22792 net.cpp:408] ip3_relu3_0_split <- ip3
I0428 19:32:15.495112 22792 net.cpp:382] ip3_relu3_0_split -> ip3_relu3_0_split_0
I0428 19:32:15.495117 22792 net.cpp:382] ip3_relu3_0_split -> ip3_relu3_0_split_1
I0428 19:32:15.495152 22792 net.cpp:124] Setting up ip3_relu3_0_split
I0428 19:32:15.495158 22792 net.cpp:131] Top shape: 100 10 (1000)
I0428 19:32:15.495162 22792 net.cpp:131] Top shape: 100 10 (1000)
I0428 19:32:15.495174 22792 net.cpp:139] Memory required for data: 3258800
I0428 19:32:15.495177 22792 layer_factory.hpp:77] Creating layer accuracy
I0428 19:32:15.495182 22792 net.cpp:86] Creating Layer accuracy
I0428 19:32:15.495185 22792 net.cpp:408] accuracy <- ip3_relu3_0_split_0
I0428 19:32:15.495189 22792 net.cpp:408] accuracy <- label_mnist_1_split_0
I0428 19:32:15.495195 22792 net.cpp:382] accuracy -> accuracy
…
