…
I0428 19:57:51.680331 28827 net.cpp:296] The NetState phase (0) differed from the phase (1) specified by a rule in layer mnist
I0428 19:57:51.680349 28827 net.cpp:296] The NetState phase (0) differed from the phase (1) specified by a rule in layer accuracy
I0428 19:57:51.680433 28827 net.cpp:53] Initializing net from parameters: 
name: "LeNet"
state {
  phase: TRAIN
  level: 0
  stage: ""
}
layer {
  name: "mnist"
  type: "Data"
  top: "data"
  top: "label"
  include {
    phase: TRAIN
  }
  transform_param {
    scale: 0.00390625
  }
  data_param {
    source: "examples/mnist/mnist_train_lmdb"
    batch_size: 64
    backend: LMDB
  }
}
layer {
  name: "conv0"
  type: "Convolution"
  bottom: "data"
  top: "conv0"
  param {
    lr_mult: 1
  }
  param {
    lr_mult: 2
  }
  convolution_param {
    num_output: 10
    kernel_size: 5
    stride: 1
    weight_filler {
      type: "xavier"
    }
    bias_filler {
      type: "constant"
    }
  }
}
layer {
  name: "pool0"
  type: "Pooling"
  bottom: "conv0"
  top: "pool0"
  pooling_param {
    pool: MAX
    kernel_size: 2
    stride: 2
  }
}
layer {
  name: "conv1"
  type: "Convolution"
  bottom: "pool0"
  top: "conv1"
  param {
    lr_mult: 1
  }
  param {
    lr_mult: 2
  }
  convolution_param {
    num_output: 5
    kernel_size: 5
    stride: 1
    weight_filler {
      type: "xavier"
    }
    bias_filler {
      type: "constant"
    }
  }
}
layer {
  name: "pool1"
  type: "Pooling"
  bottom: "conv1"
  top: "pool1"
  pooling_param {
    pool: MAX
    kernel_size: 2
    stride: 2
  }
}
layer {
  name: "ip1"
  type: "InnerProduct"
  bottom: "pool1"
  top: "ip1"
  param {
    lr_mult: 1
  }
  param {
    lr_mult: 2
  }
  inner_product_param {
    num_output: 25
    weight_filler {
      type: "xavier"
    }
    bias_filler {
      type: "constant"
    }
  }
}
layer {
  name: "relu1"
  type: "ReLU"
  bottom: "ip1"
  top: "ip1"
}
layer {
  name: "ip2"
  type: "InnerProduct"
  bottom: "ip1"
  top: "ip2"
  param {
    lr_mult: 1
  }
  param {
    lr_mult: 2
  }
  inner_product_param {
    num_output: 10
    weight_filler {
      type: "xavier"
    }
    bias_filler {
      type: "constant"
    }
  }
}
layer {
  name: "relu2"
  type: "ReLU"
  bottom: "ip2"
  top: "ip2"
}
layer {
  name: "ip3"
  type: "InnerProduct"
  bottom: "ip2"
  top: "ip3"
  param {
    lr_mult: 1
  }
  param {
    lr_mult: 2
  }
  inner_product_param {
    num_output: 10
    weight_filler {
      type: "xavier"
    }
    bias_filler {
      type: "constant"
    }
  }
}
layer {
  name: "relu3"
  type: "ReLU"
  bottom: "ip3"
  top: "ip3"
}
layer {
  name: "loss"
  type: "SoftmaxWithLoss"
  bottom: "ip3"
  bottom: "label"
  top: "loss"
}
I0428 19:57:51.680513 28827 layer_factory.hpp:77] Creating layer mnist
I0428 19:57:51.680620 28827 db_lmdb.cpp:35] Opened lmdb examples/mnist/mnist_train_lmdb
I0428 19:57:51.680647 28827 net.cpp:86] Creating Layer mnist
I0428 19:57:51.680656 28827 net.cpp:382] mnist -> data
I0428 19:57:51.680680 28827 net.cpp:382] mnist -> label
I0428 19:57:51.681885 28827 data_layer.cpp:45] output data size: 64,1,28,28
I0428 19:57:51.684092 28827 net.cpp:124] Setting up mnist
I0428 19:57:51.684124 28827 net.cpp:131] Top shape: 64 1 28 28 (50176)
I0428 19:57:51.684131 28827 net.cpp:131] Top shape: 64 (64)
I0428 19:57:51.684136 28827 net.cpp:139] Memory required for data: 200960
I0428 19:57:51.684145 28827 layer_factory.hpp:77] Creating layer conv0
I0428 19:57:51.684164 28827 net.cpp:86] Creating Layer conv0
I0428 19:57:51.684182 28827 net.cpp:408] conv0 <- data
I0428 19:57:51.684197 28827 net.cpp:382] conv0 -> conv0
I0428 19:57:51.919143 28827 net.cpp:124] Setting up conv0
I0428 19:57:51.919172 28827 net.cpp:131] Top shape: 64 10 24 24 (368640)
I0428 19:57:51.919178 28827 net.cpp:139] Memory required for data: 1675520
I0428 19:57:51.919212 28827 layer_factory.hpp:77] Creating layer pool0
I0428 19:57:51.919229 28827 net.cpp:86] Creating Layer pool0
I0428 19:57:51.919242 28827 net.cpp:408] pool0 <- conv0
I0428 19:57:51.919251 28827 net.cpp:382] pool0 -> pool0
I0428 19:57:51.919307 28827 net.cpp:124] Setting up pool0
I0428 19:57:51.919317 28827 net.cpp:131] Top shape: 64 10 12 12 (92160)
I0428 19:57:51.919322 28827 net.cpp:139] Memory required for data: 2044160
I0428 19:57:51.919327 28827 layer_factory.hpp:77] Creating layer conv1
I0428 19:57:51.919342 28827 net.cpp:86] Creating Layer conv1
I0428 19:57:51.919348 28827 net.cpp:408] conv1 <- pool0
I0428 19:57:51.919358 28827 net.cpp:382] conv1 -> conv1
I0428 19:57:51.922258 28827 net.cpp:124] Setting up conv1
I0428 19:57:51.922274 28827 net.cpp:131] Top shape: 64 5 8 8 (20480)
I0428 19:57:51.922279 28827 net.cpp:139] Memory required for data: 2126080
I0428 19:57:51.922307 28827 layer_factory.hpp:77] Creating layer pool1
I0428 19:57:51.922318 28827 net.cpp:86] Creating Layer pool1
I0428 19:57:51.922323 28827 net.cpp:408] pool1 <- conv1
I0428 19:57:51.922334 28827 net.cpp:382] pool1 -> pool1
I0428 19:57:51.922379 28827 net.cpp:124] Setting up pool1
I0428 19:57:51.922389 28827 net.cpp:131] Top shape: 64 5 4 4 (5120)
I0428 19:57:51.922394 28827 net.cpp:139] Memory required for data: 2146560
I0428 19:57:51.922399 28827 layer_factory.hpp:77] Creating layer ip1
I0428 19:57:51.922410 28827 net.cpp:86] Creating Layer ip1
I0428 19:57:51.922418 28827 net.cpp:408] ip1 <- pool1
I0428 19:57:51.922428 28827 net.cpp:382] ip1 -> ip1
I0428 19:57:51.922552 28827 net.cpp:124] Setting up ip1
I0428 19:57:51.922561 28827 net.cpp:131] Top shape: 64 25 (1600)
I0428 19:57:51.922565 28827 net.cpp:139] Memory required for data: 2152960
I0428 19:57:51.922577 28827 layer_factory.hpp:77] Creating layer relu1
I0428 19:57:51.922590 28827 net.cpp:86] Creating Layer relu1
I0428 19:57:51.922595 28827 net.cpp:408] relu1 <- ip1
I0428 19:57:51.922602 28827 net.cpp:369] relu1 -> ip1 (in-place)
I0428 19:57:51.922791 28827 net.cpp:124] Setting up relu1
I0428 19:57:51.922801 28827 net.cpp:131] Top shape: 64 25 (1600)
I0428 19:57:51.922806 28827 net.cpp:139] Memory required for data: 2159360
I0428 19:57:51.922811 28827 layer_factory.hpp:77] Creating layer ip2
I0428 19:57:51.922822 28827 net.cpp:86] Creating Layer ip2
I0428 19:57:51.922828 28827 net.cpp:408] ip2 <- ip1
I0428 19:57:51.922837 28827 net.cpp:382] ip2 -> ip2
I0428 19:57:51.922955 28827 net.cpp:124] Setting up ip2
I0428 19:57:51.922965 28827 net.cpp:131] Top shape: 64 10 (640)
I0428 19:57:51.922969 28827 net.cpp:139] Memory required for data: 2161920
I0428 19:57:51.922978 28827 layer_factory.hpp:77] Creating layer relu2
I0428 19:57:51.922987 28827 net.cpp:86] Creating Layer relu2
I0428 19:57:51.922993 28827 net.cpp:408] relu2 <- ip2
I0428 19:57:51.923002 28827 net.cpp:369] relu2 -> ip2 (in-place)
I0428 19:57:51.923799 28827 net.cpp:124] Setting up relu2
I0428 19:57:51.923825 28827 net.cpp:131] Top shape: 64 10 (640)
I0428 19:57:51.923830 28827 net.cpp:139] Memory required for data: 2164480
I0428 19:57:51.923835 28827 layer_factory.hpp:77] Creating layer ip3
I0428 19:57:51.923847 28827 net.cpp:86] Creating Layer ip3
I0428 19:57:51.923853 28827 net.cpp:408] ip3 <- ip2
I0428 19:57:51.923861 28827 net.cpp:382] ip3 -> ip3
I0428 19:57:51.923988 28827 net.cpp:124] Setting up ip3
I0428 19:57:51.923998 28827 net.cpp:131] Top shape: 64 10 (640)
I0428 19:57:51.924003 28827 net.cpp:139] Memory required for data: 2167040
I0428 19:57:51.924016 28827 layer_factory.hpp:77] Creating layer relu3
I0428 19:57:51.924028 28827 net.cpp:86] Creating Layer relu3
I0428 19:57:51.924036 28827 net.cpp:408] relu3 <- ip3
I0428 19:57:51.924042 28827 net.cpp:369] relu3 -> ip3 (in-place)
I0428 19:57:51.924247 28827 net.cpp:124] Setting up relu3
I0428 19:57:51.924257 28827 net.cpp:131] Top shape: 64 10 (640)
I0428 19:57:51.924263 28827 net.cpp:139] Memory required for data: 2169600
I0428 19:57:51.924268 28827 layer_factory.hpp:77] Creating layer loss
I0428 19:57:51.924278 28827 net.cpp:86] Creating Layer loss
I0428 19:57:51.924283 28827 net.cpp:408] loss <- ip3
I0428 19:57:51.924289 28827 net.cpp:408] loss <- label
I0428 19:57:51.924296 28827 net.cpp:382] loss -> loss
I0428 19:57:51.924316 28827 layer_factory.hpp:77] Creating layer loss
…
I0428 19:57:51.925081 28827 solver.cpp:173] Creating test net (#0) specified by net file: ECE595/mnist/train_test/var_everything2/lenet_train_test801.prototxt
I0428 19:57:51.925132 28827 net.cpp:296] The NetState phase (1) differed from the phase (0) specified by a rule in layer mnist
I0428 19:57:51.925246 28827 net.cpp:53] Initializing net from parameters: 
name: "LeNet"
state {
  phase: TEST
}
layer {
  name: "mnist"
  type: "Data"
  top: "data"
  top: "label"
  include {
    phase: TEST
  }
  transform_param {
    scale: 0.00390625
  }
  data_param {
    source: "examples/mnist/mnist_test_lmdb"
    batch_size: 100
    backend: LMDB
  }
}
layer {
  name: "conv0"
  type: "Convolution"
  bottom: "data"
  top: "conv0"
  param {
    lr_mult: 1
  }
  param {
    lr_mult: 2
  }
  convolution_param {
    num_output: 10
    kernel_size: 5
    stride: 1
    weight_filler {
      type: "xavier"
    }
    bias_filler {
      type: "constant"
    }
  }
}
layer {
  name: "pool0"
  type: "Pooling"
  bottom: "conv0"
  top: "pool0"
  pooling_param {
    pool: MAX
    kernel_size: 2
    stride: 2
  }
}
layer {
  name: "conv1"
  type: "Convolution"
  bottom: "pool0"
  top: "conv1"
  param {
    lr_mult: 1
  }
  param {
    lr_mult: 2
  }
  convolution_param {
    num_output: 5
    kernel_size: 5
    stride: 1
    weight_filler {
      type: "xavier"
    }
    bias_filler {
      type: "constant"
    }
  }
}
layer {
  name: "pool1"
  type: "Pooling"
  bottom: "conv1"
  top: "pool1"
  pooling_param {
    pool: MAX
    kernel_size: 2
    stride: 2
  }
}
layer {
  name: "ip1"
  type: "InnerProduct"
  bottom: "pool1"
  top: "ip1"
  param {
    lr_mult: 1
  }
  param {
    lr_mult: 2
  }
  inner_product_param {
    num_output: 25
    weight_filler {
      type: "xavier"
    }
    bias_filler {
      type: "constant"
    }
  }
}
layer {
  name: "relu1"
  type: "ReLU"
  bottom: "ip1"
  top: "ip1"
}
layer {
  name: "ip2"
  type: "InnerProduct"
  bottom: "ip1"
  top: "ip2"
  param {
    lr_mult: 1
  }
  param {
    lr_mult: 2
  }
  inner_product_param {
    num_output: 10
    weight_filler {
      type: "xavier"
    }
    bias_filler {
      type: "constant"
    }
  }
}
layer {
  name: "relu2"
  type: "ReLU"
  bottom: "ip2"
  top: "ip2"
}
layer {
  name: "ip3"
  type: "InnerProduct"
  bottom: "ip2"
  top: "ip3"
  param {
    lr_mult: 1
  }
  param {
    lr_mult: 2
  }
  inner_product_param {
    num_output: 10
    weight_filler {
      type: "xavier"
    }
    bias_filler {
      type: "constant"
    }
  }
}
layer {
  name: "relu3"
  type: "ReLU"
  bottom: "ip3"
  top: "ip3"
}
layer {
  name: "accuracy"
  type: "Accuracy"
  bottom: "ip3"
  bottom: "label"
  top: "accuracy"
  include {
    phase: TEST
  }
}
layer {
  name: "loss"
  type: "SoftmaxWithLoss"
  bottom: "ip3"
  bottom: "label"
  top: "loss"
}
I0428 19:57:51.925365 28827 layer_factory.hpp:77] Creating layer mnist
I0428 19:57:51.925439 28827 db_lmdb.cpp:35] Opened lmdb examples/mnist/mnist_test_lmdb
I0428 19:57:51.925457 28827 net.cpp:86] Creating Layer mnist
I0428 19:57:51.925467 28827 net.cpp:382] mnist -> data
I0428 19:57:51.925478 28827 net.cpp:382] mnist -> label
I0428 19:57:51.925598 28827 data_layer.cpp:45] output data size: 100,1,28,28
I0428 19:57:51.927880 28827 net.cpp:124] Setting up mnist
I0428 19:57:51.927894 28827 net.cpp:131] Top shape: 100 1 28 28 (78400)
I0428 19:57:51.927901 28827 net.cpp:131] Top shape: 100 (100)
I0428 19:57:51.927906 28827 net.cpp:139] Memory required for data: 314000
I0428 19:57:51.927927 28827 layer_factory.hpp:77] Creating layer label_mnist_1_split
I0428 19:57:51.927953 28827 net.cpp:86] Creating Layer label_mnist_1_split
I0428 19:57:51.927958 28827 net.cpp:408] label_mnist_1_split <- label
I0428 19:57:51.927969 28827 net.cpp:382] label_mnist_1_split -> label_mnist_1_split_0
I0428 19:57:51.927981 28827 net.cpp:382] label_mnist_1_split -> label_mnist_1_split_1
I0428 19:57:51.928094 28827 net.cpp:124] Setting up label_mnist_1_split
I0428 19:57:51.928104 28827 net.cpp:131] Top shape: 100 (100)
I0428 19:57:51.928110 28827 net.cpp:131] Top shape: 100 (100)
I0428 19:57:51.928115 28827 net.cpp:139] Memory required for data: 314800
I0428 19:57:51.928122 28827 layer_factory.hpp:77] Creating layer conv0
I0428 19:57:51.928139 28827 net.cpp:86] Creating Layer conv0
I0428 19:57:51.928148 28827 net.cpp:408] conv0 <- data
I0428 19:57:51.928158 28827 net.cpp:382] conv0 -> conv0
I0428 19:57:51.929837 28827 net.cpp:124] Setting up conv0
I0428 19:57:51.929853 28827 net.cpp:131] Top shape: 100 10 24 24 (576000)
I0428 19:57:51.929858 28827 net.cpp:139] Memory required for data: 2618800
I0428 19:57:51.929872 28827 layer_factory.hpp:77] Creating layer pool0
I0428 19:57:51.929898 28827 net.cpp:86] Creating Layer pool0
I0428 19:57:51.929904 28827 net.cpp:408] pool0 <- conv0
I0428 19:57:51.929913 28827 net.cpp:382] pool0 -> pool0
I0428 19:57:51.929953 28827 net.cpp:124] Setting up pool0
I0428 19:57:51.929962 28827 net.cpp:131] Top shape: 100 10 12 12 (144000)
I0428 19:57:51.929966 28827 net.cpp:139] Memory required for data: 3194800
I0428 19:57:51.929971 28827 layer_factory.hpp:77] Creating layer conv1
I0428 19:57:51.929985 28827 net.cpp:86] Creating Layer conv1
I0428 19:57:51.929991 28827 net.cpp:408] conv1 <- pool0
I0428 19:57:51.930022 28827 net.cpp:382] conv1 -> conv1
I0428 19:57:51.932296 28827 net.cpp:124] Setting up conv1
I0428 19:57:51.932312 28827 net.cpp:131] Top shape: 100 5 8 8 (32000)
I0428 19:57:51.932318 28827 net.cpp:139] Memory required for data: 3322800
I0428 19:57:51.932348 28827 layer_factory.hpp:77] Creating layer pool1
I0428 19:57:51.932356 28827 net.cpp:86] Creating Layer pool1
I0428 19:57:51.932376 28827 net.cpp:408] pool1 <- conv1
I0428 19:57:51.932384 28827 net.cpp:382] pool1 -> pool1
I0428 19:57:51.932472 28827 net.cpp:124] Setting up pool1
I0428 19:57:51.932482 28827 net.cpp:131] Top shape: 100 5 4 4 (8000)
I0428 19:57:51.932487 28827 net.cpp:139] Memory required for data: 3354800
I0428 19:57:51.932492 28827 layer_factory.hpp:77] Creating layer ip1
I0428 19:57:51.932505 28827 net.cpp:86] Creating Layer ip1
I0428 19:57:51.932512 28827 net.cpp:408] ip1 <- pool1
I0428 19:57:51.932521 28827 net.cpp:382] ip1 -> ip1
I0428 19:57:51.932652 28827 net.cpp:124] Setting up ip1
I0428 19:57:51.932663 28827 net.cpp:131] Top shape: 100 25 (2500)
I0428 19:57:51.932679 28827 net.cpp:139] Memory required for data: 3364800
I0428 19:57:51.932693 28827 layer_factory.hpp:77] Creating layer relu1
I0428 19:57:51.932703 28827 net.cpp:86] Creating Layer relu1
I0428 19:57:51.932708 28827 net.cpp:408] relu1 <- ip1
I0428 19:57:51.932718 28827 net.cpp:369] relu1 -> ip1 (in-place)
I0428 19:57:51.933017 28827 net.cpp:124] Setting up relu1
I0428 19:57:51.933030 28827 net.cpp:131] Top shape: 100 25 (2500)
I0428 19:57:51.933037 28827 net.cpp:139] Memory required for data: 3374800
I0428 19:57:51.933043 28827 layer_factory.hpp:77] Creating layer ip2
I0428 19:57:51.933054 28827 net.cpp:86] Creating Layer ip2
I0428 19:57:51.933060 28827 net.cpp:408] ip2 <- ip1
I0428 19:57:51.933071 28827 net.cpp:382] ip2 -> ip2
I0428 19:57:51.933213 28827 net.cpp:124] Setting up ip2
I0428 19:57:51.933223 28827 net.cpp:131] Top shape: 100 10 (1000)
I0428 19:57:51.933228 28827 net.cpp:139] Memory required for data: 3378800
I0428 19:57:51.933236 28827 layer_factory.hpp:77] Creating layer relu2
I0428 19:57:51.933244 28827 net.cpp:86] Creating Layer relu2
I0428 19:57:51.933249 28827 net.cpp:408] relu2 <- ip2
I0428 19:57:51.933255 28827 net.cpp:369] relu2 -> ip2 (in-place)
I0428 19:57:51.933444 28827 net.cpp:124] Setting up relu2
I0428 19:57:51.933455 28827 net.cpp:131] Top shape: 100 10 (1000)
I0428 19:57:51.933461 28827 net.cpp:139] Memory required for data: 3382800
I0428 19:57:51.933466 28827 layer_factory.hpp:77] Creating layer ip3
I0428 19:57:51.933490 28827 net.cpp:86] Creating Layer ip3
I0428 19:57:51.933495 28827 net.cpp:408] ip3 <- ip2
I0428 19:57:51.933521 28827 net.cpp:382] ip3 -> ip3
I0428 19:57:51.933634 28827 net.cpp:124] Setting up ip3
I0428 19:57:51.933643 28827 net.cpp:131] Top shape: 100 10 (1000)
I0428 19:57:51.933650 28827 net.cpp:139] Memory required for data: 3386800
I0428 19:57:51.933662 28827 layer_factory.hpp:77] Creating layer relu3
I0428 19:57:51.933673 28827 net.cpp:86] Creating Layer relu3
I0428 19:57:51.933681 28827 net.cpp:408] relu3 <- ip3
I0428 19:57:51.933689 28827 net.cpp:369] relu3 -> ip3 (in-place)
I0428 19:57:51.934552 28827 net.cpp:124] Setting up relu3
I0428 19:57:51.934581 28827 net.cpp:131] Top shape: 100 10 (1000)
I0428 19:57:51.934587 28827 net.cpp:139] Memory required for data: 3390800
I0428 19:57:51.934592 28827 layer_factory.hpp:77] Creating layer ip3_relu3_0_split
I0428 19:57:51.934614 28827 net.cpp:86] Creating Layer ip3_relu3_0_split
I0428 19:57:51.934623 28827 net.cpp:408] ip3_relu3_0_split <- ip3
I0428 19:57:51.934630 28827 net.cpp:382] ip3_relu3_0_split -> ip3_relu3_0_split_0
I0428 19:57:51.934640 28827 net.cpp:382] ip3_relu3_0_split -> ip3_relu3_0_split_1
I0428 19:57:51.934701 28827 net.cpp:124] Setting up ip3_relu3_0_split
I0428 19:57:51.934711 28827 net.cpp:131] Top shape: 100 10 (1000)
I0428 19:57:51.934718 28827 net.cpp:131] Top shape: 100 10 (1000)
I0428 19:57:51.934723 28827 net.cpp:139] Memory required for data: 3398800
I0428 19:57:51.934728 28827 layer_factory.hpp:77] Creating layer accuracy
I0428 19:57:51.934751 28827 net.cpp:86] Creating Layer accuracy
I0428 19:57:51.934765 28827 net.cpp:408] accuracy <- ip3_relu3_0_split_0
I0428 19:57:51.934773 28827 net.cpp:408] accuracy <- label_mnist_1_split_0
I0428 19:57:51.934788 28827 net.cpp:382] accuracy -> accuracy
…
