…
I0428 20:37:48.311640  5040 net.cpp:296] The NetState phase (0) differed from the phase (1) specified by a rule in layer mnist
I0428 20:37:48.311656  5040 net.cpp:296] The NetState phase (0) differed from the phase (1) specified by a rule in layer accuracy
I0428 20:37:48.311735  5040 net.cpp:53] Initializing net from parameters: 
name: "LeNet"
state {
  phase: TRAIN
  level: 0
  stage: ""
}
layer {
  name: "mnist"
  type: "Data"
  top: "data"
  top: "label"
  include {
    phase: TRAIN
  }
  transform_param {
    scale: 0.00390625
  }
  data_param {
    source: "examples/mnist/mnist_train_lmdb"
    batch_size: 64
    backend: LMDB
  }
}
layer {
  name: "conv0"
  type: "Convolution"
  bottom: "data"
  top: "conv0"
  param {
    lr_mult: 1
  }
  param {
    lr_mult: 2
  }
  convolution_param {
    num_output: 100
    kernel_size: 5
    stride: 1
    weight_filler {
      type: "xavier"
    }
    bias_filler {
      type: "constant"
    }
  }
}
layer {
  name: "pool0"
  type: "Pooling"
  bottom: "conv0"
  top: "pool0"
  pooling_param {
    pool: MAX
    kernel_size: 2
    stride: 2
  }
}
layer {
  name: "conv1"
  type: "Convolution"
  bottom: "pool0"
  top: "conv1"
  param {
    lr_mult: 1
  }
  param {
    lr_mult: 2
  }
  convolution_param {
    num_output: 100
    kernel_size: 5
    stride: 1
    weight_filler {
      type: "xavier"
    }
    bias_filler {
      type: "constant"
    }
  }
}
layer {
  name: "pool1"
  type: "Pooling"
  bottom: "conv1"
  top: "pool1"
  pooling_param {
    pool: MAX
    kernel_size: 2
    stride: 2
  }
}
layer {
  name: "ip1"
  type: "InnerProduct"
  bottom: "pool1"
  top: "ip1"
  param {
    lr_mult: 1
  }
  param {
    lr_mult: 2
  }
  inner_product_param {
    num_output: 10
    weight_filler {
      type: "xavier"
    }
    bias_filler {
      type: "constant"
    }
  }
}
layer {
  name: "relu1"
  type: "ReLU"
  bottom: "ip1"
  top: "ip1"
}
layer {
  name: "ip2"
  type: "InnerProduct"
  bottom: "ip1"
  top: "ip2"
  param {
    lr_mult: 1
  }
  param {
    lr_mult: 2
  }
  inner_product_param {
    num_output: 50
    weight_filler {
      type: "xavier"
    }
    bias_filler {
      type: "constant"
    }
  }
}
layer {
  name: "relu2"
  type: "ReLU"
  bottom: "ip2"
  top: "ip2"
}
layer {
  name: "ip3"
  type: "InnerProduct"
  bottom: "ip2"
  top: "ip3"
  param {
    lr_mult: 1
  }
  param {
    lr_mult: 2
  }
  inner_product_param {
    num_output: 10
    weight_filler {
      type: "xavier"
    }
    bias_filler {
      type: "constant"
    }
  }
}
layer {
  name: "relu3"
  type: "ReLU"
  bottom: "ip3"
  top: "ip3"
}
layer {
  name: "loss"
  type: "SoftmaxWithLoss"
  bottom: "ip3"
  bottom: "label"
  top: "loss"
}
I0428 20:37:48.311799  5040 layer_factory.hpp:77] Creating layer mnist
I0428 20:37:48.311877  5040 db_lmdb.cpp:35] Opened lmdb examples/mnist/mnist_train_lmdb
I0428 20:37:48.311898  5040 net.cpp:86] Creating Layer mnist
I0428 20:37:48.311903  5040 net.cpp:382] mnist -> data
I0428 20:37:48.311923  5040 net.cpp:382] mnist -> label
I0428 20:37:48.312862  5040 data_layer.cpp:45] output data size: 64,1,28,28
I0428 20:37:48.315011  5040 net.cpp:124] Setting up mnist
I0428 20:37:48.315040  5040 net.cpp:131] Top shape: 64 1 28 28 (50176)
I0428 20:37:48.315047  5040 net.cpp:131] Top shape: 64 (64)
I0428 20:37:48.315052  5040 net.cpp:139] Memory required for data: 200960
I0428 20:37:48.315057  5040 layer_factory.hpp:77] Creating layer conv0
I0428 20:37:48.315068  5040 net.cpp:86] Creating Layer conv0
I0428 20:37:48.315100  5040 net.cpp:408] conv0 <- data
I0428 20:37:48.315110  5040 net.cpp:382] conv0 -> conv0
I0428 20:37:48.542485  5040 net.cpp:124] Setting up conv0
I0428 20:37:48.542524  5040 net.cpp:131] Top shape: 64 100 24 24 (3686400)
I0428 20:37:48.542528  5040 net.cpp:139] Memory required for data: 14946560
I0428 20:37:48.542543  5040 layer_factory.hpp:77] Creating layer pool0
I0428 20:37:48.542556  5040 net.cpp:86] Creating Layer pool0
I0428 20:37:48.542559  5040 net.cpp:408] pool0 <- conv0
I0428 20:37:48.542564  5040 net.cpp:382] pool0 -> pool0
I0428 20:37:48.542639  5040 net.cpp:124] Setting up pool0
I0428 20:37:48.542644  5040 net.cpp:131] Top shape: 64 100 12 12 (921600)
I0428 20:37:48.542646  5040 net.cpp:139] Memory required for data: 18632960
I0428 20:37:48.542649  5040 layer_factory.hpp:77] Creating layer conv1
I0428 20:37:48.542659  5040 net.cpp:86] Creating Layer conv1
I0428 20:37:48.542662  5040 net.cpp:408] conv1 <- pool0
I0428 20:37:48.542666  5040 net.cpp:382] conv1 -> conv1
I0428 20:37:48.546643  5040 net.cpp:124] Setting up conv1
I0428 20:37:48.546671  5040 net.cpp:131] Top shape: 64 100 8 8 (409600)
I0428 20:37:48.546675  5040 net.cpp:139] Memory required for data: 20271360
I0428 20:37:48.546684  5040 layer_factory.hpp:77] Creating layer pool1
I0428 20:37:48.546705  5040 net.cpp:86] Creating Layer pool1
I0428 20:37:48.546710  5040 net.cpp:408] pool1 <- conv1
I0428 20:37:48.546713  5040 net.cpp:382] pool1 -> pool1
I0428 20:37:48.546766  5040 net.cpp:124] Setting up pool1
I0428 20:37:48.546772  5040 net.cpp:131] Top shape: 64 100 4 4 (102400)
I0428 20:37:48.546775  5040 net.cpp:139] Memory required for data: 20680960
I0428 20:37:48.546778  5040 layer_factory.hpp:77] Creating layer ip1
I0428 20:37:48.546785  5040 net.cpp:86] Creating Layer ip1
I0428 20:37:48.546788  5040 net.cpp:408] ip1 <- pool1
I0428 20:37:48.546793  5040 net.cpp:382] ip1 -> ip1
I0428 20:37:48.547821  5040 net.cpp:124] Setting up ip1
I0428 20:37:48.547834  5040 net.cpp:131] Top shape: 64 10 (640)
I0428 20:37:48.547853  5040 net.cpp:139] Memory required for data: 20683520
I0428 20:37:48.547863  5040 layer_factory.hpp:77] Creating layer relu1
I0428 20:37:48.547868  5040 net.cpp:86] Creating Layer relu1
I0428 20:37:48.547871  5040 net.cpp:408] relu1 <- ip1
I0428 20:37:48.547876  5040 net.cpp:369] relu1 -> ip1 (in-place)
I0428 20:37:48.548056  5040 net.cpp:124] Setting up relu1
I0428 20:37:48.548066  5040 net.cpp:131] Top shape: 64 10 (640)
I0428 20:37:48.548069  5040 net.cpp:139] Memory required for data: 20686080
I0428 20:37:48.548072  5040 layer_factory.hpp:77] Creating layer ip2
I0428 20:37:48.548079  5040 net.cpp:86] Creating Layer ip2
I0428 20:37:48.548082  5040 net.cpp:408] ip2 <- ip1
I0428 20:37:48.548089  5040 net.cpp:382] ip2 -> ip2
I0428 20:37:48.548202  5040 net.cpp:124] Setting up ip2
I0428 20:37:48.548209  5040 net.cpp:131] Top shape: 64 50 (3200)
I0428 20:37:48.548213  5040 net.cpp:139] Memory required for data: 20698880
I0428 20:37:48.548218  5040 layer_factory.hpp:77] Creating layer relu2
I0428 20:37:48.548223  5040 net.cpp:86] Creating Layer relu2
I0428 20:37:48.548226  5040 net.cpp:408] relu2 <- ip2
I0428 20:37:48.548231  5040 net.cpp:369] relu2 -> ip2 (in-place)
I0428 20:37:48.548977  5040 net.cpp:124] Setting up relu2
I0428 20:37:48.549005  5040 net.cpp:131] Top shape: 64 50 (3200)
I0428 20:37:48.549008  5040 net.cpp:139] Memory required for data: 20711680
I0428 20:37:48.549011  5040 layer_factory.hpp:77] Creating layer ip3
I0428 20:37:48.549021  5040 net.cpp:86] Creating Layer ip3
I0428 20:37:48.549023  5040 net.cpp:408] ip3 <- ip2
I0428 20:37:48.549028  5040 net.cpp:382] ip3 -> ip3
I0428 20:37:48.549137  5040 net.cpp:124] Setting up ip3
I0428 20:37:48.549145  5040 net.cpp:131] Top shape: 64 10 (640)
I0428 20:37:48.549149  5040 net.cpp:139] Memory required for data: 20714240
I0428 20:37:48.549156  5040 layer_factory.hpp:77] Creating layer relu3
I0428 20:37:48.549163  5040 net.cpp:86] Creating Layer relu3
I0428 20:37:48.549166  5040 net.cpp:408] relu3 <- ip3
I0428 20:37:48.549183  5040 net.cpp:369] relu3 -> ip3 (in-place)
I0428 20:37:48.549355  5040 net.cpp:124] Setting up relu3
I0428 20:37:48.549362  5040 net.cpp:131] Top shape: 64 10 (640)
I0428 20:37:48.549365  5040 net.cpp:139] Memory required for data: 20716800
I0428 20:37:48.549368  5040 layer_factory.hpp:77] Creating layer loss
I0428 20:37:48.549376  5040 net.cpp:86] Creating Layer loss
I0428 20:37:48.549378  5040 net.cpp:408] loss <- ip3
I0428 20:37:48.549381  5040 net.cpp:408] loss <- label
I0428 20:37:48.549387  5040 net.cpp:382] loss -> loss
I0428 20:37:48.549404  5040 layer_factory.hpp:77] Creating layer loss
…
I0428 20:37:48.550156  5040 solver.cpp:173] Creating test net (#0) specified by net file: ECE595/mnist/train_test/var_everything2/lenet_train_test1656.prototxt
I0428 20:37:48.550200  5040 net.cpp:296] The NetState phase (1) differed from the phase (0) specified by a rule in layer mnist
I0428 20:37:48.550328  5040 net.cpp:53] Initializing net from parameters: 
name: "LeNet"
state {
  phase: TEST
}
layer {
  name: "mnist"
  type: "Data"
  top: "data"
  top: "label"
  include {
    phase: TEST
  }
  transform_param {
    scale: 0.00390625
  }
  data_param {
    source: "examples/mnist/mnist_test_lmdb"
    batch_size: 100
    backend: LMDB
  }
}
layer {
  name: "conv0"
  type: "Convolution"
  bottom: "data"
  top: "conv0"
  param {
    lr_mult: 1
  }
  param {
    lr_mult: 2
  }
  convolution_param {
    num_output: 100
    kernel_size: 5
    stride: 1
    weight_filler {
      type: "xavier"
    }
    bias_filler {
      type: "constant"
    }
  }
}
layer {
  name: "pool0"
  type: "Pooling"
  bottom: "conv0"
  top: "pool0"
  pooling_param {
    pool: MAX
    kernel_size: 2
    stride: 2
  }
}
layer {
  name: "conv1"
  type: "Convolution"
  bottom: "pool0"
  top: "conv1"
  param {
    lr_mult: 1
  }
  param {
    lr_mult: 2
  }
  convolution_param {
    num_output: 100
    kernel_size: 5
    stride: 1
    weight_filler {
      type: "xavier"
    }
    bias_filler {
      type: "constant"
    }
  }
}
layer {
  name: "pool1"
  type: "Pooling"
  bottom: "conv1"
  top: "pool1"
  pooling_param {
    pool: MAX
    kernel_size: 2
    stride: 2
  }
}
layer {
  name: "ip1"
  type: "InnerProduct"
  bottom: "pool1"
  top: "ip1"
  param {
    lr_mult: 1
  }
  param {
    lr_mult: 2
  }
  inner_product_param {
    num_output: 10
    weight_filler {
      type: "xavier"
    }
    bias_filler {
      type: "constant"
    }
  }
}
layer {
  name: "relu1"
  type: "ReLU"
  bottom: "ip1"
  top: "ip1"
}
layer {
  name: "ip2"
  type: "InnerProduct"
  bottom: "ip1"
  top: "ip2"
  param {
    lr_mult: 1
  }
  param {
    lr_mult: 2
  }
  inner_product_param {
    num_output: 50
    weight_filler {
      type: "xavier"
    }
    bias_filler {
      type: "constant"
    }
  }
}
layer {
  name: "relu2"
  type: "ReLU"
  bottom: "ip2"
  top: "ip2"
}
layer {
  name: "ip3"
  type: "InnerProduct"
  bottom: "ip2"
  top: "ip3"
  param {
    lr_mult: 1
  }
  param {
    lr_mult: 2
  }
  inner_product_param {
    num_output: 10
    weight_filler {
      type: "xavier"
    }
    bias_filler {
      type: "constant"
    }
  }
}
layer {
  name: "relu3"
  type: "ReLU"
  bottom: "ip3"
  top: "ip3"
}
layer {
  name: "accuracy"
  type: "Accuracy"
  bottom: "ip3"
  bottom: "label"
  top: "accuracy"
  include {
    phase: TEST
  }
}
layer {
  name: "loss"
  type: "SoftmaxWithLoss"
  bottom: "ip3"
  bottom: "label"
  top: "loss"
}
I0428 20:37:48.550411  5040 layer_factory.hpp:77] Creating layer mnist
I0428 20:37:48.550467  5040 db_lmdb.cpp:35] Opened lmdb examples/mnist/mnist_test_lmdb
I0428 20:37:48.550482  5040 net.cpp:86] Creating Layer mnist
I0428 20:37:48.550487  5040 net.cpp:382] mnist -> data
I0428 20:37:48.550494  5040 net.cpp:382] mnist -> label
I0428 20:37:48.550580  5040 data_layer.cpp:45] output data size: 100,1,28,28
I0428 20:37:48.552573  5040 net.cpp:124] Setting up mnist
I0428 20:37:48.552587  5040 net.cpp:131] Top shape: 100 1 28 28 (78400)
I0428 20:37:48.552592  5040 net.cpp:131] Top shape: 100 (100)
I0428 20:37:48.552594  5040 net.cpp:139] Memory required for data: 314000
I0428 20:37:48.552597  5040 layer_factory.hpp:77] Creating layer label_mnist_1_split
I0428 20:37:48.552604  5040 net.cpp:86] Creating Layer label_mnist_1_split
I0428 20:37:48.552608  5040 net.cpp:408] label_mnist_1_split <- label
I0428 20:37:48.552640  5040 net.cpp:382] label_mnist_1_split -> label_mnist_1_split_0
I0428 20:37:48.552649  5040 net.cpp:382] label_mnist_1_split -> label_mnist_1_split_1
I0428 20:37:48.552693  5040 net.cpp:124] Setting up label_mnist_1_split
I0428 20:37:48.552698  5040 net.cpp:131] Top shape: 100 (100)
I0428 20:37:48.552702  5040 net.cpp:131] Top shape: 100 (100)
I0428 20:37:48.552705  5040 net.cpp:139] Memory required for data: 314800
I0428 20:37:48.552707  5040 layer_factory.hpp:77] Creating layer conv0
I0428 20:37:48.552717  5040 net.cpp:86] Creating Layer conv0
I0428 20:37:48.552721  5040 net.cpp:408] conv0 <- data
I0428 20:37:48.552726  5040 net.cpp:382] conv0 -> conv0
I0428 20:37:48.554610  5040 net.cpp:124] Setting up conv0
I0428 20:37:48.554625  5040 net.cpp:131] Top shape: 100 100 24 24 (5760000)
I0428 20:37:48.554630  5040 net.cpp:139] Memory required for data: 23354800
I0428 20:37:48.554638  5040 layer_factory.hpp:77] Creating layer pool0
I0428 20:37:48.554646  5040 net.cpp:86] Creating Layer pool0
I0428 20:37:48.554649  5040 net.cpp:408] pool0 <- conv0
I0428 20:37:48.554654  5040 net.cpp:382] pool0 -> pool0
I0428 20:37:48.554708  5040 net.cpp:124] Setting up pool0
I0428 20:37:48.554713  5040 net.cpp:131] Top shape: 100 100 12 12 (1440000)
I0428 20:37:48.554715  5040 net.cpp:139] Memory required for data: 29114800
I0428 20:37:48.554718  5040 layer_factory.hpp:77] Creating layer conv1
I0428 20:37:48.554728  5040 net.cpp:86] Creating Layer conv1
I0428 20:37:48.554730  5040 net.cpp:408] conv1 <- pool0
I0428 20:37:48.554735  5040 net.cpp:382] conv1 -> conv1
I0428 20:37:48.557792  5040 net.cpp:124] Setting up conv1
I0428 20:37:48.557806  5040 net.cpp:131] Top shape: 100 100 8 8 (640000)
I0428 20:37:48.557809  5040 net.cpp:139] Memory required for data: 31674800
I0428 20:37:48.557819  5040 layer_factory.hpp:77] Creating layer pool1
I0428 20:37:48.557842  5040 net.cpp:86] Creating Layer pool1
I0428 20:37:48.557845  5040 net.cpp:408] pool1 <- conv1
I0428 20:37:48.557852  5040 net.cpp:382] pool1 -> pool1
I0428 20:37:48.557901  5040 net.cpp:124] Setting up pool1
I0428 20:37:48.557909  5040 net.cpp:131] Top shape: 100 100 4 4 (160000)
I0428 20:37:48.557911  5040 net.cpp:139] Memory required for data: 32314800
I0428 20:37:48.557915  5040 layer_factory.hpp:77] Creating layer ip1
I0428 20:37:48.557922  5040 net.cpp:86] Creating Layer ip1
I0428 20:37:48.557925  5040 net.cpp:408] ip1 <- pool1
I0428 20:37:48.557930  5040 net.cpp:382] ip1 -> ip1
I0428 20:37:48.558161  5040 net.cpp:124] Setting up ip1
I0428 20:37:48.558178  5040 net.cpp:131] Top shape: 100 10 (1000)
I0428 20:37:48.558182  5040 net.cpp:139] Memory required for data: 32318800
I0428 20:37:48.558195  5040 layer_factory.hpp:77] Creating layer relu1
I0428 20:37:48.558202  5040 net.cpp:86] Creating Layer relu1
I0428 20:37:48.558212  5040 net.cpp:408] relu1 <- ip1
I0428 20:37:48.558217  5040 net.cpp:369] relu1 -> ip1 (in-place)
I0428 20:37:48.558382  5040 net.cpp:124] Setting up relu1
I0428 20:37:48.558389  5040 net.cpp:131] Top shape: 100 10 (1000)
I0428 20:37:48.558393  5040 net.cpp:139] Memory required for data: 32322800
I0428 20:37:48.558395  5040 layer_factory.hpp:77] Creating layer ip2
I0428 20:37:48.558403  5040 net.cpp:86] Creating Layer ip2
I0428 20:37:48.558406  5040 net.cpp:408] ip2 <- ip1
I0428 20:37:48.558413  5040 net.cpp:382] ip2 -> ip2
I0428 20:37:48.558512  5040 net.cpp:124] Setting up ip2
I0428 20:37:48.558521  5040 net.cpp:131] Top shape: 100 50 (5000)
I0428 20:37:48.558524  5040 net.cpp:139] Memory required for data: 32342800
I0428 20:37:48.558529  5040 layer_factory.hpp:77] Creating layer relu2
I0428 20:37:48.558542  5040 net.cpp:86] Creating Layer relu2
I0428 20:37:48.558544  5040 net.cpp:408] relu2 <- ip2
I0428 20:37:48.558548  5040 net.cpp:369] relu2 -> ip2 (in-place)
I0428 20:37:48.558715  5040 net.cpp:124] Setting up relu2
I0428 20:37:48.558724  5040 net.cpp:131] Top shape: 100 50 (5000)
I0428 20:37:48.558727  5040 net.cpp:139] Memory required for data: 32362800
I0428 20:37:48.558730  5040 layer_factory.hpp:77] Creating layer ip3
I0428 20:37:48.558735  5040 net.cpp:86] Creating Layer ip3
I0428 20:37:48.558738  5040 net.cpp:408] ip3 <- ip2
I0428 20:37:48.558760  5040 net.cpp:382] ip3 -> ip3
I0428 20:37:48.558900  5040 net.cpp:124] Setting up ip3
I0428 20:37:48.558907  5040 net.cpp:131] Top shape: 100 10 (1000)
I0428 20:37:48.558910  5040 net.cpp:139] Memory required for data: 32366800
I0428 20:37:48.558918  5040 layer_factory.hpp:77] Creating layer relu3
I0428 20:37:48.558924  5040 net.cpp:86] Creating Layer relu3
I0428 20:37:48.558928  5040 net.cpp:408] relu3 <- ip3
I0428 20:37:48.558933  5040 net.cpp:369] relu3 -> ip3 (in-place)
I0428 20:37:48.559746  5040 net.cpp:124] Setting up relu3
I0428 20:37:48.559763  5040 net.cpp:131] Top shape: 100 10 (1000)
I0428 20:37:48.559767  5040 net.cpp:139] Memory required for data: 32370800
I0428 20:37:48.559770  5040 layer_factory.hpp:77] Creating layer ip3_relu3_0_split
I0428 20:37:48.559775  5040 net.cpp:86] Creating Layer ip3_relu3_0_split
I0428 20:37:48.559778  5040 net.cpp:408] ip3_relu3_0_split <- ip3
I0428 20:37:48.559782  5040 net.cpp:382] ip3_relu3_0_split -> ip3_relu3_0_split_0
I0428 20:37:48.559790  5040 net.cpp:382] ip3_relu3_0_split -> ip3_relu3_0_split_1
I0428 20:37:48.559834  5040 net.cpp:124] Setting up ip3_relu3_0_split
I0428 20:37:48.559854  5040 net.cpp:131] Top shape: 100 10 (1000)
I0428 20:37:48.559857  5040 net.cpp:131] Top shape: 100 10 (1000)
I0428 20:37:48.559860  5040 net.cpp:139] Memory required for data: 32378800
I0428 20:37:48.559864  5040 layer_factory.hpp:77] Creating layer accuracy
I0428 20:37:48.559872  5040 net.cpp:86] Creating Layer accuracy
I0428 20:37:48.559875  5040 net.cpp:408] accuracy <- ip3_relu3_0_split_0
I0428 20:37:48.559880  5040 net.cpp:408] accuracy <- label_mnist_1_split_0
I0428 20:37:48.559885  5040 net.cpp:382] accuracy -> accuracy
…
