…
I0428 20:12:54.623347 32369 net.cpp:296] The NetState phase (0) differed from the phase (1) specified by a rule in layer mnist
I0428 20:12:54.623361 32369 net.cpp:296] The NetState phase (0) differed from the phase (1) specified by a rule in layer accuracy
I0428 20:12:54.623435 32369 net.cpp:53] Initializing net from parameters: 
name: "LeNet"
state {
  phase: TRAIN
  level: 0
  stage: ""
}
layer {
  name: "mnist"
  type: "Data"
  top: "data"
  top: "label"
  include {
    phase: TRAIN
  }
  transform_param {
    scale: 0.00390625
  }
  data_param {
    source: "examples/mnist/mnist_train_lmdb"
    batch_size: 64
    backend: LMDB
  }
}
layer {
  name: "conv0"
  type: "Convolution"
  bottom: "data"
  top: "conv0"
  param {
    lr_mult: 1
  }
  param {
    lr_mult: 2
  }
  convolution_param {
    num_output: 25
    kernel_size: 5
    stride: 1
    weight_filler {
      type: "xavier"
    }
    bias_filler {
      type: "constant"
    }
  }
}
layer {
  name: "pool0"
  type: "Pooling"
  bottom: "conv0"
  top: "pool0"
  pooling_param {
    pool: MAX
    kernel_size: 2
    stride: 2
  }
}
layer {
  name: "conv1"
  type: "Convolution"
  bottom: "pool0"
  top: "conv1"
  param {
    lr_mult: 1
  }
  param {
    lr_mult: 2
  }
  convolution_param {
    num_output: 100
    kernel_size: 5
    stride: 1
    weight_filler {
      type: "xavier"
    }
    bias_filler {
      type: "constant"
    }
  }
}
layer {
  name: "pool1"
  type: "Pooling"
  bottom: "conv1"
  top: "pool1"
  pooling_param {
    pool: MAX
    kernel_size: 2
    stride: 2
  }
}
layer {
  name: "ip1"
  type: "InnerProduct"
  bottom: "pool1"
  top: "ip1"
  param {
    lr_mult: 1
  }
  param {
    lr_mult: 2
  }
  inner_product_param {
    num_output: 10
    weight_filler {
      type: "xavier"
    }
    bias_filler {
      type: "constant"
    }
  }
}
layer {
  name: "relu1"
  type: "ReLU"
  bottom: "ip1"
  top: "ip1"
}
layer {
  name: "ip2"
  type: "InnerProduct"
  bottom: "ip1"
  top: "ip2"
  param {
    lr_mult: 1
  }
  param {
    lr_mult: 2
  }
  inner_product_param {
    num_output: 50
    weight_filler {
      type: "xavier"
    }
    bias_filler {
      type: "constant"
    }
  }
}
layer {
  name: "relu2"
  type: "ReLU"
  bottom: "ip2"
  top: "ip2"
}
layer {
  name: "ip3"
  type: "InnerProduct"
  bottom: "ip2"
  top: "ip3"
  param {
    lr_mult: 1
  }
  param {
    lr_mult: 2
  }
  inner_product_param {
    num_output: 10
    weight_filler {
      type: "xavier"
    }
    bias_filler {
      type: "constant"
    }
  }
}
layer {
  name: "relu3"
  type: "ReLU"
  bottom: "ip3"
  top: "ip3"
}
layer {
  name: "loss"
  type: "SoftmaxWithLoss"
  bottom: "ip3"
  bottom: "label"
  top: "loss"
}
I0428 20:12:54.623494 32369 layer_factory.hpp:77] Creating layer mnist
I0428 20:12:54.623575 32369 db_lmdb.cpp:35] Opened lmdb examples/mnist/mnist_train_lmdb
I0428 20:12:54.623594 32369 net.cpp:86] Creating Layer mnist
I0428 20:12:54.623600 32369 net.cpp:382] mnist -> data
I0428 20:12:54.623618 32369 net.cpp:382] mnist -> label
I0428 20:12:54.624605 32369 data_layer.cpp:45] output data size: 64,1,28,28
I0428 20:12:54.626838 32369 net.cpp:124] Setting up mnist
I0428 20:12:54.626868 32369 net.cpp:131] Top shape: 64 1 28 28 (50176)
I0428 20:12:54.626873 32369 net.cpp:131] Top shape: 64 (64)
I0428 20:12:54.626876 32369 net.cpp:139] Memory required for data: 200960
I0428 20:12:54.626883 32369 layer_factory.hpp:77] Creating layer conv0
I0428 20:12:54.626894 32369 net.cpp:86] Creating Layer conv0
I0428 20:12:54.626910 32369 net.cpp:408] conv0 <- data
I0428 20:12:54.626920 32369 net.cpp:382] conv0 -> conv0
I0428 20:12:54.863567 32369 net.cpp:124] Setting up conv0
I0428 20:12:54.863593 32369 net.cpp:131] Top shape: 64 25 24 24 (921600)
I0428 20:12:54.863596 32369 net.cpp:139] Memory required for data: 3887360
I0428 20:12:54.863611 32369 layer_factory.hpp:77] Creating layer pool0
I0428 20:12:54.863638 32369 net.cpp:86] Creating Layer pool0
I0428 20:12:54.863642 32369 net.cpp:408] pool0 <- conv0
I0428 20:12:54.863647 32369 net.cpp:382] pool0 -> pool0
I0428 20:12:54.863689 32369 net.cpp:124] Setting up pool0
I0428 20:12:54.863695 32369 net.cpp:131] Top shape: 64 25 12 12 (230400)
I0428 20:12:54.863698 32369 net.cpp:139] Memory required for data: 4808960
I0428 20:12:54.863700 32369 layer_factory.hpp:77] Creating layer conv1
I0428 20:12:54.863711 32369 net.cpp:86] Creating Layer conv1
I0428 20:12:54.863714 32369 net.cpp:408] conv1 <- pool0
I0428 20:12:54.863718 32369 net.cpp:382] conv1 -> conv1
I0428 20:12:54.865921 32369 net.cpp:124] Setting up conv1
I0428 20:12:54.865934 32369 net.cpp:131] Top shape: 64 100 8 8 (409600)
I0428 20:12:54.865952 32369 net.cpp:139] Memory required for data: 6447360
I0428 20:12:54.865962 32369 layer_factory.hpp:77] Creating layer pool1
I0428 20:12:54.865983 32369 net.cpp:86] Creating Layer pool1
I0428 20:12:54.865986 32369 net.cpp:408] pool1 <- conv1
I0428 20:12:54.865990 32369 net.cpp:382] pool1 -> pool1
I0428 20:12:54.866025 32369 net.cpp:124] Setting up pool1
I0428 20:12:54.866030 32369 net.cpp:131] Top shape: 64 100 4 4 (102400)
I0428 20:12:54.866034 32369 net.cpp:139] Memory required for data: 6856960
I0428 20:12:54.866035 32369 layer_factory.hpp:77] Creating layer ip1
I0428 20:12:54.866042 32369 net.cpp:86] Creating Layer ip1
I0428 20:12:54.866045 32369 net.cpp:408] ip1 <- pool1
I0428 20:12:54.866050 32369 net.cpp:382] ip1 -> ip1
I0428 20:12:54.867081 32369 net.cpp:124] Setting up ip1
I0428 20:12:54.867094 32369 net.cpp:131] Top shape: 64 10 (640)
I0428 20:12:54.867097 32369 net.cpp:139] Memory required for data: 6859520
I0428 20:12:54.867106 32369 layer_factory.hpp:77] Creating layer relu1
I0428 20:12:54.867112 32369 net.cpp:86] Creating Layer relu1
I0428 20:12:54.867115 32369 net.cpp:408] relu1 <- ip1
I0428 20:12:54.867120 32369 net.cpp:369] relu1 -> ip1 (in-place)
I0428 20:12:54.867321 32369 net.cpp:124] Setting up relu1
I0428 20:12:54.867331 32369 net.cpp:131] Top shape: 64 10 (640)
I0428 20:12:54.867334 32369 net.cpp:139] Memory required for data: 6862080
I0428 20:12:54.867337 32369 layer_factory.hpp:77] Creating layer ip2
I0428 20:12:54.867343 32369 net.cpp:86] Creating Layer ip2
I0428 20:12:54.867347 32369 net.cpp:408] ip2 <- ip1
I0428 20:12:54.867365 32369 net.cpp:382] ip2 -> ip2
I0428 20:12:54.867480 32369 net.cpp:124] Setting up ip2
I0428 20:12:54.867486 32369 net.cpp:131] Top shape: 64 50 (3200)
I0428 20:12:54.867489 32369 net.cpp:139] Memory required for data: 6874880
I0428 20:12:54.867494 32369 layer_factory.hpp:77] Creating layer relu2
I0428 20:12:54.867501 32369 net.cpp:86] Creating Layer relu2
I0428 20:12:54.867504 32369 net.cpp:408] relu2 <- ip2
I0428 20:12:54.867508 32369 net.cpp:369] relu2 -> ip2 (in-place)
I0428 20:12:54.868347 32369 net.cpp:124] Setting up relu2
I0428 20:12:54.868360 32369 net.cpp:131] Top shape: 64 50 (3200)
I0428 20:12:54.868378 32369 net.cpp:139] Memory required for data: 6887680
I0428 20:12:54.868381 32369 layer_factory.hpp:77] Creating layer ip3
I0428 20:12:54.868388 32369 net.cpp:86] Creating Layer ip3
I0428 20:12:54.868391 32369 net.cpp:408] ip3 <- ip2
I0428 20:12:54.868396 32369 net.cpp:382] ip3 -> ip3
I0428 20:12:54.868494 32369 net.cpp:124] Setting up ip3
I0428 20:12:54.868502 32369 net.cpp:131] Top shape: 64 10 (640)
I0428 20:12:54.868505 32369 net.cpp:139] Memory required for data: 6890240
I0428 20:12:54.868512 32369 layer_factory.hpp:77] Creating layer relu3
I0428 20:12:54.868517 32369 net.cpp:86] Creating Layer relu3
I0428 20:12:54.868520 32369 net.cpp:408] relu3 <- ip3
I0428 20:12:54.868525 32369 net.cpp:369] relu3 -> ip3 (in-place)
I0428 20:12:54.868698 32369 net.cpp:124] Setting up relu3
I0428 20:12:54.868706 32369 net.cpp:131] Top shape: 64 10 (640)
I0428 20:12:54.868710 32369 net.cpp:139] Memory required for data: 6892800
I0428 20:12:54.868713 32369 layer_factory.hpp:77] Creating layer loss
I0428 20:12:54.868718 32369 net.cpp:86] Creating Layer loss
I0428 20:12:54.868723 32369 net.cpp:408] loss <- ip3
I0428 20:12:54.868727 32369 net.cpp:408] loss <- label
I0428 20:12:54.868732 32369 net.cpp:382] loss -> loss
I0428 20:12:54.868749 32369 layer_factory.hpp:77] Creating layer loss
…
I0428 20:12:54.869515 32369 solver.cpp:173] Creating test net (#0) specified by net file: ECE595/mnist/train_test/var_everything2/lenet_train_test1189.prototxt
I0428 20:12:54.869555 32369 net.cpp:296] The NetState phase (1) differed from the phase (0) specified by a rule in layer mnist
I0428 20:12:54.869644 32369 net.cpp:53] Initializing net from parameters: 
name: "LeNet"
state {
  phase: TEST
}
layer {
  name: "mnist"
  type: "Data"
  top: "data"
  top: "label"
  include {
    phase: TEST
  }
  transform_param {
    scale: 0.00390625
  }
  data_param {
    source: "examples/mnist/mnist_test_lmdb"
    batch_size: 100
    backend: LMDB
  }
}
layer {
  name: "conv0"
  type: "Convolution"
  bottom: "data"
  top: "conv0"
  param {
    lr_mult: 1
  }
  param {
    lr_mult: 2
  }
  convolution_param {
    num_output: 25
    kernel_size: 5
    stride: 1
    weight_filler {
      type: "xavier"
    }
    bias_filler {
      type: "constant"
    }
  }
}
layer {
  name: "pool0"
  type: "Pooling"
  bottom: "conv0"
  top: "pool0"
  pooling_param {
    pool: MAX
    kernel_size: 2
    stride: 2
  }
}
layer {
  name: "conv1"
  type: "Convolution"
  bottom: "pool0"
  top: "conv1"
  param {
    lr_mult: 1
  }
  param {
    lr_mult: 2
  }
  convolution_param {
    num_output: 100
    kernel_size: 5
    stride: 1
    weight_filler {
      type: "xavier"
    }
    bias_filler {
      type: "constant"
    }
  }
}
layer {
  name: "pool1"
  type: "Pooling"
  bottom: "conv1"
  top: "pool1"
  pooling_param {
    pool: MAX
    kernel_size: 2
    stride: 2
  }
}
layer {
  name: "ip1"
  type: "InnerProduct"
  bottom: "pool1"
  top: "ip1"
  param {
    lr_mult: 1
  }
  param {
    lr_mult: 2
  }
  inner_product_param {
    num_output: 10
    weight_filler {
      type: "xavier"
    }
    bias_filler {
      type: "constant"
    }
  }
}
layer {
  name: "relu1"
  type: "ReLU"
  bottom: "ip1"
  top: "ip1"
}
layer {
  name: "ip2"
  type: "InnerProduct"
  bottom: "ip1"
  top: "ip2"
  param {
    lr_mult: 1
  }
  param {
    lr_mult: 2
  }
  inner_product_param {
    num_output: 50
    weight_filler {
      type: "xavier"
    }
    bias_filler {
      type: "constant"
    }
  }
}
layer {
  name: "relu2"
  type: "ReLU"
  bottom: "ip2"
  top: "ip2"
}
layer {
  name: "ip3"
  type: "InnerProduct"
  bottom: "ip2"
  top: "ip3"
  param {
    lr_mult: 1
  }
  param {
    lr_mult: 2
  }
  inner_product_param {
    num_output: 10
    weight_filler {
      type: "xavier"
    }
    bias_filler {
      type: "constant"
    }
  }
}
layer {
  name: "relu3"
  type: "ReLU"
  bottom: "ip3"
  top: "ip3"
}
layer {
  name: "accuracy"
  type: "Accuracy"
  bottom: "ip3"
  bottom: "label"
  top: "accuracy"
  include {
    phase: TEST
  }
}
layer {
  name: "loss"
  type: "SoftmaxWithLoss"
  bottom: "ip3"
  bottom: "label"
  top: "loss"
}
I0428 20:12:54.869727 32369 layer_factory.hpp:77] Creating layer mnist
I0428 20:12:54.869770 32369 db_lmdb.cpp:35] Opened lmdb examples/mnist/mnist_test_lmdb
I0428 20:12:54.869781 32369 net.cpp:86] Creating Layer mnist
I0428 20:12:54.869786 32369 net.cpp:382] mnist -> data
I0428 20:12:54.869793 32369 net.cpp:382] mnist -> label
I0428 20:12:54.869874 32369 data_layer.cpp:45] output data size: 100,1,28,28
I0428 20:12:54.871999 32369 net.cpp:124] Setting up mnist
I0428 20:12:54.872027 32369 net.cpp:131] Top shape: 100 1 28 28 (78400)
I0428 20:12:54.872032 32369 net.cpp:131] Top shape: 100 (100)
I0428 20:12:54.872035 32369 net.cpp:139] Memory required for data: 314000
I0428 20:12:54.872038 32369 layer_factory.hpp:77] Creating layer label_mnist_1_split
I0428 20:12:54.872045 32369 net.cpp:86] Creating Layer label_mnist_1_split
I0428 20:12:54.872047 32369 net.cpp:408] label_mnist_1_split <- label
I0428 20:12:54.872064 32369 net.cpp:382] label_mnist_1_split -> label_mnist_1_split_0
I0428 20:12:54.872072 32369 net.cpp:382] label_mnist_1_split -> label_mnist_1_split_1
I0428 20:12:54.872115 32369 net.cpp:124] Setting up label_mnist_1_split
I0428 20:12:54.872123 32369 net.cpp:131] Top shape: 100 (100)
I0428 20:12:54.872125 32369 net.cpp:131] Top shape: 100 (100)
I0428 20:12:54.872128 32369 net.cpp:139] Memory required for data: 314800
I0428 20:12:54.872130 32369 layer_factory.hpp:77] Creating layer conv0
I0428 20:12:54.872141 32369 net.cpp:86] Creating Layer conv0
I0428 20:12:54.872144 32369 net.cpp:408] conv0 <- data
I0428 20:12:54.872149 32369 net.cpp:382] conv0 -> conv0
I0428 20:12:54.874001 32369 net.cpp:124] Setting up conv0
I0428 20:12:54.874014 32369 net.cpp:131] Top shape: 100 25 24 24 (1440000)
I0428 20:12:54.874033 32369 net.cpp:139] Memory required for data: 6074800
I0428 20:12:54.874042 32369 layer_factory.hpp:77] Creating layer pool0
I0428 20:12:54.874050 32369 net.cpp:86] Creating Layer pool0
I0428 20:12:54.874054 32369 net.cpp:408] pool0 <- conv0
I0428 20:12:54.874058 32369 net.cpp:382] pool0 -> pool0
I0428 20:12:54.874094 32369 net.cpp:124] Setting up pool0
I0428 20:12:54.874099 32369 net.cpp:131] Top shape: 100 25 12 12 (360000)
I0428 20:12:54.874102 32369 net.cpp:139] Memory required for data: 7514800
I0428 20:12:54.874105 32369 layer_factory.hpp:77] Creating layer conv1
I0428 20:12:54.874114 32369 net.cpp:86] Creating Layer conv1
I0428 20:12:54.874116 32369 net.cpp:408] conv1 <- pool0
I0428 20:12:54.874122 32369 net.cpp:382] conv1 -> conv1
I0428 20:12:54.876137 32369 net.cpp:124] Setting up conv1
I0428 20:12:54.876149 32369 net.cpp:131] Top shape: 100 100 8 8 (640000)
I0428 20:12:54.876163 32369 net.cpp:139] Memory required for data: 10074800
I0428 20:12:54.876173 32369 layer_factory.hpp:77] Creating layer pool1
I0428 20:12:54.876178 32369 net.cpp:86] Creating Layer pool1
I0428 20:12:54.876196 32369 net.cpp:408] pool1 <- conv1
I0428 20:12:54.876202 32369 net.cpp:382] pool1 -> pool1
I0428 20:12:54.876255 32369 net.cpp:124] Setting up pool1
I0428 20:12:54.876262 32369 net.cpp:131] Top shape: 100 100 4 4 (160000)
I0428 20:12:54.876266 32369 net.cpp:139] Memory required for data: 10714800
I0428 20:12:54.876267 32369 layer_factory.hpp:77] Creating layer ip1
I0428 20:12:54.876274 32369 net.cpp:86] Creating Layer ip1
I0428 20:12:54.876278 32369 net.cpp:408] ip1 <- pool1
I0428 20:12:54.876283 32369 net.cpp:382] ip1 -> ip1
I0428 20:12:54.876458 32369 net.cpp:124] Setting up ip1
I0428 20:12:54.876466 32369 net.cpp:131] Top shape: 100 10 (1000)
I0428 20:12:54.876482 32369 net.cpp:139] Memory required for data: 10718800
I0428 20:12:54.876488 32369 layer_factory.hpp:77] Creating layer relu1
I0428 20:12:54.876494 32369 net.cpp:86] Creating Layer relu1
I0428 20:12:54.876513 32369 net.cpp:408] relu1 <- ip1
I0428 20:12:54.876518 32369 net.cpp:369] relu1 -> ip1 (in-place)
I0428 20:12:54.876683 32369 net.cpp:124] Setting up relu1
I0428 20:12:54.876693 32369 net.cpp:131] Top shape: 100 10 (1000)
I0428 20:12:54.876695 32369 net.cpp:139] Memory required for data: 10722800
I0428 20:12:54.876699 32369 layer_factory.hpp:77] Creating layer ip2
I0428 20:12:54.876708 32369 net.cpp:86] Creating Layer ip2
I0428 20:12:54.876711 32369 net.cpp:408] ip2 <- ip1
I0428 20:12:54.876718 32369 net.cpp:382] ip2 -> ip2
I0428 20:12:54.876842 32369 net.cpp:124] Setting up ip2
I0428 20:12:54.876852 32369 net.cpp:131] Top shape: 100 50 (5000)
I0428 20:12:54.876855 32369 net.cpp:139] Memory required for data: 10742800
I0428 20:12:54.876862 32369 layer_factory.hpp:77] Creating layer relu2
I0428 20:12:54.876866 32369 net.cpp:86] Creating Layer relu2
I0428 20:12:54.876869 32369 net.cpp:408] relu2 <- ip2
I0428 20:12:54.876880 32369 net.cpp:369] relu2 -> ip2 (in-place)
I0428 20:12:54.877043 32369 net.cpp:124] Setting up relu2
I0428 20:12:54.877053 32369 net.cpp:131] Top shape: 100 50 (5000)
I0428 20:12:54.877055 32369 net.cpp:139] Memory required for data: 10762800
I0428 20:12:54.877058 32369 layer_factory.hpp:77] Creating layer ip3
I0428 20:12:54.877064 32369 net.cpp:86] Creating Layer ip3
I0428 20:12:54.877068 32369 net.cpp:408] ip3 <- ip2
I0428 20:12:54.877074 32369 net.cpp:382] ip3 -> ip3
I0428 20:12:54.877221 32369 net.cpp:124] Setting up ip3
I0428 20:12:54.877228 32369 net.cpp:131] Top shape: 100 10 (1000)
I0428 20:12:54.877231 32369 net.cpp:139] Memory required for data: 10766800
I0428 20:12:54.877240 32369 layer_factory.hpp:77] Creating layer relu3
I0428 20:12:54.877245 32369 net.cpp:86] Creating Layer relu3
I0428 20:12:54.877249 32369 net.cpp:408] relu3 <- ip3
I0428 20:12:54.877254 32369 net.cpp:369] relu3 -> ip3 (in-place)
I0428 20:12:54.878121 32369 net.cpp:124] Setting up relu3
I0428 20:12:54.878134 32369 net.cpp:131] Top shape: 100 10 (1000)
I0428 20:12:54.878137 32369 net.cpp:139] Memory required for data: 10770800
I0428 20:12:54.878140 32369 layer_factory.hpp:77] Creating layer ip3_relu3_0_split
I0428 20:12:54.878146 32369 net.cpp:86] Creating Layer ip3_relu3_0_split
I0428 20:12:54.878149 32369 net.cpp:408] ip3_relu3_0_split <- ip3
I0428 20:12:54.878156 32369 net.cpp:382] ip3_relu3_0_split -> ip3_relu3_0_split_0
I0428 20:12:54.878162 32369 net.cpp:382] ip3_relu3_0_split -> ip3_relu3_0_split_1
I0428 20:12:54.878199 32369 net.cpp:124] Setting up ip3_relu3_0_split
I0428 20:12:54.878204 32369 net.cpp:131] Top shape: 100 10 (1000)
I0428 20:12:54.878208 32369 net.cpp:131] Top shape: 100 10 (1000)
I0428 20:12:54.878211 32369 net.cpp:139] Memory required for data: 10778800
I0428 20:12:54.878213 32369 layer_factory.hpp:77] Creating layer accuracy
I0428 20:12:54.878219 32369 net.cpp:86] Creating Layer accuracy
I0428 20:12:54.878223 32369 net.cpp:408] accuracy <- ip3_relu3_0_split_0
I0428 20:12:54.878227 32369 net.cpp:408] accuracy <- label_mnist_1_split_0
I0428 20:12:54.878232 32369 net.cpp:382] accuracy -> accuracy
…
