…
I0428 20:09:59.305336 31742 net.cpp:296] The NetState phase (0) differed from the phase (1) specified by a rule in layer mnist
I0428 20:09:59.305354 31742 net.cpp:296] The NetState phase (0) differed from the phase (1) specified by a rule in layer accuracy
I0428 20:09:59.305451 31742 net.cpp:53] Initializing net from parameters: 
name: "LeNet"
state {
  phase: TRAIN
  level: 0
  stage: ""
}
layer {
  name: "mnist"
  type: "Data"
  top: "data"
  top: "label"
  include {
    phase: TRAIN
  }
  transform_param {
    scale: 0.00390625
  }
  data_param {
    source: "examples/mnist/mnist_train_lmdb"
    batch_size: 64
    backend: LMDB
  }
}
layer {
  name: "conv0"
  type: "Convolution"
  bottom: "data"
  top: "conv0"
  param {
    lr_mult: 1
  }
  param {
    lr_mult: 2
  }
  convolution_param {
    num_output: 25
    kernel_size: 5
    stride: 1
    weight_filler {
      type: "xavier"
    }
    bias_filler {
      type: "constant"
    }
  }
}
layer {
  name: "pool0"
  type: "Pooling"
  bottom: "conv0"
  top: "pool0"
  pooling_param {
    pool: MAX
    kernel_size: 2
    stride: 2
  }
}
layer {
  name: "conv1"
  type: "Convolution"
  bottom: "pool0"
  top: "conv1"
  param {
    lr_mult: 1
  }
  param {
    lr_mult: 2
  }
  convolution_param {
    num_output: 25
    kernel_size: 5
    stride: 1
    weight_filler {
      type: "xavier"
    }
    bias_filler {
      type: "constant"
    }
  }
}
layer {
  name: "pool1"
  type: "Pooling"
  bottom: "conv1"
  top: "pool1"
  pooling_param {
    pool: MAX
    kernel_size: 2
    stride: 2
  }
}
layer {
  name: "ip1"
  type: "InnerProduct"
  bottom: "pool1"
  top: "ip1"
  param {
    lr_mult: 1
  }
  param {
    lr_mult: 2
  }
  inner_product_param {
    num_output: 50
    weight_filler {
      type: "xavier"
    }
    bias_filler {
      type: "constant"
    }
  }
}
layer {
  name: "relu1"
  type: "ReLU"
  bottom: "ip1"
  top: "ip1"
}
layer {
  name: "ip2"
  type: "InnerProduct"
  bottom: "ip1"
  top: "ip2"
  param {
    lr_mult: 1
  }
  param {
    lr_mult: 2
  }
  inner_product_param {
    num_output: 10
    weight_filler {
      type: "xavier"
    }
    bias_filler {
      type: "constant"
    }
  }
}
layer {
  name: "relu2"
  type: "ReLU"
  bottom: "ip2"
  top: "ip2"
}
layer {
  name: "ip3"
  type: "InnerProduct"
  bottom: "ip2"
  top: "ip3"
  param {
    lr_mult: 1
  }
  param {
    lr_mult: 2
  }
  inner_product_param {
    num_output: 10
    weight_filler {
      type: "xavier"
    }
    bias_filler {
      type: "constant"
    }
  }
}
layer {
  name: "relu3"
  type: "ReLU"
  bottom: "ip3"
  top: "ip3"
}
layer {
  name: "loss"
  type: "SoftmaxWithLoss"
  bottom: "ip3"
  bottom: "label"
  top: "loss"
}
I0428 20:09:59.305526 31742 layer_factory.hpp:77] Creating layer mnist
I0428 20:09:59.305626 31742 db_lmdb.cpp:35] Opened lmdb examples/mnist/mnist_train_lmdb
I0428 20:09:59.305649 31742 net.cpp:86] Creating Layer mnist
I0428 20:09:59.305657 31742 net.cpp:382] mnist -> data
I0428 20:09:59.305680 31742 net.cpp:382] mnist -> label
I0428 20:09:59.306774 31742 data_layer.cpp:45] output data size: 64,1,28,28
I0428 20:09:59.309219 31742 net.cpp:124] Setting up mnist
I0428 20:09:59.309238 31742 net.cpp:131] Top shape: 64 1 28 28 (50176)
I0428 20:09:59.309244 31742 net.cpp:131] Top shape: 64 (64)
I0428 20:09:59.309248 31742 net.cpp:139] Memory required for data: 200960
I0428 20:09:59.309255 31742 layer_factory.hpp:77] Creating layer conv0
I0428 20:09:59.309272 31742 net.cpp:86] Creating Layer conv0
I0428 20:09:59.309293 31742 net.cpp:408] conv0 <- data
I0428 20:09:59.309304 31742 net.cpp:382] conv0 -> conv0
I0428 20:09:59.588699 31742 net.cpp:124] Setting up conv0
I0428 20:09:59.588727 31742 net.cpp:131] Top shape: 64 25 24 24 (921600)
I0428 20:09:59.588732 31742 net.cpp:139] Memory required for data: 3887360
I0428 20:09:59.588745 31742 layer_factory.hpp:77] Creating layer pool0
I0428 20:09:59.588757 31742 net.cpp:86] Creating Layer pool0
I0428 20:09:59.588762 31742 net.cpp:408] pool0 <- conv0
I0428 20:09:59.588768 31742 net.cpp:382] pool0 -> pool0
I0428 20:09:59.588816 31742 net.cpp:124] Setting up pool0
I0428 20:09:59.588824 31742 net.cpp:131] Top shape: 64 25 12 12 (230400)
I0428 20:09:59.588827 31742 net.cpp:139] Memory required for data: 4808960
I0428 20:09:59.588830 31742 layer_factory.hpp:77] Creating layer conv1
I0428 20:09:59.588841 31742 net.cpp:86] Creating Layer conv1
I0428 20:09:59.588845 31742 net.cpp:408] conv1 <- pool0
I0428 20:09:59.588850 31742 net.cpp:382] conv1 -> conv1
I0428 20:09:59.591521 31742 net.cpp:124] Setting up conv1
I0428 20:09:59.591536 31742 net.cpp:131] Top shape: 64 25 8 8 (102400)
I0428 20:09:59.591539 31742 net.cpp:139] Memory required for data: 5218560
I0428 20:09:59.591547 31742 layer_factory.hpp:77] Creating layer pool1
I0428 20:09:59.591572 31742 net.cpp:86] Creating Layer pool1
I0428 20:09:59.591576 31742 net.cpp:408] pool1 <- conv1
I0428 20:09:59.591581 31742 net.cpp:382] pool1 -> pool1
I0428 20:09:59.591632 31742 net.cpp:124] Setting up pool1
I0428 20:09:59.591640 31742 net.cpp:131] Top shape: 64 25 4 4 (25600)
I0428 20:09:59.591644 31742 net.cpp:139] Memory required for data: 5320960
I0428 20:09:59.591646 31742 layer_factory.hpp:77] Creating layer ip1
I0428 20:09:59.591653 31742 net.cpp:86] Creating Layer ip1
I0428 20:09:59.591656 31742 net.cpp:408] ip1 <- pool1
I0428 20:09:59.591661 31742 net.cpp:382] ip1 -> ip1
I0428 20:09:59.591905 31742 net.cpp:124] Setting up ip1
I0428 20:09:59.591912 31742 net.cpp:131] Top shape: 64 50 (3200)
I0428 20:09:59.591915 31742 net.cpp:139] Memory required for data: 5333760
I0428 20:09:59.591922 31742 layer_factory.hpp:77] Creating layer relu1
I0428 20:09:59.591928 31742 net.cpp:86] Creating Layer relu1
I0428 20:09:59.591931 31742 net.cpp:408] relu1 <- ip1
I0428 20:09:59.591935 31742 net.cpp:369] relu1 -> ip1 (in-place)
I0428 20:09:59.592092 31742 net.cpp:124] Setting up relu1
I0428 20:09:59.592099 31742 net.cpp:131] Top shape: 64 50 (3200)
I0428 20:09:59.592103 31742 net.cpp:139] Memory required for data: 5346560
I0428 20:09:59.592105 31742 layer_factory.hpp:77] Creating layer ip2
I0428 20:09:59.592111 31742 net.cpp:86] Creating Layer ip2
I0428 20:09:59.592114 31742 net.cpp:408] ip2 <- ip1
I0428 20:09:59.592119 31742 net.cpp:382] ip2 -> ip2
I0428 20:09:59.592212 31742 net.cpp:124] Setting up ip2
I0428 20:09:59.592219 31742 net.cpp:131] Top shape: 64 10 (640)
I0428 20:09:59.592222 31742 net.cpp:139] Memory required for data: 5349120
I0428 20:09:59.592227 31742 layer_factory.hpp:77] Creating layer relu2
I0428 20:09:59.592233 31742 net.cpp:86] Creating Layer relu2
I0428 20:09:59.592236 31742 net.cpp:408] relu2 <- ip2
I0428 20:09:59.592241 31742 net.cpp:369] relu2 -> ip2 (in-place)
I0428 20:09:59.592929 31742 net.cpp:124] Setting up relu2
I0428 20:09:59.592941 31742 net.cpp:131] Top shape: 64 10 (640)
I0428 20:09:59.592944 31742 net.cpp:139] Memory required for data: 5351680
I0428 20:09:59.592947 31742 layer_factory.hpp:77] Creating layer ip3
I0428 20:09:59.592954 31742 net.cpp:86] Creating Layer ip3
I0428 20:09:59.592957 31742 net.cpp:408] ip3 <- ip2
I0428 20:09:59.592962 31742 net.cpp:382] ip3 -> ip3
I0428 20:09:59.593060 31742 net.cpp:124] Setting up ip3
I0428 20:09:59.593067 31742 net.cpp:131] Top shape: 64 10 (640)
I0428 20:09:59.593070 31742 net.cpp:139] Memory required for data: 5354240
I0428 20:09:59.593077 31742 layer_factory.hpp:77] Creating layer relu3
I0428 20:09:59.593082 31742 net.cpp:86] Creating Layer relu3
I0428 20:09:59.593086 31742 net.cpp:408] relu3 <- ip3
I0428 20:09:59.593089 31742 net.cpp:369] relu3 -> ip3 (in-place)
I0428 20:09:59.593256 31742 net.cpp:124] Setting up relu3
I0428 20:09:59.593264 31742 net.cpp:131] Top shape: 64 10 (640)
I0428 20:09:59.593267 31742 net.cpp:139] Memory required for data: 5356800
I0428 20:09:59.593271 31742 layer_factory.hpp:77] Creating layer loss
I0428 20:09:59.593276 31742 net.cpp:86] Creating Layer loss
I0428 20:09:59.593279 31742 net.cpp:408] loss <- ip3
I0428 20:09:59.593282 31742 net.cpp:408] loss <- label
I0428 20:09:59.593288 31742 net.cpp:382] loss -> loss
I0428 20:09:59.593305 31742 layer_factory.hpp:77] Creating layer loss
…
I0428 20:09:59.593958 31742 solver.cpp:173] Creating test net (#0) specified by net file: ECE595/mnist/train_test/var_everything2/lenet_train_test1123.prototxt
I0428 20:09:59.594000 31742 net.cpp:296] The NetState phase (1) differed from the phase (0) specified by a rule in layer mnist
I0428 20:09:59.594105 31742 net.cpp:53] Initializing net from parameters: 
name: "LeNet"
state {
  phase: TEST
}
layer {
  name: "mnist"
  type: "Data"
  top: "data"
  top: "label"
  include {
    phase: TEST
  }
  transform_param {
    scale: 0.00390625
  }
  data_param {
    source: "examples/mnist/mnist_test_lmdb"
    batch_size: 100
    backend: LMDB
  }
}
layer {
  name: "conv0"
  type: "Convolution"
  bottom: "data"
  top: "conv0"
  param {
    lr_mult: 1
  }
  param {
    lr_mult: 2
  }
  convolution_param {
    num_output: 25
    kernel_size: 5
    stride: 1
    weight_filler {
      type: "xavier"
    }
    bias_filler {
      type: "constant"
    }
  }
}
layer {
  name: "pool0"
  type: "Pooling"
  bottom: "conv0"
  top: "pool0"
  pooling_param {
    pool: MAX
    kernel_size: 2
    stride: 2
  }
}
layer {
  name: "conv1"
  type: "Convolution"
  bottom: "pool0"
  top: "conv1"
  param {
    lr_mult: 1
  }
  param {
    lr_mult: 2
  }
  convolution_param {
    num_output: 25
    kernel_size: 5
    stride: 1
    weight_filler {
      type: "xavier"
    }
    bias_filler {
      type: "constant"
    }
  }
}
layer {
  name: "pool1"
  type: "Pooling"
  bottom: "conv1"
  top: "pool1"
  pooling_param {
    pool: MAX
    kernel_size: 2
    stride: 2
  }
}
layer {
  name: "ip1"
  type: "InnerProduct"
  bottom: "pool1"
  top: "ip1"
  param {
    lr_mult: 1
  }
  param {
    lr_mult: 2
  }
  inner_product_param {
    num_output: 50
    weight_filler {
      type: "xavier"
    }
    bias_filler {
      type: "constant"
    }
  }
}
layer {
  name: "relu1"
  type: "ReLU"
  bottom: "ip1"
  top: "ip1"
}
layer {
  name: "ip2"
  type: "InnerProduct"
  bottom: "ip1"
  top: "ip2"
  param {
    lr_mult: 1
  }
  param {
    lr_mult: 2
  }
  inner_product_param {
    num_output: 10
    weight_filler {
      type: "xavier"
    }
    bias_filler {
      type: "constant"
    }
  }
}
layer {
  name: "relu2"
  type: "ReLU"
  bottom: "ip2"
  top: "ip2"
}
layer {
  name: "ip3"
  type: "InnerProduct"
  bottom: "ip2"
  top: "ip3"
  param {
    lr_mult: 1
  }
  param {
    lr_mult: 2
  }
  inner_product_param {
    num_output: 10
    weight_filler {
      type: "xavier"
    }
    bias_filler {
      type: "constant"
    }
  }
}
layer {
  name: "relu3"
  type: "ReLU"
  bottom: "ip3"
  top: "ip3"
}
layer {
  name: "accuracy"
  type: "Accuracy"
  bottom: "ip3"
  bottom: "label"
  top: "accuracy"
  include {
    phase: TEST
  }
}
layer {
  name: "loss"
  type: "SoftmaxWithLoss"
  bottom: "ip3"
  bottom: "label"
  top: "loss"
}
I0428 20:09:59.594182 31742 layer_factory.hpp:77] Creating layer mnist
I0428 20:09:59.594224 31742 db_lmdb.cpp:35] Opened lmdb examples/mnist/mnist_test_lmdb
I0428 20:09:59.594238 31742 net.cpp:86] Creating Layer mnist
I0428 20:09:59.594244 31742 net.cpp:382] mnist -> data
I0428 20:09:59.594250 31742 net.cpp:382] mnist -> label
I0428 20:09:59.594333 31742 data_layer.cpp:45] output data size: 100,1,28,28
I0428 20:09:59.596160 31742 net.cpp:124] Setting up mnist
I0428 20:09:59.596192 31742 net.cpp:131] Top shape: 100 1 28 28 (78400)
I0428 20:09:59.596197 31742 net.cpp:131] Top shape: 100 (100)
I0428 20:09:59.596200 31742 net.cpp:139] Memory required for data: 314000
I0428 20:09:59.596204 31742 layer_factory.hpp:77] Creating layer label_mnist_1_split
I0428 20:09:59.596215 31742 net.cpp:86] Creating Layer label_mnist_1_split
I0428 20:09:59.596217 31742 net.cpp:408] label_mnist_1_split <- label
I0428 20:09:59.596222 31742 net.cpp:382] label_mnist_1_split -> label_mnist_1_split_0
I0428 20:09:59.596228 31742 net.cpp:382] label_mnist_1_split -> label_mnist_1_split_1
I0428 20:09:59.596305 31742 net.cpp:124] Setting up label_mnist_1_split
I0428 20:09:59.596312 31742 net.cpp:131] Top shape: 100 (100)
I0428 20:09:59.596316 31742 net.cpp:131] Top shape: 100 (100)
I0428 20:09:59.596318 31742 net.cpp:139] Memory required for data: 314800
I0428 20:09:59.596321 31742 layer_factory.hpp:77] Creating layer conv0
I0428 20:09:59.596331 31742 net.cpp:86] Creating Layer conv0
I0428 20:09:59.596335 31742 net.cpp:408] conv0 <- data
I0428 20:09:59.596343 31742 net.cpp:382] conv0 -> conv0
I0428 20:09:59.597934 31742 net.cpp:124] Setting up conv0
I0428 20:09:59.597962 31742 net.cpp:131] Top shape: 100 25 24 24 (1440000)
I0428 20:09:59.597966 31742 net.cpp:139] Memory required for data: 6074800
I0428 20:09:59.597975 31742 layer_factory.hpp:77] Creating layer pool0
I0428 20:09:59.597985 31742 net.cpp:86] Creating Layer pool0
I0428 20:09:59.597988 31742 net.cpp:408] pool0 <- conv0
I0428 20:09:59.597993 31742 net.cpp:382] pool0 -> pool0
I0428 20:09:59.598032 31742 net.cpp:124] Setting up pool0
I0428 20:09:59.598045 31742 net.cpp:131] Top shape: 100 25 12 12 (360000)
I0428 20:09:59.598048 31742 net.cpp:139] Memory required for data: 7514800
I0428 20:09:59.598052 31742 layer_factory.hpp:77] Creating layer conv1
I0428 20:09:59.598060 31742 net.cpp:86] Creating Layer conv1
I0428 20:09:59.598064 31742 net.cpp:408] conv1 <- pool0
I0428 20:09:59.598070 31742 net.cpp:382] conv1 -> conv1
I0428 20:09:59.600056 31742 net.cpp:124] Setting up conv1
I0428 20:09:59.600069 31742 net.cpp:131] Top shape: 100 25 8 8 (160000)
I0428 20:09:59.600088 31742 net.cpp:139] Memory required for data: 8154800
I0428 20:09:59.600098 31742 layer_factory.hpp:77] Creating layer pool1
I0428 20:09:59.600105 31742 net.cpp:86] Creating Layer pool1
I0428 20:09:59.600107 31742 net.cpp:408] pool1 <- conv1
I0428 20:09:59.600128 31742 net.cpp:382] pool1 -> pool1
I0428 20:09:59.600165 31742 net.cpp:124] Setting up pool1
I0428 20:09:59.600188 31742 net.cpp:131] Top shape: 100 25 4 4 (40000)
I0428 20:09:59.600190 31742 net.cpp:139] Memory required for data: 8314800
I0428 20:09:59.600194 31742 layer_factory.hpp:77] Creating layer ip1
I0428 20:09:59.600201 31742 net.cpp:86] Creating Layer ip1
I0428 20:09:59.600208 31742 net.cpp:408] ip1 <- pool1
I0428 20:09:59.600229 31742 net.cpp:382] ip1 -> ip1
I0428 20:09:59.600509 31742 net.cpp:124] Setting up ip1
I0428 20:09:59.600517 31742 net.cpp:131] Top shape: 100 50 (5000)
I0428 20:09:59.600544 31742 net.cpp:139] Memory required for data: 8334800
I0428 20:09:59.600553 31742 layer_factory.hpp:77] Creating layer relu1
I0428 20:09:59.600559 31742 net.cpp:86] Creating Layer relu1
I0428 20:09:59.600563 31742 net.cpp:408] relu1 <- ip1
I0428 20:09:59.600566 31742 net.cpp:369] relu1 -> ip1 (in-place)
I0428 20:09:59.600736 31742 net.cpp:124] Setting up relu1
I0428 20:09:59.600745 31742 net.cpp:131] Top shape: 100 50 (5000)
I0428 20:09:59.600749 31742 net.cpp:139] Memory required for data: 8354800
I0428 20:09:59.600751 31742 layer_factory.hpp:77] Creating layer ip2
I0428 20:09:59.600759 31742 net.cpp:86] Creating Layer ip2
I0428 20:09:59.600764 31742 net.cpp:408] ip2 <- ip1
I0428 20:09:59.600769 31742 net.cpp:382] ip2 -> ip2
I0428 20:09:59.600878 31742 net.cpp:124] Setting up ip2
I0428 20:09:59.600886 31742 net.cpp:131] Top shape: 100 10 (1000)
I0428 20:09:59.600889 31742 net.cpp:139] Memory required for data: 8358800
I0428 20:09:59.600894 31742 layer_factory.hpp:77] Creating layer relu2
I0428 20:09:59.600899 31742 net.cpp:86] Creating Layer relu2
I0428 20:09:59.600903 31742 net.cpp:408] relu2 <- ip2
I0428 20:09:59.600906 31742 net.cpp:369] relu2 -> ip2 (in-place)
I0428 20:09:59.601063 31742 net.cpp:124] Setting up relu2
I0428 20:09:59.601071 31742 net.cpp:131] Top shape: 100 10 (1000)
I0428 20:09:59.601075 31742 net.cpp:139] Memory required for data: 8362800
I0428 20:09:59.601078 31742 layer_factory.hpp:77] Creating layer ip3
I0428 20:09:59.601083 31742 net.cpp:86] Creating Layer ip3
I0428 20:09:59.601086 31742 net.cpp:408] ip3 <- ip2
I0428 20:09:59.601099 31742 net.cpp:382] ip3 -> ip3
I0428 20:09:59.601196 31742 net.cpp:124] Setting up ip3
I0428 20:09:59.601202 31742 net.cpp:131] Top shape: 100 10 (1000)
I0428 20:09:59.601204 31742 net.cpp:139] Memory required for data: 8366800
I0428 20:09:59.601224 31742 layer_factory.hpp:77] Creating layer relu3
I0428 20:09:59.601230 31742 net.cpp:86] Creating Layer relu3
I0428 20:09:59.601233 31742 net.cpp:408] relu3 <- ip3
I0428 20:09:59.601238 31742 net.cpp:369] relu3 -> ip3 (in-place)
I0428 20:09:59.602010 31742 net.cpp:124] Setting up relu3
I0428 20:09:59.602021 31742 net.cpp:131] Top shape: 100 10 (1000)
I0428 20:09:59.602041 31742 net.cpp:139] Memory required for data: 8370800
I0428 20:09:59.602046 31742 layer_factory.hpp:77] Creating layer ip3_relu3_0_split
I0428 20:09:59.602051 31742 net.cpp:86] Creating Layer ip3_relu3_0_split
I0428 20:09:59.602053 31742 net.cpp:408] ip3_relu3_0_split <- ip3
I0428 20:09:59.602059 31742 net.cpp:382] ip3_relu3_0_split -> ip3_relu3_0_split_0
I0428 20:09:59.602066 31742 net.cpp:382] ip3_relu3_0_split -> ip3_relu3_0_split_1
I0428 20:09:59.602123 31742 net.cpp:124] Setting up ip3_relu3_0_split
I0428 20:09:59.602128 31742 net.cpp:131] Top shape: 100 10 (1000)
I0428 20:09:59.602131 31742 net.cpp:131] Top shape: 100 10 (1000)
I0428 20:09:59.602134 31742 net.cpp:139] Memory required for data: 8378800
I0428 20:09:59.602136 31742 layer_factory.hpp:77] Creating layer accuracy
I0428 20:09:59.602149 31742 net.cpp:86] Creating Layer accuracy
I0428 20:09:59.602151 31742 net.cpp:408] accuracy <- ip3_relu3_0_split_0
I0428 20:09:59.602155 31742 net.cpp:408] accuracy <- label_mnist_1_split_0
I0428 20:09:59.602161 31742 net.cpp:382] accuracy -> accuracy
…
