…
I0428 20:04:38.941344 30426 net.cpp:296] The NetState phase (0) differed from the phase (1) specified by a rule in layer mnist
I0428 20:04:38.941359 30426 net.cpp:296] The NetState phase (0) differed from the phase (1) specified by a rule in layer accuracy
I0428 20:04:38.941422 30426 net.cpp:53] Initializing net from parameters: 
name: "LeNet"
state {
  phase: TRAIN
  level: 0
  stage: ""
}
layer {
  name: "mnist"
  type: "Data"
  top: "data"
  top: "label"
  include {
    phase: TRAIN
  }
  transform_param {
    scale: 0.00390625
  }
  data_param {
    source: "examples/mnist/mnist_train_lmdb"
    batch_size: 64
    backend: LMDB
  }
}
layer {
  name: "conv0"
  type: "Convolution"
  bottom: "data"
  top: "conv0"
  param {
    lr_mult: 1
  }
  param {
    lr_mult: 2
  }
  convolution_param {
    num_output: 25
    kernel_size: 5
    stride: 1
    weight_filler {
      type: "xavier"
    }
    bias_filler {
      type: "constant"
    }
  }
}
layer {
  name: "pool0"
  type: "Pooling"
  bottom: "conv0"
  top: "pool0"
  pooling_param {
    pool: MAX
    kernel_size: 2
    stride: 2
  }
}
layer {
  name: "conv1"
  type: "Convolution"
  bottom: "pool0"
  top: "conv1"
  param {
    lr_mult: 1
  }
  param {
    lr_mult: 2
  }
  convolution_param {
    num_output: 2
    kernel_size: 5
    stride: 1
    weight_filler {
      type: "xavier"
    }
    bias_filler {
      type: "constant"
    }
  }
}
layer {
  name: "pool1"
  type: "Pooling"
  bottom: "conv1"
  top: "pool1"
  pooling_param {
    pool: MAX
    kernel_size: 2
    stride: 2
  }
}
layer {
  name: "ip1"
  type: "InnerProduct"
  bottom: "pool1"
  top: "ip1"
  param {
    lr_mult: 1
  }
  param {
    lr_mult: 2
  }
  inner_product_param {
    num_output: 10
    weight_filler {
      type: "xavier"
    }
    bias_filler {
      type: "constant"
    }
  }
}
layer {
  name: "relu1"
  type: "ReLU"
  bottom: "ip1"
  top: "ip1"
}
layer {
  name: "loss"
  type: "SoftmaxWithLoss"
  bottom: "ip1"
  bottom: "label"
  top: "loss"
}
I0428 20:04:38.941478 30426 layer_factory.hpp:77] Creating layer mnist
I0428 20:04:38.941560 30426 db_lmdb.cpp:35] Opened lmdb examples/mnist/mnist_train_lmdb
I0428 20:04:38.941594 30426 net.cpp:86] Creating Layer mnist
I0428 20:04:38.941601 30426 net.cpp:382] mnist -> data
I0428 20:04:38.941619 30426 net.cpp:382] mnist -> label
I0428 20:04:38.942736 30426 data_layer.cpp:45] output data size: 64,1,28,28
I0428 20:04:38.945040 30426 net.cpp:124] Setting up mnist
I0428 20:04:38.945071 30426 net.cpp:131] Top shape: 64 1 28 28 (50176)
I0428 20:04:38.945077 30426 net.cpp:131] Top shape: 64 (64)
I0428 20:04:38.945080 30426 net.cpp:139] Memory required for data: 200960
I0428 20:04:38.945086 30426 layer_factory.hpp:77] Creating layer conv0
I0428 20:04:38.945099 30426 net.cpp:86] Creating Layer conv0
I0428 20:04:38.945104 30426 net.cpp:408] conv0 <- data
I0428 20:04:38.945116 30426 net.cpp:382] conv0 -> conv0
I0428 20:04:39.182931 30426 net.cpp:124] Setting up conv0
I0428 20:04:39.182974 30426 net.cpp:131] Top shape: 64 25 24 24 (921600)
I0428 20:04:39.182978 30426 net.cpp:139] Memory required for data: 3887360
I0428 20:04:39.182993 30426 layer_factory.hpp:77] Creating layer pool0
I0428 20:04:39.183006 30426 net.cpp:86] Creating Layer pool0
I0428 20:04:39.183010 30426 net.cpp:408] pool0 <- conv0
I0428 20:04:39.183015 30426 net.cpp:382] pool0 -> pool0
I0428 20:04:39.183076 30426 net.cpp:124] Setting up pool0
I0428 20:04:39.183082 30426 net.cpp:131] Top shape: 64 25 12 12 (230400)
I0428 20:04:39.183100 30426 net.cpp:139] Memory required for data: 4808960
I0428 20:04:39.183104 30426 layer_factory.hpp:77] Creating layer conv1
I0428 20:04:39.183115 30426 net.cpp:86] Creating Layer conv1
I0428 20:04:39.183117 30426 net.cpp:408] conv1 <- pool0
I0428 20:04:39.183122 30426 net.cpp:382] conv1 -> conv1
I0428 20:04:39.185957 30426 net.cpp:124] Setting up conv1
I0428 20:04:39.185987 30426 net.cpp:131] Top shape: 64 2 8 8 (8192)
I0428 20:04:39.185992 30426 net.cpp:139] Memory required for data: 4841728
I0428 20:04:39.186017 30426 layer_factory.hpp:77] Creating layer pool1
I0428 20:04:39.186038 30426 net.cpp:86] Creating Layer pool1
I0428 20:04:39.186043 30426 net.cpp:408] pool1 <- conv1
I0428 20:04:39.186048 30426 net.cpp:382] pool1 -> pool1
I0428 20:04:39.186100 30426 net.cpp:124] Setting up pool1
I0428 20:04:39.186106 30426 net.cpp:131] Top shape: 64 2 4 4 (2048)
I0428 20:04:39.186110 30426 net.cpp:139] Memory required for data: 4849920
I0428 20:04:39.186113 30426 layer_factory.hpp:77] Creating layer ip1
I0428 20:04:39.186134 30426 net.cpp:86] Creating Layer ip1
I0428 20:04:39.186137 30426 net.cpp:408] ip1 <- pool1
I0428 20:04:39.186142 30426 net.cpp:382] ip1 -> ip1
I0428 20:04:39.186235 30426 net.cpp:124] Setting up ip1
I0428 20:04:39.186242 30426 net.cpp:131] Top shape: 64 10 (640)
I0428 20:04:39.186245 30426 net.cpp:139] Memory required for data: 4852480
I0428 20:04:39.186252 30426 layer_factory.hpp:77] Creating layer relu1
I0428 20:04:39.186259 30426 net.cpp:86] Creating Layer relu1
I0428 20:04:39.186261 30426 net.cpp:408] relu1 <- ip1
I0428 20:04:39.186265 30426 net.cpp:369] relu1 -> ip1 (in-place)
I0428 20:04:39.186425 30426 net.cpp:124] Setting up relu1
I0428 20:04:39.186434 30426 net.cpp:131] Top shape: 64 10 (640)
I0428 20:04:39.186436 30426 net.cpp:139] Memory required for data: 4855040
I0428 20:04:39.186439 30426 layer_factory.hpp:77] Creating layer loss
I0428 20:04:39.186445 30426 net.cpp:86] Creating Layer loss
I0428 20:04:39.186450 30426 net.cpp:408] loss <- ip1
I0428 20:04:39.186452 30426 net.cpp:408] loss <- label
I0428 20:04:39.186457 30426 net.cpp:382] loss -> loss
I0428 20:04:39.186475 30426 layer_factory.hpp:77] Creating layer loss
…
I0428 20:04:39.187750 30426 solver.cpp:173] Creating test net (#0) specified by net file: ECE595/mnist/train_test/var_everything2/lenet_train_test977.prototxt
I0428 20:04:39.187773 30426 net.cpp:296] The NetState phase (1) differed from the phase (0) specified by a rule in layer mnist
I0428 20:04:39.187845 30426 net.cpp:53] Initializing net from parameters: 
name: "LeNet"
state {
  phase: TEST
}
layer {
  name: "mnist"
  type: "Data"
  top: "data"
  top: "label"
  include {
    phase: TEST
  }
  transform_param {
    scale: 0.00390625
  }
  data_param {
    source: "examples/mnist/mnist_test_lmdb"
    batch_size: 100
    backend: LMDB
  }
}
layer {
  name: "conv0"
  type: "Convolution"
  bottom: "data"
  top: "conv0"
  param {
    lr_mult: 1
  }
  param {
    lr_mult: 2
  }
  convolution_param {
    num_output: 25
    kernel_size: 5
    stride: 1
    weight_filler {
      type: "xavier"
    }
    bias_filler {
      type: "constant"
    }
  }
}
layer {
  name: "pool0"
  type: "Pooling"
  bottom: "conv0"
  top: "pool0"
  pooling_param {
    pool: MAX
    kernel_size: 2
    stride: 2
  }
}
layer {
  name: "conv1"
  type: "Convolution"
  bottom: "pool0"
  top: "conv1"
  param {
    lr_mult: 1
  }
  param {
    lr_mult: 2
  }
  convolution_param {
    num_output: 2
    kernel_size: 5
    stride: 1
    weight_filler {
      type: "xavier"
    }
    bias_filler {
      type: "constant"
    }
  }
}
layer {
  name: "pool1"
  type: "Pooling"
  bottom: "conv1"
  top: "pool1"
  pooling_param {
    pool: MAX
    kernel_size: 2
    stride: 2
  }
}
layer {
  name: "ip1"
  type: "InnerProduct"
  bottom: "pool1"
  top: "ip1"
  param {
    lr_mult: 1
  }
  param {
    lr_mult: 2
  }
  inner_product_param {
    num_output: 10
    weight_filler {
      type: "xavier"
    }
    bias_filler {
      type: "constant"
    }
  }
}
layer {
  name: "relu1"
  type: "ReLU"
  bottom: "ip1"
  top: "ip1"
}
layer {
  name: "accuracy"
  type: "Accuracy"
  bottom: "ip1"
  bottom: "label"
  top: "accuracy"
  include {
    phase: TEST
  }
}
layer {
  name: "loss"
  type: "SoftmaxWithLoss"
  bottom: "ip1"
  bottom: "label"
  top: "loss"
}
I0428 20:04:39.187912 30426 layer_factory.hpp:77] Creating layer mnist
I0428 20:04:39.187954 30426 db_lmdb.cpp:35] Opened lmdb examples/mnist/mnist_test_lmdb
I0428 20:04:39.187968 30426 net.cpp:86] Creating Layer mnist
I0428 20:04:39.187971 30426 net.cpp:382] mnist -> data
I0428 20:04:39.187978 30426 net.cpp:382] mnist -> label
I0428 20:04:39.188076 30426 data_layer.cpp:45] output data size: 100,1,28,28
I0428 20:04:39.190138 30426 net.cpp:124] Setting up mnist
I0428 20:04:39.190168 30426 net.cpp:131] Top shape: 100 1 28 28 (78400)
I0428 20:04:39.190173 30426 net.cpp:131] Top shape: 100 (100)
I0428 20:04:39.190176 30426 net.cpp:139] Memory required for data: 314000
I0428 20:04:39.190181 30426 layer_factory.hpp:77] Creating layer label_mnist_1_split
I0428 20:04:39.190239 30426 net.cpp:86] Creating Layer label_mnist_1_split
I0428 20:04:39.190243 30426 net.cpp:408] label_mnist_1_split <- label
I0428 20:04:39.190263 30426 net.cpp:382] label_mnist_1_split -> label_mnist_1_split_0
I0428 20:04:39.190270 30426 net.cpp:382] label_mnist_1_split -> label_mnist_1_split_1
I0428 20:04:39.190320 30426 net.cpp:124] Setting up label_mnist_1_split
I0428 20:04:39.190325 30426 net.cpp:131] Top shape: 100 (100)
I0428 20:04:39.190330 30426 net.cpp:131] Top shape: 100 (100)
I0428 20:04:39.190332 30426 net.cpp:139] Memory required for data: 314800
I0428 20:04:39.190335 30426 layer_factory.hpp:77] Creating layer conv0
I0428 20:04:39.190343 30426 net.cpp:86] Creating Layer conv0
I0428 20:04:39.190346 30426 net.cpp:408] conv0 <- data
I0428 20:04:39.190351 30426 net.cpp:382] conv0 -> conv0
I0428 20:04:39.191344 30426 net.cpp:124] Setting up conv0
I0428 20:04:39.191356 30426 net.cpp:131] Top shape: 100 25 24 24 (1440000)
I0428 20:04:39.191360 30426 net.cpp:139] Memory required for data: 6074800
I0428 20:04:39.191370 30426 layer_factory.hpp:77] Creating layer pool0
I0428 20:04:39.191375 30426 net.cpp:86] Creating Layer pool0
I0428 20:04:39.191378 30426 net.cpp:408] pool0 <- conv0
I0428 20:04:39.191383 30426 net.cpp:382] pool0 -> pool0
I0428 20:04:39.191433 30426 net.cpp:124] Setting up pool0
I0428 20:04:39.191439 30426 net.cpp:131] Top shape: 100 25 12 12 (360000)
I0428 20:04:39.191442 30426 net.cpp:139] Memory required for data: 7514800
I0428 20:04:39.191445 30426 layer_factory.hpp:77] Creating layer conv1
I0428 20:04:39.191453 30426 net.cpp:86] Creating Layer conv1
I0428 20:04:39.191457 30426 net.cpp:408] conv1 <- pool0
I0428 20:04:39.191462 30426 net.cpp:382] conv1 -> conv1
I0428 20:04:39.193675 30426 net.cpp:124] Setting up conv1
I0428 20:04:39.193689 30426 net.cpp:131] Top shape: 100 2 8 8 (12800)
I0428 20:04:39.193693 30426 net.cpp:139] Memory required for data: 7566000
I0428 20:04:39.193702 30426 layer_factory.hpp:77] Creating layer pool1
I0428 20:04:39.193708 30426 net.cpp:86] Creating Layer pool1
I0428 20:04:39.193739 30426 net.cpp:408] pool1 <- conv1
I0428 20:04:39.193747 30426 net.cpp:382] pool1 -> pool1
I0428 20:04:39.193792 30426 net.cpp:124] Setting up pool1
I0428 20:04:39.193799 30426 net.cpp:131] Top shape: 100 2 4 4 (3200)
I0428 20:04:39.193801 30426 net.cpp:139] Memory required for data: 7578800
I0428 20:04:39.193804 30426 layer_factory.hpp:77] Creating layer ip1
I0428 20:04:39.193826 30426 net.cpp:86] Creating Layer ip1
I0428 20:04:39.193830 30426 net.cpp:408] ip1 <- pool1
I0428 20:04:39.193835 30426 net.cpp:382] ip1 -> ip1
I0428 20:04:39.193998 30426 net.cpp:124] Setting up ip1
I0428 20:04:39.194007 30426 net.cpp:131] Top shape: 100 10 (1000)
I0428 20:04:39.194010 30426 net.cpp:139] Memory required for data: 7582800
I0428 20:04:39.194018 30426 layer_factory.hpp:77] Creating layer relu1
I0428 20:04:39.194023 30426 net.cpp:86] Creating Layer relu1
I0428 20:04:39.194033 30426 net.cpp:408] relu1 <- ip1
I0428 20:04:39.194037 30426 net.cpp:369] relu1 -> ip1 (in-place)
I0428 20:04:39.194883 30426 net.cpp:124] Setting up relu1
I0428 20:04:39.194896 30426 net.cpp:131] Top shape: 100 10 (1000)
I0428 20:04:39.194900 30426 net.cpp:139] Memory required for data: 7586800
I0428 20:04:39.194903 30426 layer_factory.hpp:77] Creating layer ip1_relu1_0_split
I0428 20:04:39.194912 30426 net.cpp:86] Creating Layer ip1_relu1_0_split
I0428 20:04:39.194931 30426 net.cpp:408] ip1_relu1_0_split <- ip1
I0428 20:04:39.194937 30426 net.cpp:382] ip1_relu1_0_split -> ip1_relu1_0_split_0
I0428 20:04:39.194944 30426 net.cpp:382] ip1_relu1_0_split -> ip1_relu1_0_split_1
I0428 20:04:39.194986 30426 net.cpp:124] Setting up ip1_relu1_0_split
I0428 20:04:39.194993 30426 net.cpp:131] Top shape: 100 10 (1000)
I0428 20:04:39.194998 30426 net.cpp:131] Top shape: 100 10 (1000)
I0428 20:04:39.195000 30426 net.cpp:139] Memory required for data: 7594800
I0428 20:04:39.195003 30426 layer_factory.hpp:77] Creating layer accuracy
I0428 20:04:39.195008 30426 net.cpp:86] Creating Layer accuracy
I0428 20:04:39.195011 30426 net.cpp:408] accuracy <- ip1_relu1_0_split_0
I0428 20:04:39.195015 30426 net.cpp:408] accuracy <- label_mnist_1_split_0
I0428 20:04:39.195019 30426 net.cpp:382] accuracy -> accuracy
…
