…
I0428 20:11:53.547745 32160 net.cpp:296] The NetState phase (0) differed from the phase (1) specified by a rule in layer mnist
I0428 20:11:53.547765 32160 net.cpp:296] The NetState phase (0) differed from the phase (1) specified by a rule in layer accuracy
I0428 20:11:53.547865 32160 net.cpp:53] Initializing net from parameters: 
name: "LeNet"
state {
  phase: TRAIN
  level: 0
  stage: ""
}
layer {
  name: "mnist"
  type: "Data"
  top: "data"
  top: "label"
  include {
    phase: TRAIN
  }
  transform_param {
    scale: 0.00390625
  }
  data_param {
    source: "examples/mnist/mnist_train_lmdb"
    batch_size: 64
    backend: LMDB
  }
}
layer {
  name: "conv0"
  type: "Convolution"
  bottom: "data"
  top: "conv0"
  param {
    lr_mult: 1
  }
  param {
    lr_mult: 2
  }
  convolution_param {
    num_output: 25
    kernel_size: 5
    stride: 1
    weight_filler {
      type: "xavier"
    }
    bias_filler {
      type: "constant"
    }
  }
}
layer {
  name: "pool0"
  type: "Pooling"
  bottom: "conv0"
  top: "pool0"
  pooling_param {
    pool: MAX
    kernel_size: 2
    stride: 2
  }
}
layer {
  name: "conv1"
  type: "Convolution"
  bottom: "pool0"
  top: "conv1"
  param {
    lr_mult: 1
  }
  param {
    lr_mult: 2
  }
  convolution_param {
    num_output: 50
    kernel_size: 5
    stride: 1
    weight_filler {
      type: "xavier"
    }
    bias_filler {
      type: "constant"
    }
  }
}
layer {
  name: "pool1"
  type: "Pooling"
  bottom: "conv1"
  top: "pool1"
  pooling_param {
    pool: MAX
    kernel_size: 2
    stride: 2
  }
}
layer {
  name: "ip1"
  type: "InnerProduct"
  bottom: "pool1"
  top: "ip1"
  param {
    lr_mult: 1
  }
  param {
    lr_mult: 2
  }
  inner_product_param {
    num_output: 50
    weight_filler {
      type: "xavier"
    }
    bias_filler {
      type: "constant"
    }
  }
}
layer {
  name: "relu1"
  type: "ReLU"
  bottom: "ip1"
  top: "ip1"
}
layer {
  name: "ip2"
  type: "InnerProduct"
  bottom: "ip1"
  top: "ip2"
  param {
    lr_mult: 1
  }
  param {
    lr_mult: 2
  }
  inner_product_param {
    num_output: 50
    weight_filler {
      type: "xavier"
    }
    bias_filler {
      type: "constant"
    }
  }
}
layer {
  name: "relu2"
  type: "ReLU"
  bottom: "ip2"
  top: "ip2"
}
layer {
  name: "ip3"
  type: "InnerProduct"
  bottom: "ip2"
  top: "ip3"
  param {
    lr_mult: 1
  }
  param {
    lr_mult: 2
  }
  inner_product_param {
    num_output: 10
    weight_filler {
      type: "xavier"
    }
    bias_filler {
      type: "constant"
    }
  }
}
layer {
  name: "relu3"
  type: "ReLU"
  bottom: "ip3"
  top: "ip3"
}
layer {
  name: "loss"
  type: "SoftmaxWithLoss"
  bottom: "ip3"
  bottom: "label"
  top: "loss"
}
I0428 20:11:53.547940 32160 layer_factory.hpp:77] Creating layer mnist
I0428 20:11:53.548038 32160 db_lmdb.cpp:35] Opened lmdb examples/mnist/mnist_train_lmdb
I0428 20:11:53.548059 32160 net.cpp:86] Creating Layer mnist
I0428 20:11:53.548069 32160 net.cpp:382] mnist -> data
I0428 20:11:53.548089 32160 net.cpp:382] mnist -> label
I0428 20:11:53.549171 32160 data_layer.cpp:45] output data size: 64,1,28,28
I0428 20:11:53.551554 32160 net.cpp:124] Setting up mnist
I0428 20:11:53.551570 32160 net.cpp:131] Top shape: 64 1 28 28 (50176)
I0428 20:11:53.551576 32160 net.cpp:131] Top shape: 64 (64)
I0428 20:11:53.551580 32160 net.cpp:139] Memory required for data: 200960
I0428 20:11:53.551586 32160 layer_factory.hpp:77] Creating layer conv0
I0428 20:11:53.551610 32160 net.cpp:86] Creating Layer conv0
I0428 20:11:53.551630 32160 net.cpp:408] conv0 <- data
I0428 20:11:53.551645 32160 net.cpp:382] conv0 -> conv0
I0428 20:11:53.835764 32160 net.cpp:124] Setting up conv0
I0428 20:11:53.835796 32160 net.cpp:131] Top shape: 64 25 24 24 (921600)
I0428 20:11:53.835801 32160 net.cpp:139] Memory required for data: 3887360
I0428 20:11:53.835820 32160 layer_factory.hpp:77] Creating layer pool0
I0428 20:11:53.835834 32160 net.cpp:86] Creating Layer pool0
I0428 20:11:53.835839 32160 net.cpp:408] pool0 <- conv0
I0428 20:11:53.835846 32160 net.cpp:382] pool0 -> pool0
I0428 20:11:53.835901 32160 net.cpp:124] Setting up pool0
I0428 20:11:53.835909 32160 net.cpp:131] Top shape: 64 25 12 12 (230400)
I0428 20:11:53.835913 32160 net.cpp:139] Memory required for data: 4808960
I0428 20:11:53.835917 32160 layer_factory.hpp:77] Creating layer conv1
I0428 20:11:53.835929 32160 net.cpp:86] Creating Layer conv1
I0428 20:11:53.835932 32160 net.cpp:408] conv1 <- pool0
I0428 20:11:53.835938 32160 net.cpp:382] conv1 -> conv1
I0428 20:11:53.838312 32160 net.cpp:124] Setting up conv1
I0428 20:11:53.838330 32160 net.cpp:131] Top shape: 64 50 8 8 (204800)
I0428 20:11:53.838335 32160 net.cpp:139] Memory required for data: 5628160
I0428 20:11:53.838345 32160 layer_factory.hpp:77] Creating layer pool1
I0428 20:11:53.838353 32160 net.cpp:86] Creating Layer pool1
I0428 20:11:53.838358 32160 net.cpp:408] pool1 <- conv1
I0428 20:11:53.838364 32160 net.cpp:382] pool1 -> pool1
I0428 20:11:53.838408 32160 net.cpp:124] Setting up pool1
I0428 20:11:53.838415 32160 net.cpp:131] Top shape: 64 50 4 4 (51200)
I0428 20:11:53.838419 32160 net.cpp:139] Memory required for data: 5832960
I0428 20:11:53.838423 32160 layer_factory.hpp:77] Creating layer ip1
I0428 20:11:53.838431 32160 net.cpp:86] Creating Layer ip1
I0428 20:11:53.838435 32160 net.cpp:408] ip1 <- pool1
I0428 20:11:53.838440 32160 net.cpp:382] ip1 -> ip1
I0428 20:11:53.838836 32160 net.cpp:124] Setting up ip1
I0428 20:11:53.838846 32160 net.cpp:131] Top shape: 64 50 (3200)
I0428 20:11:53.838850 32160 net.cpp:139] Memory required for data: 5845760
I0428 20:11:53.838860 32160 layer_factory.hpp:77] Creating layer relu1
I0428 20:11:53.838866 32160 net.cpp:86] Creating Layer relu1
I0428 20:11:53.838871 32160 net.cpp:408] relu1 <- ip1
I0428 20:11:53.838876 32160 net.cpp:369] relu1 -> ip1 (in-place)
I0428 20:11:53.839074 32160 net.cpp:124] Setting up relu1
I0428 20:11:53.839085 32160 net.cpp:131] Top shape: 64 50 (3200)
I0428 20:11:53.839088 32160 net.cpp:139] Memory required for data: 5858560
I0428 20:11:53.839092 32160 layer_factory.hpp:77] Creating layer ip2
I0428 20:11:53.839100 32160 net.cpp:86] Creating Layer ip2
I0428 20:11:53.839104 32160 net.cpp:408] ip2 <- ip1
I0428 20:11:53.839109 32160 net.cpp:382] ip2 -> ip2
I0428 20:11:53.840236 32160 net.cpp:124] Setting up ip2
I0428 20:11:53.840251 32160 net.cpp:131] Top shape: 64 50 (3200)
I0428 20:11:53.840255 32160 net.cpp:139] Memory required for data: 5871360
I0428 20:11:53.840263 32160 layer_factory.hpp:77] Creating layer relu2
I0428 20:11:53.840271 32160 net.cpp:86] Creating Layer relu2
I0428 20:11:53.840276 32160 net.cpp:408] relu2 <- ip2
I0428 20:11:53.840281 32160 net.cpp:369] relu2 -> ip2 (in-place)
I0428 20:11:53.841142 32160 net.cpp:124] Setting up relu2
I0428 20:11:53.841158 32160 net.cpp:131] Top shape: 64 50 (3200)
I0428 20:11:53.841162 32160 net.cpp:139] Memory required for data: 5884160
I0428 20:11:53.841167 32160 layer_factory.hpp:77] Creating layer ip3
I0428 20:11:53.841176 32160 net.cpp:86] Creating Layer ip3
I0428 20:11:53.841179 32160 net.cpp:408] ip3 <- ip2
I0428 20:11:53.841187 32160 net.cpp:382] ip3 -> ip3
I0428 20:11:53.841306 32160 net.cpp:124] Setting up ip3
I0428 20:11:53.841316 32160 net.cpp:131] Top shape: 64 10 (640)
I0428 20:11:53.841320 32160 net.cpp:139] Memory required for data: 5886720
I0428 20:11:53.841330 32160 layer_factory.hpp:77] Creating layer relu3
I0428 20:11:53.841336 32160 net.cpp:86] Creating Layer relu3
I0428 20:11:53.841339 32160 net.cpp:408] relu3 <- ip3
I0428 20:11:53.841346 32160 net.cpp:369] relu3 -> ip3 (in-place)
I0428 20:11:53.841552 32160 net.cpp:124] Setting up relu3
I0428 20:11:53.841562 32160 net.cpp:131] Top shape: 64 10 (640)
I0428 20:11:53.841567 32160 net.cpp:139] Memory required for data: 5889280
I0428 20:11:53.841570 32160 layer_factory.hpp:77] Creating layer loss
I0428 20:11:53.841578 32160 net.cpp:86] Creating Layer loss
I0428 20:11:53.841583 32160 net.cpp:408] loss <- ip3
I0428 20:11:53.841586 32160 net.cpp:408] loss <- label
I0428 20:11:53.841593 32160 net.cpp:382] loss -> loss
I0428 20:11:53.841609 32160 layer_factory.hpp:77] Creating layer loss
…
I0428 20:11:53.842380 32160 solver.cpp:173] Creating test net (#0) specified by net file: ECE595/mnist/train_test/var_everything2/lenet_train_test1169.prototxt
I0428 20:11:53.842411 32160 net.cpp:296] The NetState phase (1) differed from the phase (0) specified by a rule in layer mnist
I0428 20:11:53.842522 32160 net.cpp:53] Initializing net from parameters: 
name: "LeNet"
state {
  phase: TEST
}
layer {
  name: "mnist"
  type: "Data"
  top: "data"
  top: "label"
  include {
    phase: TEST
  }
  transform_param {
    scale: 0.00390625
  }
  data_param {
    source: "examples/mnist/mnist_test_lmdb"
    batch_size: 100
    backend: LMDB
  }
}
layer {
  name: "conv0"
  type: "Convolution"
  bottom: "data"
  top: "conv0"
  param {
    lr_mult: 1
  }
  param {
    lr_mult: 2
  }
  convolution_param {
    num_output: 25
    kernel_size: 5
    stride: 1
    weight_filler {
      type: "xavier"
    }
    bias_filler {
      type: "constant"
    }
  }
}
layer {
  name: "pool0"
  type: "Pooling"
  bottom: "conv0"
  top: "pool0"
  pooling_param {
    pool: MAX
    kernel_size: 2
    stride: 2
  }
}
layer {
  name: "conv1"
  type: "Convolution"
  bottom: "pool0"
  top: "conv1"
  param {
    lr_mult: 1
  }
  param {
    lr_mult: 2
  }
  convolution_param {
    num_output: 50
    kernel_size: 5
    stride: 1
    weight_filler {
      type: "xavier"
    }
    bias_filler {
      type: "constant"
    }
  }
}
layer {
  name: "pool1"
  type: "Pooling"
  bottom: "conv1"
  top: "pool1"
  pooling_param {
    pool: MAX
    kernel_size: 2
    stride: 2
  }
}
layer {
  name: "ip1"
  type: "InnerProduct"
  bottom: "pool1"
  top: "ip1"
  param {
    lr_mult: 1
  }
  param {
    lr_mult: 2
  }
  inner_product_param {
    num_output: 50
    weight_filler {
      type: "xavier"
    }
    bias_filler {
      type: "constant"
    }
  }
}
layer {
  name: "relu1"
  type: "ReLU"
  bottom: "ip1"
  top: "ip1"
}
layer {
  name: "ip2"
  type: "InnerProduct"
  bottom: "ip1"
  top: "ip2"
  param {
    lr_mult: 1
  }
  param {
    lr_mult: 2
  }
  inner_product_param {
    num_output: 50
    weight_filler {
      type: "xavier"
    }
    bias_filler {
      type: "constant"
    }
  }
}
layer {
  name: "relu2"
  type: "ReLU"
  bottom: "ip2"
  top: "ip2"
}
layer {
  name: "ip3"
  type: "InnerProduct"
  bottom: "ip2"
  top: "ip3"
  param {
    lr_mult: 1
  }
  param {
    lr_mult: 2
  }
  inner_product_param {
    num_output: 10
    weight_filler {
      type: "xavier"
    }
    bias_filler {
      type: "constant"
    }
  }
}
layer {
  name: "relu3"
  type: "ReLU"
  bottom: "ip3"
  top: "ip3"
}
layer {
  name: "accuracy"
  type: "Accuracy"
  bottom: "ip3"
  bottom: "label"
  top: "accuracy"
  include {
    phase: TEST
  }
}
layer {
  name: "loss"
  type: "SoftmaxWithLoss"
  bottom: "ip3"
  bottom: "label"
  top: "loss"
}
I0428 20:11:53.842620 32160 layer_factory.hpp:77] Creating layer mnist
I0428 20:11:53.842674 32160 db_lmdb.cpp:35] Opened lmdb examples/mnist/mnist_test_lmdb
I0428 20:11:53.842689 32160 net.cpp:86] Creating Layer mnist
I0428 20:11:53.842694 32160 net.cpp:382] mnist -> data
I0428 20:11:53.842702 32160 net.cpp:382] mnist -> label
I0428 20:11:53.842808 32160 data_layer.cpp:45] output data size: 100,1,28,28
I0428 20:11:53.845034 32160 net.cpp:124] Setting up mnist
I0428 20:11:53.845052 32160 net.cpp:131] Top shape: 100 1 28 28 (78400)
I0428 20:11:53.845057 32160 net.cpp:131] Top shape: 100 (100)
I0428 20:11:53.845060 32160 net.cpp:139] Memory required for data: 314000
I0428 20:11:53.845064 32160 layer_factory.hpp:77] Creating layer label_mnist_1_split
I0428 20:11:53.845072 32160 net.cpp:86] Creating Layer label_mnist_1_split
I0428 20:11:53.845077 32160 net.cpp:408] label_mnist_1_split <- label
I0428 20:11:53.845082 32160 net.cpp:382] label_mnist_1_split -> label_mnist_1_split_0
I0428 20:11:53.845091 32160 net.cpp:382] label_mnist_1_split -> label_mnist_1_split_1
I0428 20:11:53.845206 32160 net.cpp:124] Setting up label_mnist_1_split
I0428 20:11:53.845216 32160 net.cpp:131] Top shape: 100 (100)
I0428 20:11:53.845219 32160 net.cpp:131] Top shape: 100 (100)
I0428 20:11:53.845222 32160 net.cpp:139] Memory required for data: 314800
I0428 20:11:53.845227 32160 layer_factory.hpp:77] Creating layer conv0
I0428 20:11:53.845238 32160 net.cpp:86] Creating Layer conv0
I0428 20:11:53.845242 32160 net.cpp:408] conv0 <- data
I0428 20:11:53.845248 32160 net.cpp:382] conv0 -> conv0
I0428 20:11:53.847172 32160 net.cpp:124] Setting up conv0
I0428 20:11:53.847188 32160 net.cpp:131] Top shape: 100 25 24 24 (1440000)
I0428 20:11:53.847193 32160 net.cpp:139] Memory required for data: 6074800
I0428 20:11:53.847204 32160 layer_factory.hpp:77] Creating layer pool0
I0428 20:11:53.847213 32160 net.cpp:86] Creating Layer pool0
I0428 20:11:53.847216 32160 net.cpp:408] pool0 <- conv0
I0428 20:11:53.847223 32160 net.cpp:382] pool0 -> pool0
I0428 20:11:53.847267 32160 net.cpp:124] Setting up pool0
I0428 20:11:53.847275 32160 net.cpp:131] Top shape: 100 25 12 12 (360000)
I0428 20:11:53.847277 32160 net.cpp:139] Memory required for data: 7514800
I0428 20:11:53.847281 32160 layer_factory.hpp:77] Creating layer conv1
I0428 20:11:53.847292 32160 net.cpp:86] Creating Layer conv1
I0428 20:11:53.847296 32160 net.cpp:408] conv1 <- pool0
I0428 20:11:53.847303 32160 net.cpp:382] conv1 -> conv1
I0428 20:11:53.849364 32160 net.cpp:124] Setting up conv1
I0428 20:11:53.849380 32160 net.cpp:131] Top shape: 100 50 8 8 (320000)
I0428 20:11:53.849385 32160 net.cpp:139] Memory required for data: 8794800
I0428 20:11:53.849396 32160 layer_factory.hpp:77] Creating layer pool1
I0428 20:11:53.849406 32160 net.cpp:86] Creating Layer pool1
I0428 20:11:53.849409 32160 net.cpp:408] pool1 <- conv1
I0428 20:11:53.849416 32160 net.cpp:382] pool1 -> pool1
I0428 20:11:53.849462 32160 net.cpp:124] Setting up pool1
I0428 20:11:53.849467 32160 net.cpp:131] Top shape: 100 50 4 4 (80000)
I0428 20:11:53.849472 32160 net.cpp:139] Memory required for data: 9114800
I0428 20:11:53.849475 32160 layer_factory.hpp:77] Creating layer ip1
I0428 20:11:53.849483 32160 net.cpp:86] Creating Layer ip1
I0428 20:11:53.849488 32160 net.cpp:408] ip1 <- pool1
I0428 20:11:53.849493 32160 net.cpp:382] ip1 -> ip1
I0428 20:11:53.849894 32160 net.cpp:124] Setting up ip1
I0428 20:11:53.849905 32160 net.cpp:131] Top shape: 100 50 (5000)
I0428 20:11:53.849920 32160 net.cpp:139] Memory required for data: 9134800
I0428 20:11:53.849928 32160 layer_factory.hpp:77] Creating layer relu1
I0428 20:11:53.849934 32160 net.cpp:86] Creating Layer relu1
I0428 20:11:53.849938 32160 net.cpp:408] relu1 <- ip1
I0428 20:11:53.849946 32160 net.cpp:369] relu1 -> ip1 (in-place)
I0428 20:11:53.850153 32160 net.cpp:124] Setting up relu1
I0428 20:11:53.850164 32160 net.cpp:131] Top shape: 100 50 (5000)
I0428 20:11:53.850167 32160 net.cpp:139] Memory required for data: 9154800
I0428 20:11:53.850172 32160 layer_factory.hpp:77] Creating layer ip2
I0428 20:11:53.850180 32160 net.cpp:86] Creating Layer ip2
I0428 20:11:53.850184 32160 net.cpp:408] ip2 <- ip1
I0428 20:11:53.850196 32160 net.cpp:382] ip2 -> ip2
I0428 20:11:53.850390 32160 net.cpp:124] Setting up ip2
I0428 20:11:53.850402 32160 net.cpp:131] Top shape: 100 50 (5000)
I0428 20:11:53.850406 32160 net.cpp:139] Memory required for data: 9174800
I0428 20:11:53.850414 32160 layer_factory.hpp:77] Creating layer relu2
I0428 20:11:53.850425 32160 net.cpp:86] Creating Layer relu2
I0428 20:11:53.850430 32160 net.cpp:408] relu2 <- ip2
I0428 20:11:53.850435 32160 net.cpp:369] relu2 -> ip2 (in-place)
I0428 20:11:53.850628 32160 net.cpp:124] Setting up relu2
I0428 20:11:53.850639 32160 net.cpp:131] Top shape: 100 50 (5000)
I0428 20:11:53.850643 32160 net.cpp:139] Memory required for data: 9194800
I0428 20:11:53.850647 32160 layer_factory.hpp:77] Creating layer ip3
I0428 20:11:53.850661 32160 net.cpp:86] Creating Layer ip3
I0428 20:11:53.850664 32160 net.cpp:408] ip3 <- ip2
I0428 20:11:53.850672 32160 net.cpp:382] ip3 -> ip3
I0428 20:11:53.850795 32160 net.cpp:124] Setting up ip3
I0428 20:11:53.850805 32160 net.cpp:131] Top shape: 100 10 (1000)
I0428 20:11:53.850807 32160 net.cpp:139] Memory required for data: 9198800
I0428 20:11:53.850817 32160 layer_factory.hpp:77] Creating layer relu3
I0428 20:11:53.850824 32160 net.cpp:86] Creating Layer relu3
I0428 20:11:53.850833 32160 net.cpp:408] relu3 <- ip3
I0428 20:11:53.850838 32160 net.cpp:369] relu3 -> ip3 (in-place)
I0428 20:11:53.851773 32160 net.cpp:124] Setting up relu3
I0428 20:11:53.851788 32160 net.cpp:131] Top shape: 100 10 (1000)
I0428 20:11:53.851790 32160 net.cpp:139] Memory required for data: 9202800
I0428 20:11:53.851794 32160 layer_factory.hpp:77] Creating layer ip3_relu3_0_split
I0428 20:11:53.851800 32160 net.cpp:86] Creating Layer ip3_relu3_0_split
I0428 20:11:53.851804 32160 net.cpp:408] ip3_relu3_0_split <- ip3
I0428 20:11:53.851810 32160 net.cpp:382] ip3_relu3_0_split -> ip3_relu3_0_split_0
I0428 20:11:53.851819 32160 net.cpp:382] ip3_relu3_0_split -> ip3_relu3_0_split_1
I0428 20:11:53.851866 32160 net.cpp:124] Setting up ip3_relu3_0_split
I0428 20:11:53.851872 32160 net.cpp:131] Top shape: 100 10 (1000)
I0428 20:11:53.851876 32160 net.cpp:131] Top shape: 100 10 (1000)
I0428 20:11:53.851879 32160 net.cpp:139] Memory required for data: 9210800
I0428 20:11:53.851883 32160 layer_factory.hpp:77] Creating layer accuracy
I0428 20:11:53.851891 32160 net.cpp:86] Creating Layer accuracy
I0428 20:11:53.851896 32160 net.cpp:408] accuracy <- ip3_relu3_0_split_0
I0428 20:11:53.851900 32160 net.cpp:408] accuracy <- label_mnist_1_split_0
I0428 20:11:53.851907 32160 net.cpp:382] accuracy -> accuracy
…
