…
I0428 20:22:46.310824  2124 net.cpp:296] The NetState phase (0) differed from the phase (1) specified by a rule in layer mnist
I0428 20:22:46.310843  2124 net.cpp:296] The NetState phase (0) differed from the phase (1) specified by a rule in layer accuracy
I0428 20:22:46.310931  2124 net.cpp:53] Initializing net from parameters: 
name: "LeNet"
state {
  phase: TRAIN
  level: 0
  stage: ""
}
layer {
  name: "mnist"
  type: "Data"
  top: "data"
  top: "label"
  include {
    phase: TRAIN
  }
  transform_param {
    scale: 0.00390625
  }
  data_param {
    source: "examples/mnist/mnist_train_lmdb"
    batch_size: 64
    backend: LMDB
  }
}
layer {
  name: "conv0"
  type: "Convolution"
  bottom: "data"
  top: "conv0"
  param {
    lr_mult: 1
  }
  param {
    lr_mult: 2
  }
  convolution_param {
    num_output: 50
    kernel_size: 5
    stride: 1
    weight_filler {
      type: "xavier"
    }
    bias_filler {
      type: "constant"
    }
  }
}
layer {
  name: "pool0"
  type: "Pooling"
  bottom: "conv0"
  top: "pool0"
  pooling_param {
    pool: MAX
    kernel_size: 2
    stride: 2
  }
}
layer {
  name: "conv1"
  type: "Convolution"
  bottom: "pool0"
  top: "conv1"
  param {
    lr_mult: 1
  }
  param {
    lr_mult: 2
  }
  convolution_param {
    num_output: 100
    kernel_size: 5
    stride: 1
    weight_filler {
      type: "xavier"
    }
    bias_filler {
      type: "constant"
    }
  }
}
layer {
  name: "pool1"
  type: "Pooling"
  bottom: "conv1"
  top: "pool1"
  pooling_param {
    pool: MAX
    kernel_size: 2
    stride: 2
  }
}
layer {
  name: "ip1"
  type: "InnerProduct"
  bottom: "pool1"
  top: "ip1"
  param {
    lr_mult: 1
  }
  param {
    lr_mult: 2
  }
  inner_product_param {
    num_output: 25
    weight_filler {
      type: "xavier"
    }
    bias_filler {
      type: "constant"
    }
  }
}
layer {
  name: "relu1"
  type: "ReLU"
  bottom: "ip1"
  top: "ip1"
}
layer {
  name: "ip2"
  type: "InnerProduct"
  bottom: "ip1"
  top: "ip2"
  param {
    lr_mult: 1
  }
  param {
    lr_mult: 2
  }
  inner_product_param {
    num_output: 10
    weight_filler {
      type: "xavier"
    }
    bias_filler {
      type: "constant"
    }
  }
}
layer {
  name: "relu2"
  type: "ReLU"
  bottom: "ip2"
  top: "ip2"
}
layer {
  name: "loss"
  type: "SoftmaxWithLoss"
  bottom: "ip2"
  bottom: "label"
  top: "loss"
}
I0428 20:22:46.311007  2124 layer_factory.hpp:77] Creating layer mnist
I0428 20:22:46.311105  2124 db_lmdb.cpp:35] Opened lmdb examples/mnist/mnist_train_lmdb
I0428 20:22:46.311127  2124 net.cpp:86] Creating Layer mnist
I0428 20:22:46.311137  2124 net.cpp:382] mnist -> data
I0428 20:22:46.311158  2124 net.cpp:382] mnist -> label
I0428 20:22:46.312253  2124 data_layer.cpp:45] output data size: 64,1,28,28
I0428 20:22:46.314715  2124 net.cpp:124] Setting up mnist
I0428 20:22:46.314734  2124 net.cpp:131] Top shape: 64 1 28 28 (50176)
I0428 20:22:46.314740  2124 net.cpp:131] Top shape: 64 (64)
I0428 20:22:46.314743  2124 net.cpp:139] Memory required for data: 200960
I0428 20:22:46.314750  2124 layer_factory.hpp:77] Creating layer conv0
I0428 20:22:46.314769  2124 net.cpp:86] Creating Layer conv0
I0428 20:22:46.314774  2124 net.cpp:408] conv0 <- data
I0428 20:22:46.314787  2124 net.cpp:382] conv0 -> conv0
I0428 20:22:46.582655  2124 net.cpp:124] Setting up conv0
I0428 20:22:46.582681  2124 net.cpp:131] Top shape: 64 50 24 24 (1843200)
I0428 20:22:46.582685  2124 net.cpp:139] Memory required for data: 7573760
I0428 20:22:46.582716  2124 layer_factory.hpp:77] Creating layer pool0
I0428 20:22:46.582728  2124 net.cpp:86] Creating Layer pool0
I0428 20:22:46.582732  2124 net.cpp:408] pool0 <- conv0
I0428 20:22:46.582737  2124 net.cpp:382] pool0 -> pool0
I0428 20:22:46.582798  2124 net.cpp:124] Setting up pool0
I0428 20:22:46.582804  2124 net.cpp:131] Top shape: 64 50 12 12 (460800)
I0428 20:22:46.582808  2124 net.cpp:139] Memory required for data: 9416960
I0428 20:22:46.582810  2124 layer_factory.hpp:77] Creating layer conv1
I0428 20:22:46.582820  2124 net.cpp:86] Creating Layer conv1
I0428 20:22:46.582825  2124 net.cpp:408] conv1 <- pool0
I0428 20:22:46.582841  2124 net.cpp:382] conv1 -> conv1
I0428 20:22:46.586354  2124 net.cpp:124] Setting up conv1
I0428 20:22:46.586367  2124 net.cpp:131] Top shape: 64 100 8 8 (409600)
I0428 20:22:46.586382  2124 net.cpp:139] Memory required for data: 11055360
I0428 20:22:46.586390  2124 layer_factory.hpp:77] Creating layer pool1
I0428 20:22:46.586398  2124 net.cpp:86] Creating Layer pool1
I0428 20:22:46.586401  2124 net.cpp:408] pool1 <- conv1
I0428 20:22:46.586406  2124 net.cpp:382] pool1 -> pool1
I0428 20:22:46.586442  2124 net.cpp:124] Setting up pool1
I0428 20:22:46.586455  2124 net.cpp:131] Top shape: 64 100 4 4 (102400)
I0428 20:22:46.586457  2124 net.cpp:139] Memory required for data: 11464960
I0428 20:22:46.586460  2124 layer_factory.hpp:77] Creating layer ip1
I0428 20:22:46.586467  2124 net.cpp:86] Creating Layer ip1
I0428 20:22:46.586470  2124 net.cpp:408] ip1 <- pool1
I0428 20:22:46.586490  2124 net.cpp:382] ip1 -> ip1
I0428 20:22:46.586834  2124 net.cpp:124] Setting up ip1
I0428 20:22:46.586843  2124 net.cpp:131] Top shape: 64 25 (1600)
I0428 20:22:46.586855  2124 net.cpp:139] Memory required for data: 11471360
I0428 20:22:46.586863  2124 layer_factory.hpp:77] Creating layer relu1
I0428 20:22:46.586868  2124 net.cpp:86] Creating Layer relu1
I0428 20:22:46.586870  2124 net.cpp:408] relu1 <- ip1
I0428 20:22:46.586875  2124 net.cpp:369] relu1 -> ip1 (in-place)
I0428 20:22:46.587033  2124 net.cpp:124] Setting up relu1
I0428 20:22:46.587040  2124 net.cpp:131] Top shape: 64 25 (1600)
I0428 20:22:46.587044  2124 net.cpp:139] Memory required for data: 11477760
I0428 20:22:46.587047  2124 layer_factory.hpp:77] Creating layer ip2
I0428 20:22:46.587054  2124 net.cpp:86] Creating Layer ip2
I0428 20:22:46.587056  2124 net.cpp:408] ip2 <- ip1
I0428 20:22:46.587060  2124 net.cpp:382] ip2 -> ip2
I0428 20:22:46.587177  2124 net.cpp:124] Setting up ip2
I0428 20:22:46.587184  2124 net.cpp:131] Top shape: 64 10 (640)
I0428 20:22:46.587203  2124 net.cpp:139] Memory required for data: 11480320
I0428 20:22:46.587208  2124 layer_factory.hpp:77] Creating layer relu2
I0428 20:22:46.587214  2124 net.cpp:86] Creating Layer relu2
I0428 20:22:46.587218  2124 net.cpp:408] relu2 <- ip2
I0428 20:22:46.587221  2124 net.cpp:369] relu2 -> ip2 (in-place)
I0428 20:22:46.588032  2124 net.cpp:124] Setting up relu2
I0428 20:22:46.588044  2124 net.cpp:131] Top shape: 64 10 (640)
I0428 20:22:46.588058  2124 net.cpp:139] Memory required for data: 11482880
I0428 20:22:46.588062  2124 layer_factory.hpp:77] Creating layer loss
I0428 20:22:46.588088  2124 net.cpp:86] Creating Layer loss
I0428 20:22:46.588091  2124 net.cpp:408] loss <- ip2
I0428 20:22:46.588096  2124 net.cpp:408] loss <- label
I0428 20:22:46.588101  2124 net.cpp:382] loss -> loss
I0428 20:22:46.588116  2124 layer_factory.hpp:77] Creating layer loss
…
I0428 20:22:46.588721  2124 solver.cpp:173] Creating test net (#0) specified by net file: ECE595/mnist/train_test/var_everything2/lenet_train_test1410.prototxt
I0428 20:22:46.588762  2124 net.cpp:296] The NetState phase (1) differed from the phase (0) specified by a rule in layer mnist
I0428 20:22:46.588889  2124 net.cpp:53] Initializing net from parameters: 
name: "LeNet"
state {
  phase: TEST
}
layer {
  name: "mnist"
  type: "Data"
  top: "data"
  top: "label"
  include {
    phase: TEST
  }
  transform_param {
    scale: 0.00390625
  }
  data_param {
    source: "examples/mnist/mnist_test_lmdb"
    batch_size: 100
    backend: LMDB
  }
}
layer {
  name: "conv0"
  type: "Convolution"
  bottom: "data"
  top: "conv0"
  param {
    lr_mult: 1
  }
  param {
    lr_mult: 2
  }
  convolution_param {
    num_output: 50
    kernel_size: 5
    stride: 1
    weight_filler {
      type: "xavier"
    }
    bias_filler {
      type: "constant"
    }
  }
}
layer {
  name: "pool0"
  type: "Pooling"
  bottom: "conv0"
  top: "pool0"
  pooling_param {
    pool: MAX
    kernel_size: 2
    stride: 2
  }
}
layer {
  name: "conv1"
  type: "Convolution"
  bottom: "pool0"
  top: "conv1"
  param {
    lr_mult: 1
  }
  param {
    lr_mult: 2
  }
  convolution_param {
    num_output: 100
    kernel_size: 5
    stride: 1
    weight_filler {
      type: "xavier"
    }
    bias_filler {
      type: "constant"
    }
  }
}
layer {
  name: "pool1"
  type: "Pooling"
  bottom: "conv1"
  top: "pool1"
  pooling_param {
    pool: MAX
    kernel_size: 2
    stride: 2
  }
}
layer {
  name: "ip1"
  type: "InnerProduct"
  bottom: "pool1"
  top: "ip1"
  param {
    lr_mult: 1
  }
  param {
    lr_mult: 2
  }
  inner_product_param {
    num_output: 25
    weight_filler {
      type: "xavier"
    }
    bias_filler {
      type: "constant"
    }
  }
}
layer {
  name: "relu1"
  type: "ReLU"
  bottom: "ip1"
  top: "ip1"
}
layer {
  name: "ip2"
  type: "InnerProduct"
  bottom: "ip1"
  top: "ip2"
  param {
    lr_mult: 1
  }
  param {
    lr_mult: 2
  }
  inner_product_param {
    num_output: 10
    weight_filler {
      type: "xavier"
    }
    bias_filler {
      type: "constant"
    }
  }
}
layer {
  name: "relu2"
  type: "ReLU"
  bottom: "ip2"
  top: "ip2"
}
layer {
  name: "accuracy"
  type: "Accuracy"
  bottom: "ip2"
  bottom: "label"
  top: "accuracy"
  include {
    phase: TEST
  }
}
layer {
  name: "loss"
  type: "SoftmaxWithLoss"
  bottom: "ip2"
  bottom: "label"
  top: "loss"
}
I0428 20:22:46.588958  2124 layer_factory.hpp:77] Creating layer mnist
I0428 20:22:46.589004  2124 db_lmdb.cpp:35] Opened lmdb examples/mnist/mnist_test_lmdb
I0428 20:22:46.589016  2124 net.cpp:86] Creating Layer mnist
I0428 20:22:46.589021  2124 net.cpp:382] mnist -> data
I0428 20:22:46.589030  2124 net.cpp:382] mnist -> label
I0428 20:22:46.589125  2124 data_layer.cpp:45] output data size: 100,1,28,28
I0428 20:22:46.590381  2124 net.cpp:124] Setting up mnist
I0428 20:22:46.590409  2124 net.cpp:131] Top shape: 100 1 28 28 (78400)
I0428 20:22:46.590415  2124 net.cpp:131] Top shape: 100 (100)
I0428 20:22:46.590420  2124 net.cpp:139] Memory required for data: 314000
I0428 20:22:46.590422  2124 layer_factory.hpp:77] Creating layer label_mnist_1_split
I0428 20:22:46.590430  2124 net.cpp:86] Creating Layer label_mnist_1_split
I0428 20:22:46.590433  2124 net.cpp:408] label_mnist_1_split <- label
I0428 20:22:46.590437  2124 net.cpp:382] label_mnist_1_split -> label_mnist_1_split_0
I0428 20:22:46.590459  2124 net.cpp:382] label_mnist_1_split -> label_mnist_1_split_1
I0428 20:22:46.590522  2124 net.cpp:124] Setting up label_mnist_1_split
I0428 20:22:46.590541  2124 net.cpp:131] Top shape: 100 (100)
I0428 20:22:46.590545  2124 net.cpp:131] Top shape: 100 (100)
I0428 20:22:46.590548  2124 net.cpp:139] Memory required for data: 314800
I0428 20:22:46.590550  2124 layer_factory.hpp:77] Creating layer conv0
I0428 20:22:46.590559  2124 net.cpp:86] Creating Layer conv0
I0428 20:22:46.590561  2124 net.cpp:408] conv0 <- data
I0428 20:22:46.590566  2124 net.cpp:382] conv0 -> conv0
I0428 20:22:46.592391  2124 net.cpp:124] Setting up conv0
I0428 20:22:46.592406  2124 net.cpp:131] Top shape: 100 50 24 24 (2880000)
I0428 20:22:46.592423  2124 net.cpp:139] Memory required for data: 11834800
I0428 20:22:46.592447  2124 layer_factory.hpp:77] Creating layer pool0
I0428 20:22:46.592454  2124 net.cpp:86] Creating Layer pool0
I0428 20:22:46.592458  2124 net.cpp:408] pool0 <- conv0
I0428 20:22:46.592478  2124 net.cpp:382] pool0 -> pool0
I0428 20:22:46.592511  2124 net.cpp:124] Setting up pool0
I0428 20:22:46.592519  2124 net.cpp:131] Top shape: 100 50 12 12 (720000)
I0428 20:22:46.592521  2124 net.cpp:139] Memory required for data: 14714800
I0428 20:22:46.592525  2124 layer_factory.hpp:77] Creating layer conv1
I0428 20:22:46.592533  2124 net.cpp:86] Creating Layer conv1
I0428 20:22:46.592536  2124 net.cpp:408] conv1 <- pool0
I0428 20:22:46.592540  2124 net.cpp:382] conv1 -> conv1
I0428 20:22:46.595767  2124 net.cpp:124] Setting up conv1
I0428 20:22:46.595780  2124 net.cpp:131] Top shape: 100 100 8 8 (640000)
I0428 20:22:46.595783  2124 net.cpp:139] Memory required for data: 17274800
I0428 20:22:46.595791  2124 layer_factory.hpp:77] Creating layer pool1
I0428 20:22:46.595796  2124 net.cpp:86] Creating Layer pool1
I0428 20:22:46.595816  2124 net.cpp:408] pool1 <- conv1
I0428 20:22:46.595820  2124 net.cpp:382] pool1 -> pool1
I0428 20:22:46.595856  2124 net.cpp:124] Setting up pool1
I0428 20:22:46.595868  2124 net.cpp:131] Top shape: 100 100 4 4 (160000)
I0428 20:22:46.595870  2124 net.cpp:139] Memory required for data: 17914800
I0428 20:22:46.595873  2124 layer_factory.hpp:77] Creating layer ip1
I0428 20:22:46.595880  2124 net.cpp:86] Creating Layer ip1
I0428 20:22:46.595883  2124 net.cpp:408] ip1 <- pool1
I0428 20:22:46.595887  2124 net.cpp:382] ip1 -> ip1
I0428 20:22:46.596199  2124 net.cpp:124] Setting up ip1
I0428 20:22:46.596207  2124 net.cpp:131] Top shape: 100 25 (2500)
I0428 20:22:46.596210  2124 net.cpp:139] Memory required for data: 17924800
I0428 20:22:46.596217  2124 layer_factory.hpp:77] Creating layer relu1
I0428 20:22:46.596223  2124 net.cpp:86] Creating Layer relu1
I0428 20:22:46.596226  2124 net.cpp:408] relu1 <- ip1
I0428 20:22:46.596236  2124 net.cpp:369] relu1 -> ip1 (in-place)
I0428 20:22:46.596403  2124 net.cpp:124] Setting up relu1
I0428 20:22:46.596413  2124 net.cpp:131] Top shape: 100 25 (2500)
I0428 20:22:46.596416  2124 net.cpp:139] Memory required for data: 17934800
I0428 20:22:46.596420  2124 layer_factory.hpp:77] Creating layer ip2
I0428 20:22:46.596426  2124 net.cpp:86] Creating Layer ip2
I0428 20:22:46.596429  2124 net.cpp:408] ip2 <- ip1
I0428 20:22:46.596436  2124 net.cpp:382] ip2 -> ip2
I0428 20:22:46.596539  2124 net.cpp:124] Setting up ip2
I0428 20:22:46.596546  2124 net.cpp:131] Top shape: 100 10 (1000)
I0428 20:22:46.596549  2124 net.cpp:139] Memory required for data: 17938800
I0428 20:22:46.596554  2124 layer_factory.hpp:77] Creating layer relu2
I0428 20:22:46.596560  2124 net.cpp:86] Creating Layer relu2
I0428 20:22:46.596563  2124 net.cpp:408] relu2 <- ip2
I0428 20:22:46.596567  2124 net.cpp:369] relu2 -> ip2 (in-place)
I0428 20:22:46.596755  2124 net.cpp:124] Setting up relu2
I0428 20:22:46.596763  2124 net.cpp:131] Top shape: 100 10 (1000)
I0428 20:22:46.596766  2124 net.cpp:139] Memory required for data: 17942800
I0428 20:22:46.596770  2124 layer_factory.hpp:77] Creating layer ip2_relu2_0_split
I0428 20:22:46.596774  2124 net.cpp:86] Creating Layer ip2_relu2_0_split
I0428 20:22:46.596793  2124 net.cpp:408] ip2_relu2_0_split <- ip2
I0428 20:22:46.596797  2124 net.cpp:382] ip2_relu2_0_split -> ip2_relu2_0_split_0
I0428 20:22:46.596839  2124 net.cpp:382] ip2_relu2_0_split -> ip2_relu2_0_split_1
I0428 20:22:46.596916  2124 net.cpp:124] Setting up ip2_relu2_0_split
I0428 20:22:46.596922  2124 net.cpp:131] Top shape: 100 10 (1000)
I0428 20:22:46.596926  2124 net.cpp:131] Top shape: 100 10 (1000)
I0428 20:22:46.596930  2124 net.cpp:139] Memory required for data: 17950800
I0428 20:22:46.596938  2124 layer_factory.hpp:77] Creating layer accuracy
I0428 20:22:46.596945  2124 net.cpp:86] Creating Layer accuracy
I0428 20:22:46.596948  2124 net.cpp:408] accuracy <- ip2_relu2_0_split_0
I0428 20:22:46.596952  2124 net.cpp:408] accuracy <- label_mnist_1_split_0
I0428 20:22:46.596957  2124 net.cpp:382] accuracy -> accuracy
…
