…
I0428 19:57:33.434587 28710 net.cpp:296] The NetState phase (0) differed from the phase (1) specified by a rule in layer mnist
I0428 19:57:33.434619 28710 net.cpp:296] The NetState phase (0) differed from the phase (1) specified by a rule in layer accuracy
I0428 19:57:33.434705 28710 net.cpp:53] Initializing net from parameters: 
name: "LeNet"
state {
  phase: TRAIN
  level: 0
  stage: ""
}
layer {
  name: "mnist"
  type: "Data"
  top: "data"
  top: "label"
  include {
    phase: TRAIN
  }
  transform_param {
    scale: 0.00390625
  }
  data_param {
    source: "examples/mnist/mnist_train_lmdb"
    batch_size: 64
    backend: LMDB
  }
}
layer {
  name: "conv0"
  type: "Convolution"
  bottom: "data"
  top: "conv0"
  param {
    lr_mult: 1
  }
  param {
    lr_mult: 2
  }
  convolution_param {
    num_output: 10
    kernel_size: 5
    stride: 1
    weight_filler {
      type: "xavier"
    }
    bias_filler {
      type: "constant"
    }
  }
}
layer {
  name: "pool0"
  type: "Pooling"
  bottom: "conv0"
  top: "pool0"
  pooling_param {
    pool: MAX
    kernel_size: 2
    stride: 2
  }
}
layer {
  name: "conv1"
  type: "Convolution"
  bottom: "pool0"
  top: "conv1"
  param {
    lr_mult: 1
  }
  param {
    lr_mult: 2
  }
  convolution_param {
    num_output: 5
    kernel_size: 5
    stride: 1
    weight_filler {
      type: "xavier"
    }
    bias_filler {
      type: "constant"
    }
  }
}
layer {
  name: "pool1"
  type: "Pooling"
  bottom: "conv1"
  top: "pool1"
  pooling_param {
    pool: MAX
    kernel_size: 2
    stride: 2
  }
}
layer {
  name: "ip1"
  type: "InnerProduct"
  bottom: "pool1"
  top: "ip1"
  param {
    lr_mult: 1
  }
  param {
    lr_mult: 2
  }
  inner_product_param {
    num_output: 10
    weight_filler {
      type: "xavier"
    }
    bias_filler {
      type: "constant"
    }
  }
}
layer {
  name: "relu1"
  type: "ReLU"
  bottom: "ip1"
  top: "ip1"
}
layer {
  name: "ip2"
  type: "InnerProduct"
  bottom: "ip1"
  top: "ip2"
  param {
    lr_mult: 1
  }
  param {
    lr_mult: 2
  }
  inner_product_param {
    num_output: 10
    weight_filler {
      type: "xavier"
    }
    bias_filler {
      type: "constant"
    }
  }
}
layer {
  name: "relu2"
  type: "ReLU"
  bottom: "ip2"
  top: "ip2"
}
layer {
  name: "ip3"
  type: "InnerProduct"
  bottom: "ip2"
  top: "ip3"
  param {
    lr_mult: 1
  }
  param {
    lr_mult: 2
  }
  inner_product_param {
    num_output: 10
    weight_filler {
      type: "xavier"
    }
    bias_filler {
      type: "constant"
    }
  }
}
layer {
  name: "relu3"
  type: "ReLU"
  bottom: "ip3"
  top: "ip3"
}
layer {
  name: "loss"
  type: "SoftmaxWithLoss"
  bottom: "ip3"
  bottom: "label"
  top: "loss"
}
I0428 19:57:33.434773 28710 layer_factory.hpp:77] Creating layer mnist
I0428 19:57:33.434875 28710 db_lmdb.cpp:35] Opened lmdb examples/mnist/mnist_train_lmdb
I0428 19:57:33.434895 28710 net.cpp:86] Creating Layer mnist
I0428 19:57:33.434900 28710 net.cpp:382] mnist -> data
I0428 19:57:33.434921 28710 net.cpp:382] mnist -> label
I0428 19:57:33.435865 28710 data_layer.cpp:45] output data size: 64,1,28,28
I0428 19:57:33.438148 28710 net.cpp:124] Setting up mnist
I0428 19:57:33.438196 28710 net.cpp:131] Top shape: 64 1 28 28 (50176)
I0428 19:57:33.438201 28710 net.cpp:131] Top shape: 64 (64)
I0428 19:57:33.438205 28710 net.cpp:139] Memory required for data: 200960
I0428 19:57:33.438212 28710 layer_factory.hpp:77] Creating layer conv0
I0428 19:57:33.438227 28710 net.cpp:86] Creating Layer conv0
I0428 19:57:33.438246 28710 net.cpp:408] conv0 <- data
I0428 19:57:33.438257 28710 net.cpp:382] conv0 -> conv0
I0428 19:57:33.659059 28710 net.cpp:124] Setting up conv0
I0428 19:57:33.659085 28710 net.cpp:131] Top shape: 64 10 24 24 (368640)
I0428 19:57:33.659088 28710 net.cpp:139] Memory required for data: 1675520
I0428 19:57:33.659102 28710 layer_factory.hpp:77] Creating layer pool0
I0428 19:57:33.659113 28710 net.cpp:86] Creating Layer pool0
I0428 19:57:33.659117 28710 net.cpp:408] pool0 <- conv0
I0428 19:57:33.659122 28710 net.cpp:382] pool0 -> pool0
I0428 19:57:33.659181 28710 net.cpp:124] Setting up pool0
I0428 19:57:33.659186 28710 net.cpp:131] Top shape: 64 10 12 12 (92160)
I0428 19:57:33.659189 28710 net.cpp:139] Memory required for data: 2044160
I0428 19:57:33.659193 28710 layer_factory.hpp:77] Creating layer conv1
I0428 19:57:33.659204 28710 net.cpp:86] Creating Layer conv1
I0428 19:57:33.659206 28710 net.cpp:408] conv1 <- pool0
I0428 19:57:33.659211 28710 net.cpp:382] conv1 -> conv1
I0428 19:57:33.661983 28710 net.cpp:124] Setting up conv1
I0428 19:57:33.662010 28710 net.cpp:131] Top shape: 64 5 8 8 (20480)
I0428 19:57:33.662029 28710 net.cpp:139] Memory required for data: 2126080
I0428 19:57:33.662037 28710 layer_factory.hpp:77] Creating layer pool1
I0428 19:57:33.662045 28710 net.cpp:86] Creating Layer pool1
I0428 19:57:33.662047 28710 net.cpp:408] pool1 <- conv1
I0428 19:57:33.662052 28710 net.cpp:382] pool1 -> pool1
I0428 19:57:33.662102 28710 net.cpp:124] Setting up pool1
I0428 19:57:33.662107 28710 net.cpp:131] Top shape: 64 5 4 4 (5120)
I0428 19:57:33.662111 28710 net.cpp:139] Memory required for data: 2146560
I0428 19:57:33.662113 28710 layer_factory.hpp:77] Creating layer ip1
I0428 19:57:33.662120 28710 net.cpp:86] Creating Layer ip1
I0428 19:57:33.662123 28710 net.cpp:408] ip1 <- pool1
I0428 19:57:33.662127 28710 net.cpp:382] ip1 -> ip1
I0428 19:57:33.662225 28710 net.cpp:124] Setting up ip1
I0428 19:57:33.662231 28710 net.cpp:131] Top shape: 64 10 (640)
I0428 19:57:33.662235 28710 net.cpp:139] Memory required for data: 2149120
I0428 19:57:33.662242 28710 layer_factory.hpp:77] Creating layer relu1
I0428 19:57:33.662247 28710 net.cpp:86] Creating Layer relu1
I0428 19:57:33.662250 28710 net.cpp:408] relu1 <- ip1
I0428 19:57:33.662255 28710 net.cpp:369] relu1 -> ip1 (in-place)
I0428 19:57:33.662430 28710 net.cpp:124] Setting up relu1
I0428 19:57:33.662437 28710 net.cpp:131] Top shape: 64 10 (640)
I0428 19:57:33.662441 28710 net.cpp:139] Memory required for data: 2151680
I0428 19:57:33.662444 28710 layer_factory.hpp:77] Creating layer ip2
I0428 19:57:33.662451 28710 net.cpp:86] Creating Layer ip2
I0428 19:57:33.662453 28710 net.cpp:408] ip2 <- ip1
I0428 19:57:33.662458 28710 net.cpp:382] ip2 -> ip2
I0428 19:57:33.662561 28710 net.cpp:124] Setting up ip2
I0428 19:57:33.662567 28710 net.cpp:131] Top shape: 64 10 (640)
I0428 19:57:33.662570 28710 net.cpp:139] Memory required for data: 2154240
I0428 19:57:33.662575 28710 layer_factory.hpp:77] Creating layer relu2
I0428 19:57:33.662595 28710 net.cpp:86] Creating Layer relu2
I0428 19:57:33.662598 28710 net.cpp:408] relu2 <- ip2
I0428 19:57:33.662602 28710 net.cpp:369] relu2 -> ip2 (in-place)
I0428 19:57:33.663399 28710 net.cpp:124] Setting up relu2
I0428 19:57:33.663411 28710 net.cpp:131] Top shape: 64 10 (640)
I0428 19:57:33.663430 28710 net.cpp:139] Memory required for data: 2156800
I0428 19:57:33.663434 28710 layer_factory.hpp:77] Creating layer ip3
I0428 19:57:33.663456 28710 net.cpp:86] Creating Layer ip3
I0428 19:57:33.663460 28710 net.cpp:408] ip3 <- ip2
I0428 19:57:33.663465 28710 net.cpp:382] ip3 -> ip3
I0428 19:57:33.663561 28710 net.cpp:124] Setting up ip3
I0428 19:57:33.663569 28710 net.cpp:131] Top shape: 64 10 (640)
I0428 19:57:33.663573 28710 net.cpp:139] Memory required for data: 2159360
I0428 19:57:33.663579 28710 layer_factory.hpp:77] Creating layer relu3
I0428 19:57:33.663584 28710 net.cpp:86] Creating Layer relu3
I0428 19:57:33.663588 28710 net.cpp:408] relu3 <- ip3
I0428 19:57:33.663591 28710 net.cpp:369] relu3 -> ip3 (in-place)
I0428 19:57:33.663794 28710 net.cpp:124] Setting up relu3
I0428 19:57:33.663801 28710 net.cpp:131] Top shape: 64 10 (640)
I0428 19:57:33.663805 28710 net.cpp:139] Memory required for data: 2161920
I0428 19:57:33.663812 28710 layer_factory.hpp:77] Creating layer loss
I0428 19:57:33.663818 28710 net.cpp:86] Creating Layer loss
I0428 19:57:33.663821 28710 net.cpp:408] loss <- ip3
I0428 19:57:33.663825 28710 net.cpp:408] loss <- label
I0428 19:57:33.663830 28710 net.cpp:382] loss -> loss
I0428 19:57:33.663844 28710 layer_factory.hpp:77] Creating layer loss
…
I0428 19:57:33.664531 28710 solver.cpp:173] Creating test net (#0) specified by net file: ECE595/mnist/train_test/var_everything2/lenet_train_test792.prototxt
I0428 19:57:33.664572 28710 net.cpp:296] The NetState phase (1) differed from the phase (0) specified by a rule in layer mnist
I0428 19:57:33.664660 28710 net.cpp:53] Initializing net from parameters: 
name: "LeNet"
state {
  phase: TEST
}
layer {
  name: "mnist"
  type: "Data"
  top: "data"
  top: "label"
  include {
    phase: TEST
  }
  transform_param {
    scale: 0.00390625
  }
  data_param {
    source: "examples/mnist/mnist_test_lmdb"
    batch_size: 100
    backend: LMDB
  }
}
layer {
  name: "conv0"
  type: "Convolution"
  bottom: "data"
  top: "conv0"
  param {
    lr_mult: 1
  }
  param {
    lr_mult: 2
  }
  convolution_param {
    num_output: 10
    kernel_size: 5
    stride: 1
    weight_filler {
      type: "xavier"
    }
    bias_filler {
      type: "constant"
    }
  }
}
layer {
  name: "pool0"
  type: "Pooling"
  bottom: "conv0"
  top: "pool0"
  pooling_param {
    pool: MAX
    kernel_size: 2
    stride: 2
  }
}
layer {
  name: "conv1"
  type: "Convolution"
  bottom: "pool0"
  top: "conv1"
  param {
    lr_mult: 1
  }
  param {
    lr_mult: 2
  }
  convolution_param {
    num_output: 5
    kernel_size: 5
    stride: 1
    weight_filler {
      type: "xavier"
    }
    bias_filler {
      type: "constant"
    }
  }
}
layer {
  name: "pool1"
  type: "Pooling"
  bottom: "conv1"
  top: "pool1"
  pooling_param {
    pool: MAX
    kernel_size: 2
    stride: 2
  }
}
layer {
  name: "ip1"
  type: "InnerProduct"
  bottom: "pool1"
  top: "ip1"
  param {
    lr_mult: 1
  }
  param {
    lr_mult: 2
  }
  inner_product_param {
    num_output: 10
    weight_filler {
      type: "xavier"
    }
    bias_filler {
      type: "constant"
    }
  }
}
layer {
  name: "relu1"
  type: "ReLU"
  bottom: "ip1"
  top: "ip1"
}
layer {
  name: "ip2"
  type: "InnerProduct"
  bottom: "ip1"
  top: "ip2"
  param {
    lr_mult: 1
  }
  param {
    lr_mult: 2
  }
  inner_product_param {
    num_output: 10
    weight_filler {
      type: "xavier"
    }
    bias_filler {
      type: "constant"
    }
  }
}
layer {
  name: "relu2"
  type: "ReLU"
  bottom: "ip2"
  top: "ip2"
}
layer {
  name: "ip3"
  type: "InnerProduct"
  bottom: "ip2"
  top: "ip3"
  param {
    lr_mult: 1
  }
  param {
    lr_mult: 2
  }
  inner_product_param {
    num_output: 10
    weight_filler {
      type: "xavier"
    }
    bias_filler {
      type: "constant"
    }
  }
}
layer {
  name: "relu3"
  type: "ReLU"
  bottom: "ip3"
  top: "ip3"
}
layer {
  name: "accuracy"
  type: "Accuracy"
  bottom: "ip3"
  bottom: "label"
  top: "accuracy"
  include {
    phase: TEST
  }
}
layer {
  name: "loss"
  type: "SoftmaxWithLoss"
  bottom: "ip3"
  bottom: "label"
  top: "loss"
}
I0428 19:57:33.664737 28710 layer_factory.hpp:77] Creating layer mnist
I0428 19:57:33.664795 28710 db_lmdb.cpp:35] Opened lmdb examples/mnist/mnist_test_lmdb
I0428 19:57:33.664814 28710 net.cpp:86] Creating Layer mnist
I0428 19:57:33.664837 28710 net.cpp:382] mnist -> data
I0428 19:57:33.664862 28710 net.cpp:382] mnist -> label
I0428 19:57:33.664944 28710 data_layer.cpp:45] output data size: 100,1,28,28
I0428 19:57:33.666862 28710 net.cpp:124] Setting up mnist
I0428 19:57:33.666889 28710 net.cpp:131] Top shape: 100 1 28 28 (78400)
I0428 19:57:33.666909 28710 net.cpp:131] Top shape: 100 (100)
I0428 19:57:33.666913 28710 net.cpp:139] Memory required for data: 314000
I0428 19:57:33.666916 28710 layer_factory.hpp:77] Creating layer label_mnist_1_split
I0428 19:57:33.666923 28710 net.cpp:86] Creating Layer label_mnist_1_split
I0428 19:57:33.666926 28710 net.cpp:408] label_mnist_1_split <- label
I0428 19:57:33.666930 28710 net.cpp:382] label_mnist_1_split -> label_mnist_1_split_0
I0428 19:57:33.666936 28710 net.cpp:382] label_mnist_1_split -> label_mnist_1_split_1
I0428 19:57:33.666985 28710 net.cpp:124] Setting up label_mnist_1_split
I0428 19:57:33.666990 28710 net.cpp:131] Top shape: 100 (100)
I0428 19:57:33.666995 28710 net.cpp:131] Top shape: 100 (100)
I0428 19:57:33.666996 28710 net.cpp:139] Memory required for data: 314800
I0428 19:57:33.666999 28710 layer_factory.hpp:77] Creating layer conv0
I0428 19:57:33.667007 28710 net.cpp:86] Creating Layer conv0
I0428 19:57:33.667011 28710 net.cpp:408] conv0 <- data
I0428 19:57:33.667016 28710 net.cpp:382] conv0 -> conv0
I0428 19:57:33.668845 28710 net.cpp:124] Setting up conv0
I0428 19:57:33.668874 28710 net.cpp:131] Top shape: 100 10 24 24 (576000)
I0428 19:57:33.668877 28710 net.cpp:139] Memory required for data: 2618800
I0428 19:57:33.668886 28710 layer_factory.hpp:77] Creating layer pool0
I0428 19:57:33.668893 28710 net.cpp:86] Creating Layer pool0
I0428 19:57:33.668896 28710 net.cpp:408] pool0 <- conv0
I0428 19:57:33.668901 28710 net.cpp:382] pool0 -> pool0
I0428 19:57:33.668937 28710 net.cpp:124] Setting up pool0
I0428 19:57:33.668942 28710 net.cpp:131] Top shape: 100 10 12 12 (144000)
I0428 19:57:33.668946 28710 net.cpp:139] Memory required for data: 3194800
I0428 19:57:33.668948 28710 layer_factory.hpp:77] Creating layer conv1
I0428 19:57:33.668957 28710 net.cpp:86] Creating Layer conv1
I0428 19:57:33.668961 28710 net.cpp:408] conv1 <- pool0
I0428 19:57:33.668965 28710 net.cpp:382] conv1 -> conv1
I0428 19:57:33.671015 28710 net.cpp:124] Setting up conv1
I0428 19:57:33.671038 28710 net.cpp:131] Top shape: 100 5 8 8 (32000)
I0428 19:57:33.671058 28710 net.cpp:139] Memory required for data: 3322800
I0428 19:57:33.671078 28710 layer_factory.hpp:77] Creating layer pool1
I0428 19:57:33.671085 28710 net.cpp:86] Creating Layer pool1
I0428 19:57:33.671088 28710 net.cpp:408] pool1 <- conv1
I0428 19:57:33.671094 28710 net.cpp:382] pool1 -> pool1
I0428 19:57:33.671136 28710 net.cpp:124] Setting up pool1
I0428 19:57:33.671141 28710 net.cpp:131] Top shape: 100 5 4 4 (8000)
I0428 19:57:33.671145 28710 net.cpp:139] Memory required for data: 3354800
I0428 19:57:33.671149 28710 layer_factory.hpp:77] Creating layer ip1
I0428 19:57:33.671156 28710 net.cpp:86] Creating Layer ip1
I0428 19:57:33.671159 28710 net.cpp:408] ip1 <- pool1
I0428 19:57:33.671164 28710 net.cpp:382] ip1 -> ip1
I0428 19:57:33.671283 28710 net.cpp:124] Setting up ip1
I0428 19:57:33.671289 28710 net.cpp:131] Top shape: 100 10 (1000)
I0428 19:57:33.671303 28710 net.cpp:139] Memory required for data: 3358800
I0428 19:57:33.671310 28710 layer_factory.hpp:77] Creating layer relu1
I0428 19:57:33.671315 28710 net.cpp:86] Creating Layer relu1
I0428 19:57:33.671319 28710 net.cpp:408] relu1 <- ip1
I0428 19:57:33.671324 28710 net.cpp:369] relu1 -> ip1 (in-place)
I0428 19:57:33.671599 28710 net.cpp:124] Setting up relu1
I0428 19:57:33.671609 28710 net.cpp:131] Top shape: 100 10 (1000)
I0428 19:57:33.671612 28710 net.cpp:139] Memory required for data: 3362800
I0428 19:57:33.671617 28710 layer_factory.hpp:77] Creating layer ip2
I0428 19:57:33.671623 28710 net.cpp:86] Creating Layer ip2
I0428 19:57:33.671627 28710 net.cpp:408] ip2 <- ip1
I0428 19:57:33.671633 28710 net.cpp:382] ip2 -> ip2
I0428 19:57:33.671751 28710 net.cpp:124] Setting up ip2
I0428 19:57:33.671757 28710 net.cpp:131] Top shape: 100 10 (1000)
I0428 19:57:33.671761 28710 net.cpp:139] Memory required for data: 3366800
I0428 19:57:33.671766 28710 layer_factory.hpp:77] Creating layer relu2
I0428 19:57:33.671772 28710 net.cpp:86] Creating Layer relu2
I0428 19:57:33.671774 28710 net.cpp:408] relu2 <- ip2
I0428 19:57:33.671784 28710 net.cpp:369] relu2 -> ip2 (in-place)
I0428 19:57:33.671936 28710 net.cpp:124] Setting up relu2
I0428 19:57:33.671946 28710 net.cpp:131] Top shape: 100 10 (1000)
I0428 19:57:33.671948 28710 net.cpp:139] Memory required for data: 3370800
I0428 19:57:33.671952 28710 layer_factory.hpp:77] Creating layer ip3
I0428 19:57:33.671957 28710 net.cpp:86] Creating Layer ip3
I0428 19:57:33.671960 28710 net.cpp:408] ip3 <- ip2
I0428 19:57:33.671964 28710 net.cpp:382] ip3 -> ip3
I0428 19:57:33.672061 28710 net.cpp:124] Setting up ip3
I0428 19:57:33.672068 28710 net.cpp:131] Top shape: 100 10 (1000)
I0428 19:57:33.672071 28710 net.cpp:139] Memory required for data: 3374800
I0428 19:57:33.672080 28710 layer_factory.hpp:77] Creating layer relu3
I0428 19:57:33.672083 28710 net.cpp:86] Creating Layer relu3
I0428 19:57:33.672086 28710 net.cpp:408] relu3 <- ip3
I0428 19:57:33.672091 28710 net.cpp:369] relu3 -> ip3 (in-place)
I0428 19:57:33.673002 28710 net.cpp:124] Setting up relu3
I0428 19:57:33.673015 28710 net.cpp:131] Top shape: 100 10 (1000)
I0428 19:57:33.673019 28710 net.cpp:139] Memory required for data: 3378800
I0428 19:57:33.673022 28710 layer_factory.hpp:77] Creating layer ip3_relu3_0_split
I0428 19:57:33.673033 28710 net.cpp:86] Creating Layer ip3_relu3_0_split
I0428 19:57:33.673038 28710 net.cpp:408] ip3_relu3_0_split <- ip3
I0428 19:57:33.673043 28710 net.cpp:382] ip3_relu3_0_split -> ip3_relu3_0_split_0
I0428 19:57:33.673048 28710 net.cpp:382] ip3_relu3_0_split -> ip3_relu3_0_split_1
I0428 19:57:33.673113 28710 net.cpp:124] Setting up ip3_relu3_0_split
I0428 19:57:33.673120 28710 net.cpp:131] Top shape: 100 10 (1000)
I0428 19:57:33.673125 28710 net.cpp:131] Top shape: 100 10 (1000)
I0428 19:57:33.673133 28710 net.cpp:139] Memory required for data: 3386800
I0428 19:57:33.673136 28710 layer_factory.hpp:77] Creating layer accuracy
I0428 19:57:33.673141 28710 net.cpp:86] Creating Layer accuracy
I0428 19:57:33.673144 28710 net.cpp:408] accuracy <- ip3_relu3_0_split_0
I0428 19:57:33.673148 28710 net.cpp:408] accuracy <- label_mnist_1_split_0
I0428 19:57:33.673156 28710 net.cpp:382] accuracy -> accuracy
…
