…
I0428 19:49:27.652982 26766 net.cpp:296] The NetState phase (0) differed from the phase (1) specified by a rule in layer mnist
I0428 19:49:27.653000 26766 net.cpp:296] The NetState phase (0) differed from the phase (1) specified by a rule in layer accuracy
I0428 19:49:27.653095 26766 net.cpp:53] Initializing net from parameters: 
name: "LeNet"
state {
  phase: TRAIN
  level: 0
  stage: ""
}
layer {
  name: "mnist"
  type: "Data"
  top: "data"
  top: "label"
  include {
    phase: TRAIN
  }
  transform_param {
    scale: 0.00390625
  }
  data_param {
    source: "examples/mnist/mnist_train_lmdb"
    batch_size: 64
    backend: LMDB
  }
}
layer {
  name: "conv0"
  type: "Convolution"
  bottom: "data"
  top: "conv0"
  param {
    lr_mult: 1
  }
  param {
    lr_mult: 2
  }
  convolution_param {
    num_output: 5
    kernel_size: 5
    stride: 1
    weight_filler {
      type: "xavier"
    }
    bias_filler {
      type: "constant"
    }
  }
}
layer {
  name: "pool0"
  type: "Pooling"
  bottom: "conv0"
  top: "pool0"
  pooling_param {
    pool: MAX
    kernel_size: 2
    stride: 2
  }
}
layer {
  name: "conv1"
  type: "Convolution"
  bottom: "pool0"
  top: "conv1"
  param {
    lr_mult: 1
  }
  param {
    lr_mult: 2
  }
  convolution_param {
    num_output: 5
    kernel_size: 5
    stride: 1
    weight_filler {
      type: "xavier"
    }
    bias_filler {
      type: "constant"
    }
  }
}
layer {
  name: "pool1"
  type: "Pooling"
  bottom: "conv1"
  top: "pool1"
  pooling_param {
    pool: MAX
    kernel_size: 2
    stride: 2
  }
}
layer {
  name: "ip1"
  type: "InnerProduct"
  bottom: "pool1"
  top: "ip1"
  param {
    lr_mult: 1
  }
  param {
    lr_mult: 2
  }
  inner_product_param {
    num_output: 25
    weight_filler {
      type: "xavier"
    }
    bias_filler {
      type: "constant"
    }
  }
}
layer {
  name: "relu1"
  type: "ReLU"
  bottom: "ip1"
  top: "ip1"
}
layer {
  name: "ip2"
  type: "InnerProduct"
  bottom: "ip1"
  top: "ip2"
  param {
    lr_mult: 1
  }
  param {
    lr_mult: 2
  }
  inner_product_param {
    num_output: 50
    weight_filler {
      type: "xavier"
    }
    bias_filler {
      type: "constant"
    }
  }
}
layer {
  name: "relu2"
  type: "ReLU"
  bottom: "ip2"
  top: "ip2"
}
layer {
  name: "ip3"
  type: "InnerProduct"
  bottom: "ip2"
  top: "ip3"
  param {
    lr_mult: 1
  }
  param {
    lr_mult: 2
  }
  inner_product_param {
    num_output: 10
    weight_filler {
      type: "xavier"
    }
    bias_filler {
      type: "constant"
    }
  }
}
layer {
  name: "relu3"
  type: "ReLU"
  bottom: "ip3"
  top: "ip3"
}
layer {
  name: "loss"
  type: "SoftmaxWithLoss"
  bottom: "ip3"
  bottom: "label"
  top: "loss"
}
I0428 19:49:27.653167 26766 layer_factory.hpp:77] Creating layer mnist
I0428 19:49:27.653312 26766 db_lmdb.cpp:35] Opened lmdb examples/mnist/mnist_train_lmdb
I0428 19:49:27.653333 26766 net.cpp:86] Creating Layer mnist
I0428 19:49:27.653339 26766 net.cpp:382] mnist -> data
I0428 19:49:27.653359 26766 net.cpp:382] mnist -> label
I0428 19:49:27.654372 26766 data_layer.cpp:45] output data size: 64,1,28,28
I0428 19:49:27.656522 26766 net.cpp:124] Setting up mnist
I0428 19:49:27.656553 26766 net.cpp:131] Top shape: 64 1 28 28 (50176)
I0428 19:49:27.656566 26766 net.cpp:131] Top shape: 64 (64)
I0428 19:49:27.656569 26766 net.cpp:139] Memory required for data: 200960
I0428 19:49:27.656575 26766 layer_factory.hpp:77] Creating layer conv0
I0428 19:49:27.656605 26766 net.cpp:86] Creating Layer conv0
I0428 19:49:27.656622 26766 net.cpp:408] conv0 <- data
I0428 19:49:27.656633 26766 net.cpp:382] conv0 -> conv0
I0428 19:49:27.885315 26766 net.cpp:124] Setting up conv0
I0428 19:49:27.885340 26766 net.cpp:131] Top shape: 64 5 24 24 (184320)
I0428 19:49:27.885344 26766 net.cpp:139] Memory required for data: 938240
I0428 19:49:27.885359 26766 layer_factory.hpp:77] Creating layer pool0
I0428 19:49:27.885371 26766 net.cpp:86] Creating Layer pool0
I0428 19:49:27.885375 26766 net.cpp:408] pool0 <- conv0
I0428 19:49:27.885380 26766 net.cpp:382] pool0 -> pool0
I0428 19:49:27.885438 26766 net.cpp:124] Setting up pool0
I0428 19:49:27.885443 26766 net.cpp:131] Top shape: 64 5 12 12 (46080)
I0428 19:49:27.885445 26766 net.cpp:139] Memory required for data: 1122560
I0428 19:49:27.885448 26766 layer_factory.hpp:77] Creating layer conv1
I0428 19:49:27.885458 26766 net.cpp:86] Creating Layer conv1
I0428 19:49:27.885462 26766 net.cpp:408] conv1 <- pool0
I0428 19:49:27.885466 26766 net.cpp:382] conv1 -> conv1
I0428 19:49:27.887320 26766 net.cpp:124] Setting up conv1
I0428 19:49:27.887348 26766 net.cpp:131] Top shape: 64 5 8 8 (20480)
I0428 19:49:27.887352 26766 net.cpp:139] Memory required for data: 1204480
I0428 19:49:27.887362 26766 layer_factory.hpp:77] Creating layer pool1
I0428 19:49:27.887368 26766 net.cpp:86] Creating Layer pool1
I0428 19:49:27.887372 26766 net.cpp:408] pool1 <- conv1
I0428 19:49:27.887377 26766 net.cpp:382] pool1 -> pool1
I0428 19:49:27.887414 26766 net.cpp:124] Setting up pool1
I0428 19:49:27.887419 26766 net.cpp:131] Top shape: 64 5 4 4 (5120)
I0428 19:49:27.887423 26766 net.cpp:139] Memory required for data: 1224960
I0428 19:49:27.887425 26766 layer_factory.hpp:77] Creating layer ip1
I0428 19:49:27.887432 26766 net.cpp:86] Creating Layer ip1
I0428 19:49:27.887435 26766 net.cpp:408] ip1 <- pool1
I0428 19:49:27.887439 26766 net.cpp:382] ip1 -> ip1
I0428 19:49:27.888399 26766 net.cpp:124] Setting up ip1
I0428 19:49:27.888411 26766 net.cpp:131] Top shape: 64 25 (1600)
I0428 19:49:27.888430 26766 net.cpp:139] Memory required for data: 1231360
I0428 19:49:27.888438 26766 layer_factory.hpp:77] Creating layer relu1
I0428 19:49:27.888444 26766 net.cpp:86] Creating Layer relu1
I0428 19:49:27.888447 26766 net.cpp:408] relu1 <- ip1
I0428 19:49:27.888453 26766 net.cpp:369] relu1 -> ip1 (in-place)
I0428 19:49:27.888612 26766 net.cpp:124] Setting up relu1
I0428 19:49:27.888619 26766 net.cpp:131] Top shape: 64 25 (1600)
I0428 19:49:27.888622 26766 net.cpp:139] Memory required for data: 1237760
I0428 19:49:27.888625 26766 layer_factory.hpp:77] Creating layer ip2
I0428 19:49:27.888633 26766 net.cpp:86] Creating Layer ip2
I0428 19:49:27.888635 26766 net.cpp:408] ip2 <- ip1
I0428 19:49:27.888639 26766 net.cpp:382] ip2 -> ip2
I0428 19:49:27.888741 26766 net.cpp:124] Setting up ip2
I0428 19:49:27.888746 26766 net.cpp:131] Top shape: 64 50 (3200)
I0428 19:49:27.888749 26766 net.cpp:139] Memory required for data: 1250560
I0428 19:49:27.888756 26766 layer_factory.hpp:77] Creating layer relu2
I0428 19:49:27.888761 26766 net.cpp:86] Creating Layer relu2
I0428 19:49:27.888763 26766 net.cpp:408] relu2 <- ip2
I0428 19:49:27.888767 26766 net.cpp:369] relu2 -> ip2 (in-place)
I0428 19:49:27.889669 26766 net.cpp:124] Setting up relu2
I0428 19:49:27.889683 26766 net.cpp:131] Top shape: 64 50 (3200)
I0428 19:49:27.889703 26766 net.cpp:139] Memory required for data: 1263360
I0428 19:49:27.889705 26766 layer_factory.hpp:77] Creating layer ip3
I0428 19:49:27.889713 26766 net.cpp:86] Creating Layer ip3
I0428 19:49:27.889715 26766 net.cpp:408] ip3 <- ip2
I0428 19:49:27.889721 26766 net.cpp:382] ip3 -> ip3
I0428 19:49:27.889824 26766 net.cpp:124] Setting up ip3
I0428 19:49:27.889832 26766 net.cpp:131] Top shape: 64 10 (640)
I0428 19:49:27.889834 26766 net.cpp:139] Memory required for data: 1265920
I0428 19:49:27.889842 26766 layer_factory.hpp:77] Creating layer relu3
I0428 19:49:27.889847 26766 net.cpp:86] Creating Layer relu3
I0428 19:49:27.889850 26766 net.cpp:408] relu3 <- ip3
I0428 19:49:27.889854 26766 net.cpp:369] relu3 -> ip3 (in-place)
I0428 19:49:27.890017 26766 net.cpp:124] Setting up relu3
I0428 19:49:27.890027 26766 net.cpp:131] Top shape: 64 10 (640)
I0428 19:49:27.890029 26766 net.cpp:139] Memory required for data: 1268480
I0428 19:49:27.890031 26766 layer_factory.hpp:77] Creating layer loss
I0428 19:49:27.890038 26766 net.cpp:86] Creating Layer loss
I0428 19:49:27.890041 26766 net.cpp:408] loss <- ip3
I0428 19:49:27.890045 26766 net.cpp:408] loss <- label
I0428 19:49:27.890049 26766 net.cpp:382] loss -> loss
I0428 19:49:27.890066 26766 layer_factory.hpp:77] Creating layer loss
…
I0428 19:49:27.890780 26766 solver.cpp:173] Creating test net (#0) specified by net file: ECE595/mnist/train_test/var_everything2/lenet_train_test575.prototxt
I0428 19:49:27.890820 26766 net.cpp:296] The NetState phase (1) differed from the phase (0) specified by a rule in layer mnist
I0428 19:49:27.890905 26766 net.cpp:53] Initializing net from parameters: 
name: "LeNet"
state {
  phase: TEST
}
layer {
  name: "mnist"
  type: "Data"
  top: "data"
  top: "label"
  include {
    phase: TEST
  }
  transform_param {
    scale: 0.00390625
  }
  data_param {
    source: "examples/mnist/mnist_test_lmdb"
    batch_size: 100
    backend: LMDB
  }
}
layer {
  name: "conv0"
  type: "Convolution"
  bottom: "data"
  top: "conv0"
  param {
    lr_mult: 1
  }
  param {
    lr_mult: 2
  }
  convolution_param {
    num_output: 5
    kernel_size: 5
    stride: 1
    weight_filler {
      type: "xavier"
    }
    bias_filler {
      type: "constant"
    }
  }
}
layer {
  name: "pool0"
  type: "Pooling"
  bottom: "conv0"
  top: "pool0"
  pooling_param {
    pool: MAX
    kernel_size: 2
    stride: 2
  }
}
layer {
  name: "conv1"
  type: "Convolution"
  bottom: "pool0"
  top: "conv1"
  param {
    lr_mult: 1
  }
  param {
    lr_mult: 2
  }
  convolution_param {
    num_output: 5
    kernel_size: 5
    stride: 1
    weight_filler {
      type: "xavier"
    }
    bias_filler {
      type: "constant"
    }
  }
}
layer {
  name: "pool1"
  type: "Pooling"
  bottom: "conv1"
  top: "pool1"
  pooling_param {
    pool: MAX
    kernel_size: 2
    stride: 2
  }
}
layer {
  name: "ip1"
  type: "InnerProduct"
  bottom: "pool1"
  top: "ip1"
  param {
    lr_mult: 1
  }
  param {
    lr_mult: 2
  }
  inner_product_param {
    num_output: 25
    weight_filler {
      type: "xavier"
    }
    bias_filler {
      type: "constant"
    }
  }
}
layer {
  name: "relu1"
  type: "ReLU"
  bottom: "ip1"
  top: "ip1"
}
layer {
  name: "ip2"
  type: "InnerProduct"
  bottom: "ip1"
  top: "ip2"
  param {
    lr_mult: 1
  }
  param {
    lr_mult: 2
  }
  inner_product_param {
    num_output: 50
    weight_filler {
      type: "xavier"
    }
    bias_filler {
      type: "constant"
    }
  }
}
layer {
  name: "relu2"
  type: "ReLU"
  bottom: "ip2"
  top: "ip2"
}
layer {
  name: "ip3"
  type: "InnerProduct"
  bottom: "ip2"
  top: "ip3"
  param {
    lr_mult: 1
  }
  param {
    lr_mult: 2
  }
  inner_product_param {
    num_output: 10
    weight_filler {
      type: "xavier"
    }
    bias_filler {
      type: "constant"
    }
  }
}
layer {
  name: "relu3"
  type: "ReLU"
  bottom: "ip3"
  top: "ip3"
}
layer {
  name: "accuracy"
  type: "Accuracy"
  bottom: "ip3"
  bottom: "label"
  top: "accuracy"
  include {
    phase: TEST
  }
}
layer {
  name: "loss"
  type: "SoftmaxWithLoss"
  bottom: "ip3"
  bottom: "label"
  top: "loss"
}
I0428 19:49:27.890982 26766 layer_factory.hpp:77] Creating layer mnist
I0428 19:49:27.891026 26766 db_lmdb.cpp:35] Opened lmdb examples/mnist/mnist_test_lmdb
I0428 19:49:27.891049 26766 net.cpp:86] Creating Layer mnist
I0428 19:49:27.891054 26766 net.cpp:382] mnist -> data
I0428 19:49:27.891062 26766 net.cpp:382] mnist -> label
I0428 19:49:27.891147 26766 data_layer.cpp:45] output data size: 100,1,28,28
I0428 19:49:27.893079 26766 net.cpp:124] Setting up mnist
I0428 19:49:27.893091 26766 net.cpp:131] Top shape: 100 1 28 28 (78400)
I0428 19:49:27.893097 26766 net.cpp:131] Top shape: 100 (100)
I0428 19:49:27.893100 26766 net.cpp:139] Memory required for data: 314000
I0428 19:49:27.893103 26766 layer_factory.hpp:77] Creating layer label_mnist_1_split
I0428 19:49:27.893111 26766 net.cpp:86] Creating Layer label_mnist_1_split
I0428 19:49:27.893115 26766 net.cpp:408] label_mnist_1_split <- label
I0428 19:49:27.893120 26766 net.cpp:382] label_mnist_1_split -> label_mnist_1_split_0
I0428 19:49:27.893126 26766 net.cpp:382] label_mnist_1_split -> label_mnist_1_split_1
I0428 19:49:27.893227 26766 net.cpp:124] Setting up label_mnist_1_split
I0428 19:49:27.893235 26766 net.cpp:131] Top shape: 100 (100)
I0428 19:49:27.893239 26766 net.cpp:131] Top shape: 100 (100)
I0428 19:49:27.893241 26766 net.cpp:139] Memory required for data: 314800
I0428 19:49:27.893244 26766 layer_factory.hpp:77] Creating layer conv0
I0428 19:49:27.893254 26766 net.cpp:86] Creating Layer conv0
I0428 19:49:27.893257 26766 net.cpp:408] conv0 <- data
I0428 19:49:27.893278 26766 net.cpp:382] conv0 -> conv0
I0428 19:49:27.894840 26766 net.cpp:124] Setting up conv0
I0428 19:49:27.894855 26766 net.cpp:131] Top shape: 100 5 24 24 (288000)
I0428 19:49:27.894873 26766 net.cpp:139] Memory required for data: 1466800
I0428 19:49:27.894893 26766 layer_factory.hpp:77] Creating layer pool0
I0428 19:49:27.894915 26766 net.cpp:86] Creating Layer pool0
I0428 19:49:27.894918 26766 net.cpp:408] pool0 <- conv0
I0428 19:49:27.894923 26766 net.cpp:382] pool0 -> pool0
I0428 19:49:27.894973 26766 net.cpp:124] Setting up pool0
I0428 19:49:27.894990 26766 net.cpp:131] Top shape: 100 5 12 12 (72000)
I0428 19:49:27.894994 26766 net.cpp:139] Memory required for data: 1754800
I0428 19:49:27.894996 26766 layer_factory.hpp:77] Creating layer conv1
I0428 19:49:27.895005 26766 net.cpp:86] Creating Layer conv1
I0428 19:49:27.895016 26766 net.cpp:408] conv1 <- pool0
I0428 19:49:27.895023 26766 net.cpp:382] conv1 -> conv1
I0428 19:49:27.897104 26766 net.cpp:124] Setting up conv1
I0428 19:49:27.897117 26766 net.cpp:131] Top shape: 100 5 8 8 (32000)
I0428 19:49:27.897121 26766 net.cpp:139] Memory required for data: 1882800
I0428 19:49:27.897130 26766 layer_factory.hpp:77] Creating layer pool1
I0428 19:49:27.897137 26766 net.cpp:86] Creating Layer pool1
I0428 19:49:27.897140 26766 net.cpp:408] pool1 <- conv1
I0428 19:49:27.897147 26766 net.cpp:382] pool1 -> pool1
I0428 19:49:27.897254 26766 net.cpp:124] Setting up pool1
I0428 19:49:27.897263 26766 net.cpp:131] Top shape: 100 5 4 4 (8000)
I0428 19:49:27.897266 26766 net.cpp:139] Memory required for data: 1914800
I0428 19:49:27.897269 26766 layer_factory.hpp:77] Creating layer ip1
I0428 19:49:27.897277 26766 net.cpp:86] Creating Layer ip1
I0428 19:49:27.897281 26766 net.cpp:408] ip1 <- pool1
I0428 19:49:27.897287 26766 net.cpp:382] ip1 -> ip1
I0428 19:49:27.897413 26766 net.cpp:124] Setting up ip1
I0428 19:49:27.897420 26766 net.cpp:131] Top shape: 100 25 (2500)
I0428 19:49:27.897433 26766 net.cpp:139] Memory required for data: 1924800
I0428 19:49:27.897441 26766 layer_factory.hpp:77] Creating layer relu1
I0428 19:49:27.897446 26766 net.cpp:86] Creating Layer relu1
I0428 19:49:27.897450 26766 net.cpp:408] relu1 <- ip1
I0428 19:49:27.897455 26766 net.cpp:369] relu1 -> ip1 (in-place)
I0428 19:49:27.897624 26766 net.cpp:124] Setting up relu1
I0428 19:49:27.897632 26766 net.cpp:131] Top shape: 100 25 (2500)
I0428 19:49:27.897635 26766 net.cpp:139] Memory required for data: 1934800
I0428 19:49:27.897639 26766 layer_factory.hpp:77] Creating layer ip2
I0428 19:49:27.897644 26766 net.cpp:86] Creating Layer ip2
I0428 19:49:27.897647 26766 net.cpp:408] ip2 <- ip1
I0428 19:49:27.897652 26766 net.cpp:382] ip2 -> ip2
I0428 19:49:27.897776 26766 net.cpp:124] Setting up ip2
I0428 19:49:27.897783 26766 net.cpp:131] Top shape: 100 50 (5000)
I0428 19:49:27.897785 26766 net.cpp:139] Memory required for data: 1954800
I0428 19:49:27.897791 26766 layer_factory.hpp:77] Creating layer relu2
I0428 19:49:27.897795 26766 net.cpp:86] Creating Layer relu2
I0428 19:49:27.897799 26766 net.cpp:408] relu2 <- ip2
I0428 19:49:27.897804 26766 net.cpp:369] relu2 -> ip2 (in-place)
I0428 19:49:27.897974 26766 net.cpp:124] Setting up relu2
I0428 19:49:27.897981 26766 net.cpp:131] Top shape: 100 50 (5000)
I0428 19:49:27.897984 26766 net.cpp:139] Memory required for data: 1974800
I0428 19:49:27.897987 26766 layer_factory.hpp:77] Creating layer ip3
I0428 19:49:27.897994 26766 net.cpp:86] Creating Layer ip3
I0428 19:49:27.897997 26766 net.cpp:408] ip3 <- ip2
I0428 19:49:27.898001 26766 net.cpp:382] ip3 -> ip3
I0428 19:49:27.898106 26766 net.cpp:124] Setting up ip3
I0428 19:49:27.898113 26766 net.cpp:131] Top shape: 100 10 (1000)
I0428 19:49:27.898116 26766 net.cpp:139] Memory required for data: 1978800
I0428 19:49:27.898124 26766 layer_factory.hpp:77] Creating layer relu3
I0428 19:49:27.898128 26766 net.cpp:86] Creating Layer relu3
I0428 19:49:27.898131 26766 net.cpp:408] relu3 <- ip3
I0428 19:49:27.898136 26766 net.cpp:369] relu3 -> ip3 (in-place)
I0428 19:49:27.898892 26766 net.cpp:124] Setting up relu3
I0428 19:49:27.898905 26766 net.cpp:131] Top shape: 100 10 (1000)
I0428 19:49:27.898923 26766 net.cpp:139] Memory required for data: 1982800
I0428 19:49:27.898926 26766 layer_factory.hpp:77] Creating layer ip3_relu3_0_split
I0428 19:49:27.898949 26766 net.cpp:86] Creating Layer ip3_relu3_0_split
I0428 19:49:27.898952 26766 net.cpp:408] ip3_relu3_0_split <- ip3
I0428 19:49:27.898957 26766 net.cpp:382] ip3_relu3_0_split -> ip3_relu3_0_split_0
I0428 19:49:27.898963 26766 net.cpp:382] ip3_relu3_0_split -> ip3_relu3_0_split_1
I0428 19:49:27.899003 26766 net.cpp:124] Setting up ip3_relu3_0_split
I0428 19:49:27.899022 26766 net.cpp:131] Top shape: 100 10 (1000)
I0428 19:49:27.899026 26766 net.cpp:131] Top shape: 100 10 (1000)
I0428 19:49:27.899029 26766 net.cpp:139] Memory required for data: 1990800
I0428 19:49:27.899032 26766 layer_factory.hpp:77] Creating layer accuracy
I0428 19:49:27.899037 26766 net.cpp:86] Creating Layer accuracy
I0428 19:49:27.899040 26766 net.cpp:408] accuracy <- ip3_relu3_0_split_0
I0428 19:49:27.899044 26766 net.cpp:408] accuracy <- label_mnist_1_split_0
I0428 19:49:27.899049 26766 net.cpp:382] accuracy -> accuracy
…
