…
I0428 20:31:44.708564  3998 net.cpp:296] The NetState phase (0) differed from the phase (1) specified by a rule in layer mnist
I0428 20:31:44.708581  3998 net.cpp:296] The NetState phase (0) differed from the phase (1) specified by a rule in layer accuracy
I0428 20:31:44.708663  3998 net.cpp:53] Initializing net from parameters: 
name: "LeNet"
state {
  phase: TRAIN
  level: 0
  stage: ""
}
layer {
  name: "mnist"
  type: "Data"
  top: "data"
  top: "label"
  include {
    phase: TRAIN
  }
  transform_param {
    scale: 0.00390625
  }
  data_param {
    source: "examples/mnist/mnist_train_lmdb"
    batch_size: 64
    backend: LMDB
  }
}
layer {
  name: "conv0"
  type: "Convolution"
  bottom: "data"
  top: "conv0"
  param {
    lr_mult: 1
  }
  param {
    lr_mult: 2
  }
  convolution_param {
    num_output: 100
    kernel_size: 5
    stride: 1
    weight_filler {
      type: "xavier"
    }
    bias_filler {
      type: "constant"
    }
  }
}
layer {
  name: "pool0"
  type: "Pooling"
  bottom: "conv0"
  top: "pool0"
  pooling_param {
    pool: MAX
    kernel_size: 2
    stride: 2
  }
}
layer {
  name: "conv1"
  type: "Convolution"
  bottom: "pool0"
  top: "conv1"
  param {
    lr_mult: 1
  }
  param {
    lr_mult: 2
  }
  convolution_param {
    num_output: 25
    kernel_size: 5
    stride: 1
    weight_filler {
      type: "xavier"
    }
    bias_filler {
      type: "constant"
    }
  }
}
layer {
  name: "pool1"
  type: "Pooling"
  bottom: "conv1"
  top: "pool1"
  pooling_param {
    pool: MAX
    kernel_size: 2
    stride: 2
  }
}
layer {
  name: "ip1"
  type: "InnerProduct"
  bottom: "pool1"
  top: "ip1"
  param {
    lr_mult: 1
  }
  param {
    lr_mult: 2
  }
  inner_product_param {
    num_output: 10
    weight_filler {
      type: "xavier"
    }
    bias_filler {
      type: "constant"
    }
  }
}
layer {
  name: "relu1"
  type: "ReLU"
  bottom: "ip1"
  top: "ip1"
}
layer {
  name: "loss"
  type: "SoftmaxWithLoss"
  bottom: "ip1"
  bottom: "label"
  top: "loss"
}
I0428 20:31:44.708735  3998 layer_factory.hpp:77] Creating layer mnist
I0428 20:31:44.708843  3998 db_lmdb.cpp:35] Opened lmdb examples/mnist/mnist_train_lmdb
I0428 20:31:44.708869  3998 net.cpp:86] Creating Layer mnist
I0428 20:31:44.708878  3998 net.cpp:382] mnist -> data
I0428 20:31:44.708900  3998 net.cpp:382] mnist -> label
I0428 20:31:44.710001  3998 data_layer.cpp:45] output data size: 64,1,28,28
I0428 20:31:44.712452  3998 net.cpp:124] Setting up mnist
I0428 20:31:44.712471  3998 net.cpp:131] Top shape: 64 1 28 28 (50176)
I0428 20:31:44.712478  3998 net.cpp:131] Top shape: 64 (64)
I0428 20:31:44.712483  3998 net.cpp:139] Memory required for data: 200960
I0428 20:31:44.712491  3998 layer_factory.hpp:77] Creating layer conv0
I0428 20:31:44.712507  3998 net.cpp:86] Creating Layer conv0
I0428 20:31:44.712512  3998 net.cpp:408] conv0 <- data
I0428 20:31:44.712525  3998 net.cpp:382] conv0 -> conv0
I0428 20:31:45.003497  3998 net.cpp:124] Setting up conv0
I0428 20:31:45.003530  3998 net.cpp:131] Top shape: 64 100 24 24 (3686400)
I0428 20:31:45.003535  3998 net.cpp:139] Memory required for data: 14946560
I0428 20:31:45.003552  3998 layer_factory.hpp:77] Creating layer pool0
I0428 20:31:45.003567  3998 net.cpp:86] Creating Layer pool0
I0428 20:31:45.003571  3998 net.cpp:408] pool0 <- conv0
I0428 20:31:45.003578  3998 net.cpp:382] pool0 -> pool0
I0428 20:31:45.003631  3998 net.cpp:124] Setting up pool0
I0428 20:31:45.003638  3998 net.cpp:131] Top shape: 64 100 12 12 (921600)
I0428 20:31:45.003659  3998 net.cpp:139] Memory required for data: 18632960
I0428 20:31:45.003664  3998 layer_factory.hpp:77] Creating layer conv1
I0428 20:31:45.003676  3998 net.cpp:86] Creating Layer conv1
I0428 20:31:45.003680  3998 net.cpp:408] conv1 <- pool0
I0428 20:31:45.003686  3998 net.cpp:382] conv1 -> conv1
I0428 20:31:45.006150  3998 net.cpp:124] Setting up conv1
I0428 20:31:45.006167  3998 net.cpp:131] Top shape: 64 25 8 8 (102400)
I0428 20:31:45.006172  3998 net.cpp:139] Memory required for data: 19042560
I0428 20:31:45.006181  3998 layer_factory.hpp:77] Creating layer pool1
I0428 20:31:45.006191  3998 net.cpp:86] Creating Layer pool1
I0428 20:31:45.006193  3998 net.cpp:408] pool1 <- conv1
I0428 20:31:45.006201  3998 net.cpp:382] pool1 -> pool1
I0428 20:31:45.006240  3998 net.cpp:124] Setting up pool1
I0428 20:31:45.006247  3998 net.cpp:131] Top shape: 64 25 4 4 (25600)
I0428 20:31:45.006250  3998 net.cpp:139] Memory required for data: 19144960
I0428 20:31:45.006253  3998 layer_factory.hpp:77] Creating layer ip1
I0428 20:31:45.006261  3998 net.cpp:86] Creating Layer ip1
I0428 20:31:45.006264  3998 net.cpp:408] ip1 <- pool1
I0428 20:31:45.006269  3998 net.cpp:382] ip1 -> ip1
I0428 20:31:45.006407  3998 net.cpp:124] Setting up ip1
I0428 20:31:45.006417  3998 net.cpp:131] Top shape: 64 10 (640)
I0428 20:31:45.006422  3998 net.cpp:139] Memory required for data: 19147520
I0428 20:31:45.006429  3998 layer_factory.hpp:77] Creating layer relu1
I0428 20:31:45.006435  3998 net.cpp:86] Creating Layer relu1
I0428 20:31:45.006439  3998 net.cpp:408] relu1 <- ip1
I0428 20:31:45.006443  3998 net.cpp:369] relu1 -> ip1 (in-place)
I0428 20:31:45.006624  3998 net.cpp:124] Setting up relu1
I0428 20:31:45.006634  3998 net.cpp:131] Top shape: 64 10 (640)
I0428 20:31:45.006639  3998 net.cpp:139] Memory required for data: 19150080
I0428 20:31:45.006641  3998 layer_factory.hpp:77] Creating layer loss
I0428 20:31:45.006647  3998 net.cpp:86] Creating Layer loss
I0428 20:31:45.006651  3998 net.cpp:408] loss <- ip1
I0428 20:31:45.006655  3998 net.cpp:408] loss <- label
I0428 20:31:45.006661  3998 net.cpp:382] loss -> loss
I0428 20:31:45.006680  3998 layer_factory.hpp:77] Creating layer loss
…
I0428 20:31:45.007905  3998 solver.cpp:173] Creating test net (#0) specified by net file: ECE595/mnist/train_test/var_everything2/lenet_train_test1560.prototxt
I0428 20:31:45.007932  3998 net.cpp:296] The NetState phase (1) differed from the phase (0) specified by a rule in layer mnist
I0428 20:31:45.008014  3998 net.cpp:53] Initializing net from parameters: 
name: "LeNet"
state {
  phase: TEST
}
layer {
  name: "mnist"
  type: "Data"
  top: "data"
  top: "label"
  include {
    phase: TEST
  }
  transform_param {
    scale: 0.00390625
  }
  data_param {
    source: "examples/mnist/mnist_test_lmdb"
    batch_size: 100
    backend: LMDB
  }
}
layer {
  name: "conv0"
  type: "Convolution"
  bottom: "data"
  top: "conv0"
  param {
    lr_mult: 1
  }
  param {
    lr_mult: 2
  }
  convolution_param {
    num_output: 100
    kernel_size: 5
    stride: 1
    weight_filler {
      type: "xavier"
    }
    bias_filler {
      type: "constant"
    }
  }
}
layer {
  name: "pool0"
  type: "Pooling"
  bottom: "conv0"
  top: "pool0"
  pooling_param {
    pool: MAX
    kernel_size: 2
    stride: 2
  }
}
layer {
  name: "conv1"
  type: "Convolution"
  bottom: "pool0"
  top: "conv1"
  param {
    lr_mult: 1
  }
  param {
    lr_mult: 2
  }
  convolution_param {
    num_output: 25
    kernel_size: 5
    stride: 1
    weight_filler {
      type: "xavier"
    }
    bias_filler {
      type: "constant"
    }
  }
}
layer {
  name: "pool1"
  type: "Pooling"
  bottom: "conv1"
  top: "pool1"
  pooling_param {
    pool: MAX
    kernel_size: 2
    stride: 2
  }
}
layer {
  name: "ip1"
  type: "InnerProduct"
  bottom: "pool1"
  top: "ip1"
  param {
    lr_mult: 1
  }
  param {
    lr_mult: 2
  }
  inner_product_param {
    num_output: 10
    weight_filler {
      type: "xavier"
    }
    bias_filler {
      type: "constant"
    }
  }
}
layer {
  name: "relu1"
  type: "ReLU"
  bottom: "ip1"
  top: "ip1"
}
layer {
  name: "accuracy"
  type: "Accuracy"
  bottom: "ip1"
  bottom: "label"
  top: "accuracy"
  include {
    phase: TEST
  }
}
layer {
  name: "loss"
  type: "SoftmaxWithLoss"
  bottom: "ip1"
  bottom: "label"
  top: "loss"
}
I0428 20:31:45.008092  3998 layer_factory.hpp:77] Creating layer mnist
I0428 20:31:45.008141  3998 db_lmdb.cpp:35] Opened lmdb examples/mnist/mnist_test_lmdb
I0428 20:31:45.008154  3998 net.cpp:86] Creating Layer mnist
I0428 20:31:45.008159  3998 net.cpp:382] mnist -> data
I0428 20:31:45.008167  3998 net.cpp:382] mnist -> label
I0428 20:31:45.008260  3998 data_layer.cpp:45] output data size: 100,1,28,28
I0428 20:31:45.010494  3998 net.cpp:124] Setting up mnist
I0428 20:31:45.010509  3998 net.cpp:131] Top shape: 100 1 28 28 (78400)
I0428 20:31:45.010515  3998 net.cpp:131] Top shape: 100 (100)
I0428 20:31:45.010519  3998 net.cpp:139] Memory required for data: 314000
I0428 20:31:45.010524  3998 layer_factory.hpp:77] Creating layer label_mnist_1_split
I0428 20:31:45.010535  3998 net.cpp:86] Creating Layer label_mnist_1_split
I0428 20:31:45.010538  3998 net.cpp:408] label_mnist_1_split <- label
I0428 20:31:45.010543  3998 net.cpp:382] label_mnist_1_split -> label_mnist_1_split_0
I0428 20:31:45.010551  3998 net.cpp:382] label_mnist_1_split -> label_mnist_1_split_1
I0428 20:31:45.010592  3998 net.cpp:124] Setting up label_mnist_1_split
I0428 20:31:45.010598  3998 net.cpp:131] Top shape: 100 (100)
I0428 20:31:45.010602  3998 net.cpp:131] Top shape: 100 (100)
I0428 20:31:45.010606  3998 net.cpp:139] Memory required for data: 314800
I0428 20:31:45.010608  3998 layer_factory.hpp:77] Creating layer conv0
I0428 20:31:45.010617  3998 net.cpp:86] Creating Layer conv0
I0428 20:31:45.010620  3998 net.cpp:408] conv0 <- data
I0428 20:31:45.010627  3998 net.cpp:382] conv0 -> conv0
I0428 20:31:45.011641  3998 net.cpp:124] Setting up conv0
I0428 20:31:45.011656  3998 net.cpp:131] Top shape: 100 100 24 24 (5760000)
I0428 20:31:45.011659  3998 net.cpp:139] Memory required for data: 23354800
I0428 20:31:45.011669  3998 layer_factory.hpp:77] Creating layer pool0
I0428 20:31:45.011677  3998 net.cpp:86] Creating Layer pool0
I0428 20:31:45.011679  3998 net.cpp:408] pool0 <- conv0
I0428 20:31:45.011687  3998 net.cpp:382] pool0 -> pool0
I0428 20:31:45.011728  3998 net.cpp:124] Setting up pool0
I0428 20:31:45.011734  3998 net.cpp:131] Top shape: 100 100 12 12 (1440000)
I0428 20:31:45.011737  3998 net.cpp:139] Memory required for data: 29114800
I0428 20:31:45.011740  3998 layer_factory.hpp:77] Creating layer conv1
I0428 20:31:45.011750  3998 net.cpp:86] Creating Layer conv1
I0428 20:31:45.011754  3998 net.cpp:408] conv1 <- pool0
I0428 20:31:45.011760  3998 net.cpp:382] conv1 -> conv1
I0428 20:31:45.013833  3998 net.cpp:124] Setting up conv1
I0428 20:31:45.013847  3998 net.cpp:131] Top shape: 100 25 8 8 (160000)
I0428 20:31:45.013852  3998 net.cpp:139] Memory required for data: 29754800
I0428 20:31:45.013862  3998 layer_factory.hpp:77] Creating layer pool1
I0428 20:31:45.013877  3998 net.cpp:86] Creating Layer pool1
I0428 20:31:45.013892  3998 net.cpp:408] pool1 <- conv1
I0428 20:31:45.013900  3998 net.cpp:382] pool1 -> pool1
I0428 20:31:45.013942  3998 net.cpp:124] Setting up pool1
I0428 20:31:45.013949  3998 net.cpp:131] Top shape: 100 25 4 4 (40000)
I0428 20:31:45.013952  3998 net.cpp:139] Memory required for data: 29914800
I0428 20:31:45.013955  3998 layer_factory.hpp:77] Creating layer ip1
I0428 20:31:45.013962  3998 net.cpp:86] Creating Layer ip1
I0428 20:31:45.013965  3998 net.cpp:408] ip1 <- pool1
I0428 20:31:45.013972  3998 net.cpp:382] ip1 -> ip1
I0428 20:31:45.014103  3998 net.cpp:124] Setting up ip1
I0428 20:31:45.014112  3998 net.cpp:131] Top shape: 100 10 (1000)
I0428 20:31:45.014117  3998 net.cpp:139] Memory required for data: 29918800
I0428 20:31:45.014125  3998 layer_factory.hpp:77] Creating layer relu1
I0428 20:31:45.014130  3998 net.cpp:86] Creating Layer relu1
I0428 20:31:45.014135  3998 net.cpp:408] relu1 <- ip1
I0428 20:31:45.014142  3998 net.cpp:369] relu1 -> ip1 (in-place)
I0428 20:31:45.015022  3998 net.cpp:124] Setting up relu1
I0428 20:31:45.015035  3998 net.cpp:131] Top shape: 100 10 (1000)
I0428 20:31:45.015039  3998 net.cpp:139] Memory required for data: 29922800
I0428 20:31:45.015043  3998 layer_factory.hpp:77] Creating layer ip1_relu1_0_split
I0428 20:31:45.015051  3998 net.cpp:86] Creating Layer ip1_relu1_0_split
I0428 20:31:45.015055  3998 net.cpp:408] ip1_relu1_0_split <- ip1
I0428 20:31:45.015061  3998 net.cpp:382] ip1_relu1_0_split -> ip1_relu1_0_split_0
I0428 20:31:45.015069  3998 net.cpp:382] ip1_relu1_0_split -> ip1_relu1_0_split_1
I0428 20:31:45.015111  3998 net.cpp:124] Setting up ip1_relu1_0_split
I0428 20:31:45.015118  3998 net.cpp:131] Top shape: 100 10 (1000)
I0428 20:31:45.015122  3998 net.cpp:131] Top shape: 100 10 (1000)
I0428 20:31:45.015125  3998 net.cpp:139] Memory required for data: 29930800
I0428 20:31:45.015136  3998 layer_factory.hpp:77] Creating layer accuracy
I0428 20:31:45.015141  3998 net.cpp:86] Creating Layer accuracy
I0428 20:31:45.015144  3998 net.cpp:408] accuracy <- ip1_relu1_0_split_0
I0428 20:31:45.015149  3998 net.cpp:408] accuracy <- label_mnist_1_split_0
I0428 20:31:45.015156  3998 net.cpp:382] accuracy -> accuracy
…
