…
I0428 20:22:35.512781  2024 net.cpp:296] The NetState phase (0) differed from the phase (1) specified by a rule in layer mnist
I0428 20:22:35.512799  2024 net.cpp:296] The NetState phase (0) differed from the phase (1) specified by a rule in layer accuracy
I0428 20:22:35.512898  2024 net.cpp:53] Initializing net from parameters: 
name: "LeNet"
state {
  phase: TRAIN
  level: 0
  stage: ""
}
layer {
  name: "mnist"
  type: "Data"
  top: "data"
  top: "label"
  include {
    phase: TRAIN
  }
  transform_param {
    scale: 0.00390625
  }
  data_param {
    source: "examples/mnist/mnist_train_lmdb"
    batch_size: 64
    backend: LMDB
  }
}
layer {
  name: "conv0"
  type: "Convolution"
  bottom: "data"
  top: "conv0"
  param {
    lr_mult: 1
  }
  param {
    lr_mult: 2
  }
  convolution_param {
    num_output: 50
    kernel_size: 5
    stride: 1
    weight_filler {
      type: "xavier"
    }
    bias_filler {
      type: "constant"
    }
  }
}
layer {
  name: "pool0"
  type: "Pooling"
  bottom: "conv0"
  top: "pool0"
  pooling_param {
    pool: MAX
    kernel_size: 2
    stride: 2
  }
}
layer {
  name: "conv1"
  type: "Convolution"
  bottom: "pool0"
  top: "conv1"
  param {
    lr_mult: 1
  }
  param {
    lr_mult: 2
  }
  convolution_param {
    num_output: 100
    kernel_size: 5
    stride: 1
    weight_filler {
      type: "xavier"
    }
    bias_filler {
      type: "constant"
    }
  }
}
layer {
  name: "pool1"
  type: "Pooling"
  bottom: "conv1"
  top: "pool1"
  pooling_param {
    pool: MAX
    kernel_size: 2
    stride: 2
  }
}
layer {
  name: "ip1"
  type: "InnerProduct"
  bottom: "pool1"
  top: "ip1"
  param {
    lr_mult: 1
  }
  param {
    lr_mult: 2
  }
  inner_product_param {
    num_output: 10
    weight_filler {
      type: "xavier"
    }
    bias_filler {
      type: "constant"
    }
  }
}
layer {
  name: "relu1"
  type: "ReLU"
  bottom: "ip1"
  top: "ip1"
}
layer {
  name: "ip2"
  type: "InnerProduct"
  bottom: "ip1"
  top: "ip2"
  param {
    lr_mult: 1
  }
  param {
    lr_mult: 2
  }
  inner_product_param {
    num_output: 10
    weight_filler {
      type: "xavier"
    }
    bias_filler {
      type: "constant"
    }
  }
}
layer {
  name: "relu2"
  type: "ReLU"
  bottom: "ip2"
  top: "ip2"
}
layer {
  name: "loss"
  type: "SoftmaxWithLoss"
  bottom: "ip2"
  bottom: "label"
  top: "loss"
}
I0428 20:22:35.512975  2024 layer_factory.hpp:77] Creating layer mnist
I0428 20:22:35.513077  2024 db_lmdb.cpp:35] Opened lmdb examples/mnist/mnist_train_lmdb
I0428 20:22:35.513103  2024 net.cpp:86] Creating Layer mnist
I0428 20:22:35.513111  2024 net.cpp:382] mnist -> data
I0428 20:22:35.513134  2024 net.cpp:382] mnist -> label
I0428 20:22:35.514230  2024 data_layer.cpp:45] output data size: 64,1,28,28
I0428 20:22:35.516824  2024 net.cpp:124] Setting up mnist
I0428 20:22:35.516847  2024 net.cpp:131] Top shape: 64 1 28 28 (50176)
I0428 20:22:35.516856  2024 net.cpp:131] Top shape: 64 (64)
I0428 20:22:35.516860  2024 net.cpp:139] Memory required for data: 200960
I0428 20:22:35.516867  2024 layer_factory.hpp:77] Creating layer conv0
I0428 20:22:35.516882  2024 net.cpp:86] Creating Layer conv0
I0428 20:22:35.516891  2024 net.cpp:408] conv0 <- data
I0428 20:22:35.516906  2024 net.cpp:382] conv0 -> conv0
I0428 20:22:35.808672  2024 net.cpp:124] Setting up conv0
I0428 20:22:35.808703  2024 net.cpp:131] Top shape: 64 50 24 24 (1843200)
I0428 20:22:35.808708  2024 net.cpp:139] Memory required for data: 7573760
I0428 20:22:35.808746  2024 layer_factory.hpp:77] Creating layer pool0
I0428 20:22:35.808760  2024 net.cpp:86] Creating Layer pool0
I0428 20:22:35.808764  2024 net.cpp:408] pool0 <- conv0
I0428 20:22:35.808771  2024 net.cpp:382] pool0 -> pool0
I0428 20:22:35.808832  2024 net.cpp:124] Setting up pool0
I0428 20:22:35.808840  2024 net.cpp:131] Top shape: 64 50 12 12 (460800)
I0428 20:22:35.808843  2024 net.cpp:139] Memory required for data: 9416960
I0428 20:22:35.808847  2024 layer_factory.hpp:77] Creating layer conv1
I0428 20:22:35.808861  2024 net.cpp:86] Creating Layer conv1
I0428 20:22:35.808864  2024 net.cpp:408] conv1 <- pool0
I0428 20:22:35.808869  2024 net.cpp:382] conv1 -> conv1
I0428 20:22:35.812830  2024 net.cpp:124] Setting up conv1
I0428 20:22:35.812847  2024 net.cpp:131] Top shape: 64 100 8 8 (409600)
I0428 20:22:35.812852  2024 net.cpp:139] Memory required for data: 11055360
I0428 20:22:35.812862  2024 layer_factory.hpp:77] Creating layer pool1
I0428 20:22:35.812871  2024 net.cpp:86] Creating Layer pool1
I0428 20:22:35.812876  2024 net.cpp:408] pool1 <- conv1
I0428 20:22:35.812882  2024 net.cpp:382] pool1 -> pool1
I0428 20:22:35.812925  2024 net.cpp:124] Setting up pool1
I0428 20:22:35.812932  2024 net.cpp:131] Top shape: 64 100 4 4 (102400)
I0428 20:22:35.812935  2024 net.cpp:139] Memory required for data: 11464960
I0428 20:22:35.812938  2024 layer_factory.hpp:77] Creating layer ip1
I0428 20:22:35.812947  2024 net.cpp:86] Creating Layer ip1
I0428 20:22:35.812950  2024 net.cpp:408] ip1 <- pool1
I0428 20:22:35.812955  2024 net.cpp:382] ip1 -> ip1
I0428 20:22:35.814132  2024 net.cpp:124] Setting up ip1
I0428 20:22:35.814148  2024 net.cpp:131] Top shape: 64 10 (640)
I0428 20:22:35.814152  2024 net.cpp:139] Memory required for data: 11467520
I0428 20:22:35.814162  2024 layer_factory.hpp:77] Creating layer relu1
I0428 20:22:35.814168  2024 net.cpp:86] Creating Layer relu1
I0428 20:22:35.814172  2024 net.cpp:408] relu1 <- ip1
I0428 20:22:35.814178  2024 net.cpp:369] relu1 -> ip1 (in-place)
I0428 20:22:35.814375  2024 net.cpp:124] Setting up relu1
I0428 20:22:35.814385  2024 net.cpp:131] Top shape: 64 10 (640)
I0428 20:22:35.814389  2024 net.cpp:139] Memory required for data: 11470080
I0428 20:22:35.814393  2024 layer_factory.hpp:77] Creating layer ip2
I0428 20:22:35.814400  2024 net.cpp:86] Creating Layer ip2
I0428 20:22:35.814404  2024 net.cpp:408] ip2 <- ip1
I0428 20:22:35.814410  2024 net.cpp:382] ip2 -> ip2
I0428 20:22:35.814520  2024 net.cpp:124] Setting up ip2
I0428 20:22:35.814528  2024 net.cpp:131] Top shape: 64 10 (640)
I0428 20:22:35.814532  2024 net.cpp:139] Memory required for data: 11472640
I0428 20:22:35.814538  2024 layer_factory.hpp:77] Creating layer relu2
I0428 20:22:35.814544  2024 net.cpp:86] Creating Layer relu2
I0428 20:22:35.814548  2024 net.cpp:408] relu2 <- ip2
I0428 20:22:35.814553  2024 net.cpp:369] relu2 -> ip2 (in-place)
I0428 20:22:35.815428  2024 net.cpp:124] Setting up relu2
I0428 20:22:35.815443  2024 net.cpp:131] Top shape: 64 10 (640)
I0428 20:22:35.815446  2024 net.cpp:139] Memory required for data: 11475200
I0428 20:22:35.815450  2024 layer_factory.hpp:77] Creating layer loss
I0428 20:22:35.815459  2024 net.cpp:86] Creating Layer loss
I0428 20:22:35.815462  2024 net.cpp:408] loss <- ip2
I0428 20:22:35.815467  2024 net.cpp:408] loss <- label
I0428 20:22:35.815474  2024 net.cpp:382] loss -> loss
I0428 20:22:35.815493  2024 layer_factory.hpp:77] Creating layer loss
…
I0428 20:22:35.816238  2024 solver.cpp:173] Creating test net (#0) specified by net file: ECE595/mnist/train_test/var_everything2/lenet_train_test1407.prototxt
I0428 20:22:35.816270  2024 net.cpp:296] The NetState phase (1) differed from the phase (0) specified by a rule in layer mnist
I0428 20:22:35.816365  2024 net.cpp:53] Initializing net from parameters: 
name: "LeNet"
state {
  phase: TEST
}
layer {
  name: "mnist"
  type: "Data"
  top: "data"
  top: "label"
  include {
    phase: TEST
  }
  transform_param {
    scale: 0.00390625
  }
  data_param {
    source: "examples/mnist/mnist_test_lmdb"
    batch_size: 100
    backend: LMDB
  }
}
layer {
  name: "conv0"
  type: "Convolution"
  bottom: "data"
  top: "conv0"
  param {
    lr_mult: 1
  }
  param {
    lr_mult: 2
  }
  convolution_param {
    num_output: 50
    kernel_size: 5
    stride: 1
    weight_filler {
      type: "xavier"
    }
    bias_filler {
      type: "constant"
    }
  }
}
layer {
  name: "pool0"
  type: "Pooling"
  bottom: "conv0"
  top: "pool0"
  pooling_param {
    pool: MAX
    kernel_size: 2
    stride: 2
  }
}
layer {
  name: "conv1"
  type: "Convolution"
  bottom: "pool0"
  top: "conv1"
  param {
    lr_mult: 1
  }
  param {
    lr_mult: 2
  }
  convolution_param {
    num_output: 100
    kernel_size: 5
    stride: 1
    weight_filler {
      type: "xavier"
    }
    bias_filler {
      type: "constant"
    }
  }
}
layer {
  name: "pool1"
  type: "Pooling"
  bottom: "conv1"
  top: "pool1"
  pooling_param {
    pool: MAX
    kernel_size: 2
    stride: 2
  }
}
layer {
  name: "ip1"
  type: "InnerProduct"
  bottom: "pool1"
  top: "ip1"
  param {
    lr_mult: 1
  }
  param {
    lr_mult: 2
  }
  inner_product_param {
    num_output: 10
    weight_filler {
      type: "xavier"
    }
    bias_filler {
      type: "constant"
    }
  }
}
layer {
  name: "relu1"
  type: "ReLU"
  bottom: "ip1"
  top: "ip1"
}
layer {
  name: "ip2"
  type: "InnerProduct"
  bottom: "ip1"
  top: "ip2"
  param {
    lr_mult: 1
  }
  param {
    lr_mult: 2
  }
  inner_product_param {
    num_output: 10
    weight_filler {
      type: "xavier"
    }
    bias_filler {
      type: "constant"
    }
  }
}
layer {
  name: "relu2"
  type: "ReLU"
  bottom: "ip2"
  top: "ip2"
}
layer {
  name: "accuracy"
  type: "Accuracy"
  bottom: "ip2"
  bottom: "label"
  top: "accuracy"
  include {
    phase: TEST
  }
}
layer {
  name: "loss"
  type: "SoftmaxWithLoss"
  bottom: "ip2"
  bottom: "label"
  top: "loss"
}
I0428 20:22:35.816437  2024 layer_factory.hpp:77] Creating layer mnist
I0428 20:22:35.816485  2024 db_lmdb.cpp:35] Opened lmdb examples/mnist/mnist_test_lmdb
I0428 20:22:35.816503  2024 net.cpp:86] Creating Layer mnist
I0428 20:22:35.816507  2024 net.cpp:382] mnist -> data
I0428 20:22:35.816516  2024 net.cpp:382] mnist -> label
I0428 20:22:35.816615  2024 data_layer.cpp:45] output data size: 100,1,28,28
I0428 20:22:35.817869  2024 net.cpp:124] Setting up mnist
I0428 20:22:35.817885  2024 net.cpp:131] Top shape: 100 1 28 28 (78400)
I0428 20:22:35.817891  2024 net.cpp:131] Top shape: 100 (100)
I0428 20:22:35.817894  2024 net.cpp:139] Memory required for data: 314000
I0428 20:22:35.817899  2024 layer_factory.hpp:77] Creating layer label_mnist_1_split
I0428 20:22:35.817906  2024 net.cpp:86] Creating Layer label_mnist_1_split
I0428 20:22:35.817910  2024 net.cpp:408] label_mnist_1_split <- label
I0428 20:22:35.817916  2024 net.cpp:382] label_mnist_1_split -> label_mnist_1_split_0
I0428 20:22:35.817924  2024 net.cpp:382] label_mnist_1_split -> label_mnist_1_split_1
I0428 20:22:35.817987  2024 net.cpp:124] Setting up label_mnist_1_split
I0428 20:22:35.817994  2024 net.cpp:131] Top shape: 100 (100)
I0428 20:22:35.817998  2024 net.cpp:131] Top shape: 100 (100)
I0428 20:22:35.818002  2024 net.cpp:139] Memory required for data: 314800
I0428 20:22:35.818006  2024 layer_factory.hpp:77] Creating layer conv0
I0428 20:22:35.818015  2024 net.cpp:86] Creating Layer conv0
I0428 20:22:35.818019  2024 net.cpp:408] conv0 <- data
I0428 20:22:35.818024  2024 net.cpp:382] conv0 -> conv0
I0428 20:22:35.819972  2024 net.cpp:124] Setting up conv0
I0428 20:22:35.819988  2024 net.cpp:131] Top shape: 100 50 24 24 (2880000)
I0428 20:22:35.819993  2024 net.cpp:139] Memory required for data: 11834800
I0428 20:22:35.820003  2024 layer_factory.hpp:77] Creating layer pool0
I0428 20:22:35.820010  2024 net.cpp:86] Creating Layer pool0
I0428 20:22:35.820014  2024 net.cpp:408] pool0 <- conv0
I0428 20:22:35.820020  2024 net.cpp:382] pool0 -> pool0
I0428 20:22:35.820062  2024 net.cpp:124] Setting up pool0
I0428 20:22:35.820070  2024 net.cpp:131] Top shape: 100 50 12 12 (720000)
I0428 20:22:35.820076  2024 net.cpp:139] Memory required for data: 14714800
I0428 20:22:35.820082  2024 layer_factory.hpp:77] Creating layer conv1
I0428 20:22:35.820092  2024 net.cpp:86] Creating Layer conv1
I0428 20:22:35.820096  2024 net.cpp:408] conv1 <- pool0
I0428 20:22:35.820102  2024 net.cpp:382] conv1 -> conv1
I0428 20:22:35.823711  2024 net.cpp:124] Setting up conv1
I0428 20:22:35.823729  2024 net.cpp:131] Top shape: 100 100 8 8 (640000)
I0428 20:22:35.823732  2024 net.cpp:139] Memory required for data: 17274800
I0428 20:22:35.823743  2024 layer_factory.hpp:77] Creating layer pool1
I0428 20:22:35.823750  2024 net.cpp:86] Creating Layer pool1
I0428 20:22:35.823755  2024 net.cpp:408] pool1 <- conv1
I0428 20:22:35.823762  2024 net.cpp:382] pool1 -> pool1
I0428 20:22:35.823803  2024 net.cpp:124] Setting up pool1
I0428 20:22:35.823809  2024 net.cpp:131] Top shape: 100 100 4 4 (160000)
I0428 20:22:35.823814  2024 net.cpp:139] Memory required for data: 17914800
I0428 20:22:35.823817  2024 layer_factory.hpp:77] Creating layer ip1
I0428 20:22:35.823824  2024 net.cpp:86] Creating Layer ip1
I0428 20:22:35.823828  2024 net.cpp:408] ip1 <- pool1
I0428 20:22:35.823834  2024 net.cpp:382] ip1 -> ip1
I0428 20:22:35.824040  2024 net.cpp:124] Setting up ip1
I0428 20:22:35.824048  2024 net.cpp:131] Top shape: 100 10 (1000)
I0428 20:22:35.824053  2024 net.cpp:139] Memory required for data: 17918800
I0428 20:22:35.824060  2024 layer_factory.hpp:77] Creating layer relu1
I0428 20:22:35.824065  2024 net.cpp:86] Creating Layer relu1
I0428 20:22:35.824069  2024 net.cpp:408] relu1 <- ip1
I0428 20:22:35.824075  2024 net.cpp:369] relu1 -> ip1 (in-place)
I0428 20:22:35.824264  2024 net.cpp:124] Setting up relu1
I0428 20:22:35.824277  2024 net.cpp:131] Top shape: 100 10 (1000)
I0428 20:22:35.824281  2024 net.cpp:139] Memory required for data: 17922800
I0428 20:22:35.824285  2024 layer_factory.hpp:77] Creating layer ip2
I0428 20:22:35.824300  2024 net.cpp:86] Creating Layer ip2
I0428 20:22:35.824303  2024 net.cpp:408] ip2 <- ip1
I0428 20:22:35.824311  2024 net.cpp:382] ip2 -> ip2
I0428 20:22:35.824421  2024 net.cpp:124] Setting up ip2
I0428 20:22:35.824429  2024 net.cpp:131] Top shape: 100 10 (1000)
I0428 20:22:35.824434  2024 net.cpp:139] Memory required for data: 17926800
I0428 20:22:35.824440  2024 layer_factory.hpp:77] Creating layer relu2
I0428 20:22:35.824446  2024 net.cpp:86] Creating Layer relu2
I0428 20:22:35.824451  2024 net.cpp:408] relu2 <- ip2
I0428 20:22:35.824455  2024 net.cpp:369] relu2 -> ip2 (in-place)
I0428 20:22:35.824692  2024 net.cpp:124] Setting up relu2
I0428 20:22:35.824703  2024 net.cpp:131] Top shape: 100 10 (1000)
I0428 20:22:35.824707  2024 net.cpp:139] Memory required for data: 17930800
I0428 20:22:35.824710  2024 layer_factory.hpp:77] Creating layer ip2_relu2_0_split
I0428 20:22:35.824717  2024 net.cpp:86] Creating Layer ip2_relu2_0_split
I0428 20:22:35.824722  2024 net.cpp:408] ip2_relu2_0_split <- ip2
I0428 20:22:35.824726  2024 net.cpp:382] ip2_relu2_0_split -> ip2_relu2_0_split_0
I0428 20:22:35.824751  2024 net.cpp:382] ip2_relu2_0_split -> ip2_relu2_0_split_1
I0428 20:22:35.824826  2024 net.cpp:124] Setting up ip2_relu2_0_split
I0428 20:22:35.824837  2024 net.cpp:131] Top shape: 100 10 (1000)
I0428 20:22:35.824841  2024 net.cpp:131] Top shape: 100 10 (1000)
I0428 20:22:35.824844  2024 net.cpp:139] Memory required for data: 17938800
I0428 20:22:35.824848  2024 layer_factory.hpp:77] Creating layer accuracy
I0428 20:22:35.824856  2024 net.cpp:86] Creating Layer accuracy
I0428 20:22:35.824862  2024 net.cpp:408] accuracy <- ip2_relu2_0_split_0
I0428 20:22:35.824867  2024 net.cpp:408] accuracy <- label_mnist_1_split_0
I0428 20:22:35.824872  2024 net.cpp:382] accuracy -> accuracy
…
