…
I0428 19:48:28.468637 26488 net.cpp:296] The NetState phase (0) differed from the phase (1) specified by a rule in layer mnist
I0428 19:48:28.468657 26488 net.cpp:296] The NetState phase (0) differed from the phase (1) specified by a rule in layer accuracy
I0428 19:48:28.468756 26488 net.cpp:53] Initializing net from parameters: 
name: "LeNet"
state {
  phase: TRAIN
  level: 0
  stage: ""
}
layer {
  name: "mnist"
  type: "Data"
  top: "data"
  top: "label"
  include {
    phase: TRAIN
  }
  transform_param {
    scale: 0.00390625
  }
  data_param {
    source: "examples/mnist/mnist_train_lmdb"
    batch_size: 64
    backend: LMDB
  }
}
layer {
  name: "conv0"
  type: "Convolution"
  bottom: "data"
  top: "conv0"
  param {
    lr_mult: 1
  }
  param {
    lr_mult: 2
  }
  convolution_param {
    num_output: 5
    kernel_size: 5
    stride: 1
    weight_filler {
      type: "xavier"
    }
    bias_filler {
      type: "constant"
    }
  }
}
layer {
  name: "pool0"
  type: "Pooling"
  bottom: "conv0"
  top: "pool0"
  pooling_param {
    pool: MAX
    kernel_size: 2
    stride: 2
  }
}
layer {
  name: "conv1"
  type: "Convolution"
  bottom: "pool0"
  top: "conv1"
  param {
    lr_mult: 1
  }
  param {
    lr_mult: 2
  }
  convolution_param {
    num_output: 2
    kernel_size: 5
    stride: 1
    weight_filler {
      type: "xavier"
    }
    bias_filler {
      type: "constant"
    }
  }
}
layer {
  name: "pool1"
  type: "Pooling"
  bottom: "conv1"
  top: "pool1"
  pooling_param {
    pool: MAX
    kernel_size: 2
    stride: 2
  }
}
layer {
  name: "ip1"
  type: "InnerProduct"
  bottom: "pool1"
  top: "ip1"
  param {
    lr_mult: 1
  }
  param {
    lr_mult: 2
  }
  inner_product_param {
    num_output: 50
    weight_filler {
      type: "xavier"
    }
    bias_filler {
      type: "constant"
    }
  }
}
layer {
  name: "relu1"
  type: "ReLU"
  bottom: "ip1"
  top: "ip1"
}
layer {
  name: "ip2"
  type: "InnerProduct"
  bottom: "ip1"
  top: "ip2"
  param {
    lr_mult: 1
  }
  param {
    lr_mult: 2
  }
  inner_product_param {
    num_output: 50
    weight_filler {
      type: "xavier"
    }
    bias_filler {
      type: "constant"
    }
  }
}
layer {
  name: "relu2"
  type: "ReLU"
  bottom: "ip2"
  top: "ip2"
}
layer {
  name: "ip3"
  type: "InnerProduct"
  bottom: "ip2"
  top: "ip3"
  param {
    lr_mult: 1
  }
  param {
    lr_mult: 2
  }
  inner_product_param {
    num_output: 10
    weight_filler {
      type: "xavier"
    }
    bias_filler {
      type: "constant"
    }
  }
}
layer {
  name: "relu3"
  type: "ReLU"
  bottom: "ip3"
  top: "ip3"
}
layer {
  name: "loss"
  type: "SoftmaxWithLoss"
  bottom: "ip3"
  bottom: "label"
  top: "loss"
}
I0428 19:48:28.468840 26488 layer_factory.hpp:77] Creating layer mnist
I0428 19:48:28.468937 26488 db_lmdb.cpp:35] Opened lmdb examples/mnist/mnist_train_lmdb
I0428 19:48:28.468961 26488 net.cpp:86] Creating Layer mnist
I0428 19:48:28.468967 26488 net.cpp:382] mnist -> data
I0428 19:48:28.468991 26488 net.cpp:382] mnist -> label
I0428 19:48:28.470041 26488 data_layer.cpp:45] output data size: 64,1,28,28
I0428 19:48:28.472429 26488 net.cpp:124] Setting up mnist
I0428 19:48:28.472448 26488 net.cpp:131] Top shape: 64 1 28 28 (50176)
I0428 19:48:28.472455 26488 net.cpp:131] Top shape: 64 (64)
I0428 19:48:28.472460 26488 net.cpp:139] Memory required for data: 200960
I0428 19:48:28.472466 26488 layer_factory.hpp:77] Creating layer conv0
I0428 19:48:28.472482 26488 net.cpp:86] Creating Layer conv0
I0428 19:48:28.472502 26488 net.cpp:408] conv0 <- data
I0428 19:48:28.472514 26488 net.cpp:382] conv0 -> conv0
I0428 19:48:28.736455 26488 net.cpp:124] Setting up conv0
I0428 19:48:28.736481 26488 net.cpp:131] Top shape: 64 5 24 24 (184320)
I0428 19:48:28.736485 26488 net.cpp:139] Memory required for data: 938240
I0428 19:48:28.736500 26488 layer_factory.hpp:77] Creating layer pool0
I0428 19:48:28.736511 26488 net.cpp:86] Creating Layer pool0
I0428 19:48:28.736515 26488 net.cpp:408] pool0 <- conv0
I0428 19:48:28.736521 26488 net.cpp:382] pool0 -> pool0
I0428 19:48:28.736577 26488 net.cpp:124] Setting up pool0
I0428 19:48:28.736582 26488 net.cpp:131] Top shape: 64 5 12 12 (46080)
I0428 19:48:28.736585 26488 net.cpp:139] Memory required for data: 1122560
I0428 19:48:28.736588 26488 layer_factory.hpp:77] Creating layer conv1
I0428 19:48:28.736598 26488 net.cpp:86] Creating Layer conv1
I0428 19:48:28.736601 26488 net.cpp:408] conv1 <- pool0
I0428 19:48:28.736605 26488 net.cpp:382] conv1 -> conv1
I0428 19:48:28.738597 26488 net.cpp:124] Setting up conv1
I0428 19:48:28.738628 26488 net.cpp:131] Top shape: 64 2 8 8 (8192)
I0428 19:48:28.738632 26488 net.cpp:139] Memory required for data: 1155328
I0428 19:48:28.738641 26488 layer_factory.hpp:77] Creating layer pool1
I0428 19:48:28.738648 26488 net.cpp:86] Creating Layer pool1
I0428 19:48:28.738652 26488 net.cpp:408] pool1 <- conv1
I0428 19:48:28.738657 26488 net.cpp:382] pool1 -> pool1
I0428 19:48:28.738693 26488 net.cpp:124] Setting up pool1
I0428 19:48:28.738699 26488 net.cpp:131] Top shape: 64 2 4 4 (2048)
I0428 19:48:28.738703 26488 net.cpp:139] Memory required for data: 1163520
I0428 19:48:28.738705 26488 layer_factory.hpp:77] Creating layer ip1
I0428 19:48:28.738713 26488 net.cpp:86] Creating Layer ip1
I0428 19:48:28.738715 26488 net.cpp:408] ip1 <- pool1
I0428 19:48:28.738720 26488 net.cpp:382] ip1 -> ip1
I0428 19:48:28.739711 26488 net.cpp:124] Setting up ip1
I0428 19:48:28.739737 26488 net.cpp:131] Top shape: 64 50 (3200)
I0428 19:48:28.739742 26488 net.cpp:139] Memory required for data: 1176320
I0428 19:48:28.739749 26488 layer_factory.hpp:77] Creating layer relu1
I0428 19:48:28.739755 26488 net.cpp:86] Creating Layer relu1
I0428 19:48:28.739760 26488 net.cpp:408] relu1 <- ip1
I0428 19:48:28.739764 26488 net.cpp:369] relu1 -> ip1 (in-place)
I0428 19:48:28.739928 26488 net.cpp:124] Setting up relu1
I0428 19:48:28.739953 26488 net.cpp:131] Top shape: 64 50 (3200)
I0428 19:48:28.739958 26488 net.cpp:139] Memory required for data: 1189120
I0428 19:48:28.739960 26488 layer_factory.hpp:77] Creating layer ip2
I0428 19:48:28.739967 26488 net.cpp:86] Creating Layer ip2
I0428 19:48:28.739970 26488 net.cpp:408] ip2 <- ip1
I0428 19:48:28.739975 26488 net.cpp:382] ip2 -> ip2
I0428 19:48:28.740082 26488 net.cpp:124] Setting up ip2
I0428 19:48:28.740089 26488 net.cpp:131] Top shape: 64 50 (3200)
I0428 19:48:28.740092 26488 net.cpp:139] Memory required for data: 1201920
I0428 19:48:28.740098 26488 layer_factory.hpp:77] Creating layer relu2
I0428 19:48:28.740105 26488 net.cpp:86] Creating Layer relu2
I0428 19:48:28.740108 26488 net.cpp:408] relu2 <- ip2
I0428 19:48:28.740113 26488 net.cpp:369] relu2 -> ip2 (in-place)
I0428 19:48:28.740963 26488 net.cpp:124] Setting up relu2
I0428 19:48:28.740991 26488 net.cpp:131] Top shape: 64 50 (3200)
I0428 19:48:28.740994 26488 net.cpp:139] Memory required for data: 1214720
I0428 19:48:28.740998 26488 layer_factory.hpp:77] Creating layer ip3
I0428 19:48:28.741005 26488 net.cpp:86] Creating Layer ip3
I0428 19:48:28.741010 26488 net.cpp:408] ip3 <- ip2
I0428 19:48:28.741015 26488 net.cpp:382] ip3 -> ip3
I0428 19:48:28.741134 26488 net.cpp:124] Setting up ip3
I0428 19:48:28.741158 26488 net.cpp:131] Top shape: 64 10 (640)
I0428 19:48:28.741160 26488 net.cpp:139] Memory required for data: 1217280
I0428 19:48:28.741168 26488 layer_factory.hpp:77] Creating layer relu3
I0428 19:48:28.741173 26488 net.cpp:86] Creating Layer relu3
I0428 19:48:28.741176 26488 net.cpp:408] relu3 <- ip3
I0428 19:48:28.741180 26488 net.cpp:369] relu3 -> ip3 (in-place)
I0428 19:48:28.741361 26488 net.cpp:124] Setting up relu3
I0428 19:48:28.741370 26488 net.cpp:131] Top shape: 64 10 (640)
I0428 19:48:28.741374 26488 net.cpp:139] Memory required for data: 1219840
I0428 19:48:28.741376 26488 layer_factory.hpp:77] Creating layer loss
I0428 19:48:28.741381 26488 net.cpp:86] Creating Layer loss
I0428 19:48:28.741385 26488 net.cpp:408] loss <- ip3
I0428 19:48:28.741389 26488 net.cpp:408] loss <- label
I0428 19:48:28.741394 26488 net.cpp:382] loss -> loss
I0428 19:48:28.741411 26488 layer_factory.hpp:77] Creating layer loss
…
I0428 19:48:28.742141 26488 solver.cpp:173] Creating test net (#0) specified by net file: ECE595/mnist/train_test/var_everything2/lenet_train_test545.prototxt
I0428 19:48:28.742183 26488 net.cpp:296] The NetState phase (1) differed from the phase (0) specified by a rule in layer mnist
I0428 19:48:28.742272 26488 net.cpp:53] Initializing net from parameters: 
name: "LeNet"
state {
  phase: TEST
}
layer {
  name: "mnist"
  type: "Data"
  top: "data"
  top: "label"
  include {
    phase: TEST
  }
  transform_param {
    scale: 0.00390625
  }
  data_param {
    source: "examples/mnist/mnist_test_lmdb"
    batch_size: 100
    backend: LMDB
  }
}
layer {
  name: "conv0"
  type: "Convolution"
  bottom: "data"
  top: "conv0"
  param {
    lr_mult: 1
  }
  param {
    lr_mult: 2
  }
  convolution_param {
    num_output: 5
    kernel_size: 5
    stride: 1
    weight_filler {
      type: "xavier"
    }
    bias_filler {
      type: "constant"
    }
  }
}
layer {
  name: "pool0"
  type: "Pooling"
  bottom: "conv0"
  top: "pool0"
  pooling_param {
    pool: MAX
    kernel_size: 2
    stride: 2
  }
}
layer {
  name: "conv1"
  type: "Convolution"
  bottom: "pool0"
  top: "conv1"
  param {
    lr_mult: 1
  }
  param {
    lr_mult: 2
  }
  convolution_param {
    num_output: 2
    kernel_size: 5
    stride: 1
    weight_filler {
      type: "xavier"
    }
    bias_filler {
      type: "constant"
    }
  }
}
layer {
  name: "pool1"
  type: "Pooling"
  bottom: "conv1"
  top: "pool1"
  pooling_param {
    pool: MAX
    kernel_size: 2
    stride: 2
  }
}
layer {
  name: "ip1"
  type: "InnerProduct"
  bottom: "pool1"
  top: "ip1"
  param {
    lr_mult: 1
  }
  param {
    lr_mult: 2
  }
  inner_product_param {
    num_output: 50
    weight_filler {
      type: "xavier"
    }
    bias_filler {
      type: "constant"
    }
  }
}
layer {
  name: "relu1"
  type: "ReLU"
  bottom: "ip1"
  top: "ip1"
}
layer {
  name: "ip2"
  type: "InnerProduct"
  bottom: "ip1"
  top: "ip2"
  param {
    lr_mult: 1
  }
  param {
    lr_mult: 2
  }
  inner_product_param {
    num_output: 50
    weight_filler {
      type: "xavier"
    }
    bias_filler {
      type: "constant"
    }
  }
}
layer {
  name: "relu2"
  type: "ReLU"
  bottom: "ip2"
  top: "ip2"
}
layer {
  name: "ip3"
  type: "InnerProduct"
  bottom: "ip2"
  top: "ip3"
  param {
    lr_mult: 1
  }
  param {
    lr_mult: 2
  }
  inner_product_param {
    num_output: 10
    weight_filler {
      type: "xavier"
    }
    bias_filler {
      type: "constant"
    }
  }
}
layer {
  name: "relu3"
  type: "ReLU"
  bottom: "ip3"
  top: "ip3"
}
layer {
  name: "accuracy"
  type: "Accuracy"
  bottom: "ip3"
  bottom: "label"
  top: "accuracy"
  include {
    phase: TEST
  }
}
layer {
  name: "loss"
  type: "SoftmaxWithLoss"
  bottom: "ip3"
  bottom: "label"
  top: "loss"
}
I0428 19:48:28.742349 26488 layer_factory.hpp:77] Creating layer mnist
I0428 19:48:28.742394 26488 db_lmdb.cpp:35] Opened lmdb examples/mnist/mnist_test_lmdb
I0428 19:48:28.742424 26488 net.cpp:86] Creating Layer mnist
I0428 19:48:28.742427 26488 net.cpp:382] mnist -> data
I0428 19:48:28.742435 26488 net.cpp:382] mnist -> label
I0428 19:48:28.742543 26488 data_layer.cpp:45] output data size: 100,1,28,28
I0428 19:48:28.744473 26488 net.cpp:124] Setting up mnist
I0428 19:48:28.744515 26488 net.cpp:131] Top shape: 100 1 28 28 (78400)
I0428 19:48:28.744520 26488 net.cpp:131] Top shape: 100 (100)
I0428 19:48:28.744524 26488 net.cpp:139] Memory required for data: 314000
I0428 19:48:28.744527 26488 layer_factory.hpp:77] Creating layer label_mnist_1_split
I0428 19:48:28.744561 26488 net.cpp:86] Creating Layer label_mnist_1_split
I0428 19:48:28.744565 26488 net.cpp:408] label_mnist_1_split <- label
I0428 19:48:28.744570 26488 net.cpp:382] label_mnist_1_split -> label_mnist_1_split_0
I0428 19:48:28.744576 26488 net.cpp:382] label_mnist_1_split -> label_mnist_1_split_1
I0428 19:48:28.744719 26488 net.cpp:124] Setting up label_mnist_1_split
I0428 19:48:28.744736 26488 net.cpp:131] Top shape: 100 (100)
I0428 19:48:28.744751 26488 net.cpp:131] Top shape: 100 (100)
I0428 19:48:28.744755 26488 net.cpp:139] Memory required for data: 314800
I0428 19:48:28.744757 26488 layer_factory.hpp:77] Creating layer conv0
I0428 19:48:28.744767 26488 net.cpp:86] Creating Layer conv0
I0428 19:48:28.744771 26488 net.cpp:408] conv0 <- data
I0428 19:48:28.744776 26488 net.cpp:382] conv0 -> conv0
I0428 19:48:28.746533 26488 net.cpp:124] Setting up conv0
I0428 19:48:28.746547 26488 net.cpp:131] Top shape: 100 5 24 24 (288000)
I0428 19:48:28.746551 26488 net.cpp:139] Memory required for data: 1466800
I0428 19:48:28.746559 26488 layer_factory.hpp:77] Creating layer pool0
I0428 19:48:28.746565 26488 net.cpp:86] Creating Layer pool0
I0428 19:48:28.746569 26488 net.cpp:408] pool0 <- conv0
I0428 19:48:28.746573 26488 net.cpp:382] pool0 -> pool0
I0428 19:48:28.746606 26488 net.cpp:124] Setting up pool0
I0428 19:48:28.746613 26488 net.cpp:131] Top shape: 100 5 12 12 (72000)
I0428 19:48:28.746615 26488 net.cpp:139] Memory required for data: 1754800
I0428 19:48:28.746618 26488 layer_factory.hpp:77] Creating layer conv1
I0428 19:48:28.746625 26488 net.cpp:86] Creating Layer conv1
I0428 19:48:28.746628 26488 net.cpp:408] conv1 <- pool0
I0428 19:48:28.746634 26488 net.cpp:382] conv1 -> conv1
I0428 19:48:28.748759 26488 net.cpp:124] Setting up conv1
I0428 19:48:28.748773 26488 net.cpp:131] Top shape: 100 2 8 8 (12800)
I0428 19:48:28.748777 26488 net.cpp:139] Memory required for data: 1806000
I0428 19:48:28.748785 26488 layer_factory.hpp:77] Creating layer pool1
I0428 19:48:28.748838 26488 net.cpp:86] Creating Layer pool1
I0428 19:48:28.748842 26488 net.cpp:408] pool1 <- conv1
I0428 19:48:28.748847 26488 net.cpp:382] pool1 -> pool1
I0428 19:48:28.748901 26488 net.cpp:124] Setting up pool1
I0428 19:48:28.748908 26488 net.cpp:131] Top shape: 100 2 4 4 (3200)
I0428 19:48:28.748911 26488 net.cpp:139] Memory required for data: 1818800
I0428 19:48:28.748914 26488 layer_factory.hpp:77] Creating layer ip1
I0428 19:48:28.748920 26488 net.cpp:86] Creating Layer ip1
I0428 19:48:28.748924 26488 net.cpp:408] ip1 <- pool1
I0428 19:48:28.748929 26488 net.cpp:382] ip1 -> ip1
I0428 19:48:28.749099 26488 net.cpp:124] Setting up ip1
I0428 19:48:28.749109 26488 net.cpp:131] Top shape: 100 50 (5000)
I0428 19:48:28.749121 26488 net.cpp:139] Memory required for data: 1838800
I0428 19:48:28.749130 26488 layer_factory.hpp:77] Creating layer relu1
I0428 19:48:28.749135 26488 net.cpp:86] Creating Layer relu1
I0428 19:48:28.749152 26488 net.cpp:408] relu1 <- ip1
I0428 19:48:28.749156 26488 net.cpp:369] relu1 -> ip1 (in-place)
I0428 19:48:28.749397 26488 net.cpp:124] Setting up relu1
I0428 19:48:28.749405 26488 net.cpp:131] Top shape: 100 50 (5000)
I0428 19:48:28.749409 26488 net.cpp:139] Memory required for data: 1858800
I0428 19:48:28.749413 26488 layer_factory.hpp:77] Creating layer ip2
I0428 19:48:28.749419 26488 net.cpp:86] Creating Layer ip2
I0428 19:48:28.749423 26488 net.cpp:408] ip2 <- ip1
I0428 19:48:28.749426 26488 net.cpp:382] ip2 -> ip2
I0428 19:48:28.749541 26488 net.cpp:124] Setting up ip2
I0428 19:48:28.749548 26488 net.cpp:131] Top shape: 100 50 (5000)
I0428 19:48:28.749552 26488 net.cpp:139] Memory required for data: 1878800
I0428 19:48:28.749557 26488 layer_factory.hpp:77] Creating layer relu2
I0428 19:48:28.749562 26488 net.cpp:86] Creating Layer relu2
I0428 19:48:28.749564 26488 net.cpp:408] relu2 <- ip2
I0428 19:48:28.749567 26488 net.cpp:369] relu2 -> ip2 (in-place)
I0428 19:48:28.749701 26488 net.cpp:124] Setting up relu2
I0428 19:48:28.749707 26488 net.cpp:131] Top shape: 100 50 (5000)
I0428 19:48:28.749711 26488 net.cpp:139] Memory required for data: 1898800
I0428 19:48:28.749714 26488 layer_factory.hpp:77] Creating layer ip3
I0428 19:48:28.749719 26488 net.cpp:86] Creating Layer ip3
I0428 19:48:28.749760 26488 net.cpp:408] ip3 <- ip2
I0428 19:48:28.749765 26488 net.cpp:382] ip3 -> ip3
I0428 19:48:28.749922 26488 net.cpp:124] Setting up ip3
I0428 19:48:28.749929 26488 net.cpp:131] Top shape: 100 10 (1000)
I0428 19:48:28.749933 26488 net.cpp:139] Memory required for data: 1902800
I0428 19:48:28.749943 26488 layer_factory.hpp:77] Creating layer relu3
I0428 19:48:28.749948 26488 net.cpp:86] Creating Layer relu3
I0428 19:48:28.749950 26488 net.cpp:408] relu3 <- ip3
I0428 19:48:28.749956 26488 net.cpp:369] relu3 -> ip3 (in-place)
I0428 19:48:28.750782 26488 net.cpp:124] Setting up relu3
I0428 19:48:28.750797 26488 net.cpp:131] Top shape: 100 10 (1000)
I0428 19:48:28.750800 26488 net.cpp:139] Memory required for data: 1906800
I0428 19:48:28.750804 26488 layer_factory.hpp:77] Creating layer ip3_relu3_0_split
I0428 19:48:28.750809 26488 net.cpp:86] Creating Layer ip3_relu3_0_split
I0428 19:48:28.750813 26488 net.cpp:408] ip3_relu3_0_split <- ip3
I0428 19:48:28.750818 26488 net.cpp:382] ip3_relu3_0_split -> ip3_relu3_0_split_0
I0428 19:48:28.750824 26488 net.cpp:382] ip3_relu3_0_split -> ip3_relu3_0_split_1
I0428 19:48:28.750937 26488 net.cpp:124] Setting up ip3_relu3_0_split
I0428 19:48:28.750946 26488 net.cpp:131] Top shape: 100 10 (1000)
I0428 19:48:28.750949 26488 net.cpp:131] Top shape: 100 10 (1000)
I0428 19:48:28.750952 26488 net.cpp:139] Memory required for data: 1914800
I0428 19:48:28.750962 26488 layer_factory.hpp:77] Creating layer accuracy
I0428 19:48:28.750973 26488 net.cpp:86] Creating Layer accuracy
I0428 19:48:28.750977 26488 net.cpp:408] accuracy <- ip3_relu3_0_split_0
I0428 19:48:28.750980 26488 net.cpp:408] accuracy <- label_mnist_1_split_0
I0428 19:48:28.750984 26488 net.cpp:382] accuracy -> accuracy
…
