…
I0428 20:04:45.111627 30451 net.cpp:296] The NetState phase (0) differed from the phase (1) specified by a rule in layer mnist
I0428 20:04:45.111655 30451 net.cpp:296] The NetState phase (0) differed from the phase (1) specified by a rule in layer accuracy
I0428 20:04:45.111723 30451 net.cpp:53] Initializing net from parameters: 
name: "LeNet"
state {
  phase: TRAIN
  level: 0
  stage: ""
}
layer {
  name: "mnist"
  type: "Data"
  top: "data"
  top: "label"
  include {
    phase: TRAIN
  }
  transform_param {
    scale: 0.00390625
  }
  data_param {
    source: "examples/mnist/mnist_train_lmdb"
    batch_size: 64
    backend: LMDB
  }
}
layer {
  name: "conv0"
  type: "Convolution"
  bottom: "data"
  top: "conv0"
  param {
    lr_mult: 1
  }
  param {
    lr_mult: 2
  }
  convolution_param {
    num_output: 25
    kernel_size: 5
    stride: 1
    weight_filler {
      type: "xavier"
    }
    bias_filler {
      type: "constant"
    }
  }
}
layer {
  name: "pool0"
  type: "Pooling"
  bottom: "conv0"
  top: "pool0"
  pooling_param {
    pool: MAX
    kernel_size: 2
    stride: 2
  }
}
layer {
  name: "conv1"
  type: "Convolution"
  bottom: "pool0"
  top: "conv1"
  param {
    lr_mult: 1
  }
  param {
    lr_mult: 2
  }
  convolution_param {
    num_output: 2
    kernel_size: 5
    stride: 1
    weight_filler {
      type: "xavier"
    }
    bias_filler {
      type: "constant"
    }
  }
}
layer {
  name: "pool1"
  type: "Pooling"
  bottom: "conv1"
  top: "pool1"
  pooling_param {
    pool: MAX
    kernel_size: 2
    stride: 2
  }
}
layer {
  name: "ip1"
  type: "InnerProduct"
  bottom: "pool1"
  top: "ip1"
  param {
    lr_mult: 1
  }
  param {
    lr_mult: 2
  }
  inner_product_param {
    num_output: 10
    weight_filler {
      type: "xavier"
    }
    bias_filler {
      type: "constant"
    }
  }
}
layer {
  name: "relu1"
  type: "ReLU"
  bottom: "ip1"
  top: "ip1"
}
layer {
  name: "ip2"
  type: "InnerProduct"
  bottom: "ip1"
  top: "ip2"
  param {
    lr_mult: 1
  }
  param {
    lr_mult: 2
  }
  inner_product_param {
    num_output: 10
    weight_filler {
      type: "xavier"
    }
    bias_filler {
      type: "constant"
    }
  }
}
layer {
  name: "relu2"
  type: "ReLU"
  bottom: "ip2"
  top: "ip2"
}
layer {
  name: "loss"
  type: "SoftmaxWithLoss"
  bottom: "ip2"
  bottom: "label"
  top: "loss"
}
I0428 20:04:45.111778 30451 layer_factory.hpp:77] Creating layer mnist
I0428 20:04:45.111856 30451 db_lmdb.cpp:35] Opened lmdb examples/mnist/mnist_train_lmdb
I0428 20:04:45.111876 30451 net.cpp:86] Creating Layer mnist
I0428 20:04:45.111881 30451 net.cpp:382] mnist -> data
I0428 20:04:45.111899 30451 net.cpp:382] mnist -> label
I0428 20:04:45.112846 30451 data_layer.cpp:45] output data size: 64,1,28,28
I0428 20:04:45.115066 30451 net.cpp:124] Setting up mnist
I0428 20:04:45.115095 30451 net.cpp:131] Top shape: 64 1 28 28 (50176)
I0428 20:04:45.115099 30451 net.cpp:131] Top shape: 64 (64)
I0428 20:04:45.115103 30451 net.cpp:139] Memory required for data: 200960
I0428 20:04:45.115108 30451 layer_factory.hpp:77] Creating layer conv0
I0428 20:04:45.115120 30451 net.cpp:86] Creating Layer conv0
I0428 20:04:45.115124 30451 net.cpp:408] conv0 <- data
I0428 20:04:45.115134 30451 net.cpp:382] conv0 -> conv0
I0428 20:04:45.341559 30451 net.cpp:124] Setting up conv0
I0428 20:04:45.341583 30451 net.cpp:131] Top shape: 64 25 24 24 (921600)
I0428 20:04:45.341588 30451 net.cpp:139] Memory required for data: 3887360
I0428 20:04:45.341635 30451 layer_factory.hpp:77] Creating layer pool0
I0428 20:04:45.341648 30451 net.cpp:86] Creating Layer pool0
I0428 20:04:45.341651 30451 net.cpp:408] pool0 <- conv0
I0428 20:04:45.341656 30451 net.cpp:382] pool0 -> pool0
I0428 20:04:45.341699 30451 net.cpp:124] Setting up pool0
I0428 20:04:45.341706 30451 net.cpp:131] Top shape: 64 25 12 12 (230400)
I0428 20:04:45.341708 30451 net.cpp:139] Memory required for data: 4808960
I0428 20:04:45.341711 30451 layer_factory.hpp:77] Creating layer conv1
I0428 20:04:45.341722 30451 net.cpp:86] Creating Layer conv1
I0428 20:04:45.341724 30451 net.cpp:408] conv1 <- pool0
I0428 20:04:45.341729 30451 net.cpp:382] conv1 -> conv1
I0428 20:04:45.344490 30451 net.cpp:124] Setting up conv1
I0428 20:04:45.344519 30451 net.cpp:131] Top shape: 64 2 8 8 (8192)
I0428 20:04:45.344522 30451 net.cpp:139] Memory required for data: 4841728
I0428 20:04:45.344530 30451 layer_factory.hpp:77] Creating layer pool1
I0428 20:04:45.344538 30451 net.cpp:86] Creating Layer pool1
I0428 20:04:45.344542 30451 net.cpp:408] pool1 <- conv1
I0428 20:04:45.344547 30451 net.cpp:382] pool1 -> pool1
I0428 20:04:45.344581 30451 net.cpp:124] Setting up pool1
I0428 20:04:45.344589 30451 net.cpp:131] Top shape: 64 2 4 4 (2048)
I0428 20:04:45.344593 30451 net.cpp:139] Memory required for data: 4849920
I0428 20:04:45.344595 30451 layer_factory.hpp:77] Creating layer ip1
I0428 20:04:45.344602 30451 net.cpp:86] Creating Layer ip1
I0428 20:04:45.344605 30451 net.cpp:408] ip1 <- pool1
I0428 20:04:45.344610 30451 net.cpp:382] ip1 -> ip1
I0428 20:04:45.344696 30451 net.cpp:124] Setting up ip1
I0428 20:04:45.344702 30451 net.cpp:131] Top shape: 64 10 (640)
I0428 20:04:45.344705 30451 net.cpp:139] Memory required for data: 4852480
I0428 20:04:45.344712 30451 layer_factory.hpp:77] Creating layer relu1
I0428 20:04:45.344732 30451 net.cpp:86] Creating Layer relu1
I0428 20:04:45.344736 30451 net.cpp:408] relu1 <- ip1
I0428 20:04:45.344740 30451 net.cpp:369] relu1 -> ip1 (in-place)
I0428 20:04:45.344946 30451 net.cpp:124] Setting up relu1
I0428 20:04:45.344956 30451 net.cpp:131] Top shape: 64 10 (640)
I0428 20:04:45.344959 30451 net.cpp:139] Memory required for data: 4855040
I0428 20:04:45.344962 30451 layer_factory.hpp:77] Creating layer ip2
I0428 20:04:45.344969 30451 net.cpp:86] Creating Layer ip2
I0428 20:04:45.344972 30451 net.cpp:408] ip2 <- ip1
I0428 20:04:45.344977 30451 net.cpp:382] ip2 -> ip2
I0428 20:04:45.345088 30451 net.cpp:124] Setting up ip2
I0428 20:04:45.345095 30451 net.cpp:131] Top shape: 64 10 (640)
I0428 20:04:45.345098 30451 net.cpp:139] Memory required for data: 4857600
I0428 20:04:45.345103 30451 layer_factory.hpp:77] Creating layer relu2
I0428 20:04:45.345109 30451 net.cpp:86] Creating Layer relu2
I0428 20:04:45.345113 30451 net.cpp:408] relu2 <- ip2
I0428 20:04:45.345116 30451 net.cpp:369] relu2 -> ip2 (in-place)
I0428 20:04:45.345939 30451 net.cpp:124] Setting up relu2
I0428 20:04:45.345952 30451 net.cpp:131] Top shape: 64 10 (640)
I0428 20:04:45.345954 30451 net.cpp:139] Memory required for data: 4860160
I0428 20:04:45.345958 30451 layer_factory.hpp:77] Creating layer loss
I0428 20:04:45.345964 30451 net.cpp:86] Creating Layer loss
I0428 20:04:45.345968 30451 net.cpp:408] loss <- ip2
I0428 20:04:45.345973 30451 net.cpp:408] loss <- label
I0428 20:04:45.345981 30451 net.cpp:382] loss -> loss
I0428 20:04:45.346000 30451 layer_factory.hpp:77] Creating layer loss
…
I0428 20:04:45.346616 30451 solver.cpp:173] Creating test net (#0) specified by net file: ECE595/mnist/train_test/var_everything2/lenet_train_test980.prototxt
I0428 20:04:45.346671 30451 net.cpp:296] The NetState phase (1) differed from the phase (0) specified by a rule in layer mnist
I0428 20:04:45.346747 30451 net.cpp:53] Initializing net from parameters: 
name: "LeNet"
state {
  phase: TEST
}
layer {
  name: "mnist"
  type: "Data"
  top: "data"
  top: "label"
  include {
    phase: TEST
  }
  transform_param {
    scale: 0.00390625
  }
  data_param {
    source: "examples/mnist/mnist_test_lmdb"
    batch_size: 100
    backend: LMDB
  }
}
layer {
  name: "conv0"
  type: "Convolution"
  bottom: "data"
  top: "conv0"
  param {
    lr_mult: 1
  }
  param {
    lr_mult: 2
  }
  convolution_param {
    num_output: 25
    kernel_size: 5
    stride: 1
    weight_filler {
      type: "xavier"
    }
    bias_filler {
      type: "constant"
    }
  }
}
layer {
  name: "pool0"
  type: "Pooling"
  bottom: "conv0"
  top: "pool0"
  pooling_param {
    pool: MAX
    kernel_size: 2
    stride: 2
  }
}
layer {
  name: "conv1"
  type: "Convolution"
  bottom: "pool0"
  top: "conv1"
  param {
    lr_mult: 1
  }
  param {
    lr_mult: 2
  }
  convolution_param {
    num_output: 2
    kernel_size: 5
    stride: 1
    weight_filler {
      type: "xavier"
    }
    bias_filler {
      type: "constant"
    }
  }
}
layer {
  name: "pool1"
  type: "Pooling"
  bottom: "conv1"
  top: "pool1"
  pooling_param {
    pool: MAX
    kernel_size: 2
    stride: 2
  }
}
layer {
  name: "ip1"
  type: "InnerProduct"
  bottom: "pool1"
  top: "ip1"
  param {
    lr_mult: 1
  }
  param {
    lr_mult: 2
  }
  inner_product_param {
    num_output: 10
    weight_filler {
      type: "xavier"
    }
    bias_filler {
      type: "constant"
    }
  }
}
layer {
  name: "relu1"
  type: "ReLU"
  bottom: "ip1"
  top: "ip1"
}
layer {
  name: "ip2"
  type: "InnerProduct"
  bottom: "ip1"
  top: "ip2"
  param {
    lr_mult: 1
  }
  param {
    lr_mult: 2
  }
  inner_product_param {
    num_output: 10
    weight_filler {
      type: "xavier"
    }
    bias_filler {
      type: "constant"
    }
  }
}
layer {
  name: "relu2"
  type: "ReLU"
  bottom: "ip2"
  top: "ip2"
}
layer {
  name: "accuracy"
  type: "Accuracy"
  bottom: "ip2"
  bottom: "label"
  top: "accuracy"
  include {
    phase: TEST
  }
}
layer {
  name: "loss"
  type: "SoftmaxWithLoss"
  bottom: "ip2"
  bottom: "label"
  top: "loss"
}
I0428 20:04:45.346806 30451 layer_factory.hpp:77] Creating layer mnist
I0428 20:04:45.346848 30451 db_lmdb.cpp:35] Opened lmdb examples/mnist/mnist_test_lmdb
I0428 20:04:45.346859 30451 net.cpp:86] Creating Layer mnist
I0428 20:04:45.346863 30451 net.cpp:382] mnist -> data
I0428 20:04:45.346871 30451 net.cpp:382] mnist -> label
I0428 20:04:45.347015 30451 data_layer.cpp:45] output data size: 100,1,28,28
I0428 20:04:45.349318 30451 net.cpp:124] Setting up mnist
I0428 20:04:45.349344 30451 net.cpp:131] Top shape: 100 1 28 28 (78400)
I0428 20:04:45.349349 30451 net.cpp:131] Top shape: 100 (100)
I0428 20:04:45.349367 30451 net.cpp:139] Memory required for data: 314000
I0428 20:04:45.349370 30451 layer_factory.hpp:77] Creating layer label_mnist_1_split
I0428 20:04:45.349395 30451 net.cpp:86] Creating Layer label_mnist_1_split
I0428 20:04:45.349398 30451 net.cpp:408] label_mnist_1_split <- label
I0428 20:04:45.349403 30451 net.cpp:382] label_mnist_1_split -> label_mnist_1_split_0
I0428 20:04:45.349409 30451 net.cpp:382] label_mnist_1_split -> label_mnist_1_split_1
I0428 20:04:45.349495 30451 net.cpp:124] Setting up label_mnist_1_split
I0428 20:04:45.349512 30451 net.cpp:131] Top shape: 100 (100)
I0428 20:04:45.349516 30451 net.cpp:131] Top shape: 100 (100)
I0428 20:04:45.349519 30451 net.cpp:139] Memory required for data: 314800
I0428 20:04:45.349522 30451 layer_factory.hpp:77] Creating layer conv0
I0428 20:04:45.349530 30451 net.cpp:86] Creating Layer conv0
I0428 20:04:45.349534 30451 net.cpp:408] conv0 <- data
I0428 20:04:45.349539 30451 net.cpp:382] conv0 -> conv0
I0428 20:04:45.351140 30451 net.cpp:124] Setting up conv0
I0428 20:04:45.351153 30451 net.cpp:131] Top shape: 100 25 24 24 (1440000)
I0428 20:04:45.351156 30451 net.cpp:139] Memory required for data: 6074800
I0428 20:04:45.351166 30451 layer_factory.hpp:77] Creating layer pool0
I0428 20:04:45.351171 30451 net.cpp:86] Creating Layer pool0
I0428 20:04:45.351174 30451 net.cpp:408] pool0 <- conv0
I0428 20:04:45.351178 30451 net.cpp:382] pool0 -> pool0
I0428 20:04:45.351227 30451 net.cpp:124] Setting up pool0
I0428 20:04:45.351238 30451 net.cpp:131] Top shape: 100 25 12 12 (360000)
I0428 20:04:45.351240 30451 net.cpp:139] Memory required for data: 7514800
I0428 20:04:45.351243 30451 layer_factory.hpp:77] Creating layer conv1
I0428 20:04:45.351267 30451 net.cpp:86] Creating Layer conv1
I0428 20:04:45.351270 30451 net.cpp:408] conv1 <- pool0
I0428 20:04:45.351275 30451 net.cpp:382] conv1 -> conv1
I0428 20:04:45.353525 30451 net.cpp:124] Setting up conv1
I0428 20:04:45.353538 30451 net.cpp:131] Top shape: 100 2 8 8 (12800)
I0428 20:04:45.353543 30451 net.cpp:139] Memory required for data: 7566000
I0428 20:04:45.353565 30451 layer_factory.hpp:77] Creating layer pool1
I0428 20:04:45.353586 30451 net.cpp:86] Creating Layer pool1
I0428 20:04:45.353590 30451 net.cpp:408] pool1 <- conv1
I0428 20:04:45.353595 30451 net.cpp:382] pool1 -> pool1
I0428 20:04:45.353675 30451 net.cpp:124] Setting up pool1
I0428 20:04:45.353682 30451 net.cpp:131] Top shape: 100 2 4 4 (3200)
I0428 20:04:45.353685 30451 net.cpp:139] Memory required for data: 7578800
I0428 20:04:45.353688 30451 layer_factory.hpp:77] Creating layer ip1
I0428 20:04:45.353694 30451 net.cpp:86] Creating Layer ip1
I0428 20:04:45.353698 30451 net.cpp:408] ip1 <- pool1
I0428 20:04:45.353703 30451 net.cpp:382] ip1 -> ip1
I0428 20:04:45.353797 30451 net.cpp:124] Setting up ip1
I0428 20:04:45.353804 30451 net.cpp:131] Top shape: 100 10 (1000)
I0428 20:04:45.353808 30451 net.cpp:139] Memory required for data: 7582800
I0428 20:04:45.353814 30451 layer_factory.hpp:77] Creating layer relu1
I0428 20:04:45.353819 30451 net.cpp:86] Creating Layer relu1
I0428 20:04:45.353822 30451 net.cpp:408] relu1 <- ip1
I0428 20:04:45.353827 30451 net.cpp:369] relu1 -> ip1 (in-place)
I0428 20:04:45.354003 30451 net.cpp:124] Setting up relu1
I0428 20:04:45.354012 30451 net.cpp:131] Top shape: 100 10 (1000)
I0428 20:04:45.354014 30451 net.cpp:139] Memory required for data: 7586800
I0428 20:04:45.354017 30451 layer_factory.hpp:77] Creating layer ip2
I0428 20:04:45.354024 30451 net.cpp:86] Creating Layer ip2
I0428 20:04:45.354027 30451 net.cpp:408] ip2 <- ip1
I0428 20:04:45.354032 30451 net.cpp:382] ip2 -> ip2
I0428 20:04:45.354121 30451 net.cpp:124] Setting up ip2
I0428 20:04:45.354127 30451 net.cpp:131] Top shape: 100 10 (1000)
I0428 20:04:45.354131 30451 net.cpp:139] Memory required for data: 7590800
I0428 20:04:45.354136 30451 layer_factory.hpp:77] Creating layer relu2
I0428 20:04:45.354141 30451 net.cpp:86] Creating Layer relu2
I0428 20:04:45.354145 30451 net.cpp:408] relu2 <- ip2
I0428 20:04:45.354148 30451 net.cpp:369] relu2 -> ip2 (in-place)
I0428 20:04:45.354336 30451 net.cpp:124] Setting up relu2
I0428 20:04:45.354346 30451 net.cpp:131] Top shape: 100 10 (1000)
I0428 20:04:45.354349 30451 net.cpp:139] Memory required for data: 7594800
I0428 20:04:45.354352 30451 layer_factory.hpp:77] Creating layer ip2_relu2_0_split
I0428 20:04:45.354357 30451 net.cpp:86] Creating Layer ip2_relu2_0_split
I0428 20:04:45.354359 30451 net.cpp:408] ip2_relu2_0_split <- ip2
I0428 20:04:45.354363 30451 net.cpp:382] ip2_relu2_0_split -> ip2_relu2_0_split_0
I0428 20:04:45.354379 30451 net.cpp:382] ip2_relu2_0_split -> ip2_relu2_0_split_1
I0428 20:04:45.354439 30451 net.cpp:124] Setting up ip2_relu2_0_split
I0428 20:04:45.354445 30451 net.cpp:131] Top shape: 100 10 (1000)
I0428 20:04:45.354465 30451 net.cpp:131] Top shape: 100 10 (1000)
I0428 20:04:45.354467 30451 net.cpp:139] Memory required for data: 7602800
I0428 20:04:45.354471 30451 layer_factory.hpp:77] Creating layer accuracy
I0428 20:04:45.354476 30451 net.cpp:86] Creating Layer accuracy
I0428 20:04:45.354483 30451 net.cpp:408] accuracy <- ip2_relu2_0_split_0
I0428 20:04:45.354488 30451 net.cpp:408] accuracy <- label_mnist_1_split_0
I0428 20:04:45.354492 30451 net.cpp:382] accuracy -> accuracy
…
