…
I0428 20:14:52.105813 32764 net.cpp:296] The NetState phase (0) differed from the phase (1) specified by a rule in layer mnist
I0428 20:14:52.105837 32764 net.cpp:296] The NetState phase (0) differed from the phase (1) specified by a rule in layer accuracy
I0428 20:14:52.105942 32764 net.cpp:53] Initializing net from parameters: 
name: "LeNet"
state {
  phase: TRAIN
  level: 0
  stage: ""
}
layer {
  name: "mnist"
  type: "Data"
  top: "data"
  top: "label"
  include {
    phase: TRAIN
  }
  transform_param {
    scale: 0.00390625
  }
  data_param {
    source: "examples/mnist/mnist_train_lmdb"
    batch_size: 64
    backend: LMDB
  }
}
layer {
  name: "conv0"
  type: "Convolution"
  bottom: "data"
  top: "conv0"
  param {
    lr_mult: 1
  }
  param {
    lr_mult: 2
  }
  convolution_param {
    num_output: 50
    kernel_size: 5
    stride: 1
    weight_filler {
      type: "xavier"
    }
    bias_filler {
      type: "constant"
    }
  }
}
layer {
  name: "pool0"
  type: "Pooling"
  bottom: "conv0"
  top: "pool0"
  pooling_param {
    pool: MAX
    kernel_size: 2
    stride: 2
  }
}
layer {
  name: "conv1"
  type: "Convolution"
  bottom: "pool0"
  top: "conv1"
  param {
    lr_mult: 1
  }
  param {
    lr_mult: 2
  }
  convolution_param {
    num_output: 2
    kernel_size: 5
    stride: 1
    weight_filler {
      type: "xavier"
    }
    bias_filler {
      type: "constant"
    }
  }
}
layer {
  name: "pool1"
  type: "Pooling"
  bottom: "conv1"
  top: "pool1"
  pooling_param {
    pool: MAX
    kernel_size: 2
    stride: 2
  }
}
layer {
  name: "ip1"
  type: "InnerProduct"
  bottom: "pool1"
  top: "ip1"
  param {
    lr_mult: 1
  }
  param {
    lr_mult: 2
  }
  inner_product_param {
    num_output: 25
    weight_filler {
      type: "xavier"
    }
    bias_filler {
      type: "constant"
    }
  }
}
layer {
  name: "relu1"
  type: "ReLU"
  bottom: "ip1"
  top: "ip1"
}
layer {
  name: "ip2"
  type: "InnerProduct"
  bottom: "ip1"
  top: "ip2"
  param {
    lr_mult: 1
  }
  param {
    lr_mult: 2
  }
  inner_product_param {
    num_output: 10
    weight_filler {
      type: "xavier"
    }
    bias_filler {
      type: "constant"
    }
  }
}
layer {
  name: "relu2"
  type: "ReLU"
  bottom: "ip2"
  top: "ip2"
}
layer {
  name: "ip3"
  type: "InnerProduct"
  bottom: "ip2"
  top: "ip3"
  param {
    lr_mult: 1
  }
  param {
    lr_mult: 2
  }
  inner_product_param {
    num_output: 10
    weight_filler {
      type: "xavier"
    }
    bias_filler {
      type: "constant"
    }
  }
}
layer {
  name: "relu3"
  type: "ReLU"
  bottom: "ip3"
  top: "ip3"
}
layer {
  name: "loss"
  type: "SoftmaxWithLoss"
  bottom: "ip3"
  bottom: "label"
  top: "loss"
}
I0428 20:14:52.106014 32764 layer_factory.hpp:77] Creating layer mnist
I0428 20:14:52.106115 32764 db_lmdb.cpp:35] Opened lmdb examples/mnist/mnist_train_lmdb
I0428 20:14:52.106138 32764 net.cpp:86] Creating Layer mnist
I0428 20:14:52.106145 32764 net.cpp:382] mnist -> data
I0428 20:14:52.106168 32764 net.cpp:382] mnist -> label
I0428 20:14:52.107251 32764 data_layer.cpp:45] output data size: 64,1,28,28
I0428 20:14:52.109701 32764 net.cpp:124] Setting up mnist
I0428 20:14:52.109719 32764 net.cpp:131] Top shape: 64 1 28 28 (50176)
I0428 20:14:52.109725 32764 net.cpp:131] Top shape: 64 (64)
I0428 20:14:52.109730 32764 net.cpp:139] Memory required for data: 200960
I0428 20:14:52.109737 32764 layer_factory.hpp:77] Creating layer conv0
I0428 20:14:52.109753 32764 net.cpp:86] Creating Layer conv0
I0428 20:14:52.109774 32764 net.cpp:408] conv0 <- data
I0428 20:14:52.109786 32764 net.cpp:382] conv0 -> conv0
I0428 20:14:52.404897 32764 net.cpp:124] Setting up conv0
I0428 20:14:52.404928 32764 net.cpp:131] Top shape: 64 50 24 24 (1843200)
I0428 20:14:52.404933 32764 net.cpp:139] Memory required for data: 7573760
I0428 20:14:52.404953 32764 layer_factory.hpp:77] Creating layer pool0
I0428 20:14:52.404968 32764 net.cpp:86] Creating Layer pool0
I0428 20:14:52.404973 32764 net.cpp:408] pool0 <- conv0
I0428 20:14:52.404978 32764 net.cpp:382] pool0 -> pool0
I0428 20:14:52.405040 32764 net.cpp:124] Setting up pool0
I0428 20:14:52.405046 32764 net.cpp:131] Top shape: 64 50 12 12 (460800)
I0428 20:14:52.405050 32764 net.cpp:139] Memory required for data: 9416960
I0428 20:14:52.405055 32764 layer_factory.hpp:77] Creating layer conv1
I0428 20:14:52.405066 32764 net.cpp:86] Creating Layer conv1
I0428 20:14:52.405071 32764 net.cpp:408] conv1 <- pool0
I0428 20:14:52.405076 32764 net.cpp:382] conv1 -> conv1
I0428 20:14:52.407245 32764 net.cpp:124] Setting up conv1
I0428 20:14:52.407263 32764 net.cpp:131] Top shape: 64 2 8 8 (8192)
I0428 20:14:52.407268 32764 net.cpp:139] Memory required for data: 9449728
I0428 20:14:52.407277 32764 layer_factory.hpp:77] Creating layer pool1
I0428 20:14:52.407286 32764 net.cpp:86] Creating Layer pool1
I0428 20:14:52.407290 32764 net.cpp:408] pool1 <- conv1
I0428 20:14:52.407297 32764 net.cpp:382] pool1 -> pool1
I0428 20:14:52.407342 32764 net.cpp:124] Setting up pool1
I0428 20:14:52.407348 32764 net.cpp:131] Top shape: 64 2 4 4 (2048)
I0428 20:14:52.407352 32764 net.cpp:139] Memory required for data: 9457920
I0428 20:14:52.407356 32764 layer_factory.hpp:77] Creating layer ip1
I0428 20:14:52.407368 32764 net.cpp:86] Creating Layer ip1
I0428 20:14:52.407372 32764 net.cpp:408] ip1 <- pool1
I0428 20:14:52.407378 32764 net.cpp:382] ip1 -> ip1
I0428 20:14:52.407496 32764 net.cpp:124] Setting up ip1
I0428 20:14:52.407505 32764 net.cpp:131] Top shape: 64 25 (1600)
I0428 20:14:52.407510 32764 net.cpp:139] Memory required for data: 9464320
I0428 20:14:52.407517 32764 layer_factory.hpp:77] Creating layer relu1
I0428 20:14:52.407524 32764 net.cpp:86] Creating Layer relu1
I0428 20:14:52.407528 32764 net.cpp:408] relu1 <- ip1
I0428 20:14:52.407533 32764 net.cpp:369] relu1 -> ip1 (in-place)
I0428 20:14:52.407732 32764 net.cpp:124] Setting up relu1
I0428 20:14:52.407743 32764 net.cpp:131] Top shape: 64 25 (1600)
I0428 20:14:52.407747 32764 net.cpp:139] Memory required for data: 9470720
I0428 20:14:52.407752 32764 layer_factory.hpp:77] Creating layer ip2
I0428 20:14:52.407759 32764 net.cpp:86] Creating Layer ip2
I0428 20:14:52.407763 32764 net.cpp:408] ip2 <- ip1
I0428 20:14:52.407768 32764 net.cpp:382] ip2 -> ip2
I0428 20:14:52.407884 32764 net.cpp:124] Setting up ip2
I0428 20:14:52.407893 32764 net.cpp:131] Top shape: 64 10 (640)
I0428 20:14:52.407897 32764 net.cpp:139] Memory required for data: 9473280
I0428 20:14:52.407904 32764 layer_factory.hpp:77] Creating layer relu2
I0428 20:14:52.407912 32764 net.cpp:86] Creating Layer relu2
I0428 20:14:52.407914 32764 net.cpp:408] relu2 <- ip2
I0428 20:14:52.407919 32764 net.cpp:369] relu2 -> ip2 (in-place)
I0428 20:14:52.408759 32764 net.cpp:124] Setting up relu2
I0428 20:14:52.408774 32764 net.cpp:131] Top shape: 64 10 (640)
I0428 20:14:52.408778 32764 net.cpp:139] Memory required for data: 9475840
I0428 20:14:52.408782 32764 layer_factory.hpp:77] Creating layer ip3
I0428 20:14:52.408792 32764 net.cpp:86] Creating Layer ip3
I0428 20:14:52.408795 32764 net.cpp:408] ip3 <- ip2
I0428 20:14:52.408802 32764 net.cpp:382] ip3 -> ip3
I0428 20:14:52.408927 32764 net.cpp:124] Setting up ip3
I0428 20:14:52.408938 32764 net.cpp:131] Top shape: 64 10 (640)
I0428 20:14:52.408942 32764 net.cpp:139] Memory required for data: 9478400
I0428 20:14:52.408952 32764 layer_factory.hpp:77] Creating layer relu3
I0428 20:14:52.408958 32764 net.cpp:86] Creating Layer relu3
I0428 20:14:52.408962 32764 net.cpp:408] relu3 <- ip3
I0428 20:14:52.408968 32764 net.cpp:369] relu3 -> ip3 (in-place)
I0428 20:14:52.409168 32764 net.cpp:124] Setting up relu3
I0428 20:14:52.409178 32764 net.cpp:131] Top shape: 64 10 (640)
I0428 20:14:52.409183 32764 net.cpp:139] Memory required for data: 9480960
I0428 20:14:52.409186 32764 layer_factory.hpp:77] Creating layer loss
I0428 20:14:52.409194 32764 net.cpp:86] Creating Layer loss
I0428 20:14:52.409198 32764 net.cpp:408] loss <- ip3
I0428 20:14:52.409202 32764 net.cpp:408] loss <- label
I0428 20:14:52.409209 32764 net.cpp:382] loss -> loss
I0428 20:14:52.409230 32764 layer_factory.hpp:77] Creating layer loss
…
I0428 20:14:52.409970 32764 solver.cpp:173] Creating test net (#0) specified by net file: ECE595/mnist/train_test/var_everything2/lenet_train_test1232.prototxt
I0428 20:14:52.410002 32764 net.cpp:296] The NetState phase (1) differed from the phase (0) specified by a rule in layer mnist
I0428 20:14:52.410110 32764 net.cpp:53] Initializing net from parameters: 
name: "LeNet"
state {
  phase: TEST
}
layer {
  name: "mnist"
  type: "Data"
  top: "data"
  top: "label"
  include {
    phase: TEST
  }
  transform_param {
    scale: 0.00390625
  }
  data_param {
    source: "examples/mnist/mnist_test_lmdb"
    batch_size: 100
    backend: LMDB
  }
}
layer {
  name: "conv0"
  type: "Convolution"
  bottom: "data"
  top: "conv0"
  param {
    lr_mult: 1
  }
  param {
    lr_mult: 2
  }
  convolution_param {
    num_output: 50
    kernel_size: 5
    stride: 1
    weight_filler {
      type: "xavier"
    }
    bias_filler {
      type: "constant"
    }
  }
}
layer {
  name: "pool0"
  type: "Pooling"
  bottom: "conv0"
  top: "pool0"
  pooling_param {
    pool: MAX
    kernel_size: 2
    stride: 2
  }
}
layer {
  name: "conv1"
  type: "Convolution"
  bottom: "pool0"
  top: "conv1"
  param {
    lr_mult: 1
  }
  param {
    lr_mult: 2
  }
  convolution_param {
    num_output: 2
    kernel_size: 5
    stride: 1
    weight_filler {
      type: "xavier"
    }
    bias_filler {
      type: "constant"
    }
  }
}
layer {
  name: "pool1"
  type: "Pooling"
  bottom: "conv1"
  top: "pool1"
  pooling_param {
    pool: MAX
    kernel_size: 2
    stride: 2
  }
}
layer {
  name: "ip1"
  type: "InnerProduct"
  bottom: "pool1"
  top: "ip1"
  param {
    lr_mult: 1
  }
  param {
    lr_mult: 2
  }
  inner_product_param {
    num_output: 25
    weight_filler {
      type: "xavier"
    }
    bias_filler {
      type: "constant"
    }
  }
}
layer {
  name: "relu1"
  type: "ReLU"
  bottom: "ip1"
  top: "ip1"
}
layer {
  name: "ip2"
  type: "InnerProduct"
  bottom: "ip1"
  top: "ip2"
  param {
    lr_mult: 1
  }
  param {
    lr_mult: 2
  }
  inner_product_param {
    num_output: 10
    weight_filler {
      type: "xavier"
    }
    bias_filler {
      type: "constant"
    }
  }
}
layer {
  name: "relu2"
  type: "ReLU"
  bottom: "ip2"
  top: "ip2"
}
layer {
  name: "ip3"
  type: "InnerProduct"
  bottom: "ip2"
  top: "ip3"
  param {
    lr_mult: 1
  }
  param {
    lr_mult: 2
  }
  inner_product_param {
    num_output: 10
    weight_filler {
      type: "xavier"
    }
    bias_filler {
      type: "constant"
    }
  }
}
layer {
  name: "relu3"
  type: "ReLU"
  bottom: "ip3"
  top: "ip3"
}
layer {
  name: "accuracy"
  type: "Accuracy"
  bottom: "ip3"
  bottom: "label"
  top: "accuracy"
  include {
    phase: TEST
  }
}
layer {
  name: "loss"
  type: "SoftmaxWithLoss"
  bottom: "ip3"
  bottom: "label"
  top: "loss"
}
I0428 20:14:52.410202 32764 layer_factory.hpp:77] Creating layer mnist
I0428 20:14:52.410254 32764 db_lmdb.cpp:35] Opened lmdb examples/mnist/mnist_test_lmdb
I0428 20:14:52.410267 32764 net.cpp:86] Creating Layer mnist
I0428 20:14:52.410272 32764 net.cpp:382] mnist -> data
I0428 20:14:52.410282 32764 net.cpp:382] mnist -> label
I0428 20:14:52.410383 32764 data_layer.cpp:45] output data size: 100,1,28,28
I0428 20:14:52.412798 32764 net.cpp:124] Setting up mnist
I0428 20:14:52.412822 32764 net.cpp:131] Top shape: 100 1 28 28 (78400)
I0428 20:14:52.412828 32764 net.cpp:131] Top shape: 100 (100)
I0428 20:14:52.412832 32764 net.cpp:139] Memory required for data: 314000
I0428 20:14:52.412837 32764 layer_factory.hpp:77] Creating layer label_mnist_1_split
I0428 20:14:52.412873 32764 net.cpp:86] Creating Layer label_mnist_1_split
I0428 20:14:52.412878 32764 net.cpp:408] label_mnist_1_split <- label
I0428 20:14:52.412883 32764 net.cpp:382] label_mnist_1_split -> label_mnist_1_split_0
I0428 20:14:52.412891 32764 net.cpp:382] label_mnist_1_split -> label_mnist_1_split_1
I0428 20:14:52.413008 32764 net.cpp:124] Setting up label_mnist_1_split
I0428 20:14:52.413017 32764 net.cpp:131] Top shape: 100 (100)
I0428 20:14:52.413022 32764 net.cpp:131] Top shape: 100 (100)
I0428 20:14:52.413025 32764 net.cpp:139] Memory required for data: 314800
I0428 20:14:52.413028 32764 layer_factory.hpp:77] Creating layer conv0
I0428 20:14:52.413038 32764 net.cpp:86] Creating Layer conv0
I0428 20:14:52.413043 32764 net.cpp:408] conv0 <- data
I0428 20:14:52.413048 32764 net.cpp:382] conv0 -> conv0
I0428 20:14:52.414870 32764 net.cpp:124] Setting up conv0
I0428 20:14:52.414887 32764 net.cpp:131] Top shape: 100 50 24 24 (2880000)
I0428 20:14:52.414891 32764 net.cpp:139] Memory required for data: 11834800
I0428 20:14:52.414902 32764 layer_factory.hpp:77] Creating layer pool0
I0428 20:14:52.414911 32764 net.cpp:86] Creating Layer pool0
I0428 20:14:52.414914 32764 net.cpp:408] pool0 <- conv0
I0428 20:14:52.414921 32764 net.cpp:382] pool0 -> pool0
I0428 20:14:52.414963 32764 net.cpp:124] Setting up pool0
I0428 20:14:52.414970 32764 net.cpp:131] Top shape: 100 50 12 12 (720000)
I0428 20:14:52.414973 32764 net.cpp:139] Memory required for data: 14714800
I0428 20:14:52.414978 32764 layer_factory.hpp:77] Creating layer conv1
I0428 20:14:52.414988 32764 net.cpp:86] Creating Layer conv1
I0428 20:14:52.414991 32764 net.cpp:408] conv1 <- pool0
I0428 20:14:52.414997 32764 net.cpp:382] conv1 -> conv1
I0428 20:14:52.416687 32764 net.cpp:124] Setting up conv1
I0428 20:14:52.416703 32764 net.cpp:131] Top shape: 100 2 8 8 (12800)
I0428 20:14:52.416707 32764 net.cpp:139] Memory required for data: 14766000
I0428 20:14:52.416718 32764 layer_factory.hpp:77] Creating layer pool1
I0428 20:14:52.416725 32764 net.cpp:86] Creating Layer pool1
I0428 20:14:52.416730 32764 net.cpp:408] pool1 <- conv1
I0428 20:14:52.416744 32764 net.cpp:382] pool1 -> pool1
I0428 20:14:52.416795 32764 net.cpp:124] Setting up pool1
I0428 20:14:52.416801 32764 net.cpp:131] Top shape: 100 2 4 4 (3200)
I0428 20:14:52.416805 32764 net.cpp:139] Memory required for data: 14778800
I0428 20:14:52.416817 32764 layer_factory.hpp:77] Creating layer ip1
I0428 20:14:52.416838 32764 net.cpp:86] Creating Layer ip1
I0428 20:14:52.416842 32764 net.cpp:408] ip1 <- pool1
I0428 20:14:52.416854 32764 net.cpp:382] ip1 -> ip1
I0428 20:14:52.416975 32764 net.cpp:124] Setting up ip1
I0428 20:14:52.416985 32764 net.cpp:131] Top shape: 100 25 (2500)
I0428 20:14:52.417001 32764 net.cpp:139] Memory required for data: 14788800
I0428 20:14:52.417011 32764 layer_factory.hpp:77] Creating layer relu1
I0428 20:14:52.417016 32764 net.cpp:86] Creating Layer relu1
I0428 20:14:52.417021 32764 net.cpp:408] relu1 <- ip1
I0428 20:14:52.417026 32764 net.cpp:369] relu1 -> ip1 (in-place)
I0428 20:14:52.417227 32764 net.cpp:124] Setting up relu1
I0428 20:14:52.417237 32764 net.cpp:131] Top shape: 100 25 (2500)
I0428 20:14:52.417240 32764 net.cpp:139] Memory required for data: 14798800
I0428 20:14:52.417245 32764 layer_factory.hpp:77] Creating layer ip2
I0428 20:14:52.417255 32764 net.cpp:86] Creating Layer ip2
I0428 20:14:52.417259 32764 net.cpp:408] ip2 <- ip1
I0428 20:14:52.417265 32764 net.cpp:382] ip2 -> ip2
I0428 20:14:52.417388 32764 net.cpp:124] Setting up ip2
I0428 20:14:52.417397 32764 net.cpp:131] Top shape: 100 10 (1000)
I0428 20:14:52.417402 32764 net.cpp:139] Memory required for data: 14802800
I0428 20:14:52.417407 32764 layer_factory.hpp:77] Creating layer relu2
I0428 20:14:52.417415 32764 net.cpp:86] Creating Layer relu2
I0428 20:14:52.417420 32764 net.cpp:408] relu2 <- ip2
I0428 20:14:52.417425 32764 net.cpp:369] relu2 -> ip2 (in-place)
I0428 20:14:52.417615 32764 net.cpp:124] Setting up relu2
I0428 20:14:52.417625 32764 net.cpp:131] Top shape: 100 10 (1000)
I0428 20:14:52.417629 32764 net.cpp:139] Memory required for data: 14806800
I0428 20:14:52.417632 32764 layer_factory.hpp:77] Creating layer ip3
I0428 20:14:52.417639 32764 net.cpp:86] Creating Layer ip3
I0428 20:14:52.417644 32764 net.cpp:408] ip3 <- ip2
I0428 20:14:52.417650 32764 net.cpp:382] ip3 -> ip3
I0428 20:14:52.417779 32764 net.cpp:124] Setting up ip3
I0428 20:14:52.417788 32764 net.cpp:131] Top shape: 100 10 (1000)
I0428 20:14:52.417793 32764 net.cpp:139] Memory required for data: 14810800
I0428 20:14:52.417804 32764 layer_factory.hpp:77] Creating layer relu3
I0428 20:14:52.417809 32764 net.cpp:86] Creating Layer relu3
I0428 20:14:52.417812 32764 net.cpp:408] relu3 <- ip3
I0428 20:14:52.417817 32764 net.cpp:369] relu3 -> ip3 (in-place)
I0428 20:14:52.418756 32764 net.cpp:124] Setting up relu3
I0428 20:14:52.418772 32764 net.cpp:131] Top shape: 100 10 (1000)
I0428 20:14:52.418777 32764 net.cpp:139] Memory required for data: 14814800
I0428 20:14:52.418781 32764 layer_factory.hpp:77] Creating layer ip3_relu3_0_split
I0428 20:14:52.418797 32764 net.cpp:86] Creating Layer ip3_relu3_0_split
I0428 20:14:52.418800 32764 net.cpp:408] ip3_relu3_0_split <- ip3
I0428 20:14:52.418813 32764 net.cpp:382] ip3_relu3_0_split -> ip3_relu3_0_split_0
I0428 20:14:52.418822 32764 net.cpp:382] ip3_relu3_0_split -> ip3_relu3_0_split_1
I0428 20:14:52.418867 32764 net.cpp:124] Setting up ip3_relu3_0_split
I0428 20:14:52.418875 32764 net.cpp:131] Top shape: 100 10 (1000)
I0428 20:14:52.418887 32764 net.cpp:131] Top shape: 100 10 (1000)
I0428 20:14:52.418890 32764 net.cpp:139] Memory required for data: 14822800
I0428 20:14:52.418895 32764 layer_factory.hpp:77] Creating layer accuracy
I0428 20:14:52.418908 32764 net.cpp:86] Creating Layer accuracy
I0428 20:14:52.418912 32764 net.cpp:408] accuracy <- ip3_relu3_0_split_0
I0428 20:14:52.418917 32764 net.cpp:408] accuracy <- label_mnist_1_split_0
I0428 20:14:52.418929 32764 net.cpp:382] accuracy -> accuracy
…
