…
I0428 19:35:57.200548 23617 net.cpp:296] The NetState phase (0) differed from the phase (1) specified by a rule in layer mnist
I0428 19:35:57.200562 23617 net.cpp:296] The NetState phase (0) differed from the phase (1) specified by a rule in layer accuracy
I0428 19:35:57.200639 23617 net.cpp:53] Initializing net from parameters: 
name: "LeNet"
state {
  phase: TRAIN
  level: 0
  stage: ""
}
layer {
  name: "mnist"
  type: "Data"
  top: "data"
  top: "label"
  include {
    phase: TRAIN
  }
  transform_param {
    scale: 0.00390625
  }
  data_param {
    source: "examples/mnist/mnist_train_lmdb"
    batch_size: 64
    backend: LMDB
  }
}
layer {
  name: "conv0"
  type: "Convolution"
  bottom: "data"
  top: "conv0"
  param {
    lr_mult: 1
  }
  param {
    lr_mult: 2
  }
  convolution_param {
    num_output: 100
    kernel_size: 5
    stride: 1
    weight_filler {
      type: "xavier"
    }
    bias_filler {
      type: "constant"
    }
  }
}
layer {
  name: "pool0"
  type: "Pooling"
  bottom: "conv0"
  top: "pool0"
  pooling_param {
    pool: MAX
    kernel_size: 2
    stride: 2
  }
}
layer {
  name: "ip1"
  type: "InnerProduct"
  bottom: "pool0"
  top: "ip1"
  param {
    lr_mult: 1
  }
  param {
    lr_mult: 2
  }
  inner_product_param {
    num_output: 10
    weight_filler {
      type: "xavier"
    }
    bias_filler {
      type: "constant"
    }
  }
}
layer {
  name: "relu1"
  type: "ReLU"
  bottom: "ip1"
  top: "ip1"
}
layer {
  name: "loss"
  type: "SoftmaxWithLoss"
  bottom: "ip1"
  bottom: "label"
  top: "loss"
}
I0428 19:35:57.200708 23617 layer_factory.hpp:77] Creating layer mnist
I0428 19:35:57.200847 23617 db_lmdb.cpp:35] Opened lmdb examples/mnist/mnist_train_lmdb
I0428 19:35:57.200875 23617 net.cpp:86] Creating Layer mnist
I0428 19:35:57.200886 23617 net.cpp:382] mnist -> data
I0428 19:35:57.200911 23617 net.cpp:382] mnist -> label
I0428 19:35:57.201988 23617 data_layer.cpp:45] output data size: 64,1,28,28
I0428 19:35:57.204146 23617 net.cpp:124] Setting up mnist
I0428 19:35:57.204162 23617 net.cpp:131] Top shape: 64 1 28 28 (50176)
I0428 19:35:57.204185 23617 net.cpp:131] Top shape: 64 (64)
I0428 19:35:57.204188 23617 net.cpp:139] Memory required for data: 200960
I0428 19:35:57.204212 23617 layer_factory.hpp:77] Creating layer conv0
I0428 19:35:57.204237 23617 net.cpp:86] Creating Layer conv0
I0428 19:35:57.204246 23617 net.cpp:408] conv0 <- data
I0428 19:35:57.204262 23617 net.cpp:382] conv0 -> conv0
I0428 19:35:57.443945 23617 net.cpp:124] Setting up conv0
I0428 19:35:57.443974 23617 net.cpp:131] Top shape: 64 100 24 24 (3686400)
I0428 19:35:57.443980 23617 net.cpp:139] Memory required for data: 14946560
I0428 19:35:57.443998 23617 layer_factory.hpp:77] Creating layer pool0
I0428 19:35:57.444015 23617 net.cpp:86] Creating Layer pool0
I0428 19:35:57.444030 23617 net.cpp:408] pool0 <- conv0
I0428 19:35:57.444037 23617 net.cpp:382] pool0 -> pool0
I0428 19:35:57.444092 23617 net.cpp:124] Setting up pool0
I0428 19:35:57.444100 23617 net.cpp:131] Top shape: 64 100 12 12 (921600)
I0428 19:35:57.444105 23617 net.cpp:139] Memory required for data: 18632960
I0428 19:35:57.444109 23617 layer_factory.hpp:77] Creating layer ip1
I0428 19:35:57.444120 23617 net.cpp:86] Creating Layer ip1
I0428 19:35:57.444129 23617 net.cpp:408] ip1 <- pool0
I0428 19:35:57.444138 23617 net.cpp:382] ip1 -> ip1
I0428 19:35:57.446013 23617 net.cpp:124] Setting up ip1
I0428 19:35:57.446029 23617 net.cpp:131] Top shape: 64 10 (640)
I0428 19:35:57.446058 23617 net.cpp:139] Memory required for data: 18635520
I0428 19:35:57.446072 23617 layer_factory.hpp:77] Creating layer relu1
I0428 19:35:57.446084 23617 net.cpp:86] Creating Layer relu1
I0428 19:35:57.446094 23617 net.cpp:408] relu1 <- ip1
I0428 19:35:57.446101 23617 net.cpp:369] relu1 -> ip1 (in-place)
I0428 19:35:57.446286 23617 net.cpp:124] Setting up relu1
I0428 19:35:57.446296 23617 net.cpp:131] Top shape: 64 10 (640)
I0428 19:35:57.446301 23617 net.cpp:139] Memory required for data: 18638080
I0428 19:35:57.446307 23617 layer_factory.hpp:77] Creating layer loss
I0428 19:35:57.446316 23617 net.cpp:86] Creating Layer loss
I0428 19:35:57.446321 23617 net.cpp:408] loss <- ip1
I0428 19:35:57.446327 23617 net.cpp:408] loss <- label
I0428 19:35:57.446334 23617 net.cpp:382] loss -> loss
I0428 19:35:57.446357 23617 layer_factory.hpp:77] Creating layer loss
…
I0428 19:35:57.447594 23617 solver.cpp:173] Creating test net (#0) specified by net file: ECE595/mnist/train_test/var_everything2/lenet_train_test235.prototxt
I0428 19:35:57.447623 23617 net.cpp:296] The NetState phase (1) differed from the phase (0) specified by a rule in layer mnist
I0428 19:35:57.447693 23617 net.cpp:53] Initializing net from parameters: 
name: "LeNet"
state {
  phase: TEST
}
layer {
  name: "mnist"
  type: "Data"
  top: "data"
  top: "label"
  include {
    phase: TEST
  }
  transform_param {
    scale: 0.00390625
  }
  data_param {
    source: "examples/mnist/mnist_test_lmdb"
    batch_size: 100
    backend: LMDB
  }
}
layer {
  name: "conv0"
  type: "Convolution"
  bottom: "data"
  top: "conv0"
  param {
    lr_mult: 1
  }
  param {
    lr_mult: 2
  }
  convolution_param {
    num_output: 100
    kernel_size: 5
    stride: 1
    weight_filler {
      type: "xavier"
    }
    bias_filler {
      type: "constant"
    }
  }
}
layer {
  name: "pool0"
  type: "Pooling"
  bottom: "conv0"
  top: "pool0"
  pooling_param {
    pool: MAX
    kernel_size: 2
    stride: 2
  }
}
layer {
  name: "ip1"
  type: "InnerProduct"
  bottom: "pool0"
  top: "ip1"
  param {
    lr_mult: 1
  }
  param {
    lr_mult: 2
  }
  inner_product_param {
    num_output: 10
    weight_filler {
      type: "xavier"
    }
    bias_filler {
      type: "constant"
    }
  }
}
layer {
  name: "relu1"
  type: "ReLU"
  bottom: "ip1"
  top: "ip1"
}
layer {
  name: "accuracy"
  type: "Accuracy"
  bottom: "ip1"
  bottom: "label"
  top: "accuracy"
  include {
    phase: TEST
  }
}
layer {
  name: "loss"
  type: "SoftmaxWithLoss"
  bottom: "ip1"
  bottom: "label"
  top: "loss"
}
I0428 19:35:57.447772 23617 layer_factory.hpp:77] Creating layer mnist
I0428 19:35:57.447844 23617 db_lmdb.cpp:35] Opened lmdb examples/mnist/mnist_test_lmdb
I0428 19:35:57.447875 23617 net.cpp:86] Creating Layer mnist
I0428 19:35:57.447881 23617 net.cpp:382] mnist -> data
I0428 19:35:57.447892 23617 net.cpp:382] mnist -> label
I0428 19:35:57.448017 23617 data_layer.cpp:45] output data size: 100,1,28,28
I0428 19:35:57.449131 23617 net.cpp:124] Setting up mnist
I0428 19:35:57.449162 23617 net.cpp:131] Top shape: 100 1 28 28 (78400)
I0428 19:35:57.449169 23617 net.cpp:131] Top shape: 100 (100)
I0428 19:35:57.449174 23617 net.cpp:139] Memory required for data: 314000
I0428 19:35:57.449206 23617 layer_factory.hpp:77] Creating layer label_mnist_1_split
I0428 19:35:57.449235 23617 net.cpp:86] Creating Layer label_mnist_1_split
I0428 19:35:57.449244 23617 net.cpp:408] label_mnist_1_split <- label
I0428 19:35:57.449251 23617 net.cpp:382] label_mnist_1_split -> label_mnist_1_split_0
I0428 19:35:57.449262 23617 net.cpp:382] label_mnist_1_split -> label_mnist_1_split_1
I0428 19:35:57.449329 23617 net.cpp:124] Setting up label_mnist_1_split
I0428 19:35:57.449339 23617 net.cpp:131] Top shape: 100 (100)
I0428 19:35:57.449347 23617 net.cpp:131] Top shape: 100 (100)
I0428 19:35:57.449352 23617 net.cpp:139] Memory required for data: 314800
I0428 19:35:57.449357 23617 layer_factory.hpp:77] Creating layer conv0
I0428 19:35:57.449369 23617 net.cpp:86] Creating Layer conv0
I0428 19:35:57.449376 23617 net.cpp:408] conv0 <- data
I0428 19:35:57.449385 23617 net.cpp:382] conv0 -> conv0
I0428 19:35:57.451061 23617 net.cpp:124] Setting up conv0
I0428 19:35:57.451089 23617 net.cpp:131] Top shape: 100 100 24 24 (5760000)
I0428 19:35:57.451094 23617 net.cpp:139] Memory required for data: 23354800
I0428 19:35:57.451117 23617 layer_factory.hpp:77] Creating layer pool0
I0428 19:35:57.451128 23617 net.cpp:86] Creating Layer pool0
I0428 19:35:57.451133 23617 net.cpp:408] pool0 <- conv0
I0428 19:35:57.451141 23617 net.cpp:382] pool0 -> pool0
I0428 19:35:57.451184 23617 net.cpp:124] Setting up pool0
I0428 19:35:57.451192 23617 net.cpp:131] Top shape: 100 100 12 12 (1440000)
I0428 19:35:57.451197 23617 net.cpp:139] Memory required for data: 29114800
I0428 19:35:57.451201 23617 layer_factory.hpp:77] Creating layer ip1
I0428 19:35:57.451213 23617 net.cpp:86] Creating Layer ip1
I0428 19:35:57.451220 23617 net.cpp:408] ip1 <- pool0
I0428 19:35:57.451232 23617 net.cpp:382] ip1 -> ip1
I0428 19:35:57.453096 23617 net.cpp:124] Setting up ip1
I0428 19:35:57.453110 23617 net.cpp:131] Top shape: 100 10 (1000)
I0428 19:35:57.453115 23617 net.cpp:139] Memory required for data: 29118800
I0428 19:35:57.453145 23617 layer_factory.hpp:77] Creating layer relu1
I0428 19:35:57.453156 23617 net.cpp:86] Creating Layer relu1
I0428 19:35:57.453162 23617 net.cpp:408] relu1 <- ip1
I0428 19:35:57.453169 23617 net.cpp:369] relu1 -> ip1 (in-place)
I0428 19:35:57.453438 23617 net.cpp:124] Setting up relu1
I0428 19:35:57.453447 23617 net.cpp:131] Top shape: 100 10 (1000)
I0428 19:35:57.453452 23617 net.cpp:139] Memory required for data: 29122800
I0428 19:35:57.453457 23617 layer_factory.hpp:77] Creating layer ip1_relu1_0_split
I0428 19:35:57.453465 23617 net.cpp:86] Creating Layer ip1_relu1_0_split
I0428 19:35:57.453470 23617 net.cpp:408] ip1_relu1_0_split <- ip1
I0428 19:35:57.453480 23617 net.cpp:382] ip1_relu1_0_split -> ip1_relu1_0_split_0
I0428 19:35:57.453488 23617 net.cpp:382] ip1_relu1_0_split -> ip1_relu1_0_split_1
I0428 19:35:57.453536 23617 net.cpp:124] Setting up ip1_relu1_0_split
I0428 19:35:57.453544 23617 net.cpp:131] Top shape: 100 10 (1000)
I0428 19:35:57.453550 23617 net.cpp:131] Top shape: 100 10 (1000)
I0428 19:35:57.453555 23617 net.cpp:139] Memory required for data: 29130800
I0428 19:35:57.453560 23617 layer_factory.hpp:77] Creating layer accuracy
I0428 19:35:57.453569 23617 net.cpp:86] Creating Layer accuracy
I0428 19:35:57.453574 23617 net.cpp:408] accuracy <- ip1_relu1_0_split_0
I0428 19:35:57.453582 23617 net.cpp:408] accuracy <- label_mnist_1_split_0
I0428 19:35:57.453588 23617 net.cpp:382] accuracy -> accuracy
…
