…
I0428 19:28:30.167471 21642 net.cpp:296] The NetState phase (0) differed from the phase (1) specified by a rule in layer mnist
I0428 19:28:30.167487 21642 net.cpp:296] The NetState phase (0) differed from the phase (1) specified by a rule in layer accuracy
I0428 19:28:30.167559 21642 net.cpp:53] Initializing net from parameters: 
name: "LeNet"
state {
  phase: TRAIN
  level: 0
  stage: ""
}
layer {
  name: "mnist"
  type: "Data"
  top: "data"
  top: "label"
  include {
    phase: TRAIN
  }
  transform_param {
    scale: 0.00390625
  }
  data_param {
    source: "examples/mnist/mnist_train_lmdb"
    batch_size: 64
    backend: LMDB
  }
}
layer {
  name: "ip1"
  type: "InnerProduct"
  bottom: "data"
  top: "ip1"
  param {
    lr_mult: 1
  }
  param {
    lr_mult: 2
  }
  inner_product_param {
    num_output: 25
    weight_filler {
      type: "xavier"
    }
    bias_filler {
      type: "constant"
    }
  }
}
layer {
  name: "relu1"
  type: "ReLU"
  bottom: "ip1"
  top: "ip1"
}
layer {
  name: "ip2"
  type: "InnerProduct"
  bottom: "ip1"
  top: "ip2"
  param {
    lr_mult: 1
  }
  param {
    lr_mult: 2
  }
  inner_product_param {
    num_output: 50
    weight_filler {
      type: "xavier"
    }
    bias_filler {
      type: "constant"
    }
  }
}
layer {
  name: "relu2"
  type: "ReLU"
  bottom: "ip2"
  top: "ip2"
}
layer {
  name: "ip3"
  type: "InnerProduct"
  bottom: "ip2"
  top: "ip3"
  param {
    lr_mult: 1
  }
  param {
    lr_mult: 2
  }
  inner_product_param {
    num_output: 10
    weight_filler {
      type: "xavier"
    }
    bias_filler {
      type: "constant"
    }
  }
}
layer {
  name: "relu3"
  type: "ReLU"
  bottom: "ip3"
  top: "ip3"
}
layer {
  name: "loss"
  type: "SoftmaxWithLoss"
  bottom: "ip3"
  bottom: "label"
  top: "loss"
}
I0428 19:28:30.167628 21642 layer_factory.hpp:77] Creating layer mnist
I0428 19:28:30.167726 21642 db_lmdb.cpp:35] Opened lmdb examples/mnist/mnist_train_lmdb
I0428 19:28:30.167749 21642 net.cpp:86] Creating Layer mnist
I0428 19:28:30.167757 21642 net.cpp:382] mnist -> data
I0428 19:28:30.167780 21642 net.cpp:382] mnist -> label
I0428 19:28:30.168889 21642 data_layer.cpp:45] output data size: 64,1,28,28
I0428 19:28:30.171352 21642 net.cpp:124] Setting up mnist
I0428 19:28:30.171372 21642 net.cpp:131] Top shape: 64 1 28 28 (50176)
I0428 19:28:30.171378 21642 net.cpp:131] Top shape: 64 (64)
I0428 19:28:30.171381 21642 net.cpp:139] Memory required for data: 200960
I0428 19:28:30.171388 21642 layer_factory.hpp:77] Creating layer ip1
I0428 19:28:30.171401 21642 net.cpp:86] Creating Layer ip1
I0428 19:28:30.171406 21642 net.cpp:408] ip1 <- data
I0428 19:28:30.171417 21642 net.cpp:382] ip1 -> ip1
I0428 19:28:30.171723 21642 net.cpp:124] Setting up ip1
I0428 19:28:30.171736 21642 net.cpp:131] Top shape: 64 25 (1600)
I0428 19:28:30.171739 21642 net.cpp:139] Memory required for data: 207360
I0428 19:28:30.171752 21642 layer_factory.hpp:77] Creating layer relu1
I0428 19:28:30.171761 21642 net.cpp:86] Creating Layer relu1
I0428 19:28:30.171766 21642 net.cpp:408] relu1 <- ip1
I0428 19:28:30.171771 21642 net.cpp:369] relu1 -> ip1 (in-place)
I0428 19:28:30.459154 21642 net.cpp:124] Setting up relu1
I0428 19:28:30.459182 21642 net.cpp:131] Top shape: 64 25 (1600)
I0428 19:28:30.459187 21642 net.cpp:139] Memory required for data: 213760
I0428 19:28:30.459193 21642 layer_factory.hpp:77] Creating layer ip2
I0428 19:28:30.459206 21642 net.cpp:86] Creating Layer ip2
I0428 19:28:30.459228 21642 net.cpp:408] ip2 <- ip1
I0428 19:28:30.459236 21642 net.cpp:382] ip2 -> ip2
I0428 19:28:30.460314 21642 net.cpp:124] Setting up ip2
I0428 19:28:30.460327 21642 net.cpp:131] Top shape: 64 50 (3200)
I0428 19:28:30.460331 21642 net.cpp:139] Memory required for data: 226560
I0428 19:28:30.460342 21642 layer_factory.hpp:77] Creating layer relu2
I0428 19:28:30.460351 21642 net.cpp:86] Creating Layer relu2
I0428 19:28:30.460355 21642 net.cpp:408] relu2 <- ip2
I0428 19:28:30.460360 21642 net.cpp:369] relu2 -> ip2 (in-place)
I0428 19:28:30.461174 21642 net.cpp:124] Setting up relu2
I0428 19:28:30.461189 21642 net.cpp:131] Top shape: 64 50 (3200)
I0428 19:28:30.461194 21642 net.cpp:139] Memory required for data: 239360
I0428 19:28:30.461196 21642 layer_factory.hpp:77] Creating layer ip3
I0428 19:28:30.461205 21642 net.cpp:86] Creating Layer ip3
I0428 19:28:30.461210 21642 net.cpp:408] ip3 <- ip2
I0428 19:28:30.461216 21642 net.cpp:382] ip3 -> ip3
I0428 19:28:30.462226 21642 net.cpp:124] Setting up ip3
I0428 19:28:30.462239 21642 net.cpp:131] Top shape: 64 10 (640)
I0428 19:28:30.462244 21642 net.cpp:139] Memory required for data: 241920
I0428 19:28:30.462252 21642 layer_factory.hpp:77] Creating layer relu3
I0428 19:28:30.462260 21642 net.cpp:86] Creating Layer relu3
I0428 19:28:30.462265 21642 net.cpp:408] relu3 <- ip3
I0428 19:28:30.462270 21642 net.cpp:369] relu3 -> ip3 (in-place)
I0428 19:28:30.462453 21642 net.cpp:124] Setting up relu3
I0428 19:28:30.462463 21642 net.cpp:131] Top shape: 64 10 (640)
I0428 19:28:30.462467 21642 net.cpp:139] Memory required for data: 244480
I0428 19:28:30.462471 21642 layer_factory.hpp:77] Creating layer loss
I0428 19:28:30.462479 21642 net.cpp:86] Creating Layer loss
I0428 19:28:30.462482 21642 net.cpp:408] loss <- ip3
I0428 19:28:30.462486 21642 net.cpp:408] loss <- label
I0428 19:28:30.462492 21642 net.cpp:382] loss -> loss
I0428 19:28:30.462510 21642 layer_factory.hpp:77] Creating layer loss
…
I0428 19:28:30.463098 21642 solver.cpp:173] Creating test net (#0) specified by net file: ECE595/mnist/train_test/var_everything2/lenet_train_test27.prototxt
I0428 19:28:30.463121 21642 net.cpp:296] The NetState phase (1) differed from the phase (0) specified by a rule in layer mnist
I0428 19:28:30.463198 21642 net.cpp:53] Initializing net from parameters: 
name: "LeNet"
state {
  phase: TEST
}
layer {
  name: "mnist"
  type: "Data"
  top: "data"
  top: "label"
  include {
    phase: TEST
  }
  transform_param {
    scale: 0.00390625
  }
  data_param {
    source: "examples/mnist/mnist_test_lmdb"
    batch_size: 100
    backend: LMDB
  }
}
layer {
  name: "ip1"
  type: "InnerProduct"
  bottom: "data"
  top: "ip1"
  param {
    lr_mult: 1
  }
  param {
    lr_mult: 2
  }
  inner_product_param {
    num_output: 25
    weight_filler {
      type: "xavier"
    }
    bias_filler {
      type: "constant"
    }
  }
}
layer {
  name: "relu1"
  type: "ReLU"
  bottom: "ip1"
  top: "ip1"
}
layer {
  name: "ip2"
  type: "InnerProduct"
  bottom: "ip1"
  top: "ip2"
  param {
    lr_mult: 1
  }
  param {
    lr_mult: 2
  }
  inner_product_param {
    num_output: 50
    weight_filler {
      type: "xavier"
    }
    bias_filler {
      type: "constant"
    }
  }
}
layer {
  name: "relu2"
  type: "ReLU"
  bottom: "ip2"
  top: "ip2"
}
layer {
  name: "ip3"
  type: "InnerProduct"
  bottom: "ip2"
  top: "ip3"
  param {
    lr_mult: 1
  }
  param {
    lr_mult: 2
  }
  inner_product_param {
    num_output: 10
    weight_filler {
      type: "xavier"
    }
    bias_filler {
      type: "constant"
    }
  }
}
layer {
  name: "relu3"
  type: "ReLU"
  bottom: "ip3"
  top: "ip3"
}
layer {
  name: "accuracy"
  type: "Accuracy"
  bottom: "ip3"
  bottom: "label"
  top: "accuracy"
  include {
    phase: TEST
  }
}
layer {
  name: "loss"
  type: "SoftmaxWithLoss"
  bottom: "ip3"
  bottom: "label"
  top: "loss"
}
I0428 19:28:30.463277 21642 layer_factory.hpp:77] Creating layer mnist
I0428 19:28:30.463325 21642 db_lmdb.cpp:35] Opened lmdb examples/mnist/mnist_test_lmdb
I0428 19:28:30.463338 21642 net.cpp:86] Creating Layer mnist
I0428 19:28:30.463345 21642 net.cpp:382] mnist -> data
I0428 19:28:30.463352 21642 net.cpp:382] mnist -> label
I0428 19:28:30.463449 21642 data_layer.cpp:45] output data size: 100,1,28,28
I0428 19:28:30.465497 21642 net.cpp:124] Setting up mnist
I0428 19:28:30.465523 21642 net.cpp:131] Top shape: 100 1 28 28 (78400)
I0428 19:28:30.465529 21642 net.cpp:131] Top shape: 100 (100)
I0428 19:28:30.465533 21642 net.cpp:139] Memory required for data: 314000
I0428 19:28:30.465536 21642 layer_factory.hpp:77] Creating layer label_mnist_1_split
I0428 19:28:30.465546 21642 net.cpp:86] Creating Layer label_mnist_1_split
I0428 19:28:30.465550 21642 net.cpp:408] label_mnist_1_split <- label
I0428 19:28:30.465557 21642 net.cpp:382] label_mnist_1_split -> label_mnist_1_split_0
I0428 19:28:30.465564 21642 net.cpp:382] label_mnist_1_split -> label_mnist_1_split_1
I0428 19:28:30.465659 21642 net.cpp:124] Setting up label_mnist_1_split
I0428 19:28:30.465668 21642 net.cpp:131] Top shape: 100 (100)
I0428 19:28:30.465673 21642 net.cpp:131] Top shape: 100 (100)
I0428 19:28:30.465677 21642 net.cpp:139] Memory required for data: 314800
I0428 19:28:30.465680 21642 layer_factory.hpp:77] Creating layer ip1
I0428 19:28:30.465687 21642 net.cpp:86] Creating Layer ip1
I0428 19:28:30.465690 21642 net.cpp:408] ip1 <- data
I0428 19:28:30.465697 21642 net.cpp:382] ip1 -> ip1
I0428 19:28:30.465965 21642 net.cpp:124] Setting up ip1
I0428 19:28:30.465975 21642 net.cpp:131] Top shape: 100 25 (2500)
I0428 19:28:30.465977 21642 net.cpp:139] Memory required for data: 324800
I0428 19:28:30.465988 21642 layer_factory.hpp:77] Creating layer relu1
I0428 19:28:30.465994 21642 net.cpp:86] Creating Layer relu1
I0428 19:28:30.465997 21642 net.cpp:408] relu1 <- ip1
I0428 19:28:30.466001 21642 net.cpp:369] relu1 -> ip1 (in-place)
I0428 19:28:30.467048 21642 net.cpp:124] Setting up relu1
I0428 19:28:30.467061 21642 net.cpp:131] Top shape: 100 25 (2500)
I0428 19:28:30.467064 21642 net.cpp:139] Memory required for data: 334800
I0428 19:28:30.467068 21642 layer_factory.hpp:77] Creating layer ip2
I0428 19:28:30.467075 21642 net.cpp:86] Creating Layer ip2
I0428 19:28:30.467079 21642 net.cpp:408] ip2 <- ip1
I0428 19:28:30.467085 21642 net.cpp:382] ip2 -> ip2
I0428 19:28:30.467205 21642 net.cpp:124] Setting up ip2
I0428 19:28:30.467212 21642 net.cpp:131] Top shape: 100 50 (5000)
I0428 19:28:30.467216 21642 net.cpp:139] Memory required for data: 354800
I0428 19:28:30.467223 21642 layer_factory.hpp:77] Creating layer relu2
I0428 19:28:30.467228 21642 net.cpp:86] Creating Layer relu2
I0428 19:28:30.467231 21642 net.cpp:408] relu2 <- ip2
I0428 19:28:30.467237 21642 net.cpp:369] relu2 -> ip2 (in-place)
I0428 19:28:30.467402 21642 net.cpp:124] Setting up relu2
I0428 19:28:30.467411 21642 net.cpp:131] Top shape: 100 50 (5000)
I0428 19:28:30.467414 21642 net.cpp:139] Memory required for data: 374800
I0428 19:28:30.467417 21642 layer_factory.hpp:77] Creating layer ip3
I0428 19:28:30.467424 21642 net.cpp:86] Creating Layer ip3
I0428 19:28:30.467427 21642 net.cpp:408] ip3 <- ip2
I0428 19:28:30.467432 21642 net.cpp:382] ip3 -> ip3
I0428 19:28:30.467546 21642 net.cpp:124] Setting up ip3
I0428 19:28:30.467555 21642 net.cpp:131] Top shape: 100 10 (1000)
I0428 19:28:30.467558 21642 net.cpp:139] Memory required for data: 378800
I0428 19:28:30.467566 21642 layer_factory.hpp:77] Creating layer relu3
I0428 19:28:30.467571 21642 net.cpp:86] Creating Layer relu3
I0428 19:28:30.467574 21642 net.cpp:408] relu3 <- ip3
I0428 19:28:30.467581 21642 net.cpp:369] relu3 -> ip3 (in-place)
I0428 19:28:30.467746 21642 net.cpp:124] Setting up relu3
I0428 19:28:30.467754 21642 net.cpp:131] Top shape: 100 10 (1000)
I0428 19:28:30.467758 21642 net.cpp:139] Memory required for data: 382800
I0428 19:28:30.467761 21642 layer_factory.hpp:77] Creating layer ip3_relu3_0_split
I0428 19:28:30.467767 21642 net.cpp:86] Creating Layer ip3_relu3_0_split
I0428 19:28:30.467770 21642 net.cpp:408] ip3_relu3_0_split <- ip3
I0428 19:28:30.467777 21642 net.cpp:382] ip3_relu3_0_split -> ip3_relu3_0_split_0
I0428 19:28:30.467782 21642 net.cpp:382] ip3_relu3_0_split -> ip3_relu3_0_split_1
I0428 19:28:30.467818 21642 net.cpp:124] Setting up ip3_relu3_0_split
I0428 19:28:30.467824 21642 net.cpp:131] Top shape: 100 10 (1000)
I0428 19:28:30.467830 21642 net.cpp:131] Top shape: 100 10 (1000)
I0428 19:28:30.467833 21642 net.cpp:139] Memory required for data: 390800
I0428 19:28:30.467836 21642 layer_factory.hpp:77] Creating layer accuracy
I0428 19:28:30.467845 21642 net.cpp:86] Creating Layer accuracy
I0428 19:28:30.467849 21642 net.cpp:408] accuracy <- ip3_relu3_0_split_0
I0428 19:28:30.467852 21642 net.cpp:408] accuracy <- label_mnist_1_split_0
I0428 19:28:30.467859 21642 net.cpp:382] accuracy -> accuracy
…
