…
I0428 19:39:44.457242 24371 net.cpp:296] The NetState phase (0) differed from the phase (1) specified by a rule in layer mnist
I0428 19:39:44.457257 24371 net.cpp:296] The NetState phase (0) differed from the phase (1) specified by a rule in layer accuracy
I0428 19:39:44.457327 24371 net.cpp:53] Initializing net from parameters: 
name: "LeNet"
state {
  phase: TRAIN
  level: 0
  stage: ""
}
layer {
  name: "mnist"
  type: "Data"
  top: "data"
  top: "label"
  include {
    phase: TRAIN
  }
  transform_param {
    scale: 0.00390625
  }
  data_param {
    source: "examples/mnist/mnist_train_lmdb"
    batch_size: 64
    backend: LMDB
  }
}
layer {
  name: "conv0"
  type: "Convolution"
  bottom: "data"
  top: "conv0"
  param {
    lr_mult: 1
  }
  param {
    lr_mult: 2
  }
  convolution_param {
    num_output: 2
    kernel_size: 5
    stride: 1
    weight_filler {
      type: "xavier"
    }
    bias_filler {
      type: "constant"
    }
  }
}
layer {
  name: "pool0"
  type: "Pooling"
  bottom: "conv0"
  top: "pool0"
  pooling_param {
    pool: MAX
    kernel_size: 2
    stride: 2
  }
}
layer {
  name: "conv1"
  type: "Convolution"
  bottom: "pool0"
  top: "conv1"
  param {
    lr_mult: 1
  }
  param {
    lr_mult: 2
  }
  convolution_param {
    num_output: 5
    kernel_size: 5
    stride: 1
    weight_filler {
      type: "xavier"
    }
    bias_filler {
      type: "constant"
    }
  }
}
layer {
  name: "pool1"
  type: "Pooling"
  bottom: "conv1"
  top: "pool1"
  pooling_param {
    pool: MAX
    kernel_size: 2
    stride: 2
  }
}
layer {
  name: "ip1"
  type: "InnerProduct"
  bottom: "pool1"
  top: "ip1"
  param {
    lr_mult: 1
  }
  param {
    lr_mult: 2
  }
  inner_product_param {
    num_output: 10
    weight_filler {
      type: "xavier"
    }
    bias_filler {
      type: "constant"
    }
  }
}
layer {
  name: "relu1"
  type: "ReLU"
  bottom: "ip1"
  top: "ip1"
}
layer {
  name: "loss"
  type: "SoftmaxWithLoss"
  bottom: "ip1"
  bottom: "label"
  top: "loss"
}
I0428 19:39:44.457402 24371 layer_factory.hpp:77] Creating layer mnist
I0428 19:39:44.457506 24371 db_lmdb.cpp:35] Opened lmdb examples/mnist/mnist_train_lmdb
I0428 19:39:44.457533 24371 net.cpp:86] Creating Layer mnist
I0428 19:39:44.457542 24371 net.cpp:382] mnist -> data
I0428 19:39:44.457566 24371 net.cpp:382] mnist -> label
I0428 19:39:44.458539 24371 data_layer.cpp:45] output data size: 64,1,28,28
I0428 19:39:44.460755 24371 net.cpp:124] Setting up mnist
I0428 19:39:44.460803 24371 net.cpp:131] Top shape: 64 1 28 28 (50176)
I0428 19:39:44.460831 24371 net.cpp:131] Top shape: 64 (64)
I0428 19:39:44.460837 24371 net.cpp:139] Memory required for data: 200960
I0428 19:39:44.460846 24371 layer_factory.hpp:77] Creating layer conv0
I0428 19:39:44.460882 24371 net.cpp:86] Creating Layer conv0
I0428 19:39:44.460891 24371 net.cpp:408] conv0 <- data
I0428 19:39:44.460924 24371 net.cpp:382] conv0 -> conv0
I0428 19:39:44.693408 24371 net.cpp:124] Setting up conv0
I0428 19:39:44.693437 24371 net.cpp:131] Top shape: 64 2 24 24 (73728)
I0428 19:39:44.693442 24371 net.cpp:139] Memory required for data: 495872
I0428 19:39:44.693477 24371 layer_factory.hpp:77] Creating layer pool0
I0428 19:39:44.693495 24371 net.cpp:86] Creating Layer pool0
I0428 19:39:44.693507 24371 net.cpp:408] pool0 <- conv0
I0428 19:39:44.693516 24371 net.cpp:382] pool0 -> pool0
I0428 19:39:44.693567 24371 net.cpp:124] Setting up pool0
I0428 19:39:44.693575 24371 net.cpp:131] Top shape: 64 2 12 12 (18432)
I0428 19:39:44.693598 24371 net.cpp:139] Memory required for data: 569600
I0428 19:39:44.693603 24371 layer_factory.hpp:77] Creating layer conv1
I0428 19:39:44.693619 24371 net.cpp:86] Creating Layer conv1
I0428 19:39:44.693625 24371 net.cpp:408] conv1 <- pool0
I0428 19:39:44.693634 24371 net.cpp:382] conv1 -> conv1
I0428 19:39:44.695524 24371 net.cpp:124] Setting up conv1
I0428 19:39:44.695539 24371 net.cpp:131] Top shape: 64 5 8 8 (20480)
I0428 19:39:44.695545 24371 net.cpp:139] Memory required for data: 651520
I0428 19:39:44.695574 24371 layer_factory.hpp:77] Creating layer pool1
I0428 19:39:44.695585 24371 net.cpp:86] Creating Layer pool1
I0428 19:39:44.695591 24371 net.cpp:408] pool1 <- conv1
I0428 19:39:44.695600 24371 net.cpp:382] pool1 -> pool1
I0428 19:39:44.695643 24371 net.cpp:124] Setting up pool1
I0428 19:39:44.695652 24371 net.cpp:131] Top shape: 64 5 4 4 (5120)
I0428 19:39:44.695658 24371 net.cpp:139] Memory required for data: 672000
I0428 19:39:44.695663 24371 layer_factory.hpp:77] Creating layer ip1
I0428 19:39:44.695674 24371 net.cpp:86] Creating Layer ip1
I0428 19:39:44.695679 24371 net.cpp:408] ip1 <- pool1
I0428 19:39:44.695688 24371 net.cpp:382] ip1 -> ip1
I0428 19:39:44.695794 24371 net.cpp:124] Setting up ip1
I0428 19:39:44.695803 24371 net.cpp:131] Top shape: 64 10 (640)
I0428 19:39:44.695808 24371 net.cpp:139] Memory required for data: 674560
I0428 19:39:44.695821 24371 layer_factory.hpp:77] Creating layer relu1
I0428 19:39:44.695832 24371 net.cpp:86] Creating Layer relu1
I0428 19:39:44.695838 24371 net.cpp:408] relu1 <- ip1
I0428 19:39:44.695845 24371 net.cpp:369] relu1 -> ip1 (in-place)
I0428 19:39:44.696012 24371 net.cpp:124] Setting up relu1
I0428 19:39:44.696022 24371 net.cpp:131] Top shape: 64 10 (640)
I0428 19:39:44.696027 24371 net.cpp:139] Memory required for data: 677120
I0428 19:39:44.696033 24371 layer_factory.hpp:77] Creating layer loss
I0428 19:39:44.696040 24371 net.cpp:86] Creating Layer loss
I0428 19:39:44.696046 24371 net.cpp:408] loss <- ip1
I0428 19:39:44.696053 24371 net.cpp:408] loss <- label
I0428 19:39:44.696061 24371 net.cpp:382] loss -> loss
I0428 19:39:44.696084 24371 layer_factory.hpp:77] Creating layer loss
…
I0428 19:39:44.697388 24371 solver.cpp:173] Creating test net (#0) specified by net file: ECE595/mnist/train_test/var_everything2/lenet_train_test313.prototxt
I0428 19:39:44.697418 24371 net.cpp:296] The NetState phase (1) differed from the phase (0) specified by a rule in layer mnist
I0428 19:39:44.697509 24371 net.cpp:53] Initializing net from parameters: 
name: "LeNet"
state {
  phase: TEST
}
layer {
  name: "mnist"
  type: "Data"
  top: "data"
  top: "label"
  include {
    phase: TEST
  }
  transform_param {
    scale: 0.00390625
  }
  data_param {
    source: "examples/mnist/mnist_test_lmdb"
    batch_size: 100
    backend: LMDB
  }
}
layer {
  name: "conv0"
  type: "Convolution"
  bottom: "data"
  top: "conv0"
  param {
    lr_mult: 1
  }
  param {
    lr_mult: 2
  }
  convolution_param {
    num_output: 2
    kernel_size: 5
    stride: 1
    weight_filler {
      type: "xavier"
    }
    bias_filler {
      type: "constant"
    }
  }
}
layer {
  name: "pool0"
  type: "Pooling"
  bottom: "conv0"
  top: "pool0"
  pooling_param {
    pool: MAX
    kernel_size: 2
    stride: 2
  }
}
layer {
  name: "conv1"
  type: "Convolution"
  bottom: "pool0"
  top: "conv1"
  param {
    lr_mult: 1
  }
  param {
    lr_mult: 2
  }
  convolution_param {
    num_output: 5
    kernel_size: 5
    stride: 1
    weight_filler {
      type: "xavier"
    }
    bias_filler {
      type: "constant"
    }
  }
}
layer {
  name: "pool1"
  type: "Pooling"
  bottom: "conv1"
  top: "pool1"
  pooling_param {
    pool: MAX
    kernel_size: 2
    stride: 2
  }
}
layer {
  name: "ip1"
  type: "InnerProduct"
  bottom: "pool1"
  top: "ip1"
  param {
    lr_mult: 1
  }
  param {
    lr_mult: 2
  }
  inner_product_param {
    num_output: 10
    weight_filler {
      type: "xavier"
    }
    bias_filler {
      type: "constant"
    }
  }
}
layer {
  name: "relu1"
  type: "ReLU"
  bottom: "ip1"
  top: "ip1"
}
layer {
  name: "accuracy"
  type: "Accuracy"
  bottom: "ip1"
  bottom: "label"
  top: "accuracy"
  include {
    phase: TEST
  }
}
layer {
  name: "loss"
  type: "SoftmaxWithLoss"
  bottom: "ip1"
  bottom: "label"
  top: "loss"
}
I0428 19:39:44.697636 24371 layer_factory.hpp:77] Creating layer mnist
I0428 19:39:44.697700 24371 db_lmdb.cpp:35] Opened lmdb examples/mnist/mnist_test_lmdb
I0428 19:39:44.697717 24371 net.cpp:86] Creating Layer mnist
I0428 19:39:44.697726 24371 net.cpp:382] mnist -> data
I0428 19:39:44.697737 24371 net.cpp:382] mnist -> label
I0428 19:39:44.697854 24371 data_layer.cpp:45] output data size: 100,1,28,28
I0428 19:39:44.699928 24371 net.cpp:124] Setting up mnist
I0428 19:39:44.699957 24371 net.cpp:131] Top shape: 100 1 28 28 (78400)
I0428 19:39:44.699965 24371 net.cpp:131] Top shape: 100 (100)
I0428 19:39:44.699970 24371 net.cpp:139] Memory required for data: 314000
I0428 19:39:44.699976 24371 layer_factory.hpp:77] Creating layer label_mnist_1_split
I0428 19:39:44.700000 24371 net.cpp:86] Creating Layer label_mnist_1_split
I0428 19:39:44.700006 24371 net.cpp:408] label_mnist_1_split <- label
I0428 19:39:44.700013 24371 net.cpp:382] label_mnist_1_split -> label_mnist_1_split_0
I0428 19:39:44.700024 24371 net.cpp:382] label_mnist_1_split -> label_mnist_1_split_1
I0428 19:39:44.700135 24371 net.cpp:124] Setting up label_mnist_1_split
I0428 19:39:44.700145 24371 net.cpp:131] Top shape: 100 (100)
I0428 19:39:44.700152 24371 net.cpp:131] Top shape: 100 (100)
I0428 19:39:44.700157 24371 net.cpp:139] Memory required for data: 314800
I0428 19:39:44.700162 24371 layer_factory.hpp:77] Creating layer conv0
I0428 19:39:44.700176 24371 net.cpp:86] Creating Layer conv0
I0428 19:39:44.700182 24371 net.cpp:408] conv0 <- data
I0428 19:39:44.700191 24371 net.cpp:382] conv0 -> conv0
I0428 19:39:44.700981 24371 net.cpp:124] Setting up conv0
I0428 19:39:44.700995 24371 net.cpp:131] Top shape: 100 2 24 24 (115200)
I0428 19:39:44.701000 24371 net.cpp:139] Memory required for data: 775600
I0428 19:39:44.701030 24371 layer_factory.hpp:77] Creating layer pool0
I0428 19:39:44.701040 24371 net.cpp:86] Creating Layer pool0
I0428 19:39:44.701045 24371 net.cpp:408] pool0 <- conv0
I0428 19:39:44.701052 24371 net.cpp:382] pool0 -> pool0
I0428 19:39:44.701094 24371 net.cpp:124] Setting up pool0
I0428 19:39:44.701103 24371 net.cpp:131] Top shape: 100 2 12 12 (28800)
I0428 19:39:44.701108 24371 net.cpp:139] Memory required for data: 890800
I0428 19:39:44.701113 24371 layer_factory.hpp:77] Creating layer conv1
I0428 19:39:44.701125 24371 net.cpp:86] Creating Layer conv1
I0428 19:39:44.701133 24371 net.cpp:408] conv1 <- pool0
I0428 19:39:44.701141 24371 net.cpp:382] conv1 -> conv1
I0428 19:39:44.702739 24371 net.cpp:124] Setting up conv1
I0428 19:39:44.702770 24371 net.cpp:131] Top shape: 100 5 8 8 (32000)
I0428 19:39:44.702776 24371 net.cpp:139] Memory required for data: 1018800
I0428 19:39:44.702790 24371 layer_factory.hpp:77] Creating layer pool1
I0428 19:39:44.702800 24371 net.cpp:86] Creating Layer pool1
I0428 19:39:44.702818 24371 net.cpp:408] pool1 <- conv1
I0428 19:39:44.702843 24371 net.cpp:382] pool1 -> pool1
I0428 19:39:44.702888 24371 net.cpp:124] Setting up pool1
I0428 19:39:44.702896 24371 net.cpp:131] Top shape: 100 5 4 4 (8000)
I0428 19:39:44.702916 24371 net.cpp:139] Memory required for data: 1050800
I0428 19:39:44.702922 24371 layer_factory.hpp:77] Creating layer ip1
I0428 19:39:44.702932 24371 net.cpp:86] Creating Layer ip1
I0428 19:39:44.702939 24371 net.cpp:408] ip1 <- pool1
I0428 19:39:44.702947 24371 net.cpp:382] ip1 -> ip1
I0428 19:39:44.703058 24371 net.cpp:124] Setting up ip1
I0428 19:39:44.703068 24371 net.cpp:131] Top shape: 100 10 (1000)
I0428 19:39:44.703089 24371 net.cpp:139] Memory required for data: 1054800
I0428 19:39:44.703101 24371 layer_factory.hpp:77] Creating layer relu1
I0428 19:39:44.703110 24371 net.cpp:86] Creating Layer relu1
I0428 19:39:44.703116 24371 net.cpp:408] relu1 <- ip1
I0428 19:39:44.703125 24371 net.cpp:369] relu1 -> ip1 (in-place)
I0428 19:39:44.703995 24371 net.cpp:124] Setting up relu1
I0428 19:39:44.704016 24371 net.cpp:131] Top shape: 100 10 (1000)
I0428 19:39:44.704022 24371 net.cpp:139] Memory required for data: 1058800
I0428 19:39:44.704028 24371 layer_factory.hpp:77] Creating layer ip1_relu1_0_split
I0428 19:39:44.704040 24371 net.cpp:86] Creating Layer ip1_relu1_0_split
I0428 19:39:44.704046 24371 net.cpp:408] ip1_relu1_0_split <- ip1
I0428 19:39:44.704054 24371 net.cpp:382] ip1_relu1_0_split -> ip1_relu1_0_split_0
I0428 19:39:44.704064 24371 net.cpp:382] ip1_relu1_0_split -> ip1_relu1_0_split_1
I0428 19:39:44.704113 24371 net.cpp:124] Setting up ip1_relu1_0_split
I0428 19:39:44.704123 24371 net.cpp:131] Top shape: 100 10 (1000)
I0428 19:39:44.704129 24371 net.cpp:131] Top shape: 100 10 (1000)
I0428 19:39:44.704135 24371 net.cpp:139] Memory required for data: 1066800
I0428 19:39:44.704140 24371 layer_factory.hpp:77] Creating layer accuracy
I0428 19:39:44.704149 24371 net.cpp:86] Creating Layer accuracy
I0428 19:39:44.704155 24371 net.cpp:408] accuracy <- ip1_relu1_0_split_0
I0428 19:39:44.704164 24371 net.cpp:408] accuracy <- label_mnist_1_split_0
I0428 19:39:44.704172 24371 net.cpp:382] accuracy -> accuracy
…
