…
I0428 19:56:59.430892 28566 net.cpp:296] The NetState phase (0) differed from the phase (1) specified by a rule in layer mnist
I0428 19:56:59.430910 28566 net.cpp:296] The NetState phase (0) differed from the phase (1) specified by a rule in layer accuracy
I0428 19:56:59.431012 28566 net.cpp:53] Initializing net from parameters: 
name: "LeNet"
state {
  phase: TRAIN
  level: 0
  stage: ""
}
layer {
  name: "mnist"
  type: "Data"
  top: "data"
  top: "label"
  include {
    phase: TRAIN
  }
  transform_param {
    scale: 0.00390625
  }
  data_param {
    source: "examples/mnist/mnist_train_lmdb"
    batch_size: 64
    backend: LMDB
  }
}
layer {
  name: "conv0"
  type: "Convolution"
  bottom: "data"
  top: "conv0"
  param {
    lr_mult: 1
  }
  param {
    lr_mult: 2
  }
  convolution_param {
    num_output: 10
    kernel_size: 5
    stride: 1
    weight_filler {
      type: "xavier"
    }
    bias_filler {
      type: "constant"
    }
  }
}
layer {
  name: "pool0"
  type: "Pooling"
  bottom: "conv0"
  top: "pool0"
  pooling_param {
    pool: MAX
    kernel_size: 2
    stride: 2
  }
}
layer {
  name: "conv1"
  type: "Convolution"
  bottom: "pool0"
  top: "conv1"
  param {
    lr_mult: 1
  }
  param {
    lr_mult: 2
  }
  convolution_param {
    num_output: 2
    kernel_size: 5
    stride: 1
    weight_filler {
      type: "xavier"
    }
    bias_filler {
      type: "constant"
    }
  }
}
layer {
  name: "pool1"
  type: "Pooling"
  bottom: "conv1"
  top: "pool1"
  pooling_param {
    pool: MAX
    kernel_size: 2
    stride: 2
  }
}
layer {
  name: "ip1"
  type: "InnerProduct"
  bottom: "pool1"
  top: "ip1"
  param {
    lr_mult: 1
  }
  param {
    lr_mult: 2
  }
  inner_product_param {
    num_output: 50
    weight_filler {
      type: "xavier"
    }
    bias_filler {
      type: "constant"
    }
  }
}
layer {
  name: "relu1"
  type: "ReLU"
  bottom: "ip1"
  top: "ip1"
}
layer {
  name: "ip2"
  type: "InnerProduct"
  bottom: "ip1"
  top: "ip2"
  param {
    lr_mult: 1
  }
  param {
    lr_mult: 2
  }
  inner_product_param {
    num_output: 25
    weight_filler {
      type: "xavier"
    }
    bias_filler {
      type: "constant"
    }
  }
}
layer {
  name: "relu2"
  type: "ReLU"
  bottom: "ip2"
  top: "ip2"
}
layer {
  name: "ip3"
  type: "InnerProduct"
  bottom: "ip2"
  top: "ip3"
  param {
    lr_mult: 1
  }
  param {
    lr_mult: 2
  }
  inner_product_param {
    num_output: 10
    weight_filler {
      type: "xavier"
    }
    bias_filler {
      type: "constant"
    }
  }
}
layer {
  name: "relu3"
  type: "ReLU"
  bottom: "ip3"
  top: "ip3"
}
layer {
  name: "loss"
  type: "SoftmaxWithLoss"
  bottom: "ip3"
  bottom: "label"
  top: "loss"
}
I0428 19:56:59.431092 28566 layer_factory.hpp:77] Creating layer mnist
I0428 19:56:59.431190 28566 db_lmdb.cpp:35] Opened lmdb examples/mnist/mnist_train_lmdb
I0428 19:56:59.431213 28566 net.cpp:86] Creating Layer mnist
I0428 19:56:59.431223 28566 net.cpp:382] mnist -> data
I0428 19:56:59.431252 28566 net.cpp:382] mnist -> label
I0428 19:56:59.432349 28566 data_layer.cpp:45] output data size: 64,1,28,28
I0428 19:56:59.434825 28566 net.cpp:124] Setting up mnist
I0428 19:56:59.434845 28566 net.cpp:131] Top shape: 64 1 28 28 (50176)
I0428 19:56:59.434852 28566 net.cpp:131] Top shape: 64 (64)
I0428 19:56:59.434856 28566 net.cpp:139] Memory required for data: 200960
I0428 19:56:59.434864 28566 layer_factory.hpp:77] Creating layer conv0
I0428 19:56:59.434895 28566 net.cpp:86] Creating Layer conv0
I0428 19:56:59.434917 28566 net.cpp:408] conv0 <- data
I0428 19:56:59.434931 28566 net.cpp:382] conv0 -> conv0
I0428 19:56:59.724596 28566 net.cpp:124] Setting up conv0
I0428 19:56:59.724625 28566 net.cpp:131] Top shape: 64 10 24 24 (368640)
I0428 19:56:59.724630 28566 net.cpp:139] Memory required for data: 1675520
I0428 19:56:59.724647 28566 layer_factory.hpp:77] Creating layer pool0
I0428 19:56:59.724661 28566 net.cpp:86] Creating Layer pool0
I0428 19:56:59.724666 28566 net.cpp:408] pool0 <- conv0
I0428 19:56:59.724673 28566 net.cpp:382] pool0 -> pool0
I0428 19:56:59.724731 28566 net.cpp:124] Setting up pool0
I0428 19:56:59.724738 28566 net.cpp:131] Top shape: 64 10 12 12 (92160)
I0428 19:56:59.724741 28566 net.cpp:139] Memory required for data: 2044160
I0428 19:56:59.724745 28566 layer_factory.hpp:77] Creating layer conv1
I0428 19:56:59.724757 28566 net.cpp:86] Creating Layer conv1
I0428 19:56:59.724761 28566 net.cpp:408] conv1 <- pool0
I0428 19:56:59.724766 28566 net.cpp:382] conv1 -> conv1
I0428 19:56:59.726742 28566 net.cpp:124] Setting up conv1
I0428 19:56:59.726760 28566 net.cpp:131] Top shape: 64 2 8 8 (8192)
I0428 19:56:59.726764 28566 net.cpp:139] Memory required for data: 2076928
I0428 19:56:59.726773 28566 layer_factory.hpp:77] Creating layer pool1
I0428 19:56:59.726781 28566 net.cpp:86] Creating Layer pool1
I0428 19:56:59.726785 28566 net.cpp:408] pool1 <- conv1
I0428 19:56:59.726793 28566 net.cpp:382] pool1 -> pool1
I0428 19:56:59.726832 28566 net.cpp:124] Setting up pool1
I0428 19:56:59.726838 28566 net.cpp:131] Top shape: 64 2 4 4 (2048)
I0428 19:56:59.726841 28566 net.cpp:139] Memory required for data: 2085120
I0428 19:56:59.726845 28566 layer_factory.hpp:77] Creating layer ip1
I0428 19:56:59.726851 28566 net.cpp:86] Creating Layer ip1
I0428 19:56:59.726855 28566 net.cpp:408] ip1 <- pool1
I0428 19:56:59.726860 28566 net.cpp:382] ip1 -> ip1
I0428 19:56:59.727849 28566 net.cpp:124] Setting up ip1
I0428 19:56:59.727861 28566 net.cpp:131] Top shape: 64 50 (3200)
I0428 19:56:59.727865 28566 net.cpp:139] Memory required for data: 2097920
I0428 19:56:59.727874 28566 layer_factory.hpp:77] Creating layer relu1
I0428 19:56:59.727881 28566 net.cpp:86] Creating Layer relu1
I0428 19:56:59.727885 28566 net.cpp:408] relu1 <- ip1
I0428 19:56:59.727890 28566 net.cpp:369] relu1 -> ip1 (in-place)
I0428 19:56:59.728070 28566 net.cpp:124] Setting up relu1
I0428 19:56:59.728081 28566 net.cpp:131] Top shape: 64 50 (3200)
I0428 19:56:59.728085 28566 net.cpp:139] Memory required for data: 2110720
I0428 19:56:59.728087 28566 layer_factory.hpp:77] Creating layer ip2
I0428 19:56:59.728094 28566 net.cpp:86] Creating Layer ip2
I0428 19:56:59.728098 28566 net.cpp:408] ip2 <- ip1
I0428 19:56:59.728103 28566 net.cpp:382] ip2 -> ip2
I0428 19:56:59.728212 28566 net.cpp:124] Setting up ip2
I0428 19:56:59.728219 28566 net.cpp:131] Top shape: 64 25 (1600)
I0428 19:56:59.728224 28566 net.cpp:139] Memory required for data: 2117120
I0428 19:56:59.728229 28566 layer_factory.hpp:77] Creating layer relu2
I0428 19:56:59.728235 28566 net.cpp:86] Creating Layer relu2
I0428 19:56:59.728238 28566 net.cpp:408] relu2 <- ip2
I0428 19:56:59.728242 28566 net.cpp:369] relu2 -> ip2 (in-place)
I0428 19:56:59.729022 28566 net.cpp:124] Setting up relu2
I0428 19:56:59.729051 28566 net.cpp:131] Top shape: 64 25 (1600)
I0428 19:56:59.729055 28566 net.cpp:139] Memory required for data: 2123520
I0428 19:56:59.729059 28566 layer_factory.hpp:77] Creating layer ip3
I0428 19:56:59.729068 28566 net.cpp:86] Creating Layer ip3
I0428 19:56:59.729071 28566 net.cpp:408] ip3 <- ip2
I0428 19:56:59.729077 28566 net.cpp:382] ip3 -> ip3
I0428 19:56:59.729200 28566 net.cpp:124] Setting up ip3
I0428 19:56:59.729208 28566 net.cpp:131] Top shape: 64 10 (640)
I0428 19:56:59.729212 28566 net.cpp:139] Memory required for data: 2126080
I0428 19:56:59.729220 28566 layer_factory.hpp:77] Creating layer relu3
I0428 19:56:59.729226 28566 net.cpp:86] Creating Layer relu3
I0428 19:56:59.729229 28566 net.cpp:408] relu3 <- ip3
I0428 19:56:59.729234 28566 net.cpp:369] relu3 -> ip3 (in-place)
I0428 19:56:59.729418 28566 net.cpp:124] Setting up relu3
I0428 19:56:59.729427 28566 net.cpp:131] Top shape: 64 10 (640)
I0428 19:56:59.729431 28566 net.cpp:139] Memory required for data: 2128640
I0428 19:56:59.729434 28566 layer_factory.hpp:77] Creating layer loss
I0428 19:56:59.729441 28566 net.cpp:86] Creating Layer loss
I0428 19:56:59.729444 28566 net.cpp:408] loss <- ip3
I0428 19:56:59.729449 28566 net.cpp:408] loss <- label
I0428 19:56:59.729454 28566 net.cpp:382] loss -> loss
I0428 19:56:59.729490 28566 layer_factory.hpp:77] Creating layer loss
…
I0428 19:56:59.730151 28566 solver.cpp:173] Creating test net (#0) specified by net file: ECE595/mnist/train_test/var_everything2/lenet_train_test775.prototxt
I0428 19:56:59.730181 28566 net.cpp:296] The NetState phase (1) differed from the phase (0) specified by a rule in layer mnist
I0428 19:56:59.730276 28566 net.cpp:53] Initializing net from parameters: 
name: "LeNet"
state {
  phase: TEST
}
layer {
  name: "mnist"
  type: "Data"
  top: "data"
  top: "label"
  include {
    phase: TEST
  }
  transform_param {
    scale: 0.00390625
  }
  data_param {
    source: "examples/mnist/mnist_test_lmdb"
    batch_size: 100
    backend: LMDB
  }
}
layer {
  name: "conv0"
  type: "Convolution"
  bottom: "data"
  top: "conv0"
  param {
    lr_mult: 1
  }
  param {
    lr_mult: 2
  }
  convolution_param {
    num_output: 10
    kernel_size: 5
    stride: 1
    weight_filler {
      type: "xavier"
    }
    bias_filler {
      type: "constant"
    }
  }
}
layer {
  name: "pool0"
  type: "Pooling"
  bottom: "conv0"
  top: "pool0"
  pooling_param {
    pool: MAX
    kernel_size: 2
    stride: 2
  }
}
layer {
  name: "conv1"
  type: "Convolution"
  bottom: "pool0"
  top: "conv1"
  param {
    lr_mult: 1
  }
  param {
    lr_mult: 2
  }
  convolution_param {
    num_output: 2
    kernel_size: 5
    stride: 1
    weight_filler {
      type: "xavier"
    }
    bias_filler {
      type: "constant"
    }
  }
}
layer {
  name: "pool1"
  type: "Pooling"
  bottom: "conv1"
  top: "pool1"
  pooling_param {
    pool: MAX
    kernel_size: 2
    stride: 2
  }
}
layer {
  name: "ip1"
  type: "InnerProduct"
  bottom: "pool1"
  top: "ip1"
  param {
    lr_mult: 1
  }
  param {
    lr_mult: 2
  }
  inner_product_param {
    num_output: 50
    weight_filler {
      type: "xavier"
    }
    bias_filler {
      type: "constant"
    }
  }
}
layer {
  name: "relu1"
  type: "ReLU"
  bottom: "ip1"
  top: "ip1"
}
layer {
  name: "ip2"
  type: "InnerProduct"
  bottom: "ip1"
  top: "ip2"
  param {
    lr_mult: 1
  }
  param {
    lr_mult: 2
  }
  inner_product_param {
    num_output: 25
    weight_filler {
      type: "xavier"
    }
    bias_filler {
      type: "constant"
    }
  }
}
layer {
  name: "relu2"
  type: "ReLU"
  bottom: "ip2"
  top: "ip2"
}
layer {
  name: "ip3"
  type: "InnerProduct"
  bottom: "ip2"
  top: "ip3"
  param {
    lr_mult: 1
  }
  param {
    lr_mult: 2
  }
  inner_product_param {
    num_output: 10
    weight_filler {
      type: "xavier"
    }
    bias_filler {
      type: "constant"
    }
  }
}
layer {
  name: "relu3"
  type: "ReLU"
  bottom: "ip3"
  top: "ip3"
}
layer {
  name: "accuracy"
  type: "Accuracy"
  bottom: "ip3"
  bottom: "label"
  top: "accuracy"
  include {
    phase: TEST
  }
}
layer {
  name: "loss"
  type: "SoftmaxWithLoss"
  bottom: "ip3"
  bottom: "label"
  top: "loss"
}
I0428 19:56:59.730360 28566 layer_factory.hpp:77] Creating layer mnist
I0428 19:56:59.730406 28566 db_lmdb.cpp:35] Opened lmdb examples/mnist/mnist_test_lmdb
I0428 19:56:59.730419 28566 net.cpp:86] Creating Layer mnist
I0428 19:56:59.730424 28566 net.cpp:382] mnist -> data
I0428 19:56:59.730432 28566 net.cpp:382] mnist -> label
I0428 19:56:59.730520 28566 data_layer.cpp:45] output data size: 100,1,28,28
I0428 19:56:59.732688 28566 net.cpp:124] Setting up mnist
I0428 19:56:59.732702 28566 net.cpp:131] Top shape: 100 1 28 28 (78400)
I0428 19:56:59.732707 28566 net.cpp:131] Top shape: 100 (100)
I0428 19:56:59.732712 28566 net.cpp:139] Memory required for data: 314000
I0428 19:56:59.732715 28566 layer_factory.hpp:77] Creating layer label_mnist_1_split
I0428 19:56:59.732727 28566 net.cpp:86] Creating Layer label_mnist_1_split
I0428 19:56:59.732730 28566 net.cpp:408] label_mnist_1_split <- label
I0428 19:56:59.732735 28566 net.cpp:382] label_mnist_1_split -> label_mnist_1_split_0
I0428 19:56:59.732743 28566 net.cpp:382] label_mnist_1_split -> label_mnist_1_split_1
I0428 19:56:59.732830 28566 net.cpp:124] Setting up label_mnist_1_split
I0428 19:56:59.732838 28566 net.cpp:131] Top shape: 100 (100)
I0428 19:56:59.732843 28566 net.cpp:131] Top shape: 100 (100)
I0428 19:56:59.732846 28566 net.cpp:139] Memory required for data: 314800
I0428 19:56:59.732849 28566 layer_factory.hpp:77] Creating layer conv0
I0428 19:56:59.732858 28566 net.cpp:86] Creating Layer conv0
I0428 19:56:59.732862 28566 net.cpp:408] conv0 <- data
I0428 19:56:59.732867 28566 net.cpp:382] conv0 -> conv0
I0428 19:56:59.734501 28566 net.cpp:124] Setting up conv0
I0428 19:56:59.734516 28566 net.cpp:131] Top shape: 100 10 24 24 (576000)
I0428 19:56:59.734520 28566 net.cpp:139] Memory required for data: 2618800
I0428 19:56:59.734529 28566 layer_factory.hpp:77] Creating layer pool0
I0428 19:56:59.734536 28566 net.cpp:86] Creating Layer pool0
I0428 19:56:59.734540 28566 net.cpp:408] pool0 <- conv0
I0428 19:56:59.734545 28566 net.cpp:382] pool0 -> pool0
I0428 19:56:59.734582 28566 net.cpp:124] Setting up pool0
I0428 19:56:59.734588 28566 net.cpp:131] Top shape: 100 10 12 12 (144000)
I0428 19:56:59.734591 28566 net.cpp:139] Memory required for data: 3194800
I0428 19:56:59.734594 28566 layer_factory.hpp:77] Creating layer conv1
I0428 19:56:59.734603 28566 net.cpp:86] Creating Layer conv1
I0428 19:56:59.734607 28566 net.cpp:408] conv1 <- pool0
I0428 19:56:59.734612 28566 net.cpp:382] conv1 -> conv1
I0428 19:56:59.736665 28566 net.cpp:124] Setting up conv1
I0428 19:56:59.736682 28566 net.cpp:131] Top shape: 100 2 8 8 (12800)
I0428 19:56:59.736686 28566 net.cpp:139] Memory required for data: 3246000
I0428 19:56:59.736696 28566 layer_factory.hpp:77] Creating layer pool1
I0428 19:56:59.736702 28566 net.cpp:86] Creating Layer pool1
I0428 19:56:59.736706 28566 net.cpp:408] pool1 <- conv1
I0428 19:56:59.736712 28566 net.cpp:382] pool1 -> pool1
I0428 19:56:59.736752 28566 net.cpp:124] Setting up pool1
I0428 19:56:59.736758 28566 net.cpp:131] Top shape: 100 2 4 4 (3200)
I0428 19:56:59.736762 28566 net.cpp:139] Memory required for data: 3258800
I0428 19:56:59.736765 28566 layer_factory.hpp:77] Creating layer ip1
I0428 19:56:59.736771 28566 net.cpp:86] Creating Layer ip1
I0428 19:56:59.736774 28566 net.cpp:408] ip1 <- pool1
I0428 19:56:59.736779 28566 net.cpp:382] ip1 -> ip1
I0428 19:56:59.736912 28566 net.cpp:124] Setting up ip1
I0428 19:56:59.736922 28566 net.cpp:131] Top shape: 100 50 (5000)
I0428 19:56:59.736935 28566 net.cpp:139] Memory required for data: 3278800
I0428 19:56:59.736943 28566 layer_factory.hpp:77] Creating layer relu1
I0428 19:56:59.736948 28566 net.cpp:86] Creating Layer relu1
I0428 19:56:59.736953 28566 net.cpp:408] relu1 <- ip1
I0428 19:56:59.736958 28566 net.cpp:369] relu1 -> ip1 (in-place)
I0428 19:56:59.737247 28566 net.cpp:124] Setting up relu1
I0428 19:56:59.737257 28566 net.cpp:131] Top shape: 100 50 (5000)
I0428 19:56:59.737260 28566 net.cpp:139] Memory required for data: 3298800
I0428 19:56:59.737263 28566 layer_factory.hpp:77] Creating layer ip2
I0428 19:56:59.737272 28566 net.cpp:86] Creating Layer ip2
I0428 19:56:59.737274 28566 net.cpp:408] ip2 <- ip1
I0428 19:56:59.737279 28566 net.cpp:382] ip2 -> ip2
I0428 19:56:59.737385 28566 net.cpp:124] Setting up ip2
I0428 19:56:59.737391 28566 net.cpp:131] Top shape: 100 25 (2500)
I0428 19:56:59.737396 28566 net.cpp:139] Memory required for data: 3308800
I0428 19:56:59.737401 28566 layer_factory.hpp:77] Creating layer relu2
I0428 19:56:59.737406 28566 net.cpp:86] Creating Layer relu2
I0428 19:56:59.737409 28566 net.cpp:408] relu2 <- ip2
I0428 19:56:59.737413 28566 net.cpp:369] relu2 -> ip2 (in-place)
I0428 19:56:59.737558 28566 net.cpp:124] Setting up relu2
I0428 19:56:59.737567 28566 net.cpp:131] Top shape: 100 25 (2500)
I0428 19:56:59.737571 28566 net.cpp:139] Memory required for data: 3318800
I0428 19:56:59.737574 28566 layer_factory.hpp:77] Creating layer ip3
I0428 19:56:59.737579 28566 net.cpp:86] Creating Layer ip3
I0428 19:56:59.737582 28566 net.cpp:408] ip3 <- ip2
I0428 19:56:59.737587 28566 net.cpp:382] ip3 -> ip3
I0428 19:56:59.737684 28566 net.cpp:124] Setting up ip3
I0428 19:56:59.737690 28566 net.cpp:131] Top shape: 100 10 (1000)
I0428 19:56:59.737694 28566 net.cpp:139] Memory required for data: 3322800
I0428 19:56:59.737701 28566 layer_factory.hpp:77] Creating layer relu3
I0428 19:56:59.737706 28566 net.cpp:86] Creating Layer relu3
I0428 19:56:59.737709 28566 net.cpp:408] relu3 <- ip3
I0428 19:56:59.737715 28566 net.cpp:369] relu3 -> ip3 (in-place)
I0428 19:56:59.738512 28566 net.cpp:124] Setting up relu3
I0428 19:56:59.738539 28566 net.cpp:131] Top shape: 100 10 (1000)
I0428 19:56:59.738559 28566 net.cpp:139] Memory required for data: 3326800
I0428 19:56:59.738562 28566 layer_factory.hpp:77] Creating layer ip3_relu3_0_split
I0428 19:56:59.738569 28566 net.cpp:86] Creating Layer ip3_relu3_0_split
I0428 19:56:59.738586 28566 net.cpp:408] ip3_relu3_0_split <- ip3
I0428 19:56:59.738592 28566 net.cpp:382] ip3_relu3_0_split -> ip3_relu3_0_split_0
I0428 19:56:59.738600 28566 net.cpp:382] ip3_relu3_0_split -> ip3_relu3_0_split_1
I0428 19:56:59.738644 28566 net.cpp:124] Setting up ip3_relu3_0_split
I0428 19:56:59.738651 28566 net.cpp:131] Top shape: 100 10 (1000)
I0428 19:56:59.738654 28566 net.cpp:131] Top shape: 100 10 (1000)
I0428 19:56:59.738657 28566 net.cpp:139] Memory required for data: 3334800
I0428 19:56:59.738661 28566 layer_factory.hpp:77] Creating layer accuracy
I0428 19:56:59.738665 28566 net.cpp:86] Creating Layer accuracy
I0428 19:56:59.738669 28566 net.cpp:408] accuracy <- ip3_relu3_0_split_0
I0428 19:56:59.738688 28566 net.cpp:408] accuracy <- label_mnist_1_split_0
I0428 19:56:59.738693 28566 net.cpp:382] accuracy -> accuracy
…
