…
I0428 19:29:22.061239 21999 net.cpp:296] The NetState phase (0) differed from the phase (1) specified by a rule in layer mnist
I0428 19:29:22.061264 21999 net.cpp:296] The NetState phase (0) differed from the phase (1) specified by a rule in layer accuracy
I0428 19:29:22.061367 21999 net.cpp:53] Initializing net from parameters: 
name: "LeNet"
state {
  phase: TRAIN
  level: 0
  stage: ""
}
layer {
  name: "mnist"
  type: "Data"
  top: "data"
  top: "label"
  include {
    phase: TRAIN
  }
  transform_param {
    scale: 0.00390625
  }
  data_param {
    source: "examples/mnist/mnist_train_lmdb"
    batch_size: 64
    backend: LMDB
  }
}
layer {
  name: "conv0"
  type: "Convolution"
  bottom: "data"
  top: "conv0"
  param {
    lr_mult: 1
  }
  param {
    lr_mult: 2
  }
  convolution_param {
    num_output: 2
    kernel_size: 5
    stride: 1
    weight_filler {
      type: "xavier"
    }
    bias_filler {
      type: "constant"
    }
  }
}
layer {
  name: "pool0"
  type: "Pooling"
  bottom: "conv0"
  top: "pool0"
  pooling_param {
    pool: MAX
    kernel_size: 2
    stride: 2
  }
}
layer {
  name: "ip1"
  type: "InnerProduct"
  bottom: "pool0"
  top: "ip1"
  param {
    lr_mult: 1
  }
  param {
    lr_mult: 2
  }
  inner_product_param {
    num_output: 10
    weight_filler {
      type: "xavier"
    }
    bias_filler {
      type: "constant"
    }
  }
}
layer {
  name: "relu1"
  type: "ReLU"
  bottom: "ip1"
  top: "ip1"
}
layer {
  name: "ip2"
  type: "InnerProduct"
  bottom: "ip1"
  top: "ip2"
  param {
    lr_mult: 1
  }
  param {
    lr_mult: 2
  }
  inner_product_param {
    num_output: 25
    weight_filler {
      type: "xavier"
    }
    bias_filler {
      type: "constant"
    }
  }
}
layer {
  name: "relu2"
  type: "ReLU"
  bottom: "ip2"
  top: "ip2"
}
layer {
  name: "ip3"
  type: "InnerProduct"
  bottom: "ip2"
  top: "ip3"
  param {
    lr_mult: 1
  }
  param {
    lr_mult: 2
  }
  inner_product_param {
    num_output: 10
    weight_filler {
      type: "xavier"
    }
    bias_filler {
      type: "constant"
    }
  }
}
layer {
  name: "relu3"
  type: "ReLU"
  bottom: "ip3"
  top: "ip3"
}
layer {
  name: "loss"
  type: "SoftmaxWithLoss"
  bottom: "ip3"
  bottom: "label"
  top: "loss"
}
I0428 19:29:22.061475 21999 layer_factory.hpp:77] Creating layer mnist
I0428 19:29:22.061609 21999 db_lmdb.cpp:35] Opened lmdb examples/mnist/mnist_train_lmdb
I0428 19:29:22.061640 21999 net.cpp:86] Creating Layer mnist
I0428 19:29:22.061655 21999 net.cpp:382] mnist -> data
I0428 19:29:22.061688 21999 net.cpp:382] mnist -> label
I0428 19:29:22.062921 21999 data_layer.cpp:45] output data size: 64,1,28,28
I0428 19:29:22.065408 21999 net.cpp:124] Setting up mnist
I0428 19:29:22.065430 21999 net.cpp:131] Top shape: 64 1 28 28 (50176)
I0428 19:29:22.065440 21999 net.cpp:131] Top shape: 64 (64)
I0428 19:29:22.065446 21999 net.cpp:139] Memory required for data: 200960
I0428 19:29:22.065457 21999 layer_factory.hpp:77] Creating layer conv0
I0428 19:29:22.065484 21999 net.cpp:86] Creating Layer conv0
I0428 19:29:22.065495 21999 net.cpp:408] conv0 <- data
I0428 19:29:22.065512 21999 net.cpp:382] conv0 -> conv0
I0428 19:29:22.347833 21999 net.cpp:124] Setting up conv0
I0428 19:29:22.347862 21999 net.cpp:131] Top shape: 64 2 24 24 (73728)
I0428 19:29:22.347868 21999 net.cpp:139] Memory required for data: 495872
I0428 19:29:22.347889 21999 layer_factory.hpp:77] Creating layer pool0
I0428 19:29:22.347905 21999 net.cpp:86] Creating Layer pool0
I0428 19:29:22.347931 21999 net.cpp:408] pool0 <- conv0
I0428 19:29:22.347941 21999 net.cpp:382] pool0 -> pool0
I0428 19:29:22.347995 21999 net.cpp:124] Setting up pool0
I0428 19:29:22.348004 21999 net.cpp:131] Top shape: 64 2 12 12 (18432)
I0428 19:29:22.348009 21999 net.cpp:139] Memory required for data: 569600
I0428 19:29:22.348014 21999 layer_factory.hpp:77] Creating layer ip1
I0428 19:29:22.348026 21999 net.cpp:86] Creating Layer ip1
I0428 19:29:22.348031 21999 net.cpp:408] ip1 <- pool0
I0428 19:29:22.348040 21999 net.cpp:382] ip1 -> ip1
I0428 19:29:22.349002 21999 net.cpp:124] Setting up ip1
I0428 19:29:22.349017 21999 net.cpp:131] Top shape: 64 10 (640)
I0428 19:29:22.349023 21999 net.cpp:139] Memory required for data: 572160
I0428 19:29:22.349036 21999 layer_factory.hpp:77] Creating layer relu1
I0428 19:29:22.349062 21999 net.cpp:86] Creating Layer relu1
I0428 19:29:22.349076 21999 net.cpp:408] relu1 <- ip1
I0428 19:29:22.349083 21999 net.cpp:369] relu1 -> ip1 (in-place)
I0428 19:29:22.349292 21999 net.cpp:124] Setting up relu1
I0428 19:29:22.349301 21999 net.cpp:131] Top shape: 64 10 (640)
I0428 19:29:22.349308 21999 net.cpp:139] Memory required for data: 574720
I0428 19:29:22.349313 21999 layer_factory.hpp:77] Creating layer ip2
I0428 19:29:22.349323 21999 net.cpp:86] Creating Layer ip2
I0428 19:29:22.349328 21999 net.cpp:408] ip2 <- ip1
I0428 19:29:22.349337 21999 net.cpp:382] ip2 -> ip2
I0428 19:29:22.349453 21999 net.cpp:124] Setting up ip2
I0428 19:29:22.349462 21999 net.cpp:131] Top shape: 64 25 (1600)
I0428 19:29:22.349467 21999 net.cpp:139] Memory required for data: 581120
I0428 19:29:22.349479 21999 layer_factory.hpp:77] Creating layer relu2
I0428 19:29:22.349486 21999 net.cpp:86] Creating Layer relu2
I0428 19:29:22.349496 21999 net.cpp:408] relu2 <- ip2
I0428 19:29:22.349503 21999 net.cpp:369] relu2 -> ip2 (in-place)
I0428 19:29:22.350265 21999 net.cpp:124] Setting up relu2
I0428 19:29:22.350278 21999 net.cpp:131] Top shape: 64 25 (1600)
I0428 19:29:22.350283 21999 net.cpp:139] Memory required for data: 587520
I0428 19:29:22.350289 21999 layer_factory.hpp:77] Creating layer ip3
I0428 19:29:22.350299 21999 net.cpp:86] Creating Layer ip3
I0428 19:29:22.350306 21999 net.cpp:408] ip3 <- ip2
I0428 19:29:22.350313 21999 net.cpp:382] ip3 -> ip3
I0428 19:29:22.350415 21999 net.cpp:124] Setting up ip3
I0428 19:29:22.350425 21999 net.cpp:131] Top shape: 64 10 (640)
I0428 19:29:22.350430 21999 net.cpp:139] Memory required for data: 590080
I0428 19:29:22.350440 21999 layer_factory.hpp:77] Creating layer relu3
I0428 19:29:22.350448 21999 net.cpp:86] Creating Layer relu3
I0428 19:29:22.350455 21999 net.cpp:408] relu3 <- ip3
I0428 19:29:22.350466 21999 net.cpp:369] relu3 -> ip3 (in-place)
I0428 19:29:22.350620 21999 net.cpp:124] Setting up relu3
I0428 19:29:22.350628 21999 net.cpp:131] Top shape: 64 10 (640)
I0428 19:29:22.350633 21999 net.cpp:139] Memory required for data: 592640
I0428 19:29:22.350638 21999 layer_factory.hpp:77] Creating layer loss
I0428 19:29:22.350647 21999 net.cpp:86] Creating Layer loss
I0428 19:29:22.350652 21999 net.cpp:408] loss <- ip3
I0428 19:29:22.350659 21999 net.cpp:408] loss <- label
I0428 19:29:22.350667 21999 net.cpp:382] loss -> loss
I0428 19:29:22.350687 21999 layer_factory.hpp:77] Creating layer loss
…
I0428 19:29:22.351351 21999 solver.cpp:173] Creating test net (#0) specified by net file: ECE595/mnist/train_test/var_everything2/lenet_train_test56.prototxt
I0428 19:29:22.351383 21999 net.cpp:296] The NetState phase (1) differed from the phase (0) specified by a rule in layer mnist
I0428 19:29:22.351469 21999 net.cpp:53] Initializing net from parameters: 
name: "LeNet"
state {
  phase: TEST
}
layer {
  name: "mnist"
  type: "Data"
  top: "data"
  top: "label"
  include {
    phase: TEST
  }
  transform_param {
    scale: 0.00390625
  }
  data_param {
    source: "examples/mnist/mnist_test_lmdb"
    batch_size: 100
    backend: LMDB
  }
}
layer {
  name: "conv0"
  type: "Convolution"
  bottom: "data"
  top: "conv0"
  param {
    lr_mult: 1
  }
  param {
    lr_mult: 2
  }
  convolution_param {
    num_output: 2
    kernel_size: 5
    stride: 1
    weight_filler {
      type: "xavier"
    }
    bias_filler {
      type: "constant"
    }
  }
}
layer {
  name: "pool0"
  type: "Pooling"
  bottom: "conv0"
  top: "pool0"
  pooling_param {
    pool: MAX
    kernel_size: 2
    stride: 2
  }
}
layer {
  name: "ip1"
  type: "InnerProduct"
  bottom: "pool0"
  top: "ip1"
  param {
    lr_mult: 1
  }
  param {
    lr_mult: 2
  }
  inner_product_param {
    num_output: 10
    weight_filler {
      type: "xavier"
    }
    bias_filler {
      type: "constant"
    }
  }
}
layer {
  name: "relu1"
  type: "ReLU"
  bottom: "ip1"
  top: "ip1"
}
layer {
  name: "ip2"
  type: "InnerProduct"
  bottom: "ip1"
  top: "ip2"
  param {
    lr_mult: 1
  }
  param {
    lr_mult: 2
  }
  inner_product_param {
    num_output: 25
    weight_filler {
      type: "xavier"
    }
    bias_filler {
      type: "constant"
    }
  }
}
layer {
  name: "relu2"
  type: "ReLU"
  bottom: "ip2"
  top: "ip2"
}
layer {
  name: "ip3"
  type: "InnerProduct"
  bottom: "ip2"
  top: "ip3"
  param {
    lr_mult: 1
  }
  param {
    lr_mult: 2
  }
  inner_product_param {
    num_output: 10
    weight_filler {
      type: "xavier"
    }
    bias_filler {
      type: "constant"
    }
  }
}
layer {
  name: "relu3"
  type: "ReLU"
  bottom: "ip3"
  top: "ip3"
}
layer {
  name: "accuracy"
  type: "Accuracy"
  bottom: "ip3"
  bottom: "label"
  top: "accuracy"
  include {
    phase: TEST
  }
}
layer {
  name: "loss"
  type: "SoftmaxWithLoss"
  bottom: "ip3"
  bottom: "label"
  top: "loss"
}
I0428 19:29:22.351563 21999 layer_factory.hpp:77] Creating layer mnist
I0428 19:29:22.351624 21999 db_lmdb.cpp:35] Opened lmdb examples/mnist/mnist_test_lmdb
I0428 19:29:22.351641 21999 net.cpp:86] Creating Layer mnist
I0428 19:29:22.351649 21999 net.cpp:382] mnist -> data
I0428 19:29:22.351660 21999 net.cpp:382] mnist -> label
I0428 19:29:22.351775 21999 data_layer.cpp:45] output data size: 100,1,28,28
I0428 19:29:22.353817 21999 net.cpp:124] Setting up mnist
I0428 19:29:22.353832 21999 net.cpp:131] Top shape: 100 1 28 28 (78400)
I0428 19:29:22.353842 21999 net.cpp:131] Top shape: 100 (100)
I0428 19:29:22.353862 21999 net.cpp:139] Memory required for data: 314000
I0428 19:29:22.353868 21999 layer_factory.hpp:77] Creating layer label_mnist_1_split
I0428 19:29:22.353878 21999 net.cpp:86] Creating Layer label_mnist_1_split
I0428 19:29:22.353884 21999 net.cpp:408] label_mnist_1_split <- label
I0428 19:29:22.353893 21999 net.cpp:382] label_mnist_1_split -> label_mnist_1_split_0
I0428 19:29:22.353919 21999 net.cpp:382] label_mnist_1_split -> label_mnist_1_split_1
I0428 19:29:22.354032 21999 net.cpp:124] Setting up label_mnist_1_split
I0428 19:29:22.354041 21999 net.cpp:131] Top shape: 100 (100)
I0428 19:29:22.354048 21999 net.cpp:131] Top shape: 100 (100)
I0428 19:29:22.354054 21999 net.cpp:139] Memory required for data: 314800
I0428 19:29:22.354074 21999 layer_factory.hpp:77] Creating layer conv0
I0428 19:29:22.354089 21999 net.cpp:86] Creating Layer conv0
I0428 19:29:22.354095 21999 net.cpp:408] conv0 <- data
I0428 19:29:22.354104 21999 net.cpp:382] conv0 -> conv0
I0428 19:29:22.355664 21999 net.cpp:124] Setting up conv0
I0428 19:29:22.355679 21999 net.cpp:131] Top shape: 100 2 24 24 (115200)
I0428 19:29:22.355685 21999 net.cpp:139] Memory required for data: 775600
I0428 19:29:22.355700 21999 layer_factory.hpp:77] Creating layer pool0
I0428 19:29:22.355710 21999 net.cpp:86] Creating Layer pool0
I0428 19:29:22.355716 21999 net.cpp:408] pool0 <- conv0
I0428 19:29:22.355725 21999 net.cpp:382] pool0 -> pool0
I0428 19:29:22.355765 21999 net.cpp:124] Setting up pool0
I0428 19:29:22.355773 21999 net.cpp:131] Top shape: 100 2 12 12 (28800)
I0428 19:29:22.355779 21999 net.cpp:139] Memory required for data: 890800
I0428 19:29:22.355784 21999 layer_factory.hpp:77] Creating layer ip1
I0428 19:29:22.355794 21999 net.cpp:86] Creating Layer ip1
I0428 19:29:22.355800 21999 net.cpp:408] ip1 <- pool0
I0428 19:29:22.355808 21999 net.cpp:382] ip1 -> ip1
I0428 19:29:22.355921 21999 net.cpp:124] Setting up ip1
I0428 19:29:22.355931 21999 net.cpp:131] Top shape: 100 10 (1000)
I0428 19:29:22.355936 21999 net.cpp:139] Memory required for data: 894800
I0428 19:29:22.355947 21999 layer_factory.hpp:77] Creating layer relu1
I0428 19:29:22.355954 21999 net.cpp:86] Creating Layer relu1
I0428 19:29:22.355962 21999 net.cpp:408] relu1 <- ip1
I0428 19:29:22.355968 21999 net.cpp:369] relu1 -> ip1 (in-place)
I0428 19:29:22.356130 21999 net.cpp:124] Setting up relu1
I0428 19:29:22.356139 21999 net.cpp:131] Top shape: 100 10 (1000)
I0428 19:29:22.356144 21999 net.cpp:139] Memory required for data: 898800
I0428 19:29:22.356149 21999 layer_factory.hpp:77] Creating layer ip2
I0428 19:29:22.356158 21999 net.cpp:86] Creating Layer ip2
I0428 19:29:22.356163 21999 net.cpp:408] ip2 <- ip1
I0428 19:29:22.356171 21999 net.cpp:382] ip2 -> ip2
I0428 19:29:22.356271 21999 net.cpp:124] Setting up ip2
I0428 19:29:22.356279 21999 net.cpp:131] Top shape: 100 25 (2500)
I0428 19:29:22.356300 21999 net.cpp:139] Memory required for data: 908800
I0428 19:29:22.356313 21999 layer_factory.hpp:77] Creating layer relu2
I0428 19:29:22.356323 21999 net.cpp:86] Creating Layer relu2
I0428 19:29:22.356328 21999 net.cpp:408] relu2 <- ip2
I0428 19:29:22.356335 21999 net.cpp:369] relu2 -> ip2 (in-place)
I0428 19:29:22.357259 21999 net.cpp:124] Setting up relu2
I0428 19:29:22.357271 21999 net.cpp:131] Top shape: 100 25 (2500)
I0428 19:29:22.357277 21999 net.cpp:139] Memory required for data: 918800
I0428 19:29:22.357283 21999 layer_factory.hpp:77] Creating layer ip3
I0428 19:29:22.357311 21999 net.cpp:86] Creating Layer ip3
I0428 19:29:22.357316 21999 net.cpp:408] ip3 <- ip2
I0428 19:29:22.357326 21999 net.cpp:382] ip3 -> ip3
I0428 19:29:22.357481 21999 net.cpp:124] Setting up ip3
I0428 19:29:22.357491 21999 net.cpp:131] Top shape: 100 10 (1000)
I0428 19:29:22.357499 21999 net.cpp:139] Memory required for data: 922800
I0428 19:29:22.357509 21999 layer_factory.hpp:77] Creating layer relu3
I0428 19:29:22.357518 21999 net.cpp:86] Creating Layer relu3
I0428 19:29:22.357525 21999 net.cpp:408] relu3 <- ip3
I0428 19:29:22.357533 21999 net.cpp:369] relu3 -> ip3 (in-place)
I0428 19:29:22.357717 21999 net.cpp:124] Setting up relu3
I0428 19:29:22.357727 21999 net.cpp:131] Top shape: 100 10 (1000)
I0428 19:29:22.357733 21999 net.cpp:139] Memory required for data: 926800
I0428 19:29:22.357738 21999 layer_factory.hpp:77] Creating layer ip3_relu3_0_split
I0428 19:29:22.357745 21999 net.cpp:86] Creating Layer ip3_relu3_0_split
I0428 19:29:22.357751 21999 net.cpp:408] ip3_relu3_0_split <- ip3
I0428 19:29:22.357758 21999 net.cpp:382] ip3_relu3_0_split -> ip3_relu3_0_split_0
I0428 19:29:22.357769 21999 net.cpp:382] ip3_relu3_0_split -> ip3_relu3_0_split_1
I0428 19:29:22.357810 21999 net.cpp:124] Setting up ip3_relu3_0_split
I0428 19:29:22.357817 21999 net.cpp:131] Top shape: 100 10 (1000)
I0428 19:29:22.357825 21999 net.cpp:131] Top shape: 100 10 (1000)
I0428 19:29:22.357841 21999 net.cpp:139] Memory required for data: 934800
I0428 19:29:22.357861 21999 layer_factory.hpp:77] Creating layer accuracy
I0428 19:29:22.357869 21999 net.cpp:86] Creating Layer accuracy
I0428 19:29:22.357875 21999 net.cpp:408] accuracy <- ip3_relu3_0_split_0
I0428 19:29:22.357882 21999 net.cpp:408] accuracy <- label_mnist_1_split_0
I0428 19:29:22.357889 21999 net.cpp:382] accuracy -> accuracy
…
