…
I0428 19:40:22.110828 24530 net.cpp:296] The NetState phase (0) differed from the phase (1) specified by a rule in layer mnist
I0428 19:40:22.110852 24530 net.cpp:296] The NetState phase (0) differed from the phase (1) specified by a rule in layer accuracy
I0428 19:40:22.110954 24530 net.cpp:53] Initializing net from parameters: 
name: "LeNet"
state {
  phase: TRAIN
  level: 0
  stage: ""
}
layer {
  name: "mnist"
  type: "Data"
  top: "data"
  top: "label"
  include {
    phase: TRAIN
  }
  transform_param {
    scale: 0.00390625
  }
  data_param {
    source: "examples/mnist/mnist_train_lmdb"
    batch_size: 64
    backend: LMDB
  }
}
layer {
  name: "conv0"
  type: "Convolution"
  bottom: "data"
  top: "conv0"
  param {
    lr_mult: 1
  }
  param {
    lr_mult: 2
  }
  convolution_param {
    num_output: 2
    kernel_size: 5
    stride: 1
    weight_filler {
      type: "xavier"
    }
    bias_filler {
      type: "constant"
    }
  }
}
layer {
  name: "pool0"
  type: "Pooling"
  bottom: "conv0"
  top: "pool0"
  pooling_param {
    pool: MAX
    kernel_size: 2
    stride: 2
  }
}
layer {
  name: "conv1"
  type: "Convolution"
  bottom: "pool0"
  top: "conv1"
  param {
    lr_mult: 1
  }
  param {
    lr_mult: 2
  }
  convolution_param {
    num_output: 5
    kernel_size: 5
    stride: 1
    weight_filler {
      type: "xavier"
    }
    bias_filler {
      type: "constant"
    }
  }
}
layer {
  name: "pool1"
  type: "Pooling"
  bottom: "conv1"
  top: "pool1"
  pooling_param {
    pool: MAX
    kernel_size: 2
    stride: 2
  }
}
layer {
  name: "ip1"
  type: "InnerProduct"
  bottom: "pool1"
  top: "ip1"
  param {
    lr_mult: 1
  }
  param {
    lr_mult: 2
  }
  inner_product_param {
    num_output: 10
    weight_filler {
      type: "xavier"
    }
    bias_filler {
      type: "constant"
    }
  }
}
layer {
  name: "relu1"
  type: "ReLU"
  bottom: "ip1"
  top: "ip1"
}
layer {
  name: "ip2"
  type: "InnerProduct"
  bottom: "ip1"
  top: "ip2"
  param {
    lr_mult: 1
  }
  param {
    lr_mult: 2
  }
  inner_product_param {
    num_output: 50
    weight_filler {
      type: "xavier"
    }
    bias_filler {
      type: "constant"
    }
  }
}
layer {
  name: "relu2"
  type: "ReLU"
  bottom: "ip2"
  top: "ip2"
}
layer {
  name: "ip3"
  type: "InnerProduct"
  bottom: "ip2"
  top: "ip3"
  param {
    lr_mult: 1
  }
  param {
    lr_mult: 2
  }
  inner_product_param {
    num_output: 10
    weight_filler {
      type: "xavier"
    }
    bias_filler {
      type: "constant"
    }
  }
}
layer {
  name: "relu3"
  type: "ReLU"
  bottom: "ip3"
  top: "ip3"
}
layer {
  name: "loss"
  type: "SoftmaxWithLoss"
  bottom: "ip3"
  bottom: "label"
  top: "loss"
}
I0428 19:40:22.111033 24530 layer_factory.hpp:77] Creating layer mnist
I0428 19:40:22.111130 24530 db_lmdb.cpp:35] Opened lmdb examples/mnist/mnist_train_lmdb
I0428 19:40:22.111155 24530 net.cpp:86] Creating Layer mnist
I0428 19:40:22.111163 24530 net.cpp:382] mnist -> data
I0428 19:40:22.111186 24530 net.cpp:382] mnist -> label
I0428 19:40:22.112275 24530 data_layer.cpp:45] output data size: 64,1,28,28
I0428 19:40:22.114850 24530 net.cpp:124] Setting up mnist
I0428 19:40:22.114869 24530 net.cpp:131] Top shape: 64 1 28 28 (50176)
I0428 19:40:22.114876 24530 net.cpp:131] Top shape: 64 (64)
I0428 19:40:22.114879 24530 net.cpp:139] Memory required for data: 200960
I0428 19:40:22.114886 24530 layer_factory.hpp:77] Creating layer conv0
I0428 19:40:22.114904 24530 net.cpp:86] Creating Layer conv0
I0428 19:40:22.114925 24530 net.cpp:408] conv0 <- data
I0428 19:40:22.114939 24530 net.cpp:382] conv0 -> conv0
I0428 19:40:22.398224 24530 net.cpp:124] Setting up conv0
I0428 19:40:22.398252 24530 net.cpp:131] Top shape: 64 2 24 24 (73728)
I0428 19:40:22.398257 24530 net.cpp:139] Memory required for data: 495872
I0428 19:40:22.398272 24530 layer_factory.hpp:77] Creating layer pool0
I0428 19:40:22.398284 24530 net.cpp:86] Creating Layer pool0
I0428 19:40:22.398288 24530 net.cpp:408] pool0 <- conv0
I0428 19:40:22.398294 24530 net.cpp:382] pool0 -> pool0
I0428 19:40:22.398339 24530 net.cpp:124] Setting up pool0
I0428 19:40:22.398345 24530 net.cpp:131] Top shape: 64 2 12 12 (18432)
I0428 19:40:22.398349 24530 net.cpp:139] Memory required for data: 569600
I0428 19:40:22.398351 24530 layer_factory.hpp:77] Creating layer conv1
I0428 19:40:22.398363 24530 net.cpp:86] Creating Layer conv1
I0428 19:40:22.398366 24530 net.cpp:408] conv1 <- pool0
I0428 19:40:22.398371 24530 net.cpp:382] conv1 -> conv1
I0428 19:40:22.400197 24530 net.cpp:124] Setting up conv1
I0428 19:40:22.400213 24530 net.cpp:131] Top shape: 64 5 8 8 (20480)
I0428 19:40:22.400218 24530 net.cpp:139] Memory required for data: 651520
I0428 19:40:22.400243 24530 layer_factory.hpp:77] Creating layer pool1
I0428 19:40:22.400251 24530 net.cpp:86] Creating Layer pool1
I0428 19:40:22.400255 24530 net.cpp:408] pool1 <- conv1
I0428 19:40:22.400260 24530 net.cpp:382] pool1 -> pool1
I0428 19:40:22.400300 24530 net.cpp:124] Setting up pool1
I0428 19:40:22.400305 24530 net.cpp:131] Top shape: 64 5 4 4 (5120)
I0428 19:40:22.400308 24530 net.cpp:139] Memory required for data: 672000
I0428 19:40:22.400311 24530 layer_factory.hpp:77] Creating layer ip1
I0428 19:40:22.400319 24530 net.cpp:86] Creating Layer ip1
I0428 19:40:22.400322 24530 net.cpp:408] ip1 <- pool1
I0428 19:40:22.400327 24530 net.cpp:382] ip1 -> ip1
I0428 19:40:22.400426 24530 net.cpp:124] Setting up ip1
I0428 19:40:22.400434 24530 net.cpp:131] Top shape: 64 10 (640)
I0428 19:40:22.400452 24530 net.cpp:139] Memory required for data: 674560
I0428 19:40:22.400460 24530 layer_factory.hpp:77] Creating layer relu1
I0428 19:40:22.400465 24530 net.cpp:86] Creating Layer relu1
I0428 19:40:22.400467 24530 net.cpp:408] relu1 <- ip1
I0428 19:40:22.400472 24530 net.cpp:369] relu1 -> ip1 (in-place)
I0428 19:40:22.400636 24530 net.cpp:124] Setting up relu1
I0428 19:40:22.400645 24530 net.cpp:131] Top shape: 64 10 (640)
I0428 19:40:22.400648 24530 net.cpp:139] Memory required for data: 677120
I0428 19:40:22.400652 24530 layer_factory.hpp:77] Creating layer ip2
I0428 19:40:22.400658 24530 net.cpp:86] Creating Layer ip2
I0428 19:40:22.400661 24530 net.cpp:408] ip2 <- ip1
I0428 19:40:22.400666 24530 net.cpp:382] ip2 -> ip2
I0428 19:40:22.400769 24530 net.cpp:124] Setting up ip2
I0428 19:40:22.400777 24530 net.cpp:131] Top shape: 64 50 (3200)
I0428 19:40:22.400780 24530 net.cpp:139] Memory required for data: 689920
I0428 19:40:22.400786 24530 layer_factory.hpp:77] Creating layer relu2
I0428 19:40:22.400792 24530 net.cpp:86] Creating Layer relu2
I0428 19:40:22.400795 24530 net.cpp:408] relu2 <- ip2
I0428 19:40:22.400800 24530 net.cpp:369] relu2 -> ip2 (in-place)
I0428 19:40:22.401638 24530 net.cpp:124] Setting up relu2
I0428 19:40:22.401653 24530 net.cpp:131] Top shape: 64 50 (3200)
I0428 19:40:22.401656 24530 net.cpp:139] Memory required for data: 702720
I0428 19:40:22.401660 24530 layer_factory.hpp:77] Creating layer ip3
I0428 19:40:22.401667 24530 net.cpp:86] Creating Layer ip3
I0428 19:40:22.401671 24530 net.cpp:408] ip3 <- ip2
I0428 19:40:22.401676 24530 net.cpp:382] ip3 -> ip3
I0428 19:40:22.401782 24530 net.cpp:124] Setting up ip3
I0428 19:40:22.401790 24530 net.cpp:131] Top shape: 64 10 (640)
I0428 19:40:22.401794 24530 net.cpp:139] Memory required for data: 705280
I0428 19:40:22.401803 24530 layer_factory.hpp:77] Creating layer relu3
I0428 19:40:22.401808 24530 net.cpp:86] Creating Layer relu3
I0428 19:40:22.401810 24530 net.cpp:408] relu3 <- ip3
I0428 19:40:22.401814 24530 net.cpp:369] relu3 -> ip3 (in-place)
I0428 19:40:22.401985 24530 net.cpp:124] Setting up relu3
I0428 19:40:22.401995 24530 net.cpp:131] Top shape: 64 10 (640)
I0428 19:40:22.401998 24530 net.cpp:139] Memory required for data: 707840
I0428 19:40:22.402003 24530 layer_factory.hpp:77] Creating layer loss
I0428 19:40:22.402009 24530 net.cpp:86] Creating Layer loss
I0428 19:40:22.402011 24530 net.cpp:408] loss <- ip3
I0428 19:40:22.402015 24530 net.cpp:408] loss <- label
I0428 19:40:22.402021 24530 net.cpp:382] loss -> loss
I0428 19:40:22.402035 24530 layer_factory.hpp:77] Creating layer loss
…
I0428 19:40:22.402696 24530 solver.cpp:173] Creating test net (#0) specified by net file: ECE595/mnist/train_test/var_everything2/lenet_train_test332.prototxt
I0428 19:40:22.402725 24530 net.cpp:296] The NetState phase (1) differed from the phase (0) specified by a rule in layer mnist
I0428 19:40:22.402812 24530 net.cpp:53] Initializing net from parameters: 
name: "LeNet"
state {
  phase: TEST
}
layer {
  name: "mnist"
  type: "Data"
  top: "data"
  top: "label"
  include {
    phase: TEST
  }
  transform_param {
    scale: 0.00390625
  }
  data_param {
    source: "examples/mnist/mnist_test_lmdb"
    batch_size: 100
    backend: LMDB
  }
}
layer {
  name: "conv0"
  type: "Convolution"
  bottom: "data"
  top: "conv0"
  param {
    lr_mult: 1
  }
  param {
    lr_mult: 2
  }
  convolution_param {
    num_output: 2
    kernel_size: 5
    stride: 1
    weight_filler {
      type: "xavier"
    }
    bias_filler {
      type: "constant"
    }
  }
}
layer {
  name: "pool0"
  type: "Pooling"
  bottom: "conv0"
  top: "pool0"
  pooling_param {
    pool: MAX
    kernel_size: 2
    stride: 2
  }
}
layer {
  name: "conv1"
  type: "Convolution"
  bottom: "pool0"
  top: "conv1"
  param {
    lr_mult: 1
  }
  param {
    lr_mult: 2
  }
  convolution_param {
    num_output: 5
    kernel_size: 5
    stride: 1
    weight_filler {
      type: "xavier"
    }
    bias_filler {
      type: "constant"
    }
  }
}
layer {
  name: "pool1"
  type: "Pooling"
  bottom: "conv1"
  top: "pool1"
  pooling_param {
    pool: MAX
    kernel_size: 2
    stride: 2
  }
}
layer {
  name: "ip1"
  type: "InnerProduct"
  bottom: "pool1"
  top: "ip1"
  param {
    lr_mult: 1
  }
  param {
    lr_mult: 2
  }
  inner_product_param {
    num_output: 10
    weight_filler {
      type: "xavier"
    }
    bias_filler {
      type: "constant"
    }
  }
}
layer {
  name: "relu1"
  type: "ReLU"
  bottom: "ip1"
  top: "ip1"
}
layer {
  name: "ip2"
  type: "InnerProduct"
  bottom: "ip1"
  top: "ip2"
  param {
    lr_mult: 1
  }
  param {
    lr_mult: 2
  }
  inner_product_param {
    num_output: 50
    weight_filler {
      type: "xavier"
    }
    bias_filler {
      type: "constant"
    }
  }
}
layer {
  name: "relu2"
  type: "ReLU"
  bottom: "ip2"
  top: "ip2"
}
layer {
  name: "ip3"
  type: "InnerProduct"
  bottom: "ip2"
  top: "ip3"
  param {
    lr_mult: 1
  }
  param {
    lr_mult: 2
  }
  inner_product_param {
    num_output: 10
    weight_filler {
      type: "xavier"
    }
    bias_filler {
      type: "constant"
    }
  }
}
layer {
  name: "relu3"
  type: "ReLU"
  bottom: "ip3"
  top: "ip3"
}
layer {
  name: "accuracy"
  type: "Accuracy"
  bottom: "ip3"
  bottom: "label"
  top: "accuracy"
  include {
    phase: TEST
  }
}
layer {
  name: "loss"
  type: "SoftmaxWithLoss"
  bottom: "ip3"
  bottom: "label"
  top: "loss"
}
I0428 19:40:22.402889 24530 layer_factory.hpp:77] Creating layer mnist
I0428 19:40:22.402935 24530 db_lmdb.cpp:35] Opened lmdb examples/mnist/mnist_test_lmdb
I0428 19:40:22.402946 24530 net.cpp:86] Creating Layer mnist
I0428 19:40:22.402951 24530 net.cpp:382] mnist -> data
I0428 19:40:22.402959 24530 net.cpp:382] mnist -> label
I0428 19:40:22.403041 24530 data_layer.cpp:45] output data size: 100,1,28,28
I0428 19:40:22.405138 24530 net.cpp:124] Setting up mnist
I0428 19:40:22.405151 24530 net.cpp:131] Top shape: 100 1 28 28 (78400)
I0428 19:40:22.405158 24530 net.cpp:131] Top shape: 100 (100)
I0428 19:40:22.405160 24530 net.cpp:139] Memory required for data: 314000
I0428 19:40:22.405164 24530 layer_factory.hpp:77] Creating layer label_mnist_1_split
I0428 19:40:22.405170 24530 net.cpp:86] Creating Layer label_mnist_1_split
I0428 19:40:22.405174 24530 net.cpp:408] label_mnist_1_split <- label
I0428 19:40:22.405179 24530 net.cpp:382] label_mnist_1_split -> label_mnist_1_split_0
I0428 19:40:22.405185 24530 net.cpp:382] label_mnist_1_split -> label_mnist_1_split_1
I0428 19:40:22.405222 24530 net.cpp:124] Setting up label_mnist_1_split
I0428 19:40:22.405227 24530 net.cpp:131] Top shape: 100 (100)
I0428 19:40:22.405231 24530 net.cpp:131] Top shape: 100 (100)
I0428 19:40:22.405234 24530 net.cpp:139] Memory required for data: 314800
I0428 19:40:22.405237 24530 layer_factory.hpp:77] Creating layer conv0
I0428 19:40:22.405246 24530 net.cpp:86] Creating Layer conv0
I0428 19:40:22.405248 24530 net.cpp:408] conv0 <- data
I0428 19:40:22.405253 24530 net.cpp:382] conv0 -> conv0
I0428 19:40:22.406919 24530 net.cpp:124] Setting up conv0
I0428 19:40:22.406932 24530 net.cpp:131] Top shape: 100 2 24 24 (115200)
I0428 19:40:22.406936 24530 net.cpp:139] Memory required for data: 775600
I0428 19:40:22.406946 24530 layer_factory.hpp:77] Creating layer pool0
I0428 19:40:22.406952 24530 net.cpp:86] Creating Layer pool0
I0428 19:40:22.406956 24530 net.cpp:408] pool0 <- conv0
I0428 19:40:22.406961 24530 net.cpp:382] pool0 -> pool0
I0428 19:40:22.406996 24530 net.cpp:124] Setting up pool0
I0428 19:40:22.407002 24530 net.cpp:131] Top shape: 100 2 12 12 (28800)
I0428 19:40:22.407006 24530 net.cpp:139] Memory required for data: 890800
I0428 19:40:22.407008 24530 layer_factory.hpp:77] Creating layer conv1
I0428 19:40:22.407016 24530 net.cpp:86] Creating Layer conv1
I0428 19:40:22.407021 24530 net.cpp:408] conv1 <- pool0
I0428 19:40:22.407024 24530 net.cpp:382] conv1 -> conv1
I0428 19:40:22.408452 24530 net.cpp:124] Setting up conv1
I0428 19:40:22.408466 24530 net.cpp:131] Top shape: 100 5 8 8 (32000)
I0428 19:40:22.408470 24530 net.cpp:139] Memory required for data: 1018800
I0428 19:40:22.408478 24530 layer_factory.hpp:77] Creating layer pool1
I0428 19:40:22.408498 24530 net.cpp:86] Creating Layer pool1
I0428 19:40:22.408501 24530 net.cpp:408] pool1 <- conv1
I0428 19:40:22.408506 24530 net.cpp:382] pool1 -> pool1
I0428 19:40:22.408543 24530 net.cpp:124] Setting up pool1
I0428 19:40:22.408550 24530 net.cpp:131] Top shape: 100 5 4 4 (8000)
I0428 19:40:22.408552 24530 net.cpp:139] Memory required for data: 1050800
I0428 19:40:22.408555 24530 layer_factory.hpp:77] Creating layer ip1
I0428 19:40:22.408561 24530 net.cpp:86] Creating Layer ip1
I0428 19:40:22.408565 24530 net.cpp:408] ip1 <- pool1
I0428 19:40:22.408570 24530 net.cpp:382] ip1 -> ip1
I0428 19:40:22.408665 24530 net.cpp:124] Setting up ip1
I0428 19:40:22.408674 24530 net.cpp:131] Top shape: 100 10 (1000)
I0428 19:40:22.408694 24530 net.cpp:139] Memory required for data: 1054800
I0428 19:40:22.408701 24530 layer_factory.hpp:77] Creating layer relu1
I0428 19:40:22.408706 24530 net.cpp:86] Creating Layer relu1
I0428 19:40:22.408715 24530 net.cpp:408] relu1 <- ip1
I0428 19:40:22.408720 24530 net.cpp:369] relu1 -> ip1 (in-place)
I0428 19:40:22.408954 24530 net.cpp:124] Setting up relu1
I0428 19:40:22.408967 24530 net.cpp:131] Top shape: 100 10 (1000)
I0428 19:40:22.408972 24530 net.cpp:139] Memory required for data: 1058800
I0428 19:40:22.408978 24530 layer_factory.hpp:77] Creating layer ip2
I0428 19:40:22.408991 24530 net.cpp:86] Creating Layer ip2
I0428 19:40:22.409011 24530 net.cpp:408] ip2 <- ip1
I0428 19:40:22.409018 24530 net.cpp:382] ip2 -> ip2
I0428 19:40:22.409137 24530 net.cpp:124] Setting up ip2
I0428 19:40:22.409160 24530 net.cpp:131] Top shape: 100 50 (5000)
I0428 19:40:22.409164 24530 net.cpp:139] Memory required for data: 1078800
I0428 19:40:22.409170 24530 layer_factory.hpp:77] Creating layer relu2
I0428 19:40:22.409190 24530 net.cpp:86] Creating Layer relu2
I0428 19:40:22.409194 24530 net.cpp:408] relu2 <- ip2
I0428 19:40:22.409198 24530 net.cpp:369] relu2 -> ip2 (in-place)
I0428 19:40:22.409364 24530 net.cpp:124] Setting up relu2
I0428 19:40:22.409373 24530 net.cpp:131] Top shape: 100 50 (5000)
I0428 19:40:22.409376 24530 net.cpp:139] Memory required for data: 1098800
I0428 19:40:22.409379 24530 layer_factory.hpp:77] Creating layer ip3
I0428 19:40:22.409385 24530 net.cpp:86] Creating Layer ip3
I0428 19:40:22.409389 24530 net.cpp:408] ip3 <- ip2
I0428 19:40:22.409394 24530 net.cpp:382] ip3 -> ip3
I0428 19:40:22.409520 24530 net.cpp:124] Setting up ip3
I0428 19:40:22.409528 24530 net.cpp:131] Top shape: 100 10 (1000)
I0428 19:40:22.409531 24530 net.cpp:139] Memory required for data: 1102800
I0428 19:40:22.409539 24530 layer_factory.hpp:77] Creating layer relu3
I0428 19:40:22.409543 24530 net.cpp:86] Creating Layer relu3
I0428 19:40:22.409548 24530 net.cpp:408] relu3 <- ip3
I0428 19:40:22.409554 24530 net.cpp:369] relu3 -> ip3 (in-place)
I0428 19:40:22.410342 24530 net.cpp:124] Setting up relu3
I0428 19:40:22.410356 24530 net.cpp:131] Top shape: 100 10 (1000)
I0428 19:40:22.410359 24530 net.cpp:139] Memory required for data: 1106800
I0428 19:40:22.410363 24530 layer_factory.hpp:77] Creating layer ip3_relu3_0_split
I0428 19:40:22.410368 24530 net.cpp:86] Creating Layer ip3_relu3_0_split
I0428 19:40:22.410372 24530 net.cpp:408] ip3_relu3_0_split <- ip3
I0428 19:40:22.410378 24530 net.cpp:382] ip3_relu3_0_split -> ip3_relu3_0_split_0
I0428 19:40:22.410384 24530 net.cpp:382] ip3_relu3_0_split -> ip3_relu3_0_split_1
I0428 19:40:22.410426 24530 net.cpp:124] Setting up ip3_relu3_0_split
I0428 19:40:22.410431 24530 net.cpp:131] Top shape: 100 10 (1000)
I0428 19:40:22.410435 24530 net.cpp:131] Top shape: 100 10 (1000)
I0428 19:40:22.410439 24530 net.cpp:139] Memory required for data: 1114800
I0428 19:40:22.410440 24530 layer_factory.hpp:77] Creating layer accuracy
I0428 19:40:22.410446 24530 net.cpp:86] Creating Layer accuracy
I0428 19:40:22.410450 24530 net.cpp:408] accuracy <- ip3_relu3_0_split_0
I0428 19:40:22.410454 24530 net.cpp:408] accuracy <- label_mnist_1_split_0
I0428 19:40:22.410459 24530 net.cpp:382] accuracy -> accuracy
…
