…
I0428 19:53:21.262162 27748 net.cpp:296] The NetState phase (0) differed from the phase (1) specified by a rule in layer mnist
I0428 19:53:21.262193 27748 net.cpp:296] The NetState phase (0) differed from the phase (1) specified by a rule in layer accuracy
I0428 19:53:21.262272 27748 net.cpp:53] Initializing net from parameters: 
name: "LeNet"
state {
  phase: TRAIN
  level: 0
  stage: ""
}
layer {
  name: "mnist"
  type: "Data"
  top: "data"
  top: "label"
  include {
    phase: TRAIN
  }
  transform_param {
    scale: 0.00390625
  }
  data_param {
    source: "examples/mnist/mnist_train_lmdb"
    batch_size: 64
    backend: LMDB
  }
}
layer {
  name: "conv0"
  type: "Convolution"
  bottom: "data"
  top: "conv0"
  param {
    lr_mult: 1
  }
  param {
    lr_mult: 2
  }
  convolution_param {
    num_output: 5
    kernel_size: 5
    stride: 1
    weight_filler {
      type: "xavier"
    }
    bias_filler {
      type: "constant"
    }
  }
}
layer {
  name: "pool0"
  type: "Pooling"
  bottom: "conv0"
  top: "pool0"
  pooling_param {
    pool: MAX
    kernel_size: 2
    stride: 2
  }
}
layer {
  name: "conv1"
  type: "Convolution"
  bottom: "pool0"
  top: "conv1"
  param {
    lr_mult: 1
  }
  param {
    lr_mult: 2
  }
  convolution_param {
    num_output: 50
    kernel_size: 5
    stride: 1
    weight_filler {
      type: "xavier"
    }
    bias_filler {
      type: "constant"
    }
  }
}
layer {
  name: "pool1"
  type: "Pooling"
  bottom: "conv1"
  top: "pool1"
  pooling_param {
    pool: MAX
    kernel_size: 2
    stride: 2
  }
}
layer {
  name: "ip1"
  type: "InnerProduct"
  bottom: "pool1"
  top: "ip1"
  param {
    lr_mult: 1
  }
  param {
    lr_mult: 2
  }
  inner_product_param {
    num_output: 25
    weight_filler {
      type: "xavier"
    }
    bias_filler {
      type: "constant"
    }
  }
}
layer {
  name: "relu1"
  type: "ReLU"
  bottom: "ip1"
  top: "ip1"
}
layer {
  name: "ip2"
  type: "InnerProduct"
  bottom: "ip1"
  top: "ip2"
  param {
    lr_mult: 1
  }
  param {
    lr_mult: 2
  }
  inner_product_param {
    num_output: 10
    weight_filler {
      type: "xavier"
    }
    bias_filler {
      type: "constant"
    }
  }
}
layer {
  name: "relu2"
  type: "ReLU"
  bottom: "ip2"
  top: "ip2"
}
layer {
  name: "ip3"
  type: "InnerProduct"
  bottom: "ip2"
  top: "ip3"
  param {
    lr_mult: 1
  }
  param {
    lr_mult: 2
  }
  inner_product_param {
    num_output: 10
    weight_filler {
      type: "xavier"
    }
    bias_filler {
      type: "constant"
    }
  }
}
layer {
  name: "relu3"
  type: "ReLU"
  bottom: "ip3"
  top: "ip3"
}
layer {
  name: "loss"
  type: "SoftmaxWithLoss"
  bottom: "ip3"
  bottom: "label"
  top: "loss"
}
I0428 19:53:21.262336 27748 layer_factory.hpp:77] Creating layer mnist
I0428 19:53:21.262416 27748 db_lmdb.cpp:35] Opened lmdb examples/mnist/mnist_train_lmdb
I0428 19:53:21.262435 27748 net.cpp:86] Creating Layer mnist
I0428 19:53:21.262442 27748 net.cpp:382] mnist -> data
I0428 19:53:21.262476 27748 net.cpp:382] mnist -> label
I0428 19:53:21.263381 27748 data_layer.cpp:45] output data size: 64,1,28,28
I0428 19:53:21.265619 27748 net.cpp:124] Setting up mnist
I0428 19:53:21.265650 27748 net.cpp:131] Top shape: 64 1 28 28 (50176)
I0428 19:53:21.265655 27748 net.cpp:131] Top shape: 64 (64)
I0428 19:53:21.265657 27748 net.cpp:139] Memory required for data: 200960
I0428 19:53:21.265662 27748 layer_factory.hpp:77] Creating layer conv0
I0428 19:53:21.265676 27748 net.cpp:86] Creating Layer conv0
I0428 19:53:21.265692 27748 net.cpp:408] conv0 <- data
I0428 19:53:21.265702 27748 net.cpp:382] conv0 -> conv0
I0428 19:53:21.582053 27748 net.cpp:124] Setting up conv0
I0428 19:53:21.582085 27748 net.cpp:131] Top shape: 64 5 24 24 (184320)
I0428 19:53:21.582090 27748 net.cpp:139] Memory required for data: 938240
I0428 19:53:21.582108 27748 layer_factory.hpp:77] Creating layer pool0
I0428 19:53:21.582123 27748 net.cpp:86] Creating Layer pool0
I0428 19:53:21.582129 27748 net.cpp:408] pool0 <- conv0
I0428 19:53:21.582134 27748 net.cpp:382] pool0 -> pool0
I0428 19:53:21.582188 27748 net.cpp:124] Setting up pool0
I0428 19:53:21.582195 27748 net.cpp:131] Top shape: 64 5 12 12 (46080)
I0428 19:53:21.582200 27748 net.cpp:139] Memory required for data: 1122560
I0428 19:53:21.582203 27748 layer_factory.hpp:77] Creating layer conv1
I0428 19:53:21.582216 27748 net.cpp:86] Creating Layer conv1
I0428 19:53:21.582221 27748 net.cpp:408] conv1 <- pool0
I0428 19:53:21.582226 27748 net.cpp:382] conv1 -> conv1
I0428 19:53:21.585326 27748 net.cpp:124] Setting up conv1
I0428 19:53:21.585345 27748 net.cpp:131] Top shape: 64 50 8 8 (204800)
I0428 19:53:21.585350 27748 net.cpp:139] Memory required for data: 1941760
I0428 19:53:21.585360 27748 layer_factory.hpp:77] Creating layer pool1
I0428 19:53:21.585368 27748 net.cpp:86] Creating Layer pool1
I0428 19:53:21.585374 27748 net.cpp:408] pool1 <- conv1
I0428 19:53:21.585381 27748 net.cpp:382] pool1 -> pool1
I0428 19:53:21.585424 27748 net.cpp:124] Setting up pool1
I0428 19:53:21.585431 27748 net.cpp:131] Top shape: 64 50 4 4 (51200)
I0428 19:53:21.585435 27748 net.cpp:139] Memory required for data: 2146560
I0428 19:53:21.585439 27748 layer_factory.hpp:77] Creating layer ip1
I0428 19:53:21.585446 27748 net.cpp:86] Creating Layer ip1
I0428 19:53:21.585450 27748 net.cpp:408] ip1 <- pool1
I0428 19:53:21.585456 27748 net.cpp:382] ip1 -> ip1
I0428 19:53:21.585700 27748 net.cpp:124] Setting up ip1
I0428 19:53:21.585710 27748 net.cpp:131] Top shape: 64 25 (1600)
I0428 19:53:21.585713 27748 net.cpp:139] Memory required for data: 2152960
I0428 19:53:21.585722 27748 layer_factory.hpp:77] Creating layer relu1
I0428 19:53:21.585728 27748 net.cpp:86] Creating Layer relu1
I0428 19:53:21.585732 27748 net.cpp:408] relu1 <- ip1
I0428 19:53:21.585737 27748 net.cpp:369] relu1 -> ip1 (in-place)
I0428 19:53:21.585927 27748 net.cpp:124] Setting up relu1
I0428 19:53:21.585938 27748 net.cpp:131] Top shape: 64 25 (1600)
I0428 19:53:21.585942 27748 net.cpp:139] Memory required for data: 2159360
I0428 19:53:21.585945 27748 layer_factory.hpp:77] Creating layer ip2
I0428 19:53:21.585952 27748 net.cpp:86] Creating Layer ip2
I0428 19:53:21.585957 27748 net.cpp:408] ip2 <- ip1
I0428 19:53:21.585961 27748 net.cpp:382] ip2 -> ip2
I0428 19:53:21.586069 27748 net.cpp:124] Setting up ip2
I0428 19:53:21.586078 27748 net.cpp:131] Top shape: 64 10 (640)
I0428 19:53:21.586082 27748 net.cpp:139] Memory required for data: 2161920
I0428 19:53:21.586088 27748 layer_factory.hpp:77] Creating layer relu2
I0428 19:53:21.586096 27748 net.cpp:86] Creating Layer relu2
I0428 19:53:21.586099 27748 net.cpp:408] relu2 <- ip2
I0428 19:53:21.586104 27748 net.cpp:369] relu2 -> ip2 (in-place)
I0428 19:53:21.586932 27748 net.cpp:124] Setting up relu2
I0428 19:53:21.586947 27748 net.cpp:131] Top shape: 64 10 (640)
I0428 19:53:21.586951 27748 net.cpp:139] Memory required for data: 2164480
I0428 19:53:21.586956 27748 layer_factory.hpp:77] Creating layer ip3
I0428 19:53:21.586964 27748 net.cpp:86] Creating Layer ip3
I0428 19:53:21.586968 27748 net.cpp:408] ip3 <- ip2
I0428 19:53:21.586974 27748 net.cpp:382] ip3 -> ip3
I0428 19:53:21.587091 27748 net.cpp:124] Setting up ip3
I0428 19:53:21.587101 27748 net.cpp:131] Top shape: 64 10 (640)
I0428 19:53:21.587105 27748 net.cpp:139] Memory required for data: 2167040
I0428 19:53:21.587115 27748 layer_factory.hpp:77] Creating layer relu3
I0428 19:53:21.587121 27748 net.cpp:86] Creating Layer relu3
I0428 19:53:21.587123 27748 net.cpp:408] relu3 <- ip3
I0428 19:53:21.587128 27748 net.cpp:369] relu3 -> ip3 (in-place)
I0428 19:53:21.587323 27748 net.cpp:124] Setting up relu3
I0428 19:53:21.587334 27748 net.cpp:131] Top shape: 64 10 (640)
I0428 19:53:21.587338 27748 net.cpp:139] Memory required for data: 2169600
I0428 19:53:21.587342 27748 layer_factory.hpp:77] Creating layer loss
I0428 19:53:21.587350 27748 net.cpp:86] Creating Layer loss
I0428 19:53:21.587353 27748 net.cpp:408] loss <- ip3
I0428 19:53:21.587358 27748 net.cpp:408] loss <- label
I0428 19:53:21.587364 27748 net.cpp:382] loss -> loss
I0428 19:53:21.587384 27748 layer_factory.hpp:77] Creating layer loss
…
I0428 19:53:21.588105 27748 solver.cpp:173] Creating test net (#0) specified by net file: ECE595/mnist/train_test/var_everything2/lenet_train_test685.prototxt
I0428 19:53:21.588137 27748 net.cpp:296] The NetState phase (1) differed from the phase (0) specified by a rule in layer mnist
I0428 19:53:21.588245 27748 net.cpp:53] Initializing net from parameters: 
name: "LeNet"
state {
  phase: TEST
}
layer {
  name: "mnist"
  type: "Data"
  top: "data"
  top: "label"
  include {
    phase: TEST
  }
  transform_param {
    scale: 0.00390625
  }
  data_param {
    source: "examples/mnist/mnist_test_lmdb"
    batch_size: 100
    backend: LMDB
  }
}
layer {
  name: "conv0"
  type: "Convolution"
  bottom: "data"
  top: "conv0"
  param {
    lr_mult: 1
  }
  param {
    lr_mult: 2
  }
  convolution_param {
    num_output: 5
    kernel_size: 5
    stride: 1
    weight_filler {
      type: "xavier"
    }
    bias_filler {
      type: "constant"
    }
  }
}
layer {
  name: "pool0"
  type: "Pooling"
  bottom: "conv0"
  top: "pool0"
  pooling_param {
    pool: MAX
    kernel_size: 2
    stride: 2
  }
}
layer {
  name: "conv1"
  type: "Convolution"
  bottom: "pool0"
  top: "conv1"
  param {
    lr_mult: 1
  }
  param {
    lr_mult: 2
  }
  convolution_param {
    num_output: 50
    kernel_size: 5
    stride: 1
    weight_filler {
      type: "xavier"
    }
    bias_filler {
      type: "constant"
    }
  }
}
layer {
  name: "pool1"
  type: "Pooling"
  bottom: "conv1"
  top: "pool1"
  pooling_param {
    pool: MAX
    kernel_size: 2
    stride: 2
  }
}
layer {
  name: "ip1"
  type: "InnerProduct"
  bottom: "pool1"
  top: "ip1"
  param {
    lr_mult: 1
  }
  param {
    lr_mult: 2
  }
  inner_product_param {
    num_output: 25
    weight_filler {
      type: "xavier"
    }
    bias_filler {
      type: "constant"
    }
  }
}
layer {
  name: "relu1"
  type: "ReLU"
  bottom: "ip1"
  top: "ip1"
}
layer {
  name: "ip2"
  type: "InnerProduct"
  bottom: "ip1"
  top: "ip2"
  param {
    lr_mult: 1
  }
  param {
    lr_mult: 2
  }
  inner_product_param {
    num_output: 10
    weight_filler {
      type: "xavier"
    }
    bias_filler {
      type: "constant"
    }
  }
}
layer {
  name: "relu2"
  type: "ReLU"
  bottom: "ip2"
  top: "ip2"
}
layer {
  name: "ip3"
  type: "InnerProduct"
  bottom: "ip2"
  top: "ip3"
  param {
    lr_mult: 1
  }
  param {
    lr_mult: 2
  }
  inner_product_param {
    num_output: 10
    weight_filler {
      type: "xavier"
    }
    bias_filler {
      type: "constant"
    }
  }
}
layer {
  name: "relu3"
  type: "ReLU"
  bottom: "ip3"
  top: "ip3"
}
layer {
  name: "accuracy"
  type: "Accuracy"
  bottom: "ip3"
  bottom: "label"
  top: "accuracy"
  include {
    phase: TEST
  }
}
layer {
  name: "loss"
  type: "SoftmaxWithLoss"
  bottom: "ip3"
  bottom: "label"
  top: "loss"
}
I0428 19:53:21.588338 27748 layer_factory.hpp:77] Creating layer mnist
I0428 19:53:21.588389 27748 db_lmdb.cpp:35] Opened lmdb examples/mnist/mnist_test_lmdb
I0428 19:53:21.588404 27748 net.cpp:86] Creating Layer mnist
I0428 19:53:21.588409 27748 net.cpp:382] mnist -> data
I0428 19:53:21.588418 27748 net.cpp:382] mnist -> label
I0428 19:53:21.588515 27748 data_layer.cpp:45] output data size: 100,1,28,28
I0428 19:53:21.590667 27748 net.cpp:124] Setting up mnist
I0428 19:53:21.590683 27748 net.cpp:131] Top shape: 100 1 28 28 (78400)
I0428 19:53:21.590689 27748 net.cpp:131] Top shape: 100 (100)
I0428 19:53:21.590693 27748 net.cpp:139] Memory required for data: 314000
I0428 19:53:21.590698 27748 layer_factory.hpp:77] Creating layer label_mnist_1_split
I0428 19:53:21.590709 27748 net.cpp:86] Creating Layer label_mnist_1_split
I0428 19:53:21.590714 27748 net.cpp:408] label_mnist_1_split <- label
I0428 19:53:21.590720 27748 net.cpp:382] label_mnist_1_split -> label_mnist_1_split_0
I0428 19:53:21.590728 27748 net.cpp:382] label_mnist_1_split -> label_mnist_1_split_1
I0428 19:53:21.590785 27748 net.cpp:124] Setting up label_mnist_1_split
I0428 19:53:21.590790 27748 net.cpp:131] Top shape: 100 (100)
I0428 19:53:21.590795 27748 net.cpp:131] Top shape: 100 (100)
I0428 19:53:21.590798 27748 net.cpp:139] Memory required for data: 314800
I0428 19:53:21.590802 27748 layer_factory.hpp:77] Creating layer conv0
I0428 19:53:21.590812 27748 net.cpp:86] Creating Layer conv0
I0428 19:53:21.590816 27748 net.cpp:408] conv0 <- data
I0428 19:53:21.590821 27748 net.cpp:382] conv0 -> conv0
I0428 19:53:21.592725 27748 net.cpp:124] Setting up conv0
I0428 19:53:21.592742 27748 net.cpp:131] Top shape: 100 5 24 24 (288000)
I0428 19:53:21.592746 27748 net.cpp:139] Memory required for data: 1466800
I0428 19:53:21.592757 27748 layer_factory.hpp:77] Creating layer pool0
I0428 19:53:21.592766 27748 net.cpp:86] Creating Layer pool0
I0428 19:53:21.592768 27748 net.cpp:408] pool0 <- conv0
I0428 19:53:21.592774 27748 net.cpp:382] pool0 -> pool0
I0428 19:53:21.592828 27748 net.cpp:124] Setting up pool0
I0428 19:53:21.592840 27748 net.cpp:131] Top shape: 100 5 12 12 (72000)
I0428 19:53:21.592847 27748 net.cpp:139] Memory required for data: 1754800
I0428 19:53:21.592854 27748 layer_factory.hpp:77] Creating layer conv1
I0428 19:53:21.592869 27748 net.cpp:86] Creating Layer conv1
I0428 19:53:21.592875 27748 net.cpp:408] conv1 <- pool0
I0428 19:53:21.592885 27748 net.cpp:382] conv1 -> conv1
I0428 19:53:21.594552 27748 net.cpp:124] Setting up conv1
I0428 19:53:21.594566 27748 net.cpp:131] Top shape: 100 50 8 8 (320000)
I0428 19:53:21.594571 27748 net.cpp:139] Memory required for data: 3034800
I0428 19:53:21.594581 27748 layer_factory.hpp:77] Creating layer pool1
I0428 19:53:21.594589 27748 net.cpp:86] Creating Layer pool1
I0428 19:53:21.594594 27748 net.cpp:408] pool1 <- conv1
I0428 19:53:21.594600 27748 net.cpp:382] pool1 -> pool1
I0428 19:53:21.594641 27748 net.cpp:124] Setting up pool1
I0428 19:53:21.594648 27748 net.cpp:131] Top shape: 100 50 4 4 (80000)
I0428 19:53:21.594652 27748 net.cpp:139] Memory required for data: 3354800
I0428 19:53:21.594656 27748 layer_factory.hpp:77] Creating layer ip1
I0428 19:53:21.594663 27748 net.cpp:86] Creating Layer ip1
I0428 19:53:21.594667 27748 net.cpp:408] ip1 <- pool1
I0428 19:53:21.594672 27748 net.cpp:382] ip1 -> ip1
I0428 19:53:21.594918 27748 net.cpp:124] Setting up ip1
I0428 19:53:21.594928 27748 net.cpp:131] Top shape: 100 25 (2500)
I0428 19:53:21.594944 27748 net.cpp:139] Memory required for data: 3364800
I0428 19:53:21.594954 27748 layer_factory.hpp:77] Creating layer relu1
I0428 19:53:21.594960 27748 net.cpp:86] Creating Layer relu1
I0428 19:53:21.594964 27748 net.cpp:408] relu1 <- ip1
I0428 19:53:21.594969 27748 net.cpp:369] relu1 -> ip1 (in-place)
I0428 19:53:21.595254 27748 net.cpp:124] Setting up relu1
I0428 19:53:21.595264 27748 net.cpp:131] Top shape: 100 25 (2500)
I0428 19:53:21.595268 27748 net.cpp:139] Memory required for data: 3374800
I0428 19:53:21.595273 27748 layer_factory.hpp:77] Creating layer ip2
I0428 19:53:21.595281 27748 net.cpp:86] Creating Layer ip2
I0428 19:53:21.595285 27748 net.cpp:408] ip2 <- ip1
I0428 19:53:21.595293 27748 net.cpp:382] ip2 -> ip2
I0428 19:53:21.595402 27748 net.cpp:124] Setting up ip2
I0428 19:53:21.595410 27748 net.cpp:131] Top shape: 100 10 (1000)
I0428 19:53:21.595414 27748 net.cpp:139] Memory required for data: 3378800
I0428 19:53:21.595420 27748 layer_factory.hpp:77] Creating layer relu2
I0428 19:53:21.595427 27748 net.cpp:86] Creating Layer relu2
I0428 19:53:21.595430 27748 net.cpp:408] relu2 <- ip2
I0428 19:53:21.595435 27748 net.cpp:369] relu2 -> ip2 (in-place)
I0428 19:53:21.595603 27748 net.cpp:124] Setting up relu2
I0428 19:53:21.595613 27748 net.cpp:131] Top shape: 100 10 (1000)
I0428 19:53:21.595618 27748 net.cpp:139] Memory required for data: 3382800
I0428 19:53:21.595621 27748 layer_factory.hpp:77] Creating layer ip3
I0428 19:53:21.595628 27748 net.cpp:86] Creating Layer ip3
I0428 19:53:21.595631 27748 net.cpp:408] ip3 <- ip2
I0428 19:53:21.595636 27748 net.cpp:382] ip3 -> ip3
I0428 19:53:21.595743 27748 net.cpp:124] Setting up ip3
I0428 19:53:21.595752 27748 net.cpp:131] Top shape: 100 10 (1000)
I0428 19:53:21.595757 27748 net.cpp:139] Memory required for data: 3386800
I0428 19:53:21.595765 27748 layer_factory.hpp:77] Creating layer relu3
I0428 19:53:21.595770 27748 net.cpp:86] Creating Layer relu3
I0428 19:53:21.595773 27748 net.cpp:408] relu3 <- ip3
I0428 19:53:21.595778 27748 net.cpp:369] relu3 -> ip3 (in-place)
I0428 19:53:21.596678 27748 net.cpp:124] Setting up relu3
I0428 19:53:21.596691 27748 net.cpp:131] Top shape: 100 10 (1000)
I0428 19:53:21.596695 27748 net.cpp:139] Memory required for data: 3390800
I0428 19:53:21.596700 27748 layer_factory.hpp:77] Creating layer ip3_relu3_0_split
I0428 19:53:21.596706 27748 net.cpp:86] Creating Layer ip3_relu3_0_split
I0428 19:53:21.596709 27748 net.cpp:408] ip3_relu3_0_split <- ip3
I0428 19:53:21.596715 27748 net.cpp:382] ip3_relu3_0_split -> ip3_relu3_0_split_0
I0428 19:53:21.596724 27748 net.cpp:382] ip3_relu3_0_split -> ip3_relu3_0_split_1
I0428 19:53:21.596774 27748 net.cpp:124] Setting up ip3_relu3_0_split
I0428 19:53:21.596781 27748 net.cpp:131] Top shape: 100 10 (1000)
I0428 19:53:21.596786 27748 net.cpp:131] Top shape: 100 10 (1000)
I0428 19:53:21.596789 27748 net.cpp:139] Memory required for data: 3398800
I0428 19:53:21.596793 27748 layer_factory.hpp:77] Creating layer accuracy
I0428 19:53:21.596799 27748 net.cpp:86] Creating Layer accuracy
I0428 19:53:21.596803 27748 net.cpp:408] accuracy <- ip3_relu3_0_split_0
I0428 19:53:21.596815 27748 net.cpp:408] accuracy <- label_mnist_1_split_0
I0428 19:53:21.596825 27748 net.cpp:382] accuracy -> accuracy
…
