…
I0428 20:14:01.692926 32586 net.cpp:296] The NetState phase (0) differed from the phase (1) specified by a rule in layer mnist
I0428 20:14:01.692942 32586 net.cpp:296] The NetState phase (0) differed from the phase (1) specified by a rule in layer accuracy
I0428 20:14:01.693027 32586 net.cpp:53] Initializing net from parameters: 
name: "LeNet"
state {
  phase: TRAIN
  level: 0
  stage: ""
}
layer {
  name: "mnist"
  type: "Data"
  top: "data"
  top: "label"
  include {
    phase: TRAIN
  }
  transform_param {
    scale: 0.00390625
  }
  data_param {
    source: "examples/mnist/mnist_train_lmdb"
    batch_size: 64
    backend: LMDB
  }
}
layer {
  name: "conv0"
  type: "Convolution"
  bottom: "data"
  top: "conv0"
  param {
    lr_mult: 1
  }
  param {
    lr_mult: 2
  }
  convolution_param {
    num_output: 50
    kernel_size: 5
    stride: 1
    weight_filler {
      type: "xavier"
    }
    bias_filler {
      type: "constant"
    }
  }
}
layer {
  name: "pool0"
  type: "Pooling"
  bottom: "conv0"
  top: "pool0"
  pooling_param {
    pool: MAX
    kernel_size: 2
    stride: 2
  }
}
layer {
  name: "conv1"
  type: "Convolution"
  bottom: "pool0"
  top: "conv1"
  param {
    lr_mult: 1
  }
  param {
    lr_mult: 2
  }
  convolution_param {
    num_output: 2
    kernel_size: 5
    stride: 1
    weight_filler {
      type: "xavier"
    }
    bias_filler {
      type: "constant"
    }
  }
}
layer {
  name: "pool1"
  type: "Pooling"
  bottom: "conv1"
  top: "pool1"
  pooling_param {
    pool: MAX
    kernel_size: 2
    stride: 2
  }
}
layer {
  name: "ip1"
  type: "InnerProduct"
  bottom: "pool1"
  top: "ip1"
  param {
    lr_mult: 1
  }
  param {
    lr_mult: 2
  }
  inner_product_param {
    num_output: 10
    weight_filler {
      type: "xavier"
    }
    bias_filler {
      type: "constant"
    }
  }
}
layer {
  name: "relu1"
  type: "ReLU"
  bottom: "ip1"
  top: "ip1"
}
layer {
  name: "loss"
  type: "SoftmaxWithLoss"
  bottom: "ip1"
  bottom: "label"
  top: "loss"
}
I0428 20:14:01.693095 32586 layer_factory.hpp:77] Creating layer mnist
I0428 20:14:01.693197 32586 db_lmdb.cpp:35] Opened lmdb examples/mnist/mnist_train_lmdb
I0428 20:14:01.693220 32586 net.cpp:86] Creating Layer mnist
I0428 20:14:01.693228 32586 net.cpp:382] mnist -> data
I0428 20:14:01.693251 32586 net.cpp:382] mnist -> label
I0428 20:14:01.694360 32586 data_layer.cpp:45] output data size: 64,1,28,28
I0428 20:14:01.696830 32586 net.cpp:124] Setting up mnist
I0428 20:14:01.696847 32586 net.cpp:131] Top shape: 64 1 28 28 (50176)
I0428 20:14:01.696853 32586 net.cpp:131] Top shape: 64 (64)
I0428 20:14:01.696856 32586 net.cpp:139] Memory required for data: 200960
I0428 20:14:01.696873 32586 layer_factory.hpp:77] Creating layer conv0
I0428 20:14:01.696892 32586 net.cpp:86] Creating Layer conv0
I0428 20:14:01.696897 32586 net.cpp:408] conv0 <- data
I0428 20:14:01.696910 32586 net.cpp:382] conv0 -> conv0
I0428 20:14:01.989696 32586 net.cpp:124] Setting up conv0
I0428 20:14:01.989729 32586 net.cpp:131] Top shape: 64 50 24 24 (1843200)
I0428 20:14:01.989734 32586 net.cpp:139] Memory required for data: 7573760
I0428 20:14:01.989753 32586 layer_factory.hpp:77] Creating layer pool0
I0428 20:14:01.989768 32586 net.cpp:86] Creating Layer pool0
I0428 20:14:01.989773 32586 net.cpp:408] pool0 <- conv0
I0428 20:14:01.989780 32586 net.cpp:382] pool0 -> pool0
I0428 20:14:01.989838 32586 net.cpp:124] Setting up pool0
I0428 20:14:01.989848 32586 net.cpp:131] Top shape: 64 50 12 12 (460800)
I0428 20:14:01.989869 32586 net.cpp:139] Memory required for data: 9416960
I0428 20:14:01.989873 32586 layer_factory.hpp:77] Creating layer conv1
I0428 20:14:01.989887 32586 net.cpp:86] Creating Layer conv1
I0428 20:14:01.989892 32586 net.cpp:408] conv1 <- pool0
I0428 20:14:01.989899 32586 net.cpp:382] conv1 -> conv1
I0428 20:14:01.992127 32586 net.cpp:124] Setting up conv1
I0428 20:14:01.992147 32586 net.cpp:131] Top shape: 64 2 8 8 (8192)
I0428 20:14:01.992156 32586 net.cpp:139] Memory required for data: 9449728
I0428 20:14:01.992169 32586 layer_factory.hpp:77] Creating layer pool1
I0428 20:14:01.992178 32586 net.cpp:86] Creating Layer pool1
I0428 20:14:01.992182 32586 net.cpp:408] pool1 <- conv1
I0428 20:14:01.992188 32586 net.cpp:382] pool1 -> pool1
I0428 20:14:01.992233 32586 net.cpp:124] Setting up pool1
I0428 20:14:01.992245 32586 net.cpp:131] Top shape: 64 2 4 4 (2048)
I0428 20:14:01.992249 32586 net.cpp:139] Memory required for data: 9457920
I0428 20:14:01.992252 32586 layer_factory.hpp:77] Creating layer ip1
I0428 20:14:01.992262 32586 net.cpp:86] Creating Layer ip1
I0428 20:14:01.992266 32586 net.cpp:408] ip1 <- pool1
I0428 20:14:01.992271 32586 net.cpp:382] ip1 -> ip1
I0428 20:14:01.992393 32586 net.cpp:124] Setting up ip1
I0428 20:14:01.992401 32586 net.cpp:131] Top shape: 64 10 (640)
I0428 20:14:01.992405 32586 net.cpp:139] Memory required for data: 9460480
I0428 20:14:01.992413 32586 layer_factory.hpp:77] Creating layer relu1
I0428 20:14:01.992421 32586 net.cpp:86] Creating Layer relu1
I0428 20:14:01.992425 32586 net.cpp:408] relu1 <- ip1
I0428 20:14:01.992430 32586 net.cpp:369] relu1 -> ip1 (in-place)
I0428 20:14:01.992643 32586 net.cpp:124] Setting up relu1
I0428 20:14:01.992666 32586 net.cpp:131] Top shape: 64 10 (640)
I0428 20:14:01.992669 32586 net.cpp:139] Memory required for data: 9463040
I0428 20:14:01.992672 32586 layer_factory.hpp:77] Creating layer loss
I0428 20:14:01.992681 32586 net.cpp:86] Creating Layer loss
I0428 20:14:01.992687 32586 net.cpp:408] loss <- ip1
I0428 20:14:01.992691 32586 net.cpp:408] loss <- label
I0428 20:14:01.992697 32586 net.cpp:382] loss -> loss
I0428 20:14:01.992712 32586 layer_factory.hpp:77] Creating layer loss
…
I0428 20:14:01.994065 32586 solver.cpp:173] Creating test net (#0) specified by net file: ECE595/mnist/train_test/var_everything2/lenet_train_test1211.prototxt
I0428 20:14:01.994093 32586 net.cpp:296] The NetState phase (1) differed from the phase (0) specified by a rule in layer mnist
I0428 20:14:01.994182 32586 net.cpp:53] Initializing net from parameters: 
name: "LeNet"
state {
  phase: TEST
}
layer {
  name: "mnist"
  type: "Data"
  top: "data"
  top: "label"
  include {
    phase: TEST
  }
  transform_param {
    scale: 0.00390625
  }
  data_param {
    source: "examples/mnist/mnist_test_lmdb"
    batch_size: 100
    backend: LMDB
  }
}
layer {
  name: "conv0"
  type: "Convolution"
  bottom: "data"
  top: "conv0"
  param {
    lr_mult: 1
  }
  param {
    lr_mult: 2
  }
  convolution_param {
    num_output: 50
    kernel_size: 5
    stride: 1
    weight_filler {
      type: "xavier"
    }
    bias_filler {
      type: "constant"
    }
  }
}
layer {
  name: "pool0"
  type: "Pooling"
  bottom: "conv0"
  top: "pool0"
  pooling_param {
    pool: MAX
    kernel_size: 2
    stride: 2
  }
}
layer {
  name: "conv1"
  type: "Convolution"
  bottom: "pool0"
  top: "conv1"
  param {
    lr_mult: 1
  }
  param {
    lr_mult: 2
  }
  convolution_param {
    num_output: 2
    kernel_size: 5
    stride: 1
    weight_filler {
      type: "xavier"
    }
    bias_filler {
      type: "constant"
    }
  }
}
layer {
  name: "pool1"
  type: "Pooling"
  bottom: "conv1"
  top: "pool1"
  pooling_param {
    pool: MAX
    kernel_size: 2
    stride: 2
  }
}
layer {
  name: "ip1"
  type: "InnerProduct"
  bottom: "pool1"
  top: "ip1"
  param {
    lr_mult: 1
  }
  param {
    lr_mult: 2
  }
  inner_product_param {
    num_output: 10
    weight_filler {
      type: "xavier"
    }
    bias_filler {
      type: "constant"
    }
  }
}
layer {
  name: "relu1"
  type: "ReLU"
  bottom: "ip1"
  top: "ip1"
}
layer {
  name: "accuracy"
  type: "Accuracy"
  bottom: "ip1"
  bottom: "label"
  top: "accuracy"
  include {
    phase: TEST
  }
}
layer {
  name: "loss"
  type: "SoftmaxWithLoss"
  bottom: "ip1"
  bottom: "label"
  top: "loss"
}
I0428 20:14:01.994271 32586 layer_factory.hpp:77] Creating layer mnist
I0428 20:14:01.994328 32586 db_lmdb.cpp:35] Opened lmdb examples/mnist/mnist_test_lmdb
I0428 20:14:01.994343 32586 net.cpp:86] Creating Layer mnist
I0428 20:14:01.994350 32586 net.cpp:382] mnist -> data
I0428 20:14:01.994359 32586 net.cpp:382] mnist -> label
I0428 20:14:01.994468 32586 data_layer.cpp:45] output data size: 100,1,28,28
I0428 20:14:01.996892 32586 net.cpp:124] Setting up mnist
I0428 20:14:01.996908 32586 net.cpp:131] Top shape: 100 1 28 28 (78400)
I0428 20:14:01.996917 32586 net.cpp:131] Top shape: 100 (100)
I0428 20:14:01.996919 32586 net.cpp:139] Memory required for data: 314000
I0428 20:14:01.996924 32586 layer_factory.hpp:77] Creating layer label_mnist_1_split
I0428 20:14:01.996932 32586 net.cpp:86] Creating Layer label_mnist_1_split
I0428 20:14:01.996937 32586 net.cpp:408] label_mnist_1_split <- label
I0428 20:14:01.996942 32586 net.cpp:382] label_mnist_1_split -> label_mnist_1_split_0
I0428 20:14:01.996949 32586 net.cpp:382] label_mnist_1_split -> label_mnist_1_split_1
I0428 20:14:01.997002 32586 net.cpp:124] Setting up label_mnist_1_split
I0428 20:14:01.997009 32586 net.cpp:131] Top shape: 100 (100)
I0428 20:14:01.997014 32586 net.cpp:131] Top shape: 100 (100)
I0428 20:14:01.997017 32586 net.cpp:139] Memory required for data: 314800
I0428 20:14:01.997021 32586 layer_factory.hpp:77] Creating layer conv0
I0428 20:14:01.997032 32586 net.cpp:86] Creating Layer conv0
I0428 20:14:01.997037 32586 net.cpp:408] conv0 <- data
I0428 20:14:01.997045 32586 net.cpp:382] conv0 -> conv0
I0428 20:14:01.998163 32586 net.cpp:124] Setting up conv0
I0428 20:14:01.998178 32586 net.cpp:131] Top shape: 100 50 24 24 (2880000)
I0428 20:14:01.998183 32586 net.cpp:139] Memory required for data: 11834800
I0428 20:14:01.998195 32586 layer_factory.hpp:77] Creating layer pool0
I0428 20:14:01.998203 32586 net.cpp:86] Creating Layer pool0
I0428 20:14:01.998208 32586 net.cpp:408] pool0 <- conv0
I0428 20:14:01.998214 32586 net.cpp:382] pool0 -> pool0
I0428 20:14:01.998258 32586 net.cpp:124] Setting up pool0
I0428 20:14:01.998265 32586 net.cpp:131] Top shape: 100 50 12 12 (720000)
I0428 20:14:01.998268 32586 net.cpp:139] Memory required for data: 14714800
I0428 20:14:01.998272 32586 layer_factory.hpp:77] Creating layer conv1
I0428 20:14:01.998286 32586 net.cpp:86] Creating Layer conv1
I0428 20:14:01.998291 32586 net.cpp:408] conv1 <- pool0
I0428 20:14:01.998298 32586 net.cpp:382] conv1 -> conv1
I0428 20:14:02.000069 32586 net.cpp:124] Setting up conv1
I0428 20:14:02.000085 32586 net.cpp:131] Top shape: 100 2 8 8 (12800)
I0428 20:14:02.000090 32586 net.cpp:139] Memory required for data: 14766000
I0428 20:14:02.000100 32586 layer_factory.hpp:77] Creating layer pool1
I0428 20:14:02.000110 32586 net.cpp:86] Creating Layer pool1
I0428 20:14:02.000126 32586 net.cpp:408] pool1 <- conv1
I0428 20:14:02.000134 32586 net.cpp:382] pool1 -> pool1
I0428 20:14:02.000178 32586 net.cpp:124] Setting up pool1
I0428 20:14:02.000186 32586 net.cpp:131] Top shape: 100 2 4 4 (3200)
I0428 20:14:02.000190 32586 net.cpp:139] Memory required for data: 14778800
I0428 20:14:02.000193 32586 layer_factory.hpp:77] Creating layer ip1
I0428 20:14:02.000202 32586 net.cpp:86] Creating Layer ip1
I0428 20:14:02.000208 32586 net.cpp:408] ip1 <- pool1
I0428 20:14:02.000216 32586 net.cpp:382] ip1 -> ip1
I0428 20:14:02.000334 32586 net.cpp:124] Setting up ip1
I0428 20:14:02.000342 32586 net.cpp:131] Top shape: 100 10 (1000)
I0428 20:14:02.000346 32586 net.cpp:139] Memory required for data: 14782800
I0428 20:14:02.000355 32586 layer_factory.hpp:77] Creating layer relu1
I0428 20:14:02.000363 32586 net.cpp:86] Creating Layer relu1
I0428 20:14:02.000368 32586 net.cpp:408] relu1 <- ip1
I0428 20:14:02.000375 32586 net.cpp:369] relu1 -> ip1 (in-place)
I0428 20:14:02.001324 32586 net.cpp:124] Setting up relu1
I0428 20:14:02.001340 32586 net.cpp:131] Top shape: 100 10 (1000)
I0428 20:14:02.001344 32586 net.cpp:139] Memory required for data: 14786800
I0428 20:14:02.001348 32586 layer_factory.hpp:77] Creating layer ip1_relu1_0_split
I0428 20:14:02.001356 32586 net.cpp:86] Creating Layer ip1_relu1_0_split
I0428 20:14:02.001360 32586 net.cpp:408] ip1_relu1_0_split <- ip1
I0428 20:14:02.001368 32586 net.cpp:382] ip1_relu1_0_split -> ip1_relu1_0_split_0
I0428 20:14:02.001374 32586 net.cpp:382] ip1_relu1_0_split -> ip1_relu1_0_split_1
I0428 20:14:02.001430 32586 net.cpp:124] Setting up ip1_relu1_0_split
I0428 20:14:02.001437 32586 net.cpp:131] Top shape: 100 10 (1000)
I0428 20:14:02.001443 32586 net.cpp:131] Top shape: 100 10 (1000)
I0428 20:14:02.001446 32586 net.cpp:139] Memory required for data: 14794800
I0428 20:14:02.001451 32586 layer_factory.hpp:77] Creating layer accuracy
I0428 20:14:02.001456 32586 net.cpp:86] Creating Layer accuracy
I0428 20:14:02.001461 32586 net.cpp:408] accuracy <- ip1_relu1_0_split_0
I0428 20:14:02.001466 32586 net.cpp:408] accuracy <- label_mnist_1_split_0
I0428 20:14:02.001471 32586 net.cpp:382] accuracy -> accuracy
…
