…
I0428 20:28:48.068792  3431 net.cpp:296] The NetState phase (0) differed from the phase (1) specified by a rule in layer mnist
I0428 20:28:48.068826  3431 net.cpp:296] The NetState phase (0) differed from the phase (1) specified by a rule in layer accuracy
I0428 20:28:48.068940  3431 net.cpp:53] Initializing net from parameters: 
name: "LeNet"
state {
  phase: TRAIN
  level: 0
  stage: ""
}
layer {
  name: "mnist"
  type: "Data"
  top: "data"
  top: "label"
  include {
    phase: TRAIN
  }
  transform_param {
    scale: 0.00390625
  }
  data_param {
    source: "examples/mnist/mnist_train_lmdb"
    batch_size: 64
    backend: LMDB
  }
}
layer {
  name: "conv0"
  type: "Convolution"
  bottom: "data"
  top: "conv0"
  param {
    lr_mult: 1
  }
  param {
    lr_mult: 2
  }
  convolution_param {
    num_output: 100
    kernel_size: 5
    stride: 1
    weight_filler {
      type: "xavier"
    }
    bias_filler {
      type: "constant"
    }
  }
}
layer {
  name: "pool0"
  type: "Pooling"
  bottom: "conv0"
  top: "pool0"
  pooling_param {
    pool: MAX
    kernel_size: 2
    stride: 2
  }
}
layer {
  name: "conv1"
  type: "Convolution"
  bottom: "pool0"
  top: "conv1"
  param {
    lr_mult: 1
  }
  param {
    lr_mult: 2
  }
  convolution_param {
    num_output: 5
    kernel_size: 5
    stride: 1
    weight_filler {
      type: "xavier"
    }
    bias_filler {
      type: "constant"
    }
  }
}
layer {
  name: "pool1"
  type: "Pooling"
  bottom: "conv1"
  top: "pool1"
  pooling_param {
    pool: MAX
    kernel_size: 2
    stride: 2
  }
}
layer {
  name: "ip1"
  type: "InnerProduct"
  bottom: "pool1"
  top: "ip1"
  param {
    lr_mult: 1
  }
  param {
    lr_mult: 2
  }
  inner_product_param {
    num_output: 25
    weight_filler {
      type: "xavier"
    }
    bias_filler {
      type: "constant"
    }
  }
}
layer {
  name: "relu1"
  type: "ReLU"
  bottom: "ip1"
  top: "ip1"
}
layer {
  name: "ip2"
  type: "InnerProduct"
  bottom: "ip1"
  top: "ip2"
  param {
    lr_mult: 1
  }
  param {
    lr_mult: 2
  }
  inner_product_param {
    num_output: 50
    weight_filler {
      type: "xavier"
    }
    bias_filler {
      type: "constant"
    }
  }
}
layer {
  name: "relu2"
  type: "ReLU"
  bottom: "ip2"
  top: "ip2"
}
layer {
  name: "ip3"
  type: "InnerProduct"
  bottom: "ip2"
  top: "ip3"
  param {
    lr_mult: 1
  }
  param {
    lr_mult: 2
  }
  inner_product_param {
    num_output: 10
    weight_filler {
      type: "xavier"
    }
    bias_filler {
      type: "constant"
    }
  }
}
layer {
  name: "relu3"
  type: "ReLU"
  bottom: "ip3"
  top: "ip3"
}
layer {
  name: "loss"
  type: "SoftmaxWithLoss"
  bottom: "ip3"
  bottom: "label"
  top: "loss"
}
I0428 20:28:48.069056  3431 layer_factory.hpp:77] Creating layer mnist
I0428 20:28:48.069188  3431 db_lmdb.cpp:35] Opened lmdb examples/mnist/mnist_train_lmdb
I0428 20:28:48.069222  3431 net.cpp:86] Creating Layer mnist
I0428 20:28:48.069238  3431 net.cpp:382] mnist -> data
I0428 20:28:48.069269  3431 net.cpp:382] mnist -> label
I0428 20:28:48.070531  3431 data_layer.cpp:45] output data size: 64,1,28,28
I0428 20:28:48.073012  3431 net.cpp:124] Setting up mnist
I0428 20:28:48.073032  3431 net.cpp:131] Top shape: 64 1 28 28 (50176)
I0428 20:28:48.073042  3431 net.cpp:131] Top shape: 64 (64)
I0428 20:28:48.073050  3431 net.cpp:139] Memory required for data: 200960
I0428 20:28:48.073060  3431 layer_factory.hpp:77] Creating layer conv0
I0428 20:28:48.073083  3431 net.cpp:86] Creating Layer conv0
I0428 20:28:48.073110  3431 net.cpp:408] conv0 <- data
I0428 20:28:48.073132  3431 net.cpp:382] conv0 -> conv0
I0428 20:28:48.361270  3431 net.cpp:124] Setting up conv0
I0428 20:28:48.361300  3431 net.cpp:131] Top shape: 64 100 24 24 (3686400)
I0428 20:28:48.361306  3431 net.cpp:139] Memory required for data: 14946560
I0428 20:28:48.361327  3431 layer_factory.hpp:77] Creating layer pool0
I0428 20:28:48.361344  3431 net.cpp:86] Creating Layer pool0
I0428 20:28:48.361357  3431 net.cpp:408] pool0 <- conv0
I0428 20:28:48.361367  3431 net.cpp:382] pool0 -> pool0
I0428 20:28:48.361424  3431 net.cpp:124] Setting up pool0
I0428 20:28:48.361433  3431 net.cpp:131] Top shape: 64 100 12 12 (921600)
I0428 20:28:48.361438  3431 net.cpp:139] Memory required for data: 18632960
I0428 20:28:48.361443  3431 layer_factory.hpp:77] Creating layer conv1
I0428 20:28:48.361459  3431 net.cpp:86] Creating Layer conv1
I0428 20:28:48.361466  3431 net.cpp:408] conv1 <- pool0
I0428 20:28:48.361475  3431 net.cpp:382] conv1 -> conv1
I0428 20:28:48.364154  3431 net.cpp:124] Setting up conv1
I0428 20:28:48.364171  3431 net.cpp:131] Top shape: 64 5 8 8 (20480)
I0428 20:28:48.364176  3431 net.cpp:139] Memory required for data: 18714880
I0428 20:28:48.364188  3431 layer_factory.hpp:77] Creating layer pool1
I0428 20:28:48.364204  3431 net.cpp:86] Creating Layer pool1
I0428 20:28:48.364214  3431 net.cpp:408] pool1 <- conv1
I0428 20:28:48.364223  3431 net.cpp:382] pool1 -> pool1
I0428 20:28:48.364269  3431 net.cpp:124] Setting up pool1
I0428 20:28:48.364277  3431 net.cpp:131] Top shape: 64 5 4 4 (5120)
I0428 20:28:48.364282  3431 net.cpp:139] Memory required for data: 18735360
I0428 20:28:48.364287  3431 layer_factory.hpp:77] Creating layer ip1
I0428 20:28:48.364300  3431 net.cpp:86] Creating Layer ip1
I0428 20:28:48.364308  3431 net.cpp:408] ip1 <- pool1
I0428 20:28:48.364317  3431 net.cpp:382] ip1 -> ip1
I0428 20:28:48.364440  3431 net.cpp:124] Setting up ip1
I0428 20:28:48.364449  3431 net.cpp:131] Top shape: 64 25 (1600)
I0428 20:28:48.364454  3431 net.cpp:139] Memory required for data: 18741760
I0428 20:28:48.364466  3431 layer_factory.hpp:77] Creating layer relu1
I0428 20:28:48.364480  3431 net.cpp:86] Creating Layer relu1
I0428 20:28:48.364485  3431 net.cpp:408] relu1 <- ip1
I0428 20:28:48.364495  3431 net.cpp:369] relu1 -> ip1 (in-place)
I0428 20:28:48.364671  3431 net.cpp:124] Setting up relu1
I0428 20:28:48.364681  3431 net.cpp:131] Top shape: 64 25 (1600)
I0428 20:28:48.364686  3431 net.cpp:139] Memory required for data: 18748160
I0428 20:28:48.364691  3431 layer_factory.hpp:77] Creating layer ip2
I0428 20:28:48.364703  3431 net.cpp:86] Creating Layer ip2
I0428 20:28:48.364708  3431 net.cpp:408] ip2 <- ip1
I0428 20:28:48.364717  3431 net.cpp:382] ip2 -> ip2
I0428 20:28:48.364842  3431 net.cpp:124] Setting up ip2
I0428 20:28:48.364851  3431 net.cpp:131] Top shape: 64 50 (3200)
I0428 20:28:48.364856  3431 net.cpp:139] Memory required for data: 18760960
I0428 20:28:48.364864  3431 layer_factory.hpp:77] Creating layer relu2
I0428 20:28:48.364876  3431 net.cpp:86] Creating Layer relu2
I0428 20:28:48.364883  3431 net.cpp:408] relu2 <- ip2
I0428 20:28:48.364890  3431 net.cpp:369] relu2 -> ip2 (in-place)
I0428 20:28:48.365722  3431 net.cpp:124] Setting up relu2
I0428 20:28:48.365736  3431 net.cpp:131] Top shape: 64 50 (3200)
I0428 20:28:48.365741  3431 net.cpp:139] Memory required for data: 18773760
I0428 20:28:48.365746  3431 layer_factory.hpp:77] Creating layer ip3
I0428 20:28:48.365761  3431 net.cpp:86] Creating Layer ip3
I0428 20:28:48.365767  3431 net.cpp:408] ip3 <- ip2
I0428 20:28:48.365775  3431 net.cpp:382] ip3 -> ip3
I0428 20:28:48.365887  3431 net.cpp:124] Setting up ip3
I0428 20:28:48.365896  3431 net.cpp:131] Top shape: 64 10 (640)
I0428 20:28:48.365901  3431 net.cpp:139] Memory required for data: 18776320
I0428 20:28:48.365914  3431 layer_factory.hpp:77] Creating layer relu3
I0428 20:28:48.365923  3431 net.cpp:86] Creating Layer relu3
I0428 20:28:48.365929  3431 net.cpp:408] relu3 <- ip3
I0428 20:28:48.365937  3431 net.cpp:369] relu3 -> ip3 (in-place)
I0428 20:28:48.366117  3431 net.cpp:124] Setting up relu3
I0428 20:28:48.366127  3431 net.cpp:131] Top shape: 64 10 (640)
I0428 20:28:48.366132  3431 net.cpp:139] Memory required for data: 18778880
I0428 20:28:48.366137  3431 layer_factory.hpp:77] Creating layer loss
I0428 20:28:48.366145  3431 net.cpp:86] Creating Layer loss
I0428 20:28:48.366150  3431 net.cpp:408] loss <- ip3
I0428 20:28:48.366158  3431 net.cpp:408] loss <- label
I0428 20:28:48.366168  3431 net.cpp:382] loss -> loss
I0428 20:28:48.366191  3431 layer_factory.hpp:77] Creating layer loss
…
I0428 20:28:48.366919  3431 solver.cpp:173] Creating test net (#0) specified by net file: ECE595/mnist/train_test/var_everything2/lenet_train_test1511.prototxt
I0428 20:28:48.366963  3431 net.cpp:296] The NetState phase (1) differed from the phase (0) specified by a rule in layer mnist
I0428 20:28:48.367065  3431 net.cpp:53] Initializing net from parameters: 
name: "LeNet"
state {
  phase: TEST
}
layer {
  name: "mnist"
  type: "Data"
  top: "data"
  top: "label"
  include {
    phase: TEST
  }
  transform_param {
    scale: 0.00390625
  }
  data_param {
    source: "examples/mnist/mnist_test_lmdb"
    batch_size: 100
    backend: LMDB
  }
}
layer {
  name: "conv0"
  type: "Convolution"
  bottom: "data"
  top: "conv0"
  param {
    lr_mult: 1
  }
  param {
    lr_mult: 2
  }
  convolution_param {
    num_output: 100
    kernel_size: 5
    stride: 1
    weight_filler {
      type: "xavier"
    }
    bias_filler {
      type: "constant"
    }
  }
}
layer {
  name: "pool0"
  type: "Pooling"
  bottom: "conv0"
  top: "pool0"
  pooling_param {
    pool: MAX
    kernel_size: 2
    stride: 2
  }
}
layer {
  name: "conv1"
  type: "Convolution"
  bottom: "pool0"
  top: "conv1"
  param {
    lr_mult: 1
  }
  param {
    lr_mult: 2
  }
  convolution_param {
    num_output: 5
    kernel_size: 5
    stride: 1
    weight_filler {
      type: "xavier"
    }
    bias_filler {
      type: "constant"
    }
  }
}
layer {
  name: "pool1"
  type: "Pooling"
  bottom: "conv1"
  top: "pool1"
  pooling_param {
    pool: MAX
    kernel_size: 2
    stride: 2
  }
}
layer {
  name: "ip1"
  type: "InnerProduct"
  bottom: "pool1"
  top: "ip1"
  param {
    lr_mult: 1
  }
  param {
    lr_mult: 2
  }
  inner_product_param {
    num_output: 25
    weight_filler {
      type: "xavier"
    }
    bias_filler {
      type: "constant"
    }
  }
}
layer {
  name: "relu1"
  type: "ReLU"
  bottom: "ip1"
  top: "ip1"
}
layer {
  name: "ip2"
  type: "InnerProduct"
  bottom: "ip1"
  top: "ip2"
  param {
    lr_mult: 1
  }
  param {
    lr_mult: 2
  }
  inner_product_param {
    num_output: 50
    weight_filler {
      type: "xavier"
    }
    bias_filler {
      type: "constant"
    }
  }
}
layer {
  name: "relu2"
  type: "ReLU"
  bottom: "ip2"
  top: "ip2"
}
layer {
  name: "ip3"
  type: "InnerProduct"
  bottom: "ip2"
  top: "ip3"
  param {
    lr_mult: 1
  }
  param {
    lr_mult: 2
  }
  inner_product_param {
    num_output: 10
    weight_filler {
      type: "xavier"
    }
    bias_filler {
      type: "constant"
    }
  }
}
layer {
  name: "relu3"
  type: "ReLU"
  bottom: "ip3"
  top: "ip3"
}
layer {
  name: "accuracy"
  type: "Accuracy"
  bottom: "ip3"
  bottom: "label"
  top: "accuracy"
  include {
    phase: TEST
  }
}
layer {
  name: "loss"
  type: "SoftmaxWithLoss"
  bottom: "ip3"
  bottom: "label"
  top: "loss"
}
I0428 20:28:48.367190  3431 layer_factory.hpp:77] Creating layer mnist
I0428 20:28:48.367264  3431 db_lmdb.cpp:35] Opened lmdb examples/mnist/mnist_test_lmdb
I0428 20:28:48.367280  3431 net.cpp:86] Creating Layer mnist
I0428 20:28:48.367290  3431 net.cpp:382] mnist -> data
I0428 20:28:48.367300  3431 net.cpp:382] mnist -> label
I0428 20:28:48.367421  3431 data_layer.cpp:45] output data size: 100,1,28,28
I0428 20:28:48.369611  3431 net.cpp:124] Setting up mnist
I0428 20:28:48.369626  3431 net.cpp:131] Top shape: 100 1 28 28 (78400)
I0428 20:28:48.369634  3431 net.cpp:131] Top shape: 100 (100)
I0428 20:28:48.369638  3431 net.cpp:139] Memory required for data: 314000
I0428 20:28:48.369644  3431 layer_factory.hpp:77] Creating layer label_mnist_1_split
I0428 20:28:48.369660  3431 net.cpp:86] Creating Layer label_mnist_1_split
I0428 20:28:48.369668  3431 net.cpp:408] label_mnist_1_split <- label
I0428 20:28:48.369676  3431 net.cpp:382] label_mnist_1_split -> label_mnist_1_split_0
I0428 20:28:48.369686  3431 net.cpp:382] label_mnist_1_split -> label_mnist_1_split_1
I0428 20:28:48.369783  3431 net.cpp:124] Setting up label_mnist_1_split
I0428 20:28:48.369792  3431 net.cpp:131] Top shape: 100 (100)
I0428 20:28:48.369799  3431 net.cpp:131] Top shape: 100 (100)
I0428 20:28:48.369806  3431 net.cpp:139] Memory required for data: 314800
I0428 20:28:48.369810  3431 layer_factory.hpp:77] Creating layer conv0
I0428 20:28:48.369825  3431 net.cpp:86] Creating Layer conv0
I0428 20:28:48.369832  3431 net.cpp:408] conv0 <- data
I0428 20:28:48.369841  3431 net.cpp:382] conv0 -> conv0
I0428 20:28:48.371356  3431 net.cpp:124] Setting up conv0
I0428 20:28:48.371371  3431 net.cpp:131] Top shape: 100 100 24 24 (5760000)
I0428 20:28:48.371377  3431 net.cpp:139] Memory required for data: 23354800
I0428 20:28:48.371393  3431 layer_factory.hpp:77] Creating layer pool0
I0428 20:28:48.371404  3431 net.cpp:86] Creating Layer pool0
I0428 20:28:48.371412  3431 net.cpp:408] pool0 <- conv0
I0428 20:28:48.371419  3431 net.cpp:382] pool0 -> pool0
I0428 20:28:48.371465  3431 net.cpp:124] Setting up pool0
I0428 20:28:48.371474  3431 net.cpp:131] Top shape: 100 100 12 12 (1440000)
I0428 20:28:48.371479  3431 net.cpp:139] Memory required for data: 29114800
I0428 20:28:48.371484  3431 layer_factory.hpp:77] Creating layer conv1
I0428 20:28:48.371497  3431 net.cpp:86] Creating Layer conv1
I0428 20:28:48.371503  3431 net.cpp:408] conv1 <- pool0
I0428 20:28:48.371515  3431 net.cpp:382] conv1 -> conv1
I0428 20:28:48.373244  3431 net.cpp:124] Setting up conv1
I0428 20:28:48.373260  3431 net.cpp:131] Top shape: 100 5 8 8 (32000)
I0428 20:28:48.373266  3431 net.cpp:139] Memory required for data: 29242800
I0428 20:28:48.373280  3431 layer_factory.hpp:77] Creating layer pool1
I0428 20:28:48.373296  3431 net.cpp:86] Creating Layer pool1
I0428 20:28:48.373307  3431 net.cpp:408] pool1 <- conv1
I0428 20:28:48.373317  3431 net.cpp:382] pool1 -> pool1
I0428 20:28:48.373360  3431 net.cpp:124] Setting up pool1
I0428 20:28:48.373368  3431 net.cpp:131] Top shape: 100 5 4 4 (8000)
I0428 20:28:48.373373  3431 net.cpp:139] Memory required for data: 29274800
I0428 20:28:48.373387  3431 layer_factory.hpp:77] Creating layer ip1
I0428 20:28:48.373399  3431 net.cpp:86] Creating Layer ip1
I0428 20:28:48.373404  3431 net.cpp:408] ip1 <- pool1
I0428 20:28:48.373412  3431 net.cpp:382] ip1 -> ip1
I0428 20:28:48.373531  3431 net.cpp:124] Setting up ip1
I0428 20:28:48.373541  3431 net.cpp:131] Top shape: 100 25 (2500)
I0428 20:28:48.373558  3431 net.cpp:139] Memory required for data: 29284800
I0428 20:28:48.373580  3431 layer_factory.hpp:77] Creating layer relu1
I0428 20:28:48.373594  3431 net.cpp:86] Creating Layer relu1
I0428 20:28:48.373600  3431 net.cpp:408] relu1 <- ip1
I0428 20:28:48.373608  3431 net.cpp:369] relu1 -> ip1 (in-place)
I0428 20:28:48.373795  3431 net.cpp:124] Setting up relu1
I0428 20:28:48.373806  3431 net.cpp:131] Top shape: 100 25 (2500)
I0428 20:28:48.373811  3431 net.cpp:139] Memory required for data: 29294800
I0428 20:28:48.373816  3431 layer_factory.hpp:77] Creating layer ip2
I0428 20:28:48.373829  3431 net.cpp:86] Creating Layer ip2
I0428 20:28:48.373834  3431 net.cpp:408] ip2 <- ip1
I0428 20:28:48.373847  3431 net.cpp:382] ip2 -> ip2
I0428 20:28:48.373975  3431 net.cpp:124] Setting up ip2
I0428 20:28:48.373983  3431 net.cpp:131] Top shape: 100 50 (5000)
I0428 20:28:48.373987  3431 net.cpp:139] Memory required for data: 29314800
I0428 20:28:48.373996  3431 layer_factory.hpp:77] Creating layer relu2
I0428 20:28:48.374004  3431 net.cpp:86] Creating Layer relu2
I0428 20:28:48.374009  3431 net.cpp:408] relu2 <- ip2
I0428 20:28:48.374017  3431 net.cpp:369] relu2 -> ip2 (in-place)
I0428 20:28:48.374259  3431 net.cpp:124] Setting up relu2
I0428 20:28:48.374269  3431 net.cpp:131] Top shape: 100 50 (5000)
I0428 20:28:48.374275  3431 net.cpp:139] Memory required for data: 29334800
I0428 20:28:48.374280  3431 layer_factory.hpp:77] Creating layer ip3
I0428 20:28:48.374289  3431 net.cpp:86] Creating Layer ip3
I0428 20:28:48.374294  3431 net.cpp:408] ip3 <- ip2
I0428 20:28:48.374305  3431 net.cpp:382] ip3 -> ip3
I0428 20:28:48.374418  3431 net.cpp:124] Setting up ip3
I0428 20:28:48.374428  3431 net.cpp:131] Top shape: 100 10 (1000)
I0428 20:28:48.374431  3431 net.cpp:139] Memory required for data: 29338800
I0428 20:28:48.374444  3431 layer_factory.hpp:77] Creating layer relu3
I0428 20:28:48.374452  3431 net.cpp:86] Creating Layer relu3
I0428 20:28:48.374460  3431 net.cpp:408] relu3 <- ip3
I0428 20:28:48.374469  3431 net.cpp:369] relu3 -> ip3 (in-place)
I0428 20:28:48.375226  3431 net.cpp:124] Setting up relu3
I0428 20:28:48.375238  3431 net.cpp:131] Top shape: 100 10 (1000)
I0428 20:28:48.375243  3431 net.cpp:139] Memory required for data: 29342800
I0428 20:28:48.375248  3431 layer_factory.hpp:77] Creating layer ip3_relu3_0_split
I0428 20:28:48.375257  3431 net.cpp:86] Creating Layer ip3_relu3_0_split
I0428 20:28:48.375262  3431 net.cpp:408] ip3_relu3_0_split <- ip3
I0428 20:28:48.375272  3431 net.cpp:382] ip3_relu3_0_split -> ip3_relu3_0_split_0
I0428 20:28:48.375283  3431 net.cpp:382] ip3_relu3_0_split -> ip3_relu3_0_split_1
I0428 20:28:48.375361  3431 net.cpp:124] Setting up ip3_relu3_0_split
I0428 20:28:48.375370  3431 net.cpp:131] Top shape: 100 10 (1000)
I0428 20:28:48.375375  3431 net.cpp:131] Top shape: 100 10 (1000)
I0428 20:28:48.375380  3431 net.cpp:139] Memory required for data: 29350800
I0428 20:28:48.375385  3431 layer_factory.hpp:77] Creating layer accuracy
I0428 20:28:48.375396  3431 net.cpp:86] Creating Layer accuracy
I0428 20:28:48.375401  3431 net.cpp:408] accuracy <- ip3_relu3_0_split_0
I0428 20:28:48.375408  3431 net.cpp:408] accuracy <- label_mnist_1_split_0
I0428 20:28:48.375417  3431 net.cpp:382] accuracy -> accuracy
…
