…
I0428 19:35:41.843178 23550 net.cpp:296] The NetState phase (0) differed from the phase (1) specified by a rule in layer mnist
I0428 19:35:41.843199 23550 net.cpp:296] The NetState phase (0) differed from the phase (1) specified by a rule in layer accuracy
I0428 19:35:41.843291 23550 net.cpp:53] Initializing net from parameters: 
name: "LeNet"
state {
  phase: TRAIN
  level: 0
  stage: ""
}
layer {
  name: "mnist"
  type: "Data"
  top: "data"
  top: "label"
  include {
    phase: TRAIN
  }
  transform_param {
    scale: 0.00390625
  }
  data_param {
    source: "examples/mnist/mnist_train_lmdb"
    batch_size: 64
    backend: LMDB
  }
}
layer {
  name: "conv0"
  type: "Convolution"
  bottom: "data"
  top: "conv0"
  param {
    lr_mult: 1
  }
  param {
    lr_mult: 2
  }
  convolution_param {
    num_output: 50
    kernel_size: 5
    stride: 1
    weight_filler {
      type: "xavier"
    }
    bias_filler {
      type: "constant"
    }
  }
}
layer {
  name: "pool0"
  type: "Pooling"
  bottom: "conv0"
  top: "pool0"
  pooling_param {
    pool: MAX
    kernel_size: 2
    stride: 2
  }
}
layer {
  name: "ip1"
  type: "InnerProduct"
  bottom: "pool0"
  top: "ip1"
  param {
    lr_mult: 1
  }
  param {
    lr_mult: 2
  }
  inner_product_param {
    num_output: 50
    weight_filler {
      type: "xavier"
    }
    bias_filler {
      type: "constant"
    }
  }
}
layer {
  name: "relu1"
  type: "ReLU"
  bottom: "ip1"
  top: "ip1"
}
layer {
  name: "ip2"
  type: "InnerProduct"
  bottom: "ip1"
  top: "ip2"
  param {
    lr_mult: 1
  }
  param {
    lr_mult: 2
  }
  inner_product_param {
    num_output: 25
    weight_filler {
      type: "xavier"
    }
    bias_filler {
      type: "constant"
    }
  }
}
layer {
  name: "relu2"
  type: "ReLU"
  bottom: "ip2"
  top: "ip2"
}
layer {
  name: "ip3"
  type: "InnerProduct"
  bottom: "ip2"
  top: "ip3"
  param {
    lr_mult: 1
  }
  param {
    lr_mult: 2
  }
  inner_product_param {
    num_output: 10
    weight_filler {
      type: "xavier"
    }
    bias_filler {
      type: "constant"
    }
  }
}
layer {
  name: "relu3"
  type: "ReLU"
  bottom: "ip3"
  top: "ip3"
}
layer {
  name: "loss"
  type: "SoftmaxWithLoss"
  bottom: "ip3"
  bottom: "label"
  top: "loss"
}
I0428 19:35:41.843385 23550 layer_factory.hpp:77] Creating layer mnist
I0428 19:35:41.843514 23550 db_lmdb.cpp:35] Opened lmdb examples/mnist/mnist_train_lmdb
I0428 19:35:41.843546 23550 net.cpp:86] Creating Layer mnist
I0428 19:35:41.843559 23550 net.cpp:382] mnist -> data
I0428 19:35:41.843588 23550 net.cpp:382] mnist -> label
I0428 19:35:41.844780 23550 data_layer.cpp:45] output data size: 64,1,28,28
I0428 19:35:41.847200 23550 net.cpp:124] Setting up mnist
I0428 19:35:41.847220 23550 net.cpp:131] Top shape: 64 1 28 28 (50176)
I0428 19:35:41.847231 23550 net.cpp:131] Top shape: 64 (64)
I0428 19:35:41.847237 23550 net.cpp:139] Memory required for data: 200960
I0428 19:35:41.847249 23550 layer_factory.hpp:77] Creating layer conv0
I0428 19:35:41.847270 23550 net.cpp:86] Creating Layer conv0
I0428 19:35:41.847280 23550 net.cpp:408] conv0 <- data
I0428 19:35:41.847298 23550 net.cpp:382] conv0 -> conv0
I0428 19:35:42.133685 23550 net.cpp:124] Setting up conv0
I0428 19:35:42.133715 23550 net.cpp:131] Top shape: 64 50 24 24 (1843200)
I0428 19:35:42.133721 23550 net.cpp:139] Memory required for data: 7573760
I0428 19:35:42.133743 23550 layer_factory.hpp:77] Creating layer pool0
I0428 19:35:42.133759 23550 net.cpp:86] Creating Layer pool0
I0428 19:35:42.133783 23550 net.cpp:408] pool0 <- conv0
I0428 19:35:42.133795 23550 net.cpp:382] pool0 -> pool0
I0428 19:35:42.133853 23550 net.cpp:124] Setting up pool0
I0428 19:35:42.133862 23550 net.cpp:131] Top shape: 64 50 12 12 (460800)
I0428 19:35:42.133868 23550 net.cpp:139] Memory required for data: 9416960
I0428 19:35:42.133873 23550 layer_factory.hpp:77] Creating layer ip1
I0428 19:35:42.133885 23550 net.cpp:86] Creating Layer ip1
I0428 19:35:42.133894 23550 net.cpp:408] ip1 <- pool0
I0428 19:35:42.133903 23550 net.cpp:382] ip1 -> ip1
I0428 19:35:42.136906 23550 net.cpp:124] Setting up ip1
I0428 19:35:42.136921 23550 net.cpp:131] Top shape: 64 50 (3200)
I0428 19:35:42.136927 23550 net.cpp:139] Memory required for data: 9429760
I0428 19:35:42.136955 23550 layer_factory.hpp:77] Creating layer relu1
I0428 19:35:42.136967 23550 net.cpp:86] Creating Layer relu1
I0428 19:35:42.136975 23550 net.cpp:408] relu1 <- ip1
I0428 19:35:42.136982 23550 net.cpp:369] relu1 -> ip1 (in-place)
I0428 19:35:42.137207 23550 net.cpp:124] Setting up relu1
I0428 19:35:42.137219 23550 net.cpp:131] Top shape: 64 50 (3200)
I0428 19:35:42.137224 23550 net.cpp:139] Memory required for data: 9442560
I0428 19:35:42.137230 23550 layer_factory.hpp:77] Creating layer ip2
I0428 19:35:42.137240 23550 net.cpp:86] Creating Layer ip2
I0428 19:35:42.137246 23550 net.cpp:408] ip2 <- ip1
I0428 19:35:42.137257 23550 net.cpp:382] ip2 -> ip2
I0428 19:35:42.137382 23550 net.cpp:124] Setting up ip2
I0428 19:35:42.137390 23550 net.cpp:131] Top shape: 64 25 (1600)
I0428 19:35:42.137394 23550 net.cpp:139] Memory required for data: 9448960
I0428 19:35:42.137409 23550 layer_factory.hpp:77] Creating layer relu2
I0428 19:35:42.137418 23550 net.cpp:86] Creating Layer relu2
I0428 19:35:42.137424 23550 net.cpp:408] relu2 <- ip2
I0428 19:35:42.137434 23550 net.cpp:369] relu2 -> ip2 (in-place)
I0428 19:35:42.138188 23550 net.cpp:124] Setting up relu2
I0428 19:35:42.138203 23550 net.cpp:131] Top shape: 64 25 (1600)
I0428 19:35:42.138208 23550 net.cpp:139] Memory required for data: 9455360
I0428 19:35:42.138213 23550 layer_factory.hpp:77] Creating layer ip3
I0428 19:35:42.138224 23550 net.cpp:86] Creating Layer ip3
I0428 19:35:42.138229 23550 net.cpp:408] ip3 <- ip2
I0428 19:35:42.138240 23550 net.cpp:382] ip3 -> ip3
I0428 19:35:42.138353 23550 net.cpp:124] Setting up ip3
I0428 19:35:42.138363 23550 net.cpp:131] Top shape: 64 10 (640)
I0428 19:35:42.138368 23550 net.cpp:139] Memory required for data: 9457920
I0428 19:35:42.138377 23550 layer_factory.hpp:77] Creating layer relu3
I0428 19:35:42.138388 23550 net.cpp:86] Creating Layer relu3
I0428 19:35:42.138394 23550 net.cpp:408] relu3 <- ip3
I0428 19:35:42.138403 23550 net.cpp:369] relu3 -> ip3 (in-place)
I0428 19:35:42.138568 23550 net.cpp:124] Setting up relu3
I0428 19:35:42.138578 23550 net.cpp:131] Top shape: 64 10 (640)
I0428 19:35:42.138583 23550 net.cpp:139] Memory required for data: 9460480
I0428 19:35:42.138588 23550 layer_factory.hpp:77] Creating layer loss
I0428 19:35:42.138597 23550 net.cpp:86] Creating Layer loss
I0428 19:35:42.138604 23550 net.cpp:408] loss <- ip3
I0428 19:35:42.138610 23550 net.cpp:408] loss <- label
I0428 19:35:42.138619 23550 net.cpp:382] loss -> loss
I0428 19:35:42.138643 23550 layer_factory.hpp:77] Creating layer loss
…
I0428 19:35:42.139303 23550 solver.cpp:173] Creating test net (#0) specified by net file: ECE595/mnist/train_test/var_everything2/lenet_train_test230.prototxt
I0428 19:35:42.139336 23550 net.cpp:296] The NetState phase (1) differed from the phase (0) specified by a rule in layer mnist
I0428 19:35:42.139425 23550 net.cpp:53] Initializing net from parameters: 
name: "LeNet"
state {
  phase: TEST
}
layer {
  name: "mnist"
  type: "Data"
  top: "data"
  top: "label"
  include {
    phase: TEST
  }
  transform_param {
    scale: 0.00390625
  }
  data_param {
    source: "examples/mnist/mnist_test_lmdb"
    batch_size: 100
    backend: LMDB
  }
}
layer {
  name: "conv0"
  type: "Convolution"
  bottom: "data"
  top: "conv0"
  param {
    lr_mult: 1
  }
  param {
    lr_mult: 2
  }
  convolution_param {
    num_output: 50
    kernel_size: 5
    stride: 1
    weight_filler {
      type: "xavier"
    }
    bias_filler {
      type: "constant"
    }
  }
}
layer {
  name: "pool0"
  type: "Pooling"
  bottom: "conv0"
  top: "pool0"
  pooling_param {
    pool: MAX
    kernel_size: 2
    stride: 2
  }
}
layer {
  name: "ip1"
  type: "InnerProduct"
  bottom: "pool0"
  top: "ip1"
  param {
    lr_mult: 1
  }
  param {
    lr_mult: 2
  }
  inner_product_param {
    num_output: 50
    weight_filler {
      type: "xavier"
    }
    bias_filler {
      type: "constant"
    }
  }
}
layer {
  name: "relu1"
  type: "ReLU"
  bottom: "ip1"
  top: "ip1"
}
layer {
  name: "ip2"
  type: "InnerProduct"
  bottom: "ip1"
  top: "ip2"
  param {
    lr_mult: 1
  }
  param {
    lr_mult: 2
  }
  inner_product_param {
    num_output: 25
    weight_filler {
      type: "xavier"
    }
    bias_filler {
      type: "constant"
    }
  }
}
layer {
  name: "relu2"
  type: "ReLU"
  bottom: "ip2"
  top: "ip2"
}
layer {
  name: "ip3"
  type: "InnerProduct"
  bottom: "ip2"
  top: "ip3"
  param {
    lr_mult: 1
  }
  param {
    lr_mult: 2
  }
  inner_product_param {
    num_output: 10
    weight_filler {
      type: "xavier"
    }
    bias_filler {
      type: "constant"
    }
  }
}
layer {
  name: "relu3"
  type: "ReLU"
  bottom: "ip3"
  top: "ip3"
}
layer {
  name: "accuracy"
  type: "Accuracy"
  bottom: "ip3"
  bottom: "label"
  top: "accuracy"
  include {
    phase: TEST
  }
}
layer {
  name: "loss"
  type: "SoftmaxWithLoss"
  bottom: "ip3"
  bottom: "label"
  top: "loss"
}
I0428 19:35:42.139533 23550 layer_factory.hpp:77] Creating layer mnist
I0428 19:35:42.139595 23550 db_lmdb.cpp:35] Opened lmdb examples/mnist/mnist_test_lmdb
I0428 19:35:42.139611 23550 net.cpp:86] Creating Layer mnist
I0428 19:35:42.139618 23550 net.cpp:382] mnist -> data
I0428 19:35:42.139632 23550 net.cpp:382] mnist -> label
I0428 19:35:42.139758 23550 data_layer.cpp:45] output data size: 100,1,28,28
I0428 19:35:42.141755 23550 net.cpp:124] Setting up mnist
I0428 19:35:42.141770 23550 net.cpp:131] Top shape: 100 1 28 28 (78400)
I0428 19:35:42.141779 23550 net.cpp:131] Top shape: 100 (100)
I0428 19:35:42.141783 23550 net.cpp:139] Memory required for data: 314000
I0428 19:35:42.141788 23550 layer_factory.hpp:77] Creating layer label_mnist_1_split
I0428 19:35:42.141822 23550 net.cpp:86] Creating Layer label_mnist_1_split
I0428 19:35:42.141829 23550 net.cpp:408] label_mnist_1_split <- label
I0428 19:35:42.141836 23550 net.cpp:382] label_mnist_1_split -> label_mnist_1_split_0
I0428 19:35:42.141849 23550 net.cpp:382] label_mnist_1_split -> label_mnist_1_split_1
I0428 19:35:42.141945 23550 net.cpp:124] Setting up label_mnist_1_split
I0428 19:35:42.141954 23550 net.cpp:131] Top shape: 100 (100)
I0428 19:35:42.141962 23550 net.cpp:131] Top shape: 100 (100)
I0428 19:35:42.141965 23550 net.cpp:139] Memory required for data: 314800
I0428 19:35:42.141981 23550 layer_factory.hpp:77] Creating layer conv0
I0428 19:35:42.141996 23550 net.cpp:86] Creating Layer conv0
I0428 19:35:42.142002 23550 net.cpp:408] conv0 <- data
I0428 19:35:42.142024 23550 net.cpp:382] conv0 -> conv0
I0428 19:35:42.143625 23550 net.cpp:124] Setting up conv0
I0428 19:35:42.143641 23550 net.cpp:131] Top shape: 100 50 24 24 (2880000)
I0428 19:35:42.143647 23550 net.cpp:139] Memory required for data: 11834800
I0428 19:35:42.143661 23550 layer_factory.hpp:77] Creating layer pool0
I0428 19:35:42.143671 23550 net.cpp:86] Creating Layer pool0
I0428 19:35:42.143678 23550 net.cpp:408] pool0 <- conv0
I0428 19:35:42.143687 23550 net.cpp:382] pool0 -> pool0
I0428 19:35:42.143729 23550 net.cpp:124] Setting up pool0
I0428 19:35:42.143738 23550 net.cpp:131] Top shape: 100 50 12 12 (720000)
I0428 19:35:42.143743 23550 net.cpp:139] Memory required for data: 14714800
I0428 19:35:42.143746 23550 layer_factory.hpp:77] Creating layer ip1
I0428 19:35:42.143759 23550 net.cpp:86] Creating Layer ip1
I0428 19:35:42.143765 23550 net.cpp:408] ip1 <- pool0
I0428 19:35:42.143774 23550 net.cpp:382] ip1 -> ip1
I0428 19:35:42.146051 23550 net.cpp:124] Setting up ip1
I0428 19:35:42.146064 23550 net.cpp:131] Top shape: 100 50 (5000)
I0428 19:35:42.146069 23550 net.cpp:139] Memory required for data: 14734800
I0428 19:35:42.146080 23550 layer_factory.hpp:77] Creating layer relu1
I0428 19:35:42.146088 23550 net.cpp:86] Creating Layer relu1
I0428 19:35:42.146093 23550 net.cpp:408] relu1 <- ip1
I0428 19:35:42.146100 23550 net.cpp:369] relu1 -> ip1 (in-place)
I0428 19:35:42.146344 23550 net.cpp:124] Setting up relu1
I0428 19:35:42.146355 23550 net.cpp:131] Top shape: 100 50 (5000)
I0428 19:35:42.146360 23550 net.cpp:139] Memory required for data: 14754800
I0428 19:35:42.146365 23550 layer_factory.hpp:77] Creating layer ip2
I0428 19:35:42.146374 23550 net.cpp:86] Creating Layer ip2
I0428 19:35:42.146380 23550 net.cpp:408] ip2 <- ip1
I0428 19:35:42.146389 23550 net.cpp:382] ip2 -> ip2
I0428 19:35:42.146505 23550 net.cpp:124] Setting up ip2
I0428 19:35:42.146515 23550 net.cpp:131] Top shape: 100 25 (2500)
I0428 19:35:42.146520 23550 net.cpp:139] Memory required for data: 14764800
I0428 19:35:42.146533 23550 layer_factory.hpp:77] Creating layer relu2
I0428 19:35:42.146540 23550 net.cpp:86] Creating Layer relu2
I0428 19:35:42.146548 23550 net.cpp:408] relu2 <- ip2
I0428 19:35:42.146556 23550 net.cpp:369] relu2 -> ip2 (in-place)
I0428 19:35:42.147348 23550 net.cpp:124] Setting up relu2
I0428 19:35:42.147362 23550 net.cpp:131] Top shape: 100 25 (2500)
I0428 19:35:42.147367 23550 net.cpp:139] Memory required for data: 14774800
I0428 19:35:42.147372 23550 layer_factory.hpp:77] Creating layer ip3
I0428 19:35:42.147387 23550 net.cpp:86] Creating Layer ip3
I0428 19:35:42.147392 23550 net.cpp:408] ip3 <- ip2
I0428 19:35:42.147402 23550 net.cpp:382] ip3 -> ip3
I0428 19:35:42.147541 23550 net.cpp:124] Setting up ip3
I0428 19:35:42.147552 23550 net.cpp:131] Top shape: 100 10 (1000)
I0428 19:35:42.147557 23550 net.cpp:139] Memory required for data: 14778800
I0428 19:35:42.147567 23550 layer_factory.hpp:77] Creating layer relu3
I0428 19:35:42.147577 23550 net.cpp:86] Creating Layer relu3
I0428 19:35:42.147596 23550 net.cpp:408] relu3 <- ip3
I0428 19:35:42.147604 23550 net.cpp:369] relu3 -> ip3 (in-place)
I0428 19:35:42.147766 23550 net.cpp:124] Setting up relu3
I0428 19:35:42.147775 23550 net.cpp:131] Top shape: 100 10 (1000)
I0428 19:35:42.147781 23550 net.cpp:139] Memory required for data: 14782800
I0428 19:35:42.147786 23550 layer_factory.hpp:77] Creating layer ip3_relu3_0_split
I0428 19:35:42.147796 23550 net.cpp:86] Creating Layer ip3_relu3_0_split
I0428 19:35:42.147801 23550 net.cpp:408] ip3_relu3_0_split <- ip3
I0428 19:35:42.147809 23550 net.cpp:382] ip3_relu3_0_split -> ip3_relu3_0_split_0
I0428 19:35:42.147819 23550 net.cpp:382] ip3_relu3_0_split -> ip3_relu3_0_split_1
I0428 19:35:42.147862 23550 net.cpp:124] Setting up ip3_relu3_0_split
I0428 19:35:42.147869 23550 net.cpp:131] Top shape: 100 10 (1000)
I0428 19:35:42.147887 23550 net.cpp:131] Top shape: 100 10 (1000)
I0428 19:35:42.147892 23550 net.cpp:139] Memory required for data: 14790800
I0428 19:35:42.147897 23550 layer_factory.hpp:77] Creating layer accuracy
I0428 19:35:42.147905 23550 net.cpp:86] Creating Layer accuracy
I0428 19:35:42.147912 23550 net.cpp:408] accuracy <- ip3_relu3_0_split_0
I0428 19:35:42.147918 23550 net.cpp:408] accuracy <- label_mnist_1_split_0
I0428 19:35:42.147927 23550 net.cpp:382] accuracy -> accuracy
…
