…
I0428 20:11:40.847884 32119 net.cpp:296] The NetState phase (0) differed from the phase (1) specified by a rule in layer mnist
I0428 20:11:40.847904 32119 net.cpp:296] The NetState phase (0) differed from the phase (1) specified by a rule in layer accuracy
I0428 20:11:40.848009 32119 net.cpp:53] Initializing net from parameters: 
name: "LeNet"
state {
  phase: TRAIN
  level: 0
  stage: ""
}
layer {
  name: "mnist"
  type: "Data"
  top: "data"
  top: "label"
  include {
    phase: TRAIN
  }
  transform_param {
    scale: 0.00390625
  }
  data_param {
    source: "examples/mnist/mnist_train_lmdb"
    batch_size: 64
    backend: LMDB
  }
}
layer {
  name: "conv0"
  type: "Convolution"
  bottom: "data"
  top: "conv0"
  param {
    lr_mult: 1
  }
  param {
    lr_mult: 2
  }
  convolution_param {
    num_output: 25
    kernel_size: 5
    stride: 1
    weight_filler {
      type: "xavier"
    }
    bias_filler {
      type: "constant"
    }
  }
}
layer {
  name: "pool0"
  type: "Pooling"
  bottom: "conv0"
  top: "pool0"
  pooling_param {
    pool: MAX
    kernel_size: 2
    stride: 2
  }
}
layer {
  name: "conv1"
  type: "Convolution"
  bottom: "pool0"
  top: "conv1"
  param {
    lr_mult: 1
  }
  param {
    lr_mult: 2
  }
  convolution_param {
    num_output: 50
    kernel_size: 5
    stride: 1
    weight_filler {
      type: "xavier"
    }
    bias_filler {
      type: "constant"
    }
  }
}
layer {
  name: "pool1"
  type: "Pooling"
  bottom: "conv1"
  top: "pool1"
  pooling_param {
    pool: MAX
    kernel_size: 2
    stride: 2
  }
}
layer {
  name: "ip1"
  type: "InnerProduct"
  bottom: "pool1"
  top: "ip1"
  param {
    lr_mult: 1
  }
  param {
    lr_mult: 2
  }
  inner_product_param {
    num_output: 50
    weight_filler {
      type: "xavier"
    }
    bias_filler {
      type: "constant"
    }
  }
}
layer {
  name: "relu1"
  type: "ReLU"
  bottom: "ip1"
  top: "ip1"
}
layer {
  name: "ip2"
  type: "InnerProduct"
  bottom: "ip1"
  top: "ip2"
  param {
    lr_mult: 1
  }
  param {
    lr_mult: 2
  }
  inner_product_param {
    num_output: 25
    weight_filler {
      type: "xavier"
    }
    bias_filler {
      type: "constant"
    }
  }
}
layer {
  name: "relu2"
  type: "ReLU"
  bottom: "ip2"
  top: "ip2"
}
layer {
  name: "ip3"
  type: "InnerProduct"
  bottom: "ip2"
  top: "ip3"
  param {
    lr_mult: 1
  }
  param {
    lr_mult: 2
  }
  inner_product_param {
    num_output: 10
    weight_filler {
      type: "xavier"
    }
    bias_filler {
      type: "constant"
    }
  }
}
layer {
  name: "relu3"
  type: "ReLU"
  bottom: "ip3"
  top: "ip3"
}
layer {
  name: "loss"
  type: "SoftmaxWithLoss"
  bottom: "ip3"
  bottom: "label"
  top: "loss"
}
I0428 20:11:40.848091 32119 layer_factory.hpp:77] Creating layer mnist
I0428 20:11:40.848191 32119 db_lmdb.cpp:35] Opened lmdb examples/mnist/mnist_train_lmdb
I0428 20:11:40.848214 32119 net.cpp:86] Creating Layer mnist
I0428 20:11:40.848222 32119 net.cpp:382] mnist -> data
I0428 20:11:40.848245 32119 net.cpp:382] mnist -> label
I0428 20:11:40.849339 32119 data_layer.cpp:45] output data size: 64,1,28,28
I0428 20:11:40.851797 32119 net.cpp:124] Setting up mnist
I0428 20:11:40.851815 32119 net.cpp:131] Top shape: 64 1 28 28 (50176)
I0428 20:11:40.851822 32119 net.cpp:131] Top shape: 64 (64)
I0428 20:11:40.851825 32119 net.cpp:139] Memory required for data: 200960
I0428 20:11:40.851832 32119 layer_factory.hpp:77] Creating layer conv0
I0428 20:11:40.851873 32119 net.cpp:86] Creating Layer conv0
I0428 20:11:40.851897 32119 net.cpp:408] conv0 <- data
I0428 20:11:40.851908 32119 net.cpp:382] conv0 -> conv0
I0428 20:11:41.119470 32119 net.cpp:124] Setting up conv0
I0428 20:11:41.119513 32119 net.cpp:131] Top shape: 64 25 24 24 (921600)
I0428 20:11:41.119515 32119 net.cpp:139] Memory required for data: 3887360
I0428 20:11:41.119529 32119 layer_factory.hpp:77] Creating layer pool0
I0428 20:11:41.119542 32119 net.cpp:86] Creating Layer pool0
I0428 20:11:41.119546 32119 net.cpp:408] pool0 <- conv0
I0428 20:11:41.119567 32119 net.cpp:382] pool0 -> pool0
I0428 20:11:41.119609 32119 net.cpp:124] Setting up pool0
I0428 20:11:41.119616 32119 net.cpp:131] Top shape: 64 25 12 12 (230400)
I0428 20:11:41.119618 32119 net.cpp:139] Memory required for data: 4808960
I0428 20:11:41.119621 32119 layer_factory.hpp:77] Creating layer conv1
I0428 20:11:41.119632 32119 net.cpp:86] Creating Layer conv1
I0428 20:11:41.119634 32119 net.cpp:408] conv1 <- pool0
I0428 20:11:41.119639 32119 net.cpp:382] conv1 -> conv1
I0428 20:11:41.121903 32119 net.cpp:124] Setting up conv1
I0428 20:11:41.121933 32119 net.cpp:131] Top shape: 64 50 8 8 (204800)
I0428 20:11:41.121938 32119 net.cpp:139] Memory required for data: 5628160
I0428 20:11:41.121947 32119 layer_factory.hpp:77] Creating layer pool1
I0428 20:11:41.121955 32119 net.cpp:86] Creating Layer pool1
I0428 20:11:41.121959 32119 net.cpp:408] pool1 <- conv1
I0428 20:11:41.121964 32119 net.cpp:382] pool1 -> pool1
I0428 20:11:41.122028 32119 net.cpp:124] Setting up pool1
I0428 20:11:41.122040 32119 net.cpp:131] Top shape: 64 50 4 4 (51200)
I0428 20:11:41.122042 32119 net.cpp:139] Memory required for data: 5832960
I0428 20:11:41.122045 32119 layer_factory.hpp:77] Creating layer ip1
I0428 20:11:41.122053 32119 net.cpp:86] Creating Layer ip1
I0428 20:11:41.122056 32119 net.cpp:408] ip1 <- pool1
I0428 20:11:41.122061 32119 net.cpp:382] ip1 -> ip1
I0428 20:11:41.122448 32119 net.cpp:124] Setting up ip1
I0428 20:11:41.122455 32119 net.cpp:131] Top shape: 64 50 (3200)
I0428 20:11:41.122474 32119 net.cpp:139] Memory required for data: 5845760
I0428 20:11:41.122481 32119 layer_factory.hpp:77] Creating layer relu1
I0428 20:11:41.122486 32119 net.cpp:86] Creating Layer relu1
I0428 20:11:41.122491 32119 net.cpp:408] relu1 <- ip1
I0428 20:11:41.122495 32119 net.cpp:369] relu1 -> ip1 (in-place)
I0428 20:11:41.122651 32119 net.cpp:124] Setting up relu1
I0428 20:11:41.122659 32119 net.cpp:131] Top shape: 64 50 (3200)
I0428 20:11:41.122663 32119 net.cpp:139] Memory required for data: 5858560
I0428 20:11:41.122665 32119 layer_factory.hpp:77] Creating layer ip2
I0428 20:11:41.122673 32119 net.cpp:86] Creating Layer ip2
I0428 20:11:41.122675 32119 net.cpp:408] ip2 <- ip1
I0428 20:11:41.122679 32119 net.cpp:382] ip2 -> ip2
I0428 20:11:41.123762 32119 net.cpp:124] Setting up ip2
I0428 20:11:41.123775 32119 net.cpp:131] Top shape: 64 25 (1600)
I0428 20:11:41.123793 32119 net.cpp:139] Memory required for data: 5864960
I0428 20:11:41.123800 32119 layer_factory.hpp:77] Creating layer relu2
I0428 20:11:41.123805 32119 net.cpp:86] Creating Layer relu2
I0428 20:11:41.123809 32119 net.cpp:408] relu2 <- ip2
I0428 20:11:41.123814 32119 net.cpp:369] relu2 -> ip2 (in-place)
I0428 20:11:41.124632 32119 net.cpp:124] Setting up relu2
I0428 20:11:41.124644 32119 net.cpp:131] Top shape: 64 25 (1600)
I0428 20:11:41.124663 32119 net.cpp:139] Memory required for data: 5871360
I0428 20:11:41.124667 32119 layer_factory.hpp:77] Creating layer ip3
I0428 20:11:41.124675 32119 net.cpp:86] Creating Layer ip3
I0428 20:11:41.124677 32119 net.cpp:408] ip3 <- ip2
I0428 20:11:41.124683 32119 net.cpp:382] ip3 -> ip3
I0428 20:11:41.124776 32119 net.cpp:124] Setting up ip3
I0428 20:11:41.124784 32119 net.cpp:131] Top shape: 64 10 (640)
I0428 20:11:41.124788 32119 net.cpp:139] Memory required for data: 5873920
I0428 20:11:41.124795 32119 layer_factory.hpp:77] Creating layer relu3
I0428 20:11:41.124799 32119 net.cpp:86] Creating Layer relu3
I0428 20:11:41.124802 32119 net.cpp:408] relu3 <- ip3
I0428 20:11:41.124806 32119 net.cpp:369] relu3 -> ip3 (in-place)
I0428 20:11:41.125013 32119 net.cpp:124] Setting up relu3
I0428 20:11:41.125022 32119 net.cpp:131] Top shape: 64 10 (640)
I0428 20:11:41.125025 32119 net.cpp:139] Memory required for data: 5876480
I0428 20:11:41.125028 32119 layer_factory.hpp:77] Creating layer loss
I0428 20:11:41.125041 32119 net.cpp:86] Creating Layer loss
I0428 20:11:41.125043 32119 net.cpp:408] loss <- ip3
I0428 20:11:41.125047 32119 net.cpp:408] loss <- label
I0428 20:11:41.125053 32119 net.cpp:382] loss -> loss
I0428 20:11:41.125067 32119 layer_factory.hpp:77] Creating layer loss
…
I0428 20:11:41.125845 32119 solver.cpp:173] Creating test net (#0) specified by net file: ECE595/mnist/train_test/var_everything2/lenet_train_test1164.prototxt
I0428 20:11:41.125902 32119 net.cpp:296] The NetState phase (1) differed from the phase (0) specified by a rule in layer mnist
I0428 20:11:41.126006 32119 net.cpp:53] Initializing net from parameters: 
name: "LeNet"
state {
  phase: TEST
}
layer {
  name: "mnist"
  type: "Data"
  top: "data"
  top: "label"
  include {
    phase: TEST
  }
  transform_param {
    scale: 0.00390625
  }
  data_param {
    source: "examples/mnist/mnist_test_lmdb"
    batch_size: 100
    backend: LMDB
  }
}
layer {
  name: "conv0"
  type: "Convolution"
  bottom: "data"
  top: "conv0"
  param {
    lr_mult: 1
  }
  param {
    lr_mult: 2
  }
  convolution_param {
    num_output: 25
    kernel_size: 5
    stride: 1
    weight_filler {
      type: "xavier"
    }
    bias_filler {
      type: "constant"
    }
  }
}
layer {
  name: "pool0"
  type: "Pooling"
  bottom: "conv0"
  top: "pool0"
  pooling_param {
    pool: MAX
    kernel_size: 2
    stride: 2
  }
}
layer {
  name: "conv1"
  type: "Convolution"
  bottom: "pool0"
  top: "conv1"
  param {
    lr_mult: 1
  }
  param {
    lr_mult: 2
  }
  convolution_param {
    num_output: 50
    kernel_size: 5
    stride: 1
    weight_filler {
      type: "xavier"
    }
    bias_filler {
      type: "constant"
    }
  }
}
layer {
  name: "pool1"
  type: "Pooling"
  bottom: "conv1"
  top: "pool1"
  pooling_param {
    pool: MAX
    kernel_size: 2
    stride: 2
  }
}
layer {
  name: "ip1"
  type: "InnerProduct"
  bottom: "pool1"
  top: "ip1"
  param {
    lr_mult: 1
  }
  param {
    lr_mult: 2
  }
  inner_product_param {
    num_output: 50
    weight_filler {
      type: "xavier"
    }
    bias_filler {
      type: "constant"
    }
  }
}
layer {
  name: "relu1"
  type: "ReLU"
  bottom: "ip1"
  top: "ip1"
}
layer {
  name: "ip2"
  type: "InnerProduct"
  bottom: "ip1"
  top: "ip2"
  param {
    lr_mult: 1
  }
  param {
    lr_mult: 2
  }
  inner_product_param {
    num_output: 25
    weight_filler {
      type: "xavier"
    }
    bias_filler {
      type: "constant"
    }
  }
}
layer {
  name: "relu2"
  type: "ReLU"
  bottom: "ip2"
  top: "ip2"
}
layer {
  name: "ip3"
  type: "InnerProduct"
  bottom: "ip2"
  top: "ip3"
  param {
    lr_mult: 1
  }
  param {
    lr_mult: 2
  }
  inner_product_param {
    num_output: 10
    weight_filler {
      type: "xavier"
    }
    bias_filler {
      type: "constant"
    }
  }
}
layer {
  name: "relu3"
  type: "ReLU"
  bottom: "ip3"
  top: "ip3"
}
layer {
  name: "accuracy"
  type: "Accuracy"
  bottom: "ip3"
  bottom: "label"
  top: "accuracy"
  include {
    phase: TEST
  }
}
layer {
  name: "loss"
  type: "SoftmaxWithLoss"
  bottom: "ip3"
  bottom: "label"
  top: "loss"
}
I0428 20:11:41.126097 32119 layer_factory.hpp:77] Creating layer mnist
I0428 20:11:41.126142 32119 db_lmdb.cpp:35] Opened lmdb examples/mnist/mnist_test_lmdb
I0428 20:11:41.126154 32119 net.cpp:86] Creating Layer mnist
I0428 20:11:41.126158 32119 net.cpp:382] mnist -> data
I0428 20:11:41.126166 32119 net.cpp:382] mnist -> label
I0428 20:11:41.126246 32119 data_layer.cpp:45] output data size: 100,1,28,28
I0428 20:11:41.128532 32119 net.cpp:124] Setting up mnist
I0428 20:11:41.128545 32119 net.cpp:131] Top shape: 100 1 28 28 (78400)
I0428 20:11:41.128566 32119 net.cpp:131] Top shape: 100 (100)
I0428 20:11:41.128568 32119 net.cpp:139] Memory required for data: 314000
I0428 20:11:41.128572 32119 layer_factory.hpp:77] Creating layer label_mnist_1_split
I0428 20:11:41.128579 32119 net.cpp:86] Creating Layer label_mnist_1_split
I0428 20:11:41.128582 32119 net.cpp:408] label_mnist_1_split <- label
I0428 20:11:41.128587 32119 net.cpp:382] label_mnist_1_split -> label_mnist_1_split_0
I0428 20:11:41.128593 32119 net.cpp:382] label_mnist_1_split -> label_mnist_1_split_1
I0428 20:11:41.128693 32119 net.cpp:124] Setting up label_mnist_1_split
I0428 20:11:41.128701 32119 net.cpp:131] Top shape: 100 (100)
I0428 20:11:41.128705 32119 net.cpp:131] Top shape: 100 (100)
I0428 20:11:41.128708 32119 net.cpp:139] Memory required for data: 314800
I0428 20:11:41.128711 32119 layer_factory.hpp:77] Creating layer conv0
I0428 20:11:41.128720 32119 net.cpp:86] Creating Layer conv0
I0428 20:11:41.128723 32119 net.cpp:408] conv0 <- data
I0428 20:11:41.128728 32119 net.cpp:382] conv0 -> conv0
I0428 20:11:41.130471 32119 net.cpp:124] Setting up conv0
I0428 20:11:41.130497 32119 net.cpp:131] Top shape: 100 25 24 24 (1440000)
I0428 20:11:41.130502 32119 net.cpp:139] Memory required for data: 6074800
I0428 20:11:41.130512 32119 layer_factory.hpp:77] Creating layer pool0
I0428 20:11:41.130534 32119 net.cpp:86] Creating Layer pool0
I0428 20:11:41.130538 32119 net.cpp:408] pool0 <- conv0
I0428 20:11:41.130543 32119 net.cpp:382] pool0 -> pool0
I0428 20:11:41.130581 32119 net.cpp:124] Setting up pool0
I0428 20:11:41.130586 32119 net.cpp:131] Top shape: 100 25 12 12 (360000)
I0428 20:11:41.130590 32119 net.cpp:139] Memory required for data: 7514800
I0428 20:11:41.130594 32119 layer_factory.hpp:77] Creating layer conv1
I0428 20:11:41.130602 32119 net.cpp:86] Creating Layer conv1
I0428 20:11:41.130605 32119 net.cpp:408] conv1 <- pool0
I0428 20:11:41.130610 32119 net.cpp:382] conv1 -> conv1
I0428 20:11:41.132457 32119 net.cpp:124] Setting up conv1
I0428 20:11:41.132472 32119 net.cpp:131] Top shape: 100 50 8 8 (320000)
I0428 20:11:41.132475 32119 net.cpp:139] Memory required for data: 8794800
I0428 20:11:41.132484 32119 layer_factory.hpp:77] Creating layer pool1
I0428 20:11:41.132493 32119 net.cpp:86] Creating Layer pool1
I0428 20:11:41.132496 32119 net.cpp:408] pool1 <- conv1
I0428 20:11:41.132503 32119 net.cpp:382] pool1 -> pool1
I0428 20:11:41.132540 32119 net.cpp:124] Setting up pool1
I0428 20:11:41.132547 32119 net.cpp:131] Top shape: 100 50 4 4 (80000)
I0428 20:11:41.132551 32119 net.cpp:139] Memory required for data: 9114800
I0428 20:11:41.132555 32119 layer_factory.hpp:77] Creating layer ip1
I0428 20:11:41.132560 32119 net.cpp:86] Creating Layer ip1
I0428 20:11:41.132565 32119 net.cpp:408] ip1 <- pool1
I0428 20:11:41.132570 32119 net.cpp:382] ip1 -> ip1
I0428 20:11:41.132947 32119 net.cpp:124] Setting up ip1
I0428 20:11:41.132956 32119 net.cpp:131] Top shape: 100 50 (5000)
I0428 20:11:41.132971 32119 net.cpp:139] Memory required for data: 9134800
I0428 20:11:41.132997 32119 layer_factory.hpp:77] Creating layer relu1
I0428 20:11:41.133003 32119 net.cpp:86] Creating Layer relu1
I0428 20:11:41.133007 32119 net.cpp:408] relu1 <- ip1
I0428 20:11:41.133029 32119 net.cpp:369] relu1 -> ip1 (in-place)
I0428 20:11:41.133211 32119 net.cpp:124] Setting up relu1
I0428 20:11:41.133221 32119 net.cpp:131] Top shape: 100 50 (5000)
I0428 20:11:41.133224 32119 net.cpp:139] Memory required for data: 9154800
I0428 20:11:41.133229 32119 layer_factory.hpp:77] Creating layer ip2
I0428 20:11:41.133241 32119 net.cpp:86] Creating Layer ip2
I0428 20:11:41.133245 32119 net.cpp:408] ip2 <- ip1
I0428 20:11:41.133250 32119 net.cpp:382] ip2 -> ip2
I0428 20:11:41.133394 32119 net.cpp:124] Setting up ip2
I0428 20:11:41.133401 32119 net.cpp:131] Top shape: 100 25 (2500)
I0428 20:11:41.133405 32119 net.cpp:139] Memory required for data: 9164800
I0428 20:11:41.133410 32119 layer_factory.hpp:77] Creating layer relu2
I0428 20:11:41.133415 32119 net.cpp:86] Creating Layer relu2
I0428 20:11:41.133419 32119 net.cpp:408] relu2 <- ip2
I0428 20:11:41.133422 32119 net.cpp:369] relu2 -> ip2 (in-place)
I0428 20:11:41.133682 32119 net.cpp:124] Setting up relu2
I0428 20:11:41.133692 32119 net.cpp:131] Top shape: 100 25 (2500)
I0428 20:11:41.133694 32119 net.cpp:139] Memory required for data: 9174800
I0428 20:11:41.133698 32119 layer_factory.hpp:77] Creating layer ip3
I0428 20:11:41.133704 32119 net.cpp:86] Creating Layer ip3
I0428 20:11:41.133708 32119 net.cpp:408] ip3 <- ip2
I0428 20:11:41.133713 32119 net.cpp:382] ip3 -> ip3
I0428 20:11:41.133813 32119 net.cpp:124] Setting up ip3
I0428 20:11:41.133821 32119 net.cpp:131] Top shape: 100 10 (1000)
I0428 20:11:41.133826 32119 net.cpp:139] Memory required for data: 9178800
I0428 20:11:41.133833 32119 layer_factory.hpp:77] Creating layer relu3
I0428 20:11:41.133838 32119 net.cpp:86] Creating Layer relu3
I0428 20:11:41.133842 32119 net.cpp:408] relu3 <- ip3
I0428 20:11:41.133847 32119 net.cpp:369] relu3 -> ip3 (in-place)
I0428 20:11:41.134718 32119 net.cpp:124] Setting up relu3
I0428 20:11:41.134732 32119 net.cpp:131] Top shape: 100 10 (1000)
I0428 20:11:41.134737 32119 net.cpp:139] Memory required for data: 9182800
I0428 20:11:41.134750 32119 layer_factory.hpp:77] Creating layer ip3_relu3_0_split
I0428 20:11:41.134757 32119 net.cpp:86] Creating Layer ip3_relu3_0_split
I0428 20:11:41.134759 32119 net.cpp:408] ip3_relu3_0_split <- ip3
I0428 20:11:41.134765 32119 net.cpp:382] ip3_relu3_0_split -> ip3_relu3_0_split_0
I0428 20:11:41.134771 32119 net.cpp:382] ip3_relu3_0_split -> ip3_relu3_0_split_1
I0428 20:11:41.134815 32119 net.cpp:124] Setting up ip3_relu3_0_split
I0428 20:11:41.134824 32119 net.cpp:131] Top shape: 100 10 (1000)
I0428 20:11:41.134827 32119 net.cpp:131] Top shape: 100 10 (1000)
I0428 20:11:41.134835 32119 net.cpp:139] Memory required for data: 9190800
I0428 20:11:41.134843 32119 layer_factory.hpp:77] Creating layer accuracy
I0428 20:11:41.134848 32119 net.cpp:86] Creating Layer accuracy
I0428 20:11:41.134852 32119 net.cpp:408] accuracy <- ip3_relu3_0_split_0
I0428 20:11:41.134857 32119 net.cpp:408] accuracy <- label_mnist_1_split_0
I0428 20:11:41.134861 32119 net.cpp:382] accuracy -> accuracy
…
