…
I0428 20:15:38.188755   484 net.cpp:296] The NetState phase (0) differed from the phase (1) specified by a rule in layer mnist
I0428 20:15:38.188773   484 net.cpp:296] The NetState phase (0) differed from the phase (1) specified by a rule in layer accuracy
I0428 20:15:38.188877   484 net.cpp:53] Initializing net from parameters: 
name: "LeNet"
state {
  phase: TRAIN
  level: 0
  stage: ""
}
layer {
  name: "mnist"
  type: "Data"
  top: "data"
  top: "label"
  include {
    phase: TRAIN
  }
  transform_param {
    scale: 0.00390625
  }
  data_param {
    source: "examples/mnist/mnist_train_lmdb"
    batch_size: 64
    backend: LMDB
  }
}
layer {
  name: "conv0"
  type: "Convolution"
  bottom: "data"
  top: "conv0"
  param {
    lr_mult: 1
  }
  param {
    lr_mult: 2
  }
  convolution_param {
    num_output: 50
    kernel_size: 5
    stride: 1
    weight_filler {
      type: "xavier"
    }
    bias_filler {
      type: "constant"
    }
  }
}
layer {
  name: "pool0"
  type: "Pooling"
  bottom: "conv0"
  top: "pool0"
  pooling_param {
    pool: MAX
    kernel_size: 2
    stride: 2
  }
}
layer {
  name: "conv1"
  type: "Convolution"
  bottom: "pool0"
  top: "conv1"
  param {
    lr_mult: 1
  }
  param {
    lr_mult: 2
  }
  convolution_param {
    num_output: 5
    kernel_size: 5
    stride: 1
    weight_filler {
      type: "xavier"
    }
    bias_filler {
      type: "constant"
    }
  }
}
layer {
  name: "pool1"
  type: "Pooling"
  bottom: "conv1"
  top: "pool1"
  pooling_param {
    pool: MAX
    kernel_size: 2
    stride: 2
  }
}
layer {
  name: "ip1"
  type: "InnerProduct"
  bottom: "pool1"
  top: "ip1"
  param {
    lr_mult: 1
  }
  param {
    lr_mult: 2
  }
  inner_product_param {
    num_output: 10
    weight_filler {
      type: "xavier"
    }
    bias_filler {
      type: "constant"
    }
  }
}
layer {
  name: "relu1"
  type: "ReLU"
  bottom: "ip1"
  top: "ip1"
}
layer {
  name: "ip2"
  type: "InnerProduct"
  bottom: "ip1"
  top: "ip2"
  param {
    lr_mult: 1
  }
  param {
    lr_mult: 2
  }
  inner_product_param {
    num_output: 10
    weight_filler {
      type: "xavier"
    }
    bias_filler {
      type: "constant"
    }
  }
}
layer {
  name: "relu2"
  type: "ReLU"
  bottom: "ip2"
  top: "ip2"
}
layer {
  name: "loss"
  type: "SoftmaxWithLoss"
  bottom: "ip2"
  bottom: "label"
  top: "loss"
}
I0428 20:15:38.188951   484 layer_factory.hpp:77] Creating layer mnist
I0428 20:15:38.189050   484 db_lmdb.cpp:35] Opened lmdb examples/mnist/mnist_train_lmdb
I0428 20:15:38.189074   484 net.cpp:86] Creating Layer mnist
I0428 20:15:38.189082   484 net.cpp:382] mnist -> data
I0428 20:15:38.189103   484 net.cpp:382] mnist -> label
I0428 20:15:38.190174   484 data_layer.cpp:45] output data size: 64,1,28,28
I0428 20:15:38.192822   484 net.cpp:124] Setting up mnist
I0428 20:15:38.192840   484 net.cpp:131] Top shape: 64 1 28 28 (50176)
I0428 20:15:38.192847   484 net.cpp:131] Top shape: 64 (64)
I0428 20:15:38.192850   484 net.cpp:139] Memory required for data: 200960
I0428 20:15:38.192857   484 layer_factory.hpp:77] Creating layer conv0
I0428 20:15:38.192873   484 net.cpp:86] Creating Layer conv0
I0428 20:15:38.192878   484 net.cpp:408] conv0 <- data
I0428 20:15:38.192914   484 net.cpp:382] conv0 -> conv0
I0428 20:15:38.423090   484 net.cpp:124] Setting up conv0
I0428 20:15:38.423116   484 net.cpp:131] Top shape: 64 50 24 24 (1843200)
I0428 20:15:38.423120   484 net.cpp:139] Memory required for data: 7573760
I0428 20:15:38.423153   484 layer_factory.hpp:77] Creating layer pool0
I0428 20:15:38.423166   484 net.cpp:86] Creating Layer pool0
I0428 20:15:38.423169   484 net.cpp:408] pool0 <- conv0
I0428 20:15:38.423189   484 net.cpp:382] pool0 -> pool0
I0428 20:15:38.423251   484 net.cpp:124] Setting up pool0
I0428 20:15:38.423257   484 net.cpp:131] Top shape: 64 50 12 12 (460800)
I0428 20:15:38.423260   484 net.cpp:139] Memory required for data: 9416960
I0428 20:15:38.423264   484 layer_factory.hpp:77] Creating layer conv1
I0428 20:15:38.423274   484 net.cpp:86] Creating Layer conv1
I0428 20:15:38.423277   484 net.cpp:408] conv1 <- pool0
I0428 20:15:38.423281   484 net.cpp:382] conv1 -> conv1
I0428 20:15:38.426168   484 net.cpp:124] Setting up conv1
I0428 20:15:38.426183   484 net.cpp:131] Top shape: 64 5 8 8 (20480)
I0428 20:15:38.426187   484 net.cpp:139] Memory required for data: 9498880
I0428 20:15:38.426211   484 layer_factory.hpp:77] Creating layer pool1
I0428 20:15:38.426218   484 net.cpp:86] Creating Layer pool1
I0428 20:15:38.426223   484 net.cpp:408] pool1 <- conv1
I0428 20:15:38.426228   484 net.cpp:382] pool1 -> pool1
I0428 20:15:38.426265   484 net.cpp:124] Setting up pool1
I0428 20:15:38.426272   484 net.cpp:131] Top shape: 64 5 4 4 (5120)
I0428 20:15:38.426275   484 net.cpp:139] Memory required for data: 9519360
I0428 20:15:38.426278   484 layer_factory.hpp:77] Creating layer ip1
I0428 20:15:38.426285   484 net.cpp:86] Creating Layer ip1
I0428 20:15:38.426288   484 net.cpp:408] ip1 <- pool1
I0428 20:15:38.426292   484 net.cpp:382] ip1 -> ip1
I0428 20:15:38.426396   484 net.cpp:124] Setting up ip1
I0428 20:15:38.426404   484 net.cpp:131] Top shape: 64 10 (640)
I0428 20:15:38.426407   484 net.cpp:139] Memory required for data: 9521920
I0428 20:15:38.426415   484 layer_factory.hpp:77] Creating layer relu1
I0428 20:15:38.426435   484 net.cpp:86] Creating Layer relu1
I0428 20:15:38.426439   484 net.cpp:408] relu1 <- ip1
I0428 20:15:38.426443   484 net.cpp:369] relu1 -> ip1 (in-place)
I0428 20:15:38.426626   484 net.cpp:124] Setting up relu1
I0428 20:15:38.426637   484 net.cpp:131] Top shape: 64 10 (640)
I0428 20:15:38.426640   484 net.cpp:139] Memory required for data: 9524480
I0428 20:15:38.426643   484 layer_factory.hpp:77] Creating layer ip2
I0428 20:15:38.426650   484 net.cpp:86] Creating Layer ip2
I0428 20:15:38.426652   484 net.cpp:408] ip2 <- ip1
I0428 20:15:38.426658   484 net.cpp:382] ip2 -> ip2
I0428 20:15:38.426759   484 net.cpp:124] Setting up ip2
I0428 20:15:38.426765   484 net.cpp:131] Top shape: 64 10 (640)
I0428 20:15:38.426769   484 net.cpp:139] Memory required for data: 9527040
I0428 20:15:38.426789   484 layer_factory.hpp:77] Creating layer relu2
I0428 20:15:38.426796   484 net.cpp:86] Creating Layer relu2
I0428 20:15:38.426800   484 net.cpp:408] relu2 <- ip2
I0428 20:15:38.426802   484 net.cpp:369] relu2 -> ip2 (in-place)
I0428 20:15:38.427523   484 net.cpp:124] Setting up relu2
I0428 20:15:38.427536   484 net.cpp:131] Top shape: 64 10 (640)
I0428 20:15:38.427549   484 net.cpp:139] Memory required for data: 9529600
I0428 20:15:38.427553   484 layer_factory.hpp:77] Creating layer loss
I0428 20:15:38.427559   484 net.cpp:86] Creating Layer loss
I0428 20:15:38.427578   484 net.cpp:408] loss <- ip2
I0428 20:15:38.427582   484 net.cpp:408] loss <- label
I0428 20:15:38.427588   484 net.cpp:382] loss -> loss
I0428 20:15:38.427608   484 layer_factory.hpp:77] Creating layer loss
…
I0428 20:15:38.428249   484 solver.cpp:173] Creating test net (#0) specified by net file: ECE595/mnist/train_test/var_everything2/lenet_train_test1251.prototxt
I0428 20:15:38.428274   484 net.cpp:296] The NetState phase (1) differed from the phase (0) specified by a rule in layer mnist
I0428 20:15:38.428359   484 net.cpp:53] Initializing net from parameters: 
name: "LeNet"
state {
  phase: TEST
}
layer {
  name: "mnist"
  type: "Data"
  top: "data"
  top: "label"
  include {
    phase: TEST
  }
  transform_param {
    scale: 0.00390625
  }
  data_param {
    source: "examples/mnist/mnist_test_lmdb"
    batch_size: 100
    backend: LMDB
  }
}
layer {
  name: "conv0"
  type: "Convolution"
  bottom: "data"
  top: "conv0"
  param {
    lr_mult: 1
  }
  param {
    lr_mult: 2
  }
  convolution_param {
    num_output: 50
    kernel_size: 5
    stride: 1
    weight_filler {
      type: "xavier"
    }
    bias_filler {
      type: "constant"
    }
  }
}
layer {
  name: "pool0"
  type: "Pooling"
  bottom: "conv0"
  top: "pool0"
  pooling_param {
    pool: MAX
    kernel_size: 2
    stride: 2
  }
}
layer {
  name: "conv1"
  type: "Convolution"
  bottom: "pool0"
  top: "conv1"
  param {
    lr_mult: 1
  }
  param {
    lr_mult: 2
  }
  convolution_param {
    num_output: 5
    kernel_size: 5
    stride: 1
    weight_filler {
      type: "xavier"
    }
    bias_filler {
      type: "constant"
    }
  }
}
layer {
  name: "pool1"
  type: "Pooling"
  bottom: "conv1"
  top: "pool1"
  pooling_param {
    pool: MAX
    kernel_size: 2
    stride: 2
  }
}
layer {
  name: "ip1"
  type: "InnerProduct"
  bottom: "pool1"
  top: "ip1"
  param {
    lr_mult: 1
  }
  param {
    lr_mult: 2
  }
  inner_product_param {
    num_output: 10
    weight_filler {
      type: "xavier"
    }
    bias_filler {
      type: "constant"
    }
  }
}
layer {
  name: "relu1"
  type: "ReLU"
  bottom: "ip1"
  top: "ip1"
}
layer {
  name: "ip2"
  type: "InnerProduct"
  bottom: "ip1"
  top: "ip2"
  param {
    lr_mult: 1
  }
  param {
    lr_mult: 2
  }
  inner_product_param {
    num_output: 10
    weight_filler {
      type: "xavier"
    }
    bias_filler {
      type: "constant"
    }
  }
}
layer {
  name: "relu2"
  type: "ReLU"
  bottom: "ip2"
  top: "ip2"
}
layer {
  name: "accuracy"
  type: "Accuracy"
  bottom: "ip2"
  bottom: "label"
  top: "accuracy"
  include {
    phase: TEST
  }
}
layer {
  name: "loss"
  type: "SoftmaxWithLoss"
  bottom: "ip2"
  bottom: "label"
  top: "loss"
}
I0428 20:15:38.428424   484 layer_factory.hpp:77] Creating layer mnist
I0428 20:15:38.428467   484 db_lmdb.cpp:35] Opened lmdb examples/mnist/mnist_test_lmdb
I0428 20:15:38.428479   484 net.cpp:86] Creating Layer mnist
I0428 20:15:38.428483   484 net.cpp:382] mnist -> data
I0428 20:15:38.428490   484 net.cpp:382] mnist -> label
I0428 20:15:38.428578   484 data_layer.cpp:45] output data size: 100,1,28,28
I0428 20:15:38.430644   484 net.cpp:124] Setting up mnist
I0428 20:15:38.430667   484 net.cpp:131] Top shape: 100 1 28 28 (78400)
I0428 20:15:38.430672   484 net.cpp:131] Top shape: 100 (100)
I0428 20:15:38.430675   484 net.cpp:139] Memory required for data: 314000
I0428 20:15:38.430680   484 layer_factory.hpp:77] Creating layer label_mnist_1_split
I0428 20:15:38.430714   484 net.cpp:86] Creating Layer label_mnist_1_split
I0428 20:15:38.430718   484 net.cpp:408] label_mnist_1_split <- label
I0428 20:15:38.430722   484 net.cpp:382] label_mnist_1_split -> label_mnist_1_split_0
I0428 20:15:38.430730   484 net.cpp:382] label_mnist_1_split -> label_mnist_1_split_1
I0428 20:15:38.430855   484 net.cpp:124] Setting up label_mnist_1_split
I0428 20:15:38.430872   484 net.cpp:131] Top shape: 100 (100)
I0428 20:15:38.430876   484 net.cpp:131] Top shape: 100 (100)
I0428 20:15:38.430878   484 net.cpp:139] Memory required for data: 314800
I0428 20:15:38.430881   484 layer_factory.hpp:77] Creating layer conv0
I0428 20:15:38.430891   484 net.cpp:86] Creating Layer conv0
I0428 20:15:38.430894   484 net.cpp:408] conv0 <- data
I0428 20:15:38.430902   484 net.cpp:382] conv0 -> conv0
I0428 20:15:38.432720   484 net.cpp:124] Setting up conv0
I0428 20:15:38.432749   484 net.cpp:131] Top shape: 100 50 24 24 (2880000)
I0428 20:15:38.432754   484 net.cpp:139] Memory required for data: 11834800
I0428 20:15:38.432761   484 layer_factory.hpp:77] Creating layer pool0
I0428 20:15:38.432767   484 net.cpp:86] Creating Layer pool0
I0428 20:15:38.432770   484 net.cpp:408] pool0 <- conv0
I0428 20:15:38.432775   484 net.cpp:382] pool0 -> pool0
I0428 20:15:38.432834   484 net.cpp:124] Setting up pool0
I0428 20:15:38.432857   484 net.cpp:131] Top shape: 100 50 12 12 (720000)
I0428 20:15:38.432860   484 net.cpp:139] Memory required for data: 14714800
I0428 20:15:38.432862   484 layer_factory.hpp:77] Creating layer conv1
I0428 20:15:38.432888   484 net.cpp:86] Creating Layer conv1
I0428 20:15:38.432890   484 net.cpp:408] conv1 <- pool0
I0428 20:15:38.432898   484 net.cpp:382] conv1 -> conv1
I0428 20:15:38.434578   484 net.cpp:124] Setting up conv1
I0428 20:15:38.434592   484 net.cpp:131] Top shape: 100 5 8 8 (32000)
I0428 20:15:38.434597   484 net.cpp:139] Memory required for data: 14842800
I0428 20:15:38.434604   484 layer_factory.hpp:77] Creating layer pool1
I0428 20:15:38.434622   484 net.cpp:86] Creating Layer pool1
I0428 20:15:38.434626   484 net.cpp:408] pool1 <- conv1
I0428 20:15:38.434634   484 net.cpp:382] pool1 -> pool1
I0428 20:15:38.434720   484 net.cpp:124] Setting up pool1
I0428 20:15:38.434731   484 net.cpp:131] Top shape: 100 5 4 4 (8000)
I0428 20:15:38.434733   484 net.cpp:139] Memory required for data: 14874800
I0428 20:15:38.434736   484 layer_factory.hpp:77] Creating layer ip1
I0428 20:15:38.434744   484 net.cpp:86] Creating Layer ip1
I0428 20:15:38.434747   484 net.cpp:408] ip1 <- pool1
I0428 20:15:38.434754   484 net.cpp:382] ip1 -> ip1
I0428 20:15:38.434885   484 net.cpp:124] Setting up ip1
I0428 20:15:38.434892   484 net.cpp:131] Top shape: 100 10 (1000)
I0428 20:15:38.434895   484 net.cpp:139] Memory required for data: 14878800
I0428 20:15:38.434902   484 layer_factory.hpp:77] Creating layer relu1
I0428 20:15:38.434908   484 net.cpp:86] Creating Layer relu1
I0428 20:15:38.434911   484 net.cpp:408] relu1 <- ip1
I0428 20:15:38.434929   484 net.cpp:369] relu1 -> ip1 (in-place)
I0428 20:15:38.435117   484 net.cpp:124] Setting up relu1
I0428 20:15:38.435125   484 net.cpp:131] Top shape: 100 10 (1000)
I0428 20:15:38.435129   484 net.cpp:139] Memory required for data: 14882800
I0428 20:15:38.435138   484 layer_factory.hpp:77] Creating layer ip2
I0428 20:15:38.435147   484 net.cpp:86] Creating Layer ip2
I0428 20:15:38.435150   484 net.cpp:408] ip2 <- ip1
I0428 20:15:38.435155   484 net.cpp:382] ip2 -> ip2
I0428 20:15:38.435253   484 net.cpp:124] Setting up ip2
I0428 20:15:38.435261   484 net.cpp:131] Top shape: 100 10 (1000)
I0428 20:15:38.435264   484 net.cpp:139] Memory required for data: 14886800
I0428 20:15:38.435269   484 layer_factory.hpp:77] Creating layer relu2
I0428 20:15:38.435274   484 net.cpp:86] Creating Layer relu2
I0428 20:15:38.435277   484 net.cpp:408] relu2 <- ip2
I0428 20:15:38.435286   484 net.cpp:369] relu2 -> ip2 (in-place)
I0428 20:15:38.435461   484 net.cpp:124] Setting up relu2
I0428 20:15:38.435469   484 net.cpp:131] Top shape: 100 10 (1000)
I0428 20:15:38.435472   484 net.cpp:139] Memory required for data: 14890800
I0428 20:15:38.435475   484 layer_factory.hpp:77] Creating layer ip2_relu2_0_split
I0428 20:15:38.435479   484 net.cpp:86] Creating Layer ip2_relu2_0_split
I0428 20:15:38.435490   484 net.cpp:408] ip2_relu2_0_split <- ip2
I0428 20:15:38.435499   484 net.cpp:382] ip2_relu2_0_split -> ip2_relu2_0_split_0
I0428 20:15:38.435520   484 net.cpp:382] ip2_relu2_0_split -> ip2_relu2_0_split_1
I0428 20:15:38.435570   484 net.cpp:124] Setting up ip2_relu2_0_split
I0428 20:15:38.435576   484 net.cpp:131] Top shape: 100 10 (1000)
I0428 20:15:38.435580   484 net.cpp:131] Top shape: 100 10 (1000)
I0428 20:15:38.435582   484 net.cpp:139] Memory required for data: 14898800
I0428 20:15:38.435585   484 layer_factory.hpp:77] Creating layer accuracy
I0428 20:15:38.435598   484 net.cpp:86] Creating Layer accuracy
I0428 20:15:38.435601   484 net.cpp:408] accuracy <- ip2_relu2_0_split_0
I0428 20:15:38.435606   484 net.cpp:408] accuracy <- label_mnist_1_split_0
I0428 20:15:38.435611   484 net.cpp:382] accuracy -> accuracy
…
