…
I0428 19:59:21.557518 29218 net.cpp:296] The NetState phase (0) differed from the phase (1) specified by a rule in layer mnist
I0428 19:59:21.557548 29218 net.cpp:296] The NetState phase (0) differed from the phase (1) specified by a rule in layer accuracy
I0428 19:59:21.557626 29218 net.cpp:53] Initializing net from parameters: 
name: "LeNet"
state {
  phase: TRAIN
  level: 0
  stage: ""
}
layer {
  name: "mnist"
  type: "Data"
  top: "data"
  top: "label"
  include {
    phase: TRAIN
  }
  transform_param {
    scale: 0.00390625
  }
  data_param {
    source: "examples/mnist/mnist_train_lmdb"
    batch_size: 64
    backend: LMDB
  }
}
layer {
  name: "conv0"
  type: "Convolution"
  bottom: "data"
  top: "conv0"
  param {
    lr_mult: 1
  }
  param {
    lr_mult: 2
  }
  convolution_param {
    num_output: 10
    kernel_size: 5
    stride: 1
    weight_filler {
      type: "xavier"
    }
    bias_filler {
      type: "constant"
    }
  }
}
layer {
  name: "pool0"
  type: "Pooling"
  bottom: "conv0"
  top: "pool0"
  pooling_param {
    pool: MAX
    kernel_size: 2
    stride: 2
  }
}
layer {
  name: "conv1"
  type: "Convolution"
  bottom: "pool0"
  top: "conv1"
  param {
    lr_mult: 1
  }
  param {
    lr_mult: 2
  }
  convolution_param {
    num_output: 10
    kernel_size: 5
    stride: 1
    weight_filler {
      type: "xavier"
    }
    bias_filler {
      type: "constant"
    }
  }
}
layer {
  name: "pool1"
  type: "Pooling"
  bottom: "conv1"
  top: "pool1"
  pooling_param {
    pool: MAX
    kernel_size: 2
    stride: 2
  }
}
layer {
  name: "ip1"
  type: "InnerProduct"
  bottom: "pool1"
  top: "ip1"
  param {
    lr_mult: 1
  }
  param {
    lr_mult: 2
  }
  inner_product_param {
    num_output: 25
    weight_filler {
      type: "xavier"
    }
    bias_filler {
      type: "constant"
    }
  }
}
layer {
  name: "relu1"
  type: "ReLU"
  bottom: "ip1"
  top: "ip1"
}
layer {
  name: "ip2"
  type: "InnerProduct"
  bottom: "ip1"
  top: "ip2"
  param {
    lr_mult: 1
  }
  param {
    lr_mult: 2
  }
  inner_product_param {
    num_output: 25
    weight_filler {
      type: "xavier"
    }
    bias_filler {
      type: "constant"
    }
  }
}
layer {
  name: "relu2"
  type: "ReLU"
  bottom: "ip2"
  top: "ip2"
}
layer {
  name: "ip3"
  type: "InnerProduct"
  bottom: "ip2"
  top: "ip3"
  param {
    lr_mult: 1
  }
  param {
    lr_mult: 2
  }
  inner_product_param {
    num_output: 10
    weight_filler {
      type: "xavier"
    }
    bias_filler {
      type: "constant"
    }
  }
}
layer {
  name: "relu3"
  type: "ReLU"
  bottom: "ip3"
  top: "ip3"
}
layer {
  name: "loss"
  type: "SoftmaxWithLoss"
  bottom: "ip3"
  bottom: "label"
  top: "loss"
}
I0428 19:59:21.557688 29218 layer_factory.hpp:77] Creating layer mnist
I0428 19:59:21.557770 29218 db_lmdb.cpp:35] Opened lmdb examples/mnist/mnist_train_lmdb
I0428 19:59:21.557788 29218 net.cpp:86] Creating Layer mnist
I0428 19:59:21.557796 29218 net.cpp:382] mnist -> data
I0428 19:59:21.557813 29218 net.cpp:382] mnist -> label
I0428 19:59:21.558809 29218 data_layer.cpp:45] output data size: 64,1,28,28
I0428 19:59:21.561122 29218 net.cpp:124] Setting up mnist
I0428 19:59:21.561147 29218 net.cpp:131] Top shape: 64 1 28 28 (50176)
I0428 19:59:21.561152 29218 net.cpp:131] Top shape: 64 (64)
I0428 19:59:21.561156 29218 net.cpp:139] Memory required for data: 200960
I0428 19:59:21.561161 29218 layer_factory.hpp:77] Creating layer conv0
I0428 19:59:21.561174 29218 net.cpp:86] Creating Layer conv0
I0428 19:59:21.561190 29218 net.cpp:408] conv0 <- data
I0428 19:59:21.561200 29218 net.cpp:382] conv0 -> conv0
I0428 19:59:21.788611 29218 net.cpp:124] Setting up conv0
I0428 19:59:21.788637 29218 net.cpp:131] Top shape: 64 10 24 24 (368640)
I0428 19:59:21.788640 29218 net.cpp:139] Memory required for data: 1675520
I0428 19:59:21.788655 29218 layer_factory.hpp:77] Creating layer pool0
I0428 19:59:21.788667 29218 net.cpp:86] Creating Layer pool0
I0428 19:59:21.788671 29218 net.cpp:408] pool0 <- conv0
I0428 19:59:21.788676 29218 net.cpp:382] pool0 -> pool0
I0428 19:59:21.788753 29218 net.cpp:124] Setting up pool0
I0428 19:59:21.788759 29218 net.cpp:131] Top shape: 64 10 12 12 (92160)
I0428 19:59:21.788763 29218 net.cpp:139] Memory required for data: 2044160
I0428 19:59:21.788765 29218 layer_factory.hpp:77] Creating layer conv1
I0428 19:59:21.788775 29218 net.cpp:86] Creating Layer conv1
I0428 19:59:21.788780 29218 net.cpp:408] conv1 <- pool0
I0428 19:59:21.788784 29218 net.cpp:382] conv1 -> conv1
I0428 19:59:21.791584 29218 net.cpp:124] Setting up conv1
I0428 19:59:21.791613 29218 net.cpp:131] Top shape: 64 10 8 8 (40960)
I0428 19:59:21.791617 29218 net.cpp:139] Memory required for data: 2208000
I0428 19:59:21.791625 29218 layer_factory.hpp:77] Creating layer pool1
I0428 19:59:21.791633 29218 net.cpp:86] Creating Layer pool1
I0428 19:59:21.791651 29218 net.cpp:408] pool1 <- conv1
I0428 19:59:21.791656 29218 net.cpp:382] pool1 -> pool1
I0428 19:59:21.791693 29218 net.cpp:124] Setting up pool1
I0428 19:59:21.791699 29218 net.cpp:131] Top shape: 64 10 4 4 (10240)
I0428 19:59:21.791702 29218 net.cpp:139] Memory required for data: 2248960
I0428 19:59:21.791705 29218 layer_factory.hpp:77] Creating layer ip1
I0428 19:59:21.791712 29218 net.cpp:86] Creating Layer ip1
I0428 19:59:21.791715 29218 net.cpp:408] ip1 <- pool1
I0428 19:59:21.791720 29218 net.cpp:382] ip1 -> ip1
I0428 19:59:21.791836 29218 net.cpp:124] Setting up ip1
I0428 19:59:21.791843 29218 net.cpp:131] Top shape: 64 25 (1600)
I0428 19:59:21.791846 29218 net.cpp:139] Memory required for data: 2255360
I0428 19:59:21.791853 29218 layer_factory.hpp:77] Creating layer relu1
I0428 19:59:21.791859 29218 net.cpp:86] Creating Layer relu1
I0428 19:59:21.791864 29218 net.cpp:408] relu1 <- ip1
I0428 19:59:21.791868 29218 net.cpp:369] relu1 -> ip1 (in-place)
I0428 19:59:21.792042 29218 net.cpp:124] Setting up relu1
I0428 19:59:21.792050 29218 net.cpp:131] Top shape: 64 25 (1600)
I0428 19:59:21.792053 29218 net.cpp:139] Memory required for data: 2261760
I0428 19:59:21.792057 29218 layer_factory.hpp:77] Creating layer ip2
I0428 19:59:21.792062 29218 net.cpp:86] Creating Layer ip2
I0428 19:59:21.792065 29218 net.cpp:408] ip2 <- ip1
I0428 19:59:21.792070 29218 net.cpp:382] ip2 -> ip2
I0428 19:59:21.792163 29218 net.cpp:124] Setting up ip2
I0428 19:59:21.792171 29218 net.cpp:131] Top shape: 64 25 (1600)
I0428 19:59:21.792173 29218 net.cpp:139] Memory required for data: 2268160
I0428 19:59:21.792178 29218 layer_factory.hpp:77] Creating layer relu2
I0428 19:59:21.792184 29218 net.cpp:86] Creating Layer relu2
I0428 19:59:21.792187 29218 net.cpp:408] relu2 <- ip2
I0428 19:59:21.792191 29218 net.cpp:369] relu2 -> ip2 (in-place)
I0428 19:59:21.793020 29218 net.cpp:124] Setting up relu2
I0428 19:59:21.793048 29218 net.cpp:131] Top shape: 64 25 (1600)
I0428 19:59:21.793052 29218 net.cpp:139] Memory required for data: 2274560
I0428 19:59:21.793056 29218 layer_factory.hpp:77] Creating layer ip3
I0428 19:59:21.793062 29218 net.cpp:86] Creating Layer ip3
I0428 19:59:21.793066 29218 net.cpp:408] ip3 <- ip2
I0428 19:59:21.793071 29218 net.cpp:382] ip3 -> ip3
I0428 19:59:21.793195 29218 net.cpp:124] Setting up ip3
I0428 19:59:21.793201 29218 net.cpp:131] Top shape: 64 10 (640)
I0428 19:59:21.793205 29218 net.cpp:139] Memory required for data: 2277120
I0428 19:59:21.793213 29218 layer_factory.hpp:77] Creating layer relu3
I0428 19:59:21.793220 29218 net.cpp:86] Creating Layer relu3
I0428 19:59:21.793223 29218 net.cpp:408] relu3 <- ip3
I0428 19:59:21.793227 29218 net.cpp:369] relu3 -> ip3 (in-place)
I0428 19:59:21.793402 29218 net.cpp:124] Setting up relu3
I0428 19:59:21.793411 29218 net.cpp:131] Top shape: 64 10 (640)
I0428 19:59:21.793429 29218 net.cpp:139] Memory required for data: 2279680
I0428 19:59:21.793432 29218 layer_factory.hpp:77] Creating layer loss
I0428 19:59:21.793438 29218 net.cpp:86] Creating Layer loss
I0428 19:59:21.793442 29218 net.cpp:408] loss <- ip3
I0428 19:59:21.793444 29218 net.cpp:408] loss <- label
I0428 19:59:21.793450 29218 net.cpp:382] loss -> loss
I0428 19:59:21.793468 29218 layer_factory.hpp:77] Creating layer loss
…
I0428 19:59:21.794174 29218 solver.cpp:173] Creating test net (#0) specified by net file: ECE595/mnist/train_test/var_everything2/lenet_train_test845.prototxt
I0428 19:59:21.794230 29218 net.cpp:296] The NetState phase (1) differed from the phase (0) specified by a rule in layer mnist
I0428 19:59:21.794333 29218 net.cpp:53] Initializing net from parameters: 
name: "LeNet"
state {
  phase: TEST
}
layer {
  name: "mnist"
  type: "Data"
  top: "data"
  top: "label"
  include {
    phase: TEST
  }
  transform_param {
    scale: 0.00390625
  }
  data_param {
    source: "examples/mnist/mnist_test_lmdb"
    batch_size: 100
    backend: LMDB
  }
}
layer {
  name: "conv0"
  type: "Convolution"
  bottom: "data"
  top: "conv0"
  param {
    lr_mult: 1
  }
  param {
    lr_mult: 2
  }
  convolution_param {
    num_output: 10
    kernel_size: 5
    stride: 1
    weight_filler {
      type: "xavier"
    }
    bias_filler {
      type: "constant"
    }
  }
}
layer {
  name: "pool0"
  type: "Pooling"
  bottom: "conv0"
  top: "pool0"
  pooling_param {
    pool: MAX
    kernel_size: 2
    stride: 2
  }
}
layer {
  name: "conv1"
  type: "Convolution"
  bottom: "pool0"
  top: "conv1"
  param {
    lr_mult: 1
  }
  param {
    lr_mult: 2
  }
  convolution_param {
    num_output: 10
    kernel_size: 5
    stride: 1
    weight_filler {
      type: "xavier"
    }
    bias_filler {
      type: "constant"
    }
  }
}
layer {
  name: "pool1"
  type: "Pooling"
  bottom: "conv1"
  top: "pool1"
  pooling_param {
    pool: MAX
    kernel_size: 2
    stride: 2
  }
}
layer {
  name: "ip1"
  type: "InnerProduct"
  bottom: "pool1"
  top: "ip1"
  param {
    lr_mult: 1
  }
  param {
    lr_mult: 2
  }
  inner_product_param {
    num_output: 25
    weight_filler {
      type: "xavier"
    }
    bias_filler {
      type: "constant"
    }
  }
}
layer {
  name: "relu1"
  type: "ReLU"
  bottom: "ip1"
  top: "ip1"
}
layer {
  name: "ip2"
  type: "InnerProduct"
  bottom: "ip1"
  top: "ip2"
  param {
    lr_mult: 1
  }
  param {
    lr_mult: 2
  }
  inner_product_param {
    num_output: 25
    weight_filler {
      type: "xavier"
    }
    bias_filler {
      type: "constant"
    }
  }
}
layer {
  name: "relu2"
  type: "ReLU"
  bottom: "ip2"
  top: "ip2"
}
layer {
  name: "ip3"
  type: "InnerProduct"
  bottom: "ip2"
  top: "ip3"
  param {
    lr_mult: 1
  }
  param {
    lr_mult: 2
  }
  inner_product_param {
    num_output: 10
    weight_filler {
      type: "xavier"
    }
    bias_filler {
      type: "constant"
    }
  }
}
layer {
  name: "relu3"
  type: "ReLU"
  bottom: "ip3"
  top: "ip3"
}
layer {
  name: "accuracy"
  type: "Accuracy"
  bottom: "ip3"
  bottom: "label"
  top: "accuracy"
  include {
    phase: TEST
  }
}
layer {
  name: "loss"
  type: "SoftmaxWithLoss"
  bottom: "ip3"
  bottom: "label"
  top: "loss"
}
I0428 19:59:21.794409 29218 layer_factory.hpp:77] Creating layer mnist
I0428 19:59:21.794450 29218 db_lmdb.cpp:35] Opened lmdb examples/mnist/mnist_test_lmdb
I0428 19:59:21.794464 29218 net.cpp:86] Creating Layer mnist
I0428 19:59:21.794468 29218 net.cpp:382] mnist -> data
I0428 19:59:21.794476 29218 net.cpp:382] mnist -> label
I0428 19:59:21.794569 29218 data_layer.cpp:45] output data size: 100,1,28,28
I0428 19:59:21.796571 29218 net.cpp:124] Setting up mnist
I0428 19:59:21.796614 29218 net.cpp:131] Top shape: 100 1 28 28 (78400)
I0428 19:59:21.796619 29218 net.cpp:131] Top shape: 100 (100)
I0428 19:59:21.796623 29218 net.cpp:139] Memory required for data: 314000
I0428 19:59:21.796627 29218 layer_factory.hpp:77] Creating layer label_mnist_1_split
I0428 19:59:21.796636 29218 net.cpp:86] Creating Layer label_mnist_1_split
I0428 19:59:21.796640 29218 net.cpp:408] label_mnist_1_split <- label
I0428 19:59:21.796644 29218 net.cpp:382] label_mnist_1_split -> label_mnist_1_split_0
I0428 19:59:21.796651 29218 net.cpp:382] label_mnist_1_split -> label_mnist_1_split_1
I0428 19:59:21.796746 29218 net.cpp:124] Setting up label_mnist_1_split
I0428 19:59:21.796753 29218 net.cpp:131] Top shape: 100 (100)
I0428 19:59:21.796756 29218 net.cpp:131] Top shape: 100 (100)
I0428 19:59:21.796759 29218 net.cpp:139] Memory required for data: 314800
I0428 19:59:21.796762 29218 layer_factory.hpp:77] Creating layer conv0
I0428 19:59:21.796771 29218 net.cpp:86] Creating Layer conv0
I0428 19:59:21.796773 29218 net.cpp:408] conv0 <- data
I0428 19:59:21.796778 29218 net.cpp:382] conv0 -> conv0
I0428 19:59:21.798300 29218 net.cpp:124] Setting up conv0
I0428 19:59:21.798313 29218 net.cpp:131] Top shape: 100 10 24 24 (576000)
I0428 19:59:21.798317 29218 net.cpp:139] Memory required for data: 2618800
I0428 19:59:21.798341 29218 layer_factory.hpp:77] Creating layer pool0
I0428 19:59:21.798346 29218 net.cpp:86] Creating Layer pool0
I0428 19:59:21.798349 29218 net.cpp:408] pool0 <- conv0
I0428 19:59:21.798354 29218 net.cpp:382] pool0 -> pool0
I0428 19:59:21.798399 29218 net.cpp:124] Setting up pool0
I0428 19:59:21.798408 29218 net.cpp:131] Top shape: 100 10 12 12 (144000)
I0428 19:59:21.798410 29218 net.cpp:139] Memory required for data: 3194800
I0428 19:59:21.798413 29218 layer_factory.hpp:77] Creating layer conv1
I0428 19:59:21.798420 29218 net.cpp:86] Creating Layer conv1
I0428 19:59:21.798424 29218 net.cpp:408] conv1 <- pool0
I0428 19:59:21.798429 29218 net.cpp:382] conv1 -> conv1
I0428 19:59:21.800509 29218 net.cpp:124] Setting up conv1
I0428 19:59:21.800535 29218 net.cpp:131] Top shape: 100 10 8 8 (64000)
I0428 19:59:21.800539 29218 net.cpp:139] Memory required for data: 3450800
I0428 19:59:21.800562 29218 layer_factory.hpp:77] Creating layer pool1
I0428 19:59:21.800568 29218 net.cpp:86] Creating Layer pool1
I0428 19:59:21.800571 29218 net.cpp:408] pool1 <- conv1
I0428 19:59:21.800576 29218 net.cpp:382] pool1 -> pool1
I0428 19:59:21.800647 29218 net.cpp:124] Setting up pool1
I0428 19:59:21.800655 29218 net.cpp:131] Top shape: 100 10 4 4 (16000)
I0428 19:59:21.800658 29218 net.cpp:139] Memory required for data: 3514800
I0428 19:59:21.800662 29218 layer_factory.hpp:77] Creating layer ip1
I0428 19:59:21.800668 29218 net.cpp:86] Creating Layer ip1
I0428 19:59:21.800671 29218 net.cpp:408] ip1 <- pool1
I0428 19:59:21.800675 29218 net.cpp:382] ip1 -> ip1
I0428 19:59:21.800856 29218 net.cpp:124] Setting up ip1
I0428 19:59:21.800864 29218 net.cpp:131] Top shape: 100 25 (2500)
I0428 19:59:21.800879 29218 net.cpp:139] Memory required for data: 3524800
I0428 19:59:21.800886 29218 layer_factory.hpp:77] Creating layer relu1
I0428 19:59:21.800891 29218 net.cpp:86] Creating Layer relu1
I0428 19:59:21.800900 29218 net.cpp:408] relu1 <- ip1
I0428 19:59:21.800905 29218 net.cpp:369] relu1 -> ip1 (in-place)
I0428 19:59:21.801081 29218 net.cpp:124] Setting up relu1
I0428 19:59:21.801091 29218 net.cpp:131] Top shape: 100 25 (2500)
I0428 19:59:21.801095 29218 net.cpp:139] Memory required for data: 3534800
I0428 19:59:21.801097 29218 layer_factory.hpp:77] Creating layer ip2
I0428 19:59:21.801105 29218 net.cpp:86] Creating Layer ip2
I0428 19:59:21.801108 29218 net.cpp:408] ip2 <- ip1
I0428 19:59:21.801123 29218 net.cpp:382] ip2 -> ip2
I0428 19:59:21.801256 29218 net.cpp:124] Setting up ip2
I0428 19:59:21.801264 29218 net.cpp:131] Top shape: 100 25 (2500)
I0428 19:59:21.801266 29218 net.cpp:139] Memory required for data: 3544800
I0428 19:59:21.801270 29218 layer_factory.hpp:77] Creating layer relu2
I0428 19:59:21.801275 29218 net.cpp:86] Creating Layer relu2
I0428 19:59:21.801278 29218 net.cpp:408] relu2 <- ip2
I0428 19:59:21.801281 29218 net.cpp:369] relu2 -> ip2 (in-place)
I0428 19:59:21.801481 29218 net.cpp:124] Setting up relu2
I0428 19:59:21.801489 29218 net.cpp:131] Top shape: 100 25 (2500)
I0428 19:59:21.801492 29218 net.cpp:139] Memory required for data: 3554800
I0428 19:59:21.801496 29218 layer_factory.hpp:77] Creating layer ip3
I0428 19:59:21.801512 29218 net.cpp:86] Creating Layer ip3
I0428 19:59:21.801514 29218 net.cpp:408] ip3 <- ip2
I0428 19:59:21.801518 29218 net.cpp:382] ip3 -> ip3
I0428 19:59:21.801632 29218 net.cpp:124] Setting up ip3
I0428 19:59:21.801638 29218 net.cpp:131] Top shape: 100 10 (1000)
I0428 19:59:21.801642 29218 net.cpp:139] Memory required for data: 3558800
I0428 19:59:21.801650 29218 layer_factory.hpp:77] Creating layer relu3
I0428 19:59:21.801653 29218 net.cpp:86] Creating Layer relu3
I0428 19:59:21.801656 29218 net.cpp:408] relu3 <- ip3
I0428 19:59:21.801661 29218 net.cpp:369] relu3 -> ip3 (in-place)
I0428 19:59:21.802467 29218 net.cpp:124] Setting up relu3
I0428 19:59:21.802480 29218 net.cpp:131] Top shape: 100 10 (1000)
I0428 19:59:21.802484 29218 net.cpp:139] Memory required for data: 3562800
I0428 19:59:21.802486 29218 layer_factory.hpp:77] Creating layer ip3_relu3_0_split
I0428 19:59:21.802491 29218 net.cpp:86] Creating Layer ip3_relu3_0_split
I0428 19:59:21.802495 29218 net.cpp:408] ip3_relu3_0_split <- ip3
I0428 19:59:21.802500 29218 net.cpp:382] ip3_relu3_0_split -> ip3_relu3_0_split_0
I0428 19:59:21.802506 29218 net.cpp:382] ip3_relu3_0_split -> ip3_relu3_0_split_1
I0428 19:59:21.802543 29218 net.cpp:124] Setting up ip3_relu3_0_split
I0428 19:59:21.802549 29218 net.cpp:131] Top shape: 100 10 (1000)
I0428 19:59:21.802553 29218 net.cpp:131] Top shape: 100 10 (1000)
I0428 19:59:21.802556 29218 net.cpp:139] Memory required for data: 3570800
I0428 19:59:21.802558 29218 layer_factory.hpp:77] Creating layer accuracy
I0428 19:59:21.802564 29218 net.cpp:86] Creating Layer accuracy
I0428 19:59:21.802567 29218 net.cpp:408] accuracy <- ip3_relu3_0_split_0
I0428 19:59:21.802572 29218 net.cpp:408] accuracy <- label_mnist_1_split_0
I0428 19:59:21.802575 29218 net.cpp:382] accuracy -> accuracy
…
