…
I0428 20:15:43.001703   504 net.cpp:296] The NetState phase (0) differed from the phase (1) specified by a rule in layer mnist
I0428 20:15:43.001719   504 net.cpp:296] The NetState phase (0) differed from the phase (1) specified by a rule in layer accuracy
I0428 20:15:43.001807   504 net.cpp:53] Initializing net from parameters: 
name: "LeNet"
state {
  phase: TRAIN
  level: 0
  stage: ""
}
layer {
  name: "mnist"
  type: "Data"
  top: "data"
  top: "label"
  include {
    phase: TRAIN
  }
  transform_param {
    scale: 0.00390625
  }
  data_param {
    source: "examples/mnist/mnist_train_lmdb"
    batch_size: 64
    backend: LMDB
  }
}
layer {
  name: "conv0"
  type: "Convolution"
  bottom: "data"
  top: "conv0"
  param {
    lr_mult: 1
  }
  param {
    lr_mult: 2
  }
  convolution_param {
    num_output: 50
    kernel_size: 5
    stride: 1
    weight_filler {
      type: "xavier"
    }
    bias_filler {
      type: "constant"
    }
  }
}
layer {
  name: "pool0"
  type: "Pooling"
  bottom: "conv0"
  top: "pool0"
  pooling_param {
    pool: MAX
    kernel_size: 2
    stride: 2
  }
}
layer {
  name: "conv1"
  type: "Convolution"
  bottom: "pool0"
  top: "conv1"
  param {
    lr_mult: 1
  }
  param {
    lr_mult: 2
  }
  convolution_param {
    num_output: 5
    kernel_size: 5
    stride: 1
    weight_filler {
      type: "xavier"
    }
    bias_filler {
      type: "constant"
    }
  }
}
layer {
  name: "pool1"
  type: "Pooling"
  bottom: "conv1"
  top: "pool1"
  pooling_param {
    pool: MAX
    kernel_size: 2
    stride: 2
  }
}
layer {
  name: "ip1"
  type: "InnerProduct"
  bottom: "pool1"
  top: "ip1"
  param {
    lr_mult: 1
  }
  param {
    lr_mult: 2
  }
  inner_product_param {
    num_output: 10
    weight_filler {
      type: "xavier"
    }
    bias_filler {
      type: "constant"
    }
  }
}
layer {
  name: "relu1"
  type: "ReLU"
  bottom: "ip1"
  top: "ip1"
}
layer {
  name: "ip2"
  type: "InnerProduct"
  bottom: "ip1"
  top: "ip2"
  param {
    lr_mult: 1
  }
  param {
    lr_mult: 2
  }
  inner_product_param {
    num_output: 10
    weight_filler {
      type: "xavier"
    }
    bias_filler {
      type: "constant"
    }
  }
}
layer {
  name: "relu2"
  type: "ReLU"
  bottom: "ip2"
  top: "ip2"
}
layer {
  name: "loss"
  type: "SoftmaxWithLoss"
  bottom: "ip2"
  bottom: "label"
  top: "loss"
}
I0428 20:15:43.001875   504 layer_factory.hpp:77] Creating layer mnist
I0428 20:15:43.001977   504 db_lmdb.cpp:35] Opened lmdb examples/mnist/mnist_train_lmdb
I0428 20:15:43.002002   504 net.cpp:86] Creating Layer mnist
I0428 20:15:43.002008   504 net.cpp:382] mnist -> data
I0428 20:15:43.002034   504 net.cpp:382] mnist -> label
I0428 20:15:43.003118   504 data_layer.cpp:45] output data size: 64,1,28,28
I0428 20:15:43.005580   504 net.cpp:124] Setting up mnist
I0428 20:15:43.005599   504 net.cpp:131] Top shape: 64 1 28 28 (50176)
I0428 20:15:43.005606   504 net.cpp:131] Top shape: 64 (64)
I0428 20:15:43.005609   504 net.cpp:139] Memory required for data: 200960
I0428 20:15:43.005616   504 layer_factory.hpp:77] Creating layer conv0
I0428 20:15:43.005631   504 net.cpp:86] Creating Layer conv0
I0428 20:15:43.005637   504 net.cpp:408] conv0 <- data
I0428 20:15:43.005650   504 net.cpp:382] conv0 -> conv0
I0428 20:15:43.296761   504 net.cpp:124] Setting up conv0
I0428 20:15:43.296793   504 net.cpp:131] Top shape: 64 50 24 24 (1843200)
I0428 20:15:43.296798   504 net.cpp:139] Memory required for data: 7573760
I0428 20:15:43.296847   504 layer_factory.hpp:77] Creating layer pool0
I0428 20:15:43.296864   504 net.cpp:86] Creating Layer pool0
I0428 20:15:43.296869   504 net.cpp:408] pool0 <- conv0
I0428 20:15:43.296875   504 net.cpp:382] pool0 -> pool0
I0428 20:15:43.296932   504 net.cpp:124] Setting up pool0
I0428 20:15:43.296941   504 net.cpp:131] Top shape: 64 50 12 12 (460800)
I0428 20:15:43.296946   504 net.cpp:139] Memory required for data: 9416960
I0428 20:15:43.296949   504 layer_factory.hpp:77] Creating layer conv1
I0428 20:15:43.296963   504 net.cpp:86] Creating Layer conv1
I0428 20:15:43.296969   504 net.cpp:408] conv1 <- pool0
I0428 20:15:43.296975   504 net.cpp:382] conv1 -> conv1
I0428 20:15:43.300137   504 net.cpp:124] Setting up conv1
I0428 20:15:43.300155   504 net.cpp:131] Top shape: 64 5 8 8 (20480)
I0428 20:15:43.300159   504 net.cpp:139] Memory required for data: 9498880
I0428 20:15:43.300170   504 layer_factory.hpp:77] Creating layer pool1
I0428 20:15:43.300179   504 net.cpp:86] Creating Layer pool1
I0428 20:15:43.300184   504 net.cpp:408] pool1 <- conv1
I0428 20:15:43.300190   504 net.cpp:382] pool1 -> pool1
I0428 20:15:43.300235   504 net.cpp:124] Setting up pool1
I0428 20:15:43.300242   504 net.cpp:131] Top shape: 64 5 4 4 (5120)
I0428 20:15:43.300246   504 net.cpp:139] Memory required for data: 9519360
I0428 20:15:43.300249   504 layer_factory.hpp:77] Creating layer ip1
I0428 20:15:43.300267   504 net.cpp:86] Creating Layer ip1
I0428 20:15:43.300272   504 net.cpp:408] ip1 <- pool1
I0428 20:15:43.300278   504 net.cpp:382] ip1 -> ip1
I0428 20:15:43.300391   504 net.cpp:124] Setting up ip1
I0428 20:15:43.300398   504 net.cpp:131] Top shape: 64 10 (640)
I0428 20:15:43.300402   504 net.cpp:139] Memory required for data: 9521920
I0428 20:15:43.300410   504 layer_factory.hpp:77] Creating layer relu1
I0428 20:15:43.300417   504 net.cpp:86] Creating Layer relu1
I0428 20:15:43.300421   504 net.cpp:408] relu1 <- ip1
I0428 20:15:43.300426   504 net.cpp:369] relu1 -> ip1 (in-place)
I0428 20:15:43.300613   504 net.cpp:124] Setting up relu1
I0428 20:15:43.300623   504 net.cpp:131] Top shape: 64 10 (640)
I0428 20:15:43.300627   504 net.cpp:139] Memory required for data: 9524480
I0428 20:15:43.300631   504 layer_factory.hpp:77] Creating layer ip2
I0428 20:15:43.300638   504 net.cpp:86] Creating Layer ip2
I0428 20:15:43.300642   504 net.cpp:408] ip2 <- ip1
I0428 20:15:43.300647   504 net.cpp:382] ip2 -> ip2
I0428 20:15:43.300753   504 net.cpp:124] Setting up ip2
I0428 20:15:43.300760   504 net.cpp:131] Top shape: 64 10 (640)
I0428 20:15:43.300763   504 net.cpp:139] Memory required for data: 9527040
I0428 20:15:43.300770   504 layer_factory.hpp:77] Creating layer relu2
I0428 20:15:43.300776   504 net.cpp:86] Creating Layer relu2
I0428 20:15:43.300781   504 net.cpp:408] relu2 <- ip2
I0428 20:15:43.300786   504 net.cpp:369] relu2 -> ip2 (in-place)
I0428 20:15:43.301614   504 net.cpp:124] Setting up relu2
I0428 20:15:43.301630   504 net.cpp:131] Top shape: 64 10 (640)
I0428 20:15:43.301633   504 net.cpp:139] Memory required for data: 9529600
I0428 20:15:43.301637   504 layer_factory.hpp:77] Creating layer loss
I0428 20:15:43.301645   504 net.cpp:86] Creating Layer loss
I0428 20:15:43.301648   504 net.cpp:408] loss <- ip2
I0428 20:15:43.301654   504 net.cpp:408] loss <- label
I0428 20:15:43.301661   504 net.cpp:382] loss -> loss
I0428 20:15:43.301684   504 layer_factory.hpp:77] Creating layer loss
…
I0428 20:15:43.302376   504 solver.cpp:173] Creating test net (#0) specified by net file: ECE595/mnist/train_test/var_everything2/lenet_train_test1253.prototxt
I0428 20:15:43.302404   504 net.cpp:296] The NetState phase (1) differed from the phase (0) specified by a rule in layer mnist
I0428 20:15:43.302497   504 net.cpp:53] Initializing net from parameters: 
name: "LeNet"
state {
  phase: TEST
}
layer {
  name: "mnist"
  type: "Data"
  top: "data"
  top: "label"
  include {
    phase: TEST
  }
  transform_param {
    scale: 0.00390625
  }
  data_param {
    source: "examples/mnist/mnist_test_lmdb"
    batch_size: 100
    backend: LMDB
  }
}
layer {
  name: "conv0"
  type: "Convolution"
  bottom: "data"
  top: "conv0"
  param {
    lr_mult: 1
  }
  param {
    lr_mult: 2
  }
  convolution_param {
    num_output: 50
    kernel_size: 5
    stride: 1
    weight_filler {
      type: "xavier"
    }
    bias_filler {
      type: "constant"
    }
  }
}
layer {
  name: "pool0"
  type: "Pooling"
  bottom: "conv0"
  top: "pool0"
  pooling_param {
    pool: MAX
    kernel_size: 2
    stride: 2
  }
}
layer {
  name: "conv1"
  type: "Convolution"
  bottom: "pool0"
  top: "conv1"
  param {
    lr_mult: 1
  }
  param {
    lr_mult: 2
  }
  convolution_param {
    num_output: 5
    kernel_size: 5
    stride: 1
    weight_filler {
      type: "xavier"
    }
    bias_filler {
      type: "constant"
    }
  }
}
layer {
  name: "pool1"
  type: "Pooling"
  bottom: "conv1"
  top: "pool1"
  pooling_param {
    pool: MAX
    kernel_size: 2
    stride: 2
  }
}
layer {
  name: "ip1"
  type: "InnerProduct"
  bottom: "pool1"
  top: "ip1"
  param {
    lr_mult: 1
  }
  param {
    lr_mult: 2
  }
  inner_product_param {
    num_output: 10
    weight_filler {
      type: "xavier"
    }
    bias_filler {
      type: "constant"
    }
  }
}
layer {
  name: "relu1"
  type: "ReLU"
  bottom: "ip1"
  top: "ip1"
}
layer {
  name: "ip2"
  type: "InnerProduct"
  bottom: "ip1"
  top: "ip2"
  param {
    lr_mult: 1
  }
  param {
    lr_mult: 2
  }
  inner_product_param {
    num_output: 10
    weight_filler {
      type: "xavier"
    }
    bias_filler {
      type: "constant"
    }
  }
}
layer {
  name: "relu2"
  type: "ReLU"
  bottom: "ip2"
  top: "ip2"
}
layer {
  name: "accuracy"
  type: "Accuracy"
  bottom: "ip2"
  bottom: "label"
  top: "accuracy"
  include {
    phase: TEST
  }
}
layer {
  name: "loss"
  type: "SoftmaxWithLoss"
  bottom: "ip2"
  bottom: "label"
  top: "loss"
}
I0428 20:15:43.302568   504 layer_factory.hpp:77] Creating layer mnist
I0428 20:15:43.302618   504 db_lmdb.cpp:35] Opened lmdb examples/mnist/mnist_test_lmdb
I0428 20:15:43.302633   504 net.cpp:86] Creating Layer mnist
I0428 20:15:43.302639   504 net.cpp:382] mnist -> data
I0428 20:15:43.302647   504 net.cpp:382] mnist -> label
I0428 20:15:43.302743   504 data_layer.cpp:45] output data size: 100,1,28,28
I0428 20:15:43.304874   504 net.cpp:124] Setting up mnist
I0428 20:15:43.304890   504 net.cpp:131] Top shape: 100 1 28 28 (78400)
I0428 20:15:43.304896   504 net.cpp:131] Top shape: 100 (100)
I0428 20:15:43.304899   504 net.cpp:139] Memory required for data: 314000
I0428 20:15:43.304904   504 layer_factory.hpp:77] Creating layer label_mnist_1_split
I0428 20:15:43.304913   504 net.cpp:86] Creating Layer label_mnist_1_split
I0428 20:15:43.304916   504 net.cpp:408] label_mnist_1_split <- label
I0428 20:15:43.304921   504 net.cpp:382] label_mnist_1_split -> label_mnist_1_split_0
I0428 20:15:43.304929   504 net.cpp:382] label_mnist_1_split -> label_mnist_1_split_1
I0428 20:15:43.305022   504 net.cpp:124] Setting up label_mnist_1_split
I0428 20:15:43.305043   504 net.cpp:131] Top shape: 100 (100)
I0428 20:15:43.305048   504 net.cpp:131] Top shape: 100 (100)
I0428 20:15:43.305052   504 net.cpp:139] Memory required for data: 314800
I0428 20:15:43.305055   504 layer_factory.hpp:77] Creating layer conv0
I0428 20:15:43.305065   504 net.cpp:86] Creating Layer conv0
I0428 20:15:43.305073   504 net.cpp:408] conv0 <- data
I0428 20:15:43.305078   504 net.cpp:382] conv0 -> conv0
I0428 20:15:43.306715   504 net.cpp:124] Setting up conv0
I0428 20:15:43.306730   504 net.cpp:131] Top shape: 100 50 24 24 (2880000)
I0428 20:15:43.306735   504 net.cpp:139] Memory required for data: 11834800
I0428 20:15:43.306746   504 layer_factory.hpp:77] Creating layer pool0
I0428 20:15:43.306753   504 net.cpp:86] Creating Layer pool0
I0428 20:15:43.306757   504 net.cpp:408] pool0 <- conv0
I0428 20:15:43.306762   504 net.cpp:382] pool0 -> pool0
I0428 20:15:43.306803   504 net.cpp:124] Setting up pool0
I0428 20:15:43.306812   504 net.cpp:131] Top shape: 100 50 12 12 (720000)
I0428 20:15:43.306814   504 net.cpp:139] Memory required for data: 14714800
I0428 20:15:43.306818   504 layer_factory.hpp:77] Creating layer conv1
I0428 20:15:43.306829   504 net.cpp:86] Creating Layer conv1
I0428 20:15:43.306836   504 net.cpp:408] conv1 <- pool0
I0428 20:15:43.306843   504 net.cpp:382] conv1 -> conv1
I0428 20:15:43.308547   504 net.cpp:124] Setting up conv1
I0428 20:15:43.308562   504 net.cpp:131] Top shape: 100 5 8 8 (32000)
I0428 20:15:43.308567   504 net.cpp:139] Memory required for data: 14842800
I0428 20:15:43.308578   504 layer_factory.hpp:77] Creating layer pool1
I0428 20:15:43.308585   504 net.cpp:86] Creating Layer pool1
I0428 20:15:43.308589   504 net.cpp:408] pool1 <- conv1
I0428 20:15:43.308595   504 net.cpp:382] pool1 -> pool1
I0428 20:15:43.308637   504 net.cpp:124] Setting up pool1
I0428 20:15:43.308647   504 net.cpp:131] Top shape: 100 5 4 4 (8000)
I0428 20:15:43.308651   504 net.cpp:139] Memory required for data: 14874800
I0428 20:15:43.308655   504 layer_factory.hpp:77] Creating layer ip1
I0428 20:15:43.308662   504 net.cpp:86] Creating Layer ip1
I0428 20:15:43.308666   504 net.cpp:408] ip1 <- pool1
I0428 20:15:43.308671   504 net.cpp:382] ip1 -> ip1
I0428 20:15:43.308784   504 net.cpp:124] Setting up ip1
I0428 20:15:43.308792   504 net.cpp:131] Top shape: 100 10 (1000)
I0428 20:15:43.308795   504 net.cpp:139] Memory required for data: 14878800
I0428 20:15:43.308804   504 layer_factory.hpp:77] Creating layer relu1
I0428 20:15:43.308816   504 net.cpp:86] Creating Layer relu1
I0428 20:15:43.308821   504 net.cpp:408] relu1 <- ip1
I0428 20:15:43.308826   504 net.cpp:369] relu1 -> ip1 (in-place)
I0428 20:15:43.309006   504 net.cpp:124] Setting up relu1
I0428 20:15:43.309016   504 net.cpp:131] Top shape: 100 10 (1000)
I0428 20:15:43.309020   504 net.cpp:139] Memory required for data: 14882800
I0428 20:15:43.309023   504 layer_factory.hpp:77] Creating layer ip2
I0428 20:15:43.309031   504 net.cpp:86] Creating Layer ip2
I0428 20:15:43.309036   504 net.cpp:408] ip2 <- ip1
I0428 20:15:43.309041   504 net.cpp:382] ip2 -> ip2
I0428 20:15:43.309165   504 net.cpp:124] Setting up ip2
I0428 20:15:43.309171   504 net.cpp:131] Top shape: 100 10 (1000)
I0428 20:15:43.309175   504 net.cpp:139] Memory required for data: 14886800
I0428 20:15:43.309181   504 layer_factory.hpp:77] Creating layer relu2
I0428 20:15:43.309187   504 net.cpp:86] Creating Layer relu2
I0428 20:15:43.309190   504 net.cpp:408] relu2 <- ip2
I0428 20:15:43.309195   504 net.cpp:369] relu2 -> ip2 (in-place)
I0428 20:15:43.309417   504 net.cpp:124] Setting up relu2
I0428 20:15:43.309427   504 net.cpp:131] Top shape: 100 10 (1000)
I0428 20:15:43.309430   504 net.cpp:139] Memory required for data: 14890800
I0428 20:15:43.309442   504 layer_factory.hpp:77] Creating layer ip2_relu2_0_split
I0428 20:15:43.309448   504 net.cpp:86] Creating Layer ip2_relu2_0_split
I0428 20:15:43.309450   504 net.cpp:408] ip2_relu2_0_split <- ip2
I0428 20:15:43.309456   504 net.cpp:382] ip2_relu2_0_split -> ip2_relu2_0_split_0
I0428 20:15:43.309478   504 net.cpp:382] ip2_relu2_0_split -> ip2_relu2_0_split_1
I0428 20:15:43.309518   504 net.cpp:124] Setting up ip2_relu2_0_split
I0428 20:15:43.309525   504 net.cpp:131] Top shape: 100 10 (1000)
I0428 20:15:43.309530   504 net.cpp:131] Top shape: 100 10 (1000)
I0428 20:15:43.309532   504 net.cpp:139] Memory required for data: 14898800
I0428 20:15:43.309536   504 layer_factory.hpp:77] Creating layer accuracy
I0428 20:15:43.309541   504 net.cpp:86] Creating Layer accuracy
I0428 20:15:43.309545   504 net.cpp:408] accuracy <- ip2_relu2_0_split_0
I0428 20:15:43.309551   504 net.cpp:408] accuracy <- label_mnist_1_split_0
I0428 20:15:43.309577   504 net.cpp:382] accuracy -> accuracy
…
