…
I0428 20:32:46.471187  4187 net.cpp:296] The NetState phase (0) differed from the phase (1) specified by a rule in layer mnist
I0428 20:32:46.471213  4187 net.cpp:296] The NetState phase (0) differed from the phase (1) specified by a rule in layer accuracy
I0428 20:32:46.471326  4187 net.cpp:53] Initializing net from parameters: 
name: "LeNet"
state {
  phase: TRAIN
  level: 0
  stage: ""
}
layer {
  name: "mnist"
  type: "Data"
  top: "data"
  top: "label"
  include {
    phase: TRAIN
  }
  transform_param {
    scale: 0.00390625
  }
  data_param {
    source: "examples/mnist/mnist_train_lmdb"
    batch_size: 64
    backend: LMDB
  }
}
layer {
  name: "conv0"
  type: "Convolution"
  bottom: "data"
  top: "conv0"
  param {
    lr_mult: 1
  }
  param {
    lr_mult: 2
  }
  convolution_param {
    num_output: 100
    kernel_size: 5
    stride: 1
    weight_filler {
      type: "xavier"
    }
    bias_filler {
      type: "constant"
    }
  }
}
layer {
  name: "pool0"
  type: "Pooling"
  bottom: "conv0"
  top: "pool0"
  pooling_param {
    pool: MAX
    kernel_size: 2
    stride: 2
  }
}
layer {
  name: "conv1"
  type: "Convolution"
  bottom: "pool0"
  top: "conv1"
  param {
    lr_mult: 1
  }
  param {
    lr_mult: 2
  }
  convolution_param {
    num_output: 25
    kernel_size: 5
    stride: 1
    weight_filler {
      type: "xavier"
    }
    bias_filler {
      type: "constant"
    }
  }
}
layer {
  name: "pool1"
  type: "Pooling"
  bottom: "conv1"
  top: "pool1"
  pooling_param {
    pool: MAX
    kernel_size: 2
    stride: 2
  }
}
layer {
  name: "ip1"
  type: "InnerProduct"
  bottom: "pool1"
  top: "ip1"
  param {
    lr_mult: 1
  }
  param {
    lr_mult: 2
  }
  inner_product_param {
    num_output: 10
    weight_filler {
      type: "xavier"
    }
    bias_filler {
      type: "constant"
    }
  }
}
layer {
  name: "relu1"
  type: "ReLU"
  bottom: "ip1"
  top: "ip1"
}
layer {
  name: "ip2"
  type: "InnerProduct"
  bottom: "ip1"
  top: "ip2"
  param {
    lr_mult: 1
  }
  param {
    lr_mult: 2
  }
  inner_product_param {
    num_output: 25
    weight_filler {
      type: "xavier"
    }
    bias_filler {
      type: "constant"
    }
  }
}
layer {
  name: "relu2"
  type: "ReLU"
  bottom: "ip2"
  top: "ip2"
}
layer {
  name: "ip3"
  type: "InnerProduct"
  bottom: "ip2"
  top: "ip3"
  param {
    lr_mult: 1
  }
  param {
    lr_mult: 2
  }
  inner_product_param {
    num_output: 10
    weight_filler {
      type: "xavier"
    }
    bias_filler {
      type: "constant"
    }
  }
}
layer {
  name: "relu3"
  type: "ReLU"
  bottom: "ip3"
  top: "ip3"
}
layer {
  name: "loss"
  type: "SoftmaxWithLoss"
  bottom: "ip3"
  bottom: "label"
  top: "loss"
}
I0428 20:32:46.471436  4187 layer_factory.hpp:77] Creating layer mnist
I0428 20:32:46.471544  4187 db_lmdb.cpp:35] Opened lmdb examples/mnist/mnist_train_lmdb
I0428 20:32:46.471576  4187 net.cpp:86] Creating Layer mnist
I0428 20:32:46.471590  4187 net.cpp:382] mnist -> data
I0428 20:32:46.471621  4187 net.cpp:382] mnist -> label
I0428 20:32:46.472718  4187 data_layer.cpp:45] output data size: 64,1,28,28
I0428 20:32:46.475188  4187 net.cpp:124] Setting up mnist
I0428 20:32:46.475211  4187 net.cpp:131] Top shape: 64 1 28 28 (50176)
I0428 20:32:46.475221  4187 net.cpp:131] Top shape: 64 (64)
I0428 20:32:46.475230  4187 net.cpp:139] Memory required for data: 200960
I0428 20:32:46.475242  4187 layer_factory.hpp:77] Creating layer conv0
I0428 20:32:46.475260  4187 net.cpp:86] Creating Layer conv0
I0428 20:32:46.475278  4187 net.cpp:408] conv0 <- data
I0428 20:32:46.475291  4187 net.cpp:382] conv0 -> conv0
I0428 20:32:46.759061  4187 net.cpp:124] Setting up conv0
I0428 20:32:46.759089  4187 net.cpp:131] Top shape: 64 100 24 24 (3686400)
I0428 20:32:46.759093  4187 net.cpp:139] Memory required for data: 14946560
I0428 20:32:46.759107  4187 layer_factory.hpp:77] Creating layer pool0
I0428 20:32:46.759119  4187 net.cpp:86] Creating Layer pool0
I0428 20:32:46.759124  4187 net.cpp:408] pool0 <- conv0
I0428 20:32:46.759130  4187 net.cpp:382] pool0 -> pool0
I0428 20:32:46.759176  4187 net.cpp:124] Setting up pool0
I0428 20:32:46.759183  4187 net.cpp:131] Top shape: 64 100 12 12 (921600)
I0428 20:32:46.759186  4187 net.cpp:139] Memory required for data: 18632960
I0428 20:32:46.759189  4187 layer_factory.hpp:77] Creating layer conv1
I0428 20:32:46.759201  4187 net.cpp:86] Creating Layer conv1
I0428 20:32:46.759207  4187 net.cpp:408] conv1 <- pool0
I0428 20:32:46.759212  4187 net.cpp:382] conv1 -> conv1
I0428 20:32:46.761461  4187 net.cpp:124] Setting up conv1
I0428 20:32:46.761474  4187 net.cpp:131] Top shape: 64 25 8 8 (102400)
I0428 20:32:46.761478  4187 net.cpp:139] Memory required for data: 19042560
I0428 20:32:46.761487  4187 layer_factory.hpp:77] Creating layer pool1
I0428 20:32:46.761493  4187 net.cpp:86] Creating Layer pool1
I0428 20:32:46.761497  4187 net.cpp:408] pool1 <- conv1
I0428 20:32:46.761502  4187 net.cpp:382] pool1 -> pool1
I0428 20:32:46.761538  4187 net.cpp:124] Setting up pool1
I0428 20:32:46.761546  4187 net.cpp:131] Top shape: 64 25 4 4 (25600)
I0428 20:32:46.761565  4187 net.cpp:139] Memory required for data: 19144960
I0428 20:32:46.761569  4187 layer_factory.hpp:77] Creating layer ip1
I0428 20:32:46.761575  4187 net.cpp:86] Creating Layer ip1
I0428 20:32:46.761579  4187 net.cpp:408] ip1 <- pool1
I0428 20:32:46.761584  4187 net.cpp:382] ip1 -> ip1
I0428 20:32:46.761706  4187 net.cpp:124] Setting up ip1
I0428 20:32:46.761714  4187 net.cpp:131] Top shape: 64 10 (640)
I0428 20:32:46.761718  4187 net.cpp:139] Memory required for data: 19147520
I0428 20:32:46.761724  4187 layer_factory.hpp:77] Creating layer relu1
I0428 20:32:46.761729  4187 net.cpp:86] Creating Layer relu1
I0428 20:32:46.761734  4187 net.cpp:408] relu1 <- ip1
I0428 20:32:46.761737  4187 net.cpp:369] relu1 -> ip1 (in-place)
I0428 20:32:46.761926  4187 net.cpp:124] Setting up relu1
I0428 20:32:46.761935  4187 net.cpp:131] Top shape: 64 10 (640)
I0428 20:32:46.761939  4187 net.cpp:139] Memory required for data: 19150080
I0428 20:32:46.761941  4187 layer_factory.hpp:77] Creating layer ip2
I0428 20:32:46.761947  4187 net.cpp:86] Creating Layer ip2
I0428 20:32:46.761950  4187 net.cpp:408] ip2 <- ip1
I0428 20:32:46.761955  4187 net.cpp:382] ip2 -> ip2
I0428 20:32:46.762048  4187 net.cpp:124] Setting up ip2
I0428 20:32:46.762055  4187 net.cpp:131] Top shape: 64 25 (1600)
I0428 20:32:46.762058  4187 net.cpp:139] Memory required for data: 19156480
I0428 20:32:46.762064  4187 layer_factory.hpp:77] Creating layer relu2
I0428 20:32:46.762070  4187 net.cpp:86] Creating Layer relu2
I0428 20:32:46.762073  4187 net.cpp:408] relu2 <- ip2
I0428 20:32:46.762078  4187 net.cpp:369] relu2 -> ip2 (in-place)
I0428 20:32:46.762831  4187 net.cpp:124] Setting up relu2
I0428 20:32:46.762843  4187 net.cpp:131] Top shape: 64 25 (1600)
I0428 20:32:46.762847  4187 net.cpp:139] Memory required for data: 19162880
I0428 20:32:46.762850  4187 layer_factory.hpp:77] Creating layer ip3
I0428 20:32:46.762857  4187 net.cpp:86] Creating Layer ip3
I0428 20:32:46.762861  4187 net.cpp:408] ip3 <- ip2
I0428 20:32:46.762866  4187 net.cpp:382] ip3 -> ip3
I0428 20:32:46.762996  4187 net.cpp:124] Setting up ip3
I0428 20:32:46.763005  4187 net.cpp:131] Top shape: 64 10 (640)
I0428 20:32:46.763008  4187 net.cpp:139] Memory required for data: 19165440
I0428 20:32:46.763016  4187 layer_factory.hpp:77] Creating layer relu3
I0428 20:32:46.763021  4187 net.cpp:86] Creating Layer relu3
I0428 20:32:46.763025  4187 net.cpp:408] relu3 <- ip3
I0428 20:32:46.763029  4187 net.cpp:369] relu3 -> ip3 (in-place)
I0428 20:32:46.763202  4187 net.cpp:124] Setting up relu3
I0428 20:32:46.763211  4187 net.cpp:131] Top shape: 64 10 (640)
I0428 20:32:46.763216  4187 net.cpp:139] Memory required for data: 19168000
I0428 20:32:46.763218  4187 layer_factory.hpp:77] Creating layer loss
I0428 20:32:46.763224  4187 net.cpp:86] Creating Layer loss
I0428 20:32:46.763227  4187 net.cpp:408] loss <- ip3
I0428 20:32:46.763231  4187 net.cpp:408] loss <- label
I0428 20:32:46.763252  4187 net.cpp:382] loss -> loss
I0428 20:32:46.763281  4187 layer_factory.hpp:77] Creating layer loss
…
I0428 20:32:46.763944  4187 solver.cpp:173] Creating test net (#0) specified by net file: ECE595/mnist/train_test/var_everything2/lenet_train_test1577.prototxt
I0428 20:32:46.763988  4187 net.cpp:296] The NetState phase (1) differed from the phase (0) specified by a rule in layer mnist
I0428 20:32:46.764125  4187 net.cpp:53] Initializing net from parameters: 
name: "LeNet"
state {
  phase: TEST
}
layer {
  name: "mnist"
  type: "Data"
  top: "data"
  top: "label"
  include {
    phase: TEST
  }
  transform_param {
    scale: 0.00390625
  }
  data_param {
    source: "examples/mnist/mnist_test_lmdb"
    batch_size: 100
    backend: LMDB
  }
}
layer {
  name: "conv0"
  type: "Convolution"
  bottom: "data"
  top: "conv0"
  param {
    lr_mult: 1
  }
  param {
    lr_mult: 2
  }
  convolution_param {
    num_output: 100
    kernel_size: 5
    stride: 1
    weight_filler {
      type: "xavier"
    }
    bias_filler {
      type: "constant"
    }
  }
}
layer {
  name: "pool0"
  type: "Pooling"
  bottom: "conv0"
  top: "pool0"
  pooling_param {
    pool: MAX
    kernel_size: 2
    stride: 2
  }
}
layer {
  name: "conv1"
  type: "Convolution"
  bottom: "pool0"
  top: "conv1"
  param {
    lr_mult: 1
  }
  param {
    lr_mult: 2
  }
  convolution_param {
    num_output: 25
    kernel_size: 5
    stride: 1
    weight_filler {
      type: "xavier"
    }
    bias_filler {
      type: "constant"
    }
  }
}
layer {
  name: "pool1"
  type: "Pooling"
  bottom: "conv1"
  top: "pool1"
  pooling_param {
    pool: MAX
    kernel_size: 2
    stride: 2
  }
}
layer {
  name: "ip1"
  type: "InnerProduct"
  bottom: "pool1"
  top: "ip1"
  param {
    lr_mult: 1
  }
  param {
    lr_mult: 2
  }
  inner_product_param {
    num_output: 10
    weight_filler {
      type: "xavier"
    }
    bias_filler {
      type: "constant"
    }
  }
}
layer {
  name: "relu1"
  type: "ReLU"
  bottom: "ip1"
  top: "ip1"
}
layer {
  name: "ip2"
  type: "InnerProduct"
  bottom: "ip1"
  top: "ip2"
  param {
    lr_mult: 1
  }
  param {
    lr_mult: 2
  }
  inner_product_param {
    num_output: 25
    weight_filler {
      type: "xavier"
    }
    bias_filler {
      type: "constant"
    }
  }
}
layer {
  name: "relu2"
  type: "ReLU"
  bottom: "ip2"
  top: "ip2"
}
layer {
  name: "ip3"
  type: "InnerProduct"
  bottom: "ip2"
  top: "ip3"
  param {
    lr_mult: 1
  }
  param {
    lr_mult: 2
  }
  inner_product_param {
    num_output: 10
    weight_filler {
      type: "xavier"
    }
    bias_filler {
      type: "constant"
    }
  }
}
layer {
  name: "relu3"
  type: "ReLU"
  bottom: "ip3"
  top: "ip3"
}
layer {
  name: "accuracy"
  type: "Accuracy"
  bottom: "ip3"
  bottom: "label"
  top: "accuracy"
  include {
    phase: TEST
  }
}
layer {
  name: "loss"
  type: "SoftmaxWithLoss"
  bottom: "ip3"
  bottom: "label"
  top: "loss"
}
I0428 20:32:46.764209  4187 layer_factory.hpp:77] Creating layer mnist
I0428 20:32:46.764252  4187 db_lmdb.cpp:35] Opened lmdb examples/mnist/mnist_test_lmdb
I0428 20:32:46.764266  4187 net.cpp:86] Creating Layer mnist
I0428 20:32:46.764271  4187 net.cpp:382] mnist -> data
I0428 20:32:46.764278  4187 net.cpp:382] mnist -> label
I0428 20:32:46.764379  4187 data_layer.cpp:45] output data size: 100,1,28,28
I0428 20:32:46.766587  4187 net.cpp:124] Setting up mnist
I0428 20:32:46.766600  4187 net.cpp:131] Top shape: 100 1 28 28 (78400)
I0428 20:32:46.766623  4187 net.cpp:131] Top shape: 100 (100)
I0428 20:32:46.766625  4187 net.cpp:139] Memory required for data: 314000
I0428 20:32:46.766629  4187 layer_factory.hpp:77] Creating layer label_mnist_1_split
I0428 20:32:46.766635  4187 net.cpp:86] Creating Layer label_mnist_1_split
I0428 20:32:46.766639  4187 net.cpp:408] label_mnist_1_split <- label
I0428 20:32:46.766644  4187 net.cpp:382] label_mnist_1_split -> label_mnist_1_split_0
I0428 20:32:46.766650  4187 net.cpp:382] label_mnist_1_split -> label_mnist_1_split_1
I0428 20:32:46.766719  4187 net.cpp:124] Setting up label_mnist_1_split
I0428 20:32:46.766726  4187 net.cpp:131] Top shape: 100 (100)
I0428 20:32:46.766729  4187 net.cpp:131] Top shape: 100 (100)
I0428 20:32:46.766732  4187 net.cpp:139] Memory required for data: 314800
I0428 20:32:46.766736  4187 layer_factory.hpp:77] Creating layer conv0
I0428 20:32:46.766746  4187 net.cpp:86] Creating Layer conv0
I0428 20:32:46.766748  4187 net.cpp:408] conv0 <- data
I0428 20:32:46.766754  4187 net.cpp:382] conv0 -> conv0
I0428 20:32:46.768474  4187 net.cpp:124] Setting up conv0
I0428 20:32:46.768503  4187 net.cpp:131] Top shape: 100 100 24 24 (5760000)
I0428 20:32:46.768507  4187 net.cpp:139] Memory required for data: 23354800
I0428 20:32:46.768517  4187 layer_factory.hpp:77] Creating layer pool0
I0428 20:32:46.768524  4187 net.cpp:86] Creating Layer pool0
I0428 20:32:46.768528  4187 net.cpp:408] pool0 <- conv0
I0428 20:32:46.768532  4187 net.cpp:382] pool0 -> pool0
I0428 20:32:46.768569  4187 net.cpp:124] Setting up pool0
I0428 20:32:46.768575  4187 net.cpp:131] Top shape: 100 100 12 12 (1440000)
I0428 20:32:46.768579  4187 net.cpp:139] Memory required for data: 29114800
I0428 20:32:46.768581  4187 layer_factory.hpp:77] Creating layer conv1
I0428 20:32:46.768590  4187 net.cpp:86] Creating Layer conv1
I0428 20:32:46.768594  4187 net.cpp:408] conv1 <- pool0
I0428 20:32:46.768599  4187 net.cpp:382] conv1 -> conv1
I0428 20:32:46.770719  4187 net.cpp:124] Setting up conv1
I0428 20:32:46.770747  4187 net.cpp:131] Top shape: 100 25 8 8 (160000)
I0428 20:32:46.770751  4187 net.cpp:139] Memory required for data: 29754800
I0428 20:32:46.770761  4187 layer_factory.hpp:77] Creating layer pool1
I0428 20:32:46.770768  4187 net.cpp:86] Creating Layer pool1
I0428 20:32:46.770771  4187 net.cpp:408] pool1 <- conv1
I0428 20:32:46.770778  4187 net.cpp:382] pool1 -> pool1
I0428 20:32:46.770817  4187 net.cpp:124] Setting up pool1
I0428 20:32:46.770824  4187 net.cpp:131] Top shape: 100 25 4 4 (40000)
I0428 20:32:46.770828  4187 net.cpp:139] Memory required for data: 29914800
I0428 20:32:46.770830  4187 layer_factory.hpp:77] Creating layer ip1
I0428 20:32:46.770838  4187 net.cpp:86] Creating Layer ip1
I0428 20:32:46.770841  4187 net.cpp:408] ip1 <- pool1
I0428 20:32:46.770848  4187 net.cpp:382] ip1 -> ip1
I0428 20:32:46.770987  4187 net.cpp:124] Setting up ip1
I0428 20:32:46.771006  4187 net.cpp:131] Top shape: 100 10 (1000)
I0428 20:32:46.771010  4187 net.cpp:139] Memory required for data: 29918800
I0428 20:32:46.771018  4187 layer_factory.hpp:77] Creating layer relu1
I0428 20:32:46.771023  4187 net.cpp:86] Creating Layer relu1
I0428 20:32:46.771028  4187 net.cpp:408] relu1 <- ip1
I0428 20:32:46.771035  4187 net.cpp:369] relu1 -> ip1 (in-place)
I0428 20:32:46.771211  4187 net.cpp:124] Setting up relu1
I0428 20:32:46.771220  4187 net.cpp:131] Top shape: 100 10 (1000)
I0428 20:32:46.771224  4187 net.cpp:139] Memory required for data: 29922800
I0428 20:32:46.771234  4187 layer_factory.hpp:77] Creating layer ip2
I0428 20:32:46.771247  4187 net.cpp:86] Creating Layer ip2
I0428 20:32:46.771250  4187 net.cpp:408] ip2 <- ip1
I0428 20:32:46.771256  4187 net.cpp:382] ip2 -> ip2
I0428 20:32:46.771353  4187 net.cpp:124] Setting up ip2
I0428 20:32:46.771361  4187 net.cpp:131] Top shape: 100 25 (2500)
I0428 20:32:46.771364  4187 net.cpp:139] Memory required for data: 29932800
I0428 20:32:46.771374  4187 layer_factory.hpp:77] Creating layer relu2
I0428 20:32:46.771379  4187 net.cpp:86] Creating Layer relu2
I0428 20:32:46.771383  4187 net.cpp:408] relu2 <- ip2
I0428 20:32:46.771389  4187 net.cpp:369] relu2 -> ip2 (in-place)
I0428 20:32:46.771553  4187 net.cpp:124] Setting up relu2
I0428 20:32:46.771560  4187 net.cpp:131] Top shape: 100 25 (2500)
I0428 20:32:46.771564  4187 net.cpp:139] Memory required for data: 29942800
I0428 20:32:46.771566  4187 layer_factory.hpp:77] Creating layer ip3
I0428 20:32:46.771589  4187 net.cpp:86] Creating Layer ip3
I0428 20:32:46.771591  4187 net.cpp:408] ip3 <- ip2
I0428 20:32:46.771596  4187 net.cpp:382] ip3 -> ip3
I0428 20:32:46.771728  4187 net.cpp:124] Setting up ip3
I0428 20:32:46.771735  4187 net.cpp:131] Top shape: 100 10 (1000)
I0428 20:32:46.771739  4187 net.cpp:139] Memory required for data: 29946800
I0428 20:32:46.771747  4187 layer_factory.hpp:77] Creating layer relu3
I0428 20:32:46.771754  4187 net.cpp:86] Creating Layer relu3
I0428 20:32:46.771756  4187 net.cpp:408] relu3 <- ip3
I0428 20:32:46.771760  4187 net.cpp:369] relu3 -> ip3 (in-place)
I0428 20:32:46.772596  4187 net.cpp:124] Setting up relu3
I0428 20:32:46.772609  4187 net.cpp:131] Top shape: 100 10 (1000)
I0428 20:32:46.772613  4187 net.cpp:139] Memory required for data: 29950800
I0428 20:32:46.772616  4187 layer_factory.hpp:77] Creating layer ip3_relu3_0_split
I0428 20:32:46.772621  4187 net.cpp:86] Creating Layer ip3_relu3_0_split
I0428 20:32:46.772625  4187 net.cpp:408] ip3_relu3_0_split <- ip3
I0428 20:32:46.772630  4187 net.cpp:382] ip3_relu3_0_split -> ip3_relu3_0_split_0
I0428 20:32:46.772636  4187 net.cpp:382] ip3_relu3_0_split -> ip3_relu3_0_split_1
I0428 20:32:46.772675  4187 net.cpp:124] Setting up ip3_relu3_0_split
I0428 20:32:46.772680  4187 net.cpp:131] Top shape: 100 10 (1000)
I0428 20:32:46.772683  4187 net.cpp:131] Top shape: 100 10 (1000)
I0428 20:32:46.772686  4187 net.cpp:139] Memory required for data: 29958800
I0428 20:32:46.772688  4187 layer_factory.hpp:77] Creating layer accuracy
I0428 20:32:46.772693  4187 net.cpp:86] Creating Layer accuracy
I0428 20:32:46.772696  4187 net.cpp:408] accuracy <- ip3_relu3_0_split_0
I0428 20:32:46.772701  4187 net.cpp:408] accuracy <- label_mnist_1_split_0
I0428 20:32:46.772707  4187 net.cpp:382] accuracy -> accuracy
…
