…
I0428 19:50:48.665745 27127 net.cpp:296] The NetState phase (0) differed from the phase (1) specified by a rule in layer mnist
I0428 19:50:48.665763 27127 net.cpp:296] The NetState phase (0) differed from the phase (1) specified by a rule in layer accuracy
I0428 19:50:48.665859 27127 net.cpp:53] Initializing net from parameters: 
name: "LeNet"
state {
  phase: TRAIN
  level: 0
  stage: ""
}
layer {
  name: "mnist"
  type: "Data"
  top: "data"
  top: "label"
  include {
    phase: TRAIN
  }
  transform_param {
    scale: 0.00390625
  }
  data_param {
    source: "examples/mnist/mnist_train_lmdb"
    batch_size: 64
    backend: LMDB
  }
}
layer {
  name: "conv0"
  type: "Convolution"
  bottom: "data"
  top: "conv0"
  param {
    lr_mult: 1
  }
  param {
    lr_mult: 2
  }
  convolution_param {
    num_output: 5
    kernel_size: 5
    stride: 1
    weight_filler {
      type: "xavier"
    }
    bias_filler {
      type: "constant"
    }
  }
}
layer {
  name: "pool0"
  type: "Pooling"
  bottom: "conv0"
  top: "pool0"
  pooling_param {
    pool: MAX
    kernel_size: 2
    stride: 2
  }
}
layer {
  name: "conv1"
  type: "Convolution"
  bottom: "pool0"
  top: "conv1"
  param {
    lr_mult: 1
  }
  param {
    lr_mult: 2
  }
  convolution_param {
    num_output: 10
    kernel_size: 5
    stride: 1
    weight_filler {
      type: "xavier"
    }
    bias_filler {
      type: "constant"
    }
  }
}
layer {
  name: "pool1"
  type: "Pooling"
  bottom: "conv1"
  top: "pool1"
  pooling_param {
    pool: MAX
    kernel_size: 2
    stride: 2
  }
}
layer {
  name: "ip1"
  type: "InnerProduct"
  bottom: "pool1"
  top: "ip1"
  param {
    lr_mult: 1
  }
  param {
    lr_mult: 2
  }
  inner_product_param {
    num_output: 50
    weight_filler {
      type: "xavier"
    }
    bias_filler {
      type: "constant"
    }
  }
}
layer {
  name: "relu1"
  type: "ReLU"
  bottom: "ip1"
  top: "ip1"
}
layer {
  name: "ip2"
  type: "InnerProduct"
  bottom: "ip1"
  top: "ip2"
  param {
    lr_mult: 1
  }
  param {
    lr_mult: 2
  }
  inner_product_param {
    num_output: 10
    weight_filler {
      type: "xavier"
    }
    bias_filler {
      type: "constant"
    }
  }
}
layer {
  name: "relu2"
  type: "ReLU"
  bottom: "ip2"
  top: "ip2"
}
layer {
  name: "ip3"
  type: "InnerProduct"
  bottom: "ip2"
  top: "ip3"
  param {
    lr_mult: 1
  }
  param {
    lr_mult: 2
  }
  inner_product_param {
    num_output: 10
    weight_filler {
      type: "xavier"
    }
    bias_filler {
      type: "constant"
    }
  }
}
layer {
  name: "relu3"
  type: "ReLU"
  bottom: "ip3"
  top: "ip3"
}
layer {
  name: "loss"
  type: "SoftmaxWithLoss"
  bottom: "ip3"
  bottom: "label"
  top: "loss"
}
I0428 19:50:48.665931 27127 layer_factory.hpp:77] Creating layer mnist
I0428 19:50:48.666029 27127 db_lmdb.cpp:35] Opened lmdb examples/mnist/mnist_train_lmdb
I0428 19:50:48.666052 27127 net.cpp:86] Creating Layer mnist
I0428 19:50:48.666060 27127 net.cpp:382] mnist -> data
I0428 19:50:48.666082 27127 net.cpp:382] mnist -> label
I0428 19:50:48.667174 27127 data_layer.cpp:45] output data size: 64,1,28,28
I0428 19:50:48.669613 27127 net.cpp:124] Setting up mnist
I0428 19:50:48.669631 27127 net.cpp:131] Top shape: 64 1 28 28 (50176)
I0428 19:50:48.669636 27127 net.cpp:131] Top shape: 64 (64)
I0428 19:50:48.669641 27127 net.cpp:139] Memory required for data: 200960
I0428 19:50:48.669649 27127 layer_factory.hpp:77] Creating layer conv0
I0428 19:50:48.669664 27127 net.cpp:86] Creating Layer conv0
I0428 19:50:48.669684 27127 net.cpp:408] conv0 <- data
I0428 19:50:48.669697 27127 net.cpp:382] conv0 -> conv0
I0428 19:50:48.984779 27127 net.cpp:124] Setting up conv0
I0428 19:50:48.984818 27127 net.cpp:131] Top shape: 64 5 24 24 (184320)
I0428 19:50:48.984823 27127 net.cpp:139] Memory required for data: 938240
I0428 19:50:48.984843 27127 layer_factory.hpp:77] Creating layer pool0
I0428 19:50:48.984861 27127 net.cpp:86] Creating Layer pool0
I0428 19:50:48.984866 27127 net.cpp:408] pool0 <- conv0
I0428 19:50:48.984872 27127 net.cpp:382] pool0 -> pool0
I0428 19:50:48.984927 27127 net.cpp:124] Setting up pool0
I0428 19:50:48.984935 27127 net.cpp:131] Top shape: 64 5 12 12 (46080)
I0428 19:50:48.984937 27127 net.cpp:139] Memory required for data: 1122560
I0428 19:50:48.984941 27127 layer_factory.hpp:77] Creating layer conv1
I0428 19:50:48.984954 27127 net.cpp:86] Creating Layer conv1
I0428 19:50:48.984958 27127 net.cpp:408] conv1 <- pool0
I0428 19:50:48.984964 27127 net.cpp:382] conv1 -> conv1
I0428 19:50:48.988082 27127 net.cpp:124] Setting up conv1
I0428 19:50:48.988101 27127 net.cpp:131] Top shape: 64 10 8 8 (40960)
I0428 19:50:48.988104 27127 net.cpp:139] Memory required for data: 1286400
I0428 19:50:48.988116 27127 layer_factory.hpp:77] Creating layer pool1
I0428 19:50:48.988124 27127 net.cpp:86] Creating Layer pool1
I0428 19:50:48.988129 27127 net.cpp:408] pool1 <- conv1
I0428 19:50:48.988135 27127 net.cpp:382] pool1 -> pool1
I0428 19:50:48.988188 27127 net.cpp:124] Setting up pool1
I0428 19:50:48.988194 27127 net.cpp:131] Top shape: 64 10 4 4 (10240)
I0428 19:50:48.988198 27127 net.cpp:139] Memory required for data: 1327360
I0428 19:50:48.988201 27127 layer_factory.hpp:77] Creating layer ip1
I0428 19:50:48.988210 27127 net.cpp:86] Creating Layer ip1
I0428 19:50:48.988214 27127 net.cpp:408] ip1 <- pool1
I0428 19:50:48.988219 27127 net.cpp:382] ip1 -> ip1
I0428 19:50:48.989367 27127 net.cpp:124] Setting up ip1
I0428 19:50:48.989382 27127 net.cpp:131] Top shape: 64 50 (3200)
I0428 19:50:48.989387 27127 net.cpp:139] Memory required for data: 1340160
I0428 19:50:48.989398 27127 layer_factory.hpp:77] Creating layer relu1
I0428 19:50:48.989404 27127 net.cpp:86] Creating Layer relu1
I0428 19:50:48.989408 27127 net.cpp:408] relu1 <- ip1
I0428 19:50:48.989414 27127 net.cpp:369] relu1 -> ip1 (in-place)
I0428 19:50:48.989615 27127 net.cpp:124] Setting up relu1
I0428 19:50:48.989625 27127 net.cpp:131] Top shape: 64 50 (3200)
I0428 19:50:48.989629 27127 net.cpp:139] Memory required for data: 1352960
I0428 19:50:48.989634 27127 layer_factory.hpp:77] Creating layer ip2
I0428 19:50:48.989641 27127 net.cpp:86] Creating Layer ip2
I0428 19:50:48.989645 27127 net.cpp:408] ip2 <- ip1
I0428 19:50:48.989651 27127 net.cpp:382] ip2 -> ip2
I0428 19:50:48.989764 27127 net.cpp:124] Setting up ip2
I0428 19:50:48.989773 27127 net.cpp:131] Top shape: 64 10 (640)
I0428 19:50:48.989776 27127 net.cpp:139] Memory required for data: 1355520
I0428 19:50:48.989783 27127 layer_factory.hpp:77] Creating layer relu2
I0428 19:50:48.989789 27127 net.cpp:86] Creating Layer relu2
I0428 19:50:48.989794 27127 net.cpp:408] relu2 <- ip2
I0428 19:50:48.989799 27127 net.cpp:369] relu2 -> ip2 (in-place)
I0428 19:50:48.990651 27127 net.cpp:124] Setting up relu2
I0428 19:50:48.990666 27127 net.cpp:131] Top shape: 64 10 (640)
I0428 19:50:48.990670 27127 net.cpp:139] Memory required for data: 1358080
I0428 19:50:48.990674 27127 layer_factory.hpp:77] Creating layer ip3
I0428 19:50:48.990682 27127 net.cpp:86] Creating Layer ip3
I0428 19:50:48.990686 27127 net.cpp:408] ip3 <- ip2
I0428 19:50:48.990692 27127 net.cpp:382] ip3 -> ip3
I0428 19:50:48.990808 27127 net.cpp:124] Setting up ip3
I0428 19:50:48.990816 27127 net.cpp:131] Top shape: 64 10 (640)
I0428 19:50:48.990820 27127 net.cpp:139] Memory required for data: 1360640
I0428 19:50:48.990829 27127 layer_factory.hpp:77] Creating layer relu3
I0428 19:50:48.990835 27127 net.cpp:86] Creating Layer relu3
I0428 19:50:48.990839 27127 net.cpp:408] relu3 <- ip3
I0428 19:50:48.990844 27127 net.cpp:369] relu3 -> ip3 (in-place)
I0428 19:50:48.991042 27127 net.cpp:124] Setting up relu3
I0428 19:50:48.991060 27127 net.cpp:131] Top shape: 64 10 (640)
I0428 19:50:48.991065 27127 net.cpp:139] Memory required for data: 1363200
I0428 19:50:48.991068 27127 layer_factory.hpp:77] Creating layer loss
I0428 19:50:48.991080 27127 net.cpp:86] Creating Layer loss
I0428 19:50:48.991084 27127 net.cpp:408] loss <- ip3
I0428 19:50:48.991089 27127 net.cpp:408] loss <- label
I0428 19:50:48.991096 27127 net.cpp:382] loss -> loss
I0428 19:50:48.991111 27127 layer_factory.hpp:77] Creating layer loss
…
I0428 19:50:48.991852 27127 solver.cpp:173] Creating test net (#0) specified by net file: ECE595/mnist/train_test/var_everything2/lenet_train_test615.prototxt
I0428 19:50:48.991884 27127 net.cpp:296] The NetState phase (1) differed from the phase (0) specified by a rule in layer mnist
I0428 19:50:48.991991 27127 net.cpp:53] Initializing net from parameters: 
name: "LeNet"
state {
  phase: TEST
}
layer {
  name: "mnist"
  type: "Data"
  top: "data"
  top: "label"
  include {
    phase: TEST
  }
  transform_param {
    scale: 0.00390625
  }
  data_param {
    source: "examples/mnist/mnist_test_lmdb"
    batch_size: 100
    backend: LMDB
  }
}
layer {
  name: "conv0"
  type: "Convolution"
  bottom: "data"
  top: "conv0"
  param {
    lr_mult: 1
  }
  param {
    lr_mult: 2
  }
  convolution_param {
    num_output: 5
    kernel_size: 5
    stride: 1
    weight_filler {
      type: "xavier"
    }
    bias_filler {
      type: "constant"
    }
  }
}
layer {
  name: "pool0"
  type: "Pooling"
  bottom: "conv0"
  top: "pool0"
  pooling_param {
    pool: MAX
    kernel_size: 2
    stride: 2
  }
}
layer {
  name: "conv1"
  type: "Convolution"
  bottom: "pool0"
  top: "conv1"
  param {
    lr_mult: 1
  }
  param {
    lr_mult: 2
  }
  convolution_param {
    num_output: 10
    kernel_size: 5
    stride: 1
    weight_filler {
      type: "xavier"
    }
    bias_filler {
      type: "constant"
    }
  }
}
layer {
  name: "pool1"
  type: "Pooling"
  bottom: "conv1"
  top: "pool1"
  pooling_param {
    pool: MAX
    kernel_size: 2
    stride: 2
  }
}
layer {
  name: "ip1"
  type: "InnerProduct"
  bottom: "pool1"
  top: "ip1"
  param {
    lr_mult: 1
  }
  param {
    lr_mult: 2
  }
  inner_product_param {
    num_output: 50
    weight_filler {
      type: "xavier"
    }
    bias_filler {
      type: "constant"
    }
  }
}
layer {
  name: "relu1"
  type: "ReLU"
  bottom: "ip1"
  top: "ip1"
}
layer {
  name: "ip2"
  type: "InnerProduct"
  bottom: "ip1"
  top: "ip2"
  param {
    lr_mult: 1
  }
  param {
    lr_mult: 2
  }
  inner_product_param {
    num_output: 10
    weight_filler {
      type: "xavier"
    }
    bias_filler {
      type: "constant"
    }
  }
}
layer {
  name: "relu2"
  type: "ReLU"
  bottom: "ip2"
  top: "ip2"
}
layer {
  name: "ip3"
  type: "InnerProduct"
  bottom: "ip2"
  top: "ip3"
  param {
    lr_mult: 1
  }
  param {
    lr_mult: 2
  }
  inner_product_param {
    num_output: 10
    weight_filler {
      type: "xavier"
    }
    bias_filler {
      type: "constant"
    }
  }
}
layer {
  name: "relu3"
  type: "ReLU"
  bottom: "ip3"
  top: "ip3"
}
layer {
  name: "accuracy"
  type: "Accuracy"
  bottom: "ip3"
  bottom: "label"
  top: "accuracy"
  include {
    phase: TEST
  }
}
layer {
  name: "loss"
  type: "SoftmaxWithLoss"
  bottom: "ip3"
  bottom: "label"
  top: "loss"
}
I0428 19:50:48.992085 27127 layer_factory.hpp:77] Creating layer mnist
I0428 19:50:48.992136 27127 db_lmdb.cpp:35] Opened lmdb examples/mnist/mnist_test_lmdb
I0428 19:50:48.992151 27127 net.cpp:86] Creating Layer mnist
I0428 19:50:48.992156 27127 net.cpp:382] mnist -> data
I0428 19:50:48.992164 27127 net.cpp:382] mnist -> label
I0428 19:50:48.992264 27127 data_layer.cpp:45] output data size: 100,1,28,28
I0428 19:50:48.994668 27127 net.cpp:124] Setting up mnist
I0428 19:50:48.994684 27127 net.cpp:131] Top shape: 100 1 28 28 (78400)
I0428 19:50:48.994690 27127 net.cpp:131] Top shape: 100 (100)
I0428 19:50:48.994694 27127 net.cpp:139] Memory required for data: 314000
I0428 19:50:48.994699 27127 layer_factory.hpp:77] Creating layer label_mnist_1_split
I0428 19:50:48.994707 27127 net.cpp:86] Creating Layer label_mnist_1_split
I0428 19:50:48.994711 27127 net.cpp:408] label_mnist_1_split <- label
I0428 19:50:48.994717 27127 net.cpp:382] label_mnist_1_split -> label_mnist_1_split_0
I0428 19:50:48.994725 27127 net.cpp:382] label_mnist_1_split -> label_mnist_1_split_1
I0428 19:50:48.994822 27127 net.cpp:124] Setting up label_mnist_1_split
I0428 19:50:48.994832 27127 net.cpp:131] Top shape: 100 (100)
I0428 19:50:48.994837 27127 net.cpp:131] Top shape: 100 (100)
I0428 19:50:48.994840 27127 net.cpp:139] Memory required for data: 314800
I0428 19:50:48.994844 27127 layer_factory.hpp:77] Creating layer conv0
I0428 19:50:48.994854 27127 net.cpp:86] Creating Layer conv0
I0428 19:50:48.994858 27127 net.cpp:408] conv0 <- data
I0428 19:50:48.994864 27127 net.cpp:382] conv0 -> conv0
I0428 19:50:48.996533 27127 net.cpp:124] Setting up conv0
I0428 19:50:48.996551 27127 net.cpp:131] Top shape: 100 5 24 24 (288000)
I0428 19:50:48.996556 27127 net.cpp:139] Memory required for data: 1466800
I0428 19:50:48.996567 27127 layer_factory.hpp:77] Creating layer pool0
I0428 19:50:48.996575 27127 net.cpp:86] Creating Layer pool0
I0428 19:50:48.996582 27127 net.cpp:408] pool0 <- conv0
I0428 19:50:48.996587 27127 net.cpp:382] pool0 -> pool0
I0428 19:50:48.996634 27127 net.cpp:124] Setting up pool0
I0428 19:50:48.996639 27127 net.cpp:131] Top shape: 100 5 12 12 (72000)
I0428 19:50:48.996644 27127 net.cpp:139] Memory required for data: 1754800
I0428 19:50:48.996647 27127 layer_factory.hpp:77] Creating layer conv1
I0428 19:50:48.996657 27127 net.cpp:86] Creating Layer conv1
I0428 19:50:48.996661 27127 net.cpp:408] conv1 <- pool0
I0428 19:50:48.996667 27127 net.cpp:382] conv1 -> conv1
I0428 19:50:48.998991 27127 net.cpp:124] Setting up conv1
I0428 19:50:48.999006 27127 net.cpp:131] Top shape: 100 10 8 8 (64000)
I0428 19:50:48.999011 27127 net.cpp:139] Memory required for data: 2010800
I0428 19:50:48.999020 27127 layer_factory.hpp:77] Creating layer pool1
I0428 19:50:48.999028 27127 net.cpp:86] Creating Layer pool1
I0428 19:50:48.999032 27127 net.cpp:408] pool1 <- conv1
I0428 19:50:48.999038 27127 net.cpp:382] pool1 -> pool1
I0428 19:50:48.999125 27127 net.cpp:124] Setting up pool1
I0428 19:50:48.999133 27127 net.cpp:131] Top shape: 100 10 4 4 (16000)
I0428 19:50:48.999137 27127 net.cpp:139] Memory required for data: 2074800
I0428 19:50:48.999140 27127 layer_factory.hpp:77] Creating layer ip1
I0428 19:50:48.999147 27127 net.cpp:86] Creating Layer ip1
I0428 19:50:48.999151 27127 net.cpp:408] ip1 <- pool1
I0428 19:50:48.999158 27127 net.cpp:382] ip1 -> ip1
I0428 19:50:48.999330 27127 net.cpp:124] Setting up ip1
I0428 19:50:48.999338 27127 net.cpp:131] Top shape: 100 50 (5000)
I0428 19:50:48.999361 27127 net.cpp:139] Memory required for data: 2094800
I0428 19:50:48.999372 27127 layer_factory.hpp:77] Creating layer relu1
I0428 19:50:48.999378 27127 net.cpp:86] Creating Layer relu1
I0428 19:50:48.999382 27127 net.cpp:408] relu1 <- ip1
I0428 19:50:48.999388 27127 net.cpp:369] relu1 -> ip1 (in-place)
I0428 19:50:48.999611 27127 net.cpp:124] Setting up relu1
I0428 19:50:48.999621 27127 net.cpp:131] Top shape: 100 50 (5000)
I0428 19:50:48.999625 27127 net.cpp:139] Memory required for data: 2114800
I0428 19:50:48.999629 27127 layer_factory.hpp:77] Creating layer ip2
I0428 19:50:48.999639 27127 net.cpp:86] Creating Layer ip2
I0428 19:50:48.999641 27127 net.cpp:408] ip2 <- ip1
I0428 19:50:48.999647 27127 net.cpp:382] ip2 -> ip2
I0428 19:50:48.999768 27127 net.cpp:124] Setting up ip2
I0428 19:50:48.999775 27127 net.cpp:131] Top shape: 100 10 (1000)
I0428 19:50:48.999779 27127 net.cpp:139] Memory required for data: 2118800
I0428 19:50:48.999785 27127 layer_factory.hpp:77] Creating layer relu2
I0428 19:50:48.999791 27127 net.cpp:86] Creating Layer relu2
I0428 19:50:48.999795 27127 net.cpp:408] relu2 <- ip2
I0428 19:50:48.999800 27127 net.cpp:369] relu2 -> ip2 (in-place)
I0428 19:50:48.999979 27127 net.cpp:124] Setting up relu2
I0428 19:50:48.999989 27127 net.cpp:131] Top shape: 100 10 (1000)
I0428 19:50:48.999992 27127 net.cpp:139] Memory required for data: 2122800
I0428 19:50:48.999996 27127 layer_factory.hpp:77] Creating layer ip3
I0428 19:50:49.000003 27127 net.cpp:86] Creating Layer ip3
I0428 19:50:49.000007 27127 net.cpp:408] ip3 <- ip2
I0428 19:50:49.000013 27127 net.cpp:382] ip3 -> ip3
I0428 19:50:49.000133 27127 net.cpp:124] Setting up ip3
I0428 19:50:49.000143 27127 net.cpp:131] Top shape: 100 10 (1000)
I0428 19:50:49.000145 27127 net.cpp:139] Memory required for data: 2126800
I0428 19:50:49.000154 27127 layer_factory.hpp:77] Creating layer relu3
I0428 19:50:49.000161 27127 net.cpp:86] Creating Layer relu3
I0428 19:50:49.000164 27127 net.cpp:408] relu3 <- ip3
I0428 19:50:49.000170 27127 net.cpp:369] relu3 -> ip3 (in-place)
I0428 19:50:49.001046 27127 net.cpp:124] Setting up relu3
I0428 19:50:49.001063 27127 net.cpp:131] Top shape: 100 10 (1000)
I0428 19:50:49.001067 27127 net.cpp:139] Memory required for data: 2130800
I0428 19:50:49.001071 27127 layer_factory.hpp:77] Creating layer ip3_relu3_0_split
I0428 19:50:49.001077 27127 net.cpp:86] Creating Layer ip3_relu3_0_split
I0428 19:50:49.001081 27127 net.cpp:408] ip3_relu3_0_split <- ip3
I0428 19:50:49.001086 27127 net.cpp:382] ip3_relu3_0_split -> ip3_relu3_0_split_0
I0428 19:50:49.001094 27127 net.cpp:382] ip3_relu3_0_split -> ip3_relu3_0_split_1
I0428 19:50:49.001142 27127 net.cpp:124] Setting up ip3_relu3_0_split
I0428 19:50:49.001147 27127 net.cpp:131] Top shape: 100 10 (1000)
I0428 19:50:49.001152 27127 net.cpp:131] Top shape: 100 10 (1000)
I0428 19:50:49.001154 27127 net.cpp:139] Memory required for data: 2138800
I0428 19:50:49.001158 27127 layer_factory.hpp:77] Creating layer accuracy
I0428 19:50:49.001168 27127 net.cpp:86] Creating Layer accuracy
I0428 19:50:49.001170 27127 net.cpp:408] accuracy <- ip3_relu3_0_split_0
I0428 19:50:49.001175 27127 net.cpp:408] accuracy <- label_mnist_1_split_0
I0428 19:50:49.001180 27127 net.cpp:382] accuracy -> accuracy
…
