…
I0428 20:06:06.010876 30791 net.cpp:296] The NetState phase (0) differed from the phase (1) specified by a rule in layer mnist
I0428 20:06:06.010892 30791 net.cpp:296] The NetState phase (0) differed from the phase (1) specified by a rule in layer accuracy
I0428 20:06:06.010984 30791 net.cpp:53] Initializing net from parameters: 
name: "LeNet"
state {
  phase: TRAIN
  level: 0
  stage: ""
}
layer {
  name: "mnist"
  type: "Data"
  top: "data"
  top: "label"
  include {
    phase: TRAIN
  }
  transform_param {
    scale: 0.00390625
  }
  data_param {
    source: "examples/mnist/mnist_train_lmdb"
    batch_size: 64
    backend: LMDB
  }
}
layer {
  name: "conv0"
  type: "Convolution"
  bottom: "data"
  top: "conv0"
  param {
    lr_mult: 1
  }
  param {
    lr_mult: 2
  }
  convolution_param {
    num_output: 25
    kernel_size: 5
    stride: 1
    weight_filler {
      type: "xavier"
    }
    bias_filler {
      type: "constant"
    }
  }
}
layer {
  name: "pool0"
  type: "Pooling"
  bottom: "conv0"
  top: "pool0"
  pooling_param {
    pool: MAX
    kernel_size: 2
    stride: 2
  }
}
layer {
  name: "conv1"
  type: "Convolution"
  bottom: "pool0"
  top: "conv1"
  param {
    lr_mult: 1
  }
  param {
    lr_mult: 2
  }
  convolution_param {
    num_output: 5
    kernel_size: 5
    stride: 1
    weight_filler {
      type: "xavier"
    }
    bias_filler {
      type: "constant"
    }
  }
}
layer {
  name: "pool1"
  type: "Pooling"
  bottom: "conv1"
  top: "pool1"
  pooling_param {
    pool: MAX
    kernel_size: 2
    stride: 2
  }
}
layer {
  name: "ip1"
  type: "InnerProduct"
  bottom: "pool1"
  top: "ip1"
  param {
    lr_mult: 1
  }
  param {
    lr_mult: 2
  }
  inner_product_param {
    num_output: 10
    weight_filler {
      type: "xavier"
    }
    bias_filler {
      type: "constant"
    }
  }
}
layer {
  name: "relu1"
  type: "ReLU"
  bottom: "ip1"
  top: "ip1"
}
layer {
  name: "ip2"
  type: "InnerProduct"
  bottom: "ip1"
  top: "ip2"
  param {
    lr_mult: 1
  }
  param {
    lr_mult: 2
  }
  inner_product_param {
    num_output: 10
    weight_filler {
      type: "xavier"
    }
    bias_filler {
      type: "constant"
    }
  }
}
layer {
  name: "relu2"
  type: "ReLU"
  bottom: "ip2"
  top: "ip2"
}
layer {
  name: "loss"
  type: "SoftmaxWithLoss"
  bottom: "ip2"
  bottom: "label"
  top: "loss"
}
I0428 20:06:06.011057 30791 layer_factory.hpp:77] Creating layer mnist
I0428 20:06:06.011160 30791 db_lmdb.cpp:35] Opened lmdb examples/mnist/mnist_train_lmdb
I0428 20:06:06.011183 30791 net.cpp:86] Creating Layer mnist
I0428 20:06:06.011193 30791 net.cpp:382] mnist -> data
I0428 20:06:06.011214 30791 net.cpp:382] mnist -> label
I0428 20:06:06.012343 30791 data_layer.cpp:45] output data size: 64,1,28,28
I0428 20:06:06.014829 30791 net.cpp:124] Setting up mnist
I0428 20:06:06.014853 30791 net.cpp:131] Top shape: 64 1 28 28 (50176)
I0428 20:06:06.014869 30791 net.cpp:131] Top shape: 64 (64)
I0428 20:06:06.014873 30791 net.cpp:139] Memory required for data: 200960
I0428 20:06:06.014880 30791 layer_factory.hpp:77] Creating layer conv0
I0428 20:06:06.014897 30791 net.cpp:86] Creating Layer conv0
I0428 20:06:06.014904 30791 net.cpp:408] conv0 <- data
I0428 20:06:06.014919 30791 net.cpp:382] conv0 -> conv0
I0428 20:06:06.300187 30791 net.cpp:124] Setting up conv0
I0428 20:06:06.300216 30791 net.cpp:131] Top shape: 64 25 24 24 (921600)
I0428 20:06:06.300228 30791 net.cpp:139] Memory required for data: 3887360
I0428 20:06:06.300274 30791 layer_factory.hpp:77] Creating layer pool0
I0428 20:06:06.300295 30791 net.cpp:86] Creating Layer pool0
I0428 20:06:06.300300 30791 net.cpp:408] pool0 <- conv0
I0428 20:06:06.300307 30791 net.cpp:382] pool0 -> pool0
I0428 20:06:06.300361 30791 net.cpp:124] Setting up pool0
I0428 20:06:06.300369 30791 net.cpp:131] Top shape: 64 25 12 12 (230400)
I0428 20:06:06.300374 30791 net.cpp:139] Memory required for data: 4808960
I0428 20:06:06.300377 30791 layer_factory.hpp:77] Creating layer conv1
I0428 20:06:06.300390 30791 net.cpp:86] Creating Layer conv1
I0428 20:06:06.300395 30791 net.cpp:408] conv1 <- pool0
I0428 20:06:06.300401 30791 net.cpp:382] conv1 -> conv1
I0428 20:06:06.303536 30791 net.cpp:124] Setting up conv1
I0428 20:06:06.303555 30791 net.cpp:131] Top shape: 64 5 8 8 (20480)
I0428 20:06:06.303558 30791 net.cpp:139] Memory required for data: 4890880
I0428 20:06:06.303570 30791 layer_factory.hpp:77] Creating layer pool1
I0428 20:06:06.303578 30791 net.cpp:86] Creating Layer pool1
I0428 20:06:06.303582 30791 net.cpp:408] pool1 <- conv1
I0428 20:06:06.303588 30791 net.cpp:382] pool1 -> pool1
I0428 20:06:06.303632 30791 net.cpp:124] Setting up pool1
I0428 20:06:06.303638 30791 net.cpp:131] Top shape: 64 5 4 4 (5120)
I0428 20:06:06.303642 30791 net.cpp:139] Memory required for data: 4911360
I0428 20:06:06.303647 30791 layer_factory.hpp:77] Creating layer ip1
I0428 20:06:06.303654 30791 net.cpp:86] Creating Layer ip1
I0428 20:06:06.303658 30791 net.cpp:408] ip1 <- pool1
I0428 20:06:06.303664 30791 net.cpp:382] ip1 -> ip1
I0428 20:06:06.303778 30791 net.cpp:124] Setting up ip1
I0428 20:06:06.303786 30791 net.cpp:131] Top shape: 64 10 (640)
I0428 20:06:06.303791 30791 net.cpp:139] Memory required for data: 4913920
I0428 20:06:06.303798 30791 layer_factory.hpp:77] Creating layer relu1
I0428 20:06:06.303805 30791 net.cpp:86] Creating Layer relu1
I0428 20:06:06.303809 30791 net.cpp:408] relu1 <- ip1
I0428 20:06:06.303814 30791 net.cpp:369] relu1 -> ip1 (in-place)
I0428 20:06:06.304013 30791 net.cpp:124] Setting up relu1
I0428 20:06:06.304023 30791 net.cpp:131] Top shape: 64 10 (640)
I0428 20:06:06.304026 30791 net.cpp:139] Memory required for data: 4916480
I0428 20:06:06.304030 30791 layer_factory.hpp:77] Creating layer ip2
I0428 20:06:06.304038 30791 net.cpp:86] Creating Layer ip2
I0428 20:06:06.304041 30791 net.cpp:408] ip2 <- ip1
I0428 20:06:06.304047 30791 net.cpp:382] ip2 -> ip2
I0428 20:06:06.304157 30791 net.cpp:124] Setting up ip2
I0428 20:06:06.304165 30791 net.cpp:131] Top shape: 64 10 (640)
I0428 20:06:06.304169 30791 net.cpp:139] Memory required for data: 4919040
I0428 20:06:06.304175 30791 layer_factory.hpp:77] Creating layer relu2
I0428 20:06:06.304183 30791 net.cpp:86] Creating Layer relu2
I0428 20:06:06.304186 30791 net.cpp:408] relu2 <- ip2
I0428 20:06:06.304191 30791 net.cpp:369] relu2 -> ip2 (in-place)
I0428 20:06:06.305033 30791 net.cpp:124] Setting up relu2
I0428 20:06:06.305047 30791 net.cpp:131] Top shape: 64 10 (640)
I0428 20:06:06.305052 30791 net.cpp:139] Memory required for data: 4921600
I0428 20:06:06.305057 30791 layer_factory.hpp:77] Creating layer loss
I0428 20:06:06.305064 30791 net.cpp:86] Creating Layer loss
I0428 20:06:06.305068 30791 net.cpp:408] loss <- ip2
I0428 20:06:06.305073 30791 net.cpp:408] loss <- label
I0428 20:06:06.305079 30791 net.cpp:382] loss -> loss
I0428 20:06:06.305099 30791 layer_factory.hpp:77] Creating layer loss
…
I0428 20:06:06.305807 30791 solver.cpp:173] Creating test net (#0) specified by net file: ECE595/mnist/train_test/var_everything2/lenet_train_test1018.prototxt
I0428 20:06:06.305835 30791 net.cpp:296] The NetState phase (1) differed from the phase (0) specified by a rule in layer mnist
I0428 20:06:06.305936 30791 net.cpp:53] Initializing net from parameters: 
name: "LeNet"
state {
  phase: TEST
}
layer {
  name: "mnist"
  type: "Data"
  top: "data"
  top: "label"
  include {
    phase: TEST
  }
  transform_param {
    scale: 0.00390625
  }
  data_param {
    source: "examples/mnist/mnist_test_lmdb"
    batch_size: 100
    backend: LMDB
  }
}
layer {
  name: "conv0"
  type: "Convolution"
  bottom: "data"
  top: "conv0"
  param {
    lr_mult: 1
  }
  param {
    lr_mult: 2
  }
  convolution_param {
    num_output: 25
    kernel_size: 5
    stride: 1
    weight_filler {
      type: "xavier"
    }
    bias_filler {
      type: "constant"
    }
  }
}
layer {
  name: "pool0"
  type: "Pooling"
  bottom: "conv0"
  top: "pool0"
  pooling_param {
    pool: MAX
    kernel_size: 2
    stride: 2
  }
}
layer {
  name: "conv1"
  type: "Convolution"
  bottom: "pool0"
  top: "conv1"
  param {
    lr_mult: 1
  }
  param {
    lr_mult: 2
  }
  convolution_param {
    num_output: 5
    kernel_size: 5
    stride: 1
    weight_filler {
      type: "xavier"
    }
    bias_filler {
      type: "constant"
    }
  }
}
layer {
  name: "pool1"
  type: "Pooling"
  bottom: "conv1"
  top: "pool1"
  pooling_param {
    pool: MAX
    kernel_size: 2
    stride: 2
  }
}
layer {
  name: "ip1"
  type: "InnerProduct"
  bottom: "pool1"
  top: "ip1"
  param {
    lr_mult: 1
  }
  param {
    lr_mult: 2
  }
  inner_product_param {
    num_output: 10
    weight_filler {
      type: "xavier"
    }
    bias_filler {
      type: "constant"
    }
  }
}
layer {
  name: "relu1"
  type: "ReLU"
  bottom: "ip1"
  top: "ip1"
}
layer {
  name: "ip2"
  type: "InnerProduct"
  bottom: "ip1"
  top: "ip2"
  param {
    lr_mult: 1
  }
  param {
    lr_mult: 2
  }
  inner_product_param {
    num_output: 10
    weight_filler {
      type: "xavier"
    }
    bias_filler {
      type: "constant"
    }
  }
}
layer {
  name: "relu2"
  type: "ReLU"
  bottom: "ip2"
  top: "ip2"
}
layer {
  name: "accuracy"
  type: "Accuracy"
  bottom: "ip2"
  bottom: "label"
  top: "accuracy"
  include {
    phase: TEST
  }
}
layer {
  name: "loss"
  type: "SoftmaxWithLoss"
  bottom: "ip2"
  bottom: "label"
  top: "loss"
}
I0428 20:06:06.306010 30791 layer_factory.hpp:77] Creating layer mnist
I0428 20:06:06.306071 30791 db_lmdb.cpp:35] Opened lmdb examples/mnist/mnist_test_lmdb
I0428 20:06:06.306084 30791 net.cpp:86] Creating Layer mnist
I0428 20:06:06.306089 30791 net.cpp:382] mnist -> data
I0428 20:06:06.306098 30791 net.cpp:382] mnist -> label
I0428 20:06:06.306195 30791 data_layer.cpp:45] output data size: 100,1,28,28
I0428 20:06:06.308557 30791 net.cpp:124] Setting up mnist
I0428 20:06:06.308573 30791 net.cpp:131] Top shape: 100 1 28 28 (78400)
I0428 20:06:06.308578 30791 net.cpp:131] Top shape: 100 (100)
I0428 20:06:06.308583 30791 net.cpp:139] Memory required for data: 314000
I0428 20:06:06.308588 30791 layer_factory.hpp:77] Creating layer label_mnist_1_split
I0428 20:06:06.308595 30791 net.cpp:86] Creating Layer label_mnist_1_split
I0428 20:06:06.308599 30791 net.cpp:408] label_mnist_1_split <- label
I0428 20:06:06.308605 30791 net.cpp:382] label_mnist_1_split -> label_mnist_1_split_0
I0428 20:06:06.308614 30791 net.cpp:382] label_mnist_1_split -> label_mnist_1_split_1
I0428 20:06:06.308715 30791 net.cpp:124] Setting up label_mnist_1_split
I0428 20:06:06.308737 30791 net.cpp:131] Top shape: 100 (100)
I0428 20:06:06.308742 30791 net.cpp:131] Top shape: 100 (100)
I0428 20:06:06.308745 30791 net.cpp:139] Memory required for data: 314800
I0428 20:06:06.308749 30791 layer_factory.hpp:77] Creating layer conv0
I0428 20:06:06.308759 30791 net.cpp:86] Creating Layer conv0
I0428 20:06:06.308763 30791 net.cpp:408] conv0 <- data
I0428 20:06:06.308769 30791 net.cpp:382] conv0 -> conv0
I0428 20:06:06.310453 30791 net.cpp:124] Setting up conv0
I0428 20:06:06.310470 30791 net.cpp:131] Top shape: 100 25 24 24 (1440000)
I0428 20:06:06.310475 30791 net.cpp:139] Memory required for data: 6074800
I0428 20:06:06.310485 30791 layer_factory.hpp:77] Creating layer pool0
I0428 20:06:06.310493 30791 net.cpp:86] Creating Layer pool0
I0428 20:06:06.310497 30791 net.cpp:408] pool0 <- conv0
I0428 20:06:06.310503 30791 net.cpp:382] pool0 -> pool0
I0428 20:06:06.310544 30791 net.cpp:124] Setting up pool0
I0428 20:06:06.310552 30791 net.cpp:131] Top shape: 100 25 12 12 (360000)
I0428 20:06:06.310556 30791 net.cpp:139] Memory required for data: 7514800
I0428 20:06:06.310560 30791 layer_factory.hpp:77] Creating layer conv1
I0428 20:06:06.310570 30791 net.cpp:86] Creating Layer conv1
I0428 20:06:06.310576 30791 net.cpp:408] conv1 <- pool0
I0428 20:06:06.310582 30791 net.cpp:382] conv1 -> conv1
I0428 20:06:06.312993 30791 net.cpp:124] Setting up conv1
I0428 20:06:06.313007 30791 net.cpp:131] Top shape: 100 5 8 8 (32000)
I0428 20:06:06.313012 30791 net.cpp:139] Memory required for data: 7642800
I0428 20:06:06.313022 30791 layer_factory.hpp:77] Creating layer pool1
I0428 20:06:06.313031 30791 net.cpp:86] Creating Layer pool1
I0428 20:06:06.313043 30791 net.cpp:408] pool1 <- conv1
I0428 20:06:06.313050 30791 net.cpp:382] pool1 -> pool1
I0428 20:06:06.313094 30791 net.cpp:124] Setting up pool1
I0428 20:06:06.313107 30791 net.cpp:131] Top shape: 100 5 4 4 (8000)
I0428 20:06:06.313112 30791 net.cpp:139] Memory required for data: 7674800
I0428 20:06:06.313114 30791 layer_factory.hpp:77] Creating layer ip1
I0428 20:06:06.313133 30791 net.cpp:86] Creating Layer ip1
I0428 20:06:06.313138 30791 net.cpp:408] ip1 <- pool1
I0428 20:06:06.313144 30791 net.cpp:382] ip1 -> ip1
I0428 20:06:06.313263 30791 net.cpp:124] Setting up ip1
I0428 20:06:06.313273 30791 net.cpp:131] Top shape: 100 10 (1000)
I0428 20:06:06.313277 30791 net.cpp:139] Memory required for data: 7678800
I0428 20:06:06.313287 30791 layer_factory.hpp:77] Creating layer relu1
I0428 20:06:06.313292 30791 net.cpp:86] Creating Layer relu1
I0428 20:06:06.313297 30791 net.cpp:408] relu1 <- ip1
I0428 20:06:06.313302 30791 net.cpp:369] relu1 -> ip1 (in-place)
I0428 20:06:06.313493 30791 net.cpp:124] Setting up relu1
I0428 20:06:06.313503 30791 net.cpp:131] Top shape: 100 10 (1000)
I0428 20:06:06.313506 30791 net.cpp:139] Memory required for data: 7682800
I0428 20:06:06.313510 30791 layer_factory.hpp:77] Creating layer ip2
I0428 20:06:06.313519 30791 net.cpp:86] Creating Layer ip2
I0428 20:06:06.313524 30791 net.cpp:408] ip2 <- ip1
I0428 20:06:06.313529 30791 net.cpp:382] ip2 -> ip2
I0428 20:06:06.313640 30791 net.cpp:124] Setting up ip2
I0428 20:06:06.313648 30791 net.cpp:131] Top shape: 100 10 (1000)
I0428 20:06:06.313652 30791 net.cpp:139] Memory required for data: 7686800
I0428 20:06:06.313658 30791 layer_factory.hpp:77] Creating layer relu2
I0428 20:06:06.313663 30791 net.cpp:86] Creating Layer relu2
I0428 20:06:06.313675 30791 net.cpp:408] relu2 <- ip2
I0428 20:06:06.313680 30791 net.cpp:369] relu2 -> ip2 (in-place)
I0428 20:06:06.313887 30791 net.cpp:124] Setting up relu2
I0428 20:06:06.313897 30791 net.cpp:131] Top shape: 100 10 (1000)
I0428 20:06:06.313901 30791 net.cpp:139] Memory required for data: 7690800
I0428 20:06:06.313905 30791 layer_factory.hpp:77] Creating layer ip2_relu2_0_split
I0428 20:06:06.313912 30791 net.cpp:86] Creating Layer ip2_relu2_0_split
I0428 20:06:06.313915 30791 net.cpp:408] ip2_relu2_0_split <- ip2
I0428 20:06:06.313921 30791 net.cpp:382] ip2_relu2_0_split -> ip2_relu2_0_split_0
I0428 20:06:06.313941 30791 net.cpp:382] ip2_relu2_0_split -> ip2_relu2_0_split_1
I0428 20:06:06.314012 30791 net.cpp:124] Setting up ip2_relu2_0_split
I0428 20:06:06.314019 30791 net.cpp:131] Top shape: 100 10 (1000)
I0428 20:06:06.314024 30791 net.cpp:131] Top shape: 100 10 (1000)
I0428 20:06:06.314028 30791 net.cpp:139] Memory required for data: 7698800
I0428 20:06:06.314031 30791 layer_factory.hpp:77] Creating layer accuracy
I0428 20:06:06.314038 30791 net.cpp:86] Creating Layer accuracy
I0428 20:06:06.314041 30791 net.cpp:408] accuracy <- ip2_relu2_0_split_0
I0428 20:06:06.314046 30791 net.cpp:408] accuracy <- label_mnist_1_split_0
I0428 20:06:06.314051 30791 net.cpp:382] accuracy -> accuracy
…
