…
I0428 19:36:54.770380 23746 net.cpp:296] The NetState phase (0) differed from the phase (1) specified by a rule in layer mnist
I0428 19:36:54.770398 23746 net.cpp:296] The NetState phase (0) differed from the phase (1) specified by a rule in layer accuracy
I0428 19:36:54.770488 23746 net.cpp:53] Initializing net from parameters: 
name: "LeNet"
state {
  phase: TRAIN
  level: 0
  stage: ""
}
layer {
  name: "mnist"
  type: "Data"
  top: "data"
  top: "label"
  include {
    phase: TRAIN
  }
  transform_param {
    scale: 0.00390625
  }
  data_param {
    source: "examples/mnist/mnist_train_lmdb"
    batch_size: 64
    backend: LMDB
  }
}
layer {
  name: "conv0"
  type: "Convolution"
  bottom: "data"
  top: "conv0"
  param {
    lr_mult: 1
  }
  param {
    lr_mult: 2
  }
  convolution_param {
    num_output: 100
    kernel_size: 5
    stride: 1
    weight_filler {
      type: "xavier"
    }
    bias_filler {
      type: "constant"
    }
  }
}
layer {
  name: "pool0"
  type: "Pooling"
  bottom: "conv0"
  top: "pool0"
  pooling_param {
    pool: MAX
    kernel_size: 2
    stride: 2
  }
}
layer {
  name: "ip1"
  type: "InnerProduct"
  bottom: "pool0"
  top: "ip1"
  param {
    lr_mult: 1
  }
  param {
    lr_mult: 2
  }
  inner_product_param {
    num_output: 10
    weight_filler {
      type: "xavier"
    }
    bias_filler {
      type: "constant"
    }
  }
}
layer {
  name: "relu1"
  type: "ReLU"
  bottom: "ip1"
  top: "ip1"
}
layer {
  name: "ip2"
  type: "InnerProduct"
  bottom: "ip1"
  top: "ip2"
  param {
    lr_mult: 1
  }
  param {
    lr_mult: 2
  }
  inner_product_param {
    num_output: 25
    weight_filler {
      type: "xavier"
    }
    bias_filler {
      type: "constant"
    }
  }
}
layer {
  name: "relu2"
  type: "ReLU"
  bottom: "ip2"
  top: "ip2"
}
layer {
  name: "ip3"
  type: "InnerProduct"
  bottom: "ip2"
  top: "ip3"
  param {
    lr_mult: 1
  }
  param {
    lr_mult: 2
  }
  inner_product_param {
    num_output: 10
    weight_filler {
      type: "xavier"
    }
    bias_filler {
      type: "constant"
    }
  }
}
layer {
  name: "relu3"
  type: "ReLU"
  bottom: "ip3"
  top: "ip3"
}
layer {
  name: "loss"
  type: "SoftmaxWithLoss"
  bottom: "ip3"
  bottom: "label"
  top: "loss"
}
I0428 19:36:54.770561 23746 layer_factory.hpp:77] Creating layer mnist
I0428 19:36:54.770661 23746 db_lmdb.cpp:35] Opened lmdb examples/mnist/mnist_train_lmdb
I0428 19:36:54.770686 23746 net.cpp:86] Creating Layer mnist
I0428 19:36:54.770695 23746 net.cpp:382] mnist -> data
I0428 19:36:54.770717 23746 net.cpp:382] mnist -> label
I0428 19:36:54.771822 23746 data_layer.cpp:45] output data size: 64,1,28,28
I0428 19:36:54.774499 23746 net.cpp:124] Setting up mnist
I0428 19:36:54.774518 23746 net.cpp:131] Top shape: 64 1 28 28 (50176)
I0428 19:36:54.774525 23746 net.cpp:131] Top shape: 64 (64)
I0428 19:36:54.774529 23746 net.cpp:139] Memory required for data: 200960
I0428 19:36:54.774536 23746 layer_factory.hpp:77] Creating layer conv0
I0428 19:36:54.774552 23746 net.cpp:86] Creating Layer conv0
I0428 19:36:54.774557 23746 net.cpp:408] conv0 <- data
I0428 19:36:54.774571 23746 net.cpp:382] conv0 -> conv0
I0428 19:36:55.060540 23746 net.cpp:124] Setting up conv0
I0428 19:36:55.060570 23746 net.cpp:131] Top shape: 64 100 24 24 (3686400)
I0428 19:36:55.060575 23746 net.cpp:139] Memory required for data: 14946560
I0428 19:36:55.060590 23746 layer_factory.hpp:77] Creating layer pool0
I0428 19:36:55.060605 23746 net.cpp:86] Creating Layer pool0
I0428 19:36:55.060628 23746 net.cpp:408] pool0 <- conv0
I0428 19:36:55.060636 23746 net.cpp:382] pool0 -> pool0
I0428 19:36:55.060689 23746 net.cpp:124] Setting up pool0
I0428 19:36:55.060698 23746 net.cpp:131] Top shape: 64 100 12 12 (921600)
I0428 19:36:55.060703 23746 net.cpp:139] Memory required for data: 18632960
I0428 19:36:55.060706 23746 layer_factory.hpp:77] Creating layer ip1
I0428 19:36:55.060714 23746 net.cpp:86] Creating Layer ip1
I0428 19:36:55.060719 23746 net.cpp:408] ip1 <- pool0
I0428 19:36:55.060725 23746 net.cpp:382] ip1 -> ip1
I0428 19:36:55.062692 23746 net.cpp:124] Setting up ip1
I0428 19:36:55.062707 23746 net.cpp:131] Top shape: 64 10 (640)
I0428 19:36:55.062711 23746 net.cpp:139] Memory required for data: 18635520
I0428 19:36:55.062721 23746 layer_factory.hpp:77] Creating layer relu1
I0428 19:36:55.062729 23746 net.cpp:86] Creating Layer relu1
I0428 19:36:55.062733 23746 net.cpp:408] relu1 <- ip1
I0428 19:36:55.062739 23746 net.cpp:369] relu1 -> ip1 (in-place)
I0428 19:36:55.062932 23746 net.cpp:124] Setting up relu1
I0428 19:36:55.062942 23746 net.cpp:131] Top shape: 64 10 (640)
I0428 19:36:55.062945 23746 net.cpp:139] Memory required for data: 18638080
I0428 19:36:55.062949 23746 layer_factory.hpp:77] Creating layer ip2
I0428 19:36:55.062958 23746 net.cpp:86] Creating Layer ip2
I0428 19:36:55.062961 23746 net.cpp:408] ip2 <- ip1
I0428 19:36:55.062968 23746 net.cpp:382] ip2 -> ip2
I0428 19:36:55.063073 23746 net.cpp:124] Setting up ip2
I0428 19:36:55.063081 23746 net.cpp:131] Top shape: 64 25 (1600)
I0428 19:36:55.063084 23746 net.cpp:139] Memory required for data: 18644480
I0428 19:36:55.063093 23746 layer_factory.hpp:77] Creating layer relu2
I0428 19:36:55.063099 23746 net.cpp:86] Creating Layer relu2
I0428 19:36:55.063102 23746 net.cpp:408] relu2 <- ip2
I0428 19:36:55.063108 23746 net.cpp:369] relu2 -> ip2 (in-place)
I0428 19:36:55.063923 23746 net.cpp:124] Setting up relu2
I0428 19:36:55.063937 23746 net.cpp:131] Top shape: 64 25 (1600)
I0428 19:36:55.063941 23746 net.cpp:139] Memory required for data: 18650880
I0428 19:36:55.063946 23746 layer_factory.hpp:77] Creating layer ip3
I0428 19:36:55.063953 23746 net.cpp:86] Creating Layer ip3
I0428 19:36:55.063957 23746 net.cpp:408] ip3 <- ip2
I0428 19:36:55.063963 23746 net.cpp:382] ip3 -> ip3
I0428 19:36:55.064069 23746 net.cpp:124] Setting up ip3
I0428 19:36:55.064077 23746 net.cpp:131] Top shape: 64 10 (640)
I0428 19:36:55.064080 23746 net.cpp:139] Memory required for data: 18653440
I0428 19:36:55.064087 23746 layer_factory.hpp:77] Creating layer relu3
I0428 19:36:55.064095 23746 net.cpp:86] Creating Layer relu3
I0428 19:36:55.064100 23746 net.cpp:408] relu3 <- ip3
I0428 19:36:55.064105 23746 net.cpp:369] relu3 -> ip3 (in-place)
I0428 19:36:55.064291 23746 net.cpp:124] Setting up relu3
I0428 19:36:55.064299 23746 net.cpp:131] Top shape: 64 10 (640)
I0428 19:36:55.064303 23746 net.cpp:139] Memory required for data: 18656000
I0428 19:36:55.064307 23746 layer_factory.hpp:77] Creating layer loss
I0428 19:36:55.064313 23746 net.cpp:86] Creating Layer loss
I0428 19:36:55.064317 23746 net.cpp:408] loss <- ip3
I0428 19:36:55.064322 23746 net.cpp:408] loss <- label
I0428 19:36:55.064328 23746 net.cpp:382] loss -> loss
I0428 19:36:55.064344 23746 layer_factory.hpp:77] Creating layer loss
…
I0428 19:36:55.065012 23746 solver.cpp:173] Creating test net (#0) specified by net file: ECE595/mnist/train_test/var_everything2/lenet_train_test250.prototxt
I0428 19:36:55.065042 23746 net.cpp:296] The NetState phase (1) differed from the phase (0) specified by a rule in layer mnist
I0428 19:36:55.065134 23746 net.cpp:53] Initializing net from parameters: 
name: "LeNet"
state {
  phase: TEST
}
layer {
  name: "mnist"
  type: "Data"
  top: "data"
  top: "label"
  include {
    phase: TEST
  }
  transform_param {
    scale: 0.00390625
  }
  data_param {
    source: "examples/mnist/mnist_test_lmdb"
    batch_size: 100
    backend: LMDB
  }
}
layer {
  name: "conv0"
  type: "Convolution"
  bottom: "data"
  top: "conv0"
  param {
    lr_mult: 1
  }
  param {
    lr_mult: 2
  }
  convolution_param {
    num_output: 100
    kernel_size: 5
    stride: 1
    weight_filler {
      type: "xavier"
    }
    bias_filler {
      type: "constant"
    }
  }
}
layer {
  name: "pool0"
  type: "Pooling"
  bottom: "conv0"
  top: "pool0"
  pooling_param {
    pool: MAX
    kernel_size: 2
    stride: 2
  }
}
layer {
  name: "ip1"
  type: "InnerProduct"
  bottom: "pool0"
  top: "ip1"
  param {
    lr_mult: 1
  }
  param {
    lr_mult: 2
  }
  inner_product_param {
    num_output: 10
    weight_filler {
      type: "xavier"
    }
    bias_filler {
      type: "constant"
    }
  }
}
layer {
  name: "relu1"
  type: "ReLU"
  bottom: "ip1"
  top: "ip1"
}
layer {
  name: "ip2"
  type: "InnerProduct"
  bottom: "ip1"
  top: "ip2"
  param {
    lr_mult: 1
  }
  param {
    lr_mult: 2
  }
  inner_product_param {
    num_output: 25
    weight_filler {
      type: "xavier"
    }
    bias_filler {
      type: "constant"
    }
  }
}
layer {
  name: "relu2"
  type: "ReLU"
  bottom: "ip2"
  top: "ip2"
}
layer {
  name: "ip3"
  type: "InnerProduct"
  bottom: "ip2"
  top: "ip3"
  param {
    lr_mult: 1
  }
  param {
    lr_mult: 2
  }
  inner_product_param {
    num_output: 10
    weight_filler {
      type: "xavier"
    }
    bias_filler {
      type: "constant"
    }
  }
}
layer {
  name: "relu3"
  type: "ReLU"
  bottom: "ip3"
  top: "ip3"
}
layer {
  name: "accuracy"
  type: "Accuracy"
  bottom: "ip3"
  bottom: "label"
  top: "accuracy"
  include {
    phase: TEST
  }
}
layer {
  name: "loss"
  type: "SoftmaxWithLoss"
  bottom: "ip3"
  bottom: "label"
  top: "loss"
}
I0428 19:36:55.065204 23746 layer_factory.hpp:77] Creating layer mnist
I0428 19:36:55.065255 23746 db_lmdb.cpp:35] Opened lmdb examples/mnist/mnist_test_lmdb
I0428 19:36:55.065269 23746 net.cpp:86] Creating Layer mnist
I0428 19:36:55.065275 23746 net.cpp:382] mnist -> data
I0428 19:36:55.065285 23746 net.cpp:382] mnist -> label
I0428 19:36:55.065387 23746 data_layer.cpp:45] output data size: 100,1,28,28
I0428 19:36:55.066570 23746 net.cpp:124] Setting up mnist
I0428 19:36:55.066586 23746 net.cpp:131] Top shape: 100 1 28 28 (78400)
I0428 19:36:55.066591 23746 net.cpp:131] Top shape: 100 (100)
I0428 19:36:55.066596 23746 net.cpp:139] Memory required for data: 314000
I0428 19:36:55.066599 23746 layer_factory.hpp:77] Creating layer label_mnist_1_split
I0428 19:36:55.066606 23746 net.cpp:86] Creating Layer label_mnist_1_split
I0428 19:36:55.066611 23746 net.cpp:408] label_mnist_1_split <- label
I0428 19:36:55.066617 23746 net.cpp:382] label_mnist_1_split -> label_mnist_1_split_0
I0428 19:36:55.066624 23746 net.cpp:382] label_mnist_1_split -> label_mnist_1_split_1
I0428 19:36:55.066687 23746 net.cpp:124] Setting up label_mnist_1_split
I0428 19:36:55.066695 23746 net.cpp:131] Top shape: 100 (100)
I0428 19:36:55.066699 23746 net.cpp:131] Top shape: 100 (100)
I0428 19:36:55.066704 23746 net.cpp:139] Memory required for data: 314800
I0428 19:36:55.066717 23746 layer_factory.hpp:77] Creating layer conv0
I0428 19:36:55.066728 23746 net.cpp:86] Creating Layer conv0
I0428 19:36:55.066732 23746 net.cpp:408] conv0 <- data
I0428 19:36:55.066740 23746 net.cpp:382] conv0 -> conv0
I0428 19:36:55.068595 23746 net.cpp:124] Setting up conv0
I0428 19:36:55.068611 23746 net.cpp:131] Top shape: 100 100 24 24 (5760000)
I0428 19:36:55.068615 23746 net.cpp:139] Memory required for data: 23354800
I0428 19:36:55.068625 23746 layer_factory.hpp:77] Creating layer pool0
I0428 19:36:55.068634 23746 net.cpp:86] Creating Layer pool0
I0428 19:36:55.068640 23746 net.cpp:408] pool0 <- conv0
I0428 19:36:55.068646 23746 net.cpp:382] pool0 -> pool0
I0428 19:36:55.068687 23746 net.cpp:124] Setting up pool0
I0428 19:36:55.068693 23746 net.cpp:131] Top shape: 100 100 12 12 (1440000)
I0428 19:36:55.068696 23746 net.cpp:139] Memory required for data: 29114800
I0428 19:36:55.068699 23746 layer_factory.hpp:77] Creating layer ip1
I0428 19:36:55.068708 23746 net.cpp:86] Creating Layer ip1
I0428 19:36:55.068712 23746 net.cpp:408] ip1 <- pool0
I0428 19:36:55.068717 23746 net.cpp:382] ip1 -> ip1
I0428 19:36:55.070696 23746 net.cpp:124] Setting up ip1
I0428 19:36:55.070710 23746 net.cpp:131] Top shape: 100 10 (1000)
I0428 19:36:55.070714 23746 net.cpp:139] Memory required for data: 29118800
I0428 19:36:55.070724 23746 layer_factory.hpp:77] Creating layer relu1
I0428 19:36:55.070731 23746 net.cpp:86] Creating Layer relu1
I0428 19:36:55.070735 23746 net.cpp:408] relu1 <- ip1
I0428 19:36:55.070741 23746 net.cpp:369] relu1 -> ip1 (in-place)
I0428 19:36:55.071022 23746 net.cpp:124] Setting up relu1
I0428 19:36:55.071034 23746 net.cpp:131] Top shape: 100 10 (1000)
I0428 19:36:55.071038 23746 net.cpp:139] Memory required for data: 29122800
I0428 19:36:55.071043 23746 layer_factory.hpp:77] Creating layer ip2
I0428 19:36:55.071049 23746 net.cpp:86] Creating Layer ip2
I0428 19:36:55.071053 23746 net.cpp:408] ip2 <- ip1
I0428 19:36:55.071061 23746 net.cpp:382] ip2 -> ip2
I0428 19:36:55.071178 23746 net.cpp:124] Setting up ip2
I0428 19:36:55.071187 23746 net.cpp:131] Top shape: 100 25 (2500)
I0428 19:36:55.071190 23746 net.cpp:139] Memory required for data: 29132800
I0428 19:36:55.071199 23746 layer_factory.hpp:77] Creating layer relu2
I0428 19:36:55.071208 23746 net.cpp:86] Creating Layer relu2
I0428 19:36:55.071213 23746 net.cpp:408] relu2 <- ip2
I0428 19:36:55.071218 23746 net.cpp:369] relu2 -> ip2 (in-place)
I0428 19:36:55.072115 23746 net.cpp:124] Setting up relu2
I0428 19:36:55.072129 23746 net.cpp:131] Top shape: 100 25 (2500)
I0428 19:36:55.072134 23746 net.cpp:139] Memory required for data: 29142800
I0428 19:36:55.072137 23746 layer_factory.hpp:77] Creating layer ip3
I0428 19:36:55.072146 23746 net.cpp:86] Creating Layer ip3
I0428 19:36:55.072149 23746 net.cpp:408] ip3 <- ip2
I0428 19:36:55.072157 23746 net.cpp:382] ip3 -> ip3
I0428 19:36:55.072288 23746 net.cpp:124] Setting up ip3
I0428 19:36:55.072299 23746 net.cpp:131] Top shape: 100 10 (1000)
I0428 19:36:55.072301 23746 net.cpp:139] Memory required for data: 29146800
I0428 19:36:55.072309 23746 layer_factory.hpp:77] Creating layer relu3
I0428 19:36:55.072314 23746 net.cpp:86] Creating Layer relu3
I0428 19:36:55.072319 23746 net.cpp:408] relu3 <- ip3
I0428 19:36:55.072325 23746 net.cpp:369] relu3 -> ip3 (in-place)
I0428 19:36:55.072510 23746 net.cpp:124] Setting up relu3
I0428 19:36:55.072520 23746 net.cpp:131] Top shape: 100 10 (1000)
I0428 19:36:55.072525 23746 net.cpp:139] Memory required for data: 29150800
I0428 19:36:55.072528 23746 layer_factory.hpp:77] Creating layer ip3_relu3_0_split
I0428 19:36:55.072535 23746 net.cpp:86] Creating Layer ip3_relu3_0_split
I0428 19:36:55.072538 23746 net.cpp:408] ip3_relu3_0_split <- ip3
I0428 19:36:55.072545 23746 net.cpp:382] ip3_relu3_0_split -> ip3_relu3_0_split_0
I0428 19:36:55.072551 23746 net.cpp:382] ip3_relu3_0_split -> ip3_relu3_0_split_1
I0428 19:36:55.072593 23746 net.cpp:124] Setting up ip3_relu3_0_split
I0428 19:36:55.072602 23746 net.cpp:131] Top shape: 100 10 (1000)
I0428 19:36:55.072616 23746 net.cpp:131] Top shape: 100 10 (1000)
I0428 19:36:55.072619 23746 net.cpp:139] Memory required for data: 29158800
I0428 19:36:55.072623 23746 layer_factory.hpp:77] Creating layer accuracy
I0428 19:36:55.072629 23746 net.cpp:86] Creating Layer accuracy
I0428 19:36:55.072633 23746 net.cpp:408] accuracy <- ip3_relu3_0_split_0
I0428 19:36:55.072638 23746 net.cpp:408] accuracy <- label_mnist_1_split_0
I0428 19:36:55.072644 23746 net.cpp:382] accuracy -> accuracy
…
