…
I0428 20:20:21.495374  1535 net.cpp:296] The NetState phase (0) differed from the phase (1) specified by a rule in layer mnist
I0428 20:20:21.495393  1535 net.cpp:296] The NetState phase (0) differed from the phase (1) specified by a rule in layer accuracy
I0428 20:20:21.495496  1535 net.cpp:53] Initializing net from parameters: 
name: "LeNet"
state {
  phase: TRAIN
  level: 0
  stage: ""
}
layer {
  name: "mnist"
  type: "Data"
  top: "data"
  top: "label"
  include {
    phase: TRAIN
  }
  transform_param {
    scale: 0.00390625
  }
  data_param {
    source: "examples/mnist/mnist_train_lmdb"
    batch_size: 64
    backend: LMDB
  }
}
layer {
  name: "conv0"
  type: "Convolution"
  bottom: "data"
  top: "conv0"
  param {
    lr_mult: 1
  }
  param {
    lr_mult: 2
  }
  convolution_param {
    num_output: 50
    kernel_size: 5
    stride: 1
    weight_filler {
      type: "xavier"
    }
    bias_filler {
      type: "constant"
    }
  }
}
layer {
  name: "pool0"
  type: "Pooling"
  bottom: "conv0"
  top: "pool0"
  pooling_param {
    pool: MAX
    kernel_size: 2
    stride: 2
  }
}
layer {
  name: "conv1"
  type: "Convolution"
  bottom: "pool0"
  top: "conv1"
  param {
    lr_mult: 1
  }
  param {
    lr_mult: 2
  }
  convolution_param {
    num_output: 25
    kernel_size: 5
    stride: 1
    weight_filler {
      type: "xavier"
    }
    bias_filler {
      type: "constant"
    }
  }
}
layer {
  name: "pool1"
  type: "Pooling"
  bottom: "conv1"
  top: "pool1"
  pooling_param {
    pool: MAX
    kernel_size: 2
    stride: 2
  }
}
layer {
  name: "ip1"
  type: "InnerProduct"
  bottom: "pool1"
  top: "ip1"
  param {
    lr_mult: 1
  }
  param {
    lr_mult: 2
  }
  inner_product_param {
    num_output: 50
    weight_filler {
      type: "xavier"
    }
    bias_filler {
      type: "constant"
    }
  }
}
layer {
  name: "relu1"
  type: "ReLU"
  bottom: "ip1"
  top: "ip1"
}
layer {
  name: "ip2"
  type: "InnerProduct"
  bottom: "ip1"
  top: "ip2"
  param {
    lr_mult: 1
  }
  param {
    lr_mult: 2
  }
  inner_product_param {
    num_output: 25
    weight_filler {
      type: "xavier"
    }
    bias_filler {
      type: "constant"
    }
  }
}
layer {
  name: "relu2"
  type: "ReLU"
  bottom: "ip2"
  top: "ip2"
}
layer {
  name: "ip3"
  type: "InnerProduct"
  bottom: "ip2"
  top: "ip3"
  param {
    lr_mult: 1
  }
  param {
    lr_mult: 2
  }
  inner_product_param {
    num_output: 10
    weight_filler {
      type: "xavier"
    }
    bias_filler {
      type: "constant"
    }
  }
}
layer {
  name: "relu3"
  type: "ReLU"
  bottom: "ip3"
  top: "ip3"
}
layer {
  name: "loss"
  type: "SoftmaxWithLoss"
  bottom: "ip3"
  bottom: "label"
  top: "loss"
}
I0428 20:20:21.495576  1535 layer_factory.hpp:77] Creating layer mnist
I0428 20:20:21.495682  1535 db_lmdb.cpp:35] Opened lmdb examples/mnist/mnist_train_lmdb
I0428 20:20:21.495705  1535 net.cpp:86] Creating Layer mnist
I0428 20:20:21.495713  1535 net.cpp:382] mnist -> data
I0428 20:20:21.495736  1535 net.cpp:382] mnist -> label
I0428 20:20:21.496860  1535 data_layer.cpp:45] output data size: 64,1,28,28
I0428 20:20:21.499323  1535 net.cpp:124] Setting up mnist
I0428 20:20:21.499342  1535 net.cpp:131] Top shape: 64 1 28 28 (50176)
I0428 20:20:21.499348  1535 net.cpp:131] Top shape: 64 (64)
I0428 20:20:21.499354  1535 net.cpp:139] Memory required for data: 200960
I0428 20:20:21.499362  1535 layer_factory.hpp:77] Creating layer conv0
I0428 20:20:21.499399  1535 net.cpp:86] Creating Layer conv0
I0428 20:20:21.499423  1535 net.cpp:408] conv0 <- data
I0428 20:20:21.499435  1535 net.cpp:382] conv0 -> conv0
I0428 20:20:21.789500  1535 net.cpp:124] Setting up conv0
I0428 20:20:21.789530  1535 net.cpp:131] Top shape: 64 50 24 24 (1843200)
I0428 20:20:21.789535  1535 net.cpp:139] Memory required for data: 7573760
I0428 20:20:21.789552  1535 layer_factory.hpp:77] Creating layer pool0
I0428 20:20:21.789566  1535 net.cpp:86] Creating Layer pool0
I0428 20:20:21.789572  1535 net.cpp:408] pool0 <- conv0
I0428 20:20:21.789577  1535 net.cpp:382] pool0 -> pool0
I0428 20:20:21.789629  1535 net.cpp:124] Setting up pool0
I0428 20:20:21.789638  1535 net.cpp:131] Top shape: 64 50 12 12 (460800)
I0428 20:20:21.789641  1535 net.cpp:139] Memory required for data: 9416960
I0428 20:20:21.789645  1535 layer_factory.hpp:77] Creating layer conv1
I0428 20:20:21.789657  1535 net.cpp:86] Creating Layer conv1
I0428 20:20:21.789664  1535 net.cpp:408] conv1 <- pool0
I0428 20:20:21.789670  1535 net.cpp:382] conv1 -> conv1
I0428 20:20:21.791955  1535 net.cpp:124] Setting up conv1
I0428 20:20:21.791971  1535 net.cpp:131] Top shape: 64 25 8 8 (102400)
I0428 20:20:21.791976  1535 net.cpp:139] Memory required for data: 9826560
I0428 20:20:21.791986  1535 layer_factory.hpp:77] Creating layer pool1
I0428 20:20:21.791995  1535 net.cpp:86] Creating Layer pool1
I0428 20:20:21.791998  1535 net.cpp:408] pool1 <- conv1
I0428 20:20:21.792004  1535 net.cpp:382] pool1 -> pool1
I0428 20:20:21.792047  1535 net.cpp:124] Setting up pool1
I0428 20:20:21.792052  1535 net.cpp:131] Top shape: 64 25 4 4 (25600)
I0428 20:20:21.792055  1535 net.cpp:139] Memory required for data: 9928960
I0428 20:20:21.792059  1535 layer_factory.hpp:77] Creating layer ip1
I0428 20:20:21.792067  1535 net.cpp:86] Creating Layer ip1
I0428 20:20:21.792070  1535 net.cpp:408] ip1 <- pool1
I0428 20:20:21.792075  1535 net.cpp:382] ip1 -> ip1
I0428 20:20:21.792320  1535 net.cpp:124] Setting up ip1
I0428 20:20:21.792330  1535 net.cpp:131] Top shape: 64 50 (3200)
I0428 20:20:21.792333  1535 net.cpp:139] Memory required for data: 9941760
I0428 20:20:21.792342  1535 layer_factory.hpp:77] Creating layer relu1
I0428 20:20:21.792348  1535 net.cpp:86] Creating Layer relu1
I0428 20:20:21.792352  1535 net.cpp:408] relu1 <- ip1
I0428 20:20:21.792357  1535 net.cpp:369] relu1 -> ip1 (in-place)
I0428 20:20:21.792541  1535 net.cpp:124] Setting up relu1
I0428 20:20:21.792551  1535 net.cpp:131] Top shape: 64 50 (3200)
I0428 20:20:21.792556  1535 net.cpp:139] Memory required for data: 9954560
I0428 20:20:21.792558  1535 layer_factory.hpp:77] Creating layer ip2
I0428 20:20:21.792565  1535 net.cpp:86] Creating Layer ip2
I0428 20:20:21.792569  1535 net.cpp:408] ip2 <- ip1
I0428 20:20:21.792575  1535 net.cpp:382] ip2 -> ip2
I0428 20:20:21.792691  1535 net.cpp:124] Setting up ip2
I0428 20:20:21.792699  1535 net.cpp:131] Top shape: 64 25 (1600)
I0428 20:20:21.792703  1535 net.cpp:139] Memory required for data: 9960960
I0428 20:20:21.792709  1535 layer_factory.hpp:77] Creating layer relu2
I0428 20:20:21.792716  1535 net.cpp:86] Creating Layer relu2
I0428 20:20:21.792721  1535 net.cpp:408] relu2 <- ip2
I0428 20:20:21.792724  1535 net.cpp:369] relu2 -> ip2 (in-place)
I0428 20:20:21.793551  1535 net.cpp:124] Setting up relu2
I0428 20:20:21.793566  1535 net.cpp:131] Top shape: 64 25 (1600)
I0428 20:20:21.793570  1535 net.cpp:139] Memory required for data: 9967360
I0428 20:20:21.793573  1535 layer_factory.hpp:77] Creating layer ip3
I0428 20:20:21.793581  1535 net.cpp:86] Creating Layer ip3
I0428 20:20:21.793586  1535 net.cpp:408] ip3 <- ip2
I0428 20:20:21.793591  1535 net.cpp:382] ip3 -> ip3
I0428 20:20:21.793697  1535 net.cpp:124] Setting up ip3
I0428 20:20:21.793706  1535 net.cpp:131] Top shape: 64 10 (640)
I0428 20:20:21.793710  1535 net.cpp:139] Memory required for data: 9969920
I0428 20:20:21.793720  1535 layer_factory.hpp:77] Creating layer relu3
I0428 20:20:21.793725  1535 net.cpp:86] Creating Layer relu3
I0428 20:20:21.793728  1535 net.cpp:408] relu3 <- ip3
I0428 20:20:21.793733  1535 net.cpp:369] relu3 -> ip3 (in-place)
I0428 20:20:21.793913  1535 net.cpp:124] Setting up relu3
I0428 20:20:21.793923  1535 net.cpp:131] Top shape: 64 10 (640)
I0428 20:20:21.793926  1535 net.cpp:139] Memory required for data: 9972480
I0428 20:20:21.793931  1535 layer_factory.hpp:77] Creating layer loss
I0428 20:20:21.793936  1535 net.cpp:86] Creating Layer loss
I0428 20:20:21.793941  1535 net.cpp:408] loss <- ip3
I0428 20:20:21.793944  1535 net.cpp:408] loss <- label
I0428 20:20:21.793951  1535 net.cpp:382] loss -> loss
I0428 20:20:21.793965  1535 layer_factory.hpp:77] Creating layer loss
…
I0428 20:20:21.794648  1535 solver.cpp:173] Creating test net (#0) specified by net file: ECE595/mnist/train_test/var_everything2/lenet_train_test1361.prototxt
I0428 20:20:21.794677  1535 net.cpp:296] The NetState phase (1) differed from the phase (0) specified by a rule in layer mnist
I0428 20:20:21.794776  1535 net.cpp:53] Initializing net from parameters: 
name: "LeNet"
state {
  phase: TEST
}
layer {
  name: "mnist"
  type: "Data"
  top: "data"
  top: "label"
  include {
    phase: TEST
  }
  transform_param {
    scale: 0.00390625
  }
  data_param {
    source: "examples/mnist/mnist_test_lmdb"
    batch_size: 100
    backend: LMDB
  }
}
layer {
  name: "conv0"
  type: "Convolution"
  bottom: "data"
  top: "conv0"
  param {
    lr_mult: 1
  }
  param {
    lr_mult: 2
  }
  convolution_param {
    num_output: 50
    kernel_size: 5
    stride: 1
    weight_filler {
      type: "xavier"
    }
    bias_filler {
      type: "constant"
    }
  }
}
layer {
  name: "pool0"
  type: "Pooling"
  bottom: "conv0"
  top: "pool0"
  pooling_param {
    pool: MAX
    kernel_size: 2
    stride: 2
  }
}
layer {
  name: "conv1"
  type: "Convolution"
  bottom: "pool0"
  top: "conv1"
  param {
    lr_mult: 1
  }
  param {
    lr_mult: 2
  }
  convolution_param {
    num_output: 25
    kernel_size: 5
    stride: 1
    weight_filler {
      type: "xavier"
    }
    bias_filler {
      type: "constant"
    }
  }
}
layer {
  name: "pool1"
  type: "Pooling"
  bottom: "conv1"
  top: "pool1"
  pooling_param {
    pool: MAX
    kernel_size: 2
    stride: 2
  }
}
layer {
  name: "ip1"
  type: "InnerProduct"
  bottom: "pool1"
  top: "ip1"
  param {
    lr_mult: 1
  }
  param {
    lr_mult: 2
  }
  inner_product_param {
    num_output: 50
    weight_filler {
      type: "xavier"
    }
    bias_filler {
      type: "constant"
    }
  }
}
layer {
  name: "relu1"
  type: "ReLU"
  bottom: "ip1"
  top: "ip1"
}
layer {
  name: "ip2"
  type: "InnerProduct"
  bottom: "ip1"
  top: "ip2"
  param {
    lr_mult: 1
  }
  param {
    lr_mult: 2
  }
  inner_product_param {
    num_output: 25
    weight_filler {
      type: "xavier"
    }
    bias_filler {
      type: "constant"
    }
  }
}
layer {
  name: "relu2"
  type: "ReLU"
  bottom: "ip2"
  top: "ip2"
}
layer {
  name: "ip3"
  type: "InnerProduct"
  bottom: "ip2"
  top: "ip3"
  param {
    lr_mult: 1
  }
  param {
    lr_mult: 2
  }
  inner_product_param {
    num_output: 10
    weight_filler {
      type: "xavier"
    }
    bias_filler {
      type: "constant"
    }
  }
}
layer {
  name: "relu3"
  type: "ReLU"
  bottom: "ip3"
  top: "ip3"
}
layer {
  name: "accuracy"
  type: "Accuracy"
  bottom: "ip3"
  bottom: "label"
  top: "accuracy"
  include {
    phase: TEST
  }
}
layer {
  name: "loss"
  type: "SoftmaxWithLoss"
  bottom: "ip3"
  bottom: "label"
  top: "loss"
}
I0428 20:20:21.794860  1535 layer_factory.hpp:77] Creating layer mnist
I0428 20:20:21.794908  1535 db_lmdb.cpp:35] Opened lmdb examples/mnist/mnist_test_lmdb
I0428 20:20:21.794921  1535 net.cpp:86] Creating Layer mnist
I0428 20:20:21.794927  1535 net.cpp:382] mnist -> data
I0428 20:20:21.794935  1535 net.cpp:382] mnist -> label
I0428 20:20:21.795027  1535 data_layer.cpp:45] output data size: 100,1,28,28
I0428 20:20:21.797055  1535 net.cpp:124] Setting up mnist
I0428 20:20:21.797070  1535 net.cpp:131] Top shape: 100 1 28 28 (78400)
I0428 20:20:21.797076  1535 net.cpp:131] Top shape: 100 (100)
I0428 20:20:21.797080  1535 net.cpp:139] Memory required for data: 314000
I0428 20:20:21.797085  1535 layer_factory.hpp:77] Creating layer label_mnist_1_split
I0428 20:20:21.797091  1535 net.cpp:86] Creating Layer label_mnist_1_split
I0428 20:20:21.797096  1535 net.cpp:408] label_mnist_1_split <- label
I0428 20:20:21.797101  1535 net.cpp:382] label_mnist_1_split -> label_mnist_1_split_0
I0428 20:20:21.797108  1535 net.cpp:382] label_mnist_1_split -> label_mnist_1_split_1
I0428 20:20:21.797200  1535 net.cpp:124] Setting up label_mnist_1_split
I0428 20:20:21.797209  1535 net.cpp:131] Top shape: 100 (100)
I0428 20:20:21.797214  1535 net.cpp:131] Top shape: 100 (100)
I0428 20:20:21.797216  1535 net.cpp:139] Memory required for data: 314800
I0428 20:20:21.797219  1535 layer_factory.hpp:77] Creating layer conv0
I0428 20:20:21.797230  1535 net.cpp:86] Creating Layer conv0
I0428 20:20:21.797232  1535 net.cpp:408] conv0 <- data
I0428 20:20:21.797238  1535 net.cpp:382] conv0 -> conv0
I0428 20:20:21.799031  1535 net.cpp:124] Setting up conv0
I0428 20:20:21.799046  1535 net.cpp:131] Top shape: 100 50 24 24 (2880000)
I0428 20:20:21.799051  1535 net.cpp:139] Memory required for data: 11834800
I0428 20:20:21.799062  1535 layer_factory.hpp:77] Creating layer pool0
I0428 20:20:21.799069  1535 net.cpp:86] Creating Layer pool0
I0428 20:20:21.799072  1535 net.cpp:408] pool0 <- conv0
I0428 20:20:21.799080  1535 net.cpp:382] pool0 -> pool0
I0428 20:20:21.799118  1535 net.cpp:124] Setting up pool0
I0428 20:20:21.799125  1535 net.cpp:131] Top shape: 100 50 12 12 (720000)
I0428 20:20:21.799129  1535 net.cpp:139] Memory required for data: 14714800
I0428 20:20:21.799131  1535 layer_factory.hpp:77] Creating layer conv1
I0428 20:20:21.799141  1535 net.cpp:86] Creating Layer conv1
I0428 20:20:21.799145  1535 net.cpp:408] conv1 <- pool0
I0428 20:20:21.799150  1535 net.cpp:382] conv1 -> conv1
I0428 20:20:21.800974  1535 net.cpp:124] Setting up conv1
I0428 20:20:21.800990  1535 net.cpp:131] Top shape: 100 25 8 8 (160000)
I0428 20:20:21.800993  1535 net.cpp:139] Memory required for data: 15354800
I0428 20:20:21.801004  1535 layer_factory.hpp:77] Creating layer pool1
I0428 20:20:21.801012  1535 net.cpp:86] Creating Layer pool1
I0428 20:20:21.801014  1535 net.cpp:408] pool1 <- conv1
I0428 20:20:21.801021  1535 net.cpp:382] pool1 -> pool1
I0428 20:20:21.801062  1535 net.cpp:124] Setting up pool1
I0428 20:20:21.801069  1535 net.cpp:131] Top shape: 100 25 4 4 (40000)
I0428 20:20:21.801072  1535 net.cpp:139] Memory required for data: 15514800
I0428 20:20:21.801075  1535 layer_factory.hpp:77] Creating layer ip1
I0428 20:20:21.801082  1535 net.cpp:86] Creating Layer ip1
I0428 20:20:21.801086  1535 net.cpp:408] ip1 <- pool1
I0428 20:20:21.801092  1535 net.cpp:382] ip1 -> ip1
I0428 20:20:21.801331  1535 net.cpp:124] Setting up ip1
I0428 20:20:21.801340  1535 net.cpp:131] Top shape: 100 50 (5000)
I0428 20:20:21.801354  1535 net.cpp:139] Memory required for data: 15534800
I0428 20:20:21.801362  1535 layer_factory.hpp:77] Creating layer relu1
I0428 20:20:21.801368  1535 net.cpp:86] Creating Layer relu1
I0428 20:20:21.801373  1535 net.cpp:408] relu1 <- ip1
I0428 20:20:21.801380  1535 net.cpp:369] relu1 -> ip1 (in-place)
I0428 20:20:21.801589  1535 net.cpp:124] Setting up relu1
I0428 20:20:21.801599  1535 net.cpp:131] Top shape: 100 50 (5000)
I0428 20:20:21.801602  1535 net.cpp:139] Memory required for data: 15554800
I0428 20:20:21.801606  1535 layer_factory.hpp:77] Creating layer ip2
I0428 20:20:21.801615  1535 net.cpp:86] Creating Layer ip2
I0428 20:20:21.801618  1535 net.cpp:408] ip2 <- ip1
I0428 20:20:21.801623  1535 net.cpp:382] ip2 -> ip2
I0428 20:20:21.801759  1535 net.cpp:124] Setting up ip2
I0428 20:20:21.801766  1535 net.cpp:131] Top shape: 100 25 (2500)
I0428 20:20:21.801770  1535 net.cpp:139] Memory required for data: 15564800
I0428 20:20:21.801776  1535 layer_factory.hpp:77] Creating layer relu2
I0428 20:20:21.801782  1535 net.cpp:86] Creating Layer relu2
I0428 20:20:21.801785  1535 net.cpp:408] relu2 <- ip2
I0428 20:20:21.801789  1535 net.cpp:369] relu2 -> ip2 (in-place)
I0428 20:20:21.801995  1535 net.cpp:124] Setting up relu2
I0428 20:20:21.802006  1535 net.cpp:131] Top shape: 100 25 (2500)
I0428 20:20:21.802008  1535 net.cpp:139] Memory required for data: 15574800
I0428 20:20:21.802012  1535 layer_factory.hpp:77] Creating layer ip3
I0428 20:20:21.802019  1535 net.cpp:86] Creating Layer ip3
I0428 20:20:21.802023  1535 net.cpp:408] ip3 <- ip2
I0428 20:20:21.802028  1535 net.cpp:382] ip3 -> ip3
I0428 20:20:21.802139  1535 net.cpp:124] Setting up ip3
I0428 20:20:21.802146  1535 net.cpp:131] Top shape: 100 10 (1000)
I0428 20:20:21.802150  1535 net.cpp:139] Memory required for data: 15578800
I0428 20:20:21.802158  1535 layer_factory.hpp:77] Creating layer relu3
I0428 20:20:21.802165  1535 net.cpp:86] Creating Layer relu3
I0428 20:20:21.802167  1535 net.cpp:408] relu3 <- ip3
I0428 20:20:21.802171  1535 net.cpp:369] relu3 -> ip3 (in-place)
I0428 20:20:21.803001  1535 net.cpp:124] Setting up relu3
I0428 20:20:21.803014  1535 net.cpp:131] Top shape: 100 10 (1000)
I0428 20:20:21.803019  1535 net.cpp:139] Memory required for data: 15582800
I0428 20:20:21.803021  1535 layer_factory.hpp:77] Creating layer ip3_relu3_0_split
I0428 20:20:21.803027  1535 net.cpp:86] Creating Layer ip3_relu3_0_split
I0428 20:20:21.803030  1535 net.cpp:408] ip3_relu3_0_split <- ip3
I0428 20:20:21.803036  1535 net.cpp:382] ip3_relu3_0_split -> ip3_relu3_0_split_0
I0428 20:20:21.803043  1535 net.cpp:382] ip3_relu3_0_split -> ip3_relu3_0_split_1
I0428 20:20:21.803092  1535 net.cpp:124] Setting up ip3_relu3_0_split
I0428 20:20:21.803098  1535 net.cpp:131] Top shape: 100 10 (1000)
I0428 20:20:21.803102  1535 net.cpp:131] Top shape: 100 10 (1000)
I0428 20:20:21.803105  1535 net.cpp:139] Memory required for data: 15590800
I0428 20:20:21.803109  1535 layer_factory.hpp:77] Creating layer accuracy
I0428 20:20:21.803115  1535 net.cpp:86] Creating Layer accuracy
I0428 20:20:21.803119  1535 net.cpp:408] accuracy <- ip3_relu3_0_split_0
I0428 20:20:21.803123  1535 net.cpp:408] accuracy <- label_mnist_1_split_0
I0428 20:20:21.803128  1535 net.cpp:382] accuracy -> accuracy
…
