…
I0428 20:31:51.812613  4016 net.cpp:296] The NetState phase (0) differed from the phase (1) specified by a rule in layer mnist
I0428 20:31:51.812636  4016 net.cpp:296] The NetState phase (0) differed from the phase (1) specified by a rule in layer accuracy
I0428 20:31:51.812762  4016 net.cpp:53] Initializing net from parameters: 
name: "LeNet"
state {
  phase: TRAIN
  level: 0
  stage: ""
}
layer {
  name: "mnist"
  type: "Data"
  top: "data"
  top: "label"
  include {
    phase: TRAIN
  }
  transform_param {
    scale: 0.00390625
  }
  data_param {
    source: "examples/mnist/mnist_train_lmdb"
    batch_size: 64
    backend: LMDB
  }
}
layer {
  name: "conv0"
  type: "Convolution"
  bottom: "data"
  top: "conv0"
  param {
    lr_mult: 1
  }
  param {
    lr_mult: 2
  }
  convolution_param {
    num_output: 100
    kernel_size: 5
    stride: 1
    weight_filler {
      type: "xavier"
    }
    bias_filler {
      type: "constant"
    }
  }
}
layer {
  name: "pool0"
  type: "Pooling"
  bottom: "conv0"
  top: "pool0"
  pooling_param {
    pool: MAX
    kernel_size: 2
    stride: 2
  }
}
layer {
  name: "conv1"
  type: "Convolution"
  bottom: "pool0"
  top: "conv1"
  param {
    lr_mult: 1
  }
  param {
    lr_mult: 2
  }
  convolution_param {
    num_output: 25
    kernel_size: 5
    stride: 1
    weight_filler {
      type: "xavier"
    }
    bias_filler {
      type: "constant"
    }
  }
}
layer {
  name: "pool1"
  type: "Pooling"
  bottom: "conv1"
  top: "pool1"
  pooling_param {
    pool: MAX
    kernel_size: 2
    stride: 2
  }
}
layer {
  name: "ip1"
  type: "InnerProduct"
  bottom: "pool1"
  top: "ip1"
  param {
    lr_mult: 1
  }
  param {
    lr_mult: 2
  }
  inner_product_param {
    num_output: 10
    weight_filler {
      type: "xavier"
    }
    bias_filler {
      type: "constant"
    }
  }
}
layer {
  name: "relu1"
  type: "ReLU"
  bottom: "ip1"
  top: "ip1"
}
layer {
  name: "loss"
  type: "SoftmaxWithLoss"
  bottom: "ip1"
  bottom: "label"
  top: "loss"
}
I0428 20:31:51.812875  4016 layer_factory.hpp:77] Creating layer mnist
I0428 20:31:51.813024  4016 db_lmdb.cpp:35] Opened lmdb examples/mnist/mnist_train_lmdb
I0428 20:31:51.813058  4016 net.cpp:86] Creating Layer mnist
I0428 20:31:51.813068  4016 net.cpp:382] mnist -> data
I0428 20:31:51.813098  4016 net.cpp:382] mnist -> label
I0428 20:31:51.814581  4016 data_layer.cpp:45] output data size: 64,1,28,28
I0428 20:31:51.817940  4016 net.cpp:124] Setting up mnist
I0428 20:31:51.817968  4016 net.cpp:131] Top shape: 64 1 28 28 (50176)
I0428 20:31:51.817977  4016 net.cpp:131] Top shape: 64 (64)
I0428 20:31:51.817983  4016 net.cpp:139] Memory required for data: 200960
I0428 20:31:51.817992  4016 layer_factory.hpp:77] Creating layer conv0
I0428 20:31:51.818018  4016 net.cpp:86] Creating Layer conv0
I0428 20:31:51.818032  4016 net.cpp:408] conv0 <- data
I0428 20:31:51.818048  4016 net.cpp:382] conv0 -> conv0
I0428 20:31:52.129493  4016 net.cpp:124] Setting up conv0
I0428 20:31:52.129525  4016 net.cpp:131] Top shape: 64 100 24 24 (3686400)
I0428 20:31:52.129530  4016 net.cpp:139] Memory required for data: 14946560
I0428 20:31:52.129549  4016 layer_factory.hpp:77] Creating layer pool0
I0428 20:31:52.129565  4016 net.cpp:86] Creating Layer pool0
I0428 20:31:52.129568  4016 net.cpp:408] pool0 <- conv0
I0428 20:31:52.129575  4016 net.cpp:382] pool0 -> pool0
I0428 20:31:52.129632  4016 net.cpp:124] Setting up pool0
I0428 20:31:52.129645  4016 net.cpp:131] Top shape: 64 100 12 12 (921600)
I0428 20:31:52.129673  4016 net.cpp:139] Memory required for data: 18632960
I0428 20:31:52.129678  4016 layer_factory.hpp:77] Creating layer conv1
I0428 20:31:52.129691  4016 net.cpp:86] Creating Layer conv1
I0428 20:31:52.129695  4016 net.cpp:408] conv1 <- pool0
I0428 20:31:52.129703  4016 net.cpp:382] conv1 -> conv1
I0428 20:31:52.132275  4016 net.cpp:124] Setting up conv1
I0428 20:31:52.132293  4016 net.cpp:131] Top shape: 64 25 8 8 (102400)
I0428 20:31:52.132297  4016 net.cpp:139] Memory required for data: 19042560
I0428 20:31:52.132308  4016 layer_factory.hpp:77] Creating layer pool1
I0428 20:31:52.132318  4016 net.cpp:86] Creating Layer pool1
I0428 20:31:52.132321  4016 net.cpp:408] pool1 <- conv1
I0428 20:31:52.132328  4016 net.cpp:382] pool1 -> pool1
I0428 20:31:52.132372  4016 net.cpp:124] Setting up pool1
I0428 20:31:52.132378  4016 net.cpp:131] Top shape: 64 25 4 4 (25600)
I0428 20:31:52.132382  4016 net.cpp:139] Memory required for data: 19144960
I0428 20:31:52.132386  4016 layer_factory.hpp:77] Creating layer ip1
I0428 20:31:52.132395  4016 net.cpp:86] Creating Layer ip1
I0428 20:31:52.132398  4016 net.cpp:408] ip1 <- pool1
I0428 20:31:52.132405  4016 net.cpp:382] ip1 -> ip1
I0428 20:31:52.132550  4016 net.cpp:124] Setting up ip1
I0428 20:31:52.132558  4016 net.cpp:131] Top shape: 64 10 (640)
I0428 20:31:52.132562  4016 net.cpp:139] Memory required for data: 19147520
I0428 20:31:52.132571  4016 layer_factory.hpp:77] Creating layer relu1
I0428 20:31:52.132578  4016 net.cpp:86] Creating Layer relu1
I0428 20:31:52.132582  4016 net.cpp:408] relu1 <- ip1
I0428 20:31:52.132587  4016 net.cpp:369] relu1 -> ip1 (in-place)
I0428 20:31:52.132788  4016 net.cpp:124] Setting up relu1
I0428 20:31:52.132798  4016 net.cpp:131] Top shape: 64 10 (640)
I0428 20:31:52.132802  4016 net.cpp:139] Memory required for data: 19150080
I0428 20:31:52.132807  4016 layer_factory.hpp:77] Creating layer loss
I0428 20:31:52.132818  4016 net.cpp:86] Creating Layer loss
I0428 20:31:52.132822  4016 net.cpp:408] loss <- ip1
I0428 20:31:52.132827  4016 net.cpp:408] loss <- label
I0428 20:31:52.132833  4016 net.cpp:382] loss -> loss
I0428 20:31:52.132849  4016 layer_factory.hpp:77] Creating layer loss
…
I0428 20:31:52.134173  4016 solver.cpp:173] Creating test net (#0) specified by net file: ECE595/mnist/train_test/var_everything2/lenet_train_test1562.prototxt
I0428 20:31:52.134202  4016 net.cpp:296] The NetState phase (1) differed from the phase (0) specified by a rule in layer mnist
I0428 20:31:52.134291  4016 net.cpp:53] Initializing net from parameters: 
name: "LeNet"
state {
  phase: TEST
}
layer {
  name: "mnist"
  type: "Data"
  top: "data"
  top: "label"
  include {
    phase: TEST
  }
  transform_param {
    scale: 0.00390625
  }
  data_param {
    source: "examples/mnist/mnist_test_lmdb"
    batch_size: 100
    backend: LMDB
  }
}
layer {
  name: "conv0"
  type: "Convolution"
  bottom: "data"
  top: "conv0"
  param {
    lr_mult: 1
  }
  param {
    lr_mult: 2
  }
  convolution_param {
    num_output: 100
    kernel_size: 5
    stride: 1
    weight_filler {
      type: "xavier"
    }
    bias_filler {
      type: "constant"
    }
  }
}
layer {
  name: "pool0"
  type: "Pooling"
  bottom: "conv0"
  top: "pool0"
  pooling_param {
    pool: MAX
    kernel_size: 2
    stride: 2
  }
}
layer {
  name: "conv1"
  type: "Convolution"
  bottom: "pool0"
  top: "conv1"
  param {
    lr_mult: 1
  }
  param {
    lr_mult: 2
  }
  convolution_param {
    num_output: 25
    kernel_size: 5
    stride: 1
    weight_filler {
      type: "xavier"
    }
    bias_filler {
      type: "constant"
    }
  }
}
layer {
  name: "pool1"
  type: "Pooling"
  bottom: "conv1"
  top: "pool1"
  pooling_param {
    pool: MAX
    kernel_size: 2
    stride: 2
  }
}
layer {
  name: "ip1"
  type: "InnerProduct"
  bottom: "pool1"
  top: "ip1"
  param {
    lr_mult: 1
  }
  param {
    lr_mult: 2
  }
  inner_product_param {
    num_output: 10
    weight_filler {
      type: "xavier"
    }
    bias_filler {
      type: "constant"
    }
  }
}
layer {
  name: "relu1"
  type: "ReLU"
  bottom: "ip1"
  top: "ip1"
}
layer {
  name: "accuracy"
  type: "Accuracy"
  bottom: "ip1"
  bottom: "label"
  top: "accuracy"
  include {
    phase: TEST
  }
}
layer {
  name: "loss"
  type: "SoftmaxWithLoss"
  bottom: "ip1"
  bottom: "label"
  top: "loss"
}
I0428 20:31:52.134376  4016 layer_factory.hpp:77] Creating layer mnist
I0428 20:31:52.134428  4016 db_lmdb.cpp:35] Opened lmdb examples/mnist/mnist_test_lmdb
I0428 20:31:52.134441  4016 net.cpp:86] Creating Layer mnist
I0428 20:31:52.134448  4016 net.cpp:382] mnist -> data
I0428 20:31:52.134456  4016 net.cpp:382] mnist -> label
I0428 20:31:52.134557  4016 data_layer.cpp:45] output data size: 100,1,28,28
I0428 20:31:52.136756  4016 net.cpp:124] Setting up mnist
I0428 20:31:52.136772  4016 net.cpp:131] Top shape: 100 1 28 28 (78400)
I0428 20:31:52.136780  4016 net.cpp:131] Top shape: 100 (100)
I0428 20:31:52.136785  4016 net.cpp:139] Memory required for data: 314000
I0428 20:31:52.136788  4016 layer_factory.hpp:77] Creating layer label_mnist_1_split
I0428 20:31:52.136796  4016 net.cpp:86] Creating Layer label_mnist_1_split
I0428 20:31:52.136801  4016 net.cpp:408] label_mnist_1_split <- label
I0428 20:31:52.136806  4016 net.cpp:382] label_mnist_1_split -> label_mnist_1_split_0
I0428 20:31:52.136821  4016 net.cpp:382] label_mnist_1_split -> label_mnist_1_split_1
I0428 20:31:52.136937  4016 net.cpp:124] Setting up label_mnist_1_split
I0428 20:31:52.136946  4016 net.cpp:131] Top shape: 100 (100)
I0428 20:31:52.136951  4016 net.cpp:131] Top shape: 100 (100)
I0428 20:31:52.136955  4016 net.cpp:139] Memory required for data: 314800
I0428 20:31:52.136960  4016 layer_factory.hpp:77] Creating layer conv0
I0428 20:31:52.136970  4016 net.cpp:86] Creating Layer conv0
I0428 20:31:52.136976  4016 net.cpp:408] conv0 <- data
I0428 20:31:52.136982  4016 net.cpp:382] conv0 -> conv0
I0428 20:31:52.137996  4016 net.cpp:124] Setting up conv0
I0428 20:31:52.138011  4016 net.cpp:131] Top shape: 100 100 24 24 (5760000)
I0428 20:31:52.138015  4016 net.cpp:139] Memory required for data: 23354800
I0428 20:31:52.138026  4016 layer_factory.hpp:77] Creating layer pool0
I0428 20:31:52.138036  4016 net.cpp:86] Creating Layer pool0
I0428 20:31:52.138039  4016 net.cpp:408] pool0 <- conv0
I0428 20:31:52.138046  4016 net.cpp:382] pool0 -> pool0
I0428 20:31:52.138092  4016 net.cpp:124] Setting up pool0
I0428 20:31:52.138098  4016 net.cpp:131] Top shape: 100 100 12 12 (1440000)
I0428 20:31:52.138103  4016 net.cpp:139] Memory required for data: 29114800
I0428 20:31:52.138106  4016 layer_factory.hpp:77] Creating layer conv1
I0428 20:31:52.138116  4016 net.cpp:86] Creating Layer conv1
I0428 20:31:52.138120  4016 net.cpp:408] conv1 <- pool0
I0428 20:31:52.138128  4016 net.cpp:382] conv1 -> conv1
I0428 20:31:52.140331  4016 net.cpp:124] Setting up conv1
I0428 20:31:52.140347  4016 net.cpp:131] Top shape: 100 25 8 8 (160000)
I0428 20:31:52.140353  4016 net.cpp:139] Memory required for data: 29754800
I0428 20:31:52.140363  4016 layer_factory.hpp:77] Creating layer pool1
I0428 20:31:52.140372  4016 net.cpp:86] Creating Layer pool1
I0428 20:31:52.140388  4016 net.cpp:408] pool1 <- conv1
I0428 20:31:52.140395  4016 net.cpp:382] pool1 -> pool1
I0428 20:31:52.140437  4016 net.cpp:124] Setting up pool1
I0428 20:31:52.140444  4016 net.cpp:131] Top shape: 100 25 4 4 (40000)
I0428 20:31:52.140449  4016 net.cpp:139] Memory required for data: 29914800
I0428 20:31:52.140452  4016 layer_factory.hpp:77] Creating layer ip1
I0428 20:31:52.140460  4016 net.cpp:86] Creating Layer ip1
I0428 20:31:52.140465  4016 net.cpp:408] ip1 <- pool1
I0428 20:31:52.140470  4016 net.cpp:382] ip1 -> ip1
I0428 20:31:52.140609  4016 net.cpp:124] Setting up ip1
I0428 20:31:52.140619  4016 net.cpp:131] Top shape: 100 10 (1000)
I0428 20:31:52.140621  4016 net.cpp:139] Memory required for data: 29918800
I0428 20:31:52.140630  4016 layer_factory.hpp:77] Creating layer relu1
I0428 20:31:52.140636  4016 net.cpp:86] Creating Layer relu1
I0428 20:31:52.140640  4016 net.cpp:408] relu1 <- ip1
I0428 20:31:52.140645  4016 net.cpp:369] relu1 -> ip1 (in-place)
I0428 20:31:52.141562  4016 net.cpp:124] Setting up relu1
I0428 20:31:52.141577  4016 net.cpp:131] Top shape: 100 10 (1000)
I0428 20:31:52.141582  4016 net.cpp:139] Memory required for data: 29922800
I0428 20:31:52.141587  4016 layer_factory.hpp:77] Creating layer ip1_relu1_0_split
I0428 20:31:52.141594  4016 net.cpp:86] Creating Layer ip1_relu1_0_split
I0428 20:31:52.141599  4016 net.cpp:408] ip1_relu1_0_split <- ip1
I0428 20:31:52.141607  4016 net.cpp:382] ip1_relu1_0_split -> ip1_relu1_0_split_0
I0428 20:31:52.141613  4016 net.cpp:382] ip1_relu1_0_split -> ip1_relu1_0_split_1
I0428 20:31:52.141687  4016 net.cpp:124] Setting up ip1_relu1_0_split
I0428 20:31:52.141696  4016 net.cpp:131] Top shape: 100 10 (1000)
I0428 20:31:52.141701  4016 net.cpp:131] Top shape: 100 10 (1000)
I0428 20:31:52.141705  4016 net.cpp:139] Memory required for data: 29930800
I0428 20:31:52.141710  4016 layer_factory.hpp:77] Creating layer accuracy
I0428 20:31:52.141716  4016 net.cpp:86] Creating Layer accuracy
I0428 20:31:52.141719  4016 net.cpp:408] accuracy <- ip1_relu1_0_split_0
I0428 20:31:52.141731  4016 net.cpp:408] accuracy <- label_mnist_1_split_0
I0428 20:31:52.141736  4016 net.cpp:382] accuracy -> accuracy
…
