…
I0428 19:51:57.281601 27399 net.cpp:296] The NetState phase (0) differed from the phase (1) specified by a rule in layer mnist
I0428 19:51:57.281631 27399 net.cpp:296] The NetState phase (0) differed from the phase (1) specified by a rule in layer accuracy
I0428 19:51:57.281724 27399 net.cpp:53] Initializing net from parameters: 
name: "LeNet"
state {
  phase: TRAIN
  level: 0
  stage: ""
}
layer {
  name: "mnist"
  type: "Data"
  top: "data"
  top: "label"
  include {
    phase: TRAIN
  }
  transform_param {
    scale: 0.00390625
  }
  data_param {
    source: "examples/mnist/mnist_train_lmdb"
    batch_size: 64
    backend: LMDB
  }
}
layer {
  name: "conv0"
  type: "Convolution"
  bottom: "data"
  top: "conv0"
  param {
    lr_mult: 1
  }
  param {
    lr_mult: 2
  }
  convolution_param {
    num_output: 5
    kernel_size: 5
    stride: 1
    weight_filler {
      type: "xavier"
    }
    bias_filler {
      type: "constant"
    }
  }
}
layer {
  name: "pool0"
  type: "Pooling"
  bottom: "conv0"
  top: "pool0"
  pooling_param {
    pool: MAX
    kernel_size: 2
    stride: 2
  }
}
layer {
  name: "conv1"
  type: "Convolution"
  bottom: "pool0"
  top: "conv1"
  param {
    lr_mult: 1
  }
  param {
    lr_mult: 2
  }
  convolution_param {
    num_output: 25
    kernel_size: 5
    stride: 1
    weight_filler {
      type: "xavier"
    }
    bias_filler {
      type: "constant"
    }
  }
}
layer {
  name: "pool1"
  type: "Pooling"
  bottom: "conv1"
  top: "pool1"
  pooling_param {
    pool: MAX
    kernel_size: 2
    stride: 2
  }
}
layer {
  name: "ip1"
  type: "InnerProduct"
  bottom: "pool1"
  top: "ip1"
  param {
    lr_mult: 1
  }
  param {
    lr_mult: 2
  }
  inner_product_param {
    num_output: 25
    weight_filler {
      type: "xavier"
    }
    bias_filler {
      type: "constant"
    }
  }
}
layer {
  name: "relu1"
  type: "ReLU"
  bottom: "ip1"
  top: "ip1"
}
layer {
  name: "ip2"
  type: "InnerProduct"
  bottom: "ip1"
  top: "ip2"
  param {
    lr_mult: 1
  }
  param {
    lr_mult: 2
  }
  inner_product_param {
    num_output: 25
    weight_filler {
      type: "xavier"
    }
    bias_filler {
      type: "constant"
    }
  }
}
layer {
  name: "relu2"
  type: "ReLU"
  bottom: "ip2"
  top: "ip2"
}
layer {
  name: "ip3"
  type: "InnerProduct"
  bottom: "ip2"
  top: "ip3"
  param {
    lr_mult: 1
  }
  param {
    lr_mult: 2
  }
  inner_product_param {
    num_output: 10
    weight_filler {
      type: "xavier"
    }
    bias_filler {
      type: "constant"
    }
  }
}
layer {
  name: "relu3"
  type: "ReLU"
  bottom: "ip3"
  top: "ip3"
}
layer {
  name: "loss"
  type: "SoftmaxWithLoss"
  bottom: "ip3"
  bottom: "label"
  top: "loss"
}
I0428 19:51:57.281785 27399 layer_factory.hpp:77] Creating layer mnist
I0428 19:51:57.281864 27399 db_lmdb.cpp:35] Opened lmdb examples/mnist/mnist_train_lmdb
I0428 19:51:57.281883 27399 net.cpp:86] Creating Layer mnist
I0428 19:51:57.281890 27399 net.cpp:382] mnist -> data
I0428 19:51:57.281908 27399 net.cpp:382] mnist -> label
I0428 19:51:57.282862 27399 data_layer.cpp:45] output data size: 64,1,28,28
I0428 19:51:57.285058 27399 net.cpp:124] Setting up mnist
I0428 19:51:57.285089 27399 net.cpp:131] Top shape: 64 1 28 28 (50176)
I0428 19:51:57.285094 27399 net.cpp:131] Top shape: 64 (64)
I0428 19:51:57.285096 27399 net.cpp:139] Memory required for data: 200960
I0428 19:51:57.285101 27399 layer_factory.hpp:77] Creating layer conv0
I0428 19:51:57.285126 27399 net.cpp:86] Creating Layer conv0
I0428 19:51:57.285158 27399 net.cpp:408] conv0 <- data
I0428 19:51:57.285169 27399 net.cpp:382] conv0 -> conv0
I0428 19:51:57.512497 27399 net.cpp:124] Setting up conv0
I0428 19:51:57.512522 27399 net.cpp:131] Top shape: 64 5 24 24 (184320)
I0428 19:51:57.512526 27399 net.cpp:139] Memory required for data: 938240
I0428 19:51:57.512540 27399 layer_factory.hpp:77] Creating layer pool0
I0428 19:51:57.512552 27399 net.cpp:86] Creating Layer pool0
I0428 19:51:57.512557 27399 net.cpp:408] pool0 <- conv0
I0428 19:51:57.512562 27399 net.cpp:382] pool0 -> pool0
I0428 19:51:57.512621 27399 net.cpp:124] Setting up pool0
I0428 19:51:57.512629 27399 net.cpp:131] Top shape: 64 5 12 12 (46080)
I0428 19:51:57.512632 27399 net.cpp:139] Memory required for data: 1122560
I0428 19:51:57.512651 27399 layer_factory.hpp:77] Creating layer conv1
I0428 19:51:57.512661 27399 net.cpp:86] Creating Layer conv1
I0428 19:51:57.512665 27399 net.cpp:408] conv1 <- pool0
I0428 19:51:57.512670 27399 net.cpp:382] conv1 -> conv1
I0428 19:51:57.515419 27399 net.cpp:124] Setting up conv1
I0428 19:51:57.515434 27399 net.cpp:131] Top shape: 64 25 8 8 (102400)
I0428 19:51:57.515437 27399 net.cpp:139] Memory required for data: 1532160
I0428 19:51:57.515445 27399 layer_factory.hpp:77] Creating layer pool1
I0428 19:51:57.515452 27399 net.cpp:86] Creating Layer pool1
I0428 19:51:57.515455 27399 net.cpp:408] pool1 <- conv1
I0428 19:51:57.515460 27399 net.cpp:382] pool1 -> pool1
I0428 19:51:57.515496 27399 net.cpp:124] Setting up pool1
I0428 19:51:57.515502 27399 net.cpp:131] Top shape: 64 25 4 4 (25600)
I0428 19:51:57.515506 27399 net.cpp:139] Memory required for data: 1634560
I0428 19:51:57.515508 27399 layer_factory.hpp:77] Creating layer ip1
I0428 19:51:57.515534 27399 net.cpp:86] Creating Layer ip1
I0428 19:51:57.515538 27399 net.cpp:408] ip1 <- pool1
I0428 19:51:57.515558 27399 net.cpp:382] ip1 -> ip1
I0428 19:51:57.516521 27399 net.cpp:124] Setting up ip1
I0428 19:51:57.516533 27399 net.cpp:131] Top shape: 64 25 (1600)
I0428 19:51:57.516552 27399 net.cpp:139] Memory required for data: 1640960
I0428 19:51:57.516561 27399 layer_factory.hpp:77] Creating layer relu1
I0428 19:51:57.516567 27399 net.cpp:86] Creating Layer relu1
I0428 19:51:57.516571 27399 net.cpp:408] relu1 <- ip1
I0428 19:51:57.516575 27399 net.cpp:369] relu1 -> ip1 (in-place)
I0428 19:51:57.516749 27399 net.cpp:124] Setting up relu1
I0428 19:51:57.516757 27399 net.cpp:131] Top shape: 64 25 (1600)
I0428 19:51:57.516760 27399 net.cpp:139] Memory required for data: 1647360
I0428 19:51:57.516763 27399 layer_factory.hpp:77] Creating layer ip2
I0428 19:51:57.516772 27399 net.cpp:86] Creating Layer ip2
I0428 19:51:57.516790 27399 net.cpp:408] ip2 <- ip1
I0428 19:51:57.516795 27399 net.cpp:382] ip2 -> ip2
I0428 19:51:57.516963 27399 net.cpp:124] Setting up ip2
I0428 19:51:57.516971 27399 net.cpp:131] Top shape: 64 25 (1600)
I0428 19:51:57.516974 27399 net.cpp:139] Memory required for data: 1653760
I0428 19:51:57.516980 27399 layer_factory.hpp:77] Creating layer relu2
I0428 19:51:57.516986 27399 net.cpp:86] Creating Layer relu2
I0428 19:51:57.516989 27399 net.cpp:408] relu2 <- ip2
I0428 19:51:57.516994 27399 net.cpp:369] relu2 -> ip2 (in-place)
I0428 19:51:57.517809 27399 net.cpp:124] Setting up relu2
I0428 19:51:57.517820 27399 net.cpp:131] Top shape: 64 25 (1600)
I0428 19:51:57.517839 27399 net.cpp:139] Memory required for data: 1660160
I0428 19:51:57.517843 27399 layer_factory.hpp:77] Creating layer ip3
I0428 19:51:57.517849 27399 net.cpp:86] Creating Layer ip3
I0428 19:51:57.517853 27399 net.cpp:408] ip3 <- ip2
I0428 19:51:57.517858 27399 net.cpp:382] ip3 -> ip3
I0428 19:51:57.517967 27399 net.cpp:124] Setting up ip3
I0428 19:51:57.517974 27399 net.cpp:131] Top shape: 64 10 (640)
I0428 19:51:57.517977 27399 net.cpp:139] Memory required for data: 1662720
I0428 19:51:57.517984 27399 layer_factory.hpp:77] Creating layer relu3
I0428 19:51:57.517990 27399 net.cpp:86] Creating Layer relu3
I0428 19:51:57.517993 27399 net.cpp:408] relu3 <- ip3
I0428 19:51:57.517997 27399 net.cpp:369] relu3 -> ip3 (in-place)
I0428 19:51:57.518149 27399 net.cpp:124] Setting up relu3
I0428 19:51:57.518157 27399 net.cpp:131] Top shape: 64 10 (640)
I0428 19:51:57.518160 27399 net.cpp:139] Memory required for data: 1665280
I0428 19:51:57.518163 27399 layer_factory.hpp:77] Creating layer loss
I0428 19:51:57.518169 27399 net.cpp:86] Creating Layer loss
I0428 19:51:57.518172 27399 net.cpp:408] loss <- ip3
I0428 19:51:57.518177 27399 net.cpp:408] loss <- label
I0428 19:51:57.518182 27399 net.cpp:382] loss -> loss
I0428 19:51:57.518198 27399 layer_factory.hpp:77] Creating layer loss
…
I0428 19:51:57.518863 27399 solver.cpp:173] Creating test net (#0) specified by net file: ECE595/mnist/train_test/var_everything2/lenet_train_test648.prototxt
I0428 19:51:57.518919 27399 net.cpp:296] The NetState phase (1) differed from the phase (0) specified by a rule in layer mnist
I0428 19:51:57.519006 27399 net.cpp:53] Initializing net from parameters: 
name: "LeNet"
state {
  phase: TEST
}
layer {
  name: "mnist"
  type: "Data"
  top: "data"
  top: "label"
  include {
    phase: TEST
  }
  transform_param {
    scale: 0.00390625
  }
  data_param {
    source: "examples/mnist/mnist_test_lmdb"
    batch_size: 100
    backend: LMDB
  }
}
layer {
  name: "conv0"
  type: "Convolution"
  bottom: "data"
  top: "conv0"
  param {
    lr_mult: 1
  }
  param {
    lr_mult: 2
  }
  convolution_param {
    num_output: 5
    kernel_size: 5
    stride: 1
    weight_filler {
      type: "xavier"
    }
    bias_filler {
      type: "constant"
    }
  }
}
layer {
  name: "pool0"
  type: "Pooling"
  bottom: "conv0"
  top: "pool0"
  pooling_param {
    pool: MAX
    kernel_size: 2
    stride: 2
  }
}
layer {
  name: "conv1"
  type: "Convolution"
  bottom: "pool0"
  top: "conv1"
  param {
    lr_mult: 1
  }
  param {
    lr_mult: 2
  }
  convolution_param {
    num_output: 25
    kernel_size: 5
    stride: 1
    weight_filler {
      type: "xavier"
    }
    bias_filler {
      type: "constant"
    }
  }
}
layer {
  name: "pool1"
  type: "Pooling"
  bottom: "conv1"
  top: "pool1"
  pooling_param {
    pool: MAX
    kernel_size: 2
    stride: 2
  }
}
layer {
  name: "ip1"
  type: "InnerProduct"
  bottom: "pool1"
  top: "ip1"
  param {
    lr_mult: 1
  }
  param {
    lr_mult: 2
  }
  inner_product_param {
    num_output: 25
    weight_filler {
      type: "xavier"
    }
    bias_filler {
      type: "constant"
    }
  }
}
layer {
  name: "relu1"
  type: "ReLU"
  bottom: "ip1"
  top: "ip1"
}
layer {
  name: "ip2"
  type: "InnerProduct"
  bottom: "ip1"
  top: "ip2"
  param {
    lr_mult: 1
  }
  param {
    lr_mult: 2
  }
  inner_product_param {
    num_output: 25
    weight_filler {
      type: "xavier"
    }
    bias_filler {
      type: "constant"
    }
  }
}
layer {
  name: "relu2"
  type: "ReLU"
  bottom: "ip2"
  top: "ip2"
}
layer {
  name: "ip3"
  type: "InnerProduct"
  bottom: "ip2"
  top: "ip3"
  param {
    lr_mult: 1
  }
  param {
    lr_mult: 2
  }
  inner_product_param {
    num_output: 10
    weight_filler {
      type: "xavier"
    }
    bias_filler {
      type: "constant"
    }
  }
}
layer {
  name: "relu3"
  type: "ReLU"
  bottom: "ip3"
  top: "ip3"
}
layer {
  name: "accuracy"
  type: "Accuracy"
  bottom: "ip3"
  bottom: "label"
  top: "accuracy"
  include {
    phase: TEST
  }
}
layer {
  name: "loss"
  type: "SoftmaxWithLoss"
  bottom: "ip3"
  bottom: "label"
  top: "loss"
}
I0428 19:51:57.519081 27399 layer_factory.hpp:77] Creating layer mnist
I0428 19:51:57.519124 27399 db_lmdb.cpp:35] Opened lmdb examples/mnist/mnist_test_lmdb
I0428 19:51:57.519153 27399 net.cpp:86] Creating Layer mnist
I0428 19:51:57.519158 27399 net.cpp:382] mnist -> data
I0428 19:51:57.519165 27399 net.cpp:382] mnist -> label
I0428 19:51:57.519243 27399 data_layer.cpp:45] output data size: 100,1,28,28
I0428 19:51:57.521425 27399 net.cpp:124] Setting up mnist
I0428 19:51:57.521438 27399 net.cpp:131] Top shape: 100 1 28 28 (78400)
I0428 19:51:57.521445 27399 net.cpp:131] Top shape: 100 (100)
I0428 19:51:57.521447 27399 net.cpp:139] Memory required for data: 314000
I0428 19:51:57.521450 27399 layer_factory.hpp:77] Creating layer label_mnist_1_split
I0428 19:51:57.521484 27399 net.cpp:86] Creating Layer label_mnist_1_split
I0428 19:51:57.521489 27399 net.cpp:408] label_mnist_1_split <- label
I0428 19:51:57.521509 27399 net.cpp:382] label_mnist_1_split -> label_mnist_1_split_0
I0428 19:51:57.521517 27399 net.cpp:382] label_mnist_1_split -> label_mnist_1_split_1
I0428 19:51:57.521555 27399 net.cpp:124] Setting up label_mnist_1_split
I0428 19:51:57.521562 27399 net.cpp:131] Top shape: 100 (100)
I0428 19:51:57.521582 27399 net.cpp:131] Top shape: 100 (100)
I0428 19:51:57.521584 27399 net.cpp:139] Memory required for data: 314800
I0428 19:51:57.521587 27399 layer_factory.hpp:77] Creating layer conv0
I0428 19:51:57.521595 27399 net.cpp:86] Creating Layer conv0
I0428 19:51:57.521598 27399 net.cpp:408] conv0 <- data
I0428 19:51:57.521603 27399 net.cpp:382] conv0 -> conv0
I0428 19:51:57.523187 27399 net.cpp:124] Setting up conv0
I0428 19:51:57.523216 27399 net.cpp:131] Top shape: 100 5 24 24 (288000)
I0428 19:51:57.523219 27399 net.cpp:139] Memory required for data: 1466800
I0428 19:51:57.523243 27399 layer_factory.hpp:77] Creating layer pool0
I0428 19:51:57.523249 27399 net.cpp:86] Creating Layer pool0
I0428 19:51:57.523252 27399 net.cpp:408] pool0 <- conv0
I0428 19:51:57.523257 27399 net.cpp:382] pool0 -> pool0
I0428 19:51:57.523289 27399 net.cpp:124] Setting up pool0
I0428 19:51:57.523294 27399 net.cpp:131] Top shape: 100 5 12 12 (72000)
I0428 19:51:57.523298 27399 net.cpp:139] Memory required for data: 1754800
I0428 19:51:57.523300 27399 layer_factory.hpp:77] Creating layer conv1
I0428 19:51:57.523308 27399 net.cpp:86] Creating Layer conv1
I0428 19:51:57.523310 27399 net.cpp:408] conv1 <- pool0
I0428 19:51:57.523315 27399 net.cpp:382] conv1 -> conv1
I0428 19:51:57.525455 27399 net.cpp:124] Setting up conv1
I0428 19:51:57.525483 27399 net.cpp:131] Top shape: 100 25 8 8 (160000)
I0428 19:51:57.525487 27399 net.cpp:139] Memory required for data: 2394800
I0428 19:51:57.525496 27399 layer_factory.hpp:77] Creating layer pool1
I0428 19:51:57.525516 27399 net.cpp:86] Creating Layer pool1
I0428 19:51:57.525519 27399 net.cpp:408] pool1 <- conv1
I0428 19:51:57.525524 27399 net.cpp:382] pool1 -> pool1
I0428 19:51:57.525594 27399 net.cpp:124] Setting up pool1
I0428 19:51:57.525601 27399 net.cpp:131] Top shape: 100 25 4 4 (40000)
I0428 19:51:57.525604 27399 net.cpp:139] Memory required for data: 2554800
I0428 19:51:57.525607 27399 layer_factory.hpp:77] Creating layer ip1
I0428 19:51:57.525612 27399 net.cpp:86] Creating Layer ip1
I0428 19:51:57.525615 27399 net.cpp:408] ip1 <- pool1
I0428 19:51:57.525619 27399 net.cpp:382] ip1 -> ip1
I0428 19:51:57.525786 27399 net.cpp:124] Setting up ip1
I0428 19:51:57.525795 27399 net.cpp:131] Top shape: 100 25 (2500)
I0428 19:51:57.525809 27399 net.cpp:139] Memory required for data: 2564800
I0428 19:51:57.525815 27399 layer_factory.hpp:77] Creating layer relu1
I0428 19:51:57.525820 27399 net.cpp:86] Creating Layer relu1
I0428 19:51:57.525823 27399 net.cpp:408] relu1 <- ip1
I0428 19:51:57.525828 27399 net.cpp:369] relu1 -> ip1 (in-place)
I0428 19:51:57.525980 27399 net.cpp:124] Setting up relu1
I0428 19:51:57.525988 27399 net.cpp:131] Top shape: 100 25 (2500)
I0428 19:51:57.525991 27399 net.cpp:139] Memory required for data: 2574800
I0428 19:51:57.525995 27399 layer_factory.hpp:77] Creating layer ip2
I0428 19:51:57.526007 27399 net.cpp:86] Creating Layer ip2
I0428 19:51:57.526010 27399 net.cpp:408] ip2 <- ip1
I0428 19:51:57.526015 27399 net.cpp:382] ip2 -> ip2
I0428 19:51:57.526129 27399 net.cpp:124] Setting up ip2
I0428 19:51:57.526136 27399 net.cpp:131] Top shape: 100 25 (2500)
I0428 19:51:57.526140 27399 net.cpp:139] Memory required for data: 2584800
I0428 19:51:57.526145 27399 layer_factory.hpp:77] Creating layer relu2
I0428 19:51:57.526150 27399 net.cpp:86] Creating Layer relu2
I0428 19:51:57.526154 27399 net.cpp:408] relu2 <- ip2
I0428 19:51:57.526157 27399 net.cpp:369] relu2 -> ip2 (in-place)
I0428 19:51:57.526319 27399 net.cpp:124] Setting up relu2
I0428 19:51:57.526327 27399 net.cpp:131] Top shape: 100 25 (2500)
I0428 19:51:57.526331 27399 net.cpp:139] Memory required for data: 2594800
I0428 19:51:57.526335 27399 layer_factory.hpp:77] Creating layer ip3
I0428 19:51:57.526340 27399 net.cpp:86] Creating Layer ip3
I0428 19:51:57.526342 27399 net.cpp:408] ip3 <- ip2
I0428 19:51:57.526348 27399 net.cpp:382] ip3 -> ip3
I0428 19:51:57.526456 27399 net.cpp:124] Setting up ip3
I0428 19:51:57.526463 27399 net.cpp:131] Top shape: 100 10 (1000)
I0428 19:51:57.526466 27399 net.cpp:139] Memory required for data: 2598800
I0428 19:51:57.526474 27399 layer_factory.hpp:77] Creating layer relu3
I0428 19:51:57.526479 27399 net.cpp:86] Creating Layer relu3
I0428 19:51:57.526481 27399 net.cpp:408] relu3 <- ip3
I0428 19:51:57.526485 27399 net.cpp:369] relu3 -> ip3 (in-place)
I0428 19:51:57.527343 27399 net.cpp:124] Setting up relu3
I0428 19:51:57.527354 27399 net.cpp:131] Top shape: 100 10 (1000)
I0428 19:51:57.527372 27399 net.cpp:139] Memory required for data: 2602800
I0428 19:51:57.527375 27399 layer_factory.hpp:77] Creating layer ip3_relu3_0_split
I0428 19:51:57.527380 27399 net.cpp:86] Creating Layer ip3_relu3_0_split
I0428 19:51:57.527384 27399 net.cpp:408] ip3_relu3_0_split <- ip3
I0428 19:51:57.527390 27399 net.cpp:382] ip3_relu3_0_split -> ip3_relu3_0_split_0
I0428 19:51:57.527396 27399 net.cpp:382] ip3_relu3_0_split -> ip3_relu3_0_split_1
I0428 19:51:57.527460 27399 net.cpp:124] Setting up ip3_relu3_0_split
I0428 19:51:57.527473 27399 net.cpp:131] Top shape: 100 10 (1000)
I0428 19:51:57.527477 27399 net.cpp:131] Top shape: 100 10 (1000)
I0428 19:51:57.527480 27399 net.cpp:139] Memory required for data: 2610800
I0428 19:51:57.527483 27399 layer_factory.hpp:77] Creating layer accuracy
I0428 19:51:57.527488 27399 net.cpp:86] Creating Layer accuracy
I0428 19:51:57.527493 27399 net.cpp:408] accuracy <- ip3_relu3_0_split_0
I0428 19:51:57.527495 27399 net.cpp:408] accuracy <- label_mnist_1_split_0
I0428 19:51:57.527500 27399 net.cpp:382] accuracy -> accuracy
…
