…
I0428 20:23:33.803016  2256 net.cpp:296] The NetState phase (0) differed from the phase (1) specified by a rule in layer mnist
I0428 20:23:33.803045  2256 net.cpp:296] The NetState phase (0) differed from the phase (1) specified by a rule in layer accuracy
I0428 20:23:33.803122  2256 net.cpp:53] Initializing net from parameters: 
name: "LeNet"
state {
  phase: TRAIN
  level: 0
  stage: ""
}
layer {
  name: "mnist"
  type: "Data"
  top: "data"
  top: "label"
  include {
    phase: TRAIN
  }
  transform_param {
    scale: 0.00390625
  }
  data_param {
    source: "examples/mnist/mnist_train_lmdb"
    batch_size: 64
    backend: LMDB
  }
}
layer {
  name: "conv0"
  type: "Convolution"
  bottom: "data"
  top: "conv0"
  param {
    lr_mult: 1
  }
  param {
    lr_mult: 2
  }
  convolution_param {
    num_output: 50
    kernel_size: 5
    stride: 1
    weight_filler {
      type: "xavier"
    }
    bias_filler {
      type: "constant"
    }
  }
}
layer {
  name: "pool0"
  type: "Pooling"
  bottom: "conv0"
  top: "pool0"
  pooling_param {
    pool: MAX
    kernel_size: 2
    stride: 2
  }
}
layer {
  name: "conv1"
  type: "Convolution"
  bottom: "pool0"
  top: "conv1"
  param {
    lr_mult: 1
  }
  param {
    lr_mult: 2
  }
  convolution_param {
    num_output: 100
    kernel_size: 5
    stride: 1
    weight_filler {
      type: "xavier"
    }
    bias_filler {
      type: "constant"
    }
  }
}
layer {
  name: "pool1"
  type: "Pooling"
  bottom: "conv1"
  top: "pool1"
  pooling_param {
    pool: MAX
    kernel_size: 2
    stride: 2
  }
}
layer {
  name: "ip1"
  type: "InnerProduct"
  bottom: "pool1"
  top: "ip1"
  param {
    lr_mult: 1
  }
  param {
    lr_mult: 2
  }
  inner_product_param {
    num_output: 10
    weight_filler {
      type: "xavier"
    }
    bias_filler {
      type: "constant"
    }
  }
}
layer {
  name: "relu1"
  type: "ReLU"
  bottom: "ip1"
  top: "ip1"
}
layer {
  name: "ip2"
  type: "InnerProduct"
  bottom: "ip1"
  top: "ip2"
  param {
    lr_mult: 1
  }
  param {
    lr_mult: 2
  }
  inner_product_param {
    num_output: 50
    weight_filler {
      type: "xavier"
    }
    bias_filler {
      type: "constant"
    }
  }
}
layer {
  name: "relu2"
  type: "ReLU"
  bottom: "ip2"
  top: "ip2"
}
layer {
  name: "ip3"
  type: "InnerProduct"
  bottom: "ip2"
  top: "ip3"
  param {
    lr_mult: 1
  }
  param {
    lr_mult: 2
  }
  inner_product_param {
    num_output: 10
    weight_filler {
      type: "xavier"
    }
    bias_filler {
      type: "constant"
    }
  }
}
layer {
  name: "relu3"
  type: "ReLU"
  bottom: "ip3"
  top: "ip3"
}
layer {
  name: "loss"
  type: "SoftmaxWithLoss"
  bottom: "ip3"
  bottom: "label"
  top: "loss"
}
I0428 20:23:33.803182  2256 layer_factory.hpp:77] Creating layer mnist
I0428 20:23:33.803278  2256 db_lmdb.cpp:35] Opened lmdb examples/mnist/mnist_train_lmdb
I0428 20:23:33.803298  2256 net.cpp:86] Creating Layer mnist
I0428 20:23:33.803304  2256 net.cpp:382] mnist -> data
I0428 20:23:33.803323  2256 net.cpp:382] mnist -> label
I0428 20:23:33.804276  2256 data_layer.cpp:45] output data size: 64,1,28,28
I0428 20:23:33.806533  2256 net.cpp:124] Setting up mnist
I0428 20:23:33.806548  2256 net.cpp:131] Top shape: 64 1 28 28 (50176)
I0428 20:23:33.806555  2256 net.cpp:131] Top shape: 64 (64)
I0428 20:23:33.806557  2256 net.cpp:139] Memory required for data: 200960
I0428 20:23:33.806563  2256 layer_factory.hpp:77] Creating layer conv0
I0428 20:23:33.806576  2256 net.cpp:86] Creating Layer conv0
I0428 20:23:33.806593  2256 net.cpp:408] conv0 <- data
I0428 20:23:33.806603  2256 net.cpp:382] conv0 -> conv0
I0428 20:23:34.046031  2256 net.cpp:124] Setting up conv0
I0428 20:23:34.046072  2256 net.cpp:131] Top shape: 64 50 24 24 (1843200)
I0428 20:23:34.046077  2256 net.cpp:139] Memory required for data: 7573760
I0428 20:23:34.046092  2256 layer_factory.hpp:77] Creating layer pool0
I0428 20:23:34.046121  2256 net.cpp:86] Creating Layer pool0
I0428 20:23:34.046126  2256 net.cpp:408] pool0 <- conv0
I0428 20:23:34.046131  2256 net.cpp:382] pool0 -> pool0
I0428 20:23:34.046180  2256 net.cpp:124] Setting up pool0
I0428 20:23:34.046186  2256 net.cpp:131] Top shape: 64 50 12 12 (460800)
I0428 20:23:34.046190  2256 net.cpp:139] Memory required for data: 9416960
I0428 20:23:34.046192  2256 layer_factory.hpp:77] Creating layer conv1
I0428 20:23:34.046218  2256 net.cpp:86] Creating Layer conv1
I0428 20:23:34.046223  2256 net.cpp:408] conv1 <- pool0
I0428 20:23:34.046228  2256 net.cpp:382] conv1 -> conv1
I0428 20:23:34.049805  2256 net.cpp:124] Setting up conv1
I0428 20:23:34.049834  2256 net.cpp:131] Top shape: 64 100 8 8 (409600)
I0428 20:23:34.049839  2256 net.cpp:139] Memory required for data: 11055360
I0428 20:23:34.049846  2256 layer_factory.hpp:77] Creating layer pool1
I0428 20:23:34.049855  2256 net.cpp:86] Creating Layer pool1
I0428 20:23:34.049859  2256 net.cpp:408] pool1 <- conv1
I0428 20:23:34.049865  2256 net.cpp:382] pool1 -> pool1
I0428 20:23:34.049916  2256 net.cpp:124] Setting up pool1
I0428 20:23:34.049921  2256 net.cpp:131] Top shape: 64 100 4 4 (102400)
I0428 20:23:34.049923  2256 net.cpp:139] Memory required for data: 11464960
I0428 20:23:34.049926  2256 layer_factory.hpp:77] Creating layer ip1
I0428 20:23:34.049933  2256 net.cpp:86] Creating Layer ip1
I0428 20:23:34.049944  2256 net.cpp:408] ip1 <- pool1
I0428 20:23:34.049948  2256 net.cpp:382] ip1 -> ip1
I0428 20:23:34.051038  2256 net.cpp:124] Setting up ip1
I0428 20:23:34.051049  2256 net.cpp:131] Top shape: 64 10 (640)
I0428 20:23:34.051054  2256 net.cpp:139] Memory required for data: 11467520
I0428 20:23:34.051075  2256 layer_factory.hpp:77] Creating layer relu1
I0428 20:23:34.051084  2256 net.cpp:86] Creating Layer relu1
I0428 20:23:34.051086  2256 net.cpp:408] relu1 <- ip1
I0428 20:23:34.051091  2256 net.cpp:369] relu1 -> ip1 (in-place)
I0428 20:23:34.051291  2256 net.cpp:124] Setting up relu1
I0428 20:23:34.051301  2256 net.cpp:131] Top shape: 64 10 (640)
I0428 20:23:34.051303  2256 net.cpp:139] Memory required for data: 11470080
I0428 20:23:34.051307  2256 layer_factory.hpp:77] Creating layer ip2
I0428 20:23:34.051316  2256 net.cpp:86] Creating Layer ip2
I0428 20:23:34.051318  2256 net.cpp:408] ip2 <- ip1
I0428 20:23:34.051324  2256 net.cpp:382] ip2 -> ip2
I0428 20:23:34.051448  2256 net.cpp:124] Setting up ip2
I0428 20:23:34.051457  2256 net.cpp:131] Top shape: 64 50 (3200)
I0428 20:23:34.051460  2256 net.cpp:139] Memory required for data: 11482880
I0428 20:23:34.051466  2256 layer_factory.hpp:77] Creating layer relu2
I0428 20:23:34.051472  2256 net.cpp:86] Creating Layer relu2
I0428 20:23:34.051476  2256 net.cpp:408] relu2 <- ip2
I0428 20:23:34.051481  2256 net.cpp:369] relu2 -> ip2 (in-place)
I0428 20:23:34.052281  2256 net.cpp:124] Setting up relu2
I0428 20:23:34.052294  2256 net.cpp:131] Top shape: 64 50 (3200)
I0428 20:23:34.052297  2256 net.cpp:139] Memory required for data: 11495680
I0428 20:23:34.052300  2256 layer_factory.hpp:77] Creating layer ip3
I0428 20:23:34.052309  2256 net.cpp:86] Creating Layer ip3
I0428 20:23:34.052312  2256 net.cpp:408] ip3 <- ip2
I0428 20:23:34.052320  2256 net.cpp:382] ip3 -> ip3
I0428 20:23:34.052424  2256 net.cpp:124] Setting up ip3
I0428 20:23:34.052433  2256 net.cpp:131] Top shape: 64 10 (640)
I0428 20:23:34.052434  2256 net.cpp:139] Memory required for data: 11498240
I0428 20:23:34.052443  2256 layer_factory.hpp:77] Creating layer relu3
I0428 20:23:34.052448  2256 net.cpp:86] Creating Layer relu3
I0428 20:23:34.052450  2256 net.cpp:408] relu3 <- ip3
I0428 20:23:34.052459  2256 net.cpp:369] relu3 -> ip3 (in-place)
I0428 20:23:34.052670  2256 net.cpp:124] Setting up relu3
I0428 20:23:34.052680  2256 net.cpp:131] Top shape: 64 10 (640)
I0428 20:23:34.052683  2256 net.cpp:139] Memory required for data: 11500800
I0428 20:23:34.052686  2256 layer_factory.hpp:77] Creating layer loss
I0428 20:23:34.052692  2256 net.cpp:86] Creating Layer loss
I0428 20:23:34.052696  2256 net.cpp:408] loss <- ip3
I0428 20:23:34.052700  2256 net.cpp:408] loss <- label
I0428 20:23:34.052706  2256 net.cpp:382] loss -> loss
I0428 20:23:34.052721  2256 layer_factory.hpp:77] Creating layer loss
…
I0428 20:23:34.053495  2256 solver.cpp:173] Creating test net (#0) specified by net file: ECE595/mnist/train_test/var_everything2/lenet_train_test1423.prototxt
I0428 20:23:34.053529  2256 net.cpp:296] The NetState phase (1) differed from the phase (0) specified by a rule in layer mnist
I0428 20:23:34.053645  2256 net.cpp:53] Initializing net from parameters: 
name: "LeNet"
state {
  phase: TEST
}
layer {
  name: "mnist"
  type: "Data"
  top: "data"
  top: "label"
  include {
    phase: TEST
  }
  transform_param {
    scale: 0.00390625
  }
  data_param {
    source: "examples/mnist/mnist_test_lmdb"
    batch_size: 100
    backend: LMDB
  }
}
layer {
  name: "conv0"
  type: "Convolution"
  bottom: "data"
  top: "conv0"
  param {
    lr_mult: 1
  }
  param {
    lr_mult: 2
  }
  convolution_param {
    num_output: 50
    kernel_size: 5
    stride: 1
    weight_filler {
      type: "xavier"
    }
    bias_filler {
      type: "constant"
    }
  }
}
layer {
  name: "pool0"
  type: "Pooling"
  bottom: "conv0"
  top: "pool0"
  pooling_param {
    pool: MAX
    kernel_size: 2
    stride: 2
  }
}
layer {
  name: "conv1"
  type: "Convolution"
  bottom: "pool0"
  top: "conv1"
  param {
    lr_mult: 1
  }
  param {
    lr_mult: 2
  }
  convolution_param {
    num_output: 100
    kernel_size: 5
    stride: 1
    weight_filler {
      type: "xavier"
    }
    bias_filler {
      type: "constant"
    }
  }
}
layer {
  name: "pool1"
  type: "Pooling"
  bottom: "conv1"
  top: "pool1"
  pooling_param {
    pool: MAX
    kernel_size: 2
    stride: 2
  }
}
layer {
  name: "ip1"
  type: "InnerProduct"
  bottom: "pool1"
  top: "ip1"
  param {
    lr_mult: 1
  }
  param {
    lr_mult: 2
  }
  inner_product_param {
    num_output: 10
    weight_filler {
      type: "xavier"
    }
    bias_filler {
      type: "constant"
    }
  }
}
layer {
  name: "relu1"
  type: "ReLU"
  bottom: "ip1"
  top: "ip1"
}
layer {
  name: "ip2"
  type: "InnerProduct"
  bottom: "ip1"
  top: "ip2"
  param {
    lr_mult: 1
  }
  param {
    lr_mult: 2
  }
  inner_product_param {
    num_output: 50
    weight_filler {
      type: "xavier"
    }
    bias_filler {
      type: "constant"
    }
  }
}
layer {
  name: "relu2"
  type: "ReLU"
  bottom: "ip2"
  top: "ip2"
}
layer {
  name: "ip3"
  type: "InnerProduct"
  bottom: "ip2"
  top: "ip3"
  param {
    lr_mult: 1
  }
  param {
    lr_mult: 2
  }
  inner_product_param {
    num_output: 10
    weight_filler {
      type: "xavier"
    }
    bias_filler {
      type: "constant"
    }
  }
}
layer {
  name: "relu3"
  type: "ReLU"
  bottom: "ip3"
  top: "ip3"
}
layer {
  name: "accuracy"
  type: "Accuracy"
  bottom: "ip3"
  bottom: "label"
  top: "accuracy"
  include {
    phase: TEST
  }
}
layer {
  name: "loss"
  type: "SoftmaxWithLoss"
  bottom: "ip3"
  bottom: "label"
  top: "loss"
}
I0428 20:23:34.053735  2256 layer_factory.hpp:77] Creating layer mnist
I0428 20:23:34.053781  2256 db_lmdb.cpp:35] Opened lmdb examples/mnist/mnist_test_lmdb
I0428 20:23:34.053792  2256 net.cpp:86] Creating Layer mnist
I0428 20:23:34.053797  2256 net.cpp:382] mnist -> data
I0428 20:23:34.053805  2256 net.cpp:382] mnist -> label
I0428 20:23:34.053926  2256 data_layer.cpp:45] output data size: 100,1,28,28
I0428 20:23:34.055037  2256 net.cpp:124] Setting up mnist
I0428 20:23:34.055063  2256 net.cpp:131] Top shape: 100 1 28 28 (78400)
I0428 20:23:34.055068  2256 net.cpp:131] Top shape: 100 (100)
I0428 20:23:34.055070  2256 net.cpp:139] Memory required for data: 314000
I0428 20:23:34.055073  2256 layer_factory.hpp:77] Creating layer label_mnist_1_split
I0428 20:23:34.055105  2256 net.cpp:86] Creating Layer label_mnist_1_split
I0428 20:23:34.055109  2256 net.cpp:408] label_mnist_1_split <- label
I0428 20:23:34.055115  2256 net.cpp:382] label_mnist_1_split -> label_mnist_1_split_0
I0428 20:23:34.055124  2256 net.cpp:382] label_mnist_1_split -> label_mnist_1_split_1
I0428 20:23:34.055171  2256 net.cpp:124] Setting up label_mnist_1_split
I0428 20:23:34.055177  2256 net.cpp:131] Top shape: 100 (100)
I0428 20:23:34.055181  2256 net.cpp:131] Top shape: 100 (100)
I0428 20:23:34.055184  2256 net.cpp:139] Memory required for data: 314800
I0428 20:23:34.055187  2256 layer_factory.hpp:77] Creating layer conv0
I0428 20:23:34.055197  2256 net.cpp:86] Creating Layer conv0
I0428 20:23:34.055200  2256 net.cpp:408] conv0 <- data
I0428 20:23:34.055207  2256 net.cpp:382] conv0 -> conv0
I0428 20:23:34.057391  2256 net.cpp:124] Setting up conv0
I0428 20:23:34.057415  2256 net.cpp:131] Top shape: 100 50 24 24 (2880000)
I0428 20:23:34.057422  2256 net.cpp:139] Memory required for data: 11834800
I0428 20:23:34.057449  2256 layer_factory.hpp:77] Creating layer pool0
I0428 20:23:34.057459  2256 net.cpp:86] Creating Layer pool0
I0428 20:23:34.057469  2256 net.cpp:408] pool0 <- conv0
I0428 20:23:34.057478  2256 net.cpp:382] pool0 -> pool0
I0428 20:23:34.057541  2256 net.cpp:124] Setting up pool0
I0428 20:23:34.057555  2256 net.cpp:131] Top shape: 100 50 12 12 (720000)
I0428 20:23:34.057561  2256 net.cpp:139] Memory required for data: 14714800
I0428 20:23:34.057567  2256 layer_factory.hpp:77] Creating layer conv1
I0428 20:23:34.057585  2256 net.cpp:86] Creating Layer conv1
I0428 20:23:34.057596  2256 net.cpp:408] conv1 <- pool0
I0428 20:23:34.057607  2256 net.cpp:382] conv1 -> conv1
I0428 20:23:34.062067  2256 net.cpp:124] Setting up conv1
I0428 20:23:34.062086  2256 net.cpp:131] Top shape: 100 100 8 8 (640000)
I0428 20:23:34.062093  2256 net.cpp:139] Memory required for data: 17274800
I0428 20:23:34.062121  2256 layer_factory.hpp:77] Creating layer pool1
I0428 20:23:34.062134  2256 net.cpp:86] Creating Layer pool1
I0428 20:23:34.062142  2256 net.cpp:408] pool1 <- conv1
I0428 20:23:34.062150  2256 net.cpp:382] pool1 -> pool1
I0428 20:23:34.062208  2256 net.cpp:124] Setting up pool1
I0428 20:23:34.062218  2256 net.cpp:131] Top shape: 100 100 4 4 (160000)
I0428 20:23:34.062225  2256 net.cpp:139] Memory required for data: 17914800
I0428 20:23:34.062230  2256 layer_factory.hpp:77] Creating layer ip1
I0428 20:23:34.062239  2256 net.cpp:86] Creating Layer ip1
I0428 20:23:34.062247  2256 net.cpp:408] ip1 <- pool1
I0428 20:23:34.062255  2256 net.cpp:382] ip1 -> ip1
I0428 20:23:34.062563  2256 net.cpp:124] Setting up ip1
I0428 20:23:34.062594  2256 net.cpp:131] Top shape: 100 10 (1000)
I0428 20:23:34.062602  2256 net.cpp:139] Memory required for data: 17918800
I0428 20:23:34.062615  2256 layer_factory.hpp:77] Creating layer relu1
I0428 20:23:34.062625  2256 net.cpp:86] Creating Layer relu1
I0428 20:23:34.062633  2256 net.cpp:408] relu1 <- ip1
I0428 20:23:34.062640  2256 net.cpp:369] relu1 -> ip1 (in-place)
I0428 20:23:34.062891  2256 net.cpp:124] Setting up relu1
I0428 20:23:34.062903  2256 net.cpp:131] Top shape: 100 10 (1000)
I0428 20:23:34.062911  2256 net.cpp:139] Memory required for data: 17922800
I0428 20:23:34.062916  2256 layer_factory.hpp:77] Creating layer ip2
I0428 20:23:34.062927  2256 net.cpp:86] Creating Layer ip2
I0428 20:23:34.062933  2256 net.cpp:408] ip2 <- ip1
I0428 20:23:34.062943  2256 net.cpp:382] ip2 -> ip2
I0428 20:23:34.063123  2256 net.cpp:124] Setting up ip2
I0428 20:23:34.063134  2256 net.cpp:131] Top shape: 100 50 (5000)
I0428 20:23:34.063141  2256 net.cpp:139] Memory required for data: 17942800
I0428 20:23:34.063151  2256 layer_factory.hpp:77] Creating layer relu2
I0428 20:23:34.063160  2256 net.cpp:86] Creating Layer relu2
I0428 20:23:34.063166  2256 net.cpp:408] relu2 <- ip2
I0428 20:23:34.063176  2256 net.cpp:369] relu2 -> ip2 (in-place)
I0428 20:23:34.063444  2256 net.cpp:124] Setting up relu2
I0428 20:23:34.063475  2256 net.cpp:131] Top shape: 100 50 (5000)
I0428 20:23:34.063482  2256 net.cpp:139] Memory required for data: 17962800
I0428 20:23:34.063488  2256 layer_factory.hpp:77] Creating layer ip3
I0428 20:23:34.063500  2256 net.cpp:86] Creating Layer ip3
I0428 20:23:34.063508  2256 net.cpp:408] ip3 <- ip2
I0428 20:23:34.063515  2256 net.cpp:382] ip3 -> ip3
I0428 20:23:34.063679  2256 net.cpp:124] Setting up ip3
I0428 20:23:34.063690  2256 net.cpp:131] Top shape: 100 10 (1000)
I0428 20:23:34.063696  2256 net.cpp:139] Memory required for data: 17966800
I0428 20:23:34.063709  2256 layer_factory.hpp:77] Creating layer relu3
I0428 20:23:34.063720  2256 net.cpp:86] Creating Layer relu3
I0428 20:23:34.063729  2256 net.cpp:408] relu3 <- ip3
I0428 20:23:34.063735  2256 net.cpp:369] relu3 -> ip3 (in-place)
I0428 20:23:34.064826  2256 net.cpp:124] Setting up relu3
I0428 20:23:34.064848  2256 net.cpp:131] Top shape: 100 10 (1000)
I0428 20:23:34.064857  2256 net.cpp:139] Memory required for data: 17970800
I0428 20:23:34.064864  2256 layer_factory.hpp:77] Creating layer ip3_relu3_0_split
I0428 20:23:34.064875  2256 net.cpp:86] Creating Layer ip3_relu3_0_split
I0428 20:23:34.064883  2256 net.cpp:408] ip3_relu3_0_split <- ip3
I0428 20:23:34.064893  2256 net.cpp:382] ip3_relu3_0_split -> ip3_relu3_0_split_0
I0428 20:23:34.064904  2256 net.cpp:382] ip3_relu3_0_split -> ip3_relu3_0_split_1
I0428 20:23:34.064972  2256 net.cpp:124] Setting up ip3_relu3_0_split
I0428 20:23:34.064985  2256 net.cpp:131] Top shape: 100 10 (1000)
I0428 20:23:34.064995  2256 net.cpp:131] Top shape: 100 10 (1000)
I0428 20:23:34.065001  2256 net.cpp:139] Memory required for data: 17978800
I0428 20:23:34.065006  2256 layer_factory.hpp:77] Creating layer accuracy
I0428 20:23:34.065016  2256 net.cpp:86] Creating Layer accuracy
I0428 20:23:34.065023  2256 net.cpp:408] accuracy <- ip3_relu3_0_split_0
I0428 20:23:34.065032  2256 net.cpp:408] accuracy <- label_mnist_1_split_0
I0428 20:23:34.065042  2256 net.cpp:382] accuracy -> accuracy
…
