…
I0428 20:02:06.520745 29873 net.cpp:296] The NetState phase (0) differed from the phase (1) specified by a rule in layer mnist
I0428 20:02:06.520761 29873 net.cpp:296] The NetState phase (0) differed from the phase (1) specified by a rule in layer accuracy
I0428 20:02:06.520861 29873 net.cpp:53] Initializing net from parameters: 
name: "LeNet"
state {
  phase: TRAIN
  level: 0
  stage: ""
}
layer {
  name: "mnist"
  type: "Data"
  top: "data"
  top: "label"
  include {
    phase: TRAIN
  }
  transform_param {
    scale: 0.00390625
  }
  data_param {
    source: "examples/mnist/mnist_train_lmdb"
    batch_size: 64
    backend: LMDB
  }
}
layer {
  name: "conv0"
  type: "Convolution"
  bottom: "data"
  top: "conv0"
  param {
    lr_mult: 1
  }
  param {
    lr_mult: 2
  }
  convolution_param {
    num_output: 10
    kernel_size: 5
    stride: 1
    weight_filler {
      type: "xavier"
    }
    bias_filler {
      type: "constant"
    }
  }
}
layer {
  name: "pool0"
  type: "Pooling"
  bottom: "conv0"
  top: "pool0"
  pooling_param {
    pool: MAX
    kernel_size: 2
    stride: 2
  }
}
layer {
  name: "conv1"
  type: "Convolution"
  bottom: "pool0"
  top: "conv1"
  param {
    lr_mult: 1
  }
  param {
    lr_mult: 2
  }
  convolution_param {
    num_output: 50
    kernel_size: 5
    stride: 1
    weight_filler {
      type: "xavier"
    }
    bias_filler {
      type: "constant"
    }
  }
}
layer {
  name: "pool1"
  type: "Pooling"
  bottom: "conv1"
  top: "pool1"
  pooling_param {
    pool: MAX
    kernel_size: 2
    stride: 2
  }
}
layer {
  name: "ip1"
  type: "InnerProduct"
  bottom: "pool1"
  top: "ip1"
  param {
    lr_mult: 1
  }
  param {
    lr_mult: 2
  }
  inner_product_param {
    num_output: 25
    weight_filler {
      type: "xavier"
    }
    bias_filler {
      type: "constant"
    }
  }
}
layer {
  name: "relu1"
  type: "ReLU"
  bottom: "ip1"
  top: "ip1"
}
layer {
  name: "ip2"
  type: "InnerProduct"
  bottom: "ip1"
  top: "ip2"
  param {
    lr_mult: 1
  }
  param {
    lr_mult: 2
  }
  inner_product_param {
    num_output: 10
    weight_filler {
      type: "xavier"
    }
    bias_filler {
      type: "constant"
    }
  }
}
layer {
  name: "relu2"
  type: "ReLU"
  bottom: "ip2"
  top: "ip2"
}
layer {
  name: "ip3"
  type: "InnerProduct"
  bottom: "ip2"
  top: "ip3"
  param {
    lr_mult: 1
  }
  param {
    lr_mult: 2
  }
  inner_product_param {
    num_output: 10
    weight_filler {
      type: "xavier"
    }
    bias_filler {
      type: "constant"
    }
  }
}
layer {
  name: "relu3"
  type: "ReLU"
  bottom: "ip3"
  top: "ip3"
}
layer {
  name: "loss"
  type: "SoftmaxWithLoss"
  bottom: "ip3"
  bottom: "label"
  top: "loss"
}
I0428 20:02:06.520941 29873 layer_factory.hpp:77] Creating layer mnist
I0428 20:02:06.521026 29873 db_lmdb.cpp:35] Opened lmdb examples/mnist/mnist_train_lmdb
I0428 20:02:06.521046 29873 net.cpp:86] Creating Layer mnist
I0428 20:02:06.521052 29873 net.cpp:382] mnist -> data
I0428 20:02:06.521071 29873 net.cpp:382] mnist -> label
I0428 20:02:06.522008 29873 data_layer.cpp:45] output data size: 64,1,28,28
I0428 20:02:06.524155 29873 net.cpp:124] Setting up mnist
I0428 20:02:06.524185 29873 net.cpp:131] Top shape: 64 1 28 28 (50176)
I0428 20:02:06.524190 29873 net.cpp:131] Top shape: 64 (64)
I0428 20:02:06.524194 29873 net.cpp:139] Memory required for data: 200960
I0428 20:02:06.524214 29873 layer_factory.hpp:77] Creating layer conv0
I0428 20:02:06.524242 29873 net.cpp:86] Creating Layer conv0
I0428 20:02:06.524261 29873 net.cpp:408] conv0 <- data
I0428 20:02:06.524271 29873 net.cpp:382] conv0 -> conv0
I0428 20:02:06.756616 29873 net.cpp:124] Setting up conv0
I0428 20:02:06.756642 29873 net.cpp:131] Top shape: 64 10 24 24 (368640)
I0428 20:02:06.756646 29873 net.cpp:139] Memory required for data: 1675520
I0428 20:02:06.756660 29873 layer_factory.hpp:77] Creating layer pool0
I0428 20:02:06.756671 29873 net.cpp:86] Creating Layer pool0
I0428 20:02:06.756675 29873 net.cpp:408] pool0 <- conv0
I0428 20:02:06.756680 29873 net.cpp:382] pool0 -> pool0
I0428 20:02:06.756738 29873 net.cpp:124] Setting up pool0
I0428 20:02:06.756743 29873 net.cpp:131] Top shape: 64 10 12 12 (92160)
I0428 20:02:06.756747 29873 net.cpp:139] Memory required for data: 2044160
I0428 20:02:06.756749 29873 layer_factory.hpp:77] Creating layer conv1
I0428 20:02:06.756759 29873 net.cpp:86] Creating Layer conv1
I0428 20:02:06.756762 29873 net.cpp:408] conv1 <- pool0
I0428 20:02:06.756767 29873 net.cpp:382] conv1 -> conv1
I0428 20:02:06.759706 29873 net.cpp:124] Setting up conv1
I0428 20:02:06.759735 29873 net.cpp:131] Top shape: 64 50 8 8 (204800)
I0428 20:02:06.759738 29873 net.cpp:139] Memory required for data: 2863360
I0428 20:02:06.759747 29873 layer_factory.hpp:77] Creating layer pool1
I0428 20:02:06.759754 29873 net.cpp:86] Creating Layer pool1
I0428 20:02:06.759773 29873 net.cpp:408] pool1 <- conv1
I0428 20:02:06.759776 29873 net.cpp:382] pool1 -> pool1
I0428 20:02:06.759827 29873 net.cpp:124] Setting up pool1
I0428 20:02:06.759832 29873 net.cpp:131] Top shape: 64 50 4 4 (51200)
I0428 20:02:06.759835 29873 net.cpp:139] Memory required for data: 3068160
I0428 20:02:06.759838 29873 layer_factory.hpp:77] Creating layer ip1
I0428 20:02:06.759845 29873 net.cpp:86] Creating Layer ip1
I0428 20:02:06.759847 29873 net.cpp:408] ip1 <- pool1
I0428 20:02:06.759852 29873 net.cpp:382] ip1 -> ip1
I0428 20:02:06.760048 29873 net.cpp:124] Setting up ip1
I0428 20:02:06.760056 29873 net.cpp:131] Top shape: 64 25 (1600)
I0428 20:02:06.760059 29873 net.cpp:139] Memory required for data: 3074560
I0428 20:02:06.760066 29873 layer_factory.hpp:77] Creating layer relu1
I0428 20:02:06.760073 29873 net.cpp:86] Creating Layer relu1
I0428 20:02:06.760076 29873 net.cpp:408] relu1 <- ip1
I0428 20:02:06.760080 29873 net.cpp:369] relu1 -> ip1 (in-place)
I0428 20:02:06.760264 29873 net.cpp:124] Setting up relu1
I0428 20:02:06.760272 29873 net.cpp:131] Top shape: 64 25 (1600)
I0428 20:02:06.760275 29873 net.cpp:139] Memory required for data: 3080960
I0428 20:02:06.760278 29873 layer_factory.hpp:77] Creating layer ip2
I0428 20:02:06.760284 29873 net.cpp:86] Creating Layer ip2
I0428 20:02:06.760288 29873 net.cpp:408] ip2 <- ip1
I0428 20:02:06.760291 29873 net.cpp:382] ip2 -> ip2
I0428 20:02:06.760381 29873 net.cpp:124] Setting up ip2
I0428 20:02:06.760388 29873 net.cpp:131] Top shape: 64 10 (640)
I0428 20:02:06.760391 29873 net.cpp:139] Memory required for data: 3083520
I0428 20:02:06.760396 29873 layer_factory.hpp:77] Creating layer relu2
I0428 20:02:06.760401 29873 net.cpp:86] Creating Layer relu2
I0428 20:02:06.760404 29873 net.cpp:408] relu2 <- ip2
I0428 20:02:06.760408 29873 net.cpp:369] relu2 -> ip2 (in-place)
I0428 20:02:06.761247 29873 net.cpp:124] Setting up relu2
I0428 20:02:06.761260 29873 net.cpp:131] Top shape: 64 10 (640)
I0428 20:02:06.761278 29873 net.cpp:139] Memory required for data: 3086080
I0428 20:02:06.761282 29873 layer_factory.hpp:77] Creating layer ip3
I0428 20:02:06.761289 29873 net.cpp:86] Creating Layer ip3
I0428 20:02:06.761292 29873 net.cpp:408] ip3 <- ip2
I0428 20:02:06.761298 29873 net.cpp:382] ip3 -> ip3
I0428 20:02:06.761396 29873 net.cpp:124] Setting up ip3
I0428 20:02:06.761404 29873 net.cpp:131] Top shape: 64 10 (640)
I0428 20:02:06.761407 29873 net.cpp:139] Memory required for data: 3088640
I0428 20:02:06.761415 29873 layer_factory.hpp:77] Creating layer relu3
I0428 20:02:06.761420 29873 net.cpp:86] Creating Layer relu3
I0428 20:02:06.761423 29873 net.cpp:408] relu3 <- ip3
I0428 20:02:06.761427 29873 net.cpp:369] relu3 -> ip3 (in-place)
I0428 20:02:06.761598 29873 net.cpp:124] Setting up relu3
I0428 20:02:06.761606 29873 net.cpp:131] Top shape: 64 10 (640)
I0428 20:02:06.761625 29873 net.cpp:139] Memory required for data: 3091200
I0428 20:02:06.761627 29873 layer_factory.hpp:77] Creating layer loss
I0428 20:02:06.761639 29873 net.cpp:86] Creating Layer loss
I0428 20:02:06.761657 29873 net.cpp:408] loss <- ip3
I0428 20:02:06.761662 29873 net.cpp:408] loss <- label
I0428 20:02:06.761667 29873 net.cpp:382] loss -> loss
I0428 20:02:06.761678 29873 layer_factory.hpp:77] Creating layer loss
…
I0428 20:02:06.762269 29873 solver.cpp:173] Creating test net (#0) specified by net file: ECE595/mnist/train_test/var_everything2/lenet_train_test920.prototxt
I0428 20:02:06.762295 29873 net.cpp:296] The NetState phase (1) differed from the phase (0) specified by a rule in layer mnist
I0428 20:02:06.762408 29873 net.cpp:53] Initializing net from parameters: 
name: "LeNet"
state {
  phase: TEST
}
layer {
  name: "mnist"
  type: "Data"
  top: "data"
  top: "label"
  include {
    phase: TEST
  }
  transform_param {
    scale: 0.00390625
  }
  data_param {
    source: "examples/mnist/mnist_test_lmdb"
    batch_size: 100
    backend: LMDB
  }
}
layer {
  name: "conv0"
  type: "Convolution"
  bottom: "data"
  top: "conv0"
  param {
    lr_mult: 1
  }
  param {
    lr_mult: 2
  }
  convolution_param {
    num_output: 10
    kernel_size: 5
    stride: 1
    weight_filler {
      type: "xavier"
    }
    bias_filler {
      type: "constant"
    }
  }
}
layer {
  name: "pool0"
  type: "Pooling"
  bottom: "conv0"
  top: "pool0"
  pooling_param {
    pool: MAX
    kernel_size: 2
    stride: 2
  }
}
layer {
  name: "conv1"
  type: "Convolution"
  bottom: "pool0"
  top: "conv1"
  param {
    lr_mult: 1
  }
  param {
    lr_mult: 2
  }
  convolution_param {
    num_output: 50
    kernel_size: 5
    stride: 1
    weight_filler {
      type: "xavier"
    }
    bias_filler {
      type: "constant"
    }
  }
}
layer {
  name: "pool1"
  type: "Pooling"
  bottom: "conv1"
  top: "pool1"
  pooling_param {
    pool: MAX
    kernel_size: 2
    stride: 2
  }
}
layer {
  name: "ip1"
  type: "InnerProduct"
  bottom: "pool1"
  top: "ip1"
  param {
    lr_mult: 1
  }
  param {
    lr_mult: 2
  }
  inner_product_param {
    num_output: 25
    weight_filler {
      type: "xavier"
    }
    bias_filler {
      type: "constant"
    }
  }
}
layer {
  name: "relu1"
  type: "ReLU"
  bottom: "ip1"
  top: "ip1"
}
layer {
  name: "ip2"
  type: "InnerProduct"
  bottom: "ip1"
  top: "ip2"
  param {
    lr_mult: 1
  }
  param {
    lr_mult: 2
  }
  inner_product_param {
    num_output: 10
    weight_filler {
      type: "xavier"
    }
    bias_filler {
      type: "constant"
    }
  }
}
layer {
  name: "relu2"
  type: "ReLU"
  bottom: "ip2"
  top: "ip2"
}
layer {
  name: "ip3"
  type: "InnerProduct"
  bottom: "ip2"
  top: "ip3"
  param {
    lr_mult: 1
  }
  param {
    lr_mult: 2
  }
  inner_product_param {
    num_output: 10
    weight_filler {
      type: "xavier"
    }
    bias_filler {
      type: "constant"
    }
  }
}
layer {
  name: "relu3"
  type: "ReLU"
  bottom: "ip3"
  top: "ip3"
}
layer {
  name: "accuracy"
  type: "Accuracy"
  bottom: "ip3"
  bottom: "label"
  top: "accuracy"
  include {
    phase: TEST
  }
}
layer {
  name: "loss"
  type: "SoftmaxWithLoss"
  bottom: "ip3"
  bottom: "label"
  top: "loss"
}
I0428 20:02:06.762485 29873 layer_factory.hpp:77] Creating layer mnist
I0428 20:02:06.762527 29873 db_lmdb.cpp:35] Opened lmdb examples/mnist/mnist_test_lmdb
I0428 20:02:06.762538 29873 net.cpp:86] Creating Layer mnist
I0428 20:02:06.762543 29873 net.cpp:382] mnist -> data
I0428 20:02:06.762550 29873 net.cpp:382] mnist -> label
I0428 20:02:06.762647 29873 data_layer.cpp:45] output data size: 100,1,28,28
I0428 20:02:06.764904 29873 net.cpp:124] Setting up mnist
I0428 20:02:06.764932 29873 net.cpp:131] Top shape: 100 1 28 28 (78400)
I0428 20:02:06.764937 29873 net.cpp:131] Top shape: 100 (100)
I0428 20:02:06.764941 29873 net.cpp:139] Memory required for data: 314000
I0428 20:02:06.764945 29873 layer_factory.hpp:77] Creating layer label_mnist_1_split
I0428 20:02:06.764951 29873 net.cpp:86] Creating Layer label_mnist_1_split
I0428 20:02:06.764955 29873 net.cpp:408] label_mnist_1_split <- label
I0428 20:02:06.764960 29873 net.cpp:382] label_mnist_1_split -> label_mnist_1_split_0
I0428 20:02:06.764966 29873 net.cpp:382] label_mnist_1_split -> label_mnist_1_split_1
I0428 20:02:06.765002 29873 net.cpp:124] Setting up label_mnist_1_split
I0428 20:02:06.765007 29873 net.cpp:131] Top shape: 100 (100)
I0428 20:02:06.765010 29873 net.cpp:131] Top shape: 100 (100)
I0428 20:02:06.765013 29873 net.cpp:139] Memory required for data: 314800
I0428 20:02:06.765017 29873 layer_factory.hpp:77] Creating layer conv0
I0428 20:02:06.765024 29873 net.cpp:86] Creating Layer conv0
I0428 20:02:06.765027 29873 net.cpp:408] conv0 <- data
I0428 20:02:06.765033 29873 net.cpp:382] conv0 -> conv0
I0428 20:02:06.766613 29873 net.cpp:124] Setting up conv0
I0428 20:02:06.766626 29873 net.cpp:131] Top shape: 100 10 24 24 (576000)
I0428 20:02:06.766629 29873 net.cpp:139] Memory required for data: 2618800
I0428 20:02:06.766639 29873 layer_factory.hpp:77] Creating layer pool0
I0428 20:02:06.766661 29873 net.cpp:86] Creating Layer pool0
I0428 20:02:06.766664 29873 net.cpp:408] pool0 <- conv0
I0428 20:02:06.766685 29873 net.cpp:382] pool0 -> pool0
I0428 20:02:06.766733 29873 net.cpp:124] Setting up pool0
I0428 20:02:06.766738 29873 net.cpp:131] Top shape: 100 10 12 12 (144000)
I0428 20:02:06.766741 29873 net.cpp:139] Memory required for data: 3194800
I0428 20:02:06.766743 29873 layer_factory.hpp:77] Creating layer conv1
I0428 20:02:06.766753 29873 net.cpp:86] Creating Layer conv1
I0428 20:02:06.766757 29873 net.cpp:408] conv1 <- pool0
I0428 20:02:06.766762 29873 net.cpp:382] conv1 -> conv1
I0428 20:02:06.768406 29873 net.cpp:124] Setting up conv1
I0428 20:02:06.768419 29873 net.cpp:131] Top shape: 100 50 8 8 (320000)
I0428 20:02:06.768437 29873 net.cpp:139] Memory required for data: 4474800
I0428 20:02:06.768445 29873 layer_factory.hpp:77] Creating layer pool1
I0428 20:02:06.768451 29873 net.cpp:86] Creating Layer pool1
I0428 20:02:06.768455 29873 net.cpp:408] pool1 <- conv1
I0428 20:02:06.768462 29873 net.cpp:382] pool1 -> pool1
I0428 20:02:06.768496 29873 net.cpp:124] Setting up pool1
I0428 20:02:06.768502 29873 net.cpp:131] Top shape: 100 50 4 4 (80000)
I0428 20:02:06.768504 29873 net.cpp:139] Memory required for data: 4794800
I0428 20:02:06.768507 29873 layer_factory.hpp:77] Creating layer ip1
I0428 20:02:06.768514 29873 net.cpp:86] Creating Layer ip1
I0428 20:02:06.768523 29873 net.cpp:408] ip1 <- pool1
I0428 20:02:06.768529 29873 net.cpp:382] ip1 -> ip1
I0428 20:02:06.768757 29873 net.cpp:124] Setting up ip1
I0428 20:02:06.768765 29873 net.cpp:131] Top shape: 100 25 (2500)
I0428 20:02:06.768779 29873 net.cpp:139] Memory required for data: 4804800
I0428 20:02:06.768802 29873 layer_factory.hpp:77] Creating layer relu1
I0428 20:02:06.768807 29873 net.cpp:86] Creating Layer relu1
I0428 20:02:06.768833 29873 net.cpp:408] relu1 <- ip1
I0428 20:02:06.768838 29873 net.cpp:369] relu1 -> ip1 (in-place)
I0428 20:02:06.769042 29873 net.cpp:124] Setting up relu1
I0428 20:02:06.769050 29873 net.cpp:131] Top shape: 100 25 (2500)
I0428 20:02:06.769053 29873 net.cpp:139] Memory required for data: 4814800
I0428 20:02:06.769057 29873 layer_factory.hpp:77] Creating layer ip2
I0428 20:02:06.769067 29873 net.cpp:86] Creating Layer ip2
I0428 20:02:06.769070 29873 net.cpp:408] ip2 <- ip1
I0428 20:02:06.769084 29873 net.cpp:382] ip2 -> ip2
I0428 20:02:06.769249 29873 net.cpp:124] Setting up ip2
I0428 20:02:06.769258 29873 net.cpp:131] Top shape: 100 10 (1000)
I0428 20:02:06.769260 29873 net.cpp:139] Memory required for data: 4818800
I0428 20:02:06.769265 29873 layer_factory.hpp:77] Creating layer relu2
I0428 20:02:06.769269 29873 net.cpp:86] Creating Layer relu2
I0428 20:02:06.769279 29873 net.cpp:408] relu2 <- ip2
I0428 20:02:06.769284 29873 net.cpp:369] relu2 -> ip2 (in-place)
I0428 20:02:06.769461 29873 net.cpp:124] Setting up relu2
I0428 20:02:06.769484 29873 net.cpp:131] Top shape: 100 10 (1000)
I0428 20:02:06.769487 29873 net.cpp:139] Memory required for data: 4822800
I0428 20:02:06.769490 29873 layer_factory.hpp:77] Creating layer ip3
I0428 20:02:06.769496 29873 net.cpp:86] Creating Layer ip3
I0428 20:02:06.769500 29873 net.cpp:408] ip3 <- ip2
I0428 20:02:06.769505 29873 net.cpp:382] ip3 -> ip3
I0428 20:02:06.769635 29873 net.cpp:124] Setting up ip3
I0428 20:02:06.769642 29873 net.cpp:131] Top shape: 100 10 (1000)
I0428 20:02:06.769645 29873 net.cpp:139] Memory required for data: 4826800
I0428 20:02:06.769654 29873 layer_factory.hpp:77] Creating layer relu3
I0428 20:02:06.769659 29873 net.cpp:86] Creating Layer relu3
I0428 20:02:06.769662 29873 net.cpp:408] relu3 <- ip3
I0428 20:02:06.769666 29873 net.cpp:369] relu3 -> ip3 (in-place)
I0428 20:02:06.770536 29873 net.cpp:124] Setting up relu3
I0428 20:02:06.770550 29873 net.cpp:131] Top shape: 100 10 (1000)
I0428 20:02:06.770552 29873 net.cpp:139] Memory required for data: 4830800
I0428 20:02:06.770555 29873 layer_factory.hpp:77] Creating layer ip3_relu3_0_split
I0428 20:02:06.770560 29873 net.cpp:86] Creating Layer ip3_relu3_0_split
I0428 20:02:06.770570 29873 net.cpp:408] ip3_relu3_0_split <- ip3
I0428 20:02:06.770575 29873 net.cpp:382] ip3_relu3_0_split -> ip3_relu3_0_split_0
I0428 20:02:06.770579 29873 net.cpp:382] ip3_relu3_0_split -> ip3_relu3_0_split_1
I0428 20:02:06.770617 29873 net.cpp:124] Setting up ip3_relu3_0_split
I0428 20:02:06.770627 29873 net.cpp:131] Top shape: 100 10 (1000)
I0428 20:02:06.770632 29873 net.cpp:131] Top shape: 100 10 (1000)
I0428 20:02:06.770633 29873 net.cpp:139] Memory required for data: 4838800
I0428 20:02:06.770642 29873 layer_factory.hpp:77] Creating layer accuracy
I0428 20:02:06.770647 29873 net.cpp:86] Creating Layer accuracy
I0428 20:02:06.770649 29873 net.cpp:408] accuracy <- ip3_relu3_0_split_0
I0428 20:02:06.770653 29873 net.cpp:408] accuracy <- label_mnist_1_split_0
I0428 20:02:06.770659 29873 net.cpp:382] accuracy -> accuracy
…
