…
I0428 20:03:03.661533 30106 net.cpp:296] The NetState phase (0) differed from the phase (1) specified by a rule in layer mnist
I0428 20:03:03.661551 30106 net.cpp:296] The NetState phase (0) differed from the phase (1) specified by a rule in layer accuracy
I0428 20:03:03.661650 30106 net.cpp:53] Initializing net from parameters: 
name: "LeNet"
state {
  phase: TRAIN
  level: 0
  stage: ""
}
layer {
  name: "mnist"
  type: "Data"
  top: "data"
  top: "label"
  include {
    phase: TRAIN
  }
  transform_param {
    scale: 0.00390625
  }
  data_param {
    source: "examples/mnist/mnist_train_lmdb"
    batch_size: 64
    backend: LMDB
  }
}
layer {
  name: "conv0"
  type: "Convolution"
  bottom: "data"
  top: "conv0"
  param {
    lr_mult: 1
  }
  param {
    lr_mult: 2
  }
  convolution_param {
    num_output: 10
    kernel_size: 5
    stride: 1
    weight_filler {
      type: "xavier"
    }
    bias_filler {
      type: "constant"
    }
  }
}
layer {
  name: "pool0"
  type: "Pooling"
  bottom: "conv0"
  top: "pool0"
  pooling_param {
    pool: MAX
    kernel_size: 2
    stride: 2
  }
}
layer {
  name: "conv1"
  type: "Convolution"
  bottom: "pool0"
  top: "conv1"
  param {
    lr_mult: 1
  }
  param {
    lr_mult: 2
  }
  convolution_param {
    num_output: 100
    kernel_size: 5
    stride: 1
    weight_filler {
      type: "xavier"
    }
    bias_filler {
      type: "constant"
    }
  }
}
layer {
  name: "pool1"
  type: "Pooling"
  bottom: "conv1"
  top: "pool1"
  pooling_param {
    pool: MAX
    kernel_size: 2
    stride: 2
  }
}
layer {
  name: "ip1"
  type: "InnerProduct"
  bottom: "pool1"
  top: "ip1"
  param {
    lr_mult: 1
  }
  param {
    lr_mult: 2
  }
  inner_product_param {
    num_output: 25
    weight_filler {
      type: "xavier"
    }
    bias_filler {
      type: "constant"
    }
  }
}
layer {
  name: "relu1"
  type: "ReLU"
  bottom: "ip1"
  top: "ip1"
}
layer {
  name: "ip2"
  type: "InnerProduct"
  bottom: "ip1"
  top: "ip2"
  param {
    lr_mult: 1
  }
  param {
    lr_mult: 2
  }
  inner_product_param {
    num_output: 10
    weight_filler {
      type: "xavier"
    }
    bias_filler {
      type: "constant"
    }
  }
}
layer {
  name: "relu2"
  type: "ReLU"
  bottom: "ip2"
  top: "ip2"
}
layer {
  name: "loss"
  type: "SoftmaxWithLoss"
  bottom: "ip2"
  bottom: "label"
  top: "loss"
}
I0428 20:03:03.661730 30106 layer_factory.hpp:77] Creating layer mnist
I0428 20:03:03.661828 30106 db_lmdb.cpp:35] Opened lmdb examples/mnist/mnist_train_lmdb
I0428 20:03:03.661854 30106 net.cpp:86] Creating Layer mnist
I0428 20:03:03.661861 30106 net.cpp:382] mnist -> data
I0428 20:03:03.661885 30106 net.cpp:382] mnist -> label
I0428 20:03:03.663013 30106 data_layer.cpp:45] output data size: 64,1,28,28
I0428 20:03:03.665583 30106 net.cpp:124] Setting up mnist
I0428 20:03:03.665603 30106 net.cpp:131] Top shape: 64 1 28 28 (50176)
I0428 20:03:03.665609 30106 net.cpp:131] Top shape: 64 (64)
I0428 20:03:03.665613 30106 net.cpp:139] Memory required for data: 200960
I0428 20:03:03.665621 30106 layer_factory.hpp:77] Creating layer conv0
I0428 20:03:03.665638 30106 net.cpp:86] Creating Layer conv0
I0428 20:03:03.665644 30106 net.cpp:408] conv0 <- data
I0428 20:03:03.665657 30106 net.cpp:382] conv0 -> conv0
I0428 20:03:03.922909 30106 net.cpp:124] Setting up conv0
I0428 20:03:03.922935 30106 net.cpp:131] Top shape: 64 10 24 24 (368640)
I0428 20:03:03.922940 30106 net.cpp:139] Memory required for data: 1675520
I0428 20:03:03.922972 30106 layer_factory.hpp:77] Creating layer pool0
I0428 20:03:03.922999 30106 net.cpp:86] Creating Layer pool0
I0428 20:03:03.923004 30106 net.cpp:408] pool0 <- conv0
I0428 20:03:03.923009 30106 net.cpp:382] pool0 -> pool0
I0428 20:03:03.923054 30106 net.cpp:124] Setting up pool0
I0428 20:03:03.923061 30106 net.cpp:131] Top shape: 64 10 12 12 (92160)
I0428 20:03:03.923064 30106 net.cpp:139] Memory required for data: 2044160
I0428 20:03:03.923068 30106 layer_factory.hpp:77] Creating layer conv1
I0428 20:03:03.923079 30106 net.cpp:86] Creating Layer conv1
I0428 20:03:03.923081 30106 net.cpp:408] conv1 <- pool0
I0428 20:03:03.923086 30106 net.cpp:382] conv1 -> conv1
I0428 20:03:03.925117 30106 net.cpp:124] Setting up conv1
I0428 20:03:03.925148 30106 net.cpp:131] Top shape: 64 100 8 8 (409600)
I0428 20:03:03.925151 30106 net.cpp:139] Memory required for data: 3682560
I0428 20:03:03.925178 30106 layer_factory.hpp:77] Creating layer pool1
I0428 20:03:03.925200 30106 net.cpp:86] Creating Layer pool1
I0428 20:03:03.925204 30106 net.cpp:408] pool1 <- conv1
I0428 20:03:03.925225 30106 net.cpp:382] pool1 -> pool1
I0428 20:03:03.925278 30106 net.cpp:124] Setting up pool1
I0428 20:03:03.925300 30106 net.cpp:131] Top shape: 64 100 4 4 (102400)
I0428 20:03:03.925304 30106 net.cpp:139] Memory required for data: 4092160
I0428 20:03:03.925307 30106 layer_factory.hpp:77] Creating layer ip1
I0428 20:03:03.925314 30106 net.cpp:86] Creating Layer ip1
I0428 20:03:03.925333 30106 net.cpp:408] ip1 <- pool1
I0428 20:03:03.925338 30106 net.cpp:382] ip1 -> ip1
I0428 20:03:03.925719 30106 net.cpp:124] Setting up ip1
I0428 20:03:03.925726 30106 net.cpp:131] Top shape: 64 25 (1600)
I0428 20:03:03.925745 30106 net.cpp:139] Memory required for data: 4098560
I0428 20:03:03.925753 30106 layer_factory.hpp:77] Creating layer relu1
I0428 20:03:03.925760 30106 net.cpp:86] Creating Layer relu1
I0428 20:03:03.925762 30106 net.cpp:408] relu1 <- ip1
I0428 20:03:03.925767 30106 net.cpp:369] relu1 -> ip1 (in-place)
I0428 20:03:03.925923 30106 net.cpp:124] Setting up relu1
I0428 20:03:03.925931 30106 net.cpp:131] Top shape: 64 25 (1600)
I0428 20:03:03.925935 30106 net.cpp:139] Memory required for data: 4104960
I0428 20:03:03.925937 30106 layer_factory.hpp:77] Creating layer ip2
I0428 20:03:03.925945 30106 net.cpp:86] Creating Layer ip2
I0428 20:03:03.925947 30106 net.cpp:408] ip2 <- ip1
I0428 20:03:03.925952 30106 net.cpp:382] ip2 -> ip2
I0428 20:03:03.926056 30106 net.cpp:124] Setting up ip2
I0428 20:03:03.926062 30106 net.cpp:131] Top shape: 64 10 (640)
I0428 20:03:03.926065 30106 net.cpp:139] Memory required for data: 4107520
I0428 20:03:03.926071 30106 layer_factory.hpp:77] Creating layer relu2
I0428 20:03:03.926076 30106 net.cpp:86] Creating Layer relu2
I0428 20:03:03.926079 30106 net.cpp:408] relu2 <- ip2
I0428 20:03:03.926084 30106 net.cpp:369] relu2 -> ip2 (in-place)
I0428 20:03:03.926846 30106 net.cpp:124] Setting up relu2
I0428 20:03:03.926856 30106 net.cpp:131] Top shape: 64 10 (640)
I0428 20:03:03.926875 30106 net.cpp:139] Memory required for data: 4110080
I0428 20:03:03.926879 30106 layer_factory.hpp:77] Creating layer loss
I0428 20:03:03.926885 30106 net.cpp:86] Creating Layer loss
I0428 20:03:03.926888 30106 net.cpp:408] loss <- ip2
I0428 20:03:03.926892 30106 net.cpp:408] loss <- label
I0428 20:03:03.926898 30106 net.cpp:382] loss -> loss
I0428 20:03:03.926913 30106 layer_factory.hpp:77] Creating layer loss
…
I0428 20:03:03.927557 30106 solver.cpp:173] Creating test net (#0) specified by net file: ECE595/mnist/train_test/var_everything2/lenet_train_test943.prototxt
I0428 20:03:03.927598 30106 net.cpp:296] The NetState phase (1) differed from the phase (0) specified by a rule in layer mnist
I0428 20:03:03.927682 30106 net.cpp:53] Initializing net from parameters: 
name: "LeNet"
state {
  phase: TEST
}
layer {
  name: "mnist"
  type: "Data"
  top: "data"
  top: "label"
  include {
    phase: TEST
  }
  transform_param {
    scale: 0.00390625
  }
  data_param {
    source: "examples/mnist/mnist_test_lmdb"
    batch_size: 100
    backend: LMDB
  }
}
layer {
  name: "conv0"
  type: "Convolution"
  bottom: "data"
  top: "conv0"
  param {
    lr_mult: 1
  }
  param {
    lr_mult: 2
  }
  convolution_param {
    num_output: 10
    kernel_size: 5
    stride: 1
    weight_filler {
      type: "xavier"
    }
    bias_filler {
      type: "constant"
    }
  }
}
layer {
  name: "pool0"
  type: "Pooling"
  bottom: "conv0"
  top: "pool0"
  pooling_param {
    pool: MAX
    kernel_size: 2
    stride: 2
  }
}
layer {
  name: "conv1"
  type: "Convolution"
  bottom: "pool0"
  top: "conv1"
  param {
    lr_mult: 1
  }
  param {
    lr_mult: 2
  }
  convolution_param {
    num_output: 100
    kernel_size: 5
    stride: 1
    weight_filler {
      type: "xavier"
    }
    bias_filler {
      type: "constant"
    }
  }
}
layer {
  name: "pool1"
  type: "Pooling"
  bottom: "conv1"
  top: "pool1"
  pooling_param {
    pool: MAX
    kernel_size: 2
    stride: 2
  }
}
layer {
  name: "ip1"
  type: "InnerProduct"
  bottom: "pool1"
  top: "ip1"
  param {
    lr_mult: 1
  }
  param {
    lr_mult: 2
  }
  inner_product_param {
    num_output: 25
    weight_filler {
      type: "xavier"
    }
    bias_filler {
      type: "constant"
    }
  }
}
layer {
  name: "relu1"
  type: "ReLU"
  bottom: "ip1"
  top: "ip1"
}
layer {
  name: "ip2"
  type: "InnerProduct"
  bottom: "ip1"
  top: "ip2"
  param {
    lr_mult: 1
  }
  param {
    lr_mult: 2
  }
  inner_product_param {
    num_output: 10
    weight_filler {
      type: "xavier"
    }
    bias_filler {
      type: "constant"
    }
  }
}
layer {
  name: "relu2"
  type: "ReLU"
  bottom: "ip2"
  top: "ip2"
}
layer {
  name: "accuracy"
  type: "Accuracy"
  bottom: "ip2"
  bottom: "label"
  top: "accuracy"
  include {
    phase: TEST
  }
}
layer {
  name: "loss"
  type: "SoftmaxWithLoss"
  bottom: "ip2"
  bottom: "label"
  top: "loss"
}
I0428 20:03:03.927758 30106 layer_factory.hpp:77] Creating layer mnist
I0428 20:03:03.927803 30106 db_lmdb.cpp:35] Opened lmdb examples/mnist/mnist_test_lmdb
I0428 20:03:03.927814 30106 net.cpp:86] Creating Layer mnist
I0428 20:03:03.927819 30106 net.cpp:382] mnist -> data
I0428 20:03:03.927826 30106 net.cpp:382] mnist -> label
I0428 20:03:03.927918 30106 data_layer.cpp:45] output data size: 100,1,28,28
I0428 20:03:03.929873 30106 net.cpp:124] Setting up mnist
I0428 20:03:03.929919 30106 net.cpp:131] Top shape: 100 1 28 28 (78400)
I0428 20:03:03.929924 30106 net.cpp:131] Top shape: 100 (100)
I0428 20:03:03.929926 30106 net.cpp:139] Memory required for data: 314000
I0428 20:03:03.929930 30106 layer_factory.hpp:77] Creating layer label_mnist_1_split
I0428 20:03:03.929936 30106 net.cpp:86] Creating Layer label_mnist_1_split
I0428 20:03:03.929940 30106 net.cpp:408] label_mnist_1_split <- label
I0428 20:03:03.929944 30106 net.cpp:382] label_mnist_1_split -> label_mnist_1_split_0
I0428 20:03:03.929950 30106 net.cpp:382] label_mnist_1_split -> label_mnist_1_split_1
I0428 20:03:03.930091 30106 net.cpp:124] Setting up label_mnist_1_split
I0428 20:03:03.930101 30106 net.cpp:131] Top shape: 100 (100)
I0428 20:03:03.930105 30106 net.cpp:131] Top shape: 100 (100)
I0428 20:03:03.930107 30106 net.cpp:139] Memory required for data: 314800
I0428 20:03:03.930110 30106 layer_factory.hpp:77] Creating layer conv0
I0428 20:03:03.930119 30106 net.cpp:86] Creating Layer conv0
I0428 20:03:03.930122 30106 net.cpp:408] conv0 <- data
I0428 20:03:03.930127 30106 net.cpp:382] conv0 -> conv0
I0428 20:03:03.931607 30106 net.cpp:124] Setting up conv0
I0428 20:03:03.931619 30106 net.cpp:131] Top shape: 100 10 24 24 (576000)
I0428 20:03:03.931623 30106 net.cpp:139] Memory required for data: 2618800
I0428 20:03:03.931632 30106 layer_factory.hpp:77] Creating layer pool0
I0428 20:03:03.931638 30106 net.cpp:86] Creating Layer pool0
I0428 20:03:03.931640 30106 net.cpp:408] pool0 <- conv0
I0428 20:03:03.931644 30106 net.cpp:382] pool0 -> pool0
I0428 20:03:03.931677 30106 net.cpp:124] Setting up pool0
I0428 20:03:03.931686 30106 net.cpp:131] Top shape: 100 10 12 12 (144000)
I0428 20:03:03.931689 30106 net.cpp:139] Memory required for data: 3194800
I0428 20:03:03.931692 30106 layer_factory.hpp:77] Creating layer conv1
I0428 20:03:03.931700 30106 net.cpp:86] Creating Layer conv1
I0428 20:03:03.931704 30106 net.cpp:408] conv1 <- pool0
I0428 20:03:03.931707 30106 net.cpp:382] conv1 -> conv1
I0428 20:03:03.933393 30106 net.cpp:124] Setting up conv1
I0428 20:03:03.933405 30106 net.cpp:131] Top shape: 100 100 8 8 (640000)
I0428 20:03:03.933409 30106 net.cpp:139] Memory required for data: 5754800
I0428 20:03:03.933418 30106 layer_factory.hpp:77] Creating layer pool1
I0428 20:03:03.933423 30106 net.cpp:86] Creating Layer pool1
I0428 20:03:03.933428 30106 net.cpp:408] pool1 <- conv1
I0428 20:03:03.933432 30106 net.cpp:382] pool1 -> pool1
I0428 20:03:03.933466 30106 net.cpp:124] Setting up pool1
I0428 20:03:03.933492 30106 net.cpp:131] Top shape: 100 100 4 4 (160000)
I0428 20:03:03.933496 30106 net.cpp:139] Memory required for data: 6394800
I0428 20:03:03.933500 30106 layer_factory.hpp:77] Creating layer ip1
I0428 20:03:03.933504 30106 net.cpp:86] Creating Layer ip1
I0428 20:03:03.933508 30106 net.cpp:408] ip1 <- pool1
I0428 20:03:03.933518 30106 net.cpp:382] ip1 -> ip1
I0428 20:03:03.933879 30106 net.cpp:124] Setting up ip1
I0428 20:03:03.933887 30106 net.cpp:131] Top shape: 100 25 (2500)
I0428 20:03:03.933890 30106 net.cpp:139] Memory required for data: 6404800
I0428 20:03:03.933897 30106 layer_factory.hpp:77] Creating layer relu1
I0428 20:03:03.933902 30106 net.cpp:86] Creating Layer relu1
I0428 20:03:03.933905 30106 net.cpp:408] relu1 <- ip1
I0428 20:03:03.933910 30106 net.cpp:369] relu1 -> ip1 (in-place)
I0428 20:03:03.934110 30106 net.cpp:124] Setting up relu1
I0428 20:03:03.934119 30106 net.cpp:131] Top shape: 100 25 (2500)
I0428 20:03:03.934123 30106 net.cpp:139] Memory required for data: 6414800
I0428 20:03:03.934126 30106 layer_factory.hpp:77] Creating layer ip2
I0428 20:03:03.934132 30106 net.cpp:86] Creating Layer ip2
I0428 20:03:03.934136 30106 net.cpp:408] ip2 <- ip1
I0428 20:03:03.934141 30106 net.cpp:382] ip2 -> ip2
I0428 20:03:03.934265 30106 net.cpp:124] Setting up ip2
I0428 20:03:03.934273 30106 net.cpp:131] Top shape: 100 10 (1000)
I0428 20:03:03.934278 30106 net.cpp:139] Memory required for data: 6418800
I0428 20:03:03.934283 30106 layer_factory.hpp:77] Creating layer relu2
I0428 20:03:03.934288 30106 net.cpp:86] Creating Layer relu2
I0428 20:03:03.934291 30106 net.cpp:408] relu2 <- ip2
I0428 20:03:03.934296 30106 net.cpp:369] relu2 -> ip2 (in-place)
I0428 20:03:03.934459 30106 net.cpp:124] Setting up relu2
I0428 20:03:03.934468 30106 net.cpp:131] Top shape: 100 10 (1000)
I0428 20:03:03.934471 30106 net.cpp:139] Memory required for data: 6422800
I0428 20:03:03.934474 30106 layer_factory.hpp:77] Creating layer ip2_relu2_0_split
I0428 20:03:03.934484 30106 net.cpp:86] Creating Layer ip2_relu2_0_split
I0428 20:03:03.934487 30106 net.cpp:408] ip2_relu2_0_split <- ip2
I0428 20:03:03.934492 30106 net.cpp:382] ip2_relu2_0_split -> ip2_relu2_0_split_0
I0428 20:03:03.934507 30106 net.cpp:382] ip2_relu2_0_split -> ip2_relu2_0_split_1
I0428 20:03:03.934542 30106 net.cpp:124] Setting up ip2_relu2_0_split
I0428 20:03:03.934550 30106 net.cpp:131] Top shape: 100 10 (1000)
I0428 20:03:03.934553 30106 net.cpp:131] Top shape: 100 10 (1000)
I0428 20:03:03.934556 30106 net.cpp:139] Memory required for data: 6430800
I0428 20:03:03.934559 30106 layer_factory.hpp:77] Creating layer accuracy
I0428 20:03:03.934564 30106 net.cpp:86] Creating Layer accuracy
I0428 20:03:03.934567 30106 net.cpp:408] accuracy <- ip2_relu2_0_split_0
I0428 20:03:03.934571 30106 net.cpp:408] accuracy <- label_mnist_1_split_0
I0428 20:03:03.934576 30106 net.cpp:382] accuracy -> accuracy
…
