…
I0428 20:04:32.144063 30400 net.cpp:296] The NetState phase (0) differed from the phase (1) specified by a rule in layer mnist
I0428 20:04:32.144109 30400 net.cpp:296] The NetState phase (0) differed from the phase (1) specified by a rule in layer accuracy
I0428 20:04:32.144191 30400 net.cpp:53] Initializing net from parameters: 
name: "LeNet"
state {
  phase: TRAIN
  level: 0
  stage: ""
}
layer {
  name: "mnist"
  type: "Data"
  top: "data"
  top: "label"
  include {
    phase: TRAIN
  }
  transform_param {
    scale: 0.00390625
  }
  data_param {
    source: "examples/mnist/mnist_train_lmdb"
    batch_size: 64
    backend: LMDB
  }
}
layer {
  name: "conv0"
  type: "Convolution"
  bottom: "data"
  top: "conv0"
  param {
    lr_mult: 1
  }
  param {
    lr_mult: 2
  }
  convolution_param {
    num_output: 10
    kernel_size: 5
    stride: 1
    weight_filler {
      type: "xavier"
    }
    bias_filler {
      type: "constant"
    }
  }
}
layer {
  name: "pool0"
  type: "Pooling"
  bottom: "conv0"
  top: "pool0"
  pooling_param {
    pool: MAX
    kernel_size: 2
    stride: 2
  }
}
layer {
  name: "conv1"
  type: "Convolution"
  bottom: "pool0"
  top: "conv1"
  param {
    lr_mult: 1
  }
  param {
    lr_mult: 2
  }
  convolution_param {
    num_output: 100
    kernel_size: 5
    stride: 1
    weight_filler {
      type: "xavier"
    }
    bias_filler {
      type: "constant"
    }
  }
}
layer {
  name: "pool1"
  type: "Pooling"
  bottom: "conv1"
  top: "pool1"
  pooling_param {
    pool: MAX
    kernel_size: 2
    stride: 2
  }
}
layer {
  name: "ip1"
  type: "InnerProduct"
  bottom: "pool1"
  top: "ip1"
  param {
    lr_mult: 1
  }
  param {
    lr_mult: 2
  }
  inner_product_param {
    num_output: 50
    weight_filler {
      type: "xavier"
    }
    bias_filler {
      type: "constant"
    }
  }
}
layer {
  name: "relu1"
  type: "ReLU"
  bottom: "ip1"
  top: "ip1"
}
layer {
  name: "ip2"
  type: "InnerProduct"
  bottom: "ip1"
  top: "ip2"
  param {
    lr_mult: 1
  }
  param {
    lr_mult: 2
  }
  inner_product_param {
    num_output: 50
    weight_filler {
      type: "xavier"
    }
    bias_filler {
      type: "constant"
    }
  }
}
layer {
  name: "relu2"
  type: "ReLU"
  bottom: "ip2"
  top: "ip2"
}
layer {
  name: "ip3"
  type: "InnerProduct"
  bottom: "ip2"
  top: "ip3"
  param {
    lr_mult: 1
  }
  param {
    lr_mult: 2
  }
  inner_product_param {
    num_output: 10
    weight_filler {
      type: "xavier"
    }
    bias_filler {
      type: "constant"
    }
  }
}
layer {
  name: "relu3"
  type: "ReLU"
  bottom: "ip3"
  top: "ip3"
}
layer {
  name: "loss"
  type: "SoftmaxWithLoss"
  bottom: "ip3"
  bottom: "label"
  top: "loss"
}
I0428 20:04:32.144253 30400 layer_factory.hpp:77] Creating layer mnist
I0428 20:04:32.144336 30400 db_lmdb.cpp:35] Opened lmdb examples/mnist/mnist_train_lmdb
I0428 20:04:32.144356 30400 net.cpp:86] Creating Layer mnist
I0428 20:04:32.144361 30400 net.cpp:382] mnist -> data
I0428 20:04:32.144381 30400 net.cpp:382] mnist -> label
I0428 20:04:32.145398 30400 data_layer.cpp:45] output data size: 64,1,28,28
I0428 20:04:32.147624 30400 net.cpp:124] Setting up mnist
I0428 20:04:32.147653 30400 net.cpp:131] Top shape: 64 1 28 28 (50176)
I0428 20:04:32.147660 30400 net.cpp:131] Top shape: 64 (64)
I0428 20:04:32.147663 30400 net.cpp:139] Memory required for data: 200960
I0428 20:04:32.147670 30400 layer_factory.hpp:77] Creating layer conv0
I0428 20:04:32.147683 30400 net.cpp:86] Creating Layer conv0
I0428 20:04:32.147701 30400 net.cpp:408] conv0 <- data
I0428 20:04:32.147712 30400 net.cpp:382] conv0 -> conv0
I0428 20:04:32.387670 30400 net.cpp:124] Setting up conv0
I0428 20:04:32.387696 30400 net.cpp:131] Top shape: 64 10 24 24 (368640)
I0428 20:04:32.387701 30400 net.cpp:139] Memory required for data: 1675520
I0428 20:04:32.387715 30400 layer_factory.hpp:77] Creating layer pool0
I0428 20:04:32.387743 30400 net.cpp:86] Creating Layer pool0
I0428 20:04:32.387748 30400 net.cpp:408] pool0 <- conv0
I0428 20:04:32.387753 30400 net.cpp:382] pool0 -> pool0
I0428 20:04:32.387797 30400 net.cpp:124] Setting up pool0
I0428 20:04:32.387809 30400 net.cpp:131] Top shape: 64 10 12 12 (92160)
I0428 20:04:32.387811 30400 net.cpp:139] Memory required for data: 2044160
I0428 20:04:32.387814 30400 layer_factory.hpp:77] Creating layer conv1
I0428 20:04:32.387825 30400 net.cpp:86] Creating Layer conv1
I0428 20:04:32.387827 30400 net.cpp:408] conv1 <- pool0
I0428 20:04:32.387831 30400 net.cpp:382] conv1 -> conv1
I0428 20:04:32.389828 30400 net.cpp:124] Setting up conv1
I0428 20:04:32.389843 30400 net.cpp:131] Top shape: 64 100 8 8 (409600)
I0428 20:04:32.389847 30400 net.cpp:139] Memory required for data: 3682560
I0428 20:04:32.389855 30400 layer_factory.hpp:77] Creating layer pool1
I0428 20:04:32.389863 30400 net.cpp:86] Creating Layer pool1
I0428 20:04:32.389866 30400 net.cpp:408] pool1 <- conv1
I0428 20:04:32.389871 30400 net.cpp:382] pool1 -> pool1
I0428 20:04:32.389909 30400 net.cpp:124] Setting up pool1
I0428 20:04:32.389914 30400 net.cpp:131] Top shape: 64 100 4 4 (102400)
I0428 20:04:32.389919 30400 net.cpp:139] Memory required for data: 4092160
I0428 20:04:32.389921 30400 layer_factory.hpp:77] Creating layer ip1
I0428 20:04:32.389927 30400 net.cpp:86] Creating Layer ip1
I0428 20:04:32.389931 30400 net.cpp:408] ip1 <- pool1
I0428 20:04:32.389935 30400 net.cpp:382] ip1 -> ip1
I0428 20:04:32.391355 30400 net.cpp:124] Setting up ip1
I0428 20:04:32.391367 30400 net.cpp:131] Top shape: 64 50 (3200)
I0428 20:04:32.391387 30400 net.cpp:139] Memory required for data: 4104960
I0428 20:04:32.391396 30400 layer_factory.hpp:77] Creating layer relu1
I0428 20:04:32.391402 30400 net.cpp:86] Creating Layer relu1
I0428 20:04:32.391405 30400 net.cpp:408] relu1 <- ip1
I0428 20:04:32.391410 30400 net.cpp:369] relu1 -> ip1 (in-place)
I0428 20:04:32.391582 30400 net.cpp:124] Setting up relu1
I0428 20:04:32.391592 30400 net.cpp:131] Top shape: 64 50 (3200)
I0428 20:04:32.391595 30400 net.cpp:139] Memory required for data: 4117760
I0428 20:04:32.391598 30400 layer_factory.hpp:77] Creating layer ip2
I0428 20:04:32.391605 30400 net.cpp:86] Creating Layer ip2
I0428 20:04:32.391608 30400 net.cpp:408] ip2 <- ip1
I0428 20:04:32.391613 30400 net.cpp:382] ip2 -> ip2
I0428 20:04:32.392590 30400 net.cpp:124] Setting up ip2
I0428 20:04:32.392601 30400 net.cpp:131] Top shape: 64 50 (3200)
I0428 20:04:32.392621 30400 net.cpp:139] Memory required for data: 4130560
I0428 20:04:32.392627 30400 layer_factory.hpp:77] Creating layer relu2
I0428 20:04:32.392633 30400 net.cpp:86] Creating Layer relu2
I0428 20:04:32.392637 30400 net.cpp:408] relu2 <- ip2
I0428 20:04:32.392642 30400 net.cpp:369] relu2 -> ip2 (in-place)
I0428 20:04:32.393411 30400 net.cpp:124] Setting up relu2
I0428 20:04:32.393424 30400 net.cpp:131] Top shape: 64 50 (3200)
I0428 20:04:32.393443 30400 net.cpp:139] Memory required for data: 4143360
I0428 20:04:32.393447 30400 layer_factory.hpp:77] Creating layer ip3
I0428 20:04:32.393455 30400 net.cpp:86] Creating Layer ip3
I0428 20:04:32.393460 30400 net.cpp:408] ip3 <- ip2
I0428 20:04:32.393465 30400 net.cpp:382] ip3 -> ip3
I0428 20:04:32.393570 30400 net.cpp:124] Setting up ip3
I0428 20:04:32.393579 30400 net.cpp:131] Top shape: 64 10 (640)
I0428 20:04:32.393582 30400 net.cpp:139] Memory required for data: 4145920
I0428 20:04:32.393590 30400 layer_factory.hpp:77] Creating layer relu3
I0428 20:04:32.393595 30400 net.cpp:86] Creating Layer relu3
I0428 20:04:32.393599 30400 net.cpp:408] relu3 <- ip3
I0428 20:04:32.393602 30400 net.cpp:369] relu3 -> ip3 (in-place)
I0428 20:04:32.393767 30400 net.cpp:124] Setting up relu3
I0428 20:04:32.393775 30400 net.cpp:131] Top shape: 64 10 (640)
I0428 20:04:32.393779 30400 net.cpp:139] Memory required for data: 4148480
I0428 20:04:32.393782 30400 layer_factory.hpp:77] Creating layer loss
I0428 20:04:32.393792 30400 net.cpp:86] Creating Layer loss
I0428 20:04:32.393796 30400 net.cpp:408] loss <- ip3
I0428 20:04:32.393800 30400 net.cpp:408] loss <- label
I0428 20:04:32.393805 30400 net.cpp:382] loss -> loss
I0428 20:04:32.393820 30400 layer_factory.hpp:77] Creating layer loss
…
I0428 20:04:32.394464 30400 solver.cpp:173] Creating test net (#0) specified by net file: ECE595/mnist/train_test/var_everything2/lenet_train_test974.prototxt
I0428 20:04:32.394517 30400 net.cpp:296] The NetState phase (1) differed from the phase (0) specified by a rule in layer mnist
I0428 20:04:32.394618 30400 net.cpp:53] Initializing net from parameters: 
name: "LeNet"
state {
  phase: TEST
}
layer {
  name: "mnist"
  type: "Data"
  top: "data"
  top: "label"
  include {
    phase: TEST
  }
  transform_param {
    scale: 0.00390625
  }
  data_param {
    source: "examples/mnist/mnist_test_lmdb"
    batch_size: 100
    backend: LMDB
  }
}
layer {
  name: "conv0"
  type: "Convolution"
  bottom: "data"
  top: "conv0"
  param {
    lr_mult: 1
  }
  param {
    lr_mult: 2
  }
  convolution_param {
    num_output: 10
    kernel_size: 5
    stride: 1
    weight_filler {
      type: "xavier"
    }
    bias_filler {
      type: "constant"
    }
  }
}
layer {
  name: "pool0"
  type: "Pooling"
  bottom: "conv0"
  top: "pool0"
  pooling_param {
    pool: MAX
    kernel_size: 2
    stride: 2
  }
}
layer {
  name: "conv1"
  type: "Convolution"
  bottom: "pool0"
  top: "conv1"
  param {
    lr_mult: 1
  }
  param {
    lr_mult: 2
  }
  convolution_param {
    num_output: 100
    kernel_size: 5
    stride: 1
    weight_filler {
      type: "xavier"
    }
    bias_filler {
      type: "constant"
    }
  }
}
layer {
  name: "pool1"
  type: "Pooling"
  bottom: "conv1"
  top: "pool1"
  pooling_param {
    pool: MAX
    kernel_size: 2
    stride: 2
  }
}
layer {
  name: "ip1"
  type: "InnerProduct"
  bottom: "pool1"
  top: "ip1"
  param {
    lr_mult: 1
  }
  param {
    lr_mult: 2
  }
  inner_product_param {
    num_output: 50
    weight_filler {
      type: "xavier"
    }
    bias_filler {
      type: "constant"
    }
  }
}
layer {
  name: "relu1"
  type: "ReLU"
  bottom: "ip1"
  top: "ip1"
}
layer {
  name: "ip2"
  type: "InnerProduct"
  bottom: "ip1"
  top: "ip2"
  param {
    lr_mult: 1
  }
  param {
    lr_mult: 2
  }
  inner_product_param {
    num_output: 50
    weight_filler {
      type: "xavier"
    }
    bias_filler {
      type: "constant"
    }
  }
}
layer {
  name: "relu2"
  type: "ReLU"
  bottom: "ip2"
  top: "ip2"
}
layer {
  name: "ip3"
  type: "InnerProduct"
  bottom: "ip2"
  top: "ip3"
  param {
    lr_mult: 1
  }
  param {
    lr_mult: 2
  }
  inner_product_param {
    num_output: 10
    weight_filler {
      type: "xavier"
    }
    bias_filler {
      type: "constant"
    }
  }
}
layer {
  name: "relu3"
  type: "ReLU"
  bottom: "ip3"
  top: "ip3"
}
layer {
  name: "accuracy"
  type: "Accuracy"
  bottom: "ip3"
  bottom: "label"
  top: "accuracy"
  include {
    phase: TEST
  }
}
layer {
  name: "loss"
  type: "SoftmaxWithLoss"
  bottom: "ip3"
  bottom: "label"
  top: "loss"
}
I0428 20:04:32.394695 30400 layer_factory.hpp:77] Creating layer mnist
I0428 20:04:32.394738 30400 db_lmdb.cpp:35] Opened lmdb examples/mnist/mnist_test_lmdb
I0428 20:04:32.394750 30400 net.cpp:86] Creating Layer mnist
I0428 20:04:32.394755 30400 net.cpp:382] mnist -> data
I0428 20:04:32.394762 30400 net.cpp:382] mnist -> label
I0428 20:04:32.394857 30400 data_layer.cpp:45] output data size: 100,1,28,28
I0428 20:04:32.396119 30400 net.cpp:124] Setting up mnist
I0428 20:04:32.396132 30400 net.cpp:131] Top shape: 100 1 28 28 (78400)
I0428 20:04:32.396137 30400 net.cpp:131] Top shape: 100 (100)
I0428 20:04:32.396142 30400 net.cpp:139] Memory required for data: 314000
I0428 20:04:32.396144 30400 layer_factory.hpp:77] Creating layer label_mnist_1_split
I0428 20:04:32.396152 30400 net.cpp:86] Creating Layer label_mnist_1_split
I0428 20:04:32.396155 30400 net.cpp:408] label_mnist_1_split <- label
I0428 20:04:32.396160 30400 net.cpp:382] label_mnist_1_split -> label_mnist_1_split_0
I0428 20:04:32.396167 30400 net.cpp:382] label_mnist_1_split -> label_mnist_1_split_1
I0428 20:04:32.396248 30400 net.cpp:124] Setting up label_mnist_1_split
I0428 20:04:32.396255 30400 net.cpp:131] Top shape: 100 (100)
I0428 20:04:32.396260 30400 net.cpp:131] Top shape: 100 (100)
I0428 20:04:32.396262 30400 net.cpp:139] Memory required for data: 314800
I0428 20:04:32.396265 30400 layer_factory.hpp:77] Creating layer conv0
I0428 20:04:32.396276 30400 net.cpp:86] Creating Layer conv0
I0428 20:04:32.396281 30400 net.cpp:408] conv0 <- data
I0428 20:04:32.396286 30400 net.cpp:382] conv0 -> conv0
I0428 20:04:32.398141 30400 net.cpp:124] Setting up conv0
I0428 20:04:32.398155 30400 net.cpp:131] Top shape: 100 10 24 24 (576000)
I0428 20:04:32.398159 30400 net.cpp:139] Memory required for data: 2618800
I0428 20:04:32.398170 30400 layer_factory.hpp:77] Creating layer pool0
I0428 20:04:32.398177 30400 net.cpp:86] Creating Layer pool0
I0428 20:04:32.398191 30400 net.cpp:408] pool0 <- conv0
I0428 20:04:32.398196 30400 net.cpp:382] pool0 -> pool0
I0428 20:04:32.398232 30400 net.cpp:124] Setting up pool0
I0428 20:04:32.398237 30400 net.cpp:131] Top shape: 100 10 12 12 (144000)
I0428 20:04:32.398241 30400 net.cpp:139] Memory required for data: 3194800
I0428 20:04:32.398243 30400 layer_factory.hpp:77] Creating layer conv1
I0428 20:04:32.398252 30400 net.cpp:86] Creating Layer conv1
I0428 20:04:32.398255 30400 net.cpp:408] conv1 <- pool0
I0428 20:04:32.398260 30400 net.cpp:382] conv1 -> conv1
I0428 20:04:32.400007 30400 net.cpp:124] Setting up conv1
I0428 20:04:32.400019 30400 net.cpp:131] Top shape: 100 100 8 8 (640000)
I0428 20:04:32.400028 30400 net.cpp:139] Memory required for data: 5754800
I0428 20:04:32.400055 30400 layer_factory.hpp:77] Creating layer pool1
I0428 20:04:32.400063 30400 net.cpp:86] Creating Layer pool1
I0428 20:04:32.400065 30400 net.cpp:408] pool1 <- conv1
I0428 20:04:32.400077 30400 net.cpp:382] pool1 -> pool1
I0428 20:04:32.400113 30400 net.cpp:124] Setting up pool1
I0428 20:04:32.400120 30400 net.cpp:131] Top shape: 100 100 4 4 (160000)
I0428 20:04:32.400123 30400 net.cpp:139] Memory required for data: 6394800
I0428 20:04:32.400126 30400 layer_factory.hpp:77] Creating layer ip1
I0428 20:04:32.400132 30400 net.cpp:86] Creating Layer ip1
I0428 20:04:32.400143 30400 net.cpp:408] ip1 <- pool1
I0428 20:04:32.400147 30400 net.cpp:382] ip1 -> ip1
I0428 20:04:32.400733 30400 net.cpp:124] Setting up ip1
I0428 20:04:32.400743 30400 net.cpp:131] Top shape: 100 50 (5000)
I0428 20:04:32.400754 30400 net.cpp:139] Memory required for data: 6414800
I0428 20:04:32.400763 30400 layer_factory.hpp:77] Creating layer relu1
I0428 20:04:32.400769 30400 net.cpp:86] Creating Layer relu1
I0428 20:04:32.400773 30400 net.cpp:408] relu1 <- ip1
I0428 20:04:32.400777 30400 net.cpp:369] relu1 -> ip1 (in-place)
I0428 20:04:32.401000 30400 net.cpp:124] Setting up relu1
I0428 20:04:32.401010 30400 net.cpp:131] Top shape: 100 50 (5000)
I0428 20:04:32.401012 30400 net.cpp:139] Memory required for data: 6434800
I0428 20:04:32.401015 30400 layer_factory.hpp:77] Creating layer ip2
I0428 20:04:32.401024 30400 net.cpp:86] Creating Layer ip2
I0428 20:04:32.401027 30400 net.cpp:408] ip2 <- ip1
I0428 20:04:32.401041 30400 net.cpp:382] ip2 -> ip2
I0428 20:04:32.401207 30400 net.cpp:124] Setting up ip2
I0428 20:04:32.401216 30400 net.cpp:131] Top shape: 100 50 (5000)
I0428 20:04:32.401218 30400 net.cpp:139] Memory required for data: 6454800
I0428 20:04:32.401224 30400 layer_factory.hpp:77] Creating layer relu2
I0428 20:04:32.401228 30400 net.cpp:86] Creating Layer relu2
I0428 20:04:32.401232 30400 net.cpp:408] relu2 <- ip2
I0428 20:04:32.401237 30400 net.cpp:369] relu2 -> ip2 (in-place)
I0428 20:04:32.401406 30400 net.cpp:124] Setting up relu2
I0428 20:04:32.401413 30400 net.cpp:131] Top shape: 100 50 (5000)
I0428 20:04:32.401423 30400 net.cpp:139] Memory required for data: 6474800
I0428 20:04:32.401427 30400 layer_factory.hpp:77] Creating layer ip3
I0428 20:04:32.401432 30400 net.cpp:86] Creating Layer ip3
I0428 20:04:32.401435 30400 net.cpp:408] ip3 <- ip2
I0428 20:04:32.401442 30400 net.cpp:382] ip3 -> ip3
I0428 20:04:32.401545 30400 net.cpp:124] Setting up ip3
I0428 20:04:32.401551 30400 net.cpp:131] Top shape: 100 10 (1000)
I0428 20:04:32.401556 30400 net.cpp:139] Memory required for data: 6478800
I0428 20:04:32.401563 30400 layer_factory.hpp:77] Creating layer relu3
I0428 20:04:32.401568 30400 net.cpp:86] Creating Layer relu3
I0428 20:04:32.401572 30400 net.cpp:408] relu3 <- ip3
I0428 20:04:32.401576 30400 net.cpp:369] relu3 -> ip3 (in-place)
I0428 20:04:32.402405 30400 net.cpp:124] Setting up relu3
I0428 20:04:32.402417 30400 net.cpp:131] Top shape: 100 10 (1000)
I0428 20:04:32.402421 30400 net.cpp:139] Memory required for data: 6482800
I0428 20:04:32.402425 30400 layer_factory.hpp:77] Creating layer ip3_relu3_0_split
I0428 20:04:32.402431 30400 net.cpp:86] Creating Layer ip3_relu3_0_split
I0428 20:04:32.402433 30400 net.cpp:408] ip3_relu3_0_split <- ip3
I0428 20:04:32.402439 30400 net.cpp:382] ip3_relu3_0_split -> ip3_relu3_0_split_0
I0428 20:04:32.402446 30400 net.cpp:382] ip3_relu3_0_split -> ip3_relu3_0_split_1
I0428 20:04:32.402516 30400 net.cpp:124] Setting up ip3_relu3_0_split
I0428 20:04:32.402523 30400 net.cpp:131] Top shape: 100 10 (1000)
I0428 20:04:32.402528 30400 net.cpp:131] Top shape: 100 10 (1000)
I0428 20:04:32.402529 30400 net.cpp:139] Memory required for data: 6490800
I0428 20:04:32.402532 30400 layer_factory.hpp:77] Creating layer accuracy
I0428 20:04:32.402544 30400 net.cpp:86] Creating Layer accuracy
I0428 20:04:32.402546 30400 net.cpp:408] accuracy <- ip3_relu3_0_split_0
I0428 20:04:32.402550 30400 net.cpp:408] accuracy <- label_mnist_1_split_0
I0428 20:04:32.402555 30400 net.cpp:382] accuracy -> accuracy
…
