…
I0428 20:00:00.704491 29377 net.cpp:296] The NetState phase (0) differed from the phase (1) specified by a rule in layer mnist
I0428 20:00:00.704521 29377 net.cpp:296] The NetState phase (0) differed from the phase (1) specified by a rule in layer accuracy
I0428 20:00:00.704594 29377 net.cpp:53] Initializing net from parameters: 
name: "LeNet"
state {
  phase: TRAIN
  level: 0
  stage: ""
}
layer {
  name: "mnist"
  type: "Data"
  top: "data"
  top: "label"
  include {
    phase: TRAIN
  }
  transform_param {
    scale: 0.00390625
  }
  data_param {
    source: "examples/mnist/mnist_train_lmdb"
    batch_size: 64
    backend: LMDB
  }
}
layer {
  name: "conv0"
  type: "Convolution"
  bottom: "data"
  top: "conv0"
  param {
    lr_mult: 1
  }
  param {
    lr_mult: 2
  }
  convolution_param {
    num_output: 10
    kernel_size: 5
    stride: 1
    weight_filler {
      type: "xavier"
    }
    bias_filler {
      type: "constant"
    }
  }
}
layer {
  name: "pool0"
  type: "Pooling"
  bottom: "conv0"
  top: "pool0"
  pooling_param {
    pool: MAX
    kernel_size: 2
    stride: 2
  }
}
layer {
  name: "conv1"
  type: "Convolution"
  bottom: "pool0"
  top: "conv1"
  param {
    lr_mult: 1
  }
  param {
    lr_mult: 2
  }
  convolution_param {
    num_output: 25
    kernel_size: 5
    stride: 1
    weight_filler {
      type: "xavier"
    }
    bias_filler {
      type: "constant"
    }
  }
}
layer {
  name: "pool1"
  type: "Pooling"
  bottom: "conv1"
  top: "pool1"
  pooling_param {
    pool: MAX
    kernel_size: 2
    stride: 2
  }
}
layer {
  name: "ip1"
  type: "InnerProduct"
  bottom: "pool1"
  top: "ip1"
  param {
    lr_mult: 1
  }
  param {
    lr_mult: 2
  }
  inner_product_param {
    num_output: 25
    weight_filler {
      type: "xavier"
    }
    bias_filler {
      type: "constant"
    }
  }
}
layer {
  name: "relu1"
  type: "ReLU"
  bottom: "ip1"
  top: "ip1"
}
layer {
  name: "ip2"
  type: "InnerProduct"
  bottom: "ip1"
  top: "ip2"
  param {
    lr_mult: 1
  }
  param {
    lr_mult: 2
  }
  inner_product_param {
    num_output: 10
    weight_filler {
      type: "xavier"
    }
    bias_filler {
      type: "constant"
    }
  }
}
layer {
  name: "relu2"
  type: "ReLU"
  bottom: "ip2"
  top: "ip2"
}
layer {
  name: "loss"
  type: "SoftmaxWithLoss"
  bottom: "ip2"
  bottom: "label"
  top: "loss"
}
I0428 20:00:00.704654 29377 layer_factory.hpp:77] Creating layer mnist
I0428 20:00:00.704732 29377 db_lmdb.cpp:35] Opened lmdb examples/mnist/mnist_train_lmdb
I0428 20:00:00.704752 29377 net.cpp:86] Creating Layer mnist
I0428 20:00:00.704758 29377 net.cpp:382] mnist -> data
I0428 20:00:00.704777 29377 net.cpp:382] mnist -> label
I0428 20:00:00.705782 29377 data_layer.cpp:45] output data size: 64,1,28,28
I0428 20:00:00.708178 29377 net.cpp:124] Setting up mnist
I0428 20:00:00.708191 29377 net.cpp:131] Top shape: 64 1 28 28 (50176)
I0428 20:00:00.708225 29377 net.cpp:131] Top shape: 64 (64)
I0428 20:00:00.708228 29377 net.cpp:139] Memory required for data: 200960
I0428 20:00:00.708235 29377 layer_factory.hpp:77] Creating layer conv0
I0428 20:00:00.708247 29377 net.cpp:86] Creating Layer conv0
I0428 20:00:00.708251 29377 net.cpp:408] conv0 <- data
I0428 20:00:00.708262 29377 net.cpp:382] conv0 -> conv0
I0428 20:00:00.937430 29377 net.cpp:124] Setting up conv0
I0428 20:00:00.937458 29377 net.cpp:131] Top shape: 64 10 24 24 (368640)
I0428 20:00:00.937461 29377 net.cpp:139] Memory required for data: 1675520
I0428 20:00:00.937490 29377 layer_factory.hpp:77] Creating layer pool0
I0428 20:00:00.937503 29377 net.cpp:86] Creating Layer pool0
I0428 20:00:00.937507 29377 net.cpp:408] pool0 <- conv0
I0428 20:00:00.937512 29377 net.cpp:382] pool0 -> pool0
I0428 20:00:00.937572 29377 net.cpp:124] Setting up pool0
I0428 20:00:00.937577 29377 net.cpp:131] Top shape: 64 10 12 12 (92160)
I0428 20:00:00.937580 29377 net.cpp:139] Memory required for data: 2044160
I0428 20:00:00.937583 29377 layer_factory.hpp:77] Creating layer conv1
I0428 20:00:00.937593 29377 net.cpp:86] Creating Layer conv1
I0428 20:00:00.937597 29377 net.cpp:408] conv1 <- pool0
I0428 20:00:00.937602 29377 net.cpp:382] conv1 -> conv1
I0428 20:00:00.940341 29377 net.cpp:124] Setting up conv1
I0428 20:00:00.940356 29377 net.cpp:131] Top shape: 64 25 8 8 (102400)
I0428 20:00:00.940359 29377 net.cpp:139] Memory required for data: 2453760
I0428 20:00:00.940367 29377 layer_factory.hpp:77] Creating layer pool1
I0428 20:00:00.940374 29377 net.cpp:86] Creating Layer pool1
I0428 20:00:00.940378 29377 net.cpp:408] pool1 <- conv1
I0428 20:00:00.940398 29377 net.cpp:382] pool1 -> pool1
I0428 20:00:00.940434 29377 net.cpp:124] Setting up pool1
I0428 20:00:00.940439 29377 net.cpp:131] Top shape: 64 25 4 4 (25600)
I0428 20:00:00.940443 29377 net.cpp:139] Memory required for data: 2556160
I0428 20:00:00.940445 29377 layer_factory.hpp:77] Creating layer ip1
I0428 20:00:00.940451 29377 net.cpp:86] Creating Layer ip1
I0428 20:00:00.940454 29377 net.cpp:408] ip1 <- pool1
I0428 20:00:00.940459 29377 net.cpp:382] ip1 -> ip1
I0428 20:00:00.940618 29377 net.cpp:124] Setting up ip1
I0428 20:00:00.940625 29377 net.cpp:131] Top shape: 64 25 (1600)
I0428 20:00:00.940629 29377 net.cpp:139] Memory required for data: 2562560
I0428 20:00:00.940635 29377 layer_factory.hpp:77] Creating layer relu1
I0428 20:00:00.940640 29377 net.cpp:86] Creating Layer relu1
I0428 20:00:00.940644 29377 net.cpp:408] relu1 <- ip1
I0428 20:00:00.940647 29377 net.cpp:369] relu1 -> ip1 (in-place)
I0428 20:00:00.940840 29377 net.cpp:124] Setting up relu1
I0428 20:00:00.940850 29377 net.cpp:131] Top shape: 64 25 (1600)
I0428 20:00:00.940852 29377 net.cpp:139] Memory required for data: 2568960
I0428 20:00:00.940855 29377 layer_factory.hpp:77] Creating layer ip2
I0428 20:00:00.940862 29377 net.cpp:86] Creating Layer ip2
I0428 20:00:00.940865 29377 net.cpp:408] ip2 <- ip1
I0428 20:00:00.940871 29377 net.cpp:382] ip2 -> ip2
I0428 20:00:00.940966 29377 net.cpp:124] Setting up ip2
I0428 20:00:00.940973 29377 net.cpp:131] Top shape: 64 10 (640)
I0428 20:00:00.940976 29377 net.cpp:139] Memory required for data: 2571520
I0428 20:00:00.940982 29377 layer_factory.hpp:77] Creating layer relu2
I0428 20:00:00.940989 29377 net.cpp:86] Creating Layer relu2
I0428 20:00:00.940991 29377 net.cpp:408] relu2 <- ip2
I0428 20:00:00.940995 29377 net.cpp:369] relu2 -> ip2 (in-place)
I0428 20:00:00.941815 29377 net.cpp:124] Setting up relu2
I0428 20:00:00.941828 29377 net.cpp:131] Top shape: 64 10 (640)
I0428 20:00:00.941831 29377 net.cpp:139] Memory required for data: 2574080
I0428 20:00:00.941834 29377 layer_factory.hpp:77] Creating layer loss
I0428 20:00:00.941840 29377 net.cpp:86] Creating Layer loss
I0428 20:00:00.941844 29377 net.cpp:408] loss <- ip2
I0428 20:00:00.941848 29377 net.cpp:408] loss <- label
I0428 20:00:00.941854 29377 net.cpp:382] loss -> loss
I0428 20:00:00.941872 29377 layer_factory.hpp:77] Creating layer loss
…
I0428 20:00:00.942441 29377 solver.cpp:173] Creating test net (#0) specified by net file: ECE595/mnist/train_test/var_everything2/lenet_train_test864.prototxt
I0428 20:00:00.942466 29377 net.cpp:296] The NetState phase (1) differed from the phase (0) specified by a rule in layer mnist
I0428 20:00:00.942558 29377 net.cpp:53] Initializing net from parameters: 
name: "LeNet"
state {
  phase: TEST
}
layer {
  name: "mnist"
  type: "Data"
  top: "data"
  top: "label"
  include {
    phase: TEST
  }
  transform_param {
    scale: 0.00390625
  }
  data_param {
    source: "examples/mnist/mnist_test_lmdb"
    batch_size: 100
    backend: LMDB
  }
}
layer {
  name: "conv0"
  type: "Convolution"
  bottom: "data"
  top: "conv0"
  param {
    lr_mult: 1
  }
  param {
    lr_mult: 2
  }
  convolution_param {
    num_output: 10
    kernel_size: 5
    stride: 1
    weight_filler {
      type: "xavier"
    }
    bias_filler {
      type: "constant"
    }
  }
}
layer {
  name: "pool0"
  type: "Pooling"
  bottom: "conv0"
  top: "pool0"
  pooling_param {
    pool: MAX
    kernel_size: 2
    stride: 2
  }
}
layer {
  name: "conv1"
  type: "Convolution"
  bottom: "pool0"
  top: "conv1"
  param {
    lr_mult: 1
  }
  param {
    lr_mult: 2
  }
  convolution_param {
    num_output: 25
    kernel_size: 5
    stride: 1
    weight_filler {
      type: "xavier"
    }
    bias_filler {
      type: "constant"
    }
  }
}
layer {
  name: "pool1"
  type: "Pooling"
  bottom: "conv1"
  top: "pool1"
  pooling_param {
    pool: MAX
    kernel_size: 2
    stride: 2
  }
}
layer {
  name: "ip1"
  type: "InnerProduct"
  bottom: "pool1"
  top: "ip1"
  param {
    lr_mult: 1
  }
  param {
    lr_mult: 2
  }
  inner_product_param {
    num_output: 25
    weight_filler {
      type: "xavier"
    }
    bias_filler {
      type: "constant"
    }
  }
}
layer {
  name: "relu1"
  type: "ReLU"
  bottom: "ip1"
  top: "ip1"
}
layer {
  name: "ip2"
  type: "InnerProduct"
  bottom: "ip1"
  top: "ip2"
  param {
    lr_mult: 1
  }
  param {
    lr_mult: 2
  }
  inner_product_param {
    num_output: 10
    weight_filler {
      type: "xavier"
    }
    bias_filler {
      type: "constant"
    }
  }
}
layer {
  name: "relu2"
  type: "ReLU"
  bottom: "ip2"
  top: "ip2"
}
layer {
  name: "accuracy"
  type: "Accuracy"
  bottom: "ip2"
  bottom: "label"
  top: "accuracy"
  include {
    phase: TEST
  }
}
layer {
  name: "loss"
  type: "SoftmaxWithLoss"
  bottom: "ip2"
  bottom: "label"
  top: "loss"
}
I0428 20:00:00.942616 29377 layer_factory.hpp:77] Creating layer mnist
I0428 20:00:00.942659 29377 db_lmdb.cpp:35] Opened lmdb examples/mnist/mnist_test_lmdb
I0428 20:00:00.942670 29377 net.cpp:86] Creating Layer mnist
I0428 20:00:00.942675 29377 net.cpp:382] mnist -> data
I0428 20:00:00.942682 29377 net.cpp:382] mnist -> label
I0428 20:00:00.942775 29377 data_layer.cpp:45] output data size: 100,1,28,28
I0428 20:00:00.944782 29377 net.cpp:124] Setting up mnist
I0428 20:00:00.944830 29377 net.cpp:131] Top shape: 100 1 28 28 (78400)
I0428 20:00:00.944835 29377 net.cpp:131] Top shape: 100 (100)
I0428 20:00:00.944839 29377 net.cpp:139] Memory required for data: 314000
I0428 20:00:00.944842 29377 layer_factory.hpp:77] Creating layer label_mnist_1_split
I0428 20:00:00.944856 29377 net.cpp:86] Creating Layer label_mnist_1_split
I0428 20:00:00.944859 29377 net.cpp:408] label_mnist_1_split <- label
I0428 20:00:00.944864 29377 net.cpp:382] label_mnist_1_split -> label_mnist_1_split_0
I0428 20:00:00.944871 29377 net.cpp:382] label_mnist_1_split -> label_mnist_1_split_1
I0428 20:00:00.944924 29377 net.cpp:124] Setting up label_mnist_1_split
I0428 20:00:00.944931 29377 net.cpp:131] Top shape: 100 (100)
I0428 20:00:00.944934 29377 net.cpp:131] Top shape: 100 (100)
I0428 20:00:00.944936 29377 net.cpp:139] Memory required for data: 314800
I0428 20:00:00.944939 29377 layer_factory.hpp:77] Creating layer conv0
I0428 20:00:00.944948 29377 net.cpp:86] Creating Layer conv0
I0428 20:00:00.944952 29377 net.cpp:408] conv0 <- data
I0428 20:00:00.944955 29377 net.cpp:382] conv0 -> conv0
I0428 20:00:00.946552 29377 net.cpp:124] Setting up conv0
I0428 20:00:00.946564 29377 net.cpp:131] Top shape: 100 10 24 24 (576000)
I0428 20:00:00.946568 29377 net.cpp:139] Memory required for data: 2618800
I0428 20:00:00.946576 29377 layer_factory.hpp:77] Creating layer pool0
I0428 20:00:00.946583 29377 net.cpp:86] Creating Layer pool0
I0428 20:00:00.946600 29377 net.cpp:408] pool0 <- conv0
I0428 20:00:00.946605 29377 net.cpp:382] pool0 -> pool0
I0428 20:00:00.946650 29377 net.cpp:124] Setting up pool0
I0428 20:00:00.946655 29377 net.cpp:131] Top shape: 100 10 12 12 (144000)
I0428 20:00:00.946657 29377 net.cpp:139] Memory required for data: 3194800
I0428 20:00:00.946660 29377 layer_factory.hpp:77] Creating layer conv1
I0428 20:00:00.946667 29377 net.cpp:86] Creating Layer conv1
I0428 20:00:00.946669 29377 net.cpp:408] conv1 <- pool0
I0428 20:00:00.946674 29377 net.cpp:382] conv1 -> conv1
I0428 20:00:00.948596 29377 net.cpp:124] Setting up conv1
I0428 20:00:00.948608 29377 net.cpp:131] Top shape: 100 25 8 8 (160000)
I0428 20:00:00.948612 29377 net.cpp:139] Memory required for data: 3834800
I0428 20:00:00.948629 29377 layer_factory.hpp:77] Creating layer pool1
I0428 20:00:00.948637 29377 net.cpp:86] Creating Layer pool1
I0428 20:00:00.948639 29377 net.cpp:408] pool1 <- conv1
I0428 20:00:00.948645 29377 net.cpp:382] pool1 -> pool1
I0428 20:00:00.948720 29377 net.cpp:124] Setting up pool1
I0428 20:00:00.948729 29377 net.cpp:131] Top shape: 100 25 4 4 (40000)
I0428 20:00:00.948731 29377 net.cpp:139] Memory required for data: 3994800
I0428 20:00:00.948734 29377 layer_factory.hpp:77] Creating layer ip1
I0428 20:00:00.948755 29377 net.cpp:86] Creating Layer ip1
I0428 20:00:00.948760 29377 net.cpp:408] ip1 <- pool1
I0428 20:00:00.948778 29377 net.cpp:382] ip1 -> ip1
I0428 20:00:00.948989 29377 net.cpp:124] Setting up ip1
I0428 20:00:00.948997 29377 net.cpp:131] Top shape: 100 25 (2500)
I0428 20:00:00.949002 29377 net.cpp:139] Memory required for data: 4004800
I0428 20:00:00.949021 29377 layer_factory.hpp:77] Creating layer relu1
I0428 20:00:00.949026 29377 net.cpp:86] Creating Layer relu1
I0428 20:00:00.949035 29377 net.cpp:408] relu1 <- ip1
I0428 20:00:00.949040 29377 net.cpp:369] relu1 -> ip1 (in-place)
I0428 20:00:00.949254 29377 net.cpp:124] Setting up relu1
I0428 20:00:00.949261 29377 net.cpp:131] Top shape: 100 25 (2500)
I0428 20:00:00.949265 29377 net.cpp:139] Memory required for data: 4014800
I0428 20:00:00.949267 29377 layer_factory.hpp:77] Creating layer ip2
I0428 20:00:00.949273 29377 net.cpp:86] Creating Layer ip2
I0428 20:00:00.949276 29377 net.cpp:408] ip2 <- ip1
I0428 20:00:00.949281 29377 net.cpp:382] ip2 -> ip2
I0428 20:00:00.949373 29377 net.cpp:124] Setting up ip2
I0428 20:00:00.949379 29377 net.cpp:131] Top shape: 100 10 (1000)
I0428 20:00:00.949383 29377 net.cpp:139] Memory required for data: 4018800
I0428 20:00:00.949388 29377 layer_factory.hpp:77] Creating layer relu2
I0428 20:00:00.949391 29377 net.cpp:86] Creating Layer relu2
I0428 20:00:00.949401 29377 net.cpp:408] relu2 <- ip2
I0428 20:00:00.949405 29377 net.cpp:369] relu2 -> ip2 (in-place)
I0428 20:00:00.949618 29377 net.cpp:124] Setting up relu2
I0428 20:00:00.949628 29377 net.cpp:131] Top shape: 100 10 (1000)
I0428 20:00:00.949637 29377 net.cpp:139] Memory required for data: 4022800
I0428 20:00:00.949641 29377 layer_factory.hpp:77] Creating layer ip2_relu2_0_split
I0428 20:00:00.949646 29377 net.cpp:86] Creating Layer ip2_relu2_0_split
I0428 20:00:00.949650 29377 net.cpp:408] ip2_relu2_0_split <- ip2
I0428 20:00:00.949661 29377 net.cpp:382] ip2_relu2_0_split -> ip2_relu2_0_split_0
I0428 20:00:00.949678 29377 net.cpp:382] ip2_relu2_0_split -> ip2_relu2_0_split_1
I0428 20:00:00.949715 29377 net.cpp:124] Setting up ip2_relu2_0_split
I0428 20:00:00.949720 29377 net.cpp:131] Top shape: 100 10 (1000)
I0428 20:00:00.949725 29377 net.cpp:131] Top shape: 100 10 (1000)
I0428 20:00:00.949733 29377 net.cpp:139] Memory required for data: 4030800
I0428 20:00:00.949736 29377 layer_factory.hpp:77] Creating layer accuracy
I0428 20:00:00.949743 29377 net.cpp:86] Creating Layer accuracy
I0428 20:00:00.949753 29377 net.cpp:408] accuracy <- ip2_relu2_0_split_0
I0428 20:00:00.949756 29377 net.cpp:408] accuracy <- label_mnist_1_split_0
I0428 20:00:00.949762 29377 net.cpp:382] accuracy -> accuracy
…
