…
I0428 19:32:19.290233 22808 net.cpp:296] The NetState phase (0) differed from the phase (1) specified by a rule in layer mnist
I0428 19:32:19.290251 22808 net.cpp:296] The NetState phase (0) differed from the phase (1) specified by a rule in layer accuracy
I0428 19:32:19.290338 22808 net.cpp:53] Initializing net from parameters: 
name: "LeNet"
state {
  phase: TRAIN
  level: 0
  stage: ""
}
layer {
  name: "mnist"
  type: "Data"
  top: "data"
  top: "label"
  include {
    phase: TRAIN
  }
  transform_param {
    scale: 0.00390625
  }
  data_param {
    source: "examples/mnist/mnist_train_lmdb"
    batch_size: 64
    backend: LMDB
  }
}
layer {
  name: "conv0"
  type: "Convolution"
  bottom: "data"
  top: "conv0"
  param {
    lr_mult: 1
  }
  param {
    lr_mult: 2
  }
  convolution_param {
    num_output: 10
    kernel_size: 5
    stride: 1
    weight_filler {
      type: "xavier"
    }
    bias_filler {
      type: "constant"
    }
  }
}
layer {
  name: "pool0"
  type: "Pooling"
  bottom: "conv0"
  top: "pool0"
  pooling_param {
    pool: MAX
    kernel_size: 2
    stride: 2
  }
}
layer {
  name: "ip1"
  type: "InnerProduct"
  bottom: "pool0"
  top: "ip1"
  param {
    lr_mult: 1
  }
  param {
    lr_mult: 2
  }
  inner_product_param {
    num_output: 50
    weight_filler {
      type: "xavier"
    }
    bias_filler {
      type: "constant"
    }
  }
}
layer {
  name: "relu1"
  type: "ReLU"
  bottom: "ip1"
  top: "ip1"
}
layer {
  name: "ip2"
  type: "InnerProduct"
  bottom: "ip1"
  top: "ip2"
  param {
    lr_mult: 1
  }
  param {
    lr_mult: 2
  }
  inner_product_param {
    num_output: 10
    weight_filler {
      type: "xavier"
    }
    bias_filler {
      type: "constant"
    }
  }
}
layer {
  name: "relu2"
  type: "ReLU"
  bottom: "ip2"
  top: "ip2"
}
layer {
  name: "ip3"
  type: "InnerProduct"
  bottom: "ip2"
  top: "ip3"
  param {
    lr_mult: 1
  }
  param {
    lr_mult: 2
  }
  inner_product_param {
    num_output: 10
    weight_filler {
      type: "xavier"
    }
    bias_filler {
      type: "constant"
    }
  }
}
layer {
  name: "relu3"
  type: "ReLU"
  bottom: "ip3"
  top: "ip3"
}
layer {
  name: "loss"
  type: "SoftmaxWithLoss"
  bottom: "ip3"
  bottom: "label"
  top: "loss"
}
I0428 19:32:19.290412 22808 layer_factory.hpp:77] Creating layer mnist
I0428 19:32:19.290513 22808 db_lmdb.cpp:35] Opened lmdb examples/mnist/mnist_train_lmdb
I0428 19:32:19.290537 22808 net.cpp:86] Creating Layer mnist
I0428 19:32:19.290545 22808 net.cpp:382] mnist -> data
I0428 19:32:19.290572 22808 net.cpp:382] mnist -> label
I0428 19:32:19.291664 22808 data_layer.cpp:45] output data size: 64,1,28,28
I0428 19:32:19.294133 22808 net.cpp:124] Setting up mnist
I0428 19:32:19.294152 22808 net.cpp:131] Top shape: 64 1 28 28 (50176)
I0428 19:32:19.294162 22808 net.cpp:131] Top shape: 64 (64)
I0428 19:32:19.294167 22808 net.cpp:139] Memory required for data: 200960
I0428 19:32:19.294173 22808 layer_factory.hpp:77] Creating layer conv0
I0428 19:32:19.294191 22808 net.cpp:86] Creating Layer conv0
I0428 19:32:19.294198 22808 net.cpp:408] conv0 <- data
I0428 19:32:19.294209 22808 net.cpp:382] conv0 -> conv0
I0428 19:32:19.583652 22808 net.cpp:124] Setting up conv0
I0428 19:32:19.583683 22808 net.cpp:131] Top shape: 64 10 24 24 (368640)
I0428 19:32:19.583686 22808 net.cpp:139] Memory required for data: 1675520
I0428 19:32:19.583701 22808 layer_factory.hpp:77] Creating layer pool0
I0428 19:32:19.583714 22808 net.cpp:86] Creating Layer pool0
I0428 19:32:19.583739 22808 net.cpp:408] pool0 <- conv0
I0428 19:32:19.583745 22808 net.cpp:382] pool0 -> pool0
I0428 19:32:19.583794 22808 net.cpp:124] Setting up pool0
I0428 19:32:19.583801 22808 net.cpp:131] Top shape: 64 10 12 12 (92160)
I0428 19:32:19.583804 22808 net.cpp:139] Memory required for data: 2044160
I0428 19:32:19.583807 22808 layer_factory.hpp:77] Creating layer ip1
I0428 19:32:19.583816 22808 net.cpp:86] Creating Layer ip1
I0428 19:32:19.583818 22808 net.cpp:408] ip1 <- pool0
I0428 19:32:19.583823 22808 net.cpp:382] ip1 -> ip1
I0428 19:32:19.585222 22808 net.cpp:124] Setting up ip1
I0428 19:32:19.585235 22808 net.cpp:131] Top shape: 64 50 (3200)
I0428 19:32:19.585239 22808 net.cpp:139] Memory required for data: 2056960
I0428 19:32:19.585247 22808 layer_factory.hpp:77] Creating layer relu1
I0428 19:32:19.585254 22808 net.cpp:86] Creating Layer relu1
I0428 19:32:19.585258 22808 net.cpp:408] relu1 <- ip1
I0428 19:32:19.585263 22808 net.cpp:369] relu1 -> ip1 (in-place)
I0428 19:32:19.585441 22808 net.cpp:124] Setting up relu1
I0428 19:32:19.585451 22808 net.cpp:131] Top shape: 64 50 (3200)
I0428 19:32:19.585454 22808 net.cpp:139] Memory required for data: 2069760
I0428 19:32:19.585458 22808 layer_factory.hpp:77] Creating layer ip2
I0428 19:32:19.585464 22808 net.cpp:86] Creating Layer ip2
I0428 19:32:19.585467 22808 net.cpp:408] ip2 <- ip1
I0428 19:32:19.585474 22808 net.cpp:382] ip2 -> ip2
I0428 19:32:19.585574 22808 net.cpp:124] Setting up ip2
I0428 19:32:19.585582 22808 net.cpp:131] Top shape: 64 10 (640)
I0428 19:32:19.585584 22808 net.cpp:139] Memory required for data: 2072320
I0428 19:32:19.585592 22808 layer_factory.hpp:77] Creating layer relu2
I0428 19:32:19.585597 22808 net.cpp:86] Creating Layer relu2
I0428 19:32:19.585600 22808 net.cpp:408] relu2 <- ip2
I0428 19:32:19.585604 22808 net.cpp:369] relu2 -> ip2 (in-place)
I0428 19:32:19.586366 22808 net.cpp:124] Setting up relu2
I0428 19:32:19.586379 22808 net.cpp:131] Top shape: 64 10 (640)
I0428 19:32:19.586382 22808 net.cpp:139] Memory required for data: 2074880
I0428 19:32:19.586386 22808 layer_factory.hpp:77] Creating layer ip3
I0428 19:32:19.586393 22808 net.cpp:86] Creating Layer ip3
I0428 19:32:19.586396 22808 net.cpp:408] ip3 <- ip2
I0428 19:32:19.586402 22808 net.cpp:382] ip3 -> ip3
I0428 19:32:19.586505 22808 net.cpp:124] Setting up ip3
I0428 19:32:19.586513 22808 net.cpp:131] Top shape: 64 10 (640)
I0428 19:32:19.586516 22808 net.cpp:139] Memory required for data: 2077440
I0428 19:32:19.586522 22808 layer_factory.hpp:77] Creating layer relu3
I0428 19:32:19.586529 22808 net.cpp:86] Creating Layer relu3
I0428 19:32:19.586531 22808 net.cpp:408] relu3 <- ip3
I0428 19:32:19.586536 22808 net.cpp:369] relu3 -> ip3 (in-place)
I0428 19:32:19.586693 22808 net.cpp:124] Setting up relu3
I0428 19:32:19.586701 22808 net.cpp:131] Top shape: 64 10 (640)
I0428 19:32:19.586704 22808 net.cpp:139] Memory required for data: 2080000
I0428 19:32:19.586709 22808 layer_factory.hpp:77] Creating layer loss
I0428 19:32:19.586714 22808 net.cpp:86] Creating Layer loss
I0428 19:32:19.586717 22808 net.cpp:408] loss <- ip3
I0428 19:32:19.586722 22808 net.cpp:408] loss <- label
I0428 19:32:19.586727 22808 net.cpp:382] loss -> loss
I0428 19:32:19.586746 22808 layer_factory.hpp:77] Creating layer loss
…
I0428 19:32:19.587355 22808 solver.cpp:173] Creating test net (#0) specified by net file: ECE595/mnist/train_test/var_everything2/lenet_train_test149.prototxt
I0428 19:32:19.587383 22808 net.cpp:296] The NetState phase (1) differed from the phase (0) specified by a rule in layer mnist
I0428 19:32:19.587468 22808 net.cpp:53] Initializing net from parameters: 
name: "LeNet"
state {
  phase: TEST
}
layer {
  name: "mnist"
  type: "Data"
  top: "data"
  top: "label"
  include {
    phase: TEST
  }
  transform_param {
    scale: 0.00390625
  }
  data_param {
    source: "examples/mnist/mnist_test_lmdb"
    batch_size: 100
    backend: LMDB
  }
}
layer {
  name: "conv0"
  type: "Convolution"
  bottom: "data"
  top: "conv0"
  param {
    lr_mult: 1
  }
  param {
    lr_mult: 2
  }
  convolution_param {
    num_output: 10
    kernel_size: 5
    stride: 1
    weight_filler {
      type: "xavier"
    }
    bias_filler {
      type: "constant"
    }
  }
}
layer {
  name: "pool0"
  type: "Pooling"
  bottom: "conv0"
  top: "pool0"
  pooling_param {
    pool: MAX
    kernel_size: 2
    stride: 2
  }
}
layer {
  name: "ip1"
  type: "InnerProduct"
  bottom: "pool0"
  top: "ip1"
  param {
    lr_mult: 1
  }
  param {
    lr_mult: 2
  }
  inner_product_param {
    num_output: 50
    weight_filler {
      type: "xavier"
    }
    bias_filler {
      type: "constant"
    }
  }
}
layer {
  name: "relu1"
  type: "ReLU"
  bottom: "ip1"
  top: "ip1"
}
layer {
  name: "ip2"
  type: "InnerProduct"
  bottom: "ip1"
  top: "ip2"
  param {
    lr_mult: 1
  }
  param {
    lr_mult: 2
  }
  inner_product_param {
    num_output: 10
    weight_filler {
      type: "xavier"
    }
    bias_filler {
      type: "constant"
    }
  }
}
layer {
  name: "relu2"
  type: "ReLU"
  bottom: "ip2"
  top: "ip2"
}
layer {
  name: "ip3"
  type: "InnerProduct"
  bottom: "ip2"
  top: "ip3"
  param {
    lr_mult: 1
  }
  param {
    lr_mult: 2
  }
  inner_product_param {
    num_output: 10
    weight_filler {
      type: "xavier"
    }
    bias_filler {
      type: "constant"
    }
  }
}
layer {
  name: "relu3"
  type: "ReLU"
  bottom: "ip3"
  top: "ip3"
}
layer {
  name: "accuracy"
  type: "Accuracy"
  bottom: "ip3"
  bottom: "label"
  top: "accuracy"
  include {
    phase: TEST
  }
}
layer {
  name: "loss"
  type: "SoftmaxWithLoss"
  bottom: "ip3"
  bottom: "label"
  top: "loss"
}
I0428 19:32:19.587533 22808 layer_factory.hpp:77] Creating layer mnist
I0428 19:32:19.587579 22808 db_lmdb.cpp:35] Opened lmdb examples/mnist/mnist_test_lmdb
I0428 19:32:19.587594 22808 net.cpp:86] Creating Layer mnist
I0428 19:32:19.587597 22808 net.cpp:382] mnist -> data
I0428 19:32:19.587605 22808 net.cpp:382] mnist -> label
I0428 19:32:19.587693 22808 data_layer.cpp:45] output data size: 100,1,28,28
I0428 19:32:19.588816 22808 net.cpp:124] Setting up mnist
I0428 19:32:19.588856 22808 net.cpp:131] Top shape: 100 1 28 28 (78400)
I0428 19:32:19.588861 22808 net.cpp:131] Top shape: 100 (100)
I0428 19:32:19.588865 22808 net.cpp:139] Memory required for data: 314000
I0428 19:32:19.588868 22808 layer_factory.hpp:77] Creating layer label_mnist_1_split
I0428 19:32:19.588899 22808 net.cpp:86] Creating Layer label_mnist_1_split
I0428 19:32:19.588904 22808 net.cpp:408] label_mnist_1_split <- label
I0428 19:32:19.588909 22808 net.cpp:382] label_mnist_1_split -> label_mnist_1_split_0
I0428 19:32:19.588917 22808 net.cpp:382] label_mnist_1_split -> label_mnist_1_split_1
I0428 19:32:19.588963 22808 net.cpp:124] Setting up label_mnist_1_split
I0428 19:32:19.588968 22808 net.cpp:131] Top shape: 100 (100)
I0428 19:32:19.588973 22808 net.cpp:131] Top shape: 100 (100)
I0428 19:32:19.588975 22808 net.cpp:139] Memory required for data: 314800
I0428 19:32:19.588989 22808 layer_factory.hpp:77] Creating layer conv0
I0428 19:32:19.588999 22808 net.cpp:86] Creating Layer conv0
I0428 19:32:19.589001 22808 net.cpp:408] conv0 <- data
I0428 19:32:19.589007 22808 net.cpp:382] conv0 -> conv0
I0428 19:32:19.590878 22808 net.cpp:124] Setting up conv0
I0428 19:32:19.590891 22808 net.cpp:131] Top shape: 100 10 24 24 (576000)
I0428 19:32:19.590894 22808 net.cpp:139] Memory required for data: 2618800
I0428 19:32:19.590903 22808 layer_factory.hpp:77] Creating layer pool0
I0428 19:32:19.590910 22808 net.cpp:86] Creating Layer pool0
I0428 19:32:19.590914 22808 net.cpp:408] pool0 <- conv0
I0428 19:32:19.590919 22808 net.cpp:382] pool0 -> pool0
I0428 19:32:19.590955 22808 net.cpp:124] Setting up pool0
I0428 19:32:19.590961 22808 net.cpp:131] Top shape: 100 10 12 12 (144000)
I0428 19:32:19.590965 22808 net.cpp:139] Memory required for data: 3194800
I0428 19:32:19.590967 22808 layer_factory.hpp:77] Creating layer ip1
I0428 19:32:19.590973 22808 net.cpp:86] Creating Layer ip1
I0428 19:32:19.590976 22808 net.cpp:408] ip1 <- pool0
I0428 19:32:19.590982 22808 net.cpp:382] ip1 -> ip1
I0428 19:32:19.591500 22808 net.cpp:124] Setting up ip1
I0428 19:32:19.591506 22808 net.cpp:131] Top shape: 100 50 (5000)
I0428 19:32:19.591509 22808 net.cpp:139] Memory required for data: 3214800
I0428 19:32:19.591517 22808 layer_factory.hpp:77] Creating layer relu1
I0428 19:32:19.591523 22808 net.cpp:86] Creating Layer relu1
I0428 19:32:19.591526 22808 net.cpp:408] relu1 <- ip1
I0428 19:32:19.591531 22808 net.cpp:369] relu1 -> ip1 (in-place)
I0428 19:32:19.591732 22808 net.cpp:124] Setting up relu1
I0428 19:32:19.591740 22808 net.cpp:131] Top shape: 100 50 (5000)
I0428 19:32:19.591744 22808 net.cpp:139] Memory required for data: 3234800
I0428 19:32:19.591747 22808 layer_factory.hpp:77] Creating layer ip2
I0428 19:32:19.591753 22808 net.cpp:86] Creating Layer ip2
I0428 19:32:19.591756 22808 net.cpp:408] ip2 <- ip1
I0428 19:32:19.591761 22808 net.cpp:382] ip2 -> ip2
I0428 19:32:19.591910 22808 net.cpp:124] Setting up ip2
I0428 19:32:19.591918 22808 net.cpp:131] Top shape: 100 10 (1000)
I0428 19:32:19.591922 22808 net.cpp:139] Memory required for data: 3238800
I0428 19:32:19.591928 22808 layer_factory.hpp:77] Creating layer relu2
I0428 19:32:19.591935 22808 net.cpp:86] Creating Layer relu2
I0428 19:32:19.591938 22808 net.cpp:408] relu2 <- ip2
I0428 19:32:19.591943 22808 net.cpp:369] relu2 -> ip2 (in-place)
I0428 19:32:19.592814 22808 net.cpp:124] Setting up relu2
I0428 19:32:19.592859 22808 net.cpp:131] Top shape: 100 10 (1000)
I0428 19:32:19.592862 22808 net.cpp:139] Memory required for data: 3242800
I0428 19:32:19.592866 22808 layer_factory.hpp:77] Creating layer ip3
I0428 19:32:19.592876 22808 net.cpp:86] Creating Layer ip3
I0428 19:32:19.592880 22808 net.cpp:408] ip3 <- ip2
I0428 19:32:19.592886 22808 net.cpp:382] ip3 -> ip3
I0428 19:32:19.593000 22808 net.cpp:124] Setting up ip3
I0428 19:32:19.593009 22808 net.cpp:131] Top shape: 100 10 (1000)
I0428 19:32:19.593013 22808 net.cpp:139] Memory required for data: 3246800
I0428 19:32:19.593019 22808 layer_factory.hpp:77] Creating layer relu3
I0428 19:32:19.593025 22808 net.cpp:86] Creating Layer relu3
I0428 19:32:19.593029 22808 net.cpp:408] relu3 <- ip3
I0428 19:32:19.593034 22808 net.cpp:369] relu3 -> ip3 (in-place)
I0428 19:32:19.593240 22808 net.cpp:124] Setting up relu3
I0428 19:32:19.593248 22808 net.cpp:131] Top shape: 100 10 (1000)
I0428 19:32:19.593251 22808 net.cpp:139] Memory required for data: 3250800
I0428 19:32:19.593255 22808 layer_factory.hpp:77] Creating layer ip3_relu3_0_split
I0428 19:32:19.593261 22808 net.cpp:86] Creating Layer ip3_relu3_0_split
I0428 19:32:19.593263 22808 net.cpp:408] ip3_relu3_0_split <- ip3
I0428 19:32:19.593268 22808 net.cpp:382] ip3_relu3_0_split -> ip3_relu3_0_split_0
I0428 19:32:19.593276 22808 net.cpp:382] ip3_relu3_0_split -> ip3_relu3_0_split_1
I0428 19:32:19.593324 22808 net.cpp:124] Setting up ip3_relu3_0_split
I0428 19:32:19.593333 22808 net.cpp:131] Top shape: 100 10 (1000)
I0428 19:32:19.593336 22808 net.cpp:131] Top shape: 100 10 (1000)
I0428 19:32:19.593350 22808 net.cpp:139] Memory required for data: 3258800
I0428 19:32:19.593353 22808 layer_factory.hpp:77] Creating layer accuracy
I0428 19:32:19.593359 22808 net.cpp:86] Creating Layer accuracy
I0428 19:32:19.593364 22808 net.cpp:408] accuracy <- ip3_relu3_0_split_0
I0428 19:32:19.593367 22808 net.cpp:408] accuracy <- label_mnist_1_split_0
I0428 19:32:19.593372 22808 net.cpp:382] accuracy -> accuracy
…
