…
I0428 19:40:35.901449 24587 net.cpp:296] The NetState phase (0) differed from the phase (1) specified by a rule in layer mnist
I0428 19:40:35.901466 24587 net.cpp:296] The NetState phase (0) differed from the phase (1) specified by a rule in layer accuracy
I0428 19:40:35.901563 24587 net.cpp:53] Initializing net from parameters: 
name: "LeNet"
state {
  phase: TRAIN
  level: 0
  stage: ""
}
layer {
  name: "mnist"
  type: "Data"
  top: "data"
  top: "label"
  include {
    phase: TRAIN
  }
  transform_param {
    scale: 0.00390625
  }
  data_param {
    source: "examples/mnist/mnist_train_lmdb"
    batch_size: 64
    backend: LMDB
  }
}
layer {
  name: "conv0"
  type: "Convolution"
  bottom: "data"
  top: "conv0"
  param {
    lr_mult: 1
  }
  param {
    lr_mult: 2
  }
  convolution_param {
    num_output: 2
    kernel_size: 5
    stride: 1
    weight_filler {
      type: "xavier"
    }
    bias_filler {
      type: "constant"
    }
  }
}
layer {
  name: "pool0"
  type: "Pooling"
  bottom: "conv0"
  top: "pool0"
  pooling_param {
    pool: MAX
    kernel_size: 2
    stride: 2
  }
}
layer {
  name: "conv1"
  type: "Convolution"
  bottom: "pool0"
  top: "conv1"
  param {
    lr_mult: 1
  }
  param {
    lr_mult: 2
  }
  convolution_param {
    num_output: 5
    kernel_size: 5
    stride: 1
    weight_filler {
      type: "xavier"
    }
    bias_filler {
      type: "constant"
    }
  }
}
layer {
  name: "pool1"
  type: "Pooling"
  bottom: "conv1"
  top: "pool1"
  pooling_param {
    pool: MAX
    kernel_size: 2
    stride: 2
  }
}
layer {
  name: "ip1"
  type: "InnerProduct"
  bottom: "pool1"
  top: "ip1"
  param {
    lr_mult: 1
  }
  param {
    lr_mult: 2
  }
  inner_product_param {
    num_output: 25
    weight_filler {
      type: "xavier"
    }
    bias_filler {
      type: "constant"
    }
  }
}
layer {
  name: "relu1"
  type: "ReLU"
  bottom: "ip1"
  top: "ip1"
}
layer {
  name: "ip2"
  type: "InnerProduct"
  bottom: "ip1"
  top: "ip2"
  param {
    lr_mult: 1
  }
  param {
    lr_mult: 2
  }
  inner_product_param {
    num_output: 50
    weight_filler {
      type: "xavier"
    }
    bias_filler {
      type: "constant"
    }
  }
}
layer {
  name: "relu2"
  type: "ReLU"
  bottom: "ip2"
  top: "ip2"
}
layer {
  name: "ip3"
  type: "InnerProduct"
  bottom: "ip2"
  top: "ip3"
  param {
    lr_mult: 1
  }
  param {
    lr_mult: 2
  }
  inner_product_param {
    num_output: 10
    weight_filler {
      type: "xavier"
    }
    bias_filler {
      type: "constant"
    }
  }
}
layer {
  name: "relu3"
  type: "ReLU"
  bottom: "ip3"
  top: "ip3"
}
layer {
  name: "loss"
  type: "SoftmaxWithLoss"
  bottom: "ip3"
  bottom: "label"
  top: "loss"
}
I0428 19:40:35.901638 24587 layer_factory.hpp:77] Creating layer mnist
I0428 19:40:35.901734 24587 db_lmdb.cpp:35] Opened lmdb examples/mnist/mnist_train_lmdb
I0428 19:40:35.901758 24587 net.cpp:86] Creating Layer mnist
I0428 19:40:35.901767 24587 net.cpp:382] mnist -> data
I0428 19:40:35.901788 24587 net.cpp:382] mnist -> label
I0428 19:40:35.902880 24587 data_layer.cpp:45] output data size: 64,1,28,28
I0428 19:40:35.905320 24587 net.cpp:124] Setting up mnist
I0428 19:40:35.905338 24587 net.cpp:131] Top shape: 64 1 28 28 (50176)
I0428 19:40:35.905344 24587 net.cpp:131] Top shape: 64 (64)
I0428 19:40:35.905349 24587 net.cpp:139] Memory required for data: 200960
I0428 19:40:35.905355 24587 layer_factory.hpp:77] Creating layer conv0
I0428 19:40:35.905370 24587 net.cpp:86] Creating Layer conv0
I0428 19:40:35.905392 24587 net.cpp:408] conv0 <- data
I0428 19:40:35.905405 24587 net.cpp:382] conv0 -> conv0
I0428 19:40:36.192580 24587 net.cpp:124] Setting up conv0
I0428 19:40:36.192607 24587 net.cpp:131] Top shape: 64 2 24 24 (73728)
I0428 19:40:36.192612 24587 net.cpp:139] Memory required for data: 495872
I0428 19:40:36.192626 24587 layer_factory.hpp:77] Creating layer pool0
I0428 19:40:36.192641 24587 net.cpp:86] Creating Layer pool0
I0428 19:40:36.192643 24587 net.cpp:408] pool0 <- conv0
I0428 19:40:36.192649 24587 net.cpp:382] pool0 -> pool0
I0428 19:40:36.192695 24587 net.cpp:124] Setting up pool0
I0428 19:40:36.192709 24587 net.cpp:131] Top shape: 64 2 12 12 (18432)
I0428 19:40:36.192713 24587 net.cpp:139] Memory required for data: 569600
I0428 19:40:36.192715 24587 layer_factory.hpp:77] Creating layer conv1
I0428 19:40:36.192725 24587 net.cpp:86] Creating Layer conv1
I0428 19:40:36.192728 24587 net.cpp:408] conv1 <- pool0
I0428 19:40:36.192734 24587 net.cpp:382] conv1 -> conv1
I0428 19:40:36.194530 24587 net.cpp:124] Setting up conv1
I0428 19:40:36.194555 24587 net.cpp:131] Top shape: 64 5 8 8 (20480)
I0428 19:40:36.194560 24587 net.cpp:139] Memory required for data: 651520
I0428 19:40:36.194568 24587 layer_factory.hpp:77] Creating layer pool1
I0428 19:40:36.194592 24587 net.cpp:86] Creating Layer pool1
I0428 19:40:36.194597 24587 net.cpp:408] pool1 <- conv1
I0428 19:40:36.194602 24587 net.cpp:382] pool1 -> pool1
I0428 19:40:36.194641 24587 net.cpp:124] Setting up pool1
I0428 19:40:36.194648 24587 net.cpp:131] Top shape: 64 5 4 4 (5120)
I0428 19:40:36.194651 24587 net.cpp:139] Memory required for data: 672000
I0428 19:40:36.194654 24587 layer_factory.hpp:77] Creating layer ip1
I0428 19:40:36.194661 24587 net.cpp:86] Creating Layer ip1
I0428 19:40:36.194665 24587 net.cpp:408] ip1 <- pool1
I0428 19:40:36.194670 24587 net.cpp:382] ip1 -> ip1
I0428 19:40:36.195663 24587 net.cpp:124] Setting up ip1
I0428 19:40:36.195677 24587 net.cpp:131] Top shape: 64 25 (1600)
I0428 19:40:36.195696 24587 net.cpp:139] Memory required for data: 678400
I0428 19:40:36.195705 24587 layer_factory.hpp:77] Creating layer relu1
I0428 19:40:36.195713 24587 net.cpp:86] Creating Layer relu1
I0428 19:40:36.195715 24587 net.cpp:408] relu1 <- ip1
I0428 19:40:36.195720 24587 net.cpp:369] relu1 -> ip1 (in-place)
I0428 19:40:36.195929 24587 net.cpp:124] Setting up relu1
I0428 19:40:36.195936 24587 net.cpp:131] Top shape: 64 25 (1600)
I0428 19:40:36.195940 24587 net.cpp:139] Memory required for data: 684800
I0428 19:40:36.195943 24587 layer_factory.hpp:77] Creating layer ip2
I0428 19:40:36.195950 24587 net.cpp:86] Creating Layer ip2
I0428 19:40:36.195952 24587 net.cpp:408] ip2 <- ip1
I0428 19:40:36.195957 24587 net.cpp:382] ip2 -> ip2
I0428 19:40:36.196063 24587 net.cpp:124] Setting up ip2
I0428 19:40:36.196070 24587 net.cpp:131] Top shape: 64 50 (3200)
I0428 19:40:36.196074 24587 net.cpp:139] Memory required for data: 697600
I0428 19:40:36.196079 24587 layer_factory.hpp:77] Creating layer relu2
I0428 19:40:36.196085 24587 net.cpp:86] Creating Layer relu2
I0428 19:40:36.196089 24587 net.cpp:408] relu2 <- ip2
I0428 19:40:36.196092 24587 net.cpp:369] relu2 -> ip2 (in-place)
I0428 19:40:36.196825 24587 net.cpp:124] Setting up relu2
I0428 19:40:36.196853 24587 net.cpp:131] Top shape: 64 50 (3200)
I0428 19:40:36.196873 24587 net.cpp:139] Memory required for data: 710400
I0428 19:40:36.196877 24587 layer_factory.hpp:77] Creating layer ip3
I0428 19:40:36.196885 24587 net.cpp:86] Creating Layer ip3
I0428 19:40:36.196889 24587 net.cpp:408] ip3 <- ip2
I0428 19:40:36.196895 24587 net.cpp:382] ip3 -> ip3
I0428 19:40:36.197019 24587 net.cpp:124] Setting up ip3
I0428 19:40:36.197028 24587 net.cpp:131] Top shape: 64 10 (640)
I0428 19:40:36.197031 24587 net.cpp:139] Memory required for data: 712960
I0428 19:40:36.197039 24587 layer_factory.hpp:77] Creating layer relu3
I0428 19:40:36.197044 24587 net.cpp:86] Creating Layer relu3
I0428 19:40:36.197048 24587 net.cpp:408] relu3 <- ip3
I0428 19:40:36.197052 24587 net.cpp:369] relu3 -> ip3 (in-place)
I0428 19:40:36.197254 24587 net.cpp:124] Setting up relu3
I0428 19:40:36.197263 24587 net.cpp:131] Top shape: 64 10 (640)
I0428 19:40:36.197265 24587 net.cpp:139] Memory required for data: 715520
I0428 19:40:36.197269 24587 layer_factory.hpp:77] Creating layer loss
I0428 19:40:36.197274 24587 net.cpp:86] Creating Layer loss
I0428 19:40:36.197278 24587 net.cpp:408] loss <- ip3
I0428 19:40:36.197281 24587 net.cpp:408] loss <- label
I0428 19:40:36.197288 24587 net.cpp:382] loss -> loss
I0428 19:40:36.197301 24587 layer_factory.hpp:77] Creating layer loss
…
I0428 19:40:36.197947 24587 solver.cpp:173] Creating test net (#0) specified by net file: ECE595/mnist/train_test/var_everything2/lenet_train_test339.prototxt
I0428 19:40:36.197988 24587 net.cpp:296] The NetState phase (1) differed from the phase (0) specified by a rule in layer mnist
I0428 19:40:36.198091 24587 net.cpp:53] Initializing net from parameters: 
name: "LeNet"
state {
  phase: TEST
}
layer {
  name: "mnist"
  type: "Data"
  top: "data"
  top: "label"
  include {
    phase: TEST
  }
  transform_param {
    scale: 0.00390625
  }
  data_param {
    source: "examples/mnist/mnist_test_lmdb"
    batch_size: 100
    backend: LMDB
  }
}
layer {
  name: "conv0"
  type: "Convolution"
  bottom: "data"
  top: "conv0"
  param {
    lr_mult: 1
  }
  param {
    lr_mult: 2
  }
  convolution_param {
    num_output: 2
    kernel_size: 5
    stride: 1
    weight_filler {
      type: "xavier"
    }
    bias_filler {
      type: "constant"
    }
  }
}
layer {
  name: "pool0"
  type: "Pooling"
  bottom: "conv0"
  top: "pool0"
  pooling_param {
    pool: MAX
    kernel_size: 2
    stride: 2
  }
}
layer {
  name: "conv1"
  type: "Convolution"
  bottom: "pool0"
  top: "conv1"
  param {
    lr_mult: 1
  }
  param {
    lr_mult: 2
  }
  convolution_param {
    num_output: 5
    kernel_size: 5
    stride: 1
    weight_filler {
      type: "xavier"
    }
    bias_filler {
      type: "constant"
    }
  }
}
layer {
  name: "pool1"
  type: "Pooling"
  bottom: "conv1"
  top: "pool1"
  pooling_param {
    pool: MAX
    kernel_size: 2
    stride: 2
  }
}
layer {
  name: "ip1"
  type: "InnerProduct"
  bottom: "pool1"
  top: "ip1"
  param {
    lr_mult: 1
  }
  param {
    lr_mult: 2
  }
  inner_product_param {
    num_output: 25
    weight_filler {
      type: "xavier"
    }
    bias_filler {
      type: "constant"
    }
  }
}
layer {
  name: "relu1"
  type: "ReLU"
  bottom: "ip1"
  top: "ip1"
}
layer {
  name: "ip2"
  type: "InnerProduct"
  bottom: "ip1"
  top: "ip2"
  param {
    lr_mult: 1
  }
  param {
    lr_mult: 2
  }
  inner_product_param {
    num_output: 50
    weight_filler {
      type: "xavier"
    }
    bias_filler {
      type: "constant"
    }
  }
}
layer {
  name: "relu2"
  type: "ReLU"
  bottom: "ip2"
  top: "ip2"
}
layer {
  name: "ip3"
  type: "InnerProduct"
  bottom: "ip2"
  top: "ip3"
  param {
    lr_mult: 1
  }
  param {
    lr_mult: 2
  }
  inner_product_param {
    num_output: 10
    weight_filler {
      type: "xavier"
    }
    bias_filler {
      type: "constant"
    }
  }
}
layer {
  name: "relu3"
  type: "ReLU"
  bottom: "ip3"
  top: "ip3"
}
layer {
  name: "accuracy"
  type: "Accuracy"
  bottom: "ip3"
  bottom: "label"
  top: "accuracy"
  include {
    phase: TEST
  }
}
layer {
  name: "loss"
  type: "SoftmaxWithLoss"
  bottom: "ip3"
  bottom: "label"
  top: "loss"
}
I0428 19:40:36.198168 24587 layer_factory.hpp:77] Creating layer mnist
I0428 19:40:36.198212 24587 db_lmdb.cpp:35] Opened lmdb examples/mnist/mnist_test_lmdb
I0428 19:40:36.198225 24587 net.cpp:86] Creating Layer mnist
I0428 19:40:36.198230 24587 net.cpp:382] mnist -> data
I0428 19:40:36.198237 24587 net.cpp:382] mnist -> label
I0428 19:40:36.198318 24587 data_layer.cpp:45] output data size: 100,1,28,28
I0428 19:40:36.200168 24587 net.cpp:124] Setting up mnist
I0428 19:40:36.200181 24587 net.cpp:131] Top shape: 100 1 28 28 (78400)
I0428 19:40:36.200201 24587 net.cpp:131] Top shape: 100 (100)
I0428 19:40:36.200206 24587 net.cpp:139] Memory required for data: 314000
I0428 19:40:36.200208 24587 layer_factory.hpp:77] Creating layer label_mnist_1_split
I0428 19:40:36.200229 24587 net.cpp:86] Creating Layer label_mnist_1_split
I0428 19:40:36.200232 24587 net.cpp:408] label_mnist_1_split <- label
I0428 19:40:36.200237 24587 net.cpp:382] label_mnist_1_split -> label_mnist_1_split_0
I0428 19:40:36.200243 24587 net.cpp:382] label_mnist_1_split -> label_mnist_1_split_1
I0428 19:40:36.200284 24587 net.cpp:124] Setting up label_mnist_1_split
I0428 19:40:36.200290 24587 net.cpp:131] Top shape: 100 (100)
I0428 19:40:36.200294 24587 net.cpp:131] Top shape: 100 (100)
I0428 19:40:36.200296 24587 net.cpp:139] Memory required for data: 314800
I0428 19:40:36.200299 24587 layer_factory.hpp:77] Creating layer conv0
I0428 19:40:36.200307 24587 net.cpp:86] Creating Layer conv0
I0428 19:40:36.200310 24587 net.cpp:408] conv0 <- data
I0428 19:40:36.200315 24587 net.cpp:382] conv0 -> conv0
I0428 19:40:36.201961 24587 net.cpp:124] Setting up conv0
I0428 19:40:36.201975 24587 net.cpp:131] Top shape: 100 2 24 24 (115200)
I0428 19:40:36.201979 24587 net.cpp:139] Memory required for data: 775600
I0428 19:40:36.201988 24587 layer_factory.hpp:77] Creating layer pool0
I0428 19:40:36.201994 24587 net.cpp:86] Creating Layer pool0
I0428 19:40:36.201997 24587 net.cpp:408] pool0 <- conv0
I0428 19:40:36.202003 24587 net.cpp:382] pool0 -> pool0
I0428 19:40:36.202039 24587 net.cpp:124] Setting up pool0
I0428 19:40:36.202044 24587 net.cpp:131] Top shape: 100 2 12 12 (28800)
I0428 19:40:36.202046 24587 net.cpp:139] Memory required for data: 890800
I0428 19:40:36.202049 24587 layer_factory.hpp:77] Creating layer conv1
I0428 19:40:36.202057 24587 net.cpp:86] Creating Layer conv1
I0428 19:40:36.202060 24587 net.cpp:408] conv1 <- pool0
I0428 19:40:36.202065 24587 net.cpp:382] conv1 -> conv1
I0428 19:40:36.203541 24587 net.cpp:124] Setting up conv1
I0428 19:40:36.203554 24587 net.cpp:131] Top shape: 100 5 8 8 (32000)
I0428 19:40:36.203558 24587 net.cpp:139] Memory required for data: 1018800
I0428 19:40:36.203567 24587 layer_factory.hpp:77] Creating layer pool1
I0428 19:40:36.203573 24587 net.cpp:86] Creating Layer pool1
I0428 19:40:36.203577 24587 net.cpp:408] pool1 <- conv1
I0428 19:40:36.203582 24587 net.cpp:382] pool1 -> pool1
I0428 19:40:36.203618 24587 net.cpp:124] Setting up pool1
I0428 19:40:36.203624 24587 net.cpp:131] Top shape: 100 5 4 4 (8000)
I0428 19:40:36.203625 24587 net.cpp:139] Memory required for data: 1050800
I0428 19:40:36.203629 24587 layer_factory.hpp:77] Creating layer ip1
I0428 19:40:36.203634 24587 net.cpp:86] Creating Layer ip1
I0428 19:40:36.203637 24587 net.cpp:408] ip1 <- pool1
I0428 19:40:36.203642 24587 net.cpp:382] ip1 -> ip1
I0428 19:40:36.203749 24587 net.cpp:124] Setting up ip1
I0428 19:40:36.203766 24587 net.cpp:131] Top shape: 100 25 (2500)
I0428 19:40:36.203781 24587 net.cpp:139] Memory required for data: 1060800
I0428 19:40:36.203789 24587 layer_factory.hpp:77] Creating layer relu1
I0428 19:40:36.203794 24587 net.cpp:86] Creating Layer relu1
I0428 19:40:36.203797 24587 net.cpp:408] relu1 <- ip1
I0428 19:40:36.203801 24587 net.cpp:369] relu1 -> ip1 (in-place)
I0428 19:40:36.203974 24587 net.cpp:124] Setting up relu1
I0428 19:40:36.203982 24587 net.cpp:131] Top shape: 100 25 (2500)
I0428 19:40:36.203987 24587 net.cpp:139] Memory required for data: 1070800
I0428 19:40:36.203990 24587 layer_factory.hpp:77] Creating layer ip2
I0428 19:40:36.203999 24587 net.cpp:86] Creating Layer ip2
I0428 19:40:36.204001 24587 net.cpp:408] ip2 <- ip1
I0428 19:40:36.204006 24587 net.cpp:382] ip2 -> ip2
I0428 19:40:36.204140 24587 net.cpp:124] Setting up ip2
I0428 19:40:36.204147 24587 net.cpp:131] Top shape: 100 50 (5000)
I0428 19:40:36.204151 24587 net.cpp:139] Memory required for data: 1090800
I0428 19:40:36.204156 24587 layer_factory.hpp:77] Creating layer relu2
I0428 19:40:36.204161 24587 net.cpp:86] Creating Layer relu2
I0428 19:40:36.204164 24587 net.cpp:408] relu2 <- ip2
I0428 19:40:36.204169 24587 net.cpp:369] relu2 -> ip2 (in-place)
I0428 19:40:36.204457 24587 net.cpp:124] Setting up relu2
I0428 19:40:36.204464 24587 net.cpp:131] Top shape: 100 50 (5000)
I0428 19:40:36.204468 24587 net.cpp:139] Memory required for data: 1110800
I0428 19:40:36.204488 24587 layer_factory.hpp:77] Creating layer ip3
I0428 19:40:36.204494 24587 net.cpp:86] Creating Layer ip3
I0428 19:40:36.204506 24587 net.cpp:408] ip3 <- ip2
I0428 19:40:36.204511 24587 net.cpp:382] ip3 -> ip3
I0428 19:40:36.204627 24587 net.cpp:124] Setting up ip3
I0428 19:40:36.204633 24587 net.cpp:131] Top shape: 100 10 (1000)
I0428 19:40:36.204637 24587 net.cpp:139] Memory required for data: 1114800
I0428 19:40:36.204644 24587 layer_factory.hpp:77] Creating layer relu3
I0428 19:40:36.204648 24587 net.cpp:86] Creating Layer relu3
I0428 19:40:36.204653 24587 net.cpp:408] relu3 <- ip3
I0428 19:40:36.204656 24587 net.cpp:369] relu3 -> ip3 (in-place)
I0428 19:40:36.205482 24587 net.cpp:124] Setting up relu3
I0428 19:40:36.205509 24587 net.cpp:131] Top shape: 100 10 (1000)
I0428 19:40:36.205513 24587 net.cpp:139] Memory required for data: 1118800
I0428 19:40:36.205518 24587 layer_factory.hpp:77] Creating layer ip3_relu3_0_split
I0428 19:40:36.205523 24587 net.cpp:86] Creating Layer ip3_relu3_0_split
I0428 19:40:36.205528 24587 net.cpp:408] ip3_relu3_0_split <- ip3
I0428 19:40:36.205533 24587 net.cpp:382] ip3_relu3_0_split -> ip3_relu3_0_split_0
I0428 19:40:36.205538 24587 net.cpp:382] ip3_relu3_0_split -> ip3_relu3_0_split_1
I0428 19:40:36.205592 24587 net.cpp:124] Setting up ip3_relu3_0_split
I0428 19:40:36.205600 24587 net.cpp:131] Top shape: 100 10 (1000)
I0428 19:40:36.205603 24587 net.cpp:131] Top shape: 100 10 (1000)
I0428 19:40:36.205606 24587 net.cpp:139] Memory required for data: 1126800
I0428 19:40:36.205610 24587 layer_factory.hpp:77] Creating layer accuracy
I0428 19:40:36.205615 24587 net.cpp:86] Creating Layer accuracy
I0428 19:40:36.205618 24587 net.cpp:408] accuracy <- ip3_relu3_0_split_0
I0428 19:40:36.205623 24587 net.cpp:408] accuracy <- label_mnist_1_split_0
I0428 19:40:36.205627 24587 net.cpp:382] accuracy -> accuracy
…
