…
I0428 19:32:35.911561 22873 net.cpp:296] The NetState phase (0) differed from the phase (1) specified by a rule in layer mnist
I0428 19:32:35.911571 22873 net.cpp:296] The NetState phase (0) differed from the phase (1) specified by a rule in layer accuracy
I0428 19:32:35.911626 22873 net.cpp:53] Initializing net from parameters: 
name: "LeNet"
state {
  phase: TRAIN
  level: 0
  stage: ""
}
layer {
  name: "mnist"
  type: "Data"
  top: "data"
  top: "label"
  include {
    phase: TRAIN
  }
  transform_param {
    scale: 0.00390625
  }
  data_param {
    source: "examples/mnist/mnist_train_lmdb"
    batch_size: 64
    backend: LMDB
  }
}
layer {
  name: "conv0"
  type: "Convolution"
  bottom: "data"
  top: "conv0"
  param {
    lr_mult: 1
  }
  param {
    lr_mult: 2
  }
  convolution_param {
    num_output: 25
    kernel_size: 5
    stride: 1
    weight_filler {
      type: "xavier"
    }
    bias_filler {
      type: "constant"
    }
  }
}
layer {
  name: "pool0"
  type: "Pooling"
  bottom: "conv0"
  top: "pool0"
  pooling_param {
    pool: MAX
    kernel_size: 2
    stride: 2
  }
}
layer {
  name: "ip1"
  type: "InnerProduct"
  bottom: "pool0"
  top: "ip1"
  param {
    lr_mult: 1
  }
  param {
    lr_mult: 2
  }
  inner_product_param {
    num_output: 10
    weight_filler {
      type: "xavier"
    }
    bias_filler {
      type: "constant"
    }
  }
}
layer {
  name: "relu1"
  type: "ReLU"
  bottom: "ip1"
  top: "ip1"
}
layer {
  name: "loss"
  type: "SoftmaxWithLoss"
  bottom: "ip1"
  bottom: "label"
  top: "loss"
}
I0428 19:32:35.911676 22873 layer_factory.hpp:77] Creating layer mnist
I0428 19:32:35.911756 22873 db_lmdb.cpp:35] Opened lmdb examples/mnist/mnist_train_lmdb
I0428 19:32:35.911774 22873 net.cpp:86] Creating Layer mnist
I0428 19:32:35.911782 22873 net.cpp:382] mnist -> data
I0428 19:32:35.911800 22873 net.cpp:382] mnist -> label
I0428 19:32:35.912798 22873 data_layer.cpp:45] output data size: 64,1,28,28
I0428 19:32:35.914984 22873 net.cpp:124] Setting up mnist
I0428 19:32:35.915014 22873 net.cpp:131] Top shape: 64 1 28 28 (50176)
I0428 19:32:35.915019 22873 net.cpp:131] Top shape: 64 (64)
I0428 19:32:35.915022 22873 net.cpp:139] Memory required for data: 200960
I0428 19:32:35.915027 22873 layer_factory.hpp:77] Creating layer conv0
I0428 19:32:35.915060 22873 net.cpp:86] Creating Layer conv0
I0428 19:32:35.915065 22873 net.cpp:408] conv0 <- data
I0428 19:32:35.915073 22873 net.cpp:382] conv0 -> conv0
I0428 19:32:36.143236 22873 net.cpp:124] Setting up conv0
I0428 19:32:36.143278 22873 net.cpp:131] Top shape: 64 25 24 24 (921600)
I0428 19:32:36.143282 22873 net.cpp:139] Memory required for data: 3887360
I0428 19:32:36.143301 22873 layer_factory.hpp:77] Creating layer pool0
I0428 19:32:36.143314 22873 net.cpp:86] Creating Layer pool0
I0428 19:32:36.143317 22873 net.cpp:408] pool0 <- conv0
I0428 19:32:36.143323 22873 net.cpp:382] pool0 -> pool0
I0428 19:32:36.143380 22873 net.cpp:124] Setting up pool0
I0428 19:32:36.143386 22873 net.cpp:131] Top shape: 64 25 12 12 (230400)
I0428 19:32:36.143388 22873 net.cpp:139] Memory required for data: 4808960
I0428 19:32:36.143393 22873 layer_factory.hpp:77] Creating layer ip1
I0428 19:32:36.143399 22873 net.cpp:86] Creating Layer ip1
I0428 19:32:36.143401 22873 net.cpp:408] ip1 <- pool0
I0428 19:32:36.143406 22873 net.cpp:382] ip1 -> ip1
I0428 19:32:36.143748 22873 net.cpp:124] Setting up ip1
I0428 19:32:36.143756 22873 net.cpp:131] Top shape: 64 10 (640)
I0428 19:32:36.143774 22873 net.cpp:139] Memory required for data: 4811520
I0428 19:32:36.143782 22873 layer_factory.hpp:77] Creating layer relu1
I0428 19:32:36.143788 22873 net.cpp:86] Creating Layer relu1
I0428 19:32:36.143796 22873 net.cpp:408] relu1 <- ip1
I0428 19:32:36.143801 22873 net.cpp:369] relu1 -> ip1 (in-place)
I0428 19:32:36.143976 22873 net.cpp:124] Setting up relu1
I0428 19:32:36.143985 22873 net.cpp:131] Top shape: 64 10 (640)
I0428 19:32:36.143988 22873 net.cpp:139] Memory required for data: 4814080
I0428 19:32:36.143991 22873 layer_factory.hpp:77] Creating layer loss
I0428 19:32:36.144011 22873 net.cpp:86] Creating Layer loss
I0428 19:32:36.144014 22873 net.cpp:408] loss <- ip1
I0428 19:32:36.144017 22873 net.cpp:408] loss <- label
I0428 19:32:36.144022 22873 net.cpp:382] loss -> loss
I0428 19:32:36.144040 22873 layer_factory.hpp:77] Creating layer loss
…
I0428 19:32:36.145253 22873 solver.cpp:173] Creating test net (#0) specified by net file: ECE595/mnist/train_test/var_everything2/lenet_train_test157.prototxt
I0428 19:32:36.145277 22873 net.cpp:296] The NetState phase (1) differed from the phase (0) specified by a rule in layer mnist
I0428 19:32:36.145339 22873 net.cpp:53] Initializing net from parameters: 
name: "LeNet"
state {
  phase: TEST
}
layer {
  name: "mnist"
  type: "Data"
  top: "data"
  top: "label"
  include {
    phase: TEST
  }
  transform_param {
    scale: 0.00390625
  }
  data_param {
    source: "examples/mnist/mnist_test_lmdb"
    batch_size: 100
    backend: LMDB
  }
}
layer {
  name: "conv0"
  type: "Convolution"
  bottom: "data"
  top: "conv0"
  param {
    lr_mult: 1
  }
  param {
    lr_mult: 2
  }
  convolution_param {
    num_output: 25
    kernel_size: 5
    stride: 1
    weight_filler {
      type: "xavier"
    }
    bias_filler {
      type: "constant"
    }
  }
}
layer {
  name: "pool0"
  type: "Pooling"
  bottom: "conv0"
  top: "pool0"
  pooling_param {
    pool: MAX
    kernel_size: 2
    stride: 2
  }
}
layer {
  name: "ip1"
  type: "InnerProduct"
  bottom: "pool0"
  top: "ip1"
  param {
    lr_mult: 1
  }
  param {
    lr_mult: 2
  }
  inner_product_param {
    num_output: 10
    weight_filler {
      type: "xavier"
    }
    bias_filler {
      type: "constant"
    }
  }
}
layer {
  name: "relu1"
  type: "ReLU"
  bottom: "ip1"
  top: "ip1"
}
layer {
  name: "accuracy"
  type: "Accuracy"
  bottom: "ip1"
  bottom: "label"
  top: "accuracy"
  include {
    phase: TEST
  }
}
layer {
  name: "loss"
  type: "SoftmaxWithLoss"
  bottom: "ip1"
  bottom: "label"
  top: "loss"
}
I0428 19:32:36.145388 22873 layer_factory.hpp:77] Creating layer mnist
I0428 19:32:36.145431 22873 db_lmdb.cpp:35] Opened lmdb examples/mnist/mnist_test_lmdb
I0428 19:32:36.145444 22873 net.cpp:86] Creating Layer mnist
I0428 19:32:36.145448 22873 net.cpp:382] mnist -> data
I0428 19:32:36.145455 22873 net.cpp:382] mnist -> label
I0428 19:32:36.145548 22873 data_layer.cpp:45] output data size: 100,1,28,28
I0428 19:32:36.147794 22873 net.cpp:124] Setting up mnist
I0428 19:32:36.147824 22873 net.cpp:131] Top shape: 100 1 28 28 (78400)
I0428 19:32:36.147828 22873 net.cpp:131] Top shape: 100 (100)
I0428 19:32:36.147831 22873 net.cpp:139] Memory required for data: 314000
I0428 19:32:36.147845 22873 layer_factory.hpp:77] Creating layer label_mnist_1_split
I0428 19:32:36.147851 22873 net.cpp:86] Creating Layer label_mnist_1_split
I0428 19:32:36.147855 22873 net.cpp:408] label_mnist_1_split <- label
I0428 19:32:36.147860 22873 net.cpp:382] label_mnist_1_split -> label_mnist_1_split_0
I0428 19:32:36.147866 22873 net.cpp:382] label_mnist_1_split -> label_mnist_1_split_1
I0428 19:32:36.147924 22873 net.cpp:124] Setting up label_mnist_1_split
I0428 19:32:36.147931 22873 net.cpp:131] Top shape: 100 (100)
I0428 19:32:36.147934 22873 net.cpp:131] Top shape: 100 (100)
I0428 19:32:36.147938 22873 net.cpp:139] Memory required for data: 314800
I0428 19:32:36.147940 22873 layer_factory.hpp:77] Creating layer conv0
I0428 19:32:36.147949 22873 net.cpp:86] Creating Layer conv0
I0428 19:32:36.147953 22873 net.cpp:408] conv0 <- data
I0428 19:32:36.147958 22873 net.cpp:382] conv0 -> conv0
I0428 19:32:36.149716 22873 net.cpp:124] Setting up conv0
I0428 19:32:36.149730 22873 net.cpp:131] Top shape: 100 25 24 24 (1440000)
I0428 19:32:36.149734 22873 net.cpp:139] Memory required for data: 6074800
I0428 19:32:36.149742 22873 layer_factory.hpp:77] Creating layer pool0
I0428 19:32:36.149749 22873 net.cpp:86] Creating Layer pool0
I0428 19:32:36.149752 22873 net.cpp:408] pool0 <- conv0
I0428 19:32:36.149757 22873 net.cpp:382] pool0 -> pool0
I0428 19:32:36.149791 22873 net.cpp:124] Setting up pool0
I0428 19:32:36.149796 22873 net.cpp:131] Top shape: 100 25 12 12 (360000)
I0428 19:32:36.149799 22873 net.cpp:139] Memory required for data: 7514800
I0428 19:32:36.149802 22873 layer_factory.hpp:77] Creating layer ip1
I0428 19:32:36.149808 22873 net.cpp:86] Creating Layer ip1
I0428 19:32:36.149811 22873 net.cpp:408] ip1 <- pool0
I0428 19:32:36.149816 22873 net.cpp:382] ip1 -> ip1
I0428 19:32:36.150117 22873 net.cpp:124] Setting up ip1
I0428 19:32:36.150125 22873 net.cpp:131] Top shape: 100 10 (1000)
I0428 19:32:36.150130 22873 net.cpp:139] Memory required for data: 7518800
I0428 19:32:36.150135 22873 layer_factory.hpp:77] Creating layer relu1
I0428 19:32:36.150141 22873 net.cpp:86] Creating Layer relu1
I0428 19:32:36.150143 22873 net.cpp:408] relu1 <- ip1
I0428 19:32:36.150147 22873 net.cpp:369] relu1 -> ip1 (in-place)
I0428 19:32:36.150301 22873 net.cpp:124] Setting up relu1
I0428 19:32:36.150310 22873 net.cpp:131] Top shape: 100 10 (1000)
I0428 19:32:36.150313 22873 net.cpp:139] Memory required for data: 7522800
I0428 19:32:36.150316 22873 layer_factory.hpp:77] Creating layer ip1_relu1_0_split
I0428 19:32:36.150321 22873 net.cpp:86] Creating Layer ip1_relu1_0_split
I0428 19:32:36.150324 22873 net.cpp:408] ip1_relu1_0_split <- ip1
I0428 19:32:36.150328 22873 net.cpp:382] ip1_relu1_0_split -> ip1_relu1_0_split_0
I0428 19:32:36.150333 22873 net.cpp:382] ip1_relu1_0_split -> ip1_relu1_0_split_1
I0428 19:32:36.150457 22873 net.cpp:124] Setting up ip1_relu1_0_split
I0428 19:32:36.150465 22873 net.cpp:131] Top shape: 100 10 (1000)
I0428 19:32:36.150470 22873 net.cpp:131] Top shape: 100 10 (1000)
I0428 19:32:36.150472 22873 net.cpp:139] Memory required for data: 7530800
I0428 19:32:36.150475 22873 layer_factory.hpp:77] Creating layer accuracy
I0428 19:32:36.150485 22873 net.cpp:86] Creating Layer accuracy
I0428 19:32:36.150488 22873 net.cpp:408] accuracy <- ip1_relu1_0_split_0
I0428 19:32:36.150492 22873 net.cpp:408] accuracy <- label_mnist_1_split_0
I0428 19:32:36.150496 22873 net.cpp:382] accuracy -> accuracy
…
