…
I0428 19:53:00.317844 27672 net.cpp:296] The NetState phase (0) differed from the phase (1) specified by a rule in layer mnist
I0428 19:53:00.317863 27672 net.cpp:296] The NetState phase (0) differed from the phase (1) specified by a rule in layer accuracy
I0428 19:53:00.317966 27672 net.cpp:53] Initializing net from parameters: 
name: "LeNet"
state {
  phase: TRAIN
  level: 0
  stage: ""
}
layer {
  name: "mnist"
  type: "Data"
  top: "data"
  top: "label"
  include {
    phase: TRAIN
  }
  transform_param {
    scale: 0.00390625
  }
  data_param {
    source: "examples/mnist/mnist_train_lmdb"
    batch_size: 64
    backend: LMDB
  }
}
layer {
  name: "conv0"
  type: "Convolution"
  bottom: "data"
  top: "conv0"
  param {
    lr_mult: 1
  }
  param {
    lr_mult: 2
  }
  convolution_param {
    num_output: 5
    kernel_size: 5
    stride: 1
    weight_filler {
      type: "xavier"
    }
    bias_filler {
      type: "constant"
    }
  }
}
layer {
  name: "pool0"
  type: "Pooling"
  bottom: "conv0"
  top: "pool0"
  pooling_param {
    pool: MAX
    kernel_size: 2
    stride: 2
  }
}
layer {
  name: "conv1"
  type: "Convolution"
  bottom: "pool0"
  top: "conv1"
  param {
    lr_mult: 1
  }
  param {
    lr_mult: 2
  }
  convolution_param {
    num_output: 50
    kernel_size: 5
    stride: 1
    weight_filler {
      type: "xavier"
    }
    bias_filler {
      type: "constant"
    }
  }
}
layer {
  name: "pool1"
  type: "Pooling"
  bottom: "conv1"
  top: "pool1"
  pooling_param {
    pool: MAX
    kernel_size: 2
    stride: 2
  }
}
layer {
  name: "ip1"
  type: "InnerProduct"
  bottom: "pool1"
  top: "ip1"
  param {
    lr_mult: 1
  }
  param {
    lr_mult: 2
  }
  inner_product_param {
    num_output: 10
    weight_filler {
      type: "xavier"
    }
    bias_filler {
      type: "constant"
    }
  }
}
layer {
  name: "relu1"
  type: "ReLU"
  bottom: "ip1"
  top: "ip1"
}
layer {
  name: "ip2"
  type: "InnerProduct"
  bottom: "ip1"
  top: "ip2"
  param {
    lr_mult: 1
  }
  param {
    lr_mult: 2
  }
  inner_product_param {
    num_output: 10
    weight_filler {
      type: "xavier"
    }
    bias_filler {
      type: "constant"
    }
  }
}
layer {
  name: "relu2"
  type: "ReLU"
  bottom: "ip2"
  top: "ip2"
}
layer {
  name: "ip3"
  type: "InnerProduct"
  bottom: "ip2"
  top: "ip3"
  param {
    lr_mult: 1
  }
  param {
    lr_mult: 2
  }
  inner_product_param {
    num_output: 10
    weight_filler {
      type: "xavier"
    }
    bias_filler {
      type: "constant"
    }
  }
}
layer {
  name: "relu3"
  type: "ReLU"
  bottom: "ip3"
  top: "ip3"
}
layer {
  name: "loss"
  type: "SoftmaxWithLoss"
  bottom: "ip3"
  bottom: "label"
  top: "loss"
}
I0428 19:53:00.318043 27672 layer_factory.hpp:77] Creating layer mnist
I0428 19:53:00.318141 27672 db_lmdb.cpp:35] Opened lmdb examples/mnist/mnist_train_lmdb
I0428 19:53:00.318164 27672 net.cpp:86] Creating Layer mnist
I0428 19:53:00.318171 27672 net.cpp:382] mnist -> data
I0428 19:53:00.318197 27672 net.cpp:382] mnist -> label
I0428 19:53:00.319310 27672 data_layer.cpp:45] output data size: 64,1,28,28
I0428 19:53:00.322078 27672 net.cpp:124] Setting up mnist
I0428 19:53:00.322099 27672 net.cpp:131] Top shape: 64 1 28 28 (50176)
I0428 19:53:00.322105 27672 net.cpp:131] Top shape: 64 (64)
I0428 19:53:00.322109 27672 net.cpp:139] Memory required for data: 200960
I0428 19:53:00.322116 27672 layer_factory.hpp:77] Creating layer conv0
I0428 19:53:00.322141 27672 net.cpp:86] Creating Layer conv0
I0428 19:53:00.322162 27672 net.cpp:408] conv0 <- data
I0428 19:53:00.322175 27672 net.cpp:382] conv0 -> conv0
I0428 19:53:00.605872 27672 net.cpp:124] Setting up conv0
I0428 19:53:00.605901 27672 net.cpp:131] Top shape: 64 5 24 24 (184320)
I0428 19:53:00.605904 27672 net.cpp:139] Memory required for data: 938240
I0428 19:53:00.605921 27672 layer_factory.hpp:77] Creating layer pool0
I0428 19:53:00.605934 27672 net.cpp:86] Creating Layer pool0
I0428 19:53:00.605938 27672 net.cpp:408] pool0 <- conv0
I0428 19:53:00.605943 27672 net.cpp:382] pool0 -> pool0
I0428 19:53:00.605990 27672 net.cpp:124] Setting up pool0
I0428 19:53:00.605998 27672 net.cpp:131] Top shape: 64 5 12 12 (46080)
I0428 19:53:00.606001 27672 net.cpp:139] Memory required for data: 1122560
I0428 19:53:00.606004 27672 layer_factory.hpp:77] Creating layer conv1
I0428 19:53:00.606015 27672 net.cpp:86] Creating Layer conv1
I0428 19:53:00.606021 27672 net.cpp:408] conv1 <- pool0
I0428 19:53:00.606026 27672 net.cpp:382] conv1 -> conv1
I0428 19:53:00.608834 27672 net.cpp:124] Setting up conv1
I0428 19:53:00.608850 27672 net.cpp:131] Top shape: 64 50 8 8 (204800)
I0428 19:53:00.608853 27672 net.cpp:139] Memory required for data: 1941760
I0428 19:53:00.608862 27672 layer_factory.hpp:77] Creating layer pool1
I0428 19:53:00.608870 27672 net.cpp:86] Creating Layer pool1
I0428 19:53:00.608873 27672 net.cpp:408] pool1 <- conv1
I0428 19:53:00.608878 27672 net.cpp:382] pool1 -> pool1
I0428 19:53:00.608916 27672 net.cpp:124] Setting up pool1
I0428 19:53:00.608922 27672 net.cpp:131] Top shape: 64 50 4 4 (51200)
I0428 19:53:00.608925 27672 net.cpp:139] Memory required for data: 2146560
I0428 19:53:00.608928 27672 layer_factory.hpp:77] Creating layer ip1
I0428 19:53:00.608935 27672 net.cpp:86] Creating Layer ip1
I0428 19:53:00.608938 27672 net.cpp:408] ip1 <- pool1
I0428 19:53:00.608943 27672 net.cpp:382] ip1 -> ip1
I0428 19:53:00.609088 27672 net.cpp:124] Setting up ip1
I0428 19:53:00.609097 27672 net.cpp:131] Top shape: 64 10 (640)
I0428 19:53:00.609102 27672 net.cpp:139] Memory required for data: 2149120
I0428 19:53:00.609108 27672 layer_factory.hpp:77] Creating layer relu1
I0428 19:53:00.609114 27672 net.cpp:86] Creating Layer relu1
I0428 19:53:00.609117 27672 net.cpp:408] relu1 <- ip1
I0428 19:53:00.609122 27672 net.cpp:369] relu1 -> ip1 (in-place)
I0428 19:53:00.609287 27672 net.cpp:124] Setting up relu1
I0428 19:53:00.609297 27672 net.cpp:131] Top shape: 64 10 (640)
I0428 19:53:00.609300 27672 net.cpp:139] Memory required for data: 2151680
I0428 19:53:00.609303 27672 layer_factory.hpp:77] Creating layer ip2
I0428 19:53:00.609310 27672 net.cpp:86] Creating Layer ip2
I0428 19:53:00.609315 27672 net.cpp:408] ip2 <- ip1
I0428 19:53:00.609320 27672 net.cpp:382] ip2 -> ip2
I0428 19:53:00.609414 27672 net.cpp:124] Setting up ip2
I0428 19:53:00.609421 27672 net.cpp:131] Top shape: 64 10 (640)
I0428 19:53:00.609424 27672 net.cpp:139] Memory required for data: 2154240
I0428 19:53:00.609431 27672 layer_factory.hpp:77] Creating layer relu2
I0428 19:53:00.609436 27672 net.cpp:86] Creating Layer relu2
I0428 19:53:00.609439 27672 net.cpp:408] relu2 <- ip2
I0428 19:53:00.609443 27672 net.cpp:369] relu2 -> ip2 (in-place)
I0428 19:53:00.610168 27672 net.cpp:124] Setting up relu2
I0428 19:53:00.610180 27672 net.cpp:131] Top shape: 64 10 (640)
I0428 19:53:00.610184 27672 net.cpp:139] Memory required for data: 2156800
I0428 19:53:00.610188 27672 layer_factory.hpp:77] Creating layer ip3
I0428 19:53:00.610194 27672 net.cpp:86] Creating Layer ip3
I0428 19:53:00.610198 27672 net.cpp:408] ip3 <- ip2
I0428 19:53:00.610203 27672 net.cpp:382] ip3 -> ip3
I0428 19:53:00.610301 27672 net.cpp:124] Setting up ip3
I0428 19:53:00.610307 27672 net.cpp:131] Top shape: 64 10 (640)
I0428 19:53:00.610311 27672 net.cpp:139] Memory required for data: 2159360
I0428 19:53:00.610330 27672 layer_factory.hpp:77] Creating layer relu3
I0428 19:53:00.610335 27672 net.cpp:86] Creating Layer relu3
I0428 19:53:00.610340 27672 net.cpp:408] relu3 <- ip3
I0428 19:53:00.610347 27672 net.cpp:369] relu3 -> ip3 (in-place)
I0428 19:53:00.610538 27672 net.cpp:124] Setting up relu3
I0428 19:53:00.610548 27672 net.cpp:131] Top shape: 64 10 (640)
I0428 19:53:00.610550 27672 net.cpp:139] Memory required for data: 2161920
I0428 19:53:00.610554 27672 layer_factory.hpp:77] Creating layer loss
I0428 19:53:00.610560 27672 net.cpp:86] Creating Layer loss
I0428 19:53:00.610564 27672 net.cpp:408] loss <- ip3
I0428 19:53:00.610569 27672 net.cpp:408] loss <- label
I0428 19:53:00.610574 27672 net.cpp:382] loss -> loss
I0428 19:53:00.610592 27672 layer_factory.hpp:77] Creating layer loss
…
I0428 19:53:00.611285 27672 solver.cpp:173] Creating test net (#0) specified by net file: ECE595/mnist/train_test/var_everything2/lenet_train_test676.prototxt
I0428 19:53:00.611320 27672 net.cpp:296] The NetState phase (1) differed from the phase (0) specified by a rule in layer mnist
I0428 19:53:00.611416 27672 net.cpp:53] Initializing net from parameters: 
name: "LeNet"
state {
  phase: TEST
}
layer {
  name: "mnist"
  type: "Data"
  top: "data"
  top: "label"
  include {
    phase: TEST
  }
  transform_param {
    scale: 0.00390625
  }
  data_param {
    source: "examples/mnist/mnist_test_lmdb"
    batch_size: 100
    backend: LMDB
  }
}
layer {
  name: "conv0"
  type: "Convolution"
  bottom: "data"
  top: "conv0"
  param {
    lr_mult: 1
  }
  param {
    lr_mult: 2
  }
  convolution_param {
    num_output: 5
    kernel_size: 5
    stride: 1
    weight_filler {
      type: "xavier"
    }
    bias_filler {
      type: "constant"
    }
  }
}
layer {
  name: "pool0"
  type: "Pooling"
  bottom: "conv0"
  top: "pool0"
  pooling_param {
    pool: MAX
    kernel_size: 2
    stride: 2
  }
}
layer {
  name: "conv1"
  type: "Convolution"
  bottom: "pool0"
  top: "conv1"
  param {
    lr_mult: 1
  }
  param {
    lr_mult: 2
  }
  convolution_param {
    num_output: 50
    kernel_size: 5
    stride: 1
    weight_filler {
      type: "xavier"
    }
    bias_filler {
      type: "constant"
    }
  }
}
layer {
  name: "pool1"
  type: "Pooling"
  bottom: "conv1"
  top: "pool1"
  pooling_param {
    pool: MAX
    kernel_size: 2
    stride: 2
  }
}
layer {
  name: "ip1"
  type: "InnerProduct"
  bottom: "pool1"
  top: "ip1"
  param {
    lr_mult: 1
  }
  param {
    lr_mult: 2
  }
  inner_product_param {
    num_output: 10
    weight_filler {
      type: "xavier"
    }
    bias_filler {
      type: "constant"
    }
  }
}
layer {
  name: "relu1"
  type: "ReLU"
  bottom: "ip1"
  top: "ip1"
}
layer {
  name: "ip2"
  type: "InnerProduct"
  bottom: "ip1"
  top: "ip2"
  param {
    lr_mult: 1
  }
  param {
    lr_mult: 2
  }
  inner_product_param {
    num_output: 10
    weight_filler {
      type: "xavier"
    }
    bias_filler {
      type: "constant"
    }
  }
}
layer {
  name: "relu2"
  type: "ReLU"
  bottom: "ip2"
  top: "ip2"
}
layer {
  name: "ip3"
  type: "InnerProduct"
  bottom: "ip2"
  top: "ip3"
  param {
    lr_mult: 1
  }
  param {
    lr_mult: 2
  }
  inner_product_param {
    num_output: 10
    weight_filler {
      type: "xavier"
    }
    bias_filler {
      type: "constant"
    }
  }
}
layer {
  name: "relu3"
  type: "ReLU"
  bottom: "ip3"
  top: "ip3"
}
layer {
  name: "accuracy"
  type: "Accuracy"
  bottom: "ip3"
  bottom: "label"
  top: "accuracy"
  include {
    phase: TEST
  }
}
layer {
  name: "loss"
  type: "SoftmaxWithLoss"
  bottom: "ip3"
  bottom: "label"
  top: "loss"
}
I0428 19:53:00.611500 27672 layer_factory.hpp:77] Creating layer mnist
I0428 19:53:00.611552 27672 db_lmdb.cpp:35] Opened lmdb examples/mnist/mnist_test_lmdb
I0428 19:53:00.611570 27672 net.cpp:86] Creating Layer mnist
I0428 19:53:00.611580 27672 net.cpp:382] mnist -> data
I0428 19:53:00.611588 27672 net.cpp:382] mnist -> label
I0428 19:53:00.611675 27672 data_layer.cpp:45] output data size: 100,1,28,28
I0428 19:53:00.613682 27672 net.cpp:124] Setting up mnist
I0428 19:53:00.613696 27672 net.cpp:131] Top shape: 100 1 28 28 (78400)
I0428 19:53:00.613701 27672 net.cpp:131] Top shape: 100 (100)
I0428 19:53:00.613704 27672 net.cpp:139] Memory required for data: 314000
I0428 19:53:00.613708 27672 layer_factory.hpp:77] Creating layer label_mnist_1_split
I0428 19:53:00.613718 27672 net.cpp:86] Creating Layer label_mnist_1_split
I0428 19:53:00.613721 27672 net.cpp:408] label_mnist_1_split <- label
I0428 19:53:00.613750 27672 net.cpp:382] label_mnist_1_split -> label_mnist_1_split_0
I0428 19:53:00.613757 27672 net.cpp:382] label_mnist_1_split -> label_mnist_1_split_1
I0428 19:53:00.613797 27672 net.cpp:124] Setting up label_mnist_1_split
I0428 19:53:00.613803 27672 net.cpp:131] Top shape: 100 (100)
I0428 19:53:00.613806 27672 net.cpp:131] Top shape: 100 (100)
I0428 19:53:00.613809 27672 net.cpp:139] Memory required for data: 314800
I0428 19:53:00.613812 27672 layer_factory.hpp:77] Creating layer conv0
I0428 19:53:00.613821 27672 net.cpp:86] Creating Layer conv0
I0428 19:53:00.613824 27672 net.cpp:408] conv0 <- data
I0428 19:53:00.613829 27672 net.cpp:382] conv0 -> conv0
I0428 19:53:00.615500 27672 net.cpp:124] Setting up conv0
I0428 19:53:00.615514 27672 net.cpp:131] Top shape: 100 5 24 24 (288000)
I0428 19:53:00.615519 27672 net.cpp:139] Memory required for data: 1466800
I0428 19:53:00.615527 27672 layer_factory.hpp:77] Creating layer pool0
I0428 19:53:00.615535 27672 net.cpp:86] Creating Layer pool0
I0428 19:53:00.615537 27672 net.cpp:408] pool0 <- conv0
I0428 19:53:00.615542 27672 net.cpp:382] pool0 -> pool0
I0428 19:53:00.615579 27672 net.cpp:124] Setting up pool0
I0428 19:53:00.615586 27672 net.cpp:131] Top shape: 100 5 12 12 (72000)
I0428 19:53:00.615589 27672 net.cpp:139] Memory required for data: 1754800
I0428 19:53:00.615592 27672 layer_factory.hpp:77] Creating layer conv1
I0428 19:53:00.615600 27672 net.cpp:86] Creating Layer conv1
I0428 19:53:00.615603 27672 net.cpp:408] conv1 <- pool0
I0428 19:53:00.615609 27672 net.cpp:382] conv1 -> conv1
I0428 19:53:00.617203 27672 net.cpp:124] Setting up conv1
I0428 19:53:00.617218 27672 net.cpp:131] Top shape: 100 50 8 8 (320000)
I0428 19:53:00.617223 27672 net.cpp:139] Memory required for data: 3034800
I0428 19:53:00.617230 27672 layer_factory.hpp:77] Creating layer pool1
I0428 19:53:00.617238 27672 net.cpp:86] Creating Layer pool1
I0428 19:53:00.617241 27672 net.cpp:408] pool1 <- conv1
I0428 19:53:00.617246 27672 net.cpp:382] pool1 -> pool1
I0428 19:53:00.617283 27672 net.cpp:124] Setting up pool1
I0428 19:53:00.617290 27672 net.cpp:131] Top shape: 100 50 4 4 (80000)
I0428 19:53:00.617292 27672 net.cpp:139] Memory required for data: 3354800
I0428 19:53:00.617295 27672 layer_factory.hpp:77] Creating layer ip1
I0428 19:53:00.617302 27672 net.cpp:86] Creating Layer ip1
I0428 19:53:00.617306 27672 net.cpp:408] ip1 <- pool1
I0428 19:53:00.617311 27672 net.cpp:382] ip1 -> ip1
I0428 19:53:00.617492 27672 net.cpp:124] Setting up ip1
I0428 19:53:00.617502 27672 net.cpp:131] Top shape: 100 10 (1000)
I0428 19:53:00.617516 27672 net.cpp:139] Memory required for data: 3358800
I0428 19:53:00.617524 27672 layer_factory.hpp:77] Creating layer relu1
I0428 19:53:00.617537 27672 net.cpp:86] Creating Layer relu1
I0428 19:53:00.617547 27672 net.cpp:408] relu1 <- ip1
I0428 19:53:00.617557 27672 net.cpp:369] relu1 -> ip1 (in-place)
I0428 19:53:00.617797 27672 net.cpp:124] Setting up relu1
I0428 19:53:00.617806 27672 net.cpp:131] Top shape: 100 10 (1000)
I0428 19:53:00.617810 27672 net.cpp:139] Memory required for data: 3362800
I0428 19:53:00.617816 27672 layer_factory.hpp:77] Creating layer ip2
I0428 19:53:00.617825 27672 net.cpp:86] Creating Layer ip2
I0428 19:53:00.617828 27672 net.cpp:408] ip2 <- ip1
I0428 19:53:00.617838 27672 net.cpp:382] ip2 -> ip2
I0428 19:53:00.617938 27672 net.cpp:124] Setting up ip2
I0428 19:53:00.617945 27672 net.cpp:131] Top shape: 100 10 (1000)
I0428 19:53:00.617949 27672 net.cpp:139] Memory required for data: 3366800
I0428 19:53:00.617954 27672 layer_factory.hpp:77] Creating layer relu2
I0428 19:53:00.617964 27672 net.cpp:86] Creating Layer relu2
I0428 19:53:00.617966 27672 net.cpp:408] relu2 <- ip2
I0428 19:53:00.617975 27672 net.cpp:369] relu2 -> ip2 (in-place)
I0428 19:53:00.618139 27672 net.cpp:124] Setting up relu2
I0428 19:53:00.618149 27672 net.cpp:131] Top shape: 100 10 (1000)
I0428 19:53:00.618151 27672 net.cpp:139] Memory required for data: 3370800
I0428 19:53:00.618155 27672 layer_factory.hpp:77] Creating layer ip3
I0428 19:53:00.618160 27672 net.cpp:86] Creating Layer ip3
I0428 19:53:00.618162 27672 net.cpp:408] ip3 <- ip2
I0428 19:53:00.618167 27672 net.cpp:382] ip3 -> ip3
I0428 19:53:00.618264 27672 net.cpp:124] Setting up ip3
I0428 19:53:00.618271 27672 net.cpp:131] Top shape: 100 10 (1000)
I0428 19:53:00.618273 27672 net.cpp:139] Memory required for data: 3374800
I0428 19:53:00.618281 27672 layer_factory.hpp:77] Creating layer relu3
I0428 19:53:00.618286 27672 net.cpp:86] Creating Layer relu3
I0428 19:53:00.618293 27672 net.cpp:408] relu3 <- ip3
I0428 19:53:00.618304 27672 net.cpp:369] relu3 -> ip3 (in-place)
I0428 19:53:00.619141 27672 net.cpp:124] Setting up relu3
I0428 19:53:00.619155 27672 net.cpp:131] Top shape: 100 10 (1000)
I0428 19:53:00.619158 27672 net.cpp:139] Memory required for data: 3378800
I0428 19:53:00.619163 27672 layer_factory.hpp:77] Creating layer ip3_relu3_0_split
I0428 19:53:00.619173 27672 net.cpp:86] Creating Layer ip3_relu3_0_split
I0428 19:53:00.619175 27672 net.cpp:408] ip3_relu3_0_split <- ip3
I0428 19:53:00.619181 27672 net.cpp:382] ip3_relu3_0_split -> ip3_relu3_0_split_0
I0428 19:53:00.619189 27672 net.cpp:382] ip3_relu3_0_split -> ip3_relu3_0_split_1
I0428 19:53:00.619232 27672 net.cpp:124] Setting up ip3_relu3_0_split
I0428 19:53:00.619243 27672 net.cpp:131] Top shape: 100 10 (1000)
I0428 19:53:00.619247 27672 net.cpp:131] Top shape: 100 10 (1000)
I0428 19:53:00.619251 27672 net.cpp:139] Memory required for data: 3386800
I0428 19:53:00.619253 27672 layer_factory.hpp:77] Creating layer accuracy
I0428 19:53:00.619259 27672 net.cpp:86] Creating Layer accuracy
I0428 19:53:00.619262 27672 net.cpp:408] accuracy <- ip3_relu3_0_split_0
I0428 19:53:00.619267 27672 net.cpp:408] accuracy <- label_mnist_1_split_0
I0428 19:53:00.619272 27672 net.cpp:382] accuracy -> accuracy
…
