…
I0428 20:04:53.316473 30483 net.cpp:296] The NetState phase (0) differed from the phase (1) specified by a rule in layer mnist
I0428 20:04:53.316488 30483 net.cpp:296] The NetState phase (0) differed from the phase (1) specified by a rule in layer accuracy
I0428 20:04:53.316563 30483 net.cpp:53] Initializing net from parameters: 
name: "LeNet"
state {
  phase: TRAIN
  level: 0
  stage: ""
}
layer {
  name: "mnist"
  type: "Data"
  top: "data"
  top: "label"
  include {
    phase: TRAIN
  }
  transform_param {
    scale: 0.00390625
  }
  data_param {
    source: "examples/mnist/mnist_train_lmdb"
    batch_size: 64
    backend: LMDB
  }
}
layer {
  name: "conv0"
  type: "Convolution"
  bottom: "data"
  top: "conv0"
  param {
    lr_mult: 1
  }
  param {
    lr_mult: 2
  }
  convolution_param {
    num_output: 25
    kernel_size: 5
    stride: 1
    weight_filler {
      type: "xavier"
    }
    bias_filler {
      type: "constant"
    }
  }
}
layer {
  name: "pool0"
  type: "Pooling"
  bottom: "conv0"
  top: "pool0"
  pooling_param {
    pool: MAX
    kernel_size: 2
    stride: 2
  }
}
layer {
  name: "conv1"
  type: "Convolution"
  bottom: "pool0"
  top: "conv1"
  param {
    lr_mult: 1
  }
  param {
    lr_mult: 2
  }
  convolution_param {
    num_output: 2
    kernel_size: 5
    stride: 1
    weight_filler {
      type: "xavier"
    }
    bias_filler {
      type: "constant"
    }
  }
}
layer {
  name: "pool1"
  type: "Pooling"
  bottom: "conv1"
  top: "pool1"
  pooling_param {
    pool: MAX
    kernel_size: 2
    stride: 2
  }
}
layer {
  name: "ip1"
  type: "InnerProduct"
  bottom: "pool1"
  top: "ip1"
  param {
    lr_mult: 1
  }
  param {
    lr_mult: 2
  }
  inner_product_param {
    num_output: 50
    weight_filler {
      type: "xavier"
    }
    bias_filler {
      type: "constant"
    }
  }
}
layer {
  name: "relu1"
  type: "ReLU"
  bottom: "ip1"
  top: "ip1"
}
layer {
  name: "ip2"
  type: "InnerProduct"
  bottom: "ip1"
  top: "ip2"
  param {
    lr_mult: 1
  }
  param {
    lr_mult: 2
  }
  inner_product_param {
    num_output: 10
    weight_filler {
      type: "xavier"
    }
    bias_filler {
      type: "constant"
    }
  }
}
layer {
  name: "relu2"
  type: "ReLU"
  bottom: "ip2"
  top: "ip2"
}
layer {
  name: "loss"
  type: "SoftmaxWithLoss"
  bottom: "ip2"
  bottom: "label"
  top: "loss"
}
I0428 20:04:53.316648 30483 layer_factory.hpp:77] Creating layer mnist
I0428 20:04:53.316781 30483 db_lmdb.cpp:35] Opened lmdb examples/mnist/mnist_train_lmdb
I0428 20:04:53.316802 30483 net.cpp:86] Creating Layer mnist
I0428 20:04:53.316807 30483 net.cpp:382] mnist -> data
I0428 20:04:53.316845 30483 net.cpp:382] mnist -> label
I0428 20:04:53.317844 30483 data_layer.cpp:45] output data size: 64,1,28,28
I0428 20:04:53.320003 30483 net.cpp:124] Setting up mnist
I0428 20:04:53.320046 30483 net.cpp:131] Top shape: 64 1 28 28 (50176)
I0428 20:04:53.320078 30483 net.cpp:131] Top shape: 64 (64)
I0428 20:04:53.320082 30483 net.cpp:139] Memory required for data: 200960
I0428 20:04:53.320088 30483 layer_factory.hpp:77] Creating layer conv0
I0428 20:04:53.320101 30483 net.cpp:86] Creating Layer conv0
I0428 20:04:53.320106 30483 net.cpp:408] conv0 <- data
I0428 20:04:53.320116 30483 net.cpp:382] conv0 -> conv0
I0428 20:04:53.552942 30483 net.cpp:124] Setting up conv0
I0428 20:04:53.552985 30483 net.cpp:131] Top shape: 64 25 24 24 (921600)
I0428 20:04:53.552989 30483 net.cpp:139] Memory required for data: 3887360
I0428 20:04:53.553022 30483 layer_factory.hpp:77] Creating layer pool0
I0428 20:04:53.553050 30483 net.cpp:86] Creating Layer pool0
I0428 20:04:53.553055 30483 net.cpp:408] pool0 <- conv0
I0428 20:04:53.553061 30483 net.cpp:382] pool0 -> pool0
I0428 20:04:53.553103 30483 net.cpp:124] Setting up pool0
I0428 20:04:53.553117 30483 net.cpp:131] Top shape: 64 25 12 12 (230400)
I0428 20:04:53.553120 30483 net.cpp:139] Memory required for data: 4808960
I0428 20:04:53.553123 30483 layer_factory.hpp:77] Creating layer conv1
I0428 20:04:53.553133 30483 net.cpp:86] Creating Layer conv1
I0428 20:04:53.553136 30483 net.cpp:408] conv1 <- pool0
I0428 20:04:53.553141 30483 net.cpp:382] conv1 -> conv1
I0428 20:04:53.555901 30483 net.cpp:124] Setting up conv1
I0428 20:04:53.555930 30483 net.cpp:131] Top shape: 64 2 8 8 (8192)
I0428 20:04:53.555934 30483 net.cpp:139] Memory required for data: 4841728
I0428 20:04:53.555943 30483 layer_factory.hpp:77] Creating layer pool1
I0428 20:04:53.555949 30483 net.cpp:86] Creating Layer pool1
I0428 20:04:53.555953 30483 net.cpp:408] pool1 <- conv1
I0428 20:04:53.555958 30483 net.cpp:382] pool1 -> pool1
I0428 20:04:53.555992 30483 net.cpp:124] Setting up pool1
I0428 20:04:53.555997 30483 net.cpp:131] Top shape: 64 2 4 4 (2048)
I0428 20:04:53.555999 30483 net.cpp:139] Memory required for data: 4849920
I0428 20:04:53.556002 30483 layer_factory.hpp:77] Creating layer ip1
I0428 20:04:53.556010 30483 net.cpp:86] Creating Layer ip1
I0428 20:04:53.556012 30483 net.cpp:408] ip1 <- pool1
I0428 20:04:53.556016 30483 net.cpp:382] ip1 -> ip1
I0428 20:04:53.556118 30483 net.cpp:124] Setting up ip1
I0428 20:04:53.556124 30483 net.cpp:131] Top shape: 64 50 (3200)
I0428 20:04:53.556128 30483 net.cpp:139] Memory required for data: 4862720
I0428 20:04:53.556134 30483 layer_factory.hpp:77] Creating layer relu1
I0428 20:04:53.556139 30483 net.cpp:86] Creating Layer relu1
I0428 20:04:53.556143 30483 net.cpp:408] relu1 <- ip1
I0428 20:04:53.556146 30483 net.cpp:369] relu1 -> ip1 (in-place)
I0428 20:04:53.556300 30483 net.cpp:124] Setting up relu1
I0428 20:04:53.556308 30483 net.cpp:131] Top shape: 64 50 (3200)
I0428 20:04:53.556311 30483 net.cpp:139] Memory required for data: 4875520
I0428 20:04:53.556314 30483 layer_factory.hpp:77] Creating layer ip2
I0428 20:04:53.556320 30483 net.cpp:86] Creating Layer ip2
I0428 20:04:53.556324 30483 net.cpp:408] ip2 <- ip1
I0428 20:04:53.556327 30483 net.cpp:382] ip2 -> ip2
I0428 20:04:53.556419 30483 net.cpp:124] Setting up ip2
I0428 20:04:53.556427 30483 net.cpp:131] Top shape: 64 10 (640)
I0428 20:04:53.556429 30483 net.cpp:139] Memory required for data: 4878080
I0428 20:04:53.556434 30483 layer_factory.hpp:77] Creating layer relu2
I0428 20:04:53.556440 30483 net.cpp:86] Creating Layer relu2
I0428 20:04:53.556442 30483 net.cpp:408] relu2 <- ip2
I0428 20:04:53.556447 30483 net.cpp:369] relu2 -> ip2 (in-place)
I0428 20:04:53.557137 30483 net.cpp:124] Setting up relu2
I0428 20:04:53.557148 30483 net.cpp:131] Top shape: 64 10 (640)
I0428 20:04:53.557168 30483 net.cpp:139] Memory required for data: 4880640
I0428 20:04:53.557170 30483 layer_factory.hpp:77] Creating layer loss
I0428 20:04:53.557183 30483 net.cpp:86] Creating Layer loss
I0428 20:04:53.557185 30483 net.cpp:408] loss <- ip2
I0428 20:04:53.557190 30483 net.cpp:408] loss <- label
I0428 20:04:53.557195 30483 net.cpp:382] loss -> loss
I0428 20:04:53.557210 30483 layer_factory.hpp:77] Creating layer loss
…
I0428 20:04:53.557831 30483 solver.cpp:173] Creating test net (#0) specified by net file: ECE595/mnist/train_test/var_everything2/lenet_train_test984.prototxt
I0428 20:04:53.557871 30483 net.cpp:296] The NetState phase (1) differed from the phase (0) specified by a rule in layer mnist
I0428 20:04:53.557960 30483 net.cpp:53] Initializing net from parameters: 
name: "LeNet"
state {
  phase: TEST
}
layer {
  name: "mnist"
  type: "Data"
  top: "data"
  top: "label"
  include {
    phase: TEST
  }
  transform_param {
    scale: 0.00390625
  }
  data_param {
    source: "examples/mnist/mnist_test_lmdb"
    batch_size: 100
    backend: LMDB
  }
}
layer {
  name: "conv0"
  type: "Convolution"
  bottom: "data"
  top: "conv0"
  param {
    lr_mult: 1
  }
  param {
    lr_mult: 2
  }
  convolution_param {
    num_output: 25
    kernel_size: 5
    stride: 1
    weight_filler {
      type: "xavier"
    }
    bias_filler {
      type: "constant"
    }
  }
}
layer {
  name: "pool0"
  type: "Pooling"
  bottom: "conv0"
  top: "pool0"
  pooling_param {
    pool: MAX
    kernel_size: 2
    stride: 2
  }
}
layer {
  name: "conv1"
  type: "Convolution"
  bottom: "pool0"
  top: "conv1"
  param {
    lr_mult: 1
  }
  param {
    lr_mult: 2
  }
  convolution_param {
    num_output: 2
    kernel_size: 5
    stride: 1
    weight_filler {
      type: "xavier"
    }
    bias_filler {
      type: "constant"
    }
  }
}
layer {
  name: "pool1"
  type: "Pooling"
  bottom: "conv1"
  top: "pool1"
  pooling_param {
    pool: MAX
    kernel_size: 2
    stride: 2
  }
}
layer {
  name: "ip1"
  type: "InnerProduct"
  bottom: "pool1"
  top: "ip1"
  param {
    lr_mult: 1
  }
  param {
    lr_mult: 2
  }
  inner_product_param {
    num_output: 50
    weight_filler {
      type: "xavier"
    }
    bias_filler {
      type: "constant"
    }
  }
}
layer {
  name: "relu1"
  type: "ReLU"
  bottom: "ip1"
  top: "ip1"
}
layer {
  name: "ip2"
  type: "InnerProduct"
  bottom: "ip1"
  top: "ip2"
  param {
    lr_mult: 1
  }
  param {
    lr_mult: 2
  }
  inner_product_param {
    num_output: 10
    weight_filler {
      type: "xavier"
    }
    bias_filler {
      type: "constant"
    }
  }
}
layer {
  name: "relu2"
  type: "ReLU"
  bottom: "ip2"
  top: "ip2"
}
layer {
  name: "accuracy"
  type: "Accuracy"
  bottom: "ip2"
  bottom: "label"
  top: "accuracy"
  include {
    phase: TEST
  }
}
layer {
  name: "loss"
  type: "SoftmaxWithLoss"
  bottom: "ip2"
  bottom: "label"
  top: "loss"
}
I0428 20:04:53.558027 30483 layer_factory.hpp:77] Creating layer mnist
I0428 20:04:53.558073 30483 db_lmdb.cpp:35] Opened lmdb examples/mnist/mnist_test_lmdb
I0428 20:04:53.558084 30483 net.cpp:86] Creating Layer mnist
I0428 20:04:53.558089 30483 net.cpp:382] mnist -> data
I0428 20:04:53.558097 30483 net.cpp:382] mnist -> label
I0428 20:04:53.558212 30483 data_layer.cpp:45] output data size: 100,1,28,28
I0428 20:04:53.560148 30483 net.cpp:124] Setting up mnist
I0428 20:04:53.560176 30483 net.cpp:131] Top shape: 100 1 28 28 (78400)
I0428 20:04:53.560183 30483 net.cpp:131] Top shape: 100 (100)
I0428 20:04:53.560185 30483 net.cpp:139] Memory required for data: 314000
I0428 20:04:53.560189 30483 layer_factory.hpp:77] Creating layer label_mnist_1_split
I0428 20:04:53.560195 30483 net.cpp:86] Creating Layer label_mnist_1_split
I0428 20:04:53.560199 30483 net.cpp:408] label_mnist_1_split <- label
I0428 20:04:53.560204 30483 net.cpp:382] label_mnist_1_split -> label_mnist_1_split_0
I0428 20:04:53.560210 30483 net.cpp:382] label_mnist_1_split -> label_mnist_1_split_1
I0428 20:04:53.560314 30483 net.cpp:124] Setting up label_mnist_1_split
I0428 20:04:53.560331 30483 net.cpp:131] Top shape: 100 (100)
I0428 20:04:53.560335 30483 net.cpp:131] Top shape: 100 (100)
I0428 20:04:53.560338 30483 net.cpp:139] Memory required for data: 314800
I0428 20:04:53.560341 30483 layer_factory.hpp:77] Creating layer conv0
I0428 20:04:53.560349 30483 net.cpp:86] Creating Layer conv0
I0428 20:04:53.560353 30483 net.cpp:408] conv0 <- data
I0428 20:04:53.560358 30483 net.cpp:382] conv0 -> conv0
I0428 20:04:53.561877 30483 net.cpp:124] Setting up conv0
I0428 20:04:53.561906 30483 net.cpp:131] Top shape: 100 25 24 24 (1440000)
I0428 20:04:53.561910 30483 net.cpp:139] Memory required for data: 6074800
I0428 20:04:53.561918 30483 layer_factory.hpp:77] Creating layer pool0
I0428 20:04:53.561924 30483 net.cpp:86] Creating Layer pool0
I0428 20:04:53.561928 30483 net.cpp:408] pool0 <- conv0
I0428 20:04:53.561933 30483 net.cpp:382] pool0 -> pool0
I0428 20:04:53.561965 30483 net.cpp:124] Setting up pool0
I0428 20:04:53.561970 30483 net.cpp:131] Top shape: 100 25 12 12 (360000)
I0428 20:04:53.561974 30483 net.cpp:139] Memory required for data: 7514800
I0428 20:04:53.561976 30483 layer_factory.hpp:77] Creating layer conv1
I0428 20:04:53.561983 30483 net.cpp:86] Creating Layer conv1
I0428 20:04:53.561986 30483 net.cpp:408] conv1 <- pool0
I0428 20:04:53.561991 30483 net.cpp:382] conv1 -> conv1
I0428 20:04:53.564121 30483 net.cpp:124] Setting up conv1
I0428 20:04:53.564148 30483 net.cpp:131] Top shape: 100 2 8 8 (12800)
I0428 20:04:53.564152 30483 net.cpp:139] Memory required for data: 7566000
I0428 20:04:53.564174 30483 layer_factory.hpp:77] Creating layer pool1
I0428 20:04:53.564180 30483 net.cpp:86] Creating Layer pool1
I0428 20:04:53.564183 30483 net.cpp:408] pool1 <- conv1
I0428 20:04:53.564188 30483 net.cpp:382] pool1 -> pool1
I0428 20:04:53.564240 30483 net.cpp:124] Setting up pool1
I0428 20:04:53.564245 30483 net.cpp:131] Top shape: 100 2 4 4 (3200)
I0428 20:04:53.564249 30483 net.cpp:139] Memory required for data: 7578800
I0428 20:04:53.564251 30483 layer_factory.hpp:77] Creating layer ip1
I0428 20:04:53.564256 30483 net.cpp:86] Creating Layer ip1
I0428 20:04:53.564260 30483 net.cpp:408] ip1 <- pool1
I0428 20:04:53.564265 30483 net.cpp:382] ip1 -> ip1
I0428 20:04:53.564365 30483 net.cpp:124] Setting up ip1
I0428 20:04:53.564373 30483 net.cpp:131] Top shape: 100 50 (5000)
I0428 20:04:53.564376 30483 net.cpp:139] Memory required for data: 7598800
I0428 20:04:53.564383 30483 layer_factory.hpp:77] Creating layer relu1
I0428 20:04:53.564388 30483 net.cpp:86] Creating Layer relu1
I0428 20:04:53.564391 30483 net.cpp:408] relu1 <- ip1
I0428 20:04:53.564396 30483 net.cpp:369] relu1 -> ip1 (in-place)
I0428 20:04:53.564569 30483 net.cpp:124] Setting up relu1
I0428 20:04:53.564589 30483 net.cpp:131] Top shape: 100 50 (5000)
I0428 20:04:53.564591 30483 net.cpp:139] Memory required for data: 7618800
I0428 20:04:53.564594 30483 layer_factory.hpp:77] Creating layer ip2
I0428 20:04:53.564600 30483 net.cpp:86] Creating Layer ip2
I0428 20:04:53.564604 30483 net.cpp:408] ip2 <- ip1
I0428 20:04:53.564609 30483 net.cpp:382] ip2 -> ip2
I0428 20:04:53.564707 30483 net.cpp:124] Setting up ip2
I0428 20:04:53.564713 30483 net.cpp:131] Top shape: 100 10 (1000)
I0428 20:04:53.564715 30483 net.cpp:139] Memory required for data: 7622800
I0428 20:04:53.564721 30483 layer_factory.hpp:77] Creating layer relu2
I0428 20:04:53.564726 30483 net.cpp:86] Creating Layer relu2
I0428 20:04:53.564729 30483 net.cpp:408] relu2 <- ip2
I0428 20:04:53.564733 30483 net.cpp:369] relu2 -> ip2 (in-place)
I0428 20:04:53.564927 30483 net.cpp:124] Setting up relu2
I0428 20:04:53.564937 30483 net.cpp:131] Top shape: 100 10 (1000)
I0428 20:04:53.564940 30483 net.cpp:139] Memory required for data: 7626800
I0428 20:04:53.564944 30483 layer_factory.hpp:77] Creating layer ip2_relu2_0_split
I0428 20:04:53.564947 30483 net.cpp:86] Creating Layer ip2_relu2_0_split
I0428 20:04:53.564951 30483 net.cpp:408] ip2_relu2_0_split <- ip2
I0428 20:04:53.564956 30483 net.cpp:382] ip2_relu2_0_split -> ip2_relu2_0_split_0
I0428 20:04:53.564972 30483 net.cpp:382] ip2_relu2_0_split -> ip2_relu2_0_split_1
I0428 20:04:53.565028 30483 net.cpp:124] Setting up ip2_relu2_0_split
I0428 20:04:53.565035 30483 net.cpp:131] Top shape: 100 10 (1000)
I0428 20:04:53.565039 30483 net.cpp:131] Top shape: 100 10 (1000)
I0428 20:04:53.565042 30483 net.cpp:139] Memory required for data: 7634800
I0428 20:04:53.565044 30483 layer_factory.hpp:77] Creating layer accuracy
I0428 20:04:53.565050 30483 net.cpp:86] Creating Layer accuracy
I0428 20:04:53.565053 30483 net.cpp:408] accuracy <- ip2_relu2_0_split_0
I0428 20:04:53.565057 30483 net.cpp:408] accuracy <- label_mnist_1_split_0
I0428 20:04:53.565062 30483 net.cpp:382] accuracy -> accuracy
…
