…
I0428 19:48:51.953455 26613 net.cpp:296] The NetState phase (0) differed from the phase (1) specified by a rule in layer mnist
I0428 19:48:51.953480 26613 net.cpp:296] The NetState phase (0) differed from the phase (1) specified by a rule in layer accuracy
I0428 19:48:51.953583 26613 net.cpp:53] Initializing net from parameters: 
name: "LeNet"
state {
  phase: TRAIN
  level: 0
  stage: ""
}
layer {
  name: "mnist"
  type: "Data"
  top: "data"
  top: "label"
  include {
    phase: TRAIN
  }
  transform_param {
    scale: 0.00390625
  }
  data_param {
    source: "examples/mnist/mnist_train_lmdb"
    batch_size: 64
    backend: LMDB
  }
}
layer {
  name: "conv0"
  type: "Convolution"
  bottom: "data"
  top: "conv0"
  param {
    lr_mult: 1
  }
  param {
    lr_mult: 2
  }
  convolution_param {
    num_output: 5
    kernel_size: 5
    stride: 1
    weight_filler {
      type: "xavier"
    }
    bias_filler {
      type: "constant"
    }
  }
}
layer {
  name: "pool0"
  type: "Pooling"
  bottom: "conv0"
  top: "pool0"
  pooling_param {
    pool: MAX
    kernel_size: 2
    stride: 2
  }
}
layer {
  name: "conv1"
  type: "Convolution"
  bottom: "pool0"
  top: "conv1"
  param {
    lr_mult: 1
  }
  param {
    lr_mult: 2
  }
  convolution_param {
    num_output: 5
    kernel_size: 5
    stride: 1
    weight_filler {
      type: "xavier"
    }
    bias_filler {
      type: "constant"
    }
  }
}
layer {
  name: "pool1"
  type: "Pooling"
  bottom: "conv1"
  top: "pool1"
  pooling_param {
    pool: MAX
    kernel_size: 2
    stride: 2
  }
}
layer {
  name: "ip1"
  type: "InnerProduct"
  bottom: "pool1"
  top: "ip1"
  param {
    lr_mult: 1
  }
  param {
    lr_mult: 2
  }
  inner_product_param {
    num_output: 50
    weight_filler {
      type: "xavier"
    }
    bias_filler {
      type: "constant"
    }
  }
}
layer {
  name: "relu1"
  type: "ReLU"
  bottom: "ip1"
  top: "ip1"
}
layer {
  name: "ip2"
  type: "InnerProduct"
  bottom: "ip1"
  top: "ip2"
  param {
    lr_mult: 1
  }
  param {
    lr_mult: 2
  }
  inner_product_param {
    num_output: 10
    weight_filler {
      type: "xavier"
    }
    bias_filler {
      type: "constant"
    }
  }
}
layer {
  name: "relu2"
  type: "ReLU"
  bottom: "ip2"
  top: "ip2"
}
layer {
  name: "loss"
  type: "SoftmaxWithLoss"
  bottom: "ip2"
  bottom: "label"
  top: "loss"
}
I0428 19:48:51.953689 26613 layer_factory.hpp:77] Creating layer mnist
I0428 19:48:51.953816 26613 db_lmdb.cpp:35] Opened lmdb examples/mnist/mnist_train_lmdb
I0428 19:48:51.953850 26613 net.cpp:86] Creating Layer mnist
I0428 19:48:51.953862 26613 net.cpp:382] mnist -> data
I0428 19:48:51.953903 26613 net.cpp:382] mnist -> label
I0428 19:48:51.955122 26613 data_layer.cpp:45] output data size: 64,1,28,28
I0428 19:48:51.957564 26613 net.cpp:124] Setting up mnist
I0428 19:48:51.957584 26613 net.cpp:131] Top shape: 64 1 28 28 (50176)
I0428 19:48:51.957597 26613 net.cpp:131] Top shape: 64 (64)
I0428 19:48:51.957604 26613 net.cpp:139] Memory required for data: 200960
I0428 19:48:51.957614 26613 layer_factory.hpp:77] Creating layer conv0
I0428 19:48:51.957636 26613 net.cpp:86] Creating Layer conv0
I0428 19:48:51.957646 26613 net.cpp:408] conv0 <- data
I0428 19:48:51.957679 26613 net.cpp:382] conv0 -> conv0
I0428 19:48:52.243203 26613 net.cpp:124] Setting up conv0
I0428 19:48:52.243238 26613 net.cpp:131] Top shape: 64 5 24 24 (184320)
I0428 19:48:52.243245 26613 net.cpp:139] Memory required for data: 938240
I0428 19:48:52.243297 26613 layer_factory.hpp:77] Creating layer pool0
I0428 19:48:52.243320 26613 net.cpp:86] Creating Layer pool0
I0428 19:48:52.243330 26613 net.cpp:408] pool0 <- conv0
I0428 19:48:52.243341 26613 net.cpp:382] pool0 -> pool0
I0428 19:48:52.243405 26613 net.cpp:124] Setting up pool0
I0428 19:48:52.243417 26613 net.cpp:131] Top shape: 64 5 12 12 (46080)
I0428 19:48:52.243424 26613 net.cpp:139] Memory required for data: 1122560
I0428 19:48:52.243430 26613 layer_factory.hpp:77] Creating layer conv1
I0428 19:48:52.243449 26613 net.cpp:86] Creating Layer conv1
I0428 19:48:52.243458 26613 net.cpp:408] conv1 <- pool0
I0428 19:48:52.243468 26613 net.cpp:382] conv1 -> conv1
I0428 19:48:52.245658 26613 net.cpp:124] Setting up conv1
I0428 19:48:52.245679 26613 net.cpp:131] Top shape: 64 5 8 8 (20480)
I0428 19:48:52.245687 26613 net.cpp:139] Memory required for data: 1204480
I0428 19:48:52.245703 26613 layer_factory.hpp:77] Creating layer pool1
I0428 19:48:52.245718 26613 net.cpp:86] Creating Layer pool1
I0428 19:48:52.245724 26613 net.cpp:408] pool1 <- conv1
I0428 19:48:52.245734 26613 net.cpp:382] pool1 -> pool1
I0428 19:48:52.245789 26613 net.cpp:124] Setting up pool1
I0428 19:48:52.245800 26613 net.cpp:131] Top shape: 64 5 4 4 (5120)
I0428 19:48:52.245806 26613 net.cpp:139] Memory required for data: 1224960
I0428 19:48:52.245813 26613 layer_factory.hpp:77] Creating layer ip1
I0428 19:48:52.245826 26613 net.cpp:86] Creating Layer ip1
I0428 19:48:52.245832 26613 net.cpp:408] ip1 <- pool1
I0428 19:48:52.245842 26613 net.cpp:382] ip1 -> ip1
I0428 19:48:52.246971 26613 net.cpp:124] Setting up ip1
I0428 19:48:52.246989 26613 net.cpp:131] Top shape: 64 50 (3200)
I0428 19:48:52.246996 26613 net.cpp:139] Memory required for data: 1237760
I0428 19:48:52.247012 26613 layer_factory.hpp:77] Creating layer relu1
I0428 19:48:52.247025 26613 net.cpp:86] Creating Layer relu1
I0428 19:48:52.247031 26613 net.cpp:408] relu1 <- ip1
I0428 19:48:52.247041 26613 net.cpp:369] relu1 -> ip1 (in-place)
I0428 19:48:52.247252 26613 net.cpp:124] Setting up relu1
I0428 19:48:52.247267 26613 net.cpp:131] Top shape: 64 50 (3200)
I0428 19:48:52.247272 26613 net.cpp:139] Memory required for data: 1250560
I0428 19:48:52.247279 26613 layer_factory.hpp:77] Creating layer ip2
I0428 19:48:52.247292 26613 net.cpp:86] Creating Layer ip2
I0428 19:48:52.247298 26613 net.cpp:408] ip2 <- ip1
I0428 19:48:52.247309 26613 net.cpp:382] ip2 -> ip2
I0428 19:48:52.247440 26613 net.cpp:124] Setting up ip2
I0428 19:48:52.247452 26613 net.cpp:131] Top shape: 64 10 (640)
I0428 19:48:52.247458 26613 net.cpp:139] Memory required for data: 1253120
I0428 19:48:52.247470 26613 layer_factory.hpp:77] Creating layer relu2
I0428 19:48:52.247481 26613 net.cpp:86] Creating Layer relu2
I0428 19:48:52.247488 26613 net.cpp:408] relu2 <- ip2
I0428 19:48:52.247498 26613 net.cpp:369] relu2 -> ip2 (in-place)
I0428 19:48:52.248364 26613 net.cpp:124] Setting up relu2
I0428 19:48:52.248383 26613 net.cpp:131] Top shape: 64 10 (640)
I0428 19:48:52.248389 26613 net.cpp:139] Memory required for data: 1255680
I0428 19:48:52.248396 26613 layer_factory.hpp:77] Creating layer loss
I0428 19:48:52.248409 26613 net.cpp:86] Creating Layer loss
I0428 19:48:52.248415 26613 net.cpp:408] loss <- ip2
I0428 19:48:52.248425 26613 net.cpp:408] loss <- label
I0428 19:48:52.248435 26613 net.cpp:382] loss -> loss
I0428 19:48:52.248466 26613 layer_factory.hpp:77] Creating layer loss
…
I0428 19:48:52.249274 26613 solver.cpp:173] Creating test net (#0) specified by net file: ECE595/mnist/train_test/var_everything2/lenet_train_test557.prototxt
I0428 19:48:52.249313 26613 net.cpp:296] The NetState phase (1) differed from the phase (0) specified by a rule in layer mnist
I0428 19:48:52.249424 26613 net.cpp:53] Initializing net from parameters: 
name: "LeNet"
state {
  phase: TEST
}
layer {
  name: "mnist"
  type: "Data"
  top: "data"
  top: "label"
  include {
    phase: TEST
  }
  transform_param {
    scale: 0.00390625
  }
  data_param {
    source: "examples/mnist/mnist_test_lmdb"
    batch_size: 100
    backend: LMDB
  }
}
layer {
  name: "conv0"
  type: "Convolution"
  bottom: "data"
  top: "conv0"
  param {
    lr_mult: 1
  }
  param {
    lr_mult: 2
  }
  convolution_param {
    num_output: 5
    kernel_size: 5
    stride: 1
    weight_filler {
      type: "xavier"
    }
    bias_filler {
      type: "constant"
    }
  }
}
layer {
  name: "pool0"
  type: "Pooling"
  bottom: "conv0"
  top: "pool0"
  pooling_param {
    pool: MAX
    kernel_size: 2
    stride: 2
  }
}
layer {
  name: "conv1"
  type: "Convolution"
  bottom: "pool0"
  top: "conv1"
  param {
    lr_mult: 1
  }
  param {
    lr_mult: 2
  }
  convolution_param {
    num_output: 5
    kernel_size: 5
    stride: 1
    weight_filler {
      type: "xavier"
    }
    bias_filler {
      type: "constant"
    }
  }
}
layer {
  name: "pool1"
  type: "Pooling"
  bottom: "conv1"
  top: "pool1"
  pooling_param {
    pool: MAX
    kernel_size: 2
    stride: 2
  }
}
layer {
  name: "ip1"
  type: "InnerProduct"
  bottom: "pool1"
  top: "ip1"
  param {
    lr_mult: 1
  }
  param {
    lr_mult: 2
  }
  inner_product_param {
    num_output: 50
    weight_filler {
      type: "xavier"
    }
    bias_filler {
      type: "constant"
    }
  }
}
layer {
  name: "relu1"
  type: "ReLU"
  bottom: "ip1"
  top: "ip1"
}
layer {
  name: "ip2"
  type: "InnerProduct"
  bottom: "ip1"
  top: "ip2"
  param {
    lr_mult: 1
  }
  param {
    lr_mult: 2
  }
  inner_product_param {
    num_output: 10
    weight_filler {
      type: "xavier"
    }
    bias_filler {
      type: "constant"
    }
  }
}
layer {
  name: "relu2"
  type: "ReLU"
  bottom: "ip2"
  top: "ip2"
}
layer {
  name: "accuracy"
  type: "Accuracy"
  bottom: "ip2"
  bottom: "label"
  top: "accuracy"
  include {
    phase: TEST
  }
}
layer {
  name: "loss"
  type: "SoftmaxWithLoss"
  bottom: "ip2"
  bottom: "label"
  top: "loss"
}
I0428 19:48:52.249547 26613 layer_factory.hpp:77] Creating layer mnist
I0428 19:48:52.249616 26613 db_lmdb.cpp:35] Opened lmdb examples/mnist/mnist_test_lmdb
I0428 19:48:52.249644 26613 net.cpp:86] Creating Layer mnist
I0428 19:48:52.249655 26613 net.cpp:382] mnist -> data
I0428 19:48:52.249668 26613 net.cpp:382] mnist -> label
I0428 19:48:52.249815 26613 data_layer.cpp:45] output data size: 100,1,28,28
I0428 19:48:52.252168 26613 net.cpp:124] Setting up mnist
I0428 19:48:52.252187 26613 net.cpp:131] Top shape: 100 1 28 28 (78400)
I0428 19:48:52.252199 26613 net.cpp:131] Top shape: 100 (100)
I0428 19:48:52.252205 26613 net.cpp:139] Memory required for data: 314000
I0428 19:48:52.252213 26613 layer_factory.hpp:77] Creating layer label_mnist_1_split
I0428 19:48:52.252229 26613 net.cpp:86] Creating Layer label_mnist_1_split
I0428 19:48:52.252244 26613 net.cpp:408] label_mnist_1_split <- label
I0428 19:48:52.252254 26613 net.cpp:382] label_mnist_1_split -> label_mnist_1_split_0
I0428 19:48:52.252267 26613 net.cpp:382] label_mnist_1_split -> label_mnist_1_split_1
I0428 19:48:52.252367 26613 net.cpp:124] Setting up label_mnist_1_split
I0428 19:48:52.252388 26613 net.cpp:131] Top shape: 100 (100)
I0428 19:48:52.252396 26613 net.cpp:131] Top shape: 100 (100)
I0428 19:48:52.252403 26613 net.cpp:139] Memory required for data: 314800
I0428 19:48:52.252409 26613 layer_factory.hpp:77] Creating layer conv0
I0428 19:48:52.252427 26613 net.cpp:86] Creating Layer conv0
I0428 19:48:52.252435 26613 net.cpp:408] conv0 <- data
I0428 19:48:52.252449 26613 net.cpp:382] conv0 -> conv0
I0428 19:48:52.254426 26613 net.cpp:124] Setting up conv0
I0428 19:48:52.254446 26613 net.cpp:131] Top shape: 100 5 24 24 (288000)
I0428 19:48:52.254452 26613 net.cpp:139] Memory required for data: 1466800
I0428 19:48:52.254470 26613 layer_factory.hpp:77] Creating layer pool0
I0428 19:48:52.254484 26613 net.cpp:86] Creating Layer pool0
I0428 19:48:52.254492 26613 net.cpp:408] pool0 <- conv0
I0428 19:48:52.254501 26613 net.cpp:382] pool0 -> pool0
I0428 19:48:52.254555 26613 net.cpp:124] Setting up pool0
I0428 19:48:52.254567 26613 net.cpp:131] Top shape: 100 5 12 12 (72000)
I0428 19:48:52.254573 26613 net.cpp:139] Memory required for data: 1754800
I0428 19:48:52.254580 26613 layer_factory.hpp:77] Creating layer conv1
I0428 19:48:52.254598 26613 net.cpp:86] Creating Layer conv1
I0428 19:48:52.254606 26613 net.cpp:408] conv1 <- pool0
I0428 19:48:52.254619 26613 net.cpp:382] conv1 -> conv1
I0428 19:48:52.256948 26613 net.cpp:124] Setting up conv1
I0428 19:48:52.256965 26613 net.cpp:131] Top shape: 100 5 8 8 (32000)
I0428 19:48:52.256973 26613 net.cpp:139] Memory required for data: 1882800
I0428 19:48:52.256989 26613 layer_factory.hpp:77] Creating layer pool1
I0428 19:48:52.257002 26613 net.cpp:86] Creating Layer pool1
I0428 19:48:52.257009 26613 net.cpp:408] pool1 <- conv1
I0428 19:48:52.257021 26613 net.cpp:382] pool1 -> pool1
I0428 19:48:52.257081 26613 net.cpp:124] Setting up pool1
I0428 19:48:52.257091 26613 net.cpp:131] Top shape: 100 5 4 4 (8000)
I0428 19:48:52.257097 26613 net.cpp:139] Memory required for data: 1914800
I0428 19:48:52.257102 26613 layer_factory.hpp:77] Creating layer ip1
I0428 19:48:52.257117 26613 net.cpp:86] Creating Layer ip1
I0428 19:48:52.257125 26613 net.cpp:408] ip1 <- pool1
I0428 19:48:52.257134 26613 net.cpp:382] ip1 -> ip1
I0428 19:48:52.257292 26613 net.cpp:124] Setting up ip1
I0428 19:48:52.257304 26613 net.cpp:131] Top shape: 100 50 (5000)
I0428 19:48:52.257311 26613 net.cpp:139] Memory required for data: 1934800
I0428 19:48:52.257325 26613 layer_factory.hpp:77] Creating layer relu1
I0428 19:48:52.257338 26613 net.cpp:86] Creating Layer relu1
I0428 19:48:52.257354 26613 net.cpp:408] relu1 <- ip1
I0428 19:48:52.257369 26613 net.cpp:369] relu1 -> ip1 (in-place)
I0428 19:48:52.257575 26613 net.cpp:124] Setting up relu1
I0428 19:48:52.257589 26613 net.cpp:131] Top shape: 100 50 (5000)
I0428 19:48:52.257596 26613 net.cpp:139] Memory required for data: 1954800
I0428 19:48:52.257601 26613 layer_factory.hpp:77] Creating layer ip2
I0428 19:48:52.257616 26613 net.cpp:86] Creating Layer ip2
I0428 19:48:52.257624 26613 net.cpp:408] ip2 <- ip1
I0428 19:48:52.257637 26613 net.cpp:382] ip2 -> ip2
I0428 19:48:52.257766 26613 net.cpp:124] Setting up ip2
I0428 19:48:52.257777 26613 net.cpp:131] Top shape: 100 10 (1000)
I0428 19:48:52.257784 26613 net.cpp:139] Memory required for data: 1958800
I0428 19:48:52.257797 26613 layer_factory.hpp:77] Creating layer relu2
I0428 19:48:52.257807 26613 net.cpp:86] Creating Layer relu2
I0428 19:48:52.257812 26613 net.cpp:408] relu2 <- ip2
I0428 19:48:52.257820 26613 net.cpp:369] relu2 -> ip2 (in-place)
I0428 19:48:52.258019 26613 net.cpp:124] Setting up relu2
I0428 19:48:52.258031 26613 net.cpp:131] Top shape: 100 10 (1000)
I0428 19:48:52.258038 26613 net.cpp:139] Memory required for data: 1962800
I0428 19:48:52.258044 26613 layer_factory.hpp:77] Creating layer ip2_relu2_0_split
I0428 19:48:52.258054 26613 net.cpp:86] Creating Layer ip2_relu2_0_split
I0428 19:48:52.258059 26613 net.cpp:408] ip2_relu2_0_split <- ip2
I0428 19:48:52.258069 26613 net.cpp:382] ip2_relu2_0_split -> ip2_relu2_0_split_0
I0428 19:48:52.258103 26613 net.cpp:382] ip2_relu2_0_split -> ip2_relu2_0_split_1
I0428 19:48:52.258162 26613 net.cpp:124] Setting up ip2_relu2_0_split
I0428 19:48:52.258172 26613 net.cpp:131] Top shape: 100 10 (1000)
I0428 19:48:52.258179 26613 net.cpp:131] Top shape: 100 10 (1000)
I0428 19:48:52.258186 26613 net.cpp:139] Memory required for data: 1970800
I0428 19:48:52.258193 26613 layer_factory.hpp:77] Creating layer accuracy
I0428 19:48:52.258203 26613 net.cpp:86] Creating Layer accuracy
I0428 19:48:52.258210 26613 net.cpp:408] accuracy <- ip2_relu2_0_split_0
I0428 19:48:52.258225 26613 net.cpp:408] accuracy <- label_mnist_1_split_0
I0428 19:48:52.258234 26613 net.cpp:382] accuracy -> accuracy
…
