…
I0428 19:50:19.724941 26986 net.cpp:296] The NetState phase (0) differed from the phase (1) specified by a rule in layer mnist
I0428 19:50:19.724959 26986 net.cpp:296] The NetState phase (0) differed from the phase (1) specified by a rule in layer accuracy
I0428 19:50:19.725062 26986 net.cpp:53] Initializing net from parameters: 
name: "LeNet"
state {
  phase: TRAIN
  level: 0
  stage: ""
}
layer {
  name: "mnist"
  type: "Data"
  top: "data"
  top: "label"
  include {
    phase: TRAIN
  }
  transform_param {
    scale: 0.00390625
  }
  data_param {
    source: "examples/mnist/mnist_train_lmdb"
    batch_size: 64
    backend: LMDB
  }
}
layer {
  name: "conv0"
  type: "Convolution"
  bottom: "data"
  top: "conv0"
  param {
    lr_mult: 1
  }
  param {
    lr_mult: 2
  }
  convolution_param {
    num_output: 5
    kernel_size: 5
    stride: 1
    weight_filler {
      type: "xavier"
    }
    bias_filler {
      type: "constant"
    }
  }
}
layer {
  name: "pool0"
  type: "Pooling"
  bottom: "conv0"
  top: "pool0"
  pooling_param {
    pool: MAX
    kernel_size: 2
    stride: 2
  }
}
layer {
  name: "conv1"
  type: "Convolution"
  bottom: "pool0"
  top: "conv1"
  param {
    lr_mult: 1
  }
  param {
    lr_mult: 2
  }
  convolution_param {
    num_output: 10
    kernel_size: 5
    stride: 1
    weight_filler {
      type: "xavier"
    }
    bias_filler {
      type: "constant"
    }
  }
}
layer {
  name: "pool1"
  type: "Pooling"
  bottom: "conv1"
  top: "pool1"
  pooling_param {
    pool: MAX
    kernel_size: 2
    stride: 2
  }
}
layer {
  name: "ip1"
  type: "InnerProduct"
  bottom: "pool1"
  top: "ip1"
  param {
    lr_mult: 1
  }
  param {
    lr_mult: 2
  }
  inner_product_param {
    num_output: 10
    weight_filler {
      type: "xavier"
    }
    bias_filler {
      type: "constant"
    }
  }
}
layer {
  name: "relu1"
  type: "ReLU"
  bottom: "ip1"
  top: "ip1"
}
layer {
  name: "ip2"
  type: "InnerProduct"
  bottom: "ip1"
  top: "ip2"
  param {
    lr_mult: 1
  }
  param {
    lr_mult: 2
  }
  inner_product_param {
    num_output: 25
    weight_filler {
      type: "xavier"
    }
    bias_filler {
      type: "constant"
    }
  }
}
layer {
  name: "relu2"
  type: "ReLU"
  bottom: "ip2"
  top: "ip2"
}
layer {
  name: "ip3"
  type: "InnerProduct"
  bottom: "ip2"
  top: "ip3"
  param {
    lr_mult: 1
  }
  param {
    lr_mult: 2
  }
  inner_product_param {
    num_output: 10
    weight_filler {
      type: "xavier"
    }
    bias_filler {
      type: "constant"
    }
  }
}
layer {
  name: "relu3"
  type: "ReLU"
  bottom: "ip3"
  top: "ip3"
}
layer {
  name: "loss"
  type: "SoftmaxWithLoss"
  bottom: "ip3"
  bottom: "label"
  top: "loss"
}
I0428 19:50:19.725143 26986 layer_factory.hpp:77] Creating layer mnist
I0428 19:50:19.725244 26986 db_lmdb.cpp:35] Opened lmdb examples/mnist/mnist_train_lmdb
I0428 19:50:19.725267 26986 net.cpp:86] Creating Layer mnist
I0428 19:50:19.725276 26986 net.cpp:382] mnist -> data
I0428 19:50:19.725298 26986 net.cpp:382] mnist -> label
I0428 19:50:19.726392 26986 data_layer.cpp:45] output data size: 64,1,28,28
I0428 19:50:19.728849 26986 net.cpp:124] Setting up mnist
I0428 19:50:19.728868 26986 net.cpp:131] Top shape: 64 1 28 28 (50176)
I0428 19:50:19.728873 26986 net.cpp:131] Top shape: 64 (64)
I0428 19:50:19.728876 26986 net.cpp:139] Memory required for data: 200960
I0428 19:50:19.728883 26986 layer_factory.hpp:77] Creating layer conv0
I0428 19:50:19.728929 26986 net.cpp:86] Creating Layer conv0
I0428 19:50:19.728950 26986 net.cpp:408] conv0 <- data
I0428 19:50:19.728962 26986 net.cpp:382] conv0 -> conv0
I0428 19:50:19.987637 26986 net.cpp:124] Setting up conv0
I0428 19:50:19.987679 26986 net.cpp:131] Top shape: 64 5 24 24 (184320)
I0428 19:50:19.987682 26986 net.cpp:139] Memory required for data: 938240
I0428 19:50:19.987696 26986 layer_factory.hpp:77] Creating layer pool0
I0428 19:50:19.987709 26986 net.cpp:86] Creating Layer pool0
I0428 19:50:19.987712 26986 net.cpp:408] pool0 <- conv0
I0428 19:50:19.987717 26986 net.cpp:382] pool0 -> pool0
I0428 19:50:19.987777 26986 net.cpp:124] Setting up pool0
I0428 19:50:19.987782 26986 net.cpp:131] Top shape: 64 5 12 12 (46080)
I0428 19:50:19.987785 26986 net.cpp:139] Memory required for data: 1122560
I0428 19:50:19.987788 26986 layer_factory.hpp:77] Creating layer conv1
I0428 19:50:19.987798 26986 net.cpp:86] Creating Layer conv1
I0428 19:50:19.987802 26986 net.cpp:408] conv1 <- pool0
I0428 19:50:19.987807 26986 net.cpp:382] conv1 -> conv1
I0428 19:50:19.990689 26986 net.cpp:124] Setting up conv1
I0428 19:50:19.990720 26986 net.cpp:131] Top shape: 64 10 8 8 (40960)
I0428 19:50:19.990723 26986 net.cpp:139] Memory required for data: 1286400
I0428 19:50:19.990747 26986 layer_factory.hpp:77] Creating layer pool1
I0428 19:50:19.990754 26986 net.cpp:86] Creating Layer pool1
I0428 19:50:19.990758 26986 net.cpp:408] pool1 <- conv1
I0428 19:50:19.990763 26986 net.cpp:382] pool1 -> pool1
I0428 19:50:19.990800 26986 net.cpp:124] Setting up pool1
I0428 19:50:19.990806 26986 net.cpp:131] Top shape: 64 10 4 4 (10240)
I0428 19:50:19.990808 26986 net.cpp:139] Memory required for data: 1327360
I0428 19:50:19.990811 26986 layer_factory.hpp:77] Creating layer ip1
I0428 19:50:19.990819 26986 net.cpp:86] Creating Layer ip1
I0428 19:50:19.990823 26986 net.cpp:408] ip1 <- pool1
I0428 19:50:19.990826 26986 net.cpp:382] ip1 -> ip1
I0428 19:50:19.990928 26986 net.cpp:124] Setting up ip1
I0428 19:50:19.990936 26986 net.cpp:131] Top shape: 64 10 (640)
I0428 19:50:19.990939 26986 net.cpp:139] Memory required for data: 1329920
I0428 19:50:19.990947 26986 layer_factory.hpp:77] Creating layer relu1
I0428 19:50:19.990952 26986 net.cpp:86] Creating Layer relu1
I0428 19:50:19.990955 26986 net.cpp:408] relu1 <- ip1
I0428 19:50:19.990959 26986 net.cpp:369] relu1 -> ip1 (in-place)
I0428 19:50:19.991119 26986 net.cpp:124] Setting up relu1
I0428 19:50:19.991128 26986 net.cpp:131] Top shape: 64 10 (640)
I0428 19:50:19.991132 26986 net.cpp:139] Memory required for data: 1332480
I0428 19:50:19.991134 26986 layer_factory.hpp:77] Creating layer ip2
I0428 19:50:19.991140 26986 net.cpp:86] Creating Layer ip2
I0428 19:50:19.991143 26986 net.cpp:408] ip2 <- ip1
I0428 19:50:19.991148 26986 net.cpp:382] ip2 -> ip2
I0428 19:50:19.991242 26986 net.cpp:124] Setting up ip2
I0428 19:50:19.991250 26986 net.cpp:131] Top shape: 64 25 (1600)
I0428 19:50:19.991252 26986 net.cpp:139] Memory required for data: 1338880
I0428 19:50:19.991257 26986 layer_factory.hpp:77] Creating layer relu2
I0428 19:50:19.991263 26986 net.cpp:86] Creating Layer relu2
I0428 19:50:19.991266 26986 net.cpp:408] relu2 <- ip2
I0428 19:50:19.991271 26986 net.cpp:369] relu2 -> ip2 (in-place)
I0428 19:50:19.992128 26986 net.cpp:124] Setting up relu2
I0428 19:50:19.992141 26986 net.cpp:131] Top shape: 64 25 (1600)
I0428 19:50:19.992159 26986 net.cpp:139] Memory required for data: 1345280
I0428 19:50:19.992162 26986 layer_factory.hpp:77] Creating layer ip3
I0428 19:50:19.992169 26986 net.cpp:86] Creating Layer ip3
I0428 19:50:19.992172 26986 net.cpp:408] ip3 <- ip2
I0428 19:50:19.992178 26986 net.cpp:382] ip3 -> ip3
I0428 19:50:19.992269 26986 net.cpp:124] Setting up ip3
I0428 19:50:19.992277 26986 net.cpp:131] Top shape: 64 10 (640)
I0428 19:50:19.992280 26986 net.cpp:139] Memory required for data: 1347840
I0428 19:50:19.992287 26986 layer_factory.hpp:77] Creating layer relu3
I0428 19:50:19.992292 26986 net.cpp:86] Creating Layer relu3
I0428 19:50:19.992295 26986 net.cpp:408] relu3 <- ip3
I0428 19:50:19.992300 26986 net.cpp:369] relu3 -> ip3 (in-place)
I0428 19:50:19.992480 26986 net.cpp:124] Setting up relu3
I0428 19:50:19.992488 26986 net.cpp:131] Top shape: 64 10 (640)
I0428 19:50:19.992491 26986 net.cpp:139] Memory required for data: 1350400
I0428 19:50:19.992494 26986 layer_factory.hpp:77] Creating layer loss
I0428 19:50:19.992503 26986 net.cpp:86] Creating Layer loss
I0428 19:50:19.992507 26986 net.cpp:408] loss <- ip3
I0428 19:50:19.992511 26986 net.cpp:408] loss <- label
I0428 19:50:19.992516 26986 net.cpp:382] loss -> loss
I0428 19:50:19.992528 26986 layer_factory.hpp:77] Creating layer loss
…
I0428 19:50:19.993269 26986 solver.cpp:173] Creating test net (#0) specified by net file: ECE595/mnist/train_test/var_everything2/lenet_train_test601.prototxt
I0428 19:50:19.993312 26986 net.cpp:296] The NetState phase (1) differed from the phase (0) specified by a rule in layer mnist
I0428 19:50:19.993418 26986 net.cpp:53] Initializing net from parameters: 
name: "LeNet"
state {
  phase: TEST
}
layer {
  name: "mnist"
  type: "Data"
  top: "data"
  top: "label"
  include {
    phase: TEST
  }
  transform_param {
    scale: 0.00390625
  }
  data_param {
    source: "examples/mnist/mnist_test_lmdb"
    batch_size: 100
    backend: LMDB
  }
}
layer {
  name: "conv0"
  type: "Convolution"
  bottom: "data"
  top: "conv0"
  param {
    lr_mult: 1
  }
  param {
    lr_mult: 2
  }
  convolution_param {
    num_output: 5
    kernel_size: 5
    stride: 1
    weight_filler {
      type: "xavier"
    }
    bias_filler {
      type: "constant"
    }
  }
}
layer {
  name: "pool0"
  type: "Pooling"
  bottom: "conv0"
  top: "pool0"
  pooling_param {
    pool: MAX
    kernel_size: 2
    stride: 2
  }
}
layer {
  name: "conv1"
  type: "Convolution"
  bottom: "pool0"
  top: "conv1"
  param {
    lr_mult: 1
  }
  param {
    lr_mult: 2
  }
  convolution_param {
    num_output: 10
    kernel_size: 5
    stride: 1
    weight_filler {
      type: "xavier"
    }
    bias_filler {
      type: "constant"
    }
  }
}
layer {
  name: "pool1"
  type: "Pooling"
  bottom: "conv1"
  top: "pool1"
  pooling_param {
    pool: MAX
    kernel_size: 2
    stride: 2
  }
}
layer {
  name: "ip1"
  type: "InnerProduct"
  bottom: "pool1"
  top: "ip1"
  param {
    lr_mult: 1
  }
  param {
    lr_mult: 2
  }
  inner_product_param {
    num_output: 10
    weight_filler {
      type: "xavier"
    }
    bias_filler {
      type: "constant"
    }
  }
}
layer {
  name: "relu1"
  type: "ReLU"
  bottom: "ip1"
  top: "ip1"
}
layer {
  name: "ip2"
  type: "InnerProduct"
  bottom: "ip1"
  top: "ip2"
  param {
    lr_mult: 1
  }
  param {
    lr_mult: 2
  }
  inner_product_param {
    num_output: 25
    weight_filler {
      type: "xavier"
    }
    bias_filler {
      type: "constant"
    }
  }
}
layer {
  name: "relu2"
  type: "ReLU"
  bottom: "ip2"
  top: "ip2"
}
layer {
  name: "ip3"
  type: "InnerProduct"
  bottom: "ip2"
  top: "ip3"
  param {
    lr_mult: 1
  }
  param {
    lr_mult: 2
  }
  inner_product_param {
    num_output: 10
    weight_filler {
      type: "xavier"
    }
    bias_filler {
      type: "constant"
    }
  }
}
layer {
  name: "relu3"
  type: "ReLU"
  bottom: "ip3"
  top: "ip3"
}
layer {
  name: "accuracy"
  type: "Accuracy"
  bottom: "ip3"
  bottom: "label"
  top: "accuracy"
  include {
    phase: TEST
  }
}
layer {
  name: "loss"
  type: "SoftmaxWithLoss"
  bottom: "ip3"
  bottom: "label"
  top: "loss"
}
I0428 19:50:19.993502 26986 layer_factory.hpp:77] Creating layer mnist
I0428 19:50:19.993544 26986 db_lmdb.cpp:35] Opened lmdb examples/mnist/mnist_test_lmdb
I0428 19:50:19.993556 26986 net.cpp:86] Creating Layer mnist
I0428 19:50:19.993561 26986 net.cpp:382] mnist -> data
I0428 19:50:19.993568 26986 net.cpp:382] mnist -> label
I0428 19:50:19.993654 26986 data_layer.cpp:45] output data size: 100,1,28,28
I0428 19:50:19.995658 26986 net.cpp:124] Setting up mnist
I0428 19:50:19.995687 26986 net.cpp:131] Top shape: 100 1 28 28 (78400)
I0428 19:50:19.995692 26986 net.cpp:131] Top shape: 100 (100)
I0428 19:50:19.995694 26986 net.cpp:139] Memory required for data: 314000
I0428 19:50:19.995698 26986 layer_factory.hpp:77] Creating layer label_mnist_1_split
I0428 19:50:19.995704 26986 net.cpp:86] Creating Layer label_mnist_1_split
I0428 19:50:19.995707 26986 net.cpp:408] label_mnist_1_split <- label
I0428 19:50:19.995741 26986 net.cpp:382] label_mnist_1_split -> label_mnist_1_split_0
I0428 19:50:19.995748 26986 net.cpp:382] label_mnist_1_split -> label_mnist_1_split_1
I0428 19:50:19.995787 26986 net.cpp:124] Setting up label_mnist_1_split
I0428 19:50:19.995792 26986 net.cpp:131] Top shape: 100 (100)
I0428 19:50:19.995796 26986 net.cpp:131] Top shape: 100 (100)
I0428 19:50:19.995798 26986 net.cpp:139] Memory required for data: 314800
I0428 19:50:19.995801 26986 layer_factory.hpp:77] Creating layer conv0
I0428 19:50:19.995811 26986 net.cpp:86] Creating Layer conv0
I0428 19:50:19.995815 26986 net.cpp:408] conv0 <- data
I0428 19:50:19.995820 26986 net.cpp:382] conv0 -> conv0
I0428 19:50:19.997772 26986 net.cpp:124] Setting up conv0
I0428 19:50:19.997787 26986 net.cpp:131] Top shape: 100 5 24 24 (288000)
I0428 19:50:19.997790 26986 net.cpp:139] Memory required for data: 1466800
I0428 19:50:19.997799 26986 layer_factory.hpp:77] Creating layer pool0
I0428 19:50:19.997807 26986 net.cpp:86] Creating Layer pool0
I0428 19:50:19.997810 26986 net.cpp:408] pool0 <- conv0
I0428 19:50:19.997814 26986 net.cpp:382] pool0 -> pool0
I0428 19:50:19.997867 26986 net.cpp:124] Setting up pool0
I0428 19:50:19.997872 26986 net.cpp:131] Top shape: 100 5 12 12 (72000)
I0428 19:50:19.997875 26986 net.cpp:139] Memory required for data: 1754800
I0428 19:50:19.997879 26986 layer_factory.hpp:77] Creating layer conv1
I0428 19:50:19.997886 26986 net.cpp:86] Creating Layer conv1
I0428 19:50:19.997889 26986 net.cpp:408] conv1 <- pool0
I0428 19:50:19.997895 26986 net.cpp:382] conv1 -> conv1
I0428 19:50:20.000229 26986 net.cpp:124] Setting up conv1
I0428 19:50:20.000243 26986 net.cpp:131] Top shape: 100 10 8 8 (64000)
I0428 19:50:20.000247 26986 net.cpp:139] Memory required for data: 2010800
I0428 19:50:20.000257 26986 layer_factory.hpp:77] Creating layer pool1
I0428 19:50:20.000279 26986 net.cpp:86] Creating Layer pool1
I0428 19:50:20.000283 26986 net.cpp:408] pool1 <- conv1
I0428 19:50:20.000288 26986 net.cpp:382] pool1 -> pool1
I0428 19:50:20.000340 26986 net.cpp:124] Setting up pool1
I0428 19:50:20.000346 26986 net.cpp:131] Top shape: 100 10 4 4 (16000)
I0428 19:50:20.000349 26986 net.cpp:139] Memory required for data: 2074800
I0428 19:50:20.000360 26986 layer_factory.hpp:77] Creating layer ip1
I0428 19:50:20.000365 26986 net.cpp:86] Creating Layer ip1
I0428 19:50:20.000372 26986 net.cpp:408] ip1 <- pool1
I0428 19:50:20.000380 26986 net.cpp:382] ip1 -> ip1
I0428 19:50:20.000517 26986 net.cpp:124] Setting up ip1
I0428 19:50:20.000525 26986 net.cpp:131] Top shape: 100 10 (1000)
I0428 19:50:20.000538 26986 net.cpp:139] Memory required for data: 2078800
I0428 19:50:20.000546 26986 layer_factory.hpp:77] Creating layer relu1
I0428 19:50:20.000552 26986 net.cpp:86] Creating Layer relu1
I0428 19:50:20.000556 26986 net.cpp:408] relu1 <- ip1
I0428 19:50:20.000560 26986 net.cpp:369] relu1 -> ip1 (in-place)
I0428 19:50:20.000845 26986 net.cpp:124] Setting up relu1
I0428 19:50:20.000855 26986 net.cpp:131] Top shape: 100 10 (1000)
I0428 19:50:20.000859 26986 net.cpp:139] Memory required for data: 2082800
I0428 19:50:20.000861 26986 layer_factory.hpp:77] Creating layer ip2
I0428 19:50:20.000869 26986 net.cpp:86] Creating Layer ip2
I0428 19:50:20.000872 26986 net.cpp:408] ip2 <- ip1
I0428 19:50:20.000879 26986 net.cpp:382] ip2 -> ip2
I0428 19:50:20.000994 26986 net.cpp:124] Setting up ip2
I0428 19:50:20.001001 26986 net.cpp:131] Top shape: 100 25 (2500)
I0428 19:50:20.001004 26986 net.cpp:139] Memory required for data: 2092800
I0428 19:50:20.001021 26986 layer_factory.hpp:77] Creating layer relu2
I0428 19:50:20.001026 26986 net.cpp:86] Creating Layer relu2
I0428 19:50:20.001030 26986 net.cpp:408] relu2 <- ip2
I0428 19:50:20.001034 26986 net.cpp:369] relu2 -> ip2 (in-place)
I0428 19:50:20.001237 26986 net.cpp:124] Setting up relu2
I0428 19:50:20.001245 26986 net.cpp:131] Top shape: 100 25 (2500)
I0428 19:50:20.001248 26986 net.cpp:139] Memory required for data: 2102800
I0428 19:50:20.001251 26986 layer_factory.hpp:77] Creating layer ip3
I0428 19:50:20.001263 26986 net.cpp:86] Creating Layer ip3
I0428 19:50:20.001266 26986 net.cpp:408] ip3 <- ip2
I0428 19:50:20.001272 26986 net.cpp:382] ip3 -> ip3
I0428 19:50:20.001392 26986 net.cpp:124] Setting up ip3
I0428 19:50:20.001399 26986 net.cpp:131] Top shape: 100 10 (1000)
I0428 19:50:20.001402 26986 net.cpp:139] Memory required for data: 2106800
I0428 19:50:20.001410 26986 layer_factory.hpp:77] Creating layer relu3
I0428 19:50:20.001415 26986 net.cpp:86] Creating Layer relu3
I0428 19:50:20.001418 26986 net.cpp:408] relu3 <- ip3
I0428 19:50:20.001422 26986 net.cpp:369] relu3 -> ip3 (in-place)
I0428 19:50:20.002257 26986 net.cpp:124] Setting up relu3
I0428 19:50:20.002269 26986 net.cpp:131] Top shape: 100 10 (1000)
I0428 19:50:20.002272 26986 net.cpp:139] Memory required for data: 2110800
I0428 19:50:20.002275 26986 layer_factory.hpp:77] Creating layer ip3_relu3_0_split
I0428 19:50:20.002281 26986 net.cpp:86] Creating Layer ip3_relu3_0_split
I0428 19:50:20.002285 26986 net.cpp:408] ip3_relu3_0_split <- ip3
I0428 19:50:20.002290 26986 net.cpp:382] ip3_relu3_0_split -> ip3_relu3_0_split_0
I0428 19:50:20.002296 26986 net.cpp:382] ip3_relu3_0_split -> ip3_relu3_0_split_1
I0428 19:50:20.002346 26986 net.cpp:124] Setting up ip3_relu3_0_split
I0428 19:50:20.002352 26986 net.cpp:131] Top shape: 100 10 (1000)
I0428 19:50:20.002357 26986 net.cpp:131] Top shape: 100 10 (1000)
I0428 19:50:20.002358 26986 net.cpp:139] Memory required for data: 2118800
I0428 19:50:20.002362 26986 layer_factory.hpp:77] Creating layer accuracy
I0428 19:50:20.002372 26986 net.cpp:86] Creating Layer accuracy
I0428 19:50:20.002382 26986 net.cpp:408] accuracy <- ip3_relu3_0_split_0
I0428 19:50:20.002384 26986 net.cpp:408] accuracy <- label_mnist_1_split_0
I0428 19:50:20.002389 26986 net.cpp:382] accuracy -> accuracy
…
