…
I0428 19:48:03.484674 26388 net.cpp:296] The NetState phase (0) differed from the phase (1) specified by a rule in layer mnist
I0428 19:48:03.484704 26388 net.cpp:296] The NetState phase (0) differed from the phase (1) specified by a rule in layer accuracy
I0428 19:48:03.484781 26388 net.cpp:53] Initializing net from parameters: 
name: "LeNet"
state {
  phase: TRAIN
  level: 0
  stage: ""
}
layer {
  name: "mnist"
  type: "Data"
  top: "data"
  top: "label"
  include {
    phase: TRAIN
  }
  transform_param {
    scale: 0.00390625
  }
  data_param {
    source: "examples/mnist/mnist_train_lmdb"
    batch_size: 64
    backend: LMDB
  }
}
layer {
  name: "conv0"
  type: "Convolution"
  bottom: "data"
  top: "conv0"
  param {
    lr_mult: 1
  }
  param {
    lr_mult: 2
  }
  convolution_param {
    num_output: 5
    kernel_size: 5
    stride: 1
    weight_filler {
      type: "xavier"
    }
    bias_filler {
      type: "constant"
    }
  }
}
layer {
  name: "pool0"
  type: "Pooling"
  bottom: "conv0"
  top: "pool0"
  pooling_param {
    pool: MAX
    kernel_size: 2
    stride: 2
  }
}
layer {
  name: "conv1"
  type: "Convolution"
  bottom: "pool0"
  top: "conv1"
  param {
    lr_mult: 1
  }
  param {
    lr_mult: 2
  }
  convolution_param {
    num_output: 2
    kernel_size: 5
    stride: 1
    weight_filler {
      type: "xavier"
    }
    bias_filler {
      type: "constant"
    }
  }
}
layer {
  name: "pool1"
  type: "Pooling"
  bottom: "conv1"
  top: "pool1"
  pooling_param {
    pool: MAX
    kernel_size: 2
    stride: 2
  }
}
layer {
  name: "ip1"
  type: "InnerProduct"
  bottom: "pool1"
  top: "ip1"
  param {
    lr_mult: 1
  }
  param {
    lr_mult: 2
  }
  inner_product_param {
    num_output: 25
    weight_filler {
      type: "xavier"
    }
    bias_filler {
      type: "constant"
    }
  }
}
layer {
  name: "relu1"
  type: "ReLU"
  bottom: "ip1"
  top: "ip1"
}
layer {
  name: "ip2"
  type: "InnerProduct"
  bottom: "ip1"
  top: "ip2"
  param {
    lr_mult: 1
  }
  param {
    lr_mult: 2
  }
  inner_product_param {
    num_output: 25
    weight_filler {
      type: "xavier"
    }
    bias_filler {
      type: "constant"
    }
  }
}
layer {
  name: "relu2"
  type: "ReLU"
  bottom: "ip2"
  top: "ip2"
}
layer {
  name: "ip3"
  type: "InnerProduct"
  bottom: "ip2"
  top: "ip3"
  param {
    lr_mult: 1
  }
  param {
    lr_mult: 2
  }
  inner_product_param {
    num_output: 10
    weight_filler {
      type: "xavier"
    }
    bias_filler {
      type: "constant"
    }
  }
}
layer {
  name: "relu3"
  type: "ReLU"
  bottom: "ip3"
  top: "ip3"
}
layer {
  name: "loss"
  type: "SoftmaxWithLoss"
  bottom: "ip3"
  bottom: "label"
  top: "loss"
}
I0428 19:48:03.484877 26388 layer_factory.hpp:77] Creating layer mnist
I0428 19:48:03.484961 26388 db_lmdb.cpp:35] Opened lmdb examples/mnist/mnist_train_lmdb
I0428 19:48:03.484989 26388 net.cpp:86] Creating Layer mnist
I0428 19:48:03.484997 26388 net.cpp:382] mnist -> data
I0428 19:48:03.485033 26388 net.cpp:382] mnist -> label
I0428 19:48:03.490932 26388 data_layer.cpp:45] output data size: 64,1,28,28
I0428 19:48:03.493309 26388 net.cpp:124] Setting up mnist
I0428 19:48:03.493322 26388 net.cpp:131] Top shape: 64 1 28 28 (50176)
I0428 19:48:03.493327 26388 net.cpp:131] Top shape: 64 (64)
I0428 19:48:03.493330 26388 net.cpp:139] Memory required for data: 200960
I0428 19:48:03.493336 26388 layer_factory.hpp:77] Creating layer conv0
I0428 19:48:03.493350 26388 net.cpp:86] Creating Layer conv0
I0428 19:48:03.493381 26388 net.cpp:408] conv0 <- data
I0428 19:48:03.493391 26388 net.cpp:382] conv0 -> conv0
I0428 19:48:03.730422 26388 net.cpp:124] Setting up conv0
I0428 19:48:03.730448 26388 net.cpp:131] Top shape: 64 5 24 24 (184320)
I0428 19:48:03.730453 26388 net.cpp:139] Memory required for data: 938240
I0428 19:48:03.730482 26388 layer_factory.hpp:77] Creating layer pool0
I0428 19:48:03.730496 26388 net.cpp:86] Creating Layer pool0
I0428 19:48:03.730500 26388 net.cpp:408] pool0 <- conv0
I0428 19:48:03.730505 26388 net.cpp:382] pool0 -> pool0
I0428 19:48:03.730553 26388 net.cpp:124] Setting up pool0
I0428 19:48:03.730561 26388 net.cpp:131] Top shape: 64 5 12 12 (46080)
I0428 19:48:03.730564 26388 net.cpp:139] Memory required for data: 1122560
I0428 19:48:03.730567 26388 layer_factory.hpp:77] Creating layer conv1
I0428 19:48:03.730577 26388 net.cpp:86] Creating Layer conv1
I0428 19:48:03.730581 26388 net.cpp:408] conv1 <- pool0
I0428 19:48:03.730584 26388 net.cpp:382] conv1 -> conv1
I0428 19:48:03.732468 26388 net.cpp:124] Setting up conv1
I0428 19:48:03.732483 26388 net.cpp:131] Top shape: 64 2 8 8 (8192)
I0428 19:48:03.732488 26388 net.cpp:139] Memory required for data: 1155328
I0428 19:48:03.732497 26388 layer_factory.hpp:77] Creating layer pool1
I0428 19:48:03.732506 26388 net.cpp:86] Creating Layer pool1
I0428 19:48:03.732511 26388 net.cpp:408] pool1 <- conv1
I0428 19:48:03.732517 26388 net.cpp:382] pool1 -> pool1
I0428 19:48:03.732556 26388 net.cpp:124] Setting up pool1
I0428 19:48:03.732564 26388 net.cpp:131] Top shape: 64 2 4 4 (2048)
I0428 19:48:03.732568 26388 net.cpp:139] Memory required for data: 1163520
I0428 19:48:03.732571 26388 layer_factory.hpp:77] Creating layer ip1
I0428 19:48:03.732578 26388 net.cpp:86] Creating Layer ip1
I0428 19:48:03.732581 26388 net.cpp:408] ip1 <- pool1
I0428 19:48:03.732586 26388 net.cpp:382] ip1 -> ip1
I0428 19:48:03.732714 26388 net.cpp:124] Setting up ip1
I0428 19:48:03.732722 26388 net.cpp:131] Top shape: 64 25 (1600)
I0428 19:48:03.732725 26388 net.cpp:139] Memory required for data: 1169920
I0428 19:48:03.732733 26388 layer_factory.hpp:77] Creating layer relu1
I0428 19:48:03.732738 26388 net.cpp:86] Creating Layer relu1
I0428 19:48:03.732741 26388 net.cpp:408] relu1 <- ip1
I0428 19:48:03.732745 26388 net.cpp:369] relu1 -> ip1 (in-place)
I0428 19:48:03.732961 26388 net.cpp:124] Setting up relu1
I0428 19:48:03.732972 26388 net.cpp:131] Top shape: 64 25 (1600)
I0428 19:48:03.732975 26388 net.cpp:139] Memory required for data: 1176320
I0428 19:48:03.732978 26388 layer_factory.hpp:77] Creating layer ip2
I0428 19:48:03.732985 26388 net.cpp:86] Creating Layer ip2
I0428 19:48:03.732990 26388 net.cpp:408] ip2 <- ip1
I0428 19:48:03.732995 26388 net.cpp:382] ip2 -> ip2
I0428 19:48:03.733113 26388 net.cpp:124] Setting up ip2
I0428 19:48:03.733119 26388 net.cpp:131] Top shape: 64 25 (1600)
I0428 19:48:03.733124 26388 net.cpp:139] Memory required for data: 1182720
I0428 19:48:03.733129 26388 layer_factory.hpp:77] Creating layer relu2
I0428 19:48:03.733135 26388 net.cpp:86] Creating Layer relu2
I0428 19:48:03.733139 26388 net.cpp:408] relu2 <- ip2
I0428 19:48:03.733144 26388 net.cpp:369] relu2 -> ip2 (in-place)
I0428 19:48:03.733960 26388 net.cpp:124] Setting up relu2
I0428 19:48:03.733973 26388 net.cpp:131] Top shape: 64 25 (1600)
I0428 19:48:03.733978 26388 net.cpp:139] Memory required for data: 1189120
I0428 19:48:03.733980 26388 layer_factory.hpp:77] Creating layer ip3
I0428 19:48:03.733988 26388 net.cpp:86] Creating Layer ip3
I0428 19:48:03.733991 26388 net.cpp:408] ip3 <- ip2
I0428 19:48:03.733997 26388 net.cpp:382] ip3 -> ip3
I0428 19:48:03.734099 26388 net.cpp:124] Setting up ip3
I0428 19:48:03.734108 26388 net.cpp:131] Top shape: 64 10 (640)
I0428 19:48:03.734112 26388 net.cpp:139] Memory required for data: 1191680
I0428 19:48:03.734119 26388 layer_factory.hpp:77] Creating layer relu3
I0428 19:48:03.734124 26388 net.cpp:86] Creating Layer relu3
I0428 19:48:03.734127 26388 net.cpp:408] relu3 <- ip3
I0428 19:48:03.734133 26388 net.cpp:369] relu3 -> ip3 (in-place)
I0428 19:48:03.734324 26388 net.cpp:124] Setting up relu3
I0428 19:48:03.734333 26388 net.cpp:131] Top shape: 64 10 (640)
I0428 19:48:03.734336 26388 net.cpp:139] Memory required for data: 1194240
I0428 19:48:03.734339 26388 layer_factory.hpp:77] Creating layer loss
I0428 19:48:03.734345 26388 net.cpp:86] Creating Layer loss
I0428 19:48:03.734349 26388 net.cpp:408] loss <- ip3
I0428 19:48:03.734352 26388 net.cpp:408] loss <- label
I0428 19:48:03.734357 26388 net.cpp:382] loss -> loss
I0428 19:48:03.734374 26388 layer_factory.hpp:77] Creating layer loss
…
I0428 19:48:03.735153 26388 solver.cpp:173] Creating test net (#0) specified by net file: ECE595/mnist/train_test/var_everything2/lenet_train_test533.prototxt
I0428 19:48:03.735183 26388 net.cpp:296] The NetState phase (1) differed from the phase (0) specified by a rule in layer mnist
I0428 19:48:03.735275 26388 net.cpp:53] Initializing net from parameters: 
name: "LeNet"
state {
  phase: TEST
}
layer {
  name: "mnist"
  type: "Data"
  top: "data"
  top: "label"
  include {
    phase: TEST
  }
  transform_param {
    scale: 0.00390625
  }
  data_param {
    source: "examples/mnist/mnist_test_lmdb"
    batch_size: 100
    backend: LMDB
  }
}
layer {
  name: "conv0"
  type: "Convolution"
  bottom: "data"
  top: "conv0"
  param {
    lr_mult: 1
  }
  param {
    lr_mult: 2
  }
  convolution_param {
    num_output: 5
    kernel_size: 5
    stride: 1
    weight_filler {
      type: "xavier"
    }
    bias_filler {
      type: "constant"
    }
  }
}
layer {
  name: "pool0"
  type: "Pooling"
  bottom: "conv0"
  top: "pool0"
  pooling_param {
    pool: MAX
    kernel_size: 2
    stride: 2
  }
}
layer {
  name: "conv1"
  type: "Convolution"
  bottom: "pool0"
  top: "conv1"
  param {
    lr_mult: 1
  }
  param {
    lr_mult: 2
  }
  convolution_param {
    num_output: 2
    kernel_size: 5
    stride: 1
    weight_filler {
      type: "xavier"
    }
    bias_filler {
      type: "constant"
    }
  }
}
layer {
  name: "pool1"
  type: "Pooling"
  bottom: "conv1"
  top: "pool1"
  pooling_param {
    pool: MAX
    kernel_size: 2
    stride: 2
  }
}
layer {
  name: "ip1"
  type: "InnerProduct"
  bottom: "pool1"
  top: "ip1"
  param {
    lr_mult: 1
  }
  param {
    lr_mult: 2
  }
  inner_product_param {
    num_output: 25
    weight_filler {
      type: "xavier"
    }
    bias_filler {
      type: "constant"
    }
  }
}
layer {
  name: "relu1"
  type: "ReLU"
  bottom: "ip1"
  top: "ip1"
}
layer {
  name: "ip2"
  type: "InnerProduct"
  bottom: "ip1"
  top: "ip2"
  param {
    lr_mult: 1
  }
  param {
    lr_mult: 2
  }
  inner_product_param {
    num_output: 25
    weight_filler {
      type: "xavier"
    }
    bias_filler {
      type: "constant"
    }
  }
}
layer {
  name: "relu2"
  type: "ReLU"
  bottom: "ip2"
  top: "ip2"
}
layer {
  name: "ip3"
  type: "InnerProduct"
  bottom: "ip2"
  top: "ip3"
  param {
    lr_mult: 1
  }
  param {
    lr_mult: 2
  }
  inner_product_param {
    num_output: 10
    weight_filler {
      type: "xavier"
    }
    bias_filler {
      type: "constant"
    }
  }
}
layer {
  name: "relu3"
  type: "ReLU"
  bottom: "ip3"
  top: "ip3"
}
layer {
  name: "accuracy"
  type: "Accuracy"
  bottom: "ip3"
  bottom: "label"
  top: "accuracy"
  include {
    phase: TEST
  }
}
layer {
  name: "loss"
  type: "SoftmaxWithLoss"
  bottom: "ip3"
  bottom: "label"
  top: "loss"
}
I0428 19:48:03.735380 26388 layer_factory.hpp:77] Creating layer mnist
I0428 19:48:03.735425 26388 db_lmdb.cpp:35] Opened lmdb examples/mnist/mnist_test_lmdb
I0428 19:48:03.735438 26388 net.cpp:86] Creating Layer mnist
I0428 19:48:03.735443 26388 net.cpp:382] mnist -> data
I0428 19:48:03.735450 26388 net.cpp:382] mnist -> label
I0428 19:48:03.735545 26388 data_layer.cpp:45] output data size: 100,1,28,28
I0428 19:48:03.737632 26388 net.cpp:124] Setting up mnist
I0428 19:48:03.737663 26388 net.cpp:131] Top shape: 100 1 28 28 (78400)
I0428 19:48:03.737668 26388 net.cpp:131] Top shape: 100 (100)
I0428 19:48:03.737671 26388 net.cpp:139] Memory required for data: 314000
I0428 19:48:03.737675 26388 layer_factory.hpp:77] Creating layer label_mnist_1_split
I0428 19:48:03.737687 26388 net.cpp:86] Creating Layer label_mnist_1_split
I0428 19:48:03.737691 26388 net.cpp:408] label_mnist_1_split <- label
I0428 19:48:03.737697 26388 net.cpp:382] label_mnist_1_split -> label_mnist_1_split_0
I0428 19:48:03.737704 26388 net.cpp:382] label_mnist_1_split -> label_mnist_1_split_1
I0428 19:48:03.737778 26388 net.cpp:124] Setting up label_mnist_1_split
I0428 19:48:03.737787 26388 net.cpp:131] Top shape: 100 (100)
I0428 19:48:03.737790 26388 net.cpp:131] Top shape: 100 (100)
I0428 19:48:03.737793 26388 net.cpp:139] Memory required for data: 314800
I0428 19:48:03.737810 26388 layer_factory.hpp:77] Creating layer conv0
I0428 19:48:03.737819 26388 net.cpp:86] Creating Layer conv0
I0428 19:48:03.737823 26388 net.cpp:408] conv0 <- data
I0428 19:48:03.737828 26388 net.cpp:382] conv0 -> conv0
I0428 19:48:03.739500 26388 net.cpp:124] Setting up conv0
I0428 19:48:03.739528 26388 net.cpp:131] Top shape: 100 5 24 24 (288000)
I0428 19:48:03.739532 26388 net.cpp:139] Memory required for data: 1466800
I0428 19:48:03.739542 26388 layer_factory.hpp:77] Creating layer pool0
I0428 19:48:03.739547 26388 net.cpp:86] Creating Layer pool0
I0428 19:48:03.739552 26388 net.cpp:408] pool0 <- conv0
I0428 19:48:03.739555 26388 net.cpp:382] pool0 -> pool0
I0428 19:48:03.739589 26388 net.cpp:124] Setting up pool0
I0428 19:48:03.739595 26388 net.cpp:131] Top shape: 100 5 12 12 (72000)
I0428 19:48:03.739598 26388 net.cpp:139] Memory required for data: 1754800
I0428 19:48:03.739601 26388 layer_factory.hpp:77] Creating layer conv1
I0428 19:48:03.739609 26388 net.cpp:86] Creating Layer conv1
I0428 19:48:03.739612 26388 net.cpp:408] conv1 <- pool0
I0428 19:48:03.739617 26388 net.cpp:382] conv1 -> conv1
I0428 19:48:03.741814 26388 net.cpp:124] Setting up conv1
I0428 19:48:03.741828 26388 net.cpp:131] Top shape: 100 2 8 8 (12800)
I0428 19:48:03.741848 26388 net.cpp:139] Memory required for data: 1806000
I0428 19:48:03.741856 26388 layer_factory.hpp:77] Creating layer pool1
I0428 19:48:03.741870 26388 net.cpp:86] Creating Layer pool1
I0428 19:48:03.741874 26388 net.cpp:408] pool1 <- conv1
I0428 19:48:03.741878 26388 net.cpp:382] pool1 -> pool1
I0428 19:48:03.741942 26388 net.cpp:124] Setting up pool1
I0428 19:48:03.741955 26388 net.cpp:131] Top shape: 100 2 4 4 (3200)
I0428 19:48:03.741958 26388 net.cpp:139] Memory required for data: 1818800
I0428 19:48:03.741961 26388 layer_factory.hpp:77] Creating layer ip1
I0428 19:48:03.741967 26388 net.cpp:86] Creating Layer ip1
I0428 19:48:03.741971 26388 net.cpp:408] ip1 <- pool1
I0428 19:48:03.741976 26388 net.cpp:382] ip1 -> ip1
I0428 19:48:03.742118 26388 net.cpp:124] Setting up ip1
I0428 19:48:03.742133 26388 net.cpp:131] Top shape: 100 25 (2500)
I0428 19:48:03.742148 26388 net.cpp:139] Memory required for data: 1828800
I0428 19:48:03.742156 26388 layer_factory.hpp:77] Creating layer relu1
I0428 19:48:03.742161 26388 net.cpp:86] Creating Layer relu1
I0428 19:48:03.742166 26388 net.cpp:408] relu1 <- ip1
I0428 19:48:03.742171 26388 net.cpp:369] relu1 -> ip1 (in-place)
I0428 19:48:03.742352 26388 net.cpp:124] Setting up relu1
I0428 19:48:03.742362 26388 net.cpp:131] Top shape: 100 25 (2500)
I0428 19:48:03.742367 26388 net.cpp:139] Memory required for data: 1838800
I0428 19:48:03.742370 26388 layer_factory.hpp:77] Creating layer ip2
I0428 19:48:03.742377 26388 net.cpp:86] Creating Layer ip2
I0428 19:48:03.742383 26388 net.cpp:408] ip2 <- ip1
I0428 19:48:03.742388 26388 net.cpp:382] ip2 -> ip2
I0428 19:48:03.742516 26388 net.cpp:124] Setting up ip2
I0428 19:48:03.742523 26388 net.cpp:131] Top shape: 100 25 (2500)
I0428 19:48:03.742527 26388 net.cpp:139] Memory required for data: 1848800
I0428 19:48:03.742532 26388 layer_factory.hpp:77] Creating layer relu2
I0428 19:48:03.742537 26388 net.cpp:86] Creating Layer relu2
I0428 19:48:03.742542 26388 net.cpp:408] relu2 <- ip2
I0428 19:48:03.742545 26388 net.cpp:369] relu2 -> ip2 (in-place)
I0428 19:48:03.742694 26388 net.cpp:124] Setting up relu2
I0428 19:48:03.742704 26388 net.cpp:131] Top shape: 100 25 (2500)
I0428 19:48:03.742708 26388 net.cpp:139] Memory required for data: 1858800
I0428 19:48:03.742712 26388 layer_factory.hpp:77] Creating layer ip3
I0428 19:48:03.742717 26388 net.cpp:86] Creating Layer ip3
I0428 19:48:03.742719 26388 net.cpp:408] ip3 <- ip2
I0428 19:48:03.742724 26388 net.cpp:382] ip3 -> ip3
I0428 19:48:03.742835 26388 net.cpp:124] Setting up ip3
I0428 19:48:03.742842 26388 net.cpp:131] Top shape: 100 10 (1000)
I0428 19:48:03.742846 26388 net.cpp:139] Memory required for data: 1862800
I0428 19:48:03.742853 26388 layer_factory.hpp:77] Creating layer relu3
I0428 19:48:03.742858 26388 net.cpp:86] Creating Layer relu3
I0428 19:48:03.742861 26388 net.cpp:408] relu3 <- ip3
I0428 19:48:03.742882 26388 net.cpp:369] relu3 -> ip3 (in-place)
I0428 19:48:03.743743 26388 net.cpp:124] Setting up relu3
I0428 19:48:03.743754 26388 net.cpp:131] Top shape: 100 10 (1000)
I0428 19:48:03.743773 26388 net.cpp:139] Memory required for data: 1866800
I0428 19:48:03.743777 26388 layer_factory.hpp:77] Creating layer ip3_relu3_0_split
I0428 19:48:03.743782 26388 net.cpp:86] Creating Layer ip3_relu3_0_split
I0428 19:48:03.743787 26388 net.cpp:408] ip3_relu3_0_split <- ip3
I0428 19:48:03.743791 26388 net.cpp:382] ip3_relu3_0_split -> ip3_relu3_0_split_0
I0428 19:48:03.743798 26388 net.cpp:382] ip3_relu3_0_split -> ip3_relu3_0_split_1
I0428 19:48:03.743871 26388 net.cpp:124] Setting up ip3_relu3_0_split
I0428 19:48:03.743878 26388 net.cpp:131] Top shape: 100 10 (1000)
I0428 19:48:03.743882 26388 net.cpp:131] Top shape: 100 10 (1000)
I0428 19:48:03.743885 26388 net.cpp:139] Memory required for data: 1874800
I0428 19:48:03.743888 26388 layer_factory.hpp:77] Creating layer accuracy
I0428 19:48:03.743893 26388 net.cpp:86] Creating Layer accuracy
I0428 19:48:03.743896 26388 net.cpp:408] accuracy <- ip3_relu3_0_split_0
I0428 19:48:03.743901 26388 net.cpp:408] accuracy <- label_mnist_1_split_0
I0428 19:48:03.743906 26388 net.cpp:382] accuracy -> accuracy
…
