…
I0428 19:30:35.265108 22331 net.cpp:296] The NetState phase (0) differed from the phase (1) specified by a rule in layer mnist
I0428 19:30:35.265126 22331 net.cpp:296] The NetState phase (0) differed from the phase (1) specified by a rule in layer accuracy
I0428 19:30:35.265213 22331 net.cpp:53] Initializing net from parameters: 
name: "LeNet"
state {
  phase: TRAIN
  level: 0
  stage: ""
}
layer {
  name: "mnist"
  type: "Data"
  top: "data"
  top: "label"
  include {
    phase: TRAIN
  }
  transform_param {
    scale: 0.00390625
  }
  data_param {
    source: "examples/mnist/mnist_train_lmdb"
    batch_size: 64
    backend: LMDB
  }
}
layer {
  name: "conv0"
  type: "Convolution"
  bottom: "data"
  top: "conv0"
  param {
    lr_mult: 1
  }
  param {
    lr_mult: 2
  }
  convolution_param {
    num_output: 5
    kernel_size: 5
    stride: 1
    weight_filler {
      type: "xavier"
    }
    bias_filler {
      type: "constant"
    }
  }
}
layer {
  name: "pool0"
  type: "Pooling"
  bottom: "conv0"
  top: "pool0"
  pooling_param {
    pool: MAX
    kernel_size: 2
    stride: 2
  }
}
layer {
  name: "ip1"
  type: "InnerProduct"
  bottom: "pool0"
  top: "ip1"
  param {
    lr_mult: 1
  }
  param {
    lr_mult: 2
  }
  inner_product_param {
    num_output: 10
    weight_filler {
      type: "xavier"
    }
    bias_filler {
      type: "constant"
    }
  }
}
layer {
  name: "relu1"
  type: "ReLU"
  bottom: "ip1"
  top: "ip1"
}
layer {
  name: "ip2"
  type: "InnerProduct"
  bottom: "ip1"
  top: "ip2"
  param {
    lr_mult: 1
  }
  param {
    lr_mult: 2
  }
  inner_product_param {
    num_output: 25
    weight_filler {
      type: "xavier"
    }
    bias_filler {
      type: "constant"
    }
  }
}
layer {
  name: "relu2"
  type: "ReLU"
  bottom: "ip2"
  top: "ip2"
}
layer {
  name: "ip3"
  type: "InnerProduct"
  bottom: "ip2"
  top: "ip3"
  param {
    lr_mult: 1
  }
  param {
    lr_mult: 2
  }
  inner_product_param {
    num_output: 10
    weight_filler {
      type: "xavier"
    }
    bias_filler {
      type: "constant"
    }
  }
}
layer {
  name: "relu3"
  type: "ReLU"
  bottom: "ip3"
  top: "ip3"
}
layer {
  name: "loss"
  type: "SoftmaxWithLoss"
  bottom: "ip3"
  bottom: "label"
  top: "loss"
}
I0428 19:30:35.265286 22331 layer_factory.hpp:77] Creating layer mnist
I0428 19:30:35.265382 22331 db_lmdb.cpp:35] Opened lmdb examples/mnist/mnist_train_lmdb
I0428 19:30:35.265403 22331 net.cpp:86] Creating Layer mnist
I0428 19:30:35.265413 22331 net.cpp:382] mnist -> data
I0428 19:30:35.265434 22331 net.cpp:382] mnist -> label
I0428 19:30:35.266484 22331 data_layer.cpp:45] output data size: 64,1,28,28
I0428 19:30:35.268869 22331 net.cpp:124] Setting up mnist
I0428 19:30:35.268887 22331 net.cpp:131] Top shape: 64 1 28 28 (50176)
I0428 19:30:35.268894 22331 net.cpp:131] Top shape: 64 (64)
I0428 19:30:35.268898 22331 net.cpp:139] Memory required for data: 200960
I0428 19:30:35.268904 22331 layer_factory.hpp:77] Creating layer conv0
I0428 19:30:35.268920 22331 net.cpp:86] Creating Layer conv0
I0428 19:30:35.268930 22331 net.cpp:408] conv0 <- data
I0428 19:30:35.268942 22331 net.cpp:382] conv0 -> conv0
I0428 19:30:35.554996 22331 net.cpp:124] Setting up conv0
I0428 19:30:35.555029 22331 net.cpp:131] Top shape: 64 5 24 24 (184320)
I0428 19:30:35.555040 22331 net.cpp:139] Memory required for data: 938240
I0428 19:30:35.555058 22331 layer_factory.hpp:77] Creating layer pool0
I0428 19:30:35.555073 22331 net.cpp:86] Creating Layer pool0
I0428 19:30:35.555096 22331 net.cpp:408] pool0 <- conv0
I0428 19:30:35.555104 22331 net.cpp:382] pool0 -> pool0
I0428 19:30:35.555166 22331 net.cpp:124] Setting up pool0
I0428 19:30:35.555174 22331 net.cpp:131] Top shape: 64 5 12 12 (46080)
I0428 19:30:35.555178 22331 net.cpp:139] Memory required for data: 1122560
I0428 19:30:35.555182 22331 layer_factory.hpp:77] Creating layer ip1
I0428 19:30:35.555192 22331 net.cpp:86] Creating Layer ip1
I0428 19:30:35.555196 22331 net.cpp:408] ip1 <- pool0
I0428 19:30:35.555202 22331 net.cpp:382] ip1 -> ip1
I0428 19:30:35.556324 22331 net.cpp:124] Setting up ip1
I0428 19:30:35.556340 22331 net.cpp:131] Top shape: 64 10 (640)
I0428 19:30:35.556345 22331 net.cpp:139] Memory required for data: 1125120
I0428 19:30:35.556355 22331 layer_factory.hpp:77] Creating layer relu1
I0428 19:30:35.556363 22331 net.cpp:86] Creating Layer relu1
I0428 19:30:35.556367 22331 net.cpp:408] relu1 <- ip1
I0428 19:30:35.556373 22331 net.cpp:369] relu1 -> ip1 (in-place)
I0428 19:30:35.556568 22331 net.cpp:124] Setting up relu1
I0428 19:30:35.556579 22331 net.cpp:131] Top shape: 64 10 (640)
I0428 19:30:35.556583 22331 net.cpp:139] Memory required for data: 1127680
I0428 19:30:35.556587 22331 layer_factory.hpp:77] Creating layer ip2
I0428 19:30:35.556594 22331 net.cpp:86] Creating Layer ip2
I0428 19:30:35.556598 22331 net.cpp:408] ip2 <- ip1
I0428 19:30:35.556604 22331 net.cpp:382] ip2 -> ip2
I0428 19:30:35.556713 22331 net.cpp:124] Setting up ip2
I0428 19:30:35.556722 22331 net.cpp:131] Top shape: 64 25 (1600)
I0428 19:30:35.556725 22331 net.cpp:139] Memory required for data: 1134080
I0428 19:30:35.556735 22331 layer_factory.hpp:77] Creating layer relu2
I0428 19:30:35.556740 22331 net.cpp:86] Creating Layer relu2
I0428 19:30:35.556744 22331 net.cpp:408] relu2 <- ip2
I0428 19:30:35.556749 22331 net.cpp:369] relu2 -> ip2 (in-place)
I0428 19:30:35.557608 22331 net.cpp:124] Setting up relu2
I0428 19:30:35.557623 22331 net.cpp:131] Top shape: 64 25 (1600)
I0428 19:30:35.557627 22331 net.cpp:139] Memory required for data: 1140480
I0428 19:30:35.557632 22331 layer_factory.hpp:77] Creating layer ip3
I0428 19:30:35.557641 22331 net.cpp:86] Creating Layer ip3
I0428 19:30:35.557644 22331 net.cpp:408] ip3 <- ip2
I0428 19:30:35.557651 22331 net.cpp:382] ip3 -> ip3
I0428 19:30:35.557762 22331 net.cpp:124] Setting up ip3
I0428 19:30:35.557771 22331 net.cpp:131] Top shape: 64 10 (640)
I0428 19:30:35.557786 22331 net.cpp:139] Memory required for data: 1143040
I0428 19:30:35.557793 22331 layer_factory.hpp:77] Creating layer relu3
I0428 19:30:35.557801 22331 net.cpp:86] Creating Layer relu3
I0428 19:30:35.557804 22331 net.cpp:408] relu3 <- ip3
I0428 19:30:35.557809 22331 net.cpp:369] relu3 -> ip3 (in-place)
I0428 19:30:35.557981 22331 net.cpp:124] Setting up relu3
I0428 19:30:35.557989 22331 net.cpp:131] Top shape: 64 10 (640)
I0428 19:30:35.557993 22331 net.cpp:139] Memory required for data: 1145600
I0428 19:30:35.557997 22331 layer_factory.hpp:77] Creating layer loss
I0428 19:30:35.558004 22331 net.cpp:86] Creating Layer loss
I0428 19:30:35.558008 22331 net.cpp:408] loss <- ip3
I0428 19:30:35.558013 22331 net.cpp:408] loss <- label
I0428 19:30:35.558019 22331 net.cpp:382] loss -> loss
I0428 19:30:35.558039 22331 layer_factory.hpp:77] Creating layer loss
…
I0428 19:30:35.558718 22331 solver.cpp:173] Creating test net (#0) specified by net file: ECE595/mnist/train_test/var_everything2/lenet_train_test95.prototxt
I0428 19:30:35.558749 22331 net.cpp:296] The NetState phase (1) differed from the phase (0) specified by a rule in layer mnist
I0428 19:30:35.558843 22331 net.cpp:53] Initializing net from parameters: 
name: "LeNet"
state {
  phase: TEST
}
layer {
  name: "mnist"
  type: "Data"
  top: "data"
  top: "label"
  include {
    phase: TEST
  }
  transform_param {
    scale: 0.00390625
  }
  data_param {
    source: "examples/mnist/mnist_test_lmdb"
    batch_size: 100
    backend: LMDB
  }
}
layer {
  name: "conv0"
  type: "Convolution"
  bottom: "data"
  top: "conv0"
  param {
    lr_mult: 1
  }
  param {
    lr_mult: 2
  }
  convolution_param {
    num_output: 5
    kernel_size: 5
    stride: 1
    weight_filler {
      type: "xavier"
    }
    bias_filler {
      type: "constant"
    }
  }
}
layer {
  name: "pool0"
  type: "Pooling"
  bottom: "conv0"
  top: "pool0"
  pooling_param {
    pool: MAX
    kernel_size: 2
    stride: 2
  }
}
layer {
  name: "ip1"
  type: "InnerProduct"
  bottom: "pool0"
  top: "ip1"
  param {
    lr_mult: 1
  }
  param {
    lr_mult: 2
  }
  inner_product_param {
    num_output: 10
    weight_filler {
      type: "xavier"
    }
    bias_filler {
      type: "constant"
    }
  }
}
layer {
  name: "relu1"
  type: "ReLU"
  bottom: "ip1"
  top: "ip1"
}
layer {
  name: "ip2"
  type: "InnerProduct"
  bottom: "ip1"
  top: "ip2"
  param {
    lr_mult: 1
  }
  param {
    lr_mult: 2
  }
  inner_product_param {
    num_output: 25
    weight_filler {
      type: "xavier"
    }
    bias_filler {
      type: "constant"
    }
  }
}
layer {
  name: "relu2"
  type: "ReLU"
  bottom: "ip2"
  top: "ip2"
}
layer {
  name: "ip3"
  type: "InnerProduct"
  bottom: "ip2"
  top: "ip3"
  param {
    lr_mult: 1
  }
  param {
    lr_mult: 2
  }
  inner_product_param {
    num_output: 10
    weight_filler {
      type: "xavier"
    }
    bias_filler {
      type: "constant"
    }
  }
}
layer {
  name: "relu3"
  type: "ReLU"
  bottom: "ip3"
  top: "ip3"
}
layer {
  name: "accuracy"
  type: "Accuracy"
  bottom: "ip3"
  bottom: "label"
  top: "accuracy"
  include {
    phase: TEST
  }
}
layer {
  name: "loss"
  type: "SoftmaxWithLoss"
  bottom: "ip3"
  bottom: "label"
  top: "loss"
}
I0428 19:30:35.558917 22331 layer_factory.hpp:77] Creating layer mnist
I0428 19:30:35.558967 22331 db_lmdb.cpp:35] Opened lmdb examples/mnist/mnist_test_lmdb
I0428 19:30:35.558981 22331 net.cpp:86] Creating Layer mnist
I0428 19:30:35.558987 22331 net.cpp:382] mnist -> data
I0428 19:30:35.558996 22331 net.cpp:382] mnist -> label
I0428 19:30:35.559093 22331 data_layer.cpp:45] output data size: 100,1,28,28
I0428 19:30:35.561281 22331 net.cpp:124] Setting up mnist
I0428 19:30:35.561297 22331 net.cpp:131] Top shape: 100 1 28 28 (78400)
I0428 19:30:35.561305 22331 net.cpp:131] Top shape: 100 (100)
I0428 19:30:35.561308 22331 net.cpp:139] Memory required for data: 314000
I0428 19:30:35.561312 22331 layer_factory.hpp:77] Creating layer label_mnist_1_split
I0428 19:30:35.561326 22331 net.cpp:86] Creating Layer label_mnist_1_split
I0428 19:30:35.561331 22331 net.cpp:408] label_mnist_1_split <- label
I0428 19:30:35.561336 22331 net.cpp:382] label_mnist_1_split -> label_mnist_1_split_0
I0428 19:30:35.561343 22331 net.cpp:382] label_mnist_1_split -> label_mnist_1_split_1
I0428 19:30:35.561436 22331 net.cpp:124] Setting up label_mnist_1_split
I0428 19:30:35.561445 22331 net.cpp:131] Top shape: 100 (100)
I0428 19:30:35.561450 22331 net.cpp:131] Top shape: 100 (100)
I0428 19:30:35.561455 22331 net.cpp:139] Memory required for data: 314800
I0428 19:30:35.561470 22331 layer_factory.hpp:77] Creating layer conv0
I0428 19:30:35.561481 22331 net.cpp:86] Creating Layer conv0
I0428 19:30:35.561486 22331 net.cpp:408] conv0 <- data
I0428 19:30:35.561492 22331 net.cpp:382] conv0 -> conv0
I0428 19:30:35.563149 22331 net.cpp:124] Setting up conv0
I0428 19:30:35.563165 22331 net.cpp:131] Top shape: 100 5 24 24 (288000)
I0428 19:30:35.563170 22331 net.cpp:139] Memory required for data: 1466800
I0428 19:30:35.563184 22331 layer_factory.hpp:77] Creating layer pool0
I0428 19:30:35.563192 22331 net.cpp:86] Creating Layer pool0
I0428 19:30:35.563196 22331 net.cpp:408] pool0 <- conv0
I0428 19:30:35.563204 22331 net.cpp:382] pool0 -> pool0
I0428 19:30:35.563254 22331 net.cpp:124] Setting up pool0
I0428 19:30:35.563267 22331 net.cpp:131] Top shape: 100 5 12 12 (72000)
I0428 19:30:35.563271 22331 net.cpp:139] Memory required for data: 1754800
I0428 19:30:35.563275 22331 layer_factory.hpp:77] Creating layer ip1
I0428 19:30:35.563283 22331 net.cpp:86] Creating Layer ip1
I0428 19:30:35.563287 22331 net.cpp:408] ip1 <- pool0
I0428 19:30:35.563294 22331 net.cpp:382] ip1 -> ip1
I0428 19:30:35.563515 22331 net.cpp:124] Setting up ip1
I0428 19:30:35.563524 22331 net.cpp:131] Top shape: 100 10 (1000)
I0428 19:30:35.563529 22331 net.cpp:139] Memory required for data: 1758800
I0428 19:30:35.563537 22331 layer_factory.hpp:77] Creating layer relu1
I0428 19:30:35.563545 22331 net.cpp:86] Creating Layer relu1
I0428 19:30:35.563549 22331 net.cpp:408] relu1 <- ip1
I0428 19:30:35.563555 22331 net.cpp:369] relu1 -> ip1 (in-place)
I0428 19:30:35.563748 22331 net.cpp:124] Setting up relu1
I0428 19:30:35.563758 22331 net.cpp:131] Top shape: 100 10 (1000)
I0428 19:30:35.563762 22331 net.cpp:139] Memory required for data: 1762800
I0428 19:30:35.563766 22331 layer_factory.hpp:77] Creating layer ip2
I0428 19:30:35.563774 22331 net.cpp:86] Creating Layer ip2
I0428 19:30:35.563778 22331 net.cpp:408] ip2 <- ip1
I0428 19:30:35.563783 22331 net.cpp:382] ip2 -> ip2
I0428 19:30:35.563899 22331 net.cpp:124] Setting up ip2
I0428 19:30:35.563907 22331 net.cpp:131] Top shape: 100 25 (2500)
I0428 19:30:35.563911 22331 net.cpp:139] Memory required for data: 1772800
I0428 19:30:35.563920 22331 layer_factory.hpp:77] Creating layer relu2
I0428 19:30:35.563925 22331 net.cpp:86] Creating Layer relu2
I0428 19:30:35.563930 22331 net.cpp:408] relu2 <- ip2
I0428 19:30:35.563936 22331 net.cpp:369] relu2 -> ip2 (in-place)
I0428 19:30:35.564858 22331 net.cpp:124] Setting up relu2
I0428 19:30:35.564873 22331 net.cpp:131] Top shape: 100 25 (2500)
I0428 19:30:35.564877 22331 net.cpp:139] Memory required for data: 1782800
I0428 19:30:35.564882 22331 layer_factory.hpp:77] Creating layer ip3
I0428 19:30:35.564893 22331 net.cpp:86] Creating Layer ip3
I0428 19:30:35.564898 22331 net.cpp:408] ip3 <- ip2
I0428 19:30:35.564904 22331 net.cpp:382] ip3 -> ip3
I0428 19:30:35.565032 22331 net.cpp:124] Setting up ip3
I0428 19:30:35.565044 22331 net.cpp:131] Top shape: 100 10 (1000)
I0428 19:30:35.565048 22331 net.cpp:139] Memory required for data: 1786800
I0428 19:30:35.565054 22331 layer_factory.hpp:77] Creating layer relu3
I0428 19:30:35.565062 22331 net.cpp:86] Creating Layer relu3
I0428 19:30:35.565068 22331 net.cpp:408] relu3 <- ip3
I0428 19:30:35.565073 22331 net.cpp:369] relu3 -> ip3 (in-place)
I0428 19:30:35.565260 22331 net.cpp:124] Setting up relu3
I0428 19:30:35.565269 22331 net.cpp:131] Top shape: 100 10 (1000)
I0428 19:30:35.565274 22331 net.cpp:139] Memory required for data: 1790800
I0428 19:30:35.565277 22331 layer_factory.hpp:77] Creating layer ip3_relu3_0_split
I0428 19:30:35.565284 22331 net.cpp:86] Creating Layer ip3_relu3_0_split
I0428 19:30:35.565289 22331 net.cpp:408] ip3_relu3_0_split <- ip3
I0428 19:30:35.565296 22331 net.cpp:382] ip3_relu3_0_split -> ip3_relu3_0_split_0
I0428 19:30:35.565304 22331 net.cpp:382] ip3_relu3_0_split -> ip3_relu3_0_split_1
I0428 19:30:35.565348 22331 net.cpp:124] Setting up ip3_relu3_0_split
I0428 19:30:35.565356 22331 net.cpp:131] Top shape: 100 10 (1000)
I0428 19:30:35.565362 22331 net.cpp:131] Top shape: 100 10 (1000)
I0428 19:30:35.565379 22331 net.cpp:139] Memory required for data: 1798800
I0428 19:30:35.565383 22331 layer_factory.hpp:77] Creating layer accuracy
I0428 19:30:35.565390 22331 net.cpp:86] Creating Layer accuracy
I0428 19:30:35.565394 22331 net.cpp:408] accuracy <- ip3_relu3_0_split_0
I0428 19:30:35.565410 22331 net.cpp:408] accuracy <- label_mnist_1_split_0
I0428 19:30:35.565417 22331 net.cpp:382] accuracy -> accuracy
…
