…
I0428 19:33:30.467847 23117 net.cpp:296] The NetState phase (0) differed from the phase (1) specified by a rule in layer mnist
I0428 19:33:30.467871 23117 net.cpp:296] The NetState phase (0) differed from the phase (1) specified by a rule in layer accuracy
I0428 19:33:30.467967 23117 net.cpp:53] Initializing net from parameters: 
name: "LeNet"
state {
  phase: TRAIN
  level: 0
  stage: ""
}
layer {
  name: "mnist"
  type: "Data"
  top: "data"
  top: "label"
  include {
    phase: TRAIN
  }
  transform_param {
    scale: 0.00390625
  }
  data_param {
    source: "examples/mnist/mnist_train_lmdb"
    batch_size: 64
    backend: LMDB
  }
}
layer {
  name: "conv0"
  type: "Convolution"
  bottom: "data"
  top: "conv0"
  param {
    lr_mult: 1
  }
  param {
    lr_mult: 2
  }
  convolution_param {
    num_output: 25
    kernel_size: 5
    stride: 1
    weight_filler {
      type: "xavier"
    }
    bias_filler {
      type: "constant"
    }
  }
}
layer {
  name: "pool0"
  type: "Pooling"
  bottom: "conv0"
  top: "pool0"
  pooling_param {
    pool: MAX
    kernel_size: 2
    stride: 2
  }
}
layer {
  name: "ip1"
  type: "InnerProduct"
  bottom: "pool0"
  top: "ip1"
  param {
    lr_mult: 1
  }
  param {
    lr_mult: 2
  }
  inner_product_param {
    num_output: 25
    weight_filler {
      type: "xavier"
    }
    bias_filler {
      type: "constant"
    }
  }
}
layer {
  name: "relu1"
  type: "ReLU"
  bottom: "ip1"
  top: "ip1"
}
layer {
  name: "ip2"
  type: "InnerProduct"
  bottom: "ip1"
  top: "ip2"
  param {
    lr_mult: 1
  }
  param {
    lr_mult: 2
  }
  inner_product_param {
    num_output: 25
    weight_filler {
      type: "xavier"
    }
    bias_filler {
      type: "constant"
    }
  }
}
layer {
  name: "relu2"
  type: "ReLU"
  bottom: "ip2"
  top: "ip2"
}
layer {
  name: "ip3"
  type: "InnerProduct"
  bottom: "ip2"
  top: "ip3"
  param {
    lr_mult: 1
  }
  param {
    lr_mult: 2
  }
  inner_product_param {
    num_output: 10
    weight_filler {
      type: "xavier"
    }
    bias_filler {
      type: "constant"
    }
  }
}
layer {
  name: "relu3"
  type: "ReLU"
  bottom: "ip3"
  top: "ip3"
}
layer {
  name: "loss"
  type: "SoftmaxWithLoss"
  bottom: "ip3"
  bottom: "label"
  top: "loss"
}
I0428 19:33:30.468044 23117 layer_factory.hpp:77] Creating layer mnist
I0428 19:33:30.468145 23117 db_lmdb.cpp:35] Opened lmdb examples/mnist/mnist_train_lmdb
I0428 19:33:30.468170 23117 net.cpp:86] Creating Layer mnist
I0428 19:33:30.468179 23117 net.cpp:382] mnist -> data
I0428 19:33:30.468207 23117 net.cpp:382] mnist -> label
I0428 19:33:30.469297 23117 data_layer.cpp:45] output data size: 64,1,28,28
I0428 19:33:30.471987 23117 net.cpp:124] Setting up mnist
I0428 19:33:30.472005 23117 net.cpp:131] Top shape: 64 1 28 28 (50176)
I0428 19:33:30.472012 23117 net.cpp:131] Top shape: 64 (64)
I0428 19:33:30.472014 23117 net.cpp:139] Memory required for data: 200960
I0428 19:33:30.472021 23117 layer_factory.hpp:77] Creating layer conv0
I0428 19:33:30.472044 23117 net.cpp:86] Creating Layer conv0
I0428 19:33:30.472050 23117 net.cpp:408] conv0 <- data
I0428 19:33:30.472062 23117 net.cpp:382] conv0 -> conv0
I0428 19:33:30.729215 23117 net.cpp:124] Setting up conv0
I0428 19:33:30.729255 23117 net.cpp:131] Top shape: 64 25 24 24 (921600)
I0428 19:33:30.729259 23117 net.cpp:139] Memory required for data: 3887360
I0428 19:33:30.729272 23117 layer_factory.hpp:77] Creating layer pool0
I0428 19:33:30.729285 23117 net.cpp:86] Creating Layer pool0
I0428 19:33:30.729308 23117 net.cpp:408] pool0 <- conv0
I0428 19:33:30.729315 23117 net.cpp:382] pool0 -> pool0
I0428 19:33:30.729357 23117 net.cpp:124] Setting up pool0
I0428 19:33:30.729365 23117 net.cpp:131] Top shape: 64 25 12 12 (230400)
I0428 19:33:30.729368 23117 net.cpp:139] Memory required for data: 4808960
I0428 19:33:30.729370 23117 layer_factory.hpp:77] Creating layer ip1
I0428 19:33:30.729378 23117 net.cpp:86] Creating Layer ip1
I0428 19:33:30.729394 23117 net.cpp:408] ip1 <- pool0
I0428 19:33:30.729413 23117 net.cpp:382] ip1 -> ip1
I0428 19:33:30.730936 23117 net.cpp:124] Setting up ip1
I0428 19:33:30.730947 23117 net.cpp:131] Top shape: 64 25 (1600)
I0428 19:33:30.730967 23117 net.cpp:139] Memory required for data: 4815360
I0428 19:33:30.730975 23117 layer_factory.hpp:77] Creating layer relu1
I0428 19:33:30.730981 23117 net.cpp:86] Creating Layer relu1
I0428 19:33:30.730985 23117 net.cpp:408] relu1 <- ip1
I0428 19:33:30.730989 23117 net.cpp:369] relu1 -> ip1 (in-place)
I0428 19:33:30.731169 23117 net.cpp:124] Setting up relu1
I0428 19:33:30.731179 23117 net.cpp:131] Top shape: 64 25 (1600)
I0428 19:33:30.731182 23117 net.cpp:139] Memory required for data: 4821760
I0428 19:33:30.731185 23117 layer_factory.hpp:77] Creating layer ip2
I0428 19:33:30.731191 23117 net.cpp:86] Creating Layer ip2
I0428 19:33:30.731194 23117 net.cpp:408] ip2 <- ip1
I0428 19:33:30.731199 23117 net.cpp:382] ip2 -> ip2
I0428 19:33:30.731331 23117 net.cpp:124] Setting up ip2
I0428 19:33:30.731338 23117 net.cpp:131] Top shape: 64 25 (1600)
I0428 19:33:30.731343 23117 net.cpp:139] Memory required for data: 4828160
I0428 19:33:30.731349 23117 layer_factory.hpp:77] Creating layer relu2
I0428 19:33:30.731358 23117 net.cpp:86] Creating Layer relu2
I0428 19:33:30.731360 23117 net.cpp:408] relu2 <- ip2
I0428 19:33:30.731366 23117 net.cpp:369] relu2 -> ip2 (in-place)
I0428 19:33:30.732216 23117 net.cpp:124] Setting up relu2
I0428 19:33:30.732228 23117 net.cpp:131] Top shape: 64 25 (1600)
I0428 19:33:30.732242 23117 net.cpp:139] Memory required for data: 4834560
I0428 19:33:30.732246 23117 layer_factory.hpp:77] Creating layer ip3
I0428 19:33:30.732254 23117 net.cpp:86] Creating Layer ip3
I0428 19:33:30.732256 23117 net.cpp:408] ip3 <- ip2
I0428 19:33:30.732261 23117 net.cpp:382] ip3 -> ip3
I0428 19:33:30.732388 23117 net.cpp:124] Setting up ip3
I0428 19:33:30.732396 23117 net.cpp:131] Top shape: 64 10 (640)
I0428 19:33:30.732399 23117 net.cpp:139] Memory required for data: 4837120
I0428 19:33:30.732405 23117 layer_factory.hpp:77] Creating layer relu3
I0428 19:33:30.732411 23117 net.cpp:86] Creating Layer relu3
I0428 19:33:30.732414 23117 net.cpp:408] relu3 <- ip3
I0428 19:33:30.732419 23117 net.cpp:369] relu3 -> ip3 (in-place)
I0428 19:33:30.732587 23117 net.cpp:124] Setting up relu3
I0428 19:33:30.732596 23117 net.cpp:131] Top shape: 64 10 (640)
I0428 19:33:30.732599 23117 net.cpp:139] Memory required for data: 4839680
I0428 19:33:30.732602 23117 layer_factory.hpp:77] Creating layer loss
I0428 19:33:30.732607 23117 net.cpp:86] Creating Layer loss
I0428 19:33:30.732611 23117 net.cpp:408] loss <- ip3
I0428 19:33:30.732615 23117 net.cpp:408] loss <- label
I0428 19:33:30.732621 23117 net.cpp:382] loss -> loss
I0428 19:33:30.732650 23117 layer_factory.hpp:77] Creating layer loss
…
I0428 19:33:30.733378 23117 solver.cpp:173] Creating test net (#0) specified by net file: ECE595/mnist/train_test/var_everything2/lenet_train_test181.prototxt
I0428 19:33:30.733433 23117 net.cpp:296] The NetState phase (1) differed from the phase (0) specified by a rule in layer mnist
I0428 19:33:30.733543 23117 net.cpp:53] Initializing net from parameters: 
name: "LeNet"
state {
  phase: TEST
}
layer {
  name: "mnist"
  type: "Data"
  top: "data"
  top: "label"
  include {
    phase: TEST
  }
  transform_param {
    scale: 0.00390625
  }
  data_param {
    source: "examples/mnist/mnist_test_lmdb"
    batch_size: 100
    backend: LMDB
  }
}
layer {
  name: "conv0"
  type: "Convolution"
  bottom: "data"
  top: "conv0"
  param {
    lr_mult: 1
  }
  param {
    lr_mult: 2
  }
  convolution_param {
    num_output: 25
    kernel_size: 5
    stride: 1
    weight_filler {
      type: "xavier"
    }
    bias_filler {
      type: "constant"
    }
  }
}
layer {
  name: "pool0"
  type: "Pooling"
  bottom: "conv0"
  top: "pool0"
  pooling_param {
    pool: MAX
    kernel_size: 2
    stride: 2
  }
}
layer {
  name: "ip1"
  type: "InnerProduct"
  bottom: "pool0"
  top: "ip1"
  param {
    lr_mult: 1
  }
  param {
    lr_mult: 2
  }
  inner_product_param {
    num_output: 25
    weight_filler {
      type: "xavier"
    }
    bias_filler {
      type: "constant"
    }
  }
}
layer {
  name: "relu1"
  type: "ReLU"
  bottom: "ip1"
  top: "ip1"
}
layer {
  name: "ip2"
  type: "InnerProduct"
  bottom: "ip1"
  top: "ip2"
  param {
    lr_mult: 1
  }
  param {
    lr_mult: 2
  }
  inner_product_param {
    num_output: 25
    weight_filler {
      type: "xavier"
    }
    bias_filler {
      type: "constant"
    }
  }
}
layer {
  name: "relu2"
  type: "ReLU"
  bottom: "ip2"
  top: "ip2"
}
layer {
  name: "ip3"
  type: "InnerProduct"
  bottom: "ip2"
  top: "ip3"
  param {
    lr_mult: 1
  }
  param {
    lr_mult: 2
  }
  inner_product_param {
    num_output: 10
    weight_filler {
      type: "xavier"
    }
    bias_filler {
      type: "constant"
    }
  }
}
layer {
  name: "relu3"
  type: "ReLU"
  bottom: "ip3"
  top: "ip3"
}
layer {
  name: "accuracy"
  type: "Accuracy"
  bottom: "ip3"
  bottom: "label"
  top: "accuracy"
  include {
    phase: TEST
  }
}
layer {
  name: "loss"
  type: "SoftmaxWithLoss"
  bottom: "ip3"
  bottom: "label"
  top: "loss"
}
I0428 19:33:30.733623 23117 layer_factory.hpp:77] Creating layer mnist
I0428 19:33:30.733683 23117 db_lmdb.cpp:35] Opened lmdb examples/mnist/mnist_test_lmdb
I0428 19:33:30.733697 23117 net.cpp:86] Creating Layer mnist
I0428 19:33:30.733705 23117 net.cpp:382] mnist -> data
I0428 19:33:30.733728 23117 net.cpp:382] mnist -> label
I0428 19:33:30.733860 23117 data_layer.cpp:45] output data size: 100,1,28,28
I0428 19:33:30.734968 23117 net.cpp:124] Setting up mnist
I0428 19:33:30.734997 23117 net.cpp:131] Top shape: 100 1 28 28 (78400)
I0428 19:33:30.735002 23117 net.cpp:131] Top shape: 100 (100)
I0428 19:33:30.735004 23117 net.cpp:139] Memory required for data: 314000
I0428 19:33:30.735008 23117 layer_factory.hpp:77] Creating layer label_mnist_1_split
I0428 19:33:30.735014 23117 net.cpp:86] Creating Layer label_mnist_1_split
I0428 19:33:30.735018 23117 net.cpp:408] label_mnist_1_split <- label
I0428 19:33:30.735023 23117 net.cpp:382] label_mnist_1_split -> label_mnist_1_split_0
I0428 19:33:30.735029 23117 net.cpp:382] label_mnist_1_split -> label_mnist_1_split_1
I0428 19:33:30.735074 23117 net.cpp:124] Setting up label_mnist_1_split
I0428 19:33:30.735080 23117 net.cpp:131] Top shape: 100 (100)
I0428 19:33:30.735083 23117 net.cpp:131] Top shape: 100 (100)
I0428 19:33:30.735086 23117 net.cpp:139] Memory required for data: 314800
I0428 19:33:30.735098 23117 layer_factory.hpp:77] Creating layer conv0
I0428 19:33:30.735107 23117 net.cpp:86] Creating Layer conv0
I0428 19:33:30.735113 23117 net.cpp:408] conv0 <- data
I0428 19:33:30.735134 23117 net.cpp:382] conv0 -> conv0
I0428 19:33:30.736943 23117 net.cpp:124] Setting up conv0
I0428 19:33:30.736974 23117 net.cpp:131] Top shape: 100 25 24 24 (1440000)
I0428 19:33:30.736977 23117 net.cpp:139] Memory required for data: 6074800
I0428 19:33:30.736986 23117 layer_factory.hpp:77] Creating layer pool0
I0428 19:33:30.736994 23117 net.cpp:86] Creating Layer pool0
I0428 19:33:30.736996 23117 net.cpp:408] pool0 <- conv0
I0428 19:33:30.737001 23117 net.cpp:382] pool0 -> pool0
I0428 19:33:30.737037 23117 net.cpp:124] Setting up pool0
I0428 19:33:30.737046 23117 net.cpp:131] Top shape: 100 25 12 12 (360000)
I0428 19:33:30.737048 23117 net.cpp:139] Memory required for data: 7514800
I0428 19:33:30.737051 23117 layer_factory.hpp:77] Creating layer ip1
I0428 19:33:30.737058 23117 net.cpp:86] Creating Layer ip1
I0428 19:33:30.737062 23117 net.cpp:408] ip1 <- pool0
I0428 19:33:30.737067 23117 net.cpp:382] ip1 -> ip1
I0428 19:33:30.737788 23117 net.cpp:124] Setting up ip1
I0428 19:33:30.737795 23117 net.cpp:131] Top shape: 100 25 (2500)
I0428 19:33:30.737799 23117 net.cpp:139] Memory required for data: 7524800
I0428 19:33:30.737805 23117 layer_factory.hpp:77] Creating layer relu1
I0428 19:33:30.737810 23117 net.cpp:86] Creating Layer relu1
I0428 19:33:30.737814 23117 net.cpp:408] relu1 <- ip1
I0428 19:33:30.737819 23117 net.cpp:369] relu1 -> ip1 (in-place)
I0428 19:33:30.737993 23117 net.cpp:124] Setting up relu1
I0428 19:33:30.738003 23117 net.cpp:131] Top shape: 100 25 (2500)
I0428 19:33:30.738006 23117 net.cpp:139] Memory required for data: 7534800
I0428 19:33:30.738010 23117 layer_factory.hpp:77] Creating layer ip2
I0428 19:33:30.738016 23117 net.cpp:86] Creating Layer ip2
I0428 19:33:30.738019 23117 net.cpp:408] ip2 <- ip1
I0428 19:33:30.738024 23117 net.cpp:382] ip2 -> ip2
I0428 19:33:30.738135 23117 net.cpp:124] Setting up ip2
I0428 19:33:30.738143 23117 net.cpp:131] Top shape: 100 25 (2500)
I0428 19:33:30.738147 23117 net.cpp:139] Memory required for data: 7544800
I0428 19:33:30.738153 23117 layer_factory.hpp:77] Creating layer relu2
I0428 19:33:30.738160 23117 net.cpp:86] Creating Layer relu2
I0428 19:33:30.738178 23117 net.cpp:408] relu2 <- ip2
I0428 19:33:30.738183 23117 net.cpp:369] relu2 -> ip2 (in-place)
I0428 19:33:30.739035 23117 net.cpp:124] Setting up relu2
I0428 19:33:30.739049 23117 net.cpp:131] Top shape: 100 25 (2500)
I0428 19:33:30.739053 23117 net.cpp:139] Memory required for data: 7554800
I0428 19:33:30.739056 23117 layer_factory.hpp:77] Creating layer ip3
I0428 19:33:30.739064 23117 net.cpp:86] Creating Layer ip3
I0428 19:33:30.739071 23117 net.cpp:408] ip3 <- ip2
I0428 19:33:30.739094 23117 net.cpp:382] ip3 -> ip3
I0428 19:33:30.739250 23117 net.cpp:124] Setting up ip3
I0428 19:33:30.739259 23117 net.cpp:131] Top shape: 100 10 (1000)
I0428 19:33:30.739264 23117 net.cpp:139] Memory required for data: 7558800
I0428 19:33:30.739269 23117 layer_factory.hpp:77] Creating layer relu3
I0428 19:33:30.739274 23117 net.cpp:86] Creating Layer relu3
I0428 19:33:30.739277 23117 net.cpp:408] relu3 <- ip3
I0428 19:33:30.739282 23117 net.cpp:369] relu3 -> ip3 (in-place)
I0428 19:33:30.739431 23117 net.cpp:124] Setting up relu3
I0428 19:33:30.739441 23117 net.cpp:131] Top shape: 100 10 (1000)
I0428 19:33:30.739445 23117 net.cpp:139] Memory required for data: 7562800
I0428 19:33:30.739449 23117 layer_factory.hpp:77] Creating layer ip3_relu3_0_split
I0428 19:33:30.739461 23117 net.cpp:86] Creating Layer ip3_relu3_0_split
I0428 19:33:30.739464 23117 net.cpp:408] ip3_relu3_0_split <- ip3
I0428 19:33:30.739470 23117 net.cpp:382] ip3_relu3_0_split -> ip3_relu3_0_split_0
I0428 19:33:30.739497 23117 net.cpp:382] ip3_relu3_0_split -> ip3_relu3_0_split_1
I0428 19:33:30.739545 23117 net.cpp:124] Setting up ip3_relu3_0_split
I0428 19:33:30.739553 23117 net.cpp:131] Top shape: 100 10 (1000)
I0428 19:33:30.739573 23117 net.cpp:131] Top shape: 100 10 (1000)
I0428 19:33:30.739586 23117 net.cpp:139] Memory required for data: 7570800
I0428 19:33:30.739590 23117 layer_factory.hpp:77] Creating layer accuracy
I0428 19:33:30.739596 23117 net.cpp:86] Creating Layer accuracy
I0428 19:33:30.739600 23117 net.cpp:408] accuracy <- ip3_relu3_0_split_0
I0428 19:33:30.739605 23117 net.cpp:408] accuracy <- label_mnist_1_split_0
I0428 19:33:30.739609 23117 net.cpp:382] accuracy -> accuracy
…
