…
I0428 19:31:12.897650 22519 net.cpp:296] The NetState phase (0) differed from the phase (1) specified by a rule in layer mnist
I0428 19:31:12.897670 22519 net.cpp:296] The NetState phase (0) differed from the phase (1) specified by a rule in layer accuracy
I0428 19:31:12.897763 22519 net.cpp:53] Initializing net from parameters: 
name: "LeNet"
state {
  phase: TRAIN
  level: 0
  stage: ""
}
layer {
  name: "mnist"
  type: "Data"
  top: "data"
  top: "label"
  include {
    phase: TRAIN
  }
  transform_param {
    scale: 0.00390625
  }
  data_param {
    source: "examples/mnist/mnist_train_lmdb"
    batch_size: 64
    backend: LMDB
  }
}
layer {
  name: "conv0"
  type: "Convolution"
  bottom: "data"
  top: "conv0"
  param {
    lr_mult: 1
  }
  param {
    lr_mult: 2
  }
  convolution_param {
    num_output: 5
    kernel_size: 5
    stride: 1
    weight_filler {
      type: "xavier"
    }
    bias_filler {
      type: "constant"
    }
  }
}
layer {
  name: "pool0"
  type: "Pooling"
  bottom: "conv0"
  top: "pool0"
  pooling_param {
    pool: MAX
    kernel_size: 2
    stride: 2
  }
}
layer {
  name: "ip1"
  type: "InnerProduct"
  bottom: "pool0"
  top: "ip1"
  param {
    lr_mult: 1
  }
  param {
    lr_mult: 2
  }
  inner_product_param {
    num_output: 50
    weight_filler {
      type: "xavier"
    }
    bias_filler {
      type: "constant"
    }
  }
}
layer {
  name: "relu1"
  type: "ReLU"
  bottom: "ip1"
  top: "ip1"
}
layer {
  name: "ip2"
  type: "InnerProduct"
  bottom: "ip1"
  top: "ip2"
  param {
    lr_mult: 1
  }
  param {
    lr_mult: 2
  }
  inner_product_param {
    num_output: 50
    weight_filler {
      type: "xavier"
    }
    bias_filler {
      type: "constant"
    }
  }
}
layer {
  name: "relu2"
  type: "ReLU"
  bottom: "ip2"
  top: "ip2"
}
layer {
  name: "ip3"
  type: "InnerProduct"
  bottom: "ip2"
  top: "ip3"
  param {
    lr_mult: 1
  }
  param {
    lr_mult: 2
  }
  inner_product_param {
    num_output: 10
    weight_filler {
      type: "xavier"
    }
    bias_filler {
      type: "constant"
    }
  }
}
layer {
  name: "relu3"
  type: "ReLU"
  bottom: "ip3"
  top: "ip3"
}
layer {
  name: "loss"
  type: "SoftmaxWithLoss"
  bottom: "ip3"
  bottom: "label"
  top: "loss"
}
I0428 19:31:12.897861 22519 layer_factory.hpp:77] Creating layer mnist
I0428 19:31:12.897999 22519 db_lmdb.cpp:35] Opened lmdb examples/mnist/mnist_train_lmdb
I0428 19:31:12.898032 22519 net.cpp:86] Creating Layer mnist
I0428 19:31:12.898044 22519 net.cpp:382] mnist -> data
I0428 19:31:12.898077 22519 net.cpp:382] mnist -> label
I0428 19:31:12.899305 22519 data_layer.cpp:45] output data size: 64,1,28,28
I0428 19:31:12.901787 22519 net.cpp:124] Setting up mnist
I0428 19:31:12.901808 22519 net.cpp:131] Top shape: 64 1 28 28 (50176)
I0428 19:31:12.901818 22519 net.cpp:131] Top shape: 64 (64)
I0428 19:31:12.901825 22519 net.cpp:139] Memory required for data: 200960
I0428 19:31:12.901836 22519 layer_factory.hpp:77] Creating layer conv0
I0428 19:31:12.901859 22519 net.cpp:86] Creating Layer conv0
I0428 19:31:12.901870 22519 net.cpp:408] conv0 <- data
I0428 19:31:12.901888 22519 net.cpp:382] conv0 -> conv0
I0428 19:31:13.173885 22519 net.cpp:124] Setting up conv0
I0428 19:31:13.173914 22519 net.cpp:131] Top shape: 64 5 24 24 (184320)
I0428 19:31:13.173919 22519 net.cpp:139] Memory required for data: 938240
I0428 19:31:13.173940 22519 layer_factory.hpp:77] Creating layer pool0
I0428 19:31:13.173956 22519 net.cpp:86] Creating Layer pool0
I0428 19:31:13.173979 22519 net.cpp:408] pool0 <- conv0
I0428 19:31:13.173985 22519 net.cpp:382] pool0 -> pool0
I0428 19:31:13.174033 22519 net.cpp:124] Setting up pool0
I0428 19:31:13.174038 22519 net.cpp:131] Top shape: 64 5 12 12 (46080)
I0428 19:31:13.174041 22519 net.cpp:139] Memory required for data: 1122560
I0428 19:31:13.174044 22519 layer_factory.hpp:77] Creating layer ip1
I0428 19:31:13.174052 22519 net.cpp:86] Creating Layer ip1
I0428 19:31:13.174054 22519 net.cpp:408] ip1 <- pool0
I0428 19:31:13.174058 22519 net.cpp:382] ip1 -> ip1
I0428 19:31:13.174358 22519 net.cpp:124] Setting up ip1
I0428 19:31:13.174365 22519 net.cpp:131] Top shape: 64 50 (3200)
I0428 19:31:13.174366 22519 net.cpp:139] Memory required for data: 1135360
I0428 19:31:13.174373 22519 layer_factory.hpp:77] Creating layer relu1
I0428 19:31:13.174378 22519 net.cpp:86] Creating Layer relu1
I0428 19:31:13.174382 22519 net.cpp:408] relu1 <- ip1
I0428 19:31:13.174386 22519 net.cpp:369] relu1 -> ip1 (in-place)
I0428 19:31:13.174562 22519 net.cpp:124] Setting up relu1
I0428 19:31:13.174572 22519 net.cpp:131] Top shape: 64 50 (3200)
I0428 19:31:13.174592 22519 net.cpp:139] Memory required for data: 1148160
I0428 19:31:13.174594 22519 layer_factory.hpp:77] Creating layer ip2
I0428 19:31:13.174615 22519 net.cpp:86] Creating Layer ip2
I0428 19:31:13.174618 22519 net.cpp:408] ip2 <- ip1
I0428 19:31:13.174623 22519 net.cpp:382] ip2 -> ip2
I0428 19:31:13.175673 22519 net.cpp:124] Setting up ip2
I0428 19:31:13.175699 22519 net.cpp:131] Top shape: 64 50 (3200)
I0428 19:31:13.175719 22519 net.cpp:139] Memory required for data: 1160960
I0428 19:31:13.175727 22519 layer_factory.hpp:77] Creating layer relu2
I0428 19:31:13.175734 22519 net.cpp:86] Creating Layer relu2
I0428 19:31:13.175737 22519 net.cpp:408] relu2 <- ip2
I0428 19:31:13.175742 22519 net.cpp:369] relu2 -> ip2 (in-place)
I0428 19:31:13.176532 22519 net.cpp:124] Setting up relu2
I0428 19:31:13.176558 22519 net.cpp:131] Top shape: 64 50 (3200)
I0428 19:31:13.176578 22519 net.cpp:139] Memory required for data: 1173760
I0428 19:31:13.176581 22519 layer_factory.hpp:77] Creating layer ip3
I0428 19:31:13.176589 22519 net.cpp:86] Creating Layer ip3
I0428 19:31:13.176591 22519 net.cpp:408] ip3 <- ip2
I0428 19:31:13.176614 22519 net.cpp:382] ip3 -> ip3
I0428 19:31:13.176733 22519 net.cpp:124] Setting up ip3
I0428 19:31:13.176739 22519 net.cpp:131] Top shape: 64 10 (640)
I0428 19:31:13.176743 22519 net.cpp:139] Memory required for data: 1176320
I0428 19:31:13.176748 22519 layer_factory.hpp:77] Creating layer relu3
I0428 19:31:13.176755 22519 net.cpp:86] Creating Layer relu3
I0428 19:31:13.176761 22519 net.cpp:408] relu3 <- ip3
I0428 19:31:13.176782 22519 net.cpp:369] relu3 -> ip3 (in-place)
I0428 19:31:13.177021 22519 net.cpp:124] Setting up relu3
I0428 19:31:13.177031 22519 net.cpp:131] Top shape: 64 10 (640)
I0428 19:31:13.177036 22519 net.cpp:139] Memory required for data: 1178880
I0428 19:31:13.177038 22519 layer_factory.hpp:77] Creating layer loss
I0428 19:31:13.177044 22519 net.cpp:86] Creating Layer loss
I0428 19:31:13.177050 22519 net.cpp:408] loss <- ip3
I0428 19:31:13.177057 22519 net.cpp:408] loss <- label
I0428 19:31:13.177062 22519 net.cpp:382] loss -> loss
I0428 19:31:13.177081 22519 layer_factory.hpp:77] Creating layer loss
…
I0428 19:31:13.177795 22519 solver.cpp:173] Creating test net (#0) specified by net file: ECE595/mnist/train_test/var_everything2/lenet_train_test115.prototxt
I0428 19:31:13.177822 22519 net.cpp:296] The NetState phase (1) differed from the phase (0) specified by a rule in layer mnist
I0428 19:31:13.177933 22519 net.cpp:53] Initializing net from parameters: 
name: "LeNet"
state {
  phase: TEST
}
layer {
  name: "mnist"
  type: "Data"
  top: "data"
  top: "label"
  include {
    phase: TEST
  }
  transform_param {
    scale: 0.00390625
  }
  data_param {
    source: "examples/mnist/mnist_test_lmdb"
    batch_size: 100
    backend: LMDB
  }
}
layer {
  name: "conv0"
  type: "Convolution"
  bottom: "data"
  top: "conv0"
  param {
    lr_mult: 1
  }
  param {
    lr_mult: 2
  }
  convolution_param {
    num_output: 5
    kernel_size: 5
    stride: 1
    weight_filler {
      type: "xavier"
    }
    bias_filler {
      type: "constant"
    }
  }
}
layer {
  name: "pool0"
  type: "Pooling"
  bottom: "conv0"
  top: "pool0"
  pooling_param {
    pool: MAX
    kernel_size: 2
    stride: 2
  }
}
layer {
  name: "ip1"
  type: "InnerProduct"
  bottom: "pool0"
  top: "ip1"
  param {
    lr_mult: 1
  }
  param {
    lr_mult: 2
  }
  inner_product_param {
    num_output: 50
    weight_filler {
      type: "xavier"
    }
    bias_filler {
      type: "constant"
    }
  }
}
layer {
  name: "relu1"
  type: "ReLU"
  bottom: "ip1"
  top: "ip1"
}
layer {
  name: "ip2"
  type: "InnerProduct"
  bottom: "ip1"
  top: "ip2"
  param {
    lr_mult: 1
  }
  param {
    lr_mult: 2
  }
  inner_product_param {
    num_output: 50
    weight_filler {
      type: "xavier"
    }
    bias_filler {
      type: "constant"
    }
  }
}
layer {
  name: "relu2"
  type: "ReLU"
  bottom: "ip2"
  top: "ip2"
}
layer {
  name: "ip3"
  type: "InnerProduct"
  bottom: "ip2"
  top: "ip3"
  param {
    lr_mult: 1
  }
  param {
    lr_mult: 2
  }
  inner_product_param {
    num_output: 10
    weight_filler {
      type: "xavier"
    }
    bias_filler {
      type: "constant"
    }
  }
}
layer {
  name: "relu3"
  type: "ReLU"
  bottom: "ip3"
  top: "ip3"
}
layer {
  name: "accuracy"
  type: "Accuracy"
  bottom: "ip3"
  bottom: "label"
  top: "accuracy"
  include {
    phase: TEST
  }
}
layer {
  name: "loss"
  type: "SoftmaxWithLoss"
  bottom: "ip3"
  bottom: "label"
  top: "loss"
}
I0428 19:31:13.178006 22519 layer_factory.hpp:77] Creating layer mnist
I0428 19:31:13.178052 22519 db_lmdb.cpp:35] Opened lmdb examples/mnist/mnist_test_lmdb
I0428 19:31:13.178066 22519 net.cpp:86] Creating Layer mnist
I0428 19:31:13.178074 22519 net.cpp:382] mnist -> data
I0428 19:31:13.178081 22519 net.cpp:382] mnist -> label
I0428 19:31:13.178189 22519 data_layer.cpp:45] output data size: 100,1,28,28
I0428 19:31:13.180474 22519 net.cpp:124] Setting up mnist
I0428 19:31:13.180488 22519 net.cpp:131] Top shape: 100 1 28 28 (78400)
I0428 19:31:13.180493 22519 net.cpp:131] Top shape: 100 (100)
I0428 19:31:13.180496 22519 net.cpp:139] Memory required for data: 314000
I0428 19:31:13.180500 22519 layer_factory.hpp:77] Creating layer label_mnist_1_split
I0428 19:31:13.180506 22519 net.cpp:86] Creating Layer label_mnist_1_split
I0428 19:31:13.180542 22519 net.cpp:408] label_mnist_1_split <- label
I0428 19:31:13.180562 22519 net.cpp:382] label_mnist_1_split -> label_mnist_1_split_0
I0428 19:31:13.180569 22519 net.cpp:382] label_mnist_1_split -> label_mnist_1_split_1
I0428 19:31:13.180615 22519 net.cpp:124] Setting up label_mnist_1_split
I0428 19:31:13.180622 22519 net.cpp:131] Top shape: 100 (100)
I0428 19:31:13.180626 22519 net.cpp:131] Top shape: 100 (100)
I0428 19:31:13.180629 22519 net.cpp:139] Memory required for data: 314800
I0428 19:31:13.180641 22519 layer_factory.hpp:77] Creating layer conv0
I0428 19:31:13.180652 22519 net.cpp:86] Creating Layer conv0
I0428 19:31:13.180658 22519 net.cpp:408] conv0 <- data
I0428 19:31:13.180680 22519 net.cpp:382] conv0 -> conv0
I0428 19:31:13.182322 22519 net.cpp:124] Setting up conv0
I0428 19:31:13.182350 22519 net.cpp:131] Top shape: 100 5 24 24 (288000)
I0428 19:31:13.182353 22519 net.cpp:139] Memory required for data: 1466800
I0428 19:31:13.182363 22519 layer_factory.hpp:77] Creating layer pool0
I0428 19:31:13.182369 22519 net.cpp:86] Creating Layer pool0
I0428 19:31:13.182374 22519 net.cpp:408] pool0 <- conv0
I0428 19:31:13.182379 22519 net.cpp:382] pool0 -> pool0
I0428 19:31:13.182416 22519 net.cpp:124] Setting up pool0
I0428 19:31:13.182421 22519 net.cpp:131] Top shape: 100 5 12 12 (72000)
I0428 19:31:13.182425 22519 net.cpp:139] Memory required for data: 1754800
I0428 19:31:13.182426 22519 layer_factory.hpp:77] Creating layer ip1
I0428 19:31:13.182435 22519 net.cpp:86] Creating Layer ip1
I0428 19:31:13.182437 22519 net.cpp:408] ip1 <- pool0
I0428 19:31:13.182442 22519 net.cpp:382] ip1 -> ip1
I0428 19:31:13.182744 22519 net.cpp:124] Setting up ip1
I0428 19:31:13.182763 22519 net.cpp:131] Top shape: 100 50 (5000)
I0428 19:31:13.182766 22519 net.cpp:139] Memory required for data: 1774800
I0428 19:31:13.182785 22519 layer_factory.hpp:77] Creating layer relu1
I0428 19:31:13.182790 22519 net.cpp:86] Creating Layer relu1
I0428 19:31:13.182792 22519 net.cpp:408] relu1 <- ip1
I0428 19:31:13.182796 22519 net.cpp:369] relu1 -> ip1 (in-place)
I0428 19:31:13.182958 22519 net.cpp:124] Setting up relu1
I0428 19:31:13.182966 22519 net.cpp:131] Top shape: 100 50 (5000)
I0428 19:31:13.182970 22519 net.cpp:139] Memory required for data: 1794800
I0428 19:31:13.182972 22519 layer_factory.hpp:77] Creating layer ip2
I0428 19:31:13.182979 22519 net.cpp:86] Creating Layer ip2
I0428 19:31:13.182982 22519 net.cpp:408] ip2 <- ip1
I0428 19:31:13.182986 22519 net.cpp:382] ip2 -> ip2
I0428 19:31:13.183104 22519 net.cpp:124] Setting up ip2
I0428 19:31:13.183110 22519 net.cpp:131] Top shape: 100 50 (5000)
I0428 19:31:13.183113 22519 net.cpp:139] Memory required for data: 1814800
I0428 19:31:13.183120 22519 layer_factory.hpp:77] Creating layer relu2
I0428 19:31:13.183126 22519 net.cpp:86] Creating Layer relu2
I0428 19:31:13.183130 22519 net.cpp:408] relu2 <- ip2
I0428 19:31:13.183133 22519 net.cpp:369] relu2 -> ip2 (in-place)
I0428 19:31:13.184032 22519 net.cpp:124] Setting up relu2
I0428 19:31:13.184044 22519 net.cpp:131] Top shape: 100 50 (5000)
I0428 19:31:13.184062 22519 net.cpp:139] Memory required for data: 1834800
I0428 19:31:13.184067 22519 layer_factory.hpp:77] Creating layer ip3
I0428 19:31:13.184074 22519 net.cpp:86] Creating Layer ip3
I0428 19:31:13.184078 22519 net.cpp:408] ip3 <- ip2
I0428 19:31:13.184085 22519 net.cpp:382] ip3 -> ip3
I0428 19:31:13.184262 22519 net.cpp:124] Setting up ip3
I0428 19:31:13.184272 22519 net.cpp:131] Top shape: 100 10 (1000)
I0428 19:31:13.184275 22519 net.cpp:139] Memory required for data: 1838800
I0428 19:31:13.184281 22519 layer_factory.hpp:77] Creating layer relu3
I0428 19:31:13.184288 22519 net.cpp:86] Creating Layer relu3
I0428 19:31:13.184290 22519 net.cpp:408] relu3 <- ip3
I0428 19:31:13.184295 22519 net.cpp:369] relu3 -> ip3 (in-place)
I0428 19:31:13.184466 22519 net.cpp:124] Setting up relu3
I0428 19:31:13.184475 22519 net.cpp:131] Top shape: 100 10 (1000)
I0428 19:31:13.184479 22519 net.cpp:139] Memory required for data: 1842800
I0428 19:31:13.184483 22519 layer_factory.hpp:77] Creating layer ip3_relu3_0_split
I0428 19:31:13.184487 22519 net.cpp:86] Creating Layer ip3_relu3_0_split
I0428 19:31:13.184490 22519 net.cpp:408] ip3_relu3_0_split <- ip3
I0428 19:31:13.184496 22519 net.cpp:382] ip3_relu3_0_split -> ip3_relu3_0_split_0
I0428 19:31:13.184504 22519 net.cpp:382] ip3_relu3_0_split -> ip3_relu3_0_split_1
I0428 19:31:13.184556 22519 net.cpp:124] Setting up ip3_relu3_0_split
I0428 19:31:13.184562 22519 net.cpp:131] Top shape: 100 10 (1000)
I0428 19:31:13.184566 22519 net.cpp:131] Top shape: 100 10 (1000)
I0428 19:31:13.184579 22519 net.cpp:139] Memory required for data: 1850800
I0428 19:31:13.184582 22519 layer_factory.hpp:77] Creating layer accuracy
I0428 19:31:13.184588 22519 net.cpp:86] Creating Layer accuracy
I0428 19:31:13.184592 22519 net.cpp:408] accuracy <- ip3_relu3_0_split_0
I0428 19:31:13.184597 22519 net.cpp:408] accuracy <- label_mnist_1_split_0
I0428 19:31:13.184607 22519 net.cpp:382] accuracy -> accuracy
…
