…
I0428 19:35:16.028148 23474 net.cpp:296] The NetState phase (0) differed from the phase (1) specified by a rule in layer mnist
I0428 19:35:16.028167 23474 net.cpp:296] The NetState phase (0) differed from the phase (1) specified by a rule in layer accuracy
I0428 19:35:16.028255 23474 net.cpp:53] Initializing net from parameters: 
name: "LeNet"
state {
  phase: TRAIN
  level: 0
  stage: ""
}
layer {
  name: "mnist"
  type: "Data"
  top: "data"
  top: "label"
  include {
    phase: TRAIN
  }
  transform_param {
    scale: 0.00390625
  }
  data_param {
    source: "examples/mnist/mnist_train_lmdb"
    batch_size: 64
    backend: LMDB
  }
}
layer {
  name: "conv0"
  type: "Convolution"
  bottom: "data"
  top: "conv0"
  param {
    lr_mult: 1
  }
  param {
    lr_mult: 2
  }
  convolution_param {
    num_output: 50
    kernel_size: 5
    stride: 1
    weight_filler {
      type: "xavier"
    }
    bias_filler {
      type: "constant"
    }
  }
}
layer {
  name: "pool0"
  type: "Pooling"
  bottom: "conv0"
  top: "pool0"
  pooling_param {
    pool: MAX
    kernel_size: 2
    stride: 2
  }
}
layer {
  name: "ip1"
  type: "InnerProduct"
  bottom: "pool0"
  top: "ip1"
  param {
    lr_mult: 1
  }
  param {
    lr_mult: 2
  }
  inner_product_param {
    num_output: 25
    weight_filler {
      type: "xavier"
    }
    bias_filler {
      type: "constant"
    }
  }
}
layer {
  name: "relu1"
  type: "ReLU"
  bottom: "ip1"
  top: "ip1"
}
layer {
  name: "ip2"
  type: "InnerProduct"
  bottom: "ip1"
  top: "ip2"
  param {
    lr_mult: 1
  }
  param {
    lr_mult: 2
  }
  inner_product_param {
    num_output: 25
    weight_filler {
      type: "xavier"
    }
    bias_filler {
      type: "constant"
    }
  }
}
layer {
  name: "relu2"
  type: "ReLU"
  bottom: "ip2"
  top: "ip2"
}
layer {
  name: "ip3"
  type: "InnerProduct"
  bottom: "ip2"
  top: "ip3"
  param {
    lr_mult: 1
  }
  param {
    lr_mult: 2
  }
  inner_product_param {
    num_output: 10
    weight_filler {
      type: "xavier"
    }
    bias_filler {
      type: "constant"
    }
  }
}
layer {
  name: "relu3"
  type: "ReLU"
  bottom: "ip3"
  top: "ip3"
}
layer {
  name: "loss"
  type: "SoftmaxWithLoss"
  bottom: "ip3"
  bottom: "label"
  top: "loss"
}
I0428 19:35:16.028337 23474 layer_factory.hpp:77] Creating layer mnist
I0428 19:35:16.028445 23474 db_lmdb.cpp:35] Opened lmdb examples/mnist/mnist_train_lmdb
I0428 19:35:16.028472 23474 net.cpp:86] Creating Layer mnist
I0428 19:35:16.028482 23474 net.cpp:382] mnist -> data
I0428 19:35:16.028506 23474 net.cpp:382] mnist -> label
I0428 19:35:16.029523 23474 data_layer.cpp:45] output data size: 64,1,28,28
I0428 19:35:16.031852 23474 net.cpp:124] Setting up mnist
I0428 19:35:16.031884 23474 net.cpp:131] Top shape: 64 1 28 28 (50176)
I0428 19:35:16.031893 23474 net.cpp:131] Top shape: 64 (64)
I0428 19:35:16.031898 23474 net.cpp:139] Memory required for data: 200960
I0428 19:35:16.031906 23474 layer_factory.hpp:77] Creating layer conv0
I0428 19:35:16.031925 23474 net.cpp:86] Creating Layer conv0
I0428 19:35:16.031934 23474 net.cpp:408] conv0 <- data
I0428 19:35:16.031949 23474 net.cpp:382] conv0 -> conv0
I0428 19:35:16.268993 23474 net.cpp:124] Setting up conv0
I0428 19:35:16.269023 23474 net.cpp:131] Top shape: 64 50 24 24 (1843200)
I0428 19:35:16.269028 23474 net.cpp:139] Memory required for data: 7573760
I0428 19:35:16.269063 23474 layer_factory.hpp:77] Creating layer pool0
I0428 19:35:16.269080 23474 net.cpp:86] Creating Layer pool0
I0428 19:35:16.269106 23474 net.cpp:408] pool0 <- conv0
I0428 19:35:16.269115 23474 net.cpp:382] pool0 -> pool0
I0428 19:35:16.269184 23474 net.cpp:124] Setting up pool0
I0428 19:35:16.269193 23474 net.cpp:131] Top shape: 64 50 12 12 (460800)
I0428 19:35:16.269197 23474 net.cpp:139] Memory required for data: 9416960
I0428 19:35:16.269202 23474 layer_factory.hpp:77] Creating layer ip1
I0428 19:35:16.269213 23474 net.cpp:86] Creating Layer ip1
I0428 19:35:16.269218 23474 net.cpp:408] ip1 <- pool0
I0428 19:35:16.269227 23474 net.cpp:382] ip1 -> ip1
I0428 19:35:16.271165 23474 net.cpp:124] Setting up ip1
I0428 19:35:16.271183 23474 net.cpp:131] Top shape: 64 25 (1600)
I0428 19:35:16.271188 23474 net.cpp:139] Memory required for data: 9423360
I0428 19:35:16.271200 23474 layer_factory.hpp:77] Creating layer relu1
I0428 19:35:16.271210 23474 net.cpp:86] Creating Layer relu1
I0428 19:35:16.271216 23474 net.cpp:408] relu1 <- ip1
I0428 19:35:16.271224 23474 net.cpp:369] relu1 -> ip1 (in-place)
I0428 19:35:16.271415 23474 net.cpp:124] Setting up relu1
I0428 19:35:16.271426 23474 net.cpp:131] Top shape: 64 25 (1600)
I0428 19:35:16.271431 23474 net.cpp:139] Memory required for data: 9429760
I0428 19:35:16.271436 23474 layer_factory.hpp:77] Creating layer ip2
I0428 19:35:16.271461 23474 net.cpp:86] Creating Layer ip2
I0428 19:35:16.271466 23474 net.cpp:408] ip2 <- ip1
I0428 19:35:16.271476 23474 net.cpp:382] ip2 -> ip2
I0428 19:35:16.271575 23474 net.cpp:124] Setting up ip2
I0428 19:35:16.271584 23474 net.cpp:131] Top shape: 64 25 (1600)
I0428 19:35:16.271587 23474 net.cpp:139] Memory required for data: 9436160
I0428 19:35:16.271600 23474 layer_factory.hpp:77] Creating layer relu2
I0428 19:35:16.271610 23474 net.cpp:86] Creating Layer relu2
I0428 19:35:16.271620 23474 net.cpp:408] relu2 <- ip2
I0428 19:35:16.271643 23474 net.cpp:369] relu2 -> ip2 (in-place)
I0428 19:35:16.272424 23474 net.cpp:124] Setting up relu2
I0428 19:35:16.272454 23474 net.cpp:131] Top shape: 64 25 (1600)
I0428 19:35:16.272459 23474 net.cpp:139] Memory required for data: 9442560
I0428 19:35:16.272465 23474 layer_factory.hpp:77] Creating layer ip3
I0428 19:35:16.272475 23474 net.cpp:86] Creating Layer ip3
I0428 19:35:16.272481 23474 net.cpp:408] ip3 <- ip2
I0428 19:35:16.272492 23474 net.cpp:382] ip3 -> ip3
I0428 19:35:16.272622 23474 net.cpp:124] Setting up ip3
I0428 19:35:16.272631 23474 net.cpp:131] Top shape: 64 10 (640)
I0428 19:35:16.272636 23474 net.cpp:139] Memory required for data: 9445120
I0428 19:35:16.272646 23474 layer_factory.hpp:77] Creating layer relu3
I0428 19:35:16.272658 23474 net.cpp:86] Creating Layer relu3
I0428 19:35:16.272665 23474 net.cpp:408] relu3 <- ip3
I0428 19:35:16.272672 23474 net.cpp:369] relu3 -> ip3 (in-place)
I0428 19:35:16.272912 23474 net.cpp:124] Setting up relu3
I0428 19:35:16.272922 23474 net.cpp:131] Top shape: 64 10 (640)
I0428 19:35:16.272927 23474 net.cpp:139] Memory required for data: 9447680
I0428 19:35:16.272933 23474 layer_factory.hpp:77] Creating layer loss
I0428 19:35:16.272943 23474 net.cpp:86] Creating Layer loss
I0428 19:35:16.272948 23474 net.cpp:408] loss <- ip3
I0428 19:35:16.272955 23474 net.cpp:408] loss <- label
I0428 19:35:16.272964 23474 net.cpp:382] loss -> loss
I0428 19:35:16.272987 23474 layer_factory.hpp:77] Creating layer loss
…
I0428 19:35:16.273764 23474 solver.cpp:173] Creating test net (#0) specified by net file: ECE595/mnist/train_test/var_everything2/lenet_train_test221.prototxt
I0428 19:35:16.273795 23474 net.cpp:296] The NetState phase (1) differed from the phase (0) specified by a rule in layer mnist
I0428 19:35:16.273876 23474 net.cpp:53] Initializing net from parameters: 
name: "LeNet"
state {
  phase: TEST
}
layer {
  name: "mnist"
  type: "Data"
  top: "data"
  top: "label"
  include {
    phase: TEST
  }
  transform_param {
    scale: 0.00390625
  }
  data_param {
    source: "examples/mnist/mnist_test_lmdb"
    batch_size: 100
    backend: LMDB
  }
}
layer {
  name: "conv0"
  type: "Convolution"
  bottom: "data"
  top: "conv0"
  param {
    lr_mult: 1
  }
  param {
    lr_mult: 2
  }
  convolution_param {
    num_output: 50
    kernel_size: 5
    stride: 1
    weight_filler {
      type: "xavier"
    }
    bias_filler {
      type: "constant"
    }
  }
}
layer {
  name: "pool0"
  type: "Pooling"
  bottom: "conv0"
  top: "pool0"
  pooling_param {
    pool: MAX
    kernel_size: 2
    stride: 2
  }
}
layer {
  name: "ip1"
  type: "InnerProduct"
  bottom: "pool0"
  top: "ip1"
  param {
    lr_mult: 1
  }
  param {
    lr_mult: 2
  }
  inner_product_param {
    num_output: 25
    weight_filler {
      type: "xavier"
    }
    bias_filler {
      type: "constant"
    }
  }
}
layer {
  name: "relu1"
  type: "ReLU"
  bottom: "ip1"
  top: "ip1"
}
layer {
  name: "ip2"
  type: "InnerProduct"
  bottom: "ip1"
  top: "ip2"
  param {
    lr_mult: 1
  }
  param {
    lr_mult: 2
  }
  inner_product_param {
    num_output: 25
    weight_filler {
      type: "xavier"
    }
    bias_filler {
      type: "constant"
    }
  }
}
layer {
  name: "relu2"
  type: "ReLU"
  bottom: "ip2"
  top: "ip2"
}
layer {
  name: "ip3"
  type: "InnerProduct"
  bottom: "ip2"
  top: "ip3"
  param {
    lr_mult: 1
  }
  param {
    lr_mult: 2
  }
  inner_product_param {
    num_output: 10
    weight_filler {
      type: "xavier"
    }
    bias_filler {
      type: "constant"
    }
  }
}
layer {
  name: "relu3"
  type: "ReLU"
  bottom: "ip3"
  top: "ip3"
}
layer {
  name: "accuracy"
  type: "Accuracy"
  bottom: "ip3"
  bottom: "label"
  top: "accuracy"
  include {
    phase: TEST
  }
}
layer {
  name: "loss"
  type: "SoftmaxWithLoss"
  bottom: "ip3"
  bottom: "label"
  top: "loss"
}
I0428 19:35:16.273972 23474 layer_factory.hpp:77] Creating layer mnist
I0428 19:35:16.274029 23474 db_lmdb.cpp:35] Opened lmdb examples/mnist/mnist_test_lmdb
I0428 19:35:16.274044 23474 net.cpp:86] Creating Layer mnist
I0428 19:35:16.274052 23474 net.cpp:382] mnist -> data
I0428 19:35:16.274063 23474 net.cpp:382] mnist -> label
I0428 19:35:16.274173 23474 data_layer.cpp:45] output data size: 100,1,28,28
I0428 19:35:16.275465 23474 net.cpp:124] Setting up mnist
I0428 19:35:16.275496 23474 net.cpp:131] Top shape: 100 1 28 28 (78400)
I0428 19:35:16.275517 23474 net.cpp:131] Top shape: 100 (100)
I0428 19:35:16.275522 23474 net.cpp:139] Memory required for data: 314000
I0428 19:35:16.275527 23474 layer_factory.hpp:77] Creating layer label_mnist_1_split
I0428 19:35:16.275537 23474 net.cpp:86] Creating Layer label_mnist_1_split
I0428 19:35:16.275543 23474 net.cpp:408] label_mnist_1_split <- label
I0428 19:35:16.275552 23474 net.cpp:382] label_mnist_1_split -> label_mnist_1_split_0
I0428 19:35:16.275563 23474 net.cpp:382] label_mnist_1_split -> label_mnist_1_split_1
I0428 19:35:16.275650 23474 net.cpp:124] Setting up label_mnist_1_split
I0428 19:35:16.275658 23474 net.cpp:131] Top shape: 100 (100)
I0428 19:35:16.275665 23474 net.cpp:131] Top shape: 100 (100)
I0428 19:35:16.275670 23474 net.cpp:139] Memory required for data: 314800
I0428 19:35:16.275684 23474 layer_factory.hpp:77] Creating layer conv0
I0428 19:35:16.275715 23474 net.cpp:86] Creating Layer conv0
I0428 19:35:16.275720 23474 net.cpp:408] conv0 <- data
I0428 19:35:16.275729 23474 net.cpp:382] conv0 -> conv0
I0428 19:35:16.277395 23474 net.cpp:124] Setting up conv0
I0428 19:35:16.277410 23474 net.cpp:131] Top shape: 100 50 24 24 (2880000)
I0428 19:35:16.277415 23474 net.cpp:139] Memory required for data: 11834800
I0428 19:35:16.277446 23474 layer_factory.hpp:77] Creating layer pool0
I0428 19:35:16.277456 23474 net.cpp:86] Creating Layer pool0
I0428 19:35:16.277462 23474 net.cpp:408] pool0 <- conv0
I0428 19:35:16.277472 23474 net.cpp:382] pool0 -> pool0
I0428 19:35:16.277511 23474 net.cpp:124] Setting up pool0
I0428 19:35:16.277521 23474 net.cpp:131] Top shape: 100 50 12 12 (720000)
I0428 19:35:16.277526 23474 net.cpp:139] Memory required for data: 14714800
I0428 19:35:16.277531 23474 layer_factory.hpp:77] Creating layer ip1
I0428 19:35:16.277541 23474 net.cpp:86] Creating Layer ip1
I0428 19:35:16.277547 23474 net.cpp:408] ip1 <- pool0
I0428 19:35:16.277556 23474 net.cpp:382] ip1 -> ip1
I0428 19:35:16.279665 23474 net.cpp:124] Setting up ip1
I0428 19:35:16.279681 23474 net.cpp:131] Top shape: 100 25 (2500)
I0428 19:35:16.279686 23474 net.cpp:139] Memory required for data: 14724800
I0428 19:35:16.279700 23474 layer_factory.hpp:77] Creating layer relu1
I0428 19:35:16.279708 23474 net.cpp:86] Creating Layer relu1
I0428 19:35:16.279729 23474 net.cpp:408] relu1 <- ip1
I0428 19:35:16.279736 23474 net.cpp:369] relu1 -> ip1 (in-place)
I0428 19:35:16.279939 23474 net.cpp:124] Setting up relu1
I0428 19:35:16.279950 23474 net.cpp:131] Top shape: 100 25 (2500)
I0428 19:35:16.279956 23474 net.cpp:139] Memory required for data: 14734800
I0428 19:35:16.279961 23474 layer_factory.hpp:77] Creating layer ip2
I0428 19:35:16.279971 23474 net.cpp:86] Creating Layer ip2
I0428 19:35:16.279976 23474 net.cpp:408] ip2 <- ip1
I0428 19:35:16.279986 23474 net.cpp:382] ip2 -> ip2
I0428 19:35:16.280097 23474 net.cpp:124] Setting up ip2
I0428 19:35:16.280107 23474 net.cpp:131] Top shape: 100 25 (2500)
I0428 19:35:16.280112 23474 net.cpp:139] Memory required for data: 14744800
I0428 19:35:16.280123 23474 layer_factory.hpp:77] Creating layer relu2
I0428 19:35:16.280131 23474 net.cpp:86] Creating Layer relu2
I0428 19:35:16.280140 23474 net.cpp:408] relu2 <- ip2
I0428 19:35:16.280148 23474 net.cpp:369] relu2 -> ip2 (in-place)
I0428 19:35:16.281061 23474 net.cpp:124] Setting up relu2
I0428 19:35:16.281076 23474 net.cpp:131] Top shape: 100 25 (2500)
I0428 19:35:16.281082 23474 net.cpp:139] Memory required for data: 14754800
I0428 19:35:16.281088 23474 layer_factory.hpp:77] Creating layer ip3
I0428 19:35:16.281102 23474 net.cpp:86] Creating Layer ip3
I0428 19:35:16.281108 23474 net.cpp:408] ip3 <- ip2
I0428 19:35:16.281118 23474 net.cpp:382] ip3 -> ip3
I0428 19:35:16.281328 23474 net.cpp:124] Setting up ip3
I0428 19:35:16.281339 23474 net.cpp:131] Top shape: 100 10 (1000)
I0428 19:35:16.281345 23474 net.cpp:139] Memory required for data: 14758800
I0428 19:35:16.281354 23474 layer_factory.hpp:77] Creating layer relu3
I0428 19:35:16.281363 23474 net.cpp:86] Creating Layer relu3
I0428 19:35:16.281369 23474 net.cpp:408] relu3 <- ip3
I0428 19:35:16.281376 23474 net.cpp:369] relu3 -> ip3 (in-place)
I0428 19:35:16.281536 23474 net.cpp:124] Setting up relu3
I0428 19:35:16.281548 23474 net.cpp:131] Top shape: 100 10 (1000)
I0428 19:35:16.281553 23474 net.cpp:139] Memory required for data: 14762800
I0428 19:35:16.281558 23474 layer_factory.hpp:77] Creating layer ip3_relu3_0_split
I0428 19:35:16.281565 23474 net.cpp:86] Creating Layer ip3_relu3_0_split
I0428 19:35:16.281570 23474 net.cpp:408] ip3_relu3_0_split <- ip3
I0428 19:35:16.281577 23474 net.cpp:382] ip3_relu3_0_split -> ip3_relu3_0_split_0
I0428 19:35:16.281586 23474 net.cpp:382] ip3_relu3_0_split -> ip3_relu3_0_split_1
I0428 19:35:16.281627 23474 net.cpp:124] Setting up ip3_relu3_0_split
I0428 19:35:16.281635 23474 net.cpp:131] Top shape: 100 10 (1000)
I0428 19:35:16.281652 23474 net.cpp:131] Top shape: 100 10 (1000)
I0428 19:35:16.281658 23474 net.cpp:139] Memory required for data: 14770800
I0428 19:35:16.281662 23474 layer_factory.hpp:77] Creating layer accuracy
I0428 19:35:16.281672 23474 net.cpp:86] Creating Layer accuracy
I0428 19:35:16.281682 23474 net.cpp:408] accuracy <- ip3_relu3_0_split_0
I0428 19:35:16.281688 23474 net.cpp:408] accuracy <- label_mnist_1_split_0
I0428 19:35:16.281697 23474 net.cpp:382] accuracy -> accuracy
…
