…
I0428 20:03:31.950305 30198 net.cpp:296] The NetState phase (0) differed from the phase (1) specified by a rule in layer mnist
I0428 20:03:31.950336 30198 net.cpp:296] The NetState phase (0) differed from the phase (1) specified by a rule in layer accuracy
I0428 20:03:31.950431 30198 net.cpp:53] Initializing net from parameters: 
name: "LeNet"
state {
  phase: TRAIN
  level: 0
  stage: ""
}
layer {
  name: "mnist"
  type: "Data"
  top: "data"
  top: "label"
  include {
    phase: TRAIN
  }
  transform_param {
    scale: 0.00390625
  }
  data_param {
    source: "examples/mnist/mnist_train_lmdb"
    batch_size: 64
    backend: LMDB
  }
}
layer {
  name: "conv0"
  type: "Convolution"
  bottom: "data"
  top: "conv0"
  param {
    lr_mult: 1
  }
  param {
    lr_mult: 2
  }
  convolution_param {
    num_output: 10
    kernel_size: 5
    stride: 1
    weight_filler {
      type: "xavier"
    }
    bias_filler {
      type: "constant"
    }
  }
}
layer {
  name: "pool0"
  type: "Pooling"
  bottom: "conv0"
  top: "pool0"
  pooling_param {
    pool: MAX
    kernel_size: 2
    stride: 2
  }
}
layer {
  name: "conv1"
  type: "Convolution"
  bottom: "pool0"
  top: "conv1"
  param {
    lr_mult: 1
  }
  param {
    lr_mult: 2
  }
  convolution_param {
    num_output: 100
    kernel_size: 5
    stride: 1
    weight_filler {
      type: "xavier"
    }
    bias_filler {
      type: "constant"
    }
  }
}
layer {
  name: "pool1"
  type: "Pooling"
  bottom: "conv1"
  top: "pool1"
  pooling_param {
    pool: MAX
    kernel_size: 2
    stride: 2
  }
}
layer {
  name: "ip1"
  type: "InnerProduct"
  bottom: "pool1"
  top: "ip1"
  param {
    lr_mult: 1
  }
  param {
    lr_mult: 2
  }
  inner_product_param {
    num_output: 10
    weight_filler {
      type: "xavier"
    }
    bias_filler {
      type: "constant"
    }
  }
}
layer {
  name: "relu1"
  type: "ReLU"
  bottom: "ip1"
  top: "ip1"
}
layer {
  name: "ip2"
  type: "InnerProduct"
  bottom: "ip1"
  top: "ip2"
  param {
    lr_mult: 1
  }
  param {
    lr_mult: 2
  }
  inner_product_param {
    num_output: 25
    weight_filler {
      type: "xavier"
    }
    bias_filler {
      type: "constant"
    }
  }
}
layer {
  name: "relu2"
  type: "ReLU"
  bottom: "ip2"
  top: "ip2"
}
layer {
  name: "ip3"
  type: "InnerProduct"
  bottom: "ip2"
  top: "ip3"
  param {
    lr_mult: 1
  }
  param {
    lr_mult: 2
  }
  inner_product_param {
    num_output: 10
    weight_filler {
      type: "xavier"
    }
    bias_filler {
      type: "constant"
    }
  }
}
layer {
  name: "relu3"
  type: "ReLU"
  bottom: "ip3"
  top: "ip3"
}
layer {
  name: "loss"
  type: "SoftmaxWithLoss"
  bottom: "ip3"
  bottom: "label"
  top: "loss"
}
I0428 20:03:31.950498 30198 layer_factory.hpp:77] Creating layer mnist
I0428 20:03:31.950579 30198 db_lmdb.cpp:35] Opened lmdb examples/mnist/mnist_train_lmdb
I0428 20:03:31.950598 30198 net.cpp:86] Creating Layer mnist
I0428 20:03:31.950604 30198 net.cpp:382] mnist -> data
I0428 20:03:31.950623 30198 net.cpp:382] mnist -> label
I0428 20:03:31.951642 30198 data_layer.cpp:45] output data size: 64,1,28,28
I0428 20:03:31.953940 30198 net.cpp:124] Setting up mnist
I0428 20:03:31.953989 30198 net.cpp:131] Top shape: 64 1 28 28 (50176)
I0428 20:03:31.953994 30198 net.cpp:131] Top shape: 64 (64)
I0428 20:03:31.953997 30198 net.cpp:139] Memory required for data: 200960
I0428 20:03:31.954004 30198 layer_factory.hpp:77] Creating layer conv0
I0428 20:03:31.954020 30198 net.cpp:86] Creating Layer conv0
I0428 20:03:31.954051 30198 net.cpp:408] conv0 <- data
I0428 20:03:31.954061 30198 net.cpp:382] conv0 -> conv0
I0428 20:03:32.183068 30198 net.cpp:124] Setting up conv0
I0428 20:03:32.183109 30198 net.cpp:131] Top shape: 64 10 24 24 (368640)
I0428 20:03:32.183113 30198 net.cpp:139] Memory required for data: 1675520
I0428 20:03:32.183128 30198 layer_factory.hpp:77] Creating layer pool0
I0428 20:03:32.183140 30198 net.cpp:86] Creating Layer pool0
I0428 20:03:32.183145 30198 net.cpp:408] pool0 <- conv0
I0428 20:03:32.183149 30198 net.cpp:382] pool0 -> pool0
I0428 20:03:32.183238 30198 net.cpp:124] Setting up pool0
I0428 20:03:32.183251 30198 net.cpp:131] Top shape: 64 10 12 12 (92160)
I0428 20:03:32.183254 30198 net.cpp:139] Memory required for data: 2044160
I0428 20:03:32.183257 30198 layer_factory.hpp:77] Creating layer conv1
I0428 20:03:32.183269 30198 net.cpp:86] Creating Layer conv1
I0428 20:03:32.183271 30198 net.cpp:408] conv1 <- pool0
I0428 20:03:32.183275 30198 net.cpp:382] conv1 -> conv1
I0428 20:03:32.185264 30198 net.cpp:124] Setting up conv1
I0428 20:03:32.185295 30198 net.cpp:131] Top shape: 64 100 8 8 (409600)
I0428 20:03:32.185299 30198 net.cpp:139] Memory required for data: 3682560
I0428 20:03:32.185308 30198 layer_factory.hpp:77] Creating layer pool1
I0428 20:03:32.185317 30198 net.cpp:86] Creating Layer pool1
I0428 20:03:32.185320 30198 net.cpp:408] pool1 <- conv1
I0428 20:03:32.185326 30198 net.cpp:382] pool1 -> pool1
I0428 20:03:32.185364 30198 net.cpp:124] Setting up pool1
I0428 20:03:32.185369 30198 net.cpp:131] Top shape: 64 100 4 4 (102400)
I0428 20:03:32.185372 30198 net.cpp:139] Memory required for data: 4092160
I0428 20:03:32.185375 30198 layer_factory.hpp:77] Creating layer ip1
I0428 20:03:32.185382 30198 net.cpp:86] Creating Layer ip1
I0428 20:03:32.185385 30198 net.cpp:408] ip1 <- pool1
I0428 20:03:32.185405 30198 net.cpp:382] ip1 -> ip1
I0428 20:03:32.186475 30198 net.cpp:124] Setting up ip1
I0428 20:03:32.186486 30198 net.cpp:131] Top shape: 64 10 (640)
I0428 20:03:32.186506 30198 net.cpp:139] Memory required for data: 4094720
I0428 20:03:32.186528 30198 layer_factory.hpp:77] Creating layer relu1
I0428 20:03:32.186534 30198 net.cpp:86] Creating Layer relu1
I0428 20:03:32.186538 30198 net.cpp:408] relu1 <- ip1
I0428 20:03:32.186542 30198 net.cpp:369] relu1 -> ip1 (in-place)
I0428 20:03:32.186707 30198 net.cpp:124] Setting up relu1
I0428 20:03:32.186715 30198 net.cpp:131] Top shape: 64 10 (640)
I0428 20:03:32.186718 30198 net.cpp:139] Memory required for data: 4097280
I0428 20:03:32.186722 30198 layer_factory.hpp:77] Creating layer ip2
I0428 20:03:32.186728 30198 net.cpp:86] Creating Layer ip2
I0428 20:03:32.186730 30198 net.cpp:408] ip2 <- ip1
I0428 20:03:32.186735 30198 net.cpp:382] ip2 -> ip2
I0428 20:03:32.186826 30198 net.cpp:124] Setting up ip2
I0428 20:03:32.186833 30198 net.cpp:131] Top shape: 64 25 (1600)
I0428 20:03:32.186836 30198 net.cpp:139] Memory required for data: 4103680
I0428 20:03:32.186841 30198 layer_factory.hpp:77] Creating layer relu2
I0428 20:03:32.186847 30198 net.cpp:86] Creating Layer relu2
I0428 20:03:32.186851 30198 net.cpp:408] relu2 <- ip2
I0428 20:03:32.186854 30198 net.cpp:369] relu2 -> ip2 (in-place)
I0428 20:03:32.187619 30198 net.cpp:124] Setting up relu2
I0428 20:03:32.187631 30198 net.cpp:131] Top shape: 64 25 (1600)
I0428 20:03:32.187650 30198 net.cpp:139] Memory required for data: 4110080
I0428 20:03:32.187654 30198 layer_factory.hpp:77] Creating layer ip3
I0428 20:03:32.187661 30198 net.cpp:86] Creating Layer ip3
I0428 20:03:32.187666 30198 net.cpp:408] ip3 <- ip2
I0428 20:03:32.187671 30198 net.cpp:382] ip3 -> ip3
I0428 20:03:32.187768 30198 net.cpp:124] Setting up ip3
I0428 20:03:32.187775 30198 net.cpp:131] Top shape: 64 10 (640)
I0428 20:03:32.187778 30198 net.cpp:139] Memory required for data: 4112640
I0428 20:03:32.187786 30198 layer_factory.hpp:77] Creating layer relu3
I0428 20:03:32.187791 30198 net.cpp:86] Creating Layer relu3
I0428 20:03:32.187794 30198 net.cpp:408] relu3 <- ip3
I0428 20:03:32.187798 30198 net.cpp:369] relu3 -> ip3 (in-place)
I0428 20:03:32.187957 30198 net.cpp:124] Setting up relu3
I0428 20:03:32.187965 30198 net.cpp:131] Top shape: 64 10 (640)
I0428 20:03:32.187968 30198 net.cpp:139] Memory required for data: 4115200
I0428 20:03:32.187971 30198 layer_factory.hpp:77] Creating layer loss
I0428 20:03:32.187976 30198 net.cpp:86] Creating Layer loss
I0428 20:03:32.187980 30198 net.cpp:408] loss <- ip3
I0428 20:03:32.187984 30198 net.cpp:408] loss <- label
I0428 20:03:32.187989 30198 net.cpp:382] loss -> loss
I0428 20:03:32.188004 30198 layer_factory.hpp:77] Creating layer loss
…
I0428 20:03:32.188663 30198 solver.cpp:173] Creating test net (#0) specified by net file: ECE595/mnist/train_test/var_everything2/lenet_train_test953.prototxt
I0428 20:03:32.188719 30198 net.cpp:296] The NetState phase (1) differed from the phase (0) specified by a rule in layer mnist
I0428 20:03:32.188844 30198 net.cpp:53] Initializing net from parameters: 
name: "LeNet"
state {
  phase: TEST
}
layer {
  name: "mnist"
  type: "Data"
  top: "data"
  top: "label"
  include {
    phase: TEST
  }
  transform_param {
    scale: 0.00390625
  }
  data_param {
    source: "examples/mnist/mnist_test_lmdb"
    batch_size: 100
    backend: LMDB
  }
}
layer {
  name: "conv0"
  type: "Convolution"
  bottom: "data"
  top: "conv0"
  param {
    lr_mult: 1
  }
  param {
    lr_mult: 2
  }
  convolution_param {
    num_output: 10
    kernel_size: 5
    stride: 1
    weight_filler {
      type: "xavier"
    }
    bias_filler {
      type: "constant"
    }
  }
}
layer {
  name: "pool0"
  type: "Pooling"
  bottom: "conv0"
  top: "pool0"
  pooling_param {
    pool: MAX
    kernel_size: 2
    stride: 2
  }
}
layer {
  name: "conv1"
  type: "Convolution"
  bottom: "pool0"
  top: "conv1"
  param {
    lr_mult: 1
  }
  param {
    lr_mult: 2
  }
  convolution_param {
    num_output: 100
    kernel_size: 5
    stride: 1
    weight_filler {
      type: "xavier"
    }
    bias_filler {
      type: "constant"
    }
  }
}
layer {
  name: "pool1"
  type: "Pooling"
  bottom: "conv1"
  top: "pool1"
  pooling_param {
    pool: MAX
    kernel_size: 2
    stride: 2
  }
}
layer {
  name: "ip1"
  type: "InnerProduct"
  bottom: "pool1"
  top: "ip1"
  param {
    lr_mult: 1
  }
  param {
    lr_mult: 2
  }
  inner_product_param {
    num_output: 10
    weight_filler {
      type: "xavier"
    }
    bias_filler {
      type: "constant"
    }
  }
}
layer {
  name: "relu1"
  type: "ReLU"
  bottom: "ip1"
  top: "ip1"
}
layer {
  name: "ip2"
  type: "InnerProduct"
  bottom: "ip1"
  top: "ip2"
  param {
    lr_mult: 1
  }
  param {
    lr_mult: 2
  }
  inner_product_param {
    num_output: 25
    weight_filler {
      type: "xavier"
    }
    bias_filler {
      type: "constant"
    }
  }
}
layer {
  name: "relu2"
  type: "ReLU"
  bottom: "ip2"
  top: "ip2"
}
layer {
  name: "ip3"
  type: "InnerProduct"
  bottom: "ip2"
  top: "ip3"
  param {
    lr_mult: 1
  }
  param {
    lr_mult: 2
  }
  inner_product_param {
    num_output: 10
    weight_filler {
      type: "xavier"
    }
    bias_filler {
      type: "constant"
    }
  }
}
layer {
  name: "relu3"
  type: "ReLU"
  bottom: "ip3"
  top: "ip3"
}
layer {
  name: "accuracy"
  type: "Accuracy"
  bottom: "ip3"
  bottom: "label"
  top: "accuracy"
  include {
    phase: TEST
  }
}
layer {
  name: "loss"
  type: "SoftmaxWithLoss"
  bottom: "ip3"
  bottom: "label"
  top: "loss"
}
I0428 20:03:32.188941 30198 layer_factory.hpp:77] Creating layer mnist
I0428 20:03:32.188983 30198 db_lmdb.cpp:35] Opened lmdb examples/mnist/mnist_test_lmdb
I0428 20:03:32.189000 30198 net.cpp:86] Creating Layer mnist
I0428 20:03:32.189004 30198 net.cpp:382] mnist -> data
I0428 20:03:32.189013 30198 net.cpp:382] mnist -> label
I0428 20:03:32.189097 30198 data_layer.cpp:45] output data size: 100,1,28,28
I0428 20:03:32.191201 30198 net.cpp:124] Setting up mnist
I0428 20:03:32.191244 30198 net.cpp:131] Top shape: 100 1 28 28 (78400)
I0428 20:03:32.191249 30198 net.cpp:131] Top shape: 100 (100)
I0428 20:03:32.191253 30198 net.cpp:139] Memory required for data: 314000
I0428 20:03:32.191256 30198 layer_factory.hpp:77] Creating layer label_mnist_1_split
I0428 20:03:32.191263 30198 net.cpp:86] Creating Layer label_mnist_1_split
I0428 20:03:32.191267 30198 net.cpp:408] label_mnist_1_split <- label
I0428 20:03:32.191272 30198 net.cpp:382] label_mnist_1_split -> label_mnist_1_split_0
I0428 20:03:32.191278 30198 net.cpp:382] label_mnist_1_split -> label_mnist_1_split_1
I0428 20:03:32.191323 30198 net.cpp:124] Setting up label_mnist_1_split
I0428 20:03:32.191329 30198 net.cpp:131] Top shape: 100 (100)
I0428 20:03:32.191332 30198 net.cpp:131] Top shape: 100 (100)
I0428 20:03:32.191335 30198 net.cpp:139] Memory required for data: 314800
I0428 20:03:32.191339 30198 layer_factory.hpp:77] Creating layer conv0
I0428 20:03:32.191346 30198 net.cpp:86] Creating Layer conv0
I0428 20:03:32.191349 30198 net.cpp:408] conv0 <- data
I0428 20:03:32.191354 30198 net.cpp:382] conv0 -> conv0
I0428 20:03:32.193215 30198 net.cpp:124] Setting up conv0
I0428 20:03:32.193245 30198 net.cpp:131] Top shape: 100 10 24 24 (576000)
I0428 20:03:32.193249 30198 net.cpp:139] Memory required for data: 2618800
I0428 20:03:32.193259 30198 layer_factory.hpp:77] Creating layer pool0
I0428 20:03:32.193264 30198 net.cpp:86] Creating Layer pool0
I0428 20:03:32.193269 30198 net.cpp:408] pool0 <- conv0
I0428 20:03:32.193272 30198 net.cpp:382] pool0 -> pool0
I0428 20:03:32.193306 30198 net.cpp:124] Setting up pool0
I0428 20:03:32.193311 30198 net.cpp:131] Top shape: 100 10 12 12 (144000)
I0428 20:03:32.193315 30198 net.cpp:139] Memory required for data: 3194800
I0428 20:03:32.193317 30198 layer_factory.hpp:77] Creating layer conv1
I0428 20:03:32.193325 30198 net.cpp:86] Creating Layer conv1
I0428 20:03:32.193327 30198 net.cpp:408] conv1 <- pool0
I0428 20:03:32.193332 30198 net.cpp:382] conv1 -> conv1
I0428 20:03:32.195080 30198 net.cpp:124] Setting up conv1
I0428 20:03:32.195109 30198 net.cpp:131] Top shape: 100 100 8 8 (640000)
I0428 20:03:32.195114 30198 net.cpp:139] Memory required for data: 5754800
I0428 20:03:32.195124 30198 layer_factory.hpp:77] Creating layer pool1
I0428 20:03:32.195132 30198 net.cpp:86] Creating Layer pool1
I0428 20:03:32.195137 30198 net.cpp:408] pool1 <- conv1
I0428 20:03:32.195142 30198 net.cpp:382] pool1 -> pool1
I0428 20:03:32.195179 30198 net.cpp:124] Setting up pool1
I0428 20:03:32.195185 30198 net.cpp:131] Top shape: 100 100 4 4 (160000)
I0428 20:03:32.195189 30198 net.cpp:139] Memory required for data: 6394800
I0428 20:03:32.195194 30198 layer_factory.hpp:77] Creating layer ip1
I0428 20:03:32.195199 30198 net.cpp:86] Creating Layer ip1
I0428 20:03:32.195204 30198 net.cpp:408] ip1 <- pool1
I0428 20:03:32.195209 30198 net.cpp:382] ip1 -> ip1
I0428 20:03:32.195426 30198 net.cpp:124] Setting up ip1
I0428 20:03:32.195433 30198 net.cpp:131] Top shape: 100 10 (1000)
I0428 20:03:32.195447 30198 net.cpp:139] Memory required for data: 6398800
I0428 20:03:32.195454 30198 layer_factory.hpp:77] Creating layer relu1
I0428 20:03:32.195459 30198 net.cpp:86] Creating Layer relu1
I0428 20:03:32.195464 30198 net.cpp:408] relu1 <- ip1
I0428 20:03:32.195468 30198 net.cpp:369] relu1 -> ip1 (in-place)
I0428 20:03:32.195638 30198 net.cpp:124] Setting up relu1
I0428 20:03:32.195647 30198 net.cpp:131] Top shape: 100 10 (1000)
I0428 20:03:32.195652 30198 net.cpp:139] Memory required for data: 6402800
I0428 20:03:32.195654 30198 layer_factory.hpp:77] Creating layer ip2
I0428 20:03:32.195662 30198 net.cpp:86] Creating Layer ip2
I0428 20:03:32.195665 30198 net.cpp:408] ip2 <- ip1
I0428 20:03:32.195670 30198 net.cpp:382] ip2 -> ip2
I0428 20:03:32.195767 30198 net.cpp:124] Setting up ip2
I0428 20:03:32.195775 30198 net.cpp:131] Top shape: 100 25 (2500)
I0428 20:03:32.195777 30198 net.cpp:139] Memory required for data: 6412800
I0428 20:03:32.195782 30198 layer_factory.hpp:77] Creating layer relu2
I0428 20:03:32.195786 30198 net.cpp:86] Creating Layer relu2
I0428 20:03:32.195789 30198 net.cpp:408] relu2 <- ip2
I0428 20:03:32.195793 30198 net.cpp:369] relu2 -> ip2 (in-place)
I0428 20:03:32.196060 30198 net.cpp:124] Setting up relu2
I0428 20:03:32.196070 30198 net.cpp:131] Top shape: 100 25 (2500)
I0428 20:03:32.196074 30198 net.cpp:139] Memory required for data: 6422800
I0428 20:03:32.196079 30198 layer_factory.hpp:77] Creating layer ip3
I0428 20:03:32.196099 30198 net.cpp:86] Creating Layer ip3
I0428 20:03:32.196104 30198 net.cpp:408] ip3 <- ip2
I0428 20:03:32.196108 30198 net.cpp:382] ip3 -> ip3
I0428 20:03:32.196213 30198 net.cpp:124] Setting up ip3
I0428 20:03:32.196221 30198 net.cpp:131] Top shape: 100 10 (1000)
I0428 20:03:32.196225 30198 net.cpp:139] Memory required for data: 6426800
I0428 20:03:32.196233 30198 layer_factory.hpp:77] Creating layer relu3
I0428 20:03:32.196239 30198 net.cpp:86] Creating Layer relu3
I0428 20:03:32.196243 30198 net.cpp:408] relu3 <- ip3
I0428 20:03:32.196247 30198 net.cpp:369] relu3 -> ip3 (in-place)
I0428 20:03:32.197173 30198 net.cpp:124] Setting up relu3
I0428 20:03:32.197202 30198 net.cpp:131] Top shape: 100 10 (1000)
I0428 20:03:32.197206 30198 net.cpp:139] Memory required for data: 6430800
I0428 20:03:32.197211 30198 layer_factory.hpp:77] Creating layer ip3_relu3_0_split
I0428 20:03:32.197216 30198 net.cpp:86] Creating Layer ip3_relu3_0_split
I0428 20:03:32.197221 30198 net.cpp:408] ip3_relu3_0_split <- ip3
I0428 20:03:32.197227 30198 net.cpp:382] ip3_relu3_0_split -> ip3_relu3_0_split_0
I0428 20:03:32.197232 30198 net.cpp:382] ip3_relu3_0_split -> ip3_relu3_0_split_1
I0428 20:03:32.197270 30198 net.cpp:124] Setting up ip3_relu3_0_split
I0428 20:03:32.197275 30198 net.cpp:131] Top shape: 100 10 (1000)
I0428 20:03:32.197279 30198 net.cpp:131] Top shape: 100 10 (1000)
I0428 20:03:32.197283 30198 net.cpp:139] Memory required for data: 6438800
I0428 20:03:32.197285 30198 layer_factory.hpp:77] Creating layer accuracy
I0428 20:03:32.197290 30198 net.cpp:86] Creating Layer accuracy
I0428 20:03:32.197295 30198 net.cpp:408] accuracy <- ip3_relu3_0_split_0
I0428 20:03:32.197300 30198 net.cpp:408] accuracy <- label_mnist_1_split_0
I0428 20:03:32.197304 30198 net.cpp:382] accuracy -> accuracy
…
