…
I0428 20:20:35.490641  1580 net.cpp:296] The NetState phase (0) differed from the phase (1) specified by a rule in layer mnist
I0428 20:20:35.490658  1580 net.cpp:296] The NetState phase (0) differed from the phase (1) specified by a rule in layer accuracy
I0428 20:20:35.490738  1580 net.cpp:53] Initializing net from parameters: 
name: "LeNet"
state {
  phase: TRAIN
  level: 0
  stage: ""
}
layer {
  name: "mnist"
  type: "Data"
  top: "data"
  top: "label"
  include {
    phase: TRAIN
  }
  transform_param {
    scale: 0.00390625
  }
  data_param {
    source: "examples/mnist/mnist_train_lmdb"
    batch_size: 64
    backend: LMDB
  }
}
layer {
  name: "conv0"
  type: "Convolution"
  bottom: "data"
  top: "conv0"
  param {
    lr_mult: 1
  }
  param {
    lr_mult: 2
  }
  convolution_param {
    num_output: 50
    kernel_size: 5
    stride: 1
    weight_filler {
      type: "xavier"
    }
    bias_filler {
      type: "constant"
    }
  }
}
layer {
  name: "pool0"
  type: "Pooling"
  bottom: "conv0"
  top: "pool0"
  pooling_param {
    pool: MAX
    kernel_size: 2
    stride: 2
  }
}
layer {
  name: "conv1"
  type: "Convolution"
  bottom: "pool0"
  top: "conv1"
  param {
    lr_mult: 1
  }
  param {
    lr_mult: 2
  }
  convolution_param {
    num_output: 50
    kernel_size: 5
    stride: 1
    weight_filler {
      type: "xavier"
    }
    bias_filler {
      type: "constant"
    }
  }
}
layer {
  name: "pool1"
  type: "Pooling"
  bottom: "conv1"
  top: "pool1"
  pooling_param {
    pool: MAX
    kernel_size: 2
    stride: 2
  }
}
layer {
  name: "ip1"
  type: "InnerProduct"
  bottom: "pool1"
  top: "ip1"
  param {
    lr_mult: 1
  }
  param {
    lr_mult: 2
  }
  inner_product_param {
    num_output: 10
    weight_filler {
      type: "xavier"
    }
    bias_filler {
      type: "constant"
    }
  }
}
layer {
  name: "relu1"
  type: "ReLU"
  bottom: "ip1"
  top: "ip1"
}
layer {
  name: "loss"
  type: "SoftmaxWithLoss"
  bottom: "ip1"
  bottom: "label"
  top: "loss"
}
I0428 20:20:35.490808  1580 layer_factory.hpp:77] Creating layer mnist
I0428 20:20:35.490905  1580 db_lmdb.cpp:35] Opened lmdb examples/mnist/mnist_train_lmdb
I0428 20:20:35.490926  1580 net.cpp:86] Creating Layer mnist
I0428 20:20:35.490934  1580 net.cpp:382] mnist -> data
I0428 20:20:35.490957  1580 net.cpp:382] mnist -> label
I0428 20:20:35.492041  1580 data_layer.cpp:45] output data size: 64,1,28,28
I0428 20:20:35.494488  1580 net.cpp:124] Setting up mnist
I0428 20:20:35.494504  1580 net.cpp:131] Top shape: 64 1 28 28 (50176)
I0428 20:20:35.494513  1580 net.cpp:131] Top shape: 64 (64)
I0428 20:20:35.494516  1580 net.cpp:139] Memory required for data: 200960
I0428 20:20:35.494523  1580 layer_factory.hpp:77] Creating layer conv0
I0428 20:20:35.494539  1580 net.cpp:86] Creating Layer conv0
I0428 20:20:35.494547  1580 net.cpp:408] conv0 <- data
I0428 20:20:35.494560  1580 net.cpp:382] conv0 -> conv0
I0428 20:20:35.788931  1580 net.cpp:124] Setting up conv0
I0428 20:20:35.788962  1580 net.cpp:131] Top shape: 64 50 24 24 (1843200)
I0428 20:20:35.788967  1580 net.cpp:139] Memory required for data: 7573760
I0428 20:20:35.788986  1580 layer_factory.hpp:77] Creating layer pool0
I0428 20:20:35.789001  1580 net.cpp:86] Creating Layer pool0
I0428 20:20:35.789006  1580 net.cpp:408] pool0 <- conv0
I0428 20:20:35.789013  1580 net.cpp:382] pool0 -> pool0
I0428 20:20:35.789069  1580 net.cpp:124] Setting up pool0
I0428 20:20:35.789077  1580 net.cpp:131] Top shape: 64 50 12 12 (460800)
I0428 20:20:35.789100  1580 net.cpp:139] Memory required for data: 9416960
I0428 20:20:35.789104  1580 layer_factory.hpp:77] Creating layer conv1
I0428 20:20:35.789118  1580 net.cpp:86] Creating Layer conv1
I0428 20:20:35.789122  1580 net.cpp:408] conv1 <- pool0
I0428 20:20:35.789129  1580 net.cpp:382] conv1 -> conv1
I0428 20:20:35.791726  1580 net.cpp:124] Setting up conv1
I0428 20:20:35.791743  1580 net.cpp:131] Top shape: 64 50 8 8 (204800)
I0428 20:20:35.791749  1580 net.cpp:139] Memory required for data: 10236160
I0428 20:20:35.791759  1580 layer_factory.hpp:77] Creating layer pool1
I0428 20:20:35.791770  1580 net.cpp:86] Creating Layer pool1
I0428 20:20:35.791774  1580 net.cpp:408] pool1 <- conv1
I0428 20:20:35.791780  1580 net.cpp:382] pool1 -> pool1
I0428 20:20:35.791834  1580 net.cpp:124] Setting up pool1
I0428 20:20:35.791842  1580 net.cpp:131] Top shape: 64 50 4 4 (51200)
I0428 20:20:35.791846  1580 net.cpp:139] Memory required for data: 10440960
I0428 20:20:35.791851  1580 layer_factory.hpp:77] Creating layer ip1
I0428 20:20:35.791859  1580 net.cpp:86] Creating Layer ip1
I0428 20:20:35.791865  1580 net.cpp:408] ip1 <- pool1
I0428 20:20:35.791879  1580 net.cpp:382] ip1 -> ip1
I0428 20:20:35.793051  1580 net.cpp:124] Setting up ip1
I0428 20:20:35.793067  1580 net.cpp:131] Top shape: 64 10 (640)
I0428 20:20:35.793071  1580 net.cpp:139] Memory required for data: 10443520
I0428 20:20:35.793083  1580 layer_factory.hpp:77] Creating layer relu1
I0428 20:20:35.793090  1580 net.cpp:86] Creating Layer relu1
I0428 20:20:35.793094  1580 net.cpp:408] relu1 <- ip1
I0428 20:20:35.793100  1580 net.cpp:369] relu1 -> ip1 (in-place)
I0428 20:20:35.793318  1580 net.cpp:124] Setting up relu1
I0428 20:20:35.793328  1580 net.cpp:131] Top shape: 64 10 (640)
I0428 20:20:35.793331  1580 net.cpp:139] Memory required for data: 10446080
I0428 20:20:35.793335  1580 layer_factory.hpp:77] Creating layer loss
I0428 20:20:35.793342  1580 net.cpp:86] Creating Layer loss
I0428 20:20:35.793346  1580 net.cpp:408] loss <- ip1
I0428 20:20:35.793351  1580 net.cpp:408] loss <- label
I0428 20:20:35.793357  1580 net.cpp:382] loss -> loss
I0428 20:20:35.793373  1580 layer_factory.hpp:77] Creating layer loss
…
I0428 20:20:35.794726  1580 solver.cpp:173] Creating test net (#0) specified by net file: ECE595/mnist/train_test/var_everything2/lenet_train_test1366.prototxt
I0428 20:20:35.794754  1580 net.cpp:296] The NetState phase (1) differed from the phase (0) specified by a rule in layer mnist
I0428 20:20:35.794857  1580 net.cpp:53] Initializing net from parameters: 
name: "LeNet"
state {
  phase: TEST
}
layer {
  name: "mnist"
  type: "Data"
  top: "data"
  top: "label"
  include {
    phase: TEST
  }
  transform_param {
    scale: 0.00390625
  }
  data_param {
    source: "examples/mnist/mnist_test_lmdb"
    batch_size: 100
    backend: LMDB
  }
}
layer {
  name: "conv0"
  type: "Convolution"
  bottom: "data"
  top: "conv0"
  param {
    lr_mult: 1
  }
  param {
    lr_mult: 2
  }
  convolution_param {
    num_output: 50
    kernel_size: 5
    stride: 1
    weight_filler {
      type: "xavier"
    }
    bias_filler {
      type: "constant"
    }
  }
}
layer {
  name: "pool0"
  type: "Pooling"
  bottom: "conv0"
  top: "pool0"
  pooling_param {
    pool: MAX
    kernel_size: 2
    stride: 2
  }
}
layer {
  name: "conv1"
  type: "Convolution"
  bottom: "pool0"
  top: "conv1"
  param {
    lr_mult: 1
  }
  param {
    lr_mult: 2
  }
  convolution_param {
    num_output: 50
    kernel_size: 5
    stride: 1
    weight_filler {
      type: "xavier"
    }
    bias_filler {
      type: "constant"
    }
  }
}
layer {
  name: "pool1"
  type: "Pooling"
  bottom: "conv1"
  top: "pool1"
  pooling_param {
    pool: MAX
    kernel_size: 2
    stride: 2
  }
}
layer {
  name: "ip1"
  type: "InnerProduct"
  bottom: "pool1"
  top: "ip1"
  param {
    lr_mult: 1
  }
  param {
    lr_mult: 2
  }
  inner_product_param {
    num_output: 10
    weight_filler {
      type: "xavier"
    }
    bias_filler {
      type: "constant"
    }
  }
}
layer {
  name: "relu1"
  type: "ReLU"
  bottom: "ip1"
  top: "ip1"
}
layer {
  name: "accuracy"
  type: "Accuracy"
  bottom: "ip1"
  bottom: "label"
  top: "accuracy"
  include {
    phase: TEST
  }
}
layer {
  name: "loss"
  type: "SoftmaxWithLoss"
  bottom: "ip1"
  bottom: "label"
  top: "loss"
}
I0428 20:20:35.794946  1580 layer_factory.hpp:77] Creating layer mnist
I0428 20:20:35.795001  1580 db_lmdb.cpp:35] Opened lmdb examples/mnist/mnist_test_lmdb
I0428 20:20:35.795017  1580 net.cpp:86] Creating Layer mnist
I0428 20:20:35.795022  1580 net.cpp:382] mnist -> data
I0428 20:20:35.795030  1580 net.cpp:382] mnist -> label
I0428 20:20:35.795138  1580 data_layer.cpp:45] output data size: 100,1,28,28
I0428 20:20:35.797593  1580 net.cpp:124] Setting up mnist
I0428 20:20:35.797610  1580 net.cpp:131] Top shape: 100 1 28 28 (78400)
I0428 20:20:35.797617  1580 net.cpp:131] Top shape: 100 (100)
I0428 20:20:35.797621  1580 net.cpp:139] Memory required for data: 314000
I0428 20:20:35.797626  1580 layer_factory.hpp:77] Creating layer label_mnist_1_split
I0428 20:20:35.797633  1580 net.cpp:86] Creating Layer label_mnist_1_split
I0428 20:20:35.797637  1580 net.cpp:408] label_mnist_1_split <- label
I0428 20:20:35.797643  1580 net.cpp:382] label_mnist_1_split -> label_mnist_1_split_0
I0428 20:20:35.797652  1580 net.cpp:382] label_mnist_1_split -> label_mnist_1_split_1
I0428 20:20:35.797709  1580 net.cpp:124] Setting up label_mnist_1_split
I0428 20:20:35.797715  1580 net.cpp:131] Top shape: 100 (100)
I0428 20:20:35.797720  1580 net.cpp:131] Top shape: 100 (100)
I0428 20:20:35.797724  1580 net.cpp:139] Memory required for data: 314800
I0428 20:20:35.797727  1580 layer_factory.hpp:77] Creating layer conv0
I0428 20:20:35.797739  1580 net.cpp:86] Creating Layer conv0
I0428 20:20:35.797745  1580 net.cpp:408] conv0 <- data
I0428 20:20:35.797754  1580 net.cpp:382] conv0 -> conv0
I0428 20:20:35.798836  1580 net.cpp:124] Setting up conv0
I0428 20:20:35.798851  1580 net.cpp:131] Top shape: 100 50 24 24 (2880000)
I0428 20:20:35.798856  1580 net.cpp:139] Memory required for data: 11834800
I0428 20:20:35.798868  1580 layer_factory.hpp:77] Creating layer pool0
I0428 20:20:35.798877  1580 net.cpp:86] Creating Layer pool0
I0428 20:20:35.798882  1580 net.cpp:408] pool0 <- conv0
I0428 20:20:35.798887  1580 net.cpp:382] pool0 -> pool0
I0428 20:20:35.798933  1580 net.cpp:124] Setting up pool0
I0428 20:20:35.798940  1580 net.cpp:131] Top shape: 100 50 12 12 (720000)
I0428 20:20:35.798944  1580 net.cpp:139] Memory required for data: 14714800
I0428 20:20:35.798948  1580 layer_factory.hpp:77] Creating layer conv1
I0428 20:20:35.798959  1580 net.cpp:86] Creating Layer conv1
I0428 20:20:35.798964  1580 net.cpp:408] conv1 <- pool0
I0428 20:20:35.798970  1580 net.cpp:382] conv1 -> conv1
I0428 20:20:35.801154  1580 net.cpp:124] Setting up conv1
I0428 20:20:35.801170  1580 net.cpp:131] Top shape: 100 50 8 8 (320000)
I0428 20:20:35.801175  1580 net.cpp:139] Memory required for data: 15994800
I0428 20:20:35.801185  1580 layer_factory.hpp:77] Creating layer pool1
I0428 20:20:35.801193  1580 net.cpp:86] Creating Layer pool1
I0428 20:20:35.801211  1580 net.cpp:408] pool1 <- conv1
I0428 20:20:35.801218  1580 net.cpp:382] pool1 -> pool1
I0428 20:20:35.801270  1580 net.cpp:124] Setting up pool1
I0428 20:20:35.801278  1580 net.cpp:131] Top shape: 100 50 4 4 (80000)
I0428 20:20:35.801282  1580 net.cpp:139] Memory required for data: 16314800
I0428 20:20:35.801287  1580 layer_factory.hpp:77] Creating layer ip1
I0428 20:20:35.801295  1580 net.cpp:86] Creating Layer ip1
I0428 20:20:35.801301  1580 net.cpp:408] ip1 <- pool1
I0428 20:20:35.801307  1580 net.cpp:382] ip1 -> ip1
I0428 20:20:35.801472  1580 net.cpp:124] Setting up ip1
I0428 20:20:35.801481  1580 net.cpp:131] Top shape: 100 10 (1000)
I0428 20:20:35.801484  1580 net.cpp:139] Memory required for data: 16318800
I0428 20:20:35.801493  1580 layer_factory.hpp:77] Creating layer relu1
I0428 20:20:35.801501  1580 net.cpp:86] Creating Layer relu1
I0428 20:20:35.801504  1580 net.cpp:408] relu1 <- ip1
I0428 20:20:35.801509  1580 net.cpp:369] relu1 -> ip1 (in-place)
I0428 20:20:35.802436  1580 net.cpp:124] Setting up relu1
I0428 20:20:35.802451  1580 net.cpp:131] Top shape: 100 10 (1000)
I0428 20:20:35.802455  1580 net.cpp:139] Memory required for data: 16322800
I0428 20:20:35.802459  1580 layer_factory.hpp:77] Creating layer ip1_relu1_0_split
I0428 20:20:35.802467  1580 net.cpp:86] Creating Layer ip1_relu1_0_split
I0428 20:20:35.802472  1580 net.cpp:408] ip1_relu1_0_split <- ip1
I0428 20:20:35.802479  1580 net.cpp:382] ip1_relu1_0_split -> ip1_relu1_0_split_0
I0428 20:20:35.802486  1580 net.cpp:382] ip1_relu1_0_split -> ip1_relu1_0_split_1
I0428 20:20:35.802532  1580 net.cpp:124] Setting up ip1_relu1_0_split
I0428 20:20:35.802539  1580 net.cpp:131] Top shape: 100 10 (1000)
I0428 20:20:35.802543  1580 net.cpp:131] Top shape: 100 10 (1000)
I0428 20:20:35.802547  1580 net.cpp:139] Memory required for data: 16330800
I0428 20:20:35.802551  1580 layer_factory.hpp:77] Creating layer accuracy
I0428 20:20:35.802557  1580 net.cpp:86] Creating Layer accuracy
I0428 20:20:35.802561  1580 net.cpp:408] accuracy <- ip1_relu1_0_split_0
I0428 20:20:35.802567  1580 net.cpp:408] accuracy <- label_mnist_1_split_0
I0428 20:20:35.802572  1580 net.cpp:382] accuracy -> accuracy
…
