…
I0428 20:16:12.382392   607 net.cpp:296] The NetState phase (0) differed from the phase (1) specified by a rule in layer mnist
I0428 20:16:12.382427   607 net.cpp:296] The NetState phase (0) differed from the phase (1) specified by a rule in layer accuracy
I0428 20:16:12.382583   607 net.cpp:53] Initializing net from parameters: 
name: "LeNet"
state {
  phase: TRAIN
  level: 0
  stage: ""
}
layer {
  name: "mnist"
  type: "Data"
  top: "data"
  top: "label"
  include {
    phase: TRAIN
  }
  transform_param {
    scale: 0.00390625
  }
  data_param {
    source: "examples/mnist/mnist_train_lmdb"
    batch_size: 64
    backend: LMDB
  }
}
layer {
  name: "conv0"
  type: "Convolution"
  bottom: "data"
  top: "conv0"
  param {
    lr_mult: 1
  }
  param {
    lr_mult: 2
  }
  convolution_param {
    num_output: 50
    kernel_size: 5
    stride: 1
    weight_filler {
      type: "xavier"
    }
    bias_filler {
      type: "constant"
    }
  }
}
layer {
  name: "pool0"
  type: "Pooling"
  bottom: "conv0"
  top: "pool0"
  pooling_param {
    pool: MAX
    kernel_size: 2
    stride: 2
  }
}
layer {
  name: "conv1"
  type: "Convolution"
  bottom: "pool0"
  top: "conv1"
  param {
    lr_mult: 1
  }
  param {
    lr_mult: 2
  }
  convolution_param {
    num_output: 5
    kernel_size: 5
    stride: 1
    weight_filler {
      type: "xavier"
    }
    bias_filler {
      type: "constant"
    }
  }
}
layer {
  name: "pool1"
  type: "Pooling"
  bottom: "conv1"
  top: "pool1"
  pooling_param {
    pool: MAX
    kernel_size: 2
    stride: 2
  }
}
layer {
  name: "ip1"
  type: "InnerProduct"
  bottom: "pool1"
  top: "ip1"
  param {
    lr_mult: 1
  }
  param {
    lr_mult: 2
  }
  inner_product_param {
    num_output: 10
    weight_filler {
      type: "xavier"
    }
    bias_filler {
      type: "constant"
    }
  }
}
layer {
  name: "relu1"
  type: "ReLU"
  bottom: "ip1"
  top: "ip1"
}
layer {
  name: "ip2"
  type: "InnerProduct"
  bottom: "ip1"
  top: "ip2"
  param {
    lr_mult: 1
  }
  param {
    lr_mult: 2
  }
  inner_product_param {
    num_output: 25
    weight_filler {
      type: "xavier"
    }
    bias_filler {
      type: "constant"
    }
  }
}
layer {
  name: "relu2"
  type: "ReLU"
  bottom: "ip2"
  top: "ip2"
}
layer {
  name: "ip3"
  type: "InnerProduct"
  bottom: "ip2"
  top: "ip3"
  param {
    lr_mult: 1
  }
  param {
    lr_mult: 2
  }
  inner_product_param {
    num_output: 10
    weight_filler {
      type: "xavier"
    }
    bias_filler {
      type: "constant"
    }
  }
}
layer {
  name: "relu3"
  type: "ReLU"
  bottom: "ip3"
  top: "ip3"
}
layer {
  name: "loss"
  type: "SoftmaxWithLoss"
  bottom: "ip3"
  bottom: "label"
  top: "loss"
}
I0428 20:16:12.382731   607 layer_factory.hpp:77] Creating layer mnist
I0428 20:16:12.382920   607 db_lmdb.cpp:35] Opened lmdb examples/mnist/mnist_train_lmdb
I0428 20:16:12.382962   607 net.cpp:86] Creating Layer mnist
I0428 20:16:12.382980   607 net.cpp:382] mnist -> data
I0428 20:16:12.383021   607 net.cpp:382] mnist -> label
I0428 20:16:12.384776   607 data_layer.cpp:45] output data size: 64,1,28,28
I0428 20:16:12.388129   607 net.cpp:124] Setting up mnist
I0428 20:16:12.388159   607 net.cpp:131] Top shape: 64 1 28 28 (50176)
I0428 20:16:12.388175   607 net.cpp:131] Top shape: 64 (64)
I0428 20:16:12.388185   607 net.cpp:139] Memory required for data: 200960
I0428 20:16:12.388200   607 layer_factory.hpp:77] Creating layer conv0
I0428 20:16:12.388231   607 net.cpp:86] Creating Layer conv0
I0428 20:16:12.388267   607 net.cpp:408] conv0 <- data
I0428 20:16:12.388291   607 net.cpp:382] conv0 -> conv0
I0428 20:16:12.690261   607 net.cpp:124] Setting up conv0
I0428 20:16:12.690296   607 net.cpp:131] Top shape: 64 50 24 24 (1843200)
I0428 20:16:12.690304   607 net.cpp:139] Memory required for data: 7573760
I0428 20:16:12.690327   607 layer_factory.hpp:77] Creating layer pool0
I0428 20:16:12.690349   607 net.cpp:86] Creating Layer pool0
I0428 20:16:12.690357   607 net.cpp:408] pool0 <- conv0
I0428 20:16:12.690368   607 net.cpp:382] pool0 -> pool0
I0428 20:16:12.690443   607 net.cpp:124] Setting up pool0
I0428 20:16:12.690455   607 net.cpp:131] Top shape: 64 50 12 12 (460800)
I0428 20:16:12.690461   607 net.cpp:139] Memory required for data: 9416960
I0428 20:16:12.690467   607 layer_factory.hpp:77] Creating layer conv1
I0428 20:16:12.690487   607 net.cpp:86] Creating Layer conv1
I0428 20:16:12.690495   607 net.cpp:408] conv1 <- pool0
I0428 20:16:12.690506   607 net.cpp:382] conv1 -> conv1
I0428 20:16:12.693684   607 net.cpp:124] Setting up conv1
I0428 20:16:12.693704   607 net.cpp:131] Top shape: 64 5 8 8 (20480)
I0428 20:16:12.693712   607 net.cpp:139] Memory required for data: 9498880
I0428 20:16:12.693728   607 layer_factory.hpp:77] Creating layer pool1
I0428 20:16:12.693742   607 net.cpp:86] Creating Layer pool1
I0428 20:16:12.693750   607 net.cpp:408] pool1 <- conv1
I0428 20:16:12.693760   607 net.cpp:382] pool1 -> pool1
I0428 20:16:12.693814   607 net.cpp:124] Setting up pool1
I0428 20:16:12.693825   607 net.cpp:131] Top shape: 64 5 4 4 (5120)
I0428 20:16:12.693831   607 net.cpp:139] Memory required for data: 9519360
I0428 20:16:12.693837   607 layer_factory.hpp:77] Creating layer ip1
I0428 20:16:12.693850   607 net.cpp:86] Creating Layer ip1
I0428 20:16:12.693857   607 net.cpp:408] ip1 <- pool1
I0428 20:16:12.693867   607 net.cpp:382] ip1 -> ip1
I0428 20:16:12.693997   607 net.cpp:124] Setting up ip1
I0428 20:16:12.694008   607 net.cpp:131] Top shape: 64 10 (640)
I0428 20:16:12.694015   607 net.cpp:139] Memory required for data: 9521920
I0428 20:16:12.694030   607 layer_factory.hpp:77] Creating layer relu1
I0428 20:16:12.694044   607 net.cpp:86] Creating Layer relu1
I0428 20:16:12.694056   607 net.cpp:408] relu1 <- ip1
I0428 20:16:12.694064   607 net.cpp:369] relu1 -> ip1 (in-place)
I0428 20:16:12.694267   607 net.cpp:124] Setting up relu1
I0428 20:16:12.694278   607 net.cpp:131] Top shape: 64 10 (640)
I0428 20:16:12.694285   607 net.cpp:139] Memory required for data: 9524480
I0428 20:16:12.694291   607 layer_factory.hpp:77] Creating layer ip2
I0428 20:16:12.694303   607 net.cpp:86] Creating Layer ip2
I0428 20:16:12.694309   607 net.cpp:408] ip2 <- ip1
I0428 20:16:12.694319   607 net.cpp:382] ip2 -> ip2
I0428 20:16:12.694442   607 net.cpp:124] Setting up ip2
I0428 20:16:12.694454   607 net.cpp:131] Top shape: 64 25 (1600)
I0428 20:16:12.694460   607 net.cpp:139] Memory required for data: 9530880
I0428 20:16:12.694471   607 layer_factory.hpp:77] Creating layer relu2
I0428 20:16:12.694483   607 net.cpp:86] Creating Layer relu2
I0428 20:16:12.694489   607 net.cpp:408] relu2 <- ip2
I0428 20:16:12.694499   607 net.cpp:369] relu2 -> ip2 (in-place)
I0428 20:16:12.695350   607 net.cpp:124] Setting up relu2
I0428 20:16:12.695368   607 net.cpp:131] Top shape: 64 25 (1600)
I0428 20:16:12.695374   607 net.cpp:139] Memory required for data: 9537280
I0428 20:16:12.695381   607 layer_factory.hpp:77] Creating layer ip3
I0428 20:16:12.695394   607 net.cpp:86] Creating Layer ip3
I0428 20:16:12.695400   607 net.cpp:408] ip3 <- ip2
I0428 20:16:12.695411   607 net.cpp:382] ip3 -> ip3
I0428 20:16:12.695540   607 net.cpp:124] Setting up ip3
I0428 20:16:12.695552   607 net.cpp:131] Top shape: 64 10 (640)
I0428 20:16:12.695559   607 net.cpp:139] Memory required for data: 9539840
I0428 20:16:12.695575   607 layer_factory.hpp:77] Creating layer relu3
I0428 20:16:12.695586   607 net.cpp:86] Creating Layer relu3
I0428 20:16:12.695595   607 net.cpp:408] relu3 <- ip3
I0428 20:16:12.695603   607 net.cpp:369] relu3 -> ip3 (in-place)
I0428 20:16:12.695807   607 net.cpp:124] Setting up relu3
I0428 20:16:12.695819   607 net.cpp:131] Top shape: 64 10 (640)
I0428 20:16:12.695825   607 net.cpp:139] Memory required for data: 9542400
I0428 20:16:12.695832   607 layer_factory.hpp:77] Creating layer loss
I0428 20:16:12.695843   607 net.cpp:86] Creating Layer loss
I0428 20:16:12.695849   607 net.cpp:408] loss <- ip3
I0428 20:16:12.695858   607 net.cpp:408] loss <- label
I0428 20:16:12.695868   607 net.cpp:382] loss -> loss
I0428 20:16:12.695896   607 layer_factory.hpp:77] Creating layer loss
…
I0428 20:16:12.696713   607 solver.cpp:173] Creating test net (#0) specified by net file: ECE595/mnist/train_test/var_everything2/lenet_train_test1265.prototxt
I0428 20:16:12.696755   607 net.cpp:296] The NetState phase (1) differed from the phase (0) specified by a rule in layer mnist
I0428 20:16:12.696887   607 net.cpp:53] Initializing net from parameters: 
name: "LeNet"
state {
  phase: TEST
}
layer {
  name: "mnist"
  type: "Data"
  top: "data"
  top: "label"
  include {
    phase: TEST
  }
  transform_param {
    scale: 0.00390625
  }
  data_param {
    source: "examples/mnist/mnist_test_lmdb"
    batch_size: 100
    backend: LMDB
  }
}
layer {
  name: "conv0"
  type: "Convolution"
  bottom: "data"
  top: "conv0"
  param {
    lr_mult: 1
  }
  param {
    lr_mult: 2
  }
  convolution_param {
    num_output: 50
    kernel_size: 5
    stride: 1
    weight_filler {
      type: "xavier"
    }
    bias_filler {
      type: "constant"
    }
  }
}
layer {
  name: "pool0"
  type: "Pooling"
  bottom: "conv0"
  top: "pool0"
  pooling_param {
    pool: MAX
    kernel_size: 2
    stride: 2
  }
}
layer {
  name: "conv1"
  type: "Convolution"
  bottom: "pool0"
  top: "conv1"
  param {
    lr_mult: 1
  }
  param {
    lr_mult: 2
  }
  convolution_param {
    num_output: 5
    kernel_size: 5
    stride: 1
    weight_filler {
      type: "xavier"
    }
    bias_filler {
      type: "constant"
    }
  }
}
layer {
  name: "pool1"
  type: "Pooling"
  bottom: "conv1"
  top: "pool1"
  pooling_param {
    pool: MAX
    kernel_size: 2
    stride: 2
  }
}
layer {
  name: "ip1"
  type: "InnerProduct"
  bottom: "pool1"
  top: "ip1"
  param {
    lr_mult: 1
  }
  param {
    lr_mult: 2
  }
  inner_product_param {
    num_output: 10
    weight_filler {
      type: "xavier"
    }
    bias_filler {
      type: "constant"
    }
  }
}
layer {
  name: "relu1"
  type: "ReLU"
  bottom: "ip1"
  top: "ip1"
}
layer {
  name: "ip2"
  type: "InnerProduct"
  bottom: "ip1"
  top: "ip2"
  param {
    lr_mult: 1
  }
  param {
    lr_mult: 2
  }
  inner_product_param {
    num_output: 25
    weight_filler {
      type: "xavier"
    }
    bias_filler {
      type: "constant"
    }
  }
}
layer {
  name: "relu2"
  type: "ReLU"
  bottom: "ip2"
  top: "ip2"
}
layer {
  name: "ip3"
  type: "InnerProduct"
  bottom: "ip2"
  top: "ip3"
  param {
    lr_mult: 1
  }
  param {
    lr_mult: 2
  }
  inner_product_param {
    num_output: 10
    weight_filler {
      type: "xavier"
    }
    bias_filler {
      type: "constant"
    }
  }
}
layer {
  name: "relu3"
  type: "ReLU"
  bottom: "ip3"
  top: "ip3"
}
layer {
  name: "accuracy"
  type: "Accuracy"
  bottom: "ip3"
  bottom: "label"
  top: "accuracy"
  include {
    phase: TEST
  }
}
layer {
  name: "loss"
  type: "SoftmaxWithLoss"
  bottom: "ip3"
  bottom: "label"
  top: "loss"
}
I0428 20:16:12.697026   607 layer_factory.hpp:77] Creating layer mnist
I0428 20:16:12.697101   607 db_lmdb.cpp:35] Opened lmdb examples/mnist/mnist_test_lmdb
I0428 20:16:12.697123   607 net.cpp:86] Creating Layer mnist
I0428 20:16:12.697131   607 net.cpp:382] mnist -> data
I0428 20:16:12.697145   607 net.cpp:382] mnist -> label
I0428 20:16:12.697298   607 data_layer.cpp:45] output data size: 100,1,28,28
I0428 20:16:12.699687   607 net.cpp:124] Setting up mnist
I0428 20:16:12.699707   607 net.cpp:131] Top shape: 100 1 28 28 (78400)
I0428 20:16:12.699717   607 net.cpp:131] Top shape: 100 (100)
I0428 20:16:12.699723   607 net.cpp:139] Memory required for data: 314000
I0428 20:16:12.699730   607 layer_factory.hpp:77] Creating layer label_mnist_1_split
I0428 20:16:12.699764   607 net.cpp:86] Creating Layer label_mnist_1_split
I0428 20:16:12.699771   607 net.cpp:408] label_mnist_1_split <- label
I0428 20:16:12.699781   607 net.cpp:382] label_mnist_1_split -> label_mnist_1_split_0
I0428 20:16:12.699795   607 net.cpp:382] label_mnist_1_split -> label_mnist_1_split_1
I0428 20:16:12.699923   607 net.cpp:124] Setting up label_mnist_1_split
I0428 20:16:12.699935   607 net.cpp:131] Top shape: 100 (100)
I0428 20:16:12.699944   607 net.cpp:131] Top shape: 100 (100)
I0428 20:16:12.699949   607 net.cpp:139] Memory required for data: 314800
I0428 20:16:12.699956   607 layer_factory.hpp:77] Creating layer conv0
I0428 20:16:12.699972   607 net.cpp:86] Creating Layer conv0
I0428 20:16:12.699981   607 net.cpp:408] conv0 <- data
I0428 20:16:12.699992   607 net.cpp:382] conv0 -> conv0
I0428 20:16:12.701670   607 net.cpp:124] Setting up conv0
I0428 20:16:12.701690   607 net.cpp:131] Top shape: 100 50 24 24 (2880000)
I0428 20:16:12.701697   607 net.cpp:139] Memory required for data: 11834800
I0428 20:16:12.701714   607 layer_factory.hpp:77] Creating layer pool0
I0428 20:16:12.701726   607 net.cpp:86] Creating Layer pool0
I0428 20:16:12.701735   607 net.cpp:408] pool0 <- conv0
I0428 20:16:12.701743   607 net.cpp:382] pool0 -> pool0
I0428 20:16:12.701795   607 net.cpp:124] Setting up pool0
I0428 20:16:12.701807   607 net.cpp:131] Top shape: 100 50 12 12 (720000)
I0428 20:16:12.701813   607 net.cpp:139] Memory required for data: 14714800
I0428 20:16:12.701819   607 layer_factory.hpp:77] Creating layer conv1
I0428 20:16:12.701835   607 net.cpp:86] Creating Layer conv1
I0428 20:16:12.701843   607 net.cpp:408] conv1 <- pool0
I0428 20:16:12.701854   607 net.cpp:382] conv1 -> conv1
I0428 20:16:12.703685   607 net.cpp:124] Setting up conv1
I0428 20:16:12.703703   607 net.cpp:131] Top shape: 100 5 8 8 (32000)
I0428 20:16:12.703711   607 net.cpp:139] Memory required for data: 14842800
I0428 20:16:12.703727   607 layer_factory.hpp:77] Creating layer pool1
I0428 20:16:12.703740   607 net.cpp:86] Creating Layer pool1
I0428 20:16:12.703747   607 net.cpp:408] pool1 <- conv1
I0428 20:16:12.703758   607 net.cpp:382] pool1 -> pool1
I0428 20:16:12.703810   607 net.cpp:124] Setting up pool1
I0428 20:16:12.703820   607 net.cpp:131] Top shape: 100 5 4 4 (8000)
I0428 20:16:12.703827   607 net.cpp:139] Memory required for data: 14874800
I0428 20:16:12.703833   607 layer_factory.hpp:77] Creating layer ip1
I0428 20:16:12.703845   607 net.cpp:86] Creating Layer ip1
I0428 20:16:12.703851   607 net.cpp:408] ip1 <- pool1
I0428 20:16:12.703861   607 net.cpp:382] ip1 -> ip1
I0428 20:16:12.703990   607 net.cpp:124] Setting up ip1
I0428 20:16:12.704001   607 net.cpp:131] Top shape: 100 10 (1000)
I0428 20:16:12.704022   607 net.cpp:139] Memory required for data: 14878800
I0428 20:16:12.704037   607 layer_factory.hpp:77] Creating layer relu1
I0428 20:16:12.704048   607 net.cpp:86] Creating Layer relu1
I0428 20:16:12.704056   607 net.cpp:408] relu1 <- ip1
I0428 20:16:12.704064   607 net.cpp:369] relu1 -> ip1 (in-place)
I0428 20:16:12.704258   607 net.cpp:124] Setting up relu1
I0428 20:16:12.704270   607 net.cpp:131] Top shape: 100 10 (1000)
I0428 20:16:12.704277   607 net.cpp:139] Memory required for data: 14882800
I0428 20:16:12.704283   607 layer_factory.hpp:77] Creating layer ip2
I0428 20:16:12.704298   607 net.cpp:86] Creating Layer ip2
I0428 20:16:12.704305   607 net.cpp:408] ip2 <- ip1
I0428 20:16:12.704315   607 net.cpp:382] ip2 -> ip2
I0428 20:16:12.704453   607 net.cpp:124] Setting up ip2
I0428 20:16:12.704464   607 net.cpp:131] Top shape: 100 25 (2500)
I0428 20:16:12.704470   607 net.cpp:139] Memory required for data: 14892800
I0428 20:16:12.704481   607 layer_factory.hpp:77] Creating layer relu2
I0428 20:16:12.704490   607 net.cpp:86] Creating Layer relu2
I0428 20:16:12.704497   607 net.cpp:408] relu2 <- ip2
I0428 20:16:12.704505   607 net.cpp:369] relu2 -> ip2 (in-place)
I0428 20:16:12.704777   607 net.cpp:124] Setting up relu2
I0428 20:16:12.704789   607 net.cpp:131] Top shape: 100 25 (2500)
I0428 20:16:12.704797   607 net.cpp:139] Memory required for data: 14902800
I0428 20:16:12.704803   607 layer_factory.hpp:77] Creating layer ip3
I0428 20:16:12.704821   607 net.cpp:86] Creating Layer ip3
I0428 20:16:12.704838   607 net.cpp:408] ip3 <- ip2
I0428 20:16:12.704851   607 net.cpp:382] ip3 -> ip3
I0428 20:16:12.704991   607 net.cpp:124] Setting up ip3
I0428 20:16:12.705003   607 net.cpp:131] Top shape: 100 10 (1000)
I0428 20:16:12.705008   607 net.cpp:139] Memory required for data: 14906800
I0428 20:16:12.705024   607 layer_factory.hpp:77] Creating layer relu3
I0428 20:16:12.705037   607 net.cpp:86] Creating Layer relu3
I0428 20:16:12.705044   607 net.cpp:408] relu3 <- ip3
I0428 20:16:12.705062   607 net.cpp:369] relu3 -> ip3 (in-place)
I0428 20:16:12.705978   607 net.cpp:124] Setting up relu3
I0428 20:16:12.705994   607 net.cpp:131] Top shape: 100 10 (1000)
I0428 20:16:12.706002   607 net.cpp:139] Memory required for data: 14910800
I0428 20:16:12.706008   607 layer_factory.hpp:77] Creating layer ip3_relu3_0_split
I0428 20:16:12.706018   607 net.cpp:86] Creating Layer ip3_relu3_0_split
I0428 20:16:12.706024   607 net.cpp:408] ip3_relu3_0_split <- ip3
I0428 20:16:12.706037   607 net.cpp:382] ip3_relu3_0_split -> ip3_relu3_0_split_0
I0428 20:16:12.706048   607 net.cpp:382] ip3_relu3_0_split -> ip3_relu3_0_split_1
I0428 20:16:12.706104   607 net.cpp:124] Setting up ip3_relu3_0_split
I0428 20:16:12.706120   607 net.cpp:131] Top shape: 100 10 (1000)
I0428 20:16:12.706127   607 net.cpp:131] Top shape: 100 10 (1000)
I0428 20:16:12.706135   607 net.cpp:139] Memory required for data: 14918800
I0428 20:16:12.706140   607 layer_factory.hpp:77] Creating layer accuracy
I0428 20:16:12.706151   607 net.cpp:86] Creating Layer accuracy
I0428 20:16:12.706157   607 net.cpp:408] accuracy <- ip3_relu3_0_split_0
I0428 20:16:12.706166   607 net.cpp:408] accuracy <- label_mnist_1_split_0
I0428 20:16:12.706177   607 net.cpp:382] accuracy -> accuracy
…
