…
I0428 19:34:30.535225 23341 net.cpp:296] The NetState phase (0) differed from the phase (1) specified by a rule in layer mnist
I0428 19:34:30.535240 23341 net.cpp:296] The NetState phase (0) differed from the phase (1) specified by a rule in layer accuracy
I0428 19:34:30.535316 23341 net.cpp:53] Initializing net from parameters: 
name: "LeNet"
state {
  phase: TRAIN
  level: 0
  stage: ""
}
layer {
  name: "mnist"
  type: "Data"
  top: "data"
  top: "label"
  include {
    phase: TRAIN
  }
  transform_param {
    scale: 0.00390625
  }
  data_param {
    source: "examples/mnist/mnist_train_lmdb"
    batch_size: 64
    backend: LMDB
  }
}
layer {
  name: "conv0"
  type: "Convolution"
  bottom: "data"
  top: "conv0"
  param {
    lr_mult: 1
  }
  param {
    lr_mult: 2
  }
  convolution_param {
    num_output: 50
    kernel_size: 5
    stride: 1
    weight_filler {
      type: "xavier"
    }
    bias_filler {
      type: "constant"
    }
  }
}
layer {
  name: "pool0"
  type: "Pooling"
  bottom: "conv0"
  top: "pool0"
  pooling_param {
    pool: MAX
    kernel_size: 2
    stride: 2
  }
}
layer {
  name: "ip1"
  type: "InnerProduct"
  bottom: "pool0"
  top: "ip1"
  param {
    lr_mult: 1
  }
  param {
    lr_mult: 2
  }
  inner_product_param {
    num_output: 50
    weight_filler {
      type: "xavier"
    }
    bias_filler {
      type: "constant"
    }
  }
}
layer {
  name: "relu1"
  type: "ReLU"
  bottom: "ip1"
  top: "ip1"
}
layer {
  name: "ip2"
  type: "InnerProduct"
  bottom: "ip1"
  top: "ip2"
  param {
    lr_mult: 1
  }
  param {
    lr_mult: 2
  }
  inner_product_param {
    num_output: 10
    weight_filler {
      type: "xavier"
    }
    bias_filler {
      type: "constant"
    }
  }
}
layer {
  name: "relu2"
  type: "ReLU"
  bottom: "ip2"
  top: "ip2"
}
layer {
  name: "loss"
  type: "SoftmaxWithLoss"
  bottom: "ip2"
  bottom: "label"
  top: "loss"
}
I0428 19:34:30.535413 23341 layer_factory.hpp:77] Creating layer mnist
I0428 19:34:30.535538 23341 db_lmdb.cpp:35] Opened lmdb examples/mnist/mnist_train_lmdb
I0428 19:34:30.535565 23341 net.cpp:86] Creating Layer mnist
I0428 19:34:30.535575 23341 net.cpp:382] mnist -> data
I0428 19:34:30.535601 23341 net.cpp:382] mnist -> label
I0428 19:34:30.536707 23341 data_layer.cpp:45] output data size: 64,1,28,28
I0428 19:34:30.538902 23341 net.cpp:124] Setting up mnist
I0428 19:34:30.538942 23341 net.cpp:131] Top shape: 64 1 28 28 (50176)
I0428 19:34:30.538951 23341 net.cpp:131] Top shape: 64 (64)
I0428 19:34:30.538956 23341 net.cpp:139] Memory required for data: 200960
I0428 19:34:30.538965 23341 layer_factory.hpp:77] Creating layer conv0
I0428 19:34:30.539000 23341 net.cpp:86] Creating Layer conv0
I0428 19:34:30.539022 23341 net.cpp:408] conv0 <- data
I0428 19:34:30.539036 23341 net.cpp:382] conv0 -> conv0
I0428 19:34:30.775005 23341 net.cpp:124] Setting up conv0
I0428 19:34:30.775034 23341 net.cpp:131] Top shape: 64 50 24 24 (1843200)
I0428 19:34:30.775040 23341 net.cpp:139] Memory required for data: 7573760
I0428 19:34:30.775089 23341 layer_factory.hpp:77] Creating layer pool0
I0428 19:34:30.775106 23341 net.cpp:86] Creating Layer pool0
I0428 19:34:30.775120 23341 net.cpp:408] pool0 <- conv0
I0428 19:34:30.775128 23341 net.cpp:382] pool0 -> pool0
I0428 19:34:30.775215 23341 net.cpp:124] Setting up pool0
I0428 19:34:30.775224 23341 net.cpp:131] Top shape: 64 50 12 12 (460800)
I0428 19:34:30.775229 23341 net.cpp:139] Memory required for data: 9416960
I0428 19:34:30.775252 23341 layer_factory.hpp:77] Creating layer ip1
I0428 19:34:30.775264 23341 net.cpp:86] Creating Layer ip1
I0428 19:34:30.775270 23341 net.cpp:408] ip1 <- pool0
I0428 19:34:30.775279 23341 net.cpp:382] ip1 -> ip1
I0428 19:34:30.778439 23341 net.cpp:124] Setting up ip1
I0428 19:34:30.778453 23341 net.cpp:131] Top shape: 64 50 (3200)
I0428 19:34:30.778458 23341 net.cpp:139] Memory required for data: 9429760
I0428 19:34:30.778470 23341 layer_factory.hpp:77] Creating layer relu1
I0428 19:34:30.778481 23341 net.cpp:86] Creating Layer relu1
I0428 19:34:30.778486 23341 net.cpp:408] relu1 <- ip1
I0428 19:34:30.778493 23341 net.cpp:369] relu1 -> ip1 (in-place)
I0428 19:34:30.778653 23341 net.cpp:124] Setting up relu1
I0428 19:34:30.778663 23341 net.cpp:131] Top shape: 64 50 (3200)
I0428 19:34:30.778667 23341 net.cpp:139] Memory required for data: 9442560
I0428 19:34:30.778673 23341 layer_factory.hpp:77] Creating layer ip2
I0428 19:34:30.778682 23341 net.cpp:86] Creating Layer ip2
I0428 19:34:30.778687 23341 net.cpp:408] ip2 <- ip1
I0428 19:34:30.778695 23341 net.cpp:382] ip2 -> ip2
I0428 19:34:30.778791 23341 net.cpp:124] Setting up ip2
I0428 19:34:30.778800 23341 net.cpp:131] Top shape: 64 10 (640)
I0428 19:34:30.778805 23341 net.cpp:139] Memory required for data: 9445120
I0428 19:34:30.778817 23341 layer_factory.hpp:77] Creating layer relu2
I0428 19:34:30.778830 23341 net.cpp:86] Creating Layer relu2
I0428 19:34:30.778837 23341 net.cpp:408] relu2 <- ip2
I0428 19:34:30.778844 23341 net.cpp:369] relu2 -> ip2 (in-place)
I0428 19:34:30.779616 23341 net.cpp:124] Setting up relu2
I0428 19:34:30.779631 23341 net.cpp:131] Top shape: 64 10 (640)
I0428 19:34:30.779637 23341 net.cpp:139] Memory required for data: 9447680
I0428 19:34:30.779644 23341 layer_factory.hpp:77] Creating layer loss
I0428 19:34:30.779652 23341 net.cpp:86] Creating Layer loss
I0428 19:34:30.779659 23341 net.cpp:408] loss <- ip2
I0428 19:34:30.779665 23341 net.cpp:408] loss <- label
I0428 19:34:30.779675 23341 net.cpp:382] loss -> loss
I0428 19:34:30.779700 23341 layer_factory.hpp:77] Creating layer loss
…
I0428 19:34:30.780333 23341 solver.cpp:173] Creating test net (#0) specified by net file: ECE595/mnist/train_test/var_everything2/lenet_train_test205.prototxt
I0428 19:34:30.780362 23341 net.cpp:296] The NetState phase (1) differed from the phase (0) specified by a rule in layer mnist
I0428 19:34:30.780436 23341 net.cpp:53] Initializing net from parameters: 
name: "LeNet"
state {
  phase: TEST
}
layer {
  name: "mnist"
  type: "Data"
  top: "data"
  top: "label"
  include {
    phase: TEST
  }
  transform_param {
    scale: 0.00390625
  }
  data_param {
    source: "examples/mnist/mnist_test_lmdb"
    batch_size: 100
    backend: LMDB
  }
}
layer {
  name: "conv0"
  type: "Convolution"
  bottom: "data"
  top: "conv0"
  param {
    lr_mult: 1
  }
  param {
    lr_mult: 2
  }
  convolution_param {
    num_output: 50
    kernel_size: 5
    stride: 1
    weight_filler {
      type: "xavier"
    }
    bias_filler {
      type: "constant"
    }
  }
}
layer {
  name: "pool0"
  type: "Pooling"
  bottom: "conv0"
  top: "pool0"
  pooling_param {
    pool: MAX
    kernel_size: 2
    stride: 2
  }
}
layer {
  name: "ip1"
  type: "InnerProduct"
  bottom: "pool0"
  top: "ip1"
  param {
    lr_mult: 1
  }
  param {
    lr_mult: 2
  }
  inner_product_param {
    num_output: 50
    weight_filler {
      type: "xavier"
    }
    bias_filler {
      type: "constant"
    }
  }
}
layer {
  name: "relu1"
  type: "ReLU"
  bottom: "ip1"
  top: "ip1"
}
layer {
  name: "ip2"
  type: "InnerProduct"
  bottom: "ip1"
  top: "ip2"
  param {
    lr_mult: 1
  }
  param {
    lr_mult: 2
  }
  inner_product_param {
    num_output: 10
    weight_filler {
      type: "xavier"
    }
    bias_filler {
      type: "constant"
    }
  }
}
layer {
  name: "relu2"
  type: "ReLU"
  bottom: "ip2"
  top: "ip2"
}
layer {
  name: "accuracy"
  type: "Accuracy"
  bottom: "ip2"
  bottom: "label"
  top: "accuracy"
  include {
    phase: TEST
  }
}
layer {
  name: "loss"
  type: "SoftmaxWithLoss"
  bottom: "ip2"
  bottom: "label"
  top: "loss"
}
I0428 19:34:30.780545 23341 layer_factory.hpp:77] Creating layer mnist
I0428 19:34:30.780633 23341 db_lmdb.cpp:35] Opened lmdb examples/mnist/mnist_test_lmdb
I0428 19:34:30.780650 23341 net.cpp:86] Creating Layer mnist
I0428 19:34:30.780658 23341 net.cpp:382] mnist -> data
I0428 19:34:30.780669 23341 net.cpp:382] mnist -> label
I0428 19:34:30.780799 23341 data_layer.cpp:45] output data size: 100,1,28,28
I0428 19:34:30.783143 23341 net.cpp:124] Setting up mnist
I0428 19:34:30.783157 23341 net.cpp:131] Top shape: 100 1 28 28 (78400)
I0428 19:34:30.783165 23341 net.cpp:131] Top shape: 100 (100)
I0428 19:34:30.783185 23341 net.cpp:139] Memory required for data: 314000
I0428 19:34:30.783191 23341 layer_factory.hpp:77] Creating layer label_mnist_1_split
I0428 19:34:30.783205 23341 net.cpp:86] Creating Layer label_mnist_1_split
I0428 19:34:30.783211 23341 net.cpp:408] label_mnist_1_split <- label
I0428 19:34:30.783234 23341 net.cpp:382] label_mnist_1_split -> label_mnist_1_split_0
I0428 19:34:30.783246 23341 net.cpp:382] label_mnist_1_split -> label_mnist_1_split_1
I0428 19:34:30.783324 23341 net.cpp:124] Setting up label_mnist_1_split
I0428 19:34:30.783334 23341 net.cpp:131] Top shape: 100 (100)
I0428 19:34:30.783340 23341 net.cpp:131] Top shape: 100 (100)
I0428 19:34:30.783345 23341 net.cpp:139] Memory required for data: 314800
I0428 19:34:30.783350 23341 layer_factory.hpp:77] Creating layer conv0
I0428 19:34:30.783365 23341 net.cpp:86] Creating Layer conv0
I0428 19:34:30.783371 23341 net.cpp:408] conv0 <- data
I0428 19:34:30.783380 23341 net.cpp:382] conv0 -> conv0
I0428 19:34:30.784934 23341 net.cpp:124] Setting up conv0
I0428 19:34:30.784950 23341 net.cpp:131] Top shape: 100 50 24 24 (2880000)
I0428 19:34:30.784956 23341 net.cpp:139] Memory required for data: 11834800
I0428 19:34:30.784986 23341 layer_factory.hpp:77] Creating layer pool0
I0428 19:34:30.784996 23341 net.cpp:86] Creating Layer pool0
I0428 19:34:30.785007 23341 net.cpp:408] pool0 <- conv0
I0428 19:34:30.785020 23341 net.cpp:382] pool0 -> pool0
I0428 19:34:30.785066 23341 net.cpp:124] Setting up pool0
I0428 19:34:30.785075 23341 net.cpp:131] Top shape: 100 50 12 12 (720000)
I0428 19:34:30.785080 23341 net.cpp:139] Memory required for data: 14714800
I0428 19:34:30.785085 23341 layer_factory.hpp:77] Creating layer ip1
I0428 19:34:30.785099 23341 net.cpp:86] Creating Layer ip1
I0428 19:34:30.785104 23341 net.cpp:408] ip1 <- pool0
I0428 19:34:30.785115 23341 net.cpp:382] ip1 -> ip1
I0428 19:34:30.787434 23341 net.cpp:124] Setting up ip1
I0428 19:34:30.787444 23341 net.cpp:131] Top shape: 100 50 (5000)
I0428 19:34:30.787449 23341 net.cpp:139] Memory required for data: 14734800
I0428 19:34:30.787461 23341 layer_factory.hpp:77] Creating layer relu1
I0428 19:34:30.787470 23341 net.cpp:86] Creating Layer relu1
I0428 19:34:30.787484 23341 net.cpp:408] relu1 <- ip1
I0428 19:34:30.787492 23341 net.cpp:369] relu1 -> ip1 (in-place)
I0428 19:34:30.787669 23341 net.cpp:124] Setting up relu1
I0428 19:34:30.787678 23341 net.cpp:131] Top shape: 100 50 (5000)
I0428 19:34:30.787700 23341 net.cpp:139] Memory required for data: 14754800
I0428 19:34:30.787706 23341 layer_factory.hpp:77] Creating layer ip2
I0428 19:34:30.787716 23341 net.cpp:86] Creating Layer ip2
I0428 19:34:30.787721 23341 net.cpp:408] ip2 <- ip1
I0428 19:34:30.787729 23341 net.cpp:382] ip2 -> ip2
I0428 19:34:30.787832 23341 net.cpp:124] Setting up ip2
I0428 19:34:30.787840 23341 net.cpp:131] Top shape: 100 10 (1000)
I0428 19:34:30.787845 23341 net.cpp:139] Memory required for data: 14758800
I0428 19:34:30.787858 23341 layer_factory.hpp:77] Creating layer relu2
I0428 19:34:30.787866 23341 net.cpp:86] Creating Layer relu2
I0428 19:34:30.787873 23341 net.cpp:408] relu2 <- ip2
I0428 19:34:30.787879 23341 net.cpp:369] relu2 -> ip2 (in-place)
I0428 19:34:30.788059 23341 net.cpp:124] Setting up relu2
I0428 19:34:30.788069 23341 net.cpp:131] Top shape: 100 10 (1000)
I0428 19:34:30.788074 23341 net.cpp:139] Memory required for data: 14762800
I0428 19:34:30.788079 23341 layer_factory.hpp:77] Creating layer ip2_relu2_0_split
I0428 19:34:30.788094 23341 net.cpp:86] Creating Layer ip2_relu2_0_split
I0428 19:34:30.788100 23341 net.cpp:408] ip2_relu2_0_split <- ip2
I0428 19:34:30.788106 23341 net.cpp:382] ip2_relu2_0_split -> ip2_relu2_0_split_0
I0428 19:34:30.788116 23341 net.cpp:382] ip2_relu2_0_split -> ip2_relu2_0_split_1
I0428 19:34:30.788172 23341 net.cpp:124] Setting up ip2_relu2_0_split
I0428 19:34:30.788179 23341 net.cpp:131] Top shape: 100 10 (1000)
I0428 19:34:30.788185 23341 net.cpp:131] Top shape: 100 10 (1000)
I0428 19:34:30.788190 23341 net.cpp:139] Memory required for data: 14770800
I0428 19:34:30.788194 23341 layer_factory.hpp:77] Creating layer accuracy
I0428 19:34:30.788203 23341 net.cpp:86] Creating Layer accuracy
I0428 19:34:30.788208 23341 net.cpp:408] accuracy <- ip2_relu2_0_split_0
I0428 19:34:30.788215 23341 net.cpp:408] accuracy <- label_mnist_1_split_0
I0428 19:34:30.788223 23341 net.cpp:382] accuracy -> accuracy
…
