…
I0428 19:42:29.843914 25079 net.cpp:296] The NetState phase (0) differed from the phase (1) specified by a rule in layer mnist
I0428 19:42:29.843942 25079 net.cpp:296] The NetState phase (0) differed from the phase (1) specified by a rule in layer accuracy
I0428 19:42:29.844099 25079 net.cpp:53] Initializing net from parameters: 
name: "LeNet"
state {
  phase: TRAIN
  level: 0
  stage: ""
}
layer {
  name: "mnist"
  type: "Data"
  top: "data"
  top: "label"
  include {
    phase: TRAIN
  }
  transform_param {
    scale: 0.00390625
  }
  data_param {
    source: "examples/mnist/mnist_train_lmdb"
    batch_size: 64
    backend: LMDB
  }
}
layer {
  name: "conv0"
  type: "Convolution"
  bottom: "data"
  top: "conv0"
  param {
    lr_mult: 1
  }
  param {
    lr_mult: 2
  }
  convolution_param {
    num_output: 2
    kernel_size: 5
    stride: 1
    weight_filler {
      type: "xavier"
    }
    bias_filler {
      type: "constant"
    }
  }
}
layer {
  name: "pool0"
  type: "Pooling"
  bottom: "conv0"
  top: "pool0"
  pooling_param {
    pool: MAX
    kernel_size: 2
    stride: 2
  }
}
layer {
  name: "conv1"
  type: "Convolution"
  bottom: "pool0"
  top: "conv1"
  param {
    lr_mult: 1
  }
  param {
    lr_mult: 2
  }
  convolution_param {
    num_output: 25
    kernel_size: 5
    stride: 1
    weight_filler {
      type: "xavier"
    }
    bias_filler {
      type: "constant"
    }
  }
}
layer {
  name: "pool1"
  type: "Pooling"
  bottom: "conv1"
  top: "pool1"
  pooling_param {
    pool: MAX
    kernel_size: 2
    stride: 2
  }
}
layer {
  name: "ip1"
  type: "InnerProduct"
  bottom: "pool1"
  top: "ip1"
  param {
    lr_mult: 1
  }
  param {
    lr_mult: 2
  }
  inner_product_param {
    num_output: 10
    weight_filler {
      type: "xavier"
    }
    bias_filler {
      type: "constant"
    }
  }
}
layer {
  name: "relu1"
  type: "ReLU"
  bottom: "ip1"
  top: "ip1"
}
layer {
  name: "ip2"
  type: "InnerProduct"
  bottom: "ip1"
  top: "ip2"
  param {
    lr_mult: 1
  }
  param {
    lr_mult: 2
  }
  inner_product_param {
    num_output: 10
    weight_filler {
      type: "xavier"
    }
    bias_filler {
      type: "constant"
    }
  }
}
layer {
  name: "relu2"
  type: "ReLU"
  bottom: "ip2"
  top: "ip2"
}
layer {
  name: "loss"
  type: "SoftmaxWithLoss"
  bottom: "ip2"
  bottom: "label"
  top: "loss"
}
I0428 19:42:29.844218 25079 layer_factory.hpp:77] Creating layer mnist
I0428 19:42:29.844367 25079 db_lmdb.cpp:35] Opened lmdb examples/mnist/mnist_train_lmdb
I0428 19:42:29.844405 25079 net.cpp:86] Creating Layer mnist
I0428 19:42:29.844418 25079 net.cpp:382] mnist -> data
I0428 19:42:29.844452 25079 net.cpp:382] mnist -> label
I0428 19:42:29.846189 25079 data_layer.cpp:45] output data size: 64,1,28,28
I0428 19:42:29.850062 25079 net.cpp:124] Setting up mnist
I0428 19:42:29.850093 25079 net.cpp:131] Top shape: 64 1 28 28 (50176)
I0428 19:42:29.850105 25079 net.cpp:131] Top shape: 64 (64)
I0428 19:42:29.850111 25079 net.cpp:139] Memory required for data: 200960
I0428 19:42:29.850131 25079 layer_factory.hpp:77] Creating layer conv0
I0428 19:42:29.850157 25079 net.cpp:86] Creating Layer conv0
I0428 19:42:29.850169 25079 net.cpp:408] conv0 <- data
I0428 19:42:29.850190 25079 net.cpp:382] conv0 -> conv0
I0428 19:42:30.169854 25079 net.cpp:124] Setting up conv0
I0428 19:42:30.169885 25079 net.cpp:131] Top shape: 64 2 24 24 (73728)
I0428 19:42:30.169890 25079 net.cpp:139] Memory required for data: 495872
I0428 19:42:30.169934 25079 layer_factory.hpp:77] Creating layer pool0
I0428 19:42:30.169950 25079 net.cpp:86] Creating Layer pool0
I0428 19:42:30.169955 25079 net.cpp:408] pool0 <- conv0
I0428 19:42:30.169960 25079 net.cpp:382] pool0 -> pool0
I0428 19:42:30.170029 25079 net.cpp:124] Setting up pool0
I0428 19:42:30.170039 25079 net.cpp:131] Top shape: 64 2 12 12 (18432)
I0428 19:42:30.170043 25079 net.cpp:139] Memory required for data: 569600
I0428 19:42:30.170047 25079 layer_factory.hpp:77] Creating layer conv1
I0428 19:42:30.170059 25079 net.cpp:86] Creating Layer conv1
I0428 19:42:30.170064 25079 net.cpp:408] conv1 <- pool0
I0428 19:42:30.170070 25079 net.cpp:382] conv1 -> conv1
I0428 19:42:30.173192 25079 net.cpp:124] Setting up conv1
I0428 19:42:30.173210 25079 net.cpp:131] Top shape: 64 25 8 8 (102400)
I0428 19:42:30.173215 25079 net.cpp:139] Memory required for data: 979200
I0428 19:42:30.173226 25079 layer_factory.hpp:77] Creating layer pool1
I0428 19:42:30.173235 25079 net.cpp:86] Creating Layer pool1
I0428 19:42:30.173250 25079 net.cpp:408] pool1 <- conv1
I0428 19:42:30.173256 25079 net.cpp:382] pool1 -> pool1
I0428 19:42:30.173301 25079 net.cpp:124] Setting up pool1
I0428 19:42:30.173310 25079 net.cpp:131] Top shape: 64 25 4 4 (25600)
I0428 19:42:30.173315 25079 net.cpp:139] Memory required for data: 1081600
I0428 19:42:30.173317 25079 layer_factory.hpp:77] Creating layer ip1
I0428 19:42:30.173326 25079 net.cpp:86] Creating Layer ip1
I0428 19:42:30.173331 25079 net.cpp:408] ip1 <- pool1
I0428 19:42:30.173336 25079 net.cpp:382] ip1 -> ip1
I0428 19:42:30.173480 25079 net.cpp:124] Setting up ip1
I0428 19:42:30.173490 25079 net.cpp:131] Top shape: 64 10 (640)
I0428 19:42:30.173492 25079 net.cpp:139] Memory required for data: 1084160
I0428 19:42:30.173501 25079 layer_factory.hpp:77] Creating layer relu1
I0428 19:42:30.173508 25079 net.cpp:86] Creating Layer relu1
I0428 19:42:30.173512 25079 net.cpp:408] relu1 <- ip1
I0428 19:42:30.173517 25079 net.cpp:369] relu1 -> ip1 (in-place)
I0428 19:42:30.173709 25079 net.cpp:124] Setting up relu1
I0428 19:42:30.173719 25079 net.cpp:131] Top shape: 64 10 (640)
I0428 19:42:30.173723 25079 net.cpp:139] Memory required for data: 1086720
I0428 19:42:30.173727 25079 layer_factory.hpp:77] Creating layer ip2
I0428 19:42:30.173735 25079 net.cpp:86] Creating Layer ip2
I0428 19:42:30.173738 25079 net.cpp:408] ip2 <- ip1
I0428 19:42:30.173744 25079 net.cpp:382] ip2 -> ip2
I0428 19:42:30.173856 25079 net.cpp:124] Setting up ip2
I0428 19:42:30.173863 25079 net.cpp:131] Top shape: 64 10 (640)
I0428 19:42:30.173867 25079 net.cpp:139] Memory required for data: 1089280
I0428 19:42:30.173873 25079 layer_factory.hpp:77] Creating layer relu2
I0428 19:42:30.173880 25079 net.cpp:86] Creating Layer relu2
I0428 19:42:30.173884 25079 net.cpp:408] relu2 <- ip2
I0428 19:42:30.173889 25079 net.cpp:369] relu2 -> ip2 (in-place)
I0428 19:42:30.174731 25079 net.cpp:124] Setting up relu2
I0428 19:42:30.174746 25079 net.cpp:131] Top shape: 64 10 (640)
I0428 19:42:30.174751 25079 net.cpp:139] Memory required for data: 1091840
I0428 19:42:30.174754 25079 layer_factory.hpp:77] Creating layer loss
I0428 19:42:30.174762 25079 net.cpp:86] Creating Layer loss
I0428 19:42:30.174765 25079 net.cpp:408] loss <- ip2
I0428 19:42:30.174772 25079 net.cpp:408] loss <- label
I0428 19:42:30.174778 25079 net.cpp:382] loss -> loss
I0428 19:42:30.174803 25079 layer_factory.hpp:77] Creating layer loss
…
I0428 19:42:30.175521 25079 solver.cpp:173] Creating test net (#0) specified by net file: ECE595/mnist/train_test/var_everything2/lenet_train_test395.prototxt
I0428 19:42:30.175551 25079 net.cpp:296] The NetState phase (1) differed from the phase (0) specified by a rule in layer mnist
I0428 19:42:30.175659 25079 net.cpp:53] Initializing net from parameters: 
name: "LeNet"
state {
  phase: TEST
}
layer {
  name: "mnist"
  type: "Data"
  top: "data"
  top: "label"
  include {
    phase: TEST
  }
  transform_param {
    scale: 0.00390625
  }
  data_param {
    source: "examples/mnist/mnist_test_lmdb"
    batch_size: 100
    backend: LMDB
  }
}
layer {
  name: "conv0"
  type: "Convolution"
  bottom: "data"
  top: "conv0"
  param {
    lr_mult: 1
  }
  param {
    lr_mult: 2
  }
  convolution_param {
    num_output: 2
    kernel_size: 5
    stride: 1
    weight_filler {
      type: "xavier"
    }
    bias_filler {
      type: "constant"
    }
  }
}
layer {
  name: "pool0"
  type: "Pooling"
  bottom: "conv0"
  top: "pool0"
  pooling_param {
    pool: MAX
    kernel_size: 2
    stride: 2
  }
}
layer {
  name: "conv1"
  type: "Convolution"
  bottom: "pool0"
  top: "conv1"
  param {
    lr_mult: 1
  }
  param {
    lr_mult: 2
  }
  convolution_param {
    num_output: 25
    kernel_size: 5
    stride: 1
    weight_filler {
      type: "xavier"
    }
    bias_filler {
      type: "constant"
    }
  }
}
layer {
  name: "pool1"
  type: "Pooling"
  bottom: "conv1"
  top: "pool1"
  pooling_param {
    pool: MAX
    kernel_size: 2
    stride: 2
  }
}
layer {
  name: "ip1"
  type: "InnerProduct"
  bottom: "pool1"
  top: "ip1"
  param {
    lr_mult: 1
  }
  param {
    lr_mult: 2
  }
  inner_product_param {
    num_output: 10
    weight_filler {
      type: "xavier"
    }
    bias_filler {
      type: "constant"
    }
  }
}
layer {
  name: "relu1"
  type: "ReLU"
  bottom: "ip1"
  top: "ip1"
}
layer {
  name: "ip2"
  type: "InnerProduct"
  bottom: "ip1"
  top: "ip2"
  param {
    lr_mult: 1
  }
  param {
    lr_mult: 2
  }
  inner_product_param {
    num_output: 10
    weight_filler {
      type: "xavier"
    }
    bias_filler {
      type: "constant"
    }
  }
}
layer {
  name: "relu2"
  type: "ReLU"
  bottom: "ip2"
  top: "ip2"
}
layer {
  name: "accuracy"
  type: "Accuracy"
  bottom: "ip2"
  bottom: "label"
  top: "accuracy"
  include {
    phase: TEST
  }
}
layer {
  name: "loss"
  type: "SoftmaxWithLoss"
  bottom: "ip2"
  bottom: "label"
  top: "loss"
}
I0428 19:42:30.175734 25079 layer_factory.hpp:77] Creating layer mnist
I0428 19:42:30.175786 25079 db_lmdb.cpp:35] Opened lmdb examples/mnist/mnist_test_lmdb
I0428 19:42:30.175799 25079 net.cpp:86] Creating Layer mnist
I0428 19:42:30.175804 25079 net.cpp:382] mnist -> data
I0428 19:42:30.175813 25079 net.cpp:382] mnist -> label
I0428 19:42:30.175914 25079 data_layer.cpp:45] output data size: 100,1,28,28
I0428 19:42:30.178102 25079 net.cpp:124] Setting up mnist
I0428 19:42:30.178117 25079 net.cpp:131] Top shape: 100 1 28 28 (78400)
I0428 19:42:30.178123 25079 net.cpp:131] Top shape: 100 (100)
I0428 19:42:30.178128 25079 net.cpp:139] Memory required for data: 314000
I0428 19:42:30.178131 25079 layer_factory.hpp:77] Creating layer label_mnist_1_split
I0428 19:42:30.178139 25079 net.cpp:86] Creating Layer label_mnist_1_split
I0428 19:42:30.178143 25079 net.cpp:408] label_mnist_1_split <- label
I0428 19:42:30.178149 25079 net.cpp:382] label_mnist_1_split -> label_mnist_1_split_0
I0428 19:42:30.178158 25079 net.cpp:382] label_mnist_1_split -> label_mnist_1_split_1
I0428 19:42:30.178282 25079 net.cpp:124] Setting up label_mnist_1_split
I0428 19:42:30.178304 25079 net.cpp:131] Top shape: 100 (100)
I0428 19:42:30.178309 25079 net.cpp:131] Top shape: 100 (100)
I0428 19:42:30.178313 25079 net.cpp:139] Memory required for data: 314800
I0428 19:42:30.178318 25079 layer_factory.hpp:77] Creating layer conv0
I0428 19:42:30.178328 25079 net.cpp:86] Creating Layer conv0
I0428 19:42:30.178333 25079 net.cpp:408] conv0 <- data
I0428 19:42:30.178339 25079 net.cpp:382] conv0 -> conv0
I0428 19:42:30.180106 25079 net.cpp:124] Setting up conv0
I0428 19:42:30.180124 25079 net.cpp:131] Top shape: 100 2 24 24 (115200)
I0428 19:42:30.180129 25079 net.cpp:139] Memory required for data: 775600
I0428 19:42:30.180140 25079 layer_factory.hpp:77] Creating layer pool0
I0428 19:42:30.180147 25079 net.cpp:86] Creating Layer pool0
I0428 19:42:30.180152 25079 net.cpp:408] pool0 <- conv0
I0428 19:42:30.180157 25079 net.cpp:382] pool0 -> pool0
I0428 19:42:30.180199 25079 net.cpp:124] Setting up pool0
I0428 19:42:30.180207 25079 net.cpp:131] Top shape: 100 2 12 12 (28800)
I0428 19:42:30.180210 25079 net.cpp:139] Memory required for data: 890800
I0428 19:42:30.180214 25079 layer_factory.hpp:77] Creating layer conv1
I0428 19:42:30.180224 25079 net.cpp:86] Creating Layer conv1
I0428 19:42:30.180229 25079 net.cpp:408] conv1 <- pool0
I0428 19:42:30.180235 25079 net.cpp:382] conv1 -> conv1
I0428 19:42:30.182046 25079 net.cpp:124] Setting up conv1
I0428 19:42:30.182062 25079 net.cpp:131] Top shape: 100 25 8 8 (160000)
I0428 19:42:30.182066 25079 net.cpp:139] Memory required for data: 1530800
I0428 19:42:30.182077 25079 layer_factory.hpp:77] Creating layer pool1
I0428 19:42:30.182085 25079 net.cpp:86] Creating Layer pool1
I0428 19:42:30.182090 25079 net.cpp:408] pool1 <- conv1
I0428 19:42:30.182096 25079 net.cpp:382] pool1 -> pool1
I0428 19:42:30.182137 25079 net.cpp:124] Setting up pool1
I0428 19:42:30.182145 25079 net.cpp:131] Top shape: 100 25 4 4 (40000)
I0428 19:42:30.182149 25079 net.cpp:139] Memory required for data: 1690800
I0428 19:42:30.182152 25079 layer_factory.hpp:77] Creating layer ip1
I0428 19:42:30.182162 25079 net.cpp:86] Creating Layer ip1
I0428 19:42:30.182165 25079 net.cpp:408] ip1 <- pool1
I0428 19:42:30.182170 25079 net.cpp:382] ip1 -> ip1
I0428 19:42:30.182319 25079 net.cpp:124] Setting up ip1
I0428 19:42:30.182328 25079 net.cpp:131] Top shape: 100 10 (1000)
I0428 19:42:30.182332 25079 net.cpp:139] Memory required for data: 1694800
I0428 19:42:30.182340 25079 layer_factory.hpp:77] Creating layer relu1
I0428 19:42:30.182346 25079 net.cpp:86] Creating Layer relu1
I0428 19:42:30.182351 25079 net.cpp:408] relu1 <- ip1
I0428 19:42:30.182356 25079 net.cpp:369] relu1 -> ip1 (in-place)
I0428 19:42:30.182543 25079 net.cpp:124] Setting up relu1
I0428 19:42:30.182556 25079 net.cpp:131] Top shape: 100 10 (1000)
I0428 19:42:30.182560 25079 net.cpp:139] Memory required for data: 1698800
I0428 19:42:30.182564 25079 layer_factory.hpp:77] Creating layer ip2
I0428 19:42:30.182572 25079 net.cpp:86] Creating Layer ip2
I0428 19:42:30.182576 25079 net.cpp:408] ip2 <- ip1
I0428 19:42:30.182582 25079 net.cpp:382] ip2 -> ip2
I0428 19:42:30.182694 25079 net.cpp:124] Setting up ip2
I0428 19:42:30.182703 25079 net.cpp:131] Top shape: 100 10 (1000)
I0428 19:42:30.182706 25079 net.cpp:139] Memory required for data: 1702800
I0428 19:42:30.182713 25079 layer_factory.hpp:77] Creating layer relu2
I0428 19:42:30.182718 25079 net.cpp:86] Creating Layer relu2
I0428 19:42:30.182723 25079 net.cpp:408] relu2 <- ip2
I0428 19:42:30.182726 25079 net.cpp:369] relu2 -> ip2 (in-place)
I0428 19:42:30.182930 25079 net.cpp:124] Setting up relu2
I0428 19:42:30.182940 25079 net.cpp:131] Top shape: 100 10 (1000)
I0428 19:42:30.182945 25079 net.cpp:139] Memory required for data: 1706800
I0428 19:42:30.182948 25079 layer_factory.hpp:77] Creating layer ip2_relu2_0_split
I0428 19:42:30.182953 25079 net.cpp:86] Creating Layer ip2_relu2_0_split
I0428 19:42:30.182957 25079 net.cpp:408] ip2_relu2_0_split <- ip2
I0428 19:42:30.182963 25079 net.cpp:382] ip2_relu2_0_split -> ip2_relu2_0_split_0
I0428 19:42:30.182983 25079 net.cpp:382] ip2_relu2_0_split -> ip2_relu2_0_split_1
I0428 19:42:30.183059 25079 net.cpp:124] Setting up ip2_relu2_0_split
I0428 19:42:30.183068 25079 net.cpp:131] Top shape: 100 10 (1000)
I0428 19:42:30.183073 25079 net.cpp:131] Top shape: 100 10 (1000)
I0428 19:42:30.183091 25079 net.cpp:139] Memory required for data: 1714800
I0428 19:42:30.183095 25079 layer_factory.hpp:77] Creating layer accuracy
I0428 19:42:30.183102 25079 net.cpp:86] Creating Layer accuracy
I0428 19:42:30.183106 25079 net.cpp:408] accuracy <- ip2_relu2_0_split_0
I0428 19:42:30.183111 25079 net.cpp:408] accuracy <- label_mnist_1_split_0
I0428 19:42:30.183117 25079 net.cpp:382] accuracy -> accuracy
…
