…
I0428 20:00:11.285315 29417 net.cpp:296] The NetState phase (0) differed from the phase (1) specified by a rule in layer mnist
I0428 20:00:11.285333 29417 net.cpp:296] The NetState phase (0) differed from the phase (1) specified by a rule in layer accuracy
I0428 20:00:11.285424 29417 net.cpp:53] Initializing net from parameters: 
name: "LeNet"
state {
  phase: TRAIN
  level: 0
  stage: ""
}
layer {
  name: "mnist"
  type: "Data"
  top: "data"
  top: "label"
  include {
    phase: TRAIN
  }
  transform_param {
    scale: 0.00390625
  }
  data_param {
    source: "examples/mnist/mnist_train_lmdb"
    batch_size: 64
    backend: LMDB
  }
}
layer {
  name: "conv0"
  type: "Convolution"
  bottom: "data"
  top: "conv0"
  param {
    lr_mult: 1
  }
  param {
    lr_mult: 2
  }
  convolution_param {
    num_output: 10
    kernel_size: 5
    stride: 1
    weight_filler {
      type: "xavier"
    }
    bias_filler {
      type: "constant"
    }
  }
}
layer {
  name: "pool0"
  type: "Pooling"
  bottom: "conv0"
  top: "pool0"
  pooling_param {
    pool: MAX
    kernel_size: 2
    stride: 2
  }
}
layer {
  name: "conv1"
  type: "Convolution"
  bottom: "pool0"
  top: "conv1"
  param {
    lr_mult: 1
  }
  param {
    lr_mult: 2
  }
  convolution_param {
    num_output: 25
    kernel_size: 5
    stride: 1
    weight_filler {
      type: "xavier"
    }
    bias_filler {
      type: "constant"
    }
  }
}
layer {
  name: "pool1"
  type: "Pooling"
  bottom: "conv1"
  top: "pool1"
  pooling_param {
    pool: MAX
    kernel_size: 2
    stride: 2
  }
}
layer {
  name: "ip1"
  type: "InnerProduct"
  bottom: "pool1"
  top: "ip1"
  param {
    lr_mult: 1
  }
  param {
    lr_mult: 2
  }
  inner_product_param {
    num_output: 50
    weight_filler {
      type: "xavier"
    }
    bias_filler {
      type: "constant"
    }
  }
}
layer {
  name: "relu1"
  type: "ReLU"
  bottom: "ip1"
  top: "ip1"
}
layer {
  name: "ip2"
  type: "InnerProduct"
  bottom: "ip1"
  top: "ip2"
  param {
    lr_mult: 1
  }
  param {
    lr_mult: 2
  }
  inner_product_param {
    num_output: 10
    weight_filler {
      type: "xavier"
    }
    bias_filler {
      type: "constant"
    }
  }
}
layer {
  name: "relu2"
  type: "ReLU"
  bottom: "ip2"
  top: "ip2"
}
layer {
  name: "loss"
  type: "SoftmaxWithLoss"
  bottom: "ip2"
  bottom: "label"
  top: "loss"
}
I0428 20:00:11.285504 29417 layer_factory.hpp:77] Creating layer mnist
I0428 20:00:11.285606 29417 db_lmdb.cpp:35] Opened lmdb examples/mnist/mnist_train_lmdb
I0428 20:00:11.285629 29417 net.cpp:86] Creating Layer mnist
I0428 20:00:11.285640 29417 net.cpp:382] mnist -> data
I0428 20:00:11.285661 29417 net.cpp:382] mnist -> label
I0428 20:00:11.286758 29417 data_layer.cpp:45] output data size: 64,1,28,28
I0428 20:00:11.289427 29417 net.cpp:124] Setting up mnist
I0428 20:00:11.289444 29417 net.cpp:131] Top shape: 64 1 28 28 (50176)
I0428 20:00:11.289450 29417 net.cpp:131] Top shape: 64 (64)
I0428 20:00:11.289454 29417 net.cpp:139] Memory required for data: 200960
I0428 20:00:11.289460 29417 layer_factory.hpp:77] Creating layer conv0
I0428 20:00:11.289479 29417 net.cpp:86] Creating Layer conv0
I0428 20:00:11.289484 29417 net.cpp:408] conv0 <- data
I0428 20:00:11.289497 29417 net.cpp:382] conv0 -> conv0
I0428 20:00:11.580193 29417 net.cpp:124] Setting up conv0
I0428 20:00:11.580224 29417 net.cpp:131] Top shape: 64 10 24 24 (368640)
I0428 20:00:11.580229 29417 net.cpp:139] Memory required for data: 1675520
I0428 20:00:11.580271 29417 layer_factory.hpp:77] Creating layer pool0
I0428 20:00:11.580286 29417 net.cpp:86] Creating Layer pool0
I0428 20:00:11.580291 29417 net.cpp:408] pool0 <- conv0
I0428 20:00:11.580296 29417 net.cpp:382] pool0 -> pool0
I0428 20:00:11.580356 29417 net.cpp:124] Setting up pool0
I0428 20:00:11.580365 29417 net.cpp:131] Top shape: 64 10 12 12 (92160)
I0428 20:00:11.580369 29417 net.cpp:139] Memory required for data: 2044160
I0428 20:00:11.580374 29417 layer_factory.hpp:77] Creating layer conv1
I0428 20:00:11.580385 29417 net.cpp:86] Creating Layer conv1
I0428 20:00:11.580389 29417 net.cpp:408] conv1 <- pool0
I0428 20:00:11.580395 29417 net.cpp:382] conv1 -> conv1
I0428 20:00:11.583564 29417 net.cpp:124] Setting up conv1
I0428 20:00:11.583582 29417 net.cpp:131] Top shape: 64 25 8 8 (102400)
I0428 20:00:11.583587 29417 net.cpp:139] Memory required for data: 2453760
I0428 20:00:11.583597 29417 layer_factory.hpp:77] Creating layer pool1
I0428 20:00:11.583606 29417 net.cpp:86] Creating Layer pool1
I0428 20:00:11.583611 29417 net.cpp:408] pool1 <- conv1
I0428 20:00:11.583617 29417 net.cpp:382] pool1 -> pool1
I0428 20:00:11.583662 29417 net.cpp:124] Setting up pool1
I0428 20:00:11.583667 29417 net.cpp:131] Top shape: 64 25 4 4 (25600)
I0428 20:00:11.583670 29417 net.cpp:139] Memory required for data: 2556160
I0428 20:00:11.583674 29417 layer_factory.hpp:77] Creating layer ip1
I0428 20:00:11.583688 29417 net.cpp:86] Creating Layer ip1
I0428 20:00:11.583691 29417 net.cpp:408] ip1 <- pool1
I0428 20:00:11.583698 29417 net.cpp:382] ip1 -> ip1
I0428 20:00:11.583940 29417 net.cpp:124] Setting up ip1
I0428 20:00:11.583950 29417 net.cpp:131] Top shape: 64 50 (3200)
I0428 20:00:11.583953 29417 net.cpp:139] Memory required for data: 2568960
I0428 20:00:11.583961 29417 layer_factory.hpp:77] Creating layer relu1
I0428 20:00:11.583968 29417 net.cpp:86] Creating Layer relu1
I0428 20:00:11.583972 29417 net.cpp:408] relu1 <- ip1
I0428 20:00:11.583977 29417 net.cpp:369] relu1 -> ip1 (in-place)
I0428 20:00:11.584168 29417 net.cpp:124] Setting up relu1
I0428 20:00:11.584178 29417 net.cpp:131] Top shape: 64 50 (3200)
I0428 20:00:11.584182 29417 net.cpp:139] Memory required for data: 2581760
I0428 20:00:11.584187 29417 layer_factory.hpp:77] Creating layer ip2
I0428 20:00:11.584193 29417 net.cpp:86] Creating Layer ip2
I0428 20:00:11.584197 29417 net.cpp:408] ip2 <- ip1
I0428 20:00:11.584203 29417 net.cpp:382] ip2 -> ip2
I0428 20:00:11.584316 29417 net.cpp:124] Setting up ip2
I0428 20:00:11.584323 29417 net.cpp:131] Top shape: 64 10 (640)
I0428 20:00:11.584327 29417 net.cpp:139] Memory required for data: 2584320
I0428 20:00:11.584333 29417 layer_factory.hpp:77] Creating layer relu2
I0428 20:00:11.584341 29417 net.cpp:86] Creating Layer relu2
I0428 20:00:11.584344 29417 net.cpp:408] relu2 <- ip2
I0428 20:00:11.584350 29417 net.cpp:369] relu2 -> ip2 (in-place)
I0428 20:00:11.585196 29417 net.cpp:124] Setting up relu2
I0428 20:00:11.585211 29417 net.cpp:131] Top shape: 64 10 (640)
I0428 20:00:11.585216 29417 net.cpp:139] Memory required for data: 2586880
I0428 20:00:11.585219 29417 layer_factory.hpp:77] Creating layer loss
I0428 20:00:11.585227 29417 net.cpp:86] Creating Layer loss
I0428 20:00:11.585230 29417 net.cpp:408] loss <- ip2
I0428 20:00:11.585237 29417 net.cpp:408] loss <- label
I0428 20:00:11.585242 29417 net.cpp:382] loss -> loss
I0428 20:00:11.585266 29417 layer_factory.hpp:77] Creating layer loss
…
I0428 20:00:11.585981 29417 solver.cpp:173] Creating test net (#0) specified by net file: ECE595/mnist/train_test/var_everything2/lenet_train_test869.prototxt
I0428 20:00:11.586011 29417 net.cpp:296] The NetState phase (1) differed from the phase (0) specified by a rule in layer mnist
I0428 20:00:11.586112 29417 net.cpp:53] Initializing net from parameters: 
name: "LeNet"
state {
  phase: TEST
}
layer {
  name: "mnist"
  type: "Data"
  top: "data"
  top: "label"
  include {
    phase: TEST
  }
  transform_param {
    scale: 0.00390625
  }
  data_param {
    source: "examples/mnist/mnist_test_lmdb"
    batch_size: 100
    backend: LMDB
  }
}
layer {
  name: "conv0"
  type: "Convolution"
  bottom: "data"
  top: "conv0"
  param {
    lr_mult: 1
  }
  param {
    lr_mult: 2
  }
  convolution_param {
    num_output: 10
    kernel_size: 5
    stride: 1
    weight_filler {
      type: "xavier"
    }
    bias_filler {
      type: "constant"
    }
  }
}
layer {
  name: "pool0"
  type: "Pooling"
  bottom: "conv0"
  top: "pool0"
  pooling_param {
    pool: MAX
    kernel_size: 2
    stride: 2
  }
}
layer {
  name: "conv1"
  type: "Convolution"
  bottom: "pool0"
  top: "conv1"
  param {
    lr_mult: 1
  }
  param {
    lr_mult: 2
  }
  convolution_param {
    num_output: 25
    kernel_size: 5
    stride: 1
    weight_filler {
      type: "xavier"
    }
    bias_filler {
      type: "constant"
    }
  }
}
layer {
  name: "pool1"
  type: "Pooling"
  bottom: "conv1"
  top: "pool1"
  pooling_param {
    pool: MAX
    kernel_size: 2
    stride: 2
  }
}
layer {
  name: "ip1"
  type: "InnerProduct"
  bottom: "pool1"
  top: "ip1"
  param {
    lr_mult: 1
  }
  param {
    lr_mult: 2
  }
  inner_product_param {
    num_output: 50
    weight_filler {
      type: "xavier"
    }
    bias_filler {
      type: "constant"
    }
  }
}
layer {
  name: "relu1"
  type: "ReLU"
  bottom: "ip1"
  top: "ip1"
}
layer {
  name: "ip2"
  type: "InnerProduct"
  bottom: "ip1"
  top: "ip2"
  param {
    lr_mult: 1
  }
  param {
    lr_mult: 2
  }
  inner_product_param {
    num_output: 10
    weight_filler {
      type: "xavier"
    }
    bias_filler {
      type: "constant"
    }
  }
}
layer {
  name: "relu2"
  type: "ReLU"
  bottom: "ip2"
  top: "ip2"
}
layer {
  name: "accuracy"
  type: "Accuracy"
  bottom: "ip2"
  bottom: "label"
  top: "accuracy"
  include {
    phase: TEST
  }
}
layer {
  name: "loss"
  type: "SoftmaxWithLoss"
  bottom: "ip2"
  bottom: "label"
  top: "loss"
}
I0428 20:00:11.586186 29417 layer_factory.hpp:77] Creating layer mnist
I0428 20:00:11.586242 29417 db_lmdb.cpp:35] Opened lmdb examples/mnist/mnist_test_lmdb
I0428 20:00:11.586256 29417 net.cpp:86] Creating Layer mnist
I0428 20:00:11.586261 29417 net.cpp:382] mnist -> data
I0428 20:00:11.586271 29417 net.cpp:382] mnist -> label
I0428 20:00:11.586365 29417 data_layer.cpp:45] output data size: 100,1,28,28
I0428 20:00:11.588541 29417 net.cpp:124] Setting up mnist
I0428 20:00:11.588557 29417 net.cpp:131] Top shape: 100 1 28 28 (78400)
I0428 20:00:11.588563 29417 net.cpp:131] Top shape: 100 (100)
I0428 20:00:11.588567 29417 net.cpp:139] Memory required for data: 314000
I0428 20:00:11.588572 29417 layer_factory.hpp:77] Creating layer label_mnist_1_split
I0428 20:00:11.588584 29417 net.cpp:86] Creating Layer label_mnist_1_split
I0428 20:00:11.588588 29417 net.cpp:408] label_mnist_1_split <- label
I0428 20:00:11.588593 29417 net.cpp:382] label_mnist_1_split -> label_mnist_1_split_0
I0428 20:00:11.588601 29417 net.cpp:382] label_mnist_1_split -> label_mnist_1_split_1
I0428 20:00:11.588671 29417 net.cpp:124] Setting up label_mnist_1_split
I0428 20:00:11.588678 29417 net.cpp:131] Top shape: 100 (100)
I0428 20:00:11.588690 29417 net.cpp:131] Top shape: 100 (100)
I0428 20:00:11.588693 29417 net.cpp:139] Memory required for data: 314800
I0428 20:00:11.588696 29417 layer_factory.hpp:77] Creating layer conv0
I0428 20:00:11.588706 29417 net.cpp:86] Creating Layer conv0
I0428 20:00:11.588711 29417 net.cpp:408] conv0 <- data
I0428 20:00:11.588716 29417 net.cpp:382] conv0 -> conv0
I0428 20:00:11.590613 29417 net.cpp:124] Setting up conv0
I0428 20:00:11.590631 29417 net.cpp:131] Top shape: 100 10 24 24 (576000)
I0428 20:00:11.590636 29417 net.cpp:139] Memory required for data: 2618800
I0428 20:00:11.590646 29417 layer_factory.hpp:77] Creating layer pool0
I0428 20:00:11.590654 29417 net.cpp:86] Creating Layer pool0
I0428 20:00:11.590658 29417 net.cpp:408] pool0 <- conv0
I0428 20:00:11.590664 29417 net.cpp:382] pool0 -> pool0
I0428 20:00:11.590706 29417 net.cpp:124] Setting up pool0
I0428 20:00:11.590713 29417 net.cpp:131] Top shape: 100 10 12 12 (144000)
I0428 20:00:11.590715 29417 net.cpp:139] Memory required for data: 3194800
I0428 20:00:11.590719 29417 layer_factory.hpp:77] Creating layer conv1
I0428 20:00:11.590729 29417 net.cpp:86] Creating Layer conv1
I0428 20:00:11.590733 29417 net.cpp:408] conv1 <- pool0
I0428 20:00:11.590739 29417 net.cpp:382] conv1 -> conv1
I0428 20:00:11.593094 29417 net.cpp:124] Setting up conv1
I0428 20:00:11.593111 29417 net.cpp:131] Top shape: 100 25 8 8 (160000)
I0428 20:00:11.593114 29417 net.cpp:139] Memory required for data: 3834800
I0428 20:00:11.593125 29417 layer_factory.hpp:77] Creating layer pool1
I0428 20:00:11.593134 29417 net.cpp:86] Creating Layer pool1
I0428 20:00:11.593138 29417 net.cpp:408] pool1 <- conv1
I0428 20:00:11.593144 29417 net.cpp:382] pool1 -> pool1
I0428 20:00:11.593195 29417 net.cpp:124] Setting up pool1
I0428 20:00:11.593209 29417 net.cpp:131] Top shape: 100 25 4 4 (40000)
I0428 20:00:11.593214 29417 net.cpp:139] Memory required for data: 3994800
I0428 20:00:11.593216 29417 layer_factory.hpp:77] Creating layer ip1
I0428 20:00:11.593224 29417 net.cpp:86] Creating Layer ip1
I0428 20:00:11.593226 29417 net.cpp:408] ip1 <- pool1
I0428 20:00:11.593233 29417 net.cpp:382] ip1 -> ip1
I0428 20:00:11.593519 29417 net.cpp:124] Setting up ip1
I0428 20:00:11.593529 29417 net.cpp:131] Top shape: 100 50 (5000)
I0428 20:00:11.593534 29417 net.cpp:139] Memory required for data: 4014800
I0428 20:00:11.593544 29417 layer_factory.hpp:77] Creating layer relu1
I0428 20:00:11.593549 29417 net.cpp:86] Creating Layer relu1
I0428 20:00:11.593554 29417 net.cpp:408] relu1 <- ip1
I0428 20:00:11.593560 29417 net.cpp:369] relu1 -> ip1 (in-place)
I0428 20:00:11.593757 29417 net.cpp:124] Setting up relu1
I0428 20:00:11.593770 29417 net.cpp:131] Top shape: 100 50 (5000)
I0428 20:00:11.593772 29417 net.cpp:139] Memory required for data: 4034800
I0428 20:00:11.593776 29417 layer_factory.hpp:77] Creating layer ip2
I0428 20:00:11.593786 29417 net.cpp:86] Creating Layer ip2
I0428 20:00:11.593791 29417 net.cpp:408] ip2 <- ip1
I0428 20:00:11.593806 29417 net.cpp:382] ip2 -> ip2
I0428 20:00:11.593930 29417 net.cpp:124] Setting up ip2
I0428 20:00:11.593940 29417 net.cpp:131] Top shape: 100 10 (1000)
I0428 20:00:11.593943 29417 net.cpp:139] Memory required for data: 4038800
I0428 20:00:11.593950 29417 layer_factory.hpp:77] Creating layer relu2
I0428 20:00:11.593955 29417 net.cpp:86] Creating Layer relu2
I0428 20:00:11.593960 29417 net.cpp:408] relu2 <- ip2
I0428 20:00:11.593966 29417 net.cpp:369] relu2 -> ip2 (in-place)
I0428 20:00:11.594158 29417 net.cpp:124] Setting up relu2
I0428 20:00:11.594168 29417 net.cpp:131] Top shape: 100 10 (1000)
I0428 20:00:11.594172 29417 net.cpp:139] Memory required for data: 4042800
I0428 20:00:11.594175 29417 layer_factory.hpp:77] Creating layer ip2_relu2_0_split
I0428 20:00:11.594182 29417 net.cpp:86] Creating Layer ip2_relu2_0_split
I0428 20:00:11.594184 29417 net.cpp:408] ip2_relu2_0_split <- ip2
I0428 20:00:11.594192 29417 net.cpp:382] ip2_relu2_0_split -> ip2_relu2_0_split_0
I0428 20:00:11.594213 29417 net.cpp:382] ip2_relu2_0_split -> ip2_relu2_0_split_1
I0428 20:00:11.594274 29417 net.cpp:124] Setting up ip2_relu2_0_split
I0428 20:00:11.594285 29417 net.cpp:131] Top shape: 100 10 (1000)
I0428 20:00:11.594290 29417 net.cpp:131] Top shape: 100 10 (1000)
I0428 20:00:11.594292 29417 net.cpp:139] Memory required for data: 4050800
I0428 20:00:11.594295 29417 layer_factory.hpp:77] Creating layer accuracy
I0428 20:00:11.594303 29417 net.cpp:86] Creating Layer accuracy
I0428 20:00:11.594307 29417 net.cpp:408] accuracy <- ip2_relu2_0_split_0
I0428 20:00:11.594312 29417 net.cpp:408] accuracy <- label_mnist_1_split_0
I0428 20:00:11.594318 29417 net.cpp:382] accuracy -> accuracy
…
