…
I0428 19:29:09.074647 21937 net.cpp:296] The NetState phase (0) differed from the phase (1) specified by a rule in layer mnist
I0428 19:29:09.074661 21937 net.cpp:296] The NetState phase (0) differed from the phase (1) specified by a rule in layer accuracy
I0428 19:29:09.074724 21937 net.cpp:53] Initializing net from parameters: 
name: "LeNet"
state {
  phase: TRAIN
  level: 0
  stage: ""
}
layer {
  name: "mnist"
  type: "Data"
  top: "data"
  top: "label"
  include {
    phase: TRAIN
  }
  transform_param {
    scale: 0.00390625
  }
  data_param {
    source: "examples/mnist/mnist_train_lmdb"
    batch_size: 64
    backend: LMDB
  }
}
layer {
  name: "conv0"
  type: "Convolution"
  bottom: "data"
  top: "conv0"
  param {
    lr_mult: 1
  }
  param {
    lr_mult: 2
  }
  convolution_param {
    num_output: 2
    kernel_size: 5
    stride: 1
    weight_filler {
      type: "xavier"
    }
    bias_filler {
      type: "constant"
    }
  }
}
layer {
  name: "pool0"
  type: "Pooling"
  bottom: "conv0"
  top: "pool0"
  pooling_param {
    pool: MAX
    kernel_size: 2
    stride: 2
  }
}
layer {
  name: "ip1"
  type: "InnerProduct"
  bottom: "pool0"
  top: "ip1"
  param {
    lr_mult: 1
  }
  param {
    lr_mult: 2
  }
  inner_product_param {
    num_output: 50
    weight_filler {
      type: "xavier"
    }
    bias_filler {
      type: "constant"
    }
  }
}
layer {
  name: "relu1"
  type: "ReLU"
  bottom: "ip1"
  top: "ip1"
}
layer {
  name: "ip2"
  type: "InnerProduct"
  bottom: "ip1"
  top: "ip2"
  param {
    lr_mult: 1
  }
  param {
    lr_mult: 2
  }
  inner_product_param {
    num_output: 10
    weight_filler {
      type: "xavier"
    }
    bias_filler {
      type: "constant"
    }
  }
}
layer {
  name: "relu2"
  type: "ReLU"
  bottom: "ip2"
  top: "ip2"
}
layer {
  name: "loss"
  type: "SoftmaxWithLoss"
  bottom: "ip2"
  bottom: "label"
  top: "loss"
}
I0428 19:29:09.074784 21937 layer_factory.hpp:77] Creating layer mnist
I0428 19:29:09.074882 21937 db_lmdb.cpp:35] Opened lmdb examples/mnist/mnist_train_lmdb
I0428 19:29:09.074900 21937 net.cpp:86] Creating Layer mnist
I0428 19:29:09.074908 21937 net.cpp:382] mnist -> data
I0428 19:29:09.074926 21937 net.cpp:382] mnist -> label
I0428 19:29:09.075850 21937 data_layer.cpp:45] output data size: 64,1,28,28
I0428 19:29:09.078142 21937 net.cpp:124] Setting up mnist
I0428 19:29:09.078172 21937 net.cpp:131] Top shape: 64 1 28 28 (50176)
I0428 19:29:09.078178 21937 net.cpp:131] Top shape: 64 (64)
I0428 19:29:09.078183 21937 net.cpp:139] Memory required for data: 200960
I0428 19:29:09.078189 21937 layer_factory.hpp:77] Creating layer conv0
I0428 19:29:09.078202 21937 net.cpp:86] Creating Layer conv0
I0428 19:29:09.078207 21937 net.cpp:408] conv0 <- data
I0428 19:29:09.078217 21937 net.cpp:382] conv0 -> conv0
I0428 19:29:09.318615 21937 net.cpp:124] Setting up conv0
I0428 19:29:09.318658 21937 net.cpp:131] Top shape: 64 2 24 24 (73728)
I0428 19:29:09.318662 21937 net.cpp:139] Memory required for data: 495872
I0428 19:29:09.318677 21937 layer_factory.hpp:77] Creating layer pool0
I0428 19:29:09.318691 21937 net.cpp:86] Creating Layer pool0
I0428 19:29:09.318694 21937 net.cpp:408] pool0 <- conv0
I0428 19:29:09.318701 21937 net.cpp:382] pool0 -> pool0
I0428 19:29:09.318759 21937 net.cpp:124] Setting up pool0
I0428 19:29:09.318766 21937 net.cpp:131] Top shape: 64 2 12 12 (18432)
I0428 19:29:09.318769 21937 net.cpp:139] Memory required for data: 569600
I0428 19:29:09.318789 21937 layer_factory.hpp:77] Creating layer ip1
I0428 19:29:09.318797 21937 net.cpp:86] Creating Layer ip1
I0428 19:29:09.318800 21937 net.cpp:408] ip1 <- pool0
I0428 19:29:09.318805 21937 net.cpp:382] ip1 -> ip1
I0428 19:29:09.319808 21937 net.cpp:124] Setting up ip1
I0428 19:29:09.319820 21937 net.cpp:131] Top shape: 64 50 (3200)
I0428 19:29:09.319840 21937 net.cpp:139] Memory required for data: 582400
I0428 19:29:09.319847 21937 layer_factory.hpp:77] Creating layer relu1
I0428 19:29:09.319854 21937 net.cpp:86] Creating Layer relu1
I0428 19:29:09.319874 21937 net.cpp:408] relu1 <- ip1
I0428 19:29:09.319878 21937 net.cpp:369] relu1 -> ip1 (in-place)
I0428 19:29:09.320097 21937 net.cpp:124] Setting up relu1
I0428 19:29:09.320106 21937 net.cpp:131] Top shape: 64 50 (3200)
I0428 19:29:09.320109 21937 net.cpp:139] Memory required for data: 595200
I0428 19:29:09.320113 21937 layer_factory.hpp:77] Creating layer ip2
I0428 19:29:09.320121 21937 net.cpp:86] Creating Layer ip2
I0428 19:29:09.320124 21937 net.cpp:408] ip2 <- ip1
I0428 19:29:09.320129 21937 net.cpp:382] ip2 -> ip2
I0428 19:29:09.320231 21937 net.cpp:124] Setting up ip2
I0428 19:29:09.320238 21937 net.cpp:131] Top shape: 64 10 (640)
I0428 19:29:09.320242 21937 net.cpp:139] Memory required for data: 597760
I0428 19:29:09.320250 21937 layer_factory.hpp:77] Creating layer relu2
I0428 19:29:09.320258 21937 net.cpp:86] Creating Layer relu2
I0428 19:29:09.320262 21937 net.cpp:408] relu2 <- ip2
I0428 19:29:09.320281 21937 net.cpp:369] relu2 -> ip2 (in-place)
I0428 19:29:09.321200 21937 net.cpp:124] Setting up relu2
I0428 19:29:09.321213 21937 net.cpp:131] Top shape: 64 10 (640)
I0428 19:29:09.321218 21937 net.cpp:139] Memory required for data: 600320
I0428 19:29:09.321220 21937 layer_factory.hpp:77] Creating layer loss
I0428 19:29:09.321228 21937 net.cpp:86] Creating Layer loss
I0428 19:29:09.321230 21937 net.cpp:408] loss <- ip2
I0428 19:29:09.321235 21937 net.cpp:408] loss <- label
I0428 19:29:09.321240 21937 net.cpp:382] loss -> loss
I0428 19:29:09.321259 21937 layer_factory.hpp:77] Creating layer loss
…
I0428 19:29:09.321801 21937 solver.cpp:173] Creating test net (#0) specified by net file: ECE595/mnist/train_test/var_everything2/lenet_train_test49.prototxt
I0428 19:29:09.321825 21937 net.cpp:296] The NetState phase (1) differed from the phase (0) specified by a rule in layer mnist
I0428 19:29:09.321892 21937 net.cpp:53] Initializing net from parameters: 
name: "LeNet"
state {
  phase: TEST
}
layer {
  name: "mnist"
  type: "Data"
  top: "data"
  top: "label"
  include {
    phase: TEST
  }
  transform_param {
    scale: 0.00390625
  }
  data_param {
    source: "examples/mnist/mnist_test_lmdb"
    batch_size: 100
    backend: LMDB
  }
}
layer {
  name: "conv0"
  type: "Convolution"
  bottom: "data"
  top: "conv0"
  param {
    lr_mult: 1
  }
  param {
    lr_mult: 2
  }
  convolution_param {
    num_output: 2
    kernel_size: 5
    stride: 1
    weight_filler {
      type: "xavier"
    }
    bias_filler {
      type: "constant"
    }
  }
}
layer {
  name: "pool0"
  type: "Pooling"
  bottom: "conv0"
  top: "pool0"
  pooling_param {
    pool: MAX
    kernel_size: 2
    stride: 2
  }
}
layer {
  name: "ip1"
  type: "InnerProduct"
  bottom: "pool0"
  top: "ip1"
  param {
    lr_mult: 1
  }
  param {
    lr_mult: 2
  }
  inner_product_param {
    num_output: 50
    weight_filler {
      type: "xavier"
    }
    bias_filler {
      type: "constant"
    }
  }
}
layer {
  name: "relu1"
  type: "ReLU"
  bottom: "ip1"
  top: "ip1"
}
layer {
  name: "ip2"
  type: "InnerProduct"
  bottom: "ip1"
  top: "ip2"
  param {
    lr_mult: 1
  }
  param {
    lr_mult: 2
  }
  inner_product_param {
    num_output: 10
    weight_filler {
      type: "xavier"
    }
    bias_filler {
      type: "constant"
    }
  }
}
layer {
  name: "relu2"
  type: "ReLU"
  bottom: "ip2"
  top: "ip2"
}
layer {
  name: "accuracy"
  type: "Accuracy"
  bottom: "ip2"
  bottom: "label"
  top: "accuracy"
  include {
    phase: TEST
  }
}
layer {
  name: "loss"
  type: "SoftmaxWithLoss"
  bottom: "ip2"
  bottom: "label"
  top: "loss"
}
I0428 19:29:09.321990 21937 layer_factory.hpp:77] Creating layer mnist
I0428 19:29:09.322033 21937 db_lmdb.cpp:35] Opened lmdb examples/mnist/mnist_test_lmdb
I0428 19:29:09.322046 21937 net.cpp:86] Creating Layer mnist
I0428 19:29:09.322062 21937 net.cpp:382] mnist -> data
I0428 19:29:09.322069 21937 net.cpp:382] mnist -> label
I0428 19:29:09.322154 21937 data_layer.cpp:45] output data size: 100,1,28,28
I0428 19:29:09.324448 21937 net.cpp:124] Setting up mnist
I0428 19:29:09.324478 21937 net.cpp:131] Top shape: 100 1 28 28 (78400)
I0428 19:29:09.324483 21937 net.cpp:131] Top shape: 100 (100)
I0428 19:29:09.324487 21937 net.cpp:139] Memory required for data: 314000
I0428 19:29:09.324491 21937 layer_factory.hpp:77] Creating layer label_mnist_1_split
I0428 19:29:09.324517 21937 net.cpp:86] Creating Layer label_mnist_1_split
I0428 19:29:09.324523 21937 net.cpp:408] label_mnist_1_split <- label
I0428 19:29:09.324528 21937 net.cpp:382] label_mnist_1_split -> label_mnist_1_split_0
I0428 19:29:09.324534 21937 net.cpp:382] label_mnist_1_split -> label_mnist_1_split_1
I0428 19:29:09.324575 21937 net.cpp:124] Setting up label_mnist_1_split
I0428 19:29:09.324581 21937 net.cpp:131] Top shape: 100 (100)
I0428 19:29:09.324585 21937 net.cpp:131] Top shape: 100 (100)
I0428 19:29:09.324589 21937 net.cpp:139] Memory required for data: 314800
I0428 19:29:09.324591 21937 layer_factory.hpp:77] Creating layer conv0
I0428 19:29:09.324599 21937 net.cpp:86] Creating Layer conv0
I0428 19:29:09.324618 21937 net.cpp:408] conv0 <- data
I0428 19:29:09.324630 21937 net.cpp:382] conv0 -> conv0
I0428 19:29:09.326432 21937 net.cpp:124] Setting up conv0
I0428 19:29:09.326447 21937 net.cpp:131] Top shape: 100 2 24 24 (115200)
I0428 19:29:09.326450 21937 net.cpp:139] Memory required for data: 775600
I0428 19:29:09.326458 21937 layer_factory.hpp:77] Creating layer pool0
I0428 19:29:09.326465 21937 net.cpp:86] Creating Layer pool0
I0428 19:29:09.326468 21937 net.cpp:408] pool0 <- conv0
I0428 19:29:09.326473 21937 net.cpp:382] pool0 -> pool0
I0428 19:29:09.326506 21937 net.cpp:124] Setting up pool0
I0428 19:29:09.326514 21937 net.cpp:131] Top shape: 100 2 12 12 (28800)
I0428 19:29:09.326516 21937 net.cpp:139] Memory required for data: 890800
I0428 19:29:09.326519 21937 layer_factory.hpp:77] Creating layer ip1
I0428 19:29:09.326524 21937 net.cpp:86] Creating Layer ip1
I0428 19:29:09.326527 21937 net.cpp:408] ip1 <- pool0
I0428 19:29:09.326532 21937 net.cpp:382] ip1 -> ip1
I0428 19:29:09.326714 21937 net.cpp:124] Setting up ip1
I0428 19:29:09.326721 21937 net.cpp:131] Top shape: 100 50 (5000)
I0428 19:29:09.326725 21937 net.cpp:139] Memory required for data: 910800
I0428 19:29:09.326730 21937 layer_factory.hpp:77] Creating layer relu1
I0428 19:29:09.326735 21937 net.cpp:86] Creating Layer relu1
I0428 19:29:09.326738 21937 net.cpp:408] relu1 <- ip1
I0428 19:29:09.326742 21937 net.cpp:369] relu1 -> ip1 (in-place)
I0428 19:29:09.326961 21937 net.cpp:124] Setting up relu1
I0428 19:29:09.326970 21937 net.cpp:131] Top shape: 100 50 (5000)
I0428 19:29:09.326973 21937 net.cpp:139] Memory required for data: 930800
I0428 19:29:09.326988 21937 layer_factory.hpp:77] Creating layer ip2
I0428 19:29:09.326994 21937 net.cpp:86] Creating Layer ip2
I0428 19:29:09.326997 21937 net.cpp:408] ip2 <- ip1
I0428 19:29:09.327003 21937 net.cpp:382] ip2 -> ip2
I0428 19:29:09.327210 21937 net.cpp:124] Setting up ip2
I0428 19:29:09.327219 21937 net.cpp:131] Top shape: 100 10 (1000)
I0428 19:29:09.327236 21937 net.cpp:139] Memory required for data: 934800
I0428 19:29:09.327244 21937 layer_factory.hpp:77] Creating layer relu2
I0428 19:29:09.327250 21937 net.cpp:86] Creating Layer relu2
I0428 19:29:09.327252 21937 net.cpp:408] relu2 <- ip2
I0428 19:29:09.327256 21937 net.cpp:369] relu2 -> ip2 (in-place)
I0428 19:29:09.327481 21937 net.cpp:124] Setting up relu2
I0428 19:29:09.327489 21937 net.cpp:131] Top shape: 100 10 (1000)
I0428 19:29:09.327492 21937 net.cpp:139] Memory required for data: 938800
I0428 19:29:09.327497 21937 layer_factory.hpp:77] Creating layer ip2_relu2_0_split
I0428 19:29:09.327502 21937 net.cpp:86] Creating Layer ip2_relu2_0_split
I0428 19:29:09.327505 21937 net.cpp:408] ip2_relu2_0_split <- ip2
I0428 19:29:09.327510 21937 net.cpp:382] ip2_relu2_0_split -> ip2_relu2_0_split_0
I0428 19:29:09.327517 21937 net.cpp:382] ip2_relu2_0_split -> ip2_relu2_0_split_1
I0428 19:29:09.327549 21937 net.cpp:124] Setting up ip2_relu2_0_split
I0428 19:29:09.327555 21937 net.cpp:131] Top shape: 100 10 (1000)
I0428 19:29:09.327560 21937 net.cpp:131] Top shape: 100 10 (1000)
I0428 19:29:09.327563 21937 net.cpp:139] Memory required for data: 946800
I0428 19:29:09.327565 21937 layer_factory.hpp:77] Creating layer accuracy
I0428 19:29:09.327570 21937 net.cpp:86] Creating Layer accuracy
I0428 19:29:09.327574 21937 net.cpp:408] accuracy <- ip2_relu2_0_split_0
I0428 19:29:09.327577 21937 net.cpp:408] accuracy <- label_mnist_1_split_0
I0428 19:29:09.327581 21937 net.cpp:382] accuracy -> accuracy
…
