…
I0428 19:58:37.936971 29019 net.cpp:296] The NetState phase (0) differed from the phase (1) specified by a rule in layer mnist
I0428 19:58:37.936990 29019 net.cpp:296] The NetState phase (0) differed from the phase (1) specified by a rule in layer accuracy
I0428 19:58:37.937085 29019 net.cpp:53] Initializing net from parameters: 
name: "LeNet"
state {
  phase: TRAIN
  level: 0
  stage: ""
}
layer {
  name: "mnist"
  type: "Data"
  top: "data"
  top: "label"
  include {
    phase: TRAIN
  }
  transform_param {
    scale: 0.00390625
  }
  data_param {
    source: "examples/mnist/mnist_train_lmdb"
    batch_size: 64
    backend: LMDB
  }
}
layer {
  name: "conv0"
  type: "Convolution"
  bottom: "data"
  top: "conv0"
  param {
    lr_mult: 1
  }
  param {
    lr_mult: 2
  }
  convolution_param {
    num_output: 10
    kernel_size: 5
    stride: 1
    weight_filler {
      type: "xavier"
    }
    bias_filler {
      type: "constant"
    }
  }
}
layer {
  name: "pool0"
  type: "Pooling"
  bottom: "conv0"
  top: "pool0"
  pooling_param {
    pool: MAX
    kernel_size: 2
    stride: 2
  }
}
layer {
  name: "conv1"
  type: "Convolution"
  bottom: "pool0"
  top: "conv1"
  param {
    lr_mult: 1
  }
  param {
    lr_mult: 2
  }
  convolution_param {
    num_output: 10
    kernel_size: 5
    stride: 1
    weight_filler {
      type: "xavier"
    }
    bias_filler {
      type: "constant"
    }
  }
}
layer {
  name: "pool1"
  type: "Pooling"
  bottom: "conv1"
  top: "pool1"
  pooling_param {
    pool: MAX
    kernel_size: 2
    stride: 2
  }
}
layer {
  name: "ip1"
  type: "InnerProduct"
  bottom: "pool1"
  top: "ip1"
  param {
    lr_mult: 1
  }
  param {
    lr_mult: 2
  }
  inner_product_param {
    num_output: 10
    weight_filler {
      type: "xavier"
    }
    bias_filler {
      type: "constant"
    }
  }
}
layer {
  name: "relu1"
  type: "ReLU"
  bottom: "ip1"
  top: "ip1"
}
layer {
  name: "ip2"
  type: "InnerProduct"
  bottom: "ip1"
  top: "ip2"
  param {
    lr_mult: 1
  }
  param {
    lr_mult: 2
  }
  inner_product_param {
    num_output: 10
    weight_filler {
      type: "xavier"
    }
    bias_filler {
      type: "constant"
    }
  }
}
layer {
  name: "relu2"
  type: "ReLU"
  bottom: "ip2"
  top: "ip2"
}
layer {
  name: "loss"
  type: "SoftmaxWithLoss"
  bottom: "ip2"
  bottom: "label"
  top: "loss"
}
I0428 19:58:37.937165 29019 layer_factory.hpp:77] Creating layer mnist
I0428 19:58:37.937269 29019 db_lmdb.cpp:35] Opened lmdb examples/mnist/mnist_train_lmdb
I0428 19:58:37.937294 29019 net.cpp:86] Creating Layer mnist
I0428 19:58:37.937304 29019 net.cpp:382] mnist -> data
I0428 19:58:37.937326 29019 net.cpp:382] mnist -> label
I0428 19:58:37.938482 29019 data_layer.cpp:45] output data size: 64,1,28,28
I0428 19:58:37.941054 29019 net.cpp:124] Setting up mnist
I0428 19:58:37.941073 29019 net.cpp:131] Top shape: 64 1 28 28 (50176)
I0428 19:58:37.941082 29019 net.cpp:131] Top shape: 64 (64)
I0428 19:58:37.941085 29019 net.cpp:139] Memory required for data: 200960
I0428 19:58:37.941092 29019 layer_factory.hpp:77] Creating layer conv0
I0428 19:58:37.941109 29019 net.cpp:86] Creating Layer conv0
I0428 19:58:37.941115 29019 net.cpp:408] conv0 <- data
I0428 19:58:37.941130 29019 net.cpp:382] conv0 -> conv0
I0428 19:58:38.234671 29019 net.cpp:124] Setting up conv0
I0428 19:58:38.234702 29019 net.cpp:131] Top shape: 64 10 24 24 (368640)
I0428 19:58:38.234707 29019 net.cpp:139] Memory required for data: 1675520
I0428 19:58:38.234747 29019 layer_factory.hpp:77] Creating layer pool0
I0428 19:58:38.234762 29019 net.cpp:86] Creating Layer pool0
I0428 19:58:38.234767 29019 net.cpp:408] pool0 <- conv0
I0428 19:58:38.234773 29019 net.cpp:382] pool0 -> pool0
I0428 19:58:38.234833 29019 net.cpp:124] Setting up pool0
I0428 19:58:38.234843 29019 net.cpp:131] Top shape: 64 10 12 12 (92160)
I0428 19:58:38.234846 29019 net.cpp:139] Memory required for data: 2044160
I0428 19:58:38.234850 29019 layer_factory.hpp:77] Creating layer conv1
I0428 19:58:38.234864 29019 net.cpp:86] Creating Layer conv1
I0428 19:58:38.234869 29019 net.cpp:408] conv1 <- pool0
I0428 19:58:38.234874 29019 net.cpp:382] conv1 -> conv1
I0428 19:58:38.238034 29019 net.cpp:124] Setting up conv1
I0428 19:58:38.238051 29019 net.cpp:131] Top shape: 64 10 8 8 (40960)
I0428 19:58:38.238056 29019 net.cpp:139] Memory required for data: 2208000
I0428 19:58:38.238066 29019 layer_factory.hpp:77] Creating layer pool1
I0428 19:58:38.238075 29019 net.cpp:86] Creating Layer pool1
I0428 19:58:38.238081 29019 net.cpp:408] pool1 <- conv1
I0428 19:58:38.238087 29019 net.cpp:382] pool1 -> pool1
I0428 19:58:38.238132 29019 net.cpp:124] Setting up pool1
I0428 19:58:38.238139 29019 net.cpp:131] Top shape: 64 10 4 4 (10240)
I0428 19:58:38.238142 29019 net.cpp:139] Memory required for data: 2248960
I0428 19:58:38.238145 29019 layer_factory.hpp:77] Creating layer ip1
I0428 19:58:38.238154 29019 net.cpp:86] Creating Layer ip1
I0428 19:58:38.238157 29019 net.cpp:408] ip1 <- pool1
I0428 19:58:38.238163 29019 net.cpp:382] ip1 -> ip1
I0428 19:58:38.238291 29019 net.cpp:124] Setting up ip1
I0428 19:58:38.238299 29019 net.cpp:131] Top shape: 64 10 (640)
I0428 19:58:38.238302 29019 net.cpp:139] Memory required for data: 2251520
I0428 19:58:38.238312 29019 layer_factory.hpp:77] Creating layer relu1
I0428 19:58:38.238318 29019 net.cpp:86] Creating Layer relu1
I0428 19:58:38.238322 29019 net.cpp:408] relu1 <- ip1
I0428 19:58:38.238327 29019 net.cpp:369] relu1 -> ip1 (in-place)
I0428 19:58:38.238523 29019 net.cpp:124] Setting up relu1
I0428 19:58:38.238533 29019 net.cpp:131] Top shape: 64 10 (640)
I0428 19:58:38.238538 29019 net.cpp:139] Memory required for data: 2254080
I0428 19:58:38.238540 29019 layer_factory.hpp:77] Creating layer ip2
I0428 19:58:38.238548 29019 net.cpp:86] Creating Layer ip2
I0428 19:58:38.238551 29019 net.cpp:408] ip2 <- ip1
I0428 19:58:38.238557 29019 net.cpp:382] ip2 -> ip2
I0428 19:58:38.238672 29019 net.cpp:124] Setting up ip2
I0428 19:58:38.238679 29019 net.cpp:131] Top shape: 64 10 (640)
I0428 19:58:38.238683 29019 net.cpp:139] Memory required for data: 2256640
I0428 19:58:38.238689 29019 layer_factory.hpp:77] Creating layer relu2
I0428 19:58:38.238696 29019 net.cpp:86] Creating Layer relu2
I0428 19:58:38.238700 29019 net.cpp:408] relu2 <- ip2
I0428 19:58:38.238705 29019 net.cpp:369] relu2 -> ip2 (in-place)
I0428 19:58:38.239552 29019 net.cpp:124] Setting up relu2
I0428 19:58:38.239567 29019 net.cpp:131] Top shape: 64 10 (640)
I0428 19:58:38.239570 29019 net.cpp:139] Memory required for data: 2259200
I0428 19:58:38.239574 29019 layer_factory.hpp:77] Creating layer loss
I0428 19:58:38.239588 29019 net.cpp:86] Creating Layer loss
I0428 19:58:38.239593 29019 net.cpp:408] loss <- ip2
I0428 19:58:38.239599 29019 net.cpp:408] loss <- label
I0428 19:58:38.239605 29019 net.cpp:382] loss -> loss
I0428 19:58:38.239624 29019 layer_factory.hpp:77] Creating layer loss
…
I0428 19:58:38.240345 29019 solver.cpp:173] Creating test net (#0) specified by net file: ECE595/mnist/train_test/var_everything2/lenet_train_test824.prototxt
I0428 19:58:38.240380 29019 net.cpp:296] The NetState phase (1) differed from the phase (0) specified by a rule in layer mnist
I0428 19:58:38.240479 29019 net.cpp:53] Initializing net from parameters: 
name: "LeNet"
state {
  phase: TEST
}
layer {
  name: "mnist"
  type: "Data"
  top: "data"
  top: "label"
  include {
    phase: TEST
  }
  transform_param {
    scale: 0.00390625
  }
  data_param {
    source: "examples/mnist/mnist_test_lmdb"
    batch_size: 100
    backend: LMDB
  }
}
layer {
  name: "conv0"
  type: "Convolution"
  bottom: "data"
  top: "conv0"
  param {
    lr_mult: 1
  }
  param {
    lr_mult: 2
  }
  convolution_param {
    num_output: 10
    kernel_size: 5
    stride: 1
    weight_filler {
      type: "xavier"
    }
    bias_filler {
      type: "constant"
    }
  }
}
layer {
  name: "pool0"
  type: "Pooling"
  bottom: "conv0"
  top: "pool0"
  pooling_param {
    pool: MAX
    kernel_size: 2
    stride: 2
  }
}
layer {
  name: "conv1"
  type: "Convolution"
  bottom: "pool0"
  top: "conv1"
  param {
    lr_mult: 1
  }
  param {
    lr_mult: 2
  }
  convolution_param {
    num_output: 10
    kernel_size: 5
    stride: 1
    weight_filler {
      type: "xavier"
    }
    bias_filler {
      type: "constant"
    }
  }
}
layer {
  name: "pool1"
  type: "Pooling"
  bottom: "conv1"
  top: "pool1"
  pooling_param {
    pool: MAX
    kernel_size: 2
    stride: 2
  }
}
layer {
  name: "ip1"
  type: "InnerProduct"
  bottom: "pool1"
  top: "ip1"
  param {
    lr_mult: 1
  }
  param {
    lr_mult: 2
  }
  inner_product_param {
    num_output: 10
    weight_filler {
      type: "xavier"
    }
    bias_filler {
      type: "constant"
    }
  }
}
layer {
  name: "relu1"
  type: "ReLU"
  bottom: "ip1"
  top: "ip1"
}
layer {
  name: "ip2"
  type: "InnerProduct"
  bottom: "ip1"
  top: "ip2"
  param {
    lr_mult: 1
  }
  param {
    lr_mult: 2
  }
  inner_product_param {
    num_output: 10
    weight_filler {
      type: "xavier"
    }
    bias_filler {
      type: "constant"
    }
  }
}
layer {
  name: "relu2"
  type: "ReLU"
  bottom: "ip2"
  top: "ip2"
}
layer {
  name: "accuracy"
  type: "Accuracy"
  bottom: "ip2"
  bottom: "label"
  top: "accuracy"
  include {
    phase: TEST
  }
}
layer {
  name: "loss"
  type: "SoftmaxWithLoss"
  bottom: "ip2"
  bottom: "label"
  top: "loss"
}
I0428 19:58:38.240556 29019 layer_factory.hpp:77] Creating layer mnist
I0428 19:58:38.240608 29019 db_lmdb.cpp:35] Opened lmdb examples/mnist/mnist_test_lmdb
I0428 19:58:38.240624 29019 net.cpp:86] Creating Layer mnist
I0428 19:58:38.240629 29019 net.cpp:382] mnist -> data
I0428 19:58:38.240638 29019 net.cpp:382] mnist -> label
I0428 19:58:38.240741 29019 data_layer.cpp:45] output data size: 100,1,28,28
I0428 19:58:38.242946 29019 net.cpp:124] Setting up mnist
I0428 19:58:38.242962 29019 net.cpp:131] Top shape: 100 1 28 28 (78400)
I0428 19:58:38.242969 29019 net.cpp:131] Top shape: 100 (100)
I0428 19:58:38.242972 29019 net.cpp:139] Memory required for data: 314000
I0428 19:58:38.242977 29019 layer_factory.hpp:77] Creating layer label_mnist_1_split
I0428 19:58:38.242985 29019 net.cpp:86] Creating Layer label_mnist_1_split
I0428 19:58:38.242990 29019 net.cpp:408] label_mnist_1_split <- label
I0428 19:58:38.242995 29019 net.cpp:382] label_mnist_1_split -> label_mnist_1_split_0
I0428 19:58:38.243003 29019 net.cpp:382] label_mnist_1_split -> label_mnist_1_split_1
I0428 19:58:38.243095 29019 net.cpp:124] Setting up label_mnist_1_split
I0428 19:58:38.243118 29019 net.cpp:131] Top shape: 100 (100)
I0428 19:58:38.243122 29019 net.cpp:131] Top shape: 100 (100)
I0428 19:58:38.243126 29019 net.cpp:139] Memory required for data: 314800
I0428 19:58:38.243130 29019 layer_factory.hpp:77] Creating layer conv0
I0428 19:58:38.243140 29019 net.cpp:86] Creating Layer conv0
I0428 19:58:38.243144 29019 net.cpp:408] conv0 <- data
I0428 19:58:38.243150 29019 net.cpp:382] conv0 -> conv0
I0428 19:58:38.245015 29019 net.cpp:124] Setting up conv0
I0428 19:58:38.245033 29019 net.cpp:131] Top shape: 100 10 24 24 (576000)
I0428 19:58:38.245038 29019 net.cpp:139] Memory required for data: 2618800
I0428 19:58:38.245049 29019 layer_factory.hpp:77] Creating layer pool0
I0428 19:58:38.245057 29019 net.cpp:86] Creating Layer pool0
I0428 19:58:38.245061 29019 net.cpp:408] pool0 <- conv0
I0428 19:58:38.245067 29019 net.cpp:382] pool0 -> pool0
I0428 19:58:38.245110 29019 net.cpp:124] Setting up pool0
I0428 19:58:38.245115 29019 net.cpp:131] Top shape: 100 10 12 12 (144000)
I0428 19:58:38.245120 29019 net.cpp:139] Memory required for data: 3194800
I0428 19:58:38.245122 29019 layer_factory.hpp:77] Creating layer conv1
I0428 19:58:38.245132 29019 net.cpp:86] Creating Layer conv1
I0428 19:58:38.245136 29019 net.cpp:408] conv1 <- pool0
I0428 19:58:38.245141 29019 net.cpp:382] conv1 -> conv1
I0428 19:58:38.247458 29019 net.cpp:124] Setting up conv1
I0428 19:58:38.247475 29019 net.cpp:131] Top shape: 100 10 8 8 (64000)
I0428 19:58:38.247479 29019 net.cpp:139] Memory required for data: 3450800
I0428 19:58:38.247490 29019 layer_factory.hpp:77] Creating layer pool1
I0428 19:58:38.247498 29019 net.cpp:86] Creating Layer pool1
I0428 19:58:38.247503 29019 net.cpp:408] pool1 <- conv1
I0428 19:58:38.247509 29019 net.cpp:382] pool1 -> pool1
I0428 19:58:38.247560 29019 net.cpp:124] Setting up pool1
I0428 19:58:38.247566 29019 net.cpp:131] Top shape: 100 10 4 4 (16000)
I0428 19:58:38.247570 29019 net.cpp:139] Memory required for data: 3514800
I0428 19:58:38.247575 29019 layer_factory.hpp:77] Creating layer ip1
I0428 19:58:38.247581 29019 net.cpp:86] Creating Layer ip1
I0428 19:58:38.247586 29019 net.cpp:408] ip1 <- pool1
I0428 19:58:38.247591 29019 net.cpp:382] ip1 -> ip1
I0428 19:58:38.247745 29019 net.cpp:124] Setting up ip1
I0428 19:58:38.247755 29019 net.cpp:131] Top shape: 100 10 (1000)
I0428 19:58:38.247758 29019 net.cpp:139] Memory required for data: 3518800
I0428 19:58:38.247767 29019 layer_factory.hpp:77] Creating layer relu1
I0428 19:58:38.247773 29019 net.cpp:86] Creating Layer relu1
I0428 19:58:38.247777 29019 net.cpp:408] relu1 <- ip1
I0428 19:58:38.247783 29019 net.cpp:369] relu1 -> ip1 (in-place)
I0428 19:58:38.247979 29019 net.cpp:124] Setting up relu1
I0428 19:58:38.247990 29019 net.cpp:131] Top shape: 100 10 (1000)
I0428 19:58:38.247994 29019 net.cpp:139] Memory required for data: 3522800
I0428 19:58:38.247999 29019 layer_factory.hpp:77] Creating layer ip2
I0428 19:58:38.248008 29019 net.cpp:86] Creating Layer ip2
I0428 19:58:38.248011 29019 net.cpp:408] ip2 <- ip1
I0428 19:58:38.248018 29019 net.cpp:382] ip2 -> ip2
I0428 19:58:38.248139 29019 net.cpp:124] Setting up ip2
I0428 19:58:38.248147 29019 net.cpp:131] Top shape: 100 10 (1000)
I0428 19:58:38.248152 29019 net.cpp:139] Memory required for data: 3526800
I0428 19:58:38.248157 29019 layer_factory.hpp:77] Creating layer relu2
I0428 19:58:38.248163 29019 net.cpp:86] Creating Layer relu2
I0428 19:58:38.248167 29019 net.cpp:408] relu2 <- ip2
I0428 19:58:38.248172 29019 net.cpp:369] relu2 -> ip2 (in-place)
I0428 19:58:38.248356 29019 net.cpp:124] Setting up relu2
I0428 19:58:38.248368 29019 net.cpp:131] Top shape: 100 10 (1000)
I0428 19:58:38.248371 29019 net.cpp:139] Memory required for data: 3530800
I0428 19:58:38.248383 29019 layer_factory.hpp:77] Creating layer ip2_relu2_0_split
I0428 19:58:38.248389 29019 net.cpp:86] Creating Layer ip2_relu2_0_split
I0428 19:58:38.248394 29019 net.cpp:408] ip2_relu2_0_split <- ip2
I0428 19:58:38.248399 29019 net.cpp:382] ip2_relu2_0_split -> ip2_relu2_0_split_0
I0428 19:58:38.248419 29019 net.cpp:382] ip2_relu2_0_split -> ip2_relu2_0_split_1
I0428 19:58:38.248461 29019 net.cpp:124] Setting up ip2_relu2_0_split
I0428 19:58:38.248471 29019 net.cpp:131] Top shape: 100 10 (1000)
I0428 19:58:38.248474 29019 net.cpp:131] Top shape: 100 10 (1000)
I0428 19:58:38.248478 29019 net.cpp:139] Memory required for data: 3538800
I0428 19:58:38.248481 29019 layer_factory.hpp:77] Creating layer accuracy
I0428 19:58:38.248487 29019 net.cpp:86] Creating Layer accuracy
I0428 19:58:38.248492 29019 net.cpp:408] accuracy <- ip2_relu2_0_split_0
I0428 19:58:38.248497 29019 net.cpp:408] accuracy <- label_mnist_1_split_0
I0428 19:58:38.248502 29019 net.cpp:382] accuracy -> accuracy
…
