…
I0428 20:18:30.620154  1151 net.cpp:296] The NetState phase (0) differed from the phase (1) specified by a rule in layer mnist
I0428 20:18:30.620175  1151 net.cpp:296] The NetState phase (0) differed from the phase (1) specified by a rule in layer accuracy
I0428 20:18:30.620288  1151 net.cpp:53] Initializing net from parameters: 
name: "LeNet"
state {
  phase: TRAIN
  level: 0
  stage: ""
}
layer {
  name: "mnist"
  type: "Data"
  top: "data"
  top: "label"
  include {
    phase: TRAIN
  }
  transform_param {
    scale: 0.00390625
  }
  data_param {
    source: "examples/mnist/mnist_train_lmdb"
    batch_size: 64
    backend: LMDB
  }
}
layer {
  name: "conv0"
  type: "Convolution"
  bottom: "data"
  top: "conv0"
  param {
    lr_mult: 1
  }
  param {
    lr_mult: 2
  }
  convolution_param {
    num_output: 50
    kernel_size: 5
    stride: 1
    weight_filler {
      type: "xavier"
    }
    bias_filler {
      type: "constant"
    }
  }
}
layer {
  name: "pool0"
  type: "Pooling"
  bottom: "conv0"
  top: "pool0"
  pooling_param {
    pool: MAX
    kernel_size: 2
    stride: 2
  }
}
layer {
  name: "conv1"
  type: "Convolution"
  bottom: "pool0"
  top: "conv1"
  param {
    lr_mult: 1
  }
  param {
    lr_mult: 2
  }
  convolution_param {
    num_output: 10
    kernel_size: 5
    stride: 1
    weight_filler {
      type: "xavier"
    }
    bias_filler {
      type: "constant"
    }
  }
}
layer {
  name: "pool1"
  type: "Pooling"
  bottom: "conv1"
  top: "pool1"
  pooling_param {
    pool: MAX
    kernel_size: 2
    stride: 2
  }
}
layer {
  name: "ip1"
  type: "InnerProduct"
  bottom: "pool1"
  top: "ip1"
  param {
    lr_mult: 1
  }
  param {
    lr_mult: 2
  }
  inner_product_param {
    num_output: 50
    weight_filler {
      type: "xavier"
    }
    bias_filler {
      type: "constant"
    }
  }
}
layer {
  name: "relu1"
  type: "ReLU"
  bottom: "ip1"
  top: "ip1"
}
layer {
  name: "ip2"
  type: "InnerProduct"
  bottom: "ip1"
  top: "ip2"
  param {
    lr_mult: 1
  }
  param {
    lr_mult: 2
  }
  inner_product_param {
    num_output: 25
    weight_filler {
      type: "xavier"
    }
    bias_filler {
      type: "constant"
    }
  }
}
layer {
  name: "relu2"
  type: "ReLU"
  bottom: "ip2"
  top: "ip2"
}
layer {
  name: "ip3"
  type: "InnerProduct"
  bottom: "ip2"
  top: "ip3"
  param {
    lr_mult: 1
  }
  param {
    lr_mult: 2
  }
  inner_product_param {
    num_output: 10
    weight_filler {
      type: "xavier"
    }
    bias_filler {
      type: "constant"
    }
  }
}
layer {
  name: "relu3"
  type: "ReLU"
  bottom: "ip3"
  top: "ip3"
}
layer {
  name: "loss"
  type: "SoftmaxWithLoss"
  bottom: "ip3"
  bottom: "label"
  top: "loss"
}
I0428 20:18:30.620373  1151 layer_factory.hpp:77] Creating layer mnist
I0428 20:18:30.620471  1151 db_lmdb.cpp:35] Opened lmdb examples/mnist/mnist_train_lmdb
I0428 20:18:30.620494  1151 net.cpp:86] Creating Layer mnist
I0428 20:18:30.620504  1151 net.cpp:382] mnist -> data
I0428 20:18:30.620527  1151 net.cpp:382] mnist -> label
I0428 20:18:30.621753  1151 data_layer.cpp:45] output data size: 64,1,28,28
I0428 20:18:30.624613  1151 net.cpp:124] Setting up mnist
I0428 20:18:30.624646  1151 net.cpp:131] Top shape: 64 1 28 28 (50176)
I0428 20:18:30.624655  1151 net.cpp:131] Top shape: 64 (64)
I0428 20:18:30.624660  1151 net.cpp:139] Memory required for data: 200960
I0428 20:18:30.624667  1151 layer_factory.hpp:77] Creating layer conv0
I0428 20:18:30.624701  1151 net.cpp:86] Creating Layer conv0
I0428 20:18:30.624724  1151 net.cpp:408] conv0 <- data
I0428 20:18:30.624740  1151 net.cpp:382] conv0 -> conv0
I0428 20:18:30.918092  1151 net.cpp:124] Setting up conv0
I0428 20:18:30.918138  1151 net.cpp:131] Top shape: 64 50 24 24 (1843200)
I0428 20:18:30.918144  1151 net.cpp:139] Memory required for data: 7573760
I0428 20:18:30.918166  1151 layer_factory.hpp:77] Creating layer pool0
I0428 20:18:30.918196  1151 net.cpp:86] Creating Layer pool0
I0428 20:18:30.918202  1151 net.cpp:408] pool0 <- conv0
I0428 20:18:30.918210  1151 net.cpp:382] pool0 -> pool0
I0428 20:18:30.918265  1151 net.cpp:124] Setting up pool0
I0428 20:18:30.918292  1151 net.cpp:131] Top shape: 64 50 12 12 (460800)
I0428 20:18:30.918296  1151 net.cpp:139] Memory required for data: 9416960
I0428 20:18:30.918301  1151 layer_factory.hpp:77] Creating layer conv1
I0428 20:18:30.918315  1151 net.cpp:86] Creating Layer conv1
I0428 20:18:30.918320  1151 net.cpp:408] conv1 <- pool0
I0428 20:18:30.918328  1151 net.cpp:382] conv1 -> conv1
I0428 20:18:30.921931  1151 net.cpp:124] Setting up conv1
I0428 20:18:30.921962  1151 net.cpp:131] Top shape: 64 10 8 8 (40960)
I0428 20:18:30.921967  1151 net.cpp:139] Memory required for data: 9580800
I0428 20:18:30.921978  1151 layer_factory.hpp:77] Creating layer pool1
I0428 20:18:30.921988  1151 net.cpp:86] Creating Layer pool1
I0428 20:18:30.921993  1151 net.cpp:408] pool1 <- conv1
I0428 20:18:30.922015  1151 net.cpp:382] pool1 -> pool1
I0428 20:18:30.922060  1151 net.cpp:124] Setting up pool1
I0428 20:18:30.922070  1151 net.cpp:131] Top shape: 64 10 4 4 (10240)
I0428 20:18:30.922075  1151 net.cpp:139] Memory required for data: 9621760
I0428 20:18:30.922078  1151 layer_factory.hpp:77] Creating layer ip1
I0428 20:18:30.922088  1151 net.cpp:86] Creating Layer ip1
I0428 20:18:30.922092  1151 net.cpp:408] ip1 <- pool1
I0428 20:18:30.922099  1151 net.cpp:382] ip1 -> ip1
I0428 20:18:30.922288  1151 net.cpp:124] Setting up ip1
I0428 20:18:30.922299  1151 net.cpp:131] Top shape: 64 50 (3200)
I0428 20:18:30.922304  1151 net.cpp:139] Memory required for data: 9634560
I0428 20:18:30.922313  1151 layer_factory.hpp:77] Creating layer relu1
I0428 20:18:30.922322  1151 net.cpp:86] Creating Layer relu1
I0428 20:18:30.922327  1151 net.cpp:408] relu1 <- ip1
I0428 20:18:30.922333  1151 net.cpp:369] relu1 -> ip1 (in-place)
I0428 20:18:30.922529  1151 net.cpp:124] Setting up relu1
I0428 20:18:30.922541  1151 net.cpp:131] Top shape: 64 50 (3200)
I0428 20:18:30.922546  1151 net.cpp:139] Memory required for data: 9647360
I0428 20:18:30.922551  1151 layer_factory.hpp:77] Creating layer ip2
I0428 20:18:30.922560  1151 net.cpp:86] Creating Layer ip2
I0428 20:18:30.922566  1151 net.cpp:408] ip2 <- ip1
I0428 20:18:30.922574  1151 net.cpp:382] ip2 -> ip2
I0428 20:18:30.922719  1151 net.cpp:124] Setting up ip2
I0428 20:18:30.922729  1151 net.cpp:131] Top shape: 64 25 (1600)
I0428 20:18:30.922734  1151 net.cpp:139] Memory required for data: 9653760
I0428 20:18:30.922744  1151 layer_factory.hpp:77] Creating layer relu2
I0428 20:18:30.922752  1151 net.cpp:86] Creating Layer relu2
I0428 20:18:30.922756  1151 net.cpp:408] relu2 <- ip2
I0428 20:18:30.922763  1151 net.cpp:369] relu2 -> ip2 (in-place)
I0428 20:18:30.923710  1151 net.cpp:124] Setting up relu2
I0428 20:18:30.923740  1151 net.cpp:131] Top shape: 64 25 (1600)
I0428 20:18:30.923745  1151 net.cpp:139] Memory required for data: 9660160
I0428 20:18:30.923751  1151 layer_factory.hpp:77] Creating layer ip3
I0428 20:18:30.923761  1151 net.cpp:86] Creating Layer ip3
I0428 20:18:30.923766  1151 net.cpp:408] ip3 <- ip2
I0428 20:18:30.923774  1151 net.cpp:382] ip3 -> ip3
I0428 20:18:30.923904  1151 net.cpp:124] Setting up ip3
I0428 20:18:30.923915  1151 net.cpp:131] Top shape: 64 10 (640)
I0428 20:18:30.923920  1151 net.cpp:139] Memory required for data: 9662720
I0428 20:18:30.923933  1151 layer_factory.hpp:77] Creating layer relu3
I0428 20:18:30.923939  1151 net.cpp:86] Creating Layer relu3
I0428 20:18:30.923944  1151 net.cpp:408] relu3 <- ip3
I0428 20:18:30.923951  1151 net.cpp:369] relu3 -> ip3 (in-place)
I0428 20:18:30.924175  1151 net.cpp:124] Setting up relu3
I0428 20:18:30.924187  1151 net.cpp:131] Top shape: 64 10 (640)
I0428 20:18:30.924192  1151 net.cpp:139] Memory required for data: 9665280
I0428 20:18:30.924198  1151 layer_factory.hpp:77] Creating layer loss
I0428 20:18:30.924207  1151 net.cpp:86] Creating Layer loss
I0428 20:18:30.924212  1151 net.cpp:408] loss <- ip3
I0428 20:18:30.924218  1151 net.cpp:408] loss <- label
I0428 20:18:30.924226  1151 net.cpp:382] loss -> loss
I0428 20:18:30.924247  1151 layer_factory.hpp:77] Creating layer loss
…
I0428 20:18:30.925242  1151 solver.cpp:173] Creating test net (#0) specified by net file: ECE595/mnist/train_test/var_everything2/lenet_train_test1320.prototxt
I0428 20:18:30.925294  1151 net.cpp:296] The NetState phase (1) differed from the phase (0) specified by a rule in layer mnist
I0428 20:18:30.925433  1151 net.cpp:53] Initializing net from parameters: 
name: "LeNet"
state {
  phase: TEST
}
layer {
  name: "mnist"
  type: "Data"
  top: "data"
  top: "label"
  include {
    phase: TEST
  }
  transform_param {
    scale: 0.00390625
  }
  data_param {
    source: "examples/mnist/mnist_test_lmdb"
    batch_size: 100
    backend: LMDB
  }
}
layer {
  name: "conv0"
  type: "Convolution"
  bottom: "data"
  top: "conv0"
  param {
    lr_mult: 1
  }
  param {
    lr_mult: 2
  }
  convolution_param {
    num_output: 50
    kernel_size: 5
    stride: 1
    weight_filler {
      type: "xavier"
    }
    bias_filler {
      type: "constant"
    }
  }
}
layer {
  name: "pool0"
  type: "Pooling"
  bottom: "conv0"
  top: "pool0"
  pooling_param {
    pool: MAX
    kernel_size: 2
    stride: 2
  }
}
layer {
  name: "conv1"
  type: "Convolution"
  bottom: "pool0"
  top: "conv1"
  param {
    lr_mult: 1
  }
  param {
    lr_mult: 2
  }
  convolution_param {
    num_output: 10
    kernel_size: 5
    stride: 1
    weight_filler {
      type: "xavier"
    }
    bias_filler {
      type: "constant"
    }
  }
}
layer {
  name: "pool1"
  type: "Pooling"
  bottom: "conv1"
  top: "pool1"
  pooling_param {
    pool: MAX
    kernel_size: 2
    stride: 2
  }
}
layer {
  name: "ip1"
  type: "InnerProduct"
  bottom: "pool1"
  top: "ip1"
  param {
    lr_mult: 1
  }
  param {
    lr_mult: 2
  }
  inner_product_param {
    num_output: 50
    weight_filler {
      type: "xavier"
    }
    bias_filler {
      type: "constant"
    }
  }
}
layer {
  name: "relu1"
  type: "ReLU"
  bottom: "ip1"
  top: "ip1"
}
layer {
  name: "ip2"
  type: "InnerProduct"
  bottom: "ip1"
  top: "ip2"
  param {
    lr_mult: 1
  }
  param {
    lr_mult: 2
  }
  inner_product_param {
    num_output: 25
    weight_filler {
      type: "xavier"
    }
    bias_filler {
      type: "constant"
    }
  }
}
layer {
  name: "relu2"
  type: "ReLU"
  bottom: "ip2"
  top: "ip2"
}
layer {
  name: "ip3"
  type: "InnerProduct"
  bottom: "ip2"
  top: "ip3"
  param {
    lr_mult: 1
  }
  param {
    lr_mult: 2
  }
  inner_product_param {
    num_output: 10
    weight_filler {
      type: "xavier"
    }
    bias_filler {
      type: "constant"
    }
  }
}
layer {
  name: "relu3"
  type: "ReLU"
  bottom: "ip3"
  top: "ip3"
}
layer {
  name: "accuracy"
  type: "Accuracy"
  bottom: "ip3"
  bottom: "label"
  top: "accuracy"
  include {
    phase: TEST
  }
}
layer {
  name: "loss"
  type: "SoftmaxWithLoss"
  bottom: "ip3"
  bottom: "label"
  top: "loss"
}
I0428 20:18:30.925536  1151 layer_factory.hpp:77] Creating layer mnist
I0428 20:18:30.925587  1151 db_lmdb.cpp:35] Opened lmdb examples/mnist/mnist_test_lmdb
I0428 20:18:30.925602  1151 net.cpp:86] Creating Layer mnist
I0428 20:18:30.925608  1151 net.cpp:382] mnist -> data
I0428 20:18:30.925619  1151 net.cpp:382] mnist -> label
I0428 20:18:30.925739  1151 data_layer.cpp:45] output data size: 100,1,28,28
I0428 20:18:30.928226  1151 net.cpp:124] Setting up mnist
I0428 20:18:30.928273  1151 net.cpp:131] Top shape: 100 1 28 28 (78400)
I0428 20:18:30.928293  1151 net.cpp:131] Top shape: 100 (100)
I0428 20:18:30.928298  1151 net.cpp:139] Memory required for data: 314000
I0428 20:18:30.928304  1151 layer_factory.hpp:77] Creating layer label_mnist_1_split
I0428 20:18:30.928318  1151 net.cpp:86] Creating Layer label_mnist_1_split
I0428 20:18:30.928323  1151 net.cpp:408] label_mnist_1_split <- label
I0428 20:18:30.928330  1151 net.cpp:382] label_mnist_1_split -> label_mnist_1_split_0
I0428 20:18:30.928339  1151 net.cpp:382] label_mnist_1_split -> label_mnist_1_split_1
I0428 20:18:30.928493  1151 net.cpp:124] Setting up label_mnist_1_split
I0428 20:18:30.928503  1151 net.cpp:131] Top shape: 100 (100)
I0428 20:18:30.928509  1151 net.cpp:131] Top shape: 100 (100)
I0428 20:18:30.928514  1151 net.cpp:139] Memory required for data: 314800
I0428 20:18:30.928520  1151 layer_factory.hpp:77] Creating layer conv0
I0428 20:18:30.928532  1151 net.cpp:86] Creating Layer conv0
I0428 20:18:30.928537  1151 net.cpp:408] conv0 <- data
I0428 20:18:30.928545  1151 net.cpp:382] conv0 -> conv0
I0428 20:18:30.930749  1151 net.cpp:124] Setting up conv0
I0428 20:18:30.930784  1151 net.cpp:131] Top shape: 100 50 24 24 (2880000)
I0428 20:18:30.930790  1151 net.cpp:139] Memory required for data: 11834800
I0428 20:18:30.930804  1151 layer_factory.hpp:77] Creating layer pool0
I0428 20:18:30.930814  1151 net.cpp:86] Creating Layer pool0
I0428 20:18:30.930821  1151 net.cpp:408] pool0 <- conv0
I0428 20:18:30.930831  1151 net.cpp:382] pool0 -> pool0
I0428 20:18:30.930879  1151 net.cpp:124] Setting up pool0
I0428 20:18:30.930889  1151 net.cpp:131] Top shape: 100 50 12 12 (720000)
I0428 20:18:30.930896  1151 net.cpp:139] Memory required for data: 14714800
I0428 20:18:30.930902  1151 layer_factory.hpp:77] Creating layer conv1
I0428 20:18:30.930913  1151 net.cpp:86] Creating Layer conv1
I0428 20:18:30.930939  1151 net.cpp:408] conv1 <- pool0
I0428 20:18:30.930948  1151 net.cpp:382] conv1 -> conv1
I0428 20:18:30.932996  1151 net.cpp:124] Setting up conv1
I0428 20:18:30.933013  1151 net.cpp:131] Top shape: 100 10 8 8 (64000)
I0428 20:18:30.933020  1151 net.cpp:139] Memory required for data: 14970800
I0428 20:18:30.933033  1151 layer_factory.hpp:77] Creating layer pool1
I0428 20:18:30.933046  1151 net.cpp:86] Creating Layer pool1
I0428 20:18:30.933053  1151 net.cpp:408] pool1 <- conv1
I0428 20:18:30.933060  1151 net.cpp:382] pool1 -> pool1
I0428 20:18:30.933120  1151 net.cpp:124] Setting up pool1
I0428 20:18:30.933130  1151 net.cpp:131] Top shape: 100 10 4 4 (16000)
I0428 20:18:30.933135  1151 net.cpp:139] Memory required for data: 15034800
I0428 20:18:30.933141  1151 layer_factory.hpp:77] Creating layer ip1
I0428 20:18:30.933164  1151 net.cpp:86] Creating Layer ip1
I0428 20:18:30.933169  1151 net.cpp:408] ip1 <- pool1
I0428 20:18:30.933176  1151 net.cpp:382] ip1 -> ip1
I0428 20:18:30.933374  1151 net.cpp:124] Setting up ip1
I0428 20:18:30.933387  1151 net.cpp:131] Top shape: 100 50 (5000)
I0428 20:18:30.933410  1151 net.cpp:139] Memory required for data: 15054800
I0428 20:18:30.933423  1151 layer_factory.hpp:77] Creating layer relu1
I0428 20:18:30.933430  1151 net.cpp:86] Creating Layer relu1
I0428 20:18:30.933435  1151 net.cpp:408] relu1 <- ip1
I0428 20:18:30.933444  1151 net.cpp:369] relu1 -> ip1 (in-place)
I0428 20:18:30.933689  1151 net.cpp:124] Setting up relu1
I0428 20:18:30.933701  1151 net.cpp:131] Top shape: 100 50 (5000)
I0428 20:18:30.933706  1151 net.cpp:139] Memory required for data: 15074800
I0428 20:18:30.933712  1151 layer_factory.hpp:77] Creating layer ip2
I0428 20:18:30.933722  1151 net.cpp:86] Creating Layer ip2
I0428 20:18:30.933727  1151 net.cpp:408] ip2 <- ip1
I0428 20:18:30.933734  1151 net.cpp:382] ip2 -> ip2
I0428 20:18:30.933873  1151 net.cpp:124] Setting up ip2
I0428 20:18:30.933883  1151 net.cpp:131] Top shape: 100 25 (2500)
I0428 20:18:30.933888  1151 net.cpp:139] Memory required for data: 15084800
I0428 20:18:30.933897  1151 layer_factory.hpp:77] Creating layer relu2
I0428 20:18:30.933904  1151 net.cpp:86] Creating Layer relu2
I0428 20:18:30.933909  1151 net.cpp:408] relu2 <- ip2
I0428 20:18:30.933917  1151 net.cpp:369] relu2 -> ip2 (in-place)
I0428 20:18:30.934134  1151 net.cpp:124] Setting up relu2
I0428 20:18:30.934146  1151 net.cpp:131] Top shape: 100 25 (2500)
I0428 20:18:30.934151  1151 net.cpp:139] Memory required for data: 15094800
I0428 20:18:30.934156  1151 layer_factory.hpp:77] Creating layer ip3
I0428 20:18:30.934165  1151 net.cpp:86] Creating Layer ip3
I0428 20:18:30.934170  1151 net.cpp:408] ip3 <- ip2
I0428 20:18:30.934177  1151 net.cpp:382] ip3 -> ip3
I0428 20:18:30.934324  1151 net.cpp:124] Setting up ip3
I0428 20:18:30.934334  1151 net.cpp:131] Top shape: 100 10 (1000)
I0428 20:18:30.934339  1151 net.cpp:139] Memory required for data: 15098800
I0428 20:18:30.934350  1151 layer_factory.hpp:77] Creating layer relu3
I0428 20:18:30.934361  1151 net.cpp:86] Creating Layer relu3
I0428 20:18:30.934366  1151 net.cpp:408] relu3 <- ip3
I0428 20:18:30.934372  1151 net.cpp:369] relu3 -> ip3 (in-place)
I0428 20:18:30.935433  1151 net.cpp:124] Setting up relu3
I0428 20:18:30.935463  1151 net.cpp:131] Top shape: 100 10 (1000)
I0428 20:18:30.935469  1151 net.cpp:139] Memory required for data: 15102800
I0428 20:18:30.935474  1151 layer_factory.hpp:77] Creating layer ip3_relu3_0_split
I0428 20:18:30.935482  1151 net.cpp:86] Creating Layer ip3_relu3_0_split
I0428 20:18:30.935488  1151 net.cpp:408] ip3_relu3_0_split <- ip3
I0428 20:18:30.935495  1151 net.cpp:382] ip3_relu3_0_split -> ip3_relu3_0_split_0
I0428 20:18:30.935504  1151 net.cpp:382] ip3_relu3_0_split -> ip3_relu3_0_split_1
I0428 20:18:30.935556  1151 net.cpp:124] Setting up ip3_relu3_0_split
I0428 20:18:30.935564  1151 net.cpp:131] Top shape: 100 10 (1000)
I0428 20:18:30.935571  1151 net.cpp:131] Top shape: 100 10 (1000)
I0428 20:18:30.935576  1151 net.cpp:139] Memory required for data: 15110800
I0428 20:18:30.935581  1151 layer_factory.hpp:77] Creating layer accuracy
I0428 20:18:30.935590  1151 net.cpp:86] Creating Layer accuracy
I0428 20:18:30.935595  1151 net.cpp:408] accuracy <- ip3_relu3_0_split_0
I0428 20:18:30.935601  1151 net.cpp:408] accuracy <- label_mnist_1_split_0
I0428 20:18:30.935608  1151 net.cpp:382] accuracy -> accuracy
…
