…
I0428 20:21:26.741941  1760 net.cpp:296] The NetState phase (0) differed from the phase (1) specified by a rule in layer mnist
I0428 20:21:26.741955  1760 net.cpp:296] The NetState phase (0) differed from the phase (1) specified by a rule in layer accuracy
I0428 20:21:26.742034  1760 net.cpp:53] Initializing net from parameters: 
name: "LeNet"
state {
  phase: TRAIN
  level: 0
  stage: ""
}
layer {
  name: "mnist"
  type: "Data"
  top: "data"
  top: "label"
  include {
    phase: TRAIN
  }
  transform_param {
    scale: 0.00390625
  }
  data_param {
    source: "examples/mnist/mnist_train_lmdb"
    batch_size: 64
    backend: LMDB
  }
}
layer {
  name: "conv0"
  type: "Convolution"
  bottom: "data"
  top: "conv0"
  param {
    lr_mult: 1
  }
  param {
    lr_mult: 2
  }
  convolution_param {
    num_output: 50
    kernel_size: 5
    stride: 1
    weight_filler {
      type: "xavier"
    }
    bias_filler {
      type: "constant"
    }
  }
}
layer {
  name: "pool0"
  type: "Pooling"
  bottom: "conv0"
  top: "pool0"
  pooling_param {
    pool: MAX
    kernel_size: 2
    stride: 2
  }
}
layer {
  name: "conv1"
  type: "Convolution"
  bottom: "pool0"
  top: "conv1"
  param {
    lr_mult: 1
  }
  param {
    lr_mult: 2
  }
  convolution_param {
    num_output: 50
    kernel_size: 5
    stride: 1
    weight_filler {
      type: "xavier"
    }
    bias_filler {
      type: "constant"
    }
  }
}
layer {
  name: "pool1"
  type: "Pooling"
  bottom: "conv1"
  top: "pool1"
  pooling_param {
    pool: MAX
    kernel_size: 2
    stride: 2
  }
}
layer {
  name: "ip1"
  type: "InnerProduct"
  bottom: "pool1"
  top: "ip1"
  param {
    lr_mult: 1
  }
  param {
    lr_mult: 2
  }
  inner_product_param {
    num_output: 10
    weight_filler {
      type: "xavier"
    }
    bias_filler {
      type: "constant"
    }
  }
}
layer {
  name: "relu1"
  type: "ReLU"
  bottom: "ip1"
  top: "ip1"
}
layer {
  name: "ip2"
  type: "InnerProduct"
  bottom: "ip1"
  top: "ip2"
  param {
    lr_mult: 1
  }
  param {
    lr_mult: 2
  }
  inner_product_param {
    num_output: 50
    weight_filler {
      type: "xavier"
    }
    bias_filler {
      type: "constant"
    }
  }
}
layer {
  name: "relu2"
  type: "ReLU"
  bottom: "ip2"
  top: "ip2"
}
layer {
  name: "ip3"
  type: "InnerProduct"
  bottom: "ip2"
  top: "ip3"
  param {
    lr_mult: 1
  }
  param {
    lr_mult: 2
  }
  inner_product_param {
    num_output: 10
    weight_filler {
      type: "xavier"
    }
    bias_filler {
      type: "constant"
    }
  }
}
layer {
  name: "relu3"
  type: "ReLU"
  bottom: "ip3"
  top: "ip3"
}
layer {
  name: "loss"
  type: "SoftmaxWithLoss"
  bottom: "ip3"
  bottom: "label"
  top: "loss"
}
I0428 20:21:26.742099  1760 layer_factory.hpp:77] Creating layer mnist
I0428 20:21:26.742182  1760 db_lmdb.cpp:35] Opened lmdb examples/mnist/mnist_train_lmdb
I0428 20:21:26.742202  1760 net.cpp:86] Creating Layer mnist
I0428 20:21:26.742208  1760 net.cpp:382] mnist -> data
I0428 20:21:26.742226  1760 net.cpp:382] mnist -> label
I0428 20:21:26.743144  1760 data_layer.cpp:45] output data size: 64,1,28,28
I0428 20:21:26.745477  1760 net.cpp:124] Setting up mnist
I0428 20:21:26.745507  1760 net.cpp:131] Top shape: 64 1 28 28 (50176)
I0428 20:21:26.745512  1760 net.cpp:131] Top shape: 64 (64)
I0428 20:21:26.745515  1760 net.cpp:139] Memory required for data: 200960
I0428 20:21:26.745520  1760 layer_factory.hpp:77] Creating layer conv0
I0428 20:21:26.745543  1760 net.cpp:86] Creating Layer conv0
I0428 20:21:26.745559  1760 net.cpp:408] conv0 <- data
I0428 20:21:26.745570  1760 net.cpp:382] conv0 -> conv0
I0428 20:21:26.973575  1760 net.cpp:124] Setting up conv0
I0428 20:21:26.973616  1760 net.cpp:131] Top shape: 64 50 24 24 (1843200)
I0428 20:21:26.973620  1760 net.cpp:139] Memory required for data: 7573760
I0428 20:21:26.973635  1760 layer_factory.hpp:77] Creating layer pool0
I0428 20:21:26.973649  1760 net.cpp:86] Creating Layer pool0
I0428 20:21:26.973652  1760 net.cpp:408] pool0 <- conv0
I0428 20:21:26.973673  1760 net.cpp:382] pool0 -> pool0
I0428 20:21:26.973719  1760 net.cpp:124] Setting up pool0
I0428 20:21:26.973726  1760 net.cpp:131] Top shape: 64 50 12 12 (460800)
I0428 20:21:26.973728  1760 net.cpp:139] Memory required for data: 9416960
I0428 20:21:26.973731  1760 layer_factory.hpp:77] Creating layer conv1
I0428 20:21:26.973742  1760 net.cpp:86] Creating Layer conv1
I0428 20:21:26.973745  1760 net.cpp:408] conv1 <- pool0
I0428 20:21:26.973749  1760 net.cpp:382] conv1 -> conv1
I0428 20:21:26.975920  1760 net.cpp:124] Setting up conv1
I0428 20:21:26.975934  1760 net.cpp:131] Top shape: 64 50 8 8 (204800)
I0428 20:21:26.975939  1760 net.cpp:139] Memory required for data: 10236160
I0428 20:21:26.975946  1760 layer_factory.hpp:77] Creating layer pool1
I0428 20:21:26.975953  1760 net.cpp:86] Creating Layer pool1
I0428 20:21:26.975956  1760 net.cpp:408] pool1 <- conv1
I0428 20:21:26.975977  1760 net.cpp:382] pool1 -> pool1
I0428 20:21:26.976027  1760 net.cpp:124] Setting up pool1
I0428 20:21:26.976042  1760 net.cpp:131] Top shape: 64 50 4 4 (51200)
I0428 20:21:26.976045  1760 net.cpp:139] Memory required for data: 10440960
I0428 20:21:26.976047  1760 layer_factory.hpp:77] Creating layer ip1
I0428 20:21:26.976054  1760 net.cpp:86] Creating Layer ip1
I0428 20:21:26.976058  1760 net.cpp:408] ip1 <- pool1
I0428 20:21:26.976061  1760 net.cpp:382] ip1 -> ip1
I0428 20:21:26.977126  1760 net.cpp:124] Setting up ip1
I0428 20:21:26.977155  1760 net.cpp:131] Top shape: 64 10 (640)
I0428 20:21:26.977159  1760 net.cpp:139] Memory required for data: 10443520
I0428 20:21:26.977167  1760 layer_factory.hpp:77] Creating layer relu1
I0428 20:21:26.977174  1760 net.cpp:86] Creating Layer relu1
I0428 20:21:26.977177  1760 net.cpp:408] relu1 <- ip1
I0428 20:21:26.977181  1760 net.cpp:369] relu1 -> ip1 (in-place)
I0428 20:21:26.977352  1760 net.cpp:124] Setting up relu1
I0428 20:21:26.977362  1760 net.cpp:131] Top shape: 64 10 (640)
I0428 20:21:26.977365  1760 net.cpp:139] Memory required for data: 10446080
I0428 20:21:26.977370  1760 layer_factory.hpp:77] Creating layer ip2
I0428 20:21:26.977375  1760 net.cpp:86] Creating Layer ip2
I0428 20:21:26.977378  1760 net.cpp:408] ip2 <- ip1
I0428 20:21:26.977383  1760 net.cpp:382] ip2 -> ip2
I0428 20:21:26.977481  1760 net.cpp:124] Setting up ip2
I0428 20:21:26.977489  1760 net.cpp:131] Top shape: 64 50 (3200)
I0428 20:21:26.977493  1760 net.cpp:139] Memory required for data: 10458880
I0428 20:21:26.977497  1760 layer_factory.hpp:77] Creating layer relu2
I0428 20:21:26.977504  1760 net.cpp:86] Creating Layer relu2
I0428 20:21:26.977507  1760 net.cpp:408] relu2 <- ip2
I0428 20:21:26.977511  1760 net.cpp:369] relu2 -> ip2 (in-place)
I0428 20:21:26.978248  1760 net.cpp:124] Setting up relu2
I0428 20:21:26.978260  1760 net.cpp:131] Top shape: 64 50 (3200)
I0428 20:21:26.978278  1760 net.cpp:139] Memory required for data: 10471680
I0428 20:21:26.978282  1760 layer_factory.hpp:77] Creating layer ip3
I0428 20:21:26.978288  1760 net.cpp:86] Creating Layer ip3
I0428 20:21:26.978293  1760 net.cpp:408] ip3 <- ip2
I0428 20:21:26.978298  1760 net.cpp:382] ip3 -> ip3
I0428 20:21:26.978396  1760 net.cpp:124] Setting up ip3
I0428 20:21:26.978404  1760 net.cpp:131] Top shape: 64 10 (640)
I0428 20:21:26.978407  1760 net.cpp:139] Memory required for data: 10474240
I0428 20:21:26.978415  1760 layer_factory.hpp:77] Creating layer relu3
I0428 20:21:26.978420  1760 net.cpp:86] Creating Layer relu3
I0428 20:21:26.978422  1760 net.cpp:408] relu3 <- ip3
I0428 20:21:26.978426  1760 net.cpp:369] relu3 -> ip3 (in-place)
I0428 20:21:26.978605  1760 net.cpp:124] Setting up relu3
I0428 20:21:26.978615  1760 net.cpp:131] Top shape: 64 10 (640)
I0428 20:21:26.978618  1760 net.cpp:139] Memory required for data: 10476800
I0428 20:21:26.978621  1760 layer_factory.hpp:77] Creating layer loss
I0428 20:21:26.978628  1760 net.cpp:86] Creating Layer loss
I0428 20:21:26.978631  1760 net.cpp:408] loss <- ip3
I0428 20:21:26.978636  1760 net.cpp:408] loss <- label
I0428 20:21:26.978641  1760 net.cpp:382] loss -> loss
I0428 20:21:26.978658  1760 layer_factory.hpp:77] Creating layer loss
…
I0428 20:21:26.979272  1760 solver.cpp:173] Creating test net (#0) specified by net file: ECE595/mnist/train_test/var_everything2/lenet_train_test1384.prototxt
I0428 20:21:26.979300  1760 net.cpp:296] The NetState phase (1) differed from the phase (0) specified by a rule in layer mnist
I0428 20:21:26.979385  1760 net.cpp:53] Initializing net from parameters: 
name: "LeNet"
state {
  phase: TEST
}
layer {
  name: "mnist"
  type: "Data"
  top: "data"
  top: "label"
  include {
    phase: TEST
  }
  transform_param {
    scale: 0.00390625
  }
  data_param {
    source: "examples/mnist/mnist_test_lmdb"
    batch_size: 100
    backend: LMDB
  }
}
layer {
  name: "conv0"
  type: "Convolution"
  bottom: "data"
  top: "conv0"
  param {
    lr_mult: 1
  }
  param {
    lr_mult: 2
  }
  convolution_param {
    num_output: 50
    kernel_size: 5
    stride: 1
    weight_filler {
      type: "xavier"
    }
    bias_filler {
      type: "constant"
    }
  }
}
layer {
  name: "pool0"
  type: "Pooling"
  bottom: "conv0"
  top: "pool0"
  pooling_param {
    pool: MAX
    kernel_size: 2
    stride: 2
  }
}
layer {
  name: "conv1"
  type: "Convolution"
  bottom: "pool0"
  top: "conv1"
  param {
    lr_mult: 1
  }
  param {
    lr_mult: 2
  }
  convolution_param {
    num_output: 50
    kernel_size: 5
    stride: 1
    weight_filler {
      type: "xavier"
    }
    bias_filler {
      type: "constant"
    }
  }
}
layer {
  name: "pool1"
  type: "Pooling"
  bottom: "conv1"
  top: "pool1"
  pooling_param {
    pool: MAX
    kernel_size: 2
    stride: 2
  }
}
layer {
  name: "ip1"
  type: "InnerProduct"
  bottom: "pool1"
  top: "ip1"
  param {
    lr_mult: 1
  }
  param {
    lr_mult: 2
  }
  inner_product_param {
    num_output: 10
    weight_filler {
      type: "xavier"
    }
    bias_filler {
      type: "constant"
    }
  }
}
layer {
  name: "relu1"
  type: "ReLU"
  bottom: "ip1"
  top: "ip1"
}
layer {
  name: "ip2"
  type: "InnerProduct"
  bottom: "ip1"
  top: "ip2"
  param {
    lr_mult: 1
  }
  param {
    lr_mult: 2
  }
  inner_product_param {
    num_output: 50
    weight_filler {
      type: "xavier"
    }
    bias_filler {
      type: "constant"
    }
  }
}
layer {
  name: "relu2"
  type: "ReLU"
  bottom: "ip2"
  top: "ip2"
}
layer {
  name: "ip3"
  type: "InnerProduct"
  bottom: "ip2"
  top: "ip3"
  param {
    lr_mult: 1
  }
  param {
    lr_mult: 2
  }
  inner_product_param {
    num_output: 10
    weight_filler {
      type: "xavier"
    }
    bias_filler {
      type: "constant"
    }
  }
}
layer {
  name: "relu3"
  type: "ReLU"
  bottom: "ip3"
  top: "ip3"
}
layer {
  name: "accuracy"
  type: "Accuracy"
  bottom: "ip3"
  bottom: "label"
  top: "accuracy"
  include {
    phase: TEST
  }
}
layer {
  name: "loss"
  type: "SoftmaxWithLoss"
  bottom: "ip3"
  bottom: "label"
  top: "loss"
}
I0428 20:21:26.979460  1760 layer_factory.hpp:77] Creating layer mnist
I0428 20:21:26.979503  1760 db_lmdb.cpp:35] Opened lmdb examples/mnist/mnist_test_lmdb
I0428 20:21:26.979514  1760 net.cpp:86] Creating Layer mnist
I0428 20:21:26.979519  1760 net.cpp:382] mnist -> data
I0428 20:21:26.979542  1760 net.cpp:382] mnist -> label
I0428 20:21:26.979624  1760 data_layer.cpp:45] output data size: 100,1,28,28
I0428 20:21:26.981537  1760 net.cpp:124] Setting up mnist
I0428 20:21:26.981565  1760 net.cpp:131] Top shape: 100 1 28 28 (78400)
I0428 20:21:26.981570  1760 net.cpp:131] Top shape: 100 (100)
I0428 20:21:26.981575  1760 net.cpp:139] Memory required for data: 314000
I0428 20:21:26.981577  1760 layer_factory.hpp:77] Creating layer label_mnist_1_split
I0428 20:21:26.981585  1760 net.cpp:86] Creating Layer label_mnist_1_split
I0428 20:21:26.981587  1760 net.cpp:408] label_mnist_1_split <- label
I0428 20:21:26.981591  1760 net.cpp:382] label_mnist_1_split -> label_mnist_1_split_0
I0428 20:21:26.981597  1760 net.cpp:382] label_mnist_1_split -> label_mnist_1_split_1
I0428 20:21:26.981632  1760 net.cpp:124] Setting up label_mnist_1_split
I0428 20:21:26.981637  1760 net.cpp:131] Top shape: 100 (100)
I0428 20:21:26.981642  1760 net.cpp:131] Top shape: 100 (100)
I0428 20:21:26.981643  1760 net.cpp:139] Memory required for data: 314800
I0428 20:21:26.981647  1760 layer_factory.hpp:77] Creating layer conv0
I0428 20:21:26.981653  1760 net.cpp:86] Creating Layer conv0
I0428 20:21:26.981657  1760 net.cpp:408] conv0 <- data
I0428 20:21:26.981660  1760 net.cpp:382] conv0 -> conv0
I0428 20:21:26.983443  1760 net.cpp:124] Setting up conv0
I0428 20:21:26.983456  1760 net.cpp:131] Top shape: 100 50 24 24 (2880000)
I0428 20:21:26.983460  1760 net.cpp:139] Memory required for data: 11834800
I0428 20:21:26.983484  1760 layer_factory.hpp:77] Creating layer pool0
I0428 20:21:26.983500  1760 net.cpp:86] Creating Layer pool0
I0428 20:21:26.983505  1760 net.cpp:408] pool0 <- conv0
I0428 20:21:26.983508  1760 net.cpp:382] pool0 -> pool0
I0428 20:21:26.983558  1760 net.cpp:124] Setting up pool0
I0428 20:21:26.983564  1760 net.cpp:131] Top shape: 100 50 12 12 (720000)
I0428 20:21:26.983567  1760 net.cpp:139] Memory required for data: 14714800
I0428 20:21:26.983570  1760 layer_factory.hpp:77] Creating layer conv1
I0428 20:21:26.983578  1760 net.cpp:86] Creating Layer conv1
I0428 20:21:26.983582  1760 net.cpp:408] conv1 <- pool0
I0428 20:21:26.983587  1760 net.cpp:382] conv1 -> conv1
I0428 20:21:26.985566  1760 net.cpp:124] Setting up conv1
I0428 20:21:26.985579  1760 net.cpp:131] Top shape: 100 50 8 8 (320000)
I0428 20:21:26.985584  1760 net.cpp:139] Memory required for data: 15994800
I0428 20:21:26.985592  1760 layer_factory.hpp:77] Creating layer pool1
I0428 20:21:26.985599  1760 net.cpp:86] Creating Layer pool1
I0428 20:21:26.985611  1760 net.cpp:408] pool1 <- conv1
I0428 20:21:26.985616  1760 net.cpp:382] pool1 -> pool1
I0428 20:21:26.985709  1760 net.cpp:124] Setting up pool1
I0428 20:21:26.985716  1760 net.cpp:131] Top shape: 100 50 4 4 (80000)
I0428 20:21:26.985720  1760 net.cpp:139] Memory required for data: 16314800
I0428 20:21:26.985723  1760 layer_factory.hpp:77] Creating layer ip1
I0428 20:21:26.985728  1760 net.cpp:86] Creating Layer ip1
I0428 20:21:26.985733  1760 net.cpp:408] ip1 <- pool1
I0428 20:21:26.985743  1760 net.cpp:382] ip1 -> ip1
I0428 20:21:26.985887  1760 net.cpp:124] Setting up ip1
I0428 20:21:26.985894  1760 net.cpp:131] Top shape: 100 10 (1000)
I0428 20:21:26.985908  1760 net.cpp:139] Memory required for data: 16318800
I0428 20:21:26.985915  1760 layer_factory.hpp:77] Creating layer relu1
I0428 20:21:26.985921  1760 net.cpp:86] Creating Layer relu1
I0428 20:21:26.985924  1760 net.cpp:408] relu1 <- ip1
I0428 20:21:26.985929  1760 net.cpp:369] relu1 -> ip1 (in-place)
I0428 20:21:26.986116  1760 net.cpp:124] Setting up relu1
I0428 20:21:26.986136  1760 net.cpp:131] Top shape: 100 10 (1000)
I0428 20:21:26.986140  1760 net.cpp:139] Memory required for data: 16322800
I0428 20:21:26.986143  1760 layer_factory.hpp:77] Creating layer ip2
I0428 20:21:26.986158  1760 net.cpp:86] Creating Layer ip2
I0428 20:21:26.986161  1760 net.cpp:408] ip2 <- ip1
I0428 20:21:26.986166  1760 net.cpp:382] ip2 -> ip2
I0428 20:21:26.986271  1760 net.cpp:124] Setting up ip2
I0428 20:21:26.986279  1760 net.cpp:131] Top shape: 100 50 (5000)
I0428 20:21:26.986297  1760 net.cpp:139] Memory required for data: 16342800
I0428 20:21:26.986302  1760 layer_factory.hpp:77] Creating layer relu2
I0428 20:21:26.986307  1760 net.cpp:86] Creating Layer relu2
I0428 20:21:26.986310  1760 net.cpp:408] relu2 <- ip2
I0428 20:21:26.986322  1760 net.cpp:369] relu2 -> ip2 (in-place)
I0428 20:21:26.986485  1760 net.cpp:124] Setting up relu2
I0428 20:21:26.986495  1760 net.cpp:131] Top shape: 100 50 (5000)
I0428 20:21:26.986498  1760 net.cpp:139] Memory required for data: 16362800
I0428 20:21:26.986507  1760 layer_factory.hpp:77] Creating layer ip3
I0428 20:21:26.986512  1760 net.cpp:86] Creating Layer ip3
I0428 20:21:26.986516  1760 net.cpp:408] ip3 <- ip2
I0428 20:21:26.986526  1760 net.cpp:382] ip3 -> ip3
I0428 20:21:26.986624  1760 net.cpp:124] Setting up ip3
I0428 20:21:26.986631  1760 net.cpp:131] Top shape: 100 10 (1000)
I0428 20:21:26.986634  1760 net.cpp:139] Memory required for data: 16366800
I0428 20:21:26.986641  1760 layer_factory.hpp:77] Creating layer relu3
I0428 20:21:26.986646  1760 net.cpp:86] Creating Layer relu3
I0428 20:21:26.986649  1760 net.cpp:408] relu3 <- ip3
I0428 20:21:26.986654  1760 net.cpp:369] relu3 -> ip3 (in-place)
I0428 20:21:26.987444  1760 net.cpp:124] Setting up relu3
I0428 20:21:26.987457  1760 net.cpp:131] Top shape: 100 10 (1000)
I0428 20:21:26.987460  1760 net.cpp:139] Memory required for data: 16370800
I0428 20:21:26.987464  1760 layer_factory.hpp:77] Creating layer ip3_relu3_0_split
I0428 20:21:26.987470  1760 net.cpp:86] Creating Layer ip3_relu3_0_split
I0428 20:21:26.987473  1760 net.cpp:408] ip3_relu3_0_split <- ip3
I0428 20:21:26.987478  1760 net.cpp:382] ip3_relu3_0_split -> ip3_relu3_0_split_0
I0428 20:21:26.987484  1760 net.cpp:382] ip3_relu3_0_split -> ip3_relu3_0_split_1
I0428 20:21:26.987547  1760 net.cpp:124] Setting up ip3_relu3_0_split
I0428 20:21:26.987553  1760 net.cpp:131] Top shape: 100 10 (1000)
I0428 20:21:26.987556  1760 net.cpp:131] Top shape: 100 10 (1000)
I0428 20:21:26.987560  1760 net.cpp:139] Memory required for data: 16378800
I0428 20:21:26.987562  1760 layer_factory.hpp:77] Creating layer accuracy
I0428 20:21:26.987567  1760 net.cpp:86] Creating Layer accuracy
I0428 20:21:26.987571  1760 net.cpp:408] accuracy <- ip3_relu3_0_split_0
I0428 20:21:26.987581  1760 net.cpp:408] accuracy <- label_mnist_1_split_0
I0428 20:21:26.987586  1760 net.cpp:382] accuracy -> accuracy
…
