…
I0428 19:43:04.320716 25252 net.cpp:296] The NetState phase (0) differed from the phase (1) specified by a rule in layer mnist
I0428 19:43:04.320741 25252 net.cpp:296] The NetState phase (0) differed from the phase (1) specified by a rule in layer accuracy
I0428 19:43:04.320863 25252 net.cpp:53] Initializing net from parameters: 
name: "LeNet"
state {
  phase: TRAIN
  level: 0
  stage: ""
}
layer {
  name: "mnist"
  type: "Data"
  top: "data"
  top: "label"
  include {
    phase: TRAIN
  }
  transform_param {
    scale: 0.00390625
  }
  data_param {
    source: "examples/mnist/mnist_train_lmdb"
    batch_size: 64
    backend: LMDB
  }
}
layer {
  name: "conv0"
  type: "Convolution"
  bottom: "data"
  top: "conv0"
  param {
    lr_mult: 1
  }
  param {
    lr_mult: 2
  }
  convolution_param {
    num_output: 2
    kernel_size: 5
    stride: 1
    weight_filler {
      type: "xavier"
    }
    bias_filler {
      type: "constant"
    }
  }
}
layer {
  name: "pool0"
  type: "Pooling"
  bottom: "conv0"
  top: "pool0"
  pooling_param {
    pool: MAX
    kernel_size: 2
    stride: 2
  }
}
layer {
  name: "conv1"
  type: "Convolution"
  bottom: "pool0"
  top: "conv1"
  param {
    lr_mult: 1
  }
  param {
    lr_mult: 2
  }
  convolution_param {
    num_output: 25
    kernel_size: 5
    stride: 1
    weight_filler {
      type: "xavier"
    }
    bias_filler {
      type: "constant"
    }
  }
}
layer {
  name: "pool1"
  type: "Pooling"
  bottom: "conv1"
  top: "pool1"
  pooling_param {
    pool: MAX
    kernel_size: 2
    stride: 2
  }
}
layer {
  name: "ip1"
  type: "InnerProduct"
  bottom: "pool1"
  top: "ip1"
  param {
    lr_mult: 1
  }
  param {
    lr_mult: 2
  }
  inner_product_param {
    num_output: 25
    weight_filler {
      type: "xavier"
    }
    bias_filler {
      type: "constant"
    }
  }
}
layer {
  name: "relu1"
  type: "ReLU"
  bottom: "ip1"
  top: "ip1"
}
layer {
  name: "ip2"
  type: "InnerProduct"
  bottom: "ip1"
  top: "ip2"
  param {
    lr_mult: 1
  }
  param {
    lr_mult: 2
  }
  inner_product_param {
    num_output: 10
    weight_filler {
      type: "xavier"
    }
    bias_filler {
      type: "constant"
    }
  }
}
layer {
  name: "relu2"
  type: "ReLU"
  bottom: "ip2"
  top: "ip2"
}
layer {
  name: "ip3"
  type: "InnerProduct"
  bottom: "ip2"
  top: "ip3"
  param {
    lr_mult: 1
  }
  param {
    lr_mult: 2
  }
  inner_product_param {
    num_output: 10
    weight_filler {
      type: "xavier"
    }
    bias_filler {
      type: "constant"
    }
  }
}
layer {
  name: "relu3"
  type: "ReLU"
  bottom: "ip3"
  top: "ip3"
}
layer {
  name: "loss"
  type: "SoftmaxWithLoss"
  bottom: "ip3"
  bottom: "label"
  top: "loss"
}
I0428 19:43:04.320983 25252 layer_factory.hpp:77] Creating layer mnist
I0428 19:43:04.321116 25252 db_lmdb.cpp:35] Opened lmdb examples/mnist/mnist_train_lmdb
I0428 19:43:04.321148 25252 net.cpp:86] Creating Layer mnist
I0428 19:43:04.321162 25252 net.cpp:382] mnist -> data
I0428 19:43:04.321193 25252 net.cpp:382] mnist -> label
I0428 19:43:04.322459 25252 data_layer.cpp:45] output data size: 64,1,28,28
I0428 19:43:04.324932 25252 net.cpp:124] Setting up mnist
I0428 19:43:04.324952 25252 net.cpp:131] Top shape: 64 1 28 28 (50176)
I0428 19:43:04.324964 25252 net.cpp:131] Top shape: 64 (64)
I0428 19:43:04.324970 25252 net.cpp:139] Memory required for data: 200960
I0428 19:43:04.324980 25252 layer_factory.hpp:77] Creating layer conv0
I0428 19:43:04.325004 25252 net.cpp:86] Creating Layer conv0
I0428 19:43:04.325028 25252 net.cpp:408] conv0 <- data
I0428 19:43:04.325049 25252 net.cpp:382] conv0 -> conv0
I0428 19:43:04.615690 25252 net.cpp:124] Setting up conv0
I0428 19:43:04.615725 25252 net.cpp:131] Top shape: 64 2 24 24 (73728)
I0428 19:43:04.615732 25252 net.cpp:139] Memory required for data: 495872
I0428 19:43:04.615756 25252 layer_factory.hpp:77] Creating layer pool0
I0428 19:43:04.615777 25252 net.cpp:86] Creating Layer pool0
I0428 19:43:04.615785 25252 net.cpp:408] pool0 <- conv0
I0428 19:43:04.615797 25252 net.cpp:382] pool0 -> pool0
I0428 19:43:04.615869 25252 net.cpp:124] Setting up pool0
I0428 19:43:04.615880 25252 net.cpp:131] Top shape: 64 2 12 12 (18432)
I0428 19:43:04.615886 25252 net.cpp:139] Memory required for data: 569600
I0428 19:43:04.615892 25252 layer_factory.hpp:77] Creating layer conv1
I0428 19:43:04.615911 25252 net.cpp:86] Creating Layer conv1
I0428 19:43:04.615919 25252 net.cpp:408] conv1 <- pool0
I0428 19:43:04.615931 25252 net.cpp:382] conv1 -> conv1
I0428 19:43:04.619041 25252 net.cpp:124] Setting up conv1
I0428 19:43:04.619061 25252 net.cpp:131] Top shape: 64 25 8 8 (102400)
I0428 19:43:04.619068 25252 net.cpp:139] Memory required for data: 979200
I0428 19:43:04.619084 25252 layer_factory.hpp:77] Creating layer pool1
I0428 19:43:04.619098 25252 net.cpp:86] Creating Layer pool1
I0428 19:43:04.619107 25252 net.cpp:408] pool1 <- conv1
I0428 19:43:04.619117 25252 net.cpp:382] pool1 -> pool1
I0428 19:43:04.619170 25252 net.cpp:124] Setting up pool1
I0428 19:43:04.619180 25252 net.cpp:131] Top shape: 64 25 4 4 (25600)
I0428 19:43:04.619187 25252 net.cpp:139] Memory required for data: 1081600
I0428 19:43:04.619194 25252 layer_factory.hpp:77] Creating layer ip1
I0428 19:43:04.619205 25252 net.cpp:86] Creating Layer ip1
I0428 19:43:04.619212 25252 net.cpp:408] ip1 <- pool1
I0428 19:43:04.619222 25252 net.cpp:382] ip1 -> ip1
I0428 19:43:04.620385 25252 net.cpp:124] Setting up ip1
I0428 19:43:04.620403 25252 net.cpp:131] Top shape: 64 25 (1600)
I0428 19:43:04.620409 25252 net.cpp:139] Memory required for data: 1088000
I0428 19:43:04.620424 25252 layer_factory.hpp:77] Creating layer relu1
I0428 19:43:04.620437 25252 net.cpp:86] Creating Layer relu1
I0428 19:43:04.620451 25252 net.cpp:408] relu1 <- ip1
I0428 19:43:04.620461 25252 net.cpp:369] relu1 -> ip1 (in-place)
I0428 19:43:04.620671 25252 net.cpp:124] Setting up relu1
I0428 19:43:04.620682 25252 net.cpp:131] Top shape: 64 25 (1600)
I0428 19:43:04.620688 25252 net.cpp:139] Memory required for data: 1094400
I0428 19:43:04.620695 25252 layer_factory.hpp:77] Creating layer ip2
I0428 19:43:04.620707 25252 net.cpp:86] Creating Layer ip2
I0428 19:43:04.620713 25252 net.cpp:408] ip2 <- ip1
I0428 19:43:04.620724 25252 net.cpp:382] ip2 -> ip2
I0428 19:43:04.620859 25252 net.cpp:124] Setting up ip2
I0428 19:43:04.620870 25252 net.cpp:131] Top shape: 64 10 (640)
I0428 19:43:04.620877 25252 net.cpp:139] Memory required for data: 1096960
I0428 19:43:04.620887 25252 layer_factory.hpp:77] Creating layer relu2
I0428 19:43:04.620899 25252 net.cpp:86] Creating Layer relu2
I0428 19:43:04.620905 25252 net.cpp:408] relu2 <- ip2
I0428 19:43:04.620914 25252 net.cpp:369] relu2 -> ip2 (in-place)
I0428 19:43:04.621773 25252 net.cpp:124] Setting up relu2
I0428 19:43:04.621790 25252 net.cpp:131] Top shape: 64 10 (640)
I0428 19:43:04.621798 25252 net.cpp:139] Memory required for data: 1099520
I0428 19:43:04.621804 25252 layer_factory.hpp:77] Creating layer ip3
I0428 19:43:04.621817 25252 net.cpp:86] Creating Layer ip3
I0428 19:43:04.621824 25252 net.cpp:408] ip3 <- ip2
I0428 19:43:04.621835 25252 net.cpp:382] ip3 -> ip3
I0428 19:43:04.621964 25252 net.cpp:124] Setting up ip3
I0428 19:43:04.621976 25252 net.cpp:131] Top shape: 64 10 (640)
I0428 19:43:04.621983 25252 net.cpp:139] Memory required for data: 1102080
I0428 19:43:04.621999 25252 layer_factory.hpp:77] Creating layer relu3
I0428 19:43:04.622014 25252 net.cpp:86] Creating Layer relu3
I0428 19:43:04.622025 25252 net.cpp:408] relu3 <- ip3
I0428 19:43:04.622035 25252 net.cpp:369] relu3 -> ip3 (in-place)
I0428 19:43:04.622238 25252 net.cpp:124] Setting up relu3
I0428 19:43:04.622251 25252 net.cpp:131] Top shape: 64 10 (640)
I0428 19:43:04.622256 25252 net.cpp:139] Memory required for data: 1104640
I0428 19:43:04.622263 25252 layer_factory.hpp:77] Creating layer loss
I0428 19:43:04.622274 25252 net.cpp:86] Creating Layer loss
I0428 19:43:04.622280 25252 net.cpp:408] loss <- ip3
I0428 19:43:04.622288 25252 net.cpp:408] loss <- label
I0428 19:43:04.622299 25252 net.cpp:382] loss -> loss
I0428 19:43:04.622326 25252 layer_factory.hpp:77] Creating layer loss
…
I0428 19:43:04.623139 25252 solver.cpp:173] Creating test net (#0) specified by net file: ECE595/mnist/train_test/var_everything2/lenet_train_test411.prototxt
I0428 19:43:04.623181 25252 net.cpp:296] The NetState phase (1) differed from the phase (0) specified by a rule in layer mnist
I0428 19:43:04.623298 25252 net.cpp:53] Initializing net from parameters: 
name: "LeNet"
state {
  phase: TEST
}
layer {
  name: "mnist"
  type: "Data"
  top: "data"
  top: "label"
  include {
    phase: TEST
  }
  transform_param {
    scale: 0.00390625
  }
  data_param {
    source: "examples/mnist/mnist_test_lmdb"
    batch_size: 100
    backend: LMDB
  }
}
layer {
  name: "conv0"
  type: "Convolution"
  bottom: "data"
  top: "conv0"
  param {
    lr_mult: 1
  }
  param {
    lr_mult: 2
  }
  convolution_param {
    num_output: 2
    kernel_size: 5
    stride: 1
    weight_filler {
      type: "xavier"
    }
    bias_filler {
      type: "constant"
    }
  }
}
layer {
  name: "pool0"
  type: "Pooling"
  bottom: "conv0"
  top: "pool0"
  pooling_param {
    pool: MAX
    kernel_size: 2
    stride: 2
  }
}
layer {
  name: "conv1"
  type: "Convolution"
  bottom: "pool0"
  top: "conv1"
  param {
    lr_mult: 1
  }
  param {
    lr_mult: 2
  }
  convolution_param {
    num_output: 25
    kernel_size: 5
    stride: 1
    weight_filler {
      type: "xavier"
    }
    bias_filler {
      type: "constant"
    }
  }
}
layer {
  name: "pool1"
  type: "Pooling"
  bottom: "conv1"
  top: "pool1"
  pooling_param {
    pool: MAX
    kernel_size: 2
    stride: 2
  }
}
layer {
  name: "ip1"
  type: "InnerProduct"
  bottom: "pool1"
  top: "ip1"
  param {
    lr_mult: 1
  }
  param {
    lr_mult: 2
  }
  inner_product_param {
    num_output: 25
    weight_filler {
      type: "xavier"
    }
    bias_filler {
      type: "constant"
    }
  }
}
layer {
  name: "relu1"
  type: "ReLU"
  bottom: "ip1"
  top: "ip1"
}
layer {
  name: "ip2"
  type: "InnerProduct"
  bottom: "ip1"
  top: "ip2"
  param {
    lr_mult: 1
  }
  param {
    lr_mult: 2
  }
  inner_product_param {
    num_output: 10
    weight_filler {
      type: "xavier"
    }
    bias_filler {
      type: "constant"
    }
  }
}
layer {
  name: "relu2"
  type: "ReLU"
  bottom: "ip2"
  top: "ip2"
}
layer {
  name: "ip3"
  type: "InnerProduct"
  bottom: "ip2"
  top: "ip3"
  param {
    lr_mult: 1
  }
  param {
    lr_mult: 2
  }
  inner_product_param {
    num_output: 10
    weight_filler {
      type: "xavier"
    }
    bias_filler {
      type: "constant"
    }
  }
}
layer {
  name: "relu3"
  type: "ReLU"
  bottom: "ip3"
  top: "ip3"
}
layer {
  name: "accuracy"
  type: "Accuracy"
  bottom: "ip3"
  bottom: "label"
  top: "accuracy"
  include {
    phase: TEST
  }
}
layer {
  name: "loss"
  type: "SoftmaxWithLoss"
  bottom: "ip3"
  bottom: "label"
  top: "loss"
}
I0428 19:43:04.623437 25252 layer_factory.hpp:77] Creating layer mnist
I0428 19:43:04.623508 25252 db_lmdb.cpp:35] Opened lmdb examples/mnist/mnist_test_lmdb
I0428 19:43:04.623529 25252 net.cpp:86] Creating Layer mnist
I0428 19:43:04.623539 25252 net.cpp:382] mnist -> data
I0428 19:43:04.623553 25252 net.cpp:382] mnist -> label
I0428 19:43:04.623697 25252 data_layer.cpp:45] output data size: 100,1,28,28
I0428 19:43:04.626075 25252 net.cpp:124] Setting up mnist
I0428 19:43:04.626093 25252 net.cpp:131] Top shape: 100 1 28 28 (78400)
I0428 19:43:04.626103 25252 net.cpp:131] Top shape: 100 (100)
I0428 19:43:04.626109 25252 net.cpp:139] Memory required for data: 314000
I0428 19:43:04.626117 25252 layer_factory.hpp:77] Creating layer label_mnist_1_split
I0428 19:43:04.626150 25252 net.cpp:86] Creating Layer label_mnist_1_split
I0428 19:43:04.626158 25252 net.cpp:408] label_mnist_1_split <- label
I0428 19:43:04.626168 25252 net.cpp:382] label_mnist_1_split -> label_mnist_1_split_0
I0428 19:43:04.626181 25252 net.cpp:382] label_mnist_1_split -> label_mnist_1_split_1
I0428 19:43:04.626281 25252 net.cpp:124] Setting up label_mnist_1_split
I0428 19:43:04.626291 25252 net.cpp:131] Top shape: 100 (100)
I0428 19:43:04.626298 25252 net.cpp:131] Top shape: 100 (100)
I0428 19:43:04.626304 25252 net.cpp:139] Memory required for data: 314800
I0428 19:43:04.626312 25252 layer_factory.hpp:77] Creating layer conv0
I0428 19:43:04.626328 25252 net.cpp:86] Creating Layer conv0
I0428 19:43:04.626338 25252 net.cpp:408] conv0 <- data
I0428 19:43:04.626348 25252 net.cpp:382] conv0 -> conv0
I0428 19:43:04.628165 25252 net.cpp:124] Setting up conv0
I0428 19:43:04.628185 25252 net.cpp:131] Top shape: 100 2 24 24 (115200)
I0428 19:43:04.628191 25252 net.cpp:139] Memory required for data: 775600
I0428 19:43:04.628208 25252 layer_factory.hpp:77] Creating layer pool0
I0428 19:43:04.628221 25252 net.cpp:86] Creating Layer pool0
I0428 19:43:04.628234 25252 net.cpp:408] pool0 <- conv0
I0428 19:43:04.628244 25252 net.cpp:382] pool0 -> pool0
I0428 19:43:04.628295 25252 net.cpp:124] Setting up pool0
I0428 19:43:04.628305 25252 net.cpp:131] Top shape: 100 2 12 12 (28800)
I0428 19:43:04.628311 25252 net.cpp:139] Memory required for data: 890800
I0428 19:43:04.628319 25252 layer_factory.hpp:77] Creating layer conv1
I0428 19:43:04.628334 25252 net.cpp:86] Creating Layer conv1
I0428 19:43:04.628341 25252 net.cpp:408] conv1 <- pool0
I0428 19:43:04.628352 25252 net.cpp:382] conv1 -> conv1
I0428 19:43:04.630117 25252 net.cpp:124] Setting up conv1
I0428 19:43:04.630136 25252 net.cpp:131] Top shape: 100 25 8 8 (160000)
I0428 19:43:04.630147 25252 net.cpp:139] Memory required for data: 1530800
I0428 19:43:04.630163 25252 layer_factory.hpp:77] Creating layer pool1
I0428 19:43:04.630175 25252 net.cpp:86] Creating Layer pool1
I0428 19:43:04.630182 25252 net.cpp:408] pool1 <- conv1
I0428 19:43:04.630204 25252 net.cpp:382] pool1 -> pool1
I0428 19:43:04.630260 25252 net.cpp:124] Setting up pool1
I0428 19:43:04.630271 25252 net.cpp:131] Top shape: 100 25 4 4 (40000)
I0428 19:43:04.630282 25252 net.cpp:139] Memory required for data: 1690800
I0428 19:43:04.630288 25252 layer_factory.hpp:77] Creating layer ip1
I0428 19:43:04.630303 25252 net.cpp:86] Creating Layer ip1
I0428 19:43:04.630314 25252 net.cpp:408] ip1 <- pool1
I0428 19:43:04.630326 25252 net.cpp:382] ip1 -> ip1
I0428 19:43:04.630524 25252 net.cpp:124] Setting up ip1
I0428 19:43:04.630537 25252 net.cpp:131] Top shape: 100 25 (2500)
I0428 19:43:04.630556 25252 net.cpp:139] Memory required for data: 1700800
I0428 19:43:04.630573 25252 layer_factory.hpp:77] Creating layer relu1
I0428 19:43:04.630584 25252 net.cpp:86] Creating Layer relu1
I0428 19:43:04.630590 25252 net.cpp:408] relu1 <- ip1
I0428 19:43:04.630599 25252 net.cpp:369] relu1 -> ip1 (in-place)
I0428 19:43:04.630901 25252 net.cpp:124] Setting up relu1
I0428 19:43:04.630913 25252 net.cpp:131] Top shape: 100 25 (2500)
I0428 19:43:04.630920 25252 net.cpp:139] Memory required for data: 1710800
I0428 19:43:04.630928 25252 layer_factory.hpp:77] Creating layer ip2
I0428 19:43:04.630940 25252 net.cpp:86] Creating Layer ip2
I0428 19:43:04.630947 25252 net.cpp:408] ip2 <- ip1
I0428 19:43:04.630959 25252 net.cpp:382] ip2 -> ip2
I0428 19:43:04.631098 25252 net.cpp:124] Setting up ip2
I0428 19:43:04.631109 25252 net.cpp:131] Top shape: 100 10 (1000)
I0428 19:43:04.631115 25252 net.cpp:139] Memory required for data: 1714800
I0428 19:43:04.631126 25252 layer_factory.hpp:77] Creating layer relu2
I0428 19:43:04.631135 25252 net.cpp:86] Creating Layer relu2
I0428 19:43:04.631142 25252 net.cpp:408] relu2 <- ip2
I0428 19:43:04.631153 25252 net.cpp:369] relu2 -> ip2 (in-place)
I0428 19:43:04.631357 25252 net.cpp:124] Setting up relu2
I0428 19:43:04.631369 25252 net.cpp:131] Top shape: 100 10 (1000)
I0428 19:43:04.631376 25252 net.cpp:139] Memory required for data: 1718800
I0428 19:43:04.631382 25252 layer_factory.hpp:77] Creating layer ip3
I0428 19:43:04.631393 25252 net.cpp:86] Creating Layer ip3
I0428 19:43:04.631402 25252 net.cpp:408] ip3 <- ip2
I0428 19:43:04.631413 25252 net.cpp:382] ip3 -> ip3
I0428 19:43:04.631541 25252 net.cpp:124] Setting up ip3
I0428 19:43:04.631551 25252 net.cpp:131] Top shape: 100 10 (1000)
I0428 19:43:04.631556 25252 net.cpp:139] Memory required for data: 1722800
I0428 19:43:04.631570 25252 layer_factory.hpp:77] Creating layer relu3
I0428 19:43:04.631580 25252 net.cpp:86] Creating Layer relu3
I0428 19:43:04.631587 25252 net.cpp:408] relu3 <- ip3
I0428 19:43:04.631598 25252 net.cpp:369] relu3 -> ip3 (in-place)
I0428 19:43:04.632550 25252 net.cpp:124] Setting up relu3
I0428 19:43:04.632566 25252 net.cpp:131] Top shape: 100 10 (1000)
I0428 19:43:04.632573 25252 net.cpp:139] Memory required for data: 1726800
I0428 19:43:04.632580 25252 layer_factory.hpp:77] Creating layer ip3_relu3_0_split
I0428 19:43:04.632591 25252 net.cpp:86] Creating Layer ip3_relu3_0_split
I0428 19:43:04.632597 25252 net.cpp:408] ip3_relu3_0_split <- ip3
I0428 19:43:04.632607 25252 net.cpp:382] ip3_relu3_0_split -> ip3_relu3_0_split_0
I0428 19:43:04.632619 25252 net.cpp:382] ip3_relu3_0_split -> ip3_relu3_0_split_1
I0428 19:43:04.632676 25252 net.cpp:124] Setting up ip3_relu3_0_split
I0428 19:43:04.632686 25252 net.cpp:131] Top shape: 100 10 (1000)
I0428 19:43:04.632694 25252 net.cpp:131] Top shape: 100 10 (1000)
I0428 19:43:04.632700 25252 net.cpp:139] Memory required for data: 1734800
I0428 19:43:04.632707 25252 layer_factory.hpp:77] Creating layer accuracy
I0428 19:43:04.632716 25252 net.cpp:86] Creating Layer accuracy
I0428 19:43:04.632722 25252 net.cpp:408] accuracy <- ip3_relu3_0_split_0
I0428 19:43:04.632731 25252 net.cpp:408] accuracy <- label_mnist_1_split_0
I0428 19:43:04.632745 25252 net.cpp:382] accuracy -> accuracy
…
