…
I0428 20:05:37.968564 30659 net.cpp:296] The NetState phase (0) differed from the phase (1) specified by a rule in layer mnist
I0428 20:05:37.968597 30659 net.cpp:296] The NetState phase (0) differed from the phase (1) specified by a rule in layer accuracy
I0428 20:05:37.968693 30659 net.cpp:53] Initializing net from parameters: 
name: "LeNet"
state {
  phase: TRAIN
  level: 0
  stage: ""
}
layer {
  name: "mnist"
  type: "Data"
  top: "data"
  top: "label"
  include {
    phase: TRAIN
  }
  transform_param {
    scale: 0.00390625
  }
  data_param {
    source: "examples/mnist/mnist_train_lmdb"
    batch_size: 64
    backend: LMDB
  }
}
layer {
  name: "conv0"
  type: "Convolution"
  bottom: "data"
  top: "conv0"
  param {
    lr_mult: 1
  }
  param {
    lr_mult: 2
  }
  convolution_param {
    num_output: 25
    kernel_size: 5
    stride: 1
    weight_filler {
      type: "xavier"
    }
    bias_filler {
      type: "constant"
    }
  }
}
layer {
  name: "pool0"
  type: "Pooling"
  bottom: "conv0"
  top: "pool0"
  pooling_param {
    pool: MAX
    kernel_size: 2
    stride: 2
  }
}
layer {
  name: "conv1"
  type: "Convolution"
  bottom: "pool0"
  top: "conv1"
  param {
    lr_mult: 1
  }
  param {
    lr_mult: 2
  }
  convolution_param {
    num_output: 2
    kernel_size: 5
    stride: 1
    weight_filler {
      type: "xavier"
    }
    bias_filler {
      type: "constant"
    }
  }
}
layer {
  name: "pool1"
  type: "Pooling"
  bottom: "conv1"
  top: "pool1"
  pooling_param {
    pool: MAX
    kernel_size: 2
    stride: 2
  }
}
layer {
  name: "ip1"
  type: "InnerProduct"
  bottom: "pool1"
  top: "ip1"
  param {
    lr_mult: 1
  }
  param {
    lr_mult: 2
  }
  inner_product_param {
    num_output: 50
    weight_filler {
      type: "xavier"
    }
    bias_filler {
      type: "constant"
    }
  }
}
layer {
  name: "relu1"
  type: "ReLU"
  bottom: "ip1"
  top: "ip1"
}
layer {
  name: "ip2"
  type: "InnerProduct"
  bottom: "ip1"
  top: "ip2"
  param {
    lr_mult: 1
  }
  param {
    lr_mult: 2
  }
  inner_product_param {
    num_output: 10
    weight_filler {
      type: "xavier"
    }
    bias_filler {
      type: "constant"
    }
  }
}
layer {
  name: "relu2"
  type: "ReLU"
  bottom: "ip2"
  top: "ip2"
}
layer {
  name: "ip3"
  type: "InnerProduct"
  bottom: "ip2"
  top: "ip3"
  param {
    lr_mult: 1
  }
  param {
    lr_mult: 2
  }
  inner_product_param {
    num_output: 10
    weight_filler {
      type: "xavier"
    }
    bias_filler {
      type: "constant"
    }
  }
}
layer {
  name: "relu3"
  type: "ReLU"
  bottom: "ip3"
  top: "ip3"
}
layer {
  name: "loss"
  type: "SoftmaxWithLoss"
  bottom: "ip3"
  bottom: "label"
  top: "loss"
}
I0428 20:05:37.968757 30659 layer_factory.hpp:77] Creating layer mnist
I0428 20:05:37.968880 30659 db_lmdb.cpp:35] Opened lmdb examples/mnist/mnist_train_lmdb
I0428 20:05:37.968899 30659 net.cpp:86] Creating Layer mnist
I0428 20:05:37.968907 30659 net.cpp:382] mnist -> data
I0428 20:05:37.968925 30659 net.cpp:382] mnist -> label
I0428 20:05:37.969946 30659 data_layer.cpp:45] output data size: 64,1,28,28
I0428 20:05:37.972151 30659 net.cpp:124] Setting up mnist
I0428 20:05:37.972164 30659 net.cpp:131] Top shape: 64 1 28 28 (50176)
I0428 20:05:37.972170 30659 net.cpp:131] Top shape: 64 (64)
I0428 20:05:37.972173 30659 net.cpp:139] Memory required for data: 200960
I0428 20:05:37.972179 30659 layer_factory.hpp:77] Creating layer conv0
I0428 20:05:37.972219 30659 net.cpp:86] Creating Layer conv0
I0428 20:05:37.972236 30659 net.cpp:408] conv0 <- data
I0428 20:05:37.972249 30659 net.cpp:382] conv0 -> conv0
I0428 20:05:38.199517 30659 net.cpp:124] Setting up conv0
I0428 20:05:38.199542 30659 net.cpp:131] Top shape: 64 25 24 24 (921600)
I0428 20:05:38.199546 30659 net.cpp:139] Memory required for data: 3887360
I0428 20:05:38.199561 30659 layer_factory.hpp:77] Creating layer pool0
I0428 20:05:38.199573 30659 net.cpp:86] Creating Layer pool0
I0428 20:05:38.199578 30659 net.cpp:408] pool0 <- conv0
I0428 20:05:38.199582 30659 net.cpp:382] pool0 -> pool0
I0428 20:05:38.199640 30659 net.cpp:124] Setting up pool0
I0428 20:05:38.199646 30659 net.cpp:131] Top shape: 64 25 12 12 (230400)
I0428 20:05:38.199650 30659 net.cpp:139] Memory required for data: 4808960
I0428 20:05:38.199652 30659 layer_factory.hpp:77] Creating layer conv1
I0428 20:05:38.199662 30659 net.cpp:86] Creating Layer conv1
I0428 20:05:38.199666 30659 net.cpp:408] conv1 <- pool0
I0428 20:05:38.199671 30659 net.cpp:382] conv1 -> conv1
I0428 20:05:38.202417 30659 net.cpp:124] Setting up conv1
I0428 20:05:38.202447 30659 net.cpp:131] Top shape: 64 2 8 8 (8192)
I0428 20:05:38.202451 30659 net.cpp:139] Memory required for data: 4841728
I0428 20:05:38.202460 30659 layer_factory.hpp:77] Creating layer pool1
I0428 20:05:38.202466 30659 net.cpp:86] Creating Layer pool1
I0428 20:05:38.202486 30659 net.cpp:408] pool1 <- conv1
I0428 20:05:38.202491 30659 net.cpp:382] pool1 -> pool1
I0428 20:05:38.202525 30659 net.cpp:124] Setting up pool1
I0428 20:05:38.202543 30659 net.cpp:131] Top shape: 64 2 4 4 (2048)
I0428 20:05:38.202545 30659 net.cpp:139] Memory required for data: 4849920
I0428 20:05:38.202548 30659 layer_factory.hpp:77] Creating layer ip1
I0428 20:05:38.202555 30659 net.cpp:86] Creating Layer ip1
I0428 20:05:38.202558 30659 net.cpp:408] ip1 <- pool1
I0428 20:05:38.202563 30659 net.cpp:382] ip1 -> ip1
I0428 20:05:38.202682 30659 net.cpp:124] Setting up ip1
I0428 20:05:38.202689 30659 net.cpp:131] Top shape: 64 50 (3200)
I0428 20:05:38.202692 30659 net.cpp:139] Memory required for data: 4862720
I0428 20:05:38.202699 30659 layer_factory.hpp:77] Creating layer relu1
I0428 20:05:38.202704 30659 net.cpp:86] Creating Layer relu1
I0428 20:05:38.202708 30659 net.cpp:408] relu1 <- ip1
I0428 20:05:38.202711 30659 net.cpp:369] relu1 -> ip1 (in-place)
I0428 20:05:38.202863 30659 net.cpp:124] Setting up relu1
I0428 20:05:38.202872 30659 net.cpp:131] Top shape: 64 50 (3200)
I0428 20:05:38.202874 30659 net.cpp:139] Memory required for data: 4875520
I0428 20:05:38.202877 30659 layer_factory.hpp:77] Creating layer ip2
I0428 20:05:38.202883 30659 net.cpp:86] Creating Layer ip2
I0428 20:05:38.202886 30659 net.cpp:408] ip2 <- ip1
I0428 20:05:38.202891 30659 net.cpp:382] ip2 -> ip2
I0428 20:05:38.202981 30659 net.cpp:124] Setting up ip2
I0428 20:05:38.202988 30659 net.cpp:131] Top shape: 64 10 (640)
I0428 20:05:38.202991 30659 net.cpp:139] Memory required for data: 4878080
I0428 20:05:38.202996 30659 layer_factory.hpp:77] Creating layer relu2
I0428 20:05:38.203001 30659 net.cpp:86] Creating Layer relu2
I0428 20:05:38.203004 30659 net.cpp:408] relu2 <- ip2
I0428 20:05:38.203008 30659 net.cpp:369] relu2 -> ip2 (in-place)
I0428 20:05:38.203737 30659 net.cpp:124] Setting up relu2
I0428 20:05:38.203748 30659 net.cpp:131] Top shape: 64 10 (640)
I0428 20:05:38.203768 30659 net.cpp:139] Memory required for data: 4880640
I0428 20:05:38.203773 30659 layer_factory.hpp:77] Creating layer ip3
I0428 20:05:38.203779 30659 net.cpp:86] Creating Layer ip3
I0428 20:05:38.203783 30659 net.cpp:408] ip3 <- ip2
I0428 20:05:38.203788 30659 net.cpp:382] ip3 -> ip3
I0428 20:05:38.203912 30659 net.cpp:124] Setting up ip3
I0428 20:05:38.203919 30659 net.cpp:131] Top shape: 64 10 (640)
I0428 20:05:38.203922 30659 net.cpp:139] Memory required for data: 4883200
I0428 20:05:38.203929 30659 layer_factory.hpp:77] Creating layer relu3
I0428 20:05:38.203934 30659 net.cpp:86] Creating Layer relu3
I0428 20:05:38.203941 30659 net.cpp:408] relu3 <- ip3
I0428 20:05:38.203945 30659 net.cpp:369] relu3 -> ip3 (in-place)
I0428 20:05:38.204102 30659 net.cpp:124] Setting up relu3
I0428 20:05:38.204110 30659 net.cpp:131] Top shape: 64 10 (640)
I0428 20:05:38.204113 30659 net.cpp:139] Memory required for data: 4885760
I0428 20:05:38.204118 30659 layer_factory.hpp:77] Creating layer loss
I0428 20:05:38.204123 30659 net.cpp:86] Creating Layer loss
I0428 20:05:38.204125 30659 net.cpp:408] loss <- ip3
I0428 20:05:38.204129 30659 net.cpp:408] loss <- label
I0428 20:05:38.204134 30659 net.cpp:382] loss -> loss
I0428 20:05:38.204149 30659 layer_factory.hpp:77] Creating layer loss
…
I0428 20:05:38.204737 30659 solver.cpp:173] Creating test net (#0) specified by net file: ECE595/mnist/train_test/var_everything2/lenet_train_test1005.prototxt
I0428 20:05:38.204793 30659 net.cpp:296] The NetState phase (1) differed from the phase (0) specified by a rule in layer mnist
I0428 20:05:38.204959 30659 net.cpp:53] Initializing net from parameters: 
name: "LeNet"
state {
  phase: TEST
}
layer {
  name: "mnist"
  type: "Data"
  top: "data"
  top: "label"
  include {
    phase: TEST
  }
  transform_param {
    scale: 0.00390625
  }
  data_param {
    source: "examples/mnist/mnist_test_lmdb"
    batch_size: 100
    backend: LMDB
  }
}
layer {
  name: "conv0"
  type: "Convolution"
  bottom: "data"
  top: "conv0"
  param {
    lr_mult: 1
  }
  param {
    lr_mult: 2
  }
  convolution_param {
    num_output: 25
    kernel_size: 5
    stride: 1
    weight_filler {
      type: "xavier"
    }
    bias_filler {
      type: "constant"
    }
  }
}
layer {
  name: "pool0"
  type: "Pooling"
  bottom: "conv0"
  top: "pool0"
  pooling_param {
    pool: MAX
    kernel_size: 2
    stride: 2
  }
}
layer {
  name: "conv1"
  type: "Convolution"
  bottom: "pool0"
  top: "conv1"
  param {
    lr_mult: 1
  }
  param {
    lr_mult: 2
  }
  convolution_param {
    num_output: 2
    kernel_size: 5
    stride: 1
    weight_filler {
      type: "xavier"
    }
    bias_filler {
      type: "constant"
    }
  }
}
layer {
  name: "pool1"
  type: "Pooling"
  bottom: "conv1"
  top: "pool1"
  pooling_param {
    pool: MAX
    kernel_size: 2
    stride: 2
  }
}
layer {
  name: "ip1"
  type: "InnerProduct"
  bottom: "pool1"
  top: "ip1"
  param {
    lr_mult: 1
  }
  param {
    lr_mult: 2
  }
  inner_product_param {
    num_output: 50
    weight_filler {
      type: "xavier"
    }
    bias_filler {
      type: "constant"
    }
  }
}
layer {
  name: "relu1"
  type: "ReLU"
  bottom: "ip1"
  top: "ip1"
}
layer {
  name: "ip2"
  type: "InnerProduct"
  bottom: "ip1"
  top: "ip2"
  param {
    lr_mult: 1
  }
  param {
    lr_mult: 2
  }
  inner_product_param {
    num_output: 10
    weight_filler {
      type: "xavier"
    }
    bias_filler {
      type: "constant"
    }
  }
}
layer {
  name: "relu2"
  type: "ReLU"
  bottom: "ip2"
  top: "ip2"
}
layer {
  name: "ip3"
  type: "InnerProduct"
  bottom: "ip2"
  top: "ip3"
  param {
    lr_mult: 1
  }
  param {
    lr_mult: 2
  }
  inner_product_param {
    num_output: 10
    weight_filler {
      type: "xavier"
    }
    bias_filler {
      type: "constant"
    }
  }
}
layer {
  name: "relu3"
  type: "ReLU"
  bottom: "ip3"
  top: "ip3"
}
layer {
  name: "accuracy"
  type: "Accuracy"
  bottom: "ip3"
  bottom: "label"
  top: "accuracy"
  include {
    phase: TEST
  }
}
layer {
  name: "loss"
  type: "SoftmaxWithLoss"
  bottom: "ip3"
  bottom: "label"
  top: "loss"
}
I0428 20:05:38.205047 30659 layer_factory.hpp:77] Creating layer mnist
I0428 20:05:38.205098 30659 db_lmdb.cpp:35] Opened lmdb examples/mnist/mnist_test_lmdb
I0428 20:05:38.205111 30659 net.cpp:86] Creating Layer mnist
I0428 20:05:38.205116 30659 net.cpp:382] mnist -> data
I0428 20:05:38.205126 30659 net.cpp:382] mnist -> label
I0428 20:05:38.205271 30659 data_layer.cpp:45] output data size: 100,1,28,28
I0428 20:05:38.207139 30659 net.cpp:124] Setting up mnist
I0428 20:05:38.207182 30659 net.cpp:131] Top shape: 100 1 28 28 (78400)
I0428 20:05:38.207187 30659 net.cpp:131] Top shape: 100 (100)
I0428 20:05:38.207190 30659 net.cpp:139] Memory required for data: 314000
I0428 20:05:38.207195 30659 layer_factory.hpp:77] Creating layer label_mnist_1_split
I0428 20:05:38.207201 30659 net.cpp:86] Creating Layer label_mnist_1_split
I0428 20:05:38.207204 30659 net.cpp:408] label_mnist_1_split <- label
I0428 20:05:38.207209 30659 net.cpp:382] label_mnist_1_split -> label_mnist_1_split_0
I0428 20:05:38.207216 30659 net.cpp:382] label_mnist_1_split -> label_mnist_1_split_1
I0428 20:05:38.207259 30659 net.cpp:124] Setting up label_mnist_1_split
I0428 20:05:38.207265 30659 net.cpp:131] Top shape: 100 (100)
I0428 20:05:38.207268 30659 net.cpp:131] Top shape: 100 (100)
I0428 20:05:38.207271 30659 net.cpp:139] Memory required for data: 314800
I0428 20:05:38.207274 30659 layer_factory.hpp:77] Creating layer conv0
I0428 20:05:38.207283 30659 net.cpp:86] Creating Layer conv0
I0428 20:05:38.207285 30659 net.cpp:408] conv0 <- data
I0428 20:05:38.207305 30659 net.cpp:382] conv0 -> conv0
I0428 20:05:38.209033 30659 net.cpp:124] Setting up conv0
I0428 20:05:38.209046 30659 net.cpp:131] Top shape: 100 25 24 24 (1440000)
I0428 20:05:38.209050 30659 net.cpp:139] Memory required for data: 6074800
I0428 20:05:38.209059 30659 layer_factory.hpp:77] Creating layer pool0
I0428 20:05:38.209066 30659 net.cpp:86] Creating Layer pool0
I0428 20:05:38.209069 30659 net.cpp:408] pool0 <- conv0
I0428 20:05:38.209089 30659 net.cpp:382] pool0 -> pool0
I0428 20:05:38.209125 30659 net.cpp:124] Setting up pool0
I0428 20:05:38.209131 30659 net.cpp:131] Top shape: 100 25 12 12 (360000)
I0428 20:05:38.209134 30659 net.cpp:139] Memory required for data: 7514800
I0428 20:05:38.209137 30659 layer_factory.hpp:77] Creating layer conv1
I0428 20:05:38.209159 30659 net.cpp:86] Creating Layer conv1
I0428 20:05:38.209162 30659 net.cpp:408] conv1 <- pool0
I0428 20:05:38.209167 30659 net.cpp:382] conv1 -> conv1
I0428 20:05:38.211269 30659 net.cpp:124] Setting up conv1
I0428 20:05:38.211282 30659 net.cpp:131] Top shape: 100 2 8 8 (12800)
I0428 20:05:38.211287 30659 net.cpp:139] Memory required for data: 7566000
I0428 20:05:38.211294 30659 layer_factory.hpp:77] Creating layer pool1
I0428 20:05:38.211316 30659 net.cpp:86] Creating Layer pool1
I0428 20:05:38.211320 30659 net.cpp:408] pool1 <- conv1
I0428 20:05:38.211341 30659 net.cpp:382] pool1 -> pool1
I0428 20:05:38.211406 30659 net.cpp:124] Setting up pool1
I0428 20:05:38.211413 30659 net.cpp:131] Top shape: 100 2 4 4 (3200)
I0428 20:05:38.211416 30659 net.cpp:139] Memory required for data: 7578800
I0428 20:05:38.211419 30659 layer_factory.hpp:77] Creating layer ip1
I0428 20:05:38.211426 30659 net.cpp:86] Creating Layer ip1
I0428 20:05:38.211429 30659 net.cpp:408] ip1 <- pool1
I0428 20:05:38.211434 30659 net.cpp:382] ip1 -> ip1
I0428 20:05:38.211537 30659 net.cpp:124] Setting up ip1
I0428 20:05:38.211544 30659 net.cpp:131] Top shape: 100 50 (5000)
I0428 20:05:38.211558 30659 net.cpp:139] Memory required for data: 7598800
I0428 20:05:38.211567 30659 layer_factory.hpp:77] Creating layer relu1
I0428 20:05:38.211573 30659 net.cpp:86] Creating Layer relu1
I0428 20:05:38.211576 30659 net.cpp:408] relu1 <- ip1
I0428 20:05:38.211581 30659 net.cpp:369] relu1 -> ip1 (in-place)
I0428 20:05:38.211738 30659 net.cpp:124] Setting up relu1
I0428 20:05:38.211746 30659 net.cpp:131] Top shape: 100 50 (5000)
I0428 20:05:38.211750 30659 net.cpp:139] Memory required for data: 7618800
I0428 20:05:38.211753 30659 layer_factory.hpp:77] Creating layer ip2
I0428 20:05:38.211760 30659 net.cpp:86] Creating Layer ip2
I0428 20:05:38.211763 30659 net.cpp:408] ip2 <- ip1
I0428 20:05:38.211767 30659 net.cpp:382] ip2 -> ip2
I0428 20:05:38.211920 30659 net.cpp:124] Setting up ip2
I0428 20:05:38.211927 30659 net.cpp:131] Top shape: 100 10 (1000)
I0428 20:05:38.211931 30659 net.cpp:139] Memory required for data: 7622800
I0428 20:05:38.211936 30659 layer_factory.hpp:77] Creating layer relu2
I0428 20:05:38.211941 30659 net.cpp:86] Creating Layer relu2
I0428 20:05:38.211943 30659 net.cpp:408] relu2 <- ip2
I0428 20:05:38.211947 30659 net.cpp:369] relu2 -> ip2 (in-place)
I0428 20:05:38.212090 30659 net.cpp:124] Setting up relu2
I0428 20:05:38.212098 30659 net.cpp:131] Top shape: 100 10 (1000)
I0428 20:05:38.212101 30659 net.cpp:139] Memory required for data: 7626800
I0428 20:05:38.212105 30659 layer_factory.hpp:77] Creating layer ip3
I0428 20:05:38.212110 30659 net.cpp:86] Creating Layer ip3
I0428 20:05:38.212112 30659 net.cpp:408] ip3 <- ip2
I0428 20:05:38.212117 30659 net.cpp:382] ip3 -> ip3
I0428 20:05:38.212208 30659 net.cpp:124] Setting up ip3
I0428 20:05:38.212218 30659 net.cpp:131] Top shape: 100 10 (1000)
I0428 20:05:38.212237 30659 net.cpp:139] Memory required for data: 7630800
I0428 20:05:38.212245 30659 layer_factory.hpp:77] Creating layer relu3
I0428 20:05:38.212249 30659 net.cpp:86] Creating Layer relu3
I0428 20:05:38.212254 30659 net.cpp:408] relu3 <- ip3
I0428 20:05:38.212257 30659 net.cpp:369] relu3 -> ip3 (in-place)
I0428 20:05:38.213130 30659 net.cpp:124] Setting up relu3
I0428 20:05:38.213160 30659 net.cpp:131] Top shape: 100 10 (1000)
I0428 20:05:38.213179 30659 net.cpp:139] Memory required for data: 7634800
I0428 20:05:38.213183 30659 layer_factory.hpp:77] Creating layer ip3_relu3_0_split
I0428 20:05:38.213189 30659 net.cpp:86] Creating Layer ip3_relu3_0_split
I0428 20:05:38.213210 30659 net.cpp:408] ip3_relu3_0_split <- ip3
I0428 20:05:38.213217 30659 net.cpp:382] ip3_relu3_0_split -> ip3_relu3_0_split_0
I0428 20:05:38.213238 30659 net.cpp:382] ip3_relu3_0_split -> ip3_relu3_0_split_1
I0428 20:05:38.213274 30659 net.cpp:124] Setting up ip3_relu3_0_split
I0428 20:05:38.213279 30659 net.cpp:131] Top shape: 100 10 (1000)
I0428 20:05:38.213284 30659 net.cpp:131] Top shape: 100 10 (1000)
I0428 20:05:38.213286 30659 net.cpp:139] Memory required for data: 7642800
I0428 20:05:38.213289 30659 layer_factory.hpp:77] Creating layer accuracy
I0428 20:05:38.213294 30659 net.cpp:86] Creating Layer accuracy
I0428 20:05:38.213297 30659 net.cpp:408] accuracy <- ip3_relu3_0_split_0
I0428 20:05:38.213301 30659 net.cpp:408] accuracy <- label_mnist_1_split_0
I0428 20:05:38.213305 30659 net.cpp:382] accuracy -> accuracy
…
