…
I0428 20:26:26.694984  2791 net.cpp:296] The NetState phase (0) differed from the phase (1) specified by a rule in layer mnist
I0428 20:26:26.695009  2791 net.cpp:296] The NetState phase (0) differed from the phase (1) specified by a rule in layer accuracy
I0428 20:26:26.695147  2791 net.cpp:53] Initializing net from parameters: 
name: "LeNet"
state {
  phase: TRAIN
  level: 0
  stage: ""
}
layer {
  name: "mnist"
  type: "Data"
  top: "data"
  top: "label"
  include {
    phase: TRAIN
  }
  transform_param {
    scale: 0.00390625
  }
  data_param {
    source: "examples/mnist/mnist_train_lmdb"
    batch_size: 64
    backend: LMDB
  }
}
layer {
  name: "conv0"
  type: "Convolution"
  bottom: "data"
  top: "conv0"
  param {
    lr_mult: 1
  }
  param {
    lr_mult: 2
  }
  convolution_param {
    num_output: 100
    kernel_size: 5
    stride: 1
    weight_filler {
      type: "xavier"
    }
    bias_filler {
      type: "constant"
    }
  }
}
layer {
  name: "pool0"
  type: "Pooling"
  bottom: "conv0"
  top: "pool0"
  pooling_param {
    pool: MAX
    kernel_size: 2
    stride: 2
  }
}
layer {
  name: "conv1"
  type: "Convolution"
  bottom: "pool0"
  top: "conv1"
  param {
    lr_mult: 1
  }
  param {
    lr_mult: 2
  }
  convolution_param {
    num_output: 2
    kernel_size: 5
    stride: 1
    weight_filler {
      type: "xavier"
    }
    bias_filler {
      type: "constant"
    }
  }
}
layer {
  name: "pool1"
  type: "Pooling"
  bottom: "conv1"
  top: "pool1"
  pooling_param {
    pool: MAX
    kernel_size: 2
    stride: 2
  }
}
layer {
  name: "ip1"
  type: "InnerProduct"
  bottom: "pool1"
  top: "ip1"
  param {
    lr_mult: 1
  }
  param {
    lr_mult: 2
  }
  inner_product_param {
    num_output: 25
    weight_filler {
      type: "xavier"
    }
    bias_filler {
      type: "constant"
    }
  }
}
layer {
  name: "relu1"
  type: "ReLU"
  bottom: "ip1"
  top: "ip1"
}
layer {
  name: "ip2"
  type: "InnerProduct"
  bottom: "ip1"
  top: "ip2"
  param {
    lr_mult: 1
  }
  param {
    lr_mult: 2
  }
  inner_product_param {
    num_output: 50
    weight_filler {
      type: "xavier"
    }
    bias_filler {
      type: "constant"
    }
  }
}
layer {
  name: "relu2"
  type: "ReLU"
  bottom: "ip2"
  top: "ip2"
}
layer {
  name: "ip3"
  type: "InnerProduct"
  bottom: "ip2"
  top: "ip3"
  param {
    lr_mult: 1
  }
  param {
    lr_mult: 2
  }
  inner_product_param {
    num_output: 10
    weight_filler {
      type: "xavier"
    }
    bias_filler {
      type: "constant"
    }
  }
}
layer {
  name: "relu3"
  type: "ReLU"
  bottom: "ip3"
  top: "ip3"
}
layer {
  name: "loss"
  type: "SoftmaxWithLoss"
  bottom: "ip3"
  bottom: "label"
  top: "loss"
}
I0428 20:26:26.695245  2791 layer_factory.hpp:77] Creating layer mnist
I0428 20:26:26.695364  2791 db_lmdb.cpp:35] Opened lmdb examples/mnist/mnist_train_lmdb
I0428 20:26:26.695392  2791 net.cpp:86] Creating Layer mnist
I0428 20:26:26.695403  2791 net.cpp:382] mnist -> data
I0428 20:26:26.695431  2791 net.cpp:382] mnist -> label
I0428 20:26:26.696823  2791 data_layer.cpp:45] output data size: 64,1,28,28
I0428 20:26:26.699996  2791 net.cpp:124] Setting up mnist
I0428 20:26:26.700018  2791 net.cpp:131] Top shape: 64 1 28 28 (50176)
I0428 20:26:26.700027  2791 net.cpp:131] Top shape: 64 (64)
I0428 20:26:26.700032  2791 net.cpp:139] Memory required for data: 200960
I0428 20:26:26.700042  2791 layer_factory.hpp:77] Creating layer conv0
I0428 20:26:26.700062  2791 net.cpp:86] Creating Layer conv0
I0428 20:26:26.700089  2791 net.cpp:408] conv0 <- data
I0428 20:26:26.700104  2791 net.cpp:382] conv0 -> conv0
I0428 20:26:27.041270  2791 net.cpp:124] Setting up conv0
I0428 20:26:27.041301  2791 net.cpp:131] Top shape: 64 100 24 24 (3686400)
I0428 20:26:27.041307  2791 net.cpp:139] Memory required for data: 14946560
I0428 20:26:27.041326  2791 layer_factory.hpp:77] Creating layer pool0
I0428 20:26:27.041342  2791 net.cpp:86] Creating Layer pool0
I0428 20:26:27.041362  2791 net.cpp:408] pool0 <- conv0
I0428 20:26:27.041369  2791 net.cpp:382] pool0 -> pool0
I0428 20:26:27.041425  2791 net.cpp:124] Setting up pool0
I0428 20:26:27.041435  2791 net.cpp:131] Top shape: 64 100 12 12 (921600)
I0428 20:26:27.041440  2791 net.cpp:139] Memory required for data: 18632960
I0428 20:26:27.041443  2791 layer_factory.hpp:77] Creating layer conv1
I0428 20:26:27.041457  2791 net.cpp:86] Creating Layer conv1
I0428 20:26:27.041465  2791 net.cpp:408] conv1 <- pool0
I0428 20:26:27.041471  2791 net.cpp:382] conv1 -> conv1
I0428 20:26:27.045152  2791 net.cpp:124] Setting up conv1
I0428 20:26:27.045186  2791 net.cpp:131] Top shape: 64 2 8 8 (8192)
I0428 20:26:27.045191  2791 net.cpp:139] Memory required for data: 18665728
I0428 20:26:27.045202  2791 layer_factory.hpp:77] Creating layer pool1
I0428 20:26:27.045210  2791 net.cpp:86] Creating Layer pool1
I0428 20:26:27.045229  2791 net.cpp:408] pool1 <- conv1
I0428 20:26:27.045251  2791 net.cpp:382] pool1 -> pool1
I0428 20:26:27.045310  2791 net.cpp:124] Setting up pool1
I0428 20:26:27.045318  2791 net.cpp:131] Top shape: 64 2 4 4 (2048)
I0428 20:26:27.045338  2791 net.cpp:139] Memory required for data: 18673920
I0428 20:26:27.045343  2791 layer_factory.hpp:77] Creating layer ip1
I0428 20:26:27.045352  2791 net.cpp:86] Creating Layer ip1
I0428 20:26:27.045357  2791 net.cpp:408] ip1 <- pool1
I0428 20:26:27.045364  2791 net.cpp:382] ip1 -> ip1
I0428 20:26:27.045488  2791 net.cpp:124] Setting up ip1
I0428 20:26:27.045497  2791 net.cpp:131] Top shape: 64 25 (1600)
I0428 20:26:27.045502  2791 net.cpp:139] Memory required for data: 18680320
I0428 20:26:27.045512  2791 layer_factory.hpp:77] Creating layer relu1
I0428 20:26:27.045521  2791 net.cpp:86] Creating Layer relu1
I0428 20:26:27.045529  2791 net.cpp:408] relu1 <- ip1
I0428 20:26:27.045536  2791 net.cpp:369] relu1 -> ip1 (in-place)
I0428 20:26:27.045768  2791 net.cpp:124] Setting up relu1
I0428 20:26:27.045779  2791 net.cpp:131] Top shape: 64 25 (1600)
I0428 20:26:27.045783  2791 net.cpp:139] Memory required for data: 18686720
I0428 20:26:27.045789  2791 layer_factory.hpp:77] Creating layer ip2
I0428 20:26:27.045797  2791 net.cpp:86] Creating Layer ip2
I0428 20:26:27.045801  2791 net.cpp:408] ip2 <- ip1
I0428 20:26:27.045809  2791 net.cpp:382] ip2 -> ip2
I0428 20:26:27.045936  2791 net.cpp:124] Setting up ip2
I0428 20:26:27.045945  2791 net.cpp:131] Top shape: 64 50 (3200)
I0428 20:26:27.045950  2791 net.cpp:139] Memory required for data: 18699520
I0428 20:26:27.045958  2791 layer_factory.hpp:77] Creating layer relu2
I0428 20:26:27.045965  2791 net.cpp:86] Creating Layer relu2
I0428 20:26:27.045969  2791 net.cpp:408] relu2 <- ip2
I0428 20:26:27.045975  2791 net.cpp:369] relu2 -> ip2 (in-place)
I0428 20:26:27.046942  2791 net.cpp:124] Setting up relu2
I0428 20:26:27.046972  2791 net.cpp:131] Top shape: 64 50 (3200)
I0428 20:26:27.046977  2791 net.cpp:139] Memory required for data: 18712320
I0428 20:26:27.046982  2791 layer_factory.hpp:77] Creating layer ip3
I0428 20:26:27.046990  2791 net.cpp:86] Creating Layer ip3
I0428 20:26:27.046995  2791 net.cpp:408] ip3 <- ip2
I0428 20:26:27.047003  2791 net.cpp:382] ip3 -> ip3
I0428 20:26:27.047157  2791 net.cpp:124] Setting up ip3
I0428 20:26:27.047168  2791 net.cpp:131] Top shape: 64 10 (640)
I0428 20:26:27.047171  2791 net.cpp:139] Memory required for data: 18714880
I0428 20:26:27.047183  2791 layer_factory.hpp:77] Creating layer relu3
I0428 20:26:27.047194  2791 net.cpp:86] Creating Layer relu3
I0428 20:26:27.047199  2791 net.cpp:408] relu3 <- ip3
I0428 20:26:27.047204  2791 net.cpp:369] relu3 -> ip3 (in-place)
I0428 20:26:27.047413  2791 net.cpp:124] Setting up relu3
I0428 20:26:27.047439  2791 net.cpp:131] Top shape: 64 10 (640)
I0428 20:26:27.047443  2791 net.cpp:139] Memory required for data: 18717440
I0428 20:26:27.047448  2791 layer_factory.hpp:77] Creating layer loss
I0428 20:26:27.047456  2791 net.cpp:86] Creating Layer loss
I0428 20:26:27.047461  2791 net.cpp:408] loss <- ip3
I0428 20:26:27.047467  2791 net.cpp:408] loss <- label
I0428 20:26:27.047474  2791 net.cpp:382] loss -> loss
I0428 20:26:27.047495  2791 layer_factory.hpp:77] Creating layer loss
…
I0428 20:26:27.048494  2791 solver.cpp:173] Creating test net (#0) specified by net file: ECE595/mnist/train_test/var_everything2/lenet_train_test1471.prototxt
I0428 20:26:27.048562  2791 net.cpp:296] The NetState phase (1) differed from the phase (0) specified by a rule in layer mnist
I0428 20:26:27.048686  2791 net.cpp:53] Initializing net from parameters: 
name: "LeNet"
state {
  phase: TEST
}
layer {
  name: "mnist"
  type: "Data"
  top: "data"
  top: "label"
  include {
    phase: TEST
  }
  transform_param {
    scale: 0.00390625
  }
  data_param {
    source: "examples/mnist/mnist_test_lmdb"
    batch_size: 100
    backend: LMDB
  }
}
layer {
  name: "conv0"
  type: "Convolution"
  bottom: "data"
  top: "conv0"
  param {
    lr_mult: 1
  }
  param {
    lr_mult: 2
  }
  convolution_param {
    num_output: 100
    kernel_size: 5
    stride: 1
    weight_filler {
      type: "xavier"
    }
    bias_filler {
      type: "constant"
    }
  }
}
layer {
  name: "pool0"
  type: "Pooling"
  bottom: "conv0"
  top: "pool0"
  pooling_param {
    pool: MAX
    kernel_size: 2
    stride: 2
  }
}
layer {
  name: "conv1"
  type: "Convolution"
  bottom: "pool0"
  top: "conv1"
  param {
    lr_mult: 1
  }
  param {
    lr_mult: 2
  }
  convolution_param {
    num_output: 2
    kernel_size: 5
    stride: 1
    weight_filler {
      type: "xavier"
    }
    bias_filler {
      type: "constant"
    }
  }
}
layer {
  name: "pool1"
  type: "Pooling"
  bottom: "conv1"
  top: "pool1"
  pooling_param {
    pool: MAX
    kernel_size: 2
    stride: 2
  }
}
layer {
  name: "ip1"
  type: "InnerProduct"
  bottom: "pool1"
  top: "ip1"
  param {
    lr_mult: 1
  }
  param {
    lr_mult: 2
  }
  inner_product_param {
    num_output: 25
    weight_filler {
      type: "xavier"
    }
    bias_filler {
      type: "constant"
    }
  }
}
layer {
  name: "relu1"
  type: "ReLU"
  bottom: "ip1"
  top: "ip1"
}
layer {
  name: "ip2"
  type: "InnerProduct"
  bottom: "ip1"
  top: "ip2"
  param {
    lr_mult: 1
  }
  param {
    lr_mult: 2
  }
  inner_product_param {
    num_output: 50
    weight_filler {
      type: "xavier"
    }
    bias_filler {
      type: "constant"
    }
  }
}
layer {
  name: "relu2"
  type: "ReLU"
  bottom: "ip2"
  top: "ip2"
}
layer {
  name: "ip3"
  type: "InnerProduct"
  bottom: "ip2"
  top: "ip3"
  param {
    lr_mult: 1
  }
  param {
    lr_mult: 2
  }
  inner_product_param {
    num_output: 10
    weight_filler {
      type: "xavier"
    }
    bias_filler {
      type: "constant"
    }
  }
}
layer {
  name: "relu3"
  type: "ReLU"
  bottom: "ip3"
  top: "ip3"
}
layer {
  name: "accuracy"
  type: "Accuracy"
  bottom: "ip3"
  bottom: "label"
  top: "accuracy"
  include {
    phase: TEST
  }
}
layer {
  name: "loss"
  type: "SoftmaxWithLoss"
  bottom: "ip3"
  bottom: "label"
  top: "loss"
}
I0428 20:26:27.048789  2791 layer_factory.hpp:77] Creating layer mnist
I0428 20:26:27.048863  2791 db_lmdb.cpp:35] Opened lmdb examples/mnist/mnist_test_lmdb
I0428 20:26:27.048895  2791 net.cpp:86] Creating Layer mnist
I0428 20:26:27.048902  2791 net.cpp:382] mnist -> data
I0428 20:26:27.048913  2791 net.cpp:382] mnist -> label
I0428 20:26:27.049021  2791 data_layer.cpp:45] output data size: 100,1,28,28
I0428 20:26:27.051739  2791 net.cpp:124] Setting up mnist
I0428 20:26:27.051770  2791 net.cpp:131] Top shape: 100 1 28 28 (78400)
I0428 20:26:27.051777  2791 net.cpp:131] Top shape: 100 (100)
I0428 20:26:27.051782  2791 net.cpp:139] Memory required for data: 314000
I0428 20:26:27.051787  2791 layer_factory.hpp:77] Creating layer label_mnist_1_split
I0428 20:26:27.051795  2791 net.cpp:86] Creating Layer label_mnist_1_split
I0428 20:26:27.051815  2791 net.cpp:408] label_mnist_1_split <- label
I0428 20:26:27.051821  2791 net.cpp:382] label_mnist_1_split -> label_mnist_1_split_0
I0428 20:26:27.051829  2791 net.cpp:382] label_mnist_1_split -> label_mnist_1_split_1
I0428 20:26:27.051889  2791 net.cpp:124] Setting up label_mnist_1_split
I0428 20:26:27.051897  2791 net.cpp:131] Top shape: 100 (100)
I0428 20:26:27.051903  2791 net.cpp:131] Top shape: 100 (100)
I0428 20:26:27.051906  2791 net.cpp:139] Memory required for data: 314800
I0428 20:26:27.051910  2791 layer_factory.hpp:77] Creating layer conv0
I0428 20:26:27.051920  2791 net.cpp:86] Creating Layer conv0
I0428 20:26:27.051925  2791 net.cpp:408] conv0 <- data
I0428 20:26:27.051933  2791 net.cpp:382] conv0 -> conv0
I0428 20:26:27.054210  2791 net.cpp:124] Setting up conv0
I0428 20:26:27.054227  2791 net.cpp:131] Top shape: 100 100 24 24 (5760000)
I0428 20:26:27.054232  2791 net.cpp:139] Memory required for data: 23354800
I0428 20:26:27.054244  2791 layer_factory.hpp:77] Creating layer pool0
I0428 20:26:27.054252  2791 net.cpp:86] Creating Layer pool0
I0428 20:26:27.054257  2791 net.cpp:408] pool0 <- conv0
I0428 20:26:27.054265  2791 net.cpp:382] pool0 -> pool0
I0428 20:26:27.054307  2791 net.cpp:124] Setting up pool0
I0428 20:26:27.054314  2791 net.cpp:131] Top shape: 100 100 12 12 (1440000)
I0428 20:26:27.054319  2791 net.cpp:139] Memory required for data: 29114800
I0428 20:26:27.054323  2791 layer_factory.hpp:77] Creating layer conv1
I0428 20:26:27.054334  2791 net.cpp:86] Creating Layer conv1
I0428 20:26:27.054339  2791 net.cpp:408] conv1 <- pool0
I0428 20:26:27.054345  2791 net.cpp:382] conv1 -> conv1
I0428 20:26:27.056452  2791 net.cpp:124] Setting up conv1
I0428 20:26:27.056478  2791 net.cpp:131] Top shape: 100 2 8 8 (12800)
I0428 20:26:27.056483  2791 net.cpp:139] Memory required for data: 29166000
I0428 20:26:27.056494  2791 layer_factory.hpp:77] Creating layer pool1
I0428 20:26:27.056507  2791 net.cpp:86] Creating Layer pool1
I0428 20:26:27.056514  2791 net.cpp:408] pool1 <- conv1
I0428 20:26:27.056520  2791 net.cpp:382] pool1 -> pool1
I0428 20:26:27.056563  2791 net.cpp:124] Setting up pool1
I0428 20:26:27.056581  2791 net.cpp:131] Top shape: 100 2 4 4 (3200)
I0428 20:26:27.056592  2791 net.cpp:139] Memory required for data: 29178800
I0428 20:26:27.056596  2791 layer_factory.hpp:77] Creating layer ip1
I0428 20:26:27.056605  2791 net.cpp:86] Creating Layer ip1
I0428 20:26:27.056609  2791 net.cpp:408] ip1 <- pool1
I0428 20:26:27.056617  2791 net.cpp:382] ip1 -> ip1
I0428 20:26:27.056742  2791 net.cpp:124] Setting up ip1
I0428 20:26:27.056752  2791 net.cpp:131] Top shape: 100 25 (2500)
I0428 20:26:27.056769  2791 net.cpp:139] Memory required for data: 29188800
I0428 20:26:27.056778  2791 layer_factory.hpp:77] Creating layer relu1
I0428 20:26:27.056787  2791 net.cpp:86] Creating Layer relu1
I0428 20:26:27.056790  2791 net.cpp:408] relu1 <- ip1
I0428 20:26:27.056797  2791 net.cpp:369] relu1 -> ip1 (in-place)
I0428 20:26:27.057086  2791 net.cpp:124] Setting up relu1
I0428 20:26:27.057099  2791 net.cpp:131] Top shape: 100 25 (2500)
I0428 20:26:27.057104  2791 net.cpp:139] Memory required for data: 29198800
I0428 20:26:27.057109  2791 layer_factory.hpp:77] Creating layer ip2
I0428 20:26:27.057118  2791 net.cpp:86] Creating Layer ip2
I0428 20:26:27.057124  2791 net.cpp:408] ip2 <- ip1
I0428 20:26:27.057147  2791 net.cpp:382] ip2 -> ip2
I0428 20:26:27.057345  2791 net.cpp:124] Setting up ip2
I0428 20:26:27.057359  2791 net.cpp:131] Top shape: 100 50 (5000)
I0428 20:26:27.057363  2791 net.cpp:139] Memory required for data: 29218800
I0428 20:26:27.057377  2791 layer_factory.hpp:77] Creating layer relu2
I0428 20:26:27.057384  2791 net.cpp:86] Creating Layer relu2
I0428 20:26:27.057389  2791 net.cpp:408] relu2 <- ip2
I0428 20:26:27.057397  2791 net.cpp:369] relu2 -> ip2 (in-place)
I0428 20:26:27.057603  2791 net.cpp:124] Setting up relu2
I0428 20:26:27.057615  2791 net.cpp:131] Top shape: 100 50 (5000)
I0428 20:26:27.057620  2791 net.cpp:139] Memory required for data: 29238800
I0428 20:26:27.057624  2791 layer_factory.hpp:77] Creating layer ip3
I0428 20:26:27.057633  2791 net.cpp:86] Creating Layer ip3
I0428 20:26:27.057637  2791 net.cpp:408] ip3 <- ip2
I0428 20:26:27.057646  2791 net.cpp:382] ip3 -> ip3
I0428 20:26:27.057783  2791 net.cpp:124] Setting up ip3
I0428 20:26:27.057793  2791 net.cpp:131] Top shape: 100 10 (1000)
I0428 20:26:27.057797  2791 net.cpp:139] Memory required for data: 29242800
I0428 20:26:27.057808  2791 layer_factory.hpp:77] Creating layer relu3
I0428 20:26:27.057814  2791 net.cpp:86] Creating Layer relu3
I0428 20:26:27.057819  2791 net.cpp:408] relu3 <- ip3
I0428 20:26:27.057827  2791 net.cpp:369] relu3 -> ip3 (in-place)
I0428 20:26:27.059139  2791 net.cpp:124] Setting up relu3
I0428 20:26:27.059154  2791 net.cpp:131] Top shape: 100 10 (1000)
I0428 20:26:27.059160  2791 net.cpp:139] Memory required for data: 29246800
I0428 20:26:27.059165  2791 layer_factory.hpp:77] Creating layer ip3_relu3_0_split
I0428 20:26:27.059181  2791 net.cpp:86] Creating Layer ip3_relu3_0_split
I0428 20:26:27.059187  2791 net.cpp:408] ip3_relu3_0_split <- ip3
I0428 20:26:27.059195  2791 net.cpp:382] ip3_relu3_0_split -> ip3_relu3_0_split_0
I0428 20:26:27.059202  2791 net.cpp:382] ip3_relu3_0_split -> ip3_relu3_0_split_1
I0428 20:26:27.059268  2791 net.cpp:124] Setting up ip3_relu3_0_split
I0428 20:26:27.059293  2791 net.cpp:131] Top shape: 100 10 (1000)
I0428 20:26:27.059299  2791 net.cpp:131] Top shape: 100 10 (1000)
I0428 20:26:27.059303  2791 net.cpp:139] Memory required for data: 29254800
I0428 20:26:27.059307  2791 layer_factory.hpp:77] Creating layer accuracy
I0428 20:26:27.059314  2791 net.cpp:86] Creating Layer accuracy
I0428 20:26:27.059319  2791 net.cpp:408] accuracy <- ip3_relu3_0_split_0
I0428 20:26:27.059324  2791 net.cpp:408] accuracy <- label_mnist_1_split_0
I0428 20:26:27.059332  2791 net.cpp:382] accuracy -> accuracy
…
