…
I0428 19:42:11.045828 25005 net.cpp:296] The NetState phase (0) differed from the phase (1) specified by a rule in layer mnist
I0428 19:42:11.045850 25005 net.cpp:296] The NetState phase (0) differed from the phase (1) specified by a rule in layer accuracy
I0428 19:42:11.045939 25005 net.cpp:53] Initializing net from parameters: 
name: "LeNet"
state {
  phase: TRAIN
  level: 0
  stage: ""
}
layer {
  name: "mnist"
  type: "Data"
  top: "data"
  top: "label"
  include {
    phase: TRAIN
  }
  transform_param {
    scale: 0.00390625
  }
  data_param {
    source: "examples/mnist/mnist_train_lmdb"
    batch_size: 64
    backend: LMDB
  }
}
layer {
  name: "conv0"
  type: "Convolution"
  bottom: "data"
  top: "conv0"
  param {
    lr_mult: 1
  }
  param {
    lr_mult: 2
  }
  convolution_param {
    num_output: 2
    kernel_size: 5
    stride: 1
    weight_filler {
      type: "xavier"
    }
    bias_filler {
      type: "constant"
    }
  }
}
layer {
  name: "pool0"
  type: "Pooling"
  bottom: "conv0"
  top: "pool0"
  pooling_param {
    pool: MAX
    kernel_size: 2
    stride: 2
  }
}
layer {
  name: "conv1"
  type: "Convolution"
  bottom: "pool0"
  top: "conv1"
  param {
    lr_mult: 1
  }
  param {
    lr_mult: 2
  }
  convolution_param {
    num_output: 10
    kernel_size: 5
    stride: 1
    weight_filler {
      type: "xavier"
    }
    bias_filler {
      type: "constant"
    }
  }
}
layer {
  name: "pool1"
  type: "Pooling"
  bottom: "conv1"
  top: "pool1"
  pooling_param {
    pool: MAX
    kernel_size: 2
    stride: 2
  }
}
layer {
  name: "ip1"
  type: "InnerProduct"
  bottom: "pool1"
  top: "ip1"
  param {
    lr_mult: 1
  }
  param {
    lr_mult: 2
  }
  inner_product_param {
    num_output: 50
    weight_filler {
      type: "xavier"
    }
    bias_filler {
      type: "constant"
    }
  }
}
layer {
  name: "relu1"
  type: "ReLU"
  bottom: "ip1"
  top: "ip1"
}
layer {
  name: "ip2"
  type: "InnerProduct"
  bottom: "ip1"
  top: "ip2"
  param {
    lr_mult: 1
  }
  param {
    lr_mult: 2
  }
  inner_product_param {
    num_output: 25
    weight_filler {
      type: "xavier"
    }
    bias_filler {
      type: "constant"
    }
  }
}
layer {
  name: "relu2"
  type: "ReLU"
  bottom: "ip2"
  top: "ip2"
}
layer {
  name: "ip3"
  type: "InnerProduct"
  bottom: "ip2"
  top: "ip3"
  param {
    lr_mult: 1
  }
  param {
    lr_mult: 2
  }
  inner_product_param {
    num_output: 10
    weight_filler {
      type: "xavier"
    }
    bias_filler {
      type: "constant"
    }
  }
}
layer {
  name: "relu3"
  type: "ReLU"
  bottom: "ip3"
  top: "ip3"
}
layer {
  name: "loss"
  type: "SoftmaxWithLoss"
  bottom: "ip3"
  bottom: "label"
  top: "loss"
}
I0428 19:42:11.046030 25005 layer_factory.hpp:77] Creating layer mnist
I0428 19:42:11.046136 25005 db_lmdb.cpp:35] Opened lmdb examples/mnist/mnist_train_lmdb
I0428 19:42:11.046164 25005 net.cpp:86] Creating Layer mnist
I0428 19:42:11.046172 25005 net.cpp:382] mnist -> data
I0428 19:42:11.046198 25005 net.cpp:382] mnist -> label
I0428 19:42:11.047255 25005 data_layer.cpp:45] output data size: 64,1,28,28
I0428 19:42:11.049640 25005 net.cpp:124] Setting up mnist
I0428 19:42:11.049690 25005 net.cpp:131] Top shape: 64 1 28 28 (50176)
I0428 19:42:11.049697 25005 net.cpp:131] Top shape: 64 (64)
I0428 19:42:11.049702 25005 net.cpp:139] Memory required for data: 200960
I0428 19:42:11.049712 25005 layer_factory.hpp:77] Creating layer conv0
I0428 19:42:11.049732 25005 net.cpp:86] Creating Layer conv0
I0428 19:42:11.049753 25005 net.cpp:408] conv0 <- data
I0428 19:42:11.049769 25005 net.cpp:382] conv0 -> conv0
I0428 19:42:11.364207 25005 net.cpp:124] Setting up conv0
I0428 19:42:11.364238 25005 net.cpp:131] Top shape: 64 2 24 24 (73728)
I0428 19:42:11.364243 25005 net.cpp:139] Memory required for data: 495872
I0428 19:42:11.364261 25005 layer_factory.hpp:77] Creating layer pool0
I0428 19:42:11.364275 25005 net.cpp:86] Creating Layer pool0
I0428 19:42:11.364280 25005 net.cpp:408] pool0 <- conv0
I0428 19:42:11.364286 25005 net.cpp:382] pool0 -> pool0
I0428 19:42:11.364352 25005 net.cpp:124] Setting up pool0
I0428 19:42:11.364361 25005 net.cpp:131] Top shape: 64 2 12 12 (18432)
I0428 19:42:11.364364 25005 net.cpp:139] Memory required for data: 569600
I0428 19:42:11.364368 25005 layer_factory.hpp:77] Creating layer conv1
I0428 19:42:11.364380 25005 net.cpp:86] Creating Layer conv1
I0428 19:42:11.364385 25005 net.cpp:408] conv1 <- pool0
I0428 19:42:11.364392 25005 net.cpp:382] conv1 -> conv1
I0428 19:42:11.366513 25005 net.cpp:124] Setting up conv1
I0428 19:42:11.366542 25005 net.cpp:131] Top shape: 64 10 8 8 (40960)
I0428 19:42:11.366547 25005 net.cpp:139] Memory required for data: 733440
I0428 19:42:11.366557 25005 layer_factory.hpp:77] Creating layer pool1
I0428 19:42:11.366580 25005 net.cpp:86] Creating Layer pool1
I0428 19:42:11.366585 25005 net.cpp:408] pool1 <- conv1
I0428 19:42:11.366591 25005 net.cpp:382] pool1 -> pool1
I0428 19:42:11.366636 25005 net.cpp:124] Setting up pool1
I0428 19:42:11.366648 25005 net.cpp:131] Top shape: 64 10 4 4 (10240)
I0428 19:42:11.366652 25005 net.cpp:139] Memory required for data: 774400
I0428 19:42:11.366655 25005 layer_factory.hpp:77] Creating layer ip1
I0428 19:42:11.366663 25005 net.cpp:86] Creating Layer ip1
I0428 19:42:11.366668 25005 net.cpp:408] ip1 <- pool1
I0428 19:42:11.366674 25005 net.cpp:382] ip1 -> ip1
I0428 19:42:11.367780 25005 net.cpp:124] Setting up ip1
I0428 19:42:11.367795 25005 net.cpp:131] Top shape: 64 50 (3200)
I0428 19:42:11.367801 25005 net.cpp:139] Memory required for data: 787200
I0428 19:42:11.367811 25005 layer_factory.hpp:77] Creating layer relu1
I0428 19:42:11.367820 25005 net.cpp:86] Creating Layer relu1
I0428 19:42:11.367825 25005 net.cpp:408] relu1 <- ip1
I0428 19:42:11.367830 25005 net.cpp:369] relu1 -> ip1 (in-place)
I0428 19:42:11.368026 25005 net.cpp:124] Setting up relu1
I0428 19:42:11.368036 25005 net.cpp:131] Top shape: 64 50 (3200)
I0428 19:42:11.368041 25005 net.cpp:139] Memory required for data: 800000
I0428 19:42:11.368044 25005 layer_factory.hpp:77] Creating layer ip2
I0428 19:42:11.368052 25005 net.cpp:86] Creating Layer ip2
I0428 19:42:11.368057 25005 net.cpp:408] ip2 <- ip1
I0428 19:42:11.368063 25005 net.cpp:382] ip2 -> ip2
I0428 19:42:11.369148 25005 net.cpp:124] Setting up ip2
I0428 19:42:11.369163 25005 net.cpp:131] Top shape: 64 25 (1600)
I0428 19:42:11.369168 25005 net.cpp:139] Memory required for data: 806400
I0428 19:42:11.369175 25005 layer_factory.hpp:77] Creating layer relu2
I0428 19:42:11.369184 25005 net.cpp:86] Creating Layer relu2
I0428 19:42:11.369189 25005 net.cpp:408] relu2 <- ip2
I0428 19:42:11.369195 25005 net.cpp:369] relu2 -> ip2 (in-place)
I0428 19:42:11.370041 25005 net.cpp:124] Setting up relu2
I0428 19:42:11.370056 25005 net.cpp:131] Top shape: 64 25 (1600)
I0428 19:42:11.370061 25005 net.cpp:139] Memory required for data: 812800
I0428 19:42:11.370065 25005 layer_factory.hpp:77] Creating layer ip3
I0428 19:42:11.370074 25005 net.cpp:86] Creating Layer ip3
I0428 19:42:11.370079 25005 net.cpp:408] ip3 <- ip2
I0428 19:42:11.370086 25005 net.cpp:382] ip3 -> ip3
I0428 19:42:11.370201 25005 net.cpp:124] Setting up ip3
I0428 19:42:11.370210 25005 net.cpp:131] Top shape: 64 10 (640)
I0428 19:42:11.370215 25005 net.cpp:139] Memory required for data: 815360
I0428 19:42:11.370225 25005 layer_factory.hpp:77] Creating layer relu3
I0428 19:42:11.370232 25005 net.cpp:86] Creating Layer relu3
I0428 19:42:11.370245 25005 net.cpp:408] relu3 <- ip3
I0428 19:42:11.370249 25005 net.cpp:369] relu3 -> ip3 (in-place)
I0428 19:42:11.370450 25005 net.cpp:124] Setting up relu3
I0428 19:42:11.370461 25005 net.cpp:131] Top shape: 64 10 (640)
I0428 19:42:11.370465 25005 net.cpp:139] Memory required for data: 817920
I0428 19:42:11.370470 25005 layer_factory.hpp:77] Creating layer loss
I0428 19:42:11.370476 25005 net.cpp:86] Creating Layer loss
I0428 19:42:11.370481 25005 net.cpp:408] loss <- ip3
I0428 19:42:11.370486 25005 net.cpp:408] loss <- label
I0428 19:42:11.370491 25005 net.cpp:382] loss -> loss
I0428 19:42:11.370512 25005 layer_factory.hpp:77] Creating layer loss
…
I0428 19:42:11.371251 25005 solver.cpp:173] Creating test net (#0) specified by net file: ECE595/mnist/train_test/var_everything2/lenet_train_test386.prototxt
I0428 19:42:11.371284 25005 net.cpp:296] The NetState phase (1) differed from the phase (0) specified by a rule in layer mnist
I0428 19:42:11.371400 25005 net.cpp:53] Initializing net from parameters: 
name: "LeNet"
state {
  phase: TEST
}
layer {
  name: "mnist"
  type: "Data"
  top: "data"
  top: "label"
  include {
    phase: TEST
  }
  transform_param {
    scale: 0.00390625
  }
  data_param {
    source: "examples/mnist/mnist_test_lmdb"
    batch_size: 100
    backend: LMDB
  }
}
layer {
  name: "conv0"
  type: "Convolution"
  bottom: "data"
  top: "conv0"
  param {
    lr_mult: 1
  }
  param {
    lr_mult: 2
  }
  convolution_param {
    num_output: 2
    kernel_size: 5
    stride: 1
    weight_filler {
      type: "xavier"
    }
    bias_filler {
      type: "constant"
    }
  }
}
layer {
  name: "pool0"
  type: "Pooling"
  bottom: "conv0"
  top: "pool0"
  pooling_param {
    pool: MAX
    kernel_size: 2
    stride: 2
  }
}
layer {
  name: "conv1"
  type: "Convolution"
  bottom: "pool0"
  top: "conv1"
  param {
    lr_mult: 1
  }
  param {
    lr_mult: 2
  }
  convolution_param {
    num_output: 10
    kernel_size: 5
    stride: 1
    weight_filler {
      type: "xavier"
    }
    bias_filler {
      type: "constant"
    }
  }
}
layer {
  name: "pool1"
  type: "Pooling"
  bottom: "conv1"
  top: "pool1"
  pooling_param {
    pool: MAX
    kernel_size: 2
    stride: 2
  }
}
layer {
  name: "ip1"
  type: "InnerProduct"
  bottom: "pool1"
  top: "ip1"
  param {
    lr_mult: 1
  }
  param {
    lr_mult: 2
  }
  inner_product_param {
    num_output: 50
    weight_filler {
      type: "xavier"
    }
    bias_filler {
      type: "constant"
    }
  }
}
layer {
  name: "relu1"
  type: "ReLU"
  bottom: "ip1"
  top: "ip1"
}
layer {
  name: "ip2"
  type: "InnerProduct"
  bottom: "ip1"
  top: "ip2"
  param {
    lr_mult: 1
  }
  param {
    lr_mult: 2
  }
  inner_product_param {
    num_output: 25
    weight_filler {
      type: "xavier"
    }
    bias_filler {
      type: "constant"
    }
  }
}
layer {
  name: "relu2"
  type: "ReLU"
  bottom: "ip2"
  top: "ip2"
}
layer {
  name: "ip3"
  type: "InnerProduct"
  bottom: "ip2"
  top: "ip3"
  param {
    lr_mult: 1
  }
  param {
    lr_mult: 2
  }
  inner_product_param {
    num_output: 10
    weight_filler {
      type: "xavier"
    }
    bias_filler {
      type: "constant"
    }
  }
}
layer {
  name: "relu3"
  type: "ReLU"
  bottom: "ip3"
  top: "ip3"
}
layer {
  name: "accuracy"
  type: "Accuracy"
  bottom: "ip3"
  bottom: "label"
  top: "accuracy"
  include {
    phase: TEST
  }
}
layer {
  name: "loss"
  type: "SoftmaxWithLoss"
  bottom: "ip3"
  bottom: "label"
  top: "loss"
}
I0428 19:42:11.371495 25005 layer_factory.hpp:77] Creating layer mnist
I0428 19:42:11.371556 25005 db_lmdb.cpp:35] Opened lmdb examples/mnist/mnist_test_lmdb
I0428 19:42:11.371570 25005 net.cpp:86] Creating Layer mnist
I0428 19:42:11.371577 25005 net.cpp:382] mnist -> data
I0428 19:42:11.371585 25005 net.cpp:382] mnist -> label
I0428 19:42:11.371682 25005 data_layer.cpp:45] output data size: 100,1,28,28
I0428 19:42:11.373832 25005 net.cpp:124] Setting up mnist
I0428 19:42:11.373857 25005 net.cpp:131] Top shape: 100 1 28 28 (78400)
I0428 19:42:11.373864 25005 net.cpp:131] Top shape: 100 (100)
I0428 19:42:11.373867 25005 net.cpp:139] Memory required for data: 314000
I0428 19:42:11.373872 25005 layer_factory.hpp:77] Creating layer label_mnist_1_split
I0428 19:42:11.373903 25005 net.cpp:86] Creating Layer label_mnist_1_split
I0428 19:42:11.373908 25005 net.cpp:408] label_mnist_1_split <- label
I0428 19:42:11.373914 25005 net.cpp:382] label_mnist_1_split -> label_mnist_1_split_0
I0428 19:42:11.373922 25005 net.cpp:382] label_mnist_1_split -> label_mnist_1_split_1
I0428 19:42:11.373973 25005 net.cpp:124] Setting up label_mnist_1_split
I0428 19:42:11.373981 25005 net.cpp:131] Top shape: 100 (100)
I0428 19:42:11.373986 25005 net.cpp:131] Top shape: 100 (100)
I0428 19:42:11.373988 25005 net.cpp:139] Memory required for data: 314800
I0428 19:42:11.373992 25005 layer_factory.hpp:77] Creating layer conv0
I0428 19:42:11.374002 25005 net.cpp:86] Creating Layer conv0
I0428 19:42:11.374007 25005 net.cpp:408] conv0 <- data
I0428 19:42:11.374013 25005 net.cpp:382] conv0 -> conv0
I0428 19:42:11.375869 25005 net.cpp:124] Setting up conv0
I0428 19:42:11.375885 25005 net.cpp:131] Top shape: 100 2 24 24 (115200)
I0428 19:42:11.375891 25005 net.cpp:139] Memory required for data: 775600
I0428 19:42:11.375902 25005 layer_factory.hpp:77] Creating layer pool0
I0428 19:42:11.375910 25005 net.cpp:86] Creating Layer pool0
I0428 19:42:11.375916 25005 net.cpp:408] pool0 <- conv0
I0428 19:42:11.375922 25005 net.cpp:382] pool0 -> pool0
I0428 19:42:11.375964 25005 net.cpp:124] Setting up pool0
I0428 19:42:11.375972 25005 net.cpp:131] Top shape: 100 2 12 12 (28800)
I0428 19:42:11.375977 25005 net.cpp:139] Memory required for data: 890800
I0428 19:42:11.375979 25005 layer_factory.hpp:77] Creating layer conv1
I0428 19:42:11.375989 25005 net.cpp:86] Creating Layer conv1
I0428 19:42:11.375994 25005 net.cpp:408] conv1 <- pool0
I0428 19:42:11.376000 25005 net.cpp:382] conv1 -> conv1
I0428 19:42:11.377681 25005 net.cpp:124] Setting up conv1
I0428 19:42:11.377697 25005 net.cpp:131] Top shape: 100 10 8 8 (64000)
I0428 19:42:11.377702 25005 net.cpp:139] Memory required for data: 1146800
I0428 19:42:11.377712 25005 layer_factory.hpp:77] Creating layer pool1
I0428 19:42:11.377722 25005 net.cpp:86] Creating Layer pool1
I0428 19:42:11.377727 25005 net.cpp:408] pool1 <- conv1
I0428 19:42:11.377734 25005 net.cpp:382] pool1 -> pool1
I0428 19:42:11.377777 25005 net.cpp:124] Setting up pool1
I0428 19:42:11.377785 25005 net.cpp:131] Top shape: 100 10 4 4 (16000)
I0428 19:42:11.377789 25005 net.cpp:139] Memory required for data: 1210800
I0428 19:42:11.377794 25005 layer_factory.hpp:77] Creating layer ip1
I0428 19:42:11.377799 25005 net.cpp:86] Creating Layer ip1
I0428 19:42:11.377805 25005 net.cpp:408] ip1 <- pool1
I0428 19:42:11.377810 25005 net.cpp:382] ip1 -> ip1
I0428 19:42:11.377975 25005 net.cpp:124] Setting up ip1
I0428 19:42:11.377985 25005 net.cpp:131] Top shape: 100 50 (5000)
I0428 19:42:11.378002 25005 net.cpp:139] Memory required for data: 1230800
I0428 19:42:11.378011 25005 layer_factory.hpp:77] Creating layer relu1
I0428 19:42:11.378020 25005 net.cpp:86] Creating Layer relu1
I0428 19:42:11.378031 25005 net.cpp:408] relu1 <- ip1
I0428 19:42:11.378037 25005 net.cpp:369] relu1 -> ip1 (in-place)
I0428 19:42:11.378231 25005 net.cpp:124] Setting up relu1
I0428 19:42:11.378240 25005 net.cpp:131] Top shape: 100 50 (5000)
I0428 19:42:11.378245 25005 net.cpp:139] Memory required for data: 1250800
I0428 19:42:11.378249 25005 layer_factory.hpp:77] Creating layer ip2
I0428 19:42:11.378257 25005 net.cpp:86] Creating Layer ip2
I0428 19:42:11.378263 25005 net.cpp:408] ip2 <- ip1
I0428 19:42:11.378269 25005 net.cpp:382] ip2 -> ip2
I0428 19:42:11.378444 25005 net.cpp:124] Setting up ip2
I0428 19:42:11.378453 25005 net.cpp:131] Top shape: 100 25 (2500)
I0428 19:42:11.378458 25005 net.cpp:139] Memory required for data: 1260800
I0428 19:42:11.378465 25005 layer_factory.hpp:77] Creating layer relu2
I0428 19:42:11.378473 25005 net.cpp:86] Creating Layer relu2
I0428 19:42:11.378476 25005 net.cpp:408] relu2 <- ip2
I0428 19:42:11.378481 25005 net.cpp:369] relu2 -> ip2 (in-place)
I0428 19:42:11.378703 25005 net.cpp:124] Setting up relu2
I0428 19:42:11.378715 25005 net.cpp:131] Top shape: 100 25 (2500)
I0428 19:42:11.378718 25005 net.cpp:139] Memory required for data: 1270800
I0428 19:42:11.378722 25005 layer_factory.hpp:77] Creating layer ip3
I0428 19:42:11.378729 25005 net.cpp:86] Creating Layer ip3
I0428 19:42:11.378736 25005 net.cpp:408] ip3 <- ip2
I0428 19:42:11.378741 25005 net.cpp:382] ip3 -> ip3
I0428 19:42:11.378854 25005 net.cpp:124] Setting up ip3
I0428 19:42:11.378861 25005 net.cpp:131] Top shape: 100 10 (1000)
I0428 19:42:11.378865 25005 net.cpp:139] Memory required for data: 1274800
I0428 19:42:11.378875 25005 layer_factory.hpp:77] Creating layer relu3
I0428 19:42:11.378881 25005 net.cpp:86] Creating Layer relu3
I0428 19:42:11.378885 25005 net.cpp:408] relu3 <- ip3
I0428 19:42:11.378900 25005 net.cpp:369] relu3 -> ip3 (in-place)
I0428 19:42:11.379847 25005 net.cpp:124] Setting up relu3
I0428 19:42:11.379859 25005 net.cpp:131] Top shape: 100 10 (1000)
I0428 19:42:11.379865 25005 net.cpp:139] Memory required for data: 1278800
I0428 19:42:11.379870 25005 layer_factory.hpp:77] Creating layer ip3_relu3_0_split
I0428 19:42:11.379876 25005 net.cpp:86] Creating Layer ip3_relu3_0_split
I0428 19:42:11.379880 25005 net.cpp:408] ip3_relu3_0_split <- ip3
I0428 19:42:11.379897 25005 net.cpp:382] ip3_relu3_0_split -> ip3_relu3_0_split_0
I0428 19:42:11.379904 25005 net.cpp:382] ip3_relu3_0_split -> ip3_relu3_0_split_1
I0428 19:42:11.379948 25005 net.cpp:124] Setting up ip3_relu3_0_split
I0428 19:42:11.379956 25005 net.cpp:131] Top shape: 100 10 (1000)
I0428 19:42:11.379961 25005 net.cpp:131] Top shape: 100 10 (1000)
I0428 19:42:11.379964 25005 net.cpp:139] Memory required for data: 1286800
I0428 19:42:11.379968 25005 layer_factory.hpp:77] Creating layer accuracy
I0428 19:42:11.379974 25005 net.cpp:86] Creating Layer accuracy
I0428 19:42:11.379981 25005 net.cpp:408] accuracy <- ip3_relu3_0_split_0
I0428 19:42:11.379986 25005 net.cpp:408] accuracy <- label_mnist_1_split_0
I0428 19:42:11.379990 25005 net.cpp:382] accuracy -> accuracy
…
