…
I0428 20:39:01.240262  5219 net.cpp:296] The NetState phase (0) differed from the phase (1) specified by a rule in layer mnist
I0428 20:39:01.240280  5219 net.cpp:296] The NetState phase (0) differed from the phase (1) specified by a rule in layer accuracy
I0428 20:39:01.240387  5219 net.cpp:53] Initializing net from parameters: 
name: "LeNet"
state {
  phase: TRAIN
  level: 0
  stage: ""
}
layer {
  name: "mnist"
  type: "Data"
  top: "data"
  top: "label"
  include {
    phase: TRAIN
  }
  transform_param {
    scale: 0.00390625
  }
  data_param {
    source: "examples/mnist/mnist_train_lmdb"
    batch_size: 64
    backend: LMDB
  }
}
layer {
  name: "conv0"
  type: "Convolution"
  bottom: "data"
  top: "conv0"
  param {
    lr_mult: 1
  }
  param {
    lr_mult: 2
  }
  convolution_param {
    num_output: 100
    kernel_size: 5
    stride: 1
    weight_filler {
      type: "xavier"
    }
    bias_filler {
      type: "constant"
    }
  }
}
layer {
  name: "pool0"
  type: "Pooling"
  bottom: "conv0"
  top: "pool0"
  pooling_param {
    pool: MAX
    kernel_size: 2
    stride: 2
  }
}
layer {
  name: "conv1"
  type: "Convolution"
  bottom: "pool0"
  top: "conv1"
  param {
    lr_mult: 1
  }
  param {
    lr_mult: 2
  }
  convolution_param {
    num_output: 100
    kernel_size: 5
    stride: 1
    weight_filler {
      type: "xavier"
    }
    bias_filler {
      type: "constant"
    }
  }
}
layer {
  name: "pool1"
  type: "Pooling"
  bottom: "conv1"
  top: "pool1"
  pooling_param {
    pool: MAX
    kernel_size: 2
    stride: 2
  }
}
layer {
  name: "ip1"
  type: "InnerProduct"
  bottom: "pool1"
  top: "ip1"
  param {
    lr_mult: 1
  }
  param {
    lr_mult: 2
  }
  inner_product_param {
    num_output: 50
    weight_filler {
      type: "xavier"
    }
    bias_filler {
      type: "constant"
    }
  }
}
layer {
  name: "relu1"
  type: "ReLU"
  bottom: "ip1"
  top: "ip1"
}
layer {
  name: "ip2"
  type: "InnerProduct"
  bottom: "ip1"
  top: "ip2"
  param {
    lr_mult: 1
  }
  param {
    lr_mult: 2
  }
  inner_product_param {
    num_output: 25
    weight_filler {
      type: "xavier"
    }
    bias_filler {
      type: "constant"
    }
  }
}
layer {
  name: "relu2"
  type: "ReLU"
  bottom: "ip2"
  top: "ip2"
}
layer {
  name: "ip3"
  type: "InnerProduct"
  bottom: "ip2"
  top: "ip3"
  param {
    lr_mult: 1
  }
  param {
    lr_mult: 2
  }
  inner_product_param {
    num_output: 10
    weight_filler {
      type: "xavier"
    }
    bias_filler {
      type: "constant"
    }
  }
}
layer {
  name: "relu3"
  type: "ReLU"
  bottom: "ip3"
  top: "ip3"
}
layer {
  name: "loss"
  type: "SoftmaxWithLoss"
  bottom: "ip3"
  bottom: "label"
  top: "loss"
}
I0428 20:39:01.240466  5219 layer_factory.hpp:77] Creating layer mnist
I0428 20:39:01.240566  5219 db_lmdb.cpp:35] Opened lmdb examples/mnist/mnist_train_lmdb
I0428 20:39:01.240599  5219 net.cpp:86] Creating Layer mnist
I0428 20:39:01.240609  5219 net.cpp:382] mnist -> data
I0428 20:39:01.240631  5219 net.cpp:382] mnist -> label
I0428 20:39:01.241731  5219 data_layer.cpp:45] output data size: 64,1,28,28
I0428 20:39:01.244199  5219 net.cpp:124] Setting up mnist
I0428 20:39:01.244216  5219 net.cpp:131] Top shape: 64 1 28 28 (50176)
I0428 20:39:01.244222  5219 net.cpp:131] Top shape: 64 (64)
I0428 20:39:01.244226  5219 net.cpp:139] Memory required for data: 200960
I0428 20:39:01.244233  5219 layer_factory.hpp:77] Creating layer conv0
I0428 20:39:01.244251  5219 net.cpp:86] Creating Layer conv0
I0428 20:39:01.244271  5219 net.cpp:408] conv0 <- data
I0428 20:39:01.244284  5219 net.cpp:382] conv0 -> conv0
I0428 20:39:01.520965  5219 net.cpp:124] Setting up conv0
I0428 20:39:01.521008  5219 net.cpp:131] Top shape: 64 100 24 24 (3686400)
I0428 20:39:01.521013  5219 net.cpp:139] Memory required for data: 14946560
I0428 20:39:01.521028  5219 layer_factory.hpp:77] Creating layer pool0
I0428 20:39:01.521039  5219 net.cpp:86] Creating Layer pool0
I0428 20:39:01.521059  5219 net.cpp:408] pool0 <- conv0
I0428 20:39:01.521064  5219 net.cpp:382] pool0 -> pool0
I0428 20:39:01.521116  5219 net.cpp:124] Setting up pool0
I0428 20:39:01.521143  5219 net.cpp:131] Top shape: 64 100 12 12 (921600)
I0428 20:39:01.521147  5219 net.cpp:139] Memory required for data: 18632960
I0428 20:39:01.521148  5219 layer_factory.hpp:77] Creating layer conv1
I0428 20:39:01.521159  5219 net.cpp:86] Creating Layer conv1
I0428 20:39:01.521162  5219 net.cpp:408] conv1 <- pool0
I0428 20:39:01.521167  5219 net.cpp:382] conv1 -> conv1
I0428 20:39:01.525346  5219 net.cpp:124] Setting up conv1
I0428 20:39:01.525360  5219 net.cpp:131] Top shape: 64 100 8 8 (409600)
I0428 20:39:01.525363  5219 net.cpp:139] Memory required for data: 20271360
I0428 20:39:01.525372  5219 layer_factory.hpp:77] Creating layer pool1
I0428 20:39:01.525378  5219 net.cpp:86] Creating Layer pool1
I0428 20:39:01.525382  5219 net.cpp:408] pool1 <- conv1
I0428 20:39:01.525385  5219 net.cpp:382] pool1 -> pool1
I0428 20:39:01.525435  5219 net.cpp:124] Setting up pool1
I0428 20:39:01.525441  5219 net.cpp:131] Top shape: 64 100 4 4 (102400)
I0428 20:39:01.525444  5219 net.cpp:139] Memory required for data: 20680960
I0428 20:39:01.525447  5219 layer_factory.hpp:77] Creating layer ip1
I0428 20:39:01.525454  5219 net.cpp:86] Creating Layer ip1
I0428 20:39:01.525455  5219 net.cpp:408] ip1 <- pool1
I0428 20:39:01.525460  5219 net.cpp:382] ip1 -> ip1
I0428 20:39:01.526005  5219 net.cpp:124] Setting up ip1
I0428 20:39:01.526012  5219 net.cpp:131] Top shape: 64 50 (3200)
I0428 20:39:01.526031  5219 net.cpp:139] Memory required for data: 20693760
I0428 20:39:01.526036  5219 layer_factory.hpp:77] Creating layer relu1
I0428 20:39:01.526042  5219 net.cpp:86] Creating Layer relu1
I0428 20:39:01.526046  5219 net.cpp:408] relu1 <- ip1
I0428 20:39:01.526049  5219 net.cpp:369] relu1 -> ip1 (in-place)
I0428 20:39:01.526203  5219 net.cpp:124] Setting up relu1
I0428 20:39:01.526211  5219 net.cpp:131] Top shape: 64 50 (3200)
I0428 20:39:01.526214  5219 net.cpp:139] Memory required for data: 20706560
I0428 20:39:01.526217  5219 layer_factory.hpp:77] Creating layer ip2
I0428 20:39:01.526223  5219 net.cpp:86] Creating Layer ip2
I0428 20:39:01.526226  5219 net.cpp:408] ip2 <- ip1
I0428 20:39:01.526231  5219 net.cpp:382] ip2 -> ip2
I0428 20:39:01.526330  5219 net.cpp:124] Setting up ip2
I0428 20:39:01.526337  5219 net.cpp:131] Top shape: 64 25 (1600)
I0428 20:39:01.526340  5219 net.cpp:139] Memory required for data: 20712960
I0428 20:39:01.526345  5219 layer_factory.hpp:77] Creating layer relu2
I0428 20:39:01.526350  5219 net.cpp:86] Creating Layer relu2
I0428 20:39:01.526353  5219 net.cpp:408] relu2 <- ip2
I0428 20:39:01.526356  5219 net.cpp:369] relu2 -> ip2 (in-place)
I0428 20:39:01.527134  5219 net.cpp:124] Setting up relu2
I0428 20:39:01.527146  5219 net.cpp:131] Top shape: 64 25 (1600)
I0428 20:39:01.527149  5219 net.cpp:139] Memory required for data: 20719360
I0428 20:39:01.527153  5219 layer_factory.hpp:77] Creating layer ip3
I0428 20:39:01.527158  5219 net.cpp:86] Creating Layer ip3
I0428 20:39:01.527163  5219 net.cpp:408] ip3 <- ip2
I0428 20:39:01.527168  5219 net.cpp:382] ip3 -> ip3
I0428 20:39:01.527261  5219 net.cpp:124] Setting up ip3
I0428 20:39:01.527267  5219 net.cpp:131] Top shape: 64 10 (640)
I0428 20:39:01.527271  5219 net.cpp:139] Memory required for data: 20721920
I0428 20:39:01.527277  5219 layer_factory.hpp:77] Creating layer relu3
I0428 20:39:01.527282  5219 net.cpp:86] Creating Layer relu3
I0428 20:39:01.527285  5219 net.cpp:408] relu3 <- ip3
I0428 20:39:01.527302  5219 net.cpp:369] relu3 -> ip3 (in-place)
I0428 20:39:01.527441  5219 net.cpp:124] Setting up relu3
I0428 20:39:01.527448  5219 net.cpp:131] Top shape: 64 10 (640)
I0428 20:39:01.527451  5219 net.cpp:139] Memory required for data: 20724480
I0428 20:39:01.527454  5219 layer_factory.hpp:77] Creating layer loss
I0428 20:39:01.527459  5219 net.cpp:86] Creating Layer loss
I0428 20:39:01.527462  5219 net.cpp:408] loss <- ip3
I0428 20:39:01.527467  5219 net.cpp:408] loss <- label
I0428 20:39:01.527472  5219 net.cpp:382] loss -> loss
I0428 20:39:01.527487  5219 layer_factory.hpp:77] Creating layer loss
…
I0428 20:39:01.528164  5219 solver.cpp:173] Creating test net (#0) specified by net file: ECE595/mnist/train_test/var_everything2/lenet_train_test1673.prototxt
I0428 20:39:01.528189  5219 net.cpp:296] The NetState phase (1) differed from the phase (0) specified by a rule in layer mnist
I0428 20:39:01.528277  5219 net.cpp:53] Initializing net from parameters: 
name: "LeNet"
state {
  phase: TEST
}
layer {
  name: "mnist"
  type: "Data"
  top: "data"
  top: "label"
  include {
    phase: TEST
  }
  transform_param {
    scale: 0.00390625
  }
  data_param {
    source: "examples/mnist/mnist_test_lmdb"
    batch_size: 100
    backend: LMDB
  }
}
layer {
  name: "conv0"
  type: "Convolution"
  bottom: "data"
  top: "conv0"
  param {
    lr_mult: 1
  }
  param {
    lr_mult: 2
  }
  convolution_param {
    num_output: 100
    kernel_size: 5
    stride: 1
    weight_filler {
      type: "xavier"
    }
    bias_filler {
      type: "constant"
    }
  }
}
layer {
  name: "pool0"
  type: "Pooling"
  bottom: "conv0"
  top: "pool0"
  pooling_param {
    pool: MAX
    kernel_size: 2
    stride: 2
  }
}
layer {
  name: "conv1"
  type: "Convolution"
  bottom: "pool0"
  top: "conv1"
  param {
    lr_mult: 1
  }
  param {
    lr_mult: 2
  }
  convolution_param {
    num_output: 100
    kernel_size: 5
    stride: 1
    weight_filler {
      type: "xavier"
    }
    bias_filler {
      type: "constant"
    }
  }
}
layer {
  name: "pool1"
  type: "Pooling"
  bottom: "conv1"
  top: "pool1"
  pooling_param {
    pool: MAX
    kernel_size: 2
    stride: 2
  }
}
layer {
  name: "ip1"
  type: "InnerProduct"
  bottom: "pool1"
  top: "ip1"
  param {
    lr_mult: 1
  }
  param {
    lr_mult: 2
  }
  inner_product_param {
    num_output: 50
    weight_filler {
      type: "xavier"
    }
    bias_filler {
      type: "constant"
    }
  }
}
layer {
  name: "relu1"
  type: "ReLU"
  bottom: "ip1"
  top: "ip1"
}
layer {
  name: "ip2"
  type: "InnerProduct"
  bottom: "ip1"
  top: "ip2"
  param {
    lr_mult: 1
  }
  param {
    lr_mult: 2
  }
  inner_product_param {
    num_output: 25
    weight_filler {
      type: "xavier"
    }
    bias_filler {
      type: "constant"
    }
  }
}
layer {
  name: "relu2"
  type: "ReLU"
  bottom: "ip2"
  top: "ip2"
}
layer {
  name: "ip3"
  type: "InnerProduct"
  bottom: "ip2"
  top: "ip3"
  param {
    lr_mult: 1
  }
  param {
    lr_mult: 2
  }
  inner_product_param {
    num_output: 10
    weight_filler {
      type: "xavier"
    }
    bias_filler {
      type: "constant"
    }
  }
}
layer {
  name: "relu3"
  type: "ReLU"
  bottom: "ip3"
  top: "ip3"
}
layer {
  name: "accuracy"
  type: "Accuracy"
  bottom: "ip3"
  bottom: "label"
  top: "accuracy"
  include {
    phase: TEST
  }
}
layer {
  name: "loss"
  type: "SoftmaxWithLoss"
  bottom: "ip3"
  bottom: "label"
  top: "loss"
}
I0428 20:39:01.528350  5219 layer_factory.hpp:77] Creating layer mnist
I0428 20:39:01.528393  5219 db_lmdb.cpp:35] Opened lmdb examples/mnist/mnist_test_lmdb
I0428 20:39:01.528424  5219 net.cpp:86] Creating Layer mnist
I0428 20:39:01.528429  5219 net.cpp:382] mnist -> data
I0428 20:39:01.528435  5219 net.cpp:382] mnist -> label
I0428 20:39:01.528517  5219 data_layer.cpp:45] output data size: 100,1,28,28
I0428 20:39:01.530575  5219 net.cpp:124] Setting up mnist
I0428 20:39:01.530619  5219 net.cpp:131] Top shape: 100 1 28 28 (78400)
I0428 20:39:01.530625  5219 net.cpp:131] Top shape: 100 (100)
I0428 20:39:01.530628  5219 net.cpp:139] Memory required for data: 314000
I0428 20:39:01.530632  5219 layer_factory.hpp:77] Creating layer label_mnist_1_split
I0428 20:39:01.530642  5219 net.cpp:86] Creating Layer label_mnist_1_split
I0428 20:39:01.530647  5219 net.cpp:408] label_mnist_1_split <- label
I0428 20:39:01.530652  5219 net.cpp:382] label_mnist_1_split -> label_mnist_1_split_0
I0428 20:39:01.530658  5219 net.cpp:382] label_mnist_1_split -> label_mnist_1_split_1
I0428 20:39:01.530737  5219 net.cpp:124] Setting up label_mnist_1_split
I0428 20:39:01.530745  5219 net.cpp:131] Top shape: 100 (100)
I0428 20:39:01.530750  5219 net.cpp:131] Top shape: 100 (100)
I0428 20:39:01.530752  5219 net.cpp:139] Memory required for data: 314800
I0428 20:39:01.530755  5219 layer_factory.hpp:77] Creating layer conv0
I0428 20:39:01.530763  5219 net.cpp:86] Creating Layer conv0
I0428 20:39:01.530766  5219 net.cpp:408] conv0 <- data
I0428 20:39:01.530771  5219 net.cpp:382] conv0 -> conv0
I0428 20:39:01.532299  5219 net.cpp:124] Setting up conv0
I0428 20:39:01.532313  5219 net.cpp:131] Top shape: 100 100 24 24 (5760000)
I0428 20:39:01.532316  5219 net.cpp:139] Memory required for data: 23354800
I0428 20:39:01.532341  5219 layer_factory.hpp:77] Creating layer pool0
I0428 20:39:01.532363  5219 net.cpp:86] Creating Layer pool0
I0428 20:39:01.532367  5219 net.cpp:408] pool0 <- conv0
I0428 20:39:01.532372  5219 net.cpp:382] pool0 -> pool0
I0428 20:39:01.532414  5219 net.cpp:124] Setting up pool0
I0428 20:39:01.532421  5219 net.cpp:131] Top shape: 100 100 12 12 (1440000)
I0428 20:39:01.532424  5219 net.cpp:139] Memory required for data: 29114800
I0428 20:39:01.532428  5219 layer_factory.hpp:77] Creating layer conv1
I0428 20:39:01.532436  5219 net.cpp:86] Creating Layer conv1
I0428 20:39:01.532440  5219 net.cpp:408] conv1 <- pool0
I0428 20:39:01.532445  5219 net.cpp:382] conv1 -> conv1
I0428 20:39:01.535601  5219 net.cpp:124] Setting up conv1
I0428 20:39:01.535624  5219 net.cpp:131] Top shape: 100 100 8 8 (640000)
I0428 20:39:01.535629  5219 net.cpp:139] Memory required for data: 31674800
I0428 20:39:01.535636  5219 layer_factory.hpp:77] Creating layer pool1
I0428 20:39:01.535643  5219 net.cpp:86] Creating Layer pool1
I0428 20:39:01.535647  5219 net.cpp:408] pool1 <- conv1
I0428 20:39:01.535673  5219 net.cpp:382] pool1 -> pool1
I0428 20:39:01.535712  5219 net.cpp:124] Setting up pool1
I0428 20:39:01.535719  5219 net.cpp:131] Top shape: 100 100 4 4 (160000)
I0428 20:39:01.535723  5219 net.cpp:139] Memory required for data: 32314800
I0428 20:39:01.535727  5219 layer_factory.hpp:77] Creating layer ip1
I0428 20:39:01.535734  5219 net.cpp:86] Creating Layer ip1
I0428 20:39:01.535737  5219 net.cpp:408] ip1 <- pool1
I0428 20:39:01.535742  5219 net.cpp:382] ip1 -> ip1
I0428 20:39:01.536295  5219 net.cpp:124] Setting up ip1
I0428 20:39:01.536311  5219 net.cpp:131] Top shape: 100 50 (5000)
I0428 20:39:01.536325  5219 net.cpp:139] Memory required for data: 32334800
I0428 20:39:01.536332  5219 layer_factory.hpp:77] Creating layer relu1
I0428 20:39:01.536339  5219 net.cpp:86] Creating Layer relu1
I0428 20:39:01.536342  5219 net.cpp:408] relu1 <- ip1
I0428 20:39:01.536346  5219 net.cpp:369] relu1 -> ip1 (in-place)
I0428 20:39:01.536535  5219 net.cpp:124] Setting up relu1
I0428 20:39:01.536542  5219 net.cpp:131] Top shape: 100 50 (5000)
I0428 20:39:01.536545  5219 net.cpp:139] Memory required for data: 32354800
I0428 20:39:01.536548  5219 layer_factory.hpp:77] Creating layer ip2
I0428 20:39:01.536556  5219 net.cpp:86] Creating Layer ip2
I0428 20:39:01.536574  5219 net.cpp:408] ip2 <- ip1
I0428 20:39:01.536581  5219 net.cpp:382] ip2 -> ip2
I0428 20:39:01.536722  5219 net.cpp:124] Setting up ip2
I0428 20:39:01.536731  5219 net.cpp:131] Top shape: 100 25 (2500)
I0428 20:39:01.536734  5219 net.cpp:139] Memory required for data: 32364800
I0428 20:39:01.536739  5219 layer_factory.hpp:77] Creating layer relu2
I0428 20:39:01.536746  5219 net.cpp:86] Creating Layer relu2
I0428 20:39:01.536748  5219 net.cpp:408] relu2 <- ip2
I0428 20:39:01.536752  5219 net.cpp:369] relu2 -> ip2 (in-place)
I0428 20:39:01.536945  5219 net.cpp:124] Setting up relu2
I0428 20:39:01.536957  5219 net.cpp:131] Top shape: 100 25 (2500)
I0428 20:39:01.536959  5219 net.cpp:139] Memory required for data: 32374800
I0428 20:39:01.536963  5219 layer_factory.hpp:77] Creating layer ip3
I0428 20:39:01.536968  5219 net.cpp:86] Creating Layer ip3
I0428 20:39:01.536972  5219 net.cpp:408] ip3 <- ip2
I0428 20:39:01.536978  5219 net.cpp:382] ip3 -> ip3
I0428 20:39:01.537113  5219 net.cpp:124] Setting up ip3
I0428 20:39:01.537134  5219 net.cpp:131] Top shape: 100 10 (1000)
I0428 20:39:01.537137  5219 net.cpp:139] Memory required for data: 32378800
I0428 20:39:01.537160  5219 layer_factory.hpp:77] Creating layer relu3
I0428 20:39:01.537166  5219 net.cpp:86] Creating Layer relu3
I0428 20:39:01.537169  5219 net.cpp:408] relu3 <- ip3
I0428 20:39:01.537173  5219 net.cpp:369] relu3 -> ip3 (in-place)
I0428 20:39:01.537916  5219 net.cpp:124] Setting up relu3
I0428 20:39:01.537930  5219 net.cpp:131] Top shape: 100 10 (1000)
I0428 20:39:01.537943  5219 net.cpp:139] Memory required for data: 32382800
I0428 20:39:01.537946  5219 layer_factory.hpp:77] Creating layer ip3_relu3_0_split
I0428 20:39:01.537951  5219 net.cpp:86] Creating Layer ip3_relu3_0_split
I0428 20:39:01.537955  5219 net.cpp:408] ip3_relu3_0_split <- ip3
I0428 20:39:01.537962  5219 net.cpp:382] ip3_relu3_0_split -> ip3_relu3_0_split_0
I0428 20:39:01.537969  5219 net.cpp:382] ip3_relu3_0_split -> ip3_relu3_0_split_1
I0428 20:39:01.538007  5219 net.cpp:124] Setting up ip3_relu3_0_split
I0428 20:39:01.538014  5219 net.cpp:131] Top shape: 100 10 (1000)
I0428 20:39:01.538017  5219 net.cpp:131] Top shape: 100 10 (1000)
I0428 20:39:01.538020  5219 net.cpp:139] Memory required for data: 32390800
I0428 20:39:01.538023  5219 layer_factory.hpp:77] Creating layer accuracy
I0428 20:39:01.538029  5219 net.cpp:86] Creating Layer accuracy
I0428 20:39:01.538033  5219 net.cpp:408] accuracy <- ip3_relu3_0_split_0
I0428 20:39:01.538036  5219 net.cpp:408] accuracy <- label_mnist_1_split_0
I0428 20:39:01.538041  5219 net.cpp:382] accuracy -> accuracy
…
