…
I0428 19:30:03.150248 22185 net.cpp:296] The NetState phase (0) differed from the phase (1) specified by a rule in layer mnist
I0428 19:30:03.150260 22185 net.cpp:296] The NetState phase (0) differed from the phase (1) specified by a rule in layer accuracy
I0428 19:30:03.150332 22185 net.cpp:53] Initializing net from parameters: 
name: "LeNet"
state {
  phase: TRAIN
  level: 0
  stage: ""
}
layer {
  name: "mnist"
  type: "Data"
  top: "data"
  top: "label"
  include {
    phase: TRAIN
  }
  transform_param {
    scale: 0.00390625
  }
  data_param {
    source: "examples/mnist/mnist_train_lmdb"
    batch_size: 64
    backend: LMDB
  }
}
layer {
  name: "conv0"
  type: "Convolution"
  bottom: "data"
  top: "conv0"
  param {
    lr_mult: 1
  }
  param {
    lr_mult: 2
  }
  convolution_param {
    num_output: 5
    kernel_size: 5
    stride: 1
    weight_filler {
      type: "xavier"
    }
    bias_filler {
      type: "constant"
    }
  }
}
layer {
  name: "pool0"
  type: "Pooling"
  bottom: "conv0"
  top: "pool0"
  pooling_param {
    pool: MAX
    kernel_size: 2
    stride: 2
  }
}
layer {
  name: "ip1"
  type: "InnerProduct"
  bottom: "pool0"
  top: "ip1"
  param {
    lr_mult: 1
  }
  param {
    lr_mult: 2
  }
  inner_product_param {
    num_output: 10
    weight_filler {
      type: "xavier"
    }
    bias_filler {
      type: "constant"
    }
  }
}
layer {
  name: "relu1"
  type: "ReLU"
  bottom: "ip1"
  top: "ip1"
}
layer {
  name: "loss"
  type: "SoftmaxWithLoss"
  bottom: "ip1"
  bottom: "label"
  top: "loss"
}
I0428 19:30:03.150395 22185 layer_factory.hpp:77] Creating layer mnist
I0428 19:30:03.150501 22185 db_lmdb.cpp:35] Opened lmdb examples/mnist/mnist_train_lmdb
I0428 19:30:03.150524 22185 net.cpp:86] Creating Layer mnist
I0428 19:30:03.150535 22185 net.cpp:382] mnist -> data
I0428 19:30:03.150558 22185 net.cpp:382] mnist -> label
I0428 19:30:03.151654 22185 data_layer.cpp:45] output data size: 64,1,28,28
I0428 19:30:03.154119 22185 net.cpp:124] Setting up mnist
I0428 19:30:03.154137 22185 net.cpp:131] Top shape: 64 1 28 28 (50176)
I0428 19:30:03.154145 22185 net.cpp:131] Top shape: 64 (64)
I0428 19:30:03.154147 22185 net.cpp:139] Memory required for data: 200960
I0428 19:30:03.154156 22185 layer_factory.hpp:77] Creating layer conv0
I0428 19:30:03.154173 22185 net.cpp:86] Creating Layer conv0
I0428 19:30:03.154180 22185 net.cpp:408] conv0 <- data
I0428 19:30:03.154192 22185 net.cpp:382] conv0 -> conv0
I0428 19:30:03.440358 22185 net.cpp:124] Setting up conv0
I0428 19:30:03.440388 22185 net.cpp:131] Top shape: 64 5 24 24 (184320)
I0428 19:30:03.440393 22185 net.cpp:139] Memory required for data: 938240
I0428 19:30:03.440408 22185 layer_factory.hpp:77] Creating layer pool0
I0428 19:30:03.440423 22185 net.cpp:86] Creating Layer pool0
I0428 19:30:03.440426 22185 net.cpp:408] pool0 <- conv0
I0428 19:30:03.440433 22185 net.cpp:382] pool0 -> pool0
I0428 19:30:03.440484 22185 net.cpp:124] Setting up pool0
I0428 19:30:03.440490 22185 net.cpp:131] Top shape: 64 5 12 12 (46080)
I0428 19:30:03.440492 22185 net.cpp:139] Memory required for data: 1122560
I0428 19:30:03.440495 22185 layer_factory.hpp:77] Creating layer ip1
I0428 19:30:03.440503 22185 net.cpp:86] Creating Layer ip1
I0428 19:30:03.440507 22185 net.cpp:408] ip1 <- pool0
I0428 19:30:03.440512 22185 net.cpp:382] ip1 -> ip1
I0428 19:30:03.441534 22185 net.cpp:124] Setting up ip1
I0428 19:30:03.441547 22185 net.cpp:131] Top shape: 64 10 (640)
I0428 19:30:03.441565 22185 net.cpp:139] Memory required for data: 1125120
I0428 19:30:03.441575 22185 layer_factory.hpp:77] Creating layer relu1
I0428 19:30:03.441582 22185 net.cpp:86] Creating Layer relu1
I0428 19:30:03.441586 22185 net.cpp:408] relu1 <- ip1
I0428 19:30:03.441591 22185 net.cpp:369] relu1 -> ip1 (in-place)
I0428 19:30:03.441761 22185 net.cpp:124] Setting up relu1
I0428 19:30:03.441771 22185 net.cpp:131] Top shape: 64 10 (640)
I0428 19:30:03.441774 22185 net.cpp:139] Memory required for data: 1127680
I0428 19:30:03.441778 22185 layer_factory.hpp:77] Creating layer loss
I0428 19:30:03.441783 22185 net.cpp:86] Creating Layer loss
I0428 19:30:03.441787 22185 net.cpp:408] loss <- ip1
I0428 19:30:03.441792 22185 net.cpp:408] loss <- label
I0428 19:30:03.441797 22185 net.cpp:382] loss -> loss
I0428 19:30:03.441815 22185 layer_factory.hpp:77] Creating layer loss
…
I0428 19:30:03.442973 22185 solver.cpp:173] Creating test net (#0) specified by net file: ECE595/mnist/train_test/var_everything2/lenet_train_test78.prototxt
I0428 19:30:03.442996 22185 net.cpp:296] The NetState phase (1) differed from the phase (0) specified by a rule in layer mnist
I0428 19:30:03.443063 22185 net.cpp:53] Initializing net from parameters: 
name: "LeNet"
state {
  phase: TEST
}
layer {
  name: "mnist"
  type: "Data"
  top: "data"
  top: "label"
  include {
    phase: TEST
  }
  transform_param {
    scale: 0.00390625
  }
  data_param {
    source: "examples/mnist/mnist_test_lmdb"
    batch_size: 100
    backend: LMDB
  }
}
layer {
  name: "conv0"
  type: "Convolution"
  bottom: "data"
  top: "conv0"
  param {
    lr_mult: 1
  }
  param {
    lr_mult: 2
  }
  convolution_param {
    num_output: 5
    kernel_size: 5
    stride: 1
    weight_filler {
      type: "xavier"
    }
    bias_filler {
      type: "constant"
    }
  }
}
layer {
  name: "pool0"
  type: "Pooling"
  bottom: "conv0"
  top: "pool0"
  pooling_param {
    pool: MAX
    kernel_size: 2
    stride: 2
  }
}
layer {
  name: "ip1"
  type: "InnerProduct"
  bottom: "pool0"
  top: "ip1"
  param {
    lr_mult: 1
  }
  param {
    lr_mult: 2
  }
  inner_product_param {
    num_output: 10
    weight_filler {
      type: "xavier"
    }
    bias_filler {
      type: "constant"
    }
  }
}
layer {
  name: "relu1"
  type: "ReLU"
  bottom: "ip1"
  top: "ip1"
}
layer {
  name: "accuracy"
  type: "Accuracy"
  bottom: "ip1"
  bottom: "label"
  top: "accuracy"
  include {
    phase: TEST
  }
}
layer {
  name: "loss"
  type: "SoftmaxWithLoss"
  bottom: "ip1"
  bottom: "label"
  top: "loss"
}
I0428 19:30:03.443115 22185 layer_factory.hpp:77] Creating layer mnist
I0428 19:30:03.443161 22185 db_lmdb.cpp:35] Opened lmdb examples/mnist/mnist_test_lmdb
I0428 19:30:03.443177 22185 net.cpp:86] Creating Layer mnist
I0428 19:30:03.443182 22185 net.cpp:382] mnist -> data
I0428 19:30:03.443191 22185 net.cpp:382] mnist -> label
I0428 19:30:03.443276 22185 data_layer.cpp:45] output data size: 100,1,28,28
I0428 19:30:03.445216 22185 net.cpp:124] Setting up mnist
I0428 19:30:03.445230 22185 net.cpp:131] Top shape: 100 1 28 28 (78400)
I0428 19:30:03.445235 22185 net.cpp:131] Top shape: 100 (100)
I0428 19:30:03.445238 22185 net.cpp:139] Memory required for data: 314000
I0428 19:30:03.445252 22185 layer_factory.hpp:77] Creating layer label_mnist_1_split
I0428 19:30:03.445261 22185 net.cpp:86] Creating Layer label_mnist_1_split
I0428 19:30:03.445264 22185 net.cpp:408] label_mnist_1_split <- label
I0428 19:30:03.445269 22185 net.cpp:382] label_mnist_1_split -> label_mnist_1_split_0
I0428 19:30:03.445291 22185 net.cpp:382] label_mnist_1_split -> label_mnist_1_split_1
I0428 19:30:03.445339 22185 net.cpp:124] Setting up label_mnist_1_split
I0428 19:30:03.445345 22185 net.cpp:131] Top shape: 100 (100)
I0428 19:30:03.445349 22185 net.cpp:131] Top shape: 100 (100)
I0428 19:30:03.445353 22185 net.cpp:139] Memory required for data: 314800
I0428 19:30:03.445355 22185 layer_factory.hpp:77] Creating layer conv0
I0428 19:30:03.445364 22185 net.cpp:86] Creating Layer conv0
I0428 19:30:03.445368 22185 net.cpp:408] conv0 <- data
I0428 19:30:03.445372 22185 net.cpp:382] conv0 -> conv0
I0428 19:30:03.447114 22185 net.cpp:124] Setting up conv0
I0428 19:30:03.447129 22185 net.cpp:131] Top shape: 100 5 24 24 (288000)
I0428 19:30:03.447132 22185 net.cpp:139] Memory required for data: 1466800
I0428 19:30:03.447141 22185 layer_factory.hpp:77] Creating layer pool0
I0428 19:30:03.447149 22185 net.cpp:86] Creating Layer pool0
I0428 19:30:03.447151 22185 net.cpp:408] pool0 <- conv0
I0428 19:30:03.447156 22185 net.cpp:382] pool0 -> pool0
I0428 19:30:03.447193 22185 net.cpp:124] Setting up pool0
I0428 19:30:03.447199 22185 net.cpp:131] Top shape: 100 5 12 12 (72000)
I0428 19:30:03.447202 22185 net.cpp:139] Memory required for data: 1754800
I0428 19:30:03.447206 22185 layer_factory.hpp:77] Creating layer ip1
I0428 19:30:03.447211 22185 net.cpp:86] Creating Layer ip1
I0428 19:30:03.447216 22185 net.cpp:408] ip1 <- pool0
I0428 19:30:03.447221 22185 net.cpp:382] ip1 -> ip1
I0428 19:30:03.447351 22185 net.cpp:124] Setting up ip1
I0428 19:30:03.447360 22185 net.cpp:131] Top shape: 100 10 (1000)
I0428 19:30:03.447362 22185 net.cpp:139] Memory required for data: 1758800
I0428 19:30:03.447369 22185 layer_factory.hpp:77] Creating layer relu1
I0428 19:30:03.447374 22185 net.cpp:86] Creating Layer relu1
I0428 19:30:03.447378 22185 net.cpp:408] relu1 <- ip1
I0428 19:30:03.447382 22185 net.cpp:369] relu1 -> ip1 (in-place)
I0428 19:30:03.447540 22185 net.cpp:124] Setting up relu1
I0428 19:30:03.447549 22185 net.cpp:131] Top shape: 100 10 (1000)
I0428 19:30:03.447552 22185 net.cpp:139] Memory required for data: 1762800
I0428 19:30:03.447556 22185 layer_factory.hpp:77] Creating layer ip1_relu1_0_split
I0428 19:30:03.447561 22185 net.cpp:86] Creating Layer ip1_relu1_0_split
I0428 19:30:03.447563 22185 net.cpp:408] ip1_relu1_0_split <- ip1
I0428 19:30:03.447567 22185 net.cpp:382] ip1_relu1_0_split -> ip1_relu1_0_split_0
I0428 19:30:03.447573 22185 net.cpp:382] ip1_relu1_0_split -> ip1_relu1_0_split_1
I0428 19:30:03.447608 22185 net.cpp:124] Setting up ip1_relu1_0_split
I0428 19:30:03.447615 22185 net.cpp:131] Top shape: 100 10 (1000)
I0428 19:30:03.447619 22185 net.cpp:131] Top shape: 100 10 (1000)
I0428 19:30:03.447623 22185 net.cpp:139] Memory required for data: 1770800
I0428 19:30:03.447625 22185 layer_factory.hpp:77] Creating layer accuracy
I0428 19:30:03.447630 22185 net.cpp:86] Creating Layer accuracy
I0428 19:30:03.447633 22185 net.cpp:408] accuracy <- ip1_relu1_0_split_0
I0428 19:30:03.447638 22185 net.cpp:408] accuracy <- label_mnist_1_split_0
I0428 19:30:03.447641 22185 net.cpp:382] accuracy -> accuracy
…
