…
I0428 20:13:59.286104 32578 net.cpp:296] The NetState phase (0) differed from the phase (1) specified by a rule in layer mnist
I0428 20:13:59.286121 32578 net.cpp:296] The NetState phase (0) differed from the phase (1) specified by a rule in layer accuracy
I0428 20:13:59.286203 32578 net.cpp:53] Initializing net from parameters: 
name: "LeNet"
state {
  phase: TRAIN
  level: 0
  stage: ""
}
layer {
  name: "mnist"
  type: "Data"
  top: "data"
  top: "label"
  include {
    phase: TRAIN
  }
  transform_param {
    scale: 0.00390625
  }
  data_param {
    source: "examples/mnist/mnist_train_lmdb"
    batch_size: 64
    backend: LMDB
  }
}
layer {
  name: "conv0"
  type: "Convolution"
  bottom: "data"
  top: "conv0"
  param {
    lr_mult: 1
  }
  param {
    lr_mult: 2
  }
  convolution_param {
    num_output: 50
    kernel_size: 5
    stride: 1
    weight_filler {
      type: "xavier"
    }
    bias_filler {
      type: "constant"
    }
  }
}
layer {
  name: "pool0"
  type: "Pooling"
  bottom: "conv0"
  top: "pool0"
  pooling_param {
    pool: MAX
    kernel_size: 2
    stride: 2
  }
}
layer {
  name: "conv1"
  type: "Convolution"
  bottom: "pool0"
  top: "conv1"
  param {
    lr_mult: 1
  }
  param {
    lr_mult: 2
  }
  convolution_param {
    num_output: 2
    kernel_size: 5
    stride: 1
    weight_filler {
      type: "xavier"
    }
    bias_filler {
      type: "constant"
    }
  }
}
layer {
  name: "pool1"
  type: "Pooling"
  bottom: "conv1"
  top: "pool1"
  pooling_param {
    pool: MAX
    kernel_size: 2
    stride: 2
  }
}
layer {
  name: "ip1"
  type: "InnerProduct"
  bottom: "pool1"
  top: "ip1"
  param {
    lr_mult: 1
  }
  param {
    lr_mult: 2
  }
  inner_product_param {
    num_output: 10
    weight_filler {
      type: "xavier"
    }
    bias_filler {
      type: "constant"
    }
  }
}
layer {
  name: "relu1"
  type: "ReLU"
  bottom: "ip1"
  top: "ip1"
}
layer {
  name: "loss"
  type: "SoftmaxWithLoss"
  bottom: "ip1"
  bottom: "label"
  top: "loss"
}
I0428 20:13:59.286276 32578 layer_factory.hpp:77] Creating layer mnist
I0428 20:13:59.286381 32578 db_lmdb.cpp:35] Opened lmdb examples/mnist/mnist_train_lmdb
I0428 20:13:59.286404 32578 net.cpp:86] Creating Layer mnist
I0428 20:13:59.286413 32578 net.cpp:382] mnist -> data
I0428 20:13:59.286435 32578 net.cpp:382] mnist -> label
I0428 20:13:59.287540 32578 data_layer.cpp:45] output data size: 64,1,28,28
I0428 20:13:59.290011 32578 net.cpp:124] Setting up mnist
I0428 20:13:59.290030 32578 net.cpp:131] Top shape: 64 1 28 28 (50176)
I0428 20:13:59.290037 32578 net.cpp:131] Top shape: 64 (64)
I0428 20:13:59.290041 32578 net.cpp:139] Memory required for data: 200960
I0428 20:13:59.290050 32578 layer_factory.hpp:77] Creating layer conv0
I0428 20:13:59.290066 32578 net.cpp:86] Creating Layer conv0
I0428 20:13:59.290071 32578 net.cpp:408] conv0 <- data
I0428 20:13:59.290083 32578 net.cpp:382] conv0 -> conv0
I0428 20:13:59.557646 32578 net.cpp:124] Setting up conv0
I0428 20:13:59.557687 32578 net.cpp:131] Top shape: 64 50 24 24 (1843200)
I0428 20:13:59.557692 32578 net.cpp:139] Memory required for data: 7573760
I0428 20:13:59.557705 32578 layer_factory.hpp:77] Creating layer pool0
I0428 20:13:59.557718 32578 net.cpp:86] Creating Layer pool0
I0428 20:13:59.557721 32578 net.cpp:408] pool0 <- conv0
I0428 20:13:59.557726 32578 net.cpp:382] pool0 -> pool0
I0428 20:13:59.557786 32578 net.cpp:124] Setting up pool0
I0428 20:13:59.557792 32578 net.cpp:131] Top shape: 64 50 12 12 (460800)
I0428 20:13:59.557809 32578 net.cpp:139] Memory required for data: 9416960
I0428 20:13:59.557813 32578 layer_factory.hpp:77] Creating layer conv1
I0428 20:13:59.557824 32578 net.cpp:86] Creating Layer conv1
I0428 20:13:59.557827 32578 net.cpp:408] conv1 <- pool0
I0428 20:13:59.557832 32578 net.cpp:382] conv1 -> conv1
I0428 20:13:59.559739 32578 net.cpp:124] Setting up conv1
I0428 20:13:59.559769 32578 net.cpp:131] Top shape: 64 2 8 8 (8192)
I0428 20:13:59.559773 32578 net.cpp:139] Memory required for data: 9449728
I0428 20:13:59.559782 32578 layer_factory.hpp:77] Creating layer pool1
I0428 20:13:59.559792 32578 net.cpp:86] Creating Layer pool1
I0428 20:13:59.559795 32578 net.cpp:408] pool1 <- conv1
I0428 20:13:59.559800 32578 net.cpp:382] pool1 -> pool1
I0428 20:13:59.559855 32578 net.cpp:124] Setting up pool1
I0428 20:13:59.559861 32578 net.cpp:131] Top shape: 64 2 4 4 (2048)
I0428 20:13:59.559865 32578 net.cpp:139] Memory required for data: 9457920
I0428 20:13:59.559869 32578 layer_factory.hpp:77] Creating layer ip1
I0428 20:13:59.559875 32578 net.cpp:86] Creating Layer ip1
I0428 20:13:59.559878 32578 net.cpp:408] ip1 <- pool1
I0428 20:13:59.559883 32578 net.cpp:382] ip1 -> ip1
I0428 20:13:59.560014 32578 net.cpp:124] Setting up ip1
I0428 20:13:59.560020 32578 net.cpp:131] Top shape: 64 10 (640)
I0428 20:13:59.560024 32578 net.cpp:139] Memory required for data: 9460480
I0428 20:13:59.560030 32578 layer_factory.hpp:77] Creating layer relu1
I0428 20:13:59.560036 32578 net.cpp:86] Creating Layer relu1
I0428 20:13:59.560039 32578 net.cpp:408] relu1 <- ip1
I0428 20:13:59.560044 32578 net.cpp:369] relu1 -> ip1 (in-place)
I0428 20:13:59.560219 32578 net.cpp:124] Setting up relu1
I0428 20:13:59.560227 32578 net.cpp:131] Top shape: 64 10 (640)
I0428 20:13:59.560230 32578 net.cpp:139] Memory required for data: 9463040
I0428 20:13:59.560232 32578 layer_factory.hpp:77] Creating layer loss
I0428 20:13:59.560238 32578 net.cpp:86] Creating Layer loss
I0428 20:13:59.560241 32578 net.cpp:408] loss <- ip1
I0428 20:13:59.560245 32578 net.cpp:408] loss <- label
I0428 20:13:59.560250 32578 net.cpp:382] loss -> loss
I0428 20:13:59.560263 32578 layer_factory.hpp:77] Creating layer loss
…
I0428 20:13:59.561421 32578 solver.cpp:173] Creating test net (#0) specified by net file: ECE595/mnist/train_test/var_everything2/lenet_train_test1210.prototxt
I0428 20:13:59.561445 32578 net.cpp:296] The NetState phase (1) differed from the phase (0) specified by a rule in layer mnist
I0428 20:13:59.561517 32578 net.cpp:53] Initializing net from parameters: 
name: "LeNet"
state {
  phase: TEST
}
layer {
  name: "mnist"
  type: "Data"
  top: "data"
  top: "label"
  include {
    phase: TEST
  }
  transform_param {
    scale: 0.00390625
  }
  data_param {
    source: "examples/mnist/mnist_test_lmdb"
    batch_size: 100
    backend: LMDB
  }
}
layer {
  name: "conv0"
  type: "Convolution"
  bottom: "data"
  top: "conv0"
  param {
    lr_mult: 1
  }
  param {
    lr_mult: 2
  }
  convolution_param {
    num_output: 50
    kernel_size: 5
    stride: 1
    weight_filler {
      type: "xavier"
    }
    bias_filler {
      type: "constant"
    }
  }
}
layer {
  name: "pool0"
  type: "Pooling"
  bottom: "conv0"
  top: "pool0"
  pooling_param {
    pool: MAX
    kernel_size: 2
    stride: 2
  }
}
layer {
  name: "conv1"
  type: "Convolution"
  bottom: "pool0"
  top: "conv1"
  param {
    lr_mult: 1
  }
  param {
    lr_mult: 2
  }
  convolution_param {
    num_output: 2
    kernel_size: 5
    stride: 1
    weight_filler {
      type: "xavier"
    }
    bias_filler {
      type: "constant"
    }
  }
}
layer {
  name: "pool1"
  type: "Pooling"
  bottom: "conv1"
  top: "pool1"
  pooling_param {
    pool: MAX
    kernel_size: 2
    stride: 2
  }
}
layer {
  name: "ip1"
  type: "InnerProduct"
  bottom: "pool1"
  top: "ip1"
  param {
    lr_mult: 1
  }
  param {
    lr_mult: 2
  }
  inner_product_param {
    num_output: 10
    weight_filler {
      type: "xavier"
    }
    bias_filler {
      type: "constant"
    }
  }
}
layer {
  name: "relu1"
  type: "ReLU"
  bottom: "ip1"
  top: "ip1"
}
layer {
  name: "accuracy"
  type: "Accuracy"
  bottom: "ip1"
  bottom: "label"
  top: "accuracy"
  include {
    phase: TEST
  }
}
layer {
  name: "loss"
  type: "SoftmaxWithLoss"
  bottom: "ip1"
  bottom: "label"
  top: "loss"
}
I0428 20:13:59.561583 32578 layer_factory.hpp:77] Creating layer mnist
I0428 20:13:59.561625 32578 db_lmdb.cpp:35] Opened lmdb examples/mnist/mnist_test_lmdb
I0428 20:13:59.561637 32578 net.cpp:86] Creating Layer mnist
I0428 20:13:59.561642 32578 net.cpp:382] mnist -> data
I0428 20:13:59.561650 32578 net.cpp:382] mnist -> label
I0428 20:13:59.561728 32578 data_layer.cpp:45] output data size: 100,1,28,28
I0428 20:13:59.563735 32578 net.cpp:124] Setting up mnist
I0428 20:13:59.563762 32578 net.cpp:131] Top shape: 100 1 28 28 (78400)
I0428 20:13:59.563767 32578 net.cpp:131] Top shape: 100 (100)
I0428 20:13:59.563771 32578 net.cpp:139] Memory required for data: 314000
I0428 20:13:59.563774 32578 layer_factory.hpp:77] Creating layer label_mnist_1_split
I0428 20:13:59.563781 32578 net.cpp:86] Creating Layer label_mnist_1_split
I0428 20:13:59.563784 32578 net.cpp:408] label_mnist_1_split <- label
I0428 20:13:59.563788 32578 net.cpp:382] label_mnist_1_split -> label_mnist_1_split_0
I0428 20:13:59.563796 32578 net.cpp:382] label_mnist_1_split -> label_mnist_1_split_1
I0428 20:13:59.563848 32578 net.cpp:124] Setting up label_mnist_1_split
I0428 20:13:59.563853 32578 net.cpp:131] Top shape: 100 (100)
I0428 20:13:59.563856 32578 net.cpp:131] Top shape: 100 (100)
I0428 20:13:59.563859 32578 net.cpp:139] Memory required for data: 314800
I0428 20:13:59.563863 32578 layer_factory.hpp:77] Creating layer conv0
I0428 20:13:59.563870 32578 net.cpp:86] Creating Layer conv0
I0428 20:13:59.563874 32578 net.cpp:408] conv0 <- data
I0428 20:13:59.563877 32578 net.cpp:382] conv0 -> conv0
I0428 20:13:59.564945 32578 net.cpp:124] Setting up conv0
I0428 20:13:59.564959 32578 net.cpp:131] Top shape: 100 50 24 24 (2880000)
I0428 20:13:59.564961 32578 net.cpp:139] Memory required for data: 11834800
I0428 20:13:59.564986 32578 layer_factory.hpp:77] Creating layer pool0
I0428 20:13:59.564993 32578 net.cpp:86] Creating Layer pool0
I0428 20:13:59.564996 32578 net.cpp:408] pool0 <- conv0
I0428 20:13:59.565001 32578 net.cpp:382] pool0 -> pool0
I0428 20:13:59.565038 32578 net.cpp:124] Setting up pool0
I0428 20:13:59.565045 32578 net.cpp:131] Top shape: 100 50 12 12 (720000)
I0428 20:13:59.565048 32578 net.cpp:139] Memory required for data: 14714800
I0428 20:13:59.565052 32578 layer_factory.hpp:77] Creating layer conv1
I0428 20:13:59.565059 32578 net.cpp:86] Creating Layer conv1
I0428 20:13:59.565063 32578 net.cpp:408] conv1 <- pool0
I0428 20:13:59.565068 32578 net.cpp:382] conv1 -> conv1
I0428 20:13:59.566864 32578 net.cpp:124] Setting up conv1
I0428 20:13:59.566879 32578 net.cpp:131] Top shape: 100 2 8 8 (12800)
I0428 20:13:59.566882 32578 net.cpp:139] Memory required for data: 14766000
I0428 20:13:59.566892 32578 layer_factory.hpp:77] Creating layer pool1
I0428 20:13:59.566898 32578 net.cpp:86] Creating Layer pool1
I0428 20:13:59.566913 32578 net.cpp:408] pool1 <- conv1
I0428 20:13:59.566920 32578 net.cpp:382] pool1 -> pool1
I0428 20:13:59.566959 32578 net.cpp:124] Setting up pool1
I0428 20:13:59.566964 32578 net.cpp:131] Top shape: 100 2 4 4 (3200)
I0428 20:13:59.566967 32578 net.cpp:139] Memory required for data: 14778800
I0428 20:13:59.566977 32578 layer_factory.hpp:77] Creating layer ip1
I0428 20:13:59.566985 32578 net.cpp:86] Creating Layer ip1
I0428 20:13:59.566988 32578 net.cpp:408] ip1 <- pool1
I0428 20:13:59.567005 32578 net.cpp:382] ip1 -> ip1
I0428 20:13:59.567118 32578 net.cpp:124] Setting up ip1
I0428 20:13:59.567127 32578 net.cpp:131] Top shape: 100 10 (1000)
I0428 20:13:59.567131 32578 net.cpp:139] Memory required for data: 14782800
I0428 20:13:59.567138 32578 layer_factory.hpp:77] Creating layer relu1
I0428 20:13:59.567143 32578 net.cpp:86] Creating Layer relu1
I0428 20:13:59.567162 32578 net.cpp:408] relu1 <- ip1
I0428 20:13:59.567167 32578 net.cpp:369] relu1 -> ip1 (in-place)
I0428 20:13:59.568003 32578 net.cpp:124] Setting up relu1
I0428 20:13:59.568014 32578 net.cpp:131] Top shape: 100 10 (1000)
I0428 20:13:59.568018 32578 net.cpp:139] Memory required for data: 14786800
I0428 20:13:59.568022 32578 layer_factory.hpp:77] Creating layer ip1_relu1_0_split
I0428 20:13:59.568027 32578 net.cpp:86] Creating Layer ip1_relu1_0_split
I0428 20:13:59.568029 32578 net.cpp:408] ip1_relu1_0_split <- ip1
I0428 20:13:59.568035 32578 net.cpp:382] ip1_relu1_0_split -> ip1_relu1_0_split_0
I0428 20:13:59.568040 32578 net.cpp:382] ip1_relu1_0_split -> ip1_relu1_0_split_1
I0428 20:13:59.568087 32578 net.cpp:124] Setting up ip1_relu1_0_split
I0428 20:13:59.568094 32578 net.cpp:131] Top shape: 100 10 (1000)
I0428 20:13:59.568096 32578 net.cpp:131] Top shape: 100 10 (1000)
I0428 20:13:59.568099 32578 net.cpp:139] Memory required for data: 14794800
I0428 20:13:59.568101 32578 layer_factory.hpp:77] Creating layer accuracy
I0428 20:13:59.568105 32578 net.cpp:86] Creating Layer accuracy
I0428 20:13:59.568109 32578 net.cpp:408] accuracy <- ip1_relu1_0_split_0
I0428 20:13:59.568112 32578 net.cpp:408] accuracy <- label_mnist_1_split_0
I0428 20:13:59.568115 32578 net.cpp:382] accuracy -> accuracy
…
