…
I0428 19:41:25.668754 24821 net.cpp:296] The NetState phase (0) differed from the phase (1) specified by a rule in layer mnist
I0428 19:41:25.668773 24821 net.cpp:296] The NetState phase (0) differed from the phase (1) specified by a rule in layer accuracy
I0428 19:41:25.668905 24821 net.cpp:53] Initializing net from parameters: 
name: "LeNet"
state {
  phase: TRAIN
  level: 0
  stage: ""
}
layer {
  name: "mnist"
  type: "Data"
  top: "data"
  top: "label"
  include {
    phase: TRAIN
  }
  transform_param {
    scale: 0.00390625
  }
  data_param {
    source: "examples/mnist/mnist_train_lmdb"
    batch_size: 64
    backend: LMDB
  }
}
layer {
  name: "conv0"
  type: "Convolution"
  bottom: "data"
  top: "conv0"
  param {
    lr_mult: 1
  }
  param {
    lr_mult: 2
  }
  convolution_param {
    num_output: 2
    kernel_size: 5
    stride: 1
    weight_filler {
      type: "xavier"
    }
    bias_filler {
      type: "constant"
    }
  }
}
layer {
  name: "pool0"
  type: "Pooling"
  bottom: "conv0"
  top: "pool0"
  pooling_param {
    pool: MAX
    kernel_size: 2
    stride: 2
  }
}
layer {
  name: "conv1"
  type: "Convolution"
  bottom: "pool0"
  top: "conv1"
  param {
    lr_mult: 1
  }
  param {
    lr_mult: 2
  }
  convolution_param {
    num_output: 10
    kernel_size: 5
    stride: 1
    weight_filler {
      type: "xavier"
    }
    bias_filler {
      type: "constant"
    }
  }
}
layer {
  name: "pool1"
  type: "Pooling"
  bottom: "conv1"
  top: "pool1"
  pooling_param {
    pool: MAX
    kernel_size: 2
    stride: 2
  }
}
layer {
  name: "ip1"
  type: "InnerProduct"
  bottom: "pool1"
  top: "ip1"
  param {
    lr_mult: 1
  }
  param {
    lr_mult: 2
  }
  inner_product_param {
    num_output: 10
    weight_filler {
      type: "xavier"
    }
    bias_filler {
      type: "constant"
    }
  }
}
layer {
  name: "relu1"
  type: "ReLU"
  bottom: "ip1"
  top: "ip1"
}
layer {
  name: "ip2"
  type: "InnerProduct"
  bottom: "ip1"
  top: "ip2"
  param {
    lr_mult: 1
  }
  param {
    lr_mult: 2
  }
  inner_product_param {
    num_output: 10
    weight_filler {
      type: "xavier"
    }
    bias_filler {
      type: "constant"
    }
  }
}
layer {
  name: "relu2"
  type: "ReLU"
  bottom: "ip2"
  top: "ip2"
}
layer {
  name: "ip3"
  type: "InnerProduct"
  bottom: "ip2"
  top: "ip3"
  param {
    lr_mult: 1
  }
  param {
    lr_mult: 2
  }
  inner_product_param {
    num_output: 10
    weight_filler {
      type: "xavier"
    }
    bias_filler {
      type: "constant"
    }
  }
}
layer {
  name: "relu3"
  type: "ReLU"
  bottom: "ip3"
  top: "ip3"
}
layer {
  name: "loss"
  type: "SoftmaxWithLoss"
  bottom: "ip3"
  bottom: "label"
  top: "loss"
}
I0428 19:41:25.668998 24821 layer_factory.hpp:77] Creating layer mnist
I0428 19:41:25.669109 24821 db_lmdb.cpp:35] Opened lmdb examples/mnist/mnist_train_lmdb
I0428 19:41:25.669152 24821 net.cpp:86] Creating Layer mnist
I0428 19:41:25.669162 24821 net.cpp:382] mnist -> data
I0428 19:41:25.669214 24821 net.cpp:382] mnist -> label
I0428 19:41:25.670253 24821 data_layer.cpp:45] output data size: 64,1,28,28
I0428 19:41:25.672502 24821 net.cpp:124] Setting up mnist
I0428 19:41:25.672535 24821 net.cpp:131] Top shape: 64 1 28 28 (50176)
I0428 19:41:25.672544 24821 net.cpp:131] Top shape: 64 (64)
I0428 19:41:25.672549 24821 net.cpp:139] Memory required for data: 200960
I0428 19:41:25.672557 24821 layer_factory.hpp:77] Creating layer conv0
I0428 19:41:25.672576 24821 net.cpp:86] Creating Layer conv0
I0428 19:41:25.672596 24821 net.cpp:408] conv0 <- data
I0428 19:41:25.672611 24821 net.cpp:382] conv0 -> conv0
I0428 19:41:25.899757 24821 net.cpp:124] Setting up conv0
I0428 19:41:25.899786 24821 net.cpp:131] Top shape: 64 2 24 24 (73728)
I0428 19:41:25.899792 24821 net.cpp:139] Memory required for data: 495872
I0428 19:41:25.899811 24821 layer_factory.hpp:77] Creating layer pool0
I0428 19:41:25.899827 24821 net.cpp:86] Creating Layer pool0
I0428 19:41:25.899839 24821 net.cpp:408] pool0 <- conv0
I0428 19:41:25.899848 24821 net.cpp:382] pool0 -> pool0
I0428 19:41:25.899900 24821 net.cpp:124] Setting up pool0
I0428 19:41:25.899909 24821 net.cpp:131] Top shape: 64 2 12 12 (18432)
I0428 19:41:25.899914 24821 net.cpp:139] Memory required for data: 569600
I0428 19:41:25.899919 24821 layer_factory.hpp:77] Creating layer conv1
I0428 19:41:25.899933 24821 net.cpp:86] Creating Layer conv1
I0428 19:41:25.899940 24821 net.cpp:408] conv1 <- pool0
I0428 19:41:25.899948 24821 net.cpp:382] conv1 -> conv1
I0428 19:41:25.901953 24821 net.cpp:124] Setting up conv1
I0428 19:41:25.901970 24821 net.cpp:131] Top shape: 64 10 8 8 (40960)
I0428 19:41:25.901976 24821 net.cpp:139] Memory required for data: 733440
I0428 19:41:25.901993 24821 layer_factory.hpp:77] Creating layer pool1
I0428 19:41:25.902004 24821 net.cpp:86] Creating Layer pool1
I0428 19:41:25.902017 24821 net.cpp:408] pool1 <- conv1
I0428 19:41:25.902026 24821 net.cpp:382] pool1 -> pool1
I0428 19:41:25.902103 24821 net.cpp:124] Setting up pool1
I0428 19:41:25.902112 24821 net.cpp:131] Top shape: 64 10 4 4 (10240)
I0428 19:41:25.902118 24821 net.cpp:139] Memory required for data: 774400
I0428 19:41:25.902123 24821 layer_factory.hpp:77] Creating layer ip1
I0428 19:41:25.902134 24821 net.cpp:86] Creating Layer ip1
I0428 19:41:25.902145 24821 net.cpp:408] ip1 <- pool1
I0428 19:41:25.902155 24821 net.cpp:382] ip1 -> ip1
I0428 19:41:25.903126 24821 net.cpp:124] Setting up ip1
I0428 19:41:25.903141 24821 net.cpp:131] Top shape: 64 10 (640)
I0428 19:41:25.903146 24821 net.cpp:139] Memory required for data: 776960
I0428 19:41:25.903159 24821 layer_factory.hpp:77] Creating layer relu1
I0428 19:41:25.903168 24821 net.cpp:86] Creating Layer relu1
I0428 19:41:25.903175 24821 net.cpp:408] relu1 <- ip1
I0428 19:41:25.903185 24821 net.cpp:369] relu1 -> ip1 (in-place)
I0428 19:41:25.903374 24821 net.cpp:124] Setting up relu1
I0428 19:41:25.903384 24821 net.cpp:131] Top shape: 64 10 (640)
I0428 19:41:25.903389 24821 net.cpp:139] Memory required for data: 779520
I0428 19:41:25.903394 24821 layer_factory.hpp:77] Creating layer ip2
I0428 19:41:25.903405 24821 net.cpp:86] Creating Layer ip2
I0428 19:41:25.903411 24821 net.cpp:408] ip2 <- ip1
I0428 19:41:25.903419 24821 net.cpp:382] ip2 -> ip2
I0428 19:41:25.903520 24821 net.cpp:124] Setting up ip2
I0428 19:41:25.903529 24821 net.cpp:131] Top shape: 64 10 (640)
I0428 19:41:25.903534 24821 net.cpp:139] Memory required for data: 782080
I0428 19:41:25.903542 24821 layer_factory.hpp:77] Creating layer relu2
I0428 19:41:25.903553 24821 net.cpp:86] Creating Layer relu2
I0428 19:41:25.903560 24821 net.cpp:408] relu2 <- ip2
I0428 19:41:25.903568 24821 net.cpp:369] relu2 -> ip2 (in-place)
I0428 19:41:25.904335 24821 net.cpp:124] Setting up relu2
I0428 19:41:25.904350 24821 net.cpp:131] Top shape: 64 10 (640)
I0428 19:41:25.904356 24821 net.cpp:139] Memory required for data: 784640
I0428 19:41:25.904361 24821 layer_factory.hpp:77] Creating layer ip3
I0428 19:41:25.904371 24821 net.cpp:86] Creating Layer ip3
I0428 19:41:25.904376 24821 net.cpp:408] ip3 <- ip2
I0428 19:41:25.904386 24821 net.cpp:382] ip3 -> ip3
I0428 19:41:25.904489 24821 net.cpp:124] Setting up ip3
I0428 19:41:25.904498 24821 net.cpp:131] Top shape: 64 10 (640)
I0428 19:41:25.904502 24821 net.cpp:139] Memory required for data: 787200
I0428 19:41:25.904516 24821 layer_factory.hpp:77] Creating layer relu3
I0428 19:41:25.904525 24821 net.cpp:86] Creating Layer relu3
I0428 19:41:25.904531 24821 net.cpp:408] relu3 <- ip3
I0428 19:41:25.904539 24821 net.cpp:369] relu3 -> ip3 (in-place)
I0428 19:41:25.904721 24821 net.cpp:124] Setting up relu3
I0428 19:41:25.904731 24821 net.cpp:131] Top shape: 64 10 (640)
I0428 19:41:25.904736 24821 net.cpp:139] Memory required for data: 789760
I0428 19:41:25.904739 24821 layer_factory.hpp:77] Creating layer loss
I0428 19:41:25.904748 24821 net.cpp:86] Creating Layer loss
I0428 19:41:25.904752 24821 net.cpp:408] loss <- ip3
I0428 19:41:25.904758 24821 net.cpp:408] loss <- label
I0428 19:41:25.904767 24821 net.cpp:382] loss -> loss
I0428 19:41:25.904788 24821 layer_factory.hpp:77] Creating layer loss
…
I0428 19:41:25.905593 24821 solver.cpp:173] Creating test net (#0) specified by net file: ECE595/mnist/train_test/var_everything2/lenet_train_test364.prototxt
I0428 19:41:25.905637 24821 net.cpp:296] The NetState phase (1) differed from the phase (0) specified by a rule in layer mnist
I0428 19:41:25.905736 24821 net.cpp:53] Initializing net from parameters: 
name: "LeNet"
state {
  phase: TEST
}
layer {
  name: "mnist"
  type: "Data"
  top: "data"
  top: "label"
  include {
    phase: TEST
  }
  transform_param {
    scale: 0.00390625
  }
  data_param {
    source: "examples/mnist/mnist_test_lmdb"
    batch_size: 100
    backend: LMDB
  }
}
layer {
  name: "conv0"
  type: "Convolution"
  bottom: "data"
  top: "conv0"
  param {
    lr_mult: 1
  }
  param {
    lr_mult: 2
  }
  convolution_param {
    num_output: 2
    kernel_size: 5
    stride: 1
    weight_filler {
      type: "xavier"
    }
    bias_filler {
      type: "constant"
    }
  }
}
layer {
  name: "pool0"
  type: "Pooling"
  bottom: "conv0"
  top: "pool0"
  pooling_param {
    pool: MAX
    kernel_size: 2
    stride: 2
  }
}
layer {
  name: "conv1"
  type: "Convolution"
  bottom: "pool0"
  top: "conv1"
  param {
    lr_mult: 1
  }
  param {
    lr_mult: 2
  }
  convolution_param {
    num_output: 10
    kernel_size: 5
    stride: 1
    weight_filler {
      type: "xavier"
    }
    bias_filler {
      type: "constant"
    }
  }
}
layer {
  name: "pool1"
  type: "Pooling"
  bottom: "conv1"
  top: "pool1"
  pooling_param {
    pool: MAX
    kernel_size: 2
    stride: 2
  }
}
layer {
  name: "ip1"
  type: "InnerProduct"
  bottom: "pool1"
  top: "ip1"
  param {
    lr_mult: 1
  }
  param {
    lr_mult: 2
  }
  inner_product_param {
    num_output: 10
    weight_filler {
      type: "xavier"
    }
    bias_filler {
      type: "constant"
    }
  }
}
layer {
  name: "relu1"
  type: "ReLU"
  bottom: "ip1"
  top: "ip1"
}
layer {
  name: "ip2"
  type: "InnerProduct"
  bottom: "ip1"
  top: "ip2"
  param {
    lr_mult: 1
  }
  param {
    lr_mult: 2
  }
  inner_product_param {
    num_output: 10
    weight_filler {
      type: "xavier"
    }
    bias_filler {
      type: "constant"
    }
  }
}
layer {
  name: "relu2"
  type: "ReLU"
  bottom: "ip2"
  top: "ip2"
}
layer {
  name: "ip3"
  type: "InnerProduct"
  bottom: "ip2"
  top: "ip3"
  param {
    lr_mult: 1
  }
  param {
    lr_mult: 2
  }
  inner_product_param {
    num_output: 10
    weight_filler {
      type: "xavier"
    }
    bias_filler {
      type: "constant"
    }
  }
}
layer {
  name: "relu3"
  type: "ReLU"
  bottom: "ip3"
  top: "ip3"
}
layer {
  name: "accuracy"
  type: "Accuracy"
  bottom: "ip3"
  bottom: "label"
  top: "accuracy"
  include {
    phase: TEST
  }
}
layer {
  name: "loss"
  type: "SoftmaxWithLoss"
  bottom: "ip3"
  bottom: "label"
  top: "loss"
}
I0428 19:41:25.905854 24821 layer_factory.hpp:77] Creating layer mnist
I0428 19:41:25.905912 24821 db_lmdb.cpp:35] Opened lmdb examples/mnist/mnist_test_lmdb
I0428 19:41:25.905930 24821 net.cpp:86] Creating Layer mnist
I0428 19:41:25.905938 24821 net.cpp:382] mnist -> data
I0428 19:41:25.905949 24821 net.cpp:382] mnist -> label
I0428 19:41:25.906076 24821 data_layer.cpp:45] output data size: 100,1,28,28
I0428 19:41:25.908403 24821 net.cpp:124] Setting up mnist
I0428 19:41:25.908433 24821 net.cpp:131] Top shape: 100 1 28 28 (78400)
I0428 19:41:25.908442 24821 net.cpp:131] Top shape: 100 (100)
I0428 19:41:25.908447 24821 net.cpp:139] Memory required for data: 314000
I0428 19:41:25.908452 24821 layer_factory.hpp:77] Creating layer label_mnist_1_split
I0428 19:41:25.908488 24821 net.cpp:86] Creating Layer label_mnist_1_split
I0428 19:41:25.908495 24821 net.cpp:408] label_mnist_1_split <- label
I0428 19:41:25.908502 24821 net.cpp:382] label_mnist_1_split -> label_mnist_1_split_0
I0428 19:41:25.908514 24821 net.cpp:382] label_mnist_1_split -> label_mnist_1_split_1
I0428 19:41:25.908607 24821 net.cpp:124] Setting up label_mnist_1_split
I0428 19:41:25.908617 24821 net.cpp:131] Top shape: 100 (100)
I0428 19:41:25.908623 24821 net.cpp:131] Top shape: 100 (100)
I0428 19:41:25.908627 24821 net.cpp:139] Memory required for data: 314800
I0428 19:41:25.908632 24821 layer_factory.hpp:77] Creating layer conv0
I0428 19:41:25.908648 24821 net.cpp:86] Creating Layer conv0
I0428 19:41:25.908654 24821 net.cpp:408] conv0 <- data
I0428 19:41:25.908680 24821 net.cpp:382] conv0 -> conv0
I0428 19:41:25.910357 24821 net.cpp:124] Setting up conv0
I0428 19:41:25.910372 24821 net.cpp:131] Top shape: 100 2 24 24 (115200)
I0428 19:41:25.910378 24821 net.cpp:139] Memory required for data: 775600
I0428 19:41:25.910394 24821 layer_factory.hpp:77] Creating layer pool0
I0428 19:41:25.910404 24821 net.cpp:86] Creating Layer pool0
I0428 19:41:25.910410 24821 net.cpp:408] pool0 <- conv0
I0428 19:41:25.910418 24821 net.cpp:382] pool0 -> pool0
I0428 19:41:25.910461 24821 net.cpp:124] Setting up pool0
I0428 19:41:25.910470 24821 net.cpp:131] Top shape: 100 2 12 12 (28800)
I0428 19:41:25.910475 24821 net.cpp:139] Memory required for data: 890800
I0428 19:41:25.910480 24821 layer_factory.hpp:77] Creating layer conv1
I0428 19:41:25.910493 24821 net.cpp:86] Creating Layer conv1
I0428 19:41:25.910500 24821 net.cpp:408] conv1 <- pool0
I0428 19:41:25.910509 24821 net.cpp:382] conv1 -> conv1
I0428 19:41:25.912163 24821 net.cpp:124] Setting up conv1
I0428 19:41:25.912176 24821 net.cpp:131] Top shape: 100 10 8 8 (64000)
I0428 19:41:25.912183 24821 net.cpp:139] Memory required for data: 1146800
I0428 19:41:25.912214 24821 layer_factory.hpp:77] Creating layer pool1
I0428 19:41:25.912222 24821 net.cpp:86] Creating Layer pool1
I0428 19:41:25.912230 24821 net.cpp:408] pool1 <- conv1
I0428 19:41:25.912241 24821 net.cpp:382] pool1 -> pool1
I0428 19:41:25.912286 24821 net.cpp:124] Setting up pool1
I0428 19:41:25.912294 24821 net.cpp:131] Top shape: 100 10 4 4 (16000)
I0428 19:41:25.912300 24821 net.cpp:139] Memory required for data: 1210800
I0428 19:41:25.912305 24821 layer_factory.hpp:77] Creating layer ip1
I0428 19:41:25.912317 24821 net.cpp:86] Creating Layer ip1
I0428 19:41:25.912322 24821 net.cpp:408] ip1 <- pool1
I0428 19:41:25.912330 24821 net.cpp:382] ip1 -> ip1
I0428 19:41:25.912467 24821 net.cpp:124] Setting up ip1
I0428 19:41:25.912475 24821 net.cpp:131] Top shape: 100 10 (1000)
I0428 19:41:25.912493 24821 net.cpp:139] Memory required for data: 1214800
I0428 19:41:25.912508 24821 layer_factory.hpp:77] Creating layer relu1
I0428 19:41:25.912518 24821 net.cpp:86] Creating Layer relu1
I0428 19:41:25.912526 24821 net.cpp:408] relu1 <- ip1
I0428 19:41:25.912535 24821 net.cpp:369] relu1 -> ip1 (in-place)
I0428 19:41:25.912711 24821 net.cpp:124] Setting up relu1
I0428 19:41:25.912722 24821 net.cpp:131] Top shape: 100 10 (1000)
I0428 19:41:25.912727 24821 net.cpp:139] Memory required for data: 1218800
I0428 19:41:25.912732 24821 layer_factory.hpp:77] Creating layer ip2
I0428 19:41:25.912745 24821 net.cpp:86] Creating Layer ip2
I0428 19:41:25.912753 24821 net.cpp:408] ip2 <- ip1
I0428 19:41:25.912765 24821 net.cpp:382] ip2 -> ip2
I0428 19:41:25.912915 24821 net.cpp:124] Setting up ip2
I0428 19:41:25.912927 24821 net.cpp:131] Top shape: 100 10 (1000)
I0428 19:41:25.912932 24821 net.cpp:139] Memory required for data: 1222800
I0428 19:41:25.912942 24821 layer_factory.hpp:77] Creating layer relu2
I0428 19:41:25.912950 24821 net.cpp:86] Creating Layer relu2
I0428 19:41:25.912971 24821 net.cpp:408] relu2 <- ip2
I0428 19:41:25.912991 24821 net.cpp:369] relu2 -> ip2 (in-place)
I0428 19:41:25.913305 24821 net.cpp:124] Setting up relu2
I0428 19:41:25.913316 24821 net.cpp:131] Top shape: 100 10 (1000)
I0428 19:41:25.913321 24821 net.cpp:139] Memory required for data: 1226800
I0428 19:41:25.913326 24821 layer_factory.hpp:77] Creating layer ip3
I0428 19:41:25.913336 24821 net.cpp:86] Creating Layer ip3
I0428 19:41:25.913341 24821 net.cpp:408] ip3 <- ip2
I0428 19:41:25.913352 24821 net.cpp:382] ip3 -> ip3
I0428 19:41:25.913480 24821 net.cpp:124] Setting up ip3
I0428 19:41:25.913491 24821 net.cpp:131] Top shape: 100 10 (1000)
I0428 19:41:25.913496 24821 net.cpp:139] Memory required for data: 1230800
I0428 19:41:25.913511 24821 layer_factory.hpp:77] Creating layer relu3
I0428 19:41:25.913521 24821 net.cpp:86] Creating Layer relu3
I0428 19:41:25.913527 24821 net.cpp:408] relu3 <- ip3
I0428 19:41:25.913537 24821 net.cpp:369] relu3 -> ip3 (in-place)
I0428 19:41:25.914446 24821 net.cpp:124] Setting up relu3
I0428 19:41:25.914459 24821 net.cpp:131] Top shape: 100 10 (1000)
I0428 19:41:25.914464 24821 net.cpp:139] Memory required for data: 1234800
I0428 19:41:25.914469 24821 layer_factory.hpp:77] Creating layer ip3_relu3_0_split
I0428 19:41:25.914477 24821 net.cpp:86] Creating Layer ip3_relu3_0_split
I0428 19:41:25.914482 24821 net.cpp:408] ip3_relu3_0_split <- ip3
I0428 19:41:25.914491 24821 net.cpp:382] ip3_relu3_0_split -> ip3_relu3_0_split_0
I0428 19:41:25.914500 24821 net.cpp:382] ip3_relu3_0_split -> ip3_relu3_0_split_1
I0428 19:41:25.914564 24821 net.cpp:124] Setting up ip3_relu3_0_split
I0428 19:41:25.914573 24821 net.cpp:131] Top shape: 100 10 (1000)
I0428 19:41:25.914579 24821 net.cpp:131] Top shape: 100 10 (1000)
I0428 19:41:25.914584 24821 net.cpp:139] Memory required for data: 1242800
I0428 19:41:25.914588 24821 layer_factory.hpp:77] Creating layer accuracy
I0428 19:41:25.914600 24821 net.cpp:86] Creating Layer accuracy
I0428 19:41:25.914605 24821 net.cpp:408] accuracy <- ip3_relu3_0_split_0
I0428 19:41:25.914613 24821 net.cpp:408] accuracy <- label_mnist_1_split_0
I0428 19:41:25.914623 24821 net.cpp:382] accuracy -> accuracy
…
