…
I0428 19:28:44.469602 21772 net.cpp:296] The NetState phase (0) differed from the phase (1) specified by a rule in layer mnist
I0428 19:28:44.469619 21772 net.cpp:296] The NetState phase (0) differed from the phase (1) specified by a rule in layer accuracy
I0428 19:28:44.469699 21772 net.cpp:53] Initializing net from parameters: 
name: "LeNet"
state {
  phase: TRAIN
  level: 0
  stage: ""
}
layer {
  name: "mnist"
  type: "Data"
  top: "data"
  top: "label"
  include {
    phase: TRAIN
  }
  transform_param {
    scale: 0.00390625
  }
  data_param {
    source: "examples/mnist/mnist_train_lmdb"
    batch_size: 64
    backend: LMDB
  }
}
layer {
  name: "ip1"
  type: "InnerProduct"
  bottom: "data"
  top: "ip1"
  param {
    lr_mult: 1
  }
  param {
    lr_mult: 2
  }
  inner_product_param {
    num_output: 50
    weight_filler {
      type: "xavier"
    }
    bias_filler {
      type: "constant"
    }
  }
}
layer {
  name: "relu1"
  type: "ReLU"
  bottom: "ip1"
  top: "ip1"
}
layer {
  name: "ip2"
  type: "InnerProduct"
  bottom: "ip1"
  top: "ip2"
  param {
    lr_mult: 1
  }
  param {
    lr_mult: 2
  }
  inner_product_param {
    num_output: 25
    weight_filler {
      type: "xavier"
    }
    bias_filler {
      type: "constant"
    }
  }
}
layer {
  name: "relu2"
  type: "ReLU"
  bottom: "ip2"
  top: "ip2"
}
layer {
  name: "ip3"
  type: "InnerProduct"
  bottom: "ip2"
  top: "ip3"
  param {
    lr_mult: 1
  }
  param {
    lr_mult: 2
  }
  inner_product_param {
    num_output: 10
    weight_filler {
      type: "xavier"
    }
    bias_filler {
      type: "constant"
    }
  }
}
layer {
  name: "relu3"
  type: "ReLU"
  bottom: "ip3"
  top: "ip3"
}
layer {
  name: "loss"
  type: "SoftmaxWithLoss"
  bottom: "ip3"
  bottom: "label"
  top: "loss"
}
I0428 19:28:44.469777 21772 layer_factory.hpp:77] Creating layer mnist
I0428 19:28:44.469928 21772 db_lmdb.cpp:35] Opened lmdb examples/mnist/mnist_train_lmdb
I0428 19:28:44.469952 21772 net.cpp:86] Creating Layer mnist
I0428 19:28:44.469960 21772 net.cpp:382] mnist -> data
I0428 19:28:44.469985 21772 net.cpp:382] mnist -> label
I0428 19:28:44.471030 21772 data_layer.cpp:45] output data size: 64,1,28,28
I0428 19:28:44.473469 21772 net.cpp:124] Setting up mnist
I0428 19:28:44.473500 21772 net.cpp:131] Top shape: 64 1 28 28 (50176)
I0428 19:28:44.473508 21772 net.cpp:131] Top shape: 64 (64)
I0428 19:28:44.473528 21772 net.cpp:139] Memory required for data: 200960
I0428 19:28:44.473536 21772 layer_factory.hpp:77] Creating layer ip1
I0428 19:28:44.473551 21772 net.cpp:86] Creating Layer ip1
I0428 19:28:44.473562 21772 net.cpp:408] ip1 <- data
I0428 19:28:44.473577 21772 net.cpp:382] ip1 -> ip1
I0428 19:28:44.473961 21772 net.cpp:124] Setting up ip1
I0428 19:28:44.473973 21772 net.cpp:131] Top shape: 64 50 (3200)
I0428 19:28:44.473978 21772 net.cpp:139] Memory required for data: 213760
I0428 19:28:44.473994 21772 layer_factory.hpp:77] Creating layer relu1
I0428 19:28:44.474007 21772 net.cpp:86] Creating Layer relu1
I0428 19:28:44.474015 21772 net.cpp:408] relu1 <- ip1
I0428 19:28:44.474037 21772 net.cpp:369] relu1 -> ip1 (in-place)
I0428 19:28:44.720957 21772 net.cpp:124] Setting up relu1
I0428 19:28:44.720983 21772 net.cpp:131] Top shape: 64 50 (3200)
I0428 19:28:44.720988 21772 net.cpp:139] Memory required for data: 226560
I0428 19:28:44.720994 21772 layer_factory.hpp:77] Creating layer ip2
I0428 19:28:44.721026 21772 net.cpp:86] Creating Layer ip2
I0428 19:28:44.721066 21772 net.cpp:408] ip2 <- ip1
I0428 19:28:44.721078 21772 net.cpp:382] ip2 -> ip2
I0428 19:28:44.722213 21772 net.cpp:124] Setting up ip2
I0428 19:28:44.722228 21772 net.cpp:131] Top shape: 64 25 (1600)
I0428 19:28:44.722234 21772 net.cpp:139] Memory required for data: 232960
I0428 19:28:44.722249 21772 layer_factory.hpp:77] Creating layer relu2
I0428 19:28:44.722265 21772 net.cpp:86] Creating Layer relu2
I0428 19:28:44.722272 21772 net.cpp:408] relu2 <- ip2
I0428 19:28:44.722280 21772 net.cpp:369] relu2 -> ip2 (in-place)
I0428 19:28:44.722986 21772 net.cpp:124] Setting up relu2
I0428 19:28:44.723001 21772 net.cpp:131] Top shape: 64 25 (1600)
I0428 19:28:44.723006 21772 net.cpp:139] Memory required for data: 239360
I0428 19:28:44.723011 21772 layer_factory.hpp:77] Creating layer ip3
I0428 19:28:44.723021 21772 net.cpp:86] Creating Layer ip3
I0428 19:28:44.723026 21772 net.cpp:408] ip3 <- ip2
I0428 19:28:44.723036 21772 net.cpp:382] ip3 -> ip3
I0428 19:28:44.723148 21772 net.cpp:124] Setting up ip3
I0428 19:28:44.723158 21772 net.cpp:131] Top shape: 64 10 (640)
I0428 19:28:44.723163 21772 net.cpp:139] Memory required for data: 241920
I0428 19:28:44.723176 21772 layer_factory.hpp:77] Creating layer relu3
I0428 19:28:44.723183 21772 net.cpp:86] Creating Layer relu3
I0428 19:28:44.723193 21772 net.cpp:408] relu3 <- ip3
I0428 19:28:44.723201 21772 net.cpp:369] relu3 -> ip3 (in-place)
I0428 19:28:44.723351 21772 net.cpp:124] Setting up relu3
I0428 19:28:44.723361 21772 net.cpp:131] Top shape: 64 10 (640)
I0428 19:28:44.723366 21772 net.cpp:139] Memory required for data: 244480
I0428 19:28:44.723371 21772 layer_factory.hpp:77] Creating layer loss
I0428 19:28:44.723379 21772 net.cpp:86] Creating Layer loss
I0428 19:28:44.723384 21772 net.cpp:408] loss <- ip3
I0428 19:28:44.723392 21772 net.cpp:408] loss <- label
I0428 19:28:44.723399 21772 net.cpp:382] loss -> loss
I0428 19:28:44.723423 21772 layer_factory.hpp:77] Creating layer loss
…
I0428 19:28:44.724951 21772 solver.cpp:173] Creating test net (#0) specified by net file: ECE595/mnist/train_test/var_everything2/lenet_train_test35.prototxt
I0428 19:28:44.724984 21772 net.cpp:296] The NetState phase (1) differed from the phase (0) specified by a rule in layer mnist
I0428 19:28:44.725064 21772 net.cpp:53] Initializing net from parameters: 
name: "LeNet"
state {
  phase: TEST
}
layer {
  name: "mnist"
  type: "Data"
  top: "data"
  top: "label"
  include {
    phase: TEST
  }
  transform_param {
    scale: 0.00390625
  }
  data_param {
    source: "examples/mnist/mnist_test_lmdb"
    batch_size: 100
    backend: LMDB
  }
}
layer {
  name: "ip1"
  type: "InnerProduct"
  bottom: "data"
  top: "ip1"
  param {
    lr_mult: 1
  }
  param {
    lr_mult: 2
  }
  inner_product_param {
    num_output: 50
    weight_filler {
      type: "xavier"
    }
    bias_filler {
      type: "constant"
    }
  }
}
layer {
  name: "relu1"
  type: "ReLU"
  bottom: "ip1"
  top: "ip1"
}
layer {
  name: "ip2"
  type: "InnerProduct"
  bottom: "ip1"
  top: "ip2"
  param {
    lr_mult: 1
  }
  param {
    lr_mult: 2
  }
  inner_product_param {
    num_output: 25
    weight_filler {
      type: "xavier"
    }
    bias_filler {
      type: "constant"
    }
  }
}
layer {
  name: "relu2"
  type: "ReLU"
  bottom: "ip2"
  top: "ip2"
}
layer {
  name: "ip3"
  type: "InnerProduct"
  bottom: "ip2"
  top: "ip3"
  param {
    lr_mult: 1
  }
  param {
    lr_mult: 2
  }
  inner_product_param {
    num_output: 10
    weight_filler {
      type: "xavier"
    }
    bias_filler {
      type: "constant"
    }
  }
}
layer {
  name: "relu3"
  type: "ReLU"
  bottom: "ip3"
  top: "ip3"
}
layer {
  name: "accuracy"
  type: "Accuracy"
  bottom: "ip3"
  bottom: "label"
  top: "accuracy"
  include {
    phase: TEST
  }
}
layer {
  name: "loss"
  type: "SoftmaxWithLoss"
  bottom: "ip3"
  bottom: "label"
  top: "loss"
}
I0428 19:28:44.725193 21772 layer_factory.hpp:77] Creating layer mnist
I0428 19:28:44.725296 21772 db_lmdb.cpp:35] Opened lmdb examples/mnist/mnist_test_lmdb
I0428 19:28:44.725322 21772 net.cpp:86] Creating Layer mnist
I0428 19:28:44.725332 21772 net.cpp:382] mnist -> data
I0428 19:28:44.725342 21772 net.cpp:382] mnist -> label
I0428 19:28:44.725461 21772 data_layer.cpp:45] output data size: 100,1,28,28
I0428 19:28:44.727429 21772 net.cpp:124] Setting up mnist
I0428 19:28:44.727444 21772 net.cpp:131] Top shape: 100 1 28 28 (78400)
I0428 19:28:44.727452 21772 net.cpp:131] Top shape: 100 (100)
I0428 19:28:44.727458 21772 net.cpp:139] Memory required for data: 314000
I0428 19:28:44.727463 21772 layer_factory.hpp:77] Creating layer label_mnist_1_split
I0428 19:28:44.727478 21772 net.cpp:86] Creating Layer label_mnist_1_split
I0428 19:28:44.727499 21772 net.cpp:408] label_mnist_1_split <- label
I0428 19:28:44.727524 21772 net.cpp:382] label_mnist_1_split -> label_mnist_1_split_0
I0428 19:28:44.727555 21772 net.cpp:382] label_mnist_1_split -> label_mnist_1_split_1
I0428 19:28:44.727607 21772 net.cpp:124] Setting up label_mnist_1_split
I0428 19:28:44.727615 21772 net.cpp:131] Top shape: 100 (100)
I0428 19:28:44.727622 21772 net.cpp:131] Top shape: 100 (100)
I0428 19:28:44.727627 21772 net.cpp:139] Memory required for data: 314800
I0428 19:28:44.727632 21772 layer_factory.hpp:77] Creating layer ip1
I0428 19:28:44.727643 21772 net.cpp:86] Creating Layer ip1
I0428 19:28:44.727650 21772 net.cpp:408] ip1 <- data
I0428 19:28:44.727660 21772 net.cpp:382] ip1 -> ip1
I0428 19:28:44.728077 21772 net.cpp:124] Setting up ip1
I0428 19:28:44.728087 21772 net.cpp:131] Top shape: 100 50 (5000)
I0428 19:28:44.728092 21772 net.cpp:139] Memory required for data: 334800
I0428 19:28:44.728106 21772 layer_factory.hpp:77] Creating layer relu1
I0428 19:28:44.728116 21772 net.cpp:86] Creating Layer relu1
I0428 19:28:44.728121 21772 net.cpp:408] relu1 <- ip1
I0428 19:28:44.728132 21772 net.cpp:369] relu1 -> ip1 (in-place)
I0428 19:28:44.729189 21772 net.cpp:124] Setting up relu1
I0428 19:28:44.729204 21772 net.cpp:131] Top shape: 100 50 (5000)
I0428 19:28:44.729210 21772 net.cpp:139] Memory required for data: 354800
I0428 19:28:44.729216 21772 layer_factory.hpp:77] Creating layer ip2
I0428 19:28:44.729229 21772 net.cpp:86] Creating Layer ip2
I0428 19:28:44.729238 21772 net.cpp:408] ip2 <- ip1
I0428 19:28:44.729246 21772 net.cpp:382] ip2 -> ip2
I0428 19:28:44.729370 21772 net.cpp:124] Setting up ip2
I0428 19:28:44.729380 21772 net.cpp:131] Top shape: 100 25 (2500)
I0428 19:28:44.729387 21772 net.cpp:139] Memory required for data: 364800
I0428 19:28:44.729399 21772 layer_factory.hpp:77] Creating layer relu2
I0428 19:28:44.729408 21772 net.cpp:86] Creating Layer relu2
I0428 19:28:44.729414 21772 net.cpp:408] relu2 <- ip2
I0428 19:28:44.729423 21772 net.cpp:369] relu2 -> ip2 (in-place)
I0428 19:28:44.729598 21772 net.cpp:124] Setting up relu2
I0428 19:28:44.729607 21772 net.cpp:131] Top shape: 100 25 (2500)
I0428 19:28:44.729612 21772 net.cpp:139] Memory required for data: 374800
I0428 19:28:44.729617 21772 layer_factory.hpp:77] Creating layer ip3
I0428 19:28:44.729629 21772 net.cpp:86] Creating Layer ip3
I0428 19:28:44.729635 21772 net.cpp:408] ip3 <- ip2
I0428 19:28:44.729645 21772 net.cpp:382] ip3 -> ip3
I0428 19:28:44.729779 21772 net.cpp:124] Setting up ip3
I0428 19:28:44.729805 21772 net.cpp:131] Top shape: 100 10 (1000)
I0428 19:28:44.729811 21772 net.cpp:139] Memory required for data: 378800
I0428 19:28:44.729828 21772 layer_factory.hpp:77] Creating layer relu3
I0428 19:28:44.729838 21772 net.cpp:86] Creating Layer relu3
I0428 19:28:44.729845 21772 net.cpp:408] relu3 <- ip3
I0428 19:28:44.729852 21772 net.cpp:369] relu3 -> ip3 (in-place)
I0428 19:28:44.730162 21772 net.cpp:124] Setting up relu3
I0428 19:28:44.730175 21772 net.cpp:131] Top shape: 100 10 (1000)
I0428 19:28:44.730180 21772 net.cpp:139] Memory required for data: 382800
I0428 19:28:44.730186 21772 layer_factory.hpp:77] Creating layer ip3_relu3_0_split
I0428 19:28:44.730196 21772 net.cpp:86] Creating Layer ip3_relu3_0_split
I0428 19:28:44.730202 21772 net.cpp:408] ip3_relu3_0_split <- ip3
I0428 19:28:44.730211 21772 net.cpp:382] ip3_relu3_0_split -> ip3_relu3_0_split_0
I0428 19:28:44.730221 21772 net.cpp:382] ip3_relu3_0_split -> ip3_relu3_0_split_1
I0428 19:28:44.730270 21772 net.cpp:124] Setting up ip3_relu3_0_split
I0428 19:28:44.730279 21772 net.cpp:131] Top shape: 100 10 (1000)
I0428 19:28:44.730288 21772 net.cpp:131] Top shape: 100 10 (1000)
I0428 19:28:44.730293 21772 net.cpp:139] Memory required for data: 390800
I0428 19:28:44.730299 21772 layer_factory.hpp:77] Creating layer accuracy
I0428 19:28:44.730314 21772 net.cpp:86] Creating Layer accuracy
I0428 19:28:44.730321 21772 net.cpp:408] accuracy <- ip3_relu3_0_split_0
I0428 19:28:44.730329 21772 net.cpp:408] accuracy <- label_mnist_1_split_0
I0428 19:28:44.730337 21772 net.cpp:382] accuracy -> accuracy
…
