…
I0428 19:50:59.299358 27167 net.cpp:296] The NetState phase (0) differed from the phase (1) specified by a rule in layer mnist
I0428 19:50:59.299377 27167 net.cpp:296] The NetState phase (0) differed from the phase (1) specified by a rule in layer accuracy
I0428 19:50:59.299481 27167 net.cpp:53] Initializing net from parameters: 
name: "LeNet"
state {
  phase: TRAIN
  level: 0
  stage: ""
}
layer {
  name: "mnist"
  type: "Data"
  top: "data"
  top: "label"
  include {
    phase: TRAIN
  }
  transform_param {
    scale: 0.00390625
  }
  data_param {
    source: "examples/mnist/mnist_train_lmdb"
    batch_size: 64
    backend: LMDB
  }
}
layer {
  name: "conv0"
  type: "Convolution"
  bottom: "data"
  top: "conv0"
  param {
    lr_mult: 1
  }
  param {
    lr_mult: 2
  }
  convolution_param {
    num_output: 5
    kernel_size: 5
    stride: 1
    weight_filler {
      type: "xavier"
    }
    bias_filler {
      type: "constant"
    }
  }
}
layer {
  name: "pool0"
  type: "Pooling"
  bottom: "conv0"
  top: "pool0"
  pooling_param {
    pool: MAX
    kernel_size: 2
    stride: 2
  }
}
layer {
  name: "conv1"
  type: "Convolution"
  bottom: "pool0"
  top: "conv1"
  param {
    lr_mult: 1
  }
  param {
    lr_mult: 2
  }
  convolution_param {
    num_output: 10
    kernel_size: 5
    stride: 1
    weight_filler {
      type: "xavier"
    }
    bias_filler {
      type: "constant"
    }
  }
}
layer {
  name: "pool1"
  type: "Pooling"
  bottom: "conv1"
  top: "pool1"
  pooling_param {
    pool: MAX
    kernel_size: 2
    stride: 2
  }
}
layer {
  name: "ip1"
  type: "InnerProduct"
  bottom: "pool1"
  top: "ip1"
  param {
    lr_mult: 1
  }
  param {
    lr_mult: 2
  }
  inner_product_param {
    num_output: 50
    weight_filler {
      type: "xavier"
    }
    bias_filler {
      type: "constant"
    }
  }
}
layer {
  name: "relu1"
  type: "ReLU"
  bottom: "ip1"
  top: "ip1"
}
layer {
  name: "ip2"
  type: "InnerProduct"
  bottom: "ip1"
  top: "ip2"
  param {
    lr_mult: 1
  }
  param {
    lr_mult: 2
  }
  inner_product_param {
    num_output: 25
    weight_filler {
      type: "xavier"
    }
    bias_filler {
      type: "constant"
    }
  }
}
layer {
  name: "relu2"
  type: "ReLU"
  bottom: "ip2"
  top: "ip2"
}
layer {
  name: "ip3"
  type: "InnerProduct"
  bottom: "ip2"
  top: "ip3"
  param {
    lr_mult: 1
  }
  param {
    lr_mult: 2
  }
  inner_product_param {
    num_output: 10
    weight_filler {
      type: "xavier"
    }
    bias_filler {
      type: "constant"
    }
  }
}
layer {
  name: "relu3"
  type: "ReLU"
  bottom: "ip3"
  top: "ip3"
}
layer {
  name: "loss"
  type: "SoftmaxWithLoss"
  bottom: "ip3"
  bottom: "label"
  top: "loss"
}
I0428 19:50:59.299562 27167 layer_factory.hpp:77] Creating layer mnist
I0428 19:50:59.299660 27167 db_lmdb.cpp:35] Opened lmdb examples/mnist/mnist_train_lmdb
I0428 19:50:59.299684 27167 net.cpp:86] Creating Layer mnist
I0428 19:50:59.299692 27167 net.cpp:382] mnist -> data
I0428 19:50:59.299715 27167 net.cpp:382] mnist -> label
I0428 19:50:59.300804 27167 data_layer.cpp:45] output data size: 64,1,28,28
I0428 19:50:59.303266 27167 net.cpp:124] Setting up mnist
I0428 19:50:59.303283 27167 net.cpp:131] Top shape: 64 1 28 28 (50176)
I0428 19:50:59.303292 27167 net.cpp:131] Top shape: 64 (64)
I0428 19:50:59.303295 27167 net.cpp:139] Memory required for data: 200960
I0428 19:50:59.303303 27167 layer_factory.hpp:77] Creating layer conv0
I0428 19:50:59.303318 27167 net.cpp:86] Creating Layer conv0
I0428 19:50:59.303339 27167 net.cpp:408] conv0 <- data
I0428 19:50:59.303354 27167 net.cpp:382] conv0 -> conv0
I0428 19:50:59.578821 27167 net.cpp:124] Setting up conv0
I0428 19:50:59.578847 27167 net.cpp:131] Top shape: 64 5 24 24 (184320)
I0428 19:50:59.578851 27167 net.cpp:139] Memory required for data: 938240
I0428 19:50:59.578866 27167 layer_factory.hpp:77] Creating layer pool0
I0428 19:50:59.578877 27167 net.cpp:86] Creating Layer pool0
I0428 19:50:59.578882 27167 net.cpp:408] pool0 <- conv0
I0428 19:50:59.578887 27167 net.cpp:382] pool0 -> pool0
I0428 19:50:59.578934 27167 net.cpp:124] Setting up pool0
I0428 19:50:59.578939 27167 net.cpp:131] Top shape: 64 5 12 12 (46080)
I0428 19:50:59.578943 27167 net.cpp:139] Memory required for data: 1122560
I0428 19:50:59.578945 27167 layer_factory.hpp:77] Creating layer conv1
I0428 19:50:59.578955 27167 net.cpp:86] Creating Layer conv1
I0428 19:50:59.578958 27167 net.cpp:408] conv1 <- pool0
I0428 19:50:59.578963 27167 net.cpp:382] conv1 -> conv1
I0428 19:50:59.581775 27167 net.cpp:124] Setting up conv1
I0428 19:50:59.581790 27167 net.cpp:131] Top shape: 64 10 8 8 (40960)
I0428 19:50:59.581794 27167 net.cpp:139] Memory required for data: 1286400
I0428 19:50:59.581802 27167 layer_factory.hpp:77] Creating layer pool1
I0428 19:50:59.581810 27167 net.cpp:86] Creating Layer pool1
I0428 19:50:59.581814 27167 net.cpp:408] pool1 <- conv1
I0428 19:50:59.581818 27167 net.cpp:382] pool1 -> pool1
I0428 19:50:59.581873 27167 net.cpp:124] Setting up pool1
I0428 19:50:59.581879 27167 net.cpp:131] Top shape: 64 10 4 4 (10240)
I0428 19:50:59.581882 27167 net.cpp:139] Memory required for data: 1327360
I0428 19:50:59.581885 27167 layer_factory.hpp:77] Creating layer ip1
I0428 19:50:59.581893 27167 net.cpp:86] Creating Layer ip1
I0428 19:50:59.581897 27167 net.cpp:408] ip1 <- pool1
I0428 19:50:59.581900 27167 net.cpp:382] ip1 -> ip1
I0428 19:50:59.582847 27167 net.cpp:124] Setting up ip1
I0428 19:50:59.582859 27167 net.cpp:131] Top shape: 64 50 (3200)
I0428 19:50:59.582878 27167 net.cpp:139] Memory required for data: 1340160
I0428 19:50:59.582886 27167 layer_factory.hpp:77] Creating layer relu1
I0428 19:50:59.582893 27167 net.cpp:86] Creating Layer relu1
I0428 19:50:59.582896 27167 net.cpp:408] relu1 <- ip1
I0428 19:50:59.582901 27167 net.cpp:369] relu1 -> ip1 (in-place)
I0428 19:50:59.583098 27167 net.cpp:124] Setting up relu1
I0428 19:50:59.583107 27167 net.cpp:131] Top shape: 64 50 (3200)
I0428 19:50:59.583112 27167 net.cpp:139] Memory required for data: 1352960
I0428 19:50:59.583114 27167 layer_factory.hpp:77] Creating layer ip2
I0428 19:50:59.583122 27167 net.cpp:86] Creating Layer ip2
I0428 19:50:59.583125 27167 net.cpp:408] ip2 <- ip1
I0428 19:50:59.583129 27167 net.cpp:382] ip2 -> ip2
I0428 19:50:59.583257 27167 net.cpp:124] Setting up ip2
I0428 19:50:59.583264 27167 net.cpp:131] Top shape: 64 25 (1600)
I0428 19:50:59.583267 27167 net.cpp:139] Memory required for data: 1359360
I0428 19:50:59.583272 27167 layer_factory.hpp:77] Creating layer relu2
I0428 19:50:59.583279 27167 net.cpp:86] Creating Layer relu2
I0428 19:50:59.583282 27167 net.cpp:408] relu2 <- ip2
I0428 19:50:59.583287 27167 net.cpp:369] relu2 -> ip2 (in-place)
I0428 19:50:59.584041 27167 net.cpp:124] Setting up relu2
I0428 19:50:59.584053 27167 net.cpp:131] Top shape: 64 25 (1600)
I0428 19:50:59.584072 27167 net.cpp:139] Memory required for data: 1365760
I0428 19:50:59.584075 27167 layer_factory.hpp:77] Creating layer ip3
I0428 19:50:59.584084 27167 net.cpp:86] Creating Layer ip3
I0428 19:50:59.584098 27167 net.cpp:408] ip3 <- ip2
I0428 19:50:59.584105 27167 net.cpp:382] ip3 -> ip3
I0428 19:50:59.584208 27167 net.cpp:124] Setting up ip3
I0428 19:50:59.584215 27167 net.cpp:131] Top shape: 64 10 (640)
I0428 19:50:59.584218 27167 net.cpp:139] Memory required for data: 1368320
I0428 19:50:59.584226 27167 layer_factory.hpp:77] Creating layer relu3
I0428 19:50:59.584231 27167 net.cpp:86] Creating Layer relu3
I0428 19:50:59.584234 27167 net.cpp:408] relu3 <- ip3
I0428 19:50:59.584239 27167 net.cpp:369] relu3 -> ip3 (in-place)
I0428 19:50:59.584431 27167 net.cpp:124] Setting up relu3
I0428 19:50:59.584440 27167 net.cpp:131] Top shape: 64 10 (640)
I0428 19:50:59.584444 27167 net.cpp:139] Memory required for data: 1370880
I0428 19:50:59.584446 27167 layer_factory.hpp:77] Creating layer loss
I0428 19:50:59.584452 27167 net.cpp:86] Creating Layer loss
I0428 19:50:59.584455 27167 net.cpp:408] loss <- ip3
I0428 19:50:59.584460 27167 net.cpp:408] loss <- label
I0428 19:50:59.584465 27167 net.cpp:382] loss -> loss
I0428 19:50:59.584482 27167 layer_factory.hpp:77] Creating layer loss
…
I0428 19:50:59.585240 27167 solver.cpp:173] Creating test net (#0) specified by net file: ECE595/mnist/train_test/var_everything2/lenet_train_test620.prototxt
I0428 19:50:59.585284 27167 net.cpp:296] The NetState phase (1) differed from the phase (0) specified by a rule in layer mnist
I0428 19:50:59.585377 27167 net.cpp:53] Initializing net from parameters: 
name: "LeNet"
state {
  phase: TEST
}
layer {
  name: "mnist"
  type: "Data"
  top: "data"
  top: "label"
  include {
    phase: TEST
  }
  transform_param {
    scale: 0.00390625
  }
  data_param {
    source: "examples/mnist/mnist_test_lmdb"
    batch_size: 100
    backend: LMDB
  }
}
layer {
  name: "conv0"
  type: "Convolution"
  bottom: "data"
  top: "conv0"
  param {
    lr_mult: 1
  }
  param {
    lr_mult: 2
  }
  convolution_param {
    num_output: 5
    kernel_size: 5
    stride: 1
    weight_filler {
      type: "xavier"
    }
    bias_filler {
      type: "constant"
    }
  }
}
layer {
  name: "pool0"
  type: "Pooling"
  bottom: "conv0"
  top: "pool0"
  pooling_param {
    pool: MAX
    kernel_size: 2
    stride: 2
  }
}
layer {
  name: "conv1"
  type: "Convolution"
  bottom: "pool0"
  top: "conv1"
  param {
    lr_mult: 1
  }
  param {
    lr_mult: 2
  }
  convolution_param {
    num_output: 10
    kernel_size: 5
    stride: 1
    weight_filler {
      type: "xavier"
    }
    bias_filler {
      type: "constant"
    }
  }
}
layer {
  name: "pool1"
  type: "Pooling"
  bottom: "conv1"
  top: "pool1"
  pooling_param {
    pool: MAX
    kernel_size: 2
    stride: 2
  }
}
layer {
  name: "ip1"
  type: "InnerProduct"
  bottom: "pool1"
  top: "ip1"
  param {
    lr_mult: 1
  }
  param {
    lr_mult: 2
  }
  inner_product_param {
    num_output: 50
    weight_filler {
      type: "xavier"
    }
    bias_filler {
      type: "constant"
    }
  }
}
layer {
  name: "relu1"
  type: "ReLU"
  bottom: "ip1"
  top: "ip1"
}
layer {
  name: "ip2"
  type: "InnerProduct"
  bottom: "ip1"
  top: "ip2"
  param {
    lr_mult: 1
  }
  param {
    lr_mult: 2
  }
  inner_product_param {
    num_output: 25
    weight_filler {
      type: "xavier"
    }
    bias_filler {
      type: "constant"
    }
  }
}
layer {
  name: "relu2"
  type: "ReLU"
  bottom: "ip2"
  top: "ip2"
}
layer {
  name: "ip3"
  type: "InnerProduct"
  bottom: "ip2"
  top: "ip3"
  param {
    lr_mult: 1
  }
  param {
    lr_mult: 2
  }
  inner_product_param {
    num_output: 10
    weight_filler {
      type: "xavier"
    }
    bias_filler {
      type: "constant"
    }
  }
}
layer {
  name: "relu3"
  type: "ReLU"
  bottom: "ip3"
  top: "ip3"
}
layer {
  name: "accuracy"
  type: "Accuracy"
  bottom: "ip3"
  bottom: "label"
  top: "accuracy"
  include {
    phase: TEST
  }
}
layer {
  name: "loss"
  type: "SoftmaxWithLoss"
  bottom: "ip3"
  bottom: "label"
  top: "loss"
}
I0428 19:50:59.585461 27167 layer_factory.hpp:77] Creating layer mnist
I0428 19:50:59.585520 27167 db_lmdb.cpp:35] Opened lmdb examples/mnist/mnist_test_lmdb
I0428 19:50:59.585532 27167 net.cpp:86] Creating Layer mnist
I0428 19:50:59.585536 27167 net.cpp:382] mnist -> data
I0428 19:50:59.585544 27167 net.cpp:382] mnist -> label
I0428 19:50:59.585649 27167 data_layer.cpp:45] output data size: 100,1,28,28
I0428 19:50:59.587713 27167 net.cpp:124] Setting up mnist
I0428 19:50:59.587741 27167 net.cpp:131] Top shape: 100 1 28 28 (78400)
I0428 19:50:59.587748 27167 net.cpp:131] Top shape: 100 (100)
I0428 19:50:59.587750 27167 net.cpp:139] Memory required for data: 314000
I0428 19:50:59.587754 27167 layer_factory.hpp:77] Creating layer label_mnist_1_split
I0428 19:50:59.587786 27167 net.cpp:86] Creating Layer label_mnist_1_split
I0428 19:50:59.587790 27167 net.cpp:408] label_mnist_1_split <- label
I0428 19:50:59.587795 27167 net.cpp:382] label_mnist_1_split -> label_mnist_1_split_0
I0428 19:50:59.587802 27167 net.cpp:382] label_mnist_1_split -> label_mnist_1_split_1
I0428 19:50:59.587867 27167 net.cpp:124] Setting up label_mnist_1_split
I0428 19:50:59.587873 27167 net.cpp:131] Top shape: 100 (100)
I0428 19:50:59.587877 27167 net.cpp:131] Top shape: 100 (100)
I0428 19:50:59.587879 27167 net.cpp:139] Memory required for data: 314800
I0428 19:50:59.587882 27167 layer_factory.hpp:77] Creating layer conv0
I0428 19:50:59.587893 27167 net.cpp:86] Creating Layer conv0
I0428 19:50:59.587895 27167 net.cpp:408] conv0 <- data
I0428 19:50:59.587901 27167 net.cpp:382] conv0 -> conv0
I0428 19:50:59.589550 27167 net.cpp:124] Setting up conv0
I0428 19:50:59.589565 27167 net.cpp:131] Top shape: 100 5 24 24 (288000)
I0428 19:50:59.589568 27167 net.cpp:139] Memory required for data: 1466800
I0428 19:50:59.589576 27167 layer_factory.hpp:77] Creating layer pool0
I0428 19:50:59.589584 27167 net.cpp:86] Creating Layer pool0
I0428 19:50:59.589587 27167 net.cpp:408] pool0 <- conv0
I0428 19:50:59.589591 27167 net.cpp:382] pool0 -> pool0
I0428 19:50:59.589629 27167 net.cpp:124] Setting up pool0
I0428 19:50:59.589634 27167 net.cpp:131] Top shape: 100 5 12 12 (72000)
I0428 19:50:59.589637 27167 net.cpp:139] Memory required for data: 1754800
I0428 19:50:59.589639 27167 layer_factory.hpp:77] Creating layer conv1
I0428 19:50:59.589648 27167 net.cpp:86] Creating Layer conv1
I0428 19:50:59.589651 27167 net.cpp:408] conv1 <- pool0
I0428 19:50:59.589658 27167 net.cpp:382] conv1 -> conv1
I0428 19:50:59.591763 27167 net.cpp:124] Setting up conv1
I0428 19:50:59.591778 27167 net.cpp:131] Top shape: 100 10 8 8 (64000)
I0428 19:50:59.591783 27167 net.cpp:139] Memory required for data: 2010800
I0428 19:50:59.591790 27167 layer_factory.hpp:77] Creating layer pool1
I0428 19:50:59.591814 27167 net.cpp:86] Creating Layer pool1
I0428 19:50:59.591817 27167 net.cpp:408] pool1 <- conv1
I0428 19:50:59.591838 27167 net.cpp:382] pool1 -> pool1
I0428 19:50:59.591895 27167 net.cpp:124] Setting up pool1
I0428 19:50:59.591918 27167 net.cpp:131] Top shape: 100 10 4 4 (16000)
I0428 19:50:59.591922 27167 net.cpp:139] Memory required for data: 2074800
I0428 19:50:59.591924 27167 layer_factory.hpp:77] Creating layer ip1
I0428 19:50:59.591931 27167 net.cpp:86] Creating Layer ip1
I0428 19:50:59.591935 27167 net.cpp:408] ip1 <- pool1
I0428 19:50:59.591939 27167 net.cpp:382] ip1 -> ip1
I0428 19:50:59.592130 27167 net.cpp:124] Setting up ip1
I0428 19:50:59.592139 27167 net.cpp:131] Top shape: 100 50 (5000)
I0428 19:50:59.592157 27167 net.cpp:139] Memory required for data: 2094800
I0428 19:50:59.592181 27167 layer_factory.hpp:77] Creating layer relu1
I0428 19:50:59.592202 27167 net.cpp:86] Creating Layer relu1
I0428 19:50:59.592206 27167 net.cpp:408] relu1 <- ip1
I0428 19:50:59.592211 27167 net.cpp:369] relu1 -> ip1 (in-place)
I0428 19:50:59.592429 27167 net.cpp:124] Setting up relu1
I0428 19:50:59.592438 27167 net.cpp:131] Top shape: 100 50 (5000)
I0428 19:50:59.592442 27167 net.cpp:139] Memory required for data: 2114800
I0428 19:50:59.592445 27167 layer_factory.hpp:77] Creating layer ip2
I0428 19:50:59.592453 27167 net.cpp:86] Creating Layer ip2
I0428 19:50:59.592456 27167 net.cpp:408] ip2 <- ip1
I0428 19:50:59.592461 27167 net.cpp:382] ip2 -> ip2
I0428 19:50:59.592568 27167 net.cpp:124] Setting up ip2
I0428 19:50:59.592576 27167 net.cpp:131] Top shape: 100 25 (2500)
I0428 19:50:59.592578 27167 net.cpp:139] Memory required for data: 2124800
I0428 19:50:59.592584 27167 layer_factory.hpp:77] Creating layer relu2
I0428 19:50:59.592589 27167 net.cpp:86] Creating Layer relu2
I0428 19:50:59.592592 27167 net.cpp:408] relu2 <- ip2
I0428 19:50:59.592610 27167 net.cpp:369] relu2 -> ip2 (in-place)
I0428 19:50:59.592761 27167 net.cpp:124] Setting up relu2
I0428 19:50:59.592768 27167 net.cpp:131] Top shape: 100 25 (2500)
I0428 19:50:59.592777 27167 net.cpp:139] Memory required for data: 2134800
I0428 19:50:59.592782 27167 layer_factory.hpp:77] Creating layer ip3
I0428 19:50:59.592785 27167 net.cpp:86] Creating Layer ip3
I0428 19:50:59.592788 27167 net.cpp:408] ip3 <- ip2
I0428 19:50:59.592836 27167 net.cpp:382] ip3 -> ip3
I0428 19:50:59.592978 27167 net.cpp:124] Setting up ip3
I0428 19:50:59.592985 27167 net.cpp:131] Top shape: 100 10 (1000)
I0428 19:50:59.592988 27167 net.cpp:139] Memory required for data: 2138800
I0428 19:50:59.593003 27167 layer_factory.hpp:77] Creating layer relu3
I0428 19:50:59.593008 27167 net.cpp:86] Creating Layer relu3
I0428 19:50:59.593013 27167 net.cpp:408] relu3 <- ip3
I0428 19:50:59.593019 27167 net.cpp:369] relu3 -> ip3 (in-place)
I0428 19:50:59.593876 27167 net.cpp:124] Setting up relu3
I0428 19:50:59.593888 27167 net.cpp:131] Top shape: 100 10 (1000)
I0428 19:50:59.593893 27167 net.cpp:139] Memory required for data: 2142800
I0428 19:50:59.593895 27167 layer_factory.hpp:77] Creating layer ip3_relu3_0_split
I0428 19:50:59.593900 27167 net.cpp:86] Creating Layer ip3_relu3_0_split
I0428 19:50:59.593904 27167 net.cpp:408] ip3_relu3_0_split <- ip3
I0428 19:50:59.593910 27167 net.cpp:382] ip3_relu3_0_split -> ip3_relu3_0_split_0
I0428 19:50:59.593916 27167 net.cpp:382] ip3_relu3_0_split -> ip3_relu3_0_split_1
I0428 19:50:59.593960 27167 net.cpp:124] Setting up ip3_relu3_0_split
I0428 19:50:59.593964 27167 net.cpp:131] Top shape: 100 10 (1000)
I0428 19:50:59.593968 27167 net.cpp:131] Top shape: 100 10 (1000)
I0428 19:50:59.593971 27167 net.cpp:139] Memory required for data: 2150800
I0428 19:50:59.593973 27167 layer_factory.hpp:77] Creating layer accuracy
I0428 19:50:59.593979 27167 net.cpp:86] Creating Layer accuracy
I0428 19:50:59.593982 27167 net.cpp:408] accuracy <- ip3_relu3_0_split_0
I0428 19:50:59.593986 27167 net.cpp:408] accuracy <- label_mnist_1_split_0
I0428 19:50:59.593991 27167 net.cpp:382] accuracy -> accuracy
…
