…
I0428 19:53:02.764006 27681 net.cpp:296] The NetState phase (0) differed from the phase (1) specified by a rule in layer mnist
I0428 19:53:02.764027 27681 net.cpp:296] The NetState phase (0) differed from the phase (1) specified by a rule in layer accuracy
I0428 19:53:02.764129 27681 net.cpp:53] Initializing net from parameters: 
name: "LeNet"
state {
  phase: TRAIN
  level: 0
  stage: ""
}
layer {
  name: "mnist"
  type: "Data"
  top: "data"
  top: "label"
  include {
    phase: TRAIN
  }
  transform_param {
    scale: 0.00390625
  }
  data_param {
    source: "examples/mnist/mnist_train_lmdb"
    batch_size: 64
    backend: LMDB
  }
}
layer {
  name: "conv0"
  type: "Convolution"
  bottom: "data"
  top: "conv0"
  param {
    lr_mult: 1
  }
  param {
    lr_mult: 2
  }
  convolution_param {
    num_output: 5
    kernel_size: 5
    stride: 1
    weight_filler {
      type: "xavier"
    }
    bias_filler {
      type: "constant"
    }
  }
}
layer {
  name: "pool0"
  type: "Pooling"
  bottom: "conv0"
  top: "pool0"
  pooling_param {
    pool: MAX
    kernel_size: 2
    stride: 2
  }
}
layer {
  name: "conv1"
  type: "Convolution"
  bottom: "pool0"
  top: "conv1"
  param {
    lr_mult: 1
  }
  param {
    lr_mult: 2
  }
  convolution_param {
    num_output: 50
    kernel_size: 5
    stride: 1
    weight_filler {
      type: "xavier"
    }
    bias_filler {
      type: "constant"
    }
  }
}
layer {
  name: "pool1"
  type: "Pooling"
  bottom: "conv1"
  top: "pool1"
  pooling_param {
    pool: MAX
    kernel_size: 2
    stride: 2
  }
}
layer {
  name: "ip1"
  type: "InnerProduct"
  bottom: "pool1"
  top: "ip1"
  param {
    lr_mult: 1
  }
  param {
    lr_mult: 2
  }
  inner_product_param {
    num_output: 10
    weight_filler {
      type: "xavier"
    }
    bias_filler {
      type: "constant"
    }
  }
}
layer {
  name: "relu1"
  type: "ReLU"
  bottom: "ip1"
  top: "ip1"
}
layer {
  name: "ip2"
  type: "InnerProduct"
  bottom: "ip1"
  top: "ip2"
  param {
    lr_mult: 1
  }
  param {
    lr_mult: 2
  }
  inner_product_param {
    num_output: 10
    weight_filler {
      type: "xavier"
    }
    bias_filler {
      type: "constant"
    }
  }
}
layer {
  name: "relu2"
  type: "ReLU"
  bottom: "ip2"
  top: "ip2"
}
layer {
  name: "ip3"
  type: "InnerProduct"
  bottom: "ip2"
  top: "ip3"
  param {
    lr_mult: 1
  }
  param {
    lr_mult: 2
  }
  inner_product_param {
    num_output: 10
    weight_filler {
      type: "xavier"
    }
    bias_filler {
      type: "constant"
    }
  }
}
layer {
  name: "relu3"
  type: "ReLU"
  bottom: "ip3"
  top: "ip3"
}
layer {
  name: "loss"
  type: "SoftmaxWithLoss"
  bottom: "ip3"
  bottom: "label"
  top: "loss"
}
I0428 19:53:02.764211 27681 layer_factory.hpp:77] Creating layer mnist
I0428 19:53:02.764307 27681 db_lmdb.cpp:35] Opened lmdb examples/mnist/mnist_train_lmdb
I0428 19:53:02.764330 27681 net.cpp:86] Creating Layer mnist
I0428 19:53:02.764339 27681 net.cpp:382] mnist -> data
I0428 19:53:02.764361 27681 net.cpp:382] mnist -> label
I0428 19:53:02.765451 27681 data_layer.cpp:45] output data size: 64,1,28,28
I0428 19:53:02.767987 27681 net.cpp:124] Setting up mnist
I0428 19:53:02.768004 27681 net.cpp:131] Top shape: 64 1 28 28 (50176)
I0428 19:53:02.768012 27681 net.cpp:131] Top shape: 64 (64)
I0428 19:53:02.768014 27681 net.cpp:139] Memory required for data: 200960
I0428 19:53:02.768023 27681 layer_factory.hpp:77] Creating layer conv0
I0428 19:53:02.768049 27681 net.cpp:86] Creating Layer conv0
I0428 19:53:02.768070 27681 net.cpp:408] conv0 <- data
I0428 19:53:02.768088 27681 net.cpp:382] conv0 -> conv0
I0428 19:53:03.037307 27681 net.cpp:124] Setting up conv0
I0428 19:53:03.037333 27681 net.cpp:131] Top shape: 64 5 24 24 (184320)
I0428 19:53:03.037338 27681 net.cpp:139] Memory required for data: 938240
I0428 19:53:03.037353 27681 layer_factory.hpp:77] Creating layer pool0
I0428 19:53:03.037364 27681 net.cpp:86] Creating Layer pool0
I0428 19:53:03.037367 27681 net.cpp:408] pool0 <- conv0
I0428 19:53:03.037372 27681 net.cpp:382] pool0 -> pool0
I0428 19:53:03.037432 27681 net.cpp:124] Setting up pool0
I0428 19:53:03.037438 27681 net.cpp:131] Top shape: 64 5 12 12 (46080)
I0428 19:53:03.037441 27681 net.cpp:139] Memory required for data: 1122560
I0428 19:53:03.037443 27681 layer_factory.hpp:77] Creating layer conv1
I0428 19:53:03.037454 27681 net.cpp:86] Creating Layer conv1
I0428 19:53:03.037457 27681 net.cpp:408] conv1 <- pool0
I0428 19:53:03.037461 27681 net.cpp:382] conv1 -> conv1
I0428 19:53:03.040372 27681 net.cpp:124] Setting up conv1
I0428 19:53:03.040401 27681 net.cpp:131] Top shape: 64 50 8 8 (204800)
I0428 19:53:03.040405 27681 net.cpp:139] Memory required for data: 1941760
I0428 19:53:03.040412 27681 layer_factory.hpp:77] Creating layer pool1
I0428 19:53:03.040419 27681 net.cpp:86] Creating Layer pool1
I0428 19:53:03.040423 27681 net.cpp:408] pool1 <- conv1
I0428 19:53:03.040429 27681 net.cpp:382] pool1 -> pool1
I0428 19:53:03.040488 27681 net.cpp:124] Setting up pool1
I0428 19:53:03.040504 27681 net.cpp:131] Top shape: 64 50 4 4 (51200)
I0428 19:53:03.040508 27681 net.cpp:139] Memory required for data: 2146560
I0428 19:53:03.040510 27681 layer_factory.hpp:77] Creating layer ip1
I0428 19:53:03.040518 27681 net.cpp:86] Creating Layer ip1
I0428 19:53:03.040521 27681 net.cpp:408] ip1 <- pool1
I0428 19:53:03.040527 27681 net.cpp:382] ip1 -> ip1
I0428 19:53:03.040679 27681 net.cpp:124] Setting up ip1
I0428 19:53:03.040688 27681 net.cpp:131] Top shape: 64 10 (640)
I0428 19:53:03.040689 27681 net.cpp:139] Memory required for data: 2149120
I0428 19:53:03.040696 27681 layer_factory.hpp:77] Creating layer relu1
I0428 19:53:03.040702 27681 net.cpp:86] Creating Layer relu1
I0428 19:53:03.040705 27681 net.cpp:408] relu1 <- ip1
I0428 19:53:03.040709 27681 net.cpp:369] relu1 -> ip1 (in-place)
I0428 19:53:03.040933 27681 net.cpp:124] Setting up relu1
I0428 19:53:03.040943 27681 net.cpp:131] Top shape: 64 10 (640)
I0428 19:53:03.040946 27681 net.cpp:139] Memory required for data: 2151680
I0428 19:53:03.040951 27681 layer_factory.hpp:77] Creating layer ip2
I0428 19:53:03.040957 27681 net.cpp:86] Creating Layer ip2
I0428 19:53:03.040961 27681 net.cpp:408] ip2 <- ip1
I0428 19:53:03.040966 27681 net.cpp:382] ip2 -> ip2
I0428 19:53:03.041070 27681 net.cpp:124] Setting up ip2
I0428 19:53:03.041077 27681 net.cpp:131] Top shape: 64 10 (640)
I0428 19:53:03.041080 27681 net.cpp:139] Memory required for data: 2154240
I0428 19:53:03.041085 27681 layer_factory.hpp:77] Creating layer relu2
I0428 19:53:03.041091 27681 net.cpp:86] Creating Layer relu2
I0428 19:53:03.041095 27681 net.cpp:408] relu2 <- ip2
I0428 19:53:03.041100 27681 net.cpp:369] relu2 -> ip2 (in-place)
I0428 19:53:03.041967 27681 net.cpp:124] Setting up relu2
I0428 19:53:03.041980 27681 net.cpp:131] Top shape: 64 10 (640)
I0428 19:53:03.041998 27681 net.cpp:139] Memory required for data: 2156800
I0428 19:53:03.042002 27681 layer_factory.hpp:77] Creating layer ip3
I0428 19:53:03.042011 27681 net.cpp:86] Creating Layer ip3
I0428 19:53:03.042014 27681 net.cpp:408] ip3 <- ip2
I0428 19:53:03.042019 27681 net.cpp:382] ip3 -> ip3
I0428 19:53:03.042122 27681 net.cpp:124] Setting up ip3
I0428 19:53:03.042131 27681 net.cpp:131] Top shape: 64 10 (640)
I0428 19:53:03.042135 27681 net.cpp:139] Memory required for data: 2159360
I0428 19:53:03.042141 27681 layer_factory.hpp:77] Creating layer relu3
I0428 19:53:03.042147 27681 net.cpp:86] Creating Layer relu3
I0428 19:53:03.042150 27681 net.cpp:408] relu3 <- ip3
I0428 19:53:03.042155 27681 net.cpp:369] relu3 -> ip3 (in-place)
I0428 19:53:03.042325 27681 net.cpp:124] Setting up relu3
I0428 19:53:03.042335 27681 net.cpp:131] Top shape: 64 10 (640)
I0428 19:53:03.042337 27681 net.cpp:139] Memory required for data: 2161920
I0428 19:53:03.042340 27681 layer_factory.hpp:77] Creating layer loss
I0428 19:53:03.042346 27681 net.cpp:86] Creating Layer loss
I0428 19:53:03.042351 27681 net.cpp:408] loss <- ip3
I0428 19:53:03.042354 27681 net.cpp:408] loss <- label
I0428 19:53:03.042363 27681 net.cpp:382] loss -> loss
I0428 19:53:03.042378 27681 layer_factory.hpp:77] Creating layer loss
…
I0428 19:53:03.043120 27681 solver.cpp:173] Creating test net (#0) specified by net file: ECE595/mnist/train_test/var_everything2/lenet_train_test677.prototxt
I0428 19:53:03.043177 27681 net.cpp:296] The NetState phase (1) differed from the phase (0) specified by a rule in layer mnist
I0428 19:53:03.043265 27681 net.cpp:53] Initializing net from parameters: 
name: "LeNet"
state {
  phase: TEST
}
layer {
  name: "mnist"
  type: "Data"
  top: "data"
  top: "label"
  include {
    phase: TEST
  }
  transform_param {
    scale: 0.00390625
  }
  data_param {
    source: "examples/mnist/mnist_test_lmdb"
    batch_size: 100
    backend: LMDB
  }
}
layer {
  name: "conv0"
  type: "Convolution"
  bottom: "data"
  top: "conv0"
  param {
    lr_mult: 1
  }
  param {
    lr_mult: 2
  }
  convolution_param {
    num_output: 5
    kernel_size: 5
    stride: 1
    weight_filler {
      type: "xavier"
    }
    bias_filler {
      type: "constant"
    }
  }
}
layer {
  name: "pool0"
  type: "Pooling"
  bottom: "conv0"
  top: "pool0"
  pooling_param {
    pool: MAX
    kernel_size: 2
    stride: 2
  }
}
layer {
  name: "conv1"
  type: "Convolution"
  bottom: "pool0"
  top: "conv1"
  param {
    lr_mult: 1
  }
  param {
    lr_mult: 2
  }
  convolution_param {
    num_output: 50
    kernel_size: 5
    stride: 1
    weight_filler {
      type: "xavier"
    }
    bias_filler {
      type: "constant"
    }
  }
}
layer {
  name: "pool1"
  type: "Pooling"
  bottom: "conv1"
  top: "pool1"
  pooling_param {
    pool: MAX
    kernel_size: 2
    stride: 2
  }
}
layer {
  name: "ip1"
  type: "InnerProduct"
  bottom: "pool1"
  top: "ip1"
  param {
    lr_mult: 1
  }
  param {
    lr_mult: 2
  }
  inner_product_param {
    num_output: 10
    weight_filler {
      type: "xavier"
    }
    bias_filler {
      type: "constant"
    }
  }
}
layer {
  name: "relu1"
  type: "ReLU"
  bottom: "ip1"
  top: "ip1"
}
layer {
  name: "ip2"
  type: "InnerProduct"
  bottom: "ip1"
  top: "ip2"
  param {
    lr_mult: 1
  }
  param {
    lr_mult: 2
  }
  inner_product_param {
    num_output: 10
    weight_filler {
      type: "xavier"
    }
    bias_filler {
      type: "constant"
    }
  }
}
layer {
  name: "relu2"
  type: "ReLU"
  bottom: "ip2"
  top: "ip2"
}
layer {
  name: "ip3"
  type: "InnerProduct"
  bottom: "ip2"
  top: "ip3"
  param {
    lr_mult: 1
  }
  param {
    lr_mult: 2
  }
  inner_product_param {
    num_output: 10
    weight_filler {
      type: "xavier"
    }
    bias_filler {
      type: "constant"
    }
  }
}
layer {
  name: "relu3"
  type: "ReLU"
  bottom: "ip3"
  top: "ip3"
}
layer {
  name: "accuracy"
  type: "Accuracy"
  bottom: "ip3"
  bottom: "label"
  top: "accuracy"
  include {
    phase: TEST
  }
}
layer {
  name: "loss"
  type: "SoftmaxWithLoss"
  bottom: "ip3"
  bottom: "label"
  top: "loss"
}
I0428 19:53:03.043346 27681 layer_factory.hpp:77] Creating layer mnist
I0428 19:53:03.043390 27681 db_lmdb.cpp:35] Opened lmdb examples/mnist/mnist_test_lmdb
I0428 19:53:03.043402 27681 net.cpp:86] Creating Layer mnist
I0428 19:53:03.043408 27681 net.cpp:382] mnist -> data
I0428 19:53:03.043416 27681 net.cpp:382] mnist -> label
I0428 19:53:03.043505 27681 data_layer.cpp:45] output data size: 100,1,28,28
I0428 19:53:03.045681 27681 net.cpp:124] Setting up mnist
I0428 19:53:03.045727 27681 net.cpp:131] Top shape: 100 1 28 28 (78400)
I0428 19:53:03.045732 27681 net.cpp:131] Top shape: 100 (100)
I0428 19:53:03.045735 27681 net.cpp:139] Memory required for data: 314000
I0428 19:53:03.045753 27681 layer_factory.hpp:77] Creating layer label_mnist_1_split
I0428 19:53:03.045760 27681 net.cpp:86] Creating Layer label_mnist_1_split
I0428 19:53:03.045763 27681 net.cpp:408] label_mnist_1_split <- label
I0428 19:53:03.045779 27681 net.cpp:382] label_mnist_1_split -> label_mnist_1_split_0
I0428 19:53:03.045786 27681 net.cpp:382] label_mnist_1_split -> label_mnist_1_split_1
I0428 19:53:03.045845 27681 net.cpp:124] Setting up label_mnist_1_split
I0428 19:53:03.045850 27681 net.cpp:131] Top shape: 100 (100)
I0428 19:53:03.045855 27681 net.cpp:131] Top shape: 100 (100)
I0428 19:53:03.045857 27681 net.cpp:139] Memory required for data: 314800
I0428 19:53:03.045861 27681 layer_factory.hpp:77] Creating layer conv0
I0428 19:53:03.045871 27681 net.cpp:86] Creating Layer conv0
I0428 19:53:03.045873 27681 net.cpp:408] conv0 <- data
I0428 19:53:03.045878 27681 net.cpp:382] conv0 -> conv0
I0428 19:53:03.047626 27681 net.cpp:124] Setting up conv0
I0428 19:53:03.047641 27681 net.cpp:131] Top shape: 100 5 24 24 (288000)
I0428 19:53:03.047643 27681 net.cpp:139] Memory required for data: 1466800
I0428 19:53:03.047652 27681 layer_factory.hpp:77] Creating layer pool0
I0428 19:53:03.047660 27681 net.cpp:86] Creating Layer pool0
I0428 19:53:03.047663 27681 net.cpp:408] pool0 <- conv0
I0428 19:53:03.047668 27681 net.cpp:382] pool0 -> pool0
I0428 19:53:03.047705 27681 net.cpp:124] Setting up pool0
I0428 19:53:03.047711 27681 net.cpp:131] Top shape: 100 5 12 12 (72000)
I0428 19:53:03.047713 27681 net.cpp:139] Memory required for data: 1754800
I0428 19:53:03.047716 27681 layer_factory.hpp:77] Creating layer conv1
I0428 19:53:03.047725 27681 net.cpp:86] Creating Layer conv1
I0428 19:53:03.047729 27681 net.cpp:408] conv1 <- pool0
I0428 19:53:03.047734 27681 net.cpp:382] conv1 -> conv1
I0428 19:53:03.049393 27681 net.cpp:124] Setting up conv1
I0428 19:53:03.049423 27681 net.cpp:131] Top shape: 100 50 8 8 (320000)
I0428 19:53:03.049440 27681 net.cpp:139] Memory required for data: 3034800
I0428 19:53:03.049449 27681 layer_factory.hpp:77] Creating layer pool1
I0428 19:53:03.049458 27681 net.cpp:86] Creating Layer pool1
I0428 19:53:03.049463 27681 net.cpp:408] pool1 <- conv1
I0428 19:53:03.049468 27681 net.cpp:382] pool1 -> pool1
I0428 19:53:03.049510 27681 net.cpp:124] Setting up pool1
I0428 19:53:03.049516 27681 net.cpp:131] Top shape: 100 50 4 4 (80000)
I0428 19:53:03.049520 27681 net.cpp:139] Memory required for data: 3354800
I0428 19:53:03.049522 27681 layer_factory.hpp:77] Creating layer ip1
I0428 19:53:03.049530 27681 net.cpp:86] Creating Layer ip1
I0428 19:53:03.049533 27681 net.cpp:408] ip1 <- pool1
I0428 19:53:03.049538 27681 net.cpp:382] ip1 -> ip1
I0428 19:53:03.049682 27681 net.cpp:124] Setting up ip1
I0428 19:53:03.049690 27681 net.cpp:131] Top shape: 100 10 (1000)
I0428 19:53:03.049703 27681 net.cpp:139] Memory required for data: 3358800
I0428 19:53:03.049710 27681 layer_factory.hpp:77] Creating layer relu1
I0428 19:53:03.049715 27681 net.cpp:86] Creating Layer relu1
I0428 19:53:03.049720 27681 net.cpp:408] relu1 <- ip1
I0428 19:53:03.049726 27681 net.cpp:369] relu1 -> ip1 (in-place)
I0428 19:53:03.049893 27681 net.cpp:124] Setting up relu1
I0428 19:53:03.049902 27681 net.cpp:131] Top shape: 100 10 (1000)
I0428 19:53:03.049906 27681 net.cpp:139] Memory required for data: 3362800
I0428 19:53:03.049908 27681 layer_factory.hpp:77] Creating layer ip2
I0428 19:53:03.049916 27681 net.cpp:86] Creating Layer ip2
I0428 19:53:03.049919 27681 net.cpp:408] ip2 <- ip1
I0428 19:53:03.049926 27681 net.cpp:382] ip2 -> ip2
I0428 19:53:03.050045 27681 net.cpp:124] Setting up ip2
I0428 19:53:03.050053 27681 net.cpp:131] Top shape: 100 10 (1000)
I0428 19:53:03.050056 27681 net.cpp:139] Memory required for data: 3366800
I0428 19:53:03.050061 27681 layer_factory.hpp:77] Creating layer relu2
I0428 19:53:03.050066 27681 net.cpp:86] Creating Layer relu2
I0428 19:53:03.050070 27681 net.cpp:408] relu2 <- ip2
I0428 19:53:03.050073 27681 net.cpp:369] relu2 -> ip2 (in-place)
I0428 19:53:03.050276 27681 net.cpp:124] Setting up relu2
I0428 19:53:03.050290 27681 net.cpp:131] Top shape: 100 10 (1000)
I0428 19:53:03.050295 27681 net.cpp:139] Memory required for data: 3370800
I0428 19:53:03.050302 27681 layer_factory.hpp:77] Creating layer ip3
I0428 19:53:03.050310 27681 net.cpp:86] Creating Layer ip3
I0428 19:53:03.050315 27681 net.cpp:408] ip3 <- ip2
I0428 19:53:03.050325 27681 net.cpp:382] ip3 -> ip3
I0428 19:53:03.050458 27681 net.cpp:124] Setting up ip3
I0428 19:53:03.050467 27681 net.cpp:131] Top shape: 100 10 (1000)
I0428 19:53:03.050470 27681 net.cpp:139] Memory required for data: 3374800
I0428 19:53:03.050479 27681 layer_factory.hpp:77] Creating layer relu3
I0428 19:53:03.050485 27681 net.cpp:86] Creating Layer relu3
I0428 19:53:03.050488 27681 net.cpp:408] relu3 <- ip3
I0428 19:53:03.050494 27681 net.cpp:369] relu3 -> ip3 (in-place)
I0428 19:53:03.051302 27681 net.cpp:124] Setting up relu3
I0428 19:53:03.051326 27681 net.cpp:131] Top shape: 100 10 (1000)
I0428 19:53:03.051331 27681 net.cpp:139] Memory required for data: 3378800
I0428 19:53:03.051334 27681 layer_factory.hpp:77] Creating layer ip3_relu3_0_split
I0428 19:53:03.051350 27681 net.cpp:86] Creating Layer ip3_relu3_0_split
I0428 19:53:03.051353 27681 net.cpp:408] ip3_relu3_0_split <- ip3
I0428 19:53:03.051359 27681 net.cpp:382] ip3_relu3_0_split -> ip3_relu3_0_split_0
I0428 19:53:03.051367 27681 net.cpp:382] ip3_relu3_0_split -> ip3_relu3_0_split_1
I0428 19:53:03.051405 27681 net.cpp:124] Setting up ip3_relu3_0_split
I0428 19:53:03.051412 27681 net.cpp:131] Top shape: 100 10 (1000)
I0428 19:53:03.051416 27681 net.cpp:131] Top shape: 100 10 (1000)
I0428 19:53:03.051419 27681 net.cpp:139] Memory required for data: 3386800
I0428 19:53:03.051422 27681 layer_factory.hpp:77] Creating layer accuracy
I0428 19:53:03.051429 27681 net.cpp:86] Creating Layer accuracy
I0428 19:53:03.051432 27681 net.cpp:408] accuracy <- ip3_relu3_0_split_0
I0428 19:53:03.051435 27681 net.cpp:408] accuracy <- label_mnist_1_split_0
I0428 19:53:03.051440 27681 net.cpp:382] accuracy -> accuracy
…
