…
I0428 20:06:14.570096 30825 net.cpp:296] The NetState phase (0) differed from the phase (1) specified by a rule in layer mnist
I0428 20:06:14.570116 30825 net.cpp:296] The NetState phase (0) differed from the phase (1) specified by a rule in layer accuracy
I0428 20:06:14.570207 30825 net.cpp:53] Initializing net from parameters: 
name: "LeNet"
state {
  phase: TRAIN
  level: 0
  stage: ""
}
layer {
  name: "mnist"
  type: "Data"
  top: "data"
  top: "label"
  include {
    phase: TRAIN
  }
  transform_param {
    scale: 0.00390625
  }
  data_param {
    source: "examples/mnist/mnist_train_lmdb"
    batch_size: 64
    backend: LMDB
  }
}
layer {
  name: "conv0"
  type: "Convolution"
  bottom: "data"
  top: "conv0"
  param {
    lr_mult: 1
  }
  param {
    lr_mult: 2
  }
  convolution_param {
    num_output: 25
    kernel_size: 5
    stride: 1
    weight_filler {
      type: "xavier"
    }
    bias_filler {
      type: "constant"
    }
  }
}
layer {
  name: "pool0"
  type: "Pooling"
  bottom: "conv0"
  top: "pool0"
  pooling_param {
    pool: MAX
    kernel_size: 2
    stride: 2
  }
}
layer {
  name: "conv1"
  type: "Convolution"
  bottom: "pool0"
  top: "conv1"
  param {
    lr_mult: 1
  }
  param {
    lr_mult: 2
  }
  convolution_param {
    num_output: 5
    kernel_size: 5
    stride: 1
    weight_filler {
      type: "xavier"
    }
    bias_filler {
      type: "constant"
    }
  }
}
layer {
  name: "pool1"
  type: "Pooling"
  bottom: "conv1"
  top: "pool1"
  pooling_param {
    pool: MAX
    kernel_size: 2
    stride: 2
  }
}
layer {
  name: "ip1"
  type: "InnerProduct"
  bottom: "pool1"
  top: "ip1"
  param {
    lr_mult: 1
  }
  param {
    lr_mult: 2
  }
  inner_product_param {
    num_output: 25
    weight_filler {
      type: "xavier"
    }
    bias_filler {
      type: "constant"
    }
  }
}
layer {
  name: "relu1"
  type: "ReLU"
  bottom: "ip1"
  top: "ip1"
}
layer {
  name: "ip2"
  type: "InnerProduct"
  bottom: "ip1"
  top: "ip2"
  param {
    lr_mult: 1
  }
  param {
    lr_mult: 2
  }
  inner_product_param {
    num_output: 10
    weight_filler {
      type: "xavier"
    }
    bias_filler {
      type: "constant"
    }
  }
}
layer {
  name: "relu2"
  type: "ReLU"
  bottom: "ip2"
  top: "ip2"
}
layer {
  name: "loss"
  type: "SoftmaxWithLoss"
  bottom: "ip2"
  bottom: "label"
  top: "loss"
}
I0428 20:06:14.570281 30825 layer_factory.hpp:77] Creating layer mnist
I0428 20:06:14.570379 30825 db_lmdb.cpp:35] Opened lmdb examples/mnist/mnist_train_lmdb
I0428 20:06:14.570403 30825 net.cpp:86] Creating Layer mnist
I0428 20:06:14.570410 30825 net.cpp:382] mnist -> data
I0428 20:06:14.570433 30825 net.cpp:382] mnist -> label
I0428 20:06:14.571516 30825 data_layer.cpp:45] output data size: 64,1,28,28
I0428 20:06:14.574023 30825 net.cpp:124] Setting up mnist
I0428 20:06:14.574041 30825 net.cpp:131] Top shape: 64 1 28 28 (50176)
I0428 20:06:14.574062 30825 net.cpp:131] Top shape: 64 (64)
I0428 20:06:14.574066 30825 net.cpp:139] Memory required for data: 200960
I0428 20:06:14.574074 30825 layer_factory.hpp:77] Creating layer conv0
I0428 20:06:14.574090 30825 net.cpp:86] Creating Layer conv0
I0428 20:06:14.574095 30825 net.cpp:408] conv0 <- data
I0428 20:06:14.574107 30825 net.cpp:382] conv0 -> conv0
I0428 20:06:14.865025 30825 net.cpp:124] Setting up conv0
I0428 20:06:14.865058 30825 net.cpp:131] Top shape: 64 25 24 24 (921600)
I0428 20:06:14.865063 30825 net.cpp:139] Memory required for data: 3887360
I0428 20:06:14.865109 30825 layer_factory.hpp:77] Creating layer pool0
I0428 20:06:14.865124 30825 net.cpp:86] Creating Layer pool0
I0428 20:06:14.865129 30825 net.cpp:408] pool0 <- conv0
I0428 20:06:14.865136 30825 net.cpp:382] pool0 -> pool0
I0428 20:06:14.865190 30825 net.cpp:124] Setting up pool0
I0428 20:06:14.865200 30825 net.cpp:131] Top shape: 64 25 12 12 (230400)
I0428 20:06:14.865202 30825 net.cpp:139] Memory required for data: 4808960
I0428 20:06:14.865206 30825 layer_factory.hpp:77] Creating layer conv1
I0428 20:06:14.865218 30825 net.cpp:86] Creating Layer conv1
I0428 20:06:14.865226 30825 net.cpp:408] conv1 <- pool0
I0428 20:06:14.865232 30825 net.cpp:382] conv1 -> conv1
I0428 20:06:14.868391 30825 net.cpp:124] Setting up conv1
I0428 20:06:14.868408 30825 net.cpp:131] Top shape: 64 5 8 8 (20480)
I0428 20:06:14.868413 30825 net.cpp:139] Memory required for data: 4890880
I0428 20:06:14.868424 30825 layer_factory.hpp:77] Creating layer pool1
I0428 20:06:14.868433 30825 net.cpp:86] Creating Layer pool1
I0428 20:06:14.868438 30825 net.cpp:408] pool1 <- conv1
I0428 20:06:14.868444 30825 net.cpp:382] pool1 -> pool1
I0428 20:06:14.868489 30825 net.cpp:124] Setting up pool1
I0428 20:06:14.868497 30825 net.cpp:131] Top shape: 64 5 4 4 (5120)
I0428 20:06:14.868501 30825 net.cpp:139] Memory required for data: 4911360
I0428 20:06:14.868505 30825 layer_factory.hpp:77] Creating layer ip1
I0428 20:06:14.868513 30825 net.cpp:86] Creating Layer ip1
I0428 20:06:14.868517 30825 net.cpp:408] ip1 <- pool1
I0428 20:06:14.868533 30825 net.cpp:382] ip1 -> ip1
I0428 20:06:14.868659 30825 net.cpp:124] Setting up ip1
I0428 20:06:14.868667 30825 net.cpp:131] Top shape: 64 25 (1600)
I0428 20:06:14.868671 30825 net.cpp:139] Memory required for data: 4917760
I0428 20:06:14.868680 30825 layer_factory.hpp:77] Creating layer relu1
I0428 20:06:14.868690 30825 net.cpp:86] Creating Layer relu1
I0428 20:06:14.868693 30825 net.cpp:408] relu1 <- ip1
I0428 20:06:14.868698 30825 net.cpp:369] relu1 -> ip1 (in-place)
I0428 20:06:14.868911 30825 net.cpp:124] Setting up relu1
I0428 20:06:14.868922 30825 net.cpp:131] Top shape: 64 25 (1600)
I0428 20:06:14.868927 30825 net.cpp:139] Memory required for data: 4924160
I0428 20:06:14.868930 30825 layer_factory.hpp:77] Creating layer ip2
I0428 20:06:14.868938 30825 net.cpp:86] Creating Layer ip2
I0428 20:06:14.868942 30825 net.cpp:408] ip2 <- ip1
I0428 20:06:14.868948 30825 net.cpp:382] ip2 -> ip2
I0428 20:06:14.869058 30825 net.cpp:124] Setting up ip2
I0428 20:06:14.869066 30825 net.cpp:131] Top shape: 64 10 (640)
I0428 20:06:14.869071 30825 net.cpp:139] Memory required for data: 4926720
I0428 20:06:14.869076 30825 layer_factory.hpp:77] Creating layer relu2
I0428 20:06:14.869084 30825 net.cpp:86] Creating Layer relu2
I0428 20:06:14.869087 30825 net.cpp:408] relu2 <- ip2
I0428 20:06:14.869092 30825 net.cpp:369] relu2 -> ip2 (in-place)
I0428 20:06:14.869940 30825 net.cpp:124] Setting up relu2
I0428 20:06:14.869954 30825 net.cpp:131] Top shape: 64 10 (640)
I0428 20:06:14.869958 30825 net.cpp:139] Memory required for data: 4929280
I0428 20:06:14.869963 30825 layer_factory.hpp:77] Creating layer loss
I0428 20:06:14.869971 30825 net.cpp:86] Creating Layer loss
I0428 20:06:14.869974 30825 net.cpp:408] loss <- ip2
I0428 20:06:14.869981 30825 net.cpp:408] loss <- label
I0428 20:06:14.869987 30825 net.cpp:382] loss -> loss
I0428 20:06:14.870008 30825 layer_factory.hpp:77] Creating layer loss
…
I0428 20:06:14.870720 30825 solver.cpp:173] Creating test net (#0) specified by net file: ECE595/mnist/train_test/var_everything2/lenet_train_test1022.prototxt
I0428 20:06:14.870753 30825 net.cpp:296] The NetState phase (1) differed from the phase (0) specified by a rule in layer mnist
I0428 20:06:14.870854 30825 net.cpp:53] Initializing net from parameters: 
name: "LeNet"
state {
  phase: TEST
}
layer {
  name: "mnist"
  type: "Data"
  top: "data"
  top: "label"
  include {
    phase: TEST
  }
  transform_param {
    scale: 0.00390625
  }
  data_param {
    source: "examples/mnist/mnist_test_lmdb"
    batch_size: 100
    backend: LMDB
  }
}
layer {
  name: "conv0"
  type: "Convolution"
  bottom: "data"
  top: "conv0"
  param {
    lr_mult: 1
  }
  param {
    lr_mult: 2
  }
  convolution_param {
    num_output: 25
    kernel_size: 5
    stride: 1
    weight_filler {
      type: "xavier"
    }
    bias_filler {
      type: "constant"
    }
  }
}
layer {
  name: "pool0"
  type: "Pooling"
  bottom: "conv0"
  top: "pool0"
  pooling_param {
    pool: MAX
    kernel_size: 2
    stride: 2
  }
}
layer {
  name: "conv1"
  type: "Convolution"
  bottom: "pool0"
  top: "conv1"
  param {
    lr_mult: 1
  }
  param {
    lr_mult: 2
  }
  convolution_param {
    num_output: 5
    kernel_size: 5
    stride: 1
    weight_filler {
      type: "xavier"
    }
    bias_filler {
      type: "constant"
    }
  }
}
layer {
  name: "pool1"
  type: "Pooling"
  bottom: "conv1"
  top: "pool1"
  pooling_param {
    pool: MAX
    kernel_size: 2
    stride: 2
  }
}
layer {
  name: "ip1"
  type: "InnerProduct"
  bottom: "pool1"
  top: "ip1"
  param {
    lr_mult: 1
  }
  param {
    lr_mult: 2
  }
  inner_product_param {
    num_output: 25
    weight_filler {
      type: "xavier"
    }
    bias_filler {
      type: "constant"
    }
  }
}
layer {
  name: "relu1"
  type: "ReLU"
  bottom: "ip1"
  top: "ip1"
}
layer {
  name: "ip2"
  type: "InnerProduct"
  bottom: "ip1"
  top: "ip2"
  param {
    lr_mult: 1
  }
  param {
    lr_mult: 2
  }
  inner_product_param {
    num_output: 10
    weight_filler {
      type: "xavier"
    }
    bias_filler {
      type: "constant"
    }
  }
}
layer {
  name: "relu2"
  type: "ReLU"
  bottom: "ip2"
  top: "ip2"
}
layer {
  name: "accuracy"
  type: "Accuracy"
  bottom: "ip2"
  bottom: "label"
  top: "accuracy"
  include {
    phase: TEST
  }
}
layer {
  name: "loss"
  type: "SoftmaxWithLoss"
  bottom: "ip2"
  bottom: "label"
  top: "loss"
}
I0428 20:06:14.870932 30825 layer_factory.hpp:77] Creating layer mnist
I0428 20:06:14.870981 30825 db_lmdb.cpp:35] Opened lmdb examples/mnist/mnist_test_lmdb
I0428 20:06:14.870996 30825 net.cpp:86] Creating Layer mnist
I0428 20:06:14.871001 30825 net.cpp:382] mnist -> data
I0428 20:06:14.871011 30825 net.cpp:382] mnist -> label
I0428 20:06:14.871109 30825 data_layer.cpp:45] output data size: 100,1,28,28
I0428 20:06:14.873347 30825 net.cpp:124] Setting up mnist
I0428 20:06:14.873364 30825 net.cpp:131] Top shape: 100 1 28 28 (78400)
I0428 20:06:14.873370 30825 net.cpp:131] Top shape: 100 (100)
I0428 20:06:14.873373 30825 net.cpp:139] Memory required for data: 314000
I0428 20:06:14.873378 30825 layer_factory.hpp:77] Creating layer label_mnist_1_split
I0428 20:06:14.873409 30825 net.cpp:86] Creating Layer label_mnist_1_split
I0428 20:06:14.873414 30825 net.cpp:408] label_mnist_1_split <- label
I0428 20:06:14.873420 30825 net.cpp:382] label_mnist_1_split -> label_mnist_1_split_0
I0428 20:06:14.873430 30825 net.cpp:382] label_mnist_1_split -> label_mnist_1_split_1
I0428 20:06:14.873530 30825 net.cpp:124] Setting up label_mnist_1_split
I0428 20:06:14.873551 30825 net.cpp:131] Top shape: 100 (100)
I0428 20:06:14.873556 30825 net.cpp:131] Top shape: 100 (100)
I0428 20:06:14.873559 30825 net.cpp:139] Memory required for data: 314800
I0428 20:06:14.873564 30825 layer_factory.hpp:77] Creating layer conv0
I0428 20:06:14.873574 30825 net.cpp:86] Creating Layer conv0
I0428 20:06:14.873579 30825 net.cpp:408] conv0 <- data
I0428 20:06:14.873586 30825 net.cpp:382] conv0 -> conv0
I0428 20:06:14.875536 30825 net.cpp:124] Setting up conv0
I0428 20:06:14.875555 30825 net.cpp:131] Top shape: 100 25 24 24 (1440000)
I0428 20:06:14.875558 30825 net.cpp:139] Memory required for data: 6074800
I0428 20:06:14.875569 30825 layer_factory.hpp:77] Creating layer pool0
I0428 20:06:14.875577 30825 net.cpp:86] Creating Layer pool0
I0428 20:06:14.875581 30825 net.cpp:408] pool0 <- conv0
I0428 20:06:14.875587 30825 net.cpp:382] pool0 -> pool0
I0428 20:06:14.875633 30825 net.cpp:124] Setting up pool0
I0428 20:06:14.875640 30825 net.cpp:131] Top shape: 100 25 12 12 (360000)
I0428 20:06:14.875644 30825 net.cpp:139] Memory required for data: 7514800
I0428 20:06:14.875648 30825 layer_factory.hpp:77] Creating layer conv1
I0428 20:06:14.875658 30825 net.cpp:86] Creating Layer conv1
I0428 20:06:14.875668 30825 net.cpp:408] conv1 <- pool0
I0428 20:06:14.875674 30825 net.cpp:382] conv1 -> conv1
I0428 20:06:14.878108 30825 net.cpp:124] Setting up conv1
I0428 20:06:14.878123 30825 net.cpp:131] Top shape: 100 5 8 8 (32000)
I0428 20:06:14.878127 30825 net.cpp:139] Memory required for data: 7642800
I0428 20:06:14.878137 30825 layer_factory.hpp:77] Creating layer pool1
I0428 20:06:14.878145 30825 net.cpp:86] Creating Layer pool1
I0428 20:06:14.878149 30825 net.cpp:408] pool1 <- conv1
I0428 20:06:14.878156 30825 net.cpp:382] pool1 -> pool1
I0428 20:06:14.878203 30825 net.cpp:124] Setting up pool1
I0428 20:06:14.878212 30825 net.cpp:131] Top shape: 100 5 4 4 (8000)
I0428 20:06:14.878216 30825 net.cpp:139] Memory required for data: 7674800
I0428 20:06:14.878219 30825 layer_factory.hpp:77] Creating layer ip1
I0428 20:06:14.878228 30825 net.cpp:86] Creating Layer ip1
I0428 20:06:14.878232 30825 net.cpp:408] ip1 <- pool1
I0428 20:06:14.878239 30825 net.cpp:382] ip1 -> ip1
I0428 20:06:14.878372 30825 net.cpp:124] Setting up ip1
I0428 20:06:14.878381 30825 net.cpp:131] Top shape: 100 25 (2500)
I0428 20:06:14.878386 30825 net.cpp:139] Memory required for data: 7684800
I0428 20:06:14.878393 30825 layer_factory.hpp:77] Creating layer relu1
I0428 20:06:14.878399 30825 net.cpp:86] Creating Layer relu1
I0428 20:06:14.878403 30825 net.cpp:408] relu1 <- ip1
I0428 20:06:14.878408 30825 net.cpp:369] relu1 -> ip1 (in-place)
I0428 20:06:14.878618 30825 net.cpp:124] Setting up relu1
I0428 20:06:14.878628 30825 net.cpp:131] Top shape: 100 25 (2500)
I0428 20:06:14.878630 30825 net.cpp:139] Memory required for data: 7694800
I0428 20:06:14.878634 30825 layer_factory.hpp:77] Creating layer ip2
I0428 20:06:14.878643 30825 net.cpp:86] Creating Layer ip2
I0428 20:06:14.878646 30825 net.cpp:408] ip2 <- ip1
I0428 20:06:14.878654 30825 net.cpp:382] ip2 -> ip2
I0428 20:06:14.878777 30825 net.cpp:124] Setting up ip2
I0428 20:06:14.878784 30825 net.cpp:131] Top shape: 100 10 (1000)
I0428 20:06:14.878788 30825 net.cpp:139] Memory required for data: 7698800
I0428 20:06:14.878795 30825 layer_factory.hpp:77] Creating layer relu2
I0428 20:06:14.878801 30825 net.cpp:86] Creating Layer relu2
I0428 20:06:14.878805 30825 net.cpp:408] relu2 <- ip2
I0428 20:06:14.878811 30825 net.cpp:369] relu2 -> ip2 (in-place)
I0428 20:06:14.879062 30825 net.cpp:124] Setting up relu2
I0428 20:06:14.879073 30825 net.cpp:131] Top shape: 100 10 (1000)
I0428 20:06:14.879077 30825 net.cpp:139] Memory required for data: 7702800
I0428 20:06:14.879091 30825 layer_factory.hpp:77] Creating layer ip2_relu2_0_split
I0428 20:06:14.879096 30825 net.cpp:86] Creating Layer ip2_relu2_0_split
I0428 20:06:14.879104 30825 net.cpp:408] ip2_relu2_0_split <- ip2
I0428 20:06:14.879113 30825 net.cpp:382] ip2_relu2_0_split -> ip2_relu2_0_split_0
I0428 20:06:14.879132 30825 net.cpp:382] ip2_relu2_0_split -> ip2_relu2_0_split_1
I0428 20:06:14.879204 30825 net.cpp:124] Setting up ip2_relu2_0_split
I0428 20:06:14.879212 30825 net.cpp:131] Top shape: 100 10 (1000)
I0428 20:06:14.879217 30825 net.cpp:131] Top shape: 100 10 (1000)
I0428 20:06:14.879220 30825 net.cpp:139] Memory required for data: 7710800
I0428 20:06:14.879225 30825 layer_factory.hpp:77] Creating layer accuracy
I0428 20:06:14.879231 30825 net.cpp:86] Creating Layer accuracy
I0428 20:06:14.879235 30825 net.cpp:408] accuracy <- ip2_relu2_0_split_0
I0428 20:06:14.879240 30825 net.cpp:408] accuracy <- label_mnist_1_split_0
I0428 20:06:14.879245 30825 net.cpp:382] accuracy -> accuracy
…
