…
I0428 20:26:08.724898  2742 net.cpp:296] The NetState phase (0) differed from the phase (1) specified by a rule in layer mnist
I0428 20:26:08.724925  2742 net.cpp:296] The NetState phase (0) differed from the phase (1) specified by a rule in layer accuracy
I0428 20:26:08.725075  2742 net.cpp:53] Initializing net from parameters: 
name: "LeNet"
state {
  phase: TRAIN
  level: 0
  stage: ""
}
layer {
  name: "mnist"
  type: "Data"
  top: "data"
  top: "label"
  include {
    phase: TRAIN
  }
  transform_param {
    scale: 0.00390625
  }
  data_param {
    source: "examples/mnist/mnist_train_lmdb"
    batch_size: 64
    backend: LMDB
  }
}
layer {
  name: "conv0"
  type: "Convolution"
  bottom: "data"
  top: "conv0"
  param {
    lr_mult: 1
  }
  param {
    lr_mult: 2
  }
  convolution_param {
    num_output: 100
    kernel_size: 5
    stride: 1
    weight_filler {
      type: "xavier"
    }
    bias_filler {
      type: "constant"
    }
  }
}
layer {
  name: "pool0"
  type: "Pooling"
  bottom: "conv0"
  top: "pool0"
  pooling_param {
    pool: MAX
    kernel_size: 2
    stride: 2
  }
}
layer {
  name: "conv1"
  type: "Convolution"
  bottom: "pool0"
  top: "conv1"
  param {
    lr_mult: 1
  }
  param {
    lr_mult: 2
  }
  convolution_param {
    num_output: 2
    kernel_size: 5
    stride: 1
    weight_filler {
      type: "xavier"
    }
    bias_filler {
      type: "constant"
    }
  }
}
layer {
  name: "pool1"
  type: "Pooling"
  bottom: "conv1"
  top: "pool1"
  pooling_param {
    pool: MAX
    kernel_size: 2
    stride: 2
  }
}
layer {
  name: "ip1"
  type: "InnerProduct"
  bottom: "pool1"
  top: "ip1"
  param {
    lr_mult: 1
  }
  param {
    lr_mult: 2
  }
  inner_product_param {
    num_output: 25
    weight_filler {
      type: "xavier"
    }
    bias_filler {
      type: "constant"
    }
  }
}
layer {
  name: "relu1"
  type: "ReLU"
  bottom: "ip1"
  top: "ip1"
}
layer {
  name: "ip2"
  type: "InnerProduct"
  bottom: "ip1"
  top: "ip2"
  param {
    lr_mult: 1
  }
  param {
    lr_mult: 2
  }
  inner_product_param {
    num_output: 10
    weight_filler {
      type: "xavier"
    }
    bias_filler {
      type: "constant"
    }
  }
}
layer {
  name: "relu2"
  type: "ReLU"
  bottom: "ip2"
  top: "ip2"
}
layer {
  name: "ip3"
  type: "InnerProduct"
  bottom: "ip2"
  top: "ip3"
  param {
    lr_mult: 1
  }
  param {
    lr_mult: 2
  }
  inner_product_param {
    num_output: 10
    weight_filler {
      type: "xavier"
    }
    bias_filler {
      type: "constant"
    }
  }
}
layer {
  name: "relu3"
  type: "ReLU"
  bottom: "ip3"
  top: "ip3"
}
layer {
  name: "loss"
  type: "SoftmaxWithLoss"
  bottom: "ip3"
  bottom: "label"
  top: "loss"
}
I0428 20:26:08.725183  2742 layer_factory.hpp:77] Creating layer mnist
I0428 20:26:08.725298  2742 db_lmdb.cpp:35] Opened lmdb examples/mnist/mnist_train_lmdb
I0428 20:26:08.725330  2742 net.cpp:86] Creating Layer mnist
I0428 20:26:08.725342  2742 net.cpp:382] mnist -> data
I0428 20:26:08.725370  2742 net.cpp:382] mnist -> label
I0428 20:26:08.726794  2742 data_layer.cpp:45] output data size: 64,1,28,28
I0428 20:26:08.730006  2742 net.cpp:124] Setting up mnist
I0428 20:26:08.730029  2742 net.cpp:131] Top shape: 64 1 28 28 (50176)
I0428 20:26:08.730041  2742 net.cpp:131] Top shape: 64 (64)
I0428 20:26:08.730046  2742 net.cpp:139] Memory required for data: 200960
I0428 20:26:08.730056  2742 layer_factory.hpp:77] Creating layer conv0
I0428 20:26:08.730075  2742 net.cpp:86] Creating Layer conv0
I0428 20:26:08.730101  2742 net.cpp:408] conv0 <- data
I0428 20:26:08.730119  2742 net.cpp:382] conv0 -> conv0
I0428 20:26:09.052659  2742 net.cpp:124] Setting up conv0
I0428 20:26:09.052706  2742 net.cpp:131] Top shape: 64 100 24 24 (3686400)
I0428 20:26:09.052712  2742 net.cpp:139] Memory required for data: 14946560
I0428 20:26:09.052732  2742 layer_factory.hpp:77] Creating layer pool0
I0428 20:26:09.052747  2742 net.cpp:86] Creating Layer pool0
I0428 20:26:09.052752  2742 net.cpp:408] pool0 <- conv0
I0428 20:26:09.052774  2742 net.cpp:382] pool0 -> pool0
I0428 20:26:09.052856  2742 net.cpp:124] Setting up pool0
I0428 20:26:09.052882  2742 net.cpp:131] Top shape: 64 100 12 12 (921600)
I0428 20:26:09.052903  2742 net.cpp:139] Memory required for data: 18632960
I0428 20:26:09.052907  2742 layer_factory.hpp:77] Creating layer conv1
I0428 20:26:09.052937  2742 net.cpp:86] Creating Layer conv1
I0428 20:26:09.052943  2742 net.cpp:408] conv1 <- pool0
I0428 20:26:09.052952  2742 net.cpp:382] conv1 -> conv1
I0428 20:26:09.056607  2742 net.cpp:124] Setting up conv1
I0428 20:26:09.056638  2742 net.cpp:131] Top shape: 64 2 8 8 (8192)
I0428 20:26:09.056644  2742 net.cpp:139] Memory required for data: 18665728
I0428 20:26:09.056655  2742 layer_factory.hpp:77] Creating layer pool1
I0428 20:26:09.056664  2742 net.cpp:86] Creating Layer pool1
I0428 20:26:09.056669  2742 net.cpp:408] pool1 <- conv1
I0428 20:26:09.056691  2742 net.cpp:382] pool1 -> pool1
I0428 20:26:09.056735  2742 net.cpp:124] Setting up pool1
I0428 20:26:09.056746  2742 net.cpp:131] Top shape: 64 2 4 4 (2048)
I0428 20:26:09.056749  2742 net.cpp:139] Memory required for data: 18673920
I0428 20:26:09.056754  2742 layer_factory.hpp:77] Creating layer ip1
I0428 20:26:09.056763  2742 net.cpp:86] Creating Layer ip1
I0428 20:26:09.056768  2742 net.cpp:408] ip1 <- pool1
I0428 20:26:09.056776  2742 net.cpp:382] ip1 -> ip1
I0428 20:26:09.056936  2742 net.cpp:124] Setting up ip1
I0428 20:26:09.056946  2742 net.cpp:131] Top shape: 64 25 (1600)
I0428 20:26:09.056951  2742 net.cpp:139] Memory required for data: 18680320
I0428 20:26:09.056960  2742 layer_factory.hpp:77] Creating layer relu1
I0428 20:26:09.056968  2742 net.cpp:86] Creating Layer relu1
I0428 20:26:09.056973  2742 net.cpp:408] relu1 <- ip1
I0428 20:26:09.056979  2742 net.cpp:369] relu1 -> ip1 (in-place)
I0428 20:26:09.057194  2742 net.cpp:124] Setting up relu1
I0428 20:26:09.057206  2742 net.cpp:131] Top shape: 64 25 (1600)
I0428 20:26:09.057210  2742 net.cpp:139] Memory required for data: 18686720
I0428 20:26:09.057215  2742 layer_factory.hpp:77] Creating layer ip2
I0428 20:26:09.057224  2742 net.cpp:86] Creating Layer ip2
I0428 20:26:09.057227  2742 net.cpp:408] ip2 <- ip1
I0428 20:26:09.057235  2742 net.cpp:382] ip2 -> ip2
I0428 20:26:09.057366  2742 net.cpp:124] Setting up ip2
I0428 20:26:09.057376  2742 net.cpp:131] Top shape: 64 10 (640)
I0428 20:26:09.057380  2742 net.cpp:139] Memory required for data: 18689280
I0428 20:26:09.057389  2742 layer_factory.hpp:77] Creating layer relu2
I0428 20:26:09.057396  2742 net.cpp:86] Creating Layer relu2
I0428 20:26:09.057401  2742 net.cpp:408] relu2 <- ip2
I0428 20:26:09.057407  2742 net.cpp:369] relu2 -> ip2 (in-place)
I0428 20:26:09.058425  2742 net.cpp:124] Setting up relu2
I0428 20:26:09.058455  2742 net.cpp:131] Top shape: 64 10 (640)
I0428 20:26:09.058460  2742 net.cpp:139] Memory required for data: 18691840
I0428 20:26:09.058480  2742 layer_factory.hpp:77] Creating layer ip3
I0428 20:26:09.058490  2742 net.cpp:86] Creating Layer ip3
I0428 20:26:09.058495  2742 net.cpp:408] ip3 <- ip2
I0428 20:26:09.058503  2742 net.cpp:382] ip3 -> ip3
I0428 20:26:09.058640  2742 net.cpp:124] Setting up ip3
I0428 20:26:09.058650  2742 net.cpp:131] Top shape: 64 10 (640)
I0428 20:26:09.058655  2742 net.cpp:139] Memory required for data: 18694400
I0428 20:26:09.058666  2742 layer_factory.hpp:77] Creating layer relu3
I0428 20:26:09.058673  2742 net.cpp:86] Creating Layer relu3
I0428 20:26:09.058678  2742 net.cpp:408] relu3 <- ip3
I0428 20:26:09.058684  2742 net.cpp:369] relu3 -> ip3 (in-place)
I0428 20:26:09.058887  2742 net.cpp:124] Setting up relu3
I0428 20:26:09.058897  2742 net.cpp:131] Top shape: 64 10 (640)
I0428 20:26:09.058902  2742 net.cpp:139] Memory required for data: 18696960
I0428 20:26:09.058907  2742 layer_factory.hpp:77] Creating layer loss
I0428 20:26:09.058914  2742 net.cpp:86] Creating Layer loss
I0428 20:26:09.058919  2742 net.cpp:408] loss <- ip3
I0428 20:26:09.058925  2742 net.cpp:408] loss <- label
I0428 20:26:09.058933  2742 net.cpp:382] loss -> loss
I0428 20:26:09.058954  2742 layer_factory.hpp:77] Creating layer loss
…
I0428 20:26:09.059881  2742 solver.cpp:173] Creating test net (#0) specified by net file: ECE595/mnist/train_test/var_everything2/lenet_train_test1466.prototxt
I0428 20:26:09.059932  2742 net.cpp:296] The NetState phase (1) differed from the phase (0) specified by a rule in layer mnist
I0428 20:26:09.060083  2742 net.cpp:53] Initializing net from parameters: 
name: "LeNet"
state {
  phase: TEST
}
layer {
  name: "mnist"
  type: "Data"
  top: "data"
  top: "label"
  include {
    phase: TEST
  }
  transform_param {
    scale: 0.00390625
  }
  data_param {
    source: "examples/mnist/mnist_test_lmdb"
    batch_size: 100
    backend: LMDB
  }
}
layer {
  name: "conv0"
  type: "Convolution"
  bottom: "data"
  top: "conv0"
  param {
    lr_mult: 1
  }
  param {
    lr_mult: 2
  }
  convolution_param {
    num_output: 100
    kernel_size: 5
    stride: 1
    weight_filler {
      type: "xavier"
    }
    bias_filler {
      type: "constant"
    }
  }
}
layer {
  name: "pool0"
  type: "Pooling"
  bottom: "conv0"
  top: "pool0"
  pooling_param {
    pool: MAX
    kernel_size: 2
    stride: 2
  }
}
layer {
  name: "conv1"
  type: "Convolution"
  bottom: "pool0"
  top: "conv1"
  param {
    lr_mult: 1
  }
  param {
    lr_mult: 2
  }
  convolution_param {
    num_output: 2
    kernel_size: 5
    stride: 1
    weight_filler {
      type: "xavier"
    }
    bias_filler {
      type: "constant"
    }
  }
}
layer {
  name: "pool1"
  type: "Pooling"
  bottom: "conv1"
  top: "pool1"
  pooling_param {
    pool: MAX
    kernel_size: 2
    stride: 2
  }
}
layer {
  name: "ip1"
  type: "InnerProduct"
  bottom: "pool1"
  top: "ip1"
  param {
    lr_mult: 1
  }
  param {
    lr_mult: 2
  }
  inner_product_param {
    num_output: 25
    weight_filler {
      type: "xavier"
    }
    bias_filler {
      type: "constant"
    }
  }
}
layer {
  name: "relu1"
  type: "ReLU"
  bottom: "ip1"
  top: "ip1"
}
layer {
  name: "ip2"
  type: "InnerProduct"
  bottom: "ip1"
  top: "ip2"
  param {
    lr_mult: 1
  }
  param {
    lr_mult: 2
  }
  inner_product_param {
    num_output: 10
    weight_filler {
      type: "xavier"
    }
    bias_filler {
      type: "constant"
    }
  }
}
layer {
  name: "relu2"
  type: "ReLU"
  bottom: "ip2"
  top: "ip2"
}
layer {
  name: "ip3"
  type: "InnerProduct"
  bottom: "ip2"
  top: "ip3"
  param {
    lr_mult: 1
  }
  param {
    lr_mult: 2
  }
  inner_product_param {
    num_output: 10
    weight_filler {
      type: "xavier"
    }
    bias_filler {
      type: "constant"
    }
  }
}
layer {
  name: "relu3"
  type: "ReLU"
  bottom: "ip3"
  top: "ip3"
}
layer {
  name: "accuracy"
  type: "Accuracy"
  bottom: "ip3"
  bottom: "label"
  top: "accuracy"
  include {
    phase: TEST
  }
}
layer {
  name: "loss"
  type: "SoftmaxWithLoss"
  bottom: "ip3"
  bottom: "label"
  top: "loss"
}
I0428 20:26:09.060200  2742 layer_factory.hpp:77] Creating layer mnist
I0428 20:26:09.060253  2742 db_lmdb.cpp:35] Opened lmdb examples/mnist/mnist_test_lmdb
I0428 20:26:09.060268  2742 net.cpp:86] Creating Layer mnist
I0428 20:26:09.060276  2742 net.cpp:382] mnist -> data
I0428 20:26:09.060286  2742 net.cpp:382] mnist -> label
I0428 20:26:09.060403  2742 data_layer.cpp:45] output data size: 100,1,28,28
I0428 20:26:09.063133  2742 net.cpp:124] Setting up mnist
I0428 20:26:09.063205  2742 net.cpp:131] Top shape: 100 1 28 28 (78400)
I0428 20:26:09.063212  2742 net.cpp:131] Top shape: 100 (100)
I0428 20:26:09.063217  2742 net.cpp:139] Memory required for data: 314000
I0428 20:26:09.063222  2742 layer_factory.hpp:77] Creating layer label_mnist_1_split
I0428 20:26:09.063249  2742 net.cpp:86] Creating Layer label_mnist_1_split
I0428 20:26:09.063254  2742 net.cpp:408] label_mnist_1_split <- label
I0428 20:26:09.063262  2742 net.cpp:382] label_mnist_1_split -> label_mnist_1_split_0
I0428 20:26:09.063271  2742 net.cpp:382] label_mnist_1_split -> label_mnist_1_split_1
I0428 20:26:09.063364  2742 net.cpp:124] Setting up label_mnist_1_split
I0428 20:26:09.063374  2742 net.cpp:131] Top shape: 100 (100)
I0428 20:26:09.063381  2742 net.cpp:131] Top shape: 100 (100)
I0428 20:26:09.063385  2742 net.cpp:139] Memory required for data: 314800
I0428 20:26:09.063390  2742 layer_factory.hpp:77] Creating layer conv0
I0428 20:26:09.063401  2742 net.cpp:86] Creating Layer conv0
I0428 20:26:09.063405  2742 net.cpp:408] conv0 <- data
I0428 20:26:09.063415  2742 net.cpp:382] conv0 -> conv0
I0428 20:26:09.065361  2742 net.cpp:124] Setting up conv0
I0428 20:26:09.065392  2742 net.cpp:131] Top shape: 100 100 24 24 (5760000)
I0428 20:26:09.065399  2742 net.cpp:139] Memory required for data: 23354800
I0428 20:26:09.065419  2742 layer_factory.hpp:77] Creating layer pool0
I0428 20:26:09.065428  2742 net.cpp:86] Creating Layer pool0
I0428 20:26:09.065433  2742 net.cpp:408] pool0 <- conv0
I0428 20:26:09.065439  2742 net.cpp:382] pool0 -> pool0
I0428 20:26:09.065485  2742 net.cpp:124] Setting up pool0
I0428 20:26:09.065496  2742 net.cpp:131] Top shape: 100 100 12 12 (1440000)
I0428 20:26:09.065500  2742 net.cpp:139] Memory required for data: 29114800
I0428 20:26:09.065505  2742 layer_factory.hpp:77] Creating layer conv1
I0428 20:26:09.065531  2742 net.cpp:86] Creating Layer conv1
I0428 20:26:09.065536  2742 net.cpp:408] conv1 <- pool0
I0428 20:26:09.065544  2742 net.cpp:382] conv1 -> conv1
I0428 20:26:09.068634  2742 net.cpp:124] Setting up conv1
I0428 20:26:09.068676  2742 net.cpp:131] Top shape: 100 2 8 8 (12800)
I0428 20:26:09.068683  2742 net.cpp:139] Memory required for data: 29166000
I0428 20:26:09.068701  2742 layer_factory.hpp:77] Creating layer pool1
I0428 20:26:09.068727  2742 net.cpp:86] Creating Layer pool1
I0428 20:26:09.068735  2742 net.cpp:408] pool1 <- conv1
I0428 20:26:09.068756  2742 net.cpp:382] pool1 -> pool1
I0428 20:26:09.068841  2742 net.cpp:124] Setting up pool1
I0428 20:26:09.068856  2742 net.cpp:131] Top shape: 100 2 4 4 (3200)
I0428 20:26:09.068862  2742 net.cpp:139] Memory required for data: 29178800
I0428 20:26:09.068868  2742 layer_factory.hpp:77] Creating layer ip1
I0428 20:26:09.068879  2742 net.cpp:86] Creating Layer ip1
I0428 20:26:09.068886  2742 net.cpp:408] ip1 <- pool1
I0428 20:26:09.068899  2742 net.cpp:382] ip1 -> ip1
I0428 20:26:09.069103  2742 net.cpp:124] Setting up ip1
I0428 20:26:09.069118  2742 net.cpp:131] Top shape: 100 25 (2500)
I0428 20:26:09.069144  2742 net.cpp:139] Memory required for data: 29188800
I0428 20:26:09.069159  2742 layer_factory.hpp:77] Creating layer relu1
I0428 20:26:09.069169  2742 net.cpp:86] Creating Layer relu1
I0428 20:26:09.069175  2742 net.cpp:408] relu1 <- ip1
I0428 20:26:09.069193  2742 net.cpp:369] relu1 -> ip1 (in-place)
I0428 20:26:09.069507  2742 net.cpp:124] Setting up relu1
I0428 20:26:09.069522  2742 net.cpp:131] Top shape: 100 25 (2500)
I0428 20:26:09.069537  2742 net.cpp:139] Memory required for data: 29198800
I0428 20:26:09.069543  2742 layer_factory.hpp:77] Creating layer ip2
I0428 20:26:09.069558  2742 net.cpp:86] Creating Layer ip2
I0428 20:26:09.069564  2742 net.cpp:408] ip2 <- ip1
I0428 20:26:09.069573  2742 net.cpp:382] ip2 -> ip2
I0428 20:26:09.069793  2742 net.cpp:124] Setting up ip2
I0428 20:26:09.069806  2742 net.cpp:131] Top shape: 100 10 (1000)
I0428 20:26:09.069813  2742 net.cpp:139] Memory required for data: 29202800
I0428 20:26:09.069823  2742 layer_factory.hpp:77] Creating layer relu2
I0428 20:26:09.069833  2742 net.cpp:86] Creating Layer relu2
I0428 20:26:09.069839  2742 net.cpp:408] relu2 <- ip2
I0428 20:26:09.069849  2742 net.cpp:369] relu2 -> ip2 (in-place)
I0428 20:26:09.070164  2742 net.cpp:124] Setting up relu2
I0428 20:26:09.070178  2742 net.cpp:131] Top shape: 100 10 (1000)
I0428 20:26:09.070184  2742 net.cpp:139] Memory required for data: 29206800
I0428 20:26:09.070190  2742 layer_factory.hpp:77] Creating layer ip3
I0428 20:26:09.070202  2742 net.cpp:86] Creating Layer ip3
I0428 20:26:09.070207  2742 net.cpp:408] ip3 <- ip2
I0428 20:26:09.070219  2742 net.cpp:382] ip3 -> ip3
I0428 20:26:09.070403  2742 net.cpp:124] Setting up ip3
I0428 20:26:09.070415  2742 net.cpp:131] Top shape: 100 10 (1000)
I0428 20:26:09.070421  2742 net.cpp:139] Memory required for data: 29210800
I0428 20:26:09.070437  2742 layer_factory.hpp:77] Creating layer relu3
I0428 20:26:09.070446  2742 net.cpp:86] Creating Layer relu3
I0428 20:26:09.070452  2742 net.cpp:408] relu3 <- ip3
I0428 20:26:09.070459  2742 net.cpp:369] relu3 -> ip3 (in-place)
I0428 20:26:09.071833  2742 net.cpp:124] Setting up relu3
I0428 20:26:09.071857  2742 net.cpp:131] Top shape: 100 10 (1000)
I0428 20:26:09.071878  2742 net.cpp:139] Memory required for data: 29214800
I0428 20:26:09.071885  2742 layer_factory.hpp:77] Creating layer ip3_relu3_0_split
I0428 20:26:09.071908  2742 net.cpp:86] Creating Layer ip3_relu3_0_split
I0428 20:26:09.071915  2742 net.cpp:408] ip3_relu3_0_split <- ip3
I0428 20:26:09.071929  2742 net.cpp:382] ip3_relu3_0_split -> ip3_relu3_0_split_0
I0428 20:26:09.071944  2742 net.cpp:382] ip3_relu3_0_split -> ip3_relu3_0_split_1
I0428 20:26:09.072028  2742 net.cpp:124] Setting up ip3_relu3_0_split
I0428 20:26:09.072041  2742 net.cpp:131] Top shape: 100 10 (1000)
I0428 20:26:09.072048  2742 net.cpp:131] Top shape: 100 10 (1000)
I0428 20:26:09.072053  2742 net.cpp:139] Memory required for data: 29222800
I0428 20:26:09.072059  2742 layer_factory.hpp:77] Creating layer accuracy
I0428 20:26:09.072072  2742 net.cpp:86] Creating Layer accuracy
I0428 20:26:09.072078  2742 net.cpp:408] accuracy <- ip3_relu3_0_split_0
I0428 20:26:09.072087  2742 net.cpp:408] accuracy <- label_mnist_1_split_0
I0428 20:26:09.072095  2742 net.cpp:382] accuracy -> accuracy
…
