…
I0428 19:32:53.573544 22980 net.cpp:296] The NetState phase (0) differed from the phase (1) specified by a rule in layer mnist
I0428 19:32:53.573557 22980 net.cpp:296] The NetState phase (0) differed from the phase (1) specified by a rule in layer accuracy
I0428 19:32:53.573623 22980 net.cpp:53] Initializing net from parameters: 
name: "LeNet"
state {
  phase: TRAIN
  level: 0
  stage: ""
}
layer {
  name: "mnist"
  type: "Data"
  top: "data"
  top: "label"
  include {
    phase: TRAIN
  }
  transform_param {
    scale: 0.00390625
  }
  data_param {
    source: "examples/mnist/mnist_train_lmdb"
    batch_size: 64
    backend: LMDB
  }
}
layer {
  name: "conv0"
  type: "Convolution"
  bottom: "data"
  top: "conv0"
  param {
    lr_mult: 1
  }
  param {
    lr_mult: 2
  }
  convolution_param {
    num_output: 25
    kernel_size: 5
    stride: 1
    weight_filler {
      type: "xavier"
    }
    bias_filler {
      type: "constant"
    }
  }
}
layer {
  name: "pool0"
  type: "Pooling"
  bottom: "conv0"
  top: "pool0"
  pooling_param {
    pool: MAX
    kernel_size: 2
    stride: 2
  }
}
layer {
  name: "ip1"
  type: "InnerProduct"
  bottom: "pool0"
  top: "ip1"
  param {
    lr_mult: 1
  }
  param {
    lr_mult: 2
  }
  inner_product_param {
    num_output: 50
    weight_filler {
      type: "xavier"
    }
    bias_filler {
      type: "constant"
    }
  }
}
layer {
  name: "relu1"
  type: "ReLU"
  bottom: "ip1"
  top: "ip1"
}
layer {
  name: "ip2"
  type: "InnerProduct"
  bottom: "ip1"
  top: "ip2"
  param {
    lr_mult: 1
  }
  param {
    lr_mult: 2
  }
  inner_product_param {
    num_output: 10
    weight_filler {
      type: "xavier"
    }
    bias_filler {
      type: "constant"
    }
  }
}
layer {
  name: "relu2"
  type: "ReLU"
  bottom: "ip2"
  top: "ip2"
}
layer {
  name: "loss"
  type: "SoftmaxWithLoss"
  bottom: "ip2"
  bottom: "label"
  top: "loss"
}
I0428 19:32:53.573698 22980 layer_factory.hpp:77] Creating layer mnist
I0428 19:32:53.573814 22980 db_lmdb.cpp:35] Opened lmdb examples/mnist/mnist_train_lmdb
I0428 19:32:53.573840 22980 net.cpp:86] Creating Layer mnist
I0428 19:32:53.573851 22980 net.cpp:382] mnist -> data
I0428 19:32:53.573876 22980 net.cpp:382] mnist -> label
I0428 19:32:53.574879 22980 data_layer.cpp:45] output data size: 64,1,28,28
I0428 19:32:53.577169 22980 net.cpp:124] Setting up mnist
I0428 19:32:53.577203 22980 net.cpp:131] Top shape: 64 1 28 28 (50176)
I0428 19:32:53.577213 22980 net.cpp:131] Top shape: 64 (64)
I0428 19:32:53.577219 22980 net.cpp:139] Memory required for data: 200960
I0428 19:32:53.577227 22980 layer_factory.hpp:77] Creating layer conv0
I0428 19:32:53.577246 22980 net.cpp:86] Creating Layer conv0
I0428 19:32:53.577255 22980 net.cpp:408] conv0 <- data
I0428 19:32:53.577271 22980 net.cpp:382] conv0 -> conv0
I0428 19:32:53.813056 22980 net.cpp:124] Setting up conv0
I0428 19:32:53.813086 22980 net.cpp:131] Top shape: 64 25 24 24 (921600)
I0428 19:32:53.813091 22980 net.cpp:139] Memory required for data: 3887360
I0428 19:32:53.813141 22980 layer_factory.hpp:77] Creating layer pool0
I0428 19:32:53.813158 22980 net.cpp:86] Creating Layer pool0
I0428 19:32:53.813175 22980 net.cpp:408] pool0 <- conv0
I0428 19:32:53.813185 22980 net.cpp:382] pool0 -> pool0
I0428 19:32:53.813238 22980 net.cpp:124] Setting up pool0
I0428 19:32:53.813248 22980 net.cpp:131] Top shape: 64 25 12 12 (230400)
I0428 19:32:53.813253 22980 net.cpp:139] Memory required for data: 4808960
I0428 19:32:53.813275 22980 layer_factory.hpp:77] Creating layer ip1
I0428 19:32:53.813288 22980 net.cpp:86] Creating Layer ip1
I0428 19:32:53.813294 22980 net.cpp:408] ip1 <- pool0
I0428 19:32:53.813302 22980 net.cpp:382] ip1 -> ip1
I0428 19:32:53.815269 22980 net.cpp:124] Setting up ip1
I0428 19:32:53.815284 22980 net.cpp:131] Top shape: 64 50 (3200)
I0428 19:32:53.815289 22980 net.cpp:139] Memory required for data: 4821760
I0428 19:32:53.815317 22980 layer_factory.hpp:77] Creating layer relu1
I0428 19:32:53.815328 22980 net.cpp:86] Creating Layer relu1
I0428 19:32:53.815333 22980 net.cpp:408] relu1 <- ip1
I0428 19:32:53.815341 22980 net.cpp:369] relu1 -> ip1 (in-place)
I0428 19:32:53.815546 22980 net.cpp:124] Setting up relu1
I0428 19:32:53.815557 22980 net.cpp:131] Top shape: 64 50 (3200)
I0428 19:32:53.815562 22980 net.cpp:139] Memory required for data: 4834560
I0428 19:32:53.815568 22980 layer_factory.hpp:77] Creating layer ip2
I0428 19:32:53.815578 22980 net.cpp:86] Creating Layer ip2
I0428 19:32:53.815584 22980 net.cpp:408] ip2 <- ip1
I0428 19:32:53.815593 22980 net.cpp:382] ip2 -> ip2
I0428 19:32:53.815704 22980 net.cpp:124] Setting up ip2
I0428 19:32:53.815714 22980 net.cpp:131] Top shape: 64 10 (640)
I0428 19:32:53.815719 22980 net.cpp:139] Memory required for data: 4837120
I0428 19:32:53.815732 22980 layer_factory.hpp:77] Creating layer relu2
I0428 19:32:53.815742 22980 net.cpp:86] Creating Layer relu2
I0428 19:32:53.815768 22980 net.cpp:408] relu2 <- ip2
I0428 19:32:53.815790 22980 net.cpp:369] relu2 -> ip2 (in-place)
I0428 19:32:53.816579 22980 net.cpp:124] Setting up relu2
I0428 19:32:53.816608 22980 net.cpp:131] Top shape: 64 10 (640)
I0428 19:32:53.816613 22980 net.cpp:139] Memory required for data: 4839680
I0428 19:32:53.816619 22980 layer_factory.hpp:77] Creating layer loss
I0428 19:32:53.816628 22980 net.cpp:86] Creating Layer loss
I0428 19:32:53.816634 22980 net.cpp:408] loss <- ip2
I0428 19:32:53.816642 22980 net.cpp:408] loss <- label
I0428 19:32:53.816650 22980 net.cpp:382] loss -> loss
I0428 19:32:53.816674 22980 layer_factory.hpp:77] Creating layer loss
…
I0428 19:32:53.817344 22980 solver.cpp:173] Creating test net (#0) specified by net file: ECE595/mnist/train_test/var_everything2/lenet_train_test165.prototxt
I0428 19:32:53.817374 22980 net.cpp:296] The NetState phase (1) differed from the phase (0) specified by a rule in layer mnist
I0428 19:32:53.817451 22980 net.cpp:53] Initializing net from parameters: 
name: "LeNet"
state {
  phase: TEST
}
layer {
  name: "mnist"
  type: "Data"
  top: "data"
  top: "label"
  include {
    phase: TEST
  }
  transform_param {
    scale: 0.00390625
  }
  data_param {
    source: "examples/mnist/mnist_test_lmdb"
    batch_size: 100
    backend: LMDB
  }
}
layer {
  name: "conv0"
  type: "Convolution"
  bottom: "data"
  top: "conv0"
  param {
    lr_mult: 1
  }
  param {
    lr_mult: 2
  }
  convolution_param {
    num_output: 25
    kernel_size: 5
    stride: 1
    weight_filler {
      type: "xavier"
    }
    bias_filler {
      type: "constant"
    }
  }
}
layer {
  name: "pool0"
  type: "Pooling"
  bottom: "conv0"
  top: "pool0"
  pooling_param {
    pool: MAX
    kernel_size: 2
    stride: 2
  }
}
layer {
  name: "ip1"
  type: "InnerProduct"
  bottom: "pool0"
  top: "ip1"
  param {
    lr_mult: 1
  }
  param {
    lr_mult: 2
  }
  inner_product_param {
    num_output: 50
    weight_filler {
      type: "xavier"
    }
    bias_filler {
      type: "constant"
    }
  }
}
layer {
  name: "relu1"
  type: "ReLU"
  bottom: "ip1"
  top: "ip1"
}
layer {
  name: "ip2"
  type: "InnerProduct"
  bottom: "ip1"
  top: "ip2"
  param {
    lr_mult: 1
  }
  param {
    lr_mult: 2
  }
  inner_product_param {
    num_output: 10
    weight_filler {
      type: "xavier"
    }
    bias_filler {
      type: "constant"
    }
  }
}
layer {
  name: "relu2"
  type: "ReLU"
  bottom: "ip2"
  top: "ip2"
}
layer {
  name: "accuracy"
  type: "Accuracy"
  bottom: "ip2"
  bottom: "label"
  top: "accuracy"
  include {
    phase: TEST
  }
}
layer {
  name: "loss"
  type: "SoftmaxWithLoss"
  bottom: "ip2"
  bottom: "label"
  top: "loss"
}
I0428 19:32:53.817544 22980 layer_factory.hpp:77] Creating layer mnist
I0428 19:32:53.817602 22980 db_lmdb.cpp:35] Opened lmdb examples/mnist/mnist_test_lmdb
I0428 19:32:53.817620 22980 net.cpp:86] Creating Layer mnist
I0428 19:32:53.817627 22980 net.cpp:382] mnist -> data
I0428 19:32:53.817638 22980 net.cpp:382] mnist -> label
I0428 19:32:53.817747 22980 data_layer.cpp:45] output data size: 100,1,28,28
I0428 19:32:53.818816 22980 net.cpp:124] Setting up mnist
I0428 19:32:53.818830 22980 net.cpp:131] Top shape: 100 1 28 28 (78400)
I0428 19:32:53.818837 22980 net.cpp:131] Top shape: 100 (100)
I0428 19:32:53.818842 22980 net.cpp:139] Memory required for data: 314000
I0428 19:32:53.818848 22980 layer_factory.hpp:77] Creating layer label_mnist_1_split
I0428 19:32:53.818862 22980 net.cpp:86] Creating Layer label_mnist_1_split
I0428 19:32:53.818868 22980 net.cpp:408] label_mnist_1_split <- label
I0428 19:32:53.818876 22980 net.cpp:382] label_mnist_1_split -> label_mnist_1_split_0
I0428 19:32:53.818887 22980 net.cpp:382] label_mnist_1_split -> label_mnist_1_split_1
I0428 19:32:53.818934 22980 net.cpp:124] Setting up label_mnist_1_split
I0428 19:32:53.818943 22980 net.cpp:131] Top shape: 100 (100)
I0428 19:32:53.818948 22980 net.cpp:131] Top shape: 100 (100)
I0428 19:32:53.818953 22980 net.cpp:139] Memory required for data: 314800
I0428 19:32:53.818958 22980 layer_factory.hpp:77] Creating layer conv0
I0428 19:32:53.818971 22980 net.cpp:86] Creating Layer conv0
I0428 19:32:53.818977 22980 net.cpp:408] conv0 <- data
I0428 19:32:53.818986 22980 net.cpp:382] conv0 -> conv0
I0428 19:32:53.820538 22980 net.cpp:124] Setting up conv0
I0428 19:32:53.820554 22980 net.cpp:131] Top shape: 100 25 24 24 (1440000)
I0428 19:32:53.820560 22980 net.cpp:139] Memory required for data: 6074800
I0428 19:32:53.820574 22980 layer_factory.hpp:77] Creating layer pool0
I0428 19:32:53.820585 22980 net.cpp:86] Creating Layer pool0
I0428 19:32:53.820591 22980 net.cpp:408] pool0 <- conv0
I0428 19:32:53.820600 22980 net.cpp:382] pool0 -> pool0
I0428 19:32:53.820644 22980 net.cpp:124] Setting up pool0
I0428 19:32:53.820653 22980 net.cpp:131] Top shape: 100 25 12 12 (360000)
I0428 19:32:53.820658 22980 net.cpp:139] Memory required for data: 7514800
I0428 19:32:53.820664 22980 layer_factory.hpp:77] Creating layer ip1
I0428 19:32:53.820675 22980 net.cpp:86] Creating Layer ip1
I0428 19:32:53.820683 22980 net.cpp:408] ip1 <- pool0
I0428 19:32:53.820690 22980 net.cpp:382] ip1 -> ip1
I0428 19:32:53.822862 22980 net.cpp:124] Setting up ip1
I0428 19:32:53.822878 22980 net.cpp:131] Top shape: 100 50 (5000)
I0428 19:32:53.822885 22980 net.cpp:139] Memory required for data: 7534800
I0428 19:32:53.822913 22980 layer_factory.hpp:77] Creating layer relu1
I0428 19:32:53.822923 22980 net.cpp:86] Creating Layer relu1
I0428 19:32:53.822929 22980 net.cpp:408] relu1 <- ip1
I0428 19:32:53.822938 22980 net.cpp:369] relu1 -> ip1 (in-place)
I0428 19:32:53.823128 22980 net.cpp:124] Setting up relu1
I0428 19:32:53.823138 22980 net.cpp:131] Top shape: 100 50 (5000)
I0428 19:32:53.823158 22980 net.cpp:139] Memory required for data: 7554800
I0428 19:32:53.823164 22980 layer_factory.hpp:77] Creating layer ip2
I0428 19:32:53.823175 22980 net.cpp:86] Creating Layer ip2
I0428 19:32:53.823182 22980 net.cpp:408] ip2 <- ip1
I0428 19:32:53.823192 22980 net.cpp:382] ip2 -> ip2
I0428 19:32:53.823300 22980 net.cpp:124] Setting up ip2
I0428 19:32:53.823310 22980 net.cpp:131] Top shape: 100 10 (1000)
I0428 19:32:53.823317 22980 net.cpp:139] Memory required for data: 7558800
I0428 19:32:53.823328 22980 layer_factory.hpp:77] Creating layer relu2
I0428 19:32:53.823338 22980 net.cpp:86] Creating Layer relu2
I0428 19:32:53.823346 22980 net.cpp:408] relu2 <- ip2
I0428 19:32:53.823356 22980 net.cpp:369] relu2 -> ip2 (in-place)
I0428 19:32:53.823513 22980 net.cpp:124] Setting up relu2
I0428 19:32:53.823523 22980 net.cpp:131] Top shape: 100 10 (1000)
I0428 19:32:53.823528 22980 net.cpp:139] Memory required for data: 7562800
I0428 19:32:53.823532 22980 layer_factory.hpp:77] Creating layer ip2_relu2_0_split
I0428 19:32:53.823544 22980 net.cpp:86] Creating Layer ip2_relu2_0_split
I0428 19:32:53.823549 22980 net.cpp:408] ip2_relu2_0_split <- ip2
I0428 19:32:53.823557 22980 net.cpp:382] ip2_relu2_0_split -> ip2_relu2_0_split_0
I0428 19:32:53.823568 22980 net.cpp:382] ip2_relu2_0_split -> ip2_relu2_0_split_1
I0428 19:32:53.823616 22980 net.cpp:124] Setting up ip2_relu2_0_split
I0428 19:32:53.823623 22980 net.cpp:131] Top shape: 100 10 (1000)
I0428 19:32:53.823631 22980 net.cpp:131] Top shape: 100 10 (1000)
I0428 19:32:53.823635 22980 net.cpp:139] Memory required for data: 7570800
I0428 19:32:53.823640 22980 layer_factory.hpp:77] Creating layer accuracy
I0428 19:32:53.823649 22980 net.cpp:86] Creating Layer accuracy
I0428 19:32:53.823654 22980 net.cpp:408] accuracy <- ip2_relu2_0_split_0
I0428 19:32:53.823662 22980 net.cpp:408] accuracy <- label_mnist_1_split_0
I0428 19:32:53.823669 22980 net.cpp:382] accuracy -> accuracy
…
