…
I0428 20:10:49.791371 31950 net.cpp:296] The NetState phase (0) differed from the phase (1) specified by a rule in layer mnist
I0428 20:10:49.791393 31950 net.cpp:296] The NetState phase (0) differed from the phase (1) specified by a rule in layer accuracy
I0428 20:10:49.791494 31950 net.cpp:53] Initializing net from parameters: 
name: "LeNet"
state {
  phase: TRAIN
  level: 0
  stage: ""
}
layer {
  name: "mnist"
  type: "Data"
  top: "data"
  top: "label"
  include {
    phase: TRAIN
  }
  transform_param {
    scale: 0.00390625
  }
  data_param {
    source: "examples/mnist/mnist_train_lmdb"
    batch_size: 64
    backend: LMDB
  }
}
layer {
  name: "conv0"
  type: "Convolution"
  bottom: "data"
  top: "conv0"
  param {
    lr_mult: 1
  }
  param {
    lr_mult: 2
  }
  convolution_param {
    num_output: 25
    kernel_size: 5
    stride: 1
    weight_filler {
      type: "xavier"
    }
    bias_filler {
      type: "constant"
    }
  }
}
layer {
  name: "pool0"
  type: "Pooling"
  bottom: "conv0"
  top: "pool0"
  pooling_param {
    pool: MAX
    kernel_size: 2
    stride: 2
  }
}
layer {
  name: "conv1"
  type: "Convolution"
  bottom: "pool0"
  top: "conv1"
  param {
    lr_mult: 1
  }
  param {
    lr_mult: 2
  }
  convolution_param {
    num_output: 50
    kernel_size: 5
    stride: 1
    weight_filler {
      type: "xavier"
    }
    bias_filler {
      type: "constant"
    }
  }
}
layer {
  name: "pool1"
  type: "Pooling"
  bottom: "conv1"
  top: "pool1"
  pooling_param {
    pool: MAX
    kernel_size: 2
    stride: 2
  }
}
layer {
  name: "ip1"
  type: "InnerProduct"
  bottom: "pool1"
  top: "ip1"
  param {
    lr_mult: 1
  }
  param {
    lr_mult: 2
  }
  inner_product_param {
    num_output: 10
    weight_filler {
      type: "xavier"
    }
    bias_filler {
      type: "constant"
    }
  }
}
layer {
  name: "relu1"
  type: "ReLU"
  bottom: "ip1"
  top: "ip1"
}
layer {
  name: "ip2"
  type: "InnerProduct"
  bottom: "ip1"
  top: "ip2"
  param {
    lr_mult: 1
  }
  param {
    lr_mult: 2
  }
  inner_product_param {
    num_output: 10
    weight_filler {
      type: "xavier"
    }
    bias_filler {
      type: "constant"
    }
  }
}
layer {
  name: "relu2"
  type: "ReLU"
  bottom: "ip2"
  top: "ip2"
}
layer {
  name: "ip3"
  type: "InnerProduct"
  bottom: "ip2"
  top: "ip3"
  param {
    lr_mult: 1
  }
  param {
    lr_mult: 2
  }
  inner_product_param {
    num_output: 10
    weight_filler {
      type: "xavier"
    }
    bias_filler {
      type: "constant"
    }
  }
}
layer {
  name: "relu3"
  type: "ReLU"
  bottom: "ip3"
  top: "ip3"
}
layer {
  name: "loss"
  type: "SoftmaxWithLoss"
  bottom: "ip3"
  bottom: "label"
  top: "loss"
}
I0428 20:10:49.791575 31950 layer_factory.hpp:77] Creating layer mnist
I0428 20:10:49.791676 31950 db_lmdb.cpp:35] Opened lmdb examples/mnist/mnist_train_lmdb
I0428 20:10:49.791702 31950 net.cpp:86] Creating Layer mnist
I0428 20:10:49.791710 31950 net.cpp:382] mnist -> data
I0428 20:10:49.791733 31950 net.cpp:382] mnist -> label
I0428 20:10:49.792842 31950 data_layer.cpp:45] output data size: 64,1,28,28
I0428 20:10:49.795500 31950 net.cpp:124] Setting up mnist
I0428 20:10:49.795519 31950 net.cpp:131] Top shape: 64 1 28 28 (50176)
I0428 20:10:49.795541 31950 net.cpp:131] Top shape: 64 (64)
I0428 20:10:49.795544 31950 net.cpp:139] Memory required for data: 200960
I0428 20:10:49.795552 31950 layer_factory.hpp:77] Creating layer conv0
I0428 20:10:49.795568 31950 net.cpp:86] Creating Layer conv0
I0428 20:10:49.795588 31950 net.cpp:408] conv0 <- data
I0428 20:10:49.795603 31950 net.cpp:382] conv0 -> conv0
I0428 20:10:50.088376 31950 net.cpp:124] Setting up conv0
I0428 20:10:50.088409 31950 net.cpp:131] Top shape: 64 25 24 24 (921600)
I0428 20:10:50.088414 31950 net.cpp:139] Memory required for data: 3887360
I0428 20:10:50.088433 31950 layer_factory.hpp:77] Creating layer pool0
I0428 20:10:50.088448 31950 net.cpp:86] Creating Layer pool0
I0428 20:10:50.088454 31950 net.cpp:408] pool0 <- conv0
I0428 20:10:50.088461 31950 net.cpp:382] pool0 -> pool0
I0428 20:10:50.088516 31950 net.cpp:124] Setting up pool0
I0428 20:10:50.088523 31950 net.cpp:131] Top shape: 64 25 12 12 (230400)
I0428 20:10:50.088526 31950 net.cpp:139] Memory required for data: 4808960
I0428 20:10:50.088531 31950 layer_factory.hpp:77] Creating layer conv1
I0428 20:10:50.088544 31950 net.cpp:86] Creating Layer conv1
I0428 20:10:50.088548 31950 net.cpp:408] conv1 <- pool0
I0428 20:10:50.088554 31950 net.cpp:382] conv1 -> conv1
I0428 20:10:50.090874 31950 net.cpp:124] Setting up conv1
I0428 20:10:50.090891 31950 net.cpp:131] Top shape: 64 50 8 8 (204800)
I0428 20:10:50.090896 31950 net.cpp:139] Memory required for data: 5628160
I0428 20:10:50.090905 31950 layer_factory.hpp:77] Creating layer pool1
I0428 20:10:50.090915 31950 net.cpp:86] Creating Layer pool1
I0428 20:10:50.090920 31950 net.cpp:408] pool1 <- conv1
I0428 20:10:50.090926 31950 net.cpp:382] pool1 -> pool1
I0428 20:10:50.090970 31950 net.cpp:124] Setting up pool1
I0428 20:10:50.090977 31950 net.cpp:131] Top shape: 64 50 4 4 (51200)
I0428 20:10:50.090981 31950 net.cpp:139] Memory required for data: 5832960
I0428 20:10:50.090983 31950 layer_factory.hpp:77] Creating layer ip1
I0428 20:10:50.090992 31950 net.cpp:86] Creating Layer ip1
I0428 20:10:50.090996 31950 net.cpp:408] ip1 <- pool1
I0428 20:10:50.091002 31950 net.cpp:382] ip1 -> ip1
I0428 20:10:50.092109 31950 net.cpp:124] Setting up ip1
I0428 20:10:50.092123 31950 net.cpp:131] Top shape: 64 10 (640)
I0428 20:10:50.092128 31950 net.cpp:139] Memory required for data: 5835520
I0428 20:10:50.092139 31950 layer_factory.hpp:77] Creating layer relu1
I0428 20:10:50.092147 31950 net.cpp:86] Creating Layer relu1
I0428 20:10:50.092151 31950 net.cpp:408] relu1 <- ip1
I0428 20:10:50.092156 31950 net.cpp:369] relu1 -> ip1 (in-place)
I0428 20:10:50.092360 31950 net.cpp:124] Setting up relu1
I0428 20:10:50.092368 31950 net.cpp:131] Top shape: 64 10 (640)
I0428 20:10:50.092372 31950 net.cpp:139] Memory required for data: 5838080
I0428 20:10:50.092376 31950 layer_factory.hpp:77] Creating layer ip2
I0428 20:10:50.092383 31950 net.cpp:86] Creating Layer ip2
I0428 20:10:50.092387 31950 net.cpp:408] ip2 <- ip1
I0428 20:10:50.092394 31950 net.cpp:382] ip2 -> ip2
I0428 20:10:50.092510 31950 net.cpp:124] Setting up ip2
I0428 20:10:50.092519 31950 net.cpp:131] Top shape: 64 10 (640)
I0428 20:10:50.092522 31950 net.cpp:139] Memory required for data: 5840640
I0428 20:10:50.092528 31950 layer_factory.hpp:77] Creating layer relu2
I0428 20:10:50.092537 31950 net.cpp:86] Creating Layer relu2
I0428 20:10:50.092540 31950 net.cpp:408] relu2 <- ip2
I0428 20:10:50.092545 31950 net.cpp:369] relu2 -> ip2 (in-place)
I0428 20:10:50.093379 31950 net.cpp:124] Setting up relu2
I0428 20:10:50.093394 31950 net.cpp:131] Top shape: 64 10 (640)
I0428 20:10:50.093397 31950 net.cpp:139] Memory required for data: 5843200
I0428 20:10:50.093401 31950 layer_factory.hpp:77] Creating layer ip3
I0428 20:10:50.093410 31950 net.cpp:86] Creating Layer ip3
I0428 20:10:50.093412 31950 net.cpp:408] ip3 <- ip2
I0428 20:10:50.093418 31950 net.cpp:382] ip3 -> ip3
I0428 20:10:50.093525 31950 net.cpp:124] Setting up ip3
I0428 20:10:50.093534 31950 net.cpp:131] Top shape: 64 10 (640)
I0428 20:10:50.093538 31950 net.cpp:139] Memory required for data: 5845760
I0428 20:10:50.093546 31950 layer_factory.hpp:77] Creating layer relu3
I0428 20:10:50.093552 31950 net.cpp:86] Creating Layer relu3
I0428 20:10:50.093555 31950 net.cpp:408] relu3 <- ip3
I0428 20:10:50.093559 31950 net.cpp:369] relu3 -> ip3 (in-place)
I0428 20:10:50.093737 31950 net.cpp:124] Setting up relu3
I0428 20:10:50.093747 31950 net.cpp:131] Top shape: 64 10 (640)
I0428 20:10:50.093750 31950 net.cpp:139] Memory required for data: 5848320
I0428 20:10:50.093753 31950 layer_factory.hpp:77] Creating layer loss
I0428 20:10:50.093760 31950 net.cpp:86] Creating Layer loss
I0428 20:10:50.093763 31950 net.cpp:408] loss <- ip3
I0428 20:10:50.093768 31950 net.cpp:408] loss <- label
I0428 20:10:50.093775 31950 net.cpp:382] loss -> loss
I0428 20:10:50.093794 31950 layer_factory.hpp:77] Creating layer loss
…
I0428 20:10:50.094467 31950 solver.cpp:173] Creating test net (#0) specified by net file: ECE595/mnist/train_test/var_everything2/lenet_train_test1144.prototxt
I0428 20:10:50.094497 31950 net.cpp:296] The NetState phase (1) differed from the phase (0) specified by a rule in layer mnist
I0428 20:10:50.094594 31950 net.cpp:53] Initializing net from parameters: 
name: "LeNet"
state {
  phase: TEST
}
layer {
  name: "mnist"
  type: "Data"
  top: "data"
  top: "label"
  include {
    phase: TEST
  }
  transform_param {
    scale: 0.00390625
  }
  data_param {
    source: "examples/mnist/mnist_test_lmdb"
    batch_size: 100
    backend: LMDB
  }
}
layer {
  name: "conv0"
  type: "Convolution"
  bottom: "data"
  top: "conv0"
  param {
    lr_mult: 1
  }
  param {
    lr_mult: 2
  }
  convolution_param {
    num_output: 25
    kernel_size: 5
    stride: 1
    weight_filler {
      type: "xavier"
    }
    bias_filler {
      type: "constant"
    }
  }
}
layer {
  name: "pool0"
  type: "Pooling"
  bottom: "conv0"
  top: "pool0"
  pooling_param {
    pool: MAX
    kernel_size: 2
    stride: 2
  }
}
layer {
  name: "conv1"
  type: "Convolution"
  bottom: "pool0"
  top: "conv1"
  param {
    lr_mult: 1
  }
  param {
    lr_mult: 2
  }
  convolution_param {
    num_output: 50
    kernel_size: 5
    stride: 1
    weight_filler {
      type: "xavier"
    }
    bias_filler {
      type: "constant"
    }
  }
}
layer {
  name: "pool1"
  type: "Pooling"
  bottom: "conv1"
  top: "pool1"
  pooling_param {
    pool: MAX
    kernel_size: 2
    stride: 2
  }
}
layer {
  name: "ip1"
  type: "InnerProduct"
  bottom: "pool1"
  top: "ip1"
  param {
    lr_mult: 1
  }
  param {
    lr_mult: 2
  }
  inner_product_param {
    num_output: 10
    weight_filler {
      type: "xavier"
    }
    bias_filler {
      type: "constant"
    }
  }
}
layer {
  name: "relu1"
  type: "ReLU"
  bottom: "ip1"
  top: "ip1"
}
layer {
  name: "ip2"
  type: "InnerProduct"
  bottom: "ip1"
  top: "ip2"
  param {
    lr_mult: 1
  }
  param {
    lr_mult: 2
  }
  inner_product_param {
    num_output: 10
    weight_filler {
      type: "xavier"
    }
    bias_filler {
      type: "constant"
    }
  }
}
layer {
  name: "relu2"
  type: "ReLU"
  bottom: "ip2"
  top: "ip2"
}
layer {
  name: "ip3"
  type: "InnerProduct"
  bottom: "ip2"
  top: "ip3"
  param {
    lr_mult: 1
  }
  param {
    lr_mult: 2
  }
  inner_product_param {
    num_output: 10
    weight_filler {
      type: "xavier"
    }
    bias_filler {
      type: "constant"
    }
  }
}
layer {
  name: "relu3"
  type: "ReLU"
  bottom: "ip3"
  top: "ip3"
}
layer {
  name: "accuracy"
  type: "Accuracy"
  bottom: "ip3"
  bottom: "label"
  top: "accuracy"
  include {
    phase: TEST
  }
}
layer {
  name: "loss"
  type: "SoftmaxWithLoss"
  bottom: "ip3"
  bottom: "label"
  top: "loss"
}
I0428 20:10:50.094681 31950 layer_factory.hpp:77] Creating layer mnist
I0428 20:10:50.094732 31950 db_lmdb.cpp:35] Opened lmdb examples/mnist/mnist_test_lmdb
I0428 20:10:50.094746 31950 net.cpp:86] Creating Layer mnist
I0428 20:10:50.094751 31950 net.cpp:382] mnist -> data
I0428 20:10:50.094759 31950 net.cpp:382] mnist -> label
I0428 20:10:50.094851 31950 data_layer.cpp:45] output data size: 100,1,28,28
I0428 20:10:50.096911 31950 net.cpp:124] Setting up mnist
I0428 20:10:50.096926 31950 net.cpp:131] Top shape: 100 1 28 28 (78400)
I0428 20:10:50.096932 31950 net.cpp:131] Top shape: 100 (100)
I0428 20:10:50.096935 31950 net.cpp:139] Memory required for data: 314000
I0428 20:10:50.096940 31950 layer_factory.hpp:77] Creating layer label_mnist_1_split
I0428 20:10:50.096951 31950 net.cpp:86] Creating Layer label_mnist_1_split
I0428 20:10:50.096956 31950 net.cpp:408] label_mnist_1_split <- label
I0428 20:10:50.096961 31950 net.cpp:382] label_mnist_1_split -> label_mnist_1_split_0
I0428 20:10:50.096969 31950 net.cpp:382] label_mnist_1_split -> label_mnist_1_split_1
I0428 20:10:50.097017 31950 net.cpp:124] Setting up label_mnist_1_split
I0428 20:10:50.097023 31950 net.cpp:131] Top shape: 100 (100)
I0428 20:10:50.097026 31950 net.cpp:131] Top shape: 100 (100)
I0428 20:10:50.097029 31950 net.cpp:139] Memory required for data: 314800
I0428 20:10:50.097033 31950 layer_factory.hpp:77] Creating layer conv0
I0428 20:10:50.097043 31950 net.cpp:86] Creating Layer conv0
I0428 20:10:50.097045 31950 net.cpp:408] conv0 <- data
I0428 20:10:50.097050 31950 net.cpp:382] conv0 -> conv0
I0428 20:10:50.098819 31950 net.cpp:124] Setting up conv0
I0428 20:10:50.098835 31950 net.cpp:131] Top shape: 100 25 24 24 (1440000)
I0428 20:10:50.098839 31950 net.cpp:139] Memory required for data: 6074800
I0428 20:10:50.098850 31950 layer_factory.hpp:77] Creating layer pool0
I0428 20:10:50.098856 31950 net.cpp:86] Creating Layer pool0
I0428 20:10:50.098860 31950 net.cpp:408] pool0 <- conv0
I0428 20:10:50.098866 31950 net.cpp:382] pool0 -> pool0
I0428 20:10:50.098906 31950 net.cpp:124] Setting up pool0
I0428 20:10:50.098912 31950 net.cpp:131] Top shape: 100 25 12 12 (360000)
I0428 20:10:50.098914 31950 net.cpp:139] Memory required for data: 7514800
I0428 20:10:50.098917 31950 layer_factory.hpp:77] Creating layer conv1
I0428 20:10:50.098927 31950 net.cpp:86] Creating Layer conv1
I0428 20:10:50.098930 31950 net.cpp:408] conv1 <- pool0
I0428 20:10:50.098935 31950 net.cpp:382] conv1 -> conv1
I0428 20:10:50.100697 31950 net.cpp:124] Setting up conv1
I0428 20:10:50.100711 31950 net.cpp:131] Top shape: 100 50 8 8 (320000)
I0428 20:10:50.100716 31950 net.cpp:139] Memory required for data: 8794800
I0428 20:10:50.100726 31950 layer_factory.hpp:77] Creating layer pool1
I0428 20:10:50.100733 31950 net.cpp:86] Creating Layer pool1
I0428 20:10:50.100738 31950 net.cpp:408] pool1 <- conv1
I0428 20:10:50.100742 31950 net.cpp:382] pool1 -> pool1
I0428 20:10:50.100790 31950 net.cpp:124] Setting up pool1
I0428 20:10:50.100795 31950 net.cpp:131] Top shape: 100 50 4 4 (80000)
I0428 20:10:50.100798 31950 net.cpp:139] Memory required for data: 9114800
I0428 20:10:50.100802 31950 layer_factory.hpp:77] Creating layer ip1
I0428 20:10:50.100816 31950 net.cpp:86] Creating Layer ip1
I0428 20:10:50.100821 31950 net.cpp:408] ip1 <- pool1
I0428 20:10:50.100826 31950 net.cpp:382] ip1 -> ip1
I0428 20:10:50.100976 31950 net.cpp:124] Setting up ip1
I0428 20:10:50.100986 31950 net.cpp:131] Top shape: 100 10 (1000)
I0428 20:10:50.101001 31950 net.cpp:139] Memory required for data: 9118800
I0428 20:10:50.101009 31950 layer_factory.hpp:77] Creating layer relu1
I0428 20:10:50.101014 31950 net.cpp:86] Creating Layer relu1
I0428 20:10:50.101018 31950 net.cpp:408] relu1 <- ip1
I0428 20:10:50.101024 31950 net.cpp:369] relu1 -> ip1 (in-place)
I0428 20:10:50.101192 31950 net.cpp:124] Setting up relu1
I0428 20:10:50.101202 31950 net.cpp:131] Top shape: 100 10 (1000)
I0428 20:10:50.101205 31950 net.cpp:139] Memory required for data: 9122800
I0428 20:10:50.101208 31950 layer_factory.hpp:77] Creating layer ip2
I0428 20:10:50.101217 31950 net.cpp:86] Creating Layer ip2
I0428 20:10:50.101220 31950 net.cpp:408] ip2 <- ip1
I0428 20:10:50.101225 31950 net.cpp:382] ip2 -> ip2
I0428 20:10:50.101349 31950 net.cpp:124] Setting up ip2
I0428 20:10:50.101357 31950 net.cpp:131] Top shape: 100 10 (1000)
I0428 20:10:50.101361 31950 net.cpp:139] Memory required for data: 9126800
I0428 20:10:50.101366 31950 layer_factory.hpp:77] Creating layer relu2
I0428 20:10:50.101372 31950 net.cpp:86] Creating Layer relu2
I0428 20:10:50.101375 31950 net.cpp:408] relu2 <- ip2
I0428 20:10:50.101379 31950 net.cpp:369] relu2 -> ip2 (in-place)
I0428 20:10:50.101589 31950 net.cpp:124] Setting up relu2
I0428 20:10:50.101599 31950 net.cpp:131] Top shape: 100 10 (1000)
I0428 20:10:50.101603 31950 net.cpp:139] Memory required for data: 9130800
I0428 20:10:50.101606 31950 layer_factory.hpp:77] Creating layer ip3
I0428 20:10:50.101613 31950 net.cpp:86] Creating Layer ip3
I0428 20:10:50.101616 31950 net.cpp:408] ip3 <- ip2
I0428 20:10:50.101622 31950 net.cpp:382] ip3 -> ip3
I0428 20:10:50.101722 31950 net.cpp:124] Setting up ip3
I0428 20:10:50.101730 31950 net.cpp:131] Top shape: 100 10 (1000)
I0428 20:10:50.101734 31950 net.cpp:139] Memory required for data: 9134800
I0428 20:10:50.101742 31950 layer_factory.hpp:77] Creating layer relu3
I0428 20:10:50.101747 31950 net.cpp:86] Creating Layer relu3
I0428 20:10:50.101752 31950 net.cpp:408] relu3 <- ip3
I0428 20:10:50.101757 31950 net.cpp:369] relu3 -> ip3 (in-place)
I0428 20:10:50.102607 31950 net.cpp:124] Setting up relu3
I0428 20:10:50.102619 31950 net.cpp:131] Top shape: 100 10 (1000)
I0428 20:10:50.102623 31950 net.cpp:139] Memory required for data: 9138800
I0428 20:10:50.102627 31950 layer_factory.hpp:77] Creating layer ip3_relu3_0_split
I0428 20:10:50.102633 31950 net.cpp:86] Creating Layer ip3_relu3_0_split
I0428 20:10:50.102638 31950 net.cpp:408] ip3_relu3_0_split <- ip3
I0428 20:10:50.102643 31950 net.cpp:382] ip3_relu3_0_split -> ip3_relu3_0_split_0
I0428 20:10:50.102649 31950 net.cpp:382] ip3_relu3_0_split -> ip3_relu3_0_split_1
I0428 20:10:50.102690 31950 net.cpp:124] Setting up ip3_relu3_0_split
I0428 20:10:50.102695 31950 net.cpp:131] Top shape: 100 10 (1000)
I0428 20:10:50.102699 31950 net.cpp:131] Top shape: 100 10 (1000)
I0428 20:10:50.102702 31950 net.cpp:139] Memory required for data: 9146800
I0428 20:10:50.102705 31950 layer_factory.hpp:77] Creating layer accuracy
I0428 20:10:50.102711 31950 net.cpp:86] Creating Layer accuracy
I0428 20:10:50.102715 31950 net.cpp:408] accuracy <- ip3_relu3_0_split_0
I0428 20:10:50.102720 31950 net.cpp:408] accuracy <- label_mnist_1_split_0
I0428 20:10:50.102725 31950 net.cpp:382] accuracy -> accuracy
…
