…
I0428 20:12:26.441453 32252 net.cpp:296] The NetState phase (0) differed from the phase (1) specified by a rule in layer mnist
I0428 20:12:26.441478 32252 net.cpp:296] The NetState phase (0) differed from the phase (1) specified by a rule in layer accuracy
I0428 20:12:26.441581 32252 net.cpp:53] Initializing net from parameters: 
name: "LeNet"
state {
  phase: TRAIN
  level: 0
  stage: ""
}
layer {
  name: "mnist"
  type: "Data"
  top: "data"
  top: "label"
  include {
    phase: TRAIN
  }
  transform_param {
    scale: 0.00390625
  }
  data_param {
    source: "examples/mnist/mnist_train_lmdb"
    batch_size: 64
    backend: LMDB
  }
}
layer {
  name: "conv0"
  type: "Convolution"
  bottom: "data"
  top: "conv0"
  param {
    lr_mult: 1
  }
  param {
    lr_mult: 2
  }
  convolution_param {
    num_output: 25
    kernel_size: 5
    stride: 1
    weight_filler {
      type: "xavier"
    }
    bias_filler {
      type: "constant"
    }
  }
}
layer {
  name: "pool0"
  type: "Pooling"
  bottom: "conv0"
  top: "pool0"
  pooling_param {
    pool: MAX
    kernel_size: 2
    stride: 2
  }
}
layer {
  name: "conv1"
  type: "Convolution"
  bottom: "pool0"
  top: "conv1"
  param {
    lr_mult: 1
  }
  param {
    lr_mult: 2
  }
  convolution_param {
    num_output: 100
    kernel_size: 5
    stride: 1
    weight_filler {
      type: "xavier"
    }
    bias_filler {
      type: "constant"
    }
  }
}
layer {
  name: "pool1"
  type: "Pooling"
  bottom: "conv1"
  top: "pool1"
  pooling_param {
    pool: MAX
    kernel_size: 2
    stride: 2
  }
}
layer {
  name: "ip1"
  type: "InnerProduct"
  bottom: "pool1"
  top: "ip1"
  param {
    lr_mult: 1
  }
  param {
    lr_mult: 2
  }
  inner_product_param {
    num_output: 50
    weight_filler {
      type: "xavier"
    }
    bias_filler {
      type: "constant"
    }
  }
}
layer {
  name: "relu1"
  type: "ReLU"
  bottom: "ip1"
  top: "ip1"
}
layer {
  name: "ip2"
  type: "InnerProduct"
  bottom: "ip1"
  top: "ip2"
  param {
    lr_mult: 1
  }
  param {
    lr_mult: 2
  }
  inner_product_param {
    num_output: 10
    weight_filler {
      type: "xavier"
    }
    bias_filler {
      type: "constant"
    }
  }
}
layer {
  name: "relu2"
  type: "ReLU"
  bottom: "ip2"
  top: "ip2"
}
layer {
  name: "loss"
  type: "SoftmaxWithLoss"
  bottom: "ip2"
  bottom: "label"
  top: "loss"
}
I0428 20:12:26.441692 32252 layer_factory.hpp:77] Creating layer mnist
I0428 20:12:26.441826 32252 db_lmdb.cpp:35] Opened lmdb examples/mnist/mnist_train_lmdb
I0428 20:12:26.441859 32252 net.cpp:86] Creating Layer mnist
I0428 20:12:26.441874 32252 net.cpp:382] mnist -> data
I0428 20:12:26.441903 32252 net.cpp:382] mnist -> label
I0428 20:12:26.443158 32252 data_layer.cpp:45] output data size: 64,1,28,28
I0428 20:12:26.445664 32252 net.cpp:124] Setting up mnist
I0428 20:12:26.445685 32252 net.cpp:131] Top shape: 64 1 28 28 (50176)
I0428 20:12:26.445695 32252 net.cpp:131] Top shape: 64 (64)
I0428 20:12:26.445701 32252 net.cpp:139] Memory required for data: 200960
I0428 20:12:26.445713 32252 layer_factory.hpp:77] Creating layer conv0
I0428 20:12:26.445737 32252 net.cpp:86] Creating Layer conv0
I0428 20:12:26.445747 32252 net.cpp:408] conv0 <- data
I0428 20:12:26.445767 32252 net.cpp:382] conv0 -> conv0
I0428 20:12:26.729439 32252 net.cpp:124] Setting up conv0
I0428 20:12:26.729468 32252 net.cpp:131] Top shape: 64 25 24 24 (921600)
I0428 20:12:26.729475 32252 net.cpp:139] Memory required for data: 3887360
I0428 20:12:26.729517 32252 layer_factory.hpp:77] Creating layer pool0
I0428 20:12:26.729537 32252 net.cpp:86] Creating Layer pool0
I0428 20:12:26.729544 32252 net.cpp:408] pool0 <- conv0
I0428 20:12:26.729553 32252 net.cpp:382] pool0 -> pool0
I0428 20:12:26.729605 32252 net.cpp:124] Setting up pool0
I0428 20:12:26.729614 32252 net.cpp:131] Top shape: 64 25 12 12 (230400)
I0428 20:12:26.729619 32252 net.cpp:139] Memory required for data: 4808960
I0428 20:12:26.729624 32252 layer_factory.hpp:77] Creating layer conv1
I0428 20:12:26.729640 32252 net.cpp:86] Creating Layer conv1
I0428 20:12:26.729645 32252 net.cpp:408] conv1 <- pool0
I0428 20:12:26.729655 32252 net.cpp:382] conv1 -> conv1
I0428 20:12:26.731982 32252 net.cpp:124] Setting up conv1
I0428 20:12:26.731998 32252 net.cpp:131] Top shape: 64 100 8 8 (409600)
I0428 20:12:26.732005 32252 net.cpp:139] Memory required for data: 6447360
I0428 20:12:26.732017 32252 layer_factory.hpp:77] Creating layer pool1
I0428 20:12:26.732029 32252 net.cpp:86] Creating Layer pool1
I0428 20:12:26.732055 32252 net.cpp:408] pool1 <- conv1
I0428 20:12:26.732064 32252 net.cpp:382] pool1 -> pool1
I0428 20:12:26.732107 32252 net.cpp:124] Setting up pool1
I0428 20:12:26.732116 32252 net.cpp:131] Top shape: 64 100 4 4 (102400)
I0428 20:12:26.732121 32252 net.cpp:139] Memory required for data: 6856960
I0428 20:12:26.732126 32252 layer_factory.hpp:77] Creating layer ip1
I0428 20:12:26.732137 32252 net.cpp:86] Creating Layer ip1
I0428 20:12:26.732146 32252 net.cpp:408] ip1 <- pool1
I0428 20:12:26.732156 32252 net.cpp:382] ip1 -> ip1
I0428 20:12:26.733686 32252 net.cpp:124] Setting up ip1
I0428 20:12:26.733701 32252 net.cpp:131] Top shape: 64 50 (3200)
I0428 20:12:26.733707 32252 net.cpp:139] Memory required for data: 6869760
I0428 20:12:26.733721 32252 layer_factory.hpp:77] Creating layer relu1
I0428 20:12:26.733729 32252 net.cpp:86] Creating Layer relu1
I0428 20:12:26.733741 32252 net.cpp:408] relu1 <- ip1
I0428 20:12:26.733749 32252 net.cpp:369] relu1 -> ip1 (in-place)
I0428 20:12:26.733937 32252 net.cpp:124] Setting up relu1
I0428 20:12:26.733947 32252 net.cpp:131] Top shape: 64 50 (3200)
I0428 20:12:26.733952 32252 net.cpp:139] Memory required for data: 6882560
I0428 20:12:26.733958 32252 layer_factory.hpp:77] Creating layer ip2
I0428 20:12:26.733968 32252 net.cpp:86] Creating Layer ip2
I0428 20:12:26.733973 32252 net.cpp:408] ip2 <- ip1
I0428 20:12:26.733981 32252 net.cpp:382] ip2 -> ip2
I0428 20:12:26.734086 32252 net.cpp:124] Setting up ip2
I0428 20:12:26.734094 32252 net.cpp:131] Top shape: 64 10 (640)
I0428 20:12:26.734099 32252 net.cpp:139] Memory required for data: 6885120
I0428 20:12:26.734108 32252 layer_factory.hpp:77] Creating layer relu2
I0428 20:12:26.734118 32252 net.cpp:86] Creating Layer relu2
I0428 20:12:26.734138 32252 net.cpp:408] relu2 <- ip2
I0428 20:12:26.734146 32252 net.cpp:369] relu2 -> ip2 (in-place)
I0428 20:12:26.734971 32252 net.cpp:124] Setting up relu2
I0428 20:12:26.734985 32252 net.cpp:131] Top shape: 64 10 (640)
I0428 20:12:26.734990 32252 net.cpp:139] Memory required for data: 6887680
I0428 20:12:26.734997 32252 layer_factory.hpp:77] Creating layer loss
I0428 20:12:26.735007 32252 net.cpp:86] Creating Layer loss
I0428 20:12:26.735013 32252 net.cpp:408] loss <- ip2
I0428 20:12:26.735019 32252 net.cpp:408] loss <- label
I0428 20:12:26.735028 32252 net.cpp:382] loss -> loss
I0428 20:12:26.735051 32252 layer_factory.hpp:77] Creating layer loss
…
I0428 20:12:26.735741 32252 solver.cpp:173] Creating test net (#0) specified by net file: ECE595/mnist/train_test/var_everything2/lenet_train_test1180.prototxt
I0428 20:12:26.735774 32252 net.cpp:296] The NetState phase (1) differed from the phase (0) specified by a rule in layer mnist
I0428 20:12:26.735879 32252 net.cpp:53] Initializing net from parameters: 
name: "LeNet"
state {
  phase: TEST
}
layer {
  name: "mnist"
  type: "Data"
  top: "data"
  top: "label"
  include {
    phase: TEST
  }
  transform_param {
    scale: 0.00390625
  }
  data_param {
    source: "examples/mnist/mnist_test_lmdb"
    batch_size: 100
    backend: LMDB
  }
}
layer {
  name: "conv0"
  type: "Convolution"
  bottom: "data"
  top: "conv0"
  param {
    lr_mult: 1
  }
  param {
    lr_mult: 2
  }
  convolution_param {
    num_output: 25
    kernel_size: 5
    stride: 1
    weight_filler {
      type: "xavier"
    }
    bias_filler {
      type: "constant"
    }
  }
}
layer {
  name: "pool0"
  type: "Pooling"
  bottom: "conv0"
  top: "pool0"
  pooling_param {
    pool: MAX
    kernel_size: 2
    stride: 2
  }
}
layer {
  name: "conv1"
  type: "Convolution"
  bottom: "pool0"
  top: "conv1"
  param {
    lr_mult: 1
  }
  param {
    lr_mult: 2
  }
  convolution_param {
    num_output: 100
    kernel_size: 5
    stride: 1
    weight_filler {
      type: "xavier"
    }
    bias_filler {
      type: "constant"
    }
  }
}
layer {
  name: "pool1"
  type: "Pooling"
  bottom: "conv1"
  top: "pool1"
  pooling_param {
    pool: MAX
    kernel_size: 2
    stride: 2
  }
}
layer {
  name: "ip1"
  type: "InnerProduct"
  bottom: "pool1"
  top: "ip1"
  param {
    lr_mult: 1
  }
  param {
    lr_mult: 2
  }
  inner_product_param {
    num_output: 50
    weight_filler {
      type: "xavier"
    }
    bias_filler {
      type: "constant"
    }
  }
}
layer {
  name: "relu1"
  type: "ReLU"
  bottom: "ip1"
  top: "ip1"
}
layer {
  name: "ip2"
  type: "InnerProduct"
  bottom: "ip1"
  top: "ip2"
  param {
    lr_mult: 1
  }
  param {
    lr_mult: 2
  }
  inner_product_param {
    num_output: 10
    weight_filler {
      type: "xavier"
    }
    bias_filler {
      type: "constant"
    }
  }
}
layer {
  name: "relu2"
  type: "ReLU"
  bottom: "ip2"
  top: "ip2"
}
layer {
  name: "accuracy"
  type: "Accuracy"
  bottom: "ip2"
  bottom: "label"
  top: "accuracy"
  include {
    phase: TEST
  }
}
layer {
  name: "loss"
  type: "SoftmaxWithLoss"
  bottom: "ip2"
  bottom: "label"
  top: "loss"
}
I0428 20:12:26.735975 32252 layer_factory.hpp:77] Creating layer mnist
I0428 20:12:26.736033 32252 db_lmdb.cpp:35] Opened lmdb examples/mnist/mnist_test_lmdb
I0428 20:12:26.736050 32252 net.cpp:86] Creating Layer mnist
I0428 20:12:26.736058 32252 net.cpp:382] mnist -> data
I0428 20:12:26.736069 32252 net.cpp:382] mnist -> label
I0428 20:12:26.736184 32252 data_layer.cpp:45] output data size: 100,1,28,28
I0428 20:12:26.737501 32252 net.cpp:124] Setting up mnist
I0428 20:12:26.737519 32252 net.cpp:131] Top shape: 100 1 28 28 (78400)
I0428 20:12:26.737526 32252 net.cpp:131] Top shape: 100 (100)
I0428 20:12:26.737531 32252 net.cpp:139] Memory required for data: 314000
I0428 20:12:26.737537 32252 layer_factory.hpp:77] Creating layer label_mnist_1_split
I0428 20:12:26.737547 32252 net.cpp:86] Creating Layer label_mnist_1_split
I0428 20:12:26.737553 32252 net.cpp:408] label_mnist_1_split <- label
I0428 20:12:26.737561 32252 net.cpp:382] label_mnist_1_split -> label_mnist_1_split_0
I0428 20:12:26.737572 32252 net.cpp:382] label_mnist_1_split -> label_mnist_1_split_1
I0428 20:12:26.737638 32252 net.cpp:124] Setting up label_mnist_1_split
I0428 20:12:26.737648 32252 net.cpp:131] Top shape: 100 (100)
I0428 20:12:26.737655 32252 net.cpp:131] Top shape: 100 (100)
I0428 20:12:26.737660 32252 net.cpp:139] Memory required for data: 314800
I0428 20:12:26.737666 32252 layer_factory.hpp:77] Creating layer conv0
I0428 20:12:26.737679 32252 net.cpp:86] Creating Layer conv0
I0428 20:12:26.737686 32252 net.cpp:408] conv0 <- data
I0428 20:12:26.737695 32252 net.cpp:382] conv0 -> conv0
I0428 20:12:26.739384 32252 net.cpp:124] Setting up conv0
I0428 20:12:26.739400 32252 net.cpp:131] Top shape: 100 25 24 24 (1440000)
I0428 20:12:26.739406 32252 net.cpp:139] Memory required for data: 6074800
I0428 20:12:26.739435 32252 layer_factory.hpp:77] Creating layer pool0
I0428 20:12:26.739445 32252 net.cpp:86] Creating Layer pool0
I0428 20:12:26.739451 32252 net.cpp:408] pool0 <- conv0
I0428 20:12:26.739459 32252 net.cpp:382] pool0 -> pool0
I0428 20:12:26.739500 32252 net.cpp:124] Setting up pool0
I0428 20:12:26.739509 32252 net.cpp:131] Top shape: 100 25 12 12 (360000)
I0428 20:12:26.739514 32252 net.cpp:139] Memory required for data: 7514800
I0428 20:12:26.739519 32252 layer_factory.hpp:77] Creating layer conv1
I0428 20:12:26.739532 32252 net.cpp:86] Creating Layer conv1
I0428 20:12:26.739539 32252 net.cpp:408] conv1 <- pool0
I0428 20:12:26.739547 32252 net.cpp:382] conv1 -> conv1
I0428 20:12:26.741432 32252 net.cpp:124] Setting up conv1
I0428 20:12:26.741447 32252 net.cpp:131] Top shape: 100 100 8 8 (640000)
I0428 20:12:26.741453 32252 net.cpp:139] Memory required for data: 10074800
I0428 20:12:26.741480 32252 layer_factory.hpp:77] Creating layer pool1
I0428 20:12:26.741490 32252 net.cpp:86] Creating Layer pool1
I0428 20:12:26.741495 32252 net.cpp:408] pool1 <- conv1
I0428 20:12:26.741504 32252 net.cpp:382] pool1 -> pool1
I0428 20:12:26.741546 32252 net.cpp:124] Setting up pool1
I0428 20:12:26.741555 32252 net.cpp:131] Top shape: 100 100 4 4 (160000)
I0428 20:12:26.741560 32252 net.cpp:139] Memory required for data: 10714800
I0428 20:12:26.741566 32252 layer_factory.hpp:77] Creating layer ip1
I0428 20:12:26.741575 32252 net.cpp:86] Creating Layer ip1
I0428 20:12:26.741581 32252 net.cpp:408] ip1 <- pool1
I0428 20:12:26.741590 32252 net.cpp:382] ip1 -> ip1
I0428 20:12:26.742143 32252 net.cpp:124] Setting up ip1
I0428 20:12:26.742153 32252 net.cpp:131] Top shape: 100 50 (5000)
I0428 20:12:26.742158 32252 net.cpp:139] Memory required for data: 10734800
I0428 20:12:26.742171 32252 layer_factory.hpp:77] Creating layer relu1
I0428 20:12:26.742180 32252 net.cpp:86] Creating Layer relu1
I0428 20:12:26.742187 32252 net.cpp:408] relu1 <- ip1
I0428 20:12:26.742194 32252 net.cpp:369] relu1 -> ip1 (in-place)
I0428 20:12:26.742404 32252 net.cpp:124] Setting up relu1
I0428 20:12:26.742413 32252 net.cpp:131] Top shape: 100 50 (5000)
I0428 20:12:26.742419 32252 net.cpp:139] Memory required for data: 10754800
I0428 20:12:26.742424 32252 layer_factory.hpp:77] Creating layer ip2
I0428 20:12:26.742449 32252 net.cpp:86] Creating Layer ip2
I0428 20:12:26.742465 32252 net.cpp:408] ip2 <- ip1
I0428 20:12:26.742472 32252 net.cpp:382] ip2 -> ip2
I0428 20:12:26.742594 32252 net.cpp:124] Setting up ip2
I0428 20:12:26.742604 32252 net.cpp:131] Top shape: 100 10 (1000)
I0428 20:12:26.742609 32252 net.cpp:139] Memory required for data: 10758800
I0428 20:12:26.742619 32252 layer_factory.hpp:77] Creating layer relu2
I0428 20:12:26.742626 32252 net.cpp:86] Creating Layer relu2
I0428 20:12:26.742631 32252 net.cpp:408] relu2 <- ip2
I0428 20:12:26.742638 32252 net.cpp:369] relu2 -> ip2 (in-place)
I0428 20:12:26.742807 32252 net.cpp:124] Setting up relu2
I0428 20:12:26.742820 32252 net.cpp:131] Top shape: 100 10 (1000)
I0428 20:12:26.742835 32252 net.cpp:139] Memory required for data: 10762800
I0428 20:12:26.742841 32252 layer_factory.hpp:77] Creating layer ip2_relu2_0_split
I0428 20:12:26.742848 32252 net.cpp:86] Creating Layer ip2_relu2_0_split
I0428 20:12:26.742853 32252 net.cpp:408] ip2_relu2_0_split <- ip2
I0428 20:12:26.742861 32252 net.cpp:382] ip2_relu2_0_split -> ip2_relu2_0_split_0
I0428 20:12:26.742882 32252 net.cpp:382] ip2_relu2_0_split -> ip2_relu2_0_split_1
I0428 20:12:26.742923 32252 net.cpp:124] Setting up ip2_relu2_0_split
I0428 20:12:26.742933 32252 net.cpp:131] Top shape: 100 10 (1000)
I0428 20:12:26.742938 32252 net.cpp:131] Top shape: 100 10 (1000)
I0428 20:12:26.742944 32252 net.cpp:139] Memory required for data: 10770800
I0428 20:12:26.742949 32252 layer_factory.hpp:77] Creating layer accuracy
I0428 20:12:26.742956 32252 net.cpp:86] Creating Layer accuracy
I0428 20:12:26.742962 32252 net.cpp:408] accuracy <- ip2_relu2_0_split_0
I0428 20:12:26.742969 32252 net.cpp:408] accuracy <- label_mnist_1_split_0
I0428 20:12:26.742976 32252 net.cpp:382] accuracy -> accuracy
…
