…
I0428 20:30:21.020174  3707 net.cpp:296] The NetState phase (0) differed from the phase (1) specified by a rule in layer mnist
I0428 20:30:21.020191  3707 net.cpp:296] The NetState phase (0) differed from the phase (1) specified by a rule in layer accuracy
I0428 20:30:21.020287  3707 net.cpp:53] Initializing net from parameters: 
name: "LeNet"
state {
  phase: TRAIN
  level: 0
  stage: ""
}
layer {
  name: "mnist"
  type: "Data"
  top: "data"
  top: "label"
  include {
    phase: TRAIN
  }
  transform_param {
    scale: 0.00390625
  }
  data_param {
    source: "examples/mnist/mnist_train_lmdb"
    batch_size: 64
    backend: LMDB
  }
}
layer {
  name: "conv0"
  type: "Convolution"
  bottom: "data"
  top: "conv0"
  param {
    lr_mult: 1
  }
  param {
    lr_mult: 2
  }
  convolution_param {
    num_output: 100
    kernel_size: 5
    stride: 1
    weight_filler {
      type: "xavier"
    }
    bias_filler {
      type: "constant"
    }
  }
}
layer {
  name: "pool0"
  type: "Pooling"
  bottom: "conv0"
  top: "pool0"
  pooling_param {
    pool: MAX
    kernel_size: 2
    stride: 2
  }
}
layer {
  name: "conv1"
  type: "Convolution"
  bottom: "pool0"
  top: "conv1"
  param {
    lr_mult: 1
  }
  param {
    lr_mult: 2
  }
  convolution_param {
    num_output: 10
    kernel_size: 5
    stride: 1
    weight_filler {
      type: "xavier"
    }
    bias_filler {
      type: "constant"
    }
  }
}
layer {
  name: "pool1"
  type: "Pooling"
  bottom: "conv1"
  top: "pool1"
  pooling_param {
    pool: MAX
    kernel_size: 2
    stride: 2
  }
}
layer {
  name: "ip1"
  type: "InnerProduct"
  bottom: "pool1"
  top: "ip1"
  param {
    lr_mult: 1
  }
  param {
    lr_mult: 2
  }
  inner_product_param {
    num_output: 10
    weight_filler {
      type: "xavier"
    }
    bias_filler {
      type: "constant"
    }
  }
}
layer {
  name: "relu1"
  type: "ReLU"
  bottom: "ip1"
  top: "ip1"
}
layer {
  name: "ip2"
  type: "InnerProduct"
  bottom: "ip1"
  top: "ip2"
  param {
    lr_mult: 1
  }
  param {
    lr_mult: 2
  }
  inner_product_param {
    num_output: 25
    weight_filler {
      type: "xavier"
    }
    bias_filler {
      type: "constant"
    }
  }
}
layer {
  name: "relu2"
  type: "ReLU"
  bottom: "ip2"
  top: "ip2"
}
layer {
  name: "ip3"
  type: "InnerProduct"
  bottom: "ip2"
  top: "ip3"
  param {
    lr_mult: 1
  }
  param {
    lr_mult: 2
  }
  inner_product_param {
    num_output: 10
    weight_filler {
      type: "xavier"
    }
    bias_filler {
      type: "constant"
    }
  }
}
layer {
  name: "relu3"
  type: "ReLU"
  bottom: "ip3"
  top: "ip3"
}
layer {
  name: "loss"
  type: "SoftmaxWithLoss"
  bottom: "ip3"
  bottom: "label"
  top: "loss"
}
I0428 20:30:21.020360  3707 layer_factory.hpp:77] Creating layer mnist
I0428 20:30:21.020460  3707 db_lmdb.cpp:35] Opened lmdb examples/mnist/mnist_train_lmdb
I0428 20:30:21.020485  3707 net.cpp:86] Creating Layer mnist
I0428 20:30:21.020493  3707 net.cpp:382] mnist -> data
I0428 20:30:21.020516  3707 net.cpp:382] mnist -> label
I0428 20:30:21.021613  3707 data_layer.cpp:45] output data size: 64,1,28,28
I0428 20:30:21.024072  3707 net.cpp:124] Setting up mnist
I0428 20:30:21.024091  3707 net.cpp:131] Top shape: 64 1 28 28 (50176)
I0428 20:30:21.024096  3707 net.cpp:131] Top shape: 64 (64)
I0428 20:30:21.024101  3707 net.cpp:139] Memory required for data: 200960
I0428 20:30:21.024107  3707 layer_factory.hpp:77] Creating layer conv0
I0428 20:30:21.024123  3707 net.cpp:86] Creating Layer conv0
I0428 20:30:21.024144  3707 net.cpp:408] conv0 <- data
I0428 20:30:21.024157  3707 net.cpp:382] conv0 -> conv0
I0428 20:30:21.306440  3707 net.cpp:124] Setting up conv0
I0428 20:30:21.306468  3707 net.cpp:131] Top shape: 64 100 24 24 (3686400)
I0428 20:30:21.306471  3707 net.cpp:139] Memory required for data: 14946560
I0428 20:30:21.306486  3707 layer_factory.hpp:77] Creating layer pool0
I0428 20:30:21.306499  3707 net.cpp:86] Creating Layer pool0
I0428 20:30:21.306504  3707 net.cpp:408] pool0 <- conv0
I0428 20:30:21.306509  3707 net.cpp:382] pool0 -> pool0
I0428 20:30:21.306552  3707 net.cpp:124] Setting up pool0
I0428 20:30:21.306558  3707 net.cpp:131] Top shape: 64 100 12 12 (921600)
I0428 20:30:21.306561  3707 net.cpp:139] Memory required for data: 18632960
I0428 20:30:21.306565  3707 layer_factory.hpp:77] Creating layer conv1
I0428 20:30:21.306576  3707 net.cpp:86] Creating Layer conv1
I0428 20:30:21.306577  3707 net.cpp:408] conv1 <- pool0
I0428 20:30:21.306582  3707 net.cpp:382] conv1 -> conv1
I0428 20:30:21.308542  3707 net.cpp:124] Setting up conv1
I0428 20:30:21.308573  3707 net.cpp:131] Top shape: 64 10 8 8 (40960)
I0428 20:30:21.308576  3707 net.cpp:139] Memory required for data: 18796800
I0428 20:30:21.308585  3707 layer_factory.hpp:77] Creating layer pool1
I0428 20:30:21.308594  3707 net.cpp:86] Creating Layer pool1
I0428 20:30:21.308598  3707 net.cpp:408] pool1 <- conv1
I0428 20:30:21.308603  3707 net.cpp:382] pool1 -> pool1
I0428 20:30:21.308640  3707 net.cpp:124] Setting up pool1
I0428 20:30:21.308646  3707 net.cpp:131] Top shape: 64 10 4 4 (10240)
I0428 20:30:21.308650  3707 net.cpp:139] Memory required for data: 18837760
I0428 20:30:21.308652  3707 layer_factory.hpp:77] Creating layer ip1
I0428 20:30:21.308660  3707 net.cpp:86] Creating Layer ip1
I0428 20:30:21.308663  3707 net.cpp:408] ip1 <- pool1
I0428 20:30:21.308668  3707 net.cpp:382] ip1 -> ip1
I0428 20:30:21.308847  3707 net.cpp:124] Setting up ip1
I0428 20:30:21.308856  3707 net.cpp:131] Top shape: 64 10 (640)
I0428 20:30:21.308859  3707 net.cpp:139] Memory required for data: 18840320
I0428 20:30:21.308867  3707 layer_factory.hpp:77] Creating layer relu1
I0428 20:30:21.308872  3707 net.cpp:86] Creating Layer relu1
I0428 20:30:21.308876  3707 net.cpp:408] relu1 <- ip1
I0428 20:30:21.308881  3707 net.cpp:369] relu1 -> ip1 (in-place)
I0428 20:30:21.309057  3707 net.cpp:124] Setting up relu1
I0428 20:30:21.309067  3707 net.cpp:131] Top shape: 64 10 (640)
I0428 20:30:21.309070  3707 net.cpp:139] Memory required for data: 18842880
I0428 20:30:21.309087  3707 layer_factory.hpp:77] Creating layer ip2
I0428 20:30:21.309094  3707 net.cpp:86] Creating Layer ip2
I0428 20:30:21.309098  3707 net.cpp:408] ip2 <- ip1
I0428 20:30:21.309103  3707 net.cpp:382] ip2 -> ip2
I0428 20:30:21.309211  3707 net.cpp:124] Setting up ip2
I0428 20:30:21.309219  3707 net.cpp:131] Top shape: 64 25 (1600)
I0428 20:30:21.309222  3707 net.cpp:139] Memory required for data: 18849280
I0428 20:30:21.309227  3707 layer_factory.hpp:77] Creating layer relu2
I0428 20:30:21.309234  3707 net.cpp:86] Creating Layer relu2
I0428 20:30:21.309237  3707 net.cpp:408] relu2 <- ip2
I0428 20:30:21.309242  3707 net.cpp:369] relu2 -> ip2 (in-place)
I0428 20:30:21.310034  3707 net.cpp:124] Setting up relu2
I0428 20:30:21.310045  3707 net.cpp:131] Top shape: 64 25 (1600)
I0428 20:30:21.310065  3707 net.cpp:139] Memory required for data: 18855680
I0428 20:30:21.310067  3707 layer_factory.hpp:77] Creating layer ip3
I0428 20:30:21.310075  3707 net.cpp:86] Creating Layer ip3
I0428 20:30:21.310080  3707 net.cpp:408] ip3 <- ip2
I0428 20:30:21.310084  3707 net.cpp:382] ip3 -> ip3
I0428 20:30:21.310195  3707 net.cpp:124] Setting up ip3
I0428 20:30:21.310204  3707 net.cpp:131] Top shape: 64 10 (640)
I0428 20:30:21.310206  3707 net.cpp:139] Memory required for data: 18858240
I0428 20:30:21.310214  3707 layer_factory.hpp:77] Creating layer relu3
I0428 20:30:21.310220  3707 net.cpp:86] Creating Layer relu3
I0428 20:30:21.310222  3707 net.cpp:408] relu3 <- ip3
I0428 20:30:21.310226  3707 net.cpp:369] relu3 -> ip3 (in-place)
I0428 20:30:21.310396  3707 net.cpp:124] Setting up relu3
I0428 20:30:21.310405  3707 net.cpp:131] Top shape: 64 10 (640)
I0428 20:30:21.310408  3707 net.cpp:139] Memory required for data: 18860800
I0428 20:30:21.310411  3707 layer_factory.hpp:77] Creating layer loss
I0428 20:30:21.310417  3707 net.cpp:86] Creating Layer loss
I0428 20:30:21.310420  3707 net.cpp:408] loss <- ip3
I0428 20:30:21.310423  3707 net.cpp:408] loss <- label
I0428 20:30:21.310428  3707 net.cpp:382] loss -> loss
I0428 20:30:21.310442  3707 layer_factory.hpp:77] Creating layer loss
…
I0428 20:30:21.311130  3707 solver.cpp:173] Creating test net (#0) specified by net file: ECE595/mnist/train_test/var_everything2/lenet_train_test1537.prototxt
I0428 20:30:21.311187  3707 net.cpp:296] The NetState phase (1) differed from the phase (0) specified by a rule in layer mnist
I0428 20:30:21.311333  3707 net.cpp:53] Initializing net from parameters: 
name: "LeNet"
state {
  phase: TEST
}
layer {
  name: "mnist"
  type: "Data"
  top: "data"
  top: "label"
  include {
    phase: TEST
  }
  transform_param {
    scale: 0.00390625
  }
  data_param {
    source: "examples/mnist/mnist_test_lmdb"
    batch_size: 100
    backend: LMDB
  }
}
layer {
  name: "conv0"
  type: "Convolution"
  bottom: "data"
  top: "conv0"
  param {
    lr_mult: 1
  }
  param {
    lr_mult: 2
  }
  convolution_param {
    num_output: 100
    kernel_size: 5
    stride: 1
    weight_filler {
      type: "xavier"
    }
    bias_filler {
      type: "constant"
    }
  }
}
layer {
  name: "pool0"
  type: "Pooling"
  bottom: "conv0"
  top: "pool0"
  pooling_param {
    pool: MAX
    kernel_size: 2
    stride: 2
  }
}
layer {
  name: "conv1"
  type: "Convolution"
  bottom: "pool0"
  top: "conv1"
  param {
    lr_mult: 1
  }
  param {
    lr_mult: 2
  }
  convolution_param {
    num_output: 10
    kernel_size: 5
    stride: 1
    weight_filler {
      type: "xavier"
    }
    bias_filler {
      type: "constant"
    }
  }
}
layer {
  name: "pool1"
  type: "Pooling"
  bottom: "conv1"
  top: "pool1"
  pooling_param {
    pool: MAX
    kernel_size: 2
    stride: 2
  }
}
layer {
  name: "ip1"
  type: "InnerProduct"
  bottom: "pool1"
  top: "ip1"
  param {
    lr_mult: 1
  }
  param {
    lr_mult: 2
  }
  inner_product_param {
    num_output: 10
    weight_filler {
      type: "xavier"
    }
    bias_filler {
      type: "constant"
    }
  }
}
layer {
  name: "relu1"
  type: "ReLU"
  bottom: "ip1"
  top: "ip1"
}
layer {
  name: "ip2"
  type: "InnerProduct"
  bottom: "ip1"
  top: "ip2"
  param {
    lr_mult: 1
  }
  param {
    lr_mult: 2
  }
  inner_product_param {
    num_output: 25
    weight_filler {
      type: "xavier"
    }
    bias_filler {
      type: "constant"
    }
  }
}
layer {
  name: "relu2"
  type: "ReLU"
  bottom: "ip2"
  top: "ip2"
}
layer {
  name: "ip3"
  type: "InnerProduct"
  bottom: "ip2"
  top: "ip3"
  param {
    lr_mult: 1
  }
  param {
    lr_mult: 2
  }
  inner_product_param {
    num_output: 10
    weight_filler {
      type: "xavier"
    }
    bias_filler {
      type: "constant"
    }
  }
}
layer {
  name: "relu3"
  type: "ReLU"
  bottom: "ip3"
  top: "ip3"
}
layer {
  name: "accuracy"
  type: "Accuracy"
  bottom: "ip3"
  bottom: "label"
  top: "accuracy"
  include {
    phase: TEST
  }
}
layer {
  name: "loss"
  type: "SoftmaxWithLoss"
  bottom: "ip3"
  bottom: "label"
  top: "loss"
}
I0428 20:30:21.311417  3707 layer_factory.hpp:77] Creating layer mnist
I0428 20:30:21.311458  3707 db_lmdb.cpp:35] Opened lmdb examples/mnist/mnist_test_lmdb
I0428 20:30:21.311475  3707 net.cpp:86] Creating Layer mnist
I0428 20:30:21.311480  3707 net.cpp:382] mnist -> data
I0428 20:30:21.311488  3707 net.cpp:382] mnist -> label
I0428 20:30:21.311589  3707 data_layer.cpp:45] output data size: 100,1,28,28
I0428 20:30:21.313642  3707 net.cpp:124] Setting up mnist
I0428 20:30:21.313654  3707 net.cpp:131] Top shape: 100 1 28 28 (78400)
I0428 20:30:21.313660  3707 net.cpp:131] Top shape: 100 (100)
I0428 20:30:21.313663  3707 net.cpp:139] Memory required for data: 314000
I0428 20:30:21.313666  3707 layer_factory.hpp:77] Creating layer label_mnist_1_split
I0428 20:30:21.313673  3707 net.cpp:86] Creating Layer label_mnist_1_split
I0428 20:30:21.313676  3707 net.cpp:408] label_mnist_1_split <- label
I0428 20:30:21.313681  3707 net.cpp:382] label_mnist_1_split -> label_mnist_1_split_0
I0428 20:30:21.313688  3707 net.cpp:382] label_mnist_1_split -> label_mnist_1_split_1
I0428 20:30:21.313743  3707 net.cpp:124] Setting up label_mnist_1_split
I0428 20:30:21.313748  3707 net.cpp:131] Top shape: 100 (100)
I0428 20:30:21.313752  3707 net.cpp:131] Top shape: 100 (100)
I0428 20:30:21.313755  3707 net.cpp:139] Memory required for data: 314800
I0428 20:30:21.313757  3707 layer_factory.hpp:77] Creating layer conv0
I0428 20:30:21.313766  3707 net.cpp:86] Creating Layer conv0
I0428 20:30:21.313769  3707 net.cpp:408] conv0 <- data
I0428 20:30:21.313776  3707 net.cpp:382] conv0 -> conv0
I0428 20:30:21.315629  3707 net.cpp:124] Setting up conv0
I0428 20:30:21.315659  3707 net.cpp:131] Top shape: 100 100 24 24 (5760000)
I0428 20:30:21.315662  3707 net.cpp:139] Memory required for data: 23354800
I0428 20:30:21.315670  3707 layer_factory.hpp:77] Creating layer pool0
I0428 20:30:21.315677  3707 net.cpp:86] Creating Layer pool0
I0428 20:30:21.315680  3707 net.cpp:408] pool0 <- conv0
I0428 20:30:21.315686  3707 net.cpp:382] pool0 -> pool0
I0428 20:30:21.315723  3707 net.cpp:124] Setting up pool0
I0428 20:30:21.315728  3707 net.cpp:131] Top shape: 100 100 12 12 (1440000)
I0428 20:30:21.315732  3707 net.cpp:139] Memory required for data: 29114800
I0428 20:30:21.315733  3707 layer_factory.hpp:77] Creating layer conv1
I0428 20:30:21.315742  3707 net.cpp:86] Creating Layer conv1
I0428 20:30:21.315745  3707 net.cpp:408] conv1 <- pool0
I0428 20:30:21.315752  3707 net.cpp:382] conv1 -> conv1
I0428 20:30:21.317550  3707 net.cpp:124] Setting up conv1
I0428 20:30:21.317565  3707 net.cpp:131] Top shape: 100 10 8 8 (64000)
I0428 20:30:21.317569  3707 net.cpp:139] Memory required for data: 29370800
I0428 20:30:21.317579  3707 layer_factory.hpp:77] Creating layer pool1
I0428 20:30:21.317584  3707 net.cpp:86] Creating Layer pool1
I0428 20:30:21.317589  3707 net.cpp:408] pool1 <- conv1
I0428 20:30:21.317596  3707 net.cpp:382] pool1 -> pool1
I0428 20:30:21.317636  3707 net.cpp:124] Setting up pool1
I0428 20:30:21.317641  3707 net.cpp:131] Top shape: 100 10 4 4 (16000)
I0428 20:30:21.317644  3707 net.cpp:139] Memory required for data: 29434800
I0428 20:30:21.317647  3707 layer_factory.hpp:77] Creating layer ip1
I0428 20:30:21.317654  3707 net.cpp:86] Creating Layer ip1
I0428 20:30:21.317658  3707 net.cpp:408] ip1 <- pool1
I0428 20:30:21.317663  3707 net.cpp:382] ip1 -> ip1
I0428 20:30:21.317800  3707 net.cpp:124] Setting up ip1
I0428 20:30:21.317821  3707 net.cpp:131] Top shape: 100 10 (1000)
I0428 20:30:21.317823  3707 net.cpp:139] Memory required for data: 29438800
I0428 20:30:21.317831  3707 layer_factory.hpp:77] Creating layer relu1
I0428 20:30:21.317850  3707 net.cpp:86] Creating Layer relu1
I0428 20:30:21.317854  3707 net.cpp:408] relu1 <- ip1
I0428 20:30:21.317858  3707 net.cpp:369] relu1 -> ip1 (in-place)
I0428 20:30:21.318040  3707 net.cpp:124] Setting up relu1
I0428 20:30:21.318049  3707 net.cpp:131] Top shape: 100 10 (1000)
I0428 20:30:21.318053  3707 net.cpp:139] Memory required for data: 29442800
I0428 20:30:21.318055  3707 layer_factory.hpp:77] Creating layer ip2
I0428 20:30:21.318063  3707 net.cpp:86] Creating Layer ip2
I0428 20:30:21.318065  3707 net.cpp:408] ip2 <- ip1
I0428 20:30:21.318073  3707 net.cpp:382] ip2 -> ip2
I0428 20:30:21.318182  3707 net.cpp:124] Setting up ip2
I0428 20:30:21.318191  3707 net.cpp:131] Top shape: 100 25 (2500)
I0428 20:30:21.318193  3707 net.cpp:139] Memory required for data: 29452800
I0428 20:30:21.318198  3707 layer_factory.hpp:77] Creating layer relu2
I0428 20:30:21.318210  3707 net.cpp:86] Creating Layer relu2
I0428 20:30:21.318224  3707 net.cpp:408] relu2 <- ip2
I0428 20:30:21.318236  3707 net.cpp:369] relu2 -> ip2 (in-place)
I0428 20:30:21.318418  3707 net.cpp:124] Setting up relu2
I0428 20:30:21.318428  3707 net.cpp:131] Top shape: 100 25 (2500)
I0428 20:30:21.318437  3707 net.cpp:139] Memory required for data: 29462800
I0428 20:30:21.318440  3707 layer_factory.hpp:77] Creating layer ip3
I0428 20:30:21.318445  3707 net.cpp:86] Creating Layer ip3
I0428 20:30:21.318455  3707 net.cpp:408] ip3 <- ip2
I0428 20:30:21.318470  3707 net.cpp:382] ip3 -> ip3
I0428 20:30:21.318578  3707 net.cpp:124] Setting up ip3
I0428 20:30:21.318585  3707 net.cpp:131] Top shape: 100 10 (1000)
I0428 20:30:21.318588  3707 net.cpp:139] Memory required for data: 29466800
I0428 20:30:21.318595  3707 layer_factory.hpp:77] Creating layer relu3
I0428 20:30:21.318599  3707 net.cpp:86] Creating Layer relu3
I0428 20:30:21.318603  3707 net.cpp:408] relu3 <- ip3
I0428 20:30:21.318608  3707 net.cpp:369] relu3 -> ip3 (in-place)
I0428 20:30:21.319427  3707 net.cpp:124] Setting up relu3
I0428 20:30:21.319438  3707 net.cpp:131] Top shape: 100 10 (1000)
I0428 20:30:21.319442  3707 net.cpp:139] Memory required for data: 29470800
I0428 20:30:21.319445  3707 layer_factory.hpp:77] Creating layer ip3_relu3_0_split
I0428 20:30:21.319463  3707 net.cpp:86] Creating Layer ip3_relu3_0_split
I0428 20:30:21.319465  3707 net.cpp:408] ip3_relu3_0_split <- ip3
I0428 20:30:21.319470  3707 net.cpp:382] ip3_relu3_0_split -> ip3_relu3_0_split_0
I0428 20:30:21.319491  3707 net.cpp:382] ip3_relu3_0_split -> ip3_relu3_0_split_1
I0428 20:30:21.319558  3707 net.cpp:124] Setting up ip3_relu3_0_split
I0428 20:30:21.319573  3707 net.cpp:131] Top shape: 100 10 (1000)
I0428 20:30:21.319577  3707 net.cpp:131] Top shape: 100 10 (1000)
I0428 20:30:21.319581  3707 net.cpp:139] Memory required for data: 29478800
I0428 20:30:21.319605  3707 layer_factory.hpp:77] Creating layer accuracy
I0428 20:30:21.319610  3707 net.cpp:86] Creating Layer accuracy
I0428 20:30:21.319613  3707 net.cpp:408] accuracy <- ip3_relu3_0_split_0
I0428 20:30:21.319617  3707 net.cpp:408] accuracy <- label_mnist_1_split_0
I0428 20:30:21.319623  3707 net.cpp:382] accuracy -> accuracy
…
