…
I0428 20:14:06.389729 32602 net.cpp:296] The NetState phase (0) differed from the phase (1) specified by a rule in layer mnist
I0428 20:14:06.389744 32602 net.cpp:296] The NetState phase (0) differed from the phase (1) specified by a rule in layer accuracy
I0428 20:14:06.389837 32602 net.cpp:53] Initializing net from parameters: 
name: "LeNet"
state {
  phase: TRAIN
  level: 0
  stage: ""
}
layer {
  name: "mnist"
  type: "Data"
  top: "data"
  top: "label"
  include {
    phase: TRAIN
  }
  transform_param {
    scale: 0.00390625
  }
  data_param {
    source: "examples/mnist/mnist_train_lmdb"
    batch_size: 64
    backend: LMDB
  }
}
layer {
  name: "conv0"
  type: "Convolution"
  bottom: "data"
  top: "conv0"
  param {
    lr_mult: 1
  }
  param {
    lr_mult: 2
  }
  convolution_param {
    num_output: 50
    kernel_size: 5
    stride: 1
    weight_filler {
      type: "xavier"
    }
    bias_filler {
      type: "constant"
    }
  }
}
layer {
  name: "pool0"
  type: "Pooling"
  bottom: "conv0"
  top: "pool0"
  pooling_param {
    pool: MAX
    kernel_size: 2
    stride: 2
  }
}
layer {
  name: "conv1"
  type: "Convolution"
  bottom: "pool0"
  top: "conv1"
  param {
    lr_mult: 1
  }
  param {
    lr_mult: 2
  }
  convolution_param {
    num_output: 2
    kernel_size: 5
    stride: 1
    weight_filler {
      type: "xavier"
    }
    bias_filler {
      type: "constant"
    }
  }
}
layer {
  name: "pool1"
  type: "Pooling"
  bottom: "conv1"
  top: "pool1"
  pooling_param {
    pool: MAX
    kernel_size: 2
    stride: 2
  }
}
layer {
  name: "ip1"
  type: "InnerProduct"
  bottom: "pool1"
  top: "ip1"
  param {
    lr_mult: 1
  }
  param {
    lr_mult: 2
  }
  inner_product_param {
    num_output: 10
    weight_filler {
      type: "xavier"
    }
    bias_filler {
      type: "constant"
    }
  }
}
layer {
  name: "relu1"
  type: "ReLU"
  bottom: "ip1"
  top: "ip1"
}
layer {
  name: "ip2"
  type: "InnerProduct"
  bottom: "ip1"
  top: "ip2"
  param {
    lr_mult: 1
  }
  param {
    lr_mult: 2
  }
  inner_product_param {
    num_output: 10
    weight_filler {
      type: "xavier"
    }
    bias_filler {
      type: "constant"
    }
  }
}
layer {
  name: "relu2"
  type: "ReLU"
  bottom: "ip2"
  top: "ip2"
}
layer {
  name: "loss"
  type: "SoftmaxWithLoss"
  bottom: "ip2"
  bottom: "label"
  top: "loss"
}
I0428 20:14:06.389909 32602 layer_factory.hpp:77] Creating layer mnist
I0428 20:14:06.390009 32602 db_lmdb.cpp:35] Opened lmdb examples/mnist/mnist_train_lmdb
I0428 20:14:06.390033 32602 net.cpp:86] Creating Layer mnist
I0428 20:14:06.390043 32602 net.cpp:382] mnist -> data
I0428 20:14:06.390064 32602 net.cpp:382] mnist -> label
I0428 20:14:06.391134 32602 data_layer.cpp:45] output data size: 64,1,28,28
I0428 20:14:06.393620 32602 net.cpp:124] Setting up mnist
I0428 20:14:06.393641 32602 net.cpp:131] Top shape: 64 1 28 28 (50176)
I0428 20:14:06.393647 32602 net.cpp:131] Top shape: 64 (64)
I0428 20:14:06.393651 32602 net.cpp:139] Memory required for data: 200960
I0428 20:14:06.393657 32602 layer_factory.hpp:77] Creating layer conv0
I0428 20:14:06.393674 32602 net.cpp:86] Creating Layer conv0
I0428 20:14:06.393682 32602 net.cpp:408] conv0 <- data
I0428 20:14:06.393693 32602 net.cpp:382] conv0 -> conv0
I0428 20:14:06.681100 32602 net.cpp:124] Setting up conv0
I0428 20:14:06.681128 32602 net.cpp:131] Top shape: 64 50 24 24 (1843200)
I0428 20:14:06.681133 32602 net.cpp:139] Memory required for data: 7573760
I0428 20:14:06.681169 32602 layer_factory.hpp:77] Creating layer pool0
I0428 20:14:06.681183 32602 net.cpp:86] Creating Layer pool0
I0428 20:14:06.681191 32602 net.cpp:408] pool0 <- conv0
I0428 20:14:06.681197 32602 net.cpp:382] pool0 -> pool0
I0428 20:14:06.681272 32602 net.cpp:124] Setting up pool0
I0428 20:14:06.681283 32602 net.cpp:131] Top shape: 64 50 12 12 (460800)
I0428 20:14:06.681288 32602 net.cpp:139] Memory required for data: 9416960
I0428 20:14:06.681300 32602 layer_factory.hpp:77] Creating layer conv1
I0428 20:14:06.681311 32602 net.cpp:86] Creating Layer conv1
I0428 20:14:06.681315 32602 net.cpp:408] conv1 <- pool0
I0428 20:14:06.681320 32602 net.cpp:382] conv1 -> conv1
I0428 20:14:06.683269 32602 net.cpp:124] Setting up conv1
I0428 20:14:06.683284 32602 net.cpp:131] Top shape: 64 2 8 8 (8192)
I0428 20:14:06.683289 32602 net.cpp:139] Memory required for data: 9449728
I0428 20:14:06.683298 32602 layer_factory.hpp:77] Creating layer pool1
I0428 20:14:06.683305 32602 net.cpp:86] Creating Layer pool1
I0428 20:14:06.683310 32602 net.cpp:408] pool1 <- conv1
I0428 20:14:06.683315 32602 net.cpp:382] pool1 -> pool1
I0428 20:14:06.683364 32602 net.cpp:124] Setting up pool1
I0428 20:14:06.683377 32602 net.cpp:131] Top shape: 64 2 4 4 (2048)
I0428 20:14:06.683392 32602 net.cpp:139] Memory required for data: 9457920
I0428 20:14:06.683395 32602 layer_factory.hpp:77] Creating layer ip1
I0428 20:14:06.683403 32602 net.cpp:86] Creating Layer ip1
I0428 20:14:06.683406 32602 net.cpp:408] ip1 <- pool1
I0428 20:14:06.683411 32602 net.cpp:382] ip1 -> ip1
I0428 20:14:06.683516 32602 net.cpp:124] Setting up ip1
I0428 20:14:06.683524 32602 net.cpp:131] Top shape: 64 10 (640)
I0428 20:14:06.683528 32602 net.cpp:139] Memory required for data: 9460480
I0428 20:14:06.683535 32602 layer_factory.hpp:77] Creating layer relu1
I0428 20:14:06.683542 32602 net.cpp:86] Creating Layer relu1
I0428 20:14:06.683548 32602 net.cpp:408] relu1 <- ip1
I0428 20:14:06.683552 32602 net.cpp:369] relu1 -> ip1 (in-place)
I0428 20:14:06.683732 32602 net.cpp:124] Setting up relu1
I0428 20:14:06.683742 32602 net.cpp:131] Top shape: 64 10 (640)
I0428 20:14:06.683744 32602 net.cpp:139] Memory required for data: 9463040
I0428 20:14:06.683748 32602 layer_factory.hpp:77] Creating layer ip2
I0428 20:14:06.683754 32602 net.cpp:86] Creating Layer ip2
I0428 20:14:06.683758 32602 net.cpp:408] ip2 <- ip1
I0428 20:14:06.683763 32602 net.cpp:382] ip2 -> ip2
I0428 20:14:06.683867 32602 net.cpp:124] Setting up ip2
I0428 20:14:06.683876 32602 net.cpp:131] Top shape: 64 10 (640)
I0428 20:14:06.683879 32602 net.cpp:139] Memory required for data: 9465600
I0428 20:14:06.683886 32602 layer_factory.hpp:77] Creating layer relu2
I0428 20:14:06.683892 32602 net.cpp:86] Creating Layer relu2
I0428 20:14:06.683895 32602 net.cpp:408] relu2 <- ip2
I0428 20:14:06.683899 32602 net.cpp:369] relu2 -> ip2 (in-place)
I0428 20:14:06.684661 32602 net.cpp:124] Setting up relu2
I0428 20:14:06.684674 32602 net.cpp:131] Top shape: 64 10 (640)
I0428 20:14:06.684679 32602 net.cpp:139] Memory required for data: 9468160
I0428 20:14:06.684682 32602 layer_factory.hpp:77] Creating layer loss
I0428 20:14:06.684689 32602 net.cpp:86] Creating Layer loss
I0428 20:14:06.684691 32602 net.cpp:408] loss <- ip2
I0428 20:14:06.684696 32602 net.cpp:408] loss <- label
I0428 20:14:06.684703 32602 net.cpp:382] loss -> loss
I0428 20:14:06.684720 32602 layer_factory.hpp:77] Creating layer loss
…
I0428 20:14:06.685371 32602 solver.cpp:173] Creating test net (#0) specified by net file: ECE595/mnist/train_test/var_everything2/lenet_train_test1213.prototxt
I0428 20:14:06.685398 32602 net.cpp:296] The NetState phase (1) differed from the phase (0) specified by a rule in layer mnist
I0428 20:14:06.685489 32602 net.cpp:53] Initializing net from parameters: 
name: "LeNet"
state {
  phase: TEST
}
layer {
  name: "mnist"
  type: "Data"
  top: "data"
  top: "label"
  include {
    phase: TEST
  }
  transform_param {
    scale: 0.00390625
  }
  data_param {
    source: "examples/mnist/mnist_test_lmdb"
    batch_size: 100
    backend: LMDB
  }
}
layer {
  name: "conv0"
  type: "Convolution"
  bottom: "data"
  top: "conv0"
  param {
    lr_mult: 1
  }
  param {
    lr_mult: 2
  }
  convolution_param {
    num_output: 50
    kernel_size: 5
    stride: 1
    weight_filler {
      type: "xavier"
    }
    bias_filler {
      type: "constant"
    }
  }
}
layer {
  name: "pool0"
  type: "Pooling"
  bottom: "conv0"
  top: "pool0"
  pooling_param {
    pool: MAX
    kernel_size: 2
    stride: 2
  }
}
layer {
  name: "conv1"
  type: "Convolution"
  bottom: "pool0"
  top: "conv1"
  param {
    lr_mult: 1
  }
  param {
    lr_mult: 2
  }
  convolution_param {
    num_output: 2
    kernel_size: 5
    stride: 1
    weight_filler {
      type: "xavier"
    }
    bias_filler {
      type: "constant"
    }
  }
}
layer {
  name: "pool1"
  type: "Pooling"
  bottom: "conv1"
  top: "pool1"
  pooling_param {
    pool: MAX
    kernel_size: 2
    stride: 2
  }
}
layer {
  name: "ip1"
  type: "InnerProduct"
  bottom: "pool1"
  top: "ip1"
  param {
    lr_mult: 1
  }
  param {
    lr_mult: 2
  }
  inner_product_param {
    num_output: 10
    weight_filler {
      type: "xavier"
    }
    bias_filler {
      type: "constant"
    }
  }
}
layer {
  name: "relu1"
  type: "ReLU"
  bottom: "ip1"
  top: "ip1"
}
layer {
  name: "ip2"
  type: "InnerProduct"
  bottom: "ip1"
  top: "ip2"
  param {
    lr_mult: 1
  }
  param {
    lr_mult: 2
  }
  inner_product_param {
    num_output: 10
    weight_filler {
      type: "xavier"
    }
    bias_filler {
      type: "constant"
    }
  }
}
layer {
  name: "relu2"
  type: "ReLU"
  bottom: "ip2"
  top: "ip2"
}
layer {
  name: "accuracy"
  type: "Accuracy"
  bottom: "ip2"
  bottom: "label"
  top: "accuracy"
  include {
    phase: TEST
  }
}
layer {
  name: "loss"
  type: "SoftmaxWithLoss"
  bottom: "ip2"
  bottom: "label"
  top: "loss"
}
I0428 20:14:06.685560 32602 layer_factory.hpp:77] Creating layer mnist
I0428 20:14:06.685606 32602 db_lmdb.cpp:35] Opened lmdb examples/mnist/mnist_test_lmdb
I0428 20:14:06.685619 32602 net.cpp:86] Creating Layer mnist
I0428 20:14:06.685624 32602 net.cpp:382] mnist -> data
I0428 20:14:06.685633 32602 net.cpp:382] mnist -> label
I0428 20:14:06.685726 32602 data_layer.cpp:45] output data size: 100,1,28,28
I0428 20:14:06.687690 32602 net.cpp:124] Setting up mnist
I0428 20:14:06.687705 32602 net.cpp:131] Top shape: 100 1 28 28 (78400)
I0428 20:14:06.687710 32602 net.cpp:131] Top shape: 100 (100)
I0428 20:14:06.687712 32602 net.cpp:139] Memory required for data: 314000
I0428 20:14:06.687716 32602 layer_factory.hpp:77] Creating layer label_mnist_1_split
I0428 20:14:06.687722 32602 net.cpp:86] Creating Layer label_mnist_1_split
I0428 20:14:06.687726 32602 net.cpp:408] label_mnist_1_split <- label
I0428 20:14:06.687731 32602 net.cpp:382] label_mnist_1_split -> label_mnist_1_split_0
I0428 20:14:06.687739 32602 net.cpp:382] label_mnist_1_split -> label_mnist_1_split_1
I0428 20:14:06.687844 32602 net.cpp:124] Setting up label_mnist_1_split
I0428 20:14:06.687860 32602 net.cpp:131] Top shape: 100 (100)
I0428 20:14:06.687865 32602 net.cpp:131] Top shape: 100 (100)
I0428 20:14:06.687868 32602 net.cpp:139] Memory required for data: 314800
I0428 20:14:06.687871 32602 layer_factory.hpp:77] Creating layer conv0
I0428 20:14:06.687882 32602 net.cpp:86] Creating Layer conv0
I0428 20:14:06.687886 32602 net.cpp:408] conv0 <- data
I0428 20:14:06.687892 32602 net.cpp:382] conv0 -> conv0
I0428 20:14:06.689499 32602 net.cpp:124] Setting up conv0
I0428 20:14:06.689513 32602 net.cpp:131] Top shape: 100 50 24 24 (2880000)
I0428 20:14:06.689517 32602 net.cpp:139] Memory required for data: 11834800
I0428 20:14:06.689528 32602 layer_factory.hpp:77] Creating layer pool0
I0428 20:14:06.689537 32602 net.cpp:86] Creating Layer pool0
I0428 20:14:06.689544 32602 net.cpp:408] pool0 <- conv0
I0428 20:14:06.689550 32602 net.cpp:382] pool0 -> pool0
I0428 20:14:06.689589 32602 net.cpp:124] Setting up pool0
I0428 20:14:06.689599 32602 net.cpp:131] Top shape: 100 50 12 12 (720000)
I0428 20:14:06.689601 32602 net.cpp:139] Memory required for data: 14714800
I0428 20:14:06.689604 32602 layer_factory.hpp:77] Creating layer conv1
I0428 20:14:06.689615 32602 net.cpp:86] Creating Layer conv1
I0428 20:14:06.689620 32602 net.cpp:408] conv1 <- pool0
I0428 20:14:06.689640 32602 net.cpp:382] conv1 -> conv1
I0428 20:14:06.691100 32602 net.cpp:124] Setting up conv1
I0428 20:14:06.691115 32602 net.cpp:131] Top shape: 100 2 8 8 (12800)
I0428 20:14:06.691119 32602 net.cpp:139] Memory required for data: 14766000
I0428 20:14:06.691128 32602 layer_factory.hpp:77] Creating layer pool1
I0428 20:14:06.691138 32602 net.cpp:86] Creating Layer pool1
I0428 20:14:06.691143 32602 net.cpp:408] pool1 <- conv1
I0428 20:14:06.691148 32602 net.cpp:382] pool1 -> pool1
I0428 20:14:06.691191 32602 net.cpp:124] Setting up pool1
I0428 20:14:06.691198 32602 net.cpp:131] Top shape: 100 2 4 4 (3200)
I0428 20:14:06.691201 32602 net.cpp:139] Memory required for data: 14778800
I0428 20:14:06.691205 32602 layer_factory.hpp:77] Creating layer ip1
I0428 20:14:06.691212 32602 net.cpp:86] Creating Layer ip1
I0428 20:14:06.691215 32602 net.cpp:408] ip1 <- pool1
I0428 20:14:06.691221 32602 net.cpp:382] ip1 -> ip1
I0428 20:14:06.691329 32602 net.cpp:124] Setting up ip1
I0428 20:14:06.691336 32602 net.cpp:131] Top shape: 100 10 (1000)
I0428 20:14:06.691339 32602 net.cpp:139] Memory required for data: 14782800
I0428 20:14:06.691347 32602 layer_factory.hpp:77] Creating layer relu1
I0428 20:14:06.691356 32602 net.cpp:86] Creating Layer relu1
I0428 20:14:06.691361 32602 net.cpp:408] relu1 <- ip1
I0428 20:14:06.691366 32602 net.cpp:369] relu1 -> ip1 (in-place)
I0428 20:14:06.691548 32602 net.cpp:124] Setting up relu1
I0428 20:14:06.691558 32602 net.cpp:131] Top shape: 100 10 (1000)
I0428 20:14:06.691565 32602 net.cpp:139] Memory required for data: 14786800
I0428 20:14:06.691568 32602 layer_factory.hpp:77] Creating layer ip2
I0428 20:14:06.691577 32602 net.cpp:86] Creating Layer ip2
I0428 20:14:06.691582 32602 net.cpp:408] ip2 <- ip1
I0428 20:14:06.691597 32602 net.cpp:382] ip2 -> ip2
I0428 20:14:06.691704 32602 net.cpp:124] Setting up ip2
I0428 20:14:06.691712 32602 net.cpp:131] Top shape: 100 10 (1000)
I0428 20:14:06.691715 32602 net.cpp:139] Memory required for data: 14790800
I0428 20:14:06.691721 32602 layer_factory.hpp:77] Creating layer relu2
I0428 20:14:06.691726 32602 net.cpp:86] Creating Layer relu2
I0428 20:14:06.691738 32602 net.cpp:408] relu2 <- ip2
I0428 20:14:06.691748 32602 net.cpp:369] relu2 -> ip2 (in-place)
I0428 20:14:06.691923 32602 net.cpp:124] Setting up relu2
I0428 20:14:06.691934 32602 net.cpp:131] Top shape: 100 10 (1000)
I0428 20:14:06.691938 32602 net.cpp:139] Memory required for data: 14794800
I0428 20:14:06.691942 32602 layer_factory.hpp:77] Creating layer ip2_relu2_0_split
I0428 20:14:06.691947 32602 net.cpp:86] Creating Layer ip2_relu2_0_split
I0428 20:14:06.691951 32602 net.cpp:408] ip2_relu2_0_split <- ip2
I0428 20:14:06.691956 32602 net.cpp:382] ip2_relu2_0_split -> ip2_relu2_0_split_0
I0428 20:14:06.691974 32602 net.cpp:382] ip2_relu2_0_split -> ip2_relu2_0_split_1
I0428 20:14:06.692015 32602 net.cpp:124] Setting up ip2_relu2_0_split
I0428 20:14:06.692023 32602 net.cpp:131] Top shape: 100 10 (1000)
I0428 20:14:06.692026 32602 net.cpp:131] Top shape: 100 10 (1000)
I0428 20:14:06.692029 32602 net.cpp:139] Memory required for data: 14802800
I0428 20:14:06.692032 32602 layer_factory.hpp:77] Creating layer accuracy
I0428 20:14:06.692039 32602 net.cpp:86] Creating Layer accuracy
I0428 20:14:06.692042 32602 net.cpp:408] accuracy <- ip2_relu2_0_split_0
I0428 20:14:06.692047 32602 net.cpp:408] accuracy <- label_mnist_1_split_0
I0428 20:14:06.692054 32602 net.cpp:382] accuracy -> accuracy
…
