…
I0428 20:00:15.637342 29433 net.cpp:296] The NetState phase (0) differed from the phase (1) specified by a rule in layer mnist
I0428 20:00:15.637375 29433 net.cpp:296] The NetState phase (0) differed from the phase (1) specified by a rule in layer accuracy
I0428 20:00:15.637460 29433 net.cpp:53] Initializing net from parameters: 
name: "LeNet"
state {
  phase: TRAIN
  level: 0
  stage: ""
}
layer {
  name: "mnist"
  type: "Data"
  top: "data"
  top: "label"
  include {
    phase: TRAIN
  }
  transform_param {
    scale: 0.00390625
  }
  data_param {
    source: "examples/mnist/mnist_train_lmdb"
    batch_size: 64
    backend: LMDB
  }
}
layer {
  name: "conv0"
  type: "Convolution"
  bottom: "data"
  top: "conv0"
  param {
    lr_mult: 1
  }
  param {
    lr_mult: 2
  }
  convolution_param {
    num_output: 10
    kernel_size: 5
    stride: 1
    weight_filler {
      type: "xavier"
    }
    bias_filler {
      type: "constant"
    }
  }
}
layer {
  name: "pool0"
  type: "Pooling"
  bottom: "conv0"
  top: "pool0"
  pooling_param {
    pool: MAX
    kernel_size: 2
    stride: 2
  }
}
layer {
  name: "conv1"
  type: "Convolution"
  bottom: "pool0"
  top: "conv1"
  param {
    lr_mult: 1
  }
  param {
    lr_mult: 2
  }
  convolution_param {
    num_output: 25
    kernel_size: 5
    stride: 1
    weight_filler {
      type: "xavier"
    }
    bias_filler {
      type: "constant"
    }
  }
}
layer {
  name: "pool1"
  type: "Pooling"
  bottom: "conv1"
  top: "pool1"
  pooling_param {
    pool: MAX
    kernel_size: 2
    stride: 2
  }
}
layer {
  name: "ip1"
  type: "InnerProduct"
  bottom: "pool1"
  top: "ip1"
  param {
    lr_mult: 1
  }
  param {
    lr_mult: 2
  }
  inner_product_param {
    num_output: 10
    weight_filler {
      type: "xavier"
    }
    bias_filler {
      type: "constant"
    }
  }
}
layer {
  name: "relu1"
  type: "ReLU"
  bottom: "ip1"
  top: "ip1"
}
layer {
  name: "ip2"
  type: "InnerProduct"
  bottom: "ip1"
  top: "ip2"
  param {
    lr_mult: 1
  }
  param {
    lr_mult: 2
  }
  inner_product_param {
    num_output: 10
    weight_filler {
      type: "xavier"
    }
    bias_filler {
      type: "constant"
    }
  }
}
layer {
  name: "relu2"
  type: "ReLU"
  bottom: "ip2"
  top: "ip2"
}
layer {
  name: "ip3"
  type: "InnerProduct"
  bottom: "ip2"
  top: "ip3"
  param {
    lr_mult: 1
  }
  param {
    lr_mult: 2
  }
  inner_product_param {
    num_output: 10
    weight_filler {
      type: "xavier"
    }
    bias_filler {
      type: "constant"
    }
  }
}
layer {
  name: "relu3"
  type: "ReLU"
  bottom: "ip3"
  top: "ip3"
}
layer {
  name: "loss"
  type: "SoftmaxWithLoss"
  bottom: "ip3"
  bottom: "label"
  top: "loss"
}
I0428 20:00:15.637540 29433 layer_factory.hpp:77] Creating layer mnist
I0428 20:00:15.637624 29433 db_lmdb.cpp:35] Opened lmdb examples/mnist/mnist_train_lmdb
I0428 20:00:15.637645 29433 net.cpp:86] Creating Layer mnist
I0428 20:00:15.637651 29433 net.cpp:382] mnist -> data
I0428 20:00:15.637670 29433 net.cpp:382] mnist -> label
I0428 20:00:15.638674 29433 data_layer.cpp:45] output data size: 64,1,28,28
I0428 20:00:15.641002 29433 net.cpp:124] Setting up mnist
I0428 20:00:15.641049 29433 net.cpp:131] Top shape: 64 1 28 28 (50176)
I0428 20:00:15.641057 29433 net.cpp:131] Top shape: 64 (64)
I0428 20:00:15.641059 29433 net.cpp:139] Memory required for data: 200960
I0428 20:00:15.641065 29433 layer_factory.hpp:77] Creating layer conv0
I0428 20:00:15.641080 29433 net.cpp:86] Creating Layer conv0
I0428 20:00:15.641098 29433 net.cpp:408] conv0 <- data
I0428 20:00:15.641109 29433 net.cpp:382] conv0 -> conv0
I0428 20:00:15.876444 29433 net.cpp:124] Setting up conv0
I0428 20:00:15.876487 29433 net.cpp:131] Top shape: 64 10 24 24 (368640)
I0428 20:00:15.876492 29433 net.cpp:139] Memory required for data: 1675520
I0428 20:00:15.876505 29433 layer_factory.hpp:77] Creating layer pool0
I0428 20:00:15.876519 29433 net.cpp:86] Creating Layer pool0
I0428 20:00:15.876538 29433 net.cpp:408] pool0 <- conv0
I0428 20:00:15.876544 29433 net.cpp:382] pool0 -> pool0
I0428 20:00:15.876590 29433 net.cpp:124] Setting up pool0
I0428 20:00:15.876598 29433 net.cpp:131] Top shape: 64 10 12 12 (92160)
I0428 20:00:15.876601 29433 net.cpp:139] Memory required for data: 2044160
I0428 20:00:15.876605 29433 layer_factory.hpp:77] Creating layer conv1
I0428 20:00:15.876615 29433 net.cpp:86] Creating Layer conv1
I0428 20:00:15.876618 29433 net.cpp:408] conv1 <- pool0
I0428 20:00:15.876623 29433 net.cpp:382] conv1 -> conv1
I0428 20:00:15.879509 29433 net.cpp:124] Setting up conv1
I0428 20:00:15.879541 29433 net.cpp:131] Top shape: 64 25 8 8 (102400)
I0428 20:00:15.879545 29433 net.cpp:139] Memory required for data: 2453760
I0428 20:00:15.879554 29433 layer_factory.hpp:77] Creating layer pool1
I0428 20:00:15.879562 29433 net.cpp:86] Creating Layer pool1
I0428 20:00:15.879565 29433 net.cpp:408] pool1 <- conv1
I0428 20:00:15.879586 29433 net.cpp:382] pool1 -> pool1
I0428 20:00:15.879642 29433 net.cpp:124] Setting up pool1
I0428 20:00:15.879648 29433 net.cpp:131] Top shape: 64 25 4 4 (25600)
I0428 20:00:15.879652 29433 net.cpp:139] Memory required for data: 2556160
I0428 20:00:15.879653 29433 layer_factory.hpp:77] Creating layer ip1
I0428 20:00:15.879660 29433 net.cpp:86] Creating Layer ip1
I0428 20:00:15.879663 29433 net.cpp:408] ip1 <- pool1
I0428 20:00:15.879668 29433 net.cpp:382] ip1 -> ip1
I0428 20:00:15.880617 29433 net.cpp:124] Setting up ip1
I0428 20:00:15.880630 29433 net.cpp:131] Top shape: 64 10 (640)
I0428 20:00:15.880650 29433 net.cpp:139] Memory required for data: 2558720
I0428 20:00:15.880658 29433 layer_factory.hpp:77] Creating layer relu1
I0428 20:00:15.880664 29433 net.cpp:86] Creating Layer relu1
I0428 20:00:15.880668 29433 net.cpp:408] relu1 <- ip1
I0428 20:00:15.880673 29433 net.cpp:369] relu1 -> ip1 (in-place)
I0428 20:00:15.880869 29433 net.cpp:124] Setting up relu1
I0428 20:00:15.880879 29433 net.cpp:131] Top shape: 64 10 (640)
I0428 20:00:15.880883 29433 net.cpp:139] Memory required for data: 2561280
I0428 20:00:15.880887 29433 layer_factory.hpp:77] Creating layer ip2
I0428 20:00:15.880894 29433 net.cpp:86] Creating Layer ip2
I0428 20:00:15.880897 29433 net.cpp:408] ip2 <- ip1
I0428 20:00:15.880903 29433 net.cpp:382] ip2 -> ip2
I0428 20:00:15.881002 29433 net.cpp:124] Setting up ip2
I0428 20:00:15.881009 29433 net.cpp:131] Top shape: 64 10 (640)
I0428 20:00:15.881012 29433 net.cpp:139] Memory required for data: 2563840
I0428 20:00:15.881018 29433 layer_factory.hpp:77] Creating layer relu2
I0428 20:00:15.881026 29433 net.cpp:86] Creating Layer relu2
I0428 20:00:15.881028 29433 net.cpp:408] relu2 <- ip2
I0428 20:00:15.881033 29433 net.cpp:369] relu2 -> ip2 (in-place)
I0428 20:00:15.881805 29433 net.cpp:124] Setting up relu2
I0428 20:00:15.881819 29433 net.cpp:131] Top shape: 64 10 (640)
I0428 20:00:15.881821 29433 net.cpp:139] Memory required for data: 2566400
I0428 20:00:15.881841 29433 layer_factory.hpp:77] Creating layer ip3
I0428 20:00:15.881849 29433 net.cpp:86] Creating Layer ip3
I0428 20:00:15.881852 29433 net.cpp:408] ip3 <- ip2
I0428 20:00:15.881858 29433 net.cpp:382] ip3 -> ip3
I0428 20:00:15.881999 29433 net.cpp:124] Setting up ip3
I0428 20:00:15.882012 29433 net.cpp:131] Top shape: 64 10 (640)
I0428 20:00:15.882016 29433 net.cpp:139] Memory required for data: 2568960
I0428 20:00:15.882026 29433 layer_factory.hpp:77] Creating layer relu3
I0428 20:00:15.882035 29433 net.cpp:86] Creating Layer relu3
I0428 20:00:15.882041 29433 net.cpp:408] relu3 <- ip3
I0428 20:00:15.882046 29433 net.cpp:369] relu3 -> ip3 (in-place)
I0428 20:00:15.882268 29433 net.cpp:124] Setting up relu3
I0428 20:00:15.882278 29433 net.cpp:131] Top shape: 64 10 (640)
I0428 20:00:15.882282 29433 net.cpp:139] Memory required for data: 2571520
I0428 20:00:15.882285 29433 layer_factory.hpp:77] Creating layer loss
I0428 20:00:15.882292 29433 net.cpp:86] Creating Layer loss
I0428 20:00:15.882297 29433 net.cpp:408] loss <- ip3
I0428 20:00:15.882300 29433 net.cpp:408] loss <- label
I0428 20:00:15.882306 29433 net.cpp:382] loss -> loss
I0428 20:00:15.882341 29433 layer_factory.hpp:77] Creating layer loss
…
I0428 20:00:15.883013 29433 solver.cpp:173] Creating test net (#0) specified by net file: ECE595/mnist/train_test/var_everything2/lenet_train_test871.prototxt
I0428 20:00:15.883041 29433 net.cpp:296] The NetState phase (1) differed from the phase (0) specified by a rule in layer mnist
I0428 20:00:15.883147 29433 net.cpp:53] Initializing net from parameters: 
name: "LeNet"
state {
  phase: TEST
}
layer {
  name: "mnist"
  type: "Data"
  top: "data"
  top: "label"
  include {
    phase: TEST
  }
  transform_param {
    scale: 0.00390625
  }
  data_param {
    source: "examples/mnist/mnist_test_lmdb"
    batch_size: 100
    backend: LMDB
  }
}
layer {
  name: "conv0"
  type: "Convolution"
  bottom: "data"
  top: "conv0"
  param {
    lr_mult: 1
  }
  param {
    lr_mult: 2
  }
  convolution_param {
    num_output: 10
    kernel_size: 5
    stride: 1
    weight_filler {
      type: "xavier"
    }
    bias_filler {
      type: "constant"
    }
  }
}
layer {
  name: "pool0"
  type: "Pooling"
  bottom: "conv0"
  top: "pool0"
  pooling_param {
    pool: MAX
    kernel_size: 2
    stride: 2
  }
}
layer {
  name: "conv1"
  type: "Convolution"
  bottom: "pool0"
  top: "conv1"
  param {
    lr_mult: 1
  }
  param {
    lr_mult: 2
  }
  convolution_param {
    num_output: 25
    kernel_size: 5
    stride: 1
    weight_filler {
      type: "xavier"
    }
    bias_filler {
      type: "constant"
    }
  }
}
layer {
  name: "pool1"
  type: "Pooling"
  bottom: "conv1"
  top: "pool1"
  pooling_param {
    pool: MAX
    kernel_size: 2
    stride: 2
  }
}
layer {
  name: "ip1"
  type: "InnerProduct"
  bottom: "pool1"
  top: "ip1"
  param {
    lr_mult: 1
  }
  param {
    lr_mult: 2
  }
  inner_product_param {
    num_output: 10
    weight_filler {
      type: "xavier"
    }
    bias_filler {
      type: "constant"
    }
  }
}
layer {
  name: "relu1"
  type: "ReLU"
  bottom: "ip1"
  top: "ip1"
}
layer {
  name: "ip2"
  type: "InnerProduct"
  bottom: "ip1"
  top: "ip2"
  param {
    lr_mult: 1
  }
  param {
    lr_mult: 2
  }
  inner_product_param {
    num_output: 10
    weight_filler {
      type: "xavier"
    }
    bias_filler {
      type: "constant"
    }
  }
}
layer {
  name: "relu2"
  type: "ReLU"
  bottom: "ip2"
  top: "ip2"
}
layer {
  name: "ip3"
  type: "InnerProduct"
  bottom: "ip2"
  top: "ip3"
  param {
    lr_mult: 1
  }
  param {
    lr_mult: 2
  }
  inner_product_param {
    num_output: 10
    weight_filler {
      type: "xavier"
    }
    bias_filler {
      type: "constant"
    }
  }
}
layer {
  name: "relu3"
  type: "ReLU"
  bottom: "ip3"
  top: "ip3"
}
layer {
  name: "accuracy"
  type: "Accuracy"
  bottom: "ip3"
  bottom: "label"
  top: "accuracy"
  include {
    phase: TEST
  }
}
layer {
  name: "loss"
  type: "SoftmaxWithLoss"
  bottom: "ip3"
  bottom: "label"
  top: "loss"
}
I0428 20:00:15.883225 29433 layer_factory.hpp:77] Creating layer mnist
I0428 20:00:15.883270 29433 db_lmdb.cpp:35] Opened lmdb examples/mnist/mnist_test_lmdb
I0428 20:00:15.883281 29433 net.cpp:86] Creating Layer mnist
I0428 20:00:15.883286 29433 net.cpp:382] mnist -> data
I0428 20:00:15.883294 29433 net.cpp:382] mnist -> label
I0428 20:00:15.883375 29433 data_layer.cpp:45] output data size: 100,1,28,28
I0428 20:00:15.885565 29433 net.cpp:124] Setting up mnist
I0428 20:00:15.885594 29433 net.cpp:131] Top shape: 100 1 28 28 (78400)
I0428 20:00:15.885615 29433 net.cpp:131] Top shape: 100 (100)
I0428 20:00:15.885618 29433 net.cpp:139] Memory required for data: 314000
I0428 20:00:15.885622 29433 layer_factory.hpp:77] Creating layer label_mnist_1_split
I0428 20:00:15.885629 29433 net.cpp:86] Creating Layer label_mnist_1_split
I0428 20:00:15.885633 29433 net.cpp:408] label_mnist_1_split <- label
I0428 20:00:15.885638 29433 net.cpp:382] label_mnist_1_split -> label_mnist_1_split_0
I0428 20:00:15.885645 29433 net.cpp:382] label_mnist_1_split -> label_mnist_1_split_1
I0428 20:00:15.885731 29433 net.cpp:124] Setting up label_mnist_1_split
I0428 20:00:15.885740 29433 net.cpp:131] Top shape: 100 (100)
I0428 20:00:15.885743 29433 net.cpp:131] Top shape: 100 (100)
I0428 20:00:15.885746 29433 net.cpp:139] Memory required for data: 314800
I0428 20:00:15.885749 29433 layer_factory.hpp:77] Creating layer conv0
I0428 20:00:15.885757 29433 net.cpp:86] Creating Layer conv0
I0428 20:00:15.885761 29433 net.cpp:408] conv0 <- data
I0428 20:00:15.885766 29433 net.cpp:382] conv0 -> conv0
I0428 20:00:15.887468 29433 net.cpp:124] Setting up conv0
I0428 20:00:15.887497 29433 net.cpp:131] Top shape: 100 10 24 24 (576000)
I0428 20:00:15.887501 29433 net.cpp:139] Memory required for data: 2618800
I0428 20:00:15.887511 29433 layer_factory.hpp:77] Creating layer pool0
I0428 20:00:15.887517 29433 net.cpp:86] Creating Layer pool0
I0428 20:00:15.887521 29433 net.cpp:408] pool0 <- conv0
I0428 20:00:15.887526 29433 net.cpp:382] pool0 -> pool0
I0428 20:00:15.887560 29433 net.cpp:124] Setting up pool0
I0428 20:00:15.887565 29433 net.cpp:131] Top shape: 100 10 12 12 (144000)
I0428 20:00:15.887568 29433 net.cpp:139] Memory required for data: 3194800
I0428 20:00:15.887572 29433 layer_factory.hpp:77] Creating layer conv1
I0428 20:00:15.887579 29433 net.cpp:86] Creating Layer conv1
I0428 20:00:15.887583 29433 net.cpp:408] conv1 <- pool0
I0428 20:00:15.887588 29433 net.cpp:382] conv1 -> conv1
I0428 20:00:15.889813 29433 net.cpp:124] Setting up conv1
I0428 20:00:15.889827 29433 net.cpp:131] Top shape: 100 25 8 8 (160000)
I0428 20:00:15.889847 29433 net.cpp:139] Memory required for data: 3834800
I0428 20:00:15.889856 29433 layer_factory.hpp:77] Creating layer pool1
I0428 20:00:15.889863 29433 net.cpp:86] Creating Layer pool1
I0428 20:00:15.889866 29433 net.cpp:408] pool1 <- conv1
I0428 20:00:15.889871 29433 net.cpp:382] pool1 -> pool1
I0428 20:00:15.889953 29433 net.cpp:124] Setting up pool1
I0428 20:00:15.889961 29433 net.cpp:131] Top shape: 100 25 4 4 (40000)
I0428 20:00:15.889963 29433 net.cpp:139] Memory required for data: 3994800
I0428 20:00:15.889966 29433 layer_factory.hpp:77] Creating layer ip1
I0428 20:00:15.889972 29433 net.cpp:86] Creating Layer ip1
I0428 20:00:15.889976 29433 net.cpp:408] ip1 <- pool1
I0428 20:00:15.889981 29433 net.cpp:382] ip1 -> ip1
I0428 20:00:15.890153 29433 net.cpp:124] Setting up ip1
I0428 20:00:15.890161 29433 net.cpp:131] Top shape: 100 10 (1000)
I0428 20:00:15.890175 29433 net.cpp:139] Memory required for data: 3998800
I0428 20:00:15.890183 29433 layer_factory.hpp:77] Creating layer relu1
I0428 20:00:15.890188 29433 net.cpp:86] Creating Layer relu1
I0428 20:00:15.890192 29433 net.cpp:408] relu1 <- ip1
I0428 20:00:15.890197 29433 net.cpp:369] relu1 -> ip1 (in-place)
I0428 20:00:15.890370 29433 net.cpp:124] Setting up relu1
I0428 20:00:15.890379 29433 net.cpp:131] Top shape: 100 10 (1000)
I0428 20:00:15.890383 29433 net.cpp:139] Memory required for data: 4002800
I0428 20:00:15.890386 29433 layer_factory.hpp:77] Creating layer ip2
I0428 20:00:15.890393 29433 net.cpp:86] Creating Layer ip2
I0428 20:00:15.890396 29433 net.cpp:408] ip2 <- ip1
I0428 20:00:15.890401 29433 net.cpp:382] ip2 -> ip2
I0428 20:00:15.890502 29433 net.cpp:124] Setting up ip2
I0428 20:00:15.890509 29433 net.cpp:131] Top shape: 100 10 (1000)
I0428 20:00:15.890512 29433 net.cpp:139] Memory required for data: 4006800
I0428 20:00:15.890524 29433 layer_factory.hpp:77] Creating layer relu2
I0428 20:00:15.890529 29433 net.cpp:86] Creating Layer relu2
I0428 20:00:15.890533 29433 net.cpp:408] relu2 <- ip2
I0428 20:00:15.890537 29433 net.cpp:369] relu2 -> ip2 (in-place)
I0428 20:00:15.890691 29433 net.cpp:124] Setting up relu2
I0428 20:00:15.890699 29433 net.cpp:131] Top shape: 100 10 (1000)
I0428 20:00:15.890702 29433 net.cpp:139] Memory required for data: 4010800
I0428 20:00:15.890705 29433 layer_factory.hpp:77] Creating layer ip3
I0428 20:00:15.890710 29433 net.cpp:86] Creating Layer ip3
I0428 20:00:15.890714 29433 net.cpp:408] ip3 <- ip2
I0428 20:00:15.890718 29433 net.cpp:382] ip3 -> ip3
I0428 20:00:15.890805 29433 net.cpp:124] Setting up ip3
I0428 20:00:15.890811 29433 net.cpp:131] Top shape: 100 10 (1000)
I0428 20:00:15.890815 29433 net.cpp:139] Memory required for data: 4014800
I0428 20:00:15.890822 29433 layer_factory.hpp:77] Creating layer relu3
I0428 20:00:15.890826 29433 net.cpp:86] Creating Layer relu3
I0428 20:00:15.890830 29433 net.cpp:408] relu3 <- ip3
I0428 20:00:15.890833 29433 net.cpp:369] relu3 -> ip3 (in-place)
I0428 20:00:15.891655 29433 net.cpp:124] Setting up relu3
I0428 20:00:15.891682 29433 net.cpp:131] Top shape: 100 10 (1000)
I0428 20:00:15.891686 29433 net.cpp:139] Memory required for data: 4018800
I0428 20:00:15.891705 29433 layer_factory.hpp:77] Creating layer ip3_relu3_0_split
I0428 20:00:15.891710 29433 net.cpp:86] Creating Layer ip3_relu3_0_split
I0428 20:00:15.891715 29433 net.cpp:408] ip3_relu3_0_split <- ip3
I0428 20:00:15.891721 29433 net.cpp:382] ip3_relu3_0_split -> ip3_relu3_0_split_0
I0428 20:00:15.891727 29433 net.cpp:382] ip3_relu3_0_split -> ip3_relu3_0_split_1
I0428 20:00:15.891806 29433 net.cpp:124] Setting up ip3_relu3_0_split
I0428 20:00:15.891813 29433 net.cpp:131] Top shape: 100 10 (1000)
I0428 20:00:15.891818 29433 net.cpp:131] Top shape: 100 10 (1000)
I0428 20:00:15.891821 29433 net.cpp:139] Memory required for data: 4026800
I0428 20:00:15.891824 29433 layer_factory.hpp:77] Creating layer accuracy
I0428 20:00:15.891829 29433 net.cpp:86] Creating Layer accuracy
I0428 20:00:15.891834 29433 net.cpp:408] accuracy <- ip3_relu3_0_split_0
I0428 20:00:15.891842 29433 net.cpp:408] accuracy <- label_mnist_1_split_0
I0428 20:00:15.891847 29433 net.cpp:382] accuracy -> accuracy
…
