…
I0428 20:13:32.388294 32479 net.cpp:296] The NetState phase (0) differed from the phase (1) specified by a rule in layer mnist
I0428 20:13:32.388334 32479 net.cpp:296] The NetState phase (0) differed from the phase (1) specified by a rule in layer accuracy
I0428 20:13:32.388484 32479 net.cpp:53] Initializing net from parameters: 
name: "LeNet"
state {
  phase: TRAIN
  level: 0
  stage: ""
}
layer {
  name: "mnist"
  type: "Data"
  top: "data"
  top: "label"
  include {
    phase: TRAIN
  }
  transform_param {
    scale: 0.00390625
  }
  data_param {
    source: "examples/mnist/mnist_train_lmdb"
    batch_size: 64
    backend: LMDB
  }
}
layer {
  name: "conv0"
  type: "Convolution"
  bottom: "data"
  top: "conv0"
  param {
    lr_mult: 1
  }
  param {
    lr_mult: 2
  }
  convolution_param {
    num_output: 25
    kernel_size: 5
    stride: 1
    weight_filler {
      type: "xavier"
    }
    bias_filler {
      type: "constant"
    }
  }
}
layer {
  name: "pool0"
  type: "Pooling"
  bottom: "conv0"
  top: "pool0"
  pooling_param {
    pool: MAX
    kernel_size: 2
    stride: 2
  }
}
layer {
  name: "conv1"
  type: "Convolution"
  bottom: "pool0"
  top: "conv1"
  param {
    lr_mult: 1
  }
  param {
    lr_mult: 2
  }
  convolution_param {
    num_output: 100
    kernel_size: 5
    stride: 1
    weight_filler {
      type: "xavier"
    }
    bias_filler {
      type: "constant"
    }
  }
}
layer {
  name: "pool1"
  type: "Pooling"
  bottom: "conv1"
  top: "pool1"
  pooling_param {
    pool: MAX
    kernel_size: 2
    stride: 2
  }
}
layer {
  name: "ip1"
  type: "InnerProduct"
  bottom: "pool1"
  top: "ip1"
  param {
    lr_mult: 1
  }
  param {
    lr_mult: 2
  }
  inner_product_param {
    num_output: 50
    weight_filler {
      type: "xavier"
    }
    bias_filler {
      type: "constant"
    }
  }
}
layer {
  name: "relu1"
  type: "ReLU"
  bottom: "ip1"
  top: "ip1"
}
layer {
  name: "ip2"
  type: "InnerProduct"
  bottom: "ip1"
  top: "ip2"
  param {
    lr_mult: 1
  }
  param {
    lr_mult: 2
  }
  inner_product_param {
    num_output: 10
    weight_filler {
      type: "xavier"
    }
    bias_filler {
      type: "constant"
    }
  }
}
layer {
  name: "relu2"
  type: "ReLU"
  bottom: "ip2"
  top: "ip2"
}
layer {
  name: "ip3"
  type: "InnerProduct"
  bottom: "ip2"
  top: "ip3"
  param {
    lr_mult: 1
  }
  param {
    lr_mult: 2
  }
  inner_product_param {
    num_output: 10
    weight_filler {
      type: "xavier"
    }
    bias_filler {
      type: "constant"
    }
  }
}
layer {
  name: "relu3"
  type: "ReLU"
  bottom: "ip3"
  top: "ip3"
}
layer {
  name: "loss"
  type: "SoftmaxWithLoss"
  bottom: "ip3"
  bottom: "label"
  top: "loss"
}
I0428 20:13:32.388576 32479 layer_factory.hpp:77] Creating layer mnist
I0428 20:13:32.388681 32479 db_lmdb.cpp:35] Opened lmdb examples/mnist/mnist_train_lmdb
I0428 20:13:32.388708 32479 net.cpp:86] Creating Layer mnist
I0428 20:13:32.388720 32479 net.cpp:382] mnist -> data
I0428 20:13:32.388753 32479 net.cpp:382] mnist -> label
I0428 20:13:32.390120 32479 data_layer.cpp:45] output data size: 64,1,28,28
I0428 20:13:32.392519 32479 net.cpp:124] Setting up mnist
I0428 20:13:32.392535 32479 net.cpp:131] Top shape: 64 1 28 28 (50176)
I0428 20:13:32.392541 32479 net.cpp:131] Top shape: 64 (64)
I0428 20:13:32.392544 32479 net.cpp:139] Memory required for data: 200960
I0428 20:13:32.392563 32479 layer_factory.hpp:77] Creating layer conv0
I0428 20:13:32.392580 32479 net.cpp:86] Creating Layer conv0
I0428 20:13:32.392602 32479 net.cpp:408] conv0 <- data
I0428 20:13:32.392617 32479 net.cpp:382] conv0 -> conv0
I0428 20:13:32.620797 32479 net.cpp:124] Setting up conv0
I0428 20:13:32.620860 32479 net.cpp:131] Top shape: 64 25 24 24 (921600)
I0428 20:13:32.620864 32479 net.cpp:139] Memory required for data: 3887360
I0428 20:13:32.620880 32479 layer_factory.hpp:77] Creating layer pool0
I0428 20:13:32.620908 32479 net.cpp:86] Creating Layer pool0
I0428 20:13:32.620913 32479 net.cpp:408] pool0 <- conv0
I0428 20:13:32.620920 32479 net.cpp:382] pool0 -> pool0
I0428 20:13:32.620983 32479 net.cpp:124] Setting up pool0
I0428 20:13:32.620995 32479 net.cpp:131] Top shape: 64 25 12 12 (230400)
I0428 20:13:32.621001 32479 net.cpp:139] Memory required for data: 4808960
I0428 20:13:32.621006 32479 layer_factory.hpp:77] Creating layer conv1
I0428 20:13:32.621021 32479 net.cpp:86] Creating Layer conv1
I0428 20:13:32.621026 32479 net.cpp:408] conv1 <- pool0
I0428 20:13:32.621034 32479 net.cpp:382] conv1 -> conv1
I0428 20:13:32.623728 32479 net.cpp:124] Setting up conv1
I0428 20:13:32.623755 32479 net.cpp:131] Top shape: 64 100 8 8 (409600)
I0428 20:13:32.623759 32479 net.cpp:139] Memory required for data: 6447360
I0428 20:13:32.623767 32479 layer_factory.hpp:77] Creating layer pool1
I0428 20:13:32.623775 32479 net.cpp:86] Creating Layer pool1
I0428 20:13:32.623778 32479 net.cpp:408] pool1 <- conv1
I0428 20:13:32.623782 32479 net.cpp:382] pool1 -> pool1
I0428 20:13:32.623827 32479 net.cpp:124] Setting up pool1
I0428 20:13:32.623836 32479 net.cpp:131] Top shape: 64 100 4 4 (102400)
I0428 20:13:32.623842 32479 net.cpp:139] Memory required for data: 6856960
I0428 20:13:32.623853 32479 layer_factory.hpp:77] Creating layer ip1
I0428 20:13:32.623868 32479 net.cpp:86] Creating Layer ip1
I0428 20:13:32.623889 32479 net.cpp:408] ip1 <- pool1
I0428 20:13:32.623896 32479 net.cpp:382] ip1 -> ip1
I0428 20:13:32.625689 32479 net.cpp:124] Setting up ip1
I0428 20:13:32.625702 32479 net.cpp:131] Top shape: 64 50 (3200)
I0428 20:13:32.625720 32479 net.cpp:139] Memory required for data: 6869760
I0428 20:13:32.625728 32479 layer_factory.hpp:77] Creating layer relu1
I0428 20:13:32.625735 32479 net.cpp:86] Creating Layer relu1
I0428 20:13:32.625741 32479 net.cpp:408] relu1 <- ip1
I0428 20:13:32.625744 32479 net.cpp:369] relu1 -> ip1 (in-place)
I0428 20:13:32.625985 32479 net.cpp:124] Setting up relu1
I0428 20:13:32.625998 32479 net.cpp:131] Top shape: 64 50 (3200)
I0428 20:13:32.626003 32479 net.cpp:139] Memory required for data: 6882560
I0428 20:13:32.626009 32479 layer_factory.hpp:77] Creating layer ip2
I0428 20:13:32.626019 32479 net.cpp:86] Creating Layer ip2
I0428 20:13:32.626024 32479 net.cpp:408] ip2 <- ip1
I0428 20:13:32.626031 32479 net.cpp:382] ip2 -> ip2
I0428 20:13:32.626173 32479 net.cpp:124] Setting up ip2
I0428 20:13:32.626184 32479 net.cpp:131] Top shape: 64 10 (640)
I0428 20:13:32.626189 32479 net.cpp:139] Memory required for data: 6885120
I0428 20:13:32.626197 32479 layer_factory.hpp:77] Creating layer relu2
I0428 20:13:32.626206 32479 net.cpp:86] Creating Layer relu2
I0428 20:13:32.626211 32479 net.cpp:408] relu2 <- ip2
I0428 20:13:32.626217 32479 net.cpp:369] relu2 -> ip2 (in-place)
I0428 20:13:32.627220 32479 net.cpp:124] Setting up relu2
I0428 20:13:32.627251 32479 net.cpp:131] Top shape: 64 10 (640)
I0428 20:13:32.627256 32479 net.cpp:139] Memory required for data: 6887680
I0428 20:13:32.627261 32479 layer_factory.hpp:77] Creating layer ip3
I0428 20:13:32.627271 32479 net.cpp:86] Creating Layer ip3
I0428 20:13:32.627276 32479 net.cpp:408] ip3 <- ip2
I0428 20:13:32.627285 32479 net.cpp:382] ip3 -> ip3
I0428 20:13:32.627419 32479 net.cpp:124] Setting up ip3
I0428 20:13:32.627430 32479 net.cpp:131] Top shape: 64 10 (640)
I0428 20:13:32.627435 32479 net.cpp:139] Memory required for data: 6890240
I0428 20:13:32.627446 32479 layer_factory.hpp:77] Creating layer relu3
I0428 20:13:32.627454 32479 net.cpp:86] Creating Layer relu3
I0428 20:13:32.627460 32479 net.cpp:408] relu3 <- ip3
I0428 20:13:32.627465 32479 net.cpp:369] relu3 -> ip3 (in-place)
I0428 20:13:32.627755 32479 net.cpp:124] Setting up relu3
I0428 20:13:32.627769 32479 net.cpp:131] Top shape: 64 10 (640)
I0428 20:13:32.627775 32479 net.cpp:139] Memory required for data: 6892800
I0428 20:13:32.627781 32479 layer_factory.hpp:77] Creating layer loss
I0428 20:13:32.627790 32479 net.cpp:86] Creating Layer loss
I0428 20:13:32.627796 32479 net.cpp:408] loss <- ip3
I0428 20:13:32.627804 32479 net.cpp:408] loss <- label
I0428 20:13:32.627811 32479 net.cpp:382] loss -> loss
I0428 20:13:32.627849 32479 layer_factory.hpp:77] Creating layer loss
…
I0428 20:13:32.628854 32479 solver.cpp:173] Creating test net (#0) specified by net file: ECE595/mnist/train_test/var_everything2/lenet_train_test1201.prototxt
I0428 20:13:32.628926 32479 net.cpp:296] The NetState phase (1) differed from the phase (0) specified by a rule in layer mnist
I0428 20:13:32.629067 32479 net.cpp:53] Initializing net from parameters: 
name: "LeNet"
state {
  phase: TEST
}
layer {
  name: "mnist"
  type: "Data"
  top: "data"
  top: "label"
  include {
    phase: TEST
  }
  transform_param {
    scale: 0.00390625
  }
  data_param {
    source: "examples/mnist/mnist_test_lmdb"
    batch_size: 100
    backend: LMDB
  }
}
layer {
  name: "conv0"
  type: "Convolution"
  bottom: "data"
  top: "conv0"
  param {
    lr_mult: 1
  }
  param {
    lr_mult: 2
  }
  convolution_param {
    num_output: 25
    kernel_size: 5
    stride: 1
    weight_filler {
      type: "xavier"
    }
    bias_filler {
      type: "constant"
    }
  }
}
layer {
  name: "pool0"
  type: "Pooling"
  bottom: "conv0"
  top: "pool0"
  pooling_param {
    pool: MAX
    kernel_size: 2
    stride: 2
  }
}
layer {
  name: "conv1"
  type: "Convolution"
  bottom: "pool0"
  top: "conv1"
  param {
    lr_mult: 1
  }
  param {
    lr_mult: 2
  }
  convolution_param {
    num_output: 100
    kernel_size: 5
    stride: 1
    weight_filler {
      type: "xavier"
    }
    bias_filler {
      type: "constant"
    }
  }
}
layer {
  name: "pool1"
  type: "Pooling"
  bottom: "conv1"
  top: "pool1"
  pooling_param {
    pool: MAX
    kernel_size: 2
    stride: 2
  }
}
layer {
  name: "ip1"
  type: "InnerProduct"
  bottom: "pool1"
  top: "ip1"
  param {
    lr_mult: 1
  }
  param {
    lr_mult: 2
  }
  inner_product_param {
    num_output: 50
    weight_filler {
      type: "xavier"
    }
    bias_filler {
      type: "constant"
    }
  }
}
layer {
  name: "relu1"
  type: "ReLU"
  bottom: "ip1"
  top: "ip1"
}
layer {
  name: "ip2"
  type: "InnerProduct"
  bottom: "ip1"
  top: "ip2"
  param {
    lr_mult: 1
  }
  param {
    lr_mult: 2
  }
  inner_product_param {
    num_output: 10
    weight_filler {
      type: "xavier"
    }
    bias_filler {
      type: "constant"
    }
  }
}
layer {
  name: "relu2"
  type: "ReLU"
  bottom: "ip2"
  top: "ip2"
}
layer {
  name: "ip3"
  type: "InnerProduct"
  bottom: "ip2"
  top: "ip3"
  param {
    lr_mult: 1
  }
  param {
    lr_mult: 2
  }
  inner_product_param {
    num_output: 10
    weight_filler {
      type: "xavier"
    }
    bias_filler {
      type: "constant"
    }
  }
}
layer {
  name: "relu3"
  type: "ReLU"
  bottom: "ip3"
  top: "ip3"
}
layer {
  name: "accuracy"
  type: "Accuracy"
  bottom: "ip3"
  bottom: "label"
  top: "accuracy"
  include {
    phase: TEST
  }
}
layer {
  name: "loss"
  type: "SoftmaxWithLoss"
  bottom: "ip3"
  bottom: "label"
  top: "loss"
}
I0428 20:13:32.629209 32479 layer_factory.hpp:77] Creating layer mnist
I0428 20:13:32.629261 32479 db_lmdb.cpp:35] Opened lmdb examples/mnist/mnist_test_lmdb
I0428 20:13:32.629277 32479 net.cpp:86] Creating Layer mnist
I0428 20:13:32.629283 32479 net.cpp:382] mnist -> data
I0428 20:13:32.629293 32479 net.cpp:382] mnist -> label
I0428 20:13:32.629411 32479 data_layer.cpp:45] output data size: 100,1,28,28
I0428 20:13:32.630849 32479 net.cpp:124] Setting up mnist
I0428 20:13:32.630880 32479 net.cpp:131] Top shape: 100 1 28 28 (78400)
I0428 20:13:32.630889 32479 net.cpp:131] Top shape: 100 (100)
I0428 20:13:32.630893 32479 net.cpp:139] Memory required for data: 314000
I0428 20:13:32.630899 32479 layer_factory.hpp:77] Creating layer label_mnist_1_split
I0428 20:13:32.630936 32479 net.cpp:86] Creating Layer label_mnist_1_split
I0428 20:13:32.630941 32479 net.cpp:408] label_mnist_1_split <- label
I0428 20:13:32.630949 32479 net.cpp:382] label_mnist_1_split -> label_mnist_1_split_0
I0428 20:13:32.630959 32479 net.cpp:382] label_mnist_1_split -> label_mnist_1_split_1
I0428 20:13:32.631011 32479 net.cpp:124] Setting up label_mnist_1_split
I0428 20:13:32.631021 32479 net.cpp:131] Top shape: 100 (100)
I0428 20:13:32.631026 32479 net.cpp:131] Top shape: 100 (100)
I0428 20:13:32.631031 32479 net.cpp:139] Memory required for data: 314800
I0428 20:13:32.631034 32479 layer_factory.hpp:77] Creating layer conv0
I0428 20:13:32.631047 32479 net.cpp:86] Creating Layer conv0
I0428 20:13:32.631052 32479 net.cpp:408] conv0 <- data
I0428 20:13:32.631057 32479 net.cpp:382] conv0 -> conv0
I0428 20:13:32.632849 32479 net.cpp:124] Setting up conv0
I0428 20:13:32.632869 32479 net.cpp:131] Top shape: 100 25 24 24 (1440000)
I0428 20:13:32.632874 32479 net.cpp:139] Memory required for data: 6074800
I0428 20:13:32.632887 32479 layer_factory.hpp:77] Creating layer pool0
I0428 20:13:32.632895 32479 net.cpp:86] Creating Layer pool0
I0428 20:13:32.632901 32479 net.cpp:408] pool0 <- conv0
I0428 20:13:32.632908 32479 net.cpp:382] pool0 -> pool0
I0428 20:13:32.632954 32479 net.cpp:124] Setting up pool0
I0428 20:13:32.632977 32479 net.cpp:131] Top shape: 100 25 12 12 (360000)
I0428 20:13:32.632982 32479 net.cpp:139] Memory required for data: 7514800
I0428 20:13:32.632987 32479 layer_factory.hpp:77] Creating layer conv1
I0428 20:13:32.632998 32479 net.cpp:86] Creating Layer conv1
I0428 20:13:32.633003 32479 net.cpp:408] conv1 <- pool0
I0428 20:13:32.633010 32479 net.cpp:382] conv1 -> conv1
I0428 20:13:32.635251 32479 net.cpp:124] Setting up conv1
I0428 20:13:32.635263 32479 net.cpp:131] Top shape: 100 100 8 8 (640000)
I0428 20:13:32.635267 32479 net.cpp:139] Memory required for data: 10074800
I0428 20:13:32.635275 32479 layer_factory.hpp:77] Creating layer pool1
I0428 20:13:32.635291 32479 net.cpp:86] Creating Layer pool1
I0428 20:13:32.635318 32479 net.cpp:408] pool1 <- conv1
I0428 20:13:32.635336 32479 net.cpp:382] pool1 -> pool1
I0428 20:13:32.635383 32479 net.cpp:124] Setting up pool1
I0428 20:13:32.635395 32479 net.cpp:131] Top shape: 100 100 4 4 (160000)
I0428 20:13:32.635399 32479 net.cpp:139] Memory required for data: 10714800
I0428 20:13:32.635404 32479 layer_factory.hpp:77] Creating layer ip1
I0428 20:13:32.635413 32479 net.cpp:86] Creating Layer ip1
I0428 20:13:32.635419 32479 net.cpp:408] ip1 <- pool1
I0428 20:13:32.635427 32479 net.cpp:382] ip1 -> ip1
I0428 20:13:32.636420 32479 net.cpp:124] Setting up ip1
I0428 20:13:32.636433 32479 net.cpp:131] Top shape: 100 50 (5000)
I0428 20:13:32.636451 32479 net.cpp:139] Memory required for data: 10734800
I0428 20:13:32.636488 32479 layer_factory.hpp:77] Creating layer relu1
I0428 20:13:32.636495 32479 net.cpp:86] Creating Layer relu1
I0428 20:13:32.636500 32479 net.cpp:408] relu1 <- ip1
I0428 20:13:32.636507 32479 net.cpp:369] relu1 -> ip1 (in-place)
I0428 20:13:32.636698 32479 net.cpp:124] Setting up relu1
I0428 20:13:32.636708 32479 net.cpp:131] Top shape: 100 50 (5000)
I0428 20:13:32.636713 32479 net.cpp:139] Memory required for data: 10754800
I0428 20:13:32.636718 32479 layer_factory.hpp:77] Creating layer ip2
I0428 20:13:32.636728 32479 net.cpp:86] Creating Layer ip2
I0428 20:13:32.636732 32479 net.cpp:408] ip2 <- ip1
I0428 20:13:32.636739 32479 net.cpp:382] ip2 -> ip2
I0428 20:13:32.636903 32479 net.cpp:124] Setting up ip2
I0428 20:13:32.636914 32479 net.cpp:131] Top shape: 100 10 (1000)
I0428 20:13:32.636919 32479 net.cpp:139] Memory required for data: 10758800
I0428 20:13:32.636927 32479 layer_factory.hpp:77] Creating layer relu2
I0428 20:13:32.636942 32479 net.cpp:86] Creating Layer relu2
I0428 20:13:32.636947 32479 net.cpp:408] relu2 <- ip2
I0428 20:13:32.636955 32479 net.cpp:369] relu2 -> ip2 (in-place)
I0428 20:13:32.637327 32479 net.cpp:124] Setting up relu2
I0428 20:13:32.637343 32479 net.cpp:131] Top shape: 100 10 (1000)
I0428 20:13:32.637349 32479 net.cpp:139] Memory required for data: 10762800
I0428 20:13:32.637354 32479 layer_factory.hpp:77] Creating layer ip3
I0428 20:13:32.637363 32479 net.cpp:86] Creating Layer ip3
I0428 20:13:32.637369 32479 net.cpp:408] ip3 <- ip2
I0428 20:13:32.637378 32479 net.cpp:382] ip3 -> ip3
I0428 20:13:32.637517 32479 net.cpp:124] Setting up ip3
I0428 20:13:32.637529 32479 net.cpp:131] Top shape: 100 10 (1000)
I0428 20:13:32.637536 32479 net.cpp:139] Memory required for data: 10766800
I0428 20:13:32.637549 32479 layer_factory.hpp:77] Creating layer relu3
I0428 20:13:32.637557 32479 net.cpp:86] Creating Layer relu3
I0428 20:13:32.637563 32479 net.cpp:408] relu3 <- ip3
I0428 20:13:32.637570 32479 net.cpp:369] relu3 -> ip3 (in-place)
I0428 20:13:32.638679 32479 net.cpp:124] Setting up relu3
I0428 20:13:32.638710 32479 net.cpp:131] Top shape: 100 10 (1000)
I0428 20:13:32.638715 32479 net.cpp:139] Memory required for data: 10770800
I0428 20:13:32.638720 32479 layer_factory.hpp:77] Creating layer ip3_relu3_0_split
I0428 20:13:32.638727 32479 net.cpp:86] Creating Layer ip3_relu3_0_split
I0428 20:13:32.638732 32479 net.cpp:408] ip3_relu3_0_split <- ip3
I0428 20:13:32.638739 32479 net.cpp:382] ip3_relu3_0_split -> ip3_relu3_0_split_0
I0428 20:13:32.638748 32479 net.cpp:382] ip3_relu3_0_split -> ip3_relu3_0_split_1
I0428 20:13:32.638792 32479 net.cpp:124] Setting up ip3_relu3_0_split
I0428 20:13:32.638800 32479 net.cpp:131] Top shape: 100 10 (1000)
I0428 20:13:32.638806 32479 net.cpp:131] Top shape: 100 10 (1000)
I0428 20:13:32.638810 32479 net.cpp:139] Memory required for data: 10778800
I0428 20:13:32.638815 32479 layer_factory.hpp:77] Creating layer accuracy
I0428 20:13:32.638823 32479 net.cpp:86] Creating Layer accuracy
I0428 20:13:32.638826 32479 net.cpp:408] accuracy <- ip3_relu3_0_split_0
I0428 20:13:32.638833 32479 net.cpp:408] accuracy <- label_mnist_1_split_0
I0428 20:13:32.638839 32479 net.cpp:382] accuracy -> accuracy
…
