…
I0428 19:33:28.130951 23109 net.cpp:296] The NetState phase (0) differed from the phase (1) specified by a rule in layer mnist
I0428 19:33:28.130973 23109 net.cpp:296] The NetState phase (0) differed from the phase (1) specified by a rule in layer accuracy
I0428 19:33:28.131072 23109 net.cpp:53] Initializing net from parameters: 
name: "LeNet"
state {
  phase: TRAIN
  level: 0
  stage: ""
}
layer {
  name: "mnist"
  type: "Data"
  top: "data"
  top: "label"
  include {
    phase: TRAIN
  }
  transform_param {
    scale: 0.00390625
  }
  data_param {
    source: "examples/mnist/mnist_train_lmdb"
    batch_size: 64
    backend: LMDB
  }
}
layer {
  name: "conv0"
  type: "Convolution"
  bottom: "data"
  top: "conv0"
  param {
    lr_mult: 1
  }
  param {
    lr_mult: 2
  }
  convolution_param {
    num_output: 25
    kernel_size: 5
    stride: 1
    weight_filler {
      type: "xavier"
    }
    bias_filler {
      type: "constant"
    }
  }
}
layer {
  name: "pool0"
  type: "Pooling"
  bottom: "conv0"
  top: "pool0"
  pooling_param {
    pool: MAX
    kernel_size: 2
    stride: 2
  }
}
layer {
  name: "ip1"
  type: "InnerProduct"
  bottom: "pool0"
  top: "ip1"
  param {
    lr_mult: 1
  }
  param {
    lr_mult: 2
  }
  inner_product_param {
    num_output: 25
    weight_filler {
      type: "xavier"
    }
    bias_filler {
      type: "constant"
    }
  }
}
layer {
  name: "relu1"
  type: "ReLU"
  bottom: "ip1"
  top: "ip1"
}
layer {
  name: "ip2"
  type: "InnerProduct"
  bottom: "ip1"
  top: "ip2"
  param {
    lr_mult: 1
  }
  param {
    lr_mult: 2
  }
  inner_product_param {
    num_output: 25
    weight_filler {
      type: "xavier"
    }
    bias_filler {
      type: "constant"
    }
  }
}
layer {
  name: "relu2"
  type: "ReLU"
  bottom: "ip2"
  top: "ip2"
}
layer {
  name: "ip3"
  type: "InnerProduct"
  bottom: "ip2"
  top: "ip3"
  param {
    lr_mult: 1
  }
  param {
    lr_mult: 2
  }
  inner_product_param {
    num_output: 10
    weight_filler {
      type: "xavier"
    }
    bias_filler {
      type: "constant"
    }
  }
}
layer {
  name: "relu3"
  type: "ReLU"
  bottom: "ip3"
  top: "ip3"
}
layer {
  name: "loss"
  type: "SoftmaxWithLoss"
  bottom: "ip3"
  bottom: "label"
  top: "loss"
}
I0428 19:33:28.131180 23109 layer_factory.hpp:77] Creating layer mnist
I0428 19:33:28.131314 23109 db_lmdb.cpp:35] Opened lmdb examples/mnist/mnist_train_lmdb
I0428 19:33:28.131348 23109 net.cpp:86] Creating Layer mnist
I0428 19:33:28.131361 23109 net.cpp:382] mnist -> data
I0428 19:33:28.131394 23109 net.cpp:382] mnist -> label
I0428 19:33:28.132613 23109 data_layer.cpp:45] output data size: 64,1,28,28
I0428 19:33:28.135113 23109 net.cpp:124] Setting up mnist
I0428 19:33:28.135135 23109 net.cpp:131] Top shape: 64 1 28 28 (50176)
I0428 19:33:28.135146 23109 net.cpp:131] Top shape: 64 (64)
I0428 19:33:28.135152 23109 net.cpp:139] Memory required for data: 200960
I0428 19:33:28.135164 23109 layer_factory.hpp:77] Creating layer conv0
I0428 19:33:28.135187 23109 net.cpp:86] Creating Layer conv0
I0428 19:33:28.135200 23109 net.cpp:408] conv0 <- data
I0428 19:33:28.135217 23109 net.cpp:382] conv0 -> conv0
I0428 19:33:28.404523 23109 net.cpp:124] Setting up conv0
I0428 19:33:28.404554 23109 net.cpp:131] Top shape: 64 25 24 24 (921600)
I0428 19:33:28.404561 23109 net.cpp:139] Memory required for data: 3887360
I0428 19:33:28.404580 23109 layer_factory.hpp:77] Creating layer pool0
I0428 19:33:28.404597 23109 net.cpp:86] Creating Layer pool0
I0428 19:33:28.404618 23109 net.cpp:408] pool0 <- conv0
I0428 19:33:28.404628 23109 net.cpp:382] pool0 -> pool0
I0428 19:33:28.404678 23109 net.cpp:124] Setting up pool0
I0428 19:33:28.404687 23109 net.cpp:131] Top shape: 64 25 12 12 (230400)
I0428 19:33:28.404692 23109 net.cpp:139] Memory required for data: 4808960
I0428 19:33:28.404697 23109 layer_factory.hpp:77] Creating layer ip1
I0428 19:33:28.404708 23109 net.cpp:86] Creating Layer ip1
I0428 19:33:28.404716 23109 net.cpp:408] ip1 <- pool0
I0428 19:33:28.404724 23109 net.cpp:382] ip1 -> ip1
I0428 19:33:28.406281 23109 net.cpp:124] Setting up ip1
I0428 19:33:28.406296 23109 net.cpp:131] Top shape: 64 25 (1600)
I0428 19:33:28.406302 23109 net.cpp:139] Memory required for data: 4815360
I0428 19:33:28.406328 23109 layer_factory.hpp:77] Creating layer relu1
I0428 19:33:28.406353 23109 net.cpp:86] Creating Layer relu1
I0428 19:33:28.406365 23109 net.cpp:408] relu1 <- ip1
I0428 19:33:28.406373 23109 net.cpp:369] relu1 -> ip1 (in-place)
I0428 19:33:28.406539 23109 net.cpp:124] Setting up relu1
I0428 19:33:28.406549 23109 net.cpp:131] Top shape: 64 25 (1600)
I0428 19:33:28.406554 23109 net.cpp:139] Memory required for data: 4821760
I0428 19:33:28.406560 23109 layer_factory.hpp:77] Creating layer ip2
I0428 19:33:28.406569 23109 net.cpp:86] Creating Layer ip2
I0428 19:33:28.406575 23109 net.cpp:408] ip2 <- ip1
I0428 19:33:28.406584 23109 net.cpp:382] ip2 -> ip2
I0428 19:33:28.406702 23109 net.cpp:124] Setting up ip2
I0428 19:33:28.406711 23109 net.cpp:131] Top shape: 64 25 (1600)
I0428 19:33:28.406716 23109 net.cpp:139] Memory required for data: 4828160
I0428 19:33:28.406728 23109 layer_factory.hpp:77] Creating layer relu2
I0428 19:33:28.406740 23109 net.cpp:86] Creating Layer relu2
I0428 19:33:28.406747 23109 net.cpp:408] relu2 <- ip2
I0428 19:33:28.406755 23109 net.cpp:369] relu2 -> ip2 (in-place)
I0428 19:33:28.407555 23109 net.cpp:124] Setting up relu2
I0428 19:33:28.407569 23109 net.cpp:131] Top shape: 64 25 (1600)
I0428 19:33:28.407575 23109 net.cpp:139] Memory required for data: 4834560
I0428 19:33:28.407580 23109 layer_factory.hpp:77] Creating layer ip3
I0428 19:33:28.407593 23109 net.cpp:86] Creating Layer ip3
I0428 19:33:28.407599 23109 net.cpp:408] ip3 <- ip2
I0428 19:33:28.407608 23109 net.cpp:382] ip3 -> ip3
I0428 19:33:28.407716 23109 net.cpp:124] Setting up ip3
I0428 19:33:28.407738 23109 net.cpp:131] Top shape: 64 10 (640)
I0428 19:33:28.407743 23109 net.cpp:139] Memory required for data: 4837120
I0428 19:33:28.407752 23109 layer_factory.hpp:77] Creating layer relu3
I0428 19:33:28.407763 23109 net.cpp:86] Creating Layer relu3
I0428 19:33:28.407769 23109 net.cpp:408] relu3 <- ip3
I0428 19:33:28.407776 23109 net.cpp:369] relu3 -> ip3 (in-place)
I0428 19:33:28.407950 23109 net.cpp:124] Setting up relu3
I0428 19:33:28.407959 23109 net.cpp:131] Top shape: 64 10 (640)
I0428 19:33:28.407964 23109 net.cpp:139] Memory required for data: 4839680
I0428 19:33:28.407969 23109 layer_factory.hpp:77] Creating layer loss
I0428 19:33:28.407979 23109 net.cpp:86] Creating Layer loss
I0428 19:33:28.407984 23109 net.cpp:408] loss <- ip3
I0428 19:33:28.407990 23109 net.cpp:408] loss <- label
I0428 19:33:28.407999 23109 net.cpp:382] loss -> loss
I0428 19:33:28.408020 23109 layer_factory.hpp:77] Creating layer loss
…
I0428 19:33:28.408713 23109 solver.cpp:173] Creating test net (#0) specified by net file: ECE595/mnist/train_test/var_everything2/lenet_train_test180.prototxt
I0428 19:33:28.408743 23109 net.cpp:296] The NetState phase (1) differed from the phase (0) specified by a rule in layer mnist
I0428 19:33:28.408848 23109 net.cpp:53] Initializing net from parameters: 
name: "LeNet"
state {
  phase: TEST
}
layer {
  name: "mnist"
  type: "Data"
  top: "data"
  top: "label"
  include {
    phase: TEST
  }
  transform_param {
    scale: 0.00390625
  }
  data_param {
    source: "examples/mnist/mnist_test_lmdb"
    batch_size: 100
    backend: LMDB
  }
}
layer {
  name: "conv0"
  type: "Convolution"
  bottom: "data"
  top: "conv0"
  param {
    lr_mult: 1
  }
  param {
    lr_mult: 2
  }
  convolution_param {
    num_output: 25
    kernel_size: 5
    stride: 1
    weight_filler {
      type: "xavier"
    }
    bias_filler {
      type: "constant"
    }
  }
}
layer {
  name: "pool0"
  type: "Pooling"
  bottom: "conv0"
  top: "pool0"
  pooling_param {
    pool: MAX
    kernel_size: 2
    stride: 2
  }
}
layer {
  name: "ip1"
  type: "InnerProduct"
  bottom: "pool0"
  top: "ip1"
  param {
    lr_mult: 1
  }
  param {
    lr_mult: 2
  }
  inner_product_param {
    num_output: 25
    weight_filler {
      type: "xavier"
    }
    bias_filler {
      type: "constant"
    }
  }
}
layer {
  name: "relu1"
  type: "ReLU"
  bottom: "ip1"
  top: "ip1"
}
layer {
  name: "ip2"
  type: "InnerProduct"
  bottom: "ip1"
  top: "ip2"
  param {
    lr_mult: 1
  }
  param {
    lr_mult: 2
  }
  inner_product_param {
    num_output: 25
    weight_filler {
      type: "xavier"
    }
    bias_filler {
      type: "constant"
    }
  }
}
layer {
  name: "relu2"
  type: "ReLU"
  bottom: "ip2"
  top: "ip2"
}
layer {
  name: "ip3"
  type: "InnerProduct"
  bottom: "ip2"
  top: "ip3"
  param {
    lr_mult: 1
  }
  param {
    lr_mult: 2
  }
  inner_product_param {
    num_output: 10
    weight_filler {
      type: "xavier"
    }
    bias_filler {
      type: "constant"
    }
  }
}
layer {
  name: "relu3"
  type: "ReLU"
  bottom: "ip3"
  top: "ip3"
}
layer {
  name: "accuracy"
  type: "Accuracy"
  bottom: "ip3"
  bottom: "label"
  top: "accuracy"
  include {
    phase: TEST
  }
}
layer {
  name: "loss"
  type: "SoftmaxWithLoss"
  bottom: "ip3"
  bottom: "label"
  top: "loss"
}
I0428 19:33:28.408998 23109 layer_factory.hpp:77] Creating layer mnist
I0428 19:33:28.409055 23109 db_lmdb.cpp:35] Opened lmdb examples/mnist/mnist_test_lmdb
I0428 19:33:28.409072 23109 net.cpp:86] Creating Layer mnist
I0428 19:33:28.409081 23109 net.cpp:382] mnist -> data
I0428 19:33:28.409092 23109 net.cpp:382] mnist -> label
I0428 19:33:28.409271 23109 data_layer.cpp:45] output data size: 100,1,28,28
I0428 19:33:28.410764 23109 net.cpp:124] Setting up mnist
I0428 19:33:28.410794 23109 net.cpp:131] Top shape: 100 1 28 28 (78400)
I0428 19:33:28.410801 23109 net.cpp:131] Top shape: 100 (100)
I0428 19:33:28.410806 23109 net.cpp:139] Memory required for data: 314000
I0428 19:33:28.410811 23109 layer_factory.hpp:77] Creating layer label_mnist_1_split
I0428 19:33:28.410866 23109 net.cpp:86] Creating Layer label_mnist_1_split
I0428 19:33:28.410871 23109 net.cpp:408] label_mnist_1_split <- label
I0428 19:33:28.410879 23109 net.cpp:382] label_mnist_1_split -> label_mnist_1_split_0
I0428 19:33:28.410890 23109 net.cpp:382] label_mnist_1_split -> label_mnist_1_split_1
I0428 19:33:28.410985 23109 net.cpp:124] Setting up label_mnist_1_split
I0428 19:33:28.410995 23109 net.cpp:131] Top shape: 100 (100)
I0428 19:33:28.411000 23109 net.cpp:131] Top shape: 100 (100)
I0428 19:33:28.411005 23109 net.cpp:139] Memory required for data: 314800
I0428 19:33:28.411020 23109 layer_factory.hpp:77] Creating layer conv0
I0428 19:33:28.411036 23109 net.cpp:86] Creating Layer conv0
I0428 19:33:28.411042 23109 net.cpp:408] conv0 <- data
I0428 19:33:28.411052 23109 net.cpp:382] conv0 -> conv0
I0428 19:33:28.412677 23109 net.cpp:124] Setting up conv0
I0428 19:33:28.412691 23109 net.cpp:131] Top shape: 100 25 24 24 (1440000)
I0428 19:33:28.412696 23109 net.cpp:139] Memory required for data: 6074800
I0428 19:33:28.412725 23109 layer_factory.hpp:77] Creating layer pool0
I0428 19:33:28.412739 23109 net.cpp:86] Creating Layer pool0
I0428 19:33:28.412746 23109 net.cpp:408] pool0 <- conv0
I0428 19:33:28.412768 23109 net.cpp:382] pool0 -> pool0
I0428 19:33:28.412849 23109 net.cpp:124] Setting up pool0
I0428 19:33:28.412859 23109 net.cpp:131] Top shape: 100 25 12 12 (360000)
I0428 19:33:28.412864 23109 net.cpp:139] Memory required for data: 7514800
I0428 19:33:28.412869 23109 layer_factory.hpp:77] Creating layer ip1
I0428 19:33:28.412880 23109 net.cpp:86] Creating Layer ip1
I0428 19:33:28.412885 23109 net.cpp:408] ip1 <- pool0
I0428 19:33:28.412895 23109 net.cpp:382] ip1 -> ip1
I0428 19:33:28.413502 23109 net.cpp:124] Setting up ip1
I0428 19:33:28.413512 23109 net.cpp:131] Top shape: 100 25 (2500)
I0428 19:33:28.413517 23109 net.cpp:139] Memory required for data: 7524800
I0428 19:33:28.413528 23109 layer_factory.hpp:77] Creating layer relu1
I0428 19:33:28.413537 23109 net.cpp:86] Creating Layer relu1
I0428 19:33:28.413544 23109 net.cpp:408] relu1 <- ip1
I0428 19:33:28.413553 23109 net.cpp:369] relu1 -> ip1 (in-place)
I0428 19:33:28.413769 23109 net.cpp:124] Setting up relu1
I0428 19:33:28.413779 23109 net.cpp:131] Top shape: 100 25 (2500)
I0428 19:33:28.413785 23109 net.cpp:139] Memory required for data: 7534800
I0428 19:33:28.413791 23109 layer_factory.hpp:77] Creating layer ip2
I0428 19:33:28.413802 23109 net.cpp:86] Creating Layer ip2
I0428 19:33:28.413815 23109 net.cpp:408] ip2 <- ip1
I0428 19:33:28.413822 23109 net.cpp:382] ip2 -> ip2
I0428 19:33:28.413936 23109 net.cpp:124] Setting up ip2
I0428 19:33:28.413946 23109 net.cpp:131] Top shape: 100 25 (2500)
I0428 19:33:28.413951 23109 net.cpp:139] Memory required for data: 7544800
I0428 19:33:28.413967 23109 layer_factory.hpp:77] Creating layer relu2
I0428 19:33:28.413977 23109 net.cpp:86] Creating Layer relu2
I0428 19:33:28.413997 23109 net.cpp:408] relu2 <- ip2
I0428 19:33:28.414005 23109 net.cpp:369] relu2 -> ip2 (in-place)
I0428 19:33:28.414815 23109 net.cpp:124] Setting up relu2
I0428 19:33:28.414829 23109 net.cpp:131] Top shape: 100 25 (2500)
I0428 19:33:28.414834 23109 net.cpp:139] Memory required for data: 7554800
I0428 19:33:28.414839 23109 layer_factory.hpp:77] Creating layer ip3
I0428 19:33:28.414854 23109 net.cpp:86] Creating Layer ip3
I0428 19:33:28.414875 23109 net.cpp:408] ip3 <- ip2
I0428 19:33:28.414886 23109 net.cpp:382] ip3 -> ip3
I0428 19:33:28.415050 23109 net.cpp:124] Setting up ip3
I0428 19:33:28.415060 23109 net.cpp:131] Top shape: 100 10 (1000)
I0428 19:33:28.415066 23109 net.cpp:139] Memory required for data: 7558800
I0428 19:33:28.415076 23109 layer_factory.hpp:77] Creating layer relu3
I0428 19:33:28.415099 23109 net.cpp:86] Creating Layer relu3
I0428 19:33:28.415105 23109 net.cpp:408] relu3 <- ip3
I0428 19:33:28.415112 23109 net.cpp:369] relu3 -> ip3 (in-place)
I0428 19:33:28.415292 23109 net.cpp:124] Setting up relu3
I0428 19:33:28.415302 23109 net.cpp:131] Top shape: 100 10 (1000)
I0428 19:33:28.415307 23109 net.cpp:139] Memory required for data: 7562800
I0428 19:33:28.415313 23109 layer_factory.hpp:77] Creating layer ip3_relu3_0_split
I0428 19:33:28.415321 23109 net.cpp:86] Creating Layer ip3_relu3_0_split
I0428 19:33:28.415328 23109 net.cpp:408] ip3_relu3_0_split <- ip3
I0428 19:33:28.415334 23109 net.cpp:382] ip3_relu3_0_split -> ip3_relu3_0_split_0
I0428 19:33:28.415344 23109 net.cpp:382] ip3_relu3_0_split -> ip3_relu3_0_split_1
I0428 19:33:28.415387 23109 net.cpp:124] Setting up ip3_relu3_0_split
I0428 19:33:28.415395 23109 net.cpp:131] Top shape: 100 10 (1000)
I0428 19:33:28.415402 23109 net.cpp:131] Top shape: 100 10 (1000)
I0428 19:33:28.415418 23109 net.cpp:139] Memory required for data: 7570800
I0428 19:33:28.415431 23109 layer_factory.hpp:77] Creating layer accuracy
I0428 19:33:28.415441 23109 net.cpp:86] Creating Layer accuracy
I0428 19:33:28.415448 23109 net.cpp:408] accuracy <- ip3_relu3_0_split_0
I0428 19:33:28.415455 23109 net.cpp:408] accuracy <- label_mnist_1_split_0
I0428 19:33:28.415462 23109 net.cpp:382] accuracy -> accuracy
…
