…
I0428 20:33:50.935186  4379 net.cpp:296] The NetState phase (0) differed from the phase (1) specified by a rule in layer mnist
I0428 20:33:50.935204  4379 net.cpp:296] The NetState phase (0) differed from the phase (1) specified by a rule in layer accuracy
I0428 20:33:50.935300  4379 net.cpp:53] Initializing net from parameters: 
name: "LeNet"
state {
  phase: TRAIN
  level: 0
  stage: ""
}
layer {
  name: "mnist"
  type: "Data"
  top: "data"
  top: "label"
  include {
    phase: TRAIN
  }
  transform_param {
    scale: 0.00390625
  }
  data_param {
    source: "examples/mnist/mnist_train_lmdb"
    batch_size: 64
    backend: LMDB
  }
}
layer {
  name: "conv0"
  type: "Convolution"
  bottom: "data"
  top: "conv0"
  param {
    lr_mult: 1
  }
  param {
    lr_mult: 2
  }
  convolution_param {
    num_output: 100
    kernel_size: 5
    stride: 1
    weight_filler {
      type: "xavier"
    }
    bias_filler {
      type: "constant"
    }
  }
}
layer {
  name: "pool0"
  type: "Pooling"
  bottom: "conv0"
  top: "pool0"
  pooling_param {
    pool: MAX
    kernel_size: 2
    stride: 2
  }
}
layer {
  name: "conv1"
  type: "Convolution"
  bottom: "pool0"
  top: "conv1"
  param {
    lr_mult: 1
  }
  param {
    lr_mult: 2
  }
  convolution_param {
    num_output: 25
    kernel_size: 5
    stride: 1
    weight_filler {
      type: "xavier"
    }
    bias_filler {
      type: "constant"
    }
  }
}
layer {
  name: "pool1"
  type: "Pooling"
  bottom: "conv1"
  top: "pool1"
  pooling_param {
    pool: MAX
    kernel_size: 2
    stride: 2
  }
}
layer {
  name: "ip1"
  type: "InnerProduct"
  bottom: "pool1"
  top: "ip1"
  param {
    lr_mult: 1
  }
  param {
    lr_mult: 2
  }
  inner_product_param {
    num_output: 50
    weight_filler {
      type: "xavier"
    }
    bias_filler {
      type: "constant"
    }
  }
}
layer {
  name: "relu1"
  type: "ReLU"
  bottom: "ip1"
  top: "ip1"
}
layer {
  name: "ip2"
  type: "InnerProduct"
  bottom: "ip1"
  top: "ip2"
  param {
    lr_mult: 1
  }
  param {
    lr_mult: 2
  }
  inner_product_param {
    num_output: 25
    weight_filler {
      type: "xavier"
    }
    bias_filler {
      type: "constant"
    }
  }
}
layer {
  name: "relu2"
  type: "ReLU"
  bottom: "ip2"
  top: "ip2"
}
layer {
  name: "ip3"
  type: "InnerProduct"
  bottom: "ip2"
  top: "ip3"
  param {
    lr_mult: 1
  }
  param {
    lr_mult: 2
  }
  inner_product_param {
    num_output: 10
    weight_filler {
      type: "xavier"
    }
    bias_filler {
      type: "constant"
    }
  }
}
layer {
  name: "relu3"
  type: "ReLU"
  bottom: "ip3"
  top: "ip3"
}
layer {
  name: "loss"
  type: "SoftmaxWithLoss"
  bottom: "ip3"
  bottom: "label"
  top: "loss"
}
I0428 20:33:50.935374  4379 layer_factory.hpp:77] Creating layer mnist
I0428 20:33:50.935472  4379 db_lmdb.cpp:35] Opened lmdb examples/mnist/mnist_train_lmdb
I0428 20:33:50.935493  4379 net.cpp:86] Creating Layer mnist
I0428 20:33:50.935501  4379 net.cpp:382] mnist -> data
I0428 20:33:50.935523  4379 net.cpp:382] mnist -> label
I0428 20:33:50.936601  4379 data_layer.cpp:45] output data size: 64,1,28,28
I0428 20:33:50.939052  4379 net.cpp:124] Setting up mnist
I0428 20:33:50.939071  4379 net.cpp:131] Top shape: 64 1 28 28 (50176)
I0428 20:33:50.939077  4379 net.cpp:131] Top shape: 64 (64)
I0428 20:33:50.939081  4379 net.cpp:139] Memory required for data: 200960
I0428 20:33:50.939090  4379 layer_factory.hpp:77] Creating layer conv0
I0428 20:33:50.939105  4379 net.cpp:86] Creating Layer conv0
I0428 20:33:50.939126  4379 net.cpp:408] conv0 <- data
I0428 20:33:50.939138  4379 net.cpp:382] conv0 -> conv0
I0428 20:33:51.199898  4379 net.cpp:124] Setting up conv0
I0428 20:33:51.199924  4379 net.cpp:131] Top shape: 64 100 24 24 (3686400)
I0428 20:33:51.199928  4379 net.cpp:139] Memory required for data: 14946560
I0428 20:33:51.199942  4379 layer_factory.hpp:77] Creating layer pool0
I0428 20:33:51.199954  4379 net.cpp:86] Creating Layer pool0
I0428 20:33:51.199957  4379 net.cpp:408] pool0 <- conv0
I0428 20:33:51.199964  4379 net.cpp:382] pool0 -> pool0
I0428 20:33:51.200022  4379 net.cpp:124] Setting up pool0
I0428 20:33:51.200028  4379 net.cpp:131] Top shape: 64 100 12 12 (921600)
I0428 20:33:51.200031  4379 net.cpp:139] Memory required for data: 18632960
I0428 20:33:51.200033  4379 layer_factory.hpp:77] Creating layer conv1
I0428 20:33:51.200044  4379 net.cpp:86] Creating Layer conv1
I0428 20:33:51.200047  4379 net.cpp:408] conv1 <- pool0
I0428 20:33:51.200052  4379 net.cpp:382] conv1 -> conv1
I0428 20:33:51.202360  4379 net.cpp:124] Setting up conv1
I0428 20:33:51.202390  4379 net.cpp:131] Top shape: 64 25 8 8 (102400)
I0428 20:33:51.202394  4379 net.cpp:139] Memory required for data: 19042560
I0428 20:33:51.202404  4379 layer_factory.hpp:77] Creating layer pool1
I0428 20:33:51.202411  4379 net.cpp:86] Creating Layer pool1
I0428 20:33:51.202430  4379 net.cpp:408] pool1 <- conv1
I0428 20:33:51.202435  4379 net.cpp:382] pool1 -> pool1
I0428 20:33:51.202484  4379 net.cpp:124] Setting up pool1
I0428 20:33:51.202491  4379 net.cpp:131] Top shape: 64 25 4 4 (25600)
I0428 20:33:51.202492  4379 net.cpp:139] Memory required for data: 19144960
I0428 20:33:51.202495  4379 layer_factory.hpp:77] Creating layer ip1
I0428 20:33:51.202502  4379 net.cpp:86] Creating Layer ip1
I0428 20:33:51.202505  4379 net.cpp:408] ip1 <- pool1
I0428 20:33:51.202510  4379 net.cpp:382] ip1 -> ip1
I0428 20:33:51.202767  4379 net.cpp:124] Setting up ip1
I0428 20:33:51.202775  4379 net.cpp:131] Top shape: 64 50 (3200)
I0428 20:33:51.202778  4379 net.cpp:139] Memory required for data: 19157760
I0428 20:33:51.202785  4379 layer_factory.hpp:77] Creating layer relu1
I0428 20:33:51.202791  4379 net.cpp:86] Creating Layer relu1
I0428 20:33:51.202795  4379 net.cpp:408] relu1 <- ip1
I0428 20:33:51.202798  4379 net.cpp:369] relu1 -> ip1 (in-place)
I0428 20:33:51.202983  4379 net.cpp:124] Setting up relu1
I0428 20:33:51.202991  4379 net.cpp:131] Top shape: 64 50 (3200)
I0428 20:33:51.202996  4379 net.cpp:139] Memory required for data: 19170560
I0428 20:33:51.202998  4379 layer_factory.hpp:77] Creating layer ip2
I0428 20:33:51.203018  4379 net.cpp:86] Creating Layer ip2
I0428 20:33:51.203022  4379 net.cpp:408] ip2 <- ip1
I0428 20:33:51.203027  4379 net.cpp:382] ip2 -> ip2
I0428 20:33:51.203125  4379 net.cpp:124] Setting up ip2
I0428 20:33:51.203132  4379 net.cpp:131] Top shape: 64 25 (1600)
I0428 20:33:51.203135  4379 net.cpp:139] Memory required for data: 19176960
I0428 20:33:51.203140  4379 layer_factory.hpp:77] Creating layer relu2
I0428 20:33:51.203146  4379 net.cpp:86] Creating Layer relu2
I0428 20:33:51.203150  4379 net.cpp:408] relu2 <- ip2
I0428 20:33:51.203153  4379 net.cpp:369] relu2 -> ip2 (in-place)
I0428 20:33:51.203958  4379 net.cpp:124] Setting up relu2
I0428 20:33:51.203969  4379 net.cpp:131] Top shape: 64 25 (1600)
I0428 20:33:51.203987  4379 net.cpp:139] Memory required for data: 19183360
I0428 20:33:51.203990  4379 layer_factory.hpp:77] Creating layer ip3
I0428 20:33:51.203997  4379 net.cpp:86] Creating Layer ip3
I0428 20:33:51.204000  4379 net.cpp:408] ip3 <- ip2
I0428 20:33:51.204006  4379 net.cpp:382] ip3 -> ip3
I0428 20:33:51.204099  4379 net.cpp:124] Setting up ip3
I0428 20:33:51.204107  4379 net.cpp:131] Top shape: 64 10 (640)
I0428 20:33:51.204110  4379 net.cpp:139] Memory required for data: 19185920
I0428 20:33:51.204118  4379 layer_factory.hpp:77] Creating layer relu3
I0428 20:33:51.204123  4379 net.cpp:86] Creating Layer relu3
I0428 20:33:51.204125  4379 net.cpp:408] relu3 <- ip3
I0428 20:33:51.204143  4379 net.cpp:369] relu3 -> ip3 (in-place)
I0428 20:33:51.204320  4379 net.cpp:124] Setting up relu3
I0428 20:33:51.204329  4379 net.cpp:131] Top shape: 64 10 (640)
I0428 20:33:51.204332  4379 net.cpp:139] Memory required for data: 19188480
I0428 20:33:51.204335  4379 layer_factory.hpp:77] Creating layer loss
I0428 20:33:51.204341  4379 net.cpp:86] Creating Layer loss
I0428 20:33:51.204344  4379 net.cpp:408] loss <- ip3
I0428 20:33:51.204349  4379 net.cpp:408] loss <- label
I0428 20:33:51.204354  4379 net.cpp:382] loss -> loss
I0428 20:33:51.204367  4379 layer_factory.hpp:77] Creating layer loss
…
I0428 20:33:51.205092  4379 solver.cpp:173] Creating test net (#0) specified by net file: ECE595/mnist/train_test/var_everything2/lenet_train_test1595.prototxt
I0428 20:33:51.205130  4379 net.cpp:296] The NetState phase (1) differed from the phase (0) specified by a rule in layer mnist
I0428 20:33:51.205231  4379 net.cpp:53] Initializing net from parameters: 
name: "LeNet"
state {
  phase: TEST
}
layer {
  name: "mnist"
  type: "Data"
  top: "data"
  top: "label"
  include {
    phase: TEST
  }
  transform_param {
    scale: 0.00390625
  }
  data_param {
    source: "examples/mnist/mnist_test_lmdb"
    batch_size: 100
    backend: LMDB
  }
}
layer {
  name: "conv0"
  type: "Convolution"
  bottom: "data"
  top: "conv0"
  param {
    lr_mult: 1
  }
  param {
    lr_mult: 2
  }
  convolution_param {
    num_output: 100
    kernel_size: 5
    stride: 1
    weight_filler {
      type: "xavier"
    }
    bias_filler {
      type: "constant"
    }
  }
}
layer {
  name: "pool0"
  type: "Pooling"
  bottom: "conv0"
  top: "pool0"
  pooling_param {
    pool: MAX
    kernel_size: 2
    stride: 2
  }
}
layer {
  name: "conv1"
  type: "Convolution"
  bottom: "pool0"
  top: "conv1"
  param {
    lr_mult: 1
  }
  param {
    lr_mult: 2
  }
  convolution_param {
    num_output: 25
    kernel_size: 5
    stride: 1
    weight_filler {
      type: "xavier"
    }
    bias_filler {
      type: "constant"
    }
  }
}
layer {
  name: "pool1"
  type: "Pooling"
  bottom: "conv1"
  top: "pool1"
  pooling_param {
    pool: MAX
    kernel_size: 2
    stride: 2
  }
}
layer {
  name: "ip1"
  type: "InnerProduct"
  bottom: "pool1"
  top: "ip1"
  param {
    lr_mult: 1
  }
  param {
    lr_mult: 2
  }
  inner_product_param {
    num_output: 50
    weight_filler {
      type: "xavier"
    }
    bias_filler {
      type: "constant"
    }
  }
}
layer {
  name: "relu1"
  type: "ReLU"
  bottom: "ip1"
  top: "ip1"
}
layer {
  name: "ip2"
  type: "InnerProduct"
  bottom: "ip1"
  top: "ip2"
  param {
    lr_mult: 1
  }
  param {
    lr_mult: 2
  }
  inner_product_param {
    num_output: 25
    weight_filler {
      type: "xavier"
    }
    bias_filler {
      type: "constant"
    }
  }
}
layer {
  name: "relu2"
  type: "ReLU"
  bottom: "ip2"
  top: "ip2"
}
layer {
  name: "ip3"
  type: "InnerProduct"
  bottom: "ip2"
  top: "ip3"
  param {
    lr_mult: 1
  }
  param {
    lr_mult: 2
  }
  inner_product_param {
    num_output: 10
    weight_filler {
      type: "xavier"
    }
    bias_filler {
      type: "constant"
    }
  }
}
layer {
  name: "relu3"
  type: "ReLU"
  bottom: "ip3"
  top: "ip3"
}
layer {
  name: "accuracy"
  type: "Accuracy"
  bottom: "ip3"
  bottom: "label"
  top: "accuracy"
  include {
    phase: TEST
  }
}
layer {
  name: "loss"
  type: "SoftmaxWithLoss"
  bottom: "ip3"
  bottom: "label"
  top: "loss"
}
I0428 20:33:51.205308  4379 layer_factory.hpp:77] Creating layer mnist
I0428 20:33:51.205350  4379 db_lmdb.cpp:35] Opened lmdb examples/mnist/mnist_test_lmdb
I0428 20:33:51.205363  4379 net.cpp:86] Creating Layer mnist
I0428 20:33:51.205366  4379 net.cpp:382] mnist -> data
I0428 20:33:51.205374  4379 net.cpp:382] mnist -> label
I0428 20:33:51.205454  4379 data_layer.cpp:45] output data size: 100,1,28,28
I0428 20:33:51.207712  4379 net.cpp:124] Setting up mnist
I0428 20:33:51.207756  4379 net.cpp:131] Top shape: 100 1 28 28 (78400)
I0428 20:33:51.207761  4379 net.cpp:131] Top shape: 100 (100)
I0428 20:33:51.207763  4379 net.cpp:139] Memory required for data: 314000
I0428 20:33:51.207767  4379 layer_factory.hpp:77] Creating layer label_mnist_1_split
I0428 20:33:51.207773  4379 net.cpp:86] Creating Layer label_mnist_1_split
I0428 20:33:51.207777  4379 net.cpp:408] label_mnist_1_split <- label
I0428 20:33:51.207782  4379 net.cpp:382] label_mnist_1_split -> label_mnist_1_split_0
I0428 20:33:51.207787  4379 net.cpp:382] label_mnist_1_split -> label_mnist_1_split_1
I0428 20:33:51.207866  4379 net.cpp:124] Setting up label_mnist_1_split
I0428 20:33:51.207872  4379 net.cpp:131] Top shape: 100 (100)
I0428 20:33:51.207876  4379 net.cpp:131] Top shape: 100 (100)
I0428 20:33:51.207880  4379 net.cpp:139] Memory required for data: 314800
I0428 20:33:51.207882  4379 layer_factory.hpp:77] Creating layer conv0
I0428 20:33:51.207890  4379 net.cpp:86] Creating Layer conv0
I0428 20:33:51.207893  4379 net.cpp:408] conv0 <- data
I0428 20:33:51.207898  4379 net.cpp:382] conv0 -> conv0
I0428 20:33:51.209761  4379 net.cpp:124] Setting up conv0
I0428 20:33:51.209791  4379 net.cpp:131] Top shape: 100 100 24 24 (5760000)
I0428 20:33:51.209795  4379 net.cpp:139] Memory required for data: 23354800
I0428 20:33:51.209805  4379 layer_factory.hpp:77] Creating layer pool0
I0428 20:33:51.209812  4379 net.cpp:86] Creating Layer pool0
I0428 20:33:51.209815  4379 net.cpp:408] pool0 <- conv0
I0428 20:33:51.209820  4379 net.cpp:382] pool0 -> pool0
I0428 20:33:51.209856  4379 net.cpp:124] Setting up pool0
I0428 20:33:51.209861  4379 net.cpp:131] Top shape: 100 100 12 12 (1440000)
I0428 20:33:51.209864  4379 net.cpp:139] Memory required for data: 29114800
I0428 20:33:51.209867  4379 layer_factory.hpp:77] Creating layer conv1
I0428 20:33:51.209875  4379 net.cpp:86] Creating Layer conv1
I0428 20:33:51.209878  4379 net.cpp:408] conv1 <- pool0
I0428 20:33:51.209898  4379 net.cpp:382] conv1 -> conv1
I0428 20:33:51.211928  4379 net.cpp:124] Setting up conv1
I0428 20:33:51.211956  4379 net.cpp:131] Top shape: 100 25 8 8 (160000)
I0428 20:33:51.211961  4379 net.cpp:139] Memory required for data: 29754800
I0428 20:33:51.211979  4379 layer_factory.hpp:77] Creating layer pool1
I0428 20:33:51.211985  4379 net.cpp:86] Creating Layer pool1
I0428 20:33:51.211988  4379 net.cpp:408] pool1 <- conv1
I0428 20:33:51.211993  4379 net.cpp:382] pool1 -> pool1
I0428 20:33:51.212050  4379 net.cpp:124] Setting up pool1
I0428 20:33:51.212056  4379 net.cpp:131] Top shape: 100 25 4 4 (40000)
I0428 20:33:51.212060  4379 net.cpp:139] Memory required for data: 29914800
I0428 20:33:51.212064  4379 layer_factory.hpp:77] Creating layer ip1
I0428 20:33:51.212069  4379 net.cpp:86] Creating Layer ip1
I0428 20:33:51.212072  4379 net.cpp:408] ip1 <- pool1
I0428 20:33:51.212077  4379 net.cpp:382] ip1 -> ip1
I0428 20:33:51.212314  4379 net.cpp:124] Setting up ip1
I0428 20:33:51.212334  4379 net.cpp:131] Top shape: 100 50 (5000)
I0428 20:33:51.212337  4379 net.cpp:139] Memory required for data: 29934800
I0428 20:33:51.212345  4379 layer_factory.hpp:77] Creating layer relu1
I0428 20:33:51.212350  4379 net.cpp:86] Creating Layer relu1
I0428 20:33:51.212354  4379 net.cpp:408] relu1 <- ip1
I0428 20:33:51.212359  4379 net.cpp:369] relu1 -> ip1 (in-place)
I0428 20:33:51.212523  4379 net.cpp:124] Setting up relu1
I0428 20:33:51.212532  4379 net.cpp:131] Top shape: 100 50 (5000)
I0428 20:33:51.212537  4379 net.cpp:139] Memory required for data: 29954800
I0428 20:33:51.212540  4379 layer_factory.hpp:77] Creating layer ip2
I0428 20:33:51.212570  4379 net.cpp:86] Creating Layer ip2
I0428 20:33:51.212574  4379 net.cpp:408] ip2 <- ip1
I0428 20:33:51.212579  4379 net.cpp:382] ip2 -> ip2
I0428 20:33:51.212690  4379 net.cpp:124] Setting up ip2
I0428 20:33:51.212697  4379 net.cpp:131] Top shape: 100 25 (2500)
I0428 20:33:51.212702  4379 net.cpp:139] Memory required for data: 29964800
I0428 20:33:51.212707  4379 layer_factory.hpp:77] Creating layer relu2
I0428 20:33:51.212712  4379 net.cpp:86] Creating Layer relu2
I0428 20:33:51.212715  4379 net.cpp:408] relu2 <- ip2
I0428 20:33:51.212719  4379 net.cpp:369] relu2 -> ip2 (in-place)
I0428 20:33:51.212952  4379 net.cpp:124] Setting up relu2
I0428 20:33:51.212961  4379 net.cpp:131] Top shape: 100 25 (2500)
I0428 20:33:51.212965  4379 net.cpp:139] Memory required for data: 29974800
I0428 20:33:51.212967  4379 layer_factory.hpp:77] Creating layer ip3
I0428 20:33:51.212973  4379 net.cpp:86] Creating Layer ip3
I0428 20:33:51.212976  4379 net.cpp:408] ip3 <- ip2
I0428 20:33:51.212981  4379 net.cpp:382] ip3 -> ip3
I0428 20:33:51.213119  4379 net.cpp:124] Setting up ip3
I0428 20:33:51.213125  4379 net.cpp:131] Top shape: 100 10 (1000)
I0428 20:33:51.213129  4379 net.cpp:139] Memory required for data: 29978800
I0428 20:33:51.213137  4379 layer_factory.hpp:77] Creating layer relu3
I0428 20:33:51.213142  4379 net.cpp:86] Creating Layer relu3
I0428 20:33:51.213145  4379 net.cpp:408] relu3 <- ip3
I0428 20:33:51.213165  4379 net.cpp:369] relu3 -> ip3 (in-place)
I0428 20:33:51.213987  4379 net.cpp:124] Setting up relu3
I0428 20:33:51.213999  4379 net.cpp:131] Top shape: 100 10 (1000)
I0428 20:33:51.214018  4379 net.cpp:139] Memory required for data: 29982800
I0428 20:33:51.214021  4379 layer_factory.hpp:77] Creating layer ip3_relu3_0_split
I0428 20:33:51.214027  4379 net.cpp:86] Creating Layer ip3_relu3_0_split
I0428 20:33:51.214030  4379 net.cpp:408] ip3_relu3_0_split <- ip3
I0428 20:33:51.214037  4379 net.cpp:382] ip3_relu3_0_split -> ip3_relu3_0_split_0
I0428 20:33:51.214043  4379 net.cpp:382] ip3_relu3_0_split -> ip3_relu3_0_split_1
I0428 20:33:51.214110  4379 net.cpp:124] Setting up ip3_relu3_0_split
I0428 20:33:51.214118  4379 net.cpp:131] Top shape: 100 10 (1000)
I0428 20:33:51.214123  4379 net.cpp:131] Top shape: 100 10 (1000)
I0428 20:33:51.214131  4379 net.cpp:139] Memory required for data: 29990800
I0428 20:33:51.214134  4379 layer_factory.hpp:77] Creating layer accuracy
I0428 20:33:51.214139  4379 net.cpp:86] Creating Layer accuracy
I0428 20:33:51.214143  4379 net.cpp:408] accuracy <- ip3_relu3_0_split_0
I0428 20:33:51.214150  4379 net.cpp:408] accuracy <- label_mnist_1_split_0
I0428 20:33:51.214155  4379 net.cpp:382] accuracy -> accuracy
…
