…
I0428 19:40:12.033416 24487 net.cpp:296] The NetState phase (0) differed from the phase (1) specified by a rule in layer mnist
I0428 19:40:12.033444 24487 net.cpp:296] The NetState phase (0) differed from the phase (1) specified by a rule in layer accuracy
I0428 19:40:12.033521 24487 net.cpp:53] Initializing net from parameters: 
name: "LeNet"
state {
  phase: TRAIN
  level: 0
  stage: ""
}
layer {
  name: "mnist"
  type: "Data"
  top: "data"
  top: "label"
  include {
    phase: TRAIN
  }
  transform_param {
    scale: 0.00390625
  }
  data_param {
    source: "examples/mnist/mnist_train_lmdb"
    batch_size: 64
    backend: LMDB
  }
}
layer {
  name: "conv0"
  type: "Convolution"
  bottom: "data"
  top: "conv0"
  param {
    lr_mult: 1
  }
  param {
    lr_mult: 2
  }
  convolution_param {
    num_output: 2
    kernel_size: 5
    stride: 1
    weight_filler {
      type: "xavier"
    }
    bias_filler {
      type: "constant"
    }
  }
}
layer {
  name: "pool0"
  type: "Pooling"
  bottom: "conv0"
  top: "pool0"
  pooling_param {
    pool: MAX
    kernel_size: 2
    stride: 2
  }
}
layer {
  name: "conv1"
  type: "Convolution"
  bottom: "pool0"
  top: "conv1"
  param {
    lr_mult: 1
  }
  param {
    lr_mult: 2
  }
  convolution_param {
    num_output: 5
    kernel_size: 5
    stride: 1
    weight_filler {
      type: "xavier"
    }
    bias_filler {
      type: "constant"
    }
  }
}
layer {
  name: "pool1"
  type: "Pooling"
  bottom: "conv1"
  top: "pool1"
  pooling_param {
    pool: MAX
    kernel_size: 2
    stride: 2
  }
}
layer {
  name: "ip1"
  type: "InnerProduct"
  bottom: "pool1"
  top: "ip1"
  param {
    lr_mult: 1
  }
  param {
    lr_mult: 2
  }
  inner_product_param {
    num_output: 10
    weight_filler {
      type: "xavier"
    }
    bias_filler {
      type: "constant"
    }
  }
}
layer {
  name: "relu1"
  type: "ReLU"
  bottom: "ip1"
  top: "ip1"
}
layer {
  name: "ip2"
  type: "InnerProduct"
  bottom: "ip1"
  top: "ip2"
  param {
    lr_mult: 1
  }
  param {
    lr_mult: 2
  }
  inner_product_param {
    num_output: 25
    weight_filler {
      type: "xavier"
    }
    bias_filler {
      type: "constant"
    }
  }
}
layer {
  name: "relu2"
  type: "ReLU"
  bottom: "ip2"
  top: "ip2"
}
layer {
  name: "ip3"
  type: "InnerProduct"
  bottom: "ip2"
  top: "ip3"
  param {
    lr_mult: 1
  }
  param {
    lr_mult: 2
  }
  inner_product_param {
    num_output: 10
    weight_filler {
      type: "xavier"
    }
    bias_filler {
      type: "constant"
    }
  }
}
layer {
  name: "relu3"
  type: "ReLU"
  bottom: "ip3"
  top: "ip3"
}
layer {
  name: "loss"
  type: "SoftmaxWithLoss"
  bottom: "ip3"
  bottom: "label"
  top: "loss"
}
I0428 19:40:12.033581 24487 layer_factory.hpp:77] Creating layer mnist
I0428 19:40:12.033675 24487 db_lmdb.cpp:35] Opened lmdb examples/mnist/mnist_train_lmdb
I0428 19:40:12.033694 24487 net.cpp:86] Creating Layer mnist
I0428 19:40:12.033700 24487 net.cpp:382] mnist -> data
I0428 19:40:12.033718 24487 net.cpp:382] mnist -> label
I0428 19:40:12.034684 24487 data_layer.cpp:45] output data size: 64,1,28,28
I0428 19:40:12.036831 24487 net.cpp:124] Setting up mnist
I0428 19:40:12.036861 24487 net.cpp:131] Top shape: 64 1 28 28 (50176)
I0428 19:40:12.036882 24487 net.cpp:131] Top shape: 64 (64)
I0428 19:40:12.036885 24487 net.cpp:139] Memory required for data: 200960
I0428 19:40:12.036891 24487 layer_factory.hpp:77] Creating layer conv0
I0428 19:40:12.036905 24487 net.cpp:86] Creating Layer conv0
I0428 19:40:12.036923 24487 net.cpp:408] conv0 <- data
I0428 19:40:12.036932 24487 net.cpp:382] conv0 -> conv0
I0428 19:40:12.264792 24487 net.cpp:124] Setting up conv0
I0428 19:40:12.264838 24487 net.cpp:131] Top shape: 64 2 24 24 (73728)
I0428 19:40:12.264858 24487 net.cpp:139] Memory required for data: 495872
I0428 19:40:12.264894 24487 layer_factory.hpp:77] Creating layer pool0
I0428 19:40:12.264921 24487 net.cpp:86] Creating Layer pool0
I0428 19:40:12.264925 24487 net.cpp:408] pool0 <- conv0
I0428 19:40:12.264932 24487 net.cpp:382] pool0 -> pool0
I0428 19:40:12.264979 24487 net.cpp:124] Setting up pool0
I0428 19:40:12.264991 24487 net.cpp:131] Top shape: 64 2 12 12 (18432)
I0428 19:40:12.265009 24487 net.cpp:139] Memory required for data: 569600
I0428 19:40:12.265013 24487 layer_factory.hpp:77] Creating layer conv1
I0428 19:40:12.265025 24487 net.cpp:86] Creating Layer conv1
I0428 19:40:12.265029 24487 net.cpp:408] conv1 <- pool0
I0428 19:40:12.265036 24487 net.cpp:382] conv1 -> conv1
I0428 19:40:12.266990 24487 net.cpp:124] Setting up conv1
I0428 19:40:12.267004 24487 net.cpp:131] Top shape: 64 5 8 8 (20480)
I0428 19:40:12.267024 24487 net.cpp:139] Memory required for data: 651520
I0428 19:40:12.267033 24487 layer_factory.hpp:77] Creating layer pool1
I0428 19:40:12.267042 24487 net.cpp:86] Creating Layer pool1
I0428 19:40:12.267045 24487 net.cpp:408] pool1 <- conv1
I0428 19:40:12.267050 24487 net.cpp:382] pool1 -> pool1
I0428 19:40:12.267107 24487 net.cpp:124] Setting up pool1
I0428 19:40:12.267112 24487 net.cpp:131] Top shape: 64 5 4 4 (5120)
I0428 19:40:12.267115 24487 net.cpp:139] Memory required for data: 672000
I0428 19:40:12.267118 24487 layer_factory.hpp:77] Creating layer ip1
I0428 19:40:12.267140 24487 net.cpp:86] Creating Layer ip1
I0428 19:40:12.267143 24487 net.cpp:408] ip1 <- pool1
I0428 19:40:12.267148 24487 net.cpp:382] ip1 -> ip1
I0428 19:40:12.267256 24487 net.cpp:124] Setting up ip1
I0428 19:40:12.267278 24487 net.cpp:131] Top shape: 64 10 (640)
I0428 19:40:12.267282 24487 net.cpp:139] Memory required for data: 674560
I0428 19:40:12.267288 24487 layer_factory.hpp:77] Creating layer relu1
I0428 19:40:12.267295 24487 net.cpp:86] Creating Layer relu1
I0428 19:40:12.267298 24487 net.cpp:408] relu1 <- ip1
I0428 19:40:12.267302 24487 net.cpp:369] relu1 -> ip1 (in-place)
I0428 19:40:12.267480 24487 net.cpp:124] Setting up relu1
I0428 19:40:12.267504 24487 net.cpp:131] Top shape: 64 10 (640)
I0428 19:40:12.267508 24487 net.cpp:139] Memory required for data: 677120
I0428 19:40:12.267510 24487 layer_factory.hpp:77] Creating layer ip2
I0428 19:40:12.267518 24487 net.cpp:86] Creating Layer ip2
I0428 19:40:12.267521 24487 net.cpp:408] ip2 <- ip1
I0428 19:40:12.267526 24487 net.cpp:382] ip2 -> ip2
I0428 19:40:12.267623 24487 net.cpp:124] Setting up ip2
I0428 19:40:12.267630 24487 net.cpp:131] Top shape: 64 25 (1600)
I0428 19:40:12.267633 24487 net.cpp:139] Memory required for data: 683520
I0428 19:40:12.267638 24487 layer_factory.hpp:77] Creating layer relu2
I0428 19:40:12.267644 24487 net.cpp:86] Creating Layer relu2
I0428 19:40:12.267648 24487 net.cpp:408] relu2 <- ip2
I0428 19:40:12.267652 24487 net.cpp:369] relu2 -> ip2 (in-place)
I0428 19:40:12.268437 24487 net.cpp:124] Setting up relu2
I0428 19:40:12.268450 24487 net.cpp:131] Top shape: 64 25 (1600)
I0428 19:40:12.268468 24487 net.cpp:139] Memory required for data: 689920
I0428 19:40:12.268471 24487 layer_factory.hpp:77] Creating layer ip3
I0428 19:40:12.268479 24487 net.cpp:86] Creating Layer ip3
I0428 19:40:12.268497 24487 net.cpp:408] ip3 <- ip2
I0428 19:40:12.268503 24487 net.cpp:382] ip3 -> ip3
I0428 19:40:12.268599 24487 net.cpp:124] Setting up ip3
I0428 19:40:12.268606 24487 net.cpp:131] Top shape: 64 10 (640)
I0428 19:40:12.268609 24487 net.cpp:139] Memory required for data: 692480
I0428 19:40:12.268615 24487 layer_factory.hpp:77] Creating layer relu3
I0428 19:40:12.268621 24487 net.cpp:86] Creating Layer relu3
I0428 19:40:12.268623 24487 net.cpp:408] relu3 <- ip3
I0428 19:40:12.268627 24487 net.cpp:369] relu3 -> ip3 (in-place)
I0428 19:40:12.268836 24487 net.cpp:124] Setting up relu3
I0428 19:40:12.268846 24487 net.cpp:131] Top shape: 64 10 (640)
I0428 19:40:12.268848 24487 net.cpp:139] Memory required for data: 695040
I0428 19:40:12.268851 24487 layer_factory.hpp:77] Creating layer loss
I0428 19:40:12.268857 24487 net.cpp:86] Creating Layer loss
I0428 19:40:12.268860 24487 net.cpp:408] loss <- ip3
I0428 19:40:12.268863 24487 net.cpp:408] loss <- label
I0428 19:40:12.268870 24487 net.cpp:382] loss -> loss
I0428 19:40:12.268885 24487 layer_factory.hpp:77] Creating layer loss
…
I0428 19:40:12.269644 24487 solver.cpp:173] Creating test net (#0) specified by net file: ECE595/mnist/train_test/var_everything2/lenet_train_test327.prototxt
I0428 19:40:12.269686 24487 net.cpp:296] The NetState phase (1) differed from the phase (0) specified by a rule in layer mnist
I0428 19:40:12.269842 24487 net.cpp:53] Initializing net from parameters: 
name: "LeNet"
state {
  phase: TEST
}
layer {
  name: "mnist"
  type: "Data"
  top: "data"
  top: "label"
  include {
    phase: TEST
  }
  transform_param {
    scale: 0.00390625
  }
  data_param {
    source: "examples/mnist/mnist_test_lmdb"
    batch_size: 100
    backend: LMDB
  }
}
layer {
  name: "conv0"
  type: "Convolution"
  bottom: "data"
  top: "conv0"
  param {
    lr_mult: 1
  }
  param {
    lr_mult: 2
  }
  convolution_param {
    num_output: 2
    kernel_size: 5
    stride: 1
    weight_filler {
      type: "xavier"
    }
    bias_filler {
      type: "constant"
    }
  }
}
layer {
  name: "pool0"
  type: "Pooling"
  bottom: "conv0"
  top: "pool0"
  pooling_param {
    pool: MAX
    kernel_size: 2
    stride: 2
  }
}
layer {
  name: "conv1"
  type: "Convolution"
  bottom: "pool0"
  top: "conv1"
  param {
    lr_mult: 1
  }
  param {
    lr_mult: 2
  }
  convolution_param {
    num_output: 5
    kernel_size: 5
    stride: 1
    weight_filler {
      type: "xavier"
    }
    bias_filler {
      type: "constant"
    }
  }
}
layer {
  name: "pool1"
  type: "Pooling"
  bottom: "conv1"
  top: "pool1"
  pooling_param {
    pool: MAX
    kernel_size: 2
    stride: 2
  }
}
layer {
  name: "ip1"
  type: "InnerProduct"
  bottom: "pool1"
  top: "ip1"
  param {
    lr_mult: 1
  }
  param {
    lr_mult: 2
  }
  inner_product_param {
    num_output: 10
    weight_filler {
      type: "xavier"
    }
    bias_filler {
      type: "constant"
    }
  }
}
layer {
  name: "relu1"
  type: "ReLU"
  bottom: "ip1"
  top: "ip1"
}
layer {
  name: "ip2"
  type: "InnerProduct"
  bottom: "ip1"
  top: "ip2"
  param {
    lr_mult: 1
  }
  param {
    lr_mult: 2
  }
  inner_product_param {
    num_output: 25
    weight_filler {
      type: "xavier"
    }
    bias_filler {
      type: "constant"
    }
  }
}
layer {
  name: "relu2"
  type: "ReLU"
  bottom: "ip2"
  top: "ip2"
}
layer {
  name: "ip3"
  type: "InnerProduct"
  bottom: "ip2"
  top: "ip3"
  param {
    lr_mult: 1
  }
  param {
    lr_mult: 2
  }
  inner_product_param {
    num_output: 10
    weight_filler {
      type: "xavier"
    }
    bias_filler {
      type: "constant"
    }
  }
}
layer {
  name: "relu3"
  type: "ReLU"
  bottom: "ip3"
  top: "ip3"
}
layer {
  name: "accuracy"
  type: "Accuracy"
  bottom: "ip3"
  bottom: "label"
  top: "accuracy"
  include {
    phase: TEST
  }
}
layer {
  name: "loss"
  type: "SoftmaxWithLoss"
  bottom: "ip3"
  bottom: "label"
  top: "loss"
}
I0428 19:40:12.269924 24487 layer_factory.hpp:77] Creating layer mnist
I0428 19:40:12.269966 24487 db_lmdb.cpp:35] Opened lmdb examples/mnist/mnist_test_lmdb
I0428 19:40:12.269980 24487 net.cpp:86] Creating Layer mnist
I0428 19:40:12.269984 24487 net.cpp:382] mnist -> data
I0428 19:40:12.269991 24487 net.cpp:382] mnist -> label
I0428 19:40:12.270072 24487 data_layer.cpp:45] output data size: 100,1,28,28
I0428 19:40:12.272390 24487 net.cpp:124] Setting up mnist
I0428 19:40:12.272419 24487 net.cpp:131] Top shape: 100 1 28 28 (78400)
I0428 19:40:12.272425 24487 net.cpp:131] Top shape: 100 (100)
I0428 19:40:12.272428 24487 net.cpp:139] Memory required for data: 314000
I0428 19:40:12.272431 24487 layer_factory.hpp:77] Creating layer label_mnist_1_split
I0428 19:40:12.272439 24487 net.cpp:86] Creating Layer label_mnist_1_split
I0428 19:40:12.272441 24487 net.cpp:408] label_mnist_1_split <- label
I0428 19:40:12.272445 24487 net.cpp:382] label_mnist_1_split -> label_mnist_1_split_0
I0428 19:40:12.272466 24487 net.cpp:382] label_mnist_1_split -> label_mnist_1_split_1
I0428 19:40:12.272598 24487 net.cpp:124] Setting up label_mnist_1_split
I0428 19:40:12.272604 24487 net.cpp:131] Top shape: 100 (100)
I0428 19:40:12.272609 24487 net.cpp:131] Top shape: 100 (100)
I0428 19:40:12.272613 24487 net.cpp:139] Memory required for data: 314800
I0428 19:40:12.272615 24487 layer_factory.hpp:77] Creating layer conv0
I0428 19:40:12.272624 24487 net.cpp:86] Creating Layer conv0
I0428 19:40:12.272627 24487 net.cpp:408] conv0 <- data
I0428 19:40:12.272634 24487 net.cpp:382] conv0 -> conv0
I0428 19:40:12.274451 24487 net.cpp:124] Setting up conv0
I0428 19:40:12.274464 24487 net.cpp:131] Top shape: 100 2 24 24 (115200)
I0428 19:40:12.274467 24487 net.cpp:139] Memory required for data: 775600
I0428 19:40:12.274477 24487 layer_factory.hpp:77] Creating layer pool0
I0428 19:40:12.274483 24487 net.cpp:86] Creating Layer pool0
I0428 19:40:12.274487 24487 net.cpp:408] pool0 <- conv0
I0428 19:40:12.274492 24487 net.cpp:382] pool0 -> pool0
I0428 19:40:12.274526 24487 net.cpp:124] Setting up pool0
I0428 19:40:12.274533 24487 net.cpp:131] Top shape: 100 2 12 12 (28800)
I0428 19:40:12.274534 24487 net.cpp:139] Memory required for data: 890800
I0428 19:40:12.274538 24487 layer_factory.hpp:77] Creating layer conv1
I0428 19:40:12.274545 24487 net.cpp:86] Creating Layer conv1
I0428 19:40:12.274549 24487 net.cpp:408] conv1 <- pool0
I0428 19:40:12.274554 24487 net.cpp:382] conv1 -> conv1
I0428 19:40:12.276124 24487 net.cpp:124] Setting up conv1
I0428 19:40:12.276139 24487 net.cpp:131] Top shape: 100 5 8 8 (32000)
I0428 19:40:12.276144 24487 net.cpp:139] Memory required for data: 1018800
I0428 19:40:12.276151 24487 layer_factory.hpp:77] Creating layer pool1
I0428 19:40:12.276173 24487 net.cpp:86] Creating Layer pool1
I0428 19:40:12.276176 24487 net.cpp:408] pool1 <- conv1
I0428 19:40:12.276182 24487 net.cpp:382] pool1 -> pool1
I0428 19:40:12.276218 24487 net.cpp:124] Setting up pool1
I0428 19:40:12.276224 24487 net.cpp:131] Top shape: 100 5 4 4 (8000)
I0428 19:40:12.276227 24487 net.cpp:139] Memory required for data: 1050800
I0428 19:40:12.276229 24487 layer_factory.hpp:77] Creating layer ip1
I0428 19:40:12.276237 24487 net.cpp:86] Creating Layer ip1
I0428 19:40:12.276239 24487 net.cpp:408] ip1 <- pool1
I0428 19:40:12.276258 24487 net.cpp:382] ip1 -> ip1
I0428 19:40:12.276355 24487 net.cpp:124] Setting up ip1
I0428 19:40:12.276365 24487 net.cpp:131] Top shape: 100 10 (1000)
I0428 19:40:12.276376 24487 net.cpp:139] Memory required for data: 1054800
I0428 19:40:12.276391 24487 layer_factory.hpp:77] Creating layer relu1
I0428 19:40:12.276407 24487 net.cpp:86] Creating Layer relu1
I0428 19:40:12.276410 24487 net.cpp:408] relu1 <- ip1
I0428 19:40:12.276414 24487 net.cpp:369] relu1 -> ip1 (in-place)
I0428 19:40:12.276590 24487 net.cpp:124] Setting up relu1
I0428 19:40:12.276602 24487 net.cpp:131] Top shape: 100 10 (1000)
I0428 19:40:12.276604 24487 net.cpp:139] Memory required for data: 1058800
I0428 19:40:12.276613 24487 layer_factory.hpp:77] Creating layer ip2
I0428 19:40:12.276620 24487 net.cpp:86] Creating Layer ip2
I0428 19:40:12.276623 24487 net.cpp:408] ip2 <- ip1
I0428 19:40:12.276629 24487 net.cpp:382] ip2 -> ip2
I0428 19:40:12.276726 24487 net.cpp:124] Setting up ip2
I0428 19:40:12.276733 24487 net.cpp:131] Top shape: 100 25 (2500)
I0428 19:40:12.276736 24487 net.cpp:139] Memory required for data: 1068800
I0428 19:40:12.276741 24487 layer_factory.hpp:77] Creating layer relu2
I0428 19:40:12.276747 24487 net.cpp:86] Creating Layer relu2
I0428 19:40:12.276757 24487 net.cpp:408] relu2 <- ip2
I0428 19:40:12.276762 24487 net.cpp:369] relu2 -> ip2 (in-place)
I0428 19:40:12.276980 24487 net.cpp:124] Setting up relu2
I0428 19:40:12.276989 24487 net.cpp:131] Top shape: 100 25 (2500)
I0428 19:40:12.276993 24487 net.cpp:139] Memory required for data: 1078800
I0428 19:40:12.276996 24487 layer_factory.hpp:77] Creating layer ip3
I0428 19:40:12.277005 24487 net.cpp:86] Creating Layer ip3
I0428 19:40:12.277009 24487 net.cpp:408] ip3 <- ip2
I0428 19:40:12.277014 24487 net.cpp:382] ip3 -> ip3
I0428 19:40:12.277122 24487 net.cpp:124] Setting up ip3
I0428 19:40:12.277130 24487 net.cpp:131] Top shape: 100 10 (1000)
I0428 19:40:12.277133 24487 net.cpp:139] Memory required for data: 1082800
I0428 19:40:12.277148 24487 layer_factory.hpp:77] Creating layer relu3
I0428 19:40:12.277153 24487 net.cpp:86] Creating Layer relu3
I0428 19:40:12.277156 24487 net.cpp:408] relu3 <- ip3
I0428 19:40:12.277161 24487 net.cpp:369] relu3 -> ip3 (in-place)
I0428 19:40:12.278023 24487 net.cpp:124] Setting up relu3
I0428 19:40:12.278053 24487 net.cpp:131] Top shape: 100 10 (1000)
I0428 19:40:12.278055 24487 net.cpp:139] Memory required for data: 1086800
I0428 19:40:12.278059 24487 layer_factory.hpp:77] Creating layer ip3_relu3_0_split
I0428 19:40:12.278065 24487 net.cpp:86] Creating Layer ip3_relu3_0_split
I0428 19:40:12.278070 24487 net.cpp:408] ip3_relu3_0_split <- ip3
I0428 19:40:12.278076 24487 net.cpp:382] ip3_relu3_0_split -> ip3_relu3_0_split_0
I0428 19:40:12.278082 24487 net.cpp:382] ip3_relu3_0_split -> ip3_relu3_0_split_1
I0428 19:40:12.278165 24487 net.cpp:124] Setting up ip3_relu3_0_split
I0428 19:40:12.278172 24487 net.cpp:131] Top shape: 100 10 (1000)
I0428 19:40:12.278177 24487 net.cpp:131] Top shape: 100 10 (1000)
I0428 19:40:12.278179 24487 net.cpp:139] Memory required for data: 1094800
I0428 19:40:12.278182 24487 layer_factory.hpp:77] Creating layer accuracy
I0428 19:40:12.278187 24487 net.cpp:86] Creating Layer accuracy
I0428 19:40:12.278192 24487 net.cpp:408] accuracy <- ip3_relu3_0_split_0
I0428 19:40:12.278200 24487 net.cpp:408] accuracy <- label_mnist_1_split_0
I0428 19:40:12.278206 24487 net.cpp:382] accuracy -> accuracy
…
