…
I0428 20:38:13.929242  5091 net.cpp:296] The NetState phase (0) differed from the phase (1) specified by a rule in layer mnist
I0428 20:38:13.929261  5091 net.cpp:296] The NetState phase (0) differed from the phase (1) specified by a rule in layer accuracy
I0428 20:38:13.929363  5091 net.cpp:53] Initializing net from parameters: 
name: "LeNet"
state {
  phase: TRAIN
  level: 0
  stage: ""
}
layer {
  name: "mnist"
  type: "Data"
  top: "data"
  top: "label"
  include {
    phase: TRAIN
  }
  transform_param {
    scale: 0.00390625
  }
  data_param {
    source: "examples/mnist/mnist_train_lmdb"
    batch_size: 64
    backend: LMDB
  }
}
layer {
  name: "conv0"
  type: "Convolution"
  bottom: "data"
  top: "conv0"
  param {
    lr_mult: 1
  }
  param {
    lr_mult: 2
  }
  convolution_param {
    num_output: 100
    kernel_size: 5
    stride: 1
    weight_filler {
      type: "xavier"
    }
    bias_filler {
      type: "constant"
    }
  }
}
layer {
  name: "pool0"
  type: "Pooling"
  bottom: "conv0"
  top: "pool0"
  pooling_param {
    pool: MAX
    kernel_size: 2
    stride: 2
  }
}
layer {
  name: "conv1"
  type: "Convolution"
  bottom: "pool0"
  top: "conv1"
  param {
    lr_mult: 1
  }
  param {
    lr_mult: 2
  }
  convolution_param {
    num_output: 100
    kernel_size: 5
    stride: 1
    weight_filler {
      type: "xavier"
    }
    bias_filler {
      type: "constant"
    }
  }
}
layer {
  name: "pool1"
  type: "Pooling"
  bottom: "conv1"
  top: "pool1"
  pooling_param {
    pool: MAX
    kernel_size: 2
    stride: 2
  }
}
layer {
  name: "ip1"
  type: "InnerProduct"
  bottom: "pool1"
  top: "ip1"
  param {
    lr_mult: 1
  }
  param {
    lr_mult: 2
  }
  inner_product_param {
    num_output: 25
    weight_filler {
      type: "xavier"
    }
    bias_filler {
      type: "constant"
    }
  }
}
layer {
  name: "relu1"
  type: "ReLU"
  bottom: "ip1"
  top: "ip1"
}
layer {
  name: "ip2"
  type: "InnerProduct"
  bottom: "ip1"
  top: "ip2"
  param {
    lr_mult: 1
  }
  param {
    lr_mult: 2
  }
  inner_product_param {
    num_output: 25
    weight_filler {
      type: "xavier"
    }
    bias_filler {
      type: "constant"
    }
  }
}
layer {
  name: "relu2"
  type: "ReLU"
  bottom: "ip2"
  top: "ip2"
}
layer {
  name: "ip3"
  type: "InnerProduct"
  bottom: "ip2"
  top: "ip3"
  param {
    lr_mult: 1
  }
  param {
    lr_mult: 2
  }
  inner_product_param {
    num_output: 10
    weight_filler {
      type: "xavier"
    }
    bias_filler {
      type: "constant"
    }
  }
}
layer {
  name: "relu3"
  type: "ReLU"
  bottom: "ip3"
  top: "ip3"
}
layer {
  name: "loss"
  type: "SoftmaxWithLoss"
  bottom: "ip3"
  bottom: "label"
  top: "loss"
}
I0428 20:38:13.929440  5091 layer_factory.hpp:77] Creating layer mnist
I0428 20:38:13.929535  5091 db_lmdb.cpp:35] Opened lmdb examples/mnist/mnist_train_lmdb
I0428 20:38:13.929560  5091 net.cpp:86] Creating Layer mnist
I0428 20:38:13.929569  5091 net.cpp:382] mnist -> data
I0428 20:38:13.929589  5091 net.cpp:382] mnist -> label
I0428 20:38:13.930660  5091 data_layer.cpp:45] output data size: 64,1,28,28
I0428 20:38:13.933090  5091 net.cpp:124] Setting up mnist
I0428 20:38:13.933107  5091 net.cpp:131] Top shape: 64 1 28 28 (50176)
I0428 20:38:13.933115  5091 net.cpp:131] Top shape: 64 (64)
I0428 20:38:13.933120  5091 net.cpp:139] Memory required for data: 200960
I0428 20:38:13.933126  5091 layer_factory.hpp:77] Creating layer conv0
I0428 20:38:13.933142  5091 net.cpp:86] Creating Layer conv0
I0428 20:38:13.933162  5091 net.cpp:408] conv0 <- data
I0428 20:38:13.933176  5091 net.cpp:382] conv0 -> conv0
I0428 20:38:14.207211  5091 net.cpp:124] Setting up conv0
I0428 20:38:14.207254  5091 net.cpp:131] Top shape: 64 100 24 24 (3686400)
I0428 20:38:14.207257  5091 net.cpp:139] Memory required for data: 14946560
I0428 20:38:14.207273  5091 layer_factory.hpp:77] Creating layer pool0
I0428 20:38:14.207285  5091 net.cpp:86] Creating Layer pool0
I0428 20:38:14.207288  5091 net.cpp:408] pool0 <- conv0
I0428 20:38:14.207309  5091 net.cpp:382] pool0 -> pool0
I0428 20:38:14.207358  5091 net.cpp:124] Setting up pool0
I0428 20:38:14.207372  5091 net.cpp:131] Top shape: 64 100 12 12 (921600)
I0428 20:38:14.207376  5091 net.cpp:139] Memory required for data: 18632960
I0428 20:38:14.207378  5091 layer_factory.hpp:77] Creating layer conv1
I0428 20:38:14.207389  5091 net.cpp:86] Creating Layer conv1
I0428 20:38:14.207392  5091 net.cpp:408] conv1 <- pool0
I0428 20:38:14.207399  5091 net.cpp:382] conv1 -> conv1
I0428 20:38:14.211570  5091 net.cpp:124] Setting up conv1
I0428 20:38:14.211599  5091 net.cpp:131] Top shape: 64 100 8 8 (409600)
I0428 20:38:14.211602  5091 net.cpp:139] Memory required for data: 20271360
I0428 20:38:14.211611  5091 layer_factory.hpp:77] Creating layer pool1
I0428 20:38:14.211618  5091 net.cpp:86] Creating Layer pool1
I0428 20:38:14.211622  5091 net.cpp:408] pool1 <- conv1
I0428 20:38:14.211642  5091 net.cpp:382] pool1 -> pool1
I0428 20:38:14.211695  5091 net.cpp:124] Setting up pool1
I0428 20:38:14.211701  5091 net.cpp:131] Top shape: 64 100 4 4 (102400)
I0428 20:38:14.211704  5091 net.cpp:139] Memory required for data: 20680960
I0428 20:38:14.211706  5091 layer_factory.hpp:77] Creating layer ip1
I0428 20:38:14.211714  5091 net.cpp:86] Creating Layer ip1
I0428 20:38:14.211717  5091 net.cpp:408] ip1 <- pool1
I0428 20:38:14.211721  5091 net.cpp:382] ip1 -> ip1
I0428 20:38:14.212075  5091 net.cpp:124] Setting up ip1
I0428 20:38:14.212082  5091 net.cpp:131] Top shape: 64 25 (1600)
I0428 20:38:14.212085  5091 net.cpp:139] Memory required for data: 20687360
I0428 20:38:14.212106  5091 layer_factory.hpp:77] Creating layer relu1
I0428 20:38:14.212111  5091 net.cpp:86] Creating Layer relu1
I0428 20:38:14.212115  5091 net.cpp:408] relu1 <- ip1
I0428 20:38:14.212118  5091 net.cpp:369] relu1 -> ip1 (in-place)
I0428 20:38:14.212276  5091 net.cpp:124] Setting up relu1
I0428 20:38:14.212285  5091 net.cpp:131] Top shape: 64 25 (1600)
I0428 20:38:14.212287  5091 net.cpp:139] Memory required for data: 20693760
I0428 20:38:14.212291  5091 layer_factory.hpp:77] Creating layer ip2
I0428 20:38:14.212297  5091 net.cpp:86] Creating Layer ip2
I0428 20:38:14.212301  5091 net.cpp:408] ip2 <- ip1
I0428 20:38:14.212304  5091 net.cpp:382] ip2 -> ip2
I0428 20:38:14.212395  5091 net.cpp:124] Setting up ip2
I0428 20:38:14.212401  5091 net.cpp:131] Top shape: 64 25 (1600)
I0428 20:38:14.212404  5091 net.cpp:139] Memory required for data: 20700160
I0428 20:38:14.212409  5091 layer_factory.hpp:77] Creating layer relu2
I0428 20:38:14.212414  5091 net.cpp:86] Creating Layer relu2
I0428 20:38:14.212417  5091 net.cpp:408] relu2 <- ip2
I0428 20:38:14.212422  5091 net.cpp:369] relu2 -> ip2 (in-place)
I0428 20:38:14.213238  5091 net.cpp:124] Setting up relu2
I0428 20:38:14.213249  5091 net.cpp:131] Top shape: 64 25 (1600)
I0428 20:38:14.213253  5091 net.cpp:139] Memory required for data: 20706560
I0428 20:38:14.213256  5091 layer_factory.hpp:77] Creating layer ip3
I0428 20:38:14.213263  5091 net.cpp:86] Creating Layer ip3
I0428 20:38:14.213266  5091 net.cpp:408] ip3 <- ip2
I0428 20:38:14.213271  5091 net.cpp:382] ip3 -> ip3
I0428 20:38:14.213368  5091 net.cpp:124] Setting up ip3
I0428 20:38:14.213376  5091 net.cpp:131] Top shape: 64 10 (640)
I0428 20:38:14.213378  5091 net.cpp:139] Memory required for data: 20709120
I0428 20:38:14.213387  5091 layer_factory.hpp:77] Creating layer relu3
I0428 20:38:14.213392  5091 net.cpp:86] Creating Layer relu3
I0428 20:38:14.213394  5091 net.cpp:408] relu3 <- ip3
I0428 20:38:14.213412  5091 net.cpp:369] relu3 -> ip3 (in-place)
I0428 20:38:14.213562  5091 net.cpp:124] Setting up relu3
I0428 20:38:14.213570  5091 net.cpp:131] Top shape: 64 10 (640)
I0428 20:38:14.213572  5091 net.cpp:139] Memory required for data: 20711680
I0428 20:38:14.213577  5091 layer_factory.hpp:77] Creating layer loss
I0428 20:38:14.213582  5091 net.cpp:86] Creating Layer loss
I0428 20:38:14.213585  5091 net.cpp:408] loss <- ip3
I0428 20:38:14.213588  5091 net.cpp:408] loss <- label
I0428 20:38:14.213593  5091 net.cpp:382] loss -> loss
I0428 20:38:14.213610  5091 layer_factory.hpp:77] Creating layer loss
…
I0428 20:38:14.214267  5091 solver.cpp:173] Creating test net (#0) specified by net file: ECE595/mnist/train_test/var_everything2/lenet_train_test1662.prototxt
I0428 20:38:14.214308  5091 net.cpp:296] The NetState phase (1) differed from the phase (0) specified by a rule in layer mnist
I0428 20:38:14.214395  5091 net.cpp:53] Initializing net from parameters: 
name: "LeNet"
state {
  phase: TEST
}
layer {
  name: "mnist"
  type: "Data"
  top: "data"
  top: "label"
  include {
    phase: TEST
  }
  transform_param {
    scale: 0.00390625
  }
  data_param {
    source: "examples/mnist/mnist_test_lmdb"
    batch_size: 100
    backend: LMDB
  }
}
layer {
  name: "conv0"
  type: "Convolution"
  bottom: "data"
  top: "conv0"
  param {
    lr_mult: 1
  }
  param {
    lr_mult: 2
  }
  convolution_param {
    num_output: 100
    kernel_size: 5
    stride: 1
    weight_filler {
      type: "xavier"
    }
    bias_filler {
      type: "constant"
    }
  }
}
layer {
  name: "pool0"
  type: "Pooling"
  bottom: "conv0"
  top: "pool0"
  pooling_param {
    pool: MAX
    kernel_size: 2
    stride: 2
  }
}
layer {
  name: "conv1"
  type: "Convolution"
  bottom: "pool0"
  top: "conv1"
  param {
    lr_mult: 1
  }
  param {
    lr_mult: 2
  }
  convolution_param {
    num_output: 100
    kernel_size: 5
    stride: 1
    weight_filler {
      type: "xavier"
    }
    bias_filler {
      type: "constant"
    }
  }
}
layer {
  name: "pool1"
  type: "Pooling"
  bottom: "conv1"
  top: "pool1"
  pooling_param {
    pool: MAX
    kernel_size: 2
    stride: 2
  }
}
layer {
  name: "ip1"
  type: "InnerProduct"
  bottom: "pool1"
  top: "ip1"
  param {
    lr_mult: 1
  }
  param {
    lr_mult: 2
  }
  inner_product_param {
    num_output: 25
    weight_filler {
      type: "xavier"
    }
    bias_filler {
      type: "constant"
    }
  }
}
layer {
  name: "relu1"
  type: "ReLU"
  bottom: "ip1"
  top: "ip1"
}
layer {
  name: "ip2"
  type: "InnerProduct"
  bottom: "ip1"
  top: "ip2"
  param {
    lr_mult: 1
  }
  param {
    lr_mult: 2
  }
  inner_product_param {
    num_output: 25
    weight_filler {
      type: "xavier"
    }
    bias_filler {
      type: "constant"
    }
  }
}
layer {
  name: "relu2"
  type: "ReLU"
  bottom: "ip2"
  top: "ip2"
}
layer {
  name: "ip3"
  type: "InnerProduct"
  bottom: "ip2"
  top: "ip3"
  param {
    lr_mult: 1
  }
  param {
    lr_mult: 2
  }
  inner_product_param {
    num_output: 10
    weight_filler {
      type: "xavier"
    }
    bias_filler {
      type: "constant"
    }
  }
}
layer {
  name: "relu3"
  type: "ReLU"
  bottom: "ip3"
  top: "ip3"
}
layer {
  name: "accuracy"
  type: "Accuracy"
  bottom: "ip3"
  bottom: "label"
  top: "accuracy"
  include {
    phase: TEST
  }
}
layer {
  name: "loss"
  type: "SoftmaxWithLoss"
  bottom: "ip3"
  bottom: "label"
  top: "loss"
}
I0428 20:38:14.214476  5091 layer_factory.hpp:77] Creating layer mnist
I0428 20:38:14.214516  5091 db_lmdb.cpp:35] Opened lmdb examples/mnist/mnist_test_lmdb
I0428 20:38:14.214542  5091 net.cpp:86] Creating Layer mnist
I0428 20:38:14.214548  5091 net.cpp:382] mnist -> data
I0428 20:38:14.214555  5091 net.cpp:382] mnist -> label
I0428 20:38:14.214633  5091 data_layer.cpp:45] output data size: 100,1,28,28
I0428 20:38:14.216609  5091 net.cpp:124] Setting up mnist
I0428 20:38:14.216636  5091 net.cpp:131] Top shape: 100 1 28 28 (78400)
I0428 20:38:14.216641  5091 net.cpp:131] Top shape: 100 (100)
I0428 20:38:14.216645  5091 net.cpp:139] Memory required for data: 314000
I0428 20:38:14.216648  5091 layer_factory.hpp:77] Creating layer label_mnist_1_split
I0428 20:38:14.216696  5091 net.cpp:86] Creating Layer label_mnist_1_split
I0428 20:38:14.216699  5091 net.cpp:408] label_mnist_1_split <- label
I0428 20:38:14.216720  5091 net.cpp:382] label_mnist_1_split -> label_mnist_1_split_0
I0428 20:38:14.216727  5091 net.cpp:382] label_mnist_1_split -> label_mnist_1_split_1
I0428 20:38:14.216769  5091 net.cpp:124] Setting up label_mnist_1_split
I0428 20:38:14.216775  5091 net.cpp:131] Top shape: 100 (100)
I0428 20:38:14.216779  5091 net.cpp:131] Top shape: 100 (100)
I0428 20:38:14.216781  5091 net.cpp:139] Memory required for data: 314800
I0428 20:38:14.216784  5091 layer_factory.hpp:77] Creating layer conv0
I0428 20:38:14.216796  5091 net.cpp:86] Creating Layer conv0
I0428 20:38:14.216800  5091 net.cpp:408] conv0 <- data
I0428 20:38:14.216804  5091 net.cpp:382] conv0 -> conv0
I0428 20:38:14.218699  5091 net.cpp:124] Setting up conv0
I0428 20:38:14.218713  5091 net.cpp:131] Top shape: 100 100 24 24 (5760000)
I0428 20:38:14.218716  5091 net.cpp:139] Memory required for data: 23354800
I0428 20:38:14.218725  5091 layer_factory.hpp:77] Creating layer pool0
I0428 20:38:14.218732  5091 net.cpp:86] Creating Layer pool0
I0428 20:38:14.218736  5091 net.cpp:408] pool0 <- conv0
I0428 20:38:14.218740  5091 net.cpp:382] pool0 -> pool0
I0428 20:38:14.218776  5091 net.cpp:124] Setting up pool0
I0428 20:38:14.218781  5091 net.cpp:131] Top shape: 100 100 12 12 (1440000)
I0428 20:38:14.218783  5091 net.cpp:139] Memory required for data: 29114800
I0428 20:38:14.218786  5091 layer_factory.hpp:77] Creating layer conv1
I0428 20:38:14.218796  5091 net.cpp:86] Creating Layer conv1
I0428 20:38:14.218798  5091 net.cpp:408] conv1 <- pool0
I0428 20:38:14.218803  5091 net.cpp:382] conv1 -> conv1
I0428 20:38:14.221895  5091 net.cpp:124] Setting up conv1
I0428 20:38:14.221909  5091 net.cpp:131] Top shape: 100 100 8 8 (640000)
I0428 20:38:14.221912  5091 net.cpp:139] Memory required for data: 31674800
I0428 20:38:14.221921  5091 layer_factory.hpp:77] Creating layer pool1
I0428 20:38:14.221927  5091 net.cpp:86] Creating Layer pool1
I0428 20:38:14.221930  5091 net.cpp:408] pool1 <- conv1
I0428 20:38:14.221957  5091 net.cpp:382] pool1 -> pool1
I0428 20:38:14.221992  5091 net.cpp:124] Setting up pool1
I0428 20:38:14.221997  5091 net.cpp:131] Top shape: 100 100 4 4 (160000)
I0428 20:38:14.222000  5091 net.cpp:139] Memory required for data: 32314800
I0428 20:38:14.222003  5091 layer_factory.hpp:77] Creating layer ip1
I0428 20:38:14.222015  5091 net.cpp:86] Creating Layer ip1
I0428 20:38:14.222018  5091 net.cpp:408] ip1 <- pool1
I0428 20:38:14.222023  5091 net.cpp:382] ip1 -> ip1
I0428 20:38:14.222350  5091 net.cpp:124] Setting up ip1
I0428 20:38:14.222369  5091 net.cpp:131] Top shape: 100 25 (2500)
I0428 20:38:14.222373  5091 net.cpp:139] Memory required for data: 32324800
I0428 20:38:14.222384  5091 layer_factory.hpp:77] Creating layer relu1
I0428 20:38:14.222391  5091 net.cpp:86] Creating Layer relu1
I0428 20:38:14.222399  5091 net.cpp:408] relu1 <- ip1
I0428 20:38:14.222404  5091 net.cpp:369] relu1 -> ip1 (in-place)
I0428 20:38:14.222553  5091 net.cpp:124] Setting up relu1
I0428 20:38:14.222561  5091 net.cpp:131] Top shape: 100 25 (2500)
I0428 20:38:14.222564  5091 net.cpp:139] Memory required for data: 32334800
I0428 20:38:14.222573  5091 layer_factory.hpp:77] Creating layer ip2
I0428 20:38:14.222580  5091 net.cpp:86] Creating Layer ip2
I0428 20:38:14.222589  5091 net.cpp:408] ip2 <- ip1
I0428 20:38:14.222594  5091 net.cpp:382] ip2 -> ip2
I0428 20:38:14.222709  5091 net.cpp:124] Setting up ip2
I0428 20:38:14.222717  5091 net.cpp:131] Top shape: 100 25 (2500)
I0428 20:38:14.222719  5091 net.cpp:139] Memory required for data: 32344800
I0428 20:38:14.222724  5091 layer_factory.hpp:77] Creating layer relu2
I0428 20:38:14.222728  5091 net.cpp:86] Creating Layer relu2
I0428 20:38:14.222738  5091 net.cpp:408] relu2 <- ip2
I0428 20:38:14.222757  5091 net.cpp:369] relu2 -> ip2 (in-place)
I0428 20:38:14.222937  5091 net.cpp:124] Setting up relu2
I0428 20:38:14.222945  5091 net.cpp:131] Top shape: 100 25 (2500)
I0428 20:38:14.222949  5091 net.cpp:139] Memory required for data: 32354800
I0428 20:38:14.222951  5091 layer_factory.hpp:77] Creating layer ip3
I0428 20:38:14.222957  5091 net.cpp:86] Creating Layer ip3
I0428 20:38:14.222960  5091 net.cpp:408] ip3 <- ip2
I0428 20:38:14.222965  5091 net.cpp:382] ip3 -> ip3
I0428 20:38:14.223100  5091 net.cpp:124] Setting up ip3
I0428 20:38:14.223107  5091 net.cpp:131] Top shape: 100 10 (1000)
I0428 20:38:14.223111  5091 net.cpp:139] Memory required for data: 32358800
I0428 20:38:14.223119  5091 layer_factory.hpp:77] Creating layer relu3
I0428 20:38:14.223122  5091 net.cpp:86] Creating Layer relu3
I0428 20:38:14.223125  5091 net.cpp:408] relu3 <- ip3
I0428 20:38:14.223130  5091 net.cpp:369] relu3 -> ip3 (in-place)
I0428 20:38:14.223924  5091 net.cpp:124] Setting up relu3
I0428 20:38:14.223937  5091 net.cpp:131] Top shape: 100 10 (1000)
I0428 20:38:14.223940  5091 net.cpp:139] Memory required for data: 32362800
I0428 20:38:14.223943  5091 layer_factory.hpp:77] Creating layer ip3_relu3_0_split
I0428 20:38:14.223948  5091 net.cpp:86] Creating Layer ip3_relu3_0_split
I0428 20:38:14.223951  5091 net.cpp:408] ip3_relu3_0_split <- ip3
I0428 20:38:14.223963  5091 net.cpp:382] ip3_relu3_0_split -> ip3_relu3_0_split_0
I0428 20:38:14.223985  5091 net.cpp:382] ip3_relu3_0_split -> ip3_relu3_0_split_1
I0428 20:38:14.224022  5091 net.cpp:124] Setting up ip3_relu3_0_split
I0428 20:38:14.224027  5091 net.cpp:131] Top shape: 100 10 (1000)
I0428 20:38:14.224031  5091 net.cpp:131] Top shape: 100 10 (1000)
I0428 20:38:14.224035  5091 net.cpp:139] Memory required for data: 32370800
I0428 20:38:14.224037  5091 layer_factory.hpp:77] Creating layer accuracy
I0428 20:38:14.224042  5091 net.cpp:86] Creating Layer accuracy
I0428 20:38:14.224052  5091 net.cpp:408] accuracy <- ip3_relu3_0_split_0
I0428 20:38:14.224056  5091 net.cpp:408] accuracy <- label_mnist_1_split_0
I0428 20:38:14.224061  5091 net.cpp:382] accuracy -> accuracy
…
