…
I0428 20:04:55.401922 30491 net.cpp:296] The NetState phase (0) differed from the phase (1) specified by a rule in layer mnist
I0428 20:04:55.401937 30491 net.cpp:296] The NetState phase (0) differed from the phase (1) specified by a rule in layer accuracy
I0428 20:04:55.402029 30491 net.cpp:53] Initializing net from parameters: 
name: "LeNet"
state {
  phase: TRAIN
  level: 0
  stage: ""
}
layer {
  name: "mnist"
  type: "Data"
  top: "data"
  top: "label"
  include {
    phase: TRAIN
  }
  transform_param {
    scale: 0.00390625
  }
  data_param {
    source: "examples/mnist/mnist_train_lmdb"
    batch_size: 64
    backend: LMDB
  }
}
layer {
  name: "conv0"
  type: "Convolution"
  bottom: "data"
  top: "conv0"
  param {
    lr_mult: 1
  }
  param {
    lr_mult: 2
  }
  convolution_param {
    num_output: 25
    kernel_size: 5
    stride: 1
    weight_filler {
      type: "xavier"
    }
    bias_filler {
      type: "constant"
    }
  }
}
layer {
  name: "pool0"
  type: "Pooling"
  bottom: "conv0"
  top: "pool0"
  pooling_param {
    pool: MAX
    kernel_size: 2
    stride: 2
  }
}
layer {
  name: "conv1"
  type: "Convolution"
  bottom: "pool0"
  top: "conv1"
  param {
    lr_mult: 1
  }
  param {
    lr_mult: 2
  }
  convolution_param {
    num_output: 2
    kernel_size: 5
    stride: 1
    weight_filler {
      type: "xavier"
    }
    bias_filler {
      type: "constant"
    }
  }
}
layer {
  name: "pool1"
  type: "Pooling"
  bottom: "conv1"
  top: "pool1"
  pooling_param {
    pool: MAX
    kernel_size: 2
    stride: 2
  }
}
layer {
  name: "ip1"
  type: "InnerProduct"
  bottom: "pool1"
  top: "ip1"
  param {
    lr_mult: 1
  }
  param {
    lr_mult: 2
  }
  inner_product_param {
    num_output: 50
    weight_filler {
      type: "xavier"
    }
    bias_filler {
      type: "constant"
    }
  }
}
layer {
  name: "relu1"
  type: "ReLU"
  bottom: "ip1"
  top: "ip1"
}
layer {
  name: "ip2"
  type: "InnerProduct"
  bottom: "ip1"
  top: "ip2"
  param {
    lr_mult: 1
  }
  param {
    lr_mult: 2
  }
  inner_product_param {
    num_output: 10
    weight_filler {
      type: "xavier"
    }
    bias_filler {
      type: "constant"
    }
  }
}
layer {
  name: "relu2"
  type: "ReLU"
  bottom: "ip2"
  top: "ip2"
}
layer {
  name: "loss"
  type: "SoftmaxWithLoss"
  bottom: "ip2"
  bottom: "label"
  top: "loss"
}
I0428 20:04:55.402104 30491 layer_factory.hpp:77] Creating layer mnist
I0428 20:04:55.402207 30491 db_lmdb.cpp:35] Opened lmdb examples/mnist/mnist_train_lmdb
I0428 20:04:55.402232 30491 net.cpp:86] Creating Layer mnist
I0428 20:04:55.402240 30491 net.cpp:382] mnist -> data
I0428 20:04:55.402264 30491 net.cpp:382] mnist -> label
I0428 20:04:55.403373 30491 data_layer.cpp:45] output data size: 64,1,28,28
I0428 20:04:55.405849 30491 net.cpp:124] Setting up mnist
I0428 20:04:55.405869 30491 net.cpp:131] Top shape: 64 1 28 28 (50176)
I0428 20:04:55.405875 30491 net.cpp:131] Top shape: 64 (64)
I0428 20:04:55.405879 30491 net.cpp:139] Memory required for data: 200960
I0428 20:04:55.405886 30491 layer_factory.hpp:77] Creating layer conv0
I0428 20:04:55.405903 30491 net.cpp:86] Creating Layer conv0
I0428 20:04:55.405910 30491 net.cpp:408] conv0 <- data
I0428 20:04:55.405920 30491 net.cpp:382] conv0 -> conv0
I0428 20:04:55.677399 30491 net.cpp:124] Setting up conv0
I0428 20:04:55.677443 30491 net.cpp:131] Top shape: 64 25 24 24 (921600)
I0428 20:04:55.677446 30491 net.cpp:139] Memory required for data: 3887360
I0428 20:04:55.677512 30491 layer_factory.hpp:77] Creating layer pool0
I0428 20:04:55.677526 30491 net.cpp:86] Creating Layer pool0
I0428 20:04:55.677532 30491 net.cpp:408] pool0 <- conv0
I0428 20:04:55.677537 30491 net.cpp:382] pool0 -> pool0
I0428 20:04:55.677583 30491 net.cpp:124] Setting up pool0
I0428 20:04:55.677589 30491 net.cpp:131] Top shape: 64 25 12 12 (230400)
I0428 20:04:55.677592 30491 net.cpp:139] Memory required for data: 4808960
I0428 20:04:55.677595 30491 layer_factory.hpp:77] Creating layer conv1
I0428 20:04:55.677606 30491 net.cpp:86] Creating Layer conv1
I0428 20:04:55.677610 30491 net.cpp:408] conv1 <- pool0
I0428 20:04:55.677615 30491 net.cpp:382] conv1 -> conv1
I0428 20:04:55.680485 30491 net.cpp:124] Setting up conv1
I0428 20:04:55.680516 30491 net.cpp:131] Top shape: 64 2 8 8 (8192)
I0428 20:04:55.680521 30491 net.cpp:139] Memory required for data: 4841728
I0428 20:04:55.680528 30491 layer_factory.hpp:77] Creating layer pool1
I0428 20:04:55.680536 30491 net.cpp:86] Creating Layer pool1
I0428 20:04:55.680539 30491 net.cpp:408] pool1 <- conv1
I0428 20:04:55.680555 30491 net.cpp:382] pool1 -> pool1
I0428 20:04:55.680589 30491 net.cpp:124] Setting up pool1
I0428 20:04:55.680595 30491 net.cpp:131] Top shape: 64 2 4 4 (2048)
I0428 20:04:55.680598 30491 net.cpp:139] Memory required for data: 4849920
I0428 20:04:55.680601 30491 layer_factory.hpp:77] Creating layer ip1
I0428 20:04:55.680608 30491 net.cpp:86] Creating Layer ip1
I0428 20:04:55.680610 30491 net.cpp:408] ip1 <- pool1
I0428 20:04:55.680630 30491 net.cpp:382] ip1 -> ip1
I0428 20:04:55.680729 30491 net.cpp:124] Setting up ip1
I0428 20:04:55.680737 30491 net.cpp:131] Top shape: 64 50 (3200)
I0428 20:04:55.680738 30491 net.cpp:139] Memory required for data: 4862720
I0428 20:04:55.680745 30491 layer_factory.hpp:77] Creating layer relu1
I0428 20:04:55.680750 30491 net.cpp:86] Creating Layer relu1
I0428 20:04:55.680754 30491 net.cpp:408] relu1 <- ip1
I0428 20:04:55.680758 30491 net.cpp:369] relu1 -> ip1 (in-place)
I0428 20:04:55.680986 30491 net.cpp:124] Setting up relu1
I0428 20:04:55.680995 30491 net.cpp:131] Top shape: 64 50 (3200)
I0428 20:04:55.680999 30491 net.cpp:139] Memory required for data: 4875520
I0428 20:04:55.681001 30491 layer_factory.hpp:77] Creating layer ip2
I0428 20:04:55.681008 30491 net.cpp:86] Creating Layer ip2
I0428 20:04:55.681011 30491 net.cpp:408] ip2 <- ip1
I0428 20:04:55.681016 30491 net.cpp:382] ip2 -> ip2
I0428 20:04:55.681113 30491 net.cpp:124] Setting up ip2
I0428 20:04:55.681119 30491 net.cpp:131] Top shape: 64 10 (640)
I0428 20:04:55.681123 30491 net.cpp:139] Memory required for data: 4878080
I0428 20:04:55.681128 30491 layer_factory.hpp:77] Creating layer relu2
I0428 20:04:55.681134 30491 net.cpp:86] Creating Layer relu2
I0428 20:04:55.681138 30491 net.cpp:408] relu2 <- ip2
I0428 20:04:55.681143 30491 net.cpp:369] relu2 -> ip2 (in-place)
I0428 20:04:55.681990 30491 net.cpp:124] Setting up relu2
I0428 20:04:55.682018 30491 net.cpp:131] Top shape: 64 10 (640)
I0428 20:04:55.682037 30491 net.cpp:139] Memory required for data: 4880640
I0428 20:04:55.682040 30491 layer_factory.hpp:77] Creating layer loss
I0428 20:04:55.682061 30491 net.cpp:86] Creating Layer loss
I0428 20:04:55.682065 30491 net.cpp:408] loss <- ip2
I0428 20:04:55.682070 30491 net.cpp:408] loss <- label
I0428 20:04:55.682075 30491 net.cpp:382] loss -> loss
I0428 20:04:55.682095 30491 layer_factory.hpp:77] Creating layer loss
…
I0428 20:04:55.682696 30491 solver.cpp:173] Creating test net (#0) specified by net file: ECE595/mnist/train_test/var_everything2/lenet_train_test985.prototxt
I0428 20:04:55.682735 30491 net.cpp:296] The NetState phase (1) differed from the phase (0) specified by a rule in layer mnist
I0428 20:04:55.682828 30491 net.cpp:53] Initializing net from parameters: 
name: "LeNet"
state {
  phase: TEST
}
layer {
  name: "mnist"
  type: "Data"
  top: "data"
  top: "label"
  include {
    phase: TEST
  }
  transform_param {
    scale: 0.00390625
  }
  data_param {
    source: "examples/mnist/mnist_test_lmdb"
    batch_size: 100
    backend: LMDB
  }
}
layer {
  name: "conv0"
  type: "Convolution"
  bottom: "data"
  top: "conv0"
  param {
    lr_mult: 1
  }
  param {
    lr_mult: 2
  }
  convolution_param {
    num_output: 25
    kernel_size: 5
    stride: 1
    weight_filler {
      type: "xavier"
    }
    bias_filler {
      type: "constant"
    }
  }
}
layer {
  name: "pool0"
  type: "Pooling"
  bottom: "conv0"
  top: "pool0"
  pooling_param {
    pool: MAX
    kernel_size: 2
    stride: 2
  }
}
layer {
  name: "conv1"
  type: "Convolution"
  bottom: "pool0"
  top: "conv1"
  param {
    lr_mult: 1
  }
  param {
    lr_mult: 2
  }
  convolution_param {
    num_output: 2
    kernel_size: 5
    stride: 1
    weight_filler {
      type: "xavier"
    }
    bias_filler {
      type: "constant"
    }
  }
}
layer {
  name: "pool1"
  type: "Pooling"
  bottom: "conv1"
  top: "pool1"
  pooling_param {
    pool: MAX
    kernel_size: 2
    stride: 2
  }
}
layer {
  name: "ip1"
  type: "InnerProduct"
  bottom: "pool1"
  top: "ip1"
  param {
    lr_mult: 1
  }
  param {
    lr_mult: 2
  }
  inner_product_param {
    num_output: 50
    weight_filler {
      type: "xavier"
    }
    bias_filler {
      type: "constant"
    }
  }
}
layer {
  name: "relu1"
  type: "ReLU"
  bottom: "ip1"
  top: "ip1"
}
layer {
  name: "ip2"
  type: "InnerProduct"
  bottom: "ip1"
  top: "ip2"
  param {
    lr_mult: 1
  }
  param {
    lr_mult: 2
  }
  inner_product_param {
    num_output: 10
    weight_filler {
      type: "xavier"
    }
    bias_filler {
      type: "constant"
    }
  }
}
layer {
  name: "relu2"
  type: "ReLU"
  bottom: "ip2"
  top: "ip2"
}
layer {
  name: "accuracy"
  type: "Accuracy"
  bottom: "ip2"
  bottom: "label"
  top: "accuracy"
  include {
    phase: TEST
  }
}
layer {
  name: "loss"
  type: "SoftmaxWithLoss"
  bottom: "ip2"
  bottom: "label"
  top: "loss"
}
I0428 20:04:55.682888 30491 layer_factory.hpp:77] Creating layer mnist
I0428 20:04:55.682930 30491 db_lmdb.cpp:35] Opened lmdb examples/mnist/mnist_test_lmdb
I0428 20:04:55.682943 30491 net.cpp:86] Creating Layer mnist
I0428 20:04:55.682947 30491 net.cpp:382] mnist -> data
I0428 20:04:55.682971 30491 net.cpp:382] mnist -> label
I0428 20:04:55.683068 30491 data_layer.cpp:45] output data size: 100,1,28,28
I0428 20:04:55.685192 30491 net.cpp:124] Setting up mnist
I0428 20:04:55.685223 30491 net.cpp:131] Top shape: 100 1 28 28 (78400)
I0428 20:04:55.685230 30491 net.cpp:131] Top shape: 100 (100)
I0428 20:04:55.685233 30491 net.cpp:139] Memory required for data: 314000
I0428 20:04:55.685236 30491 layer_factory.hpp:77] Creating layer label_mnist_1_split
I0428 20:04:55.685243 30491 net.cpp:86] Creating Layer label_mnist_1_split
I0428 20:04:55.685247 30491 net.cpp:408] label_mnist_1_split <- label
I0428 20:04:55.685252 30491 net.cpp:382] label_mnist_1_split -> label_mnist_1_split_0
I0428 20:04:55.685259 30491 net.cpp:382] label_mnist_1_split -> label_mnist_1_split_1
I0428 20:04:55.685387 30491 net.cpp:124] Setting up label_mnist_1_split
I0428 20:04:55.685403 30491 net.cpp:131] Top shape: 100 (100)
I0428 20:04:55.685407 30491 net.cpp:131] Top shape: 100 (100)
I0428 20:04:55.685410 30491 net.cpp:139] Memory required for data: 314800
I0428 20:04:55.685413 30491 layer_factory.hpp:77] Creating layer conv0
I0428 20:04:55.685421 30491 net.cpp:86] Creating Layer conv0
I0428 20:04:55.685425 30491 net.cpp:408] conv0 <- data
I0428 20:04:55.685430 30491 net.cpp:382] conv0 -> conv0
I0428 20:04:55.686941 30491 net.cpp:124] Setting up conv0
I0428 20:04:55.686954 30491 net.cpp:131] Top shape: 100 25 24 24 (1440000)
I0428 20:04:55.686957 30491 net.cpp:139] Memory required for data: 6074800
I0428 20:04:55.686967 30491 layer_factory.hpp:77] Creating layer pool0
I0428 20:04:55.686974 30491 net.cpp:86] Creating Layer pool0
I0428 20:04:55.686977 30491 net.cpp:408] pool0 <- conv0
I0428 20:04:55.686981 30491 net.cpp:382] pool0 -> pool0
I0428 20:04:55.687016 30491 net.cpp:124] Setting up pool0
I0428 20:04:55.687022 30491 net.cpp:131] Top shape: 100 25 12 12 (360000)
I0428 20:04:55.687026 30491 net.cpp:139] Memory required for data: 7514800
I0428 20:04:55.687028 30491 layer_factory.hpp:77] Creating layer conv1
I0428 20:04:55.687036 30491 net.cpp:86] Creating Layer conv1
I0428 20:04:55.687039 30491 net.cpp:408] conv1 <- pool0
I0428 20:04:55.687044 30491 net.cpp:382] conv1 -> conv1
I0428 20:04:55.689339 30491 net.cpp:124] Setting up conv1
I0428 20:04:55.689352 30491 net.cpp:131] Top shape: 100 2 8 8 (12800)
I0428 20:04:55.689355 30491 net.cpp:139] Memory required for data: 7566000
I0428 20:04:55.689365 30491 layer_factory.hpp:77] Creating layer pool1
I0428 20:04:55.689370 30491 net.cpp:86] Creating Layer pool1
I0428 20:04:55.689374 30491 net.cpp:408] pool1 <- conv1
I0428 20:04:55.689378 30491 net.cpp:382] pool1 -> pool1
I0428 20:04:55.689430 30491 net.cpp:124] Setting up pool1
I0428 20:04:55.689437 30491 net.cpp:131] Top shape: 100 2 4 4 (3200)
I0428 20:04:55.689440 30491 net.cpp:139] Memory required for data: 7578800
I0428 20:04:55.689442 30491 layer_factory.hpp:77] Creating layer ip1
I0428 20:04:55.689448 30491 net.cpp:86] Creating Layer ip1
I0428 20:04:55.689451 30491 net.cpp:408] ip1 <- pool1
I0428 20:04:55.689456 30491 net.cpp:382] ip1 -> ip1
I0428 20:04:55.689582 30491 net.cpp:124] Setting up ip1
I0428 20:04:55.689589 30491 net.cpp:131] Top shape: 100 50 (5000)
I0428 20:04:55.689592 30491 net.cpp:139] Memory required for data: 7598800
I0428 20:04:55.689599 30491 layer_factory.hpp:77] Creating layer relu1
I0428 20:04:55.689606 30491 net.cpp:86] Creating Layer relu1
I0428 20:04:55.689610 30491 net.cpp:408] relu1 <- ip1
I0428 20:04:55.689613 30491 net.cpp:369] relu1 -> ip1 (in-place)
I0428 20:04:55.689791 30491 net.cpp:124] Setting up relu1
I0428 20:04:55.689800 30491 net.cpp:131] Top shape: 100 50 (5000)
I0428 20:04:55.689803 30491 net.cpp:139] Memory required for data: 7618800
I0428 20:04:55.689806 30491 layer_factory.hpp:77] Creating layer ip2
I0428 20:04:55.689813 30491 net.cpp:86] Creating Layer ip2
I0428 20:04:55.689816 30491 net.cpp:408] ip2 <- ip1
I0428 20:04:55.689821 30491 net.cpp:382] ip2 -> ip2
I0428 20:04:55.689973 30491 net.cpp:124] Setting up ip2
I0428 20:04:55.689980 30491 net.cpp:131] Top shape: 100 10 (1000)
I0428 20:04:55.689983 30491 net.cpp:139] Memory required for data: 7622800
I0428 20:04:55.689988 30491 layer_factory.hpp:77] Creating layer relu2
I0428 20:04:55.689995 30491 net.cpp:86] Creating Layer relu2
I0428 20:04:55.689997 30491 net.cpp:408] relu2 <- ip2
I0428 20:04:55.690001 30491 net.cpp:369] relu2 -> ip2 (in-place)
I0428 20:04:55.690228 30491 net.cpp:124] Setting up relu2
I0428 20:04:55.690237 30491 net.cpp:131] Top shape: 100 10 (1000)
I0428 20:04:55.690239 30491 net.cpp:139] Memory required for data: 7626800
I0428 20:04:55.690243 30491 layer_factory.hpp:77] Creating layer ip2_relu2_0_split
I0428 20:04:55.690248 30491 net.cpp:86] Creating Layer ip2_relu2_0_split
I0428 20:04:55.690251 30491 net.cpp:408] ip2_relu2_0_split <- ip2
I0428 20:04:55.690255 30491 net.cpp:382] ip2_relu2_0_split -> ip2_relu2_0_split_0
I0428 20:04:55.690269 30491 net.cpp:382] ip2_relu2_0_split -> ip2_relu2_0_split_1
I0428 20:04:55.690320 30491 net.cpp:124] Setting up ip2_relu2_0_split
I0428 20:04:55.690327 30491 net.cpp:131] Top shape: 100 10 (1000)
I0428 20:04:55.690330 30491 net.cpp:131] Top shape: 100 10 (1000)
I0428 20:04:55.690333 30491 net.cpp:139] Memory required for data: 7634800
I0428 20:04:55.690336 30491 layer_factory.hpp:77] Creating layer accuracy
I0428 20:04:55.690357 30491 net.cpp:86] Creating Layer accuracy
I0428 20:04:55.690361 30491 net.cpp:408] accuracy <- ip2_relu2_0_split_0
I0428 20:04:55.690364 30491 net.cpp:408] accuracy <- label_mnist_1_split_0
I0428 20:04:55.690368 30491 net.cpp:382] accuracy -> accuracy
…
