…
I0428 19:47:05.453447 26111 net.cpp:296] The NetState phase (0) differed from the phase (1) specified by a rule in layer mnist
I0428 19:47:05.453474 26111 net.cpp:296] The NetState phase (0) differed from the phase (1) specified by a rule in layer accuracy
I0428 19:47:05.453589 26111 net.cpp:53] Initializing net from parameters: 
name: "LeNet"
state {
  phase: TRAIN
  level: 0
  stage: ""
}
layer {
  name: "mnist"
  type: "Data"
  top: "data"
  top: "label"
  include {
    phase: TRAIN
  }
  transform_param {
    scale: 0.00390625
  }
  data_param {
    source: "examples/mnist/mnist_train_lmdb"
    batch_size: 64
    backend: LMDB
  }
}
layer {
  name: "conv0"
  type: "Convolution"
  bottom: "data"
  top: "conv0"
  param {
    lr_mult: 1
  }
  param {
    lr_mult: 2
  }
  convolution_param {
    num_output: 2
    kernel_size: 5
    stride: 1
    weight_filler {
      type: "xavier"
    }
    bias_filler {
      type: "constant"
    }
  }
}
layer {
  name: "pool0"
  type: "Pooling"
  bottom: "conv0"
  top: "pool0"
  pooling_param {
    pool: MAX
    kernel_size: 2
    stride: 2
  }
}
layer {
  name: "conv1"
  type: "Convolution"
  bottom: "pool0"
  top: "conv1"
  param {
    lr_mult: 1
  }
  param {
    lr_mult: 2
  }
  convolution_param {
    num_output: 100
    kernel_size: 5
    stride: 1
    weight_filler {
      type: "xavier"
    }
    bias_filler {
      type: "constant"
    }
  }
}
layer {
  name: "pool1"
  type: "Pooling"
  bottom: "conv1"
  top: "pool1"
  pooling_param {
    pool: MAX
    kernel_size: 2
    stride: 2
  }
}
layer {
  name: "ip1"
  type: "InnerProduct"
  bottom: "pool1"
  top: "ip1"
  param {
    lr_mult: 1
  }
  param {
    lr_mult: 2
  }
  inner_product_param {
    num_output: 50
    weight_filler {
      type: "xavier"
    }
    bias_filler {
      type: "constant"
    }
  }
}
layer {
  name: "relu1"
  type: "ReLU"
  bottom: "ip1"
  top: "ip1"
}
layer {
  name: "ip2"
  type: "InnerProduct"
  bottom: "ip1"
  top: "ip2"
  param {
    lr_mult: 1
  }
  param {
    lr_mult: 2
  }
  inner_product_param {
    num_output: 50
    weight_filler {
      type: "xavier"
    }
    bias_filler {
      type: "constant"
    }
  }
}
layer {
  name: "relu2"
  type: "ReLU"
  bottom: "ip2"
  top: "ip2"
}
layer {
  name: "ip3"
  type: "InnerProduct"
  bottom: "ip2"
  top: "ip3"
  param {
    lr_mult: 1
  }
  param {
    lr_mult: 2
  }
  inner_product_param {
    num_output: 10
    weight_filler {
      type: "xavier"
    }
    bias_filler {
      type: "constant"
    }
  }
}
layer {
  name: "relu3"
  type: "ReLU"
  bottom: "ip3"
  top: "ip3"
}
layer {
  name: "loss"
  type: "SoftmaxWithLoss"
  bottom: "ip3"
  bottom: "label"
  top: "loss"
}
I0428 19:47:05.453707 26111 layer_factory.hpp:77] Creating layer mnist
I0428 19:47:05.453840 26111 db_lmdb.cpp:35] Opened lmdb examples/mnist/mnist_train_lmdb
I0428 19:47:05.453873 26111 net.cpp:86] Creating Layer mnist
I0428 19:47:05.453886 26111 net.cpp:382] mnist -> data
I0428 19:47:05.453918 26111 net.cpp:382] mnist -> label
I0428 19:47:05.455194 26111 data_layer.cpp:45] output data size: 64,1,28,28
I0428 19:47:05.457676 26111 net.cpp:124] Setting up mnist
I0428 19:47:05.457697 26111 net.cpp:131] Top shape: 64 1 28 28 (50176)
I0428 19:47:05.457707 26111 net.cpp:131] Top shape: 64 (64)
I0428 19:47:05.457713 26111 net.cpp:139] Memory required for data: 200960
I0428 19:47:05.457725 26111 layer_factory.hpp:77] Creating layer conv0
I0428 19:47:05.457751 26111 net.cpp:86] Creating Layer conv0
I0428 19:47:05.457777 26111 net.cpp:408] conv0 <- data
I0428 19:47:05.457797 26111 net.cpp:382] conv0 -> conv0
I0428 19:47:05.747154 26111 net.cpp:124] Setting up conv0
I0428 19:47:05.747187 26111 net.cpp:131] Top shape: 64 2 24 24 (73728)
I0428 19:47:05.747195 26111 net.cpp:139] Memory required for data: 495872
I0428 19:47:05.747220 26111 layer_factory.hpp:77] Creating layer pool0
I0428 19:47:05.747241 26111 net.cpp:86] Creating Layer pool0
I0428 19:47:05.747256 26111 net.cpp:408] pool0 <- conv0
I0428 19:47:05.747268 26111 net.cpp:382] pool0 -> pool0
I0428 19:47:05.747340 26111 net.cpp:124] Setting up pool0
I0428 19:47:05.747352 26111 net.cpp:131] Top shape: 64 2 12 12 (18432)
I0428 19:47:05.747359 26111 net.cpp:139] Memory required for data: 569600
I0428 19:47:05.747364 26111 layer_factory.hpp:77] Creating layer conv1
I0428 19:47:05.747383 26111 net.cpp:86] Creating Layer conv1
I0428 19:47:05.747391 26111 net.cpp:408] conv1 <- pool0
I0428 19:47:05.747402 26111 net.cpp:382] conv1 -> conv1
I0428 19:47:05.750538 26111 net.cpp:124] Setting up conv1
I0428 19:47:05.750558 26111 net.cpp:131] Top shape: 64 100 8 8 (409600)
I0428 19:47:05.750566 26111 net.cpp:139] Memory required for data: 2208000
I0428 19:47:05.750582 26111 layer_factory.hpp:77] Creating layer pool1
I0428 19:47:05.750597 26111 net.cpp:86] Creating Layer pool1
I0428 19:47:05.750603 26111 net.cpp:408] pool1 <- conv1
I0428 19:47:05.750613 26111 net.cpp:382] pool1 -> pool1
I0428 19:47:05.750668 26111 net.cpp:124] Setting up pool1
I0428 19:47:05.750679 26111 net.cpp:131] Top shape: 64 100 4 4 (102400)
I0428 19:47:05.750684 26111 net.cpp:139] Memory required for data: 2617600
I0428 19:47:05.750691 26111 layer_factory.hpp:77] Creating layer ip1
I0428 19:47:05.750711 26111 net.cpp:86] Creating Layer ip1
I0428 19:47:05.750720 26111 net.cpp:408] ip1 <- pool1
I0428 19:47:05.750730 26111 net.cpp:382] ip1 -> ip1
I0428 19:47:05.752342 26111 net.cpp:124] Setting up ip1
I0428 19:47:05.752360 26111 net.cpp:131] Top shape: 64 50 (3200)
I0428 19:47:05.752367 26111 net.cpp:139] Memory required for data: 2630400
I0428 19:47:05.752384 26111 layer_factory.hpp:77] Creating layer relu1
I0428 19:47:05.752395 26111 net.cpp:86] Creating Layer relu1
I0428 19:47:05.752408 26111 net.cpp:408] relu1 <- ip1
I0428 19:47:05.752418 26111 net.cpp:369] relu1 -> ip1 (in-place)
I0428 19:47:05.752629 26111 net.cpp:124] Setting up relu1
I0428 19:47:05.752641 26111 net.cpp:131] Top shape: 64 50 (3200)
I0428 19:47:05.752648 26111 net.cpp:139] Memory required for data: 2643200
I0428 19:47:05.752655 26111 layer_factory.hpp:77] Creating layer ip2
I0428 19:47:05.752667 26111 net.cpp:86] Creating Layer ip2
I0428 19:47:05.752674 26111 net.cpp:408] ip2 <- ip1
I0428 19:47:05.752684 26111 net.cpp:382] ip2 -> ip2
I0428 19:47:05.753804 26111 net.cpp:124] Setting up ip2
I0428 19:47:05.753823 26111 net.cpp:131] Top shape: 64 50 (3200)
I0428 19:47:05.753829 26111 net.cpp:139] Memory required for data: 2656000
I0428 19:47:05.753841 26111 layer_factory.hpp:77] Creating layer relu2
I0428 19:47:05.753854 26111 net.cpp:86] Creating Layer relu2
I0428 19:47:05.753861 26111 net.cpp:408] relu2 <- ip2
I0428 19:47:05.753870 26111 net.cpp:369] relu2 -> ip2 (in-place)
I0428 19:47:05.754742 26111 net.cpp:124] Setting up relu2
I0428 19:47:05.754760 26111 net.cpp:131] Top shape: 64 50 (3200)
I0428 19:47:05.754766 26111 net.cpp:139] Memory required for data: 2668800
I0428 19:47:05.754773 26111 layer_factory.hpp:77] Creating layer ip3
I0428 19:47:05.754786 26111 net.cpp:86] Creating Layer ip3
I0428 19:47:05.754793 26111 net.cpp:408] ip3 <- ip2
I0428 19:47:05.754804 26111 net.cpp:382] ip3 -> ip3
I0428 19:47:05.754936 26111 net.cpp:124] Setting up ip3
I0428 19:47:05.754948 26111 net.cpp:131] Top shape: 64 10 (640)
I0428 19:47:05.754956 26111 net.cpp:139] Memory required for data: 2671360
I0428 19:47:05.754971 26111 layer_factory.hpp:77] Creating layer relu3
I0428 19:47:05.754984 26111 net.cpp:86] Creating Layer relu3
I0428 19:47:05.754992 26111 net.cpp:408] relu3 <- ip3
I0428 19:47:05.755000 26111 net.cpp:369] relu3 -> ip3 (in-place)
I0428 19:47:05.755210 26111 net.cpp:124] Setting up relu3
I0428 19:47:05.755223 26111 net.cpp:131] Top shape: 64 10 (640)
I0428 19:47:05.755229 26111 net.cpp:139] Memory required for data: 2673920
I0428 19:47:05.755235 26111 layer_factory.hpp:77] Creating layer loss
I0428 19:47:05.755247 26111 net.cpp:86] Creating Layer loss
I0428 19:47:05.755254 26111 net.cpp:408] loss <- ip3
I0428 19:47:05.755262 26111 net.cpp:408] loss <- label
I0428 19:47:05.755273 26111 net.cpp:382] loss -> loss
I0428 19:47:05.755300 26111 layer_factory.hpp:77] Creating layer loss
…
I0428 19:47:05.756129 26111 solver.cpp:173] Creating test net (#0) specified by net file: ECE595/mnist/train_test/var_everything2/lenet_train_test505.prototxt
I0428 19:47:05.756170 26111 net.cpp:296] The NetState phase (1) differed from the phase (0) specified by a rule in layer mnist
I0428 19:47:05.756289 26111 net.cpp:53] Initializing net from parameters: 
name: "LeNet"
state {
  phase: TEST
}
layer {
  name: "mnist"
  type: "Data"
  top: "data"
  top: "label"
  include {
    phase: TEST
  }
  transform_param {
    scale: 0.00390625
  }
  data_param {
    source: "examples/mnist/mnist_test_lmdb"
    batch_size: 100
    backend: LMDB
  }
}
layer {
  name: "conv0"
  type: "Convolution"
  bottom: "data"
  top: "conv0"
  param {
    lr_mult: 1
  }
  param {
    lr_mult: 2
  }
  convolution_param {
    num_output: 2
    kernel_size: 5
    stride: 1
    weight_filler {
      type: "xavier"
    }
    bias_filler {
      type: "constant"
    }
  }
}
layer {
  name: "pool0"
  type: "Pooling"
  bottom: "conv0"
  top: "pool0"
  pooling_param {
    pool: MAX
    kernel_size: 2
    stride: 2
  }
}
layer {
  name: "conv1"
  type: "Convolution"
  bottom: "pool0"
  top: "conv1"
  param {
    lr_mult: 1
  }
  param {
    lr_mult: 2
  }
  convolution_param {
    num_output: 100
    kernel_size: 5
    stride: 1
    weight_filler {
      type: "xavier"
    }
    bias_filler {
      type: "constant"
    }
  }
}
layer {
  name: "pool1"
  type: "Pooling"
  bottom: "conv1"
  top: "pool1"
  pooling_param {
    pool: MAX
    kernel_size: 2
    stride: 2
  }
}
layer {
  name: "ip1"
  type: "InnerProduct"
  bottom: "pool1"
  top: "ip1"
  param {
    lr_mult: 1
  }
  param {
    lr_mult: 2
  }
  inner_product_param {
    num_output: 50
    weight_filler {
      type: "xavier"
    }
    bias_filler {
      type: "constant"
    }
  }
}
layer {
  name: "relu1"
  type: "ReLU"
  bottom: "ip1"
  top: "ip1"
}
layer {
  name: "ip2"
  type: "InnerProduct"
  bottom: "ip1"
  top: "ip2"
  param {
    lr_mult: 1
  }
  param {
    lr_mult: 2
  }
  inner_product_param {
    num_output: 50
    weight_filler {
      type: "xavier"
    }
    bias_filler {
      type: "constant"
    }
  }
}
layer {
  name: "relu2"
  type: "ReLU"
  bottom: "ip2"
  top: "ip2"
}
layer {
  name: "ip3"
  type: "InnerProduct"
  bottom: "ip2"
  top: "ip3"
  param {
    lr_mult: 1
  }
  param {
    lr_mult: 2
  }
  inner_product_param {
    num_output: 10
    weight_filler {
      type: "xavier"
    }
    bias_filler {
      type: "constant"
    }
  }
}
layer {
  name: "relu3"
  type: "ReLU"
  bottom: "ip3"
  top: "ip3"
}
layer {
  name: "accuracy"
  type: "Accuracy"
  bottom: "ip3"
  bottom: "label"
  top: "accuracy"
  include {
    phase: TEST
  }
}
layer {
  name: "loss"
  type: "SoftmaxWithLoss"
  bottom: "ip3"
  bottom: "label"
  top: "loss"
}
I0428 19:47:05.756435 26111 layer_factory.hpp:77] Creating layer mnist
I0428 19:47:05.756505 26111 db_lmdb.cpp:35] Opened lmdb examples/mnist/mnist_test_lmdb
I0428 19:47:05.756528 26111 net.cpp:86] Creating Layer mnist
I0428 19:47:05.756539 26111 net.cpp:382] mnist -> data
I0428 19:47:05.756553 26111 net.cpp:382] mnist -> label
I0428 19:47:05.756701 26111 data_layer.cpp:45] output data size: 100,1,28,28
I0428 19:47:05.758321 26111 net.cpp:124] Setting up mnist
I0428 19:47:05.758340 26111 net.cpp:131] Top shape: 100 1 28 28 (78400)
I0428 19:47:05.758350 26111 net.cpp:131] Top shape: 100 (100)
I0428 19:47:05.758357 26111 net.cpp:139] Memory required for data: 314000
I0428 19:47:05.758363 26111 layer_factory.hpp:77] Creating layer label_mnist_1_split
I0428 19:47:05.758394 26111 net.cpp:86] Creating Layer label_mnist_1_split
I0428 19:47:05.758401 26111 net.cpp:408] label_mnist_1_split <- label
I0428 19:47:05.758410 26111 net.cpp:382] label_mnist_1_split -> label_mnist_1_split_0
I0428 19:47:05.758424 26111 net.cpp:382] label_mnist_1_split -> label_mnist_1_split_1
I0428 19:47:05.758529 26111 net.cpp:124] Setting up label_mnist_1_split
I0428 19:47:05.758539 26111 net.cpp:131] Top shape: 100 (100)
I0428 19:47:05.758548 26111 net.cpp:131] Top shape: 100 (100)
I0428 19:47:05.758553 26111 net.cpp:139] Memory required for data: 314800
I0428 19:47:05.758560 26111 layer_factory.hpp:77] Creating layer conv0
I0428 19:47:05.758577 26111 net.cpp:86] Creating Layer conv0
I0428 19:47:05.758585 26111 net.cpp:408] conv0 <- data
I0428 19:47:05.758599 26111 net.cpp:382] conv0 -> conv0
I0428 19:47:05.760409 26111 net.cpp:124] Setting up conv0
I0428 19:47:05.760428 26111 net.cpp:131] Top shape: 100 2 24 24 (115200)
I0428 19:47:05.760435 26111 net.cpp:139] Memory required for data: 775600
I0428 19:47:05.760452 26111 layer_factory.hpp:77] Creating layer pool0
I0428 19:47:05.760468 26111 net.cpp:86] Creating Layer pool0
I0428 19:47:05.760475 26111 net.cpp:408] pool0 <- conv0
I0428 19:47:05.760485 26111 net.cpp:382] pool0 -> pool0
I0428 19:47:05.760540 26111 net.cpp:124] Setting up pool0
I0428 19:47:05.760550 26111 net.cpp:131] Top shape: 100 2 12 12 (28800)
I0428 19:47:05.760555 26111 net.cpp:139] Memory required for data: 890800
I0428 19:47:05.760562 26111 layer_factory.hpp:77] Creating layer conv1
I0428 19:47:05.760581 26111 net.cpp:86] Creating Layer conv1
I0428 19:47:05.760587 26111 net.cpp:408] conv1 <- pool0
I0428 19:47:05.760601 26111 net.cpp:382] conv1 -> conv1
I0428 19:47:05.762511 26111 net.cpp:124] Setting up conv1
I0428 19:47:05.762529 26111 net.cpp:131] Top shape: 100 100 8 8 (640000)
I0428 19:47:05.762537 26111 net.cpp:139] Memory required for data: 3450800
I0428 19:47:05.762552 26111 layer_factory.hpp:77] Creating layer pool1
I0428 19:47:05.762564 26111 net.cpp:86] Creating Layer pool1
I0428 19:47:05.762573 26111 net.cpp:408] pool1 <- conv1
I0428 19:47:05.762586 26111 net.cpp:382] pool1 -> pool1
I0428 19:47:05.762641 26111 net.cpp:124] Setting up pool1
I0428 19:47:05.762652 26111 net.cpp:131] Top shape: 100 100 4 4 (160000)
I0428 19:47:05.762658 26111 net.cpp:139] Memory required for data: 4090800
I0428 19:47:05.762668 26111 layer_factory.hpp:77] Creating layer ip1
I0428 19:47:05.762682 26111 net.cpp:86] Creating Layer ip1
I0428 19:47:05.762691 26111 net.cpp:408] ip1 <- pool1
I0428 19:47:05.762703 26111 net.cpp:382] ip1 -> ip1
I0428 19:47:05.763388 26111 net.cpp:124] Setting up ip1
I0428 19:47:05.763401 26111 net.cpp:131] Top shape: 100 50 (5000)
I0428 19:47:05.763420 26111 net.cpp:139] Memory required for data: 4110800
I0428 19:47:05.763437 26111 layer_factory.hpp:77] Creating layer relu1
I0428 19:47:05.763448 26111 net.cpp:86] Creating Layer relu1
I0428 19:47:05.763455 26111 net.cpp:408] relu1 <- ip1
I0428 19:47:05.763468 26111 net.cpp:369] relu1 -> ip1 (in-place)
I0428 19:47:05.763674 26111 net.cpp:124] Setting up relu1
I0428 19:47:05.763689 26111 net.cpp:131] Top shape: 100 50 (5000)
I0428 19:47:05.763695 26111 net.cpp:139] Memory required for data: 4130800
I0428 19:47:05.763701 26111 layer_factory.hpp:77] Creating layer ip2
I0428 19:47:05.763717 26111 net.cpp:86] Creating Layer ip2
I0428 19:47:05.763726 26111 net.cpp:408] ip2 <- ip1
I0428 19:47:05.763736 26111 net.cpp:382] ip2 -> ip2
I0428 19:47:05.763891 26111 net.cpp:124] Setting up ip2
I0428 19:47:05.763901 26111 net.cpp:131] Top shape: 100 50 (5000)
I0428 19:47:05.763907 26111 net.cpp:139] Memory required for data: 4150800
I0428 19:47:05.763919 26111 layer_factory.hpp:77] Creating layer relu2
I0428 19:47:05.763931 26111 net.cpp:86] Creating Layer relu2
I0428 19:47:05.763937 26111 net.cpp:408] relu2 <- ip2
I0428 19:47:05.763947 26111 net.cpp:369] relu2 -> ip2 (in-place)
I0428 19:47:05.764175 26111 net.cpp:124] Setting up relu2
I0428 19:47:05.764188 26111 net.cpp:131] Top shape: 100 50 (5000)
I0428 19:47:05.764194 26111 net.cpp:139] Memory required for data: 4170800
I0428 19:47:05.764199 26111 layer_factory.hpp:77] Creating layer ip3
I0428 19:47:05.764212 26111 net.cpp:86] Creating Layer ip3
I0428 19:47:05.764219 26111 net.cpp:408] ip3 <- ip2
I0428 19:47:05.764230 26111 net.cpp:382] ip3 -> ip3
I0428 19:47:05.764381 26111 net.cpp:124] Setting up ip3
I0428 19:47:05.764392 26111 net.cpp:131] Top shape: 100 10 (1000)
I0428 19:47:05.764398 26111 net.cpp:139] Memory required for data: 4174800
I0428 19:47:05.764413 26111 layer_factory.hpp:77] Creating layer relu3
I0428 19:47:05.764425 26111 net.cpp:86] Creating Layer relu3
I0428 19:47:05.764433 26111 net.cpp:408] relu3 <- ip3
I0428 19:47:05.764443 26111 net.cpp:369] relu3 -> ip3 (in-place)
I0428 19:47:05.765390 26111 net.cpp:124] Setting up relu3
I0428 19:47:05.765409 26111 net.cpp:131] Top shape: 100 10 (1000)
I0428 19:47:05.765416 26111 net.cpp:139] Memory required for data: 4178800
I0428 19:47:05.765424 26111 layer_factory.hpp:77] Creating layer ip3_relu3_0_split
I0428 19:47:05.765432 26111 net.cpp:86] Creating Layer ip3_relu3_0_split
I0428 19:47:05.765439 26111 net.cpp:408] ip3_relu3_0_split <- ip3
I0428 19:47:05.765449 26111 net.cpp:382] ip3_relu3_0_split -> ip3_relu3_0_split_0
I0428 19:47:05.765460 26111 net.cpp:382] ip3_relu3_0_split -> ip3_relu3_0_split_1
I0428 19:47:05.765516 26111 net.cpp:124] Setting up ip3_relu3_0_split
I0428 19:47:05.765527 26111 net.cpp:131] Top shape: 100 10 (1000)
I0428 19:47:05.765534 26111 net.cpp:131] Top shape: 100 10 (1000)
I0428 19:47:05.765540 26111 net.cpp:139] Memory required for data: 4186800
I0428 19:47:05.765547 26111 layer_factory.hpp:77] Creating layer accuracy
I0428 19:47:05.765557 26111 net.cpp:86] Creating Layer accuracy
I0428 19:47:05.765563 26111 net.cpp:408] accuracy <- ip3_relu3_0_split_0
I0428 19:47:05.765573 26111 net.cpp:408] accuracy <- label_mnist_1_split_0
I0428 19:47:05.765583 26111 net.cpp:382] accuracy -> accuracy
…
