…
I0428 19:46:15.407327 25966 net.cpp:296] The NetState phase (0) differed from the phase (1) specified by a rule in layer mnist
I0428 19:46:15.407346 25966 net.cpp:296] The NetState phase (0) differed from the phase (1) specified by a rule in layer accuracy
I0428 19:46:15.407449 25966 net.cpp:53] Initializing net from parameters: 
name: "LeNet"
state {
  phase: TRAIN
  level: 0
  stage: ""
}
layer {
  name: "mnist"
  type: "Data"
  top: "data"
  top: "label"
  include {
    phase: TRAIN
  }
  transform_param {
    scale: 0.00390625
  }
  data_param {
    source: "examples/mnist/mnist_train_lmdb"
    batch_size: 64
    backend: LMDB
  }
}
layer {
  name: "conv0"
  type: "Convolution"
  bottom: "data"
  top: "conv0"
  param {
    lr_mult: 1
  }
  param {
    lr_mult: 2
  }
  convolution_param {
    num_output: 2
    kernel_size: 5
    stride: 1
    weight_filler {
      type: "xavier"
    }
    bias_filler {
      type: "constant"
    }
  }
}
layer {
  name: "pool0"
  type: "Pooling"
  bottom: "conv0"
  top: "pool0"
  pooling_param {
    pool: MAX
    kernel_size: 2
    stride: 2
  }
}
layer {
  name: "conv1"
  type: "Convolution"
  bottom: "pool0"
  top: "conv1"
  param {
    lr_mult: 1
  }
  param {
    lr_mult: 2
  }
  convolution_param {
    num_output: 100
    kernel_size: 5
    stride: 1
    weight_filler {
      type: "xavier"
    }
    bias_filler {
      type: "constant"
    }
  }
}
layer {
  name: "pool1"
  type: "Pooling"
  bottom: "conv1"
  top: "pool1"
  pooling_param {
    pool: MAX
    kernel_size: 2
    stride: 2
  }
}
layer {
  name: "ip1"
  type: "InnerProduct"
  bottom: "pool1"
  top: "ip1"
  param {
    lr_mult: 1
  }
  param {
    lr_mult: 2
  }
  inner_product_param {
    num_output: 10
    weight_filler {
      type: "xavier"
    }
    bias_filler {
      type: "constant"
    }
  }
}
layer {
  name: "relu1"
  type: "ReLU"
  bottom: "ip1"
  top: "ip1"
}
layer {
  name: "ip2"
  type: "InnerProduct"
  bottom: "ip1"
  top: "ip2"
  param {
    lr_mult: 1
  }
  param {
    lr_mult: 2
  }
  inner_product_param {
    num_output: 50
    weight_filler {
      type: "xavier"
    }
    bias_filler {
      type: "constant"
    }
  }
}
layer {
  name: "relu2"
  type: "ReLU"
  bottom: "ip2"
  top: "ip2"
}
layer {
  name: "ip3"
  type: "InnerProduct"
  bottom: "ip2"
  top: "ip3"
  param {
    lr_mult: 1
  }
  param {
    lr_mult: 2
  }
  inner_product_param {
    num_output: 10
    weight_filler {
      type: "xavier"
    }
    bias_filler {
      type: "constant"
    }
  }
}
layer {
  name: "relu3"
  type: "ReLU"
  bottom: "ip3"
  top: "ip3"
}
layer {
  name: "loss"
  type: "SoftmaxWithLoss"
  bottom: "ip3"
  bottom: "label"
  top: "loss"
}
I0428 19:46:15.407527 25966 layer_factory.hpp:77] Creating layer mnist
I0428 19:46:15.407626 25966 db_lmdb.cpp:35] Opened lmdb examples/mnist/mnist_train_lmdb
I0428 19:46:15.407651 25966 net.cpp:86] Creating Layer mnist
I0428 19:46:15.407660 25966 net.cpp:382] mnist -> data
I0428 19:46:15.407682 25966 net.cpp:382] mnist -> label
I0428 19:46:15.408773 25966 data_layer.cpp:45] output data size: 64,1,28,28
I0428 19:46:15.411237 25966 net.cpp:124] Setting up mnist
I0428 19:46:15.411257 25966 net.cpp:131] Top shape: 64 1 28 28 (50176)
I0428 19:46:15.411264 25966 net.cpp:131] Top shape: 64 (64)
I0428 19:46:15.411268 25966 net.cpp:139] Memory required for data: 200960
I0428 19:46:15.411275 25966 layer_factory.hpp:77] Creating layer conv0
I0428 19:46:15.411290 25966 net.cpp:86] Creating Layer conv0
I0428 19:46:15.411311 25966 net.cpp:408] conv0 <- data
I0428 19:46:15.411325 25966 net.cpp:382] conv0 -> conv0
I0428 19:46:15.699571 25966 net.cpp:124] Setting up conv0
I0428 19:46:15.699599 25966 net.cpp:131] Top shape: 64 2 24 24 (73728)
I0428 19:46:15.699604 25966 net.cpp:139] Memory required for data: 495872
I0428 19:46:15.699618 25966 layer_factory.hpp:77] Creating layer pool0
I0428 19:46:15.699630 25966 net.cpp:86] Creating Layer pool0
I0428 19:46:15.699635 25966 net.cpp:408] pool0 <- conv0
I0428 19:46:15.699640 25966 net.cpp:382] pool0 -> pool0
I0428 19:46:15.699695 25966 net.cpp:124] Setting up pool0
I0428 19:46:15.699702 25966 net.cpp:131] Top shape: 64 2 12 12 (18432)
I0428 19:46:15.699705 25966 net.cpp:139] Memory required for data: 569600
I0428 19:46:15.699723 25966 layer_factory.hpp:77] Creating layer conv1
I0428 19:46:15.699733 25966 net.cpp:86] Creating Layer conv1
I0428 19:46:15.699738 25966 net.cpp:408] conv1 <- pool0
I0428 19:46:15.699743 25966 net.cpp:382] conv1 -> conv1
I0428 19:46:15.702481 25966 net.cpp:124] Setting up conv1
I0428 19:46:15.702497 25966 net.cpp:131] Top shape: 64 100 8 8 (409600)
I0428 19:46:15.702500 25966 net.cpp:139] Memory required for data: 2208000
I0428 19:46:15.702508 25966 layer_factory.hpp:77] Creating layer pool1
I0428 19:46:15.702517 25966 net.cpp:86] Creating Layer pool1
I0428 19:46:15.702520 25966 net.cpp:408] pool1 <- conv1
I0428 19:46:15.702525 25966 net.cpp:382] pool1 -> pool1
I0428 19:46:15.702561 25966 net.cpp:124] Setting up pool1
I0428 19:46:15.702566 25966 net.cpp:131] Top shape: 64 100 4 4 (102400)
I0428 19:46:15.702569 25966 net.cpp:139] Memory required for data: 2617600
I0428 19:46:15.702572 25966 layer_factory.hpp:77] Creating layer ip1
I0428 19:46:15.702579 25966 net.cpp:86] Creating Layer ip1
I0428 19:46:15.702582 25966 net.cpp:408] ip1 <- pool1
I0428 19:46:15.702586 25966 net.cpp:382] ip1 -> ip1
I0428 19:46:15.702800 25966 net.cpp:124] Setting up ip1
I0428 19:46:15.702808 25966 net.cpp:131] Top shape: 64 10 (640)
I0428 19:46:15.702811 25966 net.cpp:139] Memory required for data: 2620160
I0428 19:46:15.702818 25966 layer_factory.hpp:77] Creating layer relu1
I0428 19:46:15.702823 25966 net.cpp:86] Creating Layer relu1
I0428 19:46:15.702831 25966 net.cpp:408] relu1 <- ip1
I0428 19:46:15.702834 25966 net.cpp:369] relu1 -> ip1 (in-place)
I0428 19:46:15.702996 25966 net.cpp:124] Setting up relu1
I0428 19:46:15.703006 25966 net.cpp:131] Top shape: 64 10 (640)
I0428 19:46:15.703008 25966 net.cpp:139] Memory required for data: 2622720
I0428 19:46:15.703011 25966 layer_factory.hpp:77] Creating layer ip2
I0428 19:46:15.703017 25966 net.cpp:86] Creating Layer ip2
I0428 19:46:15.703021 25966 net.cpp:408] ip2 <- ip1
I0428 19:46:15.703025 25966 net.cpp:382] ip2 -> ip2
I0428 19:46:15.703121 25966 net.cpp:124] Setting up ip2
I0428 19:46:15.703127 25966 net.cpp:131] Top shape: 64 50 (3200)
I0428 19:46:15.703130 25966 net.cpp:139] Memory required for data: 2635520
I0428 19:46:15.703136 25966 layer_factory.hpp:77] Creating layer relu2
I0428 19:46:15.703142 25966 net.cpp:86] Creating Layer relu2
I0428 19:46:15.703147 25966 net.cpp:408] relu2 <- ip2
I0428 19:46:15.703152 25966 net.cpp:369] relu2 -> ip2 (in-place)
I0428 19:46:15.703948 25966 net.cpp:124] Setting up relu2
I0428 19:46:15.703959 25966 net.cpp:131] Top shape: 64 50 (3200)
I0428 19:46:15.703963 25966 net.cpp:139] Memory required for data: 2648320
I0428 19:46:15.703966 25966 layer_factory.hpp:77] Creating layer ip3
I0428 19:46:15.703972 25966 net.cpp:86] Creating Layer ip3
I0428 19:46:15.703976 25966 net.cpp:408] ip3 <- ip2
I0428 19:46:15.703981 25966 net.cpp:382] ip3 -> ip3
I0428 19:46:15.704079 25966 net.cpp:124] Setting up ip3
I0428 19:46:15.704087 25966 net.cpp:131] Top shape: 64 10 (640)
I0428 19:46:15.704089 25966 net.cpp:139] Memory required for data: 2650880
I0428 19:46:15.704097 25966 layer_factory.hpp:77] Creating layer relu3
I0428 19:46:15.704105 25966 net.cpp:86] Creating Layer relu3
I0428 19:46:15.704108 25966 net.cpp:408] relu3 <- ip3
I0428 19:46:15.704113 25966 net.cpp:369] relu3 -> ip3 (in-place)
I0428 19:46:15.704275 25966 net.cpp:124] Setting up relu3
I0428 19:46:15.704283 25966 net.cpp:131] Top shape: 64 10 (640)
I0428 19:46:15.704286 25966 net.cpp:139] Memory required for data: 2653440
I0428 19:46:15.704289 25966 layer_factory.hpp:77] Creating layer loss
I0428 19:46:15.704295 25966 net.cpp:86] Creating Layer loss
I0428 19:46:15.704298 25966 net.cpp:408] loss <- ip3
I0428 19:46:15.704303 25966 net.cpp:408] loss <- label
I0428 19:46:15.704308 25966 net.cpp:382] loss -> loss
I0428 19:46:15.704325 25966 layer_factory.hpp:77] Creating layer loss
…
I0428 19:46:15.705018 25966 solver.cpp:173] Creating test net (#0) specified by net file: ECE595/mnist/train_test/var_everything2/lenet_train_test488.prototxt
I0428 19:46:15.705062 25966 net.cpp:296] The NetState phase (1) differed from the phase (0) specified by a rule in layer mnist
I0428 19:46:15.705199 25966 net.cpp:53] Initializing net from parameters: 
name: "LeNet"
state {
  phase: TEST
}
layer {
  name: "mnist"
  type: "Data"
  top: "data"
  top: "label"
  include {
    phase: TEST
  }
  transform_param {
    scale: 0.00390625
  }
  data_param {
    source: "examples/mnist/mnist_test_lmdb"
    batch_size: 100
    backend: LMDB
  }
}
layer {
  name: "conv0"
  type: "Convolution"
  bottom: "data"
  top: "conv0"
  param {
    lr_mult: 1
  }
  param {
    lr_mult: 2
  }
  convolution_param {
    num_output: 2
    kernel_size: 5
    stride: 1
    weight_filler {
      type: "xavier"
    }
    bias_filler {
      type: "constant"
    }
  }
}
layer {
  name: "pool0"
  type: "Pooling"
  bottom: "conv0"
  top: "pool0"
  pooling_param {
    pool: MAX
    kernel_size: 2
    stride: 2
  }
}
layer {
  name: "conv1"
  type: "Convolution"
  bottom: "pool0"
  top: "conv1"
  param {
    lr_mult: 1
  }
  param {
    lr_mult: 2
  }
  convolution_param {
    num_output: 100
    kernel_size: 5
    stride: 1
    weight_filler {
      type: "xavier"
    }
    bias_filler {
      type: "constant"
    }
  }
}
layer {
  name: "pool1"
  type: "Pooling"
  bottom: "conv1"
  top: "pool1"
  pooling_param {
    pool: MAX
    kernel_size: 2
    stride: 2
  }
}
layer {
  name: "ip1"
  type: "InnerProduct"
  bottom: "pool1"
  top: "ip1"
  param {
    lr_mult: 1
  }
  param {
    lr_mult: 2
  }
  inner_product_param {
    num_output: 10
    weight_filler {
      type: "xavier"
    }
    bias_filler {
      type: "constant"
    }
  }
}
layer {
  name: "relu1"
  type: "ReLU"
  bottom: "ip1"
  top: "ip1"
}
layer {
  name: "ip2"
  type: "InnerProduct"
  bottom: "ip1"
  top: "ip2"
  param {
    lr_mult: 1
  }
  param {
    lr_mult: 2
  }
  inner_product_param {
    num_output: 50
    weight_filler {
      type: "xavier"
    }
    bias_filler {
      type: "constant"
    }
  }
}
layer {
  name: "relu2"
  type: "ReLU"
  bottom: "ip2"
  top: "ip2"
}
layer {
  name: "ip3"
  type: "InnerProduct"
  bottom: "ip2"
  top: "ip3"
  param {
    lr_mult: 1
  }
  param {
    lr_mult: 2
  }
  inner_product_param {
    num_output: 10
    weight_filler {
      type: "xavier"
    }
    bias_filler {
      type: "constant"
    }
  }
}
layer {
  name: "relu3"
  type: "ReLU"
  bottom: "ip3"
  top: "ip3"
}
layer {
  name: "accuracy"
  type: "Accuracy"
  bottom: "ip3"
  bottom: "label"
  top: "accuracy"
  include {
    phase: TEST
  }
}
layer {
  name: "loss"
  type: "SoftmaxWithLoss"
  bottom: "ip3"
  bottom: "label"
  top: "loss"
}
I0428 19:46:15.705276 25966 layer_factory.hpp:77] Creating layer mnist
I0428 19:46:15.705320 25966 db_lmdb.cpp:35] Opened lmdb examples/mnist/mnist_test_lmdb
I0428 19:46:15.705337 25966 net.cpp:86] Creating Layer mnist
I0428 19:46:15.705340 25966 net.cpp:382] mnist -> data
I0428 19:46:15.705348 25966 net.cpp:382] mnist -> label
I0428 19:46:15.705430 25966 data_layer.cpp:45] output data size: 100,1,28,28
I0428 19:46:15.707358 25966 net.cpp:124] Setting up mnist
I0428 19:46:15.707403 25966 net.cpp:131] Top shape: 100 1 28 28 (78400)
I0428 19:46:15.707409 25966 net.cpp:131] Top shape: 100 (100)
I0428 19:46:15.707413 25966 net.cpp:139] Memory required for data: 314000
I0428 19:46:15.707417 25966 layer_factory.hpp:77] Creating layer label_mnist_1_split
I0428 19:46:15.707437 25966 net.cpp:86] Creating Layer label_mnist_1_split
I0428 19:46:15.707443 25966 net.cpp:408] label_mnist_1_split <- label
I0428 19:46:15.707449 25966 net.cpp:382] label_mnist_1_split -> label_mnist_1_split_0
I0428 19:46:15.707456 25966 net.cpp:382] label_mnist_1_split -> label_mnist_1_split_1
I0428 19:46:15.707597 25966 net.cpp:124] Setting up label_mnist_1_split
I0428 19:46:15.707605 25966 net.cpp:131] Top shape: 100 (100)
I0428 19:46:15.707609 25966 net.cpp:131] Top shape: 100 (100)
I0428 19:46:15.707612 25966 net.cpp:139] Memory required for data: 314800
I0428 19:46:15.707614 25966 layer_factory.hpp:77] Creating layer conv0
I0428 19:46:15.707623 25966 net.cpp:86] Creating Layer conv0
I0428 19:46:15.707626 25966 net.cpp:408] conv0 <- data
I0428 19:46:15.707631 25966 net.cpp:382] conv0 -> conv0
I0428 19:46:15.709266 25966 net.cpp:124] Setting up conv0
I0428 19:46:15.709281 25966 net.cpp:131] Top shape: 100 2 24 24 (115200)
I0428 19:46:15.709285 25966 net.cpp:139] Memory required for data: 775600
I0428 19:46:15.709293 25966 layer_factory.hpp:77] Creating layer pool0
I0428 19:46:15.709300 25966 net.cpp:86] Creating Layer pool0
I0428 19:46:15.709303 25966 net.cpp:408] pool0 <- conv0
I0428 19:46:15.709307 25966 net.cpp:382] pool0 -> pool0
I0428 19:46:15.709342 25966 net.cpp:124] Setting up pool0
I0428 19:46:15.709360 25966 net.cpp:131] Top shape: 100 2 12 12 (28800)
I0428 19:46:15.709363 25966 net.cpp:139] Memory required for data: 890800
I0428 19:46:15.709367 25966 layer_factory.hpp:77] Creating layer conv1
I0428 19:46:15.709375 25966 net.cpp:86] Creating Layer conv1
I0428 19:46:15.709379 25966 net.cpp:408] conv1 <- pool0
I0428 19:46:15.709384 25966 net.cpp:382] conv1 -> conv1
I0428 19:46:15.711081 25966 net.cpp:124] Setting up conv1
I0428 19:46:15.711096 25966 net.cpp:131] Top shape: 100 100 8 8 (640000)
I0428 19:46:15.711098 25966 net.cpp:139] Memory required for data: 3450800
I0428 19:46:15.711107 25966 layer_factory.hpp:77] Creating layer pool1
I0428 19:46:15.711112 25966 net.cpp:86] Creating Layer pool1
I0428 19:46:15.711117 25966 net.cpp:408] pool1 <- conv1
I0428 19:46:15.711122 25966 net.cpp:382] pool1 -> pool1
I0428 19:46:15.711172 25966 net.cpp:124] Setting up pool1
I0428 19:46:15.711180 25966 net.cpp:131] Top shape: 100 100 4 4 (160000)
I0428 19:46:15.711184 25966 net.cpp:139] Memory required for data: 4090800
I0428 19:46:15.711187 25966 layer_factory.hpp:77] Creating layer ip1
I0428 19:46:15.711192 25966 net.cpp:86] Creating Layer ip1
I0428 19:46:15.711195 25966 net.cpp:408] ip1 <- pool1
I0428 19:46:15.711200 25966 net.cpp:382] ip1 -> ip1
I0428 19:46:15.711392 25966 net.cpp:124] Setting up ip1
I0428 19:46:15.711400 25966 net.cpp:131] Top shape: 100 10 (1000)
I0428 19:46:15.711416 25966 net.cpp:139] Memory required for data: 4094800
I0428 19:46:15.711431 25966 layer_factory.hpp:77] Creating layer relu1
I0428 19:46:15.711436 25966 net.cpp:86] Creating Layer relu1
I0428 19:46:15.711439 25966 net.cpp:408] relu1 <- ip1
I0428 19:46:15.711444 25966 net.cpp:369] relu1 -> ip1 (in-place)
I0428 19:46:15.711632 25966 net.cpp:124] Setting up relu1
I0428 19:46:15.711642 25966 net.cpp:131] Top shape: 100 10 (1000)
I0428 19:46:15.711645 25966 net.cpp:139] Memory required for data: 4098800
I0428 19:46:15.711649 25966 layer_factory.hpp:77] Creating layer ip2
I0428 19:46:15.711658 25966 net.cpp:86] Creating Layer ip2
I0428 19:46:15.711660 25966 net.cpp:408] ip2 <- ip1
I0428 19:46:15.711665 25966 net.cpp:382] ip2 -> ip2
I0428 19:46:15.711767 25966 net.cpp:124] Setting up ip2
I0428 19:46:15.711774 25966 net.cpp:131] Top shape: 100 50 (5000)
I0428 19:46:15.711777 25966 net.cpp:139] Memory required for data: 4118800
I0428 19:46:15.711783 25966 layer_factory.hpp:77] Creating layer relu2
I0428 19:46:15.711788 25966 net.cpp:86] Creating Layer relu2
I0428 19:46:15.711792 25966 net.cpp:408] relu2 <- ip2
I0428 19:46:15.711796 25966 net.cpp:369] relu2 -> ip2 (in-place)
I0428 19:46:15.712023 25966 net.cpp:124] Setting up relu2
I0428 19:46:15.712030 25966 net.cpp:131] Top shape: 100 50 (5000)
I0428 19:46:15.712033 25966 net.cpp:139] Memory required for data: 4138800
I0428 19:46:15.712036 25966 layer_factory.hpp:77] Creating layer ip3
I0428 19:46:15.712043 25966 net.cpp:86] Creating Layer ip3
I0428 19:46:15.712045 25966 net.cpp:408] ip3 <- ip2
I0428 19:46:15.712050 25966 net.cpp:382] ip3 -> ip3
I0428 19:46:15.712200 25966 net.cpp:124] Setting up ip3
I0428 19:46:15.712224 25966 net.cpp:131] Top shape: 100 10 (1000)
I0428 19:46:15.712227 25966 net.cpp:139] Memory required for data: 4142800
I0428 19:46:15.712236 25966 layer_factory.hpp:77] Creating layer relu3
I0428 19:46:15.712242 25966 net.cpp:86] Creating Layer relu3
I0428 19:46:15.712245 25966 net.cpp:408] relu3 <- ip3
I0428 19:46:15.712250 25966 net.cpp:369] relu3 -> ip3 (in-place)
I0428 19:46:15.713109 25966 net.cpp:124] Setting up relu3
I0428 19:46:15.713122 25966 net.cpp:131] Top shape: 100 10 (1000)
I0428 19:46:15.713137 25966 net.cpp:139] Memory required for data: 4146800
I0428 19:46:15.713141 25966 layer_factory.hpp:77] Creating layer ip3_relu3_0_split
I0428 19:46:15.713147 25966 net.cpp:86] Creating Layer ip3_relu3_0_split
I0428 19:46:15.713151 25966 net.cpp:408] ip3_relu3_0_split <- ip3
I0428 19:46:15.713157 25966 net.cpp:382] ip3_relu3_0_split -> ip3_relu3_0_split_0
I0428 19:46:15.713163 25966 net.cpp:382] ip3_relu3_0_split -> ip3_relu3_0_split_1
I0428 19:46:15.713243 25966 net.cpp:124] Setting up ip3_relu3_0_split
I0428 19:46:15.713249 25966 net.cpp:131] Top shape: 100 10 (1000)
I0428 19:46:15.713253 25966 net.cpp:131] Top shape: 100 10 (1000)
I0428 19:46:15.713256 25966 net.cpp:139] Memory required for data: 4154800
I0428 19:46:15.713259 25966 layer_factory.hpp:77] Creating layer accuracy
I0428 19:46:15.713265 25966 net.cpp:86] Creating Layer accuracy
I0428 19:46:15.713268 25966 net.cpp:408] accuracy <- ip3_relu3_0_split_0
I0428 19:46:15.713274 25966 net.cpp:408] accuracy <- label_mnist_1_split_0
I0428 19:46:15.713279 25966 net.cpp:382] accuracy -> accuracy
…
