…
I0428 19:35:33.284934 23526 net.cpp:296] The NetState phase (0) differed from the phase (1) specified by a rule in layer mnist
I0428 19:35:33.284951 23526 net.cpp:296] The NetState phase (0) differed from the phase (1) specified by a rule in layer accuracy
I0428 19:35:33.285029 23526 net.cpp:53] Initializing net from parameters: 
name: "LeNet"
state {
  phase: TRAIN
  level: 0
  stage: ""
}
layer {
  name: "mnist"
  type: "Data"
  top: "data"
  top: "label"
  include {
    phase: TRAIN
  }
  transform_param {
    scale: 0.00390625
  }
  data_param {
    source: "examples/mnist/mnist_train_lmdb"
    batch_size: 64
    backend: LMDB
  }
}
layer {
  name: "conv0"
  type: "Convolution"
  bottom: "data"
  top: "conv0"
  param {
    lr_mult: 1
  }
  param {
    lr_mult: 2
  }
  convolution_param {
    num_output: 50
    kernel_size: 5
    stride: 1
    weight_filler {
      type: "xavier"
    }
    bias_filler {
      type: "constant"
    }
  }
}
layer {
  name: "pool0"
  type: "Pooling"
  bottom: "conv0"
  top: "pool0"
  pooling_param {
    pool: MAX
    kernel_size: 2
    stride: 2
  }
}
layer {
  name: "ip1"
  type: "InnerProduct"
  bottom: "pool0"
  top: "ip1"
  param {
    lr_mult: 1
  }
  param {
    lr_mult: 2
  }
  inner_product_param {
    num_output: 50
    weight_filler {
      type: "xavier"
    }
    bias_filler {
      type: "constant"
    }
  }
}
layer {
  name: "relu1"
  type: "ReLU"
  bottom: "ip1"
  top: "ip1"
}
layer {
  name: "ip2"
  type: "InnerProduct"
  bottom: "ip1"
  top: "ip2"
  param {
    lr_mult: 1
  }
  param {
    lr_mult: 2
  }
  inner_product_param {
    num_output: 10
    weight_filler {
      type: "xavier"
    }
    bias_filler {
      type: "constant"
    }
  }
}
layer {
  name: "relu2"
  type: "ReLU"
  bottom: "ip2"
  top: "ip2"
}
layer {
  name: "ip3"
  type: "InnerProduct"
  bottom: "ip2"
  top: "ip3"
  param {
    lr_mult: 1
  }
  param {
    lr_mult: 2
  }
  inner_product_param {
    num_output: 10
    weight_filler {
      type: "xavier"
    }
    bias_filler {
      type: "constant"
    }
  }
}
layer {
  name: "relu3"
  type: "ReLU"
  bottom: "ip3"
  top: "ip3"
}
layer {
  name: "loss"
  type: "SoftmaxWithLoss"
  bottom: "ip3"
  bottom: "label"
  top: "loss"
}
I0428 19:35:33.285120 23526 layer_factory.hpp:77] Creating layer mnist
I0428 19:35:33.285245 23526 db_lmdb.cpp:35] Opened lmdb examples/mnist/mnist_train_lmdb
I0428 19:35:33.285270 23526 net.cpp:86] Creating Layer mnist
I0428 19:35:33.285282 23526 net.cpp:382] mnist -> data
I0428 19:35:33.285307 23526 net.cpp:382] mnist -> label
I0428 19:35:33.286458 23526 data_layer.cpp:45] output data size: 64,1,28,28
I0428 19:35:33.288668 23526 net.cpp:124] Setting up mnist
I0428 19:35:33.288700 23526 net.cpp:131] Top shape: 64 1 28 28 (50176)
I0428 19:35:33.288708 23526 net.cpp:131] Top shape: 64 (64)
I0428 19:35:33.288713 23526 net.cpp:139] Memory required for data: 200960
I0428 19:35:33.288722 23526 layer_factory.hpp:77] Creating layer conv0
I0428 19:35:33.288741 23526 net.cpp:86] Creating Layer conv0
I0428 19:35:33.288749 23526 net.cpp:408] conv0 <- data
I0428 19:35:33.288765 23526 net.cpp:382] conv0 -> conv0
I0428 19:35:33.524288 23526 net.cpp:124] Setting up conv0
I0428 19:35:33.524317 23526 net.cpp:131] Top shape: 64 50 24 24 (1843200)
I0428 19:35:33.524322 23526 net.cpp:139] Memory required for data: 7573760
I0428 19:35:33.524372 23526 layer_factory.hpp:77] Creating layer pool0
I0428 19:35:33.524389 23526 net.cpp:86] Creating Layer pool0
I0428 19:35:33.524413 23526 net.cpp:408] pool0 <- conv0
I0428 19:35:33.524423 23526 net.cpp:382] pool0 -> pool0
I0428 19:35:33.524479 23526 net.cpp:124] Setting up pool0
I0428 19:35:33.524487 23526 net.cpp:131] Top shape: 64 50 12 12 (460800)
I0428 19:35:33.524493 23526 net.cpp:139] Memory required for data: 9416960
I0428 19:35:33.524498 23526 layer_factory.hpp:77] Creating layer ip1
I0428 19:35:33.524509 23526 net.cpp:86] Creating Layer ip1
I0428 19:35:33.524518 23526 net.cpp:408] ip1 <- pool0
I0428 19:35:33.524526 23526 net.cpp:382] ip1 -> ip1
I0428 19:35:33.527663 23526 net.cpp:124] Setting up ip1
I0428 19:35:33.527695 23526 net.cpp:131] Top shape: 64 50 (3200)
I0428 19:35:33.527700 23526 net.cpp:139] Memory required for data: 9429760
I0428 19:35:33.527729 23526 layer_factory.hpp:77] Creating layer relu1
I0428 19:35:33.527740 23526 net.cpp:86] Creating Layer relu1
I0428 19:35:33.527746 23526 net.cpp:408] relu1 <- ip1
I0428 19:35:33.527755 23526 net.cpp:369] relu1 -> ip1 (in-place)
I0428 19:35:33.527930 23526 net.cpp:124] Setting up relu1
I0428 19:35:33.527969 23526 net.cpp:131] Top shape: 64 50 (3200)
I0428 19:35:33.527974 23526 net.cpp:139] Memory required for data: 9442560
I0428 19:35:33.527979 23526 layer_factory.hpp:77] Creating layer ip2
I0428 19:35:33.527989 23526 net.cpp:86] Creating Layer ip2
I0428 19:35:33.527994 23526 net.cpp:408] ip2 <- ip1
I0428 19:35:33.528017 23526 net.cpp:382] ip2 -> ip2
I0428 19:35:33.528111 23526 net.cpp:124] Setting up ip2
I0428 19:35:33.528120 23526 net.cpp:131] Top shape: 64 10 (640)
I0428 19:35:33.528125 23526 net.cpp:139] Memory required for data: 9445120
I0428 19:35:33.528136 23526 layer_factory.hpp:77] Creating layer relu2
I0428 19:35:33.528146 23526 net.cpp:86] Creating Layer relu2
I0428 19:35:33.528151 23526 net.cpp:408] relu2 <- ip2
I0428 19:35:33.528158 23526 net.cpp:369] relu2 -> ip2 (in-place)
I0428 19:35:33.528944 23526 net.cpp:124] Setting up relu2
I0428 19:35:33.528960 23526 net.cpp:131] Top shape: 64 10 (640)
I0428 19:35:33.528972 23526 net.cpp:139] Memory required for data: 9447680
I0428 19:35:33.528978 23526 layer_factory.hpp:77] Creating layer ip3
I0428 19:35:33.528990 23526 net.cpp:86] Creating Layer ip3
I0428 19:35:33.529011 23526 net.cpp:408] ip3 <- ip2
I0428 19:35:33.529021 23526 net.cpp:382] ip3 -> ip3
I0428 19:35:33.529140 23526 net.cpp:124] Setting up ip3
I0428 19:35:33.529178 23526 net.cpp:131] Top shape: 64 10 (640)
I0428 19:35:33.529183 23526 net.cpp:139] Memory required for data: 9450240
I0428 19:35:33.529193 23526 layer_factory.hpp:77] Creating layer relu3
I0428 19:35:33.529202 23526 net.cpp:86] Creating Layer relu3
I0428 19:35:33.529211 23526 net.cpp:408] relu3 <- ip3
I0428 19:35:33.529217 23526 net.cpp:369] relu3 -> ip3 (in-place)
I0428 19:35:33.529367 23526 net.cpp:124] Setting up relu3
I0428 19:35:33.529377 23526 net.cpp:131] Top shape: 64 10 (640)
I0428 19:35:33.529381 23526 net.cpp:139] Memory required for data: 9452800
I0428 19:35:33.529386 23526 layer_factory.hpp:77] Creating layer loss
I0428 19:35:33.529395 23526 net.cpp:86] Creating Layer loss
I0428 19:35:33.529400 23526 net.cpp:408] loss <- ip3
I0428 19:35:33.529407 23526 net.cpp:408] loss <- label
I0428 19:35:33.529415 23526 net.cpp:382] loss -> loss
I0428 19:35:33.529434 23526 layer_factory.hpp:77] Creating layer loss
…
I0428 19:35:33.530174 23526 solver.cpp:173] Creating test net (#0) specified by net file: ECE595/mnist/train_test/var_everything2/lenet_train_test227.prototxt
I0428 19:35:33.530221 23526 net.cpp:296] The NetState phase (1) differed from the phase (0) specified by a rule in layer mnist
I0428 19:35:33.530304 23526 net.cpp:53] Initializing net from parameters: 
name: "LeNet"
state {
  phase: TEST
}
layer {
  name: "mnist"
  type: "Data"
  top: "data"
  top: "label"
  include {
    phase: TEST
  }
  transform_param {
    scale: 0.00390625
  }
  data_param {
    source: "examples/mnist/mnist_test_lmdb"
    batch_size: 100
    backend: LMDB
  }
}
layer {
  name: "conv0"
  type: "Convolution"
  bottom: "data"
  top: "conv0"
  param {
    lr_mult: 1
  }
  param {
    lr_mult: 2
  }
  convolution_param {
    num_output: 50
    kernel_size: 5
    stride: 1
    weight_filler {
      type: "xavier"
    }
    bias_filler {
      type: "constant"
    }
  }
}
layer {
  name: "pool0"
  type: "Pooling"
  bottom: "conv0"
  top: "pool0"
  pooling_param {
    pool: MAX
    kernel_size: 2
    stride: 2
  }
}
layer {
  name: "ip1"
  type: "InnerProduct"
  bottom: "pool0"
  top: "ip1"
  param {
    lr_mult: 1
  }
  param {
    lr_mult: 2
  }
  inner_product_param {
    num_output: 50
    weight_filler {
      type: "xavier"
    }
    bias_filler {
      type: "constant"
    }
  }
}
layer {
  name: "relu1"
  type: "ReLU"
  bottom: "ip1"
  top: "ip1"
}
layer {
  name: "ip2"
  type: "InnerProduct"
  bottom: "ip1"
  top: "ip2"
  param {
    lr_mult: 1
  }
  param {
    lr_mult: 2
  }
  inner_product_param {
    num_output: 10
    weight_filler {
      type: "xavier"
    }
    bias_filler {
      type: "constant"
    }
  }
}
layer {
  name: "relu2"
  type: "ReLU"
  bottom: "ip2"
  top: "ip2"
}
layer {
  name: "ip3"
  type: "InnerProduct"
  bottom: "ip2"
  top: "ip3"
  param {
    lr_mult: 1
  }
  param {
    lr_mult: 2
  }
  inner_product_param {
    num_output: 10
    weight_filler {
      type: "xavier"
    }
    bias_filler {
      type: "constant"
    }
  }
}
layer {
  name: "relu3"
  type: "ReLU"
  bottom: "ip3"
  top: "ip3"
}
layer {
  name: "accuracy"
  type: "Accuracy"
  bottom: "ip3"
  bottom: "label"
  top: "accuracy"
  include {
    phase: TEST
  }
}
layer {
  name: "loss"
  type: "SoftmaxWithLoss"
  bottom: "ip3"
  bottom: "label"
  top: "loss"
}
I0428 19:35:33.530393 23526 layer_factory.hpp:77] Creating layer mnist
I0428 19:35:33.530468 23526 db_lmdb.cpp:35] Opened lmdb examples/mnist/mnist_test_lmdb
I0428 19:35:33.530486 23526 net.cpp:86] Creating Layer mnist
I0428 19:35:33.530494 23526 net.cpp:382] mnist -> data
I0428 19:35:33.530505 23526 net.cpp:382] mnist -> label
I0428 19:35:33.530620 23526 data_layer.cpp:45] output data size: 100,1,28,28
I0428 19:35:33.532743 23526 net.cpp:124] Setting up mnist
I0428 19:35:33.532758 23526 net.cpp:131] Top shape: 100 1 28 28 (78400)
I0428 19:35:33.532766 23526 net.cpp:131] Top shape: 100 (100)
I0428 19:35:33.532771 23526 net.cpp:139] Memory required for data: 314000
I0428 19:35:33.532778 23526 layer_factory.hpp:77] Creating layer label_mnist_1_split
I0428 19:35:33.532802 23526 net.cpp:86] Creating Layer label_mnist_1_split
I0428 19:35:33.532809 23526 net.cpp:408] label_mnist_1_split <- label
I0428 19:35:33.532824 23526 net.cpp:382] label_mnist_1_split -> label_mnist_1_split_0
I0428 19:35:33.532852 23526 net.cpp:382] label_mnist_1_split -> label_mnist_1_split_1
I0428 19:35:33.532960 23526 net.cpp:124] Setting up label_mnist_1_split
I0428 19:35:33.532969 23526 net.cpp:131] Top shape: 100 (100)
I0428 19:35:33.532976 23526 net.cpp:131] Top shape: 100 (100)
I0428 19:35:33.532982 23526 net.cpp:139] Memory required for data: 314800
I0428 19:35:33.533001 23526 layer_factory.hpp:77] Creating layer conv0
I0428 19:35:33.533016 23526 net.cpp:86] Creating Layer conv0
I0428 19:35:33.533037 23526 net.cpp:408] conv0 <- data
I0428 19:35:33.533046 23526 net.cpp:382] conv0 -> conv0
I0428 19:35:33.534700 23526 net.cpp:124] Setting up conv0
I0428 19:35:33.534714 23526 net.cpp:131] Top shape: 100 50 24 24 (2880000)
I0428 19:35:33.534719 23526 net.cpp:139] Memory required for data: 11834800
I0428 19:35:33.534734 23526 layer_factory.hpp:77] Creating layer pool0
I0428 19:35:33.534742 23526 net.cpp:86] Creating Layer pool0
I0428 19:35:33.534749 23526 net.cpp:408] pool0 <- conv0
I0428 19:35:33.534756 23526 net.cpp:382] pool0 -> pool0
I0428 19:35:33.534796 23526 net.cpp:124] Setting up pool0
I0428 19:35:33.534803 23526 net.cpp:131] Top shape: 100 50 12 12 (720000)
I0428 19:35:33.534808 23526 net.cpp:139] Memory required for data: 14714800
I0428 19:35:33.534813 23526 layer_factory.hpp:77] Creating layer ip1
I0428 19:35:33.534823 23526 net.cpp:86] Creating Layer ip1
I0428 19:35:33.534828 23526 net.cpp:408] ip1 <- pool0
I0428 19:35:33.534835 23526 net.cpp:382] ip1 -> ip1
I0428 19:35:33.537076 23526 net.cpp:124] Setting up ip1
I0428 19:35:33.537088 23526 net.cpp:131] Top shape: 100 50 (5000)
I0428 19:35:33.537093 23526 net.cpp:139] Memory required for data: 14734800
I0428 19:35:33.537107 23526 layer_factory.hpp:77] Creating layer relu1
I0428 19:35:33.537139 23526 net.cpp:86] Creating Layer relu1
I0428 19:35:33.537153 23526 net.cpp:408] relu1 <- ip1
I0428 19:35:33.537174 23526 net.cpp:369] relu1 -> ip1 (in-place)
I0428 19:35:33.537343 23526 net.cpp:124] Setting up relu1
I0428 19:35:33.537353 23526 net.cpp:131] Top shape: 100 50 (5000)
I0428 19:35:33.537356 23526 net.cpp:139] Memory required for data: 14754800
I0428 19:35:33.537361 23526 layer_factory.hpp:77] Creating layer ip2
I0428 19:35:33.537370 23526 net.cpp:86] Creating Layer ip2
I0428 19:35:33.537375 23526 net.cpp:408] ip2 <- ip1
I0428 19:35:33.537384 23526 net.cpp:382] ip2 -> ip2
I0428 19:35:33.537480 23526 net.cpp:124] Setting up ip2
I0428 19:35:33.537488 23526 net.cpp:131] Top shape: 100 10 (1000)
I0428 19:35:33.537493 23526 net.cpp:139] Memory required for data: 14758800
I0428 19:35:33.537504 23526 layer_factory.hpp:77] Creating layer relu2
I0428 19:35:33.537513 23526 net.cpp:86] Creating Layer relu2
I0428 19:35:33.537524 23526 net.cpp:408] relu2 <- ip2
I0428 19:35:33.537531 23526 net.cpp:369] relu2 -> ip2 (in-place)
I0428 19:35:33.538368 23526 net.cpp:124] Setting up relu2
I0428 19:35:33.538383 23526 net.cpp:131] Top shape: 100 10 (1000)
I0428 19:35:33.538388 23526 net.cpp:139] Memory required for data: 14762800
I0428 19:35:33.538394 23526 layer_factory.hpp:77] Creating layer ip3
I0428 19:35:33.538406 23526 net.cpp:86] Creating Layer ip3
I0428 19:35:33.538413 23526 net.cpp:408] ip3 <- ip2
I0428 19:35:33.538436 23526 net.cpp:382] ip3 -> ip3
I0428 19:35:33.538576 23526 net.cpp:124] Setting up ip3
I0428 19:35:33.538585 23526 net.cpp:131] Top shape: 100 10 (1000)
I0428 19:35:33.538590 23526 net.cpp:139] Memory required for data: 14766800
I0428 19:35:33.538599 23526 layer_factory.hpp:77] Creating layer relu3
I0428 19:35:33.538607 23526 net.cpp:86] Creating Layer relu3
I0428 19:35:33.538612 23526 net.cpp:408] relu3 <- ip3
I0428 19:35:33.538620 23526 net.cpp:369] relu3 -> ip3 (in-place)
I0428 19:35:33.538789 23526 net.cpp:124] Setting up relu3
I0428 19:35:33.538815 23526 net.cpp:131] Top shape: 100 10 (1000)
I0428 19:35:33.538820 23526 net.cpp:139] Memory required for data: 14770800
I0428 19:35:33.538826 23526 layer_factory.hpp:77] Creating layer ip3_relu3_0_split
I0428 19:35:33.538836 23526 net.cpp:86] Creating Layer ip3_relu3_0_split
I0428 19:35:33.538851 23526 net.cpp:408] ip3_relu3_0_split <- ip3
I0428 19:35:33.538871 23526 net.cpp:382] ip3_relu3_0_split -> ip3_relu3_0_split_0
I0428 19:35:33.538880 23526 net.cpp:382] ip3_relu3_0_split -> ip3_relu3_0_split_1
I0428 19:35:33.538923 23526 net.cpp:124] Setting up ip3_relu3_0_split
I0428 19:35:33.538931 23526 net.cpp:131] Top shape: 100 10 (1000)
I0428 19:35:33.538950 23526 net.cpp:131] Top shape: 100 10 (1000)
I0428 19:35:33.538956 23526 net.cpp:139] Memory required for data: 14778800
I0428 19:35:33.538961 23526 layer_factory.hpp:77] Creating layer accuracy
I0428 19:35:33.538971 23526 net.cpp:86] Creating Layer accuracy
I0428 19:35:33.538976 23526 net.cpp:408] accuracy <- ip3_relu3_0_split_0
I0428 19:35:33.539005 23526 net.cpp:408] accuracy <- label_mnist_1_split_0
I0428 19:35:33.539012 23526 net.cpp:382] accuracy -> accuracy
…
