…
I0428 19:51:34.049252 27310 net.cpp:296] The NetState phase (0) differed from the phase (1) specified by a rule in layer mnist
I0428 19:51:34.049283 27310 net.cpp:296] The NetState phase (0) differed from the phase (1) specified by a rule in layer accuracy
I0428 19:51:34.049361 27310 net.cpp:53] Initializing net from parameters: 
name: "LeNet"
state {
  phase: TRAIN
  level: 0
  stage: ""
}
layer {
  name: "mnist"
  type: "Data"
  top: "data"
  top: "label"
  include {
    phase: TRAIN
  }
  transform_param {
    scale: 0.00390625
  }
  data_param {
    source: "examples/mnist/mnist_train_lmdb"
    batch_size: 64
    backend: LMDB
  }
}
layer {
  name: "conv0"
  type: "Convolution"
  bottom: "data"
  top: "conv0"
  param {
    lr_mult: 1
  }
  param {
    lr_mult: 2
  }
  convolution_param {
    num_output: 5
    kernel_size: 5
    stride: 1
    weight_filler {
      type: "xavier"
    }
    bias_filler {
      type: "constant"
    }
  }
}
layer {
  name: "pool0"
  type: "Pooling"
  bottom: "conv0"
  top: "pool0"
  pooling_param {
    pool: MAX
    kernel_size: 2
    stride: 2
  }
}
layer {
  name: "conv1"
  type: "Convolution"
  bottom: "pool0"
  top: "conv1"
  param {
    lr_mult: 1
  }
  param {
    lr_mult: 2
  }
  convolution_param {
    num_output: 25
    kernel_size: 5
    stride: 1
    weight_filler {
      type: "xavier"
    }
    bias_filler {
      type: "constant"
    }
  }
}
layer {
  name: "pool1"
  type: "Pooling"
  bottom: "conv1"
  top: "pool1"
  pooling_param {
    pool: MAX
    kernel_size: 2
    stride: 2
  }
}
layer {
  name: "ip1"
  type: "InnerProduct"
  bottom: "pool1"
  top: "ip1"
  param {
    lr_mult: 1
  }
  param {
    lr_mult: 2
  }
  inner_product_param {
    num_output: 10
    weight_filler {
      type: "xavier"
    }
    bias_filler {
      type: "constant"
    }
  }
}
layer {
  name: "relu1"
  type: "ReLU"
  bottom: "ip1"
  top: "ip1"
}
layer {
  name: "ip2"
  type: "InnerProduct"
  bottom: "ip1"
  top: "ip2"
  param {
    lr_mult: 1
  }
  param {
    lr_mult: 2
  }
  inner_product_param {
    num_output: 10
    weight_filler {
      type: "xavier"
    }
    bias_filler {
      type: "constant"
    }
  }
}
layer {
  name: "relu2"
  type: "ReLU"
  bottom: "ip2"
  top: "ip2"
}
layer {
  name: "ip3"
  type: "InnerProduct"
  bottom: "ip2"
  top: "ip3"
  param {
    lr_mult: 1
  }
  param {
    lr_mult: 2
  }
  inner_product_param {
    num_output: 10
    weight_filler {
      type: "xavier"
    }
    bias_filler {
      type: "constant"
    }
  }
}
layer {
  name: "relu3"
  type: "ReLU"
  bottom: "ip3"
  top: "ip3"
}
layer {
  name: "loss"
  type: "SoftmaxWithLoss"
  bottom: "ip3"
  bottom: "label"
  top: "loss"
}
I0428 19:51:34.049423 27310 layer_factory.hpp:77] Creating layer mnist
I0428 19:51:34.049504 27310 db_lmdb.cpp:35] Opened lmdb examples/mnist/mnist_train_lmdb
I0428 19:51:34.049522 27310 net.cpp:86] Creating Layer mnist
I0428 19:51:34.049528 27310 net.cpp:382] mnist -> data
I0428 19:51:34.049548 27310 net.cpp:382] mnist -> label
I0428 19:51:34.050611 27310 data_layer.cpp:45] output data size: 64,1,28,28
I0428 19:51:34.052829 27310 net.cpp:124] Setting up mnist
I0428 19:51:34.052860 27310 net.cpp:131] Top shape: 64 1 28 28 (50176)
I0428 19:51:34.052868 27310 net.cpp:131] Top shape: 64 (64)
I0428 19:51:34.052871 27310 net.cpp:139] Memory required for data: 200960
I0428 19:51:34.052877 27310 layer_factory.hpp:77] Creating layer conv0
I0428 19:51:34.052891 27310 net.cpp:86] Creating Layer conv0
I0428 19:51:34.052907 27310 net.cpp:408] conv0 <- data
I0428 19:51:34.052919 27310 net.cpp:382] conv0 -> conv0
I0428 19:51:34.281891 27310 net.cpp:124] Setting up conv0
I0428 19:51:34.281934 27310 net.cpp:131] Top shape: 64 5 24 24 (184320)
I0428 19:51:34.281937 27310 net.cpp:139] Memory required for data: 938240
I0428 19:51:34.281954 27310 layer_factory.hpp:77] Creating layer pool0
I0428 19:51:34.281965 27310 net.cpp:86] Creating Layer pool0
I0428 19:51:34.281970 27310 net.cpp:408] pool0 <- conv0
I0428 19:51:34.281975 27310 net.cpp:382] pool0 -> pool0
I0428 19:51:34.282035 27310 net.cpp:124] Setting up pool0
I0428 19:51:34.282042 27310 net.cpp:131] Top shape: 64 5 12 12 (46080)
I0428 19:51:34.282044 27310 net.cpp:139] Memory required for data: 1122560
I0428 19:51:34.282047 27310 layer_factory.hpp:77] Creating layer conv1
I0428 19:51:34.282058 27310 net.cpp:86] Creating Layer conv1
I0428 19:51:34.282063 27310 net.cpp:408] conv1 <- pool0
I0428 19:51:34.282068 27310 net.cpp:382] conv1 -> conv1
I0428 19:51:34.284834 27310 net.cpp:124] Setting up conv1
I0428 19:51:34.284865 27310 net.cpp:131] Top shape: 64 25 8 8 (102400)
I0428 19:51:34.284871 27310 net.cpp:139] Memory required for data: 1532160
I0428 19:51:34.284898 27310 layer_factory.hpp:77] Creating layer pool1
I0428 19:51:34.284905 27310 net.cpp:86] Creating Layer pool1
I0428 19:51:34.284909 27310 net.cpp:408] pool1 <- conv1
I0428 19:51:34.284914 27310 net.cpp:382] pool1 -> pool1
I0428 19:51:34.284955 27310 net.cpp:124] Setting up pool1
I0428 19:51:34.284971 27310 net.cpp:131] Top shape: 64 25 4 4 (25600)
I0428 19:51:34.284976 27310 net.cpp:139] Memory required for data: 1634560
I0428 19:51:34.284978 27310 layer_factory.hpp:77] Creating layer ip1
I0428 19:51:34.284986 27310 net.cpp:86] Creating Layer ip1
I0428 19:51:34.284989 27310 net.cpp:408] ip1 <- pool1
I0428 19:51:34.284996 27310 net.cpp:382] ip1 -> ip1
I0428 19:51:34.285120 27310 net.cpp:124] Setting up ip1
I0428 19:51:34.285127 27310 net.cpp:131] Top shape: 64 10 (640)
I0428 19:51:34.285131 27310 net.cpp:139] Memory required for data: 1637120
I0428 19:51:34.285138 27310 layer_factory.hpp:77] Creating layer relu1
I0428 19:51:34.285145 27310 net.cpp:86] Creating Layer relu1
I0428 19:51:34.285148 27310 net.cpp:408] relu1 <- ip1
I0428 19:51:34.285153 27310 net.cpp:369] relu1 -> ip1 (in-place)
I0428 19:51:34.285347 27310 net.cpp:124] Setting up relu1
I0428 19:51:34.285356 27310 net.cpp:131] Top shape: 64 10 (640)
I0428 19:51:34.285359 27310 net.cpp:139] Memory required for data: 1639680
I0428 19:51:34.285362 27310 layer_factory.hpp:77] Creating layer ip2
I0428 19:51:34.285383 27310 net.cpp:86] Creating Layer ip2
I0428 19:51:34.285387 27310 net.cpp:408] ip2 <- ip1
I0428 19:51:34.285392 27310 net.cpp:382] ip2 -> ip2
I0428 19:51:34.285480 27310 net.cpp:124] Setting up ip2
I0428 19:51:34.285486 27310 net.cpp:131] Top shape: 64 10 (640)
I0428 19:51:34.285490 27310 net.cpp:139] Memory required for data: 1642240
I0428 19:51:34.285495 27310 layer_factory.hpp:77] Creating layer relu2
I0428 19:51:34.285501 27310 net.cpp:86] Creating Layer relu2
I0428 19:51:34.285503 27310 net.cpp:408] relu2 <- ip2
I0428 19:51:34.285507 27310 net.cpp:369] relu2 -> ip2 (in-place)
I0428 19:51:34.286228 27310 net.cpp:124] Setting up relu2
I0428 19:51:34.286255 27310 net.cpp:131] Top shape: 64 10 (640)
I0428 19:51:34.286258 27310 net.cpp:139] Memory required for data: 1644800
I0428 19:51:34.286262 27310 layer_factory.hpp:77] Creating layer ip3
I0428 19:51:34.286270 27310 net.cpp:86] Creating Layer ip3
I0428 19:51:34.286273 27310 net.cpp:408] ip3 <- ip2
I0428 19:51:34.286278 27310 net.cpp:382] ip3 -> ip3
I0428 19:51:34.286387 27310 net.cpp:124] Setting up ip3
I0428 19:51:34.286396 27310 net.cpp:131] Top shape: 64 10 (640)
I0428 19:51:34.286398 27310 net.cpp:139] Memory required for data: 1647360
I0428 19:51:34.286406 27310 layer_factory.hpp:77] Creating layer relu3
I0428 19:51:34.286412 27310 net.cpp:86] Creating Layer relu3
I0428 19:51:34.286415 27310 net.cpp:408] relu3 <- ip3
I0428 19:51:34.286419 27310 net.cpp:369] relu3 -> ip3 (in-place)
I0428 19:51:34.286582 27310 net.cpp:124] Setting up relu3
I0428 19:51:34.286592 27310 net.cpp:131] Top shape: 64 10 (640)
I0428 19:51:34.286594 27310 net.cpp:139] Memory required for data: 1649920
I0428 19:51:34.286597 27310 layer_factory.hpp:77] Creating layer loss
I0428 19:51:34.286603 27310 net.cpp:86] Creating Layer loss
I0428 19:51:34.286607 27310 net.cpp:408] loss <- ip3
I0428 19:51:34.286610 27310 net.cpp:408] loss <- label
I0428 19:51:34.286615 27310 net.cpp:382] loss -> loss
I0428 19:51:34.286633 27310 layer_factory.hpp:77] Creating layer loss
…
I0428 19:51:34.287298 27310 solver.cpp:173] Creating test net (#0) specified by net file: ECE595/mnist/train_test/var_everything2/lenet_train_test637.prototxt
I0428 19:51:34.287327 27310 net.cpp:296] The NetState phase (1) differed from the phase (0) specified by a rule in layer mnist
I0428 19:51:34.287433 27310 net.cpp:53] Initializing net from parameters: 
name: "LeNet"
state {
  phase: TEST
}
layer {
  name: "mnist"
  type: "Data"
  top: "data"
  top: "label"
  include {
    phase: TEST
  }
  transform_param {
    scale: 0.00390625
  }
  data_param {
    source: "examples/mnist/mnist_test_lmdb"
    batch_size: 100
    backend: LMDB
  }
}
layer {
  name: "conv0"
  type: "Convolution"
  bottom: "data"
  top: "conv0"
  param {
    lr_mult: 1
  }
  param {
    lr_mult: 2
  }
  convolution_param {
    num_output: 5
    kernel_size: 5
    stride: 1
    weight_filler {
      type: "xavier"
    }
    bias_filler {
      type: "constant"
    }
  }
}
layer {
  name: "pool0"
  type: "Pooling"
  bottom: "conv0"
  top: "pool0"
  pooling_param {
    pool: MAX
    kernel_size: 2
    stride: 2
  }
}
layer {
  name: "conv1"
  type: "Convolution"
  bottom: "pool0"
  top: "conv1"
  param {
    lr_mult: 1
  }
  param {
    lr_mult: 2
  }
  convolution_param {
    num_output: 25
    kernel_size: 5
    stride: 1
    weight_filler {
      type: "xavier"
    }
    bias_filler {
      type: "constant"
    }
  }
}
layer {
  name: "pool1"
  type: "Pooling"
  bottom: "conv1"
  top: "pool1"
  pooling_param {
    pool: MAX
    kernel_size: 2
    stride: 2
  }
}
layer {
  name: "ip1"
  type: "InnerProduct"
  bottom: "pool1"
  top: "ip1"
  param {
    lr_mult: 1
  }
  param {
    lr_mult: 2
  }
  inner_product_param {
    num_output: 10
    weight_filler {
      type: "xavier"
    }
    bias_filler {
      type: "constant"
    }
  }
}
layer {
  name: "relu1"
  type: "ReLU"
  bottom: "ip1"
  top: "ip1"
}
layer {
  name: "ip2"
  type: "InnerProduct"
  bottom: "ip1"
  top: "ip2"
  param {
    lr_mult: 1
  }
  param {
    lr_mult: 2
  }
  inner_product_param {
    num_output: 10
    weight_filler {
      type: "xavier"
    }
    bias_filler {
      type: "constant"
    }
  }
}
layer {
  name: "relu2"
  type: "ReLU"
  bottom: "ip2"
  top: "ip2"
}
layer {
  name: "ip3"
  type: "InnerProduct"
  bottom: "ip2"
  top: "ip3"
  param {
    lr_mult: 1
  }
  param {
    lr_mult: 2
  }
  inner_product_param {
    num_output: 10
    weight_filler {
      type: "xavier"
    }
    bias_filler {
      type: "constant"
    }
  }
}
layer {
  name: "relu3"
  type: "ReLU"
  bottom: "ip3"
  top: "ip3"
}
layer {
  name: "accuracy"
  type: "Accuracy"
  bottom: "ip3"
  bottom: "label"
  top: "accuracy"
  include {
    phase: TEST
  }
}
layer {
  name: "loss"
  type: "SoftmaxWithLoss"
  bottom: "ip3"
  bottom: "label"
  top: "loss"
}
I0428 19:51:34.287510 27310 layer_factory.hpp:77] Creating layer mnist
I0428 19:51:34.287554 27310 db_lmdb.cpp:35] Opened lmdb examples/mnist/mnist_test_lmdb
I0428 19:51:34.287567 27310 net.cpp:86] Creating Layer mnist
I0428 19:51:34.287572 27310 net.cpp:382] mnist -> data
I0428 19:51:34.287580 27310 net.cpp:382] mnist -> label
I0428 19:51:34.287663 27310 data_layer.cpp:45] output data size: 100,1,28,28
I0428 19:51:34.289965 27310 net.cpp:124] Setting up mnist
I0428 19:51:34.289990 27310 net.cpp:131] Top shape: 100 1 28 28 (78400)
I0428 19:51:34.289996 27310 net.cpp:131] Top shape: 100 (100)
I0428 19:51:34.289999 27310 net.cpp:139] Memory required for data: 314000
I0428 19:51:34.290004 27310 layer_factory.hpp:77] Creating layer label_mnist_1_split
I0428 19:51:34.290040 27310 net.cpp:86] Creating Layer label_mnist_1_split
I0428 19:51:34.290045 27310 net.cpp:408] label_mnist_1_split <- label
I0428 19:51:34.290050 27310 net.cpp:382] label_mnist_1_split -> label_mnist_1_split_0
I0428 19:51:34.290055 27310 net.cpp:382] label_mnist_1_split -> label_mnist_1_split_1
I0428 19:51:34.290104 27310 net.cpp:124] Setting up label_mnist_1_split
I0428 19:51:34.290112 27310 net.cpp:131] Top shape: 100 (100)
I0428 19:51:34.290117 27310 net.cpp:131] Top shape: 100 (100)
I0428 19:51:34.290119 27310 net.cpp:139] Memory required for data: 314800
I0428 19:51:34.290122 27310 layer_factory.hpp:77] Creating layer conv0
I0428 19:51:34.290132 27310 net.cpp:86] Creating Layer conv0
I0428 19:51:34.290134 27310 net.cpp:408] conv0 <- data
I0428 19:51:34.290139 27310 net.cpp:382] conv0 -> conv0
I0428 19:51:34.291939 27310 net.cpp:124] Setting up conv0
I0428 19:51:34.291952 27310 net.cpp:131] Top shape: 100 5 24 24 (288000)
I0428 19:51:34.291956 27310 net.cpp:139] Memory required for data: 1466800
I0428 19:51:34.291966 27310 layer_factory.hpp:77] Creating layer pool0
I0428 19:51:34.291972 27310 net.cpp:86] Creating Layer pool0
I0428 19:51:34.291976 27310 net.cpp:408] pool0 <- conv0
I0428 19:51:34.291981 27310 net.cpp:382] pool0 -> pool0
I0428 19:51:34.292017 27310 net.cpp:124] Setting up pool0
I0428 19:51:34.292038 27310 net.cpp:131] Top shape: 100 5 12 12 (72000)
I0428 19:51:34.292042 27310 net.cpp:139] Memory required for data: 1754800
I0428 19:51:34.292045 27310 layer_factory.hpp:77] Creating layer conv1
I0428 19:51:34.292053 27310 net.cpp:86] Creating Layer conv1
I0428 19:51:34.292057 27310 net.cpp:408] conv1 <- pool0
I0428 19:51:34.292062 27310 net.cpp:382] conv1 -> conv1
I0428 19:51:34.294283 27310 net.cpp:124] Setting up conv1
I0428 19:51:34.294296 27310 net.cpp:131] Top shape: 100 25 8 8 (160000)
I0428 19:51:34.294301 27310 net.cpp:139] Memory required for data: 2394800
I0428 19:51:34.294333 27310 layer_factory.hpp:77] Creating layer pool1
I0428 19:51:34.294340 27310 net.cpp:86] Creating Layer pool1
I0428 19:51:34.294344 27310 net.cpp:408] pool1 <- conv1
I0428 19:51:34.294349 27310 net.cpp:382] pool1 -> pool1
I0428 19:51:34.294389 27310 net.cpp:124] Setting up pool1
I0428 19:51:34.294394 27310 net.cpp:131] Top shape: 100 25 4 4 (40000)
I0428 19:51:34.294409 27310 net.cpp:139] Memory required for data: 2554800
I0428 19:51:34.294411 27310 layer_factory.hpp:77] Creating layer ip1
I0428 19:51:34.294417 27310 net.cpp:86] Creating Layer ip1
I0428 19:51:34.294425 27310 net.cpp:408] ip1 <- pool1
I0428 19:51:34.294430 27310 net.cpp:382] ip1 -> ip1
I0428 19:51:34.294564 27310 net.cpp:124] Setting up ip1
I0428 19:51:34.294572 27310 net.cpp:131] Top shape: 100 10 (1000)
I0428 19:51:34.294586 27310 net.cpp:139] Memory required for data: 2558800
I0428 19:51:34.294595 27310 layer_factory.hpp:77] Creating layer relu1
I0428 19:51:34.294600 27310 net.cpp:86] Creating Layer relu1
I0428 19:51:34.294602 27310 net.cpp:408] relu1 <- ip1
I0428 19:51:34.294607 27310 net.cpp:369] relu1 -> ip1 (in-place)
I0428 19:51:34.294868 27310 net.cpp:124] Setting up relu1
I0428 19:51:34.294878 27310 net.cpp:131] Top shape: 100 10 (1000)
I0428 19:51:34.294881 27310 net.cpp:139] Memory required for data: 2562800
I0428 19:51:34.294884 27310 layer_factory.hpp:77] Creating layer ip2
I0428 19:51:34.294893 27310 net.cpp:86] Creating Layer ip2
I0428 19:51:34.294895 27310 net.cpp:408] ip2 <- ip1
I0428 19:51:34.294901 27310 net.cpp:382] ip2 -> ip2
I0428 19:51:34.295034 27310 net.cpp:124] Setting up ip2
I0428 19:51:34.295042 27310 net.cpp:131] Top shape: 100 10 (1000)
I0428 19:51:34.295050 27310 net.cpp:139] Memory required for data: 2566800
I0428 19:51:34.295056 27310 layer_factory.hpp:77] Creating layer relu2
I0428 19:51:34.295061 27310 net.cpp:86] Creating Layer relu2
I0428 19:51:34.295070 27310 net.cpp:408] relu2 <- ip2
I0428 19:51:34.295074 27310 net.cpp:369] relu2 -> ip2 (in-place)
I0428 19:51:34.295246 27310 net.cpp:124] Setting up relu2
I0428 19:51:34.295254 27310 net.cpp:131] Top shape: 100 10 (1000)
I0428 19:51:34.295258 27310 net.cpp:139] Memory required for data: 2570800
I0428 19:51:34.295261 27310 layer_factory.hpp:77] Creating layer ip3
I0428 19:51:34.295266 27310 net.cpp:86] Creating Layer ip3
I0428 19:51:34.295270 27310 net.cpp:408] ip3 <- ip2
I0428 19:51:34.295275 27310 net.cpp:382] ip3 -> ip3
I0428 19:51:34.295390 27310 net.cpp:124] Setting up ip3
I0428 19:51:34.295398 27310 net.cpp:131] Top shape: 100 10 (1000)
I0428 19:51:34.295402 27310 net.cpp:139] Memory required for data: 2574800
I0428 19:51:34.295410 27310 layer_factory.hpp:77] Creating layer relu3
I0428 19:51:34.295415 27310 net.cpp:86] Creating Layer relu3
I0428 19:51:34.295418 27310 net.cpp:408] relu3 <- ip3
I0428 19:51:34.295430 27310 net.cpp:369] relu3 -> ip3 (in-place)
I0428 19:51:34.296295 27310 net.cpp:124] Setting up relu3
I0428 19:51:34.296308 27310 net.cpp:131] Top shape: 100 10 (1000)
I0428 19:51:34.296311 27310 net.cpp:139] Memory required for data: 2578800
I0428 19:51:34.296314 27310 layer_factory.hpp:77] Creating layer ip3_relu3_0_split
I0428 19:51:34.296320 27310 net.cpp:86] Creating Layer ip3_relu3_0_split
I0428 19:51:34.296324 27310 net.cpp:408] ip3_relu3_0_split <- ip3
I0428 19:51:34.296329 27310 net.cpp:382] ip3_relu3_0_split -> ip3_relu3_0_split_0
I0428 19:51:34.296335 27310 net.cpp:382] ip3_relu3_0_split -> ip3_relu3_0_split_1
I0428 19:51:34.296386 27310 net.cpp:124] Setting up ip3_relu3_0_split
I0428 19:51:34.296392 27310 net.cpp:131] Top shape: 100 10 (1000)
I0428 19:51:34.296396 27310 net.cpp:131] Top shape: 100 10 (1000)
I0428 19:51:34.296398 27310 net.cpp:139] Memory required for data: 2586800
I0428 19:51:34.296401 27310 layer_factory.hpp:77] Creating layer accuracy
I0428 19:51:34.296406 27310 net.cpp:86] Creating Layer accuracy
I0428 19:51:34.296411 27310 net.cpp:408] accuracy <- ip3_relu3_0_split_0
I0428 19:51:34.296422 27310 net.cpp:408] accuracy <- label_mnist_1_split_0
I0428 19:51:34.296425 27310 net.cpp:382] accuracy -> accuracy
…
