…
I0428 19:49:33.474539 26791 net.cpp:296] The NetState phase (0) differed from the phase (1) specified by a rule in layer mnist
I0428 19:49:33.474557 26791 net.cpp:296] The NetState phase (0) differed from the phase (1) specified by a rule in layer accuracy
I0428 19:49:33.474658 26791 net.cpp:53] Initializing net from parameters: 
name: "LeNet"
state {
  phase: TRAIN
  level: 0
  stage: ""
}
layer {
  name: "mnist"
  type: "Data"
  top: "data"
  top: "label"
  include {
    phase: TRAIN
  }
  transform_param {
    scale: 0.00390625
  }
  data_param {
    source: "examples/mnist/mnist_train_lmdb"
    batch_size: 64
    backend: LMDB
  }
}
layer {
  name: "conv0"
  type: "Convolution"
  bottom: "data"
  top: "conv0"
  param {
    lr_mult: 1
  }
  param {
    lr_mult: 2
  }
  convolution_param {
    num_output: 5
    kernel_size: 5
    stride: 1
    weight_filler {
      type: "xavier"
    }
    bias_filler {
      type: "constant"
    }
  }
}
layer {
  name: "pool0"
  type: "Pooling"
  bottom: "conv0"
  top: "pool0"
  pooling_param {
    pool: MAX
    kernel_size: 2
    stride: 2
  }
}
layer {
  name: "conv1"
  type: "Convolution"
  bottom: "pool0"
  top: "conv1"
  param {
    lr_mult: 1
  }
  param {
    lr_mult: 2
  }
  convolution_param {
    num_output: 5
    kernel_size: 5
    stride: 1
    weight_filler {
      type: "xavier"
    }
    bias_filler {
      type: "constant"
    }
  }
}
layer {
  name: "pool1"
  type: "Pooling"
  bottom: "conv1"
  top: "pool1"
  pooling_param {
    pool: MAX
    kernel_size: 2
    stride: 2
  }
}
layer {
  name: "ip1"
  type: "InnerProduct"
  bottom: "pool1"
  top: "ip1"
  param {
    lr_mult: 1
  }
  param {
    lr_mult: 2
  }
  inner_product_param {
    num_output: 50
    weight_filler {
      type: "xavier"
    }
    bias_filler {
      type: "constant"
    }
  }
}
layer {
  name: "relu1"
  type: "ReLU"
  bottom: "ip1"
  top: "ip1"
}
layer {
  name: "ip2"
  type: "InnerProduct"
  bottom: "ip1"
  top: "ip2"
  param {
    lr_mult: 1
  }
  param {
    lr_mult: 2
  }
  inner_product_param {
    num_output: 10
    weight_filler {
      type: "xavier"
    }
    bias_filler {
      type: "constant"
    }
  }
}
layer {
  name: "relu2"
  type: "ReLU"
  bottom: "ip2"
  top: "ip2"
}
layer {
  name: "ip3"
  type: "InnerProduct"
  bottom: "ip2"
  top: "ip3"
  param {
    lr_mult: 1
  }
  param {
    lr_mult: 2
  }
  inner_product_param {
    num_output: 10
    weight_filler {
      type: "xavier"
    }
    bias_filler {
      type: "constant"
    }
  }
}
layer {
  name: "relu3"
  type: "ReLU"
  bottom: "ip3"
  top: "ip3"
}
layer {
  name: "loss"
  type: "SoftmaxWithLoss"
  bottom: "ip3"
  bottom: "label"
  top: "loss"
}
I0428 19:49:33.474741 26791 layer_factory.hpp:77] Creating layer mnist
I0428 19:49:33.474844 26791 db_lmdb.cpp:35] Opened lmdb examples/mnist/mnist_train_lmdb
I0428 19:49:33.474870 26791 net.cpp:86] Creating Layer mnist
I0428 19:49:33.474879 26791 net.cpp:382] mnist -> data
I0428 19:49:33.474903 26791 net.cpp:382] mnist -> label
I0428 19:49:33.476033 26791 data_layer.cpp:45] output data size: 64,1,28,28
I0428 19:49:33.478242 26791 net.cpp:124] Setting up mnist
I0428 19:49:33.478273 26791 net.cpp:131] Top shape: 64 1 28 28 (50176)
I0428 19:49:33.478281 26791 net.cpp:131] Top shape: 64 (64)
I0428 19:49:33.478286 26791 net.cpp:139] Memory required for data: 200960
I0428 19:49:33.478296 26791 layer_factory.hpp:77] Creating layer conv0
I0428 19:49:33.478312 26791 net.cpp:86] Creating Layer conv0
I0428 19:49:33.478333 26791 net.cpp:408] conv0 <- data
I0428 19:49:33.478348 26791 net.cpp:382] conv0 -> conv0
I0428 19:49:33.709074 26791 net.cpp:124] Setting up conv0
I0428 19:49:33.709101 26791 net.cpp:131] Top shape: 64 5 24 24 (184320)
I0428 19:49:33.709106 26791 net.cpp:139] Memory required for data: 938240
I0428 19:49:33.709141 26791 layer_factory.hpp:77] Creating layer pool0
I0428 19:49:33.709172 26791 net.cpp:86] Creating Layer pool0
I0428 19:49:33.709177 26791 net.cpp:408] pool0 <- conv0
I0428 19:49:33.709185 26791 net.cpp:382] pool0 -> pool0
I0428 19:49:33.709242 26791 net.cpp:124] Setting up pool0
I0428 19:49:33.709250 26791 net.cpp:131] Top shape: 64 5 12 12 (46080)
I0428 19:49:33.709254 26791 net.cpp:139] Memory required for data: 1122560
I0428 19:49:33.709259 26791 layer_factory.hpp:77] Creating layer conv1
I0428 19:49:33.709275 26791 net.cpp:86] Creating Layer conv1
I0428 19:49:33.709280 26791 net.cpp:408] conv1 <- pool0
I0428 19:49:33.709288 26791 net.cpp:382] conv1 -> conv1
I0428 19:49:33.711117 26791 net.cpp:124] Setting up conv1
I0428 19:49:33.711133 26791 net.cpp:131] Top shape: 64 5 8 8 (20480)
I0428 19:49:33.711138 26791 net.cpp:139] Memory required for data: 1204480
I0428 19:49:33.711150 26791 layer_factory.hpp:77] Creating layer pool1
I0428 19:49:33.711160 26791 net.cpp:86] Creating Layer pool1
I0428 19:49:33.711166 26791 net.cpp:408] pool1 <- conv1
I0428 19:49:33.711174 26791 net.cpp:382] pool1 -> pool1
I0428 19:49:33.711217 26791 net.cpp:124] Setting up pool1
I0428 19:49:33.711226 26791 net.cpp:131] Top shape: 64 5 4 4 (5120)
I0428 19:49:33.711231 26791 net.cpp:139] Memory required for data: 1224960
I0428 19:49:33.711236 26791 layer_factory.hpp:77] Creating layer ip1
I0428 19:49:33.711246 26791 net.cpp:86] Creating Layer ip1
I0428 19:49:33.711252 26791 net.cpp:408] ip1 <- pool1
I0428 19:49:33.711261 26791 net.cpp:382] ip1 -> ip1
I0428 19:49:33.712193 26791 net.cpp:124] Setting up ip1
I0428 19:49:33.712208 26791 net.cpp:131] Top shape: 64 50 (3200)
I0428 19:49:33.712211 26791 net.cpp:139] Memory required for data: 1237760
I0428 19:49:33.712224 26791 layer_factory.hpp:77] Creating layer relu1
I0428 19:49:33.712232 26791 net.cpp:86] Creating Layer relu1
I0428 19:49:33.712239 26791 net.cpp:408] relu1 <- ip1
I0428 19:49:33.712245 26791 net.cpp:369] relu1 -> ip1 (in-place)
I0428 19:49:33.712406 26791 net.cpp:124] Setting up relu1
I0428 19:49:33.712416 26791 net.cpp:131] Top shape: 64 50 (3200)
I0428 19:49:33.712421 26791 net.cpp:139] Memory required for data: 1250560
I0428 19:49:33.712426 26791 layer_factory.hpp:77] Creating layer ip2
I0428 19:49:33.712436 26791 net.cpp:86] Creating Layer ip2
I0428 19:49:33.712441 26791 net.cpp:408] ip2 <- ip1
I0428 19:49:33.712450 26791 net.cpp:382] ip2 -> ip2
I0428 19:49:33.712554 26791 net.cpp:124] Setting up ip2
I0428 19:49:33.712563 26791 net.cpp:131] Top shape: 64 10 (640)
I0428 19:49:33.712566 26791 net.cpp:139] Memory required for data: 1253120
I0428 19:49:33.712575 26791 layer_factory.hpp:77] Creating layer relu2
I0428 19:49:33.712584 26791 net.cpp:86] Creating Layer relu2
I0428 19:49:33.712602 26791 net.cpp:408] relu2 <- ip2
I0428 19:49:33.712610 26791 net.cpp:369] relu2 -> ip2 (in-place)
I0428 19:49:33.713520 26791 net.cpp:124] Setting up relu2
I0428 19:49:33.713532 26791 net.cpp:131] Top shape: 64 10 (640)
I0428 19:49:33.713537 26791 net.cpp:139] Memory required for data: 1255680
I0428 19:49:33.713543 26791 layer_factory.hpp:77] Creating layer ip3
I0428 19:49:33.713553 26791 net.cpp:86] Creating Layer ip3
I0428 19:49:33.713558 26791 net.cpp:408] ip3 <- ip2
I0428 19:49:33.713567 26791 net.cpp:382] ip3 -> ip3
I0428 19:49:33.713686 26791 net.cpp:124] Setting up ip3
I0428 19:49:33.713696 26791 net.cpp:131] Top shape: 64 10 (640)
I0428 19:49:33.713701 26791 net.cpp:139] Memory required for data: 1258240
I0428 19:49:33.713711 26791 layer_factory.hpp:77] Creating layer relu3
I0428 19:49:33.713722 26791 net.cpp:86] Creating Layer relu3
I0428 19:49:33.713729 26791 net.cpp:408] relu3 <- ip3
I0428 19:49:33.713735 26791 net.cpp:369] relu3 -> ip3 (in-place)
I0428 19:49:33.713892 26791 net.cpp:124] Setting up relu3
I0428 19:49:33.713901 26791 net.cpp:131] Top shape: 64 10 (640)
I0428 19:49:33.713907 26791 net.cpp:139] Memory required for data: 1260800
I0428 19:49:33.713912 26791 layer_factory.hpp:77] Creating layer loss
I0428 19:49:33.713920 26791 net.cpp:86] Creating Layer loss
I0428 19:49:33.713925 26791 net.cpp:408] loss <- ip3
I0428 19:49:33.713932 26791 net.cpp:408] loss <- label
I0428 19:49:33.713939 26791 net.cpp:382] loss -> loss
I0428 19:49:33.713959 26791 layer_factory.hpp:77] Creating layer loss
…
I0428 19:49:33.714586 26791 solver.cpp:173] Creating test net (#0) specified by net file: ECE595/mnist/train_test/var_everything2/lenet_train_test578.prototxt
I0428 19:49:33.714617 26791 net.cpp:296] The NetState phase (1) differed from the phase (0) specified by a rule in layer mnist
I0428 19:49:33.714720 26791 net.cpp:53] Initializing net from parameters: 
name: "LeNet"
state {
  phase: TEST
}
layer {
  name: "mnist"
  type: "Data"
  top: "data"
  top: "label"
  include {
    phase: TEST
  }
  transform_param {
    scale: 0.00390625
  }
  data_param {
    source: "examples/mnist/mnist_test_lmdb"
    batch_size: 100
    backend: LMDB
  }
}
layer {
  name: "conv0"
  type: "Convolution"
  bottom: "data"
  top: "conv0"
  param {
    lr_mult: 1
  }
  param {
    lr_mult: 2
  }
  convolution_param {
    num_output: 5
    kernel_size: 5
    stride: 1
    weight_filler {
      type: "xavier"
    }
    bias_filler {
      type: "constant"
    }
  }
}
layer {
  name: "pool0"
  type: "Pooling"
  bottom: "conv0"
  top: "pool0"
  pooling_param {
    pool: MAX
    kernel_size: 2
    stride: 2
  }
}
layer {
  name: "conv1"
  type: "Convolution"
  bottom: "pool0"
  top: "conv1"
  param {
    lr_mult: 1
  }
  param {
    lr_mult: 2
  }
  convolution_param {
    num_output: 5
    kernel_size: 5
    stride: 1
    weight_filler {
      type: "xavier"
    }
    bias_filler {
      type: "constant"
    }
  }
}
layer {
  name: "pool1"
  type: "Pooling"
  bottom: "conv1"
  top: "pool1"
  pooling_param {
    pool: MAX
    kernel_size: 2
    stride: 2
  }
}
layer {
  name: "ip1"
  type: "InnerProduct"
  bottom: "pool1"
  top: "ip1"
  param {
    lr_mult: 1
  }
  param {
    lr_mult: 2
  }
  inner_product_param {
    num_output: 50
    weight_filler {
      type: "xavier"
    }
    bias_filler {
      type: "constant"
    }
  }
}
layer {
  name: "relu1"
  type: "ReLU"
  bottom: "ip1"
  top: "ip1"
}
layer {
  name: "ip2"
  type: "InnerProduct"
  bottom: "ip1"
  top: "ip2"
  param {
    lr_mult: 1
  }
  param {
    lr_mult: 2
  }
  inner_product_param {
    num_output: 10
    weight_filler {
      type: "xavier"
    }
    bias_filler {
      type: "constant"
    }
  }
}
layer {
  name: "relu2"
  type: "ReLU"
  bottom: "ip2"
  top: "ip2"
}
layer {
  name: "ip3"
  type: "InnerProduct"
  bottom: "ip2"
  top: "ip3"
  param {
    lr_mult: 1
  }
  param {
    lr_mult: 2
  }
  inner_product_param {
    num_output: 10
    weight_filler {
      type: "xavier"
    }
    bias_filler {
      type: "constant"
    }
  }
}
layer {
  name: "relu3"
  type: "ReLU"
  bottom: "ip3"
  top: "ip3"
}
layer {
  name: "accuracy"
  type: "Accuracy"
  bottom: "ip3"
  bottom: "label"
  top: "accuracy"
  include {
    phase: TEST
  }
}
layer {
  name: "loss"
  type: "SoftmaxWithLoss"
  bottom: "ip3"
  bottom: "label"
  top: "loss"
}
I0428 19:49:33.714835 26791 layer_factory.hpp:77] Creating layer mnist
I0428 19:49:33.714890 26791 db_lmdb.cpp:35] Opened lmdb examples/mnist/mnist_test_lmdb
I0428 19:49:33.714906 26791 net.cpp:86] Creating Layer mnist
I0428 19:49:33.714915 26791 net.cpp:382] mnist -> data
I0428 19:49:33.714925 26791 net.cpp:382] mnist -> label
I0428 19:49:33.715032 26791 data_layer.cpp:45] output data size: 100,1,28,28
I0428 19:49:33.717257 26791 net.cpp:124] Setting up mnist
I0428 19:49:33.717286 26791 net.cpp:131] Top shape: 100 1 28 28 (78400)
I0428 19:49:33.717294 26791 net.cpp:131] Top shape: 100 (100)
I0428 19:49:33.717299 26791 net.cpp:139] Memory required for data: 314000
I0428 19:49:33.717304 26791 layer_factory.hpp:77] Creating layer label_mnist_1_split
I0428 19:49:33.717334 26791 net.cpp:86] Creating Layer label_mnist_1_split
I0428 19:49:33.717339 26791 net.cpp:408] label_mnist_1_split <- label
I0428 19:49:33.717346 26791 net.cpp:382] label_mnist_1_split -> label_mnist_1_split_0
I0428 19:49:33.717356 26791 net.cpp:382] label_mnist_1_split -> label_mnist_1_split_1
I0428 19:49:33.717444 26791 net.cpp:124] Setting up label_mnist_1_split
I0428 19:49:33.717453 26791 net.cpp:131] Top shape: 100 (100)
I0428 19:49:33.717473 26791 net.cpp:131] Top shape: 100 (100)
I0428 19:49:33.717478 26791 net.cpp:139] Memory required for data: 314800
I0428 19:49:33.717483 26791 layer_factory.hpp:77] Creating layer conv0
I0428 19:49:33.717495 26791 net.cpp:86] Creating Layer conv0
I0428 19:49:33.717500 26791 net.cpp:408] conv0 <- data
I0428 19:49:33.717509 26791 net.cpp:382] conv0 -> conv0
I0428 19:49:33.719128 26791 net.cpp:124] Setting up conv0
I0428 19:49:33.719143 26791 net.cpp:131] Top shape: 100 5 24 24 (288000)
I0428 19:49:33.719148 26791 net.cpp:139] Memory required for data: 1466800
I0428 19:49:33.719162 26791 layer_factory.hpp:77] Creating layer pool0
I0428 19:49:33.719172 26791 net.cpp:86] Creating Layer pool0
I0428 19:49:33.719179 26791 net.cpp:408] pool0 <- conv0
I0428 19:49:33.719187 26791 net.cpp:382] pool0 -> pool0
I0428 19:49:33.719226 26791 net.cpp:124] Setting up pool0
I0428 19:49:33.719234 26791 net.cpp:131] Top shape: 100 5 12 12 (72000)
I0428 19:49:33.719239 26791 net.cpp:139] Memory required for data: 1754800
I0428 19:49:33.719244 26791 layer_factory.hpp:77] Creating layer conv1
I0428 19:49:33.719257 26791 net.cpp:86] Creating Layer conv1
I0428 19:49:33.719264 26791 net.cpp:408] conv1 <- pool0
I0428 19:49:33.719271 26791 net.cpp:382] conv1 -> conv1
I0428 19:49:33.721506 26791 net.cpp:124] Setting up conv1
I0428 19:49:33.721521 26791 net.cpp:131] Top shape: 100 5 8 8 (32000)
I0428 19:49:33.721527 26791 net.cpp:139] Memory required for data: 1882800
I0428 19:49:33.721557 26791 layer_factory.hpp:77] Creating layer pool1
I0428 19:49:33.721566 26791 net.cpp:86] Creating Layer pool1
I0428 19:49:33.721587 26791 net.cpp:408] pool1 <- conv1
I0428 19:49:33.721596 26791 net.cpp:382] pool1 -> pool1
I0428 19:49:33.721643 26791 net.cpp:124] Setting up pool1
I0428 19:49:33.721652 26791 net.cpp:131] Top shape: 100 5 4 4 (8000)
I0428 19:49:33.721657 26791 net.cpp:139] Memory required for data: 1914800
I0428 19:49:33.721662 26791 layer_factory.hpp:77] Creating layer ip1
I0428 19:49:33.721670 26791 net.cpp:86] Creating Layer ip1
I0428 19:49:33.721675 26791 net.cpp:408] ip1 <- pool1
I0428 19:49:33.721683 26791 net.cpp:382] ip1 -> ip1
I0428 19:49:33.721858 26791 net.cpp:124] Setting up ip1
I0428 19:49:33.721868 26791 net.cpp:131] Top shape: 100 50 (5000)
I0428 19:49:33.721884 26791 net.cpp:139] Memory required for data: 1934800
I0428 19:49:33.721896 26791 layer_factory.hpp:77] Creating layer relu1
I0428 19:49:33.721905 26791 net.cpp:86] Creating Layer relu1
I0428 19:49:33.721911 26791 net.cpp:408] relu1 <- ip1
I0428 19:49:33.721918 26791 net.cpp:369] relu1 -> ip1 (in-place)
I0428 19:49:33.722121 26791 net.cpp:124] Setting up relu1
I0428 19:49:33.722131 26791 net.cpp:131] Top shape: 100 50 (5000)
I0428 19:49:33.722136 26791 net.cpp:139] Memory required for data: 1954800
I0428 19:49:33.722141 26791 layer_factory.hpp:77] Creating layer ip2
I0428 19:49:33.722153 26791 net.cpp:86] Creating Layer ip2
I0428 19:49:33.722168 26791 net.cpp:408] ip2 <- ip1
I0428 19:49:33.722177 26791 net.cpp:382] ip2 -> ip2
I0428 19:49:33.722280 26791 net.cpp:124] Setting up ip2
I0428 19:49:33.722287 26791 net.cpp:131] Top shape: 100 10 (1000)
I0428 19:49:33.722292 26791 net.cpp:139] Memory required for data: 1958800
I0428 19:49:33.722301 26791 layer_factory.hpp:77] Creating layer relu2
I0428 19:49:33.722309 26791 net.cpp:86] Creating Layer relu2
I0428 19:49:33.722316 26791 net.cpp:408] relu2 <- ip2
I0428 19:49:33.722322 26791 net.cpp:369] relu2 -> ip2 (in-place)
I0428 19:49:33.722517 26791 net.cpp:124] Setting up relu2
I0428 19:49:33.722527 26791 net.cpp:131] Top shape: 100 10 (1000)
I0428 19:49:33.722532 26791 net.cpp:139] Memory required for data: 1962800
I0428 19:49:33.722537 26791 layer_factory.hpp:77] Creating layer ip3
I0428 19:49:33.722545 26791 net.cpp:86] Creating Layer ip3
I0428 19:49:33.722550 26791 net.cpp:408] ip3 <- ip2
I0428 19:49:33.722558 26791 net.cpp:382] ip3 -> ip3
I0428 19:49:33.722653 26791 net.cpp:124] Setting up ip3
I0428 19:49:33.722661 26791 net.cpp:131] Top shape: 100 10 (1000)
I0428 19:49:33.722666 26791 net.cpp:139] Memory required for data: 1966800
I0428 19:49:33.722692 26791 layer_factory.hpp:77] Creating layer relu3
I0428 19:49:33.722700 26791 net.cpp:86] Creating Layer relu3
I0428 19:49:33.722705 26791 net.cpp:408] relu3 <- ip3
I0428 19:49:33.722712 26791 net.cpp:369] relu3 -> ip3 (in-place)
I0428 19:49:33.723526 26791 net.cpp:124] Setting up relu3
I0428 19:49:33.723539 26791 net.cpp:131] Top shape: 100 10 (1000)
I0428 19:49:33.723544 26791 net.cpp:139] Memory required for data: 1970800
I0428 19:49:33.723551 26791 layer_factory.hpp:77] Creating layer ip3_relu3_0_split
I0428 19:49:33.723557 26791 net.cpp:86] Creating Layer ip3_relu3_0_split
I0428 19:49:33.723563 26791 net.cpp:408] ip3_relu3_0_split <- ip3
I0428 19:49:33.723572 26791 net.cpp:382] ip3_relu3_0_split -> ip3_relu3_0_split_0
I0428 19:49:33.723580 26791 net.cpp:382] ip3_relu3_0_split -> ip3_relu3_0_split_1
I0428 19:49:33.723634 26791 net.cpp:124] Setting up ip3_relu3_0_split
I0428 19:49:33.723640 26791 net.cpp:131] Top shape: 100 10 (1000)
I0428 19:49:33.723647 26791 net.cpp:131] Top shape: 100 10 (1000)
I0428 19:49:33.723651 26791 net.cpp:139] Memory required for data: 1978800
I0428 19:49:33.723657 26791 layer_factory.hpp:77] Creating layer accuracy
I0428 19:49:33.723672 26791 net.cpp:86] Creating Layer accuracy
I0428 19:49:33.723680 26791 net.cpp:408] accuracy <- ip3_relu3_0_split_0
I0428 19:49:33.723686 26791 net.cpp:408] accuracy <- label_mnist_1_split_0
I0428 19:49:33.723697 26791 net.cpp:382] accuracy -> accuracy
…
