…
I0428 20:14:04.013411 32594 net.cpp:296] The NetState phase (0) differed from the phase (1) specified by a rule in layer mnist
I0428 20:14:04.013425 32594 net.cpp:296] The NetState phase (0) differed from the phase (1) specified by a rule in layer accuracy
I0428 20:14:04.013499 32594 net.cpp:53] Initializing net from parameters: 
name: "LeNet"
state {
  phase: TRAIN
  level: 0
  stage: ""
}
layer {
  name: "mnist"
  type: "Data"
  top: "data"
  top: "label"
  include {
    phase: TRAIN
  }
  transform_param {
    scale: 0.00390625
  }
  data_param {
    source: "examples/mnist/mnist_train_lmdb"
    batch_size: 64
    backend: LMDB
  }
}
layer {
  name: "conv0"
  type: "Convolution"
  bottom: "data"
  top: "conv0"
  param {
    lr_mult: 1
  }
  param {
    lr_mult: 2
  }
  convolution_param {
    num_output: 50
    kernel_size: 5
    stride: 1
    weight_filler {
      type: "xavier"
    }
    bias_filler {
      type: "constant"
    }
  }
}
layer {
  name: "pool0"
  type: "Pooling"
  bottom: "conv0"
  top: "pool0"
  pooling_param {
    pool: MAX
    kernel_size: 2
    stride: 2
  }
}
layer {
  name: "conv1"
  type: "Convolution"
  bottom: "pool0"
  top: "conv1"
  param {
    lr_mult: 1
  }
  param {
    lr_mult: 2
  }
  convolution_param {
    num_output: 2
    kernel_size: 5
    stride: 1
    weight_filler {
      type: "xavier"
    }
    bias_filler {
      type: "constant"
    }
  }
}
layer {
  name: "pool1"
  type: "Pooling"
  bottom: "conv1"
  top: "pool1"
  pooling_param {
    pool: MAX
    kernel_size: 2
    stride: 2
  }
}
layer {
  name: "ip1"
  type: "InnerProduct"
  bottom: "pool1"
  top: "ip1"
  param {
    lr_mult: 1
  }
  param {
    lr_mult: 2
  }
  inner_product_param {
    num_output: 10
    weight_filler {
      type: "xavier"
    }
    bias_filler {
      type: "constant"
    }
  }
}
layer {
  name: "relu1"
  type: "ReLU"
  bottom: "ip1"
  top: "ip1"
}
layer {
  name: "ip2"
  type: "InnerProduct"
  bottom: "ip1"
  top: "ip2"
  param {
    lr_mult: 1
  }
  param {
    lr_mult: 2
  }
  inner_product_param {
    num_output: 10
    weight_filler {
      type: "xavier"
    }
    bias_filler {
      type: "constant"
    }
  }
}
layer {
  name: "relu2"
  type: "ReLU"
  bottom: "ip2"
  top: "ip2"
}
layer {
  name: "loss"
  type: "SoftmaxWithLoss"
  bottom: "ip2"
  bottom: "label"
  top: "loss"
}
I0428 20:14:04.013559 32594 layer_factory.hpp:77] Creating layer mnist
I0428 20:14:04.013643 32594 db_lmdb.cpp:35] Opened lmdb examples/mnist/mnist_train_lmdb
I0428 20:14:04.013664 32594 net.cpp:86] Creating Layer mnist
I0428 20:14:04.013670 32594 net.cpp:382] mnist -> data
I0428 20:14:04.013689 32594 net.cpp:382] mnist -> label
I0428 20:14:04.014626 32594 data_layer.cpp:45] output data size: 64,1,28,28
I0428 20:14:04.016871 32594 net.cpp:124] Setting up mnist
I0428 20:14:04.016897 32594 net.cpp:131] Top shape: 64 1 28 28 (50176)
I0428 20:14:04.016903 32594 net.cpp:131] Top shape: 64 (64)
I0428 20:14:04.016906 32594 net.cpp:139] Memory required for data: 200960
I0428 20:14:04.016912 32594 layer_factory.hpp:77] Creating layer conv0
I0428 20:14:04.016927 32594 net.cpp:86] Creating Layer conv0
I0428 20:14:04.016932 32594 net.cpp:408] conv0 <- data
I0428 20:14:04.016944 32594 net.cpp:382] conv0 -> conv0
I0428 20:14:04.245268 32594 net.cpp:124] Setting up conv0
I0428 20:14:04.245296 32594 net.cpp:131] Top shape: 64 50 24 24 (1843200)
I0428 20:14:04.245299 32594 net.cpp:139] Memory required for data: 7573760
I0428 20:14:04.245331 32594 layer_factory.hpp:77] Creating layer pool0
I0428 20:14:04.245342 32594 net.cpp:86] Creating Layer pool0
I0428 20:14:04.245347 32594 net.cpp:408] pool0 <- conv0
I0428 20:14:04.245368 32594 net.cpp:382] pool0 -> pool0
I0428 20:14:04.245414 32594 net.cpp:124] Setting up pool0
I0428 20:14:04.245419 32594 net.cpp:131] Top shape: 64 50 12 12 (460800)
I0428 20:14:04.245421 32594 net.cpp:139] Memory required for data: 9416960
I0428 20:14:04.245424 32594 layer_factory.hpp:77] Creating layer conv1
I0428 20:14:04.245434 32594 net.cpp:86] Creating Layer conv1
I0428 20:14:04.245437 32594 net.cpp:408] conv1 <- pool0
I0428 20:14:04.245442 32594 net.cpp:382] conv1 -> conv1
I0428 20:14:04.247371 32594 net.cpp:124] Setting up conv1
I0428 20:14:04.247401 32594 net.cpp:131] Top shape: 64 2 8 8 (8192)
I0428 20:14:04.247406 32594 net.cpp:139] Memory required for data: 9449728
I0428 20:14:04.247414 32594 layer_factory.hpp:77] Creating layer pool1
I0428 20:14:04.247423 32594 net.cpp:86] Creating Layer pool1
I0428 20:14:04.247426 32594 net.cpp:408] pool1 <- conv1
I0428 20:14:04.247431 32594 net.cpp:382] pool1 -> pool1
I0428 20:14:04.247469 32594 net.cpp:124] Setting up pool1
I0428 20:14:04.247474 32594 net.cpp:131] Top shape: 64 2 4 4 (2048)
I0428 20:14:04.247478 32594 net.cpp:139] Memory required for data: 9457920
I0428 20:14:04.247480 32594 layer_factory.hpp:77] Creating layer ip1
I0428 20:14:04.247488 32594 net.cpp:86] Creating Layer ip1
I0428 20:14:04.247491 32594 net.cpp:408] ip1 <- pool1
I0428 20:14:04.247496 32594 net.cpp:382] ip1 -> ip1
I0428 20:14:04.247604 32594 net.cpp:124] Setting up ip1
I0428 20:14:04.247611 32594 net.cpp:131] Top shape: 64 10 (640)
I0428 20:14:04.247615 32594 net.cpp:139] Memory required for data: 9460480
I0428 20:14:04.247622 32594 layer_factory.hpp:77] Creating layer relu1
I0428 20:14:04.247627 32594 net.cpp:86] Creating Layer relu1
I0428 20:14:04.247630 32594 net.cpp:408] relu1 <- ip1
I0428 20:14:04.247634 32594 net.cpp:369] relu1 -> ip1 (in-place)
I0428 20:14:04.247820 32594 net.cpp:124] Setting up relu1
I0428 20:14:04.247829 32594 net.cpp:131] Top shape: 64 10 (640)
I0428 20:14:04.247833 32594 net.cpp:139] Memory required for data: 9463040
I0428 20:14:04.247835 32594 layer_factory.hpp:77] Creating layer ip2
I0428 20:14:04.247843 32594 net.cpp:86] Creating Layer ip2
I0428 20:14:04.247845 32594 net.cpp:408] ip2 <- ip1
I0428 20:14:04.247851 32594 net.cpp:382] ip2 -> ip2
I0428 20:14:04.247951 32594 net.cpp:124] Setting up ip2
I0428 20:14:04.247959 32594 net.cpp:131] Top shape: 64 10 (640)
I0428 20:14:04.247961 32594 net.cpp:139] Memory required for data: 9465600
I0428 20:14:04.247967 32594 layer_factory.hpp:77] Creating layer relu2
I0428 20:14:04.247973 32594 net.cpp:86] Creating Layer relu2
I0428 20:14:04.247977 32594 net.cpp:408] relu2 <- ip2
I0428 20:14:04.247982 32594 net.cpp:369] relu2 -> ip2 (in-place)
I0428 20:14:04.248738 32594 net.cpp:124] Setting up relu2
I0428 20:14:04.248749 32594 net.cpp:131] Top shape: 64 10 (640)
I0428 20:14:04.248767 32594 net.cpp:139] Memory required for data: 9468160
I0428 20:14:04.248770 32594 layer_factory.hpp:77] Creating layer loss
I0428 20:14:04.248776 32594 net.cpp:86] Creating Layer loss
I0428 20:14:04.248780 32594 net.cpp:408] loss <- ip2
I0428 20:14:04.248785 32594 net.cpp:408] loss <- label
I0428 20:14:04.248806 32594 net.cpp:382] loss -> loss
I0428 20:14:04.248847 32594 layer_factory.hpp:77] Creating layer loss
…
I0428 20:14:04.249570 32594 solver.cpp:173] Creating test net (#0) specified by net file: ECE595/mnist/train_test/var_everything2/lenet_train_test1212.prototxt
I0428 20:14:04.249594 32594 net.cpp:296] The NetState phase (1) differed from the phase (0) specified by a rule in layer mnist
I0428 20:14:04.249676 32594 net.cpp:53] Initializing net from parameters: 
name: "LeNet"
state {
  phase: TEST
}
layer {
  name: "mnist"
  type: "Data"
  top: "data"
  top: "label"
  include {
    phase: TEST
  }
  transform_param {
    scale: 0.00390625
  }
  data_param {
    source: "examples/mnist/mnist_test_lmdb"
    batch_size: 100
    backend: LMDB
  }
}
layer {
  name: "conv0"
  type: "Convolution"
  bottom: "data"
  top: "conv0"
  param {
    lr_mult: 1
  }
  param {
    lr_mult: 2
  }
  convolution_param {
    num_output: 50
    kernel_size: 5
    stride: 1
    weight_filler {
      type: "xavier"
    }
    bias_filler {
      type: "constant"
    }
  }
}
layer {
  name: "pool0"
  type: "Pooling"
  bottom: "conv0"
  top: "pool0"
  pooling_param {
    pool: MAX
    kernel_size: 2
    stride: 2
  }
}
layer {
  name: "conv1"
  type: "Convolution"
  bottom: "pool0"
  top: "conv1"
  param {
    lr_mult: 1
  }
  param {
    lr_mult: 2
  }
  convolution_param {
    num_output: 2
    kernel_size: 5
    stride: 1
    weight_filler {
      type: "xavier"
    }
    bias_filler {
      type: "constant"
    }
  }
}
layer {
  name: "pool1"
  type: "Pooling"
  bottom: "conv1"
  top: "pool1"
  pooling_param {
    pool: MAX
    kernel_size: 2
    stride: 2
  }
}
layer {
  name: "ip1"
  type: "InnerProduct"
  bottom: "pool1"
  top: "ip1"
  param {
    lr_mult: 1
  }
  param {
    lr_mult: 2
  }
  inner_product_param {
    num_output: 10
    weight_filler {
      type: "xavier"
    }
    bias_filler {
      type: "constant"
    }
  }
}
layer {
  name: "relu1"
  type: "ReLU"
  bottom: "ip1"
  top: "ip1"
}
layer {
  name: "ip2"
  type: "InnerProduct"
  bottom: "ip1"
  top: "ip2"
  param {
    lr_mult: 1
  }
  param {
    lr_mult: 2
  }
  inner_product_param {
    num_output: 10
    weight_filler {
      type: "xavier"
    }
    bias_filler {
      type: "constant"
    }
  }
}
layer {
  name: "relu2"
  type: "ReLU"
  bottom: "ip2"
  top: "ip2"
}
layer {
  name: "accuracy"
  type: "Accuracy"
  bottom: "ip2"
  bottom: "label"
  top: "accuracy"
  include {
    phase: TEST
  }
}
layer {
  name: "loss"
  type: "SoftmaxWithLoss"
  bottom: "ip2"
  bottom: "label"
  top: "loss"
}
I0428 20:14:04.249758 32594 layer_factory.hpp:77] Creating layer mnist
I0428 20:14:04.249816 32594 db_lmdb.cpp:35] Opened lmdb examples/mnist/mnist_test_lmdb
I0428 20:14:04.249830 32594 net.cpp:86] Creating Layer mnist
I0428 20:14:04.249833 32594 net.cpp:382] mnist -> data
I0428 20:14:04.249842 32594 net.cpp:382] mnist -> label
I0428 20:14:04.249951 32594 data_layer.cpp:45] output data size: 100,1,28,28
I0428 20:14:04.251989 32594 net.cpp:124] Setting up mnist
I0428 20:14:04.252017 32594 net.cpp:131] Top shape: 100 1 28 28 (78400)
I0428 20:14:04.252022 32594 net.cpp:131] Top shape: 100 (100)
I0428 20:14:04.252024 32594 net.cpp:139] Memory required for data: 314000
I0428 20:14:04.252028 32594 layer_factory.hpp:77] Creating layer label_mnist_1_split
I0428 20:14:04.252049 32594 net.cpp:86] Creating Layer label_mnist_1_split
I0428 20:14:04.252053 32594 net.cpp:408] label_mnist_1_split <- label
I0428 20:14:04.252058 32594 net.cpp:382] label_mnist_1_split -> label_mnist_1_split_0
I0428 20:14:04.252066 32594 net.cpp:382] label_mnist_1_split -> label_mnist_1_split_1
I0428 20:14:04.252125 32594 net.cpp:124] Setting up label_mnist_1_split
I0428 20:14:04.252143 32594 net.cpp:131] Top shape: 100 (100)
I0428 20:14:04.252147 32594 net.cpp:131] Top shape: 100 (100)
I0428 20:14:04.252151 32594 net.cpp:139] Memory required for data: 314800
I0428 20:14:04.252153 32594 layer_factory.hpp:77] Creating layer conv0
I0428 20:14:04.252164 32594 net.cpp:86] Creating Layer conv0
I0428 20:14:04.252167 32594 net.cpp:408] conv0 <- data
I0428 20:14:04.252183 32594 net.cpp:382] conv0 -> conv0
I0428 20:14:04.254024 32594 net.cpp:124] Setting up conv0
I0428 20:14:04.254051 32594 net.cpp:131] Top shape: 100 50 24 24 (2880000)
I0428 20:14:04.254055 32594 net.cpp:139] Memory required for data: 11834800
I0428 20:14:04.254066 32594 layer_factory.hpp:77] Creating layer pool0
I0428 20:14:04.254073 32594 net.cpp:86] Creating Layer pool0
I0428 20:14:04.254076 32594 net.cpp:408] pool0 <- conv0
I0428 20:14:04.254082 32594 net.cpp:382] pool0 -> pool0
I0428 20:14:04.254117 32594 net.cpp:124] Setting up pool0
I0428 20:14:04.254124 32594 net.cpp:131] Top shape: 100 50 12 12 (720000)
I0428 20:14:04.254127 32594 net.cpp:139] Memory required for data: 14714800
I0428 20:14:04.254130 32594 layer_factory.hpp:77] Creating layer conv1
I0428 20:14:04.254138 32594 net.cpp:86] Creating Layer conv1
I0428 20:14:04.254142 32594 net.cpp:408] conv1 <- pool0
I0428 20:14:04.254146 32594 net.cpp:382] conv1 -> conv1
I0428 20:14:04.255722 32594 net.cpp:124] Setting up conv1
I0428 20:14:04.255734 32594 net.cpp:131] Top shape: 100 2 8 8 (12800)
I0428 20:14:04.255753 32594 net.cpp:139] Memory required for data: 14766000
I0428 20:14:04.255779 32594 layer_factory.hpp:77] Creating layer pool1
I0428 20:14:04.255791 32594 net.cpp:86] Creating Layer pool1
I0428 20:14:04.255815 32594 net.cpp:408] pool1 <- conv1
I0428 20:14:04.255821 32594 net.cpp:382] pool1 -> pool1
I0428 20:14:04.255861 32594 net.cpp:124] Setting up pool1
I0428 20:14:04.255877 32594 net.cpp:131] Top shape: 100 2 4 4 (3200)
I0428 20:14:04.255880 32594 net.cpp:139] Memory required for data: 14778800
I0428 20:14:04.255883 32594 layer_factory.hpp:77] Creating layer ip1
I0428 20:14:04.255892 32594 net.cpp:86] Creating Layer ip1
I0428 20:14:04.255895 32594 net.cpp:408] ip1 <- pool1
I0428 20:14:04.255901 32594 net.cpp:382] ip1 -> ip1
I0428 20:14:04.256013 32594 net.cpp:124] Setting up ip1
I0428 20:14:04.256021 32594 net.cpp:131] Top shape: 100 10 (1000)
I0428 20:14:04.256026 32594 net.cpp:139] Memory required for data: 14782800
I0428 20:14:04.256033 32594 layer_factory.hpp:77] Creating layer relu1
I0428 20:14:04.256039 32594 net.cpp:86] Creating Layer relu1
I0428 20:14:04.256042 32594 net.cpp:408] relu1 <- ip1
I0428 20:14:04.256048 32594 net.cpp:369] relu1 -> ip1 (in-place)
I0428 20:14:04.256242 32594 net.cpp:124] Setting up relu1
I0428 20:14:04.256249 32594 net.cpp:131] Top shape: 100 10 (1000)
I0428 20:14:04.256253 32594 net.cpp:139] Memory required for data: 14786800
I0428 20:14:04.256256 32594 layer_factory.hpp:77] Creating layer ip2
I0428 20:14:04.256271 32594 net.cpp:86] Creating Layer ip2
I0428 20:14:04.256274 32594 net.cpp:408] ip2 <- ip1
I0428 20:14:04.256280 32594 net.cpp:382] ip2 -> ip2
I0428 20:14:04.256377 32594 net.cpp:124] Setting up ip2
I0428 20:14:04.256386 32594 net.cpp:131] Top shape: 100 10 (1000)
I0428 20:14:04.256388 32594 net.cpp:139] Memory required for data: 14790800
I0428 20:14:04.256393 32594 layer_factory.hpp:77] Creating layer relu2
I0428 20:14:04.256400 32594 net.cpp:86] Creating Layer relu2
I0428 20:14:04.256403 32594 net.cpp:408] relu2 <- ip2
I0428 20:14:04.256407 32594 net.cpp:369] relu2 -> ip2 (in-place)
I0428 20:14:04.256579 32594 net.cpp:124] Setting up relu2
I0428 20:14:04.256587 32594 net.cpp:131] Top shape: 100 10 (1000)
I0428 20:14:04.256592 32594 net.cpp:139] Memory required for data: 14794800
I0428 20:14:04.256594 32594 layer_factory.hpp:77] Creating layer ip2_relu2_0_split
I0428 20:14:04.256600 32594 net.cpp:86] Creating Layer ip2_relu2_0_split
I0428 20:14:04.256604 32594 net.cpp:408] ip2_relu2_0_split <- ip2
I0428 20:14:04.256608 32594 net.cpp:382] ip2_relu2_0_split -> ip2_relu2_0_split_0
I0428 20:14:04.256624 32594 net.cpp:382] ip2_relu2_0_split -> ip2_relu2_0_split_1
I0428 20:14:04.256680 32594 net.cpp:124] Setting up ip2_relu2_0_split
I0428 20:14:04.256687 32594 net.cpp:131] Top shape: 100 10 (1000)
I0428 20:14:04.256691 32594 net.cpp:131] Top shape: 100 10 (1000)
I0428 20:14:04.256695 32594 net.cpp:139] Memory required for data: 14802800
I0428 20:14:04.256697 32594 layer_factory.hpp:77] Creating layer accuracy
I0428 20:14:04.256702 32594 net.cpp:86] Creating Layer accuracy
I0428 20:14:04.256705 32594 net.cpp:408] accuracy <- ip2_relu2_0_split_0
I0428 20:14:04.256711 32594 net.cpp:408] accuracy <- label_mnist_1_split_0
I0428 20:14:04.256716 32594 net.cpp:382] accuracy -> accuracy
…
