…
I0428 19:58:46.158627 29076 net.cpp:296] The NetState phase (0) differed from the phase (1) specified by a rule in layer mnist
I0428 19:58:46.158643 29076 net.cpp:296] The NetState phase (0) differed from the phase (1) specified by a rule in layer accuracy
I0428 19:58:46.158727 29076 net.cpp:53] Initializing net from parameters: 
name: "LeNet"
state {
  phase: TRAIN
  level: 0
  stage: ""
}
layer {
  name: "mnist"
  type: "Data"
  top: "data"
  top: "label"
  include {
    phase: TRAIN
  }
  transform_param {
    scale: 0.00390625
  }
  data_param {
    source: "examples/mnist/mnist_train_lmdb"
    batch_size: 64
    backend: LMDB
  }
}
layer {
  name: "conv0"
  type: "Convolution"
  bottom: "data"
  top: "conv0"
  param {
    lr_mult: 1
  }
  param {
    lr_mult: 2
  }
  convolution_param {
    num_output: 10
    kernel_size: 5
    stride: 1
    weight_filler {
      type: "xavier"
    }
    bias_filler {
      type: "constant"
    }
  }
}
layer {
  name: "pool0"
  type: "Pooling"
  bottom: "conv0"
  top: "pool0"
  pooling_param {
    pool: MAX
    kernel_size: 2
    stride: 2
  }
}
layer {
  name: "conv1"
  type: "Convolution"
  bottom: "pool0"
  top: "conv1"
  param {
    lr_mult: 1
  }
  param {
    lr_mult: 2
  }
  convolution_param {
    num_output: 10
    kernel_size: 5
    stride: 1
    weight_filler {
      type: "xavier"
    }
    bias_filler {
      type: "constant"
    }
  }
}
layer {
  name: "pool1"
  type: "Pooling"
  bottom: "conv1"
  top: "pool1"
  pooling_param {
    pool: MAX
    kernel_size: 2
    stride: 2
  }
}
layer {
  name: "ip1"
  type: "InnerProduct"
  bottom: "pool1"
  top: "ip1"
  param {
    lr_mult: 1
  }
  param {
    lr_mult: 2
  }
  inner_product_param {
    num_output: 50
    weight_filler {
      type: "xavier"
    }
    bias_filler {
      type: "constant"
    }
  }
}
layer {
  name: "relu1"
  type: "ReLU"
  bottom: "ip1"
  top: "ip1"
}
layer {
  name: "ip2"
  type: "InnerProduct"
  bottom: "ip1"
  top: "ip2"
  param {
    lr_mult: 1
  }
  param {
    lr_mult: 2
  }
  inner_product_param {
    num_output: 10
    weight_filler {
      type: "xavier"
    }
    bias_filler {
      type: "constant"
    }
  }
}
layer {
  name: "relu2"
  type: "ReLU"
  bottom: "ip2"
  top: "ip2"
}
layer {
  name: "loss"
  type: "SoftmaxWithLoss"
  bottom: "ip2"
  bottom: "label"
  top: "loss"
}
I0428 19:58:46.158792 29076 layer_factory.hpp:77] Creating layer mnist
I0428 19:58:46.158888 29076 db_lmdb.cpp:35] Opened lmdb examples/mnist/mnist_train_lmdb
I0428 19:58:46.158910 29076 net.cpp:86] Creating Layer mnist
I0428 19:58:46.158917 29076 net.cpp:382] mnist -> data
I0428 19:58:46.158939 29076 net.cpp:382] mnist -> label
I0428 19:58:46.159988 29076 data_layer.cpp:45] output data size: 64,1,28,28
I0428 19:58:46.162395 29076 net.cpp:124] Setting up mnist
I0428 19:58:46.162412 29076 net.cpp:131] Top shape: 64 1 28 28 (50176)
I0428 19:58:46.162420 29076 net.cpp:131] Top shape: 64 (64)
I0428 19:58:46.162422 29076 net.cpp:139] Memory required for data: 200960
I0428 19:58:46.162436 29076 layer_factory.hpp:77] Creating layer conv0
I0428 19:58:46.162451 29076 net.cpp:86] Creating Layer conv0
I0428 19:58:46.162457 29076 net.cpp:408] conv0 <- data
I0428 19:58:46.162469 29076 net.cpp:382] conv0 -> conv0
I0428 19:58:46.448357 29076 net.cpp:124] Setting up conv0
I0428 19:58:46.448387 29076 net.cpp:131] Top shape: 64 10 24 24 (368640)
I0428 19:58:46.448392 29076 net.cpp:139] Memory required for data: 1675520
I0428 19:58:46.448431 29076 layer_factory.hpp:77] Creating layer pool0
I0428 19:58:46.448446 29076 net.cpp:86] Creating Layer pool0
I0428 19:58:46.448451 29076 net.cpp:408] pool0 <- conv0
I0428 19:58:46.448457 29076 net.cpp:382] pool0 -> pool0
I0428 19:58:46.448513 29076 net.cpp:124] Setting up pool0
I0428 19:58:46.448525 29076 net.cpp:131] Top shape: 64 10 12 12 (92160)
I0428 19:58:46.448529 29076 net.cpp:139] Memory required for data: 2044160
I0428 19:58:46.448534 29076 layer_factory.hpp:77] Creating layer conv1
I0428 19:58:46.448545 29076 net.cpp:86] Creating Layer conv1
I0428 19:58:46.448549 29076 net.cpp:408] conv1 <- pool0
I0428 19:58:46.448555 29076 net.cpp:382] conv1 -> conv1
I0428 19:58:46.451643 29076 net.cpp:124] Setting up conv1
I0428 19:58:46.451661 29076 net.cpp:131] Top shape: 64 10 8 8 (40960)
I0428 19:58:46.451666 29076 net.cpp:139] Memory required for data: 2208000
I0428 19:58:46.451676 29076 layer_factory.hpp:77] Creating layer pool1
I0428 19:58:46.451685 29076 net.cpp:86] Creating Layer pool1
I0428 19:58:46.451691 29076 net.cpp:408] pool1 <- conv1
I0428 19:58:46.451697 29076 net.cpp:382] pool1 -> pool1
I0428 19:58:46.451741 29076 net.cpp:124] Setting up pool1
I0428 19:58:46.451747 29076 net.cpp:131] Top shape: 64 10 4 4 (10240)
I0428 19:58:46.451750 29076 net.cpp:139] Memory required for data: 2248960
I0428 19:58:46.451755 29076 layer_factory.hpp:77] Creating layer ip1
I0428 19:58:46.451762 29076 net.cpp:86] Creating Layer ip1
I0428 19:58:46.451766 29076 net.cpp:408] ip1 <- pool1
I0428 19:58:46.451771 29076 net.cpp:382] ip1 -> ip1
I0428 19:58:46.452889 29076 net.cpp:124] Setting up ip1
I0428 19:58:46.452904 29076 net.cpp:131] Top shape: 64 50 (3200)
I0428 19:58:46.452909 29076 net.cpp:139] Memory required for data: 2261760
I0428 19:58:46.452919 29076 layer_factory.hpp:77] Creating layer relu1
I0428 19:58:46.452926 29076 net.cpp:86] Creating Layer relu1
I0428 19:58:46.452930 29076 net.cpp:408] relu1 <- ip1
I0428 19:58:46.452937 29076 net.cpp:369] relu1 -> ip1 (in-place)
I0428 19:58:46.453137 29076 net.cpp:124] Setting up relu1
I0428 19:58:46.453147 29076 net.cpp:131] Top shape: 64 50 (3200)
I0428 19:58:46.453151 29076 net.cpp:139] Memory required for data: 2274560
I0428 19:58:46.453155 29076 layer_factory.hpp:77] Creating layer ip2
I0428 19:58:46.453162 29076 net.cpp:86] Creating Layer ip2
I0428 19:58:46.453166 29076 net.cpp:408] ip2 <- ip1
I0428 19:58:46.453172 29076 net.cpp:382] ip2 -> ip2
I0428 19:58:46.453287 29076 net.cpp:124] Setting up ip2
I0428 19:58:46.453295 29076 net.cpp:131] Top shape: 64 10 (640)
I0428 19:58:46.453299 29076 net.cpp:139] Memory required for data: 2277120
I0428 19:58:46.453305 29076 layer_factory.hpp:77] Creating layer relu2
I0428 19:58:46.453312 29076 net.cpp:86] Creating Layer relu2
I0428 19:58:46.453316 29076 net.cpp:408] relu2 <- ip2
I0428 19:58:46.453321 29076 net.cpp:369] relu2 -> ip2 (in-place)
I0428 19:58:46.454159 29076 net.cpp:124] Setting up relu2
I0428 19:58:46.454174 29076 net.cpp:131] Top shape: 64 10 (640)
I0428 19:58:46.454177 29076 net.cpp:139] Memory required for data: 2279680
I0428 19:58:46.454181 29076 layer_factory.hpp:77] Creating layer loss
I0428 19:58:46.454190 29076 net.cpp:86] Creating Layer loss
I0428 19:58:46.454193 29076 net.cpp:408] loss <- ip2
I0428 19:58:46.454198 29076 net.cpp:408] loss <- label
I0428 19:58:46.454205 29076 net.cpp:382] loss -> loss
I0428 19:58:46.454228 29076 layer_factory.hpp:77] Creating layer loss
…
I0428 19:58:46.454932 29076 solver.cpp:173] Creating test net (#0) specified by net file: ECE595/mnist/train_test/var_everything2/lenet_train_test828.prototxt
I0428 19:58:46.454962 29076 net.cpp:296] The NetState phase (1) differed from the phase (0) specified by a rule in layer mnist
I0428 19:58:46.455059 29076 net.cpp:53] Initializing net from parameters: 
name: "LeNet"
state {
  phase: TEST
}
layer {
  name: "mnist"
  type: "Data"
  top: "data"
  top: "label"
  include {
    phase: TEST
  }
  transform_param {
    scale: 0.00390625
  }
  data_param {
    source: "examples/mnist/mnist_test_lmdb"
    batch_size: 100
    backend: LMDB
  }
}
layer {
  name: "conv0"
  type: "Convolution"
  bottom: "data"
  top: "conv0"
  param {
    lr_mult: 1
  }
  param {
    lr_mult: 2
  }
  convolution_param {
    num_output: 10
    kernel_size: 5
    stride: 1
    weight_filler {
      type: "xavier"
    }
    bias_filler {
      type: "constant"
    }
  }
}
layer {
  name: "pool0"
  type: "Pooling"
  bottom: "conv0"
  top: "pool0"
  pooling_param {
    pool: MAX
    kernel_size: 2
    stride: 2
  }
}
layer {
  name: "conv1"
  type: "Convolution"
  bottom: "pool0"
  top: "conv1"
  param {
    lr_mult: 1
  }
  param {
    lr_mult: 2
  }
  convolution_param {
    num_output: 10
    kernel_size: 5
    stride: 1
    weight_filler {
      type: "xavier"
    }
    bias_filler {
      type: "constant"
    }
  }
}
layer {
  name: "pool1"
  type: "Pooling"
  bottom: "conv1"
  top: "pool1"
  pooling_param {
    pool: MAX
    kernel_size: 2
    stride: 2
  }
}
layer {
  name: "ip1"
  type: "InnerProduct"
  bottom: "pool1"
  top: "ip1"
  param {
    lr_mult: 1
  }
  param {
    lr_mult: 2
  }
  inner_product_param {
    num_output: 50
    weight_filler {
      type: "xavier"
    }
    bias_filler {
      type: "constant"
    }
  }
}
layer {
  name: "relu1"
  type: "ReLU"
  bottom: "ip1"
  top: "ip1"
}
layer {
  name: "ip2"
  type: "InnerProduct"
  bottom: "ip1"
  top: "ip2"
  param {
    lr_mult: 1
  }
  param {
    lr_mult: 2
  }
  inner_product_param {
    num_output: 10
    weight_filler {
      type: "xavier"
    }
    bias_filler {
      type: "constant"
    }
  }
}
layer {
  name: "relu2"
  type: "ReLU"
  bottom: "ip2"
  top: "ip2"
}
layer {
  name: "accuracy"
  type: "Accuracy"
  bottom: "ip2"
  bottom: "label"
  top: "accuracy"
  include {
    phase: TEST
  }
}
layer {
  name: "loss"
  type: "SoftmaxWithLoss"
  bottom: "ip2"
  bottom: "label"
  top: "loss"
}
I0428 19:58:46.455132 29076 layer_factory.hpp:77] Creating layer mnist
I0428 19:58:46.455183 29076 db_lmdb.cpp:35] Opened lmdb examples/mnist/mnist_test_lmdb
I0428 19:58:46.455198 29076 net.cpp:86] Creating Layer mnist
I0428 19:58:46.455204 29076 net.cpp:382] mnist -> data
I0428 19:58:46.455211 29076 net.cpp:382] mnist -> label
I0428 19:58:46.455312 29076 data_layer.cpp:45] output data size: 100,1,28,28
I0428 19:58:46.457646 29076 net.cpp:124] Setting up mnist
I0428 19:58:46.457662 29076 net.cpp:131] Top shape: 100 1 28 28 (78400)
I0428 19:58:46.457669 29076 net.cpp:131] Top shape: 100 (100)
I0428 19:58:46.457674 29076 net.cpp:139] Memory required for data: 314000
I0428 19:58:46.457677 29076 layer_factory.hpp:77] Creating layer label_mnist_1_split
I0428 19:58:46.457703 29076 net.cpp:86] Creating Layer label_mnist_1_split
I0428 19:58:46.457708 29076 net.cpp:408] label_mnist_1_split <- label
I0428 19:58:46.457715 29076 net.cpp:382] label_mnist_1_split -> label_mnist_1_split_0
I0428 19:58:46.457722 29076 net.cpp:382] label_mnist_1_split -> label_mnist_1_split_1
I0428 19:58:46.457774 29076 net.cpp:124] Setting up label_mnist_1_split
I0428 19:58:46.457801 29076 net.cpp:131] Top shape: 100 (100)
I0428 19:58:46.457806 29076 net.cpp:131] Top shape: 100 (100)
I0428 19:58:46.457810 29076 net.cpp:139] Memory required for data: 314800
I0428 19:58:46.457813 29076 layer_factory.hpp:77] Creating layer conv0
I0428 19:58:46.457823 29076 net.cpp:86] Creating Layer conv0
I0428 19:58:46.457828 29076 net.cpp:408] conv0 <- data
I0428 19:58:46.457834 29076 net.cpp:382] conv0 -> conv0
I0428 19:58:46.459666 29076 net.cpp:124] Setting up conv0
I0428 19:58:46.459683 29076 net.cpp:131] Top shape: 100 10 24 24 (576000)
I0428 19:58:46.459688 29076 net.cpp:139] Memory required for data: 2618800
I0428 19:58:46.459699 29076 layer_factory.hpp:77] Creating layer pool0
I0428 19:58:46.459707 29076 net.cpp:86] Creating Layer pool0
I0428 19:58:46.459712 29076 net.cpp:408] pool0 <- conv0
I0428 19:58:46.459717 29076 net.cpp:382] pool0 -> pool0
I0428 19:58:46.459758 29076 net.cpp:124] Setting up pool0
I0428 19:58:46.459764 29076 net.cpp:131] Top shape: 100 10 12 12 (144000)
I0428 19:58:46.459769 29076 net.cpp:139] Memory required for data: 3194800
I0428 19:58:46.459771 29076 layer_factory.hpp:77] Creating layer conv1
I0428 19:58:46.459781 29076 net.cpp:86] Creating Layer conv1
I0428 19:58:46.459785 29076 net.cpp:408] conv1 <- pool0
I0428 19:58:46.459791 29076 net.cpp:382] conv1 -> conv1
I0428 19:58:46.462188 29076 net.cpp:124] Setting up conv1
I0428 19:58:46.462204 29076 net.cpp:131] Top shape: 100 10 8 8 (64000)
I0428 19:58:46.462209 29076 net.cpp:139] Memory required for data: 3450800
I0428 19:58:46.462219 29076 layer_factory.hpp:77] Creating layer pool1
I0428 19:58:46.462226 29076 net.cpp:86] Creating Layer pool1
I0428 19:58:46.462230 29076 net.cpp:408] pool1 <- conv1
I0428 19:58:46.462237 29076 net.cpp:382] pool1 -> pool1
I0428 19:58:46.462283 29076 net.cpp:124] Setting up pool1
I0428 19:58:46.462290 29076 net.cpp:131] Top shape: 100 10 4 4 (16000)
I0428 19:58:46.462293 29076 net.cpp:139] Memory required for data: 3514800
I0428 19:58:46.462297 29076 layer_factory.hpp:77] Creating layer ip1
I0428 19:58:46.462304 29076 net.cpp:86] Creating Layer ip1
I0428 19:58:46.462308 29076 net.cpp:408] ip1 <- pool1
I0428 19:58:46.462313 29076 net.cpp:382] ip1 -> ip1
I0428 19:58:46.462478 29076 net.cpp:124] Setting up ip1
I0428 19:58:46.462487 29076 net.cpp:131] Top shape: 100 50 (5000)
I0428 19:58:46.462491 29076 net.cpp:139] Memory required for data: 3534800
I0428 19:58:46.462499 29076 layer_factory.hpp:77] Creating layer relu1
I0428 19:58:46.462505 29076 net.cpp:86] Creating Layer relu1
I0428 19:58:46.462509 29076 net.cpp:408] relu1 <- ip1
I0428 19:58:46.462514 29076 net.cpp:369] relu1 -> ip1 (in-place)
I0428 19:58:46.462703 29076 net.cpp:124] Setting up relu1
I0428 19:58:46.462713 29076 net.cpp:131] Top shape: 100 50 (5000)
I0428 19:58:46.462718 29076 net.cpp:139] Memory required for data: 3554800
I0428 19:58:46.462723 29076 layer_factory.hpp:77] Creating layer ip2
I0428 19:58:46.462731 29076 net.cpp:86] Creating Layer ip2
I0428 19:58:46.462735 29076 net.cpp:408] ip2 <- ip1
I0428 19:58:46.462741 29076 net.cpp:382] ip2 -> ip2
I0428 19:58:46.462857 29076 net.cpp:124] Setting up ip2
I0428 19:58:46.462865 29076 net.cpp:131] Top shape: 100 10 (1000)
I0428 19:58:46.462868 29076 net.cpp:139] Memory required for data: 3558800
I0428 19:58:46.462875 29076 layer_factory.hpp:77] Creating layer relu2
I0428 19:58:46.462880 29076 net.cpp:86] Creating Layer relu2
I0428 19:58:46.462884 29076 net.cpp:408] relu2 <- ip2
I0428 19:58:46.462889 29076 net.cpp:369] relu2 -> ip2 (in-place)
I0428 19:58:46.463112 29076 net.cpp:124] Setting up relu2
I0428 19:58:46.463122 29076 net.cpp:131] Top shape: 100 10 (1000)
I0428 19:58:46.463131 29076 net.cpp:139] Memory required for data: 3562800
I0428 19:58:46.463135 29076 layer_factory.hpp:77] Creating layer ip2_relu2_0_split
I0428 19:58:46.463141 29076 net.cpp:86] Creating Layer ip2_relu2_0_split
I0428 19:58:46.463145 29076 net.cpp:408] ip2_relu2_0_split <- ip2
I0428 19:58:46.463151 29076 net.cpp:382] ip2_relu2_0_split -> ip2_relu2_0_split_0
I0428 19:58:46.463171 29076 net.cpp:382] ip2_relu2_0_split -> ip2_relu2_0_split_1
I0428 19:58:46.463224 29076 net.cpp:124] Setting up ip2_relu2_0_split
I0428 19:58:46.463233 29076 net.cpp:131] Top shape: 100 10 (1000)
I0428 19:58:46.463238 29076 net.cpp:131] Top shape: 100 10 (1000)
I0428 19:58:46.463251 29076 net.cpp:139] Memory required for data: 3570800
I0428 19:58:46.463256 29076 layer_factory.hpp:77] Creating layer accuracy
I0428 19:58:46.463263 29076 net.cpp:86] Creating Layer accuracy
I0428 19:58:46.463266 29076 net.cpp:408] accuracy <- ip2_relu2_0_split_0
I0428 19:58:46.463271 29076 net.cpp:408] accuracy <- label_mnist_1_split_0
I0428 19:58:46.463277 29076 net.cpp:382] accuracy -> accuracy
…
