…
I0428 20:32:57.447773  4220 net.cpp:296] The NetState phase (0) differed from the phase (1) specified by a rule in layer mnist
I0428 20:32:57.447793  4220 net.cpp:296] The NetState phase (0) differed from the phase (1) specified by a rule in layer accuracy
I0428 20:32:57.447896  4220 net.cpp:53] Initializing net from parameters: 
name: "LeNet"
state {
  phase: TRAIN
  level: 0
  stage: ""
}
layer {
  name: "mnist"
  type: "Data"
  top: "data"
  top: "label"
  include {
    phase: TRAIN
  }
  transform_param {
    scale: 0.00390625
  }
  data_param {
    source: "examples/mnist/mnist_train_lmdb"
    batch_size: 64
    backend: LMDB
  }
}
layer {
  name: "conv0"
  type: "Convolution"
  bottom: "data"
  top: "conv0"
  param {
    lr_mult: 1
  }
  param {
    lr_mult: 2
  }
  convolution_param {
    num_output: 100
    kernel_size: 5
    stride: 1
    weight_filler {
      type: "xavier"
    }
    bias_filler {
      type: "constant"
    }
  }
}
layer {
  name: "pool0"
  type: "Pooling"
  bottom: "conv0"
  top: "pool0"
  pooling_param {
    pool: MAX
    kernel_size: 2
    stride: 2
  }
}
layer {
  name: "conv1"
  type: "Convolution"
  bottom: "pool0"
  top: "conv1"
  param {
    lr_mult: 1
  }
  param {
    lr_mult: 2
  }
  convolution_param {
    num_output: 25
    kernel_size: 5
    stride: 1
    weight_filler {
      type: "xavier"
    }
    bias_filler {
      type: "constant"
    }
  }
}
layer {
  name: "pool1"
  type: "Pooling"
  bottom: "conv1"
  top: "pool1"
  pooling_param {
    pool: MAX
    kernel_size: 2
    stride: 2
  }
}
layer {
  name: "ip1"
  type: "InnerProduct"
  bottom: "pool1"
  top: "ip1"
  param {
    lr_mult: 1
  }
  param {
    lr_mult: 2
  }
  inner_product_param {
    num_output: 10
    weight_filler {
      type: "xavier"
    }
    bias_filler {
      type: "constant"
    }
  }
}
layer {
  name: "relu1"
  type: "ReLU"
  bottom: "ip1"
  top: "ip1"
}
layer {
  name: "ip2"
  type: "InnerProduct"
  bottom: "ip1"
  top: "ip2"
  param {
    lr_mult: 1
  }
  param {
    lr_mult: 2
  }
  inner_product_param {
    num_output: 50
    weight_filler {
      type: "xavier"
    }
    bias_filler {
      type: "constant"
    }
  }
}
layer {
  name: "relu2"
  type: "ReLU"
  bottom: "ip2"
  top: "ip2"
}
layer {
  name: "ip3"
  type: "InnerProduct"
  bottom: "ip2"
  top: "ip3"
  param {
    lr_mult: 1
  }
  param {
    lr_mult: 2
  }
  inner_product_param {
    num_output: 10
    weight_filler {
      type: "xavier"
    }
    bias_filler {
      type: "constant"
    }
  }
}
layer {
  name: "relu3"
  type: "ReLU"
  bottom: "ip3"
  top: "ip3"
}
layer {
  name: "loss"
  type: "SoftmaxWithLoss"
  bottom: "ip3"
  bottom: "label"
  top: "loss"
}
I0428 20:32:57.447976  4220 layer_factory.hpp:77] Creating layer mnist
I0428 20:32:57.448076  4220 db_lmdb.cpp:35] Opened lmdb examples/mnist/mnist_train_lmdb
I0428 20:32:57.448101  4220 net.cpp:86] Creating Layer mnist
I0428 20:32:57.448112  4220 net.cpp:382] mnist -> data
I0428 20:32:57.448135  4220 net.cpp:382] mnist -> label
I0428 20:32:57.449254  4220 data_layer.cpp:45] output data size: 64,1,28,28
I0428 20:32:57.451702  4220 net.cpp:124] Setting up mnist
I0428 20:32:57.451723  4220 net.cpp:131] Top shape: 64 1 28 28 (50176)
I0428 20:32:57.451730  4220 net.cpp:131] Top shape: 64 (64)
I0428 20:32:57.451733  4220 net.cpp:139] Memory required for data: 200960
I0428 20:32:57.451740  4220 layer_factory.hpp:77] Creating layer conv0
I0428 20:32:57.451768  4220 net.cpp:86] Creating Layer conv0
I0428 20:32:57.451795  4220 net.cpp:408] conv0 <- data
I0428 20:32:57.451807  4220 net.cpp:382] conv0 -> conv0
I0428 20:32:57.747176  4220 net.cpp:124] Setting up conv0
I0428 20:32:57.747206  4220 net.cpp:131] Top shape: 64 100 24 24 (3686400)
I0428 20:32:57.747211  4220 net.cpp:139] Memory required for data: 14946560
I0428 20:32:57.747228  4220 layer_factory.hpp:77] Creating layer pool0
I0428 20:32:57.747244  4220 net.cpp:86] Creating Layer pool0
I0428 20:32:57.747249  4220 net.cpp:408] pool0 <- conv0
I0428 20:32:57.747256  4220 net.cpp:382] pool0 -> pool0
I0428 20:32:57.747309  4220 net.cpp:124] Setting up pool0
I0428 20:32:57.747318  4220 net.cpp:131] Top shape: 64 100 12 12 (921600)
I0428 20:32:57.747323  4220 net.cpp:139] Memory required for data: 18632960
I0428 20:32:57.747325  4220 layer_factory.hpp:77] Creating layer conv1
I0428 20:32:57.747339  4220 net.cpp:86] Creating Layer conv1
I0428 20:32:57.747344  4220 net.cpp:408] conv1 <- pool0
I0428 20:32:57.747350  4220 net.cpp:382] conv1 -> conv1
I0428 20:32:57.749835  4220 net.cpp:124] Setting up conv1
I0428 20:32:57.749853  4220 net.cpp:131] Top shape: 64 25 8 8 (102400)
I0428 20:32:57.749858  4220 net.cpp:139] Memory required for data: 19042560
I0428 20:32:57.749868  4220 layer_factory.hpp:77] Creating layer pool1
I0428 20:32:57.749897  4220 net.cpp:86] Creating Layer pool1
I0428 20:32:57.749902  4220 net.cpp:408] pool1 <- conv1
I0428 20:32:57.749909  4220 net.cpp:382] pool1 -> pool1
I0428 20:32:57.749956  4220 net.cpp:124] Setting up pool1
I0428 20:32:57.749963  4220 net.cpp:131] Top shape: 64 25 4 4 (25600)
I0428 20:32:57.749966  4220 net.cpp:139] Memory required for data: 19144960
I0428 20:32:57.749969  4220 layer_factory.hpp:77] Creating layer ip1
I0428 20:32:57.749977  4220 net.cpp:86] Creating Layer ip1
I0428 20:32:57.749981  4220 net.cpp:408] ip1 <- pool1
I0428 20:32:57.749986  4220 net.cpp:382] ip1 -> ip1
I0428 20:32:57.750120  4220 net.cpp:124] Setting up ip1
I0428 20:32:57.750128  4220 net.cpp:131] Top shape: 64 10 (640)
I0428 20:32:57.750133  4220 net.cpp:139] Memory required for data: 19147520
I0428 20:32:57.750140  4220 layer_factory.hpp:77] Creating layer relu1
I0428 20:32:57.750150  4220 net.cpp:86] Creating Layer relu1
I0428 20:32:57.750154  4220 net.cpp:408] relu1 <- ip1
I0428 20:32:57.750159  4220 net.cpp:369] relu1 -> ip1 (in-place)
I0428 20:32:57.750349  4220 net.cpp:124] Setting up relu1
I0428 20:32:57.750360  4220 net.cpp:131] Top shape: 64 10 (640)
I0428 20:32:57.750363  4220 net.cpp:139] Memory required for data: 19150080
I0428 20:32:57.750367  4220 layer_factory.hpp:77] Creating layer ip2
I0428 20:32:57.750375  4220 net.cpp:86] Creating Layer ip2
I0428 20:32:57.750380  4220 net.cpp:408] ip2 <- ip1
I0428 20:32:57.750386  4220 net.cpp:382] ip2 -> ip2
I0428 20:32:57.750496  4220 net.cpp:124] Setting up ip2
I0428 20:32:57.750504  4220 net.cpp:131] Top shape: 64 50 (3200)
I0428 20:32:57.750509  4220 net.cpp:139] Memory required for data: 19162880
I0428 20:32:57.750514  4220 layer_factory.hpp:77] Creating layer relu2
I0428 20:32:57.750520  4220 net.cpp:86] Creating Layer relu2
I0428 20:32:57.750527  4220 net.cpp:408] relu2 <- ip2
I0428 20:32:57.750532  4220 net.cpp:369] relu2 -> ip2 (in-place)
I0428 20:32:57.751344  4220 net.cpp:124] Setting up relu2
I0428 20:32:57.751358  4220 net.cpp:131] Top shape: 64 50 (3200)
I0428 20:32:57.751363  4220 net.cpp:139] Memory required for data: 19175680
I0428 20:32:57.751366  4220 layer_factory.hpp:77] Creating layer ip3
I0428 20:32:57.751375  4220 net.cpp:86] Creating Layer ip3
I0428 20:32:57.751379  4220 net.cpp:408] ip3 <- ip2
I0428 20:32:57.751385  4220 net.cpp:382] ip3 -> ip3
I0428 20:32:57.751499  4220 net.cpp:124] Setting up ip3
I0428 20:32:57.751508  4220 net.cpp:131] Top shape: 64 10 (640)
I0428 20:32:57.751512  4220 net.cpp:139] Memory required for data: 19178240
I0428 20:32:57.751520  4220 layer_factory.hpp:77] Creating layer relu3
I0428 20:32:57.751528  4220 net.cpp:86] Creating Layer relu3
I0428 20:32:57.751531  4220 net.cpp:408] relu3 <- ip3
I0428 20:32:57.751536  4220 net.cpp:369] relu3 -> ip3 (in-place)
I0428 20:32:57.751727  4220 net.cpp:124] Setting up relu3
I0428 20:32:57.751739  4220 net.cpp:131] Top shape: 64 10 (640)
I0428 20:32:57.751742  4220 net.cpp:139] Memory required for data: 19180800
I0428 20:32:57.751746  4220 layer_factory.hpp:77] Creating layer loss
I0428 20:32:57.751752  4220 net.cpp:86] Creating Layer loss
I0428 20:32:57.751758  4220 net.cpp:408] loss <- ip3
I0428 20:32:57.751763  4220 net.cpp:408] loss <- label
I0428 20:32:57.751770  4220 net.cpp:382] loss -> loss
I0428 20:32:57.751785  4220 layer_factory.hpp:77] Creating layer loss
…
I0428 20:32:57.752502  4220 solver.cpp:173] Creating test net (#0) specified by net file: ECE595/mnist/train_test/var_everything2/lenet_train_test1580.prototxt
I0428 20:32:57.752532  4220 net.cpp:296] The NetState phase (1) differed from the phase (0) specified by a rule in layer mnist
I0428 20:32:57.752635  4220 net.cpp:53] Initializing net from parameters: 
name: "LeNet"
state {
  phase: TEST
}
layer {
  name: "mnist"
  type: "Data"
  top: "data"
  top: "label"
  include {
    phase: TEST
  }
  transform_param {
    scale: 0.00390625
  }
  data_param {
    source: "examples/mnist/mnist_test_lmdb"
    batch_size: 100
    backend: LMDB
  }
}
layer {
  name: "conv0"
  type: "Convolution"
  bottom: "data"
  top: "conv0"
  param {
    lr_mult: 1
  }
  param {
    lr_mult: 2
  }
  convolution_param {
    num_output: 100
    kernel_size: 5
    stride: 1
    weight_filler {
      type: "xavier"
    }
    bias_filler {
      type: "constant"
    }
  }
}
layer {
  name: "pool0"
  type: "Pooling"
  bottom: "conv0"
  top: "pool0"
  pooling_param {
    pool: MAX
    kernel_size: 2
    stride: 2
  }
}
layer {
  name: "conv1"
  type: "Convolution"
  bottom: "pool0"
  top: "conv1"
  param {
    lr_mult: 1
  }
  param {
    lr_mult: 2
  }
  convolution_param {
    num_output: 25
    kernel_size: 5
    stride: 1
    weight_filler {
      type: "xavier"
    }
    bias_filler {
      type: "constant"
    }
  }
}
layer {
  name: "pool1"
  type: "Pooling"
  bottom: "conv1"
  top: "pool1"
  pooling_param {
    pool: MAX
    kernel_size: 2
    stride: 2
  }
}
layer {
  name: "ip1"
  type: "InnerProduct"
  bottom: "pool1"
  top: "ip1"
  param {
    lr_mult: 1
  }
  param {
    lr_mult: 2
  }
  inner_product_param {
    num_output: 10
    weight_filler {
      type: "xavier"
    }
    bias_filler {
      type: "constant"
    }
  }
}
layer {
  name: "relu1"
  type: "ReLU"
  bottom: "ip1"
  top: "ip1"
}
layer {
  name: "ip2"
  type: "InnerProduct"
  bottom: "ip1"
  top: "ip2"
  param {
    lr_mult: 1
  }
  param {
    lr_mult: 2
  }
  inner_product_param {
    num_output: 50
    weight_filler {
      type: "xavier"
    }
    bias_filler {
      type: "constant"
    }
  }
}
layer {
  name: "relu2"
  type: "ReLU"
  bottom: "ip2"
  top: "ip2"
}
layer {
  name: "ip3"
  type: "InnerProduct"
  bottom: "ip2"
  top: "ip3"
  param {
    lr_mult: 1
  }
  param {
    lr_mult: 2
  }
  inner_product_param {
    num_output: 10
    weight_filler {
      type: "xavier"
    }
    bias_filler {
      type: "constant"
    }
  }
}
layer {
  name: "relu3"
  type: "ReLU"
  bottom: "ip3"
  top: "ip3"
}
layer {
  name: "accuracy"
  type: "Accuracy"
  bottom: "ip3"
  bottom: "label"
  top: "accuracy"
  include {
    phase: TEST
  }
}
layer {
  name: "loss"
  type: "SoftmaxWithLoss"
  bottom: "ip3"
  bottom: "label"
  top: "loss"
}
I0428 20:32:57.752725  4220 layer_factory.hpp:77] Creating layer mnist
I0428 20:32:57.752774  4220 db_lmdb.cpp:35] Opened lmdb examples/mnist/mnist_test_lmdb
I0428 20:32:57.752789  4220 net.cpp:86] Creating Layer mnist
I0428 20:32:57.752796  4220 net.cpp:382] mnist -> data
I0428 20:32:57.752805  4220 net.cpp:382] mnist -> label
I0428 20:32:57.752912  4220 data_layer.cpp:45] output data size: 100,1,28,28
I0428 20:32:57.755223  4220 net.cpp:124] Setting up mnist
I0428 20:32:57.755239  4220 net.cpp:131] Top shape: 100 1 28 28 (78400)
I0428 20:32:57.755244  4220 net.cpp:131] Top shape: 100 (100)
I0428 20:32:57.755247  4220 net.cpp:139] Memory required for data: 314000
I0428 20:32:57.755252  4220 layer_factory.hpp:77] Creating layer label_mnist_1_split
I0428 20:32:57.755259  4220 net.cpp:86] Creating Layer label_mnist_1_split
I0428 20:32:57.755264  4220 net.cpp:408] label_mnist_1_split <- label
I0428 20:32:57.755270  4220 net.cpp:382] label_mnist_1_split -> label_mnist_1_split_0
I0428 20:32:57.755277  4220 net.cpp:382] label_mnist_1_split -> label_mnist_1_split_1
I0428 20:32:57.755398  4220 net.cpp:124] Setting up label_mnist_1_split
I0428 20:32:57.755409  4220 net.cpp:131] Top shape: 100 (100)
I0428 20:32:57.755412  4220 net.cpp:131] Top shape: 100 (100)
I0428 20:32:57.755416  4220 net.cpp:139] Memory required for data: 314800
I0428 20:32:57.755420  4220 layer_factory.hpp:77] Creating layer conv0
I0428 20:32:57.755430  4220 net.cpp:86] Creating Layer conv0
I0428 20:32:57.755436  4220 net.cpp:408] conv0 <- data
I0428 20:32:57.755442  4220 net.cpp:382] conv0 -> conv0
I0428 20:32:57.757201  4220 net.cpp:124] Setting up conv0
I0428 20:32:57.757218  4220 net.cpp:131] Top shape: 100 100 24 24 (5760000)
I0428 20:32:57.757222  4220 net.cpp:139] Memory required for data: 23354800
I0428 20:32:57.757232  4220 layer_factory.hpp:77] Creating layer pool0
I0428 20:32:57.757241  4220 net.cpp:86] Creating Layer pool0
I0428 20:32:57.757246  4220 net.cpp:408] pool0 <- conv0
I0428 20:32:57.757252  4220 net.cpp:382] pool0 -> pool0
I0428 20:32:57.757294  4220 net.cpp:124] Setting up pool0
I0428 20:32:57.757308  4220 net.cpp:131] Top shape: 100 100 12 12 (1440000)
I0428 20:32:57.757310  4220 net.cpp:139] Memory required for data: 29114800
I0428 20:32:57.757313  4220 layer_factory.hpp:77] Creating layer conv1
I0428 20:32:57.757324  4220 net.cpp:86] Creating Layer conv1
I0428 20:32:57.757328  4220 net.cpp:408] conv1 <- pool0
I0428 20:32:57.757335  4220 net.cpp:382] conv1 -> conv1
I0428 20:32:57.759419  4220 net.cpp:124] Setting up conv1
I0428 20:32:57.759434  4220 net.cpp:131] Top shape: 100 25 8 8 (160000)
I0428 20:32:57.759438  4220 net.cpp:139] Memory required for data: 29754800
I0428 20:32:57.759449  4220 layer_factory.hpp:77] Creating layer pool1
I0428 20:32:57.759459  4220 net.cpp:86] Creating Layer pool1
I0428 20:32:57.759462  4220 net.cpp:408] pool1 <- conv1
I0428 20:32:57.759469  4220 net.cpp:382] pool1 -> pool1
I0428 20:32:57.759511  4220 net.cpp:124] Setting up pool1
I0428 20:32:57.759526  4220 net.cpp:131] Top shape: 100 25 4 4 (40000)
I0428 20:32:57.759531  4220 net.cpp:139] Memory required for data: 29914800
I0428 20:32:57.759533  4220 layer_factory.hpp:77] Creating layer ip1
I0428 20:32:57.759539  4220 net.cpp:86] Creating Layer ip1
I0428 20:32:57.759543  4220 net.cpp:408] ip1 <- pool1
I0428 20:32:57.759551  4220 net.cpp:382] ip1 -> ip1
I0428 20:32:57.759690  4220 net.cpp:124] Setting up ip1
I0428 20:32:57.759711  4220 net.cpp:131] Top shape: 100 10 (1000)
I0428 20:32:57.759714  4220 net.cpp:139] Memory required for data: 29918800
I0428 20:32:57.759724  4220 layer_factory.hpp:77] Creating layer relu1
I0428 20:32:57.759730  4220 net.cpp:86] Creating Layer relu1
I0428 20:32:57.759734  4220 net.cpp:408] relu1 <- ip1
I0428 20:32:57.759742  4220 net.cpp:369] relu1 -> ip1 (in-place)
I0428 20:32:57.759934  4220 net.cpp:124] Setting up relu1
I0428 20:32:57.759945  4220 net.cpp:131] Top shape: 100 10 (1000)
I0428 20:32:57.759948  4220 net.cpp:139] Memory required for data: 29922800
I0428 20:32:57.759953  4220 layer_factory.hpp:77] Creating layer ip2
I0428 20:32:57.759961  4220 net.cpp:86] Creating Layer ip2
I0428 20:32:57.759965  4220 net.cpp:408] ip2 <- ip1
I0428 20:32:57.759971  4220 net.cpp:382] ip2 -> ip2
I0428 20:32:57.760092  4220 net.cpp:124] Setting up ip2
I0428 20:32:57.760100  4220 net.cpp:131] Top shape: 100 50 (5000)
I0428 20:32:57.760104  4220 net.cpp:139] Memory required for data: 29942800
I0428 20:32:57.760110  4220 layer_factory.hpp:77] Creating layer relu2
I0428 20:32:57.760116  4220 net.cpp:86] Creating Layer relu2
I0428 20:32:57.760120  4220 net.cpp:408] relu2 <- ip2
I0428 20:32:57.760125  4220 net.cpp:369] relu2 -> ip2 (in-place)
I0428 20:32:57.760423  4220 net.cpp:124] Setting up relu2
I0428 20:32:57.760434  4220 net.cpp:131] Top shape: 100 50 (5000)
I0428 20:32:57.760437  4220 net.cpp:139] Memory required for data: 29962800
I0428 20:32:57.760442  4220 layer_factory.hpp:77] Creating layer ip3
I0428 20:32:57.760448  4220 net.cpp:86] Creating Layer ip3
I0428 20:32:57.760452  4220 net.cpp:408] ip3 <- ip2
I0428 20:32:57.760458  4220 net.cpp:382] ip3 -> ip3
I0428 20:32:57.760576  4220 net.cpp:124] Setting up ip3
I0428 20:32:57.760586  4220 net.cpp:131] Top shape: 100 10 (1000)
I0428 20:32:57.760588  4220 net.cpp:139] Memory required for data: 29966800
I0428 20:32:57.760597  4220 layer_factory.hpp:77] Creating layer relu3
I0428 20:32:57.760604  4220 net.cpp:86] Creating Layer relu3
I0428 20:32:57.760607  4220 net.cpp:408] relu3 <- ip3
I0428 20:32:57.760612  4220 net.cpp:369] relu3 -> ip3 (in-place)
I0428 20:32:57.761484  4220 net.cpp:124] Setting up relu3
I0428 20:32:57.761497  4220 net.cpp:131] Top shape: 100 10 (1000)
I0428 20:32:57.761502  4220 net.cpp:139] Memory required for data: 29970800
I0428 20:32:57.761505  4220 layer_factory.hpp:77] Creating layer ip3_relu3_0_split
I0428 20:32:57.761512  4220 net.cpp:86] Creating Layer ip3_relu3_0_split
I0428 20:32:57.761514  4220 net.cpp:408] ip3_relu3_0_split <- ip3
I0428 20:32:57.761520  4220 net.cpp:382] ip3_relu3_0_split -> ip3_relu3_0_split_0
I0428 20:32:57.761526  4220 net.cpp:382] ip3_relu3_0_split -> ip3_relu3_0_split_1
I0428 20:32:57.761574  4220 net.cpp:124] Setting up ip3_relu3_0_split
I0428 20:32:57.761581  4220 net.cpp:131] Top shape: 100 10 (1000)
I0428 20:32:57.761585  4220 net.cpp:131] Top shape: 100 10 (1000)
I0428 20:32:57.761589  4220 net.cpp:139] Memory required for data: 29978800
I0428 20:32:57.761591  4220 layer_factory.hpp:77] Creating layer accuracy
I0428 20:32:57.761597  4220 net.cpp:86] Creating Layer accuracy
I0428 20:32:57.761601  4220 net.cpp:408] accuracy <- ip3_relu3_0_split_0
I0428 20:32:57.761605  4220 net.cpp:408] accuracy <- label_mnist_1_split_0
I0428 20:32:57.761610  4220 net.cpp:382] accuracy -> accuracy
…
