…
I0428 20:15:11.690847   382 net.cpp:296] The NetState phase (0) differed from the phase (1) specified by a rule in layer mnist
I0428 20:15:11.690878   382 net.cpp:296] The NetState phase (0) differed from the phase (1) specified by a rule in layer accuracy
I0428 20:15:11.690959   382 net.cpp:53] Initializing net from parameters: 
name: "LeNet"
state {
  phase: TRAIN
  level: 0
  stage: ""
}
layer {
  name: "mnist"
  type: "Data"
  top: "data"
  top: "label"
  include {
    phase: TRAIN
  }
  transform_param {
    scale: 0.00390625
  }
  data_param {
    source: "examples/mnist/mnist_train_lmdb"
    batch_size: 64
    backend: LMDB
  }
}
layer {
  name: "conv0"
  type: "Convolution"
  bottom: "data"
  top: "conv0"
  param {
    lr_mult: 1
  }
  param {
    lr_mult: 2
  }
  convolution_param {
    num_output: 50
    kernel_size: 5
    stride: 1
    weight_filler {
      type: "xavier"
    }
    bias_filler {
      type: "constant"
    }
  }
}
layer {
  name: "pool0"
  type: "Pooling"
  bottom: "conv0"
  top: "pool0"
  pooling_param {
    pool: MAX
    kernel_size: 2
    stride: 2
  }
}
layer {
  name: "conv1"
  type: "Convolution"
  bottom: "pool0"
  top: "conv1"
  param {
    lr_mult: 1
  }
  param {
    lr_mult: 2
  }
  convolution_param {
    num_output: 2
    kernel_size: 5
    stride: 1
    weight_filler {
      type: "xavier"
    }
    bias_filler {
      type: "constant"
    }
  }
}
layer {
  name: "pool1"
  type: "Pooling"
  bottom: "conv1"
  top: "pool1"
  pooling_param {
    pool: MAX
    kernel_size: 2
    stride: 2
  }
}
layer {
  name: "ip1"
  type: "InnerProduct"
  bottom: "pool1"
  top: "ip1"
  param {
    lr_mult: 1
  }
  param {
    lr_mult: 2
  }
  inner_product_param {
    num_output: 50
    weight_filler {
      type: "xavier"
    }
    bias_filler {
      type: "constant"
    }
  }
}
layer {
  name: "relu1"
  type: "ReLU"
  bottom: "ip1"
  top: "ip1"
}
layer {
  name: "ip2"
  type: "InnerProduct"
  bottom: "ip1"
  top: "ip2"
  param {
    lr_mult: 1
  }
  param {
    lr_mult: 2
  }
  inner_product_param {
    num_output: 10
    weight_filler {
      type: "xavier"
    }
    bias_filler {
      type: "constant"
    }
  }
}
layer {
  name: "relu2"
  type: "ReLU"
  bottom: "ip2"
  top: "ip2"
}
layer {
  name: "ip3"
  type: "InnerProduct"
  bottom: "ip2"
  top: "ip3"
  param {
    lr_mult: 1
  }
  param {
    lr_mult: 2
  }
  inner_product_param {
    num_output: 10
    weight_filler {
      type: "xavier"
    }
    bias_filler {
      type: "constant"
    }
  }
}
layer {
  name: "relu3"
  type: "ReLU"
  bottom: "ip3"
  top: "ip3"
}
layer {
  name: "loss"
  type: "SoftmaxWithLoss"
  bottom: "ip3"
  bottom: "label"
  top: "loss"
}
I0428 20:15:11.691023   382 layer_factory.hpp:77] Creating layer mnist
I0428 20:15:11.691107   382 db_lmdb.cpp:35] Opened lmdb examples/mnist/mnist_train_lmdb
I0428 20:15:11.691126   382 net.cpp:86] Creating Layer mnist
I0428 20:15:11.691135   382 net.cpp:382] mnist -> data
I0428 20:15:11.691169   382 net.cpp:382] mnist -> label
I0428 20:15:11.692219   382 data_layer.cpp:45] output data size: 64,1,28,28
I0428 20:15:11.694524   382 net.cpp:124] Setting up mnist
I0428 20:15:11.694571   382 net.cpp:131] Top shape: 64 1 28 28 (50176)
I0428 20:15:11.694577   382 net.cpp:131] Top shape: 64 (64)
I0428 20:15:11.694581   382 net.cpp:139] Memory required for data: 200960
I0428 20:15:11.694586   382 layer_factory.hpp:77] Creating layer conv0
I0428 20:15:11.694600   382 net.cpp:86] Creating Layer conv0
I0428 20:15:11.694618   382 net.cpp:408] conv0 <- data
I0428 20:15:11.694628   382 net.cpp:382] conv0 -> conv0
I0428 20:15:11.922065   382 net.cpp:124] Setting up conv0
I0428 20:15:11.922106   382 net.cpp:131] Top shape: 64 50 24 24 (1843200)
I0428 20:15:11.922111   382 net.cpp:139] Memory required for data: 7573760
I0428 20:15:11.922142   382 layer_factory.hpp:77] Creating layer pool0
I0428 20:15:11.922155   382 net.cpp:86] Creating Layer pool0
I0428 20:15:11.922174   382 net.cpp:408] pool0 <- conv0
I0428 20:15:11.922180   382 net.cpp:382] pool0 -> pool0
I0428 20:15:11.922227   382 net.cpp:124] Setting up pool0
I0428 20:15:11.922243   382 net.cpp:131] Top shape: 64 50 12 12 (460800)
I0428 20:15:11.922246   382 net.cpp:139] Memory required for data: 9416960
I0428 20:15:11.922250   382 layer_factory.hpp:77] Creating layer conv1
I0428 20:15:11.922260   382 net.cpp:86] Creating Layer conv1
I0428 20:15:11.922263   382 net.cpp:408] conv1 <- pool0
I0428 20:15:11.922271   382 net.cpp:382] conv1 -> conv1
I0428 20:15:11.924124   382 net.cpp:124] Setting up conv1
I0428 20:15:11.924139   382 net.cpp:131] Top shape: 64 2 8 8 (8192)
I0428 20:15:11.924159   382 net.cpp:139] Memory required for data: 9449728
I0428 20:15:11.924167   382 layer_factory.hpp:77] Creating layer pool1
I0428 20:15:11.924175   382 net.cpp:86] Creating Layer pool1
I0428 20:15:11.924180   382 net.cpp:408] pool1 <- conv1
I0428 20:15:11.924185   382 net.cpp:382] pool1 -> pool1
I0428 20:15:11.924221   382 net.cpp:124] Setting up pool1
I0428 20:15:11.924226   382 net.cpp:131] Top shape: 64 2 4 4 (2048)
I0428 20:15:11.924230   382 net.cpp:139] Memory required for data: 9457920
I0428 20:15:11.924232   382 layer_factory.hpp:77] Creating layer ip1
I0428 20:15:11.924239   382 net.cpp:86] Creating Layer ip1
I0428 20:15:11.924242   382 net.cpp:408] ip1 <- pool1
I0428 20:15:11.924247   382 net.cpp:382] ip1 -> ip1
I0428 20:15:11.924374   382 net.cpp:124] Setting up ip1
I0428 20:15:11.924383   382 net.cpp:131] Top shape: 64 50 (3200)
I0428 20:15:11.924386   382 net.cpp:139] Memory required for data: 9470720
I0428 20:15:11.924393   382 layer_factory.hpp:77] Creating layer relu1
I0428 20:15:11.924398   382 net.cpp:86] Creating Layer relu1
I0428 20:15:11.924402   382 net.cpp:408] relu1 <- ip1
I0428 20:15:11.924407   382 net.cpp:369] relu1 -> ip1 (in-place)
I0428 20:15:11.924568   382 net.cpp:124] Setting up relu1
I0428 20:15:11.924577   382 net.cpp:131] Top shape: 64 50 (3200)
I0428 20:15:11.924581   382 net.cpp:139] Memory required for data: 9483520
I0428 20:15:11.924583   382 layer_factory.hpp:77] Creating layer ip2
I0428 20:15:11.924589   382 net.cpp:86] Creating Layer ip2
I0428 20:15:11.924592   382 net.cpp:408] ip2 <- ip1
I0428 20:15:11.924597   382 net.cpp:382] ip2 -> ip2
I0428 20:15:11.924688   382 net.cpp:124] Setting up ip2
I0428 20:15:11.924695   382 net.cpp:131] Top shape: 64 10 (640)
I0428 20:15:11.924698   382 net.cpp:139] Memory required for data: 9486080
I0428 20:15:11.924703   382 layer_factory.hpp:77] Creating layer relu2
I0428 20:15:11.924708   382 net.cpp:86] Creating Layer relu2
I0428 20:15:11.924711   382 net.cpp:408] relu2 <- ip2
I0428 20:15:11.924715   382 net.cpp:369] relu2 -> ip2 (in-place)
I0428 20:15:11.925566   382 net.cpp:124] Setting up relu2
I0428 20:15:11.925580   382 net.cpp:131] Top shape: 64 10 (640)
I0428 20:15:11.925598   382 net.cpp:139] Memory required for data: 9488640
I0428 20:15:11.925601   382 layer_factory.hpp:77] Creating layer ip3
I0428 20:15:11.925608   382 net.cpp:86] Creating Layer ip3
I0428 20:15:11.925613   382 net.cpp:408] ip3 <- ip2
I0428 20:15:11.925618   382 net.cpp:382] ip3 -> ip3
I0428 20:15:11.925711   382 net.cpp:124] Setting up ip3
I0428 20:15:11.925719   382 net.cpp:131] Top shape: 64 10 (640)
I0428 20:15:11.925722   382 net.cpp:139] Memory required for data: 9491200
I0428 20:15:11.925729   382 layer_factory.hpp:77] Creating layer relu3
I0428 20:15:11.925734   382 net.cpp:86] Creating Layer relu3
I0428 20:15:11.925737   382 net.cpp:408] relu3 <- ip3
I0428 20:15:11.925741   382 net.cpp:369] relu3 -> ip3 (in-place)
I0428 20:15:11.925907   382 net.cpp:124] Setting up relu3
I0428 20:15:11.925917   382 net.cpp:131] Top shape: 64 10 (640)
I0428 20:15:11.925920   382 net.cpp:139] Memory required for data: 9493760
I0428 20:15:11.925923   382 layer_factory.hpp:77] Creating layer loss
I0428 20:15:11.925930   382 net.cpp:86] Creating Layer loss
I0428 20:15:11.925932   382 net.cpp:408] loss <- ip3
I0428 20:15:11.925936   382 net.cpp:408] loss <- label
I0428 20:15:11.925941   382 net.cpp:382] loss -> loss
I0428 20:15:11.925954   382 layer_factory.hpp:77] Creating layer loss
…
I0428 20:15:11.926672   382 solver.cpp:173] Creating test net (#0) specified by net file: ECE595/mnist/train_test/var_everything2/lenet_train_test1240.prototxt
I0428 20:15:11.926733   382 net.cpp:296] The NetState phase (1) differed from the phase (0) specified by a rule in layer mnist
I0428 20:15:11.926836   382 net.cpp:53] Initializing net from parameters: 
name: "LeNet"
state {
  phase: TEST
}
layer {
  name: "mnist"
  type: "Data"
  top: "data"
  top: "label"
  include {
    phase: TEST
  }
  transform_param {
    scale: 0.00390625
  }
  data_param {
    source: "examples/mnist/mnist_test_lmdb"
    batch_size: 100
    backend: LMDB
  }
}
layer {
  name: "conv0"
  type: "Convolution"
  bottom: "data"
  top: "conv0"
  param {
    lr_mult: 1
  }
  param {
    lr_mult: 2
  }
  convolution_param {
    num_output: 50
    kernel_size: 5
    stride: 1
    weight_filler {
      type: "xavier"
    }
    bias_filler {
      type: "constant"
    }
  }
}
layer {
  name: "pool0"
  type: "Pooling"
  bottom: "conv0"
  top: "pool0"
  pooling_param {
    pool: MAX
    kernel_size: 2
    stride: 2
  }
}
layer {
  name: "conv1"
  type: "Convolution"
  bottom: "pool0"
  top: "conv1"
  param {
    lr_mult: 1
  }
  param {
    lr_mult: 2
  }
  convolution_param {
    num_output: 2
    kernel_size: 5
    stride: 1
    weight_filler {
      type: "xavier"
    }
    bias_filler {
      type: "constant"
    }
  }
}
layer {
  name: "pool1"
  type: "Pooling"
  bottom: "conv1"
  top: "pool1"
  pooling_param {
    pool: MAX
    kernel_size: 2
    stride: 2
  }
}
layer {
  name: "ip1"
  type: "InnerProduct"
  bottom: "pool1"
  top: "ip1"
  param {
    lr_mult: 1
  }
  param {
    lr_mult: 2
  }
  inner_product_param {
    num_output: 50
    weight_filler {
      type: "xavier"
    }
    bias_filler {
      type: "constant"
    }
  }
}
layer {
  name: "relu1"
  type: "ReLU"
  bottom: "ip1"
  top: "ip1"
}
layer {
  name: "ip2"
  type: "InnerProduct"
  bottom: "ip1"
  top: "ip2"
  param {
    lr_mult: 1
  }
  param {
    lr_mult: 2
  }
  inner_product_param {
    num_output: 10
    weight_filler {
      type: "xavier"
    }
    bias_filler {
      type: "constant"
    }
  }
}
layer {
  name: "relu2"
  type: "ReLU"
  bottom: "ip2"
  top: "ip2"
}
layer {
  name: "ip3"
  type: "InnerProduct"
  bottom: "ip2"
  top: "ip3"
  param {
    lr_mult: 1
  }
  param {
    lr_mult: 2
  }
  inner_product_param {
    num_output: 10
    weight_filler {
      type: "xavier"
    }
    bias_filler {
      type: "constant"
    }
  }
}
layer {
  name: "relu3"
  type: "ReLU"
  bottom: "ip3"
  top: "ip3"
}
layer {
  name: "accuracy"
  type: "Accuracy"
  bottom: "ip3"
  bottom: "label"
  top: "accuracy"
  include {
    phase: TEST
  }
}
layer {
  name: "loss"
  type: "SoftmaxWithLoss"
  bottom: "ip3"
  bottom: "label"
  top: "loss"
}
I0428 20:15:11.926911   382 layer_factory.hpp:77] Creating layer mnist
I0428 20:15:11.926956   382 db_lmdb.cpp:35] Opened lmdb examples/mnist/mnist_test_lmdb
I0428 20:15:11.926969   382 net.cpp:86] Creating Layer mnist
I0428 20:15:11.926973   382 net.cpp:382] mnist -> data
I0428 20:15:11.926981   382 net.cpp:382] mnist -> label
I0428 20:15:11.927062   382 data_layer.cpp:45] output data size: 100,1,28,28
I0428 20:15:11.929121   382 net.cpp:124] Setting up mnist
I0428 20:15:11.929157   382 net.cpp:131] Top shape: 100 1 28 28 (78400)
I0428 20:15:11.929177   382 net.cpp:131] Top shape: 100 (100)
I0428 20:15:11.929183   382 net.cpp:139] Memory required for data: 314000
I0428 20:15:11.929198   382 layer_factory.hpp:77] Creating layer label_mnist_1_split
I0428 20:15:11.929215   382 net.cpp:86] Creating Layer label_mnist_1_split
I0428 20:15:11.929219   382 net.cpp:408] label_mnist_1_split <- label
I0428 20:15:11.929224   382 net.cpp:382] label_mnist_1_split -> label_mnist_1_split_0
I0428 20:15:11.929230   382 net.cpp:382] label_mnist_1_split -> label_mnist_1_split_1
I0428 20:15:11.929319   382 net.cpp:124] Setting up label_mnist_1_split
I0428 20:15:11.929327   382 net.cpp:131] Top shape: 100 (100)
I0428 20:15:11.929330   382 net.cpp:131] Top shape: 100 (100)
I0428 20:15:11.929333   382 net.cpp:139] Memory required for data: 314800
I0428 20:15:11.929337   382 layer_factory.hpp:77] Creating layer conv0
I0428 20:15:11.929344   382 net.cpp:86] Creating Layer conv0
I0428 20:15:11.929347   382 net.cpp:408] conv0 <- data
I0428 20:15:11.929352   382 net.cpp:382] conv0 -> conv0
I0428 20:15:11.931038   382 net.cpp:124] Setting up conv0
I0428 20:15:11.931051   382 net.cpp:131] Top shape: 100 50 24 24 (2880000)
I0428 20:15:11.931071   382 net.cpp:139] Memory required for data: 11834800
I0428 20:15:11.931079   382 layer_factory.hpp:77] Creating layer pool0
I0428 20:15:11.931087   382 net.cpp:86] Creating Layer pool0
I0428 20:15:11.931089   382 net.cpp:408] pool0 <- conv0
I0428 20:15:11.931094   382 net.cpp:382] pool0 -> pool0
I0428 20:15:11.931144   382 net.cpp:124] Setting up pool0
I0428 20:15:11.931149   382 net.cpp:131] Top shape: 100 50 12 12 (720000)
I0428 20:15:11.931152   382 net.cpp:139] Memory required for data: 14714800
I0428 20:15:11.931155   382 layer_factory.hpp:77] Creating layer conv1
I0428 20:15:11.931164   382 net.cpp:86] Creating Layer conv1
I0428 20:15:11.931166   382 net.cpp:408] conv1 <- pool0
I0428 20:15:11.931171   382 net.cpp:382] conv1 -> conv1
I0428 20:15:11.932674   382 net.cpp:124] Setting up conv1
I0428 20:15:11.932698   382 net.cpp:131] Top shape: 100 2 8 8 (12800)
I0428 20:15:11.932703   382 net.cpp:139] Memory required for data: 14766000
I0428 20:15:11.932711   382 layer_factory.hpp:77] Creating layer pool1
I0428 20:15:11.932718   382 net.cpp:86] Creating Layer pool1
I0428 20:15:11.932721   382 net.cpp:408] pool1 <- conv1
I0428 20:15:11.932726   382 net.cpp:382] pool1 -> pool1
I0428 20:15:11.932778   382 net.cpp:124] Setting up pool1
I0428 20:15:11.932785   382 net.cpp:131] Top shape: 100 2 4 4 (3200)
I0428 20:15:11.932788   382 net.cpp:139] Memory required for data: 14778800
I0428 20:15:11.932791   382 layer_factory.hpp:77] Creating layer ip1
I0428 20:15:11.932798   382 net.cpp:86] Creating Layer ip1
I0428 20:15:11.932801   382 net.cpp:408] ip1 <- pool1
I0428 20:15:11.932806   382 net.cpp:382] ip1 -> ip1
I0428 20:15:11.932948   382 net.cpp:124] Setting up ip1
I0428 20:15:11.932962   382 net.cpp:131] Top shape: 100 50 (5000)
I0428 20:15:11.932982   382 net.cpp:139] Memory required for data: 14798800
I0428 20:15:11.932996   382 layer_factory.hpp:77] Creating layer relu1
I0428 20:15:11.933004   382 net.cpp:86] Creating Layer relu1
I0428 20:15:11.933012   382 net.cpp:408] relu1 <- ip1
I0428 20:15:11.933019   382 net.cpp:369] relu1 -> ip1 (in-place)
I0428 20:15:11.933212   382 net.cpp:124] Setting up relu1
I0428 20:15:11.933221   382 net.cpp:131] Top shape: 100 50 (5000)
I0428 20:15:11.933225   382 net.cpp:139] Memory required for data: 14818800
I0428 20:15:11.933229   382 layer_factory.hpp:77] Creating layer ip2
I0428 20:15:11.933253   382 net.cpp:86] Creating Layer ip2
I0428 20:15:11.933256   382 net.cpp:408] ip2 <- ip1
I0428 20:15:11.933261   382 net.cpp:382] ip2 -> ip2
I0428 20:15:11.933367   382 net.cpp:124] Setting up ip2
I0428 20:15:11.933375   382 net.cpp:131] Top shape: 100 10 (1000)
I0428 20:15:11.933379   382 net.cpp:139] Memory required for data: 14822800
I0428 20:15:11.933384   382 layer_factory.hpp:77] Creating layer relu2
I0428 20:15:11.933389   382 net.cpp:86] Creating Layer relu2
I0428 20:15:11.933393   382 net.cpp:408] relu2 <- ip2
I0428 20:15:11.933396   382 net.cpp:369] relu2 -> ip2 (in-place)
I0428 20:15:11.933591   382 net.cpp:124] Setting up relu2
I0428 20:15:11.933600   382 net.cpp:131] Top shape: 100 10 (1000)
I0428 20:15:11.933604   382 net.cpp:139] Memory required for data: 14826800
I0428 20:15:11.933606   382 layer_factory.hpp:77] Creating layer ip3
I0428 20:15:11.933611   382 net.cpp:86] Creating Layer ip3
I0428 20:15:11.933614   382 net.cpp:408] ip3 <- ip2
I0428 20:15:11.933619   382 net.cpp:382] ip3 -> ip3
I0428 20:15:11.933771   382 net.cpp:124] Setting up ip3
I0428 20:15:11.933779   382 net.cpp:131] Top shape: 100 10 (1000)
I0428 20:15:11.933782   382 net.cpp:139] Memory required for data: 14830800
I0428 20:15:11.933790   382 layer_factory.hpp:77] Creating layer relu3
I0428 20:15:11.933795   382 net.cpp:86] Creating Layer relu3
I0428 20:15:11.933799   382 net.cpp:408] relu3 <- ip3
I0428 20:15:11.933804   382 net.cpp:369] relu3 -> ip3 (in-place)
I0428 20:15:11.934659   382 net.cpp:124] Setting up relu3
I0428 20:15:11.934671   382 net.cpp:131] Top shape: 100 10 (1000)
I0428 20:15:11.934689   382 net.cpp:139] Memory required for data: 14834800
I0428 20:15:11.934693   382 layer_factory.hpp:77] Creating layer ip3_relu3_0_split
I0428 20:15:11.934698   382 net.cpp:86] Creating Layer ip3_relu3_0_split
I0428 20:15:11.934702   382 net.cpp:408] ip3_relu3_0_split <- ip3
I0428 20:15:11.934708   382 net.cpp:382] ip3_relu3_0_split -> ip3_relu3_0_split_0
I0428 20:15:11.934715   382 net.cpp:382] ip3_relu3_0_split -> ip3_relu3_0_split_1
I0428 20:15:11.934793   382 net.cpp:124] Setting up ip3_relu3_0_split
I0428 20:15:11.934803   382 net.cpp:131] Top shape: 100 10 (1000)
I0428 20:15:11.934806   382 net.cpp:131] Top shape: 100 10 (1000)
I0428 20:15:11.934808   382 net.cpp:139] Memory required for data: 14842800
I0428 20:15:11.934813   382 layer_factory.hpp:77] Creating layer accuracy
I0428 20:15:11.934818   382 net.cpp:86] Creating Layer accuracy
I0428 20:15:11.934820   382 net.cpp:408] accuracy <- ip3_relu3_0_split_0
I0428 20:15:11.934824   382 net.cpp:408] accuracy <- label_mnist_1_split_0
I0428 20:15:11.934829   382 net.cpp:382] accuracy -> accuracy
…
