…
I0428 20:20:46.745062  1626 net.cpp:296] The NetState phase (0) differed from the phase (1) specified by a rule in layer mnist
I0428 20:20:46.745081  1626 net.cpp:296] The NetState phase (0) differed from the phase (1) specified by a rule in layer accuracy
I0428 20:20:46.745170  1626 net.cpp:53] Initializing net from parameters: 
name: "LeNet"
state {
  phase: TRAIN
  level: 0
  stage: ""
}
layer {
  name: "mnist"
  type: "Data"
  top: "data"
  top: "label"
  include {
    phase: TRAIN
  }
  transform_param {
    scale: 0.00390625
  }
  data_param {
    source: "examples/mnist/mnist_train_lmdb"
    batch_size: 64
    backend: LMDB
  }
}
layer {
  name: "conv0"
  type: "Convolution"
  bottom: "data"
  top: "conv0"
  param {
    lr_mult: 1
  }
  param {
    lr_mult: 2
  }
  convolution_param {
    num_output: 50
    kernel_size: 5
    stride: 1
    weight_filler {
      type: "xavier"
    }
    bias_filler {
      type: "constant"
    }
  }
}
layer {
  name: "pool0"
  type: "Pooling"
  bottom: "conv0"
  top: "pool0"
  pooling_param {
    pool: MAX
    kernel_size: 2
    stride: 2
  }
}
layer {
  name: "conv1"
  type: "Convolution"
  bottom: "pool0"
  top: "conv1"
  param {
    lr_mult: 1
  }
  param {
    lr_mult: 2
  }
  convolution_param {
    num_output: 50
    kernel_size: 5
    stride: 1
    weight_filler {
      type: "xavier"
    }
    bias_filler {
      type: "constant"
    }
  }
}
layer {
  name: "pool1"
  type: "Pooling"
  bottom: "conv1"
  top: "pool1"
  pooling_param {
    pool: MAX
    kernel_size: 2
    stride: 2
  }
}
layer {
  name: "ip1"
  type: "InnerProduct"
  bottom: "pool1"
  top: "ip1"
  param {
    lr_mult: 1
  }
  param {
    lr_mult: 2
  }
  inner_product_param {
    num_output: 10
    weight_filler {
      type: "xavier"
    }
    bias_filler {
      type: "constant"
    }
  }
}
layer {
  name: "relu1"
  type: "ReLU"
  bottom: "ip1"
  top: "ip1"
}
layer {
  name: "ip2"
  type: "InnerProduct"
  bottom: "ip1"
  top: "ip2"
  param {
    lr_mult: 1
  }
  param {
    lr_mult: 2
  }
  inner_product_param {
    num_output: 10
    weight_filler {
      type: "xavier"
    }
    bias_filler {
      type: "constant"
    }
  }
}
layer {
  name: "relu2"
  type: "ReLU"
  bottom: "ip2"
  top: "ip2"
}
layer {
  name: "loss"
  type: "SoftmaxWithLoss"
  bottom: "ip2"
  bottom: "label"
  top: "loss"
}
I0428 20:20:46.745249  1626 layer_factory.hpp:77] Creating layer mnist
I0428 20:20:46.745352  1626 db_lmdb.cpp:35] Opened lmdb examples/mnist/mnist_train_lmdb
I0428 20:20:46.745375  1626 net.cpp:86] Creating Layer mnist
I0428 20:20:46.745384  1626 net.cpp:382] mnist -> data
I0428 20:20:46.745407  1626 net.cpp:382] mnist -> label
I0428 20:20:46.746498  1626 data_layer.cpp:45] output data size: 64,1,28,28
I0428 20:20:46.748961  1626 net.cpp:124] Setting up mnist
I0428 20:20:46.748980  1626 net.cpp:131] Top shape: 64 1 28 28 (50176)
I0428 20:20:46.748986  1626 net.cpp:131] Top shape: 64 (64)
I0428 20:20:46.748988  1626 net.cpp:139] Memory required for data: 200960
I0428 20:20:46.748996  1626 layer_factory.hpp:77] Creating layer conv0
I0428 20:20:46.749033  1626 net.cpp:86] Creating Layer conv0
I0428 20:20:46.749038  1626 net.cpp:408] conv0 <- data
I0428 20:20:46.749052  1626 net.cpp:382] conv0 -> conv0
I0428 20:20:47.035918  1626 net.cpp:124] Setting up conv0
I0428 20:20:47.035945  1626 net.cpp:131] Top shape: 64 50 24 24 (1843200)
I0428 20:20:47.035949  1626 net.cpp:139] Memory required for data: 7573760
I0428 20:20:47.035981  1626 layer_factory.hpp:77] Creating layer pool0
I0428 20:20:47.035995  1626 net.cpp:86] Creating Layer pool0
I0428 20:20:47.035998  1626 net.cpp:408] pool0 <- conv0
I0428 20:20:47.036005  1626 net.cpp:382] pool0 -> pool0
I0428 20:20:47.036052  1626 net.cpp:124] Setting up pool0
I0428 20:20:47.036058  1626 net.cpp:131] Top shape: 64 50 12 12 (460800)
I0428 20:20:47.036061  1626 net.cpp:139] Memory required for data: 9416960
I0428 20:20:47.036063  1626 layer_factory.hpp:77] Creating layer conv1
I0428 20:20:47.036074  1626 net.cpp:86] Creating Layer conv1
I0428 20:20:47.036078  1626 net.cpp:408] conv1 <- pool0
I0428 20:20:47.036082  1626 net.cpp:382] conv1 -> conv1
I0428 20:20:47.038290  1626 net.cpp:124] Setting up conv1
I0428 20:20:47.038305  1626 net.cpp:131] Top shape: 64 50 8 8 (204800)
I0428 20:20:47.038308  1626 net.cpp:139] Memory required for data: 10236160
I0428 20:20:47.038316  1626 layer_factory.hpp:77] Creating layer pool1
I0428 20:20:47.038323  1626 net.cpp:86] Creating Layer pool1
I0428 20:20:47.038327  1626 net.cpp:408] pool1 <- conv1
I0428 20:20:47.038332  1626 net.cpp:382] pool1 -> pool1
I0428 20:20:47.038368  1626 net.cpp:124] Setting up pool1
I0428 20:20:47.038374  1626 net.cpp:131] Top shape: 64 50 4 4 (51200)
I0428 20:20:47.038377  1626 net.cpp:139] Memory required for data: 10440960
I0428 20:20:47.038379  1626 layer_factory.hpp:77] Creating layer ip1
I0428 20:20:47.038386  1626 net.cpp:86] Creating Layer ip1
I0428 20:20:47.038389  1626 net.cpp:408] ip1 <- pool1
I0428 20:20:47.038393  1626 net.cpp:382] ip1 -> ip1
I0428 20:20:47.039342  1626 net.cpp:124] Setting up ip1
I0428 20:20:47.039355  1626 net.cpp:131] Top shape: 64 10 (640)
I0428 20:20:47.039360  1626 net.cpp:139] Memory required for data: 10443520
I0428 20:20:47.039366  1626 layer_factory.hpp:77] Creating layer relu1
I0428 20:20:47.039372  1626 net.cpp:86] Creating Layer relu1
I0428 20:20:47.039376  1626 net.cpp:408] relu1 <- ip1
I0428 20:20:47.039381  1626 net.cpp:369] relu1 -> ip1 (in-place)
I0428 20:20:47.039553  1626 net.cpp:124] Setting up relu1
I0428 20:20:47.039562  1626 net.cpp:131] Top shape: 64 10 (640)
I0428 20:20:47.039566  1626 net.cpp:139] Memory required for data: 10446080
I0428 20:20:47.039568  1626 layer_factory.hpp:77] Creating layer ip2
I0428 20:20:47.039575  1626 net.cpp:86] Creating Layer ip2
I0428 20:20:47.039578  1626 net.cpp:408] ip2 <- ip1
I0428 20:20:47.039583  1626 net.cpp:382] ip2 -> ip2
I0428 20:20:47.039676  1626 net.cpp:124] Setting up ip2
I0428 20:20:47.039683  1626 net.cpp:131] Top shape: 64 10 (640)
I0428 20:20:47.039686  1626 net.cpp:139] Memory required for data: 10448640
I0428 20:20:47.039691  1626 layer_factory.hpp:77] Creating layer relu2
I0428 20:20:47.039697  1626 net.cpp:86] Creating Layer relu2
I0428 20:20:47.039700  1626 net.cpp:408] relu2 <- ip2
I0428 20:20:47.039705  1626 net.cpp:369] relu2 -> ip2 (in-place)
I0428 20:20:47.040411  1626 net.cpp:124] Setting up relu2
I0428 20:20:47.040423  1626 net.cpp:131] Top shape: 64 10 (640)
I0428 20:20:47.040427  1626 net.cpp:139] Memory required for data: 10451200
I0428 20:20:47.040431  1626 layer_factory.hpp:77] Creating layer loss
I0428 20:20:47.040436  1626 net.cpp:86] Creating Layer loss
I0428 20:20:47.040439  1626 net.cpp:408] loss <- ip2
I0428 20:20:47.040444  1626 net.cpp:408] loss <- label
I0428 20:20:47.040449  1626 net.cpp:382] loss -> loss
I0428 20:20:47.040467  1626 layer_factory.hpp:77] Creating layer loss
…
I0428 20:20:47.041107  1626 solver.cpp:173] Creating test net (#0) specified by net file: ECE595/mnist/train_test/var_everything2/lenet_train_test1370.prototxt
I0428 20:20:47.041134  1626 net.cpp:296] The NetState phase (1) differed from the phase (0) specified by a rule in layer mnist
I0428 20:20:47.041234  1626 net.cpp:53] Initializing net from parameters: 
name: "LeNet"
state {
  phase: TEST
}
layer {
  name: "mnist"
  type: "Data"
  top: "data"
  top: "label"
  include {
    phase: TEST
  }
  transform_param {
    scale: 0.00390625
  }
  data_param {
    source: "examples/mnist/mnist_test_lmdb"
    batch_size: 100
    backend: LMDB
  }
}
layer {
  name: "conv0"
  type: "Convolution"
  bottom: "data"
  top: "conv0"
  param {
    lr_mult: 1
  }
  param {
    lr_mult: 2
  }
  convolution_param {
    num_output: 50
    kernel_size: 5
    stride: 1
    weight_filler {
      type: "xavier"
    }
    bias_filler {
      type: "constant"
    }
  }
}
layer {
  name: "pool0"
  type: "Pooling"
  bottom: "conv0"
  top: "pool0"
  pooling_param {
    pool: MAX
    kernel_size: 2
    stride: 2
  }
}
layer {
  name: "conv1"
  type: "Convolution"
  bottom: "pool0"
  top: "conv1"
  param {
    lr_mult: 1
  }
  param {
    lr_mult: 2
  }
  convolution_param {
    num_output: 50
    kernel_size: 5
    stride: 1
    weight_filler {
      type: "xavier"
    }
    bias_filler {
      type: "constant"
    }
  }
}
layer {
  name: "pool1"
  type: "Pooling"
  bottom: "conv1"
  top: "pool1"
  pooling_param {
    pool: MAX
    kernel_size: 2
    stride: 2
  }
}
layer {
  name: "ip1"
  type: "InnerProduct"
  bottom: "pool1"
  top: "ip1"
  param {
    lr_mult: 1
  }
  param {
    lr_mult: 2
  }
  inner_product_param {
    num_output: 10
    weight_filler {
      type: "xavier"
    }
    bias_filler {
      type: "constant"
    }
  }
}
layer {
  name: "relu1"
  type: "ReLU"
  bottom: "ip1"
  top: "ip1"
}
layer {
  name: "ip2"
  type: "InnerProduct"
  bottom: "ip1"
  top: "ip2"
  param {
    lr_mult: 1
  }
  param {
    lr_mult: 2
  }
  inner_product_param {
    num_output: 10
    weight_filler {
      type: "xavier"
    }
    bias_filler {
      type: "constant"
    }
  }
}
layer {
  name: "relu2"
  type: "ReLU"
  bottom: "ip2"
  top: "ip2"
}
layer {
  name: "accuracy"
  type: "Accuracy"
  bottom: "ip2"
  bottom: "label"
  top: "accuracy"
  include {
    phase: TEST
  }
}
layer {
  name: "loss"
  type: "SoftmaxWithLoss"
  bottom: "ip2"
  bottom: "label"
  top: "loss"
}
I0428 20:20:47.041326  1626 layer_factory.hpp:77] Creating layer mnist
I0428 20:20:47.041373  1626 db_lmdb.cpp:35] Opened lmdb examples/mnist/mnist_test_lmdb
I0428 20:20:47.041384  1626 net.cpp:86] Creating Layer mnist
I0428 20:20:47.041389  1626 net.cpp:382] mnist -> data
I0428 20:20:47.041398  1626 net.cpp:382] mnist -> label
I0428 20:20:47.041496  1626 data_layer.cpp:45] output data size: 100,1,28,28
I0428 20:20:47.043339  1626 net.cpp:124] Setting up mnist
I0428 20:20:47.043354  1626 net.cpp:131] Top shape: 100 1 28 28 (78400)
I0428 20:20:47.043359  1626 net.cpp:131] Top shape: 100 (100)
I0428 20:20:47.043361  1626 net.cpp:139] Memory required for data: 314000
I0428 20:20:47.043365  1626 layer_factory.hpp:77] Creating layer label_mnist_1_split
I0428 20:20:47.043372  1626 net.cpp:86] Creating Layer label_mnist_1_split
I0428 20:20:47.043375  1626 net.cpp:408] label_mnist_1_split <- label
I0428 20:20:47.043380  1626 net.cpp:382] label_mnist_1_split -> label_mnist_1_split_0
I0428 20:20:47.043386  1626 net.cpp:382] label_mnist_1_split -> label_mnist_1_split_1
I0428 20:20:47.043442  1626 net.cpp:124] Setting up label_mnist_1_split
I0428 20:20:47.043447  1626 net.cpp:131] Top shape: 100 (100)
I0428 20:20:47.043452  1626 net.cpp:131] Top shape: 100 (100)
I0428 20:20:47.043453  1626 net.cpp:139] Memory required for data: 314800
I0428 20:20:47.043457  1626 layer_factory.hpp:77] Creating layer conv0
I0428 20:20:47.043465  1626 net.cpp:86] Creating Layer conv0
I0428 20:20:47.043468  1626 net.cpp:408] conv0 <- data
I0428 20:20:47.043473  1626 net.cpp:382] conv0 -> conv0
I0428 20:20:47.045162  1626 net.cpp:124] Setting up conv0
I0428 20:20:47.045176  1626 net.cpp:131] Top shape: 100 50 24 24 (2880000)
I0428 20:20:47.045181  1626 net.cpp:139] Memory required for data: 11834800
I0428 20:20:47.045188  1626 layer_factory.hpp:77] Creating layer pool0
I0428 20:20:47.045195  1626 net.cpp:86] Creating Layer pool0
I0428 20:20:47.045198  1626 net.cpp:408] pool0 <- conv0
I0428 20:20:47.045203  1626 net.cpp:382] pool0 -> pool0
I0428 20:20:47.045240  1626 net.cpp:124] Setting up pool0
I0428 20:20:47.045245  1626 net.cpp:131] Top shape: 100 50 12 12 (720000)
I0428 20:20:47.045248  1626 net.cpp:139] Memory required for data: 14714800
I0428 20:20:47.045251  1626 layer_factory.hpp:77] Creating layer conv1
I0428 20:20:47.045259  1626 net.cpp:86] Creating Layer conv1
I0428 20:20:47.045262  1626 net.cpp:408] conv1 <- pool0
I0428 20:20:47.045267  1626 net.cpp:382] conv1 -> conv1
I0428 20:20:47.047132  1626 net.cpp:124] Setting up conv1
I0428 20:20:47.047144  1626 net.cpp:131] Top shape: 100 50 8 8 (320000)
I0428 20:20:47.047148  1626 net.cpp:139] Memory required for data: 15994800
I0428 20:20:47.047157  1626 layer_factory.hpp:77] Creating layer pool1
I0428 20:20:47.047163  1626 net.cpp:86] Creating Layer pool1
I0428 20:20:47.047165  1626 net.cpp:408] pool1 <- conv1
I0428 20:20:47.047171  1626 net.cpp:382] pool1 -> pool1
I0428 20:20:47.047209  1626 net.cpp:124] Setting up pool1
I0428 20:20:47.047215  1626 net.cpp:131] Top shape: 100 50 4 4 (80000)
I0428 20:20:47.047219  1626 net.cpp:139] Memory required for data: 16314800
I0428 20:20:47.047222  1626 layer_factory.hpp:77] Creating layer ip1
I0428 20:20:47.047227  1626 net.cpp:86] Creating Layer ip1
I0428 20:20:47.047230  1626 net.cpp:408] ip1 <- pool1
I0428 20:20:47.047235  1626 net.cpp:382] ip1 -> ip1
I0428 20:20:47.047405  1626 net.cpp:124] Setting up ip1
I0428 20:20:47.047425  1626 net.cpp:131] Top shape: 100 10 (1000)
I0428 20:20:47.047428  1626 net.cpp:139] Memory required for data: 16318800
I0428 20:20:47.047435  1626 layer_factory.hpp:77] Creating layer relu1
I0428 20:20:47.047441  1626 net.cpp:86] Creating Layer relu1
I0428 20:20:47.047444  1626 net.cpp:408] relu1 <- ip1
I0428 20:20:47.047448  1626 net.cpp:369] relu1 -> ip1 (in-place)
I0428 20:20:47.047610  1626 net.cpp:124] Setting up relu1
I0428 20:20:47.047617  1626 net.cpp:131] Top shape: 100 10 (1000)
I0428 20:20:47.047621  1626 net.cpp:139] Memory required for data: 16322800
I0428 20:20:47.047624  1626 layer_factory.hpp:77] Creating layer ip2
I0428 20:20:47.047631  1626 net.cpp:86] Creating Layer ip2
I0428 20:20:47.047636  1626 net.cpp:408] ip2 <- ip1
I0428 20:20:47.047641  1626 net.cpp:382] ip2 -> ip2
I0428 20:20:47.047736  1626 net.cpp:124] Setting up ip2
I0428 20:20:47.047744  1626 net.cpp:131] Top shape: 100 10 (1000)
I0428 20:20:47.047746  1626 net.cpp:139] Memory required for data: 16326800
I0428 20:20:47.047752  1626 layer_factory.hpp:77] Creating layer relu2
I0428 20:20:47.047757  1626 net.cpp:86] Creating Layer relu2
I0428 20:20:47.047760  1626 net.cpp:408] relu2 <- ip2
I0428 20:20:47.047765  1626 net.cpp:369] relu2 -> ip2 (in-place)
I0428 20:20:47.047924  1626 net.cpp:124] Setting up relu2
I0428 20:20:47.047932  1626 net.cpp:131] Top shape: 100 10 (1000)
I0428 20:20:47.047935  1626 net.cpp:139] Memory required for data: 16330800
I0428 20:20:47.047940  1626 layer_factory.hpp:77] Creating layer ip2_relu2_0_split
I0428 20:20:47.047943  1626 net.cpp:86] Creating Layer ip2_relu2_0_split
I0428 20:20:47.047953  1626 net.cpp:408] ip2_relu2_0_split <- ip2
I0428 20:20:47.047958  1626 net.cpp:382] ip2_relu2_0_split -> ip2_relu2_0_split_0
I0428 20:20:47.047974  1626 net.cpp:382] ip2_relu2_0_split -> ip2_relu2_0_split_1
I0428 20:20:47.048009  1626 net.cpp:124] Setting up ip2_relu2_0_split
I0428 20:20:47.048017  1626 net.cpp:131] Top shape: 100 10 (1000)
I0428 20:20:47.048020  1626 net.cpp:131] Top shape: 100 10 (1000)
I0428 20:20:47.048023  1626 net.cpp:139] Memory required for data: 16338800
I0428 20:20:47.048025  1626 layer_factory.hpp:77] Creating layer accuracy
I0428 20:20:47.048030  1626 net.cpp:86] Creating Layer accuracy
I0428 20:20:47.048033  1626 net.cpp:408] accuracy <- ip2_relu2_0_split_0
I0428 20:20:47.048038  1626 net.cpp:408] accuracy <- label_mnist_1_split_0
I0428 20:20:47.048043  1626 net.cpp:382] accuracy -> accuracy
…
