…
I0428 19:53:28.507055 27773 net.cpp:296] The NetState phase (0) differed from the phase (1) specified by a rule in layer mnist
I0428 19:53:28.507073 27773 net.cpp:296] The NetState phase (0) differed from the phase (1) specified by a rule in layer accuracy
I0428 19:53:28.507179 27773 net.cpp:53] Initializing net from parameters: 
name: "LeNet"
state {
  phase: TRAIN
  level: 0
  stage: ""
}
layer {
  name: "mnist"
  type: "Data"
  top: "data"
  top: "label"
  include {
    phase: TRAIN
  }
  transform_param {
    scale: 0.00390625
  }
  data_param {
    source: "examples/mnist/mnist_train_lmdb"
    batch_size: 64
    backend: LMDB
  }
}
layer {
  name: "conv0"
  type: "Convolution"
  bottom: "data"
  top: "conv0"
  param {
    lr_mult: 1
  }
  param {
    lr_mult: 2
  }
  convolution_param {
    num_output: 5
    kernel_size: 5
    stride: 1
    weight_filler {
      type: "xavier"
    }
    bias_filler {
      type: "constant"
    }
  }
}
layer {
  name: "pool0"
  type: "Pooling"
  bottom: "conv0"
  top: "pool0"
  pooling_param {
    pool: MAX
    kernel_size: 2
    stride: 2
  }
}
layer {
  name: "conv1"
  type: "Convolution"
  bottom: "pool0"
  top: "conv1"
  param {
    lr_mult: 1
  }
  param {
    lr_mult: 2
  }
  convolution_param {
    num_output: 50
    kernel_size: 5
    stride: 1
    weight_filler {
      type: "xavier"
    }
    bias_filler {
      type: "constant"
    }
  }
}
layer {
  name: "pool1"
  type: "Pooling"
  bottom: "conv1"
  top: "pool1"
  pooling_param {
    pool: MAX
    kernel_size: 2
    stride: 2
  }
}
layer {
  name: "ip1"
  type: "InnerProduct"
  bottom: "pool1"
  top: "ip1"
  param {
    lr_mult: 1
  }
  param {
    lr_mult: 2
  }
  inner_product_param {
    num_output: 25
    weight_filler {
      type: "xavier"
    }
    bias_filler {
      type: "constant"
    }
  }
}
layer {
  name: "relu1"
  type: "ReLU"
  bottom: "ip1"
  top: "ip1"
}
layer {
  name: "ip2"
  type: "InnerProduct"
  bottom: "ip1"
  top: "ip2"
  param {
    lr_mult: 1
  }
  param {
    lr_mult: 2
  }
  inner_product_param {
    num_output: 25
    weight_filler {
      type: "xavier"
    }
    bias_filler {
      type: "constant"
    }
  }
}
layer {
  name: "relu2"
  type: "ReLU"
  bottom: "ip2"
  top: "ip2"
}
layer {
  name: "ip3"
  type: "InnerProduct"
  bottom: "ip2"
  top: "ip3"
  param {
    lr_mult: 1
  }
  param {
    lr_mult: 2
  }
  inner_product_param {
    num_output: 10
    weight_filler {
      type: "xavier"
    }
    bias_filler {
      type: "constant"
    }
  }
}
layer {
  name: "relu3"
  type: "ReLU"
  bottom: "ip3"
  top: "ip3"
}
layer {
  name: "loss"
  type: "SoftmaxWithLoss"
  bottom: "ip3"
  bottom: "label"
  top: "loss"
}
I0428 19:53:28.507258 27773 layer_factory.hpp:77] Creating layer mnist
I0428 19:53:28.507359 27773 db_lmdb.cpp:35] Opened lmdb examples/mnist/mnist_train_lmdb
I0428 19:53:28.507385 27773 net.cpp:86] Creating Layer mnist
I0428 19:53:28.507392 27773 net.cpp:382] mnist -> data
I0428 19:53:28.507417 27773 net.cpp:382] mnist -> label
I0428 19:53:28.508510 27773 data_layer.cpp:45] output data size: 64,1,28,28
I0428 19:53:28.510962 27773 net.cpp:124] Setting up mnist
I0428 19:53:28.510980 27773 net.cpp:131] Top shape: 64 1 28 28 (50176)
I0428 19:53:28.510988 27773 net.cpp:131] Top shape: 64 (64)
I0428 19:53:28.510992 27773 net.cpp:139] Memory required for data: 200960
I0428 19:53:28.510998 27773 layer_factory.hpp:77] Creating layer conv0
I0428 19:53:28.511014 27773 net.cpp:86] Creating Layer conv0
I0428 19:53:28.511036 27773 net.cpp:408] conv0 <- data
I0428 19:53:28.511050 27773 net.cpp:382] conv0 -> conv0
I0428 19:53:28.796818 27773 net.cpp:124] Setting up conv0
I0428 19:53:28.796844 27773 net.cpp:131] Top shape: 64 5 24 24 (184320)
I0428 19:53:28.796849 27773 net.cpp:139] Memory required for data: 938240
I0428 19:53:28.796864 27773 layer_factory.hpp:77] Creating layer pool0
I0428 19:53:28.796885 27773 net.cpp:86] Creating Layer pool0
I0428 19:53:28.796888 27773 net.cpp:408] pool0 <- conv0
I0428 19:53:28.796895 27773 net.cpp:382] pool0 -> pool0
I0428 19:53:28.796954 27773 net.cpp:124] Setting up pool0
I0428 19:53:28.796962 27773 net.cpp:131] Top shape: 64 5 12 12 (46080)
I0428 19:53:28.796964 27773 net.cpp:139] Memory required for data: 1122560
I0428 19:53:28.796968 27773 layer_factory.hpp:77] Creating layer conv1
I0428 19:53:28.796979 27773 net.cpp:86] Creating Layer conv1
I0428 19:53:28.796983 27773 net.cpp:408] conv1 <- pool0
I0428 19:53:28.796989 27773 net.cpp:382] conv1 -> conv1
I0428 19:53:28.799849 27773 net.cpp:124] Setting up conv1
I0428 19:53:28.799863 27773 net.cpp:131] Top shape: 64 50 8 8 (204800)
I0428 19:53:28.799867 27773 net.cpp:139] Memory required for data: 1941760
I0428 19:53:28.799876 27773 layer_factory.hpp:77] Creating layer pool1
I0428 19:53:28.799885 27773 net.cpp:86] Creating Layer pool1
I0428 19:53:28.799888 27773 net.cpp:408] pool1 <- conv1
I0428 19:53:28.799893 27773 net.cpp:382] pool1 -> pool1
I0428 19:53:28.799934 27773 net.cpp:124] Setting up pool1
I0428 19:53:28.799939 27773 net.cpp:131] Top shape: 64 50 4 4 (51200)
I0428 19:53:28.799942 27773 net.cpp:139] Memory required for data: 2146560
I0428 19:53:28.799944 27773 layer_factory.hpp:77] Creating layer ip1
I0428 19:53:28.799952 27773 net.cpp:86] Creating Layer ip1
I0428 19:53:28.799968 27773 net.cpp:408] ip1 <- pool1
I0428 19:53:28.799973 27773 net.cpp:382] ip1 -> ip1
I0428 19:53:28.800194 27773 net.cpp:124] Setting up ip1
I0428 19:53:28.800202 27773 net.cpp:131] Top shape: 64 25 (1600)
I0428 19:53:28.800205 27773 net.cpp:139] Memory required for data: 2152960
I0428 19:53:28.800212 27773 layer_factory.hpp:77] Creating layer relu1
I0428 19:53:28.800222 27773 net.cpp:86] Creating Layer relu1
I0428 19:53:28.800228 27773 net.cpp:408] relu1 <- ip1
I0428 19:53:28.800235 27773 net.cpp:369] relu1 -> ip1 (in-place)
I0428 19:53:28.800411 27773 net.cpp:124] Setting up relu1
I0428 19:53:28.800420 27773 net.cpp:131] Top shape: 64 25 (1600)
I0428 19:53:28.800422 27773 net.cpp:139] Memory required for data: 2159360
I0428 19:53:28.800426 27773 layer_factory.hpp:77] Creating layer ip2
I0428 19:53:28.800432 27773 net.cpp:86] Creating Layer ip2
I0428 19:53:28.800436 27773 net.cpp:408] ip2 <- ip1
I0428 19:53:28.800441 27773 net.cpp:382] ip2 -> ip2
I0428 19:53:28.800549 27773 net.cpp:124] Setting up ip2
I0428 19:53:28.800555 27773 net.cpp:131] Top shape: 64 25 (1600)
I0428 19:53:28.800559 27773 net.cpp:139] Memory required for data: 2165760
I0428 19:53:28.800564 27773 layer_factory.hpp:77] Creating layer relu2
I0428 19:53:28.800570 27773 net.cpp:86] Creating Layer relu2
I0428 19:53:28.800575 27773 net.cpp:408] relu2 <- ip2
I0428 19:53:28.800580 27773 net.cpp:369] relu2 -> ip2 (in-place)
I0428 19:53:28.801338 27773 net.cpp:124] Setting up relu2
I0428 19:53:28.801352 27773 net.cpp:131] Top shape: 64 25 (1600)
I0428 19:53:28.801355 27773 net.cpp:139] Memory required for data: 2172160
I0428 19:53:28.801358 27773 layer_factory.hpp:77] Creating layer ip3
I0428 19:53:28.801365 27773 net.cpp:86] Creating Layer ip3
I0428 19:53:28.801369 27773 net.cpp:408] ip3 <- ip2
I0428 19:53:28.801375 27773 net.cpp:382] ip3 -> ip3
I0428 19:53:28.801493 27773 net.cpp:124] Setting up ip3
I0428 19:53:28.801501 27773 net.cpp:131] Top shape: 64 10 (640)
I0428 19:53:28.801503 27773 net.cpp:139] Memory required for data: 2174720
I0428 19:53:28.801512 27773 layer_factory.hpp:77] Creating layer relu3
I0428 19:53:28.801518 27773 net.cpp:86] Creating Layer relu3
I0428 19:53:28.801535 27773 net.cpp:408] relu3 <- ip3
I0428 19:53:28.801539 27773 net.cpp:369] relu3 -> ip3 (in-place)
I0428 19:53:28.801715 27773 net.cpp:124] Setting up relu3
I0428 19:53:28.801725 27773 net.cpp:131] Top shape: 64 10 (640)
I0428 19:53:28.801728 27773 net.cpp:139] Memory required for data: 2177280
I0428 19:53:28.801731 27773 layer_factory.hpp:77] Creating layer loss
I0428 19:53:28.801738 27773 net.cpp:86] Creating Layer loss
I0428 19:53:28.801740 27773 net.cpp:408] loss <- ip3
I0428 19:53:28.801744 27773 net.cpp:408] loss <- label
I0428 19:53:28.801749 27773 net.cpp:382] loss -> loss
I0428 19:53:28.801766 27773 layer_factory.hpp:77] Creating layer loss
…
I0428 19:53:28.802479 27773 solver.cpp:173] Creating test net (#0) specified by net file: ECE595/mnist/train_test/var_everything2/lenet_train_test688.prototxt
I0428 19:53:28.802505 27773 net.cpp:296] The NetState phase (1) differed from the phase (0) specified by a rule in layer mnist
I0428 19:53:28.802600 27773 net.cpp:53] Initializing net from parameters: 
name: "LeNet"
state {
  phase: TEST
}
layer {
  name: "mnist"
  type: "Data"
  top: "data"
  top: "label"
  include {
    phase: TEST
  }
  transform_param {
    scale: 0.00390625
  }
  data_param {
    source: "examples/mnist/mnist_test_lmdb"
    batch_size: 100
    backend: LMDB
  }
}
layer {
  name: "conv0"
  type: "Convolution"
  bottom: "data"
  top: "conv0"
  param {
    lr_mult: 1
  }
  param {
    lr_mult: 2
  }
  convolution_param {
    num_output: 5
    kernel_size: 5
    stride: 1
    weight_filler {
      type: "xavier"
    }
    bias_filler {
      type: "constant"
    }
  }
}
layer {
  name: "pool0"
  type: "Pooling"
  bottom: "conv0"
  top: "pool0"
  pooling_param {
    pool: MAX
    kernel_size: 2
    stride: 2
  }
}
layer {
  name: "conv1"
  type: "Convolution"
  bottom: "pool0"
  top: "conv1"
  param {
    lr_mult: 1
  }
  param {
    lr_mult: 2
  }
  convolution_param {
    num_output: 50
    kernel_size: 5
    stride: 1
    weight_filler {
      type: "xavier"
    }
    bias_filler {
      type: "constant"
    }
  }
}
layer {
  name: "pool1"
  type: "Pooling"
  bottom: "conv1"
  top: "pool1"
  pooling_param {
    pool: MAX
    kernel_size: 2
    stride: 2
  }
}
layer {
  name: "ip1"
  type: "InnerProduct"
  bottom: "pool1"
  top: "ip1"
  param {
    lr_mult: 1
  }
  param {
    lr_mult: 2
  }
  inner_product_param {
    num_output: 25
    weight_filler {
      type: "xavier"
    }
    bias_filler {
      type: "constant"
    }
  }
}
layer {
  name: "relu1"
  type: "ReLU"
  bottom: "ip1"
  top: "ip1"
}
layer {
  name: "ip2"
  type: "InnerProduct"
  bottom: "ip1"
  top: "ip2"
  param {
    lr_mult: 1
  }
  param {
    lr_mult: 2
  }
  inner_product_param {
    num_output: 25
    weight_filler {
      type: "xavier"
    }
    bias_filler {
      type: "constant"
    }
  }
}
layer {
  name: "relu2"
  type: "ReLU"
  bottom: "ip2"
  top: "ip2"
}
layer {
  name: "ip3"
  type: "InnerProduct"
  bottom: "ip2"
  top: "ip3"
  param {
    lr_mult: 1
  }
  param {
    lr_mult: 2
  }
  inner_product_param {
    num_output: 10
    weight_filler {
      type: "xavier"
    }
    bias_filler {
      type: "constant"
    }
  }
}
layer {
  name: "relu3"
  type: "ReLU"
  bottom: "ip3"
  top: "ip3"
}
layer {
  name: "accuracy"
  type: "Accuracy"
  bottom: "ip3"
  bottom: "label"
  top: "accuracy"
  include {
    phase: TEST
  }
}
layer {
  name: "loss"
  type: "SoftmaxWithLoss"
  bottom: "ip3"
  bottom: "label"
  top: "loss"
}
I0428 19:53:28.802683 27773 layer_factory.hpp:77] Creating layer mnist
I0428 19:53:28.802729 27773 db_lmdb.cpp:35] Opened lmdb examples/mnist/mnist_test_lmdb
I0428 19:53:28.802752 27773 net.cpp:86] Creating Layer mnist
I0428 19:53:28.802758 27773 net.cpp:382] mnist -> data
I0428 19:53:28.802765 27773 net.cpp:382] mnist -> label
I0428 19:53:28.802852 27773 data_layer.cpp:45] output data size: 100,1,28,28
I0428 19:53:28.804852 27773 net.cpp:124] Setting up mnist
I0428 19:53:28.804864 27773 net.cpp:131] Top shape: 100 1 28 28 (78400)
I0428 19:53:28.804886 27773 net.cpp:131] Top shape: 100 (100)
I0428 19:53:28.804889 27773 net.cpp:139] Memory required for data: 314000
I0428 19:53:28.804893 27773 layer_factory.hpp:77] Creating layer label_mnist_1_split
I0428 19:53:28.804903 27773 net.cpp:86] Creating Layer label_mnist_1_split
I0428 19:53:28.804908 27773 net.cpp:408] label_mnist_1_split <- label
I0428 19:53:28.804913 27773 net.cpp:382] label_mnist_1_split -> label_mnist_1_split_0
I0428 19:53:28.804920 27773 net.cpp:382] label_mnist_1_split -> label_mnist_1_split_1
I0428 19:53:28.805011 27773 net.cpp:124] Setting up label_mnist_1_split
I0428 19:53:28.805019 27773 net.cpp:131] Top shape: 100 (100)
I0428 19:53:28.805023 27773 net.cpp:131] Top shape: 100 (100)
I0428 19:53:28.805027 27773 net.cpp:139] Memory required for data: 314800
I0428 19:53:28.805029 27773 layer_factory.hpp:77] Creating layer conv0
I0428 19:53:28.805038 27773 net.cpp:86] Creating Layer conv0
I0428 19:53:28.805042 27773 net.cpp:408] conv0 <- data
I0428 19:53:28.805048 27773 net.cpp:382] conv0 -> conv0
I0428 19:53:28.806766 27773 net.cpp:124] Setting up conv0
I0428 19:53:28.806779 27773 net.cpp:131] Top shape: 100 5 24 24 (288000)
I0428 19:53:28.806784 27773 net.cpp:139] Memory required for data: 1466800
I0428 19:53:28.806793 27773 layer_factory.hpp:77] Creating layer pool0
I0428 19:53:28.806800 27773 net.cpp:86] Creating Layer pool0
I0428 19:53:28.806803 27773 net.cpp:408] pool0 <- conv0
I0428 19:53:28.806809 27773 net.cpp:382] pool0 -> pool0
I0428 19:53:28.806848 27773 net.cpp:124] Setting up pool0
I0428 19:53:28.806852 27773 net.cpp:131] Top shape: 100 5 12 12 (72000)
I0428 19:53:28.806855 27773 net.cpp:139] Memory required for data: 1754800
I0428 19:53:28.806859 27773 layer_factory.hpp:77] Creating layer conv1
I0428 19:53:28.806869 27773 net.cpp:86] Creating Layer conv1
I0428 19:53:28.806872 27773 net.cpp:408] conv1 <- pool0
I0428 19:53:28.806877 27773 net.cpp:382] conv1 -> conv1
I0428 19:53:28.808436 27773 net.cpp:124] Setting up conv1
I0428 19:53:28.808450 27773 net.cpp:131] Top shape: 100 50 8 8 (320000)
I0428 19:53:28.808454 27773 net.cpp:139] Memory required for data: 3034800
I0428 19:53:28.808464 27773 layer_factory.hpp:77] Creating layer pool1
I0428 19:53:28.808470 27773 net.cpp:86] Creating Layer pool1
I0428 19:53:28.808473 27773 net.cpp:408] pool1 <- conv1
I0428 19:53:28.808478 27773 net.cpp:382] pool1 -> pool1
I0428 19:53:28.808517 27773 net.cpp:124] Setting up pool1
I0428 19:53:28.808522 27773 net.cpp:131] Top shape: 100 50 4 4 (80000)
I0428 19:53:28.808524 27773 net.cpp:139] Memory required for data: 3354800
I0428 19:53:28.808527 27773 layer_factory.hpp:77] Creating layer ip1
I0428 19:53:28.808534 27773 net.cpp:86] Creating Layer ip1
I0428 19:53:28.808537 27773 net.cpp:408] ip1 <- pool1
I0428 19:53:28.808543 27773 net.cpp:382] ip1 -> ip1
I0428 19:53:28.808801 27773 net.cpp:124] Setting up ip1
I0428 19:53:28.808816 27773 net.cpp:131] Top shape: 100 25 (2500)
I0428 19:53:28.808830 27773 net.cpp:139] Memory required for data: 3364800
I0428 19:53:28.808838 27773 layer_factory.hpp:77] Creating layer relu1
I0428 19:53:28.808847 27773 net.cpp:86] Creating Layer relu1
I0428 19:53:28.808853 27773 net.cpp:408] relu1 <- ip1
I0428 19:53:28.808858 27773 net.cpp:369] relu1 -> ip1 (in-place)
I0428 19:53:28.809039 27773 net.cpp:124] Setting up relu1
I0428 19:53:28.809048 27773 net.cpp:131] Top shape: 100 25 (2500)
I0428 19:53:28.809051 27773 net.cpp:139] Memory required for data: 3374800
I0428 19:53:28.809054 27773 layer_factory.hpp:77] Creating layer ip2
I0428 19:53:28.809062 27773 net.cpp:86] Creating Layer ip2
I0428 19:53:28.809067 27773 net.cpp:408] ip2 <- ip1
I0428 19:53:28.809073 27773 net.cpp:382] ip2 -> ip2
I0428 19:53:28.809213 27773 net.cpp:124] Setting up ip2
I0428 19:53:28.809221 27773 net.cpp:131] Top shape: 100 25 (2500)
I0428 19:53:28.809224 27773 net.cpp:139] Memory required for data: 3384800
I0428 19:53:28.809229 27773 layer_factory.hpp:77] Creating layer relu2
I0428 19:53:28.809234 27773 net.cpp:86] Creating Layer relu2
I0428 19:53:28.809237 27773 net.cpp:408] relu2 <- ip2
I0428 19:53:28.809242 27773 net.cpp:369] relu2 -> ip2 (in-place)
I0428 19:53:28.809474 27773 net.cpp:124] Setting up relu2
I0428 19:53:28.809483 27773 net.cpp:131] Top shape: 100 25 (2500)
I0428 19:53:28.809485 27773 net.cpp:139] Memory required for data: 3394800
I0428 19:53:28.809494 27773 layer_factory.hpp:77] Creating layer ip3
I0428 19:53:28.809500 27773 net.cpp:86] Creating Layer ip3
I0428 19:53:28.809504 27773 net.cpp:408] ip3 <- ip2
I0428 19:53:28.809509 27773 net.cpp:382] ip3 -> ip3
I0428 19:53:28.809612 27773 net.cpp:124] Setting up ip3
I0428 19:53:28.809620 27773 net.cpp:131] Top shape: 100 10 (1000)
I0428 19:53:28.809623 27773 net.cpp:139] Memory required for data: 3398800
I0428 19:53:28.809630 27773 layer_factory.hpp:77] Creating layer relu3
I0428 19:53:28.809635 27773 net.cpp:86] Creating Layer relu3
I0428 19:53:28.809638 27773 net.cpp:408] relu3 <- ip3
I0428 19:53:28.809643 27773 net.cpp:369] relu3 -> ip3 (in-place)
I0428 19:53:28.810475 27773 net.cpp:124] Setting up relu3
I0428 19:53:28.810487 27773 net.cpp:131] Top shape: 100 10 (1000)
I0428 19:53:28.810492 27773 net.cpp:139] Memory required for data: 3402800
I0428 19:53:28.810494 27773 layer_factory.hpp:77] Creating layer ip3_relu3_0_split
I0428 19:53:28.810501 27773 net.cpp:86] Creating Layer ip3_relu3_0_split
I0428 19:53:28.810504 27773 net.cpp:408] ip3_relu3_0_split <- ip3
I0428 19:53:28.810510 27773 net.cpp:382] ip3_relu3_0_split -> ip3_relu3_0_split_0
I0428 19:53:28.810516 27773 net.cpp:382] ip3_relu3_0_split -> ip3_relu3_0_split_1
I0428 19:53:28.810561 27773 net.cpp:124] Setting up ip3_relu3_0_split
I0428 19:53:28.810566 27773 net.cpp:131] Top shape: 100 10 (1000)
I0428 19:53:28.810570 27773 net.cpp:131] Top shape: 100 10 (1000)
I0428 19:53:28.810573 27773 net.cpp:139] Memory required for data: 3410800
I0428 19:53:28.810582 27773 layer_factory.hpp:77] Creating layer accuracy
I0428 19:53:28.810590 27773 net.cpp:86] Creating Layer accuracy
I0428 19:53:28.810592 27773 net.cpp:408] accuracy <- ip3_relu3_0_split_0
I0428 19:53:28.810601 27773 net.cpp:408] accuracy <- label_mnist_1_split_0
I0428 19:53:28.810606 27773 net.cpp:382] accuracy -> accuracy
…
