…
I0428 19:55:06.877818 28119 net.cpp:296] The NetState phase (0) differed from the phase (1) specified by a rule in layer mnist
I0428 19:55:06.877840 28119 net.cpp:296] The NetState phase (0) differed from the phase (1) specified by a rule in layer accuracy
I0428 19:55:06.877940 28119 net.cpp:53] Initializing net from parameters: 
name: "LeNet"
state {
  phase: TRAIN
  level: 0
  stage: ""
}
layer {
  name: "mnist"
  type: "Data"
  top: "data"
  top: "label"
  include {
    phase: TRAIN
  }
  transform_param {
    scale: 0.00390625
  }
  data_param {
    source: "examples/mnist/mnist_train_lmdb"
    batch_size: 64
    backend: LMDB
  }
}
layer {
  name: "conv0"
  type: "Convolution"
  bottom: "data"
  top: "conv0"
  param {
    lr_mult: 1
  }
  param {
    lr_mult: 2
  }
  convolution_param {
    num_output: 5
    kernel_size: 5
    stride: 1
    weight_filler {
      type: "xavier"
    }
    bias_filler {
      type: "constant"
    }
  }
}
layer {
  name: "pool0"
  type: "Pooling"
  bottom: "conv0"
  top: "pool0"
  pooling_param {
    pool: MAX
    kernel_size: 2
    stride: 2
  }
}
layer {
  name: "conv1"
  type: "Convolution"
  bottom: "pool0"
  top: "conv1"
  param {
    lr_mult: 1
  }
  param {
    lr_mult: 2
  }
  convolution_param {
    num_output: 100
    kernel_size: 5
    stride: 1
    weight_filler {
      type: "xavier"
    }
    bias_filler {
      type: "constant"
    }
  }
}
layer {
  name: "pool1"
  type: "Pooling"
  bottom: "conv1"
  top: "pool1"
  pooling_param {
    pool: MAX
    kernel_size: 2
    stride: 2
  }
}
layer {
  name: "ip1"
  type: "InnerProduct"
  bottom: "pool1"
  top: "ip1"
  param {
    lr_mult: 1
  }
  param {
    lr_mult: 2
  }
  inner_product_param {
    num_output: 25
    weight_filler {
      type: "xavier"
    }
    bias_filler {
      type: "constant"
    }
  }
}
layer {
  name: "relu1"
  type: "ReLU"
  bottom: "ip1"
  top: "ip1"
}
layer {
  name: "ip2"
  type: "InnerProduct"
  bottom: "ip1"
  top: "ip2"
  param {
    lr_mult: 1
  }
  param {
    lr_mult: 2
  }
  inner_product_param {
    num_output: 10
    weight_filler {
      type: "xavier"
    }
    bias_filler {
      type: "constant"
    }
  }
}
layer {
  name: "relu2"
  type: "ReLU"
  bottom: "ip2"
  top: "ip2"
}
layer {
  name: "ip3"
  type: "InnerProduct"
  bottom: "ip2"
  top: "ip3"
  param {
    lr_mult: 1
  }
  param {
    lr_mult: 2
  }
  inner_product_param {
    num_output: 10
    weight_filler {
      type: "xavier"
    }
    bias_filler {
      type: "constant"
    }
  }
}
layer {
  name: "relu3"
  type: "ReLU"
  bottom: "ip3"
  top: "ip3"
}
layer {
  name: "loss"
  type: "SoftmaxWithLoss"
  bottom: "ip3"
  bottom: "label"
  top: "loss"
}
I0428 19:55:06.878022 28119 layer_factory.hpp:77] Creating layer mnist
I0428 19:55:06.878124 28119 db_lmdb.cpp:35] Opened lmdb examples/mnist/mnist_train_lmdb
I0428 19:55:06.878147 28119 net.cpp:86] Creating Layer mnist
I0428 19:55:06.878156 28119 net.cpp:382] mnist -> data
I0428 19:55:06.878178 28119 net.cpp:382] mnist -> label
I0428 19:55:06.879276 28119 data_layer.cpp:45] output data size: 64,1,28,28
I0428 19:55:06.881769 28119 net.cpp:124] Setting up mnist
I0428 19:55:06.881788 28119 net.cpp:131] Top shape: 64 1 28 28 (50176)
I0428 19:55:06.881795 28119 net.cpp:131] Top shape: 64 (64)
I0428 19:55:06.881799 28119 net.cpp:139] Memory required for data: 200960
I0428 19:55:06.881806 28119 layer_factory.hpp:77] Creating layer conv0
I0428 19:55:06.881824 28119 net.cpp:86] Creating Layer conv0
I0428 19:55:06.881852 28119 net.cpp:408] conv0 <- data
I0428 19:55:06.881865 28119 net.cpp:382] conv0 -> conv0
I0428 19:55:07.162595 28119 net.cpp:124] Setting up conv0
I0428 19:55:07.162622 28119 net.cpp:131] Top shape: 64 5 24 24 (184320)
I0428 19:55:07.162626 28119 net.cpp:139] Memory required for data: 938240
I0428 19:55:07.162642 28119 layer_factory.hpp:77] Creating layer pool0
I0428 19:55:07.162655 28119 net.cpp:86] Creating Layer pool0
I0428 19:55:07.162659 28119 net.cpp:408] pool0 <- conv0
I0428 19:55:07.162664 28119 net.cpp:382] pool0 -> pool0
I0428 19:55:07.162724 28119 net.cpp:124] Setting up pool0
I0428 19:55:07.162729 28119 net.cpp:131] Top shape: 64 5 12 12 (46080)
I0428 19:55:07.162731 28119 net.cpp:139] Memory required for data: 1122560
I0428 19:55:07.162734 28119 layer_factory.hpp:77] Creating layer conv1
I0428 19:55:07.162744 28119 net.cpp:86] Creating Layer conv1
I0428 19:55:07.162747 28119 net.cpp:408] conv1 <- pool0
I0428 19:55:07.162752 28119 net.cpp:382] conv1 -> conv1
I0428 19:55:07.165591 28119 net.cpp:124] Setting up conv1
I0428 19:55:07.165621 28119 net.cpp:131] Top shape: 64 100 8 8 (409600)
I0428 19:55:07.165626 28119 net.cpp:139] Memory required for data: 2760960
I0428 19:55:07.165634 28119 layer_factory.hpp:77] Creating layer pool1
I0428 19:55:07.165642 28119 net.cpp:86] Creating Layer pool1
I0428 19:55:07.165647 28119 net.cpp:408] pool1 <- conv1
I0428 19:55:07.165652 28119 net.cpp:382] pool1 -> pool1
I0428 19:55:07.165705 28119 net.cpp:124] Setting up pool1
I0428 19:55:07.165710 28119 net.cpp:131] Top shape: 64 100 4 4 (102400)
I0428 19:55:07.165714 28119 net.cpp:139] Memory required for data: 3170560
I0428 19:55:07.165716 28119 layer_factory.hpp:77] Creating layer ip1
I0428 19:55:07.165724 28119 net.cpp:86] Creating Layer ip1
I0428 19:55:07.165727 28119 net.cpp:408] ip1 <- pool1
I0428 19:55:07.165731 28119 net.cpp:382] ip1 -> ip1
I0428 19:55:07.166093 28119 net.cpp:124] Setting up ip1
I0428 19:55:07.166101 28119 net.cpp:131] Top shape: 64 25 (1600)
I0428 19:55:07.166119 28119 net.cpp:139] Memory required for data: 3176960
I0428 19:55:07.166126 28119 layer_factory.hpp:77] Creating layer relu1
I0428 19:55:07.166133 28119 net.cpp:86] Creating Layer relu1
I0428 19:55:07.166136 28119 net.cpp:408] relu1 <- ip1
I0428 19:55:07.166141 28119 net.cpp:369] relu1 -> ip1 (in-place)
I0428 19:55:07.166306 28119 net.cpp:124] Setting up relu1
I0428 19:55:07.166316 28119 net.cpp:131] Top shape: 64 25 (1600)
I0428 19:55:07.166318 28119 net.cpp:139] Memory required for data: 3183360
I0428 19:55:07.166321 28119 layer_factory.hpp:77] Creating layer ip2
I0428 19:55:07.166329 28119 net.cpp:86] Creating Layer ip2
I0428 19:55:07.166332 28119 net.cpp:408] ip2 <- ip1
I0428 19:55:07.166337 28119 net.cpp:382] ip2 -> ip2
I0428 19:55:07.166430 28119 net.cpp:124] Setting up ip2
I0428 19:55:07.166437 28119 net.cpp:131] Top shape: 64 10 (640)
I0428 19:55:07.166440 28119 net.cpp:139] Memory required for data: 3185920
I0428 19:55:07.166445 28119 layer_factory.hpp:77] Creating layer relu2
I0428 19:55:07.166452 28119 net.cpp:86] Creating Layer relu2
I0428 19:55:07.166455 28119 net.cpp:408] relu2 <- ip2
I0428 19:55:07.166474 28119 net.cpp:369] relu2 -> ip2 (in-place)
I0428 19:55:07.167276 28119 net.cpp:124] Setting up relu2
I0428 19:55:07.167306 28119 net.cpp:131] Top shape: 64 10 (640)
I0428 19:55:07.167309 28119 net.cpp:139] Memory required for data: 3188480
I0428 19:55:07.167313 28119 layer_factory.hpp:77] Creating layer ip3
I0428 19:55:07.167320 28119 net.cpp:86] Creating Layer ip3
I0428 19:55:07.167325 28119 net.cpp:408] ip3 <- ip2
I0428 19:55:07.167346 28119 net.cpp:382] ip3 -> ip3
I0428 19:55:07.167488 28119 net.cpp:124] Setting up ip3
I0428 19:55:07.167496 28119 net.cpp:131] Top shape: 64 10 (640)
I0428 19:55:07.167500 28119 net.cpp:139] Memory required for data: 3191040
I0428 19:55:07.167506 28119 layer_factory.hpp:77] Creating layer relu3
I0428 19:55:07.167511 28119 net.cpp:86] Creating Layer relu3
I0428 19:55:07.167515 28119 net.cpp:408] relu3 <- ip3
I0428 19:55:07.167520 28119 net.cpp:369] relu3 -> ip3 (in-place)
I0428 19:55:07.167685 28119 net.cpp:124] Setting up relu3
I0428 19:55:07.167693 28119 net.cpp:131] Top shape: 64 10 (640)
I0428 19:55:07.167696 28119 net.cpp:139] Memory required for data: 3193600
I0428 19:55:07.167699 28119 layer_factory.hpp:77] Creating layer loss
I0428 19:55:07.167706 28119 net.cpp:86] Creating Layer loss
I0428 19:55:07.167709 28119 net.cpp:408] loss <- ip3
I0428 19:55:07.167713 28119 net.cpp:408] loss <- label
I0428 19:55:07.167718 28119 net.cpp:382] loss -> loss
I0428 19:55:07.167735 28119 layer_factory.hpp:77] Creating layer loss
…
I0428 19:55:07.168470 28119 solver.cpp:173] Creating test net (#0) specified by net file: ECE595/mnist/train_test/var_everything2/lenet_train_test725.prototxt
I0428 19:55:07.168498 28119 net.cpp:296] The NetState phase (1) differed from the phase (0) specified by a rule in layer mnist
I0428 19:55:07.168586 28119 net.cpp:53] Initializing net from parameters: 
name: "LeNet"
state {
  phase: TEST
}
layer {
  name: "mnist"
  type: "Data"
  top: "data"
  top: "label"
  include {
    phase: TEST
  }
  transform_param {
    scale: 0.00390625
  }
  data_param {
    source: "examples/mnist/mnist_test_lmdb"
    batch_size: 100
    backend: LMDB
  }
}
layer {
  name: "conv0"
  type: "Convolution"
  bottom: "data"
  top: "conv0"
  param {
    lr_mult: 1
  }
  param {
    lr_mult: 2
  }
  convolution_param {
    num_output: 5
    kernel_size: 5
    stride: 1
    weight_filler {
      type: "xavier"
    }
    bias_filler {
      type: "constant"
    }
  }
}
layer {
  name: "pool0"
  type: "Pooling"
  bottom: "conv0"
  top: "pool0"
  pooling_param {
    pool: MAX
    kernel_size: 2
    stride: 2
  }
}
layer {
  name: "conv1"
  type: "Convolution"
  bottom: "pool0"
  top: "conv1"
  param {
    lr_mult: 1
  }
  param {
    lr_mult: 2
  }
  convolution_param {
    num_output: 100
    kernel_size: 5
    stride: 1
    weight_filler {
      type: "xavier"
    }
    bias_filler {
      type: "constant"
    }
  }
}
layer {
  name: "pool1"
  type: "Pooling"
  bottom: "conv1"
  top: "pool1"
  pooling_param {
    pool: MAX
    kernel_size: 2
    stride: 2
  }
}
layer {
  name: "ip1"
  type: "InnerProduct"
  bottom: "pool1"
  top: "ip1"
  param {
    lr_mult: 1
  }
  param {
    lr_mult: 2
  }
  inner_product_param {
    num_output: 25
    weight_filler {
      type: "xavier"
    }
    bias_filler {
      type: "constant"
    }
  }
}
layer {
  name: "relu1"
  type: "ReLU"
  bottom: "ip1"
  top: "ip1"
}
layer {
  name: "ip2"
  type: "InnerProduct"
  bottom: "ip1"
  top: "ip2"
  param {
    lr_mult: 1
  }
  param {
    lr_mult: 2
  }
  inner_product_param {
    num_output: 10
    weight_filler {
      type: "xavier"
    }
    bias_filler {
      type: "constant"
    }
  }
}
layer {
  name: "relu2"
  type: "ReLU"
  bottom: "ip2"
  top: "ip2"
}
layer {
  name: "ip3"
  type: "InnerProduct"
  bottom: "ip2"
  top: "ip3"
  param {
    lr_mult: 1
  }
  param {
    lr_mult: 2
  }
  inner_product_param {
    num_output: 10
    weight_filler {
      type: "xavier"
    }
    bias_filler {
      type: "constant"
    }
  }
}
layer {
  name: "relu3"
  type: "ReLU"
  bottom: "ip3"
  top: "ip3"
}
layer {
  name: "accuracy"
  type: "Accuracy"
  bottom: "ip3"
  bottom: "label"
  top: "accuracy"
  include {
    phase: TEST
  }
}
layer {
  name: "loss"
  type: "SoftmaxWithLoss"
  bottom: "ip3"
  bottom: "label"
  top: "loss"
}
I0428 19:55:07.168681 28119 layer_factory.hpp:77] Creating layer mnist
I0428 19:55:07.168725 28119 db_lmdb.cpp:35] Opened lmdb examples/mnist/mnist_test_lmdb
I0428 19:55:07.168738 28119 net.cpp:86] Creating Layer mnist
I0428 19:55:07.168743 28119 net.cpp:382] mnist -> data
I0428 19:55:07.168751 28119 net.cpp:382] mnist -> label
I0428 19:55:07.168869 28119 data_layer.cpp:45] output data size: 100,1,28,28
I0428 19:55:07.170897 28119 net.cpp:124] Setting up mnist
I0428 19:55:07.170928 28119 net.cpp:131] Top shape: 100 1 28 28 (78400)
I0428 19:55:07.170933 28119 net.cpp:131] Top shape: 100 (100)
I0428 19:55:07.170935 28119 net.cpp:139] Memory required for data: 314000
I0428 19:55:07.170938 28119 layer_factory.hpp:77] Creating layer label_mnist_1_split
I0428 19:55:07.171012 28119 net.cpp:86] Creating Layer label_mnist_1_split
I0428 19:55:07.171017 28119 net.cpp:408] label_mnist_1_split <- label
I0428 19:55:07.171023 28119 net.cpp:382] label_mnist_1_split -> label_mnist_1_split_0
I0428 19:55:07.171031 28119 net.cpp:382] label_mnist_1_split -> label_mnist_1_split_1
I0428 19:55:07.171080 28119 net.cpp:124] Setting up label_mnist_1_split
I0428 19:55:07.171088 28119 net.cpp:131] Top shape: 100 (100)
I0428 19:55:07.171092 28119 net.cpp:131] Top shape: 100 (100)
I0428 19:55:07.171095 28119 net.cpp:139] Memory required for data: 314800
I0428 19:55:07.171098 28119 layer_factory.hpp:77] Creating layer conv0
I0428 19:55:07.171108 28119 net.cpp:86] Creating Layer conv0
I0428 19:55:07.171111 28119 net.cpp:408] conv0 <- data
I0428 19:55:07.171119 28119 net.cpp:382] conv0 -> conv0
I0428 19:55:07.172858 28119 net.cpp:124] Setting up conv0
I0428 19:55:07.172871 28119 net.cpp:131] Top shape: 100 5 24 24 (288000)
I0428 19:55:07.172876 28119 net.cpp:139] Memory required for data: 1466800
I0428 19:55:07.172884 28119 layer_factory.hpp:77] Creating layer pool0
I0428 19:55:07.172890 28119 net.cpp:86] Creating Layer pool0
I0428 19:55:07.172894 28119 net.cpp:408] pool0 <- conv0
I0428 19:55:07.172899 28119 net.cpp:382] pool0 -> pool0
I0428 19:55:07.172932 28119 net.cpp:124] Setting up pool0
I0428 19:55:07.172938 28119 net.cpp:131] Top shape: 100 5 12 12 (72000)
I0428 19:55:07.172940 28119 net.cpp:139] Memory required for data: 1754800
I0428 19:55:07.172943 28119 layer_factory.hpp:77] Creating layer conv1
I0428 19:55:07.172951 28119 net.cpp:86] Creating Layer conv1
I0428 19:55:07.172955 28119 net.cpp:408] conv1 <- pool0
I0428 19:55:07.172960 28119 net.cpp:382] conv1 -> conv1
I0428 19:55:07.174618 28119 net.cpp:124] Setting up conv1
I0428 19:55:07.174635 28119 net.cpp:131] Top shape: 100 100 8 8 (640000)
I0428 19:55:07.174639 28119 net.cpp:139] Memory required for data: 4314800
I0428 19:55:07.174649 28119 layer_factory.hpp:77] Creating layer pool1
I0428 19:55:07.174654 28119 net.cpp:86] Creating Layer pool1
I0428 19:55:07.174659 28119 net.cpp:408] pool1 <- conv1
I0428 19:55:07.174664 28119 net.cpp:382] pool1 -> pool1
I0428 19:55:07.174708 28119 net.cpp:124] Setting up pool1
I0428 19:55:07.174715 28119 net.cpp:131] Top shape: 100 100 4 4 (160000)
I0428 19:55:07.174724 28119 net.cpp:139] Memory required for data: 4954800
I0428 19:55:07.174727 28119 layer_factory.hpp:77] Creating layer ip1
I0428 19:55:07.174732 28119 net.cpp:86] Creating Layer ip1
I0428 19:55:07.174742 28119 net.cpp:408] ip1 <- pool1
I0428 19:55:07.174748 28119 net.cpp:382] ip1 -> ip1
I0428 19:55:07.175093 28119 net.cpp:124] Setting up ip1
I0428 19:55:07.175101 28119 net.cpp:131] Top shape: 100 25 (2500)
I0428 19:55:07.175113 28119 net.cpp:139] Memory required for data: 4964800
I0428 19:55:07.175120 28119 layer_factory.hpp:77] Creating layer relu1
I0428 19:55:07.175134 28119 net.cpp:86] Creating Layer relu1
I0428 19:55:07.175137 28119 net.cpp:408] relu1 <- ip1
I0428 19:55:07.175143 28119 net.cpp:369] relu1 -> ip1 (in-place)
I0428 19:55:07.175304 28119 net.cpp:124] Setting up relu1
I0428 19:55:07.175313 28119 net.cpp:131] Top shape: 100 25 (2500)
I0428 19:55:07.175317 28119 net.cpp:139] Memory required for data: 4974800
I0428 19:55:07.175319 28119 layer_factory.hpp:77] Creating layer ip2
I0428 19:55:07.175328 28119 net.cpp:86] Creating Layer ip2
I0428 19:55:07.175331 28119 net.cpp:408] ip2 <- ip1
I0428 19:55:07.175336 28119 net.cpp:382] ip2 -> ip2
I0428 19:55:07.175431 28119 net.cpp:124] Setting up ip2
I0428 19:55:07.175438 28119 net.cpp:131] Top shape: 100 10 (1000)
I0428 19:55:07.175443 28119 net.cpp:139] Memory required for data: 4978800
I0428 19:55:07.175451 28119 layer_factory.hpp:77] Creating layer relu2
I0428 19:55:07.175458 28119 net.cpp:86] Creating Layer relu2
I0428 19:55:07.175462 28119 net.cpp:408] relu2 <- ip2
I0428 19:55:07.175467 28119 net.cpp:369] relu2 -> ip2 (in-place)
I0428 19:55:07.175689 28119 net.cpp:124] Setting up relu2
I0428 19:55:07.175698 28119 net.cpp:131] Top shape: 100 10 (1000)
I0428 19:55:07.175709 28119 net.cpp:139] Memory required for data: 4982800
I0428 19:55:07.175711 28119 layer_factory.hpp:77] Creating layer ip3
I0428 19:55:07.175717 28119 net.cpp:86] Creating Layer ip3
I0428 19:55:07.175720 28119 net.cpp:408] ip3 <- ip2
I0428 19:55:07.175726 28119 net.cpp:382] ip3 -> ip3
I0428 19:55:07.175882 28119 net.cpp:124] Setting up ip3
I0428 19:55:07.175889 28119 net.cpp:131] Top shape: 100 10 (1000)
I0428 19:55:07.175892 28119 net.cpp:139] Memory required for data: 4986800
I0428 19:55:07.175899 28119 layer_factory.hpp:77] Creating layer relu3
I0428 19:55:07.175905 28119 net.cpp:86] Creating Layer relu3
I0428 19:55:07.175909 28119 net.cpp:408] relu3 <- ip3
I0428 19:55:07.175912 28119 net.cpp:369] relu3 -> ip3 (in-place)
I0428 19:55:07.176646 28119 net.cpp:124] Setting up relu3
I0428 19:55:07.176659 28119 net.cpp:131] Top shape: 100 10 (1000)
I0428 19:55:07.176663 28119 net.cpp:139] Memory required for data: 4990800
I0428 19:55:07.176666 28119 layer_factory.hpp:77] Creating layer ip3_relu3_0_split
I0428 19:55:07.176673 28119 net.cpp:86] Creating Layer ip3_relu3_0_split
I0428 19:55:07.176684 28119 net.cpp:408] ip3_relu3_0_split <- ip3
I0428 19:55:07.176689 28119 net.cpp:382] ip3_relu3_0_split -> ip3_relu3_0_split_0
I0428 19:55:07.176694 28119 net.cpp:382] ip3_relu3_0_split -> ip3_relu3_0_split_1
I0428 19:55:07.176733 28119 net.cpp:124] Setting up ip3_relu3_0_split
I0428 19:55:07.176738 28119 net.cpp:131] Top shape: 100 10 (1000)
I0428 19:55:07.176741 28119 net.cpp:131] Top shape: 100 10 (1000)
I0428 19:55:07.176743 28119 net.cpp:139] Memory required for data: 4998800
I0428 19:55:07.176746 28119 layer_factory.hpp:77] Creating layer accuracy
I0428 19:55:07.176751 28119 net.cpp:86] Creating Layer accuracy
I0428 19:55:07.176760 28119 net.cpp:408] accuracy <- ip3_relu3_0_split_0
I0428 19:55:07.176764 28119 net.cpp:408] accuracy <- label_mnist_1_split_0
I0428 19:55:07.176770 28119 net.cpp:382] accuracy -> accuracy
…
