…
I0428 19:30:50.189895 22420 net.cpp:296] The NetState phase (0) differed from the phase (1) specified by a rule in layer mnist
I0428 19:30:50.189924 22420 net.cpp:296] The NetState phase (0) differed from the phase (1) specified by a rule in layer accuracy
I0428 19:30:50.189995 22420 net.cpp:53] Initializing net from parameters: 
name: "LeNet"
state {
  phase: TRAIN
  level: 0
  stage: ""
}
layer {
  name: "mnist"
  type: "Data"
  top: "data"
  top: "label"
  include {
    phase: TRAIN
  }
  transform_param {
    scale: 0.00390625
  }
  data_param {
    source: "examples/mnist/mnist_train_lmdb"
    batch_size: 64
    backend: LMDB
  }
}
layer {
  name: "conv0"
  type: "Convolution"
  bottom: "data"
  top: "conv0"
  param {
    lr_mult: 1
  }
  param {
    lr_mult: 2
  }
  convolution_param {
    num_output: 5
    kernel_size: 5
    stride: 1
    weight_filler {
      type: "xavier"
    }
    bias_filler {
      type: "constant"
    }
  }
}
layer {
  name: "pool0"
  type: "Pooling"
  bottom: "conv0"
  top: "pool0"
  pooling_param {
    pool: MAX
    kernel_size: 2
    stride: 2
  }
}
layer {
  name: "ip1"
  type: "InnerProduct"
  bottom: "pool0"
  top: "ip1"
  param {
    lr_mult: 1
  }
  param {
    lr_mult: 2
  }
  inner_product_param {
    num_output: 25
    weight_filler {
      type: "xavier"
    }
    bias_filler {
      type: "constant"
    }
  }
}
layer {
  name: "relu1"
  type: "ReLU"
  bottom: "ip1"
  top: "ip1"
}
layer {
  name: "ip2"
  type: "InnerProduct"
  bottom: "ip1"
  top: "ip2"
  param {
    lr_mult: 1
  }
  param {
    lr_mult: 2
  }
  inner_product_param {
    num_output: 25
    weight_filler {
      type: "xavier"
    }
    bias_filler {
      type: "constant"
    }
  }
}
layer {
  name: "relu2"
  type: "ReLU"
  bottom: "ip2"
  top: "ip2"
}
layer {
  name: "ip3"
  type: "InnerProduct"
  bottom: "ip2"
  top: "ip3"
  param {
    lr_mult: 1
  }
  param {
    lr_mult: 2
  }
  inner_product_param {
    num_output: 10
    weight_filler {
      type: "xavier"
    }
    bias_filler {
      type: "constant"
    }
  }
}
layer {
  name: "relu3"
  type: "ReLU"
  bottom: "ip3"
  top: "ip3"
}
layer {
  name: "loss"
  type: "SoftmaxWithLoss"
  bottom: "ip3"
  bottom: "label"
  top: "loss"
}
I0428 19:30:50.190053 22420 layer_factory.hpp:77] Creating layer mnist
I0428 19:30:50.190132 22420 db_lmdb.cpp:35] Opened lmdb examples/mnist/mnist_train_lmdb
I0428 19:30:50.190152 22420 net.cpp:86] Creating Layer mnist
I0428 19:30:50.190160 22420 net.cpp:382] mnist -> data
I0428 19:30:50.190179 22420 net.cpp:382] mnist -> label
I0428 19:30:50.191165 22420 data_layer.cpp:45] output data size: 64,1,28,28
I0428 19:30:50.193626 22420 net.cpp:124] Setting up mnist
I0428 19:30:50.193656 22420 net.cpp:131] Top shape: 64 1 28 28 (50176)
I0428 19:30:50.193661 22420 net.cpp:131] Top shape: 64 (64)
I0428 19:30:50.193663 22420 net.cpp:139] Memory required for data: 200960
I0428 19:30:50.193670 22420 layer_factory.hpp:77] Creating layer conv0
I0428 19:30:50.193711 22420 net.cpp:86] Creating Layer conv0
I0428 19:30:50.193717 22420 net.cpp:408] conv0 <- data
I0428 19:30:50.193744 22420 net.cpp:382] conv0 -> conv0
I0428 19:30:50.421831 22420 net.cpp:124] Setting up conv0
I0428 19:30:50.421872 22420 net.cpp:131] Top shape: 64 5 24 24 (184320)
I0428 19:30:50.421877 22420 net.cpp:139] Memory required for data: 938240
I0428 19:30:50.421892 22420 layer_factory.hpp:77] Creating layer pool0
I0428 19:30:50.421905 22420 net.cpp:86] Creating Layer pool0
I0428 19:30:50.421926 22420 net.cpp:408] pool0 <- conv0
I0428 19:30:50.421931 22420 net.cpp:382] pool0 -> pool0
I0428 19:30:50.421990 22420 net.cpp:124] Setting up pool0
I0428 19:30:50.421998 22420 net.cpp:131] Top shape: 64 5 12 12 (46080)
I0428 19:30:50.422001 22420 net.cpp:139] Memory required for data: 1122560
I0428 19:30:50.422003 22420 layer_factory.hpp:77] Creating layer ip1
I0428 19:30:50.422011 22420 net.cpp:86] Creating Layer ip1
I0428 19:30:50.422018 22420 net.cpp:408] ip1 <- pool0
I0428 19:30:50.422037 22420 net.cpp:382] ip1 -> ip1
I0428 19:30:50.422235 22420 net.cpp:124] Setting up ip1
I0428 19:30:50.422242 22420 net.cpp:131] Top shape: 64 25 (1600)
I0428 19:30:50.422253 22420 net.cpp:139] Memory required for data: 1128960
I0428 19:30:50.422260 22420 layer_factory.hpp:77] Creating layer relu1
I0428 19:30:50.422266 22420 net.cpp:86] Creating Layer relu1
I0428 19:30:50.422269 22420 net.cpp:408] relu1 <- ip1
I0428 19:30:50.422273 22420 net.cpp:369] relu1 -> ip1 (in-place)
I0428 19:30:50.422441 22420 net.cpp:124] Setting up relu1
I0428 19:30:50.422451 22420 net.cpp:131] Top shape: 64 25 (1600)
I0428 19:30:50.422452 22420 net.cpp:139] Memory required for data: 1135360
I0428 19:30:50.422456 22420 layer_factory.hpp:77] Creating layer ip2
I0428 19:30:50.422461 22420 net.cpp:86] Creating Layer ip2
I0428 19:30:50.422464 22420 net.cpp:408] ip2 <- ip1
I0428 19:30:50.422469 22420 net.cpp:382] ip2 -> ip2
I0428 19:30:50.422561 22420 net.cpp:124] Setting up ip2
I0428 19:30:50.422567 22420 net.cpp:131] Top shape: 64 25 (1600)
I0428 19:30:50.422570 22420 net.cpp:139] Memory required for data: 1141760
I0428 19:30:50.422577 22420 layer_factory.hpp:77] Creating layer relu2
I0428 19:30:50.422582 22420 net.cpp:86] Creating Layer relu2
I0428 19:30:50.422585 22420 net.cpp:408] relu2 <- ip2
I0428 19:30:50.422590 22420 net.cpp:369] relu2 -> ip2 (in-place)
I0428 19:30:50.423408 22420 net.cpp:124] Setting up relu2
I0428 19:30:50.423439 22420 net.cpp:131] Top shape: 64 25 (1600)
I0428 19:30:50.423458 22420 net.cpp:139] Memory required for data: 1148160
I0428 19:30:50.423461 22420 layer_factory.hpp:77] Creating layer ip3
I0428 19:30:50.423468 22420 net.cpp:86] Creating Layer ip3
I0428 19:30:50.423471 22420 net.cpp:408] ip3 <- ip2
I0428 19:30:50.423478 22420 net.cpp:382] ip3 -> ip3
I0428 19:30:50.423576 22420 net.cpp:124] Setting up ip3
I0428 19:30:50.423583 22420 net.cpp:131] Top shape: 64 10 (640)
I0428 19:30:50.423586 22420 net.cpp:139] Memory required for data: 1150720
I0428 19:30:50.423591 22420 layer_factory.hpp:77] Creating layer relu3
I0428 19:30:50.423599 22420 net.cpp:86] Creating Layer relu3
I0428 19:30:50.423601 22420 net.cpp:408] relu3 <- ip3
I0428 19:30:50.423606 22420 net.cpp:369] relu3 -> ip3 (in-place)
I0428 19:30:50.423791 22420 net.cpp:124] Setting up relu3
I0428 19:30:50.423800 22420 net.cpp:131] Top shape: 64 10 (640)
I0428 19:30:50.423804 22420 net.cpp:139] Memory required for data: 1153280
I0428 19:30:50.423805 22420 layer_factory.hpp:77] Creating layer loss
I0428 19:30:50.423811 22420 net.cpp:86] Creating Layer loss
I0428 19:30:50.423815 22420 net.cpp:408] loss <- ip3
I0428 19:30:50.423817 22420 net.cpp:408] loss <- label
I0428 19:30:50.423838 22420 net.cpp:382] loss -> loss
I0428 19:30:50.423871 22420 layer_factory.hpp:77] Creating layer loss
…
I0428 19:30:50.424463 22420 solver.cpp:173] Creating test net (#0) specified by net file: ECE595/mnist/train_test/var_everything2/lenet_train_test103.prototxt
I0428 19:30:50.424487 22420 net.cpp:296] The NetState phase (1) differed from the phase (0) specified by a rule in layer mnist
I0428 19:30:50.424564 22420 net.cpp:53] Initializing net from parameters: 
name: "LeNet"
state {
  phase: TEST
}
layer {
  name: "mnist"
  type: "Data"
  top: "data"
  top: "label"
  include {
    phase: TEST
  }
  transform_param {
    scale: 0.00390625
  }
  data_param {
    source: "examples/mnist/mnist_test_lmdb"
    batch_size: 100
    backend: LMDB
  }
}
layer {
  name: "conv0"
  type: "Convolution"
  bottom: "data"
  top: "conv0"
  param {
    lr_mult: 1
  }
  param {
    lr_mult: 2
  }
  convolution_param {
    num_output: 5
    kernel_size: 5
    stride: 1
    weight_filler {
      type: "xavier"
    }
    bias_filler {
      type: "constant"
    }
  }
}
layer {
  name: "pool0"
  type: "Pooling"
  bottom: "conv0"
  top: "pool0"
  pooling_param {
    pool: MAX
    kernel_size: 2
    stride: 2
  }
}
layer {
  name: "ip1"
  type: "InnerProduct"
  bottom: "pool0"
  top: "ip1"
  param {
    lr_mult: 1
  }
  param {
    lr_mult: 2
  }
  inner_product_param {
    num_output: 25
    weight_filler {
      type: "xavier"
    }
    bias_filler {
      type: "constant"
    }
  }
}
layer {
  name: "relu1"
  type: "ReLU"
  bottom: "ip1"
  top: "ip1"
}
layer {
  name: "ip2"
  type: "InnerProduct"
  bottom: "ip1"
  top: "ip2"
  param {
    lr_mult: 1
  }
  param {
    lr_mult: 2
  }
  inner_product_param {
    num_output: 25
    weight_filler {
      type: "xavier"
    }
    bias_filler {
      type: "constant"
    }
  }
}
layer {
  name: "relu2"
  type: "ReLU"
  bottom: "ip2"
  top: "ip2"
}
layer {
  name: "ip3"
  type: "InnerProduct"
  bottom: "ip2"
  top: "ip3"
  param {
    lr_mult: 1
  }
  param {
    lr_mult: 2
  }
  inner_product_param {
    num_output: 10
    weight_filler {
      type: "xavier"
    }
    bias_filler {
      type: "constant"
    }
  }
}
layer {
  name: "relu3"
  type: "ReLU"
  bottom: "ip3"
  top: "ip3"
}
layer {
  name: "accuracy"
  type: "Accuracy"
  bottom: "ip3"
  bottom: "label"
  top: "accuracy"
  include {
    phase: TEST
  }
}
layer {
  name: "loss"
  type: "SoftmaxWithLoss"
  bottom: "ip3"
  bottom: "label"
  top: "loss"
}
I0428 19:30:50.424629 22420 layer_factory.hpp:77] Creating layer mnist
I0428 19:30:50.424671 22420 db_lmdb.cpp:35] Opened lmdb examples/mnist/mnist_test_lmdb
I0428 19:30:50.424700 22420 net.cpp:86] Creating Layer mnist
I0428 19:30:50.424705 22420 net.cpp:382] mnist -> data
I0428 19:30:50.424712 22420 net.cpp:382] mnist -> label
I0428 19:30:50.424792 22420 data_layer.cpp:45] output data size: 100,1,28,28
I0428 19:30:50.426910 22420 net.cpp:124] Setting up mnist
I0428 19:30:50.426934 22420 net.cpp:131] Top shape: 100 1 28 28 (78400)
I0428 19:30:50.426939 22420 net.cpp:131] Top shape: 100 (100)
I0428 19:30:50.426957 22420 net.cpp:139] Memory required for data: 314000
I0428 19:30:50.426961 22420 layer_factory.hpp:77] Creating layer label_mnist_1_split
I0428 19:30:50.426988 22420 net.cpp:86] Creating Layer label_mnist_1_split
I0428 19:30:50.426993 22420 net.cpp:408] label_mnist_1_split <- label
I0428 19:30:50.426997 22420 net.cpp:382] label_mnist_1_split -> label_mnist_1_split_0
I0428 19:30:50.427006 22420 net.cpp:382] label_mnist_1_split -> label_mnist_1_split_1
I0428 19:30:50.427098 22420 net.cpp:124] Setting up label_mnist_1_split
I0428 19:30:50.427120 22420 net.cpp:131] Top shape: 100 (100)
I0428 19:30:50.427124 22420 net.cpp:131] Top shape: 100 (100)
I0428 19:30:50.427126 22420 net.cpp:139] Memory required for data: 314800
I0428 19:30:50.427139 22420 layer_factory.hpp:77] Creating layer conv0
I0428 19:30:50.427150 22420 net.cpp:86] Creating Layer conv0
I0428 19:30:50.427152 22420 net.cpp:408] conv0 <- data
I0428 19:30:50.427160 22420 net.cpp:382] conv0 -> conv0
I0428 19:30:50.428841 22420 net.cpp:124] Setting up conv0
I0428 19:30:50.428871 22420 net.cpp:131] Top shape: 100 5 24 24 (288000)
I0428 19:30:50.428875 22420 net.cpp:139] Memory required for data: 1466800
I0428 19:30:50.428884 22420 layer_factory.hpp:77] Creating layer pool0
I0428 19:30:50.428891 22420 net.cpp:86] Creating Layer pool0
I0428 19:30:50.428895 22420 net.cpp:408] pool0 <- conv0
I0428 19:30:50.428900 22420 net.cpp:382] pool0 -> pool0
I0428 19:30:50.428937 22420 net.cpp:124] Setting up pool0
I0428 19:30:50.428943 22420 net.cpp:131] Top shape: 100 5 12 12 (72000)
I0428 19:30:50.428946 22420 net.cpp:139] Memory required for data: 1754800
I0428 19:30:50.428948 22420 layer_factory.hpp:77] Creating layer ip1
I0428 19:30:50.428957 22420 net.cpp:86] Creating Layer ip1
I0428 19:30:50.428961 22420 net.cpp:408] ip1 <- pool0
I0428 19:30:50.428982 22420 net.cpp:382] ip1 -> ip1
I0428 19:30:50.429195 22420 net.cpp:124] Setting up ip1
I0428 19:30:50.429203 22420 net.cpp:131] Top shape: 100 25 (2500)
I0428 19:30:50.429206 22420 net.cpp:139] Memory required for data: 1764800
I0428 19:30:50.429213 22420 layer_factory.hpp:77] Creating layer relu1
I0428 19:30:50.429219 22420 net.cpp:86] Creating Layer relu1
I0428 19:30:50.429221 22420 net.cpp:408] relu1 <- ip1
I0428 19:30:50.429224 22420 net.cpp:369] relu1 -> ip1 (in-place)
I0428 19:30:50.429396 22420 net.cpp:124] Setting up relu1
I0428 19:30:50.429406 22420 net.cpp:131] Top shape: 100 25 (2500)
I0428 19:30:50.429409 22420 net.cpp:139] Memory required for data: 1774800
I0428 19:30:50.429412 22420 layer_factory.hpp:77] Creating layer ip2
I0428 19:30:50.429417 22420 net.cpp:86] Creating Layer ip2
I0428 19:30:50.429420 22420 net.cpp:408] ip2 <- ip1
I0428 19:30:50.429426 22420 net.cpp:382] ip2 -> ip2
I0428 19:30:50.429662 22420 net.cpp:124] Setting up ip2
I0428 19:30:50.429671 22420 net.cpp:131] Top shape: 100 25 (2500)
I0428 19:30:50.429674 22420 net.cpp:139] Memory required for data: 1784800
I0428 19:30:50.429683 22420 layer_factory.hpp:77] Creating layer relu2
I0428 19:30:50.429689 22420 net.cpp:86] Creating Layer relu2
I0428 19:30:50.429692 22420 net.cpp:408] relu2 <- ip2
I0428 19:30:50.429697 22420 net.cpp:369] relu2 -> ip2 (in-place)
I0428 19:30:50.430558 22420 net.cpp:124] Setting up relu2
I0428 19:30:50.430572 22420 net.cpp:131] Top shape: 100 25 (2500)
I0428 19:30:50.430577 22420 net.cpp:139] Memory required for data: 1794800
I0428 19:30:50.430595 22420 layer_factory.hpp:77] Creating layer ip3
I0428 19:30:50.430603 22420 net.cpp:86] Creating Layer ip3
I0428 19:30:50.430606 22420 net.cpp:408] ip3 <- ip2
I0428 19:30:50.430613 22420 net.cpp:382] ip3 -> ip3
I0428 19:30:50.430738 22420 net.cpp:124] Setting up ip3
I0428 19:30:50.430747 22420 net.cpp:131] Top shape: 100 10 (1000)
I0428 19:30:50.430749 22420 net.cpp:139] Memory required for data: 1798800
I0428 19:30:50.430755 22420 layer_factory.hpp:77] Creating layer relu3
I0428 19:30:50.430759 22420 net.cpp:86] Creating Layer relu3
I0428 19:30:50.430764 22420 net.cpp:408] relu3 <- ip3
I0428 19:30:50.430768 22420 net.cpp:369] relu3 -> ip3 (in-place)
I0428 19:30:50.430950 22420 net.cpp:124] Setting up relu3
I0428 19:30:50.430958 22420 net.cpp:131] Top shape: 100 10 (1000)
I0428 19:30:50.430961 22420 net.cpp:139] Memory required for data: 1802800
I0428 19:30:50.430964 22420 layer_factory.hpp:77] Creating layer ip3_relu3_0_split
I0428 19:30:50.430970 22420 net.cpp:86] Creating Layer ip3_relu3_0_split
I0428 19:30:50.430974 22420 net.cpp:408] ip3_relu3_0_split <- ip3
I0428 19:30:50.430981 22420 net.cpp:382] ip3_relu3_0_split -> ip3_relu3_0_split_0
I0428 19:30:50.430987 22420 net.cpp:382] ip3_relu3_0_split -> ip3_relu3_0_split_1
I0428 19:30:50.431026 22420 net.cpp:124] Setting up ip3_relu3_0_split
I0428 19:30:50.431033 22420 net.cpp:131] Top shape: 100 10 (1000)
I0428 19:30:50.431037 22420 net.cpp:131] Top shape: 100 10 (1000)
I0428 19:30:50.431049 22420 net.cpp:139] Memory required for data: 1810800
I0428 19:30:50.431052 22420 layer_factory.hpp:77] Creating layer accuracy
I0428 19:30:50.431057 22420 net.cpp:86] Creating Layer accuracy
I0428 19:30:50.431077 22420 net.cpp:408] accuracy <- ip3_relu3_0_split_0
I0428 19:30:50.431082 22420 net.cpp:408] accuracy <- label_mnist_1_split_0
I0428 19:30:50.431102 22420 net.cpp:382] accuracy -> accuracy
…
