…
I0428 19:28:40.990555 21719 net.cpp:296] The NetState phase (0) differed from the phase (1) specified by a rule in layer mnist
I0428 19:28:40.990566 21719 net.cpp:296] The NetState phase (0) differed from the phase (1) specified by a rule in layer accuracy
I0428 19:28:40.990624 21719 net.cpp:53] Initializing net from parameters: 
name: "LeNet"
state {
  phase: TRAIN
  level: 0
  stage: ""
}
layer {
  name: "mnist"
  type: "Data"
  top: "data"
  top: "label"
  include {
    phase: TRAIN
  }
  transform_param {
    scale: 0.00390625
  }
  data_param {
    source: "examples/mnist/mnist_train_lmdb"
    batch_size: 64
    backend: LMDB
  }
}
layer {
  name: "ip1"
  type: "InnerProduct"
  bottom: "data"
  top: "ip1"
  param {
    lr_mult: 1
  }
  param {
    lr_mult: 2
  }
  inner_product_param {
    num_output: 50
    weight_filler {
      type: "xavier"
    }
    bias_filler {
      type: "constant"
    }
  }
}
layer {
  name: "relu1"
  type: "ReLU"
  bottom: "ip1"
  top: "ip1"
}
layer {
  name: "ip2"
  type: "InnerProduct"
  bottom: "ip1"
  top: "ip2"
  param {
    lr_mult: 1
  }
  param {
    lr_mult: 2
  }
  inner_product_param {
    num_output: 25
    weight_filler {
      type: "xavier"
    }
    bias_filler {
      type: "constant"
    }
  }
}
layer {
  name: "relu2"
  type: "ReLU"
  bottom: "ip2"
  top: "ip2"
}
layer {
  name: "ip3"
  type: "InnerProduct"
  bottom: "ip2"
  top: "ip3"
  param {
    lr_mult: 1
  }
  param {
    lr_mult: 2
  }
  inner_product_param {
    num_output: 10
    weight_filler {
      type: "xavier"
    }
    bias_filler {
      type: "constant"
    }
  }
}
layer {
  name: "relu3"
  type: "ReLU"
  bottom: "ip3"
  top: "ip3"
}
layer {
  name: "loss"
  type: "SoftmaxWithLoss"
  bottom: "ip3"
  bottom: "label"
  top: "loss"
}
I0428 19:28:40.990675 21719 layer_factory.hpp:77] Creating layer mnist
I0428 19:28:40.990772 21719 db_lmdb.cpp:35] Opened lmdb examples/mnist/mnist_train_lmdb
I0428 19:28:40.990790 21719 net.cpp:86] Creating Layer mnist
I0428 19:28:40.990797 21719 net.cpp:382] mnist -> data
I0428 19:28:40.990815 21719 net.cpp:382] mnist -> label
I0428 19:28:40.991734 21719 data_layer.cpp:45] output data size: 64,1,28,28
I0428 19:28:40.994179 21719 net.cpp:124] Setting up mnist
I0428 19:28:40.994211 21719 net.cpp:131] Top shape: 64 1 28 28 (50176)
I0428 19:28:40.994216 21719 net.cpp:131] Top shape: 64 (64)
I0428 19:28:40.994220 21719 net.cpp:139] Memory required for data: 200960
I0428 19:28:40.994241 21719 layer_factory.hpp:77] Creating layer ip1
I0428 19:28:40.994251 21719 net.cpp:86] Creating Layer ip1
I0428 19:28:40.994256 21719 net.cpp:408] ip1 <- data
I0428 19:28:40.994264 21719 net.cpp:382] ip1 -> ip1
I0428 19:28:40.994652 21719 net.cpp:124] Setting up ip1
I0428 19:28:40.994660 21719 net.cpp:131] Top shape: 64 50 (3200)
I0428 19:28:40.994664 21719 net.cpp:139] Memory required for data: 213760
I0428 19:28:40.994676 21719 layer_factory.hpp:77] Creating layer relu1
I0428 19:28:40.994683 21719 net.cpp:86] Creating Layer relu1
I0428 19:28:40.994688 21719 net.cpp:408] relu1 <- ip1
I0428 19:28:40.994691 21719 net.cpp:369] relu1 -> ip1 (in-place)
I0428 19:28:41.227495 21719 net.cpp:124] Setting up relu1
I0428 19:28:41.227540 21719 net.cpp:131] Top shape: 64 50 (3200)
I0428 19:28:41.227545 21719 net.cpp:139] Memory required for data: 226560
I0428 19:28:41.227550 21719 layer_factory.hpp:77] Creating layer ip2
I0428 19:28:41.227561 21719 net.cpp:86] Creating Layer ip2
I0428 19:28:41.227601 21719 net.cpp:408] ip2 <- ip1
I0428 19:28:41.227608 21719 net.cpp:382] ip2 -> ip2
I0428 19:28:41.228760 21719 net.cpp:124] Setting up ip2
I0428 19:28:41.228773 21719 net.cpp:131] Top shape: 64 25 (1600)
I0428 19:28:41.228793 21719 net.cpp:139] Memory required for data: 232960
I0428 19:28:41.228824 21719 layer_factory.hpp:77] Creating layer relu2
I0428 19:28:41.228835 21719 net.cpp:86] Creating Layer relu2
I0428 19:28:41.228838 21719 net.cpp:408] relu2 <- ip2
I0428 19:28:41.228843 21719 net.cpp:369] relu2 -> ip2 (in-place)
I0428 19:28:41.229702 21719 net.cpp:124] Setting up relu2
I0428 19:28:41.229715 21719 net.cpp:131] Top shape: 64 25 (1600)
I0428 19:28:41.229735 21719 net.cpp:139] Memory required for data: 239360
I0428 19:28:41.229738 21719 layer_factory.hpp:77] Creating layer ip3
I0428 19:28:41.229746 21719 net.cpp:86] Creating Layer ip3
I0428 19:28:41.229749 21719 net.cpp:408] ip3 <- ip2
I0428 19:28:41.229754 21719 net.cpp:382] ip3 -> ip3
I0428 19:28:41.229854 21719 net.cpp:124] Setting up ip3
I0428 19:28:41.229862 21719 net.cpp:131] Top shape: 64 10 (640)
I0428 19:28:41.229866 21719 net.cpp:139] Memory required for data: 241920
I0428 19:28:41.229873 21719 layer_factory.hpp:77] Creating layer relu3
I0428 19:28:41.229878 21719 net.cpp:86] Creating Layer relu3
I0428 19:28:41.229882 21719 net.cpp:408] relu3 <- ip3
I0428 19:28:41.229887 21719 net.cpp:369] relu3 -> ip3 (in-place)
I0428 19:28:41.230036 21719 net.cpp:124] Setting up relu3
I0428 19:28:41.230044 21719 net.cpp:131] Top shape: 64 10 (640)
I0428 19:28:41.230048 21719 net.cpp:139] Memory required for data: 244480
I0428 19:28:41.230051 21719 layer_factory.hpp:77] Creating layer loss
I0428 19:28:41.230062 21719 net.cpp:86] Creating Layer loss
I0428 19:28:41.230065 21719 net.cpp:408] loss <- ip3
I0428 19:28:41.230069 21719 net.cpp:408] loss <- label
I0428 19:28:41.230074 21719 net.cpp:382] loss -> loss
I0428 19:28:41.230089 21719 layer_factory.hpp:77] Creating layer loss
…
I0428 19:28:41.231555 21719 solver.cpp:173] Creating test net (#0) specified by net file: ECE595/mnist/train_test/var_everything2/lenet_train_test33.prototxt
I0428 19:28:41.231595 21719 net.cpp:296] The NetState phase (1) differed from the phase (0) specified by a rule in layer mnist
I0428 19:28:41.231663 21719 net.cpp:53] Initializing net from parameters: 
name: "LeNet"
state {
  phase: TEST
}
layer {
  name: "mnist"
  type: "Data"
  top: "data"
  top: "label"
  include {
    phase: TEST
  }
  transform_param {
    scale: 0.00390625
  }
  data_param {
    source: "examples/mnist/mnist_test_lmdb"
    batch_size: 100
    backend: LMDB
  }
}
layer {
  name: "ip1"
  type: "InnerProduct"
  bottom: "data"
  top: "ip1"
  param {
    lr_mult: 1
  }
  param {
    lr_mult: 2
  }
  inner_product_param {
    num_output: 50
    weight_filler {
      type: "xavier"
    }
    bias_filler {
      type: "constant"
    }
  }
}
layer {
  name: "relu1"
  type: "ReLU"
  bottom: "ip1"
  top: "ip1"
}
layer {
  name: "ip2"
  type: "InnerProduct"
  bottom: "ip1"
  top: "ip2"
  param {
    lr_mult: 1
  }
  param {
    lr_mult: 2
  }
  inner_product_param {
    num_output: 25
    weight_filler {
      type: "xavier"
    }
    bias_filler {
      type: "constant"
    }
  }
}
layer {
  name: "relu2"
  type: "ReLU"
  bottom: "ip2"
  top: "ip2"
}
layer {
  name: "ip3"
  type: "InnerProduct"
  bottom: "ip2"
  top: "ip3"
  param {
    lr_mult: 1
  }
  param {
    lr_mult: 2
  }
  inner_product_param {
    num_output: 10
    weight_filler {
      type: "xavier"
    }
    bias_filler {
      type: "constant"
    }
  }
}
layer {
  name: "relu3"
  type: "ReLU"
  bottom: "ip3"
  top: "ip3"
}
layer {
  name: "accuracy"
  type: "Accuracy"
  bottom: "ip3"
  bottom: "label"
  top: "accuracy"
  include {
    phase: TEST
  }
}
layer {
  name: "loss"
  type: "SoftmaxWithLoss"
  bottom: "ip3"
  bottom: "label"
  top: "loss"
}
I0428 19:28:41.231734 21719 layer_factory.hpp:77] Creating layer mnist
I0428 19:28:41.231793 21719 db_lmdb.cpp:35] Opened lmdb examples/mnist/mnist_test_lmdb
I0428 19:28:41.231806 21719 net.cpp:86] Creating Layer mnist
I0428 19:28:41.231812 21719 net.cpp:382] mnist -> data
I0428 19:28:41.231834 21719 net.cpp:382] mnist -> label
I0428 19:28:41.231937 21719 data_layer.cpp:45] output data size: 100,1,28,28
I0428 19:28:41.233975 21719 net.cpp:124] Setting up mnist
I0428 19:28:41.234021 21719 net.cpp:131] Top shape: 100 1 28 28 (78400)
I0428 19:28:41.234026 21719 net.cpp:131] Top shape: 100 (100)
I0428 19:28:41.234030 21719 net.cpp:139] Memory required for data: 314000
I0428 19:28:41.234035 21719 layer_factory.hpp:77] Creating layer label_mnist_1_split
I0428 19:28:41.234056 21719 net.cpp:86] Creating Layer label_mnist_1_split
I0428 19:28:41.234062 21719 net.cpp:408] label_mnist_1_split <- label
I0428 19:28:41.234067 21719 net.cpp:382] label_mnist_1_split -> label_mnist_1_split_0
I0428 19:28:41.234074 21719 net.cpp:382] label_mnist_1_split -> label_mnist_1_split_1
I0428 19:28:41.234179 21719 net.cpp:124] Setting up label_mnist_1_split
I0428 19:28:41.234187 21719 net.cpp:131] Top shape: 100 (100)
I0428 19:28:41.234191 21719 net.cpp:131] Top shape: 100 (100)
I0428 19:28:41.234194 21719 net.cpp:139] Memory required for data: 314800
I0428 19:28:41.234197 21719 layer_factory.hpp:77] Creating layer ip1
I0428 19:28:41.234205 21719 net.cpp:86] Creating Layer ip1
I0428 19:28:41.234207 21719 net.cpp:408] ip1 <- data
I0428 19:28:41.234212 21719 net.cpp:382] ip1 -> ip1
I0428 19:28:41.234642 21719 net.cpp:124] Setting up ip1
I0428 19:28:41.234652 21719 net.cpp:131] Top shape: 100 50 (5000)
I0428 19:28:41.234654 21719 net.cpp:139] Memory required for data: 334800
I0428 19:28:41.234664 21719 layer_factory.hpp:77] Creating layer relu1
I0428 19:28:41.234673 21719 net.cpp:86] Creating Layer relu1
I0428 19:28:41.234690 21719 net.cpp:408] relu1 <- ip1
I0428 19:28:41.234695 21719 net.cpp:369] relu1 -> ip1 (in-place)
I0428 19:28:41.235646 21719 net.cpp:124] Setting up relu1
I0428 19:28:41.235659 21719 net.cpp:131] Top shape: 100 50 (5000)
I0428 19:28:41.235678 21719 net.cpp:139] Memory required for data: 354800
I0428 19:28:41.235682 21719 layer_factory.hpp:77] Creating layer ip2
I0428 19:28:41.235689 21719 net.cpp:86] Creating Layer ip2
I0428 19:28:41.235693 21719 net.cpp:408] ip2 <- ip1
I0428 19:28:41.235698 21719 net.cpp:382] ip2 -> ip2
I0428 19:28:41.235836 21719 net.cpp:124] Setting up ip2
I0428 19:28:41.235844 21719 net.cpp:131] Top shape: 100 25 (2500)
I0428 19:28:41.235847 21719 net.cpp:139] Memory required for data: 364800
I0428 19:28:41.235854 21719 layer_factory.hpp:77] Creating layer relu2
I0428 19:28:41.235859 21719 net.cpp:86] Creating Layer relu2
I0428 19:28:41.235863 21719 net.cpp:408] relu2 <- ip2
I0428 19:28:41.235867 21719 net.cpp:369] relu2 -> ip2 (in-place)
I0428 19:28:41.236032 21719 net.cpp:124] Setting up relu2
I0428 19:28:41.236039 21719 net.cpp:131] Top shape: 100 25 (2500)
I0428 19:28:41.236042 21719 net.cpp:139] Memory required for data: 374800
I0428 19:28:41.236047 21719 layer_factory.hpp:77] Creating layer ip3
I0428 19:28:41.236052 21719 net.cpp:86] Creating Layer ip3
I0428 19:28:41.236054 21719 net.cpp:408] ip3 <- ip2
I0428 19:28:41.236058 21719 net.cpp:382] ip3 -> ip3
I0428 19:28:41.236160 21719 net.cpp:124] Setting up ip3
I0428 19:28:41.236166 21719 net.cpp:131] Top shape: 100 10 (1000)
I0428 19:28:41.236169 21719 net.cpp:139] Memory required for data: 378800
I0428 19:28:41.236177 21719 layer_factory.hpp:77] Creating layer relu3
I0428 19:28:41.236181 21719 net.cpp:86] Creating Layer relu3
I0428 19:28:41.236184 21719 net.cpp:408] relu3 <- ip3
I0428 19:28:41.236188 21719 net.cpp:369] relu3 -> ip3 (in-place)
I0428 19:28:41.236412 21719 net.cpp:124] Setting up relu3
I0428 19:28:41.236420 21719 net.cpp:131] Top shape: 100 10 (1000)
I0428 19:28:41.236423 21719 net.cpp:139] Memory required for data: 382800
I0428 19:28:41.236426 21719 layer_factory.hpp:77] Creating layer ip3_relu3_0_split
I0428 19:28:41.236433 21719 net.cpp:86] Creating Layer ip3_relu3_0_split
I0428 19:28:41.236435 21719 net.cpp:408] ip3_relu3_0_split <- ip3
I0428 19:28:41.236439 21719 net.cpp:382] ip3_relu3_0_split -> ip3_relu3_0_split_0
I0428 19:28:41.236445 21719 net.cpp:382] ip3_relu3_0_split -> ip3_relu3_0_split_1
I0428 19:28:41.236500 21719 net.cpp:124] Setting up ip3_relu3_0_split
I0428 19:28:41.236506 21719 net.cpp:131] Top shape: 100 10 (1000)
I0428 19:28:41.236510 21719 net.cpp:131] Top shape: 100 10 (1000)
I0428 19:28:41.236513 21719 net.cpp:139] Memory required for data: 390800
I0428 19:28:41.236522 21719 layer_factory.hpp:77] Creating layer accuracy
I0428 19:28:41.236531 21719 net.cpp:86] Creating Layer accuracy
I0428 19:28:41.236536 21719 net.cpp:408] accuracy <- ip3_relu3_0_split_0
I0428 19:28:41.236543 21719 net.cpp:408] accuracy <- label_mnist_1_split_0
I0428 19:28:41.236548 21719 net.cpp:382] accuracy -> accuracy
…
