…
I0428 20:02:32.549068 29965 net.cpp:296] The NetState phase (0) differed from the phase (1) specified by a rule in layer mnist
I0428 20:02:32.549098 29965 net.cpp:296] The NetState phase (0) differed from the phase (1) specified by a rule in layer accuracy
I0428 20:02:32.549206 29965 net.cpp:53] Initializing net from parameters: 
name: "LeNet"
state {
  phase: TRAIN
  level: 0
  stage: ""
}
layer {
  name: "mnist"
  type: "Data"
  top: "data"
  top: "label"
  include {
    phase: TRAIN
  }
  transform_param {
    scale: 0.00390625
  }
  data_param {
    source: "examples/mnist/mnist_train_lmdb"
    batch_size: 64
    backend: LMDB
  }
}
layer {
  name: "conv0"
  type: "Convolution"
  bottom: "data"
  top: "conv0"
  param {
    lr_mult: 1
  }
  param {
    lr_mult: 2
  }
  convolution_param {
    num_output: 10
    kernel_size: 5
    stride: 1
    weight_filler {
      type: "xavier"
    }
    bias_filler {
      type: "constant"
    }
  }
}
layer {
  name: "pool0"
  type: "Pooling"
  bottom: "conv0"
  top: "pool0"
  pooling_param {
    pool: MAX
    kernel_size: 2
    stride: 2
  }
}
layer {
  name: "conv1"
  type: "Convolution"
  bottom: "pool0"
  top: "conv1"
  param {
    lr_mult: 1
  }
  param {
    lr_mult: 2
  }
  convolution_param {
    num_output: 50
    kernel_size: 5
    stride: 1
    weight_filler {
      type: "xavier"
    }
    bias_filler {
      type: "constant"
    }
  }
}
layer {
  name: "pool1"
  type: "Pooling"
  bottom: "conv1"
  top: "pool1"
  pooling_param {
    pool: MAX
    kernel_size: 2
    stride: 2
  }
}
layer {
  name: "ip1"
  type: "InnerProduct"
  bottom: "pool1"
  top: "ip1"
  param {
    lr_mult: 1
  }
  param {
    lr_mult: 2
  }
  inner_product_param {
    num_output: 50
    weight_filler {
      type: "xavier"
    }
    bias_filler {
      type: "constant"
    }
  }
}
layer {
  name: "relu1"
  type: "ReLU"
  bottom: "ip1"
  top: "ip1"
}
layer {
  name: "ip2"
  type: "InnerProduct"
  bottom: "ip1"
  top: "ip2"
  param {
    lr_mult: 1
  }
  param {
    lr_mult: 2
  }
  inner_product_param {
    num_output: 25
    weight_filler {
      type: "xavier"
    }
    bias_filler {
      type: "constant"
    }
  }
}
layer {
  name: "relu2"
  type: "ReLU"
  bottom: "ip2"
  top: "ip2"
}
layer {
  name: "ip3"
  type: "InnerProduct"
  bottom: "ip2"
  top: "ip3"
  param {
    lr_mult: 1
  }
  param {
    lr_mult: 2
  }
  inner_product_param {
    num_output: 10
    weight_filler {
      type: "xavier"
    }
    bias_filler {
      type: "constant"
    }
  }
}
layer {
  name: "relu3"
  type: "ReLU"
  bottom: "ip3"
  top: "ip3"
}
layer {
  name: "loss"
  type: "SoftmaxWithLoss"
  bottom: "ip3"
  bottom: "label"
  top: "loss"
}
I0428 20:02:32.549265 29965 layer_factory.hpp:77] Creating layer mnist
I0428 20:02:32.549347 29965 db_lmdb.cpp:35] Opened lmdb examples/mnist/mnist_train_lmdb
I0428 20:02:32.549366 29965 net.cpp:86] Creating Layer mnist
I0428 20:02:32.549372 29965 net.cpp:382] mnist -> data
I0428 20:02:32.549391 29965 net.cpp:382] mnist -> label
I0428 20:02:32.550324 29965 data_layer.cpp:45] output data size: 64,1,28,28
I0428 20:02:32.552464 29965 net.cpp:124] Setting up mnist
I0428 20:02:32.552510 29965 net.cpp:131] Top shape: 64 1 28 28 (50176)
I0428 20:02:32.552515 29965 net.cpp:131] Top shape: 64 (64)
I0428 20:02:32.552517 29965 net.cpp:139] Memory required for data: 200960
I0428 20:02:32.552523 29965 layer_factory.hpp:77] Creating layer conv0
I0428 20:02:32.552566 29965 net.cpp:86] Creating Layer conv0
I0428 20:02:32.552597 29965 net.cpp:408] conv0 <- data
I0428 20:02:32.552606 29965 net.cpp:382] conv0 -> conv0
I0428 20:02:32.782701 29965 net.cpp:124] Setting up conv0
I0428 20:02:32.782742 29965 net.cpp:131] Top shape: 64 10 24 24 (368640)
I0428 20:02:32.782744 29965 net.cpp:139] Memory required for data: 1675520
I0428 20:02:32.782773 29965 layer_factory.hpp:77] Creating layer pool0
I0428 20:02:32.782785 29965 net.cpp:86] Creating Layer pool0
I0428 20:02:32.782788 29965 net.cpp:408] pool0 <- conv0
I0428 20:02:32.782793 29965 net.cpp:382] pool0 -> pool0
I0428 20:02:32.782855 29965 net.cpp:124] Setting up pool0
I0428 20:02:32.782860 29965 net.cpp:131] Top shape: 64 10 12 12 (92160)
I0428 20:02:32.782863 29965 net.cpp:139] Memory required for data: 2044160
I0428 20:02:32.782866 29965 layer_factory.hpp:77] Creating layer conv1
I0428 20:02:32.782876 29965 net.cpp:86] Creating Layer conv1
I0428 20:02:32.782879 29965 net.cpp:408] conv1 <- pool0
I0428 20:02:32.782883 29965 net.cpp:382] conv1 -> conv1
I0428 20:02:32.785784 29965 net.cpp:124] Setting up conv1
I0428 20:02:32.785815 29965 net.cpp:131] Top shape: 64 50 8 8 (204800)
I0428 20:02:32.785817 29965 net.cpp:139] Memory required for data: 2863360
I0428 20:02:32.785825 29965 layer_factory.hpp:77] Creating layer pool1
I0428 20:02:32.785833 29965 net.cpp:86] Creating Layer pool1
I0428 20:02:32.785836 29965 net.cpp:408] pool1 <- conv1
I0428 20:02:32.785841 29965 net.cpp:382] pool1 -> pool1
I0428 20:02:32.785892 29965 net.cpp:124] Setting up pool1
I0428 20:02:32.785897 29965 net.cpp:131] Top shape: 64 50 4 4 (51200)
I0428 20:02:32.785900 29965 net.cpp:139] Memory required for data: 3068160
I0428 20:02:32.785902 29965 layer_factory.hpp:77] Creating layer ip1
I0428 20:02:32.785913 29965 net.cpp:86] Creating Layer ip1
I0428 20:02:32.785917 29965 net.cpp:408] ip1 <- pool1
I0428 20:02:32.785920 29965 net.cpp:382] ip1 -> ip1
I0428 20:02:32.786262 29965 net.cpp:124] Setting up ip1
I0428 20:02:32.786269 29965 net.cpp:131] Top shape: 64 50 (3200)
I0428 20:02:32.786288 29965 net.cpp:139] Memory required for data: 3080960
I0428 20:02:32.786294 29965 layer_factory.hpp:77] Creating layer relu1
I0428 20:02:32.786299 29965 net.cpp:86] Creating Layer relu1
I0428 20:02:32.786303 29965 net.cpp:408] relu1 <- ip1
I0428 20:02:32.786308 29965 net.cpp:369] relu1 -> ip1 (in-place)
I0428 20:02:32.786456 29965 net.cpp:124] Setting up relu1
I0428 20:02:32.786465 29965 net.cpp:131] Top shape: 64 50 (3200)
I0428 20:02:32.786468 29965 net.cpp:139] Memory required for data: 3093760
I0428 20:02:32.786471 29965 layer_factory.hpp:77] Creating layer ip2
I0428 20:02:32.786476 29965 net.cpp:86] Creating Layer ip2
I0428 20:02:32.786479 29965 net.cpp:408] ip2 <- ip1
I0428 20:02:32.786484 29965 net.cpp:382] ip2 -> ip2
I0428 20:02:32.787412 29965 net.cpp:124] Setting up ip2
I0428 20:02:32.787423 29965 net.cpp:131] Top shape: 64 25 (1600)
I0428 20:02:32.787443 29965 net.cpp:139] Memory required for data: 3100160
I0428 20:02:32.787448 29965 layer_factory.hpp:77] Creating layer relu2
I0428 20:02:32.787456 29965 net.cpp:86] Creating Layer relu2
I0428 20:02:32.787459 29965 net.cpp:408] relu2 <- ip2
I0428 20:02:32.787463 29965 net.cpp:369] relu2 -> ip2 (in-place)
I0428 20:02:32.788187 29965 net.cpp:124] Setting up relu2
I0428 20:02:32.788199 29965 net.cpp:131] Top shape: 64 25 (1600)
I0428 20:02:32.788218 29965 net.cpp:139] Memory required for data: 3106560
I0428 20:02:32.788221 29965 layer_factory.hpp:77] Creating layer ip3
I0428 20:02:32.788228 29965 net.cpp:86] Creating Layer ip3
I0428 20:02:32.788231 29965 net.cpp:408] ip3 <- ip2
I0428 20:02:32.788236 29965 net.cpp:382] ip3 -> ip3
I0428 20:02:32.788343 29965 net.cpp:124] Setting up ip3
I0428 20:02:32.788352 29965 net.cpp:131] Top shape: 64 10 (640)
I0428 20:02:32.788355 29965 net.cpp:139] Memory required for data: 3109120
I0428 20:02:32.788363 29965 layer_factory.hpp:77] Creating layer relu3
I0428 20:02:32.788368 29965 net.cpp:86] Creating Layer relu3
I0428 20:02:32.788372 29965 net.cpp:408] relu3 <- ip3
I0428 20:02:32.788375 29965 net.cpp:369] relu3 -> ip3 (in-place)
I0428 20:02:32.788563 29965 net.cpp:124] Setting up relu3
I0428 20:02:32.788571 29965 net.cpp:131] Top shape: 64 10 (640)
I0428 20:02:32.788574 29965 net.cpp:139] Memory required for data: 3111680
I0428 20:02:32.788578 29965 layer_factory.hpp:77] Creating layer loss
I0428 20:02:32.788583 29965 net.cpp:86] Creating Layer loss
I0428 20:02:32.788585 29965 net.cpp:408] loss <- ip3
I0428 20:02:32.788589 29965 net.cpp:408] loss <- label
I0428 20:02:32.788594 29965 net.cpp:382] loss -> loss
I0428 20:02:32.788611 29965 layer_factory.hpp:77] Creating layer loss
…
I0428 20:02:32.789289 29965 solver.cpp:173] Creating test net (#0) specified by net file: ECE595/mnist/train_test/var_everything2/lenet_train_test931.prototxt
I0428 20:02:32.789331 29965 net.cpp:296] The NetState phase (1) differed from the phase (0) specified by a rule in layer mnist
I0428 20:02:32.789425 29965 net.cpp:53] Initializing net from parameters: 
name: "LeNet"
state {
  phase: TEST
}
layer {
  name: "mnist"
  type: "Data"
  top: "data"
  top: "label"
  include {
    phase: TEST
  }
  transform_param {
    scale: 0.00390625
  }
  data_param {
    source: "examples/mnist/mnist_test_lmdb"
    batch_size: 100
    backend: LMDB
  }
}
layer {
  name: "conv0"
  type: "Convolution"
  bottom: "data"
  top: "conv0"
  param {
    lr_mult: 1
  }
  param {
    lr_mult: 2
  }
  convolution_param {
    num_output: 10
    kernel_size: 5
    stride: 1
    weight_filler {
      type: "xavier"
    }
    bias_filler {
      type: "constant"
    }
  }
}
layer {
  name: "pool0"
  type: "Pooling"
  bottom: "conv0"
  top: "pool0"
  pooling_param {
    pool: MAX
    kernel_size: 2
    stride: 2
  }
}
layer {
  name: "conv1"
  type: "Convolution"
  bottom: "pool0"
  top: "conv1"
  param {
    lr_mult: 1
  }
  param {
    lr_mult: 2
  }
  convolution_param {
    num_output: 50
    kernel_size: 5
    stride: 1
    weight_filler {
      type: "xavier"
    }
    bias_filler {
      type: "constant"
    }
  }
}
layer {
  name: "pool1"
  type: "Pooling"
  bottom: "conv1"
  top: "pool1"
  pooling_param {
    pool: MAX
    kernel_size: 2
    stride: 2
  }
}
layer {
  name: "ip1"
  type: "InnerProduct"
  bottom: "pool1"
  top: "ip1"
  param {
    lr_mult: 1
  }
  param {
    lr_mult: 2
  }
  inner_product_param {
    num_output: 50
    weight_filler {
      type: "xavier"
    }
    bias_filler {
      type: "constant"
    }
  }
}
layer {
  name: "relu1"
  type: "ReLU"
  bottom: "ip1"
  top: "ip1"
}
layer {
  name: "ip2"
  type: "InnerProduct"
  bottom: "ip1"
  top: "ip2"
  param {
    lr_mult: 1
  }
  param {
    lr_mult: 2
  }
  inner_product_param {
    num_output: 25
    weight_filler {
      type: "xavier"
    }
    bias_filler {
      type: "constant"
    }
  }
}
layer {
  name: "relu2"
  type: "ReLU"
  bottom: "ip2"
  top: "ip2"
}
layer {
  name: "ip3"
  type: "InnerProduct"
  bottom: "ip2"
  top: "ip3"
  param {
    lr_mult: 1
  }
  param {
    lr_mult: 2
  }
  inner_product_param {
    num_output: 10
    weight_filler {
      type: "xavier"
    }
    bias_filler {
      type: "constant"
    }
  }
}
layer {
  name: "relu3"
  type: "ReLU"
  bottom: "ip3"
  top: "ip3"
}
layer {
  name: "accuracy"
  type: "Accuracy"
  bottom: "ip3"
  bottom: "label"
  top: "accuracy"
  include {
    phase: TEST
  }
}
layer {
  name: "loss"
  type: "SoftmaxWithLoss"
  bottom: "ip3"
  bottom: "label"
  top: "loss"
}
I0428 20:02:32.789513 29965 layer_factory.hpp:77] Creating layer mnist
I0428 20:02:32.789556 29965 db_lmdb.cpp:35] Opened lmdb examples/mnist/mnist_test_lmdb
I0428 20:02:32.789568 29965 net.cpp:86] Creating Layer mnist
I0428 20:02:32.789572 29965 net.cpp:382] mnist -> data
I0428 20:02:32.789580 29965 net.cpp:382] mnist -> label
I0428 20:02:32.789659 29965 data_layer.cpp:45] output data size: 100,1,28,28
I0428 20:02:32.791666 29965 net.cpp:124] Setting up mnist
I0428 20:02:32.791712 29965 net.cpp:131] Top shape: 100 1 28 28 (78400)
I0428 20:02:32.791716 29965 net.cpp:131] Top shape: 100 (100)
I0428 20:02:32.791719 29965 net.cpp:139] Memory required for data: 314000
I0428 20:02:32.791723 29965 layer_factory.hpp:77] Creating layer label_mnist_1_split
I0428 20:02:32.791751 29965 net.cpp:86] Creating Layer label_mnist_1_split
I0428 20:02:32.791755 29965 net.cpp:408] label_mnist_1_split <- label
I0428 20:02:32.791760 29965 net.cpp:382] label_mnist_1_split -> label_mnist_1_split_0
I0428 20:02:32.791766 29965 net.cpp:382] label_mnist_1_split -> label_mnist_1_split_1
I0428 20:02:32.791810 29965 net.cpp:124] Setting up label_mnist_1_split
I0428 20:02:32.791823 29965 net.cpp:131] Top shape: 100 (100)
I0428 20:02:32.791826 29965 net.cpp:131] Top shape: 100 (100)
I0428 20:02:32.791829 29965 net.cpp:139] Memory required for data: 314800
I0428 20:02:32.791832 29965 layer_factory.hpp:77] Creating layer conv0
I0428 20:02:32.791841 29965 net.cpp:86] Creating Layer conv0
I0428 20:02:32.791844 29965 net.cpp:408] conv0 <- data
I0428 20:02:32.791849 29965 net.cpp:382] conv0 -> conv0
I0428 20:02:32.793467 29965 net.cpp:124] Setting up conv0
I0428 20:02:32.793495 29965 net.cpp:131] Top shape: 100 10 24 24 (576000)
I0428 20:02:32.793499 29965 net.cpp:139] Memory required for data: 2618800
I0428 20:02:32.793509 29965 layer_factory.hpp:77] Creating layer pool0
I0428 20:02:32.793514 29965 net.cpp:86] Creating Layer pool0
I0428 20:02:32.793517 29965 net.cpp:408] pool0 <- conv0
I0428 20:02:32.793521 29965 net.cpp:382] pool0 -> pool0
I0428 20:02:32.793567 29965 net.cpp:124] Setting up pool0
I0428 20:02:32.793575 29965 net.cpp:131] Top shape: 100 10 12 12 (144000)
I0428 20:02:32.793578 29965 net.cpp:139] Memory required for data: 3194800
I0428 20:02:32.793583 29965 layer_factory.hpp:77] Creating layer conv1
I0428 20:02:32.793594 29965 net.cpp:86] Creating Layer conv1
I0428 20:02:32.793597 29965 net.cpp:408] conv1 <- pool0
I0428 20:02:32.793602 29965 net.cpp:382] conv1 -> conv1
I0428 20:02:32.795140 29965 net.cpp:124] Setting up conv1
I0428 20:02:32.795156 29965 net.cpp:131] Top shape: 100 50 8 8 (320000)
I0428 20:02:32.795178 29965 net.cpp:139] Memory required for data: 4474800
I0428 20:02:32.795187 29965 layer_factory.hpp:77] Creating layer pool1
I0428 20:02:32.795199 29965 net.cpp:86] Creating Layer pool1
I0428 20:02:32.795202 29965 net.cpp:408] pool1 <- conv1
I0428 20:02:32.795207 29965 net.cpp:382] pool1 -> pool1
I0428 20:02:32.795243 29965 net.cpp:124] Setting up pool1
I0428 20:02:32.795248 29965 net.cpp:131] Top shape: 100 50 4 4 (80000)
I0428 20:02:32.795250 29965 net.cpp:139] Memory required for data: 4794800
I0428 20:02:32.795254 29965 layer_factory.hpp:77] Creating layer ip1
I0428 20:02:32.795260 29965 net.cpp:86] Creating Layer ip1
I0428 20:02:32.795264 29965 net.cpp:408] ip1 <- pool1
I0428 20:02:32.795269 29965 net.cpp:382] ip1 -> ip1
I0428 20:02:32.795604 29965 net.cpp:124] Setting up ip1
I0428 20:02:32.795613 29965 net.cpp:131] Top shape: 100 50 (5000)
I0428 20:02:32.795642 29965 net.cpp:139] Memory required for data: 4814800
I0428 20:02:32.795650 29965 layer_factory.hpp:77] Creating layer relu1
I0428 20:02:32.795656 29965 net.cpp:86] Creating Layer relu1
I0428 20:02:32.795660 29965 net.cpp:408] relu1 <- ip1
I0428 20:02:32.795663 29965 net.cpp:369] relu1 -> ip1 (in-place)
I0428 20:02:32.795838 29965 net.cpp:124] Setting up relu1
I0428 20:02:32.795848 29965 net.cpp:131] Top shape: 100 50 (5000)
I0428 20:02:32.795851 29965 net.cpp:139] Memory required for data: 4834800
I0428 20:02:32.795855 29965 layer_factory.hpp:77] Creating layer ip2
I0428 20:02:32.795861 29965 net.cpp:86] Creating Layer ip2
I0428 20:02:32.795866 29965 net.cpp:408] ip2 <- ip1
I0428 20:02:32.795869 29965 net.cpp:382] ip2 -> ip2
I0428 20:02:32.795991 29965 net.cpp:124] Setting up ip2
I0428 20:02:32.796000 29965 net.cpp:131] Top shape: 100 25 (2500)
I0428 20:02:32.796002 29965 net.cpp:139] Memory required for data: 4844800
I0428 20:02:32.796007 29965 layer_factory.hpp:77] Creating layer relu2
I0428 20:02:32.796011 29965 net.cpp:86] Creating Layer relu2
I0428 20:02:32.796015 29965 net.cpp:408] relu2 <- ip2
I0428 20:02:32.796018 29965 net.cpp:369] relu2 -> ip2 (in-place)
I0428 20:02:32.796245 29965 net.cpp:124] Setting up relu2
I0428 20:02:32.796254 29965 net.cpp:131] Top shape: 100 25 (2500)
I0428 20:02:32.796257 29965 net.cpp:139] Memory required for data: 4854800
I0428 20:02:32.796260 29965 layer_factory.hpp:77] Creating layer ip3
I0428 20:02:32.796265 29965 net.cpp:86] Creating Layer ip3
I0428 20:02:32.796268 29965 net.cpp:408] ip3 <- ip2
I0428 20:02:32.796273 29965 net.cpp:382] ip3 -> ip3
I0428 20:02:32.796370 29965 net.cpp:124] Setting up ip3
I0428 20:02:32.796376 29965 net.cpp:131] Top shape: 100 10 (1000)
I0428 20:02:32.796380 29965 net.cpp:139] Memory required for data: 4858800
I0428 20:02:32.796387 29965 layer_factory.hpp:77] Creating layer relu3
I0428 20:02:32.796392 29965 net.cpp:86] Creating Layer relu3
I0428 20:02:32.796394 29965 net.cpp:408] relu3 <- ip3
I0428 20:02:32.796398 29965 net.cpp:369] relu3 -> ip3 (in-place)
I0428 20:02:32.797205 29965 net.cpp:124] Setting up relu3
I0428 20:02:32.797232 29965 net.cpp:131] Top shape: 100 10 (1000)
I0428 20:02:32.797236 29965 net.cpp:139] Memory required for data: 4862800
I0428 20:02:32.797240 29965 layer_factory.hpp:77] Creating layer ip3_relu3_0_split
I0428 20:02:32.797245 29965 net.cpp:86] Creating Layer ip3_relu3_0_split
I0428 20:02:32.797247 29965 net.cpp:408] ip3_relu3_0_split <- ip3
I0428 20:02:32.797253 29965 net.cpp:382] ip3_relu3_0_split -> ip3_relu3_0_split_0
I0428 20:02:32.797260 29965 net.cpp:382] ip3_relu3_0_split -> ip3_relu3_0_split_1
I0428 20:02:32.797338 29965 net.cpp:124] Setting up ip3_relu3_0_split
I0428 20:02:32.797344 29965 net.cpp:131] Top shape: 100 10 (1000)
I0428 20:02:32.797348 29965 net.cpp:131] Top shape: 100 10 (1000)
I0428 20:02:32.797350 29965 net.cpp:139] Memory required for data: 4870800
I0428 20:02:32.797353 29965 layer_factory.hpp:77] Creating layer accuracy
I0428 20:02:32.797358 29965 net.cpp:86] Creating Layer accuracy
I0428 20:02:32.797363 29965 net.cpp:408] accuracy <- ip3_relu3_0_split_0
I0428 20:02:32.797366 29965 net.cpp:408] accuracy <- label_mnist_1_split_0
I0428 20:02:32.797370 29965 net.cpp:382] accuracy -> accuracy
…
