…
I0428 19:53:18.957301 27740 net.cpp:296] The NetState phase (0) differed from the phase (1) specified by a rule in layer mnist
I0428 19:53:18.957331 27740 net.cpp:296] The NetState phase (0) differed from the phase (1) specified by a rule in layer accuracy
I0428 19:53:18.957413 27740 net.cpp:53] Initializing net from parameters: 
name: "LeNet"
state {
  phase: TRAIN
  level: 0
  stage: ""
}
layer {
  name: "mnist"
  type: "Data"
  top: "data"
  top: "label"
  include {
    phase: TRAIN
  }
  transform_param {
    scale: 0.00390625
  }
  data_param {
    source: "examples/mnist/mnist_train_lmdb"
    batch_size: 64
    backend: LMDB
  }
}
layer {
  name: "conv0"
  type: "Convolution"
  bottom: "data"
  top: "conv0"
  param {
    lr_mult: 1
  }
  param {
    lr_mult: 2
  }
  convolution_param {
    num_output: 5
    kernel_size: 5
    stride: 1
    weight_filler {
      type: "xavier"
    }
    bias_filler {
      type: "constant"
    }
  }
}
layer {
  name: "pool0"
  type: "Pooling"
  bottom: "conv0"
  top: "pool0"
  pooling_param {
    pool: MAX
    kernel_size: 2
    stride: 2
  }
}
layer {
  name: "conv1"
  type: "Convolution"
  bottom: "pool0"
  top: "conv1"
  param {
    lr_mult: 1
  }
  param {
    lr_mult: 2
  }
  convolution_param {
    num_output: 50
    kernel_size: 5
    stride: 1
    weight_filler {
      type: "xavier"
    }
    bias_filler {
      type: "constant"
    }
  }
}
layer {
  name: "pool1"
  type: "Pooling"
  bottom: "conv1"
  top: "pool1"
  pooling_param {
    pool: MAX
    kernel_size: 2
    stride: 2
  }
}
layer {
  name: "ip1"
  type: "InnerProduct"
  bottom: "pool1"
  top: "ip1"
  param {
    lr_mult: 1
  }
  param {
    lr_mult: 2
  }
  inner_product_param {
    num_output: 25
    weight_filler {
      type: "xavier"
    }
    bias_filler {
      type: "constant"
    }
  }
}
layer {
  name: "relu1"
  type: "ReLU"
  bottom: "ip1"
  top: "ip1"
}
layer {
  name: "ip2"
  type: "InnerProduct"
  bottom: "ip1"
  top: "ip2"
  param {
    lr_mult: 1
  }
  param {
    lr_mult: 2
  }
  inner_product_param {
    num_output: 10
    weight_filler {
      type: "xavier"
    }
    bias_filler {
      type: "constant"
    }
  }
}
layer {
  name: "relu2"
  type: "ReLU"
  bottom: "ip2"
  top: "ip2"
}
layer {
  name: "ip3"
  type: "InnerProduct"
  bottom: "ip2"
  top: "ip3"
  param {
    lr_mult: 1
  }
  param {
    lr_mult: 2
  }
  inner_product_param {
    num_output: 10
    weight_filler {
      type: "xavier"
    }
    bias_filler {
      type: "constant"
    }
  }
}
layer {
  name: "relu3"
  type: "ReLU"
  bottom: "ip3"
  top: "ip3"
}
layer {
  name: "loss"
  type: "SoftmaxWithLoss"
  bottom: "ip3"
  bottom: "label"
  top: "loss"
}
I0428 19:53:18.957478 27740 layer_factory.hpp:77] Creating layer mnist
I0428 19:53:18.957556 27740 db_lmdb.cpp:35] Opened lmdb examples/mnist/mnist_train_lmdb
I0428 19:53:18.957577 27740 net.cpp:86] Creating Layer mnist
I0428 19:53:18.957583 27740 net.cpp:382] mnist -> data
I0428 19:53:18.957602 27740 net.cpp:382] mnist -> label
I0428 19:53:18.958600 27740 data_layer.cpp:45] output data size: 64,1,28,28
I0428 19:53:18.960850 27740 net.cpp:124] Setting up mnist
I0428 19:53:18.960896 27740 net.cpp:131] Top shape: 64 1 28 28 (50176)
I0428 19:53:18.960902 27740 net.cpp:131] Top shape: 64 (64)
I0428 19:53:18.960906 27740 net.cpp:139] Memory required for data: 200960
I0428 19:53:18.960911 27740 layer_factory.hpp:77] Creating layer conv0
I0428 19:53:18.960925 27740 net.cpp:86] Creating Layer conv0
I0428 19:53:18.960943 27740 net.cpp:408] conv0 <- data
I0428 19:53:18.960955 27740 net.cpp:382] conv0 -> conv0
I0428 19:53:19.193300 27740 net.cpp:124] Setting up conv0
I0428 19:53:19.193325 27740 net.cpp:131] Top shape: 64 5 24 24 (184320)
I0428 19:53:19.193328 27740 net.cpp:139] Memory required for data: 938240
I0428 19:53:19.193342 27740 layer_factory.hpp:77] Creating layer pool0
I0428 19:53:19.193354 27740 net.cpp:86] Creating Layer pool0
I0428 19:53:19.193358 27740 net.cpp:408] pool0 <- conv0
I0428 19:53:19.193364 27740 net.cpp:382] pool0 -> pool0
I0428 19:53:19.193425 27740 net.cpp:124] Setting up pool0
I0428 19:53:19.193430 27740 net.cpp:131] Top shape: 64 5 12 12 (46080)
I0428 19:53:19.193434 27740 net.cpp:139] Memory required for data: 1122560
I0428 19:53:19.193436 27740 layer_factory.hpp:77] Creating layer conv1
I0428 19:53:19.193447 27740 net.cpp:86] Creating Layer conv1
I0428 19:53:19.193450 27740 net.cpp:408] conv1 <- pool0
I0428 19:53:19.193455 27740 net.cpp:382] conv1 -> conv1
I0428 19:53:19.196180 27740 net.cpp:124] Setting up conv1
I0428 19:53:19.196210 27740 net.cpp:131] Top shape: 64 50 8 8 (204800)
I0428 19:53:19.196214 27740 net.cpp:139] Memory required for data: 1941760
I0428 19:53:19.196223 27740 layer_factory.hpp:77] Creating layer pool1
I0428 19:53:19.196229 27740 net.cpp:86] Creating Layer pool1
I0428 19:53:19.196233 27740 net.cpp:408] pool1 <- conv1
I0428 19:53:19.196238 27740 net.cpp:382] pool1 -> pool1
I0428 19:53:19.196290 27740 net.cpp:124] Setting up pool1
I0428 19:53:19.196296 27740 net.cpp:131] Top shape: 64 50 4 4 (51200)
I0428 19:53:19.196302 27740 net.cpp:139] Memory required for data: 2146560
I0428 19:53:19.196306 27740 layer_factory.hpp:77] Creating layer ip1
I0428 19:53:19.196313 27740 net.cpp:86] Creating Layer ip1
I0428 19:53:19.196317 27740 net.cpp:408] ip1 <- pool1
I0428 19:53:19.196321 27740 net.cpp:382] ip1 -> ip1
I0428 19:53:19.196538 27740 net.cpp:124] Setting up ip1
I0428 19:53:19.196547 27740 net.cpp:131] Top shape: 64 25 (1600)
I0428 19:53:19.196549 27740 net.cpp:139] Memory required for data: 2152960
I0428 19:53:19.196557 27740 layer_factory.hpp:77] Creating layer relu1
I0428 19:53:19.196563 27740 net.cpp:86] Creating Layer relu1
I0428 19:53:19.196565 27740 net.cpp:408] relu1 <- ip1
I0428 19:53:19.196569 27740 net.cpp:369] relu1 -> ip1 (in-place)
I0428 19:53:19.196722 27740 net.cpp:124] Setting up relu1
I0428 19:53:19.196730 27740 net.cpp:131] Top shape: 64 25 (1600)
I0428 19:53:19.196733 27740 net.cpp:139] Memory required for data: 2159360
I0428 19:53:19.196737 27740 layer_factory.hpp:77] Creating layer ip2
I0428 19:53:19.196743 27740 net.cpp:86] Creating Layer ip2
I0428 19:53:19.196745 27740 net.cpp:408] ip2 <- ip1
I0428 19:53:19.196750 27740 net.cpp:382] ip2 -> ip2
I0428 19:53:19.196878 27740 net.cpp:124] Setting up ip2
I0428 19:53:19.196887 27740 net.cpp:131] Top shape: 64 10 (640)
I0428 19:53:19.196890 27740 net.cpp:139] Memory required for data: 2161920
I0428 19:53:19.196895 27740 layer_factory.hpp:77] Creating layer relu2
I0428 19:53:19.196918 27740 net.cpp:86] Creating Layer relu2
I0428 19:53:19.196921 27740 net.cpp:408] relu2 <- ip2
I0428 19:53:19.196925 27740 net.cpp:369] relu2 -> ip2 (in-place)
I0428 19:53:19.197782 27740 net.cpp:124] Setting up relu2
I0428 19:53:19.197794 27740 net.cpp:131] Top shape: 64 10 (640)
I0428 19:53:19.197813 27740 net.cpp:139] Memory required for data: 2164480
I0428 19:53:19.197818 27740 layer_factory.hpp:77] Creating layer ip3
I0428 19:53:19.197824 27740 net.cpp:86] Creating Layer ip3
I0428 19:53:19.197829 27740 net.cpp:408] ip3 <- ip2
I0428 19:53:19.197834 27740 net.cpp:382] ip3 -> ip3
I0428 19:53:19.197933 27740 net.cpp:124] Setting up ip3
I0428 19:53:19.197940 27740 net.cpp:131] Top shape: 64 10 (640)
I0428 19:53:19.197943 27740 net.cpp:139] Memory required for data: 2167040
I0428 19:53:19.197953 27740 layer_factory.hpp:77] Creating layer relu3
I0428 19:53:19.197962 27740 net.cpp:86] Creating Layer relu3
I0428 19:53:19.197966 27740 net.cpp:408] relu3 <- ip3
I0428 19:53:19.197970 27740 net.cpp:369] relu3 -> ip3 (in-place)
I0428 19:53:19.198129 27740 net.cpp:124] Setting up relu3
I0428 19:53:19.198137 27740 net.cpp:131] Top shape: 64 10 (640)
I0428 19:53:19.198140 27740 net.cpp:139] Memory required for data: 2169600
I0428 19:53:19.198144 27740 layer_factory.hpp:77] Creating layer loss
I0428 19:53:19.198149 27740 net.cpp:86] Creating Layer loss
I0428 19:53:19.198153 27740 net.cpp:408] loss <- ip3
I0428 19:53:19.198156 27740 net.cpp:408] loss <- label
I0428 19:53:19.198163 27740 net.cpp:382] loss -> loss
I0428 19:53:19.198179 27740 layer_factory.hpp:77] Creating layer loss
…
I0428 19:53:19.198925 27740 solver.cpp:173] Creating test net (#0) specified by net file: ECE595/mnist/train_test/var_everything2/lenet_train_test684.prototxt
I0428 19:53:19.198963 27740 net.cpp:296] The NetState phase (1) differed from the phase (0) specified by a rule in layer mnist
I0428 19:53:19.199059 27740 net.cpp:53] Initializing net from parameters: 
name: "LeNet"
state {
  phase: TEST
}
layer {
  name: "mnist"
  type: "Data"
  top: "data"
  top: "label"
  include {
    phase: TEST
  }
  transform_param {
    scale: 0.00390625
  }
  data_param {
    source: "examples/mnist/mnist_test_lmdb"
    batch_size: 100
    backend: LMDB
  }
}
layer {
  name: "conv0"
  type: "Convolution"
  bottom: "data"
  top: "conv0"
  param {
    lr_mult: 1
  }
  param {
    lr_mult: 2
  }
  convolution_param {
    num_output: 5
    kernel_size: 5
    stride: 1
    weight_filler {
      type: "xavier"
    }
    bias_filler {
      type: "constant"
    }
  }
}
layer {
  name: "pool0"
  type: "Pooling"
  bottom: "conv0"
  top: "pool0"
  pooling_param {
    pool: MAX
    kernel_size: 2
    stride: 2
  }
}
layer {
  name: "conv1"
  type: "Convolution"
  bottom: "pool0"
  top: "conv1"
  param {
    lr_mult: 1
  }
  param {
    lr_mult: 2
  }
  convolution_param {
    num_output: 50
    kernel_size: 5
    stride: 1
    weight_filler {
      type: "xavier"
    }
    bias_filler {
      type: "constant"
    }
  }
}
layer {
  name: "pool1"
  type: "Pooling"
  bottom: "conv1"
  top: "pool1"
  pooling_param {
    pool: MAX
    kernel_size: 2
    stride: 2
  }
}
layer {
  name: "ip1"
  type: "InnerProduct"
  bottom: "pool1"
  top: "ip1"
  param {
    lr_mult: 1
  }
  param {
    lr_mult: 2
  }
  inner_product_param {
    num_output: 25
    weight_filler {
      type: "xavier"
    }
    bias_filler {
      type: "constant"
    }
  }
}
layer {
  name: "relu1"
  type: "ReLU"
  bottom: "ip1"
  top: "ip1"
}
layer {
  name: "ip2"
  type: "InnerProduct"
  bottom: "ip1"
  top: "ip2"
  param {
    lr_mult: 1
  }
  param {
    lr_mult: 2
  }
  inner_product_param {
    num_output: 10
    weight_filler {
      type: "xavier"
    }
    bias_filler {
      type: "constant"
    }
  }
}
layer {
  name: "relu2"
  type: "ReLU"
  bottom: "ip2"
  top: "ip2"
}
layer {
  name: "ip3"
  type: "InnerProduct"
  bottom: "ip2"
  top: "ip3"
  param {
    lr_mult: 1
  }
  param {
    lr_mult: 2
  }
  inner_product_param {
    num_output: 10
    weight_filler {
      type: "xavier"
    }
    bias_filler {
      type: "constant"
    }
  }
}
layer {
  name: "relu3"
  type: "ReLU"
  bottom: "ip3"
  top: "ip3"
}
layer {
  name: "accuracy"
  type: "Accuracy"
  bottom: "ip3"
  bottom: "label"
  top: "accuracy"
  include {
    phase: TEST
  }
}
layer {
  name: "loss"
  type: "SoftmaxWithLoss"
  bottom: "ip3"
  bottom: "label"
  top: "loss"
}
I0428 19:53:19.199139 27740 layer_factory.hpp:77] Creating layer mnist
I0428 19:53:19.199187 27740 db_lmdb.cpp:35] Opened lmdb examples/mnist/mnist_test_lmdb
I0428 19:53:19.199200 27740 net.cpp:86] Creating Layer mnist
I0428 19:53:19.199205 27740 net.cpp:382] mnist -> data
I0428 19:53:19.199213 27740 net.cpp:382] mnist -> label
I0428 19:53:19.199321 27740 data_layer.cpp:45] output data size: 100,1,28,28
I0428 19:53:19.201330 27740 net.cpp:124] Setting up mnist
I0428 19:53:19.201344 27740 net.cpp:131] Top shape: 100 1 28 28 (78400)
I0428 19:53:19.201349 27740 net.cpp:131] Top shape: 100 (100)
I0428 19:53:19.201354 27740 net.cpp:139] Memory required for data: 314000
I0428 19:53:19.201357 27740 layer_factory.hpp:77] Creating layer label_mnist_1_split
I0428 19:53:19.201392 27740 net.cpp:86] Creating Layer label_mnist_1_split
I0428 19:53:19.201396 27740 net.cpp:408] label_mnist_1_split <- label
I0428 19:53:19.201401 27740 net.cpp:382] label_mnist_1_split -> label_mnist_1_split_0
I0428 19:53:19.201407 27740 net.cpp:382] label_mnist_1_split -> label_mnist_1_split_1
I0428 19:53:19.201508 27740 net.cpp:124] Setting up label_mnist_1_split
I0428 19:53:19.201515 27740 net.cpp:131] Top shape: 100 (100)
I0428 19:53:19.201519 27740 net.cpp:131] Top shape: 100 (100)
I0428 19:53:19.201522 27740 net.cpp:139] Memory required for data: 314800
I0428 19:53:19.201525 27740 layer_factory.hpp:77] Creating layer conv0
I0428 19:53:19.201534 27740 net.cpp:86] Creating Layer conv0
I0428 19:53:19.201537 27740 net.cpp:408] conv0 <- data
I0428 19:53:19.201542 27740 net.cpp:382] conv0 -> conv0
I0428 19:53:19.203202 27740 net.cpp:124] Setting up conv0
I0428 19:53:19.203215 27740 net.cpp:131] Top shape: 100 5 24 24 (288000)
I0428 19:53:19.203219 27740 net.cpp:139] Memory required for data: 1466800
I0428 19:53:19.203227 27740 layer_factory.hpp:77] Creating layer pool0
I0428 19:53:19.203233 27740 net.cpp:86] Creating Layer pool0
I0428 19:53:19.203253 27740 net.cpp:408] pool0 <- conv0
I0428 19:53:19.203258 27740 net.cpp:382] pool0 -> pool0
I0428 19:53:19.203290 27740 net.cpp:124] Setting up pool0
I0428 19:53:19.203295 27740 net.cpp:131] Top shape: 100 5 12 12 (72000)
I0428 19:53:19.203299 27740 net.cpp:139] Memory required for data: 1754800
I0428 19:53:19.203301 27740 layer_factory.hpp:77] Creating layer conv1
I0428 19:53:19.203310 27740 net.cpp:86] Creating Layer conv1
I0428 19:53:19.203312 27740 net.cpp:408] conv1 <- pool0
I0428 19:53:19.203316 27740 net.cpp:382] conv1 -> conv1
I0428 19:53:19.204808 27740 net.cpp:124] Setting up conv1
I0428 19:53:19.204843 27740 net.cpp:131] Top shape: 100 50 8 8 (320000)
I0428 19:53:19.204848 27740 net.cpp:139] Memory required for data: 3034800
I0428 19:53:19.204856 27740 layer_factory.hpp:77] Creating layer pool1
I0428 19:53:19.204879 27740 net.cpp:86] Creating Layer pool1
I0428 19:53:19.204883 27740 net.cpp:408] pool1 <- conv1
I0428 19:53:19.204888 27740 net.cpp:382] pool1 -> pool1
I0428 19:53:19.204942 27740 net.cpp:124] Setting up pool1
I0428 19:53:19.204948 27740 net.cpp:131] Top shape: 100 50 4 4 (80000)
I0428 19:53:19.204952 27740 net.cpp:139] Memory required for data: 3354800
I0428 19:53:19.204955 27740 layer_factory.hpp:77] Creating layer ip1
I0428 19:53:19.204962 27740 net.cpp:86] Creating Layer ip1
I0428 19:53:19.204965 27740 net.cpp:408] ip1 <- pool1
I0428 19:53:19.204978 27740 net.cpp:382] ip1 -> ip1
I0428 19:53:19.205292 27740 net.cpp:124] Setting up ip1
I0428 19:53:19.205303 27740 net.cpp:131] Top shape: 100 25 (2500)
I0428 19:53:19.205317 27740 net.cpp:139] Memory required for data: 3364800
I0428 19:53:19.205325 27740 layer_factory.hpp:77] Creating layer relu1
I0428 19:53:19.205330 27740 net.cpp:86] Creating Layer relu1
I0428 19:53:19.205340 27740 net.cpp:408] relu1 <- ip1
I0428 19:53:19.205345 27740 net.cpp:369] relu1 -> ip1 (in-place)
I0428 19:53:19.205509 27740 net.cpp:124] Setting up relu1
I0428 19:53:19.205518 27740 net.cpp:131] Top shape: 100 25 (2500)
I0428 19:53:19.205521 27740 net.cpp:139] Memory required for data: 3374800
I0428 19:53:19.205525 27740 layer_factory.hpp:77] Creating layer ip2
I0428 19:53:19.205531 27740 net.cpp:86] Creating Layer ip2
I0428 19:53:19.205535 27740 net.cpp:408] ip2 <- ip1
I0428 19:53:19.205539 27740 net.cpp:382] ip2 -> ip2
I0428 19:53:19.205629 27740 net.cpp:124] Setting up ip2
I0428 19:53:19.205637 27740 net.cpp:131] Top shape: 100 10 (1000)
I0428 19:53:19.205641 27740 net.cpp:139] Memory required for data: 3378800
I0428 19:53:19.205658 27740 layer_factory.hpp:77] Creating layer relu2
I0428 19:53:19.205662 27740 net.cpp:86] Creating Layer relu2
I0428 19:53:19.205667 27740 net.cpp:408] relu2 <- ip2
I0428 19:53:19.205677 27740 net.cpp:369] relu2 -> ip2 (in-place)
I0428 19:53:19.205828 27740 net.cpp:124] Setting up relu2
I0428 19:53:19.205837 27740 net.cpp:131] Top shape: 100 10 (1000)
I0428 19:53:19.205840 27740 net.cpp:139] Memory required for data: 3382800
I0428 19:53:19.205843 27740 layer_factory.hpp:77] Creating layer ip3
I0428 19:53:19.205849 27740 net.cpp:86] Creating Layer ip3
I0428 19:53:19.205852 27740 net.cpp:408] ip3 <- ip2
I0428 19:53:19.205857 27740 net.cpp:382] ip3 -> ip3
I0428 19:53:19.205966 27740 net.cpp:124] Setting up ip3
I0428 19:53:19.205974 27740 net.cpp:131] Top shape: 100 10 (1000)
I0428 19:53:19.205977 27740 net.cpp:139] Memory required for data: 3386800
I0428 19:53:19.205986 27740 layer_factory.hpp:77] Creating layer relu3
I0428 19:53:19.206007 27740 net.cpp:86] Creating Layer relu3
I0428 19:53:19.206012 27740 net.cpp:408] relu3 <- ip3
I0428 19:53:19.206017 27740 net.cpp:369] relu3 -> ip3 (in-place)
I0428 19:53:19.206897 27740 net.cpp:124] Setting up relu3
I0428 19:53:19.206909 27740 net.cpp:131] Top shape: 100 10 (1000)
I0428 19:53:19.206914 27740 net.cpp:139] Memory required for data: 3390800
I0428 19:53:19.206918 27740 layer_factory.hpp:77] Creating layer ip3_relu3_0_split
I0428 19:53:19.206923 27740 net.cpp:86] Creating Layer ip3_relu3_0_split
I0428 19:53:19.206933 27740 net.cpp:408] ip3_relu3_0_split <- ip3
I0428 19:53:19.206938 27740 net.cpp:382] ip3_relu3_0_split -> ip3_relu3_0_split_0
I0428 19:53:19.206945 27740 net.cpp:382] ip3_relu3_0_split -> ip3_relu3_0_split_1
I0428 19:53:19.206990 27740 net.cpp:124] Setting up ip3_relu3_0_split
I0428 19:53:19.206995 27740 net.cpp:131] Top shape: 100 10 (1000)
I0428 19:53:19.207000 27740 net.cpp:131] Top shape: 100 10 (1000)
I0428 19:53:19.207002 27740 net.cpp:139] Memory required for data: 3398800
I0428 19:53:19.207005 27740 layer_factory.hpp:77] Creating layer accuracy
I0428 19:53:19.207010 27740 net.cpp:86] Creating Layer accuracy
I0428 19:53:19.207015 27740 net.cpp:408] accuracy <- ip3_relu3_0_split_0
I0428 19:53:19.207018 27740 net.cpp:408] accuracy <- label_mnist_1_split_0
I0428 19:53:19.207022 27740 net.cpp:382] accuracy -> accuracy
…
