…
I0428 19:32:29.610913 22849 net.cpp:296] The NetState phase (0) differed from the phase (1) specified by a rule in layer mnist
I0428 19:32:29.610936 22849 net.cpp:296] The NetState phase (0) differed from the phase (1) specified by a rule in layer accuracy
I0428 19:32:29.611043 22849 net.cpp:53] Initializing net from parameters: 
name: "LeNet"
state {
  phase: TRAIN
  level: 0
  stage: ""
}
layer {
  name: "mnist"
  type: "Data"
  top: "data"
  top: "label"
  include {
    phase: TRAIN
  }
  transform_param {
    scale: 0.00390625
  }
  data_param {
    source: "examples/mnist/mnist_train_lmdb"
    batch_size: 64
    backend: LMDB
  }
}
layer {
  name: "conv0"
  type: "Convolution"
  bottom: "data"
  top: "conv0"
  param {
    lr_mult: 1
  }
  param {
    lr_mult: 2
  }
  convolution_param {
    num_output: 10
    kernel_size: 5
    stride: 1
    weight_filler {
      type: "xavier"
    }
    bias_filler {
      type: "constant"
    }
  }
}
layer {
  name: "pool0"
  type: "Pooling"
  bottom: "conv0"
  top: "pool0"
  pooling_param {
    pool: MAX
    kernel_size: 2
    stride: 2
  }
}
layer {
  name: "ip1"
  type: "InnerProduct"
  bottom: "pool0"
  top: "ip1"
  param {
    lr_mult: 1
  }
  param {
    lr_mult: 2
  }
  inner_product_param {
    num_output: 50
    weight_filler {
      type: "xavier"
    }
    bias_filler {
      type: "constant"
    }
  }
}
layer {
  name: "relu1"
  type: "ReLU"
  bottom: "ip1"
  top: "ip1"
}
layer {
  name: "ip2"
  type: "InnerProduct"
  bottom: "ip1"
  top: "ip2"
  param {
    lr_mult: 1
  }
  param {
    lr_mult: 2
  }
  inner_product_param {
    num_output: 50
    weight_filler {
      type: "xavier"
    }
    bias_filler {
      type: "constant"
    }
  }
}
layer {
  name: "relu2"
  type: "ReLU"
  bottom: "ip2"
  top: "ip2"
}
layer {
  name: "ip3"
  type: "InnerProduct"
  bottom: "ip2"
  top: "ip3"
  param {
    lr_mult: 1
  }
  param {
    lr_mult: 2
  }
  inner_product_param {
    num_output: 10
    weight_filler {
      type: "xavier"
    }
    bias_filler {
      type: "constant"
    }
  }
}
layer {
  name: "relu3"
  type: "ReLU"
  bottom: "ip3"
  top: "ip3"
}
layer {
  name: "loss"
  type: "SoftmaxWithLoss"
  bottom: "ip3"
  bottom: "label"
  top: "loss"
}
I0428 19:32:29.611151 22849 layer_factory.hpp:77] Creating layer mnist
I0428 19:32:29.611284 22849 db_lmdb.cpp:35] Opened lmdb examples/mnist/mnist_train_lmdb
I0428 19:32:29.611315 22849 net.cpp:86] Creating Layer mnist
I0428 19:32:29.611330 22849 net.cpp:382] mnist -> data
I0428 19:32:29.611361 22849 net.cpp:382] mnist -> label
I0428 19:32:29.612584 22849 data_layer.cpp:45] output data size: 64,1,28,28
I0428 19:32:29.615051 22849 net.cpp:124] Setting up mnist
I0428 19:32:29.615072 22849 net.cpp:131] Top shape: 64 1 28 28 (50176)
I0428 19:32:29.615085 22849 net.cpp:131] Top shape: 64 (64)
I0428 19:32:29.615092 22849 net.cpp:139] Memory required for data: 200960
I0428 19:32:29.615101 22849 layer_factory.hpp:77] Creating layer conv0
I0428 19:32:29.615123 22849 net.cpp:86] Creating Layer conv0
I0428 19:32:29.615134 22849 net.cpp:408] conv0 <- data
I0428 19:32:29.615155 22849 net.cpp:382] conv0 -> conv0
I0428 19:32:29.899552 22849 net.cpp:124] Setting up conv0
I0428 19:32:29.899582 22849 net.cpp:131] Top shape: 64 10 24 24 (368640)
I0428 19:32:29.899588 22849 net.cpp:139] Memory required for data: 1675520
I0428 19:32:29.899610 22849 layer_factory.hpp:77] Creating layer pool0
I0428 19:32:29.899626 22849 net.cpp:86] Creating Layer pool0
I0428 19:32:29.899652 22849 net.cpp:408] pool0 <- conv0
I0428 19:32:29.899662 22849 net.cpp:382] pool0 -> pool0
I0428 19:32:29.899722 22849 net.cpp:124] Setting up pool0
I0428 19:32:29.899731 22849 net.cpp:131] Top shape: 64 10 12 12 (92160)
I0428 19:32:29.899736 22849 net.cpp:139] Memory required for data: 2044160
I0428 19:32:29.899742 22849 layer_factory.hpp:77] Creating layer ip1
I0428 19:32:29.899754 22849 net.cpp:86] Creating Layer ip1
I0428 19:32:29.899762 22849 net.cpp:408] ip1 <- pool0
I0428 19:32:29.899771 22849 net.cpp:382] ip1 -> ip1
I0428 19:32:29.901162 22849 net.cpp:124] Setting up ip1
I0428 19:32:29.901178 22849 net.cpp:131] Top shape: 64 50 (3200)
I0428 19:32:29.901183 22849 net.cpp:139] Memory required for data: 2056960
I0428 19:32:29.901196 22849 layer_factory.hpp:77] Creating layer relu1
I0428 19:32:29.901207 22849 net.cpp:86] Creating Layer relu1
I0428 19:32:29.901213 22849 net.cpp:408] relu1 <- ip1
I0428 19:32:29.901221 22849 net.cpp:369] relu1 -> ip1 (in-place)
I0428 19:32:29.901392 22849 net.cpp:124] Setting up relu1
I0428 19:32:29.901417 22849 net.cpp:131] Top shape: 64 50 (3200)
I0428 19:32:29.901422 22849 net.cpp:139] Memory required for data: 2069760
I0428 19:32:29.901428 22849 layer_factory.hpp:77] Creating layer ip2
I0428 19:32:29.901439 22849 net.cpp:86] Creating Layer ip2
I0428 19:32:29.901444 22849 net.cpp:408] ip2 <- ip1
I0428 19:32:29.901459 22849 net.cpp:382] ip2 -> ip2
I0428 19:32:29.902484 22849 net.cpp:124] Setting up ip2
I0428 19:32:29.902499 22849 net.cpp:131] Top shape: 64 50 (3200)
I0428 19:32:29.902505 22849 net.cpp:139] Memory required for data: 2082560
I0428 19:32:29.902518 22849 layer_factory.hpp:77] Creating layer relu2
I0428 19:32:29.902528 22849 net.cpp:86] Creating Layer relu2
I0428 19:32:29.902534 22849 net.cpp:408] relu2 <- ip2
I0428 19:32:29.902541 22849 net.cpp:369] relu2 -> ip2 (in-place)
I0428 19:32:29.903301 22849 net.cpp:124] Setting up relu2
I0428 19:32:29.903314 22849 net.cpp:131] Top shape: 64 50 (3200)
I0428 19:32:29.903319 22849 net.cpp:139] Memory required for data: 2095360
I0428 19:32:29.903326 22849 layer_factory.hpp:77] Creating layer ip3
I0428 19:32:29.903337 22849 net.cpp:86] Creating Layer ip3
I0428 19:32:29.903342 22849 net.cpp:408] ip3 <- ip2
I0428 19:32:29.903352 22849 net.cpp:382] ip3 -> ip3
I0428 19:32:29.903471 22849 net.cpp:124] Setting up ip3
I0428 19:32:29.903481 22849 net.cpp:131] Top shape: 64 10 (640)
I0428 19:32:29.903486 22849 net.cpp:139] Memory required for data: 2097920
I0428 19:32:29.903496 22849 layer_factory.hpp:77] Creating layer relu3
I0428 19:32:29.903506 22849 net.cpp:86] Creating Layer relu3
I0428 19:32:29.903513 22849 net.cpp:408] relu3 <- ip3
I0428 19:32:29.903520 22849 net.cpp:369] relu3 -> ip3 (in-place)
I0428 19:32:29.903676 22849 net.cpp:124] Setting up relu3
I0428 19:32:29.903686 22849 net.cpp:131] Top shape: 64 10 (640)
I0428 19:32:29.903690 22849 net.cpp:139] Memory required for data: 2100480
I0428 19:32:29.903695 22849 layer_factory.hpp:77] Creating layer loss
I0428 19:32:29.903704 22849 net.cpp:86] Creating Layer loss
I0428 19:32:29.903709 22849 net.cpp:408] loss <- ip3
I0428 19:32:29.903717 22849 net.cpp:408] loss <- label
I0428 19:32:29.903724 22849 net.cpp:382] loss -> loss
I0428 19:32:29.903748 22849 layer_factory.hpp:77] Creating layer loss
…
I0428 19:32:29.904418 22849 solver.cpp:173] Creating test net (#0) specified by net file: ECE595/mnist/train_test/var_everything2/lenet_train_test154.prototxt
I0428 19:32:29.904451 22849 net.cpp:296] The NetState phase (1) differed from the phase (0) specified by a rule in layer mnist
I0428 19:32:29.904537 22849 net.cpp:53] Initializing net from parameters: 
name: "LeNet"
state {
  phase: TEST
}
layer {
  name: "mnist"
  type: "Data"
  top: "data"
  top: "label"
  include {
    phase: TEST
  }
  transform_param {
    scale: 0.00390625
  }
  data_param {
    source: "examples/mnist/mnist_test_lmdb"
    batch_size: 100
    backend: LMDB
  }
}
layer {
  name: "conv0"
  type: "Convolution"
  bottom: "data"
  top: "conv0"
  param {
    lr_mult: 1
  }
  param {
    lr_mult: 2
  }
  convolution_param {
    num_output: 10
    kernel_size: 5
    stride: 1
    weight_filler {
      type: "xavier"
    }
    bias_filler {
      type: "constant"
    }
  }
}
layer {
  name: "pool0"
  type: "Pooling"
  bottom: "conv0"
  top: "pool0"
  pooling_param {
    pool: MAX
    kernel_size: 2
    stride: 2
  }
}
layer {
  name: "ip1"
  type: "InnerProduct"
  bottom: "pool0"
  top: "ip1"
  param {
    lr_mult: 1
  }
  param {
    lr_mult: 2
  }
  inner_product_param {
    num_output: 50
    weight_filler {
      type: "xavier"
    }
    bias_filler {
      type: "constant"
    }
  }
}
layer {
  name: "relu1"
  type: "ReLU"
  bottom: "ip1"
  top: "ip1"
}
layer {
  name: "ip2"
  type: "InnerProduct"
  bottom: "ip1"
  top: "ip2"
  param {
    lr_mult: 1
  }
  param {
    lr_mult: 2
  }
  inner_product_param {
    num_output: 50
    weight_filler {
      type: "xavier"
    }
    bias_filler {
      type: "constant"
    }
  }
}
layer {
  name: "relu2"
  type: "ReLU"
  bottom: "ip2"
  top: "ip2"
}
layer {
  name: "ip3"
  type: "InnerProduct"
  bottom: "ip2"
  top: "ip3"
  param {
    lr_mult: 1
  }
  param {
    lr_mult: 2
  }
  inner_product_param {
    num_output: 10
    weight_filler {
      type: "xavier"
    }
    bias_filler {
      type: "constant"
    }
  }
}
layer {
  name: "relu3"
  type: "ReLU"
  bottom: "ip3"
  top: "ip3"
}
layer {
  name: "accuracy"
  type: "Accuracy"
  bottom: "ip3"
  bottom: "label"
  top: "accuracy"
  include {
    phase: TEST
  }
}
layer {
  name: "loss"
  type: "SoftmaxWithLoss"
  bottom: "ip3"
  bottom: "label"
  top: "loss"
}
I0428 19:32:29.904633 22849 layer_factory.hpp:77] Creating layer mnist
I0428 19:32:29.904692 22849 db_lmdb.cpp:35] Opened lmdb examples/mnist/mnist_test_lmdb
I0428 19:32:29.904709 22849 net.cpp:86] Creating Layer mnist
I0428 19:32:29.904716 22849 net.cpp:382] mnist -> data
I0428 19:32:29.904727 22849 net.cpp:382] mnist -> label
I0428 19:32:29.904850 22849 data_layer.cpp:45] output data size: 100,1,28,28
I0428 19:32:29.906208 22849 net.cpp:124] Setting up mnist
I0428 19:32:29.906239 22849 net.cpp:131] Top shape: 100 1 28 28 (78400)
I0428 19:32:29.906247 22849 net.cpp:131] Top shape: 100 (100)
I0428 19:32:29.906252 22849 net.cpp:139] Memory required for data: 314000
I0428 19:32:29.906258 22849 layer_factory.hpp:77] Creating layer label_mnist_1_split
I0428 19:32:29.906287 22849 net.cpp:86] Creating Layer label_mnist_1_split
I0428 19:32:29.906294 22849 net.cpp:408] label_mnist_1_split <- label
I0428 19:32:29.906302 22849 net.cpp:382] label_mnist_1_split -> label_mnist_1_split_0
I0428 19:32:29.906313 22849 net.cpp:382] label_mnist_1_split -> label_mnist_1_split_1
I0428 19:32:29.906442 22849 net.cpp:124] Setting up label_mnist_1_split
I0428 19:32:29.906452 22849 net.cpp:131] Top shape: 100 (100)
I0428 19:32:29.906460 22849 net.cpp:131] Top shape: 100 (100)
I0428 19:32:29.906464 22849 net.cpp:139] Memory required for data: 314800
I0428 19:32:29.906483 22849 layer_factory.hpp:77] Creating layer conv0
I0428 19:32:29.906497 22849 net.cpp:86] Creating Layer conv0
I0428 19:32:29.906505 22849 net.cpp:408] conv0 <- data
I0428 19:32:29.906514 22849 net.cpp:382] conv0 -> conv0
I0428 19:32:29.908097 22849 net.cpp:124] Setting up conv0
I0428 19:32:29.908113 22849 net.cpp:131] Top shape: 100 10 24 24 (576000)
I0428 19:32:29.908118 22849 net.cpp:139] Memory required for data: 2618800
I0428 19:32:29.908133 22849 layer_factory.hpp:77] Creating layer pool0
I0428 19:32:29.908143 22849 net.cpp:86] Creating Layer pool0
I0428 19:32:29.908150 22849 net.cpp:408] pool0 <- conv0
I0428 19:32:29.908159 22849 net.cpp:382] pool0 -> pool0
I0428 19:32:29.908200 22849 net.cpp:124] Setting up pool0
I0428 19:32:29.908208 22849 net.cpp:131] Top shape: 100 10 12 12 (144000)
I0428 19:32:29.908215 22849 net.cpp:139] Memory required for data: 3194800
I0428 19:32:29.908219 22849 layer_factory.hpp:77] Creating layer ip1
I0428 19:32:29.908231 22849 net.cpp:86] Creating Layer ip1
I0428 19:32:29.908237 22849 net.cpp:408] ip1 <- pool0
I0428 19:32:29.908246 22849 net.cpp:382] ip1 -> ip1
I0428 19:32:29.908778 22849 net.cpp:124] Setting up ip1
I0428 19:32:29.908789 22849 net.cpp:131] Top shape: 100 50 (5000)
I0428 19:32:29.908795 22849 net.cpp:139] Memory required for data: 3214800
I0428 19:32:29.908808 22849 layer_factory.hpp:77] Creating layer relu1
I0428 19:32:29.908848 22849 net.cpp:86] Creating Layer relu1
I0428 19:32:29.908854 22849 net.cpp:408] relu1 <- ip1
I0428 19:32:29.908862 22849 net.cpp:369] relu1 -> ip1 (in-place)
I0428 19:32:29.909061 22849 net.cpp:124] Setting up relu1
I0428 19:32:29.909072 22849 net.cpp:131] Top shape: 100 50 (5000)
I0428 19:32:29.909078 22849 net.cpp:139] Memory required for data: 3234800
I0428 19:32:29.909083 22849 layer_factory.hpp:77] Creating layer ip2
I0428 19:32:29.909093 22849 net.cpp:86] Creating Layer ip2
I0428 19:32:29.909099 22849 net.cpp:408] ip2 <- ip1
I0428 19:32:29.909108 22849 net.cpp:382] ip2 -> ip2
I0428 19:32:29.909276 22849 net.cpp:124] Setting up ip2
I0428 19:32:29.909286 22849 net.cpp:131] Top shape: 100 50 (5000)
I0428 19:32:29.909291 22849 net.cpp:139] Memory required for data: 3254800
I0428 19:32:29.909303 22849 layer_factory.hpp:77] Creating layer relu2
I0428 19:32:29.909313 22849 net.cpp:86] Creating Layer relu2
I0428 19:32:29.909318 22849 net.cpp:408] relu2 <- ip2
I0428 19:32:29.909327 22849 net.cpp:369] relu2 -> ip2 (in-place)
I0428 19:32:29.910224 22849 net.cpp:124] Setting up relu2
I0428 19:32:29.910238 22849 net.cpp:131] Top shape: 100 50 (5000)
I0428 19:32:29.910244 22849 net.cpp:139] Memory required for data: 3274800
I0428 19:32:29.910249 22849 layer_factory.hpp:77] Creating layer ip3
I0428 19:32:29.910261 22849 net.cpp:86] Creating Layer ip3
I0428 19:32:29.910267 22849 net.cpp:408] ip3 <- ip2
I0428 19:32:29.910292 22849 net.cpp:382] ip3 -> ip3
I0428 19:32:29.910424 22849 net.cpp:124] Setting up ip3
I0428 19:32:29.910436 22849 net.cpp:131] Top shape: 100 10 (1000)
I0428 19:32:29.910442 22849 net.cpp:139] Memory required for data: 3278800
I0428 19:32:29.910454 22849 layer_factory.hpp:77] Creating layer relu3
I0428 19:32:29.910461 22849 net.cpp:86] Creating Layer relu3
I0428 19:32:29.910467 22849 net.cpp:408] relu3 <- ip3
I0428 19:32:29.910490 22849 net.cpp:369] relu3 -> ip3 (in-place)
I0428 19:32:29.910686 22849 net.cpp:124] Setting up relu3
I0428 19:32:29.910696 22849 net.cpp:131] Top shape: 100 10 (1000)
I0428 19:32:29.910702 22849 net.cpp:139] Memory required for data: 3282800
I0428 19:32:29.910707 22849 layer_factory.hpp:77] Creating layer ip3_relu3_0_split
I0428 19:32:29.910715 22849 net.cpp:86] Creating Layer ip3_relu3_0_split
I0428 19:32:29.910737 22849 net.cpp:408] ip3_relu3_0_split <- ip3
I0428 19:32:29.910744 22849 net.cpp:382] ip3_relu3_0_split -> ip3_relu3_0_split_0
I0428 19:32:29.910754 22849 net.cpp:382] ip3_relu3_0_split -> ip3_relu3_0_split_1
I0428 19:32:29.910799 22849 net.cpp:124] Setting up ip3_relu3_0_split
I0428 19:32:29.910807 22849 net.cpp:131] Top shape: 100 10 (1000)
I0428 19:32:29.910815 22849 net.cpp:131] Top shape: 100 10 (1000)
I0428 19:32:29.910832 22849 net.cpp:139] Memory required for data: 3290800
I0428 19:32:29.910840 22849 layer_factory.hpp:77] Creating layer accuracy
I0428 19:32:29.910848 22849 net.cpp:86] Creating Layer accuracy
I0428 19:32:29.910854 22849 net.cpp:408] accuracy <- ip3_relu3_0_split_0
I0428 19:32:29.910861 22849 net.cpp:408] accuracy <- label_mnist_1_split_0
I0428 19:32:29.910869 22849 net.cpp:382] accuracy -> accuracy
…
