…
I0428 19:29:52.119168 22134 net.cpp:296] The NetState phase (0) differed from the phase (1) specified by a rule in layer mnist
I0428 19:29:52.119186 22134 net.cpp:296] The NetState phase (0) differed from the phase (1) specified by a rule in layer accuracy
I0428 19:29:52.119273 22134 net.cpp:53] Initializing net from parameters: 
name: "LeNet"
state {
  phase: TRAIN
  level: 0
  stage: ""
}
layer {
  name: "mnist"
  type: "Data"
  top: "data"
  top: "label"
  include {
    phase: TRAIN
  }
  transform_param {
    scale: 0.00390625
  }
  data_param {
    source: "examples/mnist/mnist_train_lmdb"
    batch_size: 64
    backend: LMDB
  }
}
layer {
  name: "conv0"
  type: "Convolution"
  bottom: "data"
  top: "conv0"
  param {
    lr_mult: 1
  }
  param {
    lr_mult: 2
  }
  convolution_param {
    num_output: 2
    kernel_size: 5
    stride: 1
    weight_filler {
      type: "xavier"
    }
    bias_filler {
      type: "constant"
    }
  }
}
layer {
  name: "pool0"
  type: "Pooling"
  bottom: "conv0"
  top: "pool0"
  pooling_param {
    pool: MAX
    kernel_size: 2
    stride: 2
  }
}
layer {
  name: "ip1"
  type: "InnerProduct"
  bottom: "pool0"
  top: "ip1"
  param {
    lr_mult: 1
  }
  param {
    lr_mult: 2
  }
  inner_product_param {
    num_output: 50
    weight_filler {
      type: "xavier"
    }
    bias_filler {
      type: "constant"
    }
  }
}
layer {
  name: "relu1"
  type: "ReLU"
  bottom: "ip1"
  top: "ip1"
}
layer {
  name: "ip2"
  type: "InnerProduct"
  bottom: "ip1"
  top: "ip2"
  param {
    lr_mult: 1
  }
  param {
    lr_mult: 2
  }
  inner_product_param {
    num_output: 25
    weight_filler {
      type: "xavier"
    }
    bias_filler {
      type: "constant"
    }
  }
}
layer {
  name: "relu2"
  type: "ReLU"
  bottom: "ip2"
  top: "ip2"
}
layer {
  name: "ip3"
  type: "InnerProduct"
  bottom: "ip2"
  top: "ip3"
  param {
    lr_mult: 1
  }
  param {
    lr_mult: 2
  }
  inner_product_param {
    num_output: 10
    weight_filler {
      type: "xavier"
    }
    bias_filler {
      type: "constant"
    }
  }
}
layer {
  name: "relu3"
  type: "ReLU"
  bottom: "ip3"
  top: "ip3"
}
layer {
  name: "loss"
  type: "SoftmaxWithLoss"
  bottom: "ip3"
  bottom: "label"
  top: "loss"
}
I0428 19:29:52.119349 22134 layer_factory.hpp:77] Creating layer mnist
I0428 19:29:52.119446 22134 db_lmdb.cpp:35] Opened lmdb examples/mnist/mnist_train_lmdb
I0428 19:29:52.119468 22134 net.cpp:86] Creating Layer mnist
I0428 19:29:52.119475 22134 net.cpp:382] mnist -> data
I0428 19:29:52.119499 22134 net.cpp:382] mnist -> label
I0428 19:29:52.120597 22134 data_layer.cpp:45] output data size: 64,1,28,28
I0428 19:29:52.123059 22134 net.cpp:124] Setting up mnist
I0428 19:29:52.123075 22134 net.cpp:131] Top shape: 64 1 28 28 (50176)
I0428 19:29:52.123082 22134 net.cpp:131] Top shape: 64 (64)
I0428 19:29:52.123085 22134 net.cpp:139] Memory required for data: 200960
I0428 19:29:52.123092 22134 layer_factory.hpp:77] Creating layer conv0
I0428 19:29:52.123133 22134 net.cpp:86] Creating Layer conv0
I0428 19:29:52.123139 22134 net.cpp:408] conv0 <- data
I0428 19:29:52.123152 22134 net.cpp:382] conv0 -> conv0
I0428 19:29:52.372040 22134 net.cpp:124] Setting up conv0
I0428 19:29:52.372067 22134 net.cpp:131] Top shape: 64 2 24 24 (73728)
I0428 19:29:52.372071 22134 net.cpp:139] Memory required for data: 495872
I0428 19:29:52.372086 22134 layer_factory.hpp:77] Creating layer pool0
I0428 19:29:52.372097 22134 net.cpp:86] Creating Layer pool0
I0428 19:29:52.372135 22134 net.cpp:408] pool0 <- conv0
I0428 19:29:52.372141 22134 net.cpp:382] pool0 -> pool0
I0428 19:29:52.372189 22134 net.cpp:124] Setting up pool0
I0428 19:29:52.372197 22134 net.cpp:131] Top shape: 64 2 12 12 (18432)
I0428 19:29:52.372200 22134 net.cpp:139] Memory required for data: 569600
I0428 19:29:52.372203 22134 layer_factory.hpp:77] Creating layer ip1
I0428 19:29:52.372213 22134 net.cpp:86] Creating Layer ip1
I0428 19:29:52.372216 22134 net.cpp:408] ip1 <- pool0
I0428 19:29:52.372220 22134 net.cpp:382] ip1 -> ip1
I0428 19:29:52.373272 22134 net.cpp:124] Setting up ip1
I0428 19:29:52.373286 22134 net.cpp:131] Top shape: 64 50 (3200)
I0428 19:29:52.373306 22134 net.cpp:139] Memory required for data: 582400
I0428 19:29:52.373313 22134 layer_factory.hpp:77] Creating layer relu1
I0428 19:29:52.373320 22134 net.cpp:86] Creating Layer relu1
I0428 19:29:52.373337 22134 net.cpp:408] relu1 <- ip1
I0428 19:29:52.373342 22134 net.cpp:369] relu1 -> ip1 (in-place)
I0428 19:29:52.373517 22134 net.cpp:124] Setting up relu1
I0428 19:29:52.373525 22134 net.cpp:131] Top shape: 64 50 (3200)
I0428 19:29:52.373528 22134 net.cpp:139] Memory required for data: 595200
I0428 19:29:52.373531 22134 layer_factory.hpp:77] Creating layer ip2
I0428 19:29:52.373538 22134 net.cpp:86] Creating Layer ip2
I0428 19:29:52.373540 22134 net.cpp:408] ip2 <- ip1
I0428 19:29:52.373545 22134 net.cpp:382] ip2 -> ip2
I0428 19:29:52.374547 22134 net.cpp:124] Setting up ip2
I0428 19:29:52.374558 22134 net.cpp:131] Top shape: 64 25 (1600)
I0428 19:29:52.374577 22134 net.cpp:139] Memory required for data: 601600
I0428 19:29:52.374585 22134 layer_factory.hpp:77] Creating layer relu2
I0428 19:29:52.374590 22134 net.cpp:86] Creating Layer relu2
I0428 19:29:52.374594 22134 net.cpp:408] relu2 <- ip2
I0428 19:29:52.374598 22134 net.cpp:369] relu2 -> ip2 (in-place)
I0428 19:29:52.375442 22134 net.cpp:124] Setting up relu2
I0428 19:29:52.375453 22134 net.cpp:131] Top shape: 64 25 (1600)
I0428 19:29:52.375473 22134 net.cpp:139] Memory required for data: 608000
I0428 19:29:52.375476 22134 layer_factory.hpp:77] Creating layer ip3
I0428 19:29:52.375483 22134 net.cpp:86] Creating Layer ip3
I0428 19:29:52.375486 22134 net.cpp:408] ip3 <- ip2
I0428 19:29:52.375491 22134 net.cpp:382] ip3 -> ip3
I0428 19:29:52.375586 22134 net.cpp:124] Setting up ip3
I0428 19:29:52.375592 22134 net.cpp:131] Top shape: 64 10 (640)
I0428 19:29:52.375596 22134 net.cpp:139] Memory required for data: 610560
I0428 19:29:52.375600 22134 layer_factory.hpp:77] Creating layer relu3
I0428 19:29:52.375607 22134 net.cpp:86] Creating Layer relu3
I0428 19:29:52.375609 22134 net.cpp:408] relu3 <- ip3
I0428 19:29:52.375613 22134 net.cpp:369] relu3 -> ip3 (in-place)
I0428 19:29:52.375756 22134 net.cpp:124] Setting up relu3
I0428 19:29:52.375763 22134 net.cpp:131] Top shape: 64 10 (640)
I0428 19:29:52.375766 22134 net.cpp:139] Memory required for data: 613120
I0428 19:29:52.375769 22134 layer_factory.hpp:77] Creating layer loss
I0428 19:29:52.375775 22134 net.cpp:86] Creating Layer loss
I0428 19:29:52.375778 22134 net.cpp:408] loss <- ip3
I0428 19:29:52.375782 22134 net.cpp:408] loss <- label
I0428 19:29:52.375787 22134 net.cpp:382] loss -> loss
I0428 19:29:52.375804 22134 layer_factory.hpp:77] Creating layer loss
…
I0428 19:29:52.376495 22134 solver.cpp:173] Creating test net (#0) specified by net file: ECE595/mnist/train_test/var_everything2/lenet_train_test72.prototxt
I0428 19:29:52.376535 22134 net.cpp:296] The NetState phase (1) differed from the phase (0) specified by a rule in layer mnist
I0428 19:29:52.376610 22134 net.cpp:53] Initializing net from parameters: 
name: "LeNet"
state {
  phase: TEST
}
layer {
  name: "mnist"
  type: "Data"
  top: "data"
  top: "label"
  include {
    phase: TEST
  }
  transform_param {
    scale: 0.00390625
  }
  data_param {
    source: "examples/mnist/mnist_test_lmdb"
    batch_size: 100
    backend: LMDB
  }
}
layer {
  name: "conv0"
  type: "Convolution"
  bottom: "data"
  top: "conv0"
  param {
    lr_mult: 1
  }
  param {
    lr_mult: 2
  }
  convolution_param {
    num_output: 2
    kernel_size: 5
    stride: 1
    weight_filler {
      type: "xavier"
    }
    bias_filler {
      type: "constant"
    }
  }
}
layer {
  name: "pool0"
  type: "Pooling"
  bottom: "conv0"
  top: "pool0"
  pooling_param {
    pool: MAX
    kernel_size: 2
    stride: 2
  }
}
layer {
  name: "ip1"
  type: "InnerProduct"
  bottom: "pool0"
  top: "ip1"
  param {
    lr_mult: 1
  }
  param {
    lr_mult: 2
  }
  inner_product_param {
    num_output: 50
    weight_filler {
      type: "xavier"
    }
    bias_filler {
      type: "constant"
    }
  }
}
layer {
  name: "relu1"
  type: "ReLU"
  bottom: "ip1"
  top: "ip1"
}
layer {
  name: "ip2"
  type: "InnerProduct"
  bottom: "ip1"
  top: "ip2"
  param {
    lr_mult: 1
  }
  param {
    lr_mult: 2
  }
  inner_product_param {
    num_output: 25
    weight_filler {
      type: "xavier"
    }
    bias_filler {
      type: "constant"
    }
  }
}
layer {
  name: "relu2"
  type: "ReLU"
  bottom: "ip2"
  top: "ip2"
}
layer {
  name: "ip3"
  type: "InnerProduct"
  bottom: "ip2"
  top: "ip3"
  param {
    lr_mult: 1
  }
  param {
    lr_mult: 2
  }
  inner_product_param {
    num_output: 10
    weight_filler {
      type: "xavier"
    }
    bias_filler {
      type: "constant"
    }
  }
}
layer {
  name: "relu3"
  type: "ReLU"
  bottom: "ip3"
  top: "ip3"
}
layer {
  name: "accuracy"
  type: "Accuracy"
  bottom: "ip3"
  bottom: "label"
  top: "accuracy"
  include {
    phase: TEST
  }
}
layer {
  name: "loss"
  type: "SoftmaxWithLoss"
  bottom: "ip3"
  bottom: "label"
  top: "loss"
}
I0428 19:29:52.376688 22134 layer_factory.hpp:77] Creating layer mnist
I0428 19:29:52.376731 22134 db_lmdb.cpp:35] Opened lmdb examples/mnist/mnist_test_lmdb
I0428 19:29:52.376742 22134 net.cpp:86] Creating Layer mnist
I0428 19:29:52.376747 22134 net.cpp:382] mnist -> data
I0428 19:29:52.376754 22134 net.cpp:382] mnist -> label
I0428 19:29:52.376865 22134 data_layer.cpp:45] output data size: 100,1,28,28
I0428 19:29:52.378954 22134 net.cpp:124] Setting up mnist
I0428 19:29:52.378998 22134 net.cpp:131] Top shape: 100 1 28 28 (78400)
I0428 19:29:52.379035 22134 net.cpp:131] Top shape: 100 (100)
I0428 19:29:52.379050 22134 net.cpp:139] Memory required for data: 314000
I0428 19:29:52.379055 22134 layer_factory.hpp:77] Creating layer label_mnist_1_split
I0428 19:29:52.379065 22134 net.cpp:86] Creating Layer label_mnist_1_split
I0428 19:29:52.379067 22134 net.cpp:408] label_mnist_1_split <- label
I0428 19:29:52.379072 22134 net.cpp:382] label_mnist_1_split -> label_mnist_1_split_0
I0428 19:29:52.379079 22134 net.cpp:382] label_mnist_1_split -> label_mnist_1_split_1
I0428 19:29:52.379169 22134 net.cpp:124] Setting up label_mnist_1_split
I0428 19:29:52.379176 22134 net.cpp:131] Top shape: 100 (100)
I0428 19:29:52.379180 22134 net.cpp:131] Top shape: 100 (100)
I0428 19:29:52.379184 22134 net.cpp:139] Memory required for data: 314800
I0428 19:29:52.379196 22134 layer_factory.hpp:77] Creating layer conv0
I0428 19:29:52.379206 22134 net.cpp:86] Creating Layer conv0
I0428 19:29:52.379209 22134 net.cpp:408] conv0 <- data
I0428 19:29:52.379215 22134 net.cpp:382] conv0 -> conv0
I0428 19:29:52.380748 22134 net.cpp:124] Setting up conv0
I0428 19:29:52.380776 22134 net.cpp:131] Top shape: 100 2 24 24 (115200)
I0428 19:29:52.380780 22134 net.cpp:139] Memory required for data: 775600
I0428 19:29:52.380789 22134 layer_factory.hpp:77] Creating layer pool0
I0428 19:29:52.380795 22134 net.cpp:86] Creating Layer pool0
I0428 19:29:52.380798 22134 net.cpp:408] pool0 <- conv0
I0428 19:29:52.380803 22134 net.cpp:382] pool0 -> pool0
I0428 19:29:52.380861 22134 net.cpp:124] Setting up pool0
I0428 19:29:52.380867 22134 net.cpp:131] Top shape: 100 2 12 12 (28800)
I0428 19:29:52.380870 22134 net.cpp:139] Memory required for data: 890800
I0428 19:29:52.380873 22134 layer_factory.hpp:77] Creating layer ip1
I0428 19:29:52.380882 22134 net.cpp:86] Creating Layer ip1
I0428 19:29:52.380884 22134 net.cpp:408] ip1 <- pool0
I0428 19:29:52.380889 22134 net.cpp:382] ip1 -> ip1
I0428 19:29:52.381081 22134 net.cpp:124] Setting up ip1
I0428 19:29:52.381089 22134 net.cpp:131] Top shape: 100 50 (5000)
I0428 19:29:52.381093 22134 net.cpp:139] Memory required for data: 910800
I0428 19:29:52.381099 22134 layer_factory.hpp:77] Creating layer relu1
I0428 19:29:52.381105 22134 net.cpp:86] Creating Layer relu1
I0428 19:29:52.381108 22134 net.cpp:408] relu1 <- ip1
I0428 19:29:52.381112 22134 net.cpp:369] relu1 -> ip1 (in-place)
I0428 19:29:52.381302 22134 net.cpp:124] Setting up relu1
I0428 19:29:52.381326 22134 net.cpp:131] Top shape: 100 50 (5000)
I0428 19:29:52.381330 22134 net.cpp:139] Memory required for data: 930800
I0428 19:29:52.381333 22134 layer_factory.hpp:77] Creating layer ip2
I0428 19:29:52.381340 22134 net.cpp:86] Creating Layer ip2
I0428 19:29:52.381357 22134 net.cpp:408] ip2 <- ip1
I0428 19:29:52.381363 22134 net.cpp:382] ip2 -> ip2
I0428 19:29:52.381507 22134 net.cpp:124] Setting up ip2
I0428 19:29:52.381515 22134 net.cpp:131] Top shape: 100 25 (2500)
I0428 19:29:52.381518 22134 net.cpp:139] Memory required for data: 940800
I0428 19:29:52.381526 22134 layer_factory.hpp:77] Creating layer relu2
I0428 19:29:52.381531 22134 net.cpp:86] Creating Layer relu2
I0428 19:29:52.381534 22134 net.cpp:408] relu2 <- ip2
I0428 19:29:52.381539 22134 net.cpp:369] relu2 -> ip2 (in-place)
I0428 19:29:52.382442 22134 net.cpp:124] Setting up relu2
I0428 19:29:52.382454 22134 net.cpp:131] Top shape: 100 25 (2500)
I0428 19:29:52.382473 22134 net.cpp:139] Memory required for data: 950800
I0428 19:29:52.382477 22134 layer_factory.hpp:77] Creating layer ip3
I0428 19:29:52.382483 22134 net.cpp:86] Creating Layer ip3
I0428 19:29:52.382488 22134 net.cpp:408] ip3 <- ip2
I0428 19:29:52.382493 22134 net.cpp:382] ip3 -> ip3
I0428 19:29:52.382632 22134 net.cpp:124] Setting up ip3
I0428 19:29:52.382642 22134 net.cpp:131] Top shape: 100 10 (1000)
I0428 19:29:52.382645 22134 net.cpp:139] Memory required for data: 954800
I0428 19:29:52.382652 22134 layer_factory.hpp:77] Creating layer relu3
I0428 19:29:52.382657 22134 net.cpp:86] Creating Layer relu3
I0428 19:29:52.382660 22134 net.cpp:408] relu3 <- ip3
I0428 19:29:52.382664 22134 net.cpp:369] relu3 -> ip3 (in-place)
I0428 19:29:52.382817 22134 net.cpp:124] Setting up relu3
I0428 19:29:52.382824 22134 net.cpp:131] Top shape: 100 10 (1000)
I0428 19:29:52.382828 22134 net.cpp:139] Memory required for data: 958800
I0428 19:29:52.382833 22134 layer_factory.hpp:77] Creating layer ip3_relu3_0_split
I0428 19:29:52.382836 22134 net.cpp:86] Creating Layer ip3_relu3_0_split
I0428 19:29:52.382840 22134 net.cpp:408] ip3_relu3_0_split <- ip3
I0428 19:29:52.382845 22134 net.cpp:382] ip3_relu3_0_split -> ip3_relu3_0_split_0
I0428 19:29:52.382851 22134 net.cpp:382] ip3_relu3_0_split -> ip3_relu3_0_split_1
I0428 19:29:52.382900 22134 net.cpp:124] Setting up ip3_relu3_0_split
I0428 19:29:52.382906 22134 net.cpp:131] Top shape: 100 10 (1000)
I0428 19:29:52.382910 22134 net.cpp:131] Top shape: 100 10 (1000)
I0428 19:29:52.382923 22134 net.cpp:139] Memory required for data: 966800
I0428 19:29:52.382927 22134 layer_factory.hpp:77] Creating layer accuracy
I0428 19:29:52.382932 22134 net.cpp:86] Creating Layer accuracy
I0428 19:29:52.382936 22134 net.cpp:408] accuracy <- ip3_relu3_0_split_0
I0428 19:29:52.382939 22134 net.cpp:408] accuracy <- label_mnist_1_split_0
I0428 19:29:52.382944 22134 net.cpp:382] accuracy -> accuracy
…
