…
I0428 20:29:13.191360  3493 net.cpp:296] The NetState phase (0) differed from the phase (1) specified by a rule in layer mnist
I0428 20:29:13.191378  3493 net.cpp:296] The NetState phase (0) differed from the phase (1) specified by a rule in layer accuracy
I0428 20:29:13.191483  3493 net.cpp:53] Initializing net from parameters: 
name: "LeNet"
state {
  phase: TRAIN
  level: 0
  stage: ""
}
layer {
  name: "mnist"
  type: "Data"
  top: "data"
  top: "label"
  include {
    phase: TRAIN
  }
  transform_param {
    scale: 0.00390625
  }
  data_param {
    source: "examples/mnist/mnist_train_lmdb"
    batch_size: 64
    backend: LMDB
  }
}
layer {
  name: "conv0"
  type: "Convolution"
  bottom: "data"
  top: "conv0"
  param {
    lr_mult: 1
  }
  param {
    lr_mult: 2
  }
  convolution_param {
    num_output: 100
    kernel_size: 5
    stride: 1
    weight_filler {
      type: "xavier"
    }
    bias_filler {
      type: "constant"
    }
  }
}
layer {
  name: "pool0"
  type: "Pooling"
  bottom: "conv0"
  top: "pool0"
  pooling_param {
    pool: MAX
    kernel_size: 2
    stride: 2
  }
}
layer {
  name: "conv1"
  type: "Convolution"
  bottom: "pool0"
  top: "conv1"
  param {
    lr_mult: 1
  }
  param {
    lr_mult: 2
  }
  convolution_param {
    num_output: 5
    kernel_size: 5
    stride: 1
    weight_filler {
      type: "xavier"
    }
    bias_filler {
      type: "constant"
    }
  }
}
layer {
  name: "pool1"
  type: "Pooling"
  bottom: "conv1"
  top: "pool1"
  pooling_param {
    pool: MAX
    kernel_size: 2
    stride: 2
  }
}
layer {
  name: "ip1"
  type: "InnerProduct"
  bottom: "pool1"
  top: "ip1"
  param {
    lr_mult: 1
  }
  param {
    lr_mult: 2
  }
  inner_product_param {
    num_output: 50
    weight_filler {
      type: "xavier"
    }
    bias_filler {
      type: "constant"
    }
  }
}
layer {
  name: "relu1"
  type: "ReLU"
  bottom: "ip1"
  top: "ip1"
}
layer {
  name: "ip2"
  type: "InnerProduct"
  bottom: "ip1"
  top: "ip2"
  param {
    lr_mult: 1
  }
  param {
    lr_mult: 2
  }
  inner_product_param {
    num_output: 50
    weight_filler {
      type: "xavier"
    }
    bias_filler {
      type: "constant"
    }
  }
}
layer {
  name: "relu2"
  type: "ReLU"
  bottom: "ip2"
  top: "ip2"
}
layer {
  name: "ip3"
  type: "InnerProduct"
  bottom: "ip2"
  top: "ip3"
  param {
    lr_mult: 1
  }
  param {
    lr_mult: 2
  }
  inner_product_param {
    num_output: 10
    weight_filler {
      type: "xavier"
    }
    bias_filler {
      type: "constant"
    }
  }
}
layer {
  name: "relu3"
  type: "ReLU"
  bottom: "ip3"
  top: "ip3"
}
layer {
  name: "loss"
  type: "SoftmaxWithLoss"
  bottom: "ip3"
  bottom: "label"
  top: "loss"
}
I0428 20:29:13.191563  3493 layer_factory.hpp:77] Creating layer mnist
I0428 20:29:13.191663  3493 db_lmdb.cpp:35] Opened lmdb examples/mnist/mnist_train_lmdb
I0428 20:29:13.191686  3493 net.cpp:86] Creating Layer mnist
I0428 20:29:13.191696  3493 net.cpp:382] mnist -> data
I0428 20:29:13.191718  3493 net.cpp:382] mnist -> label
I0428 20:29:13.192822  3493 data_layer.cpp:45] output data size: 64,1,28,28
I0428 20:29:13.195274  3493 net.cpp:124] Setting up mnist
I0428 20:29:13.195291  3493 net.cpp:131] Top shape: 64 1 28 28 (50176)
I0428 20:29:13.195298  3493 net.cpp:131] Top shape: 64 (64)
I0428 20:29:13.195302  3493 net.cpp:139] Memory required for data: 200960
I0428 20:29:13.195309  3493 layer_factory.hpp:77] Creating layer conv0
I0428 20:29:13.195324  3493 net.cpp:86] Creating Layer conv0
I0428 20:29:13.195345  3493 net.cpp:408] conv0 <- data
I0428 20:29:13.195358  3493 net.cpp:382] conv0 -> conv0
I0428 20:29:13.487144  3493 net.cpp:124] Setting up conv0
I0428 20:29:13.487175  3493 net.cpp:131] Top shape: 64 100 24 24 (3686400)
I0428 20:29:13.487180  3493 net.cpp:139] Memory required for data: 14946560
I0428 20:29:13.487198  3493 layer_factory.hpp:77] Creating layer pool0
I0428 20:29:13.487216  3493 net.cpp:86] Creating Layer pool0
I0428 20:29:13.487221  3493 net.cpp:408] pool0 <- conv0
I0428 20:29:13.487231  3493 net.cpp:382] pool0 -> pool0
I0428 20:29:13.487290  3493 net.cpp:124] Setting up pool0
I0428 20:29:13.487300  3493 net.cpp:131] Top shape: 64 100 12 12 (921600)
I0428 20:29:13.487304  3493 net.cpp:139] Memory required for data: 18632960
I0428 20:29:13.487308  3493 layer_factory.hpp:77] Creating layer conv1
I0428 20:29:13.487323  3493 net.cpp:86] Creating Layer conv1
I0428 20:29:13.487327  3493 net.cpp:408] conv1 <- pool0
I0428 20:29:13.487336  3493 net.cpp:382] conv1 -> conv1
I0428 20:29:13.490561  3493 net.cpp:124] Setting up conv1
I0428 20:29:13.490579  3493 net.cpp:131] Top shape: 64 5 8 8 (20480)
I0428 20:29:13.490583  3493 net.cpp:139] Memory required for data: 18714880
I0428 20:29:13.490594  3493 layer_factory.hpp:77] Creating layer pool1
I0428 20:29:13.490603  3493 net.cpp:86] Creating Layer pool1
I0428 20:29:13.490608  3493 net.cpp:408] pool1 <- conv1
I0428 20:29:13.490614  3493 net.cpp:382] pool1 -> pool1
I0428 20:29:13.490659  3493 net.cpp:124] Setting up pool1
I0428 20:29:13.490669  3493 net.cpp:131] Top shape: 64 5 4 4 (5120)
I0428 20:29:13.490672  3493 net.cpp:139] Memory required for data: 18735360
I0428 20:29:13.490676  3493 layer_factory.hpp:77] Creating layer ip1
I0428 20:29:13.490684  3493 net.cpp:86] Creating Layer ip1
I0428 20:29:13.490689  3493 net.cpp:408] ip1 <- pool1
I0428 20:29:13.490694  3493 net.cpp:382] ip1 -> ip1
I0428 20:29:13.490849  3493 net.cpp:124] Setting up ip1
I0428 20:29:13.490859  3493 net.cpp:131] Top shape: 64 50 (3200)
I0428 20:29:13.490861  3493 net.cpp:139] Memory required for data: 18748160
I0428 20:29:13.490870  3493 layer_factory.hpp:77] Creating layer relu1
I0428 20:29:13.490877  3493 net.cpp:86] Creating Layer relu1
I0428 20:29:13.490883  3493 net.cpp:408] relu1 <- ip1
I0428 20:29:13.490890  3493 net.cpp:369] relu1 -> ip1 (in-place)
I0428 20:29:13.491087  3493 net.cpp:124] Setting up relu1
I0428 20:29:13.491098  3493 net.cpp:131] Top shape: 64 50 (3200)
I0428 20:29:13.491102  3493 net.cpp:139] Memory required for data: 18760960
I0428 20:29:13.491106  3493 layer_factory.hpp:77] Creating layer ip2
I0428 20:29:13.491113  3493 net.cpp:86] Creating Layer ip2
I0428 20:29:13.491117  3493 net.cpp:408] ip2 <- ip1
I0428 20:29:13.491123  3493 net.cpp:382] ip2 -> ip2
I0428 20:29:13.491251  3493 net.cpp:124] Setting up ip2
I0428 20:29:13.491261  3493 net.cpp:131] Top shape: 64 50 (3200)
I0428 20:29:13.491264  3493 net.cpp:139] Memory required for data: 18773760
I0428 20:29:13.491271  3493 layer_factory.hpp:77] Creating layer relu2
I0428 20:29:13.491277  3493 net.cpp:86] Creating Layer relu2
I0428 20:29:13.491281  3493 net.cpp:408] relu2 <- ip2
I0428 20:29:13.491286  3493 net.cpp:369] relu2 -> ip2 (in-place)
I0428 20:29:13.492130  3493 net.cpp:124] Setting up relu2
I0428 20:29:13.492144  3493 net.cpp:131] Top shape: 64 50 (3200)
I0428 20:29:13.492148  3493 net.cpp:139] Memory required for data: 18786560
I0428 20:29:13.492152  3493 layer_factory.hpp:77] Creating layer ip3
I0428 20:29:13.492161  3493 net.cpp:86] Creating Layer ip3
I0428 20:29:13.492166  3493 net.cpp:408] ip3 <- ip2
I0428 20:29:13.492172  3493 net.cpp:382] ip3 -> ip3
I0428 20:29:13.492295  3493 net.cpp:124] Setting up ip3
I0428 20:29:13.492305  3493 net.cpp:131] Top shape: 64 10 (640)
I0428 20:29:13.492308  3493 net.cpp:139] Memory required for data: 18789120
I0428 20:29:13.492318  3493 layer_factory.hpp:77] Creating layer relu3
I0428 20:29:13.492326  3493 net.cpp:86] Creating Layer relu3
I0428 20:29:13.492328  3493 net.cpp:408] relu3 <- ip3
I0428 20:29:13.492334  3493 net.cpp:369] relu3 -> ip3 (in-place)
I0428 20:29:13.492533  3493 net.cpp:124] Setting up relu3
I0428 20:29:13.492543  3493 net.cpp:131] Top shape: 64 10 (640)
I0428 20:29:13.492547  3493 net.cpp:139] Memory required for data: 18791680
I0428 20:29:13.492552  3493 layer_factory.hpp:77] Creating layer loss
I0428 20:29:13.492558  3493 net.cpp:86] Creating Layer loss
I0428 20:29:13.492563  3493 net.cpp:408] loss <- ip3
I0428 20:29:13.492568  3493 net.cpp:408] loss <- label
I0428 20:29:13.492580  3493 net.cpp:382] loss -> loss
I0428 20:29:13.492597  3493 layer_factory.hpp:77] Creating layer loss
…
I0428 20:29:13.493356  3493 solver.cpp:173] Creating test net (#0) specified by net file: ECE595/mnist/train_test/var_everything2/lenet_train_test1518.prototxt
I0428 20:29:13.493388  3493 net.cpp:296] The NetState phase (1) differed from the phase (0) specified by a rule in layer mnist
I0428 20:29:13.493496  3493 net.cpp:53] Initializing net from parameters: 
name: "LeNet"
state {
  phase: TEST
}
layer {
  name: "mnist"
  type: "Data"
  top: "data"
  top: "label"
  include {
    phase: TEST
  }
  transform_param {
    scale: 0.00390625
  }
  data_param {
    source: "examples/mnist/mnist_test_lmdb"
    batch_size: 100
    backend: LMDB
  }
}
layer {
  name: "conv0"
  type: "Convolution"
  bottom: "data"
  top: "conv0"
  param {
    lr_mult: 1
  }
  param {
    lr_mult: 2
  }
  convolution_param {
    num_output: 100
    kernel_size: 5
    stride: 1
    weight_filler {
      type: "xavier"
    }
    bias_filler {
      type: "constant"
    }
  }
}
layer {
  name: "pool0"
  type: "Pooling"
  bottom: "conv0"
  top: "pool0"
  pooling_param {
    pool: MAX
    kernel_size: 2
    stride: 2
  }
}
layer {
  name: "conv1"
  type: "Convolution"
  bottom: "pool0"
  top: "conv1"
  param {
    lr_mult: 1
  }
  param {
    lr_mult: 2
  }
  convolution_param {
    num_output: 5
    kernel_size: 5
    stride: 1
    weight_filler {
      type: "xavier"
    }
    bias_filler {
      type: "constant"
    }
  }
}
layer {
  name: "pool1"
  type: "Pooling"
  bottom: "conv1"
  top: "pool1"
  pooling_param {
    pool: MAX
    kernel_size: 2
    stride: 2
  }
}
layer {
  name: "ip1"
  type: "InnerProduct"
  bottom: "pool1"
  top: "ip1"
  param {
    lr_mult: 1
  }
  param {
    lr_mult: 2
  }
  inner_product_param {
    num_output: 50
    weight_filler {
      type: "xavier"
    }
    bias_filler {
      type: "constant"
    }
  }
}
layer {
  name: "relu1"
  type: "ReLU"
  bottom: "ip1"
  top: "ip1"
}
layer {
  name: "ip2"
  type: "InnerProduct"
  bottom: "ip1"
  top: "ip2"
  param {
    lr_mult: 1
  }
  param {
    lr_mult: 2
  }
  inner_product_param {
    num_output: 50
    weight_filler {
      type: "xavier"
    }
    bias_filler {
      type: "constant"
    }
  }
}
layer {
  name: "relu2"
  type: "ReLU"
  bottom: "ip2"
  top: "ip2"
}
layer {
  name: "ip3"
  type: "InnerProduct"
  bottom: "ip2"
  top: "ip3"
  param {
    lr_mult: 1
  }
  param {
    lr_mult: 2
  }
  inner_product_param {
    num_output: 10
    weight_filler {
      type: "xavier"
    }
    bias_filler {
      type: "constant"
    }
  }
}
layer {
  name: "relu3"
  type: "ReLU"
  bottom: "ip3"
  top: "ip3"
}
layer {
  name: "accuracy"
  type: "Accuracy"
  bottom: "ip3"
  bottom: "label"
  top: "accuracy"
  include {
    phase: TEST
  }
}
layer {
  name: "loss"
  type: "SoftmaxWithLoss"
  bottom: "ip3"
  bottom: "label"
  top: "loss"
}
I0428 20:29:13.493592  3493 layer_factory.hpp:77] Creating layer mnist
I0428 20:29:13.493646  3493 db_lmdb.cpp:35] Opened lmdb examples/mnist/mnist_test_lmdb
I0428 20:29:13.493661  3493 net.cpp:86] Creating Layer mnist
I0428 20:29:13.493666  3493 net.cpp:382] mnist -> data
I0428 20:29:13.493676  3493 net.cpp:382] mnist -> label
I0428 20:29:13.493778  3493 data_layer.cpp:45] output data size: 100,1,28,28
I0428 20:29:13.495970  3493 net.cpp:124] Setting up mnist
I0428 20:29:13.495986  3493 net.cpp:131] Top shape: 100 1 28 28 (78400)
I0428 20:29:13.495992  3493 net.cpp:131] Top shape: 100 (100)
I0428 20:29:13.495996  3493 net.cpp:139] Memory required for data: 314000
I0428 20:29:13.496001  3493 layer_factory.hpp:77] Creating layer label_mnist_1_split
I0428 20:29:13.496009  3493 net.cpp:86] Creating Layer label_mnist_1_split
I0428 20:29:13.496013  3493 net.cpp:408] label_mnist_1_split <- label
I0428 20:29:13.496019  3493 net.cpp:382] label_mnist_1_split -> label_mnist_1_split_0
I0428 20:29:13.496027  3493 net.cpp:382] label_mnist_1_split -> label_mnist_1_split_1
I0428 20:29:13.496098  3493 net.cpp:124] Setting up label_mnist_1_split
I0428 20:29:13.496104  3493 net.cpp:131] Top shape: 100 (100)
I0428 20:29:13.496109  3493 net.cpp:131] Top shape: 100 (100)
I0428 20:29:13.496112  3493 net.cpp:139] Memory required for data: 314800
I0428 20:29:13.496116  3493 layer_factory.hpp:77] Creating layer conv0
I0428 20:29:13.496126  3493 net.cpp:86] Creating Layer conv0
I0428 20:29:13.496129  3493 net.cpp:408] conv0 <- data
I0428 20:29:13.496135  3493 net.cpp:382] conv0 -> conv0
I0428 20:29:13.497982  3493 net.cpp:124] Setting up conv0
I0428 20:29:13.497999  3493 net.cpp:131] Top shape: 100 100 24 24 (5760000)
I0428 20:29:13.498004  3493 net.cpp:139] Memory required for data: 23354800
I0428 20:29:13.498015  3493 layer_factory.hpp:77] Creating layer pool0
I0428 20:29:13.498023  3493 net.cpp:86] Creating Layer pool0
I0428 20:29:13.498028  3493 net.cpp:408] pool0 <- conv0
I0428 20:29:13.498034  3493 net.cpp:382] pool0 -> pool0
I0428 20:29:13.498078  3493 net.cpp:124] Setting up pool0
I0428 20:29:13.498086  3493 net.cpp:131] Top shape: 100 100 12 12 (1440000)
I0428 20:29:13.498090  3493 net.cpp:139] Memory required for data: 29114800
I0428 20:29:13.498093  3493 layer_factory.hpp:77] Creating layer conv1
I0428 20:29:13.498105  3493 net.cpp:86] Creating Layer conv1
I0428 20:29:13.498108  3493 net.cpp:408] conv1 <- pool0
I0428 20:29:13.498114  3493 net.cpp:382] conv1 -> conv1
I0428 20:29:13.499848  3493 net.cpp:124] Setting up conv1
I0428 20:29:13.499863  3493 net.cpp:131] Top shape: 100 5 8 8 (32000)
I0428 20:29:13.499868  3493 net.cpp:139] Memory required for data: 29242800
I0428 20:29:13.499878  3493 layer_factory.hpp:77] Creating layer pool1
I0428 20:29:13.499886  3493 net.cpp:86] Creating Layer pool1
I0428 20:29:13.499891  3493 net.cpp:408] pool1 <- conv1
I0428 20:29:13.499897  3493 net.cpp:382] pool1 -> pool1
I0428 20:29:13.499938  3493 net.cpp:124] Setting up pool1
I0428 20:29:13.499946  3493 net.cpp:131] Top shape: 100 5 4 4 (8000)
I0428 20:29:13.499950  3493 net.cpp:139] Memory required for data: 29274800
I0428 20:29:13.499954  3493 layer_factory.hpp:77] Creating layer ip1
I0428 20:29:13.499960  3493 net.cpp:86] Creating Layer ip1
I0428 20:29:13.499965  3493 net.cpp:408] ip1 <- pool1
I0428 20:29:13.499970  3493 net.cpp:382] ip1 -> ip1
I0428 20:29:13.500116  3493 net.cpp:124] Setting up ip1
I0428 20:29:13.500125  3493 net.cpp:131] Top shape: 100 50 (5000)
I0428 20:29:13.500140  3493 net.cpp:139] Memory required for data: 29294800
I0428 20:29:13.500149  3493 layer_factory.hpp:77] Creating layer relu1
I0428 20:29:13.500155  3493 net.cpp:86] Creating Layer relu1
I0428 20:29:13.500159  3493 net.cpp:408] relu1 <- ip1
I0428 20:29:13.500171  3493 net.cpp:369] relu1 -> ip1 (in-place)
I0428 20:29:13.500391  3493 net.cpp:124] Setting up relu1
I0428 20:29:13.500401  3493 net.cpp:131] Top shape: 100 50 (5000)
I0428 20:29:13.500404  3493 net.cpp:139] Memory required for data: 29314800
I0428 20:29:13.500408  3493 layer_factory.hpp:77] Creating layer ip2
I0428 20:29:13.500416  3493 net.cpp:86] Creating Layer ip2
I0428 20:29:13.500421  3493 net.cpp:408] ip2 <- ip1
I0428 20:29:13.500427  3493 net.cpp:382] ip2 -> ip2
I0428 20:29:13.500576  3493 net.cpp:124] Setting up ip2
I0428 20:29:13.500583  3493 net.cpp:131] Top shape: 100 50 (5000)
I0428 20:29:13.500587  3493 net.cpp:139] Memory required for data: 29334800
I0428 20:29:13.500594  3493 layer_factory.hpp:77] Creating layer relu2
I0428 20:29:13.500599  3493 net.cpp:86] Creating Layer relu2
I0428 20:29:13.500609  3493 net.cpp:408] relu2 <- ip2
I0428 20:29:13.500614  3493 net.cpp:369] relu2 -> ip2 (in-place)
I0428 20:29:13.500787  3493 net.cpp:124] Setting up relu2
I0428 20:29:13.500797  3493 net.cpp:131] Top shape: 100 50 (5000)
I0428 20:29:13.500800  3493 net.cpp:139] Memory required for data: 29354800
I0428 20:29:13.500804  3493 layer_factory.hpp:77] Creating layer ip3
I0428 20:29:13.500820  3493 net.cpp:86] Creating Layer ip3
I0428 20:29:13.500830  3493 net.cpp:408] ip3 <- ip2
I0428 20:29:13.500836  3493 net.cpp:382] ip3 -> ip3
I0428 20:29:13.500954  3493 net.cpp:124] Setting up ip3
I0428 20:29:13.500962  3493 net.cpp:131] Top shape: 100 10 (1000)
I0428 20:29:13.500967  3493 net.cpp:139] Memory required for data: 29358800
I0428 20:29:13.500975  3493 layer_factory.hpp:77] Creating layer relu3
I0428 20:29:13.500982  3493 net.cpp:86] Creating Layer relu3
I0428 20:29:13.500984  3493 net.cpp:408] relu3 <- ip3
I0428 20:29:13.500989  3493 net.cpp:369] relu3 -> ip3 (in-place)
I0428 20:29:13.501910  3493 net.cpp:124] Setting up relu3
I0428 20:29:13.501924  3493 net.cpp:131] Top shape: 100 10 (1000)
I0428 20:29:13.501929  3493 net.cpp:139] Memory required for data: 29362800
I0428 20:29:13.501940  3493 layer_factory.hpp:77] Creating layer ip3_relu3_0_split
I0428 20:29:13.501946  3493 net.cpp:86] Creating Layer ip3_relu3_0_split
I0428 20:29:13.501951  3493 net.cpp:408] ip3_relu3_0_split <- ip3
I0428 20:29:13.501957  3493 net.cpp:382] ip3_relu3_0_split -> ip3_relu3_0_split_0
I0428 20:29:13.501965  3493 net.cpp:382] ip3_relu3_0_split -> ip3_relu3_0_split_1
I0428 20:29:13.502009  3493 net.cpp:124] Setting up ip3_relu3_0_split
I0428 20:29:13.502017  3493 net.cpp:131] Top shape: 100 10 (1000)
I0428 20:29:13.502020  3493 net.cpp:131] Top shape: 100 10 (1000)
I0428 20:29:13.502023  3493 net.cpp:139] Memory required for data: 29370800
I0428 20:29:13.502027  3493 layer_factory.hpp:77] Creating layer accuracy
I0428 20:29:13.502032  3493 net.cpp:86] Creating Layer accuracy
I0428 20:29:13.502037  3493 net.cpp:408] accuracy <- ip3_relu3_0_split_0
I0428 20:29:13.502041  3493 net.cpp:408] accuracy <- label_mnist_1_split_0
I0428 20:29:13.502046  3493 net.cpp:382] accuracy -> accuracy
…
