…
I0428 20:04:34.911978 30410 net.cpp:296] The NetState phase (0) differed from the phase (1) specified by a rule in layer mnist
I0428 20:04:34.911990 30410 net.cpp:296] The NetState phase (0) differed from the phase (1) specified by a rule in layer accuracy
I0428 20:04:34.912067 30410 net.cpp:53] Initializing net from parameters: 
name: "LeNet"
state {
  phase: TRAIN
  level: 0
  stage: ""
}
layer {
  name: "mnist"
  type: "Data"
  top: "data"
  top: "label"
  include {
    phase: TRAIN
  }
  transform_param {
    scale: 0.00390625
  }
  data_param {
    source: "examples/mnist/mnist_train_lmdb"
    batch_size: 64
    backend: LMDB
  }
}
layer {
  name: "conv0"
  type: "Convolution"
  bottom: "data"
  top: "conv0"
  param {
    lr_mult: 1
  }
  param {
    lr_mult: 2
  }
  convolution_param {
    num_output: 25
    kernel_size: 5
    stride: 1
    weight_filler {
      type: "xavier"
    }
    bias_filler {
      type: "constant"
    }
  }
}
layer {
  name: "pool0"
  type: "Pooling"
  bottom: "conv0"
  top: "pool0"
  pooling_param {
    pool: MAX
    kernel_size: 2
    stride: 2
  }
}
layer {
  name: "conv1"
  type: "Convolution"
  bottom: "pool0"
  top: "conv1"
  param {
    lr_mult: 1
  }
  param {
    lr_mult: 2
  }
  convolution_param {
    num_output: 2
    kernel_size: 5
    stride: 1
    weight_filler {
      type: "xavier"
    }
    bias_filler {
      type: "constant"
    }
  }
}
layer {
  name: "pool1"
  type: "Pooling"
  bottom: "conv1"
  top: "pool1"
  pooling_param {
    pool: MAX
    kernel_size: 2
    stride: 2
  }
}
layer {
  name: "ip1"
  type: "InnerProduct"
  bottom: "pool1"
  top: "ip1"
  param {
    lr_mult: 1
  }
  param {
    lr_mult: 2
  }
  inner_product_param {
    num_output: 10
    weight_filler {
      type: "xavier"
    }
    bias_filler {
      type: "constant"
    }
  }
}
layer {
  name: "relu1"
  type: "ReLU"
  bottom: "ip1"
  top: "ip1"
}
layer {
  name: "loss"
  type: "SoftmaxWithLoss"
  bottom: "ip1"
  bottom: "label"
  top: "loss"
}
I0428 20:04:34.912117 30410 layer_factory.hpp:77] Creating layer mnist
I0428 20:04:34.912199 30410 db_lmdb.cpp:35] Opened lmdb examples/mnist/mnist_train_lmdb
I0428 20:04:34.912217 30410 net.cpp:86] Creating Layer mnist
I0428 20:04:34.912223 30410 net.cpp:382] mnist -> data
I0428 20:04:34.912240 30410 net.cpp:382] mnist -> label
I0428 20:04:34.913241 30410 data_layer.cpp:45] output data size: 64,1,28,28
I0428 20:04:34.915419 30410 net.cpp:124] Setting up mnist
I0428 20:04:34.915448 30410 net.cpp:131] Top shape: 64 1 28 28 (50176)
I0428 20:04:34.915453 30410 net.cpp:131] Top shape: 64 (64)
I0428 20:04:34.915457 30410 net.cpp:139] Memory required for data: 200960
I0428 20:04:34.915462 30410 layer_factory.hpp:77] Creating layer conv0
I0428 20:04:34.915474 30410 net.cpp:86] Creating Layer conv0
I0428 20:04:34.915479 30410 net.cpp:408] conv0 <- data
I0428 20:04:34.915488 30410 net.cpp:382] conv0 -> conv0
I0428 20:04:35.143193 30410 net.cpp:124] Setting up conv0
I0428 20:04:35.143218 30410 net.cpp:131] Top shape: 64 25 24 24 (921600)
I0428 20:04:35.143221 30410 net.cpp:139] Memory required for data: 3887360
I0428 20:04:35.143234 30410 layer_factory.hpp:77] Creating layer pool0
I0428 20:04:35.143247 30410 net.cpp:86] Creating Layer pool0
I0428 20:04:35.143251 30410 net.cpp:408] pool0 <- conv0
I0428 20:04:35.143257 30410 net.cpp:382] pool0 -> pool0
I0428 20:04:35.143316 30410 net.cpp:124] Setting up pool0
I0428 20:04:35.143321 30410 net.cpp:131] Top shape: 64 25 12 12 (230400)
I0428 20:04:35.143338 30410 net.cpp:139] Memory required for data: 4808960
I0428 20:04:35.143342 30410 layer_factory.hpp:77] Creating layer conv1
I0428 20:04:35.143352 30410 net.cpp:86] Creating Layer conv1
I0428 20:04:35.143355 30410 net.cpp:408] conv1 <- pool0
I0428 20:04:35.143360 30410 net.cpp:382] conv1 -> conv1
I0428 20:04:35.146149 30410 net.cpp:124] Setting up conv1
I0428 20:04:35.146178 30410 net.cpp:131] Top shape: 64 2 8 8 (8192)
I0428 20:04:35.146183 30410 net.cpp:139] Memory required for data: 4841728
I0428 20:04:35.146190 30410 layer_factory.hpp:77] Creating layer pool1
I0428 20:04:35.146198 30410 net.cpp:86] Creating Layer pool1
I0428 20:04:35.146201 30410 net.cpp:408] pool1 <- conv1
I0428 20:04:35.146206 30410 net.cpp:382] pool1 -> pool1
I0428 20:04:35.146257 30410 net.cpp:124] Setting up pool1
I0428 20:04:35.146263 30410 net.cpp:131] Top shape: 64 2 4 4 (2048)
I0428 20:04:35.146266 30410 net.cpp:139] Memory required for data: 4849920
I0428 20:04:35.146270 30410 layer_factory.hpp:77] Creating layer ip1
I0428 20:04:35.146276 30410 net.cpp:86] Creating Layer ip1
I0428 20:04:35.146280 30410 net.cpp:408] ip1 <- pool1
I0428 20:04:35.146283 30410 net.cpp:382] ip1 -> ip1
I0428 20:04:35.146379 30410 net.cpp:124] Setting up ip1
I0428 20:04:35.146386 30410 net.cpp:131] Top shape: 64 10 (640)
I0428 20:04:35.146389 30410 net.cpp:139] Memory required for data: 4852480
I0428 20:04:35.146396 30410 layer_factory.hpp:77] Creating layer relu1
I0428 20:04:35.146402 30410 net.cpp:86] Creating Layer relu1
I0428 20:04:35.146406 30410 net.cpp:408] relu1 <- ip1
I0428 20:04:35.146410 30410 net.cpp:369] relu1 -> ip1 (in-place)
I0428 20:04:35.146569 30410 net.cpp:124] Setting up relu1
I0428 20:04:35.146579 30410 net.cpp:131] Top shape: 64 10 (640)
I0428 20:04:35.146581 30410 net.cpp:139] Memory required for data: 4855040
I0428 20:04:35.146584 30410 layer_factory.hpp:77] Creating layer loss
I0428 20:04:35.146590 30410 net.cpp:86] Creating Layer loss
I0428 20:04:35.146594 30410 net.cpp:408] loss <- ip1
I0428 20:04:35.146597 30410 net.cpp:408] loss <- label
I0428 20:04:35.146601 30410 net.cpp:382] loss -> loss
I0428 20:04:35.146615 30410 layer_factory.hpp:77] Creating layer loss
…
I0428 20:04:35.147840 30410 solver.cpp:173] Creating test net (#0) specified by net file: ECE595/mnist/train_test/var_everything2/lenet_train_test975.prototxt
I0428 20:04:35.147863 30410 net.cpp:296] The NetState phase (1) differed from the phase (0) specified by a rule in layer mnist
I0428 20:04:35.147935 30410 net.cpp:53] Initializing net from parameters: 
name: "LeNet"
state {
  phase: TEST
}
layer {
  name: "mnist"
  type: "Data"
  top: "data"
  top: "label"
  include {
    phase: TEST
  }
  transform_param {
    scale: 0.00390625
  }
  data_param {
    source: "examples/mnist/mnist_test_lmdb"
    batch_size: 100
    backend: LMDB
  }
}
layer {
  name: "conv0"
  type: "Convolution"
  bottom: "data"
  top: "conv0"
  param {
    lr_mult: 1
  }
  param {
    lr_mult: 2
  }
  convolution_param {
    num_output: 25
    kernel_size: 5
    stride: 1
    weight_filler {
      type: "xavier"
    }
    bias_filler {
      type: "constant"
    }
  }
}
layer {
  name: "pool0"
  type: "Pooling"
  bottom: "conv0"
  top: "pool0"
  pooling_param {
    pool: MAX
    kernel_size: 2
    stride: 2
  }
}
layer {
  name: "conv1"
  type: "Convolution"
  bottom: "pool0"
  top: "conv1"
  param {
    lr_mult: 1
  }
  param {
    lr_mult: 2
  }
  convolution_param {
    num_output: 2
    kernel_size: 5
    stride: 1
    weight_filler {
      type: "xavier"
    }
    bias_filler {
      type: "constant"
    }
  }
}
layer {
  name: "pool1"
  type: "Pooling"
  bottom: "conv1"
  top: "pool1"
  pooling_param {
    pool: MAX
    kernel_size: 2
    stride: 2
  }
}
layer {
  name: "ip1"
  type: "InnerProduct"
  bottom: "pool1"
  top: "ip1"
  param {
    lr_mult: 1
  }
  param {
    lr_mult: 2
  }
  inner_product_param {
    num_output: 10
    weight_filler {
      type: "xavier"
    }
    bias_filler {
      type: "constant"
    }
  }
}
layer {
  name: "relu1"
  type: "ReLU"
  bottom: "ip1"
  top: "ip1"
}
layer {
  name: "accuracy"
  type: "Accuracy"
  bottom: "ip1"
  bottom: "label"
  top: "accuracy"
  include {
    phase: TEST
  }
}
layer {
  name: "loss"
  type: "SoftmaxWithLoss"
  bottom: "ip1"
  bottom: "label"
  top: "loss"
}
I0428 20:04:35.148002 30410 layer_factory.hpp:77] Creating layer mnist
I0428 20:04:35.148046 30410 db_lmdb.cpp:35] Opened lmdb examples/mnist/mnist_test_lmdb
I0428 20:04:35.148058 30410 net.cpp:86] Creating Layer mnist
I0428 20:04:35.148062 30410 net.cpp:382] mnist -> data
I0428 20:04:35.148071 30410 net.cpp:382] mnist -> label
I0428 20:04:35.148149 30410 data_layer.cpp:45] output data size: 100,1,28,28
I0428 20:04:35.150236 30410 net.cpp:124] Setting up mnist
I0428 20:04:35.150250 30410 net.cpp:131] Top shape: 100 1 28 28 (78400)
I0428 20:04:35.150255 30410 net.cpp:131] Top shape: 100 (100)
I0428 20:04:35.150259 30410 net.cpp:139] Memory required for data: 314000
I0428 20:04:35.150262 30410 layer_factory.hpp:77] Creating layer label_mnist_1_split
I0428 20:04:35.150269 30410 net.cpp:86] Creating Layer label_mnist_1_split
I0428 20:04:35.150271 30410 net.cpp:408] label_mnist_1_split <- label
I0428 20:04:35.150276 30410 net.cpp:382] label_mnist_1_split -> label_mnist_1_split_0
I0428 20:04:35.150282 30410 net.cpp:382] label_mnist_1_split -> label_mnist_1_split_1
I0428 20:04:35.150399 30410 net.cpp:124] Setting up label_mnist_1_split
I0428 20:04:35.150408 30410 net.cpp:131] Top shape: 100 (100)
I0428 20:04:35.150411 30410 net.cpp:131] Top shape: 100 (100)
I0428 20:04:35.150414 30410 net.cpp:139] Memory required for data: 314800
I0428 20:04:35.150418 30410 layer_factory.hpp:77] Creating layer conv0
I0428 20:04:35.150424 30410 net.cpp:86] Creating Layer conv0
I0428 20:04:35.150429 30410 net.cpp:408] conv0 <- data
I0428 20:04:35.150432 30410 net.cpp:382] conv0 -> conv0
I0428 20:04:35.151270 30410 net.cpp:124] Setting up conv0
I0428 20:04:35.151293 30410 net.cpp:131] Top shape: 100 25 24 24 (1440000)
I0428 20:04:35.151295 30410 net.cpp:139] Memory required for data: 6074800
I0428 20:04:35.151304 30410 layer_factory.hpp:77] Creating layer pool0
I0428 20:04:35.151327 30410 net.cpp:86] Creating Layer pool0
I0428 20:04:35.151330 30410 net.cpp:408] pool0 <- conv0
I0428 20:04:35.151335 30410 net.cpp:382] pool0 -> pool0
I0428 20:04:35.151372 30410 net.cpp:124] Setting up pool0
I0428 20:04:35.151379 30410 net.cpp:131] Top shape: 100 25 12 12 (360000)
I0428 20:04:35.151382 30410 net.cpp:139] Memory required for data: 7514800
I0428 20:04:35.151386 30410 layer_factory.hpp:77] Creating layer conv1
I0428 20:04:35.151393 30410 net.cpp:86] Creating Layer conv1
I0428 20:04:35.151397 30410 net.cpp:408] conv1 <- pool0
I0428 20:04:35.151402 30410 net.cpp:382] conv1 -> conv1
I0428 20:04:35.153671 30410 net.cpp:124] Setting up conv1
I0428 20:04:35.153683 30410 net.cpp:131] Top shape: 100 2 8 8 (12800)
I0428 20:04:35.153687 30410 net.cpp:139] Memory required for data: 7566000
I0428 20:04:35.153697 30410 layer_factory.hpp:77] Creating layer pool1
I0428 20:04:35.153703 30410 net.cpp:86] Creating Layer pool1
I0428 20:04:35.153733 30410 net.cpp:408] pool1 <- conv1
I0428 20:04:35.153739 30410 net.cpp:382] pool1 -> pool1
I0428 20:04:35.153784 30410 net.cpp:124] Setting up pool1
I0428 20:04:35.153790 30410 net.cpp:131] Top shape: 100 2 4 4 (3200)
I0428 20:04:35.153792 30410 net.cpp:139] Memory required for data: 7578800
I0428 20:04:35.153795 30410 layer_factory.hpp:77] Creating layer ip1
I0428 20:04:35.153802 30410 net.cpp:86] Creating Layer ip1
I0428 20:04:35.153805 30410 net.cpp:408] ip1 <- pool1
I0428 20:04:35.153810 30410 net.cpp:382] ip1 -> ip1
I0428 20:04:35.153937 30410 net.cpp:124] Setting up ip1
I0428 20:04:35.153946 30410 net.cpp:131] Top shape: 100 10 (1000)
I0428 20:04:35.153950 30410 net.cpp:139] Memory required for data: 7582800
I0428 20:04:35.153957 30410 layer_factory.hpp:77] Creating layer relu1
I0428 20:04:35.153964 30410 net.cpp:86] Creating Layer relu1
I0428 20:04:35.153967 30410 net.cpp:408] relu1 <- ip1
I0428 20:04:35.153972 30410 net.cpp:369] relu1 -> ip1 (in-place)
I0428 20:04:35.154785 30410 net.cpp:124] Setting up relu1
I0428 20:04:35.154798 30410 net.cpp:131] Top shape: 100 10 (1000)
I0428 20:04:35.154803 30410 net.cpp:139] Memory required for data: 7586800
I0428 20:04:35.154806 30410 layer_factory.hpp:77] Creating layer ip1_relu1_0_split
I0428 20:04:35.154813 30410 net.cpp:86] Creating Layer ip1_relu1_0_split
I0428 20:04:35.154816 30410 net.cpp:408] ip1_relu1_0_split <- ip1
I0428 20:04:35.154821 30410 net.cpp:382] ip1_relu1_0_split -> ip1_relu1_0_split_0
I0428 20:04:35.154827 30410 net.cpp:382] ip1_relu1_0_split -> ip1_relu1_0_split_1
I0428 20:04:35.154871 30410 net.cpp:124] Setting up ip1_relu1_0_split
I0428 20:04:35.154877 30410 net.cpp:131] Top shape: 100 10 (1000)
I0428 20:04:35.154881 30410 net.cpp:131] Top shape: 100 10 (1000)
I0428 20:04:35.154883 30410 net.cpp:139] Memory required for data: 7594800
I0428 20:04:35.154886 30410 layer_factory.hpp:77] Creating layer accuracy
I0428 20:04:35.154891 30410 net.cpp:86] Creating Layer accuracy
I0428 20:04:35.154894 30410 net.cpp:408] accuracy <- ip1_relu1_0_split_0
I0428 20:04:35.154898 30410 net.cpp:408] accuracy <- label_mnist_1_split_0
I0428 20:04:35.154903 30410 net.cpp:382] accuracy -> accuracy
…
