…
I0428 19:38:45.057395 24106 net.cpp:296] The NetState phase (0) differed from the phase (1) specified by a rule in layer mnist
I0428 19:38:45.057411 24106 net.cpp:296] The NetState phase (0) differed from the phase (1) specified by a rule in layer accuracy
I0428 19:38:45.057481 24106 net.cpp:53] Initializing net from parameters: 
name: "LeNet"
state {
  phase: TRAIN
  level: 0
  stage: ""
}
layer {
  name: "mnist"
  type: "Data"
  top: "data"
  top: "label"
  include {
    phase: TRAIN
  }
  transform_param {
    scale: 0.00390625
  }
  data_param {
    source: "examples/mnist/mnist_train_lmdb"
    batch_size: 64
    backend: LMDB
  }
}
layer {
  name: "conv0"
  type: "Convolution"
  bottom: "data"
  top: "conv0"
  param {
    lr_mult: 1
  }
  param {
    lr_mult: 2
  }
  convolution_param {
    num_output: 2
    kernel_size: 5
    stride: 1
    weight_filler {
      type: "xavier"
    }
    bias_filler {
      type: "constant"
    }
  }
}
layer {
  name: "pool0"
  type: "Pooling"
  bottom: "conv0"
  top: "pool0"
  pooling_param {
    pool: MAX
    kernel_size: 2
    stride: 2
  }
}
layer {
  name: "conv1"
  type: "Convolution"
  bottom: "pool0"
  top: "conv1"
  param {
    lr_mult: 1
  }
  param {
    lr_mult: 2
  }
  convolution_param {
    num_output: 2
    kernel_size: 5
    stride: 1
    weight_filler {
      type: "xavier"
    }
    bias_filler {
      type: "constant"
    }
  }
}
layer {
  name: "pool1"
  type: "Pooling"
  bottom: "conv1"
  top: "pool1"
  pooling_param {
    pool: MAX
    kernel_size: 2
    stride: 2
  }
}
layer {
  name: "ip1"
  type: "InnerProduct"
  bottom: "pool1"
  top: "ip1"
  param {
    lr_mult: 1
  }
  param {
    lr_mult: 2
  }
  inner_product_param {
    num_output: 50
    weight_filler {
      type: "xavier"
    }
    bias_filler {
      type: "constant"
    }
  }
}
layer {
  name: "relu1"
  type: "ReLU"
  bottom: "ip1"
  top: "ip1"
}
layer {
  name: "ip2"
  type: "InnerProduct"
  bottom: "ip1"
  top: "ip2"
  param {
    lr_mult: 1
  }
  param {
    lr_mult: 2
  }
  inner_product_param {
    num_output: 10
    weight_filler {
      type: "xavier"
    }
    bias_filler {
      type: "constant"
    }
  }
}
layer {
  name: "relu2"
  type: "ReLU"
  bottom: "ip2"
  top: "ip2"
}
layer {
  name: "loss"
  type: "SoftmaxWithLoss"
  bottom: "ip2"
  bottom: "label"
  top: "loss"
}
I0428 19:38:45.057540 24106 layer_factory.hpp:77] Creating layer mnist
I0428 19:38:45.057637 24106 db_lmdb.cpp:35] Opened lmdb examples/mnist/mnist_train_lmdb
I0428 19:38:45.057659 24106 net.cpp:86] Creating Layer mnist
I0428 19:38:45.057668 24106 net.cpp:382] mnist -> data
I0428 19:38:45.057687 24106 net.cpp:382] mnist -> label
I0428 19:38:45.058580 24106 data_layer.cpp:45] output data size: 64,1,28,28
I0428 19:38:45.060725 24106 net.cpp:124] Setting up mnist
I0428 19:38:45.060756 24106 net.cpp:131] Top shape: 64 1 28 28 (50176)
I0428 19:38:45.060761 24106 net.cpp:131] Top shape: 64 (64)
I0428 19:38:45.060765 24106 net.cpp:139] Memory required for data: 200960
I0428 19:38:45.060770 24106 layer_factory.hpp:77] Creating layer conv0
I0428 19:38:45.060784 24106 net.cpp:86] Creating Layer conv0
I0428 19:38:45.060793 24106 net.cpp:408] conv0 <- data
I0428 19:38:45.060825 24106 net.cpp:382] conv0 -> conv0
I0428 19:38:45.294045 24106 net.cpp:124] Setting up conv0
I0428 19:38:45.294072 24106 net.cpp:131] Top shape: 64 2 24 24 (73728)
I0428 19:38:45.294076 24106 net.cpp:139] Memory required for data: 495872
I0428 19:38:45.294108 24106 layer_factory.hpp:77] Creating layer pool0
I0428 19:38:45.294121 24106 net.cpp:86] Creating Layer pool0
I0428 19:38:45.294124 24106 net.cpp:408] pool0 <- conv0
I0428 19:38:45.294129 24106 net.cpp:382] pool0 -> pool0
I0428 19:38:45.294188 24106 net.cpp:124] Setting up pool0
I0428 19:38:45.294195 24106 net.cpp:131] Top shape: 64 2 12 12 (18432)
I0428 19:38:45.294199 24106 net.cpp:139] Memory required for data: 569600
I0428 19:38:45.294201 24106 layer_factory.hpp:77] Creating layer conv1
I0428 19:38:45.294212 24106 net.cpp:86] Creating Layer conv1
I0428 19:38:45.294217 24106 net.cpp:408] conv1 <- pool0
I0428 19:38:45.294239 24106 net.cpp:382] conv1 -> conv1
I0428 19:38:45.296098 24106 net.cpp:124] Setting up conv1
I0428 19:38:45.296128 24106 net.cpp:131] Top shape: 64 2 8 8 (8192)
I0428 19:38:45.296133 24106 net.cpp:139] Memory required for data: 602368
I0428 19:38:45.296141 24106 layer_factory.hpp:77] Creating layer pool1
I0428 19:38:45.296164 24106 net.cpp:86] Creating Layer pool1
I0428 19:38:45.296167 24106 net.cpp:408] pool1 <- conv1
I0428 19:38:45.296187 24106 net.cpp:382] pool1 -> pool1
I0428 19:38:45.296223 24106 net.cpp:124] Setting up pool1
I0428 19:38:45.296231 24106 net.cpp:131] Top shape: 64 2 4 4 (2048)
I0428 19:38:45.296233 24106 net.cpp:139] Memory required for data: 610560
I0428 19:38:45.296236 24106 layer_factory.hpp:77] Creating layer ip1
I0428 19:38:45.296243 24106 net.cpp:86] Creating Layer ip1
I0428 19:38:45.296247 24106 net.cpp:408] ip1 <- pool1
I0428 19:38:45.296252 24106 net.cpp:382] ip1 -> ip1
I0428 19:38:45.297282 24106 net.cpp:124] Setting up ip1
I0428 19:38:45.297312 24106 net.cpp:131] Top shape: 64 50 (3200)
I0428 19:38:45.297314 24106 net.cpp:139] Memory required for data: 623360
I0428 19:38:45.297322 24106 layer_factory.hpp:77] Creating layer relu1
I0428 19:38:45.297329 24106 net.cpp:86] Creating Layer relu1
I0428 19:38:45.297333 24106 net.cpp:408] relu1 <- ip1
I0428 19:38:45.297338 24106 net.cpp:369] relu1 -> ip1 (in-place)
I0428 19:38:45.297507 24106 net.cpp:124] Setting up relu1
I0428 19:38:45.297516 24106 net.cpp:131] Top shape: 64 50 (3200)
I0428 19:38:45.297519 24106 net.cpp:139] Memory required for data: 636160
I0428 19:38:45.297523 24106 layer_factory.hpp:77] Creating layer ip2
I0428 19:38:45.297529 24106 net.cpp:86] Creating Layer ip2
I0428 19:38:45.297533 24106 net.cpp:408] ip2 <- ip1
I0428 19:38:45.297538 24106 net.cpp:382] ip2 -> ip2
I0428 19:38:45.297649 24106 net.cpp:124] Setting up ip2
I0428 19:38:45.297657 24106 net.cpp:131] Top shape: 64 10 (640)
I0428 19:38:45.297660 24106 net.cpp:139] Memory required for data: 638720
I0428 19:38:45.297667 24106 layer_factory.hpp:77] Creating layer relu2
I0428 19:38:45.297672 24106 net.cpp:86] Creating Layer relu2
I0428 19:38:45.297678 24106 net.cpp:408] relu2 <- ip2
I0428 19:38:45.297683 24106 net.cpp:369] relu2 -> ip2 (in-place)
I0428 19:38:45.298478 24106 net.cpp:124] Setting up relu2
I0428 19:38:45.298493 24106 net.cpp:131] Top shape: 64 10 (640)
I0428 19:38:45.298497 24106 net.cpp:139] Memory required for data: 641280
I0428 19:38:45.298501 24106 layer_factory.hpp:77] Creating layer loss
I0428 19:38:45.298506 24106 net.cpp:86] Creating Layer loss
I0428 19:38:45.298511 24106 net.cpp:408] loss <- ip2
I0428 19:38:45.298514 24106 net.cpp:408] loss <- label
I0428 19:38:45.298519 24106 net.cpp:382] loss -> loss
I0428 19:38:45.298534 24106 layer_factory.hpp:77] Creating layer loss
…
I0428 19:38:45.299263 24106 solver.cpp:173] Creating test net (#0) specified by net file: ECE595/mnist/train_test/var_everything2/lenet_train_test283.prototxt
I0428 19:38:45.299288 24106 net.cpp:296] The NetState phase (1) differed from the phase (0) specified by a rule in layer mnist
I0428 19:38:45.299391 24106 net.cpp:53] Initializing net from parameters: 
name: "LeNet"
state {
  phase: TEST
}
layer {
  name: "mnist"
  type: "Data"
  top: "data"
  top: "label"
  include {
    phase: TEST
  }
  transform_param {
    scale: 0.00390625
  }
  data_param {
    source: "examples/mnist/mnist_test_lmdb"
    batch_size: 100
    backend: LMDB
  }
}
layer {
  name: "conv0"
  type: "Convolution"
  bottom: "data"
  top: "conv0"
  param {
    lr_mult: 1
  }
  param {
    lr_mult: 2
  }
  convolution_param {
    num_output: 2
    kernel_size: 5
    stride: 1
    weight_filler {
      type: "xavier"
    }
    bias_filler {
      type: "constant"
    }
  }
}
layer {
  name: "pool0"
  type: "Pooling"
  bottom: "conv0"
  top: "pool0"
  pooling_param {
    pool: MAX
    kernel_size: 2
    stride: 2
  }
}
layer {
  name: "conv1"
  type: "Convolution"
  bottom: "pool0"
  top: "conv1"
  param {
    lr_mult: 1
  }
  param {
    lr_mult: 2
  }
  convolution_param {
    num_output: 2
    kernel_size: 5
    stride: 1
    weight_filler {
      type: "xavier"
    }
    bias_filler {
      type: "constant"
    }
  }
}
layer {
  name: "pool1"
  type: "Pooling"
  bottom: "conv1"
  top: "pool1"
  pooling_param {
    pool: MAX
    kernel_size: 2
    stride: 2
  }
}
layer {
  name: "ip1"
  type: "InnerProduct"
  bottom: "pool1"
  top: "ip1"
  param {
    lr_mult: 1
  }
  param {
    lr_mult: 2
  }
  inner_product_param {
    num_output: 50
    weight_filler {
      type: "xavier"
    }
    bias_filler {
      type: "constant"
    }
  }
}
layer {
  name: "relu1"
  type: "ReLU"
  bottom: "ip1"
  top: "ip1"
}
layer {
  name: "ip2"
  type: "InnerProduct"
  bottom: "ip1"
  top: "ip2"
  param {
    lr_mult: 1
  }
  param {
    lr_mult: 2
  }
  inner_product_param {
    num_output: 10
    weight_filler {
      type: "xavier"
    }
    bias_filler {
      type: "constant"
    }
  }
}
layer {
  name: "relu2"
  type: "ReLU"
  bottom: "ip2"
  top: "ip2"
}
layer {
  name: "accuracy"
  type: "Accuracy"
  bottom: "ip2"
  bottom: "label"
  top: "accuracy"
  include {
    phase: TEST
  }
}
layer {
  name: "loss"
  type: "SoftmaxWithLoss"
  bottom: "ip2"
  bottom: "label"
  top: "loss"
}
I0428 19:38:45.299474 24106 layer_factory.hpp:77] Creating layer mnist
I0428 19:38:45.299521 24106 db_lmdb.cpp:35] Opened lmdb examples/mnist/mnist_test_lmdb
I0428 19:38:45.299536 24106 net.cpp:86] Creating Layer mnist
I0428 19:38:45.299546 24106 net.cpp:382] mnist -> data
I0428 19:38:45.299553 24106 net.cpp:382] mnist -> label
I0428 19:38:45.299656 24106 data_layer.cpp:45] output data size: 100,1,28,28
I0428 19:38:45.301888 24106 net.cpp:124] Setting up mnist
I0428 19:38:45.301934 24106 net.cpp:131] Top shape: 100 1 28 28 (78400)
I0428 19:38:45.301954 24106 net.cpp:131] Top shape: 100 (100)
I0428 19:38:45.301959 24106 net.cpp:139] Memory required for data: 314000
I0428 19:38:45.301961 24106 layer_factory.hpp:77] Creating layer label_mnist_1_split
I0428 19:38:45.301969 24106 net.cpp:86] Creating Layer label_mnist_1_split
I0428 19:38:45.301971 24106 net.cpp:408] label_mnist_1_split <- label
I0428 19:38:45.301976 24106 net.cpp:382] label_mnist_1_split -> label_mnist_1_split_0
I0428 19:38:45.301983 24106 net.cpp:382] label_mnist_1_split -> label_mnist_1_split_1
I0428 19:38:45.302111 24106 net.cpp:124] Setting up label_mnist_1_split
I0428 19:38:45.302134 24106 net.cpp:131] Top shape: 100 (100)
I0428 19:38:45.302139 24106 net.cpp:131] Top shape: 100 (100)
I0428 19:38:45.302141 24106 net.cpp:139] Memory required for data: 314800
I0428 19:38:45.302145 24106 layer_factory.hpp:77] Creating layer conv0
I0428 19:38:45.302155 24106 net.cpp:86] Creating Layer conv0
I0428 19:38:45.302158 24106 net.cpp:408] conv0 <- data
I0428 19:38:45.302165 24106 net.cpp:382] conv0 -> conv0
I0428 19:38:45.303920 24106 net.cpp:124] Setting up conv0
I0428 19:38:45.303947 24106 net.cpp:131] Top shape: 100 2 24 24 (115200)
I0428 19:38:45.303951 24106 net.cpp:139] Memory required for data: 775600
I0428 19:38:45.303961 24106 layer_factory.hpp:77] Creating layer pool0
I0428 19:38:45.303967 24106 net.cpp:86] Creating Layer pool0
I0428 19:38:45.303970 24106 net.cpp:408] pool0 <- conv0
I0428 19:38:45.303975 24106 net.cpp:382] pool0 -> pool0
I0428 19:38:45.304010 24106 net.cpp:124] Setting up pool0
I0428 19:38:45.304016 24106 net.cpp:131] Top shape: 100 2 12 12 (28800)
I0428 19:38:45.304018 24106 net.cpp:139] Memory required for data: 890800
I0428 19:38:45.304021 24106 layer_factory.hpp:77] Creating layer conv1
I0428 19:38:45.304031 24106 net.cpp:86] Creating Layer conv1
I0428 19:38:45.304034 24106 net.cpp:408] conv1 <- pool0
I0428 19:38:45.304040 24106 net.cpp:382] conv1 -> conv1
I0428 19:38:45.305769 24106 net.cpp:124] Setting up conv1
I0428 19:38:45.305800 24106 net.cpp:131] Top shape: 100 2 8 8 (12800)
I0428 19:38:45.305804 24106 net.cpp:139] Memory required for data: 942000
I0428 19:38:45.305814 24106 layer_factory.hpp:77] Creating layer pool1
I0428 19:38:45.305820 24106 net.cpp:86] Creating Layer pool1
I0428 19:38:45.305824 24106 net.cpp:408] pool1 <- conv1
I0428 19:38:45.305830 24106 net.cpp:382] pool1 -> pool1
I0428 19:38:45.305899 24106 net.cpp:124] Setting up pool1
I0428 19:38:45.305904 24106 net.cpp:131] Top shape: 100 2 4 4 (3200)
I0428 19:38:45.305907 24106 net.cpp:139] Memory required for data: 954800
I0428 19:38:45.305910 24106 layer_factory.hpp:77] Creating layer ip1
I0428 19:38:45.305917 24106 net.cpp:86] Creating Layer ip1
I0428 19:38:45.305922 24106 net.cpp:408] ip1 <- pool1
I0428 19:38:45.305927 24106 net.cpp:382] ip1 -> ip1
I0428 19:38:45.306041 24106 net.cpp:124] Setting up ip1
I0428 19:38:45.306052 24106 net.cpp:131] Top shape: 100 50 (5000)
I0428 19:38:45.306056 24106 net.cpp:139] Memory required for data: 974800
I0428 19:38:45.306063 24106 layer_factory.hpp:77] Creating layer relu1
I0428 19:38:45.306069 24106 net.cpp:86] Creating Layer relu1
I0428 19:38:45.306073 24106 net.cpp:408] relu1 <- ip1
I0428 19:38:45.306078 24106 net.cpp:369] relu1 -> ip1 (in-place)
I0428 19:38:45.306252 24106 net.cpp:124] Setting up relu1
I0428 19:38:45.306262 24106 net.cpp:131] Top shape: 100 50 (5000)
I0428 19:38:45.306265 24106 net.cpp:139] Memory required for data: 994800
I0428 19:38:45.306268 24106 layer_factory.hpp:77] Creating layer ip2
I0428 19:38:45.306275 24106 net.cpp:86] Creating Layer ip2
I0428 19:38:45.306279 24106 net.cpp:408] ip2 <- ip1
I0428 19:38:45.306285 24106 net.cpp:382] ip2 -> ip2
I0428 19:38:45.306437 24106 net.cpp:124] Setting up ip2
I0428 19:38:45.306445 24106 net.cpp:131] Top shape: 100 10 (1000)
I0428 19:38:45.306448 24106 net.cpp:139] Memory required for data: 998800
I0428 19:38:45.306454 24106 layer_factory.hpp:77] Creating layer relu2
I0428 19:38:45.306460 24106 net.cpp:86] Creating Layer relu2
I0428 19:38:45.306463 24106 net.cpp:408] relu2 <- ip2
I0428 19:38:45.306468 24106 net.cpp:369] relu2 -> ip2 (in-place)
I0428 19:38:45.306728 24106 net.cpp:124] Setting up relu2
I0428 19:38:45.306748 24106 net.cpp:131] Top shape: 100 10 (1000)
I0428 19:38:45.306751 24106 net.cpp:139] Memory required for data: 1002800
I0428 19:38:45.306754 24106 layer_factory.hpp:77] Creating layer ip2_relu2_0_split
I0428 19:38:45.306761 24106 net.cpp:86] Creating Layer ip2_relu2_0_split
I0428 19:38:45.306763 24106 net.cpp:408] ip2_relu2_0_split <- ip2
I0428 19:38:45.306767 24106 net.cpp:382] ip2_relu2_0_split -> ip2_relu2_0_split_0
I0428 19:38:45.306784 24106 net.cpp:382] ip2_relu2_0_split -> ip2_relu2_0_split_1
I0428 19:38:45.306831 24106 net.cpp:124] Setting up ip2_relu2_0_split
I0428 19:38:45.306838 24106 net.cpp:131] Top shape: 100 10 (1000)
I0428 19:38:45.306841 24106 net.cpp:131] Top shape: 100 10 (1000)
I0428 19:38:45.306844 24106 net.cpp:139] Memory required for data: 1010800
I0428 19:38:45.306848 24106 layer_factory.hpp:77] Creating layer accuracy
I0428 19:38:45.306854 24106 net.cpp:86] Creating Layer accuracy
I0428 19:38:45.306867 24106 net.cpp:408] accuracy <- ip2_relu2_0_split_0
I0428 19:38:45.306871 24106 net.cpp:408] accuracy <- label_mnist_1_split_0
I0428 19:38:45.306875 24106 net.cpp:382] accuracy -> accuracy
…
