…
I0428 20:13:04.075170 32394 net.cpp:296] The NetState phase (0) differed from the phase (1) specified by a rule in layer mnist
I0428 20:13:04.075198 32394 net.cpp:296] The NetState phase (0) differed from the phase (1) specified by a rule in layer accuracy
I0428 20:13:04.075274 32394 net.cpp:53] Initializing net from parameters: 
name: "LeNet"
state {
  phase: TRAIN
  level: 0
  stage: ""
}
layer {
  name: "mnist"
  type: "Data"
  top: "data"
  top: "label"
  include {
    phase: TRAIN
  }
  transform_param {
    scale: 0.00390625
  }
  data_param {
    source: "examples/mnist/mnist_train_lmdb"
    batch_size: 64
    backend: LMDB
  }
}
layer {
  name: "conv0"
  type: "Convolution"
  bottom: "data"
  top: "conv0"
  param {
    lr_mult: 1
  }
  param {
    lr_mult: 2
  }
  convolution_param {
    num_output: 25
    kernel_size: 5
    stride: 1
    weight_filler {
      type: "xavier"
    }
    bias_filler {
      type: "constant"
    }
  }
}
layer {
  name: "pool0"
  type: "Pooling"
  bottom: "conv0"
  top: "pool0"
  pooling_param {
    pool: MAX
    kernel_size: 2
    stride: 2
  }
}
layer {
  name: "conv1"
  type: "Convolution"
  bottom: "pool0"
  top: "conv1"
  param {
    lr_mult: 1
  }
  param {
    lr_mult: 2
  }
  convolution_param {
    num_output: 100
    kernel_size: 5
    stride: 1
    weight_filler {
      type: "xavier"
    }
    bias_filler {
      type: "constant"
    }
  }
}
layer {
  name: "pool1"
  type: "Pooling"
  bottom: "conv1"
  top: "pool1"
  pooling_param {
    pool: MAX
    kernel_size: 2
    stride: 2
  }
}
layer {
  name: "ip1"
  type: "InnerProduct"
  bottom: "pool1"
  top: "ip1"
  param {
    lr_mult: 1
  }
  param {
    lr_mult: 2
  }
  inner_product_param {
    num_output: 25
    weight_filler {
      type: "xavier"
    }
    bias_filler {
      type: "constant"
    }
  }
}
layer {
  name: "relu1"
  type: "ReLU"
  bottom: "ip1"
  top: "ip1"
}
layer {
  name: "ip2"
  type: "InnerProduct"
  bottom: "ip1"
  top: "ip2"
  param {
    lr_mult: 1
  }
  param {
    lr_mult: 2
  }
  inner_product_param {
    num_output: 10
    weight_filler {
      type: "xavier"
    }
    bias_filler {
      type: "constant"
    }
  }
}
layer {
  name: "relu2"
  type: "ReLU"
  bottom: "ip2"
  top: "ip2"
}
layer {
  name: "ip3"
  type: "InnerProduct"
  bottom: "ip2"
  top: "ip3"
  param {
    lr_mult: 1
  }
  param {
    lr_mult: 2
  }
  inner_product_param {
    num_output: 10
    weight_filler {
      type: "xavier"
    }
    bias_filler {
      type: "constant"
    }
  }
}
layer {
  name: "relu3"
  type: "ReLU"
  bottom: "ip3"
  top: "ip3"
}
layer {
  name: "loss"
  type: "SoftmaxWithLoss"
  bottom: "ip3"
  bottom: "label"
  top: "loss"
}
I0428 20:13:04.075335 32394 layer_factory.hpp:77] Creating layer mnist
I0428 20:13:04.075418 32394 db_lmdb.cpp:35] Opened lmdb examples/mnist/mnist_train_lmdb
I0428 20:13:04.075439 32394 net.cpp:86] Creating Layer mnist
I0428 20:13:04.075446 32394 net.cpp:382] mnist -> data
I0428 20:13:04.075466 32394 net.cpp:382] mnist -> label
I0428 20:13:04.076395 32394 data_layer.cpp:45] output data size: 64,1,28,28
I0428 20:13:04.078526 32394 net.cpp:124] Setting up mnist
I0428 20:13:04.078541 32394 net.cpp:131] Top shape: 64 1 28 28 (50176)
I0428 20:13:04.078546 32394 net.cpp:131] Top shape: 64 (64)
I0428 20:13:04.078548 32394 net.cpp:139] Memory required for data: 200960
I0428 20:13:04.078554 32394 layer_factory.hpp:77] Creating layer conv0
I0428 20:13:04.078567 32394 net.cpp:86] Creating Layer conv0
I0428 20:13:04.078583 32394 net.cpp:408] conv0 <- data
I0428 20:13:04.078611 32394 net.cpp:382] conv0 -> conv0
I0428 20:13:04.310937 32394 net.cpp:124] Setting up conv0
I0428 20:13:04.310963 32394 net.cpp:131] Top shape: 64 25 24 24 (921600)
I0428 20:13:04.310966 32394 net.cpp:139] Memory required for data: 3887360
I0428 20:13:04.310981 32394 layer_factory.hpp:77] Creating layer pool0
I0428 20:13:04.310992 32394 net.cpp:86] Creating Layer pool0
I0428 20:13:04.310997 32394 net.cpp:408] pool0 <- conv0
I0428 20:13:04.311002 32394 net.cpp:382] pool0 -> pool0
I0428 20:13:04.311043 32394 net.cpp:124] Setting up pool0
I0428 20:13:04.311065 32394 net.cpp:131] Top shape: 64 25 12 12 (230400)
I0428 20:13:04.311069 32394 net.cpp:139] Memory required for data: 4808960
I0428 20:13:04.311086 32394 layer_factory.hpp:77] Creating layer conv1
I0428 20:13:04.311111 32394 net.cpp:86] Creating Layer conv1
I0428 20:13:04.311115 32394 net.cpp:408] conv1 <- pool0
I0428 20:13:04.311120 32394 net.cpp:382] conv1 -> conv1
I0428 20:13:04.313391 32394 net.cpp:124] Setting up conv1
I0428 20:13:04.313421 32394 net.cpp:131] Top shape: 64 100 8 8 (409600)
I0428 20:13:04.313424 32394 net.cpp:139] Memory required for data: 6447360
I0428 20:13:04.313433 32394 layer_factory.hpp:77] Creating layer pool1
I0428 20:13:04.313441 32394 net.cpp:86] Creating Layer pool1
I0428 20:13:04.313446 32394 net.cpp:408] pool1 <- conv1
I0428 20:13:04.313450 32394 net.cpp:382] pool1 -> pool1
I0428 20:13:04.313499 32394 net.cpp:124] Setting up pool1
I0428 20:13:04.313506 32394 net.cpp:131] Top shape: 64 100 4 4 (102400)
I0428 20:13:04.313509 32394 net.cpp:139] Memory required for data: 6856960
I0428 20:13:04.313513 32394 layer_factory.hpp:77] Creating layer ip1
I0428 20:13:04.313520 32394 net.cpp:86] Creating Layer ip1
I0428 20:13:04.313524 32394 net.cpp:408] ip1 <- pool1
I0428 20:13:04.313527 32394 net.cpp:382] ip1 -> ip1
I0428 20:13:04.313863 32394 net.cpp:124] Setting up ip1
I0428 20:13:04.313869 32394 net.cpp:131] Top shape: 64 25 (1600)
I0428 20:13:04.313887 32394 net.cpp:139] Memory required for data: 6863360
I0428 20:13:04.313894 32394 layer_factory.hpp:77] Creating layer relu1
I0428 20:13:04.313899 32394 net.cpp:86] Creating Layer relu1
I0428 20:13:04.313902 32394 net.cpp:408] relu1 <- ip1
I0428 20:13:04.313906 32394 net.cpp:369] relu1 -> ip1 (in-place)
I0428 20:13:04.314060 32394 net.cpp:124] Setting up relu1
I0428 20:13:04.314069 32394 net.cpp:131] Top shape: 64 25 (1600)
I0428 20:13:04.314071 32394 net.cpp:139] Memory required for data: 6869760
I0428 20:13:04.314074 32394 layer_factory.hpp:77] Creating layer ip2
I0428 20:13:04.314080 32394 net.cpp:86] Creating Layer ip2
I0428 20:13:04.314083 32394 net.cpp:408] ip2 <- ip1
I0428 20:13:04.314088 32394 net.cpp:382] ip2 -> ip2
I0428 20:13:04.314177 32394 net.cpp:124] Setting up ip2
I0428 20:13:04.314182 32394 net.cpp:131] Top shape: 64 10 (640)
I0428 20:13:04.314185 32394 net.cpp:139] Memory required for data: 6872320
I0428 20:13:04.314190 32394 layer_factory.hpp:77] Creating layer relu2
I0428 20:13:04.314196 32394 net.cpp:86] Creating Layer relu2
I0428 20:13:04.314199 32394 net.cpp:408] relu2 <- ip2
I0428 20:13:04.314203 32394 net.cpp:369] relu2 -> ip2 (in-place)
I0428 20:13:04.314939 32394 net.cpp:124] Setting up relu2
I0428 20:13:04.314950 32394 net.cpp:131] Top shape: 64 10 (640)
I0428 20:13:04.314968 32394 net.cpp:139] Memory required for data: 6874880
I0428 20:13:04.314972 32394 layer_factory.hpp:77] Creating layer ip3
I0428 20:13:04.314978 32394 net.cpp:86] Creating Layer ip3
I0428 20:13:04.314981 32394 net.cpp:408] ip3 <- ip2
I0428 20:13:04.314986 32394 net.cpp:382] ip3 -> ip3
I0428 20:13:04.315075 32394 net.cpp:124] Setting up ip3
I0428 20:13:04.315083 32394 net.cpp:131] Top shape: 64 10 (640)
I0428 20:13:04.315085 32394 net.cpp:139] Memory required for data: 6877440
I0428 20:13:04.315093 32394 layer_factory.hpp:77] Creating layer relu3
I0428 20:13:04.315098 32394 net.cpp:86] Creating Layer relu3
I0428 20:13:04.315100 32394 net.cpp:408] relu3 <- ip3
I0428 20:13:04.315105 32394 net.cpp:369] relu3 -> ip3 (in-place)
I0428 20:13:04.315277 32394 net.cpp:124] Setting up relu3
I0428 20:13:04.315286 32394 net.cpp:131] Top shape: 64 10 (640)
I0428 20:13:04.315289 32394 net.cpp:139] Memory required for data: 6880000
I0428 20:13:04.315292 32394 layer_factory.hpp:77] Creating layer loss
I0428 20:13:04.315299 32394 net.cpp:86] Creating Layer loss
I0428 20:13:04.315301 32394 net.cpp:408] loss <- ip3
I0428 20:13:04.315305 32394 net.cpp:408] loss <- label
I0428 20:13:04.315311 32394 net.cpp:382] loss -> loss
I0428 20:13:04.315328 32394 layer_factory.hpp:77] Creating layer loss
…
I0428 20:13:04.316018 32394 solver.cpp:173] Creating test net (#0) specified by net file: ECE595/mnist/train_test/var_everything2/lenet_train_test1192.prototxt
I0428 20:13:04.316061 32394 net.cpp:296] The NetState phase (1) differed from the phase (0) specified by a rule in layer mnist
I0428 20:13:04.316184 32394 net.cpp:53] Initializing net from parameters: 
name: "LeNet"
state {
  phase: TEST
}
layer {
  name: "mnist"
  type: "Data"
  top: "data"
  top: "label"
  include {
    phase: TEST
  }
  transform_param {
    scale: 0.00390625
  }
  data_param {
    source: "examples/mnist/mnist_test_lmdb"
    batch_size: 100
    backend: LMDB
  }
}
layer {
  name: "conv0"
  type: "Convolution"
  bottom: "data"
  top: "conv0"
  param {
    lr_mult: 1
  }
  param {
    lr_mult: 2
  }
  convolution_param {
    num_output: 25
    kernel_size: 5
    stride: 1
    weight_filler {
      type: "xavier"
    }
    bias_filler {
      type: "constant"
    }
  }
}
layer {
  name: "pool0"
  type: "Pooling"
  bottom: "conv0"
  top: "pool0"
  pooling_param {
    pool: MAX
    kernel_size: 2
    stride: 2
  }
}
layer {
  name: "conv1"
  type: "Convolution"
  bottom: "pool0"
  top: "conv1"
  param {
    lr_mult: 1
  }
  param {
    lr_mult: 2
  }
  convolution_param {
    num_output: 100
    kernel_size: 5
    stride: 1
    weight_filler {
      type: "xavier"
    }
    bias_filler {
      type: "constant"
    }
  }
}
layer {
  name: "pool1"
  type: "Pooling"
  bottom: "conv1"
  top: "pool1"
  pooling_param {
    pool: MAX
    kernel_size: 2
    stride: 2
  }
}
layer {
  name: "ip1"
  type: "InnerProduct"
  bottom: "pool1"
  top: "ip1"
  param {
    lr_mult: 1
  }
  param {
    lr_mult: 2
  }
  inner_product_param {
    num_output: 25
    weight_filler {
      type: "xavier"
    }
    bias_filler {
      type: "constant"
    }
  }
}
layer {
  name: "relu1"
  type: "ReLU"
  bottom: "ip1"
  top: "ip1"
}
layer {
  name: "ip2"
  type: "InnerProduct"
  bottom: "ip1"
  top: "ip2"
  param {
    lr_mult: 1
  }
  param {
    lr_mult: 2
  }
  inner_product_param {
    num_output: 10
    weight_filler {
      type: "xavier"
    }
    bias_filler {
      type: "constant"
    }
  }
}
layer {
  name: "relu2"
  type: "ReLU"
  bottom: "ip2"
  top: "ip2"
}
layer {
  name: "ip3"
  type: "InnerProduct"
  bottom: "ip2"
  top: "ip3"
  param {
    lr_mult: 1
  }
  param {
    lr_mult: 2
  }
  inner_product_param {
    num_output: 10
    weight_filler {
      type: "xavier"
    }
    bias_filler {
      type: "constant"
    }
  }
}
layer {
  name: "relu3"
  type: "ReLU"
  bottom: "ip3"
  top: "ip3"
}
layer {
  name: "accuracy"
  type: "Accuracy"
  bottom: "ip3"
  bottom: "label"
  top: "accuracy"
  include {
    phase: TEST
  }
}
layer {
  name: "loss"
  type: "SoftmaxWithLoss"
  bottom: "ip3"
  bottom: "label"
  top: "loss"
}
I0428 20:13:04.316258 32394 layer_factory.hpp:77] Creating layer mnist
I0428 20:13:04.316301 32394 db_lmdb.cpp:35] Opened lmdb examples/mnist/mnist_test_lmdb
I0428 20:13:04.316331 32394 net.cpp:86] Creating Layer mnist
I0428 20:13:04.316336 32394 net.cpp:382] mnist -> data
I0428 20:13:04.316344 32394 net.cpp:382] mnist -> label
I0428 20:13:04.316423 32394 data_layer.cpp:45] output data size: 100,1,28,28
I0428 20:13:04.318428 32394 net.cpp:124] Setting up mnist
I0428 20:13:04.318456 32394 net.cpp:131] Top shape: 100 1 28 28 (78400)
I0428 20:13:04.318462 32394 net.cpp:131] Top shape: 100 (100)
I0428 20:13:04.318465 32394 net.cpp:139] Memory required for data: 314000
I0428 20:13:04.318469 32394 layer_factory.hpp:77] Creating layer label_mnist_1_split
I0428 20:13:04.318475 32394 net.cpp:86] Creating Layer label_mnist_1_split
I0428 20:13:04.318478 32394 net.cpp:408] label_mnist_1_split <- label
I0428 20:13:04.318482 32394 net.cpp:382] label_mnist_1_split -> label_mnist_1_split_0
I0428 20:13:04.318490 32394 net.cpp:382] label_mnist_1_split -> label_mnist_1_split_1
I0428 20:13:04.318581 32394 net.cpp:124] Setting up label_mnist_1_split
I0428 20:13:04.318588 32394 net.cpp:131] Top shape: 100 (100)
I0428 20:13:04.318593 32394 net.cpp:131] Top shape: 100 (100)
I0428 20:13:04.318595 32394 net.cpp:139] Memory required for data: 314800
I0428 20:13:04.318598 32394 layer_factory.hpp:77] Creating layer conv0
I0428 20:13:04.318606 32394 net.cpp:86] Creating Layer conv0
I0428 20:13:04.318609 32394 net.cpp:408] conv0 <- data
I0428 20:13:04.318614 32394 net.cpp:382] conv0 -> conv0
I0428 20:13:04.320245 32394 net.cpp:124] Setting up conv0
I0428 20:13:04.320258 32394 net.cpp:131] Top shape: 100 25 24 24 (1440000)
I0428 20:13:04.320262 32394 net.cpp:139] Memory required for data: 6074800
I0428 20:13:04.320271 32394 layer_factory.hpp:77] Creating layer pool0
I0428 20:13:04.320276 32394 net.cpp:86] Creating Layer pool0
I0428 20:13:04.320279 32394 net.cpp:408] pool0 <- conv0
I0428 20:13:04.320284 32394 net.cpp:382] pool0 -> pool0
I0428 20:13:04.320332 32394 net.cpp:124] Setting up pool0
I0428 20:13:04.320338 32394 net.cpp:131] Top shape: 100 25 12 12 (360000)
I0428 20:13:04.320340 32394 net.cpp:139] Memory required for data: 7514800
I0428 20:13:04.320343 32394 layer_factory.hpp:77] Creating layer conv1
I0428 20:13:04.320351 32394 net.cpp:86] Creating Layer conv1
I0428 20:13:04.320356 32394 net.cpp:408] conv1 <- pool0
I0428 20:13:04.320375 32394 net.cpp:382] conv1 -> conv1
I0428 20:13:04.322314 32394 net.cpp:124] Setting up conv1
I0428 20:13:04.322343 32394 net.cpp:131] Top shape: 100 100 8 8 (640000)
I0428 20:13:04.322347 32394 net.cpp:139] Memory required for data: 10074800
I0428 20:13:04.322355 32394 layer_factory.hpp:77] Creating layer pool1
I0428 20:13:04.322365 32394 net.cpp:86] Creating Layer pool1
I0428 20:13:04.322371 32394 net.cpp:408] pool1 <- conv1
I0428 20:13:04.322379 32394 net.cpp:382] pool1 -> pool1
I0428 20:13:04.322414 32394 net.cpp:124] Setting up pool1
I0428 20:13:04.322422 32394 net.cpp:131] Top shape: 100 100 4 4 (160000)
I0428 20:13:04.322425 32394 net.cpp:139] Memory required for data: 10714800
I0428 20:13:04.322428 32394 layer_factory.hpp:77] Creating layer ip1
I0428 20:13:04.322434 32394 net.cpp:86] Creating Layer ip1
I0428 20:13:04.322438 32394 net.cpp:408] ip1 <- pool1
I0428 20:13:04.322443 32394 net.cpp:382] ip1 -> ip1
I0428 20:13:04.322818 32394 net.cpp:124] Setting up ip1
I0428 20:13:04.322826 32394 net.cpp:131] Top shape: 100 25 (2500)
I0428 20:13:04.322855 32394 net.cpp:139] Memory required for data: 10724800
I0428 20:13:04.322865 32394 layer_factory.hpp:77] Creating layer relu1
I0428 20:13:04.322870 32394 net.cpp:86] Creating Layer relu1
I0428 20:13:04.322873 32394 net.cpp:408] relu1 <- ip1
I0428 20:13:04.322877 32394 net.cpp:369] relu1 -> ip1 (in-place)
I0428 20:13:04.323096 32394 net.cpp:124] Setting up relu1
I0428 20:13:04.323107 32394 net.cpp:131] Top shape: 100 25 (2500)
I0428 20:13:04.323110 32394 net.cpp:139] Memory required for data: 10734800
I0428 20:13:04.323113 32394 layer_factory.hpp:77] Creating layer ip2
I0428 20:13:04.323120 32394 net.cpp:86] Creating Layer ip2
I0428 20:13:04.323127 32394 net.cpp:408] ip2 <- ip1
I0428 20:13:04.323146 32394 net.cpp:382] ip2 -> ip2
I0428 20:13:04.323249 32394 net.cpp:124] Setting up ip2
I0428 20:13:04.323256 32394 net.cpp:131] Top shape: 100 10 (1000)
I0428 20:13:04.323261 32394 net.cpp:139] Memory required for data: 10738800
I0428 20:13:04.323266 32394 layer_factory.hpp:77] Creating layer relu2
I0428 20:13:04.323271 32394 net.cpp:86] Creating Layer relu2
I0428 20:13:04.323274 32394 net.cpp:408] relu2 <- ip2
I0428 20:13:04.323279 32394 net.cpp:369] relu2 -> ip2 (in-place)
I0428 20:13:04.323446 32394 net.cpp:124] Setting up relu2
I0428 20:13:04.323468 32394 net.cpp:131] Top shape: 100 10 (1000)
I0428 20:13:04.323472 32394 net.cpp:139] Memory required for data: 10742800
I0428 20:13:04.323477 32394 layer_factory.hpp:77] Creating layer ip3
I0428 20:13:04.323490 32394 net.cpp:86] Creating Layer ip3
I0428 20:13:04.323509 32394 net.cpp:408] ip3 <- ip2
I0428 20:13:04.323515 32394 net.cpp:382] ip3 -> ip3
I0428 20:13:04.323611 32394 net.cpp:124] Setting up ip3
I0428 20:13:04.323618 32394 net.cpp:131] Top shape: 100 10 (1000)
I0428 20:13:04.323622 32394 net.cpp:139] Memory required for data: 10746800
I0428 20:13:04.323631 32394 layer_factory.hpp:77] Creating layer relu3
I0428 20:13:04.323652 32394 net.cpp:86] Creating Layer relu3
I0428 20:13:04.323655 32394 net.cpp:408] relu3 <- ip3
I0428 20:13:04.323676 32394 net.cpp:369] relu3 -> ip3 (in-place)
I0428 20:13:04.324512 32394 net.cpp:124] Setting up relu3
I0428 20:13:04.324523 32394 net.cpp:131] Top shape: 100 10 (1000)
I0428 20:13:04.324542 32394 net.cpp:139] Memory required for data: 10750800
I0428 20:13:04.324544 32394 layer_factory.hpp:77] Creating layer ip3_relu3_0_split
I0428 20:13:04.324549 32394 net.cpp:86] Creating Layer ip3_relu3_0_split
I0428 20:13:04.324553 32394 net.cpp:408] ip3_relu3_0_split <- ip3
I0428 20:13:04.324559 32394 net.cpp:382] ip3_relu3_0_split -> ip3_relu3_0_split_0
I0428 20:13:04.324565 32394 net.cpp:382] ip3_relu3_0_split -> ip3_relu3_0_split_1
I0428 20:13:04.324601 32394 net.cpp:124] Setting up ip3_relu3_0_split
I0428 20:13:04.324607 32394 net.cpp:131] Top shape: 100 10 (1000)
I0428 20:13:04.324611 32394 net.cpp:131] Top shape: 100 10 (1000)
I0428 20:13:04.324614 32394 net.cpp:139] Memory required for data: 10758800
I0428 20:13:04.324616 32394 layer_factory.hpp:77] Creating layer accuracy
I0428 20:13:04.324625 32394 net.cpp:86] Creating Layer accuracy
I0428 20:13:04.324632 32394 net.cpp:408] accuracy <- ip3_relu3_0_split_0
I0428 20:13:04.324636 32394 net.cpp:408] accuracy <- label_mnist_1_split_0
I0428 20:13:04.324656 32394 net.cpp:382] accuracy -> accuracy
…
