…
I0428 19:43:23.667610 25332 net.cpp:296] The NetState phase (0) differed from the phase (1) specified by a rule in layer mnist
I0428 19:43:23.667634 25332 net.cpp:296] The NetState phase (0) differed from the phase (1) specified by a rule in layer accuracy
I0428 19:43:23.667747 25332 net.cpp:53] Initializing net from parameters: 
name: "LeNet"
state {
  phase: TRAIN
  level: 0
  stage: ""
}
layer {
  name: "mnist"
  type: "Data"
  top: "data"
  top: "label"
  include {
    phase: TRAIN
  }
  transform_param {
    scale: 0.00390625
  }
  data_param {
    source: "examples/mnist/mnist_train_lmdb"
    batch_size: 64
    backend: LMDB
  }
}
layer {
  name: "conv0"
  type: "Convolution"
  bottom: "data"
  top: "conv0"
  param {
    lr_mult: 1
  }
  param {
    lr_mult: 2
  }
  convolution_param {
    num_output: 2
    kernel_size: 5
    stride: 1
    weight_filler {
      type: "xavier"
    }
    bias_filler {
      type: "constant"
    }
  }
}
layer {
  name: "pool0"
  type: "Pooling"
  bottom: "conv0"
  top: "pool0"
  pooling_param {
    pool: MAX
    kernel_size: 2
    stride: 2
  }
}
layer {
  name: "conv1"
  type: "Convolution"
  bottom: "pool0"
  top: "conv1"
  param {
    lr_mult: 1
  }
  param {
    lr_mult: 2
  }
  convolution_param {
    num_output: 25
    kernel_size: 5
    stride: 1
    weight_filler {
      type: "xavier"
    }
    bias_filler {
      type: "constant"
    }
  }
}
layer {
  name: "pool1"
  type: "Pooling"
  bottom: "conv1"
  top: "pool1"
  pooling_param {
    pool: MAX
    kernel_size: 2
    stride: 2
  }
}
layer {
  name: "ip1"
  type: "InnerProduct"
  bottom: "pool1"
  top: "ip1"
  param {
    lr_mult: 1
  }
  param {
    lr_mult: 2
  }
  inner_product_param {
    num_output: 50
    weight_filler {
      type: "xavier"
    }
    bias_filler {
      type: "constant"
    }
  }
}
layer {
  name: "relu1"
  type: "ReLU"
  bottom: "ip1"
  top: "ip1"
}
layer {
  name: "ip2"
  type: "InnerProduct"
  bottom: "ip1"
  top: "ip2"
  param {
    lr_mult: 1
  }
  param {
    lr_mult: 2
  }
  inner_product_param {
    num_output: 10
    weight_filler {
      type: "xavier"
    }
    bias_filler {
      type: "constant"
    }
  }
}
layer {
  name: "relu2"
  type: "ReLU"
  bottom: "ip2"
  top: "ip2"
}
layer {
  name: "ip3"
  type: "InnerProduct"
  bottom: "ip2"
  top: "ip3"
  param {
    lr_mult: 1
  }
  param {
    lr_mult: 2
  }
  inner_product_param {
    num_output: 10
    weight_filler {
      type: "xavier"
    }
    bias_filler {
      type: "constant"
    }
  }
}
layer {
  name: "relu3"
  type: "ReLU"
  bottom: "ip3"
  top: "ip3"
}
layer {
  name: "loss"
  type: "SoftmaxWithLoss"
  bottom: "ip3"
  bottom: "label"
  top: "loss"
}
I0428 19:43:23.667852 25332 layer_factory.hpp:77] Creating layer mnist
I0428 19:43:23.667981 25332 db_lmdb.cpp:35] Opened lmdb examples/mnist/mnist_train_lmdb
I0428 19:43:23.668014 25332 net.cpp:86] Creating Layer mnist
I0428 19:43:23.668025 25332 net.cpp:382] mnist -> data
I0428 19:43:23.668056 25332 net.cpp:382] mnist -> label
I0428 19:43:23.669328 25332 data_layer.cpp:45] output data size: 64,1,28,28
I0428 19:43:23.671816 25332 net.cpp:124] Setting up mnist
I0428 19:43:23.671838 25332 net.cpp:131] Top shape: 64 1 28 28 (50176)
I0428 19:43:23.671847 25332 net.cpp:131] Top shape: 64 (64)
I0428 19:43:23.671854 25332 net.cpp:139] Memory required for data: 200960
I0428 19:43:23.671864 25332 layer_factory.hpp:77] Creating layer conv0
I0428 19:43:23.671886 25332 net.cpp:86] Creating Layer conv0
I0428 19:43:23.671911 25332 net.cpp:408] conv0 <- data
I0428 19:43:23.671929 25332 net.cpp:382] conv0 -> conv0
I0428 19:43:23.954078 25332 net.cpp:124] Setting up conv0
I0428 19:43:23.954108 25332 net.cpp:131] Top shape: 64 2 24 24 (73728)
I0428 19:43:23.954115 25332 net.cpp:139] Memory required for data: 495872
I0428 19:43:23.954135 25332 layer_factory.hpp:77] Creating layer pool0
I0428 19:43:23.954152 25332 net.cpp:86] Creating Layer pool0
I0428 19:43:23.954159 25332 net.cpp:408] pool0 <- conv0
I0428 19:43:23.954169 25332 net.cpp:382] pool0 -> pool0
I0428 19:43:23.954233 25332 net.cpp:124] Setting up pool0
I0428 19:43:23.954242 25332 net.cpp:131] Top shape: 64 2 12 12 (18432)
I0428 19:43:23.954247 25332 net.cpp:139] Memory required for data: 569600
I0428 19:43:23.954252 25332 layer_factory.hpp:77] Creating layer conv1
I0428 19:43:23.954268 25332 net.cpp:86] Creating Layer conv1
I0428 19:43:23.954274 25332 net.cpp:408] conv1 <- pool0
I0428 19:43:23.954283 25332 net.cpp:382] conv1 -> conv1
I0428 19:43:23.956873 25332 net.cpp:124] Setting up conv1
I0428 19:43:23.956889 25332 net.cpp:131] Top shape: 64 25 8 8 (102400)
I0428 19:43:23.956897 25332 net.cpp:139] Memory required for data: 979200
I0428 19:43:23.956924 25332 layer_factory.hpp:77] Creating layer pool1
I0428 19:43:23.956936 25332 net.cpp:86] Creating Layer pool1
I0428 19:43:23.956943 25332 net.cpp:408] pool1 <- conv1
I0428 19:43:23.956950 25332 net.cpp:382] pool1 -> pool1
I0428 19:43:23.956997 25332 net.cpp:124] Setting up pool1
I0428 19:43:23.957020 25332 net.cpp:131] Top shape: 64 25 4 4 (25600)
I0428 19:43:23.957026 25332 net.cpp:139] Memory required for data: 1081600
I0428 19:43:23.957031 25332 layer_factory.hpp:77] Creating layer ip1
I0428 19:43:23.957041 25332 net.cpp:86] Creating Layer ip1
I0428 19:43:23.957047 25332 net.cpp:408] ip1 <- pool1
I0428 19:43:23.957056 25332 net.cpp:382] ip1 -> ip1
I0428 19:43:23.957268 25332 net.cpp:124] Setting up ip1
I0428 19:43:23.957278 25332 net.cpp:131] Top shape: 64 50 (3200)
I0428 19:43:23.957283 25332 net.cpp:139] Memory required for data: 1094400
I0428 19:43:23.957294 25332 layer_factory.hpp:77] Creating layer relu1
I0428 19:43:23.957307 25332 net.cpp:86] Creating Layer relu1
I0428 19:43:23.957316 25332 net.cpp:408] relu1 <- ip1
I0428 19:43:23.957324 25332 net.cpp:369] relu1 -> ip1 (in-place)
I0428 19:43:23.957490 25332 net.cpp:124] Setting up relu1
I0428 19:43:23.957500 25332 net.cpp:131] Top shape: 64 50 (3200)
I0428 19:43:23.957505 25332 net.cpp:139] Memory required for data: 1107200
I0428 19:43:23.957510 25332 layer_factory.hpp:77] Creating layer ip2
I0428 19:43:23.957520 25332 net.cpp:86] Creating Layer ip2
I0428 19:43:23.957525 25332 net.cpp:408] ip2 <- ip1
I0428 19:43:23.957533 25332 net.cpp:382] ip2 -> ip2
I0428 19:43:23.957633 25332 net.cpp:124] Setting up ip2
I0428 19:43:23.957641 25332 net.cpp:131] Top shape: 64 10 (640)
I0428 19:43:23.957646 25332 net.cpp:139] Memory required for data: 1109760
I0428 19:43:23.957655 25332 layer_factory.hpp:77] Creating layer relu2
I0428 19:43:23.957664 25332 net.cpp:86] Creating Layer relu2
I0428 19:43:23.957671 25332 net.cpp:408] relu2 <- ip2
I0428 19:43:23.957679 25332 net.cpp:369] relu2 -> ip2 (in-place)
I0428 19:43:23.958389 25332 net.cpp:124] Setting up relu2
I0428 19:43:23.958402 25332 net.cpp:131] Top shape: 64 10 (640)
I0428 19:43:23.958408 25332 net.cpp:139] Memory required for data: 1112320
I0428 19:43:23.958413 25332 layer_factory.hpp:77] Creating layer ip3
I0428 19:43:23.958423 25332 net.cpp:86] Creating Layer ip3
I0428 19:43:23.958429 25332 net.cpp:408] ip3 <- ip2
I0428 19:43:23.958438 25332 net.cpp:382] ip3 -> ip3
I0428 19:43:23.958541 25332 net.cpp:124] Setting up ip3
I0428 19:43:23.958551 25332 net.cpp:131] Top shape: 64 10 (640)
I0428 19:43:23.958555 25332 net.cpp:139] Memory required for data: 1114880
I0428 19:43:23.958569 25332 layer_factory.hpp:77] Creating layer relu3
I0428 19:43:23.958577 25332 net.cpp:86] Creating Layer relu3
I0428 19:43:23.958582 25332 net.cpp:408] relu3 <- ip3
I0428 19:43:23.958590 25332 net.cpp:369] relu3 -> ip3 (in-place)
I0428 19:43:23.958758 25332 net.cpp:124] Setting up relu3
I0428 19:43:23.958768 25332 net.cpp:131] Top shape: 64 10 (640)
I0428 19:43:23.958773 25332 net.cpp:139] Memory required for data: 1117440
I0428 19:43:23.958778 25332 layer_factory.hpp:77] Creating layer loss
I0428 19:43:23.958786 25332 net.cpp:86] Creating Layer loss
I0428 19:43:23.958791 25332 net.cpp:408] loss <- ip3
I0428 19:43:23.958798 25332 net.cpp:408] loss <- label
I0428 19:43:23.958807 25332 net.cpp:382] loss -> loss
I0428 19:43:23.958830 25332 layer_factory.hpp:77] Creating layer loss
…
I0428 19:43:23.959530 25332 solver.cpp:173] Creating test net (#0) specified by net file: ECE595/mnist/train_test/var_everything2/lenet_train_test420.prototxt
I0428 19:43:23.959565 25332 net.cpp:296] The NetState phase (1) differed from the phase (0) specified by a rule in layer mnist
I0428 19:43:23.959661 25332 net.cpp:53] Initializing net from parameters: 
name: "LeNet"
state {
  phase: TEST
}
layer {
  name: "mnist"
  type: "Data"
  top: "data"
  top: "label"
  include {
    phase: TEST
  }
  transform_param {
    scale: 0.00390625
  }
  data_param {
    source: "examples/mnist/mnist_test_lmdb"
    batch_size: 100
    backend: LMDB
  }
}
layer {
  name: "conv0"
  type: "Convolution"
  bottom: "data"
  top: "conv0"
  param {
    lr_mult: 1
  }
  param {
    lr_mult: 2
  }
  convolution_param {
    num_output: 2
    kernel_size: 5
    stride: 1
    weight_filler {
      type: "xavier"
    }
    bias_filler {
      type: "constant"
    }
  }
}
layer {
  name: "pool0"
  type: "Pooling"
  bottom: "conv0"
  top: "pool0"
  pooling_param {
    pool: MAX
    kernel_size: 2
    stride: 2
  }
}
layer {
  name: "conv1"
  type: "Convolution"
  bottom: "pool0"
  top: "conv1"
  param {
    lr_mult: 1
  }
  param {
    lr_mult: 2
  }
  convolution_param {
    num_output: 25
    kernel_size: 5
    stride: 1
    weight_filler {
      type: "xavier"
    }
    bias_filler {
      type: "constant"
    }
  }
}
layer {
  name: "pool1"
  type: "Pooling"
  bottom: "conv1"
  top: "pool1"
  pooling_param {
    pool: MAX
    kernel_size: 2
    stride: 2
  }
}
layer {
  name: "ip1"
  type: "InnerProduct"
  bottom: "pool1"
  top: "ip1"
  param {
    lr_mult: 1
  }
  param {
    lr_mult: 2
  }
  inner_product_param {
    num_output: 50
    weight_filler {
      type: "xavier"
    }
    bias_filler {
      type: "constant"
    }
  }
}
layer {
  name: "relu1"
  type: "ReLU"
  bottom: "ip1"
  top: "ip1"
}
layer {
  name: "ip2"
  type: "InnerProduct"
  bottom: "ip1"
  top: "ip2"
  param {
    lr_mult: 1
  }
  param {
    lr_mult: 2
  }
  inner_product_param {
    num_output: 10
    weight_filler {
      type: "xavier"
    }
    bias_filler {
      type: "constant"
    }
  }
}
layer {
  name: "relu2"
  type: "ReLU"
  bottom: "ip2"
  top: "ip2"
}
layer {
  name: "ip3"
  type: "InnerProduct"
  bottom: "ip2"
  top: "ip3"
  param {
    lr_mult: 1
  }
  param {
    lr_mult: 2
  }
  inner_product_param {
    num_output: 10
    weight_filler {
      type: "xavier"
    }
    bias_filler {
      type: "constant"
    }
  }
}
layer {
  name: "relu3"
  type: "ReLU"
  bottom: "ip3"
  top: "ip3"
}
layer {
  name: "accuracy"
  type: "Accuracy"
  bottom: "ip3"
  bottom: "label"
  top: "accuracy"
  include {
    phase: TEST
  }
}
layer {
  name: "loss"
  type: "SoftmaxWithLoss"
  bottom: "ip3"
  bottom: "label"
  top: "loss"
}
I0428 19:43:23.959803 25332 layer_factory.hpp:77] Creating layer mnist
I0428 19:43:23.959861 25332 db_lmdb.cpp:35] Opened lmdb examples/mnist/mnist_test_lmdb
I0428 19:43:23.959878 25332 net.cpp:86] Creating Layer mnist
I0428 19:43:23.959885 25332 net.cpp:382] mnist -> data
I0428 19:43:23.959897 25332 net.cpp:382] mnist -> label
I0428 19:43:23.960011 25332 data_layer.cpp:45] output data size: 100,1,28,28
I0428 19:43:23.962106 25332 net.cpp:124] Setting up mnist
I0428 19:43:23.962121 25332 net.cpp:131] Top shape: 100 1 28 28 (78400)
I0428 19:43:23.962129 25332 net.cpp:131] Top shape: 100 (100)
I0428 19:43:23.962134 25332 net.cpp:139] Memory required for data: 314000
I0428 19:43:23.962139 25332 layer_factory.hpp:77] Creating layer label_mnist_1_split
I0428 19:43:23.962153 25332 net.cpp:86] Creating Layer label_mnist_1_split
I0428 19:43:23.962158 25332 net.cpp:408] label_mnist_1_split <- label
I0428 19:43:23.962167 25332 net.cpp:382] label_mnist_1_split -> label_mnist_1_split_0
I0428 19:43:23.962177 25332 net.cpp:382] label_mnist_1_split -> label_mnist_1_split_1
I0428 19:43:23.962250 25332 net.cpp:124] Setting up label_mnist_1_split
I0428 19:43:23.962258 25332 net.cpp:131] Top shape: 100 (100)
I0428 19:43:23.962265 25332 net.cpp:131] Top shape: 100 (100)
I0428 19:43:23.962270 25332 net.cpp:139] Memory required for data: 314800
I0428 19:43:23.962275 25332 layer_factory.hpp:77] Creating layer conv0
I0428 19:43:23.962288 25332 net.cpp:86] Creating Layer conv0
I0428 19:43:23.962296 25332 net.cpp:408] conv0 <- data
I0428 19:43:23.962303 25332 net.cpp:382] conv0 -> conv0
I0428 19:43:23.963748 25332 net.cpp:124] Setting up conv0
I0428 19:43:23.963766 25332 net.cpp:131] Top shape: 100 2 24 24 (115200)
I0428 19:43:23.963773 25332 net.cpp:139] Memory required for data: 775600
I0428 19:43:23.963788 25332 layer_factory.hpp:77] Creating layer pool0
I0428 19:43:23.963798 25332 net.cpp:86] Creating Layer pool0
I0428 19:43:23.963807 25332 net.cpp:408] pool0 <- conv0
I0428 19:43:23.963815 25332 net.cpp:382] pool0 -> pool0
I0428 19:43:23.963857 25332 net.cpp:124] Setting up pool0
I0428 19:43:23.963865 25332 net.cpp:131] Top shape: 100 2 12 12 (28800)
I0428 19:43:23.963871 25332 net.cpp:139] Memory required for data: 890800
I0428 19:43:23.963876 25332 layer_factory.hpp:77] Creating layer conv1
I0428 19:43:23.963891 25332 net.cpp:86] Creating Layer conv1
I0428 19:43:23.963897 25332 net.cpp:408] conv1 <- pool0
I0428 19:43:23.963908 25332 net.cpp:382] conv1 -> conv1
I0428 19:43:23.965476 25332 net.cpp:124] Setting up conv1
I0428 19:43:23.965490 25332 net.cpp:131] Top shape: 100 25 8 8 (160000)
I0428 19:43:23.965499 25332 net.cpp:139] Memory required for data: 1530800
I0428 19:43:23.965512 25332 layer_factory.hpp:77] Creating layer pool1
I0428 19:43:23.965522 25332 net.cpp:86] Creating Layer pool1
I0428 19:43:23.965530 25332 net.cpp:408] pool1 <- conv1
I0428 19:43:23.965539 25332 net.cpp:382] pool1 -> pool1
I0428 19:43:23.965600 25332 net.cpp:124] Setting up pool1
I0428 19:43:23.965608 25332 net.cpp:131] Top shape: 100 25 4 4 (40000)
I0428 19:43:23.965613 25332 net.cpp:139] Memory required for data: 1690800
I0428 19:43:23.965621 25332 layer_factory.hpp:77] Creating layer ip1
I0428 19:43:23.965631 25332 net.cpp:86] Creating Layer ip1
I0428 19:43:23.965636 25332 net.cpp:408] ip1 <- pool1
I0428 19:43:23.965647 25332 net.cpp:382] ip1 -> ip1
I0428 19:43:23.965919 25332 net.cpp:124] Setting up ip1
I0428 19:43:23.965929 25332 net.cpp:131] Top shape: 100 50 (5000)
I0428 19:43:23.965945 25332 net.cpp:139] Memory required for data: 1710800
I0428 19:43:23.965957 25332 layer_factory.hpp:77] Creating layer relu1
I0428 19:43:23.965966 25332 net.cpp:86] Creating Layer relu1
I0428 19:43:23.965972 25332 net.cpp:408] relu1 <- ip1
I0428 19:43:23.965979 25332 net.cpp:369] relu1 -> ip1 (in-place)
I0428 19:43:23.966199 25332 net.cpp:124] Setting up relu1
I0428 19:43:23.966210 25332 net.cpp:131] Top shape: 100 50 (5000)
I0428 19:43:23.966215 25332 net.cpp:139] Memory required for data: 1730800
I0428 19:43:23.966235 25332 layer_factory.hpp:77] Creating layer ip2
I0428 19:43:23.966246 25332 net.cpp:86] Creating Layer ip2
I0428 19:43:23.966253 25332 net.cpp:408] ip2 <- ip1
I0428 19:43:23.966262 25332 net.cpp:382] ip2 -> ip2
I0428 19:43:23.966378 25332 net.cpp:124] Setting up ip2
I0428 19:43:23.966389 25332 net.cpp:131] Top shape: 100 10 (1000)
I0428 19:43:23.966394 25332 net.cpp:139] Memory required for data: 1734800
I0428 19:43:23.966403 25332 layer_factory.hpp:77] Creating layer relu2
I0428 19:43:23.966410 25332 net.cpp:86] Creating Layer relu2
I0428 19:43:23.966415 25332 net.cpp:408] relu2 <- ip2
I0428 19:43:23.966424 25332 net.cpp:369] relu2 -> ip2 (in-place)
I0428 19:43:23.966585 25332 net.cpp:124] Setting up relu2
I0428 19:43:23.966595 25332 net.cpp:131] Top shape: 100 10 (1000)
I0428 19:43:23.966600 25332 net.cpp:139] Memory required for data: 1738800
I0428 19:43:23.966605 25332 layer_factory.hpp:77] Creating layer ip3
I0428 19:43:23.966616 25332 net.cpp:86] Creating Layer ip3
I0428 19:43:23.966621 25332 net.cpp:408] ip3 <- ip2
I0428 19:43:23.966629 25332 net.cpp:382] ip3 -> ip3
I0428 19:43:23.966734 25332 net.cpp:124] Setting up ip3
I0428 19:43:23.966743 25332 net.cpp:131] Top shape: 100 10 (1000)
I0428 19:43:23.966747 25332 net.cpp:139] Memory required for data: 1742800
I0428 19:43:23.966759 25332 layer_factory.hpp:77] Creating layer relu3
I0428 19:43:23.966769 25332 net.cpp:86] Creating Layer relu3
I0428 19:43:23.966776 25332 net.cpp:408] relu3 <- ip3
I0428 19:43:23.966784 25332 net.cpp:369] relu3 -> ip3 (in-place)
I0428 19:43:23.967568 25332 net.cpp:124] Setting up relu3
I0428 19:43:23.967584 25332 net.cpp:131] Top shape: 100 10 (1000)
I0428 19:43:23.967589 25332 net.cpp:139] Memory required for data: 1746800
I0428 19:43:23.967594 25332 layer_factory.hpp:77] Creating layer ip3_relu3_0_split
I0428 19:43:23.967602 25332 net.cpp:86] Creating Layer ip3_relu3_0_split
I0428 19:43:23.967607 25332 net.cpp:408] ip3_relu3_0_split <- ip3
I0428 19:43:23.967614 25332 net.cpp:382] ip3_relu3_0_split -> ip3_relu3_0_split_0
I0428 19:43:23.967623 25332 net.cpp:382] ip3_relu3_0_split -> ip3_relu3_0_split_1
I0428 19:43:23.967667 25332 net.cpp:124] Setting up ip3_relu3_0_split
I0428 19:43:23.967676 25332 net.cpp:131] Top shape: 100 10 (1000)
I0428 19:43:23.967682 25332 net.cpp:131] Top shape: 100 10 (1000)
I0428 19:43:23.967686 25332 net.cpp:139] Memory required for data: 1754800
I0428 19:43:23.967691 25332 layer_factory.hpp:77] Creating layer accuracy
I0428 19:43:23.967700 25332 net.cpp:86] Creating Layer accuracy
I0428 19:43:23.967705 25332 net.cpp:408] accuracy <- ip3_relu3_0_split_0
I0428 19:43:23.967710 25332 net.cpp:408] accuracy <- label_mnist_1_split_0
I0428 19:43:23.967720 25332 net.cpp:382] accuracy -> accuracy
…
