…
I0428 20:38:56.958689  5211 net.cpp:296] The NetState phase (0) differed from the phase (1) specified by a rule in layer mnist
I0428 20:38:56.958703  5211 net.cpp:296] The NetState phase (0) differed from the phase (1) specified by a rule in layer accuracy
I0428 20:38:56.958778  5211 net.cpp:53] Initializing net from parameters: 
name: "LeNet"
state {
  phase: TRAIN
  level: 0
  stage: ""
}
layer {
  name: "mnist"
  type: "Data"
  top: "data"
  top: "label"
  include {
    phase: TRAIN
  }
  transform_param {
    scale: 0.00390625
  }
  data_param {
    source: "examples/mnist/mnist_train_lmdb"
    batch_size: 64
    backend: LMDB
  }
}
layer {
  name: "conv0"
  type: "Convolution"
  bottom: "data"
  top: "conv0"
  param {
    lr_mult: 1
  }
  param {
    lr_mult: 2
  }
  convolution_param {
    num_output: 100
    kernel_size: 5
    stride: 1
    weight_filler {
      type: "xavier"
    }
    bias_filler {
      type: "constant"
    }
  }
}
layer {
  name: "pool0"
  type: "Pooling"
  bottom: "conv0"
  top: "pool0"
  pooling_param {
    pool: MAX
    kernel_size: 2
    stride: 2
  }
}
layer {
  name: "conv1"
  type: "Convolution"
  bottom: "pool0"
  top: "conv1"
  param {
    lr_mult: 1
  }
  param {
    lr_mult: 2
  }
  convolution_param {
    num_output: 100
    kernel_size: 5
    stride: 1
    weight_filler {
      type: "xavier"
    }
    bias_filler {
      type: "constant"
    }
  }
}
layer {
  name: "pool1"
  type: "Pooling"
  bottom: "conv1"
  top: "pool1"
  pooling_param {
    pool: MAX
    kernel_size: 2
    stride: 2
  }
}
layer {
  name: "ip1"
  type: "InnerProduct"
  bottom: "pool1"
  top: "ip1"
  param {
    lr_mult: 1
  }
  param {
    lr_mult: 2
  }
  inner_product_param {
    num_output: 50
    weight_filler {
      type: "xavier"
    }
    bias_filler {
      type: "constant"
    }
  }
}
layer {
  name: "relu1"
  type: "ReLU"
  bottom: "ip1"
  top: "ip1"
}
layer {
  name: "ip2"
  type: "InnerProduct"
  bottom: "ip1"
  top: "ip2"
  param {
    lr_mult: 1
  }
  param {
    lr_mult: 2
  }
  inner_product_param {
    num_output: 25
    weight_filler {
      type: "xavier"
    }
    bias_filler {
      type: "constant"
    }
  }
}
layer {
  name: "relu2"
  type: "ReLU"
  bottom: "ip2"
  top: "ip2"
}
layer {
  name: "ip3"
  type: "InnerProduct"
  bottom: "ip2"
  top: "ip3"
  param {
    lr_mult: 1
  }
  param {
    lr_mult: 2
  }
  inner_product_param {
    num_output: 10
    weight_filler {
      type: "xavier"
    }
    bias_filler {
      type: "constant"
    }
  }
}
layer {
  name: "relu3"
  type: "ReLU"
  bottom: "ip3"
  top: "ip3"
}
layer {
  name: "loss"
  type: "SoftmaxWithLoss"
  bottom: "ip3"
  bottom: "label"
  top: "loss"
}
I0428 20:38:56.958837  5211 layer_factory.hpp:77] Creating layer mnist
I0428 20:38:56.958935  5211 db_lmdb.cpp:35] Opened lmdb examples/mnist/mnist_train_lmdb
I0428 20:38:56.958953  5211 net.cpp:86] Creating Layer mnist
I0428 20:38:56.958959  5211 net.cpp:382] mnist -> data
I0428 20:38:56.958992  5211 net.cpp:382] mnist -> label
I0428 20:38:56.960093  5211 data_layer.cpp:45] output data size: 64,1,28,28
I0428 20:38:56.962277  5211 net.cpp:124] Setting up mnist
I0428 20:38:56.962308  5211 net.cpp:131] Top shape: 64 1 28 28 (50176)
I0428 20:38:56.962313  5211 net.cpp:131] Top shape: 64 (64)
I0428 20:38:56.962317  5211 net.cpp:139] Memory required for data: 200960
I0428 20:38:56.962323  5211 layer_factory.hpp:77] Creating layer conv0
I0428 20:38:56.962337  5211 net.cpp:86] Creating Layer conv0
I0428 20:38:56.962357  5211 net.cpp:408] conv0 <- data
I0428 20:38:56.962383  5211 net.cpp:382] conv0 -> conv0
I0428 20:38:57.189105  5211 net.cpp:124] Setting up conv0
I0428 20:38:57.189144  5211 net.cpp:131] Top shape: 64 100 24 24 (3686400)
I0428 20:38:57.189148  5211 net.cpp:139] Memory required for data: 14946560
I0428 20:38:57.189177  5211 layer_factory.hpp:77] Creating layer pool0
I0428 20:38:57.189188  5211 net.cpp:86] Creating Layer pool0
I0428 20:38:57.189193  5211 net.cpp:408] pool0 <- conv0
I0428 20:38:57.189198  5211 net.cpp:382] pool0 -> pool0
I0428 20:38:57.189254  5211 net.cpp:124] Setting up pool0
I0428 20:38:57.189261  5211 net.cpp:131] Top shape: 64 100 12 12 (921600)
I0428 20:38:57.189265  5211 net.cpp:139] Memory required for data: 18632960
I0428 20:38:57.189267  5211 layer_factory.hpp:77] Creating layer conv1
I0428 20:38:57.189277  5211 net.cpp:86] Creating Layer conv1
I0428 20:38:57.189282  5211 net.cpp:408] conv1 <- pool0
I0428 20:38:57.189301  5211 net.cpp:382] conv1 -> conv1
I0428 20:38:57.193411  5211 net.cpp:124] Setting up conv1
I0428 20:38:57.193425  5211 net.cpp:131] Top shape: 64 100 8 8 (409600)
I0428 20:38:57.193429  5211 net.cpp:139] Memory required for data: 20271360
I0428 20:38:57.193436  5211 layer_factory.hpp:77] Creating layer pool1
I0428 20:38:57.193444  5211 net.cpp:86] Creating Layer pool1
I0428 20:38:57.193446  5211 net.cpp:408] pool1 <- conv1
I0428 20:38:57.193450  5211 net.cpp:382] pool1 -> pool1
I0428 20:38:57.193500  5211 net.cpp:124] Setting up pool1
I0428 20:38:57.193505  5211 net.cpp:131] Top shape: 64 100 4 4 (102400)
I0428 20:38:57.193507  5211 net.cpp:139] Memory required for data: 20680960
I0428 20:38:57.193509  5211 layer_factory.hpp:77] Creating layer ip1
I0428 20:38:57.193516  5211 net.cpp:86] Creating Layer ip1
I0428 20:38:57.193519  5211 net.cpp:408] ip1 <- pool1
I0428 20:38:57.193523  5211 net.cpp:382] ip1 -> ip1
I0428 20:38:57.194025  5211 net.cpp:124] Setting up ip1
I0428 20:38:57.194031  5211 net.cpp:131] Top shape: 64 50 (3200)
I0428 20:38:57.194049  5211 net.cpp:139] Memory required for data: 20693760
I0428 20:38:57.194056  5211 layer_factory.hpp:77] Creating layer relu1
I0428 20:38:57.194061  5211 net.cpp:86] Creating Layer relu1
I0428 20:38:57.194063  5211 net.cpp:408] relu1 <- ip1
I0428 20:38:57.194068  5211 net.cpp:369] relu1 -> ip1 (in-place)
I0428 20:38:57.194239  5211 net.cpp:124] Setting up relu1
I0428 20:38:57.194248  5211 net.cpp:131] Top shape: 64 50 (3200)
I0428 20:38:57.194252  5211 net.cpp:139] Memory required for data: 20706560
I0428 20:38:57.194254  5211 layer_factory.hpp:77] Creating layer ip2
I0428 20:38:57.194260  5211 net.cpp:86] Creating Layer ip2
I0428 20:38:57.194263  5211 net.cpp:408] ip2 <- ip1
I0428 20:38:57.194268  5211 net.cpp:382] ip2 -> ip2
I0428 20:38:57.194371  5211 net.cpp:124] Setting up ip2
I0428 20:38:57.194378  5211 net.cpp:131] Top shape: 64 25 (1600)
I0428 20:38:57.194381  5211 net.cpp:139] Memory required for data: 20712960
I0428 20:38:57.194386  5211 layer_factory.hpp:77] Creating layer relu2
I0428 20:38:57.194391  5211 net.cpp:86] Creating Layer relu2
I0428 20:38:57.194394  5211 net.cpp:408] relu2 <- ip2
I0428 20:38:57.194398  5211 net.cpp:369] relu2 -> ip2 (in-place)
I0428 20:38:57.195209  5211 net.cpp:124] Setting up relu2
I0428 20:38:57.195236  5211 net.cpp:131] Top shape: 64 25 (1600)
I0428 20:38:57.195240  5211 net.cpp:139] Memory required for data: 20719360
I0428 20:38:57.195243  5211 layer_factory.hpp:77] Creating layer ip3
I0428 20:38:57.195250  5211 net.cpp:86] Creating Layer ip3
I0428 20:38:57.195255  5211 net.cpp:408] ip3 <- ip2
I0428 20:38:57.195260  5211 net.cpp:382] ip3 -> ip3
I0428 20:38:57.195358  5211 net.cpp:124] Setting up ip3
I0428 20:38:57.195365  5211 net.cpp:131] Top shape: 64 10 (640)
I0428 20:38:57.195369  5211 net.cpp:139] Memory required for data: 20721920
I0428 20:38:57.195375  5211 layer_factory.hpp:77] Creating layer relu3
I0428 20:38:57.195380  5211 net.cpp:86] Creating Layer relu3
I0428 20:38:57.195384  5211 net.cpp:408] relu3 <- ip3
I0428 20:38:57.195401  5211 net.cpp:369] relu3 -> ip3 (in-place)
I0428 20:38:57.195580  5211 net.cpp:124] Setting up relu3
I0428 20:38:57.195587  5211 net.cpp:131] Top shape: 64 10 (640)
I0428 20:38:57.195590  5211 net.cpp:139] Memory required for data: 20724480
I0428 20:38:57.195593  5211 layer_factory.hpp:77] Creating layer loss
I0428 20:38:57.195598  5211 net.cpp:86] Creating Layer loss
I0428 20:38:57.195601  5211 net.cpp:408] loss <- ip3
I0428 20:38:57.195605  5211 net.cpp:408] loss <- label
I0428 20:38:57.195611  5211 net.cpp:382] loss -> loss
I0428 20:38:57.195623  5211 layer_factory.hpp:77] Creating layer loss
…
I0428 20:38:57.196275  5211 solver.cpp:173] Creating test net (#0) specified by net file: ECE595/mnist/train_test/var_everything2/lenet_train_test1672.prototxt
I0428 20:38:57.196346  5211 net.cpp:296] The NetState phase (1) differed from the phase (0) specified by a rule in layer mnist
I0428 20:38:57.196439  5211 net.cpp:53] Initializing net from parameters: 
name: "LeNet"
state {
  phase: TEST
}
layer {
  name: "mnist"
  type: "Data"
  top: "data"
  top: "label"
  include {
    phase: TEST
  }
  transform_param {
    scale: 0.00390625
  }
  data_param {
    source: "examples/mnist/mnist_test_lmdb"
    batch_size: 100
    backend: LMDB
  }
}
layer {
  name: "conv0"
  type: "Convolution"
  bottom: "data"
  top: "conv0"
  param {
    lr_mult: 1
  }
  param {
    lr_mult: 2
  }
  convolution_param {
    num_output: 100
    kernel_size: 5
    stride: 1
    weight_filler {
      type: "xavier"
    }
    bias_filler {
      type: "constant"
    }
  }
}
layer {
  name: "pool0"
  type: "Pooling"
  bottom: "conv0"
  top: "pool0"
  pooling_param {
    pool: MAX
    kernel_size: 2
    stride: 2
  }
}
layer {
  name: "conv1"
  type: "Convolution"
  bottom: "pool0"
  top: "conv1"
  param {
    lr_mult: 1
  }
  param {
    lr_mult: 2
  }
  convolution_param {
    num_output: 100
    kernel_size: 5
    stride: 1
    weight_filler {
      type: "xavier"
    }
    bias_filler {
      type: "constant"
    }
  }
}
layer {
  name: "pool1"
  type: "Pooling"
  bottom: "conv1"
  top: "pool1"
  pooling_param {
    pool: MAX
    kernel_size: 2
    stride: 2
  }
}
layer {
  name: "ip1"
  type: "InnerProduct"
  bottom: "pool1"
  top: "ip1"
  param {
    lr_mult: 1
  }
  param {
    lr_mult: 2
  }
  inner_product_param {
    num_output: 50
    weight_filler {
      type: "xavier"
    }
    bias_filler {
      type: "constant"
    }
  }
}
layer {
  name: "relu1"
  type: "ReLU"
  bottom: "ip1"
  top: "ip1"
}
layer {
  name: "ip2"
  type: "InnerProduct"
  bottom: "ip1"
  top: "ip2"
  param {
    lr_mult: 1
  }
  param {
    lr_mult: 2
  }
  inner_product_param {
    num_output: 25
    weight_filler {
      type: "xavier"
    }
    bias_filler {
      type: "constant"
    }
  }
}
layer {
  name: "relu2"
  type: "ReLU"
  bottom: "ip2"
  top: "ip2"
}
layer {
  name: "ip3"
  type: "InnerProduct"
  bottom: "ip2"
  top: "ip3"
  param {
    lr_mult: 1
  }
  param {
    lr_mult: 2
  }
  inner_product_param {
    num_output: 10
    weight_filler {
      type: "xavier"
    }
    bias_filler {
      type: "constant"
    }
  }
}
layer {
  name: "relu3"
  type: "ReLU"
  bottom: "ip3"
  top: "ip3"
}
layer {
  name: "accuracy"
  type: "Accuracy"
  bottom: "ip3"
  bottom: "label"
  top: "accuracy"
  include {
    phase: TEST
  }
}
layer {
  name: "loss"
  type: "SoftmaxWithLoss"
  bottom: "ip3"
  bottom: "label"
  top: "loss"
}
I0428 20:38:57.196518  5211 layer_factory.hpp:77] Creating layer mnist
I0428 20:38:57.196561  5211 db_lmdb.cpp:35] Opened lmdb examples/mnist/mnist_test_lmdb
I0428 20:38:57.196573  5211 net.cpp:86] Creating Layer mnist
I0428 20:38:57.196578  5211 net.cpp:382] mnist -> data
I0428 20:38:57.196585  5211 net.cpp:382] mnist -> label
I0428 20:38:57.196683  5211 data_layer.cpp:45] output data size: 100,1,28,28
I0428 20:38:57.198683  5211 net.cpp:124] Setting up mnist
I0428 20:38:57.198711  5211 net.cpp:131] Top shape: 100 1 28 28 (78400)
I0428 20:38:57.198715  5211 net.cpp:131] Top shape: 100 (100)
I0428 20:38:57.198719  5211 net.cpp:139] Memory required for data: 314000
I0428 20:38:57.198721  5211 layer_factory.hpp:77] Creating layer label_mnist_1_split
I0428 20:38:57.198729  5211 net.cpp:86] Creating Layer label_mnist_1_split
I0428 20:38:57.198730  5211 net.cpp:408] label_mnist_1_split <- label
I0428 20:38:57.198762  5211 net.cpp:382] label_mnist_1_split -> label_mnist_1_split_0
I0428 20:38:57.198770  5211 net.cpp:382] label_mnist_1_split -> label_mnist_1_split_1
I0428 20:38:57.198832  5211 net.cpp:124] Setting up label_mnist_1_split
I0428 20:38:57.198837  5211 net.cpp:131] Top shape: 100 (100)
I0428 20:38:57.198840  5211 net.cpp:131] Top shape: 100 (100)
I0428 20:38:57.198843  5211 net.cpp:139] Memory required for data: 314800
I0428 20:38:57.198845  5211 layer_factory.hpp:77] Creating layer conv0
I0428 20:38:57.198855  5211 net.cpp:86] Creating Layer conv0
I0428 20:38:57.198858  5211 net.cpp:408] conv0 <- data
I0428 20:38:57.198863  5211 net.cpp:382] conv0 -> conv0
I0428 20:38:57.200608  5211 net.cpp:124] Setting up conv0
I0428 20:38:57.200621  5211 net.cpp:131] Top shape: 100 100 24 24 (5760000)
I0428 20:38:57.200639  5211 net.cpp:139] Memory required for data: 23354800
I0428 20:38:57.200647  5211 layer_factory.hpp:77] Creating layer pool0
I0428 20:38:57.200670  5211 net.cpp:86] Creating Layer pool0
I0428 20:38:57.200672  5211 net.cpp:408] pool0 <- conv0
I0428 20:38:57.200700  5211 net.cpp:382] pool0 -> pool0
I0428 20:38:57.200737  5211 net.cpp:124] Setting up pool0
I0428 20:38:57.200744  5211 net.cpp:131] Top shape: 100 100 12 12 (1440000)
I0428 20:38:57.200749  5211 net.cpp:139] Memory required for data: 29114800
I0428 20:38:57.200752  5211 layer_factory.hpp:77] Creating layer conv1
I0428 20:38:57.200763  5211 net.cpp:86] Creating Layer conv1
I0428 20:38:57.200767  5211 net.cpp:408] conv1 <- pool0
I0428 20:38:57.200772  5211 net.cpp:382] conv1 -> conv1
I0428 20:38:57.203821  5211 net.cpp:124] Setting up conv1
I0428 20:38:57.203835  5211 net.cpp:131] Top shape: 100 100 8 8 (640000)
I0428 20:38:57.203838  5211 net.cpp:139] Memory required for data: 31674800
I0428 20:38:57.203845  5211 layer_factory.hpp:77] Creating layer pool1
I0428 20:38:57.203852  5211 net.cpp:86] Creating Layer pool1
I0428 20:38:57.203871  5211 net.cpp:408] pool1 <- conv1
I0428 20:38:57.203876  5211 net.cpp:382] pool1 -> pool1
I0428 20:38:57.203923  5211 net.cpp:124] Setting up pool1
I0428 20:38:57.203929  5211 net.cpp:131] Top shape: 100 100 4 4 (160000)
I0428 20:38:57.203946  5211 net.cpp:139] Memory required for data: 32314800
I0428 20:38:57.203949  5211 layer_factory.hpp:77] Creating layer ip1
I0428 20:38:57.203956  5211 net.cpp:86] Creating Layer ip1
I0428 20:38:57.203959  5211 net.cpp:408] ip1 <- pool1
I0428 20:38:57.203964  5211 net.cpp:382] ip1 -> ip1
I0428 20:38:57.204512  5211 net.cpp:124] Setting up ip1
I0428 20:38:57.204530  5211 net.cpp:131] Top shape: 100 50 (5000)
I0428 20:38:57.204533  5211 net.cpp:139] Memory required for data: 32334800
I0428 20:38:57.204540  5211 layer_factory.hpp:77] Creating layer relu1
I0428 20:38:57.204546  5211 net.cpp:86] Creating Layer relu1
I0428 20:38:57.204550  5211 net.cpp:408] relu1 <- ip1
I0428 20:38:57.204553  5211 net.cpp:369] relu1 -> ip1 (in-place)
I0428 20:38:57.204710  5211 net.cpp:124] Setting up relu1
I0428 20:38:57.204718  5211 net.cpp:131] Top shape: 100 50 (5000)
I0428 20:38:57.204721  5211 net.cpp:139] Memory required for data: 32354800
I0428 20:38:57.204725  5211 layer_factory.hpp:77] Creating layer ip2
I0428 20:38:57.204731  5211 net.cpp:86] Creating Layer ip2
I0428 20:38:57.204735  5211 net.cpp:408] ip2 <- ip1
I0428 20:38:57.204741  5211 net.cpp:382] ip2 -> ip2
I0428 20:38:57.204898  5211 net.cpp:124] Setting up ip2
I0428 20:38:57.204906  5211 net.cpp:131] Top shape: 100 25 (2500)
I0428 20:38:57.204910  5211 net.cpp:139] Memory required for data: 32364800
I0428 20:38:57.204916  5211 layer_factory.hpp:77] Creating layer relu2
I0428 20:38:57.204928  5211 net.cpp:86] Creating Layer relu2
I0428 20:38:57.204932  5211 net.cpp:408] relu2 <- ip2
I0428 20:38:57.204938  5211 net.cpp:369] relu2 -> ip2 (in-place)
I0428 20:38:57.205224  5211 net.cpp:124] Setting up relu2
I0428 20:38:57.205247  5211 net.cpp:131] Top shape: 100 25 (2500)
I0428 20:38:57.205250  5211 net.cpp:139] Memory required for data: 32374800
I0428 20:38:57.205253  5211 layer_factory.hpp:77] Creating layer ip3
I0428 20:38:57.205258  5211 net.cpp:86] Creating Layer ip3
I0428 20:38:57.205267  5211 net.cpp:408] ip3 <- ip2
I0428 20:38:57.205273  5211 net.cpp:382] ip3 -> ip3
I0428 20:38:57.205386  5211 net.cpp:124] Setting up ip3
I0428 20:38:57.205394  5211 net.cpp:131] Top shape: 100 10 (1000)
I0428 20:38:57.205397  5211 net.cpp:139] Memory required for data: 32378800
I0428 20:38:57.205404  5211 layer_factory.hpp:77] Creating layer relu3
I0428 20:38:57.205410  5211 net.cpp:86] Creating Layer relu3
I0428 20:38:57.205411  5211 net.cpp:408] relu3 <- ip3
I0428 20:38:57.205416  5211 net.cpp:369] relu3 -> ip3 (in-place)
I0428 20:38:57.206166  5211 net.cpp:124] Setting up relu3
I0428 20:38:57.206179  5211 net.cpp:131] Top shape: 100 10 (1000)
I0428 20:38:57.206182  5211 net.cpp:139] Memory required for data: 32382800
I0428 20:38:57.206187  5211 layer_factory.hpp:77] Creating layer ip3_relu3_0_split
I0428 20:38:57.206192  5211 net.cpp:86] Creating Layer ip3_relu3_0_split
I0428 20:38:57.206194  5211 net.cpp:408] ip3_relu3_0_split <- ip3
I0428 20:38:57.206202  5211 net.cpp:382] ip3_relu3_0_split -> ip3_relu3_0_split_0
I0428 20:38:57.206207  5211 net.cpp:382] ip3_relu3_0_split -> ip3_relu3_0_split_1
I0428 20:38:57.206248  5211 net.cpp:124] Setting up ip3_relu3_0_split
I0428 20:38:57.206254  5211 net.cpp:131] Top shape: 100 10 (1000)
I0428 20:38:57.206256  5211 net.cpp:131] Top shape: 100 10 (1000)
I0428 20:38:57.206259  5211 net.cpp:139] Memory required for data: 32390800
I0428 20:38:57.206262  5211 layer_factory.hpp:77] Creating layer accuracy
I0428 20:38:57.206269  5211 net.cpp:86] Creating Layer accuracy
I0428 20:38:57.206271  5211 net.cpp:408] accuracy <- ip3_relu3_0_split_0
I0428 20:38:57.206275  5211 net.cpp:408] accuracy <- label_mnist_1_split_0
I0428 20:38:57.206281  5211 net.cpp:382] accuracy -> accuracy
…
