…
I0428 19:29:10.812325 21945 net.cpp:296] The NetState phase (0) differed from the phase (1) specified by a rule in layer mnist
I0428 19:29:10.812340 21945 net.cpp:296] The NetState phase (0) differed from the phase (1) specified by a rule in layer accuracy
I0428 19:29:10.812422 21945 net.cpp:53] Initializing net from parameters: 
name: "LeNet"
state {
  phase: TRAIN
  level: 0
  stage: ""
}
layer {
  name: "mnist"
  type: "Data"
  top: "data"
  top: "label"
  include {
    phase: TRAIN
  }
  transform_param {
    scale: 0.00390625
  }
  data_param {
    source: "examples/mnist/mnist_train_lmdb"
    batch_size: 64
    backend: LMDB
  }
}
layer {
  name: "conv0"
  type: "Convolution"
  bottom: "data"
  top: "conv0"
  param {
    lr_mult: 1
  }
  param {
    lr_mult: 2
  }
  convolution_param {
    num_output: 2
    kernel_size: 5
    stride: 1
    weight_filler {
      type: "xavier"
    }
    bias_filler {
      type: "constant"
    }
  }
}
layer {
  name: "pool0"
  type: "Pooling"
  bottom: "conv0"
  top: "pool0"
  pooling_param {
    pool: MAX
    kernel_size: 2
    stride: 2
  }
}
layer {
  name: "ip1"
  type: "InnerProduct"
  bottom: "pool0"
  top: "ip1"
  param {
    lr_mult: 1
  }
  param {
    lr_mult: 2
  }
  inner_product_param {
    num_output: 50
    weight_filler {
      type: "xavier"
    }
    bias_filler {
      type: "constant"
    }
  }
}
layer {
  name: "relu1"
  type: "ReLU"
  bottom: "ip1"
  top: "ip1"
}
layer {
  name: "ip2"
  type: "InnerProduct"
  bottom: "ip1"
  top: "ip2"
  param {
    lr_mult: 1
  }
  param {
    lr_mult: 2
  }
  inner_product_param {
    num_output: 10
    weight_filler {
      type: "xavier"
    }
    bias_filler {
      type: "constant"
    }
  }
}
layer {
  name: "relu2"
  type: "ReLU"
  bottom: "ip2"
  top: "ip2"
}
layer {
  name: "loss"
  type: "SoftmaxWithLoss"
  bottom: "ip2"
  bottom: "label"
  top: "loss"
}
I0428 19:29:10.812492 21945 layer_factory.hpp:77] Creating layer mnist
I0428 19:29:10.812597 21945 db_lmdb.cpp:35] Opened lmdb examples/mnist/mnist_train_lmdb
I0428 19:29:10.812623 21945 net.cpp:86] Creating Layer mnist
I0428 19:29:10.812633 21945 net.cpp:382] mnist -> data
I0428 19:29:10.812659 21945 net.cpp:382] mnist -> label
I0428 19:29:10.813747 21945 data_layer.cpp:45] output data size: 64,1,28,28
I0428 19:29:10.816143 21945 net.cpp:124] Setting up mnist
I0428 19:29:10.816177 21945 net.cpp:131] Top shape: 64 1 28 28 (50176)
I0428 19:29:10.816186 21945 net.cpp:131] Top shape: 64 (64)
I0428 19:29:10.816191 21945 net.cpp:139] Memory required for data: 200960
I0428 19:29:10.816201 21945 layer_factory.hpp:77] Creating layer conv0
I0428 19:29:10.816220 21945 net.cpp:86] Creating Layer conv0
I0428 19:29:10.816242 21945 net.cpp:408] conv0 <- data
I0428 19:29:10.816257 21945 net.cpp:382] conv0 -> conv0
I0428 19:29:11.045936 21945 net.cpp:124] Setting up conv0
I0428 19:29:11.045965 21945 net.cpp:131] Top shape: 64 2 24 24 (73728)
I0428 19:29:11.045971 21945 net.cpp:139] Memory required for data: 495872
I0428 19:29:11.045990 21945 layer_factory.hpp:77] Creating layer pool0
I0428 19:29:11.046006 21945 net.cpp:86] Creating Layer pool0
I0428 19:29:11.046016 21945 net.cpp:408] pool0 <- conv0
I0428 19:29:11.046025 21945 net.cpp:382] pool0 -> pool0
I0428 19:29:11.046072 21945 net.cpp:124] Setting up pool0
I0428 19:29:11.046082 21945 net.cpp:131] Top shape: 64 2 12 12 (18432)
I0428 19:29:11.046085 21945 net.cpp:139] Memory required for data: 569600
I0428 19:29:11.046105 21945 layer_factory.hpp:77] Creating layer ip1
I0428 19:29:11.046116 21945 net.cpp:86] Creating Layer ip1
I0428 19:29:11.046123 21945 net.cpp:408] ip1 <- pool0
I0428 19:29:11.046129 21945 net.cpp:382] ip1 -> ip1
I0428 19:29:11.047099 21945 net.cpp:124] Setting up ip1
I0428 19:29:11.047113 21945 net.cpp:131] Top shape: 64 50 (3200)
I0428 19:29:11.047118 21945 net.cpp:139] Memory required for data: 582400
I0428 19:29:11.047129 21945 layer_factory.hpp:77] Creating layer relu1
I0428 19:29:11.047139 21945 net.cpp:86] Creating Layer relu1
I0428 19:29:11.047150 21945 net.cpp:408] relu1 <- ip1
I0428 19:29:11.047158 21945 net.cpp:369] relu1 -> ip1 (in-place)
I0428 19:29:11.047307 21945 net.cpp:124] Setting up relu1
I0428 19:29:11.047317 21945 net.cpp:131] Top shape: 64 50 (3200)
I0428 19:29:11.047322 21945 net.cpp:139] Memory required for data: 595200
I0428 19:29:11.047327 21945 layer_factory.hpp:77] Creating layer ip2
I0428 19:29:11.047335 21945 net.cpp:86] Creating Layer ip2
I0428 19:29:11.047339 21945 net.cpp:408] ip2 <- ip1
I0428 19:29:11.047348 21945 net.cpp:382] ip2 -> ip2
I0428 19:29:11.047437 21945 net.cpp:124] Setting up ip2
I0428 19:29:11.047446 21945 net.cpp:131] Top shape: 64 10 (640)
I0428 19:29:11.047449 21945 net.cpp:139] Memory required for data: 597760
I0428 19:29:11.047461 21945 layer_factory.hpp:77] Creating layer relu2
I0428 19:29:11.047472 21945 net.cpp:86] Creating Layer relu2
I0428 19:29:11.047478 21945 net.cpp:408] relu2 <- ip2
I0428 19:29:11.047484 21945 net.cpp:369] relu2 -> ip2 (in-place)
I0428 19:29:11.048194 21945 net.cpp:124] Setting up relu2
I0428 19:29:11.048207 21945 net.cpp:131] Top shape: 64 10 (640)
I0428 19:29:11.048213 21945 net.cpp:139] Memory required for data: 600320
I0428 19:29:11.048218 21945 layer_factory.hpp:77] Creating layer loss
I0428 19:29:11.048228 21945 net.cpp:86] Creating Layer loss
I0428 19:29:11.048233 21945 net.cpp:408] loss <- ip2
I0428 19:29:11.048239 21945 net.cpp:408] loss <- label
I0428 19:29:11.048247 21945 net.cpp:382] loss -> loss
I0428 19:29:11.048269 21945 layer_factory.hpp:77] Creating layer loss
…
I0428 19:29:11.048863 21945 solver.cpp:173] Creating test net (#0) specified by net file: ECE595/mnist/train_test/var_everything2/lenet_train_test50.prototxt
I0428 19:29:11.048894 21945 net.cpp:296] The NetState phase (1) differed from the phase (0) specified by a rule in layer mnist
I0428 19:29:11.048970 21945 net.cpp:53] Initializing net from parameters: 
name: "LeNet"
state {
  phase: TEST
}
layer {
  name: "mnist"
  type: "Data"
  top: "data"
  top: "label"
  include {
    phase: TEST
  }
  transform_param {
    scale: 0.00390625
  }
  data_param {
    source: "examples/mnist/mnist_test_lmdb"
    batch_size: 100
    backend: LMDB
  }
}
layer {
  name: "conv0"
  type: "Convolution"
  bottom: "data"
  top: "conv0"
  param {
    lr_mult: 1
  }
  param {
    lr_mult: 2
  }
  convolution_param {
    num_output: 2
    kernel_size: 5
    stride: 1
    weight_filler {
      type: "xavier"
    }
    bias_filler {
      type: "constant"
    }
  }
}
layer {
  name: "pool0"
  type: "Pooling"
  bottom: "conv0"
  top: "pool0"
  pooling_param {
    pool: MAX
    kernel_size: 2
    stride: 2
  }
}
layer {
  name: "ip1"
  type: "InnerProduct"
  bottom: "pool0"
  top: "ip1"
  param {
    lr_mult: 1
  }
  param {
    lr_mult: 2
  }
  inner_product_param {
    num_output: 50
    weight_filler {
      type: "xavier"
    }
    bias_filler {
      type: "constant"
    }
  }
}
layer {
  name: "relu1"
  type: "ReLU"
  bottom: "ip1"
  top: "ip1"
}
layer {
  name: "ip2"
  type: "InnerProduct"
  bottom: "ip1"
  top: "ip2"
  param {
    lr_mult: 1
  }
  param {
    lr_mult: 2
  }
  inner_product_param {
    num_output: 10
    weight_filler {
      type: "xavier"
    }
    bias_filler {
      type: "constant"
    }
  }
}
layer {
  name: "relu2"
  type: "ReLU"
  bottom: "ip2"
  top: "ip2"
}
layer {
  name: "accuracy"
  type: "Accuracy"
  bottom: "ip2"
  bottom: "label"
  top: "accuracy"
  include {
    phase: TEST
  }
}
layer {
  name: "loss"
  type: "SoftmaxWithLoss"
  bottom: "ip2"
  bottom: "label"
  top: "loss"
}
I0428 19:29:11.049063 21945 layer_factory.hpp:77] Creating layer mnist
I0428 19:29:11.049124 21945 db_lmdb.cpp:35] Opened lmdb examples/mnist/mnist_test_lmdb
I0428 19:29:11.049154 21945 net.cpp:86] Creating Layer mnist
I0428 19:29:11.049161 21945 net.cpp:382] mnist -> data
I0428 19:29:11.049187 21945 net.cpp:382] mnist -> label
I0428 19:29:11.049291 21945 data_layer.cpp:45] output data size: 100,1,28,28
I0428 19:29:11.051100 21945 net.cpp:124] Setting up mnist
I0428 19:29:11.051131 21945 net.cpp:131] Top shape: 100 1 28 28 (78400)
I0428 19:29:11.051139 21945 net.cpp:131] Top shape: 100 (100)
I0428 19:29:11.051144 21945 net.cpp:139] Memory required for data: 314000
I0428 19:29:11.051151 21945 layer_factory.hpp:77] Creating layer label_mnist_1_split
I0428 19:29:11.051190 21945 net.cpp:86] Creating Layer label_mnist_1_split
I0428 19:29:11.051196 21945 net.cpp:408] label_mnist_1_split <- label
I0428 19:29:11.051204 21945 net.cpp:382] label_mnist_1_split -> label_mnist_1_split_0
I0428 19:29:11.051214 21945 net.cpp:382] label_mnist_1_split -> label_mnist_1_split_1
I0428 19:29:11.051302 21945 net.cpp:124] Setting up label_mnist_1_split
I0428 19:29:11.051311 21945 net.cpp:131] Top shape: 100 (100)
I0428 19:29:11.051316 21945 net.cpp:131] Top shape: 100 (100)
I0428 19:29:11.051321 21945 net.cpp:139] Memory required for data: 314800
I0428 19:29:11.051326 21945 layer_factory.hpp:77] Creating layer conv0
I0428 19:29:11.051339 21945 net.cpp:86] Creating Layer conv0
I0428 19:29:11.051345 21945 net.cpp:408] conv0 <- data
I0428 19:29:11.051353 21945 net.cpp:382] conv0 -> conv0
I0428 19:29:11.053012 21945 net.cpp:124] Setting up conv0
I0428 19:29:11.053030 21945 net.cpp:131] Top shape: 100 2 24 24 (115200)
I0428 19:29:11.053035 21945 net.cpp:139] Memory required for data: 775600
I0428 19:29:11.053066 21945 layer_factory.hpp:77] Creating layer pool0
I0428 19:29:11.053077 21945 net.cpp:86] Creating Layer pool0
I0428 19:29:11.053084 21945 net.cpp:408] pool0 <- conv0
I0428 19:29:11.053093 21945 net.cpp:382] pool0 -> pool0
I0428 19:29:11.053141 21945 net.cpp:124] Setting up pool0
I0428 19:29:11.053151 21945 net.cpp:131] Top shape: 100 2 12 12 (28800)
I0428 19:29:11.053158 21945 net.cpp:139] Memory required for data: 890800
I0428 19:29:11.053163 21945 layer_factory.hpp:77] Creating layer ip1
I0428 19:29:11.053189 21945 net.cpp:86] Creating Layer ip1
I0428 19:29:11.053208 21945 net.cpp:408] ip1 <- pool0
I0428 19:29:11.053217 21945 net.cpp:382] ip1 -> ip1
I0428 19:29:11.053433 21945 net.cpp:124] Setting up ip1
I0428 19:29:11.053442 21945 net.cpp:131] Top shape: 100 50 (5000)
I0428 19:29:11.053447 21945 net.cpp:139] Memory required for data: 910800
I0428 19:29:11.053459 21945 layer_factory.hpp:77] Creating layer relu1
I0428 19:29:11.053468 21945 net.cpp:86] Creating Layer relu1
I0428 19:29:11.053474 21945 net.cpp:408] relu1 <- ip1
I0428 19:29:11.053481 21945 net.cpp:369] relu1 -> ip1 (in-place)
I0428 19:29:11.053648 21945 net.cpp:124] Setting up relu1
I0428 19:29:11.053658 21945 net.cpp:131] Top shape: 100 50 (5000)
I0428 19:29:11.053663 21945 net.cpp:139] Memory required for data: 930800
I0428 19:29:11.053680 21945 layer_factory.hpp:77] Creating layer ip2
I0428 19:29:11.053690 21945 net.cpp:86] Creating Layer ip2
I0428 19:29:11.053714 21945 net.cpp:408] ip2 <- ip1
I0428 19:29:11.053738 21945 net.cpp:382] ip2 -> ip2
I0428 19:29:11.053899 21945 net.cpp:124] Setting up ip2
I0428 19:29:11.053908 21945 net.cpp:131] Top shape: 100 10 (1000)
I0428 19:29:11.053913 21945 net.cpp:139] Memory required for data: 934800
I0428 19:29:11.053926 21945 layer_factory.hpp:77] Creating layer relu2
I0428 19:29:11.053935 21945 net.cpp:86] Creating Layer relu2
I0428 19:29:11.053939 21945 net.cpp:408] relu2 <- ip2
I0428 19:29:11.053947 21945 net.cpp:369] relu2 -> ip2 (in-place)
I0428 19:29:11.054178 21945 net.cpp:124] Setting up relu2
I0428 19:29:11.054188 21945 net.cpp:131] Top shape: 100 10 (1000)
I0428 19:29:11.054194 21945 net.cpp:139] Memory required for data: 938800
I0428 19:29:11.054199 21945 layer_factory.hpp:77] Creating layer ip2_relu2_0_split
I0428 19:29:11.054210 21945 net.cpp:86] Creating Layer ip2_relu2_0_split
I0428 19:29:11.054216 21945 net.cpp:408] ip2_relu2_0_split <- ip2
I0428 19:29:11.054224 21945 net.cpp:382] ip2_relu2_0_split -> ip2_relu2_0_split_0
I0428 19:29:11.054235 21945 net.cpp:382] ip2_relu2_0_split -> ip2_relu2_0_split_1
I0428 19:29:11.054278 21945 net.cpp:124] Setting up ip2_relu2_0_split
I0428 19:29:11.054287 21945 net.cpp:131] Top shape: 100 10 (1000)
I0428 19:29:11.054296 21945 net.cpp:131] Top shape: 100 10 (1000)
I0428 19:29:11.054301 21945 net.cpp:139] Memory required for data: 946800
I0428 19:29:11.054306 21945 layer_factory.hpp:77] Creating layer accuracy
I0428 19:29:11.054314 21945 net.cpp:86] Creating Layer accuracy
I0428 19:29:11.054321 21945 net.cpp:408] accuracy <- ip2_relu2_0_split_0
I0428 19:29:11.054335 21945 net.cpp:408] accuracy <- label_mnist_1_split_0
I0428 19:29:11.054345 21945 net.cpp:382] accuracy -> accuracy
…
