…
I0428 20:03:17.939903 30154 net.cpp:296] The NetState phase (0) differed from the phase (1) specified by a rule in layer mnist
I0428 20:03:17.939924 30154 net.cpp:296] The NetState phase (0) differed from the phase (1) specified by a rule in layer accuracy
I0428 20:03:17.940026 30154 net.cpp:53] Initializing net from parameters: 
name: "LeNet"
state {
  phase: TRAIN
  level: 0
  stage: ""
}
layer {
  name: "mnist"
  type: "Data"
  top: "data"
  top: "label"
  include {
    phase: TRAIN
  }
  transform_param {
    scale: 0.00390625
  }
  data_param {
    source: "examples/mnist/mnist_train_lmdb"
    batch_size: 64
    backend: LMDB
  }
}
layer {
  name: "conv0"
  type: "Convolution"
  bottom: "data"
  top: "conv0"
  param {
    lr_mult: 1
  }
  param {
    lr_mult: 2
  }
  convolution_param {
    num_output: 10
    kernel_size: 5
    stride: 1
    weight_filler {
      type: "xavier"
    }
    bias_filler {
      type: "constant"
    }
  }
}
layer {
  name: "pool0"
  type: "Pooling"
  bottom: "conv0"
  top: "pool0"
  pooling_param {
    pool: MAX
    kernel_size: 2
    stride: 2
  }
}
layer {
  name: "conv1"
  type: "Convolution"
  bottom: "pool0"
  top: "conv1"
  param {
    lr_mult: 1
  }
  param {
    lr_mult: 2
  }
  convolution_param {
    num_output: 100
    kernel_size: 5
    stride: 1
    weight_filler {
      type: "xavier"
    }
    bias_filler {
      type: "constant"
    }
  }
}
layer {
  name: "pool1"
  type: "Pooling"
  bottom: "conv1"
  top: "pool1"
  pooling_param {
    pool: MAX
    kernel_size: 2
    stride: 2
  }
}
layer {
  name: "ip1"
  type: "InnerProduct"
  bottom: "pool1"
  top: "ip1"
  param {
    lr_mult: 1
  }
  param {
    lr_mult: 2
  }
  inner_product_param {
    num_output: 10
    weight_filler {
      type: "xavier"
    }
    bias_filler {
      type: "constant"
    }
  }
}
layer {
  name: "relu1"
  type: "ReLU"
  bottom: "ip1"
  top: "ip1"
}
layer {
  name: "ip2"
  type: "InnerProduct"
  bottom: "ip1"
  top: "ip2"
  param {
    lr_mult: 1
  }
  param {
    lr_mult: 2
  }
  inner_product_param {
    num_output: 10
    weight_filler {
      type: "xavier"
    }
    bias_filler {
      type: "constant"
    }
  }
}
layer {
  name: "relu2"
  type: "ReLU"
  bottom: "ip2"
  top: "ip2"
}
layer {
  name: "ip3"
  type: "InnerProduct"
  bottom: "ip2"
  top: "ip3"
  param {
    lr_mult: 1
  }
  param {
    lr_mult: 2
  }
  inner_product_param {
    num_output: 10
    weight_filler {
      type: "xavier"
    }
    bias_filler {
      type: "constant"
    }
  }
}
layer {
  name: "relu3"
  type: "ReLU"
  bottom: "ip3"
  top: "ip3"
}
layer {
  name: "loss"
  type: "SoftmaxWithLoss"
  bottom: "ip3"
  bottom: "label"
  top: "loss"
}
I0428 20:03:17.940104 30154 layer_factory.hpp:77] Creating layer mnist
I0428 20:03:17.940199 30154 db_lmdb.cpp:35] Opened lmdb examples/mnist/mnist_train_lmdb
I0428 20:03:17.940222 30154 net.cpp:86] Creating Layer mnist
I0428 20:03:17.940232 30154 net.cpp:382] mnist -> data
I0428 20:03:17.940253 30154 net.cpp:382] mnist -> label
I0428 20:03:17.941370 30154 data_layer.cpp:45] output data size: 64,1,28,28
I0428 20:03:17.943830 30154 net.cpp:124] Setting up mnist
I0428 20:03:17.943847 30154 net.cpp:131] Top shape: 64 1 28 28 (50176)
I0428 20:03:17.943855 30154 net.cpp:131] Top shape: 64 (64)
I0428 20:03:17.943857 30154 net.cpp:139] Memory required for data: 200960
I0428 20:03:17.943866 30154 layer_factory.hpp:77] Creating layer conv0
I0428 20:03:17.943904 30154 net.cpp:86] Creating Layer conv0
I0428 20:03:17.943925 30154 net.cpp:408] conv0 <- data
I0428 20:03:17.943939 30154 net.cpp:382] conv0 -> conv0
I0428 20:03:18.198338 30154 net.cpp:124] Setting up conv0
I0428 20:03:18.198365 30154 net.cpp:131] Top shape: 64 10 24 24 (368640)
I0428 20:03:18.198369 30154 net.cpp:139] Memory required for data: 1675520
I0428 20:03:18.198385 30154 layer_factory.hpp:77] Creating layer pool0
I0428 20:03:18.198397 30154 net.cpp:86] Creating Layer pool0
I0428 20:03:18.198402 30154 net.cpp:408] pool0 <- conv0
I0428 20:03:18.198407 30154 net.cpp:382] pool0 -> pool0
I0428 20:03:18.198452 30154 net.cpp:124] Setting up pool0
I0428 20:03:18.198459 30154 net.cpp:131] Top shape: 64 10 12 12 (92160)
I0428 20:03:18.198462 30154 net.cpp:139] Memory required for data: 2044160
I0428 20:03:18.198465 30154 layer_factory.hpp:77] Creating layer conv1
I0428 20:03:18.198475 30154 net.cpp:86] Creating Layer conv1
I0428 20:03:18.198478 30154 net.cpp:408] conv1 <- pool0
I0428 20:03:18.198483 30154 net.cpp:382] conv1 -> conv1
I0428 20:03:18.200539 30154 net.cpp:124] Setting up conv1
I0428 20:03:18.200554 30154 net.cpp:131] Top shape: 64 100 8 8 (409600)
I0428 20:03:18.200558 30154 net.cpp:139] Memory required for data: 3682560
I0428 20:03:18.200582 30154 layer_factory.hpp:77] Creating layer pool1
I0428 20:03:18.200589 30154 net.cpp:86] Creating Layer pool1
I0428 20:03:18.200594 30154 net.cpp:408] pool1 <- conv1
I0428 20:03:18.200599 30154 net.cpp:382] pool1 -> pool1
I0428 20:03:18.200636 30154 net.cpp:124] Setting up pool1
I0428 20:03:18.200644 30154 net.cpp:131] Top shape: 64 100 4 4 (102400)
I0428 20:03:18.200646 30154 net.cpp:139] Memory required for data: 4092160
I0428 20:03:18.200649 30154 layer_factory.hpp:77] Creating layer ip1
I0428 20:03:18.200656 30154 net.cpp:86] Creating Layer ip1
I0428 20:03:18.200660 30154 net.cpp:408] ip1 <- pool1
I0428 20:03:18.200664 30154 net.cpp:382] ip1 -> ip1
I0428 20:03:18.201817 30154 net.cpp:124] Setting up ip1
I0428 20:03:18.201831 30154 net.cpp:131] Top shape: 64 10 (640)
I0428 20:03:18.201835 30154 net.cpp:139] Memory required for data: 4094720
I0428 20:03:18.201844 30154 layer_factory.hpp:77] Creating layer relu1
I0428 20:03:18.201850 30154 net.cpp:86] Creating Layer relu1
I0428 20:03:18.201854 30154 net.cpp:408] relu1 <- ip1
I0428 20:03:18.201859 30154 net.cpp:369] relu1 -> ip1 (in-place)
I0428 20:03:18.202059 30154 net.cpp:124] Setting up relu1
I0428 20:03:18.202067 30154 net.cpp:131] Top shape: 64 10 (640)
I0428 20:03:18.202070 30154 net.cpp:139] Memory required for data: 4097280
I0428 20:03:18.202074 30154 layer_factory.hpp:77] Creating layer ip2
I0428 20:03:18.202080 30154 net.cpp:86] Creating Layer ip2
I0428 20:03:18.202083 30154 net.cpp:408] ip2 <- ip1
I0428 20:03:18.202088 30154 net.cpp:382] ip2 -> ip2
I0428 20:03:18.202206 30154 net.cpp:124] Setting up ip2
I0428 20:03:18.202213 30154 net.cpp:131] Top shape: 64 10 (640)
I0428 20:03:18.202215 30154 net.cpp:139] Memory required for data: 4099840
I0428 20:03:18.202220 30154 layer_factory.hpp:77] Creating layer relu2
I0428 20:03:18.202226 30154 net.cpp:86] Creating Layer relu2
I0428 20:03:18.202229 30154 net.cpp:408] relu2 <- ip2
I0428 20:03:18.202234 30154 net.cpp:369] relu2 -> ip2 (in-place)
I0428 20:03:18.203009 30154 net.cpp:124] Setting up relu2
I0428 20:03:18.203022 30154 net.cpp:131] Top shape: 64 10 (640)
I0428 20:03:18.203027 30154 net.cpp:139] Memory required for data: 4102400
I0428 20:03:18.203029 30154 layer_factory.hpp:77] Creating layer ip3
I0428 20:03:18.203037 30154 net.cpp:86] Creating Layer ip3
I0428 20:03:18.203040 30154 net.cpp:408] ip3 <- ip2
I0428 20:03:18.203045 30154 net.cpp:382] ip3 -> ip3
I0428 20:03:18.203140 30154 net.cpp:124] Setting up ip3
I0428 20:03:18.203148 30154 net.cpp:131] Top shape: 64 10 (640)
I0428 20:03:18.203151 30154 net.cpp:139] Memory required for data: 4104960
I0428 20:03:18.203160 30154 layer_factory.hpp:77] Creating layer relu3
I0428 20:03:18.203164 30154 net.cpp:86] Creating Layer relu3
I0428 20:03:18.203167 30154 net.cpp:408] relu3 <- ip3
I0428 20:03:18.203186 30154 net.cpp:369] relu3 -> ip3 (in-place)
I0428 20:03:18.203361 30154 net.cpp:124] Setting up relu3
I0428 20:03:18.203369 30154 net.cpp:131] Top shape: 64 10 (640)
I0428 20:03:18.203372 30154 net.cpp:139] Memory required for data: 4107520
I0428 20:03:18.203375 30154 layer_factory.hpp:77] Creating layer loss
I0428 20:03:18.203382 30154 net.cpp:86] Creating Layer loss
I0428 20:03:18.203384 30154 net.cpp:408] loss <- ip3
I0428 20:03:18.203388 30154 net.cpp:408] loss <- label
I0428 20:03:18.203393 30154 net.cpp:382] loss -> loss
I0428 20:03:18.203410 30154 layer_factory.hpp:77] Creating layer loss
…
I0428 20:03:18.204113 30154 solver.cpp:173] Creating test net (#0) specified by net file: ECE595/mnist/train_test/var_everything2/lenet_train_test948.prototxt
I0428 20:03:18.204140 30154 net.cpp:296] The NetState phase (1) differed from the phase (0) specified by a rule in layer mnist
I0428 20:03:18.204234 30154 net.cpp:53] Initializing net from parameters: 
name: "LeNet"
state {
  phase: TEST
}
layer {
  name: "mnist"
  type: "Data"
  top: "data"
  top: "label"
  include {
    phase: TEST
  }
  transform_param {
    scale: 0.00390625
  }
  data_param {
    source: "examples/mnist/mnist_test_lmdb"
    batch_size: 100
    backend: LMDB
  }
}
layer {
  name: "conv0"
  type: "Convolution"
  bottom: "data"
  top: "conv0"
  param {
    lr_mult: 1
  }
  param {
    lr_mult: 2
  }
  convolution_param {
    num_output: 10
    kernel_size: 5
    stride: 1
    weight_filler {
      type: "xavier"
    }
    bias_filler {
      type: "constant"
    }
  }
}
layer {
  name: "pool0"
  type: "Pooling"
  bottom: "conv0"
  top: "pool0"
  pooling_param {
    pool: MAX
    kernel_size: 2
    stride: 2
  }
}
layer {
  name: "conv1"
  type: "Convolution"
  bottom: "pool0"
  top: "conv1"
  param {
    lr_mult: 1
  }
  param {
    lr_mult: 2
  }
  convolution_param {
    num_output: 100
    kernel_size: 5
    stride: 1
    weight_filler {
      type: "xavier"
    }
    bias_filler {
      type: "constant"
    }
  }
}
layer {
  name: "pool1"
  type: "Pooling"
  bottom: "conv1"
  top: "pool1"
  pooling_param {
    pool: MAX
    kernel_size: 2
    stride: 2
  }
}
layer {
  name: "ip1"
  type: "InnerProduct"
  bottom: "pool1"
  top: "ip1"
  param {
    lr_mult: 1
  }
  param {
    lr_mult: 2
  }
  inner_product_param {
    num_output: 10
    weight_filler {
      type: "xavier"
    }
    bias_filler {
      type: "constant"
    }
  }
}
layer {
  name: "relu1"
  type: "ReLU"
  bottom: "ip1"
  top: "ip1"
}
layer {
  name: "ip2"
  type: "InnerProduct"
  bottom: "ip1"
  top: "ip2"
  param {
    lr_mult: 1
  }
  param {
    lr_mult: 2
  }
  inner_product_param {
    num_output: 10
    weight_filler {
      type: "xavier"
    }
    bias_filler {
      type: "constant"
    }
  }
}
layer {
  name: "relu2"
  type: "ReLU"
  bottom: "ip2"
  top: "ip2"
}
layer {
  name: "ip3"
  type: "InnerProduct"
  bottom: "ip2"
  top: "ip3"
  param {
    lr_mult: 1
  }
  param {
    lr_mult: 2
  }
  inner_product_param {
    num_output: 10
    weight_filler {
      type: "xavier"
    }
    bias_filler {
      type: "constant"
    }
  }
}
layer {
  name: "relu3"
  type: "ReLU"
  bottom: "ip3"
  top: "ip3"
}
layer {
  name: "accuracy"
  type: "Accuracy"
  bottom: "ip3"
  bottom: "label"
  top: "accuracy"
  include {
    phase: TEST
  }
}
layer {
  name: "loss"
  type: "SoftmaxWithLoss"
  bottom: "ip3"
  bottom: "label"
  top: "loss"
}
I0428 20:03:18.204329 30154 layer_factory.hpp:77] Creating layer mnist
I0428 20:03:18.204375 30154 db_lmdb.cpp:35] Opened lmdb examples/mnist/mnist_test_lmdb
I0428 20:03:18.204386 30154 net.cpp:86] Creating Layer mnist
I0428 20:03:18.204392 30154 net.cpp:382] mnist -> data
I0428 20:03:18.204399 30154 net.cpp:382] mnist -> label
I0428 20:03:18.204481 30154 data_layer.cpp:45] output data size: 100,1,28,28
I0428 20:03:18.206651 30154 net.cpp:124] Setting up mnist
I0428 20:03:18.206707 30154 net.cpp:131] Top shape: 100 1 28 28 (78400)
I0428 20:03:18.206713 30154 net.cpp:131] Top shape: 100 (100)
I0428 20:03:18.206717 30154 net.cpp:139] Memory required for data: 314000
I0428 20:03:18.206719 30154 layer_factory.hpp:77] Creating layer label_mnist_1_split
I0428 20:03:18.206729 30154 net.cpp:86] Creating Layer label_mnist_1_split
I0428 20:03:18.206732 30154 net.cpp:408] label_mnist_1_split <- label
I0428 20:03:18.206738 30154 net.cpp:382] label_mnist_1_split -> label_mnist_1_split_0
I0428 20:03:18.206745 30154 net.cpp:382] label_mnist_1_split -> label_mnist_1_split_1
I0428 20:03:18.206827 30154 net.cpp:124] Setting up label_mnist_1_split
I0428 20:03:18.206851 30154 net.cpp:131] Top shape: 100 (100)
I0428 20:03:18.206854 30154 net.cpp:131] Top shape: 100 (100)
I0428 20:03:18.206857 30154 net.cpp:139] Memory required for data: 314800
I0428 20:03:18.206861 30154 layer_factory.hpp:77] Creating layer conv0
I0428 20:03:18.206871 30154 net.cpp:86] Creating Layer conv0
I0428 20:03:18.206876 30154 net.cpp:408] conv0 <- data
I0428 20:03:18.206882 30154 net.cpp:382] conv0 -> conv0
I0428 20:03:18.208469 30154 net.cpp:124] Setting up conv0
I0428 20:03:18.208500 30154 net.cpp:131] Top shape: 100 10 24 24 (576000)
I0428 20:03:18.208503 30154 net.cpp:139] Memory required for data: 2618800
I0428 20:03:18.208513 30154 layer_factory.hpp:77] Creating layer pool0
I0428 20:03:18.208518 30154 net.cpp:86] Creating Layer pool0
I0428 20:03:18.208521 30154 net.cpp:408] pool0 <- conv0
I0428 20:03:18.208528 30154 net.cpp:382] pool0 -> pool0
I0428 20:03:18.208560 30154 net.cpp:124] Setting up pool0
I0428 20:03:18.208566 30154 net.cpp:131] Top shape: 100 10 12 12 (144000)
I0428 20:03:18.208570 30154 net.cpp:139] Memory required for data: 3194800
I0428 20:03:18.208572 30154 layer_factory.hpp:77] Creating layer conv1
I0428 20:03:18.208582 30154 net.cpp:86] Creating Layer conv1
I0428 20:03:18.208586 30154 net.cpp:408] conv1 <- pool0
I0428 20:03:18.208590 30154 net.cpp:382] conv1 -> conv1
I0428 20:03:18.210439 30154 net.cpp:124] Setting up conv1
I0428 20:03:18.210453 30154 net.cpp:131] Top shape: 100 100 8 8 (640000)
I0428 20:03:18.210474 30154 net.cpp:139] Memory required for data: 5754800
I0428 20:03:18.210482 30154 layer_factory.hpp:77] Creating layer pool1
I0428 20:03:18.210490 30154 net.cpp:86] Creating Layer pool1
I0428 20:03:18.210494 30154 net.cpp:408] pool1 <- conv1
I0428 20:03:18.210515 30154 net.cpp:382] pool1 -> pool1
I0428 20:03:18.210551 30154 net.cpp:124] Setting up pool1
I0428 20:03:18.210558 30154 net.cpp:131] Top shape: 100 100 4 4 (160000)
I0428 20:03:18.210561 30154 net.cpp:139] Memory required for data: 6394800
I0428 20:03:18.210564 30154 layer_factory.hpp:77] Creating layer ip1
I0428 20:03:18.210571 30154 net.cpp:86] Creating Layer ip1
I0428 20:03:18.210573 30154 net.cpp:408] ip1 <- pool1
I0428 20:03:18.210580 30154 net.cpp:382] ip1 -> ip1
I0428 20:03:18.210803 30154 net.cpp:124] Setting up ip1
I0428 20:03:18.210810 30154 net.cpp:131] Top shape: 100 10 (1000)
I0428 20:03:18.210824 30154 net.cpp:139] Memory required for data: 6398800
I0428 20:03:18.210834 30154 layer_factory.hpp:77] Creating layer relu1
I0428 20:03:18.210839 30154 net.cpp:86] Creating Layer relu1
I0428 20:03:18.210844 30154 net.cpp:408] relu1 <- ip1
I0428 20:03:18.210850 30154 net.cpp:369] relu1 -> ip1 (in-place)
I0428 20:03:18.211012 30154 net.cpp:124] Setting up relu1
I0428 20:03:18.211020 30154 net.cpp:131] Top shape: 100 10 (1000)
I0428 20:03:18.211024 30154 net.cpp:139] Memory required for data: 6402800
I0428 20:03:18.211027 30154 layer_factory.hpp:77] Creating layer ip2
I0428 20:03:18.211035 30154 net.cpp:86] Creating Layer ip2
I0428 20:03:18.211038 30154 net.cpp:408] ip2 <- ip1
I0428 20:03:18.211046 30154 net.cpp:382] ip2 -> ip2
I0428 20:03:18.211153 30154 net.cpp:124] Setting up ip2
I0428 20:03:18.211160 30154 net.cpp:131] Top shape: 100 10 (1000)
I0428 20:03:18.211163 30154 net.cpp:139] Memory required for data: 6406800
I0428 20:03:18.211169 30154 layer_factory.hpp:77] Creating layer relu2
I0428 20:03:18.211174 30154 net.cpp:86] Creating Layer relu2
I0428 20:03:18.211176 30154 net.cpp:408] relu2 <- ip2
I0428 20:03:18.211180 30154 net.cpp:369] relu2 -> ip2 (in-place)
I0428 20:03:18.211360 30154 net.cpp:124] Setting up relu2
I0428 20:03:18.211369 30154 net.cpp:131] Top shape: 100 10 (1000)
I0428 20:03:18.211371 30154 net.cpp:139] Memory required for data: 6410800
I0428 20:03:18.211374 30154 layer_factory.hpp:77] Creating layer ip3
I0428 20:03:18.211380 30154 net.cpp:86] Creating Layer ip3
I0428 20:03:18.211382 30154 net.cpp:408] ip3 <- ip2
I0428 20:03:18.211388 30154 net.cpp:382] ip3 -> ip3
I0428 20:03:18.211529 30154 net.cpp:124] Setting up ip3
I0428 20:03:18.211535 30154 net.cpp:131] Top shape: 100 10 (1000)
I0428 20:03:18.211539 30154 net.cpp:139] Memory required for data: 6414800
I0428 20:03:18.211546 30154 layer_factory.hpp:77] Creating layer relu3
I0428 20:03:18.211552 30154 net.cpp:86] Creating Layer relu3
I0428 20:03:18.211555 30154 net.cpp:408] relu3 <- ip3
I0428 20:03:18.211560 30154 net.cpp:369] relu3 -> ip3 (in-place)
I0428 20:03:18.212359 30154 net.cpp:124] Setting up relu3
I0428 20:03:18.212371 30154 net.cpp:131] Top shape: 100 10 (1000)
I0428 20:03:18.212391 30154 net.cpp:139] Memory required for data: 6418800
I0428 20:03:18.212394 30154 layer_factory.hpp:77] Creating layer ip3_relu3_0_split
I0428 20:03:18.212400 30154 net.cpp:86] Creating Layer ip3_relu3_0_split
I0428 20:03:18.212404 30154 net.cpp:408] ip3_relu3_0_split <- ip3
I0428 20:03:18.212425 30154 net.cpp:382] ip3_relu3_0_split -> ip3_relu3_0_split_0
I0428 20:03:18.212431 30154 net.cpp:382] ip3_relu3_0_split -> ip3_relu3_0_split_1
I0428 20:03:18.212512 30154 net.cpp:124] Setting up ip3_relu3_0_split
I0428 20:03:18.212518 30154 net.cpp:131] Top shape: 100 10 (1000)
I0428 20:03:18.212522 30154 net.cpp:131] Top shape: 100 10 (1000)
I0428 20:03:18.212541 30154 net.cpp:139] Memory required for data: 6426800
I0428 20:03:18.212544 30154 layer_factory.hpp:77] Creating layer accuracy
I0428 20:03:18.212549 30154 net.cpp:86] Creating Layer accuracy
I0428 20:03:18.212553 30154 net.cpp:408] accuracy <- ip3_relu3_0_split_0
I0428 20:03:18.212558 30154 net.cpp:408] accuracy <- label_mnist_1_split_0
I0428 20:03:18.212563 30154 net.cpp:382] accuracy -> accuracy
…
