…
I0428 20:15:45.483638   512 net.cpp:296] The NetState phase (0) differed from the phase (1) specified by a rule in layer mnist
I0428 20:15:45.483656   512 net.cpp:296] The NetState phase (0) differed from the phase (1) specified by a rule in layer accuracy
I0428 20:15:45.483767   512 net.cpp:53] Initializing net from parameters: 
name: "LeNet"
state {
  phase: TRAIN
  level: 0
  stage: ""
}
layer {
  name: "mnist"
  type: "Data"
  top: "data"
  top: "label"
  include {
    phase: TRAIN
  }
  transform_param {
    scale: 0.00390625
  }
  data_param {
    source: "examples/mnist/mnist_train_lmdb"
    batch_size: 64
    backend: LMDB
  }
}
layer {
  name: "conv0"
  type: "Convolution"
  bottom: "data"
  top: "conv0"
  param {
    lr_mult: 1
  }
  param {
    lr_mult: 2
  }
  convolution_param {
    num_output: 50
    kernel_size: 5
    stride: 1
    weight_filler {
      type: "xavier"
    }
    bias_filler {
      type: "constant"
    }
  }
}
layer {
  name: "pool0"
  type: "Pooling"
  bottom: "conv0"
  top: "pool0"
  pooling_param {
    pool: MAX
    kernel_size: 2
    stride: 2
  }
}
layer {
  name: "conv1"
  type: "Convolution"
  bottom: "pool0"
  top: "conv1"
  param {
    lr_mult: 1
  }
  param {
    lr_mult: 2
  }
  convolution_param {
    num_output: 5
    kernel_size: 5
    stride: 1
    weight_filler {
      type: "xavier"
    }
    bias_filler {
      type: "constant"
    }
  }
}
layer {
  name: "pool1"
  type: "Pooling"
  bottom: "conv1"
  top: "pool1"
  pooling_param {
    pool: MAX
    kernel_size: 2
    stride: 2
  }
}
layer {
  name: "ip1"
  type: "InnerProduct"
  bottom: "pool1"
  top: "ip1"
  param {
    lr_mult: 1
  }
  param {
    lr_mult: 2
  }
  inner_product_param {
    num_output: 25
    weight_filler {
      type: "xavier"
    }
    bias_filler {
      type: "constant"
    }
  }
}
layer {
  name: "relu1"
  type: "ReLU"
  bottom: "ip1"
  top: "ip1"
}
layer {
  name: "ip2"
  type: "InnerProduct"
  bottom: "ip1"
  top: "ip2"
  param {
    lr_mult: 1
  }
  param {
    lr_mult: 2
  }
  inner_product_param {
    num_output: 10
    weight_filler {
      type: "xavier"
    }
    bias_filler {
      type: "constant"
    }
  }
}
layer {
  name: "relu2"
  type: "ReLU"
  bottom: "ip2"
  top: "ip2"
}
layer {
  name: "loss"
  type: "SoftmaxWithLoss"
  bottom: "ip2"
  bottom: "label"
  top: "loss"
}
I0428 20:15:45.483839   512 layer_factory.hpp:77] Creating layer mnist
I0428 20:15:45.483935   512 db_lmdb.cpp:35] Opened lmdb examples/mnist/mnist_train_lmdb
I0428 20:15:45.483960   512 net.cpp:86] Creating Layer mnist
I0428 20:15:45.483970   512 net.cpp:382] mnist -> data
I0428 20:15:45.483994   512 net.cpp:382] mnist -> label
I0428 20:15:45.485129   512 data_layer.cpp:45] output data size: 64,1,28,28
I0428 20:15:45.487645   512 net.cpp:124] Setting up mnist
I0428 20:15:45.487670   512 net.cpp:131] Top shape: 64 1 28 28 (50176)
I0428 20:15:45.487681   512 net.cpp:131] Top shape: 64 (64)
I0428 20:15:45.487687   512 net.cpp:139] Memory required for data: 200960
I0428 20:15:45.487700   512 layer_factory.hpp:77] Creating layer conv0
I0428 20:15:45.487718   512 net.cpp:86] Creating Layer conv0
I0428 20:15:45.487725   512 net.cpp:408] conv0 <- data
I0428 20:15:45.487737   512 net.cpp:382] conv0 -> conv0
I0428 20:15:45.768021   512 net.cpp:124] Setting up conv0
I0428 20:15:45.768049   512 net.cpp:131] Top shape: 64 50 24 24 (1843200)
I0428 20:15:45.768052   512 net.cpp:139] Memory required for data: 7573760
I0428 20:15:45.768086   512 layer_factory.hpp:77] Creating layer pool0
I0428 20:15:45.768100   512 net.cpp:86] Creating Layer pool0
I0428 20:15:45.768103   512 net.cpp:408] pool0 <- conv0
I0428 20:15:45.768108   512 net.cpp:382] pool0 -> pool0
I0428 20:15:45.768155   512 net.cpp:124] Setting up pool0
I0428 20:15:45.768162   512 net.cpp:131] Top shape: 64 50 12 12 (460800)
I0428 20:15:45.768163   512 net.cpp:139] Memory required for data: 9416960
I0428 20:15:45.768167   512 layer_factory.hpp:77] Creating layer conv1
I0428 20:15:45.768177   512 net.cpp:86] Creating Layer conv1
I0428 20:15:45.768180   512 net.cpp:408] conv1 <- pool0
I0428 20:15:45.768185   512 net.cpp:382] conv1 -> conv1
I0428 20:15:45.771040   512 net.cpp:124] Setting up conv1
I0428 20:15:45.771055   512 net.cpp:131] Top shape: 64 5 8 8 (20480)
I0428 20:15:45.771059   512 net.cpp:139] Memory required for data: 9498880
I0428 20:15:45.771067   512 layer_factory.hpp:77] Creating layer pool1
I0428 20:15:45.771075   512 net.cpp:86] Creating Layer pool1
I0428 20:15:45.771078   512 net.cpp:408] pool1 <- conv1
I0428 20:15:45.771085   512 net.cpp:382] pool1 -> pool1
I0428 20:15:45.771121   512 net.cpp:124] Setting up pool1
I0428 20:15:45.771124   512 net.cpp:131] Top shape: 64 5 4 4 (5120)
I0428 20:15:45.771127   512 net.cpp:139] Memory required for data: 9519360
I0428 20:15:45.771131   512 layer_factory.hpp:77] Creating layer ip1
I0428 20:15:45.771137   512 net.cpp:86] Creating Layer ip1
I0428 20:15:45.771140   512 net.cpp:408] ip1 <- pool1
I0428 20:15:45.771144   512 net.cpp:382] ip1 -> ip1
I0428 20:15:45.771248   512 net.cpp:124] Setting up ip1
I0428 20:15:45.771256   512 net.cpp:131] Top shape: 64 25 (1600)
I0428 20:15:45.771260   512 net.cpp:139] Memory required for data: 9525760
I0428 20:15:45.771266   512 layer_factory.hpp:77] Creating layer relu1
I0428 20:15:45.771271   512 net.cpp:86] Creating Layer relu1
I0428 20:15:45.771275   512 net.cpp:408] relu1 <- ip1
I0428 20:15:45.771278   512 net.cpp:369] relu1 -> ip1 (in-place)
I0428 20:15:45.771435   512 net.cpp:124] Setting up relu1
I0428 20:15:45.771445   512 net.cpp:131] Top shape: 64 25 (1600)
I0428 20:15:45.771447   512 net.cpp:139] Memory required for data: 9532160
I0428 20:15:45.771450   512 layer_factory.hpp:77] Creating layer ip2
I0428 20:15:45.771456   512 net.cpp:86] Creating Layer ip2
I0428 20:15:45.771458   512 net.cpp:408] ip2 <- ip1
I0428 20:15:45.771463   512 net.cpp:382] ip2 -> ip2
I0428 20:15:45.771551   512 net.cpp:124] Setting up ip2
I0428 20:15:45.771559   512 net.cpp:131] Top shape: 64 10 (640)
I0428 20:15:45.771561   512 net.cpp:139] Memory required for data: 9534720
I0428 20:15:45.771566   512 layer_factory.hpp:77] Creating layer relu2
I0428 20:15:45.771571   512 net.cpp:86] Creating Layer relu2
I0428 20:15:45.771574   512 net.cpp:408] relu2 <- ip2
I0428 20:15:45.771579   512 net.cpp:369] relu2 -> ip2 (in-place)
I0428 20:15:45.772256   512 net.cpp:124] Setting up relu2
I0428 20:15:45.772269   512 net.cpp:131] Top shape: 64 10 (640)
I0428 20:15:45.772272   512 net.cpp:139] Memory required for data: 9537280
I0428 20:15:45.772275   512 layer_factory.hpp:77] Creating layer loss
I0428 20:15:45.772281   512 net.cpp:86] Creating Layer loss
I0428 20:15:45.772284   512 net.cpp:408] loss <- ip2
I0428 20:15:45.772289   512 net.cpp:408] loss <- label
I0428 20:15:45.772294   512 net.cpp:382] loss -> loss
I0428 20:15:45.772310   512 layer_factory.hpp:77] Creating layer loss
…
I0428 20:15:45.772933   512 solver.cpp:173] Creating test net (#0) specified by net file: ECE595/mnist/train_test/var_everything2/lenet_train_test1254.prototxt
I0428 20:15:45.772963   512 net.cpp:296] The NetState phase (1) differed from the phase (0) specified by a rule in layer mnist
I0428 20:15:45.773063   512 net.cpp:53] Initializing net from parameters: 
name: "LeNet"
state {
  phase: TEST
}
layer {
  name: "mnist"
  type: "Data"
  top: "data"
  top: "label"
  include {
    phase: TEST
  }
  transform_param {
    scale: 0.00390625
  }
  data_param {
    source: "examples/mnist/mnist_test_lmdb"
    batch_size: 100
    backend: LMDB
  }
}
layer {
  name: "conv0"
  type: "Convolution"
  bottom: "data"
  top: "conv0"
  param {
    lr_mult: 1
  }
  param {
    lr_mult: 2
  }
  convolution_param {
    num_output: 50
    kernel_size: 5
    stride: 1
    weight_filler {
      type: "xavier"
    }
    bias_filler {
      type: "constant"
    }
  }
}
layer {
  name: "pool0"
  type: "Pooling"
  bottom: "conv0"
  top: "pool0"
  pooling_param {
    pool: MAX
    kernel_size: 2
    stride: 2
  }
}
layer {
  name: "conv1"
  type: "Convolution"
  bottom: "pool0"
  top: "conv1"
  param {
    lr_mult: 1
  }
  param {
    lr_mult: 2
  }
  convolution_param {
    num_output: 5
    kernel_size: 5
    stride: 1
    weight_filler {
      type: "xavier"
    }
    bias_filler {
      type: "constant"
    }
  }
}
layer {
  name: "pool1"
  type: "Pooling"
  bottom: "conv1"
  top: "pool1"
  pooling_param {
    pool: MAX
    kernel_size: 2
    stride: 2
  }
}
layer {
  name: "ip1"
  type: "InnerProduct"
  bottom: "pool1"
  top: "ip1"
  param {
    lr_mult: 1
  }
  param {
    lr_mult: 2
  }
  inner_product_param {
    num_output: 25
    weight_filler {
      type: "xavier"
    }
    bias_filler {
      type: "constant"
    }
  }
}
layer {
  name: "relu1"
  type: "ReLU"
  bottom: "ip1"
  top: "ip1"
}
layer {
  name: "ip2"
  type: "InnerProduct"
  bottom: "ip1"
  top: "ip2"
  param {
    lr_mult: 1
  }
  param {
    lr_mult: 2
  }
  inner_product_param {
    num_output: 10
    weight_filler {
      type: "xavier"
    }
    bias_filler {
      type: "constant"
    }
  }
}
layer {
  name: "relu2"
  type: "ReLU"
  bottom: "ip2"
  top: "ip2"
}
layer {
  name: "accuracy"
  type: "Accuracy"
  bottom: "ip2"
  bottom: "label"
  top: "accuracy"
  include {
    phase: TEST
  }
}
layer {
  name: "loss"
  type: "SoftmaxWithLoss"
  bottom: "ip2"
  bottom: "label"
  top: "loss"
}
I0428 20:15:45.773126   512 layer_factory.hpp:77] Creating layer mnist
I0428 20:15:45.773183   512 db_lmdb.cpp:35] Opened lmdb examples/mnist/mnist_test_lmdb
I0428 20:15:45.773211   512 net.cpp:86] Creating Layer mnist
I0428 20:15:45.773214   512 net.cpp:382] mnist -> data
I0428 20:15:45.773221   512 net.cpp:382] mnist -> label
I0428 20:15:45.773299   512 data_layer.cpp:45] output data size: 100,1,28,28
I0428 20:15:45.775166   512 net.cpp:124] Setting up mnist
I0428 20:15:45.775193   512 net.cpp:131] Top shape: 100 1 28 28 (78400)
I0428 20:15:45.775198   512 net.cpp:131] Top shape: 100 (100)
I0428 20:15:45.775216   512 net.cpp:139] Memory required for data: 314000
I0428 20:15:45.775220   512 layer_factory.hpp:77] Creating layer label_mnist_1_split
I0428 20:15:45.775228   512 net.cpp:86] Creating Layer label_mnist_1_split
I0428 20:15:45.775230   512 net.cpp:408] label_mnist_1_split <- label
I0428 20:15:45.775235   512 net.cpp:382] label_mnist_1_split -> label_mnist_1_split_0
I0428 20:15:45.775241   512 net.cpp:382] label_mnist_1_split -> label_mnist_1_split_1
I0428 20:15:45.775327   512 net.cpp:124] Setting up label_mnist_1_split
I0428 20:15:45.775346   512 net.cpp:131] Top shape: 100 (100)
I0428 20:15:45.775349   512 net.cpp:131] Top shape: 100 (100)
I0428 20:15:45.775352   512 net.cpp:139] Memory required for data: 314800
I0428 20:15:45.775354   512 layer_factory.hpp:77] Creating layer conv0
I0428 20:15:45.775363   512 net.cpp:86] Creating Layer conv0
I0428 20:15:45.775367   512 net.cpp:408] conv0 <- data
I0428 20:15:45.775372   512 net.cpp:382] conv0 -> conv0
I0428 20:15:45.777007   512 net.cpp:124] Setting up conv0
I0428 20:15:45.777032   512 net.cpp:131] Top shape: 100 50 24 24 (2880000)
I0428 20:15:45.777037   512 net.cpp:139] Memory required for data: 11834800
I0428 20:15:45.777046   512 layer_factory.hpp:77] Creating layer pool0
I0428 20:15:45.777052   512 net.cpp:86] Creating Layer pool0
I0428 20:15:45.777056   512 net.cpp:408] pool0 <- conv0
I0428 20:15:45.777077   512 net.cpp:382] pool0 -> pool0
I0428 20:15:45.777113   512 net.cpp:124] Setting up pool0
I0428 20:15:45.777120   512 net.cpp:131] Top shape: 100 50 12 12 (720000)
I0428 20:15:45.777124   512 net.cpp:139] Memory required for data: 14714800
I0428 20:15:45.777127   512 layer_factory.hpp:77] Creating layer conv1
I0428 20:15:45.777135   512 net.cpp:86] Creating Layer conv1
I0428 20:15:45.777139   512 net.cpp:408] conv1 <- pool0
I0428 20:15:45.777144   512 net.cpp:382] conv1 -> conv1
I0428 20:15:45.778648   512 net.cpp:124] Setting up conv1
I0428 20:15:45.778661   512 net.cpp:131] Top shape: 100 5 8 8 (32000)
I0428 20:15:45.778666   512 net.cpp:139] Memory required for data: 14842800
I0428 20:15:45.778673   512 layer_factory.hpp:77] Creating layer pool1
I0428 20:15:45.778679   512 net.cpp:86] Creating Layer pool1
I0428 20:15:45.778682   512 net.cpp:408] pool1 <- conv1
I0428 20:15:45.778687   512 net.cpp:382] pool1 -> pool1
I0428 20:15:45.778728   512 net.cpp:124] Setting up pool1
I0428 20:15:45.778733   512 net.cpp:131] Top shape: 100 5 4 4 (8000)
I0428 20:15:45.778736   512 net.cpp:139] Memory required for data: 14874800
I0428 20:15:45.778739   512 layer_factory.hpp:77] Creating layer ip1
I0428 20:15:45.778745   512 net.cpp:86] Creating Layer ip1
I0428 20:15:45.778748   512 net.cpp:408] ip1 <- pool1
I0428 20:15:45.778753   512 net.cpp:382] ip1 -> ip1
I0428 20:15:45.778851   512 net.cpp:124] Setting up ip1
I0428 20:15:45.778857   512 net.cpp:131] Top shape: 100 25 (2500)
I0428 20:15:45.778861   512 net.cpp:139] Memory required for data: 14884800
I0428 20:15:45.778867   512 layer_factory.hpp:77] Creating layer relu1
I0428 20:15:45.778872   512 net.cpp:86] Creating Layer relu1
I0428 20:15:45.778875   512 net.cpp:408] relu1 <- ip1
I0428 20:15:45.778879   512 net.cpp:369] relu1 -> ip1 (in-place)
I0428 20:15:45.779022   512 net.cpp:124] Setting up relu1
I0428 20:15:45.779031   512 net.cpp:131] Top shape: 100 25 (2500)
I0428 20:15:45.779034   512 net.cpp:139] Memory required for data: 14894800
I0428 20:15:45.779037   512 layer_factory.hpp:77] Creating layer ip2
I0428 20:15:45.779043   512 net.cpp:86] Creating Layer ip2
I0428 20:15:45.779047   512 net.cpp:408] ip2 <- ip1
I0428 20:15:45.779052   512 net.cpp:382] ip2 -> ip2
I0428 20:15:45.779139   512 net.cpp:124] Setting up ip2
I0428 20:15:45.779146   512 net.cpp:131] Top shape: 100 10 (1000)
I0428 20:15:45.779150   512 net.cpp:139] Memory required for data: 14898800
I0428 20:15:45.779155   512 layer_factory.hpp:77] Creating layer relu2
I0428 20:15:45.779160   512 net.cpp:86] Creating Layer relu2
I0428 20:15:45.779162   512 net.cpp:408] relu2 <- ip2
I0428 20:15:45.779165   512 net.cpp:369] relu2 -> ip2 (in-place)
I0428 20:15:45.779320   512 net.cpp:124] Setting up relu2
I0428 20:15:45.779326   512 net.cpp:131] Top shape: 100 10 (1000)
I0428 20:15:45.779330   512 net.cpp:139] Memory required for data: 14902800
I0428 20:15:45.779333   512 layer_factory.hpp:77] Creating layer ip2_relu2_0_split
I0428 20:15:45.779355   512 net.cpp:86] Creating Layer ip2_relu2_0_split
I0428 20:15:45.779357   512 net.cpp:408] ip2_relu2_0_split <- ip2
I0428 20:15:45.779361   512 net.cpp:382] ip2_relu2_0_split -> ip2_relu2_0_split_0
I0428 20:15:45.779377   512 net.cpp:382] ip2_relu2_0_split -> ip2_relu2_0_split_1
I0428 20:15:45.779415   512 net.cpp:124] Setting up ip2_relu2_0_split
I0428 20:15:45.779422   512 net.cpp:131] Top shape: 100 10 (1000)
I0428 20:15:45.779427   512 net.cpp:131] Top shape: 100 10 (1000)
I0428 20:15:45.779429   512 net.cpp:139] Memory required for data: 14910800
I0428 20:15:45.779433   512 layer_factory.hpp:77] Creating layer accuracy
I0428 20:15:45.779438   512 net.cpp:86] Creating Layer accuracy
I0428 20:15:45.779440   512 net.cpp:408] accuracy <- ip2_relu2_0_split_0
I0428 20:15:45.779444   512 net.cpp:408] accuracy <- label_mnist_1_split_0
I0428 20:15:45.779448   512 net.cpp:382] accuracy -> accuracy
…
