…
I0428 20:21:53.046037  1841 net.cpp:296] The NetState phase (0) differed from the phase (1) specified by a rule in layer mnist
I0428 20:21:53.046057  1841 net.cpp:296] The NetState phase (0) differed from the phase (1) specified by a rule in layer accuracy
I0428 20:21:53.046160  1841 net.cpp:53] Initializing net from parameters: 
name: "LeNet"
state {
  phase: TRAIN
  level: 0
  stage: ""
}
layer {
  name: "mnist"
  type: "Data"
  top: "data"
  top: "label"
  include {
    phase: TRAIN
  }
  transform_param {
    scale: 0.00390625
  }
  data_param {
    source: "examples/mnist/mnist_train_lmdb"
    batch_size: 64
    backend: LMDB
  }
}
layer {
  name: "conv0"
  type: "Convolution"
  bottom: "data"
  top: "conv0"
  param {
    lr_mult: 1
  }
  param {
    lr_mult: 2
  }
  convolution_param {
    num_output: 50
    kernel_size: 5
    stride: 1
    weight_filler {
      type: "xavier"
    }
    bias_filler {
      type: "constant"
    }
  }
}
layer {
  name: "pool0"
  type: "Pooling"
  bottom: "conv0"
  top: "pool0"
  pooling_param {
    pool: MAX
    kernel_size: 2
    stride: 2
  }
}
layer {
  name: "conv1"
  type: "Convolution"
  bottom: "pool0"
  top: "conv1"
  param {
    lr_mult: 1
  }
  param {
    lr_mult: 2
  }
  convolution_param {
    num_output: 50
    kernel_size: 5
    stride: 1
    weight_filler {
      type: "xavier"
    }
    bias_filler {
      type: "constant"
    }
  }
}
layer {
  name: "pool1"
  type: "Pooling"
  bottom: "conv1"
  top: "pool1"
  pooling_param {
    pool: MAX
    kernel_size: 2
    stride: 2
  }
}
layer {
  name: "ip1"
  type: "InnerProduct"
  bottom: "pool1"
  top: "ip1"
  param {
    lr_mult: 1
  }
  param {
    lr_mult: 2
  }
  inner_product_param {
    num_output: 25
    weight_filler {
      type: "xavier"
    }
    bias_filler {
      type: "constant"
    }
  }
}
layer {
  name: "relu1"
  type: "ReLU"
  bottom: "ip1"
  top: "ip1"
}
layer {
  name: "ip2"
  type: "InnerProduct"
  bottom: "ip1"
  top: "ip2"
  param {
    lr_mult: 1
  }
  param {
    lr_mult: 2
  }
  inner_product_param {
    num_output: 50
    weight_filler {
      type: "xavier"
    }
    bias_filler {
      type: "constant"
    }
  }
}
layer {
  name: "relu2"
  type: "ReLU"
  bottom: "ip2"
  top: "ip2"
}
layer {
  name: "ip3"
  type: "InnerProduct"
  bottom: "ip2"
  top: "ip3"
  param {
    lr_mult: 1
  }
  param {
    lr_mult: 2
  }
  inner_product_param {
    num_output: 10
    weight_filler {
      type: "xavier"
    }
    bias_filler {
      type: "constant"
    }
  }
}
layer {
  name: "relu3"
  type: "ReLU"
  bottom: "ip3"
  top: "ip3"
}
layer {
  name: "loss"
  type: "SoftmaxWithLoss"
  bottom: "ip3"
  bottom: "label"
  top: "loss"
}
I0428 20:21:53.046241  1841 layer_factory.hpp:77] Creating layer mnist
I0428 20:21:53.046339  1841 db_lmdb.cpp:35] Opened lmdb examples/mnist/mnist_train_lmdb
I0428 20:21:53.046362  1841 net.cpp:86] Creating Layer mnist
I0428 20:21:53.046370  1841 net.cpp:382] mnist -> data
I0428 20:21:53.046391  1841 net.cpp:382] mnist -> label
I0428 20:21:53.047480  1841 data_layer.cpp:45] output data size: 64,1,28,28
I0428 20:21:53.049933  1841 net.cpp:124] Setting up mnist
I0428 20:21:53.049952  1841 net.cpp:131] Top shape: 64 1 28 28 (50176)
I0428 20:21:53.049958  1841 net.cpp:131] Top shape: 64 (64)
I0428 20:21:53.049962  1841 net.cpp:139] Memory required for data: 200960
I0428 20:21:53.049968  1841 layer_factory.hpp:77] Creating layer conv0
I0428 20:21:53.050009  1841 net.cpp:86] Creating Layer conv0
I0428 20:21:53.050030  1841 net.cpp:408] conv0 <- data
I0428 20:21:53.050042  1841 net.cpp:382] conv0 -> conv0
I0428 20:21:53.307083  1841 net.cpp:124] Setting up conv0
I0428 20:21:53.307108  1841 net.cpp:131] Top shape: 64 50 24 24 (1843200)
I0428 20:21:53.307112  1841 net.cpp:139] Memory required for data: 7573760
I0428 20:21:53.307126  1841 layer_factory.hpp:77] Creating layer pool0
I0428 20:21:53.307138  1841 net.cpp:86] Creating Layer pool0
I0428 20:21:53.307142  1841 net.cpp:408] pool0 <- conv0
I0428 20:21:53.307147  1841 net.cpp:382] pool0 -> pool0
I0428 20:21:53.307232  1841 net.cpp:124] Setting up pool0
I0428 20:21:53.307237  1841 net.cpp:131] Top shape: 64 50 12 12 (460800)
I0428 20:21:53.307240  1841 net.cpp:139] Memory required for data: 9416960
I0428 20:21:53.307242  1841 layer_factory.hpp:77] Creating layer conv1
I0428 20:21:53.307252  1841 net.cpp:86] Creating Layer conv1
I0428 20:21:53.307255  1841 net.cpp:408] conv1 <- pool0
I0428 20:21:53.307260  1841 net.cpp:382] conv1 -> conv1
I0428 20:21:53.309453  1841 net.cpp:124] Setting up conv1
I0428 20:21:53.309483  1841 net.cpp:131] Top shape: 64 50 8 8 (204800)
I0428 20:21:53.309485  1841 net.cpp:139] Memory required for data: 10236160
I0428 20:21:53.309494  1841 layer_factory.hpp:77] Creating layer pool1
I0428 20:21:53.309502  1841 net.cpp:86] Creating Layer pool1
I0428 20:21:53.309506  1841 net.cpp:408] pool1 <- conv1
I0428 20:21:53.309511  1841 net.cpp:382] pool1 -> pool1
I0428 20:21:53.309561  1841 net.cpp:124] Setting up pool1
I0428 20:21:53.309566  1841 net.cpp:131] Top shape: 64 50 4 4 (51200)
I0428 20:21:53.309569  1841 net.cpp:139] Memory required for data: 10440960
I0428 20:21:53.309572  1841 layer_factory.hpp:77] Creating layer ip1
I0428 20:21:53.309579  1841 net.cpp:86] Creating Layer ip1
I0428 20:21:53.309582  1841 net.cpp:408] ip1 <- pool1
I0428 20:21:53.309587  1841 net.cpp:382] ip1 -> ip1
I0428 20:21:53.309793  1841 net.cpp:124] Setting up ip1
I0428 20:21:53.309801  1841 net.cpp:131] Top shape: 64 25 (1600)
I0428 20:21:53.309804  1841 net.cpp:139] Memory required for data: 10447360
I0428 20:21:53.309813  1841 layer_factory.hpp:77] Creating layer relu1
I0428 20:21:53.309818  1841 net.cpp:86] Creating Layer relu1
I0428 20:21:53.309820  1841 net.cpp:408] relu1 <- ip1
I0428 20:21:53.309824  1841 net.cpp:369] relu1 -> ip1 (in-place)
I0428 20:21:53.309989  1841 net.cpp:124] Setting up relu1
I0428 20:21:53.309998  1841 net.cpp:131] Top shape: 64 25 (1600)
I0428 20:21:53.310001  1841 net.cpp:139] Memory required for data: 10453760
I0428 20:21:53.310004  1841 layer_factory.hpp:77] Creating layer ip2
I0428 20:21:53.310011  1841 net.cpp:86] Creating Layer ip2
I0428 20:21:53.310014  1841 net.cpp:408] ip2 <- ip1
I0428 20:21:53.310019  1841 net.cpp:382] ip2 -> ip2
I0428 20:21:53.310138  1841 net.cpp:124] Setting up ip2
I0428 20:21:53.310145  1841 net.cpp:131] Top shape: 64 50 (3200)
I0428 20:21:53.310148  1841 net.cpp:139] Memory required for data: 10466560
I0428 20:21:53.310153  1841 layer_factory.hpp:77] Creating layer relu2
I0428 20:21:53.310159  1841 net.cpp:86] Creating Layer relu2
I0428 20:21:53.310163  1841 net.cpp:408] relu2 <- ip2
I0428 20:21:53.310165  1841 net.cpp:369] relu2 -> ip2 (in-place)
I0428 20:21:53.310936  1841 net.cpp:124] Setting up relu2
I0428 20:21:53.310947  1841 net.cpp:131] Top shape: 64 50 (3200)
I0428 20:21:53.310966  1841 net.cpp:139] Memory required for data: 10479360
I0428 20:21:53.310969  1841 layer_factory.hpp:77] Creating layer ip3
I0428 20:21:53.310977  1841 net.cpp:86] Creating Layer ip3
I0428 20:21:53.310981  1841 net.cpp:408] ip3 <- ip2
I0428 20:21:53.310986  1841 net.cpp:382] ip3 -> ip3
I0428 20:21:53.311089  1841 net.cpp:124] Setting up ip3
I0428 20:21:53.311095  1841 net.cpp:131] Top shape: 64 10 (640)
I0428 20:21:53.311098  1841 net.cpp:139] Memory required for data: 10481920
I0428 20:21:53.311105  1841 layer_factory.hpp:77] Creating layer relu3
I0428 20:21:53.311110  1841 net.cpp:86] Creating Layer relu3
I0428 20:21:53.311113  1841 net.cpp:408] relu3 <- ip3
I0428 20:21:53.311117  1841 net.cpp:369] relu3 -> ip3 (in-place)
I0428 20:21:53.311301  1841 net.cpp:124] Setting up relu3
I0428 20:21:53.311311  1841 net.cpp:131] Top shape: 64 10 (640)
I0428 20:21:53.311313  1841 net.cpp:139] Memory required for data: 10484480
I0428 20:21:53.311316  1841 layer_factory.hpp:77] Creating layer loss
I0428 20:21:53.311326  1841 net.cpp:86] Creating Layer loss
I0428 20:21:53.311328  1841 net.cpp:408] loss <- ip3
I0428 20:21:53.311332  1841 net.cpp:408] loss <- label
I0428 20:21:53.311339  1841 net.cpp:382] loss -> loss
I0428 20:21:53.311352  1841 layer_factory.hpp:77] Creating layer loss
…
I0428 20:21:53.312008  1841 solver.cpp:173] Creating test net (#0) specified by net file: ECE595/mnist/train_test/var_everything2/lenet_train_test1393.prototxt
I0428 20:21:53.312050  1841 net.cpp:296] The NetState phase (1) differed from the phase (0) specified by a rule in layer mnist
I0428 20:21:53.312145  1841 net.cpp:53] Initializing net from parameters: 
name: "LeNet"
state {
  phase: TEST
}
layer {
  name: "mnist"
  type: "Data"
  top: "data"
  top: "label"
  include {
    phase: TEST
  }
  transform_param {
    scale: 0.00390625
  }
  data_param {
    source: "examples/mnist/mnist_test_lmdb"
    batch_size: 100
    backend: LMDB
  }
}
layer {
  name: "conv0"
  type: "Convolution"
  bottom: "data"
  top: "conv0"
  param {
    lr_mult: 1
  }
  param {
    lr_mult: 2
  }
  convolution_param {
    num_output: 50
    kernel_size: 5
    stride: 1
    weight_filler {
      type: "xavier"
    }
    bias_filler {
      type: "constant"
    }
  }
}
layer {
  name: "pool0"
  type: "Pooling"
  bottom: "conv0"
  top: "pool0"
  pooling_param {
    pool: MAX
    kernel_size: 2
    stride: 2
  }
}
layer {
  name: "conv1"
  type: "Convolution"
  bottom: "pool0"
  top: "conv1"
  param {
    lr_mult: 1
  }
  param {
    lr_mult: 2
  }
  convolution_param {
    num_output: 50
    kernel_size: 5
    stride: 1
    weight_filler {
      type: "xavier"
    }
    bias_filler {
      type: "constant"
    }
  }
}
layer {
  name: "pool1"
  type: "Pooling"
  bottom: "conv1"
  top: "pool1"
  pooling_param {
    pool: MAX
    kernel_size: 2
    stride: 2
  }
}
layer {
  name: "ip1"
  type: "InnerProduct"
  bottom: "pool1"
  top: "ip1"
  param {
    lr_mult: 1
  }
  param {
    lr_mult: 2
  }
  inner_product_param {
    num_output: 25
    weight_filler {
      type: "xavier"
    }
    bias_filler {
      type: "constant"
    }
  }
}
layer {
  name: "relu1"
  type: "ReLU"
  bottom: "ip1"
  top: "ip1"
}
layer {
  name: "ip2"
  type: "InnerProduct"
  bottom: "ip1"
  top: "ip2"
  param {
    lr_mult: 1
  }
  param {
    lr_mult: 2
  }
  inner_product_param {
    num_output: 50
    weight_filler {
      type: "xavier"
    }
    bias_filler {
      type: "constant"
    }
  }
}
layer {
  name: "relu2"
  type: "ReLU"
  bottom: "ip2"
  top: "ip2"
}
layer {
  name: "ip3"
  type: "InnerProduct"
  bottom: "ip2"
  top: "ip3"
  param {
    lr_mult: 1
  }
  param {
    lr_mult: 2
  }
  inner_product_param {
    num_output: 10
    weight_filler {
      type: "xavier"
    }
    bias_filler {
      type: "constant"
    }
  }
}
layer {
  name: "relu3"
  type: "ReLU"
  bottom: "ip3"
  top: "ip3"
}
layer {
  name: "accuracy"
  type: "Accuracy"
  bottom: "ip3"
  bottom: "label"
  top: "accuracy"
  include {
    phase: TEST
  }
}
layer {
  name: "loss"
  type: "SoftmaxWithLoss"
  bottom: "ip3"
  bottom: "label"
  top: "loss"
}
I0428 20:21:53.312255  1841 layer_factory.hpp:77] Creating layer mnist
I0428 20:21:53.312299  1841 db_lmdb.cpp:35] Opened lmdb examples/mnist/mnist_test_lmdb
I0428 20:21:53.312310  1841 net.cpp:86] Creating Layer mnist
I0428 20:21:53.312315  1841 net.cpp:382] mnist -> data
I0428 20:21:53.312322  1841 net.cpp:382] mnist -> label
I0428 20:21:53.312403  1841 data_layer.cpp:45] output data size: 100,1,28,28
I0428 20:21:53.314390  1841 net.cpp:124] Setting up mnist
I0428 20:21:53.314419  1841 net.cpp:131] Top shape: 100 1 28 28 (78400)
I0428 20:21:53.314441  1841 net.cpp:131] Top shape: 100 (100)
I0428 20:21:53.314445  1841 net.cpp:139] Memory required for data: 314000
I0428 20:21:53.314448  1841 layer_factory.hpp:77] Creating layer label_mnist_1_split
I0428 20:21:53.314455  1841 net.cpp:86] Creating Layer label_mnist_1_split
I0428 20:21:53.314457  1841 net.cpp:408] label_mnist_1_split <- label
I0428 20:21:53.314462  1841 net.cpp:382] label_mnist_1_split -> label_mnist_1_split_0
I0428 20:21:53.314468  1841 net.cpp:382] label_mnist_1_split -> label_mnist_1_split_1
I0428 20:21:53.314556  1841 net.cpp:124] Setting up label_mnist_1_split
I0428 20:21:53.314564  1841 net.cpp:131] Top shape: 100 (100)
I0428 20:21:53.314568  1841 net.cpp:131] Top shape: 100 (100)
I0428 20:21:53.314570  1841 net.cpp:139] Memory required for data: 314800
I0428 20:21:53.314574  1841 layer_factory.hpp:77] Creating layer conv0
I0428 20:21:53.314581  1841 net.cpp:86] Creating Layer conv0
I0428 20:21:53.314584  1841 net.cpp:408] conv0 <- data
I0428 20:21:53.314590  1841 net.cpp:382] conv0 -> conv0
I0428 20:21:53.316082  1841 net.cpp:124] Setting up conv0
I0428 20:21:53.316109  1841 net.cpp:131] Top shape: 100 50 24 24 (2880000)
I0428 20:21:53.316113  1841 net.cpp:139] Memory required for data: 11834800
I0428 20:21:53.316121  1841 layer_factory.hpp:77] Creating layer pool0
I0428 20:21:53.316128  1841 net.cpp:86] Creating Layer pool0
I0428 20:21:53.316131  1841 net.cpp:408] pool0 <- conv0
I0428 20:21:53.316136  1841 net.cpp:382] pool0 -> pool0
I0428 20:21:53.316201  1841 net.cpp:124] Setting up pool0
I0428 20:21:53.316206  1841 net.cpp:131] Top shape: 100 50 12 12 (720000)
I0428 20:21:53.316210  1841 net.cpp:139] Memory required for data: 14714800
I0428 20:21:53.316212  1841 layer_factory.hpp:77] Creating layer conv1
I0428 20:21:53.316220  1841 net.cpp:86] Creating Layer conv1
I0428 20:21:53.316223  1841 net.cpp:408] conv1 <- pool0
I0428 20:21:53.316229  1841 net.cpp:382] conv1 -> conv1
I0428 20:21:53.318231  1841 net.cpp:124] Setting up conv1
I0428 20:21:53.318248  1841 net.cpp:131] Top shape: 100 50 8 8 (320000)
I0428 20:21:53.318253  1841 net.cpp:139] Memory required for data: 15994800
I0428 20:21:53.318261  1841 layer_factory.hpp:77] Creating layer pool1
I0428 20:21:53.318269  1841 net.cpp:86] Creating Layer pool1
I0428 20:21:53.318271  1841 net.cpp:408] pool1 <- conv1
I0428 20:21:53.318277  1841 net.cpp:382] pool1 -> pool1
I0428 20:21:53.318316  1841 net.cpp:124] Setting up pool1
I0428 20:21:53.318325  1841 net.cpp:131] Top shape: 100 50 4 4 (80000)
I0428 20:21:53.318327  1841 net.cpp:139] Memory required for data: 16314800
I0428 20:21:53.318331  1841 layer_factory.hpp:77] Creating layer ip1
I0428 20:21:53.318344  1841 net.cpp:86] Creating Layer ip1
I0428 20:21:53.318347  1841 net.cpp:408] ip1 <- pool1
I0428 20:21:53.318352  1841 net.cpp:382] ip1 -> ip1
I0428 20:21:53.318599  1841 net.cpp:124] Setting up ip1
I0428 20:21:53.318608  1841 net.cpp:131] Top shape: 100 25 (2500)
I0428 20:21:53.318620  1841 net.cpp:139] Memory required for data: 16324800
I0428 20:21:53.318629  1841 layer_factory.hpp:77] Creating layer relu1
I0428 20:21:53.318634  1841 net.cpp:86] Creating Layer relu1
I0428 20:21:53.318639  1841 net.cpp:408] relu1 <- ip1
I0428 20:21:53.318642  1841 net.cpp:369] relu1 -> ip1 (in-place)
I0428 20:21:53.318804  1841 net.cpp:124] Setting up relu1
I0428 20:21:53.318812  1841 net.cpp:131] Top shape: 100 25 (2500)
I0428 20:21:53.318815  1841 net.cpp:139] Memory required for data: 16334800
I0428 20:21:53.318819  1841 layer_factory.hpp:77] Creating layer ip2
I0428 20:21:53.318825  1841 net.cpp:86] Creating Layer ip2
I0428 20:21:53.318828  1841 net.cpp:408] ip2 <- ip1
I0428 20:21:53.318835  1841 net.cpp:382] ip2 -> ip2
I0428 20:21:53.318949  1841 net.cpp:124] Setting up ip2
I0428 20:21:53.318956  1841 net.cpp:131] Top shape: 100 50 (5000)
I0428 20:21:53.318958  1841 net.cpp:139] Memory required for data: 16354800
I0428 20:21:53.318964  1841 layer_factory.hpp:77] Creating layer relu2
I0428 20:21:53.318969  1841 net.cpp:86] Creating Layer relu2
I0428 20:21:53.318972  1841 net.cpp:408] relu2 <- ip2
I0428 20:21:53.318976  1841 net.cpp:369] relu2 -> ip2 (in-place)
I0428 20:21:53.319197  1841 net.cpp:124] Setting up relu2
I0428 20:21:53.319205  1841 net.cpp:131] Top shape: 100 50 (5000)
I0428 20:21:53.319209  1841 net.cpp:139] Memory required for data: 16374800
I0428 20:21:53.319212  1841 layer_factory.hpp:77] Creating layer ip3
I0428 20:21:53.319218  1841 net.cpp:86] Creating Layer ip3
I0428 20:21:53.319221  1841 net.cpp:408] ip3 <- ip2
I0428 20:21:53.319227  1841 net.cpp:382] ip3 -> ip3
I0428 20:21:53.319342  1841 net.cpp:124] Setting up ip3
I0428 20:21:53.319350  1841 net.cpp:131] Top shape: 100 10 (1000)
I0428 20:21:53.319352  1841 net.cpp:139] Memory required for data: 16378800
I0428 20:21:53.319360  1841 layer_factory.hpp:77] Creating layer relu3
I0428 20:21:53.319365  1841 net.cpp:86] Creating Layer relu3
I0428 20:21:53.319367  1841 net.cpp:408] relu3 <- ip3
I0428 20:21:53.319371  1841 net.cpp:369] relu3 -> ip3 (in-place)
I0428 20:21:53.320271  1841 net.cpp:124] Setting up relu3
I0428 20:21:53.320282  1841 net.cpp:131] Top shape: 100 10 (1000)
I0428 20:21:53.320302  1841 net.cpp:139] Memory required for data: 16382800
I0428 20:21:53.320304  1841 layer_factory.hpp:77] Creating layer ip3_relu3_0_split
I0428 20:21:53.320309  1841 net.cpp:86] Creating Layer ip3_relu3_0_split
I0428 20:21:53.320312  1841 net.cpp:408] ip3_relu3_0_split <- ip3
I0428 20:21:53.320318  1841 net.cpp:382] ip3_relu3_0_split -> ip3_relu3_0_split_0
I0428 20:21:53.320324  1841 net.cpp:382] ip3_relu3_0_split -> ip3_relu3_0_split_1
I0428 20:21:53.320361  1841 net.cpp:124] Setting up ip3_relu3_0_split
I0428 20:21:53.320368  1841 net.cpp:131] Top shape: 100 10 (1000)
I0428 20:21:53.320371  1841 net.cpp:131] Top shape: 100 10 (1000)
I0428 20:21:53.320374  1841 net.cpp:139] Memory required for data: 16390800
I0428 20:21:53.320377  1841 layer_factory.hpp:77] Creating layer accuracy
I0428 20:21:53.320381  1841 net.cpp:86] Creating Layer accuracy
I0428 20:21:53.320384  1841 net.cpp:408] accuracy <- ip3_relu3_0_split_0
I0428 20:21:53.320389  1841 net.cpp:408] accuracy <- label_mnist_1_split_0
I0428 20:21:53.320392  1841 net.cpp:382] accuracy -> accuracy
…
