…
I0428 20:37:18.994206  4922 net.cpp:296] The NetState phase (0) differed from the phase (1) specified by a rule in layer mnist
I0428 20:37:18.994226  4922 net.cpp:296] The NetState phase (0) differed from the phase (1) specified by a rule in layer accuracy
I0428 20:37:18.994300  4922 net.cpp:53] Initializing net from parameters: 
name: "LeNet"
state {
  phase: TRAIN
  level: 0
  stage: ""
}
layer {
  name: "mnist"
  type: "Data"
  top: "data"
  top: "label"
  include {
    phase: TRAIN
  }
  transform_param {
    scale: 0.00390625
  }
  data_param {
    source: "examples/mnist/mnist_train_lmdb"
    batch_size: 64
    backend: LMDB
  }
}
layer {
  name: "conv0"
  type: "Convolution"
  bottom: "data"
  top: "conv0"
  param {
    lr_mult: 1
  }
  param {
    lr_mult: 2
  }
  convolution_param {
    num_output: 100
    kernel_size: 5
    stride: 1
    weight_filler {
      type: "xavier"
    }
    bias_filler {
      type: "constant"
    }
  }
}
layer {
  name: "pool0"
  type: "Pooling"
  bottom: "conv0"
  top: "pool0"
  pooling_param {
    pool: MAX
    kernel_size: 2
    stride: 2
  }
}
layer {
  name: "conv1"
  type: "Convolution"
  bottom: "pool0"
  top: "conv1"
  param {
    lr_mult: 1
  }
  param {
    lr_mult: 2
  }
  convolution_param {
    num_output: 100
    kernel_size: 5
    stride: 1
    weight_filler {
      type: "xavier"
    }
    bias_filler {
      type: "constant"
    }
  }
}
layer {
  name: "pool1"
  type: "Pooling"
  bottom: "conv1"
  top: "pool1"
  pooling_param {
    pool: MAX
    kernel_size: 2
    stride: 2
  }
}
layer {
  name: "ip1"
  type: "InnerProduct"
  bottom: "pool1"
  top: "ip1"
  param {
    lr_mult: 1
  }
  param {
    lr_mult: 2
  }
  inner_product_param {
    num_output: 50
    weight_filler {
      type: "xavier"
    }
    bias_filler {
      type: "constant"
    }
  }
}
layer {
  name: "relu1"
  type: "ReLU"
  bottom: "ip1"
  top: "ip1"
}
layer {
  name: "ip2"
  type: "InnerProduct"
  bottom: "ip1"
  top: "ip2"
  param {
    lr_mult: 1
  }
  param {
    lr_mult: 2
  }
  inner_product_param {
    num_output: 10
    weight_filler {
      type: "xavier"
    }
    bias_filler {
      type: "constant"
    }
  }
}
layer {
  name: "relu2"
  type: "ReLU"
  bottom: "ip2"
  top: "ip2"
}
layer {
  name: "loss"
  type: "SoftmaxWithLoss"
  bottom: "ip2"
  bottom: "label"
  top: "loss"
}
I0428 20:37:18.994364  4922 layer_factory.hpp:77] Creating layer mnist
I0428 20:37:18.994451  4922 db_lmdb.cpp:35] Opened lmdb examples/mnist/mnist_train_lmdb
I0428 20:37:18.994469  4922 net.cpp:86] Creating Layer mnist
I0428 20:37:18.994478  4922 net.cpp:382] mnist -> data
I0428 20:37:18.994496  4922 net.cpp:382] mnist -> label
I0428 20:37:18.995406  4922 data_layer.cpp:45] output data size: 64,1,28,28
I0428 20:37:18.997653  4922 net.cpp:124] Setting up mnist
I0428 20:37:18.997668  4922 net.cpp:131] Top shape: 64 1 28 28 (50176)
I0428 20:37:18.997673  4922 net.cpp:131] Top shape: 64 (64)
I0428 20:37:18.997676  4922 net.cpp:139] Memory required for data: 200960
I0428 20:37:18.997683  4922 layer_factory.hpp:77] Creating layer conv0
I0428 20:37:18.997697  4922 net.cpp:86] Creating Layer conv0
I0428 20:37:18.997702  4922 net.cpp:408] conv0 <- data
I0428 20:37:18.997714  4922 net.cpp:382] conv0 -> conv0
I0428 20:37:19.230702  4922 net.cpp:124] Setting up conv0
I0428 20:37:19.230743  4922 net.cpp:131] Top shape: 64 100 24 24 (3686400)
I0428 20:37:19.230747  4922 net.cpp:139] Memory required for data: 14946560
I0428 20:37:19.230798  4922 layer_factory.hpp:77] Creating layer pool0
I0428 20:37:19.230810  4922 net.cpp:86] Creating Layer pool0
I0428 20:37:19.230814  4922 net.cpp:408] pool0 <- conv0
I0428 20:37:19.230820  4922 net.cpp:382] pool0 -> pool0
I0428 20:37:19.230867  4922 net.cpp:124] Setting up pool0
I0428 20:37:19.230875  4922 net.cpp:131] Top shape: 64 100 12 12 (921600)
I0428 20:37:19.230878  4922 net.cpp:139] Memory required for data: 18632960
I0428 20:37:19.230881  4922 layer_factory.hpp:77] Creating layer conv1
I0428 20:37:19.230892  4922 net.cpp:86] Creating Layer conv1
I0428 20:37:19.230898  4922 net.cpp:408] conv1 <- pool0
I0428 20:37:19.230918  4922 net.cpp:382] conv1 -> conv1
I0428 20:37:19.235286  4922 net.cpp:124] Setting up conv1
I0428 20:37:19.235301  4922 net.cpp:131] Top shape: 64 100 8 8 (409600)
I0428 20:37:19.235306  4922 net.cpp:139] Memory required for data: 20271360
I0428 20:37:19.235313  4922 layer_factory.hpp:77] Creating layer pool1
I0428 20:37:19.235321  4922 net.cpp:86] Creating Layer pool1
I0428 20:37:19.235324  4922 net.cpp:408] pool1 <- conv1
I0428 20:37:19.235329  4922 net.cpp:382] pool1 -> pool1
I0428 20:37:19.235381  4922 net.cpp:124] Setting up pool1
I0428 20:37:19.235389  4922 net.cpp:131] Top shape: 64 100 4 4 (102400)
I0428 20:37:19.235393  4922 net.cpp:139] Memory required for data: 20680960
I0428 20:37:19.235395  4922 layer_factory.hpp:77] Creating layer ip1
I0428 20:37:19.235402  4922 net.cpp:86] Creating Layer ip1
I0428 20:37:19.235405  4922 net.cpp:408] ip1 <- pool1
I0428 20:37:19.235410  4922 net.cpp:382] ip1 -> ip1
I0428 20:37:19.235990  4922 net.cpp:124] Setting up ip1
I0428 20:37:19.235998  4922 net.cpp:131] Top shape: 64 50 (3200)
I0428 20:37:19.236016  4922 net.cpp:139] Memory required for data: 20693760
I0428 20:37:19.236024  4922 layer_factory.hpp:77] Creating layer relu1
I0428 20:37:19.236029  4922 net.cpp:86] Creating Layer relu1
I0428 20:37:19.236032  4922 net.cpp:408] relu1 <- ip1
I0428 20:37:19.236037  4922 net.cpp:369] relu1 -> ip1 (in-place)
I0428 20:37:19.236205  4922 net.cpp:124] Setting up relu1
I0428 20:37:19.236230  4922 net.cpp:131] Top shape: 64 50 (3200)
I0428 20:37:19.236233  4922 net.cpp:139] Memory required for data: 20706560
I0428 20:37:19.236238  4922 layer_factory.hpp:77] Creating layer ip2
I0428 20:37:19.236243  4922 net.cpp:86] Creating Layer ip2
I0428 20:37:19.236246  4922 net.cpp:408] ip2 <- ip1
I0428 20:37:19.236251  4922 net.cpp:382] ip2 -> ip2
I0428 20:37:19.236367  4922 net.cpp:124] Setting up ip2
I0428 20:37:19.236376  4922 net.cpp:131] Top shape: 64 10 (640)
I0428 20:37:19.236378  4922 net.cpp:139] Memory required for data: 20709120
I0428 20:37:19.236383  4922 layer_factory.hpp:77] Creating layer relu2
I0428 20:37:19.236389  4922 net.cpp:86] Creating Layer relu2
I0428 20:37:19.236392  4922 net.cpp:408] relu2 <- ip2
I0428 20:37:19.236397  4922 net.cpp:369] relu2 -> ip2 (in-place)
I0428 20:37:19.237190  4922 net.cpp:124] Setting up relu2
I0428 20:37:19.237203  4922 net.cpp:131] Top shape: 64 10 (640)
I0428 20:37:19.237222  4922 net.cpp:139] Memory required for data: 20711680
I0428 20:37:19.237226  4922 layer_factory.hpp:77] Creating layer loss
I0428 20:37:19.237232  4922 net.cpp:86] Creating Layer loss
I0428 20:37:19.237236  4922 net.cpp:408] loss <- ip2
I0428 20:37:19.237241  4922 net.cpp:408] loss <- label
I0428 20:37:19.237246  4922 net.cpp:382] loss -> loss
I0428 20:37:19.237267  4922 layer_factory.hpp:77] Creating layer loss
…
I0428 20:37:19.237931  4922 solver.cpp:173] Creating test net (#0) specified by net file: ECE595/mnist/train_test/var_everything2/lenet_train_test1649.prototxt
I0428 20:37:19.237957  4922 net.cpp:296] The NetState phase (1) differed from the phase (0) specified by a rule in layer mnist
I0428 20:37:19.238041  4922 net.cpp:53] Initializing net from parameters: 
name: "LeNet"
state {
  phase: TEST
}
layer {
  name: "mnist"
  type: "Data"
  top: "data"
  top: "label"
  include {
    phase: TEST
  }
  transform_param {
    scale: 0.00390625
  }
  data_param {
    source: "examples/mnist/mnist_test_lmdb"
    batch_size: 100
    backend: LMDB
  }
}
layer {
  name: "conv0"
  type: "Convolution"
  bottom: "data"
  top: "conv0"
  param {
    lr_mult: 1
  }
  param {
    lr_mult: 2
  }
  convolution_param {
    num_output: 100
    kernel_size: 5
    stride: 1
    weight_filler {
      type: "xavier"
    }
    bias_filler {
      type: "constant"
    }
  }
}
layer {
  name: "pool0"
  type: "Pooling"
  bottom: "conv0"
  top: "pool0"
  pooling_param {
    pool: MAX
    kernel_size: 2
    stride: 2
  }
}
layer {
  name: "conv1"
  type: "Convolution"
  bottom: "pool0"
  top: "conv1"
  param {
    lr_mult: 1
  }
  param {
    lr_mult: 2
  }
  convolution_param {
    num_output: 100
    kernel_size: 5
    stride: 1
    weight_filler {
      type: "xavier"
    }
    bias_filler {
      type: "constant"
    }
  }
}
layer {
  name: "pool1"
  type: "Pooling"
  bottom: "conv1"
  top: "pool1"
  pooling_param {
    pool: MAX
    kernel_size: 2
    stride: 2
  }
}
layer {
  name: "ip1"
  type: "InnerProduct"
  bottom: "pool1"
  top: "ip1"
  param {
    lr_mult: 1
  }
  param {
    lr_mult: 2
  }
  inner_product_param {
    num_output: 50
    weight_filler {
      type: "xavier"
    }
    bias_filler {
      type: "constant"
    }
  }
}
layer {
  name: "relu1"
  type: "ReLU"
  bottom: "ip1"
  top: "ip1"
}
layer {
  name: "ip2"
  type: "InnerProduct"
  bottom: "ip1"
  top: "ip2"
  param {
    lr_mult: 1
  }
  param {
    lr_mult: 2
  }
  inner_product_param {
    num_output: 10
    weight_filler {
      type: "xavier"
    }
    bias_filler {
      type: "constant"
    }
  }
}
layer {
  name: "relu2"
  type: "ReLU"
  bottom: "ip2"
  top: "ip2"
}
layer {
  name: "accuracy"
  type: "Accuracy"
  bottom: "ip2"
  bottom: "label"
  top: "accuracy"
  include {
    phase: TEST
  }
}
layer {
  name: "loss"
  type: "SoftmaxWithLoss"
  bottom: "ip2"
  bottom: "label"
  top: "loss"
}
I0428 20:37:19.238106  4922 layer_factory.hpp:77] Creating layer mnist
I0428 20:37:19.238150  4922 db_lmdb.cpp:35] Opened lmdb examples/mnist/mnist_test_lmdb
I0428 20:37:19.238162  4922 net.cpp:86] Creating Layer mnist
I0428 20:37:19.238167  4922 net.cpp:382] mnist -> data
I0428 20:37:19.238173  4922 net.cpp:382] mnist -> label
I0428 20:37:19.238261  4922 data_layer.cpp:45] output data size: 100,1,28,28
I0428 20:37:19.240363  4922 net.cpp:124] Setting up mnist
I0428 20:37:19.240392  4922 net.cpp:131] Top shape: 100 1 28 28 (78400)
I0428 20:37:19.240397  4922 net.cpp:131] Top shape: 100 (100)
I0428 20:37:19.240401  4922 net.cpp:139] Memory required for data: 314000
I0428 20:37:19.240406  4922 layer_factory.hpp:77] Creating layer label_mnist_1_split
I0428 20:37:19.240412  4922 net.cpp:86] Creating Layer label_mnist_1_split
I0428 20:37:19.240417  4922 net.cpp:408] label_mnist_1_split <- label
I0428 20:37:19.240422  4922 net.cpp:382] label_mnist_1_split -> label_mnist_1_split_0
I0428 20:37:19.240427  4922 net.cpp:382] label_mnist_1_split -> label_mnist_1_split_1
I0428 20:37:19.240507  4922 net.cpp:124] Setting up label_mnist_1_split
I0428 20:37:19.240515  4922 net.cpp:131] Top shape: 100 (100)
I0428 20:37:19.240520  4922 net.cpp:131] Top shape: 100 (100)
I0428 20:37:19.240523  4922 net.cpp:139] Memory required for data: 314800
I0428 20:37:19.240526  4922 layer_factory.hpp:77] Creating layer conv0
I0428 20:37:19.240535  4922 net.cpp:86] Creating Layer conv0
I0428 20:37:19.240538  4922 net.cpp:408] conv0 <- data
I0428 20:37:19.240543  4922 net.cpp:382] conv0 -> conv0
I0428 20:37:19.242400  4922 net.cpp:124] Setting up conv0
I0428 20:37:19.242429  4922 net.cpp:131] Top shape: 100 100 24 24 (5760000)
I0428 20:37:19.242434  4922 net.cpp:139] Memory required for data: 23354800
I0428 20:37:19.242442  4922 layer_factory.hpp:77] Creating layer pool0
I0428 20:37:19.242450  4922 net.cpp:86] Creating Layer pool0
I0428 20:37:19.242453  4922 net.cpp:408] pool0 <- conv0
I0428 20:37:19.242458  4922 net.cpp:382] pool0 -> pool0
I0428 20:37:19.242511  4922 net.cpp:124] Setting up pool0
I0428 20:37:19.242517  4922 net.cpp:131] Top shape: 100 100 12 12 (1440000)
I0428 20:37:19.242521  4922 net.cpp:139] Memory required for data: 29114800
I0428 20:37:19.242523  4922 layer_factory.hpp:77] Creating layer conv1
I0428 20:37:19.242532  4922 net.cpp:86] Creating Layer conv1
I0428 20:37:19.242535  4922 net.cpp:408] conv1 <- pool0
I0428 20:37:19.242540  4922 net.cpp:382] conv1 -> conv1
I0428 20:37:19.245450  4922 net.cpp:124] Setting up conv1
I0428 20:37:19.245463  4922 net.cpp:131] Top shape: 100 100 8 8 (640000)
I0428 20:37:19.245482  4922 net.cpp:139] Memory required for data: 31674800
I0428 20:37:19.245491  4922 layer_factory.hpp:77] Creating layer pool1
I0428 20:37:19.245497  4922 net.cpp:86] Creating Layer pool1
I0428 20:37:19.245501  4922 net.cpp:408] pool1 <- conv1
I0428 20:37:19.245507  4922 net.cpp:382] pool1 -> pool1
I0428 20:37:19.245543  4922 net.cpp:124] Setting up pool1
I0428 20:37:19.245549  4922 net.cpp:131] Top shape: 100 100 4 4 (160000)
I0428 20:37:19.245553  4922 net.cpp:139] Memory required for data: 32314800
I0428 20:37:19.245556  4922 layer_factory.hpp:77] Creating layer ip1
I0428 20:37:19.245563  4922 net.cpp:86] Creating Layer ip1
I0428 20:37:19.245565  4922 net.cpp:408] ip1 <- pool1
I0428 20:37:19.245570  4922 net.cpp:382] ip1 -> ip1
I0428 20:37:19.246150  4922 net.cpp:124] Setting up ip1
I0428 20:37:19.246158  4922 net.cpp:131] Top shape: 100 50 (5000)
I0428 20:37:19.246177  4922 net.cpp:139] Memory required for data: 32334800
I0428 20:37:19.246184  4922 layer_factory.hpp:77] Creating layer relu1
I0428 20:37:19.246189  4922 net.cpp:86] Creating Layer relu1
I0428 20:37:19.246194  4922 net.cpp:408] relu1 <- ip1
I0428 20:37:19.246199  4922 net.cpp:369] relu1 -> ip1 (in-place)
I0428 20:37:19.246390  4922 net.cpp:124] Setting up relu1
I0428 20:37:19.246415  4922 net.cpp:131] Top shape: 100 50 (5000)
I0428 20:37:19.246419  4922 net.cpp:139] Memory required for data: 32354800
I0428 20:37:19.246438  4922 layer_factory.hpp:77] Creating layer ip2
I0428 20:37:19.246445  4922 net.cpp:86] Creating Layer ip2
I0428 20:37:19.246448  4922 net.cpp:408] ip2 <- ip1
I0428 20:37:19.246454  4922 net.cpp:382] ip2 -> ip2
I0428 20:37:19.246594  4922 net.cpp:124] Setting up ip2
I0428 20:37:19.246603  4922 net.cpp:131] Top shape: 100 10 (1000)
I0428 20:37:19.246606  4922 net.cpp:139] Memory required for data: 32358800
I0428 20:37:19.246613  4922 layer_factory.hpp:77] Creating layer relu2
I0428 20:37:19.246616  4922 net.cpp:86] Creating Layer relu2
I0428 20:37:19.246619  4922 net.cpp:408] relu2 <- ip2
I0428 20:37:19.246624  4922 net.cpp:369] relu2 -> ip2 (in-place)
I0428 20:37:19.246778  4922 net.cpp:124] Setting up relu2
I0428 20:37:19.246786  4922 net.cpp:131] Top shape: 100 10 (1000)
I0428 20:37:19.246790  4922 net.cpp:139] Memory required for data: 32362800
I0428 20:37:19.246793  4922 layer_factory.hpp:77] Creating layer ip2_relu2_0_split
I0428 20:37:19.246798  4922 net.cpp:86] Creating Layer ip2_relu2_0_split
I0428 20:37:19.246801  4922 net.cpp:408] ip2_relu2_0_split <- ip2
I0428 20:37:19.246805  4922 net.cpp:382] ip2_relu2_0_split -> ip2_relu2_0_split_0
I0428 20:37:19.246836  4922 net.cpp:382] ip2_relu2_0_split -> ip2_relu2_0_split_1
I0428 20:37:19.246870  4922 net.cpp:124] Setting up ip2_relu2_0_split
I0428 20:37:19.246877  4922 net.cpp:131] Top shape: 100 10 (1000)
I0428 20:37:19.246881  4922 net.cpp:131] Top shape: 100 10 (1000)
I0428 20:37:19.246884  4922 net.cpp:139] Memory required for data: 32370800
I0428 20:37:19.246886  4922 layer_factory.hpp:77] Creating layer accuracy
I0428 20:37:19.246891  4922 net.cpp:86] Creating Layer accuracy
I0428 20:37:19.246896  4922 net.cpp:408] accuracy <- ip2_relu2_0_split_0
I0428 20:37:19.246899  4922 net.cpp:408] accuracy <- label_mnist_1_split_0
I0428 20:37:19.246903  4922 net.cpp:382] accuracy -> accuracy
…
