…
I0428 19:35:36.135995 23534 net.cpp:296] The NetState phase (0) differed from the phase (1) specified by a rule in layer mnist
I0428 19:35:36.136013 23534 net.cpp:296] The NetState phase (0) differed from the phase (1) specified by a rule in layer accuracy
I0428 19:35:36.136099 23534 net.cpp:53] Initializing net from parameters: 
name: "LeNet"
state {
  phase: TRAIN
  level: 0
  stage: ""
}
layer {
  name: "mnist"
  type: "Data"
  top: "data"
  top: "label"
  include {
    phase: TRAIN
  }
  transform_param {
    scale: 0.00390625
  }
  data_param {
    source: "examples/mnist/mnist_train_lmdb"
    batch_size: 64
    backend: LMDB
  }
}
layer {
  name: "conv0"
  type: "Convolution"
  bottom: "data"
  top: "conv0"
  param {
    lr_mult: 1
  }
  param {
    lr_mult: 2
  }
  convolution_param {
    num_output: 50
    kernel_size: 5
    stride: 1
    weight_filler {
      type: "xavier"
    }
    bias_filler {
      type: "constant"
    }
  }
}
layer {
  name: "pool0"
  type: "Pooling"
  bottom: "conv0"
  top: "pool0"
  pooling_param {
    pool: MAX
    kernel_size: 2
    stride: 2
  }
}
layer {
  name: "ip1"
  type: "InnerProduct"
  bottom: "pool0"
  top: "ip1"
  param {
    lr_mult: 1
  }
  param {
    lr_mult: 2
  }
  inner_product_param {
    num_output: 50
    weight_filler {
      type: "xavier"
    }
    bias_filler {
      type: "constant"
    }
  }
}
layer {
  name: "relu1"
  type: "ReLU"
  bottom: "ip1"
  top: "ip1"
}
layer {
  name: "ip2"
  type: "InnerProduct"
  bottom: "ip1"
  top: "ip2"
  param {
    lr_mult: 1
  }
  param {
    lr_mult: 2
  }
  inner_product_param {
    num_output: 25
    weight_filler {
      type: "xavier"
    }
    bias_filler {
      type: "constant"
    }
  }
}
layer {
  name: "relu2"
  type: "ReLU"
  bottom: "ip2"
  top: "ip2"
}
layer {
  name: "ip3"
  type: "InnerProduct"
  bottom: "ip2"
  top: "ip3"
  param {
    lr_mult: 1
  }
  param {
    lr_mult: 2
  }
  inner_product_param {
    num_output: 10
    weight_filler {
      type: "xavier"
    }
    bias_filler {
      type: "constant"
    }
  }
}
layer {
  name: "relu3"
  type: "ReLU"
  bottom: "ip3"
  top: "ip3"
}
layer {
  name: "loss"
  type: "SoftmaxWithLoss"
  bottom: "ip3"
  bottom: "label"
  top: "loss"
}
I0428 19:35:36.136174 23534 layer_factory.hpp:77] Creating layer mnist
I0428 19:35:36.136274 23534 db_lmdb.cpp:35] Opened lmdb examples/mnist/mnist_train_lmdb
I0428 19:35:36.136297 23534 net.cpp:86] Creating Layer mnist
I0428 19:35:36.136306 23534 net.cpp:382] mnist -> data
I0428 19:35:36.136328 23534 net.cpp:382] mnist -> label
I0428 19:35:36.137435 23534 data_layer.cpp:45] output data size: 64,1,28,28
I0428 19:35:36.139873 23534 net.cpp:124] Setting up mnist
I0428 19:35:36.139890 23534 net.cpp:131] Top shape: 64 1 28 28 (50176)
I0428 19:35:36.139896 23534 net.cpp:131] Top shape: 64 (64)
I0428 19:35:36.139899 23534 net.cpp:139] Memory required for data: 200960
I0428 19:35:36.139909 23534 layer_factory.hpp:77] Creating layer conv0
I0428 19:35:36.139963 23534 net.cpp:86] Creating Layer conv0
I0428 19:35:36.139969 23534 net.cpp:408] conv0 <- data
I0428 19:35:36.139981 23534 net.cpp:382] conv0 -> conv0
I0428 19:35:36.427104 23534 net.cpp:124] Setting up conv0
I0428 19:35:36.427134 23534 net.cpp:131] Top shape: 64 50 24 24 (1843200)
I0428 19:35:36.427137 23534 net.cpp:139] Memory required for data: 7573760
I0428 19:35:36.427152 23534 layer_factory.hpp:77] Creating layer pool0
I0428 19:35:36.427166 23534 net.cpp:86] Creating Layer pool0
I0428 19:35:36.427186 23534 net.cpp:408] pool0 <- conv0
I0428 19:35:36.427192 23534 net.cpp:382] pool0 -> pool0
I0428 19:35:36.427242 23534 net.cpp:124] Setting up pool0
I0428 19:35:36.427250 23534 net.cpp:131] Top shape: 64 50 12 12 (460800)
I0428 19:35:36.427254 23534 net.cpp:139] Memory required for data: 9416960
I0428 19:35:36.427258 23534 layer_factory.hpp:77] Creating layer ip1
I0428 19:35:36.427265 23534 net.cpp:86] Creating Layer ip1
I0428 19:35:36.427268 23534 net.cpp:408] ip1 <- pool0
I0428 19:35:36.427273 23534 net.cpp:382] ip1 -> ip1
I0428 19:35:36.430274 23534 net.cpp:124] Setting up ip1
I0428 19:35:36.430287 23534 net.cpp:131] Top shape: 64 50 (3200)
I0428 19:35:36.430291 23534 net.cpp:139] Memory required for data: 9429760
I0428 19:35:36.430315 23534 layer_factory.hpp:77] Creating layer relu1
I0428 19:35:36.430322 23534 net.cpp:86] Creating Layer relu1
I0428 19:35:36.430326 23534 net.cpp:408] relu1 <- ip1
I0428 19:35:36.430330 23534 net.cpp:369] relu1 -> ip1 (in-place)
I0428 19:35:36.430517 23534 net.cpp:124] Setting up relu1
I0428 19:35:36.430526 23534 net.cpp:131] Top shape: 64 50 (3200)
I0428 19:35:36.430529 23534 net.cpp:139] Memory required for data: 9442560
I0428 19:35:36.430532 23534 layer_factory.hpp:77] Creating layer ip2
I0428 19:35:36.430539 23534 net.cpp:86] Creating Layer ip2
I0428 19:35:36.430542 23534 net.cpp:408] ip2 <- ip1
I0428 19:35:36.430547 23534 net.cpp:382] ip2 -> ip2
I0428 19:35:36.430651 23534 net.cpp:124] Setting up ip2
I0428 19:35:36.430658 23534 net.cpp:131] Top shape: 64 25 (1600)
I0428 19:35:36.430661 23534 net.cpp:139] Memory required for data: 9448960
I0428 19:35:36.430668 23534 layer_factory.hpp:77] Creating layer relu2
I0428 19:35:36.430673 23534 net.cpp:86] Creating Layer relu2
I0428 19:35:36.430676 23534 net.cpp:408] relu2 <- ip2
I0428 19:35:36.430680 23534 net.cpp:369] relu2 -> ip2 (in-place)
I0428 19:35:36.431439 23534 net.cpp:124] Setting up relu2
I0428 19:35:36.431452 23534 net.cpp:131] Top shape: 64 25 (1600)
I0428 19:35:36.431457 23534 net.cpp:139] Memory required for data: 9455360
I0428 19:35:36.431460 23534 layer_factory.hpp:77] Creating layer ip3
I0428 19:35:36.431468 23534 net.cpp:86] Creating Layer ip3
I0428 19:35:36.431470 23534 net.cpp:408] ip3 <- ip2
I0428 19:35:36.431478 23534 net.cpp:382] ip3 -> ip3
I0428 19:35:36.431609 23534 net.cpp:124] Setting up ip3
I0428 19:35:36.431617 23534 net.cpp:131] Top shape: 64 10 (640)
I0428 19:35:36.431619 23534 net.cpp:139] Memory required for data: 9457920
I0428 19:35:36.431624 23534 layer_factory.hpp:77] Creating layer relu3
I0428 19:35:36.431632 23534 net.cpp:86] Creating Layer relu3
I0428 19:35:36.431635 23534 net.cpp:408] relu3 <- ip3
I0428 19:35:36.431639 23534 net.cpp:369] relu3 -> ip3 (in-place)
I0428 19:35:36.431792 23534 net.cpp:124] Setting up relu3
I0428 19:35:36.431799 23534 net.cpp:131] Top shape: 64 10 (640)
I0428 19:35:36.431802 23534 net.cpp:139] Memory required for data: 9460480
I0428 19:35:36.431805 23534 layer_factory.hpp:77] Creating layer loss
I0428 19:35:36.431816 23534 net.cpp:86] Creating Layer loss
I0428 19:35:36.431819 23534 net.cpp:408] loss <- ip3
I0428 19:35:36.431823 23534 net.cpp:408] loss <- label
I0428 19:35:36.431828 23534 net.cpp:382] loss -> loss
I0428 19:35:36.431841 23534 layer_factory.hpp:77] Creating layer loss
…
I0428 19:35:36.432494 23534 solver.cpp:173] Creating test net (#0) specified by net file: ECE595/mnist/train_test/var_everything2/lenet_train_test228.prototxt
I0428 19:35:36.432523 23534 net.cpp:296] The NetState phase (1) differed from the phase (0) specified by a rule in layer mnist
I0428 19:35:36.432631 23534 net.cpp:53] Initializing net from parameters: 
name: "LeNet"
state {
  phase: TEST
}
layer {
  name: "mnist"
  type: "Data"
  top: "data"
  top: "label"
  include {
    phase: TEST
  }
  transform_param {
    scale: 0.00390625
  }
  data_param {
    source: "examples/mnist/mnist_test_lmdb"
    batch_size: 100
    backend: LMDB
  }
}
layer {
  name: "conv0"
  type: "Convolution"
  bottom: "data"
  top: "conv0"
  param {
    lr_mult: 1
  }
  param {
    lr_mult: 2
  }
  convolution_param {
    num_output: 50
    kernel_size: 5
    stride: 1
    weight_filler {
      type: "xavier"
    }
    bias_filler {
      type: "constant"
    }
  }
}
layer {
  name: "pool0"
  type: "Pooling"
  bottom: "conv0"
  top: "pool0"
  pooling_param {
    pool: MAX
    kernel_size: 2
    stride: 2
  }
}
layer {
  name: "ip1"
  type: "InnerProduct"
  bottom: "pool0"
  top: "ip1"
  param {
    lr_mult: 1
  }
  param {
    lr_mult: 2
  }
  inner_product_param {
    num_output: 50
    weight_filler {
      type: "xavier"
    }
    bias_filler {
      type: "constant"
    }
  }
}
layer {
  name: "relu1"
  type: "ReLU"
  bottom: "ip1"
  top: "ip1"
}
layer {
  name: "ip2"
  type: "InnerProduct"
  bottom: "ip1"
  top: "ip2"
  param {
    lr_mult: 1
  }
  param {
    lr_mult: 2
  }
  inner_product_param {
    num_output: 25
    weight_filler {
      type: "xavier"
    }
    bias_filler {
      type: "constant"
    }
  }
}
layer {
  name: "relu2"
  type: "ReLU"
  bottom: "ip2"
  top: "ip2"
}
layer {
  name: "ip3"
  type: "InnerProduct"
  bottom: "ip2"
  top: "ip3"
  param {
    lr_mult: 1
  }
  param {
    lr_mult: 2
  }
  inner_product_param {
    num_output: 10
    weight_filler {
      type: "xavier"
    }
    bias_filler {
      type: "constant"
    }
  }
}
layer {
  name: "relu3"
  type: "ReLU"
  bottom: "ip3"
  top: "ip3"
}
layer {
  name: "accuracy"
  type: "Accuracy"
  bottom: "ip3"
  bottom: "label"
  top: "accuracy"
  include {
    phase: TEST
  }
}
layer {
  name: "loss"
  type: "SoftmaxWithLoss"
  bottom: "ip3"
  bottom: "label"
  top: "loss"
}
I0428 19:35:36.432741 23534 layer_factory.hpp:77] Creating layer mnist
I0428 19:35:36.432783 23534 db_lmdb.cpp:35] Opened lmdb examples/mnist/mnist_test_lmdb
I0428 19:35:36.432799 23534 net.cpp:86] Creating Layer mnist
I0428 19:35:36.432806 23534 net.cpp:382] mnist -> data
I0428 19:35:36.432828 23534 net.cpp:382] mnist -> label
I0428 19:35:36.432934 23534 data_layer.cpp:45] output data size: 100,1,28,28
I0428 19:35:36.434921 23534 net.cpp:124] Setting up mnist
I0428 19:35:36.434936 23534 net.cpp:131] Top shape: 100 1 28 28 (78400)
I0428 19:35:36.434940 23534 net.cpp:131] Top shape: 100 (100)
I0428 19:35:36.434942 23534 net.cpp:139] Memory required for data: 314000
I0428 19:35:36.434945 23534 layer_factory.hpp:77] Creating layer label_mnist_1_split
I0428 19:35:36.434953 23534 net.cpp:86] Creating Layer label_mnist_1_split
I0428 19:35:36.434957 23534 net.cpp:408] label_mnist_1_split <- label
I0428 19:35:36.434962 23534 net.cpp:382] label_mnist_1_split -> label_mnist_1_split_0
I0428 19:35:36.434969 23534 net.cpp:382] label_mnist_1_split -> label_mnist_1_split_1
I0428 19:35:36.435047 23534 net.cpp:124] Setting up label_mnist_1_split
I0428 19:35:36.435058 23534 net.cpp:131] Top shape: 100 (100)
I0428 19:35:36.435062 23534 net.cpp:131] Top shape: 100 (100)
I0428 19:35:36.435065 23534 net.cpp:139] Memory required for data: 314800
I0428 19:35:36.435077 23534 layer_factory.hpp:77] Creating layer conv0
I0428 19:35:36.435087 23534 net.cpp:86] Creating Layer conv0
I0428 19:35:36.435091 23534 net.cpp:408] conv0 <- data
I0428 19:35:36.435097 23534 net.cpp:382] conv0 -> conv0
I0428 19:35:36.436767 23534 net.cpp:124] Setting up conv0
I0428 19:35:36.436781 23534 net.cpp:131] Top shape: 100 50 24 24 (2880000)
I0428 19:35:36.436785 23534 net.cpp:139] Memory required for data: 11834800
I0428 19:35:36.436794 23534 layer_factory.hpp:77] Creating layer pool0
I0428 19:35:36.436800 23534 net.cpp:86] Creating Layer pool0
I0428 19:35:36.436803 23534 net.cpp:408] pool0 <- conv0
I0428 19:35:36.436815 23534 net.cpp:382] pool0 -> pool0
I0428 19:35:36.436888 23534 net.cpp:124] Setting up pool0
I0428 19:35:36.436894 23534 net.cpp:131] Top shape: 100 50 12 12 (720000)
I0428 19:35:36.436897 23534 net.cpp:139] Memory required for data: 14714800
I0428 19:35:36.436899 23534 layer_factory.hpp:77] Creating layer ip1
I0428 19:35:36.436908 23534 net.cpp:86] Creating Layer ip1
I0428 19:35:36.436910 23534 net.cpp:408] ip1 <- pool0
I0428 19:35:36.436915 23534 net.cpp:382] ip1 -> ip1
I0428 19:35:36.439131 23534 net.cpp:124] Setting up ip1
I0428 19:35:36.439139 23534 net.cpp:131] Top shape: 100 50 (5000)
I0428 19:35:36.439142 23534 net.cpp:139] Memory required for data: 14734800
I0428 19:35:36.439149 23534 layer_factory.hpp:77] Creating layer relu1
I0428 19:35:36.439153 23534 net.cpp:86] Creating Layer relu1
I0428 19:35:36.439157 23534 net.cpp:408] relu1 <- ip1
I0428 19:35:36.439160 23534 net.cpp:369] relu1 -> ip1 (in-place)
I0428 19:35:36.439381 23534 net.cpp:124] Setting up relu1
I0428 19:35:36.439390 23534 net.cpp:131] Top shape: 100 50 (5000)
I0428 19:35:36.439393 23534 net.cpp:139] Memory required for data: 14754800
I0428 19:35:36.439396 23534 layer_factory.hpp:77] Creating layer ip2
I0428 19:35:36.439417 23534 net.cpp:86] Creating Layer ip2
I0428 19:35:36.439421 23534 net.cpp:408] ip2 <- ip1
I0428 19:35:36.439429 23534 net.cpp:382] ip2 -> ip2
I0428 19:35:36.439554 23534 net.cpp:124] Setting up ip2
I0428 19:35:36.439563 23534 net.cpp:131] Top shape: 100 25 (2500)
I0428 19:35:36.439565 23534 net.cpp:139] Memory required for data: 14764800
I0428 19:35:36.439574 23534 layer_factory.hpp:77] Creating layer relu2
I0428 19:35:36.439579 23534 net.cpp:86] Creating Layer relu2
I0428 19:35:36.439584 23534 net.cpp:408] relu2 <- ip2
I0428 19:35:36.439589 23534 net.cpp:369] relu2 -> ip2 (in-place)
I0428 19:35:36.440412 23534 net.cpp:124] Setting up relu2
I0428 19:35:36.440424 23534 net.cpp:131] Top shape: 100 25 (2500)
I0428 19:35:36.440428 23534 net.cpp:139] Memory required for data: 14774800
I0428 19:35:36.440431 23534 layer_factory.hpp:77] Creating layer ip3
I0428 19:35:36.440440 23534 net.cpp:86] Creating Layer ip3
I0428 19:35:36.440444 23534 net.cpp:408] ip3 <- ip2
I0428 19:35:36.440449 23534 net.cpp:382] ip3 -> ip3
I0428 19:35:36.440596 23534 net.cpp:124] Setting up ip3
I0428 19:35:36.440604 23534 net.cpp:131] Top shape: 100 10 (1000)
I0428 19:35:36.440608 23534 net.cpp:139] Memory required for data: 14778800
I0428 19:35:36.440613 23534 layer_factory.hpp:77] Creating layer relu3
I0428 19:35:36.440620 23534 net.cpp:86] Creating Layer relu3
I0428 19:35:36.440623 23534 net.cpp:408] relu3 <- ip3
I0428 19:35:36.440627 23534 net.cpp:369] relu3 -> ip3 (in-place)
I0428 19:35:36.440781 23534 net.cpp:124] Setting up relu3
I0428 19:35:36.440789 23534 net.cpp:131] Top shape: 100 10 (1000)
I0428 19:35:36.440793 23534 net.cpp:139] Memory required for data: 14782800
I0428 19:35:36.440796 23534 layer_factory.hpp:77] Creating layer ip3_relu3_0_split
I0428 19:35:36.440803 23534 net.cpp:86] Creating Layer ip3_relu3_0_split
I0428 19:35:36.440805 23534 net.cpp:408] ip3_relu3_0_split <- ip3
I0428 19:35:36.440815 23534 net.cpp:382] ip3_relu3_0_split -> ip3_relu3_0_split_0
I0428 19:35:36.440838 23534 net.cpp:382] ip3_relu3_0_split -> ip3_relu3_0_split_1
I0428 19:35:36.440892 23534 net.cpp:124] Setting up ip3_relu3_0_split
I0428 19:35:36.440915 23534 net.cpp:131] Top shape: 100 10 (1000)
I0428 19:35:36.440932 23534 net.cpp:131] Top shape: 100 10 (1000)
I0428 19:35:36.440935 23534 net.cpp:139] Memory required for data: 14790800
I0428 19:35:36.440939 23534 layer_factory.hpp:77] Creating layer accuracy
I0428 19:35:36.440945 23534 net.cpp:86] Creating Layer accuracy
I0428 19:35:36.440949 23534 net.cpp:408] accuracy <- ip3_relu3_0_split_0
I0428 19:35:36.440954 23534 net.cpp:408] accuracy <- label_mnist_1_split_0
I0428 19:35:36.440960 23534 net.cpp:382] accuracy -> accuracy
…
