…
I0428 20:11:50.989943 32152 net.cpp:296] The NetState phase (0) differed from the phase (1) specified by a rule in layer mnist
I0428 20:11:50.989958 32152 net.cpp:296] The NetState phase (0) differed from the phase (1) specified by a rule in layer accuracy
I0428 20:11:50.990051 32152 net.cpp:53] Initializing net from parameters: 
name: "LeNet"
state {
  phase: TRAIN
  level: 0
  stage: ""
}
layer {
  name: "mnist"
  type: "Data"
  top: "data"
  top: "label"
  include {
    phase: TRAIN
  }
  transform_param {
    scale: 0.00390625
  }
  data_param {
    source: "examples/mnist/mnist_train_lmdb"
    batch_size: 64
    backend: LMDB
  }
}
layer {
  name: "conv0"
  type: "Convolution"
  bottom: "data"
  top: "conv0"
  param {
    lr_mult: 1
  }
  param {
    lr_mult: 2
  }
  convolution_param {
    num_output: 25
    kernel_size: 5
    stride: 1
    weight_filler {
      type: "xavier"
    }
    bias_filler {
      type: "constant"
    }
  }
}
layer {
  name: "pool0"
  type: "Pooling"
  bottom: "conv0"
  top: "pool0"
  pooling_param {
    pool: MAX
    kernel_size: 2
    stride: 2
  }
}
layer {
  name: "conv1"
  type: "Convolution"
  bottom: "pool0"
  top: "conv1"
  param {
    lr_mult: 1
  }
  param {
    lr_mult: 2
  }
  convolution_param {
    num_output: 50
    kernel_size: 5
    stride: 1
    weight_filler {
      type: "xavier"
    }
    bias_filler {
      type: "constant"
    }
  }
}
layer {
  name: "pool1"
  type: "Pooling"
  bottom: "conv1"
  top: "pool1"
  pooling_param {
    pool: MAX
    kernel_size: 2
    stride: 2
  }
}
layer {
  name: "ip1"
  type: "InnerProduct"
  bottom: "pool1"
  top: "ip1"
  param {
    lr_mult: 1
  }
  param {
    lr_mult: 2
  }
  inner_product_param {
    num_output: 50
    weight_filler {
      type: "xavier"
    }
    bias_filler {
      type: "constant"
    }
  }
}
layer {
  name: "relu1"
  type: "ReLU"
  bottom: "ip1"
  top: "ip1"
}
layer {
  name: "ip2"
  type: "InnerProduct"
  bottom: "ip1"
  top: "ip2"
  param {
    lr_mult: 1
  }
  param {
    lr_mult: 2
  }
  inner_product_param {
    num_output: 50
    weight_filler {
      type: "xavier"
    }
    bias_filler {
      type: "constant"
    }
  }
}
layer {
  name: "relu2"
  type: "ReLU"
  bottom: "ip2"
  top: "ip2"
}
layer {
  name: "ip3"
  type: "InnerProduct"
  bottom: "ip2"
  top: "ip3"
  param {
    lr_mult: 1
  }
  param {
    lr_mult: 2
  }
  inner_product_param {
    num_output: 10
    weight_filler {
      type: "xavier"
    }
    bias_filler {
      type: "constant"
    }
  }
}
layer {
  name: "relu3"
  type: "ReLU"
  bottom: "ip3"
  top: "ip3"
}
layer {
  name: "loss"
  type: "SoftmaxWithLoss"
  bottom: "ip3"
  bottom: "label"
  top: "loss"
}
I0428 20:11:50.990116 32152 layer_factory.hpp:77] Creating layer mnist
I0428 20:11:50.990195 32152 db_lmdb.cpp:35] Opened lmdb examples/mnist/mnist_train_lmdb
I0428 20:11:50.990214 32152 net.cpp:86] Creating Layer mnist
I0428 20:11:50.990221 32152 net.cpp:382] mnist -> data
I0428 20:11:50.990241 32152 net.cpp:382] mnist -> label
I0428 20:11:50.991211 32152 data_layer.cpp:45] output data size: 64,1,28,28
I0428 20:11:50.993207 32152 net.cpp:124] Setting up mnist
I0428 20:11:50.993221 32152 net.cpp:131] Top shape: 64 1 28 28 (50176)
I0428 20:11:50.993227 32152 net.cpp:131] Top shape: 64 (64)
I0428 20:11:50.993229 32152 net.cpp:139] Memory required for data: 200960
I0428 20:11:50.993234 32152 layer_factory.hpp:77] Creating layer conv0
I0428 20:11:50.993247 32152 net.cpp:86] Creating Layer conv0
I0428 20:11:50.993278 32152 net.cpp:408] conv0 <- data
I0428 20:11:50.993289 32152 net.cpp:382] conv0 -> conv0
I0428 20:11:51.222295 32152 net.cpp:124] Setting up conv0
I0428 20:11:51.222337 32152 net.cpp:131] Top shape: 64 25 24 24 (921600)
I0428 20:11:51.222339 32152 net.cpp:139] Memory required for data: 3887360
I0428 20:11:51.222368 32152 layer_factory.hpp:77] Creating layer pool0
I0428 20:11:51.222381 32152 net.cpp:86] Creating Layer pool0
I0428 20:11:51.222384 32152 net.cpp:408] pool0 <- conv0
I0428 20:11:51.222390 32152 net.cpp:382] pool0 -> pool0
I0428 20:11:51.222448 32152 net.cpp:124] Setting up pool0
I0428 20:11:51.222453 32152 net.cpp:131] Top shape: 64 25 12 12 (230400)
I0428 20:11:51.222456 32152 net.cpp:139] Memory required for data: 4808960
I0428 20:11:51.222460 32152 layer_factory.hpp:77] Creating layer conv1
I0428 20:11:51.222470 32152 net.cpp:86] Creating Layer conv1
I0428 20:11:51.222472 32152 net.cpp:408] conv1 <- pool0
I0428 20:11:51.222477 32152 net.cpp:382] conv1 -> conv1
I0428 20:11:51.224493 32152 net.cpp:124] Setting up conv1
I0428 20:11:51.224524 32152 net.cpp:131] Top shape: 64 50 8 8 (204800)
I0428 20:11:51.224527 32152 net.cpp:139] Memory required for data: 5628160
I0428 20:11:51.224535 32152 layer_factory.hpp:77] Creating layer pool1
I0428 20:11:51.224558 32152 net.cpp:86] Creating Layer pool1
I0428 20:11:51.224562 32152 net.cpp:408] pool1 <- conv1
I0428 20:11:51.224566 32152 net.cpp:382] pool1 -> pool1
I0428 20:11:51.224602 32152 net.cpp:124] Setting up pool1
I0428 20:11:51.224608 32152 net.cpp:131] Top shape: 64 50 4 4 (51200)
I0428 20:11:51.224611 32152 net.cpp:139] Memory required for data: 5832960
I0428 20:11:51.224613 32152 layer_factory.hpp:77] Creating layer ip1
I0428 20:11:51.224622 32152 net.cpp:86] Creating Layer ip1
I0428 20:11:51.224623 32152 net.cpp:408] ip1 <- pool1
I0428 20:11:51.224644 32152 net.cpp:382] ip1 -> ip1
I0428 20:11:51.225014 32152 net.cpp:124] Setting up ip1
I0428 20:11:51.225023 32152 net.cpp:131] Top shape: 64 50 (3200)
I0428 20:11:51.225040 32152 net.cpp:139] Memory required for data: 5845760
I0428 20:11:51.225049 32152 layer_factory.hpp:77] Creating layer relu1
I0428 20:11:51.225054 32152 net.cpp:86] Creating Layer relu1
I0428 20:11:51.225059 32152 net.cpp:408] relu1 <- ip1
I0428 20:11:51.225062 32152 net.cpp:369] relu1 -> ip1 (in-place)
I0428 20:11:51.225235 32152 net.cpp:124] Setting up relu1
I0428 20:11:51.225244 32152 net.cpp:131] Top shape: 64 50 (3200)
I0428 20:11:51.225247 32152 net.cpp:139] Memory required for data: 5858560
I0428 20:11:51.225250 32152 layer_factory.hpp:77] Creating layer ip2
I0428 20:11:51.225256 32152 net.cpp:86] Creating Layer ip2
I0428 20:11:51.225260 32152 net.cpp:408] ip2 <- ip1
I0428 20:11:51.225263 32152 net.cpp:382] ip2 -> ip2
I0428 20:11:51.226300 32152 net.cpp:124] Setting up ip2
I0428 20:11:51.226311 32152 net.cpp:131] Top shape: 64 50 (3200)
I0428 20:11:51.226331 32152 net.cpp:139] Memory required for data: 5871360
I0428 20:11:51.226336 32152 layer_factory.hpp:77] Creating layer relu2
I0428 20:11:51.226343 32152 net.cpp:86] Creating Layer relu2
I0428 20:11:51.226347 32152 net.cpp:408] relu2 <- ip2
I0428 20:11:51.226351 32152 net.cpp:369] relu2 -> ip2 (in-place)
I0428 20:11:51.227138 32152 net.cpp:124] Setting up relu2
I0428 20:11:51.227149 32152 net.cpp:131] Top shape: 64 50 (3200)
I0428 20:11:51.227167 32152 net.cpp:139] Memory required for data: 5884160
I0428 20:11:51.227170 32152 layer_factory.hpp:77] Creating layer ip3
I0428 20:11:51.227177 32152 net.cpp:86] Creating Layer ip3
I0428 20:11:51.227180 32152 net.cpp:408] ip3 <- ip2
I0428 20:11:51.227186 32152 net.cpp:382] ip3 -> ip3
I0428 20:11:51.227277 32152 net.cpp:124] Setting up ip3
I0428 20:11:51.227284 32152 net.cpp:131] Top shape: 64 10 (640)
I0428 20:11:51.227286 32152 net.cpp:139] Memory required for data: 5886720
I0428 20:11:51.227294 32152 layer_factory.hpp:77] Creating layer relu3
I0428 20:11:51.227298 32152 net.cpp:86] Creating Layer relu3
I0428 20:11:51.227301 32152 net.cpp:408] relu3 <- ip3
I0428 20:11:51.227305 32152 net.cpp:369] relu3 -> ip3 (in-place)
I0428 20:11:51.227471 32152 net.cpp:124] Setting up relu3
I0428 20:11:51.227480 32152 net.cpp:131] Top shape: 64 10 (640)
I0428 20:11:51.227483 32152 net.cpp:139] Memory required for data: 5889280
I0428 20:11:51.227486 32152 layer_factory.hpp:77] Creating layer loss
I0428 20:11:51.227493 32152 net.cpp:86] Creating Layer loss
I0428 20:11:51.227495 32152 net.cpp:408] loss <- ip3
I0428 20:11:51.227515 32152 net.cpp:408] loss <- label
I0428 20:11:51.227520 32152 net.cpp:382] loss -> loss
I0428 20:11:51.227538 32152 layer_factory.hpp:77] Creating layer loss
…
I0428 20:11:51.228183 32152 solver.cpp:173] Creating test net (#0) specified by net file: ECE595/mnist/train_test/var_everything2/lenet_train_test1168.prototxt
I0428 20:11:51.228224 32152 net.cpp:296] The NetState phase (1) differed from the phase (0) specified by a rule in layer mnist
I0428 20:11:51.228312 32152 net.cpp:53] Initializing net from parameters: 
name: "LeNet"
state {
  phase: TEST
}
layer {
  name: "mnist"
  type: "Data"
  top: "data"
  top: "label"
  include {
    phase: TEST
  }
  transform_param {
    scale: 0.00390625
  }
  data_param {
    source: "examples/mnist/mnist_test_lmdb"
    batch_size: 100
    backend: LMDB
  }
}
layer {
  name: "conv0"
  type: "Convolution"
  bottom: "data"
  top: "conv0"
  param {
    lr_mult: 1
  }
  param {
    lr_mult: 2
  }
  convolution_param {
    num_output: 25
    kernel_size: 5
    stride: 1
    weight_filler {
      type: "xavier"
    }
    bias_filler {
      type: "constant"
    }
  }
}
layer {
  name: "pool0"
  type: "Pooling"
  bottom: "conv0"
  top: "pool0"
  pooling_param {
    pool: MAX
    kernel_size: 2
    stride: 2
  }
}
layer {
  name: "conv1"
  type: "Convolution"
  bottom: "pool0"
  top: "conv1"
  param {
    lr_mult: 1
  }
  param {
    lr_mult: 2
  }
  convolution_param {
    num_output: 50
    kernel_size: 5
    stride: 1
    weight_filler {
      type: "xavier"
    }
    bias_filler {
      type: "constant"
    }
  }
}
layer {
  name: "pool1"
  type: "Pooling"
  bottom: "conv1"
  top: "pool1"
  pooling_param {
    pool: MAX
    kernel_size: 2
    stride: 2
  }
}
layer {
  name: "ip1"
  type: "InnerProduct"
  bottom: "pool1"
  top: "ip1"
  param {
    lr_mult: 1
  }
  param {
    lr_mult: 2
  }
  inner_product_param {
    num_output: 50
    weight_filler {
      type: "xavier"
    }
    bias_filler {
      type: "constant"
    }
  }
}
layer {
  name: "relu1"
  type: "ReLU"
  bottom: "ip1"
  top: "ip1"
}
layer {
  name: "ip2"
  type: "InnerProduct"
  bottom: "ip1"
  top: "ip2"
  param {
    lr_mult: 1
  }
  param {
    lr_mult: 2
  }
  inner_product_param {
    num_output: 50
    weight_filler {
      type: "xavier"
    }
    bias_filler {
      type: "constant"
    }
  }
}
layer {
  name: "relu2"
  type: "ReLU"
  bottom: "ip2"
  top: "ip2"
}
layer {
  name: "ip3"
  type: "InnerProduct"
  bottom: "ip2"
  top: "ip3"
  param {
    lr_mult: 1
  }
  param {
    lr_mult: 2
  }
  inner_product_param {
    num_output: 10
    weight_filler {
      type: "xavier"
    }
    bias_filler {
      type: "constant"
    }
  }
}
layer {
  name: "relu3"
  type: "ReLU"
  bottom: "ip3"
  top: "ip3"
}
layer {
  name: "accuracy"
  type: "Accuracy"
  bottom: "ip3"
  bottom: "label"
  top: "accuracy"
  include {
    phase: TEST
  }
}
layer {
  name: "loss"
  type: "SoftmaxWithLoss"
  bottom: "ip3"
  bottom: "label"
  top: "loss"
}
I0428 20:11:51.228389 32152 layer_factory.hpp:77] Creating layer mnist
I0428 20:11:51.228432 32152 db_lmdb.cpp:35] Opened lmdb examples/mnist/mnist_test_lmdb
I0428 20:11:51.228461 32152 net.cpp:86] Creating Layer mnist
I0428 20:11:51.228464 32152 net.cpp:382] mnist -> data
I0428 20:11:51.228472 32152 net.cpp:382] mnist -> label
I0428 20:11:51.228564 32152 data_layer.cpp:45] output data size: 100,1,28,28
I0428 20:11:51.230608 32152 net.cpp:124] Setting up mnist
I0428 20:11:51.230636 32152 net.cpp:131] Top shape: 100 1 28 28 (78400)
I0428 20:11:51.230640 32152 net.cpp:131] Top shape: 100 (100)
I0428 20:11:51.230644 32152 net.cpp:139] Memory required for data: 314000
I0428 20:11:51.230664 32152 layer_factory.hpp:77] Creating layer label_mnist_1_split
I0428 20:11:51.230696 32152 net.cpp:86] Creating Layer label_mnist_1_split
I0428 20:11:51.230700 32152 net.cpp:408] label_mnist_1_split <- label
I0428 20:11:51.230705 32152 net.cpp:382] label_mnist_1_split -> label_mnist_1_split_0
I0428 20:11:51.230712 32152 net.cpp:382] label_mnist_1_split -> label_mnist_1_split_1
I0428 20:11:51.230751 32152 net.cpp:124] Setting up label_mnist_1_split
I0428 20:11:51.230756 32152 net.cpp:131] Top shape: 100 (100)
I0428 20:11:51.230761 32152 net.cpp:131] Top shape: 100 (100)
I0428 20:11:51.230762 32152 net.cpp:139] Memory required for data: 314800
I0428 20:11:51.230765 32152 layer_factory.hpp:77] Creating layer conv0
I0428 20:11:51.230773 32152 net.cpp:86] Creating Layer conv0
I0428 20:11:51.230777 32152 net.cpp:408] conv0 <- data
I0428 20:11:51.230782 32152 net.cpp:382] conv0 -> conv0
I0428 20:11:51.232504 32152 net.cpp:124] Setting up conv0
I0428 20:11:51.232517 32152 net.cpp:131] Top shape: 100 25 24 24 (1440000)
I0428 20:11:51.232520 32152 net.cpp:139] Memory required for data: 6074800
I0428 20:11:51.232529 32152 layer_factory.hpp:77] Creating layer pool0
I0428 20:11:51.232535 32152 net.cpp:86] Creating Layer pool0
I0428 20:11:51.232538 32152 net.cpp:408] pool0 <- conv0
I0428 20:11:51.232543 32152 net.cpp:382] pool0 -> pool0
I0428 20:11:51.232576 32152 net.cpp:124] Setting up pool0
I0428 20:11:51.232581 32152 net.cpp:131] Top shape: 100 25 12 12 (360000)
I0428 20:11:51.232583 32152 net.cpp:139] Memory required for data: 7514800
I0428 20:11:51.232586 32152 layer_factory.hpp:77] Creating layer conv1
I0428 20:11:51.232594 32152 net.cpp:86] Creating Layer conv1
I0428 20:11:51.232597 32152 net.cpp:408] conv1 <- pool0
I0428 20:11:51.232601 32152 net.cpp:382] conv1 -> conv1
I0428 20:11:51.234441 32152 net.cpp:124] Setting up conv1
I0428 20:11:51.234455 32152 net.cpp:131] Top shape: 100 50 8 8 (320000)
I0428 20:11:51.234459 32152 net.cpp:139] Memory required for data: 8794800
I0428 20:11:51.234467 32152 layer_factory.hpp:77] Creating layer pool1
I0428 20:11:51.234473 32152 net.cpp:86] Creating Layer pool1
I0428 20:11:51.234477 32152 net.cpp:408] pool1 <- conv1
I0428 20:11:51.234483 32152 net.cpp:382] pool1 -> pool1
I0428 20:11:51.234516 32152 net.cpp:124] Setting up pool1
I0428 20:11:51.234521 32152 net.cpp:131] Top shape: 100 50 4 4 (80000)
I0428 20:11:51.234524 32152 net.cpp:139] Memory required for data: 9114800
I0428 20:11:51.234527 32152 layer_factory.hpp:77] Creating layer ip1
I0428 20:11:51.234534 32152 net.cpp:86] Creating Layer ip1
I0428 20:11:51.234536 32152 net.cpp:408] ip1 <- pool1
I0428 20:11:51.234540 32152 net.cpp:382] ip1 -> ip1
I0428 20:11:51.234868 32152 net.cpp:124] Setting up ip1
I0428 20:11:51.234874 32152 net.cpp:131] Top shape: 100 50 (5000)
I0428 20:11:51.234889 32152 net.cpp:139] Memory required for data: 9134800
I0428 20:11:51.234895 32152 layer_factory.hpp:77] Creating layer relu1
I0428 20:11:51.234900 32152 net.cpp:86] Creating Layer relu1
I0428 20:11:51.234904 32152 net.cpp:408] relu1 <- ip1
I0428 20:11:51.234907 32152 net.cpp:369] relu1 -> ip1 (in-place)
I0428 20:11:51.235060 32152 net.cpp:124] Setting up relu1
I0428 20:11:51.235069 32152 net.cpp:131] Top shape: 100 50 (5000)
I0428 20:11:51.235079 32152 net.cpp:139] Memory required for data: 9154800
I0428 20:11:51.235081 32152 layer_factory.hpp:77] Creating layer ip2
I0428 20:11:51.235088 32152 net.cpp:86] Creating Layer ip2
I0428 20:11:51.235097 32152 net.cpp:408] ip2 <- ip1
I0428 20:11:51.235102 32152 net.cpp:382] ip2 -> ip2
I0428 20:11:51.235236 32152 net.cpp:124] Setting up ip2
I0428 20:11:51.235244 32152 net.cpp:131] Top shape: 100 50 (5000)
I0428 20:11:51.235247 32152 net.cpp:139] Memory required for data: 9174800
I0428 20:11:51.235252 32152 layer_factory.hpp:77] Creating layer relu2
I0428 20:11:51.235257 32152 net.cpp:86] Creating Layer relu2
I0428 20:11:51.235260 32152 net.cpp:408] relu2 <- ip2
I0428 20:11:51.235265 32152 net.cpp:369] relu2 -> ip2 (in-place)
I0428 20:11:51.235466 32152 net.cpp:124] Setting up relu2
I0428 20:11:51.235474 32152 net.cpp:131] Top shape: 100 50 (5000)
I0428 20:11:51.235478 32152 net.cpp:139] Memory required for data: 9194800
I0428 20:11:51.235481 32152 layer_factory.hpp:77] Creating layer ip3
I0428 20:11:51.235502 32152 net.cpp:86] Creating Layer ip3
I0428 20:11:51.235504 32152 net.cpp:408] ip3 <- ip2
I0428 20:11:51.235509 32152 net.cpp:382] ip3 -> ip3
I0428 20:11:51.235677 32152 net.cpp:124] Setting up ip3
I0428 20:11:51.235684 32152 net.cpp:131] Top shape: 100 10 (1000)
I0428 20:11:51.235688 32152 net.cpp:139] Memory required for data: 9198800
I0428 20:11:51.235695 32152 layer_factory.hpp:77] Creating layer relu3
I0428 20:11:51.235700 32152 net.cpp:86] Creating Layer relu3
I0428 20:11:51.235703 32152 net.cpp:408] relu3 <- ip3
I0428 20:11:51.235707 32152 net.cpp:369] relu3 -> ip3 (in-place)
I0428 20:11:51.236441 32152 net.cpp:124] Setting up relu3
I0428 20:11:51.236454 32152 net.cpp:131] Top shape: 100 10 (1000)
I0428 20:11:51.236457 32152 net.cpp:139] Memory required for data: 9202800
I0428 20:11:51.236461 32152 layer_factory.hpp:77] Creating layer ip3_relu3_0_split
I0428 20:11:51.236466 32152 net.cpp:86] Creating Layer ip3_relu3_0_split
I0428 20:11:51.236470 32152 net.cpp:408] ip3_relu3_0_split <- ip3
I0428 20:11:51.236475 32152 net.cpp:382] ip3_relu3_0_split -> ip3_relu3_0_split_0
I0428 20:11:51.236490 32152 net.cpp:382] ip3_relu3_0_split -> ip3_relu3_0_split_1
I0428 20:11:51.236527 32152 net.cpp:124] Setting up ip3_relu3_0_split
I0428 20:11:51.236532 32152 net.cpp:131] Top shape: 100 10 (1000)
I0428 20:11:51.236536 32152 net.cpp:131] Top shape: 100 10 (1000)
I0428 20:11:51.236539 32152 net.cpp:139] Memory required for data: 9210800
I0428 20:11:51.236541 32152 layer_factory.hpp:77] Creating layer accuracy
I0428 20:11:51.236547 32152 net.cpp:86] Creating Layer accuracy
I0428 20:11:51.236551 32152 net.cpp:408] accuracy <- ip3_relu3_0_split_0
I0428 20:11:51.236555 32152 net.cpp:408] accuracy <- label_mnist_1_split_0
I0428 20:11:51.236559 32152 net.cpp:382] accuracy -> accuracy
…
