…
I0428 19:57:19.664237 28649 net.cpp:296] The NetState phase (0) differed from the phase (1) specified by a rule in layer mnist
I0428 19:57:19.664250 28649 net.cpp:296] The NetState phase (0) differed from the phase (1) specified by a rule in layer accuracy
I0428 19:57:19.664331 28649 net.cpp:53] Initializing net from parameters: 
name: "LeNet"
state {
  phase: TRAIN
  level: 0
  stage: ""
}
layer {
  name: "mnist"
  type: "Data"
  top: "data"
  top: "label"
  include {
    phase: TRAIN
  }
  transform_param {
    scale: 0.00390625
  }
  data_param {
    source: "examples/mnist/mnist_train_lmdb"
    batch_size: 64
    backend: LMDB
  }
}
layer {
  name: "conv0"
  type: "Convolution"
  bottom: "data"
  top: "conv0"
  param {
    lr_mult: 1
  }
  param {
    lr_mult: 2
  }
  convolution_param {
    num_output: 10
    kernel_size: 5
    stride: 1
    weight_filler {
      type: "xavier"
    }
    bias_filler {
      type: "constant"
    }
  }
}
layer {
  name: "pool0"
  type: "Pooling"
  bottom: "conv0"
  top: "pool0"
  pooling_param {
    pool: MAX
    kernel_size: 2
    stride: 2
  }
}
layer {
  name: "conv1"
  type: "Convolution"
  bottom: "pool0"
  top: "conv1"
  param {
    lr_mult: 1
  }
  param {
    lr_mult: 2
  }
  convolution_param {
    num_output: 5
    kernel_size: 5
    stride: 1
    weight_filler {
      type: "xavier"
    }
    bias_filler {
      type: "constant"
    }
  }
}
layer {
  name: "pool1"
  type: "Pooling"
  bottom: "conv1"
  top: "pool1"
  pooling_param {
    pool: MAX
    kernel_size: 2
    stride: 2
  }
}
layer {
  name: "ip1"
  type: "InnerProduct"
  bottom: "pool1"
  top: "ip1"
  param {
    lr_mult: 1
  }
  param {
    lr_mult: 2
  }
  inner_product_param {
    num_output: 10
    weight_filler {
      type: "xavier"
    }
    bias_filler {
      type: "constant"
    }
  }
}
layer {
  name: "relu1"
  type: "ReLU"
  bottom: "ip1"
  top: "ip1"
}
layer {
  name: "ip2"
  type: "InnerProduct"
  bottom: "ip1"
  top: "ip2"
  param {
    lr_mult: 1
  }
  param {
    lr_mult: 2
  }
  inner_product_param {
    num_output: 10
    weight_filler {
      type: "xavier"
    }
    bias_filler {
      type: "constant"
    }
  }
}
layer {
  name: "relu2"
  type: "ReLU"
  bottom: "ip2"
  top: "ip2"
}
layer {
  name: "loss"
  type: "SoftmaxWithLoss"
  bottom: "ip2"
  bottom: "label"
  top: "loss"
}
I0428 19:57:19.664386 28649 layer_factory.hpp:77] Creating layer mnist
I0428 19:57:19.664465 28649 db_lmdb.cpp:35] Opened lmdb examples/mnist/mnist_train_lmdb
I0428 19:57:19.664484 28649 net.cpp:86] Creating Layer mnist
I0428 19:57:19.664489 28649 net.cpp:382] mnist -> data
I0428 19:57:19.664506 28649 net.cpp:382] mnist -> label
I0428 19:57:19.665509 28649 data_layer.cpp:45] output data size: 64,1,28,28
I0428 19:57:19.667737 28649 net.cpp:124] Setting up mnist
I0428 19:57:19.667768 28649 net.cpp:131] Top shape: 64 1 28 28 (50176)
I0428 19:57:19.667773 28649 net.cpp:131] Top shape: 64 (64)
I0428 19:57:19.667775 28649 net.cpp:139] Memory required for data: 200960
I0428 19:57:19.667781 28649 layer_factory.hpp:77] Creating layer conv0
I0428 19:57:19.667794 28649 net.cpp:86] Creating Layer conv0
I0428 19:57:19.667798 28649 net.cpp:408] conv0 <- data
I0428 19:57:19.667807 28649 net.cpp:382] conv0 -> conv0
I0428 19:57:19.902529 28649 net.cpp:124] Setting up conv0
I0428 19:57:19.902570 28649 net.cpp:131] Top shape: 64 10 24 24 (368640)
I0428 19:57:19.902575 28649 net.cpp:139] Memory required for data: 1675520
I0428 19:57:19.902624 28649 layer_factory.hpp:77] Creating layer pool0
I0428 19:57:19.902638 28649 net.cpp:86] Creating Layer pool0
I0428 19:57:19.902642 28649 net.cpp:408] pool0 <- conv0
I0428 19:57:19.902647 28649 net.cpp:382] pool0 -> pool0
I0428 19:57:19.902710 28649 net.cpp:124] Setting up pool0
I0428 19:57:19.902719 28649 net.cpp:131] Top shape: 64 10 12 12 (92160)
I0428 19:57:19.902721 28649 net.cpp:139] Memory required for data: 2044160
I0428 19:57:19.902724 28649 layer_factory.hpp:77] Creating layer conv1
I0428 19:57:19.902735 28649 net.cpp:86] Creating Layer conv1
I0428 19:57:19.902739 28649 net.cpp:408] conv1 <- pool0
I0428 19:57:19.902743 28649 net.cpp:382] conv1 -> conv1
I0428 19:57:19.905622 28649 net.cpp:124] Setting up conv1
I0428 19:57:19.905652 28649 net.cpp:131] Top shape: 64 5 8 8 (20480)
I0428 19:57:19.905655 28649 net.cpp:139] Memory required for data: 2126080
I0428 19:57:19.905664 28649 layer_factory.hpp:77] Creating layer pool1
I0428 19:57:19.905686 28649 net.cpp:86] Creating Layer pool1
I0428 19:57:19.905689 28649 net.cpp:408] pool1 <- conv1
I0428 19:57:19.905694 28649 net.cpp:382] pool1 -> pool1
I0428 19:57:19.905730 28649 net.cpp:124] Setting up pool1
I0428 19:57:19.905735 28649 net.cpp:131] Top shape: 64 5 4 4 (5120)
I0428 19:57:19.905737 28649 net.cpp:139] Memory required for data: 2146560
I0428 19:57:19.905740 28649 layer_factory.hpp:77] Creating layer ip1
I0428 19:57:19.905747 28649 net.cpp:86] Creating Layer ip1
I0428 19:57:19.905750 28649 net.cpp:408] ip1 <- pool1
I0428 19:57:19.905755 28649 net.cpp:382] ip1 -> ip1
I0428 19:57:19.905844 28649 net.cpp:124] Setting up ip1
I0428 19:57:19.905853 28649 net.cpp:131] Top shape: 64 10 (640)
I0428 19:57:19.905855 28649 net.cpp:139] Memory required for data: 2149120
I0428 19:57:19.905861 28649 layer_factory.hpp:77] Creating layer relu1
I0428 19:57:19.905866 28649 net.cpp:86] Creating Layer relu1
I0428 19:57:19.905869 28649 net.cpp:408] relu1 <- ip1
I0428 19:57:19.905874 28649 net.cpp:369] relu1 -> ip1 (in-place)
I0428 19:57:19.906044 28649 net.cpp:124] Setting up relu1
I0428 19:57:19.906051 28649 net.cpp:131] Top shape: 64 10 (640)
I0428 19:57:19.906054 28649 net.cpp:139] Memory required for data: 2151680
I0428 19:57:19.906057 28649 layer_factory.hpp:77] Creating layer ip2
I0428 19:57:19.906064 28649 net.cpp:86] Creating Layer ip2
I0428 19:57:19.906066 28649 net.cpp:408] ip2 <- ip1
I0428 19:57:19.906070 28649 net.cpp:382] ip2 -> ip2
I0428 19:57:19.906159 28649 net.cpp:124] Setting up ip2
I0428 19:57:19.906167 28649 net.cpp:131] Top shape: 64 10 (640)
I0428 19:57:19.906169 28649 net.cpp:139] Memory required for data: 2154240
I0428 19:57:19.906175 28649 layer_factory.hpp:77] Creating layer relu2
I0428 19:57:19.906180 28649 net.cpp:86] Creating Layer relu2
I0428 19:57:19.906183 28649 net.cpp:408] relu2 <- ip2
I0428 19:57:19.906188 28649 net.cpp:369] relu2 -> ip2 (in-place)
I0428 19:57:19.906993 28649 net.cpp:124] Setting up relu2
I0428 19:57:19.907021 28649 net.cpp:131] Top shape: 64 10 (640)
I0428 19:57:19.907025 28649 net.cpp:139] Memory required for data: 2156800
I0428 19:57:19.907029 28649 layer_factory.hpp:77] Creating layer loss
I0428 19:57:19.907035 28649 net.cpp:86] Creating Layer loss
I0428 19:57:19.907038 28649 net.cpp:408] loss <- ip2
I0428 19:57:19.907043 28649 net.cpp:408] loss <- label
I0428 19:57:19.907048 28649 net.cpp:382] loss -> loss
I0428 19:57:19.907068 28649 layer_factory.hpp:77] Creating layer loss
…
I0428 19:57:19.907681 28649 solver.cpp:173] Creating test net (#0) specified by net file: ECE595/mnist/train_test/var_everything2/lenet_train_test785.prototxt
I0428 19:57:19.907737 28649 net.cpp:296] The NetState phase (1) differed from the phase (0) specified by a rule in layer mnist
I0428 19:57:19.907817 28649 net.cpp:53] Initializing net from parameters: 
name: "LeNet"
state {
  phase: TEST
}
layer {
  name: "mnist"
  type: "Data"
  top: "data"
  top: "label"
  include {
    phase: TEST
  }
  transform_param {
    scale: 0.00390625
  }
  data_param {
    source: "examples/mnist/mnist_test_lmdb"
    batch_size: 100
    backend: LMDB
  }
}
layer {
  name: "conv0"
  type: "Convolution"
  bottom: "data"
  top: "conv0"
  param {
    lr_mult: 1
  }
  param {
    lr_mult: 2
  }
  convolution_param {
    num_output: 10
    kernel_size: 5
    stride: 1
    weight_filler {
      type: "xavier"
    }
    bias_filler {
      type: "constant"
    }
  }
}
layer {
  name: "pool0"
  type: "Pooling"
  bottom: "conv0"
  top: "pool0"
  pooling_param {
    pool: MAX
    kernel_size: 2
    stride: 2
  }
}
layer {
  name: "conv1"
  type: "Convolution"
  bottom: "pool0"
  top: "conv1"
  param {
    lr_mult: 1
  }
  param {
    lr_mult: 2
  }
  convolution_param {
    num_output: 5
    kernel_size: 5
    stride: 1
    weight_filler {
      type: "xavier"
    }
    bias_filler {
      type: "constant"
    }
  }
}
layer {
  name: "pool1"
  type: "Pooling"
  bottom: "conv1"
  top: "pool1"
  pooling_param {
    pool: MAX
    kernel_size: 2
    stride: 2
  }
}
layer {
  name: "ip1"
  type: "InnerProduct"
  bottom: "pool1"
  top: "ip1"
  param {
    lr_mult: 1
  }
  param {
    lr_mult: 2
  }
  inner_product_param {
    num_output: 10
    weight_filler {
      type: "xavier"
    }
    bias_filler {
      type: "constant"
    }
  }
}
layer {
  name: "relu1"
  type: "ReLU"
  bottom: "ip1"
  top: "ip1"
}
layer {
  name: "ip2"
  type: "InnerProduct"
  bottom: "ip1"
  top: "ip2"
  param {
    lr_mult: 1
  }
  param {
    lr_mult: 2
  }
  inner_product_param {
    num_output: 10
    weight_filler {
      type: "xavier"
    }
    bias_filler {
      type: "constant"
    }
  }
}
layer {
  name: "relu2"
  type: "ReLU"
  bottom: "ip2"
  top: "ip2"
}
layer {
  name: "accuracy"
  type: "Accuracy"
  bottom: "ip2"
  bottom: "label"
  top: "accuracy"
  include {
    phase: TEST
  }
}
layer {
  name: "loss"
  type: "SoftmaxWithLoss"
  bottom: "ip2"
  bottom: "label"
  top: "loss"
}
I0428 19:57:19.907878 28649 layer_factory.hpp:77] Creating layer mnist
I0428 19:57:19.907922 28649 db_lmdb.cpp:35] Opened lmdb examples/mnist/mnist_test_lmdb
I0428 19:57:19.907934 28649 net.cpp:86] Creating Layer mnist
I0428 19:57:19.907939 28649 net.cpp:382] mnist -> data
I0428 19:57:19.907946 28649 net.cpp:382] mnist -> label
I0428 19:57:19.908046 28649 data_layer.cpp:45] output data size: 100,1,28,28
I0428 19:57:19.910344 28649 net.cpp:124] Setting up mnist
I0428 19:57:19.910373 28649 net.cpp:131] Top shape: 100 1 28 28 (78400)
I0428 19:57:19.910378 28649 net.cpp:131] Top shape: 100 (100)
I0428 19:57:19.910382 28649 net.cpp:139] Memory required for data: 314000
I0428 19:57:19.910385 28649 layer_factory.hpp:77] Creating layer label_mnist_1_split
I0428 19:57:19.910392 28649 net.cpp:86] Creating Layer label_mnist_1_split
I0428 19:57:19.910396 28649 net.cpp:408] label_mnist_1_split <- label
I0428 19:57:19.910401 28649 net.cpp:382] label_mnist_1_split -> label_mnist_1_split_0
I0428 19:57:19.910408 28649 net.cpp:382] label_mnist_1_split -> label_mnist_1_split_1
I0428 19:57:19.910491 28649 net.cpp:124] Setting up label_mnist_1_split
I0428 19:57:19.910509 28649 net.cpp:131] Top shape: 100 (100)
I0428 19:57:19.910513 28649 net.cpp:131] Top shape: 100 (100)
I0428 19:57:19.910516 28649 net.cpp:139] Memory required for data: 314800
I0428 19:57:19.910519 28649 layer_factory.hpp:77] Creating layer conv0
I0428 19:57:19.910527 28649 net.cpp:86] Creating Layer conv0
I0428 19:57:19.910531 28649 net.cpp:408] conv0 <- data
I0428 19:57:19.910537 28649 net.cpp:382] conv0 -> conv0
I0428 19:57:19.912175 28649 net.cpp:124] Setting up conv0
I0428 19:57:19.912199 28649 net.cpp:131] Top shape: 100 10 24 24 (576000)
I0428 19:57:19.912202 28649 net.cpp:139] Memory required for data: 2618800
I0428 19:57:19.912230 28649 layer_factory.hpp:77] Creating layer pool0
I0428 19:57:19.912255 28649 net.cpp:86] Creating Layer pool0
I0428 19:57:19.912261 28649 net.cpp:408] pool0 <- conv0
I0428 19:57:19.912268 28649 net.cpp:382] pool0 -> pool0
I0428 19:57:19.912314 28649 net.cpp:124] Setting up pool0
I0428 19:57:19.912322 28649 net.cpp:131] Top shape: 100 10 12 12 (144000)
I0428 19:57:19.912327 28649 net.cpp:139] Memory required for data: 3194800
I0428 19:57:19.912329 28649 layer_factory.hpp:77] Creating layer conv1
I0428 19:57:19.912338 28649 net.cpp:86] Creating Layer conv1
I0428 19:57:19.912341 28649 net.cpp:408] conv1 <- pool0
I0428 19:57:19.912348 28649 net.cpp:382] conv1 -> conv1
I0428 19:57:19.914575 28649 net.cpp:124] Setting up conv1
I0428 19:57:19.914607 28649 net.cpp:131] Top shape: 100 5 8 8 (32000)
I0428 19:57:19.914610 28649 net.cpp:139] Memory required for data: 3322800
I0428 19:57:19.914620 28649 layer_factory.hpp:77] Creating layer pool1
I0428 19:57:19.914628 28649 net.cpp:86] Creating Layer pool1
I0428 19:57:19.914645 28649 net.cpp:408] pool1 <- conv1
I0428 19:57:19.914650 28649 net.cpp:382] pool1 -> pool1
I0428 19:57:19.914738 28649 net.cpp:124] Setting up pool1
I0428 19:57:19.914746 28649 net.cpp:131] Top shape: 100 5 4 4 (8000)
I0428 19:57:19.914749 28649 net.cpp:139] Memory required for data: 3354800
I0428 19:57:19.914757 28649 layer_factory.hpp:77] Creating layer ip1
I0428 19:57:19.914763 28649 net.cpp:86] Creating Layer ip1
I0428 19:57:19.914767 28649 net.cpp:408] ip1 <- pool1
I0428 19:57:19.914772 28649 net.cpp:382] ip1 -> ip1
I0428 19:57:19.914911 28649 net.cpp:124] Setting up ip1
I0428 19:57:19.914921 28649 net.cpp:131] Top shape: 100 10 (1000)
I0428 19:57:19.914923 28649 net.cpp:139] Memory required for data: 3358800
I0428 19:57:19.914930 28649 layer_factory.hpp:77] Creating layer relu1
I0428 19:57:19.914935 28649 net.cpp:86] Creating Layer relu1
I0428 19:57:19.914939 28649 net.cpp:408] relu1 <- ip1
I0428 19:57:19.914943 28649 net.cpp:369] relu1 -> ip1 (in-place)
I0428 19:57:19.915104 28649 net.cpp:124] Setting up relu1
I0428 19:57:19.915113 28649 net.cpp:131] Top shape: 100 10 (1000)
I0428 19:57:19.915117 28649 net.cpp:139] Memory required for data: 3362800
I0428 19:57:19.915119 28649 layer_factory.hpp:77] Creating layer ip2
I0428 19:57:19.915125 28649 net.cpp:86] Creating Layer ip2
I0428 19:57:19.915128 28649 net.cpp:408] ip2 <- ip1
I0428 19:57:19.915134 28649 net.cpp:382] ip2 -> ip2
I0428 19:57:19.915225 28649 net.cpp:124] Setting up ip2
I0428 19:57:19.915231 28649 net.cpp:131] Top shape: 100 10 (1000)
I0428 19:57:19.915235 28649 net.cpp:139] Memory required for data: 3366800
I0428 19:57:19.915240 28649 layer_factory.hpp:77] Creating layer relu2
I0428 19:57:19.915244 28649 net.cpp:86] Creating Layer relu2
I0428 19:57:19.915247 28649 net.cpp:408] relu2 <- ip2
I0428 19:57:19.915252 28649 net.cpp:369] relu2 -> ip2 (in-place)
I0428 19:57:19.915407 28649 net.cpp:124] Setting up relu2
I0428 19:57:19.915415 28649 net.cpp:131] Top shape: 100 10 (1000)
I0428 19:57:19.915417 28649 net.cpp:139] Memory required for data: 3370800
I0428 19:57:19.915421 28649 layer_factory.hpp:77] Creating layer ip2_relu2_0_split
I0428 19:57:19.915426 28649 net.cpp:86] Creating Layer ip2_relu2_0_split
I0428 19:57:19.915428 28649 net.cpp:408] ip2_relu2_0_split <- ip2
I0428 19:57:19.915432 28649 net.cpp:382] ip2_relu2_0_split -> ip2_relu2_0_split_0
I0428 19:57:19.915447 28649 net.cpp:382] ip2_relu2_0_split -> ip2_relu2_0_split_1
I0428 19:57:19.915479 28649 net.cpp:124] Setting up ip2_relu2_0_split
I0428 19:57:19.915487 28649 net.cpp:131] Top shape: 100 10 (1000)
I0428 19:57:19.915490 28649 net.cpp:131] Top shape: 100 10 (1000)
I0428 19:57:19.915493 28649 net.cpp:139] Memory required for data: 3378800
I0428 19:57:19.915495 28649 layer_factory.hpp:77] Creating layer accuracy
I0428 19:57:19.915505 28649 net.cpp:86] Creating Layer accuracy
I0428 19:57:19.915508 28649 net.cpp:408] accuracy <- ip2_relu2_0_split_0
I0428 19:57:19.915513 28649 net.cpp:408] accuracy <- label_mnist_1_split_0
I0428 19:57:19.915516 28649 net.cpp:382] accuracy -> accuracy
…
