…
I0428 20:34:53.421535  4542 net.cpp:296] The NetState phase (0) differed from the phase (1) specified by a rule in layer mnist
I0428 20:34:53.421581  4542 net.cpp:296] The NetState phase (0) differed from the phase (1) specified by a rule in layer accuracy
I0428 20:34:53.421661  4542 net.cpp:53] Initializing net from parameters: 
name: "LeNet"
state {
  phase: TRAIN
  level: 0
  stage: ""
}
layer {
  name: "mnist"
  type: "Data"
  top: "data"
  top: "label"
  include {
    phase: TRAIN
  }
  transform_param {
    scale: 0.00390625
  }
  data_param {
    source: "examples/mnist/mnist_train_lmdb"
    batch_size: 64
    backend: LMDB
  }
}
layer {
  name: "conv0"
  type: "Convolution"
  bottom: "data"
  top: "conv0"
  param {
    lr_mult: 1
  }
  param {
    lr_mult: 2
  }
  convolution_param {
    num_output: 100
    kernel_size: 5
    stride: 1
    weight_filler {
      type: "xavier"
    }
    bias_filler {
      type: "constant"
    }
  }
}
layer {
  name: "pool0"
  type: "Pooling"
  bottom: "conv0"
  top: "pool0"
  pooling_param {
    pool: MAX
    kernel_size: 2
    stride: 2
  }
}
layer {
  name: "conv1"
  type: "Convolution"
  bottom: "pool0"
  top: "conv1"
  param {
    lr_mult: 1
  }
  param {
    lr_mult: 2
  }
  convolution_param {
    num_output: 50
    kernel_size: 5
    stride: 1
    weight_filler {
      type: "xavier"
    }
    bias_filler {
      type: "constant"
    }
  }
}
layer {
  name: "pool1"
  type: "Pooling"
  bottom: "conv1"
  top: "pool1"
  pooling_param {
    pool: MAX
    kernel_size: 2
    stride: 2
  }
}
layer {
  name: "ip1"
  type: "InnerProduct"
  bottom: "pool1"
  top: "ip1"
  param {
    lr_mult: 1
  }
  param {
    lr_mult: 2
  }
  inner_product_param {
    num_output: 10
    weight_filler {
      type: "xavier"
    }
    bias_filler {
      type: "constant"
    }
  }
}
layer {
  name: "relu1"
  type: "ReLU"
  bottom: "ip1"
  top: "ip1"
}
layer {
  name: "ip2"
  type: "InnerProduct"
  bottom: "ip1"
  top: "ip2"
  param {
    lr_mult: 1
  }
  param {
    lr_mult: 2
  }
  inner_product_param {
    num_output: 10
    weight_filler {
      type: "xavier"
    }
    bias_filler {
      type: "constant"
    }
  }
}
layer {
  name: "relu2"
  type: "ReLU"
  bottom: "ip2"
  top: "ip2"
}
layer {
  name: "ip3"
  type: "InnerProduct"
  bottom: "ip2"
  top: "ip3"
  param {
    lr_mult: 1
  }
  param {
    lr_mult: 2
  }
  inner_product_param {
    num_output: 10
    weight_filler {
      type: "xavier"
    }
    bias_filler {
      type: "constant"
    }
  }
}
layer {
  name: "relu3"
  type: "ReLU"
  bottom: "ip3"
  top: "ip3"
}
layer {
  name: "loss"
  type: "SoftmaxWithLoss"
  bottom: "ip3"
  bottom: "label"
  top: "loss"
}
I0428 20:34:53.421742  4542 layer_factory.hpp:77] Creating layer mnist
I0428 20:34:53.421824  4542 db_lmdb.cpp:35] Opened lmdb examples/mnist/mnist_train_lmdb
I0428 20:34:53.421844  4542 net.cpp:86] Creating Layer mnist
I0428 20:34:53.421854  4542 net.cpp:382] mnist -> data
I0428 20:34:53.421874  4542 net.cpp:382] mnist -> label
I0428 20:34:53.422861  4542 data_layer.cpp:45] output data size: 64,1,28,28
I0428 20:34:53.425143  4542 net.cpp:124] Setting up mnist
I0428 20:34:53.425173  4542 net.cpp:131] Top shape: 64 1 28 28 (50176)
I0428 20:34:53.425178  4542 net.cpp:131] Top shape: 64 (64)
I0428 20:34:53.425180  4542 net.cpp:139] Memory required for data: 200960
I0428 20:34:53.425186  4542 layer_factory.hpp:77] Creating layer conv0
I0428 20:34:53.425230  4542 net.cpp:86] Creating Layer conv0
I0428 20:34:53.425247  4542 net.cpp:408] conv0 <- data
I0428 20:34:53.425258  4542 net.cpp:382] conv0 -> conv0
I0428 20:34:53.663269  4542 net.cpp:124] Setting up conv0
I0428 20:34:53.663311  4542 net.cpp:131] Top shape: 64 100 24 24 (3686400)
I0428 20:34:53.663314  4542 net.cpp:139] Memory required for data: 14946560
I0428 20:34:53.663329  4542 layer_factory.hpp:77] Creating layer pool0
I0428 20:34:53.663341  4542 net.cpp:86] Creating Layer pool0
I0428 20:34:53.663344  4542 net.cpp:408] pool0 <- conv0
I0428 20:34:53.663350  4542 net.cpp:382] pool0 -> pool0
I0428 20:34:53.663411  4542 net.cpp:124] Setting up pool0
I0428 20:34:53.663417  4542 net.cpp:131] Top shape: 64 100 12 12 (921600)
I0428 20:34:53.663420  4542 net.cpp:139] Memory required for data: 18632960
I0428 20:34:53.663424  4542 layer_factory.hpp:77] Creating layer conv1
I0428 20:34:53.663434  4542 net.cpp:86] Creating Layer conv1
I0428 20:34:53.663436  4542 net.cpp:408] conv1 <- pool0
I0428 20:34:53.663441  4542 net.cpp:382] conv1 -> conv1
I0428 20:34:53.667068  4542 net.cpp:124] Setting up conv1
I0428 20:34:53.667098  4542 net.cpp:131] Top shape: 64 50 8 8 (204800)
I0428 20:34:53.667101  4542 net.cpp:139] Memory required for data: 19452160
I0428 20:34:53.667110  4542 layer_factory.hpp:77] Creating layer pool1
I0428 20:34:53.667117  4542 net.cpp:86] Creating Layer pool1
I0428 20:34:53.667121  4542 net.cpp:408] pool1 <- conv1
I0428 20:34:53.667126  4542 net.cpp:382] pool1 -> pool1
I0428 20:34:53.667178  4542 net.cpp:124] Setting up pool1
I0428 20:34:53.667184  4542 net.cpp:131] Top shape: 64 50 4 4 (51200)
I0428 20:34:53.667187  4542 net.cpp:139] Memory required for data: 19656960
I0428 20:34:53.667191  4542 layer_factory.hpp:77] Creating layer ip1
I0428 20:34:53.667198  4542 net.cpp:86] Creating Layer ip1
I0428 20:34:53.667201  4542 net.cpp:408] ip1 <- pool1
I0428 20:34:53.667206  4542 net.cpp:382] ip1 -> ip1
I0428 20:34:53.668226  4542 net.cpp:124] Setting up ip1
I0428 20:34:53.668256  4542 net.cpp:131] Top shape: 64 10 (640)
I0428 20:34:53.668259  4542 net.cpp:139] Memory required for data: 19659520
I0428 20:34:53.668268  4542 layer_factory.hpp:77] Creating layer relu1
I0428 20:34:53.668277  4542 net.cpp:86] Creating Layer relu1
I0428 20:34:53.668279  4542 net.cpp:408] relu1 <- ip1
I0428 20:34:53.668284  4542 net.cpp:369] relu1 -> ip1 (in-place)
I0428 20:34:53.668512  4542 net.cpp:124] Setting up relu1
I0428 20:34:53.668521  4542 net.cpp:131] Top shape: 64 10 (640)
I0428 20:34:53.668525  4542 net.cpp:139] Memory required for data: 19662080
I0428 20:34:53.668529  4542 layer_factory.hpp:77] Creating layer ip2
I0428 20:34:53.668534  4542 net.cpp:86] Creating Layer ip2
I0428 20:34:53.668537  4542 net.cpp:408] ip2 <- ip1
I0428 20:34:53.668542  4542 net.cpp:382] ip2 -> ip2
I0428 20:34:53.668632  4542 net.cpp:124] Setting up ip2
I0428 20:34:53.668639  4542 net.cpp:131] Top shape: 64 10 (640)
I0428 20:34:53.668642  4542 net.cpp:139] Memory required for data: 19664640
I0428 20:34:53.668648  4542 layer_factory.hpp:77] Creating layer relu2
I0428 20:34:53.668653  4542 net.cpp:86] Creating Layer relu2
I0428 20:34:53.668656  4542 net.cpp:408] relu2 <- ip2
I0428 20:34:53.668660  4542 net.cpp:369] relu2 -> ip2 (in-place)
I0428 20:34:53.669484  4542 net.cpp:124] Setting up relu2
I0428 20:34:53.669513  4542 net.cpp:131] Top shape: 64 10 (640)
I0428 20:34:53.669517  4542 net.cpp:139] Memory required for data: 19667200
I0428 20:34:53.669520  4542 layer_factory.hpp:77] Creating layer ip3
I0428 20:34:53.669528  4542 net.cpp:86] Creating Layer ip3
I0428 20:34:53.669533  4542 net.cpp:408] ip3 <- ip2
I0428 20:34:53.669538  4542 net.cpp:382] ip3 -> ip3
I0428 20:34:53.669634  4542 net.cpp:124] Setting up ip3
I0428 20:34:53.669642  4542 net.cpp:131] Top shape: 64 10 (640)
I0428 20:34:53.669646  4542 net.cpp:139] Memory required for data: 19669760
I0428 20:34:53.669654  4542 layer_factory.hpp:77] Creating layer relu3
I0428 20:34:53.669659  4542 net.cpp:86] Creating Layer relu3
I0428 20:34:53.669662  4542 net.cpp:408] relu3 <- ip3
I0428 20:34:53.669667  4542 net.cpp:369] relu3 -> ip3 (in-place)
I0428 20:34:53.669844  4542 net.cpp:124] Setting up relu3
I0428 20:34:53.669854  4542 net.cpp:131] Top shape: 64 10 (640)
I0428 20:34:53.669857  4542 net.cpp:139] Memory required for data: 19672320
I0428 20:34:53.669862  4542 layer_factory.hpp:77] Creating layer loss
I0428 20:34:53.669867  4542 net.cpp:86] Creating Layer loss
I0428 20:34:53.669870  4542 net.cpp:408] loss <- ip3
I0428 20:34:53.669873  4542 net.cpp:408] loss <- label
I0428 20:34:53.669879  4542 net.cpp:382] loss -> loss
I0428 20:34:53.669893  4542 layer_factory.hpp:77] Creating layer loss
…
I0428 20:34:53.670588  4542 solver.cpp:173] Creating test net (#0) specified by net file: ECE595/mnist/train_test/var_everything2/lenet_train_test1612.prototxt
I0428 20:34:53.670641  4542 net.cpp:296] The NetState phase (1) differed from the phase (0) specified by a rule in layer mnist
I0428 20:34:53.670733  4542 net.cpp:53] Initializing net from parameters: 
name: "LeNet"
state {
  phase: TEST
}
layer {
  name: "mnist"
  type: "Data"
  top: "data"
  top: "label"
  include {
    phase: TEST
  }
  transform_param {
    scale: 0.00390625
  }
  data_param {
    source: "examples/mnist/mnist_test_lmdb"
    batch_size: 100
    backend: LMDB
  }
}
layer {
  name: "conv0"
  type: "Convolution"
  bottom: "data"
  top: "conv0"
  param {
    lr_mult: 1
  }
  param {
    lr_mult: 2
  }
  convolution_param {
    num_output: 100
    kernel_size: 5
    stride: 1
    weight_filler {
      type: "xavier"
    }
    bias_filler {
      type: "constant"
    }
  }
}
layer {
  name: "pool0"
  type: "Pooling"
  bottom: "conv0"
  top: "pool0"
  pooling_param {
    pool: MAX
    kernel_size: 2
    stride: 2
  }
}
layer {
  name: "conv1"
  type: "Convolution"
  bottom: "pool0"
  top: "conv1"
  param {
    lr_mult: 1
  }
  param {
    lr_mult: 2
  }
  convolution_param {
    num_output: 50
    kernel_size: 5
    stride: 1
    weight_filler {
      type: "xavier"
    }
    bias_filler {
      type: "constant"
    }
  }
}
layer {
  name: "pool1"
  type: "Pooling"
  bottom: "conv1"
  top: "pool1"
  pooling_param {
    pool: MAX
    kernel_size: 2
    stride: 2
  }
}
layer {
  name: "ip1"
  type: "InnerProduct"
  bottom: "pool1"
  top: "ip1"
  param {
    lr_mult: 1
  }
  param {
    lr_mult: 2
  }
  inner_product_param {
    num_output: 10
    weight_filler {
      type: "xavier"
    }
    bias_filler {
      type: "constant"
    }
  }
}
layer {
  name: "relu1"
  type: "ReLU"
  bottom: "ip1"
  top: "ip1"
}
layer {
  name: "ip2"
  type: "InnerProduct"
  bottom: "ip1"
  top: "ip2"
  param {
    lr_mult: 1
  }
  param {
    lr_mult: 2
  }
  inner_product_param {
    num_output: 10
    weight_filler {
      type: "xavier"
    }
    bias_filler {
      type: "constant"
    }
  }
}
layer {
  name: "relu2"
  type: "ReLU"
  bottom: "ip2"
  top: "ip2"
}
layer {
  name: "ip3"
  type: "InnerProduct"
  bottom: "ip2"
  top: "ip3"
  param {
    lr_mult: 1
  }
  param {
    lr_mult: 2
  }
  inner_product_param {
    num_output: 10
    weight_filler {
      type: "xavier"
    }
    bias_filler {
      type: "constant"
    }
  }
}
layer {
  name: "relu3"
  type: "ReLU"
  bottom: "ip3"
  top: "ip3"
}
layer {
  name: "accuracy"
  type: "Accuracy"
  bottom: "ip3"
  bottom: "label"
  top: "accuracy"
  include {
    phase: TEST
  }
}
layer {
  name: "loss"
  type: "SoftmaxWithLoss"
  bottom: "ip3"
  bottom: "label"
  top: "loss"
}
I0428 20:34:53.670815  4542 layer_factory.hpp:77] Creating layer mnist
I0428 20:34:53.670857  4542 db_lmdb.cpp:35] Opened lmdb examples/mnist/mnist_test_lmdb
I0428 20:34:53.670872  4542 net.cpp:86] Creating Layer mnist
I0428 20:34:53.670878  4542 net.cpp:382] mnist -> data
I0428 20:34:53.670886  4542 net.cpp:382] mnist -> label
I0428 20:34:53.670971  4542 data_layer.cpp:45] output data size: 100,1,28,28
I0428 20:34:53.672149  4542 net.cpp:124] Setting up mnist
I0428 20:34:53.672178  4542 net.cpp:131] Top shape: 100 1 28 28 (78400)
I0428 20:34:53.672183  4542 net.cpp:131] Top shape: 100 (100)
I0428 20:34:53.672185  4542 net.cpp:139] Memory required for data: 314000
I0428 20:34:53.672189  4542 layer_factory.hpp:77] Creating layer label_mnist_1_split
I0428 20:34:53.672195  4542 net.cpp:86] Creating Layer label_mnist_1_split
I0428 20:34:53.672199  4542 net.cpp:408] label_mnist_1_split <- label
I0428 20:34:53.672204  4542 net.cpp:382] label_mnist_1_split -> label_mnist_1_split_0
I0428 20:34:53.672211  4542 net.cpp:382] label_mnist_1_split -> label_mnist_1_split_1
I0428 20:34:53.672271  4542 net.cpp:124] Setting up label_mnist_1_split
I0428 20:34:53.672276  4542 net.cpp:131] Top shape: 100 (100)
I0428 20:34:53.672294  4542 net.cpp:131] Top shape: 100 (100)
I0428 20:34:53.672297  4542 net.cpp:139] Memory required for data: 314800
I0428 20:34:53.672299  4542 layer_factory.hpp:77] Creating layer conv0
I0428 20:34:53.672309  4542 net.cpp:86] Creating Layer conv0
I0428 20:34:53.672312  4542 net.cpp:408] conv0 <- data
I0428 20:34:53.672317  4542 net.cpp:382] conv0 -> conv0
I0428 20:34:53.674341  4542 net.cpp:124] Setting up conv0
I0428 20:34:53.674356  4542 net.cpp:131] Top shape: 100 100 24 24 (5760000)
I0428 20:34:53.674360  4542 net.cpp:139] Memory required for data: 23354800
I0428 20:34:53.674370  4542 layer_factory.hpp:77] Creating layer pool0
I0428 20:34:53.674376  4542 net.cpp:86] Creating Layer pool0
I0428 20:34:53.674378  4542 net.cpp:408] pool0 <- conv0
I0428 20:34:53.674399  4542 net.cpp:382] pool0 -> pool0
I0428 20:34:53.674437  4542 net.cpp:124] Setting up pool0
I0428 20:34:53.674443  4542 net.cpp:131] Top shape: 100 100 12 12 (1440000)
I0428 20:34:53.674446  4542 net.cpp:139] Memory required for data: 29114800
I0428 20:34:53.674449  4542 layer_factory.hpp:77] Creating layer conv1
I0428 20:34:53.674458  4542 net.cpp:86] Creating Layer conv1
I0428 20:34:53.674461  4542 net.cpp:408] conv1 <- pool0
I0428 20:34:53.674466  4542 net.cpp:382] conv1 -> conv1
I0428 20:34:53.677865  4542 net.cpp:124] Setting up conv1
I0428 20:34:53.677880  4542 net.cpp:131] Top shape: 100 50 8 8 (320000)
I0428 20:34:53.677883  4542 net.cpp:139] Memory required for data: 30394800
I0428 20:34:53.677891  4542 layer_factory.hpp:77] Creating layer pool1
I0428 20:34:53.677897  4542 net.cpp:86] Creating Layer pool1
I0428 20:34:53.677917  4542 net.cpp:408] pool1 <- conv1
I0428 20:34:53.677922  4542 net.cpp:382] pool1 -> pool1
I0428 20:34:53.677974  4542 net.cpp:124] Setting up pool1
I0428 20:34:53.677980  4542 net.cpp:131] Top shape: 100 50 4 4 (80000)
I0428 20:34:53.677983  4542 net.cpp:139] Memory required for data: 30714800
I0428 20:34:53.677986  4542 layer_factory.hpp:77] Creating layer ip1
I0428 20:34:53.677994  4542 net.cpp:86] Creating Layer ip1
I0428 20:34:53.677999  4542 net.cpp:408] ip1 <- pool1
I0428 20:34:53.678010  4542 net.cpp:382] ip1 -> ip1
I0428 20:34:53.678155  4542 net.cpp:124] Setting up ip1
I0428 20:34:53.678174  4542 net.cpp:131] Top shape: 100 10 (1000)
I0428 20:34:53.678176  4542 net.cpp:139] Memory required for data: 30718800
I0428 20:34:53.678184  4542 layer_factory.hpp:77] Creating layer relu1
I0428 20:34:53.678190  4542 net.cpp:86] Creating Layer relu1
I0428 20:34:53.678194  4542 net.cpp:408] relu1 <- ip1
I0428 20:34:53.678200  4542 net.cpp:369] relu1 -> ip1 (in-place)
I0428 20:34:53.678371  4542 net.cpp:124] Setting up relu1
I0428 20:34:53.678380  4542 net.cpp:131] Top shape: 100 10 (1000)
I0428 20:34:53.678385  4542 net.cpp:139] Memory required for data: 30722800
I0428 20:34:53.678388  4542 layer_factory.hpp:77] Creating layer ip2
I0428 20:34:53.678395  4542 net.cpp:86] Creating Layer ip2
I0428 20:34:53.678397  4542 net.cpp:408] ip2 <- ip1
I0428 20:34:53.678411  4542 net.cpp:382] ip2 -> ip2
I0428 20:34:53.678508  4542 net.cpp:124] Setting up ip2
I0428 20:34:53.678515  4542 net.cpp:131] Top shape: 100 10 (1000)
I0428 20:34:53.678519  4542 net.cpp:139] Memory required for data: 30726800
I0428 20:34:53.678524  4542 layer_factory.hpp:77] Creating layer relu2
I0428 20:34:53.678529  4542 net.cpp:86] Creating Layer relu2
I0428 20:34:53.678531  4542 net.cpp:408] relu2 <- ip2
I0428 20:34:53.678536  4542 net.cpp:369] relu2 -> ip2 (in-place)
I0428 20:34:53.678710  4542 net.cpp:124] Setting up relu2
I0428 20:34:53.678719  4542 net.cpp:131] Top shape: 100 10 (1000)
I0428 20:34:53.678721  4542 net.cpp:139] Memory required for data: 30730800
I0428 20:34:53.678725  4542 layer_factory.hpp:77] Creating layer ip3
I0428 20:34:53.678731  4542 net.cpp:86] Creating Layer ip3
I0428 20:34:53.678735  4542 net.cpp:408] ip3 <- ip2
I0428 20:34:53.678740  4542 net.cpp:382] ip3 -> ip3
I0428 20:34:53.678863  4542 net.cpp:124] Setting up ip3
I0428 20:34:53.678869  4542 net.cpp:131] Top shape: 100 10 (1000)
I0428 20:34:53.678872  4542 net.cpp:139] Memory required for data: 30734800
I0428 20:34:53.678896  4542 layer_factory.hpp:77] Creating layer relu3
I0428 20:34:53.678900  4542 net.cpp:86] Creating Layer relu3
I0428 20:34:53.678903  4542 net.cpp:408] relu3 <- ip3
I0428 20:34:53.678925  4542 net.cpp:369] relu3 -> ip3 (in-place)
I0428 20:34:53.679788  4542 net.cpp:124] Setting up relu3
I0428 20:34:53.679800  4542 net.cpp:131] Top shape: 100 10 (1000)
I0428 20:34:53.679805  4542 net.cpp:139] Memory required for data: 30738800
I0428 20:34:53.679807  4542 layer_factory.hpp:77] Creating layer ip3_relu3_0_split
I0428 20:34:53.679813  4542 net.cpp:86] Creating Layer ip3_relu3_0_split
I0428 20:34:53.679816  4542 net.cpp:408] ip3_relu3_0_split <- ip3
I0428 20:34:53.679822  4542 net.cpp:382] ip3_relu3_0_split -> ip3_relu3_0_split_0
I0428 20:34:53.679828  4542 net.cpp:382] ip3_relu3_0_split -> ip3_relu3_0_split_1
I0428 20:34:53.679867  4542 net.cpp:124] Setting up ip3_relu3_0_split
I0428 20:34:53.679873  4542 net.cpp:131] Top shape: 100 10 (1000)
I0428 20:34:53.679877  4542 net.cpp:131] Top shape: 100 10 (1000)
I0428 20:34:53.679880  4542 net.cpp:139] Memory required for data: 30746800
I0428 20:34:53.679883  4542 layer_factory.hpp:77] Creating layer accuracy
I0428 20:34:53.679895  4542 net.cpp:86] Creating Layer accuracy
I0428 20:34:53.679898  4542 net.cpp:408] accuracy <- ip3_relu3_0_split_0
I0428 20:34:53.679908  4542 net.cpp:408] accuracy <- label_mnist_1_split_0
I0428 20:34:53.679913  4542 net.cpp:382] accuracy -> accuracy
…
