…
I0428 19:39:53.889941 24415 net.cpp:296] The NetState phase (0) differed from the phase (1) specified by a rule in layer mnist
I0428 19:39:53.889963 24415 net.cpp:296] The NetState phase (0) differed from the phase (1) specified by a rule in layer accuracy
I0428 19:39:53.890059 24415 net.cpp:53] Initializing net from parameters: 
name: "LeNet"
state {
  phase: TRAIN
  level: 0
  stage: ""
}
layer {
  name: "mnist"
  type: "Data"
  top: "data"
  top: "label"
  include {
    phase: TRAIN
  }
  transform_param {
    scale: 0.00390625
  }
  data_param {
    source: "examples/mnist/mnist_train_lmdb"
    batch_size: 64
    backend: LMDB
  }
}
layer {
  name: "conv0"
  type: "Convolution"
  bottom: "data"
  top: "conv0"
  param {
    lr_mult: 1
  }
  param {
    lr_mult: 2
  }
  convolution_param {
    num_output: 2
    kernel_size: 5
    stride: 1
    weight_filler {
      type: "xavier"
    }
    bias_filler {
      type: "constant"
    }
  }
}
layer {
  name: "pool0"
  type: "Pooling"
  bottom: "conv0"
  top: "pool0"
  pooling_param {
    pool: MAX
    kernel_size: 2
    stride: 2
  }
}
layer {
  name: "conv1"
  type: "Convolution"
  bottom: "pool0"
  top: "conv1"
  param {
    lr_mult: 1
  }
  param {
    lr_mult: 2
  }
  convolution_param {
    num_output: 5
    kernel_size: 5
    stride: 1
    weight_filler {
      type: "xavier"
    }
    bias_filler {
      type: "constant"
    }
  }
}
layer {
  name: "pool1"
  type: "Pooling"
  bottom: "conv1"
  top: "pool1"
  pooling_param {
    pool: MAX
    kernel_size: 2
    stride: 2
  }
}
layer {
  name: "ip1"
  type: "InnerProduct"
  bottom: "pool1"
  top: "ip1"
  param {
    lr_mult: 1
  }
  param {
    lr_mult: 2
  }
  inner_product_param {
    num_output: 25
    weight_filler {
      type: "xavier"
    }
    bias_filler {
      type: "constant"
    }
  }
}
layer {
  name: "relu1"
  type: "ReLU"
  bottom: "ip1"
  top: "ip1"
}
layer {
  name: "ip2"
  type: "InnerProduct"
  bottom: "ip1"
  top: "ip2"
  param {
    lr_mult: 1
  }
  param {
    lr_mult: 2
  }
  inner_product_param {
    num_output: 10
    weight_filler {
      type: "xavier"
    }
    bias_filler {
      type: "constant"
    }
  }
}
layer {
  name: "relu2"
  type: "ReLU"
  bottom: "ip2"
  top: "ip2"
}
layer {
  name: "loss"
  type: "SoftmaxWithLoss"
  bottom: "ip2"
  bottom: "label"
  top: "loss"
}
I0428 19:39:53.890157 24415 layer_factory.hpp:77] Creating layer mnist
I0428 19:39:53.890288 24415 db_lmdb.cpp:35] Opened lmdb examples/mnist/mnist_train_lmdb
I0428 19:39:53.890322 24415 net.cpp:86] Creating Layer mnist
I0428 19:39:53.890334 24415 net.cpp:382] mnist -> data
I0428 19:39:53.890367 24415 net.cpp:382] mnist -> label
I0428 19:39:53.891603 24415 data_layer.cpp:45] output data size: 64,1,28,28
I0428 19:39:53.894085 24415 net.cpp:124] Setting up mnist
I0428 19:39:53.894105 24415 net.cpp:131] Top shape: 64 1 28 28 (50176)
I0428 19:39:53.894116 24415 net.cpp:131] Top shape: 64 (64)
I0428 19:39:53.894124 24415 net.cpp:139] Memory required for data: 200960
I0428 19:39:53.894134 24415 layer_factory.hpp:77] Creating layer conv0
I0428 19:39:53.894156 24415 net.cpp:86] Creating Layer conv0
I0428 19:39:53.894166 24415 net.cpp:408] conv0 <- data
I0428 19:39:53.894186 24415 net.cpp:382] conv0 -> conv0
I0428 19:39:54.178261 24415 net.cpp:124] Setting up conv0
I0428 19:39:54.178289 24415 net.cpp:131] Top shape: 64 2 24 24 (73728)
I0428 19:39:54.178295 24415 net.cpp:139] Memory required for data: 495872
I0428 19:39:54.178350 24415 layer_factory.hpp:77] Creating layer pool0
I0428 19:39:54.178370 24415 net.cpp:86] Creating Layer pool0
I0428 19:39:54.178378 24415 net.cpp:408] pool0 <- conv0
I0428 19:39:54.178388 24415 net.cpp:382] pool0 -> pool0
I0428 19:39:54.178450 24415 net.cpp:124] Setting up pool0
I0428 19:39:54.178460 24415 net.cpp:131] Top shape: 64 2 12 12 (18432)
I0428 19:39:54.178465 24415 net.cpp:139] Memory required for data: 569600
I0428 19:39:54.178472 24415 layer_factory.hpp:77] Creating layer conv1
I0428 19:39:54.178488 24415 net.cpp:86] Creating Layer conv1
I0428 19:39:54.178494 24415 net.cpp:408] conv1 <- pool0
I0428 19:39:54.178503 24415 net.cpp:382] conv1 -> conv1
I0428 19:39:54.180343 24415 net.cpp:124] Setting up conv1
I0428 19:39:54.180359 24415 net.cpp:131] Top shape: 64 5 8 8 (20480)
I0428 19:39:54.180366 24415 net.cpp:139] Memory required for data: 651520
I0428 19:39:54.180379 24415 layer_factory.hpp:77] Creating layer pool1
I0428 19:39:54.180392 24415 net.cpp:86] Creating Layer pool1
I0428 19:39:54.180398 24415 net.cpp:408] pool1 <- conv1
I0428 19:39:54.180407 24415 net.cpp:382] pool1 -> pool1
I0428 19:39:54.180459 24415 net.cpp:124] Setting up pool1
I0428 19:39:54.180467 24415 net.cpp:131] Top shape: 64 5 4 4 (5120)
I0428 19:39:54.180472 24415 net.cpp:139] Memory required for data: 672000
I0428 19:39:54.180479 24415 layer_factory.hpp:77] Creating layer ip1
I0428 19:39:54.180490 24415 net.cpp:86] Creating Layer ip1
I0428 19:39:54.180496 24415 net.cpp:408] ip1 <- pool1
I0428 19:39:54.180505 24415 net.cpp:382] ip1 -> ip1
I0428 19:39:54.181468 24415 net.cpp:124] Setting up ip1
I0428 19:39:54.181483 24415 net.cpp:131] Top shape: 64 25 (1600)
I0428 19:39:54.181488 24415 net.cpp:139] Memory required for data: 678400
I0428 19:39:54.181502 24415 layer_factory.hpp:77] Creating layer relu1
I0428 19:39:54.181512 24415 net.cpp:86] Creating Layer relu1
I0428 19:39:54.181519 24415 net.cpp:408] relu1 <- ip1
I0428 19:39:54.181526 24415 net.cpp:369] relu1 -> ip1 (in-place)
I0428 19:39:54.181706 24415 net.cpp:124] Setting up relu1
I0428 19:39:54.181717 24415 net.cpp:131] Top shape: 64 25 (1600)
I0428 19:39:54.181722 24415 net.cpp:139] Memory required for data: 684800
I0428 19:39:54.181728 24415 layer_factory.hpp:77] Creating layer ip2
I0428 19:39:54.181740 24415 net.cpp:86] Creating Layer ip2
I0428 19:39:54.181746 24415 net.cpp:408] ip2 <- ip1
I0428 19:39:54.181754 24415 net.cpp:382] ip2 -> ip2
I0428 19:39:54.181860 24415 net.cpp:124] Setting up ip2
I0428 19:39:54.181869 24415 net.cpp:131] Top shape: 64 10 (640)
I0428 19:39:54.181874 24415 net.cpp:139] Memory required for data: 687360
I0428 19:39:54.181885 24415 layer_factory.hpp:77] Creating layer relu2
I0428 19:39:54.181895 24415 net.cpp:86] Creating Layer relu2
I0428 19:39:54.181900 24415 net.cpp:408] relu2 <- ip2
I0428 19:39:54.181907 24415 net.cpp:369] relu2 -> ip2 (in-place)
I0428 19:39:54.182677 24415 net.cpp:124] Setting up relu2
I0428 19:39:54.182690 24415 net.cpp:131] Top shape: 64 10 (640)
I0428 19:39:54.182698 24415 net.cpp:139] Memory required for data: 689920
I0428 19:39:54.182703 24415 layer_factory.hpp:77] Creating layer loss
I0428 19:39:54.182713 24415 net.cpp:86] Creating Layer loss
I0428 19:39:54.182719 24415 net.cpp:408] loss <- ip2
I0428 19:39:54.182726 24415 net.cpp:408] loss <- label
I0428 19:39:54.182735 24415 net.cpp:382] loss -> loss
I0428 19:39:54.182761 24415 layer_factory.hpp:77] Creating layer loss
…
I0428 19:39:54.183423 24415 solver.cpp:173] Creating test net (#0) specified by net file: ECE595/mnist/train_test/var_everything2/lenet_train_test318.prototxt
I0428 19:39:54.183459 24415 net.cpp:296] The NetState phase (1) differed from the phase (0) specified by a rule in layer mnist
I0428 19:39:54.183552 24415 net.cpp:53] Initializing net from parameters: 
name: "LeNet"
state {
  phase: TEST
}
layer {
  name: "mnist"
  type: "Data"
  top: "data"
  top: "label"
  include {
    phase: TEST
  }
  transform_param {
    scale: 0.00390625
  }
  data_param {
    source: "examples/mnist/mnist_test_lmdb"
    batch_size: 100
    backend: LMDB
  }
}
layer {
  name: "conv0"
  type: "Convolution"
  bottom: "data"
  top: "conv0"
  param {
    lr_mult: 1
  }
  param {
    lr_mult: 2
  }
  convolution_param {
    num_output: 2
    kernel_size: 5
    stride: 1
    weight_filler {
      type: "xavier"
    }
    bias_filler {
      type: "constant"
    }
  }
}
layer {
  name: "pool0"
  type: "Pooling"
  bottom: "conv0"
  top: "pool0"
  pooling_param {
    pool: MAX
    kernel_size: 2
    stride: 2
  }
}
layer {
  name: "conv1"
  type: "Convolution"
  bottom: "pool0"
  top: "conv1"
  param {
    lr_mult: 1
  }
  param {
    lr_mult: 2
  }
  convolution_param {
    num_output: 5
    kernel_size: 5
    stride: 1
    weight_filler {
      type: "xavier"
    }
    bias_filler {
      type: "constant"
    }
  }
}
layer {
  name: "pool1"
  type: "Pooling"
  bottom: "conv1"
  top: "pool1"
  pooling_param {
    pool: MAX
    kernel_size: 2
    stride: 2
  }
}
layer {
  name: "ip1"
  type: "InnerProduct"
  bottom: "pool1"
  top: "ip1"
  param {
    lr_mult: 1
  }
  param {
    lr_mult: 2
  }
  inner_product_param {
    num_output: 25
    weight_filler {
      type: "xavier"
    }
    bias_filler {
      type: "constant"
    }
  }
}
layer {
  name: "relu1"
  type: "ReLU"
  bottom: "ip1"
  top: "ip1"
}
layer {
  name: "ip2"
  type: "InnerProduct"
  bottom: "ip1"
  top: "ip2"
  param {
    lr_mult: 1
  }
  param {
    lr_mult: 2
  }
  inner_product_param {
    num_output: 10
    weight_filler {
      type: "xavier"
    }
    bias_filler {
      type: "constant"
    }
  }
}
layer {
  name: "relu2"
  type: "ReLU"
  bottom: "ip2"
  top: "ip2"
}
layer {
  name: "accuracy"
  type: "Accuracy"
  bottom: "ip2"
  bottom: "label"
  top: "accuracy"
  include {
    phase: TEST
  }
}
layer {
  name: "loss"
  type: "SoftmaxWithLoss"
  bottom: "ip2"
  bottom: "label"
  top: "loss"
}
I0428 19:39:54.183650 24415 layer_factory.hpp:77] Creating layer mnist
I0428 19:39:54.183709 24415 db_lmdb.cpp:35] Opened lmdb examples/mnist/mnist_test_lmdb
I0428 19:39:54.183732 24415 net.cpp:86] Creating Layer mnist
I0428 19:39:54.183739 24415 net.cpp:382] mnist -> data
I0428 19:39:54.183753 24415 net.cpp:382] mnist -> label
I0428 19:39:54.183873 24415 data_layer.cpp:45] output data size: 100,1,28,28
I0428 19:39:54.185895 24415 net.cpp:124] Setting up mnist
I0428 19:39:54.185910 24415 net.cpp:131] Top shape: 100 1 28 28 (78400)
I0428 19:39:54.185919 24415 net.cpp:131] Top shape: 100 (100)
I0428 19:39:54.185925 24415 net.cpp:139] Memory required for data: 314000
I0428 19:39:54.185930 24415 layer_factory.hpp:77] Creating layer label_mnist_1_split
I0428 19:39:54.185961 24415 net.cpp:86] Creating Layer label_mnist_1_split
I0428 19:39:54.185966 24415 net.cpp:408] label_mnist_1_split <- label
I0428 19:39:54.185974 24415 net.cpp:382] label_mnist_1_split -> label_mnist_1_split_0
I0428 19:39:54.185986 24415 net.cpp:382] label_mnist_1_split -> label_mnist_1_split_1
I0428 19:39:54.186074 24415 net.cpp:124] Setting up label_mnist_1_split
I0428 19:39:54.186091 24415 net.cpp:131] Top shape: 100 (100)
I0428 19:39:54.186098 24415 net.cpp:131] Top shape: 100 (100)
I0428 19:39:54.186103 24415 net.cpp:139] Memory required for data: 314800
I0428 19:39:54.186110 24415 layer_factory.hpp:77] Creating layer conv0
I0428 19:39:54.186122 24415 net.cpp:86] Creating Layer conv0
I0428 19:39:54.186130 24415 net.cpp:408] conv0 <- data
I0428 19:39:54.186138 24415 net.cpp:382] conv0 -> conv0
I0428 19:39:54.187705 24415 net.cpp:124] Setting up conv0
I0428 19:39:54.187722 24415 net.cpp:131] Top shape: 100 2 24 24 (115200)
I0428 19:39:54.187727 24415 net.cpp:139] Memory required for data: 775600
I0428 19:39:54.187742 24415 layer_factory.hpp:77] Creating layer pool0
I0428 19:39:54.187752 24415 net.cpp:86] Creating Layer pool0
I0428 19:39:54.187758 24415 net.cpp:408] pool0 <- conv0
I0428 19:39:54.187768 24415 net.cpp:382] pool0 -> pool0
I0428 19:39:54.187810 24415 net.cpp:124] Setting up pool0
I0428 19:39:54.187819 24415 net.cpp:131] Top shape: 100 2 12 12 (28800)
I0428 19:39:54.187824 24415 net.cpp:139] Memory required for data: 890800
I0428 19:39:54.187829 24415 layer_factory.hpp:77] Creating layer conv1
I0428 19:39:54.187845 24415 net.cpp:86] Creating Layer conv1
I0428 19:39:54.187851 24415 net.cpp:408] conv1 <- pool0
I0428 19:39:54.187861 24415 net.cpp:382] conv1 -> conv1
I0428 19:39:54.189532 24415 net.cpp:124] Setting up conv1
I0428 19:39:54.189548 24415 net.cpp:131] Top shape: 100 5 8 8 (32000)
I0428 19:39:54.189554 24415 net.cpp:139] Memory required for data: 1018800
I0428 19:39:54.189568 24415 layer_factory.hpp:77] Creating layer pool1
I0428 19:39:54.189584 24415 net.cpp:86] Creating Layer pool1
I0428 19:39:54.189591 24415 net.cpp:408] pool1 <- conv1
I0428 19:39:54.189601 24415 net.cpp:382] pool1 -> pool1
I0428 19:39:54.189647 24415 net.cpp:124] Setting up pool1
I0428 19:39:54.189656 24415 net.cpp:131] Top shape: 100 5 4 4 (8000)
I0428 19:39:54.189677 24415 net.cpp:139] Memory required for data: 1050800
I0428 19:39:54.189680 24415 layer_factory.hpp:77] Creating layer ip1
I0428 19:39:54.189690 24415 net.cpp:86] Creating Layer ip1
I0428 19:39:54.189697 24415 net.cpp:408] ip1 <- pool1
I0428 19:39:54.189707 24415 net.cpp:382] ip1 -> ip1
I0428 19:39:54.189831 24415 net.cpp:124] Setting up ip1
I0428 19:39:54.189841 24415 net.cpp:131] Top shape: 100 25 (2500)
I0428 19:39:54.189846 24415 net.cpp:139] Memory required for data: 1060800
I0428 19:39:54.189857 24415 layer_factory.hpp:77] Creating layer relu1
I0428 19:39:54.189867 24415 net.cpp:86] Creating Layer relu1
I0428 19:39:54.189872 24415 net.cpp:408] relu1 <- ip1
I0428 19:39:54.189883 24415 net.cpp:369] relu1 -> ip1 (in-place)
I0428 19:39:54.190050 24415 net.cpp:124] Setting up relu1
I0428 19:39:54.190062 24415 net.cpp:131] Top shape: 100 25 (2500)
I0428 19:39:54.190068 24415 net.cpp:139] Memory required for data: 1070800
I0428 19:39:54.190073 24415 layer_factory.hpp:77] Creating layer ip2
I0428 19:39:54.190088 24415 net.cpp:86] Creating Layer ip2
I0428 19:39:54.190093 24415 net.cpp:408] ip2 <- ip1
I0428 19:39:54.190104 24415 net.cpp:382] ip2 -> ip2
I0428 19:39:54.190212 24415 net.cpp:124] Setting up ip2
I0428 19:39:54.190222 24415 net.cpp:131] Top shape: 100 10 (1000)
I0428 19:39:54.190227 24415 net.cpp:139] Memory required for data: 1074800
I0428 19:39:54.190237 24415 layer_factory.hpp:77] Creating layer relu2
I0428 19:39:54.190243 24415 net.cpp:86] Creating Layer relu2
I0428 19:39:54.190248 24415 net.cpp:408] relu2 <- ip2
I0428 19:39:54.190258 24415 net.cpp:369] relu2 -> ip2 (in-place)
I0428 19:39:54.190501 24415 net.cpp:124] Setting up relu2
I0428 19:39:54.190511 24415 net.cpp:131] Top shape: 100 10 (1000)
I0428 19:39:54.190516 24415 net.cpp:139] Memory required for data: 1078800
I0428 19:39:54.190521 24415 layer_factory.hpp:77] Creating layer ip2_relu2_0_split
I0428 19:39:54.190529 24415 net.cpp:86] Creating Layer ip2_relu2_0_split
I0428 19:39:54.190536 24415 net.cpp:408] ip2_relu2_0_split <- ip2
I0428 19:39:54.190544 24415 net.cpp:382] ip2_relu2_0_split -> ip2_relu2_0_split_0
I0428 19:39:54.190570 24415 net.cpp:382] ip2_relu2_0_split -> ip2_relu2_0_split_1
I0428 19:39:54.190616 24415 net.cpp:124] Setting up ip2_relu2_0_split
I0428 19:39:54.190625 24415 net.cpp:131] Top shape: 100 10 (1000)
I0428 19:39:54.190632 24415 net.cpp:131] Top shape: 100 10 (1000)
I0428 19:39:54.190637 24415 net.cpp:139] Memory required for data: 1086800
I0428 19:39:54.190642 24415 layer_factory.hpp:77] Creating layer accuracy
I0428 19:39:54.190652 24415 net.cpp:86] Creating Layer accuracy
I0428 19:39:54.190657 24415 net.cpp:408] accuracy <- ip2_relu2_0_split_0
I0428 19:39:54.190665 24415 net.cpp:408] accuracy <- label_mnist_1_split_0
I0428 19:39:54.190673 24415 net.cpp:382] accuracy -> accuracy
…
