…
I0428 19:41:33.791127 24854 net.cpp:296] The NetState phase (0) differed from the phase (1) specified by a rule in layer mnist
I0428 19:41:33.791152 24854 net.cpp:296] The NetState phase (0) differed from the phase (1) specified by a rule in layer accuracy
I0428 19:41:33.791262 24854 net.cpp:53] Initializing net from parameters: 
name: "LeNet"
state {
  phase: TRAIN
  level: 0
  stage: ""
}
layer {
  name: "mnist"
  type: "Data"
  top: "data"
  top: "label"
  include {
    phase: TRAIN
  }
  transform_param {
    scale: 0.00390625
  }
  data_param {
    source: "examples/mnist/mnist_train_lmdb"
    batch_size: 64
    backend: LMDB
  }
}
layer {
  name: "conv0"
  type: "Convolution"
  bottom: "data"
  top: "conv0"
  param {
    lr_mult: 1
  }
  param {
    lr_mult: 2
  }
  convolution_param {
    num_output: 2
    kernel_size: 5
    stride: 1
    weight_filler {
      type: "xavier"
    }
    bias_filler {
      type: "constant"
    }
  }
}
layer {
  name: "pool0"
  type: "Pooling"
  bottom: "conv0"
  top: "pool0"
  pooling_param {
    pool: MAX
    kernel_size: 2
    stride: 2
  }
}
layer {
  name: "conv1"
  type: "Convolution"
  bottom: "pool0"
  top: "conv1"
  param {
    lr_mult: 1
  }
  param {
    lr_mult: 2
  }
  convolution_param {
    num_output: 10
    kernel_size: 5
    stride: 1
    weight_filler {
      type: "xavier"
    }
    bias_filler {
      type: "constant"
    }
  }
}
layer {
  name: "pool1"
  type: "Pooling"
  bottom: "conv1"
  top: "pool1"
  pooling_param {
    pool: MAX
    kernel_size: 2
    stride: 2
  }
}
layer {
  name: "ip1"
  type: "InnerProduct"
  bottom: "pool1"
  top: "ip1"
  param {
    lr_mult: 1
  }
  param {
    lr_mult: 2
  }
  inner_product_param {
    num_output: 10
    weight_filler {
      type: "xavier"
    }
    bias_filler {
      type: "constant"
    }
  }
}
layer {
  name: "relu1"
  type: "ReLU"
  bottom: "ip1"
  top: "ip1"
}
layer {
  name: "ip2"
  type: "InnerProduct"
  bottom: "ip1"
  top: "ip2"
  param {
    lr_mult: 1
  }
  param {
    lr_mult: 2
  }
  inner_product_param {
    num_output: 25
    weight_filler {
      type: "xavier"
    }
    bias_filler {
      type: "constant"
    }
  }
}
layer {
  name: "relu2"
  type: "ReLU"
  bottom: "ip2"
  top: "ip2"
}
layer {
  name: "ip3"
  type: "InnerProduct"
  bottom: "ip2"
  top: "ip3"
  param {
    lr_mult: 1
  }
  param {
    lr_mult: 2
  }
  inner_product_param {
    num_output: 10
    weight_filler {
      type: "xavier"
    }
    bias_filler {
      type: "constant"
    }
  }
}
layer {
  name: "relu3"
  type: "ReLU"
  bottom: "ip3"
  top: "ip3"
}
layer {
  name: "loss"
  type: "SoftmaxWithLoss"
  bottom: "ip3"
  bottom: "label"
  top: "loss"
}
I0428 19:41:33.791368 24854 layer_factory.hpp:77] Creating layer mnist
I0428 19:41:33.791504 24854 db_lmdb.cpp:35] Opened lmdb examples/mnist/mnist_train_lmdb
I0428 19:41:33.791538 24854 net.cpp:86] Creating Layer mnist
I0428 19:41:33.791549 24854 net.cpp:382] mnist -> data
I0428 19:41:33.791580 24854 net.cpp:382] mnist -> label
I0428 19:41:33.792860 24854 data_layer.cpp:45] output data size: 64,1,28,28
I0428 19:41:33.795317 24854 net.cpp:124] Setting up mnist
I0428 19:41:33.795338 24854 net.cpp:131] Top shape: 64 1 28 28 (50176)
I0428 19:41:33.795348 24854 net.cpp:131] Top shape: 64 (64)
I0428 19:41:33.795356 24854 net.cpp:139] Memory required for data: 200960
I0428 19:41:33.795367 24854 layer_factory.hpp:77] Creating layer conv0
I0428 19:41:33.795388 24854 net.cpp:86] Creating Layer conv0
I0428 19:41:33.795413 24854 net.cpp:408] conv0 <- data
I0428 19:41:33.795433 24854 net.cpp:382] conv0 -> conv0
I0428 19:41:34.082484 24854 net.cpp:124] Setting up conv0
I0428 19:41:34.082516 24854 net.cpp:131] Top shape: 64 2 24 24 (73728)
I0428 19:41:34.082525 24854 net.cpp:139] Memory required for data: 495872
I0428 19:41:34.082548 24854 layer_factory.hpp:77] Creating layer pool0
I0428 19:41:34.082568 24854 net.cpp:86] Creating Layer pool0
I0428 19:41:34.082577 24854 net.cpp:408] pool0 <- conv0
I0428 19:41:34.082588 24854 net.cpp:382] pool0 -> pool0
I0428 19:41:34.082661 24854 net.cpp:124] Setting up pool0
I0428 19:41:34.082672 24854 net.cpp:131] Top shape: 64 2 12 12 (18432)
I0428 19:41:34.082679 24854 net.cpp:139] Memory required for data: 569600
I0428 19:41:34.082685 24854 layer_factory.hpp:77] Creating layer conv1
I0428 19:41:34.082705 24854 net.cpp:86] Creating Layer conv1
I0428 19:41:34.082712 24854 net.cpp:408] conv1 <- pool0
I0428 19:41:34.082723 24854 net.cpp:382] conv1 -> conv1
I0428 19:41:34.084945 24854 net.cpp:124] Setting up conv1
I0428 19:41:34.084965 24854 net.cpp:131] Top shape: 64 10 8 8 (40960)
I0428 19:41:34.084972 24854 net.cpp:139] Memory required for data: 733440
I0428 19:41:34.084988 24854 layer_factory.hpp:77] Creating layer pool1
I0428 19:41:34.085002 24854 net.cpp:86] Creating Layer pool1
I0428 19:41:34.085011 24854 net.cpp:408] pool1 <- conv1
I0428 19:41:34.085022 24854 net.cpp:382] pool1 -> pool1
I0428 19:41:34.085085 24854 net.cpp:124] Setting up pool1
I0428 19:41:34.085096 24854 net.cpp:131] Top shape: 64 10 4 4 (10240)
I0428 19:41:34.085103 24854 net.cpp:139] Memory required for data: 774400
I0428 19:41:34.085108 24854 layer_factory.hpp:77] Creating layer ip1
I0428 19:41:34.085124 24854 net.cpp:86] Creating Layer ip1
I0428 19:41:34.085135 24854 net.cpp:408] ip1 <- pool1
I0428 19:41:34.085147 24854 net.cpp:382] ip1 -> ip1
I0428 19:41:34.086257 24854 net.cpp:124] Setting up ip1
I0428 19:41:34.086274 24854 net.cpp:131] Top shape: 64 10 (640)
I0428 19:41:34.086280 24854 net.cpp:139] Memory required for data: 776960
I0428 19:41:34.086295 24854 layer_factory.hpp:77] Creating layer relu1
I0428 19:41:34.086310 24854 net.cpp:86] Creating Layer relu1
I0428 19:41:34.086323 24854 net.cpp:408] relu1 <- ip1
I0428 19:41:34.086333 24854 net.cpp:369] relu1 -> ip1 (in-place)
I0428 19:41:34.086563 24854 net.cpp:124] Setting up relu1
I0428 19:41:34.086575 24854 net.cpp:131] Top shape: 64 10 (640)
I0428 19:41:34.086581 24854 net.cpp:139] Memory required for data: 779520
I0428 19:41:34.086588 24854 layer_factory.hpp:77] Creating layer ip2
I0428 19:41:34.086601 24854 net.cpp:86] Creating Layer ip2
I0428 19:41:34.086607 24854 net.cpp:408] ip2 <- ip1
I0428 19:41:34.086619 24854 net.cpp:382] ip2 -> ip2
I0428 19:41:34.086752 24854 net.cpp:124] Setting up ip2
I0428 19:41:34.086763 24854 net.cpp:131] Top shape: 64 25 (1600)
I0428 19:41:34.086768 24854 net.cpp:139] Memory required for data: 785920
I0428 19:41:34.086779 24854 layer_factory.hpp:77] Creating layer relu2
I0428 19:41:34.086791 24854 net.cpp:86] Creating Layer relu2
I0428 19:41:34.086800 24854 net.cpp:408] relu2 <- ip2
I0428 19:41:34.086812 24854 net.cpp:369] relu2 -> ip2 (in-place)
I0428 19:41:34.087679 24854 net.cpp:124] Setting up relu2
I0428 19:41:34.087697 24854 net.cpp:131] Top shape: 64 25 (1600)
I0428 19:41:34.087703 24854 net.cpp:139] Memory required for data: 792320
I0428 19:41:34.087709 24854 layer_factory.hpp:77] Creating layer ip3
I0428 19:41:34.087721 24854 net.cpp:86] Creating Layer ip3
I0428 19:41:34.087728 24854 net.cpp:408] ip3 <- ip2
I0428 19:41:34.087741 24854 net.cpp:382] ip3 -> ip3
I0428 19:41:34.087874 24854 net.cpp:124] Setting up ip3
I0428 19:41:34.087885 24854 net.cpp:131] Top shape: 64 10 (640)
I0428 19:41:34.087891 24854 net.cpp:139] Memory required for data: 794880
I0428 19:41:34.087905 24854 layer_factory.hpp:77] Creating layer relu3
I0428 19:41:34.087918 24854 net.cpp:86] Creating Layer relu3
I0428 19:41:34.087926 24854 net.cpp:408] relu3 <- ip3
I0428 19:41:34.087935 24854 net.cpp:369] relu3 -> ip3 (in-place)
I0428 19:41:34.088155 24854 net.cpp:124] Setting up relu3
I0428 19:41:34.088170 24854 net.cpp:131] Top shape: 64 10 (640)
I0428 19:41:34.088176 24854 net.cpp:139] Memory required for data: 797440
I0428 19:41:34.088182 24854 layer_factory.hpp:77] Creating layer loss
I0428 19:41:34.088192 24854 net.cpp:86] Creating Layer loss
I0428 19:41:34.088199 24854 net.cpp:408] loss <- ip3
I0428 19:41:34.088207 24854 net.cpp:408] loss <- label
I0428 19:41:34.088217 24854 net.cpp:382] loss -> loss
I0428 19:41:34.088240 24854 layer_factory.hpp:77] Creating layer loss
…
I0428 19:41:34.089085 24854 solver.cpp:173] Creating test net (#0) specified by net file: ECE595/mnist/train_test/var_everything2/lenet_train_test368.prototxt
I0428 19:41:34.089128 24854 net.cpp:296] The NetState phase (1) differed from the phase (0) specified by a rule in layer mnist
I0428 19:41:34.089251 24854 net.cpp:53] Initializing net from parameters: 
name: "LeNet"
state {
  phase: TEST
}
layer {
  name: "mnist"
  type: "Data"
  top: "data"
  top: "label"
  include {
    phase: TEST
  }
  transform_param {
    scale: 0.00390625
  }
  data_param {
    source: "examples/mnist/mnist_test_lmdb"
    batch_size: 100
    backend: LMDB
  }
}
layer {
  name: "conv0"
  type: "Convolution"
  bottom: "data"
  top: "conv0"
  param {
    lr_mult: 1
  }
  param {
    lr_mult: 2
  }
  convolution_param {
    num_output: 2
    kernel_size: 5
    stride: 1
    weight_filler {
      type: "xavier"
    }
    bias_filler {
      type: "constant"
    }
  }
}
layer {
  name: "pool0"
  type: "Pooling"
  bottom: "conv0"
  top: "pool0"
  pooling_param {
    pool: MAX
    kernel_size: 2
    stride: 2
  }
}
layer {
  name: "conv1"
  type: "Convolution"
  bottom: "pool0"
  top: "conv1"
  param {
    lr_mult: 1
  }
  param {
    lr_mult: 2
  }
  convolution_param {
    num_output: 10
    kernel_size: 5
    stride: 1
    weight_filler {
      type: "xavier"
    }
    bias_filler {
      type: "constant"
    }
  }
}
layer {
  name: "pool1"
  type: "Pooling"
  bottom: "conv1"
  top: "pool1"
  pooling_param {
    pool: MAX
    kernel_size: 2
    stride: 2
  }
}
layer {
  name: "ip1"
  type: "InnerProduct"
  bottom: "pool1"
  top: "ip1"
  param {
    lr_mult: 1
  }
  param {
    lr_mult: 2
  }
  inner_product_param {
    num_output: 10
    weight_filler {
      type: "xavier"
    }
    bias_filler {
      type: "constant"
    }
  }
}
layer {
  name: "relu1"
  type: "ReLU"
  bottom: "ip1"
  top: "ip1"
}
layer {
  name: "ip2"
  type: "InnerProduct"
  bottom: "ip1"
  top: "ip2"
  param {
    lr_mult: 1
  }
  param {
    lr_mult: 2
  }
  inner_product_param {
    num_output: 25
    weight_filler {
      type: "xavier"
    }
    bias_filler {
      type: "constant"
    }
  }
}
layer {
  name: "relu2"
  type: "ReLU"
  bottom: "ip2"
  top: "ip2"
}
layer {
  name: "ip3"
  type: "InnerProduct"
  bottom: "ip2"
  top: "ip3"
  param {
    lr_mult: 1
  }
  param {
    lr_mult: 2
  }
  inner_product_param {
    num_output: 10
    weight_filler {
      type: "xavier"
    }
    bias_filler {
      type: "constant"
    }
  }
}
layer {
  name: "relu3"
  type: "ReLU"
  bottom: "ip3"
  top: "ip3"
}
layer {
  name: "accuracy"
  type: "Accuracy"
  bottom: "ip3"
  bottom: "label"
  top: "accuracy"
  include {
    phase: TEST
  }
}
layer {
  name: "loss"
  type: "SoftmaxWithLoss"
  bottom: "ip3"
  bottom: "label"
  top: "loss"
}
I0428 19:41:34.089395 24854 layer_factory.hpp:77] Creating layer mnist
I0428 19:41:34.089464 24854 db_lmdb.cpp:35] Opened lmdb examples/mnist/mnist_test_lmdb
I0428 19:41:34.089486 24854 net.cpp:86] Creating Layer mnist
I0428 19:41:34.089498 24854 net.cpp:382] mnist -> data
I0428 19:41:34.089511 24854 net.cpp:382] mnist -> label
I0428 19:41:34.089661 24854 data_layer.cpp:45] output data size: 100,1,28,28
I0428 19:41:34.092262 24854 net.cpp:124] Setting up mnist
I0428 19:41:34.092279 24854 net.cpp:131] Top shape: 100 1 28 28 (78400)
I0428 19:41:34.092289 24854 net.cpp:131] Top shape: 100 (100)
I0428 19:41:34.092295 24854 net.cpp:139] Memory required for data: 314000
I0428 19:41:34.092303 24854 layer_factory.hpp:77] Creating layer label_mnist_1_split
I0428 19:41:34.092314 24854 net.cpp:86] Creating Layer label_mnist_1_split
I0428 19:41:34.092321 24854 net.cpp:408] label_mnist_1_split <- label
I0428 19:41:34.092334 24854 net.cpp:382] label_mnist_1_split -> label_mnist_1_split_0
I0428 19:41:34.092346 24854 net.cpp:382] label_mnist_1_split -> label_mnist_1_split_1
I0428 19:41:34.092438 24854 net.cpp:124] Setting up label_mnist_1_split
I0428 19:41:34.092450 24854 net.cpp:131] Top shape: 100 (100)
I0428 19:41:34.092458 24854 net.cpp:131] Top shape: 100 (100)
I0428 19:41:34.092464 24854 net.cpp:139] Memory required for data: 314800
I0428 19:41:34.092470 24854 layer_factory.hpp:77] Creating layer conv0
I0428 19:41:34.092489 24854 net.cpp:86] Creating Layer conv0
I0428 19:41:34.092497 24854 net.cpp:408] conv0 <- data
I0428 19:41:34.092509 24854 net.cpp:382] conv0 -> conv0
I0428 19:41:34.094244 24854 net.cpp:124] Setting up conv0
I0428 19:41:34.094262 24854 net.cpp:131] Top shape: 100 2 24 24 (115200)
I0428 19:41:34.094269 24854 net.cpp:139] Memory required for data: 775600
I0428 19:41:34.094286 24854 layer_factory.hpp:77] Creating layer pool0
I0428 19:41:34.094305 24854 net.cpp:86] Creating Layer pool0
I0428 19:41:34.094311 24854 net.cpp:408] pool0 <- conv0
I0428 19:41:34.094322 24854 net.cpp:382] pool0 -> pool0
I0428 19:41:34.094384 24854 net.cpp:124] Setting up pool0
I0428 19:41:34.094395 24854 net.cpp:131] Top shape: 100 2 12 12 (28800)
I0428 19:41:34.094401 24854 net.cpp:139] Memory required for data: 890800
I0428 19:41:34.094406 24854 layer_factory.hpp:77] Creating layer conv1
I0428 19:41:34.094426 24854 net.cpp:86] Creating Layer conv1
I0428 19:41:34.094434 24854 net.cpp:408] conv1 <- pool0
I0428 19:41:34.094446 24854 net.cpp:382] conv1 -> conv1
I0428 19:41:34.096261 24854 net.cpp:124] Setting up conv1
I0428 19:41:34.096280 24854 net.cpp:131] Top shape: 100 10 8 8 (64000)
I0428 19:41:34.096289 24854 net.cpp:139] Memory required for data: 1146800
I0428 19:41:34.096305 24854 layer_factory.hpp:77] Creating layer pool1
I0428 19:41:34.096316 24854 net.cpp:86] Creating Layer pool1
I0428 19:41:34.096331 24854 net.cpp:408] pool1 <- conv1
I0428 19:41:34.096343 24854 net.cpp:382] pool1 -> pool1
I0428 19:41:34.096397 24854 net.cpp:124] Setting up pool1
I0428 19:41:34.096408 24854 net.cpp:131] Top shape: 100 10 4 4 (16000)
I0428 19:41:34.096415 24854 net.cpp:139] Memory required for data: 1210800
I0428 19:41:34.096421 24854 layer_factory.hpp:77] Creating layer ip1
I0428 19:41:34.096437 24854 net.cpp:86] Creating Layer ip1
I0428 19:41:34.096446 24854 net.cpp:408] ip1 <- pool1
I0428 19:41:34.096456 24854 net.cpp:382] ip1 -> ip1
I0428 19:41:34.096596 24854 net.cpp:124] Setting up ip1
I0428 19:41:34.096606 24854 net.cpp:131] Top shape: 100 10 (1000)
I0428 19:41:34.096627 24854 net.cpp:139] Memory required for data: 1214800
I0428 19:41:34.096642 24854 layer_factory.hpp:77] Creating layer relu1
I0428 19:41:34.096655 24854 net.cpp:86] Creating Layer relu1
I0428 19:41:34.096663 24854 net.cpp:408] relu1 <- ip1
I0428 19:41:34.096673 24854 net.cpp:369] relu1 -> ip1 (in-place)
I0428 19:41:34.096885 24854 net.cpp:124] Setting up relu1
I0428 19:41:34.096899 24854 net.cpp:131] Top shape: 100 10 (1000)
I0428 19:41:34.096906 24854 net.cpp:139] Memory required for data: 1218800
I0428 19:41:34.096920 24854 layer_factory.hpp:77] Creating layer ip2
I0428 19:41:34.096932 24854 net.cpp:86] Creating Layer ip2
I0428 19:41:34.096940 24854 net.cpp:408] ip2 <- ip1
I0428 19:41:34.096951 24854 net.cpp:382] ip2 -> ip2
I0428 19:41:34.097128 24854 net.cpp:124] Setting up ip2
I0428 19:41:34.097141 24854 net.cpp:131] Top shape: 100 25 (2500)
I0428 19:41:34.097146 24854 net.cpp:139] Memory required for data: 1228800
I0428 19:41:34.097157 24854 layer_factory.hpp:77] Creating layer relu2
I0428 19:41:34.097169 24854 net.cpp:86] Creating Layer relu2
I0428 19:41:34.097180 24854 net.cpp:408] relu2 <- ip2
I0428 19:41:34.097190 24854 net.cpp:369] relu2 -> ip2 (in-place)
I0428 19:41:34.097390 24854 net.cpp:124] Setting up relu2
I0428 19:41:34.097404 24854 net.cpp:131] Top shape: 100 25 (2500)
I0428 19:41:34.097409 24854 net.cpp:139] Memory required for data: 1238800
I0428 19:41:34.097415 24854 layer_factory.hpp:77] Creating layer ip3
I0428 19:41:34.097429 24854 net.cpp:86] Creating Layer ip3
I0428 19:41:34.097436 24854 net.cpp:408] ip3 <- ip2
I0428 19:41:34.097447 24854 net.cpp:382] ip3 -> ip3
I0428 19:41:34.097573 24854 net.cpp:124] Setting up ip3
I0428 19:41:34.097584 24854 net.cpp:131] Top shape: 100 10 (1000)
I0428 19:41:34.097589 24854 net.cpp:139] Memory required for data: 1242800
I0428 19:41:34.097604 24854 layer_factory.hpp:77] Creating layer relu3
I0428 19:41:34.097615 24854 net.cpp:86] Creating Layer relu3
I0428 19:41:34.097625 24854 net.cpp:408] relu3 <- ip3
I0428 19:41:34.097638 24854 net.cpp:369] relu3 -> ip3 (in-place)
I0428 19:41:34.098587 24854 net.cpp:124] Setting up relu3
I0428 19:41:34.098603 24854 net.cpp:131] Top shape: 100 10 (1000)
I0428 19:41:34.098609 24854 net.cpp:139] Memory required for data: 1246800
I0428 19:41:34.098615 24854 layer_factory.hpp:77] Creating layer ip3_relu3_0_split
I0428 19:41:34.098625 24854 net.cpp:86] Creating Layer ip3_relu3_0_split
I0428 19:41:34.098631 24854 net.cpp:408] ip3_relu3_0_split <- ip3
I0428 19:41:34.098644 24854 net.cpp:382] ip3_relu3_0_split -> ip3_relu3_0_split_0
I0428 19:41:34.098655 24854 net.cpp:382] ip3_relu3_0_split -> ip3_relu3_0_split_1
I0428 19:41:34.098709 24854 net.cpp:124] Setting up ip3_relu3_0_split
I0428 19:41:34.098722 24854 net.cpp:131] Top shape: 100 10 (1000)
I0428 19:41:34.098731 24854 net.cpp:131] Top shape: 100 10 (1000)
I0428 19:41:34.098737 24854 net.cpp:139] Memory required for data: 1254800
I0428 19:41:34.098742 24854 layer_factory.hpp:77] Creating layer accuracy
I0428 19:41:34.098752 24854 net.cpp:86] Creating Layer accuracy
I0428 19:41:34.098758 24854 net.cpp:408] accuracy <- ip3_relu3_0_split_0
I0428 19:41:34.098767 24854 net.cpp:408] accuracy <- label_mnist_1_split_0
I0428 19:41:34.098776 24854 net.cpp:382] accuracy -> accuracy
…
