…
I0428 19:48:48.059046 26597 net.cpp:296] The NetState phase (0) differed from the phase (1) specified by a rule in layer mnist
I0428 19:48:48.059064 26597 net.cpp:296] The NetState phase (0) differed from the phase (1) specified by a rule in layer accuracy
I0428 19:48:48.059154 26597 net.cpp:53] Initializing net from parameters: 
name: "LeNet"
state {
  phase: TRAIN
  level: 0
  stage: ""
}
layer {
  name: "mnist"
  type: "Data"
  top: "data"
  top: "label"
  include {
    phase: TRAIN
  }
  transform_param {
    scale: 0.00390625
  }
  data_param {
    source: "examples/mnist/mnist_train_lmdb"
    batch_size: 64
    backend: LMDB
  }
}
layer {
  name: "conv0"
  type: "Convolution"
  bottom: "data"
  top: "conv0"
  param {
    lr_mult: 1
  }
  param {
    lr_mult: 2
  }
  convolution_param {
    num_output: 5
    kernel_size: 5
    stride: 1
    weight_filler {
      type: "xavier"
    }
    bias_filler {
      type: "constant"
    }
  }
}
layer {
  name: "pool0"
  type: "Pooling"
  bottom: "conv0"
  top: "pool0"
  pooling_param {
    pool: MAX
    kernel_size: 2
    stride: 2
  }
}
layer {
  name: "conv1"
  type: "Convolution"
  bottom: "pool0"
  top: "conv1"
  param {
    lr_mult: 1
  }
  param {
    lr_mult: 2
  }
  convolution_param {
    num_output: 5
    kernel_size: 5
    stride: 1
    weight_filler {
      type: "xavier"
    }
    bias_filler {
      type: "constant"
    }
  }
}
layer {
  name: "pool1"
  type: "Pooling"
  bottom: "conv1"
  top: "pool1"
  pooling_param {
    pool: MAX
    kernel_size: 2
    stride: 2
  }
}
layer {
  name: "ip1"
  type: "InnerProduct"
  bottom: "pool1"
  top: "ip1"
  param {
    lr_mult: 1
  }
  param {
    lr_mult: 2
  }
  inner_product_param {
    num_output: 50
    weight_filler {
      type: "xavier"
    }
    bias_filler {
      type: "constant"
    }
  }
}
layer {
  name: "relu1"
  type: "ReLU"
  bottom: "ip1"
  top: "ip1"
}
layer {
  name: "ip2"
  type: "InnerProduct"
  bottom: "ip1"
  top: "ip2"
  param {
    lr_mult: 1
  }
  param {
    lr_mult: 2
  }
  inner_product_param {
    num_output: 10
    weight_filler {
      type: "xavier"
    }
    bias_filler {
      type: "constant"
    }
  }
}
layer {
  name: "relu2"
  type: "ReLU"
  bottom: "ip2"
  top: "ip2"
}
layer {
  name: "loss"
  type: "SoftmaxWithLoss"
  bottom: "ip2"
  bottom: "label"
  top: "loss"
}
I0428 19:48:48.059231 26597 layer_factory.hpp:77] Creating layer mnist
I0428 19:48:48.059329 26597 db_lmdb.cpp:35] Opened lmdb examples/mnist/mnist_train_lmdb
I0428 19:48:48.059352 26597 net.cpp:86] Creating Layer mnist
I0428 19:48:48.059360 26597 net.cpp:382] mnist -> data
I0428 19:48:48.059383 26597 net.cpp:382] mnist -> label
I0428 19:48:48.060477 26597 data_layer.cpp:45] output data size: 64,1,28,28
I0428 19:48:48.062948 26597 net.cpp:124] Setting up mnist
I0428 19:48:48.062965 26597 net.cpp:131] Top shape: 64 1 28 28 (50176)
I0428 19:48:48.062973 26597 net.cpp:131] Top shape: 64 (64)
I0428 19:48:48.062975 26597 net.cpp:139] Memory required for data: 200960
I0428 19:48:48.062983 26597 layer_factory.hpp:77] Creating layer conv0
I0428 19:48:48.063027 26597 net.cpp:86] Creating Layer conv0
I0428 19:48:48.063035 26597 net.cpp:408] conv0 <- data
I0428 19:48:48.063050 26597 net.cpp:382] conv0 -> conv0
I0428 19:48:48.339645 26597 net.cpp:124] Setting up conv0
I0428 19:48:48.339675 26597 net.cpp:131] Top shape: 64 5 24 24 (184320)
I0428 19:48:48.339680 26597 net.cpp:139] Memory required for data: 938240
I0428 19:48:48.339716 26597 layer_factory.hpp:77] Creating layer pool0
I0428 19:48:48.339730 26597 net.cpp:86] Creating Layer pool0
I0428 19:48:48.339735 26597 net.cpp:408] pool0 <- conv0
I0428 19:48:48.339741 26597 net.cpp:382] pool0 -> pool0
I0428 19:48:48.339795 26597 net.cpp:124] Setting up pool0
I0428 19:48:48.339803 26597 net.cpp:131] Top shape: 64 5 12 12 (46080)
I0428 19:48:48.339807 26597 net.cpp:139] Memory required for data: 1122560
I0428 19:48:48.339810 26597 layer_factory.hpp:77] Creating layer conv1
I0428 19:48:48.339823 26597 net.cpp:86] Creating Layer conv1
I0428 19:48:48.339829 26597 net.cpp:408] conv1 <- pool0
I0428 19:48:48.339838 26597 net.cpp:382] conv1 -> conv1
I0428 19:48:48.341877 26597 net.cpp:124] Setting up conv1
I0428 19:48:48.341895 26597 net.cpp:131] Top shape: 64 5 8 8 (20480)
I0428 19:48:48.341902 26597 net.cpp:139] Memory required for data: 1204480
I0428 19:48:48.341915 26597 layer_factory.hpp:77] Creating layer pool1
I0428 19:48:48.341929 26597 net.cpp:86] Creating Layer pool1
I0428 19:48:48.341935 26597 net.cpp:408] pool1 <- conv1
I0428 19:48:48.341944 26597 net.cpp:382] pool1 -> pool1
I0428 19:48:48.341994 26597 net.cpp:124] Setting up pool1
I0428 19:48:48.342003 26597 net.cpp:131] Top shape: 64 5 4 4 (5120)
I0428 19:48:48.342010 26597 net.cpp:139] Memory required for data: 1224960
I0428 19:48:48.342015 26597 layer_factory.hpp:77] Creating layer ip1
I0428 19:48:48.342026 26597 net.cpp:86] Creating Layer ip1
I0428 19:48:48.342032 26597 net.cpp:408] ip1 <- pool1
I0428 19:48:48.342041 26597 net.cpp:382] ip1 -> ip1
I0428 19:48:48.343101 26597 net.cpp:124] Setting up ip1
I0428 19:48:48.343116 26597 net.cpp:131] Top shape: 64 50 (3200)
I0428 19:48:48.343122 26597 net.cpp:139] Memory required for data: 1237760
I0428 19:48:48.343134 26597 layer_factory.hpp:77] Creating layer relu1
I0428 19:48:48.343144 26597 net.cpp:86] Creating Layer relu1
I0428 19:48:48.343150 26597 net.cpp:408] relu1 <- ip1
I0428 19:48:48.343158 26597 net.cpp:369] relu1 -> ip1 (in-place)
I0428 19:48:48.343367 26597 net.cpp:124] Setting up relu1
I0428 19:48:48.343377 26597 net.cpp:131] Top shape: 64 50 (3200)
I0428 19:48:48.343382 26597 net.cpp:139] Memory required for data: 1250560
I0428 19:48:48.343387 26597 layer_factory.hpp:77] Creating layer ip2
I0428 19:48:48.343399 26597 net.cpp:86] Creating Layer ip2
I0428 19:48:48.343403 26597 net.cpp:408] ip2 <- ip1
I0428 19:48:48.343426 26597 net.cpp:382] ip2 -> ip2
I0428 19:48:48.343531 26597 net.cpp:124] Setting up ip2
I0428 19:48:48.343540 26597 net.cpp:131] Top shape: 64 10 (640)
I0428 19:48:48.343544 26597 net.cpp:139] Memory required for data: 1253120
I0428 19:48:48.343554 26597 layer_factory.hpp:77] Creating layer relu2
I0428 19:48:48.343562 26597 net.cpp:86] Creating Layer relu2
I0428 19:48:48.343572 26597 net.cpp:408] relu2 <- ip2
I0428 19:48:48.343580 26597 net.cpp:369] relu2 -> ip2 (in-place)
I0428 19:48:48.344301 26597 net.cpp:124] Setting up relu2
I0428 19:48:48.344314 26597 net.cpp:131] Top shape: 64 10 (640)
I0428 19:48:48.344319 26597 net.cpp:139] Memory required for data: 1255680
I0428 19:48:48.344326 26597 layer_factory.hpp:77] Creating layer loss
I0428 19:48:48.344333 26597 net.cpp:86] Creating Layer loss
I0428 19:48:48.344338 26597 net.cpp:408] loss <- ip2
I0428 19:48:48.344346 26597 net.cpp:408] loss <- label
I0428 19:48:48.344353 26597 net.cpp:382] loss -> loss
I0428 19:48:48.344379 26597 layer_factory.hpp:77] Creating layer loss
…
I0428 19:48:48.345104 26597 solver.cpp:173] Creating test net (#0) specified by net file: ECE595/mnist/train_test/var_everything2/lenet_train_test555.prototxt
I0428 19:48:48.345139 26597 net.cpp:296] The NetState phase (1) differed from the phase (0) specified by a rule in layer mnist
I0428 19:48:48.345309 26597 net.cpp:53] Initializing net from parameters: 
name: "LeNet"
state {
  phase: TEST
}
layer {
  name: "mnist"
  type: "Data"
  top: "data"
  top: "label"
  include {
    phase: TEST
  }
  transform_param {
    scale: 0.00390625
  }
  data_param {
    source: "examples/mnist/mnist_test_lmdb"
    batch_size: 100
    backend: LMDB
  }
}
layer {
  name: "conv0"
  type: "Convolution"
  bottom: "data"
  top: "conv0"
  param {
    lr_mult: 1
  }
  param {
    lr_mult: 2
  }
  convolution_param {
    num_output: 5
    kernel_size: 5
    stride: 1
    weight_filler {
      type: "xavier"
    }
    bias_filler {
      type: "constant"
    }
  }
}
layer {
  name: "pool0"
  type: "Pooling"
  bottom: "conv0"
  top: "pool0"
  pooling_param {
    pool: MAX
    kernel_size: 2
    stride: 2
  }
}
layer {
  name: "conv1"
  type: "Convolution"
  bottom: "pool0"
  top: "conv1"
  param {
    lr_mult: 1
  }
  param {
    lr_mult: 2
  }
  convolution_param {
    num_output: 5
    kernel_size: 5
    stride: 1
    weight_filler {
      type: "xavier"
    }
    bias_filler {
      type: "constant"
    }
  }
}
layer {
  name: "pool1"
  type: "Pooling"
  bottom: "conv1"
  top: "pool1"
  pooling_param {
    pool: MAX
    kernel_size: 2
    stride: 2
  }
}
layer {
  name: "ip1"
  type: "InnerProduct"
  bottom: "pool1"
  top: "ip1"
  param {
    lr_mult: 1
  }
  param {
    lr_mult: 2
  }
  inner_product_param {
    num_output: 50
    weight_filler {
      type: "xavier"
    }
    bias_filler {
      type: "constant"
    }
  }
}
layer {
  name: "relu1"
  type: "ReLU"
  bottom: "ip1"
  top: "ip1"
}
layer {
  name: "ip2"
  type: "InnerProduct"
  bottom: "ip1"
  top: "ip2"
  param {
    lr_mult: 1
  }
  param {
    lr_mult: 2
  }
  inner_product_param {
    num_output: 10
    weight_filler {
      type: "xavier"
    }
    bias_filler {
      type: "constant"
    }
  }
}
layer {
  name: "relu2"
  type: "ReLU"
  bottom: "ip2"
  top: "ip2"
}
layer {
  name: "accuracy"
  type: "Accuracy"
  bottom: "ip2"
  bottom: "label"
  top: "accuracy"
  include {
    phase: TEST
  }
}
layer {
  name: "loss"
  type: "SoftmaxWithLoss"
  bottom: "ip2"
  bottom: "label"
  top: "loss"
}
I0428 19:48:48.345404 26597 layer_factory.hpp:77] Creating layer mnist
I0428 19:48:48.345459 26597 db_lmdb.cpp:35] Opened lmdb examples/mnist/mnist_test_lmdb
I0428 19:48:48.345481 26597 net.cpp:86] Creating Layer mnist
I0428 19:48:48.345489 26597 net.cpp:382] mnist -> data
I0428 19:48:48.345500 26597 net.cpp:382] mnist -> label
I0428 19:48:48.345644 26597 data_layer.cpp:45] output data size: 100,1,28,28
I0428 19:48:48.347745 26597 net.cpp:124] Setting up mnist
I0428 19:48:48.347777 26597 net.cpp:131] Top shape: 100 1 28 28 (78400)
I0428 19:48:48.347786 26597 net.cpp:131] Top shape: 100 (100)
I0428 19:48:48.347805 26597 net.cpp:139] Memory required for data: 314000
I0428 19:48:48.347812 26597 layer_factory.hpp:77] Creating layer label_mnist_1_split
I0428 19:48:48.347826 26597 net.cpp:86] Creating Layer label_mnist_1_split
I0428 19:48:48.347832 26597 net.cpp:408] label_mnist_1_split <- label
I0428 19:48:48.347841 26597 net.cpp:382] label_mnist_1_split -> label_mnist_1_split_0
I0428 19:48:48.347851 26597 net.cpp:382] label_mnist_1_split -> label_mnist_1_split_1
I0428 19:48:48.347923 26597 net.cpp:124] Setting up label_mnist_1_split
I0428 19:48:48.347944 26597 net.cpp:131] Top shape: 100 (100)
I0428 19:48:48.347950 26597 net.cpp:131] Top shape: 100 (100)
I0428 19:48:48.347955 26597 net.cpp:139] Memory required for data: 314800
I0428 19:48:48.347960 26597 layer_factory.hpp:77] Creating layer conv0
I0428 19:48:48.347973 26597 net.cpp:86] Creating Layer conv0
I0428 19:48:48.347980 26597 net.cpp:408] conv0 <- data
I0428 19:48:48.347990 26597 net.cpp:382] conv0 -> conv0
I0428 19:48:48.349614 26597 net.cpp:124] Setting up conv0
I0428 19:48:48.349630 26597 net.cpp:131] Top shape: 100 5 24 24 (288000)
I0428 19:48:48.349637 26597 net.cpp:139] Memory required for data: 1466800
I0428 19:48:48.349650 26597 layer_factory.hpp:77] Creating layer pool0
I0428 19:48:48.349660 26597 net.cpp:86] Creating Layer pool0
I0428 19:48:48.349687 26597 net.cpp:408] pool0 <- conv0
I0428 19:48:48.349696 26597 net.cpp:382] pool0 -> pool0
I0428 19:48:48.349738 26597 net.cpp:124] Setting up pool0
I0428 19:48:48.349747 26597 net.cpp:131] Top shape: 100 5 12 12 (72000)
I0428 19:48:48.349752 26597 net.cpp:139] Memory required for data: 1754800
I0428 19:48:48.349758 26597 layer_factory.hpp:77] Creating layer conv1
I0428 19:48:48.349771 26597 net.cpp:86] Creating Layer conv1
I0428 19:48:48.349777 26597 net.cpp:408] conv1 <- pool0
I0428 19:48:48.349786 26597 net.cpp:382] conv1 -> conv1
I0428 19:48:48.351886 26597 net.cpp:124] Setting up conv1
I0428 19:48:48.351903 26597 net.cpp:131] Top shape: 100 5 8 8 (32000)
I0428 19:48:48.351909 26597 net.cpp:139] Memory required for data: 1882800
I0428 19:48:48.351922 26597 layer_factory.hpp:77] Creating layer pool1
I0428 19:48:48.351933 26597 net.cpp:86] Creating Layer pool1
I0428 19:48:48.351939 26597 net.cpp:408] pool1 <- conv1
I0428 19:48:48.351948 26597 net.cpp:382] pool1 -> pool1
I0428 19:48:48.351995 26597 net.cpp:124] Setting up pool1
I0428 19:48:48.352005 26597 net.cpp:131] Top shape: 100 5 4 4 (8000)
I0428 19:48:48.352010 26597 net.cpp:139] Memory required for data: 1914800
I0428 19:48:48.352015 26597 layer_factory.hpp:77] Creating layer ip1
I0428 19:48:48.352028 26597 net.cpp:86] Creating Layer ip1
I0428 19:48:48.352037 26597 net.cpp:408] ip1 <- pool1
I0428 19:48:48.352046 26597 net.cpp:382] ip1 -> ip1
I0428 19:48:48.352246 26597 net.cpp:124] Setting up ip1
I0428 19:48:48.352257 26597 net.cpp:131] Top shape: 100 50 (5000)
I0428 19:48:48.352262 26597 net.cpp:139] Memory required for data: 1934800
I0428 19:48:48.352273 26597 layer_factory.hpp:77] Creating layer relu1
I0428 19:48:48.352282 26597 net.cpp:86] Creating Layer relu1
I0428 19:48:48.352288 26597 net.cpp:408] relu1 <- ip1
I0428 19:48:48.352295 26597 net.cpp:369] relu1 -> ip1 (in-place)
I0428 19:48:48.352469 26597 net.cpp:124] Setting up relu1
I0428 19:48:48.352479 26597 net.cpp:131] Top shape: 100 50 (5000)
I0428 19:48:48.352484 26597 net.cpp:139] Memory required for data: 1954800
I0428 19:48:48.352490 26597 layer_factory.hpp:77] Creating layer ip2
I0428 19:48:48.352502 26597 net.cpp:86] Creating Layer ip2
I0428 19:48:48.352509 26597 net.cpp:408] ip2 <- ip1
I0428 19:48:48.352517 26597 net.cpp:382] ip2 -> ip2
I0428 19:48:48.352632 26597 net.cpp:124] Setting up ip2
I0428 19:48:48.352641 26597 net.cpp:131] Top shape: 100 10 (1000)
I0428 19:48:48.352648 26597 net.cpp:139] Memory required for data: 1958800
I0428 19:48:48.352656 26597 layer_factory.hpp:77] Creating layer relu2
I0428 19:48:48.352664 26597 net.cpp:86] Creating Layer relu2
I0428 19:48:48.352669 26597 net.cpp:408] relu2 <- ip2
I0428 19:48:48.352679 26597 net.cpp:369] relu2 -> ip2 (in-place)
I0428 19:48:48.352910 26597 net.cpp:124] Setting up relu2
I0428 19:48:48.352922 26597 net.cpp:131] Top shape: 100 10 (1000)
I0428 19:48:48.352928 26597 net.cpp:139] Memory required for data: 1962800
I0428 19:48:48.352938 26597 layer_factory.hpp:77] Creating layer ip2_relu2_0_split
I0428 19:48:48.352946 26597 net.cpp:86] Creating Layer ip2_relu2_0_split
I0428 19:48:48.352952 26597 net.cpp:408] ip2_relu2_0_split <- ip2
I0428 19:48:48.352962 26597 net.cpp:382] ip2_relu2_0_split -> ip2_relu2_0_split_0
I0428 19:48:48.352987 26597 net.cpp:382] ip2_relu2_0_split -> ip2_relu2_0_split_1
I0428 19:48:48.353035 26597 net.cpp:124] Setting up ip2_relu2_0_split
I0428 19:48:48.353044 26597 net.cpp:131] Top shape: 100 10 (1000)
I0428 19:48:48.353051 26597 net.cpp:131] Top shape: 100 10 (1000)
I0428 19:48:48.353057 26597 net.cpp:139] Memory required for data: 1970800
I0428 19:48:48.353062 26597 layer_factory.hpp:77] Creating layer accuracy
I0428 19:48:48.353073 26597 net.cpp:86] Creating Layer accuracy
I0428 19:48:48.353080 26597 net.cpp:408] accuracy <- ip2_relu2_0_split_0
I0428 19:48:48.353087 26597 net.cpp:408] accuracy <- label_mnist_1_split_0
I0428 19:48:48.353097 26597 net.cpp:382] accuracy -> accuracy
…
