…
I0428 20:34:20.151571  4456 net.cpp:296] The NetState phase (0) differed from the phase (1) specified by a rule in layer mnist
I0428 20:34:20.151587  4456 net.cpp:296] The NetState phase (0) differed from the phase (1) specified by a rule in layer accuracy
I0428 20:34:20.151677  4456 net.cpp:53] Initializing net from parameters: 
name: "LeNet"
state {
  phase: TRAIN
  level: 0
  stage: ""
}
layer {
  name: "mnist"
  type: "Data"
  top: "data"
  top: "label"
  include {
    phase: TRAIN
  }
  transform_param {
    scale: 0.00390625
  }
  data_param {
    source: "examples/mnist/mnist_train_lmdb"
    batch_size: 64
    backend: LMDB
  }
}
layer {
  name: "conv0"
  type: "Convolution"
  bottom: "data"
  top: "conv0"
  param {
    lr_mult: 1
  }
  param {
    lr_mult: 2
  }
  convolution_param {
    num_output: 100
    kernel_size: 5
    stride: 1
    weight_filler {
      type: "xavier"
    }
    bias_filler {
      type: "constant"
    }
  }
}
layer {
  name: "pool0"
  type: "Pooling"
  bottom: "conv0"
  top: "pool0"
  pooling_param {
    pool: MAX
    kernel_size: 2
    stride: 2
  }
}
layer {
  name: "conv1"
  type: "Convolution"
  bottom: "pool0"
  top: "conv1"
  param {
    lr_mult: 1
  }
  param {
    lr_mult: 2
  }
  convolution_param {
    num_output: 50
    kernel_size: 5
    stride: 1
    weight_filler {
      type: "xavier"
    }
    bias_filler {
      type: "constant"
    }
  }
}
layer {
  name: "pool1"
  type: "Pooling"
  bottom: "conv1"
  top: "pool1"
  pooling_param {
    pool: MAX
    kernel_size: 2
    stride: 2
  }
}
layer {
  name: "ip1"
  type: "InnerProduct"
  bottom: "pool1"
  top: "ip1"
  param {
    lr_mult: 1
  }
  param {
    lr_mult: 2
  }
  inner_product_param {
    num_output: 10
    weight_filler {
      type: "xavier"
    }
    bias_filler {
      type: "constant"
    }
  }
}
layer {
  name: "relu1"
  type: "ReLU"
  bottom: "ip1"
  top: "ip1"
}
layer {
  name: "ip2"
  type: "InnerProduct"
  bottom: "ip1"
  top: "ip2"
  param {
    lr_mult: 1
  }
  param {
    lr_mult: 2
  }
  inner_product_param {
    num_output: 10
    weight_filler {
      type: "xavier"
    }
    bias_filler {
      type: "constant"
    }
  }
}
layer {
  name: "relu2"
  type: "ReLU"
  bottom: "ip2"
  top: "ip2"
}
layer {
  name: "loss"
  type: "SoftmaxWithLoss"
  bottom: "ip2"
  bottom: "label"
  top: "loss"
}
I0428 20:34:20.151752  4456 layer_factory.hpp:77] Creating layer mnist
I0428 20:34:20.151851  4456 db_lmdb.cpp:35] Opened lmdb examples/mnist/mnist_train_lmdb
I0428 20:34:20.151875  4456 net.cpp:86] Creating Layer mnist
I0428 20:34:20.151883  4456 net.cpp:382] mnist -> data
I0428 20:34:20.151906  4456 net.cpp:382] mnist -> label
I0428 20:34:20.153020  4456 data_layer.cpp:45] output data size: 64,1,28,28
I0428 20:34:20.155711  4456 net.cpp:124] Setting up mnist
I0428 20:34:20.155730  4456 net.cpp:131] Top shape: 64 1 28 28 (50176)
I0428 20:34:20.155735  4456 net.cpp:131] Top shape: 64 (64)
I0428 20:34:20.155738  4456 net.cpp:139] Memory required for data: 200960
I0428 20:34:20.155745  4456 layer_factory.hpp:77] Creating layer conv0
I0428 20:34:20.155781  4456 net.cpp:86] Creating Layer conv0
I0428 20:34:20.155788  4456 net.cpp:408] conv0 <- data
I0428 20:34:20.155800  4456 net.cpp:382] conv0 -> conv0
I0428 20:34:20.442459  4456 net.cpp:124] Setting up conv0
I0428 20:34:20.442487  4456 net.cpp:131] Top shape: 64 100 24 24 (3686400)
I0428 20:34:20.442490  4456 net.cpp:139] Memory required for data: 14946560
I0428 20:34:20.442525  4456 layer_factory.hpp:77] Creating layer pool0
I0428 20:34:20.442538  4456 net.cpp:86] Creating Layer pool0
I0428 20:34:20.442544  4456 net.cpp:408] pool0 <- conv0
I0428 20:34:20.442549  4456 net.cpp:382] pool0 -> pool0
I0428 20:34:20.442596  4456 net.cpp:124] Setting up pool0
I0428 20:34:20.442601  4456 net.cpp:131] Top shape: 64 100 12 12 (921600)
I0428 20:34:20.442605  4456 net.cpp:139] Memory required for data: 18632960
I0428 20:34:20.442607  4456 layer_factory.hpp:77] Creating layer conv1
I0428 20:34:20.442618  4456 net.cpp:86] Creating Layer conv1
I0428 20:34:20.442623  4456 net.cpp:408] conv1 <- pool0
I0428 20:34:20.442628  4456 net.cpp:382] conv1 -> conv1
I0428 20:34:20.445916  4456 net.cpp:124] Setting up conv1
I0428 20:34:20.445930  4456 net.cpp:131] Top shape: 64 50 8 8 (204800)
I0428 20:34:20.445935  4456 net.cpp:139] Memory required for data: 19452160
I0428 20:34:20.445942  4456 layer_factory.hpp:77] Creating layer pool1
I0428 20:34:20.445950  4456 net.cpp:86] Creating Layer pool1
I0428 20:34:20.445955  4456 net.cpp:408] pool1 <- conv1
I0428 20:34:20.445960  4456 net.cpp:382] pool1 -> pool1
I0428 20:34:20.445994  4456 net.cpp:124] Setting up pool1
I0428 20:34:20.446000  4456 net.cpp:131] Top shape: 64 50 4 4 (51200)
I0428 20:34:20.446003  4456 net.cpp:139] Memory required for data: 19656960
I0428 20:34:20.446007  4456 layer_factory.hpp:77] Creating layer ip1
I0428 20:34:20.446014  4456 net.cpp:86] Creating Layer ip1
I0428 20:34:20.446018  4456 net.cpp:408] ip1 <- pool1
I0428 20:34:20.446023  4456 net.cpp:382] ip1 -> ip1
I0428 20:34:20.446974  4456 net.cpp:124] Setting up ip1
I0428 20:34:20.446985  4456 net.cpp:131] Top shape: 64 10 (640)
I0428 20:34:20.446988  4456 net.cpp:139] Memory required for data: 19659520
I0428 20:34:20.446996  4456 layer_factory.hpp:77] Creating layer relu1
I0428 20:34:20.447005  4456 net.cpp:86] Creating Layer relu1
I0428 20:34:20.447010  4456 net.cpp:408] relu1 <- ip1
I0428 20:34:20.447013  4456 net.cpp:369] relu1 -> ip1 (in-place)
I0428 20:34:20.447178  4456 net.cpp:124] Setting up relu1
I0428 20:34:20.447186  4456 net.cpp:131] Top shape: 64 10 (640)
I0428 20:34:20.447190  4456 net.cpp:139] Memory required for data: 19662080
I0428 20:34:20.447192  4456 layer_factory.hpp:77] Creating layer ip2
I0428 20:34:20.447199  4456 net.cpp:86] Creating Layer ip2
I0428 20:34:20.447202  4456 net.cpp:408] ip2 <- ip1
I0428 20:34:20.447207  4456 net.cpp:382] ip2 -> ip2
I0428 20:34:20.447327  4456 net.cpp:124] Setting up ip2
I0428 20:34:20.447334  4456 net.cpp:131] Top shape: 64 10 (640)
I0428 20:34:20.447336  4456 net.cpp:139] Memory required for data: 19664640
I0428 20:34:20.447342  4456 layer_factory.hpp:77] Creating layer relu2
I0428 20:34:20.447348  4456 net.cpp:86] Creating Layer relu2
I0428 20:34:20.447351  4456 net.cpp:408] relu2 <- ip2
I0428 20:34:20.447355  4456 net.cpp:369] relu2 -> ip2 (in-place)
I0428 20:34:20.448081  4456 net.cpp:124] Setting up relu2
I0428 20:34:20.448093  4456 net.cpp:131] Top shape: 64 10 (640)
I0428 20:34:20.448097  4456 net.cpp:139] Memory required for data: 19667200
I0428 20:34:20.448101  4456 layer_factory.hpp:77] Creating layer loss
I0428 20:34:20.448107  4456 net.cpp:86] Creating Layer loss
I0428 20:34:20.448110  4456 net.cpp:408] loss <- ip2
I0428 20:34:20.448115  4456 net.cpp:408] loss <- label
I0428 20:34:20.448122  4456 net.cpp:382] loss -> loss
I0428 20:34:20.448140  4456 layer_factory.hpp:77] Creating layer loss
…
I0428 20:34:20.448843  4456 solver.cpp:173] Creating test net (#0) specified by net file: ECE595/mnist/train_test/var_everything2/lenet_train_test1603.prototxt
I0428 20:34:20.448884  4456 net.cpp:296] The NetState phase (1) differed from the phase (0) specified by a rule in layer mnist
I0428 20:34:20.448967  4456 net.cpp:53] Initializing net from parameters: 
name: "LeNet"
state {
  phase: TEST
}
layer {
  name: "mnist"
  type: "Data"
  top: "data"
  top: "label"
  include {
    phase: TEST
  }
  transform_param {
    scale: 0.00390625
  }
  data_param {
    source: "examples/mnist/mnist_test_lmdb"
    batch_size: 100
    backend: LMDB
  }
}
layer {
  name: "conv0"
  type: "Convolution"
  bottom: "data"
  top: "conv0"
  param {
    lr_mult: 1
  }
  param {
    lr_mult: 2
  }
  convolution_param {
    num_output: 100
    kernel_size: 5
    stride: 1
    weight_filler {
      type: "xavier"
    }
    bias_filler {
      type: "constant"
    }
  }
}
layer {
  name: "pool0"
  type: "Pooling"
  bottom: "conv0"
  top: "pool0"
  pooling_param {
    pool: MAX
    kernel_size: 2
    stride: 2
  }
}
layer {
  name: "conv1"
  type: "Convolution"
  bottom: "pool0"
  top: "conv1"
  param {
    lr_mult: 1
  }
  param {
    lr_mult: 2
  }
  convolution_param {
    num_output: 50
    kernel_size: 5
    stride: 1
    weight_filler {
      type: "xavier"
    }
    bias_filler {
      type: "constant"
    }
  }
}
layer {
  name: "pool1"
  type: "Pooling"
  bottom: "conv1"
  top: "pool1"
  pooling_param {
    pool: MAX
    kernel_size: 2
    stride: 2
  }
}
layer {
  name: "ip1"
  type: "InnerProduct"
  bottom: "pool1"
  top: "ip1"
  param {
    lr_mult: 1
  }
  param {
    lr_mult: 2
  }
  inner_product_param {
    num_output: 10
    weight_filler {
      type: "xavier"
    }
    bias_filler {
      type: "constant"
    }
  }
}
layer {
  name: "relu1"
  type: "ReLU"
  bottom: "ip1"
  top: "ip1"
}
layer {
  name: "ip2"
  type: "InnerProduct"
  bottom: "ip1"
  top: "ip2"
  param {
    lr_mult: 1
  }
  param {
    lr_mult: 2
  }
  inner_product_param {
    num_output: 10
    weight_filler {
      type: "xavier"
    }
    bias_filler {
      type: "constant"
    }
  }
}
layer {
  name: "relu2"
  type: "ReLU"
  bottom: "ip2"
  top: "ip2"
}
layer {
  name: "accuracy"
  type: "Accuracy"
  bottom: "ip2"
  bottom: "label"
  top: "accuracy"
  include {
    phase: TEST
  }
}
layer {
  name: "loss"
  type: "SoftmaxWithLoss"
  bottom: "ip2"
  bottom: "label"
  top: "loss"
}
I0428 20:34:20.449031  4456 layer_factory.hpp:77] Creating layer mnist
I0428 20:34:20.449077  4456 db_lmdb.cpp:35] Opened lmdb examples/mnist/mnist_test_lmdb
I0428 20:34:20.449090  4456 net.cpp:86] Creating Layer mnist
I0428 20:34:20.449095  4456 net.cpp:382] mnist -> data
I0428 20:34:20.449102  4456 net.cpp:382] mnist -> label
I0428 20:34:20.449198  4456 data_layer.cpp:45] output data size: 100,1,28,28
I0428 20:34:20.450265  4456 net.cpp:124] Setting up mnist
I0428 20:34:20.450278  4456 net.cpp:131] Top shape: 100 1 28 28 (78400)
I0428 20:34:20.450299  4456 net.cpp:131] Top shape: 100 (100)
I0428 20:34:20.450304  4456 net.cpp:139] Memory required for data: 314000
I0428 20:34:20.450306  4456 layer_factory.hpp:77] Creating layer label_mnist_1_split
I0428 20:34:20.450314  4456 net.cpp:86] Creating Layer label_mnist_1_split
I0428 20:34:20.450317  4456 net.cpp:408] label_mnist_1_split <- label
I0428 20:34:20.450322  4456 net.cpp:382] label_mnist_1_split -> label_mnist_1_split_0
I0428 20:34:20.450330  4456 net.cpp:382] label_mnist_1_split -> label_mnist_1_split_1
I0428 20:34:20.450438  4456 net.cpp:124] Setting up label_mnist_1_split
I0428 20:34:20.450445  4456 net.cpp:131] Top shape: 100 (100)
I0428 20:34:20.450449  4456 net.cpp:131] Top shape: 100 (100)
I0428 20:34:20.450453  4456 net.cpp:139] Memory required for data: 314800
I0428 20:34:20.450455  4456 layer_factory.hpp:77] Creating layer conv0
I0428 20:34:20.450464  4456 net.cpp:86] Creating Layer conv0
I0428 20:34:20.450466  4456 net.cpp:408] conv0 <- data
I0428 20:34:20.450471  4456 net.cpp:382] conv0 -> conv0
I0428 20:34:20.452157  4456 net.cpp:124] Setting up conv0
I0428 20:34:20.452172  4456 net.cpp:131] Top shape: 100 100 24 24 (5760000)
I0428 20:34:20.452174  4456 net.cpp:139] Memory required for data: 23354800
I0428 20:34:20.452183  4456 layer_factory.hpp:77] Creating layer pool0
I0428 20:34:20.452189  4456 net.cpp:86] Creating Layer pool0
I0428 20:34:20.452193  4456 net.cpp:408] pool0 <- conv0
I0428 20:34:20.452198  4456 net.cpp:382] pool0 -> pool0
I0428 20:34:20.452234  4456 net.cpp:124] Setting up pool0
I0428 20:34:20.452239  4456 net.cpp:131] Top shape: 100 100 12 12 (1440000)
I0428 20:34:20.452241  4456 net.cpp:139] Memory required for data: 29114800
I0428 20:34:20.452244  4456 layer_factory.hpp:77] Creating layer conv1
I0428 20:34:20.452255  4456 net.cpp:86] Creating Layer conv1
I0428 20:34:20.452258  4456 net.cpp:408] conv1 <- pool0
I0428 20:34:20.452263  4456 net.cpp:382] conv1 -> conv1
I0428 20:34:20.455536  4456 net.cpp:124] Setting up conv1
I0428 20:34:20.455550  4456 net.cpp:131] Top shape: 100 50 8 8 (320000)
I0428 20:34:20.455554  4456 net.cpp:139] Memory required for data: 30394800
I0428 20:34:20.455565  4456 layer_factory.hpp:77] Creating layer pool1
I0428 20:34:20.455572  4456 net.cpp:86] Creating Layer pool1
I0428 20:34:20.455575  4456 net.cpp:408] pool1 <- conv1
I0428 20:34:20.455584  4456 net.cpp:382] pool1 -> pool1
I0428 20:34:20.455620  4456 net.cpp:124] Setting up pool1
I0428 20:34:20.455626  4456 net.cpp:131] Top shape: 100 50 4 4 (80000)
I0428 20:34:20.455628  4456 net.cpp:139] Memory required for data: 30714800
I0428 20:34:20.455631  4456 layer_factory.hpp:77] Creating layer ip1
I0428 20:34:20.455637  4456 net.cpp:86] Creating Layer ip1
I0428 20:34:20.455641  4456 net.cpp:408] ip1 <- pool1
I0428 20:34:20.455646  4456 net.cpp:382] ip1 -> ip1
I0428 20:34:20.455788  4456 net.cpp:124] Setting up ip1
I0428 20:34:20.455796  4456 net.cpp:131] Top shape: 100 10 (1000)
I0428 20:34:20.455799  4456 net.cpp:139] Memory required for data: 30718800
I0428 20:34:20.455806  4456 layer_factory.hpp:77] Creating layer relu1
I0428 20:34:20.455812  4456 net.cpp:86] Creating Layer relu1
I0428 20:34:20.455816  4456 net.cpp:408] relu1 <- ip1
I0428 20:34:20.455821  4456 net.cpp:369] relu1 -> ip1 (in-place)
I0428 20:34:20.455976  4456 net.cpp:124] Setting up relu1
I0428 20:34:20.455983  4456 net.cpp:131] Top shape: 100 10 (1000)
I0428 20:34:20.455986  4456 net.cpp:139] Memory required for data: 30722800
I0428 20:34:20.455991  4456 layer_factory.hpp:77] Creating layer ip2
I0428 20:34:20.455998  4456 net.cpp:86] Creating Layer ip2
I0428 20:34:20.456001  4456 net.cpp:408] ip2 <- ip1
I0428 20:34:20.456008  4456 net.cpp:382] ip2 -> ip2
I0428 20:34:20.456105  4456 net.cpp:124] Setting up ip2
I0428 20:34:20.456112  4456 net.cpp:131] Top shape: 100 10 (1000)
I0428 20:34:20.456115  4456 net.cpp:139] Memory required for data: 30726800
I0428 20:34:20.456120  4456 layer_factory.hpp:77] Creating layer relu2
I0428 20:34:20.456125  4456 net.cpp:86] Creating Layer relu2
I0428 20:34:20.456128  4456 net.cpp:408] relu2 <- ip2
I0428 20:34:20.456132  4456 net.cpp:369] relu2 -> ip2 (in-place)
I0428 20:34:20.456317  4456 net.cpp:124] Setting up relu2
I0428 20:34:20.456326  4456 net.cpp:131] Top shape: 100 10 (1000)
I0428 20:34:20.456328  4456 net.cpp:139] Memory required for data: 30730800
I0428 20:34:20.456331  4456 layer_factory.hpp:77] Creating layer ip2_relu2_0_split
I0428 20:34:20.456336  4456 net.cpp:86] Creating Layer ip2_relu2_0_split
I0428 20:34:20.456338  4456 net.cpp:408] ip2_relu2_0_split <- ip2
I0428 20:34:20.456342  4456 net.cpp:382] ip2_relu2_0_split -> ip2_relu2_0_split_0
I0428 20:34:20.456359  4456 net.cpp:382] ip2_relu2_0_split -> ip2_relu2_0_split_1
I0428 20:34:20.456410  4456 net.cpp:124] Setting up ip2_relu2_0_split
I0428 20:34:20.456416  4456 net.cpp:131] Top shape: 100 10 (1000)
I0428 20:34:20.456420  4456 net.cpp:131] Top shape: 100 10 (1000)
I0428 20:34:20.456423  4456 net.cpp:139] Memory required for data: 30738800
I0428 20:34:20.456426  4456 layer_factory.hpp:77] Creating layer accuracy
I0428 20:34:20.456436  4456 net.cpp:86] Creating Layer accuracy
I0428 20:34:20.456439  4456 net.cpp:408] accuracy <- ip2_relu2_0_split_0
I0428 20:34:20.456444  4456 net.cpp:408] accuracy <- label_mnist_1_split_0
I0428 20:34:20.456447  4456 net.cpp:382] accuracy -> accuracy
…
