…
I0428 20:37:39.936578  4980 net.cpp:296] The NetState phase (0) differed from the phase (1) specified by a rule in layer mnist
I0428 20:37:39.936597  4980 net.cpp:296] The NetState phase (0) differed from the phase (1) specified by a rule in layer accuracy
I0428 20:37:39.936698  4980 net.cpp:53] Initializing net from parameters: 
name: "LeNet"
state {
  phase: TRAIN
  level: 0
  stage: ""
}
layer {
  name: "mnist"
  type: "Data"
  top: "data"
  top: "label"
  include {
    phase: TRAIN
  }
  transform_param {
    scale: 0.00390625
  }
  data_param {
    source: "examples/mnist/mnist_train_lmdb"
    batch_size: 64
    backend: LMDB
  }
}
layer {
  name: "conv0"
  type: "Convolution"
  bottom: "data"
  top: "conv0"
  param {
    lr_mult: 1
  }
  param {
    lr_mult: 2
  }
  convolution_param {
    num_output: 100
    kernel_size: 5
    stride: 1
    weight_filler {
      type: "xavier"
    }
    bias_filler {
      type: "constant"
    }
  }
}
layer {
  name: "pool0"
  type: "Pooling"
  bottom: "conv0"
  top: "pool0"
  pooling_param {
    pool: MAX
    kernel_size: 2
    stride: 2
  }
}
layer {
  name: "conv1"
  type: "Convolution"
  bottom: "pool0"
  top: "conv1"
  param {
    lr_mult: 1
  }
  param {
    lr_mult: 2
  }
  convolution_param {
    num_output: 100
    kernel_size: 5
    stride: 1
    weight_filler {
      type: "xavier"
    }
    bias_filler {
      type: "constant"
    }
  }
}
layer {
  name: "pool1"
  type: "Pooling"
  bottom: "conv1"
  top: "pool1"
  pooling_param {
    pool: MAX
    kernel_size: 2
    stride: 2
  }
}
layer {
  name: "ip1"
  type: "InnerProduct"
  bottom: "pool1"
  top: "ip1"
  param {
    lr_mult: 1
  }
  param {
    lr_mult: 2
  }
  inner_product_param {
    num_output: 10
    weight_filler {
      type: "xavier"
    }
    bias_filler {
      type: "constant"
    }
  }
}
layer {
  name: "relu1"
  type: "ReLU"
  bottom: "ip1"
  top: "ip1"
}
layer {
  name: "ip2"
  type: "InnerProduct"
  bottom: "ip1"
  top: "ip2"
  param {
    lr_mult: 1
  }
  param {
    lr_mult: 2
  }
  inner_product_param {
    num_output: 25
    weight_filler {
      type: "xavier"
    }
    bias_filler {
      type: "constant"
    }
  }
}
layer {
  name: "relu2"
  type: "ReLU"
  bottom: "ip2"
  top: "ip2"
}
layer {
  name: "ip3"
  type: "InnerProduct"
  bottom: "ip2"
  top: "ip3"
  param {
    lr_mult: 1
  }
  param {
    lr_mult: 2
  }
  inner_product_param {
    num_output: 10
    weight_filler {
      type: "xavier"
    }
    bias_filler {
      type: "constant"
    }
  }
}
layer {
  name: "relu3"
  type: "ReLU"
  bottom: "ip3"
  top: "ip3"
}
layer {
  name: "loss"
  type: "SoftmaxWithLoss"
  bottom: "ip3"
  bottom: "label"
  top: "loss"
}
I0428 20:37:39.936776  4980 layer_factory.hpp:77] Creating layer mnist
I0428 20:37:39.936884  4980 db_lmdb.cpp:35] Opened lmdb examples/mnist/mnist_train_lmdb
I0428 20:37:39.936913  4980 net.cpp:86] Creating Layer mnist
I0428 20:37:39.936920  4980 net.cpp:382] mnist -> data
I0428 20:37:39.936941  4980 net.cpp:382] mnist -> label
I0428 20:37:39.938037  4980 data_layer.cpp:45] output data size: 64,1,28,28
I0428 20:37:39.940477  4980 net.cpp:124] Setting up mnist
I0428 20:37:39.940495  4980 net.cpp:131] Top shape: 64 1 28 28 (50176)
I0428 20:37:39.940502  4980 net.cpp:131] Top shape: 64 (64)
I0428 20:37:39.940505  4980 net.cpp:139] Memory required for data: 200960
I0428 20:37:39.940512  4980 layer_factory.hpp:77] Creating layer conv0
I0428 20:37:39.940527  4980 net.cpp:86] Creating Layer conv0
I0428 20:37:39.940547  4980 net.cpp:408] conv0 <- data
I0428 20:37:39.940562  4980 net.cpp:382] conv0 -> conv0
I0428 20:37:40.201467  4980 net.cpp:124] Setting up conv0
I0428 20:37:40.201493  4980 net.cpp:131] Top shape: 64 100 24 24 (3686400)
I0428 20:37:40.201498  4980 net.cpp:139] Memory required for data: 14946560
I0428 20:37:40.201511  4980 layer_factory.hpp:77] Creating layer pool0
I0428 20:37:40.201524  4980 net.cpp:86] Creating Layer pool0
I0428 20:37:40.201527  4980 net.cpp:408] pool0 <- conv0
I0428 20:37:40.201531  4980 net.cpp:382] pool0 -> pool0
I0428 20:37:40.201591  4980 net.cpp:124] Setting up pool0
I0428 20:37:40.201596  4980 net.cpp:131] Top shape: 64 100 12 12 (921600)
I0428 20:37:40.201597  4980 net.cpp:139] Memory required for data: 18632960
I0428 20:37:40.201601  4980 layer_factory.hpp:77] Creating layer conv1
I0428 20:37:40.201611  4980 net.cpp:86] Creating Layer conv1
I0428 20:37:40.201613  4980 net.cpp:408] conv1 <- pool0
I0428 20:37:40.201617  4980 net.cpp:382] conv1 -> conv1
I0428 20:37:40.205740  4980 net.cpp:124] Setting up conv1
I0428 20:37:40.205770  4980 net.cpp:131] Top shape: 64 100 8 8 (409600)
I0428 20:37:40.205772  4980 net.cpp:139] Memory required for data: 20271360
I0428 20:37:40.205780  4980 layer_factory.hpp:77] Creating layer pool1
I0428 20:37:40.205787  4980 net.cpp:86] Creating Layer pool1
I0428 20:37:40.205791  4980 net.cpp:408] pool1 <- conv1
I0428 20:37:40.205796  4980 net.cpp:382] pool1 -> pool1
I0428 20:37:40.205845  4980 net.cpp:124] Setting up pool1
I0428 20:37:40.205850  4980 net.cpp:131] Top shape: 64 100 4 4 (102400)
I0428 20:37:40.205853  4980 net.cpp:139] Memory required for data: 20680960
I0428 20:37:40.205855  4980 layer_factory.hpp:77] Creating layer ip1
I0428 20:37:40.205862  4980 net.cpp:86] Creating Layer ip1
I0428 20:37:40.205865  4980 net.cpp:408] ip1 <- pool1
I0428 20:37:40.205869  4980 net.cpp:382] ip1 -> ip1
I0428 20:37:40.206867  4980 net.cpp:124] Setting up ip1
I0428 20:37:40.206879  4980 net.cpp:131] Top shape: 64 10 (640)
I0428 20:37:40.206898  4980 net.cpp:139] Memory required for data: 20683520
I0428 20:37:40.206905  4980 layer_factory.hpp:77] Creating layer relu1
I0428 20:37:40.206912  4980 net.cpp:86] Creating Layer relu1
I0428 20:37:40.206914  4980 net.cpp:408] relu1 <- ip1
I0428 20:37:40.206919  4980 net.cpp:369] relu1 -> ip1 (in-place)
I0428 20:37:40.207084  4980 net.cpp:124] Setting up relu1
I0428 20:37:40.207093  4980 net.cpp:131] Top shape: 64 10 (640)
I0428 20:37:40.207095  4980 net.cpp:139] Memory required for data: 20686080
I0428 20:37:40.207098  4980 layer_factory.hpp:77] Creating layer ip2
I0428 20:37:40.207106  4980 net.cpp:86] Creating Layer ip2
I0428 20:37:40.207109  4980 net.cpp:408] ip2 <- ip1
I0428 20:37:40.207114  4980 net.cpp:382] ip2 -> ip2
I0428 20:37:40.207211  4980 net.cpp:124] Setting up ip2
I0428 20:37:40.207217  4980 net.cpp:131] Top shape: 64 25 (1600)
I0428 20:37:40.207219  4980 net.cpp:139] Memory required for data: 20692480
I0428 20:37:40.207224  4980 layer_factory.hpp:77] Creating layer relu2
I0428 20:37:40.207231  4980 net.cpp:86] Creating Layer relu2
I0428 20:37:40.207233  4980 net.cpp:408] relu2 <- ip2
I0428 20:37:40.207237  4980 net.cpp:369] relu2 -> ip2 (in-place)
I0428 20:37:40.207993  4980 net.cpp:124] Setting up relu2
I0428 20:37:40.208004  4980 net.cpp:131] Top shape: 64 25 (1600)
I0428 20:37:40.208024  4980 net.cpp:139] Memory required for data: 20698880
I0428 20:37:40.208026  4980 layer_factory.hpp:77] Creating layer ip3
I0428 20:37:40.208034  4980 net.cpp:86] Creating Layer ip3
I0428 20:37:40.208036  4980 net.cpp:408] ip3 <- ip2
I0428 20:37:40.208042  4980 net.cpp:382] ip3 -> ip3
I0428 20:37:40.208143  4980 net.cpp:124] Setting up ip3
I0428 20:37:40.208164  4980 net.cpp:131] Top shape: 64 10 (640)
I0428 20:37:40.208168  4980 net.cpp:139] Memory required for data: 20701440
I0428 20:37:40.208174  4980 layer_factory.hpp:77] Creating layer relu3
I0428 20:37:40.208179  4980 net.cpp:86] Creating Layer relu3
I0428 20:37:40.208183  4980 net.cpp:408] relu3 <- ip3
I0428 20:37:40.208201  4980 net.cpp:369] relu3 -> ip3 (in-place)
I0428 20:37:40.208367  4980 net.cpp:124] Setting up relu3
I0428 20:37:40.208375  4980 net.cpp:131] Top shape: 64 10 (640)
I0428 20:37:40.208379  4980 net.cpp:139] Memory required for data: 20704000
I0428 20:37:40.208381  4980 layer_factory.hpp:77] Creating layer loss
I0428 20:37:40.208392  4980 net.cpp:86] Creating Layer loss
I0428 20:37:40.208395  4980 net.cpp:408] loss <- ip3
I0428 20:37:40.208400  4980 net.cpp:408] loss <- label
I0428 20:37:40.208405  4980 net.cpp:382] loss -> loss
I0428 20:37:40.208417  4980 layer_factory.hpp:77] Creating layer loss
…
I0428 20:37:40.209087  4980 solver.cpp:173] Creating test net (#0) specified by net file: ECE595/mnist/train_test/var_everything2/lenet_train_test1654.prototxt
I0428 20:37:40.209115  4980 net.cpp:296] The NetState phase (1) differed from the phase (0) specified by a rule in layer mnist
I0428 20:37:40.209218  4980 net.cpp:53] Initializing net from parameters: 
name: "LeNet"
state {
  phase: TEST
}
layer {
  name: "mnist"
  type: "Data"
  top: "data"
  top: "label"
  include {
    phase: TEST
  }
  transform_param {
    scale: 0.00390625
  }
  data_param {
    source: "examples/mnist/mnist_test_lmdb"
    batch_size: 100
    backend: LMDB
  }
}
layer {
  name: "conv0"
  type: "Convolution"
  bottom: "data"
  top: "conv0"
  param {
    lr_mult: 1
  }
  param {
    lr_mult: 2
  }
  convolution_param {
    num_output: 100
    kernel_size: 5
    stride: 1
    weight_filler {
      type: "xavier"
    }
    bias_filler {
      type: "constant"
    }
  }
}
layer {
  name: "pool0"
  type: "Pooling"
  bottom: "conv0"
  top: "pool0"
  pooling_param {
    pool: MAX
    kernel_size: 2
    stride: 2
  }
}
layer {
  name: "conv1"
  type: "Convolution"
  bottom: "pool0"
  top: "conv1"
  param {
    lr_mult: 1
  }
  param {
    lr_mult: 2
  }
  convolution_param {
    num_output: 100
    kernel_size: 5
    stride: 1
    weight_filler {
      type: "xavier"
    }
    bias_filler {
      type: "constant"
    }
  }
}
layer {
  name: "pool1"
  type: "Pooling"
  bottom: "conv1"
  top: "pool1"
  pooling_param {
    pool: MAX
    kernel_size: 2
    stride: 2
  }
}
layer {
  name: "ip1"
  type: "InnerProduct"
  bottom: "pool1"
  top: "ip1"
  param {
    lr_mult: 1
  }
  param {
    lr_mult: 2
  }
  inner_product_param {
    num_output: 10
    weight_filler {
      type: "xavier"
    }
    bias_filler {
      type: "constant"
    }
  }
}
layer {
  name: "relu1"
  type: "ReLU"
  bottom: "ip1"
  top: "ip1"
}
layer {
  name: "ip2"
  type: "InnerProduct"
  bottom: "ip1"
  top: "ip2"
  param {
    lr_mult: 1
  }
  param {
    lr_mult: 2
  }
  inner_product_param {
    num_output: 25
    weight_filler {
      type: "xavier"
    }
    bias_filler {
      type: "constant"
    }
  }
}
layer {
  name: "relu2"
  type: "ReLU"
  bottom: "ip2"
  top: "ip2"
}
layer {
  name: "ip3"
  type: "InnerProduct"
  bottom: "ip2"
  top: "ip3"
  param {
    lr_mult: 1
  }
  param {
    lr_mult: 2
  }
  inner_product_param {
    num_output: 10
    weight_filler {
      type: "xavier"
    }
    bias_filler {
      type: "constant"
    }
  }
}
layer {
  name: "relu3"
  type: "ReLU"
  bottom: "ip3"
  top: "ip3"
}
layer {
  name: "accuracy"
  type: "Accuracy"
  bottom: "ip3"
  bottom: "label"
  top: "accuracy"
  include {
    phase: TEST
  }
}
layer {
  name: "loss"
  type: "SoftmaxWithLoss"
  bottom: "ip3"
  bottom: "label"
  top: "loss"
}
I0428 20:37:40.209297  4980 layer_factory.hpp:77] Creating layer mnist
I0428 20:37:40.209338  4980 db_lmdb.cpp:35] Opened lmdb examples/mnist/mnist_test_lmdb
I0428 20:37:40.209350  4980 net.cpp:86] Creating Layer mnist
I0428 20:37:40.209354  4980 net.cpp:382] mnist -> data
I0428 20:37:40.209363  4980 net.cpp:382] mnist -> label
I0428 20:37:40.209462  4980 data_layer.cpp:45] output data size: 100,1,28,28
I0428 20:37:40.211570  4980 net.cpp:124] Setting up mnist
I0428 20:37:40.211597  4980 net.cpp:131] Top shape: 100 1 28 28 (78400)
I0428 20:37:40.211602  4980 net.cpp:131] Top shape: 100 (100)
I0428 20:37:40.211606  4980 net.cpp:139] Memory required for data: 314000
I0428 20:37:40.211609  4980 layer_factory.hpp:77] Creating layer label_mnist_1_split
I0428 20:37:40.211616  4980 net.cpp:86] Creating Layer label_mnist_1_split
I0428 20:37:40.211618  4980 net.cpp:408] label_mnist_1_split <- label
I0428 20:37:40.211622  4980 net.cpp:382] label_mnist_1_split -> label_mnist_1_split_0
I0428 20:37:40.211668  4980 net.cpp:382] label_mnist_1_split -> label_mnist_1_split_1
I0428 20:37:40.211706  4980 net.cpp:124] Setting up label_mnist_1_split
I0428 20:37:40.211711  4980 net.cpp:131] Top shape: 100 (100)
I0428 20:37:40.211714  4980 net.cpp:131] Top shape: 100 (100)
I0428 20:37:40.211717  4980 net.cpp:139] Memory required for data: 314800
I0428 20:37:40.211720  4980 layer_factory.hpp:77] Creating layer conv0
I0428 20:37:40.211730  4980 net.cpp:86] Creating Layer conv0
I0428 20:37:40.211732  4980 net.cpp:408] conv0 <- data
I0428 20:37:40.211737  4980 net.cpp:382] conv0 -> conv0
I0428 20:37:40.213531  4980 net.cpp:124] Setting up conv0
I0428 20:37:40.213544  4980 net.cpp:131] Top shape: 100 100 24 24 (5760000)
I0428 20:37:40.213548  4980 net.cpp:139] Memory required for data: 23354800
I0428 20:37:40.213557  4980 layer_factory.hpp:77] Creating layer pool0
I0428 20:37:40.213563  4980 net.cpp:86] Creating Layer pool0
I0428 20:37:40.213577  4980 net.cpp:408] pool0 <- conv0
I0428 20:37:40.213582  4980 net.cpp:382] pool0 -> pool0
I0428 20:37:40.213632  4980 net.cpp:124] Setting up pool0
I0428 20:37:40.213637  4980 net.cpp:131] Top shape: 100 100 12 12 (1440000)
I0428 20:37:40.213640  4980 net.cpp:139] Memory required for data: 29114800
I0428 20:37:40.213642  4980 layer_factory.hpp:77] Creating layer conv1
I0428 20:37:40.213667  4980 net.cpp:86] Creating Layer conv1
I0428 20:37:40.213670  4980 net.cpp:408] conv1 <- pool0
I0428 20:37:40.213676  4980 net.cpp:382] conv1 -> conv1
I0428 20:37:40.216616  4980 net.cpp:124] Setting up conv1
I0428 20:37:40.216629  4980 net.cpp:131] Top shape: 100 100 8 8 (640000)
I0428 20:37:40.216634  4980 net.cpp:139] Memory required for data: 31674800
I0428 20:37:40.216648  4980 layer_factory.hpp:77] Creating layer pool1
I0428 20:37:40.216670  4980 net.cpp:86] Creating Layer pool1
I0428 20:37:40.216673  4980 net.cpp:408] pool1 <- conv1
I0428 20:37:40.216678  4980 net.cpp:382] pool1 -> pool1
I0428 20:37:40.216719  4980 net.cpp:124] Setting up pool1
I0428 20:37:40.216724  4980 net.cpp:131] Top shape: 100 100 4 4 (160000)
I0428 20:37:40.216727  4980 net.cpp:139] Memory required for data: 32314800
I0428 20:37:40.216730  4980 layer_factory.hpp:77] Creating layer ip1
I0428 20:37:40.216747  4980 net.cpp:86] Creating Layer ip1
I0428 20:37:40.216756  4980 net.cpp:408] ip1 <- pool1
I0428 20:37:40.216760  4980 net.cpp:382] ip1 -> ip1
I0428 20:37:40.216960  4980 net.cpp:124] Setting up ip1
I0428 20:37:40.216979  4980 net.cpp:131] Top shape: 100 10 (1000)
I0428 20:37:40.216989  4980 net.cpp:139] Memory required for data: 32318800
I0428 20:37:40.216996  4980 layer_factory.hpp:77] Creating layer relu1
I0428 20:37:40.217000  4980 net.cpp:86] Creating Layer relu1
I0428 20:37:40.217005  4980 net.cpp:408] relu1 <- ip1
I0428 20:37:40.217010  4980 net.cpp:369] relu1 -> ip1 (in-place)
I0428 20:37:40.217226  4980 net.cpp:124] Setting up relu1
I0428 20:37:40.217234  4980 net.cpp:131] Top shape: 100 10 (1000)
I0428 20:37:40.217238  4980 net.cpp:139] Memory required for data: 32322800
I0428 20:37:40.217242  4980 layer_factory.hpp:77] Creating layer ip2
I0428 20:37:40.217249  4980 net.cpp:86] Creating Layer ip2
I0428 20:37:40.217258  4980 net.cpp:408] ip2 <- ip1
I0428 20:37:40.217263  4980 net.cpp:382] ip2 -> ip2
I0428 20:37:40.217367  4980 net.cpp:124] Setting up ip2
I0428 20:37:40.217375  4980 net.cpp:131] Top shape: 100 25 (2500)
I0428 20:37:40.217378  4980 net.cpp:139] Memory required for data: 32332800
I0428 20:37:40.217383  4980 layer_factory.hpp:77] Creating layer relu2
I0428 20:37:40.217388  4980 net.cpp:86] Creating Layer relu2
I0428 20:37:40.217392  4980 net.cpp:408] relu2 <- ip2
I0428 20:37:40.217396  4980 net.cpp:369] relu2 -> ip2 (in-place)
I0428 20:37:40.217623  4980 net.cpp:124] Setting up relu2
I0428 20:37:40.217631  4980 net.cpp:131] Top shape: 100 25 (2500)
I0428 20:37:40.217635  4980 net.cpp:139] Memory required for data: 32342800
I0428 20:37:40.217638  4980 layer_factory.hpp:77] Creating layer ip3
I0428 20:37:40.217644  4980 net.cpp:86] Creating Layer ip3
I0428 20:37:40.217648  4980 net.cpp:408] ip3 <- ip2
I0428 20:37:40.217651  4980 net.cpp:382] ip3 -> ip3
I0428 20:37:40.217782  4980 net.cpp:124] Setting up ip3
I0428 20:37:40.217788  4980 net.cpp:131] Top shape: 100 10 (1000)
I0428 20:37:40.217792  4980 net.cpp:139] Memory required for data: 32346800
I0428 20:37:40.217803  4980 layer_factory.hpp:77] Creating layer relu3
I0428 20:37:40.217809  4980 net.cpp:86] Creating Layer relu3
I0428 20:37:40.217813  4980 net.cpp:408] relu3 <- ip3
I0428 20:37:40.217821  4980 net.cpp:369] relu3 -> ip3 (in-place)
I0428 20:37:40.218587  4980 net.cpp:124] Setting up relu3
I0428 20:37:40.218600  4980 net.cpp:131] Top shape: 100 10 (1000)
I0428 20:37:40.218603  4980 net.cpp:139] Memory required for data: 32350800
I0428 20:37:40.218606  4980 layer_factory.hpp:77] Creating layer ip3_relu3_0_split
I0428 20:37:40.218611  4980 net.cpp:86] Creating Layer ip3_relu3_0_split
I0428 20:37:40.218614  4980 net.cpp:408] ip3_relu3_0_split <- ip3
I0428 20:37:40.218633  4980 net.cpp:382] ip3_relu3_0_split -> ip3_relu3_0_split_0
I0428 20:37:40.218639  4980 net.cpp:382] ip3_relu3_0_split -> ip3_relu3_0_split_1
I0428 20:37:40.218680  4980 net.cpp:124] Setting up ip3_relu3_0_split
I0428 20:37:40.218685  4980 net.cpp:131] Top shape: 100 10 (1000)
I0428 20:37:40.218688  4980 net.cpp:131] Top shape: 100 10 (1000)
I0428 20:37:40.218690  4980 net.cpp:139] Memory required for data: 32358800
I0428 20:37:40.218693  4980 layer_factory.hpp:77] Creating layer accuracy
I0428 20:37:40.218698  4980 net.cpp:86] Creating Layer accuracy
I0428 20:37:40.218700  4980 net.cpp:408] accuracy <- ip3_relu3_0_split_0
I0428 20:37:40.218704  4980 net.cpp:408] accuracy <- label_mnist_1_split_0
I0428 20:37:40.218710  4980 net.cpp:382] accuracy -> accuracy
…
