…
I0428 19:33:00.377950 23006 net.cpp:296] The NetState phase (0) differed from the phase (1) specified by a rule in layer mnist
I0428 19:33:00.377964 23006 net.cpp:296] The NetState phase (0) differed from the phase (1) specified by a rule in layer accuracy
I0428 19:33:00.378031 23006 net.cpp:53] Initializing net from parameters: 
name: "LeNet"
state {
  phase: TRAIN
  level: 0
  stage: ""
}
layer {
  name: "mnist"
  type: "Data"
  top: "data"
  top: "label"
  include {
    phase: TRAIN
  }
  transform_param {
    scale: 0.00390625
  }
  data_param {
    source: "examples/mnist/mnist_train_lmdb"
    batch_size: 64
    backend: LMDB
  }
}
layer {
  name: "conv0"
  type: "Convolution"
  bottom: "data"
  top: "conv0"
  param {
    lr_mult: 1
  }
  param {
    lr_mult: 2
  }
  convolution_param {
    num_output: 25
    kernel_size: 5
    stride: 1
    weight_filler {
      type: "xavier"
    }
    bias_filler {
      type: "constant"
    }
  }
}
layer {
  name: "pool0"
  type: "Pooling"
  bottom: "conv0"
  top: "pool0"
  pooling_param {
    pool: MAX
    kernel_size: 2
    stride: 2
  }
}
layer {
  name: "ip1"
  type: "InnerProduct"
  bottom: "pool0"
  top: "ip1"
  param {
    lr_mult: 1
  }
  param {
    lr_mult: 2
  }
  inner_product_param {
    num_output: 10
    weight_filler {
      type: "xavier"
    }
    bias_filler {
      type: "constant"
    }
  }
}
layer {
  name: "relu1"
  type: "ReLU"
  bottom: "ip1"
  top: "ip1"
}
layer {
  name: "ip2"
  type: "InnerProduct"
  bottom: "ip1"
  top: "ip2"
  param {
    lr_mult: 1
  }
  param {
    lr_mult: 2
  }
  inner_product_param {
    num_output: 10
    weight_filler {
      type: "xavier"
    }
    bias_filler {
      type: "constant"
    }
  }
}
layer {
  name: "relu2"
  type: "ReLU"
  bottom: "ip2"
  top: "ip2"
}
layer {
  name: "ip3"
  type: "InnerProduct"
  bottom: "ip2"
  top: "ip3"
  param {
    lr_mult: 1
  }
  param {
    lr_mult: 2
  }
  inner_product_param {
    num_output: 10
    weight_filler {
      type: "xavier"
    }
    bias_filler {
      type: "constant"
    }
  }
}
layer {
  name: "relu3"
  type: "ReLU"
  bottom: "ip3"
  top: "ip3"
}
layer {
  name: "loss"
  type: "SoftmaxWithLoss"
  bottom: "ip3"
  bottom: "label"
  top: "loss"
}
I0428 19:33:00.378090 23006 layer_factory.hpp:77] Creating layer mnist
I0428 19:33:00.378170 23006 db_lmdb.cpp:35] Opened lmdb examples/mnist/mnist_train_lmdb
I0428 19:33:00.378188 23006 net.cpp:86] Creating Layer mnist
I0428 19:33:00.378196 23006 net.cpp:382] mnist -> data
I0428 19:33:00.378214 23006 net.cpp:382] mnist -> label
I0428 19:33:00.379159 23006 data_layer.cpp:45] output data size: 64,1,28,28
I0428 19:33:00.381633 23006 net.cpp:124] Setting up mnist
I0428 19:33:00.381677 23006 net.cpp:131] Top shape: 64 1 28 28 (50176)
I0428 19:33:00.381682 23006 net.cpp:131] Top shape: 64 (64)
I0428 19:33:00.381685 23006 net.cpp:139] Memory required for data: 200960
I0428 19:33:00.381691 23006 layer_factory.hpp:77] Creating layer conv0
I0428 19:33:00.381741 23006 net.cpp:86] Creating Layer conv0
I0428 19:33:00.381745 23006 net.cpp:408] conv0 <- data
I0428 19:33:00.381757 23006 net.cpp:382] conv0 -> conv0
I0428 19:33:00.609746 23006 net.cpp:124] Setting up conv0
I0428 19:33:00.609789 23006 net.cpp:131] Top shape: 64 25 24 24 (921600)
I0428 19:33:00.609793 23006 net.cpp:139] Memory required for data: 3887360
I0428 19:33:00.609807 23006 layer_factory.hpp:77] Creating layer pool0
I0428 19:33:00.609819 23006 net.cpp:86] Creating Layer pool0
I0428 19:33:00.609863 23006 net.cpp:408] pool0 <- conv0
I0428 19:33:00.609868 23006 net.cpp:382] pool0 -> pool0
I0428 19:33:00.609915 23006 net.cpp:124] Setting up pool0
I0428 19:33:00.609927 23006 net.cpp:131] Top shape: 64 25 12 12 (230400)
I0428 19:33:00.609930 23006 net.cpp:139] Memory required for data: 4808960
I0428 19:33:00.609933 23006 layer_factory.hpp:77] Creating layer ip1
I0428 19:33:00.609944 23006 net.cpp:86] Creating Layer ip1
I0428 19:33:00.609947 23006 net.cpp:408] ip1 <- pool0
I0428 19:33:00.609951 23006 net.cpp:382] ip1 -> ip1
I0428 19:33:00.610244 23006 net.cpp:124] Setting up ip1
I0428 19:33:00.610251 23006 net.cpp:131] Top shape: 64 10 (640)
I0428 19:33:00.610255 23006 net.cpp:139] Memory required for data: 4811520
I0428 19:33:00.610260 23006 layer_factory.hpp:77] Creating layer relu1
I0428 19:33:00.610266 23006 net.cpp:86] Creating Layer relu1
I0428 19:33:00.610270 23006 net.cpp:408] relu1 <- ip1
I0428 19:33:00.610272 23006 net.cpp:369] relu1 -> ip1 (in-place)
I0428 19:33:00.610422 23006 net.cpp:124] Setting up relu1
I0428 19:33:00.610430 23006 net.cpp:131] Top shape: 64 10 (640)
I0428 19:33:00.610433 23006 net.cpp:139] Memory required for data: 4814080
I0428 19:33:00.610436 23006 layer_factory.hpp:77] Creating layer ip2
I0428 19:33:00.610442 23006 net.cpp:86] Creating Layer ip2
I0428 19:33:00.610445 23006 net.cpp:408] ip2 <- ip1
I0428 19:33:00.610450 23006 net.cpp:382] ip2 -> ip2
I0428 19:33:00.610530 23006 net.cpp:124] Setting up ip2
I0428 19:33:00.610536 23006 net.cpp:131] Top shape: 64 10 (640)
I0428 19:33:00.610539 23006 net.cpp:139] Memory required for data: 4816640
I0428 19:33:00.610546 23006 layer_factory.hpp:77] Creating layer relu2
I0428 19:33:00.610550 23006 net.cpp:86] Creating Layer relu2
I0428 19:33:00.610553 23006 net.cpp:408] relu2 <- ip2
I0428 19:33:00.610558 23006 net.cpp:369] relu2 -> ip2 (in-place)
I0428 19:33:00.611269 23006 net.cpp:124] Setting up relu2
I0428 19:33:00.611280 23006 net.cpp:131] Top shape: 64 10 (640)
I0428 19:33:00.611299 23006 net.cpp:139] Memory required for data: 4819200
I0428 19:33:00.611304 23006 layer_factory.hpp:77] Creating layer ip3
I0428 19:33:00.611310 23006 net.cpp:86] Creating Layer ip3
I0428 19:33:00.611312 23006 net.cpp:408] ip3 <- ip2
I0428 19:33:00.611317 23006 net.cpp:382] ip3 -> ip3
I0428 19:33:00.611402 23006 net.cpp:124] Setting up ip3
I0428 19:33:00.611409 23006 net.cpp:131] Top shape: 64 10 (640)
I0428 19:33:00.611413 23006 net.cpp:139] Memory required for data: 4821760
I0428 19:33:00.611418 23006 layer_factory.hpp:77] Creating layer relu3
I0428 19:33:00.611423 23006 net.cpp:86] Creating Layer relu3
I0428 19:33:00.611426 23006 net.cpp:408] relu3 <- ip3
I0428 19:33:00.611430 23006 net.cpp:369] relu3 -> ip3 (in-place)
I0428 19:33:00.611564 23006 net.cpp:124] Setting up relu3
I0428 19:33:00.611572 23006 net.cpp:131] Top shape: 64 10 (640)
I0428 19:33:00.611575 23006 net.cpp:139] Memory required for data: 4824320
I0428 19:33:00.611578 23006 layer_factory.hpp:77] Creating layer loss
I0428 19:33:00.611583 23006 net.cpp:86] Creating Layer loss
I0428 19:33:00.611587 23006 net.cpp:408] loss <- ip3
I0428 19:33:00.611590 23006 net.cpp:408] loss <- label
I0428 19:33:00.611595 23006 net.cpp:382] loss -> loss
I0428 19:33:00.611613 23006 layer_factory.hpp:77] Creating layer loss
…
I0428 19:33:00.612174 23006 solver.cpp:173] Creating test net (#0) specified by net file: ECE595/mnist/train_test/var_everything2/lenet_train_test168.prototxt
I0428 19:33:00.612213 23006 net.cpp:296] The NetState phase (1) differed from the phase (0) specified by a rule in layer mnist
I0428 19:33:00.612287 23006 net.cpp:53] Initializing net from parameters: 
name: "LeNet"
state {
  phase: TEST
}
layer {
  name: "mnist"
  type: "Data"
  top: "data"
  top: "label"
  include {
    phase: TEST
  }
  transform_param {
    scale: 0.00390625
  }
  data_param {
    source: "examples/mnist/mnist_test_lmdb"
    batch_size: 100
    backend: LMDB
  }
}
layer {
  name: "conv0"
  type: "Convolution"
  bottom: "data"
  top: "conv0"
  param {
    lr_mult: 1
  }
  param {
    lr_mult: 2
  }
  convolution_param {
    num_output: 25
    kernel_size: 5
    stride: 1
    weight_filler {
      type: "xavier"
    }
    bias_filler {
      type: "constant"
    }
  }
}
layer {
  name: "pool0"
  type: "Pooling"
  bottom: "conv0"
  top: "pool0"
  pooling_param {
    pool: MAX
    kernel_size: 2
    stride: 2
  }
}
layer {
  name: "ip1"
  type: "InnerProduct"
  bottom: "pool0"
  top: "ip1"
  param {
    lr_mult: 1
  }
  param {
    lr_mult: 2
  }
  inner_product_param {
    num_output: 10
    weight_filler {
      type: "xavier"
    }
    bias_filler {
      type: "constant"
    }
  }
}
layer {
  name: "relu1"
  type: "ReLU"
  bottom: "ip1"
  top: "ip1"
}
layer {
  name: "ip2"
  type: "InnerProduct"
  bottom: "ip1"
  top: "ip2"
  param {
    lr_mult: 1
  }
  param {
    lr_mult: 2
  }
  inner_product_param {
    num_output: 10
    weight_filler {
      type: "xavier"
    }
    bias_filler {
      type: "constant"
    }
  }
}
layer {
  name: "relu2"
  type: "ReLU"
  bottom: "ip2"
  top: "ip2"
}
layer {
  name: "ip3"
  type: "InnerProduct"
  bottom: "ip2"
  top: "ip3"
  param {
    lr_mult: 1
  }
  param {
    lr_mult: 2
  }
  inner_product_param {
    num_output: 10
    weight_filler {
      type: "xavier"
    }
    bias_filler {
      type: "constant"
    }
  }
}
layer {
  name: "relu3"
  type: "ReLU"
  bottom: "ip3"
  top: "ip3"
}
layer {
  name: "accuracy"
  type: "Accuracy"
  bottom: "ip3"
  bottom: "label"
  top: "accuracy"
  include {
    phase: TEST
  }
}
layer {
  name: "loss"
  type: "SoftmaxWithLoss"
  bottom: "ip3"
  bottom: "label"
  top: "loss"
}
I0428 19:33:00.612345 23006 layer_factory.hpp:77] Creating layer mnist
I0428 19:33:00.612387 23006 db_lmdb.cpp:35] Opened lmdb examples/mnist/mnist_test_lmdb
I0428 19:33:00.612399 23006 net.cpp:86] Creating Layer mnist
I0428 19:33:00.612404 23006 net.cpp:382] mnist -> data
I0428 19:33:00.612411 23006 net.cpp:382] mnist -> label
I0428 19:33:00.612486 23006 data_layer.cpp:45] output data size: 100,1,28,28
I0428 19:33:00.614600 23006 net.cpp:124] Setting up mnist
I0428 19:33:00.614629 23006 net.cpp:131] Top shape: 100 1 28 28 (78400)
I0428 19:33:00.614634 23006 net.cpp:131] Top shape: 100 (100)
I0428 19:33:00.614637 23006 net.cpp:139] Memory required for data: 314000
I0428 19:33:00.614641 23006 layer_factory.hpp:77] Creating layer label_mnist_1_split
I0428 19:33:00.614677 23006 net.cpp:86] Creating Layer label_mnist_1_split
I0428 19:33:00.614681 23006 net.cpp:408] label_mnist_1_split <- label
I0428 19:33:00.614686 23006 net.cpp:382] label_mnist_1_split -> label_mnist_1_split_0
I0428 19:33:00.614691 23006 net.cpp:382] label_mnist_1_split -> label_mnist_1_split_1
I0428 19:33:00.614725 23006 net.cpp:124] Setting up label_mnist_1_split
I0428 19:33:00.614730 23006 net.cpp:131] Top shape: 100 (100)
I0428 19:33:00.614733 23006 net.cpp:131] Top shape: 100 (100)
I0428 19:33:00.614737 23006 net.cpp:139] Memory required for data: 314800
I0428 19:33:00.614751 23006 layer_factory.hpp:77] Creating layer conv0
I0428 19:33:00.614759 23006 net.cpp:86] Creating Layer conv0
I0428 19:33:00.614763 23006 net.cpp:408] conv0 <- data
I0428 19:33:00.614766 23006 net.cpp:382] conv0 -> conv0
I0428 19:33:00.616511 23006 net.cpp:124] Setting up conv0
I0428 19:33:00.616525 23006 net.cpp:131] Top shape: 100 25 24 24 (1440000)
I0428 19:33:00.616529 23006 net.cpp:139] Memory required for data: 6074800
I0428 19:33:00.616539 23006 layer_factory.hpp:77] Creating layer pool0
I0428 19:33:00.616555 23006 net.cpp:86] Creating Layer pool0
I0428 19:33:00.616559 23006 net.cpp:408] pool0 <- conv0
I0428 19:33:00.616578 23006 net.cpp:382] pool0 -> pool0
I0428 19:33:00.616613 23006 net.cpp:124] Setting up pool0
I0428 19:33:00.616618 23006 net.cpp:131] Top shape: 100 25 12 12 (360000)
I0428 19:33:00.616621 23006 net.cpp:139] Memory required for data: 7514800
I0428 19:33:00.616624 23006 layer_factory.hpp:77] Creating layer ip1
I0428 19:33:00.616631 23006 net.cpp:86] Creating Layer ip1
I0428 19:33:00.616633 23006 net.cpp:408] ip1 <- pool0
I0428 19:33:00.616637 23006 net.cpp:382] ip1 -> ip1
I0428 19:33:00.616994 23006 net.cpp:124] Setting up ip1
I0428 19:33:00.617004 23006 net.cpp:131] Top shape: 100 10 (1000)
I0428 19:33:00.617008 23006 net.cpp:139] Memory required for data: 7518800
I0428 19:33:00.617015 23006 layer_factory.hpp:77] Creating layer relu1
I0428 19:33:00.617020 23006 net.cpp:86] Creating Layer relu1
I0428 19:33:00.617024 23006 net.cpp:408] relu1 <- ip1
I0428 19:33:00.617029 23006 net.cpp:369] relu1 -> ip1 (in-place)
I0428 19:33:00.617240 23006 net.cpp:124] Setting up relu1
I0428 19:33:00.617249 23006 net.cpp:131] Top shape: 100 10 (1000)
I0428 19:33:00.617252 23006 net.cpp:139] Memory required for data: 7522800
I0428 19:33:00.617255 23006 layer_factory.hpp:77] Creating layer ip2
I0428 19:33:00.617260 23006 net.cpp:86] Creating Layer ip2
I0428 19:33:00.617264 23006 net.cpp:408] ip2 <- ip1
I0428 19:33:00.617269 23006 net.cpp:382] ip2 -> ip2
I0428 19:33:00.617393 23006 net.cpp:124] Setting up ip2
I0428 19:33:00.617400 23006 net.cpp:131] Top shape: 100 10 (1000)
I0428 19:33:00.617403 23006 net.cpp:139] Memory required for data: 7526800
I0428 19:33:00.617411 23006 layer_factory.hpp:77] Creating layer relu2
I0428 19:33:00.617416 23006 net.cpp:86] Creating Layer relu2
I0428 19:33:00.617419 23006 net.cpp:408] relu2 <- ip2
I0428 19:33:00.617424 23006 net.cpp:369] relu2 -> ip2 (in-place)
I0428 19:33:00.618268 23006 net.cpp:124] Setting up relu2
I0428 19:33:00.618279 23006 net.cpp:131] Top shape: 100 10 (1000)
I0428 19:33:00.618283 23006 net.cpp:139] Memory required for data: 7530800
I0428 19:33:00.618286 23006 layer_factory.hpp:77] Creating layer ip3
I0428 19:33:00.618294 23006 net.cpp:86] Creating Layer ip3
I0428 19:33:00.618296 23006 net.cpp:408] ip3 <- ip2
I0428 19:33:00.618302 23006 net.cpp:382] ip3 -> ip3
I0428 19:33:00.618433 23006 net.cpp:124] Setting up ip3
I0428 19:33:00.618458 23006 net.cpp:131] Top shape: 100 10 (1000)
I0428 19:33:00.618460 23006 net.cpp:139] Memory required for data: 7534800
I0428 19:33:00.618466 23006 layer_factory.hpp:77] Creating layer relu3
I0428 19:33:00.618470 23006 net.cpp:86] Creating Layer relu3
I0428 19:33:00.618474 23006 net.cpp:408] relu3 <- ip3
I0428 19:33:00.618479 23006 net.cpp:369] relu3 -> ip3 (in-place)
I0428 19:33:00.618644 23006 net.cpp:124] Setting up relu3
I0428 19:33:00.618654 23006 net.cpp:131] Top shape: 100 10 (1000)
I0428 19:33:00.618657 23006 net.cpp:139] Memory required for data: 7538800
I0428 19:33:00.618662 23006 layer_factory.hpp:77] Creating layer ip3_relu3_0_split
I0428 19:33:00.618667 23006 net.cpp:86] Creating Layer ip3_relu3_0_split
I0428 19:33:00.618670 23006 net.cpp:408] ip3_relu3_0_split <- ip3
I0428 19:33:00.618674 23006 net.cpp:382] ip3_relu3_0_split -> ip3_relu3_0_split_0
I0428 19:33:00.618690 23006 net.cpp:382] ip3_relu3_0_split -> ip3_relu3_0_split_1
I0428 19:33:00.618723 23006 net.cpp:124] Setting up ip3_relu3_0_split
I0428 19:33:00.618728 23006 net.cpp:131] Top shape: 100 10 (1000)
I0428 19:33:00.618732 23006 net.cpp:131] Top shape: 100 10 (1000)
I0428 19:33:00.618752 23006 net.cpp:139] Memory required for data: 7546800
I0428 19:33:00.618755 23006 layer_factory.hpp:77] Creating layer accuracy
I0428 19:33:00.618760 23006 net.cpp:86] Creating Layer accuracy
I0428 19:33:00.618780 23006 net.cpp:408] accuracy <- ip3_relu3_0_split_0
I0428 19:33:00.618784 23006 net.cpp:408] accuracy <- label_mnist_1_split_0
I0428 19:33:00.618789 23006 net.cpp:382] accuracy -> accuracy
…
