…
I0428 20:05:01.575109 30515 net.cpp:296] The NetState phase (0) differed from the phase (1) specified by a rule in layer mnist
I0428 20:05:01.575124 30515 net.cpp:296] The NetState phase (0) differed from the phase (1) specified by a rule in layer accuracy
I0428 20:05:01.575198 30515 net.cpp:53] Initializing net from parameters: 
name: "LeNet"
state {
  phase: TRAIN
  level: 0
  stage: ""
}
layer {
  name: "mnist"
  type: "Data"
  top: "data"
  top: "label"
  include {
    phase: TRAIN
  }
  transform_param {
    scale: 0.00390625
  }
  data_param {
    source: "examples/mnist/mnist_train_lmdb"
    batch_size: 64
    backend: LMDB
  }
}
layer {
  name: "conv0"
  type: "Convolution"
  bottom: "data"
  top: "conv0"
  param {
    lr_mult: 1
  }
  param {
    lr_mult: 2
  }
  convolution_param {
    num_output: 25
    kernel_size: 5
    stride: 1
    weight_filler {
      type: "xavier"
    }
    bias_filler {
      type: "constant"
    }
  }
}
layer {
  name: "pool0"
  type: "Pooling"
  bottom: "conv0"
  top: "pool0"
  pooling_param {
    pool: MAX
    kernel_size: 2
    stride: 2
  }
}
layer {
  name: "conv1"
  type: "Convolution"
  bottom: "pool0"
  top: "conv1"
  param {
    lr_mult: 1
  }
  param {
    lr_mult: 2
  }
  convolution_param {
    num_output: 2
    kernel_size: 5
    stride: 1
    weight_filler {
      type: "xavier"
    }
    bias_filler {
      type: "constant"
    }
  }
}
layer {
  name: "pool1"
  type: "Pooling"
  bottom: "conv1"
  top: "pool1"
  pooling_param {
    pool: MAX
    kernel_size: 2
    stride: 2
  }
}
layer {
  name: "ip1"
  type: "InnerProduct"
  bottom: "pool1"
  top: "ip1"
  param {
    lr_mult: 1
  }
  param {
    lr_mult: 2
  }
  inner_product_param {
    num_output: 10
    weight_filler {
      type: "xavier"
    }
    bias_filler {
      type: "constant"
    }
  }
}
layer {
  name: "relu1"
  type: "ReLU"
  bottom: "ip1"
  top: "ip1"
}
layer {
  name: "ip2"
  type: "InnerProduct"
  bottom: "ip1"
  top: "ip2"
  param {
    lr_mult: 1
  }
  param {
    lr_mult: 2
  }
  inner_product_param {
    num_output: 10
    weight_filler {
      type: "xavier"
    }
    bias_filler {
      type: "constant"
    }
  }
}
layer {
  name: "relu2"
  type: "ReLU"
  bottom: "ip2"
  top: "ip2"
}
layer {
  name: "ip3"
  type: "InnerProduct"
  bottom: "ip2"
  top: "ip3"
  param {
    lr_mult: 1
  }
  param {
    lr_mult: 2
  }
  inner_product_param {
    num_output: 10
    weight_filler {
      type: "xavier"
    }
    bias_filler {
      type: "constant"
    }
  }
}
layer {
  name: "relu3"
  type: "ReLU"
  bottom: "ip3"
  top: "ip3"
}
layer {
  name: "loss"
  type: "SoftmaxWithLoss"
  bottom: "ip3"
  bottom: "label"
  top: "loss"
}
I0428 20:05:01.575260 30515 layer_factory.hpp:77] Creating layer mnist
I0428 20:05:01.575341 30515 db_lmdb.cpp:35] Opened lmdb examples/mnist/mnist_train_lmdb
I0428 20:05:01.575359 30515 net.cpp:86] Creating Layer mnist
I0428 20:05:01.575366 30515 net.cpp:382] mnist -> data
I0428 20:05:01.575384 30515 net.cpp:382] mnist -> label
I0428 20:05:01.576264 30515 data_layer.cpp:45] output data size: 64,1,28,28
I0428 20:05:01.578593 30515 net.cpp:124] Setting up mnist
I0428 20:05:01.578624 30515 net.cpp:131] Top shape: 64 1 28 28 (50176)
I0428 20:05:01.578644 30515 net.cpp:131] Top shape: 64 (64)
I0428 20:05:01.578647 30515 net.cpp:139] Memory required for data: 200960
I0428 20:05:01.578652 30515 layer_factory.hpp:77] Creating layer conv0
I0428 20:05:01.578666 30515 net.cpp:86] Creating Layer conv0
I0428 20:05:01.578683 30515 net.cpp:408] conv0 <- data
I0428 20:05:01.578693 30515 net.cpp:382] conv0 -> conv0
I0428 20:05:01.807572 30515 net.cpp:124] Setting up conv0
I0428 20:05:01.807600 30515 net.cpp:131] Top shape: 64 25 24 24 (921600)
I0428 20:05:01.807602 30515 net.cpp:139] Memory required for data: 3887360
I0428 20:05:01.807617 30515 layer_factory.hpp:77] Creating layer pool0
I0428 20:05:01.807646 30515 net.cpp:86] Creating Layer pool0
I0428 20:05:01.807649 30515 net.cpp:408] pool0 <- conv0
I0428 20:05:01.807654 30515 net.cpp:382] pool0 -> pool0
I0428 20:05:01.807696 30515 net.cpp:124] Setting up pool0
I0428 20:05:01.807710 30515 net.cpp:131] Top shape: 64 25 12 12 (230400)
I0428 20:05:01.807713 30515 net.cpp:139] Memory required for data: 4808960
I0428 20:05:01.807715 30515 layer_factory.hpp:77] Creating layer conv1
I0428 20:05:01.807725 30515 net.cpp:86] Creating Layer conv1
I0428 20:05:01.807729 30515 net.cpp:408] conv1 <- pool0
I0428 20:05:01.807732 30515 net.cpp:382] conv1 -> conv1
I0428 20:05:01.810570 30515 net.cpp:124] Setting up conv1
I0428 20:05:01.810583 30515 net.cpp:131] Top shape: 64 2 8 8 (8192)
I0428 20:05:01.810586 30515 net.cpp:139] Memory required for data: 4841728
I0428 20:05:01.810595 30515 layer_factory.hpp:77] Creating layer pool1
I0428 20:05:01.810617 30515 net.cpp:86] Creating Layer pool1
I0428 20:05:01.810621 30515 net.cpp:408] pool1 <- conv1
I0428 20:05:01.810626 30515 net.cpp:382] pool1 -> pool1
I0428 20:05:01.810660 30515 net.cpp:124] Setting up pool1
I0428 20:05:01.810667 30515 net.cpp:131] Top shape: 64 2 4 4 (2048)
I0428 20:05:01.810669 30515 net.cpp:139] Memory required for data: 4849920
I0428 20:05:01.810672 30515 layer_factory.hpp:77] Creating layer ip1
I0428 20:05:01.810679 30515 net.cpp:86] Creating Layer ip1
I0428 20:05:01.810683 30515 net.cpp:408] ip1 <- pool1
I0428 20:05:01.810686 30515 net.cpp:382] ip1 -> ip1
I0428 20:05:01.810775 30515 net.cpp:124] Setting up ip1
I0428 20:05:01.810781 30515 net.cpp:131] Top shape: 64 10 (640)
I0428 20:05:01.810784 30515 net.cpp:139] Memory required for data: 4852480
I0428 20:05:01.810791 30515 layer_factory.hpp:77] Creating layer relu1
I0428 20:05:01.810796 30515 net.cpp:86] Creating Layer relu1
I0428 20:05:01.810799 30515 net.cpp:408] relu1 <- ip1
I0428 20:05:01.810803 30515 net.cpp:369] relu1 -> ip1 (in-place)
I0428 20:05:01.810972 30515 net.cpp:124] Setting up relu1
I0428 20:05:01.810981 30515 net.cpp:131] Top shape: 64 10 (640)
I0428 20:05:01.810984 30515 net.cpp:139] Memory required for data: 4855040
I0428 20:05:01.810987 30515 layer_factory.hpp:77] Creating layer ip2
I0428 20:05:01.810993 30515 net.cpp:86] Creating Layer ip2
I0428 20:05:01.810997 30515 net.cpp:408] ip2 <- ip1
I0428 20:05:01.811002 30515 net.cpp:382] ip2 -> ip2
I0428 20:05:01.811108 30515 net.cpp:124] Setting up ip2
I0428 20:05:01.811115 30515 net.cpp:131] Top shape: 64 10 (640)
I0428 20:05:01.811118 30515 net.cpp:139] Memory required for data: 4857600
I0428 20:05:01.811123 30515 layer_factory.hpp:77] Creating layer relu2
I0428 20:05:01.811130 30515 net.cpp:86] Creating Layer relu2
I0428 20:05:01.811132 30515 net.cpp:408] relu2 <- ip2
I0428 20:05:01.811136 30515 net.cpp:369] relu2 -> ip2 (in-place)
I0428 20:05:01.811933 30515 net.cpp:124] Setting up relu2
I0428 20:05:01.811955 30515 net.cpp:131] Top shape: 64 10 (640)
I0428 20:05:01.811959 30515 net.cpp:139] Memory required for data: 4860160
I0428 20:05:01.811961 30515 layer_factory.hpp:77] Creating layer ip3
I0428 20:05:01.811969 30515 net.cpp:86] Creating Layer ip3
I0428 20:05:01.811972 30515 net.cpp:408] ip3 <- ip2
I0428 20:05:01.811978 30515 net.cpp:382] ip3 -> ip3
I0428 20:05:01.812070 30515 net.cpp:124] Setting up ip3
I0428 20:05:01.812077 30515 net.cpp:131] Top shape: 64 10 (640)
I0428 20:05:01.812080 30515 net.cpp:139] Memory required for data: 4862720
I0428 20:05:01.812103 30515 layer_factory.hpp:77] Creating layer relu3
I0428 20:05:01.812108 30515 net.cpp:86] Creating Layer relu3
I0428 20:05:01.812110 30515 net.cpp:408] relu3 <- ip3
I0428 20:05:01.812116 30515 net.cpp:369] relu3 -> ip3 (in-place)
I0428 20:05:01.812283 30515 net.cpp:124] Setting up relu3
I0428 20:05:01.812291 30515 net.cpp:131] Top shape: 64 10 (640)
I0428 20:05:01.812294 30515 net.cpp:139] Memory required for data: 4865280
I0428 20:05:01.812297 30515 layer_factory.hpp:77] Creating layer loss
I0428 20:05:01.812302 30515 net.cpp:86] Creating Layer loss
I0428 20:05:01.812305 30515 net.cpp:408] loss <- ip3
I0428 20:05:01.812309 30515 net.cpp:408] loss <- label
I0428 20:05:01.812315 30515 net.cpp:382] loss -> loss
I0428 20:05:01.812328 30515 layer_factory.hpp:77] Creating layer loss
…
I0428 20:05:01.813057 30515 solver.cpp:173] Creating test net (#0) specified by net file: ECE595/mnist/train_test/var_everything2/lenet_train_test988.prototxt
I0428 20:05:01.813086 30515 net.cpp:296] The NetState phase (1) differed from the phase (0) specified by a rule in layer mnist
I0428 20:05:01.813225 30515 net.cpp:53] Initializing net from parameters: 
name: "LeNet"
state {
  phase: TEST
}
layer {
  name: "mnist"
  type: "Data"
  top: "data"
  top: "label"
  include {
    phase: TEST
  }
  transform_param {
    scale: 0.00390625
  }
  data_param {
    source: "examples/mnist/mnist_test_lmdb"
    batch_size: 100
    backend: LMDB
  }
}
layer {
  name: "conv0"
  type: "Convolution"
  bottom: "data"
  top: "conv0"
  param {
    lr_mult: 1
  }
  param {
    lr_mult: 2
  }
  convolution_param {
    num_output: 25
    kernel_size: 5
    stride: 1
    weight_filler {
      type: "xavier"
    }
    bias_filler {
      type: "constant"
    }
  }
}
layer {
  name: "pool0"
  type: "Pooling"
  bottom: "conv0"
  top: "pool0"
  pooling_param {
    pool: MAX
    kernel_size: 2
    stride: 2
  }
}
layer {
  name: "conv1"
  type: "Convolution"
  bottom: "pool0"
  top: "conv1"
  param {
    lr_mult: 1
  }
  param {
    lr_mult: 2
  }
  convolution_param {
    num_output: 2
    kernel_size: 5
    stride: 1
    weight_filler {
      type: "xavier"
    }
    bias_filler {
      type: "constant"
    }
  }
}
layer {
  name: "pool1"
  type: "Pooling"
  bottom: "conv1"
  top: "pool1"
  pooling_param {
    pool: MAX
    kernel_size: 2
    stride: 2
  }
}
layer {
  name: "ip1"
  type: "InnerProduct"
  bottom: "pool1"
  top: "ip1"
  param {
    lr_mult: 1
  }
  param {
    lr_mult: 2
  }
  inner_product_param {
    num_output: 10
    weight_filler {
      type: "xavier"
    }
    bias_filler {
      type: "constant"
    }
  }
}
layer {
  name: "relu1"
  type: "ReLU"
  bottom: "ip1"
  top: "ip1"
}
layer {
  name: "ip2"
  type: "InnerProduct"
  bottom: "ip1"
  top: "ip2"
  param {
    lr_mult: 1
  }
  param {
    lr_mult: 2
  }
  inner_product_param {
    num_output: 10
    weight_filler {
      type: "xavier"
    }
    bias_filler {
      type: "constant"
    }
  }
}
layer {
  name: "relu2"
  type: "ReLU"
  bottom: "ip2"
  top: "ip2"
}
layer {
  name: "ip3"
  type: "InnerProduct"
  bottom: "ip2"
  top: "ip3"
  param {
    lr_mult: 1
  }
  param {
    lr_mult: 2
  }
  inner_product_param {
    num_output: 10
    weight_filler {
      type: "xavier"
    }
    bias_filler {
      type: "constant"
    }
  }
}
layer {
  name: "relu3"
  type: "ReLU"
  bottom: "ip3"
  top: "ip3"
}
layer {
  name: "accuracy"
  type: "Accuracy"
  bottom: "ip3"
  bottom: "label"
  top: "accuracy"
  include {
    phase: TEST
  }
}
layer {
  name: "loss"
  type: "SoftmaxWithLoss"
  bottom: "ip3"
  bottom: "label"
  top: "loss"
}
I0428 20:05:01.813335 30515 layer_factory.hpp:77] Creating layer mnist
I0428 20:05:01.813380 30515 db_lmdb.cpp:35] Opened lmdb examples/mnist/mnist_test_lmdb
I0428 20:05:01.813393 30515 net.cpp:86] Creating Layer mnist
I0428 20:05:01.813398 30515 net.cpp:382] mnist -> data
I0428 20:05:01.813405 30515 net.cpp:382] mnist -> label
I0428 20:05:01.813486 30515 data_layer.cpp:45] output data size: 100,1,28,28
I0428 20:05:01.815490 30515 net.cpp:124] Setting up mnist
I0428 20:05:01.815536 30515 net.cpp:131] Top shape: 100 1 28 28 (78400)
I0428 20:05:01.815541 30515 net.cpp:131] Top shape: 100 (100)
I0428 20:05:01.815558 30515 net.cpp:139] Memory required for data: 314000
I0428 20:05:01.815562 30515 layer_factory.hpp:77] Creating layer label_mnist_1_split
I0428 20:05:01.815583 30515 net.cpp:86] Creating Layer label_mnist_1_split
I0428 20:05:01.815587 30515 net.cpp:408] label_mnist_1_split <- label
I0428 20:05:01.815593 30515 net.cpp:382] label_mnist_1_split -> label_mnist_1_split_0
I0428 20:05:01.815598 30515 net.cpp:382] label_mnist_1_split -> label_mnist_1_split_1
I0428 20:05:01.815645 30515 net.cpp:124] Setting up label_mnist_1_split
I0428 20:05:01.815650 30515 net.cpp:131] Top shape: 100 (100)
I0428 20:05:01.815654 30515 net.cpp:131] Top shape: 100 (100)
I0428 20:05:01.815657 30515 net.cpp:139] Memory required for data: 314800
I0428 20:05:01.815660 30515 layer_factory.hpp:77] Creating layer conv0
I0428 20:05:01.815670 30515 net.cpp:86] Creating Layer conv0
I0428 20:05:01.815672 30515 net.cpp:408] conv0 <- data
I0428 20:05:01.815678 30515 net.cpp:382] conv0 -> conv0
I0428 20:05:01.817456 30515 net.cpp:124] Setting up conv0
I0428 20:05:01.817469 30515 net.cpp:131] Top shape: 100 25 24 24 (1440000)
I0428 20:05:01.817488 30515 net.cpp:139] Memory required for data: 6074800
I0428 20:05:01.817497 30515 layer_factory.hpp:77] Creating layer pool0
I0428 20:05:01.817504 30515 net.cpp:86] Creating Layer pool0
I0428 20:05:01.817508 30515 net.cpp:408] pool0 <- conv0
I0428 20:05:01.817513 30515 net.cpp:382] pool0 -> pool0
I0428 20:05:01.817566 30515 net.cpp:124] Setting up pool0
I0428 20:05:01.817571 30515 net.cpp:131] Top shape: 100 25 12 12 (360000)
I0428 20:05:01.817574 30515 net.cpp:139] Memory required for data: 7514800
I0428 20:05:01.817577 30515 layer_factory.hpp:77] Creating layer conv1
I0428 20:05:01.817586 30515 net.cpp:86] Creating Layer conv1
I0428 20:05:01.817589 30515 net.cpp:408] conv1 <- pool0
I0428 20:05:01.817595 30515 net.cpp:382] conv1 -> conv1
I0428 20:05:01.819748 30515 net.cpp:124] Setting up conv1
I0428 20:05:01.819761 30515 net.cpp:131] Top shape: 100 2 8 8 (12800)
I0428 20:05:01.819766 30515 net.cpp:139] Memory required for data: 7566000
I0428 20:05:01.819777 30515 layer_factory.hpp:77] Creating layer pool1
I0428 20:05:01.819782 30515 net.cpp:86] Creating Layer pool1
I0428 20:05:01.819802 30515 net.cpp:408] pool1 <- conv1
I0428 20:05:01.819808 30515 net.cpp:382] pool1 -> pool1
I0428 20:05:01.819847 30515 net.cpp:124] Setting up pool1
I0428 20:05:01.819865 30515 net.cpp:131] Top shape: 100 2 4 4 (3200)
I0428 20:05:01.819869 30515 net.cpp:139] Memory required for data: 7578800
I0428 20:05:01.819871 30515 layer_factory.hpp:77] Creating layer ip1
I0428 20:05:01.819878 30515 net.cpp:86] Creating Layer ip1
I0428 20:05:01.819882 30515 net.cpp:408] ip1 <- pool1
I0428 20:05:01.819886 30515 net.cpp:382] ip1 -> ip1
I0428 20:05:01.820009 30515 net.cpp:124] Setting up ip1
I0428 20:05:01.820017 30515 net.cpp:131] Top shape: 100 10 (1000)
I0428 20:05:01.820030 30515 net.cpp:139] Memory required for data: 7582800
I0428 20:05:01.820039 30515 layer_factory.hpp:77] Creating layer relu1
I0428 20:05:01.820044 30515 net.cpp:86] Creating Layer relu1
I0428 20:05:01.820049 30515 net.cpp:408] relu1 <- ip1
I0428 20:05:01.820052 30515 net.cpp:369] relu1 -> ip1 (in-place)
I0428 20:05:01.820341 30515 net.cpp:124] Setting up relu1
I0428 20:05:01.820351 30515 net.cpp:131] Top shape: 100 10 (1000)
I0428 20:05:01.820354 30515 net.cpp:139] Memory required for data: 7586800
I0428 20:05:01.820358 30515 layer_factory.hpp:77] Creating layer ip2
I0428 20:05:01.820365 30515 net.cpp:86] Creating Layer ip2
I0428 20:05:01.820369 30515 net.cpp:408] ip2 <- ip1
I0428 20:05:01.820374 30515 net.cpp:382] ip2 -> ip2
I0428 20:05:01.820475 30515 net.cpp:124] Setting up ip2
I0428 20:05:01.820482 30515 net.cpp:131] Top shape: 100 10 (1000)
I0428 20:05:01.820485 30515 net.cpp:139] Memory required for data: 7590800
I0428 20:05:01.820490 30515 layer_factory.hpp:77] Creating layer relu2
I0428 20:05:01.820495 30515 net.cpp:86] Creating Layer relu2
I0428 20:05:01.820498 30515 net.cpp:408] relu2 <- ip2
I0428 20:05:01.820502 30515 net.cpp:369] relu2 -> ip2 (in-place)
I0428 20:05:01.820659 30515 net.cpp:124] Setting up relu2
I0428 20:05:01.820667 30515 net.cpp:131] Top shape: 100 10 (1000)
I0428 20:05:01.820670 30515 net.cpp:139] Memory required for data: 7594800
I0428 20:05:01.820672 30515 layer_factory.hpp:77] Creating layer ip3
I0428 20:05:01.820678 30515 net.cpp:86] Creating Layer ip3
I0428 20:05:01.820682 30515 net.cpp:408] ip3 <- ip2
I0428 20:05:01.820688 30515 net.cpp:382] ip3 -> ip3
I0428 20:05:01.820804 30515 net.cpp:124] Setting up ip3
I0428 20:05:01.820817 30515 net.cpp:131] Top shape: 100 10 (1000)
I0428 20:05:01.820821 30515 net.cpp:139] Memory required for data: 7598800
I0428 20:05:01.820843 30515 layer_factory.hpp:77] Creating layer relu3
I0428 20:05:01.820849 30515 net.cpp:86] Creating Layer relu3
I0428 20:05:01.820852 30515 net.cpp:408] relu3 <- ip3
I0428 20:05:01.820857 30515 net.cpp:369] relu3 -> ip3 (in-place)
I0428 20:05:01.821722 30515 net.cpp:124] Setting up relu3
I0428 20:05:01.821734 30515 net.cpp:131] Top shape: 100 10 (1000)
I0428 20:05:01.821738 30515 net.cpp:139] Memory required for data: 7602800
I0428 20:05:01.821741 30515 layer_factory.hpp:77] Creating layer ip3_relu3_0_split
I0428 20:05:01.821746 30515 net.cpp:86] Creating Layer ip3_relu3_0_split
I0428 20:05:01.821749 30515 net.cpp:408] ip3_relu3_0_split <- ip3
I0428 20:05:01.821755 30515 net.cpp:382] ip3_relu3_0_split -> ip3_relu3_0_split_0
I0428 20:05:01.821761 30515 net.cpp:382] ip3_relu3_0_split -> ip3_relu3_0_split_1
I0428 20:05:01.821851 30515 net.cpp:124] Setting up ip3_relu3_0_split
I0428 20:05:01.821857 30515 net.cpp:131] Top shape: 100 10 (1000)
I0428 20:05:01.821861 30515 net.cpp:131] Top shape: 100 10 (1000)
I0428 20:05:01.821869 30515 net.cpp:139] Memory required for data: 7610800
I0428 20:05:01.821872 30515 layer_factory.hpp:77] Creating layer accuracy
I0428 20:05:01.821877 30515 net.cpp:86] Creating Layer accuracy
I0428 20:05:01.821880 30515 net.cpp:408] accuracy <- ip3_relu3_0_split_0
I0428 20:05:01.821884 30515 net.cpp:408] accuracy <- label_mnist_1_split_0
I0428 20:05:01.821890 30515 net.cpp:382] accuracy -> accuracy
…
