…
I0428 19:47:24.995689 26185 net.cpp:296] The NetState phase (0) differed from the phase (1) specified by a rule in layer mnist
I0428 19:47:24.995707 26185 net.cpp:296] The NetState phase (0) differed from the phase (1) specified by a rule in layer accuracy
I0428 19:47:24.995795 26185 net.cpp:53] Initializing net from parameters: 
name: "LeNet"
state {
  phase: TRAIN
  level: 0
  stage: ""
}
layer {
  name: "mnist"
  type: "Data"
  top: "data"
  top: "label"
  include {
    phase: TRAIN
  }
  transform_param {
    scale: 0.00390625
  }
  data_param {
    source: "examples/mnist/mnist_train_lmdb"
    batch_size: 64
    backend: LMDB
  }
}
layer {
  name: "conv0"
  type: "Convolution"
  bottom: "data"
  top: "conv0"
  param {
    lr_mult: 1
  }
  param {
    lr_mult: 2
  }
  convolution_param {
    num_output: 5
    kernel_size: 5
    stride: 1
    weight_filler {
      type: "xavier"
    }
    bias_filler {
      type: "constant"
    }
  }
}
layer {
  name: "pool0"
  type: "Pooling"
  bottom: "conv0"
  top: "pool0"
  pooling_param {
    pool: MAX
    kernel_size: 2
    stride: 2
  }
}
layer {
  name: "conv1"
  type: "Convolution"
  bottom: "pool0"
  top: "conv1"
  param {
    lr_mult: 1
  }
  param {
    lr_mult: 2
  }
  convolution_param {
    num_output: 2
    kernel_size: 5
    stride: 1
    weight_filler {
      type: "xavier"
    }
    bias_filler {
      type: "constant"
    }
  }
}
layer {
  name: "pool1"
  type: "Pooling"
  bottom: "conv1"
  top: "pool1"
  pooling_param {
    pool: MAX
    kernel_size: 2
    stride: 2
  }
}
layer {
  name: "ip1"
  type: "InnerProduct"
  bottom: "pool1"
  top: "ip1"
  param {
    lr_mult: 1
  }
  param {
    lr_mult: 2
  }
  inner_product_param {
    num_output: 25
    weight_filler {
      type: "xavier"
    }
    bias_filler {
      type: "constant"
    }
  }
}
layer {
  name: "relu1"
  type: "ReLU"
  bottom: "ip1"
  top: "ip1"
}
layer {
  name: "ip2"
  type: "InnerProduct"
  bottom: "ip1"
  top: "ip2"
  param {
    lr_mult: 1
  }
  param {
    lr_mult: 2
  }
  inner_product_param {
    num_output: 10
    weight_filler {
      type: "xavier"
    }
    bias_filler {
      type: "constant"
    }
  }
}
layer {
  name: "relu2"
  type: "ReLU"
  bottom: "ip2"
  top: "ip2"
}
layer {
  name: "loss"
  type: "SoftmaxWithLoss"
  bottom: "ip2"
  bottom: "label"
  top: "loss"
}
I0428 19:47:24.995867 26185 layer_factory.hpp:77] Creating layer mnist
I0428 19:47:24.995960 26185 db_lmdb.cpp:35] Opened lmdb examples/mnist/mnist_train_lmdb
I0428 19:47:24.995981 26185 net.cpp:86] Creating Layer mnist
I0428 19:47:24.995990 26185 net.cpp:382] mnist -> data
I0428 19:47:24.996011 26185 net.cpp:382] mnist -> label
I0428 19:47:24.997066 26185 data_layer.cpp:45] output data size: 64,1,28,28
I0428 19:47:24.999459 26185 net.cpp:124] Setting up mnist
I0428 19:47:24.999475 26185 net.cpp:131] Top shape: 64 1 28 28 (50176)
I0428 19:47:24.999481 26185 net.cpp:131] Top shape: 64 (64)
I0428 19:47:24.999485 26185 net.cpp:139] Memory required for data: 200960
I0428 19:47:24.999491 26185 layer_factory.hpp:77] Creating layer conv0
I0428 19:47:24.999510 26185 net.cpp:86] Creating Layer conv0
I0428 19:47:24.999514 26185 net.cpp:408] conv0 <- data
I0428 19:47:24.999526 26185 net.cpp:382] conv0 -> conv0
I0428 19:47:25.285640 26185 net.cpp:124] Setting up conv0
I0428 19:47:25.285672 26185 net.cpp:131] Top shape: 64 5 24 24 (184320)
I0428 19:47:25.285677 26185 net.cpp:139] Memory required for data: 938240
I0428 19:47:25.285717 26185 layer_factory.hpp:77] Creating layer pool0
I0428 19:47:25.285732 26185 net.cpp:86] Creating Layer pool0
I0428 19:47:25.285737 26185 net.cpp:408] pool0 <- conv0
I0428 19:47:25.285745 26185 net.cpp:382] pool0 -> pool0
I0428 19:47:25.285804 26185 net.cpp:124] Setting up pool0
I0428 19:47:25.285814 26185 net.cpp:131] Top shape: 64 5 12 12 (46080)
I0428 19:47:25.285817 26185 net.cpp:139] Memory required for data: 1122560
I0428 19:47:25.285821 26185 layer_factory.hpp:77] Creating layer conv1
I0428 19:47:25.285835 26185 net.cpp:86] Creating Layer conv1
I0428 19:47:25.285838 26185 net.cpp:408] conv1 <- pool0
I0428 19:47:25.285845 26185 net.cpp:382] conv1 -> conv1
I0428 19:47:25.287986 26185 net.cpp:124] Setting up conv1
I0428 19:47:25.288003 26185 net.cpp:131] Top shape: 64 2 8 8 (8192)
I0428 19:47:25.288008 26185 net.cpp:139] Memory required for data: 1155328
I0428 19:47:25.288018 26185 layer_factory.hpp:77] Creating layer pool1
I0428 19:47:25.288028 26185 net.cpp:86] Creating Layer pool1
I0428 19:47:25.288033 26185 net.cpp:408] pool1 <- conv1
I0428 19:47:25.288039 26185 net.cpp:382] pool1 -> pool1
I0428 19:47:25.288082 26185 net.cpp:124] Setting up pool1
I0428 19:47:25.288089 26185 net.cpp:131] Top shape: 64 2 4 4 (2048)
I0428 19:47:25.288092 26185 net.cpp:139] Memory required for data: 1163520
I0428 19:47:25.288096 26185 layer_factory.hpp:77] Creating layer ip1
I0428 19:47:25.288105 26185 net.cpp:86] Creating Layer ip1
I0428 19:47:25.288108 26185 net.cpp:408] ip1 <- pool1
I0428 19:47:25.288113 26185 net.cpp:382] ip1 -> ip1
I0428 19:47:25.288234 26185 net.cpp:124] Setting up ip1
I0428 19:47:25.288244 26185 net.cpp:131] Top shape: 64 25 (1600)
I0428 19:47:25.288247 26185 net.cpp:139] Memory required for data: 1169920
I0428 19:47:25.288255 26185 layer_factory.hpp:77] Creating layer relu1
I0428 19:47:25.288264 26185 net.cpp:86] Creating Layer relu1
I0428 19:47:25.288269 26185 net.cpp:408] relu1 <- ip1
I0428 19:47:25.288274 26185 net.cpp:369] relu1 -> ip1 (in-place)
I0428 19:47:25.288470 26185 net.cpp:124] Setting up relu1
I0428 19:47:25.288481 26185 net.cpp:131] Top shape: 64 25 (1600)
I0428 19:47:25.288486 26185 net.cpp:139] Memory required for data: 1176320
I0428 19:47:25.288489 26185 layer_factory.hpp:77] Creating layer ip2
I0428 19:47:25.288496 26185 net.cpp:86] Creating Layer ip2
I0428 19:47:25.288499 26185 net.cpp:408] ip2 <- ip1
I0428 19:47:25.288506 26185 net.cpp:382] ip2 -> ip2
I0428 19:47:25.288616 26185 net.cpp:124] Setting up ip2
I0428 19:47:25.288625 26185 net.cpp:131] Top shape: 64 10 (640)
I0428 19:47:25.288628 26185 net.cpp:139] Memory required for data: 1178880
I0428 19:47:25.288635 26185 layer_factory.hpp:77] Creating layer relu2
I0428 19:47:25.288642 26185 net.cpp:86] Creating Layer relu2
I0428 19:47:25.288646 26185 net.cpp:408] relu2 <- ip2
I0428 19:47:25.288651 26185 net.cpp:369] relu2 -> ip2 (in-place)
I0428 19:47:25.289506 26185 net.cpp:124] Setting up relu2
I0428 19:47:25.289521 26185 net.cpp:131] Top shape: 64 10 (640)
I0428 19:47:25.289526 26185 net.cpp:139] Memory required for data: 1181440
I0428 19:47:25.289530 26185 layer_factory.hpp:77] Creating layer loss
I0428 19:47:25.289537 26185 net.cpp:86] Creating Layer loss
I0428 19:47:25.289542 26185 net.cpp:408] loss <- ip2
I0428 19:47:25.289547 26185 net.cpp:408] loss <- label
I0428 19:47:25.289553 26185 net.cpp:382] loss -> loss
I0428 19:47:25.289577 26185 layer_factory.hpp:77] Creating layer loss
…
I0428 19:47:25.290299 26185 solver.cpp:173] Creating test net (#0) specified by net file: ECE595/mnist/train_test/var_everything2/lenet_train_test514.prototxt
I0428 19:47:25.290329 26185 net.cpp:296] The NetState phase (1) differed from the phase (0) specified by a rule in layer mnist
I0428 19:47:25.290427 26185 net.cpp:53] Initializing net from parameters: 
name: "LeNet"
state {
  phase: TEST
}
layer {
  name: "mnist"
  type: "Data"
  top: "data"
  top: "label"
  include {
    phase: TEST
  }
  transform_param {
    scale: 0.00390625
  }
  data_param {
    source: "examples/mnist/mnist_test_lmdb"
    batch_size: 100
    backend: LMDB
  }
}
layer {
  name: "conv0"
  type: "Convolution"
  bottom: "data"
  top: "conv0"
  param {
    lr_mult: 1
  }
  param {
    lr_mult: 2
  }
  convolution_param {
    num_output: 5
    kernel_size: 5
    stride: 1
    weight_filler {
      type: "xavier"
    }
    bias_filler {
      type: "constant"
    }
  }
}
layer {
  name: "pool0"
  type: "Pooling"
  bottom: "conv0"
  top: "pool0"
  pooling_param {
    pool: MAX
    kernel_size: 2
    stride: 2
  }
}
layer {
  name: "conv1"
  type: "Convolution"
  bottom: "pool0"
  top: "conv1"
  param {
    lr_mult: 1
  }
  param {
    lr_mult: 2
  }
  convolution_param {
    num_output: 2
    kernel_size: 5
    stride: 1
    weight_filler {
      type: "xavier"
    }
    bias_filler {
      type: "constant"
    }
  }
}
layer {
  name: "pool1"
  type: "Pooling"
  bottom: "conv1"
  top: "pool1"
  pooling_param {
    pool: MAX
    kernel_size: 2
    stride: 2
  }
}
layer {
  name: "ip1"
  type: "InnerProduct"
  bottom: "pool1"
  top: "ip1"
  param {
    lr_mult: 1
  }
  param {
    lr_mult: 2
  }
  inner_product_param {
    num_output: 25
    weight_filler {
      type: "xavier"
    }
    bias_filler {
      type: "constant"
    }
  }
}
layer {
  name: "relu1"
  type: "ReLU"
  bottom: "ip1"
  top: "ip1"
}
layer {
  name: "ip2"
  type: "InnerProduct"
  bottom: "ip1"
  top: "ip2"
  param {
    lr_mult: 1
  }
  param {
    lr_mult: 2
  }
  inner_product_param {
    num_output: 10
    weight_filler {
      type: "xavier"
    }
    bias_filler {
      type: "constant"
    }
  }
}
layer {
  name: "relu2"
  type: "ReLU"
  bottom: "ip2"
  top: "ip2"
}
layer {
  name: "accuracy"
  type: "Accuracy"
  bottom: "ip2"
  bottom: "label"
  top: "accuracy"
  include {
    phase: TEST
  }
}
layer {
  name: "loss"
  type: "SoftmaxWithLoss"
  bottom: "ip2"
  bottom: "label"
  top: "loss"
}
I0428 19:47:25.290500 26185 layer_factory.hpp:77] Creating layer mnist
I0428 19:47:25.290552 26185 db_lmdb.cpp:35] Opened lmdb examples/mnist/mnist_test_lmdb
I0428 19:47:25.290570 26185 net.cpp:86] Creating Layer mnist
I0428 19:47:25.290575 26185 net.cpp:382] mnist -> data
I0428 19:47:25.290585 26185 net.cpp:382] mnist -> label
I0428 19:47:25.290683 26185 data_layer.cpp:45] output data size: 100,1,28,28
I0428 19:47:25.292912 26185 net.cpp:124] Setting up mnist
I0428 19:47:25.292937 26185 net.cpp:131] Top shape: 100 1 28 28 (78400)
I0428 19:47:25.292943 26185 net.cpp:131] Top shape: 100 (100)
I0428 19:47:25.292954 26185 net.cpp:139] Memory required for data: 314000
I0428 19:47:25.292958 26185 layer_factory.hpp:77] Creating layer label_mnist_1_split
I0428 19:47:25.292971 26185 net.cpp:86] Creating Layer label_mnist_1_split
I0428 19:47:25.292975 26185 net.cpp:408] label_mnist_1_split <- label
I0428 19:47:25.292981 26185 net.cpp:382] label_mnist_1_split -> label_mnist_1_split_0
I0428 19:47:25.292989 26185 net.cpp:382] label_mnist_1_split -> label_mnist_1_split_1
I0428 19:47:25.293046 26185 net.cpp:124] Setting up label_mnist_1_split
I0428 19:47:25.293066 26185 net.cpp:131] Top shape: 100 (100)
I0428 19:47:25.293071 26185 net.cpp:131] Top shape: 100 (100)
I0428 19:47:25.293074 26185 net.cpp:139] Memory required for data: 314800
I0428 19:47:25.293077 26185 layer_factory.hpp:77] Creating layer conv0
I0428 19:47:25.293087 26185 net.cpp:86] Creating Layer conv0
I0428 19:47:25.293092 26185 net.cpp:408] conv0 <- data
I0428 19:47:25.293097 26185 net.cpp:382] conv0 -> conv0
I0428 19:47:25.295001 26185 net.cpp:124] Setting up conv0
I0428 19:47:25.295018 26185 net.cpp:131] Top shape: 100 5 24 24 (288000)
I0428 19:47:25.295022 26185 net.cpp:139] Memory required for data: 1466800
I0428 19:47:25.295033 26185 layer_factory.hpp:77] Creating layer pool0
I0428 19:47:25.295042 26185 net.cpp:86] Creating Layer pool0
I0428 19:47:25.295045 26185 net.cpp:408] pool0 <- conv0
I0428 19:47:25.295052 26185 net.cpp:382] pool0 -> pool0
I0428 19:47:25.295094 26185 net.cpp:124] Setting up pool0
I0428 19:47:25.295100 26185 net.cpp:131] Top shape: 100 5 12 12 (72000)
I0428 19:47:25.295104 26185 net.cpp:139] Memory required for data: 1754800
I0428 19:47:25.295107 26185 layer_factory.hpp:77] Creating layer conv1
I0428 19:47:25.295119 26185 net.cpp:86] Creating Layer conv1
I0428 19:47:25.295122 26185 net.cpp:408] conv1 <- pool0
I0428 19:47:25.295127 26185 net.cpp:382] conv1 -> conv1
I0428 19:47:25.297415 26185 net.cpp:124] Setting up conv1
I0428 19:47:25.297435 26185 net.cpp:131] Top shape: 100 2 8 8 (12800)
I0428 19:47:25.297441 26185 net.cpp:139] Memory required for data: 1806000
I0428 19:47:25.297451 26185 layer_factory.hpp:77] Creating layer pool1
I0428 19:47:25.297461 26185 net.cpp:86] Creating Layer pool1
I0428 19:47:25.297466 26185 net.cpp:408] pool1 <- conv1
I0428 19:47:25.297472 26185 net.cpp:382] pool1 -> pool1
I0428 19:47:25.297523 26185 net.cpp:124] Setting up pool1
I0428 19:47:25.297541 26185 net.cpp:131] Top shape: 100 2 4 4 (3200)
I0428 19:47:25.297545 26185 net.cpp:139] Memory required for data: 1818800
I0428 19:47:25.297549 26185 layer_factory.hpp:77] Creating layer ip1
I0428 19:47:25.297555 26185 net.cpp:86] Creating Layer ip1
I0428 19:47:25.297559 26185 net.cpp:408] ip1 <- pool1
I0428 19:47:25.297565 26185 net.cpp:382] ip1 -> ip1
I0428 19:47:25.297708 26185 net.cpp:124] Setting up ip1
I0428 19:47:25.297719 26185 net.cpp:131] Top shape: 100 25 (2500)
I0428 19:47:25.297722 26185 net.cpp:139] Memory required for data: 1828800
I0428 19:47:25.297730 26185 layer_factory.hpp:77] Creating layer relu1
I0428 19:47:25.297736 26185 net.cpp:86] Creating Layer relu1
I0428 19:47:25.297740 26185 net.cpp:408] relu1 <- ip1
I0428 19:47:25.297745 26185 net.cpp:369] relu1 -> ip1 (in-place)
I0428 19:47:25.297987 26185 net.cpp:124] Setting up relu1
I0428 19:47:25.297999 26185 net.cpp:131] Top shape: 100 25 (2500)
I0428 19:47:25.298003 26185 net.cpp:139] Memory required for data: 1838800
I0428 19:47:25.298007 26185 layer_factory.hpp:77] Creating layer ip2
I0428 19:47:25.298015 26185 net.cpp:86] Creating Layer ip2
I0428 19:47:25.298020 26185 net.cpp:408] ip2 <- ip1
I0428 19:47:25.298027 26185 net.cpp:382] ip2 -> ip2
I0428 19:47:25.298157 26185 net.cpp:124] Setting up ip2
I0428 19:47:25.298167 26185 net.cpp:131] Top shape: 100 10 (1000)
I0428 19:47:25.298178 26185 net.cpp:139] Memory required for data: 1842800
I0428 19:47:25.298185 26185 layer_factory.hpp:77] Creating layer relu2
I0428 19:47:25.298197 26185 net.cpp:86] Creating Layer relu2
I0428 19:47:25.298202 26185 net.cpp:408] relu2 <- ip2
I0428 19:47:25.298207 26185 net.cpp:369] relu2 -> ip2 (in-place)
I0428 19:47:25.298394 26185 net.cpp:124] Setting up relu2
I0428 19:47:25.298405 26185 net.cpp:131] Top shape: 100 10 (1000)
I0428 19:47:25.298408 26185 net.cpp:139] Memory required for data: 1846800
I0428 19:47:25.298413 26185 layer_factory.hpp:77] Creating layer ip2_relu2_0_split
I0428 19:47:25.298418 26185 net.cpp:86] Creating Layer ip2_relu2_0_split
I0428 19:47:25.298435 26185 net.cpp:408] ip2_relu2_0_split <- ip2
I0428 19:47:25.298441 26185 net.cpp:382] ip2_relu2_0_split -> ip2_relu2_0_split_0
I0428 19:47:25.298461 26185 net.cpp:382] ip2_relu2_0_split -> ip2_relu2_0_split_1
I0428 19:47:25.298504 26185 net.cpp:124] Setting up ip2_relu2_0_split
I0428 19:47:25.298511 26185 net.cpp:131] Top shape: 100 10 (1000)
I0428 19:47:25.298516 26185 net.cpp:131] Top shape: 100 10 (1000)
I0428 19:47:25.298519 26185 net.cpp:139] Memory required for data: 1854800
I0428 19:47:25.298523 26185 layer_factory.hpp:77] Creating layer accuracy
I0428 19:47:25.298529 26185 net.cpp:86] Creating Layer accuracy
I0428 19:47:25.298533 26185 net.cpp:408] accuracy <- ip2_relu2_0_split_0
I0428 19:47:25.298538 26185 net.cpp:408] accuracy <- label_mnist_1_split_0
I0428 19:47:25.298543 26185 net.cpp:382] accuracy -> accuracy
…
