…
I0428 20:14:08.727730 32610 net.cpp:296] The NetState phase (0) differed from the phase (1) specified by a rule in layer mnist
I0428 20:14:08.727743 32610 net.cpp:296] The NetState phase (0) differed from the phase (1) specified by a rule in layer accuracy
I0428 20:14:08.727814 32610 net.cpp:53] Initializing net from parameters: 
name: "LeNet"
state {
  phase: TRAIN
  level: 0
  stage: ""
}
layer {
  name: "mnist"
  type: "Data"
  top: "data"
  top: "label"
  include {
    phase: TRAIN
  }
  transform_param {
    scale: 0.00390625
  }
  data_param {
    source: "examples/mnist/mnist_train_lmdb"
    batch_size: 64
    backend: LMDB
  }
}
layer {
  name: "conv0"
  type: "Convolution"
  bottom: "data"
  top: "conv0"
  param {
    lr_mult: 1
  }
  param {
    lr_mult: 2
  }
  convolution_param {
    num_output: 50
    kernel_size: 5
    stride: 1
    weight_filler {
      type: "xavier"
    }
    bias_filler {
      type: "constant"
    }
  }
}
layer {
  name: "pool0"
  type: "Pooling"
  bottom: "conv0"
  top: "pool0"
  pooling_param {
    pool: MAX
    kernel_size: 2
    stride: 2
  }
}
layer {
  name: "conv1"
  type: "Convolution"
  bottom: "pool0"
  top: "conv1"
  param {
    lr_mult: 1
  }
  param {
    lr_mult: 2
  }
  convolution_param {
    num_output: 2
    kernel_size: 5
    stride: 1
    weight_filler {
      type: "xavier"
    }
    bias_filler {
      type: "constant"
    }
  }
}
layer {
  name: "pool1"
  type: "Pooling"
  bottom: "conv1"
  top: "pool1"
  pooling_param {
    pool: MAX
    kernel_size: 2
    stride: 2
  }
}
layer {
  name: "ip1"
  type: "InnerProduct"
  bottom: "pool1"
  top: "ip1"
  param {
    lr_mult: 1
  }
  param {
    lr_mult: 2
  }
  inner_product_param {
    num_output: 10
    weight_filler {
      type: "xavier"
    }
    bias_filler {
      type: "constant"
    }
  }
}
layer {
  name: "relu1"
  type: "ReLU"
  bottom: "ip1"
  top: "ip1"
}
layer {
  name: "ip2"
  type: "InnerProduct"
  bottom: "ip1"
  top: "ip2"
  param {
    lr_mult: 1
  }
  param {
    lr_mult: 2
  }
  inner_product_param {
    num_output: 10
    weight_filler {
      type: "xavier"
    }
    bias_filler {
      type: "constant"
    }
  }
}
layer {
  name: "relu2"
  type: "ReLU"
  bottom: "ip2"
  top: "ip2"
}
layer {
  name: "loss"
  type: "SoftmaxWithLoss"
  bottom: "ip2"
  bottom: "label"
  top: "loss"
}
I0428 20:14:08.727876 32610 layer_factory.hpp:77] Creating layer mnist
I0428 20:14:08.727955 32610 db_lmdb.cpp:35] Opened lmdb examples/mnist/mnist_train_lmdb
I0428 20:14:08.727977 32610 net.cpp:86] Creating Layer mnist
I0428 20:14:08.727982 32610 net.cpp:382] mnist -> data
I0428 20:14:08.727999 32610 net.cpp:382] mnist -> label
I0428 20:14:08.728965 32610 data_layer.cpp:45] output data size: 64,1,28,28
I0428 20:14:08.731189 32610 net.cpp:124] Setting up mnist
I0428 20:14:08.731204 32610 net.cpp:131] Top shape: 64 1 28 28 (50176)
I0428 20:14:08.731210 32610 net.cpp:131] Top shape: 64 (64)
I0428 20:14:08.731214 32610 net.cpp:139] Memory required for data: 200960
I0428 20:14:08.731218 32610 layer_factory.hpp:77] Creating layer conv0
I0428 20:14:08.731231 32610 net.cpp:86] Creating Layer conv0
I0428 20:14:08.731238 32610 net.cpp:408] conv0 <- data
I0428 20:14:08.731266 32610 net.cpp:382] conv0 -> conv0
I0428 20:14:08.967584 32610 net.cpp:124] Setting up conv0
I0428 20:14:08.967627 32610 net.cpp:131] Top shape: 64 50 24 24 (1843200)
I0428 20:14:08.967631 32610 net.cpp:139] Memory required for data: 7573760
I0428 20:14:08.967665 32610 layer_factory.hpp:77] Creating layer pool0
I0428 20:14:08.967679 32610 net.cpp:86] Creating Layer pool0
I0428 20:14:08.967684 32610 net.cpp:408] pool0 <- conv0
I0428 20:14:08.967689 32610 net.cpp:382] pool0 -> pool0
I0428 20:14:08.967766 32610 net.cpp:124] Setting up pool0
I0428 20:14:08.967773 32610 net.cpp:131] Top shape: 64 50 12 12 (460800)
I0428 20:14:08.967777 32610 net.cpp:139] Memory required for data: 9416960
I0428 20:14:08.967780 32610 layer_factory.hpp:77] Creating layer conv1
I0428 20:14:08.967792 32610 net.cpp:86] Creating Layer conv1
I0428 20:14:08.967797 32610 net.cpp:408] conv1 <- pool0
I0428 20:14:08.967802 32610 net.cpp:382] conv1 -> conv1
I0428 20:14:08.969887 32610 net.cpp:124] Setting up conv1
I0428 20:14:08.969918 32610 net.cpp:131] Top shape: 64 2 8 8 (8192)
I0428 20:14:08.969921 32610 net.cpp:139] Memory required for data: 9449728
I0428 20:14:08.969931 32610 layer_factory.hpp:77] Creating layer pool1
I0428 20:14:08.969940 32610 net.cpp:86] Creating Layer pool1
I0428 20:14:08.969944 32610 net.cpp:408] pool1 <- conv1
I0428 20:14:08.969949 32610 net.cpp:382] pool1 -> pool1
I0428 20:14:08.970002 32610 net.cpp:124] Setting up pool1
I0428 20:14:08.970010 32610 net.cpp:131] Top shape: 64 2 4 4 (2048)
I0428 20:14:08.970012 32610 net.cpp:139] Memory required for data: 9457920
I0428 20:14:08.970016 32610 layer_factory.hpp:77] Creating layer ip1
I0428 20:14:08.970024 32610 net.cpp:86] Creating Layer ip1
I0428 20:14:08.970027 32610 net.cpp:408] ip1 <- pool1
I0428 20:14:08.970031 32610 net.cpp:382] ip1 -> ip1
I0428 20:14:08.970129 32610 net.cpp:124] Setting up ip1
I0428 20:14:08.970137 32610 net.cpp:131] Top shape: 64 10 (640)
I0428 20:14:08.970140 32610 net.cpp:139] Memory required for data: 9460480
I0428 20:14:08.970147 32610 layer_factory.hpp:77] Creating layer relu1
I0428 20:14:08.970158 32610 net.cpp:86] Creating Layer relu1
I0428 20:14:08.970165 32610 net.cpp:408] relu1 <- ip1
I0428 20:14:08.970170 32610 net.cpp:369] relu1 -> ip1 (in-place)
I0428 20:14:08.970340 32610 net.cpp:124] Setting up relu1
I0428 20:14:08.970348 32610 net.cpp:131] Top shape: 64 10 (640)
I0428 20:14:08.970351 32610 net.cpp:139] Memory required for data: 9463040
I0428 20:14:08.970355 32610 layer_factory.hpp:77] Creating layer ip2
I0428 20:14:08.970362 32610 net.cpp:86] Creating Layer ip2
I0428 20:14:08.970366 32610 net.cpp:408] ip2 <- ip1
I0428 20:14:08.970371 32610 net.cpp:382] ip2 -> ip2
I0428 20:14:08.970481 32610 net.cpp:124] Setting up ip2
I0428 20:14:08.970489 32610 net.cpp:131] Top shape: 64 10 (640)
I0428 20:14:08.970492 32610 net.cpp:139] Memory required for data: 9465600
I0428 20:14:08.970497 32610 layer_factory.hpp:77] Creating layer relu2
I0428 20:14:08.970504 32610 net.cpp:86] Creating Layer relu2
I0428 20:14:08.970507 32610 net.cpp:408] relu2 <- ip2
I0428 20:14:08.970511 32610 net.cpp:369] relu2 -> ip2 (in-place)
I0428 20:14:08.971287 32610 net.cpp:124] Setting up relu2
I0428 20:14:08.971298 32610 net.cpp:131] Top shape: 64 10 (640)
I0428 20:14:08.971319 32610 net.cpp:139] Memory required for data: 9468160
I0428 20:14:08.971323 32610 layer_factory.hpp:77] Creating layer loss
I0428 20:14:08.971330 32610 net.cpp:86] Creating Layer loss
I0428 20:14:08.971333 32610 net.cpp:408] loss <- ip2
I0428 20:14:08.971338 32610 net.cpp:408] loss <- label
I0428 20:14:08.971343 32610 net.cpp:382] loss -> loss
I0428 20:14:08.971364 32610 layer_factory.hpp:77] Creating layer loss
…
I0428 20:14:08.972004 32610 solver.cpp:173] Creating test net (#0) specified by net file: ECE595/mnist/train_test/var_everything2/lenet_train_test1214.prototxt
I0428 20:14:08.972028 32610 net.cpp:296] The NetState phase (1) differed from the phase (0) specified by a rule in layer mnist
I0428 20:14:08.972126 32610 net.cpp:53] Initializing net from parameters: 
name: "LeNet"
state {
  phase: TEST
}
layer {
  name: "mnist"
  type: "Data"
  top: "data"
  top: "label"
  include {
    phase: TEST
  }
  transform_param {
    scale: 0.00390625
  }
  data_param {
    source: "examples/mnist/mnist_test_lmdb"
    batch_size: 100
    backend: LMDB
  }
}
layer {
  name: "conv0"
  type: "Convolution"
  bottom: "data"
  top: "conv0"
  param {
    lr_mult: 1
  }
  param {
    lr_mult: 2
  }
  convolution_param {
    num_output: 50
    kernel_size: 5
    stride: 1
    weight_filler {
      type: "xavier"
    }
    bias_filler {
      type: "constant"
    }
  }
}
layer {
  name: "pool0"
  type: "Pooling"
  bottom: "conv0"
  top: "pool0"
  pooling_param {
    pool: MAX
    kernel_size: 2
    stride: 2
  }
}
layer {
  name: "conv1"
  type: "Convolution"
  bottom: "pool0"
  top: "conv1"
  param {
    lr_mult: 1
  }
  param {
    lr_mult: 2
  }
  convolution_param {
    num_output: 2
    kernel_size: 5
    stride: 1
    weight_filler {
      type: "xavier"
    }
    bias_filler {
      type: "constant"
    }
  }
}
layer {
  name: "pool1"
  type: "Pooling"
  bottom: "conv1"
  top: "pool1"
  pooling_param {
    pool: MAX
    kernel_size: 2
    stride: 2
  }
}
layer {
  name: "ip1"
  type: "InnerProduct"
  bottom: "pool1"
  top: "ip1"
  param {
    lr_mult: 1
  }
  param {
    lr_mult: 2
  }
  inner_product_param {
    num_output: 10
    weight_filler {
      type: "xavier"
    }
    bias_filler {
      type: "constant"
    }
  }
}
layer {
  name: "relu1"
  type: "ReLU"
  bottom: "ip1"
  top: "ip1"
}
layer {
  name: "ip2"
  type: "InnerProduct"
  bottom: "ip1"
  top: "ip2"
  param {
    lr_mult: 1
  }
  param {
    lr_mult: 2
  }
  inner_product_param {
    num_output: 10
    weight_filler {
      type: "xavier"
    }
    bias_filler {
      type: "constant"
    }
  }
}
layer {
  name: "relu2"
  type: "ReLU"
  bottom: "ip2"
  top: "ip2"
}
layer {
  name: "accuracy"
  type: "Accuracy"
  bottom: "ip2"
  bottom: "label"
  top: "accuracy"
  include {
    phase: TEST
  }
}
layer {
  name: "loss"
  type: "SoftmaxWithLoss"
  bottom: "ip2"
  bottom: "label"
  top: "loss"
}
I0428 20:14:08.972223 32610 layer_factory.hpp:77] Creating layer mnist
I0428 20:14:08.972267 32610 db_lmdb.cpp:35] Opened lmdb examples/mnist/mnist_test_lmdb
I0428 20:14:08.972285 32610 net.cpp:86] Creating Layer mnist
I0428 20:14:08.972292 32610 net.cpp:382] mnist -> data
I0428 20:14:08.972299 32610 net.cpp:382] mnist -> label
I0428 20:14:08.972390 32610 data_layer.cpp:45] output data size: 100,1,28,28
I0428 20:14:08.974721 32610 net.cpp:124] Setting up mnist
I0428 20:14:08.974735 32610 net.cpp:131] Top shape: 100 1 28 28 (78400)
I0428 20:14:08.974755 32610 net.cpp:131] Top shape: 100 (100)
I0428 20:14:08.974759 32610 net.cpp:139] Memory required for data: 314000
I0428 20:14:08.974762 32610 layer_factory.hpp:77] Creating layer label_mnist_1_split
I0428 20:14:08.974769 32610 net.cpp:86] Creating Layer label_mnist_1_split
I0428 20:14:08.974787 32610 net.cpp:408] label_mnist_1_split <- label
I0428 20:14:08.974792 32610 net.cpp:382] label_mnist_1_split -> label_mnist_1_split_0
I0428 20:14:08.974798 32610 net.cpp:382] label_mnist_1_split -> label_mnist_1_split_1
I0428 20:14:08.974874 32610 net.cpp:124] Setting up label_mnist_1_split
I0428 20:14:08.974891 32610 net.cpp:131] Top shape: 100 (100)
I0428 20:14:08.974895 32610 net.cpp:131] Top shape: 100 (100)
I0428 20:14:08.974898 32610 net.cpp:139] Memory required for data: 314800
I0428 20:14:08.974901 32610 layer_factory.hpp:77] Creating layer conv0
I0428 20:14:08.974911 32610 net.cpp:86] Creating Layer conv0
I0428 20:14:08.974915 32610 net.cpp:408] conv0 <- data
I0428 20:14:08.974920 32610 net.cpp:382] conv0 -> conv0
I0428 20:14:08.976428 32610 net.cpp:124] Setting up conv0
I0428 20:14:08.976441 32610 net.cpp:131] Top shape: 100 50 24 24 (2880000)
I0428 20:14:08.976444 32610 net.cpp:139] Memory required for data: 11834800
I0428 20:14:08.976469 32610 layer_factory.hpp:77] Creating layer pool0
I0428 20:14:08.976477 32610 net.cpp:86] Creating Layer pool0
I0428 20:14:08.976481 32610 net.cpp:408] pool0 <- conv0
I0428 20:14:08.976501 32610 net.cpp:382] pool0 -> pool0
I0428 20:14:08.976537 32610 net.cpp:124] Setting up pool0
I0428 20:14:08.976544 32610 net.cpp:131] Top shape: 100 50 12 12 (720000)
I0428 20:14:08.976547 32610 net.cpp:139] Memory required for data: 14714800
I0428 20:14:08.976550 32610 layer_factory.hpp:77] Creating layer conv1
I0428 20:14:08.976560 32610 net.cpp:86] Creating Layer conv1
I0428 20:14:08.976564 32610 net.cpp:408] conv1 <- pool0
I0428 20:14:08.976569 32610 net.cpp:382] conv1 -> conv1
I0428 20:14:08.978147 32610 net.cpp:124] Setting up conv1
I0428 20:14:08.978162 32610 net.cpp:131] Top shape: 100 2 8 8 (12800)
I0428 20:14:08.978165 32610 net.cpp:139] Memory required for data: 14766000
I0428 20:14:08.978173 32610 layer_factory.hpp:77] Creating layer pool1
I0428 20:14:08.978180 32610 net.cpp:86] Creating Layer pool1
I0428 20:14:08.978183 32610 net.cpp:408] pool1 <- conv1
I0428 20:14:08.978190 32610 net.cpp:382] pool1 -> pool1
I0428 20:14:08.978226 32610 net.cpp:124] Setting up pool1
I0428 20:14:08.978233 32610 net.cpp:131] Top shape: 100 2 4 4 (3200)
I0428 20:14:08.978237 32610 net.cpp:139] Memory required for data: 14778800
I0428 20:14:08.978240 32610 layer_factory.hpp:77] Creating layer ip1
I0428 20:14:08.978247 32610 net.cpp:86] Creating Layer ip1
I0428 20:14:08.978256 32610 net.cpp:408] ip1 <- pool1
I0428 20:14:08.978263 32610 net.cpp:382] ip1 -> ip1
I0428 20:14:08.978380 32610 net.cpp:124] Setting up ip1
I0428 20:14:08.978389 32610 net.cpp:131] Top shape: 100 10 (1000)
I0428 20:14:08.978391 32610 net.cpp:139] Memory required for data: 14782800
I0428 20:14:08.978399 32610 layer_factory.hpp:77] Creating layer relu1
I0428 20:14:08.978404 32610 net.cpp:86] Creating Layer relu1
I0428 20:14:08.978407 32610 net.cpp:408] relu1 <- ip1
I0428 20:14:08.978415 32610 net.cpp:369] relu1 -> ip1 (in-place)
I0428 20:14:08.978730 32610 net.cpp:124] Setting up relu1
I0428 20:14:08.978740 32610 net.cpp:131] Top shape: 100 10 (1000)
I0428 20:14:08.978744 32610 net.cpp:139] Memory required for data: 14786800
I0428 20:14:08.978749 32610 layer_factory.hpp:77] Creating layer ip2
I0428 20:14:08.978755 32610 net.cpp:86] Creating Layer ip2
I0428 20:14:08.978760 32610 net.cpp:408] ip2 <- ip1
I0428 20:14:08.978765 32610 net.cpp:382] ip2 -> ip2
I0428 20:14:08.978870 32610 net.cpp:124] Setting up ip2
I0428 20:14:08.978878 32610 net.cpp:131] Top shape: 100 10 (1000)
I0428 20:14:08.978881 32610 net.cpp:139] Memory required for data: 14790800
I0428 20:14:08.978888 32610 layer_factory.hpp:77] Creating layer relu2
I0428 20:14:08.978893 32610 net.cpp:86] Creating Layer relu2
I0428 20:14:08.978896 32610 net.cpp:408] relu2 <- ip2
I0428 20:14:08.978902 32610 net.cpp:369] relu2 -> ip2 (in-place)
I0428 20:14:08.979079 32610 net.cpp:124] Setting up relu2
I0428 20:14:08.979087 32610 net.cpp:131] Top shape: 100 10 (1000)
I0428 20:14:08.979091 32610 net.cpp:139] Memory required for data: 14794800
I0428 20:14:08.979094 32610 layer_factory.hpp:77] Creating layer ip2_relu2_0_split
I0428 20:14:08.979099 32610 net.cpp:86] Creating Layer ip2_relu2_0_split
I0428 20:14:08.979104 32610 net.cpp:408] ip2_relu2_0_split <- ip2
I0428 20:14:08.979109 32610 net.cpp:382] ip2_relu2_0_split -> ip2_relu2_0_split_0
I0428 20:14:08.979125 32610 net.cpp:382] ip2_relu2_0_split -> ip2_relu2_0_split_1
I0428 20:14:08.979161 32610 net.cpp:124] Setting up ip2_relu2_0_split
I0428 20:14:08.979169 32610 net.cpp:131] Top shape: 100 10 (1000)
I0428 20:14:08.979172 32610 net.cpp:131] Top shape: 100 10 (1000)
I0428 20:14:08.979176 32610 net.cpp:139] Memory required for data: 14802800
I0428 20:14:08.979178 32610 layer_factory.hpp:77] Creating layer accuracy
I0428 20:14:08.979188 32610 net.cpp:86] Creating Layer accuracy
I0428 20:14:08.979192 32610 net.cpp:408] accuracy <- ip2_relu2_0_split_0
I0428 20:14:08.979197 32610 net.cpp:408] accuracy <- label_mnist_1_split_0
I0428 20:14:08.979202 32610 net.cpp:382] accuracy -> accuracy
…
