…
I0428 20:01:45.670738 29796 net.cpp:296] The NetState phase (0) differed from the phase (1) specified by a rule in layer mnist
I0428 20:01:45.670761 29796 net.cpp:296] The NetState phase (0) differed from the phase (1) specified by a rule in layer accuracy
I0428 20:01:45.670893 29796 net.cpp:53] Initializing net from parameters: 
name: "LeNet"
state {
  phase: TRAIN
  level: 0
  stage: ""
}
layer {
  name: "mnist"
  type: "Data"
  top: "data"
  top: "label"
  include {
    phase: TRAIN
  }
  transform_param {
    scale: 0.00390625
  }
  data_param {
    source: "examples/mnist/mnist_train_lmdb"
    batch_size: 64
    backend: LMDB
  }
}
layer {
  name: "conv0"
  type: "Convolution"
  bottom: "data"
  top: "conv0"
  param {
    lr_mult: 1
  }
  param {
    lr_mult: 2
  }
  convolution_param {
    num_output: 10
    kernel_size: 5
    stride: 1
    weight_filler {
      type: "xavier"
    }
    bias_filler {
      type: "constant"
    }
  }
}
layer {
  name: "pool0"
  type: "Pooling"
  bottom: "conv0"
  top: "pool0"
  pooling_param {
    pool: MAX
    kernel_size: 2
    stride: 2
  }
}
layer {
  name: "conv1"
  type: "Convolution"
  bottom: "pool0"
  top: "conv1"
  param {
    lr_mult: 1
  }
  param {
    lr_mult: 2
  }
  convolution_param {
    num_output: 50
    kernel_size: 5
    stride: 1
    weight_filler {
      type: "xavier"
    }
    bias_filler {
      type: "constant"
    }
  }
}
layer {
  name: "pool1"
  type: "Pooling"
  bottom: "conv1"
  top: "pool1"
  pooling_param {
    pool: MAX
    kernel_size: 2
    stride: 2
  }
}
layer {
  name: "ip1"
  type: "InnerProduct"
  bottom: "pool1"
  top: "ip1"
  param {
    lr_mult: 1
  }
  param {
    lr_mult: 2
  }
  inner_product_param {
    num_output: 10
    weight_filler {
      type: "xavier"
    }
    bias_filler {
      type: "constant"
    }
  }
}
layer {
  name: "relu1"
  type: "ReLU"
  bottom: "ip1"
  top: "ip1"
}
layer {
  name: "ip2"
  type: "InnerProduct"
  bottom: "ip1"
  top: "ip2"
  param {
    lr_mult: 1
  }
  param {
    lr_mult: 2
  }
  inner_product_param {
    num_output: 10
    weight_filler {
      type: "xavier"
    }
    bias_filler {
      type: "constant"
    }
  }
}
layer {
  name: "relu2"
  type: "ReLU"
  bottom: "ip2"
  top: "ip2"
}
layer {
  name: "ip3"
  type: "InnerProduct"
  bottom: "ip2"
  top: "ip3"
  param {
    lr_mult: 1
  }
  param {
    lr_mult: 2
  }
  inner_product_param {
    num_output: 10
    weight_filler {
      type: "xavier"
    }
    bias_filler {
      type: "constant"
    }
  }
}
layer {
  name: "relu3"
  type: "ReLU"
  bottom: "ip3"
  top: "ip3"
}
layer {
  name: "loss"
  type: "SoftmaxWithLoss"
  bottom: "ip3"
  bottom: "label"
  top: "loss"
}
I0428 20:01:45.670987 29796 layer_factory.hpp:77] Creating layer mnist
I0428 20:01:45.671102 29796 db_lmdb.cpp:35] Opened lmdb examples/mnist/mnist_train_lmdb
I0428 20:01:45.671128 29796 net.cpp:86] Creating Layer mnist
I0428 20:01:45.671139 29796 net.cpp:382] mnist -> data
I0428 20:01:45.671166 29796 net.cpp:382] mnist -> label
I0428 20:01:45.672508 29796 data_layer.cpp:45] output data size: 64,1,28,28
I0428 20:01:45.675576 29796 net.cpp:124] Setting up mnist
I0428 20:01:45.675596 29796 net.cpp:131] Top shape: 64 1 28 28 (50176)
I0428 20:01:45.675604 29796 net.cpp:131] Top shape: 64 (64)
I0428 20:01:45.675611 29796 net.cpp:139] Memory required for data: 200960
I0428 20:01:45.675621 29796 layer_factory.hpp:77] Creating layer conv0
I0428 20:01:45.675638 29796 net.cpp:86] Creating Layer conv0
I0428 20:01:45.675663 29796 net.cpp:408] conv0 <- data
I0428 20:01:45.675678 29796 net.cpp:382] conv0 -> conv0
I0428 20:01:45.970783 29796 net.cpp:124] Setting up conv0
I0428 20:01:45.970814 29796 net.cpp:131] Top shape: 64 10 24 24 (368640)
I0428 20:01:45.970819 29796 net.cpp:139] Memory required for data: 1675520
I0428 20:01:45.970837 29796 layer_factory.hpp:77] Creating layer pool0
I0428 20:01:45.970852 29796 net.cpp:86] Creating Layer pool0
I0428 20:01:45.970859 29796 net.cpp:408] pool0 <- conv0
I0428 20:01:45.970865 29796 net.cpp:382] pool0 -> pool0
I0428 20:01:45.970932 29796 net.cpp:124] Setting up pool0
I0428 20:01:45.970948 29796 net.cpp:131] Top shape: 64 10 12 12 (92160)
I0428 20:01:45.970953 29796 net.cpp:139] Memory required for data: 2044160
I0428 20:01:45.970957 29796 layer_factory.hpp:77] Creating layer conv1
I0428 20:01:45.970970 29796 net.cpp:86] Creating Layer conv1
I0428 20:01:45.970975 29796 net.cpp:408] conv1 <- pool0
I0428 20:01:45.970981 29796 net.cpp:382] conv1 -> conv1
I0428 20:01:45.974722 29796 net.cpp:124] Setting up conv1
I0428 20:01:45.974753 29796 net.cpp:131] Top shape: 64 50 8 8 (204800)
I0428 20:01:45.974758 29796 net.cpp:139] Memory required for data: 2863360
I0428 20:01:45.974771 29796 layer_factory.hpp:77] Creating layer pool1
I0428 20:01:45.974779 29796 net.cpp:86] Creating Layer pool1
I0428 20:01:45.974784 29796 net.cpp:408] pool1 <- conv1
I0428 20:01:45.974807 29796 net.cpp:382] pool1 -> pool1
I0428 20:01:45.974850 29796 net.cpp:124] Setting up pool1
I0428 20:01:45.974860 29796 net.cpp:131] Top shape: 64 50 4 4 (51200)
I0428 20:01:45.974865 29796 net.cpp:139] Memory required for data: 3068160
I0428 20:01:45.974869 29796 layer_factory.hpp:77] Creating layer ip1
I0428 20:01:45.974879 29796 net.cpp:86] Creating Layer ip1
I0428 20:01:45.974884 29796 net.cpp:408] ip1 <- pool1
I0428 20:01:45.974890 29796 net.cpp:382] ip1 -> ip1
I0428 20:01:45.975087 29796 net.cpp:124] Setting up ip1
I0428 20:01:45.975097 29796 net.cpp:131] Top shape: 64 10 (640)
I0428 20:01:45.975102 29796 net.cpp:139] Memory required for data: 3070720
I0428 20:01:45.975111 29796 layer_factory.hpp:77] Creating layer relu1
I0428 20:01:45.975118 29796 net.cpp:86] Creating Layer relu1
I0428 20:01:45.975123 29796 net.cpp:408] relu1 <- ip1
I0428 20:01:45.975129 29796 net.cpp:369] relu1 -> ip1 (in-place)
I0428 20:01:45.975339 29796 net.cpp:124] Setting up relu1
I0428 20:01:45.975350 29796 net.cpp:131] Top shape: 64 10 (640)
I0428 20:01:45.975355 29796 net.cpp:139] Memory required for data: 3073280
I0428 20:01:45.975360 29796 layer_factory.hpp:77] Creating layer ip2
I0428 20:01:45.975369 29796 net.cpp:86] Creating Layer ip2
I0428 20:01:45.975373 29796 net.cpp:408] ip2 <- ip1
I0428 20:01:45.975380 29796 net.cpp:382] ip2 -> ip2
I0428 20:01:45.975493 29796 net.cpp:124] Setting up ip2
I0428 20:01:45.975503 29796 net.cpp:131] Top shape: 64 10 (640)
I0428 20:01:45.975507 29796 net.cpp:139] Memory required for data: 3075840
I0428 20:01:45.975515 29796 layer_factory.hpp:77] Creating layer relu2
I0428 20:01:45.975523 29796 net.cpp:86] Creating Layer relu2
I0428 20:01:45.975528 29796 net.cpp:408] relu2 <- ip2
I0428 20:01:45.975534 29796 net.cpp:369] relu2 -> ip2 (in-place)
I0428 20:01:45.976575 29796 net.cpp:124] Setting up relu2
I0428 20:01:45.976605 29796 net.cpp:131] Top shape: 64 10 (640)
I0428 20:01:45.976609 29796 net.cpp:139] Memory required for data: 3078400
I0428 20:01:45.976614 29796 layer_factory.hpp:77] Creating layer ip3
I0428 20:01:45.976624 29796 net.cpp:86] Creating Layer ip3
I0428 20:01:45.976629 29796 net.cpp:408] ip3 <- ip2
I0428 20:01:45.976636 29796 net.cpp:382] ip3 -> ip3
I0428 20:01:45.976752 29796 net.cpp:124] Setting up ip3
I0428 20:01:45.976763 29796 net.cpp:131] Top shape: 64 10 (640)
I0428 20:01:45.976768 29796 net.cpp:139] Memory required for data: 3080960
I0428 20:01:45.976778 29796 layer_factory.hpp:77] Creating layer relu3
I0428 20:01:45.976784 29796 net.cpp:86] Creating Layer relu3
I0428 20:01:45.976804 29796 net.cpp:408] relu3 <- ip3
I0428 20:01:45.976833 29796 net.cpp:369] relu3 -> ip3 (in-place)
I0428 20:01:45.977047 29796 net.cpp:124] Setting up relu3
I0428 20:01:45.977059 29796 net.cpp:131] Top shape: 64 10 (640)
I0428 20:01:45.977064 29796 net.cpp:139] Memory required for data: 3083520
I0428 20:01:45.977069 29796 layer_factory.hpp:77] Creating layer loss
I0428 20:01:45.977077 29796 net.cpp:86] Creating Layer loss
I0428 20:01:45.977082 29796 net.cpp:408] loss <- ip3
I0428 20:01:45.977088 29796 net.cpp:408] loss <- label
I0428 20:01:45.977097 29796 net.cpp:382] loss -> loss
I0428 20:01:45.977133 29796 layer_factory.hpp:77] Creating layer loss
…
I0428 20:01:45.978103 29796 solver.cpp:173] Creating test net (#0) specified by net file: ECE595/mnist/train_test/var_everything2/lenet_train_test911.prototxt
I0428 20:01:45.978155 29796 net.cpp:296] The NetState phase (1) differed from the phase (0) specified by a rule in layer mnist
I0428 20:01:45.978314 29796 net.cpp:53] Initializing net from parameters: 
name: "LeNet"
state {
  phase: TEST
}
layer {
  name: "mnist"
  type: "Data"
  top: "data"
  top: "label"
  include {
    phase: TEST
  }
  transform_param {
    scale: 0.00390625
  }
  data_param {
    source: "examples/mnist/mnist_test_lmdb"
    batch_size: 100
    backend: LMDB
  }
}
layer {
  name: "conv0"
  type: "Convolution"
  bottom: "data"
  top: "conv0"
  param {
    lr_mult: 1
  }
  param {
    lr_mult: 2
  }
  convolution_param {
    num_output: 10
    kernel_size: 5
    stride: 1
    weight_filler {
      type: "xavier"
    }
    bias_filler {
      type: "constant"
    }
  }
}
layer {
  name: "pool0"
  type: "Pooling"
  bottom: "conv0"
  top: "pool0"
  pooling_param {
    pool: MAX
    kernel_size: 2
    stride: 2
  }
}
layer {
  name: "conv1"
  type: "Convolution"
  bottom: "pool0"
  top: "conv1"
  param {
    lr_mult: 1
  }
  param {
    lr_mult: 2
  }
  convolution_param {
    num_output: 50
    kernel_size: 5
    stride: 1
    weight_filler {
      type: "xavier"
    }
    bias_filler {
      type: "constant"
    }
  }
}
layer {
  name: "pool1"
  type: "Pooling"
  bottom: "conv1"
  top: "pool1"
  pooling_param {
    pool: MAX
    kernel_size: 2
    stride: 2
  }
}
layer {
  name: "ip1"
  type: "InnerProduct"
  bottom: "pool1"
  top: "ip1"
  param {
    lr_mult: 1
  }
  param {
    lr_mult: 2
  }
  inner_product_param {
    num_output: 10
    weight_filler {
      type: "xavier"
    }
    bias_filler {
      type: "constant"
    }
  }
}
layer {
  name: "relu1"
  type: "ReLU"
  bottom: "ip1"
  top: "ip1"
}
layer {
  name: "ip2"
  type: "InnerProduct"
  bottom: "ip1"
  top: "ip2"
  param {
    lr_mult: 1
  }
  param {
    lr_mult: 2
  }
  inner_product_param {
    num_output: 10
    weight_filler {
      type: "xavier"
    }
    bias_filler {
      type: "constant"
    }
  }
}
layer {
  name: "relu2"
  type: "ReLU"
  bottom: "ip2"
  top: "ip2"
}
layer {
  name: "ip3"
  type: "InnerProduct"
  bottom: "ip2"
  top: "ip3"
  param {
    lr_mult: 1
  }
  param {
    lr_mult: 2
  }
  inner_product_param {
    num_output: 10
    weight_filler {
      type: "xavier"
    }
    bias_filler {
      type: "constant"
    }
  }
}
layer {
  name: "relu3"
  type: "ReLU"
  bottom: "ip3"
  top: "ip3"
}
layer {
  name: "accuracy"
  type: "Accuracy"
  bottom: "ip3"
  bottom: "label"
  top: "accuracy"
  include {
    phase: TEST
  }
}
layer {
  name: "loss"
  type: "SoftmaxWithLoss"
  bottom: "ip3"
  bottom: "label"
  top: "loss"
}
I0428 20:01:45.978436 29796 layer_factory.hpp:77] Creating layer mnist
I0428 20:01:45.978493 29796 db_lmdb.cpp:35] Opened lmdb examples/mnist/mnist_test_lmdb
I0428 20:01:45.978509 29796 net.cpp:86] Creating Layer mnist
I0428 20:01:45.978515 29796 net.cpp:382] mnist -> data
I0428 20:01:45.978526 29796 net.cpp:382] mnist -> label
I0428 20:01:45.978631 29796 data_layer.cpp:45] output data size: 100,1,28,28
I0428 20:01:45.981174 29796 net.cpp:124] Setting up mnist
I0428 20:01:45.981220 29796 net.cpp:131] Top shape: 100 1 28 28 (78400)
I0428 20:01:45.981243 29796 net.cpp:131] Top shape: 100 (100)
I0428 20:01:45.981248 29796 net.cpp:139] Memory required for data: 314000
I0428 20:01:45.981253 29796 layer_factory.hpp:77] Creating layer label_mnist_1_split
I0428 20:01:45.981262 29796 net.cpp:86] Creating Layer label_mnist_1_split
I0428 20:01:45.981267 29796 net.cpp:408] label_mnist_1_split <- label
I0428 20:01:45.981274 29796 net.cpp:382] label_mnist_1_split -> label_mnist_1_split_0
I0428 20:01:45.981284 29796 net.cpp:382] label_mnist_1_split -> label_mnist_1_split_1
I0428 20:01:45.981444 29796 net.cpp:124] Setting up label_mnist_1_split
I0428 20:01:45.981456 29796 net.cpp:131] Top shape: 100 (100)
I0428 20:01:45.981462 29796 net.cpp:131] Top shape: 100 (100)
I0428 20:01:45.981468 29796 net.cpp:139] Memory required for data: 314800
I0428 20:01:45.981473 29796 layer_factory.hpp:77] Creating layer conv0
I0428 20:01:45.981485 29796 net.cpp:86] Creating Layer conv0
I0428 20:01:45.981492 29796 net.cpp:408] conv0 <- data
I0428 20:01:45.981499 29796 net.cpp:382] conv0 -> conv0
I0428 20:01:45.983481 29796 net.cpp:124] Setting up conv0
I0428 20:01:45.983497 29796 net.cpp:131] Top shape: 100 10 24 24 (576000)
I0428 20:01:45.983517 29796 net.cpp:139] Memory required for data: 2618800
I0428 20:01:45.983530 29796 layer_factory.hpp:77] Creating layer pool0
I0428 20:01:45.983538 29796 net.cpp:86] Creating Layer pool0
I0428 20:01:45.983543 29796 net.cpp:408] pool0 <- conv0
I0428 20:01:45.983551 29796 net.cpp:382] pool0 -> pool0
I0428 20:01:45.983609 29796 net.cpp:124] Setting up pool0
I0428 20:01:45.983621 29796 net.cpp:131] Top shape: 100 10 12 12 (144000)
I0428 20:01:45.983626 29796 net.cpp:139] Memory required for data: 3194800
I0428 20:01:45.983645 29796 layer_factory.hpp:77] Creating layer conv1
I0428 20:01:45.983657 29796 net.cpp:86] Creating Layer conv1
I0428 20:01:45.983662 29796 net.cpp:408] conv1 <- pool0
I0428 20:01:45.983669 29796 net.cpp:382] conv1 -> conv1
I0428 20:01:45.986001 29796 net.cpp:124] Setting up conv1
I0428 20:01:45.986017 29796 net.cpp:131] Top shape: 100 50 8 8 (320000)
I0428 20:01:45.986022 29796 net.cpp:139] Memory required for data: 4474800
I0428 20:01:45.986054 29796 layer_factory.hpp:77] Creating layer pool1
I0428 20:01:45.986063 29796 net.cpp:86] Creating Layer pool1
I0428 20:01:45.986066 29796 net.cpp:408] pool1 <- conv1
I0428 20:01:45.986073 29796 net.cpp:382] pool1 -> pool1
I0428 20:01:45.986121 29796 net.cpp:124] Setting up pool1
I0428 20:01:45.986132 29796 net.cpp:131] Top shape: 100 50 4 4 (80000)
I0428 20:01:45.986142 29796 net.cpp:139] Memory required for data: 4794800
I0428 20:01:45.986147 29796 layer_factory.hpp:77] Creating layer ip1
I0428 20:01:45.986155 29796 net.cpp:86] Creating Layer ip1
I0428 20:01:45.986160 29796 net.cpp:408] ip1 <- pool1
I0428 20:01:45.986166 29796 net.cpp:382] ip1 -> ip1
I0428 20:01:45.986367 29796 net.cpp:124] Setting up ip1
I0428 20:01:45.986377 29796 net.cpp:131] Top shape: 100 10 (1000)
I0428 20:01:45.986394 29796 net.cpp:139] Memory required for data: 4798800
I0428 20:01:45.986405 29796 layer_factory.hpp:77] Creating layer relu1
I0428 20:01:45.986413 29796 net.cpp:86] Creating Layer relu1
I0428 20:01:45.986418 29796 net.cpp:408] relu1 <- ip1
I0428 20:01:45.986423 29796 net.cpp:369] relu1 -> ip1 (in-place)
I0428 20:01:45.986631 29796 net.cpp:124] Setting up relu1
I0428 20:01:45.986642 29796 net.cpp:131] Top shape: 100 10 (1000)
I0428 20:01:45.986649 29796 net.cpp:139] Memory required for data: 4802800
I0428 20:01:45.986652 29796 layer_factory.hpp:77] Creating layer ip2
I0428 20:01:45.986662 29796 net.cpp:86] Creating Layer ip2
I0428 20:01:45.986667 29796 net.cpp:408] ip2 <- ip1
I0428 20:01:45.986675 29796 net.cpp:382] ip2 -> ip2
I0428 20:01:45.986814 29796 net.cpp:124] Setting up ip2
I0428 20:01:45.986824 29796 net.cpp:131] Top shape: 100 10 (1000)
I0428 20:01:45.986829 29796 net.cpp:139] Memory required for data: 4806800
I0428 20:01:45.986838 29796 layer_factory.hpp:77] Creating layer relu2
I0428 20:01:45.986845 29796 net.cpp:86] Creating Layer relu2
I0428 20:01:45.986850 29796 net.cpp:408] relu2 <- ip2
I0428 20:01:45.986856 29796 net.cpp:369] relu2 -> ip2 (in-place)
I0428 20:01:45.987188 29796 net.cpp:124] Setting up relu2
I0428 20:01:45.987200 29796 net.cpp:131] Top shape: 100 10 (1000)
I0428 20:01:45.987205 29796 net.cpp:139] Memory required for data: 4810800
I0428 20:01:45.987215 29796 layer_factory.hpp:77] Creating layer ip3
I0428 20:01:45.987223 29796 net.cpp:86] Creating Layer ip3
I0428 20:01:45.987228 29796 net.cpp:408] ip3 <- ip2
I0428 20:01:45.987236 29796 net.cpp:382] ip3 -> ip3
I0428 20:01:45.987370 29796 net.cpp:124] Setting up ip3
I0428 20:01:45.987393 29796 net.cpp:131] Top shape: 100 10 (1000)
I0428 20:01:45.987398 29796 net.cpp:139] Memory required for data: 4814800
I0428 20:01:45.987408 29796 layer_factory.hpp:77] Creating layer relu3
I0428 20:01:45.987414 29796 net.cpp:86] Creating Layer relu3
I0428 20:01:45.987418 29796 net.cpp:408] relu3 <- ip3
I0428 20:01:45.987424 29796 net.cpp:369] relu3 -> ip3 (in-place)
I0428 20:01:45.988569 29796 net.cpp:124] Setting up relu3
I0428 20:01:45.988584 29796 net.cpp:131] Top shape: 100 10 (1000)
I0428 20:01:45.988589 29796 net.cpp:139] Memory required for data: 4818800
I0428 20:01:45.988595 29796 layer_factory.hpp:77] Creating layer ip3_relu3_0_split
I0428 20:01:45.988601 29796 net.cpp:86] Creating Layer ip3_relu3_0_split
I0428 20:01:45.988606 29796 net.cpp:408] ip3_relu3_0_split <- ip3
I0428 20:01:45.988615 29796 net.cpp:382] ip3_relu3_0_split -> ip3_relu3_0_split_0
I0428 20:01:45.988623 29796 net.cpp:382] ip3_relu3_0_split -> ip3_relu3_0_split_1
I0428 20:01:45.988668 29796 net.cpp:124] Setting up ip3_relu3_0_split
I0428 20:01:45.988680 29796 net.cpp:131] Top shape: 100 10 (1000)
I0428 20:01:45.988687 29796 net.cpp:131] Top shape: 100 10 (1000)
I0428 20:01:45.988692 29796 net.cpp:139] Memory required for data: 4826800
I0428 20:01:45.988695 29796 layer_factory.hpp:77] Creating layer accuracy
I0428 20:01:45.988703 29796 net.cpp:86] Creating Layer accuracy
I0428 20:01:45.988708 29796 net.cpp:408] accuracy <- ip3_relu3_0_split_0
I0428 20:01:45.988720 29796 net.cpp:408] accuracy <- label_mnist_1_split_0
I0428 20:01:45.988728 29796 net.cpp:382] accuracy -> accuracy
…
