…
I0428 19:56:53.360637 28541 net.cpp:296] The NetState phase (0) differed from the phase (1) specified by a rule in layer mnist
I0428 19:56:53.360668 28541 net.cpp:296] The NetState phase (0) differed from the phase (1) specified by a rule in layer accuracy
I0428 19:56:53.360749 28541 net.cpp:53] Initializing net from parameters: 
name: "LeNet"
state {
  phase: TRAIN
  level: 0
  stage: ""
}
layer {
  name: "mnist"
  type: "Data"
  top: "data"
  top: "label"
  include {
    phase: TRAIN
  }
  transform_param {
    scale: 0.00390625
  }
  data_param {
    source: "examples/mnist/mnist_train_lmdb"
    batch_size: 64
    backend: LMDB
  }
}
layer {
  name: "conv0"
  type: "Convolution"
  bottom: "data"
  top: "conv0"
  param {
    lr_mult: 1
  }
  param {
    lr_mult: 2
  }
  convolution_param {
    num_output: 10
    kernel_size: 5
    stride: 1
    weight_filler {
      type: "xavier"
    }
    bias_filler {
      type: "constant"
    }
  }
}
layer {
  name: "pool0"
  type: "Pooling"
  bottom: "conv0"
  top: "pool0"
  pooling_param {
    pool: MAX
    kernel_size: 2
    stride: 2
  }
}
layer {
  name: "conv1"
  type: "Convolution"
  bottom: "pool0"
  top: "conv1"
  param {
    lr_mult: 1
  }
  param {
    lr_mult: 2
  }
  convolution_param {
    num_output: 2
    kernel_size: 5
    stride: 1
    weight_filler {
      type: "xavier"
    }
    bias_filler {
      type: "constant"
    }
  }
}
layer {
  name: "pool1"
  type: "Pooling"
  bottom: "conv1"
  top: "pool1"
  pooling_param {
    pool: MAX
    kernel_size: 2
    stride: 2
  }
}
layer {
  name: "ip1"
  type: "InnerProduct"
  bottom: "pool1"
  top: "ip1"
  param {
    lr_mult: 1
  }
  param {
    lr_mult: 2
  }
  inner_product_param {
    num_output: 50
    weight_filler {
      type: "xavier"
    }
    bias_filler {
      type: "constant"
    }
  }
}
layer {
  name: "relu1"
  type: "ReLU"
  bottom: "ip1"
  top: "ip1"
}
layer {
  name: "ip2"
  type: "InnerProduct"
  bottom: "ip1"
  top: "ip2"
  param {
    lr_mult: 1
  }
  param {
    lr_mult: 2
  }
  inner_product_param {
    num_output: 10
    weight_filler {
      type: "xavier"
    }
    bias_filler {
      type: "constant"
    }
  }
}
layer {
  name: "relu2"
  type: "ReLU"
  bottom: "ip2"
  top: "ip2"
}
layer {
  name: "ip3"
  type: "InnerProduct"
  bottom: "ip2"
  top: "ip3"
  param {
    lr_mult: 1
  }
  param {
    lr_mult: 2
  }
  inner_product_param {
    num_output: 10
    weight_filler {
      type: "xavier"
    }
    bias_filler {
      type: "constant"
    }
  }
}
layer {
  name: "relu3"
  type: "ReLU"
  bottom: "ip3"
  top: "ip3"
}
layer {
  name: "loss"
  type: "SoftmaxWithLoss"
  bottom: "ip3"
  bottom: "label"
  top: "loss"
}
I0428 19:56:53.360834 28541 layer_factory.hpp:77] Creating layer mnist
I0428 19:56:53.360930 28541 db_lmdb.cpp:35] Opened lmdb examples/mnist/mnist_train_lmdb
I0428 19:56:53.360950 28541 net.cpp:86] Creating Layer mnist
I0428 19:56:53.360956 28541 net.cpp:382] mnist -> data
I0428 19:56:53.360976 28541 net.cpp:382] mnist -> label
I0428 19:56:53.361953 28541 data_layer.cpp:45] output data size: 64,1,28,28
I0428 19:56:53.364222 28541 net.cpp:124] Setting up mnist
I0428 19:56:53.364251 28541 net.cpp:131] Top shape: 64 1 28 28 (50176)
I0428 19:56:53.364256 28541 net.cpp:131] Top shape: 64 (64)
I0428 19:56:53.364259 28541 net.cpp:139] Memory required for data: 200960
I0428 19:56:53.364265 28541 layer_factory.hpp:77] Creating layer conv0
I0428 19:56:53.364279 28541 net.cpp:86] Creating Layer conv0
I0428 19:56:53.364296 28541 net.cpp:408] conv0 <- data
I0428 19:56:53.364322 28541 net.cpp:382] conv0 -> conv0
I0428 19:56:53.590700 28541 net.cpp:124] Setting up conv0
I0428 19:56:53.590726 28541 net.cpp:131] Top shape: 64 10 24 24 (368640)
I0428 19:56:53.590730 28541 net.cpp:139] Memory required for data: 1675520
I0428 19:56:53.590744 28541 layer_factory.hpp:77] Creating layer pool0
I0428 19:56:53.590756 28541 net.cpp:86] Creating Layer pool0
I0428 19:56:53.590759 28541 net.cpp:408] pool0 <- conv0
I0428 19:56:53.590764 28541 net.cpp:382] pool0 -> pool0
I0428 19:56:53.590822 28541 net.cpp:124] Setting up pool0
I0428 19:56:53.590843 28541 net.cpp:131] Top shape: 64 10 12 12 (92160)
I0428 19:56:53.590845 28541 net.cpp:139] Memory required for data: 2044160
I0428 19:56:53.590848 28541 layer_factory.hpp:77] Creating layer conv1
I0428 19:56:53.590859 28541 net.cpp:86] Creating Layer conv1
I0428 19:56:53.590862 28541 net.cpp:408] conv1 <- pool0
I0428 19:56:53.590867 28541 net.cpp:382] conv1 -> conv1
I0428 19:56:53.592715 28541 net.cpp:124] Setting up conv1
I0428 19:56:53.592746 28541 net.cpp:131] Top shape: 64 2 8 8 (8192)
I0428 19:56:53.592749 28541 net.cpp:139] Memory required for data: 2076928
I0428 19:56:53.592758 28541 layer_factory.hpp:77] Creating layer pool1
I0428 19:56:53.592782 28541 net.cpp:86] Creating Layer pool1
I0428 19:56:53.592784 28541 net.cpp:408] pool1 <- conv1
I0428 19:56:53.592789 28541 net.cpp:382] pool1 -> pool1
I0428 19:56:53.592844 28541 net.cpp:124] Setting up pool1
I0428 19:56:53.592851 28541 net.cpp:131] Top shape: 64 2 4 4 (2048)
I0428 19:56:53.592855 28541 net.cpp:139] Memory required for data: 2085120
I0428 19:56:53.592859 28541 layer_factory.hpp:77] Creating layer ip1
I0428 19:56:53.592865 28541 net.cpp:86] Creating Layer ip1
I0428 19:56:53.592869 28541 net.cpp:408] ip1 <- pool1
I0428 19:56:53.592875 28541 net.cpp:382] ip1 -> ip1
I0428 19:56:53.593945 28541 net.cpp:124] Setting up ip1
I0428 19:56:53.593956 28541 net.cpp:131] Top shape: 64 50 (3200)
I0428 19:56:53.593976 28541 net.cpp:139] Memory required for data: 2097920
I0428 19:56:53.593983 28541 layer_factory.hpp:77] Creating layer relu1
I0428 19:56:53.593991 28541 net.cpp:86] Creating Layer relu1
I0428 19:56:53.593993 28541 net.cpp:408] relu1 <- ip1
I0428 19:56:53.593997 28541 net.cpp:369] relu1 -> ip1 (in-place)
I0428 19:56:53.594163 28541 net.cpp:124] Setting up relu1
I0428 19:56:53.594172 28541 net.cpp:131] Top shape: 64 50 (3200)
I0428 19:56:53.594175 28541 net.cpp:139] Memory required for data: 2110720
I0428 19:56:53.594178 28541 layer_factory.hpp:77] Creating layer ip2
I0428 19:56:53.594185 28541 net.cpp:86] Creating Layer ip2
I0428 19:56:53.594188 28541 net.cpp:408] ip2 <- ip1
I0428 19:56:53.594193 28541 net.cpp:382] ip2 -> ip2
I0428 19:56:53.594316 28541 net.cpp:124] Setting up ip2
I0428 19:56:53.594322 28541 net.cpp:131] Top shape: 64 10 (640)
I0428 19:56:53.594326 28541 net.cpp:139] Memory required for data: 2113280
I0428 19:56:53.594331 28541 layer_factory.hpp:77] Creating layer relu2
I0428 19:56:53.594336 28541 net.cpp:86] Creating Layer relu2
I0428 19:56:53.594338 28541 net.cpp:408] relu2 <- ip2
I0428 19:56:53.594342 28541 net.cpp:369] relu2 -> ip2 (in-place)
I0428 19:56:53.595119 28541 net.cpp:124] Setting up relu2
I0428 19:56:53.595131 28541 net.cpp:131] Top shape: 64 10 (640)
I0428 19:56:53.595150 28541 net.cpp:139] Memory required for data: 2115840
I0428 19:56:53.595154 28541 layer_factory.hpp:77] Creating layer ip3
I0428 19:56:53.595160 28541 net.cpp:86] Creating Layer ip3
I0428 19:56:53.595165 28541 net.cpp:408] ip3 <- ip2
I0428 19:56:53.595170 28541 net.cpp:382] ip3 -> ip3
I0428 19:56:53.595260 28541 net.cpp:124] Setting up ip3
I0428 19:56:53.595268 28541 net.cpp:131] Top shape: 64 10 (640)
I0428 19:56:53.595270 28541 net.cpp:139] Memory required for data: 2118400
I0428 19:56:53.595278 28541 layer_factory.hpp:77] Creating layer relu3
I0428 19:56:53.595283 28541 net.cpp:86] Creating Layer relu3
I0428 19:56:53.595285 28541 net.cpp:408] relu3 <- ip3
I0428 19:56:53.595289 28541 net.cpp:369] relu3 -> ip3 (in-place)
I0428 19:56:53.595458 28541 net.cpp:124] Setting up relu3
I0428 19:56:53.595468 28541 net.cpp:131] Top shape: 64 10 (640)
I0428 19:56:53.595470 28541 net.cpp:139] Memory required for data: 2120960
I0428 19:56:53.595474 28541 layer_factory.hpp:77] Creating layer loss
I0428 19:56:53.595479 28541 net.cpp:86] Creating Layer loss
I0428 19:56:53.595481 28541 net.cpp:408] loss <- ip3
I0428 19:56:53.595485 28541 net.cpp:408] loss <- label
I0428 19:56:53.595490 28541 net.cpp:382] loss -> loss
I0428 19:56:53.595504 28541 layer_factory.hpp:77] Creating layer loss
…
I0428 19:56:53.596153 28541 solver.cpp:173] Creating test net (#0) specified by net file: ECE595/mnist/train_test/var_everything2/lenet_train_test772.prototxt
I0428 19:56:53.596207 28541 net.cpp:296] The NetState phase (1) differed from the phase (0) specified by a rule in layer mnist
I0428 19:56:53.596309 28541 net.cpp:53] Initializing net from parameters: 
name: "LeNet"
state {
  phase: TEST
}
layer {
  name: "mnist"
  type: "Data"
  top: "data"
  top: "label"
  include {
    phase: TEST
  }
  transform_param {
    scale: 0.00390625
  }
  data_param {
    source: "examples/mnist/mnist_test_lmdb"
    batch_size: 100
    backend: LMDB
  }
}
layer {
  name: "conv0"
  type: "Convolution"
  bottom: "data"
  top: "conv0"
  param {
    lr_mult: 1
  }
  param {
    lr_mult: 2
  }
  convolution_param {
    num_output: 10
    kernel_size: 5
    stride: 1
    weight_filler {
      type: "xavier"
    }
    bias_filler {
      type: "constant"
    }
  }
}
layer {
  name: "pool0"
  type: "Pooling"
  bottom: "conv0"
  top: "pool0"
  pooling_param {
    pool: MAX
    kernel_size: 2
    stride: 2
  }
}
layer {
  name: "conv1"
  type: "Convolution"
  bottom: "pool0"
  top: "conv1"
  param {
    lr_mult: 1
  }
  param {
    lr_mult: 2
  }
  convolution_param {
    num_output: 2
    kernel_size: 5
    stride: 1
    weight_filler {
      type: "xavier"
    }
    bias_filler {
      type: "constant"
    }
  }
}
layer {
  name: "pool1"
  type: "Pooling"
  bottom: "conv1"
  top: "pool1"
  pooling_param {
    pool: MAX
    kernel_size: 2
    stride: 2
  }
}
layer {
  name: "ip1"
  type: "InnerProduct"
  bottom: "pool1"
  top: "ip1"
  param {
    lr_mult: 1
  }
  param {
    lr_mult: 2
  }
  inner_product_param {
    num_output: 50
    weight_filler {
      type: "xavier"
    }
    bias_filler {
      type: "constant"
    }
  }
}
layer {
  name: "relu1"
  type: "ReLU"
  bottom: "ip1"
  top: "ip1"
}
layer {
  name: "ip2"
  type: "InnerProduct"
  bottom: "ip1"
  top: "ip2"
  param {
    lr_mult: 1
  }
  param {
    lr_mult: 2
  }
  inner_product_param {
    num_output: 10
    weight_filler {
      type: "xavier"
    }
    bias_filler {
      type: "constant"
    }
  }
}
layer {
  name: "relu2"
  type: "ReLU"
  bottom: "ip2"
  top: "ip2"
}
layer {
  name: "ip3"
  type: "InnerProduct"
  bottom: "ip2"
  top: "ip3"
  param {
    lr_mult: 1
  }
  param {
    lr_mult: 2
  }
  inner_product_param {
    num_output: 10
    weight_filler {
      type: "xavier"
    }
    bias_filler {
      type: "constant"
    }
  }
}
layer {
  name: "relu3"
  type: "ReLU"
  bottom: "ip3"
  top: "ip3"
}
layer {
  name: "accuracy"
  type: "Accuracy"
  bottom: "ip3"
  bottom: "label"
  top: "accuracy"
  include {
    phase: TEST
  }
}
layer {
  name: "loss"
  type: "SoftmaxWithLoss"
  bottom: "ip3"
  bottom: "label"
  top: "loss"
}
I0428 19:56:53.596386 28541 layer_factory.hpp:77] Creating layer mnist
I0428 19:56:53.596429 28541 db_lmdb.cpp:35] Opened lmdb examples/mnist/mnist_test_lmdb
I0428 19:56:53.596441 28541 net.cpp:86] Creating Layer mnist
I0428 19:56:53.596447 28541 net.cpp:382] mnist -> data
I0428 19:56:53.596454 28541 net.cpp:382] mnist -> label
I0428 19:56:53.596532 28541 data_layer.cpp:45] output data size: 100,1,28,28
I0428 19:56:53.598604 28541 net.cpp:124] Setting up mnist
I0428 19:56:53.598633 28541 net.cpp:131] Top shape: 100 1 28 28 (78400)
I0428 19:56:53.598636 28541 net.cpp:131] Top shape: 100 (100)
I0428 19:56:53.598639 28541 net.cpp:139] Memory required for data: 314000
I0428 19:56:53.598644 28541 layer_factory.hpp:77] Creating layer label_mnist_1_split
I0428 19:56:53.598649 28541 net.cpp:86] Creating Layer label_mnist_1_split
I0428 19:56:53.598652 28541 net.cpp:408] label_mnist_1_split <- label
I0428 19:56:53.598672 28541 net.cpp:382] label_mnist_1_split -> label_mnist_1_split_0
I0428 19:56:53.598678 28541 net.cpp:382] label_mnist_1_split -> label_mnist_1_split_1
I0428 19:56:53.598716 28541 net.cpp:124] Setting up label_mnist_1_split
I0428 19:56:53.598721 28541 net.cpp:131] Top shape: 100 (100)
I0428 19:56:53.598724 28541 net.cpp:131] Top shape: 100 (100)
I0428 19:56:53.598727 28541 net.cpp:139] Memory required for data: 314800
I0428 19:56:53.598729 28541 layer_factory.hpp:77] Creating layer conv0
I0428 19:56:53.598738 28541 net.cpp:86] Creating Layer conv0
I0428 19:56:53.598742 28541 net.cpp:408] conv0 <- data
I0428 19:56:53.598745 28541 net.cpp:382] conv0 -> conv0
I0428 19:56:53.600378 28541 net.cpp:124] Setting up conv0
I0428 19:56:53.600390 28541 net.cpp:131] Top shape: 100 10 24 24 (576000)
I0428 19:56:53.600394 28541 net.cpp:139] Memory required for data: 2618800
I0428 19:56:53.600402 28541 layer_factory.hpp:77] Creating layer pool0
I0428 19:56:53.600419 28541 net.cpp:86] Creating Layer pool0
I0428 19:56:53.600422 28541 net.cpp:408] pool0 <- conv0
I0428 19:56:53.600428 28541 net.cpp:382] pool0 -> pool0
I0428 19:56:53.600464 28541 net.cpp:124] Setting up pool0
I0428 19:56:53.600469 28541 net.cpp:131] Top shape: 100 10 12 12 (144000)
I0428 19:56:53.600472 28541 net.cpp:139] Memory required for data: 3194800
I0428 19:56:53.600486 28541 layer_factory.hpp:77] Creating layer conv1
I0428 19:56:53.600497 28541 net.cpp:86] Creating Layer conv1
I0428 19:56:53.600499 28541 net.cpp:408] conv1 <- pool0
I0428 19:56:53.600503 28541 net.cpp:382] conv1 -> conv1
I0428 19:56:53.602701 28541 net.cpp:124] Setting up conv1
I0428 19:56:53.602716 28541 net.cpp:131] Top shape: 100 2 8 8 (12800)
I0428 19:56:53.602722 28541 net.cpp:139] Memory required for data: 3246000
I0428 19:56:53.602731 28541 layer_factory.hpp:77] Creating layer pool1
I0428 19:56:53.602741 28541 net.cpp:86] Creating Layer pool1
I0428 19:56:53.602743 28541 net.cpp:408] pool1 <- conv1
I0428 19:56:53.602749 28541 net.cpp:382] pool1 -> pool1
I0428 19:56:53.602795 28541 net.cpp:124] Setting up pool1
I0428 19:56:53.602802 28541 net.cpp:131] Top shape: 100 2 4 4 (3200)
I0428 19:56:53.602805 28541 net.cpp:139] Memory required for data: 3258800
I0428 19:56:53.602808 28541 layer_factory.hpp:77] Creating layer ip1
I0428 19:56:53.602823 28541 net.cpp:86] Creating Layer ip1
I0428 19:56:53.602828 28541 net.cpp:408] ip1 <- pool1
I0428 19:56:53.602849 28541 net.cpp:382] ip1 -> ip1
I0428 19:56:53.602993 28541 net.cpp:124] Setting up ip1
I0428 19:56:53.603000 28541 net.cpp:131] Top shape: 100 50 (5000)
I0428 19:56:53.603013 28541 net.cpp:139] Memory required for data: 3278800
I0428 19:56:53.603021 28541 layer_factory.hpp:77] Creating layer relu1
I0428 19:56:53.603025 28541 net.cpp:86] Creating Layer relu1
I0428 19:56:53.603029 28541 net.cpp:408] relu1 <- ip1
I0428 19:56:53.603034 28541 net.cpp:369] relu1 -> ip1 (in-place)
I0428 19:56:53.603288 28541 net.cpp:124] Setting up relu1
I0428 19:56:53.603297 28541 net.cpp:131] Top shape: 100 50 (5000)
I0428 19:56:53.603302 28541 net.cpp:139] Memory required for data: 3298800
I0428 19:56:53.603304 28541 layer_factory.hpp:77] Creating layer ip2
I0428 19:56:53.603312 28541 net.cpp:86] Creating Layer ip2
I0428 19:56:53.603315 28541 net.cpp:408] ip2 <- ip1
I0428 19:56:53.603322 28541 net.cpp:382] ip2 -> ip2
I0428 19:56:53.603426 28541 net.cpp:124] Setting up ip2
I0428 19:56:53.603435 28541 net.cpp:131] Top shape: 100 10 (1000)
I0428 19:56:53.603437 28541 net.cpp:139] Memory required for data: 3302800
I0428 19:56:53.603442 28541 layer_factory.hpp:77] Creating layer relu2
I0428 19:56:53.603448 28541 net.cpp:86] Creating Layer relu2
I0428 19:56:53.603451 28541 net.cpp:408] relu2 <- ip2
I0428 19:56:53.603456 28541 net.cpp:369] relu2 -> ip2 (in-place)
I0428 19:56:53.603621 28541 net.cpp:124] Setting up relu2
I0428 19:56:53.603631 28541 net.cpp:131] Top shape: 100 10 (1000)
I0428 19:56:53.603633 28541 net.cpp:139] Memory required for data: 3306800
I0428 19:56:53.603637 28541 layer_factory.hpp:77] Creating layer ip3
I0428 19:56:53.603651 28541 net.cpp:86] Creating Layer ip3
I0428 19:56:53.603653 28541 net.cpp:408] ip3 <- ip2
I0428 19:56:53.603659 28541 net.cpp:382] ip3 -> ip3
I0428 19:56:53.603760 28541 net.cpp:124] Setting up ip3
I0428 19:56:53.603766 28541 net.cpp:131] Top shape: 100 10 (1000)
I0428 19:56:53.603770 28541 net.cpp:139] Memory required for data: 3310800
I0428 19:56:53.603777 28541 layer_factory.hpp:77] Creating layer relu3
I0428 19:56:53.603785 28541 net.cpp:86] Creating Layer relu3
I0428 19:56:53.603788 28541 net.cpp:408] relu3 <- ip3
I0428 19:56:53.603792 28541 net.cpp:369] relu3 -> ip3 (in-place)
I0428 19:56:53.604589 28541 net.cpp:124] Setting up relu3
I0428 19:56:53.604601 28541 net.cpp:131] Top shape: 100 10 (1000)
I0428 19:56:53.604604 28541 net.cpp:139] Memory required for data: 3314800
I0428 19:56:53.604609 28541 layer_factory.hpp:77] Creating layer ip3_relu3_0_split
I0428 19:56:53.604614 28541 net.cpp:86] Creating Layer ip3_relu3_0_split
I0428 19:56:53.604617 28541 net.cpp:408] ip3_relu3_0_split <- ip3
I0428 19:56:53.604622 28541 net.cpp:382] ip3_relu3_0_split -> ip3_relu3_0_split_0
I0428 19:56:53.604629 28541 net.cpp:382] ip3_relu3_0_split -> ip3_relu3_0_split_1
I0428 19:56:53.604697 28541 net.cpp:124] Setting up ip3_relu3_0_split
I0428 19:56:53.604704 28541 net.cpp:131] Top shape: 100 10 (1000)
I0428 19:56:53.604708 28541 net.cpp:131] Top shape: 100 10 (1000)
I0428 19:56:53.604712 28541 net.cpp:139] Memory required for data: 3322800
I0428 19:56:53.604714 28541 layer_factory.hpp:77] Creating layer accuracy
I0428 19:56:53.604727 28541 net.cpp:86] Creating Layer accuracy
I0428 19:56:53.604730 28541 net.cpp:408] accuracy <- ip3_relu3_0_split_0
I0428 19:56:53.604734 28541 net.cpp:408] accuracy <- label_mnist_1_split_0
I0428 19:56:53.604738 28541 net.cpp:382] accuracy -> accuracy
…
