…
I0428 19:41:31.633934 24846 net.cpp:296] The NetState phase (0) differed from the phase (1) specified by a rule in layer mnist
I0428 19:41:31.633950 24846 net.cpp:296] The NetState phase (0) differed from the phase (1) specified by a rule in layer accuracy
I0428 19:41:31.634047 24846 net.cpp:53] Initializing net from parameters: 
name: "LeNet"
state {
  phase: TRAIN
  level: 0
  stage: ""
}
layer {
  name: "mnist"
  type: "Data"
  top: "data"
  top: "label"
  include {
    phase: TRAIN
  }
  transform_param {
    scale: 0.00390625
  }
  data_param {
    source: "examples/mnist/mnist_train_lmdb"
    batch_size: 64
    backend: LMDB
  }
}
layer {
  name: "conv0"
  type: "Convolution"
  bottom: "data"
  top: "conv0"
  param {
    lr_mult: 1
  }
  param {
    lr_mult: 2
  }
  convolution_param {
    num_output: 2
    kernel_size: 5
    stride: 1
    weight_filler {
      type: "xavier"
    }
    bias_filler {
      type: "constant"
    }
  }
}
layer {
  name: "pool0"
  type: "Pooling"
  bottom: "conv0"
  top: "pool0"
  pooling_param {
    pool: MAX
    kernel_size: 2
    stride: 2
  }
}
layer {
  name: "conv1"
  type: "Convolution"
  bottom: "pool0"
  top: "conv1"
  param {
    lr_mult: 1
  }
  param {
    lr_mult: 2
  }
  convolution_param {
    num_output: 10
    kernel_size: 5
    stride: 1
    weight_filler {
      type: "xavier"
    }
    bias_filler {
      type: "constant"
    }
  }
}
layer {
  name: "pool1"
  type: "Pooling"
  bottom: "conv1"
  top: "pool1"
  pooling_param {
    pool: MAX
    kernel_size: 2
    stride: 2
  }
}
layer {
  name: "ip1"
  type: "InnerProduct"
  bottom: "pool1"
  top: "ip1"
  param {
    lr_mult: 1
  }
  param {
    lr_mult: 2
  }
  inner_product_param {
    num_output: 10
    weight_filler {
      type: "xavier"
    }
    bias_filler {
      type: "constant"
    }
  }
}
layer {
  name: "relu1"
  type: "ReLU"
  bottom: "ip1"
  top: "ip1"
}
layer {
  name: "ip2"
  type: "InnerProduct"
  bottom: "ip1"
  top: "ip2"
  param {
    lr_mult: 1
  }
  param {
    lr_mult: 2
  }
  inner_product_param {
    num_output: 25
    weight_filler {
      type: "xavier"
    }
    bias_filler {
      type: "constant"
    }
  }
}
layer {
  name: "relu2"
  type: "ReLU"
  bottom: "ip2"
  top: "ip2"
}
layer {
  name: "ip3"
  type: "InnerProduct"
  bottom: "ip2"
  top: "ip3"
  param {
    lr_mult: 1
  }
  param {
    lr_mult: 2
  }
  inner_product_param {
    num_output: 10
    weight_filler {
      type: "xavier"
    }
    bias_filler {
      type: "constant"
    }
  }
}
layer {
  name: "relu3"
  type: "ReLU"
  bottom: "ip3"
  top: "ip3"
}
layer {
  name: "loss"
  type: "SoftmaxWithLoss"
  bottom: "ip3"
  bottom: "label"
  top: "loss"
}
I0428 19:41:31.634120 24846 layer_factory.hpp:77] Creating layer mnist
I0428 19:41:31.634219 24846 db_lmdb.cpp:35] Opened lmdb examples/mnist/mnist_train_lmdb
I0428 19:41:31.634244 24846 net.cpp:86] Creating Layer mnist
I0428 19:41:31.634253 24846 net.cpp:382] mnist -> data
I0428 19:41:31.634277 24846 net.cpp:382] mnist -> label
I0428 19:41:31.635357 24846 data_layer.cpp:45] output data size: 64,1,28,28
I0428 19:41:31.637830 24846 net.cpp:124] Setting up mnist
I0428 19:41:31.637847 24846 net.cpp:131] Top shape: 64 1 28 28 (50176)
I0428 19:41:31.637854 24846 net.cpp:131] Top shape: 64 (64)
I0428 19:41:31.637858 24846 net.cpp:139] Memory required for data: 200960
I0428 19:41:31.637866 24846 layer_factory.hpp:77] Creating layer conv0
I0428 19:41:31.637883 24846 net.cpp:86] Creating Layer conv0
I0428 19:41:31.637905 24846 net.cpp:408] conv0 <- data
I0428 19:41:31.637917 24846 net.cpp:382] conv0 -> conv0
I0428 19:41:31.929080 24846 net.cpp:124] Setting up conv0
I0428 19:41:31.929111 24846 net.cpp:131] Top shape: 64 2 24 24 (73728)
I0428 19:41:31.929116 24846 net.cpp:139] Memory required for data: 495872
I0428 19:41:31.929136 24846 layer_factory.hpp:77] Creating layer pool0
I0428 19:41:31.929150 24846 net.cpp:86] Creating Layer pool0
I0428 19:41:31.929158 24846 net.cpp:408] pool0 <- conv0
I0428 19:41:31.929165 24846 net.cpp:382] pool0 -> pool0
I0428 19:41:31.929220 24846 net.cpp:124] Setting up pool0
I0428 19:41:31.929227 24846 net.cpp:131] Top shape: 64 2 12 12 (18432)
I0428 19:41:31.929230 24846 net.cpp:139] Memory required for data: 569600
I0428 19:41:31.929234 24846 layer_factory.hpp:77] Creating layer conv1
I0428 19:41:31.929246 24846 net.cpp:86] Creating Layer conv1
I0428 19:41:31.929250 24846 net.cpp:408] conv1 <- pool0
I0428 19:41:31.929256 24846 net.cpp:382] conv1 -> conv1
I0428 19:41:31.931381 24846 net.cpp:124] Setting up conv1
I0428 19:41:31.931398 24846 net.cpp:131] Top shape: 64 10 8 8 (40960)
I0428 19:41:31.931402 24846 net.cpp:139] Memory required for data: 733440
I0428 19:41:31.931412 24846 layer_factory.hpp:77] Creating layer pool1
I0428 19:41:31.931421 24846 net.cpp:86] Creating Layer pool1
I0428 19:41:31.931426 24846 net.cpp:408] pool1 <- conv1
I0428 19:41:31.931433 24846 net.cpp:382] pool1 -> pool1
I0428 19:41:31.931478 24846 net.cpp:124] Setting up pool1
I0428 19:41:31.931485 24846 net.cpp:131] Top shape: 64 10 4 4 (10240)
I0428 19:41:31.931488 24846 net.cpp:139] Memory required for data: 774400
I0428 19:41:31.931493 24846 layer_factory.hpp:77] Creating layer ip1
I0428 19:41:31.931500 24846 net.cpp:86] Creating Layer ip1
I0428 19:41:31.931504 24846 net.cpp:408] ip1 <- pool1
I0428 19:41:31.931509 24846 net.cpp:382] ip1 -> ip1
I0428 19:41:31.932606 24846 net.cpp:124] Setting up ip1
I0428 19:41:31.932621 24846 net.cpp:131] Top shape: 64 10 (640)
I0428 19:41:31.932626 24846 net.cpp:139] Memory required for data: 776960
I0428 19:41:31.932636 24846 layer_factory.hpp:77] Creating layer relu1
I0428 19:41:31.932642 24846 net.cpp:86] Creating Layer relu1
I0428 19:41:31.932647 24846 net.cpp:408] relu1 <- ip1
I0428 19:41:31.932654 24846 net.cpp:369] relu1 -> ip1 (in-place)
I0428 19:41:31.932867 24846 net.cpp:124] Setting up relu1
I0428 19:41:31.932878 24846 net.cpp:131] Top shape: 64 10 (640)
I0428 19:41:31.932883 24846 net.cpp:139] Memory required for data: 779520
I0428 19:41:31.932886 24846 layer_factory.hpp:77] Creating layer ip2
I0428 19:41:31.932894 24846 net.cpp:86] Creating Layer ip2
I0428 19:41:31.932898 24846 net.cpp:408] ip2 <- ip1
I0428 19:41:31.932905 24846 net.cpp:382] ip2 -> ip2
I0428 19:41:31.933020 24846 net.cpp:124] Setting up ip2
I0428 19:41:31.933028 24846 net.cpp:131] Top shape: 64 25 (1600)
I0428 19:41:31.933032 24846 net.cpp:139] Memory required for data: 785920
I0428 19:41:31.933038 24846 layer_factory.hpp:77] Creating layer relu2
I0428 19:41:31.933045 24846 net.cpp:86] Creating Layer relu2
I0428 19:41:31.933048 24846 net.cpp:408] relu2 <- ip2
I0428 19:41:31.933053 24846 net.cpp:369] relu2 -> ip2 (in-place)
I0428 19:41:31.933902 24846 net.cpp:124] Setting up relu2
I0428 19:41:31.933917 24846 net.cpp:131] Top shape: 64 25 (1600)
I0428 19:41:31.933921 24846 net.cpp:139] Memory required for data: 792320
I0428 19:41:31.933925 24846 layer_factory.hpp:77] Creating layer ip3
I0428 19:41:31.933933 24846 net.cpp:86] Creating Layer ip3
I0428 19:41:31.933938 24846 net.cpp:408] ip3 <- ip2
I0428 19:41:31.933944 24846 net.cpp:382] ip3 -> ip3
I0428 19:41:31.934062 24846 net.cpp:124] Setting up ip3
I0428 19:41:31.934070 24846 net.cpp:131] Top shape: 64 10 (640)
I0428 19:41:31.934074 24846 net.cpp:139] Memory required for data: 794880
I0428 19:41:31.934084 24846 layer_factory.hpp:77] Creating layer relu3
I0428 19:41:31.934090 24846 net.cpp:86] Creating Layer relu3
I0428 19:41:31.934093 24846 net.cpp:408] relu3 <- ip3
I0428 19:41:31.934098 24846 net.cpp:369] relu3 -> ip3 (in-place)
I0428 19:41:31.934294 24846 net.cpp:124] Setting up relu3
I0428 19:41:31.934304 24846 net.cpp:131] Top shape: 64 10 (640)
I0428 19:41:31.934309 24846 net.cpp:139] Memory required for data: 797440
I0428 19:41:31.934311 24846 layer_factory.hpp:77] Creating layer loss
I0428 19:41:31.934319 24846 net.cpp:86] Creating Layer loss
I0428 19:41:31.934322 24846 net.cpp:408] loss <- ip3
I0428 19:41:31.934327 24846 net.cpp:408] loss <- label
I0428 19:41:31.934334 24846 net.cpp:382] loss -> loss
I0428 19:41:31.934350 24846 layer_factory.hpp:77] Creating layer loss
…
I0428 19:41:31.935092 24846 solver.cpp:173] Creating test net (#0) specified by net file: ECE595/mnist/train_test/var_everything2/lenet_train_test367.prototxt
I0428 19:41:31.935123 24846 net.cpp:296] The NetState phase (1) differed from the phase (0) specified by a rule in layer mnist
I0428 19:41:31.935231 24846 net.cpp:53] Initializing net from parameters: 
name: "LeNet"
state {
  phase: TEST
}
layer {
  name: "mnist"
  type: "Data"
  top: "data"
  top: "label"
  include {
    phase: TEST
  }
  transform_param {
    scale: 0.00390625
  }
  data_param {
    source: "examples/mnist/mnist_test_lmdb"
    batch_size: 100
    backend: LMDB
  }
}
layer {
  name: "conv0"
  type: "Convolution"
  bottom: "data"
  top: "conv0"
  param {
    lr_mult: 1
  }
  param {
    lr_mult: 2
  }
  convolution_param {
    num_output: 2
    kernel_size: 5
    stride: 1
    weight_filler {
      type: "xavier"
    }
    bias_filler {
      type: "constant"
    }
  }
}
layer {
  name: "pool0"
  type: "Pooling"
  bottom: "conv0"
  top: "pool0"
  pooling_param {
    pool: MAX
    kernel_size: 2
    stride: 2
  }
}
layer {
  name: "conv1"
  type: "Convolution"
  bottom: "pool0"
  top: "conv1"
  param {
    lr_mult: 1
  }
  param {
    lr_mult: 2
  }
  convolution_param {
    num_output: 10
    kernel_size: 5
    stride: 1
    weight_filler {
      type: "xavier"
    }
    bias_filler {
      type: "constant"
    }
  }
}
layer {
  name: "pool1"
  type: "Pooling"
  bottom: "conv1"
  top: "pool1"
  pooling_param {
    pool: MAX
    kernel_size: 2
    stride: 2
  }
}
layer {
  name: "ip1"
  type: "InnerProduct"
  bottom: "pool1"
  top: "ip1"
  param {
    lr_mult: 1
  }
  param {
    lr_mult: 2
  }
  inner_product_param {
    num_output: 10
    weight_filler {
      type: "xavier"
    }
    bias_filler {
      type: "constant"
    }
  }
}
layer {
  name: "relu1"
  type: "ReLU"
  bottom: "ip1"
  top: "ip1"
}
layer {
  name: "ip2"
  type: "InnerProduct"
  bottom: "ip1"
  top: "ip2"
  param {
    lr_mult: 1
  }
  param {
    lr_mult: 2
  }
  inner_product_param {
    num_output: 25
    weight_filler {
      type: "xavier"
    }
    bias_filler {
      type: "constant"
    }
  }
}
layer {
  name: "relu2"
  type: "ReLU"
  bottom: "ip2"
  top: "ip2"
}
layer {
  name: "ip3"
  type: "InnerProduct"
  bottom: "ip2"
  top: "ip3"
  param {
    lr_mult: 1
  }
  param {
    lr_mult: 2
  }
  inner_product_param {
    num_output: 10
    weight_filler {
      type: "xavier"
    }
    bias_filler {
      type: "constant"
    }
  }
}
layer {
  name: "relu3"
  type: "ReLU"
  bottom: "ip3"
  top: "ip3"
}
layer {
  name: "accuracy"
  type: "Accuracy"
  bottom: "ip3"
  bottom: "label"
  top: "accuracy"
  include {
    phase: TEST
  }
}
layer {
  name: "loss"
  type: "SoftmaxWithLoss"
  bottom: "ip3"
  bottom: "label"
  top: "loss"
}
I0428 19:41:31.935325 24846 layer_factory.hpp:77] Creating layer mnist
I0428 19:41:31.935375 24846 db_lmdb.cpp:35] Opened lmdb examples/mnist/mnist_test_lmdb
I0428 19:41:31.935394 24846 net.cpp:86] Creating Layer mnist
I0428 19:41:31.935398 24846 net.cpp:382] mnist -> data
I0428 19:41:31.935408 24846 net.cpp:382] mnist -> label
I0428 19:41:31.935508 24846 data_layer.cpp:45] output data size: 100,1,28,28
I0428 19:41:31.937719 24846 net.cpp:124] Setting up mnist
I0428 19:41:31.937736 24846 net.cpp:131] Top shape: 100 1 28 28 (78400)
I0428 19:41:31.937742 24846 net.cpp:131] Top shape: 100 (100)
I0428 19:41:31.937747 24846 net.cpp:139] Memory required for data: 314000
I0428 19:41:31.937750 24846 layer_factory.hpp:77] Creating layer label_mnist_1_split
I0428 19:41:31.937759 24846 net.cpp:86] Creating Layer label_mnist_1_split
I0428 19:41:31.937763 24846 net.cpp:408] label_mnist_1_split <- label
I0428 19:41:31.937768 24846 net.cpp:382] label_mnist_1_split -> label_mnist_1_split_0
I0428 19:41:31.937777 24846 net.cpp:382] label_mnist_1_split -> label_mnist_1_split_1
I0428 19:41:31.937840 24846 net.cpp:124] Setting up label_mnist_1_split
I0428 19:41:31.937846 24846 net.cpp:131] Top shape: 100 (100)
I0428 19:41:31.937851 24846 net.cpp:131] Top shape: 100 (100)
I0428 19:41:31.937855 24846 net.cpp:139] Memory required for data: 314800
I0428 19:41:31.937857 24846 layer_factory.hpp:77] Creating layer conv0
I0428 19:41:31.937867 24846 net.cpp:86] Creating Layer conv0
I0428 19:41:31.937872 24846 net.cpp:408] conv0 <- data
I0428 19:41:31.937877 24846 net.cpp:382] conv0 -> conv0
I0428 19:41:31.939826 24846 net.cpp:124] Setting up conv0
I0428 19:41:31.939842 24846 net.cpp:131] Top shape: 100 2 24 24 (115200)
I0428 19:41:31.939847 24846 net.cpp:139] Memory required for data: 775600
I0428 19:41:31.939858 24846 layer_factory.hpp:77] Creating layer pool0
I0428 19:41:31.939867 24846 net.cpp:86] Creating Layer pool0
I0428 19:41:31.939870 24846 net.cpp:408] pool0 <- conv0
I0428 19:41:31.939877 24846 net.cpp:382] pool0 -> pool0
I0428 19:41:31.939919 24846 net.cpp:124] Setting up pool0
I0428 19:41:31.939926 24846 net.cpp:131] Top shape: 100 2 12 12 (28800)
I0428 19:41:31.939929 24846 net.cpp:139] Memory required for data: 890800
I0428 19:41:31.939932 24846 layer_factory.hpp:77] Creating layer conv1
I0428 19:41:31.939942 24846 net.cpp:86] Creating Layer conv1
I0428 19:41:31.939946 24846 net.cpp:408] conv1 <- pool0
I0428 19:41:31.939952 24846 net.cpp:382] conv1 -> conv1
I0428 19:41:31.941651 24846 net.cpp:124] Setting up conv1
I0428 19:41:31.941669 24846 net.cpp:131] Top shape: 100 10 8 8 (64000)
I0428 19:41:31.941673 24846 net.cpp:139] Memory required for data: 1146800
I0428 19:41:31.941692 24846 layer_factory.hpp:77] Creating layer pool1
I0428 19:41:31.941700 24846 net.cpp:86] Creating Layer pool1
I0428 19:41:31.941705 24846 net.cpp:408] pool1 <- conv1
I0428 19:41:31.941711 24846 net.cpp:382] pool1 -> pool1
I0428 19:41:31.941756 24846 net.cpp:124] Setting up pool1
I0428 19:41:31.941774 24846 net.cpp:131] Top shape: 100 10 4 4 (16000)
I0428 19:41:31.941786 24846 net.cpp:139] Memory required for data: 1210800
I0428 19:41:31.941789 24846 layer_factory.hpp:77] Creating layer ip1
I0428 19:41:31.941797 24846 net.cpp:86] Creating Layer ip1
I0428 19:41:31.941802 24846 net.cpp:408] ip1 <- pool1
I0428 19:41:31.941807 24846 net.cpp:382] ip1 -> ip1
I0428 19:41:31.941936 24846 net.cpp:124] Setting up ip1
I0428 19:41:31.941946 24846 net.cpp:131] Top shape: 100 10 (1000)
I0428 19:41:31.941962 24846 net.cpp:139] Memory required for data: 1214800
I0428 19:41:31.941969 24846 layer_factory.hpp:77] Creating layer relu1
I0428 19:41:31.941975 24846 net.cpp:86] Creating Layer relu1
I0428 19:41:31.941979 24846 net.cpp:408] relu1 <- ip1
I0428 19:41:31.941984 24846 net.cpp:369] relu1 -> ip1 (in-place)
I0428 19:41:31.942175 24846 net.cpp:124] Setting up relu1
I0428 19:41:31.942186 24846 net.cpp:131] Top shape: 100 10 (1000)
I0428 19:41:31.942190 24846 net.cpp:139] Memory required for data: 1218800
I0428 19:41:31.942194 24846 layer_factory.hpp:77] Creating layer ip2
I0428 19:41:31.942203 24846 net.cpp:86] Creating Layer ip2
I0428 19:41:31.942206 24846 net.cpp:408] ip2 <- ip1
I0428 19:41:31.942212 24846 net.cpp:382] ip2 -> ip2
I0428 19:41:31.942324 24846 net.cpp:124] Setting up ip2
I0428 19:41:31.942332 24846 net.cpp:131] Top shape: 100 25 (2500)
I0428 19:41:31.942337 24846 net.cpp:139] Memory required for data: 1228800
I0428 19:41:31.942343 24846 layer_factory.hpp:77] Creating layer relu2
I0428 19:41:31.942348 24846 net.cpp:86] Creating Layer relu2
I0428 19:41:31.942353 24846 net.cpp:408] relu2 <- ip2
I0428 19:41:31.942358 24846 net.cpp:369] relu2 -> ip2 (in-place)
I0428 19:41:31.942533 24846 net.cpp:124] Setting up relu2
I0428 19:41:31.942543 24846 net.cpp:131] Top shape: 100 25 (2500)
I0428 19:41:31.942545 24846 net.cpp:139] Memory required for data: 1238800
I0428 19:41:31.942549 24846 layer_factory.hpp:77] Creating layer ip3
I0428 19:41:31.942555 24846 net.cpp:86] Creating Layer ip3
I0428 19:41:31.942559 24846 net.cpp:408] ip3 <- ip2
I0428 19:41:31.942566 24846 net.cpp:382] ip3 -> ip3
I0428 19:41:31.942699 24846 net.cpp:124] Setting up ip3
I0428 19:41:31.942708 24846 net.cpp:131] Top shape: 100 10 (1000)
I0428 19:41:31.942710 24846 net.cpp:139] Memory required for data: 1242800
I0428 19:41:31.942719 24846 layer_factory.hpp:77] Creating layer relu3
I0428 19:41:31.942726 24846 net.cpp:86] Creating Layer relu3
I0428 19:41:31.942730 24846 net.cpp:408] relu3 <- ip3
I0428 19:41:31.942734 24846 net.cpp:369] relu3 -> ip3 (in-place)
I0428 19:41:31.943696 24846 net.cpp:124] Setting up relu3
I0428 19:41:31.943712 24846 net.cpp:131] Top shape: 100 10 (1000)
I0428 19:41:31.943717 24846 net.cpp:139] Memory required for data: 1246800
I0428 19:41:31.943720 24846 layer_factory.hpp:77] Creating layer ip3_relu3_0_split
I0428 19:41:31.943727 24846 net.cpp:86] Creating Layer ip3_relu3_0_split
I0428 19:41:31.943730 24846 net.cpp:408] ip3_relu3_0_split <- ip3
I0428 19:41:31.943737 24846 net.cpp:382] ip3_relu3_0_split -> ip3_relu3_0_split_0
I0428 19:41:31.943744 24846 net.cpp:382] ip3_relu3_0_split -> ip3_relu3_0_split_1
I0428 19:41:31.943792 24846 net.cpp:124] Setting up ip3_relu3_0_split
I0428 19:41:31.943799 24846 net.cpp:131] Top shape: 100 10 (1000)
I0428 19:41:31.943802 24846 net.cpp:131] Top shape: 100 10 (1000)
I0428 19:41:31.943806 24846 net.cpp:139] Memory required for data: 1254800
I0428 19:41:31.943809 24846 layer_factory.hpp:77] Creating layer accuracy
I0428 19:41:31.943815 24846 net.cpp:86] Creating Layer accuracy
I0428 19:41:31.943819 24846 net.cpp:408] accuracy <- ip3_relu3_0_split_0
I0428 19:41:31.943823 24846 net.cpp:408] accuracy <- label_mnist_1_split_0
I0428 19:41:31.943830 24846 net.cpp:382] accuracy -> accuracy
…
