…
I0428 19:38:37.619474 24063 net.cpp:296] The NetState phase (0) differed from the phase (1) specified by a rule in layer mnist
I0428 19:38:37.619496 24063 net.cpp:296] The NetState phase (0) differed from the phase (1) specified by a rule in layer accuracy
I0428 19:38:37.619590 24063 net.cpp:53] Initializing net from parameters: 
name: "LeNet"
state {
  phase: TRAIN
  level: 0
  stage: ""
}
layer {
  name: "mnist"
  type: "Data"
  top: "data"
  top: "label"
  include {
    phase: TRAIN
  }
  transform_param {
    scale: 0.00390625
  }
  data_param {
    source: "examples/mnist/mnist_train_lmdb"
    batch_size: 64
    backend: LMDB
  }
}
layer {
  name: "conv0"
  type: "Convolution"
  bottom: "data"
  top: "conv0"
  param {
    lr_mult: 1
  }
  param {
    lr_mult: 2
  }
  convolution_param {
    num_output: 2
    kernel_size: 5
    stride: 1
    weight_filler {
      type: "xavier"
    }
    bias_filler {
      type: "constant"
    }
  }
}
layer {
  name: "pool0"
  type: "Pooling"
  bottom: "conv0"
  top: "pool0"
  pooling_param {
    pool: MAX
    kernel_size: 2
    stride: 2
  }
}
layer {
  name: "conv1"
  type: "Convolution"
  bottom: "pool0"
  top: "conv1"
  param {
    lr_mult: 1
  }
  param {
    lr_mult: 2
  }
  convolution_param {
    num_output: 2
    kernel_size: 5
    stride: 1
    weight_filler {
      type: "xavier"
    }
    bias_filler {
      type: "constant"
    }
  }
}
layer {
  name: "pool1"
  type: "Pooling"
  bottom: "conv1"
  top: "pool1"
  pooling_param {
    pool: MAX
    kernel_size: 2
    stride: 2
  }
}
layer {
  name: "ip1"
  type: "InnerProduct"
  bottom: "pool1"
  top: "ip1"
  param {
    lr_mult: 1
  }
  param {
    lr_mult: 2
  }
  inner_product_param {
    num_output: 25
    weight_filler {
      type: "xavier"
    }
    bias_filler {
      type: "constant"
    }
  }
}
layer {
  name: "relu1"
  type: "ReLU"
  bottom: "ip1"
  top: "ip1"
}
layer {
  name: "ip2"
  type: "InnerProduct"
  bottom: "ip1"
  top: "ip2"
  param {
    lr_mult: 1
  }
  param {
    lr_mult: 2
  }
  inner_product_param {
    num_output: 10
    weight_filler {
      type: "xavier"
    }
    bias_filler {
      type: "constant"
    }
  }
}
layer {
  name: "relu2"
  type: "ReLU"
  bottom: "ip2"
  top: "ip2"
}
layer {
  name: "loss"
  type: "SoftmaxWithLoss"
  bottom: "ip2"
  bottom: "label"
  top: "loss"
}
I0428 19:38:37.619669 24063 layer_factory.hpp:77] Creating layer mnist
I0428 19:38:37.619771 24063 db_lmdb.cpp:35] Opened lmdb examples/mnist/mnist_train_lmdb
I0428 19:38:37.619794 24063 net.cpp:86] Creating Layer mnist
I0428 19:38:37.619803 24063 net.cpp:382] mnist -> data
I0428 19:38:37.619825 24063 net.cpp:382] mnist -> label
I0428 19:38:37.620929 24063 data_layer.cpp:45] output data size: 64,1,28,28
I0428 19:38:37.623399 24063 net.cpp:124] Setting up mnist
I0428 19:38:37.623417 24063 net.cpp:131] Top shape: 64 1 28 28 (50176)
I0428 19:38:37.623423 24063 net.cpp:131] Top shape: 64 (64)
I0428 19:38:37.623427 24063 net.cpp:139] Memory required for data: 200960
I0428 19:38:37.623435 24063 layer_factory.hpp:77] Creating layer conv0
I0428 19:38:37.623462 24063 net.cpp:86] Creating Layer conv0
I0428 19:38:37.623469 24063 net.cpp:408] conv0 <- data
I0428 19:38:37.623482 24063 net.cpp:382] conv0 -> conv0
I0428 19:38:37.911867 24063 net.cpp:124] Setting up conv0
I0428 19:38:37.911895 24063 net.cpp:131] Top shape: 64 2 24 24 (73728)
I0428 19:38:37.911900 24063 net.cpp:139] Memory required for data: 495872
I0428 19:38:37.911932 24063 layer_factory.hpp:77] Creating layer pool0
I0428 19:38:37.911947 24063 net.cpp:86] Creating Layer pool0
I0428 19:38:37.911950 24063 net.cpp:408] pool0 <- conv0
I0428 19:38:37.911957 24063 net.cpp:382] pool0 -> pool0
I0428 19:38:37.912008 24063 net.cpp:124] Setting up pool0
I0428 19:38:37.912014 24063 net.cpp:131] Top shape: 64 2 12 12 (18432)
I0428 19:38:37.912016 24063 net.cpp:139] Memory required for data: 569600
I0428 19:38:37.912019 24063 layer_factory.hpp:77] Creating layer conv1
I0428 19:38:37.912032 24063 net.cpp:86] Creating Layer conv1
I0428 19:38:37.912035 24063 net.cpp:408] conv1 <- pool0
I0428 19:38:37.912044 24063 net.cpp:382] conv1 -> conv1
I0428 19:38:37.913944 24063 net.cpp:124] Setting up conv1
I0428 19:38:37.913960 24063 net.cpp:131] Top shape: 64 2 8 8 (8192)
I0428 19:38:37.913964 24063 net.cpp:139] Memory required for data: 602368
I0428 19:38:37.913972 24063 layer_factory.hpp:77] Creating layer pool1
I0428 19:38:37.913982 24063 net.cpp:86] Creating Layer pool1
I0428 19:38:37.913985 24063 net.cpp:408] pool1 <- conv1
I0428 19:38:37.913990 24063 net.cpp:382] pool1 -> pool1
I0428 19:38:37.914031 24063 net.cpp:124] Setting up pool1
I0428 19:38:37.914036 24063 net.cpp:131] Top shape: 64 2 4 4 (2048)
I0428 19:38:37.914038 24063 net.cpp:139] Memory required for data: 610560
I0428 19:38:37.914041 24063 layer_factory.hpp:77] Creating layer ip1
I0428 19:38:37.914048 24063 net.cpp:86] Creating Layer ip1
I0428 19:38:37.914052 24063 net.cpp:408] ip1 <- pool1
I0428 19:38:37.914057 24063 net.cpp:382] ip1 -> ip1
I0428 19:38:37.914157 24063 net.cpp:124] Setting up ip1
I0428 19:38:37.914165 24063 net.cpp:131] Top shape: 64 25 (1600)
I0428 19:38:37.914168 24063 net.cpp:139] Memory required for data: 616960
I0428 19:38:37.914175 24063 layer_factory.hpp:77] Creating layer relu1
I0428 19:38:37.914181 24063 net.cpp:86] Creating Layer relu1
I0428 19:38:37.914185 24063 net.cpp:408] relu1 <- ip1
I0428 19:38:37.914189 24063 net.cpp:369] relu1 -> ip1 (in-place)
I0428 19:38:37.914371 24063 net.cpp:124] Setting up relu1
I0428 19:38:37.914381 24063 net.cpp:131] Top shape: 64 25 (1600)
I0428 19:38:37.914383 24063 net.cpp:139] Memory required for data: 623360
I0428 19:38:37.914386 24063 layer_factory.hpp:77] Creating layer ip2
I0428 19:38:37.914394 24063 net.cpp:86] Creating Layer ip2
I0428 19:38:37.914397 24063 net.cpp:408] ip2 <- ip1
I0428 19:38:37.914402 24063 net.cpp:382] ip2 -> ip2
I0428 19:38:37.914502 24063 net.cpp:124] Setting up ip2
I0428 19:38:37.914508 24063 net.cpp:131] Top shape: 64 10 (640)
I0428 19:38:37.914511 24063 net.cpp:139] Memory required for data: 625920
I0428 19:38:37.914516 24063 layer_factory.hpp:77] Creating layer relu2
I0428 19:38:37.914523 24063 net.cpp:86] Creating Layer relu2
I0428 19:38:37.914526 24063 net.cpp:408] relu2 <- ip2
I0428 19:38:37.914530 24063 net.cpp:369] relu2 -> ip2 (in-place)
I0428 19:38:37.915278 24063 net.cpp:124] Setting up relu2
I0428 19:38:37.915292 24063 net.cpp:131] Top shape: 64 10 (640)
I0428 19:38:37.915294 24063 net.cpp:139] Memory required for data: 628480
I0428 19:38:37.915298 24063 layer_factory.hpp:77] Creating layer loss
I0428 19:38:37.915305 24063 net.cpp:86] Creating Layer loss
I0428 19:38:37.915309 24063 net.cpp:408] loss <- ip2
I0428 19:38:37.915313 24063 net.cpp:408] loss <- label
I0428 19:38:37.915318 24063 net.cpp:382] loss -> loss
I0428 19:38:37.915334 24063 layer_factory.hpp:77] Creating layer loss
…
I0428 19:38:37.915966 24063 solver.cpp:173] Creating test net (#0) specified by net file: ECE595/mnist/train_test/var_everything2/lenet_train_test279.prototxt
I0428 19:38:37.915992 24063 net.cpp:296] The NetState phase (1) differed from the phase (0) specified by a rule in layer mnist
I0428 19:38:37.916079 24063 net.cpp:53] Initializing net from parameters: 
name: "LeNet"
state {
  phase: TEST
}
layer {
  name: "mnist"
  type: "Data"
  top: "data"
  top: "label"
  include {
    phase: TEST
  }
  transform_param {
    scale: 0.00390625
  }
  data_param {
    source: "examples/mnist/mnist_test_lmdb"
    batch_size: 100
    backend: LMDB
  }
}
layer {
  name: "conv0"
  type: "Convolution"
  bottom: "data"
  top: "conv0"
  param {
    lr_mult: 1
  }
  param {
    lr_mult: 2
  }
  convolution_param {
    num_output: 2
    kernel_size: 5
    stride: 1
    weight_filler {
      type: "xavier"
    }
    bias_filler {
      type: "constant"
    }
  }
}
layer {
  name: "pool0"
  type: "Pooling"
  bottom: "conv0"
  top: "pool0"
  pooling_param {
    pool: MAX
    kernel_size: 2
    stride: 2
  }
}
layer {
  name: "conv1"
  type: "Convolution"
  bottom: "pool0"
  top: "conv1"
  param {
    lr_mult: 1
  }
  param {
    lr_mult: 2
  }
  convolution_param {
    num_output: 2
    kernel_size: 5
    stride: 1
    weight_filler {
      type: "xavier"
    }
    bias_filler {
      type: "constant"
    }
  }
}
layer {
  name: "pool1"
  type: "Pooling"
  bottom: "conv1"
  top: "pool1"
  pooling_param {
    pool: MAX
    kernel_size: 2
    stride: 2
  }
}
layer {
  name: "ip1"
  type: "InnerProduct"
  bottom: "pool1"
  top: "ip1"
  param {
    lr_mult: 1
  }
  param {
    lr_mult: 2
  }
  inner_product_param {
    num_output: 25
    weight_filler {
      type: "xavier"
    }
    bias_filler {
      type: "constant"
    }
  }
}
layer {
  name: "relu1"
  type: "ReLU"
  bottom: "ip1"
  top: "ip1"
}
layer {
  name: "ip2"
  type: "InnerProduct"
  bottom: "ip1"
  top: "ip2"
  param {
    lr_mult: 1
  }
  param {
    lr_mult: 2
  }
  inner_product_param {
    num_output: 10
    weight_filler {
      type: "xavier"
    }
    bias_filler {
      type: "constant"
    }
  }
}
layer {
  name: "relu2"
  type: "ReLU"
  bottom: "ip2"
  top: "ip2"
}
layer {
  name: "accuracy"
  type: "Accuracy"
  bottom: "ip2"
  bottom: "label"
  top: "accuracy"
  include {
    phase: TEST
  }
}
layer {
  name: "loss"
  type: "SoftmaxWithLoss"
  bottom: "ip2"
  bottom: "label"
  top: "loss"
}
I0428 19:38:37.916146 24063 layer_factory.hpp:77] Creating layer mnist
I0428 19:38:37.916191 24063 db_lmdb.cpp:35] Opened lmdb examples/mnist/mnist_test_lmdb
I0428 19:38:37.916206 24063 net.cpp:86] Creating Layer mnist
I0428 19:38:37.916211 24063 net.cpp:382] mnist -> data
I0428 19:38:37.916219 24063 net.cpp:382] mnist -> label
I0428 19:38:37.916311 24063 data_layer.cpp:45] output data size: 100,1,28,28
I0428 19:38:37.918391 24063 net.cpp:124] Setting up mnist
I0428 19:38:37.918406 24063 net.cpp:131] Top shape: 100 1 28 28 (78400)
I0428 19:38:37.918411 24063 net.cpp:131] Top shape: 100 (100)
I0428 19:38:37.918412 24063 net.cpp:139] Memory required for data: 314000
I0428 19:38:37.918416 24063 layer_factory.hpp:77] Creating layer label_mnist_1_split
I0428 19:38:37.918424 24063 net.cpp:86] Creating Layer label_mnist_1_split
I0428 19:38:37.918427 24063 net.cpp:408] label_mnist_1_split <- label
I0428 19:38:37.918432 24063 net.cpp:382] label_mnist_1_split -> label_mnist_1_split_0
I0428 19:38:37.918438 24063 net.cpp:382] label_mnist_1_split -> label_mnist_1_split_1
I0428 19:38:37.918478 24063 net.cpp:124] Setting up label_mnist_1_split
I0428 19:38:37.918494 24063 net.cpp:131] Top shape: 100 (100)
I0428 19:38:37.918498 24063 net.cpp:131] Top shape: 100 (100)
I0428 19:38:37.918500 24063 net.cpp:139] Memory required for data: 314800
I0428 19:38:37.918503 24063 layer_factory.hpp:77] Creating layer conv0
I0428 19:38:37.918512 24063 net.cpp:86] Creating Layer conv0
I0428 19:38:37.918515 24063 net.cpp:408] conv0 <- data
I0428 19:38:37.918521 24063 net.cpp:382] conv0 -> conv0
I0428 19:38:37.920264 24063 net.cpp:124] Setting up conv0
I0428 19:38:37.920277 24063 net.cpp:131] Top shape: 100 2 24 24 (115200)
I0428 19:38:37.920281 24063 net.cpp:139] Memory required for data: 775600
I0428 19:38:37.920290 24063 layer_factory.hpp:77] Creating layer pool0
I0428 19:38:37.920296 24063 net.cpp:86] Creating Layer pool0
I0428 19:38:37.920300 24063 net.cpp:408] pool0 <- conv0
I0428 19:38:37.920305 24063 net.cpp:382] pool0 -> pool0
I0428 19:38:37.920341 24063 net.cpp:124] Setting up pool0
I0428 19:38:37.920346 24063 net.cpp:131] Top shape: 100 2 12 12 (28800)
I0428 19:38:37.920349 24063 net.cpp:139] Memory required for data: 890800
I0428 19:38:37.920352 24063 layer_factory.hpp:77] Creating layer conv1
I0428 19:38:37.920362 24063 net.cpp:86] Creating Layer conv1
I0428 19:38:37.920366 24063 net.cpp:408] conv1 <- pool0
I0428 19:38:37.920370 24063 net.cpp:382] conv1 -> conv1
I0428 19:38:37.921862 24063 net.cpp:124] Setting up conv1
I0428 19:38:37.921875 24063 net.cpp:131] Top shape: 100 2 8 8 (12800)
I0428 19:38:37.921880 24063 net.cpp:139] Memory required for data: 942000
I0428 19:38:37.921890 24063 layer_factory.hpp:77] Creating layer pool1
I0428 19:38:37.921895 24063 net.cpp:86] Creating Layer pool1
I0428 19:38:37.921898 24063 net.cpp:408] pool1 <- conv1
I0428 19:38:37.921903 24063 net.cpp:382] pool1 -> pool1
I0428 19:38:37.921941 24063 net.cpp:124] Setting up pool1
I0428 19:38:37.921947 24063 net.cpp:131] Top shape: 100 2 4 4 (3200)
I0428 19:38:37.921952 24063 net.cpp:139] Memory required for data: 954800
I0428 19:38:37.921955 24063 layer_factory.hpp:77] Creating layer ip1
I0428 19:38:37.921969 24063 net.cpp:86] Creating Layer ip1
I0428 19:38:37.921973 24063 net.cpp:408] ip1 <- pool1
I0428 19:38:37.921978 24063 net.cpp:382] ip1 -> ip1
I0428 19:38:37.922083 24063 net.cpp:124] Setting up ip1
I0428 19:38:37.922091 24063 net.cpp:131] Top shape: 100 25 (2500)
I0428 19:38:37.922094 24063 net.cpp:139] Memory required for data: 964800
I0428 19:38:37.922101 24063 layer_factory.hpp:77] Creating layer relu1
I0428 19:38:37.922107 24063 net.cpp:86] Creating Layer relu1
I0428 19:38:37.922111 24063 net.cpp:408] relu1 <- ip1
I0428 19:38:37.922114 24063 net.cpp:369] relu1 -> ip1 (in-place)
I0428 19:38:37.922276 24063 net.cpp:124] Setting up relu1
I0428 19:38:37.922283 24063 net.cpp:131] Top shape: 100 25 (2500)
I0428 19:38:37.922287 24063 net.cpp:139] Memory required for data: 974800
I0428 19:38:37.922289 24063 layer_factory.hpp:77] Creating layer ip2
I0428 19:38:37.922297 24063 net.cpp:86] Creating Layer ip2
I0428 19:38:37.922300 24063 net.cpp:408] ip2 <- ip1
I0428 19:38:37.922307 24063 net.cpp:382] ip2 -> ip2
I0428 19:38:37.922406 24063 net.cpp:124] Setting up ip2
I0428 19:38:37.922412 24063 net.cpp:131] Top shape: 100 10 (1000)
I0428 19:38:37.922423 24063 net.cpp:139] Memory required for data: 978800
I0428 19:38:37.922428 24063 layer_factory.hpp:77] Creating layer relu2
I0428 19:38:37.922439 24063 net.cpp:86] Creating Layer relu2
I0428 19:38:37.922442 24063 net.cpp:408] relu2 <- ip2
I0428 19:38:37.922446 24063 net.cpp:369] relu2 -> ip2 (in-place)
I0428 19:38:37.922606 24063 net.cpp:124] Setting up relu2
I0428 19:38:37.922615 24063 net.cpp:131] Top shape: 100 10 (1000)
I0428 19:38:37.922617 24063 net.cpp:139] Memory required for data: 982800
I0428 19:38:37.922626 24063 layer_factory.hpp:77] Creating layer ip2_relu2_0_split
I0428 19:38:37.922632 24063 net.cpp:86] Creating Layer ip2_relu2_0_split
I0428 19:38:37.922636 24063 net.cpp:408] ip2_relu2_0_split <- ip2
I0428 19:38:37.922639 24063 net.cpp:382] ip2_relu2_0_split -> ip2_relu2_0_split_0
I0428 19:38:37.922657 24063 net.cpp:382] ip2_relu2_0_split -> ip2_relu2_0_split_1
I0428 19:38:37.922698 24063 net.cpp:124] Setting up ip2_relu2_0_split
I0428 19:38:37.922703 24063 net.cpp:131] Top shape: 100 10 (1000)
I0428 19:38:37.922706 24063 net.cpp:131] Top shape: 100 10 (1000)
I0428 19:38:37.922709 24063 net.cpp:139] Memory required for data: 990800
I0428 19:38:37.922711 24063 layer_factory.hpp:77] Creating layer accuracy
I0428 19:38:37.922718 24063 net.cpp:86] Creating Layer accuracy
I0428 19:38:37.922721 24063 net.cpp:408] accuracy <- ip2_relu2_0_split_0
I0428 19:38:37.922725 24063 net.cpp:408] accuracy <- label_mnist_1_split_0
I0428 19:38:37.922729 24063 net.cpp:382] accuracy -> accuracy
…
