…
I0428 20:23:23.066123  2228 net.cpp:296] The NetState phase (0) differed from the phase (1) specified by a rule in layer mnist
I0428 20:23:23.066143  2228 net.cpp:296] The NetState phase (0) differed from the phase (1) specified by a rule in layer accuracy
I0428 20:23:23.066247  2228 net.cpp:53] Initializing net from parameters: 
name: "LeNet"
state {
  phase: TRAIN
  level: 0
  stage: ""
}
layer {
  name: "mnist"
  type: "Data"
  top: "data"
  top: "label"
  include {
    phase: TRAIN
  }
  transform_param {
    scale: 0.00390625
  }
  data_param {
    source: "examples/mnist/mnist_train_lmdb"
    batch_size: 64
    backend: LMDB
  }
}
layer {
  name: "conv0"
  type: "Convolution"
  bottom: "data"
  top: "conv0"
  param {
    lr_mult: 1
  }
  param {
    lr_mult: 2
  }
  convolution_param {
    num_output: 50
    kernel_size: 5
    stride: 1
    weight_filler {
      type: "xavier"
    }
    bias_filler {
      type: "constant"
    }
  }
}
layer {
  name: "pool0"
  type: "Pooling"
  bottom: "conv0"
  top: "pool0"
  pooling_param {
    pool: MAX
    kernel_size: 2
    stride: 2
  }
}
layer {
  name: "conv1"
  type: "Convolution"
  bottom: "pool0"
  top: "conv1"
  param {
    lr_mult: 1
  }
  param {
    lr_mult: 2
  }
  convolution_param {
    num_output: 100
    kernel_size: 5
    stride: 1
    weight_filler {
      type: "xavier"
    }
    bias_filler {
      type: "constant"
    }
  }
}
layer {
  name: "pool1"
  type: "Pooling"
  bottom: "conv1"
  top: "pool1"
  pooling_param {
    pool: MAX
    kernel_size: 2
    stride: 2
  }
}
layer {
  name: "ip1"
  type: "InnerProduct"
  bottom: "pool1"
  top: "ip1"
  param {
    lr_mult: 1
  }
  param {
    lr_mult: 2
  }
  inner_product_param {
    num_output: 10
    weight_filler {
      type: "xavier"
    }
    bias_filler {
      type: "constant"
    }
  }
}
layer {
  name: "relu1"
  type: "ReLU"
  bottom: "ip1"
  top: "ip1"
}
layer {
  name: "ip2"
  type: "InnerProduct"
  bottom: "ip1"
  top: "ip2"
  param {
    lr_mult: 1
  }
  param {
    lr_mult: 2
  }
  inner_product_param {
    num_output: 25
    weight_filler {
      type: "xavier"
    }
    bias_filler {
      type: "constant"
    }
  }
}
layer {
  name: "relu2"
  type: "ReLU"
  bottom: "ip2"
  top: "ip2"
}
layer {
  name: "ip3"
  type: "InnerProduct"
  bottom: "ip2"
  top: "ip3"
  param {
    lr_mult: 1
  }
  param {
    lr_mult: 2
  }
  inner_product_param {
    num_output: 10
    weight_filler {
      type: "xavier"
    }
    bias_filler {
      type: "constant"
    }
  }
}
layer {
  name: "relu3"
  type: "ReLU"
  bottom: "ip3"
  top: "ip3"
}
layer {
  name: "loss"
  type: "SoftmaxWithLoss"
  bottom: "ip3"
  bottom: "label"
  top: "loss"
}
I0428 20:23:23.066328  2228 layer_factory.hpp:77] Creating layer mnist
I0428 20:23:23.066428  2228 db_lmdb.cpp:35] Opened lmdb examples/mnist/mnist_train_lmdb
I0428 20:23:23.066452  2228 net.cpp:86] Creating Layer mnist
I0428 20:23:23.066462  2228 net.cpp:382] mnist -> data
I0428 20:23:23.066483  2228 net.cpp:382] mnist -> label
I0428 20:23:23.067574  2228 data_layer.cpp:45] output data size: 64,1,28,28
I0428 20:23:23.070034  2228 net.cpp:124] Setting up mnist
I0428 20:23:23.070055  2228 net.cpp:131] Top shape: 64 1 28 28 (50176)
I0428 20:23:23.070061  2228 net.cpp:131] Top shape: 64 (64)
I0428 20:23:23.070065  2228 net.cpp:139] Memory required for data: 200960
I0428 20:23:23.070071  2228 layer_factory.hpp:77] Creating layer conv0
I0428 20:23:23.070087  2228 net.cpp:86] Creating Layer conv0
I0428 20:23:23.070111  2228 net.cpp:408] conv0 <- data
I0428 20:23:23.070122  2228 net.cpp:382] conv0 -> conv0
I0428 20:23:23.337152  2228 net.cpp:124] Setting up conv0
I0428 20:23:23.337178  2228 net.cpp:131] Top shape: 64 50 24 24 (1843200)
I0428 20:23:23.337182  2228 net.cpp:139] Memory required for data: 7573760
I0428 20:23:23.337195  2228 layer_factory.hpp:77] Creating layer pool0
I0428 20:23:23.337208  2228 net.cpp:86] Creating Layer pool0
I0428 20:23:23.337211  2228 net.cpp:408] pool0 <- conv0
I0428 20:23:23.337216  2228 net.cpp:382] pool0 -> pool0
I0428 20:23:23.337260  2228 net.cpp:124] Setting up pool0
I0428 20:23:23.337282  2228 net.cpp:131] Top shape: 64 50 12 12 (460800)
I0428 20:23:23.337301  2228 net.cpp:139] Memory required for data: 9416960
I0428 20:23:23.337303  2228 layer_factory.hpp:77] Creating layer conv1
I0428 20:23:23.337313  2228 net.cpp:86] Creating Layer conv1
I0428 20:23:23.337316  2228 net.cpp:408] conv1 <- pool0
I0428 20:23:23.337322  2228 net.cpp:382] conv1 -> conv1
I0428 20:23:23.340656  2228 net.cpp:124] Setting up conv1
I0428 20:23:23.340684  2228 net.cpp:131] Top shape: 64 100 8 8 (409600)
I0428 20:23:23.340688  2228 net.cpp:139] Memory required for data: 11055360
I0428 20:23:23.340695  2228 layer_factory.hpp:77] Creating layer pool1
I0428 20:23:23.340703  2228 net.cpp:86] Creating Layer pool1
I0428 20:23:23.340705  2228 net.cpp:408] pool1 <- conv1
I0428 20:23:23.340710  2228 net.cpp:382] pool1 -> pool1
I0428 20:23:23.340759  2228 net.cpp:124] Setting up pool1
I0428 20:23:23.340766  2228 net.cpp:131] Top shape: 64 100 4 4 (102400)
I0428 20:23:23.340770  2228 net.cpp:139] Memory required for data: 11464960
I0428 20:23:23.340771  2228 layer_factory.hpp:77] Creating layer ip1
I0428 20:23:23.340778  2228 net.cpp:86] Creating Layer ip1
I0428 20:23:23.340781  2228 net.cpp:408] ip1 <- pool1
I0428 20:23:23.340785  2228 net.cpp:382] ip1 -> ip1
I0428 20:23:23.341915  2228 net.cpp:124] Setting up ip1
I0428 20:23:23.341928  2228 net.cpp:131] Top shape: 64 10 (640)
I0428 20:23:23.341946  2228 net.cpp:139] Memory required for data: 11467520
I0428 20:23:23.341954  2228 layer_factory.hpp:77] Creating layer relu1
I0428 20:23:23.341960  2228 net.cpp:86] Creating Layer relu1
I0428 20:23:23.341964  2228 net.cpp:408] relu1 <- ip1
I0428 20:23:23.341969  2228 net.cpp:369] relu1 -> ip1 (in-place)
I0428 20:23:23.342135  2228 net.cpp:124] Setting up relu1
I0428 20:23:23.342144  2228 net.cpp:131] Top shape: 64 10 (640)
I0428 20:23:23.342147  2228 net.cpp:139] Memory required for data: 11470080
I0428 20:23:23.342150  2228 layer_factory.hpp:77] Creating layer ip2
I0428 20:23:23.342156  2228 net.cpp:86] Creating Layer ip2
I0428 20:23:23.342160  2228 net.cpp:408] ip2 <- ip1
I0428 20:23:23.342165  2228 net.cpp:382] ip2 -> ip2
I0428 20:23:23.342260  2228 net.cpp:124] Setting up ip2
I0428 20:23:23.342267  2228 net.cpp:131] Top shape: 64 25 (1600)
I0428 20:23:23.342270  2228 net.cpp:139] Memory required for data: 11476480
I0428 20:23:23.342275  2228 layer_factory.hpp:77] Creating layer relu2
I0428 20:23:23.342281  2228 net.cpp:86] Creating Layer relu2
I0428 20:23:23.342284  2228 net.cpp:408] relu2 <- ip2
I0428 20:23:23.342288  2228 net.cpp:369] relu2 -> ip2 (in-place)
I0428 20:23:23.343076  2228 net.cpp:124] Setting up relu2
I0428 20:23:23.343089  2228 net.cpp:131] Top shape: 64 25 (1600)
I0428 20:23:23.343094  2228 net.cpp:139] Memory required for data: 11482880
I0428 20:23:23.343097  2228 layer_factory.hpp:77] Creating layer ip3
I0428 20:23:23.343104  2228 net.cpp:86] Creating Layer ip3
I0428 20:23:23.343107  2228 net.cpp:408] ip3 <- ip2
I0428 20:23:23.343112  2228 net.cpp:382] ip3 -> ip3
I0428 20:23:23.343207  2228 net.cpp:124] Setting up ip3
I0428 20:23:23.343215  2228 net.cpp:131] Top shape: 64 10 (640)
I0428 20:23:23.343219  2228 net.cpp:139] Memory required for data: 11485440
I0428 20:23:23.343226  2228 layer_factory.hpp:77] Creating layer relu3
I0428 20:23:23.343232  2228 net.cpp:86] Creating Layer relu3
I0428 20:23:23.343251  2228 net.cpp:408] relu3 <- ip3
I0428 20:23:23.343256  2228 net.cpp:369] relu3 -> ip3 (in-place)
I0428 20:23:23.343425  2228 net.cpp:124] Setting up relu3
I0428 20:23:23.343435  2228 net.cpp:131] Top shape: 64 10 (640)
I0428 20:23:23.343437  2228 net.cpp:139] Memory required for data: 11488000
I0428 20:23:23.343441  2228 layer_factory.hpp:77] Creating layer loss
I0428 20:23:23.343446  2228 net.cpp:86] Creating Layer loss
I0428 20:23:23.343451  2228 net.cpp:408] loss <- ip3
I0428 20:23:23.343454  2228 net.cpp:408] loss <- label
I0428 20:23:23.343459  2228 net.cpp:382] loss -> loss
I0428 20:23:23.343477  2228 layer_factory.hpp:77] Creating layer loss
…
I0428 20:23:23.344239  2228 solver.cpp:173] Creating test net (#0) specified by net file: ECE595/mnist/train_test/var_everything2/lenet_train_test1420.prototxt
I0428 20:23:23.344282  2228 net.cpp:296] The NetState phase (1) differed from the phase (0) specified by a rule in layer mnist
I0428 20:23:23.344386  2228 net.cpp:53] Initializing net from parameters: 
name: "LeNet"
state {
  phase: TEST
}
layer {
  name: "mnist"
  type: "Data"
  top: "data"
  top: "label"
  include {
    phase: TEST
  }
  transform_param {
    scale: 0.00390625
  }
  data_param {
    source: "examples/mnist/mnist_test_lmdb"
    batch_size: 100
    backend: LMDB
  }
}
layer {
  name: "conv0"
  type: "Convolution"
  bottom: "data"
  top: "conv0"
  param {
    lr_mult: 1
  }
  param {
    lr_mult: 2
  }
  convolution_param {
    num_output: 50
    kernel_size: 5
    stride: 1
    weight_filler {
      type: "xavier"
    }
    bias_filler {
      type: "constant"
    }
  }
}
layer {
  name: "pool0"
  type: "Pooling"
  bottom: "conv0"
  top: "pool0"
  pooling_param {
    pool: MAX
    kernel_size: 2
    stride: 2
  }
}
layer {
  name: "conv1"
  type: "Convolution"
  bottom: "pool0"
  top: "conv1"
  param {
    lr_mult: 1
  }
  param {
    lr_mult: 2
  }
  convolution_param {
    num_output: 100
    kernel_size: 5
    stride: 1
    weight_filler {
      type: "xavier"
    }
    bias_filler {
      type: "constant"
    }
  }
}
layer {
  name: "pool1"
  type: "Pooling"
  bottom: "conv1"
  top: "pool1"
  pooling_param {
    pool: MAX
    kernel_size: 2
    stride: 2
  }
}
layer {
  name: "ip1"
  type: "InnerProduct"
  bottom: "pool1"
  top: "ip1"
  param {
    lr_mult: 1
  }
  param {
    lr_mult: 2
  }
  inner_product_param {
    num_output: 10
    weight_filler {
      type: "xavier"
    }
    bias_filler {
      type: "constant"
    }
  }
}
layer {
  name: "relu1"
  type: "ReLU"
  bottom: "ip1"
  top: "ip1"
}
layer {
  name: "ip2"
  type: "InnerProduct"
  bottom: "ip1"
  top: "ip2"
  param {
    lr_mult: 1
  }
  param {
    lr_mult: 2
  }
  inner_product_param {
    num_output: 25
    weight_filler {
      type: "xavier"
    }
    bias_filler {
      type: "constant"
    }
  }
}
layer {
  name: "relu2"
  type: "ReLU"
  bottom: "ip2"
  top: "ip2"
}
layer {
  name: "ip3"
  type: "InnerProduct"
  bottom: "ip2"
  top: "ip3"
  param {
    lr_mult: 1
  }
  param {
    lr_mult: 2
  }
  inner_product_param {
    num_output: 10
    weight_filler {
      type: "xavier"
    }
    bias_filler {
      type: "constant"
    }
  }
}
layer {
  name: "relu3"
  type: "ReLU"
  bottom: "ip3"
  top: "ip3"
}
layer {
  name: "accuracy"
  type: "Accuracy"
  bottom: "ip3"
  bottom: "label"
  top: "accuracy"
  include {
    phase: TEST
  }
}
layer {
  name: "loss"
  type: "SoftmaxWithLoss"
  bottom: "ip3"
  bottom: "label"
  top: "loss"
}
I0428 20:23:23.344476  2228 layer_factory.hpp:77] Creating layer mnist
I0428 20:23:23.344517  2228 db_lmdb.cpp:35] Opened lmdb examples/mnist/mnist_test_lmdb
I0428 20:23:23.344548  2228 net.cpp:86] Creating Layer mnist
I0428 20:23:23.344553  2228 net.cpp:382] mnist -> data
I0428 20:23:23.344560  2228 net.cpp:382] mnist -> label
I0428 20:23:23.344658  2228 data_layer.cpp:45] output data size: 100,1,28,28
I0428 20:23:23.345830  2228 net.cpp:124] Setting up mnist
I0428 20:23:23.345859  2228 net.cpp:131] Top shape: 100 1 28 28 (78400)
I0428 20:23:23.345863  2228 net.cpp:131] Top shape: 100 (100)
I0428 20:23:23.345867  2228 net.cpp:139] Memory required for data: 314000
I0428 20:23:23.345871  2228 layer_factory.hpp:77] Creating layer label_mnist_1_split
I0428 20:23:23.345906  2228 net.cpp:86] Creating Layer label_mnist_1_split
I0428 20:23:23.345911  2228 net.cpp:408] label_mnist_1_split <- label
I0428 20:23:23.345916  2228 net.cpp:382] label_mnist_1_split -> label_mnist_1_split_0
I0428 20:23:23.345922  2228 net.cpp:382] label_mnist_1_split -> label_mnist_1_split_1
I0428 20:23:23.345963  2228 net.cpp:124] Setting up label_mnist_1_split
I0428 20:23:23.345968  2228 net.cpp:131] Top shape: 100 (100)
I0428 20:23:23.345973  2228 net.cpp:131] Top shape: 100 (100)
I0428 20:23:23.345975  2228 net.cpp:139] Memory required for data: 314800
I0428 20:23:23.345978  2228 layer_factory.hpp:77] Creating layer conv0
I0428 20:23:23.345986  2228 net.cpp:86] Creating Layer conv0
I0428 20:23:23.345989  2228 net.cpp:408] conv0 <- data
I0428 20:23:23.345994  2228 net.cpp:382] conv0 -> conv0
I0428 20:23:23.347695  2228 net.cpp:124] Setting up conv0
I0428 20:23:23.347709  2228 net.cpp:131] Top shape: 100 50 24 24 (2880000)
I0428 20:23:23.347712  2228 net.cpp:139] Memory required for data: 11834800
I0428 20:23:23.347721  2228 layer_factory.hpp:77] Creating layer pool0
I0428 20:23:23.347743  2228 net.cpp:86] Creating Layer pool0
I0428 20:23:23.347745  2228 net.cpp:408] pool0 <- conv0
I0428 20:23:23.347750  2228 net.cpp:382] pool0 -> pool0
I0428 20:23:23.347785  2228 net.cpp:124] Setting up pool0
I0428 20:23:23.347790  2228 net.cpp:131] Top shape: 100 50 12 12 (720000)
I0428 20:23:23.347793  2228 net.cpp:139] Memory required for data: 14714800
I0428 20:23:23.347796  2228 layer_factory.hpp:77] Creating layer conv1
I0428 20:23:23.347805  2228 net.cpp:86] Creating Layer conv1
I0428 20:23:23.347807  2228 net.cpp:408] conv1 <- pool0
I0428 20:23:23.347812  2228 net.cpp:382] conv1 -> conv1
I0428 20:23:23.350934  2228 net.cpp:124] Setting up conv1
I0428 20:23:23.350946  2228 net.cpp:131] Top shape: 100 100 8 8 (640000)
I0428 20:23:23.350950  2228 net.cpp:139] Memory required for data: 17274800
I0428 20:23:23.350958  2228 layer_factory.hpp:77] Creating layer pool1
I0428 20:23:23.350965  2228 net.cpp:86] Creating Layer pool1
I0428 20:23:23.350982  2228 net.cpp:408] pool1 <- conv1
I0428 20:23:23.350987  2228 net.cpp:382] pool1 -> pool1
I0428 20:23:23.351021  2228 net.cpp:124] Setting up pool1
I0428 20:23:23.351027  2228 net.cpp:131] Top shape: 100 100 4 4 (160000)
I0428 20:23:23.351029  2228 net.cpp:139] Memory required for data: 17914800
I0428 20:23:23.351043  2228 layer_factory.hpp:77] Creating layer ip1
I0428 20:23:23.351048  2228 net.cpp:86] Creating Layer ip1
I0428 20:23:23.351052  2228 net.cpp:408] ip1 <- pool1
I0428 20:23:23.351056  2228 net.cpp:382] ip1 -> ip1
I0428 20:23:23.351218  2228 net.cpp:124] Setting up ip1
I0428 20:23:23.351236  2228 net.cpp:131] Top shape: 100 10 (1000)
I0428 20:23:23.351246  2228 net.cpp:139] Memory required for data: 17918800
I0428 20:23:23.351253  2228 layer_factory.hpp:77] Creating layer relu1
I0428 20:23:23.351263  2228 net.cpp:86] Creating Layer relu1
I0428 20:23:23.351266  2228 net.cpp:408] relu1 <- ip1
I0428 20:23:23.351270  2228 net.cpp:369] relu1 -> ip1 (in-place)
I0428 20:23:23.351434  2228 net.cpp:124] Setting up relu1
I0428 20:23:23.351442  2228 net.cpp:131] Top shape: 100 10 (1000)
I0428 20:23:23.351445  2228 net.cpp:139] Memory required for data: 17922800
I0428 20:23:23.351460  2228 layer_factory.hpp:77] Creating layer ip2
I0428 20:23:23.351466  2228 net.cpp:86] Creating Layer ip2
I0428 20:23:23.351475  2228 net.cpp:408] ip2 <- ip1
I0428 20:23:23.351480  2228 net.cpp:382] ip2 -> ip2
I0428 20:23:23.351572  2228 net.cpp:124] Setting up ip2
I0428 20:23:23.351578  2228 net.cpp:131] Top shape: 100 25 (2500)
I0428 20:23:23.351582  2228 net.cpp:139] Memory required for data: 17932800
I0428 20:23:23.351586  2228 layer_factory.hpp:77] Creating layer relu2
I0428 20:23:23.351591  2228 net.cpp:86] Creating Layer relu2
I0428 20:23:23.351594  2228 net.cpp:408] relu2 <- ip2
I0428 20:23:23.351598  2228 net.cpp:369] relu2 -> ip2 (in-place)
I0428 20:23:23.351752  2228 net.cpp:124] Setting up relu2
I0428 20:23:23.351760  2228 net.cpp:131] Top shape: 100 25 (2500)
I0428 20:23:23.351763  2228 net.cpp:139] Memory required for data: 17942800
I0428 20:23:23.351766  2228 layer_factory.hpp:77] Creating layer ip3
I0428 20:23:23.351778  2228 net.cpp:86] Creating Layer ip3
I0428 20:23:23.351780  2228 net.cpp:408] ip3 <- ip2
I0428 20:23:23.351784  2228 net.cpp:382] ip3 -> ip3
I0428 20:23:23.351902  2228 net.cpp:124] Setting up ip3
I0428 20:23:23.351909  2228 net.cpp:131] Top shape: 100 10 (1000)
I0428 20:23:23.351927  2228 net.cpp:139] Memory required for data: 17946800
I0428 20:23:23.351941  2228 layer_factory.hpp:77] Creating layer relu3
I0428 20:23:23.351946  2228 net.cpp:86] Creating Layer relu3
I0428 20:23:23.351949  2228 net.cpp:408] relu3 <- ip3
I0428 20:23:23.351955  2228 net.cpp:369] relu3 -> ip3 (in-place)
I0428 20:23:23.352726  2228 net.cpp:124] Setting up relu3
I0428 20:23:23.352736  2228 net.cpp:131] Top shape: 100 10 (1000)
I0428 20:23:23.352756  2228 net.cpp:139] Memory required for data: 17950800
I0428 20:23:23.352759  2228 layer_factory.hpp:77] Creating layer ip3_relu3_0_split
I0428 20:23:23.352764  2228 net.cpp:86] Creating Layer ip3_relu3_0_split
I0428 20:23:23.352768  2228 net.cpp:408] ip3_relu3_0_split <- ip3
I0428 20:23:23.352788  2228 net.cpp:382] ip3_relu3_0_split -> ip3_relu3_0_split_0
I0428 20:23:23.352795  2228 net.cpp:382] ip3_relu3_0_split -> ip3_relu3_0_split_1
I0428 20:23:23.352890  2228 net.cpp:124] Setting up ip3_relu3_0_split
I0428 20:23:23.352897  2228 net.cpp:131] Top shape: 100 10 (1000)
I0428 20:23:23.352902  2228 net.cpp:131] Top shape: 100 10 (1000)
I0428 20:23:23.352905  2228 net.cpp:139] Memory required for data: 17958800
I0428 20:23:23.352908  2228 layer_factory.hpp:77] Creating layer accuracy
I0428 20:23:23.352915  2228 net.cpp:86] Creating Layer accuracy
I0428 20:23:23.352921  2228 net.cpp:408] accuracy <- ip3_relu3_0_split_0
I0428 20:23:23.352926  2228 net.cpp:408] accuracy <- label_mnist_1_split_0
I0428 20:23:23.352929  2228 net.cpp:382] accuracy -> accuracy
…
