…
I0428 19:33:19.003123 23075 net.cpp:296] The NetState phase (0) differed from the phase (1) specified by a rule in layer mnist
I0428 19:33:19.003137 23075 net.cpp:296] The NetState phase (0) differed from the phase (1) specified by a rule in layer accuracy
I0428 19:33:19.003206 23075 net.cpp:53] Initializing net from parameters: 
name: "LeNet"
state {
  phase: TRAIN
  level: 0
  stage: ""
}
layer {
  name: "mnist"
  type: "Data"
  top: "data"
  top: "label"
  include {
    phase: TRAIN
  }
  transform_param {
    scale: 0.00390625
  }
  data_param {
    source: "examples/mnist/mnist_train_lmdb"
    batch_size: 64
    backend: LMDB
  }
}
layer {
  name: "conv0"
  type: "Convolution"
  bottom: "data"
  top: "conv0"
  param {
    lr_mult: 1
  }
  param {
    lr_mult: 2
  }
  convolution_param {
    num_output: 25
    kernel_size: 5
    stride: 1
    weight_filler {
      type: "xavier"
    }
    bias_filler {
      type: "constant"
    }
  }
}
layer {
  name: "pool0"
  type: "Pooling"
  bottom: "conv0"
  top: "pool0"
  pooling_param {
    pool: MAX
    kernel_size: 2
    stride: 2
  }
}
layer {
  name: "ip1"
  type: "InnerProduct"
  bottom: "pool0"
  top: "ip1"
  param {
    lr_mult: 1
  }
  param {
    lr_mult: 2
  }
  inner_product_param {
    num_output: 10
    weight_filler {
      type: "xavier"
    }
    bias_filler {
      type: "constant"
    }
  }
}
layer {
  name: "relu1"
  type: "ReLU"
  bottom: "ip1"
  top: "ip1"
}
layer {
  name: "ip2"
  type: "InnerProduct"
  bottom: "ip1"
  top: "ip2"
  param {
    lr_mult: 1
  }
  param {
    lr_mult: 2
  }
  inner_product_param {
    num_output: 50
    weight_filler {
      type: "xavier"
    }
    bias_filler {
      type: "constant"
    }
  }
}
layer {
  name: "relu2"
  type: "ReLU"
  bottom: "ip2"
  top: "ip2"
}
layer {
  name: "ip3"
  type: "InnerProduct"
  bottom: "ip2"
  top: "ip3"
  param {
    lr_mult: 1
  }
  param {
    lr_mult: 2
  }
  inner_product_param {
    num_output: 10
    weight_filler {
      type: "xavier"
    }
    bias_filler {
      type: "constant"
    }
  }
}
layer {
  name: "relu3"
  type: "ReLU"
  bottom: "ip3"
  top: "ip3"
}
layer {
  name: "loss"
  type: "SoftmaxWithLoss"
  bottom: "ip3"
  bottom: "label"
  top: "loss"
}
I0428 19:33:19.003264 23075 layer_factory.hpp:77] Creating layer mnist
I0428 19:33:19.003345 23075 db_lmdb.cpp:35] Opened lmdb examples/mnist/mnist_train_lmdb
I0428 19:33:19.003362 23075 net.cpp:86] Creating Layer mnist
I0428 19:33:19.003370 23075 net.cpp:382] mnist -> data
I0428 19:33:19.003388 23075 net.cpp:382] mnist -> label
I0428 19:33:19.004426 23075 data_layer.cpp:45] output data size: 64,1,28,28
I0428 19:33:19.006932 23075 net.cpp:124] Setting up mnist
I0428 19:33:19.006978 23075 net.cpp:131] Top shape: 64 1 28 28 (50176)
I0428 19:33:19.006983 23075 net.cpp:131] Top shape: 64 (64)
I0428 19:33:19.006986 23075 net.cpp:139] Memory required for data: 200960
I0428 19:33:19.006994 23075 layer_factory.hpp:77] Creating layer conv0
I0428 19:33:19.007009 23075 net.cpp:86] Creating Layer conv0
I0428 19:33:19.007012 23075 net.cpp:408] conv0 <- data
I0428 19:33:19.007024 23075 net.cpp:382] conv0 -> conv0
I0428 19:33:19.235725 23075 net.cpp:124] Setting up conv0
I0428 19:33:19.235766 23075 net.cpp:131] Top shape: 64 25 24 24 (921600)
I0428 19:33:19.235770 23075 net.cpp:139] Memory required for data: 3887360
I0428 19:33:19.235786 23075 layer_factory.hpp:77] Creating layer pool0
I0428 19:33:19.235798 23075 net.cpp:86] Creating Layer pool0
I0428 19:33:19.235837 23075 net.cpp:408] pool0 <- conv0
I0428 19:33:19.235842 23075 net.cpp:382] pool0 -> pool0
I0428 19:33:19.235888 23075 net.cpp:124] Setting up pool0
I0428 19:33:19.235894 23075 net.cpp:131] Top shape: 64 25 12 12 (230400)
I0428 19:33:19.235898 23075 net.cpp:139] Memory required for data: 4808960
I0428 19:33:19.235900 23075 layer_factory.hpp:77] Creating layer ip1
I0428 19:33:19.235908 23075 net.cpp:86] Creating Layer ip1
I0428 19:33:19.235911 23075 net.cpp:408] ip1 <- pool0
I0428 19:33:19.235915 23075 net.cpp:382] ip1 -> ip1
I0428 19:33:19.236213 23075 net.cpp:124] Setting up ip1
I0428 19:33:19.236233 23075 net.cpp:131] Top shape: 64 10 (640)
I0428 19:33:19.236253 23075 net.cpp:139] Memory required for data: 4811520
I0428 19:33:19.236259 23075 layer_factory.hpp:77] Creating layer relu1
I0428 19:33:19.236264 23075 net.cpp:86] Creating Layer relu1
I0428 19:33:19.236268 23075 net.cpp:408] relu1 <- ip1
I0428 19:33:19.236271 23075 net.cpp:369] relu1 -> ip1 (in-place)
I0428 19:33:19.236418 23075 net.cpp:124] Setting up relu1
I0428 19:33:19.236425 23075 net.cpp:131] Top shape: 64 10 (640)
I0428 19:33:19.236428 23075 net.cpp:139] Memory required for data: 4814080
I0428 19:33:19.236431 23075 layer_factory.hpp:77] Creating layer ip2
I0428 19:33:19.236438 23075 net.cpp:86] Creating Layer ip2
I0428 19:33:19.236440 23075 net.cpp:408] ip2 <- ip1
I0428 19:33:19.236444 23075 net.cpp:382] ip2 -> ip2
I0428 19:33:19.236532 23075 net.cpp:124] Setting up ip2
I0428 19:33:19.236538 23075 net.cpp:131] Top shape: 64 50 (3200)
I0428 19:33:19.236541 23075 net.cpp:139] Memory required for data: 4826880
I0428 19:33:19.236548 23075 layer_factory.hpp:77] Creating layer relu2
I0428 19:33:19.236552 23075 net.cpp:86] Creating Layer relu2
I0428 19:33:19.236555 23075 net.cpp:408] relu2 <- ip2
I0428 19:33:19.236559 23075 net.cpp:369] relu2 -> ip2 (in-place)
I0428 19:33:19.237396 23075 net.cpp:124] Setting up relu2
I0428 19:33:19.237408 23075 net.cpp:131] Top shape: 64 50 (3200)
I0428 19:33:19.237427 23075 net.cpp:139] Memory required for data: 4839680
I0428 19:33:19.237431 23075 layer_factory.hpp:77] Creating layer ip3
I0428 19:33:19.237437 23075 net.cpp:86] Creating Layer ip3
I0428 19:33:19.237442 23075 net.cpp:408] ip3 <- ip2
I0428 19:33:19.237447 23075 net.cpp:382] ip3 -> ip3
I0428 19:33:19.237556 23075 net.cpp:124] Setting up ip3
I0428 19:33:19.237562 23075 net.cpp:131] Top shape: 64 10 (640)
I0428 19:33:19.237565 23075 net.cpp:139] Memory required for data: 4842240
I0428 19:33:19.237586 23075 layer_factory.hpp:77] Creating layer relu3
I0428 19:33:19.237592 23075 net.cpp:86] Creating Layer relu3
I0428 19:33:19.237596 23075 net.cpp:408] relu3 <- ip3
I0428 19:33:19.237599 23075 net.cpp:369] relu3 -> ip3 (in-place)
I0428 19:33:19.237761 23075 net.cpp:124] Setting up relu3
I0428 19:33:19.237767 23075 net.cpp:131] Top shape: 64 10 (640)
I0428 19:33:19.237771 23075 net.cpp:139] Memory required for data: 4844800
I0428 19:33:19.237773 23075 layer_factory.hpp:77] Creating layer loss
I0428 19:33:19.237779 23075 net.cpp:86] Creating Layer loss
I0428 19:33:19.237782 23075 net.cpp:408] loss <- ip3
I0428 19:33:19.237787 23075 net.cpp:408] loss <- label
I0428 19:33:19.237792 23075 net.cpp:382] loss -> loss
I0428 19:33:19.237807 23075 layer_factory.hpp:77] Creating layer loss
…
I0428 19:33:19.238531 23075 solver.cpp:173] Creating test net (#0) specified by net file: ECE595/mnist/train_test/var_everything2/lenet_train_test176.prototxt
I0428 19:33:19.238572 23075 net.cpp:296] The NetState phase (1) differed from the phase (0) specified by a rule in layer mnist
I0428 19:33:19.238663 23075 net.cpp:53] Initializing net from parameters: 
name: "LeNet"
state {
  phase: TEST
}
layer {
  name: "mnist"
  type: "Data"
  top: "data"
  top: "label"
  include {
    phase: TEST
  }
  transform_param {
    scale: 0.00390625
  }
  data_param {
    source: "examples/mnist/mnist_test_lmdb"
    batch_size: 100
    backend: LMDB
  }
}
layer {
  name: "conv0"
  type: "Convolution"
  bottom: "data"
  top: "conv0"
  param {
    lr_mult: 1
  }
  param {
    lr_mult: 2
  }
  convolution_param {
    num_output: 25
    kernel_size: 5
    stride: 1
    weight_filler {
      type: "xavier"
    }
    bias_filler {
      type: "constant"
    }
  }
}
layer {
  name: "pool0"
  type: "Pooling"
  bottom: "conv0"
  top: "pool0"
  pooling_param {
    pool: MAX
    kernel_size: 2
    stride: 2
  }
}
layer {
  name: "ip1"
  type: "InnerProduct"
  bottom: "pool0"
  top: "ip1"
  param {
    lr_mult: 1
  }
  param {
    lr_mult: 2
  }
  inner_product_param {
    num_output: 10
    weight_filler {
      type: "xavier"
    }
    bias_filler {
      type: "constant"
    }
  }
}
layer {
  name: "relu1"
  type: "ReLU"
  bottom: "ip1"
  top: "ip1"
}
layer {
  name: "ip2"
  type: "InnerProduct"
  bottom: "ip1"
  top: "ip2"
  param {
    lr_mult: 1
  }
  param {
    lr_mult: 2
  }
  inner_product_param {
    num_output: 50
    weight_filler {
      type: "xavier"
    }
    bias_filler {
      type: "constant"
    }
  }
}
layer {
  name: "relu2"
  type: "ReLU"
  bottom: "ip2"
  top: "ip2"
}
layer {
  name: "ip3"
  type: "InnerProduct"
  bottom: "ip2"
  top: "ip3"
  param {
    lr_mult: 1
  }
  param {
    lr_mult: 2
  }
  inner_product_param {
    num_output: 10
    weight_filler {
      type: "xavier"
    }
    bias_filler {
      type: "constant"
    }
  }
}
layer {
  name: "relu3"
  type: "ReLU"
  bottom: "ip3"
  top: "ip3"
}
layer {
  name: "accuracy"
  type: "Accuracy"
  bottom: "ip3"
  bottom: "label"
  top: "accuracy"
  include {
    phase: TEST
  }
}
layer {
  name: "loss"
  type: "SoftmaxWithLoss"
  bottom: "ip3"
  bottom: "label"
  top: "loss"
}
I0428 19:33:19.238723 23075 layer_factory.hpp:77] Creating layer mnist
I0428 19:33:19.238770 23075 db_lmdb.cpp:35] Opened lmdb examples/mnist/mnist_test_lmdb
I0428 19:33:19.238783 23075 net.cpp:86] Creating Layer mnist
I0428 19:33:19.238787 23075 net.cpp:382] mnist -> data
I0428 19:33:19.238811 23075 net.cpp:382] mnist -> label
I0428 19:33:19.238891 23075 data_layer.cpp:45] output data size: 100,1,28,28
I0428 19:33:19.240983 23075 net.cpp:124] Setting up mnist
I0428 19:33:19.241014 23075 net.cpp:131] Top shape: 100 1 28 28 (78400)
I0428 19:33:19.241019 23075 net.cpp:131] Top shape: 100 (100)
I0428 19:33:19.241021 23075 net.cpp:139] Memory required for data: 314000
I0428 19:33:19.241025 23075 layer_factory.hpp:77] Creating layer label_mnist_1_split
I0428 19:33:19.241031 23075 net.cpp:86] Creating Layer label_mnist_1_split
I0428 19:33:19.241034 23075 net.cpp:408] label_mnist_1_split <- label
I0428 19:33:19.241039 23075 net.cpp:382] label_mnist_1_split -> label_mnist_1_split_0
I0428 19:33:19.241046 23075 net.cpp:382] label_mnist_1_split -> label_mnist_1_split_1
I0428 19:33:19.241104 23075 net.cpp:124] Setting up label_mnist_1_split
I0428 19:33:19.241112 23075 net.cpp:131] Top shape: 100 (100)
I0428 19:33:19.241132 23075 net.cpp:131] Top shape: 100 (100)
I0428 19:33:19.241134 23075 net.cpp:139] Memory required for data: 314800
I0428 19:33:19.241147 23075 layer_factory.hpp:77] Creating layer conv0
I0428 19:33:19.241156 23075 net.cpp:86] Creating Layer conv0
I0428 19:33:19.241159 23075 net.cpp:408] conv0 <- data
I0428 19:33:19.241179 23075 net.cpp:382] conv0 -> conv0
I0428 19:33:19.242931 23075 net.cpp:124] Setting up conv0
I0428 19:33:19.242944 23075 net.cpp:131] Top shape: 100 25 24 24 (1440000)
I0428 19:33:19.242962 23075 net.cpp:139] Memory required for data: 6074800
I0428 19:33:19.242971 23075 layer_factory.hpp:77] Creating layer pool0
I0428 19:33:19.242977 23075 net.cpp:86] Creating Layer pool0
I0428 19:33:19.242981 23075 net.cpp:408] pool0 <- conv0
I0428 19:33:19.242985 23075 net.cpp:382] pool0 -> pool0
I0428 19:33:19.243017 23075 net.cpp:124] Setting up pool0
I0428 19:33:19.243023 23075 net.cpp:131] Top shape: 100 25 12 12 (360000)
I0428 19:33:19.243026 23075 net.cpp:139] Memory required for data: 7514800
I0428 19:33:19.243029 23075 layer_factory.hpp:77] Creating layer ip1
I0428 19:33:19.243036 23075 net.cpp:86] Creating Layer ip1
I0428 19:33:19.243039 23075 net.cpp:408] ip1 <- pool0
I0428 19:33:19.243043 23075 net.cpp:382] ip1 -> ip1
I0428 19:33:19.243371 23075 net.cpp:124] Setting up ip1
I0428 19:33:19.243378 23075 net.cpp:131] Top shape: 100 10 (1000)
I0428 19:33:19.243396 23075 net.cpp:139] Memory required for data: 7518800
I0428 19:33:19.243403 23075 layer_factory.hpp:77] Creating layer relu1
I0428 19:33:19.243408 23075 net.cpp:86] Creating Layer relu1
I0428 19:33:19.243412 23075 net.cpp:408] relu1 <- ip1
I0428 19:33:19.243415 23075 net.cpp:369] relu1 -> ip1 (in-place)
I0428 19:33:19.243594 23075 net.cpp:124] Setting up relu1
I0428 19:33:19.243604 23075 net.cpp:131] Top shape: 100 10 (1000)
I0428 19:33:19.243608 23075 net.cpp:139] Memory required for data: 7522800
I0428 19:33:19.243613 23075 layer_factory.hpp:77] Creating layer ip2
I0428 19:33:19.243618 23075 net.cpp:86] Creating Layer ip2
I0428 19:33:19.243621 23075 net.cpp:408] ip2 <- ip1
I0428 19:33:19.243628 23075 net.cpp:382] ip2 -> ip2
I0428 19:33:19.243806 23075 net.cpp:124] Setting up ip2
I0428 19:33:19.243813 23075 net.cpp:131] Top shape: 100 50 (5000)
I0428 19:33:19.243816 23075 net.cpp:139] Memory required for data: 7542800
I0428 19:33:19.243824 23075 layer_factory.hpp:77] Creating layer relu2
I0428 19:33:19.243829 23075 net.cpp:86] Creating Layer relu2
I0428 19:33:19.243831 23075 net.cpp:408] relu2 <- ip2
I0428 19:33:19.243835 23075 net.cpp:369] relu2 -> ip2 (in-place)
I0428 19:33:19.244693 23075 net.cpp:124] Setting up relu2
I0428 19:33:19.244716 23075 net.cpp:131] Top shape: 100 50 (5000)
I0428 19:33:19.244720 23075 net.cpp:139] Memory required for data: 7562800
I0428 19:33:19.244740 23075 layer_factory.hpp:77] Creating layer ip3
I0428 19:33:19.244747 23075 net.cpp:86] Creating Layer ip3
I0428 19:33:19.244751 23075 net.cpp:408] ip3 <- ip2
I0428 19:33:19.244756 23075 net.cpp:382] ip3 -> ip3
I0428 19:33:19.244891 23075 net.cpp:124] Setting up ip3
I0428 19:33:19.244899 23075 net.cpp:131] Top shape: 100 10 (1000)
I0428 19:33:19.244902 23075 net.cpp:139] Memory required for data: 7566800
I0428 19:33:19.244910 23075 layer_factory.hpp:77] Creating layer relu3
I0428 19:33:19.244915 23075 net.cpp:86] Creating Layer relu3
I0428 19:33:19.244917 23075 net.cpp:408] relu3 <- ip3
I0428 19:33:19.244923 23075 net.cpp:369] relu3 -> ip3 (in-place)
I0428 19:33:19.245079 23075 net.cpp:124] Setting up relu3
I0428 19:33:19.245102 23075 net.cpp:131] Top shape: 100 10 (1000)
I0428 19:33:19.245105 23075 net.cpp:139] Memory required for data: 7570800
I0428 19:33:19.245110 23075 layer_factory.hpp:77] Creating layer ip3_relu3_0_split
I0428 19:33:19.245115 23075 net.cpp:86] Creating Layer ip3_relu3_0_split
I0428 19:33:19.245132 23075 net.cpp:408] ip3_relu3_0_split <- ip3
I0428 19:33:19.245139 23075 net.cpp:382] ip3_relu3_0_split -> ip3_relu3_0_split_0
I0428 19:33:19.245146 23075 net.cpp:382] ip3_relu3_0_split -> ip3_relu3_0_split_1
I0428 19:33:19.245177 23075 net.cpp:124] Setting up ip3_relu3_0_split
I0428 19:33:19.245183 23075 net.cpp:131] Top shape: 100 10 (1000)
I0428 19:33:19.245187 23075 net.cpp:131] Top shape: 100 10 (1000)
I0428 19:33:19.245201 23075 net.cpp:139] Memory required for data: 7578800
I0428 19:33:19.245204 23075 layer_factory.hpp:77] Creating layer accuracy
I0428 19:33:19.245209 23075 net.cpp:86] Creating Layer accuracy
I0428 19:33:19.245213 23075 net.cpp:408] accuracy <- ip3_relu3_0_split_0
I0428 19:33:19.245218 23075 net.cpp:408] accuracy <- label_mnist_1_split_0
I0428 19:33:19.245223 23075 net.cpp:382] accuracy -> accuracy
…
