…
I0428 20:21:09.335907  1700 net.cpp:296] The NetState phase (0) differed from the phase (1) specified by a rule in layer mnist
I0428 20:21:09.335922  1700 net.cpp:296] The NetState phase (0) differed from the phase (1) specified by a rule in layer accuracy
I0428 20:21:09.336017  1700 net.cpp:53] Initializing net from parameters: 
name: "LeNet"
state {
  phase: TRAIN
  level: 0
  stage: ""
}
layer {
  name: "mnist"
  type: "Data"
  top: "data"
  top: "label"
  include {
    phase: TRAIN
  }
  transform_param {
    scale: 0.00390625
  }
  data_param {
    source: "examples/mnist/mnist_train_lmdb"
    batch_size: 64
    backend: LMDB
  }
}
layer {
  name: "conv0"
  type: "Convolution"
  bottom: "data"
  top: "conv0"
  param {
    lr_mult: 1
  }
  param {
    lr_mult: 2
  }
  convolution_param {
    num_output: 50
    kernel_size: 5
    stride: 1
    weight_filler {
      type: "xavier"
    }
    bias_filler {
      type: "constant"
    }
  }
}
layer {
  name: "pool0"
  type: "Pooling"
  bottom: "conv0"
  top: "pool0"
  pooling_param {
    pool: MAX
    kernel_size: 2
    stride: 2
  }
}
layer {
  name: "conv1"
  type: "Convolution"
  bottom: "pool0"
  top: "conv1"
  param {
    lr_mult: 1
  }
  param {
    lr_mult: 2
  }
  convolution_param {
    num_output: 50
    kernel_size: 5
    stride: 1
    weight_filler {
      type: "xavier"
    }
    bias_filler {
      type: "constant"
    }
  }
}
layer {
  name: "pool1"
  type: "Pooling"
  bottom: "conv1"
  top: "pool1"
  pooling_param {
    pool: MAX
    kernel_size: 2
    stride: 2
  }
}
layer {
  name: "ip1"
  type: "InnerProduct"
  bottom: "pool1"
  top: "ip1"
  param {
    lr_mult: 1
  }
  param {
    lr_mult: 2
  }
  inner_product_param {
    num_output: 10
    weight_filler {
      type: "xavier"
    }
    bias_filler {
      type: "constant"
    }
  }
}
layer {
  name: "relu1"
  type: "ReLU"
  bottom: "ip1"
  top: "ip1"
}
layer {
  name: "ip2"
  type: "InnerProduct"
  bottom: "ip1"
  top: "ip2"
  param {
    lr_mult: 1
  }
  param {
    lr_mult: 2
  }
  inner_product_param {
    num_output: 10
    weight_filler {
      type: "xavier"
    }
    bias_filler {
      type: "constant"
    }
  }
}
layer {
  name: "relu2"
  type: "ReLU"
  bottom: "ip2"
  top: "ip2"
}
layer {
  name: "ip3"
  type: "InnerProduct"
  bottom: "ip2"
  top: "ip3"
  param {
    lr_mult: 1
  }
  param {
    lr_mult: 2
  }
  inner_product_param {
    num_output: 10
    weight_filler {
      type: "xavier"
    }
    bias_filler {
      type: "constant"
    }
  }
}
layer {
  name: "relu3"
  type: "ReLU"
  bottom: "ip3"
  top: "ip3"
}
layer {
  name: "loss"
  type: "SoftmaxWithLoss"
  bottom: "ip3"
  bottom: "label"
  top: "loss"
}
I0428 20:21:09.336081  1700 layer_factory.hpp:77] Creating layer mnist
I0428 20:21:09.336163  1700 db_lmdb.cpp:35] Opened lmdb examples/mnist/mnist_train_lmdb
I0428 20:21:09.336184  1700 net.cpp:86] Creating Layer mnist
I0428 20:21:09.336190  1700 net.cpp:382] mnist -> data
I0428 20:21:09.336208  1700 net.cpp:382] mnist -> label
I0428 20:21:09.337231  1700 data_layer.cpp:45] output data size: 64,1,28,28
I0428 20:21:09.339435  1700 net.cpp:124] Setting up mnist
I0428 20:21:09.339465  1700 net.cpp:131] Top shape: 64 1 28 28 (50176)
I0428 20:21:09.339471  1700 net.cpp:131] Top shape: 64 (64)
I0428 20:21:09.339474  1700 net.cpp:139] Memory required for data: 200960
I0428 20:21:09.339480  1700 layer_factory.hpp:77] Creating layer conv0
I0428 20:21:09.339493  1700 net.cpp:86] Creating Layer conv0
I0428 20:21:09.339511  1700 net.cpp:408] conv0 <- data
I0428 20:21:09.339522  1700 net.cpp:382] conv0 -> conv0
I0428 20:21:09.576699  1700 net.cpp:124] Setting up conv0
I0428 20:21:09.576725  1700 net.cpp:131] Top shape: 64 50 24 24 (1843200)
I0428 20:21:09.576730  1700 net.cpp:139] Memory required for data: 7573760
I0428 20:21:09.576743  1700 layer_factory.hpp:77] Creating layer pool0
I0428 20:21:09.576756  1700 net.cpp:86] Creating Layer pool0
I0428 20:21:09.576759  1700 net.cpp:408] pool0 <- conv0
I0428 20:21:09.576766  1700 net.cpp:382] pool0 -> pool0
I0428 20:21:09.576867  1700 net.cpp:124] Setting up pool0
I0428 20:21:09.576874  1700 net.cpp:131] Top shape: 64 50 12 12 (460800)
I0428 20:21:09.576877  1700 net.cpp:139] Memory required for data: 9416960
I0428 20:21:09.576881  1700 layer_factory.hpp:77] Creating layer conv1
I0428 20:21:09.576892  1700 net.cpp:86] Creating Layer conv1
I0428 20:21:09.576895  1700 net.cpp:408] conv1 <- pool0
I0428 20:21:09.576901  1700 net.cpp:382] conv1 -> conv1
I0428 20:21:09.579109  1700 net.cpp:124] Setting up conv1
I0428 20:21:09.579123  1700 net.cpp:131] Top shape: 64 50 8 8 (204800)
I0428 20:21:09.579128  1700 net.cpp:139] Memory required for data: 10236160
I0428 20:21:09.579135  1700 layer_factory.hpp:77] Creating layer pool1
I0428 20:21:09.579143  1700 net.cpp:86] Creating Layer pool1
I0428 20:21:09.579145  1700 net.cpp:408] pool1 <- conv1
I0428 20:21:09.579166  1700 net.cpp:382] pool1 -> pool1
I0428 20:21:09.579201  1700 net.cpp:124] Setting up pool1
I0428 20:21:09.579207  1700 net.cpp:131] Top shape: 64 50 4 4 (51200)
I0428 20:21:09.579210  1700 net.cpp:139] Memory required for data: 10440960
I0428 20:21:09.579212  1700 layer_factory.hpp:77] Creating layer ip1
I0428 20:21:09.579219  1700 net.cpp:86] Creating Layer ip1
I0428 20:21:09.579222  1700 net.cpp:408] ip1 <- pool1
I0428 20:21:09.579227  1700 net.cpp:382] ip1 -> ip1
I0428 20:21:09.580227  1700 net.cpp:124] Setting up ip1
I0428 20:21:09.580240  1700 net.cpp:131] Top shape: 64 10 (640)
I0428 20:21:09.580245  1700 net.cpp:139] Memory required for data: 10443520
I0428 20:21:09.580252  1700 layer_factory.hpp:77] Creating layer relu1
I0428 20:21:09.580260  1700 net.cpp:86] Creating Layer relu1
I0428 20:21:09.580262  1700 net.cpp:408] relu1 <- ip1
I0428 20:21:09.580267  1700 net.cpp:369] relu1 -> ip1 (in-place)
I0428 20:21:09.580472  1700 net.cpp:124] Setting up relu1
I0428 20:21:09.580495  1700 net.cpp:131] Top shape: 64 10 (640)
I0428 20:21:09.580498  1700 net.cpp:139] Memory required for data: 10446080
I0428 20:21:09.580502  1700 layer_factory.hpp:77] Creating layer ip2
I0428 20:21:09.580508  1700 net.cpp:86] Creating Layer ip2
I0428 20:21:09.580512  1700 net.cpp:408] ip2 <- ip1
I0428 20:21:09.580515  1700 net.cpp:382] ip2 -> ip2
I0428 20:21:09.580601  1700 net.cpp:124] Setting up ip2
I0428 20:21:09.580607  1700 net.cpp:131] Top shape: 64 10 (640)
I0428 20:21:09.580610  1700 net.cpp:139] Memory required for data: 10448640
I0428 20:21:09.580615  1700 layer_factory.hpp:77] Creating layer relu2
I0428 20:21:09.580621  1700 net.cpp:86] Creating Layer relu2
I0428 20:21:09.580624  1700 net.cpp:408] relu2 <- ip2
I0428 20:21:09.580628  1700 net.cpp:369] relu2 -> ip2 (in-place)
I0428 20:21:09.582418  1700 net.cpp:124] Setting up relu2
I0428 20:21:09.582466  1700 net.cpp:131] Top shape: 64 10 (640)
I0428 20:21:09.582492  1700 net.cpp:139] Memory required for data: 10451200
I0428 20:21:09.582505  1700 layer_factory.hpp:77] Creating layer ip3
I0428 20:21:09.582528  1700 net.cpp:86] Creating Layer ip3
I0428 20:21:09.582545  1700 net.cpp:408] ip3 <- ip2
I0428 20:21:09.582564  1700 net.cpp:382] ip3 -> ip3
I0428 20:21:09.582885  1700 net.cpp:124] Setting up ip3
I0428 20:21:09.582906  1700 net.cpp:131] Top shape: 64 10 (640)
I0428 20:21:09.582917  1700 net.cpp:139] Memory required for data: 10453760
I0428 20:21:09.582944  1700 layer_factory.hpp:77] Creating layer relu3
I0428 20:21:09.582962  1700 net.cpp:86] Creating Layer relu3
I0428 20:21:09.582973  1700 net.cpp:408] relu3 <- ip3
I0428 20:21:09.582988  1700 net.cpp:369] relu3 -> ip3 (in-place)
I0428 20:21:09.583534  1700 net.cpp:124] Setting up relu3
I0428 20:21:09.583559  1700 net.cpp:131] Top shape: 64 10 (640)
I0428 20:21:09.583570  1700 net.cpp:139] Memory required for data: 10456320
I0428 20:21:09.583580  1700 layer_factory.hpp:77] Creating layer loss
I0428 20:21:09.583597  1700 net.cpp:86] Creating Layer loss
I0428 20:21:09.583608  1700 net.cpp:408] loss <- ip3
I0428 20:21:09.583631  1700 net.cpp:408] loss <- label
I0428 20:21:09.583652  1700 net.cpp:382] loss -> loss
I0428 20:21:09.583691  1700 layer_factory.hpp:77] Creating layer loss
…
I0428 20:21:09.585886  1700 solver.cpp:173] Creating test net (#0) specified by net file: ECE595/mnist/train_test/var_everything2/lenet_train_test1378.prototxt
I0428 20:21:09.585983  1700 net.cpp:296] The NetState phase (1) differed from the phase (0) specified by a rule in layer mnist
I0428 20:21:09.586323  1700 net.cpp:53] Initializing net from parameters: 
name: "LeNet"
state {
  phase: TEST
}
layer {
  name: "mnist"
  type: "Data"
  top: "data"
  top: "label"
  include {
    phase: TEST
  }
  transform_param {
    scale: 0.00390625
  }
  data_param {
    source: "examples/mnist/mnist_test_lmdb"
    batch_size: 100
    backend: LMDB
  }
}
layer {
  name: "conv0"
  type: "Convolution"
  bottom: "data"
  top: "conv0"
  param {
    lr_mult: 1
  }
  param {
    lr_mult: 2
  }
  convolution_param {
    num_output: 50
    kernel_size: 5
    stride: 1
    weight_filler {
      type: "xavier"
    }
    bias_filler {
      type: "constant"
    }
  }
}
layer {
  name: "pool0"
  type: "Pooling"
  bottom: "conv0"
  top: "pool0"
  pooling_param {
    pool: MAX
    kernel_size: 2
    stride: 2
  }
}
layer {
  name: "conv1"
  type: "Convolution"
  bottom: "pool0"
  top: "conv1"
  param {
    lr_mult: 1
  }
  param {
    lr_mult: 2
  }
  convolution_param {
    num_output: 50
    kernel_size: 5
    stride: 1
    weight_filler {
      type: "xavier"
    }
    bias_filler {
      type: "constant"
    }
  }
}
layer {
  name: "pool1"
  type: "Pooling"
  bottom: "conv1"
  top: "pool1"
  pooling_param {
    pool: MAX
    kernel_size: 2
    stride: 2
  }
}
layer {
  name: "ip1"
  type: "InnerProduct"
  bottom: "pool1"
  top: "ip1"
  param {
    lr_mult: 1
  }
  param {
    lr_mult: 2
  }
  inner_product_param {
    num_output: 10
    weight_filler {
      type: "xavier"
    }
    bias_filler {
      type: "constant"
    }
  }
}
layer {
  name: "relu1"
  type: "ReLU"
  bottom: "ip1"
  top: "ip1"
}
layer {
  name: "ip2"
  type: "InnerProduct"
  bottom: "ip1"
  top: "ip2"
  param {
    lr_mult: 1
  }
  param {
    lr_mult: 2
  }
  inner_product_param {
    num_output: 10
    weight_filler {
      type: "xavier"
    }
    bias_filler {
      type: "constant"
    }
  }
}
layer {
  name: "relu2"
  type: "ReLU"
  bottom: "ip2"
  top: "ip2"
}
layer {
  name: "ip3"
  type: "InnerProduct"
  bottom: "ip2"
  top: "ip3"
  param {
    lr_mult: 1
  }
  param {
    lr_mult: 2
  }
  inner_product_param {
    num_output: 10
    weight_filler {
      type: "xavier"
    }
    bias_filler {
      type: "constant"
    }
  }
}
layer {
  name: "relu3"
  type: "ReLU"
  bottom: "ip3"
  top: "ip3"
}
layer {
  name: "accuracy"
  type: "Accuracy"
  bottom: "ip3"
  bottom: "label"
  top: "accuracy"
  include {
    phase: TEST
  }
}
layer {
  name: "loss"
  type: "SoftmaxWithLoss"
  bottom: "ip3"
  bottom: "label"
  top: "loss"
}
I0428 20:21:09.586594  1700 layer_factory.hpp:77] Creating layer mnist
I0428 20:21:09.586712  1700 db_lmdb.cpp:35] Opened lmdb examples/mnist/mnist_test_lmdb
I0428 20:21:09.586745  1700 net.cpp:86] Creating Layer mnist
I0428 20:21:09.586763  1700 net.cpp:382] mnist -> data
I0428 20:21:09.586787  1700 net.cpp:382] mnist -> label
I0428 20:21:09.587060  1700 data_layer.cpp:45] output data size: 100,1,28,28
I0428 20:21:09.592010  1700 net.cpp:124] Setting up mnist
I0428 20:21:09.592046  1700 net.cpp:131] Top shape: 100 1 28 28 (78400)
I0428 20:21:09.592056  1700 net.cpp:131] Top shape: 100 (100)
I0428 20:21:09.592062  1700 net.cpp:139] Memory required for data: 314000
I0428 20:21:09.592073  1700 layer_factory.hpp:77] Creating layer label_mnist_1_split
I0428 20:21:09.592092  1700 net.cpp:86] Creating Layer label_mnist_1_split
I0428 20:21:09.592103  1700 net.cpp:408] label_mnist_1_split <- label
I0428 20:21:09.592131  1700 net.cpp:382] label_mnist_1_split -> label_mnist_1_split_0
I0428 20:21:09.592165  1700 net.cpp:382] label_mnist_1_split -> label_mnist_1_split_1
I0428 20:21:09.592382  1700 net.cpp:124] Setting up label_mnist_1_split
I0428 20:21:09.592406  1700 net.cpp:131] Top shape: 100 (100)
I0428 20:21:09.592423  1700 net.cpp:131] Top shape: 100 (100)
I0428 20:21:09.592437  1700 net.cpp:139] Memory required for data: 314800
I0428 20:21:09.592448  1700 layer_factory.hpp:77] Creating layer conv0
I0428 20:21:09.592478  1700 net.cpp:86] Creating Layer conv0
I0428 20:21:09.592490  1700 net.cpp:408] conv0 <- data
I0428 20:21:09.592510  1700 net.cpp:382] conv0 -> conv0
I0428 20:21:09.595970  1700 net.cpp:124] Setting up conv0
I0428 20:21:09.596004  1700 net.cpp:131] Top shape: 100 50 24 24 (2880000)
I0428 20:21:09.596010  1700 net.cpp:139] Memory required for data: 11834800
I0428 20:21:09.596034  1700 layer_factory.hpp:77] Creating layer pool0
I0428 20:21:09.596051  1700 net.cpp:86] Creating Layer pool0
I0428 20:21:09.596070  1700 net.cpp:408] pool0 <- conv0
I0428 20:21:09.596087  1700 net.cpp:382] pool0 -> pool0
I0428 20:21:09.596192  1700 net.cpp:124] Setting up pool0
I0428 20:21:09.596215  1700 net.cpp:131] Top shape: 100 50 12 12 (720000)
I0428 20:21:09.596228  1700 net.cpp:139] Memory required for data: 14714800
I0428 20:21:09.596240  1700 layer_factory.hpp:77] Creating layer conv1
I0428 20:21:09.596267  1700 net.cpp:86] Creating Layer conv1
I0428 20:21:09.596280  1700 net.cpp:408] conv1 <- pool0
I0428 20:21:09.596297  1700 net.cpp:382] conv1 -> conv1
I0428 20:21:09.600957  1700 net.cpp:124] Setting up conv1
I0428 20:21:09.600988  1700 net.cpp:131] Top shape: 100 50 8 8 (320000)
I0428 20:21:09.600996  1700 net.cpp:139] Memory required for data: 15994800
I0428 20:21:09.601012  1700 layer_factory.hpp:77] Creating layer pool1
I0428 20:21:09.601030  1700 net.cpp:86] Creating Layer pool1
I0428 20:21:09.601042  1700 net.cpp:408] pool1 <- conv1
I0428 20:21:09.601060  1700 net.cpp:382] pool1 -> pool1
I0428 20:21:09.601172  1700 net.cpp:124] Setting up pool1
I0428 20:21:09.601193  1700 net.cpp:131] Top shape: 100 50 4 4 (80000)
I0428 20:21:09.601209  1700 net.cpp:139] Memory required for data: 16314800
I0428 20:21:09.601219  1700 layer_factory.hpp:77] Creating layer ip1
I0428 20:21:09.601240  1700 net.cpp:86] Creating Layer ip1
I0428 20:21:09.601253  1700 net.cpp:408] ip1 <- pool1
I0428 20:21:09.601269  1700 net.cpp:382] ip1 -> ip1
I0428 20:21:09.601708  1700 net.cpp:124] Setting up ip1
I0428 20:21:09.601729  1700 net.cpp:131] Top shape: 100 10 (1000)
I0428 20:21:09.601763  1700 net.cpp:139] Memory required for data: 16318800
I0428 20:21:09.601785  1700 layer_factory.hpp:77] Creating layer relu1
I0428 20:21:09.601806  1700 net.cpp:86] Creating Layer relu1
I0428 20:21:09.601820  1700 net.cpp:408] relu1 <- ip1
I0428 20:21:09.601835  1700 net.cpp:369] relu1 -> ip1 (in-place)
I0428 20:21:09.602303  1700 net.cpp:124] Setting up relu1
I0428 20:21:09.602325  1700 net.cpp:131] Top shape: 100 10 (1000)
I0428 20:21:09.602335  1700 net.cpp:139] Memory required for data: 16322800
I0428 20:21:09.602345  1700 layer_factory.hpp:77] Creating layer ip2
I0428 20:21:09.602368  1700 net.cpp:86] Creating Layer ip2
I0428 20:21:09.602381  1700 net.cpp:408] ip2 <- ip1
I0428 20:21:09.602399  1700 net.cpp:382] ip2 -> ip2
I0428 20:21:09.602691  1700 net.cpp:124] Setting up ip2
I0428 20:21:09.602722  1700 net.cpp:131] Top shape: 100 10 (1000)
I0428 20:21:09.602735  1700 net.cpp:139] Memory required for data: 16326800
I0428 20:21:09.602753  1700 layer_factory.hpp:77] Creating layer relu2
I0428 20:21:09.602771  1700 net.cpp:86] Creating Layer relu2
I0428 20:21:09.602783  1700 net.cpp:408] relu2 <- ip2
I0428 20:21:09.602797  1700 net.cpp:369] relu2 -> ip2 (in-place)
I0428 20:21:09.603267  1700 net.cpp:124] Setting up relu2
I0428 20:21:09.603301  1700 net.cpp:131] Top shape: 100 10 (1000)
I0428 20:21:09.603313  1700 net.cpp:139] Memory required for data: 16330800
I0428 20:21:09.603324  1700 layer_factory.hpp:77] Creating layer ip3
I0428 20:21:09.603340  1700 net.cpp:86] Creating Layer ip3
I0428 20:21:09.603353  1700 net.cpp:408] ip3 <- ip2
I0428 20:21:09.603371  1700 net.cpp:382] ip3 -> ip3
I0428 20:21:09.603652  1700 net.cpp:124] Setting up ip3
I0428 20:21:09.603673  1700 net.cpp:131] Top shape: 100 10 (1000)
I0428 20:21:09.603683  1700 net.cpp:139] Memory required for data: 16334800
I0428 20:21:09.603708  1700 layer_factory.hpp:77] Creating layer relu3
I0428 20:21:09.603724  1700 net.cpp:86] Creating Layer relu3
I0428 20:21:09.603736  1700 net.cpp:408] relu3 <- ip3
I0428 20:21:09.603752  1700 net.cpp:369] relu3 -> ip3 (in-place)
I0428 20:21:09.605772  1700 net.cpp:124] Setting up relu3
I0428 20:21:09.605803  1700 net.cpp:131] Top shape: 100 10 (1000)
I0428 20:21:09.605816  1700 net.cpp:139] Memory required for data: 16338800
I0428 20:21:09.605826  1700 layer_factory.hpp:77] Creating layer ip3_relu3_0_split
I0428 20:21:09.605841  1700 net.cpp:86] Creating Layer ip3_relu3_0_split
I0428 20:21:09.605854  1700 net.cpp:408] ip3_relu3_0_split <- ip3
I0428 20:21:09.605873  1700 net.cpp:382] ip3_relu3_0_split -> ip3_relu3_0_split_0
I0428 20:21:09.605893  1700 net.cpp:382] ip3_relu3_0_split -> ip3_relu3_0_split_1
I0428 20:21:09.605988  1700 net.cpp:124] Setting up ip3_relu3_0_split
I0428 20:21:09.606004  1700 net.cpp:131] Top shape: 100 10 (1000)
I0428 20:21:09.606017  1700 net.cpp:131] Top shape: 100 10 (1000)
I0428 20:21:09.606029  1700 net.cpp:139] Memory required for data: 16346800
I0428 20:21:09.606039  1700 layer_factory.hpp:77] Creating layer accuracy
I0428 20:21:09.606055  1700 net.cpp:86] Creating Layer accuracy
I0428 20:21:09.606066  1700 net.cpp:408] accuracy <- ip3_relu3_0_split_0
I0428 20:21:09.606078  1700 net.cpp:408] accuracy <- label_mnist_1_split_0
I0428 20:21:09.606093  1700 net.cpp:382] accuracy -> accuracy
…
