…
I0428 20:36:32.743463  4811 net.cpp:296] The NetState phase (0) differed from the phase (1) specified by a rule in layer mnist
I0428 20:36:32.743476  4811 net.cpp:296] The NetState phase (0) differed from the phase (1) specified by a rule in layer accuracy
I0428 20:36:32.743558  4811 net.cpp:53] Initializing net from parameters: 
name: "LeNet"
state {
  phase: TRAIN
  level: 0
  stage: ""
}
layer {
  name: "mnist"
  type: "Data"
  top: "data"
  top: "label"
  include {
    phase: TRAIN
  }
  transform_param {
    scale: 0.00390625
  }
  data_param {
    source: "examples/mnist/mnist_train_lmdb"
    batch_size: 64
    backend: LMDB
  }
}
layer {
  name: "conv0"
  type: "Convolution"
  bottom: "data"
  top: "conv0"
  param {
    lr_mult: 1
  }
  param {
    lr_mult: 2
  }
  convolution_param {
    num_output: 100
    kernel_size: 5
    stride: 1
    weight_filler {
      type: "xavier"
    }
    bias_filler {
      type: "constant"
    }
  }
}
layer {
  name: "pool0"
  type: "Pooling"
  bottom: "conv0"
  top: "pool0"
  pooling_param {
    pool: MAX
    kernel_size: 2
    stride: 2
  }
}
layer {
  name: "conv1"
  type: "Convolution"
  bottom: "pool0"
  top: "conv1"
  param {
    lr_mult: 1
  }
  param {
    lr_mult: 2
  }
  convolution_param {
    num_output: 100
    kernel_size: 5
    stride: 1
    weight_filler {
      type: "xavier"
    }
    bias_filler {
      type: "constant"
    }
  }
}
layer {
  name: "pool1"
  type: "Pooling"
  bottom: "conv1"
  top: "pool1"
  pooling_param {
    pool: MAX
    kernel_size: 2
    stride: 2
  }
}
layer {
  name: "ip1"
  type: "InnerProduct"
  bottom: "pool1"
  top: "ip1"
  param {
    lr_mult: 1
  }
  param {
    lr_mult: 2
  }
  inner_product_param {
    num_output: 10
    weight_filler {
      type: "xavier"
    }
    bias_filler {
      type: "constant"
    }
  }
}
layer {
  name: "relu1"
  type: "ReLU"
  bottom: "ip1"
  top: "ip1"
}
layer {
  name: "loss"
  type: "SoftmaxWithLoss"
  bottom: "ip1"
  bottom: "label"
  top: "loss"
}
I0428 20:36:32.743633  4811 layer_factory.hpp:77] Creating layer mnist
I0428 20:36:32.743718  4811 db_lmdb.cpp:35] Opened lmdb examples/mnist/mnist_train_lmdb
I0428 20:36:32.743754  4811 net.cpp:86] Creating Layer mnist
I0428 20:36:32.743762  4811 net.cpp:382] mnist -> data
I0428 20:36:32.743779  4811 net.cpp:382] mnist -> label
I0428 20:36:32.744853  4811 data_layer.cpp:45] output data size: 64,1,28,28
I0428 20:36:32.747099  4811 net.cpp:124] Setting up mnist
I0428 20:36:32.747129  4811 net.cpp:131] Top shape: 64 1 28 28 (50176)
I0428 20:36:32.747138  4811 net.cpp:131] Top shape: 64 (64)
I0428 20:36:32.747155  4811 net.cpp:139] Memory required for data: 200960
I0428 20:36:32.747161  4811 layer_factory.hpp:77] Creating layer conv0
I0428 20:36:32.747175  4811 net.cpp:86] Creating Layer conv0
I0428 20:36:32.747180  4811 net.cpp:408] conv0 <- data
I0428 20:36:32.747191  4811 net.cpp:382] conv0 -> conv0
I0428 20:36:32.977375  4811 net.cpp:124] Setting up conv0
I0428 20:36:32.977401  4811 net.cpp:131] Top shape: 64 100 24 24 (3686400)
I0428 20:36:32.977404  4811 net.cpp:139] Memory required for data: 14946560
I0428 20:36:32.977418  4811 layer_factory.hpp:77] Creating layer pool0
I0428 20:36:32.977430  4811 net.cpp:86] Creating Layer pool0
I0428 20:36:32.977434  4811 net.cpp:408] pool0 <- conv0
I0428 20:36:32.977439  4811 net.cpp:382] pool0 -> pool0
I0428 20:36:32.977511  4811 net.cpp:124] Setting up pool0
I0428 20:36:32.977517  4811 net.cpp:131] Top shape: 64 100 12 12 (921600)
I0428 20:36:32.977535  4811 net.cpp:139] Memory required for data: 18632960
I0428 20:36:32.977538  4811 layer_factory.hpp:77] Creating layer conv1
I0428 20:36:32.977550  4811 net.cpp:86] Creating Layer conv1
I0428 20:36:32.977552  4811 net.cpp:408] conv1 <- pool0
I0428 20:36:32.977557  4811 net.cpp:382] conv1 -> conv1
I0428 20:36:32.981669  4811 net.cpp:124] Setting up conv1
I0428 20:36:32.981683  4811 net.cpp:131] Top shape: 64 100 8 8 (409600)
I0428 20:36:32.981686  4811 net.cpp:139] Memory required for data: 20271360
I0428 20:36:32.981694  4811 layer_factory.hpp:77] Creating layer pool1
I0428 20:36:32.981703  4811 net.cpp:86] Creating Layer pool1
I0428 20:36:32.981705  4811 net.cpp:408] pool1 <- conv1
I0428 20:36:32.981709  4811 net.cpp:382] pool1 -> pool1
I0428 20:36:32.981768  4811 net.cpp:124] Setting up pool1
I0428 20:36:32.981773  4811 net.cpp:131] Top shape: 64 100 4 4 (102400)
I0428 20:36:32.981776  4811 net.cpp:139] Memory required for data: 20680960
I0428 20:36:32.981779  4811 layer_factory.hpp:77] Creating layer ip1
I0428 20:36:32.981786  4811 net.cpp:86] Creating Layer ip1
I0428 20:36:32.981788  4811 net.cpp:408] ip1 <- pool1
I0428 20:36:32.981792  4811 net.cpp:382] ip1 -> ip1
I0428 20:36:32.982825  4811 net.cpp:124] Setting up ip1
I0428 20:36:32.982837  4811 net.cpp:131] Top shape: 64 10 (640)
I0428 20:36:32.982856  4811 net.cpp:139] Memory required for data: 20683520
I0428 20:36:32.982874  4811 layer_factory.hpp:77] Creating layer relu1
I0428 20:36:32.982882  4811 net.cpp:86] Creating Layer relu1
I0428 20:36:32.982884  4811 net.cpp:408] relu1 <- ip1
I0428 20:36:32.982889  4811 net.cpp:369] relu1 -> ip1 (in-place)
I0428 20:36:32.983068  4811 net.cpp:124] Setting up relu1
I0428 20:36:32.983088  4811 net.cpp:131] Top shape: 64 10 (640)
I0428 20:36:32.983090  4811 net.cpp:139] Memory required for data: 20686080
I0428 20:36:32.983094  4811 layer_factory.hpp:77] Creating layer loss
I0428 20:36:32.983099  4811 net.cpp:86] Creating Layer loss
I0428 20:36:32.983103  4811 net.cpp:408] loss <- ip1
I0428 20:36:32.983105  4811 net.cpp:408] loss <- label
I0428 20:36:32.983111  4811 net.cpp:382] loss -> loss
I0428 20:36:32.983129  4811 layer_factory.hpp:77] Creating layer loss
…
I0428 20:36:32.984349  4811 solver.cpp:173] Creating test net (#0) specified by net file: ECE595/mnist/train_test/var_everything2/lenet_train_test1638.prototxt
I0428 20:36:32.984372  4811 net.cpp:296] The NetState phase (1) differed from the phase (0) specified by a rule in layer mnist
I0428 20:36:32.984444  4811 net.cpp:53] Initializing net from parameters: 
name: "LeNet"
state {
  phase: TEST
}
layer {
  name: "mnist"
  type: "Data"
  top: "data"
  top: "label"
  include {
    phase: TEST
  }
  transform_param {
    scale: 0.00390625
  }
  data_param {
    source: "examples/mnist/mnist_test_lmdb"
    batch_size: 100
    backend: LMDB
  }
}
layer {
  name: "conv0"
  type: "Convolution"
  bottom: "data"
  top: "conv0"
  param {
    lr_mult: 1
  }
  param {
    lr_mult: 2
  }
  convolution_param {
    num_output: 100
    kernel_size: 5
    stride: 1
    weight_filler {
      type: "xavier"
    }
    bias_filler {
      type: "constant"
    }
  }
}
layer {
  name: "pool0"
  type: "Pooling"
  bottom: "conv0"
  top: "pool0"
  pooling_param {
    pool: MAX
    kernel_size: 2
    stride: 2
  }
}
layer {
  name: "conv1"
  type: "Convolution"
  bottom: "pool0"
  top: "conv1"
  param {
    lr_mult: 1
  }
  param {
    lr_mult: 2
  }
  convolution_param {
    num_output: 100
    kernel_size: 5
    stride: 1
    weight_filler {
      type: "xavier"
    }
    bias_filler {
      type: "constant"
    }
  }
}
layer {
  name: "pool1"
  type: "Pooling"
  bottom: "conv1"
  top: "pool1"
  pooling_param {
    pool: MAX
    kernel_size: 2
    stride: 2
  }
}
layer {
  name: "ip1"
  type: "InnerProduct"
  bottom: "pool1"
  top: "ip1"
  param {
    lr_mult: 1
  }
  param {
    lr_mult: 2
  }
  inner_product_param {
    num_output: 10
    weight_filler {
      type: "xavier"
    }
    bias_filler {
      type: "constant"
    }
  }
}
layer {
  name: "relu1"
  type: "ReLU"
  bottom: "ip1"
  top: "ip1"
}
layer {
  name: "accuracy"
  type: "Accuracy"
  bottom: "ip1"
  bottom: "label"
  top: "accuracy"
  include {
    phase: TEST
  }
}
layer {
  name: "loss"
  type: "SoftmaxWithLoss"
  bottom: "ip1"
  bottom: "label"
  top: "loss"
}
I0428 20:36:32.984514  4811 layer_factory.hpp:77] Creating layer mnist
I0428 20:36:32.984572  4811 db_lmdb.cpp:35] Opened lmdb examples/mnist/mnist_test_lmdb
I0428 20:36:32.984586  4811 net.cpp:86] Creating Layer mnist
I0428 20:36:32.984591  4811 net.cpp:382] mnist -> data
I0428 20:36:32.984597  4811 net.cpp:382] mnist -> label
I0428 20:36:32.984710  4811 data_layer.cpp:45] output data size: 100,1,28,28
I0428 20:36:32.986840  4811 net.cpp:124] Setting up mnist
I0428 20:36:32.986868  4811 net.cpp:131] Top shape: 100 1 28 28 (78400)
I0428 20:36:32.986889  4811 net.cpp:131] Top shape: 100 (100)
I0428 20:36:32.986892  4811 net.cpp:139] Memory required for data: 314000
I0428 20:36:32.986896  4811 layer_factory.hpp:77] Creating layer label_mnist_1_split
I0428 20:36:32.986923  4811 net.cpp:86] Creating Layer label_mnist_1_split
I0428 20:36:32.986928  4811 net.cpp:408] label_mnist_1_split <- label
I0428 20:36:32.986932  4811 net.cpp:382] label_mnist_1_split -> label_mnist_1_split_0
I0428 20:36:32.986939  4811 net.cpp:382] label_mnist_1_split -> label_mnist_1_split_1
I0428 20:36:32.986980  4811 net.cpp:124] Setting up label_mnist_1_split
I0428 20:36:32.986987  4811 net.cpp:131] Top shape: 100 (100)
I0428 20:36:32.986991  4811 net.cpp:131] Top shape: 100 (100)
I0428 20:36:32.986994  4811 net.cpp:139] Memory required for data: 314800
I0428 20:36:32.986996  4811 layer_factory.hpp:77] Creating layer conv0
I0428 20:36:32.987004  4811 net.cpp:86] Creating Layer conv0
I0428 20:36:32.987009  4811 net.cpp:408] conv0 <- data
I0428 20:36:32.987013  4811 net.cpp:382] conv0 -> conv0
I0428 20:36:32.987964  4811 net.cpp:124] Setting up conv0
I0428 20:36:32.987992  4811 net.cpp:131] Top shape: 100 100 24 24 (5760000)
I0428 20:36:32.987994  4811 net.cpp:139] Memory required for data: 23354800
I0428 20:36:32.988003  4811 layer_factory.hpp:77] Creating layer pool0
I0428 20:36:32.988024  4811 net.cpp:86] Creating Layer pool0
I0428 20:36:32.988029  4811 net.cpp:408] pool0 <- conv0
I0428 20:36:32.988032  4811 net.cpp:382] pool0 -> pool0
I0428 20:36:32.988066  4811 net.cpp:124] Setting up pool0
I0428 20:36:32.988076  4811 net.cpp:131] Top shape: 100 100 12 12 (1440000)
I0428 20:36:32.988080  4811 net.cpp:139] Memory required for data: 29114800
I0428 20:36:32.988082  4811 layer_factory.hpp:77] Creating layer conv1
I0428 20:36:32.988090  4811 net.cpp:86] Creating Layer conv1
I0428 20:36:32.988093  4811 net.cpp:408] conv1 <- pool0
I0428 20:36:32.988097  4811 net.cpp:382] conv1 -> conv1
I0428 20:36:32.991250  4811 net.cpp:124] Setting up conv1
I0428 20:36:32.991277  4811 net.cpp:131] Top shape: 100 100 8 8 (640000)
I0428 20:36:32.991287  4811 net.cpp:139] Memory required for data: 31674800
I0428 20:36:32.991295  4811 layer_factory.hpp:77] Creating layer pool1
I0428 20:36:32.991328  4811 net.cpp:86] Creating Layer pool1
I0428 20:36:32.991331  4811 net.cpp:408] pool1 <- conv1
I0428 20:36:32.991343  4811 net.cpp:382] pool1 -> pool1
I0428 20:36:32.991379  4811 net.cpp:124] Setting up pool1
I0428 20:36:32.991384  4811 net.cpp:131] Top shape: 100 100 4 4 (160000)
I0428 20:36:32.991392  4811 net.cpp:139] Memory required for data: 32314800
I0428 20:36:32.991410  4811 layer_factory.hpp:77] Creating layer ip1
I0428 20:36:32.991415  4811 net.cpp:86] Creating Layer ip1
I0428 20:36:32.991418  4811 net.cpp:408] ip1 <- pool1
I0428 20:36:32.991423  4811 net.cpp:382] ip1 -> ip1
I0428 20:36:32.991605  4811 net.cpp:124] Setting up ip1
I0428 20:36:32.991612  4811 net.cpp:131] Top shape: 100 10 (1000)
I0428 20:36:32.991616  4811 net.cpp:139] Memory required for data: 32318800
I0428 20:36:32.991623  4811 layer_factory.hpp:77] Creating layer relu1
I0428 20:36:32.991627  4811 net.cpp:86] Creating Layer relu1
I0428 20:36:32.991631  4811 net.cpp:408] relu1 <- ip1
I0428 20:36:32.991636  4811 net.cpp:369] relu1 -> ip1 (in-place)
I0428 20:36:32.992405  4811 net.cpp:124] Setting up relu1
I0428 20:36:32.992419  4811 net.cpp:131] Top shape: 100 10 (1000)
I0428 20:36:32.992422  4811 net.cpp:139] Memory required for data: 32322800
I0428 20:36:32.992426  4811 layer_factory.hpp:77] Creating layer ip1_relu1_0_split
I0428 20:36:32.992434  4811 net.cpp:86] Creating Layer ip1_relu1_0_split
I0428 20:36:32.992437  4811 net.cpp:408] ip1_relu1_0_split <- ip1
I0428 20:36:32.992444  4811 net.cpp:382] ip1_relu1_0_split -> ip1_relu1_0_split_0
I0428 20:36:32.992449  4811 net.cpp:382] ip1_relu1_0_split -> ip1_relu1_0_split_1
I0428 20:36:32.992491  4811 net.cpp:124] Setting up ip1_relu1_0_split
I0428 20:36:32.992496  4811 net.cpp:131] Top shape: 100 10 (1000)
I0428 20:36:32.992501  4811 net.cpp:131] Top shape: 100 10 (1000)
I0428 20:36:32.992503  4811 net.cpp:139] Memory required for data: 32330800
I0428 20:36:32.992506  4811 layer_factory.hpp:77] Creating layer accuracy
I0428 20:36:32.992511  4811 net.cpp:86] Creating Layer accuracy
I0428 20:36:32.992514  4811 net.cpp:408] accuracy <- ip1_relu1_0_split_0
I0428 20:36:32.992519  4811 net.cpp:408] accuracy <- label_mnist_1_split_0
I0428 20:36:32.992523  4811 net.cpp:382] accuracy -> accuracy
…
