…
I0428 20:18:55.878942  1265 net.cpp:296] The NetState phase (0) differed from the phase (1) specified by a rule in layer mnist
I0428 20:18:55.878958  1265 net.cpp:296] The NetState phase (0) differed from the phase (1) specified by a rule in layer accuracy
I0428 20:18:55.879043  1265 net.cpp:53] Initializing net from parameters: 
name: "LeNet"
state {
  phase: TRAIN
  level: 0
  stage: ""
}
layer {
  name: "mnist"
  type: "Data"
  top: "data"
  top: "label"
  include {
    phase: TRAIN
  }
  transform_param {
    scale: 0.00390625
  }
  data_param {
    source: "examples/mnist/mnist_train_lmdb"
    batch_size: 64
    backend: LMDB
  }
}
layer {
  name: "conv0"
  type: "Convolution"
  bottom: "data"
  top: "conv0"
  param {
    lr_mult: 1
  }
  param {
    lr_mult: 2
  }
  convolution_param {
    num_output: 50
    kernel_size: 5
    stride: 1
    weight_filler {
      type: "xavier"
    }
    bias_filler {
      type: "constant"
    }
  }
}
layer {
  name: "pool0"
  type: "Pooling"
  bottom: "conv0"
  top: "pool0"
  pooling_param {
    pool: MAX
    kernel_size: 2
    stride: 2
  }
}
layer {
  name: "conv1"
  type: "Convolution"
  bottom: "pool0"
  top: "conv1"
  param {
    lr_mult: 1
  }
  param {
    lr_mult: 2
  }
  convolution_param {
    num_output: 25
    kernel_size: 5
    stride: 1
    weight_filler {
      type: "xavier"
    }
    bias_filler {
      type: "constant"
    }
  }
}
layer {
  name: "pool1"
  type: "Pooling"
  bottom: "conv1"
  top: "pool1"
  pooling_param {
    pool: MAX
    kernel_size: 2
    stride: 2
  }
}
layer {
  name: "ip1"
  type: "InnerProduct"
  bottom: "pool1"
  top: "ip1"
  param {
    lr_mult: 1
  }
  param {
    lr_mult: 2
  }
  inner_product_param {
    num_output: 10
    weight_filler {
      type: "xavier"
    }
    bias_filler {
      type: "constant"
    }
  }
}
layer {
  name: "relu1"
  type: "ReLU"
  bottom: "ip1"
  top: "ip1"
}
layer {
  name: "ip2"
  type: "InnerProduct"
  bottom: "ip1"
  top: "ip2"
  param {
    lr_mult: 1
  }
  param {
    lr_mult: 2
  }
  inner_product_param {
    num_output: 10
    weight_filler {
      type: "xavier"
    }
    bias_filler {
      type: "constant"
    }
  }
}
layer {
  name: "relu2"
  type: "ReLU"
  bottom: "ip2"
  top: "ip2"
}
layer {
  name: "loss"
  type: "SoftmaxWithLoss"
  bottom: "ip2"
  bottom: "label"
  top: "loss"
}
I0428 20:18:55.879112  1265 layer_factory.hpp:77] Creating layer mnist
I0428 20:18:55.879214  1265 db_lmdb.cpp:35] Opened lmdb examples/mnist/mnist_train_lmdb
I0428 20:18:55.879237  1265 net.cpp:86] Creating Layer mnist
I0428 20:18:55.879246  1265 net.cpp:382] mnist -> data
I0428 20:18:55.879268  1265 net.cpp:382] mnist -> label
I0428 20:18:55.880374  1265 data_layer.cpp:45] output data size: 64,1,28,28
I0428 20:18:55.882839  1265 net.cpp:124] Setting up mnist
I0428 20:18:55.882858  1265 net.cpp:131] Top shape: 64 1 28 28 (50176)
I0428 20:18:55.882863  1265 net.cpp:131] Top shape: 64 (64)
I0428 20:18:55.882866  1265 net.cpp:139] Memory required for data: 200960
I0428 20:18:55.882874  1265 layer_factory.hpp:77] Creating layer conv0
I0428 20:18:55.882891  1265 net.cpp:86] Creating Layer conv0
I0428 20:18:55.882896  1265 net.cpp:408] conv0 <- data
I0428 20:18:55.882910  1265 net.cpp:382] conv0 -> conv0
I0428 20:18:56.177199  1265 net.cpp:124] Setting up conv0
I0428 20:18:56.177230  1265 net.cpp:131] Top shape: 64 50 24 24 (1843200)
I0428 20:18:56.177237  1265 net.cpp:139] Memory required for data: 7573760
I0428 20:18:56.177279  1265 layer_factory.hpp:77] Creating layer pool0
I0428 20:18:56.177294  1265 net.cpp:86] Creating Layer pool0
I0428 20:18:56.177299  1265 net.cpp:408] pool0 <- conv0
I0428 20:18:56.177306  1265 net.cpp:382] pool0 -> pool0
I0428 20:18:56.177362  1265 net.cpp:124] Setting up pool0
I0428 20:18:56.177372  1265 net.cpp:131] Top shape: 64 50 12 12 (460800)
I0428 20:18:56.177376  1265 net.cpp:139] Memory required for data: 9416960
I0428 20:18:56.177381  1265 layer_factory.hpp:77] Creating layer conv1
I0428 20:18:56.177393  1265 net.cpp:86] Creating Layer conv1
I0428 20:18:56.177397  1265 net.cpp:408] conv1 <- pool0
I0428 20:18:56.177403  1265 net.cpp:382] conv1 -> conv1
I0428 20:18:56.179735  1265 net.cpp:124] Setting up conv1
I0428 20:18:56.179754  1265 net.cpp:131] Top shape: 64 25 8 8 (102400)
I0428 20:18:56.179757  1265 net.cpp:139] Memory required for data: 9826560
I0428 20:18:56.179769  1265 layer_factory.hpp:77] Creating layer pool1
I0428 20:18:56.179777  1265 net.cpp:86] Creating Layer pool1
I0428 20:18:56.179781  1265 net.cpp:408] pool1 <- conv1
I0428 20:18:56.179787  1265 net.cpp:382] pool1 -> pool1
I0428 20:18:56.179831  1265 net.cpp:124] Setting up pool1
I0428 20:18:56.179841  1265 net.cpp:131] Top shape: 64 25 4 4 (25600)
I0428 20:18:56.179844  1265 net.cpp:139] Memory required for data: 9928960
I0428 20:18:56.179847  1265 layer_factory.hpp:77] Creating layer ip1
I0428 20:18:56.179857  1265 net.cpp:86] Creating Layer ip1
I0428 20:18:56.179860  1265 net.cpp:408] ip1 <- pool1
I0428 20:18:56.179865  1265 net.cpp:382] ip1 -> ip1
I0428 20:18:56.180016  1265 net.cpp:124] Setting up ip1
I0428 20:18:56.180025  1265 net.cpp:131] Top shape: 64 10 (640)
I0428 20:18:56.180029  1265 net.cpp:139] Memory required for data: 9931520
I0428 20:18:56.180037  1265 layer_factory.hpp:77] Creating layer relu1
I0428 20:18:56.180045  1265 net.cpp:86] Creating Layer relu1
I0428 20:18:56.180049  1265 net.cpp:408] relu1 <- ip1
I0428 20:18:56.180055  1265 net.cpp:369] relu1 -> ip1 (in-place)
I0428 20:18:56.180258  1265 net.cpp:124] Setting up relu1
I0428 20:18:56.180269  1265 net.cpp:131] Top shape: 64 10 (640)
I0428 20:18:56.180272  1265 net.cpp:139] Memory required for data: 9934080
I0428 20:18:56.180275  1265 layer_factory.hpp:77] Creating layer ip2
I0428 20:18:56.180284  1265 net.cpp:86] Creating Layer ip2
I0428 20:18:56.180289  1265 net.cpp:408] ip2 <- ip1
I0428 20:18:56.180294  1265 net.cpp:382] ip2 -> ip2
I0428 20:18:56.180410  1265 net.cpp:124] Setting up ip2
I0428 20:18:56.180419  1265 net.cpp:131] Top shape: 64 10 (640)
I0428 20:18:56.180423  1265 net.cpp:139] Memory required for data: 9936640
I0428 20:18:56.180429  1265 layer_factory.hpp:77] Creating layer relu2
I0428 20:18:56.180438  1265 net.cpp:86] Creating Layer relu2
I0428 20:18:56.180441  1265 net.cpp:408] relu2 <- ip2
I0428 20:18:56.180446  1265 net.cpp:369] relu2 -> ip2 (in-place)
I0428 20:18:56.181305  1265 net.cpp:124] Setting up relu2
I0428 20:18:56.181323  1265 net.cpp:131] Top shape: 64 10 (640)
I0428 20:18:56.181326  1265 net.cpp:139] Memory required for data: 9939200
I0428 20:18:56.181330  1265 layer_factory.hpp:77] Creating layer loss
I0428 20:18:56.181337  1265 net.cpp:86] Creating Layer loss
I0428 20:18:56.181341  1265 net.cpp:408] loss <- ip2
I0428 20:18:56.181346  1265 net.cpp:408] loss <- label
I0428 20:18:56.181354  1265 net.cpp:382] loss -> loss
I0428 20:18:56.181375  1265 layer_factory.hpp:77] Creating layer loss
…
I0428 20:18:56.182111  1265 solver.cpp:173] Creating test net (#0) specified by net file: ECE595/mnist/train_test/var_everything2/lenet_train_test1330.prototxt
I0428 20:18:56.182140  1265 net.cpp:296] The NetState phase (1) differed from the phase (0) specified by a rule in layer mnist
I0428 20:18:56.182246  1265 net.cpp:53] Initializing net from parameters: 
name: "LeNet"
state {
  phase: TEST
}
layer {
  name: "mnist"
  type: "Data"
  top: "data"
  top: "label"
  include {
    phase: TEST
  }
  transform_param {
    scale: 0.00390625
  }
  data_param {
    source: "examples/mnist/mnist_test_lmdb"
    batch_size: 100
    backend: LMDB
  }
}
layer {
  name: "conv0"
  type: "Convolution"
  bottom: "data"
  top: "conv0"
  param {
    lr_mult: 1
  }
  param {
    lr_mult: 2
  }
  convolution_param {
    num_output: 50
    kernel_size: 5
    stride: 1
    weight_filler {
      type: "xavier"
    }
    bias_filler {
      type: "constant"
    }
  }
}
layer {
  name: "pool0"
  type: "Pooling"
  bottom: "conv0"
  top: "pool0"
  pooling_param {
    pool: MAX
    kernel_size: 2
    stride: 2
  }
}
layer {
  name: "conv1"
  type: "Convolution"
  bottom: "pool0"
  top: "conv1"
  param {
    lr_mult: 1
  }
  param {
    lr_mult: 2
  }
  convolution_param {
    num_output: 25
    kernel_size: 5
    stride: 1
    weight_filler {
      type: "xavier"
    }
    bias_filler {
      type: "constant"
    }
  }
}
layer {
  name: "pool1"
  type: "Pooling"
  bottom: "conv1"
  top: "pool1"
  pooling_param {
    pool: MAX
    kernel_size: 2
    stride: 2
  }
}
layer {
  name: "ip1"
  type: "InnerProduct"
  bottom: "pool1"
  top: "ip1"
  param {
    lr_mult: 1
  }
  param {
    lr_mult: 2
  }
  inner_product_param {
    num_output: 10
    weight_filler {
      type: "xavier"
    }
    bias_filler {
      type: "constant"
    }
  }
}
layer {
  name: "relu1"
  type: "ReLU"
  bottom: "ip1"
  top: "ip1"
}
layer {
  name: "ip2"
  type: "InnerProduct"
  bottom: "ip1"
  top: "ip2"
  param {
    lr_mult: 1
  }
  param {
    lr_mult: 2
  }
  inner_product_param {
    num_output: 10
    weight_filler {
      type: "xavier"
    }
    bias_filler {
      type: "constant"
    }
  }
}
layer {
  name: "relu2"
  type: "ReLU"
  bottom: "ip2"
  top: "ip2"
}
layer {
  name: "accuracy"
  type: "Accuracy"
  bottom: "ip2"
  bottom: "label"
  top: "accuracy"
  include {
    phase: TEST
  }
}
layer {
  name: "loss"
  type: "SoftmaxWithLoss"
  bottom: "ip2"
  bottom: "label"
  top: "loss"
}
I0428 20:18:56.182327  1265 layer_factory.hpp:77] Creating layer mnist
I0428 20:18:56.182380  1265 db_lmdb.cpp:35] Opened lmdb examples/mnist/mnist_test_lmdb
I0428 20:18:56.182395  1265 net.cpp:86] Creating Layer mnist
I0428 20:18:56.182402  1265 net.cpp:382] mnist -> data
I0428 20:18:56.182411  1265 net.cpp:382] mnist -> label
I0428 20:18:56.182516  1265 data_layer.cpp:45] output data size: 100,1,28,28
I0428 20:18:56.184701  1265 net.cpp:124] Setting up mnist
I0428 20:18:56.184717  1265 net.cpp:131] Top shape: 100 1 28 28 (78400)
I0428 20:18:56.184723  1265 net.cpp:131] Top shape: 100 (100)
I0428 20:18:56.184726  1265 net.cpp:139] Memory required for data: 314000
I0428 20:18:56.184731  1265 layer_factory.hpp:77] Creating layer label_mnist_1_split
I0428 20:18:56.184765  1265 net.cpp:86] Creating Layer label_mnist_1_split
I0428 20:18:56.184772  1265 net.cpp:408] label_mnist_1_split <- label
I0428 20:18:56.184777  1265 net.cpp:382] label_mnist_1_split -> label_mnist_1_split_0
I0428 20:18:56.184785  1265 net.cpp:382] label_mnist_1_split -> label_mnist_1_split_1
I0428 20:18:56.184918  1265 net.cpp:124] Setting up label_mnist_1_split
I0428 20:18:56.184928  1265 net.cpp:131] Top shape: 100 (100)
I0428 20:18:56.184933  1265 net.cpp:131] Top shape: 100 (100)
I0428 20:18:56.184937  1265 net.cpp:139] Memory required for data: 314800
I0428 20:18:56.184940  1265 layer_factory.hpp:77] Creating layer conv0
I0428 20:18:56.184952  1265 net.cpp:86] Creating Layer conv0
I0428 20:18:56.184960  1265 net.cpp:408] conv0 <- data
I0428 20:18:56.184968  1265 net.cpp:382] conv0 -> conv0
I0428 20:18:56.186894  1265 net.cpp:124] Setting up conv0
I0428 20:18:56.186911  1265 net.cpp:131] Top shape: 100 50 24 24 (2880000)
I0428 20:18:56.186916  1265 net.cpp:139] Memory required for data: 11834800
I0428 20:18:56.186928  1265 layer_factory.hpp:77] Creating layer pool0
I0428 20:18:56.186936  1265 net.cpp:86] Creating Layer pool0
I0428 20:18:56.186940  1265 net.cpp:408] pool0 <- conv0
I0428 20:18:56.186946  1265 net.cpp:382] pool0 -> pool0
I0428 20:18:56.186992  1265 net.cpp:124] Setting up pool0
I0428 20:18:56.187000  1265 net.cpp:131] Top shape: 100 50 12 12 (720000)
I0428 20:18:56.187003  1265 net.cpp:139] Memory required for data: 14714800
I0428 20:18:56.187007  1265 layer_factory.hpp:77] Creating layer conv1
I0428 20:18:56.187018  1265 net.cpp:86] Creating Layer conv1
I0428 20:18:56.187024  1265 net.cpp:408] conv1 <- pool0
I0428 20:18:56.187033  1265 net.cpp:382] conv1 -> conv1
I0428 20:18:56.189043  1265 net.cpp:124] Setting up conv1
I0428 20:18:56.189059  1265 net.cpp:131] Top shape: 100 25 8 8 (160000)
I0428 20:18:56.189062  1265 net.cpp:139] Memory required for data: 15354800
I0428 20:18:56.189074  1265 layer_factory.hpp:77] Creating layer pool1
I0428 20:18:56.189080  1265 net.cpp:86] Creating Layer pool1
I0428 20:18:56.189085  1265 net.cpp:408] pool1 <- conv1
I0428 20:18:56.189092  1265 net.cpp:382] pool1 -> pool1
I0428 20:18:56.189138  1265 net.cpp:124] Setting up pool1
I0428 20:18:56.189149  1265 net.cpp:131] Top shape: 100 25 4 4 (40000)
I0428 20:18:56.189152  1265 net.cpp:139] Memory required for data: 15514800
I0428 20:18:56.189157  1265 layer_factory.hpp:77] Creating layer ip1
I0428 20:18:56.189163  1265 net.cpp:86] Creating Layer ip1
I0428 20:18:56.189167  1265 net.cpp:408] ip1 <- pool1
I0428 20:18:56.189175  1265 net.cpp:382] ip1 -> ip1
I0428 20:18:56.189330  1265 net.cpp:124] Setting up ip1
I0428 20:18:56.189339  1265 net.cpp:131] Top shape: 100 10 (1000)
I0428 20:18:56.189342  1265 net.cpp:139] Memory required for data: 15518800
I0428 20:18:56.189363  1265 layer_factory.hpp:77] Creating layer relu1
I0428 20:18:56.189369  1265 net.cpp:86] Creating Layer relu1
I0428 20:18:56.189373  1265 net.cpp:408] relu1 <- ip1
I0428 20:18:56.189381  1265 net.cpp:369] relu1 -> ip1 (in-place)
I0428 20:18:56.189574  1265 net.cpp:124] Setting up relu1
I0428 20:18:56.189584  1265 net.cpp:131] Top shape: 100 10 (1000)
I0428 20:18:56.189589  1265 net.cpp:139] Memory required for data: 15522800
I0428 20:18:56.189592  1265 layer_factory.hpp:77] Creating layer ip2
I0428 20:18:56.189601  1265 net.cpp:86] Creating Layer ip2
I0428 20:18:56.189605  1265 net.cpp:408] ip2 <- ip1
I0428 20:18:56.189612  1265 net.cpp:382] ip2 -> ip2
I0428 20:18:56.189731  1265 net.cpp:124] Setting up ip2
I0428 20:18:56.189739  1265 net.cpp:131] Top shape: 100 10 (1000)
I0428 20:18:56.189743  1265 net.cpp:139] Memory required for data: 15526800
I0428 20:18:56.189749  1265 layer_factory.hpp:77] Creating layer relu2
I0428 20:18:56.189755  1265 net.cpp:86] Creating Layer relu2
I0428 20:18:56.189759  1265 net.cpp:408] relu2 <- ip2
I0428 20:18:56.189764  1265 net.cpp:369] relu2 -> ip2 (in-place)
I0428 20:18:56.190008  1265 net.cpp:124] Setting up relu2
I0428 20:18:56.190018  1265 net.cpp:131] Top shape: 100 10 (1000)
I0428 20:18:56.190022  1265 net.cpp:139] Memory required for data: 15530800
I0428 20:18:56.190026  1265 layer_factory.hpp:77] Creating layer ip2_relu2_0_split
I0428 20:18:56.190032  1265 net.cpp:86] Creating Layer ip2_relu2_0_split
I0428 20:18:56.190035  1265 net.cpp:408] ip2_relu2_0_split <- ip2
I0428 20:18:56.190042  1265 net.cpp:382] ip2_relu2_0_split -> ip2_relu2_0_split_0
I0428 20:18:56.190060  1265 net.cpp:382] ip2_relu2_0_split -> ip2_relu2_0_split_1
I0428 20:18:56.190104  1265 net.cpp:124] Setting up ip2_relu2_0_split
I0428 20:18:56.190112  1265 net.cpp:131] Top shape: 100 10 (1000)
I0428 20:18:56.190116  1265 net.cpp:131] Top shape: 100 10 (1000)
I0428 20:18:56.190120  1265 net.cpp:139] Memory required for data: 15538800
I0428 20:18:56.190124  1265 layer_factory.hpp:77] Creating layer accuracy
I0428 20:18:56.190132  1265 net.cpp:86] Creating Layer accuracy
I0428 20:18:56.190136  1265 net.cpp:408] accuracy <- ip2_relu2_0_split_0
I0428 20:18:56.190141  1265 net.cpp:408] accuracy <- label_mnist_1_split_0
I0428 20:18:56.190148  1265 net.cpp:382] accuracy -> accuracy
…
