…
I0428 20:34:09.107538  4430 net.cpp:296] The NetState phase (0) differed from the phase (1) specified by a rule in layer mnist
I0428 20:34:09.107552  4430 net.cpp:296] The NetState phase (0) differed from the phase (1) specified by a rule in layer accuracy
I0428 20:34:09.107616  4430 net.cpp:53] Initializing net from parameters: 
name: "LeNet"
state {
  phase: TRAIN
  level: 0
  stage: ""
}
layer {
  name: "mnist"
  type: "Data"
  top: "data"
  top: "label"
  include {
    phase: TRAIN
  }
  transform_param {
    scale: 0.00390625
  }
  data_param {
    source: "examples/mnist/mnist_train_lmdb"
    batch_size: 64
    backend: LMDB
  }
}
layer {
  name: "conv0"
  type: "Convolution"
  bottom: "data"
  top: "conv0"
  param {
    lr_mult: 1
  }
  param {
    lr_mult: 2
  }
  convolution_param {
    num_output: 100
    kernel_size: 5
    stride: 1
    weight_filler {
      type: "xavier"
    }
    bias_filler {
      type: "constant"
    }
  }
}
layer {
  name: "pool0"
  type: "Pooling"
  bottom: "conv0"
  top: "pool0"
  pooling_param {
    pool: MAX
    kernel_size: 2
    stride: 2
  }
}
layer {
  name: "conv1"
  type: "Convolution"
  bottom: "pool0"
  top: "conv1"
  param {
    lr_mult: 1
  }
  param {
    lr_mult: 2
  }
  convolution_param {
    num_output: 50
    kernel_size: 5
    stride: 1
    weight_filler {
      type: "xavier"
    }
    bias_filler {
      type: "constant"
    }
  }
}
layer {
  name: "pool1"
  type: "Pooling"
  bottom: "conv1"
  top: "pool1"
  pooling_param {
    pool: MAX
    kernel_size: 2
    stride: 2
  }
}
layer {
  name: "ip1"
  type: "InnerProduct"
  bottom: "pool1"
  top: "ip1"
  param {
    lr_mult: 1
  }
  param {
    lr_mult: 2
  }
  inner_product_param {
    num_output: 10
    weight_filler {
      type: "xavier"
    }
    bias_filler {
      type: "constant"
    }
  }
}
layer {
  name: "relu1"
  type: "ReLU"
  bottom: "ip1"
  top: "ip1"
}
layer {
  name: "loss"
  type: "SoftmaxWithLoss"
  bottom: "ip1"
  bottom: "label"
  top: "loss"
}
I0428 20:34:09.107671  4430 layer_factory.hpp:77] Creating layer mnist
I0428 20:34:09.107753  4430 db_lmdb.cpp:35] Opened lmdb examples/mnist/mnist_train_lmdb
I0428 20:34:09.107771  4430 net.cpp:86] Creating Layer mnist
I0428 20:34:09.107779  4430 net.cpp:382] mnist -> data
I0428 20:34:09.107796  4430 net.cpp:382] mnist -> label
I0428 20:34:09.108759  4430 data_layer.cpp:45] output data size: 64,1,28,28
I0428 20:34:09.110869  4430 net.cpp:124] Setting up mnist
I0428 20:34:09.110914  4430 net.cpp:131] Top shape: 64 1 28 28 (50176)
I0428 20:34:09.110919  4430 net.cpp:131] Top shape: 64 (64)
I0428 20:34:09.110922  4430 net.cpp:139] Memory required for data: 200960
I0428 20:34:09.110929  4430 layer_factory.hpp:77] Creating layer conv0
I0428 20:34:09.110966  4430 net.cpp:86] Creating Layer conv0
I0428 20:34:09.110971  4430 net.cpp:408] conv0 <- data
I0428 20:34:09.110982  4430 net.cpp:382] conv0 -> conv0
I0428 20:34:09.345481  4430 net.cpp:124] Setting up conv0
I0428 20:34:09.345523  4430 net.cpp:131] Top shape: 64 100 24 24 (3686400)
I0428 20:34:09.345527  4430 net.cpp:139] Memory required for data: 14946560
I0428 20:34:09.345541  4430 layer_factory.hpp:77] Creating layer pool0
I0428 20:34:09.345554  4430 net.cpp:86] Creating Layer pool0
I0428 20:34:09.345557  4430 net.cpp:408] pool0 <- conv0
I0428 20:34:09.345562  4430 net.cpp:382] pool0 -> pool0
I0428 20:34:09.345623  4430 net.cpp:124] Setting up pool0
I0428 20:34:09.345628  4430 net.cpp:131] Top shape: 64 100 12 12 (921600)
I0428 20:34:09.345646  4430 net.cpp:139] Memory required for data: 18632960
I0428 20:34:09.345650  4430 layer_factory.hpp:77] Creating layer conv1
I0428 20:34:09.345660  4430 net.cpp:86] Creating Layer conv1
I0428 20:34:09.345664  4430 net.cpp:408] conv1 <- pool0
I0428 20:34:09.345669  4430 net.cpp:382] conv1 -> conv1
I0428 20:34:09.349231  4430 net.cpp:124] Setting up conv1
I0428 20:34:09.349261  4430 net.cpp:131] Top shape: 64 50 8 8 (204800)
I0428 20:34:09.349264  4430 net.cpp:139] Memory required for data: 19452160
I0428 20:34:09.349272  4430 layer_factory.hpp:77] Creating layer pool1
I0428 20:34:09.349279  4430 net.cpp:86] Creating Layer pool1
I0428 20:34:09.349282  4430 net.cpp:408] pool1 <- conv1
I0428 20:34:09.349287  4430 net.cpp:382] pool1 -> pool1
I0428 20:34:09.349354  4430 net.cpp:124] Setting up pool1
I0428 20:34:09.349359  4430 net.cpp:131] Top shape: 64 50 4 4 (51200)
I0428 20:34:09.349361  4430 net.cpp:139] Memory required for data: 19656960
I0428 20:34:09.349364  4430 layer_factory.hpp:77] Creating layer ip1
I0428 20:34:09.349370  4430 net.cpp:86] Creating Layer ip1
I0428 20:34:09.349373  4430 net.cpp:408] ip1 <- pool1
I0428 20:34:09.349378  4430 net.cpp:382] ip1 -> ip1
I0428 20:34:09.350407  4430 net.cpp:124] Setting up ip1
I0428 20:34:09.350435  4430 net.cpp:131] Top shape: 64 10 (640)
I0428 20:34:09.350453  4430 net.cpp:139] Memory required for data: 19659520
I0428 20:34:09.350462  4430 layer_factory.hpp:77] Creating layer relu1
I0428 20:34:09.350468  4430 net.cpp:86] Creating Layer relu1
I0428 20:34:09.350472  4430 net.cpp:408] relu1 <- ip1
I0428 20:34:09.350477  4430 net.cpp:369] relu1 -> ip1 (in-place)
I0428 20:34:09.350729  4430 net.cpp:124] Setting up relu1
I0428 20:34:09.350739  4430 net.cpp:131] Top shape: 64 10 (640)
I0428 20:34:09.350742  4430 net.cpp:139] Memory required for data: 19662080
I0428 20:34:09.350746  4430 layer_factory.hpp:77] Creating layer loss
I0428 20:34:09.350752  4430 net.cpp:86] Creating Layer loss
I0428 20:34:09.350755  4430 net.cpp:408] loss <- ip1
I0428 20:34:09.350759  4430 net.cpp:408] loss <- label
I0428 20:34:09.350765  4430 net.cpp:382] loss -> loss
I0428 20:34:09.350778  4430 layer_factory.hpp:77] Creating layer loss
…
I0428 20:34:09.352030  4430 solver.cpp:173] Creating test net (#0) specified by net file: ECE595/mnist/train_test/var_everything2/lenet_train_test1600.prototxt
I0428 20:34:09.352069  4430 net.cpp:296] The NetState phase (1) differed from the phase (0) specified by a rule in layer mnist
I0428 20:34:09.352143  4430 net.cpp:53] Initializing net from parameters: 
name: "LeNet"
state {
  phase: TEST
}
layer {
  name: "mnist"
  type: "Data"
  top: "data"
  top: "label"
  include {
    phase: TEST
  }
  transform_param {
    scale: 0.00390625
  }
  data_param {
    source: "examples/mnist/mnist_test_lmdb"
    batch_size: 100
    backend: LMDB
  }
}
layer {
  name: "conv0"
  type: "Convolution"
  bottom: "data"
  top: "conv0"
  param {
    lr_mult: 1
  }
  param {
    lr_mult: 2
  }
  convolution_param {
    num_output: 100
    kernel_size: 5
    stride: 1
    weight_filler {
      type: "xavier"
    }
    bias_filler {
      type: "constant"
    }
  }
}
layer {
  name: "pool0"
  type: "Pooling"
  bottom: "conv0"
  top: "pool0"
  pooling_param {
    pool: MAX
    kernel_size: 2
    stride: 2
  }
}
layer {
  name: "conv1"
  type: "Convolution"
  bottom: "pool0"
  top: "conv1"
  param {
    lr_mult: 1
  }
  param {
    lr_mult: 2
  }
  convolution_param {
    num_output: 50
    kernel_size: 5
    stride: 1
    weight_filler {
      type: "xavier"
    }
    bias_filler {
      type: "constant"
    }
  }
}
layer {
  name: "pool1"
  type: "Pooling"
  bottom: "conv1"
  top: "pool1"
  pooling_param {
    pool: MAX
    kernel_size: 2
    stride: 2
  }
}
layer {
  name: "ip1"
  type: "InnerProduct"
  bottom: "pool1"
  top: "ip1"
  param {
    lr_mult: 1
  }
  param {
    lr_mult: 2
  }
  inner_product_param {
    num_output: 10
    weight_filler {
      type: "xavier"
    }
    bias_filler {
      type: "constant"
    }
  }
}
layer {
  name: "relu1"
  type: "ReLU"
  bottom: "ip1"
  top: "ip1"
}
layer {
  name: "accuracy"
  type: "Accuracy"
  bottom: "ip1"
  bottom: "label"
  top: "accuracy"
  include {
    phase: TEST
  }
}
layer {
  name: "loss"
  type: "SoftmaxWithLoss"
  bottom: "ip1"
  bottom: "label"
  top: "loss"
}
I0428 20:34:09.352216  4430 layer_factory.hpp:77] Creating layer mnist
I0428 20:34:09.352258  4430 db_lmdb.cpp:35] Opened lmdb examples/mnist/mnist_test_lmdb
I0428 20:34:09.352272  4430 net.cpp:86] Creating Layer mnist
I0428 20:34:09.352275  4430 net.cpp:382] mnist -> data
I0428 20:34:09.352284  4430 net.cpp:382] mnist -> label
I0428 20:34:09.352385  4430 data_layer.cpp:45] output data size: 100,1,28,28
I0428 20:34:09.353613  4430 net.cpp:124] Setting up mnist
I0428 20:34:09.353658  4430 net.cpp:131] Top shape: 100 1 28 28 (78400)
I0428 20:34:09.353663  4430 net.cpp:131] Top shape: 100 (100)
I0428 20:34:09.353665  4430 net.cpp:139] Memory required for data: 314000
I0428 20:34:09.353669  4430 layer_factory.hpp:77] Creating layer label_mnist_1_split
I0428 20:34:09.353677  4430 net.cpp:86] Creating Layer label_mnist_1_split
I0428 20:34:09.353679  4430 net.cpp:408] label_mnist_1_split <- label
I0428 20:34:09.353704  4430 net.cpp:382] label_mnist_1_split -> label_mnist_1_split_0
I0428 20:34:09.353711  4430 net.cpp:382] label_mnist_1_split -> label_mnist_1_split_1
I0428 20:34:09.353760  4430 net.cpp:124] Setting up label_mnist_1_split
I0428 20:34:09.353768  4430 net.cpp:131] Top shape: 100 (100)
I0428 20:34:09.353772  4430 net.cpp:131] Top shape: 100 (100)
I0428 20:34:09.353775  4430 net.cpp:139] Memory required for data: 314800
I0428 20:34:09.353777  4430 layer_factory.hpp:77] Creating layer conv0
I0428 20:34:09.353786  4430 net.cpp:86] Creating Layer conv0
I0428 20:34:09.353790  4430 net.cpp:408] conv0 <- data
I0428 20:34:09.353796  4430 net.cpp:382] conv0 -> conv0
I0428 20:34:09.354881  4430 net.cpp:124] Setting up conv0
I0428 20:34:09.354912  4430 net.cpp:131] Top shape: 100 100 24 24 (5760000)
I0428 20:34:09.354914  4430 net.cpp:139] Memory required for data: 23354800
I0428 20:34:09.354924  4430 layer_factory.hpp:77] Creating layer pool0
I0428 20:34:09.354930  4430 net.cpp:86] Creating Layer pool0
I0428 20:34:09.354933  4430 net.cpp:408] pool0 <- conv0
I0428 20:34:09.354939  4430 net.cpp:382] pool0 -> pool0
I0428 20:34:09.354976  4430 net.cpp:124] Setting up pool0
I0428 20:34:09.354984  4430 net.cpp:131] Top shape: 100 100 12 12 (1440000)
I0428 20:34:09.354986  4430 net.cpp:139] Memory required for data: 29114800
I0428 20:34:09.354990  4430 layer_factory.hpp:77] Creating layer conv1
I0428 20:34:09.354998  4430 net.cpp:86] Creating Layer conv1
I0428 20:34:09.355001  4430 net.cpp:408] conv1 <- pool0
I0428 20:34:09.355006  4430 net.cpp:382] conv1 -> conv1
I0428 20:34:09.358132  4430 net.cpp:124] Setting up conv1
I0428 20:34:09.358178  4430 net.cpp:131] Top shape: 100 50 8 8 (320000)
I0428 20:34:09.358182  4430 net.cpp:139] Memory required for data: 30394800
I0428 20:34:09.358206  4430 layer_factory.hpp:77] Creating layer pool1
I0428 20:34:09.358213  4430 net.cpp:86] Creating Layer pool1
I0428 20:34:09.358247  4430 net.cpp:408] pool1 <- conv1
I0428 20:34:09.358252  4430 net.cpp:382] pool1 -> pool1
I0428 20:34:09.358289  4430 net.cpp:124] Setting up pool1
I0428 20:34:09.358295  4430 net.cpp:131] Top shape: 100 50 4 4 (80000)
I0428 20:34:09.358297  4430 net.cpp:139] Memory required for data: 30714800
I0428 20:34:09.358301  4430 layer_factory.hpp:77] Creating layer ip1
I0428 20:34:09.358309  4430 net.cpp:86] Creating Layer ip1
I0428 20:34:09.358311  4430 net.cpp:408] ip1 <- pool1
I0428 20:34:09.358316  4430 net.cpp:382] ip1 -> ip1
I0428 20:34:09.358454  4430 net.cpp:124] Setting up ip1
I0428 20:34:09.358463  4430 net.cpp:131] Top shape: 100 10 (1000)
I0428 20:34:09.358471  4430 net.cpp:139] Memory required for data: 30718800
I0428 20:34:09.358479  4430 layer_factory.hpp:77] Creating layer relu1
I0428 20:34:09.358484  4430 net.cpp:86] Creating Layer relu1
I0428 20:34:09.358489  4430 net.cpp:408] relu1 <- ip1
I0428 20:34:09.358492  4430 net.cpp:369] relu1 -> ip1 (in-place)
I0428 20:34:09.359321  4430 net.cpp:124] Setting up relu1
I0428 20:34:09.359331  4430 net.cpp:131] Top shape: 100 10 (1000)
I0428 20:34:09.359350  4430 net.cpp:139] Memory required for data: 30722800
I0428 20:34:09.359354  4430 layer_factory.hpp:77] Creating layer ip1_relu1_0_split
I0428 20:34:09.359361  4430 net.cpp:86] Creating Layer ip1_relu1_0_split
I0428 20:34:09.359364  4430 net.cpp:408] ip1_relu1_0_split <- ip1
I0428 20:34:09.359369  4430 net.cpp:382] ip1_relu1_0_split -> ip1_relu1_0_split_0
I0428 20:34:09.359380  4430 net.cpp:382] ip1_relu1_0_split -> ip1_relu1_0_split_1
I0428 20:34:09.359452  4430 net.cpp:124] Setting up ip1_relu1_0_split
I0428 20:34:09.359459  4430 net.cpp:131] Top shape: 100 10 (1000)
I0428 20:34:09.359463  4430 net.cpp:131] Top shape: 100 10 (1000)
I0428 20:34:09.359465  4430 net.cpp:139] Memory required for data: 30730800
I0428 20:34:09.359468  4430 layer_factory.hpp:77] Creating layer accuracy
I0428 20:34:09.359474  4430 net.cpp:86] Creating Layer accuracy
I0428 20:34:09.359478  4430 net.cpp:408] accuracy <- ip1_relu1_0_split_0
I0428 20:34:09.359482  4430 net.cpp:408] accuracy <- label_mnist_1_split_0
I0428 20:34:09.359486  4430 net.cpp:382] accuracy -> accuracy
…
