…
I0428 19:40:45.910185 24627 net.cpp:296] The NetState phase (0) differed from the phase (1) specified by a rule in layer mnist
I0428 19:40:45.910207 24627 net.cpp:296] The NetState phase (0) differed from the phase (1) specified by a rule in layer accuracy
I0428 19:40:45.910295 24627 net.cpp:53] Initializing net from parameters: 
name: "LeNet"
state {
  phase: TRAIN
  level: 0
  stage: ""
}
layer {
  name: "mnist"
  type: "Data"
  top: "data"
  top: "label"
  include {
    phase: TRAIN
  }
  transform_param {
    scale: 0.00390625
  }
  data_param {
    source: "examples/mnist/mnist_train_lmdb"
    batch_size: 64
    backend: LMDB
  }
}
layer {
  name: "conv0"
  type: "Convolution"
  bottom: "data"
  top: "conv0"
  param {
    lr_mult: 1
  }
  param {
    lr_mult: 2
  }
  convolution_param {
    num_output: 2
    kernel_size: 5
    stride: 1
    weight_filler {
      type: "xavier"
    }
    bias_filler {
      type: "constant"
    }
  }
}
layer {
  name: "pool0"
  type: "Pooling"
  bottom: "conv0"
  top: "pool0"
  pooling_param {
    pool: MAX
    kernel_size: 2
    stride: 2
  }
}
layer {
  name: "conv1"
  type: "Convolution"
  bottom: "pool0"
  top: "conv1"
  param {
    lr_mult: 1
  }
  param {
    lr_mult: 2
  }
  convolution_param {
    num_output: 5
    kernel_size: 5
    stride: 1
    weight_filler {
      type: "xavier"
    }
    bias_filler {
      type: "constant"
    }
  }
}
layer {
  name: "pool1"
  type: "Pooling"
  bottom: "conv1"
  top: "pool1"
  pooling_param {
    pool: MAX
    kernel_size: 2
    stride: 2
  }
}
layer {
  name: "ip1"
  type: "InnerProduct"
  bottom: "pool1"
  top: "ip1"
  param {
    lr_mult: 1
  }
  param {
    lr_mult: 2
  }
  inner_product_param {
    num_output: 50
    weight_filler {
      type: "xavier"
    }
    bias_filler {
      type: "constant"
    }
  }
}
layer {
  name: "relu1"
  type: "ReLU"
  bottom: "ip1"
  top: "ip1"
}
layer {
  name: "ip2"
  type: "InnerProduct"
  bottom: "ip1"
  top: "ip2"
  param {
    lr_mult: 1
  }
  param {
    lr_mult: 2
  }
  inner_product_param {
    num_output: 10
    weight_filler {
      type: "xavier"
    }
    bias_filler {
      type: "constant"
    }
  }
}
layer {
  name: "relu2"
  type: "ReLU"
  bottom: "ip2"
  top: "ip2"
}
layer {
  name: "ip3"
  type: "InnerProduct"
  bottom: "ip2"
  top: "ip3"
  param {
    lr_mult: 1
  }
  param {
    lr_mult: 2
  }
  inner_product_param {
    num_output: 10
    weight_filler {
      type: "xavier"
    }
    bias_filler {
      type: "constant"
    }
  }
}
layer {
  name: "relu3"
  type: "ReLU"
  bottom: "ip3"
  top: "ip3"
}
layer {
  name: "loss"
  type: "SoftmaxWithLoss"
  bottom: "ip3"
  bottom: "label"
  top: "loss"
}
I0428 19:40:45.910385 24627 layer_factory.hpp:77] Creating layer mnist
I0428 19:40:45.910492 24627 db_lmdb.cpp:35] Opened lmdb examples/mnist/mnist_train_lmdb
I0428 19:40:45.910518 24627 net.cpp:86] Creating Layer mnist
I0428 19:40:45.910529 24627 net.cpp:382] mnist -> data
I0428 19:40:45.910554 24627 net.cpp:382] mnist -> label
I0428 19:40:45.911602 24627 data_layer.cpp:45] output data size: 64,1,28,28
I0428 19:40:45.913851 24627 net.cpp:124] Setting up mnist
I0428 19:40:45.913884 24627 net.cpp:131] Top shape: 64 1 28 28 (50176)
I0428 19:40:45.913893 24627 net.cpp:131] Top shape: 64 (64)
I0428 19:40:45.913898 24627 net.cpp:139] Memory required for data: 200960
I0428 19:40:45.913908 24627 layer_factory.hpp:77] Creating layer conv0
I0428 19:40:45.913928 24627 net.cpp:86] Creating Layer conv0
I0428 19:40:45.913950 24627 net.cpp:408] conv0 <- data
I0428 19:40:45.913969 24627 net.cpp:382] conv0 -> conv0
I0428 19:40:46.163998 24627 net.cpp:124] Setting up conv0
I0428 19:40:46.164024 24627 net.cpp:131] Top shape: 64 2 24 24 (73728)
I0428 19:40:46.164031 24627 net.cpp:139] Memory required for data: 495872
I0428 19:40:46.164064 24627 layer_factory.hpp:77] Creating layer pool0
I0428 19:40:46.164083 24627 net.cpp:86] Creating Layer pool0
I0428 19:40:46.164096 24627 net.cpp:408] pool0 <- conv0
I0428 19:40:46.164105 24627 net.cpp:382] pool0 -> pool0
I0428 19:40:46.164175 24627 net.cpp:124] Setting up pool0
I0428 19:40:46.164197 24627 net.cpp:131] Top shape: 64 2 12 12 (18432)
I0428 19:40:46.164202 24627 net.cpp:139] Memory required for data: 569600
I0428 19:40:46.164207 24627 layer_factory.hpp:77] Creating layer conv1
I0428 19:40:46.164223 24627 net.cpp:86] Creating Layer conv1
I0428 19:40:46.164229 24627 net.cpp:408] conv1 <- pool0
I0428 19:40:46.164238 24627 net.cpp:382] conv1 -> conv1
I0428 19:40:46.166306 24627 net.cpp:124] Setting up conv1
I0428 19:40:46.166321 24627 net.cpp:131] Top shape: 64 5 8 8 (20480)
I0428 19:40:46.166327 24627 net.cpp:139] Memory required for data: 651520
I0428 19:40:46.166340 24627 layer_factory.hpp:77] Creating layer pool1
I0428 19:40:46.166352 24627 net.cpp:86] Creating Layer pool1
I0428 19:40:46.166358 24627 net.cpp:408] pool1 <- conv1
I0428 19:40:46.166368 24627 net.cpp:382] pool1 -> pool1
I0428 19:40:46.166410 24627 net.cpp:124] Setting up pool1
I0428 19:40:46.166419 24627 net.cpp:131] Top shape: 64 5 4 4 (5120)
I0428 19:40:46.166424 24627 net.cpp:139] Memory required for data: 672000
I0428 19:40:46.166429 24627 layer_factory.hpp:77] Creating layer ip1
I0428 19:40:46.166440 24627 net.cpp:86] Creating Layer ip1
I0428 19:40:46.166450 24627 net.cpp:408] ip1 <- pool1
I0428 19:40:46.166460 24627 net.cpp:382] ip1 -> ip1
I0428 19:40:46.167472 24627 net.cpp:124] Setting up ip1
I0428 19:40:46.167487 24627 net.cpp:131] Top shape: 64 50 (3200)
I0428 19:40:46.167492 24627 net.cpp:139] Memory required for data: 684800
I0428 19:40:46.167505 24627 layer_factory.hpp:77] Creating layer relu1
I0428 19:40:46.167529 24627 net.cpp:86] Creating Layer relu1
I0428 19:40:46.167541 24627 net.cpp:408] relu1 <- ip1
I0428 19:40:46.167548 24627 net.cpp:369] relu1 -> ip1 (in-place)
I0428 19:40:46.167771 24627 net.cpp:124] Setting up relu1
I0428 19:40:46.167783 24627 net.cpp:131] Top shape: 64 50 (3200)
I0428 19:40:46.167788 24627 net.cpp:139] Memory required for data: 697600
I0428 19:40:46.167793 24627 layer_factory.hpp:77] Creating layer ip2
I0428 19:40:46.167820 24627 net.cpp:86] Creating Layer ip2
I0428 19:40:46.167826 24627 net.cpp:408] ip2 <- ip1
I0428 19:40:46.167836 24627 net.cpp:382] ip2 -> ip2
I0428 19:40:46.167966 24627 net.cpp:124] Setting up ip2
I0428 19:40:46.167990 24627 net.cpp:131] Top shape: 64 10 (640)
I0428 19:40:46.167996 24627 net.cpp:139] Memory required for data: 700160
I0428 19:40:46.168006 24627 layer_factory.hpp:77] Creating layer relu2
I0428 19:40:46.168017 24627 net.cpp:86] Creating Layer relu2
I0428 19:40:46.168025 24627 net.cpp:408] relu2 <- ip2
I0428 19:40:46.168032 24627 net.cpp:369] relu2 -> ip2 (in-place)
I0428 19:40:46.168988 24627 net.cpp:124] Setting up relu2
I0428 19:40:46.169003 24627 net.cpp:131] Top shape: 64 10 (640)
I0428 19:40:46.169008 24627 net.cpp:139] Memory required for data: 702720
I0428 19:40:46.169014 24627 layer_factory.hpp:77] Creating layer ip3
I0428 19:40:46.169025 24627 net.cpp:86] Creating Layer ip3
I0428 19:40:46.169031 24627 net.cpp:408] ip3 <- ip2
I0428 19:40:46.169041 24627 net.cpp:382] ip3 -> ip3
I0428 19:40:46.169149 24627 net.cpp:124] Setting up ip3
I0428 19:40:46.169173 24627 net.cpp:131] Top shape: 64 10 (640)
I0428 19:40:46.169178 24627 net.cpp:139] Memory required for data: 705280
I0428 19:40:46.169191 24627 layer_factory.hpp:77] Creating layer relu3
I0428 19:40:46.169201 24627 net.cpp:86] Creating Layer relu3
I0428 19:40:46.169222 24627 net.cpp:408] relu3 <- ip3
I0428 19:40:46.169229 24627 net.cpp:369] relu3 -> ip3 (in-place)
I0428 19:40:46.169402 24627 net.cpp:124] Setting up relu3
I0428 19:40:46.169411 24627 net.cpp:131] Top shape: 64 10 (640)
I0428 19:40:46.169416 24627 net.cpp:139] Memory required for data: 707840
I0428 19:40:46.169421 24627 layer_factory.hpp:77] Creating layer loss
I0428 19:40:46.169435 24627 net.cpp:86] Creating Layer loss
I0428 19:40:46.169442 24627 net.cpp:408] loss <- ip3
I0428 19:40:46.169448 24627 net.cpp:408] loss <- label
I0428 19:40:46.169456 24627 net.cpp:382] loss -> loss
I0428 19:40:46.169473 24627 layer_factory.hpp:77] Creating layer loss
…
I0428 19:40:46.170120 24627 solver.cpp:173] Creating test net (#0) specified by net file: ECE595/mnist/train_test/var_everything2/lenet_train_test344.prototxt
I0428 19:40:46.170153 24627 net.cpp:296] The NetState phase (1) differed from the phase (0) specified by a rule in layer mnist
I0428 19:40:46.170248 24627 net.cpp:53] Initializing net from parameters: 
name: "LeNet"
state {
  phase: TEST
}
layer {
  name: "mnist"
  type: "Data"
  top: "data"
  top: "label"
  include {
    phase: TEST
  }
  transform_param {
    scale: 0.00390625
  }
  data_param {
    source: "examples/mnist/mnist_test_lmdb"
    batch_size: 100
    backend: LMDB
  }
}
layer {
  name: "conv0"
  type: "Convolution"
  bottom: "data"
  top: "conv0"
  param {
    lr_mult: 1
  }
  param {
    lr_mult: 2
  }
  convolution_param {
    num_output: 2
    kernel_size: 5
    stride: 1
    weight_filler {
      type: "xavier"
    }
    bias_filler {
      type: "constant"
    }
  }
}
layer {
  name: "pool0"
  type: "Pooling"
  bottom: "conv0"
  top: "pool0"
  pooling_param {
    pool: MAX
    kernel_size: 2
    stride: 2
  }
}
layer {
  name: "conv1"
  type: "Convolution"
  bottom: "pool0"
  top: "conv1"
  param {
    lr_mult: 1
  }
  param {
    lr_mult: 2
  }
  convolution_param {
    num_output: 5
    kernel_size: 5
    stride: 1
    weight_filler {
      type: "xavier"
    }
    bias_filler {
      type: "constant"
    }
  }
}
layer {
  name: "pool1"
  type: "Pooling"
  bottom: "conv1"
  top: "pool1"
  pooling_param {
    pool: MAX
    kernel_size: 2
    stride: 2
  }
}
layer {
  name: "ip1"
  type: "InnerProduct"
  bottom: "pool1"
  top: "ip1"
  param {
    lr_mult: 1
  }
  param {
    lr_mult: 2
  }
  inner_product_param {
    num_output: 50
    weight_filler {
      type: "xavier"
    }
    bias_filler {
      type: "constant"
    }
  }
}
layer {
  name: "relu1"
  type: "ReLU"
  bottom: "ip1"
  top: "ip1"
}
layer {
  name: "ip2"
  type: "InnerProduct"
  bottom: "ip1"
  top: "ip2"
  param {
    lr_mult: 1
  }
  param {
    lr_mult: 2
  }
  inner_product_param {
    num_output: 10
    weight_filler {
      type: "xavier"
    }
    bias_filler {
      type: "constant"
    }
  }
}
layer {
  name: "relu2"
  type: "ReLU"
  bottom: "ip2"
  top: "ip2"
}
layer {
  name: "ip3"
  type: "InnerProduct"
  bottom: "ip2"
  top: "ip3"
  param {
    lr_mult: 1
  }
  param {
    lr_mult: 2
  }
  inner_product_param {
    num_output: 10
    weight_filler {
      type: "xavier"
    }
    bias_filler {
      type: "constant"
    }
  }
}
layer {
  name: "relu3"
  type: "ReLU"
  bottom: "ip3"
  top: "ip3"
}
layer {
  name: "accuracy"
  type: "Accuracy"
  bottom: "ip3"
  bottom: "label"
  top: "accuracy"
  include {
    phase: TEST
  }
}
layer {
  name: "loss"
  type: "SoftmaxWithLoss"
  bottom: "ip3"
  bottom: "label"
  top: "loss"
}
I0428 19:40:46.170387 24627 layer_factory.hpp:77] Creating layer mnist
I0428 19:40:46.170444 24627 db_lmdb.cpp:35] Opened lmdb examples/mnist/mnist_test_lmdb
I0428 19:40:46.170461 24627 net.cpp:86] Creating Layer mnist
I0428 19:40:46.170469 24627 net.cpp:382] mnist -> data
I0428 19:40:46.170481 24627 net.cpp:382] mnist -> label
I0428 19:40:46.170660 24627 data_layer.cpp:45] output data size: 100,1,28,28
I0428 19:40:46.172829 24627 net.cpp:124] Setting up mnist
I0428 19:40:46.172847 24627 net.cpp:131] Top shape: 100 1 28 28 (78400)
I0428 19:40:46.172857 24627 net.cpp:131] Top shape: 100 (100)
I0428 19:40:46.172863 24627 net.cpp:139] Memory required for data: 314000
I0428 19:40:46.172868 24627 layer_factory.hpp:77] Creating layer label_mnist_1_split
I0428 19:40:46.172879 24627 net.cpp:86] Creating Layer label_mnist_1_split
I0428 19:40:46.172886 24627 net.cpp:408] label_mnist_1_split <- label
I0428 19:40:46.172895 24627 net.cpp:382] label_mnist_1_split -> label_mnist_1_split_0
I0428 19:40:46.172907 24627 net.cpp:382] label_mnist_1_split -> label_mnist_1_split_1
I0428 19:40:46.172960 24627 net.cpp:124] Setting up label_mnist_1_split
I0428 19:40:46.172968 24627 net.cpp:131] Top shape: 100 (100)
I0428 19:40:46.172976 24627 net.cpp:131] Top shape: 100 (100)
I0428 19:40:46.172981 24627 net.cpp:139] Memory required for data: 314800
I0428 19:40:46.172987 24627 layer_factory.hpp:77] Creating layer conv0
I0428 19:40:46.173002 24627 net.cpp:86] Creating Layer conv0
I0428 19:40:46.173009 24627 net.cpp:408] conv0 <- data
I0428 19:40:46.173019 24627 net.cpp:382] conv0 -> conv0
I0428 19:40:46.174827 24627 net.cpp:124] Setting up conv0
I0428 19:40:46.174844 24627 net.cpp:131] Top shape: 100 2 24 24 (115200)
I0428 19:40:46.174849 24627 net.cpp:139] Memory required for data: 775600
I0428 19:40:46.174865 24627 layer_factory.hpp:77] Creating layer pool0
I0428 19:40:46.174875 24627 net.cpp:86] Creating Layer pool0
I0428 19:40:46.174880 24627 net.cpp:408] pool0 <- conv0
I0428 19:40:46.174888 24627 net.cpp:382] pool0 -> pool0
I0428 19:40:46.174932 24627 net.cpp:124] Setting up pool0
I0428 19:40:46.174940 24627 net.cpp:131] Top shape: 100 2 12 12 (28800)
I0428 19:40:46.174945 24627 net.cpp:139] Memory required for data: 890800
I0428 19:40:46.174950 24627 layer_factory.hpp:77] Creating layer conv1
I0428 19:40:46.174964 24627 net.cpp:86] Creating Layer conv1
I0428 19:40:46.174971 24627 net.cpp:408] conv1 <- pool0
I0428 19:40:46.174980 24627 net.cpp:382] conv1 -> conv1
I0428 19:40:46.176605 24627 net.cpp:124] Setting up conv1
I0428 19:40:46.176622 24627 net.cpp:131] Top shape: 100 5 8 8 (32000)
I0428 19:40:46.176628 24627 net.cpp:139] Memory required for data: 1018800
I0428 19:40:46.176642 24627 layer_factory.hpp:77] Creating layer pool1
I0428 19:40:46.176654 24627 net.cpp:86] Creating Layer pool1
I0428 19:40:46.176663 24627 net.cpp:408] pool1 <- conv1
I0428 19:40:46.176672 24627 net.cpp:382] pool1 -> pool1
I0428 19:40:46.176717 24627 net.cpp:124] Setting up pool1
I0428 19:40:46.176725 24627 net.cpp:131] Top shape: 100 5 4 4 (8000)
I0428 19:40:46.176730 24627 net.cpp:139] Memory required for data: 1050800
I0428 19:40:46.176735 24627 layer_factory.hpp:77] Creating layer ip1
I0428 19:40:46.176745 24627 net.cpp:86] Creating Layer ip1
I0428 19:40:46.176751 24627 net.cpp:408] ip1 <- pool1
I0428 19:40:46.176761 24627 net.cpp:382] ip1 -> ip1
I0428 19:40:46.176942 24627 net.cpp:124] Setting up ip1
I0428 19:40:46.176952 24627 net.cpp:131] Top shape: 100 50 (5000)
I0428 19:40:46.176972 24627 net.cpp:139] Memory required for data: 1070800
I0428 19:40:46.176990 24627 layer_factory.hpp:77] Creating layer relu1
I0428 19:40:46.177000 24627 net.cpp:86] Creating Layer relu1
I0428 19:40:46.177006 24627 net.cpp:408] relu1 <- ip1
I0428 19:40:46.177019 24627 net.cpp:369] relu1 -> ip1 (in-place)
I0428 19:40:46.177304 24627 net.cpp:124] Setting up relu1
I0428 19:40:46.177314 24627 net.cpp:131] Top shape: 100 50 (5000)
I0428 19:40:46.177320 24627 net.cpp:139] Memory required for data: 1090800
I0428 19:40:46.177340 24627 layer_factory.hpp:77] Creating layer ip2
I0428 19:40:46.177355 24627 net.cpp:86] Creating Layer ip2
I0428 19:40:46.177362 24627 net.cpp:408] ip2 <- ip1
I0428 19:40:46.177372 24627 net.cpp:382] ip2 -> ip2
I0428 19:40:46.177515 24627 net.cpp:124] Setting up ip2
I0428 19:40:46.177525 24627 net.cpp:131] Top shape: 100 10 (1000)
I0428 19:40:46.177531 24627 net.cpp:139] Memory required for data: 1094800
I0428 19:40:46.177541 24627 layer_factory.hpp:77] Creating layer relu2
I0428 19:40:46.177549 24627 net.cpp:86] Creating Layer relu2
I0428 19:40:46.177559 24627 net.cpp:408] relu2 <- ip2
I0428 19:40:46.177569 24627 net.cpp:369] relu2 -> ip2 (in-place)
I0428 19:40:46.177763 24627 net.cpp:124] Setting up relu2
I0428 19:40:46.177776 24627 net.cpp:131] Top shape: 100 10 (1000)
I0428 19:40:46.177783 24627 net.cpp:139] Memory required for data: 1098800
I0428 19:40:46.177788 24627 layer_factory.hpp:77] Creating layer ip3
I0428 19:40:46.177800 24627 net.cpp:86] Creating Layer ip3
I0428 19:40:46.177809 24627 net.cpp:408] ip3 <- ip2
I0428 19:40:46.177819 24627 net.cpp:382] ip3 -> ip3
I0428 19:40:46.177945 24627 net.cpp:124] Setting up ip3
I0428 19:40:46.177954 24627 net.cpp:131] Top shape: 100 10 (1000)
I0428 19:40:46.177960 24627 net.cpp:139] Memory required for data: 1102800
I0428 19:40:46.177976 24627 layer_factory.hpp:77] Creating layer relu3
I0428 19:40:46.177986 24627 net.cpp:86] Creating Layer relu3
I0428 19:40:46.177992 24627 net.cpp:408] relu3 <- ip3
I0428 19:40:46.178002 24627 net.cpp:369] relu3 -> ip3 (in-place)
I0428 19:40:46.178949 24627 net.cpp:124] Setting up relu3
I0428 19:40:46.178966 24627 net.cpp:131] Top shape: 100 10 (1000)
I0428 19:40:46.178974 24627 net.cpp:139] Memory required for data: 1106800
I0428 19:40:46.178980 24627 layer_factory.hpp:77] Creating layer ip3_relu3_0_split
I0428 19:40:46.178992 24627 net.cpp:86] Creating Layer ip3_relu3_0_split
I0428 19:40:46.179002 24627 net.cpp:408] ip3_relu3_0_split <- ip3
I0428 19:40:46.179028 24627 net.cpp:382] ip3_relu3_0_split -> ip3_relu3_0_split_0
I0428 19:40:46.179054 24627 net.cpp:382] ip3_relu3_0_split -> ip3_relu3_0_split_1
I0428 19:40:46.179102 24627 net.cpp:124] Setting up ip3_relu3_0_split
I0428 19:40:46.179111 24627 net.cpp:131] Top shape: 100 10 (1000)
I0428 19:40:46.179118 24627 net.cpp:131] Top shape: 100 10 (1000)
I0428 19:40:46.179123 24627 net.cpp:139] Memory required for data: 1114800
I0428 19:40:46.179131 24627 layer_factory.hpp:77] Creating layer accuracy
I0428 19:40:46.179141 24627 net.cpp:86] Creating Layer accuracy
I0428 19:40:46.179147 24627 net.cpp:408] accuracy <- ip3_relu3_0_split_0
I0428 19:40:46.179153 24627 net.cpp:408] accuracy <- label_mnist_1_split_0
I0428 19:40:46.179164 24627 net.cpp:382] accuracy -> accuracy
…
