…
I0428 20:18:20.490303  1102 net.cpp:296] The NetState phase (0) differed from the phase (1) specified by a rule in layer mnist
I0428 20:18:20.490335  1102 net.cpp:296] The NetState phase (0) differed from the phase (1) specified by a rule in layer accuracy
I0428 20:18:20.490487  1102 net.cpp:53] Initializing net from parameters: 
name: "LeNet"
state {
  phase: TRAIN
  level: 0
  stage: ""
}
layer {
  name: "mnist"
  type: "Data"
  top: "data"
  top: "label"
  include {
    phase: TRAIN
  }
  transform_param {
    scale: 0.00390625
  }
  data_param {
    source: "examples/mnist/mnist_train_lmdb"
    batch_size: 64
    backend: LMDB
  }
}
layer {
  name: "conv0"
  type: "Convolution"
  bottom: "data"
  top: "conv0"
  param {
    lr_mult: 1
  }
  param {
    lr_mult: 2
  }
  convolution_param {
    num_output: 50
    kernel_size: 5
    stride: 1
    weight_filler {
      type: "xavier"
    }
    bias_filler {
      type: "constant"
    }
  }
}
layer {
  name: "pool0"
  type: "Pooling"
  bottom: "conv0"
  top: "pool0"
  pooling_param {
    pool: MAX
    kernel_size: 2
    stride: 2
  }
}
layer {
  name: "conv1"
  type: "Convolution"
  bottom: "pool0"
  top: "conv1"
  param {
    lr_mult: 1
  }
  param {
    lr_mult: 2
  }
  convolution_param {
    num_output: 10
    kernel_size: 5
    stride: 1
    weight_filler {
      type: "xavier"
    }
    bias_filler {
      type: "constant"
    }
  }
}
layer {
  name: "pool1"
  type: "Pooling"
  bottom: "conv1"
  top: "pool1"
  pooling_param {
    pool: MAX
    kernel_size: 2
    stride: 2
  }
}
layer {
  name: "ip1"
  type: "InnerProduct"
  bottom: "pool1"
  top: "ip1"
  param {
    lr_mult: 1
  }
  param {
    lr_mult: 2
  }
  inner_product_param {
    num_output: 25
    weight_filler {
      type: "xavier"
    }
    bias_filler {
      type: "constant"
    }
  }
}
layer {
  name: "relu1"
  type: "ReLU"
  bottom: "ip1"
  top: "ip1"
}
layer {
  name: "ip2"
  type: "InnerProduct"
  bottom: "ip1"
  top: "ip2"
  param {
    lr_mult: 1
  }
  param {
    lr_mult: 2
  }
  inner_product_param {
    num_output: 50
    weight_filler {
      type: "xavier"
    }
    bias_filler {
      type: "constant"
    }
  }
}
layer {
  name: "relu2"
  type: "ReLU"
  bottom: "ip2"
  top: "ip2"
}
layer {
  name: "ip3"
  type: "InnerProduct"
  bottom: "ip2"
  top: "ip3"
  param {
    lr_mult: 1
  }
  param {
    lr_mult: 2
  }
  inner_product_param {
    num_output: 10
    weight_filler {
      type: "xavier"
    }
    bias_filler {
      type: "constant"
    }
  }
}
layer {
  name: "relu3"
  type: "ReLU"
  bottom: "ip3"
  top: "ip3"
}
layer {
  name: "loss"
  type: "SoftmaxWithLoss"
  bottom: "ip3"
  bottom: "label"
  top: "loss"
}
I0428 20:18:20.490576  1102 layer_factory.hpp:77] Creating layer mnist
I0428 20:18:20.490674  1102 db_lmdb.cpp:35] Opened lmdb examples/mnist/mnist_train_lmdb
I0428 20:18:20.490694  1102 net.cpp:86] Creating Layer mnist
I0428 20:18:20.490703  1102 net.cpp:382] mnist -> data
I0428 20:18:20.490722  1102 net.cpp:382] mnist -> label
I0428 20:18:20.491693  1102 data_layer.cpp:45] output data size: 64,1,28,28
I0428 20:18:20.494065  1102 net.cpp:124] Setting up mnist
I0428 20:18:20.494109  1102 net.cpp:131] Top shape: 64 1 28 28 (50176)
I0428 20:18:20.494132  1102 net.cpp:131] Top shape: 64 (64)
I0428 20:18:20.494134  1102 net.cpp:139] Memory required for data: 200960
I0428 20:18:20.494140  1102 layer_factory.hpp:77] Creating layer conv0
I0428 20:18:20.494154  1102 net.cpp:86] Creating Layer conv0
I0428 20:18:20.494171  1102 net.cpp:408] conv0 <- data
I0428 20:18:20.494182  1102 net.cpp:382] conv0 -> conv0
I0428 20:18:20.723145  1102 net.cpp:124] Setting up conv0
I0428 20:18:20.723189  1102 net.cpp:131] Top shape: 64 50 24 24 (1843200)
I0428 20:18:20.723193  1102 net.cpp:139] Memory required for data: 7573760
I0428 20:18:20.723208  1102 layer_factory.hpp:77] Creating layer pool0
I0428 20:18:20.723220  1102 net.cpp:86] Creating Layer pool0
I0428 20:18:20.723240  1102 net.cpp:408] pool0 <- conv0
I0428 20:18:20.723245  1102 net.cpp:382] pool0 -> pool0
I0428 20:18:20.723309  1102 net.cpp:124] Setting up pool0
I0428 20:18:20.723316  1102 net.cpp:131] Top shape: 64 50 12 12 (460800)
I0428 20:18:20.723320  1102 net.cpp:139] Memory required for data: 9416960
I0428 20:18:20.723322  1102 layer_factory.hpp:77] Creating layer conv1
I0428 20:18:20.723335  1102 net.cpp:86] Creating Layer conv1
I0428 20:18:20.723338  1102 net.cpp:408] conv1 <- pool0
I0428 20:18:20.723345  1102 net.cpp:382] conv1 -> conv1
I0428 20:18:20.726393  1102 net.cpp:124] Setting up conv1
I0428 20:18:20.726423  1102 net.cpp:131] Top shape: 64 10 8 8 (40960)
I0428 20:18:20.726428  1102 net.cpp:139] Memory required for data: 9580800
I0428 20:18:20.726435  1102 layer_factory.hpp:77] Creating layer pool1
I0428 20:18:20.726455  1102 net.cpp:86] Creating Layer pool1
I0428 20:18:20.726459  1102 net.cpp:408] pool1 <- conv1
I0428 20:18:20.726480  1102 net.cpp:382] pool1 -> pool1
I0428 20:18:20.726521  1102 net.cpp:124] Setting up pool1
I0428 20:18:20.726528  1102 net.cpp:131] Top shape: 64 10 4 4 (10240)
I0428 20:18:20.726531  1102 net.cpp:139] Memory required for data: 9621760
I0428 20:18:20.726534  1102 layer_factory.hpp:77] Creating layer ip1
I0428 20:18:20.726541  1102 net.cpp:86] Creating Layer ip1
I0428 20:18:20.726547  1102 net.cpp:408] ip1 <- pool1
I0428 20:18:20.726553  1102 net.cpp:382] ip1 -> ip1
I0428 20:18:20.726685  1102 net.cpp:124] Setting up ip1
I0428 20:18:20.726691  1102 net.cpp:131] Top shape: 64 25 (1600)
I0428 20:18:20.726694  1102 net.cpp:139] Memory required for data: 9628160
I0428 20:18:20.726701  1102 layer_factory.hpp:77] Creating layer relu1
I0428 20:18:20.726711  1102 net.cpp:86] Creating Layer relu1
I0428 20:18:20.726713  1102 net.cpp:408] relu1 <- ip1
I0428 20:18:20.726718  1102 net.cpp:369] relu1 -> ip1 (in-place)
I0428 20:18:20.726897  1102 net.cpp:124] Setting up relu1
I0428 20:18:20.726907  1102 net.cpp:131] Top shape: 64 25 (1600)
I0428 20:18:20.726909  1102 net.cpp:139] Memory required for data: 9634560
I0428 20:18:20.726912  1102 layer_factory.hpp:77] Creating layer ip2
I0428 20:18:20.726919  1102 net.cpp:86] Creating Layer ip2
I0428 20:18:20.726922  1102 net.cpp:408] ip2 <- ip1
I0428 20:18:20.726927  1102 net.cpp:382] ip2 -> ip2
I0428 20:18:20.727063  1102 net.cpp:124] Setting up ip2
I0428 20:18:20.727071  1102 net.cpp:131] Top shape: 64 50 (3200)
I0428 20:18:20.727073  1102 net.cpp:139] Memory required for data: 9647360
I0428 20:18:20.727079  1102 layer_factory.hpp:77] Creating layer relu2
I0428 20:18:20.727102  1102 net.cpp:86] Creating Layer relu2
I0428 20:18:20.727108  1102 net.cpp:408] relu2 <- ip2
I0428 20:18:20.727115  1102 net.cpp:369] relu2 -> ip2 (in-place)
I0428 20:18:20.727901  1102 net.cpp:124] Setting up relu2
I0428 20:18:20.727913  1102 net.cpp:131] Top shape: 64 50 (3200)
I0428 20:18:20.727933  1102 net.cpp:139] Memory required for data: 9660160
I0428 20:18:20.727937  1102 layer_factory.hpp:77] Creating layer ip3
I0428 20:18:20.727946  1102 net.cpp:86] Creating Layer ip3
I0428 20:18:20.727949  1102 net.cpp:408] ip3 <- ip2
I0428 20:18:20.727955  1102 net.cpp:382] ip3 -> ip3
I0428 20:18:20.728055  1102 net.cpp:124] Setting up ip3
I0428 20:18:20.728065  1102 net.cpp:131] Top shape: 64 10 (640)
I0428 20:18:20.728067  1102 net.cpp:139] Memory required for data: 9662720
I0428 20:18:20.728075  1102 layer_factory.hpp:77] Creating layer relu3
I0428 20:18:20.728081  1102 net.cpp:86] Creating Layer relu3
I0428 20:18:20.728085  1102 net.cpp:408] relu3 <- ip3
I0428 20:18:20.728088  1102 net.cpp:369] relu3 -> ip3 (in-place)
I0428 20:18:20.728282  1102 net.cpp:124] Setting up relu3
I0428 20:18:20.728291  1102 net.cpp:131] Top shape: 64 10 (640)
I0428 20:18:20.728294  1102 net.cpp:139] Memory required for data: 9665280
I0428 20:18:20.728297  1102 layer_factory.hpp:77] Creating layer loss
I0428 20:18:20.728307  1102 net.cpp:86] Creating Layer loss
I0428 20:18:20.728312  1102 net.cpp:408] loss <- ip3
I0428 20:18:20.728317  1102 net.cpp:408] loss <- label
I0428 20:18:20.728323  1102 net.cpp:382] loss -> loss
I0428 20:18:20.728343  1102 layer_factory.hpp:77] Creating layer loss
…
I0428 20:18:20.729018  1102 solver.cpp:173] Creating test net (#0) specified by net file: ECE595/mnist/train_test/var_everything2/lenet_train_test1316.prototxt
I0428 20:18:20.729046  1102 net.cpp:296] The NetState phase (1) differed from the phase (0) specified by a rule in layer mnist
I0428 20:18:20.729158  1102 net.cpp:53] Initializing net from parameters: 
name: "LeNet"
state {
  phase: TEST
}
layer {
  name: "mnist"
  type: "Data"
  top: "data"
  top: "label"
  include {
    phase: TEST
  }
  transform_param {
    scale: 0.00390625
  }
  data_param {
    source: "examples/mnist/mnist_test_lmdb"
    batch_size: 100
    backend: LMDB
  }
}
layer {
  name: "conv0"
  type: "Convolution"
  bottom: "data"
  top: "conv0"
  param {
    lr_mult: 1
  }
  param {
    lr_mult: 2
  }
  convolution_param {
    num_output: 50
    kernel_size: 5
    stride: 1
    weight_filler {
      type: "xavier"
    }
    bias_filler {
      type: "constant"
    }
  }
}
layer {
  name: "pool0"
  type: "Pooling"
  bottom: "conv0"
  top: "pool0"
  pooling_param {
    pool: MAX
    kernel_size: 2
    stride: 2
  }
}
layer {
  name: "conv1"
  type: "Convolution"
  bottom: "pool0"
  top: "conv1"
  param {
    lr_mult: 1
  }
  param {
    lr_mult: 2
  }
  convolution_param {
    num_output: 10
    kernel_size: 5
    stride: 1
    weight_filler {
      type: "xavier"
    }
    bias_filler {
      type: "constant"
    }
  }
}
layer {
  name: "pool1"
  type: "Pooling"
  bottom: "conv1"
  top: "pool1"
  pooling_param {
    pool: MAX
    kernel_size: 2
    stride: 2
  }
}
layer {
  name: "ip1"
  type: "InnerProduct"
  bottom: "pool1"
  top: "ip1"
  param {
    lr_mult: 1
  }
  param {
    lr_mult: 2
  }
  inner_product_param {
    num_output: 25
    weight_filler {
      type: "xavier"
    }
    bias_filler {
      type: "constant"
    }
  }
}
layer {
  name: "relu1"
  type: "ReLU"
  bottom: "ip1"
  top: "ip1"
}
layer {
  name: "ip2"
  type: "InnerProduct"
  bottom: "ip1"
  top: "ip2"
  param {
    lr_mult: 1
  }
  param {
    lr_mult: 2
  }
  inner_product_param {
    num_output: 50
    weight_filler {
      type: "xavier"
    }
    bias_filler {
      type: "constant"
    }
  }
}
layer {
  name: "relu2"
  type: "ReLU"
  bottom: "ip2"
  top: "ip2"
}
layer {
  name: "ip3"
  type: "InnerProduct"
  bottom: "ip2"
  top: "ip3"
  param {
    lr_mult: 1
  }
  param {
    lr_mult: 2
  }
  inner_product_param {
    num_output: 10
    weight_filler {
      type: "xavier"
    }
    bias_filler {
      type: "constant"
    }
  }
}
layer {
  name: "relu3"
  type: "ReLU"
  bottom: "ip3"
  top: "ip3"
}
layer {
  name: "accuracy"
  type: "Accuracy"
  bottom: "ip3"
  bottom: "label"
  top: "accuracy"
  include {
    phase: TEST
  }
}
layer {
  name: "loss"
  type: "SoftmaxWithLoss"
  bottom: "ip3"
  bottom: "label"
  top: "loss"
}
I0428 20:18:20.729256  1102 layer_factory.hpp:77] Creating layer mnist
I0428 20:18:20.729298  1102 db_lmdb.cpp:35] Opened lmdb examples/mnist/mnist_test_lmdb
I0428 20:18:20.729313  1102 net.cpp:86] Creating Layer mnist
I0428 20:18:20.729320  1102 net.cpp:382] mnist -> data
I0428 20:18:20.729326  1102 net.cpp:382] mnist -> label
I0428 20:18:20.729424  1102 data_layer.cpp:45] output data size: 100,1,28,28
I0428 20:18:20.731461  1102 net.cpp:124] Setting up mnist
I0428 20:18:20.731492  1102 net.cpp:131] Top shape: 100 1 28 28 (78400)
I0428 20:18:20.731514  1102 net.cpp:131] Top shape: 100 (100)
I0428 20:18:20.731518  1102 net.cpp:139] Memory required for data: 314000
I0428 20:18:20.731520  1102 layer_factory.hpp:77] Creating layer label_mnist_1_split
I0428 20:18:20.731534  1102 net.cpp:86] Creating Layer label_mnist_1_split
I0428 20:18:20.731536  1102 net.cpp:408] label_mnist_1_split <- label
I0428 20:18:20.731541  1102 net.cpp:382] label_mnist_1_split -> label_mnist_1_split_0
I0428 20:18:20.731549  1102 net.cpp:382] label_mnist_1_split -> label_mnist_1_split_1
I0428 20:18:20.731650  1102 net.cpp:124] Setting up label_mnist_1_split
I0428 20:18:20.731659  1102 net.cpp:131] Top shape: 100 (100)
I0428 20:18:20.731664  1102 net.cpp:131] Top shape: 100 (100)
I0428 20:18:20.731667  1102 net.cpp:139] Memory required for data: 314800
I0428 20:18:20.731670  1102 layer_factory.hpp:77] Creating layer conv0
I0428 20:18:20.731680  1102 net.cpp:86] Creating Layer conv0
I0428 20:18:20.731684  1102 net.cpp:408] conv0 <- data
I0428 20:18:20.731690  1102 net.cpp:382] conv0 -> conv0
I0428 20:18:20.733394  1102 net.cpp:124] Setting up conv0
I0428 20:18:20.733407  1102 net.cpp:131] Top shape: 100 50 24 24 (2880000)
I0428 20:18:20.733428  1102 net.cpp:139] Memory required for data: 11834800
I0428 20:18:20.733436  1102 layer_factory.hpp:77] Creating layer pool0
I0428 20:18:20.733443  1102 net.cpp:86] Creating Layer pool0
I0428 20:18:20.733446  1102 net.cpp:408] pool0 <- conv0
I0428 20:18:20.733453  1102 net.cpp:382] pool0 -> pool0
I0428 20:18:20.733489  1102 net.cpp:124] Setting up pool0
I0428 20:18:20.733496  1102 net.cpp:131] Top shape: 100 50 12 12 (720000)
I0428 20:18:20.733500  1102 net.cpp:139] Memory required for data: 14714800
I0428 20:18:20.733502  1102 layer_factory.hpp:77] Creating layer conv1
I0428 20:18:20.733512  1102 net.cpp:86] Creating Layer conv1
I0428 20:18:20.733515  1102 net.cpp:408] conv1 <- pool0
I0428 20:18:20.733520  1102 net.cpp:382] conv1 -> conv1
I0428 20:18:20.735110  1102 net.cpp:124] Setting up conv1
I0428 20:18:20.735134  1102 net.cpp:131] Top shape: 100 10 8 8 (64000)
I0428 20:18:20.735157  1102 net.cpp:139] Memory required for data: 14970800
I0428 20:18:20.735165  1102 layer_factory.hpp:77] Creating layer pool1
I0428 20:18:20.735172  1102 net.cpp:86] Creating Layer pool1
I0428 20:18:20.735175  1102 net.cpp:408] pool1 <- conv1
I0428 20:18:20.735180  1102 net.cpp:382] pool1 -> pool1
I0428 20:18:20.735224  1102 net.cpp:124] Setting up pool1
I0428 20:18:20.735229  1102 net.cpp:131] Top shape: 100 10 4 4 (16000)
I0428 20:18:20.735234  1102 net.cpp:139] Memory required for data: 15034800
I0428 20:18:20.735236  1102 layer_factory.hpp:77] Creating layer ip1
I0428 20:18:20.735244  1102 net.cpp:86] Creating Layer ip1
I0428 20:18:20.735246  1102 net.cpp:408] ip1 <- pool1
I0428 20:18:20.735252  1102 net.cpp:382] ip1 -> ip1
I0428 20:18:20.735375  1102 net.cpp:124] Setting up ip1
I0428 20:18:20.735384  1102 net.cpp:131] Top shape: 100 25 (2500)
I0428 20:18:20.735397  1102 net.cpp:139] Memory required for data: 15044800
I0428 20:18:20.735404  1102 layer_factory.hpp:77] Creating layer relu1
I0428 20:18:20.735411  1102 net.cpp:86] Creating Layer relu1
I0428 20:18:20.735415  1102 net.cpp:408] relu1 <- ip1
I0428 20:18:20.735419  1102 net.cpp:369] relu1 -> ip1 (in-place)
I0428 20:18:20.735646  1102 net.cpp:124] Setting up relu1
I0428 20:18:20.735656  1102 net.cpp:131] Top shape: 100 25 (2500)
I0428 20:18:20.735658  1102 net.cpp:139] Memory required for data: 15054800
I0428 20:18:20.735662  1102 layer_factory.hpp:77] Creating layer ip2
I0428 20:18:20.735671  1102 net.cpp:86] Creating Layer ip2
I0428 20:18:20.735676  1102 net.cpp:408] ip2 <- ip1
I0428 20:18:20.735682  1102 net.cpp:382] ip2 -> ip2
I0428 20:18:20.735792  1102 net.cpp:124] Setting up ip2
I0428 20:18:20.735800  1102 net.cpp:131] Top shape: 100 50 (5000)
I0428 20:18:20.735803  1102 net.cpp:139] Memory required for data: 15074800
I0428 20:18:20.735808  1102 layer_factory.hpp:77] Creating layer relu2
I0428 20:18:20.735815  1102 net.cpp:86] Creating Layer relu2
I0428 20:18:20.735834  1102 net.cpp:408] relu2 <- ip2
I0428 20:18:20.735838  1102 net.cpp:369] relu2 -> ip2 (in-place)
I0428 20:18:20.736035  1102 net.cpp:124] Setting up relu2
I0428 20:18:20.736044  1102 net.cpp:131] Top shape: 100 50 (5000)
I0428 20:18:20.736047  1102 net.cpp:139] Memory required for data: 15094800
I0428 20:18:20.736050  1102 layer_factory.hpp:77] Creating layer ip3
I0428 20:18:20.736057  1102 net.cpp:86] Creating Layer ip3
I0428 20:18:20.736060  1102 net.cpp:408] ip3 <- ip2
I0428 20:18:20.736066  1102 net.cpp:382] ip3 -> ip3
I0428 20:18:20.736201  1102 net.cpp:124] Setting up ip3
I0428 20:18:20.736207  1102 net.cpp:131] Top shape: 100 10 (1000)
I0428 20:18:20.736210  1102 net.cpp:139] Memory required for data: 15098800
I0428 20:18:20.736217  1102 layer_factory.hpp:77] Creating layer relu3
I0428 20:18:20.736222  1102 net.cpp:86] Creating Layer relu3
I0428 20:18:20.736225  1102 net.cpp:408] relu3 <- ip3
I0428 20:18:20.736228  1102 net.cpp:369] relu3 -> ip3 (in-place)
I0428 20:18:20.737040  1102 net.cpp:124] Setting up relu3
I0428 20:18:20.737053  1102 net.cpp:131] Top shape: 100 10 (1000)
I0428 20:18:20.737072  1102 net.cpp:139] Memory required for data: 15102800
I0428 20:18:20.737076  1102 layer_factory.hpp:77] Creating layer ip3_relu3_0_split
I0428 20:18:20.737082  1102 net.cpp:86] Creating Layer ip3_relu3_0_split
I0428 20:18:20.737085  1102 net.cpp:408] ip3_relu3_0_split <- ip3
I0428 20:18:20.737092  1102 net.cpp:382] ip3_relu3_0_split -> ip3_relu3_0_split_0
I0428 20:18:20.737098  1102 net.cpp:382] ip3_relu3_0_split -> ip3_relu3_0_split_1
I0428 20:18:20.737138  1102 net.cpp:124] Setting up ip3_relu3_0_split
I0428 20:18:20.737145  1102 net.cpp:131] Top shape: 100 10 (1000)
I0428 20:18:20.737149  1102 net.cpp:131] Top shape: 100 10 (1000)
I0428 20:18:20.737151  1102 net.cpp:139] Memory required for data: 15110800
I0428 20:18:20.737154  1102 layer_factory.hpp:77] Creating layer accuracy
I0428 20:18:20.737159  1102 net.cpp:86] Creating Layer accuracy
I0428 20:18:20.737162  1102 net.cpp:408] accuracy <- ip3_relu3_0_split_0
I0428 20:18:20.737167  1102 net.cpp:408] accuracy <- label_mnist_1_split_0
I0428 20:18:20.737171  1102 net.cpp:382] accuracy -> accuracy
…
