…
I0428 20:00:33.327783 29501 net.cpp:296] The NetState phase (0) differed from the phase (1) specified by a rule in layer mnist
I0428 20:00:33.327802 29501 net.cpp:296] The NetState phase (0) differed from the phase (1) specified by a rule in layer accuracy
I0428 20:00:33.327904 29501 net.cpp:53] Initializing net from parameters: 
name: "LeNet"
state {
  phase: TRAIN
  level: 0
  stage: ""
}
layer {
  name: "mnist"
  type: "Data"
  top: "data"
  top: "label"
  include {
    phase: TRAIN
  }
  transform_param {
    scale: 0.00390625
  }
  data_param {
    source: "examples/mnist/mnist_train_lmdb"
    batch_size: 64
    backend: LMDB
  }
}
layer {
  name: "conv0"
  type: "Convolution"
  bottom: "data"
  top: "conv0"
  param {
    lr_mult: 1
  }
  param {
    lr_mult: 2
  }
  convolution_param {
    num_output: 10
    kernel_size: 5
    stride: 1
    weight_filler {
      type: "xavier"
    }
    bias_filler {
      type: "constant"
    }
  }
}
layer {
  name: "pool0"
  type: "Pooling"
  bottom: "conv0"
  top: "pool0"
  pooling_param {
    pool: MAX
    kernel_size: 2
    stride: 2
  }
}
layer {
  name: "conv1"
  type: "Convolution"
  bottom: "pool0"
  top: "conv1"
  param {
    lr_mult: 1
  }
  param {
    lr_mult: 2
  }
  convolution_param {
    num_output: 25
    kernel_size: 5
    stride: 1
    weight_filler {
      type: "xavier"
    }
    bias_filler {
      type: "constant"
    }
  }
}
layer {
  name: "pool1"
  type: "Pooling"
  bottom: "conv1"
  top: "pool1"
  pooling_param {
    pool: MAX
    kernel_size: 2
    stride: 2
  }
}
layer {
  name: "ip1"
  type: "InnerProduct"
  bottom: "pool1"
  top: "ip1"
  param {
    lr_mult: 1
  }
  param {
    lr_mult: 2
  }
  inner_product_param {
    num_output: 25
    weight_filler {
      type: "xavier"
    }
    bias_filler {
      type: "constant"
    }
  }
}
layer {
  name: "relu1"
  type: "ReLU"
  bottom: "ip1"
  top: "ip1"
}
layer {
  name: "ip2"
  type: "InnerProduct"
  bottom: "ip1"
  top: "ip2"
  param {
    lr_mult: 1
  }
  param {
    lr_mult: 2
  }
  inner_product_param {
    num_output: 10
    weight_filler {
      type: "xavier"
    }
    bias_filler {
      type: "constant"
    }
  }
}
layer {
  name: "relu2"
  type: "ReLU"
  bottom: "ip2"
  top: "ip2"
}
layer {
  name: "ip3"
  type: "InnerProduct"
  bottom: "ip2"
  top: "ip3"
  param {
    lr_mult: 1
  }
  param {
    lr_mult: 2
  }
  inner_product_param {
    num_output: 10
    weight_filler {
      type: "xavier"
    }
    bias_filler {
      type: "constant"
    }
  }
}
layer {
  name: "relu3"
  type: "ReLU"
  bottom: "ip3"
  top: "ip3"
}
layer {
  name: "loss"
  type: "SoftmaxWithLoss"
  bottom: "ip3"
  bottom: "label"
  top: "loss"
}
I0428 20:00:33.327983 29501 layer_factory.hpp:77] Creating layer mnist
I0428 20:00:33.328083 29501 db_lmdb.cpp:35] Opened lmdb examples/mnist/mnist_train_lmdb
I0428 20:00:33.328107 29501 net.cpp:86] Creating Layer mnist
I0428 20:00:33.328117 29501 net.cpp:382] mnist -> data
I0428 20:00:33.328140 29501 net.cpp:382] mnist -> label
I0428 20:00:33.329247 29501 data_layer.cpp:45] output data size: 64,1,28,28
I0428 20:00:33.331699 29501 net.cpp:124] Setting up mnist
I0428 20:00:33.331717 29501 net.cpp:131] Top shape: 64 1 28 28 (50176)
I0428 20:00:33.331725 29501 net.cpp:131] Top shape: 64 (64)
I0428 20:00:33.331728 29501 net.cpp:139] Memory required for data: 200960
I0428 20:00:33.331737 29501 layer_factory.hpp:77] Creating layer conv0
I0428 20:00:33.331751 29501 net.cpp:86] Creating Layer conv0
I0428 20:00:33.331771 29501 net.cpp:408] conv0 <- data
I0428 20:00:33.331789 29501 net.cpp:382] conv0 -> conv0
I0428 20:00:33.608176 29501 net.cpp:124] Setting up conv0
I0428 20:00:33.608202 29501 net.cpp:131] Top shape: 64 10 24 24 (368640)
I0428 20:00:33.608206 29501 net.cpp:139] Memory required for data: 1675520
I0428 20:00:33.608220 29501 layer_factory.hpp:77] Creating layer pool0
I0428 20:00:33.608233 29501 net.cpp:86] Creating Layer pool0
I0428 20:00:33.608237 29501 net.cpp:408] pool0 <- conv0
I0428 20:00:33.608242 29501 net.cpp:382] pool0 -> pool0
I0428 20:00:33.608300 29501 net.cpp:124] Setting up pool0
I0428 20:00:33.608307 29501 net.cpp:131] Top shape: 64 10 12 12 (92160)
I0428 20:00:33.608310 29501 net.cpp:139] Memory required for data: 2044160
I0428 20:00:33.608314 29501 layer_factory.hpp:77] Creating layer conv1
I0428 20:00:33.608324 29501 net.cpp:86] Creating Layer conv1
I0428 20:00:33.608328 29501 net.cpp:408] conv1 <- pool0
I0428 20:00:33.608347 29501 net.cpp:382] conv1 -> conv1
I0428 20:00:33.611021 29501 net.cpp:124] Setting up conv1
I0428 20:00:33.611035 29501 net.cpp:131] Top shape: 64 25 8 8 (102400)
I0428 20:00:33.611054 29501 net.cpp:139] Memory required for data: 2453760
I0428 20:00:33.611063 29501 layer_factory.hpp:77] Creating layer pool1
I0428 20:00:33.611070 29501 net.cpp:86] Creating Layer pool1
I0428 20:00:33.611073 29501 net.cpp:408] pool1 <- conv1
I0428 20:00:33.611078 29501 net.cpp:382] pool1 -> pool1
I0428 20:00:33.611130 29501 net.cpp:124] Setting up pool1
I0428 20:00:33.611135 29501 net.cpp:131] Top shape: 64 25 4 4 (25600)
I0428 20:00:33.611138 29501 net.cpp:139] Memory required for data: 2556160
I0428 20:00:33.611141 29501 layer_factory.hpp:77] Creating layer ip1
I0428 20:00:33.611148 29501 net.cpp:86] Creating Layer ip1
I0428 20:00:33.611151 29501 net.cpp:408] ip1 <- pool1
I0428 20:00:33.611156 29501 net.cpp:382] ip1 -> ip1
I0428 20:00:33.611304 29501 net.cpp:124] Setting up ip1
I0428 20:00:33.611311 29501 net.cpp:131] Top shape: 64 25 (1600)
I0428 20:00:33.611315 29501 net.cpp:139] Memory required for data: 2562560
I0428 20:00:33.611321 29501 layer_factory.hpp:77] Creating layer relu1
I0428 20:00:33.611328 29501 net.cpp:86] Creating Layer relu1
I0428 20:00:33.611331 29501 net.cpp:408] relu1 <- ip1
I0428 20:00:33.611335 29501 net.cpp:369] relu1 -> ip1 (in-place)
I0428 20:00:33.611508 29501 net.cpp:124] Setting up relu1
I0428 20:00:33.611517 29501 net.cpp:131] Top shape: 64 25 (1600)
I0428 20:00:33.611521 29501 net.cpp:139] Memory required for data: 2568960
I0428 20:00:33.611523 29501 layer_factory.hpp:77] Creating layer ip2
I0428 20:00:33.611528 29501 net.cpp:86] Creating Layer ip2
I0428 20:00:33.611531 29501 net.cpp:408] ip2 <- ip1
I0428 20:00:33.611536 29501 net.cpp:382] ip2 -> ip2
I0428 20:00:33.611627 29501 net.cpp:124] Setting up ip2
I0428 20:00:33.611634 29501 net.cpp:131] Top shape: 64 10 (640)
I0428 20:00:33.611637 29501 net.cpp:139] Memory required for data: 2571520
I0428 20:00:33.611642 29501 layer_factory.hpp:77] Creating layer relu2
I0428 20:00:33.611647 29501 net.cpp:86] Creating Layer relu2
I0428 20:00:33.611650 29501 net.cpp:408] relu2 <- ip2
I0428 20:00:33.611654 29501 net.cpp:369] relu2 -> ip2 (in-place)
I0428 20:00:33.612409 29501 net.cpp:124] Setting up relu2
I0428 20:00:33.612421 29501 net.cpp:131] Top shape: 64 10 (640)
I0428 20:00:33.612440 29501 net.cpp:139] Memory required for data: 2574080
I0428 20:00:33.612444 29501 layer_factory.hpp:77] Creating layer ip3
I0428 20:00:33.612450 29501 net.cpp:86] Creating Layer ip3
I0428 20:00:33.612453 29501 net.cpp:408] ip3 <- ip2
I0428 20:00:33.612458 29501 net.cpp:382] ip3 -> ip3
I0428 20:00:33.612567 29501 net.cpp:124] Setting up ip3
I0428 20:00:33.612574 29501 net.cpp:131] Top shape: 64 10 (640)
I0428 20:00:33.612577 29501 net.cpp:139] Memory required for data: 2576640
I0428 20:00:33.612586 29501 layer_factory.hpp:77] Creating layer relu3
I0428 20:00:33.612591 29501 net.cpp:86] Creating Layer relu3
I0428 20:00:33.612593 29501 net.cpp:408] relu3 <- ip3
I0428 20:00:33.612597 29501 net.cpp:369] relu3 -> ip3 (in-place)
I0428 20:00:33.612778 29501 net.cpp:124] Setting up relu3
I0428 20:00:33.612787 29501 net.cpp:131] Top shape: 64 10 (640)
I0428 20:00:33.612790 29501 net.cpp:139] Memory required for data: 2579200
I0428 20:00:33.612793 29501 layer_factory.hpp:77] Creating layer loss
I0428 20:00:33.612799 29501 net.cpp:86] Creating Layer loss
I0428 20:00:33.612802 29501 net.cpp:408] loss <- ip3
I0428 20:00:33.612807 29501 net.cpp:408] loss <- label
I0428 20:00:33.612834 29501 net.cpp:382] loss -> loss
I0428 20:00:33.612853 29501 layer_factory.hpp:77] Creating layer loss
…
I0428 20:00:33.613556 29501 solver.cpp:173] Creating test net (#0) specified by net file: ECE595/mnist/train_test/var_everything2/lenet_train_test879.prototxt
I0428 20:00:33.613597 29501 net.cpp:296] The NetState phase (1) differed from the phase (0) specified by a rule in layer mnist
I0428 20:00:33.613698 29501 net.cpp:53] Initializing net from parameters: 
name: "LeNet"
state {
  phase: TEST
}
layer {
  name: "mnist"
  type: "Data"
  top: "data"
  top: "label"
  include {
    phase: TEST
  }
  transform_param {
    scale: 0.00390625
  }
  data_param {
    source: "examples/mnist/mnist_test_lmdb"
    batch_size: 100
    backend: LMDB
  }
}
layer {
  name: "conv0"
  type: "Convolution"
  bottom: "data"
  top: "conv0"
  param {
    lr_mult: 1
  }
  param {
    lr_mult: 2
  }
  convolution_param {
    num_output: 10
    kernel_size: 5
    stride: 1
    weight_filler {
      type: "xavier"
    }
    bias_filler {
      type: "constant"
    }
  }
}
layer {
  name: "pool0"
  type: "Pooling"
  bottom: "conv0"
  top: "pool0"
  pooling_param {
    pool: MAX
    kernel_size: 2
    stride: 2
  }
}
layer {
  name: "conv1"
  type: "Convolution"
  bottom: "pool0"
  top: "conv1"
  param {
    lr_mult: 1
  }
  param {
    lr_mult: 2
  }
  convolution_param {
    num_output: 25
    kernel_size: 5
    stride: 1
    weight_filler {
      type: "xavier"
    }
    bias_filler {
      type: "constant"
    }
  }
}
layer {
  name: "pool1"
  type: "Pooling"
  bottom: "conv1"
  top: "pool1"
  pooling_param {
    pool: MAX
    kernel_size: 2
    stride: 2
  }
}
layer {
  name: "ip1"
  type: "InnerProduct"
  bottom: "pool1"
  top: "ip1"
  param {
    lr_mult: 1
  }
  param {
    lr_mult: 2
  }
  inner_product_param {
    num_output: 25
    weight_filler {
      type: "xavier"
    }
    bias_filler {
      type: "constant"
    }
  }
}
layer {
  name: "relu1"
  type: "ReLU"
  bottom: "ip1"
  top: "ip1"
}
layer {
  name: "ip2"
  type: "InnerProduct"
  bottom: "ip1"
  top: "ip2"
  param {
    lr_mult: 1
  }
  param {
    lr_mult: 2
  }
  inner_product_param {
    num_output: 10
    weight_filler {
      type: "xavier"
    }
    bias_filler {
      type: "constant"
    }
  }
}
layer {
  name: "relu2"
  type: "ReLU"
  bottom: "ip2"
  top: "ip2"
}
layer {
  name: "ip3"
  type: "InnerProduct"
  bottom: "ip2"
  top: "ip3"
  param {
    lr_mult: 1
  }
  param {
    lr_mult: 2
  }
  inner_product_param {
    num_output: 10
    weight_filler {
      type: "xavier"
    }
    bias_filler {
      type: "constant"
    }
  }
}
layer {
  name: "relu3"
  type: "ReLU"
  bottom: "ip3"
  top: "ip3"
}
layer {
  name: "accuracy"
  type: "Accuracy"
  bottom: "ip3"
  bottom: "label"
  top: "accuracy"
  include {
    phase: TEST
  }
}
layer {
  name: "loss"
  type: "SoftmaxWithLoss"
  bottom: "ip3"
  bottom: "label"
  top: "loss"
}
I0428 20:00:33.613775 29501 layer_factory.hpp:77] Creating layer mnist
I0428 20:00:33.613817 29501 db_lmdb.cpp:35] Opened lmdb examples/mnist/mnist_test_lmdb
I0428 20:00:33.613829 29501 net.cpp:86] Creating Layer mnist
I0428 20:00:33.613833 29501 net.cpp:382] mnist -> data
I0428 20:00:33.613842 29501 net.cpp:382] mnist -> label
I0428 20:00:33.613931 29501 data_layer.cpp:45] output data size: 100,1,28,28
I0428 20:00:33.616065 29501 net.cpp:124] Setting up mnist
I0428 20:00:33.616093 29501 net.cpp:131] Top shape: 100 1 28 28 (78400)
I0428 20:00:33.616098 29501 net.cpp:131] Top shape: 100 (100)
I0428 20:00:33.616101 29501 net.cpp:139] Memory required for data: 314000
I0428 20:00:33.616104 29501 layer_factory.hpp:77] Creating layer label_mnist_1_split
I0428 20:00:33.616111 29501 net.cpp:86] Creating Layer label_mnist_1_split
I0428 20:00:33.616114 29501 net.cpp:408] label_mnist_1_split <- label
I0428 20:00:33.616118 29501 net.cpp:382] label_mnist_1_split -> label_mnist_1_split_0
I0428 20:00:33.616125 29501 net.cpp:382] label_mnist_1_split -> label_mnist_1_split_1
I0428 20:00:33.616160 29501 net.cpp:124] Setting up label_mnist_1_split
I0428 20:00:33.616165 29501 net.cpp:131] Top shape: 100 (100)
I0428 20:00:33.616168 29501 net.cpp:131] Top shape: 100 (100)
I0428 20:00:33.616171 29501 net.cpp:139] Memory required for data: 314800
I0428 20:00:33.616174 29501 layer_factory.hpp:77] Creating layer conv0
I0428 20:00:33.616181 29501 net.cpp:86] Creating Layer conv0
I0428 20:00:33.616184 29501 net.cpp:408] conv0 <- data
I0428 20:00:33.616189 29501 net.cpp:382] conv0 -> conv0
I0428 20:00:33.617946 29501 net.cpp:124] Setting up conv0
I0428 20:00:33.617960 29501 net.cpp:131] Top shape: 100 10 24 24 (576000)
I0428 20:00:33.617964 29501 net.cpp:139] Memory required for data: 2618800
I0428 20:00:33.617972 29501 layer_factory.hpp:77] Creating layer pool0
I0428 20:00:33.617979 29501 net.cpp:86] Creating Layer pool0
I0428 20:00:33.617993 29501 net.cpp:408] pool0 <- conv0
I0428 20:00:33.618015 29501 net.cpp:382] pool0 -> pool0
I0428 20:00:33.618053 29501 net.cpp:124] Setting up pool0
I0428 20:00:33.618059 29501 net.cpp:131] Top shape: 100 10 12 12 (144000)
I0428 20:00:33.618062 29501 net.cpp:139] Memory required for data: 3194800
I0428 20:00:33.618065 29501 layer_factory.hpp:77] Creating layer conv1
I0428 20:00:33.618073 29501 net.cpp:86] Creating Layer conv1
I0428 20:00:33.618077 29501 net.cpp:408] conv1 <- pool0
I0428 20:00:33.618080 29501 net.cpp:382] conv1 -> conv1
I0428 20:00:33.620120 29501 net.cpp:124] Setting up conv1
I0428 20:00:33.620133 29501 net.cpp:131] Top shape: 100 25 8 8 (160000)
I0428 20:00:33.620137 29501 net.cpp:139] Memory required for data: 3834800
I0428 20:00:33.620146 29501 layer_factory.hpp:77] Creating layer pool1
I0428 20:00:33.620153 29501 net.cpp:86] Creating Layer pool1
I0428 20:00:33.620157 29501 net.cpp:408] pool1 <- conv1
I0428 20:00:33.620162 29501 net.cpp:382] pool1 -> pool1
I0428 20:00:33.620230 29501 net.cpp:124] Setting up pool1
I0428 20:00:33.620250 29501 net.cpp:131] Top shape: 100 25 4 4 (40000)
I0428 20:00:33.620261 29501 net.cpp:139] Memory required for data: 3994800
I0428 20:00:33.620265 29501 layer_factory.hpp:77] Creating layer ip1
I0428 20:00:33.620270 29501 net.cpp:86] Creating Layer ip1
I0428 20:00:33.620275 29501 net.cpp:408] ip1 <- pool1
I0428 20:00:33.620280 29501 net.cpp:382] ip1 -> ip1
I0428 20:00:33.620429 29501 net.cpp:124] Setting up ip1
I0428 20:00:33.620436 29501 net.cpp:131] Top shape: 100 25 (2500)
I0428 20:00:33.620448 29501 net.cpp:139] Memory required for data: 4004800
I0428 20:00:33.620456 29501 layer_factory.hpp:77] Creating layer relu1
I0428 20:00:33.620461 29501 net.cpp:86] Creating Layer relu1
I0428 20:00:33.620465 29501 net.cpp:408] relu1 <- ip1
I0428 20:00:33.620468 29501 net.cpp:369] relu1 -> ip1 (in-place)
I0428 20:00:33.620741 29501 net.cpp:124] Setting up relu1
I0428 20:00:33.620750 29501 net.cpp:131] Top shape: 100 25 (2500)
I0428 20:00:33.620754 29501 net.cpp:139] Memory required for data: 4014800
I0428 20:00:33.620762 29501 layer_factory.hpp:77] Creating layer ip2
I0428 20:00:33.620769 29501 net.cpp:86] Creating Layer ip2
I0428 20:00:33.620772 29501 net.cpp:408] ip2 <- ip1
I0428 20:00:33.620782 29501 net.cpp:382] ip2 -> ip2
I0428 20:00:33.620935 29501 net.cpp:124] Setting up ip2
I0428 20:00:33.620944 29501 net.cpp:131] Top shape: 100 10 (1000)
I0428 20:00:33.620946 29501 net.cpp:139] Memory required for data: 4018800
I0428 20:00:33.620952 29501 layer_factory.hpp:77] Creating layer relu2
I0428 20:00:33.620957 29501 net.cpp:86] Creating Layer relu2
I0428 20:00:33.620961 29501 net.cpp:408] relu2 <- ip2
I0428 20:00:33.620972 29501 net.cpp:369] relu2 -> ip2 (in-place)
I0428 20:00:33.621137 29501 net.cpp:124] Setting up relu2
I0428 20:00:33.621146 29501 net.cpp:131] Top shape: 100 10 (1000)
I0428 20:00:33.621150 29501 net.cpp:139] Memory required for data: 4022800
I0428 20:00:33.621160 29501 layer_factory.hpp:77] Creating layer ip3
I0428 20:00:33.621181 29501 net.cpp:86] Creating Layer ip3
I0428 20:00:33.621203 29501 net.cpp:408] ip3 <- ip2
I0428 20:00:33.621208 29501 net.cpp:382] ip3 -> ip3
I0428 20:00:33.621314 29501 net.cpp:124] Setting up ip3
I0428 20:00:33.621320 29501 net.cpp:131] Top shape: 100 10 (1000)
I0428 20:00:33.621323 29501 net.cpp:139] Memory required for data: 4026800
I0428 20:00:33.621330 29501 layer_factory.hpp:77] Creating layer relu3
I0428 20:00:33.621335 29501 net.cpp:86] Creating Layer relu3
I0428 20:00:33.621337 29501 net.cpp:408] relu3 <- ip3
I0428 20:00:33.621341 29501 net.cpp:369] relu3 -> ip3 (in-place)
I0428 20:00:33.622099 29501 net.cpp:124] Setting up relu3
I0428 20:00:33.622112 29501 net.cpp:131] Top shape: 100 10 (1000)
I0428 20:00:33.622114 29501 net.cpp:139] Memory required for data: 4030800
I0428 20:00:33.622118 29501 layer_factory.hpp:77] Creating layer ip3_relu3_0_split
I0428 20:00:33.622123 29501 net.cpp:86] Creating Layer ip3_relu3_0_split
I0428 20:00:33.622126 29501 net.cpp:408] ip3_relu3_0_split <- ip3
I0428 20:00:33.622131 29501 net.cpp:382] ip3_relu3_0_split -> ip3_relu3_0_split_0
I0428 20:00:33.622138 29501 net.cpp:382] ip3_relu3_0_split -> ip3_relu3_0_split_1
I0428 20:00:33.622185 29501 net.cpp:124] Setting up ip3_relu3_0_split
I0428 20:00:33.622191 29501 net.cpp:131] Top shape: 100 10 (1000)
I0428 20:00:33.622195 29501 net.cpp:131] Top shape: 100 10 (1000)
I0428 20:00:33.622197 29501 net.cpp:139] Memory required for data: 4038800
I0428 20:00:33.622200 29501 layer_factory.hpp:77] Creating layer accuracy
I0428 20:00:33.622205 29501 net.cpp:86] Creating Layer accuracy
I0428 20:00:33.622208 29501 net.cpp:408] accuracy <- ip3_relu3_0_split_0
I0428 20:00:33.622212 29501 net.cpp:408] accuracy <- label_mnist_1_split_0
I0428 20:00:33.622217 29501 net.cpp:382] accuracy -> accuracy
…
