…
I0428 19:52:20.965411 27492 net.cpp:296] The NetState phase (0) differed from the phase (1) specified by a rule in layer mnist
I0428 19:52:20.965450 27492 net.cpp:296] The NetState phase (0) differed from the phase (1) specified by a rule in layer accuracy
I0428 19:52:20.965628 27492 net.cpp:53] Initializing net from parameters: 
name: "LeNet"
state {
  phase: TRAIN
  level: 0
  stage: ""
}
layer {
  name: "mnist"
  type: "Data"
  top: "data"
  top: "label"
  include {
    phase: TRAIN
  }
  transform_param {
    scale: 0.00390625
  }
  data_param {
    source: "examples/mnist/mnist_train_lmdb"
    batch_size: 64
    backend: LMDB
  }
}
layer {
  name: "conv0"
  type: "Convolution"
  bottom: "data"
  top: "conv0"
  param {
    lr_mult: 1
  }
  param {
    lr_mult: 2
  }
  convolution_param {
    num_output: 5
    kernel_size: 5
    stride: 1
    weight_filler {
      type: "xavier"
    }
    bias_filler {
      type: "constant"
    }
  }
}
layer {
  name: "pool0"
  type: "Pooling"
  bottom: "conv0"
  top: "pool0"
  pooling_param {
    pool: MAX
    kernel_size: 2
    stride: 2
  }
}
layer {
  name: "conv1"
  type: "Convolution"
  bottom: "pool0"
  top: "conv1"
  param {
    lr_mult: 1
  }
  param {
    lr_mult: 2
  }
  convolution_param {
    num_output: 25
    kernel_size: 5
    stride: 1
    weight_filler {
      type: "xavier"
    }
    bias_filler {
      type: "constant"
    }
  }
}
layer {
  name: "pool1"
  type: "Pooling"
  bottom: "conv1"
  top: "pool1"
  pooling_param {
    pool: MAX
    kernel_size: 2
    stride: 2
  }
}
layer {
  name: "ip1"
  type: "InnerProduct"
  bottom: "pool1"
  top: "ip1"
  param {
    lr_mult: 1
  }
  param {
    lr_mult: 2
  }
  inner_product_param {
    num_output: 50
    weight_filler {
      type: "xavier"
    }
    bias_filler {
      type: "constant"
    }
  }
}
layer {
  name: "relu1"
  type: "ReLU"
  bottom: "ip1"
  top: "ip1"
}
layer {
  name: "ip2"
  type: "InnerProduct"
  bottom: "ip1"
  top: "ip2"
  param {
    lr_mult: 1
  }
  param {
    lr_mult: 2
  }
  inner_product_param {
    num_output: 25
    weight_filler {
      type: "xavier"
    }
    bias_filler {
      type: "constant"
    }
  }
}
layer {
  name: "relu2"
  type: "ReLU"
  bottom: "ip2"
  top: "ip2"
}
layer {
  name: "ip3"
  type: "InnerProduct"
  bottom: "ip2"
  top: "ip3"
  param {
    lr_mult: 1
  }
  param {
    lr_mult: 2
  }
  inner_product_param {
    num_output: 10
    weight_filler {
      type: "xavier"
    }
    bias_filler {
      type: "constant"
    }
  }
}
layer {
  name: "relu3"
  type: "ReLU"
  bottom: "ip3"
  top: "ip3"
}
layer {
  name: "loss"
  type: "SoftmaxWithLoss"
  bottom: "ip3"
  bottom: "label"
  top: "loss"
}
I0428 19:52:20.965754 27492 layer_factory.hpp:77] Creating layer mnist
I0428 19:52:20.965909 27492 db_lmdb.cpp:35] Opened lmdb examples/mnist/mnist_train_lmdb
I0428 19:52:20.965946 27492 net.cpp:86] Creating Layer mnist
I0428 19:52:20.965958 27492 net.cpp:382] mnist -> data
I0428 19:52:20.965991 27492 net.cpp:382] mnist -> label
I0428 19:52:20.967638 27492 data_layer.cpp:45] output data size: 64,1,28,28
I0428 19:52:20.971386 27492 net.cpp:124] Setting up mnist
I0428 19:52:20.971415 27492 net.cpp:131] Top shape: 64 1 28 28 (50176)
I0428 19:52:20.971428 27492 net.cpp:131] Top shape: 64 (64)
I0428 19:52:20.971434 27492 net.cpp:139] Memory required for data: 200960
I0428 19:52:20.971446 27492 layer_factory.hpp:77] Creating layer conv0
I0428 19:52:20.971470 27492 net.cpp:86] Creating Layer conv0
I0428 19:52:20.971503 27492 net.cpp:408] conv0 <- data
I0428 19:52:20.971525 27492 net.cpp:382] conv0 -> conv0
I0428 19:52:21.285647 27492 net.cpp:124] Setting up conv0
I0428 19:52:21.285678 27492 net.cpp:131] Top shape: 64 5 24 24 (184320)
I0428 19:52:21.285683 27492 net.cpp:139] Memory required for data: 938240
I0428 19:52:21.285701 27492 layer_factory.hpp:77] Creating layer pool0
I0428 19:52:21.285715 27492 net.cpp:86] Creating Layer pool0
I0428 19:52:21.285720 27492 net.cpp:408] pool0 <- conv0
I0428 19:52:21.285727 27492 net.cpp:382] pool0 -> pool0
I0428 19:52:21.285782 27492 net.cpp:124] Setting up pool0
I0428 19:52:21.285789 27492 net.cpp:131] Top shape: 64 5 12 12 (46080)
I0428 19:52:21.285794 27492 net.cpp:139] Memory required for data: 1122560
I0428 19:52:21.285797 27492 layer_factory.hpp:77] Creating layer conv1
I0428 19:52:21.285810 27492 net.cpp:86] Creating Layer conv1
I0428 19:52:21.285815 27492 net.cpp:408] conv1 <- pool0
I0428 19:52:21.285820 27492 net.cpp:382] conv1 -> conv1
I0428 19:52:21.289042 27492 net.cpp:124] Setting up conv1
I0428 19:52:21.289062 27492 net.cpp:131] Top shape: 64 25 8 8 (102400)
I0428 19:52:21.289067 27492 net.cpp:139] Memory required for data: 1532160
I0428 19:52:21.289077 27492 layer_factory.hpp:77] Creating layer pool1
I0428 19:52:21.289086 27492 net.cpp:86] Creating Layer pool1
I0428 19:52:21.289091 27492 net.cpp:408] pool1 <- conv1
I0428 19:52:21.289098 27492 net.cpp:382] pool1 -> pool1
I0428 19:52:21.289144 27492 net.cpp:124] Setting up pool1
I0428 19:52:21.289149 27492 net.cpp:131] Top shape: 64 25 4 4 (25600)
I0428 19:52:21.289153 27492 net.cpp:139] Memory required for data: 1634560
I0428 19:52:21.289157 27492 layer_factory.hpp:77] Creating layer ip1
I0428 19:52:21.289165 27492 net.cpp:86] Creating Layer ip1
I0428 19:52:21.289168 27492 net.cpp:408] ip1 <- pool1
I0428 19:52:21.289175 27492 net.cpp:382] ip1 -> ip1
I0428 19:52:21.289423 27492 net.cpp:124] Setting up ip1
I0428 19:52:21.289433 27492 net.cpp:131] Top shape: 64 50 (3200)
I0428 19:52:21.289438 27492 net.cpp:139] Memory required for data: 1647360
I0428 19:52:21.289445 27492 layer_factory.hpp:77] Creating layer relu1
I0428 19:52:21.289453 27492 net.cpp:86] Creating Layer relu1
I0428 19:52:21.289456 27492 net.cpp:408] relu1 <- ip1
I0428 19:52:21.289461 27492 net.cpp:369] relu1 -> ip1 (in-place)
I0428 19:52:21.289666 27492 net.cpp:124] Setting up relu1
I0428 19:52:21.289677 27492 net.cpp:131] Top shape: 64 50 (3200)
I0428 19:52:21.289681 27492 net.cpp:139] Memory required for data: 1660160
I0428 19:52:21.289685 27492 layer_factory.hpp:77] Creating layer ip2
I0428 19:52:21.289693 27492 net.cpp:86] Creating Layer ip2
I0428 19:52:21.289696 27492 net.cpp:408] ip2 <- ip1
I0428 19:52:21.289703 27492 net.cpp:382] ip2 -> ip2
I0428 19:52:21.289822 27492 net.cpp:124] Setting up ip2
I0428 19:52:21.289831 27492 net.cpp:131] Top shape: 64 25 (1600)
I0428 19:52:21.289835 27492 net.cpp:139] Memory required for data: 1666560
I0428 19:52:21.289841 27492 layer_factory.hpp:77] Creating layer relu2
I0428 19:52:21.289849 27492 net.cpp:86] Creating Layer relu2
I0428 19:52:21.289852 27492 net.cpp:408] relu2 <- ip2
I0428 19:52:21.289857 27492 net.cpp:369] relu2 -> ip2 (in-place)
I0428 19:52:21.290707 27492 net.cpp:124] Setting up relu2
I0428 19:52:21.290724 27492 net.cpp:131] Top shape: 64 25 (1600)
I0428 19:52:21.290727 27492 net.cpp:139] Memory required for data: 1672960
I0428 19:52:21.290732 27492 layer_factory.hpp:77] Creating layer ip3
I0428 19:52:21.290740 27492 net.cpp:86] Creating Layer ip3
I0428 19:52:21.290745 27492 net.cpp:408] ip3 <- ip2
I0428 19:52:21.290751 27492 net.cpp:382] ip3 -> ip3
I0428 19:52:21.290879 27492 net.cpp:124] Setting up ip3
I0428 19:52:21.290889 27492 net.cpp:131] Top shape: 64 10 (640)
I0428 19:52:21.290892 27492 net.cpp:139] Memory required for data: 1675520
I0428 19:52:21.290902 27492 layer_factory.hpp:77] Creating layer relu3
I0428 19:52:21.290908 27492 net.cpp:86] Creating Layer relu3
I0428 19:52:21.290911 27492 net.cpp:408] relu3 <- ip3
I0428 19:52:21.290916 27492 net.cpp:369] relu3 -> ip3 (in-place)
I0428 19:52:21.291117 27492 net.cpp:124] Setting up relu3
I0428 19:52:21.291128 27492 net.cpp:131] Top shape: 64 10 (640)
I0428 19:52:21.291132 27492 net.cpp:139] Memory required for data: 1678080
I0428 19:52:21.291136 27492 layer_factory.hpp:77] Creating layer loss
I0428 19:52:21.291143 27492 net.cpp:86] Creating Layer loss
I0428 19:52:21.291147 27492 net.cpp:408] loss <- ip3
I0428 19:52:21.291152 27492 net.cpp:408] loss <- label
I0428 19:52:21.291158 27492 net.cpp:382] loss -> loss
I0428 19:52:21.291177 27492 layer_factory.hpp:77] Creating layer loss
…
I0428 19:52:21.291921 27492 solver.cpp:173] Creating test net (#0) specified by net file: ECE595/mnist/train_test/var_everything2/lenet_train_test659.prototxt
I0428 19:52:21.291954 27492 net.cpp:296] The NetState phase (1) differed from the phase (0) specified by a rule in layer mnist
I0428 19:52:21.292064 27492 net.cpp:53] Initializing net from parameters: 
name: "LeNet"
state {
  phase: TEST
}
layer {
  name: "mnist"
  type: "Data"
  top: "data"
  top: "label"
  include {
    phase: TEST
  }
  transform_param {
    scale: 0.00390625
  }
  data_param {
    source: "examples/mnist/mnist_test_lmdb"
    batch_size: 100
    backend: LMDB
  }
}
layer {
  name: "conv0"
  type: "Convolution"
  bottom: "data"
  top: "conv0"
  param {
    lr_mult: 1
  }
  param {
    lr_mult: 2
  }
  convolution_param {
    num_output: 5
    kernel_size: 5
    stride: 1
    weight_filler {
      type: "xavier"
    }
    bias_filler {
      type: "constant"
    }
  }
}
layer {
  name: "pool0"
  type: "Pooling"
  bottom: "conv0"
  top: "pool0"
  pooling_param {
    pool: MAX
    kernel_size: 2
    stride: 2
  }
}
layer {
  name: "conv1"
  type: "Convolution"
  bottom: "pool0"
  top: "conv1"
  param {
    lr_mult: 1
  }
  param {
    lr_mult: 2
  }
  convolution_param {
    num_output: 25
    kernel_size: 5
    stride: 1
    weight_filler {
      type: "xavier"
    }
    bias_filler {
      type: "constant"
    }
  }
}
layer {
  name: "pool1"
  type: "Pooling"
  bottom: "conv1"
  top: "pool1"
  pooling_param {
    pool: MAX
    kernel_size: 2
    stride: 2
  }
}
layer {
  name: "ip1"
  type: "InnerProduct"
  bottom: "pool1"
  top: "ip1"
  param {
    lr_mult: 1
  }
  param {
    lr_mult: 2
  }
  inner_product_param {
    num_output: 50
    weight_filler {
      type: "xavier"
    }
    bias_filler {
      type: "constant"
    }
  }
}
layer {
  name: "relu1"
  type: "ReLU"
  bottom: "ip1"
  top: "ip1"
}
layer {
  name: "ip2"
  type: "InnerProduct"
  bottom: "ip1"
  top: "ip2"
  param {
    lr_mult: 1
  }
  param {
    lr_mult: 2
  }
  inner_product_param {
    num_output: 25
    weight_filler {
      type: "xavier"
    }
    bias_filler {
      type: "constant"
    }
  }
}
layer {
  name: "relu2"
  type: "ReLU"
  bottom: "ip2"
  top: "ip2"
}
layer {
  name: "ip3"
  type: "InnerProduct"
  bottom: "ip2"
  top: "ip3"
  param {
    lr_mult: 1
  }
  param {
    lr_mult: 2
  }
  inner_product_param {
    num_output: 10
    weight_filler {
      type: "xavier"
    }
    bias_filler {
      type: "constant"
    }
  }
}
layer {
  name: "relu3"
  type: "ReLU"
  bottom: "ip3"
  top: "ip3"
}
layer {
  name: "accuracy"
  type: "Accuracy"
  bottom: "ip3"
  bottom: "label"
  top: "accuracy"
  include {
    phase: TEST
  }
}
layer {
  name: "loss"
  type: "SoftmaxWithLoss"
  bottom: "ip3"
  bottom: "label"
  top: "loss"
}
I0428 19:52:21.292160 27492 layer_factory.hpp:77] Creating layer mnist
I0428 19:52:21.292210 27492 db_lmdb.cpp:35] Opened lmdb examples/mnist/mnist_test_lmdb
I0428 19:52:21.292224 27492 net.cpp:86] Creating Layer mnist
I0428 19:52:21.292230 27492 net.cpp:382] mnist -> data
I0428 19:52:21.292239 27492 net.cpp:382] mnist -> label
I0428 19:52:21.292347 27492 data_layer.cpp:45] output data size: 100,1,28,28
I0428 19:52:21.295011 27492 net.cpp:124] Setting up mnist
I0428 19:52:21.295028 27492 net.cpp:131] Top shape: 100 1 28 28 (78400)
I0428 19:52:21.295037 27492 net.cpp:131] Top shape: 100 (100)
I0428 19:52:21.295040 27492 net.cpp:139] Memory required for data: 314000
I0428 19:52:21.295044 27492 layer_factory.hpp:77] Creating layer label_mnist_1_split
I0428 19:52:21.295053 27492 net.cpp:86] Creating Layer label_mnist_1_split
I0428 19:52:21.295056 27492 net.cpp:408] label_mnist_1_split <- label
I0428 19:52:21.295063 27492 net.cpp:382] label_mnist_1_split -> label_mnist_1_split_0
I0428 19:52:21.295069 27492 net.cpp:382] label_mnist_1_split -> label_mnist_1_split_1
I0428 19:52:21.295130 27492 net.cpp:124] Setting up label_mnist_1_split
I0428 19:52:21.295146 27492 net.cpp:131] Top shape: 100 (100)
I0428 19:52:21.295150 27492 net.cpp:131] Top shape: 100 (100)
I0428 19:52:21.295155 27492 net.cpp:139] Memory required for data: 314800
I0428 19:52:21.295158 27492 layer_factory.hpp:77] Creating layer conv0
I0428 19:52:21.295168 27492 net.cpp:86] Creating Layer conv0
I0428 19:52:21.295173 27492 net.cpp:408] conv0 <- data
I0428 19:52:21.295181 27492 net.cpp:382] conv0 -> conv0
I0428 19:52:21.297170 27492 net.cpp:124] Setting up conv0
I0428 19:52:21.297188 27492 net.cpp:131] Top shape: 100 5 24 24 (288000)
I0428 19:52:21.297194 27492 net.cpp:139] Memory required for data: 1466800
I0428 19:52:21.297204 27492 layer_factory.hpp:77] Creating layer pool0
I0428 19:52:21.297214 27492 net.cpp:86] Creating Layer pool0
I0428 19:52:21.297219 27492 net.cpp:408] pool0 <- conv0
I0428 19:52:21.297224 27492 net.cpp:382] pool0 -> pool0
I0428 19:52:21.297269 27492 net.cpp:124] Setting up pool0
I0428 19:52:21.297276 27492 net.cpp:131] Top shape: 100 5 12 12 (72000)
I0428 19:52:21.297279 27492 net.cpp:139] Memory required for data: 1754800
I0428 19:52:21.297283 27492 layer_factory.hpp:77] Creating layer conv1
I0428 19:52:21.297294 27492 net.cpp:86] Creating Layer conv1
I0428 19:52:21.297298 27492 net.cpp:408] conv1 <- pool0
I0428 19:52:21.297305 27492 net.cpp:382] conv1 -> conv1
I0428 19:52:21.299695 27492 net.cpp:124] Setting up conv1
I0428 19:52:21.299710 27492 net.cpp:131] Top shape: 100 25 8 8 (160000)
I0428 19:52:21.299715 27492 net.cpp:139] Memory required for data: 2394800
I0428 19:52:21.299726 27492 layer_factory.hpp:77] Creating layer pool1
I0428 19:52:21.299734 27492 net.cpp:86] Creating Layer pool1
I0428 19:52:21.299738 27492 net.cpp:408] pool1 <- conv1
I0428 19:52:21.299746 27492 net.cpp:382] pool1 -> pool1
I0428 19:52:21.299798 27492 net.cpp:124] Setting up pool1
I0428 19:52:21.299808 27492 net.cpp:131] Top shape: 100 25 4 4 (40000)
I0428 19:52:21.299810 27492 net.cpp:139] Memory required for data: 2554800
I0428 19:52:21.299814 27492 layer_factory.hpp:77] Creating layer ip1
I0428 19:52:21.299823 27492 net.cpp:86] Creating Layer ip1
I0428 19:52:21.299826 27492 net.cpp:408] ip1 <- pool1
I0428 19:52:21.299831 27492 net.cpp:382] ip1 -> ip1
I0428 19:52:21.300132 27492 net.cpp:124] Setting up ip1
I0428 19:52:21.300143 27492 net.cpp:131] Top shape: 100 50 (5000)
I0428 19:52:21.300159 27492 net.cpp:139] Memory required for data: 2574800
I0428 19:52:21.300168 27492 layer_factory.hpp:77] Creating layer relu1
I0428 19:52:21.300176 27492 net.cpp:86] Creating Layer relu1
I0428 19:52:21.300181 27492 net.cpp:408] relu1 <- ip1
I0428 19:52:21.300187 27492 net.cpp:369] relu1 -> ip1 (in-place)
I0428 19:52:21.300400 27492 net.cpp:124] Setting up relu1
I0428 19:52:21.300411 27492 net.cpp:131] Top shape: 100 50 (5000)
I0428 19:52:21.300415 27492 net.cpp:139] Memory required for data: 2594800
I0428 19:52:21.300420 27492 layer_factory.hpp:77] Creating layer ip2
I0428 19:52:21.300429 27492 net.cpp:86] Creating Layer ip2
I0428 19:52:21.300433 27492 net.cpp:408] ip2 <- ip1
I0428 19:52:21.300441 27492 net.cpp:382] ip2 -> ip2
I0428 19:52:21.300575 27492 net.cpp:124] Setting up ip2
I0428 19:52:21.300585 27492 net.cpp:131] Top shape: 100 25 (2500)
I0428 19:52:21.300588 27492 net.cpp:139] Memory required for data: 2604800
I0428 19:52:21.300595 27492 layer_factory.hpp:77] Creating layer relu2
I0428 19:52:21.300601 27492 net.cpp:86] Creating Layer relu2
I0428 19:52:21.300604 27492 net.cpp:408] relu2 <- ip2
I0428 19:52:21.300609 27492 net.cpp:369] relu2 -> ip2 (in-place)
I0428 19:52:21.300861 27492 net.cpp:124] Setting up relu2
I0428 19:52:21.300873 27492 net.cpp:131] Top shape: 100 25 (2500)
I0428 19:52:21.300878 27492 net.cpp:139] Memory required for data: 2614800
I0428 19:52:21.300880 27492 layer_factory.hpp:77] Creating layer ip3
I0428 19:52:21.300887 27492 net.cpp:86] Creating Layer ip3
I0428 19:52:21.300891 27492 net.cpp:408] ip3 <- ip2
I0428 19:52:21.300899 27492 net.cpp:382] ip3 -> ip3
I0428 19:52:21.301043 27492 net.cpp:124] Setting up ip3
I0428 19:52:21.301053 27492 net.cpp:131] Top shape: 100 10 (1000)
I0428 19:52:21.301056 27492 net.cpp:139] Memory required for data: 2618800
I0428 19:52:21.301066 27492 layer_factory.hpp:77] Creating layer relu3
I0428 19:52:21.301072 27492 net.cpp:86] Creating Layer relu3
I0428 19:52:21.301076 27492 net.cpp:408] relu3 <- ip3
I0428 19:52:21.301082 27492 net.cpp:369] relu3 -> ip3 (in-place)
I0428 19:52:21.302017 27492 net.cpp:124] Setting up relu3
I0428 19:52:21.302032 27492 net.cpp:131] Top shape: 100 10 (1000)
I0428 19:52:21.302037 27492 net.cpp:139] Memory required for data: 2622800
I0428 19:52:21.302040 27492 layer_factory.hpp:77] Creating layer ip3_relu3_0_split
I0428 19:52:21.302047 27492 net.cpp:86] Creating Layer ip3_relu3_0_split
I0428 19:52:21.302050 27492 net.cpp:408] ip3_relu3_0_split <- ip3
I0428 19:52:21.302058 27492 net.cpp:382] ip3_relu3_0_split -> ip3_relu3_0_split_0
I0428 19:52:21.302065 27492 net.cpp:382] ip3_relu3_0_split -> ip3_relu3_0_split_1
I0428 19:52:21.302124 27492 net.cpp:124] Setting up ip3_relu3_0_split
I0428 19:52:21.302134 27492 net.cpp:131] Top shape: 100 10 (1000)
I0428 19:52:21.302139 27492 net.cpp:131] Top shape: 100 10 (1000)
I0428 19:52:21.302142 27492 net.cpp:139] Memory required for data: 2630800
I0428 19:52:21.302152 27492 layer_factory.hpp:77] Creating layer accuracy
I0428 19:52:21.302160 27492 net.cpp:86] Creating Layer accuracy
I0428 19:52:21.302165 27492 net.cpp:408] accuracy <- ip3_relu3_0_split_0
I0428 19:52:21.302170 27492 net.cpp:408] accuracy <- label_mnist_1_split_0
I0428 19:52:21.302176 27492 net.cpp:382] accuracy -> accuracy
…
