…
I0428 20:15:16.524430   405 net.cpp:296] The NetState phase (0) differed from the phase (1) specified by a rule in layer mnist
I0428 20:15:16.524449   405 net.cpp:296] The NetState phase (0) differed from the phase (1) specified by a rule in layer accuracy
I0428 20:15:16.524552   405 net.cpp:53] Initializing net from parameters: 
name: "LeNet"
state {
  phase: TRAIN
  level: 0
  stage: ""
}
layer {
  name: "mnist"
  type: "Data"
  top: "data"
  top: "label"
  include {
    phase: TRAIN
  }
  transform_param {
    scale: 0.00390625
  }
  data_param {
    source: "examples/mnist/mnist_train_lmdb"
    batch_size: 64
    backend: LMDB
  }
}
layer {
  name: "conv0"
  type: "Convolution"
  bottom: "data"
  top: "conv0"
  param {
    lr_mult: 1
  }
  param {
    lr_mult: 2
  }
  convolution_param {
    num_output: 50
    kernel_size: 5
    stride: 1
    weight_filler {
      type: "xavier"
    }
    bias_filler {
      type: "constant"
    }
  }
}
layer {
  name: "pool0"
  type: "Pooling"
  bottom: "conv0"
  top: "pool0"
  pooling_param {
    pool: MAX
    kernel_size: 2
    stride: 2
  }
}
layer {
  name: "conv1"
  type: "Convolution"
  bottom: "pool0"
  top: "conv1"
  param {
    lr_mult: 1
  }
  param {
    lr_mult: 2
  }
  convolution_param {
    num_output: 2
    kernel_size: 5
    stride: 1
    weight_filler {
      type: "xavier"
    }
    bias_filler {
      type: "constant"
    }
  }
}
layer {
  name: "pool1"
  type: "Pooling"
  bottom: "conv1"
  top: "pool1"
  pooling_param {
    pool: MAX
    kernel_size: 2
    stride: 2
  }
}
layer {
  name: "ip1"
  type: "InnerProduct"
  bottom: "pool1"
  top: "ip1"
  param {
    lr_mult: 1
  }
  param {
    lr_mult: 2
  }
  inner_product_param {
    num_output: 50
    weight_filler {
      type: "xavier"
    }
    bias_filler {
      type: "constant"
    }
  }
}
layer {
  name: "relu1"
  type: "ReLU"
  bottom: "ip1"
  top: "ip1"
}
layer {
  name: "ip2"
  type: "InnerProduct"
  bottom: "ip1"
  top: "ip2"
  param {
    lr_mult: 1
  }
  param {
    lr_mult: 2
  }
  inner_product_param {
    num_output: 25
    weight_filler {
      type: "xavier"
    }
    bias_filler {
      type: "constant"
    }
  }
}
layer {
  name: "relu2"
  type: "ReLU"
  bottom: "ip2"
  top: "ip2"
}
layer {
  name: "ip3"
  type: "InnerProduct"
  bottom: "ip2"
  top: "ip3"
  param {
    lr_mult: 1
  }
  param {
    lr_mult: 2
  }
  inner_product_param {
    num_output: 10
    weight_filler {
      type: "xavier"
    }
    bias_filler {
      type: "constant"
    }
  }
}
layer {
  name: "relu3"
  type: "ReLU"
  bottom: "ip3"
  top: "ip3"
}
layer {
  name: "loss"
  type: "SoftmaxWithLoss"
  bottom: "ip3"
  bottom: "label"
  top: "loss"
}
I0428 20:15:16.524633   405 layer_factory.hpp:77] Creating layer mnist
I0428 20:15:16.524730   405 db_lmdb.cpp:35] Opened lmdb examples/mnist/mnist_train_lmdb
I0428 20:15:16.524752   405 net.cpp:86] Creating Layer mnist
I0428 20:15:16.524760   405 net.cpp:382] mnist -> data
I0428 20:15:16.524782   405 net.cpp:382] mnist -> label
I0428 20:15:16.525904   405 data_layer.cpp:45] output data size: 64,1,28,28
I0428 20:15:16.528357   405 net.cpp:124] Setting up mnist
I0428 20:15:16.528373   405 net.cpp:131] Top shape: 64 1 28 28 (50176)
I0428 20:15:16.528379   405 net.cpp:131] Top shape: 64 (64)
I0428 20:15:16.528383   405 net.cpp:139] Memory required for data: 200960
I0428 20:15:16.528390   405 layer_factory.hpp:77] Creating layer conv0
I0428 20:15:16.528430   405 net.cpp:86] Creating Layer conv0
I0428 20:15:16.528452   405 net.cpp:408] conv0 <- data
I0428 20:15:16.528465   405 net.cpp:382] conv0 -> conv0
I0428 20:15:16.812137   405 net.cpp:124] Setting up conv0
I0428 20:15:16.812165   405 net.cpp:131] Top shape: 64 50 24 24 (1843200)
I0428 20:15:16.812168   405 net.cpp:139] Memory required for data: 7573760
I0428 20:15:16.812183   405 layer_factory.hpp:77] Creating layer pool0
I0428 20:15:16.812196   405 net.cpp:86] Creating Layer pool0
I0428 20:15:16.812201   405 net.cpp:408] pool0 <- conv0
I0428 20:15:16.812206   405 net.cpp:382] pool0 -> pool0
I0428 20:15:16.812268   405 net.cpp:124] Setting up pool0
I0428 20:15:16.812273   405 net.cpp:131] Top shape: 64 50 12 12 (460800)
I0428 20:15:16.812276   405 net.cpp:139] Memory required for data: 9416960
I0428 20:15:16.812279   405 layer_factory.hpp:77] Creating layer conv1
I0428 20:15:16.812289   405 net.cpp:86] Creating Layer conv1
I0428 20:15:16.812292   405 net.cpp:408] conv1 <- pool0
I0428 20:15:16.812297   405 net.cpp:382] conv1 -> conv1
I0428 20:15:16.814239   405 net.cpp:124] Setting up conv1
I0428 20:15:16.814270   405 net.cpp:131] Top shape: 64 2 8 8 (8192)
I0428 20:15:16.814273   405 net.cpp:139] Memory required for data: 9449728
I0428 20:15:16.814282   405 layer_factory.hpp:77] Creating layer pool1
I0428 20:15:16.814290   405 net.cpp:86] Creating Layer pool1
I0428 20:15:16.814293   405 net.cpp:408] pool1 <- conv1
I0428 20:15:16.814298   405 net.cpp:382] pool1 -> pool1
I0428 20:15:16.814333   405 net.cpp:124] Setting up pool1
I0428 20:15:16.814338   405 net.cpp:131] Top shape: 64 2 4 4 (2048)
I0428 20:15:16.814342   405 net.cpp:139] Memory required for data: 9457920
I0428 20:15:16.814344   405 layer_factory.hpp:77] Creating layer ip1
I0428 20:15:16.814352   405 net.cpp:86] Creating Layer ip1
I0428 20:15:16.814354   405 net.cpp:408] ip1 <- pool1
I0428 20:15:16.814358   405 net.cpp:382] ip1 -> ip1
I0428 20:15:16.814465   405 net.cpp:124] Setting up ip1
I0428 20:15:16.814473   405 net.cpp:131] Top shape: 64 50 (3200)
I0428 20:15:16.814476   405 net.cpp:139] Memory required for data: 9470720
I0428 20:15:16.814483   405 layer_factory.hpp:77] Creating layer relu1
I0428 20:15:16.814488   405 net.cpp:86] Creating Layer relu1
I0428 20:15:16.814491   405 net.cpp:408] relu1 <- ip1
I0428 20:15:16.814496   405 net.cpp:369] relu1 -> ip1 (in-place)
I0428 20:15:16.814653   405 net.cpp:124] Setting up relu1
I0428 20:15:16.814662   405 net.cpp:131] Top shape: 64 50 (3200)
I0428 20:15:16.814666   405 net.cpp:139] Memory required for data: 9483520
I0428 20:15:16.814668   405 layer_factory.hpp:77] Creating layer ip2
I0428 20:15:16.814674   405 net.cpp:86] Creating Layer ip2
I0428 20:15:16.814677   405 net.cpp:408] ip2 <- ip1
I0428 20:15:16.814682   405 net.cpp:382] ip2 -> ip2
I0428 20:15:16.814779   405 net.cpp:124] Setting up ip2
I0428 20:15:16.814786   405 net.cpp:131] Top shape: 64 25 (1600)
I0428 20:15:16.814790   405 net.cpp:139] Memory required for data: 9489920
I0428 20:15:16.814795   405 layer_factory.hpp:77] Creating layer relu2
I0428 20:15:16.814801   405 net.cpp:86] Creating Layer relu2
I0428 20:15:16.814805   405 net.cpp:408] relu2 <- ip2
I0428 20:15:16.814808   405 net.cpp:369] relu2 -> ip2 (in-place)
I0428 20:15:16.815513   405 net.cpp:124] Setting up relu2
I0428 20:15:16.815526   405 net.cpp:131] Top shape: 64 25 (1600)
I0428 20:15:16.815544   405 net.cpp:139] Memory required for data: 9496320
I0428 20:15:16.815548   405 layer_factory.hpp:77] Creating layer ip3
I0428 20:15:16.815554   405 net.cpp:86] Creating Layer ip3
I0428 20:15:16.815558   405 net.cpp:408] ip3 <- ip2
I0428 20:15:16.815563   405 net.cpp:382] ip3 -> ip3
I0428 20:15:16.815659   405 net.cpp:124] Setting up ip3
I0428 20:15:16.815666   405 net.cpp:131] Top shape: 64 10 (640)
I0428 20:15:16.815670   405 net.cpp:139] Memory required for data: 9498880
I0428 20:15:16.815676   405 layer_factory.hpp:77] Creating layer relu3
I0428 20:15:16.815681   405 net.cpp:86] Creating Layer relu3
I0428 20:15:16.815685   405 net.cpp:408] relu3 <- ip3
I0428 20:15:16.815688   405 net.cpp:369] relu3 -> ip3 (in-place)
I0428 20:15:16.815860   405 net.cpp:124] Setting up relu3
I0428 20:15:16.815868   405 net.cpp:131] Top shape: 64 10 (640)
I0428 20:15:16.815872   405 net.cpp:139] Memory required for data: 9501440
I0428 20:15:16.815876   405 layer_factory.hpp:77] Creating layer loss
I0428 20:15:16.815881   405 net.cpp:86] Creating Layer loss
I0428 20:15:16.815884   405 net.cpp:408] loss <- ip3
I0428 20:15:16.815888   405 net.cpp:408] loss <- label
I0428 20:15:16.815893   405 net.cpp:382] loss -> loss
I0428 20:15:16.815910   405 layer_factory.hpp:77] Creating layer loss
…
I0428 20:15:16.816654   405 solver.cpp:173] Creating test net (#0) specified by net file: ECE595/mnist/train_test/var_everything2/lenet_train_test1242.prototxt
I0428 20:15:16.816695   405 net.cpp:296] The NetState phase (1) differed from the phase (0) specified by a rule in layer mnist
I0428 20:15:16.816784   405 net.cpp:53] Initializing net from parameters: 
name: "LeNet"
state {
  phase: TEST
}
layer {
  name: "mnist"
  type: "Data"
  top: "data"
  top: "label"
  include {
    phase: TEST
  }
  transform_param {
    scale: 0.00390625
  }
  data_param {
    source: "examples/mnist/mnist_test_lmdb"
    batch_size: 100
    backend: LMDB
  }
}
layer {
  name: "conv0"
  type: "Convolution"
  bottom: "data"
  top: "conv0"
  param {
    lr_mult: 1
  }
  param {
    lr_mult: 2
  }
  convolution_param {
    num_output: 50
    kernel_size: 5
    stride: 1
    weight_filler {
      type: "xavier"
    }
    bias_filler {
      type: "constant"
    }
  }
}
layer {
  name: "pool0"
  type: "Pooling"
  bottom: "conv0"
  top: "pool0"
  pooling_param {
    pool: MAX
    kernel_size: 2
    stride: 2
  }
}
layer {
  name: "conv1"
  type: "Convolution"
  bottom: "pool0"
  top: "conv1"
  param {
    lr_mult: 1
  }
  param {
    lr_mult: 2
  }
  convolution_param {
    num_output: 2
    kernel_size: 5
    stride: 1
    weight_filler {
      type: "xavier"
    }
    bias_filler {
      type: "constant"
    }
  }
}
layer {
  name: "pool1"
  type: "Pooling"
  bottom: "conv1"
  top: "pool1"
  pooling_param {
    pool: MAX
    kernel_size: 2
    stride: 2
  }
}
layer {
  name: "ip1"
  type: "InnerProduct"
  bottom: "pool1"
  top: "ip1"
  param {
    lr_mult: 1
  }
  param {
    lr_mult: 2
  }
  inner_product_param {
    num_output: 50
    weight_filler {
      type: "xavier"
    }
    bias_filler {
      type: "constant"
    }
  }
}
layer {
  name: "relu1"
  type: "ReLU"
  bottom: "ip1"
  top: "ip1"
}
layer {
  name: "ip2"
  type: "InnerProduct"
  bottom: "ip1"
  top: "ip2"
  param {
    lr_mult: 1
  }
  param {
    lr_mult: 2
  }
  inner_product_param {
    num_output: 25
    weight_filler {
      type: "xavier"
    }
    bias_filler {
      type: "constant"
    }
  }
}
layer {
  name: "relu2"
  type: "ReLU"
  bottom: "ip2"
  top: "ip2"
}
layer {
  name: "ip3"
  type: "InnerProduct"
  bottom: "ip2"
  top: "ip3"
  param {
    lr_mult: 1
  }
  param {
    lr_mult: 2
  }
  inner_product_param {
    num_output: 10
    weight_filler {
      type: "xavier"
    }
    bias_filler {
      type: "constant"
    }
  }
}
layer {
  name: "relu3"
  type: "ReLU"
  bottom: "ip3"
  top: "ip3"
}
layer {
  name: "accuracy"
  type: "Accuracy"
  bottom: "ip3"
  bottom: "label"
  top: "accuracy"
  include {
    phase: TEST
  }
}
layer {
  name: "loss"
  type: "SoftmaxWithLoss"
  bottom: "ip3"
  bottom: "label"
  top: "loss"
}
I0428 20:15:16.816905   405 layer_factory.hpp:77] Creating layer mnist
I0428 20:15:16.816951   405 db_lmdb.cpp:35] Opened lmdb examples/mnist/mnist_test_lmdb
I0428 20:15:16.816967   405 net.cpp:86] Creating Layer mnist
I0428 20:15:16.816972   405 net.cpp:382] mnist -> data
I0428 20:15:16.816980   405 net.cpp:382] mnist -> label
I0428 20:15:16.817072   405 data_layer.cpp:45] output data size: 100,1,28,28
I0428 20:15:16.818979   405 net.cpp:124] Setting up mnist
I0428 20:15:16.819022   405 net.cpp:131] Top shape: 100 1 28 28 (78400)
I0428 20:15:16.819027   405 net.cpp:131] Top shape: 100 (100)
I0428 20:15:16.819031   405 net.cpp:139] Memory required for data: 314000
I0428 20:15:16.819034   405 layer_factory.hpp:77] Creating layer label_mnist_1_split
I0428 20:15:16.819054   405 net.cpp:86] Creating Layer label_mnist_1_split
I0428 20:15:16.819061   405 net.cpp:408] label_mnist_1_split <- label
I0428 20:15:16.819066   405 net.cpp:382] label_mnist_1_split -> label_mnist_1_split_0
I0428 20:15:16.819072   405 net.cpp:382] label_mnist_1_split -> label_mnist_1_split_1
I0428 20:15:16.819167   405 net.cpp:124] Setting up label_mnist_1_split
I0428 20:15:16.819175   405 net.cpp:131] Top shape: 100 (100)
I0428 20:15:16.819180   405 net.cpp:131] Top shape: 100 (100)
I0428 20:15:16.819182   405 net.cpp:139] Memory required for data: 314800
I0428 20:15:16.819185   405 layer_factory.hpp:77] Creating layer conv0
I0428 20:15:16.819195   405 net.cpp:86] Creating Layer conv0
I0428 20:15:16.819197   405 net.cpp:408] conv0 <- data
I0428 20:15:16.819203   405 net.cpp:382] conv0 -> conv0
I0428 20:15:16.820866   405 net.cpp:124] Setting up conv0
I0428 20:15:16.820895   405 net.cpp:131] Top shape: 100 50 24 24 (2880000)
I0428 20:15:16.820899   405 net.cpp:139] Memory required for data: 11834800
I0428 20:15:16.820909   405 layer_factory.hpp:77] Creating layer pool0
I0428 20:15:16.820916   405 net.cpp:86] Creating Layer pool0
I0428 20:15:16.820919   405 net.cpp:408] pool0 <- conv0
I0428 20:15:16.820924   405 net.cpp:382] pool0 -> pool0
I0428 20:15:16.820977   405 net.cpp:124] Setting up pool0
I0428 20:15:16.820982   405 net.cpp:131] Top shape: 100 50 12 12 (720000)
I0428 20:15:16.820986   405 net.cpp:139] Memory required for data: 14714800
I0428 20:15:16.820988   405 layer_factory.hpp:77] Creating layer conv1
I0428 20:15:16.820998   405 net.cpp:86] Creating Layer conv1
I0428 20:15:16.821002   405 net.cpp:408] conv1 <- pool0
I0428 20:15:16.821007   405 net.cpp:382] conv1 -> conv1
I0428 20:15:16.822510   405 net.cpp:124] Setting up conv1
I0428 20:15:16.822522   405 net.cpp:131] Top shape: 100 2 8 8 (12800)
I0428 20:15:16.822542   405 net.cpp:139] Memory required for data: 14766000
I0428 20:15:16.822552   405 layer_factory.hpp:77] Creating layer pool1
I0428 20:15:16.822561   405 net.cpp:86] Creating Layer pool1
I0428 20:15:16.822563   405 net.cpp:408] pool1 <- conv1
I0428 20:15:16.822569   405 net.cpp:382] pool1 -> pool1
I0428 20:15:16.822608   405 net.cpp:124] Setting up pool1
I0428 20:15:16.822613   405 net.cpp:131] Top shape: 100 2 4 4 (3200)
I0428 20:15:16.822616   405 net.cpp:139] Memory required for data: 14778800
I0428 20:15:16.822619   405 layer_factory.hpp:77] Creating layer ip1
I0428 20:15:16.822625   405 net.cpp:86] Creating Layer ip1
I0428 20:15:16.822628   405 net.cpp:408] ip1 <- pool1
I0428 20:15:16.822634   405 net.cpp:382] ip1 -> ip1
I0428 20:15:16.822753   405 net.cpp:124] Setting up ip1
I0428 20:15:16.822762   405 net.cpp:131] Top shape: 100 50 (5000)
I0428 20:15:16.822775   405 net.cpp:139] Memory required for data: 14798800
I0428 20:15:16.822783   405 layer_factory.hpp:77] Creating layer relu1
I0428 20:15:16.822790   405 net.cpp:86] Creating Layer relu1
I0428 20:15:16.822794   405 net.cpp:408] relu1 <- ip1
I0428 20:15:16.822799   405 net.cpp:369] relu1 -> ip1 (in-place)
I0428 20:15:16.822963   405 net.cpp:124] Setting up relu1
I0428 20:15:16.822973   405 net.cpp:131] Top shape: 100 50 (5000)
I0428 20:15:16.822976   405 net.cpp:139] Memory required for data: 14818800
I0428 20:15:16.822979   405 layer_factory.hpp:77] Creating layer ip2
I0428 20:15:16.822988   405 net.cpp:86] Creating Layer ip2
I0428 20:15:16.822990   405 net.cpp:408] ip2 <- ip1
I0428 20:15:16.822996   405 net.cpp:382] ip2 -> ip2
I0428 20:15:16.823107   405 net.cpp:124] Setting up ip2
I0428 20:15:16.823113   405 net.cpp:131] Top shape: 100 25 (2500)
I0428 20:15:16.823117   405 net.cpp:139] Memory required for data: 14828800
I0428 20:15:16.823128   405 layer_factory.hpp:77] Creating layer relu2
I0428 20:15:16.823135   405 net.cpp:86] Creating Layer relu2
I0428 20:15:16.823138   405 net.cpp:408] relu2 <- ip2
I0428 20:15:16.823143   405 net.cpp:369] relu2 -> ip2 (in-place)
I0428 20:15:16.823349   405 net.cpp:124] Setting up relu2
I0428 20:15:16.823359   405 net.cpp:131] Top shape: 100 25 (2500)
I0428 20:15:16.823362   405 net.cpp:139] Memory required for data: 14838800
I0428 20:15:16.823365   405 layer_factory.hpp:77] Creating layer ip3
I0428 20:15:16.823372   405 net.cpp:86] Creating Layer ip3
I0428 20:15:16.823376   405 net.cpp:408] ip3 <- ip2
I0428 20:15:16.823381   405 net.cpp:382] ip3 -> ip3
I0428 20:15:16.823528   405 net.cpp:124] Setting up ip3
I0428 20:15:16.823535   405 net.cpp:131] Top shape: 100 10 (1000)
I0428 20:15:16.823539   405 net.cpp:139] Memory required for data: 14842800
I0428 20:15:16.823546   405 layer_factory.hpp:77] Creating layer relu3
I0428 20:15:16.823551   405 net.cpp:86] Creating Layer relu3
I0428 20:15:16.823554   405 net.cpp:408] relu3 <- ip3
I0428 20:15:16.823559   405 net.cpp:369] relu3 -> ip3 (in-place)
I0428 20:15:16.824405   405 net.cpp:124] Setting up relu3
I0428 20:15:16.824417   405 net.cpp:131] Top shape: 100 10 (1000)
I0428 20:15:16.824437   405 net.cpp:139] Memory required for data: 14846800
I0428 20:15:16.824441   405 layer_factory.hpp:77] Creating layer ip3_relu3_0_split
I0428 20:15:16.824446   405 net.cpp:86] Creating Layer ip3_relu3_0_split
I0428 20:15:16.824450   405 net.cpp:408] ip3_relu3_0_split <- ip3
I0428 20:15:16.824471   405 net.cpp:382] ip3_relu3_0_split -> ip3_relu3_0_split_0
I0428 20:15:16.824477   405 net.cpp:382] ip3_relu3_0_split -> ip3_relu3_0_split_1
I0428 20:15:16.824522   405 net.cpp:124] Setting up ip3_relu3_0_split
I0428 20:15:16.824530   405 net.cpp:131] Top shape: 100 10 (1000)
I0428 20:15:16.824534   405 net.cpp:131] Top shape: 100 10 (1000)
I0428 20:15:16.824537   405 net.cpp:139] Memory required for data: 14854800
I0428 20:15:16.824540   405 layer_factory.hpp:77] Creating layer accuracy
I0428 20:15:16.824546   405 net.cpp:86] Creating Layer accuracy
I0428 20:15:16.824549   405 net.cpp:408] accuracy <- ip3_relu3_0_split_0
I0428 20:15:16.824553   405 net.cpp:408] accuracy <- label_mnist_1_split_0
I0428 20:15:16.824558   405 net.cpp:382] accuracy -> accuracy
…
