…
I0428 20:18:58.668280  1273 net.cpp:296] The NetState phase (0) differed from the phase (1) specified by a rule in layer mnist
I0428 20:18:58.668298  1273 net.cpp:296] The NetState phase (0) differed from the phase (1) specified by a rule in layer accuracy
I0428 20:18:58.668387  1273 net.cpp:53] Initializing net from parameters: 
name: "LeNet"
state {
  phase: TRAIN
  level: 0
  stage: ""
}
layer {
  name: "mnist"
  type: "Data"
  top: "data"
  top: "label"
  include {
    phase: TRAIN
  }
  transform_param {
    scale: 0.00390625
  }
  data_param {
    source: "examples/mnist/mnist_train_lmdb"
    batch_size: 64
    backend: LMDB
  }
}
layer {
  name: "conv0"
  type: "Convolution"
  bottom: "data"
  top: "conv0"
  param {
    lr_mult: 1
  }
  param {
    lr_mult: 2
  }
  convolution_param {
    num_output: 50
    kernel_size: 5
    stride: 1
    weight_filler {
      type: "xavier"
    }
    bias_filler {
      type: "constant"
    }
  }
}
layer {
  name: "pool0"
  type: "Pooling"
  bottom: "conv0"
  top: "pool0"
  pooling_param {
    pool: MAX
    kernel_size: 2
    stride: 2
  }
}
layer {
  name: "conv1"
  type: "Convolution"
  bottom: "pool0"
  top: "conv1"
  param {
    lr_mult: 1
  }
  param {
    lr_mult: 2
  }
  convolution_param {
    num_output: 25
    kernel_size: 5
    stride: 1
    weight_filler {
      type: "xavier"
    }
    bias_filler {
      type: "constant"
    }
  }
}
layer {
  name: "pool1"
  type: "Pooling"
  bottom: "conv1"
  top: "pool1"
  pooling_param {
    pool: MAX
    kernel_size: 2
    stride: 2
  }
}
layer {
  name: "ip1"
  type: "InnerProduct"
  bottom: "pool1"
  top: "ip1"
  param {
    lr_mult: 1
  }
  param {
    lr_mult: 2
  }
  inner_product_param {
    num_output: 10
    weight_filler {
      type: "xavier"
    }
    bias_filler {
      type: "constant"
    }
  }
}
layer {
  name: "relu1"
  type: "ReLU"
  bottom: "ip1"
  top: "ip1"
}
layer {
  name: "ip2"
  type: "InnerProduct"
  bottom: "ip1"
  top: "ip2"
  param {
    lr_mult: 1
  }
  param {
    lr_mult: 2
  }
  inner_product_param {
    num_output: 10
    weight_filler {
      type: "xavier"
    }
    bias_filler {
      type: "constant"
    }
  }
}
layer {
  name: "relu2"
  type: "ReLU"
  bottom: "ip2"
  top: "ip2"
}
layer {
  name: "loss"
  type: "SoftmaxWithLoss"
  bottom: "ip2"
  bottom: "label"
  top: "loss"
}
I0428 20:18:58.668462  1273 layer_factory.hpp:77] Creating layer mnist
I0428 20:18:58.668563  1273 db_lmdb.cpp:35] Opened lmdb examples/mnist/mnist_train_lmdb
I0428 20:18:58.668591  1273 net.cpp:86] Creating Layer mnist
I0428 20:18:58.668599  1273 net.cpp:382] mnist -> data
I0428 20:18:58.668624  1273 net.cpp:382] mnist -> label
I0428 20:18:58.669735  1273 data_layer.cpp:45] output data size: 64,1,28,28
I0428 20:18:58.672194  1273 net.cpp:124] Setting up mnist
I0428 20:18:58.672214  1273 net.cpp:131] Top shape: 64 1 28 28 (50176)
I0428 20:18:58.672219  1273 net.cpp:131] Top shape: 64 (64)
I0428 20:18:58.672224  1273 net.cpp:139] Memory required for data: 200960
I0428 20:18:58.672230  1273 layer_factory.hpp:77] Creating layer conv0
I0428 20:18:58.672273  1273 net.cpp:86] Creating Layer conv0
I0428 20:18:58.672282  1273 net.cpp:408] conv0 <- data
I0428 20:18:58.672296  1273 net.cpp:382] conv0 -> conv0
I0428 20:18:58.954732  1273 net.cpp:124] Setting up conv0
I0428 20:18:58.954759  1273 net.cpp:131] Top shape: 64 50 24 24 (1843200)
I0428 20:18:58.954763  1273 net.cpp:139] Memory required for data: 7573760
I0428 20:18:58.954795  1273 layer_factory.hpp:77] Creating layer pool0
I0428 20:18:58.954808  1273 net.cpp:86] Creating Layer pool0
I0428 20:18:58.954813  1273 net.cpp:408] pool0 <- conv0
I0428 20:18:58.954818  1273 net.cpp:382] pool0 -> pool0
I0428 20:18:58.954864  1273 net.cpp:124] Setting up pool0
I0428 20:18:58.954871  1273 net.cpp:131] Top shape: 64 50 12 12 (460800)
I0428 20:18:58.954874  1273 net.cpp:139] Memory required for data: 9416960
I0428 20:18:58.954877  1273 layer_factory.hpp:77] Creating layer conv1
I0428 20:18:58.954890  1273 net.cpp:86] Creating Layer conv1
I0428 20:18:58.954895  1273 net.cpp:408] conv1 <- pool0
I0428 20:18:58.954900  1273 net.cpp:382] conv1 -> conv1
I0428 20:18:58.956837  1273 net.cpp:124] Setting up conv1
I0428 20:18:58.956882  1273 net.cpp:131] Top shape: 64 25 8 8 (102400)
I0428 20:18:58.956887  1273 net.cpp:139] Memory required for data: 9826560
I0428 20:18:58.956897  1273 layer_factory.hpp:77] Creating layer pool1
I0428 20:18:58.956905  1273 net.cpp:86] Creating Layer pool1
I0428 20:18:58.956909  1273 net.cpp:408] pool1 <- conv1
I0428 20:18:58.956915  1273 net.cpp:382] pool1 -> pool1
I0428 20:18:58.956956  1273 net.cpp:124] Setting up pool1
I0428 20:18:58.956962  1273 net.cpp:131] Top shape: 64 25 4 4 (25600)
I0428 20:18:58.956965  1273 net.cpp:139] Memory required for data: 9928960
I0428 20:18:58.956969  1273 layer_factory.hpp:77] Creating layer ip1
I0428 20:18:58.956976  1273 net.cpp:86] Creating Layer ip1
I0428 20:18:58.956980  1273 net.cpp:408] ip1 <- pool1
I0428 20:18:58.956986  1273 net.cpp:382] ip1 -> ip1
I0428 20:18:58.957142  1273 net.cpp:124] Setting up ip1
I0428 20:18:58.957150  1273 net.cpp:131] Top shape: 64 10 (640)
I0428 20:18:58.957168  1273 net.cpp:139] Memory required for data: 9931520
I0428 20:18:58.957190  1273 layer_factory.hpp:77] Creating layer relu1
I0428 20:18:58.957196  1273 net.cpp:86] Creating Layer relu1
I0428 20:18:58.957214  1273 net.cpp:408] relu1 <- ip1
I0428 20:18:58.957224  1273 net.cpp:369] relu1 -> ip1 (in-place)
I0428 20:18:58.957387  1273 net.cpp:124] Setting up relu1
I0428 20:18:58.957396  1273 net.cpp:131] Top shape: 64 10 (640)
I0428 20:18:58.957399  1273 net.cpp:139] Memory required for data: 9934080
I0428 20:18:58.957402  1273 layer_factory.hpp:77] Creating layer ip2
I0428 20:18:58.957408  1273 net.cpp:86] Creating Layer ip2
I0428 20:18:58.957412  1273 net.cpp:408] ip2 <- ip1
I0428 20:18:58.957417  1273 net.cpp:382] ip2 -> ip2
I0428 20:18:58.957515  1273 net.cpp:124] Setting up ip2
I0428 20:18:58.957521  1273 net.cpp:131] Top shape: 64 10 (640)
I0428 20:18:58.957525  1273 net.cpp:139] Memory required for data: 9936640
I0428 20:18:58.957530  1273 layer_factory.hpp:77] Creating layer relu2
I0428 20:18:58.957535  1273 net.cpp:86] Creating Layer relu2
I0428 20:18:58.957538  1273 net.cpp:408] relu2 <- ip2
I0428 20:18:58.957543  1273 net.cpp:369] relu2 -> ip2 (in-place)
I0428 20:18:58.958273  1273 net.cpp:124] Setting up relu2
I0428 20:18:58.958284  1273 net.cpp:131] Top shape: 64 10 (640)
I0428 20:18:58.958288  1273 net.cpp:139] Memory required for data: 9939200
I0428 20:18:58.958292  1273 layer_factory.hpp:77] Creating layer loss
I0428 20:18:58.958297  1273 net.cpp:86] Creating Layer loss
I0428 20:18:58.958300  1273 net.cpp:408] loss <- ip2
I0428 20:18:58.958304  1273 net.cpp:408] loss <- label
I0428 20:18:58.958310  1273 net.cpp:382] loss -> loss
I0428 20:18:58.958326  1273 layer_factory.hpp:77] Creating layer loss
…
I0428 20:18:58.958915  1273 solver.cpp:173] Creating test net (#0) specified by net file: ECE595/mnist/train_test/var_everything2/lenet_train_test1331.prototxt
I0428 20:18:58.958940  1273 net.cpp:296] The NetState phase (1) differed from the phase (0) specified by a rule in layer mnist
I0428 20:18:58.959020  1273 net.cpp:53] Initializing net from parameters: 
name: "LeNet"
state {
  phase: TEST
}
layer {
  name: "mnist"
  type: "Data"
  top: "data"
  top: "label"
  include {
    phase: TEST
  }
  transform_param {
    scale: 0.00390625
  }
  data_param {
    source: "examples/mnist/mnist_test_lmdb"
    batch_size: 100
    backend: LMDB
  }
}
layer {
  name: "conv0"
  type: "Convolution"
  bottom: "data"
  top: "conv0"
  param {
    lr_mult: 1
  }
  param {
    lr_mult: 2
  }
  convolution_param {
    num_output: 50
    kernel_size: 5
    stride: 1
    weight_filler {
      type: "xavier"
    }
    bias_filler {
      type: "constant"
    }
  }
}
layer {
  name: "pool0"
  type: "Pooling"
  bottom: "conv0"
  top: "pool0"
  pooling_param {
    pool: MAX
    kernel_size: 2
    stride: 2
  }
}
layer {
  name: "conv1"
  type: "Convolution"
  bottom: "pool0"
  top: "conv1"
  param {
    lr_mult: 1
  }
  param {
    lr_mult: 2
  }
  convolution_param {
    num_output: 25
    kernel_size: 5
    stride: 1
    weight_filler {
      type: "xavier"
    }
    bias_filler {
      type: "constant"
    }
  }
}
layer {
  name: "pool1"
  type: "Pooling"
  bottom: "conv1"
  top: "pool1"
  pooling_param {
    pool: MAX
    kernel_size: 2
    stride: 2
  }
}
layer {
  name: "ip1"
  type: "InnerProduct"
  bottom: "pool1"
  top: "ip1"
  param {
    lr_mult: 1
  }
  param {
    lr_mult: 2
  }
  inner_product_param {
    num_output: 10
    weight_filler {
      type: "xavier"
    }
    bias_filler {
      type: "constant"
    }
  }
}
layer {
  name: "relu1"
  type: "ReLU"
  bottom: "ip1"
  top: "ip1"
}
layer {
  name: "ip2"
  type: "InnerProduct"
  bottom: "ip1"
  top: "ip2"
  param {
    lr_mult: 1
  }
  param {
    lr_mult: 2
  }
  inner_product_param {
    num_output: 10
    weight_filler {
      type: "xavier"
    }
    bias_filler {
      type: "constant"
    }
  }
}
layer {
  name: "relu2"
  type: "ReLU"
  bottom: "ip2"
  top: "ip2"
}
layer {
  name: "accuracy"
  type: "Accuracy"
  bottom: "ip2"
  bottom: "label"
  top: "accuracy"
  include {
    phase: TEST
  }
}
layer {
  name: "loss"
  type: "SoftmaxWithLoss"
  bottom: "ip2"
  bottom: "label"
  top: "loss"
}
I0428 20:18:58.959087  1273 layer_factory.hpp:77] Creating layer mnist
I0428 20:18:58.959127  1273 db_lmdb.cpp:35] Opened lmdb examples/mnist/mnist_test_lmdb
I0428 20:18:58.959142  1273 net.cpp:86] Creating Layer mnist
I0428 20:18:58.959148  1273 net.cpp:382] mnist -> data
I0428 20:18:58.959156  1273 net.cpp:382] mnist -> label
I0428 20:18:58.959237  1273 data_layer.cpp:45] output data size: 100,1,28,28
I0428 20:18:58.961072  1273 net.cpp:124] Setting up mnist
I0428 20:18:58.961102  1273 net.cpp:131] Top shape: 100 1 28 28 (78400)
I0428 20:18:58.961107  1273 net.cpp:131] Top shape: 100 (100)
I0428 20:18:58.961109  1273 net.cpp:139] Memory required for data: 314000
I0428 20:18:58.961117  1273 layer_factory.hpp:77] Creating layer label_mnist_1_split
I0428 20:18:58.961122  1273 net.cpp:86] Creating Layer label_mnist_1_split
I0428 20:18:58.961127  1273 net.cpp:408] label_mnist_1_split <- label
I0428 20:18:58.961134  1273 net.cpp:382] label_mnist_1_split -> label_mnist_1_split_0
I0428 20:18:58.961155  1273 net.cpp:382] label_mnist_1_split -> label_mnist_1_split_1
I0428 20:18:58.961273  1273 net.cpp:124] Setting up label_mnist_1_split
I0428 20:18:58.961283  1273 net.cpp:131] Top shape: 100 (100)
I0428 20:18:58.961287  1273 net.cpp:131] Top shape: 100 (100)
I0428 20:18:58.961290  1273 net.cpp:139] Memory required for data: 314800
I0428 20:18:58.961293  1273 layer_factory.hpp:77] Creating layer conv0
I0428 20:18:58.961302  1273 net.cpp:86] Creating Layer conv0
I0428 20:18:58.961307  1273 net.cpp:408] conv0 <- data
I0428 20:18:58.961311  1273 net.cpp:382] conv0 -> conv0
I0428 20:18:58.962960  1273 net.cpp:124] Setting up conv0
I0428 20:18:58.962988  1273 net.cpp:131] Top shape: 100 50 24 24 (2880000)
I0428 20:18:58.962992  1273 net.cpp:139] Memory required for data: 11834800
I0428 20:18:58.963001  1273 layer_factory.hpp:77] Creating layer pool0
I0428 20:18:58.963008  1273 net.cpp:86] Creating Layer pool0
I0428 20:18:58.963012  1273 net.cpp:408] pool0 <- conv0
I0428 20:18:58.963018  1273 net.cpp:382] pool0 -> pool0
I0428 20:18:58.963054  1273 net.cpp:124] Setting up pool0
I0428 20:18:58.963059  1273 net.cpp:131] Top shape: 100 50 12 12 (720000)
I0428 20:18:58.963063  1273 net.cpp:139] Memory required for data: 14714800
I0428 20:18:58.963065  1273 layer_factory.hpp:77] Creating layer conv1
I0428 20:18:58.963076  1273 net.cpp:86] Creating Layer conv1
I0428 20:18:58.963080  1273 net.cpp:408] conv1 <- pool0
I0428 20:18:58.963085  1273 net.cpp:382] conv1 -> conv1
I0428 20:18:58.965003  1273 net.cpp:124] Setting up conv1
I0428 20:18:58.965018  1273 net.cpp:131] Top shape: 100 25 8 8 (160000)
I0428 20:18:58.965021  1273 net.cpp:139] Memory required for data: 15354800
I0428 20:18:58.965031  1273 layer_factory.hpp:77] Creating layer pool1
I0428 20:18:58.965037  1273 net.cpp:86] Creating Layer pool1
I0428 20:18:58.965041  1273 net.cpp:408] pool1 <- conv1
I0428 20:18:58.965046  1273 net.cpp:382] pool1 -> pool1
I0428 20:18:58.965100  1273 net.cpp:124] Setting up pool1
I0428 20:18:58.965111  1273 net.cpp:131] Top shape: 100 25 4 4 (40000)
I0428 20:18:58.965116  1273 net.cpp:139] Memory required for data: 15514800
I0428 20:18:58.965118  1273 layer_factory.hpp:77] Creating layer ip1
I0428 20:18:58.965124  1273 net.cpp:86] Creating Layer ip1
I0428 20:18:58.965128  1273 net.cpp:408] ip1 <- pool1
I0428 20:18:58.965133  1273 net.cpp:382] ip1 -> ip1
I0428 20:18:58.965291  1273 net.cpp:124] Setting up ip1
I0428 20:18:58.965298  1273 net.cpp:131] Top shape: 100 10 (1000)
I0428 20:18:58.965302  1273 net.cpp:139] Memory required for data: 15518800
I0428 20:18:58.965309  1273 layer_factory.hpp:77] Creating layer relu1
I0428 20:18:58.965315  1273 net.cpp:86] Creating Layer relu1
I0428 20:18:58.965318  1273 net.cpp:408] relu1 <- ip1
I0428 20:18:58.965322  1273 net.cpp:369] relu1 -> ip1 (in-place)
I0428 20:18:58.965481  1273 net.cpp:124] Setting up relu1
I0428 20:18:58.965490  1273 net.cpp:131] Top shape: 100 10 (1000)
I0428 20:18:58.965495  1273 net.cpp:139] Memory required for data: 15522800
I0428 20:18:58.965498  1273 layer_factory.hpp:77] Creating layer ip2
I0428 20:18:58.965504  1273 net.cpp:86] Creating Layer ip2
I0428 20:18:58.965508  1273 net.cpp:408] ip2 <- ip1
I0428 20:18:58.965515  1273 net.cpp:382] ip2 -> ip2
I0428 20:18:58.965633  1273 net.cpp:124] Setting up ip2
I0428 20:18:58.965641  1273 net.cpp:131] Top shape: 100 10 (1000)
I0428 20:18:58.965643  1273 net.cpp:139] Memory required for data: 15526800
I0428 20:18:58.965651  1273 layer_factory.hpp:77] Creating layer relu2
I0428 20:18:58.965656  1273 net.cpp:86] Creating Layer relu2
I0428 20:18:58.965659  1273 net.cpp:408] relu2 <- ip2
I0428 20:18:58.965663  1273 net.cpp:369] relu2 -> ip2 (in-place)
I0428 20:18:58.965850  1273 net.cpp:124] Setting up relu2
I0428 20:18:58.965858  1273 net.cpp:131] Top shape: 100 10 (1000)
I0428 20:18:58.965862  1273 net.cpp:139] Memory required for data: 15530800
I0428 20:18:58.965864  1273 layer_factory.hpp:77] Creating layer ip2_relu2_0_split
I0428 20:18:58.965870  1273 net.cpp:86] Creating Layer ip2_relu2_0_split
I0428 20:18:58.965873  1273 net.cpp:408] ip2_relu2_0_split <- ip2
I0428 20:18:58.965878  1273 net.cpp:382] ip2_relu2_0_split -> ip2_relu2_0_split_0
I0428 20:18:58.965893  1273 net.cpp:382] ip2_relu2_0_split -> ip2_relu2_0_split_1
I0428 20:18:58.965932  1273 net.cpp:124] Setting up ip2_relu2_0_split
I0428 20:18:58.965939  1273 net.cpp:131] Top shape: 100 10 (1000)
I0428 20:18:58.965943  1273 net.cpp:131] Top shape: 100 10 (1000)
I0428 20:18:58.965946  1273 net.cpp:139] Memory required for data: 15538800
I0428 20:18:58.965950  1273 layer_factory.hpp:77] Creating layer accuracy
I0428 20:18:58.965955  1273 net.cpp:86] Creating Layer accuracy
I0428 20:18:58.965958  1273 net.cpp:408] accuracy <- ip2_relu2_0_split_0
I0428 20:18:58.965962  1273 net.cpp:408] accuracy <- label_mnist_1_split_0
I0428 20:18:58.965966  1273 net.cpp:382] accuracy -> accuracy
…
