…
I0428 20:23:08.282737  2191 net.cpp:296] The NetState phase (0) differed from the phase (1) specified by a rule in layer mnist
I0428 20:23:08.282757  2191 net.cpp:296] The NetState phase (0) differed from the phase (1) specified by a rule in layer accuracy
I0428 20:23:08.282866  2191 net.cpp:53] Initializing net from parameters: 
name: "LeNet"
state {
  phase: TRAIN
  level: 0
  stage: ""
}
layer {
  name: "mnist"
  type: "Data"
  top: "data"
  top: "label"
  include {
    phase: TRAIN
  }
  transform_param {
    scale: 0.00390625
  }
  data_param {
    source: "examples/mnist/mnist_train_lmdb"
    batch_size: 64
    backend: LMDB
  }
}
layer {
  name: "conv0"
  type: "Convolution"
  bottom: "data"
  top: "conv0"
  param {
    lr_mult: 1
  }
  param {
    lr_mult: 2
  }
  convolution_param {
    num_output: 50
    kernel_size: 5
    stride: 1
    weight_filler {
      type: "xavier"
    }
    bias_filler {
      type: "constant"
    }
  }
}
layer {
  name: "pool0"
  type: "Pooling"
  bottom: "conv0"
  top: "pool0"
  pooling_param {
    pool: MAX
    kernel_size: 2
    stride: 2
  }
}
layer {
  name: "conv1"
  type: "Convolution"
  bottom: "pool0"
  top: "conv1"
  param {
    lr_mult: 1
  }
  param {
    lr_mult: 2
  }
  convolution_param {
    num_output: 100
    kernel_size: 5
    stride: 1
    weight_filler {
      type: "xavier"
    }
    bias_filler {
      type: "constant"
    }
  }
}
layer {
  name: "pool1"
  type: "Pooling"
  bottom: "conv1"
  top: "pool1"
  pooling_param {
    pool: MAX
    kernel_size: 2
    stride: 2
  }
}
layer {
  name: "ip1"
  type: "InnerProduct"
  bottom: "pool1"
  top: "ip1"
  param {
    lr_mult: 1
  }
  param {
    lr_mult: 2
  }
  inner_product_param {
    num_output: 10
    weight_filler {
      type: "xavier"
    }
    bias_filler {
      type: "constant"
    }
  }
}
layer {
  name: "relu1"
  type: "ReLU"
  bottom: "ip1"
  top: "ip1"
}
layer {
  name: "ip2"
  type: "InnerProduct"
  bottom: "ip1"
  top: "ip2"
  param {
    lr_mult: 1
  }
  param {
    lr_mult: 2
  }
  inner_product_param {
    num_output: 10
    weight_filler {
      type: "xavier"
    }
    bias_filler {
      type: "constant"
    }
  }
}
layer {
  name: "relu2"
  type: "ReLU"
  bottom: "ip2"
  top: "ip2"
}
layer {
  name: "ip3"
  type: "InnerProduct"
  bottom: "ip2"
  top: "ip3"
  param {
    lr_mult: 1
  }
  param {
    lr_mult: 2
  }
  inner_product_param {
    num_output: 10
    weight_filler {
      type: "xavier"
    }
    bias_filler {
      type: "constant"
    }
  }
}
layer {
  name: "relu3"
  type: "ReLU"
  bottom: "ip3"
  top: "ip3"
}
layer {
  name: "loss"
  type: "SoftmaxWithLoss"
  bottom: "ip3"
  bottom: "label"
  top: "loss"
}
I0428 20:23:08.282946  2191 layer_factory.hpp:77] Creating layer mnist
I0428 20:23:08.283047  2191 db_lmdb.cpp:35] Opened lmdb examples/mnist/mnist_train_lmdb
I0428 20:23:08.283073  2191 net.cpp:86] Creating Layer mnist
I0428 20:23:08.283084  2191 net.cpp:382] mnist -> data
I0428 20:23:08.283109  2191 net.cpp:382] mnist -> label
I0428 20:23:08.284206  2191 data_layer.cpp:45] output data size: 64,1,28,28
I0428 20:23:08.286689  2191 net.cpp:124] Setting up mnist
I0428 20:23:08.286708  2191 net.cpp:131] Top shape: 64 1 28 28 (50176)
I0428 20:23:08.286715  2191 net.cpp:131] Top shape: 64 (64)
I0428 20:23:08.286718  2191 net.cpp:139] Memory required for data: 200960
I0428 20:23:08.286725  2191 layer_factory.hpp:77] Creating layer conv0
I0428 20:23:08.286743  2191 net.cpp:86] Creating Layer conv0
I0428 20:23:08.286764  2191 net.cpp:408] conv0 <- data
I0428 20:23:08.286777  2191 net.cpp:382] conv0 -> conv0
I0428 20:23:08.576632  2191 net.cpp:124] Setting up conv0
I0428 20:23:08.576659  2191 net.cpp:131] Top shape: 64 50 24 24 (1843200)
I0428 20:23:08.576664  2191 net.cpp:139] Memory required for data: 7573760
I0428 20:23:08.576680  2191 layer_factory.hpp:77] Creating layer pool0
I0428 20:23:08.576694  2191 net.cpp:86] Creating Layer pool0
I0428 20:23:08.576697  2191 net.cpp:408] pool0 <- conv0
I0428 20:23:08.576704  2191 net.cpp:382] pool0 -> pool0
I0428 20:23:08.576756  2191 net.cpp:124] Setting up pool0
I0428 20:23:08.576764  2191 net.cpp:131] Top shape: 64 50 12 12 (460800)
I0428 20:23:08.576767  2191 net.cpp:139] Memory required for data: 9416960
I0428 20:23:08.576771  2191 layer_factory.hpp:77] Creating layer conv1
I0428 20:23:08.576782  2191 net.cpp:86] Creating Layer conv1
I0428 20:23:08.576787  2191 net.cpp:408] conv1 <- pool0
I0428 20:23:08.576793  2191 net.cpp:382] conv1 -> conv1
I0428 20:23:08.580381  2191 net.cpp:124] Setting up conv1
I0428 20:23:08.580397  2191 net.cpp:131] Top shape: 64 100 8 8 (409600)
I0428 20:23:08.580401  2191 net.cpp:139] Memory required for data: 11055360
I0428 20:23:08.580411  2191 layer_factory.hpp:77] Creating layer pool1
I0428 20:23:08.580420  2191 net.cpp:86] Creating Layer pool1
I0428 20:23:08.580423  2191 net.cpp:408] pool1 <- conv1
I0428 20:23:08.580430  2191 net.cpp:382] pool1 -> pool1
I0428 20:23:08.580468  2191 net.cpp:124] Setting up pool1
I0428 20:23:08.580482  2191 net.cpp:131] Top shape: 64 100 4 4 (102400)
I0428 20:23:08.580485  2191 net.cpp:139] Memory required for data: 11464960
I0428 20:23:08.580488  2191 layer_factory.hpp:77] Creating layer ip1
I0428 20:23:08.580497  2191 net.cpp:86] Creating Layer ip1
I0428 20:23:08.580502  2191 net.cpp:408] ip1 <- pool1
I0428 20:23:08.580505  2191 net.cpp:382] ip1 -> ip1
I0428 20:23:08.581595  2191 net.cpp:124] Setting up ip1
I0428 20:23:08.581609  2191 net.cpp:131] Top shape: 64 10 (640)
I0428 20:23:08.581611  2191 net.cpp:139] Memory required for data: 11467520
I0428 20:23:08.581622  2191 layer_factory.hpp:77] Creating layer relu1
I0428 20:23:08.581629  2191 net.cpp:86] Creating Layer relu1
I0428 20:23:08.581632  2191 net.cpp:408] relu1 <- ip1
I0428 20:23:08.581637  2191 net.cpp:369] relu1 -> ip1 (in-place)
I0428 20:23:08.581818  2191 net.cpp:124] Setting up relu1
I0428 20:23:08.581827  2191 net.cpp:131] Top shape: 64 10 (640)
I0428 20:23:08.581830  2191 net.cpp:139] Memory required for data: 11470080
I0428 20:23:08.581833  2191 layer_factory.hpp:77] Creating layer ip2
I0428 20:23:08.581842  2191 net.cpp:86] Creating Layer ip2
I0428 20:23:08.581845  2191 net.cpp:408] ip2 <- ip1
I0428 20:23:08.581851  2191 net.cpp:382] ip2 -> ip2
I0428 20:23:08.581954  2191 net.cpp:124] Setting up ip2
I0428 20:23:08.581961  2191 net.cpp:131] Top shape: 64 10 (640)
I0428 20:23:08.581964  2191 net.cpp:139] Memory required for data: 11472640
I0428 20:23:08.581970  2191 layer_factory.hpp:77] Creating layer relu2
I0428 20:23:08.581976  2191 net.cpp:86] Creating Layer relu2
I0428 20:23:08.581979  2191 net.cpp:408] relu2 <- ip2
I0428 20:23:08.581984  2191 net.cpp:369] relu2 -> ip2 (in-place)
I0428 20:23:08.582731  2191 net.cpp:124] Setting up relu2
I0428 20:23:08.582743  2191 net.cpp:131] Top shape: 64 10 (640)
I0428 20:23:08.582746  2191 net.cpp:139] Memory required for data: 11475200
I0428 20:23:08.582751  2191 layer_factory.hpp:77] Creating layer ip3
I0428 20:23:08.582759  2191 net.cpp:86] Creating Layer ip3
I0428 20:23:08.582762  2191 net.cpp:408] ip3 <- ip2
I0428 20:23:08.582768  2191 net.cpp:382] ip3 -> ip3
I0428 20:23:08.582875  2191 net.cpp:124] Setting up ip3
I0428 20:23:08.582882  2191 net.cpp:131] Top shape: 64 10 (640)
I0428 20:23:08.582885  2191 net.cpp:139] Memory required for data: 11477760
I0428 20:23:08.582893  2191 layer_factory.hpp:77] Creating layer relu3
I0428 20:23:08.582898  2191 net.cpp:86] Creating Layer relu3
I0428 20:23:08.582901  2191 net.cpp:408] relu3 <- ip3
I0428 20:23:08.582906  2191 net.cpp:369] relu3 -> ip3 (in-place)
I0428 20:23:08.583086  2191 net.cpp:124] Setting up relu3
I0428 20:23:08.583094  2191 net.cpp:131] Top shape: 64 10 (640)
I0428 20:23:08.583098  2191 net.cpp:139] Memory required for data: 11480320
I0428 20:23:08.583101  2191 layer_factory.hpp:77] Creating layer loss
I0428 20:23:08.583106  2191 net.cpp:86] Creating Layer loss
I0428 20:23:08.583109  2191 net.cpp:408] loss <- ip3
I0428 20:23:08.583114  2191 net.cpp:408] loss <- label
I0428 20:23:08.583120  2191 net.cpp:382] loss -> loss
I0428 20:23:08.583137  2191 layer_factory.hpp:77] Creating layer loss
…
I0428 20:23:08.583806  2191 solver.cpp:173] Creating test net (#0) specified by net file: ECE595/mnist/train_test/var_everything2/lenet_train_test1416.prototxt
I0428 20:23:08.583849  2191 net.cpp:296] The NetState phase (1) differed from the phase (0) specified by a rule in layer mnist
I0428 20:23:08.583978  2191 net.cpp:53] Initializing net from parameters: 
name: "LeNet"
state {
  phase: TEST
}
layer {
  name: "mnist"
  type: "Data"
  top: "data"
  top: "label"
  include {
    phase: TEST
  }
  transform_param {
    scale: 0.00390625
  }
  data_param {
    source: "examples/mnist/mnist_test_lmdb"
    batch_size: 100
    backend: LMDB
  }
}
layer {
  name: "conv0"
  type: "Convolution"
  bottom: "data"
  top: "conv0"
  param {
    lr_mult: 1
  }
  param {
    lr_mult: 2
  }
  convolution_param {
    num_output: 50
    kernel_size: 5
    stride: 1
    weight_filler {
      type: "xavier"
    }
    bias_filler {
      type: "constant"
    }
  }
}
layer {
  name: "pool0"
  type: "Pooling"
  bottom: "conv0"
  top: "pool0"
  pooling_param {
    pool: MAX
    kernel_size: 2
    stride: 2
  }
}
layer {
  name: "conv1"
  type: "Convolution"
  bottom: "pool0"
  top: "conv1"
  param {
    lr_mult: 1
  }
  param {
    lr_mult: 2
  }
  convolution_param {
    num_output: 100
    kernel_size: 5
    stride: 1
    weight_filler {
      type: "xavier"
    }
    bias_filler {
      type: "constant"
    }
  }
}
layer {
  name: "pool1"
  type: "Pooling"
  bottom: "conv1"
  top: "pool1"
  pooling_param {
    pool: MAX
    kernel_size: 2
    stride: 2
  }
}
layer {
  name: "ip1"
  type: "InnerProduct"
  bottom: "pool1"
  top: "ip1"
  param {
    lr_mult: 1
  }
  param {
    lr_mult: 2
  }
  inner_product_param {
    num_output: 10
    weight_filler {
      type: "xavier"
    }
    bias_filler {
      type: "constant"
    }
  }
}
layer {
  name: "relu1"
  type: "ReLU"
  bottom: "ip1"
  top: "ip1"
}
layer {
  name: "ip2"
  type: "InnerProduct"
  bottom: "ip1"
  top: "ip2"
  param {
    lr_mult: 1
  }
  param {
    lr_mult: 2
  }
  inner_product_param {
    num_output: 10
    weight_filler {
      type: "xavier"
    }
    bias_filler {
      type: "constant"
    }
  }
}
layer {
  name: "relu2"
  type: "ReLU"
  bottom: "ip2"
  top: "ip2"
}
layer {
  name: "ip3"
  type: "InnerProduct"
  bottom: "ip2"
  top: "ip3"
  param {
    lr_mult: 1
  }
  param {
    lr_mult: 2
  }
  inner_product_param {
    num_output: 10
    weight_filler {
      type: "xavier"
    }
    bias_filler {
      type: "constant"
    }
  }
}
layer {
  name: "relu3"
  type: "ReLU"
  bottom: "ip3"
  top: "ip3"
}
layer {
  name: "accuracy"
  type: "Accuracy"
  bottom: "ip3"
  bottom: "label"
  top: "accuracy"
  include {
    phase: TEST
  }
}
layer {
  name: "loss"
  type: "SoftmaxWithLoss"
  bottom: "ip3"
  bottom: "label"
  top: "loss"
}
I0428 20:23:08.584067  2191 layer_factory.hpp:77] Creating layer mnist
I0428 20:23:08.584128  2191 db_lmdb.cpp:35] Opened lmdb examples/mnist/mnist_test_lmdb
I0428 20:23:08.584139  2191 net.cpp:86] Creating Layer mnist
I0428 20:23:08.584144  2191 net.cpp:382] mnist -> data
I0428 20:23:08.584152  2191 net.cpp:382] mnist -> label
I0428 20:23:08.584241  2191 data_layer.cpp:45] output data size: 100,1,28,28
I0428 20:23:08.585345  2191 net.cpp:124] Setting up mnist
I0428 20:23:08.585358  2191 net.cpp:131] Top shape: 100 1 28 28 (78400)
I0428 20:23:08.585363  2191 net.cpp:131] Top shape: 100 (100)
I0428 20:23:08.585366  2191 net.cpp:139] Memory required for data: 314000
I0428 20:23:08.585371  2191 layer_factory.hpp:77] Creating layer label_mnist_1_split
I0428 20:23:08.585399  2191 net.cpp:86] Creating Layer label_mnist_1_split
I0428 20:23:08.585403  2191 net.cpp:408] label_mnist_1_split <- label
I0428 20:23:08.585425  2191 net.cpp:382] label_mnist_1_split -> label_mnist_1_split_0
I0428 20:23:08.585433  2191 net.cpp:382] label_mnist_1_split -> label_mnist_1_split_1
I0428 20:23:08.585481  2191 net.cpp:124] Setting up label_mnist_1_split
I0428 20:23:08.585489  2191 net.cpp:131] Top shape: 100 (100)
I0428 20:23:08.585494  2191 net.cpp:131] Top shape: 100 (100)
I0428 20:23:08.585495  2191 net.cpp:139] Memory required for data: 314800
I0428 20:23:08.585499  2191 layer_factory.hpp:77] Creating layer conv0
I0428 20:23:08.585508  2191 net.cpp:86] Creating Layer conv0
I0428 20:23:08.585511  2191 net.cpp:408] conv0 <- data
I0428 20:23:08.585517  2191 net.cpp:382] conv0 -> conv0
I0428 20:23:08.587249  2191 net.cpp:124] Setting up conv0
I0428 20:23:08.587265  2191 net.cpp:131] Top shape: 100 50 24 24 (2880000)
I0428 20:23:08.587268  2191 net.cpp:139] Memory required for data: 11834800
I0428 20:23:08.587277  2191 layer_factory.hpp:77] Creating layer pool0
I0428 20:23:08.587283  2191 net.cpp:86] Creating Layer pool0
I0428 20:23:08.587287  2191 net.cpp:408] pool0 <- conv0
I0428 20:23:08.587293  2191 net.cpp:382] pool0 -> pool0
I0428 20:23:08.587330  2191 net.cpp:124] Setting up pool0
I0428 20:23:08.587337  2191 net.cpp:131] Top shape: 100 50 12 12 (720000)
I0428 20:23:08.587338  2191 net.cpp:139] Memory required for data: 14714800
I0428 20:23:08.587342  2191 layer_factory.hpp:77] Creating layer conv1
I0428 20:23:08.587352  2191 net.cpp:86] Creating Layer conv1
I0428 20:23:08.587355  2191 net.cpp:408] conv1 <- pool0
I0428 20:23:08.587360  2191 net.cpp:382] conv1 -> conv1
I0428 20:23:08.590451  2191 net.cpp:124] Setting up conv1
I0428 20:23:08.590466  2191 net.cpp:131] Top shape: 100 100 8 8 (640000)
I0428 20:23:08.590469  2191 net.cpp:139] Memory required for data: 17274800
I0428 20:23:08.590484  2191 layer_factory.hpp:77] Creating layer pool1
I0428 20:23:08.590492  2191 net.cpp:86] Creating Layer pool1
I0428 20:23:08.590497  2191 net.cpp:408] pool1 <- conv1
I0428 20:23:08.590508  2191 net.cpp:382] pool1 -> pool1
I0428 20:23:08.590548  2191 net.cpp:124] Setting up pool1
I0428 20:23:08.590553  2191 net.cpp:131] Top shape: 100 100 4 4 (160000)
I0428 20:23:08.590556  2191 net.cpp:139] Memory required for data: 17914800
I0428 20:23:08.590559  2191 layer_factory.hpp:77] Creating layer ip1
I0428 20:23:08.590571  2191 net.cpp:86] Creating Layer ip1
I0428 20:23:08.590576  2191 net.cpp:408] ip1 <- pool1
I0428 20:23:08.590585  2191 net.cpp:382] ip1 -> ip1
I0428 20:23:08.590777  2191 net.cpp:124] Setting up ip1
I0428 20:23:08.590796  2191 net.cpp:131] Top shape: 100 10 (1000)
I0428 20:23:08.590800  2191 net.cpp:139] Memory required for data: 17918800
I0428 20:23:08.590807  2191 layer_factory.hpp:77] Creating layer relu1
I0428 20:23:08.590812  2191 net.cpp:86] Creating Layer relu1
I0428 20:23:08.590822  2191 net.cpp:408] relu1 <- ip1
I0428 20:23:08.590829  2191 net.cpp:369] relu1 -> ip1 (in-place)
I0428 20:23:08.591007  2191 net.cpp:124] Setting up relu1
I0428 20:23:08.591017  2191 net.cpp:131] Top shape: 100 10 (1000)
I0428 20:23:08.591020  2191 net.cpp:139] Memory required for data: 17922800
I0428 20:23:08.591024  2191 layer_factory.hpp:77] Creating layer ip2
I0428 20:23:08.591032  2191 net.cpp:86] Creating Layer ip2
I0428 20:23:08.591035  2191 net.cpp:408] ip2 <- ip1
I0428 20:23:08.591040  2191 net.cpp:382] ip2 -> ip2
I0428 20:23:08.591161  2191 net.cpp:124] Setting up ip2
I0428 20:23:08.591168  2191 net.cpp:131] Top shape: 100 10 (1000)
I0428 20:23:08.591171  2191 net.cpp:139] Memory required for data: 17926800
I0428 20:23:08.591176  2191 layer_factory.hpp:77] Creating layer relu2
I0428 20:23:08.591181  2191 net.cpp:86] Creating Layer relu2
I0428 20:23:08.591184  2191 net.cpp:408] relu2 <- ip2
I0428 20:23:08.591189  2191 net.cpp:369] relu2 -> ip2 (in-place)
I0428 20:23:08.591392  2191 net.cpp:124] Setting up relu2
I0428 20:23:08.591399  2191 net.cpp:131] Top shape: 100 10 (1000)
I0428 20:23:08.591403  2191 net.cpp:139] Memory required for data: 17930800
I0428 20:23:08.591406  2191 layer_factory.hpp:77] Creating layer ip3
I0428 20:23:08.591413  2191 net.cpp:86] Creating Layer ip3
I0428 20:23:08.591416  2191 net.cpp:408] ip3 <- ip2
I0428 20:23:08.591421  2191 net.cpp:382] ip3 -> ip3
I0428 20:23:08.591549  2191 net.cpp:124] Setting up ip3
I0428 20:23:08.591557  2191 net.cpp:131] Top shape: 100 10 (1000)
I0428 20:23:08.591559  2191 net.cpp:139] Memory required for data: 17934800
I0428 20:23:08.591567  2191 layer_factory.hpp:77] Creating layer relu3
I0428 20:23:08.591573  2191 net.cpp:86] Creating Layer relu3
I0428 20:23:08.591576  2191 net.cpp:408] relu3 <- ip3
I0428 20:23:08.591580  2191 net.cpp:369] relu3 -> ip3 (in-place)
I0428 20:23:08.592344  2191 net.cpp:124] Setting up relu3
I0428 20:23:08.592356  2191 net.cpp:131] Top shape: 100 10 (1000)
I0428 20:23:08.592360  2191 net.cpp:139] Memory required for data: 17938800
I0428 20:23:08.592363  2191 layer_factory.hpp:77] Creating layer ip3_relu3_0_split
I0428 20:23:08.592370  2191 net.cpp:86] Creating Layer ip3_relu3_0_split
I0428 20:23:08.592372  2191 net.cpp:408] ip3_relu3_0_split <- ip3
I0428 20:23:08.592377  2191 net.cpp:382] ip3_relu3_0_split -> ip3_relu3_0_split_0
I0428 20:23:08.592383  2191 net.cpp:382] ip3_relu3_0_split -> ip3_relu3_0_split_1
I0428 20:23:08.592428  2191 net.cpp:124] Setting up ip3_relu3_0_split
I0428 20:23:08.592437  2191 net.cpp:131] Top shape: 100 10 (1000)
I0428 20:23:08.592442  2191 net.cpp:131] Top shape: 100 10 (1000)
I0428 20:23:08.592447  2191 net.cpp:139] Memory required for data: 17946800
I0428 20:23:08.592452  2191 layer_factory.hpp:77] Creating layer accuracy
I0428 20:23:08.592458  2191 net.cpp:86] Creating Layer accuracy
I0428 20:23:08.592461  2191 net.cpp:408] accuracy <- ip3_relu3_0_split_0
I0428 20:23:08.592465  2191 net.cpp:408] accuracy <- label_mnist_1_split_0
I0428 20:23:08.592471  2191 net.cpp:382] accuracy -> accuracy
…
