…
I0428 19:33:07.277091 23031 net.cpp:296] The NetState phase (0) differed from the phase (1) specified by a rule in layer mnist
I0428 19:33:07.277115 23031 net.cpp:296] The NetState phase (0) differed from the phase (1) specified by a rule in layer accuracy
I0428 19:33:07.277212 23031 net.cpp:53] Initializing net from parameters: 
name: "LeNet"
state {
  phase: TRAIN
  level: 0
  stage: ""
}
layer {
  name: "mnist"
  type: "Data"
  top: "data"
  top: "label"
  include {
    phase: TRAIN
  }
  transform_param {
    scale: 0.00390625
  }
  data_param {
    source: "examples/mnist/mnist_train_lmdb"
    batch_size: 64
    backend: LMDB
  }
}
layer {
  name: "conv0"
  type: "Convolution"
  bottom: "data"
  top: "conv0"
  param {
    lr_mult: 1
  }
  param {
    lr_mult: 2
  }
  convolution_param {
    num_output: 25
    kernel_size: 5
    stride: 1
    weight_filler {
      type: "xavier"
    }
    bias_filler {
      type: "constant"
    }
  }
}
layer {
  name: "pool0"
  type: "Pooling"
  bottom: "conv0"
  top: "pool0"
  pooling_param {
    pool: MAX
    kernel_size: 2
    stride: 2
  }
}
layer {
  name: "ip1"
  type: "InnerProduct"
  bottom: "pool0"
  top: "ip1"
  param {
    lr_mult: 1
  }
  param {
    lr_mult: 2
  }
  inner_product_param {
    num_output: 10
    weight_filler {
      type: "xavier"
    }
    bias_filler {
      type: "constant"
    }
  }
}
layer {
  name: "relu1"
  type: "ReLU"
  bottom: "ip1"
  top: "ip1"
}
layer {
  name: "ip2"
  type: "InnerProduct"
  bottom: "ip1"
  top: "ip2"
  param {
    lr_mult: 1
  }
  param {
    lr_mult: 2
  }
  inner_product_param {
    num_output: 25
    weight_filler {
      type: "xavier"
    }
    bias_filler {
      type: "constant"
    }
  }
}
layer {
  name: "relu2"
  type: "ReLU"
  bottom: "ip2"
  top: "ip2"
}
layer {
  name: "ip3"
  type: "InnerProduct"
  bottom: "ip2"
  top: "ip3"
  param {
    lr_mult: 1
  }
  param {
    lr_mult: 2
  }
  inner_product_param {
    num_output: 10
    weight_filler {
      type: "xavier"
    }
    bias_filler {
      type: "constant"
    }
  }
}
layer {
  name: "relu3"
  type: "ReLU"
  bottom: "ip3"
  top: "ip3"
}
layer {
  name: "loss"
  type: "SoftmaxWithLoss"
  bottom: "ip3"
  bottom: "label"
  top: "loss"
}
I0428 19:33:07.277318 23031 layer_factory.hpp:77] Creating layer mnist
I0428 19:33:07.277451 23031 db_lmdb.cpp:35] Opened lmdb examples/mnist/mnist_train_lmdb
I0428 19:33:07.277482 23031 net.cpp:86] Creating Layer mnist
I0428 19:33:07.277496 23031 net.cpp:382] mnist -> data
I0428 19:33:07.277528 23031 net.cpp:382] mnist -> label
I0428 19:33:07.278751 23031 data_layer.cpp:45] output data size: 64,1,28,28
I0428 19:33:07.281221 23031 net.cpp:124] Setting up mnist
I0428 19:33:07.281241 23031 net.cpp:131] Top shape: 64 1 28 28 (50176)
I0428 19:33:07.281252 23031 net.cpp:131] Top shape: 64 (64)
I0428 19:33:07.281257 23031 net.cpp:139] Memory required for data: 200960
I0428 19:33:07.281268 23031 layer_factory.hpp:77] Creating layer conv0
I0428 19:33:07.281292 23031 net.cpp:86] Creating Layer conv0
I0428 19:33:07.281302 23031 net.cpp:408] conv0 <- data
I0428 19:33:07.281322 23031 net.cpp:382] conv0 -> conv0
I0428 19:33:07.574189 23031 net.cpp:124] Setting up conv0
I0428 19:33:07.574223 23031 net.cpp:131] Top shape: 64 25 24 24 (921600)
I0428 19:33:07.574229 23031 net.cpp:139] Memory required for data: 3887360
I0428 19:33:07.574254 23031 layer_factory.hpp:77] Creating layer pool0
I0428 19:33:07.574272 23031 net.cpp:86] Creating Layer pool0
I0428 19:33:07.574302 23031 net.cpp:408] pool0 <- conv0
I0428 19:33:07.574316 23031 net.cpp:382] pool0 -> pool0
I0428 19:33:07.574383 23031 net.cpp:124] Setting up pool0
I0428 19:33:07.574394 23031 net.cpp:131] Top shape: 64 25 12 12 (230400)
I0428 19:33:07.574400 23031 net.cpp:139] Memory required for data: 4808960
I0428 19:33:07.574407 23031 layer_factory.hpp:77] Creating layer ip1
I0428 19:33:07.574425 23031 net.cpp:86] Creating Layer ip1
I0428 19:33:07.574434 23031 net.cpp:408] ip1 <- pool0
I0428 19:33:07.574443 23031 net.cpp:382] ip1 -> ip1
I0428 19:33:07.574802 23031 net.cpp:124] Setting up ip1
I0428 19:33:07.574815 23031 net.cpp:131] Top shape: 64 10 (640)
I0428 19:33:07.574820 23031 net.cpp:139] Memory required for data: 4811520
I0428 19:33:07.574834 23031 layer_factory.hpp:77] Creating layer relu1
I0428 19:33:07.574846 23031 net.cpp:86] Creating Layer relu1
I0428 19:33:07.574856 23031 net.cpp:408] relu1 <- ip1
I0428 19:33:07.574864 23031 net.cpp:369] relu1 -> ip1 (in-place)
I0428 19:33:07.575062 23031 net.cpp:124] Setting up relu1
I0428 19:33:07.575074 23031 net.cpp:131] Top shape: 64 10 (640)
I0428 19:33:07.575080 23031 net.cpp:139] Memory required for data: 4814080
I0428 19:33:07.575086 23031 layer_factory.hpp:77] Creating layer ip2
I0428 19:33:07.575098 23031 net.cpp:86] Creating Layer ip2
I0428 19:33:07.575104 23031 net.cpp:408] ip2 <- ip1
I0428 19:33:07.575114 23031 net.cpp:382] ip2 -> ip2
I0428 19:33:07.575232 23031 net.cpp:124] Setting up ip2
I0428 19:33:07.575243 23031 net.cpp:131] Top shape: 64 25 (1600)
I0428 19:33:07.575248 23031 net.cpp:139] Memory required for data: 4820480
I0428 19:33:07.575263 23031 layer_factory.hpp:77] Creating layer relu2
I0428 19:33:07.575273 23031 net.cpp:86] Creating Layer relu2
I0428 19:33:07.575280 23031 net.cpp:408] relu2 <- ip2
I0428 19:33:07.575289 23031 net.cpp:369] relu2 -> ip2 (in-place)
I0428 19:33:07.576118 23031 net.cpp:124] Setting up relu2
I0428 19:33:07.576135 23031 net.cpp:131] Top shape: 64 25 (1600)
I0428 19:33:07.576143 23031 net.cpp:139] Memory required for data: 4826880
I0428 19:33:07.576150 23031 layer_factory.hpp:77] Creating layer ip3
I0428 19:33:07.576162 23031 net.cpp:86] Creating Layer ip3
I0428 19:33:07.576169 23031 net.cpp:408] ip3 <- ip2
I0428 19:33:07.576179 23031 net.cpp:382] ip3 -> ip3
I0428 19:33:07.576295 23031 net.cpp:124] Setting up ip3
I0428 19:33:07.576306 23031 net.cpp:131] Top shape: 64 10 (640)
I0428 19:33:07.576313 23031 net.cpp:139] Memory required for data: 4829440
I0428 19:33:07.576323 23031 layer_factory.hpp:77] Creating layer relu3
I0428 19:33:07.576334 23031 net.cpp:86] Creating Layer relu3
I0428 19:33:07.576341 23031 net.cpp:408] relu3 <- ip3
I0428 19:33:07.576370 23031 net.cpp:369] relu3 -> ip3 (in-place)
I0428 19:33:07.576550 23031 net.cpp:124] Setting up relu3
I0428 19:33:07.576561 23031 net.cpp:131] Top shape: 64 10 (640)
I0428 19:33:07.576567 23031 net.cpp:139] Memory required for data: 4832000
I0428 19:33:07.576573 23031 layer_factory.hpp:77] Creating layer loss
I0428 19:33:07.576583 23031 net.cpp:86] Creating Layer loss
I0428 19:33:07.576589 23031 net.cpp:408] loss <- ip3
I0428 19:33:07.576597 23031 net.cpp:408] loss <- label
I0428 19:33:07.576607 23031 net.cpp:382] loss -> loss
I0428 19:33:07.576633 23031 layer_factory.hpp:77] Creating layer loss
…
I0428 19:33:07.577376 23031 solver.cpp:173] Creating test net (#0) specified by net file: ECE595/mnist/train_test/var_everything2/lenet_train_test171.prototxt
I0428 19:33:07.577414 23031 net.cpp:296] The NetState phase (1) differed from the phase (0) specified by a rule in layer mnist
I0428 19:33:07.577515 23031 net.cpp:53] Initializing net from parameters: 
name: "LeNet"
state {
  phase: TEST
}
layer {
  name: "mnist"
  type: "Data"
  top: "data"
  top: "label"
  include {
    phase: TEST
  }
  transform_param {
    scale: 0.00390625
  }
  data_param {
    source: "examples/mnist/mnist_test_lmdb"
    batch_size: 100
    backend: LMDB
  }
}
layer {
  name: "conv0"
  type: "Convolution"
  bottom: "data"
  top: "conv0"
  param {
    lr_mult: 1
  }
  param {
    lr_mult: 2
  }
  convolution_param {
    num_output: 25
    kernel_size: 5
    stride: 1
    weight_filler {
      type: "xavier"
    }
    bias_filler {
      type: "constant"
    }
  }
}
layer {
  name: "pool0"
  type: "Pooling"
  bottom: "conv0"
  top: "pool0"
  pooling_param {
    pool: MAX
    kernel_size: 2
    stride: 2
  }
}
layer {
  name: "ip1"
  type: "InnerProduct"
  bottom: "pool0"
  top: "ip1"
  param {
    lr_mult: 1
  }
  param {
    lr_mult: 2
  }
  inner_product_param {
    num_output: 10
    weight_filler {
      type: "xavier"
    }
    bias_filler {
      type: "constant"
    }
  }
}
layer {
  name: "relu1"
  type: "ReLU"
  bottom: "ip1"
  top: "ip1"
}
layer {
  name: "ip2"
  type: "InnerProduct"
  bottom: "ip1"
  top: "ip2"
  param {
    lr_mult: 1
  }
  param {
    lr_mult: 2
  }
  inner_product_param {
    num_output: 25
    weight_filler {
      type: "xavier"
    }
    bias_filler {
      type: "constant"
    }
  }
}
layer {
  name: "relu2"
  type: "ReLU"
  bottom: "ip2"
  top: "ip2"
}
layer {
  name: "ip3"
  type: "InnerProduct"
  bottom: "ip2"
  top: "ip3"
  param {
    lr_mult: 1
  }
  param {
    lr_mult: 2
  }
  inner_product_param {
    num_output: 10
    weight_filler {
      type: "xavier"
    }
    bias_filler {
      type: "constant"
    }
  }
}
layer {
  name: "relu3"
  type: "ReLU"
  bottom: "ip3"
  top: "ip3"
}
layer {
  name: "accuracy"
  type: "Accuracy"
  bottom: "ip3"
  bottom: "label"
  top: "accuracy"
  include {
    phase: TEST
  }
}
layer {
  name: "loss"
  type: "SoftmaxWithLoss"
  bottom: "ip3"
  bottom: "label"
  top: "loss"
}
I0428 19:33:07.577625 23031 layer_factory.hpp:77] Creating layer mnist
I0428 19:33:07.577693 23031 db_lmdb.cpp:35] Opened lmdb examples/mnist/mnist_test_lmdb
I0428 19:33:07.577714 23031 net.cpp:86] Creating Layer mnist
I0428 19:33:07.577723 23031 net.cpp:382] mnist -> data
I0428 19:33:07.577738 23031 net.cpp:382] mnist -> label
I0428 19:33:07.577872 23031 data_layer.cpp:45] output data size: 100,1,28,28
I0428 19:33:07.580344 23031 net.cpp:124] Setting up mnist
I0428 19:33:07.580361 23031 net.cpp:131] Top shape: 100 1 28 28 (78400)
I0428 19:33:07.580371 23031 net.cpp:131] Top shape: 100 (100)
I0428 19:33:07.580377 23031 net.cpp:139] Memory required for data: 314000
I0428 19:33:07.580384 23031 layer_factory.hpp:77] Creating layer label_mnist_1_split
I0428 19:33:07.580401 23031 net.cpp:86] Creating Layer label_mnist_1_split
I0428 19:33:07.580409 23031 net.cpp:408] label_mnist_1_split <- label
I0428 19:33:07.580417 23031 net.cpp:382] label_mnist_1_split -> label_mnist_1_split_0
I0428 19:33:07.580430 23031 net.cpp:382] label_mnist_1_split -> label_mnist_1_split_1
I0428 19:33:07.580521 23031 net.cpp:124] Setting up label_mnist_1_split
I0428 19:33:07.580533 23031 net.cpp:131] Top shape: 100 (100)
I0428 19:33:07.580539 23031 net.cpp:131] Top shape: 100 (100)
I0428 19:33:07.580545 23031 net.cpp:139] Memory required for data: 314800
I0428 19:33:07.580564 23031 layer_factory.hpp:77] Creating layer conv0
I0428 19:33:07.580579 23031 net.cpp:86] Creating Layer conv0
I0428 19:33:07.580587 23031 net.cpp:408] conv0 <- data
I0428 19:33:07.580597 23031 net.cpp:382] conv0 -> conv0
I0428 19:33:07.582249 23031 net.cpp:124] Setting up conv0
I0428 19:33:07.582267 23031 net.cpp:131] Top shape: 100 25 24 24 (1440000)
I0428 19:33:07.582274 23031 net.cpp:139] Memory required for data: 6074800
I0428 19:33:07.582291 23031 layer_factory.hpp:77] Creating layer pool0
I0428 19:33:07.582303 23031 net.cpp:86] Creating Layer pool0
I0428 19:33:07.582309 23031 net.cpp:408] pool0 <- conv0
I0428 19:33:07.582319 23031 net.cpp:382] pool0 -> pool0
I0428 19:33:07.582367 23031 net.cpp:124] Setting up pool0
I0428 19:33:07.582377 23031 net.cpp:131] Top shape: 100 25 12 12 (360000)
I0428 19:33:07.582384 23031 net.cpp:139] Memory required for data: 7514800
I0428 19:33:07.582391 23031 layer_factory.hpp:77] Creating layer ip1
I0428 19:33:07.582404 23031 net.cpp:86] Creating Layer ip1
I0428 19:33:07.582412 23031 net.cpp:408] ip1 <- pool0
I0428 19:33:07.582422 23031 net.cpp:382] ip1 -> ip1
I0428 19:33:07.582824 23031 net.cpp:124] Setting up ip1
I0428 19:33:07.582835 23031 net.cpp:131] Top shape: 100 10 (1000)
I0428 19:33:07.582841 23031 net.cpp:139] Memory required for data: 7518800
I0428 19:33:07.582855 23031 layer_factory.hpp:77] Creating layer relu1
I0428 19:33:07.582865 23031 net.cpp:86] Creating Layer relu1
I0428 19:33:07.582872 23031 net.cpp:408] relu1 <- ip1
I0428 19:33:07.582881 23031 net.cpp:369] relu1 -> ip1 (in-place)
I0428 19:33:07.583079 23031 net.cpp:124] Setting up relu1
I0428 19:33:07.583092 23031 net.cpp:131] Top shape: 100 10 (1000)
I0428 19:33:07.583098 23031 net.cpp:139] Memory required for data: 7522800
I0428 19:33:07.583104 23031 layer_factory.hpp:77] Creating layer ip2
I0428 19:33:07.583117 23031 net.cpp:86] Creating Layer ip2
I0428 19:33:07.583122 23031 net.cpp:408] ip2 <- ip1
I0428 19:33:07.583133 23031 net.cpp:382] ip2 -> ip2
I0428 19:33:07.583252 23031 net.cpp:124] Setting up ip2
I0428 19:33:07.583266 23031 net.cpp:131] Top shape: 100 25 (2500)
I0428 19:33:07.583271 23031 net.cpp:139] Memory required for data: 7532800
I0428 19:33:07.583286 23031 layer_factory.hpp:77] Creating layer relu2
I0428 19:33:07.583299 23031 net.cpp:86] Creating Layer relu2
I0428 19:33:07.583307 23031 net.cpp:408] relu2 <- ip2
I0428 19:33:07.583315 23031 net.cpp:369] relu2 -> ip2 (in-place)
I0428 19:33:07.584219 23031 net.cpp:124] Setting up relu2
I0428 19:33:07.584234 23031 net.cpp:131] Top shape: 100 25 (2500)
I0428 19:33:07.584241 23031 net.cpp:139] Memory required for data: 7542800
I0428 19:33:07.584247 23031 layer_factory.hpp:77] Creating layer ip3
I0428 19:33:07.584264 23031 net.cpp:86] Creating Layer ip3
I0428 19:33:07.584271 23031 net.cpp:408] ip3 <- ip2
I0428 19:33:07.584286 23031 net.cpp:382] ip3 -> ip3
I0428 19:33:07.584421 23031 net.cpp:124] Setting up ip3
I0428 19:33:07.584432 23031 net.cpp:131] Top shape: 100 10 (1000)
I0428 19:33:07.584439 23031 net.cpp:139] Memory required for data: 7546800
I0428 19:33:07.584450 23031 layer_factory.hpp:77] Creating layer relu3
I0428 19:33:07.584458 23031 net.cpp:86] Creating Layer relu3
I0428 19:33:07.584465 23031 net.cpp:408] relu3 <- ip3
I0428 19:33:07.584472 23031 net.cpp:369] relu3 -> ip3 (in-place)
I0428 19:33:07.584681 23031 net.cpp:124] Setting up relu3
I0428 19:33:07.584694 23031 net.cpp:131] Top shape: 100 10 (1000)
I0428 19:33:07.584700 23031 net.cpp:139] Memory required for data: 7550800
I0428 19:33:07.584707 23031 layer_factory.hpp:77] Creating layer ip3_relu3_0_split
I0428 19:33:07.584717 23031 net.cpp:86] Creating Layer ip3_relu3_0_split
I0428 19:33:07.584722 23031 net.cpp:408] ip3_relu3_0_split <- ip3
I0428 19:33:07.584733 23031 net.cpp:382] ip3_relu3_0_split -> ip3_relu3_0_split_0
I0428 19:33:07.584744 23031 net.cpp:382] ip3_relu3_0_split -> ip3_relu3_0_split_1
I0428 19:33:07.584794 23031 net.cpp:124] Setting up ip3_relu3_0_split
I0428 19:33:07.584803 23031 net.cpp:131] Top shape: 100 10 (1000)
I0428 19:33:07.584818 23031 net.cpp:131] Top shape: 100 10 (1000)
I0428 19:33:07.584837 23031 net.cpp:139] Memory required for data: 7558800
I0428 19:33:07.584846 23031 layer_factory.hpp:77] Creating layer accuracy
I0428 19:33:07.584857 23031 net.cpp:86] Creating Layer accuracy
I0428 19:33:07.584864 23031 net.cpp:408] accuracy <- ip3_relu3_0_split_0
I0428 19:33:07.584879 23031 net.cpp:408] accuracy <- label_mnist_1_split_0
I0428 19:33:07.584888 23031 net.cpp:382] accuracy -> accuracy
…
