…
I0428 20:25:15.497198  2559 net.cpp:296] The NetState phase (0) differed from the phase (1) specified by a rule in layer mnist
I0428 20:25:15.497217  2559 net.cpp:296] The NetState phase (0) differed from the phase (1) specified by a rule in layer accuracy
I0428 20:25:15.497308  2559 net.cpp:53] Initializing net from parameters: 
name: "LeNet"
state {
  phase: TRAIN
  level: 0
  stage: ""
}
layer {
  name: "mnist"
  type: "Data"
  top: "data"
  top: "label"
  include {
    phase: TRAIN
  }
  transform_param {
    scale: 0.00390625
  }
  data_param {
    source: "examples/mnist/mnist_train_lmdb"
    batch_size: 64
    backend: LMDB
  }
}
layer {
  name: "conv0"
  type: "Convolution"
  bottom: "data"
  top: "conv0"
  param {
    lr_mult: 1
  }
  param {
    lr_mult: 2
  }
  convolution_param {
    num_output: 100
    kernel_size: 5
    stride: 1
    weight_filler {
      type: "xavier"
    }
    bias_filler {
      type: "constant"
    }
  }
}
layer {
  name: "pool0"
  type: "Pooling"
  bottom: "conv0"
  top: "pool0"
  pooling_param {
    pool: MAX
    kernel_size: 2
    stride: 2
  }
}
layer {
  name: "conv1"
  type: "Convolution"
  bottom: "pool0"
  top: "conv1"
  param {
    lr_mult: 1
  }
  param {
    lr_mult: 2
  }
  convolution_param {
    num_output: 2
    kernel_size: 5
    stride: 1
    weight_filler {
      type: "xavier"
    }
    bias_filler {
      type: "constant"
    }
  }
}
layer {
  name: "pool1"
  type: "Pooling"
  bottom: "conv1"
  top: "pool1"
  pooling_param {
    pool: MAX
    kernel_size: 2
    stride: 2
  }
}
layer {
  name: "ip1"
  type: "InnerProduct"
  bottom: "pool1"
  top: "ip1"
  param {
    lr_mult: 1
  }
  param {
    lr_mult: 2
  }
  inner_product_param {
    num_output: 25
    weight_filler {
      type: "xavier"
    }
    bias_filler {
      type: "constant"
    }
  }
}
layer {
  name: "relu1"
  type: "ReLU"
  bottom: "ip1"
  top: "ip1"
}
layer {
  name: "ip2"
  type: "InnerProduct"
  bottom: "ip1"
  top: "ip2"
  param {
    lr_mult: 1
  }
  param {
    lr_mult: 2
  }
  inner_product_param {
    num_output: 10
    weight_filler {
      type: "xavier"
    }
    bias_filler {
      type: "constant"
    }
  }
}
layer {
  name: "relu2"
  type: "ReLU"
  bottom: "ip2"
  top: "ip2"
}
layer {
  name: "loss"
  type: "SoftmaxWithLoss"
  bottom: "ip2"
  bottom: "label"
  top: "loss"
}
I0428 20:25:15.497385  2559 layer_factory.hpp:77] Creating layer mnist
I0428 20:25:15.497486  2559 db_lmdb.cpp:35] Opened lmdb examples/mnist/mnist_train_lmdb
I0428 20:25:15.497512  2559 net.cpp:86] Creating Layer mnist
I0428 20:25:15.497521  2559 net.cpp:382] mnist -> data
I0428 20:25:15.497544  2559 net.cpp:382] mnist -> label
I0428 20:25:15.498637  2559 data_layer.cpp:45] output data size: 64,1,28,28
I0428 20:25:15.501127  2559 net.cpp:124] Setting up mnist
I0428 20:25:15.501147  2559 net.cpp:131] Top shape: 64 1 28 28 (50176)
I0428 20:25:15.501163  2559 net.cpp:131] Top shape: 64 (64)
I0428 20:25:15.501165  2559 net.cpp:139] Memory required for data: 200960
I0428 20:25:15.501173  2559 layer_factory.hpp:77] Creating layer conv0
I0428 20:25:15.501201  2559 net.cpp:86] Creating Layer conv0
I0428 20:25:15.501207  2559 net.cpp:408] conv0 <- data
I0428 20:25:15.501220  2559 net.cpp:382] conv0 -> conv0
I0428 20:25:15.771621  2559 net.cpp:124] Setting up conv0
I0428 20:25:15.771663  2559 net.cpp:131] Top shape: 64 100 24 24 (3686400)
I0428 20:25:15.771667  2559 net.cpp:139] Memory required for data: 14946560
I0428 20:25:15.771713  2559 layer_factory.hpp:77] Creating layer pool0
I0428 20:25:15.771741  2559 net.cpp:86] Creating Layer pool0
I0428 20:25:15.771745  2559 net.cpp:408] pool0 <- conv0
I0428 20:25:15.771750  2559 net.cpp:382] pool0 -> pool0
I0428 20:25:15.771795  2559 net.cpp:124] Setting up pool0
I0428 20:25:15.771811  2559 net.cpp:131] Top shape: 64 100 12 12 (921600)
I0428 20:25:15.771814  2559 net.cpp:139] Memory required for data: 18632960
I0428 20:25:15.771817  2559 layer_factory.hpp:77] Creating layer conv1
I0428 20:25:15.771827  2559 net.cpp:86] Creating Layer conv1
I0428 20:25:15.771831  2559 net.cpp:408] conv1 <- pool0
I0428 20:25:15.771834  2559 net.cpp:382] conv1 -> conv1
I0428 20:25:15.774462  2559 net.cpp:124] Setting up conv1
I0428 20:25:15.774492  2559 net.cpp:131] Top shape: 64 2 8 8 (8192)
I0428 20:25:15.774495  2559 net.cpp:139] Memory required for data: 18665728
I0428 20:25:15.774518  2559 layer_factory.hpp:77] Creating layer pool1
I0428 20:25:15.774524  2559 net.cpp:86] Creating Layer pool1
I0428 20:25:15.774528  2559 net.cpp:408] pool1 <- conv1
I0428 20:25:15.774531  2559 net.cpp:382] pool1 -> pool1
I0428 20:25:15.774580  2559 net.cpp:124] Setting up pool1
I0428 20:25:15.774585  2559 net.cpp:131] Top shape: 64 2 4 4 (2048)
I0428 20:25:15.774588  2559 net.cpp:139] Memory required for data: 18673920
I0428 20:25:15.774590  2559 layer_factory.hpp:77] Creating layer ip1
I0428 20:25:15.774598  2559 net.cpp:86] Creating Layer ip1
I0428 20:25:15.774601  2559 net.cpp:408] ip1 <- pool1
I0428 20:25:15.774605  2559 net.cpp:382] ip1 -> ip1
I0428 20:25:15.774730  2559 net.cpp:124] Setting up ip1
I0428 20:25:15.774739  2559 net.cpp:131] Top shape: 64 25 (1600)
I0428 20:25:15.774741  2559 net.cpp:139] Memory required for data: 18680320
I0428 20:25:15.774747  2559 layer_factory.hpp:77] Creating layer relu1
I0428 20:25:15.774754  2559 net.cpp:86] Creating Layer relu1
I0428 20:25:15.774756  2559 net.cpp:408] relu1 <- ip1
I0428 20:25:15.774760  2559 net.cpp:369] relu1 -> ip1 (in-place)
I0428 20:25:15.774919  2559 net.cpp:124] Setting up relu1
I0428 20:25:15.774927  2559 net.cpp:131] Top shape: 64 25 (1600)
I0428 20:25:15.774930  2559 net.cpp:139] Memory required for data: 18686720
I0428 20:25:15.774933  2559 layer_factory.hpp:77] Creating layer ip2
I0428 20:25:15.774940  2559 net.cpp:86] Creating Layer ip2
I0428 20:25:15.774942  2559 net.cpp:408] ip2 <- ip1
I0428 20:25:15.774947  2559 net.cpp:382] ip2 -> ip2
I0428 20:25:15.775048  2559 net.cpp:124] Setting up ip2
I0428 20:25:15.775055  2559 net.cpp:131] Top shape: 64 10 (640)
I0428 20:25:15.775058  2559 net.cpp:139] Memory required for data: 18689280
I0428 20:25:15.775063  2559 layer_factory.hpp:77] Creating layer relu2
I0428 20:25:15.775068  2559 net.cpp:86] Creating Layer relu2
I0428 20:25:15.775071  2559 net.cpp:408] relu2 <- ip2
I0428 20:25:15.775075  2559 net.cpp:369] relu2 -> ip2 (in-place)
I0428 20:25:15.775799  2559 net.cpp:124] Setting up relu2
I0428 20:25:15.775826  2559 net.cpp:131] Top shape: 64 10 (640)
I0428 20:25:15.775845  2559 net.cpp:139] Memory required for data: 18691840
I0428 20:25:15.775848  2559 layer_factory.hpp:77] Creating layer loss
I0428 20:25:15.775854  2559 net.cpp:86] Creating Layer loss
I0428 20:25:15.775857  2559 net.cpp:408] loss <- ip2
I0428 20:25:15.775862  2559 net.cpp:408] loss <- label
I0428 20:25:15.775867  2559 net.cpp:382] loss -> loss
I0428 20:25:15.775887  2559 layer_factory.hpp:77] Creating layer loss
…
I0428 20:25:15.776468  2559 solver.cpp:173] Creating test net (#0) specified by net file: ECE595/mnist/train_test/var_everything2/lenet_train_test1451.prototxt
I0428 20:25:15.776492  2559 net.cpp:296] The NetState phase (1) differed from the phase (0) specified by a rule in layer mnist
I0428 20:25:15.776589  2559 net.cpp:53] Initializing net from parameters: 
name: "LeNet"
state {
  phase: TEST
}
layer {
  name: "mnist"
  type: "Data"
  top: "data"
  top: "label"
  include {
    phase: TEST
  }
  transform_param {
    scale: 0.00390625
  }
  data_param {
    source: "examples/mnist/mnist_test_lmdb"
    batch_size: 100
    backend: LMDB
  }
}
layer {
  name: "conv0"
  type: "Convolution"
  bottom: "data"
  top: "conv0"
  param {
    lr_mult: 1
  }
  param {
    lr_mult: 2
  }
  convolution_param {
    num_output: 100
    kernel_size: 5
    stride: 1
    weight_filler {
      type: "xavier"
    }
    bias_filler {
      type: "constant"
    }
  }
}
layer {
  name: "pool0"
  type: "Pooling"
  bottom: "conv0"
  top: "pool0"
  pooling_param {
    pool: MAX
    kernel_size: 2
    stride: 2
  }
}
layer {
  name: "conv1"
  type: "Convolution"
  bottom: "pool0"
  top: "conv1"
  param {
    lr_mult: 1
  }
  param {
    lr_mult: 2
  }
  convolution_param {
    num_output: 2
    kernel_size: 5
    stride: 1
    weight_filler {
      type: "xavier"
    }
    bias_filler {
      type: "constant"
    }
  }
}
layer {
  name: "pool1"
  type: "Pooling"
  bottom: "conv1"
  top: "pool1"
  pooling_param {
    pool: MAX
    kernel_size: 2
    stride: 2
  }
}
layer {
  name: "ip1"
  type: "InnerProduct"
  bottom: "pool1"
  top: "ip1"
  param {
    lr_mult: 1
  }
  param {
    lr_mult: 2
  }
  inner_product_param {
    num_output: 25
    weight_filler {
      type: "xavier"
    }
    bias_filler {
      type: "constant"
    }
  }
}
layer {
  name: "relu1"
  type: "ReLU"
  bottom: "ip1"
  top: "ip1"
}
layer {
  name: "ip2"
  type: "InnerProduct"
  bottom: "ip1"
  top: "ip2"
  param {
    lr_mult: 1
  }
  param {
    lr_mult: 2
  }
  inner_product_param {
    num_output: 10
    weight_filler {
      type: "xavier"
    }
    bias_filler {
      type: "constant"
    }
  }
}
layer {
  name: "relu2"
  type: "ReLU"
  bottom: "ip2"
  top: "ip2"
}
layer {
  name: "accuracy"
  type: "Accuracy"
  bottom: "ip2"
  bottom: "label"
  top: "accuracy"
  include {
    phase: TEST
  }
}
layer {
  name: "loss"
  type: "SoftmaxWithLoss"
  bottom: "ip2"
  bottom: "label"
  top: "loss"
}
I0428 20:25:15.776662  2559 layer_factory.hpp:77] Creating layer mnist
I0428 20:25:15.776705  2559 db_lmdb.cpp:35] Opened lmdb examples/mnist/mnist_test_lmdb
I0428 20:25:15.776716  2559 net.cpp:86] Creating Layer mnist
I0428 20:25:15.776721  2559 net.cpp:382] mnist -> data
I0428 20:25:15.776728  2559 net.cpp:382] mnist -> label
I0428 20:25:15.776826  2559 data_layer.cpp:45] output data size: 100,1,28,28
I0428 20:25:15.778878  2559 net.cpp:124] Setting up mnist
I0428 20:25:15.778892  2559 net.cpp:131] Top shape: 100 1 28 28 (78400)
I0428 20:25:15.778911  2559 net.cpp:131] Top shape: 100 (100)
I0428 20:25:15.778914  2559 net.cpp:139] Memory required for data: 314000
I0428 20:25:15.778918  2559 layer_factory.hpp:77] Creating layer label_mnist_1_split
I0428 20:25:15.778928  2559 net.cpp:86] Creating Layer label_mnist_1_split
I0428 20:25:15.778933  2559 net.cpp:408] label_mnist_1_split <- label
I0428 20:25:15.778937  2559 net.cpp:382] label_mnist_1_split -> label_mnist_1_split_0
I0428 20:25:15.778944  2559 net.cpp:382] label_mnist_1_split -> label_mnist_1_split_1
I0428 20:25:15.779045  2559 net.cpp:124] Setting up label_mnist_1_split
I0428 20:25:15.779053  2559 net.cpp:131] Top shape: 100 (100)
I0428 20:25:15.779057  2559 net.cpp:131] Top shape: 100 (100)
I0428 20:25:15.779060  2559 net.cpp:139] Memory required for data: 314800
I0428 20:25:15.779063  2559 layer_factory.hpp:77] Creating layer conv0
I0428 20:25:15.779072  2559 net.cpp:86] Creating Layer conv0
I0428 20:25:15.779075  2559 net.cpp:408] conv0 <- data
I0428 20:25:15.779080  2559 net.cpp:382] conv0 -> conv0
I0428 20:25:15.780530  2559 net.cpp:124] Setting up conv0
I0428 20:25:15.780560  2559 net.cpp:131] Top shape: 100 100 24 24 (5760000)
I0428 20:25:15.780563  2559 net.cpp:139] Memory required for data: 23354800
I0428 20:25:15.780587  2559 layer_factory.hpp:77] Creating layer pool0
I0428 20:25:15.780593  2559 net.cpp:86] Creating Layer pool0
I0428 20:25:15.780597  2559 net.cpp:408] pool0 <- conv0
I0428 20:25:15.780601  2559 net.cpp:382] pool0 -> pool0
I0428 20:25:15.780634  2559 net.cpp:124] Setting up pool0
I0428 20:25:15.780640  2559 net.cpp:131] Top shape: 100 100 12 12 (1440000)
I0428 20:25:15.780642  2559 net.cpp:139] Memory required for data: 29114800
I0428 20:25:15.780647  2559 layer_factory.hpp:77] Creating layer conv1
I0428 20:25:15.780654  2559 net.cpp:86] Creating Layer conv1
I0428 20:25:15.780658  2559 net.cpp:408] conv1 <- pool0
I0428 20:25:15.780663  2559 net.cpp:382] conv1 -> conv1
I0428 20:25:15.782151  2559 net.cpp:124] Setting up conv1
I0428 20:25:15.782179  2559 net.cpp:131] Top shape: 100 2 8 8 (12800)
I0428 20:25:15.782183  2559 net.cpp:139] Memory required for data: 29166000
I0428 20:25:15.782192  2559 layer_factory.hpp:77] Creating layer pool1
I0428 20:25:15.782198  2559 net.cpp:86] Creating Layer pool1
I0428 20:25:15.782202  2559 net.cpp:408] pool1 <- conv1
I0428 20:25:15.782207  2559 net.cpp:382] pool1 -> pool1
I0428 20:25:15.782241  2559 net.cpp:124] Setting up pool1
I0428 20:25:15.782250  2559 net.cpp:131] Top shape: 100 2 4 4 (3200)
I0428 20:25:15.782253  2559 net.cpp:139] Memory required for data: 29178800
I0428 20:25:15.782256  2559 layer_factory.hpp:77] Creating layer ip1
I0428 20:25:15.782263  2559 net.cpp:86] Creating Layer ip1
I0428 20:25:15.782265  2559 net.cpp:408] ip1 <- pool1
I0428 20:25:15.782269  2559 net.cpp:382] ip1 -> ip1
I0428 20:25:15.782366  2559 net.cpp:124] Setting up ip1
I0428 20:25:15.782373  2559 net.cpp:131] Top shape: 100 25 (2500)
I0428 20:25:15.782377  2559 net.cpp:139] Memory required for data: 29188800
I0428 20:25:15.782382  2559 layer_factory.hpp:77] Creating layer relu1
I0428 20:25:15.782388  2559 net.cpp:86] Creating Layer relu1
I0428 20:25:15.782392  2559 net.cpp:408] relu1 <- ip1
I0428 20:25:15.782395  2559 net.cpp:369] relu1 -> ip1 (in-place)
I0428 20:25:15.782546  2559 net.cpp:124] Setting up relu1
I0428 20:25:15.782555  2559 net.cpp:131] Top shape: 100 25 (2500)
I0428 20:25:15.782558  2559 net.cpp:139] Memory required for data: 29198800
I0428 20:25:15.782562  2559 layer_factory.hpp:77] Creating layer ip2
I0428 20:25:15.782568  2559 net.cpp:86] Creating Layer ip2
I0428 20:25:15.782572  2559 net.cpp:408] ip2 <- ip1
I0428 20:25:15.782577  2559 net.cpp:382] ip2 -> ip2
I0428 20:25:15.782686  2559 net.cpp:124] Setting up ip2
I0428 20:25:15.782693  2559 net.cpp:131] Top shape: 100 10 (1000)
I0428 20:25:15.782696  2559 net.cpp:139] Memory required for data: 29202800
I0428 20:25:15.782702  2559 layer_factory.hpp:77] Creating layer relu2
I0428 20:25:15.782706  2559 net.cpp:86] Creating Layer relu2
I0428 20:25:15.782709  2559 net.cpp:408] relu2 <- ip2
I0428 20:25:15.782713  2559 net.cpp:369] relu2 -> ip2 (in-place)
I0428 20:25:15.782878  2559 net.cpp:124] Setting up relu2
I0428 20:25:15.782887  2559 net.cpp:131] Top shape: 100 10 (1000)
I0428 20:25:15.782891  2559 net.cpp:139] Memory required for data: 29206800
I0428 20:25:15.782893  2559 layer_factory.hpp:77] Creating layer ip2_relu2_0_split
I0428 20:25:15.782898  2559 net.cpp:86] Creating Layer ip2_relu2_0_split
I0428 20:25:15.782902  2559 net.cpp:408] ip2_relu2_0_split <- ip2
I0428 20:25:15.782907  2559 net.cpp:382] ip2_relu2_0_split -> ip2_relu2_0_split_0
I0428 20:25:15.782922  2559 net.cpp:382] ip2_relu2_0_split -> ip2_relu2_0_split_1
I0428 20:25:15.782956  2559 net.cpp:124] Setting up ip2_relu2_0_split
I0428 20:25:15.782963  2559 net.cpp:131] Top shape: 100 10 (1000)
I0428 20:25:15.782968  2559 net.cpp:131] Top shape: 100 10 (1000)
I0428 20:25:15.782969  2559 net.cpp:139] Memory required for data: 29214800
I0428 20:25:15.782973  2559 layer_factory.hpp:77] Creating layer accuracy
I0428 20:25:15.782977  2559 net.cpp:86] Creating Layer accuracy
I0428 20:25:15.782981  2559 net.cpp:408] accuracy <- ip2_relu2_0_split_0
I0428 20:25:15.782985  2559 net.cpp:408] accuracy <- label_mnist_1_split_0
I0428 20:25:15.782989  2559 net.cpp:382] accuracy -> accuracy
…
