…
I0428 19:47:31.006568 26211 net.cpp:296] The NetState phase (0) differed from the phase (1) specified by a rule in layer mnist
I0428 19:47:31.006592 26211 net.cpp:296] The NetState phase (0) differed from the phase (1) specified by a rule in layer accuracy
I0428 19:47:31.006697 26211 net.cpp:53] Initializing net from parameters: 
name: "LeNet"
state {
  phase: TRAIN
  level: 0
  stage: ""
}
layer {
  name: "mnist"
  type: "Data"
  top: "data"
  top: "label"
  include {
    phase: TRAIN
  }
  transform_param {
    scale: 0.00390625
  }
  data_param {
    source: "examples/mnist/mnist_train_lmdb"
    batch_size: 64
    backend: LMDB
  }
}
layer {
  name: "conv0"
  type: "Convolution"
  bottom: "data"
  top: "conv0"
  param {
    lr_mult: 1
  }
  param {
    lr_mult: 2
  }
  convolution_param {
    num_output: 5
    kernel_size: 5
    stride: 1
    weight_filler {
      type: "xavier"
    }
    bias_filler {
      type: "constant"
    }
  }
}
layer {
  name: "pool0"
  type: "Pooling"
  bottom: "conv0"
  top: "pool0"
  pooling_param {
    pool: MAX
    kernel_size: 2
    stride: 2
  }
}
layer {
  name: "conv1"
  type: "Convolution"
  bottom: "pool0"
  top: "conv1"
  param {
    lr_mult: 1
  }
  param {
    lr_mult: 2
  }
  convolution_param {
    num_output: 2
    kernel_size: 5
    stride: 1
    weight_filler {
      type: "xavier"
    }
    bias_filler {
      type: "constant"
    }
  }
}
layer {
  name: "pool1"
  type: "Pooling"
  bottom: "conv1"
  top: "pool1"
  pooling_param {
    pool: MAX
    kernel_size: 2
    stride: 2
  }
}
layer {
  name: "ip1"
  type: "InnerProduct"
  bottom: "pool1"
  top: "ip1"
  param {
    lr_mult: 1
  }
  param {
    lr_mult: 2
  }
  inner_product_param {
    num_output: 50
    weight_filler {
      type: "xavier"
    }
    bias_filler {
      type: "constant"
    }
  }
}
layer {
  name: "relu1"
  type: "ReLU"
  bottom: "ip1"
  top: "ip1"
}
layer {
  name: "ip2"
  type: "InnerProduct"
  bottom: "ip1"
  top: "ip2"
  param {
    lr_mult: 1
  }
  param {
    lr_mult: 2
  }
  inner_product_param {
    num_output: 10
    weight_filler {
      type: "xavier"
    }
    bias_filler {
      type: "constant"
    }
  }
}
layer {
  name: "relu2"
  type: "ReLU"
  bottom: "ip2"
  top: "ip2"
}
layer {
  name: "loss"
  type: "SoftmaxWithLoss"
  bottom: "ip2"
  bottom: "label"
  top: "loss"
}
I0428 19:47:31.006808 26211 layer_factory.hpp:77] Creating layer mnist
I0428 19:47:31.006939 26211 db_lmdb.cpp:35] Opened lmdb examples/mnist/mnist_train_lmdb
I0428 19:47:31.006973 26211 net.cpp:86] Creating Layer mnist
I0428 19:47:31.006985 26211 net.cpp:382] mnist -> data
I0428 19:47:31.007016 26211 net.cpp:382] mnist -> label
I0428 19:47:31.008250 26211 data_layer.cpp:45] output data size: 64,1,28,28
I0428 19:47:31.010752 26211 net.cpp:124] Setting up mnist
I0428 19:47:31.010772 26211 net.cpp:131] Top shape: 64 1 28 28 (50176)
I0428 19:47:31.010784 26211 net.cpp:131] Top shape: 64 (64)
I0428 19:47:31.010790 26211 net.cpp:139] Memory required for data: 200960
I0428 19:47:31.010802 26211 layer_factory.hpp:77] Creating layer conv0
I0428 19:47:31.010826 26211 net.cpp:86] Creating Layer conv0
I0428 19:47:31.010838 26211 net.cpp:408] conv0 <- data
I0428 19:47:31.010859 26211 net.cpp:382] conv0 -> conv0
I0428 19:47:31.293753 26211 net.cpp:124] Setting up conv0
I0428 19:47:31.293782 26211 net.cpp:131] Top shape: 64 5 24 24 (184320)
I0428 19:47:31.293788 26211 net.cpp:139] Memory required for data: 938240
I0428 19:47:31.293831 26211 layer_factory.hpp:77] Creating layer pool0
I0428 19:47:31.293869 26211 net.cpp:86] Creating Layer pool0
I0428 19:47:31.293877 26211 net.cpp:408] pool0 <- conv0
I0428 19:47:31.293886 26211 net.cpp:382] pool0 -> pool0
I0428 19:47:31.293946 26211 net.cpp:124] Setting up pool0
I0428 19:47:31.293954 26211 net.cpp:131] Top shape: 64 5 12 12 (46080)
I0428 19:47:31.293959 26211 net.cpp:139] Memory required for data: 1122560
I0428 19:47:31.293965 26211 layer_factory.hpp:77] Creating layer conv1
I0428 19:47:31.293982 26211 net.cpp:86] Creating Layer conv1
I0428 19:47:31.293987 26211 net.cpp:408] conv1 <- pool0
I0428 19:47:31.293997 26211 net.cpp:382] conv1 -> conv1
I0428 19:47:31.295863 26211 net.cpp:124] Setting up conv1
I0428 19:47:31.295881 26211 net.cpp:131] Top shape: 64 2 8 8 (8192)
I0428 19:47:31.295887 26211 net.cpp:139] Memory required for data: 1155328
I0428 19:47:31.295900 26211 layer_factory.hpp:77] Creating layer pool1
I0428 19:47:31.295912 26211 net.cpp:86] Creating Layer pool1
I0428 19:47:31.295924 26211 net.cpp:408] pool1 <- conv1
I0428 19:47:31.295933 26211 net.cpp:382] pool1 -> pool1
I0428 19:47:31.295982 26211 net.cpp:124] Setting up pool1
I0428 19:47:31.295991 26211 net.cpp:131] Top shape: 64 2 4 4 (2048)
I0428 19:47:31.295997 26211 net.cpp:139] Memory required for data: 1163520
I0428 19:47:31.296002 26211 layer_factory.hpp:77] Creating layer ip1
I0428 19:47:31.296015 26211 net.cpp:86] Creating Layer ip1
I0428 19:47:31.296036 26211 net.cpp:408] ip1 <- pool1
I0428 19:47:31.296043 26211 net.cpp:382] ip1 -> ip1
I0428 19:47:31.297112 26211 net.cpp:124] Setting up ip1
I0428 19:47:31.297127 26211 net.cpp:131] Top shape: 64 50 (3200)
I0428 19:47:31.297133 26211 net.cpp:139] Memory required for data: 1176320
I0428 19:47:31.297147 26211 layer_factory.hpp:77] Creating layer relu1
I0428 19:47:31.297155 26211 net.cpp:86] Creating Layer relu1
I0428 19:47:31.297161 26211 net.cpp:408] relu1 <- ip1
I0428 19:47:31.297169 26211 net.cpp:369] relu1 -> ip1 (in-place)
I0428 19:47:31.297340 26211 net.cpp:124] Setting up relu1
I0428 19:47:31.297350 26211 net.cpp:131] Top shape: 64 50 (3200)
I0428 19:47:31.297356 26211 net.cpp:139] Memory required for data: 1189120
I0428 19:47:31.297361 26211 layer_factory.hpp:77] Creating layer ip2
I0428 19:47:31.297371 26211 net.cpp:86] Creating Layer ip2
I0428 19:47:31.297377 26211 net.cpp:408] ip2 <- ip1
I0428 19:47:31.297386 26211 net.cpp:382] ip2 -> ip2
I0428 19:47:31.297490 26211 net.cpp:124] Setting up ip2
I0428 19:47:31.297500 26211 net.cpp:131] Top shape: 64 10 (640)
I0428 19:47:31.297505 26211 net.cpp:139] Memory required for data: 1191680
I0428 19:47:31.297514 26211 layer_factory.hpp:77] Creating layer relu2
I0428 19:47:31.297523 26211 net.cpp:86] Creating Layer relu2
I0428 19:47:31.297531 26211 net.cpp:408] relu2 <- ip2
I0428 19:47:31.297554 26211 net.cpp:369] relu2 -> ip2 (in-place)
I0428 19:47:31.298324 26211 net.cpp:124] Setting up relu2
I0428 19:47:31.298349 26211 net.cpp:131] Top shape: 64 10 (640)
I0428 19:47:31.298354 26211 net.cpp:139] Memory required for data: 1194240
I0428 19:47:31.298360 26211 layer_factory.hpp:77] Creating layer loss
I0428 19:47:31.298370 26211 net.cpp:86] Creating Layer loss
I0428 19:47:31.298375 26211 net.cpp:408] loss <- ip2
I0428 19:47:31.298383 26211 net.cpp:408] loss <- label
I0428 19:47:31.298393 26211 net.cpp:382] loss -> loss
I0428 19:47:31.298418 26211 layer_factory.hpp:77] Creating layer loss
…
I0428 19:47:31.299108 26211 solver.cpp:173] Creating test net (#0) specified by net file: ECE595/mnist/train_test/var_everything2/lenet_train_test517.prototxt
I0428 19:47:31.299141 26211 net.cpp:296] The NetState phase (1) differed from the phase (0) specified by a rule in layer mnist
I0428 19:47:31.299247 26211 net.cpp:53] Initializing net from parameters: 
name: "LeNet"
state {
  phase: TEST
}
layer {
  name: "mnist"
  type: "Data"
  top: "data"
  top: "label"
  include {
    phase: TEST
  }
  transform_param {
    scale: 0.00390625
  }
  data_param {
    source: "examples/mnist/mnist_test_lmdb"
    batch_size: 100
    backend: LMDB
  }
}
layer {
  name: "conv0"
  type: "Convolution"
  bottom: "data"
  top: "conv0"
  param {
    lr_mult: 1
  }
  param {
    lr_mult: 2
  }
  convolution_param {
    num_output: 5
    kernel_size: 5
    stride: 1
    weight_filler {
      type: "xavier"
    }
    bias_filler {
      type: "constant"
    }
  }
}
layer {
  name: "pool0"
  type: "Pooling"
  bottom: "conv0"
  top: "pool0"
  pooling_param {
    pool: MAX
    kernel_size: 2
    stride: 2
  }
}
layer {
  name: "conv1"
  type: "Convolution"
  bottom: "pool0"
  top: "conv1"
  param {
    lr_mult: 1
  }
  param {
    lr_mult: 2
  }
  convolution_param {
    num_output: 2
    kernel_size: 5
    stride: 1
    weight_filler {
      type: "xavier"
    }
    bias_filler {
      type: "constant"
    }
  }
}
layer {
  name: "pool1"
  type: "Pooling"
  bottom: "conv1"
  top: "pool1"
  pooling_param {
    pool: MAX
    kernel_size: 2
    stride: 2
  }
}
layer {
  name: "ip1"
  type: "InnerProduct"
  bottom: "pool1"
  top: "ip1"
  param {
    lr_mult: 1
  }
  param {
    lr_mult: 2
  }
  inner_product_param {
    num_output: 50
    weight_filler {
      type: "xavier"
    }
    bias_filler {
      type: "constant"
    }
  }
}
layer {
  name: "relu1"
  type: "ReLU"
  bottom: "ip1"
  top: "ip1"
}
layer {
  name: "ip2"
  type: "InnerProduct"
  bottom: "ip1"
  top: "ip2"
  param {
    lr_mult: 1
  }
  param {
    lr_mult: 2
  }
  inner_product_param {
    num_output: 10
    weight_filler {
      type: "xavier"
    }
    bias_filler {
      type: "constant"
    }
  }
}
layer {
  name: "relu2"
  type: "ReLU"
  bottom: "ip2"
  top: "ip2"
}
layer {
  name: "accuracy"
  type: "Accuracy"
  bottom: "ip2"
  bottom: "label"
  top: "accuracy"
  include {
    phase: TEST
  }
}
layer {
  name: "loss"
  type: "SoftmaxWithLoss"
  bottom: "ip2"
  bottom: "label"
  top: "loss"
}
I0428 19:47:31.299342 26211 layer_factory.hpp:77] Creating layer mnist
I0428 19:47:31.299398 26211 db_lmdb.cpp:35] Opened lmdb examples/mnist/mnist_test_lmdb
I0428 19:47:31.299419 26211 net.cpp:86] Creating Layer mnist
I0428 19:47:31.299427 26211 net.cpp:382] mnist -> data
I0428 19:47:31.299438 26211 net.cpp:382] mnist -> label
I0428 19:47:31.299553 26211 data_layer.cpp:45] output data size: 100,1,28,28
I0428 19:47:31.301767 26211 net.cpp:124] Setting up mnist
I0428 19:47:31.301784 26211 net.cpp:131] Top shape: 100 1 28 28 (78400)
I0428 19:47:31.301791 26211 net.cpp:131] Top shape: 100 (100)
I0428 19:47:31.301796 26211 net.cpp:139] Memory required for data: 314000
I0428 19:47:31.301802 26211 layer_factory.hpp:77] Creating layer label_mnist_1_split
I0428 19:47:31.301817 26211 net.cpp:86] Creating Layer label_mnist_1_split
I0428 19:47:31.301837 26211 net.cpp:408] label_mnist_1_split <- label
I0428 19:47:31.301846 26211 net.cpp:382] label_mnist_1_split -> label_mnist_1_split_0
I0428 19:47:31.301857 26211 net.cpp:382] label_mnist_1_split -> label_mnist_1_split_1
I0428 19:47:31.301944 26211 net.cpp:124] Setting up label_mnist_1_split
I0428 19:47:31.301962 26211 net.cpp:131] Top shape: 100 (100)
I0428 19:47:31.301970 26211 net.cpp:131] Top shape: 100 (100)
I0428 19:47:31.301975 26211 net.cpp:139] Memory required for data: 314800
I0428 19:47:31.301981 26211 layer_factory.hpp:77] Creating layer conv0
I0428 19:47:31.301995 26211 net.cpp:86] Creating Layer conv0
I0428 19:47:31.302001 26211 net.cpp:408] conv0 <- data
I0428 19:47:31.302011 26211 net.cpp:382] conv0 -> conv0
I0428 19:47:31.303423 26211 net.cpp:124] Setting up conv0
I0428 19:47:31.303439 26211 net.cpp:131] Top shape: 100 5 24 24 (288000)
I0428 19:47:31.303445 26211 net.cpp:139] Memory required for data: 1466800
I0428 19:47:31.303459 26211 layer_factory.hpp:77] Creating layer pool0
I0428 19:47:31.303469 26211 net.cpp:86] Creating Layer pool0
I0428 19:47:31.303477 26211 net.cpp:408] pool0 <- conv0
I0428 19:47:31.303484 26211 net.cpp:382] pool0 -> pool0
I0428 19:47:31.303525 26211 net.cpp:124] Setting up pool0
I0428 19:47:31.303534 26211 net.cpp:131] Top shape: 100 5 12 12 (72000)
I0428 19:47:31.303539 26211 net.cpp:139] Memory required for data: 1754800
I0428 19:47:31.303545 26211 layer_factory.hpp:77] Creating layer conv1
I0428 19:47:31.303557 26211 net.cpp:86] Creating Layer conv1
I0428 19:47:31.303565 26211 net.cpp:408] conv1 <- pool0
I0428 19:47:31.303573 26211 net.cpp:382] conv1 -> conv1
I0428 19:47:31.305753 26211 net.cpp:124] Setting up conv1
I0428 19:47:31.305768 26211 net.cpp:131] Top shape: 100 2 8 8 (12800)
I0428 19:47:31.305775 26211 net.cpp:139] Memory required for data: 1806000
I0428 19:47:31.305788 26211 layer_factory.hpp:77] Creating layer pool1
I0428 19:47:31.305799 26211 net.cpp:86] Creating Layer pool1
I0428 19:47:31.305805 26211 net.cpp:408] pool1 <- conv1
I0428 19:47:31.305814 26211 net.cpp:382] pool1 -> pool1
I0428 19:47:31.305871 26211 net.cpp:124] Setting up pool1
I0428 19:47:31.305881 26211 net.cpp:131] Top shape: 100 2 4 4 (3200)
I0428 19:47:31.305886 26211 net.cpp:139] Memory required for data: 1818800
I0428 19:47:31.305891 26211 layer_factory.hpp:77] Creating layer ip1
I0428 19:47:31.305901 26211 net.cpp:86] Creating Layer ip1
I0428 19:47:31.305912 26211 net.cpp:408] ip1 <- pool1
I0428 19:47:31.305919 26211 net.cpp:382] ip1 -> ip1
I0428 19:47:31.306054 26211 net.cpp:124] Setting up ip1
I0428 19:47:31.306066 26211 net.cpp:131] Top shape: 100 50 (5000)
I0428 19:47:31.306084 26211 net.cpp:139] Memory required for data: 1838800
I0428 19:47:31.306097 26211 layer_factory.hpp:77] Creating layer relu1
I0428 19:47:31.306107 26211 net.cpp:86] Creating Layer relu1
I0428 19:47:31.306114 26211 net.cpp:408] relu1 <- ip1
I0428 19:47:31.306123 26211 net.cpp:369] relu1 -> ip1 (in-place)
I0428 19:47:31.306301 26211 net.cpp:124] Setting up relu1
I0428 19:47:31.306313 26211 net.cpp:131] Top shape: 100 50 (5000)
I0428 19:47:31.306318 26211 net.cpp:139] Memory required for data: 1858800
I0428 19:47:31.306324 26211 layer_factory.hpp:77] Creating layer ip2
I0428 19:47:31.306334 26211 net.cpp:86] Creating Layer ip2
I0428 19:47:31.306339 26211 net.cpp:408] ip2 <- ip1
I0428 19:47:31.306349 26211 net.cpp:382] ip2 -> ip2
I0428 19:47:31.306452 26211 net.cpp:124] Setting up ip2
I0428 19:47:31.306459 26211 net.cpp:131] Top shape: 100 10 (1000)
I0428 19:47:31.306465 26211 net.cpp:139] Memory required for data: 1862800
I0428 19:47:31.306474 26211 layer_factory.hpp:77] Creating layer relu2
I0428 19:47:31.306481 26211 net.cpp:86] Creating Layer relu2
I0428 19:47:31.306488 26211 net.cpp:408] relu2 <- ip2
I0428 19:47:31.306494 26211 net.cpp:369] relu2 -> ip2 (in-place)
I0428 19:47:31.306712 26211 net.cpp:124] Setting up relu2
I0428 19:47:31.306721 26211 net.cpp:131] Top shape: 100 10 (1000)
I0428 19:47:31.306727 26211 net.cpp:139] Memory required for data: 1866800
I0428 19:47:31.306732 26211 layer_factory.hpp:77] Creating layer ip2_relu2_0_split
I0428 19:47:31.306740 26211 net.cpp:86] Creating Layer ip2_relu2_0_split
I0428 19:47:31.306746 26211 net.cpp:408] ip2_relu2_0_split <- ip2
I0428 19:47:31.306753 26211 net.cpp:382] ip2_relu2_0_split -> ip2_relu2_0_split_0
I0428 19:47:31.306776 26211 net.cpp:382] ip2_relu2_0_split -> ip2_relu2_0_split_1
I0428 19:47:31.306821 26211 net.cpp:124] Setting up ip2_relu2_0_split
I0428 19:47:31.306830 26211 net.cpp:131] Top shape: 100 10 (1000)
I0428 19:47:31.306838 26211 net.cpp:131] Top shape: 100 10 (1000)
I0428 19:47:31.306843 26211 net.cpp:139] Memory required for data: 1874800
I0428 19:47:31.306848 26211 layer_factory.hpp:77] Creating layer accuracy
I0428 19:47:31.306856 26211 net.cpp:86] Creating Layer accuracy
I0428 19:47:31.306861 26211 net.cpp:408] accuracy <- ip2_relu2_0_split_0
I0428 19:47:31.306869 26211 net.cpp:408] accuracy <- label_mnist_1_split_0
I0428 19:47:31.306876 26211 net.cpp:382] accuracy -> accuracy
…
