…
I0428 19:32:44.590566 22907 net.cpp:296] The NetState phase (0) differed from the phase (1) specified by a rule in layer mnist
I0428 19:32:44.590582 22907 net.cpp:296] The NetState phase (0) differed from the phase (1) specified by a rule in layer accuracy
I0428 19:32:44.590658 22907 net.cpp:53] Initializing net from parameters: 
name: "LeNet"
state {
  phase: TRAIN
  level: 0
  stage: ""
}
layer {
  name: "mnist"
  type: "Data"
  top: "data"
  top: "label"
  include {
    phase: TRAIN
  }
  transform_param {
    scale: 0.00390625
  }
  data_param {
    source: "examples/mnist/mnist_train_lmdb"
    batch_size: 64
    backend: LMDB
  }
}
layer {
  name: "conv0"
  type: "Convolution"
  bottom: "data"
  top: "conv0"
  param {
    lr_mult: 1
  }
  param {
    lr_mult: 2
  }
  convolution_param {
    num_output: 25
    kernel_size: 5
    stride: 1
    weight_filler {
      type: "xavier"
    }
    bias_filler {
      type: "constant"
    }
  }
}
layer {
  name: "pool0"
  type: "Pooling"
  bottom: "conv0"
  top: "pool0"
  pooling_param {
    pool: MAX
    kernel_size: 2
    stride: 2
  }
}
layer {
  name: "ip1"
  type: "InnerProduct"
  bottom: "pool0"
  top: "ip1"
  param {
    lr_mult: 1
  }
  param {
    lr_mult: 2
  }
  inner_product_param {
    num_output: 10
    weight_filler {
      type: "xavier"
    }
    bias_filler {
      type: "constant"
    }
  }
}
layer {
  name: "relu1"
  type: "ReLU"
  bottom: "ip1"
  top: "ip1"
}
layer {
  name: "ip2"
  type: "InnerProduct"
  bottom: "ip1"
  top: "ip2"
  param {
    lr_mult: 1
  }
  param {
    lr_mult: 2
  }
  inner_product_param {
    num_output: 10
    weight_filler {
      type: "xavier"
    }
    bias_filler {
      type: "constant"
    }
  }
}
layer {
  name: "relu2"
  type: "ReLU"
  bottom: "ip2"
  top: "ip2"
}
layer {
  name: "loss"
  type: "SoftmaxWithLoss"
  bottom: "ip2"
  bottom: "label"
  top: "loss"
}
I0428 19:32:44.590721 22907 layer_factory.hpp:77] Creating layer mnist
I0428 19:32:44.590826 22907 db_lmdb.cpp:35] Opened lmdb examples/mnist/mnist_train_lmdb
I0428 19:32:44.590848 22907 net.cpp:86] Creating Layer mnist
I0428 19:32:44.590855 22907 net.cpp:382] mnist -> data
I0428 19:32:44.590879 22907 net.cpp:382] mnist -> label
I0428 19:32:44.592017 22907 data_layer.cpp:45] output data size: 64,1,28,28
I0428 19:32:44.594477 22907 net.cpp:124] Setting up mnist
I0428 19:32:44.594496 22907 net.cpp:131] Top shape: 64 1 28 28 (50176)
I0428 19:32:44.594502 22907 net.cpp:131] Top shape: 64 (64)
I0428 19:32:44.594506 22907 net.cpp:139] Memory required for data: 200960
I0428 19:32:44.594514 22907 layer_factory.hpp:77] Creating layer conv0
I0428 19:32:44.594532 22907 net.cpp:86] Creating Layer conv0
I0428 19:32:44.594537 22907 net.cpp:408] conv0 <- data
I0428 19:32:44.594549 22907 net.cpp:382] conv0 -> conv0
I0428 19:32:44.876929 22907 net.cpp:124] Setting up conv0
I0428 19:32:44.876953 22907 net.cpp:131] Top shape: 64 25 24 24 (921600)
I0428 19:32:44.876957 22907 net.cpp:139] Memory required for data: 3887360
I0428 19:32:44.876972 22907 layer_factory.hpp:77] Creating layer pool0
I0428 19:32:44.876986 22907 net.cpp:86] Creating Layer pool0
I0428 19:32:44.876989 22907 net.cpp:408] pool0 <- conv0
I0428 19:32:44.876994 22907 net.cpp:382] pool0 -> pool0
I0428 19:32:44.877055 22907 net.cpp:124] Setting up pool0
I0428 19:32:44.877063 22907 net.cpp:131] Top shape: 64 25 12 12 (230400)
I0428 19:32:44.877066 22907 net.cpp:139] Memory required for data: 4808960
I0428 19:32:44.877086 22907 layer_factory.hpp:77] Creating layer ip1
I0428 19:32:44.877095 22907 net.cpp:86] Creating Layer ip1
I0428 19:32:44.877099 22907 net.cpp:408] ip1 <- pool0
I0428 19:32:44.877104 22907 net.cpp:382] ip1 -> ip1
I0428 19:32:44.877423 22907 net.cpp:124] Setting up ip1
I0428 19:32:44.877430 22907 net.cpp:131] Top shape: 64 10 (640)
I0428 19:32:44.877434 22907 net.cpp:139] Memory required for data: 4811520
I0428 19:32:44.877439 22907 layer_factory.hpp:77] Creating layer relu1
I0428 19:32:44.877445 22907 net.cpp:86] Creating Layer relu1
I0428 19:32:44.877449 22907 net.cpp:408] relu1 <- ip1
I0428 19:32:44.877452 22907 net.cpp:369] relu1 -> ip1 (in-place)
I0428 19:32:44.877605 22907 net.cpp:124] Setting up relu1
I0428 19:32:44.877614 22907 net.cpp:131] Top shape: 64 10 (640)
I0428 19:32:44.877616 22907 net.cpp:139] Memory required for data: 4814080
I0428 19:32:44.877619 22907 layer_factory.hpp:77] Creating layer ip2
I0428 19:32:44.877625 22907 net.cpp:86] Creating Layer ip2
I0428 19:32:44.877629 22907 net.cpp:408] ip2 <- ip1
I0428 19:32:44.877632 22907 net.cpp:382] ip2 -> ip2
I0428 19:32:44.877718 22907 net.cpp:124] Setting up ip2
I0428 19:32:44.877725 22907 net.cpp:131] Top shape: 64 10 (640)
I0428 19:32:44.877728 22907 net.cpp:139] Memory required for data: 4816640
I0428 19:32:44.877734 22907 layer_factory.hpp:77] Creating layer relu2
I0428 19:32:44.877739 22907 net.cpp:86] Creating Layer relu2
I0428 19:32:44.877743 22907 net.cpp:408] relu2 <- ip2
I0428 19:32:44.877746 22907 net.cpp:369] relu2 -> ip2 (in-place)
I0428 19:32:44.878430 22907 net.cpp:124] Setting up relu2
I0428 19:32:44.878443 22907 net.cpp:131] Top shape: 64 10 (640)
I0428 19:32:44.878446 22907 net.cpp:139] Memory required for data: 4819200
I0428 19:32:44.878449 22907 layer_factory.hpp:77] Creating layer loss
I0428 19:32:44.878455 22907 net.cpp:86] Creating Layer loss
I0428 19:32:44.878459 22907 net.cpp:408] loss <- ip2
I0428 19:32:44.878463 22907 net.cpp:408] loss <- label
I0428 19:32:44.878468 22907 net.cpp:382] loss -> loss
I0428 19:32:44.878486 22907 layer_factory.hpp:77] Creating layer loss
…
I0428 19:32:44.878996 22907 solver.cpp:173] Creating test net (#0) specified by net file: ECE595/mnist/train_test/var_everything2/lenet_train_test161.prototxt
I0428 19:32:44.879020 22907 net.cpp:296] The NetState phase (1) differed from the phase (0) specified by a rule in layer mnist
I0428 19:32:44.879089 22907 net.cpp:53] Initializing net from parameters: 
name: "LeNet"
state {
  phase: TEST
}
layer {
  name: "mnist"
  type: "Data"
  top: "data"
  top: "label"
  include {
    phase: TEST
  }
  transform_param {
    scale: 0.00390625
  }
  data_param {
    source: "examples/mnist/mnist_test_lmdb"
    batch_size: 100
    backend: LMDB
  }
}
layer {
  name: "conv0"
  type: "Convolution"
  bottom: "data"
  top: "conv0"
  param {
    lr_mult: 1
  }
  param {
    lr_mult: 2
  }
  convolution_param {
    num_output: 25
    kernel_size: 5
    stride: 1
    weight_filler {
      type: "xavier"
    }
    bias_filler {
      type: "constant"
    }
  }
}
layer {
  name: "pool0"
  type: "Pooling"
  bottom: "conv0"
  top: "pool0"
  pooling_param {
    pool: MAX
    kernel_size: 2
    stride: 2
  }
}
layer {
  name: "ip1"
  type: "InnerProduct"
  bottom: "pool0"
  top: "ip1"
  param {
    lr_mult: 1
  }
  param {
    lr_mult: 2
  }
  inner_product_param {
    num_output: 10
    weight_filler {
      type: "xavier"
    }
    bias_filler {
      type: "constant"
    }
  }
}
layer {
  name: "relu1"
  type: "ReLU"
  bottom: "ip1"
  top: "ip1"
}
layer {
  name: "ip2"
  type: "InnerProduct"
  bottom: "ip1"
  top: "ip2"
  param {
    lr_mult: 1
  }
  param {
    lr_mult: 2
  }
  inner_product_param {
    num_output: 10
    weight_filler {
      type: "xavier"
    }
    bias_filler {
      type: "constant"
    }
  }
}
layer {
  name: "relu2"
  type: "ReLU"
  bottom: "ip2"
  top: "ip2"
}
layer {
  name: "accuracy"
  type: "Accuracy"
  bottom: "ip2"
  bottom: "label"
  top: "accuracy"
  include {
    phase: TEST
  }
}
layer {
  name: "loss"
  type: "SoftmaxWithLoss"
  bottom: "ip2"
  bottom: "label"
  top: "loss"
}
I0428 19:32:44.879155 22907 layer_factory.hpp:77] Creating layer mnist
I0428 19:32:44.879199 22907 db_lmdb.cpp:35] Opened lmdb examples/mnist/mnist_test_lmdb
I0428 19:32:44.879214 22907 net.cpp:86] Creating Layer mnist
I0428 19:32:44.879220 22907 net.cpp:382] mnist -> data
I0428 19:32:44.879227 22907 net.cpp:382] mnist -> label
I0428 19:32:44.879307 22907 data_layer.cpp:45] output data size: 100,1,28,28
I0428 19:32:44.881345 22907 net.cpp:124] Setting up mnist
I0428 19:32:44.881357 22907 net.cpp:131] Top shape: 100 1 28 28 (78400)
I0428 19:32:44.881362 22907 net.cpp:131] Top shape: 100 (100)
I0428 19:32:44.881366 22907 net.cpp:139] Memory required for data: 314000
I0428 19:32:44.881368 22907 layer_factory.hpp:77] Creating layer label_mnist_1_split
I0428 19:32:44.881378 22907 net.cpp:86] Creating Layer label_mnist_1_split
I0428 19:32:44.881382 22907 net.cpp:408] label_mnist_1_split <- label
I0428 19:32:44.881386 22907 net.cpp:382] label_mnist_1_split -> label_mnist_1_split_0
I0428 19:32:44.881394 22907 net.cpp:382] label_mnist_1_split -> label_mnist_1_split_1
I0428 19:32:44.881429 22907 net.cpp:124] Setting up label_mnist_1_split
I0428 19:32:44.881436 22907 net.cpp:131] Top shape: 100 (100)
I0428 19:32:44.881439 22907 net.cpp:131] Top shape: 100 (100)
I0428 19:32:44.881443 22907 net.cpp:139] Memory required for data: 314800
I0428 19:32:44.881445 22907 layer_factory.hpp:77] Creating layer conv0
I0428 19:32:44.881453 22907 net.cpp:86] Creating Layer conv0
I0428 19:32:44.881458 22907 net.cpp:408] conv0 <- data
I0428 19:32:44.881479 22907 net.cpp:382] conv0 -> conv0
I0428 19:32:44.883271 22907 net.cpp:124] Setting up conv0
I0428 19:32:44.883285 22907 net.cpp:131] Top shape: 100 25 24 24 (1440000)
I0428 19:32:44.883304 22907 net.cpp:139] Memory required for data: 6074800
I0428 19:32:44.883312 22907 layer_factory.hpp:77] Creating layer pool0
I0428 19:32:44.883321 22907 net.cpp:86] Creating Layer pool0
I0428 19:32:44.883324 22907 net.cpp:408] pool0 <- conv0
I0428 19:32:44.883329 22907 net.cpp:382] pool0 -> pool0
I0428 19:32:44.883368 22907 net.cpp:124] Setting up pool0
I0428 19:32:44.883374 22907 net.cpp:131] Top shape: 100 25 12 12 (360000)
I0428 19:32:44.883378 22907 net.cpp:139] Memory required for data: 7514800
I0428 19:32:44.883380 22907 layer_factory.hpp:77] Creating layer ip1
I0428 19:32:44.883388 22907 net.cpp:86] Creating Layer ip1
I0428 19:32:44.883390 22907 net.cpp:408] ip1 <- pool0
I0428 19:32:44.883396 22907 net.cpp:382] ip1 -> ip1
I0428 19:32:44.883805 22907 net.cpp:124] Setting up ip1
I0428 19:32:44.883812 22907 net.cpp:131] Top shape: 100 10 (1000)
I0428 19:32:44.883831 22907 net.cpp:139] Memory required for data: 7518800
I0428 19:32:44.883853 22907 layer_factory.hpp:77] Creating layer relu1
I0428 19:32:44.883858 22907 net.cpp:86] Creating Layer relu1
I0428 19:32:44.883862 22907 net.cpp:408] relu1 <- ip1
I0428 19:32:44.883891 22907 net.cpp:369] relu1 -> ip1 (in-place)
I0428 19:32:44.884271 22907 net.cpp:124] Setting up relu1
I0428 19:32:44.884280 22907 net.cpp:131] Top shape: 100 10 (1000)
I0428 19:32:44.884310 22907 net.cpp:139] Memory required for data: 7522800
I0428 19:32:44.884330 22907 layer_factory.hpp:77] Creating layer ip2
I0428 19:32:44.884337 22907 net.cpp:86] Creating Layer ip2
I0428 19:32:44.884341 22907 net.cpp:408] ip2 <- ip1
I0428 19:32:44.884346 22907 net.cpp:382] ip2 -> ip2
I0428 19:32:44.884450 22907 net.cpp:124] Setting up ip2
I0428 19:32:44.884459 22907 net.cpp:131] Top shape: 100 10 (1000)
I0428 19:32:44.884461 22907 net.cpp:139] Memory required for data: 7526800
I0428 19:32:44.884469 22907 layer_factory.hpp:77] Creating layer relu2
I0428 19:32:44.884479 22907 net.cpp:86] Creating Layer relu2
I0428 19:32:44.884482 22907 net.cpp:408] relu2 <- ip2
I0428 19:32:44.884487 22907 net.cpp:369] relu2 -> ip2 (in-place)
I0428 19:32:44.884654 22907 net.cpp:124] Setting up relu2
I0428 19:32:44.884662 22907 net.cpp:131] Top shape: 100 10 (1000)
I0428 19:32:44.884665 22907 net.cpp:139] Memory required for data: 7530800
I0428 19:32:44.884668 22907 layer_factory.hpp:77] Creating layer ip2_relu2_0_split
I0428 19:32:44.884675 22907 net.cpp:86] Creating Layer ip2_relu2_0_split
I0428 19:32:44.884680 22907 net.cpp:408] ip2_relu2_0_split <- ip2
I0428 19:32:44.884683 22907 net.cpp:382] ip2_relu2_0_split -> ip2_relu2_0_split_0
I0428 19:32:44.884724 22907 net.cpp:382] ip2_relu2_0_split -> ip2_relu2_0_split_1
I0428 19:32:44.884763 22907 net.cpp:124] Setting up ip2_relu2_0_split
I0428 19:32:44.884768 22907 net.cpp:131] Top shape: 100 10 (1000)
I0428 19:32:44.884773 22907 net.cpp:131] Top shape: 100 10 (1000)
I0428 19:32:44.884786 22907 net.cpp:139] Memory required for data: 7538800
I0428 19:32:44.884790 22907 layer_factory.hpp:77] Creating layer accuracy
I0428 19:32:44.884798 22907 net.cpp:86] Creating Layer accuracy
I0428 19:32:44.884800 22907 net.cpp:408] accuracy <- ip2_relu2_0_split_0
I0428 19:32:44.884804 22907 net.cpp:408] accuracy <- label_mnist_1_split_0
I0428 19:32:44.884817 22907 net.cpp:382] accuracy -> accuracy
…
