…
I0428 19:27:45.642112 21436 net.cpp:296] The NetState phase (0) differed from the phase (1) specified by a rule in layer mnist
I0428 19:27:45.642124 21436 net.cpp:296] The NetState phase (0) differed from the phase (1) specified by a rule in layer accuracy
I0428 19:27:45.642177 21436 net.cpp:53] Initializing net from parameters: 
name: "LeNet"
state {
  phase: TRAIN
  level: 0
  stage: ""
}
layer {
  name: "mnist"
  type: "Data"
  top: "data"
  top: "label"
  include {
    phase: TRAIN
  }
  transform_param {
    scale: 0.00390625
  }
  data_param {
    source: "examples/mnist/mnist_train_lmdb"
    batch_size: 64
    backend: LMDB
  }
}
layer {
  name: "ip1"
  type: "InnerProduct"
  bottom: "data"
  top: "ip1"
  param {
    lr_mult: 1
  }
  param {
    lr_mult: 2
  }
  inner_product_param {
    num_output: 10
    weight_filler {
      type: "xavier"
    }
    bias_filler {
      type: "constant"
    }
  }
}
layer {
  name: "relu1"
  type: "ReLU"
  bottom: "ip1"
  top: "ip1"
}
layer {
  name: "loss"
  type: "SoftmaxWithLoss"
  bottom: "ip1"
  bottom: "label"
  top: "loss"
}
I0428 19:27:45.642227 21436 layer_factory.hpp:77] Creating layer mnist
I0428 19:27:45.642330 21436 db_lmdb.cpp:35] Opened lmdb examples/mnist/mnist_train_lmdb
I0428 19:27:45.642355 21436 net.cpp:86] Creating Layer mnist
I0428 19:27:45.642365 21436 net.cpp:382] mnist -> data
I0428 19:27:45.642388 21436 net.cpp:382] mnist -> label
I0428 19:27:45.643491 21436 data_layer.cpp:45] output data size: 64,1,28,28
I0428 19:27:45.645956 21436 net.cpp:124] Setting up mnist
I0428 19:27:45.645975 21436 net.cpp:131] Top shape: 64 1 28 28 (50176)
I0428 19:27:45.645982 21436 net.cpp:131] Top shape: 64 (64)
I0428 19:27:45.645987 21436 net.cpp:139] Memory required for data: 200960
I0428 19:27:45.645993 21436 layer_factory.hpp:77] Creating layer ip1
I0428 19:27:45.646004 21436 net.cpp:86] Creating Layer ip1
I0428 19:27:45.646013 21436 net.cpp:408] ip1 <- data
I0428 19:27:45.646024 21436 net.cpp:382] ip1 -> ip1
I0428 19:27:45.647238 21436 net.cpp:124] Setting up ip1
I0428 19:27:45.647253 21436 net.cpp:131] Top shape: 64 10 (640)
I0428 19:27:45.647258 21436 net.cpp:139] Memory required for data: 203520
I0428 19:27:45.647271 21436 layer_factory.hpp:77] Creating layer relu1
I0428 19:27:45.647280 21436 net.cpp:86] Creating Layer relu1
I0428 19:27:45.647285 21436 net.cpp:408] relu1 <- ip1
I0428 19:27:45.647290 21436 net.cpp:369] relu1 -> ip1 (in-place)
I0428 19:27:45.934775 21436 net.cpp:124] Setting up relu1
I0428 19:27:45.934804 21436 net.cpp:131] Top shape: 64 10 (640)
I0428 19:27:45.934809 21436 net.cpp:139] Memory required for data: 206080
I0428 19:27:45.934814 21436 layer_factory.hpp:77] Creating layer loss
I0428 19:27:45.934825 21436 net.cpp:86] Creating Layer loss
I0428 19:27:45.934831 21436 net.cpp:408] loss <- ip1
I0428 19:27:45.934839 21436 net.cpp:408] loss <- label
I0428 19:27:45.934844 21436 net.cpp:382] loss -> loss
I0428 19:27:45.934870 21436 layer_factory.hpp:77] Creating layer loss
…
I0428 19:27:45.937038 21436 solver.cpp:173] Creating test net (#0) specified by net file: ECE595/mnist/train_test/var_everything2/lenet_train_test2.prototxt
I0428 19:27:45.937060 21436 net.cpp:296] The NetState phase (1) differed from the phase (0) specified by a rule in layer mnist
I0428 19:27:45.937119 21436 net.cpp:53] Initializing net from parameters: 
name: "LeNet"
state {
  phase: TEST
}
layer {
  name: "mnist"
  type: "Data"
  top: "data"
  top: "label"
  include {
    phase: TEST
  }
  transform_param {
    scale: 0.00390625
  }
  data_param {
    source: "examples/mnist/mnist_test_lmdb"
    batch_size: 100
    backend: LMDB
  }
}
layer {
  name: "ip1"
  type: "InnerProduct"
  bottom: "data"
  top: "ip1"
  param {
    lr_mult: 1
  }
  param {
    lr_mult: 2
  }
  inner_product_param {
    num_output: 10
    weight_filler {
      type: "xavier"
    }
    bias_filler {
      type: "constant"
    }
  }
}
layer {
  name: "relu1"
  type: "ReLU"
  bottom: "ip1"
  top: "ip1"
}
layer {
  name: "accuracy"
  type: "Accuracy"
  bottom: "ip1"
  bottom: "label"
  top: "accuracy"
  include {
    phase: TEST
  }
}
layer {
  name: "loss"
  type: "SoftmaxWithLoss"
  bottom: "ip1"
  bottom: "label"
  top: "loss"
}
I0428 19:27:45.937170 21436 layer_factory.hpp:77] Creating layer mnist
I0428 19:27:45.937221 21436 db_lmdb.cpp:35] Opened lmdb examples/mnist/mnist_test_lmdb
I0428 19:27:45.937237 21436 net.cpp:86] Creating Layer mnist
I0428 19:27:45.937244 21436 net.cpp:382] mnist -> data
I0428 19:27:45.937254 21436 net.cpp:382] mnist -> label
I0428 19:27:45.937361 21436 data_layer.cpp:45] output data size: 100,1,28,28
I0428 19:27:45.939395 21436 net.cpp:124] Setting up mnist
I0428 19:27:45.939410 21436 net.cpp:131] Top shape: 100 1 28 28 (78400)
I0428 19:27:45.939416 21436 net.cpp:131] Top shape: 100 (100)
I0428 19:27:45.939420 21436 net.cpp:139] Memory required for data: 314000
I0428 19:27:45.939425 21436 layer_factory.hpp:77] Creating layer label_mnist_1_split
I0428 19:27:45.939436 21436 net.cpp:86] Creating Layer label_mnist_1_split
I0428 19:27:45.939442 21436 net.cpp:408] label_mnist_1_split <- label
I0428 19:27:45.939448 21436 net.cpp:382] label_mnist_1_split -> label_mnist_1_split_0
I0428 19:27:45.939455 21436 net.cpp:382] label_mnist_1_split -> label_mnist_1_split_1
I0428 19:27:45.939548 21436 net.cpp:124] Setting up label_mnist_1_split
I0428 19:27:45.939556 21436 net.cpp:131] Top shape: 100 (100)
I0428 19:27:45.939561 21436 net.cpp:131] Top shape: 100 (100)
I0428 19:27:45.939564 21436 net.cpp:139] Memory required for data: 314800
I0428 19:27:45.939568 21436 layer_factory.hpp:77] Creating layer ip1
I0428 19:27:45.939577 21436 net.cpp:86] Creating Layer ip1
I0428 19:27:45.939582 21436 net.cpp:408] ip1 <- data
I0428 19:27:45.939587 21436 net.cpp:382] ip1 -> ip1
I0428 19:27:45.939743 21436 net.cpp:124] Setting up ip1
I0428 19:27:45.939750 21436 net.cpp:131] Top shape: 100 10 (1000)
I0428 19:27:45.939754 21436 net.cpp:139] Memory required for data: 318800
I0428 19:27:45.939764 21436 layer_factory.hpp:77] Creating layer relu1
I0428 19:27:45.939772 21436 net.cpp:86] Creating Layer relu1
I0428 19:27:45.939776 21436 net.cpp:408] relu1 <- ip1
I0428 19:27:45.939780 21436 net.cpp:369] relu1 -> ip1 (in-place)
I0428 19:27:45.939959 21436 net.cpp:124] Setting up relu1
I0428 19:27:45.939967 21436 net.cpp:131] Top shape: 100 10 (1000)
I0428 19:27:45.939971 21436 net.cpp:139] Memory required for data: 322800
I0428 19:27:45.939975 21436 layer_factory.hpp:77] Creating layer ip1_relu1_0_split
I0428 19:27:45.939981 21436 net.cpp:86] Creating Layer ip1_relu1_0_split
I0428 19:27:45.939985 21436 net.cpp:408] ip1_relu1_0_split <- ip1
I0428 19:27:45.939990 21436 net.cpp:382] ip1_relu1_0_split -> ip1_relu1_0_split_0
I0428 19:27:45.939996 21436 net.cpp:382] ip1_relu1_0_split -> ip1_relu1_0_split_1
I0428 19:27:45.940032 21436 net.cpp:124] Setting up ip1_relu1_0_split
I0428 19:27:45.940052 21436 net.cpp:131] Top shape: 100 10 (1000)
I0428 19:27:45.940057 21436 net.cpp:131] Top shape: 100 10 (1000)
I0428 19:27:45.940059 21436 net.cpp:139] Memory required for data: 330800
I0428 19:27:45.940063 21436 layer_factory.hpp:77] Creating layer accuracy
I0428 19:27:45.940069 21436 net.cpp:86] Creating Layer accuracy
I0428 19:27:45.940073 21436 net.cpp:408] accuracy <- ip1_relu1_0_split_0
I0428 19:27:45.940078 21436 net.cpp:408] accuracy <- label_mnist_1_split_0
I0428 19:27:45.940083 21436 net.cpp:382] accuracy -> accuracy
…
