…
I0428 19:59:11.549792 29177 net.cpp:296] The NetState phase (0) differed from the phase (1) specified by a rule in layer mnist
I0428 19:59:11.549816 29177 net.cpp:296] The NetState phase (0) differed from the phase (1) specified by a rule in layer accuracy
I0428 19:59:11.549955 29177 net.cpp:53] Initializing net from parameters: 
name: "LeNet"
state {
  phase: TRAIN
  level: 0
  stage: ""
}
layer {
  name: "mnist"
  type: "Data"
  top: "data"
  top: "label"
  include {
    phase: TRAIN
  }
  transform_param {
    scale: 0.00390625
  }
  data_param {
    source: "examples/mnist/mnist_train_lmdb"
    batch_size: 64
    backend: LMDB
  }
}
layer {
  name: "conv0"
  type: "Convolution"
  bottom: "data"
  top: "conv0"
  param {
    lr_mult: 1
  }
  param {
    lr_mult: 2
  }
  convolution_param {
    num_output: 10
    kernel_size: 5
    stride: 1
    weight_filler {
      type: "xavier"
    }
    bias_filler {
      type: "constant"
    }
  }
}
layer {
  name: "pool0"
  type: "Pooling"
  bottom: "conv0"
  top: "pool0"
  pooling_param {
    pool: MAX
    kernel_size: 2
    stride: 2
  }
}
layer {
  name: "conv1"
  type: "Convolution"
  bottom: "pool0"
  top: "conv1"
  param {
    lr_mult: 1
  }
  param {
    lr_mult: 2
  }
  convolution_param {
    num_output: 10
    kernel_size: 5
    stride: 1
    weight_filler {
      type: "xavier"
    }
    bias_filler {
      type: "constant"
    }
  }
}
layer {
  name: "pool1"
  type: "Pooling"
  bottom: "conv1"
  top: "pool1"
  pooling_param {
    pool: MAX
    kernel_size: 2
    stride: 2
  }
}
layer {
  name: "ip1"
  type: "InnerProduct"
  bottom: "pool1"
  top: "ip1"
  param {
    lr_mult: 1
  }
  param {
    lr_mult: 2
  }
  inner_product_param {
    num_output: 25
    weight_filler {
      type: "xavier"
    }
    bias_filler {
      type: "constant"
    }
  }
}
layer {
  name: "relu1"
  type: "ReLU"
  bottom: "ip1"
  top: "ip1"
}
layer {
  name: "ip2"
  type: "InnerProduct"
  bottom: "ip1"
  top: "ip2"
  param {
    lr_mult: 1
  }
  param {
    lr_mult: 2
  }
  inner_product_param {
    num_output: 10
    weight_filler {
      type: "xavier"
    }
    bias_filler {
      type: "constant"
    }
  }
}
layer {
  name: "relu2"
  type: "ReLU"
  bottom: "ip2"
  top: "ip2"
}
layer {
  name: "ip3"
  type: "InnerProduct"
  bottom: "ip2"
  top: "ip3"
  param {
    lr_mult: 1
  }
  param {
    lr_mult: 2
  }
  inner_product_param {
    num_output: 10
    weight_filler {
      type: "xavier"
    }
    bias_filler {
      type: "constant"
    }
  }
}
layer {
  name: "relu3"
  type: "ReLU"
  bottom: "ip3"
  top: "ip3"
}
layer {
  name: "loss"
  type: "SoftmaxWithLoss"
  bottom: "ip3"
  bottom: "label"
  top: "loss"
}
I0428 19:59:11.550055 29177 layer_factory.hpp:77] Creating layer mnist
I0428 19:59:11.550179 29177 db_lmdb.cpp:35] Opened lmdb examples/mnist/mnist_train_lmdb
I0428 19:59:11.550211 29177 net.cpp:86] Creating Layer mnist
I0428 19:59:11.550222 29177 net.cpp:382] mnist -> data
I0428 19:59:11.550251 29177 net.cpp:382] mnist -> label
I0428 19:59:11.551692 29177 data_layer.cpp:45] output data size: 64,1,28,28
I0428 19:59:11.554908 29177 net.cpp:124] Setting up mnist
I0428 19:59:11.554929 29177 net.cpp:131] Top shape: 64 1 28 28 (50176)
I0428 19:59:11.554937 29177 net.cpp:131] Top shape: 64 (64)
I0428 19:59:11.554944 29177 net.cpp:139] Memory required for data: 200960
I0428 19:59:11.554953 29177 layer_factory.hpp:77] Creating layer conv0
I0428 19:59:11.554973 29177 net.cpp:86] Creating Layer conv0
I0428 19:59:11.554999 29177 net.cpp:408] conv0 <- data
I0428 19:59:11.555016 29177 net.cpp:382] conv0 -> conv0
I0428 19:59:11.824167 29177 net.cpp:124] Setting up conv0
I0428 19:59:11.824193 29177 net.cpp:131] Top shape: 64 10 24 24 (368640)
I0428 19:59:11.824196 29177 net.cpp:139] Memory required for data: 1675520
I0428 19:59:11.824210 29177 layer_factory.hpp:77] Creating layer pool0
I0428 19:59:11.824223 29177 net.cpp:86] Creating Layer pool0
I0428 19:59:11.824228 29177 net.cpp:408] pool0 <- conv0
I0428 19:59:11.824231 29177 net.cpp:382] pool0 -> pool0
I0428 19:59:11.824291 29177 net.cpp:124] Setting up pool0
I0428 19:59:11.824296 29177 net.cpp:131] Top shape: 64 10 12 12 (92160)
I0428 19:59:11.824298 29177 net.cpp:139] Memory required for data: 2044160
I0428 19:59:11.824301 29177 layer_factory.hpp:77] Creating layer conv1
I0428 19:59:11.824311 29177 net.cpp:86] Creating Layer conv1
I0428 19:59:11.824314 29177 net.cpp:408] conv1 <- pool0
I0428 19:59:11.824319 29177 net.cpp:382] conv1 -> conv1
I0428 19:59:11.827113 29177 net.cpp:124] Setting up conv1
I0428 19:59:11.827142 29177 net.cpp:131] Top shape: 64 10 8 8 (40960)
I0428 19:59:11.827147 29177 net.cpp:139] Memory required for data: 2208000
I0428 19:59:11.827154 29177 layer_factory.hpp:77] Creating layer pool1
I0428 19:59:11.827162 29177 net.cpp:86] Creating Layer pool1
I0428 19:59:11.827164 29177 net.cpp:408] pool1 <- conv1
I0428 19:59:11.827169 29177 net.cpp:382] pool1 -> pool1
I0428 19:59:11.827221 29177 net.cpp:124] Setting up pool1
I0428 19:59:11.827226 29177 net.cpp:131] Top shape: 64 10 4 4 (10240)
I0428 19:59:11.827229 29177 net.cpp:139] Memory required for data: 2248960
I0428 19:59:11.827232 29177 layer_factory.hpp:77] Creating layer ip1
I0428 19:59:11.827240 29177 net.cpp:86] Creating Layer ip1
I0428 19:59:11.827244 29177 net.cpp:408] ip1 <- pool1
I0428 19:59:11.827247 29177 net.cpp:382] ip1 -> ip1
I0428 19:59:11.827365 29177 net.cpp:124] Setting up ip1
I0428 19:59:11.827373 29177 net.cpp:131] Top shape: 64 25 (1600)
I0428 19:59:11.827375 29177 net.cpp:139] Memory required for data: 2255360
I0428 19:59:11.827383 29177 layer_factory.hpp:77] Creating layer relu1
I0428 19:59:11.827389 29177 net.cpp:86] Creating Layer relu1
I0428 19:59:11.827391 29177 net.cpp:408] relu1 <- ip1
I0428 19:59:11.827395 29177 net.cpp:369] relu1 -> ip1 (in-place)
I0428 19:59:11.827550 29177 net.cpp:124] Setting up relu1
I0428 19:59:11.827559 29177 net.cpp:131] Top shape: 64 25 (1600)
I0428 19:59:11.827563 29177 net.cpp:139] Memory required for data: 2261760
I0428 19:59:11.827565 29177 layer_factory.hpp:77] Creating layer ip2
I0428 19:59:11.827571 29177 net.cpp:86] Creating Layer ip2
I0428 19:59:11.827574 29177 net.cpp:408] ip2 <- ip1
I0428 19:59:11.827579 29177 net.cpp:382] ip2 -> ip2
I0428 19:59:11.827683 29177 net.cpp:124] Setting up ip2
I0428 19:59:11.827690 29177 net.cpp:131] Top shape: 64 10 (640)
I0428 19:59:11.827693 29177 net.cpp:139] Memory required for data: 2264320
I0428 19:59:11.827698 29177 layer_factory.hpp:77] Creating layer relu2
I0428 19:59:11.827704 29177 net.cpp:86] Creating Layer relu2
I0428 19:59:11.827708 29177 net.cpp:408] relu2 <- ip2
I0428 19:59:11.827711 29177 net.cpp:369] relu2 -> ip2 (in-place)
I0428 19:59:11.828441 29177 net.cpp:124] Setting up relu2
I0428 19:59:11.828454 29177 net.cpp:131] Top shape: 64 10 (640)
I0428 19:59:11.828456 29177 net.cpp:139] Memory required for data: 2266880
I0428 19:59:11.828460 29177 layer_factory.hpp:77] Creating layer ip3
I0428 19:59:11.828467 29177 net.cpp:86] Creating Layer ip3
I0428 19:59:11.828470 29177 net.cpp:408] ip3 <- ip2
I0428 19:59:11.828475 29177 net.cpp:382] ip3 -> ip3
I0428 19:59:11.828586 29177 net.cpp:124] Setting up ip3
I0428 19:59:11.828593 29177 net.cpp:131] Top shape: 64 10 (640)
I0428 19:59:11.828596 29177 net.cpp:139] Memory required for data: 2269440
I0428 19:59:11.828604 29177 layer_factory.hpp:77] Creating layer relu3
I0428 19:59:11.828609 29177 net.cpp:86] Creating Layer relu3
I0428 19:59:11.828613 29177 net.cpp:408] relu3 <- ip3
I0428 19:59:11.828616 29177 net.cpp:369] relu3 -> ip3 (in-place)
I0428 19:59:11.828838 29177 net.cpp:124] Setting up relu3
I0428 19:59:11.828848 29177 net.cpp:131] Top shape: 64 10 (640)
I0428 19:59:11.828851 29177 net.cpp:139] Memory required for data: 2272000
I0428 19:59:11.828855 29177 layer_factory.hpp:77] Creating layer loss
I0428 19:59:11.828861 29177 net.cpp:86] Creating Layer loss
I0428 19:59:11.828866 29177 net.cpp:408] loss <- ip3
I0428 19:59:11.828869 29177 net.cpp:408] loss <- label
I0428 19:59:11.828876 29177 net.cpp:382] loss -> loss
I0428 19:59:11.828891 29177 layer_factory.hpp:77] Creating layer loss
…
I0428 19:59:11.829630 29177 solver.cpp:173] Creating test net (#0) specified by net file: ECE595/mnist/train_test/var_everything2/lenet_train_test840.prototxt
I0428 19:59:11.829658 29177 net.cpp:296] The NetState phase (1) differed from the phase (0) specified by a rule in layer mnist
I0428 19:59:11.829753 29177 net.cpp:53] Initializing net from parameters: 
name: "LeNet"
state {
  phase: TEST
}
layer {
  name: "mnist"
  type: "Data"
  top: "data"
  top: "label"
  include {
    phase: TEST
  }
  transform_param {
    scale: 0.00390625
  }
  data_param {
    source: "examples/mnist/mnist_test_lmdb"
    batch_size: 100
    backend: LMDB
  }
}
layer {
  name: "conv0"
  type: "Convolution"
  bottom: "data"
  top: "conv0"
  param {
    lr_mult: 1
  }
  param {
    lr_mult: 2
  }
  convolution_param {
    num_output: 10
    kernel_size: 5
    stride: 1
    weight_filler {
      type: "xavier"
    }
    bias_filler {
      type: "constant"
    }
  }
}
layer {
  name: "pool0"
  type: "Pooling"
  bottom: "conv0"
  top: "pool0"
  pooling_param {
    pool: MAX
    kernel_size: 2
    stride: 2
  }
}
layer {
  name: "conv1"
  type: "Convolution"
  bottom: "pool0"
  top: "conv1"
  param {
    lr_mult: 1
  }
  param {
    lr_mult: 2
  }
  convolution_param {
    num_output: 10
    kernel_size: 5
    stride: 1
    weight_filler {
      type: "xavier"
    }
    bias_filler {
      type: "constant"
    }
  }
}
layer {
  name: "pool1"
  type: "Pooling"
  bottom: "conv1"
  top: "pool1"
  pooling_param {
    pool: MAX
    kernel_size: 2
    stride: 2
  }
}
layer {
  name: "ip1"
  type: "InnerProduct"
  bottom: "pool1"
  top: "ip1"
  param {
    lr_mult: 1
  }
  param {
    lr_mult: 2
  }
  inner_product_param {
    num_output: 25
    weight_filler {
      type: "xavier"
    }
    bias_filler {
      type: "constant"
    }
  }
}
layer {
  name: "relu1"
  type: "ReLU"
  bottom: "ip1"
  top: "ip1"
}
layer {
  name: "ip2"
  type: "InnerProduct"
  bottom: "ip1"
  top: "ip2"
  param {
    lr_mult: 1
  }
  param {
    lr_mult: 2
  }
  inner_product_param {
    num_output: 10
    weight_filler {
      type: "xavier"
    }
    bias_filler {
      type: "constant"
    }
  }
}
layer {
  name: "relu2"
  type: "ReLU"
  bottom: "ip2"
  top: "ip2"
}
layer {
  name: "ip3"
  type: "InnerProduct"
  bottom: "ip2"
  top: "ip3"
  param {
    lr_mult: 1
  }
  param {
    lr_mult: 2
  }
  inner_product_param {
    num_output: 10
    weight_filler {
      type: "xavier"
    }
    bias_filler {
      type: "constant"
    }
  }
}
layer {
  name: "relu3"
  type: "ReLU"
  bottom: "ip3"
  top: "ip3"
}
layer {
  name: "accuracy"
  type: "Accuracy"
  bottom: "ip3"
  bottom: "label"
  top: "accuracy"
  include {
    phase: TEST
  }
}
layer {
  name: "loss"
  type: "SoftmaxWithLoss"
  bottom: "ip3"
  bottom: "label"
  top: "loss"
}
I0428 19:59:11.829838 29177 layer_factory.hpp:77] Creating layer mnist
I0428 19:59:11.829910 29177 db_lmdb.cpp:35] Opened lmdb examples/mnist/mnist_test_lmdb
I0428 19:59:11.829924 29177 net.cpp:86] Creating Layer mnist
I0428 19:59:11.829929 29177 net.cpp:382] mnist -> data
I0428 19:59:11.829936 29177 net.cpp:382] mnist -> label
I0428 19:59:11.830024 29177 data_layer.cpp:45] output data size: 100,1,28,28
I0428 19:59:11.832057 29177 net.cpp:124] Setting up mnist
I0428 19:59:11.832070 29177 net.cpp:131] Top shape: 100 1 28 28 (78400)
I0428 19:59:11.832089 29177 net.cpp:131] Top shape: 100 (100)
I0428 19:59:11.832093 29177 net.cpp:139] Memory required for data: 314000
I0428 19:59:11.832111 29177 layer_factory.hpp:77] Creating layer label_mnist_1_split
I0428 19:59:11.832129 29177 net.cpp:86] Creating Layer label_mnist_1_split
I0428 19:59:11.832134 29177 net.cpp:408] label_mnist_1_split <- label
I0428 19:59:11.832154 29177 net.cpp:382] label_mnist_1_split -> label_mnist_1_split_0
I0428 19:59:11.832160 29177 net.cpp:382] label_mnist_1_split -> label_mnist_1_split_1
I0428 19:59:11.832250 29177 net.cpp:124] Setting up label_mnist_1_split
I0428 19:59:11.832258 29177 net.cpp:131] Top shape: 100 (100)
I0428 19:59:11.832262 29177 net.cpp:131] Top shape: 100 (100)
I0428 19:59:11.832265 29177 net.cpp:139] Memory required for data: 314800
I0428 19:59:11.832267 29177 layer_factory.hpp:77] Creating layer conv0
I0428 19:59:11.832278 29177 net.cpp:86] Creating Layer conv0
I0428 19:59:11.832281 29177 net.cpp:408] conv0 <- data
I0428 19:59:11.832288 29177 net.cpp:382] conv0 -> conv0
I0428 19:59:11.834055 29177 net.cpp:124] Setting up conv0
I0428 19:59:11.834069 29177 net.cpp:131] Top shape: 100 10 24 24 (576000)
I0428 19:59:11.834072 29177 net.cpp:139] Memory required for data: 2618800
I0428 19:59:11.834082 29177 layer_factory.hpp:77] Creating layer pool0
I0428 19:59:11.834089 29177 net.cpp:86] Creating Layer pool0
I0428 19:59:11.834107 29177 net.cpp:408] pool0 <- conv0
I0428 19:59:11.834111 29177 net.cpp:382] pool0 -> pool0
I0428 19:59:11.834148 29177 net.cpp:124] Setting up pool0
I0428 19:59:11.834164 29177 net.cpp:131] Top shape: 100 10 12 12 (144000)
I0428 19:59:11.834167 29177 net.cpp:139] Memory required for data: 3194800
I0428 19:59:11.834169 29177 layer_factory.hpp:77] Creating layer conv1
I0428 19:59:11.834178 29177 net.cpp:86] Creating Layer conv1
I0428 19:59:11.834182 29177 net.cpp:408] conv1 <- pool0
I0428 19:59:11.834187 29177 net.cpp:382] conv1 -> conv1
I0428 19:59:11.836434 29177 net.cpp:124] Setting up conv1
I0428 19:59:11.836448 29177 net.cpp:131] Top shape: 100 10 8 8 (64000)
I0428 19:59:11.836452 29177 net.cpp:139] Memory required for data: 3450800
I0428 19:59:11.836460 29177 layer_factory.hpp:77] Creating layer pool1
I0428 19:59:11.836467 29177 net.cpp:86] Creating Layer pool1
I0428 19:59:11.836470 29177 net.cpp:408] pool1 <- conv1
I0428 19:59:11.836477 29177 net.cpp:382] pool1 -> pool1
I0428 19:59:11.836546 29177 net.cpp:124] Setting up pool1
I0428 19:59:11.836560 29177 net.cpp:131] Top shape: 100 10 4 4 (16000)
I0428 19:59:11.836562 29177 net.cpp:139] Memory required for data: 3514800
I0428 19:59:11.836565 29177 layer_factory.hpp:77] Creating layer ip1
I0428 19:59:11.836572 29177 net.cpp:86] Creating Layer ip1
I0428 19:59:11.836575 29177 net.cpp:408] ip1 <- pool1
I0428 19:59:11.836580 29177 net.cpp:382] ip1 -> ip1
I0428 19:59:11.836752 29177 net.cpp:124] Setting up ip1
I0428 19:59:11.836762 29177 net.cpp:131] Top shape: 100 25 (2500)
I0428 19:59:11.836776 29177 net.cpp:139] Memory required for data: 3524800
I0428 19:59:11.836782 29177 layer_factory.hpp:77] Creating layer relu1
I0428 19:59:11.836788 29177 net.cpp:86] Creating Layer relu1
I0428 19:59:11.836791 29177 net.cpp:408] relu1 <- ip1
I0428 19:59:11.836796 29177 net.cpp:369] relu1 -> ip1 (in-place)
I0428 19:59:11.837030 29177 net.cpp:124] Setting up relu1
I0428 19:59:11.837041 29177 net.cpp:131] Top shape: 100 25 (2500)
I0428 19:59:11.837044 29177 net.cpp:139] Memory required for data: 3534800
I0428 19:59:11.837047 29177 layer_factory.hpp:77] Creating layer ip2
I0428 19:59:11.837054 29177 net.cpp:86] Creating Layer ip2
I0428 19:59:11.837059 29177 net.cpp:408] ip2 <- ip1
I0428 19:59:11.837064 29177 net.cpp:382] ip2 -> ip2
I0428 19:59:11.837170 29177 net.cpp:124] Setting up ip2
I0428 19:59:11.837191 29177 net.cpp:131] Top shape: 100 10 (1000)
I0428 19:59:11.837218 29177 net.cpp:139] Memory required for data: 3538800
I0428 19:59:11.837222 29177 layer_factory.hpp:77] Creating layer relu2
I0428 19:59:11.837227 29177 net.cpp:86] Creating Layer relu2
I0428 19:59:11.837230 29177 net.cpp:408] relu2 <- ip2
I0428 19:59:11.837236 29177 net.cpp:369] relu2 -> ip2 (in-place)
I0428 19:59:11.837385 29177 net.cpp:124] Setting up relu2
I0428 19:59:11.837394 29177 net.cpp:131] Top shape: 100 10 (1000)
I0428 19:59:11.837397 29177 net.cpp:139] Memory required for data: 3542800
I0428 19:59:11.837400 29177 layer_factory.hpp:77] Creating layer ip3
I0428 19:59:11.837406 29177 net.cpp:86] Creating Layer ip3
I0428 19:59:11.837409 29177 net.cpp:408] ip3 <- ip2
I0428 19:59:11.837414 29177 net.cpp:382] ip3 -> ip3
I0428 19:59:11.837522 29177 net.cpp:124] Setting up ip3
I0428 19:59:11.837528 29177 net.cpp:131] Top shape: 100 10 (1000)
I0428 19:59:11.837537 29177 net.cpp:139] Memory required for data: 3546800
I0428 19:59:11.837544 29177 layer_factory.hpp:77] Creating layer relu3
I0428 19:59:11.837549 29177 net.cpp:86] Creating Layer relu3
I0428 19:59:11.837551 29177 net.cpp:408] relu3 <- ip3
I0428 19:59:11.837558 29177 net.cpp:369] relu3 -> ip3 (in-place)
I0428 19:59:11.838475 29177 net.cpp:124] Setting up relu3
I0428 19:59:11.838486 29177 net.cpp:131] Top shape: 100 10 (1000)
I0428 19:59:11.838490 29177 net.cpp:139] Memory required for data: 3550800
I0428 19:59:11.838493 29177 layer_factory.hpp:77] Creating layer ip3_relu3_0_split
I0428 19:59:11.838500 29177 net.cpp:86] Creating Layer ip3_relu3_0_split
I0428 19:59:11.838503 29177 net.cpp:408] ip3_relu3_0_split <- ip3
I0428 19:59:11.838508 29177 net.cpp:382] ip3_relu3_0_split -> ip3_relu3_0_split_0
I0428 19:59:11.838513 29177 net.cpp:382] ip3_relu3_0_split -> ip3_relu3_0_split_1
I0428 19:59:11.838565 29177 net.cpp:124] Setting up ip3_relu3_0_split
I0428 19:59:11.838573 29177 net.cpp:131] Top shape: 100 10 (1000)
I0428 19:59:11.838577 29177 net.cpp:131] Top shape: 100 10 (1000)
I0428 19:59:11.838579 29177 net.cpp:139] Memory required for data: 3558800
I0428 19:59:11.838582 29177 layer_factory.hpp:77] Creating layer accuracy
I0428 19:59:11.838587 29177 net.cpp:86] Creating Layer accuracy
I0428 19:59:11.838590 29177 net.cpp:408] accuracy <- ip3_relu3_0_split_0
I0428 19:59:11.838599 29177 net.cpp:408] accuracy <- label_mnist_1_split_0
I0428 19:59:11.838605 29177 net.cpp:382] accuracy -> accuracy
…
