…
I0428 20:31:26.614317  3954 net.cpp:296] The NetState phase (0) differed from the phase (1) specified by a rule in layer mnist
I0428 20:31:26.614337  3954 net.cpp:296] The NetState phase (0) differed from the phase (1) specified by a rule in layer accuracy
I0428 20:31:26.614439  3954 net.cpp:53] Initializing net from parameters: 
name: "LeNet"
state {
  phase: TRAIN
  level: 0
  stage: ""
}
layer {
  name: "mnist"
  type: "Data"
  top: "data"
  top: "label"
  include {
    phase: TRAIN
  }
  transform_param {
    scale: 0.00390625
  }
  data_param {
    source: "examples/mnist/mnist_train_lmdb"
    batch_size: 64
    backend: LMDB
  }
}
layer {
  name: "conv0"
  type: "Convolution"
  bottom: "data"
  top: "conv0"
  param {
    lr_mult: 1
  }
  param {
    lr_mult: 2
  }
  convolution_param {
    num_output: 100
    kernel_size: 5
    stride: 1
    weight_filler {
      type: "xavier"
    }
    bias_filler {
      type: "constant"
    }
  }
}
layer {
  name: "pool0"
  type: "Pooling"
  bottom: "conv0"
  top: "pool0"
  pooling_param {
    pool: MAX
    kernel_size: 2
    stride: 2
  }
}
layer {
  name: "conv1"
  type: "Convolution"
  bottom: "pool0"
  top: "conv1"
  param {
    lr_mult: 1
  }
  param {
    lr_mult: 2
  }
  convolution_param {
    num_output: 10
    kernel_size: 5
    stride: 1
    weight_filler {
      type: "xavier"
    }
    bias_filler {
      type: "constant"
    }
  }
}
layer {
  name: "pool1"
  type: "Pooling"
  bottom: "conv1"
  top: "pool1"
  pooling_param {
    pool: MAX
    kernel_size: 2
    stride: 2
  }
}
layer {
  name: "ip1"
  type: "InnerProduct"
  bottom: "pool1"
  top: "ip1"
  param {
    lr_mult: 1
  }
  param {
    lr_mult: 2
  }
  inner_product_param {
    num_output: 50
    weight_filler {
      type: "xavier"
    }
    bias_filler {
      type: "constant"
    }
  }
}
layer {
  name: "relu1"
  type: "ReLU"
  bottom: "ip1"
  top: "ip1"
}
layer {
  name: "ip2"
  type: "InnerProduct"
  bottom: "ip1"
  top: "ip2"
  param {
    lr_mult: 1
  }
  param {
    lr_mult: 2
  }
  inner_product_param {
    num_output: 25
    weight_filler {
      type: "xavier"
    }
    bias_filler {
      type: "constant"
    }
  }
}
layer {
  name: "relu2"
  type: "ReLU"
  bottom: "ip2"
  top: "ip2"
}
layer {
  name: "ip3"
  type: "InnerProduct"
  bottom: "ip2"
  top: "ip3"
  param {
    lr_mult: 1
  }
  param {
    lr_mult: 2
  }
  inner_product_param {
    num_output: 10
    weight_filler {
      type: "xavier"
    }
    bias_filler {
      type: "constant"
    }
  }
}
layer {
  name: "relu3"
  type: "ReLU"
  bottom: "ip3"
  top: "ip3"
}
layer {
  name: "loss"
  type: "SoftmaxWithLoss"
  bottom: "ip3"
  bottom: "label"
  top: "loss"
}
I0428 20:31:26.614518  3954 layer_factory.hpp:77] Creating layer mnist
I0428 20:31:26.614622  3954 db_lmdb.cpp:35] Opened lmdb examples/mnist/mnist_train_lmdb
I0428 20:31:26.614646  3954 net.cpp:86] Creating Layer mnist
I0428 20:31:26.614655  3954 net.cpp:382] mnist -> data
I0428 20:31:26.614678  3954 net.cpp:382] mnist -> label
I0428 20:31:26.615768  3954 data_layer.cpp:45] output data size: 64,1,28,28
I0428 20:31:26.618224  3954 net.cpp:124] Setting up mnist
I0428 20:31:26.618242  3954 net.cpp:131] Top shape: 64 1 28 28 (50176)
I0428 20:31:26.618248  3954 net.cpp:131] Top shape: 64 (64)
I0428 20:31:26.618252  3954 net.cpp:139] Memory required for data: 200960
I0428 20:31:26.618259  3954 layer_factory.hpp:77] Creating layer conv0
I0428 20:31:26.618276  3954 net.cpp:86] Creating Layer conv0
I0428 20:31:26.618297  3954 net.cpp:408] conv0 <- data
I0428 20:31:26.618311  3954 net.cpp:382] conv0 -> conv0
I0428 20:31:26.901646  3954 net.cpp:124] Setting up conv0
I0428 20:31:26.901674  3954 net.cpp:131] Top shape: 64 100 24 24 (3686400)
I0428 20:31:26.901679  3954 net.cpp:139] Memory required for data: 14946560
I0428 20:31:26.901695  3954 layer_factory.hpp:77] Creating layer pool0
I0428 20:31:26.901706  3954 net.cpp:86] Creating Layer pool0
I0428 20:31:26.901710  3954 net.cpp:408] pool0 <- conv0
I0428 20:31:26.901715  3954 net.cpp:382] pool0 -> pool0
I0428 20:31:26.901763  3954 net.cpp:124] Setting up pool0
I0428 20:31:26.901768  3954 net.cpp:131] Top shape: 64 100 12 12 (921600)
I0428 20:31:26.901772  3954 net.cpp:139] Memory required for data: 18632960
I0428 20:31:26.901774  3954 layer_factory.hpp:77] Creating layer conv1
I0428 20:31:26.901785  3954 net.cpp:86] Creating Layer conv1
I0428 20:31:26.901788  3954 net.cpp:408] conv1 <- pool0
I0428 20:31:26.901794  3954 net.cpp:382] conv1 -> conv1
I0428 20:31:26.903733  3954 net.cpp:124] Setting up conv1
I0428 20:31:26.903764  3954 net.cpp:131] Top shape: 64 10 8 8 (40960)
I0428 20:31:26.903767  3954 net.cpp:139] Memory required for data: 18796800
I0428 20:31:26.903775  3954 layer_factory.hpp:77] Creating layer pool1
I0428 20:31:26.903784  3954 net.cpp:86] Creating Layer pool1
I0428 20:31:26.903789  3954 net.cpp:408] pool1 <- conv1
I0428 20:31:26.903794  3954 net.cpp:382] pool1 -> pool1
I0428 20:31:26.903831  3954 net.cpp:124] Setting up pool1
I0428 20:31:26.903836  3954 net.cpp:131] Top shape: 64 10 4 4 (10240)
I0428 20:31:26.903838  3954 net.cpp:139] Memory required for data: 18837760
I0428 20:31:26.903841  3954 layer_factory.hpp:77] Creating layer ip1
I0428 20:31:26.903849  3954 net.cpp:86] Creating Layer ip1
I0428 20:31:26.903852  3954 net.cpp:408] ip1 <- pool1
I0428 20:31:26.903857  3954 net.cpp:382] ip1 -> ip1
I0428 20:31:26.904958  3954 net.cpp:124] Setting up ip1
I0428 20:31:26.904971  3954 net.cpp:131] Top shape: 64 50 (3200)
I0428 20:31:26.904990  3954 net.cpp:139] Memory required for data: 18850560
I0428 20:31:26.904999  3954 layer_factory.hpp:77] Creating layer relu1
I0428 20:31:26.905022  3954 net.cpp:86] Creating Layer relu1
I0428 20:31:26.905026  3954 net.cpp:408] relu1 <- ip1
I0428 20:31:26.905031  3954 net.cpp:369] relu1 -> ip1 (in-place)
I0428 20:31:26.905282  3954 net.cpp:124] Setting up relu1
I0428 20:31:26.905292  3954 net.cpp:131] Top shape: 64 50 (3200)
I0428 20:31:26.905295  3954 net.cpp:139] Memory required for data: 18863360
I0428 20:31:26.905314  3954 layer_factory.hpp:77] Creating layer ip2
I0428 20:31:26.905323  3954 net.cpp:86] Creating Layer ip2
I0428 20:31:26.905325  3954 net.cpp:408] ip2 <- ip1
I0428 20:31:26.905333  3954 net.cpp:382] ip2 -> ip2
I0428 20:31:26.905475  3954 net.cpp:124] Setting up ip2
I0428 20:31:26.905483  3954 net.cpp:131] Top shape: 64 25 (1600)
I0428 20:31:26.905486  3954 net.cpp:139] Memory required for data: 18869760
I0428 20:31:26.905493  3954 layer_factory.hpp:77] Creating layer relu2
I0428 20:31:26.905499  3954 net.cpp:86] Creating Layer relu2
I0428 20:31:26.905503  3954 net.cpp:408] relu2 <- ip2
I0428 20:31:26.905508  3954 net.cpp:369] relu2 -> ip2 (in-place)
I0428 20:31:26.906327  3954 net.cpp:124] Setting up relu2
I0428 20:31:26.906355  3954 net.cpp:131] Top shape: 64 25 (1600)
I0428 20:31:26.906359  3954 net.cpp:139] Memory required for data: 18876160
I0428 20:31:26.906363  3954 layer_factory.hpp:77] Creating layer ip3
I0428 20:31:26.906369  3954 net.cpp:86] Creating Layer ip3
I0428 20:31:26.906373  3954 net.cpp:408] ip3 <- ip2
I0428 20:31:26.906380  3954 net.cpp:382] ip3 -> ip3
I0428 20:31:26.906486  3954 net.cpp:124] Setting up ip3
I0428 20:31:26.906494  3954 net.cpp:131] Top shape: 64 10 (640)
I0428 20:31:26.906497  3954 net.cpp:139] Memory required for data: 18878720
I0428 20:31:26.906505  3954 layer_factory.hpp:77] Creating layer relu3
I0428 20:31:26.906512  3954 net.cpp:86] Creating Layer relu3
I0428 20:31:26.906515  3954 net.cpp:408] relu3 <- ip3
I0428 20:31:26.906518  3954 net.cpp:369] relu3 -> ip3 (in-place)
I0428 20:31:26.906723  3954 net.cpp:124] Setting up relu3
I0428 20:31:26.906731  3954 net.cpp:131] Top shape: 64 10 (640)
I0428 20:31:26.906735  3954 net.cpp:139] Memory required for data: 18881280
I0428 20:31:26.906738  3954 layer_factory.hpp:77] Creating layer loss
I0428 20:31:26.906744  3954 net.cpp:86] Creating Layer loss
I0428 20:31:26.906747  3954 net.cpp:408] loss <- ip3
I0428 20:31:26.906750  3954 net.cpp:408] loss <- label
I0428 20:31:26.906756  3954 net.cpp:382] loss -> loss
I0428 20:31:26.906769  3954 layer_factory.hpp:77] Creating layer loss
…
I0428 20:31:26.907446  3954 solver.cpp:173] Creating test net (#0) specified by net file: ECE595/mnist/train_test/var_everything2/lenet_train_test1555.prototxt
I0428 20:31:26.907488  3954 net.cpp:296] The NetState phase (1) differed from the phase (0) specified by a rule in layer mnist
I0428 20:31:26.907579  3954 net.cpp:53] Initializing net from parameters: 
name: "LeNet"
state {
  phase: TEST
}
layer {
  name: "mnist"
  type: "Data"
  top: "data"
  top: "label"
  include {
    phase: TEST
  }
  transform_param {
    scale: 0.00390625
  }
  data_param {
    source: "examples/mnist/mnist_test_lmdb"
    batch_size: 100
    backend: LMDB
  }
}
layer {
  name: "conv0"
  type: "Convolution"
  bottom: "data"
  top: "conv0"
  param {
    lr_mult: 1
  }
  param {
    lr_mult: 2
  }
  convolution_param {
    num_output: 100
    kernel_size: 5
    stride: 1
    weight_filler {
      type: "xavier"
    }
    bias_filler {
      type: "constant"
    }
  }
}
layer {
  name: "pool0"
  type: "Pooling"
  bottom: "conv0"
  top: "pool0"
  pooling_param {
    pool: MAX
    kernel_size: 2
    stride: 2
  }
}
layer {
  name: "conv1"
  type: "Convolution"
  bottom: "pool0"
  top: "conv1"
  param {
    lr_mult: 1
  }
  param {
    lr_mult: 2
  }
  convolution_param {
    num_output: 10
    kernel_size: 5
    stride: 1
    weight_filler {
      type: "xavier"
    }
    bias_filler {
      type: "constant"
    }
  }
}
layer {
  name: "pool1"
  type: "Pooling"
  bottom: "conv1"
  top: "pool1"
  pooling_param {
    pool: MAX
    kernel_size: 2
    stride: 2
  }
}
layer {
  name: "ip1"
  type: "InnerProduct"
  bottom: "pool1"
  top: "ip1"
  param {
    lr_mult: 1
  }
  param {
    lr_mult: 2
  }
  inner_product_param {
    num_output: 50
    weight_filler {
      type: "xavier"
    }
    bias_filler {
      type: "constant"
    }
  }
}
layer {
  name: "relu1"
  type: "ReLU"
  bottom: "ip1"
  top: "ip1"
}
layer {
  name: "ip2"
  type: "InnerProduct"
  bottom: "ip1"
  top: "ip2"
  param {
    lr_mult: 1
  }
  param {
    lr_mult: 2
  }
  inner_product_param {
    num_output: 25
    weight_filler {
      type: "xavier"
    }
    bias_filler {
      type: "constant"
    }
  }
}
layer {
  name: "relu2"
  type: "ReLU"
  bottom: "ip2"
  top: "ip2"
}
layer {
  name: "ip3"
  type: "InnerProduct"
  bottom: "ip2"
  top: "ip3"
  param {
    lr_mult: 1
  }
  param {
    lr_mult: 2
  }
  inner_product_param {
    num_output: 10
    weight_filler {
      type: "xavier"
    }
    bias_filler {
      type: "constant"
    }
  }
}
layer {
  name: "relu3"
  type: "ReLU"
  bottom: "ip3"
  top: "ip3"
}
layer {
  name: "accuracy"
  type: "Accuracy"
  bottom: "ip3"
  bottom: "label"
  top: "accuracy"
  include {
    phase: TEST
  }
}
layer {
  name: "loss"
  type: "SoftmaxWithLoss"
  bottom: "ip3"
  bottom: "label"
  top: "loss"
}
I0428 20:31:26.907691  3954 layer_factory.hpp:77] Creating layer mnist
I0428 20:31:26.907750  3954 db_lmdb.cpp:35] Opened lmdb examples/mnist/mnist_test_lmdb
I0428 20:31:26.907763  3954 net.cpp:86] Creating Layer mnist
I0428 20:31:26.907768  3954 net.cpp:382] mnist -> data
I0428 20:31:26.907775  3954 net.cpp:382] mnist -> label
I0428 20:31:26.907860  3954 data_layer.cpp:45] output data size: 100,1,28,28
I0428 20:31:26.909797  3954 net.cpp:124] Setting up mnist
I0428 20:31:26.909826  3954 net.cpp:131] Top shape: 100 1 28 28 (78400)
I0428 20:31:26.909847  3954 net.cpp:131] Top shape: 100 (100)
I0428 20:31:26.909850  3954 net.cpp:139] Memory required for data: 314000
I0428 20:31:26.909854  3954 layer_factory.hpp:77] Creating layer label_mnist_1_split
I0428 20:31:26.909862  3954 net.cpp:86] Creating Layer label_mnist_1_split
I0428 20:31:26.909864  3954 net.cpp:408] label_mnist_1_split <- label
I0428 20:31:26.909871  3954 net.cpp:382] label_mnist_1_split -> label_mnist_1_split_0
I0428 20:31:26.909878  3954 net.cpp:382] label_mnist_1_split -> label_mnist_1_split_1
I0428 20:31:26.909939  3954 net.cpp:124] Setting up label_mnist_1_split
I0428 20:31:26.909945  3954 net.cpp:131] Top shape: 100 (100)
I0428 20:31:26.909950  3954 net.cpp:131] Top shape: 100 (100)
I0428 20:31:26.909952  3954 net.cpp:139] Memory required for data: 314800
I0428 20:31:26.909955  3954 layer_factory.hpp:77] Creating layer conv0
I0428 20:31:26.909965  3954 net.cpp:86] Creating Layer conv0
I0428 20:31:26.909967  3954 net.cpp:408] conv0 <- data
I0428 20:31:26.909972  3954 net.cpp:382] conv0 -> conv0
I0428 20:31:26.911523  3954 net.cpp:124] Setting up conv0
I0428 20:31:26.911536  3954 net.cpp:131] Top shape: 100 100 24 24 (5760000)
I0428 20:31:26.911540  3954 net.cpp:139] Memory required for data: 23354800
I0428 20:31:26.911548  3954 layer_factory.hpp:77] Creating layer pool0
I0428 20:31:26.911556  3954 net.cpp:86] Creating Layer pool0
I0428 20:31:26.911558  3954 net.cpp:408] pool0 <- conv0
I0428 20:31:26.911563  3954 net.cpp:382] pool0 -> pool0
I0428 20:31:26.911599  3954 net.cpp:124] Setting up pool0
I0428 20:31:26.911604  3954 net.cpp:131] Top shape: 100 100 12 12 (1440000)
I0428 20:31:26.911607  3954 net.cpp:139] Memory required for data: 29114800
I0428 20:31:26.911609  3954 layer_factory.hpp:77] Creating layer conv1
I0428 20:31:26.911619  3954 net.cpp:86] Creating Layer conv1
I0428 20:31:26.911623  3954 net.cpp:408] conv1 <- pool0
I0428 20:31:26.911626  3954 net.cpp:382] conv1 -> conv1
I0428 20:31:26.913409  3954 net.cpp:124] Setting up conv1
I0428 20:31:26.913439  3954 net.cpp:131] Top shape: 100 10 8 8 (64000)
I0428 20:31:26.913441  3954 net.cpp:139] Memory required for data: 29370800
I0428 20:31:26.913450  3954 layer_factory.hpp:77] Creating layer pool1
I0428 20:31:26.913458  3954 net.cpp:86] Creating Layer pool1
I0428 20:31:26.913463  3954 net.cpp:408] pool1 <- conv1
I0428 20:31:26.913468  3954 net.cpp:382] pool1 -> pool1
I0428 20:31:26.913506  3954 net.cpp:124] Setting up pool1
I0428 20:31:26.913512  3954 net.cpp:131] Top shape: 100 10 4 4 (16000)
I0428 20:31:26.913516  3954 net.cpp:139] Memory required for data: 29434800
I0428 20:31:26.913518  3954 layer_factory.hpp:77] Creating layer ip1
I0428 20:31:26.913524  3954 net.cpp:86] Creating Layer ip1
I0428 20:31:26.913527  3954 net.cpp:408] ip1 <- pool1
I0428 20:31:26.913533  3954 net.cpp:382] ip1 -> ip1
I0428 20:31:26.913677  3954 net.cpp:124] Setting up ip1
I0428 20:31:26.913699  3954 net.cpp:131] Top shape: 100 50 (5000)
I0428 20:31:26.913703  3954 net.cpp:139] Memory required for data: 29454800
I0428 20:31:26.913710  3954 layer_factory.hpp:77] Creating layer relu1
I0428 20:31:26.913717  3954 net.cpp:86] Creating Layer relu1
I0428 20:31:26.913729  3954 net.cpp:408] relu1 <- ip1
I0428 20:31:26.913735  3954 net.cpp:369] relu1 -> ip1 (in-place)
I0428 20:31:26.913907  3954 net.cpp:124] Setting up relu1
I0428 20:31:26.913916  3954 net.cpp:131] Top shape: 100 50 (5000)
I0428 20:31:26.913919  3954 net.cpp:139] Memory required for data: 29474800
I0428 20:31:26.913923  3954 layer_factory.hpp:77] Creating layer ip2
I0428 20:31:26.913930  3954 net.cpp:86] Creating Layer ip2
I0428 20:31:26.913934  3954 net.cpp:408] ip2 <- ip1
I0428 20:31:26.913938  3954 net.cpp:382] ip2 -> ip2
I0428 20:31:26.914084  3954 net.cpp:124] Setting up ip2
I0428 20:31:26.914093  3954 net.cpp:131] Top shape: 100 25 (2500)
I0428 20:31:26.914095  3954 net.cpp:139] Memory required for data: 29484800
I0428 20:31:26.914101  3954 layer_factory.hpp:77] Creating layer relu2
I0428 20:31:26.914106  3954 net.cpp:86] Creating Layer relu2
I0428 20:31:26.914109  3954 net.cpp:408] relu2 <- ip2
I0428 20:31:26.914114  3954 net.cpp:369] relu2 -> ip2 (in-place)
I0428 20:31:26.914331  3954 net.cpp:124] Setting up relu2
I0428 20:31:26.914340  3954 net.cpp:131] Top shape: 100 25 (2500)
I0428 20:31:26.914343  3954 net.cpp:139] Memory required for data: 29494800
I0428 20:31:26.914346  3954 layer_factory.hpp:77] Creating layer ip3
I0428 20:31:26.914353  3954 net.cpp:86] Creating Layer ip3
I0428 20:31:26.914356  3954 net.cpp:408] ip3 <- ip2
I0428 20:31:26.914363  3954 net.cpp:382] ip3 -> ip3
I0428 20:31:26.914479  3954 net.cpp:124] Setting up ip3
I0428 20:31:26.914489  3954 net.cpp:131] Top shape: 100 10 (1000)
I0428 20:31:26.914491  3954 net.cpp:139] Memory required for data: 29498800
I0428 20:31:26.914499  3954 layer_factory.hpp:77] Creating layer relu3
I0428 20:31:26.914505  3954 net.cpp:86] Creating Layer relu3
I0428 20:31:26.914508  3954 net.cpp:408] relu3 <- ip3
I0428 20:31:26.914512  3954 net.cpp:369] relu3 -> ip3 (in-place)
I0428 20:31:26.915362  3954 net.cpp:124] Setting up relu3
I0428 20:31:26.915374  3954 net.cpp:131] Top shape: 100 10 (1000)
I0428 20:31:26.915393  3954 net.cpp:139] Memory required for data: 29502800
I0428 20:31:26.915396  3954 layer_factory.hpp:77] Creating layer ip3_relu3_0_split
I0428 20:31:26.915416  3954 net.cpp:86] Creating Layer ip3_relu3_0_split
I0428 20:31:26.915421  3954 net.cpp:408] ip3_relu3_0_split <- ip3
I0428 20:31:26.915431  3954 net.cpp:382] ip3_relu3_0_split -> ip3_relu3_0_split_0
I0428 20:31:26.915438  3954 net.cpp:382] ip3_relu3_0_split -> ip3_relu3_0_split_1
I0428 20:31:26.915503  3954 net.cpp:124] Setting up ip3_relu3_0_split
I0428 20:31:26.915509  3954 net.cpp:131] Top shape: 100 10 (1000)
I0428 20:31:26.915513  3954 net.cpp:131] Top shape: 100 10 (1000)
I0428 20:31:26.915516  3954 net.cpp:139] Memory required for data: 29510800
I0428 20:31:26.915519  3954 layer_factory.hpp:77] Creating layer accuracy
I0428 20:31:26.915526  3954 net.cpp:86] Creating Layer accuracy
I0428 20:31:26.915529  3954 net.cpp:408] accuracy <- ip3_relu3_0_split_0
I0428 20:31:26.915534  3954 net.cpp:408] accuracy <- label_mnist_1_split_0
I0428 20:31:26.915539  3954 net.cpp:382] accuracy -> accuracy
…
