…
I0428 20:11:35.651547 32099 net.cpp:296] The NetState phase (0) differed from the phase (1) specified by a rule in layer mnist
I0428 20:11:35.651566 32099 net.cpp:296] The NetState phase (0) differed from the phase (1) specified by a rule in layer accuracy
I0428 20:11:35.651669 32099 net.cpp:53] Initializing net from parameters: 
name: "LeNet"
state {
  phase: TRAIN
  level: 0
  stage: ""
}
layer {
  name: "mnist"
  type: "Data"
  top: "data"
  top: "label"
  include {
    phase: TRAIN
  }
  transform_param {
    scale: 0.00390625
  }
  data_param {
    source: "examples/mnist/mnist_train_lmdb"
    batch_size: 64
    backend: LMDB
  }
}
layer {
  name: "conv0"
  type: "Convolution"
  bottom: "data"
  top: "conv0"
  param {
    lr_mult: 1
  }
  param {
    lr_mult: 2
  }
  convolution_param {
    num_output: 25
    kernel_size: 5
    stride: 1
    weight_filler {
      type: "xavier"
    }
    bias_filler {
      type: "constant"
    }
  }
}
layer {
  name: "pool0"
  type: "Pooling"
  bottom: "conv0"
  top: "pool0"
  pooling_param {
    pool: MAX
    kernel_size: 2
    stride: 2
  }
}
layer {
  name: "conv1"
  type: "Convolution"
  bottom: "pool0"
  top: "conv1"
  param {
    lr_mult: 1
  }
  param {
    lr_mult: 2
  }
  convolution_param {
    num_output: 50
    kernel_size: 5
    stride: 1
    weight_filler {
      type: "xavier"
    }
    bias_filler {
      type: "constant"
    }
  }
}
layer {
  name: "pool1"
  type: "Pooling"
  bottom: "conv1"
  top: "pool1"
  pooling_param {
    pool: MAX
    kernel_size: 2
    stride: 2
  }
}
layer {
  name: "ip1"
  type: "InnerProduct"
  bottom: "pool1"
  top: "ip1"
  param {
    lr_mult: 1
  }
  param {
    lr_mult: 2
  }
  inner_product_param {
    num_output: 50
    weight_filler {
      type: "xavier"
    }
    bias_filler {
      type: "constant"
    }
  }
}
layer {
  name: "relu1"
  type: "ReLU"
  bottom: "ip1"
  top: "ip1"
}
layer {
  name: "ip2"
  type: "InnerProduct"
  bottom: "ip1"
  top: "ip2"
  param {
    lr_mult: 1
  }
  param {
    lr_mult: 2
  }
  inner_product_param {
    num_output: 10
    weight_filler {
      type: "xavier"
    }
    bias_filler {
      type: "constant"
    }
  }
}
layer {
  name: "relu2"
  type: "ReLU"
  bottom: "ip2"
  top: "ip2"
}
layer {
  name: "ip3"
  type: "InnerProduct"
  bottom: "ip2"
  top: "ip3"
  param {
    lr_mult: 1
  }
  param {
    lr_mult: 2
  }
  inner_product_param {
    num_output: 10
    weight_filler {
      type: "xavier"
    }
    bias_filler {
      type: "constant"
    }
  }
}
layer {
  name: "relu3"
  type: "ReLU"
  bottom: "ip3"
  top: "ip3"
}
layer {
  name: "loss"
  type: "SoftmaxWithLoss"
  bottom: "ip3"
  bottom: "label"
  top: "loss"
}
I0428 20:11:35.651751 32099 layer_factory.hpp:77] Creating layer mnist
I0428 20:11:35.651847 32099 db_lmdb.cpp:35] Opened lmdb examples/mnist/mnist_train_lmdb
I0428 20:11:35.651870 32099 net.cpp:86] Creating Layer mnist
I0428 20:11:35.651880 32099 net.cpp:382] mnist -> data
I0428 20:11:35.651902 32099 net.cpp:382] mnist -> label
I0428 20:11:35.652994 32099 data_layer.cpp:45] output data size: 64,1,28,28
I0428 20:11:35.655439 32099 net.cpp:124] Setting up mnist
I0428 20:11:35.655457 32099 net.cpp:131] Top shape: 64 1 28 28 (50176)
I0428 20:11:35.655462 32099 net.cpp:131] Top shape: 64 (64)
I0428 20:11:35.655465 32099 net.cpp:139] Memory required for data: 200960
I0428 20:11:35.655473 32099 layer_factory.hpp:77] Creating layer conv0
I0428 20:11:35.655505 32099 net.cpp:86] Creating Layer conv0
I0428 20:11:35.655535 32099 net.cpp:408] conv0 <- data
I0428 20:11:35.655550 32099 net.cpp:382] conv0 -> conv0
I0428 20:11:35.947674 32099 net.cpp:124] Setting up conv0
I0428 20:11:35.947705 32099 net.cpp:131] Top shape: 64 25 24 24 (921600)
I0428 20:11:35.947722 32099 net.cpp:139] Memory required for data: 3887360
I0428 20:11:35.947741 32099 layer_factory.hpp:77] Creating layer pool0
I0428 20:11:35.947754 32099 net.cpp:86] Creating Layer pool0
I0428 20:11:35.947759 32099 net.cpp:408] pool0 <- conv0
I0428 20:11:35.947767 32099 net.cpp:382] pool0 -> pool0
I0428 20:11:35.947818 32099 net.cpp:124] Setting up pool0
I0428 20:11:35.947827 32099 net.cpp:131] Top shape: 64 25 12 12 (230400)
I0428 20:11:35.947831 32099 net.cpp:139] Memory required for data: 4808960
I0428 20:11:35.947835 32099 layer_factory.hpp:77] Creating layer conv1
I0428 20:11:35.947847 32099 net.cpp:86] Creating Layer conv1
I0428 20:11:35.947854 32099 net.cpp:408] conv1 <- pool0
I0428 20:11:35.947860 32099 net.cpp:382] conv1 -> conv1
I0428 20:11:35.950204 32099 net.cpp:124] Setting up conv1
I0428 20:11:35.950222 32099 net.cpp:131] Top shape: 64 50 8 8 (204800)
I0428 20:11:35.950227 32099 net.cpp:139] Memory required for data: 5628160
I0428 20:11:35.950238 32099 layer_factory.hpp:77] Creating layer pool1
I0428 20:11:35.950248 32099 net.cpp:86] Creating Layer pool1
I0428 20:11:35.950255 32099 net.cpp:408] pool1 <- conv1
I0428 20:11:35.950261 32099 net.cpp:382] pool1 -> pool1
I0428 20:11:35.950306 32099 net.cpp:124] Setting up pool1
I0428 20:11:35.950314 32099 net.cpp:131] Top shape: 64 50 4 4 (51200)
I0428 20:11:35.950318 32099 net.cpp:139] Memory required for data: 5832960
I0428 20:11:35.950321 32099 layer_factory.hpp:77] Creating layer ip1
I0428 20:11:35.950330 32099 net.cpp:86] Creating Layer ip1
I0428 20:11:35.950335 32099 net.cpp:408] ip1 <- pool1
I0428 20:11:35.950340 32099 net.cpp:382] ip1 -> ip1
I0428 20:11:35.950731 32099 net.cpp:124] Setting up ip1
I0428 20:11:35.950739 32099 net.cpp:131] Top shape: 64 50 (3200)
I0428 20:11:35.950743 32099 net.cpp:139] Memory required for data: 5845760
I0428 20:11:35.950752 32099 layer_factory.hpp:77] Creating layer relu1
I0428 20:11:35.950762 32099 net.cpp:86] Creating Layer relu1
I0428 20:11:35.950765 32099 net.cpp:408] relu1 <- ip1
I0428 20:11:35.950770 32099 net.cpp:369] relu1 -> ip1 (in-place)
I0428 20:11:35.950970 32099 net.cpp:124] Setting up relu1
I0428 20:11:35.950980 32099 net.cpp:131] Top shape: 64 50 (3200)
I0428 20:11:35.950984 32099 net.cpp:139] Memory required for data: 5858560
I0428 20:11:35.950989 32099 layer_factory.hpp:77] Creating layer ip2
I0428 20:11:35.950995 32099 net.cpp:86] Creating Layer ip2
I0428 20:11:35.950999 32099 net.cpp:408] ip2 <- ip1
I0428 20:11:35.951005 32099 net.cpp:382] ip2 -> ip2
I0428 20:11:35.951118 32099 net.cpp:124] Setting up ip2
I0428 20:11:35.951126 32099 net.cpp:131] Top shape: 64 10 (640)
I0428 20:11:35.951130 32099 net.cpp:139] Memory required for data: 5861120
I0428 20:11:35.951136 32099 layer_factory.hpp:77] Creating layer relu2
I0428 20:11:35.951143 32099 net.cpp:86] Creating Layer relu2
I0428 20:11:35.951148 32099 net.cpp:408] relu2 <- ip2
I0428 20:11:35.951153 32099 net.cpp:369] relu2 -> ip2 (in-place)
I0428 20:11:35.951994 32099 net.cpp:124] Setting up relu2
I0428 20:11:35.952008 32099 net.cpp:131] Top shape: 64 10 (640)
I0428 20:11:35.952014 32099 net.cpp:139] Memory required for data: 5863680
I0428 20:11:35.952018 32099 layer_factory.hpp:77] Creating layer ip3
I0428 20:11:35.952026 32099 net.cpp:86] Creating Layer ip3
I0428 20:11:35.952030 32099 net.cpp:408] ip3 <- ip2
I0428 20:11:35.952038 32099 net.cpp:382] ip3 -> ip3
I0428 20:11:35.952155 32099 net.cpp:124] Setting up ip3
I0428 20:11:35.952164 32099 net.cpp:131] Top shape: 64 10 (640)
I0428 20:11:35.952167 32099 net.cpp:139] Memory required for data: 5866240
I0428 20:11:35.952178 32099 layer_factory.hpp:77] Creating layer relu3
I0428 20:11:35.952184 32099 net.cpp:86] Creating Layer relu3
I0428 20:11:35.952188 32099 net.cpp:408] relu3 <- ip3
I0428 20:11:35.952194 32099 net.cpp:369] relu3 -> ip3 (in-place)
I0428 20:11:35.952394 32099 net.cpp:124] Setting up relu3
I0428 20:11:35.952404 32099 net.cpp:131] Top shape: 64 10 (640)
I0428 20:11:35.952407 32099 net.cpp:139] Memory required for data: 5868800
I0428 20:11:35.952411 32099 layer_factory.hpp:77] Creating layer loss
I0428 20:11:35.952419 32099 net.cpp:86] Creating Layer loss
I0428 20:11:35.952422 32099 net.cpp:408] loss <- ip3
I0428 20:11:35.952427 32099 net.cpp:408] loss <- label
I0428 20:11:35.952433 32099 net.cpp:382] loss -> loss
I0428 20:11:35.952455 32099 layer_factory.hpp:77] Creating layer loss
…
I0428 20:11:35.953258 32099 solver.cpp:173] Creating test net (#0) specified by net file: ECE595/mnist/train_test/var_everything2/lenet_train_test1162.prototxt
I0428 20:11:35.953289 32099 net.cpp:296] The NetState phase (1) differed from the phase (0) specified by a rule in layer mnist
I0428 20:11:35.953398 32099 net.cpp:53] Initializing net from parameters: 
name: "LeNet"
state {
  phase: TEST
}
layer {
  name: "mnist"
  type: "Data"
  top: "data"
  top: "label"
  include {
    phase: TEST
  }
  transform_param {
    scale: 0.00390625
  }
  data_param {
    source: "examples/mnist/mnist_test_lmdb"
    batch_size: 100
    backend: LMDB
  }
}
layer {
  name: "conv0"
  type: "Convolution"
  bottom: "data"
  top: "conv0"
  param {
    lr_mult: 1
  }
  param {
    lr_mult: 2
  }
  convolution_param {
    num_output: 25
    kernel_size: 5
    stride: 1
    weight_filler {
      type: "xavier"
    }
    bias_filler {
      type: "constant"
    }
  }
}
layer {
  name: "pool0"
  type: "Pooling"
  bottom: "conv0"
  top: "pool0"
  pooling_param {
    pool: MAX
    kernel_size: 2
    stride: 2
  }
}
layer {
  name: "conv1"
  type: "Convolution"
  bottom: "pool0"
  top: "conv1"
  param {
    lr_mult: 1
  }
  param {
    lr_mult: 2
  }
  convolution_param {
    num_output: 50
    kernel_size: 5
    stride: 1
    weight_filler {
      type: "xavier"
    }
    bias_filler {
      type: "constant"
    }
  }
}
layer {
  name: "pool1"
  type: "Pooling"
  bottom: "conv1"
  top: "pool1"
  pooling_param {
    pool: MAX
    kernel_size: 2
    stride: 2
  }
}
layer {
  name: "ip1"
  type: "InnerProduct"
  bottom: "pool1"
  top: "ip1"
  param {
    lr_mult: 1
  }
  param {
    lr_mult: 2
  }
  inner_product_param {
    num_output: 50
    weight_filler {
      type: "xavier"
    }
    bias_filler {
      type: "constant"
    }
  }
}
layer {
  name: "relu1"
  type: "ReLU"
  bottom: "ip1"
  top: "ip1"
}
layer {
  name: "ip2"
  type: "InnerProduct"
  bottom: "ip1"
  top: "ip2"
  param {
    lr_mult: 1
  }
  param {
    lr_mult: 2
  }
  inner_product_param {
    num_output: 10
    weight_filler {
      type: "xavier"
    }
    bias_filler {
      type: "constant"
    }
  }
}
layer {
  name: "relu2"
  type: "ReLU"
  bottom: "ip2"
  top: "ip2"
}
layer {
  name: "ip3"
  type: "InnerProduct"
  bottom: "ip2"
  top: "ip3"
  param {
    lr_mult: 1
  }
  param {
    lr_mult: 2
  }
  inner_product_param {
    num_output: 10
    weight_filler {
      type: "xavier"
    }
    bias_filler {
      type: "constant"
    }
  }
}
layer {
  name: "relu3"
  type: "ReLU"
  bottom: "ip3"
  top: "ip3"
}
layer {
  name: "accuracy"
  type: "Accuracy"
  bottom: "ip3"
  bottom: "label"
  top: "accuracy"
  include {
    phase: TEST
  }
}
layer {
  name: "loss"
  type: "SoftmaxWithLoss"
  bottom: "ip3"
  bottom: "label"
  top: "loss"
}
I0428 20:11:35.953493 32099 layer_factory.hpp:77] Creating layer mnist
I0428 20:11:35.953546 32099 db_lmdb.cpp:35] Opened lmdb examples/mnist/mnist_test_lmdb
I0428 20:11:35.953560 32099 net.cpp:86] Creating Layer mnist
I0428 20:11:35.953565 32099 net.cpp:382] mnist -> data
I0428 20:11:35.953575 32099 net.cpp:382] mnist -> label
I0428 20:11:35.953673 32099 data_layer.cpp:45] output data size: 100,1,28,28
I0428 20:11:35.956075 32099 net.cpp:124] Setting up mnist
I0428 20:11:35.956091 32099 net.cpp:131] Top shape: 100 1 28 28 (78400)
I0428 20:11:35.956097 32099 net.cpp:131] Top shape: 100 (100)
I0428 20:11:35.956101 32099 net.cpp:139] Memory required for data: 314000
I0428 20:11:35.956106 32099 layer_factory.hpp:77] Creating layer label_mnist_1_split
I0428 20:11:35.956115 32099 net.cpp:86] Creating Layer label_mnist_1_split
I0428 20:11:35.956118 32099 net.cpp:408] label_mnist_1_split <- label
I0428 20:11:35.956125 32099 net.cpp:382] label_mnist_1_split -> label_mnist_1_split_0
I0428 20:11:35.956132 32099 net.cpp:382] label_mnist_1_split -> label_mnist_1_split_1
I0428 20:11:35.956189 32099 net.cpp:124] Setting up label_mnist_1_split
I0428 20:11:35.956197 32099 net.cpp:131] Top shape: 100 (100)
I0428 20:11:35.956202 32099 net.cpp:131] Top shape: 100 (100)
I0428 20:11:35.956205 32099 net.cpp:139] Memory required for data: 314800
I0428 20:11:35.956209 32099 layer_factory.hpp:77] Creating layer conv0
I0428 20:11:35.956219 32099 net.cpp:86] Creating Layer conv0
I0428 20:11:35.956223 32099 net.cpp:408] conv0 <- data
I0428 20:11:35.956228 32099 net.cpp:382] conv0 -> conv0
I0428 20:11:35.958166 32099 net.cpp:124] Setting up conv0
I0428 20:11:35.958185 32099 net.cpp:131] Top shape: 100 25 24 24 (1440000)
I0428 20:11:35.958189 32099 net.cpp:139] Memory required for data: 6074800
I0428 20:11:35.958201 32099 layer_factory.hpp:77] Creating layer pool0
I0428 20:11:35.958209 32099 net.cpp:86] Creating Layer pool0
I0428 20:11:35.958214 32099 net.cpp:408] pool0 <- conv0
I0428 20:11:35.958220 32099 net.cpp:382] pool0 -> pool0
I0428 20:11:35.958264 32099 net.cpp:124] Setting up pool0
I0428 20:11:35.958276 32099 net.cpp:131] Top shape: 100 25 12 12 (360000)
I0428 20:11:35.958279 32099 net.cpp:139] Memory required for data: 7514800
I0428 20:11:35.958282 32099 layer_factory.hpp:77] Creating layer conv1
I0428 20:11:35.958293 32099 net.cpp:86] Creating Layer conv1
I0428 20:11:35.958297 32099 net.cpp:408] conv1 <- pool0
I0428 20:11:35.958303 32099 net.cpp:382] conv1 -> conv1
I0428 20:11:35.960276 32099 net.cpp:124] Setting up conv1
I0428 20:11:35.960296 32099 net.cpp:131] Top shape: 100 50 8 8 (320000)
I0428 20:11:35.960301 32099 net.cpp:139] Memory required for data: 8794800
I0428 20:11:35.960312 32099 layer_factory.hpp:77] Creating layer pool1
I0428 20:11:35.960321 32099 net.cpp:86] Creating Layer pool1
I0428 20:11:35.960325 32099 net.cpp:408] pool1 <- conv1
I0428 20:11:35.960331 32099 net.cpp:382] pool1 -> pool1
I0428 20:11:35.960376 32099 net.cpp:124] Setting up pool1
I0428 20:11:35.960386 32099 net.cpp:131] Top shape: 100 50 4 4 (80000)
I0428 20:11:35.960388 32099 net.cpp:139] Memory required for data: 9114800
I0428 20:11:35.960392 32099 layer_factory.hpp:77] Creating layer ip1
I0428 20:11:35.960402 32099 net.cpp:86] Creating Layer ip1
I0428 20:11:35.960407 32099 net.cpp:408] ip1 <- pool1
I0428 20:11:35.960412 32099 net.cpp:382] ip1 -> ip1
I0428 20:11:35.960851 32099 net.cpp:124] Setting up ip1
I0428 20:11:35.960862 32099 net.cpp:131] Top shape: 100 50 (5000)
I0428 20:11:35.960886 32099 net.cpp:139] Memory required for data: 9134800
I0428 20:11:35.960896 32099 layer_factory.hpp:77] Creating layer relu1
I0428 20:11:35.960903 32099 net.cpp:86] Creating Layer relu1
I0428 20:11:35.960908 32099 net.cpp:408] relu1 <- ip1
I0428 20:11:35.960914 32099 net.cpp:369] relu1 -> ip1 (in-place)
I0428 20:11:35.961127 32099 net.cpp:124] Setting up relu1
I0428 20:11:35.961138 32099 net.cpp:131] Top shape: 100 50 (5000)
I0428 20:11:35.961141 32099 net.cpp:139] Memory required for data: 9154800
I0428 20:11:35.961145 32099 layer_factory.hpp:77] Creating layer ip2
I0428 20:11:35.961155 32099 net.cpp:86] Creating Layer ip2
I0428 20:11:35.961159 32099 net.cpp:408] ip2 <- ip1
I0428 20:11:35.961166 32099 net.cpp:382] ip2 -> ip2
I0428 20:11:35.961293 32099 net.cpp:124] Setting up ip2
I0428 20:11:35.961302 32099 net.cpp:131] Top shape: 100 10 (1000)
I0428 20:11:35.961305 32099 net.cpp:139] Memory required for data: 9158800
I0428 20:11:35.961313 32099 layer_factory.hpp:77] Creating layer relu2
I0428 20:11:35.961319 32099 net.cpp:86] Creating Layer relu2
I0428 20:11:35.961323 32099 net.cpp:408] relu2 <- ip2
I0428 20:11:35.961328 32099 net.cpp:369] relu2 -> ip2 (in-place)
I0428 20:11:35.961521 32099 net.cpp:124] Setting up relu2
I0428 20:11:35.961532 32099 net.cpp:131] Top shape: 100 10 (1000)
I0428 20:11:35.961535 32099 net.cpp:139] Memory required for data: 9162800
I0428 20:11:35.961540 32099 layer_factory.hpp:77] Creating layer ip3
I0428 20:11:35.961546 32099 net.cpp:86] Creating Layer ip3
I0428 20:11:35.961550 32099 net.cpp:408] ip3 <- ip2
I0428 20:11:35.961557 32099 net.cpp:382] ip3 -> ip3
I0428 20:11:35.961675 32099 net.cpp:124] Setting up ip3
I0428 20:11:35.961684 32099 net.cpp:131] Top shape: 100 10 (1000)
I0428 20:11:35.961688 32099 net.cpp:139] Memory required for data: 9166800
I0428 20:11:35.961697 32099 layer_factory.hpp:77] Creating layer relu3
I0428 20:11:35.961704 32099 net.cpp:86] Creating Layer relu3
I0428 20:11:35.961706 32099 net.cpp:408] relu3 <- ip3
I0428 20:11:35.961714 32099 net.cpp:369] relu3 -> ip3 (in-place)
I0428 20:11:35.962642 32099 net.cpp:124] Setting up relu3
I0428 20:11:35.962657 32099 net.cpp:131] Top shape: 100 10 (1000)
I0428 20:11:35.962661 32099 net.cpp:139] Memory required for data: 9170800
I0428 20:11:35.962666 32099 layer_factory.hpp:77] Creating layer ip3_relu3_0_split
I0428 20:11:35.962672 32099 net.cpp:86] Creating Layer ip3_relu3_0_split
I0428 20:11:35.962677 32099 net.cpp:408] ip3_relu3_0_split <- ip3
I0428 20:11:35.962683 32099 net.cpp:382] ip3_relu3_0_split -> ip3_relu3_0_split_0
I0428 20:11:35.962690 32099 net.cpp:382] ip3_relu3_0_split -> ip3_relu3_0_split_1
I0428 20:11:35.962744 32099 net.cpp:124] Setting up ip3_relu3_0_split
I0428 20:11:35.962754 32099 net.cpp:131] Top shape: 100 10 (1000)
I0428 20:11:35.962759 32099 net.cpp:131] Top shape: 100 10 (1000)
I0428 20:11:35.962761 32099 net.cpp:139] Memory required for data: 9178800
I0428 20:11:35.962765 32099 layer_factory.hpp:77] Creating layer accuracy
I0428 20:11:35.962772 32099 net.cpp:86] Creating Layer accuracy
I0428 20:11:35.962776 32099 net.cpp:408] accuracy <- ip3_relu3_0_split_0
I0428 20:11:35.962781 32099 net.cpp:408] accuracy <- label_mnist_1_split_0
I0428 20:11:35.962788 32099 net.cpp:382] accuracy -> accuracy
…
