…
I0428 20:05:59.746306 30767 net.cpp:296] The NetState phase (0) differed from the phase (1) specified by a rule in layer mnist
I0428 20:05:59.746318 30767 net.cpp:296] The NetState phase (0) differed from the phase (1) specified by a rule in layer accuracy
I0428 20:05:59.746397 30767 net.cpp:53] Initializing net from parameters: 
name: "LeNet"
state {
  phase: TRAIN
  level: 0
  stage: ""
}
layer {
  name: "mnist"
  type: "Data"
  top: "data"
  top: "label"
  include {
    phase: TRAIN
  }
  transform_param {
    scale: 0.00390625
  }
  data_param {
    source: "examples/mnist/mnist_train_lmdb"
    batch_size: 64
    backend: LMDB
  }
}
layer {
  name: "conv0"
  type: "Convolution"
  bottom: "data"
  top: "conv0"
  param {
    lr_mult: 1
  }
  param {
    lr_mult: 2
  }
  convolution_param {
    num_output: 25
    kernel_size: 5
    stride: 1
    weight_filler {
      type: "xavier"
    }
    bias_filler {
      type: "constant"
    }
  }
}
layer {
  name: "pool0"
  type: "Pooling"
  bottom: "conv0"
  top: "pool0"
  pooling_param {
    pool: MAX
    kernel_size: 2
    stride: 2
  }
}
layer {
  name: "conv1"
  type: "Convolution"
  bottom: "pool0"
  top: "conv1"
  param {
    lr_mult: 1
  }
  param {
    lr_mult: 2
  }
  convolution_param {
    num_output: 5
    kernel_size: 5
    stride: 1
    weight_filler {
      type: "xavier"
    }
    bias_filler {
      type: "constant"
    }
  }
}
layer {
  name: "pool1"
  type: "Pooling"
  bottom: "conv1"
  top: "pool1"
  pooling_param {
    pool: MAX
    kernel_size: 2
    stride: 2
  }
}
layer {
  name: "ip1"
  type: "InnerProduct"
  bottom: "pool1"
  top: "ip1"
  param {
    lr_mult: 1
  }
  param {
    lr_mult: 2
  }
  inner_product_param {
    num_output: 10
    weight_filler {
      type: "xavier"
    }
    bias_filler {
      type: "constant"
    }
  }
}
layer {
  name: "relu1"
  type: "ReLU"
  bottom: "ip1"
  top: "ip1"
}
layer {
  name: "loss"
  type: "SoftmaxWithLoss"
  bottom: "ip1"
  bottom: "label"
  top: "loss"
}
I0428 20:05:59.746449 30767 layer_factory.hpp:77] Creating layer mnist
I0428 20:05:59.746531 30767 db_lmdb.cpp:35] Opened lmdb examples/mnist/mnist_train_lmdb
I0428 20:05:59.746552 30767 net.cpp:86] Creating Layer mnist
I0428 20:05:59.746561 30767 net.cpp:382] mnist -> data
I0428 20:05:59.746579 30767 net.cpp:382] mnist -> label
I0428 20:05:59.747576 30767 data_layer.cpp:45] output data size: 64,1,28,28
I0428 20:05:59.749800 30767 net.cpp:124] Setting up mnist
I0428 20:05:59.749831 30767 net.cpp:131] Top shape: 64 1 28 28 (50176)
I0428 20:05:59.749852 30767 net.cpp:131] Top shape: 64 (64)
I0428 20:05:59.749856 30767 net.cpp:139] Memory required for data: 200960
I0428 20:05:59.749862 30767 layer_factory.hpp:77] Creating layer conv0
I0428 20:05:59.749876 30767 net.cpp:86] Creating Layer conv0
I0428 20:05:59.749881 30767 net.cpp:408] conv0 <- data
I0428 20:05:59.749891 30767 net.cpp:382] conv0 -> conv0
I0428 20:05:59.980443 30767 net.cpp:124] Setting up conv0
I0428 20:05:59.980469 30767 net.cpp:131] Top shape: 64 25 24 24 (921600)
I0428 20:05:59.980473 30767 net.cpp:139] Memory required for data: 3887360
I0428 20:05:59.980489 30767 layer_factory.hpp:77] Creating layer pool0
I0428 20:05:59.980502 30767 net.cpp:86] Creating Layer pool0
I0428 20:05:59.980506 30767 net.cpp:408] pool0 <- conv0
I0428 20:05:59.980511 30767 net.cpp:382] pool0 -> pool0
I0428 20:05:59.980587 30767 net.cpp:124] Setting up pool0
I0428 20:05:59.980593 30767 net.cpp:131] Top shape: 64 25 12 12 (230400)
I0428 20:05:59.980620 30767 net.cpp:139] Memory required for data: 4808960
I0428 20:05:59.980623 30767 layer_factory.hpp:77] Creating layer conv1
I0428 20:05:59.980633 30767 net.cpp:86] Creating Layer conv1
I0428 20:05:59.980636 30767 net.cpp:408] conv1 <- pool0
I0428 20:05:59.980643 30767 net.cpp:382] conv1 -> conv1
I0428 20:05:59.983470 30767 net.cpp:124] Setting up conv1
I0428 20:05:59.983500 30767 net.cpp:131] Top shape: 64 5 8 8 (20480)
I0428 20:05:59.983505 30767 net.cpp:139] Memory required for data: 4890880
I0428 20:05:59.983512 30767 layer_factory.hpp:77] Creating layer pool1
I0428 20:05:59.983520 30767 net.cpp:86] Creating Layer pool1
I0428 20:05:59.983523 30767 net.cpp:408] pool1 <- conv1
I0428 20:05:59.983528 30767 net.cpp:382] pool1 -> pool1
I0428 20:05:59.983593 30767 net.cpp:124] Setting up pool1
I0428 20:05:59.983598 30767 net.cpp:131] Top shape: 64 5 4 4 (5120)
I0428 20:05:59.983602 30767 net.cpp:139] Memory required for data: 4911360
I0428 20:05:59.983604 30767 layer_factory.hpp:77] Creating layer ip1
I0428 20:05:59.983610 30767 net.cpp:86] Creating Layer ip1
I0428 20:05:59.983613 30767 net.cpp:408] ip1 <- pool1
I0428 20:05:59.983618 30767 net.cpp:382] ip1 -> ip1
I0428 20:05:59.983716 30767 net.cpp:124] Setting up ip1
I0428 20:05:59.983722 30767 net.cpp:131] Top shape: 64 10 (640)
I0428 20:05:59.983726 30767 net.cpp:139] Memory required for data: 4913920
I0428 20:05:59.983732 30767 layer_factory.hpp:77] Creating layer relu1
I0428 20:05:59.983738 30767 net.cpp:86] Creating Layer relu1
I0428 20:05:59.983741 30767 net.cpp:408] relu1 <- ip1
I0428 20:05:59.983745 30767 net.cpp:369] relu1 -> ip1 (in-place)
I0428 20:05:59.983922 30767 net.cpp:124] Setting up relu1
I0428 20:05:59.983932 30767 net.cpp:131] Top shape: 64 10 (640)
I0428 20:05:59.983934 30767 net.cpp:139] Memory required for data: 4916480
I0428 20:05:59.983937 30767 layer_factory.hpp:77] Creating layer loss
I0428 20:05:59.983942 30767 net.cpp:86] Creating Layer loss
I0428 20:05:59.983945 30767 net.cpp:408] loss <- ip1
I0428 20:05:59.983949 30767 net.cpp:408] loss <- label
I0428 20:05:59.983954 30767 net.cpp:382] loss -> loss
I0428 20:05:59.983968 30767 layer_factory.hpp:77] Creating layer loss
…
I0428 20:05:59.985234 30767 solver.cpp:173] Creating test net (#0) specified by net file: ECE595/mnist/train_test/var_everything2/lenet_train_test1015.prototxt
I0428 20:05:59.985258 30767 net.cpp:296] The NetState phase (1) differed from the phase (0) specified by a rule in layer mnist
I0428 20:05:59.985360 30767 net.cpp:53] Initializing net from parameters: 
name: "LeNet"
state {
  phase: TEST
}
layer {
  name: "mnist"
  type: "Data"
  top: "data"
  top: "label"
  include {
    phase: TEST
  }
  transform_param {
    scale: 0.00390625
  }
  data_param {
    source: "examples/mnist/mnist_test_lmdb"
    batch_size: 100
    backend: LMDB
  }
}
layer {
  name: "conv0"
  type: "Convolution"
  bottom: "data"
  top: "conv0"
  param {
    lr_mult: 1
  }
  param {
    lr_mult: 2
  }
  convolution_param {
    num_output: 25
    kernel_size: 5
    stride: 1
    weight_filler {
      type: "xavier"
    }
    bias_filler {
      type: "constant"
    }
  }
}
layer {
  name: "pool0"
  type: "Pooling"
  bottom: "conv0"
  top: "pool0"
  pooling_param {
    pool: MAX
    kernel_size: 2
    stride: 2
  }
}
layer {
  name: "conv1"
  type: "Convolution"
  bottom: "pool0"
  top: "conv1"
  param {
    lr_mult: 1
  }
  param {
    lr_mult: 2
  }
  convolution_param {
    num_output: 5
    kernel_size: 5
    stride: 1
    weight_filler {
      type: "xavier"
    }
    bias_filler {
      type: "constant"
    }
  }
}
layer {
  name: "pool1"
  type: "Pooling"
  bottom: "conv1"
  top: "pool1"
  pooling_param {
    pool: MAX
    kernel_size: 2
    stride: 2
  }
}
layer {
  name: "ip1"
  type: "InnerProduct"
  bottom: "pool1"
  top: "ip1"
  param {
    lr_mult: 1
  }
  param {
    lr_mult: 2
  }
  inner_product_param {
    num_output: 10
    weight_filler {
      type: "xavier"
    }
    bias_filler {
      type: "constant"
    }
  }
}
layer {
  name: "relu1"
  type: "ReLU"
  bottom: "ip1"
  top: "ip1"
}
layer {
  name: "accuracy"
  type: "Accuracy"
  bottom: "ip1"
  bottom: "label"
  top: "accuracy"
  include {
    phase: TEST
  }
}
layer {
  name: "loss"
  type: "SoftmaxWithLoss"
  bottom: "ip1"
  bottom: "label"
  top: "loss"
}
I0428 20:05:59.985426 30767 layer_factory.hpp:77] Creating layer mnist
I0428 20:05:59.985468 30767 db_lmdb.cpp:35] Opened lmdb examples/mnist/mnist_test_lmdb
I0428 20:05:59.985481 30767 net.cpp:86] Creating Layer mnist
I0428 20:05:59.985484 30767 net.cpp:382] mnist -> data
I0428 20:05:59.985491 30767 net.cpp:382] mnist -> label
I0428 20:05:59.985570 30767 data_layer.cpp:45] output data size: 100,1,28,28
I0428 20:05:59.987803 30767 net.cpp:124] Setting up mnist
I0428 20:05:59.987833 30767 net.cpp:131] Top shape: 100 1 28 28 (78400)
I0428 20:05:59.987838 30767 net.cpp:131] Top shape: 100 (100)
I0428 20:05:59.987840 30767 net.cpp:139] Memory required for data: 314000
I0428 20:05:59.987844 30767 layer_factory.hpp:77] Creating layer label_mnist_1_split
I0428 20:05:59.987850 30767 net.cpp:86] Creating Layer label_mnist_1_split
I0428 20:05:59.987854 30767 net.cpp:408] label_mnist_1_split <- label
I0428 20:05:59.987859 30767 net.cpp:382] label_mnist_1_split -> label_mnist_1_split_0
I0428 20:05:59.987864 30767 net.cpp:382] label_mnist_1_split -> label_mnist_1_split_1
I0428 20:05:59.987962 30767 net.cpp:124] Setting up label_mnist_1_split
I0428 20:05:59.987970 30767 net.cpp:131] Top shape: 100 (100)
I0428 20:05:59.987974 30767 net.cpp:131] Top shape: 100 (100)
I0428 20:05:59.987977 30767 net.cpp:139] Memory required for data: 314800
I0428 20:05:59.987979 30767 layer_factory.hpp:77] Creating layer conv0
I0428 20:05:59.987987 30767 net.cpp:86] Creating Layer conv0
I0428 20:05:59.987990 30767 net.cpp:408] conv0 <- data
I0428 20:05:59.987995 30767 net.cpp:382] conv0 -> conv0
I0428 20:05:59.988726 30767 net.cpp:124] Setting up conv0
I0428 20:05:59.988737 30767 net.cpp:131] Top shape: 100 25 24 24 (1440000)
I0428 20:05:59.988756 30767 net.cpp:139] Memory required for data: 6074800
I0428 20:05:59.988765 30767 layer_factory.hpp:77] Creating layer pool0
I0428 20:05:59.988770 30767 net.cpp:86] Creating Layer pool0
I0428 20:05:59.988773 30767 net.cpp:408] pool0 <- conv0
I0428 20:05:59.988777 30767 net.cpp:382] pool0 -> pool0
I0428 20:05:59.988831 30767 net.cpp:124] Setting up pool0
I0428 20:05:59.988837 30767 net.cpp:131] Top shape: 100 25 12 12 (360000)
I0428 20:05:59.988840 30767 net.cpp:139] Memory required for data: 7514800
I0428 20:05:59.988843 30767 layer_factory.hpp:77] Creating layer conv1
I0428 20:05:59.988850 30767 net.cpp:86] Creating Layer conv1
I0428 20:05:59.988853 30767 net.cpp:408] conv1 <- pool0
I0428 20:05:59.988858 30767 net.cpp:382] conv1 -> conv1
I0428 20:05:59.991039 30767 net.cpp:124] Setting up conv1
I0428 20:05:59.991065 30767 net.cpp:131] Top shape: 100 5 8 8 (32000)
I0428 20:05:59.991070 30767 net.cpp:139] Memory required for data: 7642800
I0428 20:05:59.991077 30767 layer_factory.hpp:77] Creating layer pool1
I0428 20:05:59.991083 30767 net.cpp:86] Creating Layer pool1
I0428 20:05:59.991096 30767 net.cpp:408] pool1 <- conv1
I0428 20:05:59.991101 30767 net.cpp:382] pool1 -> pool1
I0428 20:05:59.991163 30767 net.cpp:124] Setting up pool1
I0428 20:05:59.991178 30767 net.cpp:131] Top shape: 100 5 4 4 (8000)
I0428 20:05:59.991180 30767 net.cpp:139] Memory required for data: 7674800
I0428 20:05:59.991183 30767 layer_factory.hpp:77] Creating layer ip1
I0428 20:05:59.991189 30767 net.cpp:86] Creating Layer ip1
I0428 20:05:59.991191 30767 net.cpp:408] ip1 <- pool1
I0428 20:05:59.991196 30767 net.cpp:382] ip1 -> ip1
I0428 20:05:59.991319 30767 net.cpp:124] Setting up ip1
I0428 20:05:59.991327 30767 net.cpp:131] Top shape: 100 10 (1000)
I0428 20:05:59.991329 30767 net.cpp:139] Memory required for data: 7678800
I0428 20:05:59.991341 30767 layer_factory.hpp:77] Creating layer relu1
I0428 20:05:59.991346 30767 net.cpp:86] Creating Layer relu1
I0428 20:05:59.991349 30767 net.cpp:408] relu1 <- ip1
I0428 20:05:59.991354 30767 net.cpp:369] relu1 -> ip1 (in-place)
I0428 20:05:59.992153 30767 net.cpp:124] Setting up relu1
I0428 20:05:59.992164 30767 net.cpp:131] Top shape: 100 10 (1000)
I0428 20:05:59.992183 30767 net.cpp:139] Memory required for data: 7682800
I0428 20:05:59.992187 30767 layer_factory.hpp:77] Creating layer ip1_relu1_0_split
I0428 20:05:59.992194 30767 net.cpp:86] Creating Layer ip1_relu1_0_split
I0428 20:05:59.992197 30767 net.cpp:408] ip1_relu1_0_split <- ip1
I0428 20:05:59.992204 30767 net.cpp:382] ip1_relu1_0_split -> ip1_relu1_0_split_0
I0428 20:05:59.992210 30767 net.cpp:382] ip1_relu1_0_split -> ip1_relu1_0_split_1
I0428 20:05:59.992262 30767 net.cpp:124] Setting up ip1_relu1_0_split
I0428 20:05:59.992269 30767 net.cpp:131] Top shape: 100 10 (1000)
I0428 20:05:59.992272 30767 net.cpp:131] Top shape: 100 10 (1000)
I0428 20:05:59.992275 30767 net.cpp:139] Memory required for data: 7690800
I0428 20:05:59.992278 30767 layer_factory.hpp:77] Creating layer accuracy
I0428 20:05:59.992283 30767 net.cpp:86] Creating Layer accuracy
I0428 20:05:59.992286 30767 net.cpp:408] accuracy <- ip1_relu1_0_split_0
I0428 20:05:59.992290 30767 net.cpp:408] accuracy <- label_mnist_1_split_0
I0428 20:05:59.992295 30767 net.cpp:382] accuracy -> accuracy
…
