…
I0428 19:38:39.544522 24071 net.cpp:296] The NetState phase (0) differed from the phase (1) specified by a rule in layer mnist
I0428 19:38:39.544535 24071 net.cpp:296] The NetState phase (0) differed from the phase (1) specified by a rule in layer accuracy
I0428 19:38:39.544608 24071 net.cpp:53] Initializing net from parameters: 
name: "LeNet"
state {
  phase: TRAIN
  level: 0
  stage: ""
}
layer {
  name: "mnist"
  type: "Data"
  top: "data"
  top: "label"
  include {
    phase: TRAIN
  }
  transform_param {
    scale: 0.00390625
  }
  data_param {
    source: "examples/mnist/mnist_train_lmdb"
    batch_size: 64
    backend: LMDB
  }
}
layer {
  name: "conv0"
  type: "Convolution"
  bottom: "data"
  top: "conv0"
  param {
    lr_mult: 1
  }
  param {
    lr_mult: 2
  }
  convolution_param {
    num_output: 2
    kernel_size: 5
    stride: 1
    weight_filler {
      type: "xavier"
    }
    bias_filler {
      type: "constant"
    }
  }
}
layer {
  name: "pool0"
  type: "Pooling"
  bottom: "conv0"
  top: "pool0"
  pooling_param {
    pool: MAX
    kernel_size: 2
    stride: 2
  }
}
layer {
  name: "conv1"
  type: "Convolution"
  bottom: "pool0"
  top: "conv1"
  param {
    lr_mult: 1
  }
  param {
    lr_mult: 2
  }
  convolution_param {
    num_output: 2
    kernel_size: 5
    stride: 1
    weight_filler {
      type: "xavier"
    }
    bias_filler {
      type: "constant"
    }
  }
}
layer {
  name: "pool1"
  type: "Pooling"
  bottom: "conv1"
  top: "pool1"
  pooling_param {
    pool: MAX
    kernel_size: 2
    stride: 2
  }
}
layer {
  name: "ip1"
  type: "InnerProduct"
  bottom: "pool1"
  top: "ip1"
  param {
    lr_mult: 1
  }
  param {
    lr_mult: 2
  }
  inner_product_param {
    num_output: 25
    weight_filler {
      type: "xavier"
    }
    bias_filler {
      type: "constant"
    }
  }
}
layer {
  name: "relu1"
  type: "ReLU"
  bottom: "ip1"
  top: "ip1"
}
layer {
  name: "ip2"
  type: "InnerProduct"
  bottom: "ip1"
  top: "ip2"
  param {
    lr_mult: 1
  }
  param {
    lr_mult: 2
  }
  inner_product_param {
    num_output: 10
    weight_filler {
      type: "xavier"
    }
    bias_filler {
      type: "constant"
    }
  }
}
layer {
  name: "relu2"
  type: "ReLU"
  bottom: "ip2"
  top: "ip2"
}
layer {
  name: "loss"
  type: "SoftmaxWithLoss"
  bottom: "ip2"
  bottom: "label"
  top: "loss"
}
I0428 19:38:39.544667 24071 layer_factory.hpp:77] Creating layer mnist
I0428 19:38:39.544746 24071 db_lmdb.cpp:35] Opened lmdb examples/mnist/mnist_train_lmdb
I0428 19:38:39.544764 24071 net.cpp:86] Creating Layer mnist
I0428 19:38:39.544771 24071 net.cpp:382] mnist -> data
I0428 19:38:39.544788 24071 net.cpp:382] mnist -> label
I0428 19:38:39.545717 24071 data_layer.cpp:45] output data size: 64,1,28,28
I0428 19:38:39.547956 24071 net.cpp:124] Setting up mnist
I0428 19:38:39.547971 24071 net.cpp:131] Top shape: 64 1 28 28 (50176)
I0428 19:38:39.547976 24071 net.cpp:131] Top shape: 64 (64)
I0428 19:38:39.547978 24071 net.cpp:139] Memory required for data: 200960
I0428 19:38:39.547983 24071 layer_factory.hpp:77] Creating layer conv0
I0428 19:38:39.548007 24071 net.cpp:86] Creating Layer conv0
I0428 19:38:39.548010 24071 net.cpp:408] conv0 <- data
I0428 19:38:39.548022 24071 net.cpp:382] conv0 -> conv0
I0428 19:38:39.772352 24071 net.cpp:124] Setting up conv0
I0428 19:38:39.772395 24071 net.cpp:131] Top shape: 64 2 24 24 (73728)
I0428 19:38:39.772400 24071 net.cpp:139] Memory required for data: 495872
I0428 19:38:39.772431 24071 layer_factory.hpp:77] Creating layer pool0
I0428 19:38:39.772461 24071 net.cpp:86] Creating Layer pool0
I0428 19:38:39.772465 24071 net.cpp:408] pool0 <- conv0
I0428 19:38:39.772470 24071 net.cpp:382] pool0 -> pool0
I0428 19:38:39.772521 24071 net.cpp:124] Setting up pool0
I0428 19:38:39.772533 24071 net.cpp:131] Top shape: 64 2 12 12 (18432)
I0428 19:38:39.772536 24071 net.cpp:139] Memory required for data: 569600
I0428 19:38:39.772541 24071 layer_factory.hpp:77] Creating layer conv1
I0428 19:38:39.772552 24071 net.cpp:86] Creating Layer conv1
I0428 19:38:39.772555 24071 net.cpp:408] conv1 <- pool0
I0428 19:38:39.772562 24071 net.cpp:382] conv1 -> conv1
I0428 19:38:39.774521 24071 net.cpp:124] Setting up conv1
I0428 19:38:39.774551 24071 net.cpp:131] Top shape: 64 2 8 8 (8192)
I0428 19:38:39.774555 24071 net.cpp:139] Memory required for data: 602368
I0428 19:38:39.774564 24071 layer_factory.hpp:77] Creating layer pool1
I0428 19:38:39.774574 24071 net.cpp:86] Creating Layer pool1
I0428 19:38:39.774576 24071 net.cpp:408] pool1 <- conv1
I0428 19:38:39.774581 24071 net.cpp:382] pool1 -> pool1
I0428 19:38:39.774619 24071 net.cpp:124] Setting up pool1
I0428 19:38:39.774624 24071 net.cpp:131] Top shape: 64 2 4 4 (2048)
I0428 19:38:39.774628 24071 net.cpp:139] Memory required for data: 610560
I0428 19:38:39.774631 24071 layer_factory.hpp:77] Creating layer ip1
I0428 19:38:39.774638 24071 net.cpp:86] Creating Layer ip1
I0428 19:38:39.774641 24071 net.cpp:408] ip1 <- pool1
I0428 19:38:39.774646 24071 net.cpp:382] ip1 -> ip1
I0428 19:38:39.774745 24071 net.cpp:124] Setting up ip1
I0428 19:38:39.774752 24071 net.cpp:131] Top shape: 64 25 (1600)
I0428 19:38:39.774756 24071 net.cpp:139] Memory required for data: 616960
I0428 19:38:39.774777 24071 layer_factory.hpp:77] Creating layer relu1
I0428 19:38:39.774783 24071 net.cpp:86] Creating Layer relu1
I0428 19:38:39.774786 24071 net.cpp:408] relu1 <- ip1
I0428 19:38:39.774791 24071 net.cpp:369] relu1 -> ip1 (in-place)
I0428 19:38:39.774960 24071 net.cpp:124] Setting up relu1
I0428 19:38:39.774969 24071 net.cpp:131] Top shape: 64 25 (1600)
I0428 19:38:39.774972 24071 net.cpp:139] Memory required for data: 623360
I0428 19:38:39.774976 24071 layer_factory.hpp:77] Creating layer ip2
I0428 19:38:39.774981 24071 net.cpp:86] Creating Layer ip2
I0428 19:38:39.774984 24071 net.cpp:408] ip2 <- ip1
I0428 19:38:39.774989 24071 net.cpp:382] ip2 -> ip2
I0428 19:38:39.775079 24071 net.cpp:124] Setting up ip2
I0428 19:38:39.775084 24071 net.cpp:131] Top shape: 64 10 (640)
I0428 19:38:39.775087 24071 net.cpp:139] Memory required for data: 625920
I0428 19:38:39.775092 24071 layer_factory.hpp:77] Creating layer relu2
I0428 19:38:39.775099 24071 net.cpp:86] Creating Layer relu2
I0428 19:38:39.775101 24071 net.cpp:408] relu2 <- ip2
I0428 19:38:39.775105 24071 net.cpp:369] relu2 -> ip2 (in-place)
I0428 19:38:39.775833 24071 net.cpp:124] Setting up relu2
I0428 19:38:39.775845 24071 net.cpp:131] Top shape: 64 10 (640)
I0428 19:38:39.775863 24071 net.cpp:139] Memory required for data: 628480
I0428 19:38:39.775866 24071 layer_factory.hpp:77] Creating layer loss
I0428 19:38:39.775872 24071 net.cpp:86] Creating Layer loss
I0428 19:38:39.775876 24071 net.cpp:408] loss <- ip2
I0428 19:38:39.775879 24071 net.cpp:408] loss <- label
I0428 19:38:39.775885 24071 net.cpp:382] loss -> loss
I0428 19:38:39.775903 24071 layer_factory.hpp:77] Creating layer loss
…
I0428 19:38:39.776561 24071 solver.cpp:173] Creating test net (#0) specified by net file: ECE595/mnist/train_test/var_everything2/lenet_train_test280.prototxt
I0428 19:38:39.776619 24071 net.cpp:296] The NetState phase (1) differed from the phase (0) specified by a rule in layer mnist
I0428 19:38:39.776698 24071 net.cpp:53] Initializing net from parameters: 
name: "LeNet"
state {
  phase: TEST
}
layer {
  name: "mnist"
  type: "Data"
  top: "data"
  top: "label"
  include {
    phase: TEST
  }
  transform_param {
    scale: 0.00390625
  }
  data_param {
    source: "examples/mnist/mnist_test_lmdb"
    batch_size: 100
    backend: LMDB
  }
}
layer {
  name: "conv0"
  type: "Convolution"
  bottom: "data"
  top: "conv0"
  param {
    lr_mult: 1
  }
  param {
    lr_mult: 2
  }
  convolution_param {
    num_output: 2
    kernel_size: 5
    stride: 1
    weight_filler {
      type: "xavier"
    }
    bias_filler {
      type: "constant"
    }
  }
}
layer {
  name: "pool0"
  type: "Pooling"
  bottom: "conv0"
  top: "pool0"
  pooling_param {
    pool: MAX
    kernel_size: 2
    stride: 2
  }
}
layer {
  name: "conv1"
  type: "Convolution"
  bottom: "pool0"
  top: "conv1"
  param {
    lr_mult: 1
  }
  param {
    lr_mult: 2
  }
  convolution_param {
    num_output: 2
    kernel_size: 5
    stride: 1
    weight_filler {
      type: "xavier"
    }
    bias_filler {
      type: "constant"
    }
  }
}
layer {
  name: "pool1"
  type: "Pooling"
  bottom: "conv1"
  top: "pool1"
  pooling_param {
    pool: MAX
    kernel_size: 2
    stride: 2
  }
}
layer {
  name: "ip1"
  type: "InnerProduct"
  bottom: "pool1"
  top: "ip1"
  param {
    lr_mult: 1
  }
  param {
    lr_mult: 2
  }
  inner_product_param {
    num_output: 25
    weight_filler {
      type: "xavier"
    }
    bias_filler {
      type: "constant"
    }
  }
}
layer {
  name: "relu1"
  type: "ReLU"
  bottom: "ip1"
  top: "ip1"
}
layer {
  name: "ip2"
  type: "InnerProduct"
  bottom: "ip1"
  top: "ip2"
  param {
    lr_mult: 1
  }
  param {
    lr_mult: 2
  }
  inner_product_param {
    num_output: 10
    weight_filler {
      type: "xavier"
    }
    bias_filler {
      type: "constant"
    }
  }
}
layer {
  name: "relu2"
  type: "ReLU"
  bottom: "ip2"
  top: "ip2"
}
layer {
  name: "accuracy"
  type: "Accuracy"
  bottom: "ip2"
  bottom: "label"
  top: "accuracy"
  include {
    phase: TEST
  }
}
layer {
  name: "loss"
  type: "SoftmaxWithLoss"
  bottom: "ip2"
  bottom: "label"
  top: "loss"
}
I0428 19:38:39.776757 24071 layer_factory.hpp:77] Creating layer mnist
I0428 19:38:39.776800 24071 db_lmdb.cpp:35] Opened lmdb examples/mnist/mnist_test_lmdb
I0428 19:38:39.776834 24071 net.cpp:86] Creating Layer mnist
I0428 19:38:39.776855 24071 net.cpp:382] mnist -> data
I0428 19:38:39.776863 24071 net.cpp:382] mnist -> label
I0428 19:38:39.776968 24071 data_layer.cpp:45] output data size: 100,1,28,28
I0428 19:38:39.778914 24071 net.cpp:124] Setting up mnist
I0428 19:38:39.778942 24071 net.cpp:131] Top shape: 100 1 28 28 (78400)
I0428 19:38:39.778947 24071 net.cpp:131] Top shape: 100 (100)
I0428 19:38:39.778951 24071 net.cpp:139] Memory required for data: 314000
I0428 19:38:39.778954 24071 layer_factory.hpp:77] Creating layer label_mnist_1_split
I0428 19:38:39.778990 24071 net.cpp:86] Creating Layer label_mnist_1_split
I0428 19:38:39.778993 24071 net.cpp:408] label_mnist_1_split <- label
I0428 19:38:39.778998 24071 net.cpp:382] label_mnist_1_split -> label_mnist_1_split_0
I0428 19:38:39.779006 24071 net.cpp:382] label_mnist_1_split -> label_mnist_1_split_1
I0428 19:38:39.779045 24071 net.cpp:124] Setting up label_mnist_1_split
I0428 19:38:39.779060 24071 net.cpp:131] Top shape: 100 (100)
I0428 19:38:39.779064 24071 net.cpp:131] Top shape: 100 (100)
I0428 19:38:39.779067 24071 net.cpp:139] Memory required for data: 314800
I0428 19:38:39.779070 24071 layer_factory.hpp:77] Creating layer conv0
I0428 19:38:39.779078 24071 net.cpp:86] Creating Layer conv0
I0428 19:38:39.779081 24071 net.cpp:408] conv0 <- data
I0428 19:38:39.779086 24071 net.cpp:382] conv0 -> conv0
I0428 19:38:39.780831 24071 net.cpp:124] Setting up conv0
I0428 19:38:39.780863 24071 net.cpp:131] Top shape: 100 2 24 24 (115200)
I0428 19:38:39.780866 24071 net.cpp:139] Memory required for data: 775600
I0428 19:38:39.780890 24071 layer_factory.hpp:77] Creating layer pool0
I0428 19:38:39.780896 24071 net.cpp:86] Creating Layer pool0
I0428 19:38:39.780916 24071 net.cpp:408] pool0 <- conv0
I0428 19:38:39.780920 24071 net.cpp:382] pool0 -> pool0
I0428 19:38:39.780973 24071 net.cpp:124] Setting up pool0
I0428 19:38:39.780979 24071 net.cpp:131] Top shape: 100 2 12 12 (28800)
I0428 19:38:39.780982 24071 net.cpp:139] Memory required for data: 890800
I0428 19:38:39.780985 24071 layer_factory.hpp:77] Creating layer conv1
I0428 19:38:39.780993 24071 net.cpp:86] Creating Layer conv1
I0428 19:38:39.780997 24071 net.cpp:408] conv1 <- pool0
I0428 19:38:39.781002 24071 net.cpp:382] conv1 -> conv1
I0428 19:38:39.782521 24071 net.cpp:124] Setting up conv1
I0428 19:38:39.782533 24071 net.cpp:131] Top shape: 100 2 8 8 (12800)
I0428 19:38:39.782537 24071 net.cpp:139] Memory required for data: 942000
I0428 19:38:39.782546 24071 layer_factory.hpp:77] Creating layer pool1
I0428 19:38:39.782552 24071 net.cpp:86] Creating Layer pool1
I0428 19:38:39.782555 24071 net.cpp:408] pool1 <- conv1
I0428 19:38:39.782560 24071 net.cpp:382] pool1 -> pool1
I0428 19:38:39.782594 24071 net.cpp:124] Setting up pool1
I0428 19:38:39.782599 24071 net.cpp:131] Top shape: 100 2 4 4 (3200)
I0428 19:38:39.782603 24071 net.cpp:139] Memory required for data: 954800
I0428 19:38:39.782604 24071 layer_factory.hpp:77] Creating layer ip1
I0428 19:38:39.782611 24071 net.cpp:86] Creating Layer ip1
I0428 19:38:39.782614 24071 net.cpp:408] ip1 <- pool1
I0428 19:38:39.782619 24071 net.cpp:382] ip1 -> ip1
I0428 19:38:39.782711 24071 net.cpp:124] Setting up ip1
I0428 19:38:39.782718 24071 net.cpp:131] Top shape: 100 25 (2500)
I0428 19:38:39.782721 24071 net.cpp:139] Memory required for data: 964800
I0428 19:38:39.782728 24071 layer_factory.hpp:77] Creating layer relu1
I0428 19:38:39.782732 24071 net.cpp:86] Creating Layer relu1
I0428 19:38:39.782737 24071 net.cpp:408] relu1 <- ip1
I0428 19:38:39.782740 24071 net.cpp:369] relu1 -> ip1 (in-place)
I0428 19:38:39.782920 24071 net.cpp:124] Setting up relu1
I0428 19:38:39.782929 24071 net.cpp:131] Top shape: 100 25 (2500)
I0428 19:38:39.782932 24071 net.cpp:139] Memory required for data: 974800
I0428 19:38:39.782935 24071 layer_factory.hpp:77] Creating layer ip2
I0428 19:38:39.782943 24071 net.cpp:86] Creating Layer ip2
I0428 19:38:39.782946 24071 net.cpp:408] ip2 <- ip1
I0428 19:38:39.782951 24071 net.cpp:382] ip2 -> ip2
I0428 19:38:39.783054 24071 net.cpp:124] Setting up ip2
I0428 19:38:39.783062 24071 net.cpp:131] Top shape: 100 10 (1000)
I0428 19:38:39.783066 24071 net.cpp:139] Memory required for data: 978800
I0428 19:38:39.783072 24071 layer_factory.hpp:77] Creating layer relu2
I0428 19:38:39.783077 24071 net.cpp:86] Creating Layer relu2
I0428 19:38:39.783080 24071 net.cpp:408] relu2 <- ip2
I0428 19:38:39.783084 24071 net.cpp:369] relu2 -> ip2 (in-place)
I0428 19:38:39.783248 24071 net.cpp:124] Setting up relu2
I0428 19:38:39.783272 24071 net.cpp:131] Top shape: 100 10 (1000)
I0428 19:38:39.783274 24071 net.cpp:139] Memory required for data: 982800
I0428 19:38:39.783277 24071 layer_factory.hpp:77] Creating layer ip2_relu2_0_split
I0428 19:38:39.783290 24071 net.cpp:86] Creating Layer ip2_relu2_0_split
I0428 19:38:39.783293 24071 net.cpp:408] ip2_relu2_0_split <- ip2
I0428 19:38:39.783298 24071 net.cpp:382] ip2_relu2_0_split -> ip2_relu2_0_split_0
I0428 19:38:39.783314 24071 net.cpp:382] ip2_relu2_0_split -> ip2_relu2_0_split_1
I0428 19:38:39.783354 24071 net.cpp:124] Setting up ip2_relu2_0_split
I0428 19:38:39.783359 24071 net.cpp:131] Top shape: 100 10 (1000)
I0428 19:38:39.783362 24071 net.cpp:131] Top shape: 100 10 (1000)
I0428 19:38:39.783365 24071 net.cpp:139] Memory required for data: 990800
I0428 19:38:39.783368 24071 layer_factory.hpp:77] Creating layer accuracy
I0428 19:38:39.783373 24071 net.cpp:86] Creating Layer accuracy
I0428 19:38:39.783376 24071 net.cpp:408] accuracy <- ip2_relu2_0_split_0
I0428 19:38:39.783380 24071 net.cpp:408] accuracy <- label_mnist_1_split_0
I0428 19:38:39.783385 24071 net.cpp:382] accuracy -> accuracy
…
