…
I0428 20:30:31.896144  3742 net.cpp:296] The NetState phase (0) differed from the phase (1) specified by a rule in layer mnist
I0428 20:30:31.896165  3742 net.cpp:296] The NetState phase (0) differed from the phase (1) specified by a rule in layer accuracy
I0428 20:30:31.896272  3742 net.cpp:53] Initializing net from parameters: 
name: "LeNet"
state {
  phase: TRAIN
  level: 0
  stage: ""
}
layer {
  name: "mnist"
  type: "Data"
  top: "data"
  top: "label"
  include {
    phase: TRAIN
  }
  transform_param {
    scale: 0.00390625
  }
  data_param {
    source: "examples/mnist/mnist_train_lmdb"
    batch_size: 64
    backend: LMDB
  }
}
layer {
  name: "conv0"
  type: "Convolution"
  bottom: "data"
  top: "conv0"
  param {
    lr_mult: 1
  }
  param {
    lr_mult: 2
  }
  convolution_param {
    num_output: 100
    kernel_size: 5
    stride: 1
    weight_filler {
      type: "xavier"
    }
    bias_filler {
      type: "constant"
    }
  }
}
layer {
  name: "pool0"
  type: "Pooling"
  bottom: "conv0"
  top: "pool0"
  pooling_param {
    pool: MAX
    kernel_size: 2
    stride: 2
  }
}
layer {
  name: "conv1"
  type: "Convolution"
  bottom: "pool0"
  top: "conv1"
  param {
    lr_mult: 1
  }
  param {
    lr_mult: 2
  }
  convolution_param {
    num_output: 10
    kernel_size: 5
    stride: 1
    weight_filler {
      type: "xavier"
    }
    bias_filler {
      type: "constant"
    }
  }
}
layer {
  name: "pool1"
  type: "Pooling"
  bottom: "conv1"
  top: "pool1"
  pooling_param {
    pool: MAX
    kernel_size: 2
    stride: 2
  }
}
layer {
  name: "ip1"
  type: "InnerProduct"
  bottom: "pool1"
  top: "ip1"
  param {
    lr_mult: 1
  }
  param {
    lr_mult: 2
  }
  inner_product_param {
    num_output: 10
    weight_filler {
      type: "xavier"
    }
    bias_filler {
      type: "constant"
    }
  }
}
layer {
  name: "relu1"
  type: "ReLU"
  bottom: "ip1"
  top: "ip1"
}
layer {
  name: "ip2"
  type: "InnerProduct"
  bottom: "ip1"
  top: "ip2"
  param {
    lr_mult: 1
  }
  param {
    lr_mult: 2
  }
  inner_product_param {
    num_output: 50
    weight_filler {
      type: "xavier"
    }
    bias_filler {
      type: "constant"
    }
  }
}
layer {
  name: "relu2"
  type: "ReLU"
  bottom: "ip2"
  top: "ip2"
}
layer {
  name: "ip3"
  type: "InnerProduct"
  bottom: "ip2"
  top: "ip3"
  param {
    lr_mult: 1
  }
  param {
    lr_mult: 2
  }
  inner_product_param {
    num_output: 10
    weight_filler {
      type: "xavier"
    }
    bias_filler {
      type: "constant"
    }
  }
}
layer {
  name: "relu3"
  type: "ReLU"
  bottom: "ip3"
  top: "ip3"
}
layer {
  name: "loss"
  type: "SoftmaxWithLoss"
  bottom: "ip3"
  bottom: "label"
  top: "loss"
}
I0428 20:30:31.896363  3742 layer_factory.hpp:77] Creating layer mnist
I0428 20:30:31.896469  3742 db_lmdb.cpp:35] Opened lmdb examples/mnist/mnist_train_lmdb
I0428 20:30:31.896495  3742 net.cpp:86] Creating Layer mnist
I0428 20:30:31.896507  3742 net.cpp:382] mnist -> data
I0428 20:30:31.896531  3742 net.cpp:382] mnist -> label
I0428 20:30:31.897697  3742 data_layer.cpp:45] output data size: 64,1,28,28
I0428 20:30:31.899869  3742 net.cpp:124] Setting up mnist
I0428 20:30:31.899901  3742 net.cpp:131] Top shape: 64 1 28 28 (50176)
I0428 20:30:31.899910  3742 net.cpp:131] Top shape: 64 (64)
I0428 20:30:31.899915  3742 net.cpp:139] Memory required for data: 200960
I0428 20:30:31.899924  3742 layer_factory.hpp:77] Creating layer conv0
I0428 20:30:31.899941  3742 net.cpp:86] Creating Layer conv0
I0428 20:30:31.899961  3742 net.cpp:408] conv0 <- data
I0428 20:30:31.899979  3742 net.cpp:382] conv0 -> conv0
I0428 20:30:32.132239  3742 net.cpp:124] Setting up conv0
I0428 20:30:32.132269  3742 net.cpp:131] Top shape: 64 100 24 24 (3686400)
I0428 20:30:32.132274  3742 net.cpp:139] Memory required for data: 14946560
I0428 20:30:32.132294  3742 layer_factory.hpp:77] Creating layer pool0
I0428 20:30:32.132310  3742 net.cpp:86] Creating Layer pool0
I0428 20:30:32.132316  3742 net.cpp:408] pool0 <- conv0
I0428 20:30:32.132324  3742 net.cpp:382] pool0 -> pool0
I0428 20:30:32.132381  3742 net.cpp:124] Setting up pool0
I0428 20:30:32.132390  3742 net.cpp:131] Top shape: 64 100 12 12 (921600)
I0428 20:30:32.132395  3742 net.cpp:139] Memory required for data: 18632960
I0428 20:30:32.132398  3742 layer_factory.hpp:77] Creating layer conv1
I0428 20:30:32.132413  3742 net.cpp:86] Creating Layer conv1
I0428 20:30:32.132419  3742 net.cpp:408] conv1 <- pool0
I0428 20:30:32.132428  3742 net.cpp:382] conv1 -> conv1
I0428 20:30:32.134507  3742 net.cpp:124] Setting up conv1
I0428 20:30:32.134539  3742 net.cpp:131] Top shape: 64 10 8 8 (40960)
I0428 20:30:32.134546  3742 net.cpp:139] Memory required for data: 18796800
I0428 20:30:32.134560  3742 layer_factory.hpp:77] Creating layer pool1
I0428 20:30:32.134572  3742 net.cpp:86] Creating Layer pool1
I0428 20:30:32.134598  3742 net.cpp:408] pool1 <- conv1
I0428 20:30:32.134606  3742 net.cpp:382] pool1 -> pool1
I0428 20:30:32.134666  3742 net.cpp:124] Setting up pool1
I0428 20:30:32.134675  3742 net.cpp:131] Top shape: 64 10 4 4 (10240)
I0428 20:30:32.134680  3742 net.cpp:139] Memory required for data: 18837760
I0428 20:30:32.134683  3742 layer_factory.hpp:77] Creating layer ip1
I0428 20:30:32.134694  3742 net.cpp:86] Creating Layer ip1
I0428 20:30:32.134699  3742 net.cpp:408] ip1 <- pool1
I0428 20:30:32.134708  3742 net.cpp:382] ip1 -> ip1
I0428 20:30:32.134822  3742 net.cpp:124] Setting up ip1
I0428 20:30:32.134831  3742 net.cpp:131] Top shape: 64 10 (640)
I0428 20:30:32.134835  3742 net.cpp:139] Memory required for data: 18840320
I0428 20:30:32.134846  3742 layer_factory.hpp:77] Creating layer relu1
I0428 20:30:32.134860  3742 net.cpp:86] Creating Layer relu1
I0428 20:30:32.134866  3742 net.cpp:408] relu1 <- ip1
I0428 20:30:32.134873  3742 net.cpp:369] relu1 -> ip1 (in-place)
I0428 20:30:32.135042  3742 net.cpp:124] Setting up relu1
I0428 20:30:32.135051  3742 net.cpp:131] Top shape: 64 10 (640)
I0428 20:30:32.135056  3742 net.cpp:139] Memory required for data: 18842880
I0428 20:30:32.135061  3742 layer_factory.hpp:77] Creating layer ip2
I0428 20:30:32.135072  3742 net.cpp:86] Creating Layer ip2
I0428 20:30:32.135077  3742 net.cpp:408] ip2 <- ip1
I0428 20:30:32.135085  3742 net.cpp:382] ip2 -> ip2
I0428 20:30:32.135203  3742 net.cpp:124] Setting up ip2
I0428 20:30:32.135212  3742 net.cpp:131] Top shape: 64 50 (3200)
I0428 20:30:32.135216  3742 net.cpp:139] Memory required for data: 18855680
I0428 20:30:32.135226  3742 layer_factory.hpp:77] Creating layer relu2
I0428 20:30:32.135236  3742 net.cpp:86] Creating Layer relu2
I0428 20:30:32.135243  3742 net.cpp:408] relu2 <- ip2
I0428 20:30:32.135249  3742 net.cpp:369] relu2 -> ip2 (in-place)
I0428 20:30:32.135970  3742 net.cpp:124] Setting up relu2
I0428 20:30:32.135984  3742 net.cpp:131] Top shape: 64 50 (3200)
I0428 20:30:32.135989  3742 net.cpp:139] Memory required for data: 18868480
I0428 20:30:32.135995  3742 layer_factory.hpp:77] Creating layer ip3
I0428 20:30:32.136023  3742 net.cpp:86] Creating Layer ip3
I0428 20:30:32.136029  3742 net.cpp:408] ip3 <- ip2
I0428 20:30:32.136039  3742 net.cpp:382] ip3 -> ip3
I0428 20:30:32.136152  3742 net.cpp:124] Setting up ip3
I0428 20:30:32.136162  3742 net.cpp:131] Top shape: 64 10 (640)
I0428 20:30:32.136168  3742 net.cpp:139] Memory required for data: 18871040
I0428 20:30:32.136180  3742 layer_factory.hpp:77] Creating layer relu3
I0428 20:30:32.136189  3742 net.cpp:86] Creating Layer relu3
I0428 20:30:32.136194  3742 net.cpp:408] relu3 <- ip3
I0428 20:30:32.136201  3742 net.cpp:369] relu3 -> ip3 (in-place)
I0428 20:30:32.136427  3742 net.cpp:124] Setting up relu3
I0428 20:30:32.136437  3742 net.cpp:131] Top shape: 64 10 (640)
I0428 20:30:32.136442  3742 net.cpp:139] Memory required for data: 18873600
I0428 20:30:32.136447  3742 layer_factory.hpp:77] Creating layer loss
I0428 20:30:32.136461  3742 net.cpp:86] Creating Layer loss
I0428 20:30:32.136467  3742 net.cpp:408] loss <- ip3
I0428 20:30:32.136473  3742 net.cpp:408] loss <- label
I0428 20:30:32.136483  3742 net.cpp:382] loss -> loss
I0428 20:30:32.136502  3742 layer_factory.hpp:77] Creating layer loss
…
I0428 20:30:32.137291  3742 solver.cpp:173] Creating test net (#0) specified by net file: ECE595/mnist/train_test/var_everything2/lenet_train_test1540.prototxt
I0428 20:30:32.137326  3742 net.cpp:296] The NetState phase (1) differed from the phase (0) specified by a rule in layer mnist
I0428 20:30:32.137436  3742 net.cpp:53] Initializing net from parameters: 
name: "LeNet"
state {
  phase: TEST
}
layer {
  name: "mnist"
  type: "Data"
  top: "data"
  top: "label"
  include {
    phase: TEST
  }
  transform_param {
    scale: 0.00390625
  }
  data_param {
    source: "examples/mnist/mnist_test_lmdb"
    batch_size: 100
    backend: LMDB
  }
}
layer {
  name: "conv0"
  type: "Convolution"
  bottom: "data"
  top: "conv0"
  param {
    lr_mult: 1
  }
  param {
    lr_mult: 2
  }
  convolution_param {
    num_output: 100
    kernel_size: 5
    stride: 1
    weight_filler {
      type: "xavier"
    }
    bias_filler {
      type: "constant"
    }
  }
}
layer {
  name: "pool0"
  type: "Pooling"
  bottom: "conv0"
  top: "pool0"
  pooling_param {
    pool: MAX
    kernel_size: 2
    stride: 2
  }
}
layer {
  name: "conv1"
  type: "Convolution"
  bottom: "pool0"
  top: "conv1"
  param {
    lr_mult: 1
  }
  param {
    lr_mult: 2
  }
  convolution_param {
    num_output: 10
    kernel_size: 5
    stride: 1
    weight_filler {
      type: "xavier"
    }
    bias_filler {
      type: "constant"
    }
  }
}
layer {
  name: "pool1"
  type: "Pooling"
  bottom: "conv1"
  top: "pool1"
  pooling_param {
    pool: MAX
    kernel_size: 2
    stride: 2
  }
}
layer {
  name: "ip1"
  type: "InnerProduct"
  bottom: "pool1"
  top: "ip1"
  param {
    lr_mult: 1
  }
  param {
    lr_mult: 2
  }
  inner_product_param {
    num_output: 10
    weight_filler {
      type: "xavier"
    }
    bias_filler {
      type: "constant"
    }
  }
}
layer {
  name: "relu1"
  type: "ReLU"
  bottom: "ip1"
  top: "ip1"
}
layer {
  name: "ip2"
  type: "InnerProduct"
  bottom: "ip1"
  top: "ip2"
  param {
    lr_mult: 1
  }
  param {
    lr_mult: 2
  }
  inner_product_param {
    num_output: 50
    weight_filler {
      type: "xavier"
    }
    bias_filler {
      type: "constant"
    }
  }
}
layer {
  name: "relu2"
  type: "ReLU"
  bottom: "ip2"
  top: "ip2"
}
layer {
  name: "ip3"
  type: "InnerProduct"
  bottom: "ip2"
  top: "ip3"
  param {
    lr_mult: 1
  }
  param {
    lr_mult: 2
  }
  inner_product_param {
    num_output: 10
    weight_filler {
      type: "xavier"
    }
    bias_filler {
      type: "constant"
    }
  }
}
layer {
  name: "relu3"
  type: "ReLU"
  bottom: "ip3"
  top: "ip3"
}
layer {
  name: "accuracy"
  type: "Accuracy"
  bottom: "ip3"
  bottom: "label"
  top: "accuracy"
  include {
    phase: TEST
  }
}
layer {
  name: "loss"
  type: "SoftmaxWithLoss"
  bottom: "ip3"
  bottom: "label"
  top: "loss"
}
I0428 20:30:32.137553  3742 layer_factory.hpp:77] Creating layer mnist
I0428 20:30:32.137609  3742 db_lmdb.cpp:35] Opened lmdb examples/mnist/mnist_test_lmdb
I0428 20:30:32.137627  3742 net.cpp:86] Creating Layer mnist
I0428 20:30:32.137636  3742 net.cpp:382] mnist -> data
I0428 20:30:32.137647  3742 net.cpp:382] mnist -> label
I0428 20:30:32.137776  3742 data_layer.cpp:45] output data size: 100,1,28,28
I0428 20:30:32.139950  3742 net.cpp:124] Setting up mnist
I0428 20:30:32.139981  3742 net.cpp:131] Top shape: 100 1 28 28 (78400)
I0428 20:30:32.139991  3742 net.cpp:131] Top shape: 100 (100)
I0428 20:30:32.139997  3742 net.cpp:139] Memory required for data: 314000
I0428 20:30:32.140003  3742 layer_factory.hpp:77] Creating layer label_mnist_1_split
I0428 20:30:32.140013  3742 net.cpp:86] Creating Layer label_mnist_1_split
I0428 20:30:32.140018  3742 net.cpp:408] label_mnist_1_split <- label
I0428 20:30:32.140027  3742 net.cpp:382] label_mnist_1_split -> label_mnist_1_split_0
I0428 20:30:32.140038  3742 net.cpp:382] label_mnist_1_split -> label_mnist_1_split_1
I0428 20:30:32.140130  3742 net.cpp:124] Setting up label_mnist_1_split
I0428 20:30:32.140138  3742 net.cpp:131] Top shape: 100 (100)
I0428 20:30:32.140146  3742 net.cpp:131] Top shape: 100 (100)
I0428 20:30:32.140151  3742 net.cpp:139] Memory required for data: 314800
I0428 20:30:32.140156  3742 layer_factory.hpp:77] Creating layer conv0
I0428 20:30:32.140171  3742 net.cpp:86] Creating Layer conv0
I0428 20:30:32.140177  3742 net.cpp:408] conv0 <- data
I0428 20:30:32.140188  3742 net.cpp:382] conv0 -> conv0
I0428 20:30:32.141852  3742 net.cpp:124] Setting up conv0
I0428 20:30:32.141868  3742 net.cpp:131] Top shape: 100 100 24 24 (5760000)
I0428 20:30:32.141873  3742 net.cpp:139] Memory required for data: 23354800
I0428 20:30:32.141887  3742 layer_factory.hpp:77] Creating layer pool0
I0428 20:30:32.141898  3742 net.cpp:86] Creating Layer pool0
I0428 20:30:32.141906  3742 net.cpp:408] pool0 <- conv0
I0428 20:30:32.141913  3742 net.cpp:382] pool0 -> pool0
I0428 20:30:32.141955  3742 net.cpp:124] Setting up pool0
I0428 20:30:32.141964  3742 net.cpp:131] Top shape: 100 100 12 12 (1440000)
I0428 20:30:32.141968  3742 net.cpp:139] Memory required for data: 29114800
I0428 20:30:32.141973  3742 layer_factory.hpp:77] Creating layer conv1
I0428 20:30:32.141988  3742 net.cpp:86] Creating Layer conv1
I0428 20:30:32.141993  3742 net.cpp:408] conv1 <- pool0
I0428 20:30:32.142004  3742 net.cpp:382] conv1 -> conv1
I0428 20:30:32.143860  3742 net.cpp:124] Setting up conv1
I0428 20:30:32.143877  3742 net.cpp:131] Top shape: 100 10 8 8 (64000)
I0428 20:30:32.143882  3742 net.cpp:139] Memory required for data: 29370800
I0428 20:30:32.143895  3742 layer_factory.hpp:77] Creating layer pool1
I0428 20:30:32.143904  3742 net.cpp:86] Creating Layer pool1
I0428 20:30:32.143910  3742 net.cpp:408] pool1 <- conv1
I0428 20:30:32.143918  3742 net.cpp:382] pool1 -> pool1
I0428 20:30:32.143976  3742 net.cpp:124] Setting up pool1
I0428 20:30:32.143985  3742 net.cpp:131] Top shape: 100 10 4 4 (16000)
I0428 20:30:32.143990  3742 net.cpp:139] Memory required for data: 29434800
I0428 20:30:32.143995  3742 layer_factory.hpp:77] Creating layer ip1
I0428 20:30:32.144006  3742 net.cpp:86] Creating Layer ip1
I0428 20:30:32.144011  3742 net.cpp:408] ip1 <- pool1
I0428 20:30:32.144021  3742 net.cpp:382] ip1 -> ip1
I0428 20:30:32.144141  3742 net.cpp:124] Setting up ip1
I0428 20:30:32.144160  3742 net.cpp:131] Top shape: 100 10 (1000)
I0428 20:30:32.144166  3742 net.cpp:139] Memory required for data: 29438800
I0428 20:30:32.144181  3742 layer_factory.hpp:77] Creating layer relu1
I0428 20:30:32.144189  3742 net.cpp:86] Creating Layer relu1
I0428 20:30:32.144196  3742 net.cpp:408] relu1 <- ip1
I0428 20:30:32.144217  3742 net.cpp:369] relu1 -> ip1 (in-place)
I0428 20:30:32.144390  3742 net.cpp:124] Setting up relu1
I0428 20:30:32.144402  3742 net.cpp:131] Top shape: 100 10 (1000)
I0428 20:30:32.144407  3742 net.cpp:139] Memory required for data: 29442800
I0428 20:30:32.144412  3742 layer_factory.hpp:77] Creating layer ip2
I0428 20:30:32.144421  3742 net.cpp:86] Creating Layer ip2
I0428 20:30:32.144428  3742 net.cpp:408] ip2 <- ip1
I0428 20:30:32.144438  3742 net.cpp:382] ip2 -> ip2
I0428 20:30:32.144543  3742 net.cpp:124] Setting up ip2
I0428 20:30:32.144552  3742 net.cpp:131] Top shape: 100 50 (5000)
I0428 20:30:32.144557  3742 net.cpp:139] Memory required for data: 29462800
I0428 20:30:32.144567  3742 layer_factory.hpp:77] Creating layer relu2
I0428 20:30:32.144575  3742 net.cpp:86] Creating Layer relu2
I0428 20:30:32.144585  3742 net.cpp:408] relu2 <- ip2
I0428 20:30:32.144593  3742 net.cpp:369] relu2 -> ip2 (in-place)
I0428 20:30:32.144794  3742 net.cpp:124] Setting up relu2
I0428 20:30:32.144804  3742 net.cpp:131] Top shape: 100 50 (5000)
I0428 20:30:32.144829  3742 net.cpp:139] Memory required for data: 29482800
I0428 20:30:32.144835  3742 layer_factory.hpp:77] Creating layer ip3
I0428 20:30:32.144846  3742 net.cpp:86] Creating Layer ip3
I0428 20:30:32.144852  3742 net.cpp:408] ip3 <- ip2
I0428 20:30:32.144863  3742 net.cpp:382] ip3 -> ip3
I0428 20:30:32.145035  3742 net.cpp:124] Setting up ip3
I0428 20:30:32.145045  3742 net.cpp:131] Top shape: 100 10 (1000)
I0428 20:30:32.145066  3742 net.cpp:139] Memory required for data: 29486800
I0428 20:30:32.145081  3742 layer_factory.hpp:77] Creating layer relu3
I0428 20:30:32.145090  3742 net.cpp:86] Creating Layer relu3
I0428 20:30:32.145098  3742 net.cpp:408] relu3 <- ip3
I0428 20:30:32.145108  3742 net.cpp:369] relu3 -> ip3 (in-place)
I0428 20:30:32.145962  3742 net.cpp:124] Setting up relu3
I0428 20:30:32.145975  3742 net.cpp:131] Top shape: 100 10 (1000)
I0428 20:30:32.145980  3742 net.cpp:139] Memory required for data: 29490800
I0428 20:30:32.145985  3742 layer_factory.hpp:77] Creating layer ip3_relu3_0_split
I0428 20:30:32.145993  3742 net.cpp:86] Creating Layer ip3_relu3_0_split
I0428 20:30:32.145998  3742 net.cpp:408] ip3_relu3_0_split <- ip3
I0428 20:30:32.146008  3742 net.cpp:382] ip3_relu3_0_split -> ip3_relu3_0_split_0
I0428 20:30:32.146016  3742 net.cpp:382] ip3_relu3_0_split -> ip3_relu3_0_split_1
I0428 20:30:32.146060  3742 net.cpp:124] Setting up ip3_relu3_0_split
I0428 20:30:32.146070  3742 net.cpp:131] Top shape: 100 10 (1000)
I0428 20:30:32.146076  3742 net.cpp:131] Top shape: 100 10 (1000)
I0428 20:30:32.146080  3742 net.cpp:139] Memory required for data: 29498800
I0428 20:30:32.146086  3742 layer_factory.hpp:77] Creating layer accuracy
I0428 20:30:32.146095  3742 net.cpp:86] Creating Layer accuracy
I0428 20:30:32.146100  3742 net.cpp:408] accuracy <- ip3_relu3_0_split_0
I0428 20:30:32.146106  3742 net.cpp:408] accuracy <- label_mnist_1_split_0
I0428 20:30:32.146113  3742 net.cpp:382] accuracy -> accuracy
…
