…
I0428 20:18:33.162878  1161 net.cpp:296] The NetState phase (0) differed from the phase (1) specified by a rule in layer mnist
I0428 20:18:33.162909  1161 net.cpp:296] The NetState phase (0) differed from the phase (1) specified by a rule in layer accuracy
I0428 20:18:33.163004  1161 net.cpp:53] Initializing net from parameters: 
name: "LeNet"
state {
  phase: TRAIN
  level: 0
  stage: ""
}
layer {
  name: "mnist"
  type: "Data"
  top: "data"
  top: "label"
  include {
    phase: TRAIN
  }
  transform_param {
    scale: 0.00390625
  }
  data_param {
    source: "examples/mnist/mnist_train_lmdb"
    batch_size: 64
    backend: LMDB
  }
}
layer {
  name: "conv0"
  type: "Convolution"
  bottom: "data"
  top: "conv0"
  param {
    lr_mult: 1
  }
  param {
    lr_mult: 2
  }
  convolution_param {
    num_output: 50
    kernel_size: 5
    stride: 1
    weight_filler {
      type: "xavier"
    }
    bias_filler {
      type: "constant"
    }
  }
}
layer {
  name: "pool0"
  type: "Pooling"
  bottom: "conv0"
  top: "pool0"
  pooling_param {
    pool: MAX
    kernel_size: 2
    stride: 2
  }
}
layer {
  name: "conv1"
  type: "Convolution"
  bottom: "pool0"
  top: "conv1"
  param {
    lr_mult: 1
  }
  param {
    lr_mult: 2
  }
  convolution_param {
    num_output: 10
    kernel_size: 5
    stride: 1
    weight_filler {
      type: "xavier"
    }
    bias_filler {
      type: "constant"
    }
  }
}
layer {
  name: "pool1"
  type: "Pooling"
  bottom: "conv1"
  top: "pool1"
  pooling_param {
    pool: MAX
    kernel_size: 2
    stride: 2
  }
}
layer {
  name: "ip1"
  type: "InnerProduct"
  bottom: "pool1"
  top: "ip1"
  param {
    lr_mult: 1
  }
  param {
    lr_mult: 2
  }
  inner_product_param {
    num_output: 50
    weight_filler {
      type: "xavier"
    }
    bias_filler {
      type: "constant"
    }
  }
}
layer {
  name: "relu1"
  type: "ReLU"
  bottom: "ip1"
  top: "ip1"
}
layer {
  name: "ip2"
  type: "InnerProduct"
  bottom: "ip1"
  top: "ip2"
  param {
    lr_mult: 1
  }
  param {
    lr_mult: 2
  }
  inner_product_param {
    num_output: 25
    weight_filler {
      type: "xavier"
    }
    bias_filler {
      type: "constant"
    }
  }
}
layer {
  name: "relu2"
  type: "ReLU"
  bottom: "ip2"
  top: "ip2"
}
layer {
  name: "ip3"
  type: "InnerProduct"
  bottom: "ip2"
  top: "ip3"
  param {
    lr_mult: 1
  }
  param {
    lr_mult: 2
  }
  inner_product_param {
    num_output: 10
    weight_filler {
      type: "xavier"
    }
    bias_filler {
      type: "constant"
    }
  }
}
layer {
  name: "relu3"
  type: "ReLU"
  bottom: "ip3"
  top: "ip3"
}
layer {
  name: "loss"
  type: "SoftmaxWithLoss"
  bottom: "ip3"
  bottom: "label"
  top: "loss"
}
I0428 20:18:33.163069  1161 layer_factory.hpp:77] Creating layer mnist
I0428 20:18:33.163156  1161 db_lmdb.cpp:35] Opened lmdb examples/mnist/mnist_train_lmdb
I0428 20:18:33.163192  1161 net.cpp:86] Creating Layer mnist
I0428 20:18:33.163200  1161 net.cpp:382] mnist -> data
I0428 20:18:33.163236  1161 net.cpp:382] mnist -> label
I0428 20:18:33.164283  1161 data_layer.cpp:45] output data size: 64,1,28,28
I0428 20:18:33.166540  1161 net.cpp:124] Setting up mnist
I0428 20:18:33.166587  1161 net.cpp:131] Top shape: 64 1 28 28 (50176)
I0428 20:18:33.166604  1161 net.cpp:131] Top shape: 64 (64)
I0428 20:18:33.166606  1161 net.cpp:139] Memory required for data: 200960
I0428 20:18:33.166613  1161 layer_factory.hpp:77] Creating layer conv0
I0428 20:18:33.166627  1161 net.cpp:86] Creating Layer conv0
I0428 20:18:33.166646  1161 net.cpp:408] conv0 <- data
I0428 20:18:33.166657  1161 net.cpp:382] conv0 -> conv0
I0428 20:18:33.394603  1161 net.cpp:124] Setting up conv0
I0428 20:18:33.394628  1161 net.cpp:131] Top shape: 64 50 24 24 (1843200)
I0428 20:18:33.394631  1161 net.cpp:139] Memory required for data: 7573760
I0428 20:18:33.394644  1161 layer_factory.hpp:77] Creating layer pool0
I0428 20:18:33.394672  1161 net.cpp:86] Creating Layer pool0
I0428 20:18:33.394676  1161 net.cpp:408] pool0 <- conv0
I0428 20:18:33.394681  1161 net.cpp:382] pool0 -> pool0
I0428 20:18:33.394726  1161 net.cpp:124] Setting up pool0
I0428 20:18:33.394742  1161 net.cpp:131] Top shape: 64 50 12 12 (460800)
I0428 20:18:33.394745  1161 net.cpp:139] Memory required for data: 9416960
I0428 20:18:33.394747  1161 layer_factory.hpp:77] Creating layer conv1
I0428 20:18:33.394758  1161 net.cpp:86] Creating Layer conv1
I0428 20:18:33.394762  1161 net.cpp:408] conv1 <- pool0
I0428 20:18:33.394765  1161 net.cpp:382] conv1 -> conv1
I0428 20:18:33.397732  1161 net.cpp:124] Setting up conv1
I0428 20:18:33.397761  1161 net.cpp:131] Top shape: 64 10 8 8 (40960)
I0428 20:18:33.397764  1161 net.cpp:139] Memory required for data: 9580800
I0428 20:18:33.397789  1161 layer_factory.hpp:77] Creating layer pool1
I0428 20:18:33.397796  1161 net.cpp:86] Creating Layer pool1
I0428 20:18:33.397799  1161 net.cpp:408] pool1 <- conv1
I0428 20:18:33.397804  1161 net.cpp:382] pool1 -> pool1
I0428 20:18:33.397857  1161 net.cpp:124] Setting up pool1
I0428 20:18:33.397862  1161 net.cpp:131] Top shape: 64 10 4 4 (10240)
I0428 20:18:33.397866  1161 net.cpp:139] Memory required for data: 9621760
I0428 20:18:33.397868  1161 layer_factory.hpp:77] Creating layer ip1
I0428 20:18:33.397891  1161 net.cpp:86] Creating Layer ip1
I0428 20:18:33.397893  1161 net.cpp:408] ip1 <- pool1
I0428 20:18:33.397898  1161 net.cpp:382] ip1 -> ip1
I0428 20:18:33.398044  1161 net.cpp:124] Setting up ip1
I0428 20:18:33.398051  1161 net.cpp:131] Top shape: 64 50 (3200)
I0428 20:18:33.398054  1161 net.cpp:139] Memory required for data: 9634560
I0428 20:18:33.398061  1161 layer_factory.hpp:77] Creating layer relu1
I0428 20:18:33.398067  1161 net.cpp:86] Creating Layer relu1
I0428 20:18:33.398071  1161 net.cpp:408] relu1 <- ip1
I0428 20:18:33.398074  1161 net.cpp:369] relu1 -> ip1 (in-place)
I0428 20:18:33.398246  1161 net.cpp:124] Setting up relu1
I0428 20:18:33.398253  1161 net.cpp:131] Top shape: 64 50 (3200)
I0428 20:18:33.398257  1161 net.cpp:139] Memory required for data: 9647360
I0428 20:18:33.398259  1161 layer_factory.hpp:77] Creating layer ip2
I0428 20:18:33.398265  1161 net.cpp:86] Creating Layer ip2
I0428 20:18:33.398268  1161 net.cpp:408] ip2 <- ip1
I0428 20:18:33.398272  1161 net.cpp:382] ip2 -> ip2
I0428 20:18:33.398373  1161 net.cpp:124] Setting up ip2
I0428 20:18:33.398380  1161 net.cpp:131] Top shape: 64 25 (1600)
I0428 20:18:33.398383  1161 net.cpp:139] Memory required for data: 9653760
I0428 20:18:33.398388  1161 layer_factory.hpp:77] Creating layer relu2
I0428 20:18:33.398393  1161 net.cpp:86] Creating Layer relu2
I0428 20:18:33.398396  1161 net.cpp:408] relu2 <- ip2
I0428 20:18:33.398401  1161 net.cpp:369] relu2 -> ip2 (in-place)
I0428 20:18:33.399099  1161 net.cpp:124] Setting up relu2
I0428 20:18:33.399111  1161 net.cpp:131] Top shape: 64 25 (1600)
I0428 20:18:33.399129  1161 net.cpp:139] Memory required for data: 9660160
I0428 20:18:33.399132  1161 layer_factory.hpp:77] Creating layer ip3
I0428 20:18:33.399138  1161 net.cpp:86] Creating Layer ip3
I0428 20:18:33.399142  1161 net.cpp:408] ip3 <- ip2
I0428 20:18:33.399147  1161 net.cpp:382] ip3 -> ip3
I0428 20:18:33.399253  1161 net.cpp:124] Setting up ip3
I0428 20:18:33.399260  1161 net.cpp:131] Top shape: 64 10 (640)
I0428 20:18:33.399263  1161 net.cpp:139] Memory required for data: 9662720
I0428 20:18:33.399271  1161 layer_factory.hpp:77] Creating layer relu3
I0428 20:18:33.399276  1161 net.cpp:86] Creating Layer relu3
I0428 20:18:33.399278  1161 net.cpp:408] relu3 <- ip3
I0428 20:18:33.399281  1161 net.cpp:369] relu3 -> ip3 (in-place)
I0428 20:18:33.399488  1161 net.cpp:124] Setting up relu3
I0428 20:18:33.399497  1161 net.cpp:131] Top shape: 64 10 (640)
I0428 20:18:33.399500  1161 net.cpp:139] Memory required for data: 9665280
I0428 20:18:33.399503  1161 layer_factory.hpp:77] Creating layer loss
I0428 20:18:33.399509  1161 net.cpp:86] Creating Layer loss
I0428 20:18:33.399513  1161 net.cpp:408] loss <- ip3
I0428 20:18:33.399518  1161 net.cpp:408] loss <- label
I0428 20:18:33.399523  1161 net.cpp:382] loss -> loss
I0428 20:18:33.399536  1161 layer_factory.hpp:77] Creating layer loss
…
I0428 20:18:33.400248  1161 solver.cpp:173] Creating test net (#0) specified by net file: ECE595/mnist/train_test/var_everything2/lenet_train_test1321.prototxt
I0428 20:18:33.400305  1161 net.cpp:296] The NetState phase (1) differed from the phase (0) specified by a rule in layer mnist
I0428 20:18:33.400398  1161 net.cpp:53] Initializing net from parameters: 
name: "LeNet"
state {
  phase: TEST
}
layer {
  name: "mnist"
  type: "Data"
  top: "data"
  top: "label"
  include {
    phase: TEST
  }
  transform_param {
    scale: 0.00390625
  }
  data_param {
    source: "examples/mnist/mnist_test_lmdb"
    batch_size: 100
    backend: LMDB
  }
}
layer {
  name: "conv0"
  type: "Convolution"
  bottom: "data"
  top: "conv0"
  param {
    lr_mult: 1
  }
  param {
    lr_mult: 2
  }
  convolution_param {
    num_output: 50
    kernel_size: 5
    stride: 1
    weight_filler {
      type: "xavier"
    }
    bias_filler {
      type: "constant"
    }
  }
}
layer {
  name: "pool0"
  type: "Pooling"
  bottom: "conv0"
  top: "pool0"
  pooling_param {
    pool: MAX
    kernel_size: 2
    stride: 2
  }
}
layer {
  name: "conv1"
  type: "Convolution"
  bottom: "pool0"
  top: "conv1"
  param {
    lr_mult: 1
  }
  param {
    lr_mult: 2
  }
  convolution_param {
    num_output: 10
    kernel_size: 5
    stride: 1
    weight_filler {
      type: "xavier"
    }
    bias_filler {
      type: "constant"
    }
  }
}
layer {
  name: "pool1"
  type: "Pooling"
  bottom: "conv1"
  top: "pool1"
  pooling_param {
    pool: MAX
    kernel_size: 2
    stride: 2
  }
}
layer {
  name: "ip1"
  type: "InnerProduct"
  bottom: "pool1"
  top: "ip1"
  param {
    lr_mult: 1
  }
  param {
    lr_mult: 2
  }
  inner_product_param {
    num_output: 50
    weight_filler {
      type: "xavier"
    }
    bias_filler {
      type: "constant"
    }
  }
}
layer {
  name: "relu1"
  type: "ReLU"
  bottom: "ip1"
  top: "ip1"
}
layer {
  name: "ip2"
  type: "InnerProduct"
  bottom: "ip1"
  top: "ip2"
  param {
    lr_mult: 1
  }
  param {
    lr_mult: 2
  }
  inner_product_param {
    num_output: 25
    weight_filler {
      type: "xavier"
    }
    bias_filler {
      type: "constant"
    }
  }
}
layer {
  name: "relu2"
  type: "ReLU"
  bottom: "ip2"
  top: "ip2"
}
layer {
  name: "ip3"
  type: "InnerProduct"
  bottom: "ip2"
  top: "ip3"
  param {
    lr_mult: 1
  }
  param {
    lr_mult: 2
  }
  inner_product_param {
    num_output: 10
    weight_filler {
      type: "xavier"
    }
    bias_filler {
      type: "constant"
    }
  }
}
layer {
  name: "relu3"
  type: "ReLU"
  bottom: "ip3"
  top: "ip3"
}
layer {
  name: "accuracy"
  type: "Accuracy"
  bottom: "ip3"
  bottom: "label"
  top: "accuracy"
  include {
    phase: TEST
  }
}
layer {
  name: "loss"
  type: "SoftmaxWithLoss"
  bottom: "ip3"
  bottom: "label"
  top: "loss"
}
I0428 20:18:33.400481  1161 layer_factory.hpp:77] Creating layer mnist
I0428 20:18:33.400538  1161 db_lmdb.cpp:35] Opened lmdb examples/mnist/mnist_test_lmdb
I0428 20:18:33.400555  1161 net.cpp:86] Creating Layer mnist
I0428 20:18:33.400559  1161 net.cpp:382] mnist -> data
I0428 20:18:33.400568  1161 net.cpp:382] mnist -> label
I0428 20:18:33.400653  1161 data_layer.cpp:45] output data size: 100,1,28,28
I0428 20:18:33.402760  1161 net.cpp:124] Setting up mnist
I0428 20:18:33.402788  1161 net.cpp:131] Top shape: 100 1 28 28 (78400)
I0428 20:18:33.402808  1161 net.cpp:131] Top shape: 100 (100)
I0428 20:18:33.402812  1161 net.cpp:139] Memory required for data: 314000
I0428 20:18:33.402814  1161 layer_factory.hpp:77] Creating layer label_mnist_1_split
I0428 20:18:33.402827  1161 net.cpp:86] Creating Layer label_mnist_1_split
I0428 20:18:33.402832  1161 net.cpp:408] label_mnist_1_split <- label
I0428 20:18:33.402835  1161 net.cpp:382] label_mnist_1_split -> label_mnist_1_split_0
I0428 20:18:33.402843  1161 net.cpp:382] label_mnist_1_split -> label_mnist_1_split_1
I0428 20:18:33.402892  1161 net.cpp:124] Setting up label_mnist_1_split
I0428 20:18:33.402912  1161 net.cpp:131] Top shape: 100 (100)
I0428 20:18:33.402915  1161 net.cpp:131] Top shape: 100 (100)
I0428 20:18:33.402918  1161 net.cpp:139] Memory required for data: 314800
I0428 20:18:33.402921  1161 layer_factory.hpp:77] Creating layer conv0
I0428 20:18:33.402930  1161 net.cpp:86] Creating Layer conv0
I0428 20:18:33.402933  1161 net.cpp:408] conv0 <- data
I0428 20:18:33.402940  1161 net.cpp:382] conv0 -> conv0
I0428 20:18:33.404775  1161 net.cpp:124] Setting up conv0
I0428 20:18:33.404805  1161 net.cpp:131] Top shape: 100 50 24 24 (2880000)
I0428 20:18:33.404829  1161 net.cpp:139] Memory required for data: 11834800
I0428 20:18:33.404853  1161 layer_factory.hpp:77] Creating layer pool0
I0428 20:18:33.404860  1161 net.cpp:86] Creating Layer pool0
I0428 20:18:33.404863  1161 net.cpp:408] pool0 <- conv0
I0428 20:18:33.404867  1161 net.cpp:382] pool0 -> pool0
I0428 20:18:33.404938  1161 net.cpp:124] Setting up pool0
I0428 20:18:33.404952  1161 net.cpp:131] Top shape: 100 50 12 12 (720000)
I0428 20:18:33.404954  1161 net.cpp:139] Memory required for data: 14714800
I0428 20:18:33.404958  1161 layer_factory.hpp:77] Creating layer conv1
I0428 20:18:33.404968  1161 net.cpp:86] Creating Layer conv1
I0428 20:18:33.404971  1161 net.cpp:408] conv1 <- pool0
I0428 20:18:33.404976  1161 net.cpp:382] conv1 -> conv1
I0428 20:18:33.406668  1161 net.cpp:124] Setting up conv1
I0428 20:18:33.406682  1161 net.cpp:131] Top shape: 100 10 8 8 (64000)
I0428 20:18:33.406702  1161 net.cpp:139] Memory required for data: 14970800
I0428 20:18:33.406710  1161 layer_factory.hpp:77] Creating layer pool1
I0428 20:18:33.406718  1161 net.cpp:86] Creating Layer pool1
I0428 20:18:33.406721  1161 net.cpp:408] pool1 <- conv1
I0428 20:18:33.406728  1161 net.cpp:382] pool1 -> pool1
I0428 20:18:33.406782  1161 net.cpp:124] Setting up pool1
I0428 20:18:33.406788  1161 net.cpp:131] Top shape: 100 10 4 4 (16000)
I0428 20:18:33.406792  1161 net.cpp:139] Memory required for data: 15034800
I0428 20:18:33.406796  1161 layer_factory.hpp:77] Creating layer ip1
I0428 20:18:33.406817  1161 net.cpp:86] Creating Layer ip1
I0428 20:18:33.406821  1161 net.cpp:408] ip1 <- pool1
I0428 20:18:33.406827  1161 net.cpp:382] ip1 -> ip1
I0428 20:18:33.407024  1161 net.cpp:124] Setting up ip1
I0428 20:18:33.407032  1161 net.cpp:131] Top shape: 100 50 (5000)
I0428 20:18:33.407045  1161 net.cpp:139] Memory required for data: 15054800
I0428 20:18:33.407055  1161 layer_factory.hpp:77] Creating layer relu1
I0428 20:18:33.407061  1161 net.cpp:86] Creating Layer relu1
I0428 20:18:33.407064  1161 net.cpp:408] relu1 <- ip1
I0428 20:18:33.407070  1161 net.cpp:369] relu1 -> ip1 (in-place)
I0428 20:18:33.407291  1161 net.cpp:124] Setting up relu1
I0428 20:18:33.407300  1161 net.cpp:131] Top shape: 100 50 (5000)
I0428 20:18:33.407304  1161 net.cpp:139] Memory required for data: 15074800
I0428 20:18:33.407306  1161 layer_factory.hpp:77] Creating layer ip2
I0428 20:18:33.407315  1161 net.cpp:86] Creating Layer ip2
I0428 20:18:33.407317  1161 net.cpp:408] ip2 <- ip1
I0428 20:18:33.407322  1161 net.cpp:382] ip2 -> ip2
I0428 20:18:33.407449  1161 net.cpp:124] Setting up ip2
I0428 20:18:33.407456  1161 net.cpp:131] Top shape: 100 25 (2500)
I0428 20:18:33.407459  1161 net.cpp:139] Memory required for data: 15084800
I0428 20:18:33.407464  1161 layer_factory.hpp:77] Creating layer relu2
I0428 20:18:33.407469  1161 net.cpp:86] Creating Layer relu2
I0428 20:18:33.407472  1161 net.cpp:408] relu2 <- ip2
I0428 20:18:33.407477  1161 net.cpp:369] relu2 -> ip2 (in-place)
I0428 20:18:33.407719  1161 net.cpp:124] Setting up relu2
I0428 20:18:33.407728  1161 net.cpp:131] Top shape: 100 25 (2500)
I0428 20:18:33.407732  1161 net.cpp:139] Memory required for data: 15094800
I0428 20:18:33.407735  1161 layer_factory.hpp:77] Creating layer ip3
I0428 20:18:33.407742  1161 net.cpp:86] Creating Layer ip3
I0428 20:18:33.407745  1161 net.cpp:408] ip3 <- ip2
I0428 20:18:33.407750  1161 net.cpp:382] ip3 -> ip3
I0428 20:18:33.407876  1161 net.cpp:124] Setting up ip3
I0428 20:18:33.407883  1161 net.cpp:131] Top shape: 100 10 (1000)
I0428 20:18:33.407887  1161 net.cpp:139] Memory required for data: 15098800
I0428 20:18:33.407896  1161 layer_factory.hpp:77] Creating layer relu3
I0428 20:18:33.407902  1161 net.cpp:86] Creating Layer relu3
I0428 20:18:33.407904  1161 net.cpp:408] relu3 <- ip3
I0428 20:18:33.407909  1161 net.cpp:369] relu3 -> ip3 (in-place)
I0428 20:18:33.408767  1161 net.cpp:124] Setting up relu3
I0428 20:18:33.408792  1161 net.cpp:131] Top shape: 100 10 (1000)
I0428 20:18:33.408795  1161 net.cpp:139] Memory required for data: 15102800
I0428 20:18:33.408838  1161 layer_factory.hpp:77] Creating layer ip3_relu3_0_split
I0428 20:18:33.408860  1161 net.cpp:86] Creating Layer ip3_relu3_0_split
I0428 20:18:33.408864  1161 net.cpp:408] ip3_relu3_0_split <- ip3
I0428 20:18:33.408869  1161 net.cpp:382] ip3_relu3_0_split -> ip3_relu3_0_split_0
I0428 20:18:33.408874  1161 net.cpp:382] ip3_relu3_0_split -> ip3_relu3_0_split_1
I0428 20:18:33.408918  1161 net.cpp:124] Setting up ip3_relu3_0_split
I0428 20:18:33.408923  1161 net.cpp:131] Top shape: 100 10 (1000)
I0428 20:18:33.408927  1161 net.cpp:131] Top shape: 100 10 (1000)
I0428 20:18:33.408931  1161 net.cpp:139] Memory required for data: 15110800
I0428 20:18:33.408933  1161 layer_factory.hpp:77] Creating layer accuracy
I0428 20:18:33.408938  1161 net.cpp:86] Creating Layer accuracy
I0428 20:18:33.408941  1161 net.cpp:408] accuracy <- ip3_relu3_0_split_0
I0428 20:18:33.408946  1161 net.cpp:408] accuracy <- label_mnist_1_split_0
I0428 20:18:33.408951  1161 net.cpp:382] accuracy -> accuracy
…
