…
I0428 20:29:48.674736  3588 net.cpp:296] The NetState phase (0) differed from the phase (1) specified by a rule in layer mnist
I0428 20:29:48.674759  3588 net.cpp:296] The NetState phase (0) differed from the phase (1) specified by a rule in layer accuracy
I0428 20:29:48.674860  3588 net.cpp:53] Initializing net from parameters: 
name: "LeNet"
state {
  phase: TRAIN
  level: 0
  stage: ""
}
layer {
  name: "mnist"
  type: "Data"
  top: "data"
  top: "label"
  include {
    phase: TRAIN
  }
  transform_param {
    scale: 0.00390625
  }
  data_param {
    source: "examples/mnist/mnist_train_lmdb"
    batch_size: 64
    backend: LMDB
  }
}
layer {
  name: "conv0"
  type: "Convolution"
  bottom: "data"
  top: "conv0"
  param {
    lr_mult: 1
  }
  param {
    lr_mult: 2
  }
  convolution_param {
    num_output: 100
    kernel_size: 5
    stride: 1
    weight_filler {
      type: "xavier"
    }
    bias_filler {
      type: "constant"
    }
  }
}
layer {
  name: "pool0"
  type: "Pooling"
  bottom: "conv0"
  top: "pool0"
  pooling_param {
    pool: MAX
    kernel_size: 2
    stride: 2
  }
}
layer {
  name: "conv1"
  type: "Convolution"
  bottom: "pool0"
  top: "conv1"
  param {
    lr_mult: 1
  }
  param {
    lr_mult: 2
  }
  convolution_param {
    num_output: 10
    kernel_size: 5
    stride: 1
    weight_filler {
      type: "xavier"
    }
    bias_filler {
      type: "constant"
    }
  }
}
layer {
  name: "pool1"
  type: "Pooling"
  bottom: "conv1"
  top: "pool1"
  pooling_param {
    pool: MAX
    kernel_size: 2
    stride: 2
  }
}
layer {
  name: "ip1"
  type: "InnerProduct"
  bottom: "pool1"
  top: "ip1"
  param {
    lr_mult: 1
  }
  param {
    lr_mult: 2
  }
  inner_product_param {
    num_output: 25
    weight_filler {
      type: "xavier"
    }
    bias_filler {
      type: "constant"
    }
  }
}
layer {
  name: "relu1"
  type: "ReLU"
  bottom: "ip1"
  top: "ip1"
}
layer {
  name: "ip2"
  type: "InnerProduct"
  bottom: "ip1"
  top: "ip2"
  param {
    lr_mult: 1
  }
  param {
    lr_mult: 2
  }
  inner_product_param {
    num_output: 10
    weight_filler {
      type: "xavier"
    }
    bias_filler {
      type: "constant"
    }
  }
}
layer {
  name: "relu2"
  type: "ReLU"
  bottom: "ip2"
  top: "ip2"
}
layer {
  name: "loss"
  type: "SoftmaxWithLoss"
  bottom: "ip2"
  bottom: "label"
  top: "loss"
}
I0428 20:29:48.674969  3588 layer_factory.hpp:77] Creating layer mnist
I0428 20:29:48.675102  3588 db_lmdb.cpp:35] Opened lmdb examples/mnist/mnist_train_lmdb
I0428 20:29:48.675137  3588 net.cpp:86] Creating Layer mnist
I0428 20:29:48.675149  3588 net.cpp:382] mnist -> data
I0428 20:29:48.675185  3588 net.cpp:382] mnist -> label
I0428 20:29:48.676410  3588 data_layer.cpp:45] output data size: 64,1,28,28
I0428 20:29:48.678900  3588 net.cpp:124] Setting up mnist
I0428 20:29:48.678922  3588 net.cpp:131] Top shape: 64 1 28 28 (50176)
I0428 20:29:48.678932  3588 net.cpp:131] Top shape: 64 (64)
I0428 20:29:48.678939  3588 net.cpp:139] Memory required for data: 200960
I0428 20:29:48.678949  3588 layer_factory.hpp:77] Creating layer conv0
I0428 20:29:48.678973  3588 net.cpp:86] Creating Layer conv0
I0428 20:29:48.678984  3588 net.cpp:408] conv0 <- data
I0428 20:29:48.679003  3588 net.cpp:382] conv0 -> conv0
I0428 20:29:49.001854  3588 net.cpp:124] Setting up conv0
I0428 20:29:49.001885  3588 net.cpp:131] Top shape: 64 100 24 24 (3686400)
I0428 20:29:49.001890  3588 net.cpp:139] Memory required for data: 14946560
I0428 20:29:49.001929  3588 layer_factory.hpp:77] Creating layer pool0
I0428 20:29:49.001945  3588 net.cpp:86] Creating Layer pool0
I0428 20:29:49.001950  3588 net.cpp:408] pool0 <- conv0
I0428 20:29:49.001955  3588 net.cpp:382] pool0 -> pool0
I0428 20:29:49.002014  3588 net.cpp:124] Setting up pool0
I0428 20:29:49.002023  3588 net.cpp:131] Top shape: 64 100 12 12 (921600)
I0428 20:29:49.002027  3588 net.cpp:139] Memory required for data: 18632960
I0428 20:29:49.002030  3588 layer_factory.hpp:77] Creating layer conv1
I0428 20:29:49.002044  3588 net.cpp:86] Creating Layer conv1
I0428 20:29:49.002048  3588 net.cpp:408] conv1 <- pool0
I0428 20:29:49.002054  3588 net.cpp:382] conv1 -> conv1
I0428 20:29:49.004444  3588 net.cpp:124] Setting up conv1
I0428 20:29:49.004463  3588 net.cpp:131] Top shape: 64 10 8 8 (40960)
I0428 20:29:49.004468  3588 net.cpp:139] Memory required for data: 18796800
I0428 20:29:49.004479  3588 layer_factory.hpp:77] Creating layer pool1
I0428 20:29:49.004488  3588 net.cpp:86] Creating Layer pool1
I0428 20:29:49.004492  3588 net.cpp:408] pool1 <- conv1
I0428 20:29:49.004498  3588 net.cpp:382] pool1 -> pool1
I0428 20:29:49.004545  3588 net.cpp:124] Setting up pool1
I0428 20:29:49.004552  3588 net.cpp:131] Top shape: 64 10 4 4 (10240)
I0428 20:29:49.004555  3588 net.cpp:139] Memory required for data: 18837760
I0428 20:29:49.004559  3588 layer_factory.hpp:77] Creating layer ip1
I0428 20:29:49.004568  3588 net.cpp:86] Creating Layer ip1
I0428 20:29:49.004572  3588 net.cpp:408] ip1 <- pool1
I0428 20:29:49.004577  3588 net.cpp:382] ip1 -> ip1
I0428 20:29:49.004729  3588 net.cpp:124] Setting up ip1
I0428 20:29:49.004739  3588 net.cpp:131] Top shape: 64 25 (1600)
I0428 20:29:49.004742  3588 net.cpp:139] Memory required for data: 18844160
I0428 20:29:49.004751  3588 layer_factory.hpp:77] Creating layer relu1
I0428 20:29:49.004760  3588 net.cpp:86] Creating Layer relu1
I0428 20:29:49.004763  3588 net.cpp:408] relu1 <- ip1
I0428 20:29:49.004770  3588 net.cpp:369] relu1 -> ip1 (in-place)
I0428 20:29:49.004988  3588 net.cpp:124] Setting up relu1
I0428 20:29:49.005000  3588 net.cpp:131] Top shape: 64 25 (1600)
I0428 20:29:49.005004  3588 net.cpp:139] Memory required for data: 18850560
I0428 20:29:49.005008  3588 layer_factory.hpp:77] Creating layer ip2
I0428 20:29:49.005017  3588 net.cpp:86] Creating Layer ip2
I0428 20:29:49.005022  3588 net.cpp:408] ip2 <- ip1
I0428 20:29:49.005028  3588 net.cpp:382] ip2 -> ip2
I0428 20:29:49.005144  3588 net.cpp:124] Setting up ip2
I0428 20:29:49.005154  3588 net.cpp:131] Top shape: 64 10 (640)
I0428 20:29:49.005157  3588 net.cpp:139] Memory required for data: 18853120
I0428 20:29:49.005164  3588 layer_factory.hpp:77] Creating layer relu2
I0428 20:29:49.005172  3588 net.cpp:86] Creating Layer relu2
I0428 20:29:49.005175  3588 net.cpp:408] relu2 <- ip2
I0428 20:29:49.005180  3588 net.cpp:369] relu2 -> ip2 (in-place)
I0428 20:29:49.006049  3588 net.cpp:124] Setting up relu2
I0428 20:29:49.006064  3588 net.cpp:131] Top shape: 64 10 (640)
I0428 20:29:49.006068  3588 net.cpp:139] Memory required for data: 18855680
I0428 20:29:49.006072  3588 layer_factory.hpp:77] Creating layer loss
I0428 20:29:49.006081  3588 net.cpp:86] Creating Layer loss
I0428 20:29:49.006085  3588 net.cpp:408] loss <- ip2
I0428 20:29:49.006090  3588 net.cpp:408] loss <- label
I0428 20:29:49.006098  3588 net.cpp:382] loss -> loss
I0428 20:29:49.006120  3588 layer_factory.hpp:77] Creating layer loss
…
I0428 20:29:49.006871  3588 solver.cpp:173] Creating test net (#0) specified by net file: ECE595/mnist/train_test/var_everything2/lenet_train_test1528.prototxt
I0428 20:29:49.006903  3588 net.cpp:296] The NetState phase (1) differed from the phase (0) specified by a rule in layer mnist
I0428 20:29:49.007005  3588 net.cpp:53] Initializing net from parameters: 
name: "LeNet"
state {
  phase: TEST
}
layer {
  name: "mnist"
  type: "Data"
  top: "data"
  top: "label"
  include {
    phase: TEST
  }
  transform_param {
    scale: 0.00390625
  }
  data_param {
    source: "examples/mnist/mnist_test_lmdb"
    batch_size: 100
    backend: LMDB
  }
}
layer {
  name: "conv0"
  type: "Convolution"
  bottom: "data"
  top: "conv0"
  param {
    lr_mult: 1
  }
  param {
    lr_mult: 2
  }
  convolution_param {
    num_output: 100
    kernel_size: 5
    stride: 1
    weight_filler {
      type: "xavier"
    }
    bias_filler {
      type: "constant"
    }
  }
}
layer {
  name: "pool0"
  type: "Pooling"
  bottom: "conv0"
  top: "pool0"
  pooling_param {
    pool: MAX
    kernel_size: 2
    stride: 2
  }
}
layer {
  name: "conv1"
  type: "Convolution"
  bottom: "pool0"
  top: "conv1"
  param {
    lr_mult: 1
  }
  param {
    lr_mult: 2
  }
  convolution_param {
    num_output: 10
    kernel_size: 5
    stride: 1
    weight_filler {
      type: "xavier"
    }
    bias_filler {
      type: "constant"
    }
  }
}
layer {
  name: "pool1"
  type: "Pooling"
  bottom: "conv1"
  top: "pool1"
  pooling_param {
    pool: MAX
    kernel_size: 2
    stride: 2
  }
}
layer {
  name: "ip1"
  type: "InnerProduct"
  bottom: "pool1"
  top: "ip1"
  param {
    lr_mult: 1
  }
  param {
    lr_mult: 2
  }
  inner_product_param {
    num_output: 25
    weight_filler {
      type: "xavier"
    }
    bias_filler {
      type: "constant"
    }
  }
}
layer {
  name: "relu1"
  type: "ReLU"
  bottom: "ip1"
  top: "ip1"
}
layer {
  name: "ip2"
  type: "InnerProduct"
  bottom: "ip1"
  top: "ip2"
  param {
    lr_mult: 1
  }
  param {
    lr_mult: 2
  }
  inner_product_param {
    num_output: 10
    weight_filler {
      type: "xavier"
    }
    bias_filler {
      type: "constant"
    }
  }
}
layer {
  name: "relu2"
  type: "ReLU"
  bottom: "ip2"
  top: "ip2"
}
layer {
  name: "accuracy"
  type: "Accuracy"
  bottom: "ip2"
  bottom: "label"
  top: "accuracy"
  include {
    phase: TEST
  }
}
layer {
  name: "loss"
  type: "SoftmaxWithLoss"
  bottom: "ip2"
  bottom: "label"
  top: "loss"
}
I0428 20:29:49.007087  3588 layer_factory.hpp:77] Creating layer mnist
I0428 20:29:49.007143  3588 db_lmdb.cpp:35] Opened lmdb examples/mnist/mnist_test_lmdb
I0428 20:29:49.007159  3588 net.cpp:86] Creating Layer mnist
I0428 20:29:49.007165  3588 net.cpp:382] mnist -> data
I0428 20:29:49.007174  3588 net.cpp:382] mnist -> label
I0428 20:29:49.007278  3588 data_layer.cpp:45] output data size: 100,1,28,28
I0428 20:29:49.009485  3588 net.cpp:124] Setting up mnist
I0428 20:29:49.009503  3588 net.cpp:131] Top shape: 100 1 28 28 (78400)
I0428 20:29:49.009510  3588 net.cpp:131] Top shape: 100 (100)
I0428 20:29:49.009512  3588 net.cpp:139] Memory required for data: 314000
I0428 20:29:49.009517  3588 layer_factory.hpp:77] Creating layer label_mnist_1_split
I0428 20:29:49.009526  3588 net.cpp:86] Creating Layer label_mnist_1_split
I0428 20:29:49.009528  3588 net.cpp:408] label_mnist_1_split <- label
I0428 20:29:49.009536  3588 net.cpp:382] label_mnist_1_split -> label_mnist_1_split_0
I0428 20:29:49.009543  3588 net.cpp:382] label_mnist_1_split -> label_mnist_1_split_1
I0428 20:29:49.009610  3588 net.cpp:124] Setting up label_mnist_1_split
I0428 20:29:49.009618  3588 net.cpp:131] Top shape: 100 (100)
I0428 20:29:49.009624  3588 net.cpp:131] Top shape: 100 (100)
I0428 20:29:49.009627  3588 net.cpp:139] Memory required for data: 314800
I0428 20:29:49.009630  3588 layer_factory.hpp:77] Creating layer conv0
I0428 20:29:49.009641  3588 net.cpp:86] Creating Layer conv0
I0428 20:29:49.009645  3588 net.cpp:408] conv0 <- data
I0428 20:29:49.009654  3588 net.cpp:382] conv0 -> conv0
I0428 20:29:49.011620  3588 net.cpp:124] Setting up conv0
I0428 20:29:49.011636  3588 net.cpp:131] Top shape: 100 100 24 24 (5760000)
I0428 20:29:49.011641  3588 net.cpp:139] Memory required for data: 23354800
I0428 20:29:49.011651  3588 layer_factory.hpp:77] Creating layer pool0
I0428 20:29:49.011660  3588 net.cpp:86] Creating Layer pool0
I0428 20:29:49.011665  3588 net.cpp:408] pool0 <- conv0
I0428 20:29:49.011672  3588 net.cpp:382] pool0 -> pool0
I0428 20:29:49.011715  3588 net.cpp:124] Setting up pool0
I0428 20:29:49.011723  3588 net.cpp:131] Top shape: 100 100 12 12 (1440000)
I0428 20:29:49.011725  3588 net.cpp:139] Memory required for data: 29114800
I0428 20:29:49.011729  3588 layer_factory.hpp:77] Creating layer conv1
I0428 20:29:49.011744  3588 net.cpp:86] Creating Layer conv1
I0428 20:29:49.011749  3588 net.cpp:408] conv1 <- pool0
I0428 20:29:49.011755  3588 net.cpp:382] conv1 -> conv1
I0428 20:29:49.013799  3588 net.cpp:124] Setting up conv1
I0428 20:29:49.013816  3588 net.cpp:131] Top shape: 100 10 8 8 (64000)
I0428 20:29:49.013821  3588 net.cpp:139] Memory required for data: 29370800
I0428 20:29:49.013831  3588 layer_factory.hpp:77] Creating layer pool1
I0428 20:29:49.013839  3588 net.cpp:86] Creating Layer pool1
I0428 20:29:49.013844  3588 net.cpp:408] pool1 <- conv1
I0428 20:29:49.013850  3588 net.cpp:382] pool1 -> pool1
I0428 20:29:49.013895  3588 net.cpp:124] Setting up pool1
I0428 20:29:49.013901  3588 net.cpp:131] Top shape: 100 10 4 4 (16000)
I0428 20:29:49.013905  3588 net.cpp:139] Memory required for data: 29434800
I0428 20:29:49.013908  3588 layer_factory.hpp:77] Creating layer ip1
I0428 20:29:49.013917  3588 net.cpp:86] Creating Layer ip1
I0428 20:29:49.013921  3588 net.cpp:408] ip1 <- pool1
I0428 20:29:49.013927  3588 net.cpp:382] ip1 -> ip1
I0428 20:29:49.014082  3588 net.cpp:124] Setting up ip1
I0428 20:29:49.014092  3588 net.cpp:131] Top shape: 100 25 (2500)
I0428 20:29:49.014096  3588 net.cpp:139] Memory required for data: 29444800
I0428 20:29:49.014106  3588 layer_factory.hpp:77] Creating layer relu1
I0428 20:29:49.014112  3588 net.cpp:86] Creating Layer relu1
I0428 20:29:49.014117  3588 net.cpp:408] relu1 <- ip1
I0428 20:29:49.014123  3588 net.cpp:369] relu1 -> ip1 (in-place)
I0428 20:29:49.014327  3588 net.cpp:124] Setting up relu1
I0428 20:29:49.014338  3588 net.cpp:131] Top shape: 100 25 (2500)
I0428 20:29:49.014343  3588 net.cpp:139] Memory required for data: 29454800
I0428 20:29:49.014346  3588 layer_factory.hpp:77] Creating layer ip2
I0428 20:29:49.014355  3588 net.cpp:86] Creating Layer ip2
I0428 20:29:49.014359  3588 net.cpp:408] ip2 <- ip1
I0428 20:29:49.014371  3588 net.cpp:382] ip2 -> ip2
I0428 20:29:49.014493  3588 net.cpp:124] Setting up ip2
I0428 20:29:49.014503  3588 net.cpp:131] Top shape: 100 10 (1000)
I0428 20:29:49.014506  3588 net.cpp:139] Memory required for data: 29458800
I0428 20:29:49.014513  3588 layer_factory.hpp:77] Creating layer relu2
I0428 20:29:49.014520  3588 net.cpp:86] Creating Layer relu2
I0428 20:29:49.014524  3588 net.cpp:408] relu2 <- ip2
I0428 20:29:49.014528  3588 net.cpp:369] relu2 -> ip2 (in-place)
I0428 20:29:49.014785  3588 net.cpp:124] Setting up relu2
I0428 20:29:49.014794  3588 net.cpp:131] Top shape: 100 10 (1000)
I0428 20:29:49.014798  3588 net.cpp:139] Memory required for data: 29462800
I0428 20:29:49.014801  3588 layer_factory.hpp:77] Creating layer ip2_relu2_0_split
I0428 20:29:49.014808  3588 net.cpp:86] Creating Layer ip2_relu2_0_split
I0428 20:29:49.014812  3588 net.cpp:408] ip2_relu2_0_split <- ip2
I0428 20:29:49.014817  3588 net.cpp:382] ip2_relu2_0_split -> ip2_relu2_0_split_0
I0428 20:29:49.014837  3588 net.cpp:382] ip2_relu2_0_split -> ip2_relu2_0_split_1
I0428 20:29:49.014883  3588 net.cpp:124] Setting up ip2_relu2_0_split
I0428 20:29:49.014889  3588 net.cpp:131] Top shape: 100 10 (1000)
I0428 20:29:49.014894  3588 net.cpp:131] Top shape: 100 10 (1000)
I0428 20:29:49.014899  3588 net.cpp:139] Memory required for data: 29470800
I0428 20:29:49.014906  3588 layer_factory.hpp:77] Creating layer accuracy
I0428 20:29:49.014914  3588 net.cpp:86] Creating Layer accuracy
I0428 20:29:49.014919  3588 net.cpp:408] accuracy <- ip2_relu2_0_split_0
I0428 20:29:49.014924  3588 net.cpp:408] accuracy <- label_mnist_1_split_0
I0428 20:29:49.014930  3588 net.cpp:382] accuracy -> accuracy
…
