…
I0428 19:54:29.742705 28003 net.cpp:296] The NetState phase (0) differed from the phase (1) specified by a rule in layer mnist
I0428 19:54:29.742720 28003 net.cpp:296] The NetState phase (0) differed from the phase (1) specified by a rule in layer accuracy
I0428 19:54:29.742794 28003 net.cpp:53] Initializing net from parameters: 
name: "LeNet"
state {
  phase: TRAIN
  level: 0
  stage: ""
}
layer {
  name: "mnist"
  type: "Data"
  top: "data"
  top: "label"
  include {
    phase: TRAIN
  }
  transform_param {
    scale: 0.00390625
  }
  data_param {
    source: "examples/mnist/mnist_train_lmdb"
    batch_size: 64
    backend: LMDB
  }
}
layer {
  name: "conv0"
  type: "Convolution"
  bottom: "data"
  top: "conv0"
  param {
    lr_mult: 1
  }
  param {
    lr_mult: 2
  }
  convolution_param {
    num_output: 5
    kernel_size: 5
    stride: 1
    weight_filler {
      type: "xavier"
    }
    bias_filler {
      type: "constant"
    }
  }
}
layer {
  name: "pool0"
  type: "Pooling"
  bottom: "conv0"
  top: "pool0"
  pooling_param {
    pool: MAX
    kernel_size: 2
    stride: 2
  }
}
layer {
  name: "conv1"
  type: "Convolution"
  bottom: "pool0"
  top: "conv1"
  param {
    lr_mult: 1
  }
  param {
    lr_mult: 2
  }
  convolution_param {
    num_output: 100
    kernel_size: 5
    stride: 1
    weight_filler {
      type: "xavier"
    }
    bias_filler {
      type: "constant"
    }
  }
}
layer {
  name: "pool1"
  type: "Pooling"
  bottom: "conv1"
  top: "pool1"
  pooling_param {
    pool: MAX
    kernel_size: 2
    stride: 2
  }
}
layer {
  name: "ip1"
  type: "InnerProduct"
  bottom: "pool1"
  top: "ip1"
  param {
    lr_mult: 1
  }
  param {
    lr_mult: 2
  }
  inner_product_param {
    num_output: 50
    weight_filler {
      type: "xavier"
    }
    bias_filler {
      type: "constant"
    }
  }
}
layer {
  name: "relu1"
  type: "ReLU"
  bottom: "ip1"
  top: "ip1"
}
layer {
  name: "ip2"
  type: "InnerProduct"
  bottom: "ip1"
  top: "ip2"
  param {
    lr_mult: 1
  }
  param {
    lr_mult: 2
  }
  inner_product_param {
    num_output: 10
    weight_filler {
      type: "xavier"
    }
    bias_filler {
      type: "constant"
    }
  }
}
layer {
  name: "relu2"
  type: "ReLU"
  bottom: "ip2"
  top: "ip2"
}
layer {
  name: "loss"
  type: "SoftmaxWithLoss"
  bottom: "ip2"
  bottom: "label"
  top: "loss"
}
I0428 19:54:29.742853 28003 layer_factory.hpp:77] Creating layer mnist
I0428 19:54:29.742936 28003 db_lmdb.cpp:35] Opened lmdb examples/mnist/mnist_train_lmdb
I0428 19:54:29.742955 28003 net.cpp:86] Creating Layer mnist
I0428 19:54:29.742962 28003 net.cpp:382] mnist -> data
I0428 19:54:29.742980 28003 net.cpp:382] mnist -> label
I0428 19:54:29.743963 28003 data_layer.cpp:45] output data size: 64,1,28,28
I0428 19:54:29.746405 28003 net.cpp:124] Setting up mnist
I0428 19:54:29.746421 28003 net.cpp:131] Top shape: 64 1 28 28 (50176)
I0428 19:54:29.746426 28003 net.cpp:131] Top shape: 64 (64)
I0428 19:54:29.746429 28003 net.cpp:139] Memory required for data: 200960
I0428 19:54:29.746435 28003 layer_factory.hpp:77] Creating layer conv0
I0428 19:54:29.746449 28003 net.cpp:86] Creating Layer conv0
I0428 19:54:29.746469 28003 net.cpp:408] conv0 <- data
I0428 19:54:29.746480 28003 net.cpp:382] conv0 -> conv0
I0428 19:54:29.976152 28003 net.cpp:124] Setting up conv0
I0428 19:54:29.976196 28003 net.cpp:131] Top shape: 64 5 24 24 (184320)
I0428 19:54:29.976200 28003 net.cpp:139] Memory required for data: 938240
I0428 19:54:29.976233 28003 layer_factory.hpp:77] Creating layer pool0
I0428 19:54:29.976261 28003 net.cpp:86] Creating Layer pool0
I0428 19:54:29.976265 28003 net.cpp:408] pool0 <- conv0
I0428 19:54:29.976271 28003 net.cpp:382] pool0 -> pool0
I0428 19:54:29.976317 28003 net.cpp:124] Setting up pool0
I0428 19:54:29.976325 28003 net.cpp:131] Top shape: 64 5 12 12 (46080)
I0428 19:54:29.976343 28003 net.cpp:139] Memory required for data: 1122560
I0428 19:54:29.976346 28003 layer_factory.hpp:77] Creating layer conv1
I0428 19:54:29.976356 28003 net.cpp:86] Creating Layer conv1
I0428 19:54:29.976359 28003 net.cpp:408] conv1 <- pool0
I0428 19:54:29.976364 28003 net.cpp:382] conv1 -> conv1
I0428 19:54:29.979032 28003 net.cpp:124] Setting up conv1
I0428 19:54:29.979061 28003 net.cpp:131] Top shape: 64 100 8 8 (409600)
I0428 19:54:29.979065 28003 net.cpp:139] Memory required for data: 2760960
I0428 19:54:29.979074 28003 layer_factory.hpp:77] Creating layer pool1
I0428 19:54:29.979082 28003 net.cpp:86] Creating Layer pool1
I0428 19:54:29.979085 28003 net.cpp:408] pool1 <- conv1
I0428 19:54:29.979090 28003 net.cpp:382] pool1 -> pool1
I0428 19:54:29.979142 28003 net.cpp:124] Setting up pool1
I0428 19:54:29.979147 28003 net.cpp:131] Top shape: 64 100 4 4 (102400)
I0428 19:54:29.979151 28003 net.cpp:139] Memory required for data: 3170560
I0428 19:54:29.979152 28003 layer_factory.hpp:77] Creating layer ip1
I0428 19:54:29.979159 28003 net.cpp:86] Creating Layer ip1
I0428 19:54:29.979162 28003 net.cpp:408] ip1 <- pool1
I0428 19:54:29.979167 28003 net.cpp:382] ip1 -> ip1
I0428 19:54:29.980509 28003 net.cpp:124] Setting up ip1
I0428 19:54:29.980536 28003 net.cpp:131] Top shape: 64 50 (3200)
I0428 19:54:29.980540 28003 net.cpp:139] Memory required for data: 3183360
I0428 19:54:29.980548 28003 layer_factory.hpp:77] Creating layer relu1
I0428 19:54:29.980554 28003 net.cpp:86] Creating Layer relu1
I0428 19:54:29.980557 28003 net.cpp:408] relu1 <- ip1
I0428 19:54:29.980562 28003 net.cpp:369] relu1 -> ip1 (in-place)
I0428 19:54:29.980726 28003 net.cpp:124] Setting up relu1
I0428 19:54:29.980734 28003 net.cpp:131] Top shape: 64 50 (3200)
I0428 19:54:29.980737 28003 net.cpp:139] Memory required for data: 3196160
I0428 19:54:29.980741 28003 layer_factory.hpp:77] Creating layer ip2
I0428 19:54:29.980747 28003 net.cpp:86] Creating Layer ip2
I0428 19:54:29.980751 28003 net.cpp:408] ip2 <- ip1
I0428 19:54:29.980756 28003 net.cpp:382] ip2 -> ip2
I0428 19:54:29.980895 28003 net.cpp:124] Setting up ip2
I0428 19:54:29.980902 28003 net.cpp:131] Top shape: 64 10 (640)
I0428 19:54:29.980906 28003 net.cpp:139] Memory required for data: 3198720
I0428 19:54:29.980911 28003 layer_factory.hpp:77] Creating layer relu2
I0428 19:54:29.980917 28003 net.cpp:86] Creating Layer relu2
I0428 19:54:29.980921 28003 net.cpp:408] relu2 <- ip2
I0428 19:54:29.980926 28003 net.cpp:369] relu2 -> ip2 (in-place)
I0428 19:54:29.981798 28003 net.cpp:124] Setting up relu2
I0428 19:54:29.981812 28003 net.cpp:131] Top shape: 64 10 (640)
I0428 19:54:29.981817 28003 net.cpp:139] Memory required for data: 3201280
I0428 19:54:29.981823 28003 layer_factory.hpp:77] Creating layer loss
I0428 19:54:29.981832 28003 net.cpp:86] Creating Layer loss
I0428 19:54:29.981838 28003 net.cpp:408] loss <- ip2
I0428 19:54:29.981843 28003 net.cpp:408] loss <- label
I0428 19:54:29.981851 28003 net.cpp:382] loss -> loss
I0428 19:54:29.981875 28003 layer_factory.hpp:77] Creating layer loss
…
I0428 19:54:29.982573 28003 solver.cpp:173] Creating test net (#0) specified by net file: ECE595/mnist/train_test/var_everything2/lenet_train_test712.prototxt
I0428 19:54:29.982599 28003 net.cpp:296] The NetState phase (1) differed from the phase (0) specified by a rule in layer mnist
I0428 19:54:29.982682 28003 net.cpp:53] Initializing net from parameters: 
name: "LeNet"
state {
  phase: TEST
}
layer {
  name: "mnist"
  type: "Data"
  top: "data"
  top: "label"
  include {
    phase: TEST
  }
  transform_param {
    scale: 0.00390625
  }
  data_param {
    source: "examples/mnist/mnist_test_lmdb"
    batch_size: 100
    backend: LMDB
  }
}
layer {
  name: "conv0"
  type: "Convolution"
  bottom: "data"
  top: "conv0"
  param {
    lr_mult: 1
  }
  param {
    lr_mult: 2
  }
  convolution_param {
    num_output: 5
    kernel_size: 5
    stride: 1
    weight_filler {
      type: "xavier"
    }
    bias_filler {
      type: "constant"
    }
  }
}
layer {
  name: "pool0"
  type: "Pooling"
  bottom: "conv0"
  top: "pool0"
  pooling_param {
    pool: MAX
    kernel_size: 2
    stride: 2
  }
}
layer {
  name: "conv1"
  type: "Convolution"
  bottom: "pool0"
  top: "conv1"
  param {
    lr_mult: 1
  }
  param {
    lr_mult: 2
  }
  convolution_param {
    num_output: 100
    kernel_size: 5
    stride: 1
    weight_filler {
      type: "xavier"
    }
    bias_filler {
      type: "constant"
    }
  }
}
layer {
  name: "pool1"
  type: "Pooling"
  bottom: "conv1"
  top: "pool1"
  pooling_param {
    pool: MAX
    kernel_size: 2
    stride: 2
  }
}
layer {
  name: "ip1"
  type: "InnerProduct"
  bottom: "pool1"
  top: "ip1"
  param {
    lr_mult: 1
  }
  param {
    lr_mult: 2
  }
  inner_product_param {
    num_output: 50
    weight_filler {
      type: "xavier"
    }
    bias_filler {
      type: "constant"
    }
  }
}
layer {
  name: "relu1"
  type: "ReLU"
  bottom: "ip1"
  top: "ip1"
}
layer {
  name: "ip2"
  type: "InnerProduct"
  bottom: "ip1"
  top: "ip2"
  param {
    lr_mult: 1
  }
  param {
    lr_mult: 2
  }
  inner_product_param {
    num_output: 10
    weight_filler {
      type: "xavier"
    }
    bias_filler {
      type: "constant"
    }
  }
}
layer {
  name: "relu2"
  type: "ReLU"
  bottom: "ip2"
  top: "ip2"
}
layer {
  name: "accuracy"
  type: "Accuracy"
  bottom: "ip2"
  bottom: "label"
  top: "accuracy"
  include {
    phase: TEST
  }
}
layer {
  name: "loss"
  type: "SoftmaxWithLoss"
  bottom: "ip2"
  bottom: "label"
  top: "loss"
}
I0428 19:54:29.982743 28003 layer_factory.hpp:77] Creating layer mnist
I0428 19:54:29.982787 28003 db_lmdb.cpp:35] Opened lmdb examples/mnist/mnist_test_lmdb
I0428 19:54:29.982800 28003 net.cpp:86] Creating Layer mnist
I0428 19:54:29.982803 28003 net.cpp:382] mnist -> data
I0428 19:54:29.982810 28003 net.cpp:382] mnist -> label
I0428 19:54:29.982892 28003 data_layer.cpp:45] output data size: 100,1,28,28
I0428 19:54:29.983973 28003 net.cpp:124] Setting up mnist
I0428 19:54:29.983999 28003 net.cpp:131] Top shape: 100 1 28 28 (78400)
I0428 19:54:29.984004 28003 net.cpp:131] Top shape: 100 (100)
I0428 19:54:29.984007 28003 net.cpp:139] Memory required for data: 314000
I0428 19:54:29.984010 28003 layer_factory.hpp:77] Creating layer label_mnist_1_split
I0428 19:54:29.984017 28003 net.cpp:86] Creating Layer label_mnist_1_split
I0428 19:54:29.984020 28003 net.cpp:408] label_mnist_1_split <- label
I0428 19:54:29.984025 28003 net.cpp:382] label_mnist_1_split -> label_mnist_1_split_0
I0428 19:54:29.984031 28003 net.cpp:382] label_mnist_1_split -> label_mnist_1_split_1
I0428 19:54:29.984154 28003 net.cpp:124] Setting up label_mnist_1_split
I0428 19:54:29.984161 28003 net.cpp:131] Top shape: 100 (100)
I0428 19:54:29.984166 28003 net.cpp:131] Top shape: 100 (100)
I0428 19:54:29.984169 28003 net.cpp:139] Memory required for data: 314800
I0428 19:54:29.984171 28003 layer_factory.hpp:77] Creating layer conv0
I0428 19:54:29.984179 28003 net.cpp:86] Creating Layer conv0
I0428 19:54:29.984182 28003 net.cpp:408] conv0 <- data
I0428 19:54:29.984187 28003 net.cpp:382] conv0 -> conv0
I0428 19:54:29.986040 28003 net.cpp:124] Setting up conv0
I0428 19:54:29.986054 28003 net.cpp:131] Top shape: 100 5 24 24 (288000)
I0428 19:54:29.986058 28003 net.cpp:139] Memory required for data: 1466800
I0428 19:54:29.986068 28003 layer_factory.hpp:77] Creating layer pool0
I0428 19:54:29.986088 28003 net.cpp:86] Creating Layer pool0
I0428 19:54:29.986091 28003 net.cpp:408] pool0 <- conv0
I0428 19:54:29.986098 28003 net.cpp:382] pool0 -> pool0
I0428 19:54:29.986133 28003 net.cpp:124] Setting up pool0
I0428 19:54:29.986153 28003 net.cpp:131] Top shape: 100 5 12 12 (72000)
I0428 19:54:29.986156 28003 net.cpp:139] Memory required for data: 1754800
I0428 19:54:29.986158 28003 layer_factory.hpp:77] Creating layer conv1
I0428 19:54:29.986181 28003 net.cpp:86] Creating Layer conv1
I0428 19:54:29.986183 28003 net.cpp:408] conv1 <- pool0
I0428 19:54:29.986188 28003 net.cpp:382] conv1 -> conv1
I0428 19:54:29.987859 28003 net.cpp:124] Setting up conv1
I0428 19:54:29.987870 28003 net.cpp:131] Top shape: 100 100 8 8 (640000)
I0428 19:54:29.987874 28003 net.cpp:139] Memory required for data: 4314800
I0428 19:54:29.987884 28003 layer_factory.hpp:77] Creating layer pool1
I0428 19:54:29.987890 28003 net.cpp:86] Creating Layer pool1
I0428 19:54:29.987893 28003 net.cpp:408] pool1 <- conv1
I0428 19:54:29.987898 28003 net.cpp:382] pool1 -> pool1
I0428 19:54:29.987951 28003 net.cpp:124] Setting up pool1
I0428 19:54:29.987967 28003 net.cpp:131] Top shape: 100 100 4 4 (160000)
I0428 19:54:29.987969 28003 net.cpp:139] Memory required for data: 4954800
I0428 19:54:29.987972 28003 layer_factory.hpp:77] Creating layer ip1
I0428 19:54:29.987978 28003 net.cpp:86] Creating Layer ip1
I0428 19:54:29.987982 28003 net.cpp:408] ip1 <- pool1
I0428 19:54:29.987987 28003 net.cpp:382] ip1 -> ip1
I0428 19:54:29.988541 28003 net.cpp:124] Setting up ip1
I0428 19:54:29.988548 28003 net.cpp:131] Top shape: 100 50 (5000)
I0428 19:54:29.988553 28003 net.cpp:139] Memory required for data: 4974800
I0428 19:54:29.988559 28003 layer_factory.hpp:77] Creating layer relu1
I0428 19:54:29.988564 28003 net.cpp:86] Creating Layer relu1
I0428 19:54:29.988569 28003 net.cpp:408] relu1 <- ip1
I0428 19:54:29.988572 28003 net.cpp:369] relu1 -> ip1 (in-place)
I0428 19:54:29.988749 28003 net.cpp:124] Setting up relu1
I0428 19:54:29.988765 28003 net.cpp:131] Top shape: 100 50 (5000)
I0428 19:54:29.988767 28003 net.cpp:139] Memory required for data: 4994800
I0428 19:54:29.988770 28003 layer_factory.hpp:77] Creating layer ip2
I0428 19:54:29.988778 28003 net.cpp:86] Creating Layer ip2
I0428 19:54:29.988781 28003 net.cpp:408] ip2 <- ip1
I0428 19:54:29.988786 28003 net.cpp:382] ip2 -> ip2
I0428 19:54:29.988970 28003 net.cpp:124] Setting up ip2
I0428 19:54:29.988979 28003 net.cpp:131] Top shape: 100 10 (1000)
I0428 19:54:29.988982 28003 net.cpp:139] Memory required for data: 4998800
I0428 19:54:29.988988 28003 layer_factory.hpp:77] Creating layer relu2
I0428 19:54:29.988996 28003 net.cpp:86] Creating Layer relu2
I0428 19:54:29.988999 28003 net.cpp:408] relu2 <- ip2
I0428 19:54:29.989004 28003 net.cpp:369] relu2 -> ip2 (in-place)
I0428 19:54:29.989300 28003 net.cpp:124] Setting up relu2
I0428 19:54:29.989308 28003 net.cpp:131] Top shape: 100 10 (1000)
I0428 19:54:29.989317 28003 net.cpp:139] Memory required for data: 5002800
I0428 19:54:29.989320 28003 layer_factory.hpp:77] Creating layer ip2_relu2_0_split
I0428 19:54:29.989326 28003 net.cpp:86] Creating Layer ip2_relu2_0_split
I0428 19:54:29.989329 28003 net.cpp:408] ip2_relu2_0_split <- ip2
I0428 19:54:29.989334 28003 net.cpp:382] ip2_relu2_0_split -> ip2_relu2_0_split_0
I0428 19:54:29.989356 28003 net.cpp:382] ip2_relu2_0_split -> ip2_relu2_0_split_1
I0428 19:54:29.989393 28003 net.cpp:124] Setting up ip2_relu2_0_split
I0428 19:54:29.989404 28003 net.cpp:131] Top shape: 100 10 (1000)
I0428 19:54:29.989408 28003 net.cpp:131] Top shape: 100 10 (1000)
I0428 19:54:29.989423 28003 net.cpp:139] Memory required for data: 5010800
I0428 19:54:29.989425 28003 layer_factory.hpp:77] Creating layer accuracy
I0428 19:54:29.989430 28003 net.cpp:86] Creating Layer accuracy
I0428 19:54:29.989433 28003 net.cpp:408] accuracy <- ip2_relu2_0_split_0
I0428 19:54:29.989436 28003 net.cpp:408] accuracy <- label_mnist_1_split_0
I0428 19:54:29.989442 28003 net.cpp:382] accuracy -> accuracy
…
