…
I0428 20:11:28.167757 32074 net.cpp:296] The NetState phase (0) differed from the phase (1) specified by a rule in layer mnist
I0428 20:11:28.167786 32074 net.cpp:296] The NetState phase (0) differed from the phase (1) specified by a rule in layer accuracy
I0428 20:11:28.167866 32074 net.cpp:53] Initializing net from parameters: 
name: "LeNet"
state {
  phase: TRAIN
  level: 0
  stage: ""
}
layer {
  name: "mnist"
  type: "Data"
  top: "data"
  top: "label"
  include {
    phase: TRAIN
  }
  transform_param {
    scale: 0.00390625
  }
  data_param {
    source: "examples/mnist/mnist_train_lmdb"
    batch_size: 64
    backend: LMDB
  }
}
layer {
  name: "conv0"
  type: "Convolution"
  bottom: "data"
  top: "conv0"
  param {
    lr_mult: 1
  }
  param {
    lr_mult: 2
  }
  convolution_param {
    num_output: 25
    kernel_size: 5
    stride: 1
    weight_filler {
      type: "xavier"
    }
    bias_filler {
      type: "constant"
    }
  }
}
layer {
  name: "pool0"
  type: "Pooling"
  bottom: "conv0"
  top: "pool0"
  pooling_param {
    pool: MAX
    kernel_size: 2
    stride: 2
  }
}
layer {
  name: "conv1"
  type: "Convolution"
  bottom: "pool0"
  top: "conv1"
  param {
    lr_mult: 1
  }
  param {
    lr_mult: 2
  }
  convolution_param {
    num_output: 50
    kernel_size: 5
    stride: 1
    weight_filler {
      type: "xavier"
    }
    bias_filler {
      type: "constant"
    }
  }
}
layer {
  name: "pool1"
  type: "Pooling"
  bottom: "conv1"
  top: "pool1"
  pooling_param {
    pool: MAX
    kernel_size: 2
    stride: 2
  }
}
layer {
  name: "ip1"
  type: "InnerProduct"
  bottom: "pool1"
  top: "ip1"
  param {
    lr_mult: 1
  }
  param {
    lr_mult: 2
  }
  inner_product_param {
    num_output: 25
    weight_filler {
      type: "xavier"
    }
    bias_filler {
      type: "constant"
    }
  }
}
layer {
  name: "relu1"
  type: "ReLU"
  bottom: "ip1"
  top: "ip1"
}
layer {
  name: "ip2"
  type: "InnerProduct"
  bottom: "ip1"
  top: "ip2"
  param {
    lr_mult: 1
  }
  param {
    lr_mult: 2
  }
  inner_product_param {
    num_output: 50
    weight_filler {
      type: "xavier"
    }
    bias_filler {
      type: "constant"
    }
  }
}
layer {
  name: "relu2"
  type: "ReLU"
  bottom: "ip2"
  top: "ip2"
}
layer {
  name: "ip3"
  type: "InnerProduct"
  bottom: "ip2"
  top: "ip3"
  param {
    lr_mult: 1
  }
  param {
    lr_mult: 2
  }
  inner_product_param {
    num_output: 10
    weight_filler {
      type: "xavier"
    }
    bias_filler {
      type: "constant"
    }
  }
}
layer {
  name: "relu3"
  type: "ReLU"
  bottom: "ip3"
  top: "ip3"
}
layer {
  name: "loss"
  type: "SoftmaxWithLoss"
  bottom: "ip3"
  bottom: "label"
  top: "loss"
}
I0428 20:11:28.167944 32074 layer_factory.hpp:77] Creating layer mnist
I0428 20:11:28.168026 32074 db_lmdb.cpp:35] Opened lmdb examples/mnist/mnist_train_lmdb
I0428 20:11:28.168045 32074 net.cpp:86] Creating Layer mnist
I0428 20:11:28.168052 32074 net.cpp:382] mnist -> data
I0428 20:11:28.168071 32074 net.cpp:382] mnist -> label
I0428 20:11:28.168982 32074 data_layer.cpp:45] output data size: 64,1,28,28
I0428 20:11:28.171212 32074 net.cpp:124] Setting up mnist
I0428 20:11:28.171243 32074 net.cpp:131] Top shape: 64 1 28 28 (50176)
I0428 20:11:28.171248 32074 net.cpp:131] Top shape: 64 (64)
I0428 20:11:28.171252 32074 net.cpp:139] Memory required for data: 200960
I0428 20:11:28.171257 32074 layer_factory.hpp:77] Creating layer conv0
I0428 20:11:28.171272 32074 net.cpp:86] Creating Layer conv0
I0428 20:11:28.171288 32074 net.cpp:408] conv0 <- data
I0428 20:11:28.171300 32074 net.cpp:382] conv0 -> conv0
I0428 20:11:28.398257 32074 net.cpp:124] Setting up conv0
I0428 20:11:28.398283 32074 net.cpp:131] Top shape: 64 25 24 24 (921600)
I0428 20:11:28.398286 32074 net.cpp:139] Memory required for data: 3887360
I0428 20:11:28.398299 32074 layer_factory.hpp:77] Creating layer pool0
I0428 20:11:28.398326 32074 net.cpp:86] Creating Layer pool0
I0428 20:11:28.398331 32074 net.cpp:408] pool0 <- conv0
I0428 20:11:28.398336 32074 net.cpp:382] pool0 -> pool0
I0428 20:11:28.398386 32074 net.cpp:124] Setting up pool0
I0428 20:11:28.398391 32074 net.cpp:131] Top shape: 64 25 12 12 (230400)
I0428 20:11:28.398392 32074 net.cpp:139] Memory required for data: 4808960
I0428 20:11:28.398396 32074 layer_factory.hpp:77] Creating layer conv1
I0428 20:11:28.398406 32074 net.cpp:86] Creating Layer conv1
I0428 20:11:28.398408 32074 net.cpp:408] conv1 <- pool0
I0428 20:11:28.398413 32074 net.cpp:382] conv1 -> conv1
I0428 20:11:28.400459 32074 net.cpp:124] Setting up conv1
I0428 20:11:28.400472 32074 net.cpp:131] Top shape: 64 50 8 8 (204800)
I0428 20:11:28.400477 32074 net.cpp:139] Memory required for data: 5628160
I0428 20:11:28.400486 32074 layer_factory.hpp:77] Creating layer pool1
I0428 20:11:28.400493 32074 net.cpp:86] Creating Layer pool1
I0428 20:11:28.400497 32074 net.cpp:408] pool1 <- conv1
I0428 20:11:28.400502 32074 net.cpp:382] pool1 -> pool1
I0428 20:11:28.400537 32074 net.cpp:124] Setting up pool1
I0428 20:11:28.400542 32074 net.cpp:131] Top shape: 64 50 4 4 (51200)
I0428 20:11:28.400545 32074 net.cpp:139] Memory required for data: 5832960
I0428 20:11:28.400548 32074 layer_factory.hpp:77] Creating layer ip1
I0428 20:11:28.400555 32074 net.cpp:86] Creating Layer ip1
I0428 20:11:28.400558 32074 net.cpp:408] ip1 <- pool1
I0428 20:11:28.400563 32074 net.cpp:382] ip1 -> ip1
I0428 20:11:28.400807 32074 net.cpp:124] Setting up ip1
I0428 20:11:28.400821 32074 net.cpp:131] Top shape: 64 25 (1600)
I0428 20:11:28.400825 32074 net.cpp:139] Memory required for data: 5839360
I0428 20:11:28.400831 32074 layer_factory.hpp:77] Creating layer relu1
I0428 20:11:28.400836 32074 net.cpp:86] Creating Layer relu1
I0428 20:11:28.400840 32074 net.cpp:408] relu1 <- ip1
I0428 20:11:28.400845 32074 net.cpp:369] relu1 -> ip1 (in-place)
I0428 20:11:28.401000 32074 net.cpp:124] Setting up relu1
I0428 20:11:28.401008 32074 net.cpp:131] Top shape: 64 25 (1600)
I0428 20:11:28.401011 32074 net.cpp:139] Memory required for data: 5845760
I0428 20:11:28.401015 32074 layer_factory.hpp:77] Creating layer ip2
I0428 20:11:28.401021 32074 net.cpp:86] Creating Layer ip2
I0428 20:11:28.401023 32074 net.cpp:408] ip2 <- ip1
I0428 20:11:28.401027 32074 net.cpp:382] ip2 -> ip2
I0428 20:11:28.402001 32074 net.cpp:124] Setting up ip2
I0428 20:11:28.402014 32074 net.cpp:131] Top shape: 64 50 (3200)
I0428 20:11:28.402032 32074 net.cpp:139] Memory required for data: 5858560
I0428 20:11:28.402039 32074 layer_factory.hpp:77] Creating layer relu2
I0428 20:11:28.402045 32074 net.cpp:86] Creating Layer relu2
I0428 20:11:28.402048 32074 net.cpp:408] relu2 <- ip2
I0428 20:11:28.402053 32074 net.cpp:369] relu2 -> ip2 (in-place)
I0428 20:11:28.402868 32074 net.cpp:124] Setting up relu2
I0428 20:11:28.402880 32074 net.cpp:131] Top shape: 64 50 (3200)
I0428 20:11:28.402899 32074 net.cpp:139] Memory required for data: 5871360
I0428 20:11:28.402904 32074 layer_factory.hpp:77] Creating layer ip3
I0428 20:11:28.402910 32074 net.cpp:86] Creating Layer ip3
I0428 20:11:28.402915 32074 net.cpp:408] ip3 <- ip2
I0428 20:11:28.402935 32074 net.cpp:382] ip3 -> ip3
I0428 20:11:28.403051 32074 net.cpp:124] Setting up ip3
I0428 20:11:28.403059 32074 net.cpp:131] Top shape: 64 10 (640)
I0428 20:11:28.403061 32074 net.cpp:139] Memory required for data: 5873920
I0428 20:11:28.403069 32074 layer_factory.hpp:77] Creating layer relu3
I0428 20:11:28.403074 32074 net.cpp:86] Creating Layer relu3
I0428 20:11:28.403077 32074 net.cpp:408] relu3 <- ip3
I0428 20:11:28.403081 32074 net.cpp:369] relu3 -> ip3 (in-place)
I0428 20:11:28.403259 32074 net.cpp:124] Setting up relu3
I0428 20:11:28.403266 32074 net.cpp:131] Top shape: 64 10 (640)
I0428 20:11:28.403270 32074 net.cpp:139] Memory required for data: 5876480
I0428 20:11:28.403273 32074 layer_factory.hpp:77] Creating layer loss
I0428 20:11:28.403278 32074 net.cpp:86] Creating Layer loss
I0428 20:11:28.403282 32074 net.cpp:408] loss <- ip3
I0428 20:11:28.403285 32074 net.cpp:408] loss <- label
I0428 20:11:28.403290 32074 net.cpp:382] loss -> loss
I0428 20:11:28.403308 32074 layer_factory.hpp:77] Creating layer loss
…
I0428 20:11:28.404012 32074 solver.cpp:173] Creating test net (#0) specified by net file: ECE595/mnist/train_test/var_everything2/lenet_train_test1159.prototxt
I0428 20:11:28.404053 32074 net.cpp:296] The NetState phase (1) differed from the phase (0) specified by a rule in layer mnist
I0428 20:11:28.404157 32074 net.cpp:53] Initializing net from parameters: 
name: "LeNet"
state {
  phase: TEST
}
layer {
  name: "mnist"
  type: "Data"
  top: "data"
  top: "label"
  include {
    phase: TEST
  }
  transform_param {
    scale: 0.00390625
  }
  data_param {
    source: "examples/mnist/mnist_test_lmdb"
    batch_size: 100
    backend: LMDB
  }
}
layer {
  name: "conv0"
  type: "Convolution"
  bottom: "data"
  top: "conv0"
  param {
    lr_mult: 1
  }
  param {
    lr_mult: 2
  }
  convolution_param {
    num_output: 25
    kernel_size: 5
    stride: 1
    weight_filler {
      type: "xavier"
    }
    bias_filler {
      type: "constant"
    }
  }
}
layer {
  name: "pool0"
  type: "Pooling"
  bottom: "conv0"
  top: "pool0"
  pooling_param {
    pool: MAX
    kernel_size: 2
    stride: 2
  }
}
layer {
  name: "conv1"
  type: "Convolution"
  bottom: "pool0"
  top: "conv1"
  param {
    lr_mult: 1
  }
  param {
    lr_mult: 2
  }
  convolution_param {
    num_output: 50
    kernel_size: 5
    stride: 1
    weight_filler {
      type: "xavier"
    }
    bias_filler {
      type: "constant"
    }
  }
}
layer {
  name: "pool1"
  type: "Pooling"
  bottom: "conv1"
  top: "pool1"
  pooling_param {
    pool: MAX
    kernel_size: 2
    stride: 2
  }
}
layer {
  name: "ip1"
  type: "InnerProduct"
  bottom: "pool1"
  top: "ip1"
  param {
    lr_mult: 1
  }
  param {
    lr_mult: 2
  }
  inner_product_param {
    num_output: 25
    weight_filler {
      type: "xavier"
    }
    bias_filler {
      type: "constant"
    }
  }
}
layer {
  name: "relu1"
  type: "ReLU"
  bottom: "ip1"
  top: "ip1"
}
layer {
  name: "ip2"
  type: "InnerProduct"
  bottom: "ip1"
  top: "ip2"
  param {
    lr_mult: 1
  }
  param {
    lr_mult: 2
  }
  inner_product_param {
    num_output: 50
    weight_filler {
      type: "xavier"
    }
    bias_filler {
      type: "constant"
    }
  }
}
layer {
  name: "relu2"
  type: "ReLU"
  bottom: "ip2"
  top: "ip2"
}
layer {
  name: "ip3"
  type: "InnerProduct"
  bottom: "ip2"
  top: "ip3"
  param {
    lr_mult: 1
  }
  param {
    lr_mult: 2
  }
  inner_product_param {
    num_output: 10
    weight_filler {
      type: "xavier"
    }
    bias_filler {
      type: "constant"
    }
  }
}
layer {
  name: "relu3"
  type: "ReLU"
  bottom: "ip3"
  top: "ip3"
}
layer {
  name: "accuracy"
  type: "Accuracy"
  bottom: "ip3"
  bottom: "label"
  top: "accuracy"
  include {
    phase: TEST
  }
}
layer {
  name: "loss"
  type: "SoftmaxWithLoss"
  bottom: "ip3"
  bottom: "label"
  top: "loss"
}
I0428 20:11:28.404233 32074 layer_factory.hpp:77] Creating layer mnist
I0428 20:11:28.404275 32074 db_lmdb.cpp:35] Opened lmdb examples/mnist/mnist_test_lmdb
I0428 20:11:28.404291 32074 net.cpp:86] Creating Layer mnist
I0428 20:11:28.404295 32074 net.cpp:382] mnist -> data
I0428 20:11:28.404304 32074 net.cpp:382] mnist -> label
I0428 20:11:28.404383 32074 data_layer.cpp:45] output data size: 100,1,28,28
I0428 20:11:28.406397 32074 net.cpp:124] Setting up mnist
I0428 20:11:28.406426 32074 net.cpp:131] Top shape: 100 1 28 28 (78400)
I0428 20:11:28.406448 32074 net.cpp:131] Top shape: 100 (100)
I0428 20:11:28.406451 32074 net.cpp:139] Memory required for data: 314000
I0428 20:11:28.406455 32074 layer_factory.hpp:77] Creating layer label_mnist_1_split
I0428 20:11:28.406461 32074 net.cpp:86] Creating Layer label_mnist_1_split
I0428 20:11:28.406464 32074 net.cpp:408] label_mnist_1_split <- label
I0428 20:11:28.406469 32074 net.cpp:382] label_mnist_1_split -> label_mnist_1_split_0
I0428 20:11:28.406476 32074 net.cpp:382] label_mnist_1_split -> label_mnist_1_split_1
I0428 20:11:28.406517 32074 net.cpp:124] Setting up label_mnist_1_split
I0428 20:11:28.406522 32074 net.cpp:131] Top shape: 100 (100)
I0428 20:11:28.406527 32074 net.cpp:131] Top shape: 100 (100)
I0428 20:11:28.406528 32074 net.cpp:139] Memory required for data: 314800
I0428 20:11:28.406532 32074 layer_factory.hpp:77] Creating layer conv0
I0428 20:11:28.406539 32074 net.cpp:86] Creating Layer conv0
I0428 20:11:28.406558 32074 net.cpp:408] conv0 <- data
I0428 20:11:28.406564 32074 net.cpp:382] conv0 -> conv0
I0428 20:11:28.408311 32074 net.cpp:124] Setting up conv0
I0428 20:11:28.408341 32074 net.cpp:131] Top shape: 100 25 24 24 (1440000)
I0428 20:11:28.408345 32074 net.cpp:139] Memory required for data: 6074800
I0428 20:11:28.408368 32074 layer_factory.hpp:77] Creating layer pool0
I0428 20:11:28.408375 32074 net.cpp:86] Creating Layer pool0
I0428 20:11:28.408377 32074 net.cpp:408] pool0 <- conv0
I0428 20:11:28.408382 32074 net.cpp:382] pool0 -> pool0
I0428 20:11:28.408416 32074 net.cpp:124] Setting up pool0
I0428 20:11:28.408421 32074 net.cpp:131] Top shape: 100 25 12 12 (360000)
I0428 20:11:28.408424 32074 net.cpp:139] Memory required for data: 7514800
I0428 20:11:28.408427 32074 layer_factory.hpp:77] Creating layer conv1
I0428 20:11:28.408434 32074 net.cpp:86] Creating Layer conv1
I0428 20:11:28.408437 32074 net.cpp:408] conv1 <- pool0
I0428 20:11:28.408442 32074 net.cpp:382] conv1 -> conv1
I0428 20:11:28.410176 32074 net.cpp:124] Setting up conv1
I0428 20:11:28.410187 32074 net.cpp:131] Top shape: 100 50 8 8 (320000)
I0428 20:11:28.410210 32074 net.cpp:139] Memory required for data: 8794800
I0428 20:11:28.410234 32074 layer_factory.hpp:77] Creating layer pool1
I0428 20:11:28.410241 32074 net.cpp:86] Creating Layer pool1
I0428 20:11:28.410245 32074 net.cpp:408] pool1 <- conv1
I0428 20:11:28.410251 32074 net.cpp:382] pool1 -> pool1
I0428 20:11:28.410287 32074 net.cpp:124] Setting up pool1
I0428 20:11:28.410293 32074 net.cpp:131] Top shape: 100 50 4 4 (80000)
I0428 20:11:28.410297 32074 net.cpp:139] Memory required for data: 9114800
I0428 20:11:28.410300 32074 layer_factory.hpp:77] Creating layer ip1
I0428 20:11:28.410306 32074 net.cpp:86] Creating Layer ip1
I0428 20:11:28.410318 32074 net.cpp:408] ip1 <- pool1
I0428 20:11:28.410323 32074 net.cpp:382] ip1 -> ip1
I0428 20:11:28.410554 32074 net.cpp:124] Setting up ip1
I0428 20:11:28.410562 32074 net.cpp:131] Top shape: 100 25 (2500)
I0428 20:11:28.410576 32074 net.cpp:139] Memory required for data: 9124800
I0428 20:11:28.410585 32074 layer_factory.hpp:77] Creating layer relu1
I0428 20:11:28.410590 32074 net.cpp:86] Creating Layer relu1
I0428 20:11:28.410593 32074 net.cpp:408] relu1 <- ip1
I0428 20:11:28.410598 32074 net.cpp:369] relu1 -> ip1 (in-place)
I0428 20:11:28.410759 32074 net.cpp:124] Setting up relu1
I0428 20:11:28.410769 32074 net.cpp:131] Top shape: 100 25 (2500)
I0428 20:11:28.410778 32074 net.cpp:139] Memory required for data: 9134800
I0428 20:11:28.410781 32074 layer_factory.hpp:77] Creating layer ip2
I0428 20:11:28.410789 32074 net.cpp:86] Creating Layer ip2
I0428 20:11:28.410791 32074 net.cpp:408] ip2 <- ip1
I0428 20:11:28.410796 32074 net.cpp:382] ip2 -> ip2
I0428 20:11:28.410926 32074 net.cpp:124] Setting up ip2
I0428 20:11:28.410934 32074 net.cpp:131] Top shape: 100 50 (5000)
I0428 20:11:28.410938 32074 net.cpp:139] Memory required for data: 9154800
I0428 20:11:28.410943 32074 layer_factory.hpp:77] Creating layer relu2
I0428 20:11:28.410948 32074 net.cpp:86] Creating Layer relu2
I0428 20:11:28.410950 32074 net.cpp:408] relu2 <- ip2
I0428 20:11:28.410954 32074 net.cpp:369] relu2 -> ip2 (in-place)
I0428 20:11:28.411180 32074 net.cpp:124] Setting up relu2
I0428 20:11:28.411190 32074 net.cpp:131] Top shape: 100 50 (5000)
I0428 20:11:28.411192 32074 net.cpp:139] Memory required for data: 9174800
I0428 20:11:28.411195 32074 layer_factory.hpp:77] Creating layer ip3
I0428 20:11:28.411201 32074 net.cpp:86] Creating Layer ip3
I0428 20:11:28.411218 32074 net.cpp:408] ip3 <- ip2
I0428 20:11:28.411223 32074 net.cpp:382] ip3 -> ip3
I0428 20:11:28.411317 32074 net.cpp:124] Setting up ip3
I0428 20:11:28.411324 32074 net.cpp:131] Top shape: 100 10 (1000)
I0428 20:11:28.411326 32074 net.cpp:139] Memory required for data: 9178800
I0428 20:11:28.411334 32074 layer_factory.hpp:77] Creating layer relu3
I0428 20:11:28.411339 32074 net.cpp:86] Creating Layer relu3
I0428 20:11:28.411342 32074 net.cpp:408] relu3 <- ip3
I0428 20:11:28.411346 32074 net.cpp:369] relu3 -> ip3 (in-place)
I0428 20:11:28.412192 32074 net.cpp:124] Setting up relu3
I0428 20:11:28.412204 32074 net.cpp:131] Top shape: 100 10 (1000)
I0428 20:11:28.412221 32074 net.cpp:139] Memory required for data: 9182800
I0428 20:11:28.412225 32074 layer_factory.hpp:77] Creating layer ip3_relu3_0_split
I0428 20:11:28.412230 32074 net.cpp:86] Creating Layer ip3_relu3_0_split
I0428 20:11:28.412233 32074 net.cpp:408] ip3_relu3_0_split <- ip3
I0428 20:11:28.412238 32074 net.cpp:382] ip3_relu3_0_split -> ip3_relu3_0_split_0
I0428 20:11:28.412245 32074 net.cpp:382] ip3_relu3_0_split -> ip3_relu3_0_split_1
I0428 20:11:28.412289 32074 net.cpp:124] Setting up ip3_relu3_0_split
I0428 20:11:28.412295 32074 net.cpp:131] Top shape: 100 10 (1000)
I0428 20:11:28.412299 32074 net.cpp:131] Top shape: 100 10 (1000)
I0428 20:11:28.412302 32074 net.cpp:139] Memory required for data: 9190800
I0428 20:11:28.412312 32074 layer_factory.hpp:77] Creating layer accuracy
I0428 20:11:28.412317 32074 net.cpp:86] Creating Layer accuracy
I0428 20:11:28.412319 32074 net.cpp:408] accuracy <- ip3_relu3_0_split_0
I0428 20:11:28.412323 32074 net.cpp:408] accuracy <- label_mnist_1_split_0
I0428 20:11:28.412328 32074 net.cpp:382] accuracy -> accuracy
…
