…
I0428 19:33:21.293500 23083 net.cpp:296] The NetState phase (0) differed from the phase (1) specified by a rule in layer mnist
I0428 19:33:21.293519 23083 net.cpp:296] The NetState phase (0) differed from the phase (1) specified by a rule in layer accuracy
I0428 19:33:21.293596 23083 net.cpp:53] Initializing net from parameters: 
name: "LeNet"
state {
  phase: TRAIN
  level: 0
  stage: ""
}
layer {
  name: "mnist"
  type: "Data"
  top: "data"
  top: "label"
  include {
    phase: TRAIN
  }
  transform_param {
    scale: 0.00390625
  }
  data_param {
    source: "examples/mnist/mnist_train_lmdb"
    batch_size: 64
    backend: LMDB
  }
}
layer {
  name: "conv0"
  type: "Convolution"
  bottom: "data"
  top: "conv0"
  param {
    lr_mult: 1
  }
  param {
    lr_mult: 2
  }
  convolution_param {
    num_output: 25
    kernel_size: 5
    stride: 1
    weight_filler {
      type: "xavier"
    }
    bias_filler {
      type: "constant"
    }
  }
}
layer {
  name: "pool0"
  type: "Pooling"
  bottom: "conv0"
  top: "pool0"
  pooling_param {
    pool: MAX
    kernel_size: 2
    stride: 2
  }
}
layer {
  name: "ip1"
  type: "InnerProduct"
  bottom: "pool0"
  top: "ip1"
  param {
    lr_mult: 1
  }
  param {
    lr_mult: 2
  }
  inner_product_param {
    num_output: 25
    weight_filler {
      type: "xavier"
    }
    bias_filler {
      type: "constant"
    }
  }
}
layer {
  name: "relu1"
  type: "ReLU"
  bottom: "ip1"
  top: "ip1"
}
layer {
  name: "ip2"
  type: "InnerProduct"
  bottom: "ip1"
  top: "ip2"
  param {
    lr_mult: 1
  }
  param {
    lr_mult: 2
  }
  inner_product_param {
    num_output: 10
    weight_filler {
      type: "xavier"
    }
    bias_filler {
      type: "constant"
    }
  }
}
layer {
  name: "relu2"
  type: "ReLU"
  bottom: "ip2"
  top: "ip2"
}
layer {
  name: "ip3"
  type: "InnerProduct"
  bottom: "ip2"
  top: "ip3"
  param {
    lr_mult: 1
  }
  param {
    lr_mult: 2
  }
  inner_product_param {
    num_output: 10
    weight_filler {
      type: "xavier"
    }
    bias_filler {
      type: "constant"
    }
  }
}
layer {
  name: "relu3"
  type: "ReLU"
  bottom: "ip3"
  top: "ip3"
}
layer {
  name: "loss"
  type: "SoftmaxWithLoss"
  bottom: "ip3"
  bottom: "label"
  top: "loss"
}
I0428 19:33:21.293684 23083 layer_factory.hpp:77] Creating layer mnist
I0428 19:33:21.293802 23083 db_lmdb.cpp:35] Opened lmdb examples/mnist/mnist_train_lmdb
I0428 19:33:21.293829 23083 net.cpp:86] Creating Layer mnist
I0428 19:33:21.293838 23083 net.cpp:382] mnist -> data
I0428 19:33:21.293864 23083 net.cpp:382] mnist -> label
I0428 19:33:21.294876 23083 data_layer.cpp:45] output data size: 64,1,28,28
I0428 19:33:21.297070 23083 net.cpp:124] Setting up mnist
I0428 19:33:21.297087 23083 net.cpp:131] Top shape: 64 1 28 28 (50176)
I0428 19:33:21.297096 23083 net.cpp:131] Top shape: 64 (64)
I0428 19:33:21.297101 23083 net.cpp:139] Memory required for data: 200960
I0428 19:33:21.297111 23083 layer_factory.hpp:77] Creating layer conv0
I0428 19:33:21.297135 23083 net.cpp:86] Creating Layer conv0
I0428 19:33:21.297158 23083 net.cpp:408] conv0 <- data
I0428 19:33:21.297173 23083 net.cpp:382] conv0 -> conv0
I0428 19:33:21.527122 23083 net.cpp:124] Setting up conv0
I0428 19:33:21.527150 23083 net.cpp:131] Top shape: 64 25 24 24 (921600)
I0428 19:33:21.527155 23083 net.cpp:139] Memory required for data: 3887360
I0428 19:33:21.527175 23083 layer_factory.hpp:77] Creating layer pool0
I0428 19:33:21.527191 23083 net.cpp:86] Creating Layer pool0
I0428 19:33:21.527215 23083 net.cpp:408] pool0 <- conv0
I0428 19:33:21.527225 23083 net.cpp:382] pool0 -> pool0
I0428 19:33:21.527276 23083 net.cpp:124] Setting up pool0
I0428 19:33:21.527284 23083 net.cpp:131] Top shape: 64 25 12 12 (230400)
I0428 19:33:21.527288 23083 net.cpp:139] Memory required for data: 4808960
I0428 19:33:21.527293 23083 layer_factory.hpp:77] Creating layer ip1
I0428 19:33:21.527304 23083 net.cpp:86] Creating Layer ip1
I0428 19:33:21.527313 23083 net.cpp:408] ip1 <- pool0
I0428 19:33:21.527321 23083 net.cpp:382] ip1 -> ip1
I0428 19:33:21.528749 23083 net.cpp:124] Setting up ip1
I0428 19:33:21.528764 23083 net.cpp:131] Top shape: 64 25 (1600)
I0428 19:33:21.528769 23083 net.cpp:139] Memory required for data: 4815360
I0428 19:33:21.528780 23083 layer_factory.hpp:77] Creating layer relu1
I0428 19:33:21.528805 23083 net.cpp:86] Creating Layer relu1
I0428 19:33:21.528836 23083 net.cpp:408] relu1 <- ip1
I0428 19:33:21.528843 23083 net.cpp:369] relu1 -> ip1 (in-place)
I0428 19:33:21.529047 23083 net.cpp:124] Setting up relu1
I0428 19:33:21.529057 23083 net.cpp:131] Top shape: 64 25 (1600)
I0428 19:33:21.529063 23083 net.cpp:139] Memory required for data: 4821760
I0428 19:33:21.529068 23083 layer_factory.hpp:77] Creating layer ip2
I0428 19:33:21.529078 23083 net.cpp:86] Creating Layer ip2
I0428 19:33:21.529084 23083 net.cpp:408] ip2 <- ip1
I0428 19:33:21.529093 23083 net.cpp:382] ip2 -> ip2
I0428 19:33:21.529208 23083 net.cpp:124] Setting up ip2
I0428 19:33:21.529217 23083 net.cpp:131] Top shape: 64 10 (640)
I0428 19:33:21.529222 23083 net.cpp:139] Memory required for data: 4824320
I0428 19:33:21.529234 23083 layer_factory.hpp:77] Creating layer relu2
I0428 19:33:21.529243 23083 net.cpp:86] Creating Layer relu2
I0428 19:33:21.529249 23083 net.cpp:408] relu2 <- ip2
I0428 19:33:21.529256 23083 net.cpp:369] relu2 -> ip2 (in-place)
I0428 19:33:21.529986 23083 net.cpp:124] Setting up relu2
I0428 19:33:21.530000 23083 net.cpp:131] Top shape: 64 10 (640)
I0428 19:33:21.530006 23083 net.cpp:139] Memory required for data: 4826880
I0428 19:33:21.530011 23083 layer_factory.hpp:77] Creating layer ip3
I0428 19:33:21.530023 23083 net.cpp:86] Creating Layer ip3
I0428 19:33:21.530028 23083 net.cpp:408] ip3 <- ip2
I0428 19:33:21.530037 23083 net.cpp:382] ip3 -> ip3
I0428 19:33:21.530165 23083 net.cpp:124] Setting up ip3
I0428 19:33:21.530174 23083 net.cpp:131] Top shape: 64 10 (640)
I0428 19:33:21.530179 23083 net.cpp:139] Memory required for data: 4829440
I0428 19:33:21.530189 23083 layer_factory.hpp:77] Creating layer relu3
I0428 19:33:21.530197 23083 net.cpp:86] Creating Layer relu3
I0428 19:33:21.530203 23083 net.cpp:408] relu3 <- ip3
I0428 19:33:21.530210 23083 net.cpp:369] relu3 -> ip3 (in-place)
I0428 19:33:21.530376 23083 net.cpp:124] Setting up relu3
I0428 19:33:21.530386 23083 net.cpp:131] Top shape: 64 10 (640)
I0428 19:33:21.530390 23083 net.cpp:139] Memory required for data: 4832000
I0428 19:33:21.530395 23083 layer_factory.hpp:77] Creating layer loss
I0428 19:33:21.530403 23083 net.cpp:86] Creating Layer loss
I0428 19:33:21.530408 23083 net.cpp:408] loss <- ip3
I0428 19:33:21.530416 23083 net.cpp:408] loss <- label
I0428 19:33:21.530423 23083 net.cpp:382] loss -> loss
I0428 19:33:21.530445 23083 layer_factory.hpp:77] Creating layer loss
…
I0428 19:33:21.531049 23083 solver.cpp:173] Creating test net (#0) specified by net file: ECE595/mnist/train_test/var_everything2/lenet_train_test177.prototxt
I0428 19:33:21.531078 23083 net.cpp:296] The NetState phase (1) differed from the phase (0) specified by a rule in layer mnist
I0428 19:33:21.531177 23083 net.cpp:53] Initializing net from parameters: 
name: "LeNet"
state {
  phase: TEST
}
layer {
  name: "mnist"
  type: "Data"
  top: "data"
  top: "label"
  include {
    phase: TEST
  }
  transform_param {
    scale: 0.00390625
  }
  data_param {
    source: "examples/mnist/mnist_test_lmdb"
    batch_size: 100
    backend: LMDB
  }
}
layer {
  name: "conv0"
  type: "Convolution"
  bottom: "data"
  top: "conv0"
  param {
    lr_mult: 1
  }
  param {
    lr_mult: 2
  }
  convolution_param {
    num_output: 25
    kernel_size: 5
    stride: 1
    weight_filler {
      type: "xavier"
    }
    bias_filler {
      type: "constant"
    }
  }
}
layer {
  name: "pool0"
  type: "Pooling"
  bottom: "conv0"
  top: "pool0"
  pooling_param {
    pool: MAX
    kernel_size: 2
    stride: 2
  }
}
layer {
  name: "ip1"
  type: "InnerProduct"
  bottom: "pool0"
  top: "ip1"
  param {
    lr_mult: 1
  }
  param {
    lr_mult: 2
  }
  inner_product_param {
    num_output: 25
    weight_filler {
      type: "xavier"
    }
    bias_filler {
      type: "constant"
    }
  }
}
layer {
  name: "relu1"
  type: "ReLU"
  bottom: "ip1"
  top: "ip1"
}
layer {
  name: "ip2"
  type: "InnerProduct"
  bottom: "ip1"
  top: "ip2"
  param {
    lr_mult: 1
  }
  param {
    lr_mult: 2
  }
  inner_product_param {
    num_output: 10
    weight_filler {
      type: "xavier"
    }
    bias_filler {
      type: "constant"
    }
  }
}
layer {
  name: "relu2"
  type: "ReLU"
  bottom: "ip2"
  top: "ip2"
}
layer {
  name: "ip3"
  type: "InnerProduct"
  bottom: "ip2"
  top: "ip3"
  param {
    lr_mult: 1
  }
  param {
    lr_mult: 2
  }
  inner_product_param {
    num_output: 10
    weight_filler {
      type: "xavier"
    }
    bias_filler {
      type: "constant"
    }
  }
}
layer {
  name: "relu3"
  type: "ReLU"
  bottom: "ip3"
  top: "ip3"
}
layer {
  name: "accuracy"
  type: "Accuracy"
  bottom: "ip3"
  bottom: "label"
  top: "accuracy"
  include {
    phase: TEST
  }
}
layer {
  name: "loss"
  type: "SoftmaxWithLoss"
  bottom: "ip3"
  bottom: "label"
  top: "loss"
}
I0428 19:33:21.531265 23083 layer_factory.hpp:77] Creating layer mnist
I0428 19:33:21.531327 23083 db_lmdb.cpp:35] Opened lmdb examples/mnist/mnist_test_lmdb
I0428 19:33:21.531342 23083 net.cpp:86] Creating Layer mnist
I0428 19:33:21.531349 23083 net.cpp:382] mnist -> data
I0428 19:33:21.531361 23083 net.cpp:382] mnist -> label
I0428 19:33:21.531489 23083 data_layer.cpp:45] output data size: 100,1,28,28
I0428 19:33:21.532847 23083 net.cpp:124] Setting up mnist
I0428 19:33:21.532877 23083 net.cpp:131] Top shape: 100 1 28 28 (78400)
I0428 19:33:21.532886 23083 net.cpp:131] Top shape: 100 (100)
I0428 19:33:21.532891 23083 net.cpp:139] Memory required for data: 314000
I0428 19:33:21.532896 23083 layer_factory.hpp:77] Creating layer label_mnist_1_split
I0428 19:33:21.532907 23083 net.cpp:86] Creating Layer label_mnist_1_split
I0428 19:33:21.532912 23083 net.cpp:408] label_mnist_1_split <- label
I0428 19:33:21.532920 23083 net.cpp:382] label_mnist_1_split -> label_mnist_1_split_0
I0428 19:33:21.532930 23083 net.cpp:382] label_mnist_1_split -> label_mnist_1_split_1
I0428 19:33:21.533022 23083 net.cpp:124] Setting up label_mnist_1_split
I0428 19:33:21.533030 23083 net.cpp:131] Top shape: 100 (100)
I0428 19:33:21.533037 23083 net.cpp:131] Top shape: 100 (100)
I0428 19:33:21.533042 23083 net.cpp:139] Memory required for data: 314800
I0428 19:33:21.533058 23083 layer_factory.hpp:77] Creating layer conv0
I0428 19:33:21.533072 23083 net.cpp:86] Creating Layer conv0
I0428 19:33:21.533079 23083 net.cpp:408] conv0 <- data
I0428 19:33:21.533087 23083 net.cpp:382] conv0 -> conv0
I0428 19:33:21.534637 23083 net.cpp:124] Setting up conv0
I0428 19:33:21.534663 23083 net.cpp:131] Top shape: 100 25 24 24 (1440000)
I0428 19:33:21.534670 23083 net.cpp:139] Memory required for data: 6074800
I0428 19:33:21.534683 23083 layer_factory.hpp:77] Creating layer pool0
I0428 19:33:21.534693 23083 net.cpp:86] Creating Layer pool0
I0428 19:33:21.534699 23083 net.cpp:408] pool0 <- conv0
I0428 19:33:21.534708 23083 net.cpp:382] pool0 -> pool0
I0428 19:33:21.534747 23083 net.cpp:124] Setting up pool0
I0428 19:33:21.534755 23083 net.cpp:131] Top shape: 100 25 12 12 (360000)
I0428 19:33:21.534760 23083 net.cpp:139] Memory required for data: 7514800
I0428 19:33:21.534765 23083 layer_factory.hpp:77] Creating layer ip1
I0428 19:33:21.534775 23083 net.cpp:86] Creating Layer ip1
I0428 19:33:21.534780 23083 net.cpp:408] ip1 <- pool0
I0428 19:33:21.534788 23083 net.cpp:382] ip1 -> ip1
I0428 19:33:21.535409 23083 net.cpp:124] Setting up ip1
I0428 19:33:21.535421 23083 net.cpp:131] Top shape: 100 25 (2500)
I0428 19:33:21.535426 23083 net.cpp:139] Memory required for data: 7524800
I0428 19:33:21.535439 23083 layer_factory.hpp:77] Creating layer relu1
I0428 19:33:21.535462 23083 net.cpp:86] Creating Layer relu1
I0428 19:33:21.535468 23083 net.cpp:408] relu1 <- ip1
I0428 19:33:21.535477 23083 net.cpp:369] relu1 -> ip1 (in-place)
I0428 19:33:21.535663 23083 net.cpp:124] Setting up relu1
I0428 19:33:21.535673 23083 net.cpp:131] Top shape: 100 25 (2500)
I0428 19:33:21.535678 23083 net.cpp:139] Memory required for data: 7534800
I0428 19:33:21.535683 23083 layer_factory.hpp:77] Creating layer ip2
I0428 19:33:21.535692 23083 net.cpp:86] Creating Layer ip2
I0428 19:33:21.535698 23083 net.cpp:408] ip2 <- ip1
I0428 19:33:21.535706 23083 net.cpp:382] ip2 -> ip2
I0428 19:33:21.535807 23083 net.cpp:124] Setting up ip2
I0428 19:33:21.535815 23083 net.cpp:131] Top shape: 100 10 (1000)
I0428 19:33:21.535820 23083 net.cpp:139] Memory required for data: 7538800
I0428 19:33:21.535831 23083 layer_factory.hpp:77] Creating layer relu2
I0428 19:33:21.535842 23083 net.cpp:86] Creating Layer relu2
I0428 19:33:21.535848 23083 net.cpp:408] relu2 <- ip2
I0428 19:33:21.535856 23083 net.cpp:369] relu2 -> ip2 (in-place)
I0428 19:33:21.536607 23083 net.cpp:124] Setting up relu2
I0428 19:33:21.536622 23083 net.cpp:131] Top shape: 100 10 (1000)
I0428 19:33:21.536628 23083 net.cpp:139] Memory required for data: 7542800
I0428 19:33:21.536633 23083 layer_factory.hpp:77] Creating layer ip3
I0428 19:33:21.536643 23083 net.cpp:86] Creating Layer ip3
I0428 19:33:21.536648 23083 net.cpp:408] ip3 <- ip2
I0428 19:33:21.536659 23083 net.cpp:382] ip3 -> ip3
I0428 19:33:21.536851 23083 net.cpp:124] Setting up ip3
I0428 19:33:21.536862 23083 net.cpp:131] Top shape: 100 10 (1000)
I0428 19:33:21.536866 23083 net.cpp:139] Memory required for data: 7546800
I0428 19:33:21.536877 23083 layer_factory.hpp:77] Creating layer relu3
I0428 19:33:21.536900 23083 net.cpp:86] Creating Layer relu3
I0428 19:33:21.536906 23083 net.cpp:408] relu3 <- ip3
I0428 19:33:21.536913 23083 net.cpp:369] relu3 -> ip3 (in-place)
I0428 19:33:21.537089 23083 net.cpp:124] Setting up relu3
I0428 19:33:21.537101 23083 net.cpp:131] Top shape: 100 10 (1000)
I0428 19:33:21.537106 23083 net.cpp:139] Memory required for data: 7550800
I0428 19:33:21.537116 23083 layer_factory.hpp:77] Creating layer ip3_relu3_0_split
I0428 19:33:21.537123 23083 net.cpp:86] Creating Layer ip3_relu3_0_split
I0428 19:33:21.537128 23083 net.cpp:408] ip3_relu3_0_split <- ip3
I0428 19:33:21.537139 23083 net.cpp:382] ip3_relu3_0_split -> ip3_relu3_0_split_0
I0428 19:33:21.537148 23083 net.cpp:382] ip3_relu3_0_split -> ip3_relu3_0_split_1
I0428 19:33:21.537220 23083 net.cpp:124] Setting up ip3_relu3_0_split
I0428 19:33:21.537227 23083 net.cpp:131] Top shape: 100 10 (1000)
I0428 19:33:21.537233 23083 net.cpp:131] Top shape: 100 10 (1000)
I0428 19:33:21.537250 23083 net.cpp:139] Memory required for data: 7558800
I0428 19:33:21.537256 23083 layer_factory.hpp:77] Creating layer accuracy
I0428 19:33:21.537266 23083 net.cpp:86] Creating Layer accuracy
I0428 19:33:21.537271 23083 net.cpp:408] accuracy <- ip3_relu3_0_split_0
I0428 19:33:21.537276 23083 net.cpp:408] accuracy <- label_mnist_1_split_0
I0428 19:33:21.537284 23083 net.cpp:382] accuracy -> accuracy
…
