…
I0428 19:41:50.370857 24923 net.cpp:296] The NetState phase (0) differed from the phase (1) specified by a rule in layer mnist
I0428 19:41:50.370875 24923 net.cpp:296] The NetState phase (0) differed from the phase (1) specified by a rule in layer accuracy
I0428 19:41:50.370971 24923 net.cpp:53] Initializing net from parameters: 
name: "LeNet"
state {
  phase: TRAIN
  level: 0
  stage: ""
}
layer {
  name: "mnist"
  type: "Data"
  top: "data"
  top: "label"
  include {
    phase: TRAIN
  }
  transform_param {
    scale: 0.00390625
  }
  data_param {
    source: "examples/mnist/mnist_train_lmdb"
    batch_size: 64
    backend: LMDB
  }
}
layer {
  name: "conv0"
  type: "Convolution"
  bottom: "data"
  top: "conv0"
  param {
    lr_mult: 1
  }
  param {
    lr_mult: 2
  }
  convolution_param {
    num_output: 2
    kernel_size: 5
    stride: 1
    weight_filler {
      type: "xavier"
    }
    bias_filler {
      type: "constant"
    }
  }
}
layer {
  name: "pool0"
  type: "Pooling"
  bottom: "conv0"
  top: "pool0"
  pooling_param {
    pool: MAX
    kernel_size: 2
    stride: 2
  }
}
layer {
  name: "conv1"
  type: "Convolution"
  bottom: "pool0"
  top: "conv1"
  param {
    lr_mult: 1
  }
  param {
    lr_mult: 2
  }
  convolution_param {
    num_output: 10
    kernel_size: 5
    stride: 1
    weight_filler {
      type: "xavier"
    }
    bias_filler {
      type: "constant"
    }
  }
}
layer {
  name: "pool1"
  type: "Pooling"
  bottom: "conv1"
  top: "pool1"
  pooling_param {
    pool: MAX
    kernel_size: 2
    stride: 2
  }
}
layer {
  name: "ip1"
  type: "InnerProduct"
  bottom: "pool1"
  top: "ip1"
  param {
    lr_mult: 1
  }
  param {
    lr_mult: 2
  }
  inner_product_param {
    num_output: 25
    weight_filler {
      type: "xavier"
    }
    bias_filler {
      type: "constant"
    }
  }
}
layer {
  name: "relu1"
  type: "ReLU"
  bottom: "ip1"
  top: "ip1"
}
layer {
  name: "ip2"
  type: "InnerProduct"
  bottom: "ip1"
  top: "ip2"
  param {
    lr_mult: 1
  }
  param {
    lr_mult: 2
  }
  inner_product_param {
    num_output: 25
    weight_filler {
      type: "xavier"
    }
    bias_filler {
      type: "constant"
    }
  }
}
layer {
  name: "relu2"
  type: "ReLU"
  bottom: "ip2"
  top: "ip2"
}
layer {
  name: "ip3"
  type: "InnerProduct"
  bottom: "ip2"
  top: "ip3"
  param {
    lr_mult: 1
  }
  param {
    lr_mult: 2
  }
  inner_product_param {
    num_output: 10
    weight_filler {
      type: "xavier"
    }
    bias_filler {
      type: "constant"
    }
  }
}
layer {
  name: "relu3"
  type: "ReLU"
  bottom: "ip3"
  top: "ip3"
}
layer {
  name: "loss"
  type: "SoftmaxWithLoss"
  bottom: "ip3"
  bottom: "label"
  top: "loss"
}
I0428 19:41:50.371044 24923 layer_factory.hpp:77] Creating layer mnist
I0428 19:41:50.371142 24923 db_lmdb.cpp:35] Opened lmdb examples/mnist/mnist_train_lmdb
I0428 19:41:50.371166 24923 net.cpp:86] Creating Layer mnist
I0428 19:41:50.371173 24923 net.cpp:382] mnist -> data
I0428 19:41:50.371196 24923 net.cpp:382] mnist -> label
I0428 19:41:50.372297 24923 data_layer.cpp:45] output data size: 64,1,28,28
I0428 19:41:50.374754 24923 net.cpp:124] Setting up mnist
I0428 19:41:50.374771 24923 net.cpp:131] Top shape: 64 1 28 28 (50176)
I0428 19:41:50.374778 24923 net.cpp:131] Top shape: 64 (64)
I0428 19:41:50.374781 24923 net.cpp:139] Memory required for data: 200960
I0428 19:41:50.374790 24923 layer_factory.hpp:77] Creating layer conv0
I0428 19:41:50.374805 24923 net.cpp:86] Creating Layer conv0
I0428 19:41:50.374825 24923 net.cpp:408] conv0 <- data
I0428 19:41:50.374837 24923 net.cpp:382] conv0 -> conv0
I0428 19:41:50.659338 24923 net.cpp:124] Setting up conv0
I0428 19:41:50.659364 24923 net.cpp:131] Top shape: 64 2 24 24 (73728)
I0428 19:41:50.659369 24923 net.cpp:139] Memory required for data: 495872
I0428 19:41:50.659384 24923 layer_factory.hpp:77] Creating layer pool0
I0428 19:41:50.659396 24923 net.cpp:86] Creating Layer pool0
I0428 19:41:50.659401 24923 net.cpp:408] pool0 <- conv0
I0428 19:41:50.659406 24923 net.cpp:382] pool0 -> pool0
I0428 19:41:50.659451 24923 net.cpp:124] Setting up pool0
I0428 19:41:50.659456 24923 net.cpp:131] Top shape: 64 2 12 12 (18432)
I0428 19:41:50.659459 24923 net.cpp:139] Memory required for data: 569600
I0428 19:41:50.659461 24923 layer_factory.hpp:77] Creating layer conv1
I0428 19:41:50.659472 24923 net.cpp:86] Creating Layer conv1
I0428 19:41:50.659476 24923 net.cpp:408] conv1 <- pool0
I0428 19:41:50.659481 24923 net.cpp:382] conv1 -> conv1
I0428 19:41:50.661255 24923 net.cpp:124] Setting up conv1
I0428 19:41:50.661269 24923 net.cpp:131] Top shape: 64 10 8 8 (40960)
I0428 19:41:50.661273 24923 net.cpp:139] Memory required for data: 733440
I0428 19:41:50.661283 24923 layer_factory.hpp:77] Creating layer pool1
I0428 19:41:50.661289 24923 net.cpp:86] Creating Layer pool1
I0428 19:41:50.661309 24923 net.cpp:408] pool1 <- conv1
I0428 19:41:50.661314 24923 net.cpp:382] pool1 -> pool1
I0428 19:41:50.661350 24923 net.cpp:124] Setting up pool1
I0428 19:41:50.661355 24923 net.cpp:131] Top shape: 64 10 4 4 (10240)
I0428 19:41:50.661358 24923 net.cpp:139] Memory required for data: 774400
I0428 19:41:50.661361 24923 layer_factory.hpp:77] Creating layer ip1
I0428 19:41:50.661370 24923 net.cpp:86] Creating Layer ip1
I0428 19:41:50.661372 24923 net.cpp:408] ip1 <- pool1
I0428 19:41:50.661376 24923 net.cpp:382] ip1 -> ip1
I0428 19:41:50.662360 24923 net.cpp:124] Setting up ip1
I0428 19:41:50.662374 24923 net.cpp:131] Top shape: 64 25 (1600)
I0428 19:41:50.662377 24923 net.cpp:139] Memory required for data: 780800
I0428 19:41:50.662386 24923 layer_factory.hpp:77] Creating layer relu1
I0428 19:41:50.662392 24923 net.cpp:86] Creating Layer relu1
I0428 19:41:50.662396 24923 net.cpp:408] relu1 <- ip1
I0428 19:41:50.662401 24923 net.cpp:369] relu1 -> ip1 (in-place)
I0428 19:41:50.662595 24923 net.cpp:124] Setting up relu1
I0428 19:41:50.662605 24923 net.cpp:131] Top shape: 64 25 (1600)
I0428 19:41:50.662607 24923 net.cpp:139] Memory required for data: 787200
I0428 19:41:50.662611 24923 layer_factory.hpp:77] Creating layer ip2
I0428 19:41:50.662616 24923 net.cpp:86] Creating Layer ip2
I0428 19:41:50.662619 24923 net.cpp:408] ip2 <- ip1
I0428 19:41:50.662624 24923 net.cpp:382] ip2 -> ip2
I0428 19:41:50.662721 24923 net.cpp:124] Setting up ip2
I0428 19:41:50.662727 24923 net.cpp:131] Top shape: 64 25 (1600)
I0428 19:41:50.662731 24923 net.cpp:139] Memory required for data: 793600
I0428 19:41:50.662736 24923 layer_factory.hpp:77] Creating layer relu2
I0428 19:41:50.662742 24923 net.cpp:86] Creating Layer relu2
I0428 19:41:50.662745 24923 net.cpp:408] relu2 <- ip2
I0428 19:41:50.662748 24923 net.cpp:369] relu2 -> ip2 (in-place)
I0428 19:41:50.663487 24923 net.cpp:124] Setting up relu2
I0428 19:41:50.663499 24923 net.cpp:131] Top shape: 64 25 (1600)
I0428 19:41:50.663502 24923 net.cpp:139] Memory required for data: 800000
I0428 19:41:50.663506 24923 layer_factory.hpp:77] Creating layer ip3
I0428 19:41:50.663513 24923 net.cpp:86] Creating Layer ip3
I0428 19:41:50.663516 24923 net.cpp:408] ip3 <- ip2
I0428 19:41:50.663522 24923 net.cpp:382] ip3 -> ip3
I0428 19:41:50.663615 24923 net.cpp:124] Setting up ip3
I0428 19:41:50.663624 24923 net.cpp:131] Top shape: 64 10 (640)
I0428 19:41:50.663626 24923 net.cpp:139] Memory required for data: 802560
I0428 19:41:50.663633 24923 layer_factory.hpp:77] Creating layer relu3
I0428 19:41:50.663638 24923 net.cpp:86] Creating Layer relu3
I0428 19:41:50.663641 24923 net.cpp:408] relu3 <- ip3
I0428 19:41:50.663645 24923 net.cpp:369] relu3 -> ip3 (in-place)
I0428 19:41:50.663806 24923 net.cpp:124] Setting up relu3
I0428 19:41:50.663815 24923 net.cpp:131] Top shape: 64 10 (640)
I0428 19:41:50.663818 24923 net.cpp:139] Memory required for data: 805120
I0428 19:41:50.663821 24923 layer_factory.hpp:77] Creating layer loss
I0428 19:41:50.663827 24923 net.cpp:86] Creating Layer loss
I0428 19:41:50.663830 24923 net.cpp:408] loss <- ip3
I0428 19:41:50.663835 24923 net.cpp:408] loss <- label
I0428 19:41:50.663841 24923 net.cpp:382] loss -> loss
I0428 19:41:50.663857 24923 layer_factory.hpp:77] Creating layer loss
…
I0428 19:41:50.664516 24923 solver.cpp:173] Creating test net (#0) specified by net file: ECE595/mnist/train_test/var_everything2/lenet_train_test376.prototxt
I0428 19:41:50.664544 24923 net.cpp:296] The NetState phase (1) differed from the phase (0) specified by a rule in layer mnist
I0428 19:41:50.664645 24923 net.cpp:53] Initializing net from parameters: 
name: "LeNet"
state {
  phase: TEST
}
layer {
  name: "mnist"
  type: "Data"
  top: "data"
  top: "label"
  include {
    phase: TEST
  }
  transform_param {
    scale: 0.00390625
  }
  data_param {
    source: "examples/mnist/mnist_test_lmdb"
    batch_size: 100
    backend: LMDB
  }
}
layer {
  name: "conv0"
  type: "Convolution"
  bottom: "data"
  top: "conv0"
  param {
    lr_mult: 1
  }
  param {
    lr_mult: 2
  }
  convolution_param {
    num_output: 2
    kernel_size: 5
    stride: 1
    weight_filler {
      type: "xavier"
    }
    bias_filler {
      type: "constant"
    }
  }
}
layer {
  name: "pool0"
  type: "Pooling"
  bottom: "conv0"
  top: "pool0"
  pooling_param {
    pool: MAX
    kernel_size: 2
    stride: 2
  }
}
layer {
  name: "conv1"
  type: "Convolution"
  bottom: "pool0"
  top: "conv1"
  param {
    lr_mult: 1
  }
  param {
    lr_mult: 2
  }
  convolution_param {
    num_output: 10
    kernel_size: 5
    stride: 1
    weight_filler {
      type: "xavier"
    }
    bias_filler {
      type: "constant"
    }
  }
}
layer {
  name: "pool1"
  type: "Pooling"
  bottom: "conv1"
  top: "pool1"
  pooling_param {
    pool: MAX
    kernel_size: 2
    stride: 2
  }
}
layer {
  name: "ip1"
  type: "InnerProduct"
  bottom: "pool1"
  top: "ip1"
  param {
    lr_mult: 1
  }
  param {
    lr_mult: 2
  }
  inner_product_param {
    num_output: 25
    weight_filler {
      type: "xavier"
    }
    bias_filler {
      type: "constant"
    }
  }
}
layer {
  name: "relu1"
  type: "ReLU"
  bottom: "ip1"
  top: "ip1"
}
layer {
  name: "ip2"
  type: "InnerProduct"
  bottom: "ip1"
  top: "ip2"
  param {
    lr_mult: 1
  }
  param {
    lr_mult: 2
  }
  inner_product_param {
    num_output: 25
    weight_filler {
      type: "xavier"
    }
    bias_filler {
      type: "constant"
    }
  }
}
layer {
  name: "relu2"
  type: "ReLU"
  bottom: "ip2"
  top: "ip2"
}
layer {
  name: "ip3"
  type: "InnerProduct"
  bottom: "ip2"
  top: "ip3"
  param {
    lr_mult: 1
  }
  param {
    lr_mult: 2
  }
  inner_product_param {
    num_output: 10
    weight_filler {
      type: "xavier"
    }
    bias_filler {
      type: "constant"
    }
  }
}
layer {
  name: "relu3"
  type: "ReLU"
  bottom: "ip3"
  top: "ip3"
}
layer {
  name: "accuracy"
  type: "Accuracy"
  bottom: "ip3"
  bottom: "label"
  top: "accuracy"
  include {
    phase: TEST
  }
}
layer {
  name: "loss"
  type: "SoftmaxWithLoss"
  bottom: "ip3"
  bottom: "label"
  top: "loss"
}
I0428 19:41:50.664757 24923 layer_factory.hpp:77] Creating layer mnist
I0428 19:41:50.664798 24923 db_lmdb.cpp:35] Opened lmdb examples/mnist/mnist_test_lmdb
I0428 19:41:50.664819 24923 net.cpp:86] Creating Layer mnist
I0428 19:41:50.664824 24923 net.cpp:382] mnist -> data
I0428 19:41:50.664847 24923 net.cpp:382] mnist -> label
I0428 19:41:50.664954 24923 data_layer.cpp:45] output data size: 100,1,28,28
I0428 19:41:50.666956 24923 net.cpp:124] Setting up mnist
I0428 19:41:50.666968 24923 net.cpp:131] Top shape: 100 1 28 28 (78400)
I0428 19:41:50.666973 24923 net.cpp:131] Top shape: 100 (100)
I0428 19:41:50.666976 24923 net.cpp:139] Memory required for data: 314000
I0428 19:41:50.666980 24923 layer_factory.hpp:77] Creating layer label_mnist_1_split
I0428 19:41:50.666990 24923 net.cpp:86] Creating Layer label_mnist_1_split
I0428 19:41:50.666992 24923 net.cpp:408] label_mnist_1_split <- label
I0428 19:41:50.666997 24923 net.cpp:382] label_mnist_1_split -> label_mnist_1_split_0
I0428 19:41:50.667013 24923 net.cpp:382] label_mnist_1_split -> label_mnist_1_split_1
I0428 19:41:50.667060 24923 net.cpp:124] Setting up label_mnist_1_split
I0428 19:41:50.667065 24923 net.cpp:131] Top shape: 100 (100)
I0428 19:41:50.667068 24923 net.cpp:131] Top shape: 100 (100)
I0428 19:41:50.667071 24923 net.cpp:139] Memory required for data: 314800
I0428 19:41:50.667074 24923 layer_factory.hpp:77] Creating layer conv0
I0428 19:41:50.667084 24923 net.cpp:86] Creating Layer conv0
I0428 19:41:50.667088 24923 net.cpp:408] conv0 <- data
I0428 19:41:50.667093 24923 net.cpp:382] conv0 -> conv0
I0428 19:41:50.668913 24923 net.cpp:124] Setting up conv0
I0428 19:41:50.668927 24923 net.cpp:131] Top shape: 100 2 24 24 (115200)
I0428 19:41:50.668931 24923 net.cpp:139] Memory required for data: 775600
I0428 19:41:50.668941 24923 layer_factory.hpp:77] Creating layer pool0
I0428 19:41:50.668947 24923 net.cpp:86] Creating Layer pool0
I0428 19:41:50.668951 24923 net.cpp:408] pool0 <- conv0
I0428 19:41:50.668956 24923 net.cpp:382] pool0 -> pool0
I0428 19:41:50.668992 24923 net.cpp:124] Setting up pool0
I0428 19:41:50.668998 24923 net.cpp:131] Top shape: 100 2 12 12 (28800)
I0428 19:41:50.669000 24923 net.cpp:139] Memory required for data: 890800
I0428 19:41:50.669003 24923 layer_factory.hpp:77] Creating layer conv1
I0428 19:41:50.669011 24923 net.cpp:86] Creating Layer conv1
I0428 19:41:50.669014 24923 net.cpp:408] conv1 <- pool0
I0428 19:41:50.669019 24923 net.cpp:382] conv1 -> conv1
I0428 19:41:50.670568 24923 net.cpp:124] Setting up conv1
I0428 19:41:50.670581 24923 net.cpp:131] Top shape: 100 10 8 8 (64000)
I0428 19:41:50.670585 24923 net.cpp:139] Memory required for data: 1146800
I0428 19:41:50.670593 24923 layer_factory.hpp:77] Creating layer pool1
I0428 19:41:50.670606 24923 net.cpp:86] Creating Layer pool1
I0428 19:41:50.670610 24923 net.cpp:408] pool1 <- conv1
I0428 19:41:50.670616 24923 net.cpp:382] pool1 -> pool1
I0428 19:41:50.670657 24923 net.cpp:124] Setting up pool1
I0428 19:41:50.670663 24923 net.cpp:131] Top shape: 100 10 4 4 (16000)
I0428 19:41:50.670665 24923 net.cpp:139] Memory required for data: 1210800
I0428 19:41:50.670670 24923 layer_factory.hpp:77] Creating layer ip1
I0428 19:41:50.670676 24923 net.cpp:86] Creating Layer ip1
I0428 19:41:50.670680 24923 net.cpp:408] ip1 <- pool1
I0428 19:41:50.670684 24923 net.cpp:382] ip1 -> ip1
I0428 19:41:50.670804 24923 net.cpp:124] Setting up ip1
I0428 19:41:50.670810 24923 net.cpp:131] Top shape: 100 25 (2500)
I0428 19:41:50.670824 24923 net.cpp:139] Memory required for data: 1220800
I0428 19:41:50.670831 24923 layer_factory.hpp:77] Creating layer relu1
I0428 19:41:50.670842 24923 net.cpp:86] Creating Layer relu1
I0428 19:41:50.670846 24923 net.cpp:408] relu1 <- ip1
I0428 19:41:50.670856 24923 net.cpp:369] relu1 -> ip1 (in-place)
I0428 19:41:50.671059 24923 net.cpp:124] Setting up relu1
I0428 19:41:50.671068 24923 net.cpp:131] Top shape: 100 25 (2500)
I0428 19:41:50.671078 24923 net.cpp:139] Memory required for data: 1230800
I0428 19:41:50.671082 24923 layer_factory.hpp:77] Creating layer ip2
I0428 19:41:50.671095 24923 net.cpp:86] Creating Layer ip2
I0428 19:41:50.671098 24923 net.cpp:408] ip2 <- ip1
I0428 19:41:50.671103 24923 net.cpp:382] ip2 -> ip2
I0428 19:41:50.671245 24923 net.cpp:124] Setting up ip2
I0428 19:41:50.671253 24923 net.cpp:131] Top shape: 100 25 (2500)
I0428 19:41:50.671257 24923 net.cpp:139] Memory required for data: 1240800
I0428 19:41:50.671262 24923 layer_factory.hpp:77] Creating layer relu2
I0428 19:41:50.671267 24923 net.cpp:86] Creating Layer relu2
I0428 19:41:50.671270 24923 net.cpp:408] relu2 <- ip2
I0428 19:41:50.671273 24923 net.cpp:369] relu2 -> ip2 (in-place)
I0428 19:41:50.671425 24923 net.cpp:124] Setting up relu2
I0428 19:41:50.671432 24923 net.cpp:131] Top shape: 100 25 (2500)
I0428 19:41:50.671442 24923 net.cpp:139] Memory required for data: 1250800
I0428 19:41:50.671444 24923 layer_factory.hpp:77] Creating layer ip3
I0428 19:41:50.671450 24923 net.cpp:86] Creating Layer ip3
I0428 19:41:50.671458 24923 net.cpp:408] ip3 <- ip2
I0428 19:41:50.671463 24923 net.cpp:382] ip3 -> ip3
I0428 19:41:50.671562 24923 net.cpp:124] Setting up ip3
I0428 19:41:50.671569 24923 net.cpp:131] Top shape: 100 10 (1000)
I0428 19:41:50.671572 24923 net.cpp:139] Memory required for data: 1254800
I0428 19:41:50.671579 24923 layer_factory.hpp:77] Creating layer relu3
I0428 19:41:50.671584 24923 net.cpp:86] Creating Layer relu3
I0428 19:41:50.671587 24923 net.cpp:408] relu3 <- ip3
I0428 19:41:50.671591 24923 net.cpp:369] relu3 -> ip3 (in-place)
I0428 19:41:50.672631 24923 net.cpp:124] Setting up relu3
I0428 19:41:50.672643 24923 net.cpp:131] Top shape: 100 10 (1000)
I0428 19:41:50.672646 24923 net.cpp:139] Memory required for data: 1258800
I0428 19:41:50.672650 24923 layer_factory.hpp:77] Creating layer ip3_relu3_0_split
I0428 19:41:50.672655 24923 net.cpp:86] Creating Layer ip3_relu3_0_split
I0428 19:41:50.672658 24923 net.cpp:408] ip3_relu3_0_split <- ip3
I0428 19:41:50.672662 24923 net.cpp:382] ip3_relu3_0_split -> ip3_relu3_0_split_0
I0428 19:41:50.672669 24923 net.cpp:382] ip3_relu3_0_split -> ip3_relu3_0_split_1
I0428 19:41:50.672706 24923 net.cpp:124] Setting up ip3_relu3_0_split
I0428 19:41:50.672713 24923 net.cpp:131] Top shape: 100 10 (1000)
I0428 19:41:50.672722 24923 net.cpp:131] Top shape: 100 10 (1000)
I0428 19:41:50.672724 24923 net.cpp:139] Memory required for data: 1266800
I0428 19:41:50.672727 24923 layer_factory.hpp:77] Creating layer accuracy
I0428 19:41:50.672732 24923 net.cpp:86] Creating Layer accuracy
I0428 19:41:50.672740 24923 net.cpp:408] accuracy <- ip3_relu3_0_split_0
I0428 19:41:50.672744 24923 net.cpp:408] accuracy <- label_mnist_1_split_0
I0428 19:41:50.672750 24923 net.cpp:382] accuracy -> accuracy
…
