…
I0428 20:24:40.890738  2443 net.cpp:296] The NetState phase (0) differed from the phase (1) specified by a rule in layer mnist
I0428 20:24:40.890759  2443 net.cpp:296] The NetState phase (0) differed from the phase (1) specified by a rule in layer accuracy
I0428 20:24:40.890861  2443 net.cpp:53] Initializing net from parameters: 
name: "LeNet"
state {
  phase: TRAIN
  level: 0
  stage: ""
}
layer {
  name: "mnist"
  type: "Data"
  top: "data"
  top: "label"
  include {
    phase: TRAIN
  }
  transform_param {
    scale: 0.00390625
  }
  data_param {
    source: "examples/mnist/mnist_train_lmdb"
    batch_size: 64
    backend: LMDB
  }
}
layer {
  name: "conv0"
  type: "Convolution"
  bottom: "data"
  top: "conv0"
  param {
    lr_mult: 1
  }
  param {
    lr_mult: 2
  }
  convolution_param {
    num_output: 50
    kernel_size: 5
    stride: 1
    weight_filler {
      type: "xavier"
    }
    bias_filler {
      type: "constant"
    }
  }
}
layer {
  name: "pool0"
  type: "Pooling"
  bottom: "conv0"
  top: "pool0"
  pooling_param {
    pool: MAX
    kernel_size: 2
    stride: 2
  }
}
layer {
  name: "conv1"
  type: "Convolution"
  bottom: "pool0"
  top: "conv1"
  param {
    lr_mult: 1
  }
  param {
    lr_mult: 2
  }
  convolution_param {
    num_output: 100
    kernel_size: 5
    stride: 1
    weight_filler {
      type: "xavier"
    }
    bias_filler {
      type: "constant"
    }
  }
}
layer {
  name: "pool1"
  type: "Pooling"
  bottom: "conv1"
  top: "pool1"
  pooling_param {
    pool: MAX
    kernel_size: 2
    stride: 2
  }
}
layer {
  name: "ip1"
  type: "InnerProduct"
  bottom: "pool1"
  top: "ip1"
  param {
    lr_mult: 1
  }
  param {
    lr_mult: 2
  }
  inner_product_param {
    num_output: 50
    weight_filler {
      type: "xavier"
    }
    bias_filler {
      type: "constant"
    }
  }
}
layer {
  name: "relu1"
  type: "ReLU"
  bottom: "ip1"
  top: "ip1"
}
layer {
  name: "ip2"
  type: "InnerProduct"
  bottom: "ip1"
  top: "ip2"
  param {
    lr_mult: 1
  }
  param {
    lr_mult: 2
  }
  inner_product_param {
    num_output: 50
    weight_filler {
      type: "xavier"
    }
    bias_filler {
      type: "constant"
    }
  }
}
layer {
  name: "relu2"
  type: "ReLU"
  bottom: "ip2"
  top: "ip2"
}
layer {
  name: "ip3"
  type: "InnerProduct"
  bottom: "ip2"
  top: "ip3"
  param {
    lr_mult: 1
  }
  param {
    lr_mult: 2
  }
  inner_product_param {
    num_output: 10
    weight_filler {
      type: "xavier"
    }
    bias_filler {
      type: "constant"
    }
  }
}
layer {
  name: "relu3"
  type: "ReLU"
  bottom: "ip3"
  top: "ip3"
}
layer {
  name: "loss"
  type: "SoftmaxWithLoss"
  bottom: "ip3"
  bottom: "label"
  top: "loss"
}
I0428 20:24:40.890944  2443 layer_factory.hpp:77] Creating layer mnist
I0428 20:24:40.891044  2443 db_lmdb.cpp:35] Opened lmdb examples/mnist/mnist_train_lmdb
I0428 20:24:40.891068  2443 net.cpp:86] Creating Layer mnist
I0428 20:24:40.891079  2443 net.cpp:382] mnist -> data
I0428 20:24:40.891103  2443 net.cpp:382] mnist -> label
I0428 20:24:40.892205  2443 data_layer.cpp:45] output data size: 64,1,28,28
I0428 20:24:40.894701  2443 net.cpp:124] Setting up mnist
I0428 20:24:40.894721  2443 net.cpp:131] Top shape: 64 1 28 28 (50176)
I0428 20:24:40.894726  2443 net.cpp:131] Top shape: 64 (64)
I0428 20:24:40.894731  2443 net.cpp:139] Memory required for data: 200960
I0428 20:24:40.894737  2443 layer_factory.hpp:77] Creating layer conv0
I0428 20:24:40.894765  2443 net.cpp:86] Creating Layer conv0
I0428 20:24:40.894793  2443 net.cpp:408] conv0 <- data
I0428 20:24:40.894807  2443 net.cpp:382] conv0 -> conv0
I0428 20:24:41.160657  2443 net.cpp:124] Setting up conv0
I0428 20:24:41.160699  2443 net.cpp:131] Top shape: 64 50 24 24 (1843200)
I0428 20:24:41.160704  2443 net.cpp:139] Memory required for data: 7573760
I0428 20:24:41.160718  2443 layer_factory.hpp:77] Creating layer pool0
I0428 20:24:41.160730  2443 net.cpp:86] Creating Layer pool0
I0428 20:24:41.160734  2443 net.cpp:408] pool0 <- conv0
I0428 20:24:41.160754  2443 net.cpp:382] pool0 -> pool0
I0428 20:24:41.160836  2443 net.cpp:124] Setting up pool0
I0428 20:24:41.160842  2443 net.cpp:131] Top shape: 64 50 12 12 (460800)
I0428 20:24:41.160845  2443 net.cpp:139] Memory required for data: 9416960
I0428 20:24:41.160848  2443 layer_factory.hpp:77] Creating layer conv1
I0428 20:24:41.160859  2443 net.cpp:86] Creating Layer conv1
I0428 20:24:41.160862  2443 net.cpp:408] conv1 <- pool0
I0428 20:24:41.160867  2443 net.cpp:382] conv1 -> conv1
I0428 20:24:41.164321  2443 net.cpp:124] Setting up conv1
I0428 20:24:41.164351  2443 net.cpp:131] Top shape: 64 100 8 8 (409600)
I0428 20:24:41.164355  2443 net.cpp:139] Memory required for data: 11055360
I0428 20:24:41.164366  2443 layer_factory.hpp:77] Creating layer pool1
I0428 20:24:41.164372  2443 net.cpp:86] Creating Layer pool1
I0428 20:24:41.164376  2443 net.cpp:408] pool1 <- conv1
I0428 20:24:41.164381  2443 net.cpp:382] pool1 -> pool1
I0428 20:24:41.164433  2443 net.cpp:124] Setting up pool1
I0428 20:24:41.164438  2443 net.cpp:131] Top shape: 64 100 4 4 (102400)
I0428 20:24:41.164441  2443 net.cpp:139] Memory required for data: 11464960
I0428 20:24:41.164444  2443 layer_factory.hpp:77] Creating layer ip1
I0428 20:24:41.164453  2443 net.cpp:86] Creating Layer ip1
I0428 20:24:41.164455  2443 net.cpp:408] ip1 <- pool1
I0428 20:24:41.164460  2443 net.cpp:382] ip1 -> ip1
I0428 20:24:41.165091  2443 net.cpp:124] Setting up ip1
I0428 20:24:41.165101  2443 net.cpp:131] Top shape: 64 50 (3200)
I0428 20:24:41.165103  2443 net.cpp:139] Memory required for data: 11477760
I0428 20:24:41.165112  2443 layer_factory.hpp:77] Creating layer relu1
I0428 20:24:41.165119  2443 net.cpp:86] Creating Layer relu1
I0428 20:24:41.165122  2443 net.cpp:408] relu1 <- ip1
I0428 20:24:41.165127  2443 net.cpp:369] relu1 -> ip1 (in-place)
I0428 20:24:41.165381  2443 net.cpp:124] Setting up relu1
I0428 20:24:41.165392  2443 net.cpp:131] Top shape: 64 50 (3200)
I0428 20:24:41.165395  2443 net.cpp:139] Memory required for data: 11490560
I0428 20:24:41.165398  2443 layer_factory.hpp:77] Creating layer ip2
I0428 20:24:41.165403  2443 net.cpp:86] Creating Layer ip2
I0428 20:24:41.165406  2443 net.cpp:408] ip2 <- ip1
I0428 20:24:41.165412  2443 net.cpp:382] ip2 -> ip2
I0428 20:24:41.165570  2443 net.cpp:124] Setting up ip2
I0428 20:24:41.165578  2443 net.cpp:131] Top shape: 64 50 (3200)
I0428 20:24:41.165581  2443 net.cpp:139] Memory required for data: 11503360
I0428 20:24:41.165586  2443 layer_factory.hpp:77] Creating layer relu2
I0428 20:24:41.165594  2443 net.cpp:86] Creating Layer relu2
I0428 20:24:41.165597  2443 net.cpp:408] relu2 <- ip2
I0428 20:24:41.165601  2443 net.cpp:369] relu2 -> ip2 (in-place)
I0428 20:24:41.166369  2443 net.cpp:124] Setting up relu2
I0428 20:24:41.166380  2443 net.cpp:131] Top shape: 64 50 (3200)
I0428 20:24:41.166400  2443 net.cpp:139] Memory required for data: 11516160
I0428 20:24:41.166404  2443 layer_factory.hpp:77] Creating layer ip3
I0428 20:24:41.166410  2443 net.cpp:86] Creating Layer ip3
I0428 20:24:41.166414  2443 net.cpp:408] ip3 <- ip2
I0428 20:24:41.166419  2443 net.cpp:382] ip3 -> ip3
I0428 20:24:41.166539  2443 net.cpp:124] Setting up ip3
I0428 20:24:41.166563  2443 net.cpp:131] Top shape: 64 10 (640)
I0428 20:24:41.166565  2443 net.cpp:139] Memory required for data: 11518720
I0428 20:24:41.166573  2443 layer_factory.hpp:77] Creating layer relu3
I0428 20:24:41.166577  2443 net.cpp:86] Creating Layer relu3
I0428 20:24:41.166581  2443 net.cpp:408] relu3 <- ip3
I0428 20:24:41.166585  2443 net.cpp:369] relu3 -> ip3 (in-place)
I0428 20:24:41.166786  2443 net.cpp:124] Setting up relu3
I0428 20:24:41.166795  2443 net.cpp:131] Top shape: 64 10 (640)
I0428 20:24:41.166798  2443 net.cpp:139] Memory required for data: 11521280
I0428 20:24:41.166801  2443 layer_factory.hpp:77] Creating layer loss
I0428 20:24:41.166808  2443 net.cpp:86] Creating Layer loss
I0428 20:24:41.166811  2443 net.cpp:408] loss <- ip3
I0428 20:24:41.166815  2443 net.cpp:408] loss <- label
I0428 20:24:41.166821  2443 net.cpp:382] loss -> loss
I0428 20:24:41.166838  2443 layer_factory.hpp:77] Creating layer loss
…
I0428 20:24:41.167543  2443 solver.cpp:173] Creating test net (#0) specified by net file: ECE595/mnist/train_test/var_everything2/lenet_train_test1441.prototxt
I0428 20:24:41.167583  2443 net.cpp:296] The NetState phase (1) differed from the phase (0) specified by a rule in layer mnist
I0428 20:24:41.167686  2443 net.cpp:53] Initializing net from parameters: 
name: "LeNet"
state {
  phase: TEST
}
layer {
  name: "mnist"
  type: "Data"
  top: "data"
  top: "label"
  include {
    phase: TEST
  }
  transform_param {
    scale: 0.00390625
  }
  data_param {
    source: "examples/mnist/mnist_test_lmdb"
    batch_size: 100
    backend: LMDB
  }
}
layer {
  name: "conv0"
  type: "Convolution"
  bottom: "data"
  top: "conv0"
  param {
    lr_mult: 1
  }
  param {
    lr_mult: 2
  }
  convolution_param {
    num_output: 50
    kernel_size: 5
    stride: 1
    weight_filler {
      type: "xavier"
    }
    bias_filler {
      type: "constant"
    }
  }
}
layer {
  name: "pool0"
  type: "Pooling"
  bottom: "conv0"
  top: "pool0"
  pooling_param {
    pool: MAX
    kernel_size: 2
    stride: 2
  }
}
layer {
  name: "conv1"
  type: "Convolution"
  bottom: "pool0"
  top: "conv1"
  param {
    lr_mult: 1
  }
  param {
    lr_mult: 2
  }
  convolution_param {
    num_output: 100
    kernel_size: 5
    stride: 1
    weight_filler {
      type: "xavier"
    }
    bias_filler {
      type: "constant"
    }
  }
}
layer {
  name: "pool1"
  type: "Pooling"
  bottom: "conv1"
  top: "pool1"
  pooling_param {
    pool: MAX
    kernel_size: 2
    stride: 2
  }
}
layer {
  name: "ip1"
  type: "InnerProduct"
  bottom: "pool1"
  top: "ip1"
  param {
    lr_mult: 1
  }
  param {
    lr_mult: 2
  }
  inner_product_param {
    num_output: 50
    weight_filler {
      type: "xavier"
    }
    bias_filler {
      type: "constant"
    }
  }
}
layer {
  name: "relu1"
  type: "ReLU"
  bottom: "ip1"
  top: "ip1"
}
layer {
  name: "ip2"
  type: "InnerProduct"
  bottom: "ip1"
  top: "ip2"
  param {
    lr_mult: 1
  }
  param {
    lr_mult: 2
  }
  inner_product_param {
    num_output: 50
    weight_filler {
      type: "xavier"
    }
    bias_filler {
      type: "constant"
    }
  }
}
layer {
  name: "relu2"
  type: "ReLU"
  bottom: "ip2"
  top: "ip2"
}
layer {
  name: "ip3"
  type: "InnerProduct"
  bottom: "ip2"
  top: "ip3"
  param {
    lr_mult: 1
  }
  param {
    lr_mult: 2
  }
  inner_product_param {
    num_output: 10
    weight_filler {
      type: "xavier"
    }
    bias_filler {
      type: "constant"
    }
  }
}
layer {
  name: "relu3"
  type: "ReLU"
  bottom: "ip3"
  top: "ip3"
}
layer {
  name: "accuracy"
  type: "Accuracy"
  bottom: "ip3"
  bottom: "label"
  top: "accuracy"
  include {
    phase: TEST
  }
}
layer {
  name: "loss"
  type: "SoftmaxWithLoss"
  bottom: "ip3"
  bottom: "label"
  top: "loss"
}
I0428 20:24:41.167767  2443 layer_factory.hpp:77] Creating layer mnist
I0428 20:24:41.167809  2443 db_lmdb.cpp:35] Opened lmdb examples/mnist/mnist_test_lmdb
I0428 20:24:41.167824  2443 net.cpp:86] Creating Layer mnist
I0428 20:24:41.167827  2443 net.cpp:382] mnist -> data
I0428 20:24:41.167835  2443 net.cpp:382] mnist -> label
I0428 20:24:41.167918  2443 data_layer.cpp:45] output data size: 100,1,28,28
I0428 20:24:41.169244  2443 net.cpp:124] Setting up mnist
I0428 20:24:41.169271  2443 net.cpp:131] Top shape: 100 1 28 28 (78400)
I0428 20:24:41.169294  2443 net.cpp:131] Top shape: 100 (100)
I0428 20:24:41.169298  2443 net.cpp:139] Memory required for data: 314000
I0428 20:24:41.169301  2443 layer_factory.hpp:77] Creating layer label_mnist_1_split
I0428 20:24:41.169312  2443 net.cpp:86] Creating Layer label_mnist_1_split
I0428 20:24:41.169315  2443 net.cpp:408] label_mnist_1_split <- label
I0428 20:24:41.169319  2443 net.cpp:382] label_mnist_1_split -> label_mnist_1_split_0
I0428 20:24:41.169327  2443 net.cpp:382] label_mnist_1_split -> label_mnist_1_split_1
I0428 20:24:41.169435  2443 net.cpp:124] Setting up label_mnist_1_split
I0428 20:24:41.169441  2443 net.cpp:131] Top shape: 100 (100)
I0428 20:24:41.169445  2443 net.cpp:131] Top shape: 100 (100)
I0428 20:24:41.169448  2443 net.cpp:139] Memory required for data: 314800
I0428 20:24:41.169451  2443 layer_factory.hpp:77] Creating layer conv0
I0428 20:24:41.169461  2443 net.cpp:86] Creating Layer conv0
I0428 20:24:41.169466  2443 net.cpp:408] conv0 <- data
I0428 20:24:41.169471  2443 net.cpp:382] conv0 -> conv0
I0428 20:24:41.171102  2443 net.cpp:124] Setting up conv0
I0428 20:24:41.171130  2443 net.cpp:131] Top shape: 100 50 24 24 (2880000)
I0428 20:24:41.171134  2443 net.cpp:139] Memory required for data: 11834800
I0428 20:24:41.171144  2443 layer_factory.hpp:77] Creating layer pool0
I0428 20:24:41.171150  2443 net.cpp:86] Creating Layer pool0
I0428 20:24:41.171154  2443 net.cpp:408] pool0 <- conv0
I0428 20:24:41.171159  2443 net.cpp:382] pool0 -> pool0
I0428 20:24:41.171197  2443 net.cpp:124] Setting up pool0
I0428 20:24:41.171202  2443 net.cpp:131] Top shape: 100 50 12 12 (720000)
I0428 20:24:41.171205  2443 net.cpp:139] Memory required for data: 14714800
I0428 20:24:41.171208  2443 layer_factory.hpp:77] Creating layer conv1
I0428 20:24:41.171217  2443 net.cpp:86] Creating Layer conv1
I0428 20:24:41.171221  2443 net.cpp:408] conv1 <- pool0
I0428 20:24:41.171226  2443 net.cpp:382] conv1 -> conv1
I0428 20:24:41.174495  2443 net.cpp:124] Setting up conv1
I0428 20:24:41.174525  2443 net.cpp:131] Top shape: 100 100 8 8 (640000)
I0428 20:24:41.174530  2443 net.cpp:139] Memory required for data: 17274800
I0428 20:24:41.174537  2443 layer_factory.hpp:77] Creating layer pool1
I0428 20:24:41.174543  2443 net.cpp:86] Creating Layer pool1
I0428 20:24:41.174549  2443 net.cpp:408] pool1 <- conv1
I0428 20:24:41.174554  2443 net.cpp:382] pool1 -> pool1
I0428 20:24:41.174604  2443 net.cpp:124] Setting up pool1
I0428 20:24:41.174612  2443 net.cpp:131] Top shape: 100 100 4 4 (160000)
I0428 20:24:41.174614  2443 net.cpp:139] Memory required for data: 17914800
I0428 20:24:41.174618  2443 layer_factory.hpp:77] Creating layer ip1
I0428 20:24:41.174623  2443 net.cpp:86] Creating Layer ip1
I0428 20:24:41.174643  2443 net.cpp:408] ip1 <- pool1
I0428 20:24:41.174648  2443 net.cpp:382] ip1 -> ip1
I0428 20:24:41.175228  2443 net.cpp:124] Setting up ip1
I0428 20:24:41.175246  2443 net.cpp:131] Top shape: 100 50 (5000)
I0428 20:24:41.175266  2443 net.cpp:139] Memory required for data: 17934800
I0428 20:24:41.175272  2443 layer_factory.hpp:77] Creating layer relu1
I0428 20:24:41.175277  2443 net.cpp:86] Creating Layer relu1
I0428 20:24:41.175281  2443 net.cpp:408] relu1 <- ip1
I0428 20:24:41.175287  2443 net.cpp:369] relu1 -> ip1 (in-place)
I0428 20:24:41.175536  2443 net.cpp:124] Setting up relu1
I0428 20:24:41.175546  2443 net.cpp:131] Top shape: 100 50 (5000)
I0428 20:24:41.175549  2443 net.cpp:139] Memory required for data: 17954800
I0428 20:24:41.175552  2443 layer_factory.hpp:77] Creating layer ip2
I0428 20:24:41.175560  2443 net.cpp:86] Creating Layer ip2
I0428 20:24:41.175565  2443 net.cpp:408] ip2 <- ip1
I0428 20:24:41.175570  2443 net.cpp:382] ip2 -> ip2
I0428 20:24:41.175693  2443 net.cpp:124] Setting up ip2
I0428 20:24:41.175701  2443 net.cpp:131] Top shape: 100 50 (5000)
I0428 20:24:41.175710  2443 net.cpp:139] Memory required for data: 17974800
I0428 20:24:41.175721  2443 layer_factory.hpp:77] Creating layer relu2
I0428 20:24:41.175731  2443 net.cpp:86] Creating Layer relu2
I0428 20:24:41.175734  2443 net.cpp:408] relu2 <- ip2
I0428 20:24:41.175740  2443 net.cpp:369] relu2 -> ip2 (in-place)
I0428 20:24:41.175923  2443 net.cpp:124] Setting up relu2
I0428 20:24:41.175932  2443 net.cpp:131] Top shape: 100 50 (5000)
I0428 20:24:41.175940  2443 net.cpp:139] Memory required for data: 17994800
I0428 20:24:41.175945  2443 layer_factory.hpp:77] Creating layer ip3
I0428 20:24:41.175951  2443 net.cpp:86] Creating Layer ip3
I0428 20:24:41.175954  2443 net.cpp:408] ip3 <- ip2
I0428 20:24:41.175958  2443 net.cpp:382] ip3 -> ip3
I0428 20:24:41.176072  2443 net.cpp:124] Setting up ip3
I0428 20:24:41.176079  2443 net.cpp:131] Top shape: 100 10 (1000)
I0428 20:24:41.176082  2443 net.cpp:139] Memory required for data: 17998800
I0428 20:24:41.176090  2443 layer_factory.hpp:77] Creating layer relu3
I0428 20:24:41.176095  2443 net.cpp:86] Creating Layer relu3
I0428 20:24:41.176098  2443 net.cpp:408] relu3 <- ip3
I0428 20:24:41.176101  2443 net.cpp:369] relu3 -> ip3 (in-place)
I0428 20:24:41.176890  2443 net.cpp:124] Setting up relu3
I0428 20:24:41.176903  2443 net.cpp:131] Top shape: 100 10 (1000)
I0428 20:24:41.176921  2443 net.cpp:139] Memory required for data: 18002800
I0428 20:24:41.176925  2443 layer_factory.hpp:77] Creating layer ip3_relu3_0_split
I0428 20:24:41.176931  2443 net.cpp:86] Creating Layer ip3_relu3_0_split
I0428 20:24:41.176935  2443 net.cpp:408] ip3_relu3_0_split <- ip3
I0428 20:24:41.176941  2443 net.cpp:382] ip3_relu3_0_split -> ip3_relu3_0_split_0
I0428 20:24:41.176947  2443 net.cpp:382] ip3_relu3_0_split -> ip3_relu3_0_split_1
I0428 20:24:41.177017  2443 net.cpp:124] Setting up ip3_relu3_0_split
I0428 20:24:41.177026  2443 net.cpp:131] Top shape: 100 10 (1000)
I0428 20:24:41.177029  2443 net.cpp:131] Top shape: 100 10 (1000)
I0428 20:24:41.177031  2443 net.cpp:139] Memory required for data: 18010800
I0428 20:24:41.177034  2443 layer_factory.hpp:77] Creating layer accuracy
I0428 20:24:41.177055  2443 net.cpp:86] Creating Layer accuracy
I0428 20:24:41.177075  2443 net.cpp:408] accuracy <- ip3_relu3_0_split_0
I0428 20:24:41.177079  2443 net.cpp:408] accuracy <- label_mnist_1_split_0
I0428 20:24:41.177084  2443 net.cpp:382] accuracy -> accuracy
…
