…
I0428 19:38:10.124047 23977 net.cpp:296] The NetState phase (0) differed from the phase (1) specified by a rule in layer mnist
I0428 19:38:10.124071 23977 net.cpp:296] The NetState phase (0) differed from the phase (1) specified by a rule in layer accuracy
I0428 19:38:10.124173 23977 net.cpp:53] Initializing net from parameters: 
name: "LeNet"
state {
  phase: TRAIN
  level: 0
  stage: ""
}
layer {
  name: "mnist"
  type: "Data"
  top: "data"
  top: "label"
  include {
    phase: TRAIN
  }
  transform_param {
    scale: 0.00390625
  }
  data_param {
    source: "examples/mnist/mnist_train_lmdb"
    batch_size: 64
    backend: LMDB
  }
}
layer {
  name: "conv0"
  type: "Convolution"
  bottom: "data"
  top: "conv0"
  param {
    lr_mult: 1
  }
  param {
    lr_mult: 2
  }
  convolution_param {
    num_output: 100
    kernel_size: 5
    stride: 1
    weight_filler {
      type: "xavier"
    }
    bias_filler {
      type: "constant"
    }
  }
}
layer {
  name: "pool0"
  type: "Pooling"
  bottom: "conv0"
  top: "pool0"
  pooling_param {
    pool: MAX
    kernel_size: 2
    stride: 2
  }
}
layer {
  name: "ip1"
  type: "InnerProduct"
  bottom: "pool0"
  top: "ip1"
  param {
    lr_mult: 1
  }
  param {
    lr_mult: 2
  }
  inner_product_param {
    num_output: 50
    weight_filler {
      type: "xavier"
    }
    bias_filler {
      type: "constant"
    }
  }
}
layer {
  name: "relu1"
  type: "ReLU"
  bottom: "ip1"
  top: "ip1"
}
layer {
  name: "ip2"
  type: "InnerProduct"
  bottom: "ip1"
  top: "ip2"
  param {
    lr_mult: 1
  }
  param {
    lr_mult: 2
  }
  inner_product_param {
    num_output: 25
    weight_filler {
      type: "xavier"
    }
    bias_filler {
      type: "constant"
    }
  }
}
layer {
  name: "relu2"
  type: "ReLU"
  bottom: "ip2"
  top: "ip2"
}
layer {
  name: "ip3"
  type: "InnerProduct"
  bottom: "ip2"
  top: "ip3"
  param {
    lr_mult: 1
  }
  param {
    lr_mult: 2
  }
  inner_product_param {
    num_output: 10
    weight_filler {
      type: "xavier"
    }
    bias_filler {
      type: "constant"
    }
  }
}
layer {
  name: "relu3"
  type: "ReLU"
  bottom: "ip3"
  top: "ip3"
}
layer {
  name: "loss"
  type: "SoftmaxWithLoss"
  bottom: "ip3"
  bottom: "label"
  top: "loss"
}
I0428 19:38:10.124281 23977 layer_factory.hpp:77] Creating layer mnist
I0428 19:38:10.124415 23977 db_lmdb.cpp:35] Opened lmdb examples/mnist/mnist_train_lmdb
I0428 19:38:10.124449 23977 net.cpp:86] Creating Layer mnist
I0428 19:38:10.124462 23977 net.cpp:382] mnist -> data
I0428 19:38:10.124495 23977 net.cpp:382] mnist -> label
I0428 19:38:10.125741 23977 data_layer.cpp:45] output data size: 64,1,28,28
I0428 19:38:10.128226 23977 net.cpp:124] Setting up mnist
I0428 19:38:10.128248 23977 net.cpp:131] Top shape: 64 1 28 28 (50176)
I0428 19:38:10.128258 23977 net.cpp:131] Top shape: 64 (64)
I0428 19:38:10.128265 23977 net.cpp:139] Memory required for data: 200960
I0428 19:38:10.128275 23977 layer_factory.hpp:77] Creating layer conv0
I0428 19:38:10.128300 23977 net.cpp:86] Creating Layer conv0
I0428 19:38:10.128311 23977 net.cpp:408] conv0 <- data
I0428 19:38:10.128329 23977 net.cpp:382] conv0 -> conv0
I0428 19:38:10.419945 23977 net.cpp:124] Setting up conv0
I0428 19:38:10.419980 23977 net.cpp:131] Top shape: 64 100 24 24 (3686400)
I0428 19:38:10.419987 23977 net.cpp:139] Memory required for data: 14946560
I0428 19:38:10.420011 23977 layer_factory.hpp:77] Creating layer pool0
I0428 19:38:10.420030 23977 net.cpp:86] Creating Layer pool0
I0428 19:38:10.420058 23977 net.cpp:408] pool0 <- conv0
I0428 19:38:10.420070 23977 net.cpp:382] pool0 -> pool0
I0428 19:38:10.420137 23977 net.cpp:124] Setting up pool0
I0428 19:38:10.420148 23977 net.cpp:131] Top shape: 64 100 12 12 (921600)
I0428 19:38:10.420155 23977 net.cpp:139] Memory required for data: 18632960
I0428 19:38:10.420161 23977 layer_factory.hpp:77] Creating layer ip1
I0428 19:38:10.420173 23977 net.cpp:86] Creating Layer ip1
I0428 19:38:10.420181 23977 net.cpp:408] ip1 <- pool0
I0428 19:38:10.420191 23977 net.cpp:382] ip1 -> ip1
I0428 19:38:10.426139 23977 net.cpp:124] Setting up ip1
I0428 19:38:10.426157 23977 net.cpp:131] Top shape: 64 50 (3200)
I0428 19:38:10.426164 23977 net.cpp:139] Memory required for data: 18645760
I0428 19:38:10.426179 23977 layer_factory.hpp:77] Creating layer relu1
I0428 19:38:10.426192 23977 net.cpp:86] Creating Layer relu1
I0428 19:38:10.426206 23977 net.cpp:408] relu1 <- ip1
I0428 19:38:10.426215 23977 net.cpp:369] relu1 -> ip1 (in-place)
I0428 19:38:10.426419 23977 net.cpp:124] Setting up relu1
I0428 19:38:10.426432 23977 net.cpp:131] Top shape: 64 50 (3200)
I0428 19:38:10.426439 23977 net.cpp:139] Memory required for data: 18658560
I0428 19:38:10.426445 23977 layer_factory.hpp:77] Creating layer ip2
I0428 19:38:10.426456 23977 net.cpp:86] Creating Layer ip2
I0428 19:38:10.426462 23977 net.cpp:408] ip2 <- ip1
I0428 19:38:10.426472 23977 net.cpp:382] ip2 -> ip2
I0428 19:38:10.426605 23977 net.cpp:124] Setting up ip2
I0428 19:38:10.426616 23977 net.cpp:131] Top shape: 64 25 (1600)
I0428 19:38:10.426622 23977 net.cpp:139] Memory required for data: 18664960
I0428 19:38:10.426636 23977 layer_factory.hpp:77] Creating layer relu2
I0428 19:38:10.426651 23977 net.cpp:86] Creating Layer relu2
I0428 19:38:10.426659 23977 net.cpp:408] relu2 <- ip2
I0428 19:38:10.426667 23977 net.cpp:369] relu2 -> ip2 (in-place)
I0428 19:38:10.427513 23977 net.cpp:124] Setting up relu2
I0428 19:38:10.427532 23977 net.cpp:131] Top shape: 64 25 (1600)
I0428 19:38:10.427539 23977 net.cpp:139] Memory required for data: 18671360
I0428 19:38:10.427546 23977 layer_factory.hpp:77] Creating layer ip3
I0428 19:38:10.427557 23977 net.cpp:86] Creating Layer ip3
I0428 19:38:10.427564 23977 net.cpp:408] ip3 <- ip2
I0428 19:38:10.427577 23977 net.cpp:382] ip3 -> ip3
I0428 19:38:10.427703 23977 net.cpp:124] Setting up ip3
I0428 19:38:10.427714 23977 net.cpp:131] Top shape: 64 10 (640)
I0428 19:38:10.427721 23977 net.cpp:139] Memory required for data: 18673920
I0428 19:38:10.427731 23977 layer_factory.hpp:77] Creating layer relu3
I0428 19:38:10.427745 23977 net.cpp:86] Creating Layer relu3
I0428 19:38:10.427753 23977 net.cpp:408] relu3 <- ip3
I0428 19:38:10.427763 23977 net.cpp:369] relu3 -> ip3 (in-place)
I0428 19:38:10.427956 23977 net.cpp:124] Setting up relu3
I0428 19:38:10.427968 23977 net.cpp:131] Top shape: 64 10 (640)
I0428 19:38:10.427974 23977 net.cpp:139] Memory required for data: 18676480
I0428 19:38:10.427980 23977 layer_factory.hpp:77] Creating layer loss
I0428 19:38:10.427990 23977 net.cpp:86] Creating Layer loss
I0428 19:38:10.427996 23977 net.cpp:408] loss <- ip3
I0428 19:38:10.428004 23977 net.cpp:408] loss <- label
I0428 19:38:10.428015 23977 net.cpp:382] loss -> loss
I0428 19:38:10.428041 23977 layer_factory.hpp:77] Creating layer loss
…
I0428 19:38:10.428802 23977 solver.cpp:173] Creating test net (#0) specified by net file: ECE595/mnist/train_test/var_everything2/lenet_train_test269.prototxt
I0428 19:38:10.428844 23977 net.cpp:296] The NetState phase (1) differed from the phase (0) specified by a rule in layer mnist
I0428 19:38:10.428946 23977 net.cpp:53] Initializing net from parameters: 
name: "LeNet"
state {
  phase: TEST
}
layer {
  name: "mnist"
  type: "Data"
  top: "data"
  top: "label"
  include {
    phase: TEST
  }
  transform_param {
    scale: 0.00390625
  }
  data_param {
    source: "examples/mnist/mnist_test_lmdb"
    batch_size: 100
    backend: LMDB
  }
}
layer {
  name: "conv0"
  type: "Convolution"
  bottom: "data"
  top: "conv0"
  param {
    lr_mult: 1
  }
  param {
    lr_mult: 2
  }
  convolution_param {
    num_output: 100
    kernel_size: 5
    stride: 1
    weight_filler {
      type: "xavier"
    }
    bias_filler {
      type: "constant"
    }
  }
}
layer {
  name: "pool0"
  type: "Pooling"
  bottom: "conv0"
  top: "pool0"
  pooling_param {
    pool: MAX
    kernel_size: 2
    stride: 2
  }
}
layer {
  name: "ip1"
  type: "InnerProduct"
  bottom: "pool0"
  top: "ip1"
  param {
    lr_mult: 1
  }
  param {
    lr_mult: 2
  }
  inner_product_param {
    num_output: 50
    weight_filler {
      type: "xavier"
    }
    bias_filler {
      type: "constant"
    }
  }
}
layer {
  name: "relu1"
  type: "ReLU"
  bottom: "ip1"
  top: "ip1"
}
layer {
  name: "ip2"
  type: "InnerProduct"
  bottom: "ip1"
  top: "ip2"
  param {
    lr_mult: 1
  }
  param {
    lr_mult: 2
  }
  inner_product_param {
    num_output: 25
    weight_filler {
      type: "xavier"
    }
    bias_filler {
      type: "constant"
    }
  }
}
layer {
  name: "relu2"
  type: "ReLU"
  bottom: "ip2"
  top: "ip2"
}
layer {
  name: "ip3"
  type: "InnerProduct"
  bottom: "ip2"
  top: "ip3"
  param {
    lr_mult: 1
  }
  param {
    lr_mult: 2
  }
  inner_product_param {
    num_output: 10
    weight_filler {
      type: "xavier"
    }
    bias_filler {
      type: "constant"
    }
  }
}
layer {
  name: "relu3"
  type: "ReLU"
  bottom: "ip3"
  top: "ip3"
}
layer {
  name: "accuracy"
  type: "Accuracy"
  bottom: "ip3"
  bottom: "label"
  top: "accuracy"
  include {
    phase: TEST
  }
}
layer {
  name: "loss"
  type: "SoftmaxWithLoss"
  bottom: "ip3"
  bottom: "label"
  top: "loss"
}
I0428 19:38:10.429062 23977 layer_factory.hpp:77] Creating layer mnist
I0428 19:38:10.429131 23977 db_lmdb.cpp:35] Opened lmdb examples/mnist/mnist_test_lmdb
I0428 19:38:10.429152 23977 net.cpp:86] Creating Layer mnist
I0428 19:38:10.429163 23977 net.cpp:382] mnist -> data
I0428 19:38:10.429177 23977 net.cpp:382] mnist -> label
I0428 19:38:10.429318 23977 data_layer.cpp:45] output data size: 100,1,28,28
I0428 19:38:10.431567 23977 net.cpp:124] Setting up mnist
I0428 19:38:10.431584 23977 net.cpp:131] Top shape: 100 1 28 28 (78400)
I0428 19:38:10.431593 23977 net.cpp:131] Top shape: 100 (100)
I0428 19:38:10.431599 23977 net.cpp:139] Memory required for data: 314000
I0428 19:38:10.431607 23977 layer_factory.hpp:77] Creating layer label_mnist_1_split
I0428 19:38:10.431638 23977 net.cpp:86] Creating Layer label_mnist_1_split
I0428 19:38:10.431645 23977 net.cpp:408] label_mnist_1_split <- label
I0428 19:38:10.431655 23977 net.cpp:382] label_mnist_1_split -> label_mnist_1_split_0
I0428 19:38:10.431668 23977 net.cpp:382] label_mnist_1_split -> label_mnist_1_split_1
I0428 19:38:10.431763 23977 net.cpp:124] Setting up label_mnist_1_split
I0428 19:38:10.431773 23977 net.cpp:131] Top shape: 100 (100)
I0428 19:38:10.431780 23977 net.cpp:131] Top shape: 100 (100)
I0428 19:38:10.431787 23977 net.cpp:139] Memory required for data: 314800
I0428 19:38:10.431805 23977 layer_factory.hpp:77] Creating layer conv0
I0428 19:38:10.431823 23977 net.cpp:86] Creating Layer conv0
I0428 19:38:10.431831 23977 net.cpp:408] conv0 <- data
I0428 19:38:10.431844 23977 net.cpp:382] conv0 -> conv0
I0428 19:38:10.433552 23977 net.cpp:124] Setting up conv0
I0428 19:38:10.433569 23977 net.cpp:131] Top shape: 100 100 24 24 (5760000)
I0428 19:38:10.433575 23977 net.cpp:139] Memory required for data: 23354800
I0428 19:38:10.433593 23977 layer_factory.hpp:77] Creating layer pool0
I0428 19:38:10.433605 23977 net.cpp:86] Creating Layer pool0
I0428 19:38:10.433611 23977 net.cpp:408] pool0 <- conv0
I0428 19:38:10.433621 23977 net.cpp:382] pool0 -> pool0
I0428 19:38:10.433676 23977 net.cpp:124] Setting up pool0
I0428 19:38:10.433686 23977 net.cpp:131] Top shape: 100 100 12 12 (1440000)
I0428 19:38:10.433691 23977 net.cpp:139] Memory required for data: 29114800
I0428 19:38:10.433696 23977 layer_factory.hpp:77] Creating layer ip1
I0428 19:38:10.433712 23977 net.cpp:86] Creating Layer ip1
I0428 19:38:10.433719 23977 net.cpp:408] ip1 <- pool0
I0428 19:38:10.433728 23977 net.cpp:382] ip1 -> ip1
I0428 19:38:10.439404 23977 net.cpp:124] Setting up ip1
I0428 19:38:10.439419 23977 net.cpp:131] Top shape: 100 50 (5000)
I0428 19:38:10.439425 23977 net.cpp:139] Memory required for data: 29134800
I0428 19:38:10.439440 23977 layer_factory.hpp:77] Creating layer relu1
I0428 19:38:10.439450 23977 net.cpp:86] Creating Layer relu1
I0428 19:38:10.439455 23977 net.cpp:408] relu1 <- ip1
I0428 19:38:10.439466 23977 net.cpp:369] relu1 -> ip1 (in-place)
I0428 19:38:10.439666 23977 net.cpp:124] Setting up relu1
I0428 19:38:10.439677 23977 net.cpp:131] Top shape: 100 50 (5000)
I0428 19:38:10.439683 23977 net.cpp:139] Memory required for data: 29154800
I0428 19:38:10.439688 23977 layer_factory.hpp:77] Creating layer ip2
I0428 19:38:10.439702 23977 net.cpp:86] Creating Layer ip2
I0428 19:38:10.439709 23977 net.cpp:408] ip2 <- ip1
I0428 19:38:10.439720 23977 net.cpp:382] ip2 -> ip2
I0428 19:38:10.439857 23977 net.cpp:124] Setting up ip2
I0428 19:38:10.439869 23977 net.cpp:131] Top shape: 100 25 (2500)
I0428 19:38:10.439874 23977 net.cpp:139] Memory required for data: 29164800
I0428 19:38:10.439888 23977 layer_factory.hpp:77] Creating layer relu2
I0428 19:38:10.439898 23977 net.cpp:86] Creating Layer relu2
I0428 19:38:10.439906 23977 net.cpp:408] relu2 <- ip2
I0428 19:38:10.439914 23977 net.cpp:369] relu2 -> ip2 (in-place)
I0428 19:38:10.440742 23977 net.cpp:124] Setting up relu2
I0428 19:38:10.440757 23977 net.cpp:131] Top shape: 100 25 (2500)
I0428 19:38:10.440763 23977 net.cpp:139] Memory required for data: 29174800
I0428 19:38:10.440768 23977 layer_factory.hpp:77] Creating layer ip3
I0428 19:38:10.440788 23977 net.cpp:86] Creating Layer ip3
I0428 19:38:10.440795 23977 net.cpp:408] ip3 <- ip2
I0428 19:38:10.440806 23977 net.cpp:382] ip3 -> ip3
I0428 19:38:10.440939 23977 net.cpp:124] Setting up ip3
I0428 19:38:10.440950 23977 net.cpp:131] Top shape: 100 10 (1000)
I0428 19:38:10.440955 23977 net.cpp:139] Memory required for data: 29178800
I0428 19:38:10.440966 23977 layer_factory.hpp:77] Creating layer relu3
I0428 19:38:10.440975 23977 net.cpp:86] Creating Layer relu3
I0428 19:38:10.440981 23977 net.cpp:408] relu3 <- ip3
I0428 19:38:10.440991 23977 net.cpp:369] relu3 -> ip3 (in-place)
I0428 19:38:10.441179 23977 net.cpp:124] Setting up relu3
I0428 19:38:10.441193 23977 net.cpp:131] Top shape: 100 10 (1000)
I0428 19:38:10.441200 23977 net.cpp:139] Memory required for data: 29182800
I0428 19:38:10.441205 23977 layer_factory.hpp:77] Creating layer ip3_relu3_0_split
I0428 19:38:10.441213 23977 net.cpp:86] Creating Layer ip3_relu3_0_split
I0428 19:38:10.441220 23977 net.cpp:408] ip3_relu3_0_split <- ip3
I0428 19:38:10.441229 23977 net.cpp:382] ip3_relu3_0_split -> ip3_relu3_0_split_0
I0428 19:38:10.441241 23977 net.cpp:382] ip3_relu3_0_split -> ip3_relu3_0_split_1
I0428 19:38:10.441288 23977 net.cpp:124] Setting up ip3_relu3_0_split
I0428 19:38:10.441298 23977 net.cpp:131] Top shape: 100 10 (1000)
I0428 19:38:10.441318 23977 net.cpp:131] Top shape: 100 10 (1000)
I0428 19:38:10.441323 23977 net.cpp:139] Memory required for data: 29190800
I0428 19:38:10.441329 23977 layer_factory.hpp:77] Creating layer accuracy
I0428 19:38:10.441339 23977 net.cpp:86] Creating Layer accuracy
I0428 19:38:10.441346 23977 net.cpp:408] accuracy <- ip3_relu3_0_split_0
I0428 19:38:10.441354 23977 net.cpp:408] accuracy <- label_mnist_1_split_0
I0428 19:38:10.441364 23977 net.cpp:382] accuracy -> accuracy
…
