…
I0428 20:01:38.724715 29767 net.cpp:296] The NetState phase (0) differed from the phase (1) specified by a rule in layer mnist
I0428 20:01:38.724730 29767 net.cpp:296] The NetState phase (0) differed from the phase (1) specified by a rule in layer accuracy
I0428 20:01:38.724802 29767 net.cpp:53] Initializing net from parameters: 
name: "LeNet"
state {
  phase: TRAIN
  level: 0
  stage: ""
}
layer {
  name: "mnist"
  type: "Data"
  top: "data"
  top: "label"
  include {
    phase: TRAIN
  }
  transform_param {
    scale: 0.00390625
  }
  data_param {
    source: "examples/mnist/mnist_train_lmdb"
    batch_size: 64
    backend: LMDB
  }
}
layer {
  name: "conv0"
  type: "Convolution"
  bottom: "data"
  top: "conv0"
  param {
    lr_mult: 1
  }
  param {
    lr_mult: 2
  }
  convolution_param {
    num_output: 10
    kernel_size: 5
    stride: 1
    weight_filler {
      type: "xavier"
    }
    bias_filler {
      type: "constant"
    }
  }
}
layer {
  name: "pool0"
  type: "Pooling"
  bottom: "conv0"
  top: "pool0"
  pooling_param {
    pool: MAX
    kernel_size: 2
    stride: 2
  }
}
layer {
  name: "conv1"
  type: "Convolution"
  bottom: "pool0"
  top: "conv1"
  param {
    lr_mult: 1
  }
  param {
    lr_mult: 2
  }
  convolution_param {
    num_output: 50
    kernel_size: 5
    stride: 1
    weight_filler {
      type: "xavier"
    }
    bias_filler {
      type: "constant"
    }
  }
}
layer {
  name: "pool1"
  type: "Pooling"
  bottom: "conv1"
  top: "pool1"
  pooling_param {
    pool: MAX
    kernel_size: 2
    stride: 2
  }
}
layer {
  name: "ip1"
  type: "InnerProduct"
  bottom: "pool1"
  top: "ip1"
  param {
    lr_mult: 1
  }
  param {
    lr_mult: 2
  }
  inner_product_param {
    num_output: 50
    weight_filler {
      type: "xavier"
    }
    bias_filler {
      type: "constant"
    }
  }
}
layer {
  name: "relu1"
  type: "ReLU"
  bottom: "ip1"
  top: "ip1"
}
layer {
  name: "ip2"
  type: "InnerProduct"
  bottom: "ip1"
  top: "ip2"
  param {
    lr_mult: 1
  }
  param {
    lr_mult: 2
  }
  inner_product_param {
    num_output: 10
    weight_filler {
      type: "xavier"
    }
    bias_filler {
      type: "constant"
    }
  }
}
layer {
  name: "relu2"
  type: "ReLU"
  bottom: "ip2"
  top: "ip2"
}
layer {
  name: "loss"
  type: "SoftmaxWithLoss"
  bottom: "ip2"
  bottom: "label"
  top: "loss"
}
I0428 20:01:38.724890 29767 layer_factory.hpp:77] Creating layer mnist
I0428 20:01:38.724974 29767 db_lmdb.cpp:35] Opened lmdb examples/mnist/mnist_train_lmdb
I0428 20:01:38.725008 29767 net.cpp:86] Creating Layer mnist
I0428 20:01:38.725014 29767 net.cpp:382] mnist -> data
I0428 20:01:38.725033 29767 net.cpp:382] mnist -> label
I0428 20:01:38.725955 29767 data_layer.cpp:45] output data size: 64,1,28,28
I0428 20:01:38.728209 29767 net.cpp:124] Setting up mnist
I0428 20:01:38.728255 29767 net.cpp:131] Top shape: 64 1 28 28 (50176)
I0428 20:01:38.728260 29767 net.cpp:131] Top shape: 64 (64)
I0428 20:01:38.728278 29767 net.cpp:139] Memory required for data: 200960
I0428 20:01:38.728284 29767 layer_factory.hpp:77] Creating layer conv0
I0428 20:01:38.728298 29767 net.cpp:86] Creating Layer conv0
I0428 20:01:38.728302 29767 net.cpp:408] conv0 <- data
I0428 20:01:38.728313 29767 net.cpp:382] conv0 -> conv0
I0428 20:01:38.962546 29767 net.cpp:124] Setting up conv0
I0428 20:01:38.962574 29767 net.cpp:131] Top shape: 64 10 24 24 (368640)
I0428 20:01:38.962577 29767 net.cpp:139] Memory required for data: 1675520
I0428 20:01:38.962610 29767 layer_factory.hpp:77] Creating layer pool0
I0428 20:01:38.962622 29767 net.cpp:86] Creating Layer pool0
I0428 20:01:38.962642 29767 net.cpp:408] pool0 <- conv0
I0428 20:01:38.962647 29767 net.cpp:382] pool0 -> pool0
I0428 20:01:38.962695 29767 net.cpp:124] Setting up pool0
I0428 20:01:38.962713 29767 net.cpp:131] Top shape: 64 10 12 12 (92160)
I0428 20:01:38.962716 29767 net.cpp:139] Memory required for data: 2044160
I0428 20:01:38.962719 29767 layer_factory.hpp:77] Creating layer conv1
I0428 20:01:38.962729 29767 net.cpp:86] Creating Layer conv1
I0428 20:01:38.962733 29767 net.cpp:408] conv1 <- pool0
I0428 20:01:38.962738 29767 net.cpp:382] conv1 -> conv1
I0428 20:01:38.965633 29767 net.cpp:124] Setting up conv1
I0428 20:01:38.965647 29767 net.cpp:131] Top shape: 64 50 8 8 (204800)
I0428 20:01:38.965651 29767 net.cpp:139] Memory required for data: 2863360
I0428 20:01:38.965659 29767 layer_factory.hpp:77] Creating layer pool1
I0428 20:01:38.965667 29767 net.cpp:86] Creating Layer pool1
I0428 20:01:38.965669 29767 net.cpp:408] pool1 <- conv1
I0428 20:01:38.965692 29767 net.cpp:382] pool1 -> pool1
I0428 20:01:38.965747 29767 net.cpp:124] Setting up pool1
I0428 20:01:38.965754 29767 net.cpp:131] Top shape: 64 50 4 4 (51200)
I0428 20:01:38.965756 29767 net.cpp:139] Memory required for data: 3068160
I0428 20:01:38.965759 29767 layer_factory.hpp:77] Creating layer ip1
I0428 20:01:38.965767 29767 net.cpp:86] Creating Layer ip1
I0428 20:01:38.965770 29767 net.cpp:408] ip1 <- pool1
I0428 20:01:38.965776 29767 net.cpp:382] ip1 -> ip1
I0428 20:01:38.966133 29767 net.cpp:124] Setting up ip1
I0428 20:01:38.966141 29767 net.cpp:131] Top shape: 64 50 (3200)
I0428 20:01:38.966161 29767 net.cpp:139] Memory required for data: 3080960
I0428 20:01:38.966167 29767 layer_factory.hpp:77] Creating layer relu1
I0428 20:01:38.966173 29767 net.cpp:86] Creating Layer relu1
I0428 20:01:38.966177 29767 net.cpp:408] relu1 <- ip1
I0428 20:01:38.966181 29767 net.cpp:369] relu1 -> ip1 (in-place)
I0428 20:01:38.966365 29767 net.cpp:124] Setting up relu1
I0428 20:01:38.966374 29767 net.cpp:131] Top shape: 64 50 (3200)
I0428 20:01:38.966377 29767 net.cpp:139] Memory required for data: 3093760
I0428 20:01:38.966380 29767 layer_factory.hpp:77] Creating layer ip2
I0428 20:01:38.966388 29767 net.cpp:86] Creating Layer ip2
I0428 20:01:38.966392 29767 net.cpp:408] ip2 <- ip1
I0428 20:01:38.966397 29767 net.cpp:382] ip2 -> ip2
I0428 20:01:38.966500 29767 net.cpp:124] Setting up ip2
I0428 20:01:38.966507 29767 net.cpp:131] Top shape: 64 10 (640)
I0428 20:01:38.966509 29767 net.cpp:139] Memory required for data: 3096320
I0428 20:01:38.966516 29767 layer_factory.hpp:77] Creating layer relu2
I0428 20:01:38.966521 29767 net.cpp:86] Creating Layer relu2
I0428 20:01:38.966524 29767 net.cpp:408] relu2 <- ip2
I0428 20:01:38.966528 29767 net.cpp:369] relu2 -> ip2 (in-place)
I0428 20:01:38.967289 29767 net.cpp:124] Setting up relu2
I0428 20:01:38.967301 29767 net.cpp:131] Top shape: 64 10 (640)
I0428 20:01:38.967320 29767 net.cpp:139] Memory required for data: 3098880
I0428 20:01:38.967324 29767 layer_factory.hpp:77] Creating layer loss
I0428 20:01:38.967330 29767 net.cpp:86] Creating Layer loss
I0428 20:01:38.967334 29767 net.cpp:408] loss <- ip2
I0428 20:01:38.967337 29767 net.cpp:408] loss <- label
I0428 20:01:38.967344 29767 net.cpp:382] loss -> loss
I0428 20:01:38.967363 29767 layer_factory.hpp:77] Creating layer loss
…
I0428 20:01:38.968031 29767 solver.cpp:173] Creating test net (#0) specified by net file: ECE595/mnist/train_test/var_everything2/lenet_train_test908.prototxt
I0428 20:01:38.968056 29767 net.cpp:296] The NetState phase (1) differed from the phase (0) specified by a rule in layer mnist
I0428 20:01:38.968143 29767 net.cpp:53] Initializing net from parameters: 
name: "LeNet"
state {
  phase: TEST
}
layer {
  name: "mnist"
  type: "Data"
  top: "data"
  top: "label"
  include {
    phase: TEST
  }
  transform_param {
    scale: 0.00390625
  }
  data_param {
    source: "examples/mnist/mnist_test_lmdb"
    batch_size: 100
    backend: LMDB
  }
}
layer {
  name: "conv0"
  type: "Convolution"
  bottom: "data"
  top: "conv0"
  param {
    lr_mult: 1
  }
  param {
    lr_mult: 2
  }
  convolution_param {
    num_output: 10
    kernel_size: 5
    stride: 1
    weight_filler {
      type: "xavier"
    }
    bias_filler {
      type: "constant"
    }
  }
}
layer {
  name: "pool0"
  type: "Pooling"
  bottom: "conv0"
  top: "pool0"
  pooling_param {
    pool: MAX
    kernel_size: 2
    stride: 2
  }
}
layer {
  name: "conv1"
  type: "Convolution"
  bottom: "pool0"
  top: "conv1"
  param {
    lr_mult: 1
  }
  param {
    lr_mult: 2
  }
  convolution_param {
    num_output: 50
    kernel_size: 5
    stride: 1
    weight_filler {
      type: "xavier"
    }
    bias_filler {
      type: "constant"
    }
  }
}
layer {
  name: "pool1"
  type: "Pooling"
  bottom: "conv1"
  top: "pool1"
  pooling_param {
    pool: MAX
    kernel_size: 2
    stride: 2
  }
}
layer {
  name: "ip1"
  type: "InnerProduct"
  bottom: "pool1"
  top: "ip1"
  param {
    lr_mult: 1
  }
  param {
    lr_mult: 2
  }
  inner_product_param {
    num_output: 50
    weight_filler {
      type: "xavier"
    }
    bias_filler {
      type: "constant"
    }
  }
}
layer {
  name: "relu1"
  type: "ReLU"
  bottom: "ip1"
  top: "ip1"
}
layer {
  name: "ip2"
  type: "InnerProduct"
  bottom: "ip1"
  top: "ip2"
  param {
    lr_mult: 1
  }
  param {
    lr_mult: 2
  }
  inner_product_param {
    num_output: 10
    weight_filler {
      type: "xavier"
    }
    bias_filler {
      type: "constant"
    }
  }
}
layer {
  name: "relu2"
  type: "ReLU"
  bottom: "ip2"
  top: "ip2"
}
layer {
  name: "accuracy"
  type: "Accuracy"
  bottom: "ip2"
  bottom: "label"
  top: "accuracy"
  include {
    phase: TEST
  }
}
layer {
  name: "loss"
  type: "SoftmaxWithLoss"
  bottom: "ip2"
  bottom: "label"
  top: "loss"
}
I0428 20:01:38.968210 29767 layer_factory.hpp:77] Creating layer mnist
I0428 20:01:38.968255 29767 db_lmdb.cpp:35] Opened lmdb examples/mnist/mnist_test_lmdb
I0428 20:01:38.968267 29767 net.cpp:86] Creating Layer mnist
I0428 20:01:38.968271 29767 net.cpp:382] mnist -> data
I0428 20:01:38.968279 29767 net.cpp:382] mnist -> label
I0428 20:01:38.968369 29767 data_layer.cpp:45] output data size: 100,1,28,28
I0428 20:01:38.970336 29767 net.cpp:124] Setting up mnist
I0428 20:01:38.970366 29767 net.cpp:131] Top shape: 100 1 28 28 (78400)
I0428 20:01:38.970371 29767 net.cpp:131] Top shape: 100 (100)
I0428 20:01:38.970373 29767 net.cpp:139] Memory required for data: 314000
I0428 20:01:38.970392 29767 layer_factory.hpp:77] Creating layer label_mnist_1_split
I0428 20:01:38.970402 29767 net.cpp:86] Creating Layer label_mnist_1_split
I0428 20:01:38.970407 29767 net.cpp:408] label_mnist_1_split <- label
I0428 20:01:38.970410 29767 net.cpp:382] label_mnist_1_split -> label_mnist_1_split_0
I0428 20:01:38.970417 29767 net.cpp:382] label_mnist_1_split -> label_mnist_1_split_1
I0428 20:01:38.970510 29767 net.cpp:124] Setting up label_mnist_1_split
I0428 20:01:38.970518 29767 net.cpp:131] Top shape: 100 (100)
I0428 20:01:38.970521 29767 net.cpp:131] Top shape: 100 (100)
I0428 20:01:38.970525 29767 net.cpp:139] Memory required for data: 314800
I0428 20:01:38.970527 29767 layer_factory.hpp:77] Creating layer conv0
I0428 20:01:38.970537 29767 net.cpp:86] Creating Layer conv0
I0428 20:01:38.970541 29767 net.cpp:408] conv0 <- data
I0428 20:01:38.970546 29767 net.cpp:382] conv0 -> conv0
I0428 20:01:38.972262 29767 net.cpp:124] Setting up conv0
I0428 20:01:38.972275 29767 net.cpp:131] Top shape: 100 10 24 24 (576000)
I0428 20:01:38.972278 29767 net.cpp:139] Memory required for data: 2618800
I0428 20:01:38.972287 29767 layer_factory.hpp:77] Creating layer pool0
I0428 20:01:38.972295 29767 net.cpp:86] Creating Layer pool0
I0428 20:01:38.972298 29767 net.cpp:408] pool0 <- conv0
I0428 20:01:38.972303 29767 net.cpp:382] pool0 -> pool0
I0428 20:01:38.972355 29767 net.cpp:124] Setting up pool0
I0428 20:01:38.972360 29767 net.cpp:131] Top shape: 100 10 12 12 (144000)
I0428 20:01:38.972363 29767 net.cpp:139] Memory required for data: 3194800
I0428 20:01:38.972367 29767 layer_factory.hpp:77] Creating layer conv1
I0428 20:01:38.972376 29767 net.cpp:86] Creating Layer conv1
I0428 20:01:38.972379 29767 net.cpp:408] conv1 <- pool0
I0428 20:01:38.972385 29767 net.cpp:382] conv1 -> conv1
I0428 20:01:38.974076 29767 net.cpp:124] Setting up conv1
I0428 20:01:38.974107 29767 net.cpp:131] Top shape: 100 50 8 8 (320000)
I0428 20:01:38.974112 29767 net.cpp:139] Memory required for data: 4474800
I0428 20:01:38.974122 29767 layer_factory.hpp:77] Creating layer pool1
I0428 20:01:38.974128 29767 net.cpp:86] Creating Layer pool1
I0428 20:01:38.974133 29767 net.cpp:408] pool1 <- conv1
I0428 20:01:38.974138 29767 net.cpp:382] pool1 -> pool1
I0428 20:01:38.974194 29767 net.cpp:124] Setting up pool1
I0428 20:01:38.974198 29767 net.cpp:131] Top shape: 100 50 4 4 (80000)
I0428 20:01:38.974201 29767 net.cpp:139] Memory required for data: 4794800
I0428 20:01:38.974205 29767 layer_factory.hpp:77] Creating layer ip1
I0428 20:01:38.974212 29767 net.cpp:86] Creating Layer ip1
I0428 20:01:38.974216 29767 net.cpp:408] ip1 <- pool1
I0428 20:01:38.974222 29767 net.cpp:382] ip1 -> ip1
I0428 20:01:38.974617 29767 net.cpp:124] Setting up ip1
I0428 20:01:38.974625 29767 net.cpp:131] Top shape: 100 50 (5000)
I0428 20:01:38.974644 29767 net.cpp:139] Memory required for data: 4814800
I0428 20:01:38.974651 29767 layer_factory.hpp:77] Creating layer relu1
I0428 20:01:38.974656 29767 net.cpp:86] Creating Layer relu1
I0428 20:01:38.974661 29767 net.cpp:408] relu1 <- ip1
I0428 20:01:38.974673 29767 net.cpp:369] relu1 -> ip1 (in-place)
I0428 20:01:38.974905 29767 net.cpp:124] Setting up relu1
I0428 20:01:38.974915 29767 net.cpp:131] Top shape: 100 50 (5000)
I0428 20:01:38.974918 29767 net.cpp:139] Memory required for data: 4834800
I0428 20:01:38.974921 29767 layer_factory.hpp:77] Creating layer ip2
I0428 20:01:38.974927 29767 net.cpp:86] Creating Layer ip2
I0428 20:01:38.974931 29767 net.cpp:408] ip2 <- ip1
I0428 20:01:38.974937 29767 net.cpp:382] ip2 -> ip2
I0428 20:01:38.975100 29767 net.cpp:124] Setting up ip2
I0428 20:01:38.975109 29767 net.cpp:131] Top shape: 100 10 (1000)
I0428 20:01:38.975112 29767 net.cpp:139] Memory required for data: 4838800
I0428 20:01:38.975118 29767 layer_factory.hpp:77] Creating layer relu2
I0428 20:01:38.975123 29767 net.cpp:86] Creating Layer relu2
I0428 20:01:38.975126 29767 net.cpp:408] relu2 <- ip2
I0428 20:01:38.975131 29767 net.cpp:369] relu2 -> ip2 (in-place)
I0428 20:01:38.975307 29767 net.cpp:124] Setting up relu2
I0428 20:01:38.975316 29767 net.cpp:131] Top shape: 100 10 (1000)
I0428 20:01:38.975319 29767 net.cpp:139] Memory required for data: 4842800
I0428 20:01:38.975322 29767 layer_factory.hpp:77] Creating layer ip2_relu2_0_split
I0428 20:01:38.975327 29767 net.cpp:86] Creating Layer ip2_relu2_0_split
I0428 20:01:38.975330 29767 net.cpp:408] ip2_relu2_0_split <- ip2
I0428 20:01:38.975337 29767 net.cpp:382] ip2_relu2_0_split -> ip2_relu2_0_split_0
I0428 20:01:38.975352 29767 net.cpp:382] ip2_relu2_0_split -> ip2_relu2_0_split_1
I0428 20:01:38.975389 29767 net.cpp:124] Setting up ip2_relu2_0_split
I0428 20:01:38.975394 29767 net.cpp:131] Top shape: 100 10 (1000)
I0428 20:01:38.975399 29767 net.cpp:131] Top shape: 100 10 (1000)
I0428 20:01:38.975401 29767 net.cpp:139] Memory required for data: 4850800
I0428 20:01:38.975404 29767 layer_factory.hpp:77] Creating layer accuracy
I0428 20:01:38.975409 29767 net.cpp:86] Creating Layer accuracy
I0428 20:01:38.975412 29767 net.cpp:408] accuracy <- ip2_relu2_0_split_0
I0428 20:01:38.975416 29767 net.cpp:408] accuracy <- label_mnist_1_split_0
I0428 20:01:38.975420 29767 net.cpp:382] accuracy -> accuracy
…
