…
I0428 19:53:35.723341 27803 net.cpp:296] The NetState phase (0) differed from the phase (1) specified by a rule in layer mnist
I0428 19:53:35.723357 27803 net.cpp:296] The NetState phase (0) differed from the phase (1) specified by a rule in layer accuracy
I0428 19:53:35.723435 27803 net.cpp:53] Initializing net from parameters: 
name: "LeNet"
state {
  phase: TRAIN
  level: 0
  stage: ""
}
layer {
  name: "mnist"
  type: "Data"
  top: "data"
  top: "label"
  include {
    phase: TRAIN
  }
  transform_param {
    scale: 0.00390625
  }
  data_param {
    source: "examples/mnist/mnist_train_lmdb"
    batch_size: 64
    backend: LMDB
  }
}
layer {
  name: "conv0"
  type: "Convolution"
  bottom: "data"
  top: "conv0"
  param {
    lr_mult: 1
  }
  param {
    lr_mult: 2
  }
  convolution_param {
    num_output: 5
    kernel_size: 5
    stride: 1
    weight_filler {
      type: "xavier"
    }
    bias_filler {
      type: "constant"
    }
  }
}
layer {
  name: "pool0"
  type: "Pooling"
  bottom: "conv0"
  top: "pool0"
  pooling_param {
    pool: MAX
    kernel_size: 2
    stride: 2
  }
}
layer {
  name: "conv1"
  type: "Convolution"
  bottom: "pool0"
  top: "conv1"
  param {
    lr_mult: 1
  }
  param {
    lr_mult: 2
  }
  convolution_param {
    num_output: 50
    kernel_size: 5
    stride: 1
    weight_filler {
      type: "xavier"
    }
    bias_filler {
      type: "constant"
    }
  }
}
layer {
  name: "pool1"
  type: "Pooling"
  bottom: "conv1"
  top: "pool1"
  pooling_param {
    pool: MAX
    kernel_size: 2
    stride: 2
  }
}
layer {
  name: "ip1"
  type: "InnerProduct"
  bottom: "pool1"
  top: "ip1"
  param {
    lr_mult: 1
  }
  param {
    lr_mult: 2
  }
  inner_product_param {
    num_output: 25
    weight_filler {
      type: "xavier"
    }
    bias_filler {
      type: "constant"
    }
  }
}
layer {
  name: "relu1"
  type: "ReLU"
  bottom: "ip1"
  top: "ip1"
}
layer {
  name: "ip2"
  type: "InnerProduct"
  bottom: "ip1"
  top: "ip2"
  param {
    lr_mult: 1
  }
  param {
    lr_mult: 2
  }
  inner_product_param {
    num_output: 50
    weight_filler {
      type: "xavier"
    }
    bias_filler {
      type: "constant"
    }
  }
}
layer {
  name: "relu2"
  type: "ReLU"
  bottom: "ip2"
  top: "ip2"
}
layer {
  name: "ip3"
  type: "InnerProduct"
  bottom: "ip2"
  top: "ip3"
  param {
    lr_mult: 1
  }
  param {
    lr_mult: 2
  }
  inner_product_param {
    num_output: 10
    weight_filler {
      type: "xavier"
    }
    bias_filler {
      type: "constant"
    }
  }
}
layer {
  name: "relu3"
  type: "ReLU"
  bottom: "ip3"
  top: "ip3"
}
layer {
  name: "loss"
  type: "SoftmaxWithLoss"
  bottom: "ip3"
  bottom: "label"
  top: "loss"
}
I0428 19:53:35.723500 27803 layer_factory.hpp:77] Creating layer mnist
I0428 19:53:35.723594 27803 db_lmdb.cpp:35] Opened lmdb examples/mnist/mnist_train_lmdb
I0428 19:53:35.723614 27803 net.cpp:86] Creating Layer mnist
I0428 19:53:35.723621 27803 net.cpp:382] mnist -> data
I0428 19:53:35.723640 27803 net.cpp:382] mnist -> label
I0428 19:53:35.724656 27803 data_layer.cpp:45] output data size: 64,1,28,28
I0428 19:53:35.727006 27803 net.cpp:124] Setting up mnist
I0428 19:53:35.727037 27803 net.cpp:131] Top shape: 64 1 28 28 (50176)
I0428 19:53:35.727041 27803 net.cpp:131] Top shape: 64 (64)
I0428 19:53:35.727044 27803 net.cpp:139] Memory required for data: 200960
I0428 19:53:35.727051 27803 layer_factory.hpp:77] Creating layer conv0
I0428 19:53:35.727064 27803 net.cpp:86] Creating Layer conv0
I0428 19:53:35.727080 27803 net.cpp:408] conv0 <- data
I0428 19:53:35.727092 27803 net.cpp:382] conv0 -> conv0
I0428 19:53:35.957829 27803 net.cpp:124] Setting up conv0
I0428 19:53:35.957871 27803 net.cpp:131] Top shape: 64 5 24 24 (184320)
I0428 19:53:35.957875 27803 net.cpp:139] Memory required for data: 938240
I0428 19:53:35.957890 27803 layer_factory.hpp:77] Creating layer pool0
I0428 19:53:35.957903 27803 net.cpp:86] Creating Layer pool0
I0428 19:53:35.957907 27803 net.cpp:408] pool0 <- conv0
I0428 19:53:35.957928 27803 net.cpp:382] pool0 -> pool0
I0428 19:53:35.957988 27803 net.cpp:124] Setting up pool0
I0428 19:53:35.957995 27803 net.cpp:131] Top shape: 64 5 12 12 (46080)
I0428 19:53:35.957998 27803 net.cpp:139] Memory required for data: 1122560
I0428 19:53:35.958000 27803 layer_factory.hpp:77] Creating layer conv1
I0428 19:53:35.958010 27803 net.cpp:86] Creating Layer conv1
I0428 19:53:35.958014 27803 net.cpp:408] conv1 <- pool0
I0428 19:53:35.958019 27803 net.cpp:382] conv1 -> conv1
I0428 19:53:35.960789 27803 net.cpp:124] Setting up conv1
I0428 19:53:35.960803 27803 net.cpp:131] Top shape: 64 50 8 8 (204800)
I0428 19:53:35.960830 27803 net.cpp:139] Memory required for data: 1941760
I0428 19:53:35.960839 27803 layer_factory.hpp:77] Creating layer pool1
I0428 19:53:35.960862 27803 net.cpp:86] Creating Layer pool1
I0428 19:53:35.960865 27803 net.cpp:408] pool1 <- conv1
I0428 19:53:35.960870 27803 net.cpp:382] pool1 -> pool1
I0428 19:53:35.960940 27803 net.cpp:124] Setting up pool1
I0428 19:53:35.960947 27803 net.cpp:131] Top shape: 64 50 4 4 (51200)
I0428 19:53:35.960964 27803 net.cpp:139] Memory required for data: 2146560
I0428 19:53:35.960968 27803 layer_factory.hpp:77] Creating layer ip1
I0428 19:53:35.960974 27803 net.cpp:86] Creating Layer ip1
I0428 19:53:35.960978 27803 net.cpp:408] ip1 <- pool1
I0428 19:53:35.960983 27803 net.cpp:382] ip1 -> ip1
I0428 19:53:35.961205 27803 net.cpp:124] Setting up ip1
I0428 19:53:35.961212 27803 net.cpp:131] Top shape: 64 25 (1600)
I0428 19:53:35.961215 27803 net.cpp:139] Memory required for data: 2152960
I0428 19:53:35.961222 27803 layer_factory.hpp:77] Creating layer relu1
I0428 19:53:35.961228 27803 net.cpp:86] Creating Layer relu1
I0428 19:53:35.961231 27803 net.cpp:408] relu1 <- ip1
I0428 19:53:35.961236 27803 net.cpp:369] relu1 -> ip1 (in-place)
I0428 19:53:35.961414 27803 net.cpp:124] Setting up relu1
I0428 19:53:35.961423 27803 net.cpp:131] Top shape: 64 25 (1600)
I0428 19:53:35.961426 27803 net.cpp:139] Memory required for data: 2159360
I0428 19:53:35.961428 27803 layer_factory.hpp:77] Creating layer ip2
I0428 19:53:35.961434 27803 net.cpp:86] Creating Layer ip2
I0428 19:53:35.961437 27803 net.cpp:408] ip2 <- ip1
I0428 19:53:35.961441 27803 net.cpp:382] ip2 -> ip2
I0428 19:53:35.962483 27803 net.cpp:124] Setting up ip2
I0428 19:53:35.962496 27803 net.cpp:131] Top shape: 64 50 (3200)
I0428 19:53:35.962514 27803 net.cpp:139] Memory required for data: 2172160
I0428 19:53:35.962520 27803 layer_factory.hpp:77] Creating layer relu2
I0428 19:53:35.962527 27803 net.cpp:86] Creating Layer relu2
I0428 19:53:35.962530 27803 net.cpp:408] relu2 <- ip2
I0428 19:53:35.962534 27803 net.cpp:369] relu2 -> ip2 (in-place)
I0428 19:53:35.963304 27803 net.cpp:124] Setting up relu2
I0428 19:53:35.963316 27803 net.cpp:131] Top shape: 64 50 (3200)
I0428 19:53:35.963336 27803 net.cpp:139] Memory required for data: 2184960
I0428 19:53:35.963340 27803 layer_factory.hpp:77] Creating layer ip3
I0428 19:53:35.963348 27803 net.cpp:86] Creating Layer ip3
I0428 19:53:35.963351 27803 net.cpp:408] ip3 <- ip2
I0428 19:53:35.963357 27803 net.cpp:382] ip3 -> ip3
I0428 19:53:35.963491 27803 net.cpp:124] Setting up ip3
I0428 19:53:35.963500 27803 net.cpp:131] Top shape: 64 10 (640)
I0428 19:53:35.963502 27803 net.cpp:139] Memory required for data: 2187520
I0428 19:53:35.963510 27803 layer_factory.hpp:77] Creating layer relu3
I0428 19:53:35.963516 27803 net.cpp:86] Creating Layer relu3
I0428 19:53:35.963520 27803 net.cpp:408] relu3 <- ip3
I0428 19:53:35.963523 27803 net.cpp:369] relu3 -> ip3 (in-place)
I0428 19:53:35.963696 27803 net.cpp:124] Setting up relu3
I0428 19:53:35.963704 27803 net.cpp:131] Top shape: 64 10 (640)
I0428 19:53:35.963707 27803 net.cpp:139] Memory required for data: 2190080
I0428 19:53:35.963711 27803 layer_factory.hpp:77] Creating layer loss
I0428 19:53:35.963716 27803 net.cpp:86] Creating Layer loss
I0428 19:53:35.963719 27803 net.cpp:408] loss <- ip3
I0428 19:53:35.963723 27803 net.cpp:408] loss <- label
I0428 19:53:35.963728 27803 net.cpp:382] loss -> loss
I0428 19:53:35.963745 27803 layer_factory.hpp:77] Creating layer loss
…
I0428 19:53:35.964442 27803 solver.cpp:173] Creating test net (#0) specified by net file: ECE595/mnist/train_test/var_everything2/lenet_train_test691.prototxt
I0428 19:53:35.964485 27803 net.cpp:296] The NetState phase (1) differed from the phase (0) specified by a rule in layer mnist
I0428 19:53:35.964602 27803 net.cpp:53] Initializing net from parameters: 
name: "LeNet"
state {
  phase: TEST
}
layer {
  name: "mnist"
  type: "Data"
  top: "data"
  top: "label"
  include {
    phase: TEST
  }
  transform_param {
    scale: 0.00390625
  }
  data_param {
    source: "examples/mnist/mnist_test_lmdb"
    batch_size: 100
    backend: LMDB
  }
}
layer {
  name: "conv0"
  type: "Convolution"
  bottom: "data"
  top: "conv0"
  param {
    lr_mult: 1
  }
  param {
    lr_mult: 2
  }
  convolution_param {
    num_output: 5
    kernel_size: 5
    stride: 1
    weight_filler {
      type: "xavier"
    }
    bias_filler {
      type: "constant"
    }
  }
}
layer {
  name: "pool0"
  type: "Pooling"
  bottom: "conv0"
  top: "pool0"
  pooling_param {
    pool: MAX
    kernel_size: 2
    stride: 2
  }
}
layer {
  name: "conv1"
  type: "Convolution"
  bottom: "pool0"
  top: "conv1"
  param {
    lr_mult: 1
  }
  param {
    lr_mult: 2
  }
  convolution_param {
    num_output: 50
    kernel_size: 5
    stride: 1
    weight_filler {
      type: "xavier"
    }
    bias_filler {
      type: "constant"
    }
  }
}
layer {
  name: "pool1"
  type: "Pooling"
  bottom: "conv1"
  top: "pool1"
  pooling_param {
    pool: MAX
    kernel_size: 2
    stride: 2
  }
}
layer {
  name: "ip1"
  type: "InnerProduct"
  bottom: "pool1"
  top: "ip1"
  param {
    lr_mult: 1
  }
  param {
    lr_mult: 2
  }
  inner_product_param {
    num_output: 25
    weight_filler {
      type: "xavier"
    }
    bias_filler {
      type: "constant"
    }
  }
}
layer {
  name: "relu1"
  type: "ReLU"
  bottom: "ip1"
  top: "ip1"
}
layer {
  name: "ip2"
  type: "InnerProduct"
  bottom: "ip1"
  top: "ip2"
  param {
    lr_mult: 1
  }
  param {
    lr_mult: 2
  }
  inner_product_param {
    num_output: 50
    weight_filler {
      type: "xavier"
    }
    bias_filler {
      type: "constant"
    }
  }
}
layer {
  name: "relu2"
  type: "ReLU"
  bottom: "ip2"
  top: "ip2"
}
layer {
  name: "ip3"
  type: "InnerProduct"
  bottom: "ip2"
  top: "ip3"
  param {
    lr_mult: 1
  }
  param {
    lr_mult: 2
  }
  inner_product_param {
    num_output: 10
    weight_filler {
      type: "xavier"
    }
    bias_filler {
      type: "constant"
    }
  }
}
layer {
  name: "relu3"
  type: "ReLU"
  bottom: "ip3"
  top: "ip3"
}
layer {
  name: "accuracy"
  type: "Accuracy"
  bottom: "ip3"
  bottom: "label"
  top: "accuracy"
  include {
    phase: TEST
  }
}
layer {
  name: "loss"
  type: "SoftmaxWithLoss"
  bottom: "ip3"
  bottom: "label"
  top: "loss"
}
I0428 19:53:35.964679 27803 layer_factory.hpp:77] Creating layer mnist
I0428 19:53:35.964726 27803 db_lmdb.cpp:35] Opened lmdb examples/mnist/mnist_test_lmdb
I0428 19:53:35.964738 27803 net.cpp:86] Creating Layer mnist
I0428 19:53:35.964742 27803 net.cpp:382] mnist -> data
I0428 19:53:35.964751 27803 net.cpp:382] mnist -> label
I0428 19:53:35.964867 27803 data_layer.cpp:45] output data size: 100,1,28,28
I0428 19:53:35.966975 27803 net.cpp:124] Setting up mnist
I0428 19:53:35.967018 27803 net.cpp:131] Top shape: 100 1 28 28 (78400)
I0428 19:53:35.967022 27803 net.cpp:131] Top shape: 100 (100)
I0428 19:53:35.967025 27803 net.cpp:139] Memory required for data: 314000
I0428 19:53:35.967046 27803 layer_factory.hpp:77] Creating layer label_mnist_1_split
I0428 19:53:35.967051 27803 net.cpp:86] Creating Layer label_mnist_1_split
I0428 19:53:35.967056 27803 net.cpp:408] label_mnist_1_split <- label
I0428 19:53:35.967059 27803 net.cpp:382] label_mnist_1_split -> label_mnist_1_split_0
I0428 19:53:35.967067 27803 net.cpp:382] label_mnist_1_split -> label_mnist_1_split_1
I0428 19:53:35.967171 27803 net.cpp:124] Setting up label_mnist_1_split
I0428 19:53:35.967180 27803 net.cpp:131] Top shape: 100 (100)
I0428 19:53:35.967183 27803 net.cpp:131] Top shape: 100 (100)
I0428 19:53:35.967186 27803 net.cpp:139] Memory required for data: 314800
I0428 19:53:35.967190 27803 layer_factory.hpp:77] Creating layer conv0
I0428 19:53:35.967197 27803 net.cpp:86] Creating Layer conv0
I0428 19:53:35.967201 27803 net.cpp:408] conv0 <- data
I0428 19:53:35.967206 27803 net.cpp:382] conv0 -> conv0
I0428 19:53:35.968922 27803 net.cpp:124] Setting up conv0
I0428 19:53:35.968950 27803 net.cpp:131] Top shape: 100 5 24 24 (288000)
I0428 19:53:35.968971 27803 net.cpp:139] Memory required for data: 1466800
I0428 19:53:35.968978 27803 layer_factory.hpp:77] Creating layer pool0
I0428 19:53:35.968986 27803 net.cpp:86] Creating Layer pool0
I0428 19:53:35.968988 27803 net.cpp:408] pool0 <- conv0
I0428 19:53:35.968993 27803 net.cpp:382] pool0 -> pool0
I0428 19:53:35.969029 27803 net.cpp:124] Setting up pool0
I0428 19:53:35.969034 27803 net.cpp:131] Top shape: 100 5 12 12 (72000)
I0428 19:53:35.969038 27803 net.cpp:139] Memory required for data: 1754800
I0428 19:53:35.969040 27803 layer_factory.hpp:77] Creating layer conv1
I0428 19:53:35.969048 27803 net.cpp:86] Creating Layer conv1
I0428 19:53:35.969051 27803 net.cpp:408] conv1 <- pool0
I0428 19:53:35.969056 27803 net.cpp:382] conv1 -> conv1
I0428 19:53:35.970667 27803 net.cpp:124] Setting up conv1
I0428 19:53:35.970696 27803 net.cpp:131] Top shape: 100 50 8 8 (320000)
I0428 19:53:35.970700 27803 net.cpp:139] Memory required for data: 3034800
I0428 19:53:35.970710 27803 layer_factory.hpp:77] Creating layer pool1
I0428 19:53:35.970717 27803 net.cpp:86] Creating Layer pool1
I0428 19:53:35.970721 27803 net.cpp:408] pool1 <- conv1
I0428 19:53:35.970726 27803 net.cpp:382] pool1 -> pool1
I0428 19:53:35.970762 27803 net.cpp:124] Setting up pool1
I0428 19:53:35.970768 27803 net.cpp:131] Top shape: 100 50 4 4 (80000)
I0428 19:53:35.970772 27803 net.cpp:139] Memory required for data: 3354800
I0428 19:53:35.970774 27803 layer_factory.hpp:77] Creating layer ip1
I0428 19:53:35.970780 27803 net.cpp:86] Creating Layer ip1
I0428 19:53:35.970783 27803 net.cpp:408] ip1 <- pool1
I0428 19:53:35.970788 27803 net.cpp:382] ip1 -> ip1
I0428 19:53:35.971025 27803 net.cpp:124] Setting up ip1
I0428 19:53:35.971035 27803 net.cpp:131] Top shape: 100 25 (2500)
I0428 19:53:35.971050 27803 net.cpp:139] Memory required for data: 3364800
I0428 19:53:35.971058 27803 layer_factory.hpp:77] Creating layer relu1
I0428 19:53:35.971070 27803 net.cpp:86] Creating Layer relu1
I0428 19:53:35.971083 27803 net.cpp:408] relu1 <- ip1
I0428 19:53:35.971088 27803 net.cpp:369] relu1 -> ip1 (in-place)
I0428 19:53:35.971263 27803 net.cpp:124] Setting up relu1
I0428 19:53:35.971272 27803 net.cpp:131] Top shape: 100 25 (2500)
I0428 19:53:35.971282 27803 net.cpp:139] Memory required for data: 3374800
I0428 19:53:35.971285 27803 layer_factory.hpp:77] Creating layer ip2
I0428 19:53:35.971292 27803 net.cpp:86] Creating Layer ip2
I0428 19:53:35.971297 27803 net.cpp:408] ip2 <- ip1
I0428 19:53:35.971302 27803 net.cpp:382] ip2 -> ip2
I0428 19:53:35.971412 27803 net.cpp:124] Setting up ip2
I0428 19:53:35.971420 27803 net.cpp:131] Top shape: 100 50 (5000)
I0428 19:53:35.971422 27803 net.cpp:139] Memory required for data: 3394800
I0428 19:53:35.971428 27803 layer_factory.hpp:77] Creating layer relu2
I0428 19:53:35.971432 27803 net.cpp:86] Creating Layer relu2
I0428 19:53:35.971436 27803 net.cpp:408] relu2 <- ip2
I0428 19:53:35.971441 27803 net.cpp:369] relu2 -> ip2 (in-place)
I0428 19:53:35.971659 27803 net.cpp:124] Setting up relu2
I0428 19:53:35.971668 27803 net.cpp:131] Top shape: 100 50 (5000)
I0428 19:53:35.971675 27803 net.cpp:139] Memory required for data: 3414800
I0428 19:53:35.971679 27803 layer_factory.hpp:77] Creating layer ip3
I0428 19:53:35.971684 27803 net.cpp:86] Creating Layer ip3
I0428 19:53:35.971688 27803 net.cpp:408] ip3 <- ip2
I0428 19:53:35.971693 27803 net.cpp:382] ip3 -> ip3
I0428 19:53:35.971793 27803 net.cpp:124] Setting up ip3
I0428 19:53:35.971801 27803 net.cpp:131] Top shape: 100 10 (1000)
I0428 19:53:35.971803 27803 net.cpp:139] Memory required for data: 3418800
I0428 19:53:35.971812 27803 layer_factory.hpp:77] Creating layer relu3
I0428 19:53:35.971817 27803 net.cpp:86] Creating Layer relu3
I0428 19:53:35.971819 27803 net.cpp:408] relu3 <- ip3
I0428 19:53:35.971823 27803 net.cpp:369] relu3 -> ip3 (in-place)
I0428 19:53:35.972667 27803 net.cpp:124] Setting up relu3
I0428 19:53:35.972678 27803 net.cpp:131] Top shape: 100 10 (1000)
I0428 19:53:35.972699 27803 net.cpp:139] Memory required for data: 3422800
I0428 19:53:35.972703 27803 layer_factory.hpp:77] Creating layer ip3_relu3_0_split
I0428 19:53:35.972709 27803 net.cpp:86] Creating Layer ip3_relu3_0_split
I0428 19:53:35.972712 27803 net.cpp:408] ip3_relu3_0_split <- ip3
I0428 19:53:35.972718 27803 net.cpp:382] ip3_relu3_0_split -> ip3_relu3_0_split_0
I0428 19:53:35.972723 27803 net.cpp:382] ip3_relu3_0_split -> ip3_relu3_0_split_1
I0428 19:53:35.972779 27803 net.cpp:124] Setting up ip3_relu3_0_split
I0428 19:53:35.972786 27803 net.cpp:131] Top shape: 100 10 (1000)
I0428 19:53:35.972790 27803 net.cpp:131] Top shape: 100 10 (1000)
I0428 19:53:35.972792 27803 net.cpp:139] Memory required for data: 3430800
I0428 19:53:35.972795 27803 layer_factory.hpp:77] Creating layer accuracy
I0428 19:53:35.972805 27803 net.cpp:86] Creating Layer accuracy
I0428 19:53:35.972808 27803 net.cpp:408] accuracy <- ip3_relu3_0_split_0
I0428 19:53:35.972836 27803 net.cpp:408] accuracy <- label_mnist_1_split_0
I0428 19:53:35.972857 27803 net.cpp:382] accuracy -> accuracy
…
