…
I0428 20:36:40.861565  4832 net.cpp:296] The NetState phase (0) differed from the phase (1) specified by a rule in layer mnist
I0428 20:36:40.861578  4832 net.cpp:296] The NetState phase (0) differed from the phase (1) specified by a rule in layer accuracy
I0428 20:36:40.861646  4832 net.cpp:53] Initializing net from parameters: 
name: "LeNet"
state {
  phase: TRAIN
  level: 0
  stage: ""
}
layer {
  name: "mnist"
  type: "Data"
  top: "data"
  top: "label"
  include {
    phase: TRAIN
  }
  transform_param {
    scale: 0.00390625
  }
  data_param {
    source: "examples/mnist/mnist_train_lmdb"
    batch_size: 64
    backend: LMDB
  }
}
layer {
  name: "conv0"
  type: "Convolution"
  bottom: "data"
  top: "conv0"
  param {
    lr_mult: 1
  }
  param {
    lr_mult: 2
  }
  convolution_param {
    num_output: 100
    kernel_size: 5
    stride: 1
    weight_filler {
      type: "xavier"
    }
    bias_filler {
      type: "constant"
    }
  }
}
layer {
  name: "pool0"
  type: "Pooling"
  bottom: "conv0"
  top: "pool0"
  pooling_param {
    pool: MAX
    kernel_size: 2
    stride: 2
  }
}
layer {
  name: "conv1"
  type: "Convolution"
  bottom: "pool0"
  top: "conv1"
  param {
    lr_mult: 1
  }
  param {
    lr_mult: 2
  }
  convolution_param {
    num_output: 100
    kernel_size: 5
    stride: 1
    weight_filler {
      type: "xavier"
    }
    bias_filler {
      type: "constant"
    }
  }
}
layer {
  name: "pool1"
  type: "Pooling"
  bottom: "conv1"
  top: "pool1"
  pooling_param {
    pool: MAX
    kernel_size: 2
    stride: 2
  }
}
layer {
  name: "ip1"
  type: "InnerProduct"
  bottom: "pool1"
  top: "ip1"
  param {
    lr_mult: 1
  }
  param {
    lr_mult: 2
  }
  inner_product_param {
    num_output: 10
    weight_filler {
      type: "xavier"
    }
    bias_filler {
      type: "constant"
    }
  }
}
layer {
  name: "relu1"
  type: "ReLU"
  bottom: "ip1"
  top: "ip1"
}
layer {
  name: "loss"
  type: "SoftmaxWithLoss"
  bottom: "ip1"
  bottom: "label"
  top: "loss"
}
I0428 20:36:40.861702  4832 layer_factory.hpp:77] Creating layer mnist
I0428 20:36:40.861789  4832 db_lmdb.cpp:35] Opened lmdb examples/mnist/mnist_train_lmdb
I0428 20:36:40.861809  4832 net.cpp:86] Creating Layer mnist
I0428 20:36:40.861816  4832 net.cpp:382] mnist -> data
I0428 20:36:40.861835  4832 net.cpp:382] mnist -> label
I0428 20:36:40.862814  4832 data_layer.cpp:45] output data size: 64,1,28,28
I0428 20:36:40.865051  4832 net.cpp:124] Setting up mnist
I0428 20:36:40.865082  4832 net.cpp:131] Top shape: 64 1 28 28 (50176)
I0428 20:36:40.865087  4832 net.cpp:131] Top shape: 64 (64)
I0428 20:36:40.865090  4832 net.cpp:139] Memory required for data: 200960
I0428 20:36:40.865097  4832 layer_factory.hpp:77] Creating layer conv0
I0428 20:36:40.865111  4832 net.cpp:86] Creating Layer conv0
I0428 20:36:40.865116  4832 net.cpp:408] conv0 <- data
I0428 20:36:40.865128  4832 net.cpp:382] conv0 -> conv0
I0428 20:36:41.097661  4832 net.cpp:124] Setting up conv0
I0428 20:36:41.097702  4832 net.cpp:131] Top shape: 64 100 24 24 (3686400)
I0428 20:36:41.097707  4832 net.cpp:139] Memory required for data: 14946560
I0428 20:36:41.097723  4832 layer_factory.hpp:77] Creating layer pool0
I0428 20:36:41.097734  4832 net.cpp:86] Creating Layer pool0
I0428 20:36:41.097738  4832 net.cpp:408] pool0 <- conv0
I0428 20:36:41.097743  4832 net.cpp:382] pool0 -> pool0
I0428 20:36:41.097805  4832 net.cpp:124] Setting up pool0
I0428 20:36:41.097810  4832 net.cpp:131] Top shape: 64 100 12 12 (921600)
I0428 20:36:41.097829  4832 net.cpp:139] Memory required for data: 18632960
I0428 20:36:41.097832  4832 layer_factory.hpp:77] Creating layer conv1
I0428 20:36:41.097843  4832 net.cpp:86] Creating Layer conv1
I0428 20:36:41.097846  4832 net.cpp:408] conv1 <- pool0
I0428 20:36:41.097851  4832 net.cpp:382] conv1 -> conv1
I0428 20:36:41.101835  4832 net.cpp:124] Setting up conv1
I0428 20:36:41.101850  4832 net.cpp:131] Top shape: 64 100 8 8 (409600)
I0428 20:36:41.101852  4832 net.cpp:139] Memory required for data: 20271360
I0428 20:36:41.101861  4832 layer_factory.hpp:77] Creating layer pool1
I0428 20:36:41.101867  4832 net.cpp:86] Creating Layer pool1
I0428 20:36:41.101871  4832 net.cpp:408] pool1 <- conv1
I0428 20:36:41.101874  4832 net.cpp:382] pool1 -> pool1
I0428 20:36:41.101922  4832 net.cpp:124] Setting up pool1
I0428 20:36:41.101927  4832 net.cpp:131] Top shape: 64 100 4 4 (102400)
I0428 20:36:41.101929  4832 net.cpp:139] Memory required for data: 20680960
I0428 20:36:41.101933  4832 layer_factory.hpp:77] Creating layer ip1
I0428 20:36:41.101939  4832 net.cpp:86] Creating Layer ip1
I0428 20:36:41.101941  4832 net.cpp:408] ip1 <- pool1
I0428 20:36:41.101946  4832 net.cpp:382] ip1 -> ip1
I0428 20:36:41.102939  4832 net.cpp:124] Setting up ip1
I0428 20:36:41.102952  4832 net.cpp:131] Top shape: 64 10 (640)
I0428 20:36:41.102972  4832 net.cpp:139] Memory required for data: 20683520
I0428 20:36:41.102979  4832 layer_factory.hpp:77] Creating layer relu1
I0428 20:36:41.102987  4832 net.cpp:86] Creating Layer relu1
I0428 20:36:41.102989  4832 net.cpp:408] relu1 <- ip1
I0428 20:36:41.102994  4832 net.cpp:369] relu1 -> ip1 (in-place)
I0428 20:36:41.103198  4832 net.cpp:124] Setting up relu1
I0428 20:36:41.103206  4832 net.cpp:131] Top shape: 64 10 (640)
I0428 20:36:41.103209  4832 net.cpp:139] Memory required for data: 20686080
I0428 20:36:41.103212  4832 layer_factory.hpp:77] Creating layer loss
I0428 20:36:41.103219  4832 net.cpp:86] Creating Layer loss
I0428 20:36:41.103221  4832 net.cpp:408] loss <- ip1
I0428 20:36:41.103225  4832 net.cpp:408] loss <- label
I0428 20:36:41.103231  4832 net.cpp:382] loss -> loss
I0428 20:36:41.103250  4832 layer_factory.hpp:77] Creating layer loss
…
I0428 20:36:41.104425  4832 solver.cpp:173] Creating test net (#0) specified by net file: ECE595/mnist/train_test/var_everything2/lenet_train_test1640.prototxt
I0428 20:36:41.104447  4832 net.cpp:296] The NetState phase (1) differed from the phase (0) specified by a rule in layer mnist
I0428 20:36:41.104537  4832 net.cpp:53] Initializing net from parameters: 
name: "LeNet"
state {
  phase: TEST
}
layer {
  name: "mnist"
  type: "Data"
  top: "data"
  top: "label"
  include {
    phase: TEST
  }
  transform_param {
    scale: 0.00390625
  }
  data_param {
    source: "examples/mnist/mnist_test_lmdb"
    batch_size: 100
    backend: LMDB
  }
}
layer {
  name: "conv0"
  type: "Convolution"
  bottom: "data"
  top: "conv0"
  param {
    lr_mult: 1
  }
  param {
    lr_mult: 2
  }
  convolution_param {
    num_output: 100
    kernel_size: 5
    stride: 1
    weight_filler {
      type: "xavier"
    }
    bias_filler {
      type: "constant"
    }
  }
}
layer {
  name: "pool0"
  type: "Pooling"
  bottom: "conv0"
  top: "pool0"
  pooling_param {
    pool: MAX
    kernel_size: 2
    stride: 2
  }
}
layer {
  name: "conv1"
  type: "Convolution"
  bottom: "pool0"
  top: "conv1"
  param {
    lr_mult: 1
  }
  param {
    lr_mult: 2
  }
  convolution_param {
    num_output: 100
    kernel_size: 5
    stride: 1
    weight_filler {
      type: "xavier"
    }
    bias_filler {
      type: "constant"
    }
  }
}
layer {
  name: "pool1"
  type: "Pooling"
  bottom: "conv1"
  top: "pool1"
  pooling_param {
    pool: MAX
    kernel_size: 2
    stride: 2
  }
}
layer {
  name: "ip1"
  type: "InnerProduct"
  bottom: "pool1"
  top: "ip1"
  param {
    lr_mult: 1
  }
  param {
    lr_mult: 2
  }
  inner_product_param {
    num_output: 10
    weight_filler {
      type: "xavier"
    }
    bias_filler {
      type: "constant"
    }
  }
}
layer {
  name: "relu1"
  type: "ReLU"
  bottom: "ip1"
  top: "ip1"
}
layer {
  name: "accuracy"
  type: "Accuracy"
  bottom: "ip1"
  bottom: "label"
  top: "accuracy"
  include {
    phase: TEST
  }
}
layer {
  name: "loss"
  type: "SoftmaxWithLoss"
  bottom: "ip1"
  bottom: "label"
  top: "loss"
}
I0428 20:36:41.104606  4832 layer_factory.hpp:77] Creating layer mnist
I0428 20:36:41.104650  4832 db_lmdb.cpp:35] Opened lmdb examples/mnist/mnist_test_lmdb
I0428 20:36:41.104661  4832 net.cpp:86] Creating Layer mnist
I0428 20:36:41.104666  4832 net.cpp:382] mnist -> data
I0428 20:36:41.104674  4832 net.cpp:382] mnist -> label
I0428 20:36:41.104771  4832 data_layer.cpp:45] output data size: 100,1,28,28
I0428 20:36:41.107110  4832 net.cpp:124] Setting up mnist
I0428 20:36:41.107139  4832 net.cpp:131] Top shape: 100 1 28 28 (78400)
I0428 20:36:41.107161  4832 net.cpp:131] Top shape: 100 (100)
I0428 20:36:41.107163  4832 net.cpp:139] Memory required for data: 314000
I0428 20:36:41.107167  4832 layer_factory.hpp:77] Creating layer label_mnist_1_split
I0428 20:36:41.107209  4832 net.cpp:86] Creating Layer label_mnist_1_split
I0428 20:36:41.107214  4832 net.cpp:408] label_mnist_1_split <- label
I0428 20:36:41.107218  4832 net.cpp:382] label_mnist_1_split -> label_mnist_1_split_0
I0428 20:36:41.107225  4832 net.cpp:382] label_mnist_1_split -> label_mnist_1_split_1
I0428 20:36:41.107270  4832 net.cpp:124] Setting up label_mnist_1_split
I0428 20:36:41.107276  4832 net.cpp:131] Top shape: 100 (100)
I0428 20:36:41.107280  4832 net.cpp:131] Top shape: 100 (100)
I0428 20:36:41.107283  4832 net.cpp:139] Memory required for data: 314800
I0428 20:36:41.107286  4832 layer_factory.hpp:77] Creating layer conv0
I0428 20:36:41.107295  4832 net.cpp:86] Creating Layer conv0
I0428 20:36:41.107297  4832 net.cpp:408] conv0 <- data
I0428 20:36:41.107307  4832 net.cpp:382] conv0 -> conv0
I0428 20:36:41.108312  4832 net.cpp:124] Setting up conv0
I0428 20:36:41.108324  4832 net.cpp:131] Top shape: 100 100 24 24 (5760000)
I0428 20:36:41.108342  4832 net.cpp:139] Memory required for data: 23354800
I0428 20:36:41.108351  4832 layer_factory.hpp:77] Creating layer pool0
I0428 20:36:41.108357  4832 net.cpp:86] Creating Layer pool0
I0428 20:36:41.108361  4832 net.cpp:408] pool0 <- conv0
I0428 20:36:41.108364  4832 net.cpp:382] pool0 -> pool0
I0428 20:36:41.108399  4832 net.cpp:124] Setting up pool0
I0428 20:36:41.108404  4832 net.cpp:131] Top shape: 100 100 12 12 (1440000)
I0428 20:36:41.108407  4832 net.cpp:139] Memory required for data: 29114800
I0428 20:36:41.108424  4832 layer_factory.hpp:77] Creating layer conv1
I0428 20:36:41.108433  4832 net.cpp:86] Creating Layer conv1
I0428 20:36:41.108435  4832 net.cpp:408] conv1 <- pool0
I0428 20:36:41.108440  4832 net.cpp:382] conv1 -> conv1
I0428 20:36:41.111431  4832 net.cpp:124] Setting up conv1
I0428 20:36:41.111459  4832 net.cpp:131] Top shape: 100 100 8 8 (640000)
I0428 20:36:41.111464  4832 net.cpp:139] Memory required for data: 31674800
I0428 20:36:41.111471  4832 layer_factory.hpp:77] Creating layer pool1
I0428 20:36:41.111487  4832 net.cpp:86] Creating Layer pool1
I0428 20:36:41.111491  4832 net.cpp:408] pool1 <- conv1
I0428 20:36:41.111496  4832 net.cpp:382] pool1 -> pool1
I0428 20:36:41.111551  4832 net.cpp:124] Setting up pool1
I0428 20:36:41.111555  4832 net.cpp:131] Top shape: 100 100 4 4 (160000)
I0428 20:36:41.111558  4832 net.cpp:139] Memory required for data: 32314800
I0428 20:36:41.111562  4832 layer_factory.hpp:77] Creating layer ip1
I0428 20:36:41.111567  4832 net.cpp:86] Creating Layer ip1
I0428 20:36:41.111570  4832 net.cpp:408] ip1 <- pool1
I0428 20:36:41.111575  4832 net.cpp:382] ip1 -> ip1
I0428 20:36:41.111759  4832 net.cpp:124] Setting up ip1
I0428 20:36:41.111766  4832 net.cpp:131] Top shape: 100 10 (1000)
I0428 20:36:41.111769  4832 net.cpp:139] Memory required for data: 32318800
I0428 20:36:41.111778  4832 layer_factory.hpp:77] Creating layer relu1
I0428 20:36:41.111783  4832 net.cpp:86] Creating Layer relu1
I0428 20:36:41.111785  4832 net.cpp:408] relu1 <- ip1
I0428 20:36:41.111790  4832 net.cpp:369] relu1 -> ip1 (in-place)
I0428 20:36:41.112578  4832 net.cpp:124] Setting up relu1
I0428 20:36:41.112591  4832 net.cpp:131] Top shape: 100 10 (1000)
I0428 20:36:41.112609  4832 net.cpp:139] Memory required for data: 32322800
I0428 20:36:41.112612  4832 layer_factory.hpp:77] Creating layer ip1_relu1_0_split
I0428 20:36:41.112619  4832 net.cpp:86] Creating Layer ip1_relu1_0_split
I0428 20:36:41.112622  4832 net.cpp:408] ip1_relu1_0_split <- ip1
I0428 20:36:41.112628  4832 net.cpp:382] ip1_relu1_0_split -> ip1_relu1_0_split_0
I0428 20:36:41.112634  4832 net.cpp:382] ip1_relu1_0_split -> ip1_relu1_0_split_1
I0428 20:36:41.112679  4832 net.cpp:124] Setting up ip1_relu1_0_split
I0428 20:36:41.112684  4832 net.cpp:131] Top shape: 100 10 (1000)
I0428 20:36:41.112689  4832 net.cpp:131] Top shape: 100 10 (1000)
I0428 20:36:41.112691  4832 net.cpp:139] Memory required for data: 32330800
I0428 20:36:41.112695  4832 layer_factory.hpp:77] Creating layer accuracy
I0428 20:36:41.112700  4832 net.cpp:86] Creating Layer accuracy
I0428 20:36:41.112704  4832 net.cpp:408] accuracy <- ip1_relu1_0_split_0
I0428 20:36:41.112707  4832 net.cpp:408] accuracy <- label_mnist_1_split_0
I0428 20:36:41.112712  4832 net.cpp:382] accuracy -> accuracy
…
