…
I0428 19:41:03.688519 24729 net.cpp:296] The NetState phase (0) differed from the phase (1) specified by a rule in layer mnist
I0428 19:41:03.688535 24729 net.cpp:296] The NetState phase (0) differed from the phase (1) specified by a rule in layer accuracy
I0428 19:41:03.688604 24729 net.cpp:53] Initializing net from parameters: 
name: "LeNet"
state {
  phase: TRAIN
  level: 0
  stage: ""
}
layer {
  name: "mnist"
  type: "Data"
  top: "data"
  top: "label"
  include {
    phase: TRAIN
  }
  transform_param {
    scale: 0.00390625
  }
  data_param {
    source: "examples/mnist/mnist_train_lmdb"
    batch_size: 64
    backend: LMDB
  }
}
layer {
  name: "conv0"
  type: "Convolution"
  bottom: "data"
  top: "conv0"
  param {
    lr_mult: 1
  }
  param {
    lr_mult: 2
  }
  convolution_param {
    num_output: 2
    kernel_size: 5
    stride: 1
    weight_filler {
      type: "xavier"
    }
    bias_filler {
      type: "constant"
    }
  }
}
layer {
  name: "pool0"
  type: "Pooling"
  bottom: "conv0"
  top: "pool0"
  pooling_param {
    pool: MAX
    kernel_size: 2
    stride: 2
  }
}
layer {
  name: "conv1"
  type: "Convolution"
  bottom: "pool0"
  top: "conv1"
  param {
    lr_mult: 1
  }
  param {
    lr_mult: 2
  }
  convolution_param {
    num_output: 10
    kernel_size: 5
    stride: 1
    weight_filler {
      type: "xavier"
    }
    bias_filler {
      type: "constant"
    }
  }
}
layer {
  name: "pool1"
  type: "Pooling"
  bottom: "conv1"
  top: "pool1"
  pooling_param {
    pool: MAX
    kernel_size: 2
    stride: 2
  }
}
layer {
  name: "ip1"
  type: "InnerProduct"
  bottom: "pool1"
  top: "ip1"
  param {
    lr_mult: 1
  }
  param {
    lr_mult: 2
  }
  inner_product_param {
    num_output: 10
    weight_filler {
      type: "xavier"
    }
    bias_filler {
      type: "constant"
    }
  }
}
layer {
  name: "relu1"
  type: "ReLU"
  bottom: "ip1"
  top: "ip1"
}
layer {
  name: "loss"
  type: "SoftmaxWithLoss"
  bottom: "ip1"
  bottom: "label"
  top: "loss"
}
I0428 19:41:03.688675 24729 layer_factory.hpp:77] Creating layer mnist
I0428 19:41:03.688777 24729 db_lmdb.cpp:35] Opened lmdb examples/mnist/mnist_train_lmdb
I0428 19:41:03.688803 24729 net.cpp:86] Creating Layer mnist
I0428 19:41:03.688818 24729 net.cpp:382] mnist -> data
I0428 19:41:03.688844 24729 net.cpp:382] mnist -> label
I0428 19:41:03.689808 24729 data_layer.cpp:45] output data size: 64,1,28,28
I0428 19:41:03.691941 24729 net.cpp:124] Setting up mnist
I0428 19:41:03.691973 24729 net.cpp:131] Top shape: 64 1 28 28 (50176)
I0428 19:41:03.691982 24729 net.cpp:131] Top shape: 64 (64)
I0428 19:41:03.692003 24729 net.cpp:139] Memory required for data: 200960
I0428 19:41:03.692011 24729 layer_factory.hpp:77] Creating layer conv0
I0428 19:41:03.692030 24729 net.cpp:86] Creating Layer conv0
I0428 19:41:03.692039 24729 net.cpp:408] conv0 <- data
I0428 19:41:03.692054 24729 net.cpp:382] conv0 -> conv0
I0428 19:41:03.929810 24729 net.cpp:124] Setting up conv0
I0428 19:41:03.929837 24729 net.cpp:131] Top shape: 64 2 24 24 (73728)
I0428 19:41:03.929842 24729 net.cpp:139] Memory required for data: 495872
I0428 19:41:03.929877 24729 layer_factory.hpp:77] Creating layer pool0
I0428 19:41:03.929894 24729 net.cpp:86] Creating Layer pool0
I0428 19:41:03.929900 24729 net.cpp:408] pool0 <- conv0
I0428 19:41:03.929909 24729 net.cpp:382] pool0 -> pool0
I0428 19:41:03.929966 24729 net.cpp:124] Setting up pool0
I0428 19:41:03.929975 24729 net.cpp:131] Top shape: 64 2 12 12 (18432)
I0428 19:41:03.929996 24729 net.cpp:139] Memory required for data: 569600
I0428 19:41:03.930002 24729 layer_factory.hpp:77] Creating layer conv1
I0428 19:41:03.930017 24729 net.cpp:86] Creating Layer conv1
I0428 19:41:03.930024 24729 net.cpp:408] conv1 <- pool0
I0428 19:41:03.930032 24729 net.cpp:382] conv1 -> conv1
I0428 19:41:03.931939 24729 net.cpp:124] Setting up conv1
I0428 19:41:03.931955 24729 net.cpp:131] Top shape: 64 10 8 8 (40960)
I0428 19:41:03.931962 24729 net.cpp:139] Memory required for data: 733440
I0428 19:41:03.931974 24729 layer_factory.hpp:77] Creating layer pool1
I0428 19:41:03.931985 24729 net.cpp:86] Creating Layer pool1
I0428 19:41:03.931993 24729 net.cpp:408] pool1 <- conv1
I0428 19:41:03.932000 24729 net.cpp:382] pool1 -> pool1
I0428 19:41:03.932044 24729 net.cpp:124] Setting up pool1
I0428 19:41:03.932052 24729 net.cpp:131] Top shape: 64 10 4 4 (10240)
I0428 19:41:03.932057 24729 net.cpp:139] Memory required for data: 774400
I0428 19:41:03.932062 24729 layer_factory.hpp:77] Creating layer ip1
I0428 19:41:03.932073 24729 net.cpp:86] Creating Layer ip1
I0428 19:41:03.932080 24729 net.cpp:408] ip1 <- pool1
I0428 19:41:03.932090 24729 net.cpp:382] ip1 -> ip1
I0428 19:41:03.933120 24729 net.cpp:124] Setting up ip1
I0428 19:41:03.933135 24729 net.cpp:131] Top shape: 64 10 (640)
I0428 19:41:03.933156 24729 net.cpp:139] Memory required for data: 776960
I0428 19:41:03.933167 24729 layer_factory.hpp:77] Creating layer relu1
I0428 19:41:03.933176 24729 net.cpp:86] Creating Layer relu1
I0428 19:41:03.933182 24729 net.cpp:408] relu1 <- ip1
I0428 19:41:03.933190 24729 net.cpp:369] relu1 -> ip1 (in-place)
I0428 19:41:03.933382 24729 net.cpp:124] Setting up relu1
I0428 19:41:03.933393 24729 net.cpp:131] Top shape: 64 10 (640)
I0428 19:41:03.933398 24729 net.cpp:139] Memory required for data: 779520
I0428 19:41:03.933404 24729 layer_factory.hpp:77] Creating layer loss
I0428 19:41:03.933413 24729 net.cpp:86] Creating Layer loss
I0428 19:41:03.933418 24729 net.cpp:408] loss <- ip1
I0428 19:41:03.933425 24729 net.cpp:408] loss <- label
I0428 19:41:03.933434 24729 net.cpp:382] loss -> loss
I0428 19:41:03.933452 24729 layer_factory.hpp:77] Creating layer loss
…
I0428 19:41:03.934748 24729 solver.cpp:173] Creating test net (#0) specified by net file: ECE595/mnist/train_test/var_everything2/lenet_train_test353.prototxt
I0428 19:41:03.934780 24729 net.cpp:296] The NetState phase (1) differed from the phase (0) specified by a rule in layer mnist
I0428 19:41:03.934862 24729 net.cpp:53] Initializing net from parameters: 
name: "LeNet"
state {
  phase: TEST
}
layer {
  name: "mnist"
  type: "Data"
  top: "data"
  top: "label"
  include {
    phase: TEST
  }
  transform_param {
    scale: 0.00390625
  }
  data_param {
    source: "examples/mnist/mnist_test_lmdb"
    batch_size: 100
    backend: LMDB
  }
}
layer {
  name: "conv0"
  type: "Convolution"
  bottom: "data"
  top: "conv0"
  param {
    lr_mult: 1
  }
  param {
    lr_mult: 2
  }
  convolution_param {
    num_output: 2
    kernel_size: 5
    stride: 1
    weight_filler {
      type: "xavier"
    }
    bias_filler {
      type: "constant"
    }
  }
}
layer {
  name: "pool0"
  type: "Pooling"
  bottom: "conv0"
  top: "pool0"
  pooling_param {
    pool: MAX
    kernel_size: 2
    stride: 2
  }
}
layer {
  name: "conv1"
  type: "Convolution"
  bottom: "pool0"
  top: "conv1"
  param {
    lr_mult: 1
  }
  param {
    lr_mult: 2
  }
  convolution_param {
    num_output: 10
    kernel_size: 5
    stride: 1
    weight_filler {
      type: "xavier"
    }
    bias_filler {
      type: "constant"
    }
  }
}
layer {
  name: "pool1"
  type: "Pooling"
  bottom: "conv1"
  top: "pool1"
  pooling_param {
    pool: MAX
    kernel_size: 2
    stride: 2
  }
}
layer {
  name: "ip1"
  type: "InnerProduct"
  bottom: "pool1"
  top: "ip1"
  param {
    lr_mult: 1
  }
  param {
    lr_mult: 2
  }
  inner_product_param {
    num_output: 10
    weight_filler {
      type: "xavier"
    }
    bias_filler {
      type: "constant"
    }
  }
}
layer {
  name: "relu1"
  type: "ReLU"
  bottom: "ip1"
  top: "ip1"
}
layer {
  name: "accuracy"
  type: "Accuracy"
  bottom: "ip1"
  bottom: "label"
  top: "accuracy"
  include {
    phase: TEST
  }
}
layer {
  name: "loss"
  type: "SoftmaxWithLoss"
  bottom: "ip1"
  bottom: "label"
  top: "loss"
}
I0428 19:41:03.934990 24729 layer_factory.hpp:77] Creating layer mnist
I0428 19:41:03.935046 24729 db_lmdb.cpp:35] Opened lmdb examples/mnist/mnist_test_lmdb
I0428 19:41:03.935065 24729 net.cpp:86] Creating Layer mnist
I0428 19:41:03.935071 24729 net.cpp:382] mnist -> data
I0428 19:41:03.935083 24729 net.cpp:382] mnist -> label
I0428 19:41:03.935194 24729 data_layer.cpp:45] output data size: 100,1,28,28
I0428 19:41:03.937366 24729 net.cpp:124] Setting up mnist
I0428 19:41:03.937394 24729 net.cpp:131] Top shape: 100 1 28 28 (78400)
I0428 19:41:03.937402 24729 net.cpp:131] Top shape: 100 (100)
I0428 19:41:03.937407 24729 net.cpp:139] Memory required for data: 314000
I0428 19:41:03.937413 24729 layer_factory.hpp:77] Creating layer label_mnist_1_split
I0428 19:41:03.937423 24729 net.cpp:86] Creating Layer label_mnist_1_split
I0428 19:41:03.937428 24729 net.cpp:408] label_mnist_1_split <- label
I0428 19:41:03.937436 24729 net.cpp:382] label_mnist_1_split -> label_mnist_1_split_0
I0428 19:41:03.937446 24729 net.cpp:382] label_mnist_1_split -> label_mnist_1_split_1
I0428 19:41:03.937523 24729 net.cpp:124] Setting up label_mnist_1_split
I0428 19:41:03.937532 24729 net.cpp:131] Top shape: 100 (100)
I0428 19:41:03.937538 24729 net.cpp:131] Top shape: 100 (100)
I0428 19:41:03.937543 24729 net.cpp:139] Memory required for data: 314800
I0428 19:41:03.937549 24729 layer_factory.hpp:77] Creating layer conv0
I0428 19:41:03.937561 24729 net.cpp:86] Creating Layer conv0
I0428 19:41:03.937568 24729 net.cpp:408] conv0 <- data
I0428 19:41:03.937577 24729 net.cpp:382] conv0 -> conv0
I0428 19:41:03.938422 24729 net.cpp:124] Setting up conv0
I0428 19:41:03.938436 24729 net.cpp:131] Top shape: 100 2 24 24 (115200)
I0428 19:41:03.938441 24729 net.cpp:139] Memory required for data: 775600
I0428 19:41:03.938472 24729 layer_factory.hpp:77] Creating layer pool0
I0428 19:41:03.938482 24729 net.cpp:86] Creating Layer pool0
I0428 19:41:03.938489 24729 net.cpp:408] pool0 <- conv0
I0428 19:41:03.938498 24729 net.cpp:382] pool0 -> pool0
I0428 19:41:03.938554 24729 net.cpp:124] Setting up pool0
I0428 19:41:03.938561 24729 net.cpp:131] Top shape: 100 2 12 12 (28800)
I0428 19:41:03.938566 24729 net.cpp:139] Memory required for data: 890800
I0428 19:41:03.938571 24729 layer_factory.hpp:77] Creating layer conv1
I0428 19:41:03.938583 24729 net.cpp:86] Creating Layer conv1
I0428 19:41:03.938591 24729 net.cpp:408] conv1 <- pool0
I0428 19:41:03.938598 24729 net.cpp:382] conv1 -> conv1
I0428 19:41:03.940069 24729 net.cpp:124] Setting up conv1
I0428 19:41:03.940086 24729 net.cpp:131] Top shape: 100 10 8 8 (64000)
I0428 19:41:03.940109 24729 net.cpp:139] Memory required for data: 1146800
I0428 19:41:03.940121 24729 layer_factory.hpp:77] Creating layer pool1
I0428 19:41:03.940131 24729 net.cpp:86] Creating Layer pool1
I0428 19:41:03.940148 24729 net.cpp:408] pool1 <- conv1
I0428 19:41:03.940158 24729 net.cpp:382] pool1 -> pool1
I0428 19:41:03.940199 24729 net.cpp:124] Setting up pool1
I0428 19:41:03.940209 24729 net.cpp:131] Top shape: 100 10 4 4 (16000)
I0428 19:41:03.940215 24729 net.cpp:139] Memory required for data: 1210800
I0428 19:41:03.940222 24729 layer_factory.hpp:77] Creating layer ip1
I0428 19:41:03.940232 24729 net.cpp:86] Creating Layer ip1
I0428 19:41:03.940237 24729 net.cpp:408] ip1 <- pool1
I0428 19:41:03.940246 24729 net.cpp:382] ip1 -> ip1
I0428 19:41:03.940359 24729 net.cpp:124] Setting up ip1
I0428 19:41:03.940369 24729 net.cpp:131] Top shape: 100 10 (1000)
I0428 19:41:03.940374 24729 net.cpp:139] Memory required for data: 1214800
I0428 19:41:03.940387 24729 layer_factory.hpp:77] Creating layer relu1
I0428 19:41:03.940394 24729 net.cpp:86] Creating Layer relu1
I0428 19:41:03.940402 24729 net.cpp:408] relu1 <- ip1
I0428 19:41:03.940409 24729 net.cpp:369] relu1 -> ip1 (in-place)
I0428 19:41:03.941308 24729 net.cpp:124] Setting up relu1
I0428 19:41:03.941329 24729 net.cpp:131] Top shape: 100 10 (1000)
I0428 19:41:03.941334 24729 net.cpp:139] Memory required for data: 1218800
I0428 19:41:03.941340 24729 layer_factory.hpp:77] Creating layer ip1_relu1_0_split
I0428 19:41:03.941349 24729 net.cpp:86] Creating Layer ip1_relu1_0_split
I0428 19:41:03.941356 24729 net.cpp:408] ip1_relu1_0_split <- ip1
I0428 19:41:03.941366 24729 net.cpp:382] ip1_relu1_0_split -> ip1_relu1_0_split_0
I0428 19:41:03.941376 24729 net.cpp:382] ip1_relu1_0_split -> ip1_relu1_0_split_1
I0428 19:41:03.941421 24729 net.cpp:124] Setting up ip1_relu1_0_split
I0428 19:41:03.941428 24729 net.cpp:131] Top shape: 100 10 (1000)
I0428 19:41:03.941435 24729 net.cpp:131] Top shape: 100 10 (1000)
I0428 19:41:03.941440 24729 net.cpp:139] Memory required for data: 1226800
I0428 19:41:03.941445 24729 layer_factory.hpp:77] Creating layer accuracy
I0428 19:41:03.941453 24729 net.cpp:86] Creating Layer accuracy
I0428 19:41:03.941458 24729 net.cpp:408] accuracy <- ip1_relu1_0_split_0
I0428 19:41:03.941465 24729 net.cpp:408] accuracy <- label_mnist_1_split_0
I0428 19:41:03.941488 24729 net.cpp:382] accuracy -> accuracy
…
