…
I0428 20:13:20.285511 32444 net.cpp:296] The NetState phase (0) differed from the phase (1) specified by a rule in layer mnist
I0428 20:13:20.285528 32444 net.cpp:296] The NetState phase (0) differed from the phase (1) specified by a rule in layer accuracy
I0428 20:13:20.285624 32444 net.cpp:53] Initializing net from parameters: 
name: "LeNet"
state {
  phase: TRAIN
  level: 0
  stage: ""
}
layer {
  name: "mnist"
  type: "Data"
  top: "data"
  top: "label"
  include {
    phase: TRAIN
  }
  transform_param {
    scale: 0.00390625
  }
  data_param {
    source: "examples/mnist/mnist_train_lmdb"
    batch_size: 64
    backend: LMDB
  }
}
layer {
  name: "conv0"
  type: "Convolution"
  bottom: "data"
  top: "conv0"
  param {
    lr_mult: 1
  }
  param {
    lr_mult: 2
  }
  convolution_param {
    num_output: 25
    kernel_size: 5
    stride: 1
    weight_filler {
      type: "xavier"
    }
    bias_filler {
      type: "constant"
    }
  }
}
layer {
  name: "pool0"
  type: "Pooling"
  bottom: "conv0"
  top: "pool0"
  pooling_param {
    pool: MAX
    kernel_size: 2
    stride: 2
  }
}
layer {
  name: "conv1"
  type: "Convolution"
  bottom: "pool0"
  top: "conv1"
  param {
    lr_mult: 1
  }
  param {
    lr_mult: 2
  }
  convolution_param {
    num_output: 100
    kernel_size: 5
    stride: 1
    weight_filler {
      type: "xavier"
    }
    bias_filler {
      type: "constant"
    }
  }
}
layer {
  name: "pool1"
  type: "Pooling"
  bottom: "conv1"
  top: "pool1"
  pooling_param {
    pool: MAX
    kernel_size: 2
    stride: 2
  }
}
layer {
  name: "ip1"
  type: "InnerProduct"
  bottom: "pool1"
  top: "ip1"
  param {
    lr_mult: 1
  }
  param {
    lr_mult: 2
  }
  inner_product_param {
    num_output: 25
    weight_filler {
      type: "xavier"
    }
    bias_filler {
      type: "constant"
    }
  }
}
layer {
  name: "relu1"
  type: "ReLU"
  bottom: "ip1"
  top: "ip1"
}
layer {
  name: "ip2"
  type: "InnerProduct"
  bottom: "ip1"
  top: "ip2"
  param {
    lr_mult: 1
  }
  param {
    lr_mult: 2
  }
  inner_product_param {
    num_output: 50
    weight_filler {
      type: "xavier"
    }
    bias_filler {
      type: "constant"
    }
  }
}
layer {
  name: "relu2"
  type: "ReLU"
  bottom: "ip2"
  top: "ip2"
}
layer {
  name: "ip3"
  type: "InnerProduct"
  bottom: "ip2"
  top: "ip3"
  param {
    lr_mult: 1
  }
  param {
    lr_mult: 2
  }
  inner_product_param {
    num_output: 10
    weight_filler {
      type: "xavier"
    }
    bias_filler {
      type: "constant"
    }
  }
}
layer {
  name: "relu3"
  type: "ReLU"
  bottom: "ip3"
  top: "ip3"
}
layer {
  name: "loss"
  type: "SoftmaxWithLoss"
  bottom: "ip3"
  bottom: "label"
  top: "loss"
}
I0428 20:13:20.285698 32444 layer_factory.hpp:77] Creating layer mnist
I0428 20:13:20.285799 32444 db_lmdb.cpp:35] Opened lmdb examples/mnist/mnist_train_lmdb
I0428 20:13:20.285822 32444 net.cpp:86] Creating Layer mnist
I0428 20:13:20.285830 32444 net.cpp:382] mnist -> data
I0428 20:13:20.285852 32444 net.cpp:382] mnist -> label
I0428 20:13:20.286954 32444 data_layer.cpp:45] output data size: 64,1,28,28
I0428 20:13:20.289407 32444 net.cpp:124] Setting up mnist
I0428 20:13:20.289423 32444 net.cpp:131] Top shape: 64 1 28 28 (50176)
I0428 20:13:20.289429 32444 net.cpp:131] Top shape: 64 (64)
I0428 20:13:20.289433 32444 net.cpp:139] Memory required for data: 200960
I0428 20:13:20.289440 32444 layer_factory.hpp:77] Creating layer conv0
I0428 20:13:20.289456 32444 net.cpp:86] Creating Layer conv0
I0428 20:13:20.289479 32444 net.cpp:408] conv0 <- data
I0428 20:13:20.289490 32444 net.cpp:382] conv0 -> conv0
I0428 20:13:20.580189 32444 net.cpp:124] Setting up conv0
I0428 20:13:20.580220 32444 net.cpp:131] Top shape: 64 25 24 24 (921600)
I0428 20:13:20.580225 32444 net.cpp:139] Memory required for data: 3887360
I0428 20:13:20.580243 32444 layer_factory.hpp:77] Creating layer pool0
I0428 20:13:20.580257 32444 net.cpp:86] Creating Layer pool0
I0428 20:13:20.580262 32444 net.cpp:408] pool0 <- conv0
I0428 20:13:20.580268 32444 net.cpp:382] pool0 -> pool0
I0428 20:13:20.580322 32444 net.cpp:124] Setting up pool0
I0428 20:13:20.580328 32444 net.cpp:131] Top shape: 64 25 12 12 (230400)
I0428 20:13:20.580332 32444 net.cpp:139] Memory required for data: 4808960
I0428 20:13:20.580337 32444 layer_factory.hpp:77] Creating layer conv1
I0428 20:13:20.580348 32444 net.cpp:86] Creating Layer conv1
I0428 20:13:20.580353 32444 net.cpp:408] conv1 <- pool0
I0428 20:13:20.580358 32444 net.cpp:382] conv1 -> conv1
I0428 20:13:20.582921 32444 net.cpp:124] Setting up conv1
I0428 20:13:20.582938 32444 net.cpp:131] Top shape: 64 100 8 8 (409600)
I0428 20:13:20.582943 32444 net.cpp:139] Memory required for data: 6447360
I0428 20:13:20.582953 32444 layer_factory.hpp:77] Creating layer pool1
I0428 20:13:20.582962 32444 net.cpp:86] Creating Layer pool1
I0428 20:13:20.582967 32444 net.cpp:408] pool1 <- conv1
I0428 20:13:20.582973 32444 net.cpp:382] pool1 -> pool1
I0428 20:13:20.583024 32444 net.cpp:124] Setting up pool1
I0428 20:13:20.583029 32444 net.cpp:131] Top shape: 64 100 4 4 (102400)
I0428 20:13:20.583034 32444 net.cpp:139] Memory required for data: 6856960
I0428 20:13:20.583036 32444 layer_factory.hpp:77] Creating layer ip1
I0428 20:13:20.583045 32444 net.cpp:86] Creating Layer ip1
I0428 20:13:20.583048 32444 net.cpp:408] ip1 <- pool1
I0428 20:13:20.583055 32444 net.cpp:382] ip1 -> ip1
I0428 20:13:20.583442 32444 net.cpp:124] Setting up ip1
I0428 20:13:20.583452 32444 net.cpp:131] Top shape: 64 25 (1600)
I0428 20:13:20.583456 32444 net.cpp:139] Memory required for data: 6863360
I0428 20:13:20.583464 32444 layer_factory.hpp:77] Creating layer relu1
I0428 20:13:20.583472 32444 net.cpp:86] Creating Layer relu1
I0428 20:13:20.583474 32444 net.cpp:408] relu1 <- ip1
I0428 20:13:20.583479 32444 net.cpp:369] relu1 -> ip1 (in-place)
I0428 20:13:20.583678 32444 net.cpp:124] Setting up relu1
I0428 20:13:20.583688 32444 net.cpp:131] Top shape: 64 25 (1600)
I0428 20:13:20.583691 32444 net.cpp:139] Memory required for data: 6869760
I0428 20:13:20.583695 32444 layer_factory.hpp:77] Creating layer ip2
I0428 20:13:20.583703 32444 net.cpp:86] Creating Layer ip2
I0428 20:13:20.583708 32444 net.cpp:408] ip2 <- ip1
I0428 20:13:20.583714 32444 net.cpp:382] ip2 -> ip2
I0428 20:13:20.584846 32444 net.cpp:124] Setting up ip2
I0428 20:13:20.584863 32444 net.cpp:131] Top shape: 64 50 (3200)
I0428 20:13:20.584868 32444 net.cpp:139] Memory required for data: 6882560
I0428 20:13:20.584877 32444 layer_factory.hpp:77] Creating layer relu2
I0428 20:13:20.584884 32444 net.cpp:86] Creating Layer relu2
I0428 20:13:20.584888 32444 net.cpp:408] relu2 <- ip2
I0428 20:13:20.584894 32444 net.cpp:369] relu2 -> ip2 (in-place)
I0428 20:13:20.585758 32444 net.cpp:124] Setting up relu2
I0428 20:13:20.585774 32444 net.cpp:131] Top shape: 64 50 (3200)
I0428 20:13:20.585778 32444 net.cpp:139] Memory required for data: 6895360
I0428 20:13:20.585783 32444 layer_factory.hpp:77] Creating layer ip3
I0428 20:13:20.585791 32444 net.cpp:86] Creating Layer ip3
I0428 20:13:20.585795 32444 net.cpp:408] ip3 <- ip2
I0428 20:13:20.585801 32444 net.cpp:382] ip3 -> ip3
I0428 20:13:20.585925 32444 net.cpp:124] Setting up ip3
I0428 20:13:20.585934 32444 net.cpp:131] Top shape: 64 10 (640)
I0428 20:13:20.585938 32444 net.cpp:139] Memory required for data: 6897920
I0428 20:13:20.585948 32444 layer_factory.hpp:77] Creating layer relu3
I0428 20:13:20.585954 32444 net.cpp:86] Creating Layer relu3
I0428 20:13:20.585958 32444 net.cpp:408] relu3 <- ip3
I0428 20:13:20.585963 32444 net.cpp:369] relu3 -> ip3 (in-place)
I0428 20:13:20.586164 32444 net.cpp:124] Setting up relu3
I0428 20:13:20.586174 32444 net.cpp:131] Top shape: 64 10 (640)
I0428 20:13:20.586179 32444 net.cpp:139] Memory required for data: 6900480
I0428 20:13:20.586182 32444 layer_factory.hpp:77] Creating layer loss
I0428 20:13:20.586195 32444 net.cpp:86] Creating Layer loss
I0428 20:13:20.586199 32444 net.cpp:408] loss <- ip3
I0428 20:13:20.586205 32444 net.cpp:408] loss <- label
I0428 20:13:20.586210 32444 net.cpp:382] loss -> loss
I0428 20:13:20.586226 32444 layer_factory.hpp:77] Creating layer loss
…
I0428 20:13:20.586982 32444 solver.cpp:173] Creating test net (#0) specified by net file: ECE595/mnist/train_test/var_everything2/lenet_train_test1197.prototxt
I0428 20:13:20.587013 32444 net.cpp:296] The NetState phase (1) differed from the phase (0) specified by a rule in layer mnist
I0428 20:13:20.587121 32444 net.cpp:53] Initializing net from parameters: 
name: "LeNet"
state {
  phase: TEST
}
layer {
  name: "mnist"
  type: "Data"
  top: "data"
  top: "label"
  include {
    phase: TEST
  }
  transform_param {
    scale: 0.00390625
  }
  data_param {
    source: "examples/mnist/mnist_test_lmdb"
    batch_size: 100
    backend: LMDB
  }
}
layer {
  name: "conv0"
  type: "Convolution"
  bottom: "data"
  top: "conv0"
  param {
    lr_mult: 1
  }
  param {
    lr_mult: 2
  }
  convolution_param {
    num_output: 25
    kernel_size: 5
    stride: 1
    weight_filler {
      type: "xavier"
    }
    bias_filler {
      type: "constant"
    }
  }
}
layer {
  name: "pool0"
  type: "Pooling"
  bottom: "conv0"
  top: "pool0"
  pooling_param {
    pool: MAX
    kernel_size: 2
    stride: 2
  }
}
layer {
  name: "conv1"
  type: "Convolution"
  bottom: "pool0"
  top: "conv1"
  param {
    lr_mult: 1
  }
  param {
    lr_mult: 2
  }
  convolution_param {
    num_output: 100
    kernel_size: 5
    stride: 1
    weight_filler {
      type: "xavier"
    }
    bias_filler {
      type: "constant"
    }
  }
}
layer {
  name: "pool1"
  type: "Pooling"
  bottom: "conv1"
  top: "pool1"
  pooling_param {
    pool: MAX
    kernel_size: 2
    stride: 2
  }
}
layer {
  name: "ip1"
  type: "InnerProduct"
  bottom: "pool1"
  top: "ip1"
  param {
    lr_mult: 1
  }
  param {
    lr_mult: 2
  }
  inner_product_param {
    num_output: 25
    weight_filler {
      type: "xavier"
    }
    bias_filler {
      type: "constant"
    }
  }
}
layer {
  name: "relu1"
  type: "ReLU"
  bottom: "ip1"
  top: "ip1"
}
layer {
  name: "ip2"
  type: "InnerProduct"
  bottom: "ip1"
  top: "ip2"
  param {
    lr_mult: 1
  }
  param {
    lr_mult: 2
  }
  inner_product_param {
    num_output: 50
    weight_filler {
      type: "xavier"
    }
    bias_filler {
      type: "constant"
    }
  }
}
layer {
  name: "relu2"
  type: "ReLU"
  bottom: "ip2"
  top: "ip2"
}
layer {
  name: "ip3"
  type: "InnerProduct"
  bottom: "ip2"
  top: "ip3"
  param {
    lr_mult: 1
  }
  param {
    lr_mult: 2
  }
  inner_product_param {
    num_output: 10
    weight_filler {
      type: "xavier"
    }
    bias_filler {
      type: "constant"
    }
  }
}
layer {
  name: "relu3"
  type: "ReLU"
  bottom: "ip3"
  top: "ip3"
}
layer {
  name: "accuracy"
  type: "Accuracy"
  bottom: "ip3"
  bottom: "label"
  top: "accuracy"
  include {
    phase: TEST
  }
}
layer {
  name: "loss"
  type: "SoftmaxWithLoss"
  bottom: "ip3"
  bottom: "label"
  top: "loss"
}
I0428 20:13:20.587216 32444 layer_factory.hpp:77] Creating layer mnist
I0428 20:13:20.587270 32444 db_lmdb.cpp:35] Opened lmdb examples/mnist/mnist_test_lmdb
I0428 20:13:20.587285 32444 net.cpp:86] Creating Layer mnist
I0428 20:13:20.587291 32444 net.cpp:382] mnist -> data
I0428 20:13:20.587301 32444 net.cpp:382] mnist -> label
I0428 20:13:20.587400 32444 data_layer.cpp:45] output data size: 100,1,28,28
I0428 20:13:20.589597 32444 net.cpp:124] Setting up mnist
I0428 20:13:20.589614 32444 net.cpp:131] Top shape: 100 1 28 28 (78400)
I0428 20:13:20.589620 32444 net.cpp:131] Top shape: 100 (100)
I0428 20:13:20.589623 32444 net.cpp:139] Memory required for data: 314000
I0428 20:13:20.589628 32444 layer_factory.hpp:77] Creating layer label_mnist_1_split
I0428 20:13:20.589637 32444 net.cpp:86] Creating Layer label_mnist_1_split
I0428 20:13:20.589640 32444 net.cpp:408] label_mnist_1_split <- label
I0428 20:13:20.589646 32444 net.cpp:382] label_mnist_1_split -> label_mnist_1_split_0
I0428 20:13:20.589654 32444 net.cpp:382] label_mnist_1_split -> label_mnist_1_split_1
I0428 20:13:20.589751 32444 net.cpp:124] Setting up label_mnist_1_split
I0428 20:13:20.589759 32444 net.cpp:131] Top shape: 100 (100)
I0428 20:13:20.589764 32444 net.cpp:131] Top shape: 100 (100)
I0428 20:13:20.589767 32444 net.cpp:139] Memory required for data: 314800
I0428 20:13:20.589771 32444 layer_factory.hpp:77] Creating layer conv0
I0428 20:13:20.589781 32444 net.cpp:86] Creating Layer conv0
I0428 20:13:20.589785 32444 net.cpp:408] conv0 <- data
I0428 20:13:20.589790 32444 net.cpp:382] conv0 -> conv0
I0428 20:13:20.591805 32444 net.cpp:124] Setting up conv0
I0428 20:13:20.591822 32444 net.cpp:131] Top shape: 100 25 24 24 (1440000)
I0428 20:13:20.591826 32444 net.cpp:139] Memory required for data: 6074800
I0428 20:13:20.591837 32444 layer_factory.hpp:77] Creating layer pool0
I0428 20:13:20.591846 32444 net.cpp:86] Creating Layer pool0
I0428 20:13:20.591851 32444 net.cpp:408] pool0 <- conv0
I0428 20:13:20.591858 32444 net.cpp:382] pool0 -> pool0
I0428 20:13:20.591903 32444 net.cpp:124] Setting up pool0
I0428 20:13:20.591910 32444 net.cpp:131] Top shape: 100 25 12 12 (360000)
I0428 20:13:20.591913 32444 net.cpp:139] Memory required for data: 7514800
I0428 20:13:20.591917 32444 layer_factory.hpp:77] Creating layer conv1
I0428 20:13:20.591928 32444 net.cpp:86] Creating Layer conv1
I0428 20:13:20.591931 32444 net.cpp:408] conv1 <- pool0
I0428 20:13:20.591941 32444 net.cpp:382] conv1 -> conv1
I0428 20:13:20.594167 32444 net.cpp:124] Setting up conv1
I0428 20:13:20.594189 32444 net.cpp:131] Top shape: 100 100 8 8 (640000)
I0428 20:13:20.594194 32444 net.cpp:139] Memory required for data: 10074800
I0428 20:13:20.594204 32444 layer_factory.hpp:77] Creating layer pool1
I0428 20:13:20.594213 32444 net.cpp:86] Creating Layer pool1
I0428 20:13:20.594218 32444 net.cpp:408] pool1 <- conv1
I0428 20:13:20.594228 32444 net.cpp:382] pool1 -> pool1
I0428 20:13:20.594275 32444 net.cpp:124] Setting up pool1
I0428 20:13:20.594283 32444 net.cpp:131] Top shape: 100 100 4 4 (160000)
I0428 20:13:20.594286 32444 net.cpp:139] Memory required for data: 10714800
I0428 20:13:20.594290 32444 layer_factory.hpp:77] Creating layer ip1
I0428 20:13:20.594300 32444 net.cpp:86] Creating Layer ip1
I0428 20:13:20.594302 32444 net.cpp:408] ip1 <- pool1
I0428 20:13:20.594317 32444 net.cpp:382] ip1 -> ip1
I0428 20:13:20.594717 32444 net.cpp:124] Setting up ip1
I0428 20:13:20.594727 32444 net.cpp:131] Top shape: 100 25 (2500)
I0428 20:13:20.594743 32444 net.cpp:139] Memory required for data: 10724800
I0428 20:13:20.594761 32444 layer_factory.hpp:77] Creating layer relu1
I0428 20:13:20.594774 32444 net.cpp:86] Creating Layer relu1
I0428 20:13:20.594779 32444 net.cpp:408] relu1 <- ip1
I0428 20:13:20.594789 32444 net.cpp:369] relu1 -> ip1 (in-place)
I0428 20:13:20.595068 32444 net.cpp:124] Setting up relu1
I0428 20:13:20.595085 32444 net.cpp:131] Top shape: 100 25 (2500)
I0428 20:13:20.595089 32444 net.cpp:139] Memory required for data: 10734800
I0428 20:13:20.595093 32444 layer_factory.hpp:77] Creating layer ip2
I0428 20:13:20.595101 32444 net.cpp:86] Creating Layer ip2
I0428 20:13:20.595104 32444 net.cpp:408] ip2 <- ip1
I0428 20:13:20.595113 32444 net.cpp:382] ip2 -> ip2
I0428 20:13:20.595266 32444 net.cpp:124] Setting up ip2
I0428 20:13:20.595276 32444 net.cpp:131] Top shape: 100 50 (5000)
I0428 20:13:20.595285 32444 net.cpp:139] Memory required for data: 10754800
I0428 20:13:20.595293 32444 layer_factory.hpp:77] Creating layer relu2
I0428 20:13:20.595299 32444 net.cpp:86] Creating Layer relu2
I0428 20:13:20.595301 32444 net.cpp:408] relu2 <- ip2
I0428 20:13:20.595309 32444 net.cpp:369] relu2 -> ip2 (in-place)
I0428 20:13:20.595504 32444 net.cpp:124] Setting up relu2
I0428 20:13:20.595515 32444 net.cpp:131] Top shape: 100 50 (5000)
I0428 20:13:20.595518 32444 net.cpp:139] Memory required for data: 10774800
I0428 20:13:20.595522 32444 layer_factory.hpp:77] Creating layer ip3
I0428 20:13:20.595530 32444 net.cpp:86] Creating Layer ip3
I0428 20:13:20.595546 32444 net.cpp:408] ip3 <- ip2
I0428 20:13:20.595552 32444 net.cpp:382] ip3 -> ip3
I0428 20:13:20.595681 32444 net.cpp:124] Setting up ip3
I0428 20:13:20.595690 32444 net.cpp:131] Top shape: 100 10 (1000)
I0428 20:13:20.595695 32444 net.cpp:139] Memory required for data: 10778800
I0428 20:13:20.595703 32444 layer_factory.hpp:77] Creating layer relu3
I0428 20:13:20.595710 32444 net.cpp:86] Creating Layer relu3
I0428 20:13:20.595712 32444 net.cpp:408] relu3 <- ip3
I0428 20:13:20.595718 32444 net.cpp:369] relu3 -> ip3 (in-place)
I0428 20:13:20.596591 32444 net.cpp:124] Setting up relu3
I0428 20:13:20.596606 32444 net.cpp:131] Top shape: 100 10 (1000)
I0428 20:13:20.596611 32444 net.cpp:139] Memory required for data: 10782800
I0428 20:13:20.596614 32444 layer_factory.hpp:77] Creating layer ip3_relu3_0_split
I0428 20:13:20.596621 32444 net.cpp:86] Creating Layer ip3_relu3_0_split
I0428 20:13:20.596626 32444 net.cpp:408] ip3_relu3_0_split <- ip3
I0428 20:13:20.596632 32444 net.cpp:382] ip3_relu3_0_split -> ip3_relu3_0_split_0
I0428 20:13:20.596639 32444 net.cpp:382] ip3_relu3_0_split -> ip3_relu3_0_split_1
I0428 20:13:20.596693 32444 net.cpp:124] Setting up ip3_relu3_0_split
I0428 20:13:20.596698 32444 net.cpp:131] Top shape: 100 10 (1000)
I0428 20:13:20.596704 32444 net.cpp:131] Top shape: 100 10 (1000)
I0428 20:13:20.596706 32444 net.cpp:139] Memory required for data: 10790800
I0428 20:13:20.596711 32444 layer_factory.hpp:77] Creating layer accuracy
I0428 20:13:20.596716 32444 net.cpp:86] Creating Layer accuracy
I0428 20:13:20.596720 32444 net.cpp:408] accuracy <- ip3_relu3_0_split_0
I0428 20:13:20.596725 32444 net.cpp:408] accuracy <- label_mnist_1_split_0
I0428 20:13:20.596731 32444 net.cpp:382] accuracy -> accuracy
…
