…
I0428 20:17:25.647882   866 net.cpp:296] The NetState phase (0) differed from the phase (1) specified by a rule in layer mnist
I0428 20:17:25.647903   866 net.cpp:296] The NetState phase (0) differed from the phase (1) specified by a rule in layer accuracy
I0428 20:17:25.647994   866 net.cpp:53] Initializing net from parameters: 
name: "LeNet"
state {
  phase: TRAIN
  level: 0
  stage: ""
}
layer {
  name: "mnist"
  type: "Data"
  top: "data"
  top: "label"
  include {
    phase: TRAIN
  }
  transform_param {
    scale: 0.00390625
  }
  data_param {
    source: "examples/mnist/mnist_train_lmdb"
    batch_size: 64
    backend: LMDB
  }
}
layer {
  name: "conv0"
  type: "Convolution"
  bottom: "data"
  top: "conv0"
  param {
    lr_mult: 1
  }
  param {
    lr_mult: 2
  }
  convolution_param {
    num_output: 50
    kernel_size: 5
    stride: 1
    weight_filler {
      type: "xavier"
    }
    bias_filler {
      type: "constant"
    }
  }
}
layer {
  name: "pool0"
  type: "Pooling"
  bottom: "conv0"
  top: "pool0"
  pooling_param {
    pool: MAX
    kernel_size: 2
    stride: 2
  }
}
layer {
  name: "conv1"
  type: "Convolution"
  bottom: "pool0"
  top: "conv1"
  param {
    lr_mult: 1
  }
  param {
    lr_mult: 2
  }
  convolution_param {
    num_output: 10
    kernel_size: 5
    stride: 1
    weight_filler {
      type: "xavier"
    }
    bias_filler {
      type: "constant"
    }
  }
}
layer {
  name: "pool1"
  type: "Pooling"
  bottom: "conv1"
  top: "pool1"
  pooling_param {
    pool: MAX
    kernel_size: 2
    stride: 2
  }
}
layer {
  name: "ip1"
  type: "InnerProduct"
  bottom: "pool1"
  top: "ip1"
  param {
    lr_mult: 1
  }
  param {
    lr_mult: 2
  }
  inner_product_param {
    num_output: 25
    weight_filler {
      type: "xavier"
    }
    bias_filler {
      type: "constant"
    }
  }
}
layer {
  name: "relu1"
  type: "ReLU"
  bottom: "ip1"
  top: "ip1"
}
layer {
  name: "ip2"
  type: "InnerProduct"
  bottom: "ip1"
  top: "ip2"
  param {
    lr_mult: 1
  }
  param {
    lr_mult: 2
  }
  inner_product_param {
    num_output: 10
    weight_filler {
      type: "xavier"
    }
    bias_filler {
      type: "constant"
    }
  }
}
layer {
  name: "relu2"
  type: "ReLU"
  bottom: "ip2"
  top: "ip2"
}
layer {
  name: "loss"
  type: "SoftmaxWithLoss"
  bottom: "ip2"
  bottom: "label"
  top: "loss"
}
I0428 20:17:25.648069   866 layer_factory.hpp:77] Creating layer mnist
I0428 20:17:25.648170   866 db_lmdb.cpp:35] Opened lmdb examples/mnist/mnist_train_lmdb
I0428 20:17:25.648193   866 net.cpp:86] Creating Layer mnist
I0428 20:17:25.648205   866 net.cpp:382] mnist -> data
I0428 20:17:25.648226   866 net.cpp:382] mnist -> label
I0428 20:17:25.649325   866 data_layer.cpp:45] output data size: 64,1,28,28
I0428 20:17:25.651999   866 net.cpp:124] Setting up mnist
I0428 20:17:25.652019   866 net.cpp:131] Top shape: 64 1 28 28 (50176)
I0428 20:17:25.652024   866 net.cpp:131] Top shape: 64 (64)
I0428 20:17:25.652027   866 net.cpp:139] Memory required for data: 200960
I0428 20:17:25.652034   866 layer_factory.hpp:77] Creating layer conv0
I0428 20:17:25.652052   866 net.cpp:86] Creating Layer conv0
I0428 20:17:25.652058   866 net.cpp:408] conv0 <- data
I0428 20:17:25.652086   866 net.cpp:382] conv0 -> conv0
I0428 20:17:25.945204   866 net.cpp:124] Setting up conv0
I0428 20:17:25.945233   866 net.cpp:131] Top shape: 64 50 24 24 (1843200)
I0428 20:17:25.945238   866 net.cpp:139] Memory required for data: 7573760
I0428 20:17:25.945277   866 layer_factory.hpp:77] Creating layer pool0
I0428 20:17:25.945292   866 net.cpp:86] Creating Layer pool0
I0428 20:17:25.945297   866 net.cpp:408] pool0 <- conv0
I0428 20:17:25.945302   866 net.cpp:382] pool0 -> pool0
I0428 20:17:25.945358   866 net.cpp:124] Setting up pool0
I0428 20:17:25.945366   866 net.cpp:131] Top shape: 64 50 12 12 (460800)
I0428 20:17:25.945369   866 net.cpp:139] Memory required for data: 9416960
I0428 20:17:25.945374   866 layer_factory.hpp:77] Creating layer conv1
I0428 20:17:25.945385   866 net.cpp:86] Creating Layer conv1
I0428 20:17:25.945389   866 net.cpp:408] conv1 <- pool0
I0428 20:17:25.945394   866 net.cpp:382] conv1 -> conv1
I0428 20:17:25.948501   866 net.cpp:124] Setting up conv1
I0428 20:17:25.948518   866 net.cpp:131] Top shape: 64 10 8 8 (40960)
I0428 20:17:25.948523   866 net.cpp:139] Memory required for data: 9580800
I0428 20:17:25.948532   866 layer_factory.hpp:77] Creating layer pool1
I0428 20:17:25.948541   866 net.cpp:86] Creating Layer pool1
I0428 20:17:25.948545   866 net.cpp:408] pool1 <- conv1
I0428 20:17:25.948551   866 net.cpp:382] pool1 -> pool1
I0428 20:17:25.948595   866 net.cpp:124] Setting up pool1
I0428 20:17:25.948606   866 net.cpp:131] Top shape: 64 10 4 4 (10240)
I0428 20:17:25.948609   866 net.cpp:139] Memory required for data: 9621760
I0428 20:17:25.948612   866 layer_factory.hpp:77] Creating layer ip1
I0428 20:17:25.948621   866 net.cpp:86] Creating Layer ip1
I0428 20:17:25.948623   866 net.cpp:408] ip1 <- pool1
I0428 20:17:25.948629   866 net.cpp:382] ip1 -> ip1
I0428 20:17:25.948768   866 net.cpp:124] Setting up ip1
I0428 20:17:25.948776   866 net.cpp:131] Top shape: 64 25 (1600)
I0428 20:17:25.948779   866 net.cpp:139] Memory required for data: 9628160
I0428 20:17:25.948787   866 layer_factory.hpp:77] Creating layer relu1
I0428 20:17:25.948793   866 net.cpp:86] Creating Layer relu1
I0428 20:17:25.948797   866 net.cpp:408] relu1 <- ip1
I0428 20:17:25.948802   866 net.cpp:369] relu1 -> ip1 (in-place)
I0428 20:17:25.949000   866 net.cpp:124] Setting up relu1
I0428 20:17:25.949012   866 net.cpp:131] Top shape: 64 25 (1600)
I0428 20:17:25.949014   866 net.cpp:139] Memory required for data: 9634560
I0428 20:17:25.949019   866 layer_factory.hpp:77] Creating layer ip2
I0428 20:17:25.949026   866 net.cpp:86] Creating Layer ip2
I0428 20:17:25.949030   866 net.cpp:408] ip2 <- ip1
I0428 20:17:25.949036   866 net.cpp:382] ip2 -> ip2
I0428 20:17:25.949143   866 net.cpp:124] Setting up ip2
I0428 20:17:25.949151   866 net.cpp:131] Top shape: 64 10 (640)
I0428 20:17:25.949154   866 net.cpp:139] Memory required for data: 9637120
I0428 20:17:25.949160   866 layer_factory.hpp:77] Creating layer relu2
I0428 20:17:25.949167   866 net.cpp:86] Creating Layer relu2
I0428 20:17:25.949170   866 net.cpp:408] relu2 <- ip2
I0428 20:17:25.949175   866 net.cpp:369] relu2 -> ip2 (in-place)
I0428 20:17:25.949977   866 net.cpp:124] Setting up relu2
I0428 20:17:25.949995   866 net.cpp:131] Top shape: 64 10 (640)
I0428 20:17:25.950001   866 net.cpp:139] Memory required for data: 9639680
I0428 20:17:25.950006   866 layer_factory.hpp:77] Creating layer loss
I0428 20:17:25.950012   866 net.cpp:86] Creating Layer loss
I0428 20:17:25.950016   866 net.cpp:408] loss <- ip2
I0428 20:17:25.950021   866 net.cpp:408] loss <- label
I0428 20:17:25.950027   866 net.cpp:382] loss -> loss
I0428 20:17:25.950048   866 layer_factory.hpp:77] Creating layer loss
…
I0428 20:17:25.950707   866 solver.cpp:173] Creating test net (#0) specified by net file: ECE595/mnist/train_test/var_everything2/lenet_train_test1294.prototxt
I0428 20:17:25.950736   866 net.cpp:296] The NetState phase (1) differed from the phase (0) specified by a rule in layer mnist
I0428 20:17:25.950832   866 net.cpp:53] Initializing net from parameters: 
name: "LeNet"
state {
  phase: TEST
}
layer {
  name: "mnist"
  type: "Data"
  top: "data"
  top: "label"
  include {
    phase: TEST
  }
  transform_param {
    scale: 0.00390625
  }
  data_param {
    source: "examples/mnist/mnist_test_lmdb"
    batch_size: 100
    backend: LMDB
  }
}
layer {
  name: "conv0"
  type: "Convolution"
  bottom: "data"
  top: "conv0"
  param {
    lr_mult: 1
  }
  param {
    lr_mult: 2
  }
  convolution_param {
    num_output: 50
    kernel_size: 5
    stride: 1
    weight_filler {
      type: "xavier"
    }
    bias_filler {
      type: "constant"
    }
  }
}
layer {
  name: "pool0"
  type: "Pooling"
  bottom: "conv0"
  top: "pool0"
  pooling_param {
    pool: MAX
    kernel_size: 2
    stride: 2
  }
}
layer {
  name: "conv1"
  type: "Convolution"
  bottom: "pool0"
  top: "conv1"
  param {
    lr_mult: 1
  }
  param {
    lr_mult: 2
  }
  convolution_param {
    num_output: 10
    kernel_size: 5
    stride: 1
    weight_filler {
      type: "xavier"
    }
    bias_filler {
      type: "constant"
    }
  }
}
layer {
  name: "pool1"
  type: "Pooling"
  bottom: "conv1"
  top: "pool1"
  pooling_param {
    pool: MAX
    kernel_size: 2
    stride: 2
  }
}
layer {
  name: "ip1"
  type: "InnerProduct"
  bottom: "pool1"
  top: "ip1"
  param {
    lr_mult: 1
  }
  param {
    lr_mult: 2
  }
  inner_product_param {
    num_output: 25
    weight_filler {
      type: "xavier"
    }
    bias_filler {
      type: "constant"
    }
  }
}
layer {
  name: "relu1"
  type: "ReLU"
  bottom: "ip1"
  top: "ip1"
}
layer {
  name: "ip2"
  type: "InnerProduct"
  bottom: "ip1"
  top: "ip2"
  param {
    lr_mult: 1
  }
  param {
    lr_mult: 2
  }
  inner_product_param {
    num_output: 10
    weight_filler {
      type: "xavier"
    }
    bias_filler {
      type: "constant"
    }
  }
}
layer {
  name: "relu2"
  type: "ReLU"
  bottom: "ip2"
  top: "ip2"
}
layer {
  name: "accuracy"
  type: "Accuracy"
  bottom: "ip2"
  bottom: "label"
  top: "accuracy"
  include {
    phase: TEST
  }
}
layer {
  name: "loss"
  type: "SoftmaxWithLoss"
  bottom: "ip2"
  bottom: "label"
  top: "loss"
}
I0428 20:17:25.950903   866 layer_factory.hpp:77] Creating layer mnist
I0428 20:17:25.950954   866 db_lmdb.cpp:35] Opened lmdb examples/mnist/mnist_test_lmdb
I0428 20:17:25.950968   866 net.cpp:86] Creating Layer mnist
I0428 20:17:25.950973   866 net.cpp:382] mnist -> data
I0428 20:17:25.950981   866 net.cpp:382] mnist -> label
I0428 20:17:25.951073   866 data_layer.cpp:45] output data size: 100,1,28,28
I0428 20:17:25.953138   866 net.cpp:124] Setting up mnist
I0428 20:17:25.953152   866 net.cpp:131] Top shape: 100 1 28 28 (78400)
I0428 20:17:25.953158   866 net.cpp:131] Top shape: 100 (100)
I0428 20:17:25.953161   866 net.cpp:139] Memory required for data: 314000
I0428 20:17:25.953166   866 layer_factory.hpp:77] Creating layer label_mnist_1_split
I0428 20:17:25.953176   866 net.cpp:86] Creating Layer label_mnist_1_split
I0428 20:17:25.953181   866 net.cpp:408] label_mnist_1_split <- label
I0428 20:17:25.953186   866 net.cpp:382] label_mnist_1_split -> label_mnist_1_split_0
I0428 20:17:25.953193   866 net.cpp:382] label_mnist_1_split -> label_mnist_1_split_1
I0428 20:17:25.953263   866 net.cpp:124] Setting up label_mnist_1_split
I0428 20:17:25.953269   866 net.cpp:131] Top shape: 100 (100)
I0428 20:17:25.953274   866 net.cpp:131] Top shape: 100 (100)
I0428 20:17:25.953276   866 net.cpp:139] Memory required for data: 314800
I0428 20:17:25.953279   866 layer_factory.hpp:77] Creating layer conv0
I0428 20:17:25.953289   866 net.cpp:86] Creating Layer conv0
I0428 20:17:25.953292   866 net.cpp:408] conv0 <- data
I0428 20:17:25.953297   866 net.cpp:382] conv0 -> conv0
I0428 20:17:25.955132   866 net.cpp:124] Setting up conv0
I0428 20:17:25.955147   866 net.cpp:131] Top shape: 100 50 24 24 (2880000)
I0428 20:17:25.955150   866 net.cpp:139] Memory required for data: 11834800
I0428 20:17:25.955160   866 layer_factory.hpp:77] Creating layer pool0
I0428 20:17:25.955168   866 net.cpp:86] Creating Layer pool0
I0428 20:17:25.955171   866 net.cpp:408] pool0 <- conv0
I0428 20:17:25.955176   866 net.cpp:382] pool0 -> pool0
I0428 20:17:25.955215   866 net.cpp:124] Setting up pool0
I0428 20:17:25.955220   866 net.cpp:131] Top shape: 100 50 12 12 (720000)
I0428 20:17:25.955224   866 net.cpp:139] Memory required for data: 14714800
I0428 20:17:25.955227   866 layer_factory.hpp:77] Creating layer conv1
I0428 20:17:25.955236   866 net.cpp:86] Creating Layer conv1
I0428 20:17:25.955240   866 net.cpp:408] conv1 <- pool0
I0428 20:17:25.955245   866 net.cpp:382] conv1 -> conv1
I0428 20:17:25.956907   866 net.cpp:124] Setting up conv1
I0428 20:17:25.956923   866 net.cpp:131] Top shape: 100 10 8 8 (64000)
I0428 20:17:25.956928   866 net.cpp:139] Memory required for data: 14970800
I0428 20:17:25.956940   866 layer_factory.hpp:77] Creating layer pool1
I0428 20:17:25.956948   866 net.cpp:86] Creating Layer pool1
I0428 20:17:25.956953   866 net.cpp:408] pool1 <- conv1
I0428 20:17:25.956959   866 net.cpp:382] pool1 -> pool1
I0428 20:17:25.956997   866 net.cpp:124] Setting up pool1
I0428 20:17:25.957003   866 net.cpp:131] Top shape: 100 10 4 4 (16000)
I0428 20:17:25.957007   866 net.cpp:139] Memory required for data: 15034800
I0428 20:17:25.957010   866 layer_factory.hpp:77] Creating layer ip1
I0428 20:17:25.957018   866 net.cpp:86] Creating Layer ip1
I0428 20:17:25.957022   866 net.cpp:408] ip1 <- pool1
I0428 20:17:25.957029   866 net.cpp:382] ip1 -> ip1
I0428 20:17:25.957167   866 net.cpp:124] Setting up ip1
I0428 20:17:25.957176   866 net.cpp:131] Top shape: 100 25 (2500)
I0428 20:17:25.957180   866 net.cpp:139] Memory required for data: 15044800
I0428 20:17:25.957187   866 layer_factory.hpp:77] Creating layer relu1
I0428 20:17:25.957193   866 net.cpp:86] Creating Layer relu1
I0428 20:17:25.957197   866 net.cpp:408] relu1 <- ip1
I0428 20:17:25.957203   866 net.cpp:369] relu1 -> ip1 (in-place)
I0428 20:17:25.957384   866 net.cpp:124] Setting up relu1
I0428 20:17:25.957393   866 net.cpp:131] Top shape: 100 25 (2500)
I0428 20:17:25.957397   866 net.cpp:139] Memory required for data: 15054800
I0428 20:17:25.957401   866 layer_factory.hpp:77] Creating layer ip2
I0428 20:17:25.957409   866 net.cpp:86] Creating Layer ip2
I0428 20:17:25.957414   866 net.cpp:408] ip2 <- ip1
I0428 20:17:25.957419   866 net.cpp:382] ip2 -> ip2
I0428 20:17:25.957527   866 net.cpp:124] Setting up ip2
I0428 20:17:25.957536   866 net.cpp:131] Top shape: 100 10 (1000)
I0428 20:17:25.957540   866 net.cpp:139] Memory required for data: 15058800
I0428 20:17:25.957545   866 layer_factory.hpp:77] Creating layer relu2
I0428 20:17:25.957552   866 net.cpp:86] Creating Layer relu2
I0428 20:17:25.957556   866 net.cpp:408] relu2 <- ip2
I0428 20:17:25.957561   866 net.cpp:369] relu2 -> ip2 (in-place)
I0428 20:17:25.957800   866 net.cpp:124] Setting up relu2
I0428 20:17:25.957810   866 net.cpp:131] Top shape: 100 10 (1000)
I0428 20:17:25.957813   866 net.cpp:139] Memory required for data: 15062800
I0428 20:17:25.957818   866 layer_factory.hpp:77] Creating layer ip2_relu2_0_split
I0428 20:17:25.957823   866 net.cpp:86] Creating Layer ip2_relu2_0_split
I0428 20:17:25.957826   866 net.cpp:408] ip2_relu2_0_split <- ip2
I0428 20:17:25.957831   866 net.cpp:382] ip2_relu2_0_split -> ip2_relu2_0_split_0
I0428 20:17:25.957849   866 net.cpp:382] ip2_relu2_0_split -> ip2_relu2_0_split_1
I0428 20:17:25.957903   866 net.cpp:124] Setting up ip2_relu2_0_split
I0428 20:17:25.957911   866 net.cpp:131] Top shape: 100 10 (1000)
I0428 20:17:25.957916   866 net.cpp:131] Top shape: 100 10 (1000)
I0428 20:17:25.957918   866 net.cpp:139] Memory required for data: 15070800
I0428 20:17:25.957921   866 layer_factory.hpp:77] Creating layer accuracy
I0428 20:17:25.957927   866 net.cpp:86] Creating Layer accuracy
I0428 20:17:25.957931   866 net.cpp:408] accuracy <- ip2_relu2_0_split_0
I0428 20:17:25.957936   866 net.cpp:408] accuracy <- label_mnist_1_split_0
I0428 20:17:25.957942   866 net.cpp:382] accuracy -> accuracy
…
