…
I0428 19:31:43.935196 22652 net.cpp:296] The NetState phase (0) differed from the phase (1) specified by a rule in layer mnist
I0428 19:31:43.935214 22652 net.cpp:296] The NetState phase (0) differed from the phase (1) specified by a rule in layer accuracy
I0428 19:31:43.935300 22652 net.cpp:53] Initializing net from parameters: 
name: "LeNet"
state {
  phase: TRAIN
  level: 0
  stage: ""
}
layer {
  name: "mnist"
  type: "Data"
  top: "data"
  top: "label"
  include {
    phase: TRAIN
  }
  transform_param {
    scale: 0.00390625
  }
  data_param {
    source: "examples/mnist/mnist_train_lmdb"
    batch_size: 64
    backend: LMDB
  }
}
layer {
  name: "conv0"
  type: "Convolution"
  bottom: "data"
  top: "conv0"
  param {
    lr_mult: 1
  }
  param {
    lr_mult: 2
  }
  convolution_param {
    num_output: 10
    kernel_size: 5
    stride: 1
    weight_filler {
      type: "xavier"
    }
    bias_filler {
      type: "constant"
    }
  }
}
layer {
  name: "pool0"
  type: "Pooling"
  bottom: "conv0"
  top: "pool0"
  pooling_param {
    pool: MAX
    kernel_size: 2
    stride: 2
  }
}
layer {
  name: "ip1"
  type: "InnerProduct"
  bottom: "pool0"
  top: "ip1"
  param {
    lr_mult: 1
  }
  param {
    lr_mult: 2
  }
  inner_product_param {
    num_output: 10
    weight_filler {
      type: "xavier"
    }
    bias_filler {
      type: "constant"
    }
  }
}
layer {
  name: "relu1"
  type: "ReLU"
  bottom: "ip1"
  top: "ip1"
}
layer {
  name: "ip2"
  type: "InnerProduct"
  bottom: "ip1"
  top: "ip2"
  param {
    lr_mult: 1
  }
  param {
    lr_mult: 2
  }
  inner_product_param {
    num_output: 10
    weight_filler {
      type: "xavier"
    }
    bias_filler {
      type: "constant"
    }
  }
}
layer {
  name: "relu2"
  type: "ReLU"
  bottom: "ip2"
  top: "ip2"
}
layer {
  name: "ip3"
  type: "InnerProduct"
  bottom: "ip2"
  top: "ip3"
  param {
    lr_mult: 1
  }
  param {
    lr_mult: 2
  }
  inner_product_param {
    num_output: 10
    weight_filler {
      type: "xavier"
    }
    bias_filler {
      type: "constant"
    }
  }
}
layer {
  name: "relu3"
  type: "ReLU"
  bottom: "ip3"
  top: "ip3"
}
layer {
  name: "loss"
  type: "SoftmaxWithLoss"
  bottom: "ip3"
  bottom: "label"
  top: "loss"
}
I0428 19:31:43.935375 22652 layer_factory.hpp:77] Creating layer mnist
I0428 19:31:43.935483 22652 db_lmdb.cpp:35] Opened lmdb examples/mnist/mnist_train_lmdb
I0428 19:31:43.935508 22652 net.cpp:86] Creating Layer mnist
I0428 19:31:43.935515 22652 net.cpp:382] mnist -> data
I0428 19:31:43.935539 22652 net.cpp:382] mnist -> label
I0428 19:31:43.936627 22652 data_layer.cpp:45] output data size: 64,1,28,28
I0428 19:31:43.939085 22652 net.cpp:124] Setting up mnist
I0428 19:31:43.939105 22652 net.cpp:131] Top shape: 64 1 28 28 (50176)
I0428 19:31:43.939112 22652 net.cpp:131] Top shape: 64 (64)
I0428 19:31:43.939116 22652 net.cpp:139] Memory required for data: 200960
I0428 19:31:43.939123 22652 layer_factory.hpp:77] Creating layer conv0
I0428 19:31:43.939141 22652 net.cpp:86] Creating Layer conv0
I0428 19:31:43.939147 22652 net.cpp:408] conv0 <- data
I0428 19:31:43.939158 22652 net.cpp:382] conv0 -> conv0
I0428 19:31:44.226102 22652 net.cpp:124] Setting up conv0
I0428 19:31:44.226130 22652 net.cpp:131] Top shape: 64 10 24 24 (368640)
I0428 19:31:44.226133 22652 net.cpp:139] Memory required for data: 1675520
I0428 19:31:44.226150 22652 layer_factory.hpp:77] Creating layer pool0
I0428 19:31:44.226161 22652 net.cpp:86] Creating Layer pool0
I0428 19:31:44.226186 22652 net.cpp:408] pool0 <- conv0
I0428 19:31:44.226193 22652 net.cpp:382] pool0 -> pool0
I0428 19:31:44.226241 22652 net.cpp:124] Setting up pool0
I0428 19:31:44.226248 22652 net.cpp:131] Top shape: 64 10 12 12 (92160)
I0428 19:31:44.226251 22652 net.cpp:139] Memory required for data: 2044160
I0428 19:31:44.226254 22652 layer_factory.hpp:77] Creating layer ip1
I0428 19:31:44.226263 22652 net.cpp:86] Creating Layer ip1
I0428 19:31:44.226266 22652 net.cpp:408] ip1 <- pool0
I0428 19:31:44.226270 22652 net.cpp:382] ip1 -> ip1
I0428 19:31:44.227298 22652 net.cpp:124] Setting up ip1
I0428 19:31:44.227310 22652 net.cpp:131] Top shape: 64 10 (640)
I0428 19:31:44.227314 22652 net.cpp:139] Memory required for data: 2046720
I0428 19:31:44.227324 22652 layer_factory.hpp:77] Creating layer relu1
I0428 19:31:44.227330 22652 net.cpp:86] Creating Layer relu1
I0428 19:31:44.227334 22652 net.cpp:408] relu1 <- ip1
I0428 19:31:44.227339 22652 net.cpp:369] relu1 -> ip1 (in-place)
I0428 19:31:44.227507 22652 net.cpp:124] Setting up relu1
I0428 19:31:44.227516 22652 net.cpp:131] Top shape: 64 10 (640)
I0428 19:31:44.227520 22652 net.cpp:139] Memory required for data: 2049280
I0428 19:31:44.227524 22652 layer_factory.hpp:77] Creating layer ip2
I0428 19:31:44.227530 22652 net.cpp:86] Creating Layer ip2
I0428 19:31:44.227533 22652 net.cpp:408] ip2 <- ip1
I0428 19:31:44.227538 22652 net.cpp:382] ip2 -> ip2
I0428 19:31:44.227632 22652 net.cpp:124] Setting up ip2
I0428 19:31:44.227639 22652 net.cpp:131] Top shape: 64 10 (640)
I0428 19:31:44.227643 22652 net.cpp:139] Memory required for data: 2051840
I0428 19:31:44.227650 22652 layer_factory.hpp:77] Creating layer relu2
I0428 19:31:44.227655 22652 net.cpp:86] Creating Layer relu2
I0428 19:31:44.227658 22652 net.cpp:408] relu2 <- ip2
I0428 19:31:44.227663 22652 net.cpp:369] relu2 -> ip2 (in-place)
I0428 19:31:44.228392 22652 net.cpp:124] Setting up relu2
I0428 19:31:44.228405 22652 net.cpp:131] Top shape: 64 10 (640)
I0428 19:31:44.228408 22652 net.cpp:139] Memory required for data: 2054400
I0428 19:31:44.228412 22652 layer_factory.hpp:77] Creating layer ip3
I0428 19:31:44.228421 22652 net.cpp:86] Creating Layer ip3
I0428 19:31:44.228425 22652 net.cpp:408] ip3 <- ip2
I0428 19:31:44.228430 22652 net.cpp:382] ip3 -> ip3
I0428 19:31:44.228525 22652 net.cpp:124] Setting up ip3
I0428 19:31:44.228533 22652 net.cpp:131] Top shape: 64 10 (640)
I0428 19:31:44.228538 22652 net.cpp:139] Memory required for data: 2056960
I0428 19:31:44.228543 22652 layer_factory.hpp:77] Creating layer relu3
I0428 19:31:44.228549 22652 net.cpp:86] Creating Layer relu3
I0428 19:31:44.228552 22652 net.cpp:408] relu3 <- ip3
I0428 19:31:44.228556 22652 net.cpp:369] relu3 -> ip3 (in-place)
I0428 19:31:44.228732 22652 net.cpp:124] Setting up relu3
I0428 19:31:44.228741 22652 net.cpp:131] Top shape: 64 10 (640)
I0428 19:31:44.228745 22652 net.cpp:139] Memory required for data: 2059520
I0428 19:31:44.228749 22652 layer_factory.hpp:77] Creating layer loss
I0428 19:31:44.228754 22652 net.cpp:86] Creating Layer loss
I0428 19:31:44.228757 22652 net.cpp:408] loss <- ip3
I0428 19:31:44.228761 22652 net.cpp:408] loss <- label
I0428 19:31:44.228768 22652 net.cpp:382] loss -> loss
I0428 19:31:44.228782 22652 layer_factory.hpp:77] Creating layer loss
…
I0428 19:31:44.229418 22652 solver.cpp:173] Creating test net (#0) specified by net file: ECE595/mnist/train_test/var_everything2/lenet_train_test131.prototxt
I0428 19:31:44.229445 22652 net.cpp:296] The NetState phase (1) differed from the phase (0) specified by a rule in layer mnist
I0428 19:31:44.229526 22652 net.cpp:53] Initializing net from parameters: 
name: "LeNet"
state {
  phase: TEST
}
layer {
  name: "mnist"
  type: "Data"
  top: "data"
  top: "label"
  include {
    phase: TEST
  }
  transform_param {
    scale: 0.00390625
  }
  data_param {
    source: "examples/mnist/mnist_test_lmdb"
    batch_size: 100
    backend: LMDB
  }
}
layer {
  name: "conv0"
  type: "Convolution"
  bottom: "data"
  top: "conv0"
  param {
    lr_mult: 1
  }
  param {
    lr_mult: 2
  }
  convolution_param {
    num_output: 10
    kernel_size: 5
    stride: 1
    weight_filler {
      type: "xavier"
    }
    bias_filler {
      type: "constant"
    }
  }
}
layer {
  name: "pool0"
  type: "Pooling"
  bottom: "conv0"
  top: "pool0"
  pooling_param {
    pool: MAX
    kernel_size: 2
    stride: 2
  }
}
layer {
  name: "ip1"
  type: "InnerProduct"
  bottom: "pool0"
  top: "ip1"
  param {
    lr_mult: 1
  }
  param {
    lr_mult: 2
  }
  inner_product_param {
    num_output: 10
    weight_filler {
      type: "xavier"
    }
    bias_filler {
      type: "constant"
    }
  }
}
layer {
  name: "relu1"
  type: "ReLU"
  bottom: "ip1"
  top: "ip1"
}
layer {
  name: "ip2"
  type: "InnerProduct"
  bottom: "ip1"
  top: "ip2"
  param {
    lr_mult: 1
  }
  param {
    lr_mult: 2
  }
  inner_product_param {
    num_output: 10
    weight_filler {
      type: "xavier"
    }
    bias_filler {
      type: "constant"
    }
  }
}
layer {
  name: "relu2"
  type: "ReLU"
  bottom: "ip2"
  top: "ip2"
}
layer {
  name: "ip3"
  type: "InnerProduct"
  bottom: "ip2"
  top: "ip3"
  param {
    lr_mult: 1
  }
  param {
    lr_mult: 2
  }
  inner_product_param {
    num_output: 10
    weight_filler {
      type: "xavier"
    }
    bias_filler {
      type: "constant"
    }
  }
}
layer {
  name: "relu3"
  type: "ReLU"
  bottom: "ip3"
  top: "ip3"
}
layer {
  name: "accuracy"
  type: "Accuracy"
  bottom: "ip3"
  bottom: "label"
  top: "accuracy"
  include {
    phase: TEST
  }
}
layer {
  name: "loss"
  type: "SoftmaxWithLoss"
  bottom: "ip3"
  bottom: "label"
  top: "loss"
}
I0428 19:31:44.229594 22652 layer_factory.hpp:77] Creating layer mnist
I0428 19:31:44.229640 22652 db_lmdb.cpp:35] Opened lmdb examples/mnist/mnist_test_lmdb
I0428 19:31:44.229653 22652 net.cpp:86] Creating Layer mnist
I0428 19:31:44.229658 22652 net.cpp:382] mnist -> data
I0428 19:31:44.229666 22652 net.cpp:382] mnist -> label
I0428 19:31:44.229755 22652 data_layer.cpp:45] output data size: 100,1,28,28
I0428 19:31:44.231933 22652 net.cpp:124] Setting up mnist
I0428 19:31:44.231964 22652 net.cpp:131] Top shape: 100 1 28 28 (78400)
I0428 19:31:44.231971 22652 net.cpp:131] Top shape: 100 (100)
I0428 19:31:44.231974 22652 net.cpp:139] Memory required for data: 314000
I0428 19:31:44.231978 22652 layer_factory.hpp:77] Creating layer label_mnist_1_split
I0428 19:31:44.231986 22652 net.cpp:86] Creating Layer label_mnist_1_split
I0428 19:31:44.231988 22652 net.cpp:408] label_mnist_1_split <- label
I0428 19:31:44.231993 22652 net.cpp:382] label_mnist_1_split -> label_mnist_1_split_0
I0428 19:31:44.232000 22652 net.cpp:382] label_mnist_1_split -> label_mnist_1_split_1
I0428 19:31:44.232051 22652 net.cpp:124] Setting up label_mnist_1_split
I0428 19:31:44.232056 22652 net.cpp:131] Top shape: 100 (100)
I0428 19:31:44.232060 22652 net.cpp:131] Top shape: 100 (100)
I0428 19:31:44.232064 22652 net.cpp:139] Memory required for data: 314800
I0428 19:31:44.232076 22652 layer_factory.hpp:77] Creating layer conv0
I0428 19:31:44.232086 22652 net.cpp:86] Creating Layer conv0
I0428 19:31:44.232090 22652 net.cpp:408] conv0 <- data
I0428 19:31:44.232096 22652 net.cpp:382] conv0 -> conv0
I0428 19:31:44.233820 22652 net.cpp:124] Setting up conv0
I0428 19:31:44.233834 22652 net.cpp:131] Top shape: 100 10 24 24 (576000)
I0428 19:31:44.233839 22652 net.cpp:139] Memory required for data: 2618800
I0428 19:31:44.233847 22652 layer_factory.hpp:77] Creating layer pool0
I0428 19:31:44.233855 22652 net.cpp:86] Creating Layer pool0
I0428 19:31:44.233860 22652 net.cpp:408] pool0 <- conv0
I0428 19:31:44.233865 22652 net.cpp:382] pool0 -> pool0
I0428 19:31:44.233901 22652 net.cpp:124] Setting up pool0
I0428 19:31:44.233906 22652 net.cpp:131] Top shape: 100 10 12 12 (144000)
I0428 19:31:44.233908 22652 net.cpp:139] Memory required for data: 3194800
I0428 19:31:44.233911 22652 layer_factory.hpp:77] Creating layer ip1
I0428 19:31:44.233919 22652 net.cpp:86] Creating Layer ip1
I0428 19:31:44.233922 22652 net.cpp:408] ip1 <- pool0
I0428 19:31:44.233927 22652 net.cpp:382] ip1 -> ip1
I0428 19:31:44.234107 22652 net.cpp:124] Setting up ip1
I0428 19:31:44.234115 22652 net.cpp:131] Top shape: 100 10 (1000)
I0428 19:31:44.234119 22652 net.cpp:139] Memory required for data: 3198800
I0428 19:31:44.234127 22652 layer_factory.hpp:77] Creating layer relu1
I0428 19:31:44.234132 22652 net.cpp:86] Creating Layer relu1
I0428 19:31:44.234134 22652 net.cpp:408] relu1 <- ip1
I0428 19:31:44.234139 22652 net.cpp:369] relu1 -> ip1 (in-place)
I0428 19:31:44.234305 22652 net.cpp:124] Setting up relu1
I0428 19:31:44.234314 22652 net.cpp:131] Top shape: 100 10 (1000)
I0428 19:31:44.234318 22652 net.cpp:139] Memory required for data: 3202800
I0428 19:31:44.234320 22652 layer_factory.hpp:77] Creating layer ip2
I0428 19:31:44.234328 22652 net.cpp:86] Creating Layer ip2
I0428 19:31:44.234330 22652 net.cpp:408] ip2 <- ip1
I0428 19:31:44.234336 22652 net.cpp:382] ip2 -> ip2
I0428 19:31:44.234431 22652 net.cpp:124] Setting up ip2
I0428 19:31:44.234439 22652 net.cpp:131] Top shape: 100 10 (1000)
I0428 19:31:44.234442 22652 net.cpp:139] Memory required for data: 3206800
I0428 19:31:44.234449 22652 layer_factory.hpp:77] Creating layer relu2
I0428 19:31:44.234454 22652 net.cpp:86] Creating Layer relu2
I0428 19:31:44.234457 22652 net.cpp:408] relu2 <- ip2
I0428 19:31:44.234462 22652 net.cpp:369] relu2 -> ip2 (in-place)
I0428 19:31:44.235308 22652 net.cpp:124] Setting up relu2
I0428 19:31:44.235321 22652 net.cpp:131] Top shape: 100 10 (1000)
I0428 19:31:44.235324 22652 net.cpp:139] Memory required for data: 3210800
I0428 19:31:44.235328 22652 layer_factory.hpp:77] Creating layer ip3
I0428 19:31:44.235337 22652 net.cpp:86] Creating Layer ip3
I0428 19:31:44.235340 22652 net.cpp:408] ip3 <- ip2
I0428 19:31:44.235347 22652 net.cpp:382] ip3 -> ip3
I0428 19:31:44.235504 22652 net.cpp:124] Setting up ip3
I0428 19:31:44.235513 22652 net.cpp:131] Top shape: 100 10 (1000)
I0428 19:31:44.235517 22652 net.cpp:139] Memory required for data: 3214800
I0428 19:31:44.235522 22652 layer_factory.hpp:77] Creating layer relu3
I0428 19:31:44.235533 22652 net.cpp:86] Creating Layer relu3
I0428 19:31:44.235538 22652 net.cpp:408] relu3 <- ip3
I0428 19:31:44.235543 22652 net.cpp:369] relu3 -> ip3 (in-place)
I0428 19:31:44.235759 22652 net.cpp:124] Setting up relu3
I0428 19:31:44.235766 22652 net.cpp:131] Top shape: 100 10 (1000)
I0428 19:31:44.235770 22652 net.cpp:139] Memory required for data: 3218800
I0428 19:31:44.235774 22652 layer_factory.hpp:77] Creating layer ip3_relu3_0_split
I0428 19:31:44.235779 22652 net.cpp:86] Creating Layer ip3_relu3_0_split
I0428 19:31:44.235790 22652 net.cpp:408] ip3_relu3_0_split <- ip3
I0428 19:31:44.235795 22652 net.cpp:382] ip3_relu3_0_split -> ip3_relu3_0_split_0
I0428 19:31:44.235800 22652 net.cpp:382] ip3_relu3_0_split -> ip3_relu3_0_split_1
I0428 19:31:44.235836 22652 net.cpp:124] Setting up ip3_relu3_0_split
I0428 19:31:44.235842 22652 net.cpp:131] Top shape: 100 10 (1000)
I0428 19:31:44.235846 22652 net.cpp:131] Top shape: 100 10 (1000)
I0428 19:31:44.235859 22652 net.cpp:139] Memory required for data: 3226800
I0428 19:31:44.235869 22652 layer_factory.hpp:77] Creating layer accuracy
I0428 19:31:44.235875 22652 net.cpp:86] Creating Layer accuracy
I0428 19:31:44.235878 22652 net.cpp:408] accuracy <- ip3_relu3_0_split_0
I0428 19:31:44.235888 22652 net.cpp:408] accuracy <- label_mnist_1_split_0
I0428 19:31:44.235895 22652 net.cpp:382] accuracy -> accuracy
…
