…
I0428 19:59:23.558436 29227 net.cpp:296] The NetState phase (0) differed from the phase (1) specified by a rule in layer mnist
I0428 19:59:23.558454 29227 net.cpp:296] The NetState phase (0) differed from the phase (1) specified by a rule in layer accuracy
I0428 19:59:23.558548 29227 net.cpp:53] Initializing net from parameters: 
name: "LeNet"
state {
  phase: TRAIN
  level: 0
  stage: ""
}
layer {
  name: "mnist"
  type: "Data"
  top: "data"
  top: "label"
  include {
    phase: TRAIN
  }
  transform_param {
    scale: 0.00390625
  }
  data_param {
    source: "examples/mnist/mnist_train_lmdb"
    batch_size: 64
    backend: LMDB
  }
}
layer {
  name: "conv0"
  type: "Convolution"
  bottom: "data"
  top: "conv0"
  param {
    lr_mult: 1
  }
  param {
    lr_mult: 2
  }
  convolution_param {
    num_output: 10
    kernel_size: 5
    stride: 1
    weight_filler {
      type: "xavier"
    }
    bias_filler {
      type: "constant"
    }
  }
}
layer {
  name: "pool0"
  type: "Pooling"
  bottom: "conv0"
  top: "pool0"
  pooling_param {
    pool: MAX
    kernel_size: 2
    stride: 2
  }
}
layer {
  name: "conv1"
  type: "Convolution"
  bottom: "pool0"
  top: "conv1"
  param {
    lr_mult: 1
  }
  param {
    lr_mult: 2
  }
  convolution_param {
    num_output: 10
    kernel_size: 5
    stride: 1
    weight_filler {
      type: "xavier"
    }
    bias_filler {
      type: "constant"
    }
  }
}
layer {
  name: "pool1"
  type: "Pooling"
  bottom: "conv1"
  top: "pool1"
  pooling_param {
    pool: MAX
    kernel_size: 2
    stride: 2
  }
}
layer {
  name: "ip1"
  type: "InnerProduct"
  bottom: "pool1"
  top: "ip1"
  param {
    lr_mult: 1
  }
  param {
    lr_mult: 2
  }
  inner_product_param {
    num_output: 25
    weight_filler {
      type: "xavier"
    }
    bias_filler {
      type: "constant"
    }
  }
}
layer {
  name: "relu1"
  type: "ReLU"
  bottom: "ip1"
  top: "ip1"
}
layer {
  name: "ip2"
  type: "InnerProduct"
  bottom: "ip1"
  top: "ip2"
  param {
    lr_mult: 1
  }
  param {
    lr_mult: 2
  }
  inner_product_param {
    num_output: 50
    weight_filler {
      type: "xavier"
    }
    bias_filler {
      type: "constant"
    }
  }
}
layer {
  name: "relu2"
  type: "ReLU"
  bottom: "ip2"
  top: "ip2"
}
layer {
  name: "ip3"
  type: "InnerProduct"
  bottom: "ip2"
  top: "ip3"
  param {
    lr_mult: 1
  }
  param {
    lr_mult: 2
  }
  inner_product_param {
    num_output: 10
    weight_filler {
      type: "xavier"
    }
    bias_filler {
      type: "constant"
    }
  }
}
layer {
  name: "relu3"
  type: "ReLU"
  bottom: "ip3"
  top: "ip3"
}
layer {
  name: "loss"
  type: "SoftmaxWithLoss"
  bottom: "ip3"
  bottom: "label"
  top: "loss"
}
I0428 19:59:23.558612 29227 layer_factory.hpp:77] Creating layer mnist
I0428 19:59:23.558696 29227 db_lmdb.cpp:35] Opened lmdb examples/mnist/mnist_train_lmdb
I0428 19:59:23.558715 29227 net.cpp:86] Creating Layer mnist
I0428 19:59:23.558723 29227 net.cpp:382] mnist -> data
I0428 19:59:23.558742 29227 net.cpp:382] mnist -> label
I0428 19:59:23.559836 29227 data_layer.cpp:45] output data size: 64,1,28,28
I0428 19:59:23.562077 29227 net.cpp:124] Setting up mnist
I0428 19:59:23.562108 29227 net.cpp:131] Top shape: 64 1 28 28 (50176)
I0428 19:59:23.562111 29227 net.cpp:131] Top shape: 64 (64)
I0428 19:59:23.562114 29227 net.cpp:139] Memory required for data: 200960
I0428 19:59:23.562120 29227 layer_factory.hpp:77] Creating layer conv0
I0428 19:59:23.562158 29227 net.cpp:86] Creating Layer conv0
I0428 19:59:23.562175 29227 net.cpp:408] conv0 <- data
I0428 19:59:23.562187 29227 net.cpp:382] conv0 -> conv0
I0428 19:59:23.793329 29227 net.cpp:124] Setting up conv0
I0428 19:59:23.793370 29227 net.cpp:131] Top shape: 64 10 24 24 (368640)
I0428 19:59:23.793373 29227 net.cpp:139] Memory required for data: 1675520
I0428 19:59:23.793390 29227 layer_factory.hpp:77] Creating layer pool0
I0428 19:59:23.793402 29227 net.cpp:86] Creating Layer pool0
I0428 19:59:23.793406 29227 net.cpp:408] pool0 <- conv0
I0428 19:59:23.793411 29227 net.cpp:382] pool0 -> pool0
I0428 19:59:23.793457 29227 net.cpp:124] Setting up pool0
I0428 19:59:23.793475 29227 net.cpp:131] Top shape: 64 10 12 12 (92160)
I0428 19:59:23.793478 29227 net.cpp:139] Memory required for data: 2044160
I0428 19:59:23.793481 29227 layer_factory.hpp:77] Creating layer conv1
I0428 19:59:23.793490 29227 net.cpp:86] Creating Layer conv1
I0428 19:59:23.793493 29227 net.cpp:408] conv1 <- pool0
I0428 19:59:23.793498 29227 net.cpp:382] conv1 -> conv1
I0428 19:59:23.796139 29227 net.cpp:124] Setting up conv1
I0428 19:59:23.796152 29227 net.cpp:131] Top shape: 64 10 8 8 (40960)
I0428 19:59:23.796171 29227 net.cpp:139] Memory required for data: 2208000
I0428 19:59:23.796180 29227 layer_factory.hpp:77] Creating layer pool1
I0428 19:59:23.796187 29227 net.cpp:86] Creating Layer pool1
I0428 19:59:23.796190 29227 net.cpp:408] pool1 <- conv1
I0428 19:59:23.796195 29227 net.cpp:382] pool1 -> pool1
I0428 19:59:23.796245 29227 net.cpp:124] Setting up pool1
I0428 19:59:23.796250 29227 net.cpp:131] Top shape: 64 10 4 4 (10240)
I0428 19:59:23.796253 29227 net.cpp:139] Memory required for data: 2248960
I0428 19:59:23.796257 29227 layer_factory.hpp:77] Creating layer ip1
I0428 19:59:23.796262 29227 net.cpp:86] Creating Layer ip1
I0428 19:59:23.796265 29227 net.cpp:408] ip1 <- pool1
I0428 19:59:23.796269 29227 net.cpp:382] ip1 -> ip1
I0428 19:59:23.796392 29227 net.cpp:124] Setting up ip1
I0428 19:59:23.796401 29227 net.cpp:131] Top shape: 64 25 (1600)
I0428 19:59:23.796403 29227 net.cpp:139] Memory required for data: 2255360
I0428 19:59:23.796411 29227 layer_factory.hpp:77] Creating layer relu1
I0428 19:59:23.796416 29227 net.cpp:86] Creating Layer relu1
I0428 19:59:23.796419 29227 net.cpp:408] relu1 <- ip1
I0428 19:59:23.796423 29227 net.cpp:369] relu1 -> ip1 (in-place)
I0428 19:59:23.796600 29227 net.cpp:124] Setting up relu1
I0428 19:59:23.796609 29227 net.cpp:131] Top shape: 64 25 (1600)
I0428 19:59:23.796612 29227 net.cpp:139] Memory required for data: 2261760
I0428 19:59:23.796615 29227 layer_factory.hpp:77] Creating layer ip2
I0428 19:59:23.796622 29227 net.cpp:86] Creating Layer ip2
I0428 19:59:23.796624 29227 net.cpp:408] ip2 <- ip1
I0428 19:59:23.796629 29227 net.cpp:382] ip2 -> ip2
I0428 19:59:23.796732 29227 net.cpp:124] Setting up ip2
I0428 19:59:23.796739 29227 net.cpp:131] Top shape: 64 50 (3200)
I0428 19:59:23.796742 29227 net.cpp:139] Memory required for data: 2274560
I0428 19:59:23.796748 29227 layer_factory.hpp:77] Creating layer relu2
I0428 19:59:23.796753 29227 net.cpp:86] Creating Layer relu2
I0428 19:59:23.796771 29227 net.cpp:408] relu2 <- ip2
I0428 19:59:23.796774 29227 net.cpp:369] relu2 -> ip2 (in-place)
I0428 19:59:23.797561 29227 net.cpp:124] Setting up relu2
I0428 19:59:23.797590 29227 net.cpp:131] Top shape: 64 50 (3200)
I0428 19:59:23.797593 29227 net.cpp:139] Memory required for data: 2287360
I0428 19:59:23.797597 29227 layer_factory.hpp:77] Creating layer ip3
I0428 19:59:23.797603 29227 net.cpp:86] Creating Layer ip3
I0428 19:59:23.797607 29227 net.cpp:408] ip3 <- ip2
I0428 19:59:23.797613 29227 net.cpp:382] ip3 -> ip3
I0428 19:59:23.797758 29227 net.cpp:124] Setting up ip3
I0428 19:59:23.797766 29227 net.cpp:131] Top shape: 64 10 (640)
I0428 19:59:23.797770 29227 net.cpp:139] Memory required for data: 2289920
I0428 19:59:23.797780 29227 layer_factory.hpp:77] Creating layer relu3
I0428 19:59:23.797786 29227 net.cpp:86] Creating Layer relu3
I0428 19:59:23.797790 29227 net.cpp:408] relu3 <- ip3
I0428 19:59:23.797793 29227 net.cpp:369] relu3 -> ip3 (in-place)
I0428 19:59:23.797973 29227 net.cpp:124] Setting up relu3
I0428 19:59:23.797982 29227 net.cpp:131] Top shape: 64 10 (640)
I0428 19:59:23.797986 29227 net.cpp:139] Memory required for data: 2292480
I0428 19:59:23.797989 29227 layer_factory.hpp:77] Creating layer loss
I0428 19:59:23.797994 29227 net.cpp:86] Creating Layer loss
I0428 19:59:23.797998 29227 net.cpp:408] loss <- ip3
I0428 19:59:23.798002 29227 net.cpp:408] loss <- label
I0428 19:59:23.798007 29227 net.cpp:382] loss -> loss
I0428 19:59:23.798039 29227 layer_factory.hpp:77] Creating layer loss
…
I0428 19:59:23.798748 29227 solver.cpp:173] Creating test net (#0) specified by net file: ECE595/mnist/train_test/var_everything2/lenet_train_test846.prototxt
I0428 19:59:23.798795 29227 net.cpp:296] The NetState phase (1) differed from the phase (0) specified by a rule in layer mnist
I0428 19:59:23.798931 29227 net.cpp:53] Initializing net from parameters: 
name: "LeNet"
state {
  phase: TEST
}
layer {
  name: "mnist"
  type: "Data"
  top: "data"
  top: "label"
  include {
    phase: TEST
  }
  transform_param {
    scale: 0.00390625
  }
  data_param {
    source: "examples/mnist/mnist_test_lmdb"
    batch_size: 100
    backend: LMDB
  }
}
layer {
  name: "conv0"
  type: "Convolution"
  bottom: "data"
  top: "conv0"
  param {
    lr_mult: 1
  }
  param {
    lr_mult: 2
  }
  convolution_param {
    num_output: 10
    kernel_size: 5
    stride: 1
    weight_filler {
      type: "xavier"
    }
    bias_filler {
      type: "constant"
    }
  }
}
layer {
  name: "pool0"
  type: "Pooling"
  bottom: "conv0"
  top: "pool0"
  pooling_param {
    pool: MAX
    kernel_size: 2
    stride: 2
  }
}
layer {
  name: "conv1"
  type: "Convolution"
  bottom: "pool0"
  top: "conv1"
  param {
    lr_mult: 1
  }
  param {
    lr_mult: 2
  }
  convolution_param {
    num_output: 10
    kernel_size: 5
    stride: 1
    weight_filler {
      type: "xavier"
    }
    bias_filler {
      type: "constant"
    }
  }
}
layer {
  name: "pool1"
  type: "Pooling"
  bottom: "conv1"
  top: "pool1"
  pooling_param {
    pool: MAX
    kernel_size: 2
    stride: 2
  }
}
layer {
  name: "ip1"
  type: "InnerProduct"
  bottom: "pool1"
  top: "ip1"
  param {
    lr_mult: 1
  }
  param {
    lr_mult: 2
  }
  inner_product_param {
    num_output: 25
    weight_filler {
      type: "xavier"
    }
    bias_filler {
      type: "constant"
    }
  }
}
layer {
  name: "relu1"
  type: "ReLU"
  bottom: "ip1"
  top: "ip1"
}
layer {
  name: "ip2"
  type: "InnerProduct"
  bottom: "ip1"
  top: "ip2"
  param {
    lr_mult: 1
  }
  param {
    lr_mult: 2
  }
  inner_product_param {
    num_output: 50
    weight_filler {
      type: "xavier"
    }
    bias_filler {
      type: "constant"
    }
  }
}
layer {
  name: "relu2"
  type: "ReLU"
  bottom: "ip2"
  top: "ip2"
}
layer {
  name: "ip3"
  type: "InnerProduct"
  bottom: "ip2"
  top: "ip3"
  param {
    lr_mult: 1
  }
  param {
    lr_mult: 2
  }
  inner_product_param {
    num_output: 10
    weight_filler {
      type: "xavier"
    }
    bias_filler {
      type: "constant"
    }
  }
}
layer {
  name: "relu3"
  type: "ReLU"
  bottom: "ip3"
  top: "ip3"
}
layer {
  name: "accuracy"
  type: "Accuracy"
  bottom: "ip3"
  bottom: "label"
  top: "accuracy"
  include {
    phase: TEST
  }
}
layer {
  name: "loss"
  type: "SoftmaxWithLoss"
  bottom: "ip3"
  bottom: "label"
  top: "loss"
}
I0428 19:59:23.799011 29227 layer_factory.hpp:77] Creating layer mnist
I0428 19:59:23.799068 29227 db_lmdb.cpp:35] Opened lmdb examples/mnist/mnist_test_lmdb
I0428 19:59:23.799082 29227 net.cpp:86] Creating Layer mnist
I0428 19:59:23.799088 29227 net.cpp:382] mnist -> data
I0428 19:59:23.799094 29227 net.cpp:382] mnist -> label
I0428 19:59:23.799175 29227 data_layer.cpp:45] output data size: 100,1,28,28
I0428 19:59:23.801055 29227 net.cpp:124] Setting up mnist
I0428 19:59:23.801084 29227 net.cpp:131] Top shape: 100 1 28 28 (78400)
I0428 19:59:23.801089 29227 net.cpp:131] Top shape: 100 (100)
I0428 19:59:23.801092 29227 net.cpp:139] Memory required for data: 314000
I0428 19:59:23.801111 29227 layer_factory.hpp:77] Creating layer label_mnist_1_split
I0428 19:59:23.801182 29227 net.cpp:86] Creating Layer label_mnist_1_split
I0428 19:59:23.801185 29227 net.cpp:408] label_mnist_1_split <- label
I0428 19:59:23.801203 29227 net.cpp:382] label_mnist_1_split -> label_mnist_1_split_0
I0428 19:59:23.801210 29227 net.cpp:382] label_mnist_1_split -> label_mnist_1_split_1
I0428 19:59:23.801265 29227 net.cpp:124] Setting up label_mnist_1_split
I0428 19:59:23.801271 29227 net.cpp:131] Top shape: 100 (100)
I0428 19:59:23.801275 29227 net.cpp:131] Top shape: 100 (100)
I0428 19:59:23.801277 29227 net.cpp:139] Memory required for data: 314800
I0428 19:59:23.801280 29227 layer_factory.hpp:77] Creating layer conv0
I0428 19:59:23.801290 29227 net.cpp:86] Creating Layer conv0
I0428 19:59:23.801292 29227 net.cpp:408] conv0 <- data
I0428 19:59:23.801298 29227 net.cpp:382] conv0 -> conv0
I0428 19:59:23.803072 29227 net.cpp:124] Setting up conv0
I0428 19:59:23.803087 29227 net.cpp:131] Top shape: 100 10 24 24 (576000)
I0428 19:59:23.803092 29227 net.cpp:139] Memory required for data: 2618800
I0428 19:59:23.803099 29227 layer_factory.hpp:77] Creating layer pool0
I0428 19:59:23.803117 29227 net.cpp:86] Creating Layer pool0
I0428 19:59:23.803119 29227 net.cpp:408] pool0 <- conv0
I0428 19:59:23.803125 29227 net.cpp:382] pool0 -> pool0
I0428 19:59:23.803163 29227 net.cpp:124] Setting up pool0
I0428 19:59:23.803167 29227 net.cpp:131] Top shape: 100 10 12 12 (144000)
I0428 19:59:23.803169 29227 net.cpp:139] Memory required for data: 3194800
I0428 19:59:23.803172 29227 layer_factory.hpp:77] Creating layer conv1
I0428 19:59:23.803182 29227 net.cpp:86] Creating Layer conv1
I0428 19:59:23.803186 29227 net.cpp:408] conv1 <- pool0
I0428 19:59:23.803190 29227 net.cpp:382] conv1 -> conv1
I0428 19:59:23.805429 29227 net.cpp:124] Setting up conv1
I0428 19:59:23.805444 29227 net.cpp:131] Top shape: 100 10 8 8 (64000)
I0428 19:59:23.805447 29227 net.cpp:139] Memory required for data: 3450800
I0428 19:59:23.805455 29227 layer_factory.hpp:77] Creating layer pool1
I0428 19:59:23.805461 29227 net.cpp:86] Creating Layer pool1
I0428 19:59:23.805483 29227 net.cpp:408] pool1 <- conv1
I0428 19:59:23.805505 29227 net.cpp:382] pool1 -> pool1
I0428 19:59:23.805544 29227 net.cpp:124] Setting up pool1
I0428 19:59:23.805550 29227 net.cpp:131] Top shape: 100 10 4 4 (16000)
I0428 19:59:23.805553 29227 net.cpp:139] Memory required for data: 3514800
I0428 19:59:23.805555 29227 layer_factory.hpp:77] Creating layer ip1
I0428 19:59:23.805563 29227 net.cpp:86] Creating Layer ip1
I0428 19:59:23.805567 29227 net.cpp:408] ip1 <- pool1
I0428 19:59:23.805572 29227 net.cpp:382] ip1 -> ip1
I0428 19:59:23.805727 29227 net.cpp:124] Setting up ip1
I0428 19:59:23.805734 29227 net.cpp:131] Top shape: 100 25 (2500)
I0428 19:59:23.805747 29227 net.cpp:139] Memory required for data: 3524800
I0428 19:59:23.805754 29227 layer_factory.hpp:77] Creating layer relu1
I0428 19:59:23.805759 29227 net.cpp:86] Creating Layer relu1
I0428 19:59:23.805763 29227 net.cpp:408] relu1 <- ip1
I0428 19:59:23.805770 29227 net.cpp:369] relu1 -> ip1 (in-place)
I0428 19:59:23.806000 29227 net.cpp:124] Setting up relu1
I0428 19:59:23.806010 29227 net.cpp:131] Top shape: 100 25 (2500)
I0428 19:59:23.806013 29227 net.cpp:139] Memory required for data: 3534800
I0428 19:59:23.806022 29227 layer_factory.hpp:77] Creating layer ip2
I0428 19:59:23.806030 29227 net.cpp:86] Creating Layer ip2
I0428 19:59:23.806038 29227 net.cpp:408] ip2 <- ip1
I0428 19:59:23.806043 29227 net.cpp:382] ip2 -> ip2
I0428 19:59:23.806149 29227 net.cpp:124] Setting up ip2
I0428 19:59:23.806155 29227 net.cpp:131] Top shape: 100 50 (5000)
I0428 19:59:23.806159 29227 net.cpp:139] Memory required for data: 3554800
I0428 19:59:23.806164 29227 layer_factory.hpp:77] Creating layer relu2
I0428 19:59:23.806167 29227 net.cpp:86] Creating Layer relu2
I0428 19:59:23.806171 29227 net.cpp:408] relu2 <- ip2
I0428 19:59:23.806177 29227 net.cpp:369] relu2 -> ip2 (in-place)
I0428 19:59:23.806342 29227 net.cpp:124] Setting up relu2
I0428 19:59:23.806350 29227 net.cpp:131] Top shape: 100 50 (5000)
I0428 19:59:23.806354 29227 net.cpp:139] Memory required for data: 3574800
I0428 19:59:23.806356 29227 layer_factory.hpp:77] Creating layer ip3
I0428 19:59:23.806362 29227 net.cpp:86] Creating Layer ip3
I0428 19:59:23.806365 29227 net.cpp:408] ip3 <- ip2
I0428 19:59:23.806370 29227 net.cpp:382] ip3 -> ip3
I0428 19:59:23.806498 29227 net.cpp:124] Setting up ip3
I0428 19:59:23.806504 29227 net.cpp:131] Top shape: 100 10 (1000)
I0428 19:59:23.806507 29227 net.cpp:139] Memory required for data: 3578800
I0428 19:59:23.806514 29227 layer_factory.hpp:77] Creating layer relu3
I0428 19:59:23.806520 29227 net.cpp:86] Creating Layer relu3
I0428 19:59:23.806524 29227 net.cpp:408] relu3 <- ip3
I0428 19:59:23.806526 29227 net.cpp:369] relu3 -> ip3 (in-place)
I0428 19:59:23.807296 29227 net.cpp:124] Setting up relu3
I0428 19:59:23.807308 29227 net.cpp:131] Top shape: 100 10 (1000)
I0428 19:59:23.807312 29227 net.cpp:139] Memory required for data: 3582800
I0428 19:59:23.807315 29227 layer_factory.hpp:77] Creating layer ip3_relu3_0_split
I0428 19:59:23.807320 29227 net.cpp:86] Creating Layer ip3_relu3_0_split
I0428 19:59:23.807323 29227 net.cpp:408] ip3_relu3_0_split <- ip3
I0428 19:59:23.807328 29227 net.cpp:382] ip3_relu3_0_split -> ip3_relu3_0_split_0
I0428 19:59:23.807334 29227 net.cpp:382] ip3_relu3_0_split -> ip3_relu3_0_split_1
I0428 19:59:23.807394 29227 net.cpp:124] Setting up ip3_relu3_0_split
I0428 19:59:23.807401 29227 net.cpp:131] Top shape: 100 10 (1000)
I0428 19:59:23.807405 29227 net.cpp:131] Top shape: 100 10 (1000)
I0428 19:59:23.807409 29227 net.cpp:139] Memory required for data: 3590800
I0428 19:59:23.807411 29227 layer_factory.hpp:77] Creating layer accuracy
I0428 19:59:23.807416 29227 net.cpp:86] Creating Layer accuracy
I0428 19:59:23.807420 29227 net.cpp:408] accuracy <- ip3_relu3_0_split_0
I0428 19:59:23.807423 29227 net.cpp:408] accuracy <- label_mnist_1_split_0
I0428 19:59:23.807430 29227 net.cpp:382] accuracy -> accuracy
…
