…
I0428 20:38:01.120925  5067 net.cpp:296] The NetState phase (0) differed from the phase (1) specified by a rule in layer mnist
I0428 20:38:01.120944  5067 net.cpp:296] The NetState phase (0) differed from the phase (1) specified by a rule in layer accuracy
I0428 20:38:01.121042  5067 net.cpp:53] Initializing net from parameters: 
name: "LeNet"
state {
  phase: TRAIN
  level: 0
  stage: ""
}
layer {
  name: "mnist"
  type: "Data"
  top: "data"
  top: "label"
  include {
    phase: TRAIN
  }
  transform_param {
    scale: 0.00390625
  }
  data_param {
    source: "examples/mnist/mnist_train_lmdb"
    batch_size: 64
    backend: LMDB
  }
}
layer {
  name: "conv0"
  type: "Convolution"
  bottom: "data"
  top: "conv0"
  param {
    lr_mult: 1
  }
  param {
    lr_mult: 2
  }
  convolution_param {
    num_output: 100
    kernel_size: 5
    stride: 1
    weight_filler {
      type: "xavier"
    }
    bias_filler {
      type: "constant"
    }
  }
}
layer {
  name: "pool0"
  type: "Pooling"
  bottom: "conv0"
  top: "pool0"
  pooling_param {
    pool: MAX
    kernel_size: 2
    stride: 2
  }
}
layer {
  name: "conv1"
  type: "Convolution"
  bottom: "pool0"
  top: "conv1"
  param {
    lr_mult: 1
  }
  param {
    lr_mult: 2
  }
  convolution_param {
    num_output: 100
    kernel_size: 5
    stride: 1
    weight_filler {
      type: "xavier"
    }
    bias_filler {
      type: "constant"
    }
  }
}
layer {
  name: "pool1"
  type: "Pooling"
  bottom: "conv1"
  top: "pool1"
  pooling_param {
    pool: MAX
    kernel_size: 2
    stride: 2
  }
}
layer {
  name: "ip1"
  type: "InnerProduct"
  bottom: "pool1"
  top: "ip1"
  param {
    lr_mult: 1
  }
  param {
    lr_mult: 2
  }
  inner_product_param {
    num_output: 25
    weight_filler {
      type: "xavier"
    }
    bias_filler {
      type: "constant"
    }
  }
}
layer {
  name: "relu1"
  type: "ReLU"
  bottom: "ip1"
  top: "ip1"
}
layer {
  name: "ip2"
  type: "InnerProduct"
  bottom: "ip1"
  top: "ip2"
  param {
    lr_mult: 1
  }
  param {
    lr_mult: 2
  }
  inner_product_param {
    num_output: 10
    weight_filler {
      type: "xavier"
    }
    bias_filler {
      type: "constant"
    }
  }
}
layer {
  name: "relu2"
  type: "ReLU"
  bottom: "ip2"
  top: "ip2"
}
layer {
  name: "ip3"
  type: "InnerProduct"
  bottom: "ip2"
  top: "ip3"
  param {
    lr_mult: 1
  }
  param {
    lr_mult: 2
  }
  inner_product_param {
    num_output: 10
    weight_filler {
      type: "xavier"
    }
    bias_filler {
      type: "constant"
    }
  }
}
layer {
  name: "relu3"
  type: "ReLU"
  bottom: "ip3"
  top: "ip3"
}
layer {
  name: "loss"
  type: "SoftmaxWithLoss"
  bottom: "ip3"
  bottom: "label"
  top: "loss"
}
I0428 20:38:01.121117  5067 layer_factory.hpp:77] Creating layer mnist
I0428 20:38:01.121219  5067 db_lmdb.cpp:35] Opened lmdb examples/mnist/mnist_train_lmdb
I0428 20:38:01.121242  5067 net.cpp:86] Creating Layer mnist
I0428 20:38:01.121249  5067 net.cpp:382] mnist -> data
I0428 20:38:01.121271  5067 net.cpp:382] mnist -> label
I0428 20:38:01.122356  5067 data_layer.cpp:45] output data size: 64,1,28,28
I0428 20:38:01.125012  5067 net.cpp:124] Setting up mnist
I0428 20:38:01.125030  5067 net.cpp:131] Top shape: 64 1 28 28 (50176)
I0428 20:38:01.125037  5067 net.cpp:131] Top shape: 64 (64)
I0428 20:38:01.125041  5067 net.cpp:139] Memory required for data: 200960
I0428 20:38:01.125048  5067 layer_factory.hpp:77] Creating layer conv0
I0428 20:38:01.125064  5067 net.cpp:86] Creating Layer conv0
I0428 20:38:01.125085  5067 net.cpp:408] conv0 <- data
I0428 20:38:01.125097  5067 net.cpp:382] conv0 -> conv0
I0428 20:38:01.410776  5067 net.cpp:124] Setting up conv0
I0428 20:38:01.410804  5067 net.cpp:131] Top shape: 64 100 24 24 (3686400)
I0428 20:38:01.410809  5067 net.cpp:139] Memory required for data: 14946560
I0428 20:38:01.410825  5067 layer_factory.hpp:77] Creating layer pool0
I0428 20:38:01.410840  5067 net.cpp:86] Creating Layer pool0
I0428 20:38:01.410843  5067 net.cpp:408] pool0 <- conv0
I0428 20:38:01.410848  5067 net.cpp:382] pool0 -> pool0
I0428 20:38:01.410903  5067 net.cpp:124] Setting up pool0
I0428 20:38:01.410909  5067 net.cpp:131] Top shape: 64 100 12 12 (921600)
I0428 20:38:01.410912  5067 net.cpp:139] Memory required for data: 18632960
I0428 20:38:01.410915  5067 layer_factory.hpp:77] Creating layer conv1
I0428 20:38:01.410926  5067 net.cpp:86] Creating Layer conv1
I0428 20:38:01.410930  5067 net.cpp:408] conv1 <- pool0
I0428 20:38:01.410934  5067 net.cpp:382] conv1 -> conv1
I0428 20:38:01.415027  5067 net.cpp:124] Setting up conv1
I0428 20:38:01.415042  5067 net.cpp:131] Top shape: 64 100 8 8 (409600)
I0428 20:38:01.415046  5067 net.cpp:139] Memory required for data: 20271360
I0428 20:38:01.415055  5067 layer_factory.hpp:77] Creating layer pool1
I0428 20:38:01.415062  5067 net.cpp:86] Creating Layer pool1
I0428 20:38:01.415066  5067 net.cpp:408] pool1 <- conv1
I0428 20:38:01.415071  5067 net.cpp:382] pool1 -> pool1
I0428 20:38:01.415107  5067 net.cpp:124] Setting up pool1
I0428 20:38:01.415112  5067 net.cpp:131] Top shape: 64 100 4 4 (102400)
I0428 20:38:01.415115  5067 net.cpp:139] Memory required for data: 20680960
I0428 20:38:01.415118  5067 layer_factory.hpp:77] Creating layer ip1
I0428 20:38:01.415125  5067 net.cpp:86] Creating Layer ip1
I0428 20:38:01.415128  5067 net.cpp:408] ip1 <- pool1
I0428 20:38:01.415132  5067 net.cpp:382] ip1 -> ip1
I0428 20:38:01.415449  5067 net.cpp:124] Setting up ip1
I0428 20:38:01.415457  5067 net.cpp:131] Top shape: 64 25 (1600)
I0428 20:38:01.415460  5067 net.cpp:139] Memory required for data: 20687360
I0428 20:38:01.415467  5067 layer_factory.hpp:77] Creating layer relu1
I0428 20:38:01.415473  5067 net.cpp:86] Creating Layer relu1
I0428 20:38:01.415477  5067 net.cpp:408] relu1 <- ip1
I0428 20:38:01.415480  5067 net.cpp:369] relu1 -> ip1 (in-place)
I0428 20:38:01.415657  5067 net.cpp:124] Setting up relu1
I0428 20:38:01.415666  5067 net.cpp:131] Top shape: 64 25 (1600)
I0428 20:38:01.415669  5067 net.cpp:139] Memory required for data: 20693760
I0428 20:38:01.415673  5067 layer_factory.hpp:77] Creating layer ip2
I0428 20:38:01.415679  5067 net.cpp:86] Creating Layer ip2
I0428 20:38:01.415683  5067 net.cpp:408] ip2 <- ip1
I0428 20:38:01.415688  5067 net.cpp:382] ip2 -> ip2
I0428 20:38:01.415781  5067 net.cpp:124] Setting up ip2
I0428 20:38:01.415789  5067 net.cpp:131] Top shape: 64 10 (640)
I0428 20:38:01.415792  5067 net.cpp:139] Memory required for data: 20696320
I0428 20:38:01.415798  5067 layer_factory.hpp:77] Creating layer relu2
I0428 20:38:01.415803  5067 net.cpp:86] Creating Layer relu2
I0428 20:38:01.415807  5067 net.cpp:408] relu2 <- ip2
I0428 20:38:01.415812  5067 net.cpp:369] relu2 -> ip2 (in-place)
I0428 20:38:01.416575  5067 net.cpp:124] Setting up relu2
I0428 20:38:01.416589  5067 net.cpp:131] Top shape: 64 10 (640)
I0428 20:38:01.416591  5067 net.cpp:139] Memory required for data: 20698880
I0428 20:38:01.416595  5067 layer_factory.hpp:77] Creating layer ip3
I0428 20:38:01.416602  5067 net.cpp:86] Creating Layer ip3
I0428 20:38:01.416606  5067 net.cpp:408] ip3 <- ip2
I0428 20:38:01.416611  5067 net.cpp:382] ip3 -> ip3
I0428 20:38:01.416707  5067 net.cpp:124] Setting up ip3
I0428 20:38:01.416714  5067 net.cpp:131] Top shape: 64 10 (640)
I0428 20:38:01.416718  5067 net.cpp:139] Memory required for data: 20701440
I0428 20:38:01.416725  5067 layer_factory.hpp:77] Creating layer relu3
I0428 20:38:01.416730  5067 net.cpp:86] Creating Layer relu3
I0428 20:38:01.416733  5067 net.cpp:408] relu3 <- ip3
I0428 20:38:01.416751  5067 net.cpp:369] relu3 -> ip3 (in-place)
I0428 20:38:01.416904  5067 net.cpp:124] Setting up relu3
I0428 20:38:01.416914  5067 net.cpp:131] Top shape: 64 10 (640)
I0428 20:38:01.416918  5067 net.cpp:139] Memory required for data: 20704000
I0428 20:38:01.416921  5067 layer_factory.hpp:77] Creating layer loss
I0428 20:38:01.416927  5067 net.cpp:86] Creating Layer loss
I0428 20:38:01.416930  5067 net.cpp:408] loss <- ip3
I0428 20:38:01.416934  5067 net.cpp:408] loss <- label
I0428 20:38:01.416942  5067 net.cpp:382] loss -> loss
I0428 20:38:01.416960  5067 layer_factory.hpp:77] Creating layer loss
…
I0428 20:38:01.417610  5067 solver.cpp:173] Creating test net (#0) specified by net file: ECE595/mnist/train_test/var_everything2/lenet_train_test1659.prototxt
I0428 20:38:01.417637  5067 net.cpp:296] The NetState phase (1) differed from the phase (0) specified by a rule in layer mnist
I0428 20:38:01.417731  5067 net.cpp:53] Initializing net from parameters: 
name: "LeNet"
state {
  phase: TEST
}
layer {
  name: "mnist"
  type: "Data"
  top: "data"
  top: "label"
  include {
    phase: TEST
  }
  transform_param {
    scale: 0.00390625
  }
  data_param {
    source: "examples/mnist/mnist_test_lmdb"
    batch_size: 100
    backend: LMDB
  }
}
layer {
  name: "conv0"
  type: "Convolution"
  bottom: "data"
  top: "conv0"
  param {
    lr_mult: 1
  }
  param {
    lr_mult: 2
  }
  convolution_param {
    num_output: 100
    kernel_size: 5
    stride: 1
    weight_filler {
      type: "xavier"
    }
    bias_filler {
      type: "constant"
    }
  }
}
layer {
  name: "pool0"
  type: "Pooling"
  bottom: "conv0"
  top: "pool0"
  pooling_param {
    pool: MAX
    kernel_size: 2
    stride: 2
  }
}
layer {
  name: "conv1"
  type: "Convolution"
  bottom: "pool0"
  top: "conv1"
  param {
    lr_mult: 1
  }
  param {
    lr_mult: 2
  }
  convolution_param {
    num_output: 100
    kernel_size: 5
    stride: 1
    weight_filler {
      type: "xavier"
    }
    bias_filler {
      type: "constant"
    }
  }
}
layer {
  name: "pool1"
  type: "Pooling"
  bottom: "conv1"
  top: "pool1"
  pooling_param {
    pool: MAX
    kernel_size: 2
    stride: 2
  }
}
layer {
  name: "ip1"
  type: "InnerProduct"
  bottom: "pool1"
  top: "ip1"
  param {
    lr_mult: 1
  }
  param {
    lr_mult: 2
  }
  inner_product_param {
    num_output: 25
    weight_filler {
      type: "xavier"
    }
    bias_filler {
      type: "constant"
    }
  }
}
layer {
  name: "relu1"
  type: "ReLU"
  bottom: "ip1"
  top: "ip1"
}
layer {
  name: "ip2"
  type: "InnerProduct"
  bottom: "ip1"
  top: "ip2"
  param {
    lr_mult: 1
  }
  param {
    lr_mult: 2
  }
  inner_product_param {
    num_output: 10
    weight_filler {
      type: "xavier"
    }
    bias_filler {
      type: "constant"
    }
  }
}
layer {
  name: "relu2"
  type: "ReLU"
  bottom: "ip2"
  top: "ip2"
}
layer {
  name: "ip3"
  type: "InnerProduct"
  bottom: "ip2"
  top: "ip3"
  param {
    lr_mult: 1
  }
  param {
    lr_mult: 2
  }
  inner_product_param {
    num_output: 10
    weight_filler {
      type: "xavier"
    }
    bias_filler {
      type: "constant"
    }
  }
}
layer {
  name: "relu3"
  type: "ReLU"
  bottom: "ip3"
  top: "ip3"
}
layer {
  name: "accuracy"
  type: "Accuracy"
  bottom: "ip3"
  bottom: "label"
  top: "accuracy"
  include {
    phase: TEST
  }
}
layer {
  name: "loss"
  type: "SoftmaxWithLoss"
  bottom: "ip3"
  bottom: "label"
  top: "loss"
}
I0428 20:38:01.417814  5067 layer_factory.hpp:77] Creating layer mnist
I0428 20:38:01.417858  5067 db_lmdb.cpp:35] Opened lmdb examples/mnist/mnist_test_lmdb
I0428 20:38:01.417870  5067 net.cpp:86] Creating Layer mnist
I0428 20:38:01.417876  5067 net.cpp:382] mnist -> data
I0428 20:38:01.417883  5067 net.cpp:382] mnist -> label
I0428 20:38:01.417966  5067 data_layer.cpp:45] output data size: 100,1,28,28
I0428 20:38:01.419967  5067 net.cpp:124] Setting up mnist
I0428 20:38:01.419981  5067 net.cpp:131] Top shape: 100 1 28 28 (78400)
I0428 20:38:01.419986  5067 net.cpp:131] Top shape: 100 (100)
I0428 20:38:01.419988  5067 net.cpp:139] Memory required for data: 314000
I0428 20:38:01.419991  5067 layer_factory.hpp:77] Creating layer label_mnist_1_split
I0428 20:38:01.420003  5067 net.cpp:86] Creating Layer label_mnist_1_split
I0428 20:38:01.420006  5067 net.cpp:408] label_mnist_1_split <- label
I0428 20:38:01.420011  5067 net.cpp:382] label_mnist_1_split -> label_mnist_1_split_0
I0428 20:38:01.420017  5067 net.cpp:382] label_mnist_1_split -> label_mnist_1_split_1
I0428 20:38:01.420120  5067 net.cpp:124] Setting up label_mnist_1_split
I0428 20:38:01.420127  5067 net.cpp:131] Top shape: 100 (100)
I0428 20:38:01.420131  5067 net.cpp:131] Top shape: 100 (100)
I0428 20:38:01.420133  5067 net.cpp:139] Memory required for data: 314800
I0428 20:38:01.420136  5067 layer_factory.hpp:77] Creating layer conv0
I0428 20:38:01.420145  5067 net.cpp:86] Creating Layer conv0
I0428 20:38:01.420150  5067 net.cpp:408] conv0 <- data
I0428 20:38:01.420156  5067 net.cpp:382] conv0 -> conv0
I0428 20:38:01.421927  5067 net.cpp:124] Setting up conv0
I0428 20:38:01.421941  5067 net.cpp:131] Top shape: 100 100 24 24 (5760000)
I0428 20:38:01.421944  5067 net.cpp:139] Memory required for data: 23354800
I0428 20:38:01.421954  5067 layer_factory.hpp:77] Creating layer pool0
I0428 20:38:01.421962  5067 net.cpp:86] Creating Layer pool0
I0428 20:38:01.421964  5067 net.cpp:408] pool0 <- conv0
I0428 20:38:01.421969  5067 net.cpp:382] pool0 -> pool0
I0428 20:38:01.422006  5067 net.cpp:124] Setting up pool0
I0428 20:38:01.422011  5067 net.cpp:131] Top shape: 100 100 12 12 (1440000)
I0428 20:38:01.422014  5067 net.cpp:139] Memory required for data: 29114800
I0428 20:38:01.422018  5067 layer_factory.hpp:77] Creating layer conv1
I0428 20:38:01.422026  5067 net.cpp:86] Creating Layer conv1
I0428 20:38:01.422029  5067 net.cpp:408] conv1 <- pool0
I0428 20:38:01.422035  5067 net.cpp:382] conv1 -> conv1
I0428 20:38:01.424969  5067 net.cpp:124] Setting up conv1
I0428 20:38:01.424983  5067 net.cpp:131] Top shape: 100 100 8 8 (640000)
I0428 20:38:01.424988  5067 net.cpp:139] Memory required for data: 31674800
I0428 20:38:01.424995  5067 layer_factory.hpp:77] Creating layer pool1
I0428 20:38:01.425002  5067 net.cpp:86] Creating Layer pool1
I0428 20:38:01.425005  5067 net.cpp:408] pool1 <- conv1
I0428 20:38:01.425012  5067 net.cpp:382] pool1 -> pool1
I0428 20:38:01.425050  5067 net.cpp:124] Setting up pool1
I0428 20:38:01.425057  5067 net.cpp:131] Top shape: 100 100 4 4 (160000)
I0428 20:38:01.425060  5067 net.cpp:139] Memory required for data: 32314800
I0428 20:38:01.425063  5067 layer_factory.hpp:77] Creating layer ip1
I0428 20:38:01.425070  5067 net.cpp:86] Creating Layer ip1
I0428 20:38:01.425073  5067 net.cpp:408] ip1 <- pool1
I0428 20:38:01.425079  5067 net.cpp:382] ip1 -> ip1
I0428 20:38:01.425434  5067 net.cpp:124] Setting up ip1
I0428 20:38:01.425452  5067 net.cpp:131] Top shape: 100 25 (2500)
I0428 20:38:01.425456  5067 net.cpp:139] Memory required for data: 32324800
I0428 20:38:01.425462  5067 layer_factory.hpp:77] Creating layer relu1
I0428 20:38:01.425469  5067 net.cpp:86] Creating Layer relu1
I0428 20:38:01.425473  5067 net.cpp:408] relu1 <- ip1
I0428 20:38:01.425478  5067 net.cpp:369] relu1 -> ip1 (in-place)
I0428 20:38:01.425635  5067 net.cpp:124] Setting up relu1
I0428 20:38:01.425643  5067 net.cpp:131] Top shape: 100 25 (2500)
I0428 20:38:01.425647  5067 net.cpp:139] Memory required for data: 32334800
I0428 20:38:01.425650  5067 layer_factory.hpp:77] Creating layer ip2
I0428 20:38:01.425658  5067 net.cpp:86] Creating Layer ip2
I0428 20:38:01.425662  5067 net.cpp:408] ip2 <- ip1
I0428 20:38:01.425665  5067 net.cpp:382] ip2 -> ip2
I0428 20:38:01.425763  5067 net.cpp:124] Setting up ip2
I0428 20:38:01.425771  5067 net.cpp:131] Top shape: 100 10 (1000)
I0428 20:38:01.425775  5067 net.cpp:139] Memory required for data: 32338800
I0428 20:38:01.425779  5067 layer_factory.hpp:77] Creating layer relu2
I0428 20:38:01.425784  5067 net.cpp:86] Creating Layer relu2
I0428 20:38:01.425787  5067 net.cpp:408] relu2 <- ip2
I0428 20:38:01.425793  5067 net.cpp:369] relu2 -> ip2 (in-place)
I0428 20:38:01.426008  5067 net.cpp:124] Setting up relu2
I0428 20:38:01.426017  5067 net.cpp:131] Top shape: 100 10 (1000)
I0428 20:38:01.426020  5067 net.cpp:139] Memory required for data: 32342800
I0428 20:38:01.426023  5067 layer_factory.hpp:77] Creating layer ip3
I0428 20:38:01.426029  5067 net.cpp:86] Creating Layer ip3
I0428 20:38:01.426033  5067 net.cpp:408] ip3 <- ip2
I0428 20:38:01.426038  5067 net.cpp:382] ip3 -> ip3
I0428 20:38:01.426154  5067 net.cpp:124] Setting up ip3
I0428 20:38:01.426162  5067 net.cpp:131] Top shape: 100 10 (1000)
I0428 20:38:01.426165  5067 net.cpp:139] Memory required for data: 32346800
I0428 20:38:01.426172  5067 layer_factory.hpp:77] Creating layer relu3
I0428 20:38:01.426178  5067 net.cpp:86] Creating Layer relu3
I0428 20:38:01.426182  5067 net.cpp:408] relu3 <- ip3
I0428 20:38:01.426185  5067 net.cpp:369] relu3 -> ip3 (in-place)
I0428 20:38:01.426990  5067 net.cpp:124] Setting up relu3
I0428 20:38:01.427004  5067 net.cpp:131] Top shape: 100 10 (1000)
I0428 20:38:01.427008  5067 net.cpp:139] Memory required for data: 32350800
I0428 20:38:01.427011  5067 layer_factory.hpp:77] Creating layer ip3_relu3_0_split
I0428 20:38:01.427023  5067 net.cpp:86] Creating Layer ip3_relu3_0_split
I0428 20:38:01.427026  5067 net.cpp:408] ip3_relu3_0_split <- ip3
I0428 20:38:01.427031  5067 net.cpp:382] ip3_relu3_0_split -> ip3_relu3_0_split_0
I0428 20:38:01.427038  5067 net.cpp:382] ip3_relu3_0_split -> ip3_relu3_0_split_1
I0428 20:38:01.427076  5067 net.cpp:124] Setting up ip3_relu3_0_split
I0428 20:38:01.427083  5067 net.cpp:131] Top shape: 100 10 (1000)
I0428 20:38:01.427088  5067 net.cpp:131] Top shape: 100 10 (1000)
I0428 20:38:01.427090  5067 net.cpp:139] Memory required for data: 32358800
I0428 20:38:01.427093  5067 layer_factory.hpp:77] Creating layer accuracy
I0428 20:38:01.427098  5067 net.cpp:86] Creating Layer accuracy
I0428 20:38:01.427101  5067 net.cpp:408] accuracy <- ip3_relu3_0_split_0
I0428 20:38:01.427105  5067 net.cpp:408] accuracy <- label_mnist_1_split_0
I0428 20:38:01.427117  5067 net.cpp:382] accuracy -> accuracy
…
