…
I0428 20:05:16.734736 30575 net.cpp:296] The NetState phase (0) differed from the phase (1) specified by a rule in layer mnist
I0428 20:05:16.734766 30575 net.cpp:296] The NetState phase (0) differed from the phase (1) specified by a rule in layer accuracy
I0428 20:05:16.734864 30575 net.cpp:53] Initializing net from parameters: 
name: "LeNet"
state {
  phase: TRAIN
  level: 0
  stage: ""
}
layer {
  name: "mnist"
  type: "Data"
  top: "data"
  top: "label"
  include {
    phase: TRAIN
  }
  transform_param {
    scale: 0.00390625
  }
  data_param {
    source: "examples/mnist/mnist_train_lmdb"
    batch_size: 64
    backend: LMDB
  }
}
layer {
  name: "conv0"
  type: "Convolution"
  bottom: "data"
  top: "conv0"
  param {
    lr_mult: 1
  }
  param {
    lr_mult: 2
  }
  convolution_param {
    num_output: 25
    kernel_size: 5
    stride: 1
    weight_filler {
      type: "xavier"
    }
    bias_filler {
      type: "constant"
    }
  }
}
layer {
  name: "pool0"
  type: "Pooling"
  bottom: "conv0"
  top: "pool0"
  pooling_param {
    pool: MAX
    kernel_size: 2
    stride: 2
  }
}
layer {
  name: "conv1"
  type: "Convolution"
  bottom: "pool0"
  top: "conv1"
  param {
    lr_mult: 1
  }
  param {
    lr_mult: 2
  }
  convolution_param {
    num_output: 2
    kernel_size: 5
    stride: 1
    weight_filler {
      type: "xavier"
    }
    bias_filler {
      type: "constant"
    }
  }
}
layer {
  name: "pool1"
  type: "Pooling"
  bottom: "conv1"
  top: "pool1"
  pooling_param {
    pool: MAX
    kernel_size: 2
    stride: 2
  }
}
layer {
  name: "ip1"
  type: "InnerProduct"
  bottom: "pool1"
  top: "ip1"
  param {
    lr_mult: 1
  }
  param {
    lr_mult: 2
  }
  inner_product_param {
    num_output: 10
    weight_filler {
      type: "xavier"
    }
    bias_filler {
      type: "constant"
    }
  }
}
layer {
  name: "relu1"
  type: "ReLU"
  bottom: "ip1"
  top: "ip1"
}
layer {
  name: "ip2"
  type: "InnerProduct"
  bottom: "ip1"
  top: "ip2"
  param {
    lr_mult: 1
  }
  param {
    lr_mult: 2
  }
  inner_product_param {
    num_output: 50
    weight_filler {
      type: "xavier"
    }
    bias_filler {
      type: "constant"
    }
  }
}
layer {
  name: "relu2"
  type: "ReLU"
  bottom: "ip2"
  top: "ip2"
}
layer {
  name: "ip3"
  type: "InnerProduct"
  bottom: "ip2"
  top: "ip3"
  param {
    lr_mult: 1
  }
  param {
    lr_mult: 2
  }
  inner_product_param {
    num_output: 10
    weight_filler {
      type: "xavier"
    }
    bias_filler {
      type: "constant"
    }
  }
}
layer {
  name: "relu3"
  type: "ReLU"
  bottom: "ip3"
  top: "ip3"
}
layer {
  name: "loss"
  type: "SoftmaxWithLoss"
  bottom: "ip3"
  bottom: "label"
  top: "loss"
}
I0428 20:05:16.734932 30575 layer_factory.hpp:77] Creating layer mnist
I0428 20:05:16.735044 30575 db_lmdb.cpp:35] Opened lmdb examples/mnist/mnist_train_lmdb
I0428 20:05:16.735066 30575 net.cpp:86] Creating Layer mnist
I0428 20:05:16.735072 30575 net.cpp:382] mnist -> data
I0428 20:05:16.735090 30575 net.cpp:382] mnist -> label
I0428 20:05:16.736138 30575 data_layer.cpp:45] output data size: 64,1,28,28
I0428 20:05:16.738409 30575 net.cpp:124] Setting up mnist
I0428 20:05:16.738438 30575 net.cpp:131] Top shape: 64 1 28 28 (50176)
I0428 20:05:16.738445 30575 net.cpp:131] Top shape: 64 (64)
I0428 20:05:16.738447 30575 net.cpp:139] Memory required for data: 200960
I0428 20:05:16.738452 30575 layer_factory.hpp:77] Creating layer conv0
I0428 20:05:16.738466 30575 net.cpp:86] Creating Layer conv0
I0428 20:05:16.738481 30575 net.cpp:408] conv0 <- data
I0428 20:05:16.738492 30575 net.cpp:382] conv0 -> conv0
I0428 20:05:16.966599 30575 net.cpp:124] Setting up conv0
I0428 20:05:16.966625 30575 net.cpp:131] Top shape: 64 25 24 24 (921600)
I0428 20:05:16.966629 30575 net.cpp:139] Memory required for data: 3887360
I0428 20:05:16.966644 30575 layer_factory.hpp:77] Creating layer pool0
I0428 20:05:16.966655 30575 net.cpp:86] Creating Layer pool0
I0428 20:05:16.966660 30575 net.cpp:408] pool0 <- conv0
I0428 20:05:16.966665 30575 net.cpp:382] pool0 -> pool0
I0428 20:05:16.966720 30575 net.cpp:124] Setting up pool0
I0428 20:05:16.966725 30575 net.cpp:131] Top shape: 64 25 12 12 (230400)
I0428 20:05:16.966728 30575 net.cpp:139] Memory required for data: 4808960
I0428 20:05:16.966732 30575 layer_factory.hpp:77] Creating layer conv1
I0428 20:05:16.966742 30575 net.cpp:86] Creating Layer conv1
I0428 20:05:16.966745 30575 net.cpp:408] conv1 <- pool0
I0428 20:05:16.966749 30575 net.cpp:382] conv1 -> conv1
I0428 20:05:16.969607 30575 net.cpp:124] Setting up conv1
I0428 20:05:16.969635 30575 net.cpp:131] Top shape: 64 2 8 8 (8192)
I0428 20:05:16.969655 30575 net.cpp:139] Memory required for data: 4841728
I0428 20:05:16.969662 30575 layer_factory.hpp:77] Creating layer pool1
I0428 20:05:16.969669 30575 net.cpp:86] Creating Layer pool1
I0428 20:05:16.969673 30575 net.cpp:408] pool1 <- conv1
I0428 20:05:16.969677 30575 net.cpp:382] pool1 -> pool1
I0428 20:05:16.969727 30575 net.cpp:124] Setting up pool1
I0428 20:05:16.969732 30575 net.cpp:131] Top shape: 64 2 4 4 (2048)
I0428 20:05:16.969734 30575 net.cpp:139] Memory required for data: 4849920
I0428 20:05:16.969738 30575 layer_factory.hpp:77] Creating layer ip1
I0428 20:05:16.969755 30575 net.cpp:86] Creating Layer ip1
I0428 20:05:16.969758 30575 net.cpp:408] ip1 <- pool1
I0428 20:05:16.969763 30575 net.cpp:382] ip1 -> ip1
I0428 20:05:16.969849 30575 net.cpp:124] Setting up ip1
I0428 20:05:16.969856 30575 net.cpp:131] Top shape: 64 10 (640)
I0428 20:05:16.969859 30575 net.cpp:139] Memory required for data: 4852480
I0428 20:05:16.969866 30575 layer_factory.hpp:77] Creating layer relu1
I0428 20:05:16.969871 30575 net.cpp:86] Creating Layer relu1
I0428 20:05:16.969874 30575 net.cpp:408] relu1 <- ip1
I0428 20:05:16.969878 30575 net.cpp:369] relu1 -> ip1 (in-place)
I0428 20:05:16.970042 30575 net.cpp:124] Setting up relu1
I0428 20:05:16.970051 30575 net.cpp:131] Top shape: 64 10 (640)
I0428 20:05:16.970053 30575 net.cpp:139] Memory required for data: 4855040
I0428 20:05:16.970057 30575 layer_factory.hpp:77] Creating layer ip2
I0428 20:05:16.970062 30575 net.cpp:86] Creating Layer ip2
I0428 20:05:16.970065 30575 net.cpp:408] ip2 <- ip1
I0428 20:05:16.970069 30575 net.cpp:382] ip2 -> ip2
I0428 20:05:16.970160 30575 net.cpp:124] Setting up ip2
I0428 20:05:16.970165 30575 net.cpp:131] Top shape: 64 50 (3200)
I0428 20:05:16.970168 30575 net.cpp:139] Memory required for data: 4867840
I0428 20:05:16.970173 30575 layer_factory.hpp:77] Creating layer relu2
I0428 20:05:16.970180 30575 net.cpp:86] Creating Layer relu2
I0428 20:05:16.970181 30575 net.cpp:408] relu2 <- ip2
I0428 20:05:16.970185 30575 net.cpp:369] relu2 -> ip2 (in-place)
I0428 20:05:16.970886 30575 net.cpp:124] Setting up relu2
I0428 20:05:16.970898 30575 net.cpp:131] Top shape: 64 50 (3200)
I0428 20:05:16.970916 30575 net.cpp:139] Memory required for data: 4880640
I0428 20:05:16.970919 30575 layer_factory.hpp:77] Creating layer ip3
I0428 20:05:16.970927 30575 net.cpp:86] Creating Layer ip3
I0428 20:05:16.970929 30575 net.cpp:408] ip3 <- ip2
I0428 20:05:16.970934 30575 net.cpp:382] ip3 -> ip3
I0428 20:05:16.971043 30575 net.cpp:124] Setting up ip3
I0428 20:05:16.971050 30575 net.cpp:131] Top shape: 64 10 (640)
I0428 20:05:16.971053 30575 net.cpp:139] Memory required for data: 4883200
I0428 20:05:16.971060 30575 layer_factory.hpp:77] Creating layer relu3
I0428 20:05:16.971065 30575 net.cpp:86] Creating Layer relu3
I0428 20:05:16.971068 30575 net.cpp:408] relu3 <- ip3
I0428 20:05:16.971072 30575 net.cpp:369] relu3 -> ip3 (in-place)
I0428 20:05:16.971246 30575 net.cpp:124] Setting up relu3
I0428 20:05:16.971254 30575 net.cpp:131] Top shape: 64 10 (640)
I0428 20:05:16.971257 30575 net.cpp:139] Memory required for data: 4885760
I0428 20:05:16.971261 30575 layer_factory.hpp:77] Creating layer loss
I0428 20:05:16.971266 30575 net.cpp:86] Creating Layer loss
I0428 20:05:16.971269 30575 net.cpp:408] loss <- ip3
I0428 20:05:16.971272 30575 net.cpp:408] loss <- label
I0428 20:05:16.971278 30575 net.cpp:382] loss -> loss
I0428 20:05:16.971295 30575 layer_factory.hpp:77] Creating layer loss
…
I0428 20:05:16.971976 30575 solver.cpp:173] Creating test net (#0) specified by net file: ECE595/mnist/train_test/var_everything2/lenet_train_test995.prototxt
I0428 20:05:16.972003 30575 net.cpp:296] The NetState phase (1) differed from the phase (0) specified by a rule in layer mnist
I0428 20:05:16.972095 30575 net.cpp:53] Initializing net from parameters: 
name: "LeNet"
state {
  phase: TEST
}
layer {
  name: "mnist"
  type: "Data"
  top: "data"
  top: "label"
  include {
    phase: TEST
  }
  transform_param {
    scale: 0.00390625
  }
  data_param {
    source: "examples/mnist/mnist_test_lmdb"
    batch_size: 100
    backend: LMDB
  }
}
layer {
  name: "conv0"
  type: "Convolution"
  bottom: "data"
  top: "conv0"
  param {
    lr_mult: 1
  }
  param {
    lr_mult: 2
  }
  convolution_param {
    num_output: 25
    kernel_size: 5
    stride: 1
    weight_filler {
      type: "xavier"
    }
    bias_filler {
      type: "constant"
    }
  }
}
layer {
  name: "pool0"
  type: "Pooling"
  bottom: "conv0"
  top: "pool0"
  pooling_param {
    pool: MAX
    kernel_size: 2
    stride: 2
  }
}
layer {
  name: "conv1"
  type: "Convolution"
  bottom: "pool0"
  top: "conv1"
  param {
    lr_mult: 1
  }
  param {
    lr_mult: 2
  }
  convolution_param {
    num_output: 2
    kernel_size: 5
    stride: 1
    weight_filler {
      type: "xavier"
    }
    bias_filler {
      type: "constant"
    }
  }
}
layer {
  name: "pool1"
  type: "Pooling"
  bottom: "conv1"
  top: "pool1"
  pooling_param {
    pool: MAX
    kernel_size: 2
    stride: 2
  }
}
layer {
  name: "ip1"
  type: "InnerProduct"
  bottom: "pool1"
  top: "ip1"
  param {
    lr_mult: 1
  }
  param {
    lr_mult: 2
  }
  inner_product_param {
    num_output: 10
    weight_filler {
      type: "xavier"
    }
    bias_filler {
      type: "constant"
    }
  }
}
layer {
  name: "relu1"
  type: "ReLU"
  bottom: "ip1"
  top: "ip1"
}
layer {
  name: "ip2"
  type: "InnerProduct"
  bottom: "ip1"
  top: "ip2"
  param {
    lr_mult: 1
  }
  param {
    lr_mult: 2
  }
  inner_product_param {
    num_output: 50
    weight_filler {
      type: "xavier"
    }
    bias_filler {
      type: "constant"
    }
  }
}
layer {
  name: "relu2"
  type: "ReLU"
  bottom: "ip2"
  top: "ip2"
}
layer {
  name: "ip3"
  type: "InnerProduct"
  bottom: "ip2"
  top: "ip3"
  param {
    lr_mult: 1
  }
  param {
    lr_mult: 2
  }
  inner_product_param {
    num_output: 10
    weight_filler {
      type: "xavier"
    }
    bias_filler {
      type: "constant"
    }
  }
}
layer {
  name: "relu3"
  type: "ReLU"
  bottom: "ip3"
  top: "ip3"
}
layer {
  name: "accuracy"
  type: "Accuracy"
  bottom: "ip3"
  bottom: "label"
  top: "accuracy"
  include {
    phase: TEST
  }
}
layer {
  name: "loss"
  type: "SoftmaxWithLoss"
  bottom: "ip3"
  bottom: "label"
  top: "loss"
}
I0428 20:05:16.972184 30575 layer_factory.hpp:77] Creating layer mnist
I0428 20:05:16.972228 30575 db_lmdb.cpp:35] Opened lmdb examples/mnist/mnist_test_lmdb
I0428 20:05:16.972239 30575 net.cpp:86] Creating Layer mnist
I0428 20:05:16.972244 30575 net.cpp:382] mnist -> data
I0428 20:05:16.972251 30575 net.cpp:382] mnist -> label
I0428 20:05:16.972329 30575 data_layer.cpp:45] output data size: 100,1,28,28
I0428 20:05:16.974333 30575 net.cpp:124] Setting up mnist
I0428 20:05:16.974345 30575 net.cpp:131] Top shape: 100 1 28 28 (78400)
I0428 20:05:16.974350 30575 net.cpp:131] Top shape: 100 (100)
I0428 20:05:16.974354 30575 net.cpp:139] Memory required for data: 314000
I0428 20:05:16.974357 30575 layer_factory.hpp:77] Creating layer label_mnist_1_split
I0428 20:05:16.974386 30575 net.cpp:86] Creating Layer label_mnist_1_split
I0428 20:05:16.974390 30575 net.cpp:408] label_mnist_1_split <- label
I0428 20:05:16.974395 30575 net.cpp:382] label_mnist_1_split -> label_mnist_1_split_0
I0428 20:05:16.974401 30575 net.cpp:382] label_mnist_1_split -> label_mnist_1_split_1
I0428 20:05:16.974496 30575 net.cpp:124] Setting up label_mnist_1_split
I0428 20:05:16.974503 30575 net.cpp:131] Top shape: 100 (100)
I0428 20:05:16.974509 30575 net.cpp:131] Top shape: 100 (100)
I0428 20:05:16.974510 30575 net.cpp:139] Memory required for data: 314800
I0428 20:05:16.974514 30575 layer_factory.hpp:77] Creating layer conv0
I0428 20:05:16.974521 30575 net.cpp:86] Creating Layer conv0
I0428 20:05:16.974524 30575 net.cpp:408] conv0 <- data
I0428 20:05:16.974529 30575 net.cpp:382] conv0 -> conv0
I0428 20:05:16.976218 30575 net.cpp:124] Setting up conv0
I0428 20:05:16.976233 30575 net.cpp:131] Top shape: 100 25 24 24 (1440000)
I0428 20:05:16.976235 30575 net.cpp:139] Memory required for data: 6074800
I0428 20:05:16.976243 30575 layer_factory.hpp:77] Creating layer pool0
I0428 20:05:16.976249 30575 net.cpp:86] Creating Layer pool0
I0428 20:05:16.976269 30575 net.cpp:408] pool0 <- conv0
I0428 20:05:16.976274 30575 net.cpp:382] pool0 -> pool0
I0428 20:05:16.976306 30575 net.cpp:124] Setting up pool0
I0428 20:05:16.976311 30575 net.cpp:131] Top shape: 100 25 12 12 (360000)
I0428 20:05:16.976313 30575 net.cpp:139] Memory required for data: 7514800
I0428 20:05:16.976316 30575 layer_factory.hpp:77] Creating layer conv1
I0428 20:05:16.976325 30575 net.cpp:86] Creating Layer conv1
I0428 20:05:16.976327 30575 net.cpp:408] conv1 <- pool0
I0428 20:05:16.976332 30575 net.cpp:382] conv1 -> conv1
I0428 20:05:16.978462 30575 net.cpp:124] Setting up conv1
I0428 20:05:16.978490 30575 net.cpp:131] Top shape: 100 2 8 8 (12800)
I0428 20:05:16.978494 30575 net.cpp:139] Memory required for data: 7566000
I0428 20:05:16.978502 30575 layer_factory.hpp:77] Creating layer pool1
I0428 20:05:16.978507 30575 net.cpp:86] Creating Layer pool1
I0428 20:05:16.978526 30575 net.cpp:408] pool1 <- conv1
I0428 20:05:16.978533 30575 net.cpp:382] pool1 -> pool1
I0428 20:05:16.978567 30575 net.cpp:124] Setting up pool1
I0428 20:05:16.978588 30575 net.cpp:131] Top shape: 100 2 4 4 (3200)
I0428 20:05:16.978591 30575 net.cpp:139] Memory required for data: 7578800
I0428 20:05:16.978593 30575 layer_factory.hpp:77] Creating layer ip1
I0428 20:05:16.978600 30575 net.cpp:86] Creating Layer ip1
I0428 20:05:16.978616 30575 net.cpp:408] ip1 <- pool1
I0428 20:05:16.978621 30575 net.cpp:382] ip1 -> ip1
I0428 20:05:16.978706 30575 net.cpp:124] Setting up ip1
I0428 20:05:16.978714 30575 net.cpp:131] Top shape: 100 10 (1000)
I0428 20:05:16.978726 30575 net.cpp:139] Memory required for data: 7582800
I0428 20:05:16.978734 30575 layer_factory.hpp:77] Creating layer relu1
I0428 20:05:16.978739 30575 net.cpp:86] Creating Layer relu1
I0428 20:05:16.978741 30575 net.cpp:408] relu1 <- ip1
I0428 20:05:16.978746 30575 net.cpp:369] relu1 -> ip1 (in-place)
I0428 20:05:16.978941 30575 net.cpp:124] Setting up relu1
I0428 20:05:16.978950 30575 net.cpp:131] Top shape: 100 10 (1000)
I0428 20:05:16.978953 30575 net.cpp:139] Memory required for data: 7586800
I0428 20:05:16.978956 30575 layer_factory.hpp:77] Creating layer ip2
I0428 20:05:16.978962 30575 net.cpp:86] Creating Layer ip2
I0428 20:05:16.978965 30575 net.cpp:408] ip2 <- ip1
I0428 20:05:16.978971 30575 net.cpp:382] ip2 -> ip2
I0428 20:05:16.979077 30575 net.cpp:124] Setting up ip2
I0428 20:05:16.979084 30575 net.cpp:131] Top shape: 100 50 (5000)
I0428 20:05:16.979087 30575 net.cpp:139] Memory required for data: 7606800
I0428 20:05:16.979092 30575 layer_factory.hpp:77] Creating layer relu2
I0428 20:05:16.979096 30575 net.cpp:86] Creating Layer relu2
I0428 20:05:16.979099 30575 net.cpp:408] relu2 <- ip2
I0428 20:05:16.979104 30575 net.cpp:369] relu2 -> ip2 (in-place)
I0428 20:05:16.979321 30575 net.cpp:124] Setting up relu2
I0428 20:05:16.979328 30575 net.cpp:131] Top shape: 100 50 (5000)
I0428 20:05:16.979332 30575 net.cpp:139] Memory required for data: 7626800
I0428 20:05:16.979336 30575 layer_factory.hpp:77] Creating layer ip3
I0428 20:05:16.979341 30575 net.cpp:86] Creating Layer ip3
I0428 20:05:16.979344 30575 net.cpp:408] ip3 <- ip2
I0428 20:05:16.979348 30575 net.cpp:382] ip3 -> ip3
I0428 20:05:16.979447 30575 net.cpp:124] Setting up ip3
I0428 20:05:16.979454 30575 net.cpp:131] Top shape: 100 10 (1000)
I0428 20:05:16.979457 30575 net.cpp:139] Memory required for data: 7630800
I0428 20:05:16.979465 30575 layer_factory.hpp:77] Creating layer relu3
I0428 20:05:16.979487 30575 net.cpp:86] Creating Layer relu3
I0428 20:05:16.979496 30575 net.cpp:408] relu3 <- ip3
I0428 20:05:16.979501 30575 net.cpp:369] relu3 -> ip3 (in-place)
I0428 20:05:16.980199 30575 net.cpp:124] Setting up relu3
I0428 20:05:16.980211 30575 net.cpp:131] Top shape: 100 10 (1000)
I0428 20:05:16.980213 30575 net.cpp:139] Memory required for data: 7634800
I0428 20:05:16.980216 30575 layer_factory.hpp:77] Creating layer ip3_relu3_0_split
I0428 20:05:16.980221 30575 net.cpp:86] Creating Layer ip3_relu3_0_split
I0428 20:05:16.980224 30575 net.cpp:408] ip3_relu3_0_split <- ip3
I0428 20:05:16.980229 30575 net.cpp:382] ip3_relu3_0_split -> ip3_relu3_0_split_0
I0428 20:05:16.980252 30575 net.cpp:382] ip3_relu3_0_split -> ip3_relu3_0_split_1
I0428 20:05:16.980305 30575 net.cpp:124] Setting up ip3_relu3_0_split
I0428 20:05:16.980311 30575 net.cpp:131] Top shape: 100 10 (1000)
I0428 20:05:16.980314 30575 net.cpp:131] Top shape: 100 10 (1000)
I0428 20:05:16.980317 30575 net.cpp:139] Memory required for data: 7642800
I0428 20:05:16.980320 30575 layer_factory.hpp:77] Creating layer accuracy
I0428 20:05:16.980325 30575 net.cpp:86] Creating Layer accuracy
I0428 20:05:16.980329 30575 net.cpp:408] accuracy <- ip3_relu3_0_split_0
I0428 20:05:16.980332 30575 net.cpp:408] accuracy <- label_mnist_1_split_0
I0428 20:05:16.980336 30575 net.cpp:382] accuracy -> accuracy
…
