…
I0428 19:59:19.588151 29210 net.cpp:296] The NetState phase (0) differed from the phase (1) specified by a rule in layer mnist
I0428 19:59:19.588201 29210 net.cpp:296] The NetState phase (0) differed from the phase (1) specified by a rule in layer accuracy
I0428 19:59:19.588287 29210 net.cpp:53] Initializing net from parameters: 
name: "LeNet"
state {
  phase: TRAIN
  level: 0
  stage: ""
}
layer {
  name: "mnist"
  type: "Data"
  top: "data"
  top: "label"
  include {
    phase: TRAIN
  }
  transform_param {
    scale: 0.00390625
  }
  data_param {
    source: "examples/mnist/mnist_train_lmdb"
    batch_size: 64
    backend: LMDB
  }
}
layer {
  name: "conv0"
  type: "Convolution"
  bottom: "data"
  top: "conv0"
  param {
    lr_mult: 1
  }
  param {
    lr_mult: 2
  }
  convolution_param {
    num_output: 10
    kernel_size: 5
    stride: 1
    weight_filler {
      type: "xavier"
    }
    bias_filler {
      type: "constant"
    }
  }
}
layer {
  name: "pool0"
  type: "Pooling"
  bottom: "conv0"
  top: "pool0"
  pooling_param {
    pool: MAX
    kernel_size: 2
    stride: 2
  }
}
layer {
  name: "conv1"
  type: "Convolution"
  bottom: "pool0"
  top: "conv1"
  param {
    lr_mult: 1
  }
  param {
    lr_mult: 2
  }
  convolution_param {
    num_output: 10
    kernel_size: 5
    stride: 1
    weight_filler {
      type: "xavier"
    }
    bias_filler {
      type: "constant"
    }
  }
}
layer {
  name: "pool1"
  type: "Pooling"
  bottom: "conv1"
  top: "pool1"
  pooling_param {
    pool: MAX
    kernel_size: 2
    stride: 2
  }
}
layer {
  name: "ip1"
  type: "InnerProduct"
  bottom: "pool1"
  top: "ip1"
  param {
    lr_mult: 1
  }
  param {
    lr_mult: 2
  }
  inner_product_param {
    num_output: 25
    weight_filler {
      type: "xavier"
    }
    bias_filler {
      type: "constant"
    }
  }
}
layer {
  name: "relu1"
  type: "ReLU"
  bottom: "ip1"
  top: "ip1"
}
layer {
  name: "ip2"
  type: "InnerProduct"
  bottom: "ip1"
  top: "ip2"
  param {
    lr_mult: 1
  }
  param {
    lr_mult: 2
  }
  inner_product_param {
    num_output: 25
    weight_filler {
      type: "xavier"
    }
    bias_filler {
      type: "constant"
    }
  }
}
layer {
  name: "relu2"
  type: "ReLU"
  bottom: "ip2"
  top: "ip2"
}
layer {
  name: "ip3"
  type: "InnerProduct"
  bottom: "ip2"
  top: "ip3"
  param {
    lr_mult: 1
  }
  param {
    lr_mult: 2
  }
  inner_product_param {
    num_output: 10
    weight_filler {
      type: "xavier"
    }
    bias_filler {
      type: "constant"
    }
  }
}
layer {
  name: "relu3"
  type: "ReLU"
  bottom: "ip3"
  top: "ip3"
}
layer {
  name: "loss"
  type: "SoftmaxWithLoss"
  bottom: "ip3"
  bottom: "label"
  top: "loss"
}
I0428 19:59:19.588354 29210 layer_factory.hpp:77] Creating layer mnist
I0428 19:59:19.588435 29210 db_lmdb.cpp:35] Opened lmdb examples/mnist/mnist_train_lmdb
I0428 19:59:19.588455 29210 net.cpp:86] Creating Layer mnist
I0428 19:59:19.588476 29210 net.cpp:382] mnist -> data
I0428 19:59:19.588510 29210 net.cpp:382] mnist -> label
I0428 19:59:19.589568 29210 data_layer.cpp:45] output data size: 64,1,28,28
I0428 19:59:19.591742 29210 net.cpp:124] Setting up mnist
I0428 19:59:19.591771 29210 net.cpp:131] Top shape: 64 1 28 28 (50176)
I0428 19:59:19.591787 29210 net.cpp:131] Top shape: 64 (64)
I0428 19:59:19.591790 29210 net.cpp:139] Memory required for data: 200960
I0428 19:59:19.591796 29210 layer_factory.hpp:77] Creating layer conv0
I0428 19:59:19.591809 29210 net.cpp:86] Creating Layer conv0
I0428 19:59:19.591827 29210 net.cpp:408] conv0 <- data
I0428 19:59:19.591840 29210 net.cpp:382] conv0 -> conv0
I0428 19:59:19.822677 29210 net.cpp:124] Setting up conv0
I0428 19:59:19.822718 29210 net.cpp:131] Top shape: 64 10 24 24 (368640)
I0428 19:59:19.822722 29210 net.cpp:139] Memory required for data: 1675520
I0428 19:59:19.822736 29210 layer_factory.hpp:77] Creating layer pool0
I0428 19:59:19.822749 29210 net.cpp:86] Creating Layer pool0
I0428 19:59:19.822752 29210 net.cpp:408] pool0 <- conv0
I0428 19:59:19.822773 29210 net.cpp:382] pool0 -> pool0
I0428 19:59:19.822818 29210 net.cpp:124] Setting up pool0
I0428 19:59:19.822824 29210 net.cpp:131] Top shape: 64 10 12 12 (92160)
I0428 19:59:19.822826 29210 net.cpp:139] Memory required for data: 2044160
I0428 19:59:19.822829 29210 layer_factory.hpp:77] Creating layer conv1
I0428 19:59:19.822839 29210 net.cpp:86] Creating Layer conv1
I0428 19:59:19.822842 29210 net.cpp:408] conv1 <- pool0
I0428 19:59:19.822846 29210 net.cpp:382] conv1 -> conv1
I0428 19:59:19.825672 29210 net.cpp:124] Setting up conv1
I0428 19:59:19.825686 29210 net.cpp:131] Top shape: 64 10 8 8 (40960)
I0428 19:59:19.825690 29210 net.cpp:139] Memory required for data: 2208000
I0428 19:59:19.825698 29210 layer_factory.hpp:77] Creating layer pool1
I0428 19:59:19.825705 29210 net.cpp:86] Creating Layer pool1
I0428 19:59:19.825723 29210 net.cpp:408] pool1 <- conv1
I0428 19:59:19.825728 29210 net.cpp:382] pool1 -> pool1
I0428 19:59:19.825780 29210 net.cpp:124] Setting up pool1
I0428 19:59:19.825793 29210 net.cpp:131] Top shape: 64 10 4 4 (10240)
I0428 19:59:19.825796 29210 net.cpp:139] Memory required for data: 2248960
I0428 19:59:19.825799 29210 layer_factory.hpp:77] Creating layer ip1
I0428 19:59:19.825809 29210 net.cpp:86] Creating Layer ip1
I0428 19:59:19.825812 29210 net.cpp:408] ip1 <- pool1
I0428 19:59:19.825817 29210 net.cpp:382] ip1 -> ip1
I0428 19:59:19.825939 29210 net.cpp:124] Setting up ip1
I0428 19:59:19.825947 29210 net.cpp:131] Top shape: 64 25 (1600)
I0428 19:59:19.825949 29210 net.cpp:139] Memory required for data: 2255360
I0428 19:59:19.825956 29210 layer_factory.hpp:77] Creating layer relu1
I0428 19:59:19.825961 29210 net.cpp:86] Creating Layer relu1
I0428 19:59:19.825964 29210 net.cpp:408] relu1 <- ip1
I0428 19:59:19.825969 29210 net.cpp:369] relu1 -> ip1 (in-place)
I0428 19:59:19.826150 29210 net.cpp:124] Setting up relu1
I0428 19:59:19.826159 29210 net.cpp:131] Top shape: 64 25 (1600)
I0428 19:59:19.826161 29210 net.cpp:139] Memory required for data: 2261760
I0428 19:59:19.826164 29210 layer_factory.hpp:77] Creating layer ip2
I0428 19:59:19.826174 29210 net.cpp:86] Creating Layer ip2
I0428 19:59:19.826177 29210 net.cpp:408] ip2 <- ip1
I0428 19:59:19.826181 29210 net.cpp:382] ip2 -> ip2
I0428 19:59:19.826277 29210 net.cpp:124] Setting up ip2
I0428 19:59:19.826283 29210 net.cpp:131] Top shape: 64 25 (1600)
I0428 19:59:19.826285 29210 net.cpp:139] Memory required for data: 2268160
I0428 19:59:19.826292 29210 layer_factory.hpp:77] Creating layer relu2
I0428 19:59:19.826297 29210 net.cpp:86] Creating Layer relu2
I0428 19:59:19.826299 29210 net.cpp:408] relu2 <- ip2
I0428 19:59:19.826304 29210 net.cpp:369] relu2 -> ip2 (in-place)
I0428 19:59:19.827081 29210 net.cpp:124] Setting up relu2
I0428 19:59:19.827095 29210 net.cpp:131] Top shape: 64 25 (1600)
I0428 19:59:19.827097 29210 net.cpp:139] Memory required for data: 2274560
I0428 19:59:19.827101 29210 layer_factory.hpp:77] Creating layer ip3
I0428 19:59:19.827108 29210 net.cpp:86] Creating Layer ip3
I0428 19:59:19.827111 29210 net.cpp:408] ip3 <- ip2
I0428 19:59:19.827116 29210 net.cpp:382] ip3 -> ip3
I0428 19:59:19.827217 29210 net.cpp:124] Setting up ip3
I0428 19:59:19.827224 29210 net.cpp:131] Top shape: 64 10 (640)
I0428 19:59:19.827227 29210 net.cpp:139] Memory required for data: 2277120
I0428 19:59:19.827234 29210 layer_factory.hpp:77] Creating layer relu3
I0428 19:59:19.827240 29210 net.cpp:86] Creating Layer relu3
I0428 19:59:19.827244 29210 net.cpp:408] relu3 <- ip3
I0428 19:59:19.827247 29210 net.cpp:369] relu3 -> ip3 (in-place)
I0428 19:59:19.827412 29210 net.cpp:124] Setting up relu3
I0428 19:59:19.827422 29210 net.cpp:131] Top shape: 64 10 (640)
I0428 19:59:19.827426 29210 net.cpp:139] Memory required for data: 2279680
I0428 19:59:19.827430 29210 layer_factory.hpp:77] Creating layer loss
I0428 19:59:19.827436 29210 net.cpp:86] Creating Layer loss
I0428 19:59:19.827440 29210 net.cpp:408] loss <- ip3
I0428 19:59:19.827443 29210 net.cpp:408] loss <- label
I0428 19:59:19.827450 29210 net.cpp:382] loss -> loss
I0428 19:59:19.827467 29210 layer_factory.hpp:77] Creating layer loss
…
I0428 19:59:19.828146 29210 solver.cpp:173] Creating test net (#0) specified by net file: ECE595/mnist/train_test/var_everything2/lenet_train_test844.prototxt
I0428 19:59:19.828178 29210 net.cpp:296] The NetState phase (1) differed from the phase (0) specified by a rule in layer mnist
I0428 19:59:19.828270 29210 net.cpp:53] Initializing net from parameters: 
name: "LeNet"
state {
  phase: TEST
}
layer {
  name: "mnist"
  type: "Data"
  top: "data"
  top: "label"
  include {
    phase: TEST
  }
  transform_param {
    scale: 0.00390625
  }
  data_param {
    source: "examples/mnist/mnist_test_lmdb"
    batch_size: 100
    backend: LMDB
  }
}
layer {
  name: "conv0"
  type: "Convolution"
  bottom: "data"
  top: "conv0"
  param {
    lr_mult: 1
  }
  param {
    lr_mult: 2
  }
  convolution_param {
    num_output: 10
    kernel_size: 5
    stride: 1
    weight_filler {
      type: "xavier"
    }
    bias_filler {
      type: "constant"
    }
  }
}
layer {
  name: "pool0"
  type: "Pooling"
  bottom: "conv0"
  top: "pool0"
  pooling_param {
    pool: MAX
    kernel_size: 2
    stride: 2
  }
}
layer {
  name: "conv1"
  type: "Convolution"
  bottom: "pool0"
  top: "conv1"
  param {
    lr_mult: 1
  }
  param {
    lr_mult: 2
  }
  convolution_param {
    num_output: 10
    kernel_size: 5
    stride: 1
    weight_filler {
      type: "xavier"
    }
    bias_filler {
      type: "constant"
    }
  }
}
layer {
  name: "pool1"
  type: "Pooling"
  bottom: "conv1"
  top: "pool1"
  pooling_param {
    pool: MAX
    kernel_size: 2
    stride: 2
  }
}
layer {
  name: "ip1"
  type: "InnerProduct"
  bottom: "pool1"
  top: "ip1"
  param {
    lr_mult: 1
  }
  param {
    lr_mult: 2
  }
  inner_product_param {
    num_output: 25
    weight_filler {
      type: "xavier"
    }
    bias_filler {
      type: "constant"
    }
  }
}
layer {
  name: "relu1"
  type: "ReLU"
  bottom: "ip1"
  top: "ip1"
}
layer {
  name: "ip2"
  type: "InnerProduct"
  bottom: "ip1"
  top: "ip2"
  param {
    lr_mult: 1
  }
  param {
    lr_mult: 2
  }
  inner_product_param {
    num_output: 25
    weight_filler {
      type: "xavier"
    }
    bias_filler {
      type: "constant"
    }
  }
}
layer {
  name: "relu2"
  type: "ReLU"
  bottom: "ip2"
  top: "ip2"
}
layer {
  name: "ip3"
  type: "InnerProduct"
  bottom: "ip2"
  top: "ip3"
  param {
    lr_mult: 1
  }
  param {
    lr_mult: 2
  }
  inner_product_param {
    num_output: 10
    weight_filler {
      type: "xavier"
    }
    bias_filler {
      type: "constant"
    }
  }
}
layer {
  name: "relu3"
  type: "ReLU"
  bottom: "ip3"
  top: "ip3"
}
layer {
  name: "accuracy"
  type: "Accuracy"
  bottom: "ip3"
  bottom: "label"
  top: "accuracy"
  include {
    phase: TEST
  }
}
layer {
  name: "loss"
  type: "SoftmaxWithLoss"
  bottom: "ip3"
  bottom: "label"
  top: "loss"
}
I0428 19:59:19.828366 29210 layer_factory.hpp:77] Creating layer mnist
I0428 19:59:19.828410 29210 db_lmdb.cpp:35] Opened lmdb examples/mnist/mnist_test_lmdb
I0428 19:59:19.828423 29210 net.cpp:86] Creating Layer mnist
I0428 19:59:19.828430 29210 net.cpp:382] mnist -> data
I0428 19:59:19.828438 29210 net.cpp:382] mnist -> label
I0428 19:59:19.828519 29210 data_layer.cpp:45] output data size: 100,1,28,28
I0428 19:59:19.830544 29210 net.cpp:124] Setting up mnist
I0428 19:59:19.830561 29210 net.cpp:131] Top shape: 100 1 28 28 (78400)
I0428 19:59:19.830567 29210 net.cpp:131] Top shape: 100 (100)
I0428 19:59:19.830569 29210 net.cpp:139] Memory required for data: 314000
I0428 19:59:19.830574 29210 layer_factory.hpp:77] Creating layer label_mnist_1_split
I0428 19:59:19.830579 29210 net.cpp:86] Creating Layer label_mnist_1_split
I0428 19:59:19.830582 29210 net.cpp:408] label_mnist_1_split <- label
I0428 19:59:19.830588 29210 net.cpp:382] label_mnist_1_split -> label_mnist_1_split_0
I0428 19:59:19.830595 29210 net.cpp:382] label_mnist_1_split -> label_mnist_1_split_1
I0428 19:59:19.830680 29210 net.cpp:124] Setting up label_mnist_1_split
I0428 19:59:19.830687 29210 net.cpp:131] Top shape: 100 (100)
I0428 19:59:19.830691 29210 net.cpp:131] Top shape: 100 (100)
I0428 19:59:19.830693 29210 net.cpp:139] Memory required for data: 314800
I0428 19:59:19.830696 29210 layer_factory.hpp:77] Creating layer conv0
I0428 19:59:19.830706 29210 net.cpp:86] Creating Layer conv0
I0428 19:59:19.830709 29210 net.cpp:408] conv0 <- data
I0428 19:59:19.830714 29210 net.cpp:382] conv0 -> conv0
I0428 19:59:19.832250 29210 net.cpp:124] Setting up conv0
I0428 19:59:19.832265 29210 net.cpp:131] Top shape: 100 10 24 24 (576000)
I0428 19:59:19.832268 29210 net.cpp:139] Memory required for data: 2618800
I0428 19:59:19.832278 29210 layer_factory.hpp:77] Creating layer pool0
I0428 19:59:19.832285 29210 net.cpp:86] Creating Layer pool0
I0428 19:59:19.832288 29210 net.cpp:408] pool0 <- conv0
I0428 19:59:19.832293 29210 net.cpp:382] pool0 -> pool0
I0428 19:59:19.832345 29210 net.cpp:124] Setting up pool0
I0428 19:59:19.832357 29210 net.cpp:131] Top shape: 100 10 12 12 (144000)
I0428 19:59:19.832360 29210 net.cpp:139] Memory required for data: 3194800
I0428 19:59:19.832363 29210 layer_factory.hpp:77] Creating layer conv1
I0428 19:59:19.832373 29210 net.cpp:86] Creating Layer conv1
I0428 19:59:19.832376 29210 net.cpp:408] conv1 <- pool0
I0428 19:59:19.832381 29210 net.cpp:382] conv1 -> conv1
I0428 19:59:19.834458 29210 net.cpp:124] Setting up conv1
I0428 19:59:19.834471 29210 net.cpp:131] Top shape: 100 10 8 8 (64000)
I0428 19:59:19.834476 29210 net.cpp:139] Memory required for data: 3450800
I0428 19:59:19.834486 29210 layer_factory.hpp:77] Creating layer pool1
I0428 19:59:19.834506 29210 net.cpp:86] Creating Layer pool1
I0428 19:59:19.834509 29210 net.cpp:408] pool1 <- conv1
I0428 19:59:19.834530 29210 net.cpp:382] pool1 -> pool1
I0428 19:59:19.834622 29210 net.cpp:124] Setting up pool1
I0428 19:59:19.834631 29210 net.cpp:131] Top shape: 100 10 4 4 (16000)
I0428 19:59:19.834635 29210 net.cpp:139] Memory required for data: 3514800
I0428 19:59:19.834637 29210 layer_factory.hpp:77] Creating layer ip1
I0428 19:59:19.834642 29210 net.cpp:86] Creating Layer ip1
I0428 19:59:19.834646 29210 net.cpp:408] ip1 <- pool1
I0428 19:59:19.834652 29210 net.cpp:382] ip1 -> ip1
I0428 19:59:19.834771 29210 net.cpp:124] Setting up ip1
I0428 19:59:19.834779 29210 net.cpp:131] Top shape: 100 25 (2500)
I0428 19:59:19.834791 29210 net.cpp:139] Memory required for data: 3524800
I0428 19:59:19.834800 29210 layer_factory.hpp:77] Creating layer relu1
I0428 19:59:19.834806 29210 net.cpp:86] Creating Layer relu1
I0428 19:59:19.834810 29210 net.cpp:408] relu1 <- ip1
I0428 19:59:19.834813 29210 net.cpp:369] relu1 -> ip1 (in-place)
I0428 19:59:19.834972 29210 net.cpp:124] Setting up relu1
I0428 19:59:19.834987 29210 net.cpp:131] Top shape: 100 25 (2500)
I0428 19:59:19.834990 29210 net.cpp:139] Memory required for data: 3534800
I0428 19:59:19.834993 29210 layer_factory.hpp:77] Creating layer ip2
I0428 19:59:19.835001 29210 net.cpp:86] Creating Layer ip2
I0428 19:59:19.835005 29210 net.cpp:408] ip2 <- ip1
I0428 19:59:19.835008 29210 net.cpp:382] ip2 -> ip2
I0428 19:59:19.835149 29210 net.cpp:124] Setting up ip2
I0428 19:59:19.835156 29210 net.cpp:131] Top shape: 100 25 (2500)
I0428 19:59:19.835160 29210 net.cpp:139] Memory required for data: 3544800
I0428 19:59:19.835165 29210 layer_factory.hpp:77] Creating layer relu2
I0428 19:59:19.835170 29210 net.cpp:86] Creating Layer relu2
I0428 19:59:19.835173 29210 net.cpp:408] relu2 <- ip2
I0428 19:59:19.835176 29210 net.cpp:369] relu2 -> ip2 (in-place)
I0428 19:59:19.835363 29210 net.cpp:124] Setting up relu2
I0428 19:59:19.835372 29210 net.cpp:131] Top shape: 100 25 (2500)
I0428 19:59:19.835376 29210 net.cpp:139] Memory required for data: 3554800
I0428 19:59:19.835379 29210 layer_factory.hpp:77] Creating layer ip3
I0428 19:59:19.835388 29210 net.cpp:86] Creating Layer ip3
I0428 19:59:19.835391 29210 net.cpp:408] ip3 <- ip2
I0428 19:59:19.835397 29210 net.cpp:382] ip3 -> ip3
I0428 19:59:19.835506 29210 net.cpp:124] Setting up ip3
I0428 19:59:19.835513 29210 net.cpp:131] Top shape: 100 10 (1000)
I0428 19:59:19.835516 29210 net.cpp:139] Memory required for data: 3558800
I0428 19:59:19.835523 29210 layer_factory.hpp:77] Creating layer relu3
I0428 19:59:19.835544 29210 net.cpp:86] Creating Layer relu3
I0428 19:59:19.835547 29210 net.cpp:408] relu3 <- ip3
I0428 19:59:19.835552 29210 net.cpp:369] relu3 -> ip3 (in-place)
I0428 19:59:19.836426 29210 net.cpp:124] Setting up relu3
I0428 19:59:19.836438 29210 net.cpp:131] Top shape: 100 10 (1000)
I0428 19:59:19.836441 29210 net.cpp:139] Memory required for data: 3562800
I0428 19:59:19.836446 29210 layer_factory.hpp:77] Creating layer ip3_relu3_0_split
I0428 19:59:19.836450 29210 net.cpp:86] Creating Layer ip3_relu3_0_split
I0428 19:59:19.836453 29210 net.cpp:408] ip3_relu3_0_split <- ip3
I0428 19:59:19.836459 29210 net.cpp:382] ip3_relu3_0_split -> ip3_relu3_0_split_0
I0428 19:59:19.836465 29210 net.cpp:382] ip3_relu3_0_split -> ip3_relu3_0_split_1
I0428 19:59:19.836501 29210 net.cpp:124] Setting up ip3_relu3_0_split
I0428 19:59:19.836508 29210 net.cpp:131] Top shape: 100 10 (1000)
I0428 19:59:19.836513 29210 net.cpp:131] Top shape: 100 10 (1000)
I0428 19:59:19.836515 29210 net.cpp:139] Memory required for data: 3570800
I0428 19:59:19.836519 29210 layer_factory.hpp:77] Creating layer accuracy
I0428 19:59:19.836527 29210 net.cpp:86] Creating Layer accuracy
I0428 19:59:19.836530 29210 net.cpp:408] accuracy <- ip3_relu3_0_split_0
I0428 19:59:19.836534 29210 net.cpp:408] accuracy <- label_mnist_1_split_0
I0428 19:59:19.836552 29210 net.cpp:382] accuracy -> accuracy
…
