…
I0428 20:29:41.431977  3569 net.cpp:296] The NetState phase (0) differed from the phase (1) specified by a rule in layer mnist
I0428 20:29:41.432000  3569 net.cpp:296] The NetState phase (0) differed from the phase (1) specified by a rule in layer accuracy
I0428 20:29:41.432106  3569 net.cpp:53] Initializing net from parameters: 
name: "LeNet"
state {
  phase: TRAIN
  level: 0
  stage: ""
}
layer {
  name: "mnist"
  type: "Data"
  top: "data"
  top: "label"
  include {
    phase: TRAIN
  }
  transform_param {
    scale: 0.00390625
  }
  data_param {
    source: "examples/mnist/mnist_train_lmdb"
    batch_size: 64
    backend: LMDB
  }
}
layer {
  name: "conv0"
  type: "Convolution"
  bottom: "data"
  top: "conv0"
  param {
    lr_mult: 1
  }
  param {
    lr_mult: 2
  }
  convolution_param {
    num_output: 100
    kernel_size: 5
    stride: 1
    weight_filler {
      type: "xavier"
    }
    bias_filler {
      type: "constant"
    }
  }
}
layer {
  name: "pool0"
  type: "Pooling"
  bottom: "conv0"
  top: "pool0"
  pooling_param {
    pool: MAX
    kernel_size: 2
    stride: 2
  }
}
layer {
  name: "conv1"
  type: "Convolution"
  bottom: "pool0"
  top: "conv1"
  param {
    lr_mult: 1
  }
  param {
    lr_mult: 2
  }
  convolution_param {
    num_output: 10
    kernel_size: 5
    stride: 1
    weight_filler {
      type: "xavier"
    }
    bias_filler {
      type: "constant"
    }
  }
}
layer {
  name: "pool1"
  type: "Pooling"
  bottom: "conv1"
  top: "pool1"
  pooling_param {
    pool: MAX
    kernel_size: 2
    stride: 2
  }
}
layer {
  name: "ip1"
  type: "InnerProduct"
  bottom: "pool1"
  top: "ip1"
  param {
    lr_mult: 1
  }
  param {
    lr_mult: 2
  }
  inner_product_param {
    num_output: 10
    weight_filler {
      type: "xavier"
    }
    bias_filler {
      type: "constant"
    }
  }
}
layer {
  name: "relu1"
  type: "ReLU"
  bottom: "ip1"
  top: "ip1"
}
layer {
  name: "ip2"
  type: "InnerProduct"
  bottom: "ip1"
  top: "ip2"
  param {
    lr_mult: 1
  }
  param {
    lr_mult: 2
  }
  inner_product_param {
    num_output: 10
    weight_filler {
      type: "xavier"
    }
    bias_filler {
      type: "constant"
    }
  }
}
layer {
  name: "relu2"
  type: "ReLU"
  bottom: "ip2"
  top: "ip2"
}
layer {
  name: "loss"
  type: "SoftmaxWithLoss"
  bottom: "ip2"
  bottom: "label"
  top: "loss"
}
I0428 20:29:41.432215  3569 layer_factory.hpp:77] Creating layer mnist
I0428 20:29:41.432355  3569 db_lmdb.cpp:35] Opened lmdb examples/mnist/mnist_train_lmdb
I0428 20:29:41.432389  3569 net.cpp:86] Creating Layer mnist
I0428 20:29:41.432402  3569 net.cpp:382] mnist -> data
I0428 20:29:41.432433  3569 net.cpp:382] mnist -> label
I0428 20:29:41.433670  3569 data_layer.cpp:45] output data size: 64,1,28,28
I0428 20:29:41.436342  3569 net.cpp:124] Setting up mnist
I0428 20:29:41.436362  3569 net.cpp:131] Top shape: 64 1 28 28 (50176)
I0428 20:29:41.436374  3569 net.cpp:131] Top shape: 64 (64)
I0428 20:29:41.436380  3569 net.cpp:139] Memory required for data: 200960
I0428 20:29:41.436391  3569 layer_factory.hpp:77] Creating layer conv0
I0428 20:29:41.436414  3569 net.cpp:86] Creating Layer conv0
I0428 20:29:41.436424  3569 net.cpp:408] conv0 <- data
I0428 20:29:41.436446  3569 net.cpp:382] conv0 -> conv0
I0428 20:29:41.729348  3569 net.cpp:124] Setting up conv0
I0428 20:29:41.729383  3569 net.cpp:131] Top shape: 64 100 24 24 (3686400)
I0428 20:29:41.729390  3569 net.cpp:139] Memory required for data: 14946560
I0428 20:29:41.729444  3569 layer_factory.hpp:77] Creating layer pool0
I0428 20:29:41.729468  3569 net.cpp:86] Creating Layer pool0
I0428 20:29:41.729478  3569 net.cpp:408] pool0 <- conv0
I0428 20:29:41.729490  3569 net.cpp:382] pool0 -> pool0
I0428 20:29:41.729554  3569 net.cpp:124] Setting up pool0
I0428 20:29:41.729565  3569 net.cpp:131] Top shape: 64 100 12 12 (921600)
I0428 20:29:41.729573  3569 net.cpp:139] Memory required for data: 18632960
I0428 20:29:41.729578  3569 layer_factory.hpp:77] Creating layer conv1
I0428 20:29:41.729598  3569 net.cpp:86] Creating Layer conv1
I0428 20:29:41.729606  3569 net.cpp:408] conv1 <- pool0
I0428 20:29:41.729617  3569 net.cpp:382] conv1 -> conv1
I0428 20:29:41.731935  3569 net.cpp:124] Setting up conv1
I0428 20:29:41.731956  3569 net.cpp:131] Top shape: 64 10 8 8 (40960)
I0428 20:29:41.731963  3569 net.cpp:139] Memory required for data: 18796800
I0428 20:29:41.731981  3569 layer_factory.hpp:77] Creating layer pool1
I0428 20:29:41.731994  3569 net.cpp:86] Creating Layer pool1
I0428 20:29:41.732008  3569 net.cpp:408] pool1 <- conv1
I0428 20:29:41.732018  3569 net.cpp:382] pool1 -> pool1
I0428 20:29:41.732071  3569 net.cpp:124] Setting up pool1
I0428 20:29:41.732082  3569 net.cpp:131] Top shape: 64 10 4 4 (10240)
I0428 20:29:41.732089  3569 net.cpp:139] Memory required for data: 18837760
I0428 20:29:41.732095  3569 layer_factory.hpp:77] Creating layer ip1
I0428 20:29:41.732108  3569 net.cpp:86] Creating Layer ip1
I0428 20:29:41.732120  3569 net.cpp:408] ip1 <- pool1
I0428 20:29:41.732131  3569 net.cpp:382] ip1 -> ip1
I0428 20:29:41.732278  3569 net.cpp:124] Setting up ip1
I0428 20:29:41.732290  3569 net.cpp:131] Top shape: 64 10 (640)
I0428 20:29:41.732296  3569 net.cpp:139] Memory required for data: 18840320
I0428 20:29:41.732311  3569 layer_factory.hpp:77] Creating layer relu1
I0428 20:29:41.732322  3569 net.cpp:86] Creating Layer relu1
I0428 20:29:41.732331  3569 net.cpp:408] relu1 <- ip1
I0428 20:29:41.732339  3569 net.cpp:369] relu1 -> ip1 (in-place)
I0428 20:29:41.732542  3569 net.cpp:124] Setting up relu1
I0428 20:29:41.732555  3569 net.cpp:131] Top shape: 64 10 (640)
I0428 20:29:41.732563  3569 net.cpp:139] Memory required for data: 18842880
I0428 20:29:41.732568  3569 layer_factory.hpp:77] Creating layer ip2
I0428 20:29:41.732580  3569 net.cpp:86] Creating Layer ip2
I0428 20:29:41.732586  3569 net.cpp:408] ip2 <- ip1
I0428 20:29:41.732596  3569 net.cpp:382] ip2 -> ip2
I0428 20:29:41.732717  3569 net.cpp:124] Setting up ip2
I0428 20:29:41.732728  3569 net.cpp:131] Top shape: 64 10 (640)
I0428 20:29:41.732734  3569 net.cpp:139] Memory required for data: 18845440
I0428 20:29:41.732746  3569 layer_factory.hpp:77] Creating layer relu2
I0428 20:29:41.732758  3569 net.cpp:86] Creating Layer relu2
I0428 20:29:41.732767  3569 net.cpp:408] relu2 <- ip2
I0428 20:29:41.732776  3569 net.cpp:369] relu2 -> ip2 (in-place)
I0428 20:29:41.733635  3569 net.cpp:124] Setting up relu2
I0428 20:29:41.733652  3569 net.cpp:131] Top shape: 64 10 (640)
I0428 20:29:41.733659  3569 net.cpp:139] Memory required for data: 18848000
I0428 20:29:41.733666  3569 layer_factory.hpp:77] Creating layer loss
I0428 20:29:41.733677  3569 net.cpp:86] Creating Layer loss
I0428 20:29:41.733685  3569 net.cpp:408] loss <- ip2
I0428 20:29:41.733693  3569 net.cpp:408] loss <- label
I0428 20:29:41.733703  3569 net.cpp:382] loss -> loss
I0428 20:29:41.733731  3569 layer_factory.hpp:77] Creating layer loss
…
I0428 20:29:41.734520  3569 solver.cpp:173] Creating test net (#0) specified by net file: ECE595/mnist/train_test/var_everything2/lenet_train_test1526.prototxt
I0428 20:29:41.734560  3569 net.cpp:296] The NetState phase (1) differed from the phase (0) specified by a rule in layer mnist
I0428 20:29:41.734669  3569 net.cpp:53] Initializing net from parameters: 
name: "LeNet"
state {
  phase: TEST
}
layer {
  name: "mnist"
  type: "Data"
  top: "data"
  top: "label"
  include {
    phase: TEST
  }
  transform_param {
    scale: 0.00390625
  }
  data_param {
    source: "examples/mnist/mnist_test_lmdb"
    batch_size: 100
    backend: LMDB
  }
}
layer {
  name: "conv0"
  type: "Convolution"
  bottom: "data"
  top: "conv0"
  param {
    lr_mult: 1
  }
  param {
    lr_mult: 2
  }
  convolution_param {
    num_output: 100
    kernel_size: 5
    stride: 1
    weight_filler {
      type: "xavier"
    }
    bias_filler {
      type: "constant"
    }
  }
}
layer {
  name: "pool0"
  type: "Pooling"
  bottom: "conv0"
  top: "pool0"
  pooling_param {
    pool: MAX
    kernel_size: 2
    stride: 2
  }
}
layer {
  name: "conv1"
  type: "Convolution"
  bottom: "pool0"
  top: "conv1"
  param {
    lr_mult: 1
  }
  param {
    lr_mult: 2
  }
  convolution_param {
    num_output: 10
    kernel_size: 5
    stride: 1
    weight_filler {
      type: "xavier"
    }
    bias_filler {
      type: "constant"
    }
  }
}
layer {
  name: "pool1"
  type: "Pooling"
  bottom: "conv1"
  top: "pool1"
  pooling_param {
    pool: MAX
    kernel_size: 2
    stride: 2
  }
}
layer {
  name: "ip1"
  type: "InnerProduct"
  bottom: "pool1"
  top: "ip1"
  param {
    lr_mult: 1
  }
  param {
    lr_mult: 2
  }
  inner_product_param {
    num_output: 10
    weight_filler {
      type: "xavier"
    }
    bias_filler {
      type: "constant"
    }
  }
}
layer {
  name: "relu1"
  type: "ReLU"
  bottom: "ip1"
  top: "ip1"
}
layer {
  name: "ip2"
  type: "InnerProduct"
  bottom: "ip1"
  top: "ip2"
  param {
    lr_mult: 1
  }
  param {
    lr_mult: 2
  }
  inner_product_param {
    num_output: 10
    weight_filler {
      type: "xavier"
    }
    bias_filler {
      type: "constant"
    }
  }
}
layer {
  name: "relu2"
  type: "ReLU"
  bottom: "ip2"
  top: "ip2"
}
layer {
  name: "accuracy"
  type: "Accuracy"
  bottom: "ip2"
  bottom: "label"
  top: "accuracy"
  include {
    phase: TEST
  }
}
layer {
  name: "loss"
  type: "SoftmaxWithLoss"
  bottom: "ip2"
  bottom: "label"
  top: "loss"
}
I0428 20:29:41.734792  3569 layer_factory.hpp:77] Creating layer mnist
I0428 20:29:41.734864  3569 db_lmdb.cpp:35] Opened lmdb examples/mnist/mnist_test_lmdb
I0428 20:29:41.734884  3569 net.cpp:86] Creating Layer mnist
I0428 20:29:41.734894  3569 net.cpp:382] mnist -> data
I0428 20:29:41.734907  3569 net.cpp:382] mnist -> label
I0428 20:29:41.735050  3569 data_layer.cpp:45] output data size: 100,1,28,28
I0428 20:29:41.737408  3569 net.cpp:124] Setting up mnist
I0428 20:29:41.737427  3569 net.cpp:131] Top shape: 100 1 28 28 (78400)
I0428 20:29:41.737437  3569 net.cpp:131] Top shape: 100 (100)
I0428 20:29:41.737442  3569 net.cpp:139] Memory required for data: 314000
I0428 20:29:41.737449  3569 layer_factory.hpp:77] Creating layer label_mnist_1_split
I0428 20:29:41.737462  3569 net.cpp:86] Creating Layer label_mnist_1_split
I0428 20:29:41.737468  3569 net.cpp:408] label_mnist_1_split <- label
I0428 20:29:41.737478  3569 net.cpp:382] label_mnist_1_split -> label_mnist_1_split_0
I0428 20:29:41.737489  3569 net.cpp:382] label_mnist_1_split -> label_mnist_1_split_1
I0428 20:29:41.737584  3569 net.cpp:124] Setting up label_mnist_1_split
I0428 20:29:41.737598  3569 net.cpp:131] Top shape: 100 (100)
I0428 20:29:41.737607  3569 net.cpp:131] Top shape: 100 (100)
I0428 20:29:41.737612  3569 net.cpp:139] Memory required for data: 314800
I0428 20:29:41.737618  3569 layer_factory.hpp:77] Creating layer conv0
I0428 20:29:41.737637  3569 net.cpp:86] Creating Layer conv0
I0428 20:29:41.737644  3569 net.cpp:408] conv0 <- data
I0428 20:29:41.737655  3569 net.cpp:382] conv0 -> conv0
I0428 20:29:41.739461  3569 net.cpp:124] Setting up conv0
I0428 20:29:41.739480  3569 net.cpp:131] Top shape: 100 100 24 24 (5760000)
I0428 20:29:41.739486  3569 net.cpp:139] Memory required for data: 23354800
I0428 20:29:41.739504  3569 layer_factory.hpp:77] Creating layer pool0
I0428 20:29:41.739516  3569 net.cpp:86] Creating Layer pool0
I0428 20:29:41.739524  3569 net.cpp:408] pool0 <- conv0
I0428 20:29:41.739537  3569 net.cpp:382] pool0 -> pool0
I0428 20:29:41.739590  3569 net.cpp:124] Setting up pool0
I0428 20:29:41.739601  3569 net.cpp:131] Top shape: 100 100 12 12 (1440000)
I0428 20:29:41.739609  3569 net.cpp:139] Memory required for data: 29114800
I0428 20:29:41.739619  3569 layer_factory.hpp:77] Creating layer conv1
I0428 20:29:41.739640  3569 net.cpp:86] Creating Layer conv1
I0428 20:29:41.739647  3569 net.cpp:408] conv1 <- pool0
I0428 20:29:41.739658  3569 net.cpp:382] conv1 -> conv1
I0428 20:29:41.741576  3569 net.cpp:124] Setting up conv1
I0428 20:29:41.741597  3569 net.cpp:131] Top shape: 100 10 8 8 (64000)
I0428 20:29:41.741606  3569 net.cpp:139] Memory required for data: 29370800
I0428 20:29:41.741622  3569 layer_factory.hpp:77] Creating layer pool1
I0428 20:29:41.741634  3569 net.cpp:86] Creating Layer pool1
I0428 20:29:41.741643  3569 net.cpp:408] pool1 <- conv1
I0428 20:29:41.741653  3569 net.cpp:382] pool1 -> pool1
I0428 20:29:41.741708  3569 net.cpp:124] Setting up pool1
I0428 20:29:41.741717  3569 net.cpp:131] Top shape: 100 10 4 4 (16000)
I0428 20:29:41.741725  3569 net.cpp:139] Memory required for data: 29434800
I0428 20:29:41.741731  3569 layer_factory.hpp:77] Creating layer ip1
I0428 20:29:41.741744  3569 net.cpp:86] Creating Layer ip1
I0428 20:29:41.741752  3569 net.cpp:408] ip1 <- pool1
I0428 20:29:41.741762  3569 net.cpp:382] ip1 -> ip1
I0428 20:29:41.741907  3569 net.cpp:124] Setting up ip1
I0428 20:29:41.741921  3569 net.cpp:131] Top shape: 100 10 (1000)
I0428 20:29:41.741927  3569 net.cpp:139] Memory required for data: 29438800
I0428 20:29:41.741945  3569 layer_factory.hpp:77] Creating layer relu1
I0428 20:29:41.741956  3569 net.cpp:86] Creating Layer relu1
I0428 20:29:41.741963  3569 net.cpp:408] relu1 <- ip1
I0428 20:29:41.741972  3569 net.cpp:369] relu1 -> ip1 (in-place)
I0428 20:29:41.742192  3569 net.cpp:124] Setting up relu1
I0428 20:29:41.742207  3569 net.cpp:131] Top shape: 100 10 (1000)
I0428 20:29:41.742213  3569 net.cpp:139] Memory required for data: 29442800
I0428 20:29:41.742218  3569 layer_factory.hpp:77] Creating layer ip2
I0428 20:29:41.742233  3569 net.cpp:86] Creating Layer ip2
I0428 20:29:41.742239  3569 net.cpp:408] ip2 <- ip1
I0428 20:29:41.742252  3569 net.cpp:382] ip2 -> ip2
I0428 20:29:41.742413  3569 net.cpp:124] Setting up ip2
I0428 20:29:41.742424  3569 net.cpp:131] Top shape: 100 10 (1000)
I0428 20:29:41.742430  3569 net.cpp:139] Memory required for data: 29446800
I0428 20:29:41.742442  3569 layer_factory.hpp:77] Creating layer relu2
I0428 20:29:41.742455  3569 net.cpp:86] Creating Layer relu2
I0428 20:29:41.742462  3569 net.cpp:408] relu2 <- ip2
I0428 20:29:41.742471  3569 net.cpp:369] relu2 -> ip2 (in-place)
I0428 20:29:41.742667  3569 net.cpp:124] Setting up relu2
I0428 20:29:41.742679  3569 net.cpp:131] Top shape: 100 10 (1000)
I0428 20:29:41.742686  3569 net.cpp:139] Memory required for data: 29450800
I0428 20:29:41.742693  3569 layer_factory.hpp:77] Creating layer ip2_relu2_0_split
I0428 20:29:41.742704  3569 net.cpp:86] Creating Layer ip2_relu2_0_split
I0428 20:29:41.742717  3569 net.cpp:408] ip2_relu2_0_split <- ip2
I0428 20:29:41.742727  3569 net.cpp:382] ip2_relu2_0_split -> ip2_relu2_0_split_0
I0428 20:29:41.742751  3569 net.cpp:382] ip2_relu2_0_split -> ip2_relu2_0_split_1
I0428 20:29:41.742805  3569 net.cpp:124] Setting up ip2_relu2_0_split
I0428 20:29:41.742816  3569 net.cpp:131] Top shape: 100 10 (1000)
I0428 20:29:41.742825  3569 net.cpp:131] Top shape: 100 10 (1000)
I0428 20:29:41.742830  3569 net.cpp:139] Memory required for data: 29458800
I0428 20:29:41.742836  3569 layer_factory.hpp:77] Creating layer accuracy
I0428 20:29:41.742849  3569 net.cpp:86] Creating Layer accuracy
I0428 20:29:41.742856  3569 net.cpp:408] accuracy <- ip2_relu2_0_split_0
I0428 20:29:41.742866  3569 net.cpp:408] accuracy <- label_mnist_1_split_0
I0428 20:29:41.742875  3569 net.cpp:382] accuracy -> accuracy
…
