…
I0428 19:55:59.074790 28318 net.cpp:296] The NetState phase (0) differed from the phase (1) specified by a rule in layer mnist
I0428 19:55:59.074816 28318 net.cpp:296] The NetState phase (0) differed from the phase (1) specified by a rule in layer accuracy
I0428 19:55:59.074955 28318 net.cpp:53] Initializing net from parameters: 
name: "LeNet"
state {
  phase: TRAIN
  level: 0
  stage: ""
}
layer {
  name: "mnist"
  type: "Data"
  top: "data"
  top: "label"
  include {
    phase: TRAIN
  }
  transform_param {
    scale: 0.00390625
  }
  data_param {
    source: "examples/mnist/mnist_train_lmdb"
    batch_size: 64
    backend: LMDB
  }
}
layer {
  name: "conv0"
  type: "Convolution"
  bottom: "data"
  top: "conv0"
  param {
    lr_mult: 1
  }
  param {
    lr_mult: 2
  }
  convolution_param {
    num_output: 10
    kernel_size: 5
    stride: 1
    weight_filler {
      type: "xavier"
    }
    bias_filler {
      type: "constant"
    }
  }
}
layer {
  name: "pool0"
  type: "Pooling"
  bottom: "conv0"
  top: "pool0"
  pooling_param {
    pool: MAX
    kernel_size: 2
    stride: 2
  }
}
layer {
  name: "conv1"
  type: "Convolution"
  bottom: "pool0"
  top: "conv1"
  param {
    lr_mult: 1
  }
  param {
    lr_mult: 2
  }
  convolution_param {
    num_output: 2
    kernel_size: 5
    stride: 1
    weight_filler {
      type: "xavier"
    }
    bias_filler {
      type: "constant"
    }
  }
}
layer {
  name: "pool1"
  type: "Pooling"
  bottom: "conv1"
  top: "pool1"
  pooling_param {
    pool: MAX
    kernel_size: 2
    stride: 2
  }
}
layer {
  name: "ip1"
  type: "InnerProduct"
  bottom: "pool1"
  top: "ip1"
  param {
    lr_mult: 1
  }
  param {
    lr_mult: 2
  }
  inner_product_param {
    num_output: 10
    weight_filler {
      type: "xavier"
    }
    bias_filler {
      type: "constant"
    }
  }
}
layer {
  name: "relu1"
  type: "ReLU"
  bottom: "ip1"
  top: "ip1"
}
layer {
  name: "ip2"
  type: "InnerProduct"
  bottom: "ip1"
  top: "ip2"
  param {
    lr_mult: 1
  }
  param {
    lr_mult: 2
  }
  inner_product_param {
    num_output: 10
    weight_filler {
      type: "xavier"
    }
    bias_filler {
      type: "constant"
    }
  }
}
layer {
  name: "relu2"
  type: "ReLU"
  bottom: "ip2"
  top: "ip2"
}
layer {
  name: "loss"
  type: "SoftmaxWithLoss"
  bottom: "ip2"
  bottom: "label"
  top: "loss"
}
I0428 19:55:59.075064 28318 layer_factory.hpp:77] Creating layer mnist
I0428 19:55:59.075197 28318 db_lmdb.cpp:35] Opened lmdb examples/mnist/mnist_train_lmdb
I0428 19:55:59.075229 28318 net.cpp:86] Creating Layer mnist
I0428 19:55:59.075242 28318 net.cpp:382] mnist -> data
I0428 19:55:59.075273 28318 net.cpp:382] mnist -> label
I0428 19:55:59.076846 28318 data_layer.cpp:45] output data size: 64,1,28,28
I0428 19:55:59.079699 28318 net.cpp:124] Setting up mnist
I0428 19:55:59.079718 28318 net.cpp:131] Top shape: 64 1 28 28 (50176)
I0428 19:55:59.079725 28318 net.cpp:131] Top shape: 64 (64)
I0428 19:55:59.079728 28318 net.cpp:139] Memory required for data: 200960
I0428 19:55:59.079735 28318 layer_factory.hpp:77] Creating layer conv0
I0428 19:55:59.079773 28318 net.cpp:86] Creating Layer conv0
I0428 19:55:59.079784 28318 net.cpp:408] conv0 <- data
I0428 19:55:59.079805 28318 net.cpp:382] conv0 -> conv0
I0428 19:55:59.350821 28318 net.cpp:124] Setting up conv0
I0428 19:55:59.350864 28318 net.cpp:131] Top shape: 64 10 24 24 (368640)
I0428 19:55:59.350883 28318 net.cpp:139] Memory required for data: 1675520
I0428 19:55:59.350917 28318 layer_factory.hpp:77] Creating layer pool0
I0428 19:55:59.350934 28318 net.cpp:86] Creating Layer pool0
I0428 19:55:59.350939 28318 net.cpp:408] pool0 <- conv0
I0428 19:55:59.350947 28318 net.cpp:382] pool0 -> pool0
I0428 19:55:59.351006 28318 net.cpp:124] Setting up pool0
I0428 19:55:59.351017 28318 net.cpp:131] Top shape: 64 10 12 12 (92160)
I0428 19:55:59.351022 28318 net.cpp:139] Memory required for data: 2044160
I0428 19:55:59.351027 28318 layer_factory.hpp:77] Creating layer conv1
I0428 19:55:59.351040 28318 net.cpp:86] Creating Layer conv1
I0428 19:55:59.351045 28318 net.cpp:408] conv1 <- pool0
I0428 19:55:59.351053 28318 net.cpp:382] conv1 -> conv1
I0428 19:55:59.353258 28318 net.cpp:124] Setting up conv1
I0428 19:55:59.353287 28318 net.cpp:131] Top shape: 64 2 8 8 (8192)
I0428 19:55:59.353291 28318 net.cpp:139] Memory required for data: 2076928
I0428 19:55:59.353301 28318 layer_factory.hpp:77] Creating layer pool1
I0428 19:55:59.353309 28318 net.cpp:86] Creating Layer pool1
I0428 19:55:59.353312 28318 net.cpp:408] pool1 <- conv1
I0428 19:55:59.353317 28318 net.cpp:382] pool1 -> pool1
I0428 19:55:59.353364 28318 net.cpp:124] Setting up pool1
I0428 19:55:59.353374 28318 net.cpp:131] Top shape: 64 2 4 4 (2048)
I0428 19:55:59.353379 28318 net.cpp:139] Memory required for data: 2085120
I0428 19:55:59.353384 28318 layer_factory.hpp:77] Creating layer ip1
I0428 19:55:59.353395 28318 net.cpp:86] Creating Layer ip1
I0428 19:55:59.353400 28318 net.cpp:408] ip1 <- pool1
I0428 19:55:59.353408 28318 net.cpp:382] ip1 -> ip1
I0428 19:55:59.353546 28318 net.cpp:124] Setting up ip1
I0428 19:55:59.353557 28318 net.cpp:131] Top shape: 64 10 (640)
I0428 19:55:59.353562 28318 net.cpp:139] Memory required for data: 2087680
I0428 19:55:59.353574 28318 layer_factory.hpp:77] Creating layer relu1
I0428 19:55:59.353581 28318 net.cpp:86] Creating Layer relu1
I0428 19:55:59.353586 28318 net.cpp:408] relu1 <- ip1
I0428 19:55:59.353593 28318 net.cpp:369] relu1 -> ip1 (in-place)
I0428 19:55:59.353832 28318 net.cpp:124] Setting up relu1
I0428 19:55:59.353844 28318 net.cpp:131] Top shape: 64 10 (640)
I0428 19:55:59.353850 28318 net.cpp:139] Memory required for data: 2090240
I0428 19:55:59.353869 28318 layer_factory.hpp:77] Creating layer ip2
I0428 19:55:59.353878 28318 net.cpp:86] Creating Layer ip2
I0428 19:55:59.353883 28318 net.cpp:408] ip2 <- ip1
I0428 19:55:59.353890 28318 net.cpp:382] ip2 -> ip2
I0428 19:55:59.354038 28318 net.cpp:124] Setting up ip2
I0428 19:55:59.354050 28318 net.cpp:131] Top shape: 64 10 (640)
I0428 19:55:59.354055 28318 net.cpp:139] Memory required for data: 2092800
I0428 19:55:59.354063 28318 layer_factory.hpp:77] Creating layer relu2
I0428 19:55:59.354074 28318 net.cpp:86] Creating Layer relu2
I0428 19:55:59.354080 28318 net.cpp:408] relu2 <- ip2
I0428 19:55:59.354087 28318 net.cpp:369] relu2 -> ip2 (in-place)
I0428 19:55:59.355152 28318 net.cpp:124] Setting up relu2
I0428 19:55:59.355183 28318 net.cpp:131] Top shape: 64 10 (640)
I0428 19:55:59.355190 28318 net.cpp:139] Memory required for data: 2095360
I0428 19:55:59.355208 28318 layer_factory.hpp:77] Creating layer loss
I0428 19:55:59.355219 28318 net.cpp:86] Creating Layer loss
I0428 19:55:59.355224 28318 net.cpp:408] loss <- ip2
I0428 19:55:59.355232 28318 net.cpp:408] loss <- label
I0428 19:55:59.355239 28318 net.cpp:382] loss -> loss
I0428 19:55:59.355275 28318 layer_factory.hpp:77] Creating layer loss
…
I0428 19:55:59.356353 28318 solver.cpp:173] Creating test net (#0) specified by net file: ECE595/mnist/train_test/var_everything2/lenet_train_test745.prototxt
I0428 19:55:59.356407 28318 net.cpp:296] The NetState phase (1) differed from the phase (0) specified by a rule in layer mnist
I0428 19:55:59.356556 28318 net.cpp:53] Initializing net from parameters: 
name: "LeNet"
state {
  phase: TEST
}
layer {
  name: "mnist"
  type: "Data"
  top: "data"
  top: "label"
  include {
    phase: TEST
  }
  transform_param {
    scale: 0.00390625
  }
  data_param {
    source: "examples/mnist/mnist_test_lmdb"
    batch_size: 100
    backend: LMDB
  }
}
layer {
  name: "conv0"
  type: "Convolution"
  bottom: "data"
  top: "conv0"
  param {
    lr_mult: 1
  }
  param {
    lr_mult: 2
  }
  convolution_param {
    num_output: 10
    kernel_size: 5
    stride: 1
    weight_filler {
      type: "xavier"
    }
    bias_filler {
      type: "constant"
    }
  }
}
layer {
  name: "pool0"
  type: "Pooling"
  bottom: "conv0"
  top: "pool0"
  pooling_param {
    pool: MAX
    kernel_size: 2
    stride: 2
  }
}
layer {
  name: "conv1"
  type: "Convolution"
  bottom: "pool0"
  top: "conv1"
  param {
    lr_mult: 1
  }
  param {
    lr_mult: 2
  }
  convolution_param {
    num_output: 2
    kernel_size: 5
    stride: 1
    weight_filler {
      type: "xavier"
    }
    bias_filler {
      type: "constant"
    }
  }
}
layer {
  name: "pool1"
  type: "Pooling"
  bottom: "conv1"
  top: "pool1"
  pooling_param {
    pool: MAX
    kernel_size: 2
    stride: 2
  }
}
layer {
  name: "ip1"
  type: "InnerProduct"
  bottom: "pool1"
  top: "ip1"
  param {
    lr_mult: 1
  }
  param {
    lr_mult: 2
  }
  inner_product_param {
    num_output: 10
    weight_filler {
      type: "xavier"
    }
    bias_filler {
      type: "constant"
    }
  }
}
layer {
  name: "relu1"
  type: "ReLU"
  bottom: "ip1"
  top: "ip1"
}
layer {
  name: "ip2"
  type: "InnerProduct"
  bottom: "ip1"
  top: "ip2"
  param {
    lr_mult: 1
  }
  param {
    lr_mult: 2
  }
  inner_product_param {
    num_output: 10
    weight_filler {
      type: "xavier"
    }
    bias_filler {
      type: "constant"
    }
  }
}
layer {
  name: "relu2"
  type: "ReLU"
  bottom: "ip2"
  top: "ip2"
}
layer {
  name: "accuracy"
  type: "Accuracy"
  bottom: "ip2"
  bottom: "label"
  top: "accuracy"
  include {
    phase: TEST
  }
}
layer {
  name: "loss"
  type: "SoftmaxWithLoss"
  bottom: "ip2"
  bottom: "label"
  top: "loss"
}
I0428 19:55:59.356657 28318 layer_factory.hpp:77] Creating layer mnist
I0428 19:55:59.356717 28318 db_lmdb.cpp:35] Opened lmdb examples/mnist/mnist_test_lmdb
I0428 19:55:59.356739 28318 net.cpp:86] Creating Layer mnist
I0428 19:55:59.356747 28318 net.cpp:382] mnist -> data
I0428 19:55:59.356758 28318 net.cpp:382] mnist -> label
I0428 19:55:59.356912 28318 data_layer.cpp:45] output data size: 100,1,28,28
I0428 19:55:59.359648 28318 net.cpp:124] Setting up mnist
I0428 19:55:59.359691 28318 net.cpp:131] Top shape: 100 1 28 28 (78400)
I0428 19:55:59.359699 28318 net.cpp:131] Top shape: 100 (100)
I0428 19:55:59.359701 28318 net.cpp:139] Memory required for data: 314000
I0428 19:55:59.359704 28318 layer_factory.hpp:77] Creating layer label_mnist_1_split
I0428 19:55:59.359726 28318 net.cpp:86] Creating Layer label_mnist_1_split
I0428 19:55:59.359730 28318 net.cpp:408] label_mnist_1_split <- label
I0428 19:55:59.359735 28318 net.cpp:382] label_mnist_1_split -> label_mnist_1_split_0
I0428 19:55:59.359743 28318 net.cpp:382] label_mnist_1_split -> label_mnist_1_split_1
I0428 19:55:59.359853 28318 net.cpp:124] Setting up label_mnist_1_split
I0428 19:55:59.359877 28318 net.cpp:131] Top shape: 100 (100)
I0428 19:55:59.359884 28318 net.cpp:131] Top shape: 100 (100)
I0428 19:55:59.359889 28318 net.cpp:139] Memory required for data: 314800
I0428 19:55:59.359894 28318 layer_factory.hpp:77] Creating layer conv0
I0428 19:55:59.359911 28318 net.cpp:86] Creating Layer conv0
I0428 19:55:59.359918 28318 net.cpp:408] conv0 <- data
I0428 19:55:59.359928 28318 net.cpp:382] conv0 -> conv0
I0428 19:55:59.361969 28318 net.cpp:124] Setting up conv0
I0428 19:55:59.361984 28318 net.cpp:131] Top shape: 100 10 24 24 (576000)
I0428 19:55:59.362004 28318 net.cpp:139] Memory required for data: 2618800
I0428 19:55:59.362013 28318 layer_factory.hpp:77] Creating layer pool0
I0428 19:55:59.362022 28318 net.cpp:86] Creating Layer pool0
I0428 19:55:59.362026 28318 net.cpp:408] pool0 <- conv0
I0428 19:55:59.362031 28318 net.cpp:382] pool0 -> pool0
I0428 19:55:59.362084 28318 net.cpp:124] Setting up pool0
I0428 19:55:59.362103 28318 net.cpp:131] Top shape: 100 10 12 12 (144000)
I0428 19:55:59.362108 28318 net.cpp:139] Memory required for data: 3194800
I0428 19:55:59.362114 28318 layer_factory.hpp:77] Creating layer conv1
I0428 19:55:59.362130 28318 net.cpp:86] Creating Layer conv1
I0428 19:55:59.362136 28318 net.cpp:408] conv1 <- pool0
I0428 19:55:59.362146 28318 net.cpp:382] conv1 -> conv1
I0428 19:55:59.364861 28318 net.cpp:124] Setting up conv1
I0428 19:55:59.364876 28318 net.cpp:131] Top shape: 100 2 8 8 (12800)
I0428 19:55:59.364881 28318 net.cpp:139] Memory required for data: 3246000
I0428 19:55:59.364892 28318 layer_factory.hpp:77] Creating layer pool1
I0428 19:55:59.364899 28318 net.cpp:86] Creating Layer pool1
I0428 19:55:59.364905 28318 net.cpp:408] pool1 <- conv1
I0428 19:55:59.364915 28318 net.cpp:382] pool1 -> pool1
I0428 19:55:59.364972 28318 net.cpp:124] Setting up pool1
I0428 19:55:59.364986 28318 net.cpp:131] Top shape: 100 2 4 4 (3200)
I0428 19:55:59.365015 28318 net.cpp:139] Memory required for data: 3258800
I0428 19:55:59.365020 28318 layer_factory.hpp:77] Creating layer ip1
I0428 19:55:59.365031 28318 net.cpp:86] Creating Layer ip1
I0428 19:55:59.365051 28318 net.cpp:408] ip1 <- pool1
I0428 19:55:59.365058 28318 net.cpp:382] ip1 -> ip1
I0428 19:55:59.365228 28318 net.cpp:124] Setting up ip1
I0428 19:55:59.365239 28318 net.cpp:131] Top shape: 100 10 (1000)
I0428 19:55:59.365243 28318 net.cpp:139] Memory required for data: 3262800
I0428 19:55:59.365254 28318 layer_factory.hpp:77] Creating layer relu1
I0428 19:55:59.365263 28318 net.cpp:86] Creating Layer relu1
I0428 19:55:59.365268 28318 net.cpp:408] relu1 <- ip1
I0428 19:55:59.365276 28318 net.cpp:369] relu1 -> ip1 (in-place)
I0428 19:55:59.365504 28318 net.cpp:124] Setting up relu1
I0428 19:55:59.365517 28318 net.cpp:131] Top shape: 100 10 (1000)
I0428 19:55:59.365532 28318 net.cpp:139] Memory required for data: 3266800
I0428 19:55:59.365537 28318 layer_factory.hpp:77] Creating layer ip2
I0428 19:55:59.365569 28318 net.cpp:86] Creating Layer ip2
I0428 19:55:59.365579 28318 net.cpp:408] ip2 <- ip1
I0428 19:55:59.365588 28318 net.cpp:382] ip2 -> ip2
I0428 19:55:59.365780 28318 net.cpp:124] Setting up ip2
I0428 19:55:59.365794 28318 net.cpp:131] Top shape: 100 10 (1000)
I0428 19:55:59.365799 28318 net.cpp:139] Memory required for data: 3270800
I0428 19:55:59.365809 28318 layer_factory.hpp:77] Creating layer relu2
I0428 19:55:59.365833 28318 net.cpp:86] Creating Layer relu2
I0428 19:55:59.365839 28318 net.cpp:408] relu2 <- ip2
I0428 19:55:59.365847 28318 net.cpp:369] relu2 -> ip2 (in-place)
I0428 19:55:59.366127 28318 net.cpp:124] Setting up relu2
I0428 19:55:59.366153 28318 net.cpp:131] Top shape: 100 10 (1000)
I0428 19:55:59.366158 28318 net.cpp:139] Memory required for data: 3274800
I0428 19:55:59.366179 28318 layer_factory.hpp:77] Creating layer ip2_relu2_0_split
I0428 19:55:59.366188 28318 net.cpp:86] Creating Layer ip2_relu2_0_split
I0428 19:55:59.366192 28318 net.cpp:408] ip2_relu2_0_split <- ip2
I0428 19:55:59.366201 28318 net.cpp:382] ip2_relu2_0_split -> ip2_relu2_0_split_0
I0428 19:55:59.366222 28318 net.cpp:382] ip2_relu2_0_split -> ip2_relu2_0_split_1
I0428 19:55:59.366281 28318 net.cpp:124] Setting up ip2_relu2_0_split
I0428 19:55:59.366292 28318 net.cpp:131] Top shape: 100 10 (1000)
I0428 19:55:59.366298 28318 net.cpp:131] Top shape: 100 10 (1000)
I0428 19:55:59.366303 28318 net.cpp:139] Memory required for data: 3282800
I0428 19:55:59.366308 28318 layer_factory.hpp:77] Creating layer accuracy
I0428 19:55:59.366317 28318 net.cpp:86] Creating Layer accuracy
I0428 19:55:59.366322 28318 net.cpp:408] accuracy <- ip2_relu2_0_split_0
I0428 19:55:59.366328 28318 net.cpp:408] accuracy <- label_mnist_1_split_0
I0428 19:55:59.366335 28318 net.cpp:382] accuracy -> accuracy
…
