…
I0428 20:18:10.402151  1067 net.cpp:296] The NetState phase (0) differed from the phase (1) specified by a rule in layer mnist
I0428 20:18:10.402169  1067 net.cpp:296] The NetState phase (0) differed from the phase (1) specified by a rule in layer accuracy
I0428 20:18:10.402273  1067 net.cpp:53] Initializing net from parameters: 
name: "LeNet"
state {
  phase: TRAIN
  level: 0
  stage: ""
}
layer {
  name: "mnist"
  type: "Data"
  top: "data"
  top: "label"
  include {
    phase: TRAIN
  }
  transform_param {
    scale: 0.00390625
  }
  data_param {
    source: "examples/mnist/mnist_train_lmdb"
    batch_size: 64
    backend: LMDB
  }
}
layer {
  name: "conv0"
  type: "Convolution"
  bottom: "data"
  top: "conv0"
  param {
    lr_mult: 1
  }
  param {
    lr_mult: 2
  }
  convolution_param {
    num_output: 50
    kernel_size: 5
    stride: 1
    weight_filler {
      type: "xavier"
    }
    bias_filler {
      type: "constant"
    }
  }
}
layer {
  name: "pool0"
  type: "Pooling"
  bottom: "conv0"
  top: "pool0"
  pooling_param {
    pool: MAX
    kernel_size: 2
    stride: 2
  }
}
layer {
  name: "conv1"
  type: "Convolution"
  bottom: "pool0"
  top: "conv1"
  param {
    lr_mult: 1
  }
  param {
    lr_mult: 2
  }
  convolution_param {
    num_output: 10
    kernel_size: 5
    stride: 1
    weight_filler {
      type: "xavier"
    }
    bias_filler {
      type: "constant"
    }
  }
}
layer {
  name: "pool1"
  type: "Pooling"
  bottom: "conv1"
  top: "pool1"
  pooling_param {
    pool: MAX
    kernel_size: 2
    stride: 2
  }
}
layer {
  name: "ip1"
  type: "InnerProduct"
  bottom: "pool1"
  top: "ip1"
  param {
    lr_mult: 1
  }
  param {
    lr_mult: 2
  }
  inner_product_param {
    num_output: 25
    weight_filler {
      type: "xavier"
    }
    bias_filler {
      type: "constant"
    }
  }
}
layer {
  name: "relu1"
  type: "ReLU"
  bottom: "ip1"
  top: "ip1"
}
layer {
  name: "ip2"
  type: "InnerProduct"
  bottom: "ip1"
  top: "ip2"
  param {
    lr_mult: 1
  }
  param {
    lr_mult: 2
  }
  inner_product_param {
    num_output: 25
    weight_filler {
      type: "xavier"
    }
    bias_filler {
      type: "constant"
    }
  }
}
layer {
  name: "relu2"
  type: "ReLU"
  bottom: "ip2"
  top: "ip2"
}
layer {
  name: "ip3"
  type: "InnerProduct"
  bottom: "ip2"
  top: "ip3"
  param {
    lr_mult: 1
  }
  param {
    lr_mult: 2
  }
  inner_product_param {
    num_output: 10
    weight_filler {
      type: "xavier"
    }
    bias_filler {
      type: "constant"
    }
  }
}
layer {
  name: "relu3"
  type: "ReLU"
  bottom: "ip3"
  top: "ip3"
}
layer {
  name: "loss"
  type: "SoftmaxWithLoss"
  bottom: "ip3"
  bottom: "label"
  top: "loss"
}
I0428 20:18:10.402349  1067 layer_factory.hpp:77] Creating layer mnist
I0428 20:18:10.402454  1067 db_lmdb.cpp:35] Opened lmdb examples/mnist/mnist_train_lmdb
I0428 20:18:10.402478  1067 net.cpp:86] Creating Layer mnist
I0428 20:18:10.402485  1067 net.cpp:382] mnist -> data
I0428 20:18:10.402508  1067 net.cpp:382] mnist -> label
I0428 20:18:10.403614  1067 data_layer.cpp:45] output data size: 64,1,28,28
I0428 20:18:10.406081  1067 net.cpp:124] Setting up mnist
I0428 20:18:10.406098  1067 net.cpp:131] Top shape: 64 1 28 28 (50176)
I0428 20:18:10.406105  1067 net.cpp:131] Top shape: 64 (64)
I0428 20:18:10.406110  1067 net.cpp:139] Memory required for data: 200960
I0428 20:18:10.406116  1067 layer_factory.hpp:77] Creating layer conv0
I0428 20:18:10.406132  1067 net.cpp:86] Creating Layer conv0
I0428 20:18:10.406153  1067 net.cpp:408] conv0 <- data
I0428 20:18:10.406167  1067 net.cpp:382] conv0 -> conv0
I0428 20:18:10.697991  1067 net.cpp:124] Setting up conv0
I0428 20:18:10.698019  1067 net.cpp:131] Top shape: 64 50 24 24 (1843200)
I0428 20:18:10.698024  1067 net.cpp:139] Memory required for data: 7573760
I0428 20:18:10.698040  1067 layer_factory.hpp:77] Creating layer pool0
I0428 20:18:10.698055  1067 net.cpp:86] Creating Layer pool0
I0428 20:18:10.698058  1067 net.cpp:408] pool0 <- conv0
I0428 20:18:10.698065  1067 net.cpp:382] pool0 -> pool0
I0428 20:18:10.698115  1067 net.cpp:124] Setting up pool0
I0428 20:18:10.698123  1067 net.cpp:131] Top shape: 64 50 12 12 (460800)
I0428 20:18:10.698127  1067 net.cpp:139] Memory required for data: 9416960
I0428 20:18:10.698129  1067 layer_factory.hpp:77] Creating layer conv1
I0428 20:18:10.698141  1067 net.cpp:86] Creating Layer conv1
I0428 20:18:10.698144  1067 net.cpp:408] conv1 <- pool0
I0428 20:18:10.698149  1067 net.cpp:382] conv1 -> conv1
I0428 20:18:10.701081  1067 net.cpp:124] Setting up conv1
I0428 20:18:10.701097  1067 net.cpp:131] Top shape: 64 10 8 8 (40960)
I0428 20:18:10.701102  1067 net.cpp:139] Memory required for data: 9580800
I0428 20:18:10.701110  1067 layer_factory.hpp:77] Creating layer pool1
I0428 20:18:10.701118  1067 net.cpp:86] Creating Layer pool1
I0428 20:18:10.701123  1067 net.cpp:408] pool1 <- conv1
I0428 20:18:10.701128  1067 net.cpp:382] pool1 -> pool1
I0428 20:18:10.701169  1067 net.cpp:124] Setting up pool1
I0428 20:18:10.701175  1067 net.cpp:131] Top shape: 64 10 4 4 (10240)
I0428 20:18:10.701179  1067 net.cpp:139] Memory required for data: 9621760
I0428 20:18:10.701181  1067 layer_factory.hpp:77] Creating layer ip1
I0428 20:18:10.701189  1067 net.cpp:86] Creating Layer ip1
I0428 20:18:10.701191  1067 net.cpp:408] ip1 <- pool1
I0428 20:18:10.701197  1067 net.cpp:382] ip1 -> ip1
I0428 20:18:10.701330  1067 net.cpp:124] Setting up ip1
I0428 20:18:10.701339  1067 net.cpp:131] Top shape: 64 25 (1600)
I0428 20:18:10.701341  1067 net.cpp:139] Memory required for data: 9628160
I0428 20:18:10.701349  1067 layer_factory.hpp:77] Creating layer relu1
I0428 20:18:10.701356  1067 net.cpp:86] Creating Layer relu1
I0428 20:18:10.701359  1067 net.cpp:408] relu1 <- ip1
I0428 20:18:10.701365  1067 net.cpp:369] relu1 -> ip1 (in-place)
I0428 20:18:10.701555  1067 net.cpp:124] Setting up relu1
I0428 20:18:10.701565  1067 net.cpp:131] Top shape: 64 25 (1600)
I0428 20:18:10.701568  1067 net.cpp:139] Memory required for data: 9634560
I0428 20:18:10.701571  1067 layer_factory.hpp:77] Creating layer ip2
I0428 20:18:10.701578  1067 net.cpp:86] Creating Layer ip2
I0428 20:18:10.701581  1067 net.cpp:408] ip2 <- ip1
I0428 20:18:10.701587  1067 net.cpp:382] ip2 -> ip2
I0428 20:18:10.701696  1067 net.cpp:124] Setting up ip2
I0428 20:18:10.701704  1067 net.cpp:131] Top shape: 64 25 (1600)
I0428 20:18:10.701706  1067 net.cpp:139] Memory required for data: 9640960
I0428 20:18:10.701712  1067 layer_factory.hpp:77] Creating layer relu2
I0428 20:18:10.701719  1067 net.cpp:86] Creating Layer relu2
I0428 20:18:10.701721  1067 net.cpp:408] relu2 <- ip2
I0428 20:18:10.701727  1067 net.cpp:369] relu2 -> ip2 (in-place)
I0428 20:18:10.702497  1067 net.cpp:124] Setting up relu2
I0428 20:18:10.702509  1067 net.cpp:131] Top shape: 64 25 (1600)
I0428 20:18:10.702512  1067 net.cpp:139] Memory required for data: 9647360
I0428 20:18:10.702517  1067 layer_factory.hpp:77] Creating layer ip3
I0428 20:18:10.702524  1067 net.cpp:86] Creating Layer ip3
I0428 20:18:10.702528  1067 net.cpp:408] ip3 <- ip2
I0428 20:18:10.702533  1067 net.cpp:382] ip3 -> ip3
I0428 20:18:10.702651  1067 net.cpp:124] Setting up ip3
I0428 20:18:10.702658  1067 net.cpp:131] Top shape: 64 10 (640)
I0428 20:18:10.702661  1067 net.cpp:139] Memory required for data: 9649920
I0428 20:18:10.702671  1067 layer_factory.hpp:77] Creating layer relu3
I0428 20:18:10.702677  1067 net.cpp:86] Creating Layer relu3
I0428 20:18:10.702679  1067 net.cpp:408] relu3 <- ip3
I0428 20:18:10.702683  1067 net.cpp:369] relu3 -> ip3 (in-place)
I0428 20:18:10.702872  1067 net.cpp:124] Setting up relu3
I0428 20:18:10.702883  1067 net.cpp:131] Top shape: 64 10 (640)
I0428 20:18:10.702886  1067 net.cpp:139] Memory required for data: 9652480
I0428 20:18:10.702889  1067 layer_factory.hpp:77] Creating layer loss
I0428 20:18:10.702895  1067 net.cpp:86] Creating Layer loss
I0428 20:18:10.702898  1067 net.cpp:408] loss <- ip3
I0428 20:18:10.702903  1067 net.cpp:408] loss <- label
I0428 20:18:10.702908  1067 net.cpp:382] loss -> loss
I0428 20:18:10.702926  1067 layer_factory.hpp:77] Creating layer loss
…
I0428 20:18:10.703634  1067 solver.cpp:173] Creating test net (#0) specified by net file: ECE595/mnist/train_test/var_everything2/lenet_train_test1312.prototxt
I0428 20:18:10.703665  1067 net.cpp:296] The NetState phase (1) differed from the phase (0) specified by a rule in layer mnist
I0428 20:18:10.703765  1067 net.cpp:53] Initializing net from parameters: 
name: "LeNet"
state {
  phase: TEST
}
layer {
  name: "mnist"
  type: "Data"
  top: "data"
  top: "label"
  include {
    phase: TEST
  }
  transform_param {
    scale: 0.00390625
  }
  data_param {
    source: "examples/mnist/mnist_test_lmdb"
    batch_size: 100
    backend: LMDB
  }
}
layer {
  name: "conv0"
  type: "Convolution"
  bottom: "data"
  top: "conv0"
  param {
    lr_mult: 1
  }
  param {
    lr_mult: 2
  }
  convolution_param {
    num_output: 50
    kernel_size: 5
    stride: 1
    weight_filler {
      type: "xavier"
    }
    bias_filler {
      type: "constant"
    }
  }
}
layer {
  name: "pool0"
  type: "Pooling"
  bottom: "conv0"
  top: "pool0"
  pooling_param {
    pool: MAX
    kernel_size: 2
    stride: 2
  }
}
layer {
  name: "conv1"
  type: "Convolution"
  bottom: "pool0"
  top: "conv1"
  param {
    lr_mult: 1
  }
  param {
    lr_mult: 2
  }
  convolution_param {
    num_output: 10
    kernel_size: 5
    stride: 1
    weight_filler {
      type: "xavier"
    }
    bias_filler {
      type: "constant"
    }
  }
}
layer {
  name: "pool1"
  type: "Pooling"
  bottom: "conv1"
  top: "pool1"
  pooling_param {
    pool: MAX
    kernel_size: 2
    stride: 2
  }
}
layer {
  name: "ip1"
  type: "InnerProduct"
  bottom: "pool1"
  top: "ip1"
  param {
    lr_mult: 1
  }
  param {
    lr_mult: 2
  }
  inner_product_param {
    num_output: 25
    weight_filler {
      type: "xavier"
    }
    bias_filler {
      type: "constant"
    }
  }
}
layer {
  name: "relu1"
  type: "ReLU"
  bottom: "ip1"
  top: "ip1"
}
layer {
  name: "ip2"
  type: "InnerProduct"
  bottom: "ip1"
  top: "ip2"
  param {
    lr_mult: 1
  }
  param {
    lr_mult: 2
  }
  inner_product_param {
    num_output: 25
    weight_filler {
      type: "xavier"
    }
    bias_filler {
      type: "constant"
    }
  }
}
layer {
  name: "relu2"
  type: "ReLU"
  bottom: "ip2"
  top: "ip2"
}
layer {
  name: "ip3"
  type: "InnerProduct"
  bottom: "ip2"
  top: "ip3"
  param {
    lr_mult: 1
  }
  param {
    lr_mult: 2
  }
  inner_product_param {
    num_output: 10
    weight_filler {
      type: "xavier"
    }
    bias_filler {
      type: "constant"
    }
  }
}
layer {
  name: "relu3"
  type: "ReLU"
  bottom: "ip3"
  top: "ip3"
}
layer {
  name: "accuracy"
  type: "Accuracy"
  bottom: "ip3"
  bottom: "label"
  top: "accuracy"
  include {
    phase: TEST
  }
}
layer {
  name: "loss"
  type: "SoftmaxWithLoss"
  bottom: "ip3"
  bottom: "label"
  top: "loss"
}
I0428 20:18:10.703855  1067 layer_factory.hpp:77] Creating layer mnist
I0428 20:18:10.703900  1067 db_lmdb.cpp:35] Opened lmdb examples/mnist/mnist_test_lmdb
I0428 20:18:10.703914  1067 net.cpp:86] Creating Layer mnist
I0428 20:18:10.703920  1067 net.cpp:382] mnist -> data
I0428 20:18:10.703927  1067 net.cpp:382] mnist -> label
I0428 20:18:10.704020  1067 data_layer.cpp:45] output data size: 100,1,28,28
I0428 20:18:10.706089  1067 net.cpp:124] Setting up mnist
I0428 20:18:10.706104  1067 net.cpp:131] Top shape: 100 1 28 28 (78400)
I0428 20:18:10.706125  1067 net.cpp:131] Top shape: 100 (100)
I0428 20:18:10.706128  1067 net.cpp:139] Memory required for data: 314000
I0428 20:18:10.706132  1067 layer_factory.hpp:77] Creating layer label_mnist_1_split
I0428 20:18:10.706140  1067 net.cpp:86] Creating Layer label_mnist_1_split
I0428 20:18:10.706142  1067 net.cpp:408] label_mnist_1_split <- label
I0428 20:18:10.706161  1067 net.cpp:382] label_mnist_1_split -> label_mnist_1_split_0
I0428 20:18:10.706168  1067 net.cpp:382] label_mnist_1_split -> label_mnist_1_split_1
I0428 20:18:10.706215  1067 net.cpp:124] Setting up label_mnist_1_split
I0428 20:18:10.706223  1067 net.cpp:131] Top shape: 100 (100)
I0428 20:18:10.706226  1067 net.cpp:131] Top shape: 100 (100)
I0428 20:18:10.706228  1067 net.cpp:139] Memory required for data: 314800
I0428 20:18:10.706233  1067 layer_factory.hpp:77] Creating layer conv0
I0428 20:18:10.706252  1067 net.cpp:86] Creating Layer conv0
I0428 20:18:10.706256  1067 net.cpp:408] conv0 <- data
I0428 20:18:10.706261  1067 net.cpp:382] conv0 -> conv0
I0428 20:18:10.708106  1067 net.cpp:124] Setting up conv0
I0428 20:18:10.708137  1067 net.cpp:131] Top shape: 100 50 24 24 (2880000)
I0428 20:18:10.708139  1067 net.cpp:139] Memory required for data: 11834800
I0428 20:18:10.708149  1067 layer_factory.hpp:77] Creating layer pool0
I0428 20:18:10.708156  1067 net.cpp:86] Creating Layer pool0
I0428 20:18:10.708160  1067 net.cpp:408] pool0 <- conv0
I0428 20:18:10.708166  1067 net.cpp:382] pool0 -> pool0
I0428 20:18:10.708207  1067 net.cpp:124] Setting up pool0
I0428 20:18:10.708214  1067 net.cpp:131] Top shape: 100 50 12 12 (720000)
I0428 20:18:10.708216  1067 net.cpp:139] Memory required for data: 14714800
I0428 20:18:10.708220  1067 layer_factory.hpp:77] Creating layer conv1
I0428 20:18:10.708230  1067 net.cpp:86] Creating Layer conv1
I0428 20:18:10.708233  1067 net.cpp:408] conv1 <- pool0
I0428 20:18:10.708240  1067 net.cpp:382] conv1 -> conv1
I0428 20:18:10.709990  1067 net.cpp:124] Setting up conv1
I0428 20:18:10.710005  1067 net.cpp:131] Top shape: 100 10 8 8 (64000)
I0428 20:18:10.710008  1067 net.cpp:139] Memory required for data: 14970800
I0428 20:18:10.710019  1067 layer_factory.hpp:77] Creating layer pool1
I0428 20:18:10.710026  1067 net.cpp:86] Creating Layer pool1
I0428 20:18:10.710029  1067 net.cpp:408] pool1 <- conv1
I0428 20:18:10.710034  1067 net.cpp:382] pool1 -> pool1
I0428 20:18:10.710072  1067 net.cpp:124] Setting up pool1
I0428 20:18:10.710078  1067 net.cpp:131] Top shape: 100 10 4 4 (16000)
I0428 20:18:10.710079  1067 net.cpp:139] Memory required for data: 15034800
I0428 20:18:10.710083  1067 layer_factory.hpp:77] Creating layer ip1
I0428 20:18:10.710089  1067 net.cpp:86] Creating Layer ip1
I0428 20:18:10.710098  1067 net.cpp:408] ip1 <- pool1
I0428 20:18:10.710105  1067 net.cpp:382] ip1 -> ip1
I0428 20:18:10.710230  1067 net.cpp:124] Setting up ip1
I0428 20:18:10.710238  1067 net.cpp:131] Top shape: 100 25 (2500)
I0428 20:18:10.710252  1067 net.cpp:139] Memory required for data: 15044800
I0428 20:18:10.710259  1067 layer_factory.hpp:77] Creating layer relu1
I0428 20:18:10.710266  1067 net.cpp:86] Creating Layer relu1
I0428 20:18:10.710269  1067 net.cpp:408] relu1 <- ip1
I0428 20:18:10.710279  1067 net.cpp:369] relu1 -> ip1 (in-place)
I0428 20:18:10.710471  1067 net.cpp:124] Setting up relu1
I0428 20:18:10.710480  1067 net.cpp:131] Top shape: 100 25 (2500)
I0428 20:18:10.710489  1067 net.cpp:139] Memory required for data: 15054800
I0428 20:18:10.710491  1067 layer_factory.hpp:77] Creating layer ip2
I0428 20:18:10.710500  1067 net.cpp:86] Creating Layer ip2
I0428 20:18:10.710503  1067 net.cpp:408] ip2 <- ip1
I0428 20:18:10.710507  1067 net.cpp:382] ip2 -> ip2
I0428 20:18:10.710613  1067 net.cpp:124] Setting up ip2
I0428 20:18:10.710621  1067 net.cpp:131] Top shape: 100 25 (2500)
I0428 20:18:10.710624  1067 net.cpp:139] Memory required for data: 15064800
I0428 20:18:10.710630  1067 layer_factory.hpp:77] Creating layer relu2
I0428 20:18:10.710635  1067 net.cpp:86] Creating Layer relu2
I0428 20:18:10.710638  1067 net.cpp:408] relu2 <- ip2
I0428 20:18:10.710644  1067 net.cpp:369] relu2 -> ip2 (in-place)
I0428 20:18:10.710832  1067 net.cpp:124] Setting up relu2
I0428 20:18:10.710841  1067 net.cpp:131] Top shape: 100 25 (2500)
I0428 20:18:10.710844  1067 net.cpp:139] Memory required for data: 15074800
I0428 20:18:10.710847  1067 layer_factory.hpp:77] Creating layer ip3
I0428 20:18:10.710853  1067 net.cpp:86] Creating Layer ip3
I0428 20:18:10.710856  1067 net.cpp:408] ip3 <- ip2
I0428 20:18:10.710862  1067 net.cpp:382] ip3 -> ip3
I0428 20:18:10.710983  1067 net.cpp:124] Setting up ip3
I0428 20:18:10.710991  1067 net.cpp:131] Top shape: 100 10 (1000)
I0428 20:18:10.710994  1067 net.cpp:139] Memory required for data: 15078800
I0428 20:18:10.711002  1067 layer_factory.hpp:77] Creating layer relu3
I0428 20:18:10.711006  1067 net.cpp:86] Creating Layer relu3
I0428 20:18:10.711009  1067 net.cpp:408] relu3 <- ip3
I0428 20:18:10.711014  1067 net.cpp:369] relu3 -> ip3 (in-place)
I0428 20:18:10.711805  1067 net.cpp:124] Setting up relu3
I0428 20:18:10.711817  1067 net.cpp:131] Top shape: 100 10 (1000)
I0428 20:18:10.711820  1067 net.cpp:139] Memory required for data: 15082800
I0428 20:18:10.711823  1067 layer_factory.hpp:77] Creating layer ip3_relu3_0_split
I0428 20:18:10.711830  1067 net.cpp:86] Creating Layer ip3_relu3_0_split
I0428 20:18:10.711834  1067 net.cpp:408] ip3_relu3_0_split <- ip3
I0428 20:18:10.711840  1067 net.cpp:382] ip3_relu3_0_split -> ip3_relu3_0_split_0
I0428 20:18:10.711846  1067 net.cpp:382] ip3_relu3_0_split -> ip3_relu3_0_split_1
I0428 20:18:10.711884  1067 net.cpp:124] Setting up ip3_relu3_0_split
I0428 20:18:10.711889  1067 net.cpp:131] Top shape: 100 10 (1000)
I0428 20:18:10.711894  1067 net.cpp:131] Top shape: 100 10 (1000)
I0428 20:18:10.711895  1067 net.cpp:139] Memory required for data: 15090800
I0428 20:18:10.711899  1067 layer_factory.hpp:77] Creating layer accuracy
I0428 20:18:10.711906  1067 net.cpp:86] Creating Layer accuracy
I0428 20:18:10.711915  1067 net.cpp:408] accuracy <- ip3_relu3_0_split_0
I0428 20:18:10.711920  1067 net.cpp:408] accuracy <- label_mnist_1_split_0
I0428 20:18:10.711925  1067 net.cpp:382] accuracy -> accuracy
…
