…
I0428 19:47:51.432171 26338 net.cpp:296] The NetState phase (0) differed from the phase (1) specified by a rule in layer mnist
I0428 19:47:51.432186 26338 net.cpp:296] The NetState phase (0) differed from the phase (1) specified by a rule in layer accuracy
I0428 19:47:51.432265 26338 net.cpp:53] Initializing net from parameters: 
name: "LeNet"
state {
  phase: TRAIN
  level: 0
  stage: ""
}
layer {
  name: "mnist"
  type: "Data"
  top: "data"
  top: "label"
  include {
    phase: TRAIN
  }
  transform_param {
    scale: 0.00390625
  }
  data_param {
    source: "examples/mnist/mnist_train_lmdb"
    batch_size: 64
    backend: LMDB
  }
}
layer {
  name: "conv0"
  type: "Convolution"
  bottom: "data"
  top: "conv0"
  param {
    lr_mult: 1
  }
  param {
    lr_mult: 2
  }
  convolution_param {
    num_output: 5
    kernel_size: 5
    stride: 1
    weight_filler {
      type: "xavier"
    }
    bias_filler {
      type: "constant"
    }
  }
}
layer {
  name: "pool0"
  type: "Pooling"
  bottom: "conv0"
  top: "pool0"
  pooling_param {
    pool: MAX
    kernel_size: 2
    stride: 2
  }
}
layer {
  name: "conv1"
  type: "Convolution"
  bottom: "pool0"
  top: "conv1"
  param {
    lr_mult: 1
  }
  param {
    lr_mult: 2
  }
  convolution_param {
    num_output: 2
    kernel_size: 5
    stride: 1
    weight_filler {
      type: "xavier"
    }
    bias_filler {
      type: "constant"
    }
  }
}
layer {
  name: "pool1"
  type: "Pooling"
  bottom: "conv1"
  top: "pool1"
  pooling_param {
    pool: MAX
    kernel_size: 2
    stride: 2
  }
}
layer {
  name: "ip1"
  type: "InnerProduct"
  bottom: "pool1"
  top: "ip1"
  param {
    lr_mult: 1
  }
  param {
    lr_mult: 2
  }
  inner_product_param {
    num_output: 10
    weight_filler {
      type: "xavier"
    }
    bias_filler {
      type: "constant"
    }
  }
}
layer {
  name: "relu1"
  type: "ReLU"
  bottom: "ip1"
  top: "ip1"
}
layer {
  name: "ip2"
  type: "InnerProduct"
  bottom: "ip1"
  top: "ip2"
  param {
    lr_mult: 1
  }
  param {
    lr_mult: 2
  }
  inner_product_param {
    num_output: 50
    weight_filler {
      type: "xavier"
    }
    bias_filler {
      type: "constant"
    }
  }
}
layer {
  name: "relu2"
  type: "ReLU"
  bottom: "ip2"
  top: "ip2"
}
layer {
  name: "ip3"
  type: "InnerProduct"
  bottom: "ip2"
  top: "ip3"
  param {
    lr_mult: 1
  }
  param {
    lr_mult: 2
  }
  inner_product_param {
    num_output: 10
    weight_filler {
      type: "xavier"
    }
    bias_filler {
      type: "constant"
    }
  }
}
layer {
  name: "relu3"
  type: "ReLU"
  bottom: "ip3"
  top: "ip3"
}
layer {
  name: "loss"
  type: "SoftmaxWithLoss"
  bottom: "ip3"
  bottom: "label"
  top: "loss"
}
I0428 19:47:51.432327 26338 layer_factory.hpp:77] Creating layer mnist
I0428 19:47:51.432404 26338 db_lmdb.cpp:35] Opened lmdb examples/mnist/mnist_train_lmdb
I0428 19:47:51.432423 26338 net.cpp:86] Creating Layer mnist
I0428 19:47:51.432431 26338 net.cpp:382] mnist -> data
I0428 19:47:51.432448 26338 net.cpp:382] mnist -> label
I0428 19:47:51.433468 26338 data_layer.cpp:45] output data size: 64,1,28,28
I0428 19:47:51.435755 26338 net.cpp:124] Setting up mnist
I0428 19:47:51.435797 26338 net.cpp:131] Top shape: 64 1 28 28 (50176)
I0428 19:47:51.435802 26338 net.cpp:131] Top shape: 64 (64)
I0428 19:47:51.435822 26338 net.cpp:139] Memory required for data: 200960
I0428 19:47:51.435828 26338 layer_factory.hpp:77] Creating layer conv0
I0428 19:47:51.435842 26338 net.cpp:86] Creating Layer conv0
I0428 19:47:51.435860 26338 net.cpp:408] conv0 <- data
I0428 19:47:51.435871 26338 net.cpp:382] conv0 -> conv0
I0428 19:47:51.666556 26338 net.cpp:124] Setting up conv0
I0428 19:47:51.666584 26338 net.cpp:131] Top shape: 64 5 24 24 (184320)
I0428 19:47:51.666586 26338 net.cpp:139] Memory required for data: 938240
I0428 19:47:51.666599 26338 layer_factory.hpp:77] Creating layer pool0
I0428 19:47:51.666611 26338 net.cpp:86] Creating Layer pool0
I0428 19:47:51.666615 26338 net.cpp:408] pool0 <- conv0
I0428 19:47:51.666620 26338 net.cpp:382] pool0 -> pool0
I0428 19:47:51.666679 26338 net.cpp:124] Setting up pool0
I0428 19:47:51.666684 26338 net.cpp:131] Top shape: 64 5 12 12 (46080)
I0428 19:47:51.666687 26338 net.cpp:139] Memory required for data: 1122560
I0428 19:47:51.666690 26338 layer_factory.hpp:77] Creating layer conv1
I0428 19:47:51.666700 26338 net.cpp:86] Creating Layer conv1
I0428 19:47:51.666703 26338 net.cpp:408] conv1 <- pool0
I0428 19:47:51.666708 26338 net.cpp:382] conv1 -> conv1
I0428 19:47:51.668491 26338 net.cpp:124] Setting up conv1
I0428 19:47:51.668520 26338 net.cpp:131] Top shape: 64 2 8 8 (8192)
I0428 19:47:51.668524 26338 net.cpp:139] Memory required for data: 1155328
I0428 19:47:51.668532 26338 layer_factory.hpp:77] Creating layer pool1
I0428 19:47:51.668540 26338 net.cpp:86] Creating Layer pool1
I0428 19:47:51.668545 26338 net.cpp:408] pool1 <- conv1
I0428 19:47:51.668548 26338 net.cpp:382] pool1 -> pool1
I0428 19:47:51.668584 26338 net.cpp:124] Setting up pool1
I0428 19:47:51.668589 26338 net.cpp:131] Top shape: 64 2 4 4 (2048)
I0428 19:47:51.668593 26338 net.cpp:139] Memory required for data: 1163520
I0428 19:47:51.668596 26338 layer_factory.hpp:77] Creating layer ip1
I0428 19:47:51.668602 26338 net.cpp:86] Creating Layer ip1
I0428 19:47:51.668606 26338 net.cpp:408] ip1 <- pool1
I0428 19:47:51.668609 26338 net.cpp:382] ip1 -> ip1
I0428 19:47:51.668702 26338 net.cpp:124] Setting up ip1
I0428 19:47:51.668709 26338 net.cpp:131] Top shape: 64 10 (640)
I0428 19:47:51.668712 26338 net.cpp:139] Memory required for data: 1166080
I0428 19:47:51.668720 26338 layer_factory.hpp:77] Creating layer relu1
I0428 19:47:51.668725 26338 net.cpp:86] Creating Layer relu1
I0428 19:47:51.668728 26338 net.cpp:408] relu1 <- ip1
I0428 19:47:51.668732 26338 net.cpp:369] relu1 -> ip1 (in-place)
I0428 19:47:51.668941 26338 net.cpp:124] Setting up relu1
I0428 19:47:51.668951 26338 net.cpp:131] Top shape: 64 10 (640)
I0428 19:47:51.668954 26338 net.cpp:139] Memory required for data: 1168640
I0428 19:47:51.668958 26338 layer_factory.hpp:77] Creating layer ip2
I0428 19:47:51.668964 26338 net.cpp:86] Creating Layer ip2
I0428 19:47:51.668968 26338 net.cpp:408] ip2 <- ip1
I0428 19:47:51.668973 26338 net.cpp:382] ip2 -> ip2
I0428 19:47:51.669072 26338 net.cpp:124] Setting up ip2
I0428 19:47:51.669080 26338 net.cpp:131] Top shape: 64 50 (3200)
I0428 19:47:51.669082 26338 net.cpp:139] Memory required for data: 1181440
I0428 19:47:51.669088 26338 layer_factory.hpp:77] Creating layer relu2
I0428 19:47:51.669095 26338 net.cpp:86] Creating Layer relu2
I0428 19:47:51.669097 26338 net.cpp:408] relu2 <- ip2
I0428 19:47:51.669101 26338 net.cpp:369] relu2 -> ip2 (in-place)
I0428 19:47:51.669906 26338 net.cpp:124] Setting up relu2
I0428 19:47:51.669919 26338 net.cpp:131] Top shape: 64 50 (3200)
I0428 19:47:51.669937 26338 net.cpp:139] Memory required for data: 1194240
I0428 19:47:51.669940 26338 layer_factory.hpp:77] Creating layer ip3
I0428 19:47:51.669947 26338 net.cpp:86] Creating Layer ip3
I0428 19:47:51.669950 26338 net.cpp:408] ip3 <- ip2
I0428 19:47:51.669956 26338 net.cpp:382] ip3 -> ip3
I0428 19:47:51.670073 26338 net.cpp:124] Setting up ip3
I0428 19:47:51.670081 26338 net.cpp:131] Top shape: 64 10 (640)
I0428 19:47:51.670084 26338 net.cpp:139] Memory required for data: 1196800
I0428 19:47:51.670092 26338 layer_factory.hpp:77] Creating layer relu3
I0428 19:47:51.670097 26338 net.cpp:86] Creating Layer relu3
I0428 19:47:51.670100 26338 net.cpp:408] relu3 <- ip3
I0428 19:47:51.670104 26338 net.cpp:369] relu3 -> ip3 (in-place)
I0428 19:47:51.670313 26338 net.cpp:124] Setting up relu3
I0428 19:47:51.670336 26338 net.cpp:131] Top shape: 64 10 (640)
I0428 19:47:51.670339 26338 net.cpp:139] Memory required for data: 1199360
I0428 19:47:51.670357 26338 layer_factory.hpp:77] Creating layer loss
I0428 19:47:51.670363 26338 net.cpp:86] Creating Layer loss
I0428 19:47:51.670367 26338 net.cpp:408] loss <- ip3
I0428 19:47:51.670369 26338 net.cpp:408] loss <- label
I0428 19:47:51.670375 26338 net.cpp:382] loss -> loss
I0428 19:47:51.670389 26338 layer_factory.hpp:77] Creating layer loss
…
I0428 19:47:51.671061 26338 solver.cpp:173] Creating test net (#0) specified by net file: ECE595/mnist/train_test/var_everything2/lenet_train_test527.prototxt
I0428 19:47:51.671087 26338 net.cpp:296] The NetState phase (1) differed from the phase (0) specified by a rule in layer mnist
I0428 19:47:51.671180 26338 net.cpp:53] Initializing net from parameters: 
name: "LeNet"
state {
  phase: TEST
}
layer {
  name: "mnist"
  type: "Data"
  top: "data"
  top: "label"
  include {
    phase: TEST
  }
  transform_param {
    scale: 0.00390625
  }
  data_param {
    source: "examples/mnist/mnist_test_lmdb"
    batch_size: 100
    backend: LMDB
  }
}
layer {
  name: "conv0"
  type: "Convolution"
  bottom: "data"
  top: "conv0"
  param {
    lr_mult: 1
  }
  param {
    lr_mult: 2
  }
  convolution_param {
    num_output: 5
    kernel_size: 5
    stride: 1
    weight_filler {
      type: "xavier"
    }
    bias_filler {
      type: "constant"
    }
  }
}
layer {
  name: "pool0"
  type: "Pooling"
  bottom: "conv0"
  top: "pool0"
  pooling_param {
    pool: MAX
    kernel_size: 2
    stride: 2
  }
}
layer {
  name: "conv1"
  type: "Convolution"
  bottom: "pool0"
  top: "conv1"
  param {
    lr_mult: 1
  }
  param {
    lr_mult: 2
  }
  convolution_param {
    num_output: 2
    kernel_size: 5
    stride: 1
    weight_filler {
      type: "xavier"
    }
    bias_filler {
      type: "constant"
    }
  }
}
layer {
  name: "pool1"
  type: "Pooling"
  bottom: "conv1"
  top: "pool1"
  pooling_param {
    pool: MAX
    kernel_size: 2
    stride: 2
  }
}
layer {
  name: "ip1"
  type: "InnerProduct"
  bottom: "pool1"
  top: "ip1"
  param {
    lr_mult: 1
  }
  param {
    lr_mult: 2
  }
  inner_product_param {
    num_output: 10
    weight_filler {
      type: "xavier"
    }
    bias_filler {
      type: "constant"
    }
  }
}
layer {
  name: "relu1"
  type: "ReLU"
  bottom: "ip1"
  top: "ip1"
}
layer {
  name: "ip2"
  type: "InnerProduct"
  bottom: "ip1"
  top: "ip2"
  param {
    lr_mult: 1
  }
  param {
    lr_mult: 2
  }
  inner_product_param {
    num_output: 50
    weight_filler {
      type: "xavier"
    }
    bias_filler {
      type: "constant"
    }
  }
}
layer {
  name: "relu2"
  type: "ReLU"
  bottom: "ip2"
  top: "ip2"
}
layer {
  name: "ip3"
  type: "InnerProduct"
  bottom: "ip2"
  top: "ip3"
  param {
    lr_mult: 1
  }
  param {
    lr_mult: 2
  }
  inner_product_param {
    num_output: 10
    weight_filler {
      type: "xavier"
    }
    bias_filler {
      type: "constant"
    }
  }
}
layer {
  name: "relu3"
  type: "ReLU"
  bottom: "ip3"
  top: "ip3"
}
layer {
  name: "accuracy"
  type: "Accuracy"
  bottom: "ip3"
  bottom: "label"
  top: "accuracy"
  include {
    phase: TEST
  }
}
layer {
  name: "loss"
  type: "SoftmaxWithLoss"
  bottom: "ip3"
  bottom: "label"
  top: "loss"
}
I0428 19:47:51.671258 26338 layer_factory.hpp:77] Creating layer mnist
I0428 19:47:51.671316 26338 db_lmdb.cpp:35] Opened lmdb examples/mnist/mnist_test_lmdb
I0428 19:47:51.671329 26338 net.cpp:86] Creating Layer mnist
I0428 19:47:51.671332 26338 net.cpp:382] mnist -> data
I0428 19:47:51.671340 26338 net.cpp:382] mnist -> label
I0428 19:47:51.671434 26338 data_layer.cpp:45] output data size: 100,1,28,28
I0428 19:47:51.673691 26338 net.cpp:124] Setting up mnist
I0428 19:47:51.673735 26338 net.cpp:131] Top shape: 100 1 28 28 (78400)
I0428 19:47:51.673740 26338 net.cpp:131] Top shape: 100 (100)
I0428 19:47:51.673744 26338 net.cpp:139] Memory required for data: 314000
I0428 19:47:51.673748 26338 layer_factory.hpp:77] Creating layer label_mnist_1_split
I0428 19:47:51.673754 26338 net.cpp:86] Creating Layer label_mnist_1_split
I0428 19:47:51.673758 26338 net.cpp:408] label_mnist_1_split <- label
I0428 19:47:51.673763 26338 net.cpp:382] label_mnist_1_split -> label_mnist_1_split_0
I0428 19:47:51.673769 26338 net.cpp:382] label_mnist_1_split -> label_mnist_1_split_1
I0428 19:47:51.673818 26338 net.cpp:124] Setting up label_mnist_1_split
I0428 19:47:51.673823 26338 net.cpp:131] Top shape: 100 (100)
I0428 19:47:51.673827 26338 net.cpp:131] Top shape: 100 (100)
I0428 19:47:51.673830 26338 net.cpp:139] Memory required for data: 314800
I0428 19:47:51.673833 26338 layer_factory.hpp:77] Creating layer conv0
I0428 19:47:51.673841 26338 net.cpp:86] Creating Layer conv0
I0428 19:47:51.673844 26338 net.cpp:408] conv0 <- data
I0428 19:47:51.673849 26338 net.cpp:382] conv0 -> conv0
I0428 19:47:51.675418 26338 net.cpp:124] Setting up conv0
I0428 19:47:51.675431 26338 net.cpp:131] Top shape: 100 5 24 24 (288000)
I0428 19:47:51.675451 26338 net.cpp:139] Memory required for data: 1466800
I0428 19:47:51.675458 26338 layer_factory.hpp:77] Creating layer pool0
I0428 19:47:51.675464 26338 net.cpp:86] Creating Layer pool0
I0428 19:47:51.675468 26338 net.cpp:408] pool0 <- conv0
I0428 19:47:51.675472 26338 net.cpp:382] pool0 -> pool0
I0428 19:47:51.675523 26338 net.cpp:124] Setting up pool0
I0428 19:47:51.675528 26338 net.cpp:131] Top shape: 100 5 12 12 (72000)
I0428 19:47:51.675530 26338 net.cpp:139] Memory required for data: 1754800
I0428 19:47:51.675534 26338 layer_factory.hpp:77] Creating layer conv1
I0428 19:47:51.675541 26338 net.cpp:86] Creating Layer conv1
I0428 19:47:51.675544 26338 net.cpp:408] conv1 <- pool0
I0428 19:47:51.675549 26338 net.cpp:382] conv1 -> conv1
I0428 19:47:51.677681 26338 net.cpp:124] Setting up conv1
I0428 19:47:51.677726 26338 net.cpp:131] Top shape: 100 2 8 8 (12800)
I0428 19:47:51.677729 26338 net.cpp:139] Memory required for data: 1806000
I0428 19:47:51.677738 26338 layer_factory.hpp:77] Creating layer pool1
I0428 19:47:51.677752 26338 net.cpp:86] Creating Layer pool1
I0428 19:47:51.677755 26338 net.cpp:408] pool1 <- conv1
I0428 19:47:51.677760 26338 net.cpp:382] pool1 -> pool1
I0428 19:47:51.677839 26338 net.cpp:124] Setting up pool1
I0428 19:47:51.677846 26338 net.cpp:131] Top shape: 100 2 4 4 (3200)
I0428 19:47:51.677850 26338 net.cpp:139] Memory required for data: 1818800
I0428 19:47:51.677851 26338 layer_factory.hpp:77] Creating layer ip1
I0428 19:47:51.677857 26338 net.cpp:86] Creating Layer ip1
I0428 19:47:51.677860 26338 net.cpp:408] ip1 <- pool1
I0428 19:47:51.677865 26338 net.cpp:382] ip1 -> ip1
I0428 19:47:51.677971 26338 net.cpp:124] Setting up ip1
I0428 19:47:51.677978 26338 net.cpp:131] Top shape: 100 10 (1000)
I0428 19:47:51.677992 26338 net.cpp:139] Memory required for data: 1822800
I0428 19:47:51.677999 26338 layer_factory.hpp:77] Creating layer relu1
I0428 19:47:51.678004 26338 net.cpp:86] Creating Layer relu1
I0428 19:47:51.678007 26338 net.cpp:408] relu1 <- ip1
I0428 19:47:51.678012 26338 net.cpp:369] relu1 -> ip1 (in-place)
I0428 19:47:51.678243 26338 net.cpp:124] Setting up relu1
I0428 19:47:51.678252 26338 net.cpp:131] Top shape: 100 10 (1000)
I0428 19:47:51.678256 26338 net.cpp:139] Memory required for data: 1826800
I0428 19:47:51.678259 26338 layer_factory.hpp:77] Creating layer ip2
I0428 19:47:51.678267 26338 net.cpp:86] Creating Layer ip2
I0428 19:47:51.678270 26338 net.cpp:408] ip2 <- ip1
I0428 19:47:51.678275 26338 net.cpp:382] ip2 -> ip2
I0428 19:47:51.678395 26338 net.cpp:124] Setting up ip2
I0428 19:47:51.678402 26338 net.cpp:131] Top shape: 100 50 (5000)
I0428 19:47:51.678406 26338 net.cpp:139] Memory required for data: 1846800
I0428 19:47:51.678412 26338 layer_factory.hpp:77] Creating layer relu2
I0428 19:47:51.678416 26338 net.cpp:86] Creating Layer relu2
I0428 19:47:51.678421 26338 net.cpp:408] relu2 <- ip2
I0428 19:47:51.678424 26338 net.cpp:369] relu2 -> ip2 (in-place)
I0428 19:47:51.678582 26338 net.cpp:124] Setting up relu2
I0428 19:47:51.678589 26338 net.cpp:131] Top shape: 100 50 (5000)
I0428 19:47:51.678592 26338 net.cpp:139] Memory required for data: 1866800
I0428 19:47:51.678597 26338 layer_factory.hpp:77] Creating layer ip3
I0428 19:47:51.678602 26338 net.cpp:86] Creating Layer ip3
I0428 19:47:51.678606 26338 net.cpp:408] ip3 <- ip2
I0428 19:47:51.678611 26338 net.cpp:382] ip3 -> ip3
I0428 19:47:51.678716 26338 net.cpp:124] Setting up ip3
I0428 19:47:51.678724 26338 net.cpp:131] Top shape: 100 10 (1000)
I0428 19:47:51.678726 26338 net.cpp:139] Memory required for data: 1870800
I0428 19:47:51.678735 26338 layer_factory.hpp:77] Creating layer relu3
I0428 19:47:51.678740 26338 net.cpp:86] Creating Layer relu3
I0428 19:47:51.678742 26338 net.cpp:408] relu3 <- ip3
I0428 19:47:51.678751 26338 net.cpp:369] relu3 -> ip3 (in-place)
I0428 19:47:51.679620 26338 net.cpp:124] Setting up relu3
I0428 19:47:51.679630 26338 net.cpp:131] Top shape: 100 10 (1000)
I0428 19:47:51.679649 26338 net.cpp:139] Memory required for data: 1874800
I0428 19:47:51.679653 26338 layer_factory.hpp:77] Creating layer ip3_relu3_0_split
I0428 19:47:51.679658 26338 net.cpp:86] Creating Layer ip3_relu3_0_split
I0428 19:47:51.679662 26338 net.cpp:408] ip3_relu3_0_split <- ip3
I0428 19:47:51.679667 26338 net.cpp:382] ip3_relu3_0_split -> ip3_relu3_0_split_0
I0428 19:47:51.679673 26338 net.cpp:382] ip3_relu3_0_split -> ip3_relu3_0_split_1
I0428 19:47:51.679720 26338 net.cpp:124] Setting up ip3_relu3_0_split
I0428 19:47:51.679726 26338 net.cpp:131] Top shape: 100 10 (1000)
I0428 19:47:51.679730 26338 net.cpp:131] Top shape: 100 10 (1000)
I0428 19:47:51.679733 26338 net.cpp:139] Memory required for data: 1882800
I0428 19:47:51.679736 26338 layer_factory.hpp:77] Creating layer accuracy
I0428 19:47:51.679741 26338 net.cpp:86] Creating Layer accuracy
I0428 19:47:51.679744 26338 net.cpp:408] accuracy <- ip3_relu3_0_split_0
I0428 19:47:51.679749 26338 net.cpp:408] accuracy <- label_mnist_1_split_0
I0428 19:47:51.679754 26338 net.cpp:382] accuracy -> accuracy
…
