…
I0428 19:47:36.851646 26238 net.cpp:296] The NetState phase (0) differed from the phase (1) specified by a rule in layer mnist
I0428 19:47:36.851666 26238 net.cpp:296] The NetState phase (0) differed from the phase (1) specified by a rule in layer accuracy
I0428 19:47:36.851768 26238 net.cpp:53] Initializing net from parameters: 
name: "LeNet"
state {
  phase: TRAIN
  level: 0
  stage: ""
}
layer {
  name: "mnist"
  type: "Data"
  top: "data"
  top: "label"
  include {
    phase: TRAIN
  }
  transform_param {
    scale: 0.00390625
  }
  data_param {
    source: "examples/mnist/mnist_train_lmdb"
    batch_size: 64
    backend: LMDB
  }
}
layer {
  name: "conv0"
  type: "Convolution"
  bottom: "data"
  top: "conv0"
  param {
    lr_mult: 1
  }
  param {
    lr_mult: 2
  }
  convolution_param {
    num_output: 5
    kernel_size: 5
    stride: 1
    weight_filler {
      type: "xavier"
    }
    bias_filler {
      type: "constant"
    }
  }
}
layer {
  name: "pool0"
  type: "Pooling"
  bottom: "conv0"
  top: "pool0"
  pooling_param {
    pool: MAX
    kernel_size: 2
    stride: 2
  }
}
layer {
  name: "conv1"
  type: "Convolution"
  bottom: "pool0"
  top: "conv1"
  param {
    lr_mult: 1
  }
  param {
    lr_mult: 2
  }
  convolution_param {
    num_output: 2
    kernel_size: 5
    stride: 1
    weight_filler {
      type: "xavier"
    }
    bias_filler {
      type: "constant"
    }
  }
}
layer {
  name: "pool1"
  type: "Pooling"
  bottom: "conv1"
  top: "pool1"
  pooling_param {
    pool: MAX
    kernel_size: 2
    stride: 2
  }
}
layer {
  name: "ip1"
  type: "InnerProduct"
  bottom: "pool1"
  top: "ip1"
  param {
    lr_mult: 1
  }
  param {
    lr_mult: 2
  }
  inner_product_param {
    num_output: 10
    weight_filler {
      type: "xavier"
    }
    bias_filler {
      type: "constant"
    }
  }
}
layer {
  name: "relu1"
  type: "ReLU"
  bottom: "ip1"
  top: "ip1"
}
layer {
  name: "ip2"
  type: "InnerProduct"
  bottom: "ip1"
  top: "ip2"
  param {
    lr_mult: 1
  }
  param {
    lr_mult: 2
  }
  inner_product_param {
    num_output: 10
    weight_filler {
      type: "xavier"
    }
    bias_filler {
      type: "constant"
    }
  }
}
layer {
  name: "relu2"
  type: "ReLU"
  bottom: "ip2"
  top: "ip2"
}
layer {
  name: "ip3"
  type: "InnerProduct"
  bottom: "ip2"
  top: "ip3"
  param {
    lr_mult: 1
  }
  param {
    lr_mult: 2
  }
  inner_product_param {
    num_output: 10
    weight_filler {
      type: "xavier"
    }
    bias_filler {
      type: "constant"
    }
  }
}
layer {
  name: "relu3"
  type: "ReLU"
  bottom: "ip3"
  top: "ip3"
}
layer {
  name: "loss"
  type: "SoftmaxWithLoss"
  bottom: "ip3"
  bottom: "label"
  top: "loss"
}
I0428 19:47:36.851848 26238 layer_factory.hpp:77] Creating layer mnist
I0428 19:47:36.851949 26238 db_lmdb.cpp:35] Opened lmdb examples/mnist/mnist_train_lmdb
I0428 19:47:36.851974 26238 net.cpp:86] Creating Layer mnist
I0428 19:47:36.851984 26238 net.cpp:382] mnist -> data
I0428 19:47:36.852007 26238 net.cpp:382] mnist -> label
I0428 19:47:36.853107 26238 data_layer.cpp:45] output data size: 64,1,28,28
I0428 19:47:36.855556 26238 net.cpp:124] Setting up mnist
I0428 19:47:36.855573 26238 net.cpp:131] Top shape: 64 1 28 28 (50176)
I0428 19:47:36.855581 26238 net.cpp:131] Top shape: 64 (64)
I0428 19:47:36.855583 26238 net.cpp:139] Memory required for data: 200960
I0428 19:47:36.855592 26238 layer_factory.hpp:77] Creating layer conv0
I0428 19:47:36.855609 26238 net.cpp:86] Creating Layer conv0
I0428 19:47:36.855630 26238 net.cpp:408] conv0 <- data
I0428 19:47:36.855644 26238 net.cpp:382] conv0 -> conv0
I0428 19:47:37.131520 26238 net.cpp:124] Setting up conv0
I0428 19:47:37.131561 26238 net.cpp:131] Top shape: 64 5 24 24 (184320)
I0428 19:47:37.131564 26238 net.cpp:139] Memory required for data: 938240
I0428 19:47:37.131577 26238 layer_factory.hpp:77] Creating layer pool0
I0428 19:47:37.131592 26238 net.cpp:86] Creating Layer pool0
I0428 19:47:37.131595 26238 net.cpp:408] pool0 <- conv0
I0428 19:47:37.131600 26238 net.cpp:382] pool0 -> pool0
I0428 19:47:37.131678 26238 net.cpp:124] Setting up pool0
I0428 19:47:37.131692 26238 net.cpp:131] Top shape: 64 5 12 12 (46080)
I0428 19:47:37.131695 26238 net.cpp:139] Memory required for data: 1122560
I0428 19:47:37.131697 26238 layer_factory.hpp:77] Creating layer conv1
I0428 19:47:37.131709 26238 net.cpp:86] Creating Layer conv1
I0428 19:47:37.131712 26238 net.cpp:408] conv1 <- pool0
I0428 19:47:37.131717 26238 net.cpp:382] conv1 -> conv1
I0428 19:47:37.133755 26238 net.cpp:124] Setting up conv1
I0428 19:47:37.133785 26238 net.cpp:131] Top shape: 64 2 8 8 (8192)
I0428 19:47:37.133788 26238 net.cpp:139] Memory required for data: 1155328
I0428 19:47:37.133797 26238 layer_factory.hpp:77] Creating layer pool1
I0428 19:47:37.133805 26238 net.cpp:86] Creating Layer pool1
I0428 19:47:37.133807 26238 net.cpp:408] pool1 <- conv1
I0428 19:47:37.133812 26238 net.cpp:382] pool1 -> pool1
I0428 19:47:37.133878 26238 net.cpp:124] Setting up pool1
I0428 19:47:37.133884 26238 net.cpp:131] Top shape: 64 2 4 4 (2048)
I0428 19:47:37.133888 26238 net.cpp:139] Memory required for data: 1163520
I0428 19:47:37.133889 26238 layer_factory.hpp:77] Creating layer ip1
I0428 19:47:37.133896 26238 net.cpp:86] Creating Layer ip1
I0428 19:47:37.133899 26238 net.cpp:408] ip1 <- pool1
I0428 19:47:37.133904 26238 net.cpp:382] ip1 -> ip1
I0428 19:47:37.134016 26238 net.cpp:124] Setting up ip1
I0428 19:47:37.134023 26238 net.cpp:131] Top shape: 64 10 (640)
I0428 19:47:37.134027 26238 net.cpp:139] Memory required for data: 1166080
I0428 19:47:37.134033 26238 layer_factory.hpp:77] Creating layer relu1
I0428 19:47:37.134038 26238 net.cpp:86] Creating Layer relu1
I0428 19:47:37.134042 26238 net.cpp:408] relu1 <- ip1
I0428 19:47:37.134047 26238 net.cpp:369] relu1 -> ip1 (in-place)
I0428 19:47:37.134202 26238 net.cpp:124] Setting up relu1
I0428 19:47:37.134210 26238 net.cpp:131] Top shape: 64 10 (640)
I0428 19:47:37.134213 26238 net.cpp:139] Memory required for data: 1168640
I0428 19:47:37.134217 26238 layer_factory.hpp:77] Creating layer ip2
I0428 19:47:37.134222 26238 net.cpp:86] Creating Layer ip2
I0428 19:47:37.134227 26238 net.cpp:408] ip2 <- ip1
I0428 19:47:37.134230 26238 net.cpp:382] ip2 -> ip2
I0428 19:47:37.134330 26238 net.cpp:124] Setting up ip2
I0428 19:47:37.134337 26238 net.cpp:131] Top shape: 64 10 (640)
I0428 19:47:37.134340 26238 net.cpp:139] Memory required for data: 1171200
I0428 19:47:37.134344 26238 layer_factory.hpp:77] Creating layer relu2
I0428 19:47:37.134366 26238 net.cpp:86] Creating Layer relu2
I0428 19:47:37.134368 26238 net.cpp:408] relu2 <- ip2
I0428 19:47:37.134372 26238 net.cpp:369] relu2 -> ip2 (in-place)
I0428 19:47:37.135177 26238 net.cpp:124] Setting up relu2
I0428 19:47:37.135190 26238 net.cpp:131] Top shape: 64 10 (640)
I0428 19:47:37.135208 26238 net.cpp:139] Memory required for data: 1173760
I0428 19:47:37.135212 26238 layer_factory.hpp:77] Creating layer ip3
I0428 19:47:37.135220 26238 net.cpp:86] Creating Layer ip3
I0428 19:47:37.135222 26238 net.cpp:408] ip3 <- ip2
I0428 19:47:37.135227 26238 net.cpp:382] ip3 -> ip3
I0428 19:47:37.135323 26238 net.cpp:124] Setting up ip3
I0428 19:47:37.135330 26238 net.cpp:131] Top shape: 64 10 (640)
I0428 19:47:37.135334 26238 net.cpp:139] Memory required for data: 1176320
I0428 19:47:37.135340 26238 layer_factory.hpp:77] Creating layer relu3
I0428 19:47:37.135345 26238 net.cpp:86] Creating Layer relu3
I0428 19:47:37.135349 26238 net.cpp:408] relu3 <- ip3
I0428 19:47:37.135352 26238 net.cpp:369] relu3 -> ip3 (in-place)
I0428 19:47:37.135512 26238 net.cpp:124] Setting up relu3
I0428 19:47:37.135521 26238 net.cpp:131] Top shape: 64 10 (640)
I0428 19:47:37.135524 26238 net.cpp:139] Memory required for data: 1178880
I0428 19:47:37.135527 26238 layer_factory.hpp:77] Creating layer loss
I0428 19:47:37.135534 26238 net.cpp:86] Creating Layer loss
I0428 19:47:37.135536 26238 net.cpp:408] loss <- ip3
I0428 19:47:37.135540 26238 net.cpp:408] loss <- label
I0428 19:47:37.135545 26238 net.cpp:382] loss -> loss
I0428 19:47:37.135560 26238 layer_factory.hpp:77] Creating layer loss
…
I0428 19:47:37.136312 26238 solver.cpp:173] Creating test net (#0) specified by net file: ECE595/mnist/train_test/var_everything2/lenet_train_test520.prototxt
I0428 19:47:37.136353 26238 net.cpp:296] The NetState phase (1) differed from the phase (0) specified by a rule in layer mnist
I0428 19:47:37.136456 26238 net.cpp:53] Initializing net from parameters: 
name: "LeNet"
state {
  phase: TEST
}
layer {
  name: "mnist"
  type: "Data"
  top: "data"
  top: "label"
  include {
    phase: TEST
  }
  transform_param {
    scale: 0.00390625
  }
  data_param {
    source: "examples/mnist/mnist_test_lmdb"
    batch_size: 100
    backend: LMDB
  }
}
layer {
  name: "conv0"
  type: "Convolution"
  bottom: "data"
  top: "conv0"
  param {
    lr_mult: 1
  }
  param {
    lr_mult: 2
  }
  convolution_param {
    num_output: 5
    kernel_size: 5
    stride: 1
    weight_filler {
      type: "xavier"
    }
    bias_filler {
      type: "constant"
    }
  }
}
layer {
  name: "pool0"
  type: "Pooling"
  bottom: "conv0"
  top: "pool0"
  pooling_param {
    pool: MAX
    kernel_size: 2
    stride: 2
  }
}
layer {
  name: "conv1"
  type: "Convolution"
  bottom: "pool0"
  top: "conv1"
  param {
    lr_mult: 1
  }
  param {
    lr_mult: 2
  }
  convolution_param {
    num_output: 2
    kernel_size: 5
    stride: 1
    weight_filler {
      type: "xavier"
    }
    bias_filler {
      type: "constant"
    }
  }
}
layer {
  name: "pool1"
  type: "Pooling"
  bottom: "conv1"
  top: "pool1"
  pooling_param {
    pool: MAX
    kernel_size: 2
    stride: 2
  }
}
layer {
  name: "ip1"
  type: "InnerProduct"
  bottom: "pool1"
  top: "ip1"
  param {
    lr_mult: 1
  }
  param {
    lr_mult: 2
  }
  inner_product_param {
    num_output: 10
    weight_filler {
      type: "xavier"
    }
    bias_filler {
      type: "constant"
    }
  }
}
layer {
  name: "relu1"
  type: "ReLU"
  bottom: "ip1"
  top: "ip1"
}
layer {
  name: "ip2"
  type: "InnerProduct"
  bottom: "ip1"
  top: "ip2"
  param {
    lr_mult: 1
  }
  param {
    lr_mult: 2
  }
  inner_product_param {
    num_output: 10
    weight_filler {
      type: "xavier"
    }
    bias_filler {
      type: "constant"
    }
  }
}
layer {
  name: "relu2"
  type: "ReLU"
  bottom: "ip2"
  top: "ip2"
}
layer {
  name: "ip3"
  type: "InnerProduct"
  bottom: "ip2"
  top: "ip3"
  param {
    lr_mult: 1
  }
  param {
    lr_mult: 2
  }
  inner_product_param {
    num_output: 10
    weight_filler {
      type: "xavier"
    }
    bias_filler {
      type: "constant"
    }
  }
}
layer {
  name: "relu3"
  type: "ReLU"
  bottom: "ip3"
  top: "ip3"
}
layer {
  name: "accuracy"
  type: "Accuracy"
  bottom: "ip3"
  bottom: "label"
  top: "accuracy"
  include {
    phase: TEST
  }
}
layer {
  name: "loss"
  type: "SoftmaxWithLoss"
  bottom: "ip3"
  bottom: "label"
  top: "loss"
}
I0428 19:47:37.136533 26238 layer_factory.hpp:77] Creating layer mnist
I0428 19:47:37.136579 26238 db_lmdb.cpp:35] Opened lmdb examples/mnist/mnist_test_lmdb
I0428 19:47:37.136590 26238 net.cpp:86] Creating Layer mnist
I0428 19:47:37.136595 26238 net.cpp:382] mnist -> data
I0428 19:47:37.136602 26238 net.cpp:382] mnist -> label
I0428 19:47:37.136684 26238 data_layer.cpp:45] output data size: 100,1,28,28
I0428 19:47:37.138998 26238 net.cpp:124] Setting up mnist
I0428 19:47:37.139044 26238 net.cpp:131] Top shape: 100 1 28 28 (78400)
I0428 19:47:37.139048 26238 net.cpp:131] Top shape: 100 (100)
I0428 19:47:37.139067 26238 net.cpp:139] Memory required for data: 314000
I0428 19:47:37.139071 26238 layer_factory.hpp:77] Creating layer label_mnist_1_split
I0428 19:47:37.139078 26238 net.cpp:86] Creating Layer label_mnist_1_split
I0428 19:47:37.139083 26238 net.cpp:408] label_mnist_1_split <- label
I0428 19:47:37.139088 26238 net.cpp:382] label_mnist_1_split -> label_mnist_1_split_0
I0428 19:47:37.139096 26238 net.cpp:382] label_mnist_1_split -> label_mnist_1_split_1
I0428 19:47:37.139143 26238 net.cpp:124] Setting up label_mnist_1_split
I0428 19:47:37.139149 26238 net.cpp:131] Top shape: 100 (100)
I0428 19:47:37.139153 26238 net.cpp:131] Top shape: 100 (100)
I0428 19:47:37.139155 26238 net.cpp:139] Memory required for data: 314800
I0428 19:47:37.139158 26238 layer_factory.hpp:77] Creating layer conv0
I0428 19:47:37.139168 26238 net.cpp:86] Creating Layer conv0
I0428 19:47:37.139170 26238 net.cpp:408] conv0 <- data
I0428 19:47:37.139175 26238 net.cpp:382] conv0 -> conv0
I0428 19:47:37.140760 26238 net.cpp:124] Setting up conv0
I0428 19:47:37.140789 26238 net.cpp:131] Top shape: 100 5 24 24 (288000)
I0428 19:47:37.140791 26238 net.cpp:139] Memory required for data: 1466800
I0428 19:47:37.140800 26238 layer_factory.hpp:77] Creating layer pool0
I0428 19:47:37.140806 26238 net.cpp:86] Creating Layer pool0
I0428 19:47:37.140831 26238 net.cpp:408] pool0 <- conv0
I0428 19:47:37.140837 26238 net.cpp:382] pool0 -> pool0
I0428 19:47:37.140905 26238 net.cpp:124] Setting up pool0
I0428 19:47:37.140911 26238 net.cpp:131] Top shape: 100 5 12 12 (72000)
I0428 19:47:37.140914 26238 net.cpp:139] Memory required for data: 1754800
I0428 19:47:37.140918 26238 layer_factory.hpp:77] Creating layer conv1
I0428 19:47:37.140926 26238 net.cpp:86] Creating Layer conv1
I0428 19:47:37.140929 26238 net.cpp:408] conv1 <- pool0
I0428 19:47:37.140950 26238 net.cpp:382] conv1 -> conv1
I0428 19:47:37.143132 26238 net.cpp:124] Setting up conv1
I0428 19:47:37.143146 26238 net.cpp:131] Top shape: 100 2 8 8 (12800)
I0428 19:47:37.143167 26238 net.cpp:139] Memory required for data: 1806000
I0428 19:47:37.143174 26238 layer_factory.hpp:77] Creating layer pool1
I0428 19:47:37.143180 26238 net.cpp:86] Creating Layer pool1
I0428 19:47:37.143184 26238 net.cpp:408] pool1 <- conv1
I0428 19:47:37.143190 26238 net.cpp:382] pool1 -> pool1
I0428 19:47:37.143244 26238 net.cpp:124] Setting up pool1
I0428 19:47:37.143251 26238 net.cpp:131] Top shape: 100 2 4 4 (3200)
I0428 19:47:37.143254 26238 net.cpp:139] Memory required for data: 1818800
I0428 19:47:37.143257 26238 layer_factory.hpp:77] Creating layer ip1
I0428 19:47:37.143263 26238 net.cpp:86] Creating Layer ip1
I0428 19:47:37.143273 26238 net.cpp:408] ip1 <- pool1
I0428 19:47:37.143285 26238 net.cpp:382] ip1 -> ip1
I0428 19:47:37.143458 26238 net.cpp:124] Setting up ip1
I0428 19:47:37.143466 26238 net.cpp:131] Top shape: 100 10 (1000)
I0428 19:47:37.143481 26238 net.cpp:139] Memory required for data: 1822800
I0428 19:47:37.143488 26238 layer_factory.hpp:77] Creating layer relu1
I0428 19:47:37.143493 26238 net.cpp:86] Creating Layer relu1
I0428 19:47:37.143496 26238 net.cpp:408] relu1 <- ip1
I0428 19:47:37.143501 26238 net.cpp:369] relu1 -> ip1 (in-place)
I0428 19:47:37.143707 26238 net.cpp:124] Setting up relu1
I0428 19:47:37.143718 26238 net.cpp:131] Top shape: 100 10 (1000)
I0428 19:47:37.143735 26238 net.cpp:139] Memory required for data: 1826800
I0428 19:47:37.143738 26238 layer_factory.hpp:77] Creating layer ip2
I0428 19:47:37.143745 26238 net.cpp:86] Creating Layer ip2
I0428 19:47:37.143749 26238 net.cpp:408] ip2 <- ip1
I0428 19:47:37.143754 26238 net.cpp:382] ip2 -> ip2
I0428 19:47:37.143877 26238 net.cpp:124] Setting up ip2
I0428 19:47:37.143885 26238 net.cpp:131] Top shape: 100 10 (1000)
I0428 19:47:37.143888 26238 net.cpp:139] Memory required for data: 1830800
I0428 19:47:37.143895 26238 layer_factory.hpp:77] Creating layer relu2
I0428 19:47:37.143899 26238 net.cpp:86] Creating Layer relu2
I0428 19:47:37.143903 26238 net.cpp:408] relu2 <- ip2
I0428 19:47:37.143908 26238 net.cpp:369] relu2 -> ip2 (in-place)
I0428 19:47:37.144062 26238 net.cpp:124] Setting up relu2
I0428 19:47:37.144069 26238 net.cpp:131] Top shape: 100 10 (1000)
I0428 19:47:37.144073 26238 net.cpp:139] Memory required for data: 1834800
I0428 19:47:37.144076 26238 layer_factory.hpp:77] Creating layer ip3
I0428 19:47:37.144083 26238 net.cpp:86] Creating Layer ip3
I0428 19:47:37.144085 26238 net.cpp:408] ip3 <- ip2
I0428 19:47:37.144105 26238 net.cpp:382] ip3 -> ip3
I0428 19:47:37.144208 26238 net.cpp:124] Setting up ip3
I0428 19:47:37.144214 26238 net.cpp:131] Top shape: 100 10 (1000)
I0428 19:47:37.144224 26238 net.cpp:139] Memory required for data: 1838800
I0428 19:47:37.144232 26238 layer_factory.hpp:77] Creating layer relu3
I0428 19:47:37.144237 26238 net.cpp:86] Creating Layer relu3
I0428 19:47:37.144240 26238 net.cpp:408] relu3 <- ip3
I0428 19:47:37.144244 26238 net.cpp:369] relu3 -> ip3 (in-place)
I0428 19:47:37.145207 26238 net.cpp:124] Setting up relu3
I0428 19:47:37.145234 26238 net.cpp:131] Top shape: 100 10 (1000)
I0428 19:47:37.145238 26238 net.cpp:139] Memory required for data: 1842800
I0428 19:47:37.145242 26238 layer_factory.hpp:77] Creating layer ip3_relu3_0_split
I0428 19:47:37.145247 26238 net.cpp:86] Creating Layer ip3_relu3_0_split
I0428 19:47:37.145251 26238 net.cpp:408] ip3_relu3_0_split <- ip3
I0428 19:47:37.145256 26238 net.cpp:382] ip3_relu3_0_split -> ip3_relu3_0_split_0
I0428 19:47:37.145263 26238 net.cpp:382] ip3_relu3_0_split -> ip3_relu3_0_split_1
I0428 19:47:37.145305 26238 net.cpp:124] Setting up ip3_relu3_0_split
I0428 19:47:37.145311 26238 net.cpp:131] Top shape: 100 10 (1000)
I0428 19:47:37.145315 26238 net.cpp:131] Top shape: 100 10 (1000)
I0428 19:47:37.145323 26238 net.cpp:139] Memory required for data: 1850800
I0428 19:47:37.145325 26238 layer_factory.hpp:77] Creating layer accuracy
I0428 19:47:37.145329 26238 net.cpp:86] Creating Layer accuracy
I0428 19:47:37.145334 26238 net.cpp:408] accuracy <- ip3_relu3_0_split_0
I0428 19:47:37.145337 26238 net.cpp:408] accuracy <- label_mnist_1_split_0
I0428 19:47:37.145342 26238 net.cpp:382] accuracy -> accuracy
…
