…
I0428 19:45:09.058253 25747 net.cpp:296] The NetState phase (0) differed from the phase (1) specified by a rule in layer mnist
I0428 19:45:09.058279 25747 net.cpp:296] The NetState phase (0) differed from the phase (1) specified by a rule in layer accuracy
I0428 19:45:09.058394 25747 net.cpp:53] Initializing net from parameters: 
name: "LeNet"
state {
  phase: TRAIN
  level: 0
  stage: ""
}
layer {
  name: "mnist"
  type: "Data"
  top: "data"
  top: "label"
  include {
    phase: TRAIN
  }
  transform_param {
    scale: 0.00390625
  }
  data_param {
    source: "examples/mnist/mnist_train_lmdb"
    batch_size: 64
    backend: LMDB
  }
}
layer {
  name: "conv0"
  type: "Convolution"
  bottom: "data"
  top: "conv0"
  param {
    lr_mult: 1
  }
  param {
    lr_mult: 2
  }
  convolution_param {
    num_output: 2
    kernel_size: 5
    stride: 1
    weight_filler {
      type: "xavier"
    }
    bias_filler {
      type: "constant"
    }
  }
}
layer {
  name: "pool0"
  type: "Pooling"
  bottom: "conv0"
  top: "pool0"
  pooling_param {
    pool: MAX
    kernel_size: 2
    stride: 2
  }
}
layer {
  name: "conv1"
  type: "Convolution"
  bottom: "pool0"
  top: "conv1"
  param {
    lr_mult: 1
  }
  param {
    lr_mult: 2
  }
  convolution_param {
    num_output: 50
    kernel_size: 5
    stride: 1
    weight_filler {
      type: "xavier"
    }
    bias_filler {
      type: "constant"
    }
  }
}
layer {
  name: "pool1"
  type: "Pooling"
  bottom: "conv1"
  top: "pool1"
  pooling_param {
    pool: MAX
    kernel_size: 2
    stride: 2
  }
}
layer {
  name: "ip1"
  type: "InnerProduct"
  bottom: "pool1"
  top: "ip1"
  param {
    lr_mult: 1
  }
  param {
    lr_mult: 2
  }
  inner_product_param {
    num_output: 50
    weight_filler {
      type: "xavier"
    }
    bias_filler {
      type: "constant"
    }
  }
}
layer {
  name: "relu1"
  type: "ReLU"
  bottom: "ip1"
  top: "ip1"
}
layer {
  name: "ip2"
  type: "InnerProduct"
  bottom: "ip1"
  top: "ip2"
  param {
    lr_mult: 1
  }
  param {
    lr_mult: 2
  }
  inner_product_param {
    num_output: 50
    weight_filler {
      type: "xavier"
    }
    bias_filler {
      type: "constant"
    }
  }
}
layer {
  name: "relu2"
  type: "ReLU"
  bottom: "ip2"
  top: "ip2"
}
layer {
  name: "ip3"
  type: "InnerProduct"
  bottom: "ip2"
  top: "ip3"
  param {
    lr_mult: 1
  }
  param {
    lr_mult: 2
  }
  inner_product_param {
    num_output: 10
    weight_filler {
      type: "xavier"
    }
    bias_filler {
      type: "constant"
    }
  }
}
layer {
  name: "relu3"
  type: "ReLU"
  bottom: "ip3"
  top: "ip3"
}
layer {
  name: "loss"
  type: "SoftmaxWithLoss"
  bottom: "ip3"
  bottom: "label"
  top: "loss"
}
I0428 19:45:09.058508 25747 layer_factory.hpp:77] Creating layer mnist
I0428 19:45:09.058641 25747 db_lmdb.cpp:35] Opened lmdb examples/mnist/mnist_train_lmdb
I0428 19:45:09.058675 25747 net.cpp:86] Creating Layer mnist
I0428 19:45:09.058691 25747 net.cpp:382] mnist -> data
I0428 19:45:09.058722 25747 net.cpp:382] mnist -> label
I0428 19:45:09.060004 25747 data_layer.cpp:45] output data size: 64,1,28,28
I0428 19:45:09.062513 25747 net.cpp:124] Setting up mnist
I0428 19:45:09.062535 25747 net.cpp:131] Top shape: 64 1 28 28 (50176)
I0428 19:45:09.062544 25747 net.cpp:131] Top shape: 64 (64)
I0428 19:45:09.062551 25747 net.cpp:139] Memory required for data: 200960
I0428 19:45:09.062561 25747 layer_factory.hpp:77] Creating layer conv0
I0428 19:45:09.062607 25747 net.cpp:86] Creating Layer conv0
I0428 19:45:09.062628 25747 net.cpp:408] conv0 <- data
I0428 19:45:09.062649 25747 net.cpp:382] conv0 -> conv0
I0428 19:45:09.352692 25747 net.cpp:124] Setting up conv0
I0428 19:45:09.352726 25747 net.cpp:131] Top shape: 64 2 24 24 (73728)
I0428 19:45:09.352735 25747 net.cpp:139] Memory required for data: 495872
I0428 19:45:09.352758 25747 layer_factory.hpp:77] Creating layer pool0
I0428 19:45:09.352778 25747 net.cpp:86] Creating Layer pool0
I0428 19:45:09.352797 25747 net.cpp:408] pool0 <- conv0
I0428 19:45:09.352808 25747 net.cpp:382] pool0 -> pool0
I0428 19:45:09.352882 25747 net.cpp:124] Setting up pool0
I0428 19:45:09.352895 25747 net.cpp:131] Top shape: 64 2 12 12 (18432)
I0428 19:45:09.352901 25747 net.cpp:139] Memory required for data: 569600
I0428 19:45:09.352907 25747 layer_factory.hpp:77] Creating layer conv1
I0428 19:45:09.352927 25747 net.cpp:86] Creating Layer conv1
I0428 19:45:09.352936 25747 net.cpp:408] conv1 <- pool0
I0428 19:45:09.352947 25747 net.cpp:382] conv1 -> conv1
I0428 19:45:09.356147 25747 net.cpp:124] Setting up conv1
I0428 19:45:09.356166 25747 net.cpp:131] Top shape: 64 50 8 8 (204800)
I0428 19:45:09.356173 25747 net.cpp:139] Memory required for data: 1388800
I0428 19:45:09.356190 25747 layer_factory.hpp:77] Creating layer pool1
I0428 19:45:09.356206 25747 net.cpp:86] Creating Layer pool1
I0428 19:45:09.356220 25747 net.cpp:408] pool1 <- conv1
I0428 19:45:09.356230 25747 net.cpp:382] pool1 -> pool1
I0428 19:45:09.356287 25747 net.cpp:124] Setting up pool1
I0428 19:45:09.356297 25747 net.cpp:131] Top shape: 64 50 4 4 (51200)
I0428 19:45:09.356303 25747 net.cpp:139] Memory required for data: 1593600
I0428 19:45:09.356309 25747 layer_factory.hpp:77] Creating layer ip1
I0428 19:45:09.356323 25747 net.cpp:86] Creating Layer ip1
I0428 19:45:09.356329 25747 net.cpp:408] ip1 <- pool1
I0428 19:45:09.356341 25747 net.cpp:382] ip1 -> ip1
I0428 19:45:09.356746 25747 net.cpp:124] Setting up ip1
I0428 19:45:09.356758 25747 net.cpp:131] Top shape: 64 50 (3200)
I0428 19:45:09.356765 25747 net.cpp:139] Memory required for data: 1606400
I0428 19:45:09.356778 25747 layer_factory.hpp:77] Creating layer relu1
I0428 19:45:09.356796 25747 net.cpp:86] Creating Layer relu1
I0428 19:45:09.356804 25747 net.cpp:408] relu1 <- ip1
I0428 19:45:09.356822 25747 net.cpp:369] relu1 -> ip1 (in-place)
I0428 19:45:09.357046 25747 net.cpp:124] Setting up relu1
I0428 19:45:09.357060 25747 net.cpp:131] Top shape: 64 50 (3200)
I0428 19:45:09.357066 25747 net.cpp:139] Memory required for data: 1619200
I0428 19:45:09.357074 25747 layer_factory.hpp:77] Creating layer ip2
I0428 19:45:09.357085 25747 net.cpp:86] Creating Layer ip2
I0428 19:45:09.357091 25747 net.cpp:408] ip2 <- ip1
I0428 19:45:09.357105 25747 net.cpp:382] ip2 -> ip2
I0428 19:45:09.357259 25747 net.cpp:124] Setting up ip2
I0428 19:45:09.357270 25747 net.cpp:131] Top shape: 64 50 (3200)
I0428 19:45:09.357276 25747 net.cpp:139] Memory required for data: 1632000
I0428 19:45:09.357288 25747 layer_factory.hpp:77] Creating layer relu2
I0428 19:45:09.357300 25747 net.cpp:86] Creating Layer relu2
I0428 19:45:09.357306 25747 net.cpp:408] relu2 <- ip2
I0428 19:45:09.357317 25747 net.cpp:369] relu2 -> ip2 (in-place)
I0428 19:45:09.358196 25747 net.cpp:124] Setting up relu2
I0428 19:45:09.358212 25747 net.cpp:131] Top shape: 64 50 (3200)
I0428 19:45:09.358218 25747 net.cpp:139] Memory required for data: 1644800
I0428 19:45:09.358225 25747 layer_factory.hpp:77] Creating layer ip3
I0428 19:45:09.358237 25747 net.cpp:86] Creating Layer ip3
I0428 19:45:09.358244 25747 net.cpp:408] ip3 <- ip2
I0428 19:45:09.358258 25747 net.cpp:382] ip3 -> ip3
I0428 19:45:09.358392 25747 net.cpp:124] Setting up ip3
I0428 19:45:09.358404 25747 net.cpp:131] Top shape: 64 10 (640)
I0428 19:45:09.358410 25747 net.cpp:139] Memory required for data: 1647360
I0428 19:45:09.358425 25747 layer_factory.hpp:77] Creating layer relu3
I0428 19:45:09.358438 25747 net.cpp:86] Creating Layer relu3
I0428 19:45:09.358445 25747 net.cpp:408] relu3 <- ip3
I0428 19:45:09.358454 25747 net.cpp:369] relu3 -> ip3 (in-place)
I0428 19:45:09.358675 25747 net.cpp:124] Setting up relu3
I0428 19:45:09.358690 25747 net.cpp:131] Top shape: 64 10 (640)
I0428 19:45:09.358696 25747 net.cpp:139] Memory required for data: 1649920
I0428 19:45:09.358702 25747 layer_factory.hpp:77] Creating layer loss
I0428 19:45:09.358714 25747 net.cpp:86] Creating Layer loss
I0428 19:45:09.358721 25747 net.cpp:408] loss <- ip3
I0428 19:45:09.358728 25747 net.cpp:408] loss <- label
I0428 19:45:09.358738 25747 net.cpp:382] loss -> loss
I0428 19:45:09.358762 25747 layer_factory.hpp:77] Creating layer loss
…
I0428 19:45:09.359617 25747 solver.cpp:173] Creating test net (#0) specified by net file: ECE595/mnist/train_test/var_everything2/lenet_train_test465.prototxt
I0428 19:45:09.359657 25747 net.cpp:296] The NetState phase (1) differed from the phase (0) specified by a rule in layer mnist
I0428 19:45:09.359772 25747 net.cpp:53] Initializing net from parameters: 
name: "LeNet"
state {
  phase: TEST
}
layer {
  name: "mnist"
  type: "Data"
  top: "data"
  top: "label"
  include {
    phase: TEST
  }
  transform_param {
    scale: 0.00390625
  }
  data_param {
    source: "examples/mnist/mnist_test_lmdb"
    batch_size: 100
    backend: LMDB
  }
}
layer {
  name: "conv0"
  type: "Convolution"
  bottom: "data"
  top: "conv0"
  param {
    lr_mult: 1
  }
  param {
    lr_mult: 2
  }
  convolution_param {
    num_output: 2
    kernel_size: 5
    stride: 1
    weight_filler {
      type: "xavier"
    }
    bias_filler {
      type: "constant"
    }
  }
}
layer {
  name: "pool0"
  type: "Pooling"
  bottom: "conv0"
  top: "pool0"
  pooling_param {
    pool: MAX
    kernel_size: 2
    stride: 2
  }
}
layer {
  name: "conv1"
  type: "Convolution"
  bottom: "pool0"
  top: "conv1"
  param {
    lr_mult: 1
  }
  param {
    lr_mult: 2
  }
  convolution_param {
    num_output: 50
    kernel_size: 5
    stride: 1
    weight_filler {
      type: "xavier"
    }
    bias_filler {
      type: "constant"
    }
  }
}
layer {
  name: "pool1"
  type: "Pooling"
  bottom: "conv1"
  top: "pool1"
  pooling_param {
    pool: MAX
    kernel_size: 2
    stride: 2
  }
}
layer {
  name: "ip1"
  type: "InnerProduct"
  bottom: "pool1"
  top: "ip1"
  param {
    lr_mult: 1
  }
  param {
    lr_mult: 2
  }
  inner_product_param {
    num_output: 50
    weight_filler {
      type: "xavier"
    }
    bias_filler {
      type: "constant"
    }
  }
}
layer {
  name: "relu1"
  type: "ReLU"
  bottom: "ip1"
  top: "ip1"
}
layer {
  name: "ip2"
  type: "InnerProduct"
  bottom: "ip1"
  top: "ip2"
  param {
    lr_mult: 1
  }
  param {
    lr_mult: 2
  }
  inner_product_param {
    num_output: 50
    weight_filler {
      type: "xavier"
    }
    bias_filler {
      type: "constant"
    }
  }
}
layer {
  name: "relu2"
  type: "ReLU"
  bottom: "ip2"
  top: "ip2"
}
layer {
  name: "ip3"
  type: "InnerProduct"
  bottom: "ip2"
  top: "ip3"
  param {
    lr_mult: 1
  }
  param {
    lr_mult: 2
  }
  inner_product_param {
    num_output: 10
    weight_filler {
      type: "xavier"
    }
    bias_filler {
      type: "constant"
    }
  }
}
layer {
  name: "relu3"
  type: "ReLU"
  bottom: "ip3"
  top: "ip3"
}
layer {
  name: "accuracy"
  type: "Accuracy"
  bottom: "ip3"
  bottom: "label"
  top: "accuracy"
  include {
    phase: TEST
  }
}
layer {
  name: "loss"
  type: "SoftmaxWithLoss"
  bottom: "ip3"
  bottom: "label"
  top: "loss"
}
I0428 19:45:09.359910 25747 layer_factory.hpp:77] Creating layer mnist
I0428 19:45:09.359978 25747 db_lmdb.cpp:35] Opened lmdb examples/mnist/mnist_test_lmdb
I0428 19:45:09.360002 25747 net.cpp:86] Creating Layer mnist
I0428 19:45:09.360013 25747 net.cpp:382] mnist -> data
I0428 19:45:09.360026 25747 net.cpp:382] mnist -> label
I0428 19:45:09.360168 25747 data_layer.cpp:45] output data size: 100,1,28,28
I0428 19:45:09.362483 25747 net.cpp:124] Setting up mnist
I0428 19:45:09.362500 25747 net.cpp:131] Top shape: 100 1 28 28 (78400)
I0428 19:45:09.362509 25747 net.cpp:131] Top shape: 100 (100)
I0428 19:45:09.362515 25747 net.cpp:139] Memory required for data: 314000
I0428 19:45:09.362521 25747 layer_factory.hpp:77] Creating layer label_mnist_1_split
I0428 19:45:09.362534 25747 net.cpp:86] Creating Layer label_mnist_1_split
I0428 19:45:09.362540 25747 net.cpp:408] label_mnist_1_split <- label
I0428 19:45:09.362550 25747 net.cpp:382] label_mnist_1_split -> label_mnist_1_split_0
I0428 19:45:09.362563 25747 net.cpp:382] label_mnist_1_split -> label_mnist_1_split_1
I0428 19:45:09.362658 25747 net.cpp:124] Setting up label_mnist_1_split
I0428 19:45:09.362670 25747 net.cpp:131] Top shape: 100 (100)
I0428 19:45:09.362679 25747 net.cpp:131] Top shape: 100 (100)
I0428 19:45:09.362684 25747 net.cpp:139] Memory required for data: 314800
I0428 19:45:09.362690 25747 layer_factory.hpp:77] Creating layer conv0
I0428 19:45:09.362707 25747 net.cpp:86] Creating Layer conv0
I0428 19:45:09.362715 25747 net.cpp:408] conv0 <- data
I0428 19:45:09.362725 25747 net.cpp:382] conv0 -> conv0
I0428 19:45:09.364504 25747 net.cpp:124] Setting up conv0
I0428 19:45:09.364523 25747 net.cpp:131] Top shape: 100 2 24 24 (115200)
I0428 19:45:09.364529 25747 net.cpp:139] Memory required for data: 775600
I0428 19:45:09.364547 25747 layer_factory.hpp:77] Creating layer pool0
I0428 19:45:09.364557 25747 net.cpp:86] Creating Layer pool0
I0428 19:45:09.364567 25747 net.cpp:408] pool0 <- conv0
I0428 19:45:09.364578 25747 net.cpp:382] pool0 -> pool0
I0428 19:45:09.364630 25747 net.cpp:124] Setting up pool0
I0428 19:45:09.364641 25747 net.cpp:131] Top shape: 100 2 12 12 (28800)
I0428 19:45:09.364646 25747 net.cpp:139] Memory required for data: 890800
I0428 19:45:09.364652 25747 layer_factory.hpp:77] Creating layer conv1
I0428 19:45:09.364671 25747 net.cpp:86] Creating Layer conv1
I0428 19:45:09.364679 25747 net.cpp:408] conv1 <- pool0
I0428 19:45:09.364689 25747 net.cpp:382] conv1 -> conv1
I0428 19:45:09.366456 25747 net.cpp:124] Setting up conv1
I0428 19:45:09.366477 25747 net.cpp:131] Top shape: 100 50 8 8 (320000)
I0428 19:45:09.366483 25747 net.cpp:139] Memory required for data: 2170800
I0428 19:45:09.366502 25747 layer_factory.hpp:77] Creating layer pool1
I0428 19:45:09.366513 25747 net.cpp:86] Creating Layer pool1
I0428 19:45:09.366520 25747 net.cpp:408] pool1 <- conv1
I0428 19:45:09.366536 25747 net.cpp:382] pool1 -> pool1
I0428 19:45:09.366595 25747 net.cpp:124] Setting up pool1
I0428 19:45:09.366605 25747 net.cpp:131] Top shape: 100 50 4 4 (80000)
I0428 19:45:09.366612 25747 net.cpp:139] Memory required for data: 2490800
I0428 19:45:09.366618 25747 layer_factory.hpp:77] Creating layer ip1
I0428 19:45:09.366629 25747 net.cpp:86] Creating Layer ip1
I0428 19:45:09.366637 25747 net.cpp:408] ip1 <- pool1
I0428 19:45:09.366652 25747 net.cpp:382] ip1 -> ip1
I0428 19:45:09.367071 25747 net.cpp:124] Setting up ip1
I0428 19:45:09.367084 25747 net.cpp:131] Top shape: 100 50 (5000)
I0428 19:45:09.367103 25747 net.cpp:139] Memory required for data: 2510800
I0428 19:45:09.367118 25747 layer_factory.hpp:77] Creating layer relu1
I0428 19:45:09.367131 25747 net.cpp:86] Creating Layer relu1
I0428 19:45:09.367139 25747 net.cpp:408] relu1 <- ip1
I0428 19:45:09.367148 25747 net.cpp:369] relu1 -> ip1 (in-place)
I0428 19:45:09.367388 25747 net.cpp:124] Setting up relu1
I0428 19:45:09.367401 25747 net.cpp:131] Top shape: 100 50 (5000)
I0428 19:45:09.367409 25747 net.cpp:139] Memory required for data: 2530800
I0428 19:45:09.367418 25747 layer_factory.hpp:77] Creating layer ip2
I0428 19:45:09.367434 25747 net.cpp:86] Creating Layer ip2
I0428 19:45:09.367441 25747 net.cpp:408] ip2 <- ip1
I0428 19:45:09.367452 25747 net.cpp:382] ip2 -> ip2
I0428 19:45:09.367599 25747 net.cpp:124] Setting up ip2
I0428 19:45:09.367610 25747 net.cpp:131] Top shape: 100 50 (5000)
I0428 19:45:09.367616 25747 net.cpp:139] Memory required for data: 2550800
I0428 19:45:09.367627 25747 layer_factory.hpp:77] Creating layer relu2
I0428 19:45:09.367636 25747 net.cpp:86] Creating Layer relu2
I0428 19:45:09.367645 25747 net.cpp:408] relu2 <- ip2
I0428 19:45:09.367655 25747 net.cpp:369] relu2 -> ip2 (in-place)
I0428 19:45:09.367854 25747 net.cpp:124] Setting up relu2
I0428 19:45:09.367866 25747 net.cpp:131] Top shape: 100 50 (5000)
I0428 19:45:09.367871 25747 net.cpp:139] Memory required for data: 2570800
I0428 19:45:09.367877 25747 layer_factory.hpp:77] Creating layer ip3
I0428 19:45:09.367889 25747 net.cpp:86] Creating Layer ip3
I0428 19:45:09.367897 25747 net.cpp:408] ip3 <- ip2
I0428 19:45:09.367908 25747 net.cpp:382] ip3 -> ip3
I0428 19:45:09.368037 25747 net.cpp:124] Setting up ip3
I0428 19:45:09.368049 25747 net.cpp:131] Top shape: 100 10 (1000)
I0428 19:45:09.368057 25747 net.cpp:139] Memory required for data: 2574800
I0428 19:45:09.368072 25747 layer_factory.hpp:77] Creating layer relu3
I0428 19:45:09.368080 25747 net.cpp:86] Creating Layer relu3
I0428 19:45:09.368088 25747 net.cpp:408] relu3 <- ip3
I0428 19:45:09.368095 25747 net.cpp:369] relu3 -> ip3 (in-place)
I0428 19:45:09.369037 25747 net.cpp:124] Setting up relu3
I0428 19:45:09.369055 25747 net.cpp:131] Top shape: 100 10 (1000)
I0428 19:45:09.369060 25747 net.cpp:139] Memory required for data: 2578800
I0428 19:45:09.369067 25747 layer_factory.hpp:77] Creating layer ip3_relu3_0_split
I0428 19:45:09.369078 25747 net.cpp:86] Creating Layer ip3_relu3_0_split
I0428 19:45:09.369084 25747 net.cpp:408] ip3_relu3_0_split <- ip3
I0428 19:45:09.369096 25747 net.cpp:382] ip3_relu3_0_split -> ip3_relu3_0_split_0
I0428 19:45:09.369107 25747 net.cpp:382] ip3_relu3_0_split -> ip3_relu3_0_split_1
I0428 19:45:09.369161 25747 net.cpp:124] Setting up ip3_relu3_0_split
I0428 19:45:09.369171 25747 net.cpp:131] Top shape: 100 10 (1000)
I0428 19:45:09.369179 25747 net.cpp:131] Top shape: 100 10 (1000)
I0428 19:45:09.369186 25747 net.cpp:139] Memory required for data: 2586800
I0428 19:45:09.369192 25747 layer_factory.hpp:77] Creating layer accuracy
I0428 19:45:09.369204 25747 net.cpp:86] Creating Layer accuracy
I0428 19:45:09.369211 25747 net.cpp:408] accuracy <- ip3_relu3_0_split_0
I0428 19:45:09.369221 25747 net.cpp:408] accuracy <- label_mnist_1_split_0
I0428 19:45:09.369231 25747 net.cpp:382] accuracy -> accuracy
…
