…
I0428 20:28:51.707541  3439 net.cpp:296] The NetState phase (0) differed from the phase (1) specified by a rule in layer mnist
I0428 20:28:51.707558  3439 net.cpp:296] The NetState phase (0) differed from the phase (1) specified by a rule in layer accuracy
I0428 20:28:51.707654  3439 net.cpp:53] Initializing net from parameters: 
name: "LeNet"
state {
  phase: TRAIN
  level: 0
  stage: ""
}
layer {
  name: "mnist"
  type: "Data"
  top: "data"
  top: "label"
  include {
    phase: TRAIN
  }
  transform_param {
    scale: 0.00390625
  }
  data_param {
    source: "examples/mnist/mnist_train_lmdb"
    batch_size: 64
    backend: LMDB
  }
}
layer {
  name: "conv0"
  type: "Convolution"
  bottom: "data"
  top: "conv0"
  param {
    lr_mult: 1
  }
  param {
    lr_mult: 2
  }
  convolution_param {
    num_output: 100
    kernel_size: 5
    stride: 1
    weight_filler {
      type: "xavier"
    }
    bias_filler {
      type: "constant"
    }
  }
}
layer {
  name: "pool0"
  type: "Pooling"
  bottom: "conv0"
  top: "pool0"
  pooling_param {
    pool: MAX
    kernel_size: 2
    stride: 2
  }
}
layer {
  name: "conv1"
  type: "Convolution"
  bottom: "pool0"
  top: "conv1"
  param {
    lr_mult: 1
  }
  param {
    lr_mult: 2
  }
  convolution_param {
    num_output: 5
    kernel_size: 5
    stride: 1
    weight_filler {
      type: "xavier"
    }
    bias_filler {
      type: "constant"
    }
  }
}
layer {
  name: "pool1"
  type: "Pooling"
  bottom: "conv1"
  top: "pool1"
  pooling_param {
    pool: MAX
    kernel_size: 2
    stride: 2
  }
}
layer {
  name: "ip1"
  type: "InnerProduct"
  bottom: "pool1"
  top: "ip1"
  param {
    lr_mult: 1
  }
  param {
    lr_mult: 2
  }
  inner_product_param {
    num_output: 50
    weight_filler {
      type: "xavier"
    }
    bias_filler {
      type: "constant"
    }
  }
}
layer {
  name: "relu1"
  type: "ReLU"
  bottom: "ip1"
  top: "ip1"
}
layer {
  name: "ip2"
  type: "InnerProduct"
  bottom: "ip1"
  top: "ip2"
  param {
    lr_mult: 1
  }
  param {
    lr_mult: 2
  }
  inner_product_param {
    num_output: 10
    weight_filler {
      type: "xavier"
    }
    bias_filler {
      type: "constant"
    }
  }
}
layer {
  name: "relu2"
  type: "ReLU"
  bottom: "ip2"
  top: "ip2"
}
layer {
  name: "ip3"
  type: "InnerProduct"
  bottom: "ip2"
  top: "ip3"
  param {
    lr_mult: 1
  }
  param {
    lr_mult: 2
  }
  inner_product_param {
    num_output: 10
    weight_filler {
      type: "xavier"
    }
    bias_filler {
      type: "constant"
    }
  }
}
layer {
  name: "relu3"
  type: "ReLU"
  bottom: "ip3"
  top: "ip3"
}
layer {
  name: "loss"
  type: "SoftmaxWithLoss"
  bottom: "ip3"
  bottom: "label"
  top: "loss"
}
I0428 20:28:51.707728  3439 layer_factory.hpp:77] Creating layer mnist
I0428 20:28:51.707830  3439 db_lmdb.cpp:35] Opened lmdb examples/mnist/mnist_train_lmdb
I0428 20:28:51.707854  3439 net.cpp:86] Creating Layer mnist
I0428 20:28:51.707862  3439 net.cpp:382] mnist -> data
I0428 20:28:51.707885  3439 net.cpp:382] mnist -> label
I0428 20:28:51.709004  3439 data_layer.cpp:45] output data size: 64,1,28,28
I0428 20:28:51.711464  3439 net.cpp:124] Setting up mnist
I0428 20:28:51.711480  3439 net.cpp:131] Top shape: 64 1 28 28 (50176)
I0428 20:28:51.711486  3439 net.cpp:131] Top shape: 64 (64)
I0428 20:28:51.711490  3439 net.cpp:139] Memory required for data: 200960
I0428 20:28:51.711498  3439 layer_factory.hpp:77] Creating layer conv0
I0428 20:28:51.711514  3439 net.cpp:86] Creating Layer conv0
I0428 20:28:51.711535  3439 net.cpp:408] conv0 <- data
I0428 20:28:51.711547  3439 net.cpp:382] conv0 -> conv0
I0428 20:28:52.002863  3439 net.cpp:124] Setting up conv0
I0428 20:28:52.002895  3439 net.cpp:131] Top shape: 64 100 24 24 (3686400)
I0428 20:28:52.002899  3439 net.cpp:139] Memory required for data: 14946560
I0428 20:28:52.002918  3439 layer_factory.hpp:77] Creating layer pool0
I0428 20:28:52.002933  3439 net.cpp:86] Creating Layer pool0
I0428 20:28:52.002938  3439 net.cpp:408] pool0 <- conv0
I0428 20:28:52.002944  3439 net.cpp:382] pool0 -> pool0
I0428 20:28:52.003000  3439 net.cpp:124] Setting up pool0
I0428 20:28:52.003007  3439 net.cpp:131] Top shape: 64 100 12 12 (921600)
I0428 20:28:52.003010  3439 net.cpp:139] Memory required for data: 18632960
I0428 20:28:52.003015  3439 layer_factory.hpp:77] Creating layer conv1
I0428 20:28:52.003027  3439 net.cpp:86] Creating Layer conv1
I0428 20:28:52.003031  3439 net.cpp:408] conv1 <- pool0
I0428 20:28:52.003036  3439 net.cpp:382] conv1 -> conv1
I0428 20:28:52.006230  3439 net.cpp:124] Setting up conv1
I0428 20:28:52.006248  3439 net.cpp:131] Top shape: 64 5 8 8 (20480)
I0428 20:28:52.006253  3439 net.cpp:139] Memory required for data: 18714880
I0428 20:28:52.006263  3439 layer_factory.hpp:77] Creating layer pool1
I0428 20:28:52.006273  3439 net.cpp:86] Creating Layer pool1
I0428 20:28:52.006276  3439 net.cpp:408] pool1 <- conv1
I0428 20:28:52.006283  3439 net.cpp:382] pool1 -> pool1
I0428 20:28:52.006328  3439 net.cpp:124] Setting up pool1
I0428 20:28:52.006335  3439 net.cpp:131] Top shape: 64 5 4 4 (5120)
I0428 20:28:52.006338  3439 net.cpp:139] Memory required for data: 18735360
I0428 20:28:52.006342  3439 layer_factory.hpp:77] Creating layer ip1
I0428 20:28:52.006350  3439 net.cpp:86] Creating Layer ip1
I0428 20:28:52.006355  3439 net.cpp:408] ip1 <- pool1
I0428 20:28:52.006359  3439 net.cpp:382] ip1 -> ip1
I0428 20:28:52.006511  3439 net.cpp:124] Setting up ip1
I0428 20:28:52.006520  3439 net.cpp:131] Top shape: 64 50 (3200)
I0428 20:28:52.006525  3439 net.cpp:139] Memory required for data: 18748160
I0428 20:28:52.006532  3439 layer_factory.hpp:77] Creating layer relu1
I0428 20:28:52.006539  3439 net.cpp:86] Creating Layer relu1
I0428 20:28:52.006543  3439 net.cpp:408] relu1 <- ip1
I0428 20:28:52.006548  3439 net.cpp:369] relu1 -> ip1 (in-place)
I0428 20:28:52.006747  3439 net.cpp:124] Setting up relu1
I0428 20:28:52.006757  3439 net.cpp:131] Top shape: 64 50 (3200)
I0428 20:28:52.006760  3439 net.cpp:139] Memory required for data: 18760960
I0428 20:28:52.006764  3439 layer_factory.hpp:77] Creating layer ip2
I0428 20:28:52.006772  3439 net.cpp:86] Creating Layer ip2
I0428 20:28:52.006775  3439 net.cpp:408] ip2 <- ip1
I0428 20:28:52.006781  3439 net.cpp:382] ip2 -> ip2
I0428 20:28:52.006894  3439 net.cpp:124] Setting up ip2
I0428 20:28:52.006902  3439 net.cpp:131] Top shape: 64 10 (640)
I0428 20:28:52.006906  3439 net.cpp:139] Memory required for data: 18763520
I0428 20:28:52.006912  3439 layer_factory.hpp:77] Creating layer relu2
I0428 20:28:52.006919  3439 net.cpp:86] Creating Layer relu2
I0428 20:28:52.006923  3439 net.cpp:408] relu2 <- ip2
I0428 20:28:52.006928  3439 net.cpp:369] relu2 -> ip2 (in-place)
I0428 20:28:52.007767  3439 net.cpp:124] Setting up relu2
I0428 20:28:52.007782  3439 net.cpp:131] Top shape: 64 10 (640)
I0428 20:28:52.007786  3439 net.cpp:139] Memory required for data: 18766080
I0428 20:28:52.007791  3439 layer_factory.hpp:77] Creating layer ip3
I0428 20:28:52.007799  3439 net.cpp:86] Creating Layer ip3
I0428 20:28:52.007803  3439 net.cpp:408] ip3 <- ip2
I0428 20:28:52.007809  3439 net.cpp:382] ip3 -> ip3
I0428 20:28:52.007925  3439 net.cpp:124] Setting up ip3
I0428 20:28:52.007932  3439 net.cpp:131] Top shape: 64 10 (640)
I0428 20:28:52.007936  3439 net.cpp:139] Memory required for data: 18768640
I0428 20:28:52.007946  3439 layer_factory.hpp:77] Creating layer relu3
I0428 20:28:52.007951  3439 net.cpp:86] Creating Layer relu3
I0428 20:28:52.007956  3439 net.cpp:408] relu3 <- ip3
I0428 20:28:52.007961  3439 net.cpp:369] relu3 -> ip3 (in-place)
I0428 20:28:52.008153  3439 net.cpp:124] Setting up relu3
I0428 20:28:52.008163  3439 net.cpp:131] Top shape: 64 10 (640)
I0428 20:28:52.008167  3439 net.cpp:139] Memory required for data: 18771200
I0428 20:28:52.008172  3439 layer_factory.hpp:77] Creating layer loss
I0428 20:28:52.008179  3439 net.cpp:86] Creating Layer loss
I0428 20:28:52.008183  3439 net.cpp:408] loss <- ip3
I0428 20:28:52.008188  3439 net.cpp:408] loss <- label
I0428 20:28:52.008194  3439 net.cpp:382] loss -> loss
I0428 20:28:52.008210  3439 layer_factory.hpp:77] Creating layer loss
…
I0428 20:28:52.008960  3439 solver.cpp:173] Creating test net (#0) specified by net file: ECE595/mnist/train_test/var_everything2/lenet_train_test1512.prototxt
I0428 20:28:52.008993  3439 net.cpp:296] The NetState phase (1) differed from the phase (0) specified by a rule in layer mnist
I0428 20:28:52.009101  3439 net.cpp:53] Initializing net from parameters: 
name: "LeNet"
state {
  phase: TEST
}
layer {
  name: "mnist"
  type: "Data"
  top: "data"
  top: "label"
  include {
    phase: TEST
  }
  transform_param {
    scale: 0.00390625
  }
  data_param {
    source: "examples/mnist/mnist_test_lmdb"
    batch_size: 100
    backend: LMDB
  }
}
layer {
  name: "conv0"
  type: "Convolution"
  bottom: "data"
  top: "conv0"
  param {
    lr_mult: 1
  }
  param {
    lr_mult: 2
  }
  convolution_param {
    num_output: 100
    kernel_size: 5
    stride: 1
    weight_filler {
      type: "xavier"
    }
    bias_filler {
      type: "constant"
    }
  }
}
layer {
  name: "pool0"
  type: "Pooling"
  bottom: "conv0"
  top: "pool0"
  pooling_param {
    pool: MAX
    kernel_size: 2
    stride: 2
  }
}
layer {
  name: "conv1"
  type: "Convolution"
  bottom: "pool0"
  top: "conv1"
  param {
    lr_mult: 1
  }
  param {
    lr_mult: 2
  }
  convolution_param {
    num_output: 5
    kernel_size: 5
    stride: 1
    weight_filler {
      type: "xavier"
    }
    bias_filler {
      type: "constant"
    }
  }
}
layer {
  name: "pool1"
  type: "Pooling"
  bottom: "conv1"
  top: "pool1"
  pooling_param {
    pool: MAX
    kernel_size: 2
    stride: 2
  }
}
layer {
  name: "ip1"
  type: "InnerProduct"
  bottom: "pool1"
  top: "ip1"
  param {
    lr_mult: 1
  }
  param {
    lr_mult: 2
  }
  inner_product_param {
    num_output: 50
    weight_filler {
      type: "xavier"
    }
    bias_filler {
      type: "constant"
    }
  }
}
layer {
  name: "relu1"
  type: "ReLU"
  bottom: "ip1"
  top: "ip1"
}
layer {
  name: "ip2"
  type: "InnerProduct"
  bottom: "ip1"
  top: "ip2"
  param {
    lr_mult: 1
  }
  param {
    lr_mult: 2
  }
  inner_product_param {
    num_output: 10
    weight_filler {
      type: "xavier"
    }
    bias_filler {
      type: "constant"
    }
  }
}
layer {
  name: "relu2"
  type: "ReLU"
  bottom: "ip2"
  top: "ip2"
}
layer {
  name: "ip3"
  type: "InnerProduct"
  bottom: "ip2"
  top: "ip3"
  param {
    lr_mult: 1
  }
  param {
    lr_mult: 2
  }
  inner_product_param {
    num_output: 10
    weight_filler {
      type: "xavier"
    }
    bias_filler {
      type: "constant"
    }
  }
}
layer {
  name: "relu3"
  type: "ReLU"
  bottom: "ip3"
  top: "ip3"
}
layer {
  name: "accuracy"
  type: "Accuracy"
  bottom: "ip3"
  bottom: "label"
  top: "accuracy"
  include {
    phase: TEST
  }
}
layer {
  name: "loss"
  type: "SoftmaxWithLoss"
  bottom: "ip3"
  bottom: "label"
  top: "loss"
}
I0428 20:28:52.009196  3439 layer_factory.hpp:77] Creating layer mnist
I0428 20:28:52.009248  3439 db_lmdb.cpp:35] Opened lmdb examples/mnist/mnist_test_lmdb
I0428 20:28:52.009260  3439 net.cpp:86] Creating Layer mnist
I0428 20:28:52.009266  3439 net.cpp:382] mnist -> data
I0428 20:28:52.009275  3439 net.cpp:382] mnist -> label
I0428 20:28:52.009374  3439 data_layer.cpp:45] output data size: 100,1,28,28
I0428 20:28:52.011551  3439 net.cpp:124] Setting up mnist
I0428 20:28:52.011566  3439 net.cpp:131] Top shape: 100 1 28 28 (78400)
I0428 20:28:52.011572  3439 net.cpp:131] Top shape: 100 (100)
I0428 20:28:52.011576  3439 net.cpp:139] Memory required for data: 314000
I0428 20:28:52.011580  3439 layer_factory.hpp:77] Creating layer label_mnist_1_split
I0428 20:28:52.011598  3439 net.cpp:86] Creating Layer label_mnist_1_split
I0428 20:28:52.011602  3439 net.cpp:408] label_mnist_1_split <- label
I0428 20:28:52.011608  3439 net.cpp:382] label_mnist_1_split -> label_mnist_1_split_0
I0428 20:28:52.011616  3439 net.cpp:382] label_mnist_1_split -> label_mnist_1_split_1
I0428 20:28:52.011687  3439 net.cpp:124] Setting up label_mnist_1_split
I0428 20:28:52.011694  3439 net.cpp:131] Top shape: 100 (100)
I0428 20:28:52.011698  3439 net.cpp:131] Top shape: 100 (100)
I0428 20:28:52.011701  3439 net.cpp:139] Memory required for data: 314800
I0428 20:28:52.011705  3439 layer_factory.hpp:77] Creating layer conv0
I0428 20:28:52.011715  3439 net.cpp:86] Creating Layer conv0
I0428 20:28:52.011719  3439 net.cpp:408] conv0 <- data
I0428 20:28:52.011725  3439 net.cpp:382] conv0 -> conv0
I0428 20:28:52.013639  3439 net.cpp:124] Setting up conv0
I0428 20:28:52.013656  3439 net.cpp:131] Top shape: 100 100 24 24 (5760000)
I0428 20:28:52.013661  3439 net.cpp:139] Memory required for data: 23354800
I0428 20:28:52.013672  3439 layer_factory.hpp:77] Creating layer pool0
I0428 20:28:52.013680  3439 net.cpp:86] Creating Layer pool0
I0428 20:28:52.013684  3439 net.cpp:408] pool0 <- conv0
I0428 20:28:52.013690  3439 net.cpp:382] pool0 -> pool0
I0428 20:28:52.013734  3439 net.cpp:124] Setting up pool0
I0428 20:28:52.013741  3439 net.cpp:131] Top shape: 100 100 12 12 (1440000)
I0428 20:28:52.013744  3439 net.cpp:139] Memory required for data: 29114800
I0428 20:28:52.013747  3439 layer_factory.hpp:77] Creating layer conv1
I0428 20:28:52.013757  3439 net.cpp:86] Creating Layer conv1
I0428 20:28:52.013761  3439 net.cpp:408] conv1 <- pool0
I0428 20:28:52.013767  3439 net.cpp:382] conv1 -> conv1
I0428 20:28:52.015525  3439 net.cpp:124] Setting up conv1
I0428 20:28:52.015542  3439 net.cpp:131] Top shape: 100 5 8 8 (32000)
I0428 20:28:52.015545  3439 net.cpp:139] Memory required for data: 29242800
I0428 20:28:52.015557  3439 layer_factory.hpp:77] Creating layer pool1
I0428 20:28:52.015563  3439 net.cpp:86] Creating Layer pool1
I0428 20:28:52.015568  3439 net.cpp:408] pool1 <- conv1
I0428 20:28:52.015574  3439 net.cpp:382] pool1 -> pool1
I0428 20:28:52.015616  3439 net.cpp:124] Setting up pool1
I0428 20:28:52.015624  3439 net.cpp:131] Top shape: 100 5 4 4 (8000)
I0428 20:28:52.015627  3439 net.cpp:139] Memory required for data: 29274800
I0428 20:28:52.015640  3439 layer_factory.hpp:77] Creating layer ip1
I0428 20:28:52.015647  3439 net.cpp:86] Creating Layer ip1
I0428 20:28:52.015651  3439 net.cpp:408] ip1 <- pool1
I0428 20:28:52.015657  3439 net.cpp:382] ip1 -> ip1
I0428 20:28:52.015800  3439 net.cpp:124] Setting up ip1
I0428 20:28:52.015812  3439 net.cpp:131] Top shape: 100 50 (5000)
I0428 20:28:52.015828  3439 net.cpp:139] Memory required for data: 29294800
I0428 20:28:52.015837  3439 layer_factory.hpp:77] Creating layer relu1
I0428 20:28:52.015843  3439 net.cpp:86] Creating Layer relu1
I0428 20:28:52.015848  3439 net.cpp:408] relu1 <- ip1
I0428 20:28:52.015853  3439 net.cpp:369] relu1 -> ip1 (in-place)
I0428 20:28:52.016047  3439 net.cpp:124] Setting up relu1
I0428 20:28:52.016057  3439 net.cpp:131] Top shape: 100 50 (5000)
I0428 20:28:52.016062  3439 net.cpp:139] Memory required for data: 29314800
I0428 20:28:52.016067  3439 layer_factory.hpp:77] Creating layer ip2
I0428 20:28:52.016074  3439 net.cpp:86] Creating Layer ip2
I0428 20:28:52.016082  3439 net.cpp:408] ip2 <- ip1
I0428 20:28:52.016088  3439 net.cpp:382] ip2 -> ip2
I0428 20:28:52.016228  3439 net.cpp:124] Setting up ip2
I0428 20:28:52.016237  3439 net.cpp:131] Top shape: 100 10 (1000)
I0428 20:28:52.016240  3439 net.cpp:139] Memory required for data: 29318800
I0428 20:28:52.016247  3439 layer_factory.hpp:77] Creating layer relu2
I0428 20:28:52.016253  3439 net.cpp:86] Creating Layer relu2
I0428 20:28:52.016258  3439 net.cpp:408] relu2 <- ip2
I0428 20:28:52.016263  3439 net.cpp:369] relu2 -> ip2 (in-place)
I0428 20:28:52.016480  3439 net.cpp:124] Setting up relu2
I0428 20:28:52.016490  3439 net.cpp:131] Top shape: 100 10 (1000)
I0428 20:28:52.016494  3439 net.cpp:139] Memory required for data: 29322800
I0428 20:28:52.016497  3439 layer_factory.hpp:77] Creating layer ip3
I0428 20:28:52.016505  3439 net.cpp:86] Creating Layer ip3
I0428 20:28:52.016508  3439 net.cpp:408] ip3 <- ip2
I0428 20:28:52.016515  3439 net.cpp:382] ip3 -> ip3
I0428 20:28:52.016624  3439 net.cpp:124] Setting up ip3
I0428 20:28:52.016633  3439 net.cpp:131] Top shape: 100 10 (1000)
I0428 20:28:52.016635  3439 net.cpp:139] Memory required for data: 29326800
I0428 20:28:52.016645  3439 layer_factory.hpp:77] Creating layer relu3
I0428 20:28:52.016650  3439 net.cpp:86] Creating Layer relu3
I0428 20:28:52.016654  3439 net.cpp:408] relu3 <- ip3
I0428 20:28:52.016659  3439 net.cpp:369] relu3 -> ip3 (in-place)
I0428 20:28:52.017592  3439 net.cpp:124] Setting up relu3
I0428 20:28:52.017607  3439 net.cpp:131] Top shape: 100 10 (1000)
I0428 20:28:52.017611  3439 net.cpp:139] Memory required for data: 29330800
I0428 20:28:52.017616  3439 layer_factory.hpp:77] Creating layer ip3_relu3_0_split
I0428 20:28:52.017622  3439 net.cpp:86] Creating Layer ip3_relu3_0_split
I0428 20:28:52.017627  3439 net.cpp:408] ip3_relu3_0_split <- ip3
I0428 20:28:52.017632  3439 net.cpp:382] ip3_relu3_0_split -> ip3_relu3_0_split_0
I0428 20:28:52.017639  3439 net.cpp:382] ip3_relu3_0_split -> ip3_relu3_0_split_1
I0428 20:28:52.017683  3439 net.cpp:124] Setting up ip3_relu3_0_split
I0428 20:28:52.017689  3439 net.cpp:131] Top shape: 100 10 (1000)
I0428 20:28:52.017694  3439 net.cpp:131] Top shape: 100 10 (1000)
I0428 20:28:52.017698  3439 net.cpp:139] Memory required for data: 29338800
I0428 20:28:52.017701  3439 layer_factory.hpp:77] Creating layer accuracy
I0428 20:28:52.017707  3439 net.cpp:86] Creating Layer accuracy
I0428 20:28:52.017711  3439 net.cpp:408] accuracy <- ip3_relu3_0_split_0
I0428 20:28:52.017716  3439 net.cpp:408] accuracy <- label_mnist_1_split_0
I0428 20:28:52.017721  3439 net.cpp:382] accuracy -> accuracy
…
