…
I0428 19:32:05.558387 22750 net.cpp:296] The NetState phase (0) differed from the phase (1) specified by a rule in layer mnist
I0428 19:32:05.558401 22750 net.cpp:296] The NetState phase (0) differed from the phase (1) specified by a rule in layer accuracy
I0428 19:32:05.558488 22750 net.cpp:53] Initializing net from parameters: 
name: "LeNet"
state {
  phase: TRAIN
  level: 0
  stage: ""
}
layer {
  name: "mnist"
  type: "Data"
  top: "data"
  top: "label"
  include {
    phase: TRAIN
  }
  transform_param {
    scale: 0.00390625
  }
  data_param {
    source: "examples/mnist/mnist_train_lmdb"
    batch_size: 64
    backend: LMDB
  }
}
layer {
  name: "conv0"
  type: "Convolution"
  bottom: "data"
  top: "conv0"
  param {
    lr_mult: 1
  }
  param {
    lr_mult: 2
  }
  convolution_param {
    num_output: 10
    kernel_size: 5
    stride: 1
    weight_filler {
      type: "xavier"
    }
    bias_filler {
      type: "constant"
    }
  }
}
layer {
  name: "pool0"
  type: "Pooling"
  bottom: "conv0"
  top: "pool0"
  pooling_param {
    pool: MAX
    kernel_size: 2
    stride: 2
  }
}
layer {
  name: "ip1"
  type: "InnerProduct"
  bottom: "pool0"
  top: "ip1"
  param {
    lr_mult: 1
  }
  param {
    lr_mult: 2
  }
  inner_product_param {
    num_output: 25
    weight_filler {
      type: "xavier"
    }
    bias_filler {
      type: "constant"
    }
  }
}
layer {
  name: "relu1"
  type: "ReLU"
  bottom: "ip1"
  top: "ip1"
}
layer {
  name: "ip2"
  type: "InnerProduct"
  bottom: "ip1"
  top: "ip2"
  param {
    lr_mult: 1
  }
  param {
    lr_mult: 2
  }
  inner_product_param {
    num_output: 25
    weight_filler {
      type: "xavier"
    }
    bias_filler {
      type: "constant"
    }
  }
}
layer {
  name: "relu2"
  type: "ReLU"
  bottom: "ip2"
  top: "ip2"
}
layer {
  name: "ip3"
  type: "InnerProduct"
  bottom: "ip2"
  top: "ip3"
  param {
    lr_mult: 1
  }
  param {
    lr_mult: 2
  }
  inner_product_param {
    num_output: 10
    weight_filler {
      type: "xavier"
    }
    bias_filler {
      type: "constant"
    }
  }
}
layer {
  name: "relu3"
  type: "ReLU"
  bottom: "ip3"
  top: "ip3"
}
layer {
  name: "loss"
  type: "SoftmaxWithLoss"
  bottom: "ip3"
  bottom: "label"
  top: "loss"
}
I0428 19:32:05.558562 22750 layer_factory.hpp:77] Creating layer mnist
I0428 19:32:05.558660 22750 db_lmdb.cpp:35] Opened lmdb examples/mnist/mnist_train_lmdb
I0428 19:32:05.558684 22750 net.cpp:86] Creating Layer mnist
I0428 19:32:05.558691 22750 net.cpp:382] mnist -> data
I0428 19:32:05.558715 22750 net.cpp:382] mnist -> label
I0428 19:32:05.559798 22750 data_layer.cpp:45] output data size: 64,1,28,28
I0428 19:32:05.562477 22750 net.cpp:124] Setting up mnist
I0428 19:32:05.562497 22750 net.cpp:131] Top shape: 64 1 28 28 (50176)
I0428 19:32:05.562503 22750 net.cpp:131] Top shape: 64 (64)
I0428 19:32:05.562506 22750 net.cpp:139] Memory required for data: 200960
I0428 19:32:05.562515 22750 layer_factory.hpp:77] Creating layer conv0
I0428 19:32:05.562546 22750 net.cpp:86] Creating Layer conv0
I0428 19:32:05.562552 22750 net.cpp:408] conv0 <- data
I0428 19:32:05.562564 22750 net.cpp:382] conv0 -> conv0
I0428 19:32:05.850862 22750 net.cpp:124] Setting up conv0
I0428 19:32:05.850893 22750 net.cpp:131] Top shape: 64 10 24 24 (368640)
I0428 19:32:05.850898 22750 net.cpp:139] Memory required for data: 1675520
I0428 19:32:05.850915 22750 layer_factory.hpp:77] Creating layer pool0
I0428 19:32:05.850929 22750 net.cpp:86] Creating Layer pool0
I0428 19:32:05.850957 22750 net.cpp:408] pool0 <- conv0
I0428 19:32:05.850965 22750 net.cpp:382] pool0 -> pool0
I0428 19:32:05.851022 22750 net.cpp:124] Setting up pool0
I0428 19:32:05.851037 22750 net.cpp:131] Top shape: 64 10 12 12 (92160)
I0428 19:32:05.851042 22750 net.cpp:139] Memory required for data: 2044160
I0428 19:32:05.851045 22750 layer_factory.hpp:77] Creating layer ip1
I0428 19:32:05.851054 22750 net.cpp:86] Creating Layer ip1
I0428 19:32:05.851058 22750 net.cpp:408] ip1 <- pool0
I0428 19:32:05.851063 22750 net.cpp:382] ip1 -> ip1
I0428 19:32:05.851428 22750 net.cpp:124] Setting up ip1
I0428 19:32:05.851438 22750 net.cpp:131] Top shape: 64 25 (1600)
I0428 19:32:05.851441 22750 net.cpp:139] Memory required for data: 2050560
I0428 19:32:05.851449 22750 layer_factory.hpp:77] Creating layer relu1
I0428 19:32:05.851456 22750 net.cpp:86] Creating Layer relu1
I0428 19:32:05.851460 22750 net.cpp:408] relu1 <- ip1
I0428 19:32:05.851465 22750 net.cpp:369] relu1 -> ip1 (in-place)
I0428 19:32:05.851655 22750 net.cpp:124] Setting up relu1
I0428 19:32:05.851665 22750 net.cpp:131] Top shape: 64 25 (1600)
I0428 19:32:05.851670 22750 net.cpp:139] Memory required for data: 2056960
I0428 19:32:05.851672 22750 layer_factory.hpp:77] Creating layer ip2
I0428 19:32:05.851680 22750 net.cpp:86] Creating Layer ip2
I0428 19:32:05.851685 22750 net.cpp:408] ip2 <- ip1
I0428 19:32:05.851689 22750 net.cpp:382] ip2 -> ip2
I0428 19:32:05.851800 22750 net.cpp:124] Setting up ip2
I0428 19:32:05.851809 22750 net.cpp:131] Top shape: 64 25 (1600)
I0428 19:32:05.851812 22750 net.cpp:139] Memory required for data: 2063360
I0428 19:32:05.851821 22750 layer_factory.hpp:77] Creating layer relu2
I0428 19:32:05.851827 22750 net.cpp:86] Creating Layer relu2
I0428 19:32:05.851830 22750 net.cpp:408] relu2 <- ip2
I0428 19:32:05.851835 22750 net.cpp:369] relu2 -> ip2 (in-place)
I0428 19:32:05.852689 22750 net.cpp:124] Setting up relu2
I0428 19:32:05.852704 22750 net.cpp:131] Top shape: 64 25 (1600)
I0428 19:32:05.852708 22750 net.cpp:139] Memory required for data: 2069760
I0428 19:32:05.852712 22750 layer_factory.hpp:77] Creating layer ip3
I0428 19:32:05.852720 22750 net.cpp:86] Creating Layer ip3
I0428 19:32:05.852725 22750 net.cpp:408] ip3 <- ip2
I0428 19:32:05.852730 22750 net.cpp:382] ip3 -> ip3
I0428 19:32:05.852854 22750 net.cpp:124] Setting up ip3
I0428 19:32:05.852864 22750 net.cpp:131] Top shape: 64 10 (640)
I0428 19:32:05.852869 22750 net.cpp:139] Memory required for data: 2072320
I0428 19:32:05.852874 22750 layer_factory.hpp:77] Creating layer relu3
I0428 19:32:05.852882 22750 net.cpp:86] Creating Layer relu3
I0428 19:32:05.852885 22750 net.cpp:408] relu3 <- ip3
I0428 19:32:05.852891 22750 net.cpp:369] relu3 -> ip3 (in-place)
I0428 19:32:05.853065 22750 net.cpp:124] Setting up relu3
I0428 19:32:05.853075 22750 net.cpp:131] Top shape: 64 10 (640)
I0428 19:32:05.853080 22750 net.cpp:139] Memory required for data: 2074880
I0428 19:32:05.853085 22750 layer_factory.hpp:77] Creating layer loss
I0428 19:32:05.853091 22750 net.cpp:86] Creating Layer loss
I0428 19:32:05.853094 22750 net.cpp:408] loss <- ip3
I0428 19:32:05.853099 22750 net.cpp:408] loss <- label
I0428 19:32:05.853106 22750 net.cpp:382] loss -> loss
I0428 19:32:05.853127 22750 layer_factory.hpp:77] Creating layer loss
…
I0428 19:32:05.853814 22750 solver.cpp:173] Creating test net (#0) specified by net file: ECE595/mnist/train_test/var_everything2/lenet_train_test142.prototxt
I0428 19:32:05.853844 22750 net.cpp:296] The NetState phase (1) differed from the phase (0) specified by a rule in layer mnist
I0428 19:32:05.853938 22750 net.cpp:53] Initializing net from parameters: 
name: "LeNet"
state {
  phase: TEST
}
layer {
  name: "mnist"
  type: "Data"
  top: "data"
  top: "label"
  include {
    phase: TEST
  }
  transform_param {
    scale: 0.00390625
  }
  data_param {
    source: "examples/mnist/mnist_test_lmdb"
    batch_size: 100
    backend: LMDB
  }
}
layer {
  name: "conv0"
  type: "Convolution"
  bottom: "data"
  top: "conv0"
  param {
    lr_mult: 1
  }
  param {
    lr_mult: 2
  }
  convolution_param {
    num_output: 10
    kernel_size: 5
    stride: 1
    weight_filler {
      type: "xavier"
    }
    bias_filler {
      type: "constant"
    }
  }
}
layer {
  name: "pool0"
  type: "Pooling"
  bottom: "conv0"
  top: "pool0"
  pooling_param {
    pool: MAX
    kernel_size: 2
    stride: 2
  }
}
layer {
  name: "ip1"
  type: "InnerProduct"
  bottom: "pool0"
  top: "ip1"
  param {
    lr_mult: 1
  }
  param {
    lr_mult: 2
  }
  inner_product_param {
    num_output: 25
    weight_filler {
      type: "xavier"
    }
    bias_filler {
      type: "constant"
    }
  }
}
layer {
  name: "relu1"
  type: "ReLU"
  bottom: "ip1"
  top: "ip1"
}
layer {
  name: "ip2"
  type: "InnerProduct"
  bottom: "ip1"
  top: "ip2"
  param {
    lr_mult: 1
  }
  param {
    lr_mult: 2
  }
  inner_product_param {
    num_output: 25
    weight_filler {
      type: "xavier"
    }
    bias_filler {
      type: "constant"
    }
  }
}
layer {
  name: "relu2"
  type: "ReLU"
  bottom: "ip2"
  top: "ip2"
}
layer {
  name: "ip3"
  type: "InnerProduct"
  bottom: "ip2"
  top: "ip3"
  param {
    lr_mult: 1
  }
  param {
    lr_mult: 2
  }
  inner_product_param {
    num_output: 10
    weight_filler {
      type: "xavier"
    }
    bias_filler {
      type: "constant"
    }
  }
}
layer {
  name: "relu3"
  type: "ReLU"
  bottom: "ip3"
  top: "ip3"
}
layer {
  name: "accuracy"
  type: "Accuracy"
  bottom: "ip3"
  bottom: "label"
  top: "accuracy"
  include {
    phase: TEST
  }
}
layer {
  name: "loss"
  type: "SoftmaxWithLoss"
  bottom: "ip3"
  bottom: "label"
  top: "loss"
}
I0428 19:32:05.854013 22750 layer_factory.hpp:77] Creating layer mnist
I0428 19:32:05.854070 22750 db_lmdb.cpp:35] Opened lmdb examples/mnist/mnist_test_lmdb
I0428 19:32:05.854085 22750 net.cpp:86] Creating Layer mnist
I0428 19:32:05.854090 22750 net.cpp:382] mnist -> data
I0428 19:32:05.854099 22750 net.cpp:382] mnist -> label
I0428 19:32:05.854199 22750 data_layer.cpp:45] output data size: 100,1,28,28
I0428 19:32:05.856380 22750 net.cpp:124] Setting up mnist
I0428 19:32:05.856396 22750 net.cpp:131] Top shape: 100 1 28 28 (78400)
I0428 19:32:05.856402 22750 net.cpp:131] Top shape: 100 (100)
I0428 19:32:05.856406 22750 net.cpp:139] Memory required for data: 314000
I0428 19:32:05.856410 22750 layer_factory.hpp:77] Creating layer label_mnist_1_split
I0428 19:32:05.856423 22750 net.cpp:86] Creating Layer label_mnist_1_split
I0428 19:32:05.856427 22750 net.cpp:408] label_mnist_1_split <- label
I0428 19:32:05.856432 22750 net.cpp:382] label_mnist_1_split -> label_mnist_1_split_0
I0428 19:32:05.856441 22750 net.cpp:382] label_mnist_1_split -> label_mnist_1_split_1
I0428 19:32:05.856492 22750 net.cpp:124] Setting up label_mnist_1_split
I0428 19:32:05.856499 22750 net.cpp:131] Top shape: 100 (100)
I0428 19:32:05.856503 22750 net.cpp:131] Top shape: 100 (100)
I0428 19:32:05.856506 22750 net.cpp:139] Memory required for data: 314800
I0428 19:32:05.856521 22750 layer_factory.hpp:77] Creating layer conv0
I0428 19:32:05.856533 22750 net.cpp:86] Creating Layer conv0
I0428 19:32:05.856536 22750 net.cpp:408] conv0 <- data
I0428 19:32:05.856544 22750 net.cpp:382] conv0 -> conv0
I0428 19:32:05.858428 22750 net.cpp:124] Setting up conv0
I0428 19:32:05.858444 22750 net.cpp:131] Top shape: 100 10 24 24 (576000)
I0428 19:32:05.858449 22750 net.cpp:139] Memory required for data: 2618800
I0428 19:32:05.858460 22750 layer_factory.hpp:77] Creating layer pool0
I0428 19:32:05.858467 22750 net.cpp:86] Creating Layer pool0
I0428 19:32:05.858471 22750 net.cpp:408] pool0 <- conv0
I0428 19:32:05.858477 22750 net.cpp:382] pool0 -> pool0
I0428 19:32:05.858518 22750 net.cpp:124] Setting up pool0
I0428 19:32:05.858525 22750 net.cpp:131] Top shape: 100 10 12 12 (144000)
I0428 19:32:05.858530 22750 net.cpp:139] Memory required for data: 3194800
I0428 19:32:05.858532 22750 layer_factory.hpp:77] Creating layer ip1
I0428 19:32:05.858541 22750 net.cpp:86] Creating Layer ip1
I0428 19:32:05.858544 22750 net.cpp:408] ip1 <- pool0
I0428 19:32:05.858549 22750 net.cpp:382] ip1 -> ip1
I0428 19:32:05.858908 22750 net.cpp:124] Setting up ip1
I0428 19:32:05.858918 22750 net.cpp:131] Top shape: 100 25 (2500)
I0428 19:32:05.858922 22750 net.cpp:139] Memory required for data: 3204800
I0428 19:32:05.858930 22750 layer_factory.hpp:77] Creating layer relu1
I0428 19:32:05.858937 22750 net.cpp:86] Creating Layer relu1
I0428 19:32:05.858940 22750 net.cpp:408] relu1 <- ip1
I0428 19:32:05.858944 22750 net.cpp:369] relu1 -> ip1 (in-place)
I0428 19:32:05.859191 22750 net.cpp:124] Setting up relu1
I0428 19:32:05.859205 22750 net.cpp:131] Top shape: 100 25 (2500)
I0428 19:32:05.859210 22750 net.cpp:139] Memory required for data: 3214800
I0428 19:32:05.859212 22750 layer_factory.hpp:77] Creating layer ip2
I0428 19:32:05.859220 22750 net.cpp:86] Creating Layer ip2
I0428 19:32:05.859222 22750 net.cpp:408] ip2 <- ip1
I0428 19:32:05.859228 22750 net.cpp:382] ip2 -> ip2
I0428 19:32:05.859405 22750 net.cpp:124] Setting up ip2
I0428 19:32:05.859414 22750 net.cpp:131] Top shape: 100 25 (2500)
I0428 19:32:05.859424 22750 net.cpp:139] Memory required for data: 3224800
I0428 19:32:05.859433 22750 layer_factory.hpp:77] Creating layer relu2
I0428 19:32:05.859439 22750 net.cpp:86] Creating Layer relu2
I0428 19:32:05.859443 22750 net.cpp:408] relu2 <- ip2
I0428 19:32:05.859448 22750 net.cpp:369] relu2 -> ip2 (in-place)
I0428 19:32:05.860365 22750 net.cpp:124] Setting up relu2
I0428 19:32:05.860381 22750 net.cpp:131] Top shape: 100 25 (2500)
I0428 19:32:05.860385 22750 net.cpp:139] Memory required for data: 3234800
I0428 19:32:05.860390 22750 layer_factory.hpp:77] Creating layer ip3
I0428 19:32:05.860399 22750 net.cpp:86] Creating Layer ip3
I0428 19:32:05.860404 22750 net.cpp:408] ip3 <- ip2
I0428 19:32:05.860409 22750 net.cpp:382] ip3 -> ip3
I0428 19:32:05.860543 22750 net.cpp:124] Setting up ip3
I0428 19:32:05.860551 22750 net.cpp:131] Top shape: 100 10 (1000)
I0428 19:32:05.860554 22750 net.cpp:139] Memory required for data: 3238800
I0428 19:32:05.860561 22750 layer_factory.hpp:77] Creating layer relu3
I0428 19:32:05.860566 22750 net.cpp:86] Creating Layer relu3
I0428 19:32:05.860570 22750 net.cpp:408] relu3 <- ip3
I0428 19:32:05.860575 22750 net.cpp:369] relu3 -> ip3 (in-place)
I0428 19:32:05.860752 22750 net.cpp:124] Setting up relu3
I0428 19:32:05.860761 22750 net.cpp:131] Top shape: 100 10 (1000)
I0428 19:32:05.860765 22750 net.cpp:139] Memory required for data: 3242800
I0428 19:32:05.860769 22750 layer_factory.hpp:77] Creating layer ip3_relu3_0_split
I0428 19:32:05.860783 22750 net.cpp:86] Creating Layer ip3_relu3_0_split
I0428 19:32:05.860787 22750 net.cpp:408] ip3_relu3_0_split <- ip3
I0428 19:32:05.860793 22750 net.cpp:382] ip3_relu3_0_split -> ip3_relu3_0_split_0
I0428 19:32:05.860800 22750 net.cpp:382] ip3_relu3_0_split -> ip3_relu3_0_split_1
I0428 19:32:05.860848 22750 net.cpp:124] Setting up ip3_relu3_0_split
I0428 19:32:05.860855 22750 net.cpp:131] Top shape: 100 10 (1000)
I0428 19:32:05.860860 22750 net.cpp:131] Top shape: 100 10 (1000)
I0428 19:32:05.860877 22750 net.cpp:139] Memory required for data: 3250800
I0428 19:32:05.860882 22750 layer_factory.hpp:77] Creating layer accuracy
I0428 19:32:05.860888 22750 net.cpp:86] Creating Layer accuracy
I0428 19:32:05.860891 22750 net.cpp:408] accuracy <- ip3_relu3_0_split_0
I0428 19:32:05.860896 22750 net.cpp:408] accuracy <- label_mnist_1_split_0
I0428 19:32:05.860901 22750 net.cpp:382] accuracy -> accuracy
…
