…
I0428 20:15:50.257436   528 net.cpp:296] The NetState phase (0) differed from the phase (1) specified by a rule in layer mnist
I0428 20:15:50.257453   528 net.cpp:296] The NetState phase (0) differed from the phase (1) specified by a rule in layer accuracy
I0428 20:15:50.257545   528 net.cpp:53] Initializing net from parameters: 
name: "LeNet"
state {
  phase: TRAIN
  level: 0
  stage: ""
}
layer {
  name: "mnist"
  type: "Data"
  top: "data"
  top: "label"
  include {
    phase: TRAIN
  }
  transform_param {
    scale: 0.00390625
  }
  data_param {
    source: "examples/mnist/mnist_train_lmdb"
    batch_size: 64
    backend: LMDB
  }
}
layer {
  name: "conv0"
  type: "Convolution"
  bottom: "data"
  top: "conv0"
  param {
    lr_mult: 1
  }
  param {
    lr_mult: 2
  }
  convolution_param {
    num_output: 50
    kernel_size: 5
    stride: 1
    weight_filler {
      type: "xavier"
    }
    bias_filler {
      type: "constant"
    }
  }
}
layer {
  name: "pool0"
  type: "Pooling"
  bottom: "conv0"
  top: "pool0"
  pooling_param {
    pool: MAX
    kernel_size: 2
    stride: 2
  }
}
layer {
  name: "conv1"
  type: "Convolution"
  bottom: "pool0"
  top: "conv1"
  param {
    lr_mult: 1
  }
  param {
    lr_mult: 2
  }
  convolution_param {
    num_output: 5
    kernel_size: 5
    stride: 1
    weight_filler {
      type: "xavier"
    }
    bias_filler {
      type: "constant"
    }
  }
}
layer {
  name: "pool1"
  type: "Pooling"
  bottom: "conv1"
  top: "pool1"
  pooling_param {
    pool: MAX
    kernel_size: 2
    stride: 2
  }
}
layer {
  name: "ip1"
  type: "InnerProduct"
  bottom: "pool1"
  top: "ip1"
  param {
    lr_mult: 1
  }
  param {
    lr_mult: 2
  }
  inner_product_param {
    num_output: 25
    weight_filler {
      type: "xavier"
    }
    bias_filler {
      type: "constant"
    }
  }
}
layer {
  name: "relu1"
  type: "ReLU"
  bottom: "ip1"
  top: "ip1"
}
layer {
  name: "ip2"
  type: "InnerProduct"
  bottom: "ip1"
  top: "ip2"
  param {
    lr_mult: 1
  }
  param {
    lr_mult: 2
  }
  inner_product_param {
    num_output: 10
    weight_filler {
      type: "xavier"
    }
    bias_filler {
      type: "constant"
    }
  }
}
layer {
  name: "relu2"
  type: "ReLU"
  bottom: "ip2"
  top: "ip2"
}
layer {
  name: "loss"
  type: "SoftmaxWithLoss"
  bottom: "ip2"
  bottom: "label"
  top: "loss"
}
I0428 20:15:50.257621   528 layer_factory.hpp:77] Creating layer mnist
I0428 20:15:50.257727   528 db_lmdb.cpp:35] Opened lmdb examples/mnist/mnist_train_lmdb
I0428 20:15:50.257750   528 net.cpp:86] Creating Layer mnist
I0428 20:15:50.257760   528 net.cpp:382] mnist -> data
I0428 20:15:50.257781   528 net.cpp:382] mnist -> label
I0428 20:15:50.258877   528 data_layer.cpp:45] output data size: 64,1,28,28
I0428 20:15:50.261554   528 net.cpp:124] Setting up mnist
I0428 20:15:50.261572   528 net.cpp:131] Top shape: 64 1 28 28 (50176)
I0428 20:15:50.261577   528 net.cpp:131] Top shape: 64 (64)
I0428 20:15:50.261581   528 net.cpp:139] Memory required for data: 200960
I0428 20:15:50.261589   528 layer_factory.hpp:77] Creating layer conv0
I0428 20:15:50.261607   528 net.cpp:86] Creating Layer conv0
I0428 20:15:50.261612   528 net.cpp:408] conv0 <- data
I0428 20:15:50.261626   528 net.cpp:382] conv0 -> conv0
I0428 20:15:50.572854   528 net.cpp:124] Setting up conv0
I0428 20:15:50.572885   528 net.cpp:131] Top shape: 64 50 24 24 (1843200)
I0428 20:15:50.572890   528 net.cpp:139] Memory required for data: 7573760
I0428 20:15:50.572926   528 layer_factory.hpp:77] Creating layer pool0
I0428 20:15:50.572942   528 net.cpp:86] Creating Layer pool0
I0428 20:15:50.572950   528 net.cpp:408] pool0 <- conv0
I0428 20:15:50.572957   528 net.cpp:382] pool0 -> pool0
I0428 20:15:50.573015   528 net.cpp:124] Setting up pool0
I0428 20:15:50.573024   528 net.cpp:131] Top shape: 64 50 12 12 (460800)
I0428 20:15:50.573029   528 net.cpp:139] Memory required for data: 9416960
I0428 20:15:50.573032   528 layer_factory.hpp:77] Creating layer conv1
I0428 20:15:50.573045   528 net.cpp:86] Creating Layer conv1
I0428 20:15:50.573052   528 net.cpp:408] conv1 <- pool0
I0428 20:15:50.573058   528 net.cpp:382] conv1 -> conv1
I0428 20:15:50.576210   528 net.cpp:124] Setting up conv1
I0428 20:15:50.576228   528 net.cpp:131] Top shape: 64 5 8 8 (20480)
I0428 20:15:50.576233   528 net.cpp:139] Memory required for data: 9498880
I0428 20:15:50.576243   528 layer_factory.hpp:77] Creating layer pool1
I0428 20:15:50.576253   528 net.cpp:86] Creating Layer pool1
I0428 20:15:50.576257   528 net.cpp:408] pool1 <- conv1
I0428 20:15:50.576263   528 net.cpp:382] pool1 -> pool1
I0428 20:15:50.576313   528 net.cpp:124] Setting up pool1
I0428 20:15:50.576321   528 net.cpp:131] Top shape: 64 5 4 4 (5120)
I0428 20:15:50.576324   528 net.cpp:139] Memory required for data: 9519360
I0428 20:15:50.576328   528 layer_factory.hpp:77] Creating layer ip1
I0428 20:15:50.576336   528 net.cpp:86] Creating Layer ip1
I0428 20:15:50.576340   528 net.cpp:408] ip1 <- pool1
I0428 20:15:50.576346   528 net.cpp:382] ip1 -> ip1
I0428 20:15:50.576483   528 net.cpp:124] Setting up ip1
I0428 20:15:50.576491   528 net.cpp:131] Top shape: 64 25 (1600)
I0428 20:15:50.576494   528 net.cpp:139] Memory required for data: 9525760
I0428 20:15:50.576504   528 layer_factory.hpp:77] Creating layer relu1
I0428 20:15:50.576512   528 net.cpp:86] Creating Layer relu1
I0428 20:15:50.576519   528 net.cpp:408] relu1 <- ip1
I0428 20:15:50.576524   528 net.cpp:369] relu1 -> ip1 (in-place)
I0428 20:15:50.576735   528 net.cpp:124] Setting up relu1
I0428 20:15:50.576745   528 net.cpp:131] Top shape: 64 25 (1600)
I0428 20:15:50.576748   528 net.cpp:139] Memory required for data: 9532160
I0428 20:15:50.576752   528 layer_factory.hpp:77] Creating layer ip2
I0428 20:15:50.576764   528 net.cpp:86] Creating Layer ip2
I0428 20:15:50.576768   528 net.cpp:408] ip2 <- ip1
I0428 20:15:50.576773   528 net.cpp:382] ip2 -> ip2
I0428 20:15:50.576902   528 net.cpp:124] Setting up ip2
I0428 20:15:50.576912   528 net.cpp:131] Top shape: 64 10 (640)
I0428 20:15:50.576916   528 net.cpp:139] Memory required for data: 9534720
I0428 20:15:50.576923   528 layer_factory.hpp:77] Creating layer relu2
I0428 20:15:50.576932   528 net.cpp:86] Creating Layer relu2
I0428 20:15:50.576936   528 net.cpp:408] relu2 <- ip2
I0428 20:15:50.576941   528 net.cpp:369] relu2 -> ip2 (in-place)
I0428 20:15:50.577797   528 net.cpp:124] Setting up relu2
I0428 20:15:50.577812   528 net.cpp:131] Top shape: 64 10 (640)
I0428 20:15:50.577816   528 net.cpp:139] Memory required for data: 9537280
I0428 20:15:50.577821   528 layer_factory.hpp:77] Creating layer loss
I0428 20:15:50.577829   528 net.cpp:86] Creating Layer loss
I0428 20:15:50.577833   528 net.cpp:408] loss <- ip2
I0428 20:15:50.577838   528 net.cpp:408] loss <- label
I0428 20:15:50.577844   528 net.cpp:382] loss -> loss
I0428 20:15:50.577867   528 layer_factory.hpp:77] Creating layer loss
…
I0428 20:15:50.578600   528 solver.cpp:173] Creating test net (#0) specified by net file: ECE595/mnist/train_test/var_everything2/lenet_train_test1256.prototxt
I0428 20:15:50.578630   528 net.cpp:296] The NetState phase (1) differed from the phase (0) specified by a rule in layer mnist
I0428 20:15:50.578730   528 net.cpp:53] Initializing net from parameters: 
name: "LeNet"
state {
  phase: TEST
}
layer {
  name: "mnist"
  type: "Data"
  top: "data"
  top: "label"
  include {
    phase: TEST
  }
  transform_param {
    scale: 0.00390625
  }
  data_param {
    source: "examples/mnist/mnist_test_lmdb"
    batch_size: 100
    backend: LMDB
  }
}
layer {
  name: "conv0"
  type: "Convolution"
  bottom: "data"
  top: "conv0"
  param {
    lr_mult: 1
  }
  param {
    lr_mult: 2
  }
  convolution_param {
    num_output: 50
    kernel_size: 5
    stride: 1
    weight_filler {
      type: "xavier"
    }
    bias_filler {
      type: "constant"
    }
  }
}
layer {
  name: "pool0"
  type: "Pooling"
  bottom: "conv0"
  top: "pool0"
  pooling_param {
    pool: MAX
    kernel_size: 2
    stride: 2
  }
}
layer {
  name: "conv1"
  type: "Convolution"
  bottom: "pool0"
  top: "conv1"
  param {
    lr_mult: 1
  }
  param {
    lr_mult: 2
  }
  convolution_param {
    num_output: 5
    kernel_size: 5
    stride: 1
    weight_filler {
      type: "xavier"
    }
    bias_filler {
      type: "constant"
    }
  }
}
layer {
  name: "pool1"
  type: "Pooling"
  bottom: "conv1"
  top: "pool1"
  pooling_param {
    pool: MAX
    kernel_size: 2
    stride: 2
  }
}
layer {
  name: "ip1"
  type: "InnerProduct"
  bottom: "pool1"
  top: "ip1"
  param {
    lr_mult: 1
  }
  param {
    lr_mult: 2
  }
  inner_product_param {
    num_output: 25
    weight_filler {
      type: "xavier"
    }
    bias_filler {
      type: "constant"
    }
  }
}
layer {
  name: "relu1"
  type: "ReLU"
  bottom: "ip1"
  top: "ip1"
}
layer {
  name: "ip2"
  type: "InnerProduct"
  bottom: "ip1"
  top: "ip2"
  param {
    lr_mult: 1
  }
  param {
    lr_mult: 2
  }
  inner_product_param {
    num_output: 10
    weight_filler {
      type: "xavier"
    }
    bias_filler {
      type: "constant"
    }
  }
}
layer {
  name: "relu2"
  type: "ReLU"
  bottom: "ip2"
  top: "ip2"
}
layer {
  name: "accuracy"
  type: "Accuracy"
  bottom: "ip2"
  bottom: "label"
  top: "accuracy"
  include {
    phase: TEST
  }
}
layer {
  name: "loss"
  type: "SoftmaxWithLoss"
  bottom: "ip2"
  bottom: "label"
  top: "loss"
}
I0428 20:15:50.578809   528 layer_factory.hpp:77] Creating layer mnist
I0428 20:15:50.578862   528 db_lmdb.cpp:35] Opened lmdb examples/mnist/mnist_test_lmdb
I0428 20:15:50.578877   528 net.cpp:86] Creating Layer mnist
I0428 20:15:50.578882   528 net.cpp:382] mnist -> data
I0428 20:15:50.578891   528 net.cpp:382] mnist -> label
I0428 20:15:50.578994   528 data_layer.cpp:45] output data size: 100,1,28,28
I0428 20:15:50.581203   528 net.cpp:124] Setting up mnist
I0428 20:15:50.581219   528 net.cpp:131] Top shape: 100 1 28 28 (78400)
I0428 20:15:50.581226   528 net.cpp:131] Top shape: 100 (100)
I0428 20:15:50.581230   528 net.cpp:139] Memory required for data: 314000
I0428 20:15:50.581234   528 layer_factory.hpp:77] Creating layer label_mnist_1_split
I0428 20:15:50.581243   528 net.cpp:86] Creating Layer label_mnist_1_split
I0428 20:15:50.581246   528 net.cpp:408] label_mnist_1_split <- label
I0428 20:15:50.581252   528 net.cpp:382] label_mnist_1_split -> label_mnist_1_split_0
I0428 20:15:50.581260   528 net.cpp:382] label_mnist_1_split -> label_mnist_1_split_1
I0428 20:15:50.581311   528 net.cpp:124] Setting up label_mnist_1_split
I0428 20:15:50.581331   528 net.cpp:131] Top shape: 100 (100)
I0428 20:15:50.581336   528 net.cpp:131] Top shape: 100 (100)
I0428 20:15:50.581341   528 net.cpp:139] Memory required for data: 314800
I0428 20:15:50.581343   528 layer_factory.hpp:77] Creating layer conv0
I0428 20:15:50.581354   528 net.cpp:86] Creating Layer conv0
I0428 20:15:50.581358   528 net.cpp:408] conv0 <- data
I0428 20:15:50.581367   528 net.cpp:382] conv0 -> conv0
I0428 20:15:50.583323   528 net.cpp:124] Setting up conv0
I0428 20:15:50.583341   528 net.cpp:131] Top shape: 100 50 24 24 (2880000)
I0428 20:15:50.583345   528 net.cpp:139] Memory required for data: 11834800
I0428 20:15:50.583356   528 layer_factory.hpp:77] Creating layer pool0
I0428 20:15:50.583365   528 net.cpp:86] Creating Layer pool0
I0428 20:15:50.583370   528 net.cpp:408] pool0 <- conv0
I0428 20:15:50.583375   528 net.cpp:382] pool0 -> pool0
I0428 20:15:50.583420   528 net.cpp:124] Setting up pool0
I0428 20:15:50.583429   528 net.cpp:131] Top shape: 100 50 12 12 (720000)
I0428 20:15:50.583433   528 net.cpp:139] Memory required for data: 14714800
I0428 20:15:50.583437   528 layer_factory.hpp:77] Creating layer conv1
I0428 20:15:50.583449   528 net.cpp:86] Creating Layer conv1
I0428 20:15:50.583457   528 net.cpp:408] conv1 <- pool0
I0428 20:15:50.583464   528 net.cpp:382] conv1 -> conv1
I0428 20:15:50.585368   528 net.cpp:124] Setting up conv1
I0428 20:15:50.585384   528 net.cpp:131] Top shape: 100 5 8 8 (32000)
I0428 20:15:50.585391   528 net.cpp:139] Memory required for data: 14842800
I0428 20:15:50.585402   528 layer_factory.hpp:77] Creating layer pool1
I0428 20:15:50.585408   528 net.cpp:86] Creating Layer pool1
I0428 20:15:50.585412   528 net.cpp:408] pool1 <- conv1
I0428 20:15:50.585418   528 net.cpp:382] pool1 -> pool1
I0428 20:15:50.585465   528 net.cpp:124] Setting up pool1
I0428 20:15:50.585476   528 net.cpp:131] Top shape: 100 5 4 4 (8000)
I0428 20:15:50.585480   528 net.cpp:139] Memory required for data: 14874800
I0428 20:15:50.585490   528 layer_factory.hpp:77] Creating layer ip1
I0428 20:15:50.585497   528 net.cpp:86] Creating Layer ip1
I0428 20:15:50.585501   528 net.cpp:408] ip1 <- pool1
I0428 20:15:50.585510   528 net.cpp:382] ip1 -> ip1
I0428 20:15:50.585645   528 net.cpp:124] Setting up ip1
I0428 20:15:50.585654   528 net.cpp:131] Top shape: 100 25 (2500)
I0428 20:15:50.585659   528 net.cpp:139] Memory required for data: 14884800
I0428 20:15:50.585667   528 layer_factory.hpp:77] Creating layer relu1
I0428 20:15:50.585675   528 net.cpp:86] Creating Layer relu1
I0428 20:15:50.585678   528 net.cpp:408] relu1 <- ip1
I0428 20:15:50.585695   528 net.cpp:369] relu1 -> ip1 (in-place)
I0428 20:15:50.585891   528 net.cpp:124] Setting up relu1
I0428 20:15:50.585902   528 net.cpp:131] Top shape: 100 25 (2500)
I0428 20:15:50.585906   528 net.cpp:139] Memory required for data: 14894800
I0428 20:15:50.585911   528 layer_factory.hpp:77] Creating layer ip2
I0428 20:15:50.585919   528 net.cpp:86] Creating Layer ip2
I0428 20:15:50.585923   528 net.cpp:408] ip2 <- ip1
I0428 20:15:50.585930   528 net.cpp:382] ip2 -> ip2
I0428 20:15:50.586052   528 net.cpp:124] Setting up ip2
I0428 20:15:50.586061   528 net.cpp:131] Top shape: 100 10 (1000)
I0428 20:15:50.586064   528 net.cpp:139] Memory required for data: 14898800
I0428 20:15:50.586071   528 layer_factory.hpp:77] Creating layer relu2
I0428 20:15:50.586078   528 net.cpp:86] Creating Layer relu2
I0428 20:15:50.586082   528 net.cpp:408] relu2 <- ip2
I0428 20:15:50.586087   528 net.cpp:369] relu2 -> ip2 (in-place)
I0428 20:15:50.586334   528 net.cpp:124] Setting up relu2
I0428 20:15:50.586345   528 net.cpp:131] Top shape: 100 10 (1000)
I0428 20:15:50.586349   528 net.cpp:139] Memory required for data: 14902800
I0428 20:15:50.586354   528 layer_factory.hpp:77] Creating layer ip2_relu2_0_split
I0428 20:15:50.586360   528 net.cpp:86] Creating Layer ip2_relu2_0_split
I0428 20:15:50.586364   528 net.cpp:408] ip2_relu2_0_split <- ip2
I0428 20:15:50.586369   528 net.cpp:382] ip2_relu2_0_split -> ip2_relu2_0_split_0
I0428 20:15:50.586390   528 net.cpp:382] ip2_relu2_0_split -> ip2_relu2_0_split_1
I0428 20:15:50.586436   528 net.cpp:124] Setting up ip2_relu2_0_split
I0428 20:15:50.586443   528 net.cpp:131] Top shape: 100 10 (1000)
I0428 20:15:50.586448   528 net.cpp:131] Top shape: 100 10 (1000)
I0428 20:15:50.586452   528 net.cpp:139] Memory required for data: 14910800
I0428 20:15:50.586457   528 layer_factory.hpp:77] Creating layer accuracy
I0428 20:15:50.586463   528 net.cpp:86] Creating Layer accuracy
I0428 20:15:50.586467   528 net.cpp:408] accuracy <- ip2_relu2_0_split_0
I0428 20:15:50.586473   528 net.cpp:408] accuracy <- label_mnist_1_split_0
I0428 20:15:50.586478   528 net.cpp:382] accuracy -> accuracy
…
