…
I0428 19:55:34.408941 28204 net.cpp:296] The NetState phase (0) differed from the phase (1) specified by a rule in layer mnist
I0428 19:55:34.408958 28204 net.cpp:296] The NetState phase (0) differed from the phase (1) specified by a rule in layer accuracy
I0428 19:55:34.409041 28204 net.cpp:53] Initializing net from parameters: 
name: "LeNet"
state {
  phase: TRAIN
  level: 0
  stage: ""
}
layer {
  name: "mnist"
  type: "Data"
  top: "data"
  top: "label"
  include {
    phase: TRAIN
  }
  transform_param {
    scale: 0.00390625
  }
  data_param {
    source: "examples/mnist/mnist_train_lmdb"
    batch_size: 64
    backend: LMDB
  }
}
layer {
  name: "conv0"
  type: "Convolution"
  bottom: "data"
  top: "conv0"
  param {
    lr_mult: 1
  }
  param {
    lr_mult: 2
  }
  convolution_param {
    num_output: 5
    kernel_size: 5
    stride: 1
    weight_filler {
      type: "xavier"
    }
    bias_filler {
      type: "constant"
    }
  }
}
layer {
  name: "pool0"
  type: "Pooling"
  bottom: "conv0"
  top: "pool0"
  pooling_param {
    pool: MAX
    kernel_size: 2
    stride: 2
  }
}
layer {
  name: "conv1"
  type: "Convolution"
  bottom: "pool0"
  top: "conv1"
  param {
    lr_mult: 1
  }
  param {
    lr_mult: 2
  }
  convolution_param {
    num_output: 100
    kernel_size: 5
    stride: 1
    weight_filler {
      type: "xavier"
    }
    bias_filler {
      type: "constant"
    }
  }
}
layer {
  name: "pool1"
  type: "Pooling"
  bottom: "conv1"
  top: "pool1"
  pooling_param {
    pool: MAX
    kernel_size: 2
    stride: 2
  }
}
layer {
  name: "ip1"
  type: "InnerProduct"
  bottom: "pool1"
  top: "ip1"
  param {
    lr_mult: 1
  }
  param {
    lr_mult: 2
  }
  inner_product_param {
    num_output: 50
    weight_filler {
      type: "xavier"
    }
    bias_filler {
      type: "constant"
    }
  }
}
layer {
  name: "relu1"
  type: "ReLU"
  bottom: "ip1"
  top: "ip1"
}
layer {
  name: "ip2"
  type: "InnerProduct"
  bottom: "ip1"
  top: "ip2"
  param {
    lr_mult: 1
  }
  param {
    lr_mult: 2
  }
  inner_product_param {
    num_output: 25
    weight_filler {
      type: "xavier"
    }
    bias_filler {
      type: "constant"
    }
  }
}
layer {
  name: "relu2"
  type: "ReLU"
  bottom: "ip2"
  top: "ip2"
}
layer {
  name: "ip3"
  type: "InnerProduct"
  bottom: "ip2"
  top: "ip3"
  param {
    lr_mult: 1
  }
  param {
    lr_mult: 2
  }
  inner_product_param {
    num_output: 10
    weight_filler {
      type: "xavier"
    }
    bias_filler {
      type: "constant"
    }
  }
}
layer {
  name: "relu3"
  type: "ReLU"
  bottom: "ip3"
  top: "ip3"
}
layer {
  name: "loss"
  type: "SoftmaxWithLoss"
  bottom: "ip3"
  bottom: "label"
  top: "loss"
}
I0428 19:55:34.409107 28204 layer_factory.hpp:77] Creating layer mnist
I0428 19:55:34.409209 28204 db_lmdb.cpp:35] Opened lmdb examples/mnist/mnist_train_lmdb
I0428 19:55:34.409226 28204 net.cpp:86] Creating Layer mnist
I0428 19:55:34.409234 28204 net.cpp:382] mnist -> data
I0428 19:55:34.409251 28204 net.cpp:382] mnist -> label
I0428 19:55:34.410236 28204 data_layer.cpp:45] output data size: 64,1,28,28
I0428 19:55:34.412660 28204 net.cpp:124] Setting up mnist
I0428 19:55:34.412691 28204 net.cpp:131] Top shape: 64 1 28 28 (50176)
I0428 19:55:34.412710 28204 net.cpp:131] Top shape: 64 (64)
I0428 19:55:34.412714 28204 net.cpp:139] Memory required for data: 200960
I0428 19:55:34.412719 28204 layer_factory.hpp:77] Creating layer conv0
I0428 19:55:34.412751 28204 net.cpp:86] Creating Layer conv0
I0428 19:55:34.412770 28204 net.cpp:408] conv0 <- data
I0428 19:55:34.412782 28204 net.cpp:382] conv0 -> conv0
I0428 19:55:34.639192 28204 net.cpp:124] Setting up conv0
I0428 19:55:34.639233 28204 net.cpp:131] Top shape: 64 5 24 24 (184320)
I0428 19:55:34.639238 28204 net.cpp:139] Memory required for data: 938240
I0428 19:55:34.639252 28204 layer_factory.hpp:77] Creating layer pool0
I0428 19:55:34.639266 28204 net.cpp:86] Creating Layer pool0
I0428 19:55:34.639271 28204 net.cpp:408] pool0 <- conv0
I0428 19:55:34.639292 28204 net.cpp:382] pool0 -> pool0
I0428 19:55:34.639348 28204 net.cpp:124] Setting up pool0
I0428 19:55:34.639366 28204 net.cpp:131] Top shape: 64 5 12 12 (46080)
I0428 19:55:34.639369 28204 net.cpp:139] Memory required for data: 1122560
I0428 19:55:34.639372 28204 layer_factory.hpp:77] Creating layer conv1
I0428 19:55:34.639385 28204 net.cpp:86] Creating Layer conv1
I0428 19:55:34.639389 28204 net.cpp:408] conv1 <- pool0
I0428 19:55:34.639394 28204 net.cpp:382] conv1 -> conv1
I0428 19:55:34.642398 28204 net.cpp:124] Setting up conv1
I0428 19:55:34.642428 28204 net.cpp:131] Top shape: 64 100 8 8 (409600)
I0428 19:55:34.642432 28204 net.cpp:139] Memory required for data: 2760960
I0428 19:55:34.642458 28204 layer_factory.hpp:77] Creating layer pool1
I0428 19:55:34.642480 28204 net.cpp:86] Creating Layer pool1
I0428 19:55:34.642483 28204 net.cpp:408] pool1 <- conv1
I0428 19:55:34.642505 28204 net.cpp:382] pool1 -> pool1
I0428 19:55:34.642544 28204 net.cpp:124] Setting up pool1
I0428 19:55:34.642559 28204 net.cpp:131] Top shape: 64 100 4 4 (102400)
I0428 19:55:34.642561 28204 net.cpp:139] Memory required for data: 3170560
I0428 19:55:34.642565 28204 layer_factory.hpp:77] Creating layer ip1
I0428 19:55:34.642572 28204 net.cpp:86] Creating Layer ip1
I0428 19:55:34.642575 28204 net.cpp:408] ip1 <- pool1
I0428 19:55:34.642580 28204 net.cpp:382] ip1 -> ip1
I0428 19:55:34.644083 28204 net.cpp:124] Setting up ip1
I0428 19:55:34.644096 28204 net.cpp:131] Top shape: 64 50 (3200)
I0428 19:55:34.644115 28204 net.cpp:139] Memory required for data: 3183360
I0428 19:55:34.644140 28204 layer_factory.hpp:77] Creating layer relu1
I0428 19:55:34.644147 28204 net.cpp:86] Creating Layer relu1
I0428 19:55:34.644151 28204 net.cpp:408] relu1 <- ip1
I0428 19:55:34.644156 28204 net.cpp:369] relu1 -> ip1 (in-place)
I0428 19:55:34.644340 28204 net.cpp:124] Setting up relu1
I0428 19:55:34.644349 28204 net.cpp:131] Top shape: 64 50 (3200)
I0428 19:55:34.644353 28204 net.cpp:139] Memory required for data: 3196160
I0428 19:55:34.644356 28204 layer_factory.hpp:77] Creating layer ip2
I0428 19:55:34.644364 28204 net.cpp:86] Creating Layer ip2
I0428 19:55:34.644367 28204 net.cpp:408] ip2 <- ip1
I0428 19:55:34.644373 28204 net.cpp:382] ip2 -> ip2
I0428 19:55:34.645429 28204 net.cpp:124] Setting up ip2
I0428 19:55:34.645457 28204 net.cpp:131] Top shape: 64 25 (1600)
I0428 19:55:34.645462 28204 net.cpp:139] Memory required for data: 3202560
I0428 19:55:34.645467 28204 layer_factory.hpp:77] Creating layer relu2
I0428 19:55:34.645475 28204 net.cpp:86] Creating Layer relu2
I0428 19:55:34.645478 28204 net.cpp:408] relu2 <- ip2
I0428 19:55:34.645483 28204 net.cpp:369] relu2 -> ip2 (in-place)
I0428 19:55:34.646364 28204 net.cpp:124] Setting up relu2
I0428 19:55:34.646394 28204 net.cpp:131] Top shape: 64 25 (1600)
I0428 19:55:34.646396 28204 net.cpp:139] Memory required for data: 3208960
I0428 19:55:34.646400 28204 layer_factory.hpp:77] Creating layer ip3
I0428 19:55:34.646407 28204 net.cpp:86] Creating Layer ip3
I0428 19:55:34.646410 28204 net.cpp:408] ip3 <- ip2
I0428 19:55:34.646417 28204 net.cpp:382] ip3 -> ip3
I0428 19:55:34.646538 28204 net.cpp:124] Setting up ip3
I0428 19:55:34.646548 28204 net.cpp:131] Top shape: 64 10 (640)
I0428 19:55:34.646550 28204 net.cpp:139] Memory required for data: 3211520
I0428 19:55:34.646559 28204 layer_factory.hpp:77] Creating layer relu3
I0428 19:55:34.646564 28204 net.cpp:86] Creating Layer relu3
I0428 19:55:34.646567 28204 net.cpp:408] relu3 <- ip3
I0428 19:55:34.646574 28204 net.cpp:369] relu3 -> ip3 (in-place)
I0428 19:55:34.646756 28204 net.cpp:124] Setting up relu3
I0428 19:55:34.646765 28204 net.cpp:131] Top shape: 64 10 (640)
I0428 19:55:34.646769 28204 net.cpp:139] Memory required for data: 3214080
I0428 19:55:34.646771 28204 layer_factory.hpp:77] Creating layer loss
I0428 19:55:34.646778 28204 net.cpp:86] Creating Layer loss
I0428 19:55:34.646781 28204 net.cpp:408] loss <- ip3
I0428 19:55:34.646785 28204 net.cpp:408] loss <- label
I0428 19:55:34.646791 28204 net.cpp:382] loss -> loss
I0428 19:55:34.646806 28204 layer_factory.hpp:77] Creating layer loss
…
I0428 19:55:34.647603 28204 solver.cpp:173] Creating test net (#0) specified by net file: ECE595/mnist/train_test/var_everything2/lenet_train_test735.prototxt
I0428 19:55:34.647647 28204 net.cpp:296] The NetState phase (1) differed from the phase (0) specified by a rule in layer mnist
I0428 19:55:34.647747 28204 net.cpp:53] Initializing net from parameters: 
name: "LeNet"
state {
  phase: TEST
}
layer {
  name: "mnist"
  type: "Data"
  top: "data"
  top: "label"
  include {
    phase: TEST
  }
  transform_param {
    scale: 0.00390625
  }
  data_param {
    source: "examples/mnist/mnist_test_lmdb"
    batch_size: 100
    backend: LMDB
  }
}
layer {
  name: "conv0"
  type: "Convolution"
  bottom: "data"
  top: "conv0"
  param {
    lr_mult: 1
  }
  param {
    lr_mult: 2
  }
  convolution_param {
    num_output: 5
    kernel_size: 5
    stride: 1
    weight_filler {
      type: "xavier"
    }
    bias_filler {
      type: "constant"
    }
  }
}
layer {
  name: "pool0"
  type: "Pooling"
  bottom: "conv0"
  top: "pool0"
  pooling_param {
    pool: MAX
    kernel_size: 2
    stride: 2
  }
}
layer {
  name: "conv1"
  type: "Convolution"
  bottom: "pool0"
  top: "conv1"
  param {
    lr_mult: 1
  }
  param {
    lr_mult: 2
  }
  convolution_param {
    num_output: 100
    kernel_size: 5
    stride: 1
    weight_filler {
      type: "xavier"
    }
    bias_filler {
      type: "constant"
    }
  }
}
layer {
  name: "pool1"
  type: "Pooling"
  bottom: "conv1"
  top: "pool1"
  pooling_param {
    pool: MAX
    kernel_size: 2
    stride: 2
  }
}
layer {
  name: "ip1"
  type: "InnerProduct"
  bottom: "pool1"
  top: "ip1"
  param {
    lr_mult: 1
  }
  param {
    lr_mult: 2
  }
  inner_product_param {
    num_output: 50
    weight_filler {
      type: "xavier"
    }
    bias_filler {
      type: "constant"
    }
  }
}
layer {
  name: "relu1"
  type: "ReLU"
  bottom: "ip1"
  top: "ip1"
}
layer {
  name: "ip2"
  type: "InnerProduct"
  bottom: "ip1"
  top: "ip2"
  param {
    lr_mult: 1
  }
  param {
    lr_mult: 2
  }
  inner_product_param {
    num_output: 25
    weight_filler {
      type: "xavier"
    }
    bias_filler {
      type: "constant"
    }
  }
}
layer {
  name: "relu2"
  type: "ReLU"
  bottom: "ip2"
  top: "ip2"
}
layer {
  name: "ip3"
  type: "InnerProduct"
  bottom: "ip2"
  top: "ip3"
  param {
    lr_mult: 1
  }
  param {
    lr_mult: 2
  }
  inner_product_param {
    num_output: 10
    weight_filler {
      type: "xavier"
    }
    bias_filler {
      type: "constant"
    }
  }
}
layer {
  name: "relu3"
  type: "ReLU"
  bottom: "ip3"
  top: "ip3"
}
layer {
  name: "accuracy"
  type: "Accuracy"
  bottom: "ip3"
  bottom: "label"
  top: "accuracy"
  include {
    phase: TEST
  }
}
layer {
  name: "loss"
  type: "SoftmaxWithLoss"
  bottom: "ip3"
  bottom: "label"
  top: "loss"
}
I0428 19:55:34.647846 28204 layer_factory.hpp:77] Creating layer mnist
I0428 19:55:34.647893 28204 db_lmdb.cpp:35] Opened lmdb examples/mnist/mnist_test_lmdb
I0428 19:55:34.647907 28204 net.cpp:86] Creating Layer mnist
I0428 19:55:34.647910 28204 net.cpp:382] mnist -> data
I0428 19:55:34.647919 28204 net.cpp:382] mnist -> label
I0428 19:55:34.648025 28204 data_layer.cpp:45] output data size: 100,1,28,28
I0428 19:55:34.649260 28204 net.cpp:124] Setting up mnist
I0428 19:55:34.649289 28204 net.cpp:131] Top shape: 100 1 28 28 (78400)
I0428 19:55:34.649296 28204 net.cpp:131] Top shape: 100 (100)
I0428 19:55:34.649299 28204 net.cpp:139] Memory required for data: 314000
I0428 19:55:34.649303 28204 layer_factory.hpp:77] Creating layer label_mnist_1_split
I0428 19:55:34.649310 28204 net.cpp:86] Creating Layer label_mnist_1_split
I0428 19:55:34.649333 28204 net.cpp:408] label_mnist_1_split <- label
I0428 19:55:34.649338 28204 net.cpp:382] label_mnist_1_split -> label_mnist_1_split_0
I0428 19:55:34.649343 28204 net.cpp:382] label_mnist_1_split -> label_mnist_1_split_1
I0428 19:55:34.649420 28204 net.cpp:124] Setting up label_mnist_1_split
I0428 19:55:34.649427 28204 net.cpp:131] Top shape: 100 (100)
I0428 19:55:34.649431 28204 net.cpp:131] Top shape: 100 (100)
I0428 19:55:34.649435 28204 net.cpp:139] Memory required for data: 314800
I0428 19:55:34.649437 28204 layer_factory.hpp:77] Creating layer conv0
I0428 19:55:34.649446 28204 net.cpp:86] Creating Layer conv0
I0428 19:55:34.649449 28204 net.cpp:408] conv0 <- data
I0428 19:55:34.649456 28204 net.cpp:382] conv0 -> conv0
I0428 19:55:34.651120 28204 net.cpp:124] Setting up conv0
I0428 19:55:34.651151 28204 net.cpp:131] Top shape: 100 5 24 24 (288000)
I0428 19:55:34.651154 28204 net.cpp:139] Memory required for data: 1466800
I0428 19:55:34.651165 28204 layer_factory.hpp:77] Creating layer pool0
I0428 19:55:34.651172 28204 net.cpp:86] Creating Layer pool0
I0428 19:55:34.651175 28204 net.cpp:408] pool0 <- conv0
I0428 19:55:34.651180 28204 net.cpp:382] pool0 -> pool0
I0428 19:55:34.651249 28204 net.cpp:124] Setting up pool0
I0428 19:55:34.651257 28204 net.cpp:131] Top shape: 100 5 12 12 (72000)
I0428 19:55:34.651260 28204 net.cpp:139] Memory required for data: 1754800
I0428 19:55:34.651263 28204 layer_factory.hpp:77] Creating layer conv1
I0428 19:55:34.651273 28204 net.cpp:86] Creating Layer conv1
I0428 19:55:34.651276 28204 net.cpp:408] conv1 <- pool0
I0428 19:55:34.651283 28204 net.cpp:382] conv1 -> conv1
I0428 19:55:34.653136 28204 net.cpp:124] Setting up conv1
I0428 19:55:34.653165 28204 net.cpp:131] Top shape: 100 100 8 8 (640000)
I0428 19:55:34.653169 28204 net.cpp:139] Memory required for data: 4314800
I0428 19:55:34.653213 28204 layer_factory.hpp:77] Creating layer pool1
I0428 19:55:34.653218 28204 net.cpp:86] Creating Layer pool1
I0428 19:55:34.653221 28204 net.cpp:408] pool1 <- conv1
I0428 19:55:34.653228 28204 net.cpp:382] pool1 -> pool1
I0428 19:55:34.653264 28204 net.cpp:124] Setting up pool1
I0428 19:55:34.653270 28204 net.cpp:131] Top shape: 100 100 4 4 (160000)
I0428 19:55:34.653272 28204 net.cpp:139] Memory required for data: 4954800
I0428 19:55:34.653276 28204 layer_factory.hpp:77] Creating layer ip1
I0428 19:55:34.653282 28204 net.cpp:86] Creating Layer ip1
I0428 19:55:34.653285 28204 net.cpp:408] ip1 <- pool1
I0428 19:55:34.653291 28204 net.cpp:382] ip1 -> ip1
I0428 19:55:34.653930 28204 net.cpp:124] Setting up ip1
I0428 19:55:34.653939 28204 net.cpp:131] Top shape: 100 50 (5000)
I0428 19:55:34.653967 28204 net.cpp:139] Memory required for data: 4974800
I0428 19:55:34.653975 28204 layer_factory.hpp:77] Creating layer relu1
I0428 19:55:34.653981 28204 net.cpp:86] Creating Layer relu1
I0428 19:55:34.653985 28204 net.cpp:408] relu1 <- ip1
I0428 19:55:34.653991 28204 net.cpp:369] relu1 -> ip1 (in-place)
I0428 19:55:34.654155 28204 net.cpp:124] Setting up relu1
I0428 19:55:34.654180 28204 net.cpp:131] Top shape: 100 50 (5000)
I0428 19:55:34.654183 28204 net.cpp:139] Memory required for data: 4994800
I0428 19:55:34.654186 28204 layer_factory.hpp:77] Creating layer ip2
I0428 19:55:34.654193 28204 net.cpp:86] Creating Layer ip2
I0428 19:55:34.654196 28204 net.cpp:408] ip2 <- ip1
I0428 19:55:34.654209 28204 net.cpp:382] ip2 -> ip2
I0428 19:55:34.654336 28204 net.cpp:124] Setting up ip2
I0428 19:55:34.654345 28204 net.cpp:131] Top shape: 100 25 (2500)
I0428 19:55:34.654347 28204 net.cpp:139] Memory required for data: 5004800
I0428 19:55:34.654352 28204 layer_factory.hpp:77] Creating layer relu2
I0428 19:55:34.654357 28204 net.cpp:86] Creating Layer relu2
I0428 19:55:34.654361 28204 net.cpp:408] relu2 <- ip2
I0428 19:55:34.654367 28204 net.cpp:369] relu2 -> ip2 (in-place)
I0428 19:55:34.654597 28204 net.cpp:124] Setting up relu2
I0428 19:55:34.654608 28204 net.cpp:131] Top shape: 100 25 (2500)
I0428 19:55:34.654611 28204 net.cpp:139] Memory required for data: 5014800
I0428 19:55:34.654614 28204 layer_factory.hpp:77] Creating layer ip3
I0428 19:55:34.654623 28204 net.cpp:86] Creating Layer ip3
I0428 19:55:34.654625 28204 net.cpp:408] ip3 <- ip2
I0428 19:55:34.654630 28204 net.cpp:382] ip3 -> ip3
I0428 19:55:34.654798 28204 net.cpp:124] Setting up ip3
I0428 19:55:34.654806 28204 net.cpp:131] Top shape: 100 10 (1000)
I0428 19:55:34.654809 28204 net.cpp:139] Memory required for data: 5018800
I0428 19:55:34.654817 28204 layer_factory.hpp:77] Creating layer relu3
I0428 19:55:34.654824 28204 net.cpp:86] Creating Layer relu3
I0428 19:55:34.654826 28204 net.cpp:408] relu3 <- ip3
I0428 19:55:34.654846 28204 net.cpp:369] relu3 -> ip3 (in-place)
I0428 19:55:34.655684 28204 net.cpp:124] Setting up relu3
I0428 19:55:34.655709 28204 net.cpp:131] Top shape: 100 10 (1000)
I0428 19:55:34.655712 28204 net.cpp:139] Memory required for data: 5022800
I0428 19:55:34.655715 28204 layer_factory.hpp:77] Creating layer ip3_relu3_0_split
I0428 19:55:34.655735 28204 net.cpp:86] Creating Layer ip3_relu3_0_split
I0428 19:55:34.655740 28204 net.cpp:408] ip3_relu3_0_split <- ip3
I0428 19:55:34.655745 28204 net.cpp:382] ip3_relu3_0_split -> ip3_relu3_0_split_0
I0428 19:55:34.655751 28204 net.cpp:382] ip3_relu3_0_split -> ip3_relu3_0_split_1
I0428 19:55:34.655793 28204 net.cpp:124] Setting up ip3_relu3_0_split
I0428 19:55:34.655808 28204 net.cpp:131] Top shape: 100 10 (1000)
I0428 19:55:34.655812 28204 net.cpp:131] Top shape: 100 10 (1000)
I0428 19:55:34.655815 28204 net.cpp:139] Memory required for data: 5030800
I0428 19:55:34.655818 28204 layer_factory.hpp:77] Creating layer accuracy
I0428 19:55:34.655823 28204 net.cpp:86] Creating Layer accuracy
I0428 19:55:34.655827 28204 net.cpp:408] accuracy <- ip3_relu3_0_split_0
I0428 19:55:34.655831 28204 net.cpp:408] accuracy <- label_mnist_1_split_0
I0428 19:55:34.655836 28204 net.cpp:382] accuracy -> accuracy
…
