…
I0428 20:38:09.623698  5083 net.cpp:296] The NetState phase (0) differed from the phase (1) specified by a rule in layer mnist
I0428 20:38:09.623728  5083 net.cpp:296] The NetState phase (0) differed from the phase (1) specified by a rule in layer accuracy
I0428 20:38:09.623824  5083 net.cpp:53] Initializing net from parameters: 
name: "LeNet"
state {
  phase: TRAIN
  level: 0
  stage: ""
}
layer {
  name: "mnist"
  type: "Data"
  top: "data"
  top: "label"
  include {
    phase: TRAIN
  }
  transform_param {
    scale: 0.00390625
  }
  data_param {
    source: "examples/mnist/mnist_train_lmdb"
    batch_size: 64
    backend: LMDB
  }
}
layer {
  name: "conv0"
  type: "Convolution"
  bottom: "data"
  top: "conv0"
  param {
    lr_mult: 1
  }
  param {
    lr_mult: 2
  }
  convolution_param {
    num_output: 100
    kernel_size: 5
    stride: 1
    weight_filler {
      type: "xavier"
    }
    bias_filler {
      type: "constant"
    }
  }
}
layer {
  name: "pool0"
  type: "Pooling"
  bottom: "conv0"
  top: "pool0"
  pooling_param {
    pool: MAX
    kernel_size: 2
    stride: 2
  }
}
layer {
  name: "conv1"
  type: "Convolution"
  bottom: "pool0"
  top: "conv1"
  param {
    lr_mult: 1
  }
  param {
    lr_mult: 2
  }
  convolution_param {
    num_output: 100
    kernel_size: 5
    stride: 1
    weight_filler {
      type: "xavier"
    }
    bias_filler {
      type: "constant"
    }
  }
}
layer {
  name: "pool1"
  type: "Pooling"
  bottom: "conv1"
  top: "pool1"
  pooling_param {
    pool: MAX
    kernel_size: 2
    stride: 2
  }
}
layer {
  name: "ip1"
  type: "InnerProduct"
  bottom: "pool1"
  top: "ip1"
  param {
    lr_mult: 1
  }
  param {
    lr_mult: 2
  }
  inner_product_param {
    num_output: 25
    weight_filler {
      type: "xavier"
    }
    bias_filler {
      type: "constant"
    }
  }
}
layer {
  name: "relu1"
  type: "ReLU"
  bottom: "ip1"
  top: "ip1"
}
layer {
  name: "ip2"
  type: "InnerProduct"
  bottom: "ip1"
  top: "ip2"
  param {
    lr_mult: 1
  }
  param {
    lr_mult: 2
  }
  inner_product_param {
    num_output: 10
    weight_filler {
      type: "xavier"
    }
    bias_filler {
      type: "constant"
    }
  }
}
layer {
  name: "relu2"
  type: "ReLU"
  bottom: "ip2"
  top: "ip2"
}
layer {
  name: "ip3"
  type: "InnerProduct"
  bottom: "ip2"
  top: "ip3"
  param {
    lr_mult: 1
  }
  param {
    lr_mult: 2
  }
  inner_product_param {
    num_output: 10
    weight_filler {
      type: "xavier"
    }
    bias_filler {
      type: "constant"
    }
  }
}
layer {
  name: "relu3"
  type: "ReLU"
  bottom: "ip3"
  top: "ip3"
}
layer {
  name: "loss"
  type: "SoftmaxWithLoss"
  bottom: "ip3"
  bottom: "label"
  top: "loss"
}
I0428 20:38:09.623888  5083 layer_factory.hpp:77] Creating layer mnist
I0428 20:38:09.623966  5083 db_lmdb.cpp:35] Opened lmdb examples/mnist/mnist_train_lmdb
I0428 20:38:09.623986  5083 net.cpp:86] Creating Layer mnist
I0428 20:38:09.623991  5083 net.cpp:382] mnist -> data
I0428 20:38:09.624011  5083 net.cpp:382] mnist -> label
I0428 20:38:09.625026  5083 data_layer.cpp:45] output data size: 64,1,28,28
I0428 20:38:09.627158  5083 net.cpp:124] Setting up mnist
I0428 20:38:09.627188  5083 net.cpp:131] Top shape: 64 1 28 28 (50176)
I0428 20:38:09.627193  5083 net.cpp:131] Top shape: 64 (64)
I0428 20:38:09.627197  5083 net.cpp:139] Memory required for data: 200960
I0428 20:38:09.627202  5083 layer_factory.hpp:77] Creating layer conv0
I0428 20:38:09.627216  5083 net.cpp:86] Creating Layer conv0
I0428 20:38:09.627233  5083 net.cpp:408] conv0 <- data
I0428 20:38:09.627243  5083 net.cpp:382] conv0 -> conv0
I0428 20:38:09.851007  5083 net.cpp:124] Setting up conv0
I0428 20:38:09.851047  5083 net.cpp:131] Top shape: 64 100 24 24 (3686400)
I0428 20:38:09.851052  5083 net.cpp:139] Memory required for data: 14946560
I0428 20:38:09.851066  5083 layer_factory.hpp:77] Creating layer pool0
I0428 20:38:09.851078  5083 net.cpp:86] Creating Layer pool0
I0428 20:38:09.851083  5083 net.cpp:408] pool0 <- conv0
I0428 20:38:09.851088  5083 net.cpp:382] pool0 -> pool0
I0428 20:38:09.851150  5083 net.cpp:124] Setting up pool0
I0428 20:38:09.851155  5083 net.cpp:131] Top shape: 64 100 12 12 (921600)
I0428 20:38:09.851157  5083 net.cpp:139] Memory required for data: 18632960
I0428 20:38:09.851161  5083 layer_factory.hpp:77] Creating layer conv1
I0428 20:38:09.851171  5083 net.cpp:86] Creating Layer conv1
I0428 20:38:09.851174  5083 net.cpp:408] conv1 <- pool0
I0428 20:38:09.851178  5083 net.cpp:382] conv1 -> conv1
I0428 20:38:09.855473  5083 net.cpp:124] Setting up conv1
I0428 20:38:09.855501  5083 net.cpp:131] Top shape: 64 100 8 8 (409600)
I0428 20:38:09.855504  5083 net.cpp:139] Memory required for data: 20271360
I0428 20:38:09.855512  5083 layer_factory.hpp:77] Creating layer pool1
I0428 20:38:09.855535  5083 net.cpp:86] Creating Layer pool1
I0428 20:38:09.855538  5083 net.cpp:408] pool1 <- conv1
I0428 20:38:09.855543  5083 net.cpp:382] pool1 -> pool1
I0428 20:38:09.855594  5083 net.cpp:124] Setting up pool1
I0428 20:38:09.855599  5083 net.cpp:131] Top shape: 64 100 4 4 (102400)
I0428 20:38:09.855602  5083 net.cpp:139] Memory required for data: 20680960
I0428 20:38:09.855605  5083 layer_factory.hpp:77] Creating layer ip1
I0428 20:38:09.855612  5083 net.cpp:86] Creating Layer ip1
I0428 20:38:09.855615  5083 net.cpp:408] ip1 <- pool1
I0428 20:38:09.855619  5083 net.cpp:382] ip1 -> ip1
I0428 20:38:09.855960  5083 net.cpp:124] Setting up ip1
I0428 20:38:09.855967  5083 net.cpp:131] Top shape: 64 25 (1600)
I0428 20:38:09.855985  5083 net.cpp:139] Memory required for data: 20687360
I0428 20:38:09.855993  5083 layer_factory.hpp:77] Creating layer relu1
I0428 20:38:09.855998  5083 net.cpp:86] Creating Layer relu1
I0428 20:38:09.856001  5083 net.cpp:408] relu1 <- ip1
I0428 20:38:09.856005  5083 net.cpp:369] relu1 -> ip1 (in-place)
I0428 20:38:09.856173  5083 net.cpp:124] Setting up relu1
I0428 20:38:09.856180  5083 net.cpp:131] Top shape: 64 25 (1600)
I0428 20:38:09.856184  5083 net.cpp:139] Memory required for data: 20693760
I0428 20:38:09.856186  5083 layer_factory.hpp:77] Creating layer ip2
I0428 20:38:09.856194  5083 net.cpp:86] Creating Layer ip2
I0428 20:38:09.856196  5083 net.cpp:408] ip2 <- ip1
I0428 20:38:09.856200  5083 net.cpp:382] ip2 -> ip2
I0428 20:38:09.856290  5083 net.cpp:124] Setting up ip2
I0428 20:38:09.856297  5083 net.cpp:131] Top shape: 64 10 (640)
I0428 20:38:09.856300  5083 net.cpp:139] Memory required for data: 20696320
I0428 20:38:09.856307  5083 layer_factory.hpp:77] Creating layer relu2
I0428 20:38:09.856312  5083 net.cpp:86] Creating Layer relu2
I0428 20:38:09.856314  5083 net.cpp:408] relu2 <- ip2
I0428 20:38:09.856318  5083 net.cpp:369] relu2 -> ip2 (in-place)
I0428 20:38:09.857018  5083 net.cpp:124] Setting up relu2
I0428 20:38:09.857029  5083 net.cpp:131] Top shape: 64 10 (640)
I0428 20:38:09.857048  5083 net.cpp:139] Memory required for data: 20698880
I0428 20:38:09.857051  5083 layer_factory.hpp:77] Creating layer ip3
I0428 20:38:09.857074  5083 net.cpp:86] Creating Layer ip3
I0428 20:38:09.857077  5083 net.cpp:408] ip3 <- ip2
I0428 20:38:09.857084  5083 net.cpp:382] ip3 -> ip3
I0428 20:38:09.857210  5083 net.cpp:124] Setting up ip3
I0428 20:38:09.857218  5083 net.cpp:131] Top shape: 64 10 (640)
I0428 20:38:09.857221  5083 net.cpp:139] Memory required for data: 20701440
I0428 20:38:09.857230  5083 layer_factory.hpp:77] Creating layer relu3
I0428 20:38:09.857235  5083 net.cpp:86] Creating Layer relu3
I0428 20:38:09.857239  5083 net.cpp:408] relu3 <- ip3
I0428 20:38:09.857259  5083 net.cpp:369] relu3 -> ip3 (in-place)
I0428 20:38:09.857412  5083 net.cpp:124] Setting up relu3
I0428 20:38:09.857421  5083 net.cpp:131] Top shape: 64 10 (640)
I0428 20:38:09.857424  5083 net.cpp:139] Memory required for data: 20704000
I0428 20:38:09.857427  5083 layer_factory.hpp:77] Creating layer loss
I0428 20:38:09.857453  5083 net.cpp:86] Creating Layer loss
I0428 20:38:09.857456  5083 net.cpp:408] loss <- ip3
I0428 20:38:09.857460  5083 net.cpp:408] loss <- label
I0428 20:38:09.857466  5083 net.cpp:382] loss -> loss
I0428 20:38:09.857508  5083 layer_factory.hpp:77] Creating layer loss
…
I0428 20:38:09.858130  5083 solver.cpp:173] Creating test net (#0) specified by net file: ECE595/mnist/train_test/var_everything2/lenet_train_test1661.prototxt
I0428 20:38:09.858158  5083 net.cpp:296] The NetState phase (1) differed from the phase (0) specified by a rule in layer mnist
I0428 20:38:09.858278  5083 net.cpp:53] Initializing net from parameters: 
name: "LeNet"
state {
  phase: TEST
}
layer {
  name: "mnist"
  type: "Data"
  top: "data"
  top: "label"
  include {
    phase: TEST
  }
  transform_param {
    scale: 0.00390625
  }
  data_param {
    source: "examples/mnist/mnist_test_lmdb"
    batch_size: 100
    backend: LMDB
  }
}
layer {
  name: "conv0"
  type: "Convolution"
  bottom: "data"
  top: "conv0"
  param {
    lr_mult: 1
  }
  param {
    lr_mult: 2
  }
  convolution_param {
    num_output: 100
    kernel_size: 5
    stride: 1
    weight_filler {
      type: "xavier"
    }
    bias_filler {
      type: "constant"
    }
  }
}
layer {
  name: "pool0"
  type: "Pooling"
  bottom: "conv0"
  top: "pool0"
  pooling_param {
    pool: MAX
    kernel_size: 2
    stride: 2
  }
}
layer {
  name: "conv1"
  type: "Convolution"
  bottom: "pool0"
  top: "conv1"
  param {
    lr_mult: 1
  }
  param {
    lr_mult: 2
  }
  convolution_param {
    num_output: 100
    kernel_size: 5
    stride: 1
    weight_filler {
      type: "xavier"
    }
    bias_filler {
      type: "constant"
    }
  }
}
layer {
  name: "pool1"
  type: "Pooling"
  bottom: "conv1"
  top: "pool1"
  pooling_param {
    pool: MAX
    kernel_size: 2
    stride: 2
  }
}
layer {
  name: "ip1"
  type: "InnerProduct"
  bottom: "pool1"
  top: "ip1"
  param {
    lr_mult: 1
  }
  param {
    lr_mult: 2
  }
  inner_product_param {
    num_output: 25
    weight_filler {
      type: "xavier"
    }
    bias_filler {
      type: "constant"
    }
  }
}
layer {
  name: "relu1"
  type: "ReLU"
  bottom: "ip1"
  top: "ip1"
}
layer {
  name: "ip2"
  type: "InnerProduct"
  bottom: "ip1"
  top: "ip2"
  param {
    lr_mult: 1
  }
  param {
    lr_mult: 2
  }
  inner_product_param {
    num_output: 10
    weight_filler {
      type: "xavier"
    }
    bias_filler {
      type: "constant"
    }
  }
}
layer {
  name: "relu2"
  type: "ReLU"
  bottom: "ip2"
  top: "ip2"
}
layer {
  name: "ip3"
  type: "InnerProduct"
  bottom: "ip2"
  top: "ip3"
  param {
    lr_mult: 1
  }
  param {
    lr_mult: 2
  }
  inner_product_param {
    num_output: 10
    weight_filler {
      type: "xavier"
    }
    bias_filler {
      type: "constant"
    }
  }
}
layer {
  name: "relu3"
  type: "ReLU"
  bottom: "ip3"
  top: "ip3"
}
layer {
  name: "accuracy"
  type: "Accuracy"
  bottom: "ip3"
  bottom: "label"
  top: "accuracy"
  include {
    phase: TEST
  }
}
layer {
  name: "loss"
  type: "SoftmaxWithLoss"
  bottom: "ip3"
  bottom: "label"
  top: "loss"
}
I0428 20:38:09.858376  5083 layer_factory.hpp:77] Creating layer mnist
I0428 20:38:09.858417  5083 db_lmdb.cpp:35] Opened lmdb examples/mnist/mnist_test_lmdb
I0428 20:38:09.858428  5083 net.cpp:86] Creating Layer mnist
I0428 20:38:09.858433  5083 net.cpp:382] mnist -> data
I0428 20:38:09.858440  5083 net.cpp:382] mnist -> label
I0428 20:38:09.858520  5083 data_layer.cpp:45] output data size: 100,1,28,28
I0428 20:38:09.860560  5083 net.cpp:124] Setting up mnist
I0428 20:38:09.860574  5083 net.cpp:131] Top shape: 100 1 28 28 (78400)
I0428 20:38:09.860580  5083 net.cpp:131] Top shape: 100 (100)
I0428 20:38:09.860584  5083 net.cpp:139] Memory required for data: 314000
I0428 20:38:09.860587  5083 layer_factory.hpp:77] Creating layer label_mnist_1_split
I0428 20:38:09.860594  5083 net.cpp:86] Creating Layer label_mnist_1_split
I0428 20:38:09.860597  5083 net.cpp:408] label_mnist_1_split <- label
I0428 20:38:09.860602  5083 net.cpp:382] label_mnist_1_split -> label_mnist_1_split_0
I0428 20:38:09.860620  5083 net.cpp:382] label_mnist_1_split -> label_mnist_1_split_1
I0428 20:38:09.860669  5083 net.cpp:124] Setting up label_mnist_1_split
I0428 20:38:09.860676  5083 net.cpp:131] Top shape: 100 (100)
I0428 20:38:09.860679  5083 net.cpp:131] Top shape: 100 (100)
I0428 20:38:09.860682  5083 net.cpp:139] Memory required for data: 314800
I0428 20:38:09.860685  5083 layer_factory.hpp:77] Creating layer conv0
I0428 20:38:09.860695  5083 net.cpp:86] Creating Layer conv0
I0428 20:38:09.860699  5083 net.cpp:408] conv0 <- data
I0428 20:38:09.860704  5083 net.cpp:382] conv0 -> conv0
I0428 20:38:09.862614  5083 net.cpp:124] Setting up conv0
I0428 20:38:09.862628  5083 net.cpp:131] Top shape: 100 100 24 24 (5760000)
I0428 20:38:09.862632  5083 net.cpp:139] Memory required for data: 23354800
I0428 20:38:09.862643  5083 layer_factory.hpp:77] Creating layer pool0
I0428 20:38:09.862649  5083 net.cpp:86] Creating Layer pool0
I0428 20:38:09.862653  5083 net.cpp:408] pool0 <- conv0
I0428 20:38:09.862658  5083 net.cpp:382] pool0 -> pool0
I0428 20:38:09.862709  5083 net.cpp:124] Setting up pool0
I0428 20:38:09.862716  5083 net.cpp:131] Top shape: 100 100 12 12 (1440000)
I0428 20:38:09.862720  5083 net.cpp:139] Memory required for data: 29114800
I0428 20:38:09.862721  5083 layer_factory.hpp:77] Creating layer conv1
I0428 20:38:09.862731  5083 net.cpp:86] Creating Layer conv1
I0428 20:38:09.862735  5083 net.cpp:408] conv1 <- pool0
I0428 20:38:09.862740  5083 net.cpp:382] conv1 -> conv1
I0428 20:38:09.865824  5083 net.cpp:124] Setting up conv1
I0428 20:38:09.865839  5083 net.cpp:131] Top shape: 100 100 8 8 (640000)
I0428 20:38:09.865844  5083 net.cpp:139] Memory required for data: 31674800
I0428 20:38:09.865852  5083 layer_factory.hpp:77] Creating layer pool1
I0428 20:38:09.865859  5083 net.cpp:86] Creating Layer pool1
I0428 20:38:09.865883  5083 net.cpp:408] pool1 <- conv1
I0428 20:38:09.865888  5083 net.cpp:382] pool1 -> pool1
I0428 20:38:09.865942  5083 net.cpp:124] Setting up pool1
I0428 20:38:09.865948  5083 net.cpp:131] Top shape: 100 100 4 4 (160000)
I0428 20:38:09.865952  5083 net.cpp:139] Memory required for data: 32314800
I0428 20:38:09.865954  5083 layer_factory.hpp:77] Creating layer ip1
I0428 20:38:09.865962  5083 net.cpp:86] Creating Layer ip1
I0428 20:38:09.865970  5083 net.cpp:408] ip1 <- pool1
I0428 20:38:09.865986  5083 net.cpp:382] ip1 -> ip1
I0428 20:38:09.866370  5083 net.cpp:124] Setting up ip1
I0428 20:38:09.866400  5083 net.cpp:131] Top shape: 100 25 (2500)
I0428 20:38:09.866403  5083 net.cpp:139] Memory required for data: 32324800
I0428 20:38:09.866411  5083 layer_factory.hpp:77] Creating layer relu1
I0428 20:38:09.866418  5083 net.cpp:86] Creating Layer relu1
I0428 20:38:09.866427  5083 net.cpp:408] relu1 <- ip1
I0428 20:38:09.866432  5083 net.cpp:369] relu1 -> ip1 (in-place)
I0428 20:38:09.866612  5083 net.cpp:124] Setting up relu1
I0428 20:38:09.866621  5083 net.cpp:131] Top shape: 100 25 (2500)
I0428 20:38:09.866624  5083 net.cpp:139] Memory required for data: 32334800
I0428 20:38:09.866627  5083 layer_factory.hpp:77] Creating layer ip2
I0428 20:38:09.866634  5083 net.cpp:86] Creating Layer ip2
I0428 20:38:09.866638  5083 net.cpp:408] ip2 <- ip1
I0428 20:38:09.866643  5083 net.cpp:382] ip2 -> ip2
I0428 20:38:09.866753  5083 net.cpp:124] Setting up ip2
I0428 20:38:09.866762  5083 net.cpp:131] Top shape: 100 10 (1000)
I0428 20:38:09.866771  5083 net.cpp:139] Memory required for data: 32338800
I0428 20:38:09.866777  5083 layer_factory.hpp:77] Creating layer relu2
I0428 20:38:09.866781  5083 net.cpp:86] Creating Layer relu2
I0428 20:38:09.866785  5083 net.cpp:408] relu2 <- ip2
I0428 20:38:09.866788  5083 net.cpp:369] relu2 -> ip2 (in-place)
I0428 20:38:09.867020  5083 net.cpp:124] Setting up relu2
I0428 20:38:09.867030  5083 net.cpp:131] Top shape: 100 10 (1000)
I0428 20:38:09.867039  5083 net.cpp:139] Memory required for data: 32342800
I0428 20:38:09.867043  5083 layer_factory.hpp:77] Creating layer ip3
I0428 20:38:09.867048  5083 net.cpp:86] Creating Layer ip3
I0428 20:38:09.867056  5083 net.cpp:408] ip3 <- ip2
I0428 20:38:09.867063  5083 net.cpp:382] ip3 -> ip3
I0428 20:38:09.867211  5083 net.cpp:124] Setting up ip3
I0428 20:38:09.867218  5083 net.cpp:131] Top shape: 100 10 (1000)
I0428 20:38:09.867221  5083 net.cpp:139] Memory required for data: 32346800
I0428 20:38:09.867230  5083 layer_factory.hpp:77] Creating layer relu3
I0428 20:38:09.867235  5083 net.cpp:86] Creating Layer relu3
I0428 20:38:09.867238  5083 net.cpp:408] relu3 <- ip3
I0428 20:38:09.867244  5083 net.cpp:369] relu3 -> ip3 (in-place)
I0428 20:38:09.867998  5083 net.cpp:124] Setting up relu3
I0428 20:38:09.868010  5083 net.cpp:131] Top shape: 100 10 (1000)
I0428 20:38:09.868013  5083 net.cpp:139] Memory required for data: 32350800
I0428 20:38:09.868016  5083 layer_factory.hpp:77] Creating layer ip3_relu3_0_split
I0428 20:38:09.868021  5083 net.cpp:86] Creating Layer ip3_relu3_0_split
I0428 20:38:09.868024  5083 net.cpp:408] ip3_relu3_0_split <- ip3
I0428 20:38:09.868031  5083 net.cpp:382] ip3_relu3_0_split -> ip3_relu3_0_split_0
I0428 20:38:09.868037  5083 net.cpp:382] ip3_relu3_0_split -> ip3_relu3_0_split_1
I0428 20:38:09.868077  5083 net.cpp:124] Setting up ip3_relu3_0_split
I0428 20:38:09.868083  5083 net.cpp:131] Top shape: 100 10 (1000)
I0428 20:38:09.868085  5083 net.cpp:131] Top shape: 100 10 (1000)
I0428 20:38:09.868089  5083 net.cpp:139] Memory required for data: 32358800
I0428 20:38:09.868091  5083 layer_factory.hpp:77] Creating layer accuracy
I0428 20:38:09.868098  5083 net.cpp:86] Creating Layer accuracy
I0428 20:38:09.868101  5083 net.cpp:408] accuracy <- ip3_relu3_0_split_0
I0428 20:38:09.868105  5083 net.cpp:408] accuracy <- label_mnist_1_split_0
I0428 20:38:09.868109  5083 net.cpp:382] accuracy -> accuracy
…
