…
I0428 19:33:23.521447 23093 net.cpp:296] The NetState phase (0) differed from the phase (1) specified by a rule in layer mnist
I0428 19:33:23.521467 23093 net.cpp:296] The NetState phase (0) differed from the phase (1) specified by a rule in layer accuracy
I0428 19:33:23.521556 23093 net.cpp:53] Initializing net from parameters: 
name: "LeNet"
state {
  phase: TRAIN
  level: 0
  stage: ""
}
layer {
  name: "mnist"
  type: "Data"
  top: "data"
  top: "label"
  include {
    phase: TRAIN
  }
  transform_param {
    scale: 0.00390625
  }
  data_param {
    source: "examples/mnist/mnist_train_lmdb"
    batch_size: 64
    backend: LMDB
  }
}
layer {
  name: "conv0"
  type: "Convolution"
  bottom: "data"
  top: "conv0"
  param {
    lr_mult: 1
  }
  param {
    lr_mult: 2
  }
  convolution_param {
    num_output: 25
    kernel_size: 5
    stride: 1
    weight_filler {
      type: "xavier"
    }
    bias_filler {
      type: "constant"
    }
  }
}
layer {
  name: "pool0"
  type: "Pooling"
  bottom: "conv0"
  top: "pool0"
  pooling_param {
    pool: MAX
    kernel_size: 2
    stride: 2
  }
}
layer {
  name: "ip1"
  type: "InnerProduct"
  bottom: "pool0"
  top: "ip1"
  param {
    lr_mult: 1
  }
  param {
    lr_mult: 2
  }
  inner_product_param {
    num_output: 25
    weight_filler {
      type: "xavier"
    }
    bias_filler {
      type: "constant"
    }
  }
}
layer {
  name: "relu1"
  type: "ReLU"
  bottom: "ip1"
  top: "ip1"
}
layer {
  name: "ip2"
  type: "InnerProduct"
  bottom: "ip1"
  top: "ip2"
  param {
    lr_mult: 1
  }
  param {
    lr_mult: 2
  }
  inner_product_param {
    num_output: 10
    weight_filler {
      type: "xavier"
    }
    bias_filler {
      type: "constant"
    }
  }
}
layer {
  name: "relu2"
  type: "ReLU"
  bottom: "ip2"
  top: "ip2"
}
layer {
  name: "ip3"
  type: "InnerProduct"
  bottom: "ip2"
  top: "ip3"
  param {
    lr_mult: 1
  }
  param {
    lr_mult: 2
  }
  inner_product_param {
    num_output: 10
    weight_filler {
      type: "xavier"
    }
    bias_filler {
      type: "constant"
    }
  }
}
layer {
  name: "relu3"
  type: "ReLU"
  bottom: "ip3"
  top: "ip3"
}
layer {
  name: "loss"
  type: "SoftmaxWithLoss"
  bottom: "ip3"
  bottom: "label"
  top: "loss"
}
I0428 19:33:23.521632 23093 layer_factory.hpp:77] Creating layer mnist
I0428 19:33:23.521733 23093 db_lmdb.cpp:35] Opened lmdb examples/mnist/mnist_train_lmdb
I0428 19:33:23.521756 23093 net.cpp:86] Creating Layer mnist
I0428 19:33:23.521766 23093 net.cpp:382] mnist -> data
I0428 19:33:23.521790 23093 net.cpp:382] mnist -> label
I0428 19:33:23.522882 23093 data_layer.cpp:45] output data size: 64,1,28,28
I0428 19:33:23.525358 23093 net.cpp:124] Setting up mnist
I0428 19:33:23.525375 23093 net.cpp:131] Top shape: 64 1 28 28 (50176)
I0428 19:33:23.525382 23093 net.cpp:131] Top shape: 64 (64)
I0428 19:33:23.525387 23093 net.cpp:139] Memory required for data: 200960
I0428 19:33:23.525393 23093 layer_factory.hpp:77] Creating layer conv0
I0428 19:33:23.525437 23093 net.cpp:86] Creating Layer conv0
I0428 19:33:23.525444 23093 net.cpp:408] conv0 <- data
I0428 19:33:23.525456 23093 net.cpp:382] conv0 -> conv0
I0428 19:33:23.804767 23093 net.cpp:124] Setting up conv0
I0428 19:33:23.804793 23093 net.cpp:131] Top shape: 64 25 24 24 (921600)
I0428 19:33:23.804797 23093 net.cpp:139] Memory required for data: 3887360
I0428 19:33:23.804832 23093 layer_factory.hpp:77] Creating layer pool0
I0428 19:33:23.804862 23093 net.cpp:86] Creating Layer pool0
I0428 19:33:23.804883 23093 net.cpp:408] pool0 <- conv0
I0428 19:33:23.804890 23093 net.cpp:382] pool0 -> pool0
I0428 19:33:23.804939 23093 net.cpp:124] Setting up pool0
I0428 19:33:23.804949 23093 net.cpp:131] Top shape: 64 25 12 12 (230400)
I0428 19:33:23.804951 23093 net.cpp:139] Memory required for data: 4808960
I0428 19:33:23.804955 23093 layer_factory.hpp:77] Creating layer ip1
I0428 19:33:23.804962 23093 net.cpp:86] Creating Layer ip1
I0428 19:33:23.804965 23093 net.cpp:408] ip1 <- pool0
I0428 19:33:23.804970 23093 net.cpp:382] ip1 -> ip1
I0428 19:33:23.806625 23093 net.cpp:124] Setting up ip1
I0428 19:33:23.806654 23093 net.cpp:131] Top shape: 64 25 (1600)
I0428 19:33:23.806659 23093 net.cpp:139] Memory required for data: 4815360
I0428 19:33:23.806684 23093 layer_factory.hpp:77] Creating layer relu1
I0428 19:33:23.806690 23093 net.cpp:86] Creating Layer relu1
I0428 19:33:23.806694 23093 net.cpp:408] relu1 <- ip1
I0428 19:33:23.806699 23093 net.cpp:369] relu1 -> ip1 (in-place)
I0428 19:33:23.806900 23093 net.cpp:124] Setting up relu1
I0428 19:33:23.806910 23093 net.cpp:131] Top shape: 64 25 (1600)
I0428 19:33:23.806912 23093 net.cpp:139] Memory required for data: 4821760
I0428 19:33:23.806915 23093 layer_factory.hpp:77] Creating layer ip2
I0428 19:33:23.806922 23093 net.cpp:86] Creating Layer ip2
I0428 19:33:23.806926 23093 net.cpp:408] ip2 <- ip1
I0428 19:33:23.806929 23093 net.cpp:382] ip2 -> ip2
I0428 19:33:23.807037 23093 net.cpp:124] Setting up ip2
I0428 19:33:23.807045 23093 net.cpp:131] Top shape: 64 10 (640)
I0428 19:33:23.807049 23093 net.cpp:139] Memory required for data: 4824320
I0428 19:33:23.807056 23093 layer_factory.hpp:77] Creating layer relu2
I0428 19:33:23.807062 23093 net.cpp:86] Creating Layer relu2
I0428 19:33:23.807065 23093 net.cpp:408] relu2 <- ip2
I0428 19:33:23.807068 23093 net.cpp:369] relu2 -> ip2 (in-place)
I0428 19:33:23.807801 23093 net.cpp:124] Setting up relu2
I0428 19:33:23.807813 23093 net.cpp:131] Top shape: 64 10 (640)
I0428 19:33:23.807816 23093 net.cpp:139] Memory required for data: 4826880
I0428 19:33:23.807821 23093 layer_factory.hpp:77] Creating layer ip3
I0428 19:33:23.807827 23093 net.cpp:86] Creating Layer ip3
I0428 19:33:23.807831 23093 net.cpp:408] ip3 <- ip2
I0428 19:33:23.807837 23093 net.cpp:382] ip3 -> ip3
I0428 19:33:23.807929 23093 net.cpp:124] Setting up ip3
I0428 19:33:23.807936 23093 net.cpp:131] Top shape: 64 10 (640)
I0428 19:33:23.807940 23093 net.cpp:139] Memory required for data: 4829440
I0428 19:33:23.807945 23093 layer_factory.hpp:77] Creating layer relu3
I0428 19:33:23.807950 23093 net.cpp:86] Creating Layer relu3
I0428 19:33:23.807953 23093 net.cpp:408] relu3 <- ip3
I0428 19:33:23.807957 23093 net.cpp:369] relu3 -> ip3 (in-place)
I0428 19:33:23.808104 23093 net.cpp:124] Setting up relu3
I0428 19:33:23.808112 23093 net.cpp:131] Top shape: 64 10 (640)
I0428 19:33:23.808115 23093 net.cpp:139] Memory required for data: 4832000
I0428 19:33:23.808118 23093 layer_factory.hpp:77] Creating layer loss
I0428 19:33:23.808125 23093 net.cpp:86] Creating Layer loss
I0428 19:33:23.808127 23093 net.cpp:408] loss <- ip3
I0428 19:33:23.808131 23093 net.cpp:408] loss <- label
I0428 19:33:23.808136 23093 net.cpp:382] loss -> loss
I0428 19:33:23.808151 23093 layer_factory.hpp:77] Creating layer loss
…
I0428 19:33:23.808738 23093 solver.cpp:173] Creating test net (#0) specified by net file: ECE595/mnist/train_test/var_everything2/lenet_train_test178.prototxt
I0428 19:33:23.808766 23093 net.cpp:296] The NetState phase (1) differed from the phase (0) specified by a rule in layer mnist
I0428 19:33:23.808884 23093 net.cpp:53] Initializing net from parameters: 
name: "LeNet"
state {
  phase: TEST
}
layer {
  name: "mnist"
  type: "Data"
  top: "data"
  top: "label"
  include {
    phase: TEST
  }
  transform_param {
    scale: 0.00390625
  }
  data_param {
    source: "examples/mnist/mnist_test_lmdb"
    batch_size: 100
    backend: LMDB
  }
}
layer {
  name: "conv0"
  type: "Convolution"
  bottom: "data"
  top: "conv0"
  param {
    lr_mult: 1
  }
  param {
    lr_mult: 2
  }
  convolution_param {
    num_output: 25
    kernel_size: 5
    stride: 1
    weight_filler {
      type: "xavier"
    }
    bias_filler {
      type: "constant"
    }
  }
}
layer {
  name: "pool0"
  type: "Pooling"
  bottom: "conv0"
  top: "pool0"
  pooling_param {
    pool: MAX
    kernel_size: 2
    stride: 2
  }
}
layer {
  name: "ip1"
  type: "InnerProduct"
  bottom: "pool0"
  top: "ip1"
  param {
    lr_mult: 1
  }
  param {
    lr_mult: 2
  }
  inner_product_param {
    num_output: 25
    weight_filler {
      type: "xavier"
    }
    bias_filler {
      type: "constant"
    }
  }
}
layer {
  name: "relu1"
  type: "ReLU"
  bottom: "ip1"
  top: "ip1"
}
layer {
  name: "ip2"
  type: "InnerProduct"
  bottom: "ip1"
  top: "ip2"
  param {
    lr_mult: 1
  }
  param {
    lr_mult: 2
  }
  inner_product_param {
    num_output: 10
    weight_filler {
      type: "xavier"
    }
    bias_filler {
      type: "constant"
    }
  }
}
layer {
  name: "relu2"
  type: "ReLU"
  bottom: "ip2"
  top: "ip2"
}
layer {
  name: "ip3"
  type: "InnerProduct"
  bottom: "ip2"
  top: "ip3"
  param {
    lr_mult: 1
  }
  param {
    lr_mult: 2
  }
  inner_product_param {
    num_output: 10
    weight_filler {
      type: "xavier"
    }
    bias_filler {
      type: "constant"
    }
  }
}
layer {
  name: "relu3"
  type: "ReLU"
  bottom: "ip3"
  top: "ip3"
}
layer {
  name: "accuracy"
  type: "Accuracy"
  bottom: "ip3"
  bottom: "label"
  top: "accuracy"
  include {
    phase: TEST
  }
}
layer {
  name: "loss"
  type: "SoftmaxWithLoss"
  bottom: "ip3"
  bottom: "label"
  top: "loss"
}
I0428 19:33:23.808948 23093 layer_factory.hpp:77] Creating layer mnist
I0428 19:33:23.808996 23093 db_lmdb.cpp:35] Opened lmdb examples/mnist/mnist_test_lmdb
I0428 19:33:23.809023 23093 net.cpp:86] Creating Layer mnist
I0428 19:33:23.809028 23093 net.cpp:382] mnist -> data
I0428 19:33:23.809036 23093 net.cpp:382] mnist -> label
I0428 19:33:23.809118 23093 data_layer.cpp:45] output data size: 100,1,28,28
I0428 19:33:23.810163 23093 net.cpp:124] Setting up mnist
I0428 19:33:23.810175 23093 net.cpp:131] Top shape: 100 1 28 28 (78400)
I0428 19:33:23.810180 23093 net.cpp:131] Top shape: 100 (100)
I0428 19:33:23.810184 23093 net.cpp:139] Memory required for data: 314000
I0428 19:33:23.810187 23093 layer_factory.hpp:77] Creating layer label_mnist_1_split
I0428 19:33:23.810194 23093 net.cpp:86] Creating Layer label_mnist_1_split
I0428 19:33:23.810197 23093 net.cpp:408] label_mnist_1_split <- label
I0428 19:33:23.810202 23093 net.cpp:382] label_mnist_1_split -> label_mnist_1_split_0
I0428 19:33:23.810209 23093 net.cpp:382] label_mnist_1_split -> label_mnist_1_split_1
I0428 19:33:23.810245 23093 net.cpp:124] Setting up label_mnist_1_split
I0428 19:33:23.810250 23093 net.cpp:131] Top shape: 100 (100)
I0428 19:33:23.810253 23093 net.cpp:131] Top shape: 100 (100)
I0428 19:33:23.810256 23093 net.cpp:139] Memory required for data: 314800
I0428 19:33:23.810269 23093 layer_factory.hpp:77] Creating layer conv0
I0428 19:33:23.810278 23093 net.cpp:86] Creating Layer conv0
I0428 19:33:23.810281 23093 net.cpp:408] conv0 <- data
I0428 19:33:23.810286 23093 net.cpp:382] conv0 -> conv0
I0428 19:33:23.811995 23093 net.cpp:124] Setting up conv0
I0428 19:33:23.812010 23093 net.cpp:131] Top shape: 100 25 24 24 (1440000)
I0428 19:33:23.812013 23093 net.cpp:139] Memory required for data: 6074800
I0428 19:33:23.812022 23093 layer_factory.hpp:77] Creating layer pool0
I0428 19:33:23.812029 23093 net.cpp:86] Creating Layer pool0
I0428 19:33:23.812032 23093 net.cpp:408] pool0 <- conv0
I0428 19:33:23.812037 23093 net.cpp:382] pool0 -> pool0
I0428 19:33:23.812073 23093 net.cpp:124] Setting up pool0
I0428 19:33:23.812078 23093 net.cpp:131] Top shape: 100 25 12 12 (360000)
I0428 19:33:23.812081 23093 net.cpp:139] Memory required for data: 7514800
I0428 19:33:23.812084 23093 layer_factory.hpp:77] Creating layer ip1
I0428 19:33:23.812091 23093 net.cpp:86] Creating Layer ip1
I0428 19:33:23.812094 23093 net.cpp:408] ip1 <- pool0
I0428 19:33:23.812098 23093 net.cpp:382] ip1 -> ip1
I0428 19:33:23.812701 23093 net.cpp:124] Setting up ip1
I0428 19:33:23.812708 23093 net.cpp:131] Top shape: 100 25 (2500)
I0428 19:33:23.812712 23093 net.cpp:139] Memory required for data: 7524800
I0428 19:33:23.812719 23093 layer_factory.hpp:77] Creating layer relu1
I0428 19:33:23.812724 23093 net.cpp:86] Creating Layer relu1
I0428 19:33:23.812727 23093 net.cpp:408] relu1 <- ip1
I0428 19:33:23.812731 23093 net.cpp:369] relu1 -> ip1 (in-place)
I0428 19:33:23.813036 23093 net.cpp:124] Setting up relu1
I0428 19:33:23.813045 23093 net.cpp:131] Top shape: 100 25 (2500)
I0428 19:33:23.813050 23093 net.cpp:139] Memory required for data: 7534800
I0428 19:33:23.813052 23093 layer_factory.hpp:77] Creating layer ip2
I0428 19:33:23.813058 23093 net.cpp:86] Creating Layer ip2
I0428 19:33:23.813061 23093 net.cpp:408] ip2 <- ip1
I0428 19:33:23.813066 23093 net.cpp:382] ip2 -> ip2
I0428 19:33:23.813181 23093 net.cpp:124] Setting up ip2
I0428 19:33:23.813189 23093 net.cpp:131] Top shape: 100 10 (1000)
I0428 19:33:23.813191 23093 net.cpp:139] Memory required for data: 7538800
I0428 19:33:23.813199 23093 layer_factory.hpp:77] Creating layer relu2
I0428 19:33:23.813210 23093 net.cpp:86] Creating Layer relu2
I0428 19:33:23.813212 23093 net.cpp:408] relu2 <- ip2
I0428 19:33:23.813217 23093 net.cpp:369] relu2 -> ip2 (in-place)
I0428 19:33:23.813980 23093 net.cpp:124] Setting up relu2
I0428 19:33:23.814007 23093 net.cpp:131] Top shape: 100 10 (1000)
I0428 19:33:23.814025 23093 net.cpp:139] Memory required for data: 7542800
I0428 19:33:23.814029 23093 layer_factory.hpp:77] Creating layer ip3
I0428 19:33:23.814038 23093 net.cpp:86] Creating Layer ip3
I0428 19:33:23.814040 23093 net.cpp:408] ip3 <- ip2
I0428 19:33:23.814046 23093 net.cpp:382] ip3 -> ip3
I0428 19:33:23.814155 23093 net.cpp:124] Setting up ip3
I0428 19:33:23.814163 23093 net.cpp:131] Top shape: 100 10 (1000)
I0428 19:33:23.814167 23093 net.cpp:139] Memory required for data: 7546800
I0428 19:33:23.814172 23093 layer_factory.hpp:77] Creating layer relu3
I0428 19:33:23.814177 23093 net.cpp:86] Creating Layer relu3
I0428 19:33:23.814179 23093 net.cpp:408] relu3 <- ip3
I0428 19:33:23.814184 23093 net.cpp:369] relu3 -> ip3 (in-place)
I0428 19:33:23.814393 23093 net.cpp:124] Setting up relu3
I0428 19:33:23.814402 23093 net.cpp:131] Top shape: 100 10 (1000)
I0428 19:33:23.814405 23093 net.cpp:139] Memory required for data: 7550800
I0428 19:33:23.814409 23093 layer_factory.hpp:77] Creating layer ip3_relu3_0_split
I0428 19:33:23.814414 23093 net.cpp:86] Creating Layer ip3_relu3_0_split
I0428 19:33:23.814415 23093 net.cpp:408] ip3_relu3_0_split <- ip3
I0428 19:33:23.814420 23093 net.cpp:382] ip3_relu3_0_split -> ip3_relu3_0_split_0
I0428 19:33:23.814426 23093 net.cpp:382] ip3_relu3_0_split -> ip3_relu3_0_split_1
I0428 19:33:23.814460 23093 net.cpp:124] Setting up ip3_relu3_0_split
I0428 19:33:23.814465 23093 net.cpp:131] Top shape: 100 10 (1000)
I0428 19:33:23.814468 23093 net.cpp:131] Top shape: 100 10 (1000)
I0428 19:33:23.814487 23093 net.cpp:139] Memory required for data: 7558800
I0428 19:33:23.814491 23093 layer_factory.hpp:77] Creating layer accuracy
I0428 19:33:23.814497 23093 net.cpp:86] Creating Layer accuracy
I0428 19:33:23.814501 23093 net.cpp:408] accuracy <- ip3_relu3_0_split_0
I0428 19:33:23.814505 23093 net.cpp:408] accuracy <- label_mnist_1_split_0
I0428 19:33:23.814509 23093 net.cpp:382] accuracy -> accuracy
…
