…
I0428 19:50:38.214177 27059 net.cpp:296] The NetState phase (0) differed from the phase (1) specified by a rule in layer mnist
I0428 19:50:38.214196 27059 net.cpp:296] The NetState phase (0) differed from the phase (1) specified by a rule in layer accuracy
I0428 19:50:38.214301 27059 net.cpp:53] Initializing net from parameters: 
name: "LeNet"
state {
  phase: TRAIN
  level: 0
  stage: ""
}
layer {
  name: "mnist"
  type: "Data"
  top: "data"
  top: "label"
  include {
    phase: TRAIN
  }
  transform_param {
    scale: 0.00390625
  }
  data_param {
    source: "examples/mnist/mnist_train_lmdb"
    batch_size: 64
    backend: LMDB
  }
}
layer {
  name: "conv0"
  type: "Convolution"
  bottom: "data"
  top: "conv0"
  param {
    lr_mult: 1
  }
  param {
    lr_mult: 2
  }
  convolution_param {
    num_output: 5
    kernel_size: 5
    stride: 1
    weight_filler {
      type: "xavier"
    }
    bias_filler {
      type: "constant"
    }
  }
}
layer {
  name: "pool0"
  type: "Pooling"
  bottom: "conv0"
  top: "pool0"
  pooling_param {
    pool: MAX
    kernel_size: 2
    stride: 2
  }
}
layer {
  name: "conv1"
  type: "Convolution"
  bottom: "pool0"
  top: "conv1"
  param {
    lr_mult: 1
  }
  param {
    lr_mult: 2
  }
  convolution_param {
    num_output: 10
    kernel_size: 5
    stride: 1
    weight_filler {
      type: "xavier"
    }
    bias_filler {
      type: "constant"
    }
  }
}
layer {
  name: "pool1"
  type: "Pooling"
  bottom: "conv1"
  top: "pool1"
  pooling_param {
    pool: MAX
    kernel_size: 2
    stride: 2
  }
}
layer {
  name: "ip1"
  type: "InnerProduct"
  bottom: "pool1"
  top: "ip1"
  param {
    lr_mult: 1
  }
  param {
    lr_mult: 2
  }
  inner_product_param {
    num_output: 25
    weight_filler {
      type: "xavier"
    }
    bias_filler {
      type: "constant"
    }
  }
}
layer {
  name: "relu1"
  type: "ReLU"
  bottom: "ip1"
  top: "ip1"
}
layer {
  name: "ip2"
  type: "InnerProduct"
  bottom: "ip1"
  top: "ip2"
  param {
    lr_mult: 1
  }
  param {
    lr_mult: 2
  }
  inner_product_param {
    num_output: 25
    weight_filler {
      type: "xavier"
    }
    bias_filler {
      type: "constant"
    }
  }
}
layer {
  name: "relu2"
  type: "ReLU"
  bottom: "ip2"
  top: "ip2"
}
layer {
  name: "ip3"
  type: "InnerProduct"
  bottom: "ip2"
  top: "ip3"
  param {
    lr_mult: 1
  }
  param {
    lr_mult: 2
  }
  inner_product_param {
    num_output: 10
    weight_filler {
      type: "xavier"
    }
    bias_filler {
      type: "constant"
    }
  }
}
layer {
  name: "relu3"
  type: "ReLU"
  bottom: "ip3"
  top: "ip3"
}
layer {
  name: "loss"
  type: "SoftmaxWithLoss"
  bottom: "ip3"
  bottom: "label"
  top: "loss"
}
I0428 19:50:38.214381 27059 layer_factory.hpp:77] Creating layer mnist
I0428 19:50:38.214481 27059 db_lmdb.cpp:35] Opened lmdb examples/mnist/mnist_train_lmdb
I0428 19:50:38.214504 27059 net.cpp:86] Creating Layer mnist
I0428 19:50:38.214514 27059 net.cpp:382] mnist -> data
I0428 19:50:38.214536 27059 net.cpp:382] mnist -> label
I0428 19:50:38.215617 27059 data_layer.cpp:45] output data size: 64,1,28,28
I0428 19:50:38.218277 27059 net.cpp:124] Setting up mnist
I0428 19:50:38.218297 27059 net.cpp:131] Top shape: 64 1 28 28 (50176)
I0428 19:50:38.218303 27059 net.cpp:131] Top shape: 64 (64)
I0428 19:50:38.218307 27059 net.cpp:139] Memory required for data: 200960
I0428 19:50:38.218314 27059 layer_factory.hpp:77] Creating layer conv0
I0428 19:50:38.218330 27059 net.cpp:86] Creating Layer conv0
I0428 19:50:38.218351 27059 net.cpp:408] conv0 <- data
I0428 19:50:38.218366 27059 net.cpp:382] conv0 -> conv0
I0428 19:50:38.510571 27059 net.cpp:124] Setting up conv0
I0428 19:50:38.510601 27059 net.cpp:131] Top shape: 64 5 24 24 (184320)
I0428 19:50:38.510607 27059 net.cpp:139] Memory required for data: 938240
I0428 19:50:38.510624 27059 layer_factory.hpp:77] Creating layer pool0
I0428 19:50:38.510639 27059 net.cpp:86] Creating Layer pool0
I0428 19:50:38.510644 27059 net.cpp:408] pool0 <- conv0
I0428 19:50:38.510650 27059 net.cpp:382] pool0 -> pool0
I0428 19:50:38.510707 27059 net.cpp:124] Setting up pool0
I0428 19:50:38.510713 27059 net.cpp:131] Top shape: 64 5 12 12 (46080)
I0428 19:50:38.510718 27059 net.cpp:139] Memory required for data: 1122560
I0428 19:50:38.510721 27059 layer_factory.hpp:77] Creating layer conv1
I0428 19:50:38.510735 27059 net.cpp:86] Creating Layer conv1
I0428 19:50:38.510738 27059 net.cpp:408] conv1 <- pool0
I0428 19:50:38.510745 27059 net.cpp:382] conv1 -> conv1
I0428 19:50:38.513907 27059 net.cpp:124] Setting up conv1
I0428 19:50:38.513926 27059 net.cpp:131] Top shape: 64 10 8 8 (40960)
I0428 19:50:38.513931 27059 net.cpp:139] Memory required for data: 1286400
I0428 19:50:38.513942 27059 layer_factory.hpp:77] Creating layer pool1
I0428 19:50:38.513952 27059 net.cpp:86] Creating Layer pool1
I0428 19:50:38.513957 27059 net.cpp:408] pool1 <- conv1
I0428 19:50:38.513962 27059 net.cpp:382] pool1 -> pool1
I0428 19:50:38.514012 27059 net.cpp:124] Setting up pool1
I0428 19:50:38.514019 27059 net.cpp:131] Top shape: 64 10 4 4 (10240)
I0428 19:50:38.514022 27059 net.cpp:139] Memory required for data: 1327360
I0428 19:50:38.514025 27059 layer_factory.hpp:77] Creating layer ip1
I0428 19:50:38.514034 27059 net.cpp:86] Creating Layer ip1
I0428 19:50:38.514037 27059 net.cpp:408] ip1 <- pool1
I0428 19:50:38.514044 27059 net.cpp:382] ip1 -> ip1
I0428 19:50:38.514192 27059 net.cpp:124] Setting up ip1
I0428 19:50:38.514201 27059 net.cpp:131] Top shape: 64 25 (1600)
I0428 19:50:38.514205 27059 net.cpp:139] Memory required for data: 1333760
I0428 19:50:38.514216 27059 layer_factory.hpp:77] Creating layer relu1
I0428 19:50:38.514223 27059 net.cpp:86] Creating Layer relu1
I0428 19:50:38.514226 27059 net.cpp:408] relu1 <- ip1
I0428 19:50:38.514233 27059 net.cpp:369] relu1 -> ip1 (in-place)
I0428 19:50:38.514436 27059 net.cpp:124] Setting up relu1
I0428 19:50:38.514447 27059 net.cpp:131] Top shape: 64 25 (1600)
I0428 19:50:38.514451 27059 net.cpp:139] Memory required for data: 1340160
I0428 19:50:38.514454 27059 layer_factory.hpp:77] Creating layer ip2
I0428 19:50:38.514462 27059 net.cpp:86] Creating Layer ip2
I0428 19:50:38.514467 27059 net.cpp:408] ip2 <- ip1
I0428 19:50:38.514472 27059 net.cpp:382] ip2 -> ip2
I0428 19:50:38.514593 27059 net.cpp:124] Setting up ip2
I0428 19:50:38.514601 27059 net.cpp:131] Top shape: 64 25 (1600)
I0428 19:50:38.514605 27059 net.cpp:139] Memory required for data: 1346560
I0428 19:50:38.514611 27059 layer_factory.hpp:77] Creating layer relu2
I0428 19:50:38.514619 27059 net.cpp:86] Creating Layer relu2
I0428 19:50:38.514623 27059 net.cpp:408] relu2 <- ip2
I0428 19:50:38.514629 27059 net.cpp:369] relu2 -> ip2 (in-place)
I0428 19:50:38.515476 27059 net.cpp:124] Setting up relu2
I0428 19:50:38.515491 27059 net.cpp:131] Top shape: 64 25 (1600)
I0428 19:50:38.515496 27059 net.cpp:139] Memory required for data: 1352960
I0428 19:50:38.515499 27059 layer_factory.hpp:77] Creating layer ip3
I0428 19:50:38.515509 27059 net.cpp:86] Creating Layer ip3
I0428 19:50:38.515513 27059 net.cpp:408] ip3 <- ip2
I0428 19:50:38.515519 27059 net.cpp:382] ip3 -> ip3
I0428 19:50:38.515641 27059 net.cpp:124] Setting up ip3
I0428 19:50:38.515650 27059 net.cpp:131] Top shape: 64 10 (640)
I0428 19:50:38.515653 27059 net.cpp:139] Memory required for data: 1355520
I0428 19:50:38.515664 27059 layer_factory.hpp:77] Creating layer relu3
I0428 19:50:38.515671 27059 net.cpp:86] Creating Layer relu3
I0428 19:50:38.515674 27059 net.cpp:408] relu3 <- ip3
I0428 19:50:38.515678 27059 net.cpp:369] relu3 -> ip3 (in-place)
I0428 19:50:38.515888 27059 net.cpp:124] Setting up relu3
I0428 19:50:38.515900 27059 net.cpp:131] Top shape: 64 10 (640)
I0428 19:50:38.515904 27059 net.cpp:139] Memory required for data: 1358080
I0428 19:50:38.515908 27059 layer_factory.hpp:77] Creating layer loss
I0428 19:50:38.515914 27059 net.cpp:86] Creating Layer loss
I0428 19:50:38.515918 27059 net.cpp:408] loss <- ip3
I0428 19:50:38.515923 27059 net.cpp:408] loss <- label
I0428 19:50:38.515928 27059 net.cpp:382] loss -> loss
I0428 19:50:38.515947 27059 layer_factory.hpp:77] Creating layer loss
…
I0428 19:50:38.516700 27059 solver.cpp:173] Creating test net (#0) specified by net file: ECE595/mnist/train_test/var_everything2/lenet_train_test610.prototxt
I0428 19:50:38.516731 27059 net.cpp:296] The NetState phase (1) differed from the phase (0) specified by a rule in layer mnist
I0428 19:50:38.516849 27059 net.cpp:53] Initializing net from parameters: 
name: "LeNet"
state {
  phase: TEST
}
layer {
  name: "mnist"
  type: "Data"
  top: "data"
  top: "label"
  include {
    phase: TEST
  }
  transform_param {
    scale: 0.00390625
  }
  data_param {
    source: "examples/mnist/mnist_test_lmdb"
    batch_size: 100
    backend: LMDB
  }
}
layer {
  name: "conv0"
  type: "Convolution"
  bottom: "data"
  top: "conv0"
  param {
    lr_mult: 1
  }
  param {
    lr_mult: 2
  }
  convolution_param {
    num_output: 5
    kernel_size: 5
    stride: 1
    weight_filler {
      type: "xavier"
    }
    bias_filler {
      type: "constant"
    }
  }
}
layer {
  name: "pool0"
  type: "Pooling"
  bottom: "conv0"
  top: "pool0"
  pooling_param {
    pool: MAX
    kernel_size: 2
    stride: 2
  }
}
layer {
  name: "conv1"
  type: "Convolution"
  bottom: "pool0"
  top: "conv1"
  param {
    lr_mult: 1
  }
  param {
    lr_mult: 2
  }
  convolution_param {
    num_output: 10
    kernel_size: 5
    stride: 1
    weight_filler {
      type: "xavier"
    }
    bias_filler {
      type: "constant"
    }
  }
}
layer {
  name: "pool1"
  type: "Pooling"
  bottom: "conv1"
  top: "pool1"
  pooling_param {
    pool: MAX
    kernel_size: 2
    stride: 2
  }
}
layer {
  name: "ip1"
  type: "InnerProduct"
  bottom: "pool1"
  top: "ip1"
  param {
    lr_mult: 1
  }
  param {
    lr_mult: 2
  }
  inner_product_param {
    num_output: 25
    weight_filler {
      type: "xavier"
    }
    bias_filler {
      type: "constant"
    }
  }
}
layer {
  name: "relu1"
  type: "ReLU"
  bottom: "ip1"
  top: "ip1"
}
layer {
  name: "ip2"
  type: "InnerProduct"
  bottom: "ip1"
  top: "ip2"
  param {
    lr_mult: 1
  }
  param {
    lr_mult: 2
  }
  inner_product_param {
    num_output: 25
    weight_filler {
      type: "xavier"
    }
    bias_filler {
      type: "constant"
    }
  }
}
layer {
  name: "relu2"
  type: "ReLU"
  bottom: "ip2"
  top: "ip2"
}
layer {
  name: "ip3"
  type: "InnerProduct"
  bottom: "ip2"
  top: "ip3"
  param {
    lr_mult: 1
  }
  param {
    lr_mult: 2
  }
  inner_product_param {
    num_output: 10
    weight_filler {
      type: "xavier"
    }
    bias_filler {
      type: "constant"
    }
  }
}
layer {
  name: "relu3"
  type: "ReLU"
  bottom: "ip3"
  top: "ip3"
}
layer {
  name: "accuracy"
  type: "Accuracy"
  bottom: "ip3"
  bottom: "label"
  top: "accuracy"
  include {
    phase: TEST
  }
}
layer {
  name: "loss"
  type: "SoftmaxWithLoss"
  bottom: "ip3"
  bottom: "label"
  top: "loss"
}
I0428 19:50:38.516952 27059 layer_factory.hpp:77] Creating layer mnist
I0428 19:50:38.517009 27059 db_lmdb.cpp:35] Opened lmdb examples/mnist/mnist_test_lmdb
I0428 19:50:38.517022 27059 net.cpp:86] Creating Layer mnist
I0428 19:50:38.517030 27059 net.cpp:382] mnist -> data
I0428 19:50:38.517038 27059 net.cpp:382] mnist -> label
I0428 19:50:38.517140 27059 data_layer.cpp:45] output data size: 100,1,28,28
I0428 19:50:38.519326 27059 net.cpp:124] Setting up mnist
I0428 19:50:38.519342 27059 net.cpp:131] Top shape: 100 1 28 28 (78400)
I0428 19:50:38.519348 27059 net.cpp:131] Top shape: 100 (100)
I0428 19:50:38.519351 27059 net.cpp:139] Memory required for data: 314000
I0428 19:50:38.519356 27059 layer_factory.hpp:77] Creating layer label_mnist_1_split
I0428 19:50:38.519363 27059 net.cpp:86] Creating Layer label_mnist_1_split
I0428 19:50:38.519367 27059 net.cpp:408] label_mnist_1_split <- label
I0428 19:50:38.519392 27059 net.cpp:382] label_mnist_1_split -> label_mnist_1_split_0
I0428 19:50:38.519402 27059 net.cpp:382] label_mnist_1_split -> label_mnist_1_split_1
I0428 19:50:38.519454 27059 net.cpp:124] Setting up label_mnist_1_split
I0428 19:50:38.519462 27059 net.cpp:131] Top shape: 100 (100)
I0428 19:50:38.519466 27059 net.cpp:131] Top shape: 100 (100)
I0428 19:50:38.519469 27059 net.cpp:139] Memory required for data: 314800
I0428 19:50:38.519474 27059 layer_factory.hpp:77] Creating layer conv0
I0428 19:50:38.519484 27059 net.cpp:86] Creating Layer conv0
I0428 19:50:38.519487 27059 net.cpp:408] conv0 <- data
I0428 19:50:38.519493 27059 net.cpp:382] conv0 -> conv0
I0428 19:50:38.521275 27059 net.cpp:124] Setting up conv0
I0428 19:50:38.521291 27059 net.cpp:131] Top shape: 100 5 24 24 (288000)
I0428 19:50:38.521296 27059 net.cpp:139] Memory required for data: 1466800
I0428 19:50:38.521307 27059 layer_factory.hpp:77] Creating layer pool0
I0428 19:50:38.521314 27059 net.cpp:86] Creating Layer pool0
I0428 19:50:38.521318 27059 net.cpp:408] pool0 <- conv0
I0428 19:50:38.521325 27059 net.cpp:382] pool0 -> pool0
I0428 19:50:38.521371 27059 net.cpp:124] Setting up pool0
I0428 19:50:38.521378 27059 net.cpp:131] Top shape: 100 5 12 12 (72000)
I0428 19:50:38.521380 27059 net.cpp:139] Memory required for data: 1754800
I0428 19:50:38.521384 27059 layer_factory.hpp:77] Creating layer conv1
I0428 19:50:38.521396 27059 net.cpp:86] Creating Layer conv1
I0428 19:50:38.521399 27059 net.cpp:408] conv1 <- pool0
I0428 19:50:38.521405 27059 net.cpp:382] conv1 -> conv1
I0428 19:50:38.523759 27059 net.cpp:124] Setting up conv1
I0428 19:50:38.523777 27059 net.cpp:131] Top shape: 100 10 8 8 (64000)
I0428 19:50:38.523782 27059 net.cpp:139] Memory required for data: 2010800
I0428 19:50:38.523792 27059 layer_factory.hpp:77] Creating layer pool1
I0428 19:50:38.523802 27059 net.cpp:86] Creating Layer pool1
I0428 19:50:38.523808 27059 net.cpp:408] pool1 <- conv1
I0428 19:50:38.523813 27059 net.cpp:382] pool1 -> pool1
I0428 19:50:38.523890 27059 net.cpp:124] Setting up pool1
I0428 19:50:38.523900 27059 net.cpp:131] Top shape: 100 10 4 4 (16000)
I0428 19:50:38.523903 27059 net.cpp:139] Memory required for data: 2074800
I0428 19:50:38.523906 27059 layer_factory.hpp:77] Creating layer ip1
I0428 19:50:38.523913 27059 net.cpp:86] Creating Layer ip1
I0428 19:50:38.523919 27059 net.cpp:408] ip1 <- pool1
I0428 19:50:38.523924 27059 net.cpp:382] ip1 -> ip1
I0428 19:50:38.524113 27059 net.cpp:124] Setting up ip1
I0428 19:50:38.524123 27059 net.cpp:131] Top shape: 100 25 (2500)
I0428 19:50:38.524139 27059 net.cpp:139] Memory required for data: 2084800
I0428 19:50:38.524149 27059 layer_factory.hpp:77] Creating layer relu1
I0428 19:50:38.524157 27059 net.cpp:86] Creating Layer relu1
I0428 19:50:38.524161 27059 net.cpp:408] relu1 <- ip1
I0428 19:50:38.524168 27059 net.cpp:369] relu1 -> ip1 (in-place)
I0428 19:50:38.524375 27059 net.cpp:124] Setting up relu1
I0428 19:50:38.524386 27059 net.cpp:131] Top shape: 100 25 (2500)
I0428 19:50:38.524390 27059 net.cpp:139] Memory required for data: 2094800
I0428 19:50:38.524394 27059 layer_factory.hpp:77] Creating layer ip2
I0428 19:50:38.524404 27059 net.cpp:86] Creating Layer ip2
I0428 19:50:38.524407 27059 net.cpp:408] ip2 <- ip1
I0428 19:50:38.524415 27059 net.cpp:382] ip2 -> ip2
I0428 19:50:38.524539 27059 net.cpp:124] Setting up ip2
I0428 19:50:38.524550 27059 net.cpp:131] Top shape: 100 25 (2500)
I0428 19:50:38.524555 27059 net.cpp:139] Memory required for data: 2104800
I0428 19:50:38.524562 27059 layer_factory.hpp:77] Creating layer relu2
I0428 19:50:38.524567 27059 net.cpp:86] Creating Layer relu2
I0428 19:50:38.524572 27059 net.cpp:408] relu2 <- ip2
I0428 19:50:38.524576 27059 net.cpp:369] relu2 -> ip2 (in-place)
I0428 19:50:38.524763 27059 net.cpp:124] Setting up relu2
I0428 19:50:38.524775 27059 net.cpp:131] Top shape: 100 25 (2500)
I0428 19:50:38.524778 27059 net.cpp:139] Memory required for data: 2114800
I0428 19:50:38.524783 27059 layer_factory.hpp:77] Creating layer ip3
I0428 19:50:38.524790 27059 net.cpp:86] Creating Layer ip3
I0428 19:50:38.524793 27059 net.cpp:408] ip3 <- ip2
I0428 19:50:38.524799 27059 net.cpp:382] ip3 -> ip3
I0428 19:50:38.524948 27059 net.cpp:124] Setting up ip3
I0428 19:50:38.524957 27059 net.cpp:131] Top shape: 100 10 (1000)
I0428 19:50:38.524961 27059 net.cpp:139] Memory required for data: 2118800
I0428 19:50:38.524971 27059 layer_factory.hpp:77] Creating layer relu3
I0428 19:50:38.524981 27059 net.cpp:86] Creating Layer relu3
I0428 19:50:38.524984 27059 net.cpp:408] relu3 <- ip3
I0428 19:50:38.524991 27059 net.cpp:369] relu3 -> ip3 (in-place)
I0428 19:50:38.525887 27059 net.cpp:124] Setting up relu3
I0428 19:50:38.525902 27059 net.cpp:131] Top shape: 100 10 (1000)
I0428 19:50:38.525907 27059 net.cpp:139] Memory required for data: 2122800
I0428 19:50:38.525912 27059 layer_factory.hpp:77] Creating layer ip3_relu3_0_split
I0428 19:50:38.525918 27059 net.cpp:86] Creating Layer ip3_relu3_0_split
I0428 19:50:38.525923 27059 net.cpp:408] ip3_relu3_0_split <- ip3
I0428 19:50:38.525928 27059 net.cpp:382] ip3_relu3_0_split -> ip3_relu3_0_split_0
I0428 19:50:38.525944 27059 net.cpp:382] ip3_relu3_0_split -> ip3_relu3_0_split_1
I0428 19:50:38.525990 27059 net.cpp:124] Setting up ip3_relu3_0_split
I0428 19:50:38.525995 27059 net.cpp:131] Top shape: 100 10 (1000)
I0428 19:50:38.526000 27059 net.cpp:131] Top shape: 100 10 (1000)
I0428 19:50:38.526003 27059 net.cpp:139] Memory required for data: 2130800
I0428 19:50:38.526006 27059 layer_factory.hpp:77] Creating layer accuracy
I0428 19:50:38.526013 27059 net.cpp:86] Creating Layer accuracy
I0428 19:50:38.526017 27059 net.cpp:408] accuracy <- ip3_relu3_0_split_0
I0428 19:50:38.526022 27059 net.cpp:408] accuracy <- label_mnist_1_split_0
I0428 19:50:38.526026 27059 net.cpp:382] accuracy -> accuracy
…
