…
I0428 20:17:08.245328   804 net.cpp:296] The NetState phase (0) differed from the phase (1) specified by a rule in layer mnist
I0428 20:17:08.245348   804 net.cpp:296] The NetState phase (0) differed from the phase (1) specified by a rule in layer accuracy
I0428 20:17:08.245437   804 net.cpp:53] Initializing net from parameters: 
name: "LeNet"
state {
  phase: TRAIN
  level: 0
  stage: ""
}
layer {
  name: "mnist"
  type: "Data"
  top: "data"
  top: "label"
  include {
    phase: TRAIN
  }
  transform_param {
    scale: 0.00390625
  }
  data_param {
    source: "examples/mnist/mnist_train_lmdb"
    batch_size: 64
    backend: LMDB
  }
}
layer {
  name: "conv0"
  type: "Convolution"
  bottom: "data"
  top: "conv0"
  param {
    lr_mult: 1
  }
  param {
    lr_mult: 2
  }
  convolution_param {
    num_output: 50
    kernel_size: 5
    stride: 1
    weight_filler {
      type: "xavier"
    }
    bias_filler {
      type: "constant"
    }
  }
}
layer {
  name: "pool0"
  type: "Pooling"
  bottom: "conv0"
  top: "pool0"
  pooling_param {
    pool: MAX
    kernel_size: 2
    stride: 2
  }
}
layer {
  name: "conv1"
  type: "Convolution"
  bottom: "pool0"
  top: "conv1"
  param {
    lr_mult: 1
  }
  param {
    lr_mult: 2
  }
  convolution_param {
    num_output: 10
    kernel_size: 5
    stride: 1
    weight_filler {
      type: "xavier"
    }
    bias_filler {
      type: "constant"
    }
  }
}
layer {
  name: "pool1"
  type: "Pooling"
  bottom: "conv1"
  top: "pool1"
  pooling_param {
    pool: MAX
    kernel_size: 2
    stride: 2
  }
}
layer {
  name: "ip1"
  type: "InnerProduct"
  bottom: "pool1"
  top: "ip1"
  param {
    lr_mult: 1
  }
  param {
    lr_mult: 2
  }
  inner_product_param {
    num_output: 10
    weight_filler {
      type: "xavier"
    }
    bias_filler {
      type: "constant"
    }
  }
}
layer {
  name: "relu1"
  type: "ReLU"
  bottom: "ip1"
  top: "ip1"
}
layer {
  name: "loss"
  type: "SoftmaxWithLoss"
  bottom: "ip1"
  bottom: "label"
  top: "loss"
}
I0428 20:17:08.245527   804 layer_factory.hpp:77] Creating layer mnist
I0428 20:17:08.245659   804 db_lmdb.cpp:35] Opened lmdb examples/mnist/mnist_train_lmdb
I0428 20:17:08.245692   804 net.cpp:86] Creating Layer mnist
I0428 20:17:08.245704   804 net.cpp:382] mnist -> data
I0428 20:17:08.245734   804 net.cpp:382] mnist -> label
I0428 20:17:08.246937   804 data_layer.cpp:45] output data size: 64,1,28,28
I0428 20:17:08.249424   804 net.cpp:124] Setting up mnist
I0428 20:17:08.249445   804 net.cpp:131] Top shape: 64 1 28 28 (50176)
I0428 20:17:08.249455   804 net.cpp:131] Top shape: 64 (64)
I0428 20:17:08.249462   804 net.cpp:139] Memory required for data: 200960
I0428 20:17:08.249474   804 layer_factory.hpp:77] Creating layer conv0
I0428 20:17:08.249496   804 net.cpp:86] Creating Layer conv0
I0428 20:17:08.249506   804 net.cpp:408] conv0 <- data
I0428 20:17:08.249524   804 net.cpp:382] conv0 -> conv0
I0428 20:17:08.538205   804 net.cpp:124] Setting up conv0
I0428 20:17:08.538235   804 net.cpp:131] Top shape: 64 50 24 24 (1843200)
I0428 20:17:08.538242   804 net.cpp:139] Memory required for data: 7573760
I0428 20:17:08.538264   804 layer_factory.hpp:77] Creating layer pool0
I0428 20:17:08.538282   804 net.cpp:86] Creating Layer pool0
I0428 20:17:08.538298   804 net.cpp:408] pool0 <- conv0
I0428 20:17:08.538310   804 net.cpp:382] pool0 -> pool0
I0428 20:17:08.538372   804 net.cpp:124] Setting up pool0
I0428 20:17:08.538383   804 net.cpp:131] Top shape: 64 50 12 12 (460800)
I0428 20:17:08.538408   804 net.cpp:139] Memory required for data: 9416960
I0428 20:17:08.538414   804 layer_factory.hpp:77] Creating layer conv1
I0428 20:17:08.538432   804 net.cpp:86] Creating Layer conv1
I0428 20:17:08.538440   804 net.cpp:408] conv1 <- pool0
I0428 20:17:08.538450   804 net.cpp:382] conv1 -> conv1
I0428 20:17:08.541419   804 net.cpp:124] Setting up conv1
I0428 20:17:08.541436   804 net.cpp:131] Top shape: 64 10 8 8 (40960)
I0428 20:17:08.541443   804 net.cpp:139] Memory required for data: 9580800
I0428 20:17:08.541457   804 layer_factory.hpp:77] Creating layer pool1
I0428 20:17:08.541470   804 net.cpp:86] Creating Layer pool1
I0428 20:17:08.541476   804 net.cpp:408] pool1 <- conv1
I0428 20:17:08.541486   804 net.cpp:382] pool1 -> pool1
I0428 20:17:08.541534   804 net.cpp:124] Setting up pool1
I0428 20:17:08.541544   804 net.cpp:131] Top shape: 64 10 4 4 (10240)
I0428 20:17:08.541549   804 net.cpp:139] Memory required for data: 9621760
I0428 20:17:08.541555   804 layer_factory.hpp:77] Creating layer ip1
I0428 20:17:08.541566   804 net.cpp:86] Creating Layer ip1
I0428 20:17:08.541573   804 net.cpp:408] ip1 <- pool1
I0428 20:17:08.541582   804 net.cpp:382] ip1 -> ip1
I0428 20:17:08.541705   804 net.cpp:124] Setting up ip1
I0428 20:17:08.541715   804 net.cpp:131] Top shape: 64 10 (640)
I0428 20:17:08.541720   804 net.cpp:139] Memory required for data: 9624320
I0428 20:17:08.541733   804 layer_factory.hpp:77] Creating layer relu1
I0428 20:17:08.541746   804 net.cpp:86] Creating Layer relu1
I0428 20:17:08.541755   804 net.cpp:408] relu1 <- ip1
I0428 20:17:08.541764   804 net.cpp:369] relu1 -> ip1 (in-place)
I0428 20:17:08.541941   804 net.cpp:124] Setting up relu1
I0428 20:17:08.541952   804 net.cpp:131] Top shape: 64 10 (640)
I0428 20:17:08.541957   804 net.cpp:139] Memory required for data: 9626880
I0428 20:17:08.541963   804 layer_factory.hpp:77] Creating layer loss
I0428 20:17:08.541972   804 net.cpp:86] Creating Layer loss
I0428 20:17:08.541978   804 net.cpp:408] loss <- ip1
I0428 20:17:08.541985   804 net.cpp:408] loss <- label
I0428 20:17:08.541995   804 net.cpp:382] loss -> loss
I0428 20:17:08.542018   804 layer_factory.hpp:77] Creating layer loss
…
I0428 20:17:08.543246   804 solver.cpp:173] Creating test net (#0) specified by net file: ECE595/mnist/train_test/var_everything2/lenet_train_test1287.prototxt
I0428 20:17:08.543278   804 net.cpp:296] The NetState phase (1) differed from the phase (0) specified by a rule in layer mnist
I0428 20:17:08.543362   804 net.cpp:53] Initializing net from parameters: 
name: "LeNet"
state {
  phase: TEST
}
layer {
  name: "mnist"
  type: "Data"
  top: "data"
  top: "label"
  include {
    phase: TEST
  }
  transform_param {
    scale: 0.00390625
  }
  data_param {
    source: "examples/mnist/mnist_test_lmdb"
    batch_size: 100
    backend: LMDB
  }
}
layer {
  name: "conv0"
  type: "Convolution"
  bottom: "data"
  top: "conv0"
  param {
    lr_mult: 1
  }
  param {
    lr_mult: 2
  }
  convolution_param {
    num_output: 50
    kernel_size: 5
    stride: 1
    weight_filler {
      type: "xavier"
    }
    bias_filler {
      type: "constant"
    }
  }
}
layer {
  name: "pool0"
  type: "Pooling"
  bottom: "conv0"
  top: "pool0"
  pooling_param {
    pool: MAX
    kernel_size: 2
    stride: 2
  }
}
layer {
  name: "conv1"
  type: "Convolution"
  bottom: "pool0"
  top: "conv1"
  param {
    lr_mult: 1
  }
  param {
    lr_mult: 2
  }
  convolution_param {
    num_output: 10
    kernel_size: 5
    stride: 1
    weight_filler {
      type: "xavier"
    }
    bias_filler {
      type: "constant"
    }
  }
}
layer {
  name: "pool1"
  type: "Pooling"
  bottom: "conv1"
  top: "pool1"
  pooling_param {
    pool: MAX
    kernel_size: 2
    stride: 2
  }
}
layer {
  name: "ip1"
  type: "InnerProduct"
  bottom: "pool1"
  top: "ip1"
  param {
    lr_mult: 1
  }
  param {
    lr_mult: 2
  }
  inner_product_param {
    num_output: 10
    weight_filler {
      type: "xavier"
    }
    bias_filler {
      type: "constant"
    }
  }
}
layer {
  name: "relu1"
  type: "ReLU"
  bottom: "ip1"
  top: "ip1"
}
layer {
  name: "accuracy"
  type: "Accuracy"
  bottom: "ip1"
  bottom: "label"
  top: "accuracy"
  include {
    phase: TEST
  }
}
layer {
  name: "loss"
  type: "SoftmaxWithLoss"
  bottom: "ip1"
  bottom: "label"
  top: "loss"
}
I0428 20:17:08.543485   804 layer_factory.hpp:77] Creating layer mnist
I0428 20:17:08.543546   804 db_lmdb.cpp:35] Opened lmdb examples/mnist/mnist_test_lmdb
I0428 20:17:08.543568   804 net.cpp:86] Creating Layer mnist
I0428 20:17:08.543577   804 net.cpp:382] mnist -> data
I0428 20:17:08.543591   804 net.cpp:382] mnist -> label
I0428 20:17:08.543715   804 data_layer.cpp:45] output data size: 100,1,28,28
I0428 20:17:08.545771   804 net.cpp:124] Setting up mnist
I0428 20:17:08.545789   804 net.cpp:131] Top shape: 100 1 28 28 (78400)
I0428 20:17:08.545797   804 net.cpp:131] Top shape: 100 (100)
I0428 20:17:08.545819   804 net.cpp:139] Memory required for data: 314000
I0428 20:17:08.545825   804 layer_factory.hpp:77] Creating layer label_mnist_1_split
I0428 20:17:08.545840   804 net.cpp:86] Creating Layer label_mnist_1_split
I0428 20:17:08.545846   804 net.cpp:408] label_mnist_1_split <- label
I0428 20:17:08.545855   804 net.cpp:382] label_mnist_1_split -> label_mnist_1_split_0
I0428 20:17:08.545868   804 net.cpp:382] label_mnist_1_split -> label_mnist_1_split_1
I0428 20:17:08.545922   804 net.cpp:124] Setting up label_mnist_1_split
I0428 20:17:08.545933   804 net.cpp:131] Top shape: 100 (100)
I0428 20:17:08.545939   804 net.cpp:131] Top shape: 100 (100)
I0428 20:17:08.545945   804 net.cpp:139] Memory required for data: 314800
I0428 20:17:08.545964   804 layer_factory.hpp:77] Creating layer conv0
I0428 20:17:08.545979   804 net.cpp:86] Creating Layer conv0
I0428 20:17:08.545986   804 net.cpp:408] conv0 <- data
I0428 20:17:08.545995   804 net.cpp:382] conv0 -> conv0
I0428 20:17:08.546756   804 net.cpp:124] Setting up conv0
I0428 20:17:08.546771   804 net.cpp:131] Top shape: 100 50 24 24 (2880000)
I0428 20:17:08.546777   804 net.cpp:139] Memory required for data: 11834800
I0428 20:17:08.546792   804 layer_factory.hpp:77] Creating layer pool0
I0428 20:17:08.546802   804 net.cpp:86] Creating Layer pool0
I0428 20:17:08.546808   804 net.cpp:408] pool0 <- conv0
I0428 20:17:08.546816   804 net.cpp:382] pool0 -> pool0
I0428 20:17:08.546860   804 net.cpp:124] Setting up pool0
I0428 20:17:08.546869   804 net.cpp:131] Top shape: 100 50 12 12 (720000)
I0428 20:17:08.546875   804 net.cpp:139] Memory required for data: 14714800
I0428 20:17:08.546880   804 layer_factory.hpp:77] Creating layer conv1
I0428 20:17:08.546892   804 net.cpp:86] Creating Layer conv1
I0428 20:17:08.546900   804 net.cpp:408] conv1 <- pool0
I0428 20:17:08.546910   804 net.cpp:382] conv1 -> conv1
I0428 20:17:08.548558   804 net.cpp:124] Setting up conv1
I0428 20:17:08.548574   804 net.cpp:131] Top shape: 100 10 8 8 (64000)
I0428 20:17:08.548581   804 net.cpp:139] Memory required for data: 14970800
I0428 20:17:08.548595   804 layer_factory.hpp:77] Creating layer pool1
I0428 20:17:08.548605   804 net.cpp:86] Creating Layer pool1
I0428 20:17:08.548624   804 net.cpp:408] pool1 <- conv1
I0428 20:17:08.548633   804 net.cpp:382] pool1 -> pool1
I0428 20:17:08.548681   804 net.cpp:124] Setting up pool1
I0428 20:17:08.548691   804 net.cpp:131] Top shape: 100 10 4 4 (16000)
I0428 20:17:08.548696   804 net.cpp:139] Memory required for data: 15034800
I0428 20:17:08.548702   804 layer_factory.hpp:77] Creating layer ip1
I0428 20:17:08.548712   804 net.cpp:86] Creating Layer ip1
I0428 20:17:08.548717   804 net.cpp:408] ip1 <- pool1
I0428 20:17:08.548725   804 net.cpp:382] ip1 -> ip1
I0428 20:17:08.548848   804 net.cpp:124] Setting up ip1
I0428 20:17:08.548859   804 net.cpp:131] Top shape: 100 10 (1000)
I0428 20:17:08.548866   804 net.cpp:139] Memory required for data: 15038800
I0428 20:17:08.548879   804 layer_factory.hpp:77] Creating layer relu1
I0428 20:17:08.548888   804 net.cpp:86] Creating Layer relu1
I0428 20:17:08.548895   804 net.cpp:408] relu1 <- ip1
I0428 20:17:08.548903   804 net.cpp:369] relu1 -> ip1 (in-place)
I0428 20:17:08.549738   804 net.cpp:124] Setting up relu1
I0428 20:17:08.549752   804 net.cpp:131] Top shape: 100 10 (1000)
I0428 20:17:08.549758   804 net.cpp:139] Memory required for data: 15042800
I0428 20:17:08.549764   804 layer_factory.hpp:77] Creating layer ip1_relu1_0_split
I0428 20:17:08.549775   804 net.cpp:86] Creating Layer ip1_relu1_0_split
I0428 20:17:08.549782   804 net.cpp:408] ip1_relu1_0_split <- ip1
I0428 20:17:08.549790   804 net.cpp:382] ip1_relu1_0_split -> ip1_relu1_0_split_0
I0428 20:17:08.549801   804 net.cpp:382] ip1_relu1_0_split -> ip1_relu1_0_split_1
I0428 20:17:08.549845   804 net.cpp:124] Setting up ip1_relu1_0_split
I0428 20:17:08.549859   804 net.cpp:131] Top shape: 100 10 (1000)
I0428 20:17:08.549865   804 net.cpp:131] Top shape: 100 10 (1000)
I0428 20:17:08.549870   804 net.cpp:139] Memory required for data: 15050800
I0428 20:17:08.549876   804 layer_factory.hpp:77] Creating layer accuracy
I0428 20:17:08.549886   804 net.cpp:86] Creating Layer accuracy
I0428 20:17:08.549896   804 net.cpp:408] accuracy <- ip1_relu1_0_split_0
I0428 20:17:08.549903   804 net.cpp:408] accuracy <- label_mnist_1_split_0
I0428 20:17:08.549911   804 net.cpp:382] accuracy -> accuracy
…
