…
I0428 20:35:39.274201  4656 net.cpp:296] The NetState phase (0) differed from the phase (1) specified by a rule in layer mnist
I0428 20:35:39.274220  4656 net.cpp:296] The NetState phase (0) differed from the phase (1) specified by a rule in layer accuracy
I0428 20:35:39.274322  4656 net.cpp:53] Initializing net from parameters: 
name: "LeNet"
state {
  phase: TRAIN
  level: 0
  stage: ""
}
layer {
  name: "mnist"
  type: "Data"
  top: "data"
  top: "label"
  include {
    phase: TRAIN
  }
  transform_param {
    scale: 0.00390625
  }
  data_param {
    source: "examples/mnist/mnist_train_lmdb"
    batch_size: 64
    backend: LMDB
  }
}
layer {
  name: "conv0"
  type: "Convolution"
  bottom: "data"
  top: "conv0"
  param {
    lr_mult: 1
  }
  param {
    lr_mult: 2
  }
  convolution_param {
    num_output: 100
    kernel_size: 5
    stride: 1
    weight_filler {
      type: "xavier"
    }
    bias_filler {
      type: "constant"
    }
  }
}
layer {
  name: "pool0"
  type: "Pooling"
  bottom: "conv0"
  top: "pool0"
  pooling_param {
    pool: MAX
    kernel_size: 2
    stride: 2
  }
}
layer {
  name: "conv1"
  type: "Convolution"
  bottom: "pool0"
  top: "conv1"
  param {
    lr_mult: 1
  }
  param {
    lr_mult: 2
  }
  convolution_param {
    num_output: 50
    kernel_size: 5
    stride: 1
    weight_filler {
      type: "xavier"
    }
    bias_filler {
      type: "constant"
    }
  }
}
layer {
  name: "pool1"
  type: "Pooling"
  bottom: "conv1"
  top: "pool1"
  pooling_param {
    pool: MAX
    kernel_size: 2
    stride: 2
  }
}
layer {
  name: "ip1"
  type: "InnerProduct"
  bottom: "pool1"
  top: "ip1"
  param {
    lr_mult: 1
  }
  param {
    lr_mult: 2
  }
  inner_product_param {
    num_output: 25
    weight_filler {
      type: "xavier"
    }
    bias_filler {
      type: "constant"
    }
  }
}
layer {
  name: "relu1"
  type: "ReLU"
  bottom: "ip1"
  top: "ip1"
}
layer {
  name: "ip2"
  type: "InnerProduct"
  bottom: "ip1"
  top: "ip2"
  param {
    lr_mult: 1
  }
  param {
    lr_mult: 2
  }
  inner_product_param {
    num_output: 25
    weight_filler {
      type: "xavier"
    }
    bias_filler {
      type: "constant"
    }
  }
}
layer {
  name: "relu2"
  type: "ReLU"
  bottom: "ip2"
  top: "ip2"
}
layer {
  name: "ip3"
  type: "InnerProduct"
  bottom: "ip2"
  top: "ip3"
  param {
    lr_mult: 1
  }
  param {
    lr_mult: 2
  }
  inner_product_param {
    num_output: 10
    weight_filler {
      type: "xavier"
    }
    bias_filler {
      type: "constant"
    }
  }
}
layer {
  name: "relu3"
  type: "ReLU"
  bottom: "ip3"
  top: "ip3"
}
layer {
  name: "loss"
  type: "SoftmaxWithLoss"
  bottom: "ip3"
  bottom: "label"
  top: "loss"
}
I0428 20:35:39.274405  4656 layer_factory.hpp:77] Creating layer mnist
I0428 20:35:39.274504  4656 db_lmdb.cpp:35] Opened lmdb examples/mnist/mnist_train_lmdb
I0428 20:35:39.274528  4656 net.cpp:86] Creating Layer mnist
I0428 20:35:39.274535  4656 net.cpp:382] mnist -> data
I0428 20:35:39.274559  4656 net.cpp:382] mnist -> label
I0428 20:35:39.275642  4656 data_layer.cpp:45] output data size: 64,1,28,28
I0428 20:35:39.278112  4656 net.cpp:124] Setting up mnist
I0428 20:35:39.278131  4656 net.cpp:131] Top shape: 64 1 28 28 (50176)
I0428 20:35:39.278147  4656 net.cpp:131] Top shape: 64 (64)
I0428 20:35:39.278151  4656 net.cpp:139] Memory required for data: 200960
I0428 20:35:39.278158  4656 layer_factory.hpp:77] Creating layer conv0
I0428 20:35:39.278175  4656 net.cpp:86] Creating Layer conv0
I0428 20:35:39.278200  4656 net.cpp:408] conv0 <- data
I0428 20:35:39.278213  4656 net.cpp:382] conv0 -> conv0
I0428 20:35:39.551563  4656 net.cpp:124] Setting up conv0
I0428 20:35:39.551604  4656 net.cpp:131] Top shape: 64 100 24 24 (3686400)
I0428 20:35:39.551606  4656 net.cpp:139] Memory required for data: 14946560
I0428 20:35:39.551621  4656 layer_factory.hpp:77] Creating layer pool0
I0428 20:35:39.551633  4656 net.cpp:86] Creating Layer pool0
I0428 20:35:39.551637  4656 net.cpp:408] pool0 <- conv0
I0428 20:35:39.551642  4656 net.cpp:382] pool0 -> pool0
I0428 20:35:39.551707  4656 net.cpp:124] Setting up pool0
I0428 20:35:39.551712  4656 net.cpp:131] Top shape: 64 100 12 12 (921600)
I0428 20:35:39.551715  4656 net.cpp:139] Memory required for data: 18632960
I0428 20:35:39.551718  4656 layer_factory.hpp:77] Creating layer conv1
I0428 20:35:39.551729  4656 net.cpp:86] Creating Layer conv1
I0428 20:35:39.551733  4656 net.cpp:408] conv1 <- pool0
I0428 20:35:39.551738  4656 net.cpp:382] conv1 -> conv1
I0428 20:35:39.555367  4656 net.cpp:124] Setting up conv1
I0428 20:35:39.555397  4656 net.cpp:131] Top shape: 64 50 8 8 (204800)
I0428 20:35:39.555400  4656 net.cpp:139] Memory required for data: 19452160
I0428 20:35:39.555409  4656 layer_factory.hpp:77] Creating layer pool1
I0428 20:35:39.555416  4656 net.cpp:86] Creating Layer pool1
I0428 20:35:39.555420  4656 net.cpp:408] pool1 <- conv1
I0428 20:35:39.555425  4656 net.cpp:382] pool1 -> pool1
I0428 20:35:39.555479  4656 net.cpp:124] Setting up pool1
I0428 20:35:39.555483  4656 net.cpp:131] Top shape: 64 50 4 4 (51200)
I0428 20:35:39.555486  4656 net.cpp:139] Memory required for data: 19656960
I0428 20:35:39.555490  4656 layer_factory.hpp:77] Creating layer ip1
I0428 20:35:39.555496  4656 net.cpp:86] Creating Layer ip1
I0428 20:35:39.555500  4656 net.cpp:408] ip1 <- pool1
I0428 20:35:39.555505  4656 net.cpp:382] ip1 -> ip1
I0428 20:35:39.555748  4656 net.cpp:124] Setting up ip1
I0428 20:35:39.555757  4656 net.cpp:131] Top shape: 64 25 (1600)
I0428 20:35:39.555759  4656 net.cpp:139] Memory required for data: 19663360
I0428 20:35:39.555766  4656 layer_factory.hpp:77] Creating layer relu1
I0428 20:35:39.555773  4656 net.cpp:86] Creating Layer relu1
I0428 20:35:39.555783  4656 net.cpp:408] relu1 <- ip1
I0428 20:35:39.555788  4656 net.cpp:369] relu1 -> ip1 (in-place)
I0428 20:35:39.555975  4656 net.cpp:124] Setting up relu1
I0428 20:35:39.555984  4656 net.cpp:131] Top shape: 64 25 (1600)
I0428 20:35:39.555987  4656 net.cpp:139] Memory required for data: 19669760
I0428 20:35:39.555990  4656 layer_factory.hpp:77] Creating layer ip2
I0428 20:35:39.555996  4656 net.cpp:86] Creating Layer ip2
I0428 20:35:39.555999  4656 net.cpp:408] ip2 <- ip1
I0428 20:35:39.556005  4656 net.cpp:382] ip2 -> ip2
I0428 20:35:39.556095  4656 net.cpp:124] Setting up ip2
I0428 20:35:39.556102  4656 net.cpp:131] Top shape: 64 25 (1600)
I0428 20:35:39.556104  4656 net.cpp:139] Memory required for data: 19676160
I0428 20:35:39.556110  4656 layer_factory.hpp:77] Creating layer relu2
I0428 20:35:39.556115  4656 net.cpp:86] Creating Layer relu2
I0428 20:35:39.556118  4656 net.cpp:408] relu2 <- ip2
I0428 20:35:39.556123  4656 net.cpp:369] relu2 -> ip2 (in-place)
I0428 20:35:39.557008  4656 net.cpp:124] Setting up relu2
I0428 20:35:39.557021  4656 net.cpp:131] Top shape: 64 25 (1600)
I0428 20:35:39.557040  4656 net.cpp:139] Memory required for data: 19682560
I0428 20:35:39.557044  4656 layer_factory.hpp:77] Creating layer ip3
I0428 20:35:39.557051  4656 net.cpp:86] Creating Layer ip3
I0428 20:35:39.557054  4656 net.cpp:408] ip3 <- ip2
I0428 20:35:39.557060  4656 net.cpp:382] ip3 -> ip3
I0428 20:35:39.557162  4656 net.cpp:124] Setting up ip3
I0428 20:35:39.557169  4656 net.cpp:131] Top shape: 64 10 (640)
I0428 20:35:39.557173  4656 net.cpp:139] Memory required for data: 19685120
I0428 20:35:39.557191  4656 layer_factory.hpp:77] Creating layer relu3
I0428 20:35:39.557212  4656 net.cpp:86] Creating Layer relu3
I0428 20:35:39.557216  4656 net.cpp:408] relu3 <- ip3
I0428 20:35:39.557236  4656 net.cpp:369] relu3 -> ip3 (in-place)
I0428 20:35:39.557411  4656 net.cpp:124] Setting up relu3
I0428 20:35:39.557420  4656 net.cpp:131] Top shape: 64 10 (640)
I0428 20:35:39.557423  4656 net.cpp:139] Memory required for data: 19687680
I0428 20:35:39.557426  4656 layer_factory.hpp:77] Creating layer loss
I0428 20:35:39.557431  4656 net.cpp:86] Creating Layer loss
I0428 20:35:39.557435  4656 net.cpp:408] loss <- ip3
I0428 20:35:39.557440  4656 net.cpp:408] loss <- label
I0428 20:35:39.557446  4656 net.cpp:382] loss -> loss
I0428 20:35:39.557463  4656 layer_factory.hpp:77] Creating layer loss
…
I0428 20:35:39.558200  4656 solver.cpp:173] Creating test net (#0) specified by net file: ECE595/mnist/train_test/var_everything2/lenet_train_test1624.prototxt
I0428 20:35:39.558243  4656 net.cpp:296] The NetState phase (1) differed from the phase (0) specified by a rule in layer mnist
I0428 20:35:39.558359  4656 net.cpp:53] Initializing net from parameters: 
name: "LeNet"
state {
  phase: TEST
}
layer {
  name: "mnist"
  type: "Data"
  top: "data"
  top: "label"
  include {
    phase: TEST
  }
  transform_param {
    scale: 0.00390625
  }
  data_param {
    source: "examples/mnist/mnist_test_lmdb"
    batch_size: 100
    backend: LMDB
  }
}
layer {
  name: "conv0"
  type: "Convolution"
  bottom: "data"
  top: "conv0"
  param {
    lr_mult: 1
  }
  param {
    lr_mult: 2
  }
  convolution_param {
    num_output: 100
    kernel_size: 5
    stride: 1
    weight_filler {
      type: "xavier"
    }
    bias_filler {
      type: "constant"
    }
  }
}
layer {
  name: "pool0"
  type: "Pooling"
  bottom: "conv0"
  top: "pool0"
  pooling_param {
    pool: MAX
    kernel_size: 2
    stride: 2
  }
}
layer {
  name: "conv1"
  type: "Convolution"
  bottom: "pool0"
  top: "conv1"
  param {
    lr_mult: 1
  }
  param {
    lr_mult: 2
  }
  convolution_param {
    num_output: 50
    kernel_size: 5
    stride: 1
    weight_filler {
      type: "xavier"
    }
    bias_filler {
      type: "constant"
    }
  }
}
layer {
  name: "pool1"
  type: "Pooling"
  bottom: "conv1"
  top: "pool1"
  pooling_param {
    pool: MAX
    kernel_size: 2
    stride: 2
  }
}
layer {
  name: "ip1"
  type: "InnerProduct"
  bottom: "pool1"
  top: "ip1"
  param {
    lr_mult: 1
  }
  param {
    lr_mult: 2
  }
  inner_product_param {
    num_output: 25
    weight_filler {
      type: "xavier"
    }
    bias_filler {
      type: "constant"
    }
  }
}
layer {
  name: "relu1"
  type: "ReLU"
  bottom: "ip1"
  top: "ip1"
}
layer {
  name: "ip2"
  type: "InnerProduct"
  bottom: "ip1"
  top: "ip2"
  param {
    lr_mult: 1
  }
  param {
    lr_mult: 2
  }
  inner_product_param {
    num_output: 25
    weight_filler {
      type: "xavier"
    }
    bias_filler {
      type: "constant"
    }
  }
}
layer {
  name: "relu2"
  type: "ReLU"
  bottom: "ip2"
  top: "ip2"
}
layer {
  name: "ip3"
  type: "InnerProduct"
  bottom: "ip2"
  top: "ip3"
  param {
    lr_mult: 1
  }
  param {
    lr_mult: 2
  }
  inner_product_param {
    num_output: 10
    weight_filler {
      type: "xavier"
    }
    bias_filler {
      type: "constant"
    }
  }
}
layer {
  name: "relu3"
  type: "ReLU"
  bottom: "ip3"
  top: "ip3"
}
layer {
  name: "accuracy"
  type: "Accuracy"
  bottom: "ip3"
  bottom: "label"
  top: "accuracy"
  include {
    phase: TEST
  }
}
layer {
  name: "loss"
  type: "SoftmaxWithLoss"
  bottom: "ip3"
  bottom: "label"
  top: "loss"
}
I0428 20:35:39.558434  4656 layer_factory.hpp:77] Creating layer mnist
I0428 20:35:39.558475  4656 db_lmdb.cpp:35] Opened lmdb examples/mnist/mnist_test_lmdb
I0428 20:35:39.558487  4656 net.cpp:86] Creating Layer mnist
I0428 20:35:39.558491  4656 net.cpp:382] mnist -> data
I0428 20:35:39.558498  4656 net.cpp:382] mnist -> label
I0428 20:35:39.558578  4656 data_layer.cpp:45] output data size: 100,1,28,28
I0428 20:35:39.559942  4656 net.cpp:124] Setting up mnist
I0428 20:35:39.559985  4656 net.cpp:131] Top shape: 100 1 28 28 (78400)
I0428 20:35:39.559990  4656 net.cpp:131] Top shape: 100 (100)
I0428 20:35:39.560010  4656 net.cpp:139] Memory required for data: 314000
I0428 20:35:39.560014  4656 layer_factory.hpp:77] Creating layer label_mnist_1_split
I0428 20:35:39.560025  4656 net.cpp:86] Creating Layer label_mnist_1_split
I0428 20:35:39.560029  4656 net.cpp:408] label_mnist_1_split <- label
I0428 20:35:39.560034  4656 net.cpp:382] label_mnist_1_split -> label_mnist_1_split_0
I0428 20:35:39.560040  4656 net.cpp:382] label_mnist_1_split -> label_mnist_1_split_1
I0428 20:35:39.560112  4656 net.cpp:124] Setting up label_mnist_1_split
I0428 20:35:39.560120  4656 net.cpp:131] Top shape: 100 (100)
I0428 20:35:39.560124  4656 net.cpp:131] Top shape: 100 (100)
I0428 20:35:39.560132  4656 net.cpp:139] Memory required for data: 314800
I0428 20:35:39.560134  4656 layer_factory.hpp:77] Creating layer conv0
I0428 20:35:39.560143  4656 net.cpp:86] Creating Layer conv0
I0428 20:35:39.560147  4656 net.cpp:408] conv0 <- data
I0428 20:35:39.560153  4656 net.cpp:382] conv0 -> conv0
I0428 20:35:39.561764  4656 net.cpp:124] Setting up conv0
I0428 20:35:39.561794  4656 net.cpp:131] Top shape: 100 100 24 24 (5760000)
I0428 20:35:39.561797  4656 net.cpp:139] Memory required for data: 23354800
I0428 20:35:39.561806  4656 layer_factory.hpp:77] Creating layer pool0
I0428 20:35:39.561825  4656 net.cpp:86] Creating Layer pool0
I0428 20:35:39.561828  4656 net.cpp:408] pool0 <- conv0
I0428 20:35:39.561833  4656 net.cpp:382] pool0 -> pool0
I0428 20:35:39.561879  4656 net.cpp:124] Setting up pool0
I0428 20:35:39.561887  4656 net.cpp:131] Top shape: 100 100 12 12 (1440000)
I0428 20:35:39.561889  4656 net.cpp:139] Memory required for data: 29114800
I0428 20:35:39.561892  4656 layer_factory.hpp:77] Creating layer conv1
I0428 20:35:39.561902  4656 net.cpp:86] Creating Layer conv1
I0428 20:35:39.561905  4656 net.cpp:408] conv1 <- pool0
I0428 20:35:39.561910  4656 net.cpp:382] conv1 -> conv1
I0428 20:35:39.565074  4656 net.cpp:124] Setting up conv1
I0428 20:35:39.565104  4656 net.cpp:131] Top shape: 100 50 8 8 (320000)
I0428 20:35:39.565109  4656 net.cpp:139] Memory required for data: 30394800
I0428 20:35:39.565122  4656 layer_factory.hpp:77] Creating layer pool1
I0428 20:35:39.565150  4656 net.cpp:86] Creating Layer pool1
I0428 20:35:39.565155  4656 net.cpp:408] pool1 <- conv1
I0428 20:35:39.565176  4656 net.cpp:382] pool1 -> pool1
I0428 20:35:39.565213  4656 net.cpp:124] Setting up pool1
I0428 20:35:39.565220  4656 net.cpp:131] Top shape: 100 50 4 4 (80000)
I0428 20:35:39.565223  4656 net.cpp:139] Memory required for data: 30714800
I0428 20:35:39.565227  4656 layer_factory.hpp:77] Creating layer ip1
I0428 20:35:39.565234  4656 net.cpp:86] Creating Layer ip1
I0428 20:35:39.565237  4656 net.cpp:408] ip1 <- pool1
I0428 20:35:39.565243  4656 net.cpp:382] ip1 -> ip1
I0428 20:35:39.565506  4656 net.cpp:124] Setting up ip1
I0428 20:35:39.565541  4656 net.cpp:131] Top shape: 100 25 (2500)
I0428 20:35:39.565544  4656 net.cpp:139] Memory required for data: 30724800
I0428 20:35:39.565568  4656 layer_factory.hpp:77] Creating layer relu1
I0428 20:35:39.565590  4656 net.cpp:86] Creating Layer relu1
I0428 20:35:39.565594  4656 net.cpp:408] relu1 <- ip1
I0428 20:35:39.565598  4656 net.cpp:369] relu1 -> ip1 (in-place)
I0428 20:35:39.565788  4656 net.cpp:124] Setting up relu1
I0428 20:35:39.565798  4656 net.cpp:131] Top shape: 100 25 (2500)
I0428 20:35:39.565800  4656 net.cpp:139] Memory required for data: 30734800
I0428 20:35:39.565804  4656 layer_factory.hpp:77] Creating layer ip2
I0428 20:35:39.565811  4656 net.cpp:86] Creating Layer ip2
I0428 20:35:39.565814  4656 net.cpp:408] ip2 <- ip1
I0428 20:35:39.565820  4656 net.cpp:382] ip2 -> ip2
I0428 20:35:39.565917  4656 net.cpp:124] Setting up ip2
I0428 20:35:39.565924  4656 net.cpp:131] Top shape: 100 25 (2500)
I0428 20:35:39.565927  4656 net.cpp:139] Memory required for data: 30744800
I0428 20:35:39.565933  4656 layer_factory.hpp:77] Creating layer relu2
I0428 20:35:39.565946  4656 net.cpp:86] Creating Layer relu2
I0428 20:35:39.565949  4656 net.cpp:408] relu2 <- ip2
I0428 20:35:39.565954  4656 net.cpp:369] relu2 -> ip2 (in-place)
I0428 20:35:39.566148  4656 net.cpp:124] Setting up relu2
I0428 20:35:39.566156  4656 net.cpp:131] Top shape: 100 25 (2500)
I0428 20:35:39.566159  4656 net.cpp:139] Memory required for data: 30754800
I0428 20:35:39.566162  4656 layer_factory.hpp:77] Creating layer ip3
I0428 20:35:39.566167  4656 net.cpp:86] Creating Layer ip3
I0428 20:35:39.566171  4656 net.cpp:408] ip3 <- ip2
I0428 20:35:39.566175  4656 net.cpp:382] ip3 -> ip3
I0428 20:35:39.566305  4656 net.cpp:124] Setting up ip3
I0428 20:35:39.566313  4656 net.cpp:131] Top shape: 100 10 (1000)
I0428 20:35:39.566315  4656 net.cpp:139] Memory required for data: 30758800
I0428 20:35:39.566324  4656 layer_factory.hpp:77] Creating layer relu3
I0428 20:35:39.566329  4656 net.cpp:86] Creating Layer relu3
I0428 20:35:39.566332  4656 net.cpp:408] relu3 <- ip3
I0428 20:35:39.566344  4656 net.cpp:369] relu3 -> ip3 (in-place)
I0428 20:35:39.567137  4656 net.cpp:124] Setting up relu3
I0428 20:35:39.567147  4656 net.cpp:131] Top shape: 100 10 (1000)
I0428 20:35:39.567167  4656 net.cpp:139] Memory required for data: 30762800
I0428 20:35:39.567169  4656 layer_factory.hpp:77] Creating layer ip3_relu3_0_split
I0428 20:35:39.567176  4656 net.cpp:86] Creating Layer ip3_relu3_0_split
I0428 20:35:39.567179  4656 net.cpp:408] ip3_relu3_0_split <- ip3
I0428 20:35:39.567184  4656 net.cpp:382] ip3_relu3_0_split -> ip3_relu3_0_split_0
I0428 20:35:39.567190  4656 net.cpp:382] ip3_relu3_0_split -> ip3_relu3_0_split_1
I0428 20:35:39.567227  4656 net.cpp:124] Setting up ip3_relu3_0_split
I0428 20:35:39.567234  4656 net.cpp:131] Top shape: 100 10 (1000)
I0428 20:35:39.567237  4656 net.cpp:131] Top shape: 100 10 (1000)
I0428 20:35:39.567239  4656 net.cpp:139] Memory required for data: 30770800
I0428 20:35:39.567242  4656 layer_factory.hpp:77] Creating layer accuracy
I0428 20:35:39.567247  4656 net.cpp:86] Creating Layer accuracy
I0428 20:35:39.567251  4656 net.cpp:408] accuracy <- ip3_relu3_0_split_0
I0428 20:35:39.567255  4656 net.cpp:408] accuracy <- label_mnist_1_split_0
I0428 20:35:39.567260  4656 net.cpp:382] accuracy -> accuracy
…
