…
I0428 19:41:21.711036 24804 net.cpp:296] The NetState phase (0) differed from the phase (1) specified by a rule in layer mnist
I0428 19:41:21.711053 24804 net.cpp:296] The NetState phase (0) differed from the phase (1) specified by a rule in layer accuracy
I0428 19:41:21.711129 24804 net.cpp:53] Initializing net from parameters: 
name: "LeNet"
state {
  phase: TRAIN
  level: 0
  stage: ""
}
layer {
  name: "mnist"
  type: "Data"
  top: "data"
  top: "label"
  include {
    phase: TRAIN
  }
  transform_param {
    scale: 0.00390625
  }
  data_param {
    source: "examples/mnist/mnist_train_lmdb"
    batch_size: 64
    backend: LMDB
  }
}
layer {
  name: "conv0"
  type: "Convolution"
  bottom: "data"
  top: "conv0"
  param {
    lr_mult: 1
  }
  param {
    lr_mult: 2
  }
  convolution_param {
    num_output: 2
    kernel_size: 5
    stride: 1
    weight_filler {
      type: "xavier"
    }
    bias_filler {
      type: "constant"
    }
  }
}
layer {
  name: "pool0"
  type: "Pooling"
  bottom: "conv0"
  top: "pool0"
  pooling_param {
    pool: MAX
    kernel_size: 2
    stride: 2
  }
}
layer {
  name: "conv1"
  type: "Convolution"
  bottom: "pool0"
  top: "conv1"
  param {
    lr_mult: 1
  }
  param {
    lr_mult: 2
  }
  convolution_param {
    num_output: 10
    kernel_size: 5
    stride: 1
    weight_filler {
      type: "xavier"
    }
    bias_filler {
      type: "constant"
    }
  }
}
layer {
  name: "pool1"
  type: "Pooling"
  bottom: "conv1"
  top: "pool1"
  pooling_param {
    pool: MAX
    kernel_size: 2
    stride: 2
  }
}
layer {
  name: "ip1"
  type: "InnerProduct"
  bottom: "pool1"
  top: "ip1"
  param {
    lr_mult: 1
  }
  param {
    lr_mult: 2
  }
  inner_product_param {
    num_output: 50
    weight_filler {
      type: "xavier"
    }
    bias_filler {
      type: "constant"
    }
  }
}
layer {
  name: "relu1"
  type: "ReLU"
  bottom: "ip1"
  top: "ip1"
}
layer {
  name: "ip2"
  type: "InnerProduct"
  bottom: "ip1"
  top: "ip2"
  param {
    lr_mult: 1
  }
  param {
    lr_mult: 2
  }
  inner_product_param {
    num_output: 10
    weight_filler {
      type: "xavier"
    }
    bias_filler {
      type: "constant"
    }
  }
}
layer {
  name: "relu2"
  type: "ReLU"
  bottom: "ip2"
  top: "ip2"
}
layer {
  name: "loss"
  type: "SoftmaxWithLoss"
  bottom: "ip2"
  bottom: "label"
  top: "loss"
}
I0428 19:41:21.711210 24804 layer_factory.hpp:77] Creating layer mnist
I0428 19:41:21.711313 24804 db_lmdb.cpp:35] Opened lmdb examples/mnist/mnist_train_lmdb
I0428 19:41:21.711340 24804 net.cpp:86] Creating Layer mnist
I0428 19:41:21.711350 24804 net.cpp:382] mnist -> data
I0428 19:41:21.711375 24804 net.cpp:382] mnist -> label
I0428 19:41:21.712417 24804 data_layer.cpp:45] output data size: 64,1,28,28
I0428 19:41:21.714634 24804 net.cpp:124] Setting up mnist
I0428 19:41:21.714668 24804 net.cpp:131] Top shape: 64 1 28 28 (50176)
I0428 19:41:21.714690 24804 net.cpp:131] Top shape: 64 (64)
I0428 19:41:21.714695 24804 net.cpp:139] Memory required for data: 200960
I0428 19:41:21.714704 24804 layer_factory.hpp:77] Creating layer conv0
I0428 19:41:21.714725 24804 net.cpp:86] Creating Layer conv0
I0428 19:41:21.714735 24804 net.cpp:408] conv0 <- data
I0428 19:41:21.714750 24804 net.cpp:382] conv0 -> conv0
I0428 19:41:21.947897 24804 net.cpp:124] Setting up conv0
I0428 19:41:21.947926 24804 net.cpp:131] Top shape: 64 2 24 24 (73728)
I0428 19:41:21.947931 24804 net.cpp:139] Memory required for data: 495872
I0428 19:41:21.947989 24804 layer_factory.hpp:77] Creating layer pool0
I0428 19:41:21.948009 24804 net.cpp:86] Creating Layer pool0
I0428 19:41:21.948015 24804 net.cpp:408] pool0 <- conv0
I0428 19:41:21.948024 24804 net.cpp:382] pool0 -> pool0
I0428 19:41:21.948074 24804 net.cpp:124] Setting up pool0
I0428 19:41:21.948083 24804 net.cpp:131] Top shape: 64 2 12 12 (18432)
I0428 19:41:21.948088 24804 net.cpp:139] Memory required for data: 569600
I0428 19:41:21.948093 24804 layer_factory.hpp:77] Creating layer conv1
I0428 19:41:21.948108 24804 net.cpp:86] Creating Layer conv1
I0428 19:41:21.948115 24804 net.cpp:408] conv1 <- pool0
I0428 19:41:21.948123 24804 net.cpp:382] conv1 -> conv1
I0428 19:41:21.950012 24804 net.cpp:124] Setting up conv1
I0428 19:41:21.950042 24804 net.cpp:131] Top shape: 64 10 8 8 (40960)
I0428 19:41:21.950048 24804 net.cpp:139] Memory required for data: 733440
I0428 19:41:21.950062 24804 layer_factory.hpp:77] Creating layer pool1
I0428 19:41:21.950073 24804 net.cpp:86] Creating Layer pool1
I0428 19:41:21.950079 24804 net.cpp:408] pool1 <- conv1
I0428 19:41:21.950088 24804 net.cpp:382] pool1 -> pool1
I0428 19:41:21.950134 24804 net.cpp:124] Setting up pool1
I0428 19:41:21.950143 24804 net.cpp:131] Top shape: 64 10 4 4 (10240)
I0428 19:41:21.950148 24804 net.cpp:139] Memory required for data: 774400
I0428 19:41:21.950153 24804 layer_factory.hpp:77] Creating layer ip1
I0428 19:41:21.950165 24804 net.cpp:86] Creating Layer ip1
I0428 19:41:21.950170 24804 net.cpp:408] ip1 <- pool1
I0428 19:41:21.950179 24804 net.cpp:382] ip1 -> ip1
I0428 19:41:21.951256 24804 net.cpp:124] Setting up ip1
I0428 19:41:21.951270 24804 net.cpp:131] Top shape: 64 50 (3200)
I0428 19:41:21.951277 24804 net.cpp:139] Memory required for data: 787200
I0428 19:41:21.951290 24804 layer_factory.hpp:77] Creating layer relu1
I0428 19:41:21.951302 24804 net.cpp:86] Creating Layer relu1
I0428 19:41:21.951311 24804 net.cpp:408] relu1 <- ip1
I0428 19:41:21.951320 24804 net.cpp:369] relu1 -> ip1 (in-place)
I0428 19:41:21.951510 24804 net.cpp:124] Setting up relu1
I0428 19:41:21.951522 24804 net.cpp:131] Top shape: 64 50 (3200)
I0428 19:41:21.951527 24804 net.cpp:139] Memory required for data: 800000
I0428 19:41:21.951532 24804 layer_factory.hpp:77] Creating layer ip2
I0428 19:41:21.951542 24804 net.cpp:86] Creating Layer ip2
I0428 19:41:21.951548 24804 net.cpp:408] ip2 <- ip1
I0428 19:41:21.951557 24804 net.cpp:382] ip2 -> ip2
I0428 19:41:21.951661 24804 net.cpp:124] Setting up ip2
I0428 19:41:21.951670 24804 net.cpp:131] Top shape: 64 10 (640)
I0428 19:41:21.951675 24804 net.cpp:139] Memory required for data: 802560
I0428 19:41:21.951684 24804 layer_factory.hpp:77] Creating layer relu2
I0428 19:41:21.951709 24804 net.cpp:86] Creating Layer relu2
I0428 19:41:21.951719 24804 net.cpp:408] relu2 <- ip2
I0428 19:41:21.951725 24804 net.cpp:369] relu2 -> ip2 (in-place)
I0428 19:41:21.952479 24804 net.cpp:124] Setting up relu2
I0428 19:41:21.952493 24804 net.cpp:131] Top shape: 64 10 (640)
I0428 19:41:21.952500 24804 net.cpp:139] Memory required for data: 805120
I0428 19:41:21.952507 24804 layer_factory.hpp:77] Creating layer loss
I0428 19:41:21.952515 24804 net.cpp:86] Creating Layer loss
I0428 19:41:21.952522 24804 net.cpp:408] loss <- ip2
I0428 19:41:21.952528 24804 net.cpp:408] loss <- label
I0428 19:41:21.952538 24804 net.cpp:382] loss -> loss
I0428 19:41:21.952576 24804 layer_factory.hpp:77] Creating layer loss
…
I0428 19:41:21.953343 24804 solver.cpp:173] Creating test net (#0) specified by net file: ECE595/mnist/train_test/var_everything2/lenet_train_test362.prototxt
I0428 19:41:21.953374 24804 net.cpp:296] The NetState phase (1) differed from the phase (0) specified by a rule in layer mnist
I0428 19:41:21.953459 24804 net.cpp:53] Initializing net from parameters: 
name: "LeNet"
state {
  phase: TEST
}
layer {
  name: "mnist"
  type: "Data"
  top: "data"
  top: "label"
  include {
    phase: TEST
  }
  transform_param {
    scale: 0.00390625
  }
  data_param {
    source: "examples/mnist/mnist_test_lmdb"
    batch_size: 100
    backend: LMDB
  }
}
layer {
  name: "conv0"
  type: "Convolution"
  bottom: "data"
  top: "conv0"
  param {
    lr_mult: 1
  }
  param {
    lr_mult: 2
  }
  convolution_param {
    num_output: 2
    kernel_size: 5
    stride: 1
    weight_filler {
      type: "xavier"
    }
    bias_filler {
      type: "constant"
    }
  }
}
layer {
  name: "pool0"
  type: "Pooling"
  bottom: "conv0"
  top: "pool0"
  pooling_param {
    pool: MAX
    kernel_size: 2
    stride: 2
  }
}
layer {
  name: "conv1"
  type: "Convolution"
  bottom: "pool0"
  top: "conv1"
  param {
    lr_mult: 1
  }
  param {
    lr_mult: 2
  }
  convolution_param {
    num_output: 10
    kernel_size: 5
    stride: 1
    weight_filler {
      type: "xavier"
    }
    bias_filler {
      type: "constant"
    }
  }
}
layer {
  name: "pool1"
  type: "Pooling"
  bottom: "conv1"
  top: "pool1"
  pooling_param {
    pool: MAX
    kernel_size: 2
    stride: 2
  }
}
layer {
  name: "ip1"
  type: "InnerProduct"
  bottom: "pool1"
  top: "ip1"
  param {
    lr_mult: 1
  }
  param {
    lr_mult: 2
  }
  inner_product_param {
    num_output: 50
    weight_filler {
      type: "xavier"
    }
    bias_filler {
      type: "constant"
    }
  }
}
layer {
  name: "relu1"
  type: "ReLU"
  bottom: "ip1"
  top: "ip1"
}
layer {
  name: "ip2"
  type: "InnerProduct"
  bottom: "ip1"
  top: "ip2"
  param {
    lr_mult: 1
  }
  param {
    lr_mult: 2
  }
  inner_product_param {
    num_output: 10
    weight_filler {
      type: "xavier"
    }
    bias_filler {
      type: "constant"
    }
  }
}
layer {
  name: "relu2"
  type: "ReLU"
  bottom: "ip2"
  top: "ip2"
}
layer {
  name: "accuracy"
  type: "Accuracy"
  bottom: "ip2"
  bottom: "label"
  top: "accuracy"
  include {
    phase: TEST
  }
}
layer {
  name: "loss"
  type: "SoftmaxWithLoss"
  bottom: "ip2"
  bottom: "label"
  top: "loss"
}
I0428 19:41:21.953550 24804 layer_factory.hpp:77] Creating layer mnist
I0428 19:41:21.953608 24804 db_lmdb.cpp:35] Opened lmdb examples/mnist/mnist_test_lmdb
I0428 19:41:21.953639 24804 net.cpp:86] Creating Layer mnist
I0428 19:41:21.953645 24804 net.cpp:382] mnist -> data
I0428 19:41:21.953657 24804 net.cpp:382] mnist -> label
I0428 19:41:21.953774 24804 data_layer.cpp:45] output data size: 100,1,28,28
I0428 19:41:21.955862 24804 net.cpp:124] Setting up mnist
I0428 19:41:21.955875 24804 net.cpp:131] Top shape: 100 1 28 28 (78400)
I0428 19:41:21.955883 24804 net.cpp:131] Top shape: 100 (100)
I0428 19:41:21.955888 24804 net.cpp:139] Memory required for data: 314000
I0428 19:41:21.955893 24804 layer_factory.hpp:77] Creating layer label_mnist_1_split
I0428 19:41:21.955901 24804 net.cpp:86] Creating Layer label_mnist_1_split
I0428 19:41:21.955922 24804 net.cpp:408] label_mnist_1_split <- label
I0428 19:41:21.955930 24804 net.cpp:382] label_mnist_1_split -> label_mnist_1_split_0
I0428 19:41:21.955940 24804 net.cpp:382] label_mnist_1_split -> label_mnist_1_split_1
I0428 19:41:21.956039 24804 net.cpp:124] Setting up label_mnist_1_split
I0428 19:41:21.956056 24804 net.cpp:131] Top shape: 100 (100)
I0428 19:41:21.956063 24804 net.cpp:131] Top shape: 100 (100)
I0428 19:41:21.956069 24804 net.cpp:139] Memory required for data: 314800
I0428 19:41:21.956074 24804 layer_factory.hpp:77] Creating layer conv0
I0428 19:41:21.956089 24804 net.cpp:86] Creating Layer conv0
I0428 19:41:21.956094 24804 net.cpp:408] conv0 <- data
I0428 19:41:21.956104 24804 net.cpp:382] conv0 -> conv0
I0428 19:41:21.957729 24804 net.cpp:124] Setting up conv0
I0428 19:41:21.957746 24804 net.cpp:131] Top shape: 100 2 24 24 (115200)
I0428 19:41:21.957751 24804 net.cpp:139] Memory required for data: 775600
I0428 19:41:21.957765 24804 layer_factory.hpp:77] Creating layer pool0
I0428 19:41:21.957774 24804 net.cpp:86] Creating Layer pool0
I0428 19:41:21.957783 24804 net.cpp:408] pool0 <- conv0
I0428 19:41:21.957792 24804 net.cpp:382] pool0 -> pool0
I0428 19:41:21.957830 24804 net.cpp:124] Setting up pool0
I0428 19:41:21.957839 24804 net.cpp:131] Top shape: 100 2 12 12 (28800)
I0428 19:41:21.957844 24804 net.cpp:139] Memory required for data: 890800
I0428 19:41:21.957849 24804 layer_factory.hpp:77] Creating layer conv1
I0428 19:41:21.957861 24804 net.cpp:86] Creating Layer conv1
I0428 19:41:21.957867 24804 net.cpp:408] conv1 <- pool0
I0428 19:41:21.957876 24804 net.cpp:382] conv1 -> conv1
I0428 19:41:21.959302 24804 net.cpp:124] Setting up conv1
I0428 19:41:21.959317 24804 net.cpp:131] Top shape: 100 10 8 8 (64000)
I0428 19:41:21.959323 24804 net.cpp:139] Memory required for data: 1146800
I0428 19:41:21.959337 24804 layer_factory.hpp:77] Creating layer pool1
I0428 19:41:21.959347 24804 net.cpp:86] Creating Layer pool1
I0428 19:41:21.959354 24804 net.cpp:408] pool1 <- conv1
I0428 19:41:21.959362 24804 net.cpp:382] pool1 -> pool1
I0428 19:41:21.959404 24804 net.cpp:124] Setting up pool1
I0428 19:41:21.959414 24804 net.cpp:131] Top shape: 100 10 4 4 (16000)
I0428 19:41:21.959419 24804 net.cpp:139] Memory required for data: 1210800
I0428 19:41:21.959424 24804 layer_factory.hpp:77] Creating layer ip1
I0428 19:41:21.959434 24804 net.cpp:86] Creating Layer ip1
I0428 19:41:21.959439 24804 net.cpp:408] ip1 <- pool1
I0428 19:41:21.959448 24804 net.cpp:382] ip1 -> ip1
I0428 19:41:21.959609 24804 net.cpp:124] Setting up ip1
I0428 19:41:21.959632 24804 net.cpp:131] Top shape: 100 50 (5000)
I0428 19:41:21.959637 24804 net.cpp:139] Memory required for data: 1230800
I0428 19:41:21.959650 24804 layer_factory.hpp:77] Creating layer relu1
I0428 19:41:21.959657 24804 net.cpp:86] Creating Layer relu1
I0428 19:41:21.959666 24804 net.cpp:408] relu1 <- ip1
I0428 19:41:21.959674 24804 net.cpp:369] relu1 -> ip1 (in-place)
I0428 19:41:21.959825 24804 net.cpp:124] Setting up relu1
I0428 19:41:21.959834 24804 net.cpp:131] Top shape: 100 50 (5000)
I0428 19:41:21.959839 24804 net.cpp:139] Memory required for data: 1250800
I0428 19:41:21.959844 24804 layer_factory.hpp:77] Creating layer ip2
I0428 19:41:21.959856 24804 net.cpp:86] Creating Layer ip2
I0428 19:41:21.959861 24804 net.cpp:408] ip2 <- ip1
I0428 19:41:21.959869 24804 net.cpp:382] ip2 -> ip2
I0428 19:41:21.959983 24804 net.cpp:124] Setting up ip2
I0428 19:41:21.959992 24804 net.cpp:131] Top shape: 100 10 (1000)
I0428 19:41:21.959998 24804 net.cpp:139] Memory required for data: 1254800
I0428 19:41:21.960007 24804 layer_factory.hpp:77] Creating layer relu2
I0428 19:41:21.960014 24804 net.cpp:86] Creating Layer relu2
I0428 19:41:21.960021 24804 net.cpp:408] relu2 <- ip2
I0428 19:41:21.960027 24804 net.cpp:369] relu2 -> ip2 (in-place)
I0428 19:41:21.960192 24804 net.cpp:124] Setting up relu2
I0428 19:41:21.960202 24804 net.cpp:131] Top shape: 100 10 (1000)
I0428 19:41:21.960207 24804 net.cpp:139] Memory required for data: 1258800
I0428 19:41:21.960212 24804 layer_factory.hpp:77] Creating layer ip2_relu2_0_split
I0428 19:41:21.960219 24804 net.cpp:86] Creating Layer ip2_relu2_0_split
I0428 19:41:21.960225 24804 net.cpp:408] ip2_relu2_0_split <- ip2
I0428 19:41:21.960234 24804 net.cpp:382] ip2_relu2_0_split -> ip2_relu2_0_split_0
I0428 19:41:21.960255 24804 net.cpp:382] ip2_relu2_0_split -> ip2_relu2_0_split_1
I0428 19:41:21.960330 24804 net.cpp:124] Setting up ip2_relu2_0_split
I0428 19:41:21.960338 24804 net.cpp:131] Top shape: 100 10 (1000)
I0428 19:41:21.960345 24804 net.cpp:131] Top shape: 100 10 (1000)
I0428 19:41:21.960350 24804 net.cpp:139] Memory required for data: 1266800
I0428 19:41:21.960356 24804 layer_factory.hpp:77] Creating layer accuracy
I0428 19:41:21.960364 24804 net.cpp:86] Creating Layer accuracy
I0428 19:41:21.960369 24804 net.cpp:408] accuracy <- ip2_relu2_0_split_0
I0428 19:41:21.960377 24804 net.cpp:408] accuracy <- label_mnist_1_split_0
I0428 19:41:21.960386 24804 net.cpp:382] accuracy -> accuracy
…
