…
I0428 20:09:54.626579 31726 net.cpp:296] The NetState phase (0) differed from the phase (1) specified by a rule in layer mnist
I0428 20:09:54.626618 31726 net.cpp:296] The NetState phase (0) differed from the phase (1) specified by a rule in layer accuracy
I0428 20:09:54.626801 31726 net.cpp:53] Initializing net from parameters: 
name: "LeNet"
state {
  phase: TRAIN
  level: 0
  stage: ""
}
layer {
  name: "mnist"
  type: "Data"
  top: "data"
  top: "label"
  include {
    phase: TRAIN
  }
  transform_param {
    scale: 0.00390625
  }
  data_param {
    source: "examples/mnist/mnist_train_lmdb"
    batch_size: 64
    backend: LMDB
  }
}
layer {
  name: "conv0"
  type: "Convolution"
  bottom: "data"
  top: "conv0"
  param {
    lr_mult: 1
  }
  param {
    lr_mult: 2
  }
  convolution_param {
    num_output: 25
    kernel_size: 5
    stride: 1
    weight_filler {
      type: "xavier"
    }
    bias_filler {
      type: "constant"
    }
  }
}
layer {
  name: "pool0"
  type: "Pooling"
  bottom: "conv0"
  top: "pool0"
  pooling_param {
    pool: MAX
    kernel_size: 2
    stride: 2
  }
}
layer {
  name: "conv1"
  type: "Convolution"
  bottom: "pool0"
  top: "conv1"
  param {
    lr_mult: 1
  }
  param {
    lr_mult: 2
  }
  convolution_param {
    num_output: 25
    kernel_size: 5
    stride: 1
    weight_filler {
      type: "xavier"
    }
    bias_filler {
      type: "constant"
    }
  }
}
layer {
  name: "pool1"
  type: "Pooling"
  bottom: "conv1"
  top: "pool1"
  pooling_param {
    pool: MAX
    kernel_size: 2
    stride: 2
  }
}
layer {
  name: "ip1"
  type: "InnerProduct"
  bottom: "pool1"
  top: "ip1"
  param {
    lr_mult: 1
  }
  param {
    lr_mult: 2
  }
  inner_product_param {
    num_output: 25
    weight_filler {
      type: "xavier"
    }
    bias_filler {
      type: "constant"
    }
  }
}
layer {
  name: "relu1"
  type: "ReLU"
  bottom: "ip1"
  top: "ip1"
}
layer {
  name: "ip2"
  type: "InnerProduct"
  bottom: "ip1"
  top: "ip2"
  param {
    lr_mult: 1
  }
  param {
    lr_mult: 2
  }
  inner_product_param {
    num_output: 50
    weight_filler {
      type: "xavier"
    }
    bias_filler {
      type: "constant"
    }
  }
}
layer {
  name: "relu2"
  type: "ReLU"
  bottom: "ip2"
  top: "ip2"
}
layer {
  name: "ip3"
  type: "InnerProduct"
  bottom: "ip2"
  top: "ip3"
  param {
    lr_mult: 1
  }
  param {
    lr_mult: 2
  }
  inner_product_param {
    num_output: 10
    weight_filler {
      type: "xavier"
    }
    bias_filler {
      type: "constant"
    }
  }
}
layer {
  name: "relu3"
  type: "ReLU"
  bottom: "ip3"
  top: "ip3"
}
layer {
  name: "loss"
  type: "SoftmaxWithLoss"
  bottom: "ip3"
  bottom: "label"
  top: "loss"
}
I0428 20:09:54.626919 31726 layer_factory.hpp:77] Creating layer mnist
I0428 20:09:54.627081 31726 db_lmdb.cpp:35] Opened lmdb examples/mnist/mnist_train_lmdb
I0428 20:09:54.627115 31726 net.cpp:86] Creating Layer mnist
I0428 20:09:54.627132 31726 net.cpp:382] mnist -> data
I0428 20:09:54.627164 31726 net.cpp:382] mnist -> label
I0428 20:09:54.628794 31726 data_layer.cpp:45] output data size: 64,1,28,28
I0428 20:09:54.632640 31726 net.cpp:124] Setting up mnist
I0428 20:09:54.632681 31726 net.cpp:131] Top shape: 64 1 28 28 (50176)
I0428 20:09:54.632694 31726 net.cpp:131] Top shape: 64 (64)
I0428 20:09:54.632701 31726 net.cpp:139] Memory required for data: 200960
I0428 20:09:54.632714 31726 layer_factory.hpp:77] Creating layer conv0
I0428 20:09:54.632738 31726 net.cpp:86] Creating Layer conv0
I0428 20:09:54.632781 31726 net.cpp:408] conv0 <- data
I0428 20:09:54.632804 31726 net.cpp:382] conv0 -> conv0
I0428 20:09:54.922554 31726 net.cpp:124] Setting up conv0
I0428 20:09:54.922596 31726 net.cpp:131] Top shape: 64 25 24 24 (921600)
I0428 20:09:54.922600 31726 net.cpp:139] Memory required for data: 3887360
I0428 20:09:54.922616 31726 layer_factory.hpp:77] Creating layer pool0
I0428 20:09:54.922644 31726 net.cpp:86] Creating Layer pool0
I0428 20:09:54.922648 31726 net.cpp:408] pool0 <- conv0
I0428 20:09:54.922653 31726 net.cpp:382] pool0 -> pool0
I0428 20:09:54.922698 31726 net.cpp:124] Setting up pool0
I0428 20:09:54.922705 31726 net.cpp:131] Top shape: 64 25 12 12 (230400)
I0428 20:09:54.922708 31726 net.cpp:139] Memory required for data: 4808960
I0428 20:09:54.922711 31726 layer_factory.hpp:77] Creating layer conv1
I0428 20:09:54.922721 31726 net.cpp:86] Creating Layer conv1
I0428 20:09:54.922725 31726 net.cpp:408] conv1 <- pool0
I0428 20:09:54.922730 31726 net.cpp:382] conv1 -> conv1
I0428 20:09:54.925562 31726 net.cpp:124] Setting up conv1
I0428 20:09:54.925593 31726 net.cpp:131] Top shape: 64 25 8 8 (102400)
I0428 20:09:54.925597 31726 net.cpp:139] Memory required for data: 5218560
I0428 20:09:54.925621 31726 layer_factory.hpp:77] Creating layer pool1
I0428 20:09:54.925643 31726 net.cpp:86] Creating Layer pool1
I0428 20:09:54.925647 31726 net.cpp:408] pool1 <- conv1
I0428 20:09:54.925652 31726 net.cpp:382] pool1 -> pool1
I0428 20:09:54.925688 31726 net.cpp:124] Setting up pool1
I0428 20:09:54.925694 31726 net.cpp:131] Top shape: 64 25 4 4 (25600)
I0428 20:09:54.925696 31726 net.cpp:139] Memory required for data: 5320960
I0428 20:09:54.925699 31726 layer_factory.hpp:77] Creating layer ip1
I0428 20:09:54.925706 31726 net.cpp:86] Creating Layer ip1
I0428 20:09:54.925709 31726 net.cpp:408] ip1 <- pool1
I0428 20:09:54.925714 31726 net.cpp:382] ip1 -> ip1
I0428 20:09:54.925854 31726 net.cpp:124] Setting up ip1
I0428 20:09:54.925861 31726 net.cpp:131] Top shape: 64 25 (1600)
I0428 20:09:54.925864 31726 net.cpp:139] Memory required for data: 5327360
I0428 20:09:54.925871 31726 layer_factory.hpp:77] Creating layer relu1
I0428 20:09:54.925876 31726 net.cpp:86] Creating Layer relu1
I0428 20:09:54.925879 31726 net.cpp:408] relu1 <- ip1
I0428 20:09:54.925884 31726 net.cpp:369] relu1 -> ip1 (in-place)
I0428 20:09:54.926057 31726 net.cpp:124] Setting up relu1
I0428 20:09:54.926066 31726 net.cpp:131] Top shape: 64 25 (1600)
I0428 20:09:54.926069 31726 net.cpp:139] Memory required for data: 5333760
I0428 20:09:54.926072 31726 layer_factory.hpp:77] Creating layer ip2
I0428 20:09:54.926079 31726 net.cpp:86] Creating Layer ip2
I0428 20:09:54.926081 31726 net.cpp:408] ip2 <- ip1
I0428 20:09:54.926086 31726 net.cpp:382] ip2 -> ip2
I0428 20:09:54.927037 31726 net.cpp:124] Setting up ip2
I0428 20:09:54.927049 31726 net.cpp:131] Top shape: 64 50 (3200)
I0428 20:09:54.927069 31726 net.cpp:139] Memory required for data: 5346560
I0428 20:09:54.927075 31726 layer_factory.hpp:77] Creating layer relu2
I0428 20:09:54.927083 31726 net.cpp:86] Creating Layer relu2
I0428 20:09:54.927085 31726 net.cpp:408] relu2 <- ip2
I0428 20:09:54.927090 31726 net.cpp:369] relu2 -> ip2 (in-place)
I0428 20:09:54.927863 31726 net.cpp:124] Setting up relu2
I0428 20:09:54.927875 31726 net.cpp:131] Top shape: 64 50 (3200)
I0428 20:09:54.927896 31726 net.cpp:139] Memory required for data: 5359360
I0428 20:09:54.927899 31726 layer_factory.hpp:77] Creating layer ip3
I0428 20:09:54.927906 31726 net.cpp:86] Creating Layer ip3
I0428 20:09:54.927911 31726 net.cpp:408] ip3 <- ip2
I0428 20:09:54.927916 31726 net.cpp:382] ip3 -> ip3
I0428 20:09:54.928015 31726 net.cpp:124] Setting up ip3
I0428 20:09:54.928022 31726 net.cpp:131] Top shape: 64 10 (640)
I0428 20:09:54.928025 31726 net.cpp:139] Memory required for data: 5361920
I0428 20:09:54.928033 31726 layer_factory.hpp:77] Creating layer relu3
I0428 20:09:54.928038 31726 net.cpp:86] Creating Layer relu3
I0428 20:09:54.928041 31726 net.cpp:408] relu3 <- ip3
I0428 20:09:54.928045 31726 net.cpp:369] relu3 -> ip3 (in-place)
I0428 20:09:54.928225 31726 net.cpp:124] Setting up relu3
I0428 20:09:54.928233 31726 net.cpp:131] Top shape: 64 10 (640)
I0428 20:09:54.928237 31726 net.cpp:139] Memory required for data: 5364480
I0428 20:09:54.928241 31726 layer_factory.hpp:77] Creating layer loss
I0428 20:09:54.928246 31726 net.cpp:86] Creating Layer loss
I0428 20:09:54.928249 31726 net.cpp:408] loss <- ip3
I0428 20:09:54.928253 31726 net.cpp:408] loss <- label
I0428 20:09:54.928258 31726 net.cpp:382] loss -> loss
I0428 20:09:54.928285 31726 layer_factory.hpp:77] Creating layer loss
…
I0428 20:09:54.928998 31726 solver.cpp:173] Creating test net (#0) specified by net file: ECE595/mnist/train_test/var_everything2/lenet_train_test1121.prototxt
I0428 20:09:54.929042 31726 net.cpp:296] The NetState phase (1) differed from the phase (0) specified by a rule in layer mnist
I0428 20:09:54.929133 31726 net.cpp:53] Initializing net from parameters: 
name: "LeNet"
state {
  phase: TEST
}
layer {
  name: "mnist"
  type: "Data"
  top: "data"
  top: "label"
  include {
    phase: TEST
  }
  transform_param {
    scale: 0.00390625
  }
  data_param {
    source: "examples/mnist/mnist_test_lmdb"
    batch_size: 100
    backend: LMDB
  }
}
layer {
  name: "conv0"
  type: "Convolution"
  bottom: "data"
  top: "conv0"
  param {
    lr_mult: 1
  }
  param {
    lr_mult: 2
  }
  convolution_param {
    num_output: 25
    kernel_size: 5
    stride: 1
    weight_filler {
      type: "xavier"
    }
    bias_filler {
      type: "constant"
    }
  }
}
layer {
  name: "pool0"
  type: "Pooling"
  bottom: "conv0"
  top: "pool0"
  pooling_param {
    pool: MAX
    kernel_size: 2
    stride: 2
  }
}
layer {
  name: "conv1"
  type: "Convolution"
  bottom: "pool0"
  top: "conv1"
  param {
    lr_mult: 1
  }
  param {
    lr_mult: 2
  }
  convolution_param {
    num_output: 25
    kernel_size: 5
    stride: 1
    weight_filler {
      type: "xavier"
    }
    bias_filler {
      type: "constant"
    }
  }
}
layer {
  name: "pool1"
  type: "Pooling"
  bottom: "conv1"
  top: "pool1"
  pooling_param {
    pool: MAX
    kernel_size: 2
    stride: 2
  }
}
layer {
  name: "ip1"
  type: "InnerProduct"
  bottom: "pool1"
  top: "ip1"
  param {
    lr_mult: 1
  }
  param {
    lr_mult: 2
  }
  inner_product_param {
    num_output: 25
    weight_filler {
      type: "xavier"
    }
    bias_filler {
      type: "constant"
    }
  }
}
layer {
  name: "relu1"
  type: "ReLU"
  bottom: "ip1"
  top: "ip1"
}
layer {
  name: "ip2"
  type: "InnerProduct"
  bottom: "ip1"
  top: "ip2"
  param {
    lr_mult: 1
  }
  param {
    lr_mult: 2
  }
  inner_product_param {
    num_output: 50
    weight_filler {
      type: "xavier"
    }
    bias_filler {
      type: "constant"
    }
  }
}
layer {
  name: "relu2"
  type: "ReLU"
  bottom: "ip2"
  top: "ip2"
}
layer {
  name: "ip3"
  type: "InnerProduct"
  bottom: "ip2"
  top: "ip3"
  param {
    lr_mult: 1
  }
  param {
    lr_mult: 2
  }
  inner_product_param {
    num_output: 10
    weight_filler {
      type: "xavier"
    }
    bias_filler {
      type: "constant"
    }
  }
}
layer {
  name: "relu3"
  type: "ReLU"
  bottom: "ip3"
  top: "ip3"
}
layer {
  name: "accuracy"
  type: "Accuracy"
  bottom: "ip3"
  bottom: "label"
  top: "accuracy"
  include {
    phase: TEST
  }
}
layer {
  name: "loss"
  type: "SoftmaxWithLoss"
  bottom: "ip3"
  bottom: "label"
  top: "loss"
}
I0428 20:09:54.929225 31726 layer_factory.hpp:77] Creating layer mnist
I0428 20:09:54.929268 31726 db_lmdb.cpp:35] Opened lmdb examples/mnist/mnist_test_lmdb
I0428 20:09:54.929280 31726 net.cpp:86] Creating Layer mnist
I0428 20:09:54.929286 31726 net.cpp:382] mnist -> data
I0428 20:09:54.929292 31726 net.cpp:382] mnist -> label
I0428 20:09:54.929394 31726 data_layer.cpp:45] output data size: 100,1,28,28
I0428 20:09:54.931417 31726 net.cpp:124] Setting up mnist
I0428 20:09:54.931448 31726 net.cpp:131] Top shape: 100 1 28 28 (78400)
I0428 20:09:54.931453 31726 net.cpp:131] Top shape: 100 (100)
I0428 20:09:54.931457 31726 net.cpp:139] Memory required for data: 314000
I0428 20:09:54.931460 31726 layer_factory.hpp:77] Creating layer label_mnist_1_split
I0428 20:09:54.931470 31726 net.cpp:86] Creating Layer label_mnist_1_split
I0428 20:09:54.931473 31726 net.cpp:408] label_mnist_1_split <- label
I0428 20:09:54.931478 31726 net.cpp:382] label_mnist_1_split -> label_mnist_1_split_0
I0428 20:09:54.931484 31726 net.cpp:382] label_mnist_1_split -> label_mnist_1_split_1
I0428 20:09:54.931598 31726 net.cpp:124] Setting up label_mnist_1_split
I0428 20:09:54.931607 31726 net.cpp:131] Top shape: 100 (100)
I0428 20:09:54.931610 31726 net.cpp:131] Top shape: 100 (100)
I0428 20:09:54.931613 31726 net.cpp:139] Memory required for data: 314800
I0428 20:09:54.931617 31726 layer_factory.hpp:77] Creating layer conv0
I0428 20:09:54.931625 31726 net.cpp:86] Creating Layer conv0
I0428 20:09:54.931630 31726 net.cpp:408] conv0 <- data
I0428 20:09:54.931635 31726 net.cpp:382] conv0 -> conv0
I0428 20:09:54.933200 31726 net.cpp:124] Setting up conv0
I0428 20:09:54.933230 31726 net.cpp:131] Top shape: 100 25 24 24 (1440000)
I0428 20:09:54.933234 31726 net.cpp:139] Memory required for data: 6074800
I0428 20:09:54.933259 31726 layer_factory.hpp:77] Creating layer pool0
I0428 20:09:54.933265 31726 net.cpp:86] Creating Layer pool0
I0428 20:09:54.933269 31726 net.cpp:408] pool0 <- conv0
I0428 20:09:54.933274 31726 net.cpp:382] pool0 -> pool0
I0428 20:09:54.933317 31726 net.cpp:124] Setting up pool0
I0428 20:09:54.933324 31726 net.cpp:131] Top shape: 100 25 12 12 (360000)
I0428 20:09:54.933327 31726 net.cpp:139] Memory required for data: 7514800
I0428 20:09:54.933331 31726 layer_factory.hpp:77] Creating layer conv1
I0428 20:09:54.933338 31726 net.cpp:86] Creating Layer conv1
I0428 20:09:54.933341 31726 net.cpp:408] conv1 <- pool0
I0428 20:09:54.933347 31726 net.cpp:382] conv1 -> conv1
I0428 20:09:54.935537 31726 net.cpp:124] Setting up conv1
I0428 20:09:54.935566 31726 net.cpp:131] Top shape: 100 25 8 8 (160000)
I0428 20:09:54.935570 31726 net.cpp:139] Memory required for data: 8154800
I0428 20:09:54.935580 31726 layer_factory.hpp:77] Creating layer pool1
I0428 20:09:54.935585 31726 net.cpp:86] Creating Layer pool1
I0428 20:09:54.935606 31726 net.cpp:408] pool1 <- conv1
I0428 20:09:54.935611 31726 net.cpp:382] pool1 -> pool1
I0428 20:09:54.935654 31726 net.cpp:124] Setting up pool1
I0428 20:09:54.935662 31726 net.cpp:131] Top shape: 100 25 4 4 (40000)
I0428 20:09:54.935664 31726 net.cpp:139] Memory required for data: 8314800
I0428 20:09:54.935667 31726 layer_factory.hpp:77] Creating layer ip1
I0428 20:09:54.935673 31726 net.cpp:86] Creating Layer ip1
I0428 20:09:54.935688 31726 net.cpp:408] ip1 <- pool1
I0428 20:09:54.935693 31726 net.cpp:382] ip1 -> ip1
I0428 20:09:54.935863 31726 net.cpp:124] Setting up ip1
I0428 20:09:54.935886 31726 net.cpp:131] Top shape: 100 25 (2500)
I0428 20:09:54.935901 31726 net.cpp:139] Memory required for data: 8324800
I0428 20:09:54.935909 31726 layer_factory.hpp:77] Creating layer relu1
I0428 20:09:54.935914 31726 net.cpp:86] Creating Layer relu1
I0428 20:09:54.935917 31726 net.cpp:408] relu1 <- ip1
I0428 20:09:54.935922 31726 net.cpp:369] relu1 -> ip1 (in-place)
I0428 20:09:54.936094 31726 net.cpp:124] Setting up relu1
I0428 20:09:54.936103 31726 net.cpp:131] Top shape: 100 25 (2500)
I0428 20:09:54.936107 31726 net.cpp:139] Memory required for data: 8334800
I0428 20:09:54.936111 31726 layer_factory.hpp:77] Creating layer ip2
I0428 20:09:54.936118 31726 net.cpp:86] Creating Layer ip2
I0428 20:09:54.936121 31726 net.cpp:408] ip2 <- ip1
I0428 20:09:54.936126 31726 net.cpp:382] ip2 -> ip2
I0428 20:09:54.936250 31726 net.cpp:124] Setting up ip2
I0428 20:09:54.936257 31726 net.cpp:131] Top shape: 100 50 (5000)
I0428 20:09:54.936260 31726 net.cpp:139] Memory required for data: 8354800
I0428 20:09:54.936266 31726 layer_factory.hpp:77] Creating layer relu2
I0428 20:09:54.936280 31726 net.cpp:86] Creating Layer relu2
I0428 20:09:54.936282 31726 net.cpp:408] relu2 <- ip2
I0428 20:09:54.936286 31726 net.cpp:369] relu2 -> ip2 (in-place)
I0428 20:09:54.936458 31726 net.cpp:124] Setting up relu2
I0428 20:09:54.936467 31726 net.cpp:131] Top shape: 100 50 (5000)
I0428 20:09:54.936470 31726 net.cpp:139] Memory required for data: 8374800
I0428 20:09:54.936475 31726 layer_factory.hpp:77] Creating layer ip3
I0428 20:09:54.936480 31726 net.cpp:86] Creating Layer ip3
I0428 20:09:54.936482 31726 net.cpp:408] ip3 <- ip2
I0428 20:09:54.936487 31726 net.cpp:382] ip3 -> ip3
I0428 20:09:54.936599 31726 net.cpp:124] Setting up ip3
I0428 20:09:54.936605 31726 net.cpp:131] Top shape: 100 10 (1000)
I0428 20:09:54.936609 31726 net.cpp:139] Memory required for data: 8378800
I0428 20:09:54.936616 31726 layer_factory.hpp:77] Creating layer relu3
I0428 20:09:54.936624 31726 net.cpp:86] Creating Layer relu3
I0428 20:09:54.936626 31726 net.cpp:408] relu3 <- ip3
I0428 20:09:54.936630 31726 net.cpp:369] relu3 -> ip3 (in-place)
I0428 20:09:54.937553 31726 net.cpp:124] Setting up relu3
I0428 20:09:54.937583 31726 net.cpp:131] Top shape: 100 10 (1000)
I0428 20:09:54.937587 31726 net.cpp:139] Memory required for data: 8382800
I0428 20:09:54.937589 31726 layer_factory.hpp:77] Creating layer ip3_relu3_0_split
I0428 20:09:54.937595 31726 net.cpp:86] Creating Layer ip3_relu3_0_split
I0428 20:09:54.937598 31726 net.cpp:408] ip3_relu3_0_split <- ip3
I0428 20:09:54.937603 31726 net.cpp:382] ip3_relu3_0_split -> ip3_relu3_0_split_0
I0428 20:09:54.937610 31726 net.cpp:382] ip3_relu3_0_split -> ip3_relu3_0_split_1
I0428 20:09:54.937650 31726 net.cpp:124] Setting up ip3_relu3_0_split
I0428 20:09:54.937656 31726 net.cpp:131] Top shape: 100 10 (1000)
I0428 20:09:54.937660 31726 net.cpp:131] Top shape: 100 10 (1000)
I0428 20:09:54.937662 31726 net.cpp:139] Memory required for data: 8390800
I0428 20:09:54.937665 31726 layer_factory.hpp:77] Creating layer accuracy
I0428 20:09:54.937670 31726 net.cpp:86] Creating Layer accuracy
I0428 20:09:54.937674 31726 net.cpp:408] accuracy <- ip3_relu3_0_split_0
I0428 20:09:54.937677 31726 net.cpp:408] accuracy <- label_mnist_1_split_0
I0428 20:09:54.937683 31726 net.cpp:382] accuracy -> accuracy
…
