…
I0428 19:54:04.293416 27927 net.cpp:296] The NetState phase (0) differed from the phase (1) specified by a rule in layer mnist
I0428 19:54:04.293432 27927 net.cpp:296] The NetState phase (0) differed from the phase (1) specified by a rule in layer accuracy
I0428 19:54:04.293514 27927 net.cpp:53] Initializing net from parameters: 
name: "LeNet"
state {
  phase: TRAIN
  level: 0
  stage: ""
}
layer {
  name: "mnist"
  type: "Data"
  top: "data"
  top: "label"
  include {
    phase: TRAIN
  }
  transform_param {
    scale: 0.00390625
  }
  data_param {
    source: "examples/mnist/mnist_train_lmdb"
    batch_size: 64
    backend: LMDB
  }
}
layer {
  name: "conv0"
  type: "Convolution"
  bottom: "data"
  top: "conv0"
  param {
    lr_mult: 1
  }
  param {
    lr_mult: 2
  }
  convolution_param {
    num_output: 5
    kernel_size: 5
    stride: 1
    weight_filler {
      type: "xavier"
    }
    bias_filler {
      type: "constant"
    }
  }
}
layer {
  name: "pool0"
  type: "Pooling"
  bottom: "conv0"
  top: "pool0"
  pooling_param {
    pool: MAX
    kernel_size: 2
    stride: 2
  }
}
layer {
  name: "conv1"
  type: "Convolution"
  bottom: "pool0"
  top: "conv1"
  param {
    lr_mult: 1
  }
  param {
    lr_mult: 2
  }
  convolution_param {
    num_output: 100
    kernel_size: 5
    stride: 1
    weight_filler {
      type: "xavier"
    }
    bias_filler {
      type: "constant"
    }
  }
}
layer {
  name: "pool1"
  type: "Pooling"
  bottom: "conv1"
  top: "pool1"
  pooling_param {
    pool: MAX
    kernel_size: 2
    stride: 2
  }
}
layer {
  name: "ip1"
  type: "InnerProduct"
  bottom: "pool1"
  top: "ip1"
  param {
    lr_mult: 1
  }
  param {
    lr_mult: 2
  }
  inner_product_param {
    num_output: 10
    weight_filler {
      type: "xavier"
    }
    bias_filler {
      type: "constant"
    }
  }
}
layer {
  name: "relu1"
  type: "ReLU"
  bottom: "ip1"
  top: "ip1"
}
layer {
  name: "loss"
  type: "SoftmaxWithLoss"
  bottom: "ip1"
  bottom: "label"
  top: "loss"
}
I0428 19:54:04.293583 27927 layer_factory.hpp:77] Creating layer mnist
I0428 19:54:04.293687 27927 db_lmdb.cpp:35] Opened lmdb examples/mnist/mnist_train_lmdb
I0428 19:54:04.293711 27927 net.cpp:86] Creating Layer mnist
I0428 19:54:04.293720 27927 net.cpp:382] mnist -> data
I0428 19:54:04.293741 27927 net.cpp:382] mnist -> label
I0428 19:54:04.294839 27927 data_layer.cpp:45] output data size: 64,1,28,28
I0428 19:54:04.297518 27927 net.cpp:124] Setting up mnist
I0428 19:54:04.297540 27927 net.cpp:131] Top shape: 64 1 28 28 (50176)
I0428 19:54:04.297546 27927 net.cpp:131] Top shape: 64 (64)
I0428 19:54:04.297550 27927 net.cpp:139] Memory required for data: 200960
I0428 19:54:04.297556 27927 layer_factory.hpp:77] Creating layer conv0
I0428 19:54:04.297605 27927 net.cpp:86] Creating Layer conv0
I0428 19:54:04.297611 27927 net.cpp:408] conv0 <- data
I0428 19:54:04.297631 27927 net.cpp:382] conv0 -> conv0
I0428 19:54:04.582048 27927 net.cpp:124] Setting up conv0
I0428 19:54:04.582075 27927 net.cpp:131] Top shape: 64 5 24 24 (184320)
I0428 19:54:04.582079 27927 net.cpp:139] Memory required for data: 938240
I0428 19:54:04.582095 27927 layer_factory.hpp:77] Creating layer pool0
I0428 19:54:04.582108 27927 net.cpp:86] Creating Layer pool0
I0428 19:54:04.582111 27927 net.cpp:408] pool0 <- conv0
I0428 19:54:04.582118 27927 net.cpp:382] pool0 -> pool0
I0428 19:54:04.582164 27927 net.cpp:124] Setting up pool0
I0428 19:54:04.582170 27927 net.cpp:131] Top shape: 64 5 12 12 (46080)
I0428 19:54:04.582186 27927 net.cpp:139] Memory required for data: 1122560
I0428 19:54:04.582190 27927 layer_factory.hpp:77] Creating layer conv1
I0428 19:54:04.582201 27927 net.cpp:86] Creating Layer conv1
I0428 19:54:04.582203 27927 net.cpp:408] conv1 <- pool0
I0428 19:54:04.582208 27927 net.cpp:382] conv1 -> conv1
I0428 19:54:04.585026 27927 net.cpp:124] Setting up conv1
I0428 19:54:04.585041 27927 net.cpp:131] Top shape: 64 100 8 8 (409600)
I0428 19:54:04.585045 27927 net.cpp:139] Memory required for data: 2760960
I0428 19:54:04.585054 27927 layer_factory.hpp:77] Creating layer pool1
I0428 19:54:04.585062 27927 net.cpp:86] Creating Layer pool1
I0428 19:54:04.585065 27927 net.cpp:408] pool1 <- conv1
I0428 19:54:04.585070 27927 net.cpp:382] pool1 -> pool1
I0428 19:54:04.585106 27927 net.cpp:124] Setting up pool1
I0428 19:54:04.585113 27927 net.cpp:131] Top shape: 64 100 4 4 (102400)
I0428 19:54:04.585115 27927 net.cpp:139] Memory required for data: 3170560
I0428 19:54:04.585119 27927 layer_factory.hpp:77] Creating layer ip1
I0428 19:54:04.585124 27927 net.cpp:86] Creating Layer ip1
I0428 19:54:04.585127 27927 net.cpp:408] ip1 <- pool1
I0428 19:54:04.585132 27927 net.cpp:382] ip1 -> ip1
I0428 19:54:04.585361 27927 net.cpp:124] Setting up ip1
I0428 19:54:04.585369 27927 net.cpp:131] Top shape: 64 10 (640)
I0428 19:54:04.585372 27927 net.cpp:139] Memory required for data: 3173120
I0428 19:54:04.585378 27927 layer_factory.hpp:77] Creating layer relu1
I0428 19:54:04.585384 27927 net.cpp:86] Creating Layer relu1
I0428 19:54:04.585387 27927 net.cpp:408] relu1 <- ip1
I0428 19:54:04.585391 27927 net.cpp:369] relu1 -> ip1 (in-place)
I0428 19:54:04.585541 27927 net.cpp:124] Setting up relu1
I0428 19:54:04.585549 27927 net.cpp:131] Top shape: 64 10 (640)
I0428 19:54:04.585552 27927 net.cpp:139] Memory required for data: 3175680
I0428 19:54:04.585556 27927 layer_factory.hpp:77] Creating layer loss
I0428 19:54:04.585561 27927 net.cpp:86] Creating Layer loss
I0428 19:54:04.585563 27927 net.cpp:408] loss <- ip1
I0428 19:54:04.585567 27927 net.cpp:408] loss <- label
I0428 19:54:04.585572 27927 net.cpp:382] loss -> loss
I0428 19:54:04.585584 27927 layer_factory.hpp:77] Creating layer loss
…
I0428 19:54:04.586768 27927 solver.cpp:173] Creating test net (#0) specified by net file: ECE595/mnist/train_test/var_everything2/lenet_train_test703.prototxt
I0428 19:54:04.586793 27927 net.cpp:296] The NetState phase (1) differed from the phase (0) specified by a rule in layer mnist
I0428 19:54:04.586868 27927 net.cpp:53] Initializing net from parameters: 
name: "LeNet"
state {
  phase: TEST
}
layer {
  name: "mnist"
  type: "Data"
  top: "data"
  top: "label"
  include {
    phase: TEST
  }
  transform_param {
    scale: 0.00390625
  }
  data_param {
    source: "examples/mnist/mnist_test_lmdb"
    batch_size: 100
    backend: LMDB
  }
}
layer {
  name: "conv0"
  type: "Convolution"
  bottom: "data"
  top: "conv0"
  param {
    lr_mult: 1
  }
  param {
    lr_mult: 2
  }
  convolution_param {
    num_output: 5
    kernel_size: 5
    stride: 1
    weight_filler {
      type: "xavier"
    }
    bias_filler {
      type: "constant"
    }
  }
}
layer {
  name: "pool0"
  type: "Pooling"
  bottom: "conv0"
  top: "pool0"
  pooling_param {
    pool: MAX
    kernel_size: 2
    stride: 2
  }
}
layer {
  name: "conv1"
  type: "Convolution"
  bottom: "pool0"
  top: "conv1"
  param {
    lr_mult: 1
  }
  param {
    lr_mult: 2
  }
  convolution_param {
    num_output: 100
    kernel_size: 5
    stride: 1
    weight_filler {
      type: "xavier"
    }
    bias_filler {
      type: "constant"
    }
  }
}
layer {
  name: "pool1"
  type: "Pooling"
  bottom: "conv1"
  top: "pool1"
  pooling_param {
    pool: MAX
    kernel_size: 2
    stride: 2
  }
}
layer {
  name: "ip1"
  type: "InnerProduct"
  bottom: "pool1"
  top: "ip1"
  param {
    lr_mult: 1
  }
  param {
    lr_mult: 2
  }
  inner_product_param {
    num_output: 10
    weight_filler {
      type: "xavier"
    }
    bias_filler {
      type: "constant"
    }
  }
}
layer {
  name: "relu1"
  type: "ReLU"
  bottom: "ip1"
  top: "ip1"
}
layer {
  name: "accuracy"
  type: "Accuracy"
  bottom: "ip1"
  bottom: "label"
  top: "accuracy"
  include {
    phase: TEST
  }
}
layer {
  name: "loss"
  type: "SoftmaxWithLoss"
  bottom: "ip1"
  bottom: "label"
  top: "loss"
}
I0428 19:54:04.586951 27927 layer_factory.hpp:77] Creating layer mnist
I0428 19:54:04.586997 27927 db_lmdb.cpp:35] Opened lmdb examples/mnist/mnist_test_lmdb
I0428 19:54:04.587008 27927 net.cpp:86] Creating Layer mnist
I0428 19:54:04.587013 27927 net.cpp:382] mnist -> data
I0428 19:54:04.587019 27927 net.cpp:382] mnist -> label
I0428 19:54:04.587095 27927 data_layer.cpp:45] output data size: 100,1,28,28
I0428 19:54:04.589314 27927 net.cpp:124] Setting up mnist
I0428 19:54:04.589329 27927 net.cpp:131] Top shape: 100 1 28 28 (78400)
I0428 19:54:04.589335 27927 net.cpp:131] Top shape: 100 (100)
I0428 19:54:04.589339 27927 net.cpp:139] Memory required for data: 314000
I0428 19:54:04.589342 27927 layer_factory.hpp:77] Creating layer label_mnist_1_split
I0428 19:54:04.589349 27927 net.cpp:86] Creating Layer label_mnist_1_split
I0428 19:54:04.589352 27927 net.cpp:408] label_mnist_1_split <- label
I0428 19:54:04.589357 27927 net.cpp:382] label_mnist_1_split -> label_mnist_1_split_0
I0428 19:54:04.589365 27927 net.cpp:382] label_mnist_1_split -> label_mnist_1_split_1
I0428 19:54:04.589426 27927 net.cpp:124] Setting up label_mnist_1_split
I0428 19:54:04.589431 27927 net.cpp:131] Top shape: 100 (100)
I0428 19:54:04.589434 27927 net.cpp:131] Top shape: 100 (100)
I0428 19:54:04.589437 27927 net.cpp:139] Memory required for data: 314800
I0428 19:54:04.589440 27927 layer_factory.hpp:77] Creating layer conv0
I0428 19:54:04.589448 27927 net.cpp:86] Creating Layer conv0
I0428 19:54:04.589452 27927 net.cpp:408] conv0 <- data
I0428 19:54:04.589457 27927 net.cpp:382] conv0 -> conv0
I0428 19:54:04.590451 27927 net.cpp:124] Setting up conv0
I0428 19:54:04.590461 27927 net.cpp:131] Top shape: 100 5 24 24 (288000)
I0428 19:54:04.590466 27927 net.cpp:139] Memory required for data: 1466800
I0428 19:54:04.590473 27927 layer_factory.hpp:77] Creating layer pool0
I0428 19:54:04.590497 27927 net.cpp:86] Creating Layer pool0
I0428 19:54:04.590500 27927 net.cpp:408] pool0 <- conv0
I0428 19:54:04.590504 27927 net.cpp:382] pool0 -> pool0
I0428 19:54:04.590541 27927 net.cpp:124] Setting up pool0
I0428 19:54:04.590546 27927 net.cpp:131] Top shape: 100 5 12 12 (72000)
I0428 19:54:04.590549 27927 net.cpp:139] Memory required for data: 1754800
I0428 19:54:04.590551 27927 layer_factory.hpp:77] Creating layer conv1
I0428 19:54:04.590560 27927 net.cpp:86] Creating Layer conv1
I0428 19:54:04.590564 27927 net.cpp:408] conv1 <- pool0
I0428 19:54:04.590569 27927 net.cpp:382] conv1 -> conv1
I0428 19:54:04.592278 27927 net.cpp:124] Setting up conv1
I0428 19:54:04.592289 27927 net.cpp:131] Top shape: 100 100 8 8 (640000)
I0428 19:54:04.592293 27927 net.cpp:139] Memory required for data: 4314800
I0428 19:54:04.592319 27927 layer_factory.hpp:77] Creating layer pool1
I0428 19:54:04.592324 27927 net.cpp:86] Creating Layer pool1
I0428 19:54:04.592339 27927 net.cpp:408] pool1 <- conv1
I0428 19:54:04.592345 27927 net.cpp:382] pool1 -> pool1
I0428 19:54:04.592391 27927 net.cpp:124] Setting up pool1
I0428 19:54:04.592396 27927 net.cpp:131] Top shape: 100 100 4 4 (160000)
I0428 19:54:04.592406 27927 net.cpp:139] Memory required for data: 4954800
I0428 19:54:04.592408 27927 layer_factory.hpp:77] Creating layer ip1
I0428 19:54:04.592417 27927 net.cpp:86] Creating Layer ip1
I0428 19:54:04.592424 27927 net.cpp:408] ip1 <- pool1
I0428 19:54:04.592430 27927 net.cpp:382] ip1 -> ip1
I0428 19:54:04.592633 27927 net.cpp:124] Setting up ip1
I0428 19:54:04.592641 27927 net.cpp:131] Top shape: 100 10 (1000)
I0428 19:54:04.592645 27927 net.cpp:139] Memory required for data: 4958800
I0428 19:54:04.592653 27927 layer_factory.hpp:77] Creating layer relu1
I0428 19:54:04.592658 27927 net.cpp:86] Creating Layer relu1
I0428 19:54:04.592666 27927 net.cpp:408] relu1 <- ip1
I0428 19:54:04.592671 27927 net.cpp:369] relu1 -> ip1 (in-place)
I0428 19:54:04.593649 27927 net.cpp:124] Setting up relu1
I0428 19:54:04.593662 27927 net.cpp:131] Top shape: 100 10 (1000)
I0428 19:54:04.593664 27927 net.cpp:139] Memory required for data: 4962800
I0428 19:54:04.593668 27927 layer_factory.hpp:77] Creating layer ip1_relu1_0_split
I0428 19:54:04.593675 27927 net.cpp:86] Creating Layer ip1_relu1_0_split
I0428 19:54:04.593678 27927 net.cpp:408] ip1_relu1_0_split <- ip1
I0428 19:54:04.593683 27927 net.cpp:382] ip1_relu1_0_split -> ip1_relu1_0_split_0
I0428 19:54:04.593689 27927 net.cpp:382] ip1_relu1_0_split -> ip1_relu1_0_split_1
I0428 19:54:04.593767 27927 net.cpp:124] Setting up ip1_relu1_0_split
I0428 19:54:04.593775 27927 net.cpp:131] Top shape: 100 10 (1000)
I0428 19:54:04.593777 27927 net.cpp:131] Top shape: 100 10 (1000)
I0428 19:54:04.593780 27927 net.cpp:139] Memory required for data: 4970800
I0428 19:54:04.593783 27927 layer_factory.hpp:77] Creating layer accuracy
I0428 19:54:04.593787 27927 net.cpp:86] Creating Layer accuracy
I0428 19:54:04.593791 27927 net.cpp:408] accuracy <- ip1_relu1_0_split_0
I0428 19:54:04.593794 27927 net.cpp:408] accuracy <- label_mnist_1_split_0
I0428 19:54:04.593799 27927 net.cpp:382] accuracy -> accuracy
…
