…
I0428 20:20:13.146592  1506 net.cpp:296] The NetState phase (0) differed from the phase (1) specified by a rule in layer mnist
I0428 20:20:13.146607  1506 net.cpp:296] The NetState phase (0) differed from the phase (1) specified by a rule in layer accuracy
I0428 20:20:13.146689  1506 net.cpp:53] Initializing net from parameters: 
name: "LeNet"
state {
  phase: TRAIN
  level: 0
  stage: ""
}
layer {
  name: "mnist"
  type: "Data"
  top: "data"
  top: "label"
  include {
    phase: TRAIN
  }
  transform_param {
    scale: 0.00390625
  }
  data_param {
    source: "examples/mnist/mnist_train_lmdb"
    batch_size: 64
    backend: LMDB
  }
}
layer {
  name: "conv0"
  type: "Convolution"
  bottom: "data"
  top: "conv0"
  param {
    lr_mult: 1
  }
  param {
    lr_mult: 2
  }
  convolution_param {
    num_output: 50
    kernel_size: 5
    stride: 1
    weight_filler {
      type: "xavier"
    }
    bias_filler {
      type: "constant"
    }
  }
}
layer {
  name: "pool0"
  type: "Pooling"
  bottom: "conv0"
  top: "pool0"
  pooling_param {
    pool: MAX
    kernel_size: 2
    stride: 2
  }
}
layer {
  name: "conv1"
  type: "Convolution"
  bottom: "pool0"
  top: "conv1"
  param {
    lr_mult: 1
  }
  param {
    lr_mult: 2
  }
  convolution_param {
    num_output: 25
    kernel_size: 5
    stride: 1
    weight_filler {
      type: "xavier"
    }
    bias_filler {
      type: "constant"
    }
  }
}
layer {
  name: "pool1"
  type: "Pooling"
  bottom: "conv1"
  top: "pool1"
  pooling_param {
    pool: MAX
    kernel_size: 2
    stride: 2
  }
}
layer {
  name: "ip1"
  type: "InnerProduct"
  bottom: "pool1"
  top: "ip1"
  param {
    lr_mult: 1
  }
  param {
    lr_mult: 2
  }
  inner_product_param {
    num_output: 50
    weight_filler {
      type: "xavier"
    }
    bias_filler {
      type: "constant"
    }
  }
}
layer {
  name: "relu1"
  type: "ReLU"
  bottom: "ip1"
  top: "ip1"
}
layer {
  name: "ip2"
  type: "InnerProduct"
  bottom: "ip1"
  top: "ip2"
  param {
    lr_mult: 1
  }
  param {
    lr_mult: 2
  }
  inner_product_param {
    num_output: 10
    weight_filler {
      type: "xavier"
    }
    bias_filler {
      type: "constant"
    }
  }
}
layer {
  name: "relu2"
  type: "ReLU"
  bottom: "ip2"
  top: "ip2"
}
layer {
  name: "ip3"
  type: "InnerProduct"
  bottom: "ip2"
  top: "ip3"
  param {
    lr_mult: 1
  }
  param {
    lr_mult: 2
  }
  inner_product_param {
    num_output: 10
    weight_filler {
      type: "xavier"
    }
    bias_filler {
      type: "constant"
    }
  }
}
layer {
  name: "relu3"
  type: "ReLU"
  bottom: "ip3"
  top: "ip3"
}
layer {
  name: "loss"
  type: "SoftmaxWithLoss"
  bottom: "ip3"
  bottom: "label"
  top: "loss"
}
I0428 20:20:13.146754  1506 layer_factory.hpp:77] Creating layer mnist
I0428 20:20:13.146848  1506 db_lmdb.cpp:35] Opened lmdb examples/mnist/mnist_train_lmdb
I0428 20:20:13.146867  1506 net.cpp:86] Creating Layer mnist
I0428 20:20:13.146873  1506 net.cpp:382] mnist -> data
I0428 20:20:13.146891  1506 net.cpp:382] mnist -> label
I0428 20:20:13.147785  1506 data_layer.cpp:45] output data size: 64,1,28,28
I0428 20:20:13.150112  1506 net.cpp:124] Setting up mnist
I0428 20:20:13.150143  1506 net.cpp:131] Top shape: 64 1 28 28 (50176)
I0428 20:20:13.150149  1506 net.cpp:131] Top shape: 64 (64)
I0428 20:20:13.150151  1506 net.cpp:139] Memory required for data: 200960
I0428 20:20:13.150157  1506 layer_factory.hpp:77] Creating layer conv0
I0428 20:20:13.150172  1506 net.cpp:86] Creating Layer conv0
I0428 20:20:13.150190  1506 net.cpp:408] conv0 <- data
I0428 20:20:13.150202  1506 net.cpp:382] conv0 -> conv0
I0428 20:20:13.377003  1506 net.cpp:124] Setting up conv0
I0428 20:20:13.377045  1506 net.cpp:131] Top shape: 64 50 24 24 (1843200)
I0428 20:20:13.377049  1506 net.cpp:139] Memory required for data: 7573760
I0428 20:20:13.377064  1506 layer_factory.hpp:77] Creating layer pool0
I0428 20:20:13.377076  1506 net.cpp:86] Creating Layer pool0
I0428 20:20:13.377080  1506 net.cpp:408] pool0 <- conv0
I0428 20:20:13.377085  1506 net.cpp:382] pool0 -> pool0
I0428 20:20:13.377159  1506 net.cpp:124] Setting up pool0
I0428 20:20:13.377164  1506 net.cpp:131] Top shape: 64 50 12 12 (460800)
I0428 20:20:13.377167  1506 net.cpp:139] Memory required for data: 9416960
I0428 20:20:13.377171  1506 layer_factory.hpp:77] Creating layer conv1
I0428 20:20:13.377180  1506 net.cpp:86] Creating Layer conv1
I0428 20:20:13.377183  1506 net.cpp:408] conv1 <- pool0
I0428 20:20:13.377203  1506 net.cpp:382] conv1 -> conv1
I0428 20:20:13.379339  1506 net.cpp:124] Setting up conv1
I0428 20:20:13.379369  1506 net.cpp:131] Top shape: 64 25 8 8 (102400)
I0428 20:20:13.379371  1506 net.cpp:139] Memory required for data: 9826560
I0428 20:20:13.379395  1506 layer_factory.hpp:77] Creating layer pool1
I0428 20:20:13.379405  1506 net.cpp:86] Creating Layer pool1
I0428 20:20:13.379407  1506 net.cpp:408] pool1 <- conv1
I0428 20:20:13.379413  1506 net.cpp:382] pool1 -> pool1
I0428 20:20:13.379479  1506 net.cpp:124] Setting up pool1
I0428 20:20:13.379485  1506 net.cpp:131] Top shape: 64 25 4 4 (25600)
I0428 20:20:13.379487  1506 net.cpp:139] Memory required for data: 9928960
I0428 20:20:13.379492  1506 layer_factory.hpp:77] Creating layer ip1
I0428 20:20:13.379499  1506 net.cpp:86] Creating Layer ip1
I0428 20:20:13.379503  1506 net.cpp:408] ip1 <- pool1
I0428 20:20:13.379506  1506 net.cpp:382] ip1 -> ip1
I0428 20:20:13.379750  1506 net.cpp:124] Setting up ip1
I0428 20:20:13.379757  1506 net.cpp:131] Top shape: 64 50 (3200)
I0428 20:20:13.379760  1506 net.cpp:139] Memory required for data: 9941760
I0428 20:20:13.379767  1506 layer_factory.hpp:77] Creating layer relu1
I0428 20:20:13.379775  1506 net.cpp:86] Creating Layer relu1
I0428 20:20:13.379777  1506 net.cpp:408] relu1 <- ip1
I0428 20:20:13.379781  1506 net.cpp:369] relu1 -> ip1 (in-place)
I0428 20:20:13.379961  1506 net.cpp:124] Setting up relu1
I0428 20:20:13.379984  1506 net.cpp:131] Top shape: 64 50 (3200)
I0428 20:20:13.379987  1506 net.cpp:139] Memory required for data: 9954560
I0428 20:20:13.379992  1506 layer_factory.hpp:77] Creating layer ip2
I0428 20:20:13.379997  1506 net.cpp:86] Creating Layer ip2
I0428 20:20:13.380000  1506 net.cpp:408] ip2 <- ip1
I0428 20:20:13.380005  1506 net.cpp:382] ip2 -> ip2
I0428 20:20:13.380106  1506 net.cpp:124] Setting up ip2
I0428 20:20:13.380112  1506 net.cpp:131] Top shape: 64 10 (640)
I0428 20:20:13.380115  1506 net.cpp:139] Memory required for data: 9957120
I0428 20:20:13.380121  1506 layer_factory.hpp:77] Creating layer relu2
I0428 20:20:13.380127  1506 net.cpp:86] Creating Layer relu2
I0428 20:20:13.380131  1506 net.cpp:408] relu2 <- ip2
I0428 20:20:13.380134  1506 net.cpp:369] relu2 -> ip2 (in-place)
I0428 20:20:13.380919  1506 net.cpp:124] Setting up relu2
I0428 20:20:13.380949  1506 net.cpp:131] Top shape: 64 10 (640)
I0428 20:20:13.380951  1506 net.cpp:139] Memory required for data: 9959680
I0428 20:20:13.380954  1506 layer_factory.hpp:77] Creating layer ip3
I0428 20:20:13.380961  1506 net.cpp:86] Creating Layer ip3
I0428 20:20:13.380964  1506 net.cpp:408] ip3 <- ip2
I0428 20:20:13.380970  1506 net.cpp:382] ip3 -> ip3
I0428 20:20:13.381073  1506 net.cpp:124] Setting up ip3
I0428 20:20:13.381080  1506 net.cpp:131] Top shape: 64 10 (640)
I0428 20:20:13.381083  1506 net.cpp:139] Memory required for data: 9962240
I0428 20:20:13.381091  1506 layer_factory.hpp:77] Creating layer relu3
I0428 20:20:13.381096  1506 net.cpp:86] Creating Layer relu3
I0428 20:20:13.381099  1506 net.cpp:408] relu3 <- ip3
I0428 20:20:13.381104  1506 net.cpp:369] relu3 -> ip3 (in-place)
I0428 20:20:13.381319  1506 net.cpp:124] Setting up relu3
I0428 20:20:13.381327  1506 net.cpp:131] Top shape: 64 10 (640)
I0428 20:20:13.381330  1506 net.cpp:139] Memory required for data: 9964800
I0428 20:20:13.381333  1506 layer_factory.hpp:77] Creating layer loss
I0428 20:20:13.381343  1506 net.cpp:86] Creating Layer loss
I0428 20:20:13.381347  1506 net.cpp:408] loss <- ip3
I0428 20:20:13.381351  1506 net.cpp:408] loss <- label
I0428 20:20:13.381356  1506 net.cpp:382] loss -> loss
I0428 20:20:13.381368  1506 layer_factory.hpp:77] Creating layer loss
…
I0428 20:20:13.382095  1506 solver.cpp:173] Creating test net (#0) specified by net file: ECE595/mnist/train_test/var_everything2/lenet_train_test1358.prototxt
I0428 20:20:13.382151  1506 net.cpp:296] The NetState phase (1) differed from the phase (0) specified by a rule in layer mnist
I0428 20:20:13.382256  1506 net.cpp:53] Initializing net from parameters: 
name: "LeNet"
state {
  phase: TEST
}
layer {
  name: "mnist"
  type: "Data"
  top: "data"
  top: "label"
  include {
    phase: TEST
  }
  transform_param {
    scale: 0.00390625
  }
  data_param {
    source: "examples/mnist/mnist_test_lmdb"
    batch_size: 100
    backend: LMDB
  }
}
layer {
  name: "conv0"
  type: "Convolution"
  bottom: "data"
  top: "conv0"
  param {
    lr_mult: 1
  }
  param {
    lr_mult: 2
  }
  convolution_param {
    num_output: 50
    kernel_size: 5
    stride: 1
    weight_filler {
      type: "xavier"
    }
    bias_filler {
      type: "constant"
    }
  }
}
layer {
  name: "pool0"
  type: "Pooling"
  bottom: "conv0"
  top: "pool0"
  pooling_param {
    pool: MAX
    kernel_size: 2
    stride: 2
  }
}
layer {
  name: "conv1"
  type: "Convolution"
  bottom: "pool0"
  top: "conv1"
  param {
    lr_mult: 1
  }
  param {
    lr_mult: 2
  }
  convolution_param {
    num_output: 25
    kernel_size: 5
    stride: 1
    weight_filler {
      type: "xavier"
    }
    bias_filler {
      type: "constant"
    }
  }
}
layer {
  name: "pool1"
  type: "Pooling"
  bottom: "conv1"
  top: "pool1"
  pooling_param {
    pool: MAX
    kernel_size: 2
    stride: 2
  }
}
layer {
  name: "ip1"
  type: "InnerProduct"
  bottom: "pool1"
  top: "ip1"
  param {
    lr_mult: 1
  }
  param {
    lr_mult: 2
  }
  inner_product_param {
    num_output: 50
    weight_filler {
      type: "xavier"
    }
    bias_filler {
      type: "constant"
    }
  }
}
layer {
  name: "relu1"
  type: "ReLU"
  bottom: "ip1"
  top: "ip1"
}
layer {
  name: "ip2"
  type: "InnerProduct"
  bottom: "ip1"
  top: "ip2"
  param {
    lr_mult: 1
  }
  param {
    lr_mult: 2
  }
  inner_product_param {
    num_output: 10
    weight_filler {
      type: "xavier"
    }
    bias_filler {
      type: "constant"
    }
  }
}
layer {
  name: "relu2"
  type: "ReLU"
  bottom: "ip2"
  top: "ip2"
}
layer {
  name: "ip3"
  type: "InnerProduct"
  bottom: "ip2"
  top: "ip3"
  param {
    lr_mult: 1
  }
  param {
    lr_mult: 2
  }
  inner_product_param {
    num_output: 10
    weight_filler {
      type: "xavier"
    }
    bias_filler {
      type: "constant"
    }
  }
}
layer {
  name: "relu3"
  type: "ReLU"
  bottom: "ip3"
  top: "ip3"
}
layer {
  name: "accuracy"
  type: "Accuracy"
  bottom: "ip3"
  bottom: "label"
  top: "accuracy"
  include {
    phase: TEST
  }
}
layer {
  name: "loss"
  type: "SoftmaxWithLoss"
  bottom: "ip3"
  bottom: "label"
  top: "loss"
}
I0428 20:20:13.382335  1506 layer_factory.hpp:77] Creating layer mnist
I0428 20:20:13.382376  1506 db_lmdb.cpp:35] Opened lmdb examples/mnist/mnist_test_lmdb
I0428 20:20:13.382390  1506 net.cpp:86] Creating Layer mnist
I0428 20:20:13.382393  1506 net.cpp:382] mnist -> data
I0428 20:20:13.382400  1506 net.cpp:382] mnist -> label
I0428 20:20:13.382483  1506 data_layer.cpp:45] output data size: 100,1,28,28
I0428 20:20:13.384519  1506 net.cpp:124] Setting up mnist
I0428 20:20:13.384532  1506 net.cpp:131] Top shape: 100 1 28 28 (78400)
I0428 20:20:13.384552  1506 net.cpp:131] Top shape: 100 (100)
I0428 20:20:13.384555  1506 net.cpp:139] Memory required for data: 314000
I0428 20:20:13.384558  1506 layer_factory.hpp:77] Creating layer label_mnist_1_split
I0428 20:20:13.384579  1506 net.cpp:86] Creating Layer label_mnist_1_split
I0428 20:20:13.384583  1506 net.cpp:408] label_mnist_1_split <- label
I0428 20:20:13.384588  1506 net.cpp:382] label_mnist_1_split -> label_mnist_1_split_0
I0428 20:20:13.384595  1506 net.cpp:382] label_mnist_1_split -> label_mnist_1_split_1
I0428 20:20:13.384639  1506 net.cpp:124] Setting up label_mnist_1_split
I0428 20:20:13.384644  1506 net.cpp:131] Top shape: 100 (100)
I0428 20:20:13.384649  1506 net.cpp:131] Top shape: 100 (100)
I0428 20:20:13.384650  1506 net.cpp:139] Memory required for data: 314800
I0428 20:20:13.384654  1506 layer_factory.hpp:77] Creating layer conv0
I0428 20:20:13.384662  1506 net.cpp:86] Creating Layer conv0
I0428 20:20:13.384665  1506 net.cpp:408] conv0 <- data
I0428 20:20:13.384671  1506 net.cpp:382] conv0 -> conv0
I0428 20:20:13.386562  1506 net.cpp:124] Setting up conv0
I0428 20:20:13.386590  1506 net.cpp:131] Top shape: 100 50 24 24 (2880000)
I0428 20:20:13.386595  1506 net.cpp:139] Memory required for data: 11834800
I0428 20:20:13.386605  1506 layer_factory.hpp:77] Creating layer pool0
I0428 20:20:13.386611  1506 net.cpp:86] Creating Layer pool0
I0428 20:20:13.386615  1506 net.cpp:408] pool0 <- conv0
I0428 20:20:13.386620  1506 net.cpp:382] pool0 -> pool0
I0428 20:20:13.386654  1506 net.cpp:124] Setting up pool0
I0428 20:20:13.386659  1506 net.cpp:131] Top shape: 100 50 12 12 (720000)
I0428 20:20:13.386662  1506 net.cpp:139] Memory required for data: 14714800
I0428 20:20:13.386664  1506 layer_factory.hpp:77] Creating layer conv1
I0428 20:20:13.386673  1506 net.cpp:86] Creating Layer conv1
I0428 20:20:13.386677  1506 net.cpp:408] conv1 <- pool0
I0428 20:20:13.386682  1506 net.cpp:382] conv1 -> conv1
I0428 20:20:13.388556  1506 net.cpp:124] Setting up conv1
I0428 20:20:13.388584  1506 net.cpp:131] Top shape: 100 25 8 8 (160000)
I0428 20:20:13.388588  1506 net.cpp:139] Memory required for data: 15354800
I0428 20:20:13.388599  1506 layer_factory.hpp:77] Creating layer pool1
I0428 20:20:13.388622  1506 net.cpp:86] Creating Layer pool1
I0428 20:20:13.388625  1506 net.cpp:408] pool1 <- conv1
I0428 20:20:13.388631  1506 net.cpp:382] pool1 -> pool1
I0428 20:20:13.388669  1506 net.cpp:124] Setting up pool1
I0428 20:20:13.388675  1506 net.cpp:131] Top shape: 100 25 4 4 (40000)
I0428 20:20:13.388692  1506 net.cpp:139] Memory required for data: 15514800
I0428 20:20:13.388695  1506 layer_factory.hpp:77] Creating layer ip1
I0428 20:20:13.388703  1506 net.cpp:86] Creating Layer ip1
I0428 20:20:13.388706  1506 net.cpp:408] ip1 <- pool1
I0428 20:20:13.388711  1506 net.cpp:382] ip1 -> ip1
I0428 20:20:13.388952  1506 net.cpp:124] Setting up ip1
I0428 20:20:13.388962  1506 net.cpp:131] Top shape: 100 50 (5000)
I0428 20:20:13.388975  1506 net.cpp:139] Memory required for data: 15534800
I0428 20:20:13.388983  1506 layer_factory.hpp:77] Creating layer relu1
I0428 20:20:13.388990  1506 net.cpp:86] Creating Layer relu1
I0428 20:20:13.388993  1506 net.cpp:408] relu1 <- ip1
I0428 20:20:13.388998  1506 net.cpp:369] relu1 -> ip1 (in-place)
I0428 20:20:13.389243  1506 net.cpp:124] Setting up relu1
I0428 20:20:13.389268  1506 net.cpp:131] Top shape: 100 50 (5000)
I0428 20:20:13.389272  1506 net.cpp:139] Memory required for data: 15554800
I0428 20:20:13.389276  1506 layer_factory.hpp:77] Creating layer ip2
I0428 20:20:13.389283  1506 net.cpp:86] Creating Layer ip2
I0428 20:20:13.389287  1506 net.cpp:408] ip2 <- ip1
I0428 20:20:13.389293  1506 net.cpp:382] ip2 -> ip2
I0428 20:20:13.389447  1506 net.cpp:124] Setting up ip2
I0428 20:20:13.389456  1506 net.cpp:131] Top shape: 100 10 (1000)
I0428 20:20:13.389459  1506 net.cpp:139] Memory required for data: 15558800
I0428 20:20:13.389467  1506 layer_factory.hpp:77] Creating layer relu2
I0428 20:20:13.389472  1506 net.cpp:86] Creating Layer relu2
I0428 20:20:13.389474  1506 net.cpp:408] relu2 <- ip2
I0428 20:20:13.389479  1506 net.cpp:369] relu2 -> ip2 (in-place)
I0428 20:20:13.389657  1506 net.cpp:124] Setting up relu2
I0428 20:20:13.389665  1506 net.cpp:131] Top shape: 100 10 (1000)
I0428 20:20:13.389668  1506 net.cpp:139] Memory required for data: 15562800
I0428 20:20:13.389672  1506 layer_factory.hpp:77] Creating layer ip3
I0428 20:20:13.389678  1506 net.cpp:86] Creating Layer ip3
I0428 20:20:13.389688  1506 net.cpp:408] ip3 <- ip2
I0428 20:20:13.389693  1506 net.cpp:382] ip3 -> ip3
I0428 20:20:13.389824  1506 net.cpp:124] Setting up ip3
I0428 20:20:13.389832  1506 net.cpp:131] Top shape: 100 10 (1000)
I0428 20:20:13.389834  1506 net.cpp:139] Memory required for data: 15566800
I0428 20:20:13.389842  1506 layer_factory.hpp:77] Creating layer relu3
I0428 20:20:13.389848  1506 net.cpp:86] Creating Layer relu3
I0428 20:20:13.389853  1506 net.cpp:408] relu3 <- ip3
I0428 20:20:13.389856  1506 net.cpp:369] relu3 -> ip3 (in-place)
I0428 20:20:13.390708  1506 net.cpp:124] Setting up relu3
I0428 20:20:13.390718  1506 net.cpp:131] Top shape: 100 10 (1000)
I0428 20:20:13.390738  1506 net.cpp:139] Memory required for data: 15570800
I0428 20:20:13.390741  1506 layer_factory.hpp:77] Creating layer ip3_relu3_0_split
I0428 20:20:13.390746  1506 net.cpp:86] Creating Layer ip3_relu3_0_split
I0428 20:20:13.390749  1506 net.cpp:408] ip3_relu3_0_split <- ip3
I0428 20:20:13.390756  1506 net.cpp:382] ip3_relu3_0_split -> ip3_relu3_0_split_0
I0428 20:20:13.390763  1506 net.cpp:382] ip3_relu3_0_split -> ip3_relu3_0_split_1
I0428 20:20:13.390843  1506 net.cpp:124] Setting up ip3_relu3_0_split
I0428 20:20:13.390851  1506 net.cpp:131] Top shape: 100 10 (1000)
I0428 20:20:13.390854  1506 net.cpp:131] Top shape: 100 10 (1000)
I0428 20:20:13.390857  1506 net.cpp:139] Memory required for data: 15578800
I0428 20:20:13.390861  1506 layer_factory.hpp:77] Creating layer accuracy
I0428 20:20:13.390866  1506 net.cpp:86] Creating Layer accuracy
I0428 20:20:13.390868  1506 net.cpp:408] accuracy <- ip3_relu3_0_split_0
I0428 20:20:13.390872  1506 net.cpp:408] accuracy <- label_mnist_1_split_0
I0428 20:20:13.390878  1506 net.cpp:382] accuracy -> accuracy
…
