…
I0428 20:33:22.424393  4283 net.cpp:296] The NetState phase (0) differed from the phase (1) specified by a rule in layer mnist
I0428 20:33:22.424412  4283 net.cpp:296] The NetState phase (0) differed from the phase (1) specified by a rule in layer accuracy
I0428 20:33:22.424515  4283 net.cpp:53] Initializing net from parameters: 
name: "LeNet"
state {
  phase: TRAIN
  level: 0
  stage: ""
}
layer {
  name: "mnist"
  type: "Data"
  top: "data"
  top: "label"
  include {
    phase: TRAIN
  }
  transform_param {
    scale: 0.00390625
  }
  data_param {
    source: "examples/mnist/mnist_train_lmdb"
    batch_size: 64
    backend: LMDB
  }
}
layer {
  name: "conv0"
  type: "Convolution"
  bottom: "data"
  top: "conv0"
  param {
    lr_mult: 1
  }
  param {
    lr_mult: 2
  }
  convolution_param {
    num_output: 100
    kernel_size: 5
    stride: 1
    weight_filler {
      type: "xavier"
    }
    bias_filler {
      type: "constant"
    }
  }
}
layer {
  name: "pool0"
  type: "Pooling"
  bottom: "conv0"
  top: "pool0"
  pooling_param {
    pool: MAX
    kernel_size: 2
    stride: 2
  }
}
layer {
  name: "conv1"
  type: "Convolution"
  bottom: "pool0"
  top: "conv1"
  param {
    lr_mult: 1
  }
  param {
    lr_mult: 2
  }
  convolution_param {
    num_output: 25
    kernel_size: 5
    stride: 1
    weight_filler {
      type: "xavier"
    }
    bias_filler {
      type: "constant"
    }
  }
}
layer {
  name: "pool1"
  type: "Pooling"
  bottom: "conv1"
  top: "pool1"
  pooling_param {
    pool: MAX
    kernel_size: 2
    stride: 2
  }
}
layer {
  name: "ip1"
  type: "InnerProduct"
  bottom: "pool1"
  top: "ip1"
  param {
    lr_mult: 1
  }
  param {
    lr_mult: 2
  }
  inner_product_param {
    num_output: 25
    weight_filler {
      type: "xavier"
    }
    bias_filler {
      type: "constant"
    }
  }
}
layer {
  name: "relu1"
  type: "ReLU"
  bottom: "ip1"
  top: "ip1"
}
layer {
  name: "ip2"
  type: "InnerProduct"
  bottom: "ip1"
  top: "ip2"
  param {
    lr_mult: 1
  }
  param {
    lr_mult: 2
  }
  inner_product_param {
    num_output: 50
    weight_filler {
      type: "xavier"
    }
    bias_filler {
      type: "constant"
    }
  }
}
layer {
  name: "relu2"
  type: "ReLU"
  bottom: "ip2"
  top: "ip2"
}
layer {
  name: "ip3"
  type: "InnerProduct"
  bottom: "ip2"
  top: "ip3"
  param {
    lr_mult: 1
  }
  param {
    lr_mult: 2
  }
  inner_product_param {
    num_output: 10
    weight_filler {
      type: "xavier"
    }
    bias_filler {
      type: "constant"
    }
  }
}
layer {
  name: "relu3"
  type: "ReLU"
  bottom: "ip3"
  top: "ip3"
}
layer {
  name: "loss"
  type: "SoftmaxWithLoss"
  bottom: "ip3"
  bottom: "label"
  top: "loss"
}
I0428 20:33:22.424594  4283 layer_factory.hpp:77] Creating layer mnist
I0428 20:33:22.424696  4283 db_lmdb.cpp:35] Opened lmdb examples/mnist/mnist_train_lmdb
I0428 20:33:22.424721  4283 net.cpp:86] Creating Layer mnist
I0428 20:33:22.424731  4283 net.cpp:382] mnist -> data
I0428 20:33:22.424752  4283 net.cpp:382] mnist -> label
I0428 20:33:22.425875  4283 data_layer.cpp:45] output data size: 64,1,28,28
I0428 20:33:22.428352  4283 net.cpp:124] Setting up mnist
I0428 20:33:22.428371  4283 net.cpp:131] Top shape: 64 1 28 28 (50176)
I0428 20:33:22.428378  4283 net.cpp:131] Top shape: 64 (64)
I0428 20:33:22.428381  4283 net.cpp:139] Memory required for data: 200960
I0428 20:33:22.428388  4283 layer_factory.hpp:77] Creating layer conv0
I0428 20:33:22.428406  4283 net.cpp:86] Creating Layer conv0
I0428 20:33:22.428426  4283 net.cpp:408] conv0 <- data
I0428 20:33:22.428439  4283 net.cpp:382] conv0 -> conv0
I0428 20:33:22.720088  4283 net.cpp:124] Setting up conv0
I0428 20:33:22.720118  4283 net.cpp:131] Top shape: 64 100 24 24 (3686400)
I0428 20:33:22.720122  4283 net.cpp:139] Memory required for data: 14946560
I0428 20:33:22.720139  4283 layer_factory.hpp:77] Creating layer pool0
I0428 20:33:22.720154  4283 net.cpp:86] Creating Layer pool0
I0428 20:33:22.720157  4283 net.cpp:408] pool0 <- conv0
I0428 20:33:22.720163  4283 net.cpp:382] pool0 -> pool0
I0428 20:33:22.720216  4283 net.cpp:124] Setting up pool0
I0428 20:33:22.720224  4283 net.cpp:131] Top shape: 64 100 12 12 (921600)
I0428 20:33:22.720227  4283 net.cpp:139] Memory required for data: 18632960
I0428 20:33:22.720232  4283 layer_factory.hpp:77] Creating layer conv1
I0428 20:33:22.720243  4283 net.cpp:86] Creating Layer conv1
I0428 20:33:22.720249  4283 net.cpp:408] conv1 <- pool0
I0428 20:33:22.720255  4283 net.cpp:382] conv1 -> conv1
I0428 20:33:22.722586  4283 net.cpp:124] Setting up conv1
I0428 20:33:22.722602  4283 net.cpp:131] Top shape: 64 25 8 8 (102400)
I0428 20:33:22.722606  4283 net.cpp:139] Memory required for data: 19042560
I0428 20:33:22.722615  4283 layer_factory.hpp:77] Creating layer pool1
I0428 20:33:22.722623  4283 net.cpp:86] Creating Layer pool1
I0428 20:33:22.722628  4283 net.cpp:408] pool1 <- conv1
I0428 20:33:22.722633  4283 net.cpp:382] pool1 -> pool1
I0428 20:33:22.722671  4283 net.cpp:124] Setting up pool1
I0428 20:33:22.722679  4283 net.cpp:131] Top shape: 64 25 4 4 (25600)
I0428 20:33:22.722682  4283 net.cpp:139] Memory required for data: 19144960
I0428 20:33:22.722685  4283 layer_factory.hpp:77] Creating layer ip1
I0428 20:33:22.722694  4283 net.cpp:86] Creating Layer ip1
I0428 20:33:22.722697  4283 net.cpp:408] ip1 <- pool1
I0428 20:33:22.722702  4283 net.cpp:382] ip1 -> ip1
I0428 20:33:22.723731  4283 net.cpp:124] Setting up ip1
I0428 20:33:22.723744  4283 net.cpp:131] Top shape: 64 25 (1600)
I0428 20:33:22.723747  4283 net.cpp:139] Memory required for data: 19151360
I0428 20:33:22.723757  4283 layer_factory.hpp:77] Creating layer relu1
I0428 20:33:22.723763  4283 net.cpp:86] Creating Layer relu1
I0428 20:33:22.723768  4283 net.cpp:408] relu1 <- ip1
I0428 20:33:22.723773  4283 net.cpp:369] relu1 -> ip1 (in-place)
I0428 20:33:22.723945  4283 net.cpp:124] Setting up relu1
I0428 20:33:22.723955  4283 net.cpp:131] Top shape: 64 25 (1600)
I0428 20:33:22.723959  4283 net.cpp:139] Memory required for data: 19157760
I0428 20:33:22.723963  4283 layer_factory.hpp:77] Creating layer ip2
I0428 20:33:22.723969  4283 net.cpp:86] Creating Layer ip2
I0428 20:33:22.723973  4283 net.cpp:408] ip2 <- ip1
I0428 20:33:22.723978  4283 net.cpp:382] ip2 -> ip2
I0428 20:33:22.724094  4283 net.cpp:124] Setting up ip2
I0428 20:33:22.724102  4283 net.cpp:131] Top shape: 64 50 (3200)
I0428 20:33:22.724105  4283 net.cpp:139] Memory required for data: 19170560
I0428 20:33:22.724112  4283 layer_factory.hpp:77] Creating layer relu2
I0428 20:33:22.724118  4283 net.cpp:86] Creating Layer relu2
I0428 20:33:22.724122  4283 net.cpp:408] relu2 <- ip2
I0428 20:33:22.724126  4283 net.cpp:369] relu2 -> ip2 (in-place)
I0428 20:33:22.724884  4283 net.cpp:124] Setting up relu2
I0428 20:33:22.724898  4283 net.cpp:131] Top shape: 64 50 (3200)
I0428 20:33:22.724902  4283 net.cpp:139] Memory required for data: 19183360
I0428 20:33:22.724906  4283 layer_factory.hpp:77] Creating layer ip3
I0428 20:33:22.724913  4283 net.cpp:86] Creating Layer ip3
I0428 20:33:22.724917  4283 net.cpp:408] ip3 <- ip2
I0428 20:33:22.724925  4283 net.cpp:382] ip3 -> ip3
I0428 20:33:22.725030  4283 net.cpp:124] Setting up ip3
I0428 20:33:22.725039  4283 net.cpp:131] Top shape: 64 10 (640)
I0428 20:33:22.725041  4283 net.cpp:139] Memory required for data: 19185920
I0428 20:33:22.725050  4283 layer_factory.hpp:77] Creating layer relu3
I0428 20:33:22.725056  4283 net.cpp:86] Creating Layer relu3
I0428 20:33:22.725059  4283 net.cpp:408] relu3 <- ip3
I0428 20:33:22.725080  4283 net.cpp:369] relu3 -> ip3 (in-place)
I0428 20:33:22.725235  4283 net.cpp:124] Setting up relu3
I0428 20:33:22.725244  4283 net.cpp:131] Top shape: 64 10 (640)
I0428 20:33:22.725248  4283 net.cpp:139] Memory required for data: 19188480
I0428 20:33:22.725251  4283 layer_factory.hpp:77] Creating layer loss
I0428 20:33:22.725263  4283 net.cpp:86] Creating Layer loss
I0428 20:33:22.725268  4283 net.cpp:408] loss <- ip3
I0428 20:33:22.725272  4283 net.cpp:408] loss <- label
I0428 20:33:22.725280  4283 net.cpp:382] loss -> loss
I0428 20:33:22.725293  4283 layer_factory.hpp:77] Creating layer loss
…
I0428 20:33:22.725946  4283 solver.cpp:173] Creating test net (#0) specified by net file: ECE595/mnist/train_test/var_everything2/lenet_train_test1587.prototxt
I0428 20:33:22.725975  4283 net.cpp:296] The NetState phase (1) differed from the phase (0) specified by a rule in layer mnist
I0428 20:33:22.726070  4283 net.cpp:53] Initializing net from parameters: 
name: "LeNet"
state {
  phase: TEST
}
layer {
  name: "mnist"
  type: "Data"
  top: "data"
  top: "label"
  include {
    phase: TEST
  }
  transform_param {
    scale: 0.00390625
  }
  data_param {
    source: "examples/mnist/mnist_test_lmdb"
    batch_size: 100
    backend: LMDB
  }
}
layer {
  name: "conv0"
  type: "Convolution"
  bottom: "data"
  top: "conv0"
  param {
    lr_mult: 1
  }
  param {
    lr_mult: 2
  }
  convolution_param {
    num_output: 100
    kernel_size: 5
    stride: 1
    weight_filler {
      type: "xavier"
    }
    bias_filler {
      type: "constant"
    }
  }
}
layer {
  name: "pool0"
  type: "Pooling"
  bottom: "conv0"
  top: "pool0"
  pooling_param {
    pool: MAX
    kernel_size: 2
    stride: 2
  }
}
layer {
  name: "conv1"
  type: "Convolution"
  bottom: "pool0"
  top: "conv1"
  param {
    lr_mult: 1
  }
  param {
    lr_mult: 2
  }
  convolution_param {
    num_output: 25
    kernel_size: 5
    stride: 1
    weight_filler {
      type: "xavier"
    }
    bias_filler {
      type: "constant"
    }
  }
}
layer {
  name: "pool1"
  type: "Pooling"
  bottom: "conv1"
  top: "pool1"
  pooling_param {
    pool: MAX
    kernel_size: 2
    stride: 2
  }
}
layer {
  name: "ip1"
  type: "InnerProduct"
  bottom: "pool1"
  top: "ip1"
  param {
    lr_mult: 1
  }
  param {
    lr_mult: 2
  }
  inner_product_param {
    num_output: 25
    weight_filler {
      type: "xavier"
    }
    bias_filler {
      type: "constant"
    }
  }
}
layer {
  name: "relu1"
  type: "ReLU"
  bottom: "ip1"
  top: "ip1"
}
layer {
  name: "ip2"
  type: "InnerProduct"
  bottom: "ip1"
  top: "ip2"
  param {
    lr_mult: 1
  }
  param {
    lr_mult: 2
  }
  inner_product_param {
    num_output: 50
    weight_filler {
      type: "xavier"
    }
    bias_filler {
      type: "constant"
    }
  }
}
layer {
  name: "relu2"
  type: "ReLU"
  bottom: "ip2"
  top: "ip2"
}
layer {
  name: "ip3"
  type: "InnerProduct"
  bottom: "ip2"
  top: "ip3"
  param {
    lr_mult: 1
  }
  param {
    lr_mult: 2
  }
  inner_product_param {
    num_output: 10
    weight_filler {
      type: "xavier"
    }
    bias_filler {
      type: "constant"
    }
  }
}
layer {
  name: "relu3"
  type: "ReLU"
  bottom: "ip3"
  top: "ip3"
}
layer {
  name: "accuracy"
  type: "Accuracy"
  bottom: "ip3"
  bottom: "label"
  top: "accuracy"
  include {
    phase: TEST
  }
}
layer {
  name: "loss"
  type: "SoftmaxWithLoss"
  bottom: "ip3"
  bottom: "label"
  top: "loss"
}
I0428 20:33:22.726153  4283 layer_factory.hpp:77] Creating layer mnist
I0428 20:33:22.726200  4283 db_lmdb.cpp:35] Opened lmdb examples/mnist/mnist_test_lmdb
I0428 20:33:22.726213  4283 net.cpp:86] Creating Layer mnist
I0428 20:33:22.726218  4283 net.cpp:382] mnist -> data
I0428 20:33:22.726227  4283 net.cpp:382] mnist -> label
I0428 20:33:22.726317  4283 data_layer.cpp:45] output data size: 100,1,28,28
I0428 20:33:22.728305  4283 net.cpp:124] Setting up mnist
I0428 20:33:22.728319  4283 net.cpp:131] Top shape: 100 1 28 28 (78400)
I0428 20:33:22.728325  4283 net.cpp:131] Top shape: 100 (100)
I0428 20:33:22.728329  4283 net.cpp:139] Memory required for data: 314000
I0428 20:33:22.728333  4283 layer_factory.hpp:77] Creating layer label_mnist_1_split
I0428 20:33:22.728340  4283 net.cpp:86] Creating Layer label_mnist_1_split
I0428 20:33:22.728344  4283 net.cpp:408] label_mnist_1_split <- label
I0428 20:33:22.728350  4283 net.cpp:382] label_mnist_1_split -> label_mnist_1_split_0
I0428 20:33:22.728358  4283 net.cpp:382] label_mnist_1_split -> label_mnist_1_split_1
I0428 20:33:22.728451  4283 net.cpp:124] Setting up label_mnist_1_split
I0428 20:33:22.728458  4283 net.cpp:131] Top shape: 100 (100)
I0428 20:33:22.728462  4283 net.cpp:131] Top shape: 100 (100)
I0428 20:33:22.728466  4283 net.cpp:139] Memory required for data: 314800
I0428 20:33:22.728469  4283 layer_factory.hpp:77] Creating layer conv0
I0428 20:33:22.728478  4283 net.cpp:86] Creating Layer conv0
I0428 20:33:22.728482  4283 net.cpp:408] conv0 <- data
I0428 20:33:22.728488  4283 net.cpp:382] conv0 -> conv0
I0428 20:33:22.730021  4283 net.cpp:124] Setting up conv0
I0428 20:33:22.730036  4283 net.cpp:131] Top shape: 100 100 24 24 (5760000)
I0428 20:33:22.730041  4283 net.cpp:139] Memory required for data: 23354800
I0428 20:33:22.730051  4283 layer_factory.hpp:77] Creating layer pool0
I0428 20:33:22.730057  4283 net.cpp:86] Creating Layer pool0
I0428 20:33:22.730062  4283 net.cpp:408] pool0 <- conv0
I0428 20:33:22.730067  4283 net.cpp:382] pool0 -> pool0
I0428 20:33:22.730103  4283 net.cpp:124] Setting up pool0
I0428 20:33:22.730113  4283 net.cpp:131] Top shape: 100 100 12 12 (1440000)
I0428 20:33:22.730115  4283 net.cpp:139] Memory required for data: 29114800
I0428 20:33:22.730119  4283 layer_factory.hpp:77] Creating layer conv1
I0428 20:33:22.730129  4283 net.cpp:86] Creating Layer conv1
I0428 20:33:22.730132  4283 net.cpp:408] conv1 <- pool0
I0428 20:33:22.730137  4283 net.cpp:382] conv1 -> conv1
I0428 20:33:22.731997  4283 net.cpp:124] Setting up conv1
I0428 20:33:22.732012  4283 net.cpp:131] Top shape: 100 25 8 8 (160000)
I0428 20:33:22.732017  4283 net.cpp:139] Memory required for data: 29754800
I0428 20:33:22.732025  4283 layer_factory.hpp:77] Creating layer pool1
I0428 20:33:22.732033  4283 net.cpp:86] Creating Layer pool1
I0428 20:33:22.732036  4283 net.cpp:408] pool1 <- conv1
I0428 20:33:22.732043  4283 net.cpp:382] pool1 -> pool1
I0428 20:33:22.732079  4283 net.cpp:124] Setting up pool1
I0428 20:33:22.732087  4283 net.cpp:131] Top shape: 100 25 4 4 (40000)
I0428 20:33:22.732090  4283 net.cpp:139] Memory required for data: 29914800
I0428 20:33:22.732095  4283 layer_factory.hpp:77] Creating layer ip1
I0428 20:33:22.732100  4283 net.cpp:86] Creating Layer ip1
I0428 20:33:22.732105  4283 net.cpp:408] ip1 <- pool1
I0428 20:33:22.732110  4283 net.cpp:382] ip1 -> ip1
I0428 20:33:22.732288  4283 net.cpp:124] Setting up ip1
I0428 20:33:22.732308  4283 net.cpp:131] Top shape: 100 25 (2500)
I0428 20:33:22.732312  4283 net.cpp:139] Memory required for data: 29924800
I0428 20:33:22.732321  4283 layer_factory.hpp:77] Creating layer relu1
I0428 20:33:22.732326  4283 net.cpp:86] Creating Layer relu1
I0428 20:33:22.732329  4283 net.cpp:408] relu1 <- ip1
I0428 20:33:22.732334  4283 net.cpp:369] relu1 -> ip1 (in-place)
I0428 20:33:22.732506  4283 net.cpp:124] Setting up relu1
I0428 20:33:22.732514  4283 net.cpp:131] Top shape: 100 25 (2500)
I0428 20:33:22.732518  4283 net.cpp:139] Memory required for data: 29934800
I0428 20:33:22.732522  4283 layer_factory.hpp:77] Creating layer ip2
I0428 20:33:22.732529  4283 net.cpp:86] Creating Layer ip2
I0428 20:33:22.732533  4283 net.cpp:408] ip2 <- ip1
I0428 20:33:22.732538  4283 net.cpp:382] ip2 -> ip2
I0428 20:33:22.732650  4283 net.cpp:124] Setting up ip2
I0428 20:33:22.732657  4283 net.cpp:131] Top shape: 100 50 (5000)
I0428 20:33:22.732661  4283 net.cpp:139] Memory required for data: 29954800
I0428 20:33:22.732666  4283 layer_factory.hpp:77] Creating layer relu2
I0428 20:33:22.732671  4283 net.cpp:86] Creating Layer relu2
I0428 20:33:22.732676  4283 net.cpp:408] relu2 <- ip2
I0428 20:33:22.732681  4283 net.cpp:369] relu2 -> ip2 (in-place)
I0428 20:33:22.732841  4283 net.cpp:124] Setting up relu2
I0428 20:33:22.732851  4283 net.cpp:131] Top shape: 100 50 (5000)
I0428 20:33:22.732854  4283 net.cpp:139] Memory required for data: 29974800
I0428 20:33:22.732857  4283 layer_factory.hpp:77] Creating layer ip3
I0428 20:33:22.732872  4283 net.cpp:86] Creating Layer ip3
I0428 20:33:22.732874  4283 net.cpp:408] ip3 <- ip2
I0428 20:33:22.732880  4283 net.cpp:382] ip3 -> ip3
I0428 20:33:22.733057  4283 net.cpp:124] Setting up ip3
I0428 20:33:22.733064  4283 net.cpp:131] Top shape: 100 10 (1000)
I0428 20:33:22.733067  4283 net.cpp:139] Memory required for data: 29978800
I0428 20:33:22.733075  4283 layer_factory.hpp:77] Creating layer relu3
I0428 20:33:22.733081  4283 net.cpp:86] Creating Layer relu3
I0428 20:33:22.733084  4283 net.cpp:408] relu3 <- ip3
I0428 20:33:22.733088  4283 net.cpp:369] relu3 -> ip3 (in-place)
I0428 20:33:22.733855  4283 net.cpp:124] Setting up relu3
I0428 20:33:22.733867  4283 net.cpp:131] Top shape: 100 10 (1000)
I0428 20:33:22.733871  4283 net.cpp:139] Memory required for data: 29982800
I0428 20:33:22.733875  4283 layer_factory.hpp:77] Creating layer ip3_relu3_0_split
I0428 20:33:22.733881  4283 net.cpp:86] Creating Layer ip3_relu3_0_split
I0428 20:33:22.733885  4283 net.cpp:408] ip3_relu3_0_split <- ip3
I0428 20:33:22.733891  4283 net.cpp:382] ip3_relu3_0_split -> ip3_relu3_0_split_0
I0428 20:33:22.733896  4283 net.cpp:382] ip3_relu3_0_split -> ip3_relu3_0_split_1
I0428 20:33:22.733932  4283 net.cpp:124] Setting up ip3_relu3_0_split
I0428 20:33:22.733939  4283 net.cpp:131] Top shape: 100 10 (1000)
I0428 20:33:22.733943  4283 net.cpp:131] Top shape: 100 10 (1000)
I0428 20:33:22.733947  4283 net.cpp:139] Memory required for data: 29990800
I0428 20:33:22.733949  4283 layer_factory.hpp:77] Creating layer accuracy
I0428 20:33:22.733955  4283 net.cpp:86] Creating Layer accuracy
I0428 20:33:22.733958  4283 net.cpp:408] accuracy <- ip3_relu3_0_split_0
I0428 20:33:22.733963  4283 net.cpp:408] accuracy <- label_mnist_1_split_0
I0428 20:33:22.733968  4283 net.cpp:382] accuracy -> accuracy
…
