…
I0428 20:15:33.443078   468 net.cpp:296] The NetState phase (0) differed from the phase (1) specified by a rule in layer mnist
I0428 20:15:33.443106   468 net.cpp:296] The NetState phase (0) differed from the phase (1) specified by a rule in layer accuracy
I0428 20:15:33.443189   468 net.cpp:53] Initializing net from parameters: 
name: "LeNet"
state {
  phase: TRAIN
  level: 0
  stage: ""
}
layer {
  name: "mnist"
  type: "Data"
  top: "data"
  top: "label"
  include {
    phase: TRAIN
  }
  transform_param {
    scale: 0.00390625
  }
  data_param {
    source: "examples/mnist/mnist_train_lmdb"
    batch_size: 64
    backend: LMDB
  }
}
layer {
  name: "conv0"
  type: "Convolution"
  bottom: "data"
  top: "conv0"
  param {
    lr_mult: 1
  }
  param {
    lr_mult: 2
  }
  convolution_param {
    num_output: 50
    kernel_size: 5
    stride: 1
    weight_filler {
      type: "xavier"
    }
    bias_filler {
      type: "constant"
    }
  }
}
layer {
  name: "pool0"
  type: "Pooling"
  bottom: "conv0"
  top: "pool0"
  pooling_param {
    pool: MAX
    kernel_size: 2
    stride: 2
  }
}
layer {
  name: "conv1"
  type: "Convolution"
  bottom: "pool0"
  top: "conv1"
  param {
    lr_mult: 1
  }
  param {
    lr_mult: 2
  }
  convolution_param {
    num_output: 5
    kernel_size: 5
    stride: 1
    weight_filler {
      type: "xavier"
    }
    bias_filler {
      type: "constant"
    }
  }
}
layer {
  name: "pool1"
  type: "Pooling"
  bottom: "conv1"
  top: "pool1"
  pooling_param {
    pool: MAX
    kernel_size: 2
    stride: 2
  }
}
layer {
  name: "ip1"
  type: "InnerProduct"
  bottom: "pool1"
  top: "ip1"
  param {
    lr_mult: 1
  }
  param {
    lr_mult: 2
  }
  inner_product_param {
    num_output: 10
    weight_filler {
      type: "xavier"
    }
    bias_filler {
      type: "constant"
    }
  }
}
layer {
  name: "relu1"
  type: "ReLU"
  bottom: "ip1"
  top: "ip1"
}
layer {
  name: "loss"
  type: "SoftmaxWithLoss"
  bottom: "ip1"
  bottom: "label"
  top: "loss"
}
I0428 20:15:33.443248   468 layer_factory.hpp:77] Creating layer mnist
I0428 20:15:33.443346   468 db_lmdb.cpp:35] Opened lmdb examples/mnist/mnist_train_lmdb
I0428 20:15:33.443368   468 net.cpp:86] Creating Layer mnist
I0428 20:15:33.443374   468 net.cpp:382] mnist -> data
I0428 20:15:33.443393   468 net.cpp:382] mnist -> label
I0428 20:15:33.444394   468 data_layer.cpp:45] output data size: 64,1,28,28
I0428 20:15:33.446789   468 net.cpp:124] Setting up mnist
I0428 20:15:33.446821   468 net.cpp:131] Top shape: 64 1 28 28 (50176)
I0428 20:15:33.446838   468 net.cpp:131] Top shape: 64 (64)
I0428 20:15:33.446842   468 net.cpp:139] Memory required for data: 200960
I0428 20:15:33.446848   468 layer_factory.hpp:77] Creating layer conv0
I0428 20:15:33.446861   468 net.cpp:86] Creating Layer conv0
I0428 20:15:33.446866   468 net.cpp:408] conv0 <- data
I0428 20:15:33.446877   468 net.cpp:382] conv0 -> conv0
I0428 20:15:33.677438   468 net.cpp:124] Setting up conv0
I0428 20:15:33.677479   468 net.cpp:131] Top shape: 64 50 24 24 (1843200)
I0428 20:15:33.677484   468 net.cpp:139] Memory required for data: 7573760
I0428 20:15:33.677500   468 layer_factory.hpp:77] Creating layer pool0
I0428 20:15:33.677512   468 net.cpp:86] Creating Layer pool0
I0428 20:15:33.677516   468 net.cpp:408] pool0 <- conv0
I0428 20:15:33.677521   468 net.cpp:382] pool0 -> pool0
I0428 20:15:33.677582   468 net.cpp:124] Setting up pool0
I0428 20:15:33.677588   468 net.cpp:131] Top shape: 64 50 12 12 (460800)
I0428 20:15:33.677606   468 net.cpp:139] Memory required for data: 9416960
I0428 20:15:33.677610   468 layer_factory.hpp:77] Creating layer conv1
I0428 20:15:33.677620   468 net.cpp:86] Creating Layer conv1
I0428 20:15:33.677623   468 net.cpp:408] conv1 <- pool0
I0428 20:15:33.677628   468 net.cpp:382] conv1 -> conv1
I0428 20:15:33.680392   468 net.cpp:124] Setting up conv1
I0428 20:15:33.680407   468 net.cpp:131] Top shape: 64 5 8 8 (20480)
I0428 20:15:33.680410   468 net.cpp:139] Memory required for data: 9498880
I0428 20:15:33.680418   468 layer_factory.hpp:77] Creating layer pool1
I0428 20:15:33.680425   468 net.cpp:86] Creating Layer pool1
I0428 20:15:33.680429   468 net.cpp:408] pool1 <- conv1
I0428 20:15:33.680434   468 net.cpp:382] pool1 -> pool1
I0428 20:15:33.680488   468 net.cpp:124] Setting up pool1
I0428 20:15:33.680493   468 net.cpp:131] Top shape: 64 5 4 4 (5120)
I0428 20:15:33.680496   468 net.cpp:139] Memory required for data: 9519360
I0428 20:15:33.680500   468 layer_factory.hpp:77] Creating layer ip1
I0428 20:15:33.680506   468 net.cpp:86] Creating Layer ip1
I0428 20:15:33.680510   468 net.cpp:408] ip1 <- pool1
I0428 20:15:33.680513   468 net.cpp:382] ip1 -> ip1
I0428 20:15:33.680604   468 net.cpp:124] Setting up ip1
I0428 20:15:33.680613   468 net.cpp:131] Top shape: 64 10 (640)
I0428 20:15:33.680615   468 net.cpp:139] Memory required for data: 9521920
I0428 20:15:33.680622   468 layer_factory.hpp:77] Creating layer relu1
I0428 20:15:33.680627   468 net.cpp:86] Creating Layer relu1
I0428 20:15:33.680630   468 net.cpp:408] relu1 <- ip1
I0428 20:15:33.680634   468 net.cpp:369] relu1 -> ip1 (in-place)
I0428 20:15:33.680831   468 net.cpp:124] Setting up relu1
I0428 20:15:33.680841   468 net.cpp:131] Top shape: 64 10 (640)
I0428 20:15:33.680845   468 net.cpp:139] Memory required for data: 9524480
I0428 20:15:33.680848   468 layer_factory.hpp:77] Creating layer loss
I0428 20:15:33.680855   468 net.cpp:86] Creating Layer loss
I0428 20:15:33.680873   468 net.cpp:408] loss <- ip1
I0428 20:15:33.680878   468 net.cpp:408] loss <- label
I0428 20:15:33.680899   468 net.cpp:382] loss -> loss
I0428 20:15:33.680917   468 layer_factory.hpp:77] Creating layer loss
…
I0428 20:15:33.682128   468 solver.cpp:173] Creating test net (#0) specified by net file: ECE595/mnist/train_test/var_everything2/lenet_train_test1249.prototxt
I0428 20:15:33.682168   468 net.cpp:296] The NetState phase (1) differed from the phase (0) specified by a rule in layer mnist
I0428 20:15:33.682240   468 net.cpp:53] Initializing net from parameters: 
name: "LeNet"
state {
  phase: TEST
}
layer {
  name: "mnist"
  type: "Data"
  top: "data"
  top: "label"
  include {
    phase: TEST
  }
  transform_param {
    scale: 0.00390625
  }
  data_param {
    source: "examples/mnist/mnist_test_lmdb"
    batch_size: 100
    backend: LMDB
  }
}
layer {
  name: "conv0"
  type: "Convolution"
  bottom: "data"
  top: "conv0"
  param {
    lr_mult: 1
  }
  param {
    lr_mult: 2
  }
  convolution_param {
    num_output: 50
    kernel_size: 5
    stride: 1
    weight_filler {
      type: "xavier"
    }
    bias_filler {
      type: "constant"
    }
  }
}
layer {
  name: "pool0"
  type: "Pooling"
  bottom: "conv0"
  top: "pool0"
  pooling_param {
    pool: MAX
    kernel_size: 2
    stride: 2
  }
}
layer {
  name: "conv1"
  type: "Convolution"
  bottom: "pool0"
  top: "conv1"
  param {
    lr_mult: 1
  }
  param {
    lr_mult: 2
  }
  convolution_param {
    num_output: 5
    kernel_size: 5
    stride: 1
    weight_filler {
      type: "xavier"
    }
    bias_filler {
      type: "constant"
    }
  }
}
layer {
  name: "pool1"
  type: "Pooling"
  bottom: "conv1"
  top: "pool1"
  pooling_param {
    pool: MAX
    kernel_size: 2
    stride: 2
  }
}
layer {
  name: "ip1"
  type: "InnerProduct"
  bottom: "pool1"
  top: "ip1"
  param {
    lr_mult: 1
  }
  param {
    lr_mult: 2
  }
  inner_product_param {
    num_output: 10
    weight_filler {
      type: "xavier"
    }
    bias_filler {
      type: "constant"
    }
  }
}
layer {
  name: "relu1"
  type: "ReLU"
  bottom: "ip1"
  top: "ip1"
}
layer {
  name: "accuracy"
  type: "Accuracy"
  bottom: "ip1"
  bottom: "label"
  top: "accuracy"
  include {
    phase: TEST
  }
}
layer {
  name: "loss"
  type: "SoftmaxWithLoss"
  bottom: "ip1"
  bottom: "label"
  top: "loss"
}
I0428 20:15:33.682312   468 layer_factory.hpp:77] Creating layer mnist
I0428 20:15:33.682356   468 db_lmdb.cpp:35] Opened lmdb examples/mnist/mnist_test_lmdb
I0428 20:15:33.682371   468 net.cpp:86] Creating Layer mnist
I0428 20:15:33.682376   468 net.cpp:382] mnist -> data
I0428 20:15:33.682384   468 net.cpp:382] mnist -> label
I0428 20:15:33.682463   468 data_layer.cpp:45] output data size: 100,1,28,28
I0428 20:15:33.684512   468 net.cpp:124] Setting up mnist
I0428 20:15:33.684556   468 net.cpp:131] Top shape: 100 1 28 28 (78400)
I0428 20:15:33.684562   468 net.cpp:131] Top shape: 100 (100)
I0428 20:15:33.684566   468 net.cpp:139] Memory required for data: 314000
I0428 20:15:33.684569   468 layer_factory.hpp:77] Creating layer label_mnist_1_split
I0428 20:15:33.684579   468 net.cpp:86] Creating Layer label_mnist_1_split
I0428 20:15:33.684583   468 net.cpp:408] label_mnist_1_split <- label
I0428 20:15:33.684588   468 net.cpp:382] label_mnist_1_split -> label_mnist_1_split_0
I0428 20:15:33.684594   468 net.cpp:382] label_mnist_1_split -> label_mnist_1_split_1
I0428 20:15:33.684713   468 net.cpp:124] Setting up label_mnist_1_split
I0428 20:15:33.684721   468 net.cpp:131] Top shape: 100 (100)
I0428 20:15:33.684725   468 net.cpp:131] Top shape: 100 (100)
I0428 20:15:33.684728   468 net.cpp:139] Memory required for data: 314800
I0428 20:15:33.684731   468 layer_factory.hpp:77] Creating layer conv0
I0428 20:15:33.684741   468 net.cpp:86] Creating Layer conv0
I0428 20:15:33.684743   468 net.cpp:408] conv0 <- data
I0428 20:15:33.684748   468 net.cpp:382] conv0 -> conv0
I0428 20:15:33.685575   468 net.cpp:124] Setting up conv0
I0428 20:15:33.685586   468 net.cpp:131] Top shape: 100 50 24 24 (2880000)
I0428 20:15:33.685590   468 net.cpp:139] Memory required for data: 11834800
I0428 20:15:33.685614   468 layer_factory.hpp:77] Creating layer pool0
I0428 20:15:33.685621   468 net.cpp:86] Creating Layer pool0
I0428 20:15:33.685626   468 net.cpp:408] pool0 <- conv0
I0428 20:15:33.685629   468 net.cpp:382] pool0 -> pool0
I0428 20:15:33.685664   468 net.cpp:124] Setting up pool0
I0428 20:15:33.685672   468 net.cpp:131] Top shape: 100 50 12 12 (720000)
I0428 20:15:33.685674   468 net.cpp:139] Memory required for data: 14714800
I0428 20:15:33.685678   468 layer_factory.hpp:77] Creating layer conv1
I0428 20:15:33.685688   468 net.cpp:86] Creating Layer conv1
I0428 20:15:33.685691   468 net.cpp:408] conv1 <- pool0
I0428 20:15:33.685698   468 net.cpp:382] conv1 -> conv1
I0428 20:15:33.687394   468 net.cpp:124] Setting up conv1
I0428 20:15:33.687408   468 net.cpp:131] Top shape: 100 5 8 8 (32000)
I0428 20:15:33.687429   468 net.cpp:139] Memory required for data: 14842800
I0428 20:15:33.687439   468 layer_factory.hpp:77] Creating layer pool1
I0428 20:15:33.687448   468 net.cpp:86] Creating Layer pool1
I0428 20:15:33.687461   468 net.cpp:408] pool1 <- conv1
I0428 20:15:33.687467   468 net.cpp:382] pool1 -> pool1
I0428 20:15:33.687535   468 net.cpp:124] Setting up pool1
I0428 20:15:33.687556   468 net.cpp:131] Top shape: 100 5 4 4 (8000)
I0428 20:15:33.687561   468 net.cpp:139] Memory required for data: 14874800
I0428 20:15:33.687566   468 layer_factory.hpp:77] Creating layer ip1
I0428 20:15:33.687577   468 net.cpp:86] Creating Layer ip1
I0428 20:15:33.687582   468 net.cpp:408] ip1 <- pool1
I0428 20:15:33.687592   468 net.cpp:382] ip1 -> ip1
I0428 20:15:33.687721   468 net.cpp:124] Setting up ip1
I0428 20:15:33.687731   468 net.cpp:131] Top shape: 100 10 (1000)
I0428 20:15:33.687734   468 net.cpp:139] Memory required for data: 14878800
I0428 20:15:33.687742   468 layer_factory.hpp:77] Creating layer relu1
I0428 20:15:33.687748   468 net.cpp:86] Creating Layer relu1
I0428 20:15:33.687752   468 net.cpp:408] relu1 <- ip1
I0428 20:15:33.687757   468 net.cpp:369] relu1 -> ip1 (in-place)
I0428 20:15:33.688635   468 net.cpp:124] Setting up relu1
I0428 20:15:33.688648   468 net.cpp:131] Top shape: 100 10 (1000)
I0428 20:15:33.688668   468 net.cpp:139] Memory required for data: 14882800
I0428 20:15:33.688674   468 layer_factory.hpp:77] Creating layer ip1_relu1_0_split
I0428 20:15:33.688684   468 net.cpp:86] Creating Layer ip1_relu1_0_split
I0428 20:15:33.688688   468 net.cpp:408] ip1_relu1_0_split <- ip1
I0428 20:15:33.688694   468 net.cpp:382] ip1_relu1_0_split -> ip1_relu1_0_split_0
I0428 20:15:33.688699   468 net.cpp:382] ip1_relu1_0_split -> ip1_relu1_0_split_1
I0428 20:15:33.688740   468 net.cpp:124] Setting up ip1_relu1_0_split
I0428 20:15:33.688760   468 net.cpp:131] Top shape: 100 10 (1000)
I0428 20:15:33.688765   468 net.cpp:131] Top shape: 100 10 (1000)
I0428 20:15:33.688767   468 net.cpp:139] Memory required for data: 14890800
I0428 20:15:33.688771   468 layer_factory.hpp:77] Creating layer accuracy
I0428 20:15:33.688776   468 net.cpp:86] Creating Layer accuracy
I0428 20:15:33.688778   468 net.cpp:408] accuracy <- ip1_relu1_0_split_0
I0428 20:15:33.688783   468 net.cpp:408] accuracy <- label_mnist_1_split_0
I0428 20:15:33.688789   468 net.cpp:382] accuracy -> accuracy
…
