…
I0428 19:31:57.416870 22716 net.cpp:296] The NetState phase (0) differed from the phase (1) specified by a rule in layer mnist
I0428 19:31:57.416891 22716 net.cpp:296] The NetState phase (0) differed from the phase (1) specified by a rule in layer accuracy
I0428 19:31:57.416991 22716 net.cpp:53] Initializing net from parameters: 
name: "LeNet"
state {
  phase: TRAIN
  level: 0
  stage: ""
}
layer {
  name: "mnist"
  type: "Data"
  top: "data"
  top: "label"
  include {
    phase: TRAIN
  }
  transform_param {
    scale: 0.00390625
  }
  data_param {
    source: "examples/mnist/mnist_train_lmdb"
    batch_size: 64
    backend: LMDB
  }
}
layer {
  name: "conv0"
  type: "Convolution"
  bottom: "data"
  top: "conv0"
  param {
    lr_mult: 1
  }
  param {
    lr_mult: 2
  }
  convolution_param {
    num_output: 10
    kernel_size: 5
    stride: 1
    weight_filler {
      type: "xavier"
    }
    bias_filler {
      type: "constant"
    }
  }
}
layer {
  name: "pool0"
  type: "Pooling"
  bottom: "conv0"
  top: "pool0"
  pooling_param {
    pool: MAX
    kernel_size: 2
    stride: 2
  }
}
layer {
  name: "ip1"
  type: "InnerProduct"
  bottom: "pool0"
  top: "ip1"
  param {
    lr_mult: 1
  }
  param {
    lr_mult: 2
  }
  inner_product_param {
    num_output: 25
    weight_filler {
      type: "xavier"
    }
    bias_filler {
      type: "constant"
    }
  }
}
layer {
  name: "relu1"
  type: "ReLU"
  bottom: "ip1"
  top: "ip1"
}
layer {
  name: "ip2"
  type: "InnerProduct"
  bottom: "ip1"
  top: "ip2"
  param {
    lr_mult: 1
  }
  param {
    lr_mult: 2
  }
  inner_product_param {
    num_output: 10
    weight_filler {
      type: "xavier"
    }
    bias_filler {
      type: "constant"
    }
  }
}
layer {
  name: "relu2"
  type: "ReLU"
  bottom: "ip2"
  top: "ip2"
}
layer {
  name: "ip3"
  type: "InnerProduct"
  bottom: "ip2"
  top: "ip3"
  param {
    lr_mult: 1
  }
  param {
    lr_mult: 2
  }
  inner_product_param {
    num_output: 10
    weight_filler {
      type: "xavier"
    }
    bias_filler {
      type: "constant"
    }
  }
}
layer {
  name: "relu3"
  type: "ReLU"
  bottom: "ip3"
  top: "ip3"
}
layer {
  name: "loss"
  type: "SoftmaxWithLoss"
  bottom: "ip3"
  bottom: "label"
  top: "loss"
}
I0428 19:31:57.417099 22716 layer_factory.hpp:77] Creating layer mnist
I0428 19:31:57.417229 22716 db_lmdb.cpp:35] Opened lmdb examples/mnist/mnist_train_lmdb
I0428 19:31:57.417263 22716 net.cpp:86] Creating Layer mnist
I0428 19:31:57.417276 22716 net.cpp:382] mnist -> data
I0428 19:31:57.417306 22716 net.cpp:382] mnist -> label
I0428 19:31:57.418539 22716 data_layer.cpp:45] output data size: 64,1,28,28
I0428 19:31:57.421010 22716 net.cpp:124] Setting up mnist
I0428 19:31:57.421030 22716 net.cpp:131] Top shape: 64 1 28 28 (50176)
I0428 19:31:57.421039 22716 net.cpp:131] Top shape: 64 (64)
I0428 19:31:57.421046 22716 net.cpp:139] Memory required for data: 200960
I0428 19:31:57.421056 22716 layer_factory.hpp:77] Creating layer conv0
I0428 19:31:57.421082 22716 net.cpp:86] Creating Layer conv0
I0428 19:31:57.421093 22716 net.cpp:408] conv0 <- data
I0428 19:31:57.421116 22716 net.cpp:382] conv0 -> conv0
I0428 19:31:57.704073 22716 net.cpp:124] Setting up conv0
I0428 19:31:57.704102 22716 net.cpp:131] Top shape: 64 10 24 24 (368640)
I0428 19:31:57.704109 22716 net.cpp:139] Memory required for data: 1675520
I0428 19:31:57.704129 22716 layer_factory.hpp:77] Creating layer pool0
I0428 19:31:57.704147 22716 net.cpp:86] Creating Layer pool0
I0428 19:31:57.704167 22716 net.cpp:408] pool0 <- conv0
I0428 19:31:57.704177 22716 net.cpp:382] pool0 -> pool0
I0428 19:31:57.704236 22716 net.cpp:124] Setting up pool0
I0428 19:31:57.704246 22716 net.cpp:131] Top shape: 64 10 12 12 (92160)
I0428 19:31:57.704251 22716 net.cpp:139] Memory required for data: 2044160
I0428 19:31:57.704255 22716 layer_factory.hpp:77] Creating layer ip1
I0428 19:31:57.704267 22716 net.cpp:86] Creating Layer ip1
I0428 19:31:57.704272 22716 net.cpp:408] ip1 <- pool0
I0428 19:31:57.704280 22716 net.cpp:382] ip1 -> ip1
I0428 19:31:57.704586 22716 net.cpp:124] Setting up ip1
I0428 19:31:57.704596 22716 net.cpp:131] Top shape: 64 25 (1600)
I0428 19:31:57.704601 22716 net.cpp:139] Memory required for data: 2050560
I0428 19:31:57.704612 22716 layer_factory.hpp:77] Creating layer relu1
I0428 19:31:57.704625 22716 net.cpp:86] Creating Layer relu1
I0428 19:31:57.704632 22716 net.cpp:408] relu1 <- ip1
I0428 19:31:57.704639 22716 net.cpp:369] relu1 -> ip1 (in-place)
I0428 19:31:57.704802 22716 net.cpp:124] Setting up relu1
I0428 19:31:57.704818 22716 net.cpp:131] Top shape: 64 25 (1600)
I0428 19:31:57.704823 22716 net.cpp:139] Memory required for data: 2056960
I0428 19:31:57.704829 22716 layer_factory.hpp:77] Creating layer ip2
I0428 19:31:57.704838 22716 net.cpp:86] Creating Layer ip2
I0428 19:31:57.704844 22716 net.cpp:408] ip2 <- ip1
I0428 19:31:57.704852 22716 net.cpp:382] ip2 -> ip2
I0428 19:31:57.704952 22716 net.cpp:124] Setting up ip2
I0428 19:31:57.704962 22716 net.cpp:131] Top shape: 64 10 (640)
I0428 19:31:57.704965 22716 net.cpp:139] Memory required for data: 2059520
I0428 19:31:57.704977 22716 layer_factory.hpp:77] Creating layer relu2
I0428 19:31:57.704985 22716 net.cpp:86] Creating Layer relu2
I0428 19:31:57.704991 22716 net.cpp:408] relu2 <- ip2
I0428 19:31:57.704998 22716 net.cpp:369] relu2 -> ip2 (in-place)
I0428 19:31:57.705773 22716 net.cpp:124] Setting up relu2
I0428 19:31:57.705802 22716 net.cpp:131] Top shape: 64 10 (640)
I0428 19:31:57.705808 22716 net.cpp:139] Memory required for data: 2062080
I0428 19:31:57.705813 22716 layer_factory.hpp:77] Creating layer ip3
I0428 19:31:57.705826 22716 net.cpp:86] Creating Layer ip3
I0428 19:31:57.705832 22716 net.cpp:408] ip3 <- ip2
I0428 19:31:57.705840 22716 net.cpp:382] ip3 -> ip3
I0428 19:31:57.705957 22716 net.cpp:124] Setting up ip3
I0428 19:31:57.705966 22716 net.cpp:131] Top shape: 64 10 (640)
I0428 19:31:57.705972 22716 net.cpp:139] Memory required for data: 2064640
I0428 19:31:57.705981 22716 layer_factory.hpp:77] Creating layer relu3
I0428 19:31:57.705991 22716 net.cpp:86] Creating Layer relu3
I0428 19:31:57.705997 22716 net.cpp:408] relu3 <- ip3
I0428 19:31:57.706004 22716 net.cpp:369] relu3 -> ip3 (in-place)
I0428 19:31:57.706157 22716 net.cpp:124] Setting up relu3
I0428 19:31:57.706167 22716 net.cpp:131] Top shape: 64 10 (640)
I0428 19:31:57.706172 22716 net.cpp:139] Memory required for data: 2067200
I0428 19:31:57.706176 22716 layer_factory.hpp:77] Creating layer loss
I0428 19:31:57.706185 22716 net.cpp:86] Creating Layer loss
I0428 19:31:57.706190 22716 net.cpp:408] loss <- ip3
I0428 19:31:57.706197 22716 net.cpp:408] loss <- label
I0428 19:31:57.706205 22716 net.cpp:382] loss -> loss
I0428 19:31:57.706228 22716 layer_factory.hpp:77] Creating layer loss
…
I0428 19:31:57.706907 22716 solver.cpp:173] Creating test net (#0) specified by net file: ECE595/mnist/train_test/var_everything2/lenet_train_test138.prototxt
I0428 19:31:57.706939 22716 net.cpp:296] The NetState phase (1) differed from the phase (0) specified by a rule in layer mnist
I0428 19:31:57.707021 22716 net.cpp:53] Initializing net from parameters: 
name: "LeNet"
state {
  phase: TEST
}
layer {
  name: "mnist"
  type: "Data"
  top: "data"
  top: "label"
  include {
    phase: TEST
  }
  transform_param {
    scale: 0.00390625
  }
  data_param {
    source: "examples/mnist/mnist_test_lmdb"
    batch_size: 100
    backend: LMDB
  }
}
layer {
  name: "conv0"
  type: "Convolution"
  bottom: "data"
  top: "conv0"
  param {
    lr_mult: 1
  }
  param {
    lr_mult: 2
  }
  convolution_param {
    num_output: 10
    kernel_size: 5
    stride: 1
    weight_filler {
      type: "xavier"
    }
    bias_filler {
      type: "constant"
    }
  }
}
layer {
  name: "pool0"
  type: "Pooling"
  bottom: "conv0"
  top: "pool0"
  pooling_param {
    pool: MAX
    kernel_size: 2
    stride: 2
  }
}
layer {
  name: "ip1"
  type: "InnerProduct"
  bottom: "pool0"
  top: "ip1"
  param {
    lr_mult: 1
  }
  param {
    lr_mult: 2
  }
  inner_product_param {
    num_output: 25
    weight_filler {
      type: "xavier"
    }
    bias_filler {
      type: "constant"
    }
  }
}
layer {
  name: "relu1"
  type: "ReLU"
  bottom: "ip1"
  top: "ip1"
}
layer {
  name: "ip2"
  type: "InnerProduct"
  bottom: "ip1"
  top: "ip2"
  param {
    lr_mult: 1
  }
  param {
    lr_mult: 2
  }
  inner_product_param {
    num_output: 10
    weight_filler {
      type: "xavier"
    }
    bias_filler {
      type: "constant"
    }
  }
}
layer {
  name: "relu2"
  type: "ReLU"
  bottom: "ip2"
  top: "ip2"
}
layer {
  name: "ip3"
  type: "InnerProduct"
  bottom: "ip2"
  top: "ip3"
  param {
    lr_mult: 1
  }
  param {
    lr_mult: 2
  }
  inner_product_param {
    num_output: 10
    weight_filler {
      type: "xavier"
    }
    bias_filler {
      type: "constant"
    }
  }
}
layer {
  name: "relu3"
  type: "ReLU"
  bottom: "ip3"
  top: "ip3"
}
layer {
  name: "accuracy"
  type: "Accuracy"
  bottom: "ip3"
  bottom: "label"
  top: "accuracy"
  include {
    phase: TEST
  }
}
layer {
  name: "loss"
  type: "SoftmaxWithLoss"
  bottom: "ip3"
  bottom: "label"
  top: "loss"
}
I0428 19:31:57.707111 22716 layer_factory.hpp:77] Creating layer mnist
I0428 19:31:57.707167 22716 db_lmdb.cpp:35] Opened lmdb examples/mnist/mnist_test_lmdb
I0428 19:31:57.707185 22716 net.cpp:86] Creating Layer mnist
I0428 19:31:57.707191 22716 net.cpp:382] mnist -> data
I0428 19:31:57.707202 22716 net.cpp:382] mnist -> label
I0428 19:31:57.707331 22716 data_layer.cpp:45] output data size: 100,1,28,28
I0428 19:31:57.709436 22716 net.cpp:124] Setting up mnist
I0428 19:31:57.709451 22716 net.cpp:131] Top shape: 100 1 28 28 (78400)
I0428 19:31:57.709460 22716 net.cpp:131] Top shape: 100 (100)
I0428 19:31:57.709465 22716 net.cpp:139] Memory required for data: 314000
I0428 19:31:57.709486 22716 layer_factory.hpp:77] Creating layer label_mnist_1_split
I0428 19:31:57.709519 22716 net.cpp:86] Creating Layer label_mnist_1_split
I0428 19:31:57.709525 22716 net.cpp:408] label_mnist_1_split <- label
I0428 19:31:57.709532 22716 net.cpp:382] label_mnist_1_split -> label_mnist_1_split_0
I0428 19:31:57.709558 22716 net.cpp:382] label_mnist_1_split -> label_mnist_1_split_1
I0428 19:31:57.709657 22716 net.cpp:124] Setting up label_mnist_1_split
I0428 19:31:57.709666 22716 net.cpp:131] Top shape: 100 (100)
I0428 19:31:57.709672 22716 net.cpp:131] Top shape: 100 (100)
I0428 19:31:57.709678 22716 net.cpp:139] Memory required for data: 314800
I0428 19:31:57.709697 22716 layer_factory.hpp:77] Creating layer conv0
I0428 19:31:57.709710 22716 net.cpp:86] Creating Layer conv0
I0428 19:31:57.709717 22716 net.cpp:408] conv0 <- data
I0428 19:31:57.709727 22716 net.cpp:382] conv0 -> conv0
I0428 19:31:57.711256 22716 net.cpp:124] Setting up conv0
I0428 19:31:57.711271 22716 net.cpp:131] Top shape: 100 10 24 24 (576000)
I0428 19:31:57.711277 22716 net.cpp:139] Memory required for data: 2618800
I0428 19:31:57.711290 22716 layer_factory.hpp:77] Creating layer pool0
I0428 19:31:57.711299 22716 net.cpp:86] Creating Layer pool0
I0428 19:31:57.711307 22716 net.cpp:408] pool0 <- conv0
I0428 19:31:57.711314 22716 net.cpp:382] pool0 -> pool0
I0428 19:31:57.711355 22716 net.cpp:124] Setting up pool0
I0428 19:31:57.711364 22716 net.cpp:131] Top shape: 100 10 12 12 (144000)
I0428 19:31:57.711369 22716 net.cpp:139] Memory required for data: 3194800
I0428 19:31:57.711374 22716 layer_factory.hpp:77] Creating layer ip1
I0428 19:31:57.711385 22716 net.cpp:86] Creating Layer ip1
I0428 19:31:57.711390 22716 net.cpp:408] ip1 <- pool0
I0428 19:31:57.711397 22716 net.cpp:382] ip1 -> ip1
I0428 19:31:57.711691 22716 net.cpp:124] Setting up ip1
I0428 19:31:57.711701 22716 net.cpp:131] Top shape: 100 25 (2500)
I0428 19:31:57.711721 22716 net.cpp:139] Memory required for data: 3204800
I0428 19:31:57.711732 22716 layer_factory.hpp:77] Creating layer relu1
I0428 19:31:57.711741 22716 net.cpp:86] Creating Layer relu1
I0428 19:31:57.711746 22716 net.cpp:408] relu1 <- ip1
I0428 19:31:57.711755 22716 net.cpp:369] relu1 -> ip1 (in-place)
I0428 19:31:57.712074 22716 net.cpp:124] Setting up relu1
I0428 19:31:57.712085 22716 net.cpp:131] Top shape: 100 25 (2500)
I0428 19:31:57.712091 22716 net.cpp:139] Memory required for data: 3214800
I0428 19:31:57.712110 22716 layer_factory.hpp:77] Creating layer ip2
I0428 19:31:57.712134 22716 net.cpp:86] Creating Layer ip2
I0428 19:31:57.712139 22716 net.cpp:408] ip2 <- ip1
I0428 19:31:57.712148 22716 net.cpp:382] ip2 -> ip2
I0428 19:31:57.712252 22716 net.cpp:124] Setting up ip2
I0428 19:31:57.712262 22716 net.cpp:131] Top shape: 100 10 (1000)
I0428 19:31:57.712267 22716 net.cpp:139] Memory required for data: 3218800
I0428 19:31:57.712278 22716 layer_factory.hpp:77] Creating layer relu2
I0428 19:31:57.712287 22716 net.cpp:86] Creating Layer relu2
I0428 19:31:57.712294 22716 net.cpp:408] relu2 <- ip2
I0428 19:31:57.712301 22716 net.cpp:369] relu2 -> ip2 (in-place)
I0428 19:31:57.713165 22716 net.cpp:124] Setting up relu2
I0428 19:31:57.713178 22716 net.cpp:131] Top shape: 100 10 (1000)
I0428 19:31:57.713183 22716 net.cpp:139] Memory required for data: 3222800
I0428 19:31:57.713189 22716 layer_factory.hpp:77] Creating layer ip3
I0428 19:31:57.713201 22716 net.cpp:86] Creating Layer ip3
I0428 19:31:57.713207 22716 net.cpp:408] ip3 <- ip2
I0428 19:31:57.713215 22716 net.cpp:382] ip3 -> ip3
I0428 19:31:57.713369 22716 net.cpp:124] Setting up ip3
I0428 19:31:57.713379 22716 net.cpp:131] Top shape: 100 10 (1000)
I0428 19:31:57.713385 22716 net.cpp:139] Memory required for data: 3226800
I0428 19:31:57.713394 22716 layer_factory.hpp:77] Creating layer relu3
I0428 19:31:57.713418 22716 net.cpp:86] Creating Layer relu3
I0428 19:31:57.713423 22716 net.cpp:408] relu3 <- ip3
I0428 19:31:57.713430 22716 net.cpp:369] relu3 -> ip3 (in-place)
I0428 19:31:57.713587 22716 net.cpp:124] Setting up relu3
I0428 19:31:57.713598 22716 net.cpp:131] Top shape: 100 10 (1000)
I0428 19:31:57.713603 22716 net.cpp:139] Memory required for data: 3230800
I0428 19:31:57.713608 22716 layer_factory.hpp:77] Creating layer ip3_relu3_0_split
I0428 19:31:57.713614 22716 net.cpp:86] Creating Layer ip3_relu3_0_split
I0428 19:31:57.713620 22716 net.cpp:408] ip3_relu3_0_split <- ip3
I0428 19:31:57.713629 22716 net.cpp:382] ip3_relu3_0_split -> ip3_relu3_0_split_0
I0428 19:31:57.713639 22716 net.cpp:382] ip3_relu3_0_split -> ip3_relu3_0_split_1
I0428 19:31:57.713680 22716 net.cpp:124] Setting up ip3_relu3_0_split
I0428 19:31:57.713687 22716 net.cpp:131] Top shape: 100 10 (1000)
I0428 19:31:57.713695 22716 net.cpp:131] Top shape: 100 10 (1000)
I0428 19:31:57.713711 22716 net.cpp:139] Memory required for data: 3238800
I0428 19:31:57.713717 22716 layer_factory.hpp:77] Creating layer accuracy
I0428 19:31:57.713726 22716 net.cpp:86] Creating Layer accuracy
I0428 19:31:57.713731 22716 net.cpp:408] accuracy <- ip3_relu3_0_split_0
I0428 19:31:57.713737 22716 net.cpp:408] accuracy <- label_mnist_1_split_0
I0428 19:31:57.713745 22716 net.cpp:382] accuracy -> accuracy
…
