…
I0428 19:53:26.159519 27765 net.cpp:296] The NetState phase (0) differed from the phase (1) specified by a rule in layer mnist
I0428 19:53:26.159539 27765 net.cpp:296] The NetState phase (0) differed from the phase (1) specified by a rule in layer accuracy
I0428 19:53:26.159643 27765 net.cpp:53] Initializing net from parameters: 
name: "LeNet"
state {
  phase: TRAIN
  level: 0
  stage: ""
}
layer {
  name: "mnist"
  type: "Data"
  top: "data"
  top: "label"
  include {
    phase: TRAIN
  }
  transform_param {
    scale: 0.00390625
  }
  data_param {
    source: "examples/mnist/mnist_train_lmdb"
    batch_size: 64
    backend: LMDB
  }
}
layer {
  name: "conv0"
  type: "Convolution"
  bottom: "data"
  top: "conv0"
  param {
    lr_mult: 1
  }
  param {
    lr_mult: 2
  }
  convolution_param {
    num_output: 5
    kernel_size: 5
    stride: 1
    weight_filler {
      type: "xavier"
    }
    bias_filler {
      type: "constant"
    }
  }
}
layer {
  name: "pool0"
  type: "Pooling"
  bottom: "conv0"
  top: "pool0"
  pooling_param {
    pool: MAX
    kernel_size: 2
    stride: 2
  }
}
layer {
  name: "conv1"
  type: "Convolution"
  bottom: "pool0"
  top: "conv1"
  param {
    lr_mult: 1
  }
  param {
    lr_mult: 2
  }
  convolution_param {
    num_output: 50
    kernel_size: 5
    stride: 1
    weight_filler {
      type: "xavier"
    }
    bias_filler {
      type: "constant"
    }
  }
}
layer {
  name: "pool1"
  type: "Pooling"
  bottom: "conv1"
  top: "pool1"
  pooling_param {
    pool: MAX
    kernel_size: 2
    stride: 2
  }
}
layer {
  name: "ip1"
  type: "InnerProduct"
  bottom: "pool1"
  top: "ip1"
  param {
    lr_mult: 1
  }
  param {
    lr_mult: 2
  }
  inner_product_param {
    num_output: 25
    weight_filler {
      type: "xavier"
    }
    bias_filler {
      type: "constant"
    }
  }
}
layer {
  name: "relu1"
  type: "ReLU"
  bottom: "ip1"
  top: "ip1"
}
layer {
  name: "ip2"
  type: "InnerProduct"
  bottom: "ip1"
  top: "ip2"
  param {
    lr_mult: 1
  }
  param {
    lr_mult: 2
  }
  inner_product_param {
    num_output: 25
    weight_filler {
      type: "xavier"
    }
    bias_filler {
      type: "constant"
    }
  }
}
layer {
  name: "relu2"
  type: "ReLU"
  bottom: "ip2"
  top: "ip2"
}
layer {
  name: "ip3"
  type: "InnerProduct"
  bottom: "ip2"
  top: "ip3"
  param {
    lr_mult: 1
  }
  param {
    lr_mult: 2
  }
  inner_product_param {
    num_output: 10
    weight_filler {
      type: "xavier"
    }
    bias_filler {
      type: "constant"
    }
  }
}
layer {
  name: "relu3"
  type: "ReLU"
  bottom: "ip3"
  top: "ip3"
}
layer {
  name: "loss"
  type: "SoftmaxWithLoss"
  bottom: "ip3"
  bottom: "label"
  top: "loss"
}
I0428 19:53:26.159723 27765 layer_factory.hpp:77] Creating layer mnist
I0428 19:53:26.159826 27765 db_lmdb.cpp:35] Opened lmdb examples/mnist/mnist_train_lmdb
I0428 19:53:26.159849 27765 net.cpp:86] Creating Layer mnist
I0428 19:53:26.159857 27765 net.cpp:382] mnist -> data
I0428 19:53:26.159881 27765 net.cpp:382] mnist -> label
I0428 19:53:26.161046 27765 data_layer.cpp:45] output data size: 64,1,28,28
I0428 19:53:26.163627 27765 net.cpp:124] Setting up mnist
I0428 19:53:26.163645 27765 net.cpp:131] Top shape: 64 1 28 28 (50176)
I0428 19:53:26.163653 27765 net.cpp:131] Top shape: 64 (64)
I0428 19:53:26.163657 27765 net.cpp:139] Memory required for data: 200960
I0428 19:53:26.163664 27765 layer_factory.hpp:77] Creating layer conv0
I0428 19:53:26.163697 27765 net.cpp:86] Creating Layer conv0
I0428 19:53:26.163717 27765 net.cpp:408] conv0 <- data
I0428 19:53:26.163731 27765 net.cpp:382] conv0 -> conv0
I0428 19:53:26.432582 27765 net.cpp:124] Setting up conv0
I0428 19:53:26.432606 27765 net.cpp:131] Top shape: 64 5 24 24 (184320)
I0428 19:53:26.432610 27765 net.cpp:139] Memory required for data: 938240
I0428 19:53:26.432624 27765 layer_factory.hpp:77] Creating layer pool0
I0428 19:53:26.432636 27765 net.cpp:86] Creating Layer pool0
I0428 19:53:26.432641 27765 net.cpp:408] pool0 <- conv0
I0428 19:53:26.432646 27765 net.cpp:382] pool0 -> pool0
I0428 19:53:26.432705 27765 net.cpp:124] Setting up pool0
I0428 19:53:26.432711 27765 net.cpp:131] Top shape: 64 5 12 12 (46080)
I0428 19:53:26.432714 27765 net.cpp:139] Memory required for data: 1122560
I0428 19:53:26.432716 27765 layer_factory.hpp:77] Creating layer conv1
I0428 19:53:26.432727 27765 net.cpp:86] Creating Layer conv1
I0428 19:53:26.432730 27765 net.cpp:408] conv1 <- pool0
I0428 19:53:26.432735 27765 net.cpp:382] conv1 -> conv1
I0428 19:53:26.435591 27765 net.cpp:124] Setting up conv1
I0428 19:53:26.435606 27765 net.cpp:131] Top shape: 64 50 8 8 (204800)
I0428 19:53:26.435609 27765 net.cpp:139] Memory required for data: 1941760
I0428 19:53:26.435617 27765 layer_factory.hpp:77] Creating layer pool1
I0428 19:53:26.435624 27765 net.cpp:86] Creating Layer pool1
I0428 19:53:26.435627 27765 net.cpp:408] pool1 <- conv1
I0428 19:53:26.435632 27765 net.cpp:382] pool1 -> pool1
I0428 19:53:26.435683 27765 net.cpp:124] Setting up pool1
I0428 19:53:26.435688 27765 net.cpp:131] Top shape: 64 50 4 4 (51200)
I0428 19:53:26.435691 27765 net.cpp:139] Memory required for data: 2146560
I0428 19:53:26.435694 27765 layer_factory.hpp:77] Creating layer ip1
I0428 19:53:26.435700 27765 net.cpp:86] Creating Layer ip1
I0428 19:53:26.435703 27765 net.cpp:408] ip1 <- pool1
I0428 19:53:26.435708 27765 net.cpp:382] ip1 -> ip1
I0428 19:53:26.435907 27765 net.cpp:124] Setting up ip1
I0428 19:53:26.435915 27765 net.cpp:131] Top shape: 64 25 (1600)
I0428 19:53:26.435919 27765 net.cpp:139] Memory required for data: 2152960
I0428 19:53:26.435925 27765 layer_factory.hpp:77] Creating layer relu1
I0428 19:53:26.435932 27765 net.cpp:86] Creating Layer relu1
I0428 19:53:26.435935 27765 net.cpp:408] relu1 <- ip1
I0428 19:53:26.435940 27765 net.cpp:369] relu1 -> ip1 (in-place)
I0428 19:53:26.436092 27765 net.cpp:124] Setting up relu1
I0428 19:53:26.436101 27765 net.cpp:131] Top shape: 64 25 (1600)
I0428 19:53:26.436105 27765 net.cpp:139] Memory required for data: 2159360
I0428 19:53:26.436107 27765 layer_factory.hpp:77] Creating layer ip2
I0428 19:53:26.436113 27765 net.cpp:86] Creating Layer ip2
I0428 19:53:26.436116 27765 net.cpp:408] ip2 <- ip1
I0428 19:53:26.436120 27765 net.cpp:382] ip2 -> ip2
I0428 19:53:26.436211 27765 net.cpp:124] Setting up ip2
I0428 19:53:26.436218 27765 net.cpp:131] Top shape: 64 25 (1600)
I0428 19:53:26.436221 27765 net.cpp:139] Memory required for data: 2165760
I0428 19:53:26.436226 27765 layer_factory.hpp:77] Creating layer relu2
I0428 19:53:26.436233 27765 net.cpp:86] Creating Layer relu2
I0428 19:53:26.436235 27765 net.cpp:408] relu2 <- ip2
I0428 19:53:26.436239 27765 net.cpp:369] relu2 -> ip2 (in-place)
I0428 19:53:26.436988 27765 net.cpp:124] Setting up relu2
I0428 19:53:26.437016 27765 net.cpp:131] Top shape: 64 25 (1600)
I0428 19:53:26.437021 27765 net.cpp:139] Memory required for data: 2172160
I0428 19:53:26.437023 27765 layer_factory.hpp:77] Creating layer ip3
I0428 19:53:26.437031 27765 net.cpp:86] Creating Layer ip3
I0428 19:53:26.437036 27765 net.cpp:408] ip3 <- ip2
I0428 19:53:26.437041 27765 net.cpp:382] ip3 -> ip3
I0428 19:53:26.437135 27765 net.cpp:124] Setting up ip3
I0428 19:53:26.437142 27765 net.cpp:131] Top shape: 64 10 (640)
I0428 19:53:26.437145 27765 net.cpp:139] Memory required for data: 2174720
I0428 19:53:26.437153 27765 layer_factory.hpp:77] Creating layer relu3
I0428 19:53:26.437158 27765 net.cpp:86] Creating Layer relu3
I0428 19:53:26.437161 27765 net.cpp:408] relu3 <- ip3
I0428 19:53:26.437165 27765 net.cpp:369] relu3 -> ip3 (in-place)
I0428 19:53:26.437333 27765 net.cpp:124] Setting up relu3
I0428 19:53:26.437342 27765 net.cpp:131] Top shape: 64 10 (640)
I0428 19:53:26.437345 27765 net.cpp:139] Memory required for data: 2177280
I0428 19:53:26.437348 27765 layer_factory.hpp:77] Creating layer loss
I0428 19:53:26.437355 27765 net.cpp:86] Creating Layer loss
I0428 19:53:26.437357 27765 net.cpp:408] loss <- ip3
I0428 19:53:26.437361 27765 net.cpp:408] loss <- label
I0428 19:53:26.437366 27765 net.cpp:382] loss -> loss
I0428 19:53:26.437381 27765 layer_factory.hpp:77] Creating layer loss
…
I0428 19:53:26.438110 27765 solver.cpp:173] Creating test net (#0) specified by net file: ECE595/mnist/train_test/var_everything2/lenet_train_test687.prototxt
I0428 19:53:26.438154 27765 net.cpp:296] The NetState phase (1) differed from the phase (0) specified by a rule in layer mnist
I0428 19:53:26.438243 27765 net.cpp:53] Initializing net from parameters: 
name: "LeNet"
state {
  phase: TEST
}
layer {
  name: "mnist"
  type: "Data"
  top: "data"
  top: "label"
  include {
    phase: TEST
  }
  transform_param {
    scale: 0.00390625
  }
  data_param {
    source: "examples/mnist/mnist_test_lmdb"
    batch_size: 100
    backend: LMDB
  }
}
layer {
  name: "conv0"
  type: "Convolution"
  bottom: "data"
  top: "conv0"
  param {
    lr_mult: 1
  }
  param {
    lr_mult: 2
  }
  convolution_param {
    num_output: 5
    kernel_size: 5
    stride: 1
    weight_filler {
      type: "xavier"
    }
    bias_filler {
      type: "constant"
    }
  }
}
layer {
  name: "pool0"
  type: "Pooling"
  bottom: "conv0"
  top: "pool0"
  pooling_param {
    pool: MAX
    kernel_size: 2
    stride: 2
  }
}
layer {
  name: "conv1"
  type: "Convolution"
  bottom: "pool0"
  top: "conv1"
  param {
    lr_mult: 1
  }
  param {
    lr_mult: 2
  }
  convolution_param {
    num_output: 50
    kernel_size: 5
    stride: 1
    weight_filler {
      type: "xavier"
    }
    bias_filler {
      type: "constant"
    }
  }
}
layer {
  name: "pool1"
  type: "Pooling"
  bottom: "conv1"
  top: "pool1"
  pooling_param {
    pool: MAX
    kernel_size: 2
    stride: 2
  }
}
layer {
  name: "ip1"
  type: "InnerProduct"
  bottom: "pool1"
  top: "ip1"
  param {
    lr_mult: 1
  }
  param {
    lr_mult: 2
  }
  inner_product_param {
    num_output: 25
    weight_filler {
      type: "xavier"
    }
    bias_filler {
      type: "constant"
    }
  }
}
layer {
  name: "relu1"
  type: "ReLU"
  bottom: "ip1"
  top: "ip1"
}
layer {
  name: "ip2"
  type: "InnerProduct"
  bottom: "ip1"
  top: "ip2"
  param {
    lr_mult: 1
  }
  param {
    lr_mult: 2
  }
  inner_product_param {
    num_output: 25
    weight_filler {
      type: "xavier"
    }
    bias_filler {
      type: "constant"
    }
  }
}
layer {
  name: "relu2"
  type: "ReLU"
  bottom: "ip2"
  top: "ip2"
}
layer {
  name: "ip3"
  type: "InnerProduct"
  bottom: "ip2"
  top: "ip3"
  param {
    lr_mult: 1
  }
  param {
    lr_mult: 2
  }
  inner_product_param {
    num_output: 10
    weight_filler {
      type: "xavier"
    }
    bias_filler {
      type: "constant"
    }
  }
}
layer {
  name: "relu3"
  type: "ReLU"
  bottom: "ip3"
  top: "ip3"
}
layer {
  name: "accuracy"
  type: "Accuracy"
  bottom: "ip3"
  bottom: "label"
  top: "accuracy"
  include {
    phase: TEST
  }
}
layer {
  name: "loss"
  type: "SoftmaxWithLoss"
  bottom: "ip3"
  bottom: "label"
  top: "loss"
}
I0428 19:53:26.438336 27765 layer_factory.hpp:77] Creating layer mnist
I0428 19:53:26.438380 27765 db_lmdb.cpp:35] Opened lmdb examples/mnist/mnist_test_lmdb
I0428 19:53:26.438393 27765 net.cpp:86] Creating Layer mnist
I0428 19:53:26.438398 27765 net.cpp:382] mnist -> data
I0428 19:53:26.438405 27765 net.cpp:382] mnist -> label
I0428 19:53:26.438486 27765 data_layer.cpp:45] output data size: 100,1,28,28
I0428 19:53:26.440469 27765 net.cpp:124] Setting up mnist
I0428 19:53:26.440496 27765 net.cpp:131] Top shape: 100 1 28 28 (78400)
I0428 19:53:26.440517 27765 net.cpp:131] Top shape: 100 (100)
I0428 19:53:26.440521 27765 net.cpp:139] Memory required for data: 314000
I0428 19:53:26.440524 27765 layer_factory.hpp:77] Creating layer label_mnist_1_split
I0428 19:53:26.440531 27765 net.cpp:86] Creating Layer label_mnist_1_split
I0428 19:53:26.440534 27765 net.cpp:408] label_mnist_1_split <- label
I0428 19:53:26.440539 27765 net.cpp:382] label_mnist_1_split -> label_mnist_1_split_0
I0428 19:53:26.440546 27765 net.cpp:382] label_mnist_1_split -> label_mnist_1_split_1
I0428 19:53:26.440598 27765 net.cpp:124] Setting up label_mnist_1_split
I0428 19:53:26.440605 27765 net.cpp:131] Top shape: 100 (100)
I0428 19:53:26.440609 27765 net.cpp:131] Top shape: 100 (100)
I0428 19:53:26.440613 27765 net.cpp:139] Memory required for data: 314800
I0428 19:53:26.440615 27765 layer_factory.hpp:77] Creating layer conv0
I0428 19:53:26.440623 27765 net.cpp:86] Creating Layer conv0
I0428 19:53:26.440627 27765 net.cpp:408] conv0 <- data
I0428 19:53:26.440632 27765 net.cpp:382] conv0 -> conv0
I0428 19:53:26.442282 27765 net.cpp:124] Setting up conv0
I0428 19:53:26.442296 27765 net.cpp:131] Top shape: 100 5 24 24 (288000)
I0428 19:53:26.442315 27765 net.cpp:139] Memory required for data: 1466800
I0428 19:53:26.442324 27765 layer_factory.hpp:77] Creating layer pool0
I0428 19:53:26.442330 27765 net.cpp:86] Creating Layer pool0
I0428 19:53:26.442333 27765 net.cpp:408] pool0 <- conv0
I0428 19:53:26.442338 27765 net.cpp:382] pool0 -> pool0
I0428 19:53:26.442389 27765 net.cpp:124] Setting up pool0
I0428 19:53:26.442395 27765 net.cpp:131] Top shape: 100 5 12 12 (72000)
I0428 19:53:26.442399 27765 net.cpp:139] Memory required for data: 1754800
I0428 19:53:26.442401 27765 layer_factory.hpp:77] Creating layer conv1
I0428 19:53:26.442409 27765 net.cpp:86] Creating Layer conv1
I0428 19:53:26.442412 27765 net.cpp:408] conv1 <- pool0
I0428 19:53:26.442417 27765 net.cpp:382] conv1 -> conv1
I0428 19:53:26.443930 27765 net.cpp:124] Setting up conv1
I0428 19:53:26.443964 27765 net.cpp:131] Top shape: 100 50 8 8 (320000)
I0428 19:53:26.443967 27765 net.cpp:139] Memory required for data: 3034800
I0428 19:53:26.443976 27765 layer_factory.hpp:77] Creating layer pool1
I0428 19:53:26.443984 27765 net.cpp:86] Creating Layer pool1
I0428 19:53:26.443987 27765 net.cpp:408] pool1 <- conv1
I0428 19:53:26.443992 27765 net.cpp:382] pool1 -> pool1
I0428 19:53:26.444030 27765 net.cpp:124] Setting up pool1
I0428 19:53:26.444051 27765 net.cpp:131] Top shape: 100 50 4 4 (80000)
I0428 19:53:26.444054 27765 net.cpp:139] Memory required for data: 3354800
I0428 19:53:26.444057 27765 layer_factory.hpp:77] Creating layer ip1
I0428 19:53:26.444063 27765 net.cpp:86] Creating Layer ip1
I0428 19:53:26.444067 27765 net.cpp:408] ip1 <- pool1
I0428 19:53:26.444072 27765 net.cpp:382] ip1 -> ip1
I0428 19:53:26.444380 27765 net.cpp:124] Setting up ip1
I0428 19:53:26.444407 27765 net.cpp:131] Top shape: 100 25 (2500)
I0428 19:53:26.444440 27765 net.cpp:139] Memory required for data: 3364800
I0428 19:53:26.444449 27765 layer_factory.hpp:77] Creating layer relu1
I0428 19:53:26.444455 27765 net.cpp:86] Creating Layer relu1
I0428 19:53:26.444460 27765 net.cpp:408] relu1 <- ip1
I0428 19:53:26.444465 27765 net.cpp:369] relu1 -> ip1 (in-place)
I0428 19:53:26.444661 27765 net.cpp:124] Setting up relu1
I0428 19:53:26.444671 27765 net.cpp:131] Top shape: 100 25 (2500)
I0428 19:53:26.444675 27765 net.cpp:139] Memory required for data: 3374800
I0428 19:53:26.444679 27765 layer_factory.hpp:77] Creating layer ip2
I0428 19:53:26.444685 27765 net.cpp:86] Creating Layer ip2
I0428 19:53:26.444689 27765 net.cpp:408] ip2 <- ip1
I0428 19:53:26.444701 27765 net.cpp:382] ip2 -> ip2
I0428 19:53:26.444823 27765 net.cpp:124] Setting up ip2
I0428 19:53:26.444831 27765 net.cpp:131] Top shape: 100 25 (2500)
I0428 19:53:26.444834 27765 net.cpp:139] Memory required for data: 3384800
I0428 19:53:26.444840 27765 layer_factory.hpp:77] Creating layer relu2
I0428 19:53:26.444849 27765 net.cpp:86] Creating Layer relu2
I0428 19:53:26.444854 27765 net.cpp:408] relu2 <- ip2
I0428 19:53:26.444857 27765 net.cpp:369] relu2 -> ip2 (in-place)
I0428 19:53:26.445122 27765 net.cpp:124] Setting up relu2
I0428 19:53:26.445147 27765 net.cpp:131] Top shape: 100 25 (2500)
I0428 19:53:26.445150 27765 net.cpp:139] Memory required for data: 3394800
I0428 19:53:26.445153 27765 layer_factory.hpp:77] Creating layer ip3
I0428 19:53:26.445159 27765 net.cpp:86] Creating Layer ip3
I0428 19:53:26.445163 27765 net.cpp:408] ip3 <- ip2
I0428 19:53:26.445168 27765 net.cpp:382] ip3 -> ip3
I0428 19:53:26.445271 27765 net.cpp:124] Setting up ip3
I0428 19:53:26.445277 27765 net.cpp:131] Top shape: 100 10 (1000)
I0428 19:53:26.445281 27765 net.cpp:139] Memory required for data: 3398800
I0428 19:53:26.445288 27765 layer_factory.hpp:77] Creating layer relu3
I0428 19:53:26.445294 27765 net.cpp:86] Creating Layer relu3
I0428 19:53:26.445297 27765 net.cpp:408] relu3 <- ip3
I0428 19:53:26.445302 27765 net.cpp:369] relu3 -> ip3 (in-place)
I0428 19:53:26.446179 27765 net.cpp:124] Setting up relu3
I0428 19:53:26.446208 27765 net.cpp:131] Top shape: 100 10 (1000)
I0428 19:53:26.446211 27765 net.cpp:139] Memory required for data: 3402800
I0428 19:53:26.446215 27765 layer_factory.hpp:77] Creating layer ip3_relu3_0_split
I0428 19:53:26.446220 27765 net.cpp:86] Creating Layer ip3_relu3_0_split
I0428 19:53:26.446239 27765 net.cpp:408] ip3_relu3_0_split <- ip3
I0428 19:53:26.446245 27765 net.cpp:382] ip3_relu3_0_split -> ip3_relu3_0_split_0
I0428 19:53:26.446251 27765 net.cpp:382] ip3_relu3_0_split -> ip3_relu3_0_split_1
I0428 19:53:26.446301 27765 net.cpp:124] Setting up ip3_relu3_0_split
I0428 19:53:26.446307 27765 net.cpp:131] Top shape: 100 10 (1000)
I0428 19:53:26.446311 27765 net.cpp:131] Top shape: 100 10 (1000)
I0428 19:53:26.446315 27765 net.cpp:139] Memory required for data: 3410800
I0428 19:53:26.446318 27765 layer_factory.hpp:77] Creating layer accuracy
I0428 19:53:26.446323 27765 net.cpp:86] Creating Layer accuracy
I0428 19:53:26.446327 27765 net.cpp:408] accuracy <- ip3_relu3_0_split_0
I0428 19:53:26.446331 27765 net.cpp:408] accuracy <- label_mnist_1_split_0
I0428 19:53:26.446336 27765 net.cpp:382] accuracy -> accuracy
…
