…
I0428 19:28:46.108227 21807 net.cpp:296] The NetState phase (0) differed from the phase (1) specified by a rule in layer mnist
I0428 19:28:46.108237 21807 net.cpp:296] The NetState phase (0) differed from the phase (1) specified by a rule in layer accuracy
I0428 19:28:46.108296 21807 net.cpp:53] Initializing net from parameters: 
name: "LeNet"
state {
  phase: TRAIN
  level: 0
  stage: ""
}
layer {
  name: "mnist"
  type: "Data"
  top: "data"
  top: "label"
  include {
    phase: TRAIN
  }
  transform_param {
    scale: 0.00390625
  }
  data_param {
    source: "examples/mnist/mnist_train_lmdb"
    batch_size: 64
    backend: LMDB
  }
}
layer {
  name: "ip1"
  type: "InnerProduct"
  bottom: "data"
  top: "ip1"
  param {
    lr_mult: 1
  }
  param {
    lr_mult: 2
  }
  inner_product_param {
    num_output: 50
    weight_filler {
      type: "xavier"
    }
    bias_filler {
      type: "constant"
    }
  }
}
layer {
  name: "relu1"
  type: "ReLU"
  bottom: "ip1"
  top: "ip1"
}
layer {
  name: "ip2"
  type: "InnerProduct"
  bottom: "ip1"
  top: "ip2"
  param {
    lr_mult: 1
  }
  param {
    lr_mult: 2
  }
  inner_product_param {
    num_output: 50
    weight_filler {
      type: "xavier"
    }
    bias_filler {
      type: "constant"
    }
  }
}
layer {
  name: "relu2"
  type: "ReLU"
  bottom: "ip2"
  top: "ip2"
}
layer {
  name: "ip3"
  type: "InnerProduct"
  bottom: "ip2"
  top: "ip3"
  param {
    lr_mult: 1
  }
  param {
    lr_mult: 2
  }
  inner_product_param {
    num_output: 10
    weight_filler {
      type: "xavier"
    }
    bias_filler {
      type: "constant"
    }
  }
}
layer {
  name: "relu3"
  type: "ReLU"
  bottom: "ip3"
  top: "ip3"
}
layer {
  name: "loss"
  type: "SoftmaxWithLoss"
  bottom: "ip3"
  bottom: "label"
  top: "loss"
}
I0428 19:28:46.108346 21807 layer_factory.hpp:77] Creating layer mnist
I0428 19:28:46.108428 21807 db_lmdb.cpp:35] Opened lmdb examples/mnist/mnist_train_lmdb
I0428 19:28:46.108448 21807 net.cpp:86] Creating Layer mnist
I0428 19:28:46.108454 21807 net.cpp:382] mnist -> data
I0428 19:28:46.108474 21807 net.cpp:382] mnist -> label
I0428 19:28:46.109475 21807 data_layer.cpp:45] output data size: 64,1,28,28
I0428 19:28:46.111600 21807 net.cpp:124] Setting up mnist
I0428 19:28:46.111631 21807 net.cpp:131] Top shape: 64 1 28 28 (50176)
I0428 19:28:46.111636 21807 net.cpp:131] Top shape: 64 (64)
I0428 19:28:46.111639 21807 net.cpp:139] Memory required for data: 200960
I0428 19:28:46.111645 21807 layer_factory.hpp:77] Creating layer ip1
I0428 19:28:46.111654 21807 net.cpp:86] Creating Layer ip1
I0428 19:28:46.111659 21807 net.cpp:408] ip1 <- data
I0428 19:28:46.111667 21807 net.cpp:382] ip1 -> ip1
I0428 19:28:46.112043 21807 net.cpp:124] Setting up ip1
I0428 19:28:46.112052 21807 net.cpp:131] Top shape: 64 50 (3200)
I0428 19:28:46.112056 21807 net.cpp:139] Memory required for data: 213760
I0428 19:28:46.112082 21807 layer_factory.hpp:77] Creating layer relu1
I0428 19:28:46.112089 21807 net.cpp:86] Creating Layer relu1
I0428 19:28:46.112093 21807 net.cpp:408] relu1 <- ip1
I0428 19:28:46.112097 21807 net.cpp:369] relu1 -> ip1 (in-place)
I0428 19:28:46.331235 21807 net.cpp:124] Setting up relu1
I0428 19:28:46.331279 21807 net.cpp:131] Top shape: 64 50 (3200)
I0428 19:28:46.331282 21807 net.cpp:139] Memory required for data: 226560
I0428 19:28:46.331288 21807 layer_factory.hpp:77] Creating layer ip2
I0428 19:28:46.331300 21807 net.cpp:86] Creating Layer ip2
I0428 19:28:46.331321 21807 net.cpp:408] ip2 <- ip1
I0428 19:28:46.331331 21807 net.cpp:382] ip2 -> ip2
I0428 19:28:46.332358 21807 net.cpp:124] Setting up ip2
I0428 19:28:46.332371 21807 net.cpp:131] Top shape: 64 50 (3200)
I0428 19:28:46.332389 21807 net.cpp:139] Memory required for data: 239360
I0428 19:28:46.332415 21807 layer_factory.hpp:77] Creating layer relu2
I0428 19:28:46.332423 21807 net.cpp:86] Creating Layer relu2
I0428 19:28:46.332427 21807 net.cpp:408] relu2 <- ip2
I0428 19:28:46.332432 21807 net.cpp:369] relu2 -> ip2 (in-place)
I0428 19:28:46.333271 21807 net.cpp:124] Setting up relu2
I0428 19:28:46.333283 21807 net.cpp:131] Top shape: 64 50 (3200)
I0428 19:28:46.333302 21807 net.cpp:139] Memory required for data: 252160
I0428 19:28:46.333307 21807 layer_factory.hpp:77] Creating layer ip3
I0428 19:28:46.333313 21807 net.cpp:86] Creating Layer ip3
I0428 19:28:46.333317 21807 net.cpp:408] ip3 <- ip2
I0428 19:28:46.333323 21807 net.cpp:382] ip3 -> ip3
I0428 19:28:46.334256 21807 net.cpp:124] Setting up ip3
I0428 19:28:46.334285 21807 net.cpp:131] Top shape: 64 10 (640)
I0428 19:28:46.334290 21807 net.cpp:139] Memory required for data: 254720
I0428 19:28:46.334297 21807 layer_factory.hpp:77] Creating layer relu3
I0428 19:28:46.334303 21807 net.cpp:86] Creating Layer relu3
I0428 19:28:46.334306 21807 net.cpp:408] relu3 <- ip3
I0428 19:28:46.334311 21807 net.cpp:369] relu3 -> ip3 (in-place)
I0428 19:28:46.334496 21807 net.cpp:124] Setting up relu3
I0428 19:28:46.334504 21807 net.cpp:131] Top shape: 64 10 (640)
I0428 19:28:46.334507 21807 net.cpp:139] Memory required for data: 257280
I0428 19:28:46.334511 21807 layer_factory.hpp:77] Creating layer loss
I0428 19:28:46.334517 21807 net.cpp:86] Creating Layer loss
I0428 19:28:46.334522 21807 net.cpp:408] loss <- ip3
I0428 19:28:46.334527 21807 net.cpp:408] loss <- label
I0428 19:28:46.334548 21807 net.cpp:382] loss -> loss
I0428 19:28:46.334564 21807 layer_factory.hpp:77] Creating layer loss
…
I0428 19:28:46.335217 21807 solver.cpp:173] Creating test net (#0) specified by net file: ECE595/mnist/train_test/var_everything2/lenet_train_test36.prototxt
I0428 19:28:46.335255 21807 net.cpp:296] The NetState phase (1) differed from the phase (0) specified by a rule in layer mnist
I0428 19:28:46.335321 21807 net.cpp:53] Initializing net from parameters: 
name: "LeNet"
state {
  phase: TEST
}
layer {
  name: "mnist"
  type: "Data"
  top: "data"
  top: "label"
  include {
    phase: TEST
  }
  transform_param {
    scale: 0.00390625
  }
  data_param {
    source: "examples/mnist/mnist_test_lmdb"
    batch_size: 100
    backend: LMDB
  }
}
layer {
  name: "ip1"
  type: "InnerProduct"
  bottom: "data"
  top: "ip1"
  param {
    lr_mult: 1
  }
  param {
    lr_mult: 2
  }
  inner_product_param {
    num_output: 50
    weight_filler {
      type: "xavier"
    }
    bias_filler {
      type: "constant"
    }
  }
}
layer {
  name: "relu1"
  type: "ReLU"
  bottom: "ip1"
  top: "ip1"
}
layer {
  name: "ip2"
  type: "InnerProduct"
  bottom: "ip1"
  top: "ip2"
  param {
    lr_mult: 1
  }
  param {
    lr_mult: 2
  }
  inner_product_param {
    num_output: 50
    weight_filler {
      type: "xavier"
    }
    bias_filler {
      type: "constant"
    }
  }
}
layer {
  name: "relu2"
  type: "ReLU"
  bottom: "ip2"
  top: "ip2"
}
layer {
  name: "ip3"
  type: "InnerProduct"
  bottom: "ip2"
  top: "ip3"
  param {
    lr_mult: 1
  }
  param {
    lr_mult: 2
  }
  inner_product_param {
    num_output: 10
    weight_filler {
      type: "xavier"
    }
    bias_filler {
      type: "constant"
    }
  }
}
layer {
  name: "relu3"
  type: "ReLU"
  bottom: "ip3"
  top: "ip3"
}
layer {
  name: "accuracy"
  type: "Accuracy"
  bottom: "ip3"
  bottom: "label"
  top: "accuracy"
  include {
    phase: TEST
  }
}
layer {
  name: "loss"
  type: "SoftmaxWithLoss"
  bottom: "ip3"
  bottom: "label"
  top: "loss"
}
I0428 19:28:46.335431 21807 layer_factory.hpp:77] Creating layer mnist
I0428 19:28:46.335477 21807 db_lmdb.cpp:35] Opened lmdb examples/mnist/mnist_test_lmdb
I0428 19:28:46.335506 21807 net.cpp:86] Creating Layer mnist
I0428 19:28:46.335512 21807 net.cpp:382] mnist -> data
I0428 19:28:46.335520 21807 net.cpp:382] mnist -> label
I0428 19:28:46.335611 21807 data_layer.cpp:45] output data size: 100,1,28,28
I0428 19:28:46.337635 21807 net.cpp:124] Setting up mnist
I0428 19:28:46.337664 21807 net.cpp:131] Top shape: 100 1 28 28 (78400)
I0428 19:28:46.337668 21807 net.cpp:131] Top shape: 100 (100)
I0428 19:28:46.337672 21807 net.cpp:139] Memory required for data: 314000
I0428 19:28:46.337677 21807 layer_factory.hpp:77] Creating layer label_mnist_1_split
I0428 19:28:46.337712 21807 net.cpp:86] Creating Layer label_mnist_1_split
I0428 19:28:46.337718 21807 net.cpp:408] label_mnist_1_split <- label
I0428 19:28:46.337738 21807 net.cpp:382] label_mnist_1_split -> label_mnist_1_split_0
I0428 19:28:46.337756 21807 net.cpp:382] label_mnist_1_split -> label_mnist_1_split_1
I0428 19:28:46.337816 21807 net.cpp:124] Setting up label_mnist_1_split
I0428 19:28:46.337823 21807 net.cpp:131] Top shape: 100 (100)
I0428 19:28:46.337827 21807 net.cpp:131] Top shape: 100 (100)
I0428 19:28:46.337831 21807 net.cpp:139] Memory required for data: 314800
I0428 19:28:46.337833 21807 layer_factory.hpp:77] Creating layer ip1
I0428 19:28:46.337839 21807 net.cpp:86] Creating Layer ip1
I0428 19:28:46.337844 21807 net.cpp:408] ip1 <- data
I0428 19:28:46.337865 21807 net.cpp:382] ip1 -> ip1
I0428 19:28:46.338299 21807 net.cpp:124] Setting up ip1
I0428 19:28:46.338305 21807 net.cpp:131] Top shape: 100 50 (5000)
I0428 19:28:46.338325 21807 net.cpp:139] Memory required for data: 334800
I0428 19:28:46.338332 21807 layer_factory.hpp:77] Creating layer relu1
I0428 19:28:46.338337 21807 net.cpp:86] Creating Layer relu1
I0428 19:28:46.338342 21807 net.cpp:408] relu1 <- ip1
I0428 19:28:46.338346 21807 net.cpp:369] relu1 -> ip1 (in-place)
I0428 19:28:46.339279 21807 net.cpp:124] Setting up relu1
I0428 19:28:46.339292 21807 net.cpp:131] Top shape: 100 50 (5000)
I0428 19:28:46.339310 21807 net.cpp:139] Memory required for data: 354800
I0428 19:28:46.339313 21807 layer_factory.hpp:77] Creating layer ip2
I0428 19:28:46.339320 21807 net.cpp:86] Creating Layer ip2
I0428 19:28:46.339339 21807 net.cpp:408] ip2 <- ip1
I0428 19:28:46.339345 21807 net.cpp:382] ip2 -> ip2
I0428 19:28:46.339468 21807 net.cpp:124] Setting up ip2
I0428 19:28:46.339476 21807 net.cpp:131] Top shape: 100 50 (5000)
I0428 19:28:46.339479 21807 net.cpp:139] Memory required for data: 374800
I0428 19:28:46.339488 21807 layer_factory.hpp:77] Creating layer relu2
I0428 19:28:46.339495 21807 net.cpp:86] Creating Layer relu2
I0428 19:28:46.339514 21807 net.cpp:408] relu2 <- ip2
I0428 19:28:46.339520 21807 net.cpp:369] relu2 -> ip2 (in-place)
I0428 19:28:46.339694 21807 net.cpp:124] Setting up relu2
I0428 19:28:46.339702 21807 net.cpp:131] Top shape: 100 50 (5000)
I0428 19:28:46.339705 21807 net.cpp:139] Memory required for data: 394800
I0428 19:28:46.339709 21807 layer_factory.hpp:77] Creating layer ip3
I0428 19:28:46.339714 21807 net.cpp:86] Creating Layer ip3
I0428 19:28:46.339718 21807 net.cpp:408] ip3 <- ip2
I0428 19:28:46.339723 21807 net.cpp:382] ip3 -> ip3
I0428 19:28:46.339864 21807 net.cpp:124] Setting up ip3
I0428 19:28:46.339872 21807 net.cpp:131] Top shape: 100 10 (1000)
I0428 19:28:46.339875 21807 net.cpp:139] Memory required for data: 398800
I0428 19:28:46.339884 21807 layer_factory.hpp:77] Creating layer relu3
I0428 19:28:46.339890 21807 net.cpp:86] Creating Layer relu3
I0428 19:28:46.339910 21807 net.cpp:408] relu3 <- ip3
I0428 19:28:46.339915 21807 net.cpp:369] relu3 -> ip3 (in-place)
I0428 19:28:46.340224 21807 net.cpp:124] Setting up relu3
I0428 19:28:46.340232 21807 net.cpp:131] Top shape: 100 10 (1000)
I0428 19:28:46.340236 21807 net.cpp:139] Memory required for data: 402800
I0428 19:28:46.340240 21807 layer_factory.hpp:77] Creating layer ip3_relu3_0_split
I0428 19:28:46.340245 21807 net.cpp:86] Creating Layer ip3_relu3_0_split
I0428 19:28:46.340248 21807 net.cpp:408] ip3_relu3_0_split <- ip3
I0428 19:28:46.340255 21807 net.cpp:382] ip3_relu3_0_split -> ip3_relu3_0_split_0
I0428 19:28:46.340261 21807 net.cpp:382] ip3_relu3_0_split -> ip3_relu3_0_split_1
I0428 19:28:46.340298 21807 net.cpp:124] Setting up ip3_relu3_0_split
I0428 19:28:46.340304 21807 net.cpp:131] Top shape: 100 10 (1000)
I0428 19:28:46.340308 21807 net.cpp:131] Top shape: 100 10 (1000)
I0428 19:28:46.340311 21807 net.cpp:139] Memory required for data: 410800
I0428 19:28:46.340314 21807 layer_factory.hpp:77] Creating layer accuracy
I0428 19:28:46.340320 21807 net.cpp:86] Creating Layer accuracy
I0428 19:28:46.340340 21807 net.cpp:408] accuracy <- ip3_relu3_0_split_0
I0428 19:28:46.340345 21807 net.cpp:408] accuracy <- label_mnist_1_split_0
I0428 19:28:46.340350 21807 net.cpp:382] accuracy -> accuracy
…
