…
I0428 20:26:30.403479  2800 net.cpp:296] The NetState phase (0) differed from the phase (1) specified by a rule in layer mnist
I0428 20:26:30.403494  2800 net.cpp:296] The NetState phase (0) differed from the phase (1) specified by a rule in layer accuracy
I0428 20:26:30.403573  2800 net.cpp:53] Initializing net from parameters: 
name: "LeNet"
state {
  phase: TRAIN
  level: 0
  stage: ""
}
layer {
  name: "mnist"
  type: "Data"
  top: "data"
  top: "label"
  include {
    phase: TRAIN
  }
  transform_param {
    scale: 0.00390625
  }
  data_param {
    source: "examples/mnist/mnist_train_lmdb"
    batch_size: 64
    backend: LMDB
  }
}
layer {
  name: "conv0"
  type: "Convolution"
  bottom: "data"
  top: "conv0"
  param {
    lr_mult: 1
  }
  param {
    lr_mult: 2
  }
  convolution_param {
    num_output: 100
    kernel_size: 5
    stride: 1
    weight_filler {
      type: "xavier"
    }
    bias_filler {
      type: "constant"
    }
  }
}
layer {
  name: "pool0"
  type: "Pooling"
  bottom: "conv0"
  top: "pool0"
  pooling_param {
    pool: MAX
    kernel_size: 2
    stride: 2
  }
}
layer {
  name: "conv1"
  type: "Convolution"
  bottom: "pool0"
  top: "conv1"
  param {
    lr_mult: 1
  }
  param {
    lr_mult: 2
  }
  convolution_param {
    num_output: 2
    kernel_size: 5
    stride: 1
    weight_filler {
      type: "xavier"
    }
    bias_filler {
      type: "constant"
    }
  }
}
layer {
  name: "pool1"
  type: "Pooling"
  bottom: "conv1"
  top: "pool1"
  pooling_param {
    pool: MAX
    kernel_size: 2
    stride: 2
  }
}
layer {
  name: "ip1"
  type: "InnerProduct"
  bottom: "pool1"
  top: "ip1"
  param {
    lr_mult: 1
  }
  param {
    lr_mult: 2
  }
  inner_product_param {
    num_output: 25
    weight_filler {
      type: "xavier"
    }
    bias_filler {
      type: "constant"
    }
  }
}
layer {
  name: "relu1"
  type: "ReLU"
  bottom: "ip1"
  top: "ip1"
}
layer {
  name: "ip2"
  type: "InnerProduct"
  bottom: "ip1"
  top: "ip2"
  param {
    lr_mult: 1
  }
  param {
    lr_mult: 2
  }
  inner_product_param {
    num_output: 50
    weight_filler {
      type: "xavier"
    }
    bias_filler {
      type: "constant"
    }
  }
}
layer {
  name: "relu2"
  type: "ReLU"
  bottom: "ip2"
  top: "ip2"
}
layer {
  name: "ip3"
  type: "InnerProduct"
  bottom: "ip2"
  top: "ip3"
  param {
    lr_mult: 1
  }
  param {
    lr_mult: 2
  }
  inner_product_param {
    num_output: 10
    weight_filler {
      type: "xavier"
    }
    bias_filler {
      type: "constant"
    }
  }
}
layer {
  name: "relu3"
  type: "ReLU"
  bottom: "ip3"
  top: "ip3"
}
layer {
  name: "loss"
  type: "SoftmaxWithLoss"
  bottom: "ip3"
  bottom: "label"
  top: "loss"
}
I0428 20:26:30.403635  2800 layer_factory.hpp:77] Creating layer mnist
I0428 20:26:30.403714  2800 db_lmdb.cpp:35] Opened lmdb examples/mnist/mnist_train_lmdb
I0428 20:26:30.403733  2800 net.cpp:86] Creating Layer mnist
I0428 20:26:30.403740  2800 net.cpp:382] mnist -> data
I0428 20:26:30.403772  2800 net.cpp:382] mnist -> label
I0428 20:26:30.404742  2800 data_layer.cpp:45] output data size: 64,1,28,28
I0428 20:26:30.406955  2800 net.cpp:124] Setting up mnist
I0428 20:26:30.406985  2800 net.cpp:131] Top shape: 64 1 28 28 (50176)
I0428 20:26:30.406990  2800 net.cpp:131] Top shape: 64 (64)
I0428 20:26:30.406992  2800 net.cpp:139] Memory required for data: 200960
I0428 20:26:30.406998  2800 layer_factory.hpp:77] Creating layer conv0
I0428 20:26:30.407012  2800 net.cpp:86] Creating Layer conv0
I0428 20:26:30.407028  2800 net.cpp:408] conv0 <- data
I0428 20:26:30.407042  2800 net.cpp:382] conv0 -> conv0
I0428 20:26:30.639719  2800 net.cpp:124] Setting up conv0
I0428 20:26:30.639761  2800 net.cpp:131] Top shape: 64 100 24 24 (3686400)
I0428 20:26:30.639780  2800 net.cpp:139] Memory required for data: 14946560
I0428 20:26:30.639796  2800 layer_factory.hpp:77] Creating layer pool0
I0428 20:26:30.639807  2800 net.cpp:86] Creating Layer pool0
I0428 20:26:30.639811  2800 net.cpp:408] pool0 <- conv0
I0428 20:26:30.639832  2800 net.cpp:382] pool0 -> pool0
I0428 20:26:30.639879  2800 net.cpp:124] Setting up pool0
I0428 20:26:30.639885  2800 net.cpp:131] Top shape: 64 100 12 12 (921600)
I0428 20:26:30.639888  2800 net.cpp:139] Memory required for data: 18632960
I0428 20:26:30.639890  2800 layer_factory.hpp:77] Creating layer conv1
I0428 20:26:30.639901  2800 net.cpp:86] Creating Layer conv1
I0428 20:26:30.639904  2800 net.cpp:408] conv1 <- pool0
I0428 20:26:30.639909  2800 net.cpp:382] conv1 -> conv1
I0428 20:26:30.642577  2800 net.cpp:124] Setting up conv1
I0428 20:26:30.642606  2800 net.cpp:131] Top shape: 64 2 8 8 (8192)
I0428 20:26:30.642609  2800 net.cpp:139] Memory required for data: 18665728
I0428 20:26:30.642617  2800 layer_factory.hpp:77] Creating layer pool1
I0428 20:26:30.642626  2800 net.cpp:86] Creating Layer pool1
I0428 20:26:30.642628  2800 net.cpp:408] pool1 <- conv1
I0428 20:26:30.642633  2800 net.cpp:382] pool1 -> pool1
I0428 20:26:30.642684  2800 net.cpp:124] Setting up pool1
I0428 20:26:30.642689  2800 net.cpp:131] Top shape: 64 2 4 4 (2048)
I0428 20:26:30.642693  2800 net.cpp:139] Memory required for data: 18673920
I0428 20:26:30.642695  2800 layer_factory.hpp:77] Creating layer ip1
I0428 20:26:30.642706  2800 net.cpp:86] Creating Layer ip1
I0428 20:26:30.642709  2800 net.cpp:408] ip1 <- pool1
I0428 20:26:30.642714  2800 net.cpp:382] ip1 -> ip1
I0428 20:26:30.642807  2800 net.cpp:124] Setting up ip1
I0428 20:26:30.642814  2800 net.cpp:131] Top shape: 64 25 (1600)
I0428 20:26:30.642817  2800 net.cpp:139] Memory required for data: 18680320
I0428 20:26:30.642824  2800 layer_factory.hpp:77] Creating layer relu1
I0428 20:26:30.642829  2800 net.cpp:86] Creating Layer relu1
I0428 20:26:30.642832  2800 net.cpp:408] relu1 <- ip1
I0428 20:26:30.642837  2800 net.cpp:369] relu1 -> ip1 (in-place)
I0428 20:26:30.643004  2800 net.cpp:124] Setting up relu1
I0428 20:26:30.643013  2800 net.cpp:131] Top shape: 64 25 (1600)
I0428 20:26:30.643016  2800 net.cpp:139] Memory required for data: 18686720
I0428 20:26:30.643020  2800 layer_factory.hpp:77] Creating layer ip2
I0428 20:26:30.643026  2800 net.cpp:86] Creating Layer ip2
I0428 20:26:30.643029  2800 net.cpp:408] ip2 <- ip1
I0428 20:26:30.643033  2800 net.cpp:382] ip2 -> ip2
I0428 20:26:30.643141  2800 net.cpp:124] Setting up ip2
I0428 20:26:30.643147  2800 net.cpp:131] Top shape: 64 50 (3200)
I0428 20:26:30.643151  2800 net.cpp:139] Memory required for data: 18699520
I0428 20:26:30.643157  2800 layer_factory.hpp:77] Creating layer relu2
I0428 20:26:30.643162  2800 net.cpp:86] Creating Layer relu2
I0428 20:26:30.643165  2800 net.cpp:408] relu2 <- ip2
I0428 20:26:30.643169  2800 net.cpp:369] relu2 -> ip2 (in-place)
I0428 20:26:30.643937  2800 net.cpp:124] Setting up relu2
I0428 20:26:30.643950  2800 net.cpp:131] Top shape: 64 50 (3200)
I0428 20:26:30.643970  2800 net.cpp:139] Memory required for data: 18712320
I0428 20:26:30.643973  2800 layer_factory.hpp:77] Creating layer ip3
I0428 20:26:30.643980  2800 net.cpp:86] Creating Layer ip3
I0428 20:26:30.643985  2800 net.cpp:408] ip3 <- ip2
I0428 20:26:30.644004  2800 net.cpp:382] ip3 -> ip3
I0428 20:26:30.644106  2800 net.cpp:124] Setting up ip3
I0428 20:26:30.644115  2800 net.cpp:131] Top shape: 64 10 (640)
I0428 20:26:30.644119  2800 net.cpp:139] Memory required for data: 18714880
I0428 20:26:30.644140  2800 layer_factory.hpp:77] Creating layer relu3
I0428 20:26:30.644145  2800 net.cpp:86] Creating Layer relu3
I0428 20:26:30.644148  2800 net.cpp:408] relu3 <- ip3
I0428 20:26:30.644153  2800 net.cpp:369] relu3 -> ip3 (in-place)
I0428 20:26:30.644340  2800 net.cpp:124] Setting up relu3
I0428 20:26:30.644348  2800 net.cpp:131] Top shape: 64 10 (640)
I0428 20:26:30.644351  2800 net.cpp:139] Memory required for data: 18717440
I0428 20:26:30.644354  2800 layer_factory.hpp:77] Creating layer loss
I0428 20:26:30.644361  2800 net.cpp:86] Creating Layer loss
I0428 20:26:30.644363  2800 net.cpp:408] loss <- ip3
I0428 20:26:30.644367  2800 net.cpp:408] loss <- label
I0428 20:26:30.644372  2800 net.cpp:382] loss -> loss
I0428 20:26:30.644389  2800 layer_factory.hpp:77] Creating layer loss
…
I0428 20:26:30.645050  2800 solver.cpp:173] Creating test net (#0) specified by net file: ECE595/mnist/train_test/var_everything2/lenet_train_test1472.prototxt
I0428 20:26:30.645078  2800 net.cpp:296] The NetState phase (1) differed from the phase (0) specified by a rule in layer mnist
I0428 20:26:30.645200  2800 net.cpp:53] Initializing net from parameters: 
name: "LeNet"
state {
  phase: TEST
}
layer {
  name: "mnist"
  type: "Data"
  top: "data"
  top: "label"
  include {
    phase: TEST
  }
  transform_param {
    scale: 0.00390625
  }
  data_param {
    source: "examples/mnist/mnist_test_lmdb"
    batch_size: 100
    backend: LMDB
  }
}
layer {
  name: "conv0"
  type: "Convolution"
  bottom: "data"
  top: "conv0"
  param {
    lr_mult: 1
  }
  param {
    lr_mult: 2
  }
  convolution_param {
    num_output: 100
    kernel_size: 5
    stride: 1
    weight_filler {
      type: "xavier"
    }
    bias_filler {
      type: "constant"
    }
  }
}
layer {
  name: "pool0"
  type: "Pooling"
  bottom: "conv0"
  top: "pool0"
  pooling_param {
    pool: MAX
    kernel_size: 2
    stride: 2
  }
}
layer {
  name: "conv1"
  type: "Convolution"
  bottom: "pool0"
  top: "conv1"
  param {
    lr_mult: 1
  }
  param {
    lr_mult: 2
  }
  convolution_param {
    num_output: 2
    kernel_size: 5
    stride: 1
    weight_filler {
      type: "xavier"
    }
    bias_filler {
      type: "constant"
    }
  }
}
layer {
  name: "pool1"
  type: "Pooling"
  bottom: "conv1"
  top: "pool1"
  pooling_param {
    pool: MAX
    kernel_size: 2
    stride: 2
  }
}
layer {
  name: "ip1"
  type: "InnerProduct"
  bottom: "pool1"
  top: "ip1"
  param {
    lr_mult: 1
  }
  param {
    lr_mult: 2
  }
  inner_product_param {
    num_output: 25
    weight_filler {
      type: "xavier"
    }
    bias_filler {
      type: "constant"
    }
  }
}
layer {
  name: "relu1"
  type: "ReLU"
  bottom: "ip1"
  top: "ip1"
}
layer {
  name: "ip2"
  type: "InnerProduct"
  bottom: "ip1"
  top: "ip2"
  param {
    lr_mult: 1
  }
  param {
    lr_mult: 2
  }
  inner_product_param {
    num_output: 50
    weight_filler {
      type: "xavier"
    }
    bias_filler {
      type: "constant"
    }
  }
}
layer {
  name: "relu2"
  type: "ReLU"
  bottom: "ip2"
  top: "ip2"
}
layer {
  name: "ip3"
  type: "InnerProduct"
  bottom: "ip2"
  top: "ip3"
  param {
    lr_mult: 1
  }
  param {
    lr_mult: 2
  }
  inner_product_param {
    num_output: 10
    weight_filler {
      type: "xavier"
    }
    bias_filler {
      type: "constant"
    }
  }
}
layer {
  name: "relu3"
  type: "ReLU"
  bottom: "ip3"
  top: "ip3"
}
layer {
  name: "accuracy"
  type: "Accuracy"
  bottom: "ip3"
  bottom: "label"
  top: "accuracy"
  include {
    phase: TEST
  }
}
layer {
  name: "loss"
  type: "SoftmaxWithLoss"
  bottom: "ip3"
  bottom: "label"
  top: "loss"
}
I0428 20:26:30.645280  2800 layer_factory.hpp:77] Creating layer mnist
I0428 20:26:30.645325  2800 db_lmdb.cpp:35] Opened lmdb examples/mnist/mnist_test_lmdb
I0428 20:26:30.645337  2800 net.cpp:86] Creating Layer mnist
I0428 20:26:30.645341  2800 net.cpp:382] mnist -> data
I0428 20:26:30.645364  2800 net.cpp:382] mnist -> label
I0428 20:26:30.645445  2800 data_layer.cpp:45] output data size: 100,1,28,28
I0428 20:26:30.647626  2800 net.cpp:124] Setting up mnist
I0428 20:26:30.647655  2800 net.cpp:131] Top shape: 100 1 28 28 (78400)
I0428 20:26:30.647660  2800 net.cpp:131] Top shape: 100 (100)
I0428 20:26:30.647663  2800 net.cpp:139] Memory required for data: 314000
I0428 20:26:30.647666  2800 layer_factory.hpp:77] Creating layer label_mnist_1_split
I0428 20:26:30.647702  2800 net.cpp:86] Creating Layer label_mnist_1_split
I0428 20:26:30.647706  2800 net.cpp:408] label_mnist_1_split <- label
I0428 20:26:30.647711  2800 net.cpp:382] label_mnist_1_split -> label_mnist_1_split_0
I0428 20:26:30.647717  2800 net.cpp:382] label_mnist_1_split -> label_mnist_1_split_1
I0428 20:26:30.647763  2800 net.cpp:124] Setting up label_mnist_1_split
I0428 20:26:30.647768  2800 net.cpp:131] Top shape: 100 (100)
I0428 20:26:30.647773  2800 net.cpp:131] Top shape: 100 (100)
I0428 20:26:30.647774  2800 net.cpp:139] Memory required for data: 314800
I0428 20:26:30.647778  2800 layer_factory.hpp:77] Creating layer conv0
I0428 20:26:30.647785  2800 net.cpp:86] Creating Layer conv0
I0428 20:26:30.647789  2800 net.cpp:408] conv0 <- data
I0428 20:26:30.647792  2800 net.cpp:382] conv0 -> conv0
I0428 20:26:30.649566  2800 net.cpp:124] Setting up conv0
I0428 20:26:30.649580  2800 net.cpp:131] Top shape: 100 100 24 24 (5760000)
I0428 20:26:30.649583  2800 net.cpp:139] Memory required for data: 23354800
I0428 20:26:30.649591  2800 layer_factory.hpp:77] Creating layer pool0
I0428 20:26:30.649597  2800 net.cpp:86] Creating Layer pool0
I0428 20:26:30.649616  2800 net.cpp:408] pool0 <- conv0
I0428 20:26:30.649621  2800 net.cpp:382] pool0 -> pool0
I0428 20:26:30.649654  2800 net.cpp:124] Setting up pool0
I0428 20:26:30.649660  2800 net.cpp:131] Top shape: 100 100 12 12 (1440000)
I0428 20:26:30.649662  2800 net.cpp:139] Memory required for data: 29114800
I0428 20:26:30.649665  2800 layer_factory.hpp:77] Creating layer conv1
I0428 20:26:30.649673  2800 net.cpp:86] Creating Layer conv1
I0428 20:26:30.649677  2800 net.cpp:408] conv1 <- pool0
I0428 20:26:30.649682  2800 net.cpp:382] conv1 -> conv1
I0428 20:26:30.651155  2800 net.cpp:124] Setting up conv1
I0428 20:26:30.651168  2800 net.cpp:131] Top shape: 100 2 8 8 (12800)
I0428 20:26:30.651171  2800 net.cpp:139] Memory required for data: 29166000
I0428 20:26:30.651180  2800 layer_factory.hpp:77] Creating layer pool1
I0428 20:26:30.651185  2800 net.cpp:86] Creating Layer pool1
I0428 20:26:30.651190  2800 net.cpp:408] pool1 <- conv1
I0428 20:26:30.651193  2800 net.cpp:382] pool1 -> pool1
I0428 20:26:30.651228  2800 net.cpp:124] Setting up pool1
I0428 20:26:30.651234  2800 net.cpp:131] Top shape: 100 2 4 4 (3200)
I0428 20:26:30.651237  2800 net.cpp:139] Memory required for data: 29178800
I0428 20:26:30.651239  2800 layer_factory.hpp:77] Creating layer ip1
I0428 20:26:30.651245  2800 net.cpp:86] Creating Layer ip1
I0428 20:26:30.651248  2800 net.cpp:408] ip1 <- pool1
I0428 20:26:30.651254  2800 net.cpp:382] ip1 -> ip1
I0428 20:26:30.651350  2800 net.cpp:124] Setting up ip1
I0428 20:26:30.651358  2800 net.cpp:131] Top shape: 100 25 (2500)
I0428 20:26:30.651386  2800 net.cpp:139] Memory required for data: 29188800
I0428 20:26:30.651392  2800 layer_factory.hpp:77] Creating layer relu1
I0428 20:26:30.651398  2800 net.cpp:86] Creating Layer relu1
I0428 20:26:30.651402  2800 net.cpp:408] relu1 <- ip1
I0428 20:26:30.651407  2800 net.cpp:369] relu1 -> ip1 (in-place)
I0428 20:26:30.651593  2800 net.cpp:124] Setting up relu1
I0428 20:26:30.651602  2800 net.cpp:131] Top shape: 100 25 (2500)
I0428 20:26:30.651605  2800 net.cpp:139] Memory required for data: 29198800
I0428 20:26:30.651608  2800 layer_factory.hpp:77] Creating layer ip2
I0428 20:26:30.651618  2800 net.cpp:86] Creating Layer ip2
I0428 20:26:30.651621  2800 net.cpp:408] ip2 <- ip1
I0428 20:26:30.651628  2800 net.cpp:382] ip2 -> ip2
I0428 20:26:30.651756  2800 net.cpp:124] Setting up ip2
I0428 20:26:30.651762  2800 net.cpp:131] Top shape: 100 50 (5000)
I0428 20:26:30.651765  2800 net.cpp:139] Memory required for data: 29218800
I0428 20:26:30.651772  2800 layer_factory.hpp:77] Creating layer relu2
I0428 20:26:30.651777  2800 net.cpp:86] Creating Layer relu2
I0428 20:26:30.651782  2800 net.cpp:408] relu2 <- ip2
I0428 20:26:30.651785  2800 net.cpp:369] relu2 -> ip2 (in-place)
I0428 20:26:30.651980  2800 net.cpp:124] Setting up relu2
I0428 20:26:30.651988  2800 net.cpp:131] Top shape: 100 50 (5000)
I0428 20:26:30.651993  2800 net.cpp:139] Memory required for data: 29238800
I0428 20:26:30.651995  2800 layer_factory.hpp:77] Creating layer ip3
I0428 20:26:30.652004  2800 net.cpp:86] Creating Layer ip3
I0428 20:26:30.652006  2800 net.cpp:408] ip3 <- ip2
I0428 20:26:30.652012  2800 net.cpp:382] ip3 -> ip3
I0428 20:26:30.652120  2800 net.cpp:124] Setting up ip3
I0428 20:26:30.652128  2800 net.cpp:131] Top shape: 100 10 (1000)
I0428 20:26:30.652137  2800 net.cpp:139] Memory required for data: 29242800
I0428 20:26:30.652144  2800 layer_factory.hpp:77] Creating layer relu3
I0428 20:26:30.652149  2800 net.cpp:86] Creating Layer relu3
I0428 20:26:30.652166  2800 net.cpp:408] relu3 <- ip3
I0428 20:26:30.652176  2800 net.cpp:369] relu3 -> ip3 (in-place)
I0428 20:26:30.653090  2800 net.cpp:124] Setting up relu3
I0428 20:26:30.653102  2800 net.cpp:131] Top shape: 100 10 (1000)
I0428 20:26:30.653106  2800 net.cpp:139] Memory required for data: 29246800
I0428 20:26:30.653110  2800 layer_factory.hpp:77] Creating layer ip3_relu3_0_split
I0428 20:26:30.653122  2800 net.cpp:86] Creating Layer ip3_relu3_0_split
I0428 20:26:30.653132  2800 net.cpp:408] ip3_relu3_0_split <- ip3
I0428 20:26:30.653139  2800 net.cpp:382] ip3_relu3_0_split -> ip3_relu3_0_split_0
I0428 20:26:30.653146  2800 net.cpp:382] ip3_relu3_0_split -> ip3_relu3_0_split_1
I0428 20:26:30.653272  2800 net.cpp:124] Setting up ip3_relu3_0_split
I0428 20:26:30.653280  2800 net.cpp:131] Top shape: 100 10 (1000)
I0428 20:26:30.653285  2800 net.cpp:131] Top shape: 100 10 (1000)
I0428 20:26:30.653286  2800 net.cpp:139] Memory required for data: 29254800
I0428 20:26:30.653290  2800 layer_factory.hpp:77] Creating layer accuracy
I0428 20:26:30.653300  2800 net.cpp:86] Creating Layer accuracy
I0428 20:26:30.653302  2800 net.cpp:408] accuracy <- ip3_relu3_0_split_0
I0428 20:26:30.653306  2800 net.cpp:408] accuracy <- label_mnist_1_split_0
I0428 20:26:30.653311  2800 net.cpp:382] accuracy -> accuracy
…
