…
I0428 19:28:52.871148 21845 net.cpp:296] The NetState phase (0) differed from the phase (1) specified by a rule in layer mnist
I0428 19:28:52.871161 21845 net.cpp:296] The NetState phase (0) differed from the phase (1) specified by a rule in layer accuracy
I0428 19:28:52.871218 21845 net.cpp:53] Initializing net from parameters: 
name: "LeNet"
state {
  phase: TRAIN
  level: 0
  stage: ""
}
layer {
  name: "mnist"
  type: "Data"
  top: "data"
  top: "label"
  include {
    phase: TRAIN
  }
  transform_param {
    scale: 0.00390625
  }
  data_param {
    source: "examples/mnist/mnist_train_lmdb"
    batch_size: 64
    backend: LMDB
  }
}
layer {
  name: "conv0"
  type: "Convolution"
  bottom: "data"
  top: "conv0"
  param {
    lr_mult: 1
  }
  param {
    lr_mult: 2
  }
  convolution_param {
    num_output: 2
    kernel_size: 5
    stride: 1
    weight_filler {
      type: "xavier"
    }
    bias_filler {
      type: "constant"
    }
  }
}
layer {
  name: "pool0"
  type: "Pooling"
  bottom: "conv0"
  top: "pool0"
  pooling_param {
    pool: MAX
    kernel_size: 2
    stride: 2
  }
}
layer {
  name: "ip1"
  type: "InnerProduct"
  bottom: "pool0"
  top: "ip1"
  param {
    lr_mult: 1
  }
  param {
    lr_mult: 2
  }
  inner_product_param {
    num_output: 10
    weight_filler {
      type: "xavier"
    }
    bias_filler {
      type: "constant"
    }
  }
}
layer {
  name: "relu1"
  type: "ReLU"
  bottom: "ip1"
  top: "ip1"
}
layer {
  name: "loss"
  type: "SoftmaxWithLoss"
  bottom: "ip1"
  bottom: "label"
  top: "loss"
}
I0428 19:28:52.871279 21845 layer_factory.hpp:77] Creating layer mnist
I0428 19:28:52.871382 21845 db_lmdb.cpp:35] Opened lmdb examples/mnist/mnist_train_lmdb
I0428 19:28:52.871425 21845 net.cpp:86] Creating Layer mnist
I0428 19:28:52.871434 21845 net.cpp:382] mnist -> data
I0428 19:28:52.871459 21845 net.cpp:382] mnist -> label
I0428 19:28:52.872347 21845 data_layer.cpp:45] output data size: 64,1,28,28
I0428 19:28:52.874879 21845 net.cpp:124] Setting up mnist
I0428 19:28:52.874913 21845 net.cpp:131] Top shape: 64 1 28 28 (50176)
I0428 19:28:52.874938 21845 net.cpp:131] Top shape: 64 (64)
I0428 19:28:52.874944 21845 net.cpp:139] Memory required for data: 200960
I0428 19:28:52.874953 21845 layer_factory.hpp:77] Creating layer conv0
I0428 19:28:52.874972 21845 net.cpp:86] Creating Layer conv0
I0428 19:28:52.874982 21845 net.cpp:408] conv0 <- data
I0428 19:28:52.874997 21845 net.cpp:382] conv0 -> conv0
I0428 19:28:53.095744 21845 net.cpp:124] Setting up conv0
I0428 19:28:53.095772 21845 net.cpp:131] Top shape: 64 2 24 24 (73728)
I0428 19:28:53.095777 21845 net.cpp:139] Memory required for data: 495872
I0428 19:28:53.095813 21845 layer_factory.hpp:77] Creating layer pool0
I0428 19:28:53.095830 21845 net.cpp:86] Creating Layer pool0
I0428 19:28:53.095841 21845 net.cpp:408] pool0 <- conv0
I0428 19:28:53.095850 21845 net.cpp:382] pool0 -> pool0
I0428 19:28:53.095904 21845 net.cpp:124] Setting up pool0
I0428 19:28:53.095913 21845 net.cpp:131] Top shape: 64 2 12 12 (18432)
I0428 19:28:53.095917 21845 net.cpp:139] Memory required for data: 569600
I0428 19:28:53.095922 21845 layer_factory.hpp:77] Creating layer ip1
I0428 19:28:53.095933 21845 net.cpp:86] Creating Layer ip1
I0428 19:28:53.095957 21845 net.cpp:408] ip1 <- pool0
I0428 19:28:53.095964 21845 net.cpp:382] ip1 -> ip1
I0428 19:28:53.096904 21845 net.cpp:124] Setting up ip1
I0428 19:28:53.096920 21845 net.cpp:131] Top shape: 64 10 (640)
I0428 19:28:53.096948 21845 net.cpp:139] Memory required for data: 572160
I0428 19:28:53.096963 21845 layer_factory.hpp:77] Creating layer relu1
I0428 19:28:53.096976 21845 net.cpp:86] Creating Layer relu1
I0428 19:28:53.096982 21845 net.cpp:408] relu1 <- ip1
I0428 19:28:53.096990 21845 net.cpp:369] relu1 -> ip1 (in-place)
I0428 19:28:53.097203 21845 net.cpp:124] Setting up relu1
I0428 19:28:53.097213 21845 net.cpp:131] Top shape: 64 10 (640)
I0428 19:28:53.097218 21845 net.cpp:139] Memory required for data: 574720
I0428 19:28:53.097223 21845 layer_factory.hpp:77] Creating layer loss
I0428 19:28:53.097231 21845 net.cpp:86] Creating Layer loss
I0428 19:28:53.097237 21845 net.cpp:408] loss <- ip1
I0428 19:28:53.097244 21845 net.cpp:408] loss <- label
I0428 19:28:53.097250 21845 net.cpp:382] loss -> loss
I0428 19:28:53.097272 21845 layer_factory.hpp:77] Creating layer loss
…
I0428 19:28:53.098464 21845 solver.cpp:173] Creating test net (#0) specified by net file: ECE595/mnist/train_test/var_everything2/lenet_train_test40.prototxt
I0428 19:28:53.098491 21845 net.cpp:296] The NetState phase (1) differed from the phase (0) specified by a rule in layer mnist
I0428 19:28:53.098559 21845 net.cpp:53] Initializing net from parameters: 
name: "LeNet"
state {
  phase: TEST
}
layer {
  name: "mnist"
  type: "Data"
  top: "data"
  top: "label"
  include {
    phase: TEST
  }
  transform_param {
    scale: 0.00390625
  }
  data_param {
    source: "examples/mnist/mnist_test_lmdb"
    batch_size: 100
    backend: LMDB
  }
}
layer {
  name: "conv0"
  type: "Convolution"
  bottom: "data"
  top: "conv0"
  param {
    lr_mult: 1
  }
  param {
    lr_mult: 2
  }
  convolution_param {
    num_output: 2
    kernel_size: 5
    stride: 1
    weight_filler {
      type: "xavier"
    }
    bias_filler {
      type: "constant"
    }
  }
}
layer {
  name: "pool0"
  type: "Pooling"
  bottom: "conv0"
  top: "pool0"
  pooling_param {
    pool: MAX
    kernel_size: 2
    stride: 2
  }
}
layer {
  name: "ip1"
  type: "InnerProduct"
  bottom: "pool0"
  top: "ip1"
  param {
    lr_mult: 1
  }
  param {
    lr_mult: 2
  }
  inner_product_param {
    num_output: 10
    weight_filler {
      type: "xavier"
    }
    bias_filler {
      type: "constant"
    }
  }
}
layer {
  name: "relu1"
  type: "ReLU"
  bottom: "ip1"
  top: "ip1"
}
layer {
  name: "accuracy"
  type: "Accuracy"
  bottom: "ip1"
  bottom: "label"
  top: "accuracy"
  include {
    phase: TEST
  }
}
layer {
  name: "loss"
  type: "SoftmaxWithLoss"
  bottom: "ip1"
  bottom: "label"
  top: "loss"
}
I0428 19:28:53.098634 21845 layer_factory.hpp:77] Creating layer mnist
I0428 19:28:53.098690 21845 db_lmdb.cpp:35] Opened lmdb examples/mnist/mnist_test_lmdb
I0428 19:28:53.098707 21845 net.cpp:86] Creating Layer mnist
I0428 19:28:53.098716 21845 net.cpp:382] mnist -> data
I0428 19:28:53.098726 21845 net.cpp:382] mnist -> label
I0428 19:28:53.098888 21845 data_layer.cpp:45] output data size: 100,1,28,28
I0428 19:28:53.101023 21845 net.cpp:124] Setting up mnist
I0428 19:28:53.101040 21845 net.cpp:131] Top shape: 100 1 28 28 (78400)
I0428 19:28:53.101049 21845 net.cpp:131] Top shape: 100 (100)
I0428 19:28:53.101055 21845 net.cpp:139] Memory required for data: 314000
I0428 19:28:53.101075 21845 layer_factory.hpp:77] Creating layer label_mnist_1_split
I0428 19:28:53.101091 21845 net.cpp:86] Creating Layer label_mnist_1_split
I0428 19:28:53.101099 21845 net.cpp:408] label_mnist_1_split <- label
I0428 19:28:53.101124 21845 net.cpp:382] label_mnist_1_split -> label_mnist_1_split_0
I0428 19:28:53.101135 21845 net.cpp:382] label_mnist_1_split -> label_mnist_1_split_1
I0428 19:28:53.101217 21845 net.cpp:124] Setting up label_mnist_1_split
I0428 19:28:53.101240 21845 net.cpp:131] Top shape: 100 (100)
I0428 19:28:53.101248 21845 net.cpp:131] Top shape: 100 (100)
I0428 19:28:53.101254 21845 net.cpp:139] Memory required for data: 314800
I0428 19:28:53.101259 21845 layer_factory.hpp:77] Creating layer conv0
I0428 19:28:53.101274 21845 net.cpp:86] Creating Layer conv0
I0428 19:28:53.101280 21845 net.cpp:408] conv0 <- data
I0428 19:28:53.101305 21845 net.cpp:382] conv0 -> conv0
I0428 19:28:53.102722 21845 net.cpp:124] Setting up conv0
I0428 19:28:53.102737 21845 net.cpp:131] Top shape: 100 2 24 24 (115200)
I0428 19:28:53.102742 21845 net.cpp:139] Memory required for data: 775600
I0428 19:28:53.102756 21845 layer_factory.hpp:77] Creating layer pool0
I0428 19:28:53.102764 21845 net.cpp:86] Creating Layer pool0
I0428 19:28:53.102771 21845 net.cpp:408] pool0 <- conv0
I0428 19:28:53.102794 21845 net.cpp:382] pool0 -> pool0
I0428 19:28:53.102834 21845 net.cpp:124] Setting up pool0
I0428 19:28:53.102841 21845 net.cpp:131] Top shape: 100 2 12 12 (28800)
I0428 19:28:53.102864 21845 net.cpp:139] Memory required for data: 890800
I0428 19:28:53.102869 21845 layer_factory.hpp:77] Creating layer ip1
I0428 19:28:53.102880 21845 net.cpp:86] Creating Layer ip1
I0428 19:28:53.102885 21845 net.cpp:408] ip1 <- pool0
I0428 19:28:53.102895 21845 net.cpp:382] ip1 -> ip1
I0428 19:28:53.103045 21845 net.cpp:124] Setting up ip1
I0428 19:28:53.103055 21845 net.cpp:131] Top shape: 100 10 (1000)
I0428 19:28:53.103060 21845 net.cpp:139] Memory required for data: 894800
I0428 19:28:53.103070 21845 layer_factory.hpp:77] Creating layer relu1
I0428 19:28:53.103078 21845 net.cpp:86] Creating Layer relu1
I0428 19:28:53.103085 21845 net.cpp:408] relu1 <- ip1
I0428 19:28:53.103091 21845 net.cpp:369] relu1 -> ip1 (in-place)
I0428 19:28:53.103338 21845 net.cpp:124] Setting up relu1
I0428 19:28:53.103349 21845 net.cpp:131] Top shape: 100 10 (1000)
I0428 19:28:53.103354 21845 net.cpp:139] Memory required for data: 898800
I0428 19:28:53.103360 21845 layer_factory.hpp:77] Creating layer ip1_relu1_0_split
I0428 19:28:53.103369 21845 net.cpp:86] Creating Layer ip1_relu1_0_split
I0428 19:28:53.103374 21845 net.cpp:408] ip1_relu1_0_split <- ip1
I0428 19:28:53.103381 21845 net.cpp:382] ip1_relu1_0_split -> ip1_relu1_0_split_0
I0428 19:28:53.103391 21845 net.cpp:382] ip1_relu1_0_split -> ip1_relu1_0_split_1
I0428 19:28:53.103446 21845 net.cpp:124] Setting up ip1_relu1_0_split
I0428 19:28:53.103454 21845 net.cpp:131] Top shape: 100 10 (1000)
I0428 19:28:53.103462 21845 net.cpp:131] Top shape: 100 10 (1000)
I0428 19:28:53.103467 21845 net.cpp:139] Memory required for data: 906800
I0428 19:28:53.103472 21845 layer_factory.hpp:77] Creating layer accuracy
I0428 19:28:53.103482 21845 net.cpp:86] Creating Layer accuracy
I0428 19:28:53.103488 21845 net.cpp:408] accuracy <- ip1_relu1_0_split_0
I0428 19:28:53.103497 21845 net.cpp:408] accuracy <- label_mnist_1_split_0
I0428 19:28:53.103503 21845 net.cpp:382] accuracy -> accuracy
…
