…
I0428 20:18:50.732038  1247 net.cpp:296] The NetState phase (0) differed from the phase (1) specified by a rule in layer mnist
I0428 20:18:50.732053  1247 net.cpp:296] The NetState phase (0) differed from the phase (1) specified by a rule in layer accuracy
I0428 20:18:50.732123  1247 net.cpp:53] Initializing net from parameters: 
name: "LeNet"
state {
  phase: TRAIN
  level: 0
  stage: ""
}
layer {
  name: "mnist"
  type: "Data"
  top: "data"
  top: "label"
  include {
    phase: TRAIN
  }
  transform_param {
    scale: 0.00390625
  }
  data_param {
    source: "examples/mnist/mnist_train_lmdb"
    batch_size: 64
    backend: LMDB
  }
}
layer {
  name: "conv0"
  type: "Convolution"
  bottom: "data"
  top: "conv0"
  param {
    lr_mult: 1
  }
  param {
    lr_mult: 2
  }
  convolution_param {
    num_output: 50
    kernel_size: 5
    stride: 1
    weight_filler {
      type: "xavier"
    }
    bias_filler {
      type: "constant"
    }
  }
}
layer {
  name: "pool0"
  type: "Pooling"
  bottom: "conv0"
  top: "pool0"
  pooling_param {
    pool: MAX
    kernel_size: 2
    stride: 2
  }
}
layer {
  name: "conv1"
  type: "Convolution"
  bottom: "pool0"
  top: "conv1"
  param {
    lr_mult: 1
  }
  param {
    lr_mult: 2
  }
  convolution_param {
    num_output: 25
    kernel_size: 5
    stride: 1
    weight_filler {
      type: "xavier"
    }
    bias_filler {
      type: "constant"
    }
  }
}
layer {
  name: "pool1"
  type: "Pooling"
  bottom: "conv1"
  top: "pool1"
  pooling_param {
    pool: MAX
    kernel_size: 2
    stride: 2
  }
}
layer {
  name: "ip1"
  type: "InnerProduct"
  bottom: "pool1"
  top: "ip1"
  param {
    lr_mult: 1
  }
  param {
    lr_mult: 2
  }
  inner_product_param {
    num_output: 10
    weight_filler {
      type: "xavier"
    }
    bias_filler {
      type: "constant"
    }
  }
}
layer {
  name: "relu1"
  type: "ReLU"
  bottom: "ip1"
  top: "ip1"
}
layer {
  name: "loss"
  type: "SoftmaxWithLoss"
  bottom: "ip1"
  bottom: "label"
  top: "loss"
}
I0428 20:18:50.732182  1247 layer_factory.hpp:77] Creating layer mnist
I0428 20:18:50.732269  1247 db_lmdb.cpp:35] Opened lmdb examples/mnist/mnist_train_lmdb
I0428 20:18:50.732317  1247 net.cpp:86] Creating Layer mnist
I0428 20:18:50.732324  1247 net.cpp:382] mnist -> data
I0428 20:18:50.732342  1247 net.cpp:382] mnist -> label
I0428 20:18:50.733399  1247 data_layer.cpp:45] output data size: 64,1,28,28
I0428 20:18:50.735661  1247 net.cpp:124] Setting up mnist
I0428 20:18:50.735690  1247 net.cpp:131] Top shape: 64 1 28 28 (50176)
I0428 20:18:50.735695  1247 net.cpp:131] Top shape: 64 (64)
I0428 20:18:50.735698  1247 net.cpp:139] Memory required for data: 200960
I0428 20:18:50.735704  1247 layer_factory.hpp:77] Creating layer conv0
I0428 20:18:50.735718  1247 net.cpp:86] Creating Layer conv0
I0428 20:18:50.735723  1247 net.cpp:408] conv0 <- data
I0428 20:18:50.735734  1247 net.cpp:382] conv0 -> conv0
I0428 20:18:50.970999  1247 net.cpp:124] Setting up conv0
I0428 20:18:50.971042  1247 net.cpp:131] Top shape: 64 50 24 24 (1843200)
I0428 20:18:50.971046  1247 net.cpp:139] Memory required for data: 7573760
I0428 20:18:50.971060  1247 layer_factory.hpp:77] Creating layer pool0
I0428 20:18:50.971073  1247 net.cpp:86] Creating Layer pool0
I0428 20:18:50.971077  1247 net.cpp:408] pool0 <- conv0
I0428 20:18:50.971082  1247 net.cpp:382] pool0 -> pool0
I0428 20:18:50.971144  1247 net.cpp:124] Setting up pool0
I0428 20:18:50.971150  1247 net.cpp:131] Top shape: 64 50 12 12 (460800)
I0428 20:18:50.971169  1247 net.cpp:139] Memory required for data: 9416960
I0428 20:18:50.971174  1247 layer_factory.hpp:77] Creating layer conv1
I0428 20:18:50.971184  1247 net.cpp:86] Creating Layer conv1
I0428 20:18:50.971186  1247 net.cpp:408] conv1 <- pool0
I0428 20:18:50.971191  1247 net.cpp:382] conv1 -> conv1
I0428 20:18:50.973364  1247 net.cpp:124] Setting up conv1
I0428 20:18:50.973394  1247 net.cpp:131] Top shape: 64 25 8 8 (102400)
I0428 20:18:50.973398  1247 net.cpp:139] Memory required for data: 9826560
I0428 20:18:50.973407  1247 layer_factory.hpp:77] Creating layer pool1
I0428 20:18:50.973415  1247 net.cpp:86] Creating Layer pool1
I0428 20:18:50.973419  1247 net.cpp:408] pool1 <- conv1
I0428 20:18:50.973424  1247 net.cpp:382] pool1 -> pool1
I0428 20:18:50.973479  1247 net.cpp:124] Setting up pool1
I0428 20:18:50.973484  1247 net.cpp:131] Top shape: 64 25 4 4 (25600)
I0428 20:18:50.973487  1247 net.cpp:139] Memory required for data: 9928960
I0428 20:18:50.973490  1247 layer_factory.hpp:77] Creating layer ip1
I0428 20:18:50.973497  1247 net.cpp:86] Creating Layer ip1
I0428 20:18:50.973500  1247 net.cpp:408] ip1 <- pool1
I0428 20:18:50.973505  1247 net.cpp:382] ip1 -> ip1
I0428 20:18:50.973651  1247 net.cpp:124] Setting up ip1
I0428 20:18:50.973660  1247 net.cpp:131] Top shape: 64 10 (640)
I0428 20:18:50.973664  1247 net.cpp:139] Memory required for data: 9931520
I0428 20:18:50.973670  1247 layer_factory.hpp:77] Creating layer relu1
I0428 20:18:50.973675  1247 net.cpp:86] Creating Layer relu1
I0428 20:18:50.973680  1247 net.cpp:408] relu1 <- ip1
I0428 20:18:50.973701  1247 net.cpp:369] relu1 -> ip1 (in-place)
I0428 20:18:50.973896  1247 net.cpp:124] Setting up relu1
I0428 20:18:50.973906  1247 net.cpp:131] Top shape: 64 10 (640)
I0428 20:18:50.973909  1247 net.cpp:139] Memory required for data: 9934080
I0428 20:18:50.973912  1247 layer_factory.hpp:77] Creating layer loss
I0428 20:18:50.973918  1247 net.cpp:86] Creating Layer loss
I0428 20:18:50.973923  1247 net.cpp:408] loss <- ip1
I0428 20:18:50.973927  1247 net.cpp:408] loss <- label
I0428 20:18:50.973932  1247 net.cpp:382] loss -> loss
I0428 20:18:50.973950  1247 layer_factory.hpp:77] Creating layer loss
…
I0428 20:18:50.975208  1247 solver.cpp:173] Creating test net (#0) specified by net file: ECE595/mnist/train_test/var_everything2/lenet_train_test1328.prototxt
I0428 20:18:50.975234  1247 net.cpp:296] The NetState phase (1) differed from the phase (0) specified by a rule in layer mnist
I0428 20:18:50.975322  1247 net.cpp:53] Initializing net from parameters: 
name: "LeNet"
state {
  phase: TEST
}
layer {
  name: "mnist"
  type: "Data"
  top: "data"
  top: "label"
  include {
    phase: TEST
  }
  transform_param {
    scale: 0.00390625
  }
  data_param {
    source: "examples/mnist/mnist_test_lmdb"
    batch_size: 100
    backend: LMDB
  }
}
layer {
  name: "conv0"
  type: "Convolution"
  bottom: "data"
  top: "conv0"
  param {
    lr_mult: 1
  }
  param {
    lr_mult: 2
  }
  convolution_param {
    num_output: 50
    kernel_size: 5
    stride: 1
    weight_filler {
      type: "xavier"
    }
    bias_filler {
      type: "constant"
    }
  }
}
layer {
  name: "pool0"
  type: "Pooling"
  bottom: "conv0"
  top: "pool0"
  pooling_param {
    pool: MAX
    kernel_size: 2
    stride: 2
  }
}
layer {
  name: "conv1"
  type: "Convolution"
  bottom: "pool0"
  top: "conv1"
  param {
    lr_mult: 1
  }
  param {
    lr_mult: 2
  }
  convolution_param {
    num_output: 25
    kernel_size: 5
    stride: 1
    weight_filler {
      type: "xavier"
    }
    bias_filler {
      type: "constant"
    }
  }
}
layer {
  name: "pool1"
  type: "Pooling"
  bottom: "conv1"
  top: "pool1"
  pooling_param {
    pool: MAX
    kernel_size: 2
    stride: 2
  }
}
layer {
  name: "ip1"
  type: "InnerProduct"
  bottom: "pool1"
  top: "ip1"
  param {
    lr_mult: 1
  }
  param {
    lr_mult: 2
  }
  inner_product_param {
    num_output: 10
    weight_filler {
      type: "xavier"
    }
    bias_filler {
      type: "constant"
    }
  }
}
layer {
  name: "relu1"
  type: "ReLU"
  bottom: "ip1"
  top: "ip1"
}
layer {
  name: "accuracy"
  type: "Accuracy"
  bottom: "ip1"
  bottom: "label"
  top: "accuracy"
  include {
    phase: TEST
  }
}
layer {
  name: "loss"
  type: "SoftmaxWithLoss"
  bottom: "ip1"
  bottom: "label"
  top: "loss"
}
I0428 20:18:50.975399  1247 layer_factory.hpp:77] Creating layer mnist
I0428 20:18:50.975443  1247 db_lmdb.cpp:35] Opened lmdb examples/mnist/mnist_test_lmdb
I0428 20:18:50.975455  1247 net.cpp:86] Creating Layer mnist
I0428 20:18:50.975461  1247 net.cpp:382] mnist -> data
I0428 20:18:50.975469  1247 net.cpp:382] mnist -> label
I0428 20:18:50.975554  1247 data_layer.cpp:45] output data size: 100,1,28,28
I0428 20:18:50.977664  1247 net.cpp:124] Setting up mnist
I0428 20:18:50.977694  1247 net.cpp:131] Top shape: 100 1 28 28 (78400)
I0428 20:18:50.977699  1247 net.cpp:131] Top shape: 100 (100)
I0428 20:18:50.977701  1247 net.cpp:139] Memory required for data: 314000
I0428 20:18:50.977705  1247 layer_factory.hpp:77] Creating layer label_mnist_1_split
I0428 20:18:50.977744  1247 net.cpp:86] Creating Layer label_mnist_1_split
I0428 20:18:50.977748  1247 net.cpp:408] label_mnist_1_split <- label
I0428 20:18:50.977762  1247 net.cpp:382] label_mnist_1_split -> label_mnist_1_split_0
I0428 20:18:50.977771  1247 net.cpp:382] label_mnist_1_split -> label_mnist_1_split_1
I0428 20:18:50.977819  1247 net.cpp:124] Setting up label_mnist_1_split
I0428 20:18:50.977824  1247 net.cpp:131] Top shape: 100 (100)
I0428 20:18:50.977828  1247 net.cpp:131] Top shape: 100 (100)
I0428 20:18:50.977831  1247 net.cpp:139] Memory required for data: 314800
I0428 20:18:50.977833  1247 layer_factory.hpp:77] Creating layer conv0
I0428 20:18:50.977843  1247 net.cpp:86] Creating Layer conv0
I0428 20:18:50.977862  1247 net.cpp:408] conv0 <- data
I0428 20:18:50.977869  1247 net.cpp:382] conv0 -> conv0
I0428 20:18:50.978924  1247 net.cpp:124] Setting up conv0
I0428 20:18:50.978952  1247 net.cpp:131] Top shape: 100 50 24 24 (2880000)
I0428 20:18:50.978955  1247 net.cpp:139] Memory required for data: 11834800
I0428 20:18:50.978965  1247 layer_factory.hpp:77] Creating layer pool0
I0428 20:18:50.978971  1247 net.cpp:86] Creating Layer pool0
I0428 20:18:50.978974  1247 net.cpp:408] pool0 <- conv0
I0428 20:18:50.978981  1247 net.cpp:382] pool0 -> pool0
I0428 20:18:50.979017  1247 net.cpp:124] Setting up pool0
I0428 20:18:50.979022  1247 net.cpp:131] Top shape: 100 50 12 12 (720000)
I0428 20:18:50.979025  1247 net.cpp:139] Memory required for data: 14714800
I0428 20:18:50.979027  1247 layer_factory.hpp:77] Creating layer conv1
I0428 20:18:50.979038  1247 net.cpp:86] Creating Layer conv1
I0428 20:18:50.979041  1247 net.cpp:408] conv1 <- pool0
I0428 20:18:50.979045  1247 net.cpp:382] conv1 -> conv1
I0428 20:18:50.980849  1247 net.cpp:124] Setting up conv1
I0428 20:18:50.980862  1247 net.cpp:131] Top shape: 100 25 8 8 (160000)
I0428 20:18:50.980882  1247 net.cpp:139] Memory required for data: 15354800
I0428 20:18:50.980893  1247 layer_factory.hpp:77] Creating layer pool1
I0428 20:18:50.980901  1247 net.cpp:86] Creating Layer pool1
I0428 20:18:50.980929  1247 net.cpp:408] pool1 <- conv1
I0428 20:18:50.980950  1247 net.cpp:382] pool1 -> pool1
I0428 20:18:50.980990  1247 net.cpp:124] Setting up pool1
I0428 20:18:50.980998  1247 net.cpp:131] Top shape: 100 25 4 4 (40000)
I0428 20:18:50.981000  1247 net.cpp:139] Memory required for data: 15514800
I0428 20:18:50.981003  1247 layer_factory.hpp:77] Creating layer ip1
I0428 20:18:50.981009  1247 net.cpp:86] Creating Layer ip1
I0428 20:18:50.981014  1247 net.cpp:408] ip1 <- pool1
I0428 20:18:50.981019  1247 net.cpp:382] ip1 -> ip1
I0428 20:18:50.981159  1247 net.cpp:124] Setting up ip1
I0428 20:18:50.981168  1247 net.cpp:131] Top shape: 100 10 (1000)
I0428 20:18:50.981171  1247 net.cpp:139] Memory required for data: 15518800
I0428 20:18:50.981179  1247 layer_factory.hpp:77] Creating layer relu1
I0428 20:18:50.981209  1247 net.cpp:86] Creating Layer relu1
I0428 20:18:50.981212  1247 net.cpp:408] relu1 <- ip1
I0428 20:18:50.981216  1247 net.cpp:369] relu1 -> ip1 (in-place)
I0428 20:18:50.982031  1247 net.cpp:124] Setting up relu1
I0428 20:18:50.982043  1247 net.cpp:131] Top shape: 100 10 (1000)
I0428 20:18:50.982046  1247 net.cpp:139] Memory required for data: 15522800
I0428 20:18:50.982050  1247 layer_factory.hpp:77] Creating layer ip1_relu1_0_split
I0428 20:18:50.982058  1247 net.cpp:86] Creating Layer ip1_relu1_0_split
I0428 20:18:50.982061  1247 net.cpp:408] ip1_relu1_0_split <- ip1
I0428 20:18:50.982066  1247 net.cpp:382] ip1_relu1_0_split -> ip1_relu1_0_split_0
I0428 20:18:50.982072  1247 net.cpp:382] ip1_relu1_0_split -> ip1_relu1_0_split_1
I0428 20:18:50.982144  1247 net.cpp:124] Setting up ip1_relu1_0_split
I0428 20:18:50.982149  1247 net.cpp:131] Top shape: 100 10 (1000)
I0428 20:18:50.982153  1247 net.cpp:131] Top shape: 100 10 (1000)
I0428 20:18:50.982156  1247 net.cpp:139] Memory required for data: 15530800
I0428 20:18:50.982158  1247 layer_factory.hpp:77] Creating layer accuracy
I0428 20:18:50.982162  1247 net.cpp:86] Creating Layer accuracy
I0428 20:18:50.982167  1247 net.cpp:408] accuracy <- ip1_relu1_0_split_0
I0428 20:18:50.982170  1247 net.cpp:408] accuracy <- label_mnist_1_split_0
I0428 20:18:50.982175  1247 net.cpp:382] accuracy -> accuracy
…
