…
I0428 19:51:29.839074 27294 net.cpp:296] The NetState phase (0) differed from the phase (1) specified by a rule in layer mnist
I0428 19:51:29.839092 27294 net.cpp:296] The NetState phase (0) differed from the phase (1) specified by a rule in layer accuracy
I0428 19:51:29.839184 27294 net.cpp:53] Initializing net from parameters: 
name: "LeNet"
state {
  phase: TRAIN
  level: 0
  stage: ""
}
layer {
  name: "mnist"
  type: "Data"
  top: "data"
  top: "label"
  include {
    phase: TRAIN
  }
  transform_param {
    scale: 0.00390625
  }
  data_param {
    source: "examples/mnist/mnist_train_lmdb"
    batch_size: 64
    backend: LMDB
  }
}
layer {
  name: "conv0"
  type: "Convolution"
  bottom: "data"
  top: "conv0"
  param {
    lr_mult: 1
  }
  param {
    lr_mult: 2
  }
  convolution_param {
    num_output: 5
    kernel_size: 5
    stride: 1
    weight_filler {
      type: "xavier"
    }
    bias_filler {
      type: "constant"
    }
  }
}
layer {
  name: "pool0"
  type: "Pooling"
  bottom: "conv0"
  top: "pool0"
  pooling_param {
    pool: MAX
    kernel_size: 2
    stride: 2
  }
}
layer {
  name: "conv1"
  type: "Convolution"
  bottom: "pool0"
  top: "conv1"
  param {
    lr_mult: 1
  }
  param {
    lr_mult: 2
  }
  convolution_param {
    num_output: 25
    kernel_size: 5
    stride: 1
    weight_filler {
      type: "xavier"
    }
    bias_filler {
      type: "constant"
    }
  }
}
layer {
  name: "pool1"
  type: "Pooling"
  bottom: "conv1"
  top: "pool1"
  pooling_param {
    pool: MAX
    kernel_size: 2
    stride: 2
  }
}
layer {
  name: "ip1"
  type: "InnerProduct"
  bottom: "pool1"
  top: "ip1"
  param {
    lr_mult: 1
  }
  param {
    lr_mult: 2
  }
  inner_product_param {
    num_output: 50
    weight_filler {
      type: "xavier"
    }
    bias_filler {
      type: "constant"
    }
  }
}
layer {
  name: "relu1"
  type: "ReLU"
  bottom: "ip1"
  top: "ip1"
}
layer {
  name: "ip2"
  type: "InnerProduct"
  bottom: "ip1"
  top: "ip2"
  param {
    lr_mult: 1
  }
  param {
    lr_mult: 2
  }
  inner_product_param {
    num_output: 10
    weight_filler {
      type: "xavier"
    }
    bias_filler {
      type: "constant"
    }
  }
}
layer {
  name: "relu2"
  type: "ReLU"
  bottom: "ip2"
  top: "ip2"
}
layer {
  name: "loss"
  type: "SoftmaxWithLoss"
  bottom: "ip2"
  bottom: "label"
  top: "loss"
}
I0428 19:51:29.839260 27294 layer_factory.hpp:77] Creating layer mnist
I0428 19:51:29.839359 27294 db_lmdb.cpp:35] Opened lmdb examples/mnist/mnist_train_lmdb
I0428 19:51:29.839381 27294 net.cpp:86] Creating Layer mnist
I0428 19:51:29.839390 27294 net.cpp:382] mnist -> data
I0428 19:51:29.839411 27294 net.cpp:382] mnist -> label
I0428 19:51:29.840502 27294 data_layer.cpp:45] output data size: 64,1,28,28
I0428 19:51:29.842972 27294 net.cpp:124] Setting up mnist
I0428 19:51:29.842989 27294 net.cpp:131] Top shape: 64 1 28 28 (50176)
I0428 19:51:29.842996 27294 net.cpp:131] Top shape: 64 (64)
I0428 19:51:29.843001 27294 net.cpp:139] Memory required for data: 200960
I0428 19:51:29.843009 27294 layer_factory.hpp:77] Creating layer conv0
I0428 19:51:29.843024 27294 net.cpp:86] Creating Layer conv0
I0428 19:51:29.843029 27294 net.cpp:408] conv0 <- data
I0428 19:51:29.843044 27294 net.cpp:382] conv0 -> conv0
I0428 19:51:30.113103 27294 net.cpp:124] Setting up conv0
I0428 19:51:30.113131 27294 net.cpp:131] Top shape: 64 5 24 24 (184320)
I0428 19:51:30.113134 27294 net.cpp:139] Memory required for data: 938240
I0428 19:51:30.113183 27294 layer_factory.hpp:77] Creating layer pool0
I0428 19:51:30.113196 27294 net.cpp:86] Creating Layer pool0
I0428 19:51:30.113200 27294 net.cpp:408] pool0 <- conv0
I0428 19:51:30.113205 27294 net.cpp:382] pool0 -> pool0
I0428 19:51:30.113253 27294 net.cpp:124] Setting up pool0
I0428 19:51:30.113260 27294 net.cpp:131] Top shape: 64 5 12 12 (46080)
I0428 19:51:30.113263 27294 net.cpp:139] Memory required for data: 1122560
I0428 19:51:30.113266 27294 layer_factory.hpp:77] Creating layer conv1
I0428 19:51:30.113277 27294 net.cpp:86] Creating Layer conv1
I0428 19:51:30.113281 27294 net.cpp:408] conv1 <- pool0
I0428 19:51:30.113301 27294 net.cpp:382] conv1 -> conv1
I0428 19:51:30.115918 27294 net.cpp:124] Setting up conv1
I0428 19:51:30.115932 27294 net.cpp:131] Top shape: 64 25 8 8 (102400)
I0428 19:51:30.115936 27294 net.cpp:139] Memory required for data: 1532160
I0428 19:51:30.115944 27294 layer_factory.hpp:77] Creating layer pool1
I0428 19:51:30.115967 27294 net.cpp:86] Creating Layer pool1
I0428 19:51:30.115972 27294 net.cpp:408] pool1 <- conv1
I0428 19:51:30.115977 27294 net.cpp:382] pool1 -> pool1
I0428 19:51:30.116013 27294 net.cpp:124] Setting up pool1
I0428 19:51:30.116019 27294 net.cpp:131] Top shape: 64 25 4 4 (25600)
I0428 19:51:30.116022 27294 net.cpp:139] Memory required for data: 1634560
I0428 19:51:30.116025 27294 layer_factory.hpp:77] Creating layer ip1
I0428 19:51:30.116034 27294 net.cpp:86] Creating Layer ip1
I0428 19:51:30.116036 27294 net.cpp:408] ip1 <- pool1
I0428 19:51:30.116040 27294 net.cpp:382] ip1 -> ip1
I0428 19:51:30.116243 27294 net.cpp:124] Setting up ip1
I0428 19:51:30.116251 27294 net.cpp:131] Top shape: 64 50 (3200)
I0428 19:51:30.116255 27294 net.cpp:139] Memory required for data: 1647360
I0428 19:51:30.116261 27294 layer_factory.hpp:77] Creating layer relu1
I0428 19:51:30.116266 27294 net.cpp:86] Creating Layer relu1
I0428 19:51:30.116269 27294 net.cpp:408] relu1 <- ip1
I0428 19:51:30.116273 27294 net.cpp:369] relu1 -> ip1 (in-place)
I0428 19:51:30.116431 27294 net.cpp:124] Setting up relu1
I0428 19:51:30.116439 27294 net.cpp:131] Top shape: 64 50 (3200)
I0428 19:51:30.116442 27294 net.cpp:139] Memory required for data: 1660160
I0428 19:51:30.116446 27294 layer_factory.hpp:77] Creating layer ip2
I0428 19:51:30.116451 27294 net.cpp:86] Creating Layer ip2
I0428 19:51:30.116456 27294 net.cpp:408] ip2 <- ip1
I0428 19:51:30.116459 27294 net.cpp:382] ip2 -> ip2
I0428 19:51:30.116554 27294 net.cpp:124] Setting up ip2
I0428 19:51:30.116560 27294 net.cpp:131] Top shape: 64 10 (640)
I0428 19:51:30.116564 27294 net.cpp:139] Memory required for data: 1662720
I0428 19:51:30.116569 27294 layer_factory.hpp:77] Creating layer relu2
I0428 19:51:30.116575 27294 net.cpp:86] Creating Layer relu2
I0428 19:51:30.116577 27294 net.cpp:408] relu2 <- ip2
I0428 19:51:30.116581 27294 net.cpp:369] relu2 -> ip2 (in-place)
I0428 19:51:30.117337 27294 net.cpp:124] Setting up relu2
I0428 19:51:30.117350 27294 net.cpp:131] Top shape: 64 10 (640)
I0428 19:51:30.117354 27294 net.cpp:139] Memory required for data: 1665280
I0428 19:51:30.117357 27294 layer_factory.hpp:77] Creating layer loss
I0428 19:51:30.117364 27294 net.cpp:86] Creating Layer loss
I0428 19:51:30.117383 27294 net.cpp:408] loss <- ip2
I0428 19:51:30.117388 27294 net.cpp:408] loss <- label
I0428 19:51:30.117393 27294 net.cpp:382] loss -> loss
I0428 19:51:30.117408 27294 layer_factory.hpp:77] Creating layer loss
…
I0428 19:51:30.118044 27294 solver.cpp:173] Creating test net (#0) specified by net file: ECE595/mnist/train_test/var_everything2/lenet_train_test635.prototxt
I0428 19:51:30.118070 27294 net.cpp:296] The NetState phase (1) differed from the phase (0) specified by a rule in layer mnist
I0428 19:51:30.118171 27294 net.cpp:53] Initializing net from parameters: 
name: "LeNet"
state {
  phase: TEST
}
layer {
  name: "mnist"
  type: "Data"
  top: "data"
  top: "label"
  include {
    phase: TEST
  }
  transform_param {
    scale: 0.00390625
  }
  data_param {
    source: "examples/mnist/mnist_test_lmdb"
    batch_size: 100
    backend: LMDB
  }
}
layer {
  name: "conv0"
  type: "Convolution"
  bottom: "data"
  top: "conv0"
  param {
    lr_mult: 1
  }
  param {
    lr_mult: 2
  }
  convolution_param {
    num_output: 5
    kernel_size: 5
    stride: 1
    weight_filler {
      type: "xavier"
    }
    bias_filler {
      type: "constant"
    }
  }
}
layer {
  name: "pool0"
  type: "Pooling"
  bottom: "conv0"
  top: "pool0"
  pooling_param {
    pool: MAX
    kernel_size: 2
    stride: 2
  }
}
layer {
  name: "conv1"
  type: "Convolution"
  bottom: "pool0"
  top: "conv1"
  param {
    lr_mult: 1
  }
  param {
    lr_mult: 2
  }
  convolution_param {
    num_output: 25
    kernel_size: 5
    stride: 1
    weight_filler {
      type: "xavier"
    }
    bias_filler {
      type: "constant"
    }
  }
}
layer {
  name: "pool1"
  type: "Pooling"
  bottom: "conv1"
  top: "pool1"
  pooling_param {
    pool: MAX
    kernel_size: 2
    stride: 2
  }
}
layer {
  name: "ip1"
  type: "InnerProduct"
  bottom: "pool1"
  top: "ip1"
  param {
    lr_mult: 1
  }
  param {
    lr_mult: 2
  }
  inner_product_param {
    num_output: 50
    weight_filler {
      type: "xavier"
    }
    bias_filler {
      type: "constant"
    }
  }
}
layer {
  name: "relu1"
  type: "ReLU"
  bottom: "ip1"
  top: "ip1"
}
layer {
  name: "ip2"
  type: "InnerProduct"
  bottom: "ip1"
  top: "ip2"
  param {
    lr_mult: 1
  }
  param {
    lr_mult: 2
  }
  inner_product_param {
    num_output: 10
    weight_filler {
      type: "xavier"
    }
    bias_filler {
      type: "constant"
    }
  }
}
layer {
  name: "relu2"
  type: "ReLU"
  bottom: "ip2"
  top: "ip2"
}
layer {
  name: "accuracy"
  type: "Accuracy"
  bottom: "ip2"
  bottom: "label"
  top: "accuracy"
  include {
    phase: TEST
  }
}
layer {
  name: "loss"
  type: "SoftmaxWithLoss"
  bottom: "ip2"
  bottom: "label"
  top: "loss"
}
I0428 19:51:30.118234 27294 layer_factory.hpp:77] Creating layer mnist
I0428 19:51:30.118276 27294 db_lmdb.cpp:35] Opened lmdb examples/mnist/mnist_test_lmdb
I0428 19:51:30.118293 27294 net.cpp:86] Creating Layer mnist
I0428 19:51:30.118296 27294 net.cpp:382] mnist -> data
I0428 19:51:30.118304 27294 net.cpp:382] mnist -> label
I0428 19:51:30.118398 27294 data_layer.cpp:45] output data size: 100,1,28,28
I0428 19:51:30.120299 27294 net.cpp:124] Setting up mnist
I0428 19:51:30.120311 27294 net.cpp:131] Top shape: 100 1 28 28 (78400)
I0428 19:51:30.120316 27294 net.cpp:131] Top shape: 100 (100)
I0428 19:51:30.120319 27294 net.cpp:139] Memory required for data: 314000
I0428 19:51:30.120323 27294 layer_factory.hpp:77] Creating layer label_mnist_1_split
I0428 19:51:30.120329 27294 net.cpp:86] Creating Layer label_mnist_1_split
I0428 19:51:30.120332 27294 net.cpp:408] label_mnist_1_split <- label
I0428 19:51:30.120337 27294 net.cpp:382] label_mnist_1_split -> label_mnist_1_split_0
I0428 19:51:30.120343 27294 net.cpp:382] label_mnist_1_split -> label_mnist_1_split_1
I0428 19:51:30.120393 27294 net.cpp:124] Setting up label_mnist_1_split
I0428 19:51:30.120407 27294 net.cpp:131] Top shape: 100 (100)
I0428 19:51:30.120410 27294 net.cpp:131] Top shape: 100 (100)
I0428 19:51:30.120414 27294 net.cpp:139] Memory required for data: 314800
I0428 19:51:30.120416 27294 layer_factory.hpp:77] Creating layer conv0
I0428 19:51:30.120424 27294 net.cpp:86] Creating Layer conv0
I0428 19:51:30.120427 27294 net.cpp:408] conv0 <- data
I0428 19:51:30.120431 27294 net.cpp:382] conv0 -> conv0
I0428 19:51:30.122130 27294 net.cpp:124] Setting up conv0
I0428 19:51:30.122144 27294 net.cpp:131] Top shape: 100 5 24 24 (288000)
I0428 19:51:30.122148 27294 net.cpp:139] Memory required for data: 1466800
I0428 19:51:30.122156 27294 layer_factory.hpp:77] Creating layer pool0
I0428 19:51:30.122162 27294 net.cpp:86] Creating Layer pool0
I0428 19:51:30.122181 27294 net.cpp:408] pool0 <- conv0
I0428 19:51:30.122186 27294 net.cpp:382] pool0 -> pool0
I0428 19:51:30.122220 27294 net.cpp:124] Setting up pool0
I0428 19:51:30.122226 27294 net.cpp:131] Top shape: 100 5 12 12 (72000)
I0428 19:51:30.122229 27294 net.cpp:139] Memory required for data: 1754800
I0428 19:51:30.122231 27294 layer_factory.hpp:77] Creating layer conv1
I0428 19:51:30.122239 27294 net.cpp:86] Creating Layer conv1
I0428 19:51:30.122242 27294 net.cpp:408] conv1 <- pool0
I0428 19:51:30.122247 27294 net.cpp:382] conv1 -> conv1
I0428 19:51:30.124310 27294 net.cpp:124] Setting up conv1
I0428 19:51:30.124323 27294 net.cpp:131] Top shape: 100 25 8 8 (160000)
I0428 19:51:30.124327 27294 net.cpp:139] Memory required for data: 2394800
I0428 19:51:30.124336 27294 layer_factory.hpp:77] Creating layer pool1
I0428 19:51:30.124358 27294 net.cpp:86] Creating Layer pool1
I0428 19:51:30.124362 27294 net.cpp:408] pool1 <- conv1
I0428 19:51:30.124382 27294 net.cpp:382] pool1 -> pool1
I0428 19:51:30.124433 27294 net.cpp:124] Setting up pool1
I0428 19:51:30.124439 27294 net.cpp:131] Top shape: 100 25 4 4 (40000)
I0428 19:51:30.124442 27294 net.cpp:139] Memory required for data: 2554800
I0428 19:51:30.124445 27294 layer_factory.hpp:77] Creating layer ip1
I0428 19:51:30.124451 27294 net.cpp:86] Creating Layer ip1
I0428 19:51:30.124454 27294 net.cpp:408] ip1 <- pool1
I0428 19:51:30.124459 27294 net.cpp:382] ip1 -> ip1
I0428 19:51:30.124706 27294 net.cpp:124] Setting up ip1
I0428 19:51:30.124714 27294 net.cpp:131] Top shape: 100 50 (5000)
I0428 19:51:30.124718 27294 net.cpp:139] Memory required for data: 2574800
I0428 19:51:30.124725 27294 layer_factory.hpp:77] Creating layer relu1
I0428 19:51:30.124732 27294 net.cpp:86] Creating Layer relu1
I0428 19:51:30.124735 27294 net.cpp:408] relu1 <- ip1
I0428 19:51:30.124740 27294 net.cpp:369] relu1 -> ip1 (in-place)
I0428 19:51:30.124946 27294 net.cpp:124] Setting up relu1
I0428 19:51:30.124955 27294 net.cpp:131] Top shape: 100 50 (5000)
I0428 19:51:30.124959 27294 net.cpp:139] Memory required for data: 2594800
I0428 19:51:30.124963 27294 layer_factory.hpp:77] Creating layer ip2
I0428 19:51:30.124970 27294 net.cpp:86] Creating Layer ip2
I0428 19:51:30.124974 27294 net.cpp:408] ip2 <- ip1
I0428 19:51:30.124979 27294 net.cpp:382] ip2 -> ip2
I0428 19:51:30.125085 27294 net.cpp:124] Setting up ip2
I0428 19:51:30.125093 27294 net.cpp:131] Top shape: 100 10 (1000)
I0428 19:51:30.125097 27294 net.cpp:139] Memory required for data: 2598800
I0428 19:51:30.125102 27294 layer_factory.hpp:77] Creating layer relu2
I0428 19:51:30.125107 27294 net.cpp:86] Creating Layer relu2
I0428 19:51:30.125110 27294 net.cpp:408] relu2 <- ip2
I0428 19:51:30.125123 27294 net.cpp:369] relu2 -> ip2 (in-place)
I0428 19:51:30.125289 27294 net.cpp:124] Setting up relu2
I0428 19:51:30.125299 27294 net.cpp:131] Top shape: 100 10 (1000)
I0428 19:51:30.125308 27294 net.cpp:139] Memory required for data: 2602800
I0428 19:51:30.125311 27294 layer_factory.hpp:77] Creating layer ip2_relu2_0_split
I0428 19:51:30.125319 27294 net.cpp:86] Creating Layer ip2_relu2_0_split
I0428 19:51:30.125329 27294 net.cpp:408] ip2_relu2_0_split <- ip2
I0428 19:51:30.125332 27294 net.cpp:382] ip2_relu2_0_split -> ip2_relu2_0_split_0
I0428 19:51:30.125354 27294 net.cpp:382] ip2_relu2_0_split -> ip2_relu2_0_split_1
I0428 19:51:30.125391 27294 net.cpp:124] Setting up ip2_relu2_0_split
I0428 19:51:30.125397 27294 net.cpp:131] Top shape: 100 10 (1000)
I0428 19:51:30.125401 27294 net.cpp:131] Top shape: 100 10 (1000)
I0428 19:51:30.125403 27294 net.cpp:139] Memory required for data: 2610800
I0428 19:51:30.125406 27294 layer_factory.hpp:77] Creating layer accuracy
I0428 19:51:30.125411 27294 net.cpp:86] Creating Layer accuracy
I0428 19:51:30.125414 27294 net.cpp:408] accuracy <- ip2_relu2_0_split_0
I0428 19:51:30.125418 27294 net.cpp:408] accuracy <- label_mnist_1_split_0
I0428 19:51:30.125423 27294 net.cpp:382] accuracy -> accuracy
…
