…
I0428 20:22:16.440250  1938 net.cpp:296] The NetState phase (0) differed from the phase (1) specified by a rule in layer mnist
I0428 20:22:16.440282  1938 net.cpp:296] The NetState phase (0) differed from the phase (1) specified by a rule in layer accuracy
I0428 20:22:16.440361  1938 net.cpp:53] Initializing net from parameters: 
name: "LeNet"
state {
  phase: TRAIN
  level: 0
  stage: ""
}
layer {
  name: "mnist"
  type: "Data"
  top: "data"
  top: "label"
  include {
    phase: TRAIN
  }
  transform_param {
    scale: 0.00390625
  }
  data_param {
    source: "examples/mnist/mnist_train_lmdb"
    batch_size: 64
    backend: LMDB
  }
}
layer {
  name: "conv0"
  type: "Convolution"
  bottom: "data"
  top: "conv0"
  param {
    lr_mult: 1
  }
  param {
    lr_mult: 2
  }
  convolution_param {
    num_output: 50
    kernel_size: 5
    stride: 1
    weight_filler {
      type: "xavier"
    }
    bias_filler {
      type: "constant"
    }
  }
}
layer {
  name: "pool0"
  type: "Pooling"
  bottom: "conv0"
  top: "pool0"
  pooling_param {
    pool: MAX
    kernel_size: 2
    stride: 2
  }
}
layer {
  name: "conv1"
  type: "Convolution"
  bottom: "pool0"
  top: "conv1"
  param {
    lr_mult: 1
  }
  param {
    lr_mult: 2
  }
  convolution_param {
    num_output: 50
    kernel_size: 5
    stride: 1
    weight_filler {
      type: "xavier"
    }
    bias_filler {
      type: "constant"
    }
  }
}
layer {
  name: "pool1"
  type: "Pooling"
  bottom: "conv1"
  top: "pool1"
  pooling_param {
    pool: MAX
    kernel_size: 2
    stride: 2
  }
}
layer {
  name: "ip1"
  type: "InnerProduct"
  bottom: "pool1"
  top: "ip1"
  param {
    lr_mult: 1
  }
  param {
    lr_mult: 2
  }
  inner_product_param {
    num_output: 50
    weight_filler {
      type: "xavier"
    }
    bias_filler {
      type: "constant"
    }
  }
}
layer {
  name: "relu1"
  type: "ReLU"
  bottom: "ip1"
  top: "ip1"
}
layer {
  name: "ip2"
  type: "InnerProduct"
  bottom: "ip1"
  top: "ip2"
  param {
    lr_mult: 1
  }
  param {
    lr_mult: 2
  }
  inner_product_param {
    num_output: 50
    weight_filler {
      type: "xavier"
    }
    bias_filler {
      type: "constant"
    }
  }
}
layer {
  name: "relu2"
  type: "ReLU"
  bottom: "ip2"
  top: "ip2"
}
layer {
  name: "ip3"
  type: "InnerProduct"
  bottom: "ip2"
  top: "ip3"
  param {
    lr_mult: 1
  }
  param {
    lr_mult: 2
  }
  inner_product_param {
    num_output: 10
    weight_filler {
      type: "xavier"
    }
    bias_filler {
      type: "constant"
    }
  }
}
layer {
  name: "relu3"
  type: "ReLU"
  bottom: "ip3"
  top: "ip3"
}
layer {
  name: "loss"
  type: "SoftmaxWithLoss"
  bottom: "ip3"
  bottom: "label"
  top: "loss"
}
I0428 20:22:16.440425  1938 layer_factory.hpp:77] Creating layer mnist
I0428 20:22:16.440521  1938 db_lmdb.cpp:35] Opened lmdb examples/mnist/mnist_train_lmdb
I0428 20:22:16.440541  1938 net.cpp:86] Creating Layer mnist
I0428 20:22:16.440547  1938 net.cpp:382] mnist -> data
I0428 20:22:16.440565  1938 net.cpp:382] mnist -> label
I0428 20:22:16.441581  1938 data_layer.cpp:45] output data size: 64,1,28,28
I0428 20:22:16.443989  1938 net.cpp:124] Setting up mnist
I0428 20:22:16.444036  1938 net.cpp:131] Top shape: 64 1 28 28 (50176)
I0428 20:22:16.444041  1938 net.cpp:131] Top shape: 64 (64)
I0428 20:22:16.444043  1938 net.cpp:139] Memory required for data: 200960
I0428 20:22:16.444049  1938 layer_factory.hpp:77] Creating layer conv0
I0428 20:22:16.444079  1938 net.cpp:86] Creating Layer conv0
I0428 20:22:16.444097  1938 net.cpp:408] conv0 <- data
I0428 20:22:16.444106  1938 net.cpp:382] conv0 -> conv0
I0428 20:22:16.667296  1938 net.cpp:124] Setting up conv0
I0428 20:22:16.667321  1938 net.cpp:131] Top shape: 64 50 24 24 (1843200)
I0428 20:22:16.667325  1938 net.cpp:139] Memory required for data: 7573760
I0428 20:22:16.667340  1938 layer_factory.hpp:77] Creating layer pool0
I0428 20:22:16.667352  1938 net.cpp:86] Creating Layer pool0
I0428 20:22:16.667356  1938 net.cpp:408] pool0 <- conv0
I0428 20:22:16.667361  1938 net.cpp:382] pool0 -> pool0
I0428 20:22:16.667420  1938 net.cpp:124] Setting up pool0
I0428 20:22:16.667425  1938 net.cpp:131] Top shape: 64 50 12 12 (460800)
I0428 20:22:16.667428  1938 net.cpp:139] Memory required for data: 9416960
I0428 20:22:16.667431  1938 layer_factory.hpp:77] Creating layer conv1
I0428 20:22:16.667441  1938 net.cpp:86] Creating Layer conv1
I0428 20:22:16.667444  1938 net.cpp:408] conv1 <- pool0
I0428 20:22:16.667449  1938 net.cpp:382] conv1 -> conv1
I0428 20:22:16.669770  1938 net.cpp:124] Setting up conv1
I0428 20:22:16.669785  1938 net.cpp:131] Top shape: 64 50 8 8 (204800)
I0428 20:22:16.669803  1938 net.cpp:139] Memory required for data: 10236160
I0428 20:22:16.669811  1938 layer_factory.hpp:77] Creating layer pool1
I0428 20:22:16.669819  1938 net.cpp:86] Creating Layer pool1
I0428 20:22:16.669822  1938 net.cpp:408] pool1 <- conv1
I0428 20:22:16.669827  1938 net.cpp:382] pool1 -> pool1
I0428 20:22:16.669883  1938 net.cpp:124] Setting up pool1
I0428 20:22:16.669889  1938 net.cpp:131] Top shape: 64 50 4 4 (51200)
I0428 20:22:16.669891  1938 net.cpp:139] Memory required for data: 10440960
I0428 20:22:16.669894  1938 layer_factory.hpp:77] Creating layer ip1
I0428 20:22:16.669901  1938 net.cpp:86] Creating Layer ip1
I0428 20:22:16.669904  1938 net.cpp:408] ip1 <- pool1
I0428 20:22:16.669909  1938 net.cpp:382] ip1 -> ip1
I0428 20:22:16.670238  1938 net.cpp:124] Setting up ip1
I0428 20:22:16.670245  1938 net.cpp:131] Top shape: 64 50 (3200)
I0428 20:22:16.670264  1938 net.cpp:139] Memory required for data: 10453760
I0428 20:22:16.670271  1938 layer_factory.hpp:77] Creating layer relu1
I0428 20:22:16.670276  1938 net.cpp:86] Creating Layer relu1
I0428 20:22:16.670279  1938 net.cpp:408] relu1 <- ip1
I0428 20:22:16.670284  1938 net.cpp:369] relu1 -> ip1 (in-place)
I0428 20:22:16.670450  1938 net.cpp:124] Setting up relu1
I0428 20:22:16.670459  1938 net.cpp:131] Top shape: 64 50 (3200)
I0428 20:22:16.670462  1938 net.cpp:139] Memory required for data: 10466560
I0428 20:22:16.670465  1938 layer_factory.hpp:77] Creating layer ip2
I0428 20:22:16.670473  1938 net.cpp:86] Creating Layer ip2
I0428 20:22:16.670476  1938 net.cpp:408] ip2 <- ip1
I0428 20:22:16.670481  1938 net.cpp:382] ip2 -> ip2
I0428 20:22:16.670600  1938 net.cpp:124] Setting up ip2
I0428 20:22:16.670608  1938 net.cpp:131] Top shape: 64 50 (3200)
I0428 20:22:16.670610  1938 net.cpp:139] Memory required for data: 10479360
I0428 20:22:16.670615  1938 layer_factory.hpp:77] Creating layer relu2
I0428 20:22:16.670620  1938 net.cpp:86] Creating Layer relu2
I0428 20:22:16.670624  1938 net.cpp:408] relu2 <- ip2
I0428 20:22:16.670627  1938 net.cpp:369] relu2 -> ip2 (in-place)
I0428 20:22:16.671389  1938 net.cpp:124] Setting up relu2
I0428 20:22:16.671402  1938 net.cpp:131] Top shape: 64 50 (3200)
I0428 20:22:16.671421  1938 net.cpp:139] Memory required for data: 10492160
I0428 20:22:16.671424  1938 layer_factory.hpp:77] Creating layer ip3
I0428 20:22:16.671432  1938 net.cpp:86] Creating Layer ip3
I0428 20:22:16.671435  1938 net.cpp:408] ip3 <- ip2
I0428 20:22:16.671442  1938 net.cpp:382] ip3 -> ip3
I0428 20:22:16.671545  1938 net.cpp:124] Setting up ip3
I0428 20:22:16.671552  1938 net.cpp:131] Top shape: 64 10 (640)
I0428 20:22:16.671555  1938 net.cpp:139] Memory required for data: 10494720
I0428 20:22:16.671568  1938 layer_factory.hpp:77] Creating layer relu3
I0428 20:22:16.671574  1938 net.cpp:86] Creating Layer relu3
I0428 20:22:16.671577  1938 net.cpp:408] relu3 <- ip3
I0428 20:22:16.671583  1938 net.cpp:369] relu3 -> ip3 (in-place)
I0428 20:22:16.671762  1938 net.cpp:124] Setting up relu3
I0428 20:22:16.671771  1938 net.cpp:131] Top shape: 64 10 (640)
I0428 20:22:16.671774  1938 net.cpp:139] Memory required for data: 10497280
I0428 20:22:16.671777  1938 layer_factory.hpp:77] Creating layer loss
I0428 20:22:16.671782  1938 net.cpp:86] Creating Layer loss
I0428 20:22:16.671785  1938 net.cpp:408] loss <- ip3
I0428 20:22:16.671788  1938 net.cpp:408] loss <- label
I0428 20:22:16.671794  1938 net.cpp:382] loss -> loss
I0428 20:22:16.671814  1938 layer_factory.hpp:77] Creating layer loss
…
I0428 20:22:16.672502  1938 solver.cpp:173] Creating test net (#0) specified by net file: ECE595/mnist/train_test/var_everything2/lenet_train_test1401.prototxt
I0428 20:22:16.672539  1938 net.cpp:296] The NetState phase (1) differed from the phase (0) specified by a rule in layer mnist
I0428 20:22:16.672652  1938 net.cpp:53] Initializing net from parameters: 
name: "LeNet"
state {
  phase: TEST
}
layer {
  name: "mnist"
  type: "Data"
  top: "data"
  top: "label"
  include {
    phase: TEST
  }
  transform_param {
    scale: 0.00390625
  }
  data_param {
    source: "examples/mnist/mnist_test_lmdb"
    batch_size: 100
    backend: LMDB
  }
}
layer {
  name: "conv0"
  type: "Convolution"
  bottom: "data"
  top: "conv0"
  param {
    lr_mult: 1
  }
  param {
    lr_mult: 2
  }
  convolution_param {
    num_output: 50
    kernel_size: 5
    stride: 1
    weight_filler {
      type: "xavier"
    }
    bias_filler {
      type: "constant"
    }
  }
}
layer {
  name: "pool0"
  type: "Pooling"
  bottom: "conv0"
  top: "pool0"
  pooling_param {
    pool: MAX
    kernel_size: 2
    stride: 2
  }
}
layer {
  name: "conv1"
  type: "Convolution"
  bottom: "pool0"
  top: "conv1"
  param {
    lr_mult: 1
  }
  param {
    lr_mult: 2
  }
  convolution_param {
    num_output: 50
    kernel_size: 5
    stride: 1
    weight_filler {
      type: "xavier"
    }
    bias_filler {
      type: "constant"
    }
  }
}
layer {
  name: "pool1"
  type: "Pooling"
  bottom: "conv1"
  top: "pool1"
  pooling_param {
    pool: MAX
    kernel_size: 2
    stride: 2
  }
}
layer {
  name: "ip1"
  type: "InnerProduct"
  bottom: "pool1"
  top: "ip1"
  param {
    lr_mult: 1
  }
  param {
    lr_mult: 2
  }
  inner_product_param {
    num_output: 50
    weight_filler {
      type: "xavier"
    }
    bias_filler {
      type: "constant"
    }
  }
}
layer {
  name: "relu1"
  type: "ReLU"
  bottom: "ip1"
  top: "ip1"
}
layer {
  name: "ip2"
  type: "InnerProduct"
  bottom: "ip1"
  top: "ip2"
  param {
    lr_mult: 1
  }
  param {
    lr_mult: 2
  }
  inner_product_param {
    num_output: 50
    weight_filler {
      type: "xavier"
    }
    bias_filler {
      type: "constant"
    }
  }
}
layer {
  name: "relu2"
  type: "ReLU"
  bottom: "ip2"
  top: "ip2"
}
layer {
  name: "ip3"
  type: "InnerProduct"
  bottom: "ip2"
  top: "ip3"
  param {
    lr_mult: 1
  }
  param {
    lr_mult: 2
  }
  inner_product_param {
    num_output: 10
    weight_filler {
      type: "xavier"
    }
    bias_filler {
      type: "constant"
    }
  }
}
layer {
  name: "relu3"
  type: "ReLU"
  bottom: "ip3"
  top: "ip3"
}
layer {
  name: "accuracy"
  type: "Accuracy"
  bottom: "ip3"
  bottom: "label"
  top: "accuracy"
  include {
    phase: TEST
  }
}
layer {
  name: "loss"
  type: "SoftmaxWithLoss"
  bottom: "ip3"
  bottom: "label"
  top: "loss"
}
I0428 20:22:16.672732  1938 layer_factory.hpp:77] Creating layer mnist
I0428 20:22:16.672780  1938 db_lmdb.cpp:35] Opened lmdb examples/mnist/mnist_test_lmdb
I0428 20:22:16.672791  1938 net.cpp:86] Creating Layer mnist
I0428 20:22:16.672797  1938 net.cpp:382] mnist -> data
I0428 20:22:16.672806  1938 net.cpp:382] mnist -> label
I0428 20:22:16.672936  1938 data_layer.cpp:45] output data size: 100,1,28,28
I0428 20:22:16.674896  1938 net.cpp:124] Setting up mnist
I0428 20:22:16.674926  1938 net.cpp:131] Top shape: 100 1 28 28 (78400)
I0428 20:22:16.674948  1938 net.cpp:131] Top shape: 100 (100)
I0428 20:22:16.674953  1938 net.cpp:139] Memory required for data: 314000
I0428 20:22:16.674958  1938 layer_factory.hpp:77] Creating layer label_mnist_1_split
I0428 20:22:16.674965  1938 net.cpp:86] Creating Layer label_mnist_1_split
I0428 20:22:16.674968  1938 net.cpp:408] label_mnist_1_split <- label
I0428 20:22:16.674973  1938 net.cpp:382] label_mnist_1_split -> label_mnist_1_split_0
I0428 20:22:16.674979  1938 net.cpp:382] label_mnist_1_split -> label_mnist_1_split_1
I0428 20:22:16.675074  1938 net.cpp:124] Setting up label_mnist_1_split
I0428 20:22:16.675082  1938 net.cpp:131] Top shape: 100 (100)
I0428 20:22:16.675086  1938 net.cpp:131] Top shape: 100 (100)
I0428 20:22:16.675089  1938 net.cpp:139] Memory required for data: 314800
I0428 20:22:16.675092  1938 layer_factory.hpp:77] Creating layer conv0
I0428 20:22:16.675101  1938 net.cpp:86] Creating Layer conv0
I0428 20:22:16.675106  1938 net.cpp:408] conv0 <- data
I0428 20:22:16.675109  1938 net.cpp:382] conv0 -> conv0
I0428 20:22:16.676532  1938 net.cpp:124] Setting up conv0
I0428 20:22:16.676544  1938 net.cpp:131] Top shape: 100 50 24 24 (2880000)
I0428 20:22:16.676563  1938 net.cpp:139] Memory required for data: 11834800
I0428 20:22:16.676573  1938 layer_factory.hpp:77] Creating layer pool0
I0428 20:22:16.676579  1938 net.cpp:86] Creating Layer pool0
I0428 20:22:16.676584  1938 net.cpp:408] pool0 <- conv0
I0428 20:22:16.676589  1938 net.cpp:382] pool0 -> pool0
I0428 20:22:16.676640  1938 net.cpp:124] Setting up pool0
I0428 20:22:16.676645  1938 net.cpp:131] Top shape: 100 50 12 12 (720000)
I0428 20:22:16.676647  1938 net.cpp:139] Memory required for data: 14714800
I0428 20:22:16.676651  1938 layer_factory.hpp:77] Creating layer conv1
I0428 20:22:16.676659  1938 net.cpp:86] Creating Layer conv1
I0428 20:22:16.676662  1938 net.cpp:408] conv1 <- pool0
I0428 20:22:16.676668  1938 net.cpp:382] conv1 -> conv1
I0428 20:22:16.678586  1938 net.cpp:124] Setting up conv1
I0428 20:22:16.678599  1938 net.cpp:131] Top shape: 100 50 8 8 (320000)
I0428 20:22:16.678619  1938 net.cpp:139] Memory required for data: 15994800
I0428 20:22:16.678627  1938 layer_factory.hpp:77] Creating layer pool1
I0428 20:22:16.678634  1938 net.cpp:86] Creating Layer pool1
I0428 20:22:16.678639  1938 net.cpp:408] pool1 <- conv1
I0428 20:22:16.678648  1938 net.cpp:382] pool1 -> pool1
I0428 20:22:16.678686  1938 net.cpp:124] Setting up pool1
I0428 20:22:16.678692  1938 net.cpp:131] Top shape: 100 50 4 4 (80000)
I0428 20:22:16.678695  1938 net.cpp:139] Memory required for data: 16314800
I0428 20:22:16.678699  1938 layer_factory.hpp:77] Creating layer ip1
I0428 20:22:16.678704  1938 net.cpp:86] Creating Layer ip1
I0428 20:22:16.678707  1938 net.cpp:408] ip1 <- pool1
I0428 20:22:16.678712  1938 net.cpp:382] ip1 -> ip1
I0428 20:22:16.679044  1938 net.cpp:124] Setting up ip1
I0428 20:22:16.679052  1938 net.cpp:131] Top shape: 100 50 (5000)
I0428 20:22:16.679081  1938 net.cpp:139] Memory required for data: 16334800
I0428 20:22:16.679090  1938 layer_factory.hpp:77] Creating layer relu1
I0428 20:22:16.679096  1938 net.cpp:86] Creating Layer relu1
I0428 20:22:16.679100  1938 net.cpp:408] relu1 <- ip1
I0428 20:22:16.679103  1938 net.cpp:369] relu1 -> ip1 (in-place)
I0428 20:22:16.679286  1938 net.cpp:124] Setting up relu1
I0428 20:22:16.679296  1938 net.cpp:131] Top shape: 100 50 (5000)
I0428 20:22:16.679299  1938 net.cpp:139] Memory required for data: 16354800
I0428 20:22:16.679302  1938 layer_factory.hpp:77] Creating layer ip2
I0428 20:22:16.679309  1938 net.cpp:86] Creating Layer ip2
I0428 20:22:16.679312  1938 net.cpp:408] ip2 <- ip1
I0428 20:22:16.679317  1938 net.cpp:382] ip2 -> ip2
I0428 20:22:16.679477  1938 net.cpp:124] Setting up ip2
I0428 20:22:16.679491  1938 net.cpp:131] Top shape: 100 50 (5000)
I0428 20:22:16.679496  1938 net.cpp:139] Memory required for data: 16374800
I0428 20:22:16.679504  1938 layer_factory.hpp:77] Creating layer relu2
I0428 20:22:16.679512  1938 net.cpp:86] Creating Layer relu2
I0428 20:22:16.679518  1938 net.cpp:408] relu2 <- ip2
I0428 20:22:16.679535  1938 net.cpp:369] relu2 -> ip2 (in-place)
I0428 20:22:16.679705  1938 net.cpp:124] Setting up relu2
I0428 20:22:16.679718  1938 net.cpp:131] Top shape: 100 50 (5000)
I0428 20:22:16.679723  1938 net.cpp:139] Memory required for data: 16394800
I0428 20:22:16.679726  1938 layer_factory.hpp:77] Creating layer ip3
I0428 20:22:16.679733  1938 net.cpp:86] Creating Layer ip3
I0428 20:22:16.679735  1938 net.cpp:408] ip3 <- ip2
I0428 20:22:16.679741  1938 net.cpp:382] ip3 -> ip3
I0428 20:22:16.679837  1938 net.cpp:124] Setting up ip3
I0428 20:22:16.679844  1938 net.cpp:131] Top shape: 100 10 (1000)
I0428 20:22:16.679847  1938 net.cpp:139] Memory required for data: 16398800
I0428 20:22:16.679857  1938 layer_factory.hpp:77] Creating layer relu3
I0428 20:22:16.679862  1938 net.cpp:86] Creating Layer relu3
I0428 20:22:16.679863  1938 net.cpp:408] relu3 <- ip3
I0428 20:22:16.679868  1938 net.cpp:369] relu3 -> ip3 (in-place)
I0428 20:22:16.680673  1938 net.cpp:124] Setting up relu3
I0428 20:22:16.680685  1938 net.cpp:131] Top shape: 100 10 (1000)
I0428 20:22:16.680703  1938 net.cpp:139] Memory required for data: 16402800
I0428 20:22:16.680706  1938 layer_factory.hpp:77] Creating layer ip3_relu3_0_split
I0428 20:22:16.680711  1938 net.cpp:86] Creating Layer ip3_relu3_0_split
I0428 20:22:16.680714  1938 net.cpp:408] ip3_relu3_0_split <- ip3
I0428 20:22:16.680721  1938 net.cpp:382] ip3_relu3_0_split -> ip3_relu3_0_split_0
I0428 20:22:16.680727  1938 net.cpp:382] ip3_relu3_0_split -> ip3_relu3_0_split_1
I0428 20:22:16.680771  1938 net.cpp:124] Setting up ip3_relu3_0_split
I0428 20:22:16.680776  1938 net.cpp:131] Top shape: 100 10 (1000)
I0428 20:22:16.680780  1938 net.cpp:131] Top shape: 100 10 (1000)
I0428 20:22:16.680783  1938 net.cpp:139] Memory required for data: 16410800
I0428 20:22:16.680785  1938 layer_factory.hpp:77] Creating layer accuracy
I0428 20:22:16.680790  1938 net.cpp:86] Creating Layer accuracy
I0428 20:22:16.680794  1938 net.cpp:408] accuracy <- ip3_relu3_0_split_0
I0428 20:22:16.680797  1938 net.cpp:408] accuracy <- label_mnist_1_split_0
I0428 20:22:16.680801  1938 net.cpp:382] accuracy -> accuracy
…
