…
I0428 20:38:39.932451  5150 net.cpp:296] The NetState phase (0) differed from the phase (1) specified by a rule in layer mnist
I0428 20:38:39.932479  5150 net.cpp:296] The NetState phase (0) differed from the phase (1) specified by a rule in layer accuracy
I0428 20:38:39.932591  5150 net.cpp:53] Initializing net from parameters: 
name: "LeNet"
state {
  phase: TRAIN
  level: 0
  stage: ""
}
layer {
  name: "mnist"
  type: "Data"
  top: "data"
  top: "label"
  include {
    phase: TRAIN
  }
  transform_param {
    scale: 0.00390625
  }
  data_param {
    source: "examples/mnist/mnist_train_lmdb"
    batch_size: 64
    backend: LMDB
  }
}
layer {
  name: "conv0"
  type: "Convolution"
  bottom: "data"
  top: "conv0"
  param {
    lr_mult: 1
  }
  param {
    lr_mult: 2
  }
  convolution_param {
    num_output: 100
    kernel_size: 5
    stride: 1
    weight_filler {
      type: "xavier"
    }
    bias_filler {
      type: "constant"
    }
  }
}
layer {
  name: "pool0"
  type: "Pooling"
  bottom: "conv0"
  top: "pool0"
  pooling_param {
    pool: MAX
    kernel_size: 2
    stride: 2
  }
}
layer {
  name: "conv1"
  type: "Convolution"
  bottom: "pool0"
  top: "conv1"
  param {
    lr_mult: 1
  }
  param {
    lr_mult: 2
  }
  convolution_param {
    num_output: 100
    kernel_size: 5
    stride: 1
    weight_filler {
      type: "xavier"
    }
    bias_filler {
      type: "constant"
    }
  }
}
layer {
  name: "pool1"
  type: "Pooling"
  bottom: "conv1"
  top: "pool1"
  pooling_param {
    pool: MAX
    kernel_size: 2
    stride: 2
  }
}
layer {
  name: "ip1"
  type: "InnerProduct"
  bottom: "pool1"
  top: "ip1"
  param {
    lr_mult: 1
  }
  param {
    lr_mult: 2
  }
  inner_product_param {
    num_output: 50
    weight_filler {
      type: "xavier"
    }
    bias_filler {
      type: "constant"
    }
  }
}
layer {
  name: "relu1"
  type: "ReLU"
  bottom: "ip1"
  top: "ip1"
}
layer {
  name: "ip2"
  type: "InnerProduct"
  bottom: "ip1"
  top: "ip2"
  param {
    lr_mult: 1
  }
  param {
    lr_mult: 2
  }
  inner_product_param {
    num_output: 10
    weight_filler {
      type: "xavier"
    }
    bias_filler {
      type: "constant"
    }
  }
}
layer {
  name: "relu2"
  type: "ReLU"
  bottom: "ip2"
  top: "ip2"
}
layer {
  name: "ip3"
  type: "InnerProduct"
  bottom: "ip2"
  top: "ip3"
  param {
    lr_mult: 1
  }
  param {
    lr_mult: 2
  }
  inner_product_param {
    num_output: 10
    weight_filler {
      type: "xavier"
    }
    bias_filler {
      type: "constant"
    }
  }
}
layer {
  name: "relu3"
  type: "ReLU"
  bottom: "ip3"
  top: "ip3"
}
layer {
  name: "loss"
  type: "SoftmaxWithLoss"
  bottom: "ip3"
  bottom: "label"
  top: "loss"
}
I0428 20:38:39.932656  5150 layer_factory.hpp:77] Creating layer mnist
I0428 20:38:39.932737  5150 db_lmdb.cpp:35] Opened lmdb examples/mnist/mnist_train_lmdb
I0428 20:38:39.932756  5150 net.cpp:86] Creating Layer mnist
I0428 20:38:39.932761  5150 net.cpp:382] mnist -> data
I0428 20:38:39.932780  5150 net.cpp:382] mnist -> label
I0428 20:38:39.933832  5150 data_layer.cpp:45] output data size: 64,1,28,28
I0428 20:38:39.936015  5150 net.cpp:124] Setting up mnist
I0428 20:38:39.936048  5150 net.cpp:131] Top shape: 64 1 28 28 (50176)
I0428 20:38:39.936054  5150 net.cpp:131] Top shape: 64 (64)
I0428 20:38:39.936058  5150 net.cpp:139] Memory required for data: 200960
I0428 20:38:39.936065  5150 layer_factory.hpp:77] Creating layer conv0
I0428 20:38:39.936084  5150 net.cpp:86] Creating Layer conv0
I0428 20:38:39.936101  5150 net.cpp:408] conv0 <- data
I0428 20:38:39.936111  5150 net.cpp:382] conv0 -> conv0
I0428 20:38:40.165372  5150 net.cpp:124] Setting up conv0
I0428 20:38:40.165400  5150 net.cpp:131] Top shape: 64 100 24 24 (3686400)
I0428 20:38:40.165403  5150 net.cpp:139] Memory required for data: 14946560
I0428 20:38:40.165416  5150 layer_factory.hpp:77] Creating layer pool0
I0428 20:38:40.165428  5150 net.cpp:86] Creating Layer pool0
I0428 20:38:40.165431  5150 net.cpp:408] pool0 <- conv0
I0428 20:38:40.165436  5150 net.cpp:382] pool0 -> pool0
I0428 20:38:40.165495  5150 net.cpp:124] Setting up pool0
I0428 20:38:40.165500  5150 net.cpp:131] Top shape: 64 100 12 12 (921600)
I0428 20:38:40.165503  5150 net.cpp:139] Memory required for data: 18632960
I0428 20:38:40.165505  5150 layer_factory.hpp:77] Creating layer conv1
I0428 20:38:40.165516  5150 net.cpp:86] Creating Layer conv1
I0428 20:38:40.165519  5150 net.cpp:408] conv1 <- pool0
I0428 20:38:40.165524  5150 net.cpp:382] conv1 -> conv1
I0428 20:38:40.169613  5150 net.cpp:124] Setting up conv1
I0428 20:38:40.169627  5150 net.cpp:131] Top shape: 64 100 8 8 (409600)
I0428 20:38:40.169631  5150 net.cpp:139] Memory required for data: 20271360
I0428 20:38:40.169637  5150 layer_factory.hpp:77] Creating layer pool1
I0428 20:38:40.169646  5150 net.cpp:86] Creating Layer pool1
I0428 20:38:40.169649  5150 net.cpp:408] pool1 <- conv1
I0428 20:38:40.169654  5150 net.cpp:382] pool1 -> pool1
I0428 20:38:40.169704  5150 net.cpp:124] Setting up pool1
I0428 20:38:40.169709  5150 net.cpp:131] Top shape: 64 100 4 4 (102400)
I0428 20:38:40.169711  5150 net.cpp:139] Memory required for data: 20680960
I0428 20:38:40.169714  5150 layer_factory.hpp:77] Creating layer ip1
I0428 20:38:40.169723  5150 net.cpp:86] Creating Layer ip1
I0428 20:38:40.169725  5150 net.cpp:408] ip1 <- pool1
I0428 20:38:40.169729  5150 net.cpp:382] ip1 -> ip1
I0428 20:38:40.170238  5150 net.cpp:124] Setting up ip1
I0428 20:38:40.170244  5150 net.cpp:131] Top shape: 64 50 (3200)
I0428 20:38:40.170261  5150 net.cpp:139] Memory required for data: 20693760
I0428 20:38:40.170269  5150 layer_factory.hpp:77] Creating layer relu1
I0428 20:38:40.170274  5150 net.cpp:86] Creating Layer relu1
I0428 20:38:40.170277  5150 net.cpp:408] relu1 <- ip1
I0428 20:38:40.170281  5150 net.cpp:369] relu1 -> ip1 (in-place)
I0428 20:38:40.170465  5150 net.cpp:124] Setting up relu1
I0428 20:38:40.170475  5150 net.cpp:131] Top shape: 64 50 (3200)
I0428 20:38:40.170477  5150 net.cpp:139] Memory required for data: 20706560
I0428 20:38:40.170480  5150 layer_factory.hpp:77] Creating layer ip2
I0428 20:38:40.170487  5150 net.cpp:86] Creating Layer ip2
I0428 20:38:40.170490  5150 net.cpp:408] ip2 <- ip1
I0428 20:38:40.170495  5150 net.cpp:382] ip2 -> ip2
I0428 20:38:40.170591  5150 net.cpp:124] Setting up ip2
I0428 20:38:40.170598  5150 net.cpp:131] Top shape: 64 10 (640)
I0428 20:38:40.170601  5150 net.cpp:139] Memory required for data: 20709120
I0428 20:38:40.170606  5150 layer_factory.hpp:77] Creating layer relu2
I0428 20:38:40.170613  5150 net.cpp:86] Creating Layer relu2
I0428 20:38:40.170615  5150 net.cpp:408] relu2 <- ip2
I0428 20:38:40.170619  5150 net.cpp:369] relu2 -> ip2 (in-place)
I0428 20:38:40.171409  5150 net.cpp:124] Setting up relu2
I0428 20:38:40.171421  5150 net.cpp:131] Top shape: 64 10 (640)
I0428 20:38:40.171439  5150 net.cpp:139] Memory required for data: 20711680
I0428 20:38:40.171442  5150 layer_factory.hpp:77] Creating layer ip3
I0428 20:38:40.171449  5150 net.cpp:86] Creating Layer ip3
I0428 20:38:40.171452  5150 net.cpp:408] ip3 <- ip2
I0428 20:38:40.171458  5150 net.cpp:382] ip3 -> ip3
I0428 20:38:40.171579  5150 net.cpp:124] Setting up ip3
I0428 20:38:40.171587  5150 net.cpp:131] Top shape: 64 10 (640)
I0428 20:38:40.171591  5150 net.cpp:139] Memory required for data: 20714240
I0428 20:38:40.171598  5150 layer_factory.hpp:77] Creating layer relu3
I0428 20:38:40.171603  5150 net.cpp:86] Creating Layer relu3
I0428 20:38:40.171607  5150 net.cpp:408] relu3 <- ip3
I0428 20:38:40.171625  5150 net.cpp:369] relu3 -> ip3 (in-place)
I0428 20:38:40.171782  5150 net.cpp:124] Setting up relu3
I0428 20:38:40.171804  5150 net.cpp:131] Top shape: 64 10 (640)
I0428 20:38:40.171808  5150 net.cpp:139] Memory required for data: 20716800
I0428 20:38:40.171810  5150 layer_factory.hpp:77] Creating layer loss
I0428 20:38:40.171816  5150 net.cpp:86] Creating Layer loss
I0428 20:38:40.171819  5150 net.cpp:408] loss <- ip3
I0428 20:38:40.171823  5150 net.cpp:408] loss <- label
I0428 20:38:40.171828  5150 net.cpp:382] loss -> loss
I0428 20:38:40.171841  5150 layer_factory.hpp:77] Creating layer loss
…
I0428 20:38:40.172540  5150 solver.cpp:173] Creating test net (#0) specified by net file: ECE595/mnist/train_test/var_everything2/lenet_train_test1668.prototxt
I0428 20:38:40.172597  5150 net.cpp:296] The NetState phase (1) differed from the phase (0) specified by a rule in layer mnist
I0428 20:38:40.172703  5150 net.cpp:53] Initializing net from parameters: 
name: "LeNet"
state {
  phase: TEST
}
layer {
  name: "mnist"
  type: "Data"
  top: "data"
  top: "label"
  include {
    phase: TEST
  }
  transform_param {
    scale: 0.00390625
  }
  data_param {
    source: "examples/mnist/mnist_test_lmdb"
    batch_size: 100
    backend: LMDB
  }
}
layer {
  name: "conv0"
  type: "Convolution"
  bottom: "data"
  top: "conv0"
  param {
    lr_mult: 1
  }
  param {
    lr_mult: 2
  }
  convolution_param {
    num_output: 100
    kernel_size: 5
    stride: 1
    weight_filler {
      type: "xavier"
    }
    bias_filler {
      type: "constant"
    }
  }
}
layer {
  name: "pool0"
  type: "Pooling"
  bottom: "conv0"
  top: "pool0"
  pooling_param {
    pool: MAX
    kernel_size: 2
    stride: 2
  }
}
layer {
  name: "conv1"
  type: "Convolution"
  bottom: "pool0"
  top: "conv1"
  param {
    lr_mult: 1
  }
  param {
    lr_mult: 2
  }
  convolution_param {
    num_output: 100
    kernel_size: 5
    stride: 1
    weight_filler {
      type: "xavier"
    }
    bias_filler {
      type: "constant"
    }
  }
}
layer {
  name: "pool1"
  type: "Pooling"
  bottom: "conv1"
  top: "pool1"
  pooling_param {
    pool: MAX
    kernel_size: 2
    stride: 2
  }
}
layer {
  name: "ip1"
  type: "InnerProduct"
  bottom: "pool1"
  top: "ip1"
  param {
    lr_mult: 1
  }
  param {
    lr_mult: 2
  }
  inner_product_param {
    num_output: 50
    weight_filler {
      type: "xavier"
    }
    bias_filler {
      type: "constant"
    }
  }
}
layer {
  name: "relu1"
  type: "ReLU"
  bottom: "ip1"
  top: "ip1"
}
layer {
  name: "ip2"
  type: "InnerProduct"
  bottom: "ip1"
  top: "ip2"
  param {
    lr_mult: 1
  }
  param {
    lr_mult: 2
  }
  inner_product_param {
    num_output: 10
    weight_filler {
      type: "xavier"
    }
    bias_filler {
      type: "constant"
    }
  }
}
layer {
  name: "relu2"
  type: "ReLU"
  bottom: "ip2"
  top: "ip2"
}
layer {
  name: "ip3"
  type: "InnerProduct"
  bottom: "ip2"
  top: "ip3"
  param {
    lr_mult: 1
  }
  param {
    lr_mult: 2
  }
  inner_product_param {
    num_output: 10
    weight_filler {
      type: "xavier"
    }
    bias_filler {
      type: "constant"
    }
  }
}
layer {
  name: "relu3"
  type: "ReLU"
  bottom: "ip3"
  top: "ip3"
}
layer {
  name: "accuracy"
  type: "Accuracy"
  bottom: "ip3"
  bottom: "label"
  top: "accuracy"
  include {
    phase: TEST
  }
}
layer {
  name: "loss"
  type: "SoftmaxWithLoss"
  bottom: "ip3"
  bottom: "label"
  top: "loss"
}
I0428 20:38:40.172797  5150 layer_factory.hpp:77] Creating layer mnist
I0428 20:38:40.172863  5150 db_lmdb.cpp:35] Opened lmdb examples/mnist/mnist_test_lmdb
I0428 20:38:40.172879  5150 net.cpp:86] Creating Layer mnist
I0428 20:38:40.172884  5150 net.cpp:382] mnist -> data
I0428 20:38:40.172894  5150 net.cpp:382] mnist -> label
I0428 20:38:40.172992  5150 data_layer.cpp:45] output data size: 100,1,28,28
I0428 20:38:40.175035  5150 net.cpp:124] Setting up mnist
I0428 20:38:40.175063  5150 net.cpp:131] Top shape: 100 1 28 28 (78400)
I0428 20:38:40.175068  5150 net.cpp:131] Top shape: 100 (100)
I0428 20:38:40.175071  5150 net.cpp:139] Memory required for data: 314000
I0428 20:38:40.175076  5150 layer_factory.hpp:77] Creating layer label_mnist_1_split
I0428 20:38:40.175120  5150 net.cpp:86] Creating Layer label_mnist_1_split
I0428 20:38:40.175125  5150 net.cpp:408] label_mnist_1_split <- label
I0428 20:38:40.175130  5150 net.cpp:382] label_mnist_1_split -> label_mnist_1_split_0
I0428 20:38:40.175137  5150 net.cpp:382] label_mnist_1_split -> label_mnist_1_split_1
I0428 20:38:40.175194  5150 net.cpp:124] Setting up label_mnist_1_split
I0428 20:38:40.175199  5150 net.cpp:131] Top shape: 100 (100)
I0428 20:38:40.175202  5150 net.cpp:131] Top shape: 100 (100)
I0428 20:38:40.175205  5150 net.cpp:139] Memory required for data: 314800
I0428 20:38:40.175209  5150 layer_factory.hpp:77] Creating layer conv0
I0428 20:38:40.175218  5150 net.cpp:86] Creating Layer conv0
I0428 20:38:40.175221  5150 net.cpp:408] conv0 <- data
I0428 20:38:40.175227  5150 net.cpp:382] conv0 -> conv0
I0428 20:38:40.177003  5150 net.cpp:124] Setting up conv0
I0428 20:38:40.177018  5150 net.cpp:131] Top shape: 100 100 24 24 (5760000)
I0428 20:38:40.177022  5150 net.cpp:139] Memory required for data: 23354800
I0428 20:38:40.177033  5150 layer_factory.hpp:77] Creating layer pool0
I0428 20:38:40.177039  5150 net.cpp:86] Creating Layer pool0
I0428 20:38:40.177043  5150 net.cpp:408] pool0 <- conv0
I0428 20:38:40.177048  5150 net.cpp:382] pool0 -> pool0
I0428 20:38:40.177088  5150 net.cpp:124] Setting up pool0
I0428 20:38:40.177094  5150 net.cpp:131] Top shape: 100 100 12 12 (1440000)
I0428 20:38:40.177098  5150 net.cpp:139] Memory required for data: 29114800
I0428 20:38:40.177100  5150 layer_factory.hpp:77] Creating layer conv1
I0428 20:38:40.177110  5150 net.cpp:86] Creating Layer conv1
I0428 20:38:40.177114  5150 net.cpp:408] conv1 <- pool0
I0428 20:38:40.177119  5150 net.cpp:382] conv1 -> conv1
I0428 20:38:40.180119  5150 net.cpp:124] Setting up conv1
I0428 20:38:40.180131  5150 net.cpp:131] Top shape: 100 100 8 8 (640000)
I0428 20:38:40.180135  5150 net.cpp:139] Memory required for data: 31674800
I0428 20:38:40.180142  5150 layer_factory.hpp:77] Creating layer pool1
I0428 20:38:40.180150  5150 net.cpp:86] Creating Layer pool1
I0428 20:38:40.180167  5150 net.cpp:408] pool1 <- conv1
I0428 20:38:40.180172  5150 net.cpp:382] pool1 -> pool1
I0428 20:38:40.180207  5150 net.cpp:124] Setting up pool1
I0428 20:38:40.180212  5150 net.cpp:131] Top shape: 100 100 4 4 (160000)
I0428 20:38:40.180215  5150 net.cpp:139] Memory required for data: 32314800
I0428 20:38:40.180223  5150 layer_factory.hpp:77] Creating layer ip1
I0428 20:38:40.180228  5150 net.cpp:86] Creating Layer ip1
I0428 20:38:40.180232  5150 net.cpp:408] ip1 <- pool1
I0428 20:38:40.180238  5150 net.cpp:382] ip1 -> ip1
I0428 20:38:40.180773  5150 net.cpp:124] Setting up ip1
I0428 20:38:40.180791  5150 net.cpp:131] Top shape: 100 50 (5000)
I0428 20:38:40.180794  5150 net.cpp:139] Memory required for data: 32334800
I0428 20:38:40.180801  5150 layer_factory.hpp:77] Creating layer relu1
I0428 20:38:40.180806  5150 net.cpp:86] Creating Layer relu1
I0428 20:38:40.180814  5150 net.cpp:408] relu1 <- ip1
I0428 20:38:40.180842  5150 net.cpp:369] relu1 -> ip1 (in-place)
I0428 20:38:40.181000  5150 net.cpp:124] Setting up relu1
I0428 20:38:40.181008  5150 net.cpp:131] Top shape: 100 50 (5000)
I0428 20:38:40.181011  5150 net.cpp:139] Memory required for data: 32354800
I0428 20:38:40.181015  5150 layer_factory.hpp:77] Creating layer ip2
I0428 20:38:40.181022  5150 net.cpp:86] Creating Layer ip2
I0428 20:38:40.181025  5150 net.cpp:408] ip2 <- ip1
I0428 20:38:40.181030  5150 net.cpp:382] ip2 -> ip2
I0428 20:38:40.181130  5150 net.cpp:124] Setting up ip2
I0428 20:38:40.181138  5150 net.cpp:131] Top shape: 100 10 (1000)
I0428 20:38:40.181154  5150 net.cpp:139] Memory required for data: 32358800
I0428 20:38:40.181159  5150 layer_factory.hpp:77] Creating layer relu2
I0428 20:38:40.181164  5150 net.cpp:86] Creating Layer relu2
I0428 20:38:40.181166  5150 net.cpp:408] relu2 <- ip2
I0428 20:38:40.181170  5150 net.cpp:369] relu2 -> ip2 (in-place)
I0428 20:38:40.181380  5150 net.cpp:124] Setting up relu2
I0428 20:38:40.181387  5150 net.cpp:131] Top shape: 100 10 (1000)
I0428 20:38:40.181391  5150 net.cpp:139] Memory required for data: 32362800
I0428 20:38:40.181393  5150 layer_factory.hpp:77] Creating layer ip3
I0428 20:38:40.181401  5150 net.cpp:86] Creating Layer ip3
I0428 20:38:40.181403  5150 net.cpp:408] ip3 <- ip2
I0428 20:38:40.181407  5150 net.cpp:382] ip3 -> ip3
I0428 20:38:40.181536  5150 net.cpp:124] Setting up ip3
I0428 20:38:40.181543  5150 net.cpp:131] Top shape: 100 10 (1000)
I0428 20:38:40.181547  5150 net.cpp:139] Memory required for data: 32366800
I0428 20:38:40.181555  5150 layer_factory.hpp:77] Creating layer relu3
I0428 20:38:40.181560  5150 net.cpp:86] Creating Layer relu3
I0428 20:38:40.181562  5150 net.cpp:408] relu3 <- ip3
I0428 20:38:40.181566  5150 net.cpp:369] relu3 -> ip3 (in-place)
I0428 20:38:40.182294  5150 net.cpp:124] Setting up relu3
I0428 20:38:40.182307  5150 net.cpp:131] Top shape: 100 10 (1000)
I0428 20:38:40.182323  5150 net.cpp:139] Memory required for data: 32370800
I0428 20:38:40.182327  5150 layer_factory.hpp:77] Creating layer ip3_relu3_0_split
I0428 20:38:40.182332  5150 net.cpp:86] Creating Layer ip3_relu3_0_split
I0428 20:38:40.182341  5150 net.cpp:408] ip3_relu3_0_split <- ip3
I0428 20:38:40.182345  5150 net.cpp:382] ip3_relu3_0_split -> ip3_relu3_0_split_0
I0428 20:38:40.182351  5150 net.cpp:382] ip3_relu3_0_split -> ip3_relu3_0_split_1
I0428 20:38:40.182400  5150 net.cpp:124] Setting up ip3_relu3_0_split
I0428 20:38:40.182415  5150 net.cpp:131] Top shape: 100 10 (1000)
I0428 20:38:40.182425  5150 net.cpp:131] Top shape: 100 10 (1000)
I0428 20:38:40.182427  5150 net.cpp:139] Memory required for data: 32378800
I0428 20:38:40.182430  5150 layer_factory.hpp:77] Creating layer accuracy
I0428 20:38:40.182436  5150 net.cpp:86] Creating Layer accuracy
I0428 20:38:40.182445  5150 net.cpp:408] accuracy <- ip3_relu3_0_split_0
I0428 20:38:40.182448  5150 net.cpp:408] accuracy <- label_mnist_1_split_0
I0428 20:38:40.182452  5150 net.cpp:382] accuracy -> accuracy
…
