…
I0428 20:15:19.020503   414 net.cpp:296] The NetState phase (0) differed from the phase (1) specified by a rule in layer mnist
I0428 20:15:19.020521   414 net.cpp:296] The NetState phase (0) differed from the phase (1) specified by a rule in layer accuracy
I0428 20:15:19.020624   414 net.cpp:53] Initializing net from parameters: 
name: "LeNet"
state {
  phase: TRAIN
  level: 0
  stage: ""
}
layer {
  name: "mnist"
  type: "Data"
  top: "data"
  top: "label"
  include {
    phase: TRAIN
  }
  transform_param {
    scale: 0.00390625
  }
  data_param {
    source: "examples/mnist/mnist_train_lmdb"
    batch_size: 64
    backend: LMDB
  }
}
layer {
  name: "conv0"
  type: "Convolution"
  bottom: "data"
  top: "conv0"
  param {
    lr_mult: 1
  }
  param {
    lr_mult: 2
  }
  convolution_param {
    num_output: 50
    kernel_size: 5
    stride: 1
    weight_filler {
      type: "xavier"
    }
    bias_filler {
      type: "constant"
    }
  }
}
layer {
  name: "pool0"
  type: "Pooling"
  bottom: "conv0"
  top: "pool0"
  pooling_param {
    pool: MAX
    kernel_size: 2
    stride: 2
  }
}
layer {
  name: "conv1"
  type: "Convolution"
  bottom: "pool0"
  top: "conv1"
  param {
    lr_mult: 1
  }
  param {
    lr_mult: 2
  }
  convolution_param {
    num_output: 2
    kernel_size: 5
    stride: 1
    weight_filler {
      type: "xavier"
    }
    bias_filler {
      type: "constant"
    }
  }
}
layer {
  name: "pool1"
  type: "Pooling"
  bottom: "conv1"
  top: "pool1"
  pooling_param {
    pool: MAX
    kernel_size: 2
    stride: 2
  }
}
layer {
  name: "ip1"
  type: "InnerProduct"
  bottom: "pool1"
  top: "ip1"
  param {
    lr_mult: 1
  }
  param {
    lr_mult: 2
  }
  inner_product_param {
    num_output: 50
    weight_filler {
      type: "xavier"
    }
    bias_filler {
      type: "constant"
    }
  }
}
layer {
  name: "relu1"
  type: "ReLU"
  bottom: "ip1"
  top: "ip1"
}
layer {
  name: "ip2"
  type: "InnerProduct"
  bottom: "ip1"
  top: "ip2"
  param {
    lr_mult: 1
  }
  param {
    lr_mult: 2
  }
  inner_product_param {
    num_output: 25
    weight_filler {
      type: "xavier"
    }
    bias_filler {
      type: "constant"
    }
  }
}
layer {
  name: "relu2"
  type: "ReLU"
  bottom: "ip2"
  top: "ip2"
}
layer {
  name: "ip3"
  type: "InnerProduct"
  bottom: "ip2"
  top: "ip3"
  param {
    lr_mult: 1
  }
  param {
    lr_mult: 2
  }
  inner_product_param {
    num_output: 10
    weight_filler {
      type: "xavier"
    }
    bias_filler {
      type: "constant"
    }
  }
}
layer {
  name: "relu3"
  type: "ReLU"
  bottom: "ip3"
  top: "ip3"
}
layer {
  name: "loss"
  type: "SoftmaxWithLoss"
  bottom: "ip3"
  bottom: "label"
  top: "loss"
}
I0428 20:15:19.020704   414 layer_factory.hpp:77] Creating layer mnist
I0428 20:15:19.020804   414 db_lmdb.cpp:35] Opened lmdb examples/mnist/mnist_train_lmdb
I0428 20:15:19.020838   414 net.cpp:86] Creating Layer mnist
I0428 20:15:19.020850   414 net.cpp:382] mnist -> data
I0428 20:15:19.020874   414 net.cpp:382] mnist -> label
I0428 20:15:19.021973   414 data_layer.cpp:45] output data size: 64,1,28,28
I0428 20:15:19.024441   414 net.cpp:124] Setting up mnist
I0428 20:15:19.024461   414 net.cpp:131] Top shape: 64 1 28 28 (50176)
I0428 20:15:19.024466   414 net.cpp:131] Top shape: 64 (64)
I0428 20:15:19.024471   414 net.cpp:139] Memory required for data: 200960
I0428 20:15:19.024477   414 layer_factory.hpp:77] Creating layer conv0
I0428 20:15:19.024494   414 net.cpp:86] Creating Layer conv0
I0428 20:15:19.024516   414 net.cpp:408] conv0 <- data
I0428 20:15:19.024528   414 net.cpp:382] conv0 -> conv0
I0428 20:15:19.316972   414 net.cpp:124] Setting up conv0
I0428 20:15:19.316999   414 net.cpp:131] Top shape: 64 50 24 24 (1843200)
I0428 20:15:19.317004   414 net.cpp:139] Memory required for data: 7573760
I0428 20:15:19.317021   414 layer_factory.hpp:77] Creating layer pool0
I0428 20:15:19.317035   414 net.cpp:86] Creating Layer pool0
I0428 20:15:19.317040   414 net.cpp:408] pool0 <- conv0
I0428 20:15:19.317046   414 net.cpp:382] pool0 -> pool0
I0428 20:15:19.317100   414 net.cpp:124] Setting up pool0
I0428 20:15:19.317106   414 net.cpp:131] Top shape: 64 50 12 12 (460800)
I0428 20:15:19.317111   414 net.cpp:139] Memory required for data: 9416960
I0428 20:15:19.317113   414 layer_factory.hpp:77] Creating layer conv1
I0428 20:15:19.317126   414 net.cpp:86] Creating Layer conv1
I0428 20:15:19.317129   414 net.cpp:408] conv1 <- pool0
I0428 20:15:19.317136   414 net.cpp:382] conv1 -> conv1
I0428 20:15:19.319203   414 net.cpp:124] Setting up conv1
I0428 20:15:19.319221   414 net.cpp:131] Top shape: 64 2 8 8 (8192)
I0428 20:15:19.319226   414 net.cpp:139] Memory required for data: 9449728
I0428 20:15:19.319236   414 layer_factory.hpp:77] Creating layer pool1
I0428 20:15:19.319245   414 net.cpp:86] Creating Layer pool1
I0428 20:15:19.319249   414 net.cpp:408] pool1 <- conv1
I0428 20:15:19.319255   414 net.cpp:382] pool1 -> pool1
I0428 20:15:19.319298   414 net.cpp:124] Setting up pool1
I0428 20:15:19.319305   414 net.cpp:131] Top shape: 64 2 4 4 (2048)
I0428 20:15:19.319308   414 net.cpp:139] Memory required for data: 9457920
I0428 20:15:19.319311   414 layer_factory.hpp:77] Creating layer ip1
I0428 20:15:19.319319   414 net.cpp:86] Creating Layer ip1
I0428 20:15:19.319322   414 net.cpp:408] ip1 <- pool1
I0428 20:15:19.319330   414 net.cpp:382] ip1 -> ip1
I0428 20:15:19.319460   414 net.cpp:124] Setting up ip1
I0428 20:15:19.319469   414 net.cpp:131] Top shape: 64 50 (3200)
I0428 20:15:19.319473   414 net.cpp:139] Memory required for data: 9470720
I0428 20:15:19.319481   414 layer_factory.hpp:77] Creating layer relu1
I0428 20:15:19.319488   414 net.cpp:86] Creating Layer relu1
I0428 20:15:19.319491   414 net.cpp:408] relu1 <- ip1
I0428 20:15:19.319497   414 net.cpp:369] relu1 -> ip1 (in-place)
I0428 20:15:19.319694   414 net.cpp:124] Setting up relu1
I0428 20:15:19.319705   414 net.cpp:131] Top shape: 64 50 (3200)
I0428 20:15:19.319708   414 net.cpp:139] Memory required for data: 9483520
I0428 20:15:19.319712   414 layer_factory.hpp:77] Creating layer ip2
I0428 20:15:19.319720   414 net.cpp:86] Creating Layer ip2
I0428 20:15:19.319722   414 net.cpp:408] ip2 <- ip1
I0428 20:15:19.319730   414 net.cpp:382] ip2 -> ip2
I0428 20:15:19.319850   414 net.cpp:124] Setting up ip2
I0428 20:15:19.319859   414 net.cpp:131] Top shape: 64 25 (1600)
I0428 20:15:19.319862   414 net.cpp:139] Memory required for data: 9489920
I0428 20:15:19.319869   414 layer_factory.hpp:77] Creating layer relu2
I0428 20:15:19.319875   414 net.cpp:86] Creating Layer relu2
I0428 20:15:19.319878   414 net.cpp:408] relu2 <- ip2
I0428 20:15:19.319885   414 net.cpp:369] relu2 -> ip2 (in-place)
I0428 20:15:19.320701   414 net.cpp:124] Setting up relu2
I0428 20:15:19.320715   414 net.cpp:131] Top shape: 64 25 (1600)
I0428 20:15:19.320719   414 net.cpp:139] Memory required for data: 9496320
I0428 20:15:19.320724   414 layer_factory.hpp:77] Creating layer ip3
I0428 20:15:19.320732   414 net.cpp:86] Creating Layer ip3
I0428 20:15:19.320736   414 net.cpp:408] ip3 <- ip2
I0428 20:15:19.320742   414 net.cpp:382] ip3 -> ip3
I0428 20:15:19.320868   414 net.cpp:124] Setting up ip3
I0428 20:15:19.320878   414 net.cpp:131] Top shape: 64 10 (640)
I0428 20:15:19.320880   414 net.cpp:139] Memory required for data: 9498880
I0428 20:15:19.320891   414 layer_factory.hpp:77] Creating layer relu3
I0428 20:15:19.320897   414 net.cpp:86] Creating Layer relu3
I0428 20:15:19.320901   414 net.cpp:408] relu3 <- ip3
I0428 20:15:19.320905   414 net.cpp:369] relu3 -> ip3 (in-place)
I0428 20:15:19.321107   414 net.cpp:124] Setting up relu3
I0428 20:15:19.321120   414 net.cpp:131] Top shape: 64 10 (640)
I0428 20:15:19.321123   414 net.cpp:139] Memory required for data: 9501440
I0428 20:15:19.321126   414 layer_factory.hpp:77] Creating layer loss
I0428 20:15:19.321133   414 net.cpp:86] Creating Layer loss
I0428 20:15:19.321136   414 net.cpp:408] loss <- ip3
I0428 20:15:19.321141   414 net.cpp:408] loss <- label
I0428 20:15:19.321147   414 net.cpp:382] loss -> loss
I0428 20:15:19.321166   414 layer_factory.hpp:77] Creating layer loss
…
I0428 20:15:19.321907   414 solver.cpp:173] Creating test net (#0) specified by net file: ECE595/mnist/train_test/var_everything2/lenet_train_test1243.prototxt
I0428 20:15:19.321938   414 net.cpp:296] The NetState phase (1) differed from the phase (0) specified by a rule in layer mnist
I0428 20:15:19.322042   414 net.cpp:53] Initializing net from parameters: 
name: "LeNet"
state {
  phase: TEST
}
layer {
  name: "mnist"
  type: "Data"
  top: "data"
  top: "label"
  include {
    phase: TEST
  }
  transform_param {
    scale: 0.00390625
  }
  data_param {
    source: "examples/mnist/mnist_test_lmdb"
    batch_size: 100
    backend: LMDB
  }
}
layer {
  name: "conv0"
  type: "Convolution"
  bottom: "data"
  top: "conv0"
  param {
    lr_mult: 1
  }
  param {
    lr_mult: 2
  }
  convolution_param {
    num_output: 50
    kernel_size: 5
    stride: 1
    weight_filler {
      type: "xavier"
    }
    bias_filler {
      type: "constant"
    }
  }
}
layer {
  name: "pool0"
  type: "Pooling"
  bottom: "conv0"
  top: "pool0"
  pooling_param {
    pool: MAX
    kernel_size: 2
    stride: 2
  }
}
layer {
  name: "conv1"
  type: "Convolution"
  bottom: "pool0"
  top: "conv1"
  param {
    lr_mult: 1
  }
  param {
    lr_mult: 2
  }
  convolution_param {
    num_output: 2
    kernel_size: 5
    stride: 1
    weight_filler {
      type: "xavier"
    }
    bias_filler {
      type: "constant"
    }
  }
}
layer {
  name: "pool1"
  type: "Pooling"
  bottom: "conv1"
  top: "pool1"
  pooling_param {
    pool: MAX
    kernel_size: 2
    stride: 2
  }
}
layer {
  name: "ip1"
  type: "InnerProduct"
  bottom: "pool1"
  top: "ip1"
  param {
    lr_mult: 1
  }
  param {
    lr_mult: 2
  }
  inner_product_param {
    num_output: 50
    weight_filler {
      type: "xavier"
    }
    bias_filler {
      type: "constant"
    }
  }
}
layer {
  name: "relu1"
  type: "ReLU"
  bottom: "ip1"
  top: "ip1"
}
layer {
  name: "ip2"
  type: "InnerProduct"
  bottom: "ip1"
  top: "ip2"
  param {
    lr_mult: 1
  }
  param {
    lr_mult: 2
  }
  inner_product_param {
    num_output: 25
    weight_filler {
      type: "xavier"
    }
    bias_filler {
      type: "constant"
    }
  }
}
layer {
  name: "relu2"
  type: "ReLU"
  bottom: "ip2"
  top: "ip2"
}
layer {
  name: "ip3"
  type: "InnerProduct"
  bottom: "ip2"
  top: "ip3"
  param {
    lr_mult: 1
  }
  param {
    lr_mult: 2
  }
  inner_product_param {
    num_output: 10
    weight_filler {
      type: "xavier"
    }
    bias_filler {
      type: "constant"
    }
  }
}
layer {
  name: "relu3"
  type: "ReLU"
  bottom: "ip3"
  top: "ip3"
}
layer {
  name: "accuracy"
  type: "Accuracy"
  bottom: "ip3"
  bottom: "label"
  top: "accuracy"
  include {
    phase: TEST
  }
}
layer {
  name: "loss"
  type: "SoftmaxWithLoss"
  bottom: "ip3"
  bottom: "label"
  top: "loss"
}
I0428 20:15:19.322135   414 layer_factory.hpp:77] Creating layer mnist
I0428 20:15:19.322185   414 db_lmdb.cpp:35] Opened lmdb examples/mnist/mnist_test_lmdb
I0428 20:15:19.322199   414 net.cpp:86] Creating Layer mnist
I0428 20:15:19.322206   414 net.cpp:382] mnist -> data
I0428 20:15:19.322214   414 net.cpp:382] mnist -> label
I0428 20:15:19.322314   414 data_layer.cpp:45] output data size: 100,1,28,28
I0428 20:15:19.324420   414 net.cpp:124] Setting up mnist
I0428 20:15:19.324435   414 net.cpp:131] Top shape: 100 1 28 28 (78400)
I0428 20:15:19.324441   414 net.cpp:131] Top shape: 100 (100)
I0428 20:15:19.324445   414 net.cpp:139] Memory required for data: 314000
I0428 20:15:19.324448   414 layer_factory.hpp:77] Creating layer label_mnist_1_split
I0428 20:15:19.324456   414 net.cpp:86] Creating Layer label_mnist_1_split
I0428 20:15:19.324460   414 net.cpp:408] label_mnist_1_split <- label
I0428 20:15:19.324493   414 net.cpp:382] label_mnist_1_split -> label_mnist_1_split_0
I0428 20:15:19.324502   414 net.cpp:382] label_mnist_1_split -> label_mnist_1_split_1
I0428 20:15:19.324561   414 net.cpp:124] Setting up label_mnist_1_split
I0428 20:15:19.324575   414 net.cpp:131] Top shape: 100 (100)
I0428 20:15:19.324579   414 net.cpp:131] Top shape: 100 (100)
I0428 20:15:19.324582   414 net.cpp:139] Memory required for data: 314800
I0428 20:15:19.324586   414 layer_factory.hpp:77] Creating layer conv0
I0428 20:15:19.324596   414 net.cpp:86] Creating Layer conv0
I0428 20:15:19.324600   414 net.cpp:408] conv0 <- data
I0428 20:15:19.324606   414 net.cpp:382] conv0 -> conv0
I0428 20:15:19.326314   414 net.cpp:124] Setting up conv0
I0428 20:15:19.326330   414 net.cpp:131] Top shape: 100 50 24 24 (2880000)
I0428 20:15:19.326334   414 net.cpp:139] Memory required for data: 11834800
I0428 20:15:19.326345   414 layer_factory.hpp:77] Creating layer pool0
I0428 20:15:19.326352   414 net.cpp:86] Creating Layer pool0
I0428 20:15:19.326356   414 net.cpp:408] pool0 <- conv0
I0428 20:15:19.326364   414 net.cpp:382] pool0 -> pool0
I0428 20:15:19.326405   414 net.cpp:124] Setting up pool0
I0428 20:15:19.326411   414 net.cpp:131] Top shape: 100 50 12 12 (720000)
I0428 20:15:19.326414   414 net.cpp:139] Memory required for data: 14714800
I0428 20:15:19.326417   414 layer_factory.hpp:77] Creating layer conv1
I0428 20:15:19.326431   414 net.cpp:86] Creating Layer conv1
I0428 20:15:19.326434   414 net.cpp:408] conv1 <- pool0
I0428 20:15:19.326441   414 net.cpp:382] conv1 -> conv1
I0428 20:15:19.328120   414 net.cpp:124] Setting up conv1
I0428 20:15:19.328140   414 net.cpp:131] Top shape: 100 2 8 8 (12800)
I0428 20:15:19.328143   414 net.cpp:139] Memory required for data: 14766000
I0428 20:15:19.328155   414 layer_factory.hpp:77] Creating layer pool1
I0428 20:15:19.328162   414 net.cpp:86] Creating Layer pool1
I0428 20:15:19.328166   414 net.cpp:408] pool1 <- conv1
I0428 20:15:19.328173   414 net.cpp:382] pool1 -> pool1
I0428 20:15:19.328215   414 net.cpp:124] Setting up pool1
I0428 20:15:19.328222   414 net.cpp:131] Top shape: 100 2 4 4 (3200)
I0428 20:15:19.328224   414 net.cpp:139] Memory required for data: 14778800
I0428 20:15:19.328228   414 layer_factory.hpp:77] Creating layer ip1
I0428 20:15:19.328235   414 net.cpp:86] Creating Layer ip1
I0428 20:15:19.328239   414 net.cpp:408] ip1 <- pool1
I0428 20:15:19.328245   414 net.cpp:382] ip1 -> ip1
I0428 20:15:19.328372   414 net.cpp:124] Setting up ip1
I0428 20:15:19.328382   414 net.cpp:131] Top shape: 100 50 (5000)
I0428 20:15:19.328395   414 net.cpp:139] Memory required for data: 14798800
I0428 20:15:19.328404   414 layer_factory.hpp:77] Creating layer relu1
I0428 20:15:19.328413   414 net.cpp:86] Creating Layer relu1
I0428 20:15:19.328416   414 net.cpp:408] relu1 <- ip1
I0428 20:15:19.328421   414 net.cpp:369] relu1 -> ip1 (in-place)
I0428 20:15:19.328606   414 net.cpp:124] Setting up relu1
I0428 20:15:19.328618   414 net.cpp:131] Top shape: 100 50 (5000)
I0428 20:15:19.328621   414 net.cpp:139] Memory required for data: 14818800
I0428 20:15:19.328625   414 layer_factory.hpp:77] Creating layer ip2
I0428 20:15:19.328634   414 net.cpp:86] Creating Layer ip2
I0428 20:15:19.328637   414 net.cpp:408] ip2 <- ip1
I0428 20:15:19.328644   414 net.cpp:382] ip2 -> ip2
I0428 20:15:19.328768   414 net.cpp:124] Setting up ip2
I0428 20:15:19.328778   414 net.cpp:131] Top shape: 100 25 (2500)
I0428 20:15:19.328780   414 net.cpp:139] Memory required for data: 14828800
I0428 20:15:19.328788   414 layer_factory.hpp:77] Creating layer relu2
I0428 20:15:19.328794   414 net.cpp:86] Creating Layer relu2
I0428 20:15:19.328797   414 net.cpp:408] relu2 <- ip2
I0428 20:15:19.328802   414 net.cpp:369] relu2 -> ip2 (in-place)
I0428 20:15:19.329063   414 net.cpp:124] Setting up relu2
I0428 20:15:19.329075   414 net.cpp:131] Top shape: 100 25 (2500)
I0428 20:15:19.329079   414 net.cpp:139] Memory required for data: 14838800
I0428 20:15:19.329082   414 layer_factory.hpp:77] Creating layer ip3
I0428 20:15:19.329090   414 net.cpp:86] Creating Layer ip3
I0428 20:15:19.329093   414 net.cpp:408] ip3 <- ip2
I0428 20:15:19.329100   414 net.cpp:382] ip3 -> ip3
I0428 20:15:19.329226   414 net.cpp:124] Setting up ip3
I0428 20:15:19.329234   414 net.cpp:131] Top shape: 100 10 (1000)
I0428 20:15:19.329237   414 net.cpp:139] Memory required for data: 14842800
I0428 20:15:19.329246   414 layer_factory.hpp:77] Creating layer relu3
I0428 20:15:19.329252   414 net.cpp:86] Creating Layer relu3
I0428 20:15:19.329254   414 net.cpp:408] relu3 <- ip3
I0428 20:15:19.329260   414 net.cpp:369] relu3 -> ip3 (in-place)
I0428 20:15:19.330142   414 net.cpp:124] Setting up relu3
I0428 20:15:19.330154   414 net.cpp:131] Top shape: 100 10 (1000)
I0428 20:15:19.330158   414 net.cpp:139] Memory required for data: 14846800
I0428 20:15:19.330162   414 layer_factory.hpp:77] Creating layer ip3_relu3_0_split
I0428 20:15:19.330168   414 net.cpp:86] Creating Layer ip3_relu3_0_split
I0428 20:15:19.330171   414 net.cpp:408] ip3_relu3_0_split <- ip3
I0428 20:15:19.330178   414 net.cpp:382] ip3_relu3_0_split -> ip3_relu3_0_split_0
I0428 20:15:19.330184   414 net.cpp:382] ip3_relu3_0_split -> ip3_relu3_0_split_1
I0428 20:15:19.330227   414 net.cpp:124] Setting up ip3_relu3_0_split
I0428 20:15:19.330234   414 net.cpp:131] Top shape: 100 10 (1000)
I0428 20:15:19.330240   414 net.cpp:131] Top shape: 100 10 (1000)
I0428 20:15:19.330242   414 net.cpp:139] Memory required for data: 14854800
I0428 20:15:19.330245   414 layer_factory.hpp:77] Creating layer accuracy
I0428 20:15:19.330250   414 net.cpp:86] Creating Layer accuracy
I0428 20:15:19.330255   414 net.cpp:408] accuracy <- ip3_relu3_0_split_0
I0428 20:15:19.330260   414 net.cpp:408] accuracy <- label_mnist_1_split_0
I0428 20:15:19.330263   414 net.cpp:382] accuracy -> accuracy
…
