…
I0428 20:01:19.957357 29702 net.cpp:296] The NetState phase (0) differed from the phase (1) specified by a rule in layer mnist
I0428 20:01:19.957376 29702 net.cpp:296] The NetState phase (0) differed from the phase (1) specified by a rule in layer accuracy
I0428 20:01:19.957464 29702 net.cpp:53] Initializing net from parameters: 
name: "LeNet"
state {
  phase: TRAIN
  level: 0
  stage: ""
}
layer {
  name: "mnist"
  type: "Data"
  top: "data"
  top: "label"
  include {
    phase: TRAIN
  }
  transform_param {
    scale: 0.00390625
  }
  data_param {
    source: "examples/mnist/mnist_train_lmdb"
    batch_size: 64
    backend: LMDB
  }
}
layer {
  name: "conv0"
  type: "Convolution"
  bottom: "data"
  top: "conv0"
  param {
    lr_mult: 1
  }
  param {
    lr_mult: 2
  }
  convolution_param {
    num_output: 10
    kernel_size: 5
    stride: 1
    weight_filler {
      type: "xavier"
    }
    bias_filler {
      type: "constant"
    }
  }
}
layer {
  name: "pool0"
  type: "Pooling"
  bottom: "conv0"
  top: "pool0"
  pooling_param {
    pool: MAX
    kernel_size: 2
    stride: 2
  }
}
layer {
  name: "conv1"
  type: "Convolution"
  bottom: "pool0"
  top: "conv1"
  param {
    lr_mult: 1
  }
  param {
    lr_mult: 2
  }
  convolution_param {
    num_output: 50
    kernel_size: 5
    stride: 1
    weight_filler {
      type: "xavier"
    }
    bias_filler {
      type: "constant"
    }
  }
}
layer {
  name: "pool1"
  type: "Pooling"
  bottom: "conv1"
  top: "pool1"
  pooling_param {
    pool: MAX
    kernel_size: 2
    stride: 2
  }
}
layer {
  name: "ip1"
  type: "InnerProduct"
  bottom: "pool1"
  top: "ip1"
  param {
    lr_mult: 1
  }
  param {
    lr_mult: 2
  }
  inner_product_param {
    num_output: 10
    weight_filler {
      type: "xavier"
    }
    bias_filler {
      type: "constant"
    }
  }
}
layer {
  name: "relu1"
  type: "ReLU"
  bottom: "ip1"
  top: "ip1"
}
layer {
  name: "ip2"
  type: "InnerProduct"
  bottom: "ip1"
  top: "ip2"
  param {
    lr_mult: 1
  }
  param {
    lr_mult: 2
  }
  inner_product_param {
    num_output: 10
    weight_filler {
      type: "xavier"
    }
    bias_filler {
      type: "constant"
    }
  }
}
layer {
  name: "relu2"
  type: "ReLU"
  bottom: "ip2"
  top: "ip2"
}
layer {
  name: "loss"
  type: "SoftmaxWithLoss"
  bottom: "ip2"
  bottom: "label"
  top: "loss"
}
I0428 20:01:19.957540 29702 layer_factory.hpp:77] Creating layer mnist
I0428 20:01:19.957641 29702 db_lmdb.cpp:35] Opened lmdb examples/mnist/mnist_train_lmdb
I0428 20:01:19.957667 29702 net.cpp:86] Creating Layer mnist
I0428 20:01:19.957679 29702 net.cpp:382] mnist -> data
I0428 20:01:19.957701 29702 net.cpp:382] mnist -> label
I0428 20:01:19.958788 29702 data_layer.cpp:45] output data size: 64,1,28,28
I0428 20:01:19.961258 29702 net.cpp:124] Setting up mnist
I0428 20:01:19.961275 29702 net.cpp:131] Top shape: 64 1 28 28 (50176)
I0428 20:01:19.961282 29702 net.cpp:131] Top shape: 64 (64)
I0428 20:01:19.961285 29702 net.cpp:139] Memory required for data: 200960
I0428 20:01:19.961292 29702 layer_factory.hpp:77] Creating layer conv0
I0428 20:01:19.961338 29702 net.cpp:86] Creating Layer conv0
I0428 20:01:19.961346 29702 net.cpp:408] conv0 <- data
I0428 20:01:19.961361 29702 net.cpp:382] conv0 -> conv0
I0428 20:01:20.213826 29702 net.cpp:124] Setting up conv0
I0428 20:01:20.213852 29702 net.cpp:131] Top shape: 64 10 24 24 (368640)
I0428 20:01:20.213856 29702 net.cpp:139] Memory required for data: 1675520
I0428 20:01:20.213886 29702 layer_factory.hpp:77] Creating layer pool0
I0428 20:01:20.213898 29702 net.cpp:86] Creating Layer pool0
I0428 20:01:20.213906 29702 net.cpp:408] pool0 <- conv0
I0428 20:01:20.213925 29702 net.cpp:382] pool0 -> pool0
I0428 20:01:20.213987 29702 net.cpp:124] Setting up pool0
I0428 20:01:20.213997 29702 net.cpp:131] Top shape: 64 10 12 12 (92160)
I0428 20:01:20.213999 29702 net.cpp:139] Memory required for data: 2044160
I0428 20:01:20.214020 29702 layer_factory.hpp:77] Creating layer conv1
I0428 20:01:20.214030 29702 net.cpp:86] Creating Layer conv1
I0428 20:01:20.214033 29702 net.cpp:408] conv1 <- pool0
I0428 20:01:20.214037 29702 net.cpp:382] conv1 -> conv1
I0428 20:01:20.216910 29702 net.cpp:124] Setting up conv1
I0428 20:01:20.216940 29702 net.cpp:131] Top shape: 64 50 8 8 (204800)
I0428 20:01:20.216944 29702 net.cpp:139] Memory required for data: 2863360
I0428 20:01:20.216953 29702 layer_factory.hpp:77] Creating layer pool1
I0428 20:01:20.216959 29702 net.cpp:86] Creating Layer pool1
I0428 20:01:20.216962 29702 net.cpp:408] pool1 <- conv1
I0428 20:01:20.216984 29702 net.cpp:382] pool1 -> pool1
I0428 20:01:20.217022 29702 net.cpp:124] Setting up pool1
I0428 20:01:20.217030 29702 net.cpp:131] Top shape: 64 50 4 4 (51200)
I0428 20:01:20.217032 29702 net.cpp:139] Memory required for data: 3068160
I0428 20:01:20.217034 29702 layer_factory.hpp:77] Creating layer ip1
I0428 20:01:20.217042 29702 net.cpp:86] Creating Layer ip1
I0428 20:01:20.217046 29702 net.cpp:408] ip1 <- pool1
I0428 20:01:20.217051 29702 net.cpp:382] ip1 -> ip1
I0428 20:01:20.217213 29702 net.cpp:124] Setting up ip1
I0428 20:01:20.217221 29702 net.cpp:131] Top shape: 64 10 (640)
I0428 20:01:20.217239 29702 net.cpp:139] Memory required for data: 3070720
I0428 20:01:20.217247 29702 layer_factory.hpp:77] Creating layer relu1
I0428 20:01:20.217252 29702 net.cpp:86] Creating Layer relu1
I0428 20:01:20.217255 29702 net.cpp:408] relu1 <- ip1
I0428 20:01:20.217259 29702 net.cpp:369] relu1 -> ip1 (in-place)
I0428 20:01:20.217437 29702 net.cpp:124] Setting up relu1
I0428 20:01:20.217444 29702 net.cpp:131] Top shape: 64 10 (640)
I0428 20:01:20.217447 29702 net.cpp:139] Memory required for data: 3073280
I0428 20:01:20.217450 29702 layer_factory.hpp:77] Creating layer ip2
I0428 20:01:20.217458 29702 net.cpp:86] Creating Layer ip2
I0428 20:01:20.217460 29702 net.cpp:408] ip2 <- ip1
I0428 20:01:20.217465 29702 net.cpp:382] ip2 -> ip2
I0428 20:01:20.217576 29702 net.cpp:124] Setting up ip2
I0428 20:01:20.217582 29702 net.cpp:131] Top shape: 64 10 (640)
I0428 20:01:20.217586 29702 net.cpp:139] Memory required for data: 3075840
I0428 20:01:20.217591 29702 layer_factory.hpp:77] Creating layer relu2
I0428 20:01:20.217595 29702 net.cpp:86] Creating Layer relu2
I0428 20:01:20.217598 29702 net.cpp:408] relu2 <- ip2
I0428 20:01:20.217603 29702 net.cpp:369] relu2 -> ip2 (in-place)
I0428 20:01:20.218374 29702 net.cpp:124] Setting up relu2
I0428 20:01:20.218385 29702 net.cpp:131] Top shape: 64 10 (640)
I0428 20:01:20.218405 29702 net.cpp:139] Memory required for data: 3078400
I0428 20:01:20.218408 29702 layer_factory.hpp:77] Creating layer loss
I0428 20:01:20.218415 29702 net.cpp:86] Creating Layer loss
I0428 20:01:20.218418 29702 net.cpp:408] loss <- ip2
I0428 20:01:20.218422 29702 net.cpp:408] loss <- label
I0428 20:01:20.218427 29702 net.cpp:382] loss -> loss
I0428 20:01:20.218442 29702 layer_factory.hpp:77] Creating layer loss
…
I0428 20:01:20.219082 29702 solver.cpp:173] Creating test net (#0) specified by net file: ECE595/mnist/train_test/var_everything2/lenet_train_test900.prototxt
I0428 20:01:20.219122 29702 net.cpp:296] The NetState phase (1) differed from the phase (0) specified by a rule in layer mnist
I0428 20:01:20.219203 29702 net.cpp:53] Initializing net from parameters: 
name: "LeNet"
state {
  phase: TEST
}
layer {
  name: "mnist"
  type: "Data"
  top: "data"
  top: "label"
  include {
    phase: TEST
  }
  transform_param {
    scale: 0.00390625
  }
  data_param {
    source: "examples/mnist/mnist_test_lmdb"
    batch_size: 100
    backend: LMDB
  }
}
layer {
  name: "conv0"
  type: "Convolution"
  bottom: "data"
  top: "conv0"
  param {
    lr_mult: 1
  }
  param {
    lr_mult: 2
  }
  convolution_param {
    num_output: 10
    kernel_size: 5
    stride: 1
    weight_filler {
      type: "xavier"
    }
    bias_filler {
      type: "constant"
    }
  }
}
layer {
  name: "pool0"
  type: "Pooling"
  bottom: "conv0"
  top: "pool0"
  pooling_param {
    pool: MAX
    kernel_size: 2
    stride: 2
  }
}
layer {
  name: "conv1"
  type: "Convolution"
  bottom: "pool0"
  top: "conv1"
  param {
    lr_mult: 1
  }
  param {
    lr_mult: 2
  }
  convolution_param {
    num_output: 50
    kernel_size: 5
    stride: 1
    weight_filler {
      type: "xavier"
    }
    bias_filler {
      type: "constant"
    }
  }
}
layer {
  name: "pool1"
  type: "Pooling"
  bottom: "conv1"
  top: "pool1"
  pooling_param {
    pool: MAX
    kernel_size: 2
    stride: 2
  }
}
layer {
  name: "ip1"
  type: "InnerProduct"
  bottom: "pool1"
  top: "ip1"
  param {
    lr_mult: 1
  }
  param {
    lr_mult: 2
  }
  inner_product_param {
    num_output: 10
    weight_filler {
      type: "xavier"
    }
    bias_filler {
      type: "constant"
    }
  }
}
layer {
  name: "relu1"
  type: "ReLU"
  bottom: "ip1"
  top: "ip1"
}
layer {
  name: "ip2"
  type: "InnerProduct"
  bottom: "ip1"
  top: "ip2"
  param {
    lr_mult: 1
  }
  param {
    lr_mult: 2
  }
  inner_product_param {
    num_output: 10
    weight_filler {
      type: "xavier"
    }
    bias_filler {
      type: "constant"
    }
  }
}
layer {
  name: "relu2"
  type: "ReLU"
  bottom: "ip2"
  top: "ip2"
}
layer {
  name: "accuracy"
  type: "Accuracy"
  bottom: "ip2"
  bottom: "label"
  top: "accuracy"
  include {
    phase: TEST
  }
}
layer {
  name: "loss"
  type: "SoftmaxWithLoss"
  bottom: "ip2"
  bottom: "label"
  top: "loss"
}
I0428 20:01:20.219266 29702 layer_factory.hpp:77] Creating layer mnist
I0428 20:01:20.219324 29702 db_lmdb.cpp:35] Opened lmdb examples/mnist/mnist_test_lmdb
I0428 20:01:20.219341 29702 net.cpp:86] Creating Layer mnist
I0428 20:01:20.219347 29702 net.cpp:382] mnist -> data
I0428 20:01:20.219354 29702 net.cpp:382] mnist -> label
I0428 20:01:20.219460 29702 data_layer.cpp:45] output data size: 100,1,28,28
I0428 20:01:20.221629 29702 net.cpp:124] Setting up mnist
I0428 20:01:20.221658 29702 net.cpp:131] Top shape: 100 1 28 28 (78400)
I0428 20:01:20.221663 29702 net.cpp:131] Top shape: 100 (100)
I0428 20:01:20.221667 29702 net.cpp:139] Memory required for data: 314000
I0428 20:01:20.221671 29702 layer_factory.hpp:77] Creating layer label_mnist_1_split
I0428 20:01:20.221678 29702 net.cpp:86] Creating Layer label_mnist_1_split
I0428 20:01:20.221681 29702 net.cpp:408] label_mnist_1_split <- label
I0428 20:01:20.221688 29702 net.cpp:382] label_mnist_1_split -> label_mnist_1_split_0
I0428 20:01:20.221694 29702 net.cpp:382] label_mnist_1_split -> label_mnist_1_split_1
I0428 20:01:20.221792 29702 net.cpp:124] Setting up label_mnist_1_split
I0428 20:01:20.221810 29702 net.cpp:131] Top shape: 100 (100)
I0428 20:01:20.221814 29702 net.cpp:131] Top shape: 100 (100)
I0428 20:01:20.221817 29702 net.cpp:139] Memory required for data: 314800
I0428 20:01:20.221820 29702 layer_factory.hpp:77] Creating layer conv0
I0428 20:01:20.221832 29702 net.cpp:86] Creating Layer conv0
I0428 20:01:20.221835 29702 net.cpp:408] conv0 <- data
I0428 20:01:20.221842 29702 net.cpp:382] conv0 -> conv0
I0428 20:01:20.223618 29702 net.cpp:124] Setting up conv0
I0428 20:01:20.223633 29702 net.cpp:131] Top shape: 100 10 24 24 (576000)
I0428 20:01:20.223652 29702 net.cpp:139] Memory required for data: 2618800
I0428 20:01:20.223661 29702 layer_factory.hpp:77] Creating layer pool0
I0428 20:01:20.223667 29702 net.cpp:86] Creating Layer pool0
I0428 20:01:20.223671 29702 net.cpp:408] pool0 <- conv0
I0428 20:01:20.223676 29702 net.cpp:382] pool0 -> pool0
I0428 20:01:20.223711 29702 net.cpp:124] Setting up pool0
I0428 20:01:20.223718 29702 net.cpp:131] Top shape: 100 10 12 12 (144000)
I0428 20:01:20.223732 29702 net.cpp:139] Memory required for data: 3194800
I0428 20:01:20.223734 29702 layer_factory.hpp:77] Creating layer conv1
I0428 20:01:20.223744 29702 net.cpp:86] Creating Layer conv1
I0428 20:01:20.223747 29702 net.cpp:408] conv1 <- pool0
I0428 20:01:20.223752 29702 net.cpp:382] conv1 -> conv1
I0428 20:01:20.225484 29702 net.cpp:124] Setting up conv1
I0428 20:01:20.225513 29702 net.cpp:131] Top shape: 100 50 8 8 (320000)
I0428 20:01:20.225517 29702 net.cpp:139] Memory required for data: 4474800
I0428 20:01:20.225525 29702 layer_factory.hpp:77] Creating layer pool1
I0428 20:01:20.225533 29702 net.cpp:86] Creating Layer pool1
I0428 20:01:20.225535 29702 net.cpp:408] pool1 <- conv1
I0428 20:01:20.225541 29702 net.cpp:382] pool1 -> pool1
I0428 20:01:20.225611 29702 net.cpp:124] Setting up pool1
I0428 20:01:20.225641 29702 net.cpp:131] Top shape: 100 50 4 4 (80000)
I0428 20:01:20.225643 29702 net.cpp:139] Memory required for data: 4794800
I0428 20:01:20.225647 29702 layer_factory.hpp:77] Creating layer ip1
I0428 20:01:20.225653 29702 net.cpp:86] Creating Layer ip1
I0428 20:01:20.225663 29702 net.cpp:408] ip1 <- pool1
I0428 20:01:20.225670 29702 net.cpp:382] ip1 -> ip1
I0428 20:01:20.225831 29702 net.cpp:124] Setting up ip1
I0428 20:01:20.225838 29702 net.cpp:131] Top shape: 100 10 (1000)
I0428 20:01:20.225842 29702 net.cpp:139] Memory required for data: 4798800
I0428 20:01:20.225850 29702 layer_factory.hpp:77] Creating layer relu1
I0428 20:01:20.225857 29702 net.cpp:86] Creating Layer relu1
I0428 20:01:20.225859 29702 net.cpp:408] relu1 <- ip1
I0428 20:01:20.225865 29702 net.cpp:369] relu1 -> ip1 (in-place)
I0428 20:01:20.226058 29702 net.cpp:124] Setting up relu1
I0428 20:01:20.226068 29702 net.cpp:131] Top shape: 100 10 (1000)
I0428 20:01:20.226070 29702 net.cpp:139] Memory required for data: 4802800
I0428 20:01:20.226074 29702 layer_factory.hpp:77] Creating layer ip2
I0428 20:01:20.226083 29702 net.cpp:86] Creating Layer ip2
I0428 20:01:20.226085 29702 net.cpp:408] ip2 <- ip1
I0428 20:01:20.226097 29702 net.cpp:382] ip2 -> ip2
I0428 20:01:20.226202 29702 net.cpp:124] Setting up ip2
I0428 20:01:20.226213 29702 net.cpp:131] Top shape: 100 10 (1000)
I0428 20:01:20.226217 29702 net.cpp:139] Memory required for data: 4806800
I0428 20:01:20.226222 29702 layer_factory.hpp:77] Creating layer relu2
I0428 20:01:20.226229 29702 net.cpp:86] Creating Layer relu2
I0428 20:01:20.226233 29702 net.cpp:408] relu2 <- ip2
I0428 20:01:20.226236 29702 net.cpp:369] relu2 -> ip2 (in-place)
I0428 20:01:20.226478 29702 net.cpp:124] Setting up relu2
I0428 20:01:20.226488 29702 net.cpp:131] Top shape: 100 10 (1000)
I0428 20:01:20.226492 29702 net.cpp:139] Memory required for data: 4810800
I0428 20:01:20.226495 29702 layer_factory.hpp:77] Creating layer ip2_relu2_0_split
I0428 20:01:20.226501 29702 net.cpp:86] Creating Layer ip2_relu2_0_split
I0428 20:01:20.226505 29702 net.cpp:408] ip2_relu2_0_split <- ip2
I0428 20:01:20.226511 29702 net.cpp:382] ip2_relu2_0_split -> ip2_relu2_0_split_0
I0428 20:01:20.226526 29702 net.cpp:382] ip2_relu2_0_split -> ip2_relu2_0_split_1
I0428 20:01:20.226584 29702 net.cpp:124] Setting up ip2_relu2_0_split
I0428 20:01:20.226593 29702 net.cpp:131] Top shape: 100 10 (1000)
I0428 20:01:20.226596 29702 net.cpp:131] Top shape: 100 10 (1000)
I0428 20:01:20.226599 29702 net.cpp:139] Memory required for data: 4818800
I0428 20:01:20.226603 29702 layer_factory.hpp:77] Creating layer accuracy
I0428 20:01:20.226608 29702 net.cpp:86] Creating Layer accuracy
I0428 20:01:20.226613 29702 net.cpp:408] accuracy <- ip2_relu2_0_split_0
I0428 20:01:20.226618 29702 net.cpp:408] accuracy <- label_mnist_1_split_0
I0428 20:01:20.226624 29702 net.cpp:382] accuracy -> accuracy
…
