…
I0428 20:30:02.676223  3654 net.cpp:296] The NetState phase (0) differed from the phase (1) specified by a rule in layer mnist
I0428 20:30:02.676236  3654 net.cpp:296] The NetState phase (0) differed from the phase (1) specified by a rule in layer accuracy
I0428 20:30:02.676306  3654 net.cpp:53] Initializing net from parameters: 
name: "LeNet"
state {
  phase: TRAIN
  level: 0
  stage: ""
}
layer {
  name: "mnist"
  type: "Data"
  top: "data"
  top: "label"
  include {
    phase: TRAIN
  }
  transform_param {
    scale: 0.00390625
  }
  data_param {
    source: "examples/mnist/mnist_train_lmdb"
    batch_size: 64
    backend: LMDB
  }
}
layer {
  name: "conv0"
  type: "Convolution"
  bottom: "data"
  top: "conv0"
  param {
    lr_mult: 1
  }
  param {
    lr_mult: 2
  }
  convolution_param {
    num_output: 100
    kernel_size: 5
    stride: 1
    weight_filler {
      type: "xavier"
    }
    bias_filler {
      type: "constant"
    }
  }
}
layer {
  name: "pool0"
  type: "Pooling"
  bottom: "conv0"
  top: "pool0"
  pooling_param {
    pool: MAX
    kernel_size: 2
    stride: 2
  }
}
layer {
  name: "conv1"
  type: "Convolution"
  bottom: "pool0"
  top: "conv1"
  param {
    lr_mult: 1
  }
  param {
    lr_mult: 2
  }
  convolution_param {
    num_output: 10
    kernel_size: 5
    stride: 1
    weight_filler {
      type: "xavier"
    }
    bias_filler {
      type: "constant"
    }
  }
}
layer {
  name: "pool1"
  type: "Pooling"
  bottom: "conv1"
  top: "pool1"
  pooling_param {
    pool: MAX
    kernel_size: 2
    stride: 2
  }
}
layer {
  name: "ip1"
  type: "InnerProduct"
  bottom: "pool1"
  top: "ip1"
  param {
    lr_mult: 1
  }
  param {
    lr_mult: 2
  }
  inner_product_param {
    num_output: 50
    weight_filler {
      type: "xavier"
    }
    bias_filler {
      type: "constant"
    }
  }
}
layer {
  name: "relu1"
  type: "ReLU"
  bottom: "ip1"
  top: "ip1"
}
layer {
  name: "ip2"
  type: "InnerProduct"
  bottom: "ip1"
  top: "ip2"
  param {
    lr_mult: 1
  }
  param {
    lr_mult: 2
  }
  inner_product_param {
    num_output: 10
    weight_filler {
      type: "xavier"
    }
    bias_filler {
      type: "constant"
    }
  }
}
layer {
  name: "relu2"
  type: "ReLU"
  bottom: "ip2"
  top: "ip2"
}
layer {
  name: "loss"
  type: "SoftmaxWithLoss"
  bottom: "ip2"
  bottom: "label"
  top: "loss"
}
I0428 20:30:02.676364  3654 layer_factory.hpp:77] Creating layer mnist
I0428 20:30:02.676445  3654 db_lmdb.cpp:35] Opened lmdb examples/mnist/mnist_train_lmdb
I0428 20:30:02.676465  3654 net.cpp:86] Creating Layer mnist
I0428 20:30:02.676471  3654 net.cpp:382] mnist -> data
I0428 20:30:02.676488  3654 net.cpp:382] mnist -> label
I0428 20:30:02.677567  3654 data_layer.cpp:45] output data size: 64,1,28,28
I0428 20:30:02.679868  3654 net.cpp:124] Setting up mnist
I0428 20:30:02.679913  3654 net.cpp:131] Top shape: 64 1 28 28 (50176)
I0428 20:30:02.679919  3654 net.cpp:131] Top shape: 64 (64)
I0428 20:30:02.679920  3654 net.cpp:139] Memory required for data: 200960
I0428 20:30:02.679926  3654 layer_factory.hpp:77] Creating layer conv0
I0428 20:30:02.679939  3654 net.cpp:86] Creating Layer conv0
I0428 20:30:02.679944  3654 net.cpp:408] conv0 <- data
I0428 20:30:02.679955  3654 net.cpp:382] conv0 -> conv0
I0428 20:30:02.920128  3654 net.cpp:124] Setting up conv0
I0428 20:30:02.920156  3654 net.cpp:131] Top shape: 64 100 24 24 (3686400)
I0428 20:30:02.920161  3654 net.cpp:139] Memory required for data: 14946560
I0428 20:30:02.920194  3654 layer_factory.hpp:77] Creating layer pool0
I0428 20:30:02.920209  3654 net.cpp:86] Creating Layer pool0
I0428 20:30:02.920213  3654 net.cpp:408] pool0 <- conv0
I0428 20:30:02.920220  3654 net.cpp:382] pool0 -> pool0
I0428 20:30:02.920271  3654 net.cpp:124] Setting up pool0
I0428 20:30:02.920279  3654 net.cpp:131] Top shape: 64 100 12 12 (921600)
I0428 20:30:02.920282  3654 net.cpp:139] Memory required for data: 18632960
I0428 20:30:02.920285  3654 layer_factory.hpp:77] Creating layer conv1
I0428 20:30:02.920297  3654 net.cpp:86] Creating Layer conv1
I0428 20:30:02.920301  3654 net.cpp:408] conv1 <- pool0
I0428 20:30:02.920307  3654 net.cpp:382] conv1 -> conv1
I0428 20:30:02.922369  3654 net.cpp:124] Setting up conv1
I0428 20:30:02.922384  3654 net.cpp:131] Top shape: 64 10 8 8 (40960)
I0428 20:30:02.922389  3654 net.cpp:139] Memory required for data: 18796800
I0428 20:30:02.922397  3654 layer_factory.hpp:77] Creating layer pool1
I0428 20:30:02.922406  3654 net.cpp:86] Creating Layer pool1
I0428 20:30:02.922410  3654 net.cpp:408] pool1 <- conv1
I0428 20:30:02.922415  3654 net.cpp:382] pool1 -> pool1
I0428 20:30:02.922466  3654 net.cpp:124] Setting up pool1
I0428 20:30:02.922474  3654 net.cpp:131] Top shape: 64 10 4 4 (10240)
I0428 20:30:02.922477  3654 net.cpp:139] Memory required for data: 18837760
I0428 20:30:02.922480  3654 layer_factory.hpp:77] Creating layer ip1
I0428 20:30:02.922487  3654 net.cpp:86] Creating Layer ip1
I0428 20:30:02.922489  3654 net.cpp:408] ip1 <- pool1
I0428 20:30:02.922494  3654 net.cpp:382] ip1 -> ip1
I0428 20:30:02.923506  3654 net.cpp:124] Setting up ip1
I0428 20:30:02.923518  3654 net.cpp:131] Top shape: 64 50 (3200)
I0428 20:30:02.923521  3654 net.cpp:139] Memory required for data: 18850560
I0428 20:30:02.923530  3654 layer_factory.hpp:77] Creating layer relu1
I0428 20:30:02.923537  3654 net.cpp:86] Creating Layer relu1
I0428 20:30:02.923542  3654 net.cpp:408] relu1 <- ip1
I0428 20:30:02.923547  3654 net.cpp:369] relu1 -> ip1 (in-place)
I0428 20:30:02.923739  3654 net.cpp:124] Setting up relu1
I0428 20:30:02.923748  3654 net.cpp:131] Top shape: 64 50 (3200)
I0428 20:30:02.923751  3654 net.cpp:139] Memory required for data: 18863360
I0428 20:30:02.923754  3654 layer_factory.hpp:77] Creating layer ip2
I0428 20:30:02.923760  3654 net.cpp:86] Creating Layer ip2
I0428 20:30:02.923763  3654 net.cpp:408] ip2 <- ip1
I0428 20:30:02.923768  3654 net.cpp:382] ip2 -> ip2
I0428 20:30:02.923858  3654 net.cpp:124] Setting up ip2
I0428 20:30:02.923864  3654 net.cpp:131] Top shape: 64 10 (640)
I0428 20:30:02.923867  3654 net.cpp:139] Memory required for data: 18865920
I0428 20:30:02.923872  3654 layer_factory.hpp:77] Creating layer relu2
I0428 20:30:02.923878  3654 net.cpp:86] Creating Layer relu2
I0428 20:30:02.923882  3654 net.cpp:408] relu2 <- ip2
I0428 20:30:02.923885  3654 net.cpp:369] relu2 -> ip2 (in-place)
I0428 20:30:02.924651  3654 net.cpp:124] Setting up relu2
I0428 20:30:02.924664  3654 net.cpp:131] Top shape: 64 10 (640)
I0428 20:30:02.924669  3654 net.cpp:139] Memory required for data: 18868480
I0428 20:30:02.924686  3654 layer_factory.hpp:77] Creating layer loss
I0428 20:30:02.924693  3654 net.cpp:86] Creating Layer loss
I0428 20:30:02.924697  3654 net.cpp:408] loss <- ip2
I0428 20:30:02.924701  3654 net.cpp:408] loss <- label
I0428 20:30:02.924707  3654 net.cpp:382] loss -> loss
I0428 20:30:02.924741  3654 layer_factory.hpp:77] Creating layer loss
…
I0428 20:30:02.925369  3654 solver.cpp:173] Creating test net (#0) specified by net file: ECE595/mnist/train_test/var_everything2/lenet_train_test1532.prototxt
I0428 20:30:02.925395  3654 net.cpp:296] The NetState phase (1) differed from the phase (0) specified by a rule in layer mnist
I0428 20:30:02.925472  3654 net.cpp:53] Initializing net from parameters: 
name: "LeNet"
state {
  phase: TEST
}
layer {
  name: "mnist"
  type: "Data"
  top: "data"
  top: "label"
  include {
    phase: TEST
  }
  transform_param {
    scale: 0.00390625
  }
  data_param {
    source: "examples/mnist/mnist_test_lmdb"
    batch_size: 100
    backend: LMDB
  }
}
layer {
  name: "conv0"
  type: "Convolution"
  bottom: "data"
  top: "conv0"
  param {
    lr_mult: 1
  }
  param {
    lr_mult: 2
  }
  convolution_param {
    num_output: 100
    kernel_size: 5
    stride: 1
    weight_filler {
      type: "xavier"
    }
    bias_filler {
      type: "constant"
    }
  }
}
layer {
  name: "pool0"
  type: "Pooling"
  bottom: "conv0"
  top: "pool0"
  pooling_param {
    pool: MAX
    kernel_size: 2
    stride: 2
  }
}
layer {
  name: "conv1"
  type: "Convolution"
  bottom: "pool0"
  top: "conv1"
  param {
    lr_mult: 1
  }
  param {
    lr_mult: 2
  }
  convolution_param {
    num_output: 10
    kernel_size: 5
    stride: 1
    weight_filler {
      type: "xavier"
    }
    bias_filler {
      type: "constant"
    }
  }
}
layer {
  name: "pool1"
  type: "Pooling"
  bottom: "conv1"
  top: "pool1"
  pooling_param {
    pool: MAX
    kernel_size: 2
    stride: 2
  }
}
layer {
  name: "ip1"
  type: "InnerProduct"
  bottom: "pool1"
  top: "ip1"
  param {
    lr_mult: 1
  }
  param {
    lr_mult: 2
  }
  inner_product_param {
    num_output: 50
    weight_filler {
      type: "xavier"
    }
    bias_filler {
      type: "constant"
    }
  }
}
layer {
  name: "relu1"
  type: "ReLU"
  bottom: "ip1"
  top: "ip1"
}
layer {
  name: "ip2"
  type: "InnerProduct"
  bottom: "ip1"
  top: "ip2"
  param {
    lr_mult: 1
  }
  param {
    lr_mult: 2
  }
  inner_product_param {
    num_output: 10
    weight_filler {
      type: "xavier"
    }
    bias_filler {
      type: "constant"
    }
  }
}
layer {
  name: "relu2"
  type: "ReLU"
  bottom: "ip2"
  top: "ip2"
}
layer {
  name: "accuracy"
  type: "Accuracy"
  bottom: "ip2"
  bottom: "label"
  top: "accuracy"
  include {
    phase: TEST
  }
}
layer {
  name: "loss"
  type: "SoftmaxWithLoss"
  bottom: "ip2"
  bottom: "label"
  top: "loss"
}
I0428 20:30:02.925545  3654 layer_factory.hpp:77] Creating layer mnist
I0428 20:30:02.925588  3654 db_lmdb.cpp:35] Opened lmdb examples/mnist/mnist_test_lmdb
I0428 20:30:02.925601  3654 net.cpp:86] Creating Layer mnist
I0428 20:30:02.925606  3654 net.cpp:382] mnist -> data
I0428 20:30:02.925612  3654 net.cpp:382] mnist -> label
I0428 20:30:02.925691  3654 data_layer.cpp:45] output data size: 100,1,28,28
I0428 20:30:02.927726  3654 net.cpp:124] Setting up mnist
I0428 20:30:02.927755  3654 net.cpp:131] Top shape: 100 1 28 28 (78400)
I0428 20:30:02.927762  3654 net.cpp:131] Top shape: 100 (100)
I0428 20:30:02.927764  3654 net.cpp:139] Memory required for data: 314000
I0428 20:30:02.927768  3654 layer_factory.hpp:77] Creating layer label_mnist_1_split
I0428 20:30:02.927780  3654 net.cpp:86] Creating Layer label_mnist_1_split
I0428 20:30:02.927784  3654 net.cpp:408] label_mnist_1_split <- label
I0428 20:30:02.927788  3654 net.cpp:382] label_mnist_1_split -> label_mnist_1_split_0
I0428 20:30:02.927795  3654 net.cpp:382] label_mnist_1_split -> label_mnist_1_split_1
I0428 20:30:02.927884  3654 net.cpp:124] Setting up label_mnist_1_split
I0428 20:30:02.927893  3654 net.cpp:131] Top shape: 100 (100)
I0428 20:30:02.927913  3654 net.cpp:131] Top shape: 100 (100)
I0428 20:30:02.927917  3654 net.cpp:139] Memory required for data: 314800
I0428 20:30:02.927919  3654 layer_factory.hpp:77] Creating layer conv0
I0428 20:30:02.927929  3654 net.cpp:86] Creating Layer conv0
I0428 20:30:02.927932  3654 net.cpp:408] conv0 <- data
I0428 20:30:02.927938  3654 net.cpp:382] conv0 -> conv0
I0428 20:30:02.929890  3654 net.cpp:124] Setting up conv0
I0428 20:30:02.929903  3654 net.cpp:131] Top shape: 100 100 24 24 (5760000)
I0428 20:30:02.929924  3654 net.cpp:139] Memory required for data: 23354800
I0428 20:30:02.929932  3654 layer_factory.hpp:77] Creating layer pool0
I0428 20:30:02.929939  3654 net.cpp:86] Creating Layer pool0
I0428 20:30:02.929942  3654 net.cpp:408] pool0 <- conv0
I0428 20:30:02.929947  3654 net.cpp:382] pool0 -> pool0
I0428 20:30:02.929982  3654 net.cpp:124] Setting up pool0
I0428 20:30:02.929989  3654 net.cpp:131] Top shape: 100 100 12 12 (1440000)
I0428 20:30:02.929993  3654 net.cpp:139] Memory required for data: 29114800
I0428 20:30:02.929996  3654 layer_factory.hpp:77] Creating layer conv1
I0428 20:30:02.930004  3654 net.cpp:86] Creating Layer conv1
I0428 20:30:02.930009  3654 net.cpp:408] conv1 <- pool0
I0428 20:30:02.930030  3654 net.cpp:382] conv1 -> conv1
I0428 20:30:02.931886  3654 net.cpp:124] Setting up conv1
I0428 20:30:02.931900  3654 net.cpp:131] Top shape: 100 10 8 8 (64000)
I0428 20:30:02.931905  3654 net.cpp:139] Memory required for data: 29370800
I0428 20:30:02.931913  3654 layer_factory.hpp:77] Creating layer pool1
I0428 20:30:02.931921  3654 net.cpp:86] Creating Layer pool1
I0428 20:30:02.931924  3654 net.cpp:408] pool1 <- conv1
I0428 20:30:02.931929  3654 net.cpp:382] pool1 -> pool1
I0428 20:30:02.931993  3654 net.cpp:124] Setting up pool1
I0428 20:30:02.932000  3654 net.cpp:131] Top shape: 100 10 4 4 (16000)
I0428 20:30:02.932003  3654 net.cpp:139] Memory required for data: 29434800
I0428 20:30:02.932006  3654 layer_factory.hpp:77] Creating layer ip1
I0428 20:30:02.932013  3654 net.cpp:86] Creating Layer ip1
I0428 20:30:02.932016  3654 net.cpp:408] ip1 <- pool1
I0428 20:30:02.932023  3654 net.cpp:382] ip1 -> ip1
I0428 20:30:02.932193  3654 net.cpp:124] Setting up ip1
I0428 20:30:02.932200  3654 net.cpp:131] Top shape: 100 50 (5000)
I0428 20:30:02.932204  3654 net.cpp:139] Memory required for data: 29454800
I0428 20:30:02.932210  3654 layer_factory.hpp:77] Creating layer relu1
I0428 20:30:02.932217  3654 net.cpp:86] Creating Layer relu1
I0428 20:30:02.932237  3654 net.cpp:408] relu1 <- ip1
I0428 20:30:02.932241  3654 net.cpp:369] relu1 -> ip1 (in-place)
I0428 20:30:02.932410  3654 net.cpp:124] Setting up relu1
I0428 20:30:02.932417  3654 net.cpp:131] Top shape: 100 50 (5000)
I0428 20:30:02.932421  3654 net.cpp:139] Memory required for data: 29474800
I0428 20:30:02.932425  3654 layer_factory.hpp:77] Creating layer ip2
I0428 20:30:02.932432  3654 net.cpp:86] Creating Layer ip2
I0428 20:30:02.932436  3654 net.cpp:408] ip2 <- ip1
I0428 20:30:02.932456  3654 net.cpp:382] ip2 -> ip2
I0428 20:30:02.932597  3654 net.cpp:124] Setting up ip2
I0428 20:30:02.932605  3654 net.cpp:131] Top shape: 100 10 (1000)
I0428 20:30:02.932608  3654 net.cpp:139] Memory required for data: 29478800
I0428 20:30:02.932615  3654 layer_factory.hpp:77] Creating layer relu2
I0428 20:30:02.932627  3654 net.cpp:86] Creating Layer relu2
I0428 20:30:02.932642  3654 net.cpp:408] relu2 <- ip2
I0428 20:30:02.932646  3654 net.cpp:369] relu2 -> ip2 (in-place)
I0428 20:30:02.932806  3654 net.cpp:124] Setting up relu2
I0428 20:30:02.932833  3654 net.cpp:131] Top shape: 100 10 (1000)
I0428 20:30:02.932837  3654 net.cpp:139] Memory required for data: 29482800
I0428 20:30:02.932840  3654 layer_factory.hpp:77] Creating layer ip2_relu2_0_split
I0428 20:30:02.932845  3654 net.cpp:86] Creating Layer ip2_relu2_0_split
I0428 20:30:02.932849  3654 net.cpp:408] ip2_relu2_0_split <- ip2
I0428 20:30:02.932869  3654 net.cpp:382] ip2_relu2_0_split -> ip2_relu2_0_split_0
I0428 20:30:02.932886  3654 net.cpp:382] ip2_relu2_0_split -> ip2_relu2_0_split_1
I0428 20:30:02.932945  3654 net.cpp:124] Setting up ip2_relu2_0_split
I0428 20:30:02.932952  3654 net.cpp:131] Top shape: 100 10 (1000)
I0428 20:30:02.932956  3654 net.cpp:131] Top shape: 100 10 (1000)
I0428 20:30:02.932960  3654 net.cpp:139] Memory required for data: 29490800
I0428 20:30:02.932962  3654 layer_factory.hpp:77] Creating layer accuracy
I0428 20:30:02.932968  3654 net.cpp:86] Creating Layer accuracy
I0428 20:30:02.932971  3654 net.cpp:408] accuracy <- ip2_relu2_0_split_0
I0428 20:30:02.932976  3654 net.cpp:408] accuracy <- label_mnist_1_split_0
I0428 20:30:02.932981  3654 net.cpp:382] accuracy -> accuracy
…
