…
I0428 19:47:15.103188 26143 net.cpp:296] The NetState phase (0) differed from the phase (1) specified by a rule in layer mnist
I0428 19:47:15.103199 26143 net.cpp:296] The NetState phase (0) differed from the phase (1) specified by a rule in layer accuracy
I0428 19:47:15.103265 26143 net.cpp:53] Initializing net from parameters: 
name: "LeNet"
state {
  phase: TRAIN
  level: 0
  stage: ""
}
layer {
  name: "mnist"
  type: "Data"
  top: "data"
  top: "label"
  include {
    phase: TRAIN
  }
  transform_param {
    scale: 0.00390625
  }
  data_param {
    source: "examples/mnist/mnist_train_lmdb"
    batch_size: 64
    backend: LMDB
  }
}
layer {
  name: "conv0"
  type: "Convolution"
  bottom: "data"
  top: "conv0"
  param {
    lr_mult: 1
  }
  param {
    lr_mult: 2
  }
  convolution_param {
    num_output: 5
    kernel_size: 5
    stride: 1
    weight_filler {
      type: "xavier"
    }
    bias_filler {
      type: "constant"
    }
  }
}
layer {
  name: "pool0"
  type: "Pooling"
  bottom: "conv0"
  top: "pool0"
  pooling_param {
    pool: MAX
    kernel_size: 2
    stride: 2
  }
}
layer {
  name: "conv1"
  type: "Convolution"
  bottom: "pool0"
  top: "conv1"
  param {
    lr_mult: 1
  }
  param {
    lr_mult: 2
  }
  convolution_param {
    num_output: 2
    kernel_size: 5
    stride: 1
    weight_filler {
      type: "xavier"
    }
    bias_filler {
      type: "constant"
    }
  }
}
layer {
  name: "pool1"
  type: "Pooling"
  bottom: "conv1"
  top: "pool1"
  pooling_param {
    pool: MAX
    kernel_size: 2
    stride: 2
  }
}
layer {
  name: "ip1"
  type: "InnerProduct"
  bottom: "pool1"
  top: "ip1"
  param {
    lr_mult: 1
  }
  param {
    lr_mult: 2
  }
  inner_product_param {
    num_output: 10
    weight_filler {
      type: "xavier"
    }
    bias_filler {
      type: "constant"
    }
  }
}
layer {
  name: "relu1"
  type: "ReLU"
  bottom: "ip1"
  top: "ip1"
}
layer {
  name: "loss"
  type: "SoftmaxWithLoss"
  bottom: "ip1"
  bottom: "label"
  top: "loss"
}
I0428 19:47:15.103322 26143 layer_factory.hpp:77] Creating layer mnist
I0428 19:47:15.103404 26143 db_lmdb.cpp:35] Opened lmdb examples/mnist/mnist_train_lmdb
I0428 19:47:15.103422 26143 net.cpp:86] Creating Layer mnist
I0428 19:47:15.103430 26143 net.cpp:382] mnist -> data
I0428 19:47:15.103447 26143 net.cpp:382] mnist -> label
I0428 19:47:15.104375 26143 data_layer.cpp:45] output data size: 64,1,28,28
I0428 19:47:15.106740 26143 net.cpp:124] Setting up mnist
I0428 19:47:15.106771 26143 net.cpp:131] Top shape: 64 1 28 28 (50176)
I0428 19:47:15.106776 26143 net.cpp:131] Top shape: 64 (64)
I0428 19:47:15.106779 26143 net.cpp:139] Memory required for data: 200960
I0428 19:47:15.106786 26143 layer_factory.hpp:77] Creating layer conv0
I0428 19:47:15.106801 26143 net.cpp:86] Creating Layer conv0
I0428 19:47:15.106807 26143 net.cpp:408] conv0 <- data
I0428 19:47:15.106818 26143 net.cpp:382] conv0 -> conv0
I0428 19:47:15.339309 26143 net.cpp:124] Setting up conv0
I0428 19:47:15.339335 26143 net.cpp:131] Top shape: 64 5 24 24 (184320)
I0428 19:47:15.339339 26143 net.cpp:139] Memory required for data: 938240
I0428 19:47:15.339354 26143 layer_factory.hpp:77] Creating layer pool0
I0428 19:47:15.339380 26143 net.cpp:86] Creating Layer pool0
I0428 19:47:15.339383 26143 net.cpp:408] pool0 <- conv0
I0428 19:47:15.339390 26143 net.cpp:382] pool0 -> pool0
I0428 19:47:15.339448 26143 net.cpp:124] Setting up pool0
I0428 19:47:15.339454 26143 net.cpp:131] Top shape: 64 5 12 12 (46080)
I0428 19:47:15.339473 26143 net.cpp:139] Memory required for data: 1122560
I0428 19:47:15.339476 26143 layer_factory.hpp:77] Creating layer conv1
I0428 19:47:15.339486 26143 net.cpp:86] Creating Layer conv1
I0428 19:47:15.339489 26143 net.cpp:408] conv1 <- pool0
I0428 19:47:15.339494 26143 net.cpp:382] conv1 -> conv1
I0428 19:47:15.341480 26143 net.cpp:124] Setting up conv1
I0428 19:47:15.341493 26143 net.cpp:131] Top shape: 64 2 8 8 (8192)
I0428 19:47:15.341512 26143 net.cpp:139] Memory required for data: 1155328
I0428 19:47:15.341534 26143 layer_factory.hpp:77] Creating layer pool1
I0428 19:47:15.341542 26143 net.cpp:86] Creating Layer pool1
I0428 19:47:15.341545 26143 net.cpp:408] pool1 <- conv1
I0428 19:47:15.341550 26143 net.cpp:382] pool1 -> pool1
I0428 19:47:15.341601 26143 net.cpp:124] Setting up pool1
I0428 19:47:15.341608 26143 net.cpp:131] Top shape: 64 2 4 4 (2048)
I0428 19:47:15.341610 26143 net.cpp:139] Memory required for data: 1163520
I0428 19:47:15.341612 26143 layer_factory.hpp:77] Creating layer ip1
I0428 19:47:15.341619 26143 net.cpp:86] Creating Layer ip1
I0428 19:47:15.341622 26143 net.cpp:408] ip1 <- pool1
I0428 19:47:15.341627 26143 net.cpp:382] ip1 -> ip1
I0428 19:47:15.341750 26143 net.cpp:124] Setting up ip1
I0428 19:47:15.341758 26143 net.cpp:131] Top shape: 64 10 (640)
I0428 19:47:15.341763 26143 net.cpp:139] Memory required for data: 1166080
I0428 19:47:15.341769 26143 layer_factory.hpp:77] Creating layer relu1
I0428 19:47:15.341775 26143 net.cpp:86] Creating Layer relu1
I0428 19:47:15.341778 26143 net.cpp:408] relu1 <- ip1
I0428 19:47:15.341783 26143 net.cpp:369] relu1 -> ip1 (in-place)
I0428 19:47:15.341969 26143 net.cpp:124] Setting up relu1
I0428 19:47:15.341977 26143 net.cpp:131] Top shape: 64 10 (640)
I0428 19:47:15.341981 26143 net.cpp:139] Memory required for data: 1168640
I0428 19:47:15.341984 26143 layer_factory.hpp:77] Creating layer loss
I0428 19:47:15.341990 26143 net.cpp:86] Creating Layer loss
I0428 19:47:15.341994 26143 net.cpp:408] loss <- ip1
I0428 19:47:15.341997 26143 net.cpp:408] loss <- label
I0428 19:47:15.342018 26143 net.cpp:382] loss -> loss
I0428 19:47:15.342033 26143 layer_factory.hpp:77] Creating layer loss
…
I0428 19:47:15.343647 26143 solver.cpp:173] Creating test net (#0) specified by net file: ECE595/mnist/train_test/var_everything2/lenet_train_test509.prototxt
I0428 19:47:15.343669 26143 net.cpp:296] The NetState phase (1) differed from the phase (0) specified by a rule in layer mnist
I0428 19:47:15.343741 26143 net.cpp:53] Initializing net from parameters: 
name: "LeNet"
state {
  phase: TEST
}
layer {
  name: "mnist"
  type: "Data"
  top: "data"
  top: "label"
  include {
    phase: TEST
  }
  transform_param {
    scale: 0.00390625
  }
  data_param {
    source: "examples/mnist/mnist_test_lmdb"
    batch_size: 100
    backend: LMDB
  }
}
layer {
  name: "conv0"
  type: "Convolution"
  bottom: "data"
  top: "conv0"
  param {
    lr_mult: 1
  }
  param {
    lr_mult: 2
  }
  convolution_param {
    num_output: 5
    kernel_size: 5
    stride: 1
    weight_filler {
      type: "xavier"
    }
    bias_filler {
      type: "constant"
    }
  }
}
layer {
  name: "pool0"
  type: "Pooling"
  bottom: "conv0"
  top: "pool0"
  pooling_param {
    pool: MAX
    kernel_size: 2
    stride: 2
  }
}
layer {
  name: "conv1"
  type: "Convolution"
  bottom: "pool0"
  top: "conv1"
  param {
    lr_mult: 1
  }
  param {
    lr_mult: 2
  }
  convolution_param {
    num_output: 2
    kernel_size: 5
    stride: 1
    weight_filler {
      type: "xavier"
    }
    bias_filler {
      type: "constant"
    }
  }
}
layer {
  name: "pool1"
  type: "Pooling"
  bottom: "conv1"
  top: "pool1"
  pooling_param {
    pool: MAX
    kernel_size: 2
    stride: 2
  }
}
layer {
  name: "ip1"
  type: "InnerProduct"
  bottom: "pool1"
  top: "ip1"
  param {
    lr_mult: 1
  }
  param {
    lr_mult: 2
  }
  inner_product_param {
    num_output: 10
    weight_filler {
      type: "xavier"
    }
    bias_filler {
      type: "constant"
    }
  }
}
layer {
  name: "relu1"
  type: "ReLU"
  bottom: "ip1"
  top: "ip1"
}
layer {
  name: "accuracy"
  type: "Accuracy"
  bottom: "ip1"
  bottom: "label"
  top: "accuracy"
  include {
    phase: TEST
  }
}
layer {
  name: "loss"
  type: "SoftmaxWithLoss"
  bottom: "ip1"
  bottom: "label"
  top: "loss"
}
I0428 19:47:15.343809 26143 layer_factory.hpp:77] Creating layer mnist
I0428 19:47:15.343852 26143 db_lmdb.cpp:35] Opened lmdb examples/mnist/mnist_test_lmdb
I0428 19:47:15.343865 26143 net.cpp:86] Creating Layer mnist
I0428 19:47:15.343869 26143 net.cpp:382] mnist -> data
I0428 19:47:15.343876 26143 net.cpp:382] mnist -> label
I0428 19:47:15.343955 26143 data_layer.cpp:45] output data size: 100,1,28,28
I0428 19:47:15.346249 26143 net.cpp:124] Setting up mnist
I0428 19:47:15.346262 26143 net.cpp:131] Top shape: 100 1 28 28 (78400)
I0428 19:47:15.346267 26143 net.cpp:131] Top shape: 100 (100)
I0428 19:47:15.346271 26143 net.cpp:139] Memory required for data: 314000
I0428 19:47:15.346290 26143 layer_factory.hpp:77] Creating layer label_mnist_1_split
I0428 19:47:15.346297 26143 net.cpp:86] Creating Layer label_mnist_1_split
I0428 19:47:15.346302 26143 net.cpp:408] label_mnist_1_split <- label
I0428 19:47:15.346307 26143 net.cpp:382] label_mnist_1_split -> label_mnist_1_split_0
I0428 19:47:15.346313 26143 net.cpp:382] label_mnist_1_split -> label_mnist_1_split_1
I0428 19:47:15.346457 26143 net.cpp:124] Setting up label_mnist_1_split
I0428 19:47:15.346465 26143 net.cpp:131] Top shape: 100 (100)
I0428 19:47:15.346469 26143 net.cpp:131] Top shape: 100 (100)
I0428 19:47:15.346472 26143 net.cpp:139] Memory required for data: 314800
I0428 19:47:15.346477 26143 layer_factory.hpp:77] Creating layer conv0
I0428 19:47:15.346485 26143 net.cpp:86] Creating Layer conv0
I0428 19:47:15.346489 26143 net.cpp:408] conv0 <- data
I0428 19:47:15.346494 26143 net.cpp:382] conv0 -> conv0
I0428 19:47:15.347327 26143 net.cpp:124] Setting up conv0
I0428 19:47:15.347339 26143 net.cpp:131] Top shape: 100 5 24 24 (288000)
I0428 19:47:15.347343 26143 net.cpp:139] Memory required for data: 1466800
I0428 19:47:15.347352 26143 layer_factory.hpp:77] Creating layer pool0
I0428 19:47:15.347359 26143 net.cpp:86] Creating Layer pool0
I0428 19:47:15.347362 26143 net.cpp:408] pool0 <- conv0
I0428 19:47:15.347368 26143 net.cpp:382] pool0 -> pool0
I0428 19:47:15.347403 26143 net.cpp:124] Setting up pool0
I0428 19:47:15.347409 26143 net.cpp:131] Top shape: 100 5 12 12 (72000)
I0428 19:47:15.347411 26143 net.cpp:139] Memory required for data: 1754800
I0428 19:47:15.347414 26143 layer_factory.hpp:77] Creating layer conv1
I0428 19:47:15.347422 26143 net.cpp:86] Creating Layer conv1
I0428 19:47:15.347425 26143 net.cpp:408] conv1 <- pool0
I0428 19:47:15.347431 26143 net.cpp:382] conv1 -> conv1
I0428 19:47:15.349653 26143 net.cpp:124] Setting up conv1
I0428 19:47:15.349665 26143 net.cpp:131] Top shape: 100 2 8 8 (12800)
I0428 19:47:15.349680 26143 net.cpp:139] Memory required for data: 1806000
I0428 19:47:15.349689 26143 layer_factory.hpp:77] Creating layer pool1
I0428 19:47:15.349695 26143 net.cpp:86] Creating Layer pool1
I0428 19:47:15.349730 26143 net.cpp:408] pool1 <- conv1
I0428 19:47:15.349736 26143 net.cpp:382] pool1 -> pool1
I0428 19:47:15.349781 26143 net.cpp:124] Setting up pool1
I0428 19:47:15.349788 26143 net.cpp:131] Top shape: 100 2 4 4 (3200)
I0428 19:47:15.349792 26143 net.cpp:139] Memory required for data: 1818800
I0428 19:47:15.349812 26143 layer_factory.hpp:77] Creating layer ip1
I0428 19:47:15.349817 26143 net.cpp:86] Creating Layer ip1
I0428 19:47:15.349822 26143 net.cpp:408] ip1 <- pool1
I0428 19:47:15.349827 26143 net.cpp:382] ip1 -> ip1
I0428 19:47:15.349947 26143 net.cpp:124] Setting up ip1
I0428 19:47:15.349958 26143 net.cpp:131] Top shape: 100 10 (1000)
I0428 19:47:15.349962 26143 net.cpp:139] Memory required for data: 1822800
I0428 19:47:15.349970 26143 layer_factory.hpp:77] Creating layer relu1
I0428 19:47:15.349975 26143 net.cpp:86] Creating Layer relu1
I0428 19:47:15.349979 26143 net.cpp:408] relu1 <- ip1
I0428 19:47:15.349984 26143 net.cpp:369] relu1 -> ip1 (in-place)
I0428 19:47:15.350833 26143 net.cpp:124] Setting up relu1
I0428 19:47:15.350844 26143 net.cpp:131] Top shape: 100 10 (1000)
I0428 19:47:15.350848 26143 net.cpp:139] Memory required for data: 1826800
I0428 19:47:15.350852 26143 layer_factory.hpp:77] Creating layer ip1_relu1_0_split
I0428 19:47:15.350859 26143 net.cpp:86] Creating Layer ip1_relu1_0_split
I0428 19:47:15.350862 26143 net.cpp:408] ip1_relu1_0_split <- ip1
I0428 19:47:15.350868 26143 net.cpp:382] ip1_relu1_0_split -> ip1_relu1_0_split_0
I0428 19:47:15.350874 26143 net.cpp:382] ip1_relu1_0_split -> ip1_relu1_0_split_1
I0428 19:47:15.350960 26143 net.cpp:124] Setting up ip1_relu1_0_split
I0428 19:47:15.350968 26143 net.cpp:131] Top shape: 100 10 (1000)
I0428 19:47:15.350973 26143 net.cpp:131] Top shape: 100 10 (1000)
I0428 19:47:15.350976 26143 net.cpp:139] Memory required for data: 1834800
I0428 19:47:15.350980 26143 layer_factory.hpp:77] Creating layer accuracy
I0428 19:47:15.350986 26143 net.cpp:86] Creating Layer accuracy
I0428 19:47:15.350989 26143 net.cpp:408] accuracy <- ip1_relu1_0_split_0
I0428 19:47:15.351006 26143 net.cpp:408] accuracy <- label_mnist_1_split_0
I0428 19:47:15.351009 26143 net.cpp:382] accuracy -> accuracy
…
