…
I0428 19:46:42.260403 26045 net.cpp:296] The NetState phase (0) differed from the phase (1) specified by a rule in layer mnist
I0428 19:46:42.260422 26045 net.cpp:296] The NetState phase (0) differed from the phase (1) specified by a rule in layer accuracy
I0428 19:46:42.260525 26045 net.cpp:53] Initializing net from parameters: 
name: "LeNet"
state {
  phase: TRAIN
  level: 0
  stage: ""
}
layer {
  name: "mnist"
  type: "Data"
  top: "data"
  top: "label"
  include {
    phase: TRAIN
  }
  transform_param {
    scale: 0.00390625
  }
  data_param {
    source: "examples/mnist/mnist_train_lmdb"
    batch_size: 64
    backend: LMDB
  }
}
layer {
  name: "conv0"
  type: "Convolution"
  bottom: "data"
  top: "conv0"
  param {
    lr_mult: 1
  }
  param {
    lr_mult: 2
  }
  convolution_param {
    num_output: 2
    kernel_size: 5
    stride: 1
    weight_filler {
      type: "xavier"
    }
    bias_filler {
      type: "constant"
    }
  }
}
layer {
  name: "pool0"
  type: "Pooling"
  bottom: "conv0"
  top: "pool0"
  pooling_param {
    pool: MAX
    kernel_size: 2
    stride: 2
  }
}
layer {
  name: "conv1"
  type: "Convolution"
  bottom: "pool0"
  top: "conv1"
  param {
    lr_mult: 1
  }
  param {
    lr_mult: 2
  }
  convolution_param {
    num_output: 100
    kernel_size: 5
    stride: 1
    weight_filler {
      type: "xavier"
    }
    bias_filler {
      type: "constant"
    }
  }
}
layer {
  name: "pool1"
  type: "Pooling"
  bottom: "conv1"
  top: "pool1"
  pooling_param {
    pool: MAX
    kernel_size: 2
    stride: 2
  }
}
layer {
  name: "ip1"
  type: "InnerProduct"
  bottom: "pool1"
  top: "ip1"
  param {
    lr_mult: 1
  }
  param {
    lr_mult: 2
  }
  inner_product_param {
    num_output: 25
    weight_filler {
      type: "xavier"
    }
    bias_filler {
      type: "constant"
    }
  }
}
layer {
  name: "relu1"
  type: "ReLU"
  bottom: "ip1"
  top: "ip1"
}
layer {
  name: "ip2"
  type: "InnerProduct"
  bottom: "ip1"
  top: "ip2"
  param {
    lr_mult: 1
  }
  param {
    lr_mult: 2
  }
  inner_product_param {
    num_output: 50
    weight_filler {
      type: "xavier"
    }
    bias_filler {
      type: "constant"
    }
  }
}
layer {
  name: "relu2"
  type: "ReLU"
  bottom: "ip2"
  top: "ip2"
}
layer {
  name: "ip3"
  type: "InnerProduct"
  bottom: "ip2"
  top: "ip3"
  param {
    lr_mult: 1
  }
  param {
    lr_mult: 2
  }
  inner_product_param {
    num_output: 10
    weight_filler {
      type: "xavier"
    }
    bias_filler {
      type: "constant"
    }
  }
}
layer {
  name: "relu3"
  type: "ReLU"
  bottom: "ip3"
  top: "ip3"
}
layer {
  name: "loss"
  type: "SoftmaxWithLoss"
  bottom: "ip3"
  bottom: "label"
  top: "loss"
}
I0428 19:46:42.260606 26045 layer_factory.hpp:77] Creating layer mnist
I0428 19:46:42.260705 26045 db_lmdb.cpp:35] Opened lmdb examples/mnist/mnist_train_lmdb
I0428 19:46:42.260728 26045 net.cpp:86] Creating Layer mnist
I0428 19:46:42.260737 26045 net.cpp:382] mnist -> data
I0428 19:46:42.260759 26045 net.cpp:382] mnist -> label
I0428 19:46:42.262012 26045 data_layer.cpp:45] output data size: 64,1,28,28
I0428 19:46:42.264477 26045 net.cpp:124] Setting up mnist
I0428 19:46:42.264494 26045 net.cpp:131] Top shape: 64 1 28 28 (50176)
I0428 19:46:42.264503 26045 net.cpp:131] Top shape: 64 (64)
I0428 19:46:42.264505 26045 net.cpp:139] Memory required for data: 200960
I0428 19:46:42.264513 26045 layer_factory.hpp:77] Creating layer conv0
I0428 19:46:42.264528 26045 net.cpp:86] Creating Layer conv0
I0428 19:46:42.264547 26045 net.cpp:408] conv0 <- data
I0428 19:46:42.264561 26045 net.cpp:382] conv0 -> conv0
I0428 19:46:42.505797 26045 net.cpp:124] Setting up conv0
I0428 19:46:42.505838 26045 net.cpp:131] Top shape: 64 2 24 24 (73728)
I0428 19:46:42.505842 26045 net.cpp:139] Memory required for data: 495872
I0428 19:46:42.505856 26045 layer_factory.hpp:77] Creating layer pool0
I0428 19:46:42.505869 26045 net.cpp:86] Creating Layer pool0
I0428 19:46:42.505873 26045 net.cpp:408] pool0 <- conv0
I0428 19:46:42.505878 26045 net.cpp:382] pool0 -> pool0
I0428 19:46:42.505937 26045 net.cpp:124] Setting up pool0
I0428 19:46:42.505942 26045 net.cpp:131] Top shape: 64 2 12 12 (18432)
I0428 19:46:42.505945 26045 net.cpp:139] Memory required for data: 569600
I0428 19:46:42.505949 26045 layer_factory.hpp:77] Creating layer conv1
I0428 19:46:42.505959 26045 net.cpp:86] Creating Layer conv1
I0428 19:46:42.505961 26045 net.cpp:408] conv1 <- pool0
I0428 19:46:42.505980 26045 net.cpp:382] conv1 -> conv1
I0428 19:46:42.508741 26045 net.cpp:124] Setting up conv1
I0428 19:46:42.508754 26045 net.cpp:131] Top shape: 64 100 8 8 (409600)
I0428 19:46:42.508774 26045 net.cpp:139] Memory required for data: 2208000
I0428 19:46:42.508782 26045 layer_factory.hpp:77] Creating layer pool1
I0428 19:46:42.508790 26045 net.cpp:86] Creating Layer pool1
I0428 19:46:42.508795 26045 net.cpp:408] pool1 <- conv1
I0428 19:46:42.508800 26045 net.cpp:382] pool1 -> pool1
I0428 19:46:42.508875 26045 net.cpp:124] Setting up pool1
I0428 19:46:42.508884 26045 net.cpp:131] Top shape: 64 100 4 4 (102400)
I0428 19:46:42.508889 26045 net.cpp:139] Memory required for data: 2617600
I0428 19:46:42.508894 26045 layer_factory.hpp:77] Creating layer ip1
I0428 19:46:42.508905 26045 net.cpp:86] Creating Layer ip1
I0428 19:46:42.508908 26045 net.cpp:408] ip1 <- pool1
I0428 19:46:42.508915 26045 net.cpp:382] ip1 -> ip1
I0428 19:46:42.509266 26045 net.cpp:124] Setting up ip1
I0428 19:46:42.509274 26045 net.cpp:131] Top shape: 64 25 (1600)
I0428 19:46:42.509292 26045 net.cpp:139] Memory required for data: 2624000
I0428 19:46:42.509299 26045 layer_factory.hpp:77] Creating layer relu1
I0428 19:46:42.509305 26045 net.cpp:86] Creating Layer relu1
I0428 19:46:42.509310 26045 net.cpp:408] relu1 <- ip1
I0428 19:46:42.509313 26045 net.cpp:369] relu1 -> ip1 (in-place)
I0428 19:46:42.509485 26045 net.cpp:124] Setting up relu1
I0428 19:46:42.509495 26045 net.cpp:131] Top shape: 64 25 (1600)
I0428 19:46:42.509497 26045 net.cpp:139] Memory required for data: 2630400
I0428 19:46:42.509500 26045 layer_factory.hpp:77] Creating layer ip2
I0428 19:46:42.509508 26045 net.cpp:86] Creating Layer ip2
I0428 19:46:42.509511 26045 net.cpp:408] ip2 <- ip1
I0428 19:46:42.509517 26045 net.cpp:382] ip2 -> ip2
I0428 19:46:42.510560 26045 net.cpp:124] Setting up ip2
I0428 19:46:42.510572 26045 net.cpp:131] Top shape: 64 50 (3200)
I0428 19:46:42.510591 26045 net.cpp:139] Memory required for data: 2643200
I0428 19:46:42.510596 26045 layer_factory.hpp:77] Creating layer relu2
I0428 19:46:42.510604 26045 net.cpp:86] Creating Layer relu2
I0428 19:46:42.510608 26045 net.cpp:408] relu2 <- ip2
I0428 19:46:42.510612 26045 net.cpp:369] relu2 -> ip2 (in-place)
I0428 19:46:42.511441 26045 net.cpp:124] Setting up relu2
I0428 19:46:42.511453 26045 net.cpp:131] Top shape: 64 50 (3200)
I0428 19:46:42.511471 26045 net.cpp:139] Memory required for data: 2656000
I0428 19:46:42.511474 26045 layer_factory.hpp:77] Creating layer ip3
I0428 19:46:42.511482 26045 net.cpp:86] Creating Layer ip3
I0428 19:46:42.511487 26045 net.cpp:408] ip3 <- ip2
I0428 19:46:42.511492 26045 net.cpp:382] ip3 -> ip3
I0428 19:46:42.511595 26045 net.cpp:124] Setting up ip3
I0428 19:46:42.511601 26045 net.cpp:131] Top shape: 64 10 (640)
I0428 19:46:42.511605 26045 net.cpp:139] Memory required for data: 2658560
I0428 19:46:42.511611 26045 layer_factory.hpp:77] Creating layer relu3
I0428 19:46:42.511620 26045 net.cpp:86] Creating Layer relu3
I0428 19:46:42.511622 26045 net.cpp:408] relu3 <- ip3
I0428 19:46:42.511642 26045 net.cpp:369] relu3 -> ip3 (in-place)
I0428 19:46:42.511823 26045 net.cpp:124] Setting up relu3
I0428 19:46:42.511847 26045 net.cpp:131] Top shape: 64 10 (640)
I0428 19:46:42.511850 26045 net.cpp:139] Memory required for data: 2661120
I0428 19:46:42.511853 26045 layer_factory.hpp:77] Creating layer loss
I0428 19:46:42.511860 26045 net.cpp:86] Creating Layer loss
I0428 19:46:42.511863 26045 net.cpp:408] loss <- ip3
I0428 19:46:42.511868 26045 net.cpp:408] loss <- label
I0428 19:46:42.511873 26045 net.cpp:382] loss -> loss
I0428 19:46:42.511888 26045 layer_factory.hpp:77] Creating layer loss
…
I0428 19:46:42.512604 26045 solver.cpp:173] Creating test net (#0) specified by net file: ECE595/mnist/train_test/var_everything2/lenet_train_test497.prototxt
I0428 19:46:42.512660 26045 net.cpp:296] The NetState phase (1) differed from the phase (0) specified by a rule in layer mnist
I0428 19:46:42.512751 26045 net.cpp:53] Initializing net from parameters: 
name: "LeNet"
state {
  phase: TEST
}
layer {
  name: "mnist"
  type: "Data"
  top: "data"
  top: "label"
  include {
    phase: TEST
  }
  transform_param {
    scale: 0.00390625
  }
  data_param {
    source: "examples/mnist/mnist_test_lmdb"
    batch_size: 100
    backend: LMDB
  }
}
layer {
  name: "conv0"
  type: "Convolution"
  bottom: "data"
  top: "conv0"
  param {
    lr_mult: 1
  }
  param {
    lr_mult: 2
  }
  convolution_param {
    num_output: 2
    kernel_size: 5
    stride: 1
    weight_filler {
      type: "xavier"
    }
    bias_filler {
      type: "constant"
    }
  }
}
layer {
  name: "pool0"
  type: "Pooling"
  bottom: "conv0"
  top: "pool0"
  pooling_param {
    pool: MAX
    kernel_size: 2
    stride: 2
  }
}
layer {
  name: "conv1"
  type: "Convolution"
  bottom: "pool0"
  top: "conv1"
  param {
    lr_mult: 1
  }
  param {
    lr_mult: 2
  }
  convolution_param {
    num_output: 100
    kernel_size: 5
    stride: 1
    weight_filler {
      type: "xavier"
    }
    bias_filler {
      type: "constant"
    }
  }
}
layer {
  name: "pool1"
  type: "Pooling"
  bottom: "conv1"
  top: "pool1"
  pooling_param {
    pool: MAX
    kernel_size: 2
    stride: 2
  }
}
layer {
  name: "ip1"
  type: "InnerProduct"
  bottom: "pool1"
  top: "ip1"
  param {
    lr_mult: 1
  }
  param {
    lr_mult: 2
  }
  inner_product_param {
    num_output: 25
    weight_filler {
      type: "xavier"
    }
    bias_filler {
      type: "constant"
    }
  }
}
layer {
  name: "relu1"
  type: "ReLU"
  bottom: "ip1"
  top: "ip1"
}
layer {
  name: "ip2"
  type: "InnerProduct"
  bottom: "ip1"
  top: "ip2"
  param {
    lr_mult: 1
  }
  param {
    lr_mult: 2
  }
  inner_product_param {
    num_output: 50
    weight_filler {
      type: "xavier"
    }
    bias_filler {
      type: "constant"
    }
  }
}
layer {
  name: "relu2"
  type: "ReLU"
  bottom: "ip2"
  top: "ip2"
}
layer {
  name: "ip3"
  type: "InnerProduct"
  bottom: "ip2"
  top: "ip3"
  param {
    lr_mult: 1
  }
  param {
    lr_mult: 2
  }
  inner_product_param {
    num_output: 10
    weight_filler {
      type: "xavier"
    }
    bias_filler {
      type: "constant"
    }
  }
}
layer {
  name: "relu3"
  type: "ReLU"
  bottom: "ip3"
  top: "ip3"
}
layer {
  name: "accuracy"
  type: "Accuracy"
  bottom: "ip3"
  bottom: "label"
  top: "accuracy"
  include {
    phase: TEST
  }
}
layer {
  name: "loss"
  type: "SoftmaxWithLoss"
  bottom: "ip3"
  bottom: "label"
  top: "loss"
}
I0428 19:46:42.512878 26045 layer_factory.hpp:77] Creating layer mnist
I0428 19:46:42.512961 26045 db_lmdb.cpp:35] Opened lmdb examples/mnist/mnist_test_lmdb
I0428 19:46:42.512976 26045 net.cpp:86] Creating Layer mnist
I0428 19:46:42.512981 26045 net.cpp:382] mnist -> data
I0428 19:46:42.512990 26045 net.cpp:382] mnist -> label
I0428 19:46:42.513108 26045 data_layer.cpp:45] output data size: 100,1,28,28
I0428 19:46:42.515131 26045 net.cpp:124] Setting up mnist
I0428 19:46:42.515161 26045 net.cpp:131] Top shape: 100 1 28 28 (78400)
I0428 19:46:42.515166 26045 net.cpp:131] Top shape: 100 (100)
I0428 19:46:42.515168 26045 net.cpp:139] Memory required for data: 314000
I0428 19:46:42.515172 26045 layer_factory.hpp:77] Creating layer label_mnist_1_split
I0428 19:46:42.515228 26045 net.cpp:86] Creating Layer label_mnist_1_split
I0428 19:46:42.515233 26045 net.cpp:408] label_mnist_1_split <- label
I0428 19:46:42.515238 26045 net.cpp:382] label_mnist_1_split -> label_mnist_1_split_0
I0428 19:46:42.515261 26045 net.cpp:382] label_mnist_1_split -> label_mnist_1_split_1
I0428 19:46:42.515321 26045 net.cpp:124] Setting up label_mnist_1_split
I0428 19:46:42.515327 26045 net.cpp:131] Top shape: 100 (100)
I0428 19:46:42.515331 26045 net.cpp:131] Top shape: 100 (100)
I0428 19:46:42.515334 26045 net.cpp:139] Memory required for data: 314800
I0428 19:46:42.515337 26045 layer_factory.hpp:77] Creating layer conv0
I0428 19:46:42.515347 26045 net.cpp:86] Creating Layer conv0
I0428 19:46:42.515349 26045 net.cpp:408] conv0 <- data
I0428 19:46:42.515355 26045 net.cpp:382] conv0 -> conv0
I0428 19:46:42.517252 26045 net.cpp:124] Setting up conv0
I0428 19:46:42.517267 26045 net.cpp:131] Top shape: 100 2 24 24 (115200)
I0428 19:46:42.517271 26045 net.cpp:139] Memory required for data: 775600
I0428 19:46:42.517279 26045 layer_factory.hpp:77] Creating layer pool0
I0428 19:46:42.517285 26045 net.cpp:86] Creating Layer pool0
I0428 19:46:42.517288 26045 net.cpp:408] pool0 <- conv0
I0428 19:46:42.517292 26045 net.cpp:382] pool0 -> pool0
I0428 19:46:42.517328 26045 net.cpp:124] Setting up pool0
I0428 19:46:42.517334 26045 net.cpp:131] Top shape: 100 2 12 12 (28800)
I0428 19:46:42.517336 26045 net.cpp:139] Memory required for data: 890800
I0428 19:46:42.517339 26045 layer_factory.hpp:77] Creating layer conv1
I0428 19:46:42.517349 26045 net.cpp:86] Creating Layer conv1
I0428 19:46:42.517352 26045 net.cpp:408] conv1 <- pool0
I0428 19:46:42.517356 26045 net.cpp:382] conv1 -> conv1
I0428 19:46:42.519048 26045 net.cpp:124] Setting up conv1
I0428 19:46:42.519062 26045 net.cpp:131] Top shape: 100 100 8 8 (640000)
I0428 19:46:42.519065 26045 net.cpp:139] Memory required for data: 3450800
I0428 19:46:42.519074 26045 layer_factory.hpp:77] Creating layer pool1
I0428 19:46:42.519083 26045 net.cpp:86] Creating Layer pool1
I0428 19:46:42.519085 26045 net.cpp:408] pool1 <- conv1
I0428 19:46:42.519093 26045 net.cpp:382] pool1 -> pool1
I0428 19:46:42.519136 26045 net.cpp:124] Setting up pool1
I0428 19:46:42.519143 26045 net.cpp:131] Top shape: 100 100 4 4 (160000)
I0428 19:46:42.519146 26045 net.cpp:139] Memory required for data: 4090800
I0428 19:46:42.519150 26045 layer_factory.hpp:77] Creating layer ip1
I0428 19:46:42.519157 26045 net.cpp:86] Creating Layer ip1
I0428 19:46:42.519160 26045 net.cpp:408] ip1 <- pool1
I0428 19:46:42.519166 26045 net.cpp:382] ip1 -> ip1
I0428 19:46:42.519533 26045 net.cpp:124] Setting up ip1
I0428 19:46:42.519541 26045 net.cpp:131] Top shape: 100 25 (2500)
I0428 19:46:42.519553 26045 net.cpp:139] Memory required for data: 4100800
I0428 19:46:42.519562 26045 layer_factory.hpp:77] Creating layer relu1
I0428 19:46:42.519567 26045 net.cpp:86] Creating Layer relu1
I0428 19:46:42.519572 26045 net.cpp:408] relu1 <- ip1
I0428 19:46:42.519577 26045 net.cpp:369] relu1 -> ip1 (in-place)
I0428 19:46:42.519764 26045 net.cpp:124] Setting up relu1
I0428 19:46:42.519774 26045 net.cpp:131] Top shape: 100 25 (2500)
I0428 19:46:42.519778 26045 net.cpp:139] Memory required for data: 4110800
I0428 19:46:42.519780 26045 layer_factory.hpp:77] Creating layer ip2
I0428 19:46:42.519788 26045 net.cpp:86] Creating Layer ip2
I0428 19:46:42.519791 26045 net.cpp:408] ip2 <- ip1
I0428 19:46:42.519796 26045 net.cpp:382] ip2 -> ip2
I0428 19:46:42.519908 26045 net.cpp:124] Setting up ip2
I0428 19:46:42.519930 26045 net.cpp:131] Top shape: 100 50 (5000)
I0428 19:46:42.519933 26045 net.cpp:139] Memory required for data: 4130800
I0428 19:46:42.519939 26045 layer_factory.hpp:77] Creating layer relu2
I0428 19:46:42.519958 26045 net.cpp:86] Creating Layer relu2
I0428 19:46:42.519961 26045 net.cpp:408] relu2 <- ip2
I0428 19:46:42.519966 26045 net.cpp:369] relu2 -> ip2 (in-place)
I0428 19:46:42.520165 26045 net.cpp:124] Setting up relu2
I0428 19:46:42.520174 26045 net.cpp:131] Top shape: 100 50 (5000)
I0428 19:46:42.520177 26045 net.cpp:139] Memory required for data: 4150800
I0428 19:46:42.520180 26045 layer_factory.hpp:77] Creating layer ip3
I0428 19:46:42.520185 26045 net.cpp:86] Creating Layer ip3
I0428 19:46:42.520189 26045 net.cpp:408] ip3 <- ip2
I0428 19:46:42.520195 26045 net.cpp:382] ip3 -> ip3
I0428 19:46:42.520364 26045 net.cpp:124] Setting up ip3
I0428 19:46:42.520370 26045 net.cpp:131] Top shape: 100 10 (1000)
I0428 19:46:42.520373 26045 net.cpp:139] Memory required for data: 4154800
I0428 19:46:42.520380 26045 layer_factory.hpp:77] Creating layer relu3
I0428 19:46:42.520386 26045 net.cpp:86] Creating Layer relu3
I0428 19:46:42.520390 26045 net.cpp:408] relu3 <- ip3
I0428 19:46:42.520393 26045 net.cpp:369] relu3 -> ip3 (in-place)
I0428 19:46:42.521327 26045 net.cpp:124] Setting up relu3
I0428 19:46:42.521339 26045 net.cpp:131] Top shape: 100 10 (1000)
I0428 19:46:42.521342 26045 net.cpp:139] Memory required for data: 4158800
I0428 19:46:42.521361 26045 layer_factory.hpp:77] Creating layer ip3_relu3_0_split
I0428 19:46:42.521368 26045 net.cpp:86] Creating Layer ip3_relu3_0_split
I0428 19:46:42.521370 26045 net.cpp:408] ip3_relu3_0_split <- ip3
I0428 19:46:42.521375 26045 net.cpp:382] ip3_relu3_0_split -> ip3_relu3_0_split_0
I0428 19:46:42.521381 26045 net.cpp:382] ip3_relu3_0_split -> ip3_relu3_0_split_1
I0428 19:46:42.521476 26045 net.cpp:124] Setting up ip3_relu3_0_split
I0428 19:46:42.521483 26045 net.cpp:131] Top shape: 100 10 (1000)
I0428 19:46:42.521487 26045 net.cpp:131] Top shape: 100 10 (1000)
I0428 19:46:42.521491 26045 net.cpp:139] Memory required for data: 4166800
I0428 19:46:42.521498 26045 layer_factory.hpp:77] Creating layer accuracy
I0428 19:46:42.521503 26045 net.cpp:86] Creating Layer accuracy
I0428 19:46:42.521507 26045 net.cpp:408] accuracy <- ip3_relu3_0_split_0
I0428 19:46:42.521512 26045 net.cpp:408] accuracy <- label_mnist_1_split_0
I0428 19:46:42.521522 26045 net.cpp:382] accuracy -> accuracy
…
