…
I0428 20:25:29.529227  2602 net.cpp:296] The NetState phase (0) differed from the phase (1) specified by a rule in layer mnist
I0428 20:25:29.529247  2602 net.cpp:296] The NetState phase (0) differed from the phase (1) specified by a rule in layer accuracy
I0428 20:25:29.529343  2602 net.cpp:53] Initializing net from parameters: 
name: "LeNet"
state {
  phase: TRAIN
  level: 0
  stage: ""
}
layer {
  name: "mnist"
  type: "Data"
  top: "data"
  top: "label"
  include {
    phase: TRAIN
  }
  transform_param {
    scale: 0.00390625
  }
  data_param {
    source: "examples/mnist/mnist_train_lmdb"
    batch_size: 64
    backend: LMDB
  }
}
layer {
  name: "conv0"
  type: "Convolution"
  bottom: "data"
  top: "conv0"
  param {
    lr_mult: 1
  }
  param {
    lr_mult: 2
  }
  convolution_param {
    num_output: 100
    kernel_size: 5
    stride: 1
    weight_filler {
      type: "xavier"
    }
    bias_filler {
      type: "constant"
    }
  }
}
layer {
  name: "pool0"
  type: "Pooling"
  bottom: "conv0"
  top: "pool0"
  pooling_param {
    pool: MAX
    kernel_size: 2
    stride: 2
  }
}
layer {
  name: "conv1"
  type: "Convolution"
  bottom: "pool0"
  top: "conv1"
  param {
    lr_mult: 1
  }
  param {
    lr_mult: 2
  }
  convolution_param {
    num_output: 2
    kernel_size: 5
    stride: 1
    weight_filler {
      type: "xavier"
    }
    bias_filler {
      type: "constant"
    }
  }
}
layer {
  name: "pool1"
  type: "Pooling"
  bottom: "conv1"
  top: "pool1"
  pooling_param {
    pool: MAX
    kernel_size: 2
    stride: 2
  }
}
layer {
  name: "ip1"
  type: "InnerProduct"
  bottom: "pool1"
  top: "ip1"
  param {
    lr_mult: 1
  }
  param {
    lr_mult: 2
  }
  inner_product_param {
    num_output: 10
    weight_filler {
      type: "xavier"
    }
    bias_filler {
      type: "constant"
    }
  }
}
layer {
  name: "relu1"
  type: "ReLU"
  bottom: "ip1"
  top: "ip1"
}
layer {
  name: "ip2"
  type: "InnerProduct"
  bottom: "ip1"
  top: "ip2"
  param {
    lr_mult: 1
  }
  param {
    lr_mult: 2
  }
  inner_product_param {
    num_output: 10
    weight_filler {
      type: "xavier"
    }
    bias_filler {
      type: "constant"
    }
  }
}
layer {
  name: "relu2"
  type: "ReLU"
  bottom: "ip2"
  top: "ip2"
}
layer {
  name: "ip3"
  type: "InnerProduct"
  bottom: "ip2"
  top: "ip3"
  param {
    lr_mult: 1
  }
  param {
    lr_mult: 2
  }
  inner_product_param {
    num_output: 10
    weight_filler {
      type: "xavier"
    }
    bias_filler {
      type: "constant"
    }
  }
}
layer {
  name: "relu3"
  type: "ReLU"
  bottom: "ip3"
  top: "ip3"
}
layer {
  name: "loss"
  type: "SoftmaxWithLoss"
  bottom: "ip3"
  bottom: "label"
  top: "loss"
}
I0428 20:25:29.529418  2602 layer_factory.hpp:77] Creating layer mnist
I0428 20:25:29.529520  2602 db_lmdb.cpp:35] Opened lmdb examples/mnist/mnist_train_lmdb
I0428 20:25:29.529541  2602 net.cpp:86] Creating Layer mnist
I0428 20:25:29.529549  2602 net.cpp:382] mnist -> data
I0428 20:25:29.529572  2602 net.cpp:382] mnist -> label
I0428 20:25:29.530664  2602 data_layer.cpp:45] output data size: 64,1,28,28
I0428 20:25:29.533357  2602 net.cpp:124] Setting up mnist
I0428 20:25:29.533375  2602 net.cpp:131] Top shape: 64 1 28 28 (50176)
I0428 20:25:29.533382  2602 net.cpp:131] Top shape: 64 (64)
I0428 20:25:29.533386  2602 net.cpp:139] Memory required for data: 200960
I0428 20:25:29.533394  2602 layer_factory.hpp:77] Creating layer conv0
I0428 20:25:29.533411  2602 net.cpp:86] Creating Layer conv0
I0428 20:25:29.533430  2602 net.cpp:408] conv0 <- data
I0428 20:25:29.533442  2602 net.cpp:382] conv0 -> conv0
I0428 20:25:29.806443  2602 net.cpp:124] Setting up conv0
I0428 20:25:29.806469  2602 net.cpp:131] Top shape: 64 100 24 24 (3686400)
I0428 20:25:29.806473  2602 net.cpp:139] Memory required for data: 14946560
I0428 20:25:29.806488  2602 layer_factory.hpp:77] Creating layer pool0
I0428 20:25:29.806499  2602 net.cpp:86] Creating Layer pool0
I0428 20:25:29.806504  2602 net.cpp:408] pool0 <- conv0
I0428 20:25:29.806509  2602 net.cpp:382] pool0 -> pool0
I0428 20:25:29.806586  2602 net.cpp:124] Setting up pool0
I0428 20:25:29.806593  2602 net.cpp:131] Top shape: 64 100 12 12 (921600)
I0428 20:25:29.806596  2602 net.cpp:139] Memory required for data: 18632960
I0428 20:25:29.806599  2602 layer_factory.hpp:77] Creating layer conv1
I0428 20:25:29.806609  2602 net.cpp:86] Creating Layer conv1
I0428 20:25:29.806612  2602 net.cpp:408] conv1 <- pool0
I0428 20:25:29.806617  2602 net.cpp:382] conv1 -> conv1
I0428 20:25:29.809531  2602 net.cpp:124] Setting up conv1
I0428 20:25:29.809561  2602 net.cpp:131] Top shape: 64 2 8 8 (8192)
I0428 20:25:29.809564  2602 net.cpp:139] Memory required for data: 18665728
I0428 20:25:29.809572  2602 layer_factory.hpp:77] Creating layer pool1
I0428 20:25:29.809579  2602 net.cpp:86] Creating Layer pool1
I0428 20:25:29.809583  2602 net.cpp:408] pool1 <- conv1
I0428 20:25:29.809587  2602 net.cpp:382] pool1 -> pool1
I0428 20:25:29.809639  2602 net.cpp:124] Setting up pool1
I0428 20:25:29.809644  2602 net.cpp:131] Top shape: 64 2 4 4 (2048)
I0428 20:25:29.809648  2602 net.cpp:139] Memory required for data: 18673920
I0428 20:25:29.809650  2602 layer_factory.hpp:77] Creating layer ip1
I0428 20:25:29.809656  2602 net.cpp:86] Creating Layer ip1
I0428 20:25:29.809659  2602 net.cpp:408] ip1 <- pool1
I0428 20:25:29.809664  2602 net.cpp:382] ip1 -> ip1
I0428 20:25:29.809756  2602 net.cpp:124] Setting up ip1
I0428 20:25:29.809762  2602 net.cpp:131] Top shape: 64 10 (640)
I0428 20:25:29.809765  2602 net.cpp:139] Memory required for data: 18676480
I0428 20:25:29.809772  2602 layer_factory.hpp:77] Creating layer relu1
I0428 20:25:29.809779  2602 net.cpp:86] Creating Layer relu1
I0428 20:25:29.809782  2602 net.cpp:408] relu1 <- ip1
I0428 20:25:29.809787  2602 net.cpp:369] relu1 -> ip1 (in-place)
I0428 20:25:29.809953  2602 net.cpp:124] Setting up relu1
I0428 20:25:29.809962  2602 net.cpp:131] Top shape: 64 10 (640)
I0428 20:25:29.809964  2602 net.cpp:139] Memory required for data: 18679040
I0428 20:25:29.809967  2602 layer_factory.hpp:77] Creating layer ip2
I0428 20:25:29.809973  2602 net.cpp:86] Creating Layer ip2
I0428 20:25:29.809976  2602 net.cpp:408] ip2 <- ip1
I0428 20:25:29.809981  2602 net.cpp:382] ip2 -> ip2
I0428 20:25:29.810066  2602 net.cpp:124] Setting up ip2
I0428 20:25:29.810072  2602 net.cpp:131] Top shape: 64 10 (640)
I0428 20:25:29.810075  2602 net.cpp:139] Memory required for data: 18681600
I0428 20:25:29.810081  2602 layer_factory.hpp:77] Creating layer relu2
I0428 20:25:29.810086  2602 net.cpp:86] Creating Layer relu2
I0428 20:25:29.810088  2602 net.cpp:408] relu2 <- ip2
I0428 20:25:29.810092  2602 net.cpp:369] relu2 -> ip2 (in-place)
I0428 20:25:29.810858  2602 net.cpp:124] Setting up relu2
I0428 20:25:29.810869  2602 net.cpp:131] Top shape: 64 10 (640)
I0428 20:25:29.810873  2602 net.cpp:139] Memory required for data: 18684160
I0428 20:25:29.810878  2602 layer_factory.hpp:77] Creating layer ip3
I0428 20:25:29.810883  2602 net.cpp:86] Creating Layer ip3
I0428 20:25:29.810887  2602 net.cpp:408] ip3 <- ip2
I0428 20:25:29.810907  2602 net.cpp:382] ip3 -> ip3
I0428 20:25:29.810997  2602 net.cpp:124] Setting up ip3
I0428 20:25:29.811003  2602 net.cpp:131] Top shape: 64 10 (640)
I0428 20:25:29.811007  2602 net.cpp:139] Memory required for data: 18686720
I0428 20:25:29.811013  2602 layer_factory.hpp:77] Creating layer relu3
I0428 20:25:29.811018  2602 net.cpp:86] Creating Layer relu3
I0428 20:25:29.811022  2602 net.cpp:408] relu3 <- ip3
I0428 20:25:29.811025  2602 net.cpp:369] relu3 -> ip3 (in-place)
I0428 20:25:29.811178  2602 net.cpp:124] Setting up relu3
I0428 20:25:29.811187  2602 net.cpp:131] Top shape: 64 10 (640)
I0428 20:25:29.811189  2602 net.cpp:139] Memory required for data: 18689280
I0428 20:25:29.811192  2602 layer_factory.hpp:77] Creating layer loss
I0428 20:25:29.811197  2602 net.cpp:86] Creating Layer loss
I0428 20:25:29.811200  2602 net.cpp:408] loss <- ip3
I0428 20:25:29.811204  2602 net.cpp:408] loss <- label
I0428 20:25:29.811209  2602 net.cpp:382] loss -> loss
I0428 20:25:29.811226  2602 layer_factory.hpp:77] Creating layer loss
…
I0428 20:25:29.811872  2602 solver.cpp:173] Creating test net (#0) specified by net file: ECE595/mnist/train_test/var_everything2/lenet_train_test1455.prototxt
I0428 20:25:29.811898  2602 net.cpp:296] The NetState phase (1) differed from the phase (0) specified by a rule in layer mnist
I0428 20:25:29.812016  2602 net.cpp:53] Initializing net from parameters: 
name: "LeNet"
state {
  phase: TEST
}
layer {
  name: "mnist"
  type: "Data"
  top: "data"
  top: "label"
  include {
    phase: TEST
  }
  transform_param {
    scale: 0.00390625
  }
  data_param {
    source: "examples/mnist/mnist_test_lmdb"
    batch_size: 100
    backend: LMDB
  }
}
layer {
  name: "conv0"
  type: "Convolution"
  bottom: "data"
  top: "conv0"
  param {
    lr_mult: 1
  }
  param {
    lr_mult: 2
  }
  convolution_param {
    num_output: 100
    kernel_size: 5
    stride: 1
    weight_filler {
      type: "xavier"
    }
    bias_filler {
      type: "constant"
    }
  }
}
layer {
  name: "pool0"
  type: "Pooling"
  bottom: "conv0"
  top: "pool0"
  pooling_param {
    pool: MAX
    kernel_size: 2
    stride: 2
  }
}
layer {
  name: "conv1"
  type: "Convolution"
  bottom: "pool0"
  top: "conv1"
  param {
    lr_mult: 1
  }
  param {
    lr_mult: 2
  }
  convolution_param {
    num_output: 2
    kernel_size: 5
    stride: 1
    weight_filler {
      type: "xavier"
    }
    bias_filler {
      type: "constant"
    }
  }
}
layer {
  name: "pool1"
  type: "Pooling"
  bottom: "conv1"
  top: "pool1"
  pooling_param {
    pool: MAX
    kernel_size: 2
    stride: 2
  }
}
layer {
  name: "ip1"
  type: "InnerProduct"
  bottom: "pool1"
  top: "ip1"
  param {
    lr_mult: 1
  }
  param {
    lr_mult: 2
  }
  inner_product_param {
    num_output: 10
    weight_filler {
      type: "xavier"
    }
    bias_filler {
      type: "constant"
    }
  }
}
layer {
  name: "relu1"
  type: "ReLU"
  bottom: "ip1"
  top: "ip1"
}
layer {
  name: "ip2"
  type: "InnerProduct"
  bottom: "ip1"
  top: "ip2"
  param {
    lr_mult: 1
  }
  param {
    lr_mult: 2
  }
  inner_product_param {
    num_output: 10
    weight_filler {
      type: "xavier"
    }
    bias_filler {
      type: "constant"
    }
  }
}
layer {
  name: "relu2"
  type: "ReLU"
  bottom: "ip2"
  top: "ip2"
}
layer {
  name: "ip3"
  type: "InnerProduct"
  bottom: "ip2"
  top: "ip3"
  param {
    lr_mult: 1
  }
  param {
    lr_mult: 2
  }
  inner_product_param {
    num_output: 10
    weight_filler {
      type: "xavier"
    }
    bias_filler {
      type: "constant"
    }
  }
}
layer {
  name: "relu3"
  type: "ReLU"
  bottom: "ip3"
  top: "ip3"
}
layer {
  name: "accuracy"
  type: "Accuracy"
  bottom: "ip3"
  bottom: "label"
  top: "accuracy"
  include {
    phase: TEST
  }
}
layer {
  name: "loss"
  type: "SoftmaxWithLoss"
  bottom: "ip3"
  bottom: "label"
  top: "loss"
}
I0428 20:25:29.812091  2602 layer_factory.hpp:77] Creating layer mnist
I0428 20:25:29.812134  2602 db_lmdb.cpp:35] Opened lmdb examples/mnist/mnist_test_lmdb
I0428 20:25:29.812147  2602 net.cpp:86] Creating Layer mnist
I0428 20:25:29.812151  2602 net.cpp:382] mnist -> data
I0428 20:25:29.812160  2602 net.cpp:382] mnist -> label
I0428 20:25:29.812238  2602 data_layer.cpp:45] output data size: 100,1,28,28
I0428 20:25:29.814265  2602 net.cpp:124] Setting up mnist
I0428 20:25:29.814296  2602 net.cpp:131] Top shape: 100 1 28 28 (78400)
I0428 20:25:29.814301  2602 net.cpp:131] Top shape: 100 (100)
I0428 20:25:29.814304  2602 net.cpp:139] Memory required for data: 314000
I0428 20:25:29.814308  2602 layer_factory.hpp:77] Creating layer label_mnist_1_split
I0428 20:25:29.814316  2602 net.cpp:86] Creating Layer label_mnist_1_split
I0428 20:25:29.814319  2602 net.cpp:408] label_mnist_1_split <- label
I0428 20:25:29.814324  2602 net.cpp:382] label_mnist_1_split -> label_mnist_1_split_0
I0428 20:25:29.814332  2602 net.cpp:382] label_mnist_1_split -> label_mnist_1_split_1
I0428 20:25:29.814375  2602 net.cpp:124] Setting up label_mnist_1_split
I0428 20:25:29.814383  2602 net.cpp:131] Top shape: 100 (100)
I0428 20:25:29.814385  2602 net.cpp:131] Top shape: 100 (100)
I0428 20:25:29.814389  2602 net.cpp:139] Memory required for data: 314800
I0428 20:25:29.814393  2602 layer_factory.hpp:77] Creating layer conv0
I0428 20:25:29.814400  2602 net.cpp:86] Creating Layer conv0
I0428 20:25:29.814404  2602 net.cpp:408] conv0 <- data
I0428 20:25:29.814409  2602 net.cpp:382] conv0 -> conv0
I0428 20:25:29.816234  2602 net.cpp:124] Setting up conv0
I0428 20:25:29.816248  2602 net.cpp:131] Top shape: 100 100 24 24 (5760000)
I0428 20:25:29.816268  2602 net.cpp:139] Memory required for data: 23354800
I0428 20:25:29.816277  2602 layer_factory.hpp:77] Creating layer pool0
I0428 20:25:29.816283  2602 net.cpp:86] Creating Layer pool0
I0428 20:25:29.816287  2602 net.cpp:408] pool0 <- conv0
I0428 20:25:29.816293  2602 net.cpp:382] pool0 -> pool0
I0428 20:25:29.816328  2602 net.cpp:124] Setting up pool0
I0428 20:25:29.816334  2602 net.cpp:131] Top shape: 100 100 12 12 (1440000)
I0428 20:25:29.816337  2602 net.cpp:139] Memory required for data: 29114800
I0428 20:25:29.816340  2602 layer_factory.hpp:77] Creating layer conv1
I0428 20:25:29.816349  2602 net.cpp:86] Creating Layer conv1
I0428 20:25:29.816352  2602 net.cpp:408] conv1 <- pool0
I0428 20:25:29.816357  2602 net.cpp:382] conv1 -> conv1
I0428 20:25:29.818015  2602 net.cpp:124] Setting up conv1
I0428 20:25:29.818045  2602 net.cpp:131] Top shape: 100 2 8 8 (12800)
I0428 20:25:29.818048  2602 net.cpp:139] Memory required for data: 29166000
I0428 20:25:29.818058  2602 layer_factory.hpp:77] Creating layer pool1
I0428 20:25:29.818065  2602 net.cpp:86] Creating Layer pool1
I0428 20:25:29.818079  2602 net.cpp:408] pool1 <- conv1
I0428 20:25:29.818084  2602 net.cpp:382] pool1 -> pool1
I0428 20:25:29.818121  2602 net.cpp:124] Setting up pool1
I0428 20:25:29.818128  2602 net.cpp:131] Top shape: 100 2 4 4 (3200)
I0428 20:25:29.818131  2602 net.cpp:139] Memory required for data: 29178800
I0428 20:25:29.818135  2602 layer_factory.hpp:77] Creating layer ip1
I0428 20:25:29.818140  2602 net.cpp:86] Creating Layer ip1
I0428 20:25:29.818145  2602 net.cpp:408] ip1 <- pool1
I0428 20:25:29.818148  2602 net.cpp:382] ip1 -> ip1
I0428 20:25:29.818244  2602 net.cpp:124] Setting up ip1
I0428 20:25:29.818270  2602 net.cpp:131] Top shape: 100 10 (1000)
I0428 20:25:29.818285  2602 net.cpp:139] Memory required for data: 29182800
I0428 20:25:29.818294  2602 layer_factory.hpp:77] Creating layer relu1
I0428 20:25:29.818300  2602 net.cpp:86] Creating Layer relu1
I0428 20:25:29.818302  2602 net.cpp:408] relu1 <- ip1
I0428 20:25:29.818307  2602 net.cpp:369] relu1 -> ip1 (in-place)
I0428 20:25:29.818480  2602 net.cpp:124] Setting up relu1
I0428 20:25:29.818488  2602 net.cpp:131] Top shape: 100 10 (1000)
I0428 20:25:29.818492  2602 net.cpp:139] Memory required for data: 29186800
I0428 20:25:29.818495  2602 layer_factory.hpp:77] Creating layer ip2
I0428 20:25:29.818502  2602 net.cpp:86] Creating Layer ip2
I0428 20:25:29.818506  2602 net.cpp:408] ip2 <- ip1
I0428 20:25:29.818511  2602 net.cpp:382] ip2 -> ip2
I0428 20:25:29.818617  2602 net.cpp:124] Setting up ip2
I0428 20:25:29.818624  2602 net.cpp:131] Top shape: 100 10 (1000)
I0428 20:25:29.818627  2602 net.cpp:139] Memory required for data: 29190800
I0428 20:25:29.818634  2602 layer_factory.hpp:77] Creating layer relu2
I0428 20:25:29.818639  2602 net.cpp:86] Creating Layer relu2
I0428 20:25:29.818641  2602 net.cpp:408] relu2 <- ip2
I0428 20:25:29.818645  2602 net.cpp:369] relu2 -> ip2 (in-place)
I0428 20:25:29.818826  2602 net.cpp:124] Setting up relu2
I0428 20:25:29.818835  2602 net.cpp:131] Top shape: 100 10 (1000)
I0428 20:25:29.818838  2602 net.cpp:139] Memory required for data: 29194800
I0428 20:25:29.818841  2602 layer_factory.hpp:77] Creating layer ip3
I0428 20:25:29.818846  2602 net.cpp:86] Creating Layer ip3
I0428 20:25:29.818850  2602 net.cpp:408] ip3 <- ip2
I0428 20:25:29.818855  2602 net.cpp:382] ip3 -> ip3
I0428 20:25:29.818969  2602 net.cpp:124] Setting up ip3
I0428 20:25:29.818975  2602 net.cpp:131] Top shape: 100 10 (1000)
I0428 20:25:29.818979  2602 net.cpp:139] Memory required for data: 29198800
I0428 20:25:29.818987  2602 layer_factory.hpp:77] Creating layer relu3
I0428 20:25:29.818991  2602 net.cpp:86] Creating Layer relu3
I0428 20:25:29.818994  2602 net.cpp:408] relu3 <- ip3
I0428 20:25:29.818998  2602 net.cpp:369] relu3 -> ip3 (in-place)
I0428 20:25:29.819842  2602 net.cpp:124] Setting up relu3
I0428 20:25:29.819856  2602 net.cpp:131] Top shape: 100 10 (1000)
I0428 20:25:29.819860  2602 net.cpp:139] Memory required for data: 29202800
I0428 20:25:29.819864  2602 layer_factory.hpp:77] Creating layer ip3_relu3_0_split
I0428 20:25:29.819870  2602 net.cpp:86] Creating Layer ip3_relu3_0_split
I0428 20:25:29.819875  2602 net.cpp:408] ip3_relu3_0_split <- ip3
I0428 20:25:29.819880  2602 net.cpp:382] ip3_relu3_0_split -> ip3_relu3_0_split_0
I0428 20:25:29.819886  2602 net.cpp:382] ip3_relu3_0_split -> ip3_relu3_0_split_1
I0428 20:25:29.819926  2602 net.cpp:124] Setting up ip3_relu3_0_split
I0428 20:25:29.819931  2602 net.cpp:131] Top shape: 100 10 (1000)
I0428 20:25:29.819936  2602 net.cpp:131] Top shape: 100 10 (1000)
I0428 20:25:29.819939  2602 net.cpp:139] Memory required for data: 29210800
I0428 20:25:29.819942  2602 layer_factory.hpp:77] Creating layer accuracy
I0428 20:25:29.819947  2602 net.cpp:86] Creating Layer accuracy
I0428 20:25:29.819950  2602 net.cpp:408] accuracy <- ip3_relu3_0_split_0
I0428 20:25:29.819955  2602 net.cpp:408] accuracy <- label_mnist_1_split_0
I0428 20:25:29.819960  2602 net.cpp:382] accuracy -> accuracy
…
