…
I0428 19:47:28.998952 26201 net.cpp:296] The NetState phase (0) differed from the phase (1) specified by a rule in layer mnist
I0428 19:47:28.998970 26201 net.cpp:296] The NetState phase (0) differed from the phase (1) specified by a rule in layer accuracy
I0428 19:47:28.999055 26201 net.cpp:53] Initializing net from parameters: 
name: "LeNet"
state {
  phase: TRAIN
  level: 0
  stage: ""
}
layer {
  name: "mnist"
  type: "Data"
  top: "data"
  top: "label"
  include {
    phase: TRAIN
  }
  transform_param {
    scale: 0.00390625
  }
  data_param {
    source: "examples/mnist/mnist_train_lmdb"
    batch_size: 64
    backend: LMDB
  }
}
layer {
  name: "conv0"
  type: "Convolution"
  bottom: "data"
  top: "conv0"
  param {
    lr_mult: 1
  }
  param {
    lr_mult: 2
  }
  convolution_param {
    num_output: 5
    kernel_size: 5
    stride: 1
    weight_filler {
      type: "xavier"
    }
    bias_filler {
      type: "constant"
    }
  }
}
layer {
  name: "pool0"
  type: "Pooling"
  bottom: "conv0"
  top: "pool0"
  pooling_param {
    pool: MAX
    kernel_size: 2
    stride: 2
  }
}
layer {
  name: "conv1"
  type: "Convolution"
  bottom: "pool0"
  top: "conv1"
  param {
    lr_mult: 1
  }
  param {
    lr_mult: 2
  }
  convolution_param {
    num_output: 2
    kernel_size: 5
    stride: 1
    weight_filler {
      type: "xavier"
    }
    bias_filler {
      type: "constant"
    }
  }
}
layer {
  name: "pool1"
  type: "Pooling"
  bottom: "conv1"
  top: "pool1"
  pooling_param {
    pool: MAX
    kernel_size: 2
    stride: 2
  }
}
layer {
  name: "ip1"
  type: "InnerProduct"
  bottom: "pool1"
  top: "ip1"
  param {
    lr_mult: 1
  }
  param {
    lr_mult: 2
  }
  inner_product_param {
    num_output: 50
    weight_filler {
      type: "xavier"
    }
    bias_filler {
      type: "constant"
    }
  }
}
layer {
  name: "relu1"
  type: "ReLU"
  bottom: "ip1"
  top: "ip1"
}
layer {
  name: "ip2"
  type: "InnerProduct"
  bottom: "ip1"
  top: "ip2"
  param {
    lr_mult: 1
  }
  param {
    lr_mult: 2
  }
  inner_product_param {
    num_output: 10
    weight_filler {
      type: "xavier"
    }
    bias_filler {
      type: "constant"
    }
  }
}
layer {
  name: "relu2"
  type: "ReLU"
  bottom: "ip2"
  top: "ip2"
}
layer {
  name: "loss"
  type: "SoftmaxWithLoss"
  bottom: "ip2"
  bottom: "label"
  top: "loss"
}
I0428 19:47:28.999124 26201 layer_factory.hpp:77] Creating layer mnist
I0428 19:47:28.999228 26201 db_lmdb.cpp:35] Opened lmdb examples/mnist/mnist_train_lmdb
I0428 19:47:28.999251 26201 net.cpp:86] Creating Layer mnist
I0428 19:47:28.999258 26201 net.cpp:382] mnist -> data
I0428 19:47:28.999281 26201 net.cpp:382] mnist -> label
I0428 19:47:29.000375 26201 data_layer.cpp:45] output data size: 64,1,28,28
I0428 19:47:29.002840 26201 net.cpp:124] Setting up mnist
I0428 19:47:29.002857 26201 net.cpp:131] Top shape: 64 1 28 28 (50176)
I0428 19:47:29.002863 26201 net.cpp:131] Top shape: 64 (64)
I0428 19:47:29.002867 26201 net.cpp:139] Memory required for data: 200960
I0428 19:47:29.002876 26201 layer_factory.hpp:77] Creating layer conv0
I0428 19:47:29.002890 26201 net.cpp:86] Creating Layer conv0
I0428 19:47:29.002897 26201 net.cpp:408] conv0 <- data
I0428 19:47:29.002907 26201 net.cpp:382] conv0 -> conv0
I0428 19:47:29.286495 26201 net.cpp:124] Setting up conv0
I0428 19:47:29.286523 26201 net.cpp:131] Top shape: 64 5 24 24 (184320)
I0428 19:47:29.286527 26201 net.cpp:139] Memory required for data: 938240
I0428 19:47:29.286559 26201 layer_factory.hpp:77] Creating layer pool0
I0428 19:47:29.286572 26201 net.cpp:86] Creating Layer pool0
I0428 19:47:29.286576 26201 net.cpp:408] pool0 <- conv0
I0428 19:47:29.286582 26201 net.cpp:382] pool0 -> pool0
I0428 19:47:29.286628 26201 net.cpp:124] Setting up pool0
I0428 19:47:29.286633 26201 net.cpp:131] Top shape: 64 5 12 12 (46080)
I0428 19:47:29.286636 26201 net.cpp:139] Memory required for data: 1122560
I0428 19:47:29.286639 26201 layer_factory.hpp:77] Creating layer conv1
I0428 19:47:29.286650 26201 net.cpp:86] Creating Layer conv1
I0428 19:47:29.286653 26201 net.cpp:408] conv1 <- pool0
I0428 19:47:29.286659 26201 net.cpp:382] conv1 -> conv1
I0428 19:47:29.288498 26201 net.cpp:124] Setting up conv1
I0428 19:47:29.288513 26201 net.cpp:131] Top shape: 64 2 8 8 (8192)
I0428 19:47:29.288532 26201 net.cpp:139] Memory required for data: 1155328
I0428 19:47:29.288542 26201 layer_factory.hpp:77] Creating layer pool1
I0428 19:47:29.288550 26201 net.cpp:86] Creating Layer pool1
I0428 19:47:29.288554 26201 net.cpp:408] pool1 <- conv1
I0428 19:47:29.288559 26201 net.cpp:382] pool1 -> pool1
I0428 19:47:29.288599 26201 net.cpp:124] Setting up pool1
I0428 19:47:29.288604 26201 net.cpp:131] Top shape: 64 2 4 4 (2048)
I0428 19:47:29.288607 26201 net.cpp:139] Memory required for data: 1163520
I0428 19:47:29.288625 26201 layer_factory.hpp:77] Creating layer ip1
I0428 19:47:29.288632 26201 net.cpp:86] Creating Layer ip1
I0428 19:47:29.288636 26201 net.cpp:408] ip1 <- pool1
I0428 19:47:29.288640 26201 net.cpp:382] ip1 -> ip1
I0428 19:47:29.289633 26201 net.cpp:124] Setting up ip1
I0428 19:47:29.289644 26201 net.cpp:131] Top shape: 64 50 (3200)
I0428 19:47:29.289647 26201 net.cpp:139] Memory required for data: 1176320
I0428 19:47:29.289655 26201 layer_factory.hpp:77] Creating layer relu1
I0428 19:47:29.289662 26201 net.cpp:86] Creating Layer relu1
I0428 19:47:29.289666 26201 net.cpp:408] relu1 <- ip1
I0428 19:47:29.289686 26201 net.cpp:369] relu1 -> ip1 (in-place)
I0428 19:47:29.289904 26201 net.cpp:124] Setting up relu1
I0428 19:47:29.289913 26201 net.cpp:131] Top shape: 64 50 (3200)
I0428 19:47:29.289916 26201 net.cpp:139] Memory required for data: 1189120
I0428 19:47:29.289919 26201 layer_factory.hpp:77] Creating layer ip2
I0428 19:47:29.289927 26201 net.cpp:86] Creating Layer ip2
I0428 19:47:29.289930 26201 net.cpp:408] ip2 <- ip1
I0428 19:47:29.289935 26201 net.cpp:382] ip2 -> ip2
I0428 19:47:29.290050 26201 net.cpp:124] Setting up ip2
I0428 19:47:29.290057 26201 net.cpp:131] Top shape: 64 10 (640)
I0428 19:47:29.290060 26201 net.cpp:139] Memory required for data: 1191680
I0428 19:47:29.290066 26201 layer_factory.hpp:77] Creating layer relu2
I0428 19:47:29.290071 26201 net.cpp:86] Creating Layer relu2
I0428 19:47:29.290074 26201 net.cpp:408] relu2 <- ip2
I0428 19:47:29.290078 26201 net.cpp:369] relu2 -> ip2 (in-place)
I0428 19:47:29.290892 26201 net.cpp:124] Setting up relu2
I0428 19:47:29.290904 26201 net.cpp:131] Top shape: 64 10 (640)
I0428 19:47:29.290923 26201 net.cpp:139] Memory required for data: 1194240
I0428 19:47:29.290926 26201 layer_factory.hpp:77] Creating layer loss
I0428 19:47:29.290935 26201 net.cpp:86] Creating Layer loss
I0428 19:47:29.290938 26201 net.cpp:408] loss <- ip2
I0428 19:47:29.290942 26201 net.cpp:408] loss <- label
I0428 19:47:29.290948 26201 net.cpp:382] loss -> loss
I0428 19:47:29.290967 26201 layer_factory.hpp:77] Creating layer loss
…
I0428 19:47:29.291585 26201 solver.cpp:173] Creating test net (#0) specified by net file: ECE595/mnist/train_test/var_everything2/lenet_train_test516.prototxt
I0428 19:47:29.291610 26201 net.cpp:296] The NetState phase (1) differed from the phase (0) specified by a rule in layer mnist
I0428 19:47:29.291713 26201 net.cpp:53] Initializing net from parameters: 
name: "LeNet"
state {
  phase: TEST
}
layer {
  name: "mnist"
  type: "Data"
  top: "data"
  top: "label"
  include {
    phase: TEST
  }
  transform_param {
    scale: 0.00390625
  }
  data_param {
    source: "examples/mnist/mnist_test_lmdb"
    batch_size: 100
    backend: LMDB
  }
}
layer {
  name: "conv0"
  type: "Convolution"
  bottom: "data"
  top: "conv0"
  param {
    lr_mult: 1
  }
  param {
    lr_mult: 2
  }
  convolution_param {
    num_output: 5
    kernel_size: 5
    stride: 1
    weight_filler {
      type: "xavier"
    }
    bias_filler {
      type: "constant"
    }
  }
}
layer {
  name: "pool0"
  type: "Pooling"
  bottom: "conv0"
  top: "pool0"
  pooling_param {
    pool: MAX
    kernel_size: 2
    stride: 2
  }
}
layer {
  name: "conv1"
  type: "Convolution"
  bottom: "pool0"
  top: "conv1"
  param {
    lr_mult: 1
  }
  param {
    lr_mult: 2
  }
  convolution_param {
    num_output: 2
    kernel_size: 5
    stride: 1
    weight_filler {
      type: "xavier"
    }
    bias_filler {
      type: "constant"
    }
  }
}
layer {
  name: "pool1"
  type: "Pooling"
  bottom: "conv1"
  top: "pool1"
  pooling_param {
    pool: MAX
    kernel_size: 2
    stride: 2
  }
}
layer {
  name: "ip1"
  type: "InnerProduct"
  bottom: "pool1"
  top: "ip1"
  param {
    lr_mult: 1
  }
  param {
    lr_mult: 2
  }
  inner_product_param {
    num_output: 50
    weight_filler {
      type: "xavier"
    }
    bias_filler {
      type: "constant"
    }
  }
}
layer {
  name: "relu1"
  type: "ReLU"
  bottom: "ip1"
  top: "ip1"
}
layer {
  name: "ip2"
  type: "InnerProduct"
  bottom: "ip1"
  top: "ip2"
  param {
    lr_mult: 1
  }
  param {
    lr_mult: 2
  }
  inner_product_param {
    num_output: 10
    weight_filler {
      type: "xavier"
    }
    bias_filler {
      type: "constant"
    }
  }
}
layer {
  name: "relu2"
  type: "ReLU"
  bottom: "ip2"
  top: "ip2"
}
layer {
  name: "accuracy"
  type: "Accuracy"
  bottom: "ip2"
  bottom: "label"
  top: "accuracy"
  include {
    phase: TEST
  }
}
layer {
  name: "loss"
  type: "SoftmaxWithLoss"
  bottom: "ip2"
  bottom: "label"
  top: "loss"
}
I0428 19:47:29.291797 26201 layer_factory.hpp:77] Creating layer mnist
I0428 19:47:29.291839 26201 db_lmdb.cpp:35] Opened lmdb examples/mnist/mnist_test_lmdb
I0428 19:47:29.291857 26201 net.cpp:86] Creating Layer mnist
I0428 19:47:29.291862 26201 net.cpp:382] mnist -> data
I0428 19:47:29.291869 26201 net.cpp:382] mnist -> label
I0428 19:47:29.291975 26201 data_layer.cpp:45] output data size: 100,1,28,28
I0428 19:47:29.293953 26201 net.cpp:124] Setting up mnist
I0428 19:47:29.293983 26201 net.cpp:131] Top shape: 100 1 28 28 (78400)
I0428 19:47:29.293989 26201 net.cpp:131] Top shape: 100 (100)
I0428 19:47:29.294008 26201 net.cpp:139] Memory required for data: 314000
I0428 19:47:29.294013 26201 layer_factory.hpp:77] Creating layer label_mnist_1_split
I0428 19:47:29.294018 26201 net.cpp:86] Creating Layer label_mnist_1_split
I0428 19:47:29.294023 26201 net.cpp:408] label_mnist_1_split <- label
I0428 19:47:29.294028 26201 net.cpp:382] label_mnist_1_split -> label_mnist_1_split_0
I0428 19:47:29.294034 26201 net.cpp:382] label_mnist_1_split -> label_mnist_1_split_1
I0428 19:47:29.294081 26201 net.cpp:124] Setting up label_mnist_1_split
I0428 19:47:29.294111 26201 net.cpp:131] Top shape: 100 (100)
I0428 19:47:29.294116 26201 net.cpp:131] Top shape: 100 (100)
I0428 19:47:29.294118 26201 net.cpp:139] Memory required for data: 314800
I0428 19:47:29.294121 26201 layer_factory.hpp:77] Creating layer conv0
I0428 19:47:29.294131 26201 net.cpp:86] Creating Layer conv0
I0428 19:47:29.294133 26201 net.cpp:408] conv0 <- data
I0428 19:47:29.294139 26201 net.cpp:382] conv0 -> conv0
I0428 19:47:29.295835 26201 net.cpp:124] Setting up conv0
I0428 19:47:29.295850 26201 net.cpp:131] Top shape: 100 5 24 24 (288000)
I0428 19:47:29.295853 26201 net.cpp:139] Memory required for data: 1466800
I0428 19:47:29.295862 26201 layer_factory.hpp:77] Creating layer pool0
I0428 19:47:29.295869 26201 net.cpp:86] Creating Layer pool0
I0428 19:47:29.295872 26201 net.cpp:408] pool0 <- conv0
I0428 19:47:29.295877 26201 net.cpp:382] pool0 -> pool0
I0428 19:47:29.295913 26201 net.cpp:124] Setting up pool0
I0428 19:47:29.295918 26201 net.cpp:131] Top shape: 100 5 12 12 (72000)
I0428 19:47:29.295922 26201 net.cpp:139] Memory required for data: 1754800
I0428 19:47:29.295924 26201 layer_factory.hpp:77] Creating layer conv1
I0428 19:47:29.295933 26201 net.cpp:86] Creating Layer conv1
I0428 19:47:29.295936 26201 net.cpp:408] conv1 <- pool0
I0428 19:47:29.295943 26201 net.cpp:382] conv1 -> conv1
I0428 19:47:29.298025 26201 net.cpp:124] Setting up conv1
I0428 19:47:29.298038 26201 net.cpp:131] Top shape: 100 2 8 8 (12800)
I0428 19:47:29.298041 26201 net.cpp:139] Memory required for data: 1806000
I0428 19:47:29.298050 26201 layer_factory.hpp:77] Creating layer pool1
I0428 19:47:29.298058 26201 net.cpp:86] Creating Layer pool1
I0428 19:47:29.298063 26201 net.cpp:408] pool1 <- conv1
I0428 19:47:29.298066 26201 net.cpp:382] pool1 -> pool1
I0428 19:47:29.298123 26201 net.cpp:124] Setting up pool1
I0428 19:47:29.298143 26201 net.cpp:131] Top shape: 100 2 4 4 (3200)
I0428 19:47:29.298146 26201 net.cpp:139] Memory required for data: 1818800
I0428 19:47:29.298149 26201 layer_factory.hpp:77] Creating layer ip1
I0428 19:47:29.298156 26201 net.cpp:86] Creating Layer ip1
I0428 19:47:29.298159 26201 net.cpp:408] ip1 <- pool1
I0428 19:47:29.298171 26201 net.cpp:382] ip1 -> ip1
I0428 19:47:29.298280 26201 net.cpp:124] Setting up ip1
I0428 19:47:29.298288 26201 net.cpp:131] Top shape: 100 50 (5000)
I0428 19:47:29.298292 26201 net.cpp:139] Memory required for data: 1838800
I0428 19:47:29.298298 26201 layer_factory.hpp:77] Creating layer relu1
I0428 19:47:29.298305 26201 net.cpp:86] Creating Layer relu1
I0428 19:47:29.298307 26201 net.cpp:408] relu1 <- ip1
I0428 19:47:29.298311 26201 net.cpp:369] relu1 -> ip1 (in-place)
I0428 19:47:29.298527 26201 net.cpp:124] Setting up relu1
I0428 19:47:29.298537 26201 net.cpp:131] Top shape: 100 50 (5000)
I0428 19:47:29.298540 26201 net.cpp:139] Memory required for data: 1858800
I0428 19:47:29.298544 26201 layer_factory.hpp:77] Creating layer ip2
I0428 19:47:29.298552 26201 net.cpp:86] Creating Layer ip2
I0428 19:47:29.298557 26201 net.cpp:408] ip2 <- ip1
I0428 19:47:29.298563 26201 net.cpp:382] ip2 -> ip2
I0428 19:47:29.298701 26201 net.cpp:124] Setting up ip2
I0428 19:47:29.298707 26201 net.cpp:131] Top shape: 100 10 (1000)
I0428 19:47:29.298710 26201 net.cpp:139] Memory required for data: 1862800
I0428 19:47:29.298717 26201 layer_factory.hpp:77] Creating layer relu2
I0428 19:47:29.298722 26201 net.cpp:86] Creating Layer relu2
I0428 19:47:29.298724 26201 net.cpp:408] relu2 <- ip2
I0428 19:47:29.298728 26201 net.cpp:369] relu2 -> ip2 (in-place)
I0428 19:47:29.298912 26201 net.cpp:124] Setting up relu2
I0428 19:47:29.298921 26201 net.cpp:131] Top shape: 100 10 (1000)
I0428 19:47:29.298924 26201 net.cpp:139] Memory required for data: 1866800
I0428 19:47:29.298928 26201 layer_factory.hpp:77] Creating layer ip2_relu2_0_split
I0428 19:47:29.298931 26201 net.cpp:86] Creating Layer ip2_relu2_0_split
I0428 19:47:29.298934 26201 net.cpp:408] ip2_relu2_0_split <- ip2
I0428 19:47:29.298938 26201 net.cpp:382] ip2_relu2_0_split -> ip2_relu2_0_split_0
I0428 19:47:29.298954 26201 net.cpp:382] ip2_relu2_0_split -> ip2_relu2_0_split_1
I0428 19:47:29.298997 26201 net.cpp:124] Setting up ip2_relu2_0_split
I0428 19:47:29.299003 26201 net.cpp:131] Top shape: 100 10 (1000)
I0428 19:47:29.299007 26201 net.cpp:131] Top shape: 100 10 (1000)
I0428 19:47:29.299010 26201 net.cpp:139] Memory required for data: 1874800
I0428 19:47:29.299013 26201 layer_factory.hpp:77] Creating layer accuracy
I0428 19:47:29.299021 26201 net.cpp:86] Creating Layer accuracy
I0428 19:47:29.299024 26201 net.cpp:408] accuracy <- ip2_relu2_0_split_0
I0428 19:47:29.299031 26201 net.cpp:408] accuracy <- label_mnist_1_split_0
I0428 19:47:29.299034 26201 net.cpp:382] accuracy -> accuracy
…
