…
I0428 20:01:48.088420 29806 net.cpp:296] The NetState phase (0) differed from the phase (1) specified by a rule in layer mnist
I0428 20:01:48.088436 29806 net.cpp:296] The NetState phase (0) differed from the phase (1) specified by a rule in layer accuracy
I0428 20:01:48.088515 29806 net.cpp:53] Initializing net from parameters: 
name: "LeNet"
state {
  phase: TRAIN
  level: 0
  stage: ""
}
layer {
  name: "mnist"
  type: "Data"
  top: "data"
  top: "label"
  include {
    phase: TRAIN
  }
  transform_param {
    scale: 0.00390625
  }
  data_param {
    source: "examples/mnist/mnist_train_lmdb"
    batch_size: 64
    backend: LMDB
  }
}
layer {
  name: "conv0"
  type: "Convolution"
  bottom: "data"
  top: "conv0"
  param {
    lr_mult: 1
  }
  param {
    lr_mult: 2
  }
  convolution_param {
    num_output: 10
    kernel_size: 5
    stride: 1
    weight_filler {
      type: "xavier"
    }
    bias_filler {
      type: "constant"
    }
  }
}
layer {
  name: "pool0"
  type: "Pooling"
  bottom: "conv0"
  top: "pool0"
  pooling_param {
    pool: MAX
    kernel_size: 2
    stride: 2
  }
}
layer {
  name: "conv1"
  type: "Convolution"
  bottom: "pool0"
  top: "conv1"
  param {
    lr_mult: 1
  }
  param {
    lr_mult: 2
  }
  convolution_param {
    num_output: 50
    kernel_size: 5
    stride: 1
    weight_filler {
      type: "xavier"
    }
    bias_filler {
      type: "constant"
    }
  }
}
layer {
  name: "pool1"
  type: "Pooling"
  bottom: "conv1"
  top: "pool1"
  pooling_param {
    pool: MAX
    kernel_size: 2
    stride: 2
  }
}
layer {
  name: "ip1"
  type: "InnerProduct"
  bottom: "pool1"
  top: "ip1"
  param {
    lr_mult: 1
  }
  param {
    lr_mult: 2
  }
  inner_product_param {
    num_output: 10
    weight_filler {
      type: "xavier"
    }
    bias_filler {
      type: "constant"
    }
  }
}
layer {
  name: "relu1"
  type: "ReLU"
  bottom: "ip1"
  top: "ip1"
}
layer {
  name: "ip2"
  type: "InnerProduct"
  bottom: "ip1"
  top: "ip2"
  param {
    lr_mult: 1
  }
  param {
    lr_mult: 2
  }
  inner_product_param {
    num_output: 25
    weight_filler {
      type: "xavier"
    }
    bias_filler {
      type: "constant"
    }
  }
}
layer {
  name: "relu2"
  type: "ReLU"
  bottom: "ip2"
  top: "ip2"
}
layer {
  name: "ip3"
  type: "InnerProduct"
  bottom: "ip2"
  top: "ip3"
  param {
    lr_mult: 1
  }
  param {
    lr_mult: 2
  }
  inner_product_param {
    num_output: 10
    weight_filler {
      type: "xavier"
    }
    bias_filler {
      type: "constant"
    }
  }
}
layer {
  name: "relu3"
  type: "ReLU"
  bottom: "ip3"
  top: "ip3"
}
layer {
  name: "loss"
  type: "SoftmaxWithLoss"
  bottom: "ip3"
  bottom: "label"
  top: "loss"
}
I0428 20:01:48.088579 29806 layer_factory.hpp:77] Creating layer mnist
I0428 20:01:48.088659 29806 db_lmdb.cpp:35] Opened lmdb examples/mnist/mnist_train_lmdb
I0428 20:01:48.088677 29806 net.cpp:86] Creating Layer mnist
I0428 20:01:48.088685 29806 net.cpp:382] mnist -> data
I0428 20:01:48.088703 29806 net.cpp:382] mnist -> label
I0428 20:01:48.089757 29806 data_layer.cpp:45] output data size: 64,1,28,28
I0428 20:01:48.092099 29806 net.cpp:124] Setting up mnist
I0428 20:01:48.092146 29806 net.cpp:131] Top shape: 64 1 28 28 (50176)
I0428 20:01:48.092151 29806 net.cpp:131] Top shape: 64 (64)
I0428 20:01:48.092154 29806 net.cpp:139] Memory required for data: 200960
I0428 20:01:48.092160 29806 layer_factory.hpp:77] Creating layer conv0
I0428 20:01:48.092192 29806 net.cpp:86] Creating Layer conv0
I0428 20:01:48.092211 29806 net.cpp:408] conv0 <- data
I0428 20:01:48.092222 29806 net.cpp:382] conv0 -> conv0
I0428 20:01:48.317209 29806 net.cpp:124] Setting up conv0
I0428 20:01:48.317235 29806 net.cpp:131] Top shape: 64 10 24 24 (368640)
I0428 20:01:48.317239 29806 net.cpp:139] Memory required for data: 1675520
I0428 20:01:48.317253 29806 layer_factory.hpp:77] Creating layer pool0
I0428 20:01:48.317265 29806 net.cpp:86] Creating Layer pool0
I0428 20:01:48.317270 29806 net.cpp:408] pool0 <- conv0
I0428 20:01:48.317273 29806 net.cpp:382] pool0 -> pool0
I0428 20:01:48.317332 29806 net.cpp:124] Setting up pool0
I0428 20:01:48.317338 29806 net.cpp:131] Top shape: 64 10 12 12 (92160)
I0428 20:01:48.317342 29806 net.cpp:139] Memory required for data: 2044160
I0428 20:01:48.317344 29806 layer_factory.hpp:77] Creating layer conv1
I0428 20:01:48.317354 29806 net.cpp:86] Creating Layer conv1
I0428 20:01:48.317358 29806 net.cpp:408] conv1 <- pool0
I0428 20:01:48.317363 29806 net.cpp:382] conv1 -> conv1
I0428 20:01:48.320111 29806 net.cpp:124] Setting up conv1
I0428 20:01:48.320140 29806 net.cpp:131] Top shape: 64 50 8 8 (204800)
I0428 20:01:48.320144 29806 net.cpp:139] Memory required for data: 2863360
I0428 20:01:48.320153 29806 layer_factory.hpp:77] Creating layer pool1
I0428 20:01:48.320175 29806 net.cpp:86] Creating Layer pool1
I0428 20:01:48.320179 29806 net.cpp:408] pool1 <- conv1
I0428 20:01:48.320197 29806 net.cpp:382] pool1 -> pool1
I0428 20:01:48.320250 29806 net.cpp:124] Setting up pool1
I0428 20:01:48.320255 29806 net.cpp:131] Top shape: 64 50 4 4 (51200)
I0428 20:01:48.320257 29806 net.cpp:139] Memory required for data: 3068160
I0428 20:01:48.320261 29806 layer_factory.hpp:77] Creating layer ip1
I0428 20:01:48.320267 29806 net.cpp:86] Creating Layer ip1
I0428 20:01:48.320271 29806 net.cpp:408] ip1 <- pool1
I0428 20:01:48.320274 29806 net.cpp:382] ip1 -> ip1
I0428 20:01:48.320410 29806 net.cpp:124] Setting up ip1
I0428 20:01:48.320417 29806 net.cpp:131] Top shape: 64 10 (640)
I0428 20:01:48.320420 29806 net.cpp:139] Memory required for data: 3070720
I0428 20:01:48.320426 29806 layer_factory.hpp:77] Creating layer relu1
I0428 20:01:48.320432 29806 net.cpp:86] Creating Layer relu1
I0428 20:01:48.320436 29806 net.cpp:408] relu1 <- ip1
I0428 20:01:48.320439 29806 net.cpp:369] relu1 -> ip1 (in-place)
I0428 20:01:48.320605 29806 net.cpp:124] Setting up relu1
I0428 20:01:48.320614 29806 net.cpp:131] Top shape: 64 10 (640)
I0428 20:01:48.320617 29806 net.cpp:139] Memory required for data: 3073280
I0428 20:01:48.320621 29806 layer_factory.hpp:77] Creating layer ip2
I0428 20:01:48.320626 29806 net.cpp:86] Creating Layer ip2
I0428 20:01:48.320629 29806 net.cpp:408] ip2 <- ip1
I0428 20:01:48.320634 29806 net.cpp:382] ip2 -> ip2
I0428 20:01:48.320722 29806 net.cpp:124] Setting up ip2
I0428 20:01:48.320729 29806 net.cpp:131] Top shape: 64 25 (1600)
I0428 20:01:48.320731 29806 net.cpp:139] Memory required for data: 3079680
I0428 20:01:48.320736 29806 layer_factory.hpp:77] Creating layer relu2
I0428 20:01:48.320747 29806 net.cpp:86] Creating Layer relu2
I0428 20:01:48.320749 29806 net.cpp:408] relu2 <- ip2
I0428 20:01:48.320754 29806 net.cpp:369] relu2 -> ip2 (in-place)
I0428 20:01:48.321599 29806 net.cpp:124] Setting up relu2
I0428 20:01:48.321611 29806 net.cpp:131] Top shape: 64 25 (1600)
I0428 20:01:48.321615 29806 net.cpp:139] Memory required for data: 3086080
I0428 20:01:48.321619 29806 layer_factory.hpp:77] Creating layer ip3
I0428 20:01:48.321625 29806 net.cpp:86] Creating Layer ip3
I0428 20:01:48.321629 29806 net.cpp:408] ip3 <- ip2
I0428 20:01:48.321635 29806 net.cpp:382] ip3 -> ip3
I0428 20:01:48.321732 29806 net.cpp:124] Setting up ip3
I0428 20:01:48.321740 29806 net.cpp:131] Top shape: 64 10 (640)
I0428 20:01:48.321743 29806 net.cpp:139] Memory required for data: 3088640
I0428 20:01:48.321751 29806 layer_factory.hpp:77] Creating layer relu3
I0428 20:01:48.321756 29806 net.cpp:86] Creating Layer relu3
I0428 20:01:48.321759 29806 net.cpp:408] relu3 <- ip3
I0428 20:01:48.321763 29806 net.cpp:369] relu3 -> ip3 (in-place)
I0428 20:01:48.321921 29806 net.cpp:124] Setting up relu3
I0428 20:01:48.321946 29806 net.cpp:131] Top shape: 64 10 (640)
I0428 20:01:48.321949 29806 net.cpp:139] Memory required for data: 3091200
I0428 20:01:48.321952 29806 layer_factory.hpp:77] Creating layer loss
I0428 20:01:48.321959 29806 net.cpp:86] Creating Layer loss
I0428 20:01:48.321961 29806 net.cpp:408] loss <- ip3
I0428 20:01:48.321965 29806 net.cpp:408] loss <- label
I0428 20:01:48.321970 29806 net.cpp:382] loss -> loss
I0428 20:01:48.321987 29806 layer_factory.hpp:77] Creating layer loss
…
I0428 20:01:48.322648 29806 solver.cpp:173] Creating test net (#0) specified by net file: ECE595/mnist/train_test/var_everything2/lenet_train_test912.prototxt
I0428 20:01:48.322692 29806 net.cpp:296] The NetState phase (1) differed from the phase (0) specified by a rule in layer mnist
I0428 20:01:48.322791 29806 net.cpp:53] Initializing net from parameters: 
name: "LeNet"
state {
  phase: TEST
}
layer {
  name: "mnist"
  type: "Data"
  top: "data"
  top: "label"
  include {
    phase: TEST
  }
  transform_param {
    scale: 0.00390625
  }
  data_param {
    source: "examples/mnist/mnist_test_lmdb"
    batch_size: 100
    backend: LMDB
  }
}
layer {
  name: "conv0"
  type: "Convolution"
  bottom: "data"
  top: "conv0"
  param {
    lr_mult: 1
  }
  param {
    lr_mult: 2
  }
  convolution_param {
    num_output: 10
    kernel_size: 5
    stride: 1
    weight_filler {
      type: "xavier"
    }
    bias_filler {
      type: "constant"
    }
  }
}
layer {
  name: "pool0"
  type: "Pooling"
  bottom: "conv0"
  top: "pool0"
  pooling_param {
    pool: MAX
    kernel_size: 2
    stride: 2
  }
}
layer {
  name: "conv1"
  type: "Convolution"
  bottom: "pool0"
  top: "conv1"
  param {
    lr_mult: 1
  }
  param {
    lr_mult: 2
  }
  convolution_param {
    num_output: 50
    kernel_size: 5
    stride: 1
    weight_filler {
      type: "xavier"
    }
    bias_filler {
      type: "constant"
    }
  }
}
layer {
  name: "pool1"
  type: "Pooling"
  bottom: "conv1"
  top: "pool1"
  pooling_param {
    pool: MAX
    kernel_size: 2
    stride: 2
  }
}
layer {
  name: "ip1"
  type: "InnerProduct"
  bottom: "pool1"
  top: "ip1"
  param {
    lr_mult: 1
  }
  param {
    lr_mult: 2
  }
  inner_product_param {
    num_output: 10
    weight_filler {
      type: "xavier"
    }
    bias_filler {
      type: "constant"
    }
  }
}
layer {
  name: "relu1"
  type: "ReLU"
  bottom: "ip1"
  top: "ip1"
}
layer {
  name: "ip2"
  type: "InnerProduct"
  bottom: "ip1"
  top: "ip2"
  param {
    lr_mult: 1
  }
  param {
    lr_mult: 2
  }
  inner_product_param {
    num_output: 25
    weight_filler {
      type: "xavier"
    }
    bias_filler {
      type: "constant"
    }
  }
}
layer {
  name: "relu2"
  type: "ReLU"
  bottom: "ip2"
  top: "ip2"
}
layer {
  name: "ip3"
  type: "InnerProduct"
  bottom: "ip2"
  top: "ip3"
  param {
    lr_mult: 1
  }
  param {
    lr_mult: 2
  }
  inner_product_param {
    num_output: 10
    weight_filler {
      type: "xavier"
    }
    bias_filler {
      type: "constant"
    }
  }
}
layer {
  name: "relu3"
  type: "ReLU"
  bottom: "ip3"
  top: "ip3"
}
layer {
  name: "accuracy"
  type: "Accuracy"
  bottom: "ip3"
  bottom: "label"
  top: "accuracy"
  include {
    phase: TEST
  }
}
layer {
  name: "loss"
  type: "SoftmaxWithLoss"
  bottom: "ip3"
  bottom: "label"
  top: "loss"
}
I0428 20:01:48.322886 29806 layer_factory.hpp:77] Creating layer mnist
I0428 20:01:48.322947 29806 db_lmdb.cpp:35] Opened lmdb examples/mnist/mnist_test_lmdb
I0428 20:01:48.322958 29806 net.cpp:86] Creating Layer mnist
I0428 20:01:48.322963 29806 net.cpp:382] mnist -> data
I0428 20:01:48.322970 29806 net.cpp:382] mnist -> label
I0428 20:01:48.323051 29806 data_layer.cpp:45] output data size: 100,1,28,28
I0428 20:01:48.325053 29806 net.cpp:124] Setting up mnist
I0428 20:01:48.325099 29806 net.cpp:131] Top shape: 100 1 28 28 (78400)
I0428 20:01:48.325104 29806 net.cpp:131] Top shape: 100 (100)
I0428 20:01:48.325109 29806 net.cpp:139] Memory required for data: 314000
I0428 20:01:48.325112 29806 layer_factory.hpp:77] Creating layer label_mnist_1_split
I0428 20:01:48.325134 29806 net.cpp:86] Creating Layer label_mnist_1_split
I0428 20:01:48.325139 29806 net.cpp:408] label_mnist_1_split <- label
I0428 20:01:48.325145 29806 net.cpp:382] label_mnist_1_split -> label_mnist_1_split_0
I0428 20:01:48.325152 29806 net.cpp:382] label_mnist_1_split -> label_mnist_1_split_1
I0428 20:01:48.325227 29806 net.cpp:124] Setting up label_mnist_1_split
I0428 20:01:48.325233 29806 net.cpp:131] Top shape: 100 (100)
I0428 20:01:48.325237 29806 net.cpp:131] Top shape: 100 (100)
I0428 20:01:48.325240 29806 net.cpp:139] Memory required for data: 314800
I0428 20:01:48.325244 29806 layer_factory.hpp:77] Creating layer conv0
I0428 20:01:48.325253 29806 net.cpp:86] Creating Layer conv0
I0428 20:01:48.325256 29806 net.cpp:408] conv0 <- data
I0428 20:01:48.325261 29806 net.cpp:382] conv0 -> conv0
I0428 20:01:48.326957 29806 net.cpp:124] Setting up conv0
I0428 20:01:48.326987 29806 net.cpp:131] Top shape: 100 10 24 24 (576000)
I0428 20:01:48.326992 29806 net.cpp:139] Memory required for data: 2618800
I0428 20:01:48.327000 29806 layer_factory.hpp:77] Creating layer pool0
I0428 20:01:48.327008 29806 net.cpp:86] Creating Layer pool0
I0428 20:01:48.327010 29806 net.cpp:408] pool0 <- conv0
I0428 20:01:48.327015 29806 net.cpp:382] pool0 -> pool0
I0428 20:01:48.327069 29806 net.cpp:124] Setting up pool0
I0428 20:01:48.327074 29806 net.cpp:131] Top shape: 100 10 12 12 (144000)
I0428 20:01:48.327077 29806 net.cpp:139] Memory required for data: 3194800
I0428 20:01:48.327081 29806 layer_factory.hpp:77] Creating layer conv1
I0428 20:01:48.327090 29806 net.cpp:86] Creating Layer conv1
I0428 20:01:48.327092 29806 net.cpp:408] conv1 <- pool0
I0428 20:01:48.327097 29806 net.cpp:382] conv1 -> conv1
I0428 20:01:48.328732 29806 net.cpp:124] Setting up conv1
I0428 20:01:48.328778 29806 net.cpp:131] Top shape: 100 50 8 8 (320000)
I0428 20:01:48.328781 29806 net.cpp:139] Memory required for data: 4474800
I0428 20:01:48.328789 29806 layer_factory.hpp:77] Creating layer pool1
I0428 20:01:48.328797 29806 net.cpp:86] Creating Layer pool1
I0428 20:01:48.328801 29806 net.cpp:408] pool1 <- conv1
I0428 20:01:48.328807 29806 net.cpp:382] pool1 -> pool1
I0428 20:01:48.328871 29806 net.cpp:124] Setting up pool1
I0428 20:01:48.328877 29806 net.cpp:131] Top shape: 100 50 4 4 (80000)
I0428 20:01:48.328881 29806 net.cpp:139] Memory required for data: 4794800
I0428 20:01:48.328884 29806 layer_factory.hpp:77] Creating layer ip1
I0428 20:01:48.328891 29806 net.cpp:86] Creating Layer ip1
I0428 20:01:48.328908 29806 net.cpp:408] ip1 <- pool1
I0428 20:01:48.328914 29806 net.cpp:382] ip1 -> ip1
I0428 20:01:48.329074 29806 net.cpp:124] Setting up ip1
I0428 20:01:48.329084 29806 net.cpp:131] Top shape: 100 10 (1000)
I0428 20:01:48.329099 29806 net.cpp:139] Memory required for data: 4798800
I0428 20:01:48.329108 29806 layer_factory.hpp:77] Creating layer relu1
I0428 20:01:48.329113 29806 net.cpp:86] Creating Layer relu1
I0428 20:01:48.329118 29806 net.cpp:408] relu1 <- ip1
I0428 20:01:48.329123 29806 net.cpp:369] relu1 -> ip1 (in-place)
I0428 20:01:48.329315 29806 net.cpp:124] Setting up relu1
I0428 20:01:48.329324 29806 net.cpp:131] Top shape: 100 10 (1000)
I0428 20:01:48.329329 29806 net.cpp:139] Memory required for data: 4802800
I0428 20:01:48.329332 29806 layer_factory.hpp:77] Creating layer ip2
I0428 20:01:48.329339 29806 net.cpp:86] Creating Layer ip2
I0428 20:01:48.329349 29806 net.cpp:408] ip2 <- ip1
I0428 20:01:48.329354 29806 net.cpp:382] ip2 -> ip2
I0428 20:01:48.329468 29806 net.cpp:124] Setting up ip2
I0428 20:01:48.329476 29806 net.cpp:131] Top shape: 100 25 (2500)
I0428 20:01:48.329479 29806 net.cpp:139] Memory required for data: 4812800
I0428 20:01:48.329484 29806 layer_factory.hpp:77] Creating layer relu2
I0428 20:01:48.329489 29806 net.cpp:86] Creating Layer relu2
I0428 20:01:48.329493 29806 net.cpp:408] relu2 <- ip2
I0428 20:01:48.329496 29806 net.cpp:369] relu2 -> ip2 (in-place)
I0428 20:01:48.329748 29806 net.cpp:124] Setting up relu2
I0428 20:01:48.329757 29806 net.cpp:131] Top shape: 100 25 (2500)
I0428 20:01:48.329761 29806 net.cpp:139] Memory required for data: 4822800
I0428 20:01:48.329764 29806 layer_factory.hpp:77] Creating layer ip3
I0428 20:01:48.329771 29806 net.cpp:86] Creating Layer ip3
I0428 20:01:48.329773 29806 net.cpp:408] ip3 <- ip2
I0428 20:01:48.329778 29806 net.cpp:382] ip3 -> ip3
I0428 20:01:48.329875 29806 net.cpp:124] Setting up ip3
I0428 20:01:48.329882 29806 net.cpp:131] Top shape: 100 10 (1000)
I0428 20:01:48.329885 29806 net.cpp:139] Memory required for data: 4826800
I0428 20:01:48.329892 29806 layer_factory.hpp:77] Creating layer relu3
I0428 20:01:48.329897 29806 net.cpp:86] Creating Layer relu3
I0428 20:01:48.329900 29806 net.cpp:408] relu3 <- ip3
I0428 20:01:48.329905 29806 net.cpp:369] relu3 -> ip3 (in-place)
I0428 20:01:48.330763 29806 net.cpp:124] Setting up relu3
I0428 20:01:48.330791 29806 net.cpp:131] Top shape: 100 10 (1000)
I0428 20:01:48.330796 29806 net.cpp:139] Memory required for data: 4830800
I0428 20:01:48.330798 29806 layer_factory.hpp:77] Creating layer ip3_relu3_0_split
I0428 20:01:48.330804 29806 net.cpp:86] Creating Layer ip3_relu3_0_split
I0428 20:01:48.330807 29806 net.cpp:408] ip3_relu3_0_split <- ip3
I0428 20:01:48.330813 29806 net.cpp:382] ip3_relu3_0_split -> ip3_relu3_0_split_0
I0428 20:01:48.330819 29806 net.cpp:382] ip3_relu3_0_split -> ip3_relu3_0_split_1
I0428 20:01:48.330900 29806 net.cpp:124] Setting up ip3_relu3_0_split
I0428 20:01:48.330909 29806 net.cpp:131] Top shape: 100 10 (1000)
I0428 20:01:48.330912 29806 net.cpp:131] Top shape: 100 10 (1000)
I0428 20:01:48.330915 29806 net.cpp:139] Memory required for data: 4838800
I0428 20:01:48.330919 29806 layer_factory.hpp:77] Creating layer accuracy
I0428 20:01:48.330924 29806 net.cpp:86] Creating Layer accuracy
I0428 20:01:48.330927 29806 net.cpp:408] accuracy <- ip3_relu3_0_split_0
I0428 20:01:48.330932 29806 net.cpp:408] accuracy <- label_mnist_1_split_0
I0428 20:01:48.330936 29806 net.cpp:382] accuracy -> accuracy
…
