…
I0428 20:10:23.127321 31825 net.cpp:296] The NetState phase (0) differed from the phase (1) specified by a rule in layer mnist
I0428 20:10:23.127333 31825 net.cpp:296] The NetState phase (0) differed from the phase (1) specified by a rule in layer accuracy
I0428 20:10:23.127396 31825 net.cpp:53] Initializing net from parameters: 
name: "LeNet"
state {
  phase: TRAIN
  level: 0
  stage: ""
}
layer {
  name: "mnist"
  type: "Data"
  top: "data"
  top: "label"
  include {
    phase: TRAIN
  }
  transform_param {
    scale: 0.00390625
  }
  data_param {
    source: "examples/mnist/mnist_train_lmdb"
    batch_size: 64
    backend: LMDB
  }
}
layer {
  name: "conv0"
  type: "Convolution"
  bottom: "data"
  top: "conv0"
  param {
    lr_mult: 1
  }
  param {
    lr_mult: 2
  }
  convolution_param {
    num_output: 25
    kernel_size: 5
    stride: 1
    weight_filler {
      type: "xavier"
    }
    bias_filler {
      type: "constant"
    }
  }
}
layer {
  name: "pool0"
  type: "Pooling"
  bottom: "conv0"
  top: "pool0"
  pooling_param {
    pool: MAX
    kernel_size: 2
    stride: 2
  }
}
layer {
  name: "conv1"
  type: "Convolution"
  bottom: "pool0"
  top: "conv1"
  param {
    lr_mult: 1
  }
  param {
    lr_mult: 2
  }
  convolution_param {
    num_output: 50
    kernel_size: 5
    stride: 1
    weight_filler {
      type: "xavier"
    }
    bias_filler {
      type: "constant"
    }
  }
}
layer {
  name: "pool1"
  type: "Pooling"
  bottom: "conv1"
  top: "pool1"
  pooling_param {
    pool: MAX
    kernel_size: 2
    stride: 2
  }
}
layer {
  name: "ip1"
  type: "InnerProduct"
  bottom: "pool1"
  top: "ip1"
  param {
    lr_mult: 1
  }
  param {
    lr_mult: 2
  }
  inner_product_param {
    num_output: 10
    weight_filler {
      type: "xavier"
    }
    bias_filler {
      type: "constant"
    }
  }
}
layer {
  name: "relu1"
  type: "ReLU"
  bottom: "ip1"
  top: "ip1"
}
layer {
  name: "loss"
  type: "SoftmaxWithLoss"
  bottom: "ip1"
  bottom: "label"
  top: "loss"
}
I0428 20:10:23.127454 31825 layer_factory.hpp:77] Creating layer mnist
I0428 20:10:23.127533 31825 db_lmdb.cpp:35] Opened lmdb examples/mnist/mnist_train_lmdb
I0428 20:10:23.127553 31825 net.cpp:86] Creating Layer mnist
I0428 20:10:23.127559 31825 net.cpp:382] mnist -> data
I0428 20:10:23.127578 31825 net.cpp:382] mnist -> label
I0428 20:10:23.128620 31825 data_layer.cpp:45] output data size: 64,1,28,28
I0428 20:10:23.130990 31825 net.cpp:124] Setting up mnist
I0428 20:10:23.131031 31825 net.cpp:131] Top shape: 64 1 28 28 (50176)
I0428 20:10:23.131037 31825 net.cpp:131] Top shape: 64 (64)
I0428 20:10:23.131041 31825 net.cpp:139] Memory required for data: 200960
I0428 20:10:23.131047 31825 layer_factory.hpp:77] Creating layer conv0
I0428 20:10:23.131062 31825 net.cpp:86] Creating Layer conv0
I0428 20:10:23.131068 31825 net.cpp:408] conv0 <- data
I0428 20:10:23.131078 31825 net.cpp:382] conv0 -> conv0
I0428 20:10:23.350270 31825 net.cpp:124] Setting up conv0
I0428 20:10:23.350294 31825 net.cpp:131] Top shape: 64 25 24 24 (921600)
I0428 20:10:23.350298 31825 net.cpp:139] Memory required for data: 3887360
I0428 20:10:23.350312 31825 layer_factory.hpp:77] Creating layer pool0
I0428 20:10:23.350327 31825 net.cpp:86] Creating Layer pool0
I0428 20:10:23.350330 31825 net.cpp:408] pool0 <- conv0
I0428 20:10:23.350335 31825 net.cpp:382] pool0 -> pool0
I0428 20:10:23.350406 31825 net.cpp:124] Setting up pool0
I0428 20:10:23.350414 31825 net.cpp:131] Top shape: 64 25 12 12 (230400)
I0428 20:10:23.350430 31825 net.cpp:139] Memory required for data: 4808960
I0428 20:10:23.350433 31825 layer_factory.hpp:77] Creating layer conv1
I0428 20:10:23.350445 31825 net.cpp:86] Creating Layer conv1
I0428 20:10:23.350448 31825 net.cpp:408] conv1 <- pool0
I0428 20:10:23.350455 31825 net.cpp:382] conv1 -> conv1
I0428 20:10:23.352501 31825 net.cpp:124] Setting up conv1
I0428 20:10:23.352532 31825 net.cpp:131] Top shape: 64 50 8 8 (204800)
I0428 20:10:23.352536 31825 net.cpp:139] Memory required for data: 5628160
I0428 20:10:23.352560 31825 layer_factory.hpp:77] Creating layer pool1
I0428 20:10:23.352582 31825 net.cpp:86] Creating Layer pool1
I0428 20:10:23.352586 31825 net.cpp:408] pool1 <- conv1
I0428 20:10:23.352607 31825 net.cpp:382] pool1 -> pool1
I0428 20:10:23.352645 31825 net.cpp:124] Setting up pool1
I0428 20:10:23.352653 31825 net.cpp:131] Top shape: 64 50 4 4 (51200)
I0428 20:10:23.352655 31825 net.cpp:139] Memory required for data: 5832960
I0428 20:10:23.352658 31825 layer_factory.hpp:77] Creating layer ip1
I0428 20:10:23.352666 31825 net.cpp:86] Creating Layer ip1
I0428 20:10:23.352669 31825 net.cpp:408] ip1 <- pool1
I0428 20:10:23.352674 31825 net.cpp:382] ip1 -> ip1
I0428 20:10:23.353665 31825 net.cpp:124] Setting up ip1
I0428 20:10:23.353678 31825 net.cpp:131] Top shape: 64 10 (640)
I0428 20:10:23.353698 31825 net.cpp:139] Memory required for data: 5835520
I0428 20:10:23.353709 31825 layer_factory.hpp:77] Creating layer relu1
I0428 20:10:23.353716 31825 net.cpp:86] Creating Layer relu1
I0428 20:10:23.353719 31825 net.cpp:408] relu1 <- ip1
I0428 20:10:23.353724 31825 net.cpp:369] relu1 -> ip1 (in-place)
I0428 20:10:23.353901 31825 net.cpp:124] Setting up relu1
I0428 20:10:23.353909 31825 net.cpp:131] Top shape: 64 10 (640)
I0428 20:10:23.353914 31825 net.cpp:139] Memory required for data: 5838080
I0428 20:10:23.353916 31825 layer_factory.hpp:77] Creating layer loss
I0428 20:10:23.353922 31825 net.cpp:86] Creating Layer loss
I0428 20:10:23.353925 31825 net.cpp:408] loss <- ip1
I0428 20:10:23.353929 31825 net.cpp:408] loss <- label
I0428 20:10:23.353935 31825 net.cpp:382] loss -> loss
I0428 20:10:23.353951 31825 layer_factory.hpp:77] Creating layer loss
…
I0428 20:10:23.355226 31825 solver.cpp:173] Creating test net (#0) specified by net file: ECE595/mnist/train_test/var_everything2/lenet_train_test1133.prototxt
I0428 20:10:23.355248 31825 net.cpp:296] The NetState phase (1) differed from the phase (0) specified by a rule in layer mnist
I0428 20:10:23.355334 31825 net.cpp:53] Initializing net from parameters: 
name: "LeNet"
state {
  phase: TEST
}
layer {
  name: "mnist"
  type: "Data"
  top: "data"
  top: "label"
  include {
    phase: TEST
  }
  transform_param {
    scale: 0.00390625
  }
  data_param {
    source: "examples/mnist/mnist_test_lmdb"
    batch_size: 100
    backend: LMDB
  }
}
layer {
  name: "conv0"
  type: "Convolution"
  bottom: "data"
  top: "conv0"
  param {
    lr_mult: 1
  }
  param {
    lr_mult: 2
  }
  convolution_param {
    num_output: 25
    kernel_size: 5
    stride: 1
    weight_filler {
      type: "xavier"
    }
    bias_filler {
      type: "constant"
    }
  }
}
layer {
  name: "pool0"
  type: "Pooling"
  bottom: "conv0"
  top: "pool0"
  pooling_param {
    pool: MAX
    kernel_size: 2
    stride: 2
  }
}
layer {
  name: "conv1"
  type: "Convolution"
  bottom: "pool0"
  top: "conv1"
  param {
    lr_mult: 1
  }
  param {
    lr_mult: 2
  }
  convolution_param {
    num_output: 50
    kernel_size: 5
    stride: 1
    weight_filler {
      type: "xavier"
    }
    bias_filler {
      type: "constant"
    }
  }
}
layer {
  name: "pool1"
  type: "Pooling"
  bottom: "conv1"
  top: "pool1"
  pooling_param {
    pool: MAX
    kernel_size: 2
    stride: 2
  }
}
layer {
  name: "ip1"
  type: "InnerProduct"
  bottom: "pool1"
  top: "ip1"
  param {
    lr_mult: 1
  }
  param {
    lr_mult: 2
  }
  inner_product_param {
    num_output: 10
    weight_filler {
      type: "xavier"
    }
    bias_filler {
      type: "constant"
    }
  }
}
layer {
  name: "relu1"
  type: "ReLU"
  bottom: "ip1"
  top: "ip1"
}
layer {
  name: "accuracy"
  type: "Accuracy"
  bottom: "ip1"
  bottom: "label"
  top: "accuracy"
  include {
    phase: TEST
  }
}
layer {
  name: "loss"
  type: "SoftmaxWithLoss"
  bottom: "ip1"
  bottom: "label"
  top: "loss"
}
I0428 20:10:23.355406 31825 layer_factory.hpp:77] Creating layer mnist
I0428 20:10:23.355479 31825 db_lmdb.cpp:35] Opened lmdb examples/mnist/mnist_test_lmdb
I0428 20:10:23.355489 31825 net.cpp:86] Creating Layer mnist
I0428 20:10:23.355494 31825 net.cpp:382] mnist -> data
I0428 20:10:23.355501 31825 net.cpp:382] mnist -> label
I0428 20:10:23.355589 31825 data_layer.cpp:45] output data size: 100,1,28,28
I0428 20:10:23.357589 31825 net.cpp:124] Setting up mnist
I0428 20:10:23.357620 31825 net.cpp:131] Top shape: 100 1 28 28 (78400)
I0428 20:10:23.357626 31825 net.cpp:131] Top shape: 100 (100)
I0428 20:10:23.357630 31825 net.cpp:139] Memory required for data: 314000
I0428 20:10:23.357632 31825 layer_factory.hpp:77] Creating layer label_mnist_1_split
I0428 20:10:23.357640 31825 net.cpp:86] Creating Layer label_mnist_1_split
I0428 20:10:23.357642 31825 net.cpp:408] label_mnist_1_split <- label
I0428 20:10:23.357662 31825 net.cpp:382] label_mnist_1_split -> label_mnist_1_split_0
I0428 20:10:23.357683 31825 net.cpp:382] label_mnist_1_split -> label_mnist_1_split_1
I0428 20:10:23.357774 31825 net.cpp:124] Setting up label_mnist_1_split
I0428 20:10:23.357781 31825 net.cpp:131] Top shape: 100 (100)
I0428 20:10:23.357785 31825 net.cpp:131] Top shape: 100 (100)
I0428 20:10:23.357789 31825 net.cpp:139] Memory required for data: 314800
I0428 20:10:23.357792 31825 layer_factory.hpp:77] Creating layer conv0
I0428 20:10:23.357801 31825 net.cpp:86] Creating Layer conv0
I0428 20:10:23.357805 31825 net.cpp:408] conv0 <- data
I0428 20:10:23.357812 31825 net.cpp:382] conv0 -> conv0
I0428 20:10:23.358629 31825 net.cpp:124] Setting up conv0
I0428 20:10:23.358659 31825 net.cpp:131] Top shape: 100 25 24 24 (1440000)
I0428 20:10:23.358661 31825 net.cpp:139] Memory required for data: 6074800
I0428 20:10:23.358669 31825 layer_factory.hpp:77] Creating layer pool0
I0428 20:10:23.358675 31825 net.cpp:86] Creating Layer pool0
I0428 20:10:23.358678 31825 net.cpp:408] pool0 <- conv0
I0428 20:10:23.358683 31825 net.cpp:382] pool0 -> pool0
I0428 20:10:23.358718 31825 net.cpp:124] Setting up pool0
I0428 20:10:23.358724 31825 net.cpp:131] Top shape: 100 25 12 12 (360000)
I0428 20:10:23.358727 31825 net.cpp:139] Memory required for data: 7514800
I0428 20:10:23.358729 31825 layer_factory.hpp:77] Creating layer conv1
I0428 20:10:23.358738 31825 net.cpp:86] Creating Layer conv1
I0428 20:10:23.358741 31825 net.cpp:408] conv1 <- pool0
I0428 20:10:23.358747 31825 net.cpp:382] conv1 -> conv1
I0428 20:10:23.360610 31825 net.cpp:124] Setting up conv1
I0428 20:10:23.360640 31825 net.cpp:131] Top shape: 100 50 8 8 (320000)
I0428 20:10:23.360643 31825 net.cpp:139] Memory required for data: 8794800
I0428 20:10:23.360668 31825 layer_factory.hpp:77] Creating layer pool1
I0428 20:10:23.360692 31825 net.cpp:86] Creating Layer pool1
I0428 20:10:23.360726 31825 net.cpp:408] pool1 <- conv1
I0428 20:10:23.360734 31825 net.cpp:382] pool1 -> pool1
I0428 20:10:23.360782 31825 net.cpp:124] Setting up pool1
I0428 20:10:23.360791 31825 net.cpp:131] Top shape: 100 50 4 4 (80000)
I0428 20:10:23.360795 31825 net.cpp:139] Memory required for data: 9114800
I0428 20:10:23.360798 31825 layer_factory.hpp:77] Creating layer ip1
I0428 20:10:23.360805 31825 net.cpp:86] Creating Layer ip1
I0428 20:10:23.360808 31825 net.cpp:408] ip1 <- pool1
I0428 20:10:23.360824 31825 net.cpp:382] ip1 -> ip1
I0428 20:10:23.361023 31825 net.cpp:124] Setting up ip1
I0428 20:10:23.361044 31825 net.cpp:131] Top shape: 100 10 (1000)
I0428 20:10:23.361048 31825 net.cpp:139] Memory required for data: 9118800
I0428 20:10:23.361057 31825 layer_factory.hpp:77] Creating layer relu1
I0428 20:10:23.361063 31825 net.cpp:86] Creating Layer relu1
I0428 20:10:23.361068 31825 net.cpp:408] relu1 <- ip1
I0428 20:10:23.361075 31825 net.cpp:369] relu1 -> ip1 (in-place)
I0428 20:10:23.362048 31825 net.cpp:124] Setting up relu1
I0428 20:10:23.362061 31825 net.cpp:131] Top shape: 100 10 (1000)
I0428 20:10:23.362081 31825 net.cpp:139] Memory required for data: 9122800
I0428 20:10:23.362083 31825 layer_factory.hpp:77] Creating layer ip1_relu1_0_split
I0428 20:10:23.362090 31825 net.cpp:86] Creating Layer ip1_relu1_0_split
I0428 20:10:23.362094 31825 net.cpp:408] ip1_relu1_0_split <- ip1
I0428 20:10:23.362114 31825 net.cpp:382] ip1_relu1_0_split -> ip1_relu1_0_split_0
I0428 20:10:23.362121 31825 net.cpp:382] ip1_relu1_0_split -> ip1_relu1_0_split_1
I0428 20:10:23.362175 31825 net.cpp:124] Setting up ip1_relu1_0_split
I0428 20:10:23.362182 31825 net.cpp:131] Top shape: 100 10 (1000)
I0428 20:10:23.362186 31825 net.cpp:131] Top shape: 100 10 (1000)
I0428 20:10:23.362190 31825 net.cpp:139] Memory required for data: 9130800
I0428 20:10:23.362192 31825 layer_factory.hpp:77] Creating layer accuracy
I0428 20:10:23.362198 31825 net.cpp:86] Creating Layer accuracy
I0428 20:10:23.362201 31825 net.cpp:408] accuracy <- ip1_relu1_0_split_0
I0428 20:10:23.362205 31825 net.cpp:408] accuracy <- label_mnist_1_split_0
I0428 20:10:23.362210 31825 net.cpp:382] accuracy -> accuracy
…
