…
I0428 19:56:06.701859 28350 net.cpp:296] The NetState phase (0) differed from the phase (1) specified by a rule in layer mnist
I0428 19:56:06.701881 28350 net.cpp:296] The NetState phase (0) differed from the phase (1) specified by a rule in layer accuracy
I0428 19:56:06.702018 28350 net.cpp:53] Initializing net from parameters: 
name: "LeNet"
state {
  phase: TRAIN
  level: 0
  stage: ""
}
layer {
  name: "mnist"
  type: "Data"
  top: "data"
  top: "label"
  include {
    phase: TRAIN
  }
  transform_param {
    scale: 0.00390625
  }
  data_param {
    source: "examples/mnist/mnist_train_lmdb"
    batch_size: 64
    backend: LMDB
  }
}
layer {
  name: "conv0"
  type: "Convolution"
  bottom: "data"
  top: "conv0"
  param {
    lr_mult: 1
  }
  param {
    lr_mult: 2
  }
  convolution_param {
    num_output: 10
    kernel_size: 5
    stride: 1
    weight_filler {
      type: "xavier"
    }
    bias_filler {
      type: "constant"
    }
  }
}
layer {
  name: "pool0"
  type: "Pooling"
  bottom: "conv0"
  top: "pool0"
  pooling_param {
    pool: MAX
    kernel_size: 2
    stride: 2
  }
}
layer {
  name: "conv1"
  type: "Convolution"
  bottom: "pool0"
  top: "conv1"
  param {
    lr_mult: 1
  }
  param {
    lr_mult: 2
  }
  convolution_param {
    num_output: 2
    kernel_size: 5
    stride: 1
    weight_filler {
      type: "xavier"
    }
    bias_filler {
      type: "constant"
    }
  }
}
layer {
  name: "pool1"
  type: "Pooling"
  bottom: "conv1"
  top: "pool1"
  pooling_param {
    pool: MAX
    kernel_size: 2
    stride: 2
  }
}
layer {
  name: "ip1"
  type: "InnerProduct"
  bottom: "pool1"
  top: "ip1"
  param {
    lr_mult: 1
  }
  param {
    lr_mult: 2
  }
  inner_product_param {
    num_output: 25
    weight_filler {
      type: "xavier"
    }
    bias_filler {
      type: "constant"
    }
  }
}
layer {
  name: "relu1"
  type: "ReLU"
  bottom: "ip1"
  top: "ip1"
}
layer {
  name: "ip2"
  type: "InnerProduct"
  bottom: "ip1"
  top: "ip2"
  param {
    lr_mult: 1
  }
  param {
    lr_mult: 2
  }
  inner_product_param {
    num_output: 10
    weight_filler {
      type: "xavier"
    }
    bias_filler {
      type: "constant"
    }
  }
}
layer {
  name: "relu2"
  type: "ReLU"
  bottom: "ip2"
  top: "ip2"
}
layer {
  name: "loss"
  type: "SoftmaxWithLoss"
  bottom: "ip2"
  bottom: "label"
  top: "loss"
}
I0428 19:56:06.702111 28350 layer_factory.hpp:77] Creating layer mnist
I0428 19:56:06.702262 28350 db_lmdb.cpp:35] Opened lmdb examples/mnist/mnist_train_lmdb
I0428 19:56:06.702306 28350 net.cpp:86] Creating Layer mnist
I0428 19:56:06.702325 28350 net.cpp:382] mnist -> data
I0428 19:56:06.702352 28350 net.cpp:382] mnist -> label
I0428 19:56:06.703832 28350 data_layer.cpp:45] output data size: 64,1,28,28
I0428 19:56:06.706470 28350 net.cpp:124] Setting up mnist
I0428 19:56:06.706485 28350 net.cpp:131] Top shape: 64 1 28 28 (50176)
I0428 19:56:06.706490 28350 net.cpp:131] Top shape: 64 (64)
I0428 19:56:06.706493 28350 net.cpp:139] Memory required for data: 200960
I0428 19:56:06.706498 28350 layer_factory.hpp:77] Creating layer conv0
I0428 19:56:06.706538 28350 net.cpp:86] Creating Layer conv0
I0428 19:56:06.706547 28350 net.cpp:408] conv0 <- data
I0428 19:56:06.706563 28350 net.cpp:382] conv0 -> conv0
I0428 19:56:06.929648 28350 net.cpp:124] Setting up conv0
I0428 19:56:06.929675 28350 net.cpp:131] Top shape: 64 10 24 24 (368640)
I0428 19:56:06.929679 28350 net.cpp:139] Memory required for data: 1675520
I0428 19:56:06.929711 28350 layer_factory.hpp:77] Creating layer pool0
I0428 19:56:06.929724 28350 net.cpp:86] Creating Layer pool0
I0428 19:56:06.929730 28350 net.cpp:408] pool0 <- conv0
I0428 19:56:06.929738 28350 net.cpp:382] pool0 -> pool0
I0428 19:56:06.929791 28350 net.cpp:124] Setting up pool0
I0428 19:56:06.929816 28350 net.cpp:131] Top shape: 64 10 12 12 (92160)
I0428 19:56:06.929821 28350 net.cpp:139] Memory required for data: 2044160
I0428 19:56:06.929824 28350 layer_factory.hpp:77] Creating layer conv1
I0428 19:56:06.929838 28350 net.cpp:86] Creating Layer conv1
I0428 19:56:06.929843 28350 net.cpp:408] conv1 <- pool0
I0428 19:56:06.929850 28350 net.cpp:382] conv1 -> conv1
I0428 19:56:06.932117 28350 net.cpp:124] Setting up conv1
I0428 19:56:06.932147 28350 net.cpp:131] Top shape: 64 2 8 8 (8192)
I0428 19:56:06.932152 28350 net.cpp:139] Memory required for data: 2076928
I0428 19:56:06.932160 28350 layer_factory.hpp:77] Creating layer pool1
I0428 19:56:06.932168 28350 net.cpp:86] Creating Layer pool1
I0428 19:56:06.932171 28350 net.cpp:408] pool1 <- conv1
I0428 19:56:06.932176 28350 net.cpp:382] pool1 -> pool1
I0428 19:56:06.932224 28350 net.cpp:124] Setting up pool1
I0428 19:56:06.932234 28350 net.cpp:131] Top shape: 64 2 4 4 (2048)
I0428 19:56:06.932240 28350 net.cpp:139] Memory required for data: 2085120
I0428 19:56:06.932245 28350 layer_factory.hpp:77] Creating layer ip1
I0428 19:56:06.932255 28350 net.cpp:86] Creating Layer ip1
I0428 19:56:06.932260 28350 net.cpp:408] ip1 <- pool1
I0428 19:56:06.932267 28350 net.cpp:382] ip1 -> ip1
I0428 19:56:06.932430 28350 net.cpp:124] Setting up ip1
I0428 19:56:06.932442 28350 net.cpp:131] Top shape: 64 25 (1600)
I0428 19:56:06.932446 28350 net.cpp:139] Memory required for data: 2091520
I0428 19:56:06.932457 28350 layer_factory.hpp:77] Creating layer relu1
I0428 19:56:06.932464 28350 net.cpp:86] Creating Layer relu1
I0428 19:56:06.932469 28350 net.cpp:408] relu1 <- ip1
I0428 19:56:06.932476 28350 net.cpp:369] relu1 -> ip1 (in-place)
I0428 19:56:06.932685 28350 net.cpp:124] Setting up relu1
I0428 19:56:06.932698 28350 net.cpp:131] Top shape: 64 25 (1600)
I0428 19:56:06.932703 28350 net.cpp:139] Memory required for data: 2097920
I0428 19:56:06.932708 28350 layer_factory.hpp:77] Creating layer ip2
I0428 19:56:06.932716 28350 net.cpp:86] Creating Layer ip2
I0428 19:56:06.932720 28350 net.cpp:408] ip2 <- ip1
I0428 19:56:06.932729 28350 net.cpp:382] ip2 -> ip2
I0428 19:56:06.932888 28350 net.cpp:124] Setting up ip2
I0428 19:56:06.932899 28350 net.cpp:131] Top shape: 64 10 (640)
I0428 19:56:06.932905 28350 net.cpp:139] Memory required for data: 2100480
I0428 19:56:06.932914 28350 layer_factory.hpp:77] Creating layer relu2
I0428 19:56:06.932924 28350 net.cpp:86] Creating Layer relu2
I0428 19:56:06.932930 28350 net.cpp:408] relu2 <- ip2
I0428 19:56:06.932937 28350 net.cpp:369] relu2 -> ip2 (in-place)
I0428 19:56:06.934090 28350 net.cpp:124] Setting up relu2
I0428 19:56:06.934121 28350 net.cpp:131] Top shape: 64 10 (640)
I0428 19:56:06.934126 28350 net.cpp:139] Memory required for data: 2103040
I0428 19:56:06.934132 28350 layer_factory.hpp:77] Creating layer loss
I0428 19:56:06.934146 28350 net.cpp:86] Creating Layer loss
I0428 19:56:06.934152 28350 net.cpp:408] loss <- ip2
I0428 19:56:06.934159 28350 net.cpp:408] loss <- label
I0428 19:56:06.934166 28350 net.cpp:382] loss -> loss
I0428 19:56:06.934185 28350 layer_factory.hpp:77] Creating layer loss
…
I0428 19:56:06.935199 28350 solver.cpp:173] Creating test net (#0) specified by net file: ECE595/mnist/train_test/var_everything2/lenet_train_test749.prototxt
I0428 19:56:06.935250 28350 net.cpp:296] The NetState phase (1) differed from the phase (0) specified by a rule in layer mnist
I0428 19:56:06.935406 28350 net.cpp:53] Initializing net from parameters: 
name: "LeNet"
state {
  phase: TEST
}
layer {
  name: "mnist"
  type: "Data"
  top: "data"
  top: "label"
  include {
    phase: TEST
  }
  transform_param {
    scale: 0.00390625
  }
  data_param {
    source: "examples/mnist/mnist_test_lmdb"
    batch_size: 100
    backend: LMDB
  }
}
layer {
  name: "conv0"
  type: "Convolution"
  bottom: "data"
  top: "conv0"
  param {
    lr_mult: 1
  }
  param {
    lr_mult: 2
  }
  convolution_param {
    num_output: 10
    kernel_size: 5
    stride: 1
    weight_filler {
      type: "xavier"
    }
    bias_filler {
      type: "constant"
    }
  }
}
layer {
  name: "pool0"
  type: "Pooling"
  bottom: "conv0"
  top: "pool0"
  pooling_param {
    pool: MAX
    kernel_size: 2
    stride: 2
  }
}
layer {
  name: "conv1"
  type: "Convolution"
  bottom: "pool0"
  top: "conv1"
  param {
    lr_mult: 1
  }
  param {
    lr_mult: 2
  }
  convolution_param {
    num_output: 2
    kernel_size: 5
    stride: 1
    weight_filler {
      type: "xavier"
    }
    bias_filler {
      type: "constant"
    }
  }
}
layer {
  name: "pool1"
  type: "Pooling"
  bottom: "conv1"
  top: "pool1"
  pooling_param {
    pool: MAX
    kernel_size: 2
    stride: 2
  }
}
layer {
  name: "ip1"
  type: "InnerProduct"
  bottom: "pool1"
  top: "ip1"
  param {
    lr_mult: 1
  }
  param {
    lr_mult: 2
  }
  inner_product_param {
    num_output: 25
    weight_filler {
      type: "xavier"
    }
    bias_filler {
      type: "constant"
    }
  }
}
layer {
  name: "relu1"
  type: "ReLU"
  bottom: "ip1"
  top: "ip1"
}
layer {
  name: "ip2"
  type: "InnerProduct"
  bottom: "ip1"
  top: "ip2"
  param {
    lr_mult: 1
  }
  param {
    lr_mult: 2
  }
  inner_product_param {
    num_output: 10
    weight_filler {
      type: "xavier"
    }
    bias_filler {
      type: "constant"
    }
  }
}
layer {
  name: "relu2"
  type: "ReLU"
  bottom: "ip2"
  top: "ip2"
}
layer {
  name: "accuracy"
  type: "Accuracy"
  bottom: "ip2"
  bottom: "label"
  top: "accuracy"
  include {
    phase: TEST
  }
}
layer {
  name: "loss"
  type: "SoftmaxWithLoss"
  bottom: "ip2"
  bottom: "label"
  top: "loss"
}
I0428 19:56:06.935539 28350 layer_factory.hpp:77] Creating layer mnist
I0428 19:56:06.935600 28350 db_lmdb.cpp:35] Opened lmdb examples/mnist/mnist_test_lmdb
I0428 19:56:06.935621 28350 net.cpp:86] Creating Layer mnist
I0428 19:56:06.935627 28350 net.cpp:382] mnist -> data
I0428 19:56:06.935639 28350 net.cpp:382] mnist -> label
I0428 19:56:06.935796 28350 data_layer.cpp:45] output data size: 100,1,28,28
I0428 19:56:06.938416 28350 net.cpp:124] Setting up mnist
I0428 19:56:06.938444 28350 net.cpp:131] Top shape: 100 1 28 28 (78400)
I0428 19:56:06.938448 28350 net.cpp:131] Top shape: 100 (100)
I0428 19:56:06.938453 28350 net.cpp:139] Memory required for data: 314000
I0428 19:56:06.938457 28350 layer_factory.hpp:77] Creating layer label_mnist_1_split
I0428 19:56:06.938463 28350 net.cpp:86] Creating Layer label_mnist_1_split
I0428 19:56:06.938467 28350 net.cpp:408] label_mnist_1_split <- label
I0428 19:56:06.938470 28350 net.cpp:382] label_mnist_1_split -> label_mnist_1_split_0
I0428 19:56:06.938479 28350 net.cpp:382] label_mnist_1_split -> label_mnist_1_split_1
I0428 19:56:06.938542 28350 net.cpp:124] Setting up label_mnist_1_split
I0428 19:56:06.938565 28350 net.cpp:131] Top shape: 100 (100)
I0428 19:56:06.938571 28350 net.cpp:131] Top shape: 100 (100)
I0428 19:56:06.938575 28350 net.cpp:139] Memory required for data: 314800
I0428 19:56:06.938581 28350 layer_factory.hpp:77] Creating layer conv0
I0428 19:56:06.938593 28350 net.cpp:86] Creating Layer conv0
I0428 19:56:06.938598 28350 net.cpp:408] conv0 <- data
I0428 19:56:06.938606 28350 net.cpp:382] conv0 -> conv0
I0428 19:56:06.940498 28350 net.cpp:124] Setting up conv0
I0428 19:56:06.940512 28350 net.cpp:131] Top shape: 100 10 24 24 (576000)
I0428 19:56:06.940515 28350 net.cpp:139] Memory required for data: 2618800
I0428 19:56:06.940524 28350 layer_factory.hpp:77] Creating layer pool0
I0428 19:56:06.940532 28350 net.cpp:86] Creating Layer pool0
I0428 19:56:06.940537 28350 net.cpp:408] pool0 <- conv0
I0428 19:56:06.940544 28350 net.cpp:382] pool0 -> pool0
I0428 19:56:06.940592 28350 net.cpp:124] Setting up pool0
I0428 19:56:06.940600 28350 net.cpp:131] Top shape: 100 10 12 12 (144000)
I0428 19:56:06.940605 28350 net.cpp:139] Memory required for data: 3194800
I0428 19:56:06.940610 28350 layer_factory.hpp:77] Creating layer conv1
I0428 19:56:06.940623 28350 net.cpp:86] Creating Layer conv1
I0428 19:56:06.940627 28350 net.cpp:408] conv1 <- pool0
I0428 19:56:06.940635 28350 net.cpp:382] conv1 -> conv1
I0428 19:56:06.943174 28350 net.cpp:124] Setting up conv1
I0428 19:56:06.943189 28350 net.cpp:131] Top shape: 100 2 8 8 (12800)
I0428 19:56:06.943193 28350 net.cpp:139] Memory required for data: 3246000
I0428 19:56:06.943202 28350 layer_factory.hpp:77] Creating layer pool1
I0428 19:56:06.943209 28350 net.cpp:86] Creating Layer pool1
I0428 19:56:06.943215 28350 net.cpp:408] pool1 <- conv1
I0428 19:56:06.943222 28350 net.cpp:382] pool1 -> pool1
I0428 19:56:06.943274 28350 net.cpp:124] Setting up pool1
I0428 19:56:06.943284 28350 net.cpp:131] Top shape: 100 2 4 4 (3200)
I0428 19:56:06.943289 28350 net.cpp:139] Memory required for data: 3258800
I0428 19:56:06.943295 28350 layer_factory.hpp:77] Creating layer ip1
I0428 19:56:06.943302 28350 net.cpp:86] Creating Layer ip1
I0428 19:56:06.943308 28350 net.cpp:408] ip1 <- pool1
I0428 19:56:06.943315 28350 net.cpp:382] ip1 -> ip1
I0428 19:56:06.943482 28350 net.cpp:124] Setting up ip1
I0428 19:56:06.943492 28350 net.cpp:131] Top shape: 100 25 (2500)
I0428 19:56:06.943496 28350 net.cpp:139] Memory required for data: 3268800
I0428 19:56:06.943506 28350 layer_factory.hpp:77] Creating layer relu1
I0428 19:56:06.943512 28350 net.cpp:86] Creating Layer relu1
I0428 19:56:06.943517 28350 net.cpp:408] relu1 <- ip1
I0428 19:56:06.943523 28350 net.cpp:369] relu1 -> ip1 (in-place)
I0428 19:56:06.943810 28350 net.cpp:124] Setting up relu1
I0428 19:56:06.943823 28350 net.cpp:131] Top shape: 100 25 (2500)
I0428 19:56:06.943828 28350 net.cpp:139] Memory required for data: 3278800
I0428 19:56:06.943850 28350 layer_factory.hpp:77] Creating layer ip2
I0428 19:56:06.943859 28350 net.cpp:86] Creating Layer ip2
I0428 19:56:06.943864 28350 net.cpp:408] ip2 <- ip1
I0428 19:56:06.943872 28350 net.cpp:382] ip2 -> ip2
I0428 19:56:06.944033 28350 net.cpp:124] Setting up ip2
I0428 19:56:06.944046 28350 net.cpp:131] Top shape: 100 10 (1000)
I0428 19:56:06.944058 28350 net.cpp:139] Memory required for data: 3282800
I0428 19:56:06.944067 28350 layer_factory.hpp:77] Creating layer relu2
I0428 19:56:06.944075 28350 net.cpp:86] Creating Layer relu2
I0428 19:56:06.944082 28350 net.cpp:408] relu2 <- ip2
I0428 19:56:06.944088 28350 net.cpp:369] relu2 -> ip2 (in-place)
I0428 19:56:06.944406 28350 net.cpp:124] Setting up relu2
I0428 19:56:06.944420 28350 net.cpp:131] Top shape: 100 10 (1000)
I0428 19:56:06.944427 28350 net.cpp:139] Memory required for data: 3286800
I0428 19:56:06.944432 28350 layer_factory.hpp:77] Creating layer ip2_relu2_0_split
I0428 19:56:06.944453 28350 net.cpp:86] Creating Layer ip2_relu2_0_split
I0428 19:56:06.944458 28350 net.cpp:408] ip2_relu2_0_split <- ip2
I0428 19:56:06.944466 28350 net.cpp:382] ip2_relu2_0_split -> ip2_relu2_0_split_0
I0428 19:56:06.944489 28350 net.cpp:382] ip2_relu2_0_split -> ip2_relu2_0_split_1
I0428 19:56:06.944581 28350 net.cpp:124] Setting up ip2_relu2_0_split
I0428 19:56:06.944607 28350 net.cpp:131] Top shape: 100 10 (1000)
I0428 19:56:06.944613 28350 net.cpp:131] Top shape: 100 10 (1000)
I0428 19:56:06.944618 28350 net.cpp:139] Memory required for data: 3294800
I0428 19:56:06.944623 28350 layer_factory.hpp:77] Creating layer accuracy
I0428 19:56:06.944630 28350 net.cpp:86] Creating Layer accuracy
I0428 19:56:06.944635 28350 net.cpp:408] accuracy <- ip2_relu2_0_split_0
I0428 19:56:06.944643 28350 net.cpp:408] accuracy <- label_mnist_1_split_0
I0428 19:56:06.944648 28350 net.cpp:382] accuracy -> accuracy
…
