…
I0428 20:24:18.329067  2387 net.cpp:296] The NetState phase (0) differed from the phase (1) specified by a rule in layer mnist
I0428 20:24:18.329098  2387 net.cpp:296] The NetState phase (0) differed from the phase (1) specified by a rule in layer accuracy
I0428 20:24:18.329198  2387 net.cpp:53] Initializing net from parameters: 
name: "LeNet"
state {
  phase: TRAIN
  level: 0
  stage: ""
}
layer {
  name: "mnist"
  type: "Data"
  top: "data"
  top: "label"
  include {
    phase: TRAIN
  }
  transform_param {
    scale: 0.00390625
  }
  data_param {
    source: "examples/mnist/mnist_train_lmdb"
    batch_size: 64
    backend: LMDB
  }
}
layer {
  name: "conv0"
  type: "Convolution"
  bottom: "data"
  top: "conv0"
  param {
    lr_mult: 1
  }
  param {
    lr_mult: 2
  }
  convolution_param {
    num_output: 50
    kernel_size: 5
    stride: 1
    weight_filler {
      type: "xavier"
    }
    bias_filler {
      type: "constant"
    }
  }
}
layer {
  name: "pool0"
  type: "Pooling"
  bottom: "conv0"
  top: "pool0"
  pooling_param {
    pool: MAX
    kernel_size: 2
    stride: 2
  }
}
layer {
  name: "conv1"
  type: "Convolution"
  bottom: "pool0"
  top: "conv1"
  param {
    lr_mult: 1
  }
  param {
    lr_mult: 2
  }
  convolution_param {
    num_output: 100
    kernel_size: 5
    stride: 1
    weight_filler {
      type: "xavier"
    }
    bias_filler {
      type: "constant"
    }
  }
}
layer {
  name: "pool1"
  type: "Pooling"
  bottom: "conv1"
  top: "pool1"
  pooling_param {
    pool: MAX
    kernel_size: 2
    stride: 2
  }
}
layer {
  name: "ip1"
  type: "InnerProduct"
  bottom: "pool1"
  top: "ip1"
  param {
    lr_mult: 1
  }
  param {
    lr_mult: 2
  }
  inner_product_param {
    num_output: 50
    weight_filler {
      type: "xavier"
    }
    bias_filler {
      type: "constant"
    }
  }
}
layer {
  name: "relu1"
  type: "ReLU"
  bottom: "ip1"
  top: "ip1"
}
layer {
  name: "ip2"
  type: "InnerProduct"
  bottom: "ip1"
  top: "ip2"
  param {
    lr_mult: 1
  }
  param {
    lr_mult: 2
  }
  inner_product_param {
    num_output: 10
    weight_filler {
      type: "xavier"
    }
    bias_filler {
      type: "constant"
    }
  }
}
layer {
  name: "relu2"
  type: "ReLU"
  bottom: "ip2"
  top: "ip2"
}
layer {
  name: "ip3"
  type: "InnerProduct"
  bottom: "ip2"
  top: "ip3"
  param {
    lr_mult: 1
  }
  param {
    lr_mult: 2
  }
  inner_product_param {
    num_output: 10
    weight_filler {
      type: "xavier"
    }
    bias_filler {
      type: "constant"
    }
  }
}
layer {
  name: "relu3"
  type: "ReLU"
  bottom: "ip3"
  top: "ip3"
}
layer {
  name: "loss"
  type: "SoftmaxWithLoss"
  bottom: "ip3"
  bottom: "label"
  top: "loss"
}
I0428 20:24:18.329262  2387 layer_factory.hpp:77] Creating layer mnist
I0428 20:24:18.329342  2387 db_lmdb.cpp:35] Opened lmdb examples/mnist/mnist_train_lmdb
I0428 20:24:18.329361  2387 net.cpp:86] Creating Layer mnist
I0428 20:24:18.329370  2387 net.cpp:382] mnist -> data
I0428 20:24:18.329386  2387 net.cpp:382] mnist -> label
I0428 20:24:18.330374  2387 data_layer.cpp:45] output data size: 64,1,28,28
I0428 20:24:18.332703  2387 net.cpp:124] Setting up mnist
I0428 20:24:18.332736  2387 net.cpp:131] Top shape: 64 1 28 28 (50176)
I0428 20:24:18.332741  2387 net.cpp:131] Top shape: 64 (64)
I0428 20:24:18.332743  2387 net.cpp:139] Memory required for data: 200960
I0428 20:24:18.332748  2387 layer_factory.hpp:77] Creating layer conv0
I0428 20:24:18.332762  2387 net.cpp:86] Creating Layer conv0
I0428 20:24:18.332779  2387 net.cpp:408] conv0 <- data
I0428 20:24:18.332788  2387 net.cpp:382] conv0 -> conv0
I0428 20:24:18.566195  2387 net.cpp:124] Setting up conv0
I0428 20:24:18.566223  2387 net.cpp:131] Top shape: 64 50 24 24 (1843200)
I0428 20:24:18.566227  2387 net.cpp:139] Memory required for data: 7573760
I0428 20:24:18.566241  2387 layer_factory.hpp:77] Creating layer pool0
I0428 20:24:18.566253  2387 net.cpp:86] Creating Layer pool0
I0428 20:24:18.566257  2387 net.cpp:408] pool0 <- conv0
I0428 20:24:18.566262  2387 net.cpp:382] pool0 -> pool0
I0428 20:24:18.566323  2387 net.cpp:124] Setting up pool0
I0428 20:24:18.566329  2387 net.cpp:131] Top shape: 64 50 12 12 (460800)
I0428 20:24:18.566330  2387 net.cpp:139] Memory required for data: 9416960
I0428 20:24:18.566334  2387 layer_factory.hpp:77] Creating layer conv1
I0428 20:24:18.566344  2387 net.cpp:86] Creating Layer conv1
I0428 20:24:18.566346  2387 net.cpp:408] conv1 <- pool0
I0428 20:24:18.566350  2387 net.cpp:382] conv1 -> conv1
I0428 20:24:18.569809  2387 net.cpp:124] Setting up conv1
I0428 20:24:18.569839  2387 net.cpp:131] Top shape: 64 100 8 8 (409600)
I0428 20:24:18.569842  2387 net.cpp:139] Memory required for data: 11055360
I0428 20:24:18.569851  2387 layer_factory.hpp:77] Creating layer pool1
I0428 20:24:18.569860  2387 net.cpp:86] Creating Layer pool1
I0428 20:24:18.569864  2387 net.cpp:408] pool1 <- conv1
I0428 20:24:18.569869  2387 net.cpp:382] pool1 -> pool1
I0428 20:24:18.569903  2387 net.cpp:124] Setting up pool1
I0428 20:24:18.569908  2387 net.cpp:131] Top shape: 64 100 4 4 (102400)
I0428 20:24:18.569911  2387 net.cpp:139] Memory required for data: 11464960
I0428 20:24:18.569914  2387 layer_factory.hpp:77] Creating layer ip1
I0428 20:24:18.569921  2387 net.cpp:86] Creating Layer ip1
I0428 20:24:18.569924  2387 net.cpp:408] ip1 <- pool1
I0428 20:24:18.569928  2387 net.cpp:382] ip1 -> ip1
I0428 20:24:18.570477  2387 net.cpp:124] Setting up ip1
I0428 20:24:18.570484  2387 net.cpp:131] Top shape: 64 50 (3200)
I0428 20:24:18.570503  2387 net.cpp:139] Memory required for data: 11477760
I0428 20:24:18.570510  2387 layer_factory.hpp:77] Creating layer relu1
I0428 20:24:18.570518  2387 net.cpp:86] Creating Layer relu1
I0428 20:24:18.570520  2387 net.cpp:408] relu1 <- ip1
I0428 20:24:18.570524  2387 net.cpp:369] relu1 -> ip1 (in-place)
I0428 20:24:18.570731  2387 net.cpp:124] Setting up relu1
I0428 20:24:18.570741  2387 net.cpp:131] Top shape: 64 50 (3200)
I0428 20:24:18.570744  2387 net.cpp:139] Memory required for data: 11490560
I0428 20:24:18.570762  2387 layer_factory.hpp:77] Creating layer ip2
I0428 20:24:18.570768  2387 net.cpp:86] Creating Layer ip2
I0428 20:24:18.570771  2387 net.cpp:408] ip2 <- ip1
I0428 20:24:18.570776  2387 net.cpp:382] ip2 -> ip2
I0428 20:24:18.570878  2387 net.cpp:124] Setting up ip2
I0428 20:24:18.570885  2387 net.cpp:131] Top shape: 64 10 (640)
I0428 20:24:18.570888  2387 net.cpp:139] Memory required for data: 11493120
I0428 20:24:18.570894  2387 layer_factory.hpp:77] Creating layer relu2
I0428 20:24:18.570900  2387 net.cpp:86] Creating Layer relu2
I0428 20:24:18.570904  2387 net.cpp:408] relu2 <- ip2
I0428 20:24:18.570909  2387 net.cpp:369] relu2 -> ip2 (in-place)
I0428 20:24:18.571638  2387 net.cpp:124] Setting up relu2
I0428 20:24:18.571650  2387 net.cpp:131] Top shape: 64 10 (640)
I0428 20:24:18.571668  2387 net.cpp:139] Memory required for data: 11495680
I0428 20:24:18.571672  2387 layer_factory.hpp:77] Creating layer ip3
I0428 20:24:18.571678  2387 net.cpp:86] Creating Layer ip3
I0428 20:24:18.571681  2387 net.cpp:408] ip3 <- ip2
I0428 20:24:18.571687  2387 net.cpp:382] ip3 -> ip3
I0428 20:24:18.571792  2387 net.cpp:124] Setting up ip3
I0428 20:24:18.571801  2387 net.cpp:131] Top shape: 64 10 (640)
I0428 20:24:18.571810  2387 net.cpp:139] Memory required for data: 11498240
I0428 20:24:18.571818  2387 layer_factory.hpp:77] Creating layer relu3
I0428 20:24:18.571825  2387 net.cpp:86] Creating Layer relu3
I0428 20:24:18.571827  2387 net.cpp:408] relu3 <- ip3
I0428 20:24:18.571830  2387 net.cpp:369] relu3 -> ip3 (in-place)
I0428 20:24:18.572024  2387 net.cpp:124] Setting up relu3
I0428 20:24:18.572033  2387 net.cpp:131] Top shape: 64 10 (640)
I0428 20:24:18.572036  2387 net.cpp:139] Memory required for data: 11500800
I0428 20:24:18.572039  2387 layer_factory.hpp:77] Creating layer loss
I0428 20:24:18.572046  2387 net.cpp:86] Creating Layer loss
I0428 20:24:18.572049  2387 net.cpp:408] loss <- ip3
I0428 20:24:18.572053  2387 net.cpp:408] loss <- label
I0428 20:24:18.572058  2387 net.cpp:382] loss -> loss
I0428 20:24:18.572075  2387 layer_factory.hpp:77] Creating layer loss
…
I0428 20:24:18.572744  2387 solver.cpp:173] Creating test net (#0) specified by net file: ECE595/mnist/train_test/var_everything2/lenet_train_test1435.prototxt
I0428 20:24:18.572783  2387 net.cpp:296] The NetState phase (1) differed from the phase (0) specified by a rule in layer mnist
I0428 20:24:18.572912  2387 net.cpp:53] Initializing net from parameters: 
name: "LeNet"
state {
  phase: TEST
}
layer {
  name: "mnist"
  type: "Data"
  top: "data"
  top: "label"
  include {
    phase: TEST
  }
  transform_param {
    scale: 0.00390625
  }
  data_param {
    source: "examples/mnist/mnist_test_lmdb"
    batch_size: 100
    backend: LMDB
  }
}
layer {
  name: "conv0"
  type: "Convolution"
  bottom: "data"
  top: "conv0"
  param {
    lr_mult: 1
  }
  param {
    lr_mult: 2
  }
  convolution_param {
    num_output: 50
    kernel_size: 5
    stride: 1
    weight_filler {
      type: "xavier"
    }
    bias_filler {
      type: "constant"
    }
  }
}
layer {
  name: "pool0"
  type: "Pooling"
  bottom: "conv0"
  top: "pool0"
  pooling_param {
    pool: MAX
    kernel_size: 2
    stride: 2
  }
}
layer {
  name: "conv1"
  type: "Convolution"
  bottom: "pool0"
  top: "conv1"
  param {
    lr_mult: 1
  }
  param {
    lr_mult: 2
  }
  convolution_param {
    num_output: 100
    kernel_size: 5
    stride: 1
    weight_filler {
      type: "xavier"
    }
    bias_filler {
      type: "constant"
    }
  }
}
layer {
  name: "pool1"
  type: "Pooling"
  bottom: "conv1"
  top: "pool1"
  pooling_param {
    pool: MAX
    kernel_size: 2
    stride: 2
  }
}
layer {
  name: "ip1"
  type: "InnerProduct"
  bottom: "pool1"
  top: "ip1"
  param {
    lr_mult: 1
  }
  param {
    lr_mult: 2
  }
  inner_product_param {
    num_output: 50
    weight_filler {
      type: "xavier"
    }
    bias_filler {
      type: "constant"
    }
  }
}
layer {
  name: "relu1"
  type: "ReLU"
  bottom: "ip1"
  top: "ip1"
}
layer {
  name: "ip2"
  type: "InnerProduct"
  bottom: "ip1"
  top: "ip2"
  param {
    lr_mult: 1
  }
  param {
    lr_mult: 2
  }
  inner_product_param {
    num_output: 10
    weight_filler {
      type: "xavier"
    }
    bias_filler {
      type: "constant"
    }
  }
}
layer {
  name: "relu2"
  type: "ReLU"
  bottom: "ip2"
  top: "ip2"
}
layer {
  name: "ip3"
  type: "InnerProduct"
  bottom: "ip2"
  top: "ip3"
  param {
    lr_mult: 1
  }
  param {
    lr_mult: 2
  }
  inner_product_param {
    num_output: 10
    weight_filler {
      type: "xavier"
    }
    bias_filler {
      type: "constant"
    }
  }
}
layer {
  name: "relu3"
  type: "ReLU"
  bottom: "ip3"
  top: "ip3"
}
layer {
  name: "accuracy"
  type: "Accuracy"
  bottom: "ip3"
  bottom: "label"
  top: "accuracy"
  include {
    phase: TEST
  }
}
layer {
  name: "loss"
  type: "SoftmaxWithLoss"
  bottom: "ip3"
  bottom: "label"
  top: "loss"
}
I0428 20:24:18.572999  2387 layer_factory.hpp:77] Creating layer mnist
I0428 20:24:18.573047  2387 db_lmdb.cpp:35] Opened lmdb examples/mnist/mnist_test_lmdb
I0428 20:24:18.573060  2387 net.cpp:86] Creating Layer mnist
I0428 20:24:18.573066  2387 net.cpp:382] mnist -> data
I0428 20:24:18.573074  2387 net.cpp:382] mnist -> label
I0428 20:24:18.573213  2387 data_layer.cpp:45] output data size: 100,1,28,28
I0428 20:24:18.574276  2387 net.cpp:124] Setting up mnist
I0428 20:24:18.574306  2387 net.cpp:131] Top shape: 100 1 28 28 (78400)
I0428 20:24:18.574311  2387 net.cpp:131] Top shape: 100 (100)
I0428 20:24:18.574313  2387 net.cpp:139] Memory required for data: 314000
I0428 20:24:18.574316  2387 layer_factory.hpp:77] Creating layer label_mnist_1_split
I0428 20:24:18.574352  2387 net.cpp:86] Creating Layer label_mnist_1_split
I0428 20:24:18.574357  2387 net.cpp:408] label_mnist_1_split <- label
I0428 20:24:18.574362  2387 net.cpp:382] label_mnist_1_split -> label_mnist_1_split_0
I0428 20:24:18.574368  2387 net.cpp:382] label_mnist_1_split -> label_mnist_1_split_1
I0428 20:24:18.574411  2387 net.cpp:124] Setting up label_mnist_1_split
I0428 20:24:18.574416  2387 net.cpp:131] Top shape: 100 (100)
I0428 20:24:18.574420  2387 net.cpp:131] Top shape: 100 (100)
I0428 20:24:18.574424  2387 net.cpp:139] Memory required for data: 314800
I0428 20:24:18.574425  2387 layer_factory.hpp:77] Creating layer conv0
I0428 20:24:18.574434  2387 net.cpp:86] Creating Layer conv0
I0428 20:24:18.574437  2387 net.cpp:408] conv0 <- data
I0428 20:24:18.574443  2387 net.cpp:382] conv0 -> conv0
I0428 20:24:18.576154  2387 net.cpp:124] Setting up conv0
I0428 20:24:18.576167  2387 net.cpp:131] Top shape: 100 50 24 24 (2880000)
I0428 20:24:18.576171  2387 net.cpp:139] Memory required for data: 11834800
I0428 20:24:18.576179  2387 layer_factory.hpp:77] Creating layer pool0
I0428 20:24:18.576186  2387 net.cpp:86] Creating Layer pool0
I0428 20:24:18.576189  2387 net.cpp:408] pool0 <- conv0
I0428 20:24:18.576195  2387 net.cpp:382] pool0 -> pool0
I0428 20:24:18.576230  2387 net.cpp:124] Setting up pool0
I0428 20:24:18.576234  2387 net.cpp:131] Top shape: 100 50 12 12 (720000)
I0428 20:24:18.576236  2387 net.cpp:139] Memory required for data: 14714800
I0428 20:24:18.576239  2387 layer_factory.hpp:77] Creating layer conv1
I0428 20:24:18.576247  2387 net.cpp:86] Creating Layer conv1
I0428 20:24:18.576251  2387 net.cpp:408] conv1 <- pool0
I0428 20:24:18.576256  2387 net.cpp:382] conv1 -> conv1
I0428 20:24:18.579432  2387 net.cpp:124] Setting up conv1
I0428 20:24:18.579444  2387 net.cpp:131] Top shape: 100 100 8 8 (640000)
I0428 20:24:18.579453  2387 net.cpp:139] Memory required for data: 17274800
I0428 20:24:18.579462  2387 layer_factory.hpp:77] Creating layer pool1
I0428 20:24:18.579488  2387 net.cpp:86] Creating Layer pool1
I0428 20:24:18.579497  2387 net.cpp:408] pool1 <- conv1
I0428 20:24:18.579502  2387 net.cpp:382] pool1 -> pool1
I0428 20:24:18.579542  2387 net.cpp:124] Setting up pool1
I0428 20:24:18.579547  2387 net.cpp:131] Top shape: 100 100 4 4 (160000)
I0428 20:24:18.579555  2387 net.cpp:139] Memory required for data: 17914800
I0428 20:24:18.579557  2387 layer_factory.hpp:77] Creating layer ip1
I0428 20:24:18.579562  2387 net.cpp:86] Creating Layer ip1
I0428 20:24:18.579566  2387 net.cpp:408] ip1 <- pool1
I0428 20:24:18.579578  2387 net.cpp:382] ip1 -> ip1
I0428 20:24:18.580126  2387 net.cpp:124] Setting up ip1
I0428 20:24:18.580143  2387 net.cpp:131] Top shape: 100 50 (5000)
I0428 20:24:18.580147  2387 net.cpp:139] Memory required for data: 17934800
I0428 20:24:18.580154  2387 layer_factory.hpp:77] Creating layer relu1
I0428 20:24:18.580158  2387 net.cpp:86] Creating Layer relu1
I0428 20:24:18.580162  2387 net.cpp:408] relu1 <- ip1
I0428 20:24:18.580173  2387 net.cpp:369] relu1 -> ip1 (in-place)
I0428 20:24:18.580360  2387 net.cpp:124] Setting up relu1
I0428 20:24:18.580369  2387 net.cpp:131] Top shape: 100 50 (5000)
I0428 20:24:18.580371  2387 net.cpp:139] Memory required for data: 17954800
I0428 20:24:18.580374  2387 layer_factory.hpp:77] Creating layer ip2
I0428 20:24:18.580382  2387 net.cpp:86] Creating Layer ip2
I0428 20:24:18.580385  2387 net.cpp:408] ip2 <- ip1
I0428 20:24:18.580389  2387 net.cpp:382] ip2 -> ip2
I0428 20:24:18.580580  2387 net.cpp:124] Setting up ip2
I0428 20:24:18.580588  2387 net.cpp:131] Top shape: 100 10 (1000)
I0428 20:24:18.580591  2387 net.cpp:139] Memory required for data: 17958800
I0428 20:24:18.580596  2387 layer_factory.hpp:77] Creating layer relu2
I0428 20:24:18.580601  2387 net.cpp:86] Creating Layer relu2
I0428 20:24:18.580605  2387 net.cpp:408] relu2 <- ip2
I0428 20:24:18.580610  2387 net.cpp:369] relu2 -> ip2 (in-place)
I0428 20:24:18.580807  2387 net.cpp:124] Setting up relu2
I0428 20:24:18.580822  2387 net.cpp:131] Top shape: 100 10 (1000)
I0428 20:24:18.580855  2387 net.cpp:139] Memory required for data: 17962800
I0428 20:24:18.580878  2387 layer_factory.hpp:77] Creating layer ip3
I0428 20:24:18.580886  2387 net.cpp:86] Creating Layer ip3
I0428 20:24:18.580889  2387 net.cpp:408] ip3 <- ip2
I0428 20:24:18.580895  2387 net.cpp:382] ip3 -> ip3
I0428 20:24:18.581007  2387 net.cpp:124] Setting up ip3
I0428 20:24:18.581015  2387 net.cpp:131] Top shape: 100 10 (1000)
I0428 20:24:18.581019  2387 net.cpp:139] Memory required for data: 17966800
I0428 20:24:18.581034  2387 layer_factory.hpp:77] Creating layer relu3
I0428 20:24:18.581040  2387 net.cpp:86] Creating Layer relu3
I0428 20:24:18.581049  2387 net.cpp:408] relu3 <- ip3
I0428 20:24:18.581053  2387 net.cpp:369] relu3 -> ip3 (in-place)
I0428 20:24:18.581866  2387 net.cpp:124] Setting up relu3
I0428 20:24:18.581876  2387 net.cpp:131] Top shape: 100 10 (1000)
I0428 20:24:18.581879  2387 net.cpp:139] Memory required for data: 17970800
I0428 20:24:18.581883  2387 layer_factory.hpp:77] Creating layer ip3_relu3_0_split
I0428 20:24:18.581889  2387 net.cpp:86] Creating Layer ip3_relu3_0_split
I0428 20:24:18.581892  2387 net.cpp:408] ip3_relu3_0_split <- ip3
I0428 20:24:18.581897  2387 net.cpp:382] ip3_relu3_0_split -> ip3_relu3_0_split_0
I0428 20:24:18.581904  2387 net.cpp:382] ip3_relu3_0_split -> ip3_relu3_0_split_1
I0428 20:24:18.581943  2387 net.cpp:124] Setting up ip3_relu3_0_split
I0428 20:24:18.581948  2387 net.cpp:131] Top shape: 100 10 (1000)
I0428 20:24:18.581953  2387 net.cpp:131] Top shape: 100 10 (1000)
I0428 20:24:18.581954  2387 net.cpp:139] Memory required for data: 17978800
I0428 20:24:18.581957  2387 layer_factory.hpp:77] Creating layer accuracy
I0428 20:24:18.581962  2387 net.cpp:86] Creating Layer accuracy
I0428 20:24:18.581965  2387 net.cpp:408] accuracy <- ip3_relu3_0_split_0
I0428 20:24:18.581969  2387 net.cpp:408] accuracy <- label_mnist_1_split_0
I0428 20:24:18.581974  2387 net.cpp:382] accuracy -> accuracy
…
