…
I0428 20:27:12.076534  2996 net.cpp:296] The NetState phase (0) differed from the phase (1) specified by a rule in layer mnist
I0428 20:27:12.076577  2996 net.cpp:296] The NetState phase (0) differed from the phase (1) specified by a rule in layer accuracy
I0428 20:27:12.076656  2996 net.cpp:53] Initializing net from parameters: 
name: "LeNet"
state {
  phase: TRAIN
  level: 0
  stage: ""
}
layer {
  name: "mnist"
  type: "Data"
  top: "data"
  top: "label"
  include {
    phase: TRAIN
  }
  transform_param {
    scale: 0.00390625
  }
  data_param {
    source: "examples/mnist/mnist_train_lmdb"
    batch_size: 64
    backend: LMDB
  }
}
layer {
  name: "conv0"
  type: "Convolution"
  bottom: "data"
  top: "conv0"
  param {
    lr_mult: 1
  }
  param {
    lr_mult: 2
  }
  convolution_param {
    num_output: 100
    kernel_size: 5
    stride: 1
    weight_filler {
      type: "xavier"
    }
    bias_filler {
      type: "constant"
    }
  }
}
layer {
  name: "pool0"
  type: "Pooling"
  bottom: "conv0"
  top: "pool0"
  pooling_param {
    pool: MAX
    kernel_size: 2
    stride: 2
  }
}
layer {
  name: "conv1"
  type: "Convolution"
  bottom: "pool0"
  top: "conv1"
  param {
    lr_mult: 1
  }
  param {
    lr_mult: 2
  }
  convolution_param {
    num_output: 5
    kernel_size: 5
    stride: 1
    weight_filler {
      type: "xavier"
    }
    bias_filler {
      type: "constant"
    }
  }
}
layer {
  name: "pool1"
  type: "Pooling"
  bottom: "conv1"
  top: "pool1"
  pooling_param {
    pool: MAX
    kernel_size: 2
    stride: 2
  }
}
layer {
  name: "ip1"
  type: "InnerProduct"
  bottom: "pool1"
  top: "ip1"
  param {
    lr_mult: 1
  }
  param {
    lr_mult: 2
  }
  inner_product_param {
    num_output: 10
    weight_filler {
      type: "xavier"
    }
    bias_filler {
      type: "constant"
    }
  }
}
layer {
  name: "relu1"
  type: "ReLU"
  bottom: "ip1"
  top: "ip1"
}
layer {
  name: "loss"
  type: "SoftmaxWithLoss"
  bottom: "ip1"
  bottom: "label"
  top: "loss"
}
I0428 20:27:12.076712  2996 layer_factory.hpp:77] Creating layer mnist
I0428 20:27:12.076794  2996 db_lmdb.cpp:35] Opened lmdb examples/mnist/mnist_train_lmdb
I0428 20:27:12.076822  2996 net.cpp:86] Creating Layer mnist
I0428 20:27:12.076843  2996 net.cpp:382] mnist -> data
I0428 20:27:12.076864  2996 net.cpp:382] mnist -> label
I0428 20:27:12.077910  2996 data_layer.cpp:45] output data size: 64,1,28,28
I0428 20:27:12.080394  2996 net.cpp:124] Setting up mnist
I0428 20:27:12.080440  2996 net.cpp:131] Top shape: 64 1 28 28 (50176)
I0428 20:27:12.080446  2996 net.cpp:131] Top shape: 64 (64)
I0428 20:27:12.080448  2996 net.cpp:139] Memory required for data: 200960
I0428 20:27:12.080454  2996 layer_factory.hpp:77] Creating layer conv0
I0428 20:27:12.080471  2996 net.cpp:86] Creating Layer conv0
I0428 20:27:12.080474  2996 net.cpp:408] conv0 <- data
I0428 20:27:12.080484  2996 net.cpp:382] conv0 -> conv0
I0428 20:27:12.318025  2996 net.cpp:124] Setting up conv0
I0428 20:27:12.318066  2996 net.cpp:131] Top shape: 64 100 24 24 (3686400)
I0428 20:27:12.318070  2996 net.cpp:139] Memory required for data: 14946560
I0428 20:27:12.318086  2996 layer_factory.hpp:77] Creating layer pool0
I0428 20:27:12.318099  2996 net.cpp:86] Creating Layer pool0
I0428 20:27:12.318102  2996 net.cpp:408] pool0 <- conv0
I0428 20:27:12.318107  2996 net.cpp:382] pool0 -> pool0
I0428 20:27:12.318171  2996 net.cpp:124] Setting up pool0
I0428 20:27:12.318181  2996 net.cpp:131] Top shape: 64 100 12 12 (921600)
I0428 20:27:12.318200  2996 net.cpp:139] Memory required for data: 18632960
I0428 20:27:12.318203  2996 layer_factory.hpp:77] Creating layer conv1
I0428 20:27:12.318214  2996 net.cpp:86] Creating Layer conv1
I0428 20:27:12.318217  2996 net.cpp:408] conv1 <- pool0
I0428 20:27:12.318222  2996 net.cpp:382] conv1 -> conv1
I0428 20:27:12.320996  2996 net.cpp:124] Setting up conv1
I0428 20:27:12.321027  2996 net.cpp:131] Top shape: 64 5 8 8 (20480)
I0428 20:27:12.321030  2996 net.cpp:139] Memory required for data: 18714880
I0428 20:27:12.321043  2996 layer_factory.hpp:77] Creating layer pool1
I0428 20:27:12.321053  2996 net.cpp:86] Creating Layer pool1
I0428 20:27:12.321058  2996 net.cpp:408] pool1 <- conv1
I0428 20:27:12.321063  2996 net.cpp:382] pool1 -> pool1
I0428 20:27:12.321101  2996 net.cpp:124] Setting up pool1
I0428 20:27:12.321107  2996 net.cpp:131] Top shape: 64 5 4 4 (5120)
I0428 20:27:12.321110  2996 net.cpp:139] Memory required for data: 18735360
I0428 20:27:12.321113  2996 layer_factory.hpp:77] Creating layer ip1
I0428 20:27:12.321120  2996 net.cpp:86] Creating Layer ip1
I0428 20:27:12.321123  2996 net.cpp:408] ip1 <- pool1
I0428 20:27:12.321128  2996 net.cpp:382] ip1 -> ip1
I0428 20:27:12.321245  2996 net.cpp:124] Setting up ip1
I0428 20:27:12.321254  2996 net.cpp:131] Top shape: 64 10 (640)
I0428 20:27:12.321256  2996 net.cpp:139] Memory required for data: 18737920
I0428 20:27:12.321264  2996 layer_factory.hpp:77] Creating layer relu1
I0428 20:27:12.321269  2996 net.cpp:86] Creating Layer relu1
I0428 20:27:12.321272  2996 net.cpp:408] relu1 <- ip1
I0428 20:27:12.321277  2996 net.cpp:369] relu1 -> ip1 (in-place)
I0428 20:27:12.321454  2996 net.cpp:124] Setting up relu1
I0428 20:27:12.321463  2996 net.cpp:131] Top shape: 64 10 (640)
I0428 20:27:12.321466  2996 net.cpp:139] Memory required for data: 18740480
I0428 20:27:12.321470  2996 layer_factory.hpp:77] Creating layer loss
I0428 20:27:12.321476  2996 net.cpp:86] Creating Layer loss
I0428 20:27:12.321494  2996 net.cpp:408] loss <- ip1
I0428 20:27:12.321498  2996 net.cpp:408] loss <- label
I0428 20:27:12.321503  2996 net.cpp:382] loss -> loss
I0428 20:27:12.321521  2996 layer_factory.hpp:77] Creating layer loss
…
I0428 20:27:12.322717  2996 solver.cpp:173] Creating test net (#0) specified by net file: ECE595/mnist/train_test/var_everything2/lenet_train_test1484.prototxt
I0428 20:27:12.322746  2996 net.cpp:296] The NetState phase (1) differed from the phase (0) specified by a rule in layer mnist
I0428 20:27:12.322824  2996 net.cpp:53] Initializing net from parameters: 
name: "LeNet"
state {
  phase: TEST
}
layer {
  name: "mnist"
  type: "Data"
  top: "data"
  top: "label"
  include {
    phase: TEST
  }
  transform_param {
    scale: 0.00390625
  }
  data_param {
    source: "examples/mnist/mnist_test_lmdb"
    batch_size: 100
    backend: LMDB
  }
}
layer {
  name: "conv0"
  type: "Convolution"
  bottom: "data"
  top: "conv0"
  param {
    lr_mult: 1
  }
  param {
    lr_mult: 2
  }
  convolution_param {
    num_output: 100
    kernel_size: 5
    stride: 1
    weight_filler {
      type: "xavier"
    }
    bias_filler {
      type: "constant"
    }
  }
}
layer {
  name: "pool0"
  type: "Pooling"
  bottom: "conv0"
  top: "pool0"
  pooling_param {
    pool: MAX
    kernel_size: 2
    stride: 2
  }
}
layer {
  name: "conv1"
  type: "Convolution"
  bottom: "pool0"
  top: "conv1"
  param {
    lr_mult: 1
  }
  param {
    lr_mult: 2
  }
  convolution_param {
    num_output: 5
    kernel_size: 5
    stride: 1
    weight_filler {
      type: "xavier"
    }
    bias_filler {
      type: "constant"
    }
  }
}
layer {
  name: "pool1"
  type: "Pooling"
  bottom: "conv1"
  top: "pool1"
  pooling_param {
    pool: MAX
    kernel_size: 2
    stride: 2
  }
}
layer {
  name: "ip1"
  type: "InnerProduct"
  bottom: "pool1"
  top: "ip1"
  param {
    lr_mult: 1
  }
  param {
    lr_mult: 2
  }
  inner_product_param {
    num_output: 10
    weight_filler {
      type: "xavier"
    }
    bias_filler {
      type: "constant"
    }
  }
}
layer {
  name: "relu1"
  type: "ReLU"
  bottom: "ip1"
  top: "ip1"
}
layer {
  name: "accuracy"
  type: "Accuracy"
  bottom: "ip1"
  bottom: "label"
  top: "accuracy"
  include {
    phase: TEST
  }
}
layer {
  name: "loss"
  type: "SoftmaxWithLoss"
  bottom: "ip1"
  bottom: "label"
  top: "loss"
}
I0428 20:27:12.322895  2996 layer_factory.hpp:77] Creating layer mnist
I0428 20:27:12.322952  2996 db_lmdb.cpp:35] Opened lmdb examples/mnist/mnist_test_lmdb
I0428 20:27:12.322964  2996 net.cpp:86] Creating Layer mnist
I0428 20:27:12.322969  2996 net.cpp:382] mnist -> data
I0428 20:27:12.322976  2996 net.cpp:382] mnist -> label
I0428 20:27:12.323065  2996 data_layer.cpp:45] output data size: 100,1,28,28
I0428 20:27:12.325446  2996 net.cpp:124] Setting up mnist
I0428 20:27:12.325476  2996 net.cpp:131] Top shape: 100 1 28 28 (78400)
I0428 20:27:12.325482  2996 net.cpp:131] Top shape: 100 (100)
I0428 20:27:12.325486  2996 net.cpp:139] Memory required for data: 314000
I0428 20:27:12.325489  2996 layer_factory.hpp:77] Creating layer label_mnist_1_split
I0428 20:27:12.325516  2996 net.cpp:86] Creating Layer label_mnist_1_split
I0428 20:27:12.325536  2996 net.cpp:408] label_mnist_1_split <- label
I0428 20:27:12.325542  2996 net.cpp:382] label_mnist_1_split -> label_mnist_1_split_0
I0428 20:27:12.325567  2996 net.cpp:382] label_mnist_1_split -> label_mnist_1_split_1
I0428 20:27:12.325667  2996 net.cpp:124] Setting up label_mnist_1_split
I0428 20:27:12.325676  2996 net.cpp:131] Top shape: 100 (100)
I0428 20:27:12.325680  2996 net.cpp:131] Top shape: 100 (100)
I0428 20:27:12.325683  2996 net.cpp:139] Memory required for data: 314800
I0428 20:27:12.325686  2996 layer_factory.hpp:77] Creating layer conv0
I0428 20:27:12.325695  2996 net.cpp:86] Creating Layer conv0
I0428 20:27:12.325700  2996 net.cpp:408] conv0 <- data
I0428 20:27:12.325705  2996 net.cpp:382] conv0 -> conv0
I0428 20:27:12.326529  2996 net.cpp:124] Setting up conv0
I0428 20:27:12.326541  2996 net.cpp:131] Top shape: 100 100 24 24 (5760000)
I0428 20:27:12.326545  2996 net.cpp:139] Memory required for data: 23354800
I0428 20:27:12.326553  2996 layer_factory.hpp:77] Creating layer pool0
I0428 20:27:12.326558  2996 net.cpp:86] Creating Layer pool0
I0428 20:27:12.326561  2996 net.cpp:408] pool0 <- conv0
I0428 20:27:12.326566  2996 net.cpp:382] pool0 -> pool0
I0428 20:27:12.326616  2996 net.cpp:124] Setting up pool0
I0428 20:27:12.326620  2996 net.cpp:131] Top shape: 100 100 12 12 (1440000)
I0428 20:27:12.326623  2996 net.cpp:139] Memory required for data: 29114800
I0428 20:27:12.326627  2996 layer_factory.hpp:77] Creating layer conv1
I0428 20:27:12.326633  2996 net.cpp:86] Creating Layer conv1
I0428 20:27:12.326637  2996 net.cpp:408] conv1 <- pool0
I0428 20:27:12.326642  2996 net.cpp:382] conv1 -> conv1
I0428 20:27:12.328132  2996 net.cpp:124] Setting up conv1
I0428 20:27:12.328146  2996 net.cpp:131] Top shape: 100 5 8 8 (32000)
I0428 20:27:12.328150  2996 net.cpp:139] Memory required for data: 29242800
I0428 20:27:12.328160  2996 layer_factory.hpp:77] Creating layer pool1
I0428 20:27:12.328166  2996 net.cpp:86] Creating Layer pool1
I0428 20:27:12.328181  2996 net.cpp:408] pool1 <- conv1
I0428 20:27:12.328186  2996 net.cpp:382] pool1 -> pool1
I0428 20:27:12.328227  2996 net.cpp:124] Setting up pool1
I0428 20:27:12.328238  2996 net.cpp:131] Top shape: 100 5 4 4 (8000)
I0428 20:27:12.328244  2996 net.cpp:139] Memory required for data: 29274800
I0428 20:27:12.328250  2996 layer_factory.hpp:77] Creating layer ip1
I0428 20:27:12.328271  2996 net.cpp:86] Creating Layer ip1
I0428 20:27:12.328274  2996 net.cpp:408] ip1 <- pool1
I0428 20:27:12.328279  2996 net.cpp:382] ip1 -> ip1
I0428 20:27:12.328444  2996 net.cpp:124] Setting up ip1
I0428 20:27:12.328457  2996 net.cpp:131] Top shape: 100 10 (1000)
I0428 20:27:12.328461  2996 net.cpp:139] Memory required for data: 29278800
I0428 20:27:12.328469  2996 layer_factory.hpp:77] Creating layer relu1
I0428 20:27:12.328475  2996 net.cpp:86] Creating Layer relu1
I0428 20:27:12.328479  2996 net.cpp:408] relu1 <- ip1
I0428 20:27:12.328487  2996 net.cpp:369] relu1 -> ip1 (in-place)
I0428 20:27:12.329454  2996 net.cpp:124] Setting up relu1
I0428 20:27:12.329488  2996 net.cpp:131] Top shape: 100 10 (1000)
I0428 20:27:12.329505  2996 net.cpp:139] Memory required for data: 29282800
I0428 20:27:12.329509  2996 layer_factory.hpp:77] Creating layer ip1_relu1_0_split
I0428 20:27:12.329517  2996 net.cpp:86] Creating Layer ip1_relu1_0_split
I0428 20:27:12.329531  2996 net.cpp:408] ip1_relu1_0_split <- ip1
I0428 20:27:12.329537  2996 net.cpp:382] ip1_relu1_0_split -> ip1_relu1_0_split_0
I0428 20:27:12.329550  2996 net.cpp:382] ip1_relu1_0_split -> ip1_relu1_0_split_1
I0428 20:27:12.329591  2996 net.cpp:124] Setting up ip1_relu1_0_split
I0428 20:27:12.329604  2996 net.cpp:131] Top shape: 100 10 (1000)
I0428 20:27:12.329614  2996 net.cpp:131] Top shape: 100 10 (1000)
I0428 20:27:12.329618  2996 net.cpp:139] Memory required for data: 29290800
I0428 20:27:12.329622  2996 layer_factory.hpp:77] Creating layer accuracy
I0428 20:27:12.329627  2996 net.cpp:86] Creating Layer accuracy
I0428 20:27:12.329630  2996 net.cpp:408] accuracy <- ip1_relu1_0_split_0
I0428 20:27:12.329635  2996 net.cpp:408] accuracy <- label_mnist_1_split_0
I0428 20:27:12.329641  2996 net.cpp:382] accuracy -> accuracy
…
