…
I0428 19:34:00.831853 23251 net.cpp:296] The NetState phase (0) differed from the phase (1) specified by a rule in layer mnist
I0428 19:34:00.831871 23251 net.cpp:296] The NetState phase (0) differed from the phase (1) specified by a rule in layer accuracy
I0428 19:34:00.831957 23251 net.cpp:53] Initializing net from parameters: 
name: "LeNet"
state {
  phase: TRAIN
  level: 0
  stage: ""
}
layer {
  name: "mnist"
  type: "Data"
  top: "data"
  top: "label"
  include {
    phase: TRAIN
  }
  transform_param {
    scale: 0.00390625
  }
  data_param {
    source: "examples/mnist/mnist_train_lmdb"
    batch_size: 64
    backend: LMDB
  }
}
layer {
  name: "conv0"
  type: "Convolution"
  bottom: "data"
  top: "conv0"
  param {
    lr_mult: 1
  }
  param {
    lr_mult: 2
  }
  convolution_param {
    num_output: 25
    kernel_size: 5
    stride: 1
    weight_filler {
      type: "xavier"
    }
    bias_filler {
      type: "constant"
    }
  }
}
layer {
  name: "pool0"
  type: "Pooling"
  bottom: "conv0"
  top: "pool0"
  pooling_param {
    pool: MAX
    kernel_size: 2
    stride: 2
  }
}
layer {
  name: "ip1"
  type: "InnerProduct"
  bottom: "pool0"
  top: "ip1"
  param {
    lr_mult: 1
  }
  param {
    lr_mult: 2
  }
  inner_product_param {
    num_output: 50
    weight_filler {
      type: "xavier"
    }
    bias_filler {
      type: "constant"
    }
  }
}
layer {
  name: "relu1"
  type: "ReLU"
  bottom: "ip1"
  top: "ip1"
}
layer {
  name: "ip2"
  type: "InnerProduct"
  bottom: "ip1"
  top: "ip2"
  param {
    lr_mult: 1
  }
  param {
    lr_mult: 2
  }
  inner_product_param {
    num_output: 50
    weight_filler {
      type: "xavier"
    }
    bias_filler {
      type: "constant"
    }
  }
}
layer {
  name: "relu2"
  type: "ReLU"
  bottom: "ip2"
  top: "ip2"
}
layer {
  name: "ip3"
  type: "InnerProduct"
  bottom: "ip2"
  top: "ip3"
  param {
    lr_mult: 1
  }
  param {
    lr_mult: 2
  }
  inner_product_param {
    num_output: 10
    weight_filler {
      type: "xavier"
    }
    bias_filler {
      type: "constant"
    }
  }
}
layer {
  name: "relu3"
  type: "ReLU"
  bottom: "ip3"
  top: "ip3"
}
layer {
  name: "loss"
  type: "SoftmaxWithLoss"
  bottom: "ip3"
  bottom: "label"
  top: "loss"
}
I0428 19:34:00.832031 23251 layer_factory.hpp:77] Creating layer mnist
I0428 19:34:00.832136 23251 db_lmdb.cpp:35] Opened lmdb examples/mnist/mnist_train_lmdb
I0428 19:34:00.832161 23251 net.cpp:86] Creating Layer mnist
I0428 19:34:00.832170 23251 net.cpp:382] mnist -> data
I0428 19:34:00.832191 23251 net.cpp:382] mnist -> label
I0428 19:34:00.833281 23251 data_layer.cpp:45] output data size: 64,1,28,28
I0428 19:34:00.835950 23251 net.cpp:124] Setting up mnist
I0428 19:34:00.835969 23251 net.cpp:131] Top shape: 64 1 28 28 (50176)
I0428 19:34:00.835975 23251 net.cpp:131] Top shape: 64 (64)
I0428 19:34:00.835978 23251 net.cpp:139] Memory required for data: 200960
I0428 19:34:00.835986 23251 layer_factory.hpp:77] Creating layer conv0
I0428 19:34:00.836026 23251 net.cpp:86] Creating Layer conv0
I0428 19:34:00.836051 23251 net.cpp:408] conv0 <- data
I0428 19:34:00.836064 23251 net.cpp:382] conv0 -> conv0
I0428 19:34:01.127849 23251 net.cpp:124] Setting up conv0
I0428 19:34:01.127881 23251 net.cpp:131] Top shape: 64 25 24 24 (921600)
I0428 19:34:01.127885 23251 net.cpp:139] Memory required for data: 3887360
I0428 19:34:01.127904 23251 layer_factory.hpp:77] Creating layer pool0
I0428 19:34:01.127919 23251 net.cpp:86] Creating Layer pool0
I0428 19:34:01.127945 23251 net.cpp:408] pool0 <- conv0
I0428 19:34:01.127954 23251 net.cpp:382] pool0 -> pool0
I0428 19:34:01.128007 23251 net.cpp:124] Setting up pool0
I0428 19:34:01.128017 23251 net.cpp:131] Top shape: 64 25 12 12 (230400)
I0428 19:34:01.128021 23251 net.cpp:139] Memory required for data: 4808960
I0428 19:34:01.128026 23251 layer_factory.hpp:77] Creating layer ip1
I0428 19:34:01.128034 23251 net.cpp:86] Creating Layer ip1
I0428 19:34:01.128038 23251 net.cpp:408] ip1 <- pool0
I0428 19:34:01.128043 23251 net.cpp:382] ip1 -> ip1
I0428 19:34:01.130385 23251 net.cpp:124] Setting up ip1
I0428 19:34:01.130401 23251 net.cpp:131] Top shape: 64 50 (3200)
I0428 19:34:01.130405 23251 net.cpp:139] Memory required for data: 4821760
I0428 19:34:01.130415 23251 layer_factory.hpp:77] Creating layer relu1
I0428 19:34:01.130424 23251 net.cpp:86] Creating Layer relu1
I0428 19:34:01.130429 23251 net.cpp:408] relu1 <- ip1
I0428 19:34:01.130434 23251 net.cpp:369] relu1 -> ip1 (in-place)
I0428 19:34:01.130637 23251 net.cpp:124] Setting up relu1
I0428 19:34:01.130648 23251 net.cpp:131] Top shape: 64 50 (3200)
I0428 19:34:01.130652 23251 net.cpp:139] Memory required for data: 4834560
I0428 19:34:01.130656 23251 layer_factory.hpp:77] Creating layer ip2
I0428 19:34:01.130663 23251 net.cpp:86] Creating Layer ip2
I0428 19:34:01.130667 23251 net.cpp:408] ip2 <- ip1
I0428 19:34:01.130673 23251 net.cpp:382] ip2 -> ip2
I0428 19:34:01.131778 23251 net.cpp:124] Setting up ip2
I0428 19:34:01.131791 23251 net.cpp:131] Top shape: 64 50 (3200)
I0428 19:34:01.131795 23251 net.cpp:139] Memory required for data: 4847360
I0428 19:34:01.131806 23251 layer_factory.hpp:77] Creating layer relu2
I0428 19:34:01.131813 23251 net.cpp:86] Creating Layer relu2
I0428 19:34:01.131817 23251 net.cpp:408] relu2 <- ip2
I0428 19:34:01.131822 23251 net.cpp:369] relu2 -> ip2 (in-place)
I0428 19:34:01.132674 23251 net.cpp:124] Setting up relu2
I0428 19:34:01.132689 23251 net.cpp:131] Top shape: 64 50 (3200)
I0428 19:34:01.132694 23251 net.cpp:139] Memory required for data: 4860160
I0428 19:34:01.132697 23251 layer_factory.hpp:77] Creating layer ip3
I0428 19:34:01.132706 23251 net.cpp:86] Creating Layer ip3
I0428 19:34:01.132709 23251 net.cpp:408] ip3 <- ip2
I0428 19:34:01.132716 23251 net.cpp:382] ip3 -> ip3
I0428 19:34:01.132843 23251 net.cpp:124] Setting up ip3
I0428 19:34:01.132853 23251 net.cpp:131] Top shape: 64 10 (640)
I0428 19:34:01.132856 23251 net.cpp:139] Memory required for data: 4862720
I0428 19:34:01.132863 23251 layer_factory.hpp:77] Creating layer relu3
I0428 19:34:01.132870 23251 net.cpp:86] Creating Layer relu3
I0428 19:34:01.132874 23251 net.cpp:408] relu3 <- ip3
I0428 19:34:01.132879 23251 net.cpp:369] relu3 -> ip3 (in-place)
I0428 19:34:01.133056 23251 net.cpp:124] Setting up relu3
I0428 19:34:01.133066 23251 net.cpp:131] Top shape: 64 10 (640)
I0428 19:34:01.133069 23251 net.cpp:139] Memory required for data: 4865280
I0428 19:34:01.133074 23251 layer_factory.hpp:77] Creating layer loss
I0428 19:34:01.133080 23251 net.cpp:86] Creating Layer loss
I0428 19:34:01.133085 23251 net.cpp:408] loss <- ip3
I0428 19:34:01.133090 23251 net.cpp:408] loss <- label
I0428 19:34:01.133095 23251 net.cpp:382] loss -> loss
I0428 19:34:01.133117 23251 layer_factory.hpp:77] Creating layer loss
…
I0428 19:34:01.133818 23251 solver.cpp:173] Creating test net (#0) specified by net file: ECE595/mnist/train_test/var_everything2/lenet_train_test194.prototxt
I0428 19:34:01.133848 23251 net.cpp:296] The NetState phase (1) differed from the phase (0) specified by a rule in layer mnist
I0428 19:34:01.133945 23251 net.cpp:53] Initializing net from parameters: 
name: "LeNet"
state {
  phase: TEST
}
layer {
  name: "mnist"
  type: "Data"
  top: "data"
  top: "label"
  include {
    phase: TEST
  }
  transform_param {
    scale: 0.00390625
  }
  data_param {
    source: "examples/mnist/mnist_test_lmdb"
    batch_size: 100
    backend: LMDB
  }
}
layer {
  name: "conv0"
  type: "Convolution"
  bottom: "data"
  top: "conv0"
  param {
    lr_mult: 1
  }
  param {
    lr_mult: 2
  }
  convolution_param {
    num_output: 25
    kernel_size: 5
    stride: 1
    weight_filler {
      type: "xavier"
    }
    bias_filler {
      type: "constant"
    }
  }
}
layer {
  name: "pool0"
  type: "Pooling"
  bottom: "conv0"
  top: "pool0"
  pooling_param {
    pool: MAX
    kernel_size: 2
    stride: 2
  }
}
layer {
  name: "ip1"
  type: "InnerProduct"
  bottom: "pool0"
  top: "ip1"
  param {
    lr_mult: 1
  }
  param {
    lr_mult: 2
  }
  inner_product_param {
    num_output: 50
    weight_filler {
      type: "xavier"
    }
    bias_filler {
      type: "constant"
    }
  }
}
layer {
  name: "relu1"
  type: "ReLU"
  bottom: "ip1"
  top: "ip1"
}
layer {
  name: "ip2"
  type: "InnerProduct"
  bottom: "ip1"
  top: "ip2"
  param {
    lr_mult: 1
  }
  param {
    lr_mult: 2
  }
  inner_product_param {
    num_output: 50
    weight_filler {
      type: "xavier"
    }
    bias_filler {
      type: "constant"
    }
  }
}
layer {
  name: "relu2"
  type: "ReLU"
  bottom: "ip2"
  top: "ip2"
}
layer {
  name: "ip3"
  type: "InnerProduct"
  bottom: "ip2"
  top: "ip3"
  param {
    lr_mult: 1
  }
  param {
    lr_mult: 2
  }
  inner_product_param {
    num_output: 10
    weight_filler {
      type: "xavier"
    }
    bias_filler {
      type: "constant"
    }
  }
}
layer {
  name: "relu3"
  type: "ReLU"
  bottom: "ip3"
  top: "ip3"
}
layer {
  name: "accuracy"
  type: "Accuracy"
  bottom: "ip3"
  bottom: "label"
  top: "accuracy"
  include {
    phase: TEST
  }
}
layer {
  name: "loss"
  type: "SoftmaxWithLoss"
  bottom: "ip3"
  bottom: "label"
  top: "loss"
}
I0428 19:34:01.134019 23251 layer_factory.hpp:77] Creating layer mnist
I0428 19:34:01.134074 23251 db_lmdb.cpp:35] Opened lmdb examples/mnist/mnist_test_lmdb
I0428 19:34:01.134088 23251 net.cpp:86] Creating Layer mnist
I0428 19:34:01.134094 23251 net.cpp:382] mnist -> data
I0428 19:34:01.134104 23251 net.cpp:382] mnist -> label
I0428 19:34:01.134201 23251 data_layer.cpp:45] output data size: 100,1,28,28
I0428 19:34:01.135432 23251 net.cpp:124] Setting up mnist
I0428 19:34:01.135448 23251 net.cpp:131] Top shape: 100 1 28 28 (78400)
I0428 19:34:01.135454 23251 net.cpp:131] Top shape: 100 (100)
I0428 19:34:01.135457 23251 net.cpp:139] Memory required for data: 314000
I0428 19:34:01.135462 23251 layer_factory.hpp:77] Creating layer label_mnist_1_split
I0428 19:34:01.135469 23251 net.cpp:86] Creating Layer label_mnist_1_split
I0428 19:34:01.135473 23251 net.cpp:408] label_mnist_1_split <- label
I0428 19:34:01.135480 23251 net.cpp:382] label_mnist_1_split -> label_mnist_1_split_0
I0428 19:34:01.135488 23251 net.cpp:382] label_mnist_1_split -> label_mnist_1_split_1
I0428 19:34:01.135540 23251 net.cpp:124] Setting up label_mnist_1_split
I0428 19:34:01.135545 23251 net.cpp:131] Top shape: 100 (100)
I0428 19:34:01.135550 23251 net.cpp:131] Top shape: 100 (100)
I0428 19:34:01.135553 23251 net.cpp:139] Memory required for data: 314800
I0428 19:34:01.135568 23251 layer_factory.hpp:77] Creating layer conv0
I0428 19:34:01.135579 23251 net.cpp:86] Creating Layer conv0
I0428 19:34:01.135583 23251 net.cpp:408] conv0 <- data
I0428 19:34:01.135589 23251 net.cpp:382] conv0 -> conv0
I0428 19:34:01.137413 23251 net.cpp:124] Setting up conv0
I0428 19:34:01.137429 23251 net.cpp:131] Top shape: 100 25 24 24 (1440000)
I0428 19:34:01.137434 23251 net.cpp:139] Memory required for data: 6074800
I0428 19:34:01.137445 23251 layer_factory.hpp:77] Creating layer pool0
I0428 19:34:01.137452 23251 net.cpp:86] Creating Layer pool0
I0428 19:34:01.137457 23251 net.cpp:408] pool0 <- conv0
I0428 19:34:01.137464 23251 net.cpp:382] pool0 -> pool0
I0428 19:34:01.137504 23251 net.cpp:124] Setting up pool0
I0428 19:34:01.137511 23251 net.cpp:131] Top shape: 100 25 12 12 (360000)
I0428 19:34:01.137514 23251 net.cpp:139] Memory required for data: 7514800
I0428 19:34:01.137517 23251 layer_factory.hpp:77] Creating layer ip1
I0428 19:34:01.137526 23251 net.cpp:86] Creating Layer ip1
I0428 19:34:01.137529 23251 net.cpp:408] ip1 <- pool0
I0428 19:34:01.137536 23251 net.cpp:382] ip1 -> ip1
I0428 19:34:01.139847 23251 net.cpp:124] Setting up ip1
I0428 19:34:01.139863 23251 net.cpp:131] Top shape: 100 50 (5000)
I0428 19:34:01.139866 23251 net.cpp:139] Memory required for data: 7534800
I0428 19:34:01.139878 23251 layer_factory.hpp:77] Creating layer relu1
I0428 19:34:01.139884 23251 net.cpp:86] Creating Layer relu1
I0428 19:34:01.139889 23251 net.cpp:408] relu1 <- ip1
I0428 19:34:01.139895 23251 net.cpp:369] relu1 -> ip1 (in-place)
I0428 19:34:01.140096 23251 net.cpp:124] Setting up relu1
I0428 19:34:01.140107 23251 net.cpp:131] Top shape: 100 50 (5000)
I0428 19:34:01.140112 23251 net.cpp:139] Memory required for data: 7554800
I0428 19:34:01.140115 23251 layer_factory.hpp:77] Creating layer ip2
I0428 19:34:01.140122 23251 net.cpp:86] Creating Layer ip2
I0428 19:34:01.140126 23251 net.cpp:408] ip2 <- ip1
I0428 19:34:01.140132 23251 net.cpp:382] ip2 -> ip2
I0428 19:34:01.140269 23251 net.cpp:124] Setting up ip2
I0428 19:34:01.140277 23251 net.cpp:131] Top shape: 100 50 (5000)
I0428 19:34:01.140281 23251 net.cpp:139] Memory required for data: 7574800
I0428 19:34:01.140291 23251 layer_factory.hpp:77] Creating layer relu2
I0428 19:34:01.140296 23251 net.cpp:86] Creating Layer relu2
I0428 19:34:01.140300 23251 net.cpp:408] relu2 <- ip2
I0428 19:34:01.140305 23251 net.cpp:369] relu2 -> ip2 (in-place)
I0428 19:34:01.141216 23251 net.cpp:124] Setting up relu2
I0428 19:34:01.141232 23251 net.cpp:131] Top shape: 100 50 (5000)
I0428 19:34:01.141235 23251 net.cpp:139] Memory required for data: 7594800
I0428 19:34:01.141239 23251 layer_factory.hpp:77] Creating layer ip3
I0428 19:34:01.141248 23251 net.cpp:86] Creating Layer ip3
I0428 19:34:01.141252 23251 net.cpp:408] ip3 <- ip2
I0428 19:34:01.141259 23251 net.cpp:382] ip3 -> ip3
I0428 19:34:01.141428 23251 net.cpp:124] Setting up ip3
I0428 19:34:01.141438 23251 net.cpp:131] Top shape: 100 10 (1000)
I0428 19:34:01.141443 23251 net.cpp:139] Memory required for data: 7598800
I0428 19:34:01.141449 23251 layer_factory.hpp:77] Creating layer relu3
I0428 19:34:01.141456 23251 net.cpp:86] Creating Layer relu3
I0428 19:34:01.141460 23251 net.cpp:408] relu3 <- ip3
I0428 19:34:01.141466 23251 net.cpp:369] relu3 -> ip3 (in-place)
I0428 19:34:01.141640 23251 net.cpp:124] Setting up relu3
I0428 19:34:01.141650 23251 net.cpp:131] Top shape: 100 10 (1000)
I0428 19:34:01.141654 23251 net.cpp:139] Memory required for data: 7602800
I0428 19:34:01.141659 23251 layer_factory.hpp:77] Creating layer ip3_relu3_0_split
I0428 19:34:01.141664 23251 net.cpp:86] Creating Layer ip3_relu3_0_split
I0428 19:34:01.141669 23251 net.cpp:408] ip3_relu3_0_split <- ip3
I0428 19:34:01.141674 23251 net.cpp:382] ip3_relu3_0_split -> ip3_relu3_0_split_0
I0428 19:34:01.141680 23251 net.cpp:382] ip3_relu3_0_split -> ip3_relu3_0_split_1
I0428 19:34:01.141719 23251 net.cpp:124] Setting up ip3_relu3_0_split
I0428 19:34:01.141726 23251 net.cpp:131] Top shape: 100 10 (1000)
I0428 19:34:01.141731 23251 net.cpp:131] Top shape: 100 10 (1000)
I0428 19:34:01.141748 23251 net.cpp:139] Memory required for data: 7610800
I0428 19:34:01.141752 23251 layer_factory.hpp:77] Creating layer accuracy
I0428 19:34:01.141757 23251 net.cpp:86] Creating Layer accuracy
I0428 19:34:01.141762 23251 net.cpp:408] accuracy <- ip3_relu3_0_split_0
I0428 19:34:01.141767 23251 net.cpp:408] accuracy <- label_mnist_1_split_0
I0428 19:34:01.141772 23251 net.cpp:382] accuracy -> accuracy
…
