…
I0428 20:00:07.003363 29401 net.cpp:296] The NetState phase (0) differed from the phase (1) specified by a rule in layer mnist
I0428 20:00:07.003387 29401 net.cpp:296] The NetState phase (0) differed from the phase (1) specified by a rule in layer accuracy
I0428 20:00:07.003491 29401 net.cpp:53] Initializing net from parameters: 
name: "LeNet"
state {
  phase: TRAIN
  level: 0
  stage: ""
}
layer {
  name: "mnist"
  type: "Data"
  top: "data"
  top: "label"
  include {
    phase: TRAIN
  }
  transform_param {
    scale: 0.00390625
  }
  data_param {
    source: "examples/mnist/mnist_train_lmdb"
    batch_size: 64
    backend: LMDB
  }
}
layer {
  name: "conv0"
  type: "Convolution"
  bottom: "data"
  top: "conv0"
  param {
    lr_mult: 1
  }
  param {
    lr_mult: 2
  }
  convolution_param {
    num_output: 10
    kernel_size: 5
    stride: 1
    weight_filler {
      type: "xavier"
    }
    bias_filler {
      type: "constant"
    }
  }
}
layer {
  name: "pool0"
  type: "Pooling"
  bottom: "conv0"
  top: "pool0"
  pooling_param {
    pool: MAX
    kernel_size: 2
    stride: 2
  }
}
layer {
  name: "conv1"
  type: "Convolution"
  bottom: "pool0"
  top: "conv1"
  param {
    lr_mult: 1
  }
  param {
    lr_mult: 2
  }
  convolution_param {
    num_output: 25
    kernel_size: 5
    stride: 1
    weight_filler {
      type: "xavier"
    }
    bias_filler {
      type: "constant"
    }
  }
}
layer {
  name: "pool1"
  type: "Pooling"
  bottom: "conv1"
  top: "pool1"
  pooling_param {
    pool: MAX
    kernel_size: 2
    stride: 2
  }
}
layer {
  name: "ip1"
  type: "InnerProduct"
  bottom: "pool1"
  top: "ip1"
  param {
    lr_mult: 1
  }
  param {
    lr_mult: 2
  }
  inner_product_param {
    num_output: 50
    weight_filler {
      type: "xavier"
    }
    bias_filler {
      type: "constant"
    }
  }
}
layer {
  name: "relu1"
  type: "ReLU"
  bottom: "ip1"
  top: "ip1"
}
layer {
  name: "ip2"
  type: "InnerProduct"
  bottom: "ip1"
  top: "ip2"
  param {
    lr_mult: 1
  }
  param {
    lr_mult: 2
  }
  inner_product_param {
    num_output: 10
    weight_filler {
      type: "xavier"
    }
    bias_filler {
      type: "constant"
    }
  }
}
layer {
  name: "relu2"
  type: "ReLU"
  bottom: "ip2"
  top: "ip2"
}
layer {
  name: "loss"
  type: "SoftmaxWithLoss"
  bottom: "ip2"
  bottom: "label"
  top: "loss"
}
I0428 20:00:07.003600 29401 layer_factory.hpp:77] Creating layer mnist
I0428 20:00:07.003738 29401 db_lmdb.cpp:35] Opened lmdb examples/mnist/mnist_train_lmdb
I0428 20:00:07.003772 29401 net.cpp:86] Creating Layer mnist
I0428 20:00:07.003785 29401 net.cpp:382] mnist -> data
I0428 20:00:07.003815 29401 net.cpp:382] mnist -> label
I0428 20:00:07.005051 29401 data_layer.cpp:45] output data size: 64,1,28,28
I0428 20:00:07.007511 29401 net.cpp:124] Setting up mnist
I0428 20:00:07.007531 29401 net.cpp:131] Top shape: 64 1 28 28 (50176)
I0428 20:00:07.007561 29401 net.cpp:131] Top shape: 64 (64)
I0428 20:00:07.007570 29401 net.cpp:139] Memory required for data: 200960
I0428 20:00:07.007580 29401 layer_factory.hpp:77] Creating layer conv0
I0428 20:00:07.007602 29401 net.cpp:86] Creating Layer conv0
I0428 20:00:07.007612 29401 net.cpp:408] conv0 <- data
I0428 20:00:07.007632 29401 net.cpp:382] conv0 -> conv0
I0428 20:00:07.247941 29401 net.cpp:124] Setting up conv0
I0428 20:00:07.247970 29401 net.cpp:131] Top shape: 64 10 24 24 (368640)
I0428 20:00:07.247975 29401 net.cpp:139] Memory required for data: 1675520
I0428 20:00:07.248034 29401 layer_factory.hpp:77] Creating layer pool0
I0428 20:00:07.248054 29401 net.cpp:86] Creating Layer pool0
I0428 20:00:07.248062 29401 net.cpp:408] pool0 <- conv0
I0428 20:00:07.248071 29401 net.cpp:382] pool0 -> pool0
I0428 20:00:07.248123 29401 net.cpp:124] Setting up pool0
I0428 20:00:07.248131 29401 net.cpp:131] Top shape: 64 10 12 12 (92160)
I0428 20:00:07.248136 29401 net.cpp:139] Memory required for data: 2044160
I0428 20:00:07.248142 29401 layer_factory.hpp:77] Creating layer conv1
I0428 20:00:07.248157 29401 net.cpp:86] Creating Layer conv1
I0428 20:00:07.248164 29401 net.cpp:408] conv1 <- pool0
I0428 20:00:07.248172 29401 net.cpp:382] conv1 -> conv1
I0428 20:00:07.251003 29401 net.cpp:124] Setting up conv1
I0428 20:00:07.251018 29401 net.cpp:131] Top shape: 64 25 8 8 (102400)
I0428 20:00:07.251024 29401 net.cpp:139] Memory required for data: 2453760
I0428 20:00:07.251049 29401 layer_factory.hpp:77] Creating layer pool1
I0428 20:00:07.251060 29401 net.cpp:86] Creating Layer pool1
I0428 20:00:07.251066 29401 net.cpp:408] pool1 <- conv1
I0428 20:00:07.251075 29401 net.cpp:382] pool1 -> pool1
I0428 20:00:07.251117 29401 net.cpp:124] Setting up pool1
I0428 20:00:07.251127 29401 net.cpp:131] Top shape: 64 25 4 4 (25600)
I0428 20:00:07.251130 29401 net.cpp:139] Memory required for data: 2556160
I0428 20:00:07.251135 29401 layer_factory.hpp:77] Creating layer ip1
I0428 20:00:07.251147 29401 net.cpp:86] Creating Layer ip1
I0428 20:00:07.251155 29401 net.cpp:408] ip1 <- pool1
I0428 20:00:07.251163 29401 net.cpp:382] ip1 -> ip1
I0428 20:00:07.251392 29401 net.cpp:124] Setting up ip1
I0428 20:00:07.251402 29401 net.cpp:131] Top shape: 64 50 (3200)
I0428 20:00:07.251407 29401 net.cpp:139] Memory required for data: 2568960
I0428 20:00:07.251418 29401 layer_factory.hpp:77] Creating layer relu1
I0428 20:00:07.251430 29401 net.cpp:86] Creating Layer relu1
I0428 20:00:07.251436 29401 net.cpp:408] relu1 <- ip1
I0428 20:00:07.251443 29401 net.cpp:369] relu1 -> ip1 (in-place)
I0428 20:00:07.251626 29401 net.cpp:124] Setting up relu1
I0428 20:00:07.251651 29401 net.cpp:131] Top shape: 64 50 (3200)
I0428 20:00:07.251654 29401 net.cpp:139] Memory required for data: 2581760
I0428 20:00:07.251658 29401 layer_factory.hpp:77] Creating layer ip2
I0428 20:00:07.251669 29401 net.cpp:86] Creating Layer ip2
I0428 20:00:07.251674 29401 net.cpp:408] ip2 <- ip1
I0428 20:00:07.251683 29401 net.cpp:382] ip2 -> ip2
I0428 20:00:07.251780 29401 net.cpp:124] Setting up ip2
I0428 20:00:07.251788 29401 net.cpp:131] Top shape: 64 10 (640)
I0428 20:00:07.251793 29401 net.cpp:139] Memory required for data: 2584320
I0428 20:00:07.251801 29401 layer_factory.hpp:77] Creating layer relu2
I0428 20:00:07.251809 29401 net.cpp:86] Creating Layer relu2
I0428 20:00:07.251816 29401 net.cpp:408] relu2 <- ip2
I0428 20:00:07.251821 29401 net.cpp:369] relu2 -> ip2 (in-place)
I0428 20:00:07.252511 29401 net.cpp:124] Setting up relu2
I0428 20:00:07.252524 29401 net.cpp:131] Top shape: 64 10 (640)
I0428 20:00:07.252529 29401 net.cpp:139] Memory required for data: 2586880
I0428 20:00:07.252534 29401 layer_factory.hpp:77] Creating layer loss
I0428 20:00:07.252562 29401 net.cpp:86] Creating Layer loss
I0428 20:00:07.252566 29401 net.cpp:408] loss <- ip2
I0428 20:00:07.252573 29401 net.cpp:408] loss <- label
I0428 20:00:07.252583 29401 net.cpp:382] loss -> loss
I0428 20:00:07.252619 29401 layer_factory.hpp:77] Creating layer loss
…
I0428 20:00:07.253480 29401 solver.cpp:173] Creating test net (#0) specified by net file: ECE595/mnist/train_test/var_everything2/lenet_train_test867.prototxt
I0428 20:00:07.253512 29401 net.cpp:296] The NetState phase (1) differed from the phase (0) specified by a rule in layer mnist
I0428 20:00:07.253605 29401 net.cpp:53] Initializing net from parameters: 
name: "LeNet"
state {
  phase: TEST
}
layer {
  name: "mnist"
  type: "Data"
  top: "data"
  top: "label"
  include {
    phase: TEST
  }
  transform_param {
    scale: 0.00390625
  }
  data_param {
    source: "examples/mnist/mnist_test_lmdb"
    batch_size: 100
    backend: LMDB
  }
}
layer {
  name: "conv0"
  type: "Convolution"
  bottom: "data"
  top: "conv0"
  param {
    lr_mult: 1
  }
  param {
    lr_mult: 2
  }
  convolution_param {
    num_output: 10
    kernel_size: 5
    stride: 1
    weight_filler {
      type: "xavier"
    }
    bias_filler {
      type: "constant"
    }
  }
}
layer {
  name: "pool0"
  type: "Pooling"
  bottom: "conv0"
  top: "pool0"
  pooling_param {
    pool: MAX
    kernel_size: 2
    stride: 2
  }
}
layer {
  name: "conv1"
  type: "Convolution"
  bottom: "pool0"
  top: "conv1"
  param {
    lr_mult: 1
  }
  param {
    lr_mult: 2
  }
  convolution_param {
    num_output: 25
    kernel_size: 5
    stride: 1
    weight_filler {
      type: "xavier"
    }
    bias_filler {
      type: "constant"
    }
  }
}
layer {
  name: "pool1"
  type: "Pooling"
  bottom: "conv1"
  top: "pool1"
  pooling_param {
    pool: MAX
    kernel_size: 2
    stride: 2
  }
}
layer {
  name: "ip1"
  type: "InnerProduct"
  bottom: "pool1"
  top: "ip1"
  param {
    lr_mult: 1
  }
  param {
    lr_mult: 2
  }
  inner_product_param {
    num_output: 50
    weight_filler {
      type: "xavier"
    }
    bias_filler {
      type: "constant"
    }
  }
}
layer {
  name: "relu1"
  type: "ReLU"
  bottom: "ip1"
  top: "ip1"
}
layer {
  name: "ip2"
  type: "InnerProduct"
  bottom: "ip1"
  top: "ip2"
  param {
    lr_mult: 1
  }
  param {
    lr_mult: 2
  }
  inner_product_param {
    num_output: 10
    weight_filler {
      type: "xavier"
    }
    bias_filler {
      type: "constant"
    }
  }
}
layer {
  name: "relu2"
  type: "ReLU"
  bottom: "ip2"
  top: "ip2"
}
layer {
  name: "accuracy"
  type: "Accuracy"
  bottom: "ip2"
  bottom: "label"
  top: "accuracy"
  include {
    phase: TEST
  }
}
layer {
  name: "loss"
  type: "SoftmaxWithLoss"
  bottom: "ip2"
  bottom: "label"
  top: "loss"
}
I0428 20:00:07.253720 29401 layer_factory.hpp:77] Creating layer mnist
I0428 20:00:07.253793 29401 db_lmdb.cpp:35] Opened lmdb examples/mnist/mnist_test_lmdb
I0428 20:00:07.253810 29401 net.cpp:86] Creating Layer mnist
I0428 20:00:07.253818 29401 net.cpp:382] mnist -> data
I0428 20:00:07.253829 29401 net.cpp:382] mnist -> label
I0428 20:00:07.253955 29401 data_layer.cpp:45] output data size: 100,1,28,28
I0428 20:00:07.256219 29401 net.cpp:124] Setting up mnist
I0428 20:00:07.256248 29401 net.cpp:131] Top shape: 100 1 28 28 (78400)
I0428 20:00:07.256258 29401 net.cpp:131] Top shape: 100 (100)
I0428 20:00:07.256263 29401 net.cpp:139] Memory required for data: 314000
I0428 20:00:07.256268 29401 layer_factory.hpp:77] Creating layer label_mnist_1_split
I0428 20:00:07.256278 29401 net.cpp:86] Creating Layer label_mnist_1_split
I0428 20:00:07.256283 29401 net.cpp:408] label_mnist_1_split <- label
I0428 20:00:07.256290 29401 net.cpp:382] label_mnist_1_split -> label_mnist_1_split_0
I0428 20:00:07.256300 29401 net.cpp:382] label_mnist_1_split -> label_mnist_1_split_1
I0428 20:00:07.256402 29401 net.cpp:124] Setting up label_mnist_1_split
I0428 20:00:07.256412 29401 net.cpp:131] Top shape: 100 (100)
I0428 20:00:07.256417 29401 net.cpp:131] Top shape: 100 (100)
I0428 20:00:07.256422 29401 net.cpp:139] Memory required for data: 314800
I0428 20:00:07.256428 29401 layer_factory.hpp:77] Creating layer conv0
I0428 20:00:07.256443 29401 net.cpp:86] Creating Layer conv0
I0428 20:00:07.256449 29401 net.cpp:408] conv0 <- data
I0428 20:00:07.256459 29401 net.cpp:382] conv0 -> conv0
I0428 20:00:07.258163 29401 net.cpp:124] Setting up conv0
I0428 20:00:07.258178 29401 net.cpp:131] Top shape: 100 10 24 24 (576000)
I0428 20:00:07.258184 29401 net.cpp:139] Memory required for data: 2618800
I0428 20:00:07.258198 29401 layer_factory.hpp:77] Creating layer pool0
I0428 20:00:07.258208 29401 net.cpp:86] Creating Layer pool0
I0428 20:00:07.258214 29401 net.cpp:408] pool0 <- conv0
I0428 20:00:07.258222 29401 net.cpp:382] pool0 -> pool0
I0428 20:00:07.258265 29401 net.cpp:124] Setting up pool0
I0428 20:00:07.258273 29401 net.cpp:131] Top shape: 100 10 12 12 (144000)
I0428 20:00:07.258277 29401 net.cpp:139] Memory required for data: 3194800
I0428 20:00:07.258282 29401 layer_factory.hpp:77] Creating layer conv1
I0428 20:00:07.258296 29401 net.cpp:86] Creating Layer conv1
I0428 20:00:07.258302 29401 net.cpp:408] conv1 <- pool0
I0428 20:00:07.258312 29401 net.cpp:382] conv1 -> conv1
I0428 20:00:07.260548 29401 net.cpp:124] Setting up conv1
I0428 20:00:07.260562 29401 net.cpp:131] Top shape: 100 25 8 8 (160000)
I0428 20:00:07.260568 29401 net.cpp:139] Memory required for data: 3834800
I0428 20:00:07.260597 29401 layer_factory.hpp:77] Creating layer pool1
I0428 20:00:07.260608 29401 net.cpp:86] Creating Layer pool1
I0428 20:00:07.260620 29401 net.cpp:408] pool1 <- conv1
I0428 20:00:07.260630 29401 net.cpp:382] pool1 -> pool1
I0428 20:00:07.260676 29401 net.cpp:124] Setting up pool1
I0428 20:00:07.260684 29401 net.cpp:131] Top shape: 100 25 4 4 (40000)
I0428 20:00:07.260689 29401 net.cpp:139] Memory required for data: 3994800
I0428 20:00:07.260694 29401 layer_factory.hpp:77] Creating layer ip1
I0428 20:00:07.260704 29401 net.cpp:86] Creating Layer ip1
I0428 20:00:07.260710 29401 net.cpp:408] ip1 <- pool1
I0428 20:00:07.260717 29401 net.cpp:382] ip1 -> ip1
I0428 20:00:07.261025 29401 net.cpp:124] Setting up ip1
I0428 20:00:07.261036 29401 net.cpp:131] Top shape: 100 50 (5000)
I0428 20:00:07.261041 29401 net.cpp:139] Memory required for data: 4014800
I0428 20:00:07.261054 29401 layer_factory.hpp:77] Creating layer relu1
I0428 20:00:07.261063 29401 net.cpp:86] Creating Layer relu1
I0428 20:00:07.261070 29401 net.cpp:408] relu1 <- ip1
I0428 20:00:07.261078 29401 net.cpp:369] relu1 -> ip1 (in-place)
I0428 20:00:07.261281 29401 net.cpp:124] Setting up relu1
I0428 20:00:07.261291 29401 net.cpp:131] Top shape: 100 50 (5000)
I0428 20:00:07.261297 29401 net.cpp:139] Memory required for data: 4034800
I0428 20:00:07.261301 29401 layer_factory.hpp:77] Creating layer ip2
I0428 20:00:07.261314 29401 net.cpp:86] Creating Layer ip2
I0428 20:00:07.261335 29401 net.cpp:408] ip2 <- ip1
I0428 20:00:07.261344 29401 net.cpp:382] ip2 -> ip2
I0428 20:00:07.261452 29401 net.cpp:124] Setting up ip2
I0428 20:00:07.261461 29401 net.cpp:131] Top shape: 100 10 (1000)
I0428 20:00:07.261464 29401 net.cpp:139] Memory required for data: 4038800
I0428 20:00:07.261473 29401 layer_factory.hpp:77] Creating layer relu2
I0428 20:00:07.261482 29401 net.cpp:86] Creating Layer relu2
I0428 20:00:07.261488 29401 net.cpp:408] relu2 <- ip2
I0428 20:00:07.261494 29401 net.cpp:369] relu2 -> ip2 (in-place)
I0428 20:00:07.261675 29401 net.cpp:124] Setting up relu2
I0428 20:00:07.261685 29401 net.cpp:131] Top shape: 100 10 (1000)
I0428 20:00:07.261690 29401 net.cpp:139] Memory required for data: 4042800
I0428 20:00:07.261696 29401 layer_factory.hpp:77] Creating layer ip2_relu2_0_split
I0428 20:00:07.261703 29401 net.cpp:86] Creating Layer ip2_relu2_0_split
I0428 20:00:07.261708 29401 net.cpp:408] ip2_relu2_0_split <- ip2
I0428 20:00:07.261715 29401 net.cpp:382] ip2_relu2_0_split -> ip2_relu2_0_split_0
I0428 20:00:07.261737 29401 net.cpp:382] ip2_relu2_0_split -> ip2_relu2_0_split_1
I0428 20:00:07.261785 29401 net.cpp:124] Setting up ip2_relu2_0_split
I0428 20:00:07.261792 29401 net.cpp:131] Top shape: 100 10 (1000)
I0428 20:00:07.261798 29401 net.cpp:131] Top shape: 100 10 (1000)
I0428 20:00:07.261803 29401 net.cpp:139] Memory required for data: 4050800
I0428 20:00:07.261808 29401 layer_factory.hpp:77] Creating layer accuracy
I0428 20:00:07.261817 29401 net.cpp:86] Creating Layer accuracy
I0428 20:00:07.261822 29401 net.cpp:408] accuracy <- ip2_relu2_0_split_0
I0428 20:00:07.261829 29401 net.cpp:408] accuracy <- label_mnist_1_split_0
I0428 20:00:07.261837 29401 net.cpp:382] accuracy -> accuracy
…
