…
I0428 20:25:08.539897  2543 net.cpp:296] The NetState phase (0) differed from the phase (1) specified by a rule in layer mnist
I0428 20:25:08.539917  2543 net.cpp:296] The NetState phase (0) differed from the phase (1) specified by a rule in layer accuracy
I0428 20:25:08.540009  2543 net.cpp:53] Initializing net from parameters: 
name: "LeNet"
state {
  phase: TRAIN
  level: 0
  stage: ""
}
layer {
  name: "mnist"
  type: "Data"
  top: "data"
  top: "label"
  include {
    phase: TRAIN
  }
  transform_param {
    scale: 0.00390625
  }
  data_param {
    source: "examples/mnist/mnist_train_lmdb"
    batch_size: 64
    backend: LMDB
  }
}
layer {
  name: "conv0"
  type: "Convolution"
  bottom: "data"
  top: "conv0"
  param {
    lr_mult: 1
  }
  param {
    lr_mult: 2
  }
  convolution_param {
    num_output: 100
    kernel_size: 5
    stride: 1
    weight_filler {
      type: "xavier"
    }
    bias_filler {
      type: "constant"
    }
  }
}
layer {
  name: "pool0"
  type: "Pooling"
  bottom: "conv0"
  top: "pool0"
  pooling_param {
    pool: MAX
    kernel_size: 2
    stride: 2
  }
}
layer {
  name: "conv1"
  type: "Convolution"
  bottom: "pool0"
  top: "conv1"
  param {
    lr_mult: 1
  }
  param {
    lr_mult: 2
  }
  convolution_param {
    num_output: 2
    kernel_size: 5
    stride: 1
    weight_filler {
      type: "xavier"
    }
    bias_filler {
      type: "constant"
    }
  }
}
layer {
  name: "pool1"
  type: "Pooling"
  bottom: "conv1"
  top: "pool1"
  pooling_param {
    pool: MAX
    kernel_size: 2
    stride: 2
  }
}
layer {
  name: "ip1"
  type: "InnerProduct"
  bottom: "pool1"
  top: "ip1"
  param {
    lr_mult: 1
  }
  param {
    lr_mult: 2
  }
  inner_product_param {
    num_output: 25
    weight_filler {
      type: "xavier"
    }
    bias_filler {
      type: "constant"
    }
  }
}
layer {
  name: "relu1"
  type: "ReLU"
  bottom: "ip1"
  top: "ip1"
}
layer {
  name: "ip2"
  type: "InnerProduct"
  bottom: "ip1"
  top: "ip2"
  param {
    lr_mult: 1
  }
  param {
    lr_mult: 2
  }
  inner_product_param {
    num_output: 10
    weight_filler {
      type: "xavier"
    }
    bias_filler {
      type: "constant"
    }
  }
}
layer {
  name: "relu2"
  type: "ReLU"
  bottom: "ip2"
  top: "ip2"
}
layer {
  name: "loss"
  type: "SoftmaxWithLoss"
  bottom: "ip2"
  bottom: "label"
  top: "loss"
}
I0428 20:25:08.540088  2543 layer_factory.hpp:77] Creating layer mnist
I0428 20:25:08.540189  2543 db_lmdb.cpp:35] Opened lmdb examples/mnist/mnist_train_lmdb
I0428 20:25:08.540213  2543 net.cpp:86] Creating Layer mnist
I0428 20:25:08.540221  2543 net.cpp:382] mnist -> data
I0428 20:25:08.540246  2543 net.cpp:382] mnist -> label
I0428 20:25:08.541342  2543 data_layer.cpp:45] output data size: 64,1,28,28
I0428 20:25:08.544008  2543 net.cpp:124] Setting up mnist
I0428 20:25:08.544033  2543 net.cpp:131] Top shape: 64 1 28 28 (50176)
I0428 20:25:08.544039  2543 net.cpp:131] Top shape: 64 (64)
I0428 20:25:08.544042  2543 net.cpp:139] Memory required for data: 200960
I0428 20:25:08.544050  2543 layer_factory.hpp:77] Creating layer conv0
I0428 20:25:08.544067  2543 net.cpp:86] Creating Layer conv0
I0428 20:25:08.544073  2543 net.cpp:408] conv0 <- data
I0428 20:25:08.544085  2543 net.cpp:382] conv0 -> conv0
I0428 20:25:08.836413  2543 net.cpp:124] Setting up conv0
I0428 20:25:08.836447  2543 net.cpp:131] Top shape: 64 100 24 24 (3686400)
I0428 20:25:08.836452  2543 net.cpp:139] Memory required for data: 14946560
I0428 20:25:08.836495  2543 layer_factory.hpp:77] Creating layer pool0
I0428 20:25:08.836510  2543 net.cpp:86] Creating Layer pool0
I0428 20:25:08.836515  2543 net.cpp:408] pool0 <- conv0
I0428 20:25:08.836522  2543 net.cpp:382] pool0 -> pool0
I0428 20:25:08.836580  2543 net.cpp:124] Setting up pool0
I0428 20:25:08.836589  2543 net.cpp:131] Top shape: 64 100 12 12 (921600)
I0428 20:25:08.836594  2543 net.cpp:139] Memory required for data: 18632960
I0428 20:25:08.836598  2543 layer_factory.hpp:77] Creating layer conv1
I0428 20:25:08.836611  2543 net.cpp:86] Creating Layer conv1
I0428 20:25:08.836616  2543 net.cpp:408] conv1 <- pool0
I0428 20:25:08.836622  2543 net.cpp:382] conv1 -> conv1
I0428 20:25:08.839787  2543 net.cpp:124] Setting up conv1
I0428 20:25:08.839805  2543 net.cpp:131] Top shape: 64 2 8 8 (8192)
I0428 20:25:08.839810  2543 net.cpp:139] Memory required for data: 18665728
I0428 20:25:08.839821  2543 layer_factory.hpp:77] Creating layer pool1
I0428 20:25:08.839831  2543 net.cpp:86] Creating Layer pool1
I0428 20:25:08.839836  2543 net.cpp:408] pool1 <- conv1
I0428 20:25:08.839843  2543 net.cpp:382] pool1 -> pool1
I0428 20:25:08.839886  2543 net.cpp:124] Setting up pool1
I0428 20:25:08.839893  2543 net.cpp:131] Top shape: 64 2 4 4 (2048)
I0428 20:25:08.839897  2543 net.cpp:139] Memory required for data: 18673920
I0428 20:25:08.839901  2543 layer_factory.hpp:77] Creating layer ip1
I0428 20:25:08.839910  2543 net.cpp:86] Creating Layer ip1
I0428 20:25:08.839915  2543 net.cpp:408] ip1 <- pool1
I0428 20:25:08.839920  2543 net.cpp:382] ip1 -> ip1
I0428 20:25:08.840037  2543 net.cpp:124] Setting up ip1
I0428 20:25:08.840046  2543 net.cpp:131] Top shape: 64 25 (1600)
I0428 20:25:08.840051  2543 net.cpp:139] Memory required for data: 18680320
I0428 20:25:08.840059  2543 layer_factory.hpp:77] Creating layer relu1
I0428 20:25:08.840066  2543 net.cpp:86] Creating Layer relu1
I0428 20:25:08.840070  2543 net.cpp:408] relu1 <- ip1
I0428 20:25:08.840076  2543 net.cpp:369] relu1 -> ip1 (in-place)
I0428 20:25:08.840279  2543 net.cpp:124] Setting up relu1
I0428 20:25:08.840291  2543 net.cpp:131] Top shape: 64 25 (1600)
I0428 20:25:08.840296  2543 net.cpp:139] Memory required for data: 18686720
I0428 20:25:08.840301  2543 layer_factory.hpp:77] Creating layer ip2
I0428 20:25:08.840308  2543 net.cpp:86] Creating Layer ip2
I0428 20:25:08.840312  2543 net.cpp:408] ip2 <- ip1
I0428 20:25:08.840318  2543 net.cpp:382] ip2 -> ip2
I0428 20:25:08.840430  2543 net.cpp:124] Setting up ip2
I0428 20:25:08.840440  2543 net.cpp:131] Top shape: 64 10 (640)
I0428 20:25:08.840443  2543 net.cpp:139] Memory required for data: 18689280
I0428 20:25:08.840451  2543 layer_factory.hpp:77] Creating layer relu2
I0428 20:25:08.840457  2543 net.cpp:86] Creating Layer relu2
I0428 20:25:08.840461  2543 net.cpp:408] relu2 <- ip2
I0428 20:25:08.840467  2543 net.cpp:369] relu2 -> ip2 (in-place)
I0428 20:25:08.841322  2543 net.cpp:124] Setting up relu2
I0428 20:25:08.841338  2543 net.cpp:131] Top shape: 64 10 (640)
I0428 20:25:08.841343  2543 net.cpp:139] Memory required for data: 18691840
I0428 20:25:08.841348  2543 layer_factory.hpp:77] Creating layer loss
I0428 20:25:08.841356  2543 net.cpp:86] Creating Layer loss
I0428 20:25:08.841361  2543 net.cpp:408] loss <- ip2
I0428 20:25:08.841367  2543 net.cpp:408] loss <- label
I0428 20:25:08.841373  2543 net.cpp:382] loss -> loss
I0428 20:25:08.841393  2543 layer_factory.hpp:77] Creating layer loss
…
I0428 20:25:08.842130  2543 solver.cpp:173] Creating test net (#0) specified by net file: ECE595/mnist/train_test/var_everything2/lenet_train_test1449.prototxt
I0428 20:25:08.842161  2543 net.cpp:296] The NetState phase (1) differed from the phase (0) specified by a rule in layer mnist
I0428 20:25:08.842262  2543 net.cpp:53] Initializing net from parameters: 
name: "LeNet"
state {
  phase: TEST
}
layer {
  name: "mnist"
  type: "Data"
  top: "data"
  top: "label"
  include {
    phase: TEST
  }
  transform_param {
    scale: 0.00390625
  }
  data_param {
    source: "examples/mnist/mnist_test_lmdb"
    batch_size: 100
    backend: LMDB
  }
}
layer {
  name: "conv0"
  type: "Convolution"
  bottom: "data"
  top: "conv0"
  param {
    lr_mult: 1
  }
  param {
    lr_mult: 2
  }
  convolution_param {
    num_output: 100
    kernel_size: 5
    stride: 1
    weight_filler {
      type: "xavier"
    }
    bias_filler {
      type: "constant"
    }
  }
}
layer {
  name: "pool0"
  type: "Pooling"
  bottom: "conv0"
  top: "pool0"
  pooling_param {
    pool: MAX
    kernel_size: 2
    stride: 2
  }
}
layer {
  name: "conv1"
  type: "Convolution"
  bottom: "pool0"
  top: "conv1"
  param {
    lr_mult: 1
  }
  param {
    lr_mult: 2
  }
  convolution_param {
    num_output: 2
    kernel_size: 5
    stride: 1
    weight_filler {
      type: "xavier"
    }
    bias_filler {
      type: "constant"
    }
  }
}
layer {
  name: "pool1"
  type: "Pooling"
  bottom: "conv1"
  top: "pool1"
  pooling_param {
    pool: MAX
    kernel_size: 2
    stride: 2
  }
}
layer {
  name: "ip1"
  type: "InnerProduct"
  bottom: "pool1"
  top: "ip1"
  param {
    lr_mult: 1
  }
  param {
    lr_mult: 2
  }
  inner_product_param {
    num_output: 25
    weight_filler {
      type: "xavier"
    }
    bias_filler {
      type: "constant"
    }
  }
}
layer {
  name: "relu1"
  type: "ReLU"
  bottom: "ip1"
  top: "ip1"
}
layer {
  name: "ip2"
  type: "InnerProduct"
  bottom: "ip1"
  top: "ip2"
  param {
    lr_mult: 1
  }
  param {
    lr_mult: 2
  }
  inner_product_param {
    num_output: 10
    weight_filler {
      type: "xavier"
    }
    bias_filler {
      type: "constant"
    }
  }
}
layer {
  name: "relu2"
  type: "ReLU"
  bottom: "ip2"
  top: "ip2"
}
layer {
  name: "accuracy"
  type: "Accuracy"
  bottom: "ip2"
  bottom: "label"
  top: "accuracy"
  include {
    phase: TEST
  }
}
layer {
  name: "loss"
  type: "SoftmaxWithLoss"
  bottom: "ip2"
  bottom: "label"
  top: "loss"
}
I0428 20:25:08.842339  2543 layer_factory.hpp:77] Creating layer mnist
I0428 20:25:08.842393  2543 db_lmdb.cpp:35] Opened lmdb examples/mnist/mnist_test_lmdb
I0428 20:25:08.842408  2543 net.cpp:86] Creating Layer mnist
I0428 20:25:08.842414  2543 net.cpp:382] mnist -> data
I0428 20:25:08.842423  2543 net.cpp:382] mnist -> label
I0428 20:25:08.842525  2543 data_layer.cpp:45] output data size: 100,1,28,28
I0428 20:25:08.844727  2543 net.cpp:124] Setting up mnist
I0428 20:25:08.844744  2543 net.cpp:131] Top shape: 100 1 28 28 (78400)
I0428 20:25:08.844750  2543 net.cpp:131] Top shape: 100 (100)
I0428 20:25:08.844754  2543 net.cpp:139] Memory required for data: 314000
I0428 20:25:08.844759  2543 layer_factory.hpp:77] Creating layer label_mnist_1_split
I0428 20:25:08.844769  2543 net.cpp:86] Creating Layer label_mnist_1_split
I0428 20:25:08.844772  2543 net.cpp:408] label_mnist_1_split <- label
I0428 20:25:08.844779  2543 net.cpp:382] label_mnist_1_split -> label_mnist_1_split_0
I0428 20:25:08.844787  2543 net.cpp:382] label_mnist_1_split -> label_mnist_1_split_1
I0428 20:25:08.845007  2543 net.cpp:124] Setting up label_mnist_1_split
I0428 20:25:08.845038  2543 net.cpp:131] Top shape: 100 (100)
I0428 20:25:08.845053  2543 net.cpp:131] Top shape: 100 (100)
I0428 20:25:08.845060  2543 net.cpp:139] Memory required for data: 314800
I0428 20:25:08.845068  2543 layer_factory.hpp:77] Creating layer conv0
I0428 20:25:08.845089  2543 net.cpp:86] Creating Layer conv0
I0428 20:25:08.845098  2543 net.cpp:408] conv0 <- data
I0428 20:25:08.845111  2543 net.cpp:382] conv0 -> conv0
I0428 20:25:08.847882  2543 net.cpp:124] Setting up conv0
I0428 20:25:08.847910  2543 net.cpp:131] Top shape: 100 100 24 24 (5760000)
I0428 20:25:08.847918  2543 net.cpp:139] Memory required for data: 23354800
I0428 20:25:08.847937  2543 layer_factory.hpp:77] Creating layer pool0
I0428 20:25:08.847950  2543 net.cpp:86] Creating Layer pool0
I0428 20:25:08.847957  2543 net.cpp:408] pool0 <- conv0
I0428 20:25:08.847968  2543 net.cpp:382] pool0 -> pool0
I0428 20:25:08.848037  2543 net.cpp:124] Setting up pool0
I0428 20:25:08.848050  2543 net.cpp:131] Top shape: 100 100 12 12 (1440000)
I0428 20:25:08.848057  2543 net.cpp:139] Memory required for data: 29114800
I0428 20:25:08.848063  2543 layer_factory.hpp:77] Creating layer conv1
I0428 20:25:08.848081  2543 net.cpp:86] Creating Layer conv1
I0428 20:25:08.848094  2543 net.cpp:408] conv1 <- pool0
I0428 20:25:08.848107  2543 net.cpp:382] conv1 -> conv1
I0428 20:25:08.850764  2543 net.cpp:124] Setting up conv1
I0428 20:25:08.850790  2543 net.cpp:131] Top shape: 100 2 8 8 (12800)
I0428 20:25:08.850798  2543 net.cpp:139] Memory required for data: 29166000
I0428 20:25:08.850814  2543 layer_factory.hpp:77] Creating layer pool1
I0428 20:25:08.850828  2543 net.cpp:86] Creating Layer pool1
I0428 20:25:08.850836  2543 net.cpp:408] pool1 <- conv1
I0428 20:25:08.850847  2543 net.cpp:382] pool1 -> pool1
I0428 20:25:08.850916  2543 net.cpp:124] Setting up pool1
I0428 20:25:08.850929  2543 net.cpp:131] Top shape: 100 2 4 4 (3200)
I0428 20:25:08.850950  2543 net.cpp:139] Memory required for data: 29178800
I0428 20:25:08.850962  2543 layer_factory.hpp:77] Creating layer ip1
I0428 20:25:08.850975  2543 net.cpp:86] Creating Layer ip1
I0428 20:25:08.850980  2543 net.cpp:408] ip1 <- pool1
I0428 20:25:08.850992  2543 net.cpp:382] ip1 -> ip1
I0428 20:25:08.851187  2543 net.cpp:124] Setting up ip1
I0428 20:25:08.851202  2543 net.cpp:131] Top shape: 100 25 (2500)
I0428 20:25:08.851208  2543 net.cpp:139] Memory required for data: 29188800
I0428 20:25:08.851222  2543 layer_factory.hpp:77] Creating layer relu1
I0428 20:25:08.851231  2543 net.cpp:86] Creating Layer relu1
I0428 20:25:08.851238  2543 net.cpp:408] relu1 <- ip1
I0428 20:25:08.851249  2543 net.cpp:369] relu1 -> ip1 (in-place)
I0428 20:25:08.851608  2543 net.cpp:124] Setting up relu1
I0428 20:25:08.851626  2543 net.cpp:131] Top shape: 100 25 (2500)
I0428 20:25:08.851632  2543 net.cpp:139] Memory required for data: 29198800
I0428 20:25:08.851639  2543 layer_factory.hpp:77] Creating layer ip2
I0428 20:25:08.851652  2543 net.cpp:86] Creating Layer ip2
I0428 20:25:08.851660  2543 net.cpp:408] ip2 <- ip1
I0428 20:25:08.851668  2543 net.cpp:382] ip2 -> ip2
I0428 20:25:08.851852  2543 net.cpp:124] Setting up ip2
I0428 20:25:08.851864  2543 net.cpp:131] Top shape: 100 10 (1000)
I0428 20:25:08.851871  2543 net.cpp:139] Memory required for data: 29202800
I0428 20:25:08.851881  2543 layer_factory.hpp:77] Creating layer relu2
I0428 20:25:08.851889  2543 net.cpp:86] Creating Layer relu2
I0428 20:25:08.851896  2543 net.cpp:408] relu2 <- ip2
I0428 20:25:08.851905  2543 net.cpp:369] relu2 -> ip2 (in-place)
I0428 20:25:08.852198  2543 net.cpp:124] Setting up relu2
I0428 20:25:08.852213  2543 net.cpp:131] Top shape: 100 10 (1000)
I0428 20:25:08.852219  2543 net.cpp:139] Memory required for data: 29206800
I0428 20:25:08.852224  2543 layer_factory.hpp:77] Creating layer ip2_relu2_0_split
I0428 20:25:08.852241  2543 net.cpp:86] Creating Layer ip2_relu2_0_split
I0428 20:25:08.852247  2543 net.cpp:408] ip2_relu2_0_split <- ip2
I0428 20:25:08.852258  2543 net.cpp:382] ip2_relu2_0_split -> ip2_relu2_0_split_0
I0428 20:25:08.852288  2543 net.cpp:382] ip2_relu2_0_split -> ip2_relu2_0_split_1
I0428 20:25:08.852350  2543 net.cpp:124] Setting up ip2_relu2_0_split
I0428 20:25:08.852361  2543 net.cpp:131] Top shape: 100 10 (1000)
I0428 20:25:08.852370  2543 net.cpp:131] Top shape: 100 10 (1000)
I0428 20:25:08.852375  2543 net.cpp:139] Memory required for data: 29214800
I0428 20:25:08.852380  2543 layer_factory.hpp:77] Creating layer accuracy
I0428 20:25:08.852391  2543 net.cpp:86] Creating Layer accuracy
I0428 20:25:08.852397  2543 net.cpp:408] accuracy <- ip2_relu2_0_split_0
I0428 20:25:08.852404  2543 net.cpp:408] accuracy <- label_mnist_1_split_0
I0428 20:25:08.852414  2543 net.cpp:382] accuracy -> accuracy
…
