…
I0428 20:03:49.100599 30271 net.cpp:296] The NetState phase (0) differed from the phase (1) specified by a rule in layer mnist
I0428 20:03:49.100618 30271 net.cpp:296] The NetState phase (0) differed from the phase (1) specified by a rule in layer accuracy
I0428 20:03:49.100720 30271 net.cpp:53] Initializing net from parameters: 
name: "LeNet"
state {
  phase: TRAIN
  level: 0
  stage: ""
}
layer {
  name: "mnist"
  type: "Data"
  top: "data"
  top: "label"
  include {
    phase: TRAIN
  }
  transform_param {
    scale: 0.00390625
  }
  data_param {
    source: "examples/mnist/mnist_train_lmdb"
    batch_size: 64
    backend: LMDB
  }
}
layer {
  name: "conv0"
  type: "Convolution"
  bottom: "data"
  top: "conv0"
  param {
    lr_mult: 1
  }
  param {
    lr_mult: 2
  }
  convolution_param {
    num_output: 10
    kernel_size: 5
    stride: 1
    weight_filler {
      type: "xavier"
    }
    bias_filler {
      type: "constant"
    }
  }
}
layer {
  name: "pool0"
  type: "Pooling"
  bottom: "conv0"
  top: "pool0"
  pooling_param {
    pool: MAX
    kernel_size: 2
    stride: 2
  }
}
layer {
  name: "conv1"
  type: "Convolution"
  bottom: "pool0"
  top: "conv1"
  param {
    lr_mult: 1
  }
  param {
    lr_mult: 2
  }
  convolution_param {
    num_output: 100
    kernel_size: 5
    stride: 1
    weight_filler {
      type: "xavier"
    }
    bias_filler {
      type: "constant"
    }
  }
}
layer {
  name: "pool1"
  type: "Pooling"
  bottom: "conv1"
  top: "pool1"
  pooling_param {
    pool: MAX
    kernel_size: 2
    stride: 2
  }
}
layer {
  name: "ip1"
  type: "InnerProduct"
  bottom: "pool1"
  top: "ip1"
  param {
    lr_mult: 1
  }
  param {
    lr_mult: 2
  }
  inner_product_param {
    num_output: 25
    weight_filler {
      type: "xavier"
    }
    bias_filler {
      type: "constant"
    }
  }
}
layer {
  name: "relu1"
  type: "ReLU"
  bottom: "ip1"
  top: "ip1"
}
layer {
  name: "ip2"
  type: "InnerProduct"
  bottom: "ip1"
  top: "ip2"
  param {
    lr_mult: 1
  }
  param {
    lr_mult: 2
  }
  inner_product_param {
    num_output: 10
    weight_filler {
      type: "xavier"
    }
    bias_filler {
      type: "constant"
    }
  }
}
layer {
  name: "relu2"
  type: "ReLU"
  bottom: "ip2"
  top: "ip2"
}
layer {
  name: "ip3"
  type: "InnerProduct"
  bottom: "ip2"
  top: "ip3"
  param {
    lr_mult: 1
  }
  param {
    lr_mult: 2
  }
  inner_product_param {
    num_output: 10
    weight_filler {
      type: "xavier"
    }
    bias_filler {
      type: "constant"
    }
  }
}
layer {
  name: "relu3"
  type: "ReLU"
  bottom: "ip3"
  top: "ip3"
}
layer {
  name: "loss"
  type: "SoftmaxWithLoss"
  bottom: "ip3"
  bottom: "label"
  top: "loss"
}
I0428 20:03:49.100802 30271 layer_factory.hpp:77] Creating layer mnist
I0428 20:03:49.100914 30271 db_lmdb.cpp:35] Opened lmdb examples/mnist/mnist_train_lmdb
I0428 20:03:49.100939 30271 net.cpp:86] Creating Layer mnist
I0428 20:03:49.100947 30271 net.cpp:382] mnist -> data
I0428 20:03:49.100970 30271 net.cpp:382] mnist -> label
I0428 20:03:49.102056 30271 data_layer.cpp:45] output data size: 64,1,28,28
I0428 20:03:49.104495 30271 net.cpp:124] Setting up mnist
I0428 20:03:49.104512 30271 net.cpp:131] Top shape: 64 1 28 28 (50176)
I0428 20:03:49.104518 30271 net.cpp:131] Top shape: 64 (64)
I0428 20:03:49.104522 30271 net.cpp:139] Memory required for data: 200960
I0428 20:03:49.104529 30271 layer_factory.hpp:77] Creating layer conv0
I0428 20:03:49.104570 30271 net.cpp:86] Creating Layer conv0
I0428 20:03:49.104591 30271 net.cpp:408] conv0 <- data
I0428 20:03:49.104605 30271 net.cpp:382] conv0 -> conv0
I0428 20:03:49.367571 30271 net.cpp:124] Setting up conv0
I0428 20:03:49.367596 30271 net.cpp:131] Top shape: 64 10 24 24 (368640)
I0428 20:03:49.367600 30271 net.cpp:139] Memory required for data: 1675520
I0428 20:03:49.367614 30271 layer_factory.hpp:77] Creating layer pool0
I0428 20:03:49.367625 30271 net.cpp:86] Creating Layer pool0
I0428 20:03:49.367629 30271 net.cpp:408] pool0 <- conv0
I0428 20:03:49.367633 30271 net.cpp:382] pool0 -> pool0
I0428 20:03:49.367696 30271 net.cpp:124] Setting up pool0
I0428 20:03:49.367700 30271 net.cpp:131] Top shape: 64 10 12 12 (92160)
I0428 20:03:49.367703 30271 net.cpp:139] Memory required for data: 2044160
I0428 20:03:49.367707 30271 layer_factory.hpp:77] Creating layer conv1
I0428 20:03:49.367717 30271 net.cpp:86] Creating Layer conv1
I0428 20:03:49.367719 30271 net.cpp:408] conv1 <- pool0
I0428 20:03:49.367724 30271 net.cpp:382] conv1 -> conv1
I0428 20:03:49.369874 30271 net.cpp:124] Setting up conv1
I0428 20:03:49.369889 30271 net.cpp:131] Top shape: 64 100 8 8 (409600)
I0428 20:03:49.369894 30271 net.cpp:139] Memory required for data: 3682560
I0428 20:03:49.369904 30271 layer_factory.hpp:77] Creating layer pool1
I0428 20:03:49.369911 30271 net.cpp:86] Creating Layer pool1
I0428 20:03:49.369915 30271 net.cpp:408] pool1 <- conv1
I0428 20:03:49.369920 30271 net.cpp:382] pool1 -> pool1
I0428 20:03:49.369959 30271 net.cpp:124] Setting up pool1
I0428 20:03:49.369974 30271 net.cpp:131] Top shape: 64 100 4 4 (102400)
I0428 20:03:49.369977 30271 net.cpp:139] Memory required for data: 4092160
I0428 20:03:49.369981 30271 layer_factory.hpp:77] Creating layer ip1
I0428 20:03:49.370007 30271 net.cpp:86] Creating Layer ip1
I0428 20:03:49.370012 30271 net.cpp:408] ip1 <- pool1
I0428 20:03:49.370018 30271 net.cpp:382] ip1 -> ip1
I0428 20:03:49.370393 30271 net.cpp:124] Setting up ip1
I0428 20:03:49.370401 30271 net.cpp:131] Top shape: 64 25 (1600)
I0428 20:03:49.370404 30271 net.cpp:139] Memory required for data: 4098560
I0428 20:03:49.370411 30271 layer_factory.hpp:77] Creating layer relu1
I0428 20:03:49.370416 30271 net.cpp:86] Creating Layer relu1
I0428 20:03:49.370419 30271 net.cpp:408] relu1 <- ip1
I0428 20:03:49.370424 30271 net.cpp:369] relu1 -> ip1 (in-place)
I0428 20:03:49.370615 30271 net.cpp:124] Setting up relu1
I0428 20:03:49.370622 30271 net.cpp:131] Top shape: 64 25 (1600)
I0428 20:03:49.370625 30271 net.cpp:139] Memory required for data: 4104960
I0428 20:03:49.370630 30271 layer_factory.hpp:77] Creating layer ip2
I0428 20:03:49.370635 30271 net.cpp:86] Creating Layer ip2
I0428 20:03:49.370638 30271 net.cpp:408] ip2 <- ip1
I0428 20:03:49.370642 30271 net.cpp:382] ip2 -> ip2
I0428 20:03:49.370751 30271 net.cpp:124] Setting up ip2
I0428 20:03:49.370759 30271 net.cpp:131] Top shape: 64 10 (640)
I0428 20:03:49.370761 30271 net.cpp:139] Memory required for data: 4107520
I0428 20:03:49.370782 30271 layer_factory.hpp:77] Creating layer relu2
I0428 20:03:49.370789 30271 net.cpp:86] Creating Layer relu2
I0428 20:03:49.370791 30271 net.cpp:408] relu2 <- ip2
I0428 20:03:49.370795 30271 net.cpp:369] relu2 -> ip2 (in-place)
I0428 20:03:49.371597 30271 net.cpp:124] Setting up relu2
I0428 20:03:49.371608 30271 net.cpp:131] Top shape: 64 10 (640)
I0428 20:03:49.371628 30271 net.cpp:139] Memory required for data: 4110080
I0428 20:03:49.371630 30271 layer_factory.hpp:77] Creating layer ip3
I0428 20:03:49.371637 30271 net.cpp:86] Creating Layer ip3
I0428 20:03:49.371640 30271 net.cpp:408] ip3 <- ip2
I0428 20:03:49.371646 30271 net.cpp:382] ip3 -> ip3
I0428 20:03:49.371758 30271 net.cpp:124] Setting up ip3
I0428 20:03:49.371765 30271 net.cpp:131] Top shape: 64 10 (640)
I0428 20:03:49.371783 30271 net.cpp:139] Memory required for data: 4112640
I0428 20:03:49.371791 30271 layer_factory.hpp:77] Creating layer relu3
I0428 20:03:49.371796 30271 net.cpp:86] Creating Layer relu3
I0428 20:03:49.371799 30271 net.cpp:408] relu3 <- ip3
I0428 20:03:49.371803 30271 net.cpp:369] relu3 -> ip3 (in-place)
I0428 20:03:49.371968 30271 net.cpp:124] Setting up relu3
I0428 20:03:49.371976 30271 net.cpp:131] Top shape: 64 10 (640)
I0428 20:03:49.371979 30271 net.cpp:139] Memory required for data: 4115200
I0428 20:03:49.371983 30271 layer_factory.hpp:77] Creating layer loss
I0428 20:03:49.371989 30271 net.cpp:86] Creating Layer loss
I0428 20:03:49.371991 30271 net.cpp:408] loss <- ip3
I0428 20:03:49.371995 30271 net.cpp:408] loss <- label
I0428 20:03:49.372000 30271 net.cpp:382] loss -> loss
I0428 20:03:49.372017 30271 layer_factory.hpp:77] Creating layer loss
…
I0428 20:03:49.372746 30271 solver.cpp:173] Creating test net (#0) specified by net file: ECE595/mnist/train_test/var_everything2/lenet_train_test959.prototxt
I0428 20:03:49.372787 30271 net.cpp:296] The NetState phase (1) differed from the phase (0) specified by a rule in layer mnist
I0428 20:03:49.372900 30271 net.cpp:53] Initializing net from parameters: 
name: "LeNet"
state {
  phase: TEST
}
layer {
  name: "mnist"
  type: "Data"
  top: "data"
  top: "label"
  include {
    phase: TEST
  }
  transform_param {
    scale: 0.00390625
  }
  data_param {
    source: "examples/mnist/mnist_test_lmdb"
    batch_size: 100
    backend: LMDB
  }
}
layer {
  name: "conv0"
  type: "Convolution"
  bottom: "data"
  top: "conv0"
  param {
    lr_mult: 1
  }
  param {
    lr_mult: 2
  }
  convolution_param {
    num_output: 10
    kernel_size: 5
    stride: 1
    weight_filler {
      type: "xavier"
    }
    bias_filler {
      type: "constant"
    }
  }
}
layer {
  name: "pool0"
  type: "Pooling"
  bottom: "conv0"
  top: "pool0"
  pooling_param {
    pool: MAX
    kernel_size: 2
    stride: 2
  }
}
layer {
  name: "conv1"
  type: "Convolution"
  bottom: "pool0"
  top: "conv1"
  param {
    lr_mult: 1
  }
  param {
    lr_mult: 2
  }
  convolution_param {
    num_output: 100
    kernel_size: 5
    stride: 1
    weight_filler {
      type: "xavier"
    }
    bias_filler {
      type: "constant"
    }
  }
}
layer {
  name: "pool1"
  type: "Pooling"
  bottom: "conv1"
  top: "pool1"
  pooling_param {
    pool: MAX
    kernel_size: 2
    stride: 2
  }
}
layer {
  name: "ip1"
  type: "InnerProduct"
  bottom: "pool1"
  top: "ip1"
  param {
    lr_mult: 1
  }
  param {
    lr_mult: 2
  }
  inner_product_param {
    num_output: 25
    weight_filler {
      type: "xavier"
    }
    bias_filler {
      type: "constant"
    }
  }
}
layer {
  name: "relu1"
  type: "ReLU"
  bottom: "ip1"
  top: "ip1"
}
layer {
  name: "ip2"
  type: "InnerProduct"
  bottom: "ip1"
  top: "ip2"
  param {
    lr_mult: 1
  }
  param {
    lr_mult: 2
  }
  inner_product_param {
    num_output: 10
    weight_filler {
      type: "xavier"
    }
    bias_filler {
      type: "constant"
    }
  }
}
layer {
  name: "relu2"
  type: "ReLU"
  bottom: "ip2"
  top: "ip2"
}
layer {
  name: "ip3"
  type: "InnerProduct"
  bottom: "ip2"
  top: "ip3"
  param {
    lr_mult: 1
  }
  param {
    lr_mult: 2
  }
  inner_product_param {
    num_output: 10
    weight_filler {
      type: "xavier"
    }
    bias_filler {
      type: "constant"
    }
  }
}
layer {
  name: "relu3"
  type: "ReLU"
  bottom: "ip3"
  top: "ip3"
}
layer {
  name: "accuracy"
  type: "Accuracy"
  bottom: "ip3"
  bottom: "label"
  top: "accuracy"
  include {
    phase: TEST
  }
}
layer {
  name: "loss"
  type: "SoftmaxWithLoss"
  bottom: "ip3"
  bottom: "label"
  top: "loss"
}
I0428 20:03:49.372983 30271 layer_factory.hpp:77] Creating layer mnist
I0428 20:03:49.373026 30271 db_lmdb.cpp:35] Opened lmdb examples/mnist/mnist_test_lmdb
I0428 20:03:49.373037 30271 net.cpp:86] Creating Layer mnist
I0428 20:03:49.373042 30271 net.cpp:382] mnist -> data
I0428 20:03:49.373050 30271 net.cpp:382] mnist -> label
I0428 20:03:49.373133 30271 data_layer.cpp:45] output data size: 100,1,28,28
I0428 20:03:49.375463 30271 net.cpp:124] Setting up mnist
I0428 20:03:49.375493 30271 net.cpp:131] Top shape: 100 1 28 28 (78400)
I0428 20:03:49.375514 30271 net.cpp:131] Top shape: 100 (100)
I0428 20:03:49.375516 30271 net.cpp:139] Memory required for data: 314000
I0428 20:03:49.375520 30271 layer_factory.hpp:77] Creating layer label_mnist_1_split
I0428 20:03:49.375548 30271 net.cpp:86] Creating Layer label_mnist_1_split
I0428 20:03:49.375552 30271 net.cpp:408] label_mnist_1_split <- label
I0428 20:03:49.375557 30271 net.cpp:382] label_mnist_1_split -> label_mnist_1_split_0
I0428 20:03:49.375573 30271 net.cpp:382] label_mnist_1_split -> label_mnist_1_split_1
I0428 20:03:49.375634 30271 net.cpp:124] Setting up label_mnist_1_split
I0428 20:03:49.375658 30271 net.cpp:131] Top shape: 100 (100)
I0428 20:03:49.375661 30271 net.cpp:131] Top shape: 100 (100)
I0428 20:03:49.375664 30271 net.cpp:139] Memory required for data: 314800
I0428 20:03:49.375668 30271 layer_factory.hpp:77] Creating layer conv0
I0428 20:03:49.375679 30271 net.cpp:86] Creating Layer conv0
I0428 20:03:49.375682 30271 net.cpp:408] conv0 <- data
I0428 20:03:49.375687 30271 net.cpp:382] conv0 -> conv0
I0428 20:03:49.377588 30271 net.cpp:124] Setting up conv0
I0428 20:03:49.377616 30271 net.cpp:131] Top shape: 100 10 24 24 (576000)
I0428 20:03:49.377620 30271 net.cpp:139] Memory required for data: 2618800
I0428 20:03:49.377630 30271 layer_factory.hpp:77] Creating layer pool0
I0428 20:03:49.377638 30271 net.cpp:86] Creating Layer pool0
I0428 20:03:49.377641 30271 net.cpp:408] pool0 <- conv0
I0428 20:03:49.377647 30271 net.cpp:382] pool0 -> pool0
I0428 20:03:49.377701 30271 net.cpp:124] Setting up pool0
I0428 20:03:49.377708 30271 net.cpp:131] Top shape: 100 10 12 12 (144000)
I0428 20:03:49.377710 30271 net.cpp:139] Memory required for data: 3194800
I0428 20:03:49.377713 30271 layer_factory.hpp:77] Creating layer conv1
I0428 20:03:49.377723 30271 net.cpp:86] Creating Layer conv1
I0428 20:03:49.377727 30271 net.cpp:408] conv1 <- pool0
I0428 20:03:49.377732 30271 net.cpp:382] conv1 -> conv1
I0428 20:03:49.379534 30271 net.cpp:124] Setting up conv1
I0428 20:03:49.379546 30271 net.cpp:131] Top shape: 100 100 8 8 (640000)
I0428 20:03:49.379567 30271 net.cpp:139] Memory required for data: 5754800
I0428 20:03:49.379576 30271 layer_factory.hpp:77] Creating layer pool1
I0428 20:03:49.379583 30271 net.cpp:86] Creating Layer pool1
I0428 20:03:49.379586 30271 net.cpp:408] pool1 <- conv1
I0428 20:03:49.379592 30271 net.cpp:382] pool1 -> pool1
I0428 20:03:49.379647 30271 net.cpp:124] Setting up pool1
I0428 20:03:49.379652 30271 net.cpp:131] Top shape: 100 100 4 4 (160000)
I0428 20:03:49.379669 30271 net.cpp:139] Memory required for data: 6394800
I0428 20:03:49.379673 30271 layer_factory.hpp:77] Creating layer ip1
I0428 20:03:49.379679 30271 net.cpp:86] Creating Layer ip1
I0428 20:03:49.379683 30271 net.cpp:408] ip1 <- pool1
I0428 20:03:49.379688 30271 net.cpp:382] ip1 -> ip1
I0428 20:03:49.380116 30271 net.cpp:124] Setting up ip1
I0428 20:03:49.380123 30271 net.cpp:131] Top shape: 100 25 (2500)
I0428 20:03:49.380151 30271 net.cpp:139] Memory required for data: 6404800
I0428 20:03:49.380159 30271 layer_factory.hpp:77] Creating layer relu1
I0428 20:03:49.380165 30271 net.cpp:86] Creating Layer relu1
I0428 20:03:49.380168 30271 net.cpp:408] relu1 <- ip1
I0428 20:03:49.380175 30271 net.cpp:369] relu1 -> ip1 (in-place)
I0428 20:03:49.380491 30271 net.cpp:124] Setting up relu1
I0428 20:03:49.380499 30271 net.cpp:131] Top shape: 100 25 (2500)
I0428 20:03:49.380503 30271 net.cpp:139] Memory required for data: 6414800
I0428 20:03:49.380507 30271 layer_factory.hpp:77] Creating layer ip2
I0428 20:03:49.380514 30271 net.cpp:86] Creating Layer ip2
I0428 20:03:49.380518 30271 net.cpp:408] ip2 <- ip1
I0428 20:03:49.380523 30271 net.cpp:382] ip2 -> ip2
I0428 20:03:49.380627 30271 net.cpp:124] Setting up ip2
I0428 20:03:49.380635 30271 net.cpp:131] Top shape: 100 10 (1000)
I0428 20:03:49.380637 30271 net.cpp:139] Memory required for data: 6418800
I0428 20:03:49.380642 30271 layer_factory.hpp:77] Creating layer relu2
I0428 20:03:49.380648 30271 net.cpp:86] Creating Layer relu2
I0428 20:03:49.380651 30271 net.cpp:408] relu2 <- ip2
I0428 20:03:49.380656 30271 net.cpp:369] relu2 -> ip2 (in-place)
I0428 20:03:49.380830 30271 net.cpp:124] Setting up relu2
I0428 20:03:49.380839 30271 net.cpp:131] Top shape: 100 10 (1000)
I0428 20:03:49.380842 30271 net.cpp:139] Memory required for data: 6422800
I0428 20:03:49.380846 30271 layer_factory.hpp:77] Creating layer ip3
I0428 20:03:49.380853 30271 net.cpp:86] Creating Layer ip3
I0428 20:03:49.380861 30271 net.cpp:408] ip3 <- ip2
I0428 20:03:49.380867 30271 net.cpp:382] ip3 -> ip3
I0428 20:03:49.380978 30271 net.cpp:124] Setting up ip3
I0428 20:03:49.380986 30271 net.cpp:131] Top shape: 100 10 (1000)
I0428 20:03:49.380990 30271 net.cpp:139] Memory required for data: 6426800
I0428 20:03:49.380997 30271 layer_factory.hpp:77] Creating layer relu3
I0428 20:03:49.381003 30271 net.cpp:86] Creating Layer relu3
I0428 20:03:49.381006 30271 net.cpp:408] relu3 <- ip3
I0428 20:03:49.381009 30271 net.cpp:369] relu3 -> ip3 (in-place)
I0428 20:03:49.382010 30271 net.cpp:124] Setting up relu3
I0428 20:03:49.382024 30271 net.cpp:131] Top shape: 100 10 (1000)
I0428 20:03:49.382042 30271 net.cpp:139] Memory required for data: 6430800
I0428 20:03:49.382045 30271 layer_factory.hpp:77] Creating layer ip3_relu3_0_split
I0428 20:03:49.382051 30271 net.cpp:86] Creating Layer ip3_relu3_0_split
I0428 20:03:49.382055 30271 net.cpp:408] ip3_relu3_0_split <- ip3
I0428 20:03:49.382066 30271 net.cpp:382] ip3_relu3_0_split -> ip3_relu3_0_split_0
I0428 20:03:49.382072 30271 net.cpp:382] ip3_relu3_0_split -> ip3_relu3_0_split_1
I0428 20:03:49.382114 30271 net.cpp:124] Setting up ip3_relu3_0_split
I0428 20:03:49.382120 30271 net.cpp:131] Top shape: 100 10 (1000)
I0428 20:03:49.382124 30271 net.cpp:131] Top shape: 100 10 (1000)
I0428 20:03:49.382127 30271 net.cpp:139] Memory required for data: 6438800
I0428 20:03:49.382144 30271 layer_factory.hpp:77] Creating layer accuracy
I0428 20:03:49.382149 30271 net.cpp:86] Creating Layer accuracy
I0428 20:03:49.382153 30271 net.cpp:408] accuracy <- ip3_relu3_0_split_0
I0428 20:03:49.382158 30271 net.cpp:408] accuracy <- label_mnist_1_split_0
I0428 20:03:49.382163 30271 net.cpp:382] accuracy -> accuracy
…
