…
I0428 20:34:12.723276  4438 net.cpp:296] The NetState phase (0) differed from the phase (1) specified by a rule in layer mnist
I0428 20:34:12.723292  4438 net.cpp:296] The NetState phase (0) differed from the phase (1) specified by a rule in layer accuracy
I0428 20:34:12.723377  4438 net.cpp:53] Initializing net from parameters: 
name: "LeNet"
state {
  phase: TRAIN
  level: 0
  stage: ""
}
layer {
  name: "mnist"
  type: "Data"
  top: "data"
  top: "label"
  include {
    phase: TRAIN
  }
  transform_param {
    scale: 0.00390625
  }
  data_param {
    source: "examples/mnist/mnist_train_lmdb"
    batch_size: 64
    backend: LMDB
  }
}
layer {
  name: "conv0"
  type: "Convolution"
  bottom: "data"
  top: "conv0"
  param {
    lr_mult: 1
  }
  param {
    lr_mult: 2
  }
  convolution_param {
    num_output: 100
    kernel_size: 5
    stride: 1
    weight_filler {
      type: "xavier"
    }
    bias_filler {
      type: "constant"
    }
  }
}
layer {
  name: "pool0"
  type: "Pooling"
  bottom: "conv0"
  top: "pool0"
  pooling_param {
    pool: MAX
    kernel_size: 2
    stride: 2
  }
}
layer {
  name: "conv1"
  type: "Convolution"
  bottom: "pool0"
  top: "conv1"
  param {
    lr_mult: 1
  }
  param {
    lr_mult: 2
  }
  convolution_param {
    num_output: 50
    kernel_size: 5
    stride: 1
    weight_filler {
      type: "xavier"
    }
    bias_filler {
      type: "constant"
    }
  }
}
layer {
  name: "pool1"
  type: "Pooling"
  bottom: "conv1"
  top: "pool1"
  pooling_param {
    pool: MAX
    kernel_size: 2
    stride: 2
  }
}
layer {
  name: "ip1"
  type: "InnerProduct"
  bottom: "pool1"
  top: "ip1"
  param {
    lr_mult: 1
  }
  param {
    lr_mult: 2
  }
  inner_product_param {
    num_output: 10
    weight_filler {
      type: "xavier"
    }
    bias_filler {
      type: "constant"
    }
  }
}
layer {
  name: "relu1"
  type: "ReLU"
  bottom: "ip1"
  top: "ip1"
}
layer {
  name: "loss"
  type: "SoftmaxWithLoss"
  bottom: "ip1"
  bottom: "label"
  top: "loss"
}
I0428 20:34:12.723445  4438 layer_factory.hpp:77] Creating layer mnist
I0428 20:34:12.723546  4438 db_lmdb.cpp:35] Opened lmdb examples/mnist/mnist_train_lmdb
I0428 20:34:12.723569  4438 net.cpp:86] Creating Layer mnist
I0428 20:34:12.723577  4438 net.cpp:382] mnist -> data
I0428 20:34:12.723598  4438 net.cpp:382] mnist -> label
I0428 20:34:12.724684  4438 data_layer.cpp:45] output data size: 64,1,28,28
I0428 20:34:12.727155  4438 net.cpp:124] Setting up mnist
I0428 20:34:12.727174  4438 net.cpp:131] Top shape: 64 1 28 28 (50176)
I0428 20:34:12.727180  4438 net.cpp:131] Top shape: 64 (64)
I0428 20:34:12.727183  4438 net.cpp:139] Memory required for data: 200960
I0428 20:34:12.727191  4438 layer_factory.hpp:77] Creating layer conv0
I0428 20:34:12.727238  4438 net.cpp:86] Creating Layer conv0
I0428 20:34:12.727246  4438 net.cpp:408] conv0 <- data
I0428 20:34:12.727258  4438 net.cpp:382] conv0 -> conv0
I0428 20:34:12.974453  4438 net.cpp:124] Setting up conv0
I0428 20:34:12.974480  4438 net.cpp:131] Top shape: 64 100 24 24 (3686400)
I0428 20:34:12.974484  4438 net.cpp:139] Memory required for data: 14946560
I0428 20:34:12.974498  4438 layer_factory.hpp:77] Creating layer pool0
I0428 20:34:12.974509  4438 net.cpp:86] Creating Layer pool0
I0428 20:34:12.974514  4438 net.cpp:408] pool0 <- conv0
I0428 20:34:12.974519  4438 net.cpp:382] pool0 -> pool0
I0428 20:34:12.974580  4438 net.cpp:124] Setting up pool0
I0428 20:34:12.974584  4438 net.cpp:131] Top shape: 64 100 12 12 (921600)
I0428 20:34:12.974601  4438 net.cpp:139] Memory required for data: 18632960
I0428 20:34:12.974604  4438 layer_factory.hpp:77] Creating layer conv1
I0428 20:34:12.974616  4438 net.cpp:86] Creating Layer conv1
I0428 20:34:12.974618  4438 net.cpp:408] conv1 <- pool0
I0428 20:34:12.974622  4438 net.cpp:382] conv1 -> conv1
I0428 20:34:12.977995  4438 net.cpp:124] Setting up conv1
I0428 20:34:12.978025  4438 net.cpp:131] Top shape: 64 50 8 8 (204800)
I0428 20:34:12.978029  4438 net.cpp:139] Memory required for data: 19452160
I0428 20:34:12.978039  4438 layer_factory.hpp:77] Creating layer pool1
I0428 20:34:12.978060  4438 net.cpp:86] Creating Layer pool1
I0428 20:34:12.978078  4438 net.cpp:408] pool1 <- conv1
I0428 20:34:12.978082  4438 net.cpp:382] pool1 -> pool1
I0428 20:34:12.978133  4438 net.cpp:124] Setting up pool1
I0428 20:34:12.978139  4438 net.cpp:131] Top shape: 64 50 4 4 (51200)
I0428 20:34:12.978142  4438 net.cpp:139] Memory required for data: 19656960
I0428 20:34:12.978145  4438 layer_factory.hpp:77] Creating layer ip1
I0428 20:34:12.978152  4438 net.cpp:86] Creating Layer ip1
I0428 20:34:12.978154  4438 net.cpp:408] ip1 <- pool1
I0428 20:34:12.978159  4438 net.cpp:382] ip1 -> ip1
I0428 20:34:12.979081  4438 net.cpp:124] Setting up ip1
I0428 20:34:12.979092  4438 net.cpp:131] Top shape: 64 10 (640)
I0428 20:34:12.979111  4438 net.cpp:139] Memory required for data: 19659520
I0428 20:34:12.979120  4438 layer_factory.hpp:77] Creating layer relu1
I0428 20:34:12.979141  4438 net.cpp:86] Creating Layer relu1
I0428 20:34:12.979145  4438 net.cpp:408] relu1 <- ip1
I0428 20:34:12.979149  4438 net.cpp:369] relu1 -> ip1 (in-place)
I0428 20:34:12.979346  4438 net.cpp:124] Setting up relu1
I0428 20:34:12.979354  4438 net.cpp:131] Top shape: 64 10 (640)
I0428 20:34:12.979357  4438 net.cpp:139] Memory required for data: 19662080
I0428 20:34:12.979362  4438 layer_factory.hpp:77] Creating layer loss
I0428 20:34:12.979367  4438 net.cpp:86] Creating Layer loss
I0428 20:34:12.979370  4438 net.cpp:408] loss <- ip1
I0428 20:34:12.979374  4438 net.cpp:408] loss <- label
I0428 20:34:12.979379  4438 net.cpp:382] loss -> loss
I0428 20:34:12.979413  4438 layer_factory.hpp:77] Creating layer loss
…
I0428 20:34:12.980636  4438 solver.cpp:173] Creating test net (#0) specified by net file: ECE595/mnist/train_test/var_everything2/lenet_train_test1601.prototxt
I0428 20:34:12.980659  4438 net.cpp:296] The NetState phase (1) differed from the phase (0) specified by a rule in layer mnist
I0428 20:34:12.980733  4438 net.cpp:53] Initializing net from parameters: 
name: "LeNet"
state {
  phase: TEST
}
layer {
  name: "mnist"
  type: "Data"
  top: "data"
  top: "label"
  include {
    phase: TEST
  }
  transform_param {
    scale: 0.00390625
  }
  data_param {
    source: "examples/mnist/mnist_test_lmdb"
    batch_size: 100
    backend: LMDB
  }
}
layer {
  name: "conv0"
  type: "Convolution"
  bottom: "data"
  top: "conv0"
  param {
    lr_mult: 1
  }
  param {
    lr_mult: 2
  }
  convolution_param {
    num_output: 100
    kernel_size: 5
    stride: 1
    weight_filler {
      type: "xavier"
    }
    bias_filler {
      type: "constant"
    }
  }
}
layer {
  name: "pool0"
  type: "Pooling"
  bottom: "conv0"
  top: "pool0"
  pooling_param {
    pool: MAX
    kernel_size: 2
    stride: 2
  }
}
layer {
  name: "conv1"
  type: "Convolution"
  bottom: "pool0"
  top: "conv1"
  param {
    lr_mult: 1
  }
  param {
    lr_mult: 2
  }
  convolution_param {
    num_output: 50
    kernel_size: 5
    stride: 1
    weight_filler {
      type: "xavier"
    }
    bias_filler {
      type: "constant"
    }
  }
}
layer {
  name: "pool1"
  type: "Pooling"
  bottom: "conv1"
  top: "pool1"
  pooling_param {
    pool: MAX
    kernel_size: 2
    stride: 2
  }
}
layer {
  name: "ip1"
  type: "InnerProduct"
  bottom: "pool1"
  top: "ip1"
  param {
    lr_mult: 1
  }
  param {
    lr_mult: 2
  }
  inner_product_param {
    num_output: 10
    weight_filler {
      type: "xavier"
    }
    bias_filler {
      type: "constant"
    }
  }
}
layer {
  name: "relu1"
  type: "ReLU"
  bottom: "ip1"
  top: "ip1"
}
layer {
  name: "accuracy"
  type: "Accuracy"
  bottom: "ip1"
  bottom: "label"
  top: "accuracy"
  include {
    phase: TEST
  }
}
layer {
  name: "loss"
  type: "SoftmaxWithLoss"
  bottom: "ip1"
  bottom: "label"
  top: "loss"
}
I0428 20:34:12.980801  4438 layer_factory.hpp:77] Creating layer mnist
I0428 20:34:12.980886  4438 db_lmdb.cpp:35] Opened lmdb examples/mnist/mnist_test_lmdb
I0428 20:34:12.980900  4438 net.cpp:86] Creating Layer mnist
I0428 20:34:12.980904  4438 net.cpp:382] mnist -> data
I0428 20:34:12.980912  4438 net.cpp:382] mnist -> label
I0428 20:34:12.981003  4438 data_layer.cpp:45] output data size: 100,1,28,28
I0428 20:34:12.982133  4438 net.cpp:124] Setting up mnist
I0428 20:34:12.982162  4438 net.cpp:131] Top shape: 100 1 28 28 (78400)
I0428 20:34:12.982167  4438 net.cpp:131] Top shape: 100 (100)
I0428 20:34:12.982170  4438 net.cpp:139] Memory required for data: 314000
I0428 20:34:12.982174  4438 layer_factory.hpp:77] Creating layer label_mnist_1_split
I0428 20:34:12.982223  4438 net.cpp:86] Creating Layer label_mnist_1_split
I0428 20:34:12.982228  4438 net.cpp:408] label_mnist_1_split <- label
I0428 20:34:12.982233  4438 net.cpp:382] label_mnist_1_split -> label_mnist_1_split_0
I0428 20:34:12.982239  4438 net.cpp:382] label_mnist_1_split -> label_mnist_1_split_1
I0428 20:34:12.982354  4438 net.cpp:124] Setting up label_mnist_1_split
I0428 20:34:12.982362  4438 net.cpp:131] Top shape: 100 (100)
I0428 20:34:12.982367  4438 net.cpp:131] Top shape: 100 (100)
I0428 20:34:12.982370  4438 net.cpp:139] Memory required for data: 314800
I0428 20:34:12.982373  4438 layer_factory.hpp:77] Creating layer conv0
I0428 20:34:12.982381  4438 net.cpp:86] Creating Layer conv0
I0428 20:34:12.982385  4438 net.cpp:408] conv0 <- data
I0428 20:34:12.982390  4438 net.cpp:382] conv0 -> conv0
I0428 20:34:12.983242  4438 net.cpp:124] Setting up conv0
I0428 20:34:12.983269  4438 net.cpp:131] Top shape: 100 100 24 24 (5760000)
I0428 20:34:12.983288  4438 net.cpp:139] Memory required for data: 23354800
I0428 20:34:12.983297  4438 layer_factory.hpp:77] Creating layer pool0
I0428 20:34:12.983304  4438 net.cpp:86] Creating Layer pool0
I0428 20:34:12.983307  4438 net.cpp:408] pool0 <- conv0
I0428 20:34:12.983311  4438 net.cpp:382] pool0 -> pool0
I0428 20:34:12.983361  4438 net.cpp:124] Setting up pool0
I0428 20:34:12.983366  4438 net.cpp:131] Top shape: 100 100 12 12 (1440000)
I0428 20:34:12.983369  4438 net.cpp:139] Memory required for data: 29114800
I0428 20:34:12.983372  4438 layer_factory.hpp:77] Creating layer conv1
I0428 20:34:12.983381  4438 net.cpp:86] Creating Layer conv1
I0428 20:34:12.983384  4438 net.cpp:408] conv1 <- pool0
I0428 20:34:12.983388  4438 net.cpp:382] conv1 -> conv1
I0428 20:34:12.986430  4438 net.cpp:124] Setting up conv1
I0428 20:34:12.986460  4438 net.cpp:131] Top shape: 100 50 8 8 (320000)
I0428 20:34:12.986476  4438 net.cpp:139] Memory required for data: 30394800
I0428 20:34:12.986500  4438 layer_factory.hpp:77] Creating layer pool1
I0428 20:34:12.986507  4438 net.cpp:86] Creating Layer pool1
I0428 20:34:12.986521  4438 net.cpp:408] pool1 <- conv1
I0428 20:34:12.986527  4438 net.cpp:382] pool1 -> pool1
I0428 20:34:12.986565  4438 net.cpp:124] Setting up pool1
I0428 20:34:12.986572  4438 net.cpp:131] Top shape: 100 50 4 4 (80000)
I0428 20:34:12.986574  4438 net.cpp:139] Memory required for data: 30714800
I0428 20:34:12.986577  4438 layer_factory.hpp:77] Creating layer ip1
I0428 20:34:12.986583  4438 net.cpp:86] Creating Layer ip1
I0428 20:34:12.986587  4438 net.cpp:408] ip1 <- pool1
I0428 20:34:12.986593  4438 net.cpp:382] ip1 -> ip1
I0428 20:34:12.986730  4438 net.cpp:124] Setting up ip1
I0428 20:34:12.986739  4438 net.cpp:131] Top shape: 100 10 (1000)
I0428 20:34:12.986742  4438 net.cpp:139] Memory required for data: 30718800
I0428 20:34:12.986749  4438 layer_factory.hpp:77] Creating layer relu1
I0428 20:34:12.986754  4438 net.cpp:86] Creating Layer relu1
I0428 20:34:12.986757  4438 net.cpp:408] relu1 <- ip1
I0428 20:34:12.986763  4438 net.cpp:369] relu1 -> ip1 (in-place)
I0428 20:34:12.987603  4438 net.cpp:124] Setting up relu1
I0428 20:34:12.987615  4438 net.cpp:131] Top shape: 100 10 (1000)
I0428 20:34:12.987619  4438 net.cpp:139] Memory required for data: 30722800
I0428 20:34:12.987622  4438 layer_factory.hpp:77] Creating layer ip1_relu1_0_split
I0428 20:34:12.987630  4438 net.cpp:86] Creating Layer ip1_relu1_0_split
I0428 20:34:12.987633  4438 net.cpp:408] ip1_relu1_0_split <- ip1
I0428 20:34:12.987638  4438 net.cpp:382] ip1_relu1_0_split -> ip1_relu1_0_split_0
I0428 20:34:12.987645  4438 net.cpp:382] ip1_relu1_0_split -> ip1_relu1_0_split_1
I0428 20:34:12.987686  4438 net.cpp:124] Setting up ip1_relu1_0_split
I0428 20:34:12.987692  4438 net.cpp:131] Top shape: 100 10 (1000)
I0428 20:34:12.987696  4438 net.cpp:131] Top shape: 100 10 (1000)
I0428 20:34:12.987699  4438 net.cpp:139] Memory required for data: 30730800
I0428 20:34:12.987702  4438 layer_factory.hpp:77] Creating layer accuracy
I0428 20:34:12.987720  4438 net.cpp:86] Creating Layer accuracy
I0428 20:34:12.987725  4438 net.cpp:408] accuracy <- ip1_relu1_0_split_0
I0428 20:34:12.987728  4438 net.cpp:408] accuracy <- label_mnist_1_split_0
I0428 20:34:12.987732  4438 net.cpp:382] accuracy -> accuracy
…
