…
I0428 19:29:37.197897 22069 net.cpp:296] The NetState phase (0) differed from the phase (1) specified by a rule in layer mnist
I0428 19:29:37.197918 22069 net.cpp:296] The NetState phase (0) differed from the phase (1) specified by a rule in layer accuracy
I0428 19:29:37.198014 22069 net.cpp:53] Initializing net from parameters: 
name: "LeNet"
state {
  phase: TRAIN
  level: 0
  stage: ""
}
layer {
  name: "mnist"
  type: "Data"
  top: "data"
  top: "label"
  include {
    phase: TRAIN
  }
  transform_param {
    scale: 0.00390625
  }
  data_param {
    source: "examples/mnist/mnist_train_lmdb"
    batch_size: 64
    backend: LMDB
  }
}
layer {
  name: "conv0"
  type: "Convolution"
  bottom: "data"
  top: "conv0"
  param {
    lr_mult: 1
  }
  param {
    lr_mult: 2
  }
  convolution_param {
    num_output: 2
    kernel_size: 5
    stride: 1
    weight_filler {
      type: "xavier"
    }
    bias_filler {
      type: "constant"
    }
  }
}
layer {
  name: "pool0"
  type: "Pooling"
  bottom: "conv0"
  top: "pool0"
  pooling_param {
    pool: MAX
    kernel_size: 2
    stride: 2
  }
}
layer {
  name: "ip1"
  type: "InnerProduct"
  bottom: "pool0"
  top: "ip1"
  param {
    lr_mult: 1
  }
  param {
    lr_mult: 2
  }
  inner_product_param {
    num_output: 25
    weight_filler {
      type: "xavier"
    }
    bias_filler {
      type: "constant"
    }
  }
}
layer {
  name: "relu1"
  type: "ReLU"
  bottom: "ip1"
  top: "ip1"
}
layer {
  name: "ip2"
  type: "InnerProduct"
  bottom: "ip1"
  top: "ip2"
  param {
    lr_mult: 1
  }
  param {
    lr_mult: 2
  }
  inner_product_param {
    num_output: 25
    weight_filler {
      type: "xavier"
    }
    bias_filler {
      type: "constant"
    }
  }
}
layer {
  name: "relu2"
  type: "ReLU"
  bottom: "ip2"
  top: "ip2"
}
layer {
  name: "ip3"
  type: "InnerProduct"
  bottom: "ip2"
  top: "ip3"
  param {
    lr_mult: 1
  }
  param {
    lr_mult: 2
  }
  inner_product_param {
    num_output: 10
    weight_filler {
      type: "xavier"
    }
    bias_filler {
      type: "constant"
    }
  }
}
layer {
  name: "relu3"
  type: "ReLU"
  bottom: "ip3"
  top: "ip3"
}
layer {
  name: "loss"
  type: "SoftmaxWithLoss"
  bottom: "ip3"
  bottom: "label"
  top: "loss"
}
I0428 19:29:37.198124 22069 layer_factory.hpp:77] Creating layer mnist
I0428 19:29:37.198256 22069 db_lmdb.cpp:35] Opened lmdb examples/mnist/mnist_train_lmdb
I0428 19:29:37.198290 22069 net.cpp:86] Creating Layer mnist
I0428 19:29:37.198302 22069 net.cpp:382] mnist -> data
I0428 19:29:37.198331 22069 net.cpp:382] mnist -> label
I0428 19:29:37.199550 22069 data_layer.cpp:45] output data size: 64,1,28,28
I0428 19:29:37.202039 22069 net.cpp:124] Setting up mnist
I0428 19:29:37.202060 22069 net.cpp:131] Top shape: 64 1 28 28 (50176)
I0428 19:29:37.202072 22069 net.cpp:131] Top shape: 64 (64)
I0428 19:29:37.202078 22069 net.cpp:139] Memory required for data: 200960
I0428 19:29:37.202090 22069 layer_factory.hpp:77] Creating layer conv0
I0428 19:29:37.202111 22069 net.cpp:86] Creating Layer conv0
I0428 19:29:37.202121 22069 net.cpp:408] conv0 <- data
I0428 19:29:37.202141 22069 net.cpp:382] conv0 -> conv0
I0428 19:29:37.490793 22069 net.cpp:124] Setting up conv0
I0428 19:29:37.490823 22069 net.cpp:131] Top shape: 64 2 24 24 (73728)
I0428 19:29:37.490829 22069 net.cpp:139] Memory required for data: 495872
I0428 19:29:37.490850 22069 layer_factory.hpp:77] Creating layer pool0
I0428 19:29:37.490867 22069 net.cpp:86] Creating Layer pool0
I0428 19:29:37.490893 22069 net.cpp:408] pool0 <- conv0
I0428 19:29:37.490903 22069 net.cpp:382] pool0 -> pool0
I0428 19:29:37.490967 22069 net.cpp:124] Setting up pool0
I0428 19:29:37.490975 22069 net.cpp:131] Top shape: 64 2 12 12 (18432)
I0428 19:29:37.490981 22069 net.cpp:139] Memory required for data: 569600
I0428 19:29:37.490986 22069 layer_factory.hpp:77] Creating layer ip1
I0428 19:29:37.491003 22069 net.cpp:86] Creating Layer ip1
I0428 19:29:37.491009 22069 net.cpp:408] ip1 <- pool0
I0428 19:29:37.491019 22069 net.cpp:382] ip1 -> ip1
I0428 19:29:37.492009 22069 net.cpp:124] Setting up ip1
I0428 19:29:37.492024 22069 net.cpp:131] Top shape: 64 25 (1600)
I0428 19:29:37.492030 22069 net.cpp:139] Memory required for data: 576000
I0428 19:29:37.492043 22069 layer_factory.hpp:77] Creating layer relu1
I0428 19:29:37.492054 22069 net.cpp:86] Creating Layer relu1
I0428 19:29:37.492065 22069 net.cpp:408] relu1 <- ip1
I0428 19:29:37.492074 22069 net.cpp:369] relu1 -> ip1 (in-place)
I0428 19:29:37.492250 22069 net.cpp:124] Setting up relu1
I0428 19:29:37.492261 22069 net.cpp:131] Top shape: 64 25 (1600)
I0428 19:29:37.492266 22069 net.cpp:139] Memory required for data: 582400
I0428 19:29:37.492271 22069 layer_factory.hpp:77] Creating layer ip2
I0428 19:29:37.492282 22069 net.cpp:86] Creating Layer ip2
I0428 19:29:37.492287 22069 net.cpp:408] ip2 <- ip1
I0428 19:29:37.492296 22069 net.cpp:382] ip2 -> ip2
I0428 19:29:37.492401 22069 net.cpp:124] Setting up ip2
I0428 19:29:37.492410 22069 net.cpp:131] Top shape: 64 25 (1600)
I0428 19:29:37.492415 22069 net.cpp:139] Memory required for data: 588800
I0428 19:29:37.492427 22069 layer_factory.hpp:77] Creating layer relu2
I0428 19:29:37.492437 22069 net.cpp:86] Creating Layer relu2
I0428 19:29:37.492442 22069 net.cpp:408] relu2 <- ip2
I0428 19:29:37.492451 22069 net.cpp:369] relu2 -> ip2 (in-place)
I0428 19:29:37.493362 22069 net.cpp:124] Setting up relu2
I0428 19:29:37.493377 22069 net.cpp:131] Top shape: 64 25 (1600)
I0428 19:29:37.493384 22069 net.cpp:139] Memory required for data: 595200
I0428 19:29:37.493392 22069 layer_factory.hpp:77] Creating layer ip3
I0428 19:29:37.493402 22069 net.cpp:86] Creating Layer ip3
I0428 19:29:37.493408 22069 net.cpp:408] ip3 <- ip2
I0428 19:29:37.493417 22069 net.cpp:382] ip3 -> ip3
I0428 19:29:37.493525 22069 net.cpp:124] Setting up ip3
I0428 19:29:37.493535 22069 net.cpp:131] Top shape: 64 10 (640)
I0428 19:29:37.493541 22069 net.cpp:139] Memory required for data: 597760
I0428 19:29:37.493551 22069 layer_factory.hpp:77] Creating layer relu3
I0428 19:29:37.493561 22069 net.cpp:86] Creating Layer relu3
I0428 19:29:37.493566 22069 net.cpp:408] relu3 <- ip3
I0428 19:29:37.493573 22069 net.cpp:369] relu3 -> ip3 (in-place)
I0428 19:29:37.493733 22069 net.cpp:124] Setting up relu3
I0428 19:29:37.493744 22069 net.cpp:131] Top shape: 64 10 (640)
I0428 19:29:37.493749 22069 net.cpp:139] Memory required for data: 600320
I0428 19:29:37.493755 22069 layer_factory.hpp:77] Creating layer loss
I0428 19:29:37.493764 22069 net.cpp:86] Creating Layer loss
I0428 19:29:37.493769 22069 net.cpp:408] loss <- ip3
I0428 19:29:37.493777 22069 net.cpp:408] loss <- label
I0428 19:29:37.493785 22069 net.cpp:382] loss -> loss
I0428 19:29:37.493809 22069 layer_factory.hpp:77] Creating layer loss
…
I0428 19:29:37.494462 22069 solver.cpp:173] Creating test net (#0) specified by net file: ECE595/mnist/train_test/var_everything2/lenet_train_test64.prototxt
I0428 19:29:37.494494 22069 net.cpp:296] The NetState phase (1) differed from the phase (0) specified by a rule in layer mnist
I0428 19:29:37.494585 22069 net.cpp:53] Initializing net from parameters: 
name: "LeNet"
state {
  phase: TEST
}
layer {
  name: "mnist"
  type: "Data"
  top: "data"
  top: "label"
  include {
    phase: TEST
  }
  transform_param {
    scale: 0.00390625
  }
  data_param {
    source: "examples/mnist/mnist_test_lmdb"
    batch_size: 100
    backend: LMDB
  }
}
layer {
  name: "conv0"
  type: "Convolution"
  bottom: "data"
  top: "conv0"
  param {
    lr_mult: 1
  }
  param {
    lr_mult: 2
  }
  convolution_param {
    num_output: 2
    kernel_size: 5
    stride: 1
    weight_filler {
      type: "xavier"
    }
    bias_filler {
      type: "constant"
    }
  }
}
layer {
  name: "pool0"
  type: "Pooling"
  bottom: "conv0"
  top: "pool0"
  pooling_param {
    pool: MAX
    kernel_size: 2
    stride: 2
  }
}
layer {
  name: "ip1"
  type: "InnerProduct"
  bottom: "pool0"
  top: "ip1"
  param {
    lr_mult: 1
  }
  param {
    lr_mult: 2
  }
  inner_product_param {
    num_output: 25
    weight_filler {
      type: "xavier"
    }
    bias_filler {
      type: "constant"
    }
  }
}
layer {
  name: "relu1"
  type: "ReLU"
  bottom: "ip1"
  top: "ip1"
}
layer {
  name: "ip2"
  type: "InnerProduct"
  bottom: "ip1"
  top: "ip2"
  param {
    lr_mult: 1
  }
  param {
    lr_mult: 2
  }
  inner_product_param {
    num_output: 25
    weight_filler {
      type: "xavier"
    }
    bias_filler {
      type: "constant"
    }
  }
}
layer {
  name: "relu2"
  type: "ReLU"
  bottom: "ip2"
  top: "ip2"
}
layer {
  name: "ip3"
  type: "InnerProduct"
  bottom: "ip2"
  top: "ip3"
  param {
    lr_mult: 1
  }
  param {
    lr_mult: 2
  }
  inner_product_param {
    num_output: 10
    weight_filler {
      type: "xavier"
    }
    bias_filler {
      type: "constant"
    }
  }
}
layer {
  name: "relu3"
  type: "ReLU"
  bottom: "ip3"
  top: "ip3"
}
layer {
  name: "accuracy"
  type: "Accuracy"
  bottom: "ip3"
  bottom: "label"
  top: "accuracy"
  include {
    phase: TEST
  }
}
layer {
  name: "loss"
  type: "SoftmaxWithLoss"
  bottom: "ip3"
  bottom: "label"
  top: "loss"
}
I0428 19:29:37.494683 22069 layer_factory.hpp:77] Creating layer mnist
I0428 19:29:37.494743 22069 db_lmdb.cpp:35] Opened lmdb examples/mnist/mnist_test_lmdb
I0428 19:29:37.494760 22069 net.cpp:86] Creating Layer mnist
I0428 19:29:37.494767 22069 net.cpp:382] mnist -> data
I0428 19:29:37.494779 22069 net.cpp:382] mnist -> label
I0428 19:29:37.494899 22069 data_layer.cpp:45] output data size: 100,1,28,28
I0428 19:29:37.496958 22069 net.cpp:124] Setting up mnist
I0428 19:29:37.496974 22069 net.cpp:131] Top shape: 100 1 28 28 (78400)
I0428 19:29:37.496984 22069 net.cpp:131] Top shape: 100 (100)
I0428 19:29:37.496989 22069 net.cpp:139] Memory required for data: 314000
I0428 19:29:37.496996 22069 layer_factory.hpp:77] Creating layer label_mnist_1_split
I0428 19:29:37.497025 22069 net.cpp:86] Creating Layer label_mnist_1_split
I0428 19:29:37.497031 22069 net.cpp:408] label_mnist_1_split <- label
I0428 19:29:37.497040 22069 net.cpp:382] label_mnist_1_split -> label_mnist_1_split_0
I0428 19:29:37.497051 22069 net.cpp:382] label_mnist_1_split -> label_mnist_1_split_1
I0428 19:29:37.497193 22069 net.cpp:124] Setting up label_mnist_1_split
I0428 19:29:37.497202 22069 net.cpp:131] Top shape: 100 (100)
I0428 19:29:37.497210 22069 net.cpp:131] Top shape: 100 (100)
I0428 19:29:37.497215 22069 net.cpp:139] Memory required for data: 314800
I0428 19:29:37.497232 22069 layer_factory.hpp:77] Creating layer conv0
I0428 19:29:37.497246 22069 net.cpp:86] Creating Layer conv0
I0428 19:29:37.497252 22069 net.cpp:408] conv0 <- data
I0428 19:29:37.497262 22069 net.cpp:382] conv0 -> conv0
I0428 19:29:37.498841 22069 net.cpp:124] Setting up conv0
I0428 19:29:37.498857 22069 net.cpp:131] Top shape: 100 2 24 24 (115200)
I0428 19:29:37.498862 22069 net.cpp:139] Memory required for data: 775600
I0428 19:29:37.498893 22069 layer_factory.hpp:77] Creating layer pool0
I0428 19:29:37.498903 22069 net.cpp:86] Creating Layer pool0
I0428 19:29:37.498910 22069 net.cpp:408] pool0 <- conv0
I0428 19:29:37.498920 22069 net.cpp:382] pool0 -> pool0
I0428 19:29:37.498963 22069 net.cpp:124] Setting up pool0
I0428 19:29:37.498975 22069 net.cpp:131] Top shape: 100 2 12 12 (28800)
I0428 19:29:37.498980 22069 net.cpp:139] Memory required for data: 890800
I0428 19:29:37.498984 22069 layer_factory.hpp:77] Creating layer ip1
I0428 19:29:37.498996 22069 net.cpp:86] Creating Layer ip1
I0428 19:29:37.499001 22069 net.cpp:408] ip1 <- pool0
I0428 19:29:37.499011 22069 net.cpp:382] ip1 -> ip1
I0428 19:29:37.499171 22069 net.cpp:124] Setting up ip1
I0428 19:29:37.499182 22069 net.cpp:131] Top shape: 100 25 (2500)
I0428 19:29:37.499187 22069 net.cpp:139] Memory required for data: 900800
I0428 19:29:37.499200 22069 layer_factory.hpp:77] Creating layer relu1
I0428 19:29:37.499210 22069 net.cpp:86] Creating Layer relu1
I0428 19:29:37.499217 22069 net.cpp:408] relu1 <- ip1
I0428 19:29:37.499223 22069 net.cpp:369] relu1 -> ip1 (in-place)
I0428 19:29:37.499440 22069 net.cpp:124] Setting up relu1
I0428 19:29:37.499450 22069 net.cpp:131] Top shape: 100 25 (2500)
I0428 19:29:37.499455 22069 net.cpp:139] Memory required for data: 910800
I0428 19:29:37.499460 22069 layer_factory.hpp:77] Creating layer ip2
I0428 19:29:37.499469 22069 net.cpp:86] Creating Layer ip2
I0428 19:29:37.499475 22069 net.cpp:408] ip2 <- ip1
I0428 19:29:37.499485 22069 net.cpp:382] ip2 -> ip2
I0428 19:29:37.499627 22069 net.cpp:124] Setting up ip2
I0428 19:29:37.499639 22069 net.cpp:131] Top shape: 100 25 (2500)
I0428 19:29:37.499644 22069 net.cpp:139] Memory required for data: 920800
I0428 19:29:37.499657 22069 layer_factory.hpp:77] Creating layer relu2
I0428 19:29:37.499665 22069 net.cpp:86] Creating Layer relu2
I0428 19:29:37.499672 22069 net.cpp:408] relu2 <- ip2
I0428 19:29:37.499682 22069 net.cpp:369] relu2 -> ip2 (in-place)
I0428 19:29:37.500557 22069 net.cpp:124] Setting up relu2
I0428 19:29:37.500571 22069 net.cpp:131] Top shape: 100 25 (2500)
I0428 19:29:37.500576 22069 net.cpp:139] Memory required for data: 930800
I0428 19:29:37.500582 22069 layer_factory.hpp:77] Creating layer ip3
I0428 19:29:37.500596 22069 net.cpp:86] Creating Layer ip3
I0428 19:29:37.500602 22069 net.cpp:408] ip3 <- ip2
I0428 19:29:37.500610 22069 net.cpp:382] ip3 -> ip3
I0428 19:29:37.500728 22069 net.cpp:124] Setting up ip3
I0428 19:29:37.500738 22069 net.cpp:131] Top shape: 100 10 (1000)
I0428 19:29:37.500744 22069 net.cpp:139] Memory required for data: 934800
I0428 19:29:37.500753 22069 layer_factory.hpp:77] Creating layer relu3
I0428 19:29:37.500764 22069 net.cpp:86] Creating Layer relu3
I0428 19:29:37.500771 22069 net.cpp:408] relu3 <- ip3
I0428 19:29:37.500778 22069 net.cpp:369] relu3 -> ip3 (in-place)
I0428 19:29:37.500988 22069 net.cpp:124] Setting up relu3
I0428 19:29:37.501000 22069 net.cpp:131] Top shape: 100 10 (1000)
I0428 19:29:37.501005 22069 net.cpp:139] Memory required for data: 938800
I0428 19:29:37.501010 22069 layer_factory.hpp:77] Creating layer ip3_relu3_0_split
I0428 19:29:37.501019 22069 net.cpp:86] Creating Layer ip3_relu3_0_split
I0428 19:29:37.501036 22069 net.cpp:408] ip3_relu3_0_split <- ip3
I0428 19:29:37.501044 22069 net.cpp:382] ip3_relu3_0_split -> ip3_relu3_0_split_0
I0428 19:29:37.501055 22069 net.cpp:382] ip3_relu3_0_split -> ip3_relu3_0_split_1
I0428 19:29:37.501101 22069 net.cpp:124] Setting up ip3_relu3_0_split
I0428 19:29:37.501109 22069 net.cpp:131] Top shape: 100 10 (1000)
I0428 19:29:37.501116 22069 net.cpp:131] Top shape: 100 10 (1000)
I0428 19:29:37.501132 22069 net.cpp:139] Memory required for data: 946800
I0428 19:29:37.501138 22069 layer_factory.hpp:77] Creating layer accuracy
I0428 19:29:37.501147 22069 net.cpp:86] Creating Layer accuracy
I0428 19:29:37.501152 22069 net.cpp:408] accuracy <- ip3_relu3_0_split_0
I0428 19:29:37.501161 22069 net.cpp:408] accuracy <- label_mnist_1_split_0
I0428 19:29:37.501170 22069 net.cpp:382] accuracy -> accuracy
…
