…
I0428 20:27:05.668647  2927 net.cpp:296] The NetState phase (0) differed from the phase (1) specified by a rule in layer mnist
I0428 20:27:05.668663  2927 net.cpp:296] The NetState phase (0) differed from the phase (1) specified by a rule in layer accuracy
I0428 20:27:05.668743  2927 net.cpp:53] Initializing net from parameters: 
name: "LeNet"
state {
  phase: TRAIN
  level: 0
  stage: ""
}
layer {
  name: "mnist"
  type: "Data"
  top: "data"
  top: "label"
  include {
    phase: TRAIN
  }
  transform_param {
    scale: 0.00390625
  }
  data_param {
    source: "examples/mnist/mnist_train_lmdb"
    batch_size: 64
    backend: LMDB
  }
}
layer {
  name: "conv0"
  type: "Convolution"
  bottom: "data"
  top: "conv0"
  param {
    lr_mult: 1
  }
  param {
    lr_mult: 2
  }
  convolution_param {
    num_output: 100
    kernel_size: 5
    stride: 1
    weight_filler {
      type: "xavier"
    }
    bias_filler {
      type: "constant"
    }
  }
}
layer {
  name: "pool0"
  type: "Pooling"
  bottom: "conv0"
  top: "pool0"
  pooling_param {
    pool: MAX
    kernel_size: 2
    stride: 2
  }
}
layer {
  name: "conv1"
  type: "Convolution"
  bottom: "pool0"
  top: "conv1"
  param {
    lr_mult: 1
  }
  param {
    lr_mult: 2
  }
  convolution_param {
    num_output: 5
    kernel_size: 5
    stride: 1
    weight_filler {
      type: "xavier"
    }
    bias_filler {
      type: "constant"
    }
  }
}
layer {
  name: "pool1"
  type: "Pooling"
  bottom: "conv1"
  top: "pool1"
  pooling_param {
    pool: MAX
    kernel_size: 2
    stride: 2
  }
}
layer {
  name: "ip1"
  type: "InnerProduct"
  bottom: "pool1"
  top: "ip1"
  param {
    lr_mult: 1
  }
  param {
    lr_mult: 2
  }
  inner_product_param {
    num_output: 10
    weight_filler {
      type: "xavier"
    }
    bias_filler {
      type: "constant"
    }
  }
}
layer {
  name: "relu1"
  type: "ReLU"
  bottom: "ip1"
  top: "ip1"
}
layer {
  name: "loss"
  type: "SoftmaxWithLoss"
  bottom: "ip1"
  bottom: "label"
  top: "loss"
}
I0428 20:27:05.668822  2927 layer_factory.hpp:77] Creating layer mnist
I0428 20:27:05.668917  2927 db_lmdb.cpp:35] Opened lmdb examples/mnist/mnist_train_lmdb
I0428 20:27:05.668941  2927 net.cpp:86] Creating Layer mnist
I0428 20:27:05.668951  2927 net.cpp:382] mnist -> data
I0428 20:27:05.668972  2927 net.cpp:382] mnist -> label
I0428 20:27:05.670083  2927 data_layer.cpp:45] output data size: 64,1,28,28
I0428 20:27:05.672616  2927 net.cpp:124] Setting up mnist
I0428 20:27:05.672634  2927 net.cpp:131] Top shape: 64 1 28 28 (50176)
I0428 20:27:05.672642  2927 net.cpp:131] Top shape: 64 (64)
I0428 20:27:05.672646  2927 net.cpp:139] Memory required for data: 200960
I0428 20:27:05.672653  2927 layer_factory.hpp:77] Creating layer conv0
I0428 20:27:05.672669  2927 net.cpp:86] Creating Layer conv0
I0428 20:27:05.672674  2927 net.cpp:408] conv0 <- data
I0428 20:27:05.672688  2927 net.cpp:382] conv0 -> conv0
I0428 20:27:05.964696  2927 net.cpp:124] Setting up conv0
I0428 20:27:05.964726  2927 net.cpp:131] Top shape: 64 100 24 24 (3686400)
I0428 20:27:05.964731  2927 net.cpp:139] Memory required for data: 14946560
I0428 20:27:05.964748  2927 layer_factory.hpp:77] Creating layer pool0
I0428 20:27:05.964762  2927 net.cpp:86] Creating Layer pool0
I0428 20:27:05.964766  2927 net.cpp:408] pool0 <- conv0
I0428 20:27:05.964772  2927 net.cpp:382] pool0 -> pool0
I0428 20:27:05.964848  2927 net.cpp:124] Setting up pool0
I0428 20:27:05.964859  2927 net.cpp:131] Top shape: 64 100 12 12 (921600)
I0428 20:27:05.965242  2927 net.cpp:139] Memory required for data: 18632960
I0428 20:27:05.965250  2927 layer_factory.hpp:77] Creating layer conv1
I0428 20:27:05.965267  2927 net.cpp:86] Creating Layer conv1
I0428 20:27:05.965271  2927 net.cpp:408] conv1 <- pool0
I0428 20:27:05.965277  2927 net.cpp:382] conv1 -> conv1
I0428 20:27:05.968446  2927 net.cpp:124] Setting up conv1
I0428 20:27:05.968463  2927 net.cpp:131] Top shape: 64 5 8 8 (20480)
I0428 20:27:05.968468  2927 net.cpp:139] Memory required for data: 18714880
I0428 20:27:05.968478  2927 layer_factory.hpp:77] Creating layer pool1
I0428 20:27:05.968487  2927 net.cpp:86] Creating Layer pool1
I0428 20:27:05.968492  2927 net.cpp:408] pool1 <- conv1
I0428 20:27:05.968497  2927 net.cpp:382] pool1 -> pool1
I0428 20:27:05.968539  2927 net.cpp:124] Setting up pool1
I0428 20:27:05.968547  2927 net.cpp:131] Top shape: 64 5 4 4 (5120)
I0428 20:27:05.968551  2927 net.cpp:139] Memory required for data: 18735360
I0428 20:27:05.968555  2927 layer_factory.hpp:77] Creating layer ip1
I0428 20:27:05.968564  2927 net.cpp:86] Creating Layer ip1
I0428 20:27:05.968566  2927 net.cpp:408] ip1 <- pool1
I0428 20:27:05.968572  2927 net.cpp:382] ip1 -> ip1
I0428 20:27:05.968686  2927 net.cpp:124] Setting up ip1
I0428 20:27:05.968694  2927 net.cpp:131] Top shape: 64 10 (640)
I0428 20:27:05.968698  2927 net.cpp:139] Memory required for data: 18737920
I0428 20:27:05.968705  2927 layer_factory.hpp:77] Creating layer relu1
I0428 20:27:05.968714  2927 net.cpp:86] Creating Layer relu1
I0428 20:27:05.968719  2927 net.cpp:408] relu1 <- ip1
I0428 20:27:05.968722  2927 net.cpp:369] relu1 -> ip1 (in-place)
I0428 20:27:05.968919  2927 net.cpp:124] Setting up relu1
I0428 20:27:05.968945  2927 net.cpp:131] Top shape: 64 10 (640)
I0428 20:27:05.968950  2927 net.cpp:139] Memory required for data: 18740480
I0428 20:27:05.968952  2927 layer_factory.hpp:77] Creating layer loss
I0428 20:27:05.968960  2927 net.cpp:86] Creating Layer loss
I0428 20:27:05.968962  2927 net.cpp:408] loss <- ip1
I0428 20:27:05.968967  2927 net.cpp:408] loss <- label
I0428 20:27:05.968972  2927 net.cpp:382] loss -> loss
I0428 20:27:05.968991  2927 layer_factory.hpp:77] Creating layer loss
…
I0428 20:27:05.970268  2927 solver.cpp:173] Creating test net (#0) specified by net file: ECE595/mnist/train_test/var_everything2/lenet_train_test1482.prototxt
I0428 20:27:05.970295  2927 net.cpp:296] The NetState phase (1) differed from the phase (0) specified by a rule in layer mnist
I0428 20:27:05.970376  2927 net.cpp:53] Initializing net from parameters: 
name: "LeNet"
state {
  phase: TEST
}
layer {
  name: "mnist"
  type: "Data"
  top: "data"
  top: "label"
  include {
    phase: TEST
  }
  transform_param {
    scale: 0.00390625
  }
  data_param {
    source: "examples/mnist/mnist_test_lmdb"
    batch_size: 100
    backend: LMDB
  }
}
layer {
  name: "conv0"
  type: "Convolution"
  bottom: "data"
  top: "conv0"
  param {
    lr_mult: 1
  }
  param {
    lr_mult: 2
  }
  convolution_param {
    num_output: 100
    kernel_size: 5
    stride: 1
    weight_filler {
      type: "xavier"
    }
    bias_filler {
      type: "constant"
    }
  }
}
layer {
  name: "pool0"
  type: "Pooling"
  bottom: "conv0"
  top: "pool0"
  pooling_param {
    pool: MAX
    kernel_size: 2
    stride: 2
  }
}
layer {
  name: "conv1"
  type: "Convolution"
  bottom: "pool0"
  top: "conv1"
  param {
    lr_mult: 1
  }
  param {
    lr_mult: 2
  }
  convolution_param {
    num_output: 5
    kernel_size: 5
    stride: 1
    weight_filler {
      type: "xavier"
    }
    bias_filler {
      type: "constant"
    }
  }
}
layer {
  name: "pool1"
  type: "Pooling"
  bottom: "conv1"
  top: "pool1"
  pooling_param {
    pool: MAX
    kernel_size: 2
    stride: 2
  }
}
layer {
  name: "ip1"
  type: "InnerProduct"
  bottom: "pool1"
  top: "ip1"
  param {
    lr_mult: 1
  }
  param {
    lr_mult: 2
  }
  inner_product_param {
    num_output: 10
    weight_filler {
      type: "xavier"
    }
    bias_filler {
      type: "constant"
    }
  }
}
layer {
  name: "relu1"
  type: "ReLU"
  bottom: "ip1"
  top: "ip1"
}
layer {
  name: "accuracy"
  type: "Accuracy"
  bottom: "ip1"
  bottom: "label"
  top: "accuracy"
  include {
    phase: TEST
  }
}
layer {
  name: "loss"
  type: "SoftmaxWithLoss"
  bottom: "ip1"
  bottom: "label"
  top: "loss"
}
I0428 20:27:05.970461  2927 layer_factory.hpp:77] Creating layer mnist
I0428 20:27:05.970512  2927 db_lmdb.cpp:35] Opened lmdb examples/mnist/mnist_test_lmdb
I0428 20:27:05.970526  2927 net.cpp:86] Creating Layer mnist
I0428 20:27:05.970532  2927 net.cpp:382] mnist -> data
I0428 20:27:05.970541  2927 net.cpp:382] mnist -> label
I0428 20:27:05.970648  2927 data_layer.cpp:45] output data size: 100,1,28,28
I0428 20:27:05.972990  2927 net.cpp:124] Setting up mnist
I0428 20:27:05.973006  2927 net.cpp:131] Top shape: 100 1 28 28 (78400)
I0428 20:27:05.973011  2927 net.cpp:131] Top shape: 100 (100)
I0428 20:27:05.973016  2927 net.cpp:139] Memory required for data: 314000
I0428 20:27:05.973021  2927 layer_factory.hpp:77] Creating layer label_mnist_1_split
I0428 20:27:05.973040  2927 net.cpp:86] Creating Layer label_mnist_1_split
I0428 20:27:05.973044  2927 net.cpp:408] label_mnist_1_split <- label
I0428 20:27:05.973049  2927 net.cpp:382] label_mnist_1_split -> label_mnist_1_split_0
I0428 20:27:05.973057  2927 net.cpp:382] label_mnist_1_split -> label_mnist_1_split_1
I0428 20:27:05.973107  2927 net.cpp:124] Setting up label_mnist_1_split
I0428 20:27:05.973115  2927 net.cpp:131] Top shape: 100 (100)
I0428 20:27:05.973120  2927 net.cpp:131] Top shape: 100 (100)
I0428 20:27:05.973124  2927 net.cpp:139] Memory required for data: 314800
I0428 20:27:05.973126  2927 layer_factory.hpp:77] Creating layer conv0
I0428 20:27:05.973135  2927 net.cpp:86] Creating Layer conv0
I0428 20:27:05.973140  2927 net.cpp:408] conv0 <- data
I0428 20:27:05.973145  2927 net.cpp:382] conv0 -> conv0
I0428 20:27:05.974045  2927 net.cpp:124] Setting up conv0
I0428 20:27:05.974058  2927 net.cpp:131] Top shape: 100 100 24 24 (5760000)
I0428 20:27:05.974062  2927 net.cpp:139] Memory required for data: 23354800
I0428 20:27:05.974072  2927 layer_factory.hpp:77] Creating layer pool0
I0428 20:27:05.974079  2927 net.cpp:86] Creating Layer pool0
I0428 20:27:05.974082  2927 net.cpp:408] pool0 <- conv0
I0428 20:27:05.974087  2927 net.cpp:382] pool0 -> pool0
I0428 20:27:05.974125  2927 net.cpp:124] Setting up pool0
I0428 20:27:05.974133  2927 net.cpp:131] Top shape: 100 100 12 12 (1440000)
I0428 20:27:05.974136  2927 net.cpp:139] Memory required for data: 29114800
I0428 20:27:05.974139  2927 layer_factory.hpp:77] Creating layer conv1
I0428 20:27:05.974148  2927 net.cpp:86] Creating Layer conv1
I0428 20:27:05.974153  2927 net.cpp:408] conv1 <- pool0
I0428 20:27:05.974158  2927 net.cpp:382] conv1 -> conv1
I0428 20:27:05.975873  2927 net.cpp:124] Setting up conv1
I0428 20:27:05.975888  2927 net.cpp:131] Top shape: 100 5 8 8 (32000)
I0428 20:27:05.975893  2927 net.cpp:139] Memory required for data: 29242800
I0428 20:27:05.975903  2927 layer_factory.hpp:77] Creating layer pool1
I0428 20:27:05.975910  2927 net.cpp:86] Creating Layer pool1
I0428 20:27:05.975926  2927 net.cpp:408] pool1 <- conv1
I0428 20:27:05.975932  2927 net.cpp:382] pool1 -> pool1
I0428 20:27:05.975983  2927 net.cpp:124] Setting up pool1
I0428 20:27:05.975992  2927 net.cpp:131] Top shape: 100 5 4 4 (8000)
I0428 20:27:05.975996  2927 net.cpp:139] Memory required for data: 29274800
I0428 20:27:05.975999  2927 layer_factory.hpp:77] Creating layer ip1
I0428 20:27:05.976011  2927 net.cpp:86] Creating Layer ip1
I0428 20:27:05.976016  2927 net.cpp:408] ip1 <- pool1
I0428 20:27:05.976027  2927 net.cpp:382] ip1 -> ip1
I0428 20:27:05.976138  2927 net.cpp:124] Setting up ip1
I0428 20:27:05.976150  2927 net.cpp:131] Top shape: 100 10 (1000)
I0428 20:27:05.976155  2927 net.cpp:139] Memory required for data: 29278800
I0428 20:27:05.976162  2927 layer_factory.hpp:77] Creating layer relu1
I0428 20:27:05.976167  2927 net.cpp:86] Creating Layer relu1
I0428 20:27:05.976171  2927 net.cpp:408] relu1 <- ip1
I0428 20:27:05.976176  2927 net.cpp:369] relu1 -> ip1 (in-place)
I0428 20:27:05.977066  2927 net.cpp:124] Setting up relu1
I0428 20:27:05.977082  2927 net.cpp:131] Top shape: 100 10 (1000)
I0428 20:27:05.977085  2927 net.cpp:139] Memory required for data: 29282800
I0428 20:27:05.977089  2927 layer_factory.hpp:77] Creating layer ip1_relu1_0_split
I0428 20:27:05.977097  2927 net.cpp:86] Creating Layer ip1_relu1_0_split
I0428 20:27:05.977102  2927 net.cpp:408] ip1_relu1_0_split <- ip1
I0428 20:27:05.977107  2927 net.cpp:382] ip1_relu1_0_split -> ip1_relu1_0_split_0
I0428 20:27:05.977113  2927 net.cpp:382] ip1_relu1_0_split -> ip1_relu1_0_split_1
I0428 20:27:05.977154  2927 net.cpp:124] Setting up ip1_relu1_0_split
I0428 20:27:05.977162  2927 net.cpp:131] Top shape: 100 10 (1000)
I0428 20:27:05.977166  2927 net.cpp:131] Top shape: 100 10 (1000)
I0428 20:27:05.977169  2927 net.cpp:139] Memory required for data: 29290800
I0428 20:27:05.977174  2927 layer_factory.hpp:77] Creating layer accuracy
I0428 20:27:05.977180  2927 net.cpp:86] Creating Layer accuracy
I0428 20:27:05.977183  2927 net.cpp:408] accuracy <- ip1_relu1_0_split_0
I0428 20:27:05.977187  2927 net.cpp:408] accuracy <- label_mnist_1_split_0
I0428 20:27:05.977192  2927 net.cpp:382] accuracy -> accuracy
…
