…
I0428 19:50:23.916993 27002 net.cpp:296] The NetState phase (0) differed from the phase (1) specified by a rule in layer mnist
I0428 19:50:23.917018 27002 net.cpp:296] The NetState phase (0) differed from the phase (1) specified by a rule in layer accuracy
I0428 19:50:23.917119 27002 net.cpp:53] Initializing net from parameters: 
name: "LeNet"
state {
  phase: TRAIN
  level: 0
  stage: ""
}
layer {
  name: "mnist"
  type: "Data"
  top: "data"
  top: "label"
  include {
    phase: TRAIN
  }
  transform_param {
    scale: 0.00390625
  }
  data_param {
    source: "examples/mnist/mnist_train_lmdb"
    batch_size: 64
    backend: LMDB
  }
}
layer {
  name: "conv0"
  type: "Convolution"
  bottom: "data"
  top: "conv0"
  param {
    lr_mult: 1
  }
  param {
    lr_mult: 2
  }
  convolution_param {
    num_output: 5
    kernel_size: 5
    stride: 1
    weight_filler {
      type: "xavier"
    }
    bias_filler {
      type: "constant"
    }
  }
}
layer {
  name: "pool0"
  type: "Pooling"
  bottom: "conv0"
  top: "pool0"
  pooling_param {
    pool: MAX
    kernel_size: 2
    stride: 2
  }
}
layer {
  name: "conv1"
  type: "Convolution"
  bottom: "pool0"
  top: "conv1"
  param {
    lr_mult: 1
  }
  param {
    lr_mult: 2
  }
  convolution_param {
    num_output: 10
    kernel_size: 5
    stride: 1
    weight_filler {
      type: "xavier"
    }
    bias_filler {
      type: "constant"
    }
  }
}
layer {
  name: "pool1"
  type: "Pooling"
  bottom: "conv1"
  top: "pool1"
  pooling_param {
    pool: MAX
    kernel_size: 2
    stride: 2
  }
}
layer {
  name: "ip1"
  type: "InnerProduct"
  bottom: "pool1"
  top: "ip1"
  param {
    lr_mult: 1
  }
  param {
    lr_mult: 2
  }
  inner_product_param {
    num_output: 10
    weight_filler {
      type: "xavier"
    }
    bias_filler {
      type: "constant"
    }
  }
}
layer {
  name: "relu1"
  type: "ReLU"
  bottom: "ip1"
  top: "ip1"
}
layer {
  name: "ip2"
  type: "InnerProduct"
  bottom: "ip1"
  top: "ip2"
  param {
    lr_mult: 1
  }
  param {
    lr_mult: 2
  }
  inner_product_param {
    num_output: 50
    weight_filler {
      type: "xavier"
    }
    bias_filler {
      type: "constant"
    }
  }
}
layer {
  name: "relu2"
  type: "ReLU"
  bottom: "ip2"
  top: "ip2"
}
layer {
  name: "ip3"
  type: "InnerProduct"
  bottom: "ip2"
  top: "ip3"
  param {
    lr_mult: 1
  }
  param {
    lr_mult: 2
  }
  inner_product_param {
    num_output: 10
    weight_filler {
      type: "xavier"
    }
    bias_filler {
      type: "constant"
    }
  }
}
layer {
  name: "relu3"
  type: "ReLU"
  bottom: "ip3"
  top: "ip3"
}
layer {
  name: "loss"
  type: "SoftmaxWithLoss"
  bottom: "ip3"
  bottom: "label"
  top: "loss"
}
I0428 19:50:23.917201 27002 layer_factory.hpp:77] Creating layer mnist
I0428 19:50:23.917299 27002 db_lmdb.cpp:35] Opened lmdb examples/mnist/mnist_train_lmdb
I0428 19:50:23.917323 27002 net.cpp:86] Creating Layer mnist
I0428 19:50:23.917332 27002 net.cpp:382] mnist -> data
I0428 19:50:23.917356 27002 net.cpp:382] mnist -> label
I0428 19:50:23.918449 27002 data_layer.cpp:45] output data size: 64,1,28,28
I0428 19:50:23.920913 27002 net.cpp:124] Setting up mnist
I0428 19:50:23.920930 27002 net.cpp:131] Top shape: 64 1 28 28 (50176)
I0428 19:50:23.920936 27002 net.cpp:131] Top shape: 64 (64)
I0428 19:50:23.920939 27002 net.cpp:139] Memory required for data: 200960
I0428 19:50:23.920946 27002 layer_factory.hpp:77] Creating layer conv0
I0428 19:50:23.920985 27002 net.cpp:86] Creating Layer conv0
I0428 19:50:23.921006 27002 net.cpp:408] conv0 <- data
I0428 19:50:23.921020 27002 net.cpp:382] conv0 -> conv0
I0428 19:50:24.177779 27002 net.cpp:124] Setting up conv0
I0428 19:50:24.177805 27002 net.cpp:131] Top shape: 64 5 24 24 (184320)
I0428 19:50:24.177809 27002 net.cpp:139] Memory required for data: 938240
I0428 19:50:24.177824 27002 layer_factory.hpp:77] Creating layer pool0
I0428 19:50:24.177835 27002 net.cpp:86] Creating Layer pool0
I0428 19:50:24.177839 27002 net.cpp:408] pool0 <- conv0
I0428 19:50:24.177845 27002 net.cpp:382] pool0 -> pool0
I0428 19:50:24.177904 27002 net.cpp:124] Setting up pool0
I0428 19:50:24.177909 27002 net.cpp:131] Top shape: 64 5 12 12 (46080)
I0428 19:50:24.177911 27002 net.cpp:139] Memory required for data: 1122560
I0428 19:50:24.177914 27002 layer_factory.hpp:77] Creating layer conv1
I0428 19:50:24.177924 27002 net.cpp:86] Creating Layer conv1
I0428 19:50:24.177927 27002 net.cpp:408] conv1 <- pool0
I0428 19:50:24.177932 27002 net.cpp:382] conv1 -> conv1
I0428 19:50:24.180738 27002 net.cpp:124] Setting up conv1
I0428 19:50:24.180768 27002 net.cpp:131] Top shape: 64 10 8 8 (40960)
I0428 19:50:24.180773 27002 net.cpp:139] Memory required for data: 1286400
I0428 19:50:24.180797 27002 layer_factory.hpp:77] Creating layer pool1
I0428 19:50:24.180804 27002 net.cpp:86] Creating Layer pool1
I0428 19:50:24.180809 27002 net.cpp:408] pool1 <- conv1
I0428 19:50:24.180835 27002 net.cpp:382] pool1 -> pool1
I0428 19:50:24.180877 27002 net.cpp:124] Setting up pool1
I0428 19:50:24.180883 27002 net.cpp:131] Top shape: 64 10 4 4 (10240)
I0428 19:50:24.180886 27002 net.cpp:139] Memory required for data: 1327360
I0428 19:50:24.180889 27002 layer_factory.hpp:77] Creating layer ip1
I0428 19:50:24.180896 27002 net.cpp:86] Creating Layer ip1
I0428 19:50:24.180899 27002 net.cpp:408] ip1 <- pool1
I0428 19:50:24.180904 27002 net.cpp:382] ip1 -> ip1
I0428 19:50:24.181016 27002 net.cpp:124] Setting up ip1
I0428 19:50:24.181025 27002 net.cpp:131] Top shape: 64 10 (640)
I0428 19:50:24.181028 27002 net.cpp:139] Memory required for data: 1329920
I0428 19:50:24.181051 27002 layer_factory.hpp:77] Creating layer relu1
I0428 19:50:24.181056 27002 net.cpp:86] Creating Layer relu1
I0428 19:50:24.181059 27002 net.cpp:408] relu1 <- ip1
I0428 19:50:24.181064 27002 net.cpp:369] relu1 -> ip1 (in-place)
I0428 19:50:24.181269 27002 net.cpp:124] Setting up relu1
I0428 19:50:24.181278 27002 net.cpp:131] Top shape: 64 10 (640)
I0428 19:50:24.181282 27002 net.cpp:139] Memory required for data: 1332480
I0428 19:50:24.181284 27002 layer_factory.hpp:77] Creating layer ip2
I0428 19:50:24.181289 27002 net.cpp:86] Creating Layer ip2
I0428 19:50:24.181293 27002 net.cpp:408] ip2 <- ip1
I0428 19:50:24.181298 27002 net.cpp:382] ip2 -> ip2
I0428 19:50:24.181387 27002 net.cpp:124] Setting up ip2
I0428 19:50:24.181393 27002 net.cpp:131] Top shape: 64 50 (3200)
I0428 19:50:24.181396 27002 net.cpp:139] Memory required for data: 1345280
I0428 19:50:24.181401 27002 layer_factory.hpp:77] Creating layer relu2
I0428 19:50:24.181407 27002 net.cpp:86] Creating Layer relu2
I0428 19:50:24.181411 27002 net.cpp:408] relu2 <- ip2
I0428 19:50:24.181413 27002 net.cpp:369] relu2 -> ip2 (in-place)
I0428 19:50:24.182215 27002 net.cpp:124] Setting up relu2
I0428 19:50:24.182227 27002 net.cpp:131] Top shape: 64 50 (3200)
I0428 19:50:24.182246 27002 net.cpp:139] Memory required for data: 1358080
I0428 19:50:24.182250 27002 layer_factory.hpp:77] Creating layer ip3
I0428 19:50:24.182255 27002 net.cpp:86] Creating Layer ip3
I0428 19:50:24.182258 27002 net.cpp:408] ip3 <- ip2
I0428 19:50:24.182265 27002 net.cpp:382] ip3 -> ip3
I0428 19:50:24.182360 27002 net.cpp:124] Setting up ip3
I0428 19:50:24.182368 27002 net.cpp:131] Top shape: 64 10 (640)
I0428 19:50:24.182370 27002 net.cpp:139] Memory required for data: 1360640
I0428 19:50:24.182377 27002 layer_factory.hpp:77] Creating layer relu3
I0428 19:50:24.182382 27002 net.cpp:86] Creating Layer relu3
I0428 19:50:24.182385 27002 net.cpp:408] relu3 <- ip3
I0428 19:50:24.182389 27002 net.cpp:369] relu3 -> ip3 (in-place)
I0428 19:50:24.182546 27002 net.cpp:124] Setting up relu3
I0428 19:50:24.182554 27002 net.cpp:131] Top shape: 64 10 (640)
I0428 19:50:24.182557 27002 net.cpp:139] Memory required for data: 1363200
I0428 19:50:24.182560 27002 layer_factory.hpp:77] Creating layer loss
I0428 19:50:24.182566 27002 net.cpp:86] Creating Layer loss
I0428 19:50:24.182569 27002 net.cpp:408] loss <- ip3
I0428 19:50:24.182574 27002 net.cpp:408] loss <- label
I0428 19:50:24.182579 27002 net.cpp:382] loss -> loss
I0428 19:50:24.182595 27002 layer_factory.hpp:77] Creating layer loss
…
I0428 19:50:24.183324 27002 solver.cpp:173] Creating test net (#0) specified by net file: ECE595/mnist/train_test/var_everything2/lenet_train_test603.prototxt
I0428 19:50:24.183382 27002 net.cpp:296] The NetState phase (1) differed from the phase (0) specified by a rule in layer mnist
I0428 19:50:24.183473 27002 net.cpp:53] Initializing net from parameters: 
name: "LeNet"
state {
  phase: TEST
}
layer {
  name: "mnist"
  type: "Data"
  top: "data"
  top: "label"
  include {
    phase: TEST
  }
  transform_param {
    scale: 0.00390625
  }
  data_param {
    source: "examples/mnist/mnist_test_lmdb"
    batch_size: 100
    backend: LMDB
  }
}
layer {
  name: "conv0"
  type: "Convolution"
  bottom: "data"
  top: "conv0"
  param {
    lr_mult: 1
  }
  param {
    lr_mult: 2
  }
  convolution_param {
    num_output: 5
    kernel_size: 5
    stride: 1
    weight_filler {
      type: "xavier"
    }
    bias_filler {
      type: "constant"
    }
  }
}
layer {
  name: "pool0"
  type: "Pooling"
  bottom: "conv0"
  top: "pool0"
  pooling_param {
    pool: MAX
    kernel_size: 2
    stride: 2
  }
}
layer {
  name: "conv1"
  type: "Convolution"
  bottom: "pool0"
  top: "conv1"
  param {
    lr_mult: 1
  }
  param {
    lr_mult: 2
  }
  convolution_param {
    num_output: 10
    kernel_size: 5
    stride: 1
    weight_filler {
      type: "xavier"
    }
    bias_filler {
      type: "constant"
    }
  }
}
layer {
  name: "pool1"
  type: "Pooling"
  bottom: "conv1"
  top: "pool1"
  pooling_param {
    pool: MAX
    kernel_size: 2
    stride: 2
  }
}
layer {
  name: "ip1"
  type: "InnerProduct"
  bottom: "pool1"
  top: "ip1"
  param {
    lr_mult: 1
  }
  param {
    lr_mult: 2
  }
  inner_product_param {
    num_output: 10
    weight_filler {
      type: "xavier"
    }
    bias_filler {
      type: "constant"
    }
  }
}
layer {
  name: "relu1"
  type: "ReLU"
  bottom: "ip1"
  top: "ip1"
}
layer {
  name: "ip2"
  type: "InnerProduct"
  bottom: "ip1"
  top: "ip2"
  param {
    lr_mult: 1
  }
  param {
    lr_mult: 2
  }
  inner_product_param {
    num_output: 50
    weight_filler {
      type: "xavier"
    }
    bias_filler {
      type: "constant"
    }
  }
}
layer {
  name: "relu2"
  type: "ReLU"
  bottom: "ip2"
  top: "ip2"
}
layer {
  name: "ip3"
  type: "InnerProduct"
  bottom: "ip2"
  top: "ip3"
  param {
    lr_mult: 1
  }
  param {
    lr_mult: 2
  }
  inner_product_param {
    num_output: 10
    weight_filler {
      type: "xavier"
    }
    bias_filler {
      type: "constant"
    }
  }
}
layer {
  name: "relu3"
  type: "ReLU"
  bottom: "ip3"
  top: "ip3"
}
layer {
  name: "accuracy"
  type: "Accuracy"
  bottom: "ip3"
  bottom: "label"
  top: "accuracy"
  include {
    phase: TEST
  }
}
layer {
  name: "loss"
  type: "SoftmaxWithLoss"
  bottom: "ip3"
  bottom: "label"
  top: "loss"
}
I0428 19:50:24.183552 27002 layer_factory.hpp:77] Creating layer mnist
I0428 19:50:24.183609 27002 db_lmdb.cpp:35] Opened lmdb examples/mnist/mnist_test_lmdb
I0428 19:50:24.183635 27002 net.cpp:86] Creating Layer mnist
I0428 19:50:24.183640 27002 net.cpp:382] mnist -> data
I0428 19:50:24.183647 27002 net.cpp:382] mnist -> label
I0428 19:50:24.183743 27002 data_layer.cpp:45] output data size: 100,1,28,28
I0428 19:50:24.185981 27002 net.cpp:124] Setting up mnist
I0428 19:50:24.186010 27002 net.cpp:131] Top shape: 100 1 28 28 (78400)
I0428 19:50:24.186015 27002 net.cpp:131] Top shape: 100 (100)
I0428 19:50:24.186019 27002 net.cpp:139] Memory required for data: 314000
I0428 19:50:24.186022 27002 layer_factory.hpp:77] Creating layer label_mnist_1_split
I0428 19:50:24.186043 27002 net.cpp:86] Creating Layer label_mnist_1_split
I0428 19:50:24.186046 27002 net.cpp:408] label_mnist_1_split <- label
I0428 19:50:24.186051 27002 net.cpp:382] label_mnist_1_split -> label_mnist_1_split_0
I0428 19:50:24.186058 27002 net.cpp:382] label_mnist_1_split -> label_mnist_1_split_1
I0428 19:50:24.186106 27002 net.cpp:124] Setting up label_mnist_1_split
I0428 19:50:24.186111 27002 net.cpp:131] Top shape: 100 (100)
I0428 19:50:24.186131 27002 net.cpp:131] Top shape: 100 (100)
I0428 19:50:24.186133 27002 net.cpp:139] Memory required for data: 314800
I0428 19:50:24.186136 27002 layer_factory.hpp:77] Creating layer conv0
I0428 19:50:24.186144 27002 net.cpp:86] Creating Layer conv0
I0428 19:50:24.186147 27002 net.cpp:408] conv0 <- data
I0428 19:50:24.186152 27002 net.cpp:382] conv0 -> conv0
I0428 19:50:24.187906 27002 net.cpp:124] Setting up conv0
I0428 19:50:24.187919 27002 net.cpp:131] Top shape: 100 5 24 24 (288000)
I0428 19:50:24.187922 27002 net.cpp:139] Memory required for data: 1466800
I0428 19:50:24.187932 27002 layer_factory.hpp:77] Creating layer pool0
I0428 19:50:24.187938 27002 net.cpp:86] Creating Layer pool0
I0428 19:50:24.187957 27002 net.cpp:408] pool0 <- conv0
I0428 19:50:24.187963 27002 net.cpp:382] pool0 -> pool0
I0428 19:50:24.188014 27002 net.cpp:124] Setting up pool0
I0428 19:50:24.188019 27002 net.cpp:131] Top shape: 100 5 12 12 (72000)
I0428 19:50:24.188022 27002 net.cpp:139] Memory required for data: 1754800
I0428 19:50:24.188024 27002 layer_factory.hpp:77] Creating layer conv1
I0428 19:50:24.188033 27002 net.cpp:86] Creating Layer conv1
I0428 19:50:24.188036 27002 net.cpp:408] conv1 <- pool0
I0428 19:50:24.188042 27002 net.cpp:382] conv1 -> conv1
I0428 19:50:24.190294 27002 net.cpp:124] Setting up conv1
I0428 19:50:24.190309 27002 net.cpp:131] Top shape: 100 10 8 8 (64000)
I0428 19:50:24.190312 27002 net.cpp:139] Memory required for data: 2010800
I0428 19:50:24.190321 27002 layer_factory.hpp:77] Creating layer pool1
I0428 19:50:24.190345 27002 net.cpp:86] Creating Layer pool1
I0428 19:50:24.190348 27002 net.cpp:408] pool1 <- conv1
I0428 19:50:24.190353 27002 net.cpp:382] pool1 -> pool1
I0428 19:50:24.190392 27002 net.cpp:124] Setting up pool1
I0428 19:50:24.190412 27002 net.cpp:131] Top shape: 100 10 4 4 (16000)
I0428 19:50:24.190414 27002 net.cpp:139] Memory required for data: 2074800
I0428 19:50:24.190418 27002 layer_factory.hpp:77] Creating layer ip1
I0428 19:50:24.190423 27002 net.cpp:86] Creating Layer ip1
I0428 19:50:24.190425 27002 net.cpp:408] ip1 <- pool1
I0428 19:50:24.190445 27002 net.cpp:382] ip1 -> ip1
I0428 19:50:24.190592 27002 net.cpp:124] Setting up ip1
I0428 19:50:24.190598 27002 net.cpp:131] Top shape: 100 10 (1000)
I0428 19:50:24.190613 27002 net.cpp:139] Memory required for data: 2078800
I0428 19:50:24.190619 27002 layer_factory.hpp:77] Creating layer relu1
I0428 19:50:24.190624 27002 net.cpp:86] Creating Layer relu1
I0428 19:50:24.190629 27002 net.cpp:408] relu1 <- ip1
I0428 19:50:24.190634 27002 net.cpp:369] relu1 -> ip1 (in-place)
I0428 19:50:24.190862 27002 net.cpp:124] Setting up relu1
I0428 19:50:24.190872 27002 net.cpp:131] Top shape: 100 10 (1000)
I0428 19:50:24.190876 27002 net.cpp:139] Memory required for data: 2082800
I0428 19:50:24.190878 27002 layer_factory.hpp:77] Creating layer ip2
I0428 19:50:24.190886 27002 net.cpp:86] Creating Layer ip2
I0428 19:50:24.190896 27002 net.cpp:408] ip2 <- ip1
I0428 19:50:24.190901 27002 net.cpp:382] ip2 -> ip2
I0428 19:50:24.191018 27002 net.cpp:124] Setting up ip2
I0428 19:50:24.191026 27002 net.cpp:131] Top shape: 100 50 (5000)
I0428 19:50:24.191028 27002 net.cpp:139] Memory required for data: 2102800
I0428 19:50:24.191033 27002 layer_factory.hpp:77] Creating layer relu2
I0428 19:50:24.191038 27002 net.cpp:86] Creating Layer relu2
I0428 19:50:24.191041 27002 net.cpp:408] relu2 <- ip2
I0428 19:50:24.191052 27002 net.cpp:369] relu2 -> ip2 (in-place)
I0428 19:50:24.191231 27002 net.cpp:124] Setting up relu2
I0428 19:50:24.191239 27002 net.cpp:131] Top shape: 100 50 (5000)
I0428 19:50:24.191242 27002 net.cpp:139] Memory required for data: 2122800
I0428 19:50:24.191246 27002 layer_factory.hpp:77] Creating layer ip3
I0428 19:50:24.191252 27002 net.cpp:86] Creating Layer ip3
I0428 19:50:24.191256 27002 net.cpp:408] ip3 <- ip2
I0428 19:50:24.191259 27002 net.cpp:382] ip3 -> ip3
I0428 19:50:24.191360 27002 net.cpp:124] Setting up ip3
I0428 19:50:24.191366 27002 net.cpp:131] Top shape: 100 10 (1000)
I0428 19:50:24.191370 27002 net.cpp:139] Memory required for data: 2126800
I0428 19:50:24.191377 27002 layer_factory.hpp:77] Creating layer relu3
I0428 19:50:24.191381 27002 net.cpp:86] Creating Layer relu3
I0428 19:50:24.191391 27002 net.cpp:408] relu3 <- ip3
I0428 19:50:24.191395 27002 net.cpp:369] relu3 -> ip3 (in-place)
I0428 19:50:24.192224 27002 net.cpp:124] Setting up relu3
I0428 19:50:24.192236 27002 net.cpp:131] Top shape: 100 10 (1000)
I0428 19:50:24.192240 27002 net.cpp:139] Memory required for data: 2130800
I0428 19:50:24.192243 27002 layer_factory.hpp:77] Creating layer ip3_relu3_0_split
I0428 19:50:24.192250 27002 net.cpp:86] Creating Layer ip3_relu3_0_split
I0428 19:50:24.192253 27002 net.cpp:408] ip3_relu3_0_split <- ip3
I0428 19:50:24.192258 27002 net.cpp:382] ip3_relu3_0_split -> ip3_relu3_0_split_0
I0428 19:50:24.192265 27002 net.cpp:382] ip3_relu3_0_split -> ip3_relu3_0_split_1
I0428 19:50:24.192353 27002 net.cpp:124] Setting up ip3_relu3_0_split
I0428 19:50:24.192359 27002 net.cpp:131] Top shape: 100 10 (1000)
I0428 19:50:24.192363 27002 net.cpp:131] Top shape: 100 10 (1000)
I0428 19:50:24.192366 27002 net.cpp:139] Memory required for data: 2138800
I0428 19:50:24.192368 27002 layer_factory.hpp:77] Creating layer accuracy
I0428 19:50:24.192378 27002 net.cpp:86] Creating Layer accuracy
I0428 19:50:24.192381 27002 net.cpp:408] accuracy <- ip3_relu3_0_split_0
I0428 19:50:24.192385 27002 net.cpp:408] accuracy <- label_mnist_1_split_0
I0428 19:50:24.192389 27002 net.cpp:382] accuracy -> accuracy
…
