…
I0428 19:54:41.128705 28039 net.cpp:296] The NetState phase (0) differed from the phase (1) specified by a rule in layer mnist
I0428 19:54:41.128724 28039 net.cpp:296] The NetState phase (0) differed from the phase (1) specified by a rule in layer accuracy
I0428 19:54:41.128836 28039 net.cpp:53] Initializing net from parameters: 
name: "LeNet"
state {
  phase: TRAIN
  level: 0
  stage: ""
}
layer {
  name: "mnist"
  type: "Data"
  top: "data"
  top: "label"
  include {
    phase: TRAIN
  }
  transform_param {
    scale: 0.00390625
  }
  data_param {
    source: "examples/mnist/mnist_train_lmdb"
    batch_size: 64
    backend: LMDB
  }
}
layer {
  name: "conv0"
  type: "Convolution"
  bottom: "data"
  top: "conv0"
  param {
    lr_mult: 1
  }
  param {
    lr_mult: 2
  }
  convolution_param {
    num_output: 5
    kernel_size: 5
    stride: 1
    weight_filler {
      type: "xavier"
    }
    bias_filler {
      type: "constant"
    }
  }
}
layer {
  name: "pool0"
  type: "Pooling"
  bottom: "conv0"
  top: "pool0"
  pooling_param {
    pool: MAX
    kernel_size: 2
    stride: 2
  }
}
layer {
  name: "conv1"
  type: "Convolution"
  bottom: "pool0"
  top: "conv1"
  param {
    lr_mult: 1
  }
  param {
    lr_mult: 2
  }
  convolution_param {
    num_output: 100
    kernel_size: 5
    stride: 1
    weight_filler {
      type: "xavier"
    }
    bias_filler {
      type: "constant"
    }
  }
}
layer {
  name: "pool1"
  type: "Pooling"
  bottom: "conv1"
  top: "pool1"
  pooling_param {
    pool: MAX
    kernel_size: 2
    stride: 2
  }
}
layer {
  name: "ip1"
  type: "InnerProduct"
  bottom: "pool1"
  top: "ip1"
  param {
    lr_mult: 1
  }
  param {
    lr_mult: 2
  }
  inner_product_param {
    num_output: 10
    weight_filler {
      type: "xavier"
    }
    bias_filler {
      type: "constant"
    }
  }
}
layer {
  name: "relu1"
  type: "ReLU"
  bottom: "ip1"
  top: "ip1"
}
layer {
  name: "ip2"
  type: "InnerProduct"
  bottom: "ip1"
  top: "ip2"
  param {
    lr_mult: 1
  }
  param {
    lr_mult: 2
  }
  inner_product_param {
    num_output: 10
    weight_filler {
      type: "xavier"
    }
    bias_filler {
      type: "constant"
    }
  }
}
layer {
  name: "relu2"
  type: "ReLU"
  bottom: "ip2"
  top: "ip2"
}
layer {
  name: "ip3"
  type: "InnerProduct"
  bottom: "ip2"
  top: "ip3"
  param {
    lr_mult: 1
  }
  param {
    lr_mult: 2
  }
  inner_product_param {
    num_output: 10
    weight_filler {
      type: "xavier"
    }
    bias_filler {
      type: "constant"
    }
  }
}
layer {
  name: "relu3"
  type: "ReLU"
  bottom: "ip3"
  top: "ip3"
}
layer {
  name: "loss"
  type: "SoftmaxWithLoss"
  bottom: "ip3"
  bottom: "label"
  top: "loss"
}
I0428 19:54:41.128918 28039 layer_factory.hpp:77] Creating layer mnist
I0428 19:54:41.129016 28039 db_lmdb.cpp:35] Opened lmdb examples/mnist/mnist_train_lmdb
I0428 19:54:41.129040 28039 net.cpp:86] Creating Layer mnist
I0428 19:54:41.129050 28039 net.cpp:382] mnist -> data
I0428 19:54:41.129071 28039 net.cpp:382] mnist -> label
I0428 19:54:41.130161 28039 data_layer.cpp:45] output data size: 64,1,28,28
I0428 19:54:41.132633 28039 net.cpp:124] Setting up mnist
I0428 19:54:41.132653 28039 net.cpp:131] Top shape: 64 1 28 28 (50176)
I0428 19:54:41.132659 28039 net.cpp:131] Top shape: 64 (64)
I0428 19:54:41.132663 28039 net.cpp:139] Memory required for data: 200960
I0428 19:54:41.132670 28039 layer_factory.hpp:77] Creating layer conv0
I0428 19:54:41.132688 28039 net.cpp:86] Creating Layer conv0
I0428 19:54:41.132707 28039 net.cpp:408] conv0 <- data
I0428 19:54:41.132722 28039 net.cpp:382] conv0 -> conv0
I0428 19:54:41.422725 28039 net.cpp:124] Setting up conv0
I0428 19:54:41.422755 28039 net.cpp:131] Top shape: 64 5 24 24 (184320)
I0428 19:54:41.422760 28039 net.cpp:139] Memory required for data: 938240
I0428 19:54:41.422776 28039 layer_factory.hpp:77] Creating layer pool0
I0428 19:54:41.422791 28039 net.cpp:86] Creating Layer pool0
I0428 19:54:41.422794 28039 net.cpp:408] pool0 <- conv0
I0428 19:54:41.422801 28039 net.cpp:382] pool0 -> pool0
I0428 19:54:41.422854 28039 net.cpp:124] Setting up pool0
I0428 19:54:41.422861 28039 net.cpp:131] Top shape: 64 5 12 12 (46080)
I0428 19:54:41.422864 28039 net.cpp:139] Memory required for data: 1122560
I0428 19:54:41.422868 28039 layer_factory.hpp:77] Creating layer conv1
I0428 19:54:41.422879 28039 net.cpp:86] Creating Layer conv1
I0428 19:54:41.422883 28039 net.cpp:408] conv1 <- pool0
I0428 19:54:41.422888 28039 net.cpp:382] conv1 -> conv1
I0428 19:54:41.425848 28039 net.cpp:124] Setting up conv1
I0428 19:54:41.425864 28039 net.cpp:131] Top shape: 64 100 8 8 (409600)
I0428 19:54:41.425868 28039 net.cpp:139] Memory required for data: 2760960
I0428 19:54:41.425879 28039 layer_factory.hpp:77] Creating layer pool1
I0428 19:54:41.425886 28039 net.cpp:86] Creating Layer pool1
I0428 19:54:41.425890 28039 net.cpp:408] pool1 <- conv1
I0428 19:54:41.425896 28039 net.cpp:382] pool1 -> pool1
I0428 19:54:41.425937 28039 net.cpp:124] Setting up pool1
I0428 19:54:41.425943 28039 net.cpp:131] Top shape: 64 100 4 4 (102400)
I0428 19:54:41.425946 28039 net.cpp:139] Memory required for data: 3170560
I0428 19:54:41.425951 28039 layer_factory.hpp:77] Creating layer ip1
I0428 19:54:41.425962 28039 net.cpp:86] Creating Layer ip1
I0428 19:54:41.425966 28039 net.cpp:408] ip1 <- pool1
I0428 19:54:41.425971 28039 net.cpp:382] ip1 -> ip1
I0428 19:54:41.426175 28039 net.cpp:124] Setting up ip1
I0428 19:54:41.426184 28039 net.cpp:131] Top shape: 64 10 (640)
I0428 19:54:41.426188 28039 net.cpp:139] Memory required for data: 3173120
I0428 19:54:41.426196 28039 layer_factory.hpp:77] Creating layer relu1
I0428 19:54:41.426203 28039 net.cpp:86] Creating Layer relu1
I0428 19:54:41.426205 28039 net.cpp:408] relu1 <- ip1
I0428 19:54:41.426210 28039 net.cpp:369] relu1 -> ip1 (in-place)
I0428 19:54:41.426389 28039 net.cpp:124] Setting up relu1
I0428 19:54:41.426398 28039 net.cpp:131] Top shape: 64 10 (640)
I0428 19:54:41.426403 28039 net.cpp:139] Memory required for data: 3175680
I0428 19:54:41.426405 28039 layer_factory.hpp:77] Creating layer ip2
I0428 19:54:41.426412 28039 net.cpp:86] Creating Layer ip2
I0428 19:54:41.426416 28039 net.cpp:408] ip2 <- ip1
I0428 19:54:41.426421 28039 net.cpp:382] ip2 -> ip2
I0428 19:54:41.426524 28039 net.cpp:124] Setting up ip2
I0428 19:54:41.426532 28039 net.cpp:131] Top shape: 64 10 (640)
I0428 19:54:41.426535 28039 net.cpp:139] Memory required for data: 3178240
I0428 19:54:41.426542 28039 layer_factory.hpp:77] Creating layer relu2
I0428 19:54:41.426548 28039 net.cpp:86] Creating Layer relu2
I0428 19:54:41.426551 28039 net.cpp:408] relu2 <- ip2
I0428 19:54:41.426555 28039 net.cpp:369] relu2 -> ip2 (in-place)
I0428 19:54:41.427336 28039 net.cpp:124] Setting up relu2
I0428 19:54:41.427350 28039 net.cpp:131] Top shape: 64 10 (640)
I0428 19:54:41.427353 28039 net.cpp:139] Memory required for data: 3180800
I0428 19:54:41.427357 28039 layer_factory.hpp:77] Creating layer ip3
I0428 19:54:41.427366 28039 net.cpp:86] Creating Layer ip3
I0428 19:54:41.427368 28039 net.cpp:408] ip3 <- ip2
I0428 19:54:41.427374 28039 net.cpp:382] ip3 -> ip3
I0428 19:54:41.427482 28039 net.cpp:124] Setting up ip3
I0428 19:54:41.427491 28039 net.cpp:131] Top shape: 64 10 (640)
I0428 19:54:41.427495 28039 net.cpp:139] Memory required for data: 3183360
I0428 19:54:41.427503 28039 layer_factory.hpp:77] Creating layer relu3
I0428 19:54:41.427508 28039 net.cpp:86] Creating Layer relu3
I0428 19:54:41.427512 28039 net.cpp:408] relu3 <- ip3
I0428 19:54:41.427516 28039 net.cpp:369] relu3 -> ip3 (in-place)
I0428 19:54:41.427698 28039 net.cpp:124] Setting up relu3
I0428 19:54:41.427708 28039 net.cpp:131] Top shape: 64 10 (640)
I0428 19:54:41.427711 28039 net.cpp:139] Memory required for data: 3185920
I0428 19:54:41.427716 28039 layer_factory.hpp:77] Creating layer loss
I0428 19:54:41.427721 28039 net.cpp:86] Creating Layer loss
I0428 19:54:41.427724 28039 net.cpp:408] loss <- ip3
I0428 19:54:41.427728 28039 net.cpp:408] loss <- label
I0428 19:54:41.427734 28039 net.cpp:382] loss -> loss
I0428 19:54:41.427753 28039 layer_factory.hpp:77] Creating layer loss
…
I0428 19:54:41.428450 28039 solver.cpp:173] Creating test net (#0) specified by net file: ECE595/mnist/train_test/var_everything2/lenet_train_test716.prototxt
I0428 19:54:41.428479 28039 net.cpp:296] The NetState phase (1) differed from the phase (0) specified by a rule in layer mnist
I0428 19:54:41.428578 28039 net.cpp:53] Initializing net from parameters: 
name: "LeNet"
state {
  phase: TEST
}
layer {
  name: "mnist"
  type: "Data"
  top: "data"
  top: "label"
  include {
    phase: TEST
  }
  transform_param {
    scale: 0.00390625
  }
  data_param {
    source: "examples/mnist/mnist_test_lmdb"
    batch_size: 100
    backend: LMDB
  }
}
layer {
  name: "conv0"
  type: "Convolution"
  bottom: "data"
  top: "conv0"
  param {
    lr_mult: 1
  }
  param {
    lr_mult: 2
  }
  convolution_param {
    num_output: 5
    kernel_size: 5
    stride: 1
    weight_filler {
      type: "xavier"
    }
    bias_filler {
      type: "constant"
    }
  }
}
layer {
  name: "pool0"
  type: "Pooling"
  bottom: "conv0"
  top: "pool0"
  pooling_param {
    pool: MAX
    kernel_size: 2
    stride: 2
  }
}
layer {
  name: "conv1"
  type: "Convolution"
  bottom: "pool0"
  top: "conv1"
  param {
    lr_mult: 1
  }
  param {
    lr_mult: 2
  }
  convolution_param {
    num_output: 100
    kernel_size: 5
    stride: 1
    weight_filler {
      type: "xavier"
    }
    bias_filler {
      type: "constant"
    }
  }
}
layer {
  name: "pool1"
  type: "Pooling"
  bottom: "conv1"
  top: "pool1"
  pooling_param {
    pool: MAX
    kernel_size: 2
    stride: 2
  }
}
layer {
  name: "ip1"
  type: "InnerProduct"
  bottom: "pool1"
  top: "ip1"
  param {
    lr_mult: 1
  }
  param {
    lr_mult: 2
  }
  inner_product_param {
    num_output: 10
    weight_filler {
      type: "xavier"
    }
    bias_filler {
      type: "constant"
    }
  }
}
layer {
  name: "relu1"
  type: "ReLU"
  bottom: "ip1"
  top: "ip1"
}
layer {
  name: "ip2"
  type: "InnerProduct"
  bottom: "ip1"
  top: "ip2"
  param {
    lr_mult: 1
  }
  param {
    lr_mult: 2
  }
  inner_product_param {
    num_output: 10
    weight_filler {
      type: "xavier"
    }
    bias_filler {
      type: "constant"
    }
  }
}
layer {
  name: "relu2"
  type: "ReLU"
  bottom: "ip2"
  top: "ip2"
}
layer {
  name: "ip3"
  type: "InnerProduct"
  bottom: "ip2"
  top: "ip3"
  param {
    lr_mult: 1
  }
  param {
    lr_mult: 2
  }
  inner_product_param {
    num_output: 10
    weight_filler {
      type: "xavier"
    }
    bias_filler {
      type: "constant"
    }
  }
}
layer {
  name: "relu3"
  type: "ReLU"
  bottom: "ip3"
  top: "ip3"
}
layer {
  name: "accuracy"
  type: "Accuracy"
  bottom: "ip3"
  bottom: "label"
  top: "accuracy"
  include {
    phase: TEST
  }
}
layer {
  name: "loss"
  type: "SoftmaxWithLoss"
  bottom: "ip3"
  bottom: "label"
  top: "loss"
}
I0428 19:54:41.428664 28039 layer_factory.hpp:77] Creating layer mnist
I0428 19:54:41.428712 28039 db_lmdb.cpp:35] Opened lmdb examples/mnist/mnist_test_lmdb
I0428 19:54:41.428726 28039 net.cpp:86] Creating Layer mnist
I0428 19:54:41.428731 28039 net.cpp:382] mnist -> data
I0428 19:54:41.428740 28039 net.cpp:382] mnist -> label
I0428 19:54:41.428836 28039 data_layer.cpp:45] output data size: 100,1,28,28
I0428 19:54:41.430867 28039 net.cpp:124] Setting up mnist
I0428 19:54:41.430881 28039 net.cpp:131] Top shape: 100 1 28 28 (78400)
I0428 19:54:41.430887 28039 net.cpp:131] Top shape: 100 (100)
I0428 19:54:41.430891 28039 net.cpp:139] Memory required for data: 314000
I0428 19:54:41.430896 28039 layer_factory.hpp:77] Creating layer label_mnist_1_split
I0428 19:54:41.430907 28039 net.cpp:86] Creating Layer label_mnist_1_split
I0428 19:54:41.430910 28039 net.cpp:408] label_mnist_1_split <- label
I0428 19:54:41.430917 28039 net.cpp:382] label_mnist_1_split -> label_mnist_1_split_0
I0428 19:54:41.430924 28039 net.cpp:382] label_mnist_1_split -> label_mnist_1_split_1
I0428 19:54:41.430981 28039 net.cpp:124] Setting up label_mnist_1_split
I0428 19:54:41.430987 28039 net.cpp:131] Top shape: 100 (100)
I0428 19:54:41.430991 28039 net.cpp:131] Top shape: 100 (100)
I0428 19:54:41.430995 28039 net.cpp:139] Memory required for data: 314800
I0428 19:54:41.430999 28039 layer_factory.hpp:77] Creating layer conv0
I0428 19:54:41.431007 28039 net.cpp:86] Creating Layer conv0
I0428 19:54:41.431010 28039 net.cpp:408] conv0 <- data
I0428 19:54:41.431015 28039 net.cpp:382] conv0 -> conv0
I0428 19:54:41.432850 28039 net.cpp:124] Setting up conv0
I0428 19:54:41.432867 28039 net.cpp:131] Top shape: 100 5 24 24 (288000)
I0428 19:54:41.432870 28039 net.cpp:139] Memory required for data: 1466800
I0428 19:54:41.432880 28039 layer_factory.hpp:77] Creating layer pool0
I0428 19:54:41.432888 28039 net.cpp:86] Creating Layer pool0
I0428 19:54:41.432893 28039 net.cpp:408] pool0 <- conv0
I0428 19:54:41.432898 28039 net.cpp:382] pool0 -> pool0
I0428 19:54:41.432940 28039 net.cpp:124] Setting up pool0
I0428 19:54:41.432945 28039 net.cpp:131] Top shape: 100 5 12 12 (72000)
I0428 19:54:41.432948 28039 net.cpp:139] Memory required for data: 1754800
I0428 19:54:41.432951 28039 layer_factory.hpp:77] Creating layer conv1
I0428 19:54:41.432962 28039 net.cpp:86] Creating Layer conv1
I0428 19:54:41.432965 28039 net.cpp:408] conv1 <- pool0
I0428 19:54:41.432972 28039 net.cpp:382] conv1 -> conv1
I0428 19:54:41.434623 28039 net.cpp:124] Setting up conv1
I0428 19:54:41.434638 28039 net.cpp:131] Top shape: 100 100 8 8 (640000)
I0428 19:54:41.434641 28039 net.cpp:139] Memory required for data: 4314800
I0428 19:54:41.434650 28039 layer_factory.hpp:77] Creating layer pool1
I0428 19:54:41.434659 28039 net.cpp:86] Creating Layer pool1
I0428 19:54:41.434662 28039 net.cpp:408] pool1 <- conv1
I0428 19:54:41.434669 28039 net.cpp:382] pool1 -> pool1
I0428 19:54:41.434711 28039 net.cpp:124] Setting up pool1
I0428 19:54:41.434717 28039 net.cpp:131] Top shape: 100 100 4 4 (160000)
I0428 19:54:41.434726 28039 net.cpp:139] Memory required for data: 4954800
I0428 19:54:41.434731 28039 layer_factory.hpp:77] Creating layer ip1
I0428 19:54:41.434737 28039 net.cpp:86] Creating Layer ip1
I0428 19:54:41.434741 28039 net.cpp:408] ip1 <- pool1
I0428 19:54:41.434748 28039 net.cpp:382] ip1 -> ip1
I0428 19:54:41.434949 28039 net.cpp:124] Setting up ip1
I0428 19:54:41.434958 28039 net.cpp:131] Top shape: 100 10 (1000)
I0428 19:54:41.434973 28039 net.cpp:139] Memory required for data: 4958800
I0428 19:54:41.434981 28039 layer_factory.hpp:77] Creating layer relu1
I0428 19:54:41.434986 28039 net.cpp:86] Creating Layer relu1
I0428 19:54:41.434991 28039 net.cpp:408] relu1 <- ip1
I0428 19:54:41.434998 28039 net.cpp:369] relu1 -> ip1 (in-place)
I0428 19:54:41.435184 28039 net.cpp:124] Setting up relu1
I0428 19:54:41.435194 28039 net.cpp:131] Top shape: 100 10 (1000)
I0428 19:54:41.435197 28039 net.cpp:139] Memory required for data: 4962800
I0428 19:54:41.435200 28039 layer_factory.hpp:77] Creating layer ip2
I0428 19:54:41.435209 28039 net.cpp:86] Creating Layer ip2
I0428 19:54:41.435212 28039 net.cpp:408] ip2 <- ip1
I0428 19:54:41.435217 28039 net.cpp:382] ip2 -> ip2
I0428 19:54:41.435336 28039 net.cpp:124] Setting up ip2
I0428 19:54:41.435344 28039 net.cpp:131] Top shape: 100 10 (1000)
I0428 19:54:41.435348 28039 net.cpp:139] Memory required for data: 4966800
I0428 19:54:41.435354 28039 layer_factory.hpp:77] Creating layer relu2
I0428 19:54:41.435360 28039 net.cpp:86] Creating Layer relu2
I0428 19:54:41.435364 28039 net.cpp:408] relu2 <- ip2
I0428 19:54:41.435367 28039 net.cpp:369] relu2 -> ip2 (in-place)
I0428 19:54:41.435581 28039 net.cpp:124] Setting up relu2
I0428 19:54:41.435590 28039 net.cpp:131] Top shape: 100 10 (1000)
I0428 19:54:41.435593 28039 net.cpp:139] Memory required for data: 4970800
I0428 19:54:41.435597 28039 layer_factory.hpp:77] Creating layer ip3
I0428 19:54:41.435605 28039 net.cpp:86] Creating Layer ip3
I0428 19:54:41.435607 28039 net.cpp:408] ip3 <- ip2
I0428 19:54:41.435612 28039 net.cpp:382] ip3 -> ip3
I0428 19:54:41.435719 28039 net.cpp:124] Setting up ip3
I0428 19:54:41.435725 28039 net.cpp:131] Top shape: 100 10 (1000)
I0428 19:54:41.435729 28039 net.cpp:139] Memory required for data: 4974800
I0428 19:54:41.435737 28039 layer_factory.hpp:77] Creating layer relu3
I0428 19:54:41.435745 28039 net.cpp:86] Creating Layer relu3
I0428 19:54:41.435748 28039 net.cpp:408] relu3 <- ip3
I0428 19:54:41.435758 28039 net.cpp:369] relu3 -> ip3 (in-place)
I0428 19:54:41.436591 28039 net.cpp:124] Setting up relu3
I0428 19:54:41.436604 28039 net.cpp:131] Top shape: 100 10 (1000)
I0428 19:54:41.436607 28039 net.cpp:139] Memory required for data: 4978800
I0428 19:54:41.436610 28039 layer_factory.hpp:77] Creating layer ip3_relu3_0_split
I0428 19:54:41.436615 28039 net.cpp:86] Creating Layer ip3_relu3_0_split
I0428 19:54:41.436619 28039 net.cpp:408] ip3_relu3_0_split <- ip3
I0428 19:54:41.436625 28039 net.cpp:382] ip3_relu3_0_split -> ip3_relu3_0_split_0
I0428 19:54:41.436630 28039 net.cpp:382] ip3_relu3_0_split -> ip3_relu3_0_split_1
I0428 19:54:41.436676 28039 net.cpp:124] Setting up ip3_relu3_0_split
I0428 19:54:41.436681 28039 net.cpp:131] Top shape: 100 10 (1000)
I0428 19:54:41.436684 28039 net.cpp:131] Top shape: 100 10 (1000)
I0428 19:54:41.436687 28039 net.cpp:139] Memory required for data: 4986800
I0428 19:54:41.436691 28039 layer_factory.hpp:77] Creating layer accuracy
I0428 19:54:41.436697 28039 net.cpp:86] Creating Layer accuracy
I0428 19:54:41.436702 28039 net.cpp:408] accuracy <- ip3_relu3_0_split_0
I0428 19:54:41.436705 28039 net.cpp:408] accuracy <- label_mnist_1_split_0
I0428 19:54:41.436710 28039 net.cpp:382] accuracy -> accuracy
…
