…
I0428 20:27:18.885957  3016 net.cpp:296] The NetState phase (0) differed from the phase (1) specified by a rule in layer mnist
I0428 20:27:18.885977  3016 net.cpp:296] The NetState phase (0) differed from the phase (1) specified by a rule in layer accuracy
I0428 20:27:18.886065  3016 net.cpp:53] Initializing net from parameters: 
name: "LeNet"
state {
  phase: TRAIN
  level: 0
  stage: ""
}
layer {
  name: "mnist"
  type: "Data"
  top: "data"
  top: "label"
  include {
    phase: TRAIN
  }
  transform_param {
    scale: 0.00390625
  }
  data_param {
    source: "examples/mnist/mnist_train_lmdb"
    batch_size: 64
    backend: LMDB
  }
}
layer {
  name: "conv0"
  type: "Convolution"
  bottom: "data"
  top: "conv0"
  param {
    lr_mult: 1
  }
  param {
    lr_mult: 2
  }
  convolution_param {
    num_output: 100
    kernel_size: 5
    stride: 1
    weight_filler {
      type: "xavier"
    }
    bias_filler {
      type: "constant"
    }
  }
}
layer {
  name: "pool0"
  type: "Pooling"
  bottom: "conv0"
  top: "pool0"
  pooling_param {
    pool: MAX
    kernel_size: 2
    stride: 2
  }
}
layer {
  name: "conv1"
  type: "Convolution"
  bottom: "pool0"
  top: "conv1"
  param {
    lr_mult: 1
  }
  param {
    lr_mult: 2
  }
  convolution_param {
    num_output: 5
    kernel_size: 5
    stride: 1
    weight_filler {
      type: "xavier"
    }
    bias_filler {
      type: "constant"
    }
  }
}
layer {
  name: "pool1"
  type: "Pooling"
  bottom: "conv1"
  top: "pool1"
  pooling_param {
    pool: MAX
    kernel_size: 2
    stride: 2
  }
}
layer {
  name: "ip1"
  type: "InnerProduct"
  bottom: "pool1"
  top: "ip1"
  param {
    lr_mult: 1
  }
  param {
    lr_mult: 2
  }
  inner_product_param {
    num_output: 10
    weight_filler {
      type: "xavier"
    }
    bias_filler {
      type: "constant"
    }
  }
}
layer {
  name: "relu1"
  type: "ReLU"
  bottom: "ip1"
  top: "ip1"
}
layer {
  name: "ip2"
  type: "InnerProduct"
  bottom: "ip1"
  top: "ip2"
  param {
    lr_mult: 1
  }
  param {
    lr_mult: 2
  }
  inner_product_param {
    num_output: 10
    weight_filler {
      type: "xavier"
    }
    bias_filler {
      type: "constant"
    }
  }
}
layer {
  name: "relu2"
  type: "ReLU"
  bottom: "ip2"
  top: "ip2"
}
layer {
  name: "loss"
  type: "SoftmaxWithLoss"
  bottom: "ip2"
  bottom: "label"
  top: "loss"
}
I0428 20:27:18.886142  3016 layer_factory.hpp:77] Creating layer mnist
I0428 20:27:18.886240  3016 db_lmdb.cpp:35] Opened lmdb examples/mnist/mnist_train_lmdb
I0428 20:27:18.886263  3016 net.cpp:86] Creating Layer mnist
I0428 20:27:18.886273  3016 net.cpp:382] mnist -> data
I0428 20:27:18.886296  3016 net.cpp:382] mnist -> label
I0428 20:27:18.887432  3016 data_layer.cpp:45] output data size: 64,1,28,28
I0428 20:27:18.890004  3016 net.cpp:124] Setting up mnist
I0428 20:27:18.890023  3016 net.cpp:131] Top shape: 64 1 28 28 (50176)
I0428 20:27:18.890029  3016 net.cpp:131] Top shape: 64 (64)
I0428 20:27:18.890033  3016 net.cpp:139] Memory required for data: 200960
I0428 20:27:18.890039  3016 layer_factory.hpp:77] Creating layer conv0
I0428 20:27:18.890058  3016 net.cpp:86] Creating Layer conv0
I0428 20:27:18.890063  3016 net.cpp:408] conv0 <- data
I0428 20:27:18.890076  3016 net.cpp:382] conv0 -> conv0
I0428 20:27:19.184069  3016 net.cpp:124] Setting up conv0
I0428 20:27:19.184100  3016 net.cpp:131] Top shape: 64 100 24 24 (3686400)
I0428 20:27:19.184105  3016 net.cpp:139] Memory required for data: 14946560
I0428 20:27:19.184146  3016 layer_factory.hpp:77] Creating layer pool0
I0428 20:27:19.184162  3016 net.cpp:86] Creating Layer pool0
I0428 20:27:19.184167  3016 net.cpp:408] pool0 <- conv0
I0428 20:27:19.184173  3016 net.cpp:382] pool0 -> pool0
I0428 20:27:19.184234  3016 net.cpp:124] Setting up pool0
I0428 20:27:19.184243  3016 net.cpp:131] Top shape: 64 100 12 12 (921600)
I0428 20:27:19.184247  3016 net.cpp:139] Memory required for data: 18632960
I0428 20:27:19.184252  3016 layer_factory.hpp:77] Creating layer conv1
I0428 20:27:19.184264  3016 net.cpp:86] Creating Layer conv1
I0428 20:27:19.184273  3016 net.cpp:408] conv1 <- pool0
I0428 20:27:19.184278  3016 net.cpp:382] conv1 -> conv1
I0428 20:27:19.187634  3016 net.cpp:124] Setting up conv1
I0428 20:27:19.187654  3016 net.cpp:131] Top shape: 64 5 8 8 (20480)
I0428 20:27:19.187659  3016 net.cpp:139] Memory required for data: 18714880
I0428 20:27:19.187669  3016 layer_factory.hpp:77] Creating layer pool1
I0428 20:27:19.187678  3016 net.cpp:86] Creating Layer pool1
I0428 20:27:19.187682  3016 net.cpp:408] pool1 <- conv1
I0428 20:27:19.187688  3016 net.cpp:382] pool1 -> pool1
I0428 20:27:19.187734  3016 net.cpp:124] Setting up pool1
I0428 20:27:19.187742  3016 net.cpp:131] Top shape: 64 5 4 4 (5120)
I0428 20:27:19.187747  3016 net.cpp:139] Memory required for data: 18735360
I0428 20:27:19.187750  3016 layer_factory.hpp:77] Creating layer ip1
I0428 20:27:19.187764  3016 net.cpp:86] Creating Layer ip1
I0428 20:27:19.187770  3016 net.cpp:408] ip1 <- pool1
I0428 20:27:19.187777  3016 net.cpp:382] ip1 -> ip1
I0428 20:27:19.187897  3016 net.cpp:124] Setting up ip1
I0428 20:27:19.187906  3016 net.cpp:131] Top shape: 64 10 (640)
I0428 20:27:19.187911  3016 net.cpp:139] Memory required for data: 18737920
I0428 20:27:19.187919  3016 layer_factory.hpp:77] Creating layer relu1
I0428 20:27:19.187925  3016 net.cpp:86] Creating Layer relu1
I0428 20:27:19.187929  3016 net.cpp:408] relu1 <- ip1
I0428 20:27:19.187934  3016 net.cpp:369] relu1 -> ip1 (in-place)
I0428 20:27:19.188129  3016 net.cpp:124] Setting up relu1
I0428 20:27:19.188140  3016 net.cpp:131] Top shape: 64 10 (640)
I0428 20:27:19.188144  3016 net.cpp:139] Memory required for data: 18740480
I0428 20:27:19.188148  3016 layer_factory.hpp:77] Creating layer ip2
I0428 20:27:19.188155  3016 net.cpp:86] Creating Layer ip2
I0428 20:27:19.188159  3016 net.cpp:408] ip2 <- ip1
I0428 20:27:19.188165  3016 net.cpp:382] ip2 -> ip2
I0428 20:27:19.188277  3016 net.cpp:124] Setting up ip2
I0428 20:27:19.188283  3016 net.cpp:131] Top shape: 64 10 (640)
I0428 20:27:19.188287  3016 net.cpp:139] Memory required for data: 18743040
I0428 20:27:19.188294  3016 layer_factory.hpp:77] Creating layer relu2
I0428 20:27:19.188302  3016 net.cpp:86] Creating Layer relu2
I0428 20:27:19.188305  3016 net.cpp:408] relu2 <- ip2
I0428 20:27:19.188310  3016 net.cpp:369] relu2 -> ip2 (in-place)
I0428 20:27:19.189188  3016 net.cpp:124] Setting up relu2
I0428 20:27:19.189205  3016 net.cpp:131] Top shape: 64 10 (640)
I0428 20:27:19.189209  3016 net.cpp:139] Memory required for data: 18745600
I0428 20:27:19.189213  3016 layer_factory.hpp:77] Creating layer loss
I0428 20:27:19.189220  3016 net.cpp:86] Creating Layer loss
I0428 20:27:19.189224  3016 net.cpp:408] loss <- ip2
I0428 20:27:19.189230  3016 net.cpp:408] loss <- label
I0428 20:27:19.189237  3016 net.cpp:382] loss -> loss
I0428 20:27:19.189261  3016 layer_factory.hpp:77] Creating layer loss
…
I0428 20:27:19.189985  3016 solver.cpp:173] Creating test net (#0) specified by net file: ECE595/mnist/train_test/var_everything2/lenet_train_test1486.prototxt
I0428 20:27:19.190026  3016 net.cpp:296] The NetState phase (1) differed from the phase (0) specified by a rule in layer mnist
I0428 20:27:19.190146  3016 net.cpp:53] Initializing net from parameters: 
name: "LeNet"
state {
  phase: TEST
}
layer {
  name: "mnist"
  type: "Data"
  top: "data"
  top: "label"
  include {
    phase: TEST
  }
  transform_param {
    scale: 0.00390625
  }
  data_param {
    source: "examples/mnist/mnist_test_lmdb"
    batch_size: 100
    backend: LMDB
  }
}
layer {
  name: "conv0"
  type: "Convolution"
  bottom: "data"
  top: "conv0"
  param {
    lr_mult: 1
  }
  param {
    lr_mult: 2
  }
  convolution_param {
    num_output: 100
    kernel_size: 5
    stride: 1
    weight_filler {
      type: "xavier"
    }
    bias_filler {
      type: "constant"
    }
  }
}
layer {
  name: "pool0"
  type: "Pooling"
  bottom: "conv0"
  top: "pool0"
  pooling_param {
    pool: MAX
    kernel_size: 2
    stride: 2
  }
}
layer {
  name: "conv1"
  type: "Convolution"
  bottom: "pool0"
  top: "conv1"
  param {
    lr_mult: 1
  }
  param {
    lr_mult: 2
  }
  convolution_param {
    num_output: 5
    kernel_size: 5
    stride: 1
    weight_filler {
      type: "xavier"
    }
    bias_filler {
      type: "constant"
    }
  }
}
layer {
  name: "pool1"
  type: "Pooling"
  bottom: "conv1"
  top: "pool1"
  pooling_param {
    pool: MAX
    kernel_size: 2
    stride: 2
  }
}
layer {
  name: "ip1"
  type: "InnerProduct"
  bottom: "pool1"
  top: "ip1"
  param {
    lr_mult: 1
  }
  param {
    lr_mult: 2
  }
  inner_product_param {
    num_output: 10
    weight_filler {
      type: "xavier"
    }
    bias_filler {
      type: "constant"
    }
  }
}
layer {
  name: "relu1"
  type: "ReLU"
  bottom: "ip1"
  top: "ip1"
}
layer {
  name: "ip2"
  type: "InnerProduct"
  bottom: "ip1"
  top: "ip2"
  param {
    lr_mult: 1
  }
  param {
    lr_mult: 2
  }
  inner_product_param {
    num_output: 10
    weight_filler {
      type: "xavier"
    }
    bias_filler {
      type: "constant"
    }
  }
}
layer {
  name: "relu2"
  type: "ReLU"
  bottom: "ip2"
  top: "ip2"
}
layer {
  name: "accuracy"
  type: "Accuracy"
  bottom: "ip2"
  bottom: "label"
  top: "accuracy"
  include {
    phase: TEST
  }
}
layer {
  name: "loss"
  type: "SoftmaxWithLoss"
  bottom: "ip2"
  bottom: "label"
  top: "loss"
}
I0428 20:27:19.190223  3016 layer_factory.hpp:77] Creating layer mnist
I0428 20:27:19.190284  3016 db_lmdb.cpp:35] Opened lmdb examples/mnist/mnist_test_lmdb
I0428 20:27:19.190297  3016 net.cpp:86] Creating Layer mnist
I0428 20:27:19.190304  3016 net.cpp:382] mnist -> data
I0428 20:27:19.190312  3016 net.cpp:382] mnist -> label
I0428 20:27:19.190417  3016 data_layer.cpp:45] output data size: 100,1,28,28
I0428 20:27:19.192669  3016 net.cpp:124] Setting up mnist
I0428 20:27:19.192687  3016 net.cpp:131] Top shape: 100 1 28 28 (78400)
I0428 20:27:19.192694  3016 net.cpp:131] Top shape: 100 (100)
I0428 20:27:19.192698  3016 net.cpp:139] Memory required for data: 314000
I0428 20:27:19.192703  3016 layer_factory.hpp:77] Creating layer label_mnist_1_split
I0428 20:27:19.192724  3016 net.cpp:86] Creating Layer label_mnist_1_split
I0428 20:27:19.192729  3016 net.cpp:408] label_mnist_1_split <- label
I0428 20:27:19.192735  3016 net.cpp:382] label_mnist_1_split -> label_mnist_1_split_0
I0428 20:27:19.192744  3016 net.cpp:382] label_mnist_1_split -> label_mnist_1_split_1
I0428 20:27:19.192860  3016 net.cpp:124] Setting up label_mnist_1_split
I0428 20:27:19.192875  3016 net.cpp:131] Top shape: 100 (100)
I0428 20:27:19.192883  3016 net.cpp:131] Top shape: 100 (100)
I0428 20:27:19.192890  3016 net.cpp:139] Memory required for data: 314800
I0428 20:27:19.192898  3016 layer_factory.hpp:77] Creating layer conv0
I0428 20:27:19.192912  3016 net.cpp:86] Creating Layer conv0
I0428 20:27:19.192920  3016 net.cpp:408] conv0 <- data
I0428 20:27:19.192930  3016 net.cpp:382] conv0 -> conv0
I0428 20:27:19.194665  3016 net.cpp:124] Setting up conv0
I0428 20:27:19.194681  3016 net.cpp:131] Top shape: 100 100 24 24 (5760000)
I0428 20:27:19.194686  3016 net.cpp:139] Memory required for data: 23354800
I0428 20:27:19.194697  3016 layer_factory.hpp:77] Creating layer pool0
I0428 20:27:19.194705  3016 net.cpp:86] Creating Layer pool0
I0428 20:27:19.194710  3016 net.cpp:408] pool0 <- conv0
I0428 20:27:19.194716  3016 net.cpp:382] pool0 -> pool0
I0428 20:27:19.194758  3016 net.cpp:124] Setting up pool0
I0428 20:27:19.194766  3016 net.cpp:131] Top shape: 100 100 12 12 (1440000)
I0428 20:27:19.194768  3016 net.cpp:139] Memory required for data: 29114800
I0428 20:27:19.194772  3016 layer_factory.hpp:77] Creating layer conv1
I0428 20:27:19.194782  3016 net.cpp:86] Creating Layer conv1
I0428 20:27:19.194787  3016 net.cpp:408] conv1 <- pool0
I0428 20:27:19.194792  3016 net.cpp:382] conv1 -> conv1
I0428 20:27:19.196574  3016 net.cpp:124] Setting up conv1
I0428 20:27:19.196591  3016 net.cpp:131] Top shape: 100 5 8 8 (32000)
I0428 20:27:19.196596  3016 net.cpp:139] Memory required for data: 29242800
I0428 20:27:19.196607  3016 layer_factory.hpp:77] Creating layer pool1
I0428 20:27:19.196615  3016 net.cpp:86] Creating Layer pool1
I0428 20:27:19.196619  3016 net.cpp:408] pool1 <- conv1
I0428 20:27:19.196625  3016 net.cpp:382] pool1 -> pool1
I0428 20:27:19.196679  3016 net.cpp:124] Setting up pool1
I0428 20:27:19.196689  3016 net.cpp:131] Top shape: 100 5 4 4 (8000)
I0428 20:27:19.196693  3016 net.cpp:139] Memory required for data: 29274800
I0428 20:27:19.196698  3016 layer_factory.hpp:77] Creating layer ip1
I0428 20:27:19.196705  3016 net.cpp:86] Creating Layer ip1
I0428 20:27:19.196709  3016 net.cpp:408] ip1 <- pool1
I0428 20:27:19.196715  3016 net.cpp:382] ip1 -> ip1
I0428 20:27:19.196840  3016 net.cpp:124] Setting up ip1
I0428 20:27:19.196849  3016 net.cpp:131] Top shape: 100 10 (1000)
I0428 20:27:19.196853  3016 net.cpp:139] Memory required for data: 29278800
I0428 20:27:19.196862  3016 layer_factory.hpp:77] Creating layer relu1
I0428 20:27:19.196868  3016 net.cpp:86] Creating Layer relu1
I0428 20:27:19.196872  3016 net.cpp:408] relu1 <- ip1
I0428 20:27:19.196878  3016 net.cpp:369] relu1 -> ip1 (in-place)
I0428 20:27:19.197063  3016 net.cpp:124] Setting up relu1
I0428 20:27:19.197073  3016 net.cpp:131] Top shape: 100 10 (1000)
I0428 20:27:19.197078  3016 net.cpp:139] Memory required for data: 29282800
I0428 20:27:19.197082  3016 layer_factory.hpp:77] Creating layer ip2
I0428 20:27:19.197090  3016 net.cpp:86] Creating Layer ip2
I0428 20:27:19.197094  3016 net.cpp:408] ip2 <- ip1
I0428 20:27:19.197100  3016 net.cpp:382] ip2 -> ip2
I0428 20:27:19.197211  3016 net.cpp:124] Setting up ip2
I0428 20:27:19.197218  3016 net.cpp:131] Top shape: 100 10 (1000)
I0428 20:27:19.197222  3016 net.cpp:139] Memory required for data: 29286800
I0428 20:27:19.197228  3016 layer_factory.hpp:77] Creating layer relu2
I0428 20:27:19.197234  3016 net.cpp:86] Creating Layer relu2
I0428 20:27:19.197237  3016 net.cpp:408] relu2 <- ip2
I0428 20:27:19.197243  3016 net.cpp:369] relu2 -> ip2 (in-place)
I0428 20:27:19.197468  3016 net.cpp:124] Setting up relu2
I0428 20:27:19.197479  3016 net.cpp:131] Top shape: 100 10 (1000)
I0428 20:27:19.197482  3016 net.cpp:139] Memory required for data: 29290800
I0428 20:27:19.197486  3016 layer_factory.hpp:77] Creating layer ip2_relu2_0_split
I0428 20:27:19.197492  3016 net.cpp:86] Creating Layer ip2_relu2_0_split
I0428 20:27:19.197497  3016 net.cpp:408] ip2_relu2_0_split <- ip2
I0428 20:27:19.197502  3016 net.cpp:382] ip2_relu2_0_split -> ip2_relu2_0_split_0
I0428 20:27:19.197523  3016 net.cpp:382] ip2_relu2_0_split -> ip2_relu2_0_split_1
I0428 20:27:19.197578  3016 net.cpp:124] Setting up ip2_relu2_0_split
I0428 20:27:19.197588  3016 net.cpp:131] Top shape: 100 10 (1000)
I0428 20:27:19.197597  3016 net.cpp:131] Top shape: 100 10 (1000)
I0428 20:27:19.197602  3016 net.cpp:139] Memory required for data: 29298800
I0428 20:27:19.197608  3016 layer_factory.hpp:77] Creating layer accuracy
I0428 20:27:19.197618  3016 net.cpp:86] Creating Layer accuracy
I0428 20:27:19.197626  3016 net.cpp:408] accuracy <- ip2_relu2_0_split_0
I0428 20:27:19.197634  3016 net.cpp:408] accuracy <- label_mnist_1_split_0
I0428 20:27:19.197643  3016 net.cpp:382] accuracy -> accuracy
…
