…
I0428 20:29:27.265278  3534 net.cpp:296] The NetState phase (0) differed from the phase (1) specified by a rule in layer mnist
I0428 20:29:27.265295  3534 net.cpp:296] The NetState phase (0) differed from the phase (1) specified by a rule in layer accuracy
I0428 20:29:27.265384  3534 net.cpp:53] Initializing net from parameters: 
name: "LeNet"
state {
  phase: TRAIN
  level: 0
  stage: ""
}
layer {
  name: "mnist"
  type: "Data"
  top: "data"
  top: "label"
  include {
    phase: TRAIN
  }
  transform_param {
    scale: 0.00390625
  }
  data_param {
    source: "examples/mnist/mnist_train_lmdb"
    batch_size: 64
    backend: LMDB
  }
}
layer {
  name: "conv0"
  type: "Convolution"
  bottom: "data"
  top: "conv0"
  param {
    lr_mult: 1
  }
  param {
    lr_mult: 2
  }
  convolution_param {
    num_output: 100
    kernel_size: 5
    stride: 1
    weight_filler {
      type: "xavier"
    }
    bias_filler {
      type: "constant"
    }
  }
}
layer {
  name: "pool0"
  type: "Pooling"
  bottom: "conv0"
  top: "pool0"
  pooling_param {
    pool: MAX
    kernel_size: 2
    stride: 2
  }
}
layer {
  name: "conv1"
  type: "Convolution"
  bottom: "pool0"
  top: "conv1"
  param {
    lr_mult: 1
  }
  param {
    lr_mult: 2
  }
  convolution_param {
    num_output: 10
    kernel_size: 5
    stride: 1
    weight_filler {
      type: "xavier"
    }
    bias_filler {
      type: "constant"
    }
  }
}
layer {
  name: "pool1"
  type: "Pooling"
  bottom: "conv1"
  top: "pool1"
  pooling_param {
    pool: MAX
    kernel_size: 2
    stride: 2
  }
}
layer {
  name: "ip1"
  type: "InnerProduct"
  bottom: "pool1"
  top: "ip1"
  param {
    lr_mult: 1
  }
  param {
    lr_mult: 2
  }
  inner_product_param {
    num_output: 10
    weight_filler {
      type: "xavier"
    }
    bias_filler {
      type: "constant"
    }
  }
}
layer {
  name: "relu1"
  type: "ReLU"
  bottom: "ip1"
  top: "ip1"
}
layer {
  name: "loss"
  type: "SoftmaxWithLoss"
  bottom: "ip1"
  bottom: "label"
  top: "loss"
}
I0428 20:29:27.265462  3534 layer_factory.hpp:77] Creating layer mnist
I0428 20:29:27.265563  3534 db_lmdb.cpp:35] Opened lmdb examples/mnist/mnist_train_lmdb
I0428 20:29:27.265588  3534 net.cpp:86] Creating Layer mnist
I0428 20:29:27.265599  3534 net.cpp:382] mnist -> data
I0428 20:29:27.265622  3534 net.cpp:382] mnist -> label
I0428 20:29:27.266616  3534 data_layer.cpp:45] output data size: 64,1,28,28
I0428 20:29:27.268833  3534 net.cpp:124] Setting up mnist
I0428 20:29:27.268868  3534 net.cpp:131] Top shape: 64 1 28 28 (50176)
I0428 20:29:27.268878  3534 net.cpp:131] Top shape: 64 (64)
I0428 20:29:27.268883  3534 net.cpp:139] Memory required for data: 200960
I0428 20:29:27.268908  3534 layer_factory.hpp:77] Creating layer conv0
I0428 20:29:27.268940  3534 net.cpp:86] Creating Layer conv0
I0428 20:29:27.268950  3534 net.cpp:408] conv0 <- data
I0428 20:29:27.268982  3534 net.cpp:382] conv0 -> conv0
I0428 20:29:27.494729  3534 net.cpp:124] Setting up conv0
I0428 20:29:27.494758  3534 net.cpp:131] Top shape: 64 100 24 24 (3686400)
I0428 20:29:27.494763  3534 net.cpp:139] Memory required for data: 14946560
I0428 20:29:27.494782  3534 layer_factory.hpp:77] Creating layer pool0
I0428 20:29:27.494798  3534 net.cpp:86] Creating Layer pool0
I0428 20:29:27.494804  3534 net.cpp:408] pool0 <- conv0
I0428 20:29:27.494812  3534 net.cpp:382] pool0 -> pool0
I0428 20:29:27.494868  3534 net.cpp:124] Setting up pool0
I0428 20:29:27.494877  3534 net.cpp:131] Top shape: 64 100 12 12 (921600)
I0428 20:29:27.494899  3534 net.cpp:139] Memory required for data: 18632960
I0428 20:29:27.494904  3534 layer_factory.hpp:77] Creating layer conv1
I0428 20:29:27.494920  3534 net.cpp:86] Creating Layer conv1
I0428 20:29:27.494925  3534 net.cpp:408] conv1 <- pool0
I0428 20:29:27.494933  3534 net.cpp:382] conv1 -> conv1
I0428 20:29:27.496893  3534 net.cpp:124] Setting up conv1
I0428 20:29:27.496909  3534 net.cpp:131] Top shape: 64 10 8 8 (40960)
I0428 20:29:27.496915  3534 net.cpp:139] Memory required for data: 18796800
I0428 20:29:27.496944  3534 layer_factory.hpp:77] Creating layer pool1
I0428 20:29:27.496956  3534 net.cpp:86] Creating Layer pool1
I0428 20:29:27.496963  3534 net.cpp:408] pool1 <- conv1
I0428 20:29:27.496970  3534 net.cpp:382] pool1 -> pool1
I0428 20:29:27.497023  3534 net.cpp:124] Setting up pool1
I0428 20:29:27.497032  3534 net.cpp:131] Top shape: 64 10 4 4 (10240)
I0428 20:29:27.497037  3534 net.cpp:139] Memory required for data: 18837760
I0428 20:29:27.497042  3534 layer_factory.hpp:77] Creating layer ip1
I0428 20:29:27.497053  3534 net.cpp:86] Creating Layer ip1
I0428 20:29:27.497062  3534 net.cpp:408] ip1 <- pool1
I0428 20:29:27.497073  3534 net.cpp:382] ip1 -> ip1
I0428 20:29:27.497196  3534 net.cpp:124] Setting up ip1
I0428 20:29:27.497205  3534 net.cpp:131] Top shape: 64 10 (640)
I0428 20:29:27.497210  3534 net.cpp:139] Memory required for data: 18840320
I0428 20:29:27.497221  3534 layer_factory.hpp:77] Creating layer relu1
I0428 20:29:27.497231  3534 net.cpp:86] Creating Layer relu1
I0428 20:29:27.497236  3534 net.cpp:408] relu1 <- ip1
I0428 20:29:27.497243  3534 net.cpp:369] relu1 -> ip1 (in-place)
I0428 20:29:27.497429  3534 net.cpp:124] Setting up relu1
I0428 20:29:27.497439  3534 net.cpp:131] Top shape: 64 10 (640)
I0428 20:29:27.497444  3534 net.cpp:139] Memory required for data: 18842880
I0428 20:29:27.497449  3534 layer_factory.hpp:77] Creating layer loss
I0428 20:29:27.497458  3534 net.cpp:86] Creating Layer loss
I0428 20:29:27.497463  3534 net.cpp:408] loss <- ip1
I0428 20:29:27.497469  3534 net.cpp:408] loss <- label
I0428 20:29:27.497478  3534 net.cpp:382] loss -> loss
I0428 20:29:27.497496  3534 layer_factory.hpp:77] Creating layer loss
…
I0428 20:29:27.498713  3534 solver.cpp:173] Creating test net (#0) specified by net file: ECE595/mnist/train_test/var_everything2/lenet_train_test1522.prototxt
I0428 20:29:27.498741  3534 net.cpp:296] The NetState phase (1) differed from the phase (0) specified by a rule in layer mnist
I0428 20:29:27.498836  3534 net.cpp:53] Initializing net from parameters: 
name: "LeNet"
state {
  phase: TEST
}
layer {
  name: "mnist"
  type: "Data"
  top: "data"
  top: "label"
  include {
    phase: TEST
  }
  transform_param {
    scale: 0.00390625
  }
  data_param {
    source: "examples/mnist/mnist_test_lmdb"
    batch_size: 100
    backend: LMDB
  }
}
layer {
  name: "conv0"
  type: "Convolution"
  bottom: "data"
  top: "conv0"
  param {
    lr_mult: 1
  }
  param {
    lr_mult: 2
  }
  convolution_param {
    num_output: 100
    kernel_size: 5
    stride: 1
    weight_filler {
      type: "xavier"
    }
    bias_filler {
      type: "constant"
    }
  }
}
layer {
  name: "pool0"
  type: "Pooling"
  bottom: "conv0"
  top: "pool0"
  pooling_param {
    pool: MAX
    kernel_size: 2
    stride: 2
  }
}
layer {
  name: "conv1"
  type: "Convolution"
  bottom: "pool0"
  top: "conv1"
  param {
    lr_mult: 1
  }
  param {
    lr_mult: 2
  }
  convolution_param {
    num_output: 10
    kernel_size: 5
    stride: 1
    weight_filler {
      type: "xavier"
    }
    bias_filler {
      type: "constant"
    }
  }
}
layer {
  name: "pool1"
  type: "Pooling"
  bottom: "conv1"
  top: "pool1"
  pooling_param {
    pool: MAX
    kernel_size: 2
    stride: 2
  }
}
layer {
  name: "ip1"
  type: "InnerProduct"
  bottom: "pool1"
  top: "ip1"
  param {
    lr_mult: 1
  }
  param {
    lr_mult: 2
  }
  inner_product_param {
    num_output: 10
    weight_filler {
      type: "xavier"
    }
    bias_filler {
      type: "constant"
    }
  }
}
layer {
  name: "relu1"
  type: "ReLU"
  bottom: "ip1"
  top: "ip1"
}
layer {
  name: "accuracy"
  type: "Accuracy"
  bottom: "ip1"
  bottom: "label"
  top: "accuracy"
  include {
    phase: TEST
  }
}
layer {
  name: "loss"
  type: "SoftmaxWithLoss"
  bottom: "ip1"
  bottom: "label"
  top: "loss"
}
I0428 20:29:27.498935  3534 layer_factory.hpp:77] Creating layer mnist
I0428 20:29:27.498993  3534 db_lmdb.cpp:35] Opened lmdb examples/mnist/mnist_test_lmdb
I0428 20:29:27.499011  3534 net.cpp:86] Creating Layer mnist
I0428 20:29:27.499019  3534 net.cpp:382] mnist -> data
I0428 20:29:27.499032  3534 net.cpp:382] mnist -> label
I0428 20:29:27.499160  3534 data_layer.cpp:45] output data size: 100,1,28,28
I0428 20:29:27.501200  3534 net.cpp:124] Setting up mnist
I0428 20:29:27.501215  3534 net.cpp:131] Top shape: 100 1 28 28 (78400)
I0428 20:29:27.501237  3534 net.cpp:131] Top shape: 100 (100)
I0428 20:29:27.501245  3534 net.cpp:139] Memory required for data: 314000
I0428 20:29:27.501250  3534 layer_factory.hpp:77] Creating layer label_mnist_1_split
I0428 20:29:27.501260  3534 net.cpp:86] Creating Layer label_mnist_1_split
I0428 20:29:27.501266  3534 net.cpp:408] label_mnist_1_split <- label
I0428 20:29:27.501272  3534 net.cpp:382] label_mnist_1_split -> label_mnist_1_split_0
I0428 20:29:27.501282  3534 net.cpp:382] label_mnist_1_split -> label_mnist_1_split_1
I0428 20:29:27.501356  3534 net.cpp:124] Setting up label_mnist_1_split
I0428 20:29:27.501365  3534 net.cpp:131] Top shape: 100 (100)
I0428 20:29:27.501371  3534 net.cpp:131] Top shape: 100 (100)
I0428 20:29:27.501376  3534 net.cpp:139] Memory required for data: 314800
I0428 20:29:27.501380  3534 layer_factory.hpp:77] Creating layer conv0
I0428 20:29:27.501394  3534 net.cpp:86] Creating Layer conv0
I0428 20:29:27.501399  3534 net.cpp:408] conv0 <- data
I0428 20:29:27.501407  3534 net.cpp:382] conv0 -> conv0
I0428 20:29:27.502104  3534 net.cpp:124] Setting up conv0
I0428 20:29:27.502116  3534 net.cpp:131] Top shape: 100 100 24 24 (5760000)
I0428 20:29:27.502121  3534 net.cpp:139] Memory required for data: 23354800
I0428 20:29:27.502135  3534 layer_factory.hpp:77] Creating layer pool0
I0428 20:29:27.502142  3534 net.cpp:86] Creating Layer pool0
I0428 20:29:27.502147  3534 net.cpp:408] pool0 <- conv0
I0428 20:29:27.502156  3534 net.cpp:382] pool0 -> pool0
I0428 20:29:27.502193  3534 net.cpp:124] Setting up pool0
I0428 20:29:27.502202  3534 net.cpp:131] Top shape: 100 100 12 12 (1440000)
I0428 20:29:27.502205  3534 net.cpp:139] Memory required for data: 29114800
I0428 20:29:27.502210  3534 layer_factory.hpp:77] Creating layer conv1
I0428 20:29:27.502221  3534 net.cpp:86] Creating Layer conv1
I0428 20:29:27.502228  3534 net.cpp:408] conv1 <- pool0
I0428 20:29:27.502234  3534 net.cpp:382] conv1 -> conv1
I0428 20:29:27.503890  3534 net.cpp:124] Setting up conv1
I0428 20:29:27.503907  3534 net.cpp:131] Top shape: 100 10 8 8 (64000)
I0428 20:29:27.503914  3534 net.cpp:139] Memory required for data: 29370800
I0428 20:29:27.503926  3534 layer_factory.hpp:77] Creating layer pool1
I0428 20:29:27.503937  3534 net.cpp:86] Creating Layer pool1
I0428 20:29:27.503953  3534 net.cpp:408] pool1 <- conv1
I0428 20:29:27.503962  3534 net.cpp:382] pool1 -> pool1
I0428 20:29:27.504004  3534 net.cpp:124] Setting up pool1
I0428 20:29:27.504011  3534 net.cpp:131] Top shape: 100 10 4 4 (16000)
I0428 20:29:27.504017  3534 net.cpp:139] Memory required for data: 29434800
I0428 20:29:27.504022  3534 layer_factory.hpp:77] Creating layer ip1
I0428 20:29:27.504031  3534 net.cpp:86] Creating Layer ip1
I0428 20:29:27.504037  3534 net.cpp:408] ip1 <- pool1
I0428 20:29:27.504045  3534 net.cpp:382] ip1 -> ip1
I0428 20:29:27.504179  3534 net.cpp:124] Setting up ip1
I0428 20:29:27.504189  3534 net.cpp:131] Top shape: 100 10 (1000)
I0428 20:29:27.504194  3534 net.cpp:139] Memory required for data: 29438800
I0428 20:29:27.504205  3534 layer_factory.hpp:77] Creating layer relu1
I0428 20:29:27.504212  3534 net.cpp:86] Creating Layer relu1
I0428 20:29:27.504220  3534 net.cpp:408] relu1 <- ip1
I0428 20:29:27.504226  3534 net.cpp:369] relu1 -> ip1 (in-place)
I0428 20:29:27.505071  3534 net.cpp:124] Setting up relu1
I0428 20:29:27.505086  3534 net.cpp:131] Top shape: 100 10 (1000)
I0428 20:29:27.505092  3534 net.cpp:139] Memory required for data: 29442800
I0428 20:29:27.505097  3534 layer_factory.hpp:77] Creating layer ip1_relu1_0_split
I0428 20:29:27.505107  3534 net.cpp:86] Creating Layer ip1_relu1_0_split
I0428 20:29:27.505121  3534 net.cpp:408] ip1_relu1_0_split <- ip1
I0428 20:29:27.505146  3534 net.cpp:382] ip1_relu1_0_split -> ip1_relu1_0_split_0
I0428 20:29:27.505156  3534 net.cpp:382] ip1_relu1_0_split -> ip1_relu1_0_split_1
I0428 20:29:27.505197  3534 net.cpp:124] Setting up ip1_relu1_0_split
I0428 20:29:27.505204  3534 net.cpp:131] Top shape: 100 10 (1000)
I0428 20:29:27.505210  3534 net.cpp:131] Top shape: 100 10 (1000)
I0428 20:29:27.505215  3534 net.cpp:139] Memory required for data: 29450800
I0428 20:29:27.505231  3534 layer_factory.hpp:77] Creating layer accuracy
I0428 20:29:27.505239  3534 net.cpp:86] Creating Layer accuracy
I0428 20:29:27.505245  3534 net.cpp:408] accuracy <- ip1_relu1_0_split_0
I0428 20:29:27.505252  3534 net.cpp:408] accuracy <- label_mnist_1_split_0
I0428 20:29:27.505259  3534 net.cpp:382] accuracy -> accuracy
…
