…
I0428 19:41:05.623670 24737 net.cpp:296] The NetState phase (0) differed from the phase (1) specified by a rule in layer mnist
I0428 19:41:05.623688 24737 net.cpp:296] The NetState phase (0) differed from the phase (1) specified by a rule in layer accuracy
I0428 19:41:05.623775 24737 net.cpp:53] Initializing net from parameters: 
name: "LeNet"
state {
  phase: TRAIN
  level: 0
  stage: ""
}
layer {
  name: "mnist"
  type: "Data"
  top: "data"
  top: "label"
  include {
    phase: TRAIN
  }
  transform_param {
    scale: 0.00390625
  }
  data_param {
    source: "examples/mnist/mnist_train_lmdb"
    batch_size: 64
    backend: LMDB
  }
}
layer {
  name: "conv0"
  type: "Convolution"
  bottom: "data"
  top: "conv0"
  param {
    lr_mult: 1
  }
  param {
    lr_mult: 2
  }
  convolution_param {
    num_output: 2
    kernel_size: 5
    stride: 1
    weight_filler {
      type: "xavier"
    }
    bias_filler {
      type: "constant"
    }
  }
}
layer {
  name: "pool0"
  type: "Pooling"
  bottom: "conv0"
  top: "pool0"
  pooling_param {
    pool: MAX
    kernel_size: 2
    stride: 2
  }
}
layer {
  name: "conv1"
  type: "Convolution"
  bottom: "pool0"
  top: "conv1"
  param {
    lr_mult: 1
  }
  param {
    lr_mult: 2
  }
  convolution_param {
    num_output: 10
    kernel_size: 5
    stride: 1
    weight_filler {
      type: "xavier"
    }
    bias_filler {
      type: "constant"
    }
  }
}
layer {
  name: "pool1"
  type: "Pooling"
  bottom: "conv1"
  top: "pool1"
  pooling_param {
    pool: MAX
    kernel_size: 2
    stride: 2
  }
}
layer {
  name: "ip1"
  type: "InnerProduct"
  bottom: "pool1"
  top: "ip1"
  param {
    lr_mult: 1
  }
  param {
    lr_mult: 2
  }
  inner_product_param {
    num_output: 10
    weight_filler {
      type: "xavier"
    }
    bias_filler {
      type: "constant"
    }
  }
}
layer {
  name: "relu1"
  type: "ReLU"
  bottom: "ip1"
  top: "ip1"
}
layer {
  name: "ip2"
  type: "InnerProduct"
  bottom: "ip1"
  top: "ip2"
  param {
    lr_mult: 1
  }
  param {
    lr_mult: 2
  }
  inner_product_param {
    num_output: 10
    weight_filler {
      type: "xavier"
    }
    bias_filler {
      type: "constant"
    }
  }
}
layer {
  name: "relu2"
  type: "ReLU"
  bottom: "ip2"
  top: "ip2"
}
layer {
  name: "loss"
  type: "SoftmaxWithLoss"
  bottom: "ip2"
  bottom: "label"
  top: "loss"
}
I0428 19:41:05.623848 24737 layer_factory.hpp:77] Creating layer mnist
I0428 19:41:05.623944 24737 db_lmdb.cpp:35] Opened lmdb examples/mnist/mnist_train_lmdb
I0428 19:41:05.623965 24737 net.cpp:86] Creating Layer mnist
I0428 19:41:05.623975 24737 net.cpp:382] mnist -> data
I0428 19:41:05.623996 24737 net.cpp:382] mnist -> label
I0428 19:41:05.625061 24737 data_layer.cpp:45] output data size: 64,1,28,28
I0428 19:41:05.627650 24737 net.cpp:124] Setting up mnist
I0428 19:41:05.627667 24737 net.cpp:131] Top shape: 64 1 28 28 (50176)
I0428 19:41:05.627673 24737 net.cpp:131] Top shape: 64 (64)
I0428 19:41:05.627676 24737 net.cpp:139] Memory required for data: 200960
I0428 19:41:05.627683 24737 layer_factory.hpp:77] Creating layer conv0
I0428 19:41:05.627733 24737 net.cpp:86] Creating Layer conv0
I0428 19:41:05.627740 24737 net.cpp:408] conv0 <- data
I0428 19:41:05.627754 24737 net.cpp:382] conv0 -> conv0
I0428 19:41:05.914297 24737 net.cpp:124] Setting up conv0
I0428 19:41:05.914328 24737 net.cpp:131] Top shape: 64 2 24 24 (73728)
I0428 19:41:05.914332 24737 net.cpp:139] Memory required for data: 495872
I0428 19:41:05.914369 24737 layer_factory.hpp:77] Creating layer pool0
I0428 19:41:05.914383 24737 net.cpp:86] Creating Layer pool0
I0428 19:41:05.914387 24737 net.cpp:408] pool0 <- conv0
I0428 19:41:05.914393 24737 net.cpp:382] pool0 -> pool0
I0428 19:41:05.914450 24737 net.cpp:124] Setting up pool0
I0428 19:41:05.914469 24737 net.cpp:131] Top shape: 64 2 12 12 (18432)
I0428 19:41:05.914471 24737 net.cpp:139] Memory required for data: 569600
I0428 19:41:05.914475 24737 layer_factory.hpp:77] Creating layer conv1
I0428 19:41:05.914487 24737 net.cpp:86] Creating Layer conv1
I0428 19:41:05.914490 24737 net.cpp:408] conv1 <- pool0
I0428 19:41:05.914496 24737 net.cpp:382] conv1 -> conv1
I0428 19:41:05.916538 24737 net.cpp:124] Setting up conv1
I0428 19:41:05.916554 24737 net.cpp:131] Top shape: 64 10 8 8 (40960)
I0428 19:41:05.916558 24737 net.cpp:139] Memory required for data: 733440
I0428 19:41:05.916568 24737 layer_factory.hpp:77] Creating layer pool1
I0428 19:41:05.916576 24737 net.cpp:86] Creating Layer pool1
I0428 19:41:05.916580 24737 net.cpp:408] pool1 <- conv1
I0428 19:41:05.916586 24737 net.cpp:382] pool1 -> pool1
I0428 19:41:05.916630 24737 net.cpp:124] Setting up pool1
I0428 19:41:05.916635 24737 net.cpp:131] Top shape: 64 10 4 4 (10240)
I0428 19:41:05.916638 24737 net.cpp:139] Memory required for data: 774400
I0428 19:41:05.916642 24737 layer_factory.hpp:77] Creating layer ip1
I0428 19:41:05.916656 24737 net.cpp:86] Creating Layer ip1
I0428 19:41:05.916658 24737 net.cpp:408] ip1 <- pool1
I0428 19:41:05.916663 24737 net.cpp:382] ip1 -> ip1
I0428 19:41:05.917696 24737 net.cpp:124] Setting up ip1
I0428 19:41:05.917711 24737 net.cpp:131] Top shape: 64 10 (640)
I0428 19:41:05.917716 24737 net.cpp:139] Memory required for data: 776960
I0428 19:41:05.917726 24737 layer_factory.hpp:77] Creating layer relu1
I0428 19:41:05.917732 24737 net.cpp:86] Creating Layer relu1
I0428 19:41:05.917735 24737 net.cpp:408] relu1 <- ip1
I0428 19:41:05.917740 24737 net.cpp:369] relu1 -> ip1 (in-place)
I0428 19:41:05.917934 24737 net.cpp:124] Setting up relu1
I0428 19:41:05.917944 24737 net.cpp:131] Top shape: 64 10 (640)
I0428 19:41:05.917948 24737 net.cpp:139] Memory required for data: 779520
I0428 19:41:05.917953 24737 layer_factory.hpp:77] Creating layer ip2
I0428 19:41:05.917959 24737 net.cpp:86] Creating Layer ip2
I0428 19:41:05.917963 24737 net.cpp:408] ip2 <- ip1
I0428 19:41:05.917969 24737 net.cpp:382] ip2 -> ip2
I0428 19:41:05.918076 24737 net.cpp:124] Setting up ip2
I0428 19:41:05.918083 24737 net.cpp:131] Top shape: 64 10 (640)
I0428 19:41:05.918087 24737 net.cpp:139] Memory required for data: 782080
I0428 19:41:05.918093 24737 layer_factory.hpp:77] Creating layer relu2
I0428 19:41:05.918100 24737 net.cpp:86] Creating Layer relu2
I0428 19:41:05.918104 24737 net.cpp:408] relu2 <- ip2
I0428 19:41:05.918108 24737 net.cpp:369] relu2 -> ip2 (in-place)
I0428 19:41:05.918917 24737 net.cpp:124] Setting up relu2
I0428 19:41:05.918931 24737 net.cpp:131] Top shape: 64 10 (640)
I0428 19:41:05.918936 24737 net.cpp:139] Memory required for data: 784640
I0428 19:41:05.918939 24737 layer_factory.hpp:77] Creating layer loss
I0428 19:41:05.918946 24737 net.cpp:86] Creating Layer loss
I0428 19:41:05.918949 24737 net.cpp:408] loss <- ip2
I0428 19:41:05.918954 24737 net.cpp:408] loss <- label
I0428 19:41:05.918962 24737 net.cpp:382] loss -> loss
I0428 19:41:05.918982 24737 layer_factory.hpp:77] Creating layer loss
…
I0428 19:41:05.919665 24737 solver.cpp:173] Creating test net (#0) specified by net file: ECE595/mnist/train_test/var_everything2/lenet_train_test354.prototxt
I0428 19:41:05.919693 24737 net.cpp:296] The NetState phase (1) differed from the phase (0) specified by a rule in layer mnist
I0428 19:41:05.919787 24737 net.cpp:53] Initializing net from parameters: 
name: "LeNet"
state {
  phase: TEST
}
layer {
  name: "mnist"
  type: "Data"
  top: "data"
  top: "label"
  include {
    phase: TEST
  }
  transform_param {
    scale: 0.00390625
  }
  data_param {
    source: "examples/mnist/mnist_test_lmdb"
    batch_size: 100
    backend: LMDB
  }
}
layer {
  name: "conv0"
  type: "Convolution"
  bottom: "data"
  top: "conv0"
  param {
    lr_mult: 1
  }
  param {
    lr_mult: 2
  }
  convolution_param {
    num_output: 2
    kernel_size: 5
    stride: 1
    weight_filler {
      type: "xavier"
    }
    bias_filler {
      type: "constant"
    }
  }
}
layer {
  name: "pool0"
  type: "Pooling"
  bottom: "conv0"
  top: "pool0"
  pooling_param {
    pool: MAX
    kernel_size: 2
    stride: 2
  }
}
layer {
  name: "conv1"
  type: "Convolution"
  bottom: "pool0"
  top: "conv1"
  param {
    lr_mult: 1
  }
  param {
    lr_mult: 2
  }
  convolution_param {
    num_output: 10
    kernel_size: 5
    stride: 1
    weight_filler {
      type: "xavier"
    }
    bias_filler {
      type: "constant"
    }
  }
}
layer {
  name: "pool1"
  type: "Pooling"
  bottom: "conv1"
  top: "pool1"
  pooling_param {
    pool: MAX
    kernel_size: 2
    stride: 2
  }
}
layer {
  name: "ip1"
  type: "InnerProduct"
  bottom: "pool1"
  top: "ip1"
  param {
    lr_mult: 1
  }
  param {
    lr_mult: 2
  }
  inner_product_param {
    num_output: 10
    weight_filler {
      type: "xavier"
    }
    bias_filler {
      type: "constant"
    }
  }
}
layer {
  name: "relu1"
  type: "ReLU"
  bottom: "ip1"
  top: "ip1"
}
layer {
  name: "ip2"
  type: "InnerProduct"
  bottom: "ip1"
  top: "ip2"
  param {
    lr_mult: 1
  }
  param {
    lr_mult: 2
  }
  inner_product_param {
    num_output: 10
    weight_filler {
      type: "xavier"
    }
    bias_filler {
      type: "constant"
    }
  }
}
layer {
  name: "relu2"
  type: "ReLU"
  bottom: "ip2"
  top: "ip2"
}
layer {
  name: "accuracy"
  type: "Accuracy"
  bottom: "ip2"
  bottom: "label"
  top: "accuracy"
  include {
    phase: TEST
  }
}
layer {
  name: "loss"
  type: "SoftmaxWithLoss"
  bottom: "ip2"
  bottom: "label"
  top: "loss"
}
I0428 19:41:05.919858 24737 layer_factory.hpp:77] Creating layer mnist
I0428 19:41:05.919909 24737 db_lmdb.cpp:35] Opened lmdb examples/mnist/mnist_test_lmdb
I0428 19:41:05.919922 24737 net.cpp:86] Creating Layer mnist
I0428 19:41:05.919927 24737 net.cpp:382] mnist -> data
I0428 19:41:05.919935 24737 net.cpp:382] mnist -> label
I0428 19:41:05.920032 24737 data_layer.cpp:45] output data size: 100,1,28,28
I0428 19:41:05.922108 24737 net.cpp:124] Setting up mnist
I0428 19:41:05.922124 24737 net.cpp:131] Top shape: 100 1 28 28 (78400)
I0428 19:41:05.922129 24737 net.cpp:131] Top shape: 100 (100)
I0428 19:41:05.922133 24737 net.cpp:139] Memory required for data: 314000
I0428 19:41:05.922137 24737 layer_factory.hpp:77] Creating layer label_mnist_1_split
I0428 19:41:05.922148 24737 net.cpp:86] Creating Layer label_mnist_1_split
I0428 19:41:05.922153 24737 net.cpp:408] label_mnist_1_split <- label
I0428 19:41:05.922158 24737 net.cpp:382] label_mnist_1_split -> label_mnist_1_split_0
I0428 19:41:05.922166 24737 net.cpp:382] label_mnist_1_split -> label_mnist_1_split_1
I0428 19:41:05.922219 24737 net.cpp:124] Setting up label_mnist_1_split
I0428 19:41:05.922238 24737 net.cpp:131] Top shape: 100 (100)
I0428 19:41:05.922242 24737 net.cpp:131] Top shape: 100 (100)
I0428 19:41:05.922245 24737 net.cpp:139] Memory required for data: 314800
I0428 19:41:05.922250 24737 layer_factory.hpp:77] Creating layer conv0
I0428 19:41:05.922258 24737 net.cpp:86] Creating Layer conv0
I0428 19:41:05.922262 24737 net.cpp:408] conv0 <- data
I0428 19:41:05.922268 24737 net.cpp:382] conv0 -> conv0
I0428 19:41:05.924123 24737 net.cpp:124] Setting up conv0
I0428 19:41:05.924139 24737 net.cpp:131] Top shape: 100 2 24 24 (115200)
I0428 19:41:05.924142 24737 net.cpp:139] Memory required for data: 775600
I0428 19:41:05.924154 24737 layer_factory.hpp:77] Creating layer pool0
I0428 19:41:05.924160 24737 net.cpp:86] Creating Layer pool0
I0428 19:41:05.924165 24737 net.cpp:408] pool0 <- conv0
I0428 19:41:05.924170 24737 net.cpp:382] pool0 -> pool0
I0428 19:41:05.924209 24737 net.cpp:124] Setting up pool0
I0428 19:41:05.924216 24737 net.cpp:131] Top shape: 100 2 12 12 (28800)
I0428 19:41:05.924219 24737 net.cpp:139] Memory required for data: 890800
I0428 19:41:05.924222 24737 layer_factory.hpp:77] Creating layer conv1
I0428 19:41:05.924232 24737 net.cpp:86] Creating Layer conv1
I0428 19:41:05.924235 24737 net.cpp:408] conv1 <- pool0
I0428 19:41:05.924242 24737 net.cpp:382] conv1 -> conv1
I0428 19:41:05.925853 24737 net.cpp:124] Setting up conv1
I0428 19:41:05.925868 24737 net.cpp:131] Top shape: 100 10 8 8 (64000)
I0428 19:41:05.925873 24737 net.cpp:139] Memory required for data: 1146800
I0428 19:41:05.925882 24737 layer_factory.hpp:77] Creating layer pool1
I0428 19:41:05.925896 24737 net.cpp:86] Creating Layer pool1
I0428 19:41:05.925900 24737 net.cpp:408] pool1 <- conv1
I0428 19:41:05.925906 24737 net.cpp:382] pool1 -> pool1
I0428 19:41:05.925953 24737 net.cpp:124] Setting up pool1
I0428 19:41:05.925959 24737 net.cpp:131] Top shape: 100 10 4 4 (16000)
I0428 19:41:05.925962 24737 net.cpp:139] Memory required for data: 1210800
I0428 19:41:05.925966 24737 layer_factory.hpp:77] Creating layer ip1
I0428 19:41:05.925978 24737 net.cpp:86] Creating Layer ip1
I0428 19:41:05.925982 24737 net.cpp:408] ip1 <- pool1
I0428 19:41:05.925987 24737 net.cpp:382] ip1 -> ip1
I0428 19:41:05.926105 24737 net.cpp:124] Setting up ip1
I0428 19:41:05.926115 24737 net.cpp:131] Top shape: 100 10 (1000)
I0428 19:41:05.926131 24737 net.cpp:139] Memory required for data: 1214800
I0428 19:41:05.926141 24737 layer_factory.hpp:77] Creating layer relu1
I0428 19:41:05.926152 24737 net.cpp:86] Creating Layer relu1
I0428 19:41:05.926156 24737 net.cpp:408] relu1 <- ip1
I0428 19:41:05.926162 24737 net.cpp:369] relu1 -> ip1 (in-place)
I0428 19:41:05.926340 24737 net.cpp:124] Setting up relu1
I0428 19:41:05.926350 24737 net.cpp:131] Top shape: 100 10 (1000)
I0428 19:41:05.926354 24737 net.cpp:139] Memory required for data: 1218800
I0428 19:41:05.926364 24737 layer_factory.hpp:77] Creating layer ip2
I0428 19:41:05.926373 24737 net.cpp:86] Creating Layer ip2
I0428 19:41:05.926376 24737 net.cpp:408] ip2 <- ip1
I0428 19:41:05.926381 24737 net.cpp:382] ip2 -> ip2
I0428 19:41:05.926489 24737 net.cpp:124] Setting up ip2
I0428 19:41:05.926497 24737 net.cpp:131] Top shape: 100 10 (1000)
I0428 19:41:05.926502 24737 net.cpp:139] Memory required for data: 1222800
I0428 19:41:05.926508 24737 layer_factory.hpp:77] Creating layer relu2
I0428 19:41:05.926513 24737 net.cpp:86] Creating Layer relu2
I0428 19:41:05.926517 24737 net.cpp:408] relu2 <- ip2
I0428 19:41:05.926522 24737 net.cpp:369] relu2 -> ip2 (in-place)
I0428 19:41:05.926690 24737 net.cpp:124] Setting up relu2
I0428 19:41:05.926698 24737 net.cpp:131] Top shape: 100 10 (1000)
I0428 19:41:05.926702 24737 net.cpp:139] Memory required for data: 1226800
I0428 19:41:05.926705 24737 layer_factory.hpp:77] Creating layer ip2_relu2_0_split
I0428 19:41:05.926710 24737 net.cpp:86] Creating Layer ip2_relu2_0_split
I0428 19:41:05.926714 24737 net.cpp:408] ip2_relu2_0_split <- ip2
I0428 19:41:05.926719 24737 net.cpp:382] ip2_relu2_0_split -> ip2_relu2_0_split_0
I0428 19:41:05.926761 24737 net.cpp:382] ip2_relu2_0_split -> ip2_relu2_0_split_1
I0428 19:41:05.926801 24737 net.cpp:124] Setting up ip2_relu2_0_split
I0428 19:41:05.926807 24737 net.cpp:131] Top shape: 100 10 (1000)
I0428 19:41:05.926811 24737 net.cpp:131] Top shape: 100 10 (1000)
I0428 19:41:05.926820 24737 net.cpp:139] Memory required for data: 1234800
I0428 19:41:05.926825 24737 layer_factory.hpp:77] Creating layer accuracy
I0428 19:41:05.926829 24737 net.cpp:86] Creating Layer accuracy
I0428 19:41:05.926839 24737 net.cpp:408] accuracy <- ip2_relu2_0_split_0
I0428 19:41:05.926844 24737 net.cpp:408] accuracy <- label_mnist_1_split_0
I0428 19:41:05.926849 24737 net.cpp:382] accuracy -> accuracy
…
