…
I0428 20:37:05.902714  4888 net.cpp:296] The NetState phase (0) differed from the phase (1) specified by a rule in layer mnist
I0428 20:37:05.902757  4888 net.cpp:296] The NetState phase (0) differed from the phase (1) specified by a rule in layer accuracy
I0428 20:37:05.902942  4888 net.cpp:53] Initializing net from parameters: 
name: "LeNet"
state {
  phase: TRAIN
  level: 0
  stage: ""
}
layer {
  name: "mnist"
  type: "Data"
  top: "data"
  top: "label"
  include {
    phase: TRAIN
  }
  transform_param {
    scale: 0.00390625
  }
  data_param {
    source: "examples/mnist/mnist_train_lmdb"
    batch_size: 64
    backend: LMDB
  }
}
layer {
  name: "conv0"
  type: "Convolution"
  bottom: "data"
  top: "conv0"
  param {
    lr_mult: 1
  }
  param {
    lr_mult: 2
  }
  convolution_param {
    num_output: 100
    kernel_size: 5
    stride: 1
    weight_filler {
      type: "xavier"
    }
    bias_filler {
      type: "constant"
    }
  }
}
layer {
  name: "pool0"
  type: "Pooling"
  bottom: "conv0"
  top: "pool0"
  pooling_param {
    pool: MAX
    kernel_size: 2
    stride: 2
  }
}
layer {
  name: "conv1"
  type: "Convolution"
  bottom: "pool0"
  top: "conv1"
  param {
    lr_mult: 1
  }
  param {
    lr_mult: 2
  }
  convolution_param {
    num_output: 100
    kernel_size: 5
    stride: 1
    weight_filler {
      type: "xavier"
    }
    bias_filler {
      type: "constant"
    }
  }
}
layer {
  name: "pool1"
  type: "Pooling"
  bottom: "conv1"
  top: "pool1"
  pooling_param {
    pool: MAX
    kernel_size: 2
    stride: 2
  }
}
layer {
  name: "ip1"
  type: "InnerProduct"
  bottom: "pool1"
  top: "ip1"
  param {
    lr_mult: 1
  }
  param {
    lr_mult: 2
  }
  inner_product_param {
    num_output: 25
    weight_filler {
      type: "xavier"
    }
    bias_filler {
      type: "constant"
    }
  }
}
layer {
  name: "relu1"
  type: "ReLU"
  bottom: "ip1"
  top: "ip1"
}
layer {
  name: "ip2"
  type: "InnerProduct"
  bottom: "ip1"
  top: "ip2"
  param {
    lr_mult: 1
  }
  param {
    lr_mult: 2
  }
  inner_product_param {
    num_output: 10
    weight_filler {
      type: "xavier"
    }
    bias_filler {
      type: "constant"
    }
  }
}
layer {
  name: "relu2"
  type: "ReLU"
  bottom: "ip2"
  top: "ip2"
}
layer {
  name: "loss"
  type: "SoftmaxWithLoss"
  bottom: "ip2"
  bottom: "label"
  top: "loss"
}
I0428 20:37:05.903041  4888 layer_factory.hpp:77] Creating layer mnist
I0428 20:37:05.903182  4888 db_lmdb.cpp:35] Opened lmdb examples/mnist/mnist_train_lmdb
I0428 20:37:05.903226  4888 net.cpp:86] Creating Layer mnist
I0428 20:37:05.903237  4888 net.cpp:382] mnist -> data
I0428 20:37:05.903273  4888 net.cpp:382] mnist -> label
I0428 20:37:05.904759  4888 data_layer.cpp:45] output data size: 64,1,28,28
I0428 20:37:05.908617  4888 net.cpp:124] Setting up mnist
I0428 20:37:05.908645  4888 net.cpp:131] Top shape: 64 1 28 28 (50176)
I0428 20:37:05.908658  4888 net.cpp:131] Top shape: 64 (64)
I0428 20:37:05.908664  4888 net.cpp:139] Memory required for data: 200960
I0428 20:37:05.908676  4888 layer_factory.hpp:77] Creating layer conv0
I0428 20:37:05.908701  4888 net.cpp:86] Creating Layer conv0
I0428 20:37:05.908713  4888 net.cpp:408] conv0 <- data
I0428 20:37:05.908732  4888 net.cpp:382] conv0 -> conv0
I0428 20:37:06.229207  4888 net.cpp:124] Setting up conv0
I0428 20:37:06.229238  4888 net.cpp:131] Top shape: 64 100 24 24 (3686400)
I0428 20:37:06.229244  4888 net.cpp:139] Memory required for data: 14946560
I0428 20:37:06.229286  4888 layer_factory.hpp:77] Creating layer pool0
I0428 20:37:06.229301  4888 net.cpp:86] Creating Layer pool0
I0428 20:37:06.229306  4888 net.cpp:408] pool0 <- conv0
I0428 20:37:06.229313  4888 net.cpp:382] pool0 -> pool0
I0428 20:37:06.229369  4888 net.cpp:124] Setting up pool0
I0428 20:37:06.229383  4888 net.cpp:131] Top shape: 64 100 12 12 (921600)
I0428 20:37:06.229387  4888 net.cpp:139] Memory required for data: 18632960
I0428 20:37:06.229391  4888 layer_factory.hpp:77] Creating layer conv1
I0428 20:37:06.229404  4888 net.cpp:86] Creating Layer conv1
I0428 20:37:06.229408  4888 net.cpp:408] conv1 <- pool0
I0428 20:37:06.229413  4888 net.cpp:382] conv1 -> conv1
I0428 20:37:06.234230  4888 net.cpp:124] Setting up conv1
I0428 20:37:06.234247  4888 net.cpp:131] Top shape: 64 100 8 8 (409600)
I0428 20:37:06.234252  4888 net.cpp:139] Memory required for data: 20271360
I0428 20:37:06.234262  4888 layer_factory.hpp:77] Creating layer pool1
I0428 20:37:06.234272  4888 net.cpp:86] Creating Layer pool1
I0428 20:37:06.234277  4888 net.cpp:408] pool1 <- conv1
I0428 20:37:06.234283  4888 net.cpp:382] pool1 -> pool1
I0428 20:37:06.234329  4888 net.cpp:124] Setting up pool1
I0428 20:37:06.234338  4888 net.cpp:131] Top shape: 64 100 4 4 (102400)
I0428 20:37:06.234341  4888 net.cpp:139] Memory required for data: 20680960
I0428 20:37:06.234345  4888 layer_factory.hpp:77] Creating layer ip1
I0428 20:37:06.234355  4888 net.cpp:86] Creating Layer ip1
I0428 20:37:06.234364  4888 net.cpp:408] ip1 <- pool1
I0428 20:37:06.234369  4888 net.cpp:382] ip1 -> ip1
I0428 20:37:06.234760  4888 net.cpp:124] Setting up ip1
I0428 20:37:06.234769  4888 net.cpp:131] Top shape: 64 25 (1600)
I0428 20:37:06.234772  4888 net.cpp:139] Memory required for data: 20687360
I0428 20:37:06.234781  4888 layer_factory.hpp:77] Creating layer relu1
I0428 20:37:06.234788  4888 net.cpp:86] Creating Layer relu1
I0428 20:37:06.234792  4888 net.cpp:408] relu1 <- ip1
I0428 20:37:06.234798  4888 net.cpp:369] relu1 -> ip1 (in-place)
I0428 20:37:06.235002  4888 net.cpp:124] Setting up relu1
I0428 20:37:06.235013  4888 net.cpp:131] Top shape: 64 25 (1600)
I0428 20:37:06.235016  4888 net.cpp:139] Memory required for data: 20693760
I0428 20:37:06.235020  4888 layer_factory.hpp:77] Creating layer ip2
I0428 20:37:06.235029  4888 net.cpp:86] Creating Layer ip2
I0428 20:37:06.235033  4888 net.cpp:408] ip2 <- ip1
I0428 20:37:06.235039  4888 net.cpp:382] ip2 -> ip2
I0428 20:37:06.235159  4888 net.cpp:124] Setting up ip2
I0428 20:37:06.235167  4888 net.cpp:131] Top shape: 64 10 (640)
I0428 20:37:06.235172  4888 net.cpp:139] Memory required for data: 20696320
I0428 20:37:06.235177  4888 layer_factory.hpp:77] Creating layer relu2
I0428 20:37:06.235184  4888 net.cpp:86] Creating Layer relu2
I0428 20:37:06.235188  4888 net.cpp:408] relu2 <- ip2
I0428 20:37:06.235194  4888 net.cpp:369] relu2 -> ip2 (in-place)
I0428 20:37:06.236043  4888 net.cpp:124] Setting up relu2
I0428 20:37:06.236058  4888 net.cpp:131] Top shape: 64 10 (640)
I0428 20:37:06.236063  4888 net.cpp:139] Memory required for data: 20698880
I0428 20:37:06.236066  4888 layer_factory.hpp:77] Creating layer loss
I0428 20:37:06.236075  4888 net.cpp:86] Creating Layer loss
I0428 20:37:06.236079  4888 net.cpp:408] loss <- ip2
I0428 20:37:06.236085  4888 net.cpp:408] loss <- label
I0428 20:37:06.236091  4888 net.cpp:382] loss -> loss
I0428 20:37:06.236114  4888 layer_factory.hpp:77] Creating layer loss
…
I0428 20:37:06.236876  4888 solver.cpp:173] Creating test net (#0) specified by net file: ECE595/mnist/train_test/var_everything2/lenet_train_test1646.prototxt
I0428 20:37:06.236905  4888 net.cpp:296] The NetState phase (1) differed from the phase (0) specified by a rule in layer mnist
I0428 20:37:06.237017  4888 net.cpp:53] Initializing net from parameters: 
name: "LeNet"
state {
  phase: TEST
}
layer {
  name: "mnist"
  type: "Data"
  top: "data"
  top: "label"
  include {
    phase: TEST
  }
  transform_param {
    scale: 0.00390625
  }
  data_param {
    source: "examples/mnist/mnist_test_lmdb"
    batch_size: 100
    backend: LMDB
  }
}
layer {
  name: "conv0"
  type: "Convolution"
  bottom: "data"
  top: "conv0"
  param {
    lr_mult: 1
  }
  param {
    lr_mult: 2
  }
  convolution_param {
    num_output: 100
    kernel_size: 5
    stride: 1
    weight_filler {
      type: "xavier"
    }
    bias_filler {
      type: "constant"
    }
  }
}
layer {
  name: "pool0"
  type: "Pooling"
  bottom: "conv0"
  top: "pool0"
  pooling_param {
    pool: MAX
    kernel_size: 2
    stride: 2
  }
}
layer {
  name: "conv1"
  type: "Convolution"
  bottom: "pool0"
  top: "conv1"
  param {
    lr_mult: 1
  }
  param {
    lr_mult: 2
  }
  convolution_param {
    num_output: 100
    kernel_size: 5
    stride: 1
    weight_filler {
      type: "xavier"
    }
    bias_filler {
      type: "constant"
    }
  }
}
layer {
  name: "pool1"
  type: "Pooling"
  bottom: "conv1"
  top: "pool1"
  pooling_param {
    pool: MAX
    kernel_size: 2
    stride: 2
  }
}
layer {
  name: "ip1"
  type: "InnerProduct"
  bottom: "pool1"
  top: "ip1"
  param {
    lr_mult: 1
  }
  param {
    lr_mult: 2
  }
  inner_product_param {
    num_output: 25
    weight_filler {
      type: "xavier"
    }
    bias_filler {
      type: "constant"
    }
  }
}
layer {
  name: "relu1"
  type: "ReLU"
  bottom: "ip1"
  top: "ip1"
}
layer {
  name: "ip2"
  type: "InnerProduct"
  bottom: "ip1"
  top: "ip2"
  param {
    lr_mult: 1
  }
  param {
    lr_mult: 2
  }
  inner_product_param {
    num_output: 10
    weight_filler {
      type: "xavier"
    }
    bias_filler {
      type: "constant"
    }
  }
}
layer {
  name: "relu2"
  type: "ReLU"
  bottom: "ip2"
  top: "ip2"
}
layer {
  name: "accuracy"
  type: "Accuracy"
  bottom: "ip2"
  bottom: "label"
  top: "accuracy"
  include {
    phase: TEST
  }
}
layer {
  name: "loss"
  type: "SoftmaxWithLoss"
  bottom: "ip2"
  bottom: "label"
  top: "loss"
}
I0428 20:37:06.237095  4888 layer_factory.hpp:77] Creating layer mnist
I0428 20:37:06.237146  4888 db_lmdb.cpp:35] Opened lmdb examples/mnist/mnist_test_lmdb
I0428 20:37:06.237161  4888 net.cpp:86] Creating Layer mnist
I0428 20:37:06.237169  4888 net.cpp:382] mnist -> data
I0428 20:37:06.237179  4888 net.cpp:382] mnist -> label
I0428 20:37:06.237284  4888 data_layer.cpp:45] output data size: 100,1,28,28
I0428 20:37:06.239480  4888 net.cpp:124] Setting up mnist
I0428 20:37:06.239497  4888 net.cpp:131] Top shape: 100 1 28 28 (78400)
I0428 20:37:06.239503  4888 net.cpp:131] Top shape: 100 (100)
I0428 20:37:06.239506  4888 net.cpp:139] Memory required for data: 314000
I0428 20:37:06.239511  4888 layer_factory.hpp:77] Creating layer label_mnist_1_split
I0428 20:37:06.239522  4888 net.cpp:86] Creating Layer label_mnist_1_split
I0428 20:37:06.239526  4888 net.cpp:408] label_mnist_1_split <- label
I0428 20:37:06.239538  4888 net.cpp:382] label_mnist_1_split -> label_mnist_1_split_0
I0428 20:37:06.239547  4888 net.cpp:382] label_mnist_1_split -> label_mnist_1_split_1
I0428 20:37:06.239611  4888 net.cpp:124] Setting up label_mnist_1_split
I0428 20:37:06.239619  4888 net.cpp:131] Top shape: 100 (100)
I0428 20:37:06.239622  4888 net.cpp:131] Top shape: 100 (100)
I0428 20:37:06.239626  4888 net.cpp:139] Memory required for data: 314800
I0428 20:37:06.239629  4888 layer_factory.hpp:77] Creating layer conv0
I0428 20:37:06.239642  4888 net.cpp:86] Creating Layer conv0
I0428 20:37:06.239646  4888 net.cpp:408] conv0 <- data
I0428 20:37:06.239652  4888 net.cpp:382] conv0 -> conv0
I0428 20:37:06.241611  4888 net.cpp:124] Setting up conv0
I0428 20:37:06.241628  4888 net.cpp:131] Top shape: 100 100 24 24 (5760000)
I0428 20:37:06.241633  4888 net.cpp:139] Memory required for data: 23354800
I0428 20:37:06.241644  4888 layer_factory.hpp:77] Creating layer pool0
I0428 20:37:06.241653  4888 net.cpp:86] Creating Layer pool0
I0428 20:37:06.241657  4888 net.cpp:408] pool0 <- conv0
I0428 20:37:06.241663  4888 net.cpp:382] pool0 -> pool0
I0428 20:37:06.241708  4888 net.cpp:124] Setting up pool0
I0428 20:37:06.241715  4888 net.cpp:131] Top shape: 100 100 12 12 (1440000)
I0428 20:37:06.241719  4888 net.cpp:139] Memory required for data: 29114800
I0428 20:37:06.241722  4888 layer_factory.hpp:77] Creating layer conv1
I0428 20:37:06.241735  4888 net.cpp:86] Creating Layer conv1
I0428 20:37:06.241740  4888 net.cpp:408] conv1 <- pool0
I0428 20:37:06.241749  4888 net.cpp:382] conv1 -> conv1
I0428 20:37:06.245090  4888 net.cpp:124] Setting up conv1
I0428 20:37:06.245106  4888 net.cpp:131] Top shape: 100 100 8 8 (640000)
I0428 20:37:06.245110  4888 net.cpp:139] Memory required for data: 31674800
I0428 20:37:06.245126  4888 layer_factory.hpp:77] Creating layer pool1
I0428 20:37:06.245133  4888 net.cpp:86] Creating Layer pool1
I0428 20:37:06.245137  4888 net.cpp:408] pool1 <- conv1
I0428 20:37:06.245146  4888 net.cpp:382] pool1 -> pool1
I0428 20:37:06.245187  4888 net.cpp:124] Setting up pool1
I0428 20:37:06.245196  4888 net.cpp:131] Top shape: 100 100 4 4 (160000)
I0428 20:37:06.245200  4888 net.cpp:139] Memory required for data: 32314800
I0428 20:37:06.245204  4888 layer_factory.hpp:77] Creating layer ip1
I0428 20:37:06.245213  4888 net.cpp:86] Creating Layer ip1
I0428 20:37:06.245216  4888 net.cpp:408] ip1 <- pool1
I0428 20:37:06.245223  4888 net.cpp:382] ip1 -> ip1
I0428 20:37:06.245625  4888 net.cpp:124] Setting up ip1
I0428 20:37:06.245635  4888 net.cpp:131] Top shape: 100 25 (2500)
I0428 20:37:06.245640  4888 net.cpp:139] Memory required for data: 32324800
I0428 20:37:06.245647  4888 layer_factory.hpp:77] Creating layer relu1
I0428 20:37:06.245656  4888 net.cpp:86] Creating Layer relu1
I0428 20:37:06.245661  4888 net.cpp:408] relu1 <- ip1
I0428 20:37:06.245666  4888 net.cpp:369] relu1 -> ip1 (in-place)
I0428 20:37:06.245862  4888 net.cpp:124] Setting up relu1
I0428 20:37:06.245872  4888 net.cpp:131] Top shape: 100 25 (2500)
I0428 20:37:06.245877  4888 net.cpp:139] Memory required for data: 32334800
I0428 20:37:06.245879  4888 layer_factory.hpp:77] Creating layer ip2
I0428 20:37:06.245889  4888 net.cpp:86] Creating Layer ip2
I0428 20:37:06.245896  4888 net.cpp:408] ip2 <- ip1
I0428 20:37:06.245903  4888 net.cpp:382] ip2 -> ip2
I0428 20:37:06.246047  4888 net.cpp:124] Setting up ip2
I0428 20:37:06.246057  4888 net.cpp:131] Top shape: 100 10 (1000)
I0428 20:37:06.246059  4888 net.cpp:139] Memory required for data: 32338800
I0428 20:37:06.246067  4888 layer_factory.hpp:77] Creating layer relu2
I0428 20:37:06.246071  4888 net.cpp:86] Creating Layer relu2
I0428 20:37:06.246075  4888 net.cpp:408] relu2 <- ip2
I0428 20:37:06.246080  4888 net.cpp:369] relu2 -> ip2 (in-place)
I0428 20:37:06.246310  4888 net.cpp:124] Setting up relu2
I0428 20:37:06.246335  4888 net.cpp:131] Top shape: 100 10 (1000)
I0428 20:37:06.246340  4888 net.cpp:139] Memory required for data: 32342800
I0428 20:37:06.246343  4888 layer_factory.hpp:77] Creating layer ip2_relu2_0_split
I0428 20:37:06.246351  4888 net.cpp:86] Creating Layer ip2_relu2_0_split
I0428 20:37:06.246353  4888 net.cpp:408] ip2_relu2_0_split <- ip2
I0428 20:37:06.246361  4888 net.cpp:382] ip2_relu2_0_split -> ip2_relu2_0_split_0
I0428 20:37:06.246379  4888 net.cpp:382] ip2_relu2_0_split -> ip2_relu2_0_split_1
I0428 20:37:06.246423  4888 net.cpp:124] Setting up ip2_relu2_0_split
I0428 20:37:06.246430  4888 net.cpp:131] Top shape: 100 10 (1000)
I0428 20:37:06.246434  4888 net.cpp:131] Top shape: 100 10 (1000)
I0428 20:37:06.246438  4888 net.cpp:139] Memory required for data: 32350800
I0428 20:37:06.246441  4888 layer_factory.hpp:77] Creating layer accuracy
I0428 20:37:06.246448  4888 net.cpp:86] Creating Layer accuracy
I0428 20:37:06.246453  4888 net.cpp:408] accuracy <- ip2_relu2_0_split_0
I0428 20:37:06.246457  4888 net.cpp:408] accuracy <- label_mnist_1_split_0
I0428 20:37:06.246462  4888 net.cpp:382] accuracy -> accuracy
…
