…
I0428 20:21:35.671260  1791 net.cpp:296] The NetState phase (0) differed from the phase (1) specified by a rule in layer mnist
I0428 20:21:35.671281  1791 net.cpp:296] The NetState phase (0) differed from the phase (1) specified by a rule in layer accuracy
I0428 20:21:35.671386  1791 net.cpp:53] Initializing net from parameters: 
name: "LeNet"
state {
  phase: TRAIN
  level: 0
  stage: ""
}
layer {
  name: "mnist"
  type: "Data"
  top: "data"
  top: "label"
  include {
    phase: TRAIN
  }
  transform_param {
    scale: 0.00390625
  }
  data_param {
    source: "examples/mnist/mnist_train_lmdb"
    batch_size: 64
    backend: LMDB
  }
}
layer {
  name: "conv0"
  type: "Convolution"
  bottom: "data"
  top: "conv0"
  param {
    lr_mult: 1
  }
  param {
    lr_mult: 2
  }
  convolution_param {
    num_output: 50
    kernel_size: 5
    stride: 1
    weight_filler {
      type: "xavier"
    }
    bias_filler {
      type: "constant"
    }
  }
}
layer {
  name: "pool0"
  type: "Pooling"
  bottom: "conv0"
  top: "pool0"
  pooling_param {
    pool: MAX
    kernel_size: 2
    stride: 2
  }
}
layer {
  name: "conv1"
  type: "Convolution"
  bottom: "pool0"
  top: "conv1"
  param {
    lr_mult: 1
  }
  param {
    lr_mult: 2
  }
  convolution_param {
    num_output: 50
    kernel_size: 5
    stride: 1
    weight_filler {
      type: "xavier"
    }
    bias_filler {
      type: "constant"
    }
  }
}
layer {
  name: "pool1"
  type: "Pooling"
  bottom: "conv1"
  top: "pool1"
  pooling_param {
    pool: MAX
    kernel_size: 2
    stride: 2
  }
}
layer {
  name: "ip1"
  type: "InnerProduct"
  bottom: "pool1"
  top: "ip1"
  param {
    lr_mult: 1
  }
  param {
    lr_mult: 2
  }
  inner_product_param {
    num_output: 25
    weight_filler {
      type: "xavier"
    }
    bias_filler {
      type: "constant"
    }
  }
}
layer {
  name: "relu1"
  type: "ReLU"
  bottom: "ip1"
  top: "ip1"
}
layer {
  name: "ip2"
  type: "InnerProduct"
  bottom: "ip1"
  top: "ip2"
  param {
    lr_mult: 1
  }
  param {
    lr_mult: 2
  }
  inner_product_param {
    num_output: 10
    weight_filler {
      type: "xavier"
    }
    bias_filler {
      type: "constant"
    }
  }
}
layer {
  name: "relu2"
  type: "ReLU"
  bottom: "ip2"
  top: "ip2"
}
layer {
  name: "ip3"
  type: "InnerProduct"
  bottom: "ip2"
  top: "ip3"
  param {
    lr_mult: 1
  }
  param {
    lr_mult: 2
  }
  inner_product_param {
    num_output: 10
    weight_filler {
      type: "xavier"
    }
    bias_filler {
      type: "constant"
    }
  }
}
layer {
  name: "relu3"
  type: "ReLU"
  bottom: "ip3"
  top: "ip3"
}
layer {
  name: "loss"
  type: "SoftmaxWithLoss"
  bottom: "ip3"
  bottom: "label"
  top: "loss"
}
I0428 20:21:35.671468  1791 layer_factory.hpp:77] Creating layer mnist
I0428 20:21:35.671568  1791 db_lmdb.cpp:35] Opened lmdb examples/mnist/mnist_train_lmdb
I0428 20:21:35.671594  1791 net.cpp:86] Creating Layer mnist
I0428 20:21:35.671604  1791 net.cpp:382] mnist -> data
I0428 20:21:35.671630  1791 net.cpp:382] mnist -> label
I0428 20:21:35.672737  1791 data_layer.cpp:45] output data size: 64,1,28,28
I0428 20:21:35.675218  1791 net.cpp:124] Setting up mnist
I0428 20:21:35.675237  1791 net.cpp:131] Top shape: 64 1 28 28 (50176)
I0428 20:21:35.675246  1791 net.cpp:131] Top shape: 64 (64)
I0428 20:21:35.675249  1791 net.cpp:139] Memory required for data: 200960
I0428 20:21:35.675256  1791 layer_factory.hpp:77] Creating layer conv0
I0428 20:21:35.675272  1791 net.cpp:86] Creating Layer conv0
I0428 20:21:35.675292  1791 net.cpp:408] conv0 <- data
I0428 20:21:35.675307  1791 net.cpp:382] conv0 -> conv0
I0428 20:21:35.962518  1791 net.cpp:124] Setting up conv0
I0428 20:21:35.962545  1791 net.cpp:131] Top shape: 64 50 24 24 (1843200)
I0428 20:21:35.962549  1791 net.cpp:139] Memory required for data: 7573760
I0428 20:21:35.962565  1791 layer_factory.hpp:77] Creating layer pool0
I0428 20:21:35.962579  1791 net.cpp:86] Creating Layer pool0
I0428 20:21:35.962584  1791 net.cpp:408] pool0 <- conv0
I0428 20:21:35.962589  1791 net.cpp:382] pool0 -> pool0
I0428 20:21:35.962635  1791 net.cpp:124] Setting up pool0
I0428 20:21:35.962641  1791 net.cpp:131] Top shape: 64 50 12 12 (460800)
I0428 20:21:35.962643  1791 net.cpp:139] Memory required for data: 9416960
I0428 20:21:35.962646  1791 layer_factory.hpp:77] Creating layer conv1
I0428 20:21:35.962656  1791 net.cpp:86] Creating Layer conv1
I0428 20:21:35.962659  1791 net.cpp:408] conv1 <- pool0
I0428 20:21:35.962664  1791 net.cpp:382] conv1 -> conv1
I0428 20:21:35.964828  1791 net.cpp:124] Setting up conv1
I0428 20:21:35.964843  1791 net.cpp:131] Top shape: 64 50 8 8 (204800)
I0428 20:21:35.964846  1791 net.cpp:139] Memory required for data: 10236160
I0428 20:21:35.964856  1791 layer_factory.hpp:77] Creating layer pool1
I0428 20:21:35.964866  1791 net.cpp:86] Creating Layer pool1
I0428 20:21:35.964870  1791 net.cpp:408] pool1 <- conv1
I0428 20:21:35.964875  1791 net.cpp:382] pool1 -> pool1
I0428 20:21:35.964913  1791 net.cpp:124] Setting up pool1
I0428 20:21:35.964920  1791 net.cpp:131] Top shape: 64 50 4 4 (51200)
I0428 20:21:35.964922  1791 net.cpp:139] Memory required for data: 10440960
I0428 20:21:35.964926  1791 layer_factory.hpp:77] Creating layer ip1
I0428 20:21:35.964932  1791 net.cpp:86] Creating Layer ip1
I0428 20:21:35.964936  1791 net.cpp:408] ip1 <- pool1
I0428 20:21:35.964939  1791 net.cpp:382] ip1 -> ip1
I0428 20:21:35.965145  1791 net.cpp:124] Setting up ip1
I0428 20:21:35.965154  1791 net.cpp:131] Top shape: 64 25 (1600)
I0428 20:21:35.965157  1791 net.cpp:139] Memory required for data: 10447360
I0428 20:21:35.965165  1791 layer_factory.hpp:77] Creating layer relu1
I0428 20:21:35.965170  1791 net.cpp:86] Creating Layer relu1
I0428 20:21:35.965173  1791 net.cpp:408] relu1 <- ip1
I0428 20:21:35.965178  1791 net.cpp:369] relu1 -> ip1 (in-place)
I0428 20:21:35.965351  1791 net.cpp:124] Setting up relu1
I0428 20:21:35.965360  1791 net.cpp:131] Top shape: 64 25 (1600)
I0428 20:21:35.965363  1791 net.cpp:139] Memory required for data: 10453760
I0428 20:21:35.965366  1791 layer_factory.hpp:77] Creating layer ip2
I0428 20:21:35.965373  1791 net.cpp:86] Creating Layer ip2
I0428 20:21:35.965375  1791 net.cpp:408] ip2 <- ip1
I0428 20:21:35.965380  1791 net.cpp:382] ip2 -> ip2
I0428 20:21:35.965468  1791 net.cpp:124] Setting up ip2
I0428 20:21:35.965476  1791 net.cpp:131] Top shape: 64 10 (640)
I0428 20:21:35.965478  1791 net.cpp:139] Memory required for data: 10456320
I0428 20:21:35.965484  1791 layer_factory.hpp:77] Creating layer relu2
I0428 20:21:35.965490  1791 net.cpp:86] Creating Layer relu2
I0428 20:21:35.965493  1791 net.cpp:408] relu2 <- ip2
I0428 20:21:35.965497  1791 net.cpp:369] relu2 -> ip2 (in-place)
I0428 20:21:35.966187  1791 net.cpp:124] Setting up relu2
I0428 20:21:35.966198  1791 net.cpp:131] Top shape: 64 10 (640)
I0428 20:21:35.966202  1791 net.cpp:139] Memory required for data: 10458880
I0428 20:21:35.966205  1791 layer_factory.hpp:77] Creating layer ip3
I0428 20:21:35.966212  1791 net.cpp:86] Creating Layer ip3
I0428 20:21:35.966215  1791 net.cpp:408] ip3 <- ip2
I0428 20:21:35.966220  1791 net.cpp:382] ip3 -> ip3
I0428 20:21:35.966310  1791 net.cpp:124] Setting up ip3
I0428 20:21:35.966318  1791 net.cpp:131] Top shape: 64 10 (640)
I0428 20:21:35.966321  1791 net.cpp:139] Memory required for data: 10461440
I0428 20:21:35.966328  1791 layer_factory.hpp:77] Creating layer relu3
I0428 20:21:35.966333  1791 net.cpp:86] Creating Layer relu3
I0428 20:21:35.966336  1791 net.cpp:408] relu3 <- ip3
I0428 20:21:35.966341  1791 net.cpp:369] relu3 -> ip3 (in-place)
I0428 20:21:35.966495  1791 net.cpp:124] Setting up relu3
I0428 20:21:35.966503  1791 net.cpp:131] Top shape: 64 10 (640)
I0428 20:21:35.966506  1791 net.cpp:139] Memory required for data: 10464000
I0428 20:21:35.966509  1791 layer_factory.hpp:77] Creating layer loss
I0428 20:21:35.966521  1791 net.cpp:86] Creating Layer loss
I0428 20:21:35.966524  1791 net.cpp:408] loss <- ip3
I0428 20:21:35.966527  1791 net.cpp:408] loss <- label
I0428 20:21:35.966533  1791 net.cpp:382] loss -> loss
I0428 20:21:35.966547  1791 layer_factory.hpp:77] Creating layer loss
…
I0428 20:21:35.967129  1791 solver.cpp:173] Creating test net (#0) specified by net file: ECE595/mnist/train_test/var_everything2/lenet_train_test1387.prototxt
I0428 20:21:35.967155  1791 net.cpp:296] The NetState phase (1) differed from the phase (0) specified by a rule in layer mnist
I0428 20:21:35.967242  1791 net.cpp:53] Initializing net from parameters: 
name: "LeNet"
state {
  phase: TEST
}
layer {
  name: "mnist"
  type: "Data"
  top: "data"
  top: "label"
  include {
    phase: TEST
  }
  transform_param {
    scale: 0.00390625
  }
  data_param {
    source: "examples/mnist/mnist_test_lmdb"
    batch_size: 100
    backend: LMDB
  }
}
layer {
  name: "conv0"
  type: "Convolution"
  bottom: "data"
  top: "conv0"
  param {
    lr_mult: 1
  }
  param {
    lr_mult: 2
  }
  convolution_param {
    num_output: 50
    kernel_size: 5
    stride: 1
    weight_filler {
      type: "xavier"
    }
    bias_filler {
      type: "constant"
    }
  }
}
layer {
  name: "pool0"
  type: "Pooling"
  bottom: "conv0"
  top: "pool0"
  pooling_param {
    pool: MAX
    kernel_size: 2
    stride: 2
  }
}
layer {
  name: "conv1"
  type: "Convolution"
  bottom: "pool0"
  top: "conv1"
  param {
    lr_mult: 1
  }
  param {
    lr_mult: 2
  }
  convolution_param {
    num_output: 50
    kernel_size: 5
    stride: 1
    weight_filler {
      type: "xavier"
    }
    bias_filler {
      type: "constant"
    }
  }
}
layer {
  name: "pool1"
  type: "Pooling"
  bottom: "conv1"
  top: "pool1"
  pooling_param {
    pool: MAX
    kernel_size: 2
    stride: 2
  }
}
layer {
  name: "ip1"
  type: "InnerProduct"
  bottom: "pool1"
  top: "ip1"
  param {
    lr_mult: 1
  }
  param {
    lr_mult: 2
  }
  inner_product_param {
    num_output: 25
    weight_filler {
      type: "xavier"
    }
    bias_filler {
      type: "constant"
    }
  }
}
layer {
  name: "relu1"
  type: "ReLU"
  bottom: "ip1"
  top: "ip1"
}
layer {
  name: "ip2"
  type: "InnerProduct"
  bottom: "ip1"
  top: "ip2"
  param {
    lr_mult: 1
  }
  param {
    lr_mult: 2
  }
  inner_product_param {
    num_output: 10
    weight_filler {
      type: "xavier"
    }
    bias_filler {
      type: "constant"
    }
  }
}
layer {
  name: "relu2"
  type: "ReLU"
  bottom: "ip2"
  top: "ip2"
}
layer {
  name: "ip3"
  type: "InnerProduct"
  bottom: "ip2"
  top: "ip3"
  param {
    lr_mult: 1
  }
  param {
    lr_mult: 2
  }
  inner_product_param {
    num_output: 10
    weight_filler {
      type: "xavier"
    }
    bias_filler {
      type: "constant"
    }
  }
}
layer {
  name: "relu3"
  type: "ReLU"
  bottom: "ip3"
  top: "ip3"
}
layer {
  name: "accuracy"
  type: "Accuracy"
  bottom: "ip3"
  bottom: "label"
  top: "accuracy"
  include {
    phase: TEST
  }
}
layer {
  name: "loss"
  type: "SoftmaxWithLoss"
  bottom: "ip3"
  bottom: "label"
  top: "loss"
}
I0428 20:21:35.967319  1791 layer_factory.hpp:77] Creating layer mnist
I0428 20:21:35.967362  1791 db_lmdb.cpp:35] Opened lmdb examples/mnist/mnist_test_lmdb
I0428 20:21:35.967376  1791 net.cpp:86] Creating Layer mnist
I0428 20:21:35.967381  1791 net.cpp:382] mnist -> data
I0428 20:21:35.967388  1791 net.cpp:382] mnist -> label
I0428 20:21:35.967466  1791 data_layer.cpp:45] output data size: 100,1,28,28
I0428 20:21:35.969444  1791 net.cpp:124] Setting up mnist
I0428 20:21:35.969457  1791 net.cpp:131] Top shape: 100 1 28 28 (78400)
I0428 20:21:35.969462  1791 net.cpp:131] Top shape: 100 (100)
I0428 20:21:35.969465  1791 net.cpp:139] Memory required for data: 314000
I0428 20:21:35.969470  1791 layer_factory.hpp:77] Creating layer label_mnist_1_split
I0428 20:21:35.969475  1791 net.cpp:86] Creating Layer label_mnist_1_split
I0428 20:21:35.969478  1791 net.cpp:408] label_mnist_1_split <- label
I0428 20:21:35.969483  1791 net.cpp:382] label_mnist_1_split -> label_mnist_1_split_0
I0428 20:21:35.969490  1791 net.cpp:382] label_mnist_1_split -> label_mnist_1_split_1
I0428 20:21:35.969524  1791 net.cpp:124] Setting up label_mnist_1_split
I0428 20:21:35.969528  1791 net.cpp:131] Top shape: 100 (100)
I0428 20:21:35.969532  1791 net.cpp:131] Top shape: 100 (100)
I0428 20:21:35.969535  1791 net.cpp:139] Memory required for data: 314800
I0428 20:21:35.969538  1791 layer_factory.hpp:77] Creating layer conv0
I0428 20:21:35.969545  1791 net.cpp:86] Creating Layer conv0
I0428 20:21:35.969548  1791 net.cpp:408] conv0 <- data
I0428 20:21:35.969553  1791 net.cpp:382] conv0 -> conv0
I0428 20:21:35.971276  1791 net.cpp:124] Setting up conv0
I0428 20:21:35.971290  1791 net.cpp:131] Top shape: 100 50 24 24 (2880000)
I0428 20:21:35.971294  1791 net.cpp:139] Memory required for data: 11834800
I0428 20:21:35.971303  1791 layer_factory.hpp:77] Creating layer pool0
I0428 20:21:35.971309  1791 net.cpp:86] Creating Layer pool0
I0428 20:21:35.971312  1791 net.cpp:408] pool0 <- conv0
I0428 20:21:35.971318  1791 net.cpp:382] pool0 -> pool0
I0428 20:21:35.971350  1791 net.cpp:124] Setting up pool0
I0428 20:21:35.971355  1791 net.cpp:131] Top shape: 100 50 12 12 (720000)
I0428 20:21:35.971359  1791 net.cpp:139] Memory required for data: 14714800
I0428 20:21:35.971361  1791 layer_factory.hpp:77] Creating layer conv1
I0428 20:21:35.971369  1791 net.cpp:86] Creating Layer conv1
I0428 20:21:35.971372  1791 net.cpp:408] conv1 <- pool0
I0428 20:21:35.971382  1791 net.cpp:382] conv1 -> conv1
I0428 20:21:35.973309  1791 net.cpp:124] Setting up conv1
I0428 20:21:35.973338  1791 net.cpp:131] Top shape: 100 50 8 8 (320000)
I0428 20:21:35.973343  1791 net.cpp:139] Memory required for data: 15994800
I0428 20:21:35.973352  1791 layer_factory.hpp:77] Creating layer pool1
I0428 20:21:35.973359  1791 net.cpp:86] Creating Layer pool1
I0428 20:21:35.973363  1791 net.cpp:408] pool1 <- conv1
I0428 20:21:35.973368  1791 net.cpp:382] pool1 -> pool1
I0428 20:21:35.973435  1791 net.cpp:124] Setting up pool1
I0428 20:21:35.973441  1791 net.cpp:131] Top shape: 100 50 4 4 (80000)
I0428 20:21:35.973444  1791 net.cpp:139] Memory required for data: 16314800
I0428 20:21:35.973448  1791 layer_factory.hpp:77] Creating layer ip1
I0428 20:21:35.973454  1791 net.cpp:86] Creating Layer ip1
I0428 20:21:35.973459  1791 net.cpp:408] ip1 <- pool1
I0428 20:21:35.973464  1791 net.cpp:382] ip1 -> ip1
I0428 20:21:35.973706  1791 net.cpp:124] Setting up ip1
I0428 20:21:35.973726  1791 net.cpp:131] Top shape: 100 25 (2500)
I0428 20:21:35.973744  1791 net.cpp:139] Memory required for data: 16324800
I0428 20:21:35.973753  1791 layer_factory.hpp:77] Creating layer relu1
I0428 20:21:35.973773  1791 net.cpp:86] Creating Layer relu1
I0428 20:21:35.973776  1791 net.cpp:408] relu1 <- ip1
I0428 20:21:35.973780  1791 net.cpp:369] relu1 -> ip1 (in-place)
I0428 20:21:35.973984  1791 net.cpp:124] Setting up relu1
I0428 20:21:35.973994  1791 net.cpp:131] Top shape: 100 25 (2500)
I0428 20:21:35.973996  1791 net.cpp:139] Memory required for data: 16334800
I0428 20:21:35.973999  1791 layer_factory.hpp:77] Creating layer ip2
I0428 20:21:35.974006  1791 net.cpp:86] Creating Layer ip2
I0428 20:21:35.974010  1791 net.cpp:408] ip2 <- ip1
I0428 20:21:35.974015  1791 net.cpp:382] ip2 -> ip2
I0428 20:21:35.974128  1791 net.cpp:124] Setting up ip2
I0428 20:21:35.974135  1791 net.cpp:131] Top shape: 100 10 (1000)
I0428 20:21:35.974138  1791 net.cpp:139] Memory required for data: 16338800
I0428 20:21:35.974143  1791 layer_factory.hpp:77] Creating layer relu2
I0428 20:21:35.974159  1791 net.cpp:86] Creating Layer relu2
I0428 20:21:35.974164  1791 net.cpp:408] relu2 <- ip2
I0428 20:21:35.974167  1791 net.cpp:369] relu2 -> ip2 (in-place)
I0428 20:21:35.974378  1791 net.cpp:124] Setting up relu2
I0428 20:21:35.974388  1791 net.cpp:131] Top shape: 100 10 (1000)
I0428 20:21:35.974391  1791 net.cpp:139] Memory required for data: 16342800
I0428 20:21:35.974395  1791 layer_factory.hpp:77] Creating layer ip3
I0428 20:21:35.974401  1791 net.cpp:86] Creating Layer ip3
I0428 20:21:35.974405  1791 net.cpp:408] ip3 <- ip2
I0428 20:21:35.974409  1791 net.cpp:382] ip3 -> ip3
I0428 20:21:35.974506  1791 net.cpp:124] Setting up ip3
I0428 20:21:35.974514  1791 net.cpp:131] Top shape: 100 10 (1000)
I0428 20:21:35.974532  1791 net.cpp:139] Memory required for data: 16346800
I0428 20:21:35.974541  1791 layer_factory.hpp:77] Creating layer relu3
I0428 20:21:35.974546  1791 net.cpp:86] Creating Layer relu3
I0428 20:21:35.974550  1791 net.cpp:408] relu3 <- ip3
I0428 20:21:35.974553  1791 net.cpp:369] relu3 -> ip3 (in-place)
I0428 20:21:35.975314  1791 net.cpp:124] Setting up relu3
I0428 20:21:35.975327  1791 net.cpp:131] Top shape: 100 10 (1000)
I0428 20:21:35.975329  1791 net.cpp:139] Memory required for data: 16350800
I0428 20:21:35.975333  1791 layer_factory.hpp:77] Creating layer ip3_relu3_0_split
I0428 20:21:35.975338  1791 net.cpp:86] Creating Layer ip3_relu3_0_split
I0428 20:21:35.975342  1791 net.cpp:408] ip3_relu3_0_split <- ip3
I0428 20:21:35.975347  1791 net.cpp:382] ip3_relu3_0_split -> ip3_relu3_0_split_0
I0428 20:21:35.975353  1791 net.cpp:382] ip3_relu3_0_split -> ip3_relu3_0_split_1
I0428 20:21:35.975391  1791 net.cpp:124] Setting up ip3_relu3_0_split
I0428 20:21:35.975399  1791 net.cpp:131] Top shape: 100 10 (1000)
I0428 20:21:35.975402  1791 net.cpp:131] Top shape: 100 10 (1000)
I0428 20:21:35.975404  1791 net.cpp:139] Memory required for data: 16358800
I0428 20:21:35.975407  1791 layer_factory.hpp:77] Creating layer accuracy
I0428 20:21:35.975412  1791 net.cpp:86] Creating Layer accuracy
I0428 20:21:35.975415  1791 net.cpp:408] accuracy <- ip3_relu3_0_split_0
I0428 20:21:35.975419  1791 net.cpp:408] accuracy <- label_mnist_1_split_0
I0428 20:21:35.975424  1791 net.cpp:382] accuracy -> accuracy
…
