…
I0428 20:07:53.550971 31257 net.cpp:296] The NetState phase (0) differed from the phase (1) specified by a rule in layer mnist
I0428 20:07:53.550987 31257 net.cpp:296] The NetState phase (0) differed from the phase (1) specified by a rule in layer accuracy
I0428 20:07:53.551082 31257 net.cpp:53] Initializing net from parameters: 
name: "LeNet"
state {
  phase: TRAIN
  level: 0
  stage: ""
}
layer {
  name: "mnist"
  type: "Data"
  top: "data"
  top: "label"
  include {
    phase: TRAIN
  }
  transform_param {
    scale: 0.00390625
  }
  data_param {
    source: "examples/mnist/mnist_train_lmdb"
    batch_size: 64
    backend: LMDB
  }
}
layer {
  name: "conv0"
  type: "Convolution"
  bottom: "data"
  top: "conv0"
  param {
    lr_mult: 1
  }
  param {
    lr_mult: 2
  }
  convolution_param {
    num_output: 25
    kernel_size: 5
    stride: 1
    weight_filler {
      type: "xavier"
    }
    bias_filler {
      type: "constant"
    }
  }
}
layer {
  name: "pool0"
  type: "Pooling"
  bottom: "conv0"
  top: "pool0"
  pooling_param {
    pool: MAX
    kernel_size: 2
    stride: 2
  }
}
layer {
  name: "conv1"
  type: "Convolution"
  bottom: "pool0"
  top: "conv1"
  param {
    lr_mult: 1
  }
  param {
    lr_mult: 2
  }
  convolution_param {
    num_output: 10
    kernel_size: 5
    stride: 1
    weight_filler {
      type: "xavier"
    }
    bias_filler {
      type: "constant"
    }
  }
}
layer {
  name: "pool1"
  type: "Pooling"
  bottom: "conv1"
  top: "pool1"
  pooling_param {
    pool: MAX
    kernel_size: 2
    stride: 2
  }
}
layer {
  name: "ip1"
  type: "InnerProduct"
  bottom: "pool1"
  top: "ip1"
  param {
    lr_mult: 1
  }
  param {
    lr_mult: 2
  }
  inner_product_param {
    num_output: 10
    weight_filler {
      type: "xavier"
    }
    bias_filler {
      type: "constant"
    }
  }
}
layer {
  name: "relu1"
  type: "ReLU"
  bottom: "ip1"
  top: "ip1"
}
layer {
  name: "ip2"
  type: "InnerProduct"
  bottom: "ip1"
  top: "ip2"
  param {
    lr_mult: 1
  }
  param {
    lr_mult: 2
  }
  inner_product_param {
    num_output: 25
    weight_filler {
      type: "xavier"
    }
    bias_filler {
      type: "constant"
    }
  }
}
layer {
  name: "relu2"
  type: "ReLU"
  bottom: "ip2"
  top: "ip2"
}
layer {
  name: "ip3"
  type: "InnerProduct"
  bottom: "ip2"
  top: "ip3"
  param {
    lr_mult: 1
  }
  param {
    lr_mult: 2
  }
  inner_product_param {
    num_output: 10
    weight_filler {
      type: "xavier"
    }
    bias_filler {
      type: "constant"
    }
  }
}
layer {
  name: "relu3"
  type: "ReLU"
  bottom: "ip3"
  top: "ip3"
}
layer {
  name: "loss"
  type: "SoftmaxWithLoss"
  bottom: "ip3"
  bottom: "label"
  top: "loss"
}
I0428 20:07:53.551149 31257 layer_factory.hpp:77] Creating layer mnist
I0428 20:07:53.551230 31257 db_lmdb.cpp:35] Opened lmdb examples/mnist/mnist_train_lmdb
I0428 20:07:53.551249 31257 net.cpp:86] Creating Layer mnist
I0428 20:07:53.551255 31257 net.cpp:382] mnist -> data
I0428 20:07:53.551275 31257 net.cpp:382] mnist -> label
I0428 20:07:53.552208 31257 data_layer.cpp:45] output data size: 64,1,28,28
I0428 20:07:53.554652 31257 net.cpp:124] Setting up mnist
I0428 20:07:53.554700 31257 net.cpp:131] Top shape: 64 1 28 28 (50176)
I0428 20:07:53.554707 31257 net.cpp:131] Top shape: 64 (64)
I0428 20:07:53.554708 31257 net.cpp:139] Memory required for data: 200960
I0428 20:07:53.554715 31257 layer_factory.hpp:77] Creating layer conv0
I0428 20:07:53.554744 31257 net.cpp:86] Creating Layer conv0
I0428 20:07:53.554762 31257 net.cpp:408] conv0 <- data
I0428 20:07:53.554783 31257 net.cpp:382] conv0 -> conv0
I0428 20:07:53.785120 31257 net.cpp:124] Setting up conv0
I0428 20:07:53.785174 31257 net.cpp:131] Top shape: 64 25 24 24 (921600)
I0428 20:07:53.785178 31257 net.cpp:139] Memory required for data: 3887360
I0428 20:07:53.785207 31257 layer_factory.hpp:77] Creating layer pool0
I0428 20:07:53.785233 31257 net.cpp:86] Creating Layer pool0
I0428 20:07:53.785253 31257 net.cpp:408] pool0 <- conv0
I0428 20:07:53.785259 31257 net.cpp:382] pool0 -> pool0
I0428 20:07:53.785326 31257 net.cpp:124] Setting up pool0
I0428 20:07:53.785334 31257 net.cpp:131] Top shape: 64 25 12 12 (230400)
I0428 20:07:53.785337 31257 net.cpp:139] Memory required for data: 4808960
I0428 20:07:53.785341 31257 layer_factory.hpp:77] Creating layer conv1
I0428 20:07:53.785351 31257 net.cpp:86] Creating Layer conv1
I0428 20:07:53.785353 31257 net.cpp:408] conv1 <- pool0
I0428 20:07:53.785358 31257 net.cpp:382] conv1 -> conv1
I0428 20:07:53.788022 31257 net.cpp:124] Setting up conv1
I0428 20:07:53.788051 31257 net.cpp:131] Top shape: 64 10 8 8 (40960)
I0428 20:07:53.788055 31257 net.cpp:139] Memory required for data: 4972800
I0428 20:07:53.788079 31257 layer_factory.hpp:77] Creating layer pool1
I0428 20:07:53.788086 31257 net.cpp:86] Creating Layer pool1
I0428 20:07:53.788090 31257 net.cpp:408] pool1 <- conv1
I0428 20:07:53.788095 31257 net.cpp:382] pool1 -> pool1
I0428 20:07:53.788146 31257 net.cpp:124] Setting up pool1
I0428 20:07:53.788151 31257 net.cpp:131] Top shape: 64 10 4 4 (10240)
I0428 20:07:53.788154 31257 net.cpp:139] Memory required for data: 5013760
I0428 20:07:53.788157 31257 layer_factory.hpp:77] Creating layer ip1
I0428 20:07:53.788164 31257 net.cpp:86] Creating Layer ip1
I0428 20:07:53.788167 31257 net.cpp:408] ip1 <- pool1
I0428 20:07:53.788172 31257 net.cpp:382] ip1 -> ip1
I0428 20:07:53.789196 31257 net.cpp:124] Setting up ip1
I0428 20:07:53.789209 31257 net.cpp:131] Top shape: 64 10 (640)
I0428 20:07:53.789228 31257 net.cpp:139] Memory required for data: 5016320
I0428 20:07:53.789237 31257 layer_factory.hpp:77] Creating layer relu1
I0428 20:07:53.789258 31257 net.cpp:86] Creating Layer relu1
I0428 20:07:53.789261 31257 net.cpp:408] relu1 <- ip1
I0428 20:07:53.789266 31257 net.cpp:369] relu1 -> ip1 (in-place)
I0428 20:07:53.789458 31257 net.cpp:124] Setting up relu1
I0428 20:07:53.789480 31257 net.cpp:131] Top shape: 64 10 (640)
I0428 20:07:53.789484 31257 net.cpp:139] Memory required for data: 5018880
I0428 20:07:53.789487 31257 layer_factory.hpp:77] Creating layer ip2
I0428 20:07:53.789494 31257 net.cpp:86] Creating Layer ip2
I0428 20:07:53.789496 31257 net.cpp:408] ip2 <- ip1
I0428 20:07:53.789501 31257 net.cpp:382] ip2 -> ip2
I0428 20:07:53.789610 31257 net.cpp:124] Setting up ip2
I0428 20:07:53.789618 31257 net.cpp:131] Top shape: 64 25 (1600)
I0428 20:07:53.789620 31257 net.cpp:139] Memory required for data: 5025280
I0428 20:07:53.789625 31257 layer_factory.hpp:77] Creating layer relu2
I0428 20:07:53.789631 31257 net.cpp:86] Creating Layer relu2
I0428 20:07:53.789634 31257 net.cpp:408] relu2 <- ip2
I0428 20:07:53.789638 31257 net.cpp:369] relu2 -> ip2 (in-place)
I0428 20:07:53.790387 31257 net.cpp:124] Setting up relu2
I0428 20:07:53.790400 31257 net.cpp:131] Top shape: 64 25 (1600)
I0428 20:07:53.790418 31257 net.cpp:139] Memory required for data: 5031680
I0428 20:07:53.790422 31257 layer_factory.hpp:77] Creating layer ip3
I0428 20:07:53.790446 31257 net.cpp:86] Creating Layer ip3
I0428 20:07:53.790462 31257 net.cpp:408] ip3 <- ip2
I0428 20:07:53.790468 31257 net.cpp:382] ip3 -> ip3
I0428 20:07:53.790596 31257 net.cpp:124] Setting up ip3
I0428 20:07:53.790604 31257 net.cpp:131] Top shape: 64 10 (640)
I0428 20:07:53.790607 31257 net.cpp:139] Memory required for data: 5034240
I0428 20:07:53.790616 31257 layer_factory.hpp:77] Creating layer relu3
I0428 20:07:53.790621 31257 net.cpp:86] Creating Layer relu3
I0428 20:07:53.790623 31257 net.cpp:408] relu3 <- ip3
I0428 20:07:53.790628 31257 net.cpp:369] relu3 -> ip3 (in-place)
I0428 20:07:53.790809 31257 net.cpp:124] Setting up relu3
I0428 20:07:53.790817 31257 net.cpp:131] Top shape: 64 10 (640)
I0428 20:07:53.790822 31257 net.cpp:139] Memory required for data: 5036800
I0428 20:07:53.790824 31257 layer_factory.hpp:77] Creating layer loss
I0428 20:07:53.790829 31257 net.cpp:86] Creating Layer loss
I0428 20:07:53.790832 31257 net.cpp:408] loss <- ip3
I0428 20:07:53.790837 31257 net.cpp:408] loss <- label
I0428 20:07:53.790856 31257 net.cpp:382] loss -> loss
I0428 20:07:53.790874 31257 layer_factory.hpp:77] Creating layer loss
…
I0428 20:07:53.791550 31257 solver.cpp:173] Creating test net (#0) specified by net file: ECE595/mnist/train_test/var_everything2/lenet_train_test1068.prototxt
I0428 20:07:53.791594 31257 net.cpp:296] The NetState phase (1) differed from the phase (0) specified by a rule in layer mnist
I0428 20:07:53.791700 31257 net.cpp:53] Initializing net from parameters: 
name: "LeNet"
state {
  phase: TEST
}
layer {
  name: "mnist"
  type: "Data"
  top: "data"
  top: "label"
  include {
    phase: TEST
  }
  transform_param {
    scale: 0.00390625
  }
  data_param {
    source: "examples/mnist/mnist_test_lmdb"
    batch_size: 100
    backend: LMDB
  }
}
layer {
  name: "conv0"
  type: "Convolution"
  bottom: "data"
  top: "conv0"
  param {
    lr_mult: 1
  }
  param {
    lr_mult: 2
  }
  convolution_param {
    num_output: 25
    kernel_size: 5
    stride: 1
    weight_filler {
      type: "xavier"
    }
    bias_filler {
      type: "constant"
    }
  }
}
layer {
  name: "pool0"
  type: "Pooling"
  bottom: "conv0"
  top: "pool0"
  pooling_param {
    pool: MAX
    kernel_size: 2
    stride: 2
  }
}
layer {
  name: "conv1"
  type: "Convolution"
  bottom: "pool0"
  top: "conv1"
  param {
    lr_mult: 1
  }
  param {
    lr_mult: 2
  }
  convolution_param {
    num_output: 10
    kernel_size: 5
    stride: 1
    weight_filler {
      type: "xavier"
    }
    bias_filler {
      type: "constant"
    }
  }
}
layer {
  name: "pool1"
  type: "Pooling"
  bottom: "conv1"
  top: "pool1"
  pooling_param {
    pool: MAX
    kernel_size: 2
    stride: 2
  }
}
layer {
  name: "ip1"
  type: "InnerProduct"
  bottom: "pool1"
  top: "ip1"
  param {
    lr_mult: 1
  }
  param {
    lr_mult: 2
  }
  inner_product_param {
    num_output: 10
    weight_filler {
      type: "xavier"
    }
    bias_filler {
      type: "constant"
    }
  }
}
layer {
  name: "relu1"
  type: "ReLU"
  bottom: "ip1"
  top: "ip1"
}
layer {
  name: "ip2"
  type: "InnerProduct"
  bottom: "ip1"
  top: "ip2"
  param {
    lr_mult: 1
  }
  param {
    lr_mult: 2
  }
  inner_product_param {
    num_output: 25
    weight_filler {
      type: "xavier"
    }
    bias_filler {
      type: "constant"
    }
  }
}
layer {
  name: "relu2"
  type: "ReLU"
  bottom: "ip2"
  top: "ip2"
}
layer {
  name: "ip3"
  type: "InnerProduct"
  bottom: "ip2"
  top: "ip3"
  param {
    lr_mult: 1
  }
  param {
    lr_mult: 2
  }
  inner_product_param {
    num_output: 10
    weight_filler {
      type: "xavier"
    }
    bias_filler {
      type: "constant"
    }
  }
}
layer {
  name: "relu3"
  type: "ReLU"
  bottom: "ip3"
  top: "ip3"
}
layer {
  name: "accuracy"
  type: "Accuracy"
  bottom: "ip3"
  bottom: "label"
  top: "accuracy"
  include {
    phase: TEST
  }
}
layer {
  name: "loss"
  type: "SoftmaxWithLoss"
  bottom: "ip3"
  bottom: "label"
  top: "loss"
}
I0428 20:07:53.791780 31257 layer_factory.hpp:77] Creating layer mnist
I0428 20:07:53.791826 31257 db_lmdb.cpp:35] Opened lmdb examples/mnist/mnist_test_lmdb
I0428 20:07:53.791839 31257 net.cpp:86] Creating Layer mnist
I0428 20:07:53.791843 31257 net.cpp:382] mnist -> data
I0428 20:07:53.791851 31257 net.cpp:382] mnist -> label
I0428 20:07:53.791947 31257 data_layer.cpp:45] output data size: 100,1,28,28
I0428 20:07:53.794062 31257 net.cpp:124] Setting up mnist
I0428 20:07:53.794106 31257 net.cpp:131] Top shape: 100 1 28 28 (78400)
I0428 20:07:53.794111 31257 net.cpp:131] Top shape: 100 (100)
I0428 20:07:53.794131 31257 net.cpp:139] Memory required for data: 314000
I0428 20:07:53.794136 31257 layer_factory.hpp:77] Creating layer label_mnist_1_split
I0428 20:07:53.794157 31257 net.cpp:86] Creating Layer label_mnist_1_split
I0428 20:07:53.794174 31257 net.cpp:408] label_mnist_1_split <- label
I0428 20:07:53.794179 31257 net.cpp:382] label_mnist_1_split -> label_mnist_1_split_0
I0428 20:07:53.794201 31257 net.cpp:382] label_mnist_1_split -> label_mnist_1_split_1
I0428 20:07:53.794294 31257 net.cpp:124] Setting up label_mnist_1_split
I0428 20:07:53.794302 31257 net.cpp:131] Top shape: 100 (100)
I0428 20:07:53.794306 31257 net.cpp:131] Top shape: 100 (100)
I0428 20:07:53.794309 31257 net.cpp:139] Memory required for data: 314800
I0428 20:07:53.794312 31257 layer_factory.hpp:77] Creating layer conv0
I0428 20:07:53.794320 31257 net.cpp:86] Creating Layer conv0
I0428 20:07:53.794324 31257 net.cpp:408] conv0 <- data
I0428 20:07:53.794329 31257 net.cpp:382] conv0 -> conv0
I0428 20:07:53.796118 31257 net.cpp:124] Setting up conv0
I0428 20:07:53.796131 31257 net.cpp:131] Top shape: 100 25 24 24 (1440000)
I0428 20:07:53.796151 31257 net.cpp:139] Memory required for data: 6074800
I0428 20:07:53.796160 31257 layer_factory.hpp:77] Creating layer pool0
I0428 20:07:53.796169 31257 net.cpp:86] Creating Layer pool0
I0428 20:07:53.796172 31257 net.cpp:408] pool0 <- conv0
I0428 20:07:53.796177 31257 net.cpp:382] pool0 -> pool0
I0428 20:07:53.796232 31257 net.cpp:124] Setting up pool0
I0428 20:07:53.796244 31257 net.cpp:131] Top shape: 100 25 12 12 (360000)
I0428 20:07:53.796247 31257 net.cpp:139] Memory required for data: 7514800
I0428 20:07:53.796249 31257 layer_factory.hpp:77] Creating layer conv1
I0428 20:07:53.796273 31257 net.cpp:86] Creating Layer conv1
I0428 20:07:53.796277 31257 net.cpp:408] conv1 <- pool0
I0428 20:07:53.796283 31257 net.cpp:382] conv1 -> conv1
I0428 20:07:53.798552 31257 net.cpp:124] Setting up conv1
I0428 20:07:53.798580 31257 net.cpp:131] Top shape: 100 10 8 8 (64000)
I0428 20:07:53.798583 31257 net.cpp:139] Memory required for data: 7770800
I0428 20:07:53.798593 31257 layer_factory.hpp:77] Creating layer pool1
I0428 20:07:53.798600 31257 net.cpp:86] Creating Layer pool1
I0428 20:07:53.798604 31257 net.cpp:408] pool1 <- conv1
I0428 20:07:53.798609 31257 net.cpp:382] pool1 -> pool1
I0428 20:07:53.798667 31257 net.cpp:124] Setting up pool1
I0428 20:07:53.798672 31257 net.cpp:131] Top shape: 100 10 4 4 (16000)
I0428 20:07:53.798676 31257 net.cpp:139] Memory required for data: 7834800
I0428 20:07:53.798678 31257 layer_factory.hpp:77] Creating layer ip1
I0428 20:07:53.798686 31257 net.cpp:86] Creating Layer ip1
I0428 20:07:53.798688 31257 net.cpp:408] ip1 <- pool1
I0428 20:07:53.798693 31257 net.cpp:382] ip1 -> ip1
I0428 20:07:53.798841 31257 net.cpp:124] Setting up ip1
I0428 20:07:53.798861 31257 net.cpp:131] Top shape: 100 10 (1000)
I0428 20:07:53.798873 31257 net.cpp:139] Memory required for data: 7838800
I0428 20:07:53.798897 31257 layer_factory.hpp:77] Creating layer relu1
I0428 20:07:53.798905 31257 net.cpp:86] Creating Layer relu1
I0428 20:07:53.798908 31257 net.cpp:408] relu1 <- ip1
I0428 20:07:53.798913 31257 net.cpp:369] relu1 -> ip1 (in-place)
I0428 20:07:53.799083 31257 net.cpp:124] Setting up relu1
I0428 20:07:53.799093 31257 net.cpp:131] Top shape: 100 10 (1000)
I0428 20:07:53.799096 31257 net.cpp:139] Memory required for data: 7842800
I0428 20:07:53.799100 31257 layer_factory.hpp:77] Creating layer ip2
I0428 20:07:53.799108 31257 net.cpp:86] Creating Layer ip2
I0428 20:07:53.799118 31257 net.cpp:408] ip2 <- ip1
I0428 20:07:53.799124 31257 net.cpp:382] ip2 -> ip2
I0428 20:07:53.799226 31257 net.cpp:124] Setting up ip2
I0428 20:07:53.799248 31257 net.cpp:131] Top shape: 100 25 (2500)
I0428 20:07:53.799252 31257 net.cpp:139] Memory required for data: 7852800
I0428 20:07:53.799258 31257 layer_factory.hpp:77] Creating layer relu2
I0428 20:07:53.799264 31257 net.cpp:86] Creating Layer relu2
I0428 20:07:53.799268 31257 net.cpp:408] relu2 <- ip2
I0428 20:07:53.799271 31257 net.cpp:369] relu2 -> ip2 (in-place)
I0428 20:07:53.799438 31257 net.cpp:124] Setting up relu2
I0428 20:07:53.799446 31257 net.cpp:131] Top shape: 100 25 (2500)
I0428 20:07:53.799449 31257 net.cpp:139] Memory required for data: 7862800
I0428 20:07:53.799453 31257 layer_factory.hpp:77] Creating layer ip3
I0428 20:07:53.799459 31257 net.cpp:86] Creating Layer ip3
I0428 20:07:53.799463 31257 net.cpp:408] ip3 <- ip2
I0428 20:07:53.799468 31257 net.cpp:382] ip3 -> ip3
I0428 20:07:53.799578 31257 net.cpp:124] Setting up ip3
I0428 20:07:53.799584 31257 net.cpp:131] Top shape: 100 10 (1000)
I0428 20:07:53.799587 31257 net.cpp:139] Memory required for data: 7866800
I0428 20:07:53.799594 31257 layer_factory.hpp:77] Creating layer relu3
I0428 20:07:53.799607 31257 net.cpp:86] Creating Layer relu3
I0428 20:07:53.799609 31257 net.cpp:408] relu3 <- ip3
I0428 20:07:53.799624 31257 net.cpp:369] relu3 -> ip3 (in-place)
I0428 20:07:53.800492 31257 net.cpp:124] Setting up relu3
I0428 20:07:53.800520 31257 net.cpp:131] Top shape: 100 10 (1000)
I0428 20:07:53.800528 31257 net.cpp:139] Memory required for data: 7870800
I0428 20:07:53.800534 31257 layer_factory.hpp:77] Creating layer ip3_relu3_0_split
I0428 20:07:53.800539 31257 net.cpp:86] Creating Layer ip3_relu3_0_split
I0428 20:07:53.800542 31257 net.cpp:408] ip3_relu3_0_split <- ip3
I0428 20:07:53.800550 31257 net.cpp:382] ip3_relu3_0_split -> ip3_relu3_0_split_0
I0428 20:07:53.800560 31257 net.cpp:382] ip3_relu3_0_split -> ip3_relu3_0_split_1
I0428 20:07:53.800603 31257 net.cpp:124] Setting up ip3_relu3_0_split
I0428 20:07:53.800613 31257 net.cpp:131] Top shape: 100 10 (1000)
I0428 20:07:53.800617 31257 net.cpp:131] Top shape: 100 10 (1000)
I0428 20:07:53.800621 31257 net.cpp:139] Memory required for data: 7878800
I0428 20:07:53.800624 31257 layer_factory.hpp:77] Creating layer accuracy
I0428 20:07:53.800629 31257 net.cpp:86] Creating Layer accuracy
I0428 20:07:53.800633 31257 net.cpp:408] accuracy <- ip3_relu3_0_split_0
I0428 20:07:53.800638 31257 net.cpp:408] accuracy <- label_mnist_1_split_0
I0428 20:07:53.800649 31257 net.cpp:382] accuracy -> accuracy
…
