…
I0428 19:56:55.341778 28550 net.cpp:296] The NetState phase (0) differed from the phase (1) specified by a rule in layer mnist
I0428 19:56:55.341809 28550 net.cpp:296] The NetState phase (0) differed from the phase (1) specified by a rule in layer accuracy
I0428 19:56:55.341888 28550 net.cpp:53] Initializing net from parameters: 
name: "LeNet"
state {
  phase: TRAIN
  level: 0
  stage: ""
}
layer {
  name: "mnist"
  type: "Data"
  top: "data"
  top: "label"
  include {
    phase: TRAIN
  }
  transform_param {
    scale: 0.00390625
  }
  data_param {
    source: "examples/mnist/mnist_train_lmdb"
    batch_size: 64
    backend: LMDB
  }
}
layer {
  name: "conv0"
  type: "Convolution"
  bottom: "data"
  top: "conv0"
  param {
    lr_mult: 1
  }
  param {
    lr_mult: 2
  }
  convolution_param {
    num_output: 10
    kernel_size: 5
    stride: 1
    weight_filler {
      type: "xavier"
    }
    bias_filler {
      type: "constant"
    }
  }
}
layer {
  name: "pool0"
  type: "Pooling"
  bottom: "conv0"
  top: "pool0"
  pooling_param {
    pool: MAX
    kernel_size: 2
    stride: 2
  }
}
layer {
  name: "conv1"
  type: "Convolution"
  bottom: "pool0"
  top: "conv1"
  param {
    lr_mult: 1
  }
  param {
    lr_mult: 2
  }
  convolution_param {
    num_output: 2
    kernel_size: 5
    stride: 1
    weight_filler {
      type: "xavier"
    }
    bias_filler {
      type: "constant"
    }
  }
}
layer {
  name: "pool1"
  type: "Pooling"
  bottom: "conv1"
  top: "pool1"
  pooling_param {
    pool: MAX
    kernel_size: 2
    stride: 2
  }
}
layer {
  name: "ip1"
  type: "InnerProduct"
  bottom: "pool1"
  top: "ip1"
  param {
    lr_mult: 1
  }
  param {
    lr_mult: 2
  }
  inner_product_param {
    num_output: 50
    weight_filler {
      type: "xavier"
    }
    bias_filler {
      type: "constant"
    }
  }
}
layer {
  name: "relu1"
  type: "ReLU"
  bottom: "ip1"
  top: "ip1"
}
layer {
  name: "ip2"
  type: "InnerProduct"
  bottom: "ip1"
  top: "ip2"
  param {
    lr_mult: 1
  }
  param {
    lr_mult: 2
  }
  inner_product_param {
    num_output: 10
    weight_filler {
      type: "xavier"
    }
    bias_filler {
      type: "constant"
    }
  }
}
layer {
  name: "relu2"
  type: "ReLU"
  bottom: "ip2"
  top: "ip2"
}
layer {
  name: "ip3"
  type: "InnerProduct"
  bottom: "ip2"
  top: "ip3"
  param {
    lr_mult: 1
  }
  param {
    lr_mult: 2
  }
  inner_product_param {
    num_output: 10
    weight_filler {
      type: "xavier"
    }
    bias_filler {
      type: "constant"
    }
  }
}
layer {
  name: "relu3"
  type: "ReLU"
  bottom: "ip3"
  top: "ip3"
}
layer {
  name: "loss"
  type: "SoftmaxWithLoss"
  bottom: "ip3"
  bottom: "label"
  top: "loss"
}
I0428 19:56:55.341948 28550 layer_factory.hpp:77] Creating layer mnist
I0428 19:56:55.342031 28550 db_lmdb.cpp:35] Opened lmdb examples/mnist/mnist_train_lmdb
I0428 19:56:55.342051 28550 net.cpp:86] Creating Layer mnist
I0428 19:56:55.342056 28550 net.cpp:382] mnist -> data
I0428 19:56:55.342075 28550 net.cpp:382] mnist -> label
I0428 19:56:55.343065 28550 data_layer.cpp:45] output data size: 64,1,28,28
I0428 19:56:55.345238 28550 net.cpp:124] Setting up mnist
I0428 19:56:55.345268 28550 net.cpp:131] Top shape: 64 1 28 28 (50176)
I0428 19:56:55.345273 28550 net.cpp:131] Top shape: 64 (64)
I0428 19:56:55.345276 28550 net.cpp:139] Memory required for data: 200960
I0428 19:56:55.345281 28550 layer_factory.hpp:77] Creating layer conv0
I0428 19:56:55.345294 28550 net.cpp:86] Creating Layer conv0
I0428 19:56:55.345310 28550 net.cpp:408] conv0 <- data
I0428 19:56:55.345320 28550 net.cpp:382] conv0 -> conv0
I0428 19:56:55.565985 28550 net.cpp:124] Setting up conv0
I0428 19:56:55.566012 28550 net.cpp:131] Top shape: 64 10 24 24 (368640)
I0428 19:56:55.566015 28550 net.cpp:139] Memory required for data: 1675520
I0428 19:56:55.566030 28550 layer_factory.hpp:77] Creating layer pool0
I0428 19:56:55.566041 28550 net.cpp:86] Creating Layer pool0
I0428 19:56:55.566045 28550 net.cpp:408] pool0 <- conv0
I0428 19:56:55.566049 28550 net.cpp:382] pool0 -> pool0
I0428 19:56:55.566108 28550 net.cpp:124] Setting up pool0
I0428 19:56:55.566114 28550 net.cpp:131] Top shape: 64 10 12 12 (92160)
I0428 19:56:55.566117 28550 net.cpp:139] Memory required for data: 2044160
I0428 19:56:55.566119 28550 layer_factory.hpp:77] Creating layer conv1
I0428 19:56:55.566130 28550 net.cpp:86] Creating Layer conv1
I0428 19:56:55.566133 28550 net.cpp:408] conv1 <- pool0
I0428 19:56:55.566138 28550 net.cpp:382] conv1 -> conv1
I0428 19:56:55.568094 28550 net.cpp:124] Setting up conv1
I0428 19:56:55.568125 28550 net.cpp:131] Top shape: 64 2 8 8 (8192)
I0428 19:56:55.568130 28550 net.cpp:139] Memory required for data: 2076928
I0428 19:56:55.568137 28550 layer_factory.hpp:77] Creating layer pool1
I0428 19:56:55.568145 28550 net.cpp:86] Creating Layer pool1
I0428 19:56:55.568150 28550 net.cpp:408] pool1 <- conv1
I0428 19:56:55.568155 28550 net.cpp:382] pool1 -> pool1
I0428 19:56:55.568192 28550 net.cpp:124] Setting up pool1
I0428 19:56:55.568197 28550 net.cpp:131] Top shape: 64 2 4 4 (2048)
I0428 19:56:55.568214 28550 net.cpp:139] Memory required for data: 2085120
I0428 19:56:55.568217 28550 layer_factory.hpp:77] Creating layer ip1
I0428 19:56:55.568224 28550 net.cpp:86] Creating Layer ip1
I0428 19:56:55.568228 28550 net.cpp:408] ip1 <- pool1
I0428 19:56:55.568231 28550 net.cpp:382] ip1 -> ip1
I0428 19:56:55.569195 28550 net.cpp:124] Setting up ip1
I0428 19:56:55.569208 28550 net.cpp:131] Top shape: 64 50 (3200)
I0428 19:56:55.569227 28550 net.cpp:139] Memory required for data: 2097920
I0428 19:56:55.569236 28550 layer_factory.hpp:77] Creating layer relu1
I0428 19:56:55.569242 28550 net.cpp:86] Creating Layer relu1
I0428 19:56:55.569245 28550 net.cpp:408] relu1 <- ip1
I0428 19:56:55.569249 28550 net.cpp:369] relu1 -> ip1 (in-place)
I0428 19:56:55.569418 28550 net.cpp:124] Setting up relu1
I0428 19:56:55.569427 28550 net.cpp:131] Top shape: 64 50 (3200)
I0428 19:56:55.569430 28550 net.cpp:139] Memory required for data: 2110720
I0428 19:56:55.569433 28550 layer_factory.hpp:77] Creating layer ip2
I0428 19:56:55.569439 28550 net.cpp:86] Creating Layer ip2
I0428 19:56:55.569442 28550 net.cpp:408] ip2 <- ip1
I0428 19:56:55.569447 28550 net.cpp:382] ip2 -> ip2
I0428 19:56:55.569548 28550 net.cpp:124] Setting up ip2
I0428 19:56:55.569556 28550 net.cpp:131] Top shape: 64 10 (640)
I0428 19:56:55.569560 28550 net.cpp:139] Memory required for data: 2113280
I0428 19:56:55.569566 28550 layer_factory.hpp:77] Creating layer relu2
I0428 19:56:55.569571 28550 net.cpp:86] Creating Layer relu2
I0428 19:56:55.569574 28550 net.cpp:408] relu2 <- ip2
I0428 19:56:55.569578 28550 net.cpp:369] relu2 -> ip2 (in-place)
I0428 19:56:55.570327 28550 net.cpp:124] Setting up relu2
I0428 19:56:55.570339 28550 net.cpp:131] Top shape: 64 10 (640)
I0428 19:56:55.570358 28550 net.cpp:139] Memory required for data: 2115840
I0428 19:56:55.570363 28550 layer_factory.hpp:77] Creating layer ip3
I0428 19:56:55.570369 28550 net.cpp:86] Creating Layer ip3
I0428 19:56:55.570372 28550 net.cpp:408] ip3 <- ip2
I0428 19:56:55.570377 28550 net.cpp:382] ip3 -> ip3
I0428 19:56:55.570472 28550 net.cpp:124] Setting up ip3
I0428 19:56:55.570479 28550 net.cpp:131] Top shape: 64 10 (640)
I0428 19:56:55.570482 28550 net.cpp:139] Memory required for data: 2118400
I0428 19:56:55.570490 28550 layer_factory.hpp:77] Creating layer relu3
I0428 19:56:55.570495 28550 net.cpp:86] Creating Layer relu3
I0428 19:56:55.570497 28550 net.cpp:408] relu3 <- ip3
I0428 19:56:55.570502 28550 net.cpp:369] relu3 -> ip3 (in-place)
I0428 19:56:55.570669 28550 net.cpp:124] Setting up relu3
I0428 19:56:55.570678 28550 net.cpp:131] Top shape: 64 10 (640)
I0428 19:56:55.570682 28550 net.cpp:139] Memory required for data: 2120960
I0428 19:56:55.570685 28550 layer_factory.hpp:77] Creating layer loss
I0428 19:56:55.570690 28550 net.cpp:86] Creating Layer loss
I0428 19:56:55.570693 28550 net.cpp:408] loss <- ip3
I0428 19:56:55.570698 28550 net.cpp:408] loss <- label
I0428 19:56:55.570703 28550 net.cpp:382] loss -> loss
I0428 19:56:55.570727 28550 layer_factory.hpp:77] Creating layer loss
…
I0428 19:56:55.571406 28550 solver.cpp:173] Creating test net (#0) specified by net file: ECE595/mnist/train_test/var_everything2/lenet_train_test773.prototxt
I0428 19:56:55.571449 28550 net.cpp:296] The NetState phase (1) differed from the phase (0) specified by a rule in layer mnist
I0428 19:56:55.571554 28550 net.cpp:53] Initializing net from parameters: 
name: "LeNet"
state {
  phase: TEST
}
layer {
  name: "mnist"
  type: "Data"
  top: "data"
  top: "label"
  include {
    phase: TEST
  }
  transform_param {
    scale: 0.00390625
  }
  data_param {
    source: "examples/mnist/mnist_test_lmdb"
    batch_size: 100
    backend: LMDB
  }
}
layer {
  name: "conv0"
  type: "Convolution"
  bottom: "data"
  top: "conv0"
  param {
    lr_mult: 1
  }
  param {
    lr_mult: 2
  }
  convolution_param {
    num_output: 10
    kernel_size: 5
    stride: 1
    weight_filler {
      type: "xavier"
    }
    bias_filler {
      type: "constant"
    }
  }
}
layer {
  name: "pool0"
  type: "Pooling"
  bottom: "conv0"
  top: "pool0"
  pooling_param {
    pool: MAX
    kernel_size: 2
    stride: 2
  }
}
layer {
  name: "conv1"
  type: "Convolution"
  bottom: "pool0"
  top: "conv1"
  param {
    lr_mult: 1
  }
  param {
    lr_mult: 2
  }
  convolution_param {
    num_output: 2
    kernel_size: 5
    stride: 1
    weight_filler {
      type: "xavier"
    }
    bias_filler {
      type: "constant"
    }
  }
}
layer {
  name: "pool1"
  type: "Pooling"
  bottom: "conv1"
  top: "pool1"
  pooling_param {
    pool: MAX
    kernel_size: 2
    stride: 2
  }
}
layer {
  name: "ip1"
  type: "InnerProduct"
  bottom: "pool1"
  top: "ip1"
  param {
    lr_mult: 1
  }
  param {
    lr_mult: 2
  }
  inner_product_param {
    num_output: 50
    weight_filler {
      type: "xavier"
    }
    bias_filler {
      type: "constant"
    }
  }
}
layer {
  name: "relu1"
  type: "ReLU"
  bottom: "ip1"
  top: "ip1"
}
layer {
  name: "ip2"
  type: "InnerProduct"
  bottom: "ip1"
  top: "ip2"
  param {
    lr_mult: 1
  }
  param {
    lr_mult: 2
  }
  inner_product_param {
    num_output: 10
    weight_filler {
      type: "xavier"
    }
    bias_filler {
      type: "constant"
    }
  }
}
layer {
  name: "relu2"
  type: "ReLU"
  bottom: "ip2"
  top: "ip2"
}
layer {
  name: "ip3"
  type: "InnerProduct"
  bottom: "ip2"
  top: "ip3"
  param {
    lr_mult: 1
  }
  param {
    lr_mult: 2
  }
  inner_product_param {
    num_output: 10
    weight_filler {
      type: "xavier"
    }
    bias_filler {
      type: "constant"
    }
  }
}
layer {
  name: "relu3"
  type: "ReLU"
  bottom: "ip3"
  top: "ip3"
}
layer {
  name: "accuracy"
  type: "Accuracy"
  bottom: "ip3"
  bottom: "label"
  top: "accuracy"
  include {
    phase: TEST
  }
}
layer {
  name: "loss"
  type: "SoftmaxWithLoss"
  bottom: "ip3"
  bottom: "label"
  top: "loss"
}
I0428 19:56:55.571631 28550 layer_factory.hpp:77] Creating layer mnist
I0428 19:56:55.571681 28550 db_lmdb.cpp:35] Opened lmdb examples/mnist/mnist_test_lmdb
I0428 19:56:55.571692 28550 net.cpp:86] Creating Layer mnist
I0428 19:56:55.571697 28550 net.cpp:382] mnist -> data
I0428 19:56:55.571705 28550 net.cpp:382] mnist -> label
I0428 19:56:55.571787 28550 data_layer.cpp:45] output data size: 100,1,28,28
I0428 19:56:55.574035 28550 net.cpp:124] Setting up mnist
I0428 19:56:55.574064 28550 net.cpp:131] Top shape: 100 1 28 28 (78400)
I0428 19:56:55.574069 28550 net.cpp:131] Top shape: 100 (100)
I0428 19:56:55.574074 28550 net.cpp:139] Memory required for data: 314000
I0428 19:56:55.574077 28550 layer_factory.hpp:77] Creating layer label_mnist_1_split
I0428 19:56:55.574084 28550 net.cpp:86] Creating Layer label_mnist_1_split
I0428 19:56:55.574087 28550 net.cpp:408] label_mnist_1_split <- label
I0428 19:56:55.574092 28550 net.cpp:382] label_mnist_1_split -> label_mnist_1_split_0
I0428 19:56:55.574100 28550 net.cpp:382] label_mnist_1_split -> label_mnist_1_split_1
I0428 19:56:55.574165 28550 net.cpp:124] Setting up label_mnist_1_split
I0428 19:56:55.574172 28550 net.cpp:131] Top shape: 100 (100)
I0428 19:56:55.574174 28550 net.cpp:131] Top shape: 100 (100)
I0428 19:56:55.574177 28550 net.cpp:139] Memory required for data: 314800
I0428 19:56:55.574180 28550 layer_factory.hpp:77] Creating layer conv0
I0428 19:56:55.574199 28550 net.cpp:86] Creating Layer conv0
I0428 19:56:55.574203 28550 net.cpp:408] conv0 <- data
I0428 19:56:55.574206 28550 net.cpp:382] conv0 -> conv0
I0428 19:56:55.575987 28550 net.cpp:124] Setting up conv0
I0428 19:56:55.576011 28550 net.cpp:131] Top shape: 100 10 24 24 (576000)
I0428 19:56:55.576015 28550 net.cpp:139] Memory required for data: 2618800
I0428 19:56:55.576025 28550 layer_factory.hpp:77] Creating layer pool0
I0428 19:56:55.576030 28550 net.cpp:86] Creating Layer pool0
I0428 19:56:55.576050 28550 net.cpp:408] pool0 <- conv0
I0428 19:56:55.576055 28550 net.cpp:382] pool0 -> pool0
I0428 19:56:55.576091 28550 net.cpp:124] Setting up pool0
I0428 19:56:55.576097 28550 net.cpp:131] Top shape: 100 10 12 12 (144000)
I0428 19:56:55.576099 28550 net.cpp:139] Memory required for data: 3194800
I0428 19:56:55.576102 28550 layer_factory.hpp:77] Creating layer conv1
I0428 19:56:55.576110 28550 net.cpp:86] Creating Layer conv1
I0428 19:56:55.576113 28550 net.cpp:408] conv1 <- pool0
I0428 19:56:55.576118 28550 net.cpp:382] conv1 -> conv1
I0428 19:56:55.578552 28550 net.cpp:124] Setting up conv1
I0428 19:56:55.578567 28550 net.cpp:131] Top shape: 100 2 8 8 (12800)
I0428 19:56:55.578570 28550 net.cpp:139] Memory required for data: 3246000
I0428 19:56:55.578579 28550 layer_factory.hpp:77] Creating layer pool1
I0428 19:56:55.578585 28550 net.cpp:86] Creating Layer pool1
I0428 19:56:55.578605 28550 net.cpp:408] pool1 <- conv1
I0428 19:56:55.578610 28550 net.cpp:382] pool1 -> pool1
I0428 19:56:55.578667 28550 net.cpp:124] Setting up pool1
I0428 19:56:55.578673 28550 net.cpp:131] Top shape: 100 2 4 4 (3200)
I0428 19:56:55.578676 28550 net.cpp:139] Memory required for data: 3258800
I0428 19:56:55.578680 28550 layer_factory.hpp:77] Creating layer ip1
I0428 19:56:55.578686 28550 net.cpp:86] Creating Layer ip1
I0428 19:56:55.578689 28550 net.cpp:408] ip1 <- pool1
I0428 19:56:55.578694 28550 net.cpp:382] ip1 -> ip1
I0428 19:56:55.578861 28550 net.cpp:124] Setting up ip1
I0428 19:56:55.578871 28550 net.cpp:131] Top shape: 100 50 (5000)
I0428 19:56:55.578883 28550 net.cpp:139] Memory required for data: 3278800
I0428 19:56:55.578891 28550 layer_factory.hpp:77] Creating layer relu1
I0428 19:56:55.578896 28550 net.cpp:86] Creating Layer relu1
I0428 19:56:55.578900 28550 net.cpp:408] relu1 <- ip1
I0428 19:56:55.578905 28550 net.cpp:369] relu1 -> ip1 (in-place)
I0428 19:56:55.579097 28550 net.cpp:124] Setting up relu1
I0428 19:56:55.579105 28550 net.cpp:131] Top shape: 100 50 (5000)
I0428 19:56:55.579108 28550 net.cpp:139] Memory required for data: 3298800
I0428 19:56:55.579111 28550 layer_factory.hpp:77] Creating layer ip2
I0428 19:56:55.579118 28550 net.cpp:86] Creating Layer ip2
I0428 19:56:55.579128 28550 net.cpp:408] ip2 <- ip1
I0428 19:56:55.579133 28550 net.cpp:382] ip2 -> ip2
I0428 19:56:55.579227 28550 net.cpp:124] Setting up ip2
I0428 19:56:55.579234 28550 net.cpp:131] Top shape: 100 10 (1000)
I0428 19:56:55.579236 28550 net.cpp:139] Memory required for data: 3302800
I0428 19:56:55.579257 28550 layer_factory.hpp:77] Creating layer relu2
I0428 19:56:55.579262 28550 net.cpp:86] Creating Layer relu2
I0428 19:56:55.579264 28550 net.cpp:408] relu2 <- ip2
I0428 19:56:55.579267 28550 net.cpp:369] relu2 -> ip2 (in-place)
I0428 19:56:55.579412 28550 net.cpp:124] Setting up relu2
I0428 19:56:55.579419 28550 net.cpp:131] Top shape: 100 10 (1000)
I0428 19:56:55.579422 28550 net.cpp:139] Memory required for data: 3306800
I0428 19:56:55.579426 28550 layer_factory.hpp:77] Creating layer ip3
I0428 19:56:55.579445 28550 net.cpp:86] Creating Layer ip3
I0428 19:56:55.579448 28550 net.cpp:408] ip3 <- ip2
I0428 19:56:55.579453 28550 net.cpp:382] ip3 -> ip3
I0428 19:56:55.579560 28550 net.cpp:124] Setting up ip3
I0428 19:56:55.579567 28550 net.cpp:131] Top shape: 100 10 (1000)
I0428 19:56:55.579571 28550 net.cpp:139] Memory required for data: 3310800
I0428 19:56:55.579586 28550 layer_factory.hpp:77] Creating layer relu3
I0428 19:56:55.579591 28550 net.cpp:86] Creating Layer relu3
I0428 19:56:55.579593 28550 net.cpp:408] relu3 <- ip3
I0428 19:56:55.579597 28550 net.cpp:369] relu3 -> ip3 (in-place)
I0428 19:56:55.582592 28550 net.cpp:124] Setting up relu3
I0428 19:56:55.582605 28550 net.cpp:131] Top shape: 100 10 (1000)
I0428 19:56:55.582609 28550 net.cpp:139] Memory required for data: 3314800
I0428 19:56:55.582612 28550 layer_factory.hpp:77] Creating layer ip3_relu3_0_split
I0428 19:56:55.582617 28550 net.cpp:86] Creating Layer ip3_relu3_0_split
I0428 19:56:55.582622 28550 net.cpp:408] ip3_relu3_0_split <- ip3
I0428 19:56:55.582643 28550 net.cpp:382] ip3_relu3_0_split -> ip3_relu3_0_split_0
I0428 19:56:55.582648 28550 net.cpp:382] ip3_relu3_0_split -> ip3_relu3_0_split_1
I0428 19:56:55.582690 28550 net.cpp:124] Setting up ip3_relu3_0_split
I0428 19:56:55.582695 28550 net.cpp:131] Top shape: 100 10 (1000)
I0428 19:56:55.582698 28550 net.cpp:131] Top shape: 100 10 (1000)
I0428 19:56:55.582701 28550 net.cpp:139] Memory required for data: 3322800
I0428 19:56:55.582705 28550 layer_factory.hpp:77] Creating layer accuracy
I0428 19:56:55.582710 28550 net.cpp:86] Creating Layer accuracy
I0428 19:56:55.582712 28550 net.cpp:408] accuracy <- ip3_relu3_0_split_0
I0428 19:56:55.582716 28550 net.cpp:408] accuracy <- label_mnist_1_split_0
I0428 19:56:55.582720 28550 net.cpp:382] accuracy -> accuracy
…
