…
I0428 19:59:07.204774 29161 net.cpp:296] The NetState phase (0) differed from the phase (1) specified by a rule in layer mnist
I0428 19:59:07.204793 29161 net.cpp:296] The NetState phase (0) differed from the phase (1) specified by a rule in layer accuracy
I0428 19:59:07.204905 29161 net.cpp:53] Initializing net from parameters: 
name: "LeNet"
state {
  phase: TRAIN
  level: 0
  stage: ""
}
layer {
  name: "mnist"
  type: "Data"
  top: "data"
  top: "label"
  include {
    phase: TRAIN
  }
  transform_param {
    scale: 0.00390625
  }
  data_param {
    source: "examples/mnist/mnist_train_lmdb"
    batch_size: 64
    backend: LMDB
  }
}
layer {
  name: "conv0"
  type: "Convolution"
  bottom: "data"
  top: "conv0"
  param {
    lr_mult: 1
  }
  param {
    lr_mult: 2
  }
  convolution_param {
    num_output: 10
    kernel_size: 5
    stride: 1
    weight_filler {
      type: "xavier"
    }
    bias_filler {
      type: "constant"
    }
  }
}
layer {
  name: "pool0"
  type: "Pooling"
  bottom: "conv0"
  top: "pool0"
  pooling_param {
    pool: MAX
    kernel_size: 2
    stride: 2
  }
}
layer {
  name: "conv1"
  type: "Convolution"
  bottom: "pool0"
  top: "conv1"
  param {
    lr_mult: 1
  }
  param {
    lr_mult: 2
  }
  convolution_param {
    num_output: 10
    kernel_size: 5
    stride: 1
    weight_filler {
      type: "xavier"
    }
    bias_filler {
      type: "constant"
    }
  }
}
layer {
  name: "pool1"
  type: "Pooling"
  bottom: "conv1"
  top: "pool1"
  pooling_param {
    pool: MAX
    kernel_size: 2
    stride: 2
  }
}
layer {
  name: "ip1"
  type: "InnerProduct"
  bottom: "pool1"
  top: "ip1"
  param {
    lr_mult: 1
  }
  param {
    lr_mult: 2
  }
  inner_product_param {
    num_output: 10
    weight_filler {
      type: "xavier"
    }
    bias_filler {
      type: "constant"
    }
  }
}
layer {
  name: "relu1"
  type: "ReLU"
  bottom: "ip1"
  top: "ip1"
}
layer {
  name: "ip2"
  type: "InnerProduct"
  bottom: "ip1"
  top: "ip2"
  param {
    lr_mult: 1
  }
  param {
    lr_mult: 2
  }
  inner_product_param {
    num_output: 50
    weight_filler {
      type: "xavier"
    }
    bias_filler {
      type: "constant"
    }
  }
}
layer {
  name: "relu2"
  type: "ReLU"
  bottom: "ip2"
  top: "ip2"
}
layer {
  name: "ip3"
  type: "InnerProduct"
  bottom: "ip2"
  top: "ip3"
  param {
    lr_mult: 1
  }
  param {
    lr_mult: 2
  }
  inner_product_param {
    num_output: 10
    weight_filler {
      type: "xavier"
    }
    bias_filler {
      type: "constant"
    }
  }
}
layer {
  name: "relu3"
  type: "ReLU"
  bottom: "ip3"
  top: "ip3"
}
layer {
  name: "loss"
  type: "SoftmaxWithLoss"
  bottom: "ip3"
  bottom: "label"
  top: "loss"
}
I0428 19:59:07.204985 29161 layer_factory.hpp:77] Creating layer mnist
I0428 19:59:07.205087 29161 db_lmdb.cpp:35] Opened lmdb examples/mnist/mnist_train_lmdb
I0428 19:59:07.205111 29161 net.cpp:86] Creating Layer mnist
I0428 19:59:07.205119 29161 net.cpp:382] mnist -> data
I0428 19:59:07.205142 29161 net.cpp:382] mnist -> label
I0428 19:59:07.206248 29161 data_layer.cpp:45] output data size: 64,1,28,28
I0428 19:59:07.208678 29161 net.cpp:124] Setting up mnist
I0428 19:59:07.208695 29161 net.cpp:131] Top shape: 64 1 28 28 (50176)
I0428 19:59:07.208701 29161 net.cpp:131] Top shape: 64 (64)
I0428 19:59:07.208704 29161 net.cpp:139] Memory required for data: 200960
I0428 19:59:07.208712 29161 layer_factory.hpp:77] Creating layer conv0
I0428 19:59:07.208729 29161 net.cpp:86] Creating Layer conv0
I0428 19:59:07.208748 29161 net.cpp:408] conv0 <- data
I0428 19:59:07.208761 29161 net.cpp:382] conv0 -> conv0
I0428 19:59:07.484359 29161 net.cpp:124] Setting up conv0
I0428 19:59:07.484401 29161 net.cpp:131] Top shape: 64 10 24 24 (368640)
I0428 19:59:07.484406 29161 net.cpp:139] Memory required for data: 1675520
I0428 19:59:07.484421 29161 layer_factory.hpp:77] Creating layer pool0
I0428 19:59:07.484433 29161 net.cpp:86] Creating Layer pool0
I0428 19:59:07.484446 29161 net.cpp:408] pool0 <- conv0
I0428 19:59:07.484450 29161 net.cpp:382] pool0 -> pool0
I0428 19:59:07.484495 29161 net.cpp:124] Setting up pool0
I0428 19:59:07.484500 29161 net.cpp:131] Top shape: 64 10 12 12 (92160)
I0428 19:59:07.484503 29161 net.cpp:139] Memory required for data: 2044160
I0428 19:59:07.484506 29161 layer_factory.hpp:77] Creating layer conv1
I0428 19:59:07.484516 29161 net.cpp:86] Creating Layer conv1
I0428 19:59:07.484519 29161 net.cpp:408] conv1 <- pool0
I0428 19:59:07.484524 29161 net.cpp:382] conv1 -> conv1
I0428 19:59:07.487395 29161 net.cpp:124] Setting up conv1
I0428 19:59:07.487424 29161 net.cpp:131] Top shape: 64 10 8 8 (40960)
I0428 19:59:07.487428 29161 net.cpp:139] Memory required for data: 2208000
I0428 19:59:07.487437 29161 layer_factory.hpp:77] Creating layer pool1
I0428 19:59:07.487444 29161 net.cpp:86] Creating Layer pool1
I0428 19:59:07.487448 29161 net.cpp:408] pool1 <- conv1
I0428 19:59:07.487453 29161 net.cpp:382] pool1 -> pool1
I0428 19:59:07.487507 29161 net.cpp:124] Setting up pool1
I0428 19:59:07.487512 29161 net.cpp:131] Top shape: 64 10 4 4 (10240)
I0428 19:59:07.487515 29161 net.cpp:139] Memory required for data: 2248960
I0428 19:59:07.487519 29161 layer_factory.hpp:77] Creating layer ip1
I0428 19:59:07.487525 29161 net.cpp:86] Creating Layer ip1
I0428 19:59:07.487529 29161 net.cpp:408] ip1 <- pool1
I0428 19:59:07.487534 29161 net.cpp:382] ip1 -> ip1
I0428 19:59:07.487643 29161 net.cpp:124] Setting up ip1
I0428 19:59:07.487651 29161 net.cpp:131] Top shape: 64 10 (640)
I0428 19:59:07.487654 29161 net.cpp:139] Memory required for data: 2251520
I0428 19:59:07.487661 29161 layer_factory.hpp:77] Creating layer relu1
I0428 19:59:07.487668 29161 net.cpp:86] Creating Layer relu1
I0428 19:59:07.487671 29161 net.cpp:408] relu1 <- ip1
I0428 19:59:07.487675 29161 net.cpp:369] relu1 -> ip1 (in-place)
I0428 19:59:07.487855 29161 net.cpp:124] Setting up relu1
I0428 19:59:07.487864 29161 net.cpp:131] Top shape: 64 10 (640)
I0428 19:59:07.487867 29161 net.cpp:139] Memory required for data: 2254080
I0428 19:59:07.487870 29161 layer_factory.hpp:77] Creating layer ip2
I0428 19:59:07.487875 29161 net.cpp:86] Creating Layer ip2
I0428 19:59:07.487879 29161 net.cpp:408] ip2 <- ip1
I0428 19:59:07.487884 29161 net.cpp:382] ip2 -> ip2
I0428 19:59:07.487977 29161 net.cpp:124] Setting up ip2
I0428 19:59:07.487983 29161 net.cpp:131] Top shape: 64 50 (3200)
I0428 19:59:07.487987 29161 net.cpp:139] Memory required for data: 2266880
I0428 19:59:07.487992 29161 layer_factory.hpp:77] Creating layer relu2
I0428 19:59:07.487998 29161 net.cpp:86] Creating Layer relu2
I0428 19:59:07.488000 29161 net.cpp:408] relu2 <- ip2
I0428 19:59:07.488004 29161 net.cpp:369] relu2 -> ip2 (in-place)
I0428 19:59:07.488790 29161 net.cpp:124] Setting up relu2
I0428 19:59:07.488803 29161 net.cpp:131] Top shape: 64 50 (3200)
I0428 19:59:07.488827 29161 net.cpp:139] Memory required for data: 2279680
I0428 19:59:07.488847 29161 layer_factory.hpp:77] Creating layer ip3
I0428 19:59:07.488869 29161 net.cpp:86] Creating Layer ip3
I0428 19:59:07.488873 29161 net.cpp:408] ip3 <- ip2
I0428 19:59:07.488893 29161 net.cpp:382] ip3 -> ip3
I0428 19:59:07.488997 29161 net.cpp:124] Setting up ip3
I0428 19:59:07.489006 29161 net.cpp:131] Top shape: 64 10 (640)
I0428 19:59:07.489008 29161 net.cpp:139] Memory required for data: 2282240
I0428 19:59:07.489017 29161 layer_factory.hpp:77] Creating layer relu3
I0428 19:59:07.489022 29161 net.cpp:86] Creating Layer relu3
I0428 19:59:07.489025 29161 net.cpp:408] relu3 <- ip3
I0428 19:59:07.489029 29161 net.cpp:369] relu3 -> ip3 (in-place)
I0428 19:59:07.489230 29161 net.cpp:124] Setting up relu3
I0428 19:59:07.489238 29161 net.cpp:131] Top shape: 64 10 (640)
I0428 19:59:07.489243 29161 net.cpp:139] Memory required for data: 2284800
I0428 19:59:07.489245 29161 layer_factory.hpp:77] Creating layer loss
I0428 19:59:07.489250 29161 net.cpp:86] Creating Layer loss
I0428 19:59:07.489253 29161 net.cpp:408] loss <- ip3
I0428 19:59:07.489258 29161 net.cpp:408] loss <- label
I0428 19:59:07.489264 29161 net.cpp:382] loss -> loss
I0428 19:59:07.489277 29161 layer_factory.hpp:77] Creating layer loss
…
I0428 19:59:07.490010 29161 solver.cpp:173] Creating test net (#0) specified by net file: ECE595/mnist/train_test/var_everything2/lenet_train_test838.prototxt
I0428 19:59:07.490052 29161 net.cpp:296] The NetState phase (1) differed from the phase (0) specified by a rule in layer mnist
I0428 19:59:07.490162 29161 net.cpp:53] Initializing net from parameters: 
name: "LeNet"
state {
  phase: TEST
}
layer {
  name: "mnist"
  type: "Data"
  top: "data"
  top: "label"
  include {
    phase: TEST
  }
  transform_param {
    scale: 0.00390625
  }
  data_param {
    source: "examples/mnist/mnist_test_lmdb"
    batch_size: 100
    backend: LMDB
  }
}
layer {
  name: "conv0"
  type: "Convolution"
  bottom: "data"
  top: "conv0"
  param {
    lr_mult: 1
  }
  param {
    lr_mult: 2
  }
  convolution_param {
    num_output: 10
    kernel_size: 5
    stride: 1
    weight_filler {
      type: "xavier"
    }
    bias_filler {
      type: "constant"
    }
  }
}
layer {
  name: "pool0"
  type: "Pooling"
  bottom: "conv0"
  top: "pool0"
  pooling_param {
    pool: MAX
    kernel_size: 2
    stride: 2
  }
}
layer {
  name: "conv1"
  type: "Convolution"
  bottom: "pool0"
  top: "conv1"
  param {
    lr_mult: 1
  }
  param {
    lr_mult: 2
  }
  convolution_param {
    num_output: 10
    kernel_size: 5
    stride: 1
    weight_filler {
      type: "xavier"
    }
    bias_filler {
      type: "constant"
    }
  }
}
layer {
  name: "pool1"
  type: "Pooling"
  bottom: "conv1"
  top: "pool1"
  pooling_param {
    pool: MAX
    kernel_size: 2
    stride: 2
  }
}
layer {
  name: "ip1"
  type: "InnerProduct"
  bottom: "pool1"
  top: "ip1"
  param {
    lr_mult: 1
  }
  param {
    lr_mult: 2
  }
  inner_product_param {
    num_output: 10
    weight_filler {
      type: "xavier"
    }
    bias_filler {
      type: "constant"
    }
  }
}
layer {
  name: "relu1"
  type: "ReLU"
  bottom: "ip1"
  top: "ip1"
}
layer {
  name: "ip2"
  type: "InnerProduct"
  bottom: "ip1"
  top: "ip2"
  param {
    lr_mult: 1
  }
  param {
    lr_mult: 2
  }
  inner_product_param {
    num_output: 50
    weight_filler {
      type: "xavier"
    }
    bias_filler {
      type: "constant"
    }
  }
}
layer {
  name: "relu2"
  type: "ReLU"
  bottom: "ip2"
  top: "ip2"
}
layer {
  name: "ip3"
  type: "InnerProduct"
  bottom: "ip2"
  top: "ip3"
  param {
    lr_mult: 1
  }
  param {
    lr_mult: 2
  }
  inner_product_param {
    num_output: 10
    weight_filler {
      type: "xavier"
    }
    bias_filler {
      type: "constant"
    }
  }
}
layer {
  name: "relu3"
  type: "ReLU"
  bottom: "ip3"
  top: "ip3"
}
layer {
  name: "accuracy"
  type: "Accuracy"
  bottom: "ip3"
  bottom: "label"
  top: "accuracy"
  include {
    phase: TEST
  }
}
layer {
  name: "loss"
  type: "SoftmaxWithLoss"
  bottom: "ip3"
  bottom: "label"
  top: "loss"
}
I0428 19:59:07.490257 29161 layer_factory.hpp:77] Creating layer mnist
I0428 19:59:07.490300 29161 db_lmdb.cpp:35] Opened lmdb examples/mnist/mnist_test_lmdb
I0428 19:59:07.490314 29161 net.cpp:86] Creating Layer mnist
I0428 19:59:07.490319 29161 net.cpp:382] mnist -> data
I0428 19:59:07.490326 29161 net.cpp:382] mnist -> label
I0428 19:59:07.490413 29161 data_layer.cpp:45] output data size: 100,1,28,28
I0428 19:59:07.492683 29161 net.cpp:124] Setting up mnist
I0428 19:59:07.492712 29161 net.cpp:131] Top shape: 100 1 28 28 (78400)
I0428 19:59:07.492717 29161 net.cpp:131] Top shape: 100 (100)
I0428 19:59:07.492719 29161 net.cpp:139] Memory required for data: 314000
I0428 19:59:07.492722 29161 layer_factory.hpp:77] Creating layer label_mnist_1_split
I0428 19:59:07.492728 29161 net.cpp:86] Creating Layer label_mnist_1_split
I0428 19:59:07.492732 29161 net.cpp:408] label_mnist_1_split <- label
I0428 19:59:07.492765 29161 net.cpp:382] label_mnist_1_split -> label_mnist_1_split_0
I0428 19:59:07.492772 29161 net.cpp:382] label_mnist_1_split -> label_mnist_1_split_1
I0428 19:59:07.492838 29161 net.cpp:124] Setting up label_mnist_1_split
I0428 19:59:07.492846 29161 net.cpp:131] Top shape: 100 (100)
I0428 19:59:07.492849 29161 net.cpp:131] Top shape: 100 (100)
I0428 19:59:07.492852 29161 net.cpp:139] Memory required for data: 314800
I0428 19:59:07.492856 29161 layer_factory.hpp:77] Creating layer conv0
I0428 19:59:07.492864 29161 net.cpp:86] Creating Layer conv0
I0428 19:59:07.492867 29161 net.cpp:408] conv0 <- data
I0428 19:59:07.492887 29161 net.cpp:382] conv0 -> conv0
I0428 19:59:07.494683 29161 net.cpp:124] Setting up conv0
I0428 19:59:07.494696 29161 net.cpp:131] Top shape: 100 10 24 24 (576000)
I0428 19:59:07.494700 29161 net.cpp:139] Memory required for data: 2618800
I0428 19:59:07.494709 29161 layer_factory.hpp:77] Creating layer pool0
I0428 19:59:07.494714 29161 net.cpp:86] Creating Layer pool0
I0428 19:59:07.494717 29161 net.cpp:408] pool0 <- conv0
I0428 19:59:07.494724 29161 net.cpp:382] pool0 -> pool0
I0428 19:59:07.494758 29161 net.cpp:124] Setting up pool0
I0428 19:59:07.494762 29161 net.cpp:131] Top shape: 100 10 12 12 (144000)
I0428 19:59:07.494765 29161 net.cpp:139] Memory required for data: 3194800
I0428 19:59:07.494768 29161 layer_factory.hpp:77] Creating layer conv1
I0428 19:59:07.494778 29161 net.cpp:86] Creating Layer conv1
I0428 19:59:07.494781 29161 net.cpp:408] conv1 <- pool0
I0428 19:59:07.494786 29161 net.cpp:382] conv1 -> conv1
I0428 19:59:07.497040 29161 net.cpp:124] Setting up conv1
I0428 19:59:07.497057 29161 net.cpp:131] Top shape: 100 10 8 8 (64000)
I0428 19:59:07.497061 29161 net.cpp:139] Memory required for data: 3450800
I0428 19:59:07.497069 29161 layer_factory.hpp:77] Creating layer pool1
I0428 19:59:07.497077 29161 net.cpp:86] Creating Layer pool1
I0428 19:59:07.497097 29161 net.cpp:408] pool1 <- conv1
I0428 19:59:07.497107 29161 net.cpp:382] pool1 -> pool1
I0428 19:59:07.497180 29161 net.cpp:124] Setting up pool1
I0428 19:59:07.497193 29161 net.cpp:131] Top shape: 100 10 4 4 (16000)
I0428 19:59:07.497196 29161 net.cpp:139] Memory required for data: 3514800
I0428 19:59:07.497198 29161 layer_factory.hpp:77] Creating layer ip1
I0428 19:59:07.497205 29161 net.cpp:86] Creating Layer ip1
I0428 19:59:07.497210 29161 net.cpp:408] ip1 <- pool1
I0428 19:59:07.497213 29161 net.cpp:382] ip1 -> ip1
I0428 19:59:07.497357 29161 net.cpp:124] Setting up ip1
I0428 19:59:07.497365 29161 net.cpp:131] Top shape: 100 10 (1000)
I0428 19:59:07.497392 29161 net.cpp:139] Memory required for data: 3518800
I0428 19:59:07.497416 29161 layer_factory.hpp:77] Creating layer relu1
I0428 19:59:07.497421 29161 net.cpp:86] Creating Layer relu1
I0428 19:59:07.497423 29161 net.cpp:408] relu1 <- ip1
I0428 19:59:07.497429 29161 net.cpp:369] relu1 -> ip1 (in-place)
I0428 19:59:07.497668 29161 net.cpp:124] Setting up relu1
I0428 19:59:07.497678 29161 net.cpp:131] Top shape: 100 10 (1000)
I0428 19:59:07.497680 29161 net.cpp:139] Memory required for data: 3522800
I0428 19:59:07.497684 29161 layer_factory.hpp:77] Creating layer ip2
I0428 19:59:07.497691 29161 net.cpp:86] Creating Layer ip2
I0428 19:59:07.497694 29161 net.cpp:408] ip2 <- ip1
I0428 19:59:07.497700 29161 net.cpp:382] ip2 -> ip2
I0428 19:59:07.497807 29161 net.cpp:124] Setting up ip2
I0428 19:59:07.497815 29161 net.cpp:131] Top shape: 100 50 (5000)
I0428 19:59:07.497817 29161 net.cpp:139] Memory required for data: 3542800
I0428 19:59:07.497823 29161 layer_factory.hpp:77] Creating layer relu2
I0428 19:59:07.497828 29161 net.cpp:86] Creating Layer relu2
I0428 19:59:07.497830 29161 net.cpp:408] relu2 <- ip2
I0428 19:59:07.497834 29161 net.cpp:369] relu2 -> ip2 (in-place)
I0428 19:59:07.497983 29161 net.cpp:124] Setting up relu2
I0428 19:59:07.497992 29161 net.cpp:131] Top shape: 100 50 (5000)
I0428 19:59:07.498001 29161 net.cpp:139] Memory required for data: 3562800
I0428 19:59:07.498004 29161 layer_factory.hpp:77] Creating layer ip3
I0428 19:59:07.498009 29161 net.cpp:86] Creating Layer ip3
I0428 19:59:07.498018 29161 net.cpp:408] ip3 <- ip2
I0428 19:59:07.498023 29161 net.cpp:382] ip3 -> ip3
I0428 19:59:07.498164 29161 net.cpp:124] Setting up ip3
I0428 19:59:07.498188 29161 net.cpp:131] Top shape: 100 10 (1000)
I0428 19:59:07.498195 29161 net.cpp:139] Memory required for data: 3566800
I0428 19:59:07.498203 29161 layer_factory.hpp:77] Creating layer relu3
I0428 19:59:07.498209 29161 net.cpp:86] Creating Layer relu3
I0428 19:59:07.498219 29161 net.cpp:408] relu3 <- ip3
I0428 19:59:07.498222 29161 net.cpp:369] relu3 -> ip3 (in-place)
I0428 19:59:07.499114 29161 net.cpp:124] Setting up relu3
I0428 19:59:07.499125 29161 net.cpp:131] Top shape: 100 10 (1000)
I0428 19:59:07.499128 29161 net.cpp:139] Memory required for data: 3570800
I0428 19:59:07.499132 29161 layer_factory.hpp:77] Creating layer ip3_relu3_0_split
I0428 19:59:07.499136 29161 net.cpp:86] Creating Layer ip3_relu3_0_split
I0428 19:59:07.499140 29161 net.cpp:408] ip3_relu3_0_split <- ip3
I0428 19:59:07.499145 29161 net.cpp:382] ip3_relu3_0_split -> ip3_relu3_0_split_0
I0428 19:59:07.499151 29161 net.cpp:382] ip3_relu3_0_split -> ip3_relu3_0_split_1
I0428 19:59:07.499198 29161 net.cpp:124] Setting up ip3_relu3_0_split
I0428 19:59:07.499204 29161 net.cpp:131] Top shape: 100 10 (1000)
I0428 19:59:07.499208 29161 net.cpp:131] Top shape: 100 10 (1000)
I0428 19:59:07.499210 29161 net.cpp:139] Memory required for data: 3578800
I0428 19:59:07.499213 29161 layer_factory.hpp:77] Creating layer accuracy
I0428 19:59:07.499219 29161 net.cpp:86] Creating Layer accuracy
I0428 19:59:07.499222 29161 net.cpp:408] accuracy <- ip3_relu3_0_split_0
I0428 19:59:07.499228 29161 net.cpp:408] accuracy <- label_mnist_1_split_0
I0428 19:59:07.499231 29161 net.cpp:382] accuracy -> accuracy
…
