…
I0428 20:01:02.202595 29634 net.cpp:296] The NetState phase (0) differed from the phase (1) specified by a rule in layer mnist
I0428 20:01:02.202615 29634 net.cpp:296] The NetState phase (0) differed from the phase (1) specified by a rule in layer accuracy
I0428 20:01:02.202715 29634 net.cpp:53] Initializing net from parameters: 
name: "LeNet"
state {
  phase: TRAIN
  level: 0
  stage: ""
}
layer {
  name: "mnist"
  type: "Data"
  top: "data"
  top: "label"
  include {
    phase: TRAIN
  }
  transform_param {
    scale: 0.00390625
  }
  data_param {
    source: "examples/mnist/mnist_train_lmdb"
    batch_size: 64
    backend: LMDB
  }
}
layer {
  name: "conv0"
  type: "Convolution"
  bottom: "data"
  top: "conv0"
  param {
    lr_mult: 1
  }
  param {
    lr_mult: 2
  }
  convolution_param {
    num_output: 10
    kernel_size: 5
    stride: 1
    weight_filler {
      type: "xavier"
    }
    bias_filler {
      type: "constant"
    }
  }
}
layer {
  name: "pool0"
  type: "Pooling"
  bottom: "conv0"
  top: "pool0"
  pooling_param {
    pool: MAX
    kernel_size: 2
    stride: 2
  }
}
layer {
  name: "conv1"
  type: "Convolution"
  bottom: "pool0"
  top: "conv1"
  param {
    lr_mult: 1
  }
  param {
    lr_mult: 2
  }
  convolution_param {
    num_output: 25
    kernel_size: 5
    stride: 1
    weight_filler {
      type: "xavier"
    }
    bias_filler {
      type: "constant"
    }
  }
}
layer {
  name: "pool1"
  type: "Pooling"
  bottom: "conv1"
  top: "pool1"
  pooling_param {
    pool: MAX
    kernel_size: 2
    stride: 2
  }
}
layer {
  name: "ip1"
  type: "InnerProduct"
  bottom: "pool1"
  top: "ip1"
  param {
    lr_mult: 1
  }
  param {
    lr_mult: 2
  }
  inner_product_param {
    num_output: 50
    weight_filler {
      type: "xavier"
    }
    bias_filler {
      type: "constant"
    }
  }
}
layer {
  name: "relu1"
  type: "ReLU"
  bottom: "ip1"
  top: "ip1"
}
layer {
  name: "ip2"
  type: "InnerProduct"
  bottom: "ip1"
  top: "ip2"
  param {
    lr_mult: 1
  }
  param {
    lr_mult: 2
  }
  inner_product_param {
    num_output: 25
    weight_filler {
      type: "xavier"
    }
    bias_filler {
      type: "constant"
    }
  }
}
layer {
  name: "relu2"
  type: "ReLU"
  bottom: "ip2"
  top: "ip2"
}
layer {
  name: "ip3"
  type: "InnerProduct"
  bottom: "ip2"
  top: "ip3"
  param {
    lr_mult: 1
  }
  param {
    lr_mult: 2
  }
  inner_product_param {
    num_output: 10
    weight_filler {
      type: "xavier"
    }
    bias_filler {
      type: "constant"
    }
  }
}
layer {
  name: "relu3"
  type: "ReLU"
  bottom: "ip3"
  top: "ip3"
}
layer {
  name: "loss"
  type: "SoftmaxWithLoss"
  bottom: "ip3"
  bottom: "label"
  top: "loss"
}
I0428 20:01:02.202795 29634 layer_factory.hpp:77] Creating layer mnist
I0428 20:01:02.202894 29634 db_lmdb.cpp:35] Opened lmdb examples/mnist/mnist_train_lmdb
I0428 20:01:02.202917 29634 net.cpp:86] Creating Layer mnist
I0428 20:01:02.202924 29634 net.cpp:382] mnist -> data
I0428 20:01:02.202949 29634 net.cpp:382] mnist -> label
I0428 20:01:02.204062 29634 data_layer.cpp:45] output data size: 64,1,28,28
I0428 20:01:02.206568 29634 net.cpp:124] Setting up mnist
I0428 20:01:02.206589 29634 net.cpp:131] Top shape: 64 1 28 28 (50176)
I0428 20:01:02.206595 29634 net.cpp:131] Top shape: 64 (64)
I0428 20:01:02.206598 29634 net.cpp:139] Memory required for data: 200960
I0428 20:01:02.206605 29634 layer_factory.hpp:77] Creating layer conv0
I0428 20:01:02.206624 29634 net.cpp:86] Creating Layer conv0
I0428 20:01:02.206657 29634 net.cpp:408] conv0 <- data
I0428 20:01:02.206670 29634 net.cpp:382] conv0 -> conv0
I0428 20:01:02.494951 29634 net.cpp:124] Setting up conv0
I0428 20:01:02.494977 29634 net.cpp:131] Top shape: 64 10 24 24 (368640)
I0428 20:01:02.494982 29634 net.cpp:139] Memory required for data: 1675520
I0428 20:01:02.494997 29634 layer_factory.hpp:77] Creating layer pool0
I0428 20:01:02.495009 29634 net.cpp:86] Creating Layer pool0
I0428 20:01:02.495013 29634 net.cpp:408] pool0 <- conv0
I0428 20:01:02.495018 29634 net.cpp:382] pool0 -> pool0
I0428 20:01:02.495081 29634 net.cpp:124] Setting up pool0
I0428 20:01:02.495086 29634 net.cpp:131] Top shape: 64 10 12 12 (92160)
I0428 20:01:02.495090 29634 net.cpp:139] Memory required for data: 2044160
I0428 20:01:02.495092 29634 layer_factory.hpp:77] Creating layer conv1
I0428 20:01:02.495103 29634 net.cpp:86] Creating Layer conv1
I0428 20:01:02.495106 29634 net.cpp:408] conv1 <- pool0
I0428 20:01:02.495111 29634 net.cpp:382] conv1 -> conv1
I0428 20:01:02.497864 29634 net.cpp:124] Setting up conv1
I0428 20:01:02.497895 29634 net.cpp:131] Top shape: 64 25 8 8 (102400)
I0428 20:01:02.497898 29634 net.cpp:139] Memory required for data: 2453760
I0428 20:01:02.497907 29634 layer_factory.hpp:77] Creating layer pool1
I0428 20:01:02.497915 29634 net.cpp:86] Creating Layer pool1
I0428 20:01:02.497933 29634 net.cpp:408] pool1 <- conv1
I0428 20:01:02.497938 29634 net.cpp:382] pool1 -> pool1
I0428 20:01:02.497977 29634 net.cpp:124] Setting up pool1
I0428 20:01:02.497982 29634 net.cpp:131] Top shape: 64 25 4 4 (25600)
I0428 20:01:02.497985 29634 net.cpp:139] Memory required for data: 2556160
I0428 20:01:02.497988 29634 layer_factory.hpp:77] Creating layer ip1
I0428 20:01:02.498000 29634 net.cpp:86] Creating Layer ip1
I0428 20:01:02.498003 29634 net.cpp:408] ip1 <- pool1
I0428 20:01:02.498008 29634 net.cpp:382] ip1 -> ip1
I0428 20:01:02.498224 29634 net.cpp:124] Setting up ip1
I0428 20:01:02.498232 29634 net.cpp:131] Top shape: 64 50 (3200)
I0428 20:01:02.498235 29634 net.cpp:139] Memory required for data: 2568960
I0428 20:01:02.498242 29634 layer_factory.hpp:77] Creating layer relu1
I0428 20:01:02.498262 29634 net.cpp:86] Creating Layer relu1
I0428 20:01:02.498265 29634 net.cpp:408] relu1 <- ip1
I0428 20:01:02.498268 29634 net.cpp:369] relu1 -> ip1 (in-place)
I0428 20:01:02.498419 29634 net.cpp:124] Setting up relu1
I0428 20:01:02.498427 29634 net.cpp:131] Top shape: 64 50 (3200)
I0428 20:01:02.498430 29634 net.cpp:139] Memory required for data: 2581760
I0428 20:01:02.498433 29634 layer_factory.hpp:77] Creating layer ip2
I0428 20:01:02.498440 29634 net.cpp:86] Creating Layer ip2
I0428 20:01:02.498442 29634 net.cpp:408] ip2 <- ip1
I0428 20:01:02.498446 29634 net.cpp:382] ip2 -> ip2
I0428 20:01:02.499420 29634 net.cpp:124] Setting up ip2
I0428 20:01:02.499433 29634 net.cpp:131] Top shape: 64 25 (1600)
I0428 20:01:02.499451 29634 net.cpp:139] Memory required for data: 2588160
I0428 20:01:02.499457 29634 layer_factory.hpp:77] Creating layer relu2
I0428 20:01:02.499464 29634 net.cpp:86] Creating Layer relu2
I0428 20:01:02.499469 29634 net.cpp:408] relu2 <- ip2
I0428 20:01:02.499472 29634 net.cpp:369] relu2 -> ip2 (in-place)
I0428 20:01:02.500180 29634 net.cpp:124] Setting up relu2
I0428 20:01:02.500222 29634 net.cpp:131] Top shape: 64 25 (1600)
I0428 20:01:02.500226 29634 net.cpp:139] Memory required for data: 2594560
I0428 20:01:02.500229 29634 layer_factory.hpp:77] Creating layer ip3
I0428 20:01:02.500236 29634 net.cpp:86] Creating Layer ip3
I0428 20:01:02.500239 29634 net.cpp:408] ip3 <- ip2
I0428 20:01:02.500246 29634 net.cpp:382] ip3 -> ip3
I0428 20:01:02.500356 29634 net.cpp:124] Setting up ip3
I0428 20:01:02.500368 29634 net.cpp:131] Top shape: 64 10 (640)
I0428 20:01:02.500373 29634 net.cpp:139] Memory required for data: 2597120
I0428 20:01:02.500383 29634 layer_factory.hpp:77] Creating layer relu3
I0428 20:01:02.500388 29634 net.cpp:86] Creating Layer relu3
I0428 20:01:02.500391 29634 net.cpp:408] relu3 <- ip3
I0428 20:01:02.500396 29634 net.cpp:369] relu3 -> ip3 (in-place)
I0428 20:01:02.500591 29634 net.cpp:124] Setting up relu3
I0428 20:01:02.500600 29634 net.cpp:131] Top shape: 64 10 (640)
I0428 20:01:02.500603 29634 net.cpp:139] Memory required for data: 2599680
I0428 20:01:02.500607 29634 layer_factory.hpp:77] Creating layer loss
I0428 20:01:02.500612 29634 net.cpp:86] Creating Layer loss
I0428 20:01:02.500615 29634 net.cpp:408] loss <- ip3
I0428 20:01:02.500619 29634 net.cpp:408] loss <- label
I0428 20:01:02.500624 29634 net.cpp:382] loss -> loss
I0428 20:01:02.500641 29634 layer_factory.hpp:77] Creating layer loss
…
I0428 20:01:02.501437 29634 solver.cpp:173] Creating test net (#0) specified by net file: ECE595/mnist/train_test/var_everything2/lenet_train_test892.prototxt
I0428 20:01:02.501480 29634 net.cpp:296] The NetState phase (1) differed from the phase (0) specified by a rule in layer mnist
I0428 20:01:02.501596 29634 net.cpp:53] Initializing net from parameters: 
name: "LeNet"
state {
  phase: TEST
}
layer {
  name: "mnist"
  type: "Data"
  top: "data"
  top: "label"
  include {
    phase: TEST
  }
  transform_param {
    scale: 0.00390625
  }
  data_param {
    source: "examples/mnist/mnist_test_lmdb"
    batch_size: 100
    backend: LMDB
  }
}
layer {
  name: "conv0"
  type: "Convolution"
  bottom: "data"
  top: "conv0"
  param {
    lr_mult: 1
  }
  param {
    lr_mult: 2
  }
  convolution_param {
    num_output: 10
    kernel_size: 5
    stride: 1
    weight_filler {
      type: "xavier"
    }
    bias_filler {
      type: "constant"
    }
  }
}
layer {
  name: "pool0"
  type: "Pooling"
  bottom: "conv0"
  top: "pool0"
  pooling_param {
    pool: MAX
    kernel_size: 2
    stride: 2
  }
}
layer {
  name: "conv1"
  type: "Convolution"
  bottom: "pool0"
  top: "conv1"
  param {
    lr_mult: 1
  }
  param {
    lr_mult: 2
  }
  convolution_param {
    num_output: 25
    kernel_size: 5
    stride: 1
    weight_filler {
      type: "xavier"
    }
    bias_filler {
      type: "constant"
    }
  }
}
layer {
  name: "pool1"
  type: "Pooling"
  bottom: "conv1"
  top: "pool1"
  pooling_param {
    pool: MAX
    kernel_size: 2
    stride: 2
  }
}
layer {
  name: "ip1"
  type: "InnerProduct"
  bottom: "pool1"
  top: "ip1"
  param {
    lr_mult: 1
  }
  param {
    lr_mult: 2
  }
  inner_product_param {
    num_output: 50
    weight_filler {
      type: "xavier"
    }
    bias_filler {
      type: "constant"
    }
  }
}
layer {
  name: "relu1"
  type: "ReLU"
  bottom: "ip1"
  top: "ip1"
}
layer {
  name: "ip2"
  type: "InnerProduct"
  bottom: "ip1"
  top: "ip2"
  param {
    lr_mult: 1
  }
  param {
    lr_mult: 2
  }
  inner_product_param {
    num_output: 25
    weight_filler {
      type: "xavier"
    }
    bias_filler {
      type: "constant"
    }
  }
}
layer {
  name: "relu2"
  type: "ReLU"
  bottom: "ip2"
  top: "ip2"
}
layer {
  name: "ip3"
  type: "InnerProduct"
  bottom: "ip2"
  top: "ip3"
  param {
    lr_mult: 1
  }
  param {
    lr_mult: 2
  }
  inner_product_param {
    num_output: 10
    weight_filler {
      type: "xavier"
    }
    bias_filler {
      type: "constant"
    }
  }
}
layer {
  name: "relu3"
  type: "ReLU"
  bottom: "ip3"
  top: "ip3"
}
layer {
  name: "accuracy"
  type: "Accuracy"
  bottom: "ip3"
  bottom: "label"
  top: "accuracy"
  include {
    phase: TEST
  }
}
layer {
  name: "loss"
  type: "SoftmaxWithLoss"
  bottom: "ip3"
  bottom: "label"
  top: "loss"
}
I0428 20:01:02.501672 29634 layer_factory.hpp:77] Creating layer mnist
I0428 20:01:02.501714 29634 db_lmdb.cpp:35] Opened lmdb examples/mnist/mnist_test_lmdb
I0428 20:01:02.501726 29634 net.cpp:86] Creating Layer mnist
I0428 20:01:02.501730 29634 net.cpp:382] mnist -> data
I0428 20:01:02.501737 29634 net.cpp:382] mnist -> label
I0428 20:01:02.501833 29634 data_layer.cpp:45] output data size: 100,1,28,28
I0428 20:01:02.503873 29634 net.cpp:124] Setting up mnist
I0428 20:01:02.503885 29634 net.cpp:131] Top shape: 100 1 28 28 (78400)
I0428 20:01:02.503906 29634 net.cpp:131] Top shape: 100 (100)
I0428 20:01:02.503909 29634 net.cpp:139] Memory required for data: 314000
I0428 20:01:02.503912 29634 layer_factory.hpp:77] Creating layer label_mnist_1_split
I0428 20:01:02.503923 29634 net.cpp:86] Creating Layer label_mnist_1_split
I0428 20:01:02.503929 29634 net.cpp:408] label_mnist_1_split <- label
I0428 20:01:02.503934 29634 net.cpp:382] label_mnist_1_split -> label_mnist_1_split_0
I0428 20:01:02.503942 29634 net.cpp:382] label_mnist_1_split -> label_mnist_1_split_1
I0428 20:01:02.503998 29634 net.cpp:124] Setting up label_mnist_1_split
I0428 20:01:02.504004 29634 net.cpp:131] Top shape: 100 (100)
I0428 20:01:02.504009 29634 net.cpp:131] Top shape: 100 (100)
I0428 20:01:02.504011 29634 net.cpp:139] Memory required for data: 314800
I0428 20:01:02.504029 29634 layer_factory.hpp:77] Creating layer conv0
I0428 20:01:02.504039 29634 net.cpp:86] Creating Layer conv0
I0428 20:01:02.504041 29634 net.cpp:408] conv0 <- data
I0428 20:01:02.504047 29634 net.cpp:382] conv0 -> conv0
I0428 20:01:02.505771 29634 net.cpp:124] Setting up conv0
I0428 20:01:02.505800 29634 net.cpp:131] Top shape: 100 10 24 24 (576000)
I0428 20:01:02.505805 29634 net.cpp:139] Memory required for data: 2618800
I0428 20:01:02.505813 29634 layer_factory.hpp:77] Creating layer pool0
I0428 20:01:02.505820 29634 net.cpp:86] Creating Layer pool0
I0428 20:01:02.505823 29634 net.cpp:408] pool0 <- conv0
I0428 20:01:02.505828 29634 net.cpp:382] pool0 -> pool0
I0428 20:01:02.505863 29634 net.cpp:124] Setting up pool0
I0428 20:01:02.505868 29634 net.cpp:131] Top shape: 100 10 12 12 (144000)
I0428 20:01:02.505872 29634 net.cpp:139] Memory required for data: 3194800
I0428 20:01:02.505874 29634 layer_factory.hpp:77] Creating layer conv1
I0428 20:01:02.505897 29634 net.cpp:86] Creating Layer conv1
I0428 20:01:02.505899 29634 net.cpp:408] conv1 <- pool0
I0428 20:01:02.505904 29634 net.cpp:382] conv1 -> conv1
I0428 20:01:02.508076 29634 net.cpp:124] Setting up conv1
I0428 20:01:02.508103 29634 net.cpp:131] Top shape: 100 25 8 8 (160000)
I0428 20:01:02.508123 29634 net.cpp:139] Memory required for data: 3834800
I0428 20:01:02.508131 29634 layer_factory.hpp:77] Creating layer pool1
I0428 20:01:02.508137 29634 net.cpp:86] Creating Layer pool1
I0428 20:01:02.508141 29634 net.cpp:408] pool1 <- conv1
I0428 20:01:02.508146 29634 net.cpp:382] pool1 -> pool1
I0428 20:01:02.508218 29634 net.cpp:124] Setting up pool1
I0428 20:01:02.508230 29634 net.cpp:131] Top shape: 100 25 4 4 (40000)
I0428 20:01:02.508234 29634 net.cpp:139] Memory required for data: 3994800
I0428 20:01:02.508239 29634 layer_factory.hpp:77] Creating layer ip1
I0428 20:01:02.508245 29634 net.cpp:86] Creating Layer ip1
I0428 20:01:02.508249 29634 net.cpp:408] ip1 <- pool1
I0428 20:01:02.508254 29634 net.cpp:382] ip1 -> ip1
I0428 20:01:02.508476 29634 net.cpp:124] Setting up ip1
I0428 20:01:02.508486 29634 net.cpp:131] Top shape: 100 50 (5000)
I0428 20:01:02.508498 29634 net.cpp:139] Memory required for data: 4014800
I0428 20:01:02.508507 29634 layer_factory.hpp:77] Creating layer relu1
I0428 20:01:02.508512 29634 net.cpp:86] Creating Layer relu1
I0428 20:01:02.508515 29634 net.cpp:408] relu1 <- ip1
I0428 20:01:02.508519 29634 net.cpp:369] relu1 -> ip1 (in-place)
I0428 20:01:02.508714 29634 net.cpp:124] Setting up relu1
I0428 20:01:02.508723 29634 net.cpp:131] Top shape: 100 50 (5000)
I0428 20:01:02.508726 29634 net.cpp:139] Memory required for data: 4034800
I0428 20:01:02.508729 29634 layer_factory.hpp:77] Creating layer ip2
I0428 20:01:02.508735 29634 net.cpp:86] Creating Layer ip2
I0428 20:01:02.508738 29634 net.cpp:408] ip2 <- ip1
I0428 20:01:02.508744 29634 net.cpp:382] ip2 -> ip2
I0428 20:01:02.508911 29634 net.cpp:124] Setting up ip2
I0428 20:01:02.508920 29634 net.cpp:131] Top shape: 100 25 (2500)
I0428 20:01:02.508940 29634 net.cpp:139] Memory required for data: 4044800
I0428 20:01:02.508946 29634 layer_factory.hpp:77] Creating layer relu2
I0428 20:01:02.508951 29634 net.cpp:86] Creating Layer relu2
I0428 20:01:02.508956 29634 net.cpp:408] relu2 <- ip2
I0428 20:01:02.508961 29634 net.cpp:369] relu2 -> ip2 (in-place)
I0428 20:01:02.509119 29634 net.cpp:124] Setting up relu2
I0428 20:01:02.509129 29634 net.cpp:131] Top shape: 100 25 (2500)
I0428 20:01:02.509132 29634 net.cpp:139] Memory required for data: 4054800
I0428 20:01:02.509135 29634 layer_factory.hpp:77] Creating layer ip3
I0428 20:01:02.509140 29634 net.cpp:86] Creating Layer ip3
I0428 20:01:02.509145 29634 net.cpp:408] ip3 <- ip2
I0428 20:01:02.509165 29634 net.cpp:382] ip3 -> ip3
I0428 20:01:02.509333 29634 net.cpp:124] Setting up ip3
I0428 20:01:02.509341 29634 net.cpp:131] Top shape: 100 10 (1000)
I0428 20:01:02.509344 29634 net.cpp:139] Memory required for data: 4058800
I0428 20:01:02.509352 29634 layer_factory.hpp:77] Creating layer relu3
I0428 20:01:02.509357 29634 net.cpp:86] Creating Layer relu3
I0428 20:01:02.509361 29634 net.cpp:408] relu3 <- ip3
I0428 20:01:02.509364 29634 net.cpp:369] relu3 -> ip3 (in-place)
I0428 20:01:02.510120 29634 net.cpp:124] Setting up relu3
I0428 20:01:02.510149 29634 net.cpp:131] Top shape: 100 10 (1000)
I0428 20:01:02.510152 29634 net.cpp:139] Memory required for data: 4062800
I0428 20:01:02.510155 29634 layer_factory.hpp:77] Creating layer ip3_relu3_0_split
I0428 20:01:02.510176 29634 net.cpp:86] Creating Layer ip3_relu3_0_split
I0428 20:01:02.510180 29634 net.cpp:408] ip3_relu3_0_split <- ip3
I0428 20:01:02.510185 29634 net.cpp:382] ip3_relu3_0_split -> ip3_relu3_0_split_0
I0428 20:01:02.510192 29634 net.cpp:382] ip3_relu3_0_split -> ip3_relu3_0_split_1
I0428 20:01:02.510231 29634 net.cpp:124] Setting up ip3_relu3_0_split
I0428 20:01:02.510236 29634 net.cpp:131] Top shape: 100 10 (1000)
I0428 20:01:02.510239 29634 net.cpp:131] Top shape: 100 10 (1000)
I0428 20:01:02.510242 29634 net.cpp:139] Memory required for data: 4070800
I0428 20:01:02.510246 29634 layer_factory.hpp:77] Creating layer accuracy
I0428 20:01:02.510251 29634 net.cpp:86] Creating Layer accuracy
I0428 20:01:02.510253 29634 net.cpp:408] accuracy <- ip3_relu3_0_split_0
I0428 20:01:02.510257 29634 net.cpp:408] accuracy <- label_mnist_1_split_0
I0428 20:01:02.510262 29634 net.cpp:382] accuracy -> accuracy
…
