…
I0428 19:54:09.790716 27943 net.cpp:296] The NetState phase (0) differed from the phase (1) specified by a rule in layer mnist
I0428 19:54:09.790733 27943 net.cpp:296] The NetState phase (0) differed from the phase (1) specified by a rule in layer accuracy
I0428 19:54:09.790822 27943 net.cpp:53] Initializing net from parameters: 
name: "LeNet"
state {
  phase: TRAIN
  level: 0
  stage: ""
}
layer {
  name: "mnist"
  type: "Data"
  top: "data"
  top: "label"
  include {
    phase: TRAIN
  }
  transform_param {
    scale: 0.00390625
  }
  data_param {
    source: "examples/mnist/mnist_train_lmdb"
    batch_size: 64
    backend: LMDB
  }
}
layer {
  name: "conv0"
  type: "Convolution"
  bottom: "data"
  top: "conv0"
  param {
    lr_mult: 1
  }
  param {
    lr_mult: 2
  }
  convolution_param {
    num_output: 5
    kernel_size: 5
    stride: 1
    weight_filler {
      type: "xavier"
    }
    bias_filler {
      type: "constant"
    }
  }
}
layer {
  name: "pool0"
  type: "Pooling"
  bottom: "conv0"
  top: "pool0"
  pooling_param {
    pool: MAX
    kernel_size: 2
    stride: 2
  }
}
layer {
  name: "conv1"
  type: "Convolution"
  bottom: "pool0"
  top: "conv1"
  param {
    lr_mult: 1
  }
  param {
    lr_mult: 2
  }
  convolution_param {
    num_output: 100
    kernel_size: 5
    stride: 1
    weight_filler {
      type: "xavier"
    }
    bias_filler {
      type: "constant"
    }
  }
}
layer {
  name: "pool1"
  type: "Pooling"
  bottom: "conv1"
  top: "pool1"
  pooling_param {
    pool: MAX
    kernel_size: 2
    stride: 2
  }
}
layer {
  name: "ip1"
  type: "InnerProduct"
  bottom: "pool1"
  top: "ip1"
  param {
    lr_mult: 1
  }
  param {
    lr_mult: 2
  }
  inner_product_param {
    num_output: 10
    weight_filler {
      type: "xavier"
    }
    bias_filler {
      type: "constant"
    }
  }
}
layer {
  name: "relu1"
  type: "ReLU"
  bottom: "ip1"
  top: "ip1"
}
layer {
  name: "ip2"
  type: "InnerProduct"
  bottom: "ip1"
  top: "ip2"
  param {
    lr_mult: 1
  }
  param {
    lr_mult: 2
  }
  inner_product_param {
    num_output: 10
    weight_filler {
      type: "xavier"
    }
    bias_filler {
      type: "constant"
    }
  }
}
layer {
  name: "relu2"
  type: "ReLU"
  bottom: "ip2"
  top: "ip2"
}
layer {
  name: "loss"
  type: "SoftmaxWithLoss"
  bottom: "ip2"
  bottom: "label"
  top: "loss"
}
I0428 19:54:09.790895 27943 layer_factory.hpp:77] Creating layer mnist
I0428 19:54:09.790998 27943 db_lmdb.cpp:35] Opened lmdb examples/mnist/mnist_train_lmdb
I0428 19:54:09.791024 27943 net.cpp:86] Creating Layer mnist
I0428 19:54:09.791033 27943 net.cpp:382] mnist -> data
I0428 19:54:09.791064 27943 net.cpp:382] mnist -> label
I0428 19:54:09.792176 27943 data_layer.cpp:45] output data size: 64,1,28,28
I0428 19:54:09.794626 27943 net.cpp:124] Setting up mnist
I0428 19:54:09.794651 27943 net.cpp:131] Top shape: 64 1 28 28 (50176)
I0428 19:54:09.794665 27943 net.cpp:131] Top shape: 64 (64)
I0428 19:54:09.794670 27943 net.cpp:139] Memory required for data: 200960
I0428 19:54:09.794677 27943 layer_factory.hpp:77] Creating layer conv0
I0428 19:54:09.794694 27943 net.cpp:86] Creating Layer conv0
I0428 19:54:09.794700 27943 net.cpp:408] conv0 <- data
I0428 19:54:09.794713 27943 net.cpp:382] conv0 -> conv0
I0428 19:54:10.041939 27943 net.cpp:124] Setting up conv0
I0428 19:54:10.041965 27943 net.cpp:131] Top shape: 64 5 24 24 (184320)
I0428 19:54:10.041970 27943 net.cpp:139] Memory required for data: 938240
I0428 19:54:10.042021 27943 layer_factory.hpp:77] Creating layer pool0
I0428 19:54:10.042033 27943 net.cpp:86] Creating Layer pool0
I0428 19:54:10.042037 27943 net.cpp:408] pool0 <- conv0
I0428 19:54:10.042042 27943 net.cpp:382] pool0 -> pool0
I0428 19:54:10.042102 27943 net.cpp:124] Setting up pool0
I0428 19:54:10.042110 27943 net.cpp:131] Top shape: 64 5 12 12 (46080)
I0428 19:54:10.042114 27943 net.cpp:139] Memory required for data: 1122560
I0428 19:54:10.042116 27943 layer_factory.hpp:77] Creating layer conv1
I0428 19:54:10.042127 27943 net.cpp:86] Creating Layer conv1
I0428 19:54:10.042132 27943 net.cpp:408] conv1 <- pool0
I0428 19:54:10.042153 27943 net.cpp:382] conv1 -> conv1
I0428 19:54:10.045044 27943 net.cpp:124] Setting up conv1
I0428 19:54:10.045058 27943 net.cpp:131] Top shape: 64 100 8 8 (409600)
I0428 19:54:10.045063 27943 net.cpp:139] Memory required for data: 2760960
I0428 19:54:10.045070 27943 layer_factory.hpp:77] Creating layer pool1
I0428 19:54:10.045078 27943 net.cpp:86] Creating Layer pool1
I0428 19:54:10.045081 27943 net.cpp:408] pool1 <- conv1
I0428 19:54:10.045086 27943 net.cpp:382] pool1 -> pool1
I0428 19:54:10.045138 27943 net.cpp:124] Setting up pool1
I0428 19:54:10.045145 27943 net.cpp:131] Top shape: 64 100 4 4 (102400)
I0428 19:54:10.045148 27943 net.cpp:139] Memory required for data: 3170560
I0428 19:54:10.045151 27943 layer_factory.hpp:77] Creating layer ip1
I0428 19:54:10.045158 27943 net.cpp:86] Creating Layer ip1
I0428 19:54:10.045161 27943 net.cpp:408] ip1 <- pool1
I0428 19:54:10.045166 27943 net.cpp:382] ip1 -> ip1
I0428 19:54:10.045343 27943 net.cpp:124] Setting up ip1
I0428 19:54:10.045351 27943 net.cpp:131] Top shape: 64 10 (640)
I0428 19:54:10.045354 27943 net.cpp:139] Memory required for data: 3173120
I0428 19:54:10.045361 27943 layer_factory.hpp:77] Creating layer relu1
I0428 19:54:10.045368 27943 net.cpp:86] Creating Layer relu1
I0428 19:54:10.045387 27943 net.cpp:408] relu1 <- ip1
I0428 19:54:10.045392 27943 net.cpp:369] relu1 -> ip1 (in-place)
I0428 19:54:10.045567 27943 net.cpp:124] Setting up relu1
I0428 19:54:10.045577 27943 net.cpp:131] Top shape: 64 10 (640)
I0428 19:54:10.045579 27943 net.cpp:139] Memory required for data: 3175680
I0428 19:54:10.045583 27943 layer_factory.hpp:77] Creating layer ip2
I0428 19:54:10.045589 27943 net.cpp:86] Creating Layer ip2
I0428 19:54:10.045593 27943 net.cpp:408] ip2 <- ip1
I0428 19:54:10.045598 27943 net.cpp:382] ip2 -> ip2
I0428 19:54:10.045725 27943 net.cpp:124] Setting up ip2
I0428 19:54:10.045732 27943 net.cpp:131] Top shape: 64 10 (640)
I0428 19:54:10.045735 27943 net.cpp:139] Memory required for data: 3178240
I0428 19:54:10.045740 27943 layer_factory.hpp:77] Creating layer relu2
I0428 19:54:10.045747 27943 net.cpp:86] Creating Layer relu2
I0428 19:54:10.045749 27943 net.cpp:408] relu2 <- ip2
I0428 19:54:10.045754 27943 net.cpp:369] relu2 -> ip2 (in-place)
I0428 19:54:10.046521 27943 net.cpp:124] Setting up relu2
I0428 19:54:10.046532 27943 net.cpp:131] Top shape: 64 10 (640)
I0428 19:54:10.046551 27943 net.cpp:139] Memory required for data: 3180800
I0428 19:54:10.046555 27943 layer_factory.hpp:77] Creating layer loss
I0428 19:54:10.046561 27943 net.cpp:86] Creating Layer loss
I0428 19:54:10.046566 27943 net.cpp:408] loss <- ip2
I0428 19:54:10.046569 27943 net.cpp:408] loss <- label
I0428 19:54:10.046574 27943 net.cpp:382] loss -> loss
I0428 19:54:10.046592 27943 layer_factory.hpp:77] Creating layer loss
…
I0428 19:54:10.047296 27943 solver.cpp:173] Creating test net (#0) specified by net file: ECE595/mnist/train_test/var_everything2/lenet_train_test705.prototxt
I0428 19:54:10.047320 27943 net.cpp:296] The NetState phase (1) differed from the phase (0) specified by a rule in layer mnist
I0428 19:54:10.047401 27943 net.cpp:53] Initializing net from parameters: 
name: "LeNet"
state {
  phase: TEST
}
layer {
  name: "mnist"
  type: "Data"
  top: "data"
  top: "label"
  include {
    phase: TEST
  }
  transform_param {
    scale: 0.00390625
  }
  data_param {
    source: "examples/mnist/mnist_test_lmdb"
    batch_size: 100
    backend: LMDB
  }
}
layer {
  name: "conv0"
  type: "Convolution"
  bottom: "data"
  top: "conv0"
  param {
    lr_mult: 1
  }
  param {
    lr_mult: 2
  }
  convolution_param {
    num_output: 5
    kernel_size: 5
    stride: 1
    weight_filler {
      type: "xavier"
    }
    bias_filler {
      type: "constant"
    }
  }
}
layer {
  name: "pool0"
  type: "Pooling"
  bottom: "conv0"
  top: "pool0"
  pooling_param {
    pool: MAX
    kernel_size: 2
    stride: 2
  }
}
layer {
  name: "conv1"
  type: "Convolution"
  bottom: "pool0"
  top: "conv1"
  param {
    lr_mult: 1
  }
  param {
    lr_mult: 2
  }
  convolution_param {
    num_output: 100
    kernel_size: 5
    stride: 1
    weight_filler {
      type: "xavier"
    }
    bias_filler {
      type: "constant"
    }
  }
}
layer {
  name: "pool1"
  type: "Pooling"
  bottom: "conv1"
  top: "pool1"
  pooling_param {
    pool: MAX
    kernel_size: 2
    stride: 2
  }
}
layer {
  name: "ip1"
  type: "InnerProduct"
  bottom: "pool1"
  top: "ip1"
  param {
    lr_mult: 1
  }
  param {
    lr_mult: 2
  }
  inner_product_param {
    num_output: 10
    weight_filler {
      type: "xavier"
    }
    bias_filler {
      type: "constant"
    }
  }
}
layer {
  name: "relu1"
  type: "ReLU"
  bottom: "ip1"
  top: "ip1"
}
layer {
  name: "ip2"
  type: "InnerProduct"
  bottom: "ip1"
  top: "ip2"
  param {
    lr_mult: 1
  }
  param {
    lr_mult: 2
  }
  inner_product_param {
    num_output: 10
    weight_filler {
      type: "xavier"
    }
    bias_filler {
      type: "constant"
    }
  }
}
layer {
  name: "relu2"
  type: "ReLU"
  bottom: "ip2"
  top: "ip2"
}
layer {
  name: "accuracy"
  type: "Accuracy"
  bottom: "ip2"
  bottom: "label"
  top: "accuracy"
  include {
    phase: TEST
  }
}
layer {
  name: "loss"
  type: "SoftmaxWithLoss"
  bottom: "ip2"
  bottom: "label"
  top: "loss"
}
I0428 19:54:10.047477 27943 layer_factory.hpp:77] Creating layer mnist
I0428 19:54:10.047520 27943 db_lmdb.cpp:35] Opened lmdb examples/mnist/mnist_test_lmdb
I0428 19:54:10.047531 27943 net.cpp:86] Creating Layer mnist
I0428 19:54:10.047535 27943 net.cpp:382] mnist -> data
I0428 19:54:10.047544 27943 net.cpp:382] mnist -> label
I0428 19:54:10.047624 27943 data_layer.cpp:45] output data size: 100,1,28,28
I0428 19:54:10.049628 27943 net.cpp:124] Setting up mnist
I0428 19:54:10.049656 27943 net.cpp:131] Top shape: 100 1 28 28 (78400)
I0428 19:54:10.049677 27943 net.cpp:131] Top shape: 100 (100)
I0428 19:54:10.049680 27943 net.cpp:139] Memory required for data: 314000
I0428 19:54:10.049685 27943 layer_factory.hpp:77] Creating layer label_mnist_1_split
I0428 19:54:10.049697 27943 net.cpp:86] Creating Layer label_mnist_1_split
I0428 19:54:10.049700 27943 net.cpp:408] label_mnist_1_split <- label
I0428 19:54:10.049706 27943 net.cpp:382] label_mnist_1_split -> label_mnist_1_split_0
I0428 19:54:10.049713 27943 net.cpp:382] label_mnist_1_split -> label_mnist_1_split_1
I0428 19:54:10.049774 27943 net.cpp:124] Setting up label_mnist_1_split
I0428 19:54:10.049792 27943 net.cpp:131] Top shape: 100 (100)
I0428 19:54:10.049795 27943 net.cpp:131] Top shape: 100 (100)
I0428 19:54:10.049798 27943 net.cpp:139] Memory required for data: 314800
I0428 19:54:10.049801 27943 layer_factory.hpp:77] Creating layer conv0
I0428 19:54:10.049813 27943 net.cpp:86] Creating Layer conv0
I0428 19:54:10.049815 27943 net.cpp:408] conv0 <- data
I0428 19:54:10.049821 27943 net.cpp:382] conv0 -> conv0
I0428 19:54:10.051717 27943 net.cpp:124] Setting up conv0
I0428 19:54:10.051748 27943 net.cpp:131] Top shape: 100 5 24 24 (288000)
I0428 19:54:10.051753 27943 net.cpp:139] Memory required for data: 1466800
I0428 19:54:10.051777 27943 layer_factory.hpp:77] Creating layer pool0
I0428 19:54:10.051784 27943 net.cpp:86] Creating Layer pool0
I0428 19:54:10.051787 27943 net.cpp:408] pool0 <- conv0
I0428 19:54:10.051793 27943 net.cpp:382] pool0 -> pool0
I0428 19:54:10.051831 27943 net.cpp:124] Setting up pool0
I0428 19:54:10.051841 27943 net.cpp:131] Top shape: 100 5 12 12 (72000)
I0428 19:54:10.051847 27943 net.cpp:139] Memory required for data: 1754800
I0428 19:54:10.051851 27943 layer_factory.hpp:77] Creating layer conv1
I0428 19:54:10.051877 27943 net.cpp:86] Creating Layer conv1
I0428 19:54:10.051882 27943 net.cpp:408] conv1 <- pool0
I0428 19:54:10.051887 27943 net.cpp:382] conv1 -> conv1
I0428 19:54:10.053727 27943 net.cpp:124] Setting up conv1
I0428 19:54:10.053741 27943 net.cpp:131] Top shape: 100 100 8 8 (640000)
I0428 19:54:10.053762 27943 net.cpp:139] Memory required for data: 4314800
I0428 19:54:10.053771 27943 layer_factory.hpp:77] Creating layer pool1
I0428 19:54:10.053777 27943 net.cpp:86] Creating Layer pool1
I0428 19:54:10.053781 27943 net.cpp:408] pool1 <- conv1
I0428 19:54:10.053787 27943 net.cpp:382] pool1 -> pool1
I0428 19:54:10.053827 27943 net.cpp:124] Setting up pool1
I0428 19:54:10.053834 27943 net.cpp:131] Top shape: 100 100 4 4 (160000)
I0428 19:54:10.053838 27943 net.cpp:139] Memory required for data: 4954800
I0428 19:54:10.053848 27943 layer_factory.hpp:77] Creating layer ip1
I0428 19:54:10.053855 27943 net.cpp:86] Creating Layer ip1
I0428 19:54:10.053861 27943 net.cpp:408] ip1 <- pool1
I0428 19:54:10.053867 27943 net.cpp:382] ip1 -> ip1
I0428 19:54:10.054072 27943 net.cpp:124] Setting up ip1
I0428 19:54:10.054080 27943 net.cpp:131] Top shape: 100 10 (1000)
I0428 19:54:10.054083 27943 net.cpp:139] Memory required for data: 4958800
I0428 19:54:10.054091 27943 layer_factory.hpp:77] Creating layer relu1
I0428 19:54:10.054098 27943 net.cpp:86] Creating Layer relu1
I0428 19:54:10.054101 27943 net.cpp:408] relu1 <- ip1
I0428 19:54:10.054106 27943 net.cpp:369] relu1 -> ip1 (in-place)
I0428 19:54:10.054278 27943 net.cpp:124] Setting up relu1
I0428 19:54:10.054298 27943 net.cpp:131] Top shape: 100 10 (1000)
I0428 19:54:10.054301 27943 net.cpp:139] Memory required for data: 4962800
I0428 19:54:10.054311 27943 layer_factory.hpp:77] Creating layer ip2
I0428 19:54:10.054318 27943 net.cpp:86] Creating Layer ip2
I0428 19:54:10.054322 27943 net.cpp:408] ip2 <- ip1
I0428 19:54:10.054329 27943 net.cpp:382] ip2 -> ip2
I0428 19:54:10.054435 27943 net.cpp:124] Setting up ip2
I0428 19:54:10.054441 27943 net.cpp:131] Top shape: 100 10 (1000)
I0428 19:54:10.054445 27943 net.cpp:139] Memory required for data: 4966800
I0428 19:54:10.054466 27943 layer_factory.hpp:77] Creating layer relu2
I0428 19:54:10.054472 27943 net.cpp:86] Creating Layer relu2
I0428 19:54:10.054476 27943 net.cpp:408] relu2 <- ip2
I0428 19:54:10.054481 27943 net.cpp:369] relu2 -> ip2 (in-place)
I0428 19:54:10.054728 27943 net.cpp:124] Setting up relu2
I0428 19:54:10.054738 27943 net.cpp:131] Top shape: 100 10 (1000)
I0428 19:54:10.054741 27943 net.cpp:139] Memory required for data: 4970800
I0428 19:54:10.054745 27943 layer_factory.hpp:77] Creating layer ip2_relu2_0_split
I0428 19:54:10.054750 27943 net.cpp:86] Creating Layer ip2_relu2_0_split
I0428 19:54:10.054754 27943 net.cpp:408] ip2_relu2_0_split <- ip2
I0428 19:54:10.054760 27943 net.cpp:382] ip2_relu2_0_split -> ip2_relu2_0_split_0
I0428 19:54:10.054793 27943 net.cpp:382] ip2_relu2_0_split -> ip2_relu2_0_split_1
I0428 19:54:10.054839 27943 net.cpp:124] Setting up ip2_relu2_0_split
I0428 19:54:10.054852 27943 net.cpp:131] Top shape: 100 10 (1000)
I0428 19:54:10.054860 27943 net.cpp:131] Top shape: 100 10 (1000)
I0428 19:54:10.054864 27943 net.cpp:139] Memory required for data: 4978800
I0428 19:54:10.054867 27943 layer_factory.hpp:77] Creating layer accuracy
I0428 19:54:10.054873 27943 net.cpp:86] Creating Layer accuracy
I0428 19:54:10.054877 27943 net.cpp:408] accuracy <- ip2_relu2_0_split_0
I0428 19:54:10.054882 27943 net.cpp:408] accuracy <- label_mnist_1_split_0
I0428 19:54:10.054885 27943 net.cpp:382] accuracy -> accuracy
…
