…
I0428 20:02:25.526458 29940 net.cpp:296] The NetState phase (0) differed from the phase (1) specified by a rule in layer mnist
I0428 20:02:25.526477 29940 net.cpp:296] The NetState phase (0) differed from the phase (1) specified by a rule in layer accuracy
I0428 20:02:25.526582 29940 net.cpp:53] Initializing net from parameters: 
name: "LeNet"
state {
  phase: TRAIN
  level: 0
  stage: ""
}
layer {
  name: "mnist"
  type: "Data"
  top: "data"
  top: "label"
  include {
    phase: TRAIN
  }
  transform_param {
    scale: 0.00390625
  }
  data_param {
    source: "examples/mnist/mnist_train_lmdb"
    batch_size: 64
    backend: LMDB
  }
}
layer {
  name: "conv0"
  type: "Convolution"
  bottom: "data"
  top: "conv0"
  param {
    lr_mult: 1
  }
  param {
    lr_mult: 2
  }
  convolution_param {
    num_output: 10
    kernel_size: 5
    stride: 1
    weight_filler {
      type: "xavier"
    }
    bias_filler {
      type: "constant"
    }
  }
}
layer {
  name: "pool0"
  type: "Pooling"
  bottom: "conv0"
  top: "pool0"
  pooling_param {
    pool: MAX
    kernel_size: 2
    stride: 2
  }
}
layer {
  name: "conv1"
  type: "Convolution"
  bottom: "pool0"
  top: "conv1"
  param {
    lr_mult: 1
  }
  param {
    lr_mult: 2
  }
  convolution_param {
    num_output: 50
    kernel_size: 5
    stride: 1
    weight_filler {
      type: "xavier"
    }
    bias_filler {
      type: "constant"
    }
  }
}
layer {
  name: "pool1"
  type: "Pooling"
  bottom: "conv1"
  top: "pool1"
  pooling_param {
    pool: MAX
    kernel_size: 2
    stride: 2
  }
}
layer {
  name: "ip1"
  type: "InnerProduct"
  bottom: "pool1"
  top: "ip1"
  param {
    lr_mult: 1
  }
  param {
    lr_mult: 2
  }
  inner_product_param {
    num_output: 50
    weight_filler {
      type: "xavier"
    }
    bias_filler {
      type: "constant"
    }
  }
}
layer {
  name: "relu1"
  type: "ReLU"
  bottom: "ip1"
  top: "ip1"
}
layer {
  name: "ip2"
  type: "InnerProduct"
  bottom: "ip1"
  top: "ip2"
  param {
    lr_mult: 1
  }
  param {
    lr_mult: 2
  }
  inner_product_param {
    num_output: 10
    weight_filler {
      type: "xavier"
    }
    bias_filler {
      type: "constant"
    }
  }
}
layer {
  name: "relu2"
  type: "ReLU"
  bottom: "ip2"
  top: "ip2"
}
layer {
  name: "ip3"
  type: "InnerProduct"
  bottom: "ip2"
  top: "ip3"
  param {
    lr_mult: 1
  }
  param {
    lr_mult: 2
  }
  inner_product_param {
    num_output: 10
    weight_filler {
      type: "xavier"
    }
    bias_filler {
      type: "constant"
    }
  }
}
layer {
  name: "relu3"
  type: "ReLU"
  bottom: "ip3"
  top: "ip3"
}
layer {
  name: "loss"
  type: "SoftmaxWithLoss"
  bottom: "ip3"
  bottom: "label"
  top: "loss"
}
I0428 20:02:25.526664 29940 layer_factory.hpp:77] Creating layer mnist
I0428 20:02:25.526762 29940 db_lmdb.cpp:35] Opened lmdb examples/mnist/mnist_train_lmdb
I0428 20:02:25.526787 29940 net.cpp:86] Creating Layer mnist
I0428 20:02:25.526794 29940 net.cpp:382] mnist -> data
I0428 20:02:25.526818 29940 net.cpp:382] mnist -> label
I0428 20:02:25.527915 29940 data_layer.cpp:45] output data size: 64,1,28,28
I0428 20:02:25.530390 29940 net.cpp:124] Setting up mnist
I0428 20:02:25.530407 29940 net.cpp:131] Top shape: 64 1 28 28 (50176)
I0428 20:02:25.530431 29940 net.cpp:131] Top shape: 64 (64)
I0428 20:02:25.530433 29940 net.cpp:139] Memory required for data: 200960
I0428 20:02:25.530441 29940 layer_factory.hpp:77] Creating layer conv0
I0428 20:02:25.530459 29940 net.cpp:86] Creating Layer conv0
I0428 20:02:25.530480 29940 net.cpp:408] conv0 <- data
I0428 20:02:25.530491 29940 net.cpp:382] conv0 -> conv0
I0428 20:02:25.810021 29940 net.cpp:124] Setting up conv0
I0428 20:02:25.810048 29940 net.cpp:131] Top shape: 64 10 24 24 (368640)
I0428 20:02:25.810051 29940 net.cpp:139] Memory required for data: 1675520
I0428 20:02:25.810066 29940 layer_factory.hpp:77] Creating layer pool0
I0428 20:02:25.810077 29940 net.cpp:86] Creating Layer pool0
I0428 20:02:25.810082 29940 net.cpp:408] pool0 <- conv0
I0428 20:02:25.810087 29940 net.cpp:382] pool0 -> pool0
I0428 20:02:25.810148 29940 net.cpp:124] Setting up pool0
I0428 20:02:25.810153 29940 net.cpp:131] Top shape: 64 10 12 12 (92160)
I0428 20:02:25.810156 29940 net.cpp:139] Memory required for data: 2044160
I0428 20:02:25.810158 29940 layer_factory.hpp:77] Creating layer conv1
I0428 20:02:25.810169 29940 net.cpp:86] Creating Layer conv1
I0428 20:02:25.810173 29940 net.cpp:408] conv1 <- pool0
I0428 20:02:25.810176 29940 net.cpp:382] conv1 -> conv1
I0428 20:02:25.813005 29940 net.cpp:124] Setting up conv1
I0428 20:02:25.813021 29940 net.cpp:131] Top shape: 64 50 8 8 (204800)
I0428 20:02:25.813025 29940 net.cpp:139] Memory required for data: 2863360
I0428 20:02:25.813050 29940 layer_factory.hpp:77] Creating layer pool1
I0428 20:02:25.813057 29940 net.cpp:86] Creating Layer pool1
I0428 20:02:25.813061 29940 net.cpp:408] pool1 <- conv1
I0428 20:02:25.813066 29940 net.cpp:382] pool1 -> pool1
I0428 20:02:25.813123 29940 net.cpp:124] Setting up pool1
I0428 20:02:25.813129 29940 net.cpp:131] Top shape: 64 50 4 4 (51200)
I0428 20:02:25.813133 29940 net.cpp:139] Memory required for data: 3068160
I0428 20:02:25.813136 29940 layer_factory.hpp:77] Creating layer ip1
I0428 20:02:25.813143 29940 net.cpp:86] Creating Layer ip1
I0428 20:02:25.813146 29940 net.cpp:408] ip1 <- pool1
I0428 20:02:25.813151 29940 net.cpp:382] ip1 -> ip1
I0428 20:02:25.813540 29940 net.cpp:124] Setting up ip1
I0428 20:02:25.813552 29940 net.cpp:131] Top shape: 64 50 (3200)
I0428 20:02:25.813555 29940 net.cpp:139] Memory required for data: 3080960
I0428 20:02:25.813578 29940 layer_factory.hpp:77] Creating layer relu1
I0428 20:02:25.813583 29940 net.cpp:86] Creating Layer relu1
I0428 20:02:25.813586 29940 net.cpp:408] relu1 <- ip1
I0428 20:02:25.813591 29940 net.cpp:369] relu1 -> ip1 (in-place)
I0428 20:02:25.813751 29940 net.cpp:124] Setting up relu1
I0428 20:02:25.813774 29940 net.cpp:131] Top shape: 64 50 (3200)
I0428 20:02:25.813777 29940 net.cpp:139] Memory required for data: 3093760
I0428 20:02:25.813781 29940 layer_factory.hpp:77] Creating layer ip2
I0428 20:02:25.813787 29940 net.cpp:86] Creating Layer ip2
I0428 20:02:25.813791 29940 net.cpp:408] ip2 <- ip1
I0428 20:02:25.813794 29940 net.cpp:382] ip2 -> ip2
I0428 20:02:25.813885 29940 net.cpp:124] Setting up ip2
I0428 20:02:25.813892 29940 net.cpp:131] Top shape: 64 10 (640)
I0428 20:02:25.813895 29940 net.cpp:139] Memory required for data: 3096320
I0428 20:02:25.813900 29940 layer_factory.hpp:77] Creating layer relu2
I0428 20:02:25.813905 29940 net.cpp:86] Creating Layer relu2
I0428 20:02:25.813908 29940 net.cpp:408] relu2 <- ip2
I0428 20:02:25.813912 29940 net.cpp:369] relu2 -> ip2 (in-place)
I0428 20:02:25.814599 29940 net.cpp:124] Setting up relu2
I0428 20:02:25.814610 29940 net.cpp:131] Top shape: 64 10 (640)
I0428 20:02:25.814628 29940 net.cpp:139] Memory required for data: 3098880
I0428 20:02:25.814631 29940 layer_factory.hpp:77] Creating layer ip3
I0428 20:02:25.814654 29940 net.cpp:86] Creating Layer ip3
I0428 20:02:25.814657 29940 net.cpp:408] ip3 <- ip2
I0428 20:02:25.814663 29940 net.cpp:382] ip3 -> ip3
I0428 20:02:25.814776 29940 net.cpp:124] Setting up ip3
I0428 20:02:25.814800 29940 net.cpp:131] Top shape: 64 10 (640)
I0428 20:02:25.814803 29940 net.cpp:139] Memory required for data: 3101440
I0428 20:02:25.814827 29940 layer_factory.hpp:77] Creating layer relu3
I0428 20:02:25.814833 29940 net.cpp:86] Creating Layer relu3
I0428 20:02:25.814836 29940 net.cpp:408] relu3 <- ip3
I0428 20:02:25.814841 29940 net.cpp:369] relu3 -> ip3 (in-place)
I0428 20:02:25.815038 29940 net.cpp:124] Setting up relu3
I0428 20:02:25.815047 29940 net.cpp:131] Top shape: 64 10 (640)
I0428 20:02:25.815050 29940 net.cpp:139] Memory required for data: 3104000
I0428 20:02:25.815054 29940 layer_factory.hpp:77] Creating layer loss
I0428 20:02:25.815060 29940 net.cpp:86] Creating Layer loss
I0428 20:02:25.815063 29940 net.cpp:408] loss <- ip3
I0428 20:02:25.815068 29940 net.cpp:408] loss <- label
I0428 20:02:25.815073 29940 net.cpp:382] loss -> loss
I0428 20:02:25.815088 29940 layer_factory.hpp:77] Creating layer loss
…
I0428 20:02:25.815812 29940 solver.cpp:173] Creating test net (#0) specified by net file: ECE595/mnist/train_test/var_everything2/lenet_train_test928.prototxt
I0428 20:02:25.815855 29940 net.cpp:296] The NetState phase (1) differed from the phase (0) specified by a rule in layer mnist
I0428 20:02:25.815949 29940 net.cpp:53] Initializing net from parameters: 
name: "LeNet"
state {
  phase: TEST
}
layer {
  name: "mnist"
  type: "Data"
  top: "data"
  top: "label"
  include {
    phase: TEST
  }
  transform_param {
    scale: 0.00390625
  }
  data_param {
    source: "examples/mnist/mnist_test_lmdb"
    batch_size: 100
    backend: LMDB
  }
}
layer {
  name: "conv0"
  type: "Convolution"
  bottom: "data"
  top: "conv0"
  param {
    lr_mult: 1
  }
  param {
    lr_mult: 2
  }
  convolution_param {
    num_output: 10
    kernel_size: 5
    stride: 1
    weight_filler {
      type: "xavier"
    }
    bias_filler {
      type: "constant"
    }
  }
}
layer {
  name: "pool0"
  type: "Pooling"
  bottom: "conv0"
  top: "pool0"
  pooling_param {
    pool: MAX
    kernel_size: 2
    stride: 2
  }
}
layer {
  name: "conv1"
  type: "Convolution"
  bottom: "pool0"
  top: "conv1"
  param {
    lr_mult: 1
  }
  param {
    lr_mult: 2
  }
  convolution_param {
    num_output: 50
    kernel_size: 5
    stride: 1
    weight_filler {
      type: "xavier"
    }
    bias_filler {
      type: "constant"
    }
  }
}
layer {
  name: "pool1"
  type: "Pooling"
  bottom: "conv1"
  top: "pool1"
  pooling_param {
    pool: MAX
    kernel_size: 2
    stride: 2
  }
}
layer {
  name: "ip1"
  type: "InnerProduct"
  bottom: "pool1"
  top: "ip1"
  param {
    lr_mult: 1
  }
  param {
    lr_mult: 2
  }
  inner_product_param {
    num_output: 50
    weight_filler {
      type: "xavier"
    }
    bias_filler {
      type: "constant"
    }
  }
}
layer {
  name: "relu1"
  type: "ReLU"
  bottom: "ip1"
  top: "ip1"
}
layer {
  name: "ip2"
  type: "InnerProduct"
  bottom: "ip1"
  top: "ip2"
  param {
    lr_mult: 1
  }
  param {
    lr_mult: 2
  }
  inner_product_param {
    num_output: 10
    weight_filler {
      type: "xavier"
    }
    bias_filler {
      type: "constant"
    }
  }
}
layer {
  name: "relu2"
  type: "ReLU"
  bottom: "ip2"
  top: "ip2"
}
layer {
  name: "ip3"
  type: "InnerProduct"
  bottom: "ip2"
  top: "ip3"
  param {
    lr_mult: 1
  }
  param {
    lr_mult: 2
  }
  inner_product_param {
    num_output: 10
    weight_filler {
      type: "xavier"
    }
    bias_filler {
      type: "constant"
    }
  }
}
layer {
  name: "relu3"
  type: "ReLU"
  bottom: "ip3"
  top: "ip3"
}
layer {
  name: "accuracy"
  type: "Accuracy"
  bottom: "ip3"
  bottom: "label"
  top: "accuracy"
  include {
    phase: TEST
  }
}
layer {
  name: "loss"
  type: "SoftmaxWithLoss"
  bottom: "ip3"
  bottom: "label"
  top: "loss"
}
I0428 20:02:25.816030 29940 layer_factory.hpp:77] Creating layer mnist
I0428 20:02:25.816072 29940 db_lmdb.cpp:35] Opened lmdb examples/mnist/mnist_test_lmdb
I0428 20:02:25.816087 29940 net.cpp:86] Creating Layer mnist
I0428 20:02:25.816092 29940 net.cpp:382] mnist -> data
I0428 20:02:25.816099 29940 net.cpp:382] mnist -> label
I0428 20:02:25.816190 29940 data_layer.cpp:45] output data size: 100,1,28,28
I0428 20:02:25.818238 29940 net.cpp:124] Setting up mnist
I0428 20:02:25.818282 29940 net.cpp:131] Top shape: 100 1 28 28 (78400)
I0428 20:02:25.818289 29940 net.cpp:131] Top shape: 100 (100)
I0428 20:02:25.818291 29940 net.cpp:139] Memory required for data: 314000
I0428 20:02:25.818295 29940 layer_factory.hpp:77] Creating layer label_mnist_1_split
I0428 20:02:25.818301 29940 net.cpp:86] Creating Layer label_mnist_1_split
I0428 20:02:25.818306 29940 net.cpp:408] label_mnist_1_split <- label
I0428 20:02:25.818311 29940 net.cpp:382] label_mnist_1_split -> label_mnist_1_split_0
I0428 20:02:25.818318 29940 net.cpp:382] label_mnist_1_split -> label_mnist_1_split_1
I0428 20:02:25.818446 29940 net.cpp:124] Setting up label_mnist_1_split
I0428 20:02:25.818455 29940 net.cpp:131] Top shape: 100 (100)
I0428 20:02:25.818459 29940 net.cpp:131] Top shape: 100 (100)
I0428 20:02:25.818462 29940 net.cpp:139] Memory required for data: 314800
I0428 20:02:25.818465 29940 layer_factory.hpp:77] Creating layer conv0
I0428 20:02:25.818475 29940 net.cpp:86] Creating Layer conv0
I0428 20:02:25.818480 29940 net.cpp:408] conv0 <- data
I0428 20:02:25.818485 29940 net.cpp:382] conv0 -> conv0
I0428 20:02:25.820168 29940 net.cpp:124] Setting up conv0
I0428 20:02:25.820180 29940 net.cpp:131] Top shape: 100 10 24 24 (576000)
I0428 20:02:25.820199 29940 net.cpp:139] Memory required for data: 2618800
I0428 20:02:25.820209 29940 layer_factory.hpp:77] Creating layer pool0
I0428 20:02:25.820214 29940 net.cpp:86] Creating Layer pool0
I0428 20:02:25.820219 29940 net.cpp:408] pool0 <- conv0
I0428 20:02:25.820224 29940 net.cpp:382] pool0 -> pool0
I0428 20:02:25.820260 29940 net.cpp:124] Setting up pool0
I0428 20:02:25.820264 29940 net.cpp:131] Top shape: 100 10 12 12 (144000)
I0428 20:02:25.820267 29940 net.cpp:139] Memory required for data: 3194800
I0428 20:02:25.820271 29940 layer_factory.hpp:77] Creating layer conv1
I0428 20:02:25.820281 29940 net.cpp:86] Creating Layer conv1
I0428 20:02:25.820283 29940 net.cpp:408] conv1 <- pool0
I0428 20:02:25.820288 29940 net.cpp:382] conv1 -> conv1
I0428 20:02:25.822058 29940 net.cpp:124] Setting up conv1
I0428 20:02:25.822073 29940 net.cpp:131] Top shape: 100 50 8 8 (320000)
I0428 20:02:25.822095 29940 net.cpp:139] Memory required for data: 4474800
I0428 20:02:25.822121 29940 layer_factory.hpp:77] Creating layer pool1
I0428 20:02:25.822129 29940 net.cpp:86] Creating Layer pool1
I0428 20:02:25.822132 29940 net.cpp:408] pool1 <- conv1
I0428 20:02:25.822139 29940 net.cpp:382] pool1 -> pool1
I0428 20:02:25.822178 29940 net.cpp:124] Setting up pool1
I0428 20:02:25.822185 29940 net.cpp:131] Top shape: 100 50 4 4 (80000)
I0428 20:02:25.822187 29940 net.cpp:139] Memory required for data: 4794800
I0428 20:02:25.822190 29940 layer_factory.hpp:77] Creating layer ip1
I0428 20:02:25.822196 29940 net.cpp:86] Creating Layer ip1
I0428 20:02:25.822199 29940 net.cpp:408] ip1 <- pool1
I0428 20:02:25.822206 29940 net.cpp:382] ip1 -> ip1
I0428 20:02:25.822602 29940 net.cpp:124] Setting up ip1
I0428 20:02:25.822609 29940 net.cpp:131] Top shape: 100 50 (5000)
I0428 20:02:25.822638 29940 net.cpp:139] Memory required for data: 4814800
I0428 20:02:25.822646 29940 layer_factory.hpp:77] Creating layer relu1
I0428 20:02:25.822652 29940 net.cpp:86] Creating Layer relu1
I0428 20:02:25.822656 29940 net.cpp:408] relu1 <- ip1
I0428 20:02:25.822661 29940 net.cpp:369] relu1 -> ip1 (in-place)
I0428 20:02:25.822955 29940 net.cpp:124] Setting up relu1
I0428 20:02:25.822965 29940 net.cpp:131] Top shape: 100 50 (5000)
I0428 20:02:25.822974 29940 net.cpp:139] Memory required for data: 4834800
I0428 20:02:25.822978 29940 layer_factory.hpp:77] Creating layer ip2
I0428 20:02:25.823002 29940 net.cpp:86] Creating Layer ip2
I0428 20:02:25.823006 29940 net.cpp:408] ip2 <- ip1
I0428 20:02:25.823014 29940 net.cpp:382] ip2 -> ip2
I0428 20:02:25.823163 29940 net.cpp:124] Setting up ip2
I0428 20:02:25.823170 29940 net.cpp:131] Top shape: 100 10 (1000)
I0428 20:02:25.823174 29940 net.cpp:139] Memory required for data: 4838800
I0428 20:02:25.823180 29940 layer_factory.hpp:77] Creating layer relu2
I0428 20:02:25.823186 29940 net.cpp:86] Creating Layer relu2
I0428 20:02:25.823189 29940 net.cpp:408] relu2 <- ip2
I0428 20:02:25.823194 29940 net.cpp:369] relu2 -> ip2 (in-place)
I0428 20:02:25.823395 29940 net.cpp:124] Setting up relu2
I0428 20:02:25.823403 29940 net.cpp:131] Top shape: 100 10 (1000)
I0428 20:02:25.823406 29940 net.cpp:139] Memory required for data: 4842800
I0428 20:02:25.823416 29940 layer_factory.hpp:77] Creating layer ip3
I0428 20:02:25.823423 29940 net.cpp:86] Creating Layer ip3
I0428 20:02:25.823426 29940 net.cpp:408] ip3 <- ip2
I0428 20:02:25.823437 29940 net.cpp:382] ip3 -> ip3
I0428 20:02:25.823537 29940 net.cpp:124] Setting up ip3
I0428 20:02:25.823545 29940 net.cpp:131] Top shape: 100 10 (1000)
I0428 20:02:25.823549 29940 net.cpp:139] Memory required for data: 4846800
I0428 20:02:25.823555 29940 layer_factory.hpp:77] Creating layer relu3
I0428 20:02:25.823560 29940 net.cpp:86] Creating Layer relu3
I0428 20:02:25.823563 29940 net.cpp:408] relu3 <- ip3
I0428 20:02:25.823567 29940 net.cpp:369] relu3 -> ip3 (in-place)
I0428 20:02:25.824426 29940 net.cpp:124] Setting up relu3
I0428 20:02:25.824455 29940 net.cpp:131] Top shape: 100 10 (1000)
I0428 20:02:25.824458 29940 net.cpp:139] Memory required for data: 4850800
I0428 20:02:25.824462 29940 layer_factory.hpp:77] Creating layer ip3_relu3_0_split
I0428 20:02:25.824468 29940 net.cpp:86] Creating Layer ip3_relu3_0_split
I0428 20:02:25.824472 29940 net.cpp:408] ip3_relu3_0_split <- ip3
I0428 20:02:25.824481 29940 net.cpp:382] ip3_relu3_0_split -> ip3_relu3_0_split_0
I0428 20:02:25.824487 29940 net.cpp:382] ip3_relu3_0_split -> ip3_relu3_0_split_1
I0428 20:02:25.824558 29940 net.cpp:124] Setting up ip3_relu3_0_split
I0428 20:02:25.824566 29940 net.cpp:131] Top shape: 100 10 (1000)
I0428 20:02:25.824570 29940 net.cpp:131] Top shape: 100 10 (1000)
I0428 20:02:25.824573 29940 net.cpp:139] Memory required for data: 4858800
I0428 20:02:25.824575 29940 layer_factory.hpp:77] Creating layer accuracy
I0428 20:02:25.824581 29940 net.cpp:86] Creating Layer accuracy
I0428 20:02:25.824585 29940 net.cpp:408] accuracy <- ip3_relu3_0_split_0
I0428 20:02:25.824604 29940 net.cpp:408] accuracy <- label_mnist_1_split_0
I0428 20:02:25.824609 29940 net.cpp:382] accuracy -> accuracy
…
