…
I0428 19:39:04.860306 24206 net.cpp:296] The NetState phase (0) differed from the phase (1) specified by a rule in layer mnist
I0428 19:39:04.860330 24206 net.cpp:296] The NetState phase (0) differed from the phase (1) specified by a rule in layer accuracy
I0428 19:39:04.860447 24206 net.cpp:53] Initializing net from parameters: 
name: "LeNet"
state {
  phase: TRAIN
  level: 0
  stage: ""
}
layer {
  name: "mnist"
  type: "Data"
  top: "data"
  top: "label"
  include {
    phase: TRAIN
  }
  transform_param {
    scale: 0.00390625
  }
  data_param {
    source: "examples/mnist/mnist_train_lmdb"
    batch_size: 64
    backend: LMDB
  }
}
layer {
  name: "conv0"
  type: "Convolution"
  bottom: "data"
  top: "conv0"
  param {
    lr_mult: 1
  }
  param {
    lr_mult: 2
  }
  convolution_param {
    num_output: 2
    kernel_size: 5
    stride: 1
    weight_filler {
      type: "xavier"
    }
    bias_filler {
      type: "constant"
    }
  }
}
layer {
  name: "pool0"
  type: "Pooling"
  bottom: "conv0"
  top: "pool0"
  pooling_param {
    pool: MAX
    kernel_size: 2
    stride: 2
  }
}
layer {
  name: "conv1"
  type: "Convolution"
  bottom: "pool0"
  top: "conv1"
  param {
    lr_mult: 1
  }
  param {
    lr_mult: 2
  }
  convolution_param {
    num_output: 2
    kernel_size: 5
    stride: 1
    weight_filler {
      type: "xavier"
    }
    bias_filler {
      type: "constant"
    }
  }
}
layer {
  name: "pool1"
  type: "Pooling"
  bottom: "conv1"
  top: "pool1"
  pooling_param {
    pool: MAX
    kernel_size: 2
    stride: 2
  }
}
layer {
  name: "ip1"
  type: "InnerProduct"
  bottom: "pool1"
  top: "ip1"
  param {
    lr_mult: 1
  }
  param {
    lr_mult: 2
  }
  inner_product_param {
    num_output: 10
    weight_filler {
      type: "xavier"
    }
    bias_filler {
      type: "constant"
    }
  }
}
layer {
  name: "relu1"
  type: "ReLU"
  bottom: "ip1"
  top: "ip1"
}
layer {
  name: "ip2"
  type: "InnerProduct"
  bottom: "ip1"
  top: "ip2"
  param {
    lr_mult: 1
  }
  param {
    lr_mult: 2
  }
  inner_product_param {
    num_output: 50
    weight_filler {
      type: "xavier"
    }
    bias_filler {
      type: "constant"
    }
  }
}
layer {
  name: "relu2"
  type: "ReLU"
  bottom: "ip2"
  top: "ip2"
}
layer {
  name: "ip3"
  type: "InnerProduct"
  bottom: "ip2"
  top: "ip3"
  param {
    lr_mult: 1
  }
  param {
    lr_mult: 2
  }
  inner_product_param {
    num_output: 10
    weight_filler {
      type: "xavier"
    }
    bias_filler {
      type: "constant"
    }
  }
}
layer {
  name: "relu3"
  type: "ReLU"
  bottom: "ip3"
  top: "ip3"
}
layer {
  name: "loss"
  type: "SoftmaxWithLoss"
  bottom: "ip3"
  bottom: "label"
  top: "loss"
}
I0428 19:39:04.860560 24206 layer_factory.hpp:77] Creating layer mnist
I0428 19:39:04.860694 24206 db_lmdb.cpp:35] Opened lmdb examples/mnist/mnist_train_lmdb
I0428 19:39:04.860726 24206 net.cpp:86] Creating Layer mnist
I0428 19:39:04.860738 24206 net.cpp:382] mnist -> data
I0428 19:39:04.860770 24206 net.cpp:382] mnist -> label
I0428 19:39:04.862025 24206 data_layer.cpp:45] output data size: 64,1,28,28
I0428 19:39:04.864426 24206 net.cpp:124] Setting up mnist
I0428 19:39:04.864447 24206 net.cpp:131] Top shape: 64 1 28 28 (50176)
I0428 19:39:04.864459 24206 net.cpp:131] Top shape: 64 (64)
I0428 19:39:04.864464 24206 net.cpp:139] Memory required for data: 200960
I0428 19:39:04.864475 24206 layer_factory.hpp:77] Creating layer conv0
I0428 19:39:04.864498 24206 net.cpp:86] Creating Layer conv0
I0428 19:39:04.864521 24206 net.cpp:408] conv0 <- data
I0428 19:39:04.864539 24206 net.cpp:382] conv0 -> conv0
I0428 19:39:05.147538 24206 net.cpp:124] Setting up conv0
I0428 19:39:05.147573 24206 net.cpp:131] Top shape: 64 2 24 24 (73728)
I0428 19:39:05.147580 24206 net.cpp:139] Memory required for data: 495872
I0428 19:39:05.147605 24206 layer_factory.hpp:77] Creating layer pool0
I0428 19:39:05.147625 24206 net.cpp:86] Creating Layer pool0
I0428 19:39:05.147634 24206 net.cpp:408] pool0 <- conv0
I0428 19:39:05.147645 24206 net.cpp:382] pool0 -> pool0
I0428 19:39:05.147724 24206 net.cpp:124] Setting up pool0
I0428 19:39:05.147735 24206 net.cpp:131] Top shape: 64 2 12 12 (18432)
I0428 19:39:05.147742 24206 net.cpp:139] Memory required for data: 569600
I0428 19:39:05.147749 24206 layer_factory.hpp:77] Creating layer conv1
I0428 19:39:05.147768 24206 net.cpp:86] Creating Layer conv1
I0428 19:39:05.147775 24206 net.cpp:408] conv1 <- pool0
I0428 19:39:05.147786 24206 net.cpp:382] conv1 -> conv1
I0428 19:39:05.149910 24206 net.cpp:124] Setting up conv1
I0428 19:39:05.149930 24206 net.cpp:131] Top shape: 64 2 8 8 (8192)
I0428 19:39:05.149936 24206 net.cpp:139] Memory required for data: 602368
I0428 19:39:05.149952 24206 layer_factory.hpp:77] Creating layer pool1
I0428 19:39:05.149966 24206 net.cpp:86] Creating Layer pool1
I0428 19:39:05.149973 24206 net.cpp:408] pool1 <- conv1
I0428 19:39:05.149983 24206 net.cpp:382] pool1 -> pool1
I0428 19:39:05.150038 24206 net.cpp:124] Setting up pool1
I0428 19:39:05.150048 24206 net.cpp:131] Top shape: 64 2 4 4 (2048)
I0428 19:39:05.150055 24206 net.cpp:139] Memory required for data: 610560
I0428 19:39:05.150061 24206 layer_factory.hpp:77] Creating layer ip1
I0428 19:39:05.150074 24206 net.cpp:86] Creating Layer ip1
I0428 19:39:05.150087 24206 net.cpp:408] ip1 <- pool1
I0428 19:39:05.150097 24206 net.cpp:382] ip1 -> ip1
I0428 19:39:05.150218 24206 net.cpp:124] Setting up ip1
I0428 19:39:05.150229 24206 net.cpp:131] Top shape: 64 10 (640)
I0428 19:39:05.150235 24206 net.cpp:139] Memory required for data: 613120
I0428 19:39:05.150250 24206 layer_factory.hpp:77] Creating layer relu1
I0428 19:39:05.150260 24206 net.cpp:86] Creating Layer relu1
I0428 19:39:05.150271 24206 net.cpp:408] relu1 <- ip1
I0428 19:39:05.150281 24206 net.cpp:369] relu1 -> ip1 (in-place)
I0428 19:39:05.150482 24206 net.cpp:124] Setting up relu1
I0428 19:39:05.150496 24206 net.cpp:131] Top shape: 64 10 (640)
I0428 19:39:05.150502 24206 net.cpp:139] Memory required for data: 615680
I0428 19:39:05.150509 24206 layer_factory.hpp:77] Creating layer ip2
I0428 19:39:05.150521 24206 net.cpp:86] Creating Layer ip2
I0428 19:39:05.150528 24206 net.cpp:408] ip2 <- ip1
I0428 19:39:05.150538 24206 net.cpp:382] ip2 -> ip2
I0428 19:39:05.150662 24206 net.cpp:124] Setting up ip2
I0428 19:39:05.150673 24206 net.cpp:131] Top shape: 64 50 (3200)
I0428 19:39:05.150681 24206 net.cpp:139] Memory required for data: 628480
I0428 19:39:05.150691 24206 layer_factory.hpp:77] Creating layer relu2
I0428 19:39:05.150703 24206 net.cpp:86] Creating Layer relu2
I0428 19:39:05.150709 24206 net.cpp:408] relu2 <- ip2
I0428 19:39:05.150718 24206 net.cpp:369] relu2 -> ip2 (in-place)
I0428 19:39:05.151563 24206 net.cpp:124] Setting up relu2
I0428 19:39:05.151581 24206 net.cpp:131] Top shape: 64 50 (3200)
I0428 19:39:05.151587 24206 net.cpp:139] Memory required for data: 641280
I0428 19:39:05.151594 24206 layer_factory.hpp:77] Creating layer ip3
I0428 19:39:05.151607 24206 net.cpp:86] Creating Layer ip3
I0428 19:39:05.151614 24206 net.cpp:408] ip3 <- ip2
I0428 19:39:05.151625 24206 net.cpp:382] ip3 -> ip3
I0428 19:39:05.151756 24206 net.cpp:124] Setting up ip3
I0428 19:39:05.151767 24206 net.cpp:131] Top shape: 64 10 (640)
I0428 19:39:05.151773 24206 net.cpp:139] Memory required for data: 643840
I0428 19:39:05.151789 24206 layer_factory.hpp:77] Creating layer relu3
I0428 19:39:05.151800 24206 net.cpp:86] Creating Layer relu3
I0428 19:39:05.151808 24206 net.cpp:408] relu3 <- ip3
I0428 19:39:05.151818 24206 net.cpp:369] relu3 -> ip3 (in-place)
I0428 19:39:05.152021 24206 net.cpp:124] Setting up relu3
I0428 19:39:05.152034 24206 net.cpp:131] Top shape: 64 10 (640)
I0428 19:39:05.152040 24206 net.cpp:139] Memory required for data: 646400
I0428 19:39:05.152046 24206 layer_factory.hpp:77] Creating layer loss
I0428 19:39:05.152057 24206 net.cpp:86] Creating Layer loss
I0428 19:39:05.152065 24206 net.cpp:408] loss <- ip3
I0428 19:39:05.152072 24206 net.cpp:408] loss <- label
I0428 19:39:05.152082 24206 net.cpp:382] loss -> loss
I0428 19:39:05.152110 24206 layer_factory.hpp:77] Creating layer loss
…
I0428 19:39:05.152930 24206 solver.cpp:173] Creating test net (#0) specified by net file: ECE595/mnist/train_test/var_everything2/lenet_train_test293.prototxt
I0428 19:39:05.152972 24206 net.cpp:296] The NetState phase (1) differed from the phase (0) specified by a rule in layer mnist
I0428 19:39:05.153093 24206 net.cpp:53] Initializing net from parameters: 
name: "LeNet"
state {
  phase: TEST
}
layer {
  name: "mnist"
  type: "Data"
  top: "data"
  top: "label"
  include {
    phase: TEST
  }
  transform_param {
    scale: 0.00390625
  }
  data_param {
    source: "examples/mnist/mnist_test_lmdb"
    batch_size: 100
    backend: LMDB
  }
}
layer {
  name: "conv0"
  type: "Convolution"
  bottom: "data"
  top: "conv0"
  param {
    lr_mult: 1
  }
  param {
    lr_mult: 2
  }
  convolution_param {
    num_output: 2
    kernel_size: 5
    stride: 1
    weight_filler {
      type: "xavier"
    }
    bias_filler {
      type: "constant"
    }
  }
}
layer {
  name: "pool0"
  type: "Pooling"
  bottom: "conv0"
  top: "pool0"
  pooling_param {
    pool: MAX
    kernel_size: 2
    stride: 2
  }
}
layer {
  name: "conv1"
  type: "Convolution"
  bottom: "pool0"
  top: "conv1"
  param {
    lr_mult: 1
  }
  param {
    lr_mult: 2
  }
  convolution_param {
    num_output: 2
    kernel_size: 5
    stride: 1
    weight_filler {
      type: "xavier"
    }
    bias_filler {
      type: "constant"
    }
  }
}
layer {
  name: "pool1"
  type: "Pooling"
  bottom: "conv1"
  top: "pool1"
  pooling_param {
    pool: MAX
    kernel_size: 2
    stride: 2
  }
}
layer {
  name: "ip1"
  type: "InnerProduct"
  bottom: "pool1"
  top: "ip1"
  param {
    lr_mult: 1
  }
  param {
    lr_mult: 2
  }
  inner_product_param {
    num_output: 10
    weight_filler {
      type: "xavier"
    }
    bias_filler {
      type: "constant"
    }
  }
}
layer {
  name: "relu1"
  type: "ReLU"
  bottom: "ip1"
  top: "ip1"
}
layer {
  name: "ip2"
  type: "InnerProduct"
  bottom: "ip1"
  top: "ip2"
  param {
    lr_mult: 1
  }
  param {
    lr_mult: 2
  }
  inner_product_param {
    num_output: 50
    weight_filler {
      type: "xavier"
    }
    bias_filler {
      type: "constant"
    }
  }
}
layer {
  name: "relu2"
  type: "ReLU"
  bottom: "ip2"
  top: "ip2"
}
layer {
  name: "ip3"
  type: "InnerProduct"
  bottom: "ip2"
  top: "ip3"
  param {
    lr_mult: 1
  }
  param {
    lr_mult: 2
  }
  inner_product_param {
    num_output: 10
    weight_filler {
      type: "xavier"
    }
    bias_filler {
      type: "constant"
    }
  }
}
layer {
  name: "relu3"
  type: "ReLU"
  bottom: "ip3"
  top: "ip3"
}
layer {
  name: "accuracy"
  type: "Accuracy"
  bottom: "ip3"
  bottom: "label"
  top: "accuracy"
  include {
    phase: TEST
  }
}
layer {
  name: "loss"
  type: "SoftmaxWithLoss"
  bottom: "ip3"
  bottom: "label"
  top: "loss"
}
I0428 19:39:05.153233 24206 layer_factory.hpp:77] Creating layer mnist
I0428 19:39:05.153300 24206 db_lmdb.cpp:35] Opened lmdb examples/mnist/mnist_test_lmdb
I0428 19:39:05.153324 24206 net.cpp:86] Creating Layer mnist
I0428 19:39:05.153334 24206 net.cpp:382] mnist -> data
I0428 19:39:05.153348 24206 net.cpp:382] mnist -> label
I0428 19:39:05.153491 24206 data_layer.cpp:45] output data size: 100,1,28,28
I0428 19:39:05.155825 24206 net.cpp:124] Setting up mnist
I0428 19:39:05.155843 24206 net.cpp:131] Top shape: 100 1 28 28 (78400)
I0428 19:39:05.155853 24206 net.cpp:131] Top shape: 100 (100)
I0428 19:39:05.155859 24206 net.cpp:139] Memory required for data: 314000
I0428 19:39:05.155866 24206 layer_factory.hpp:77] Creating layer label_mnist_1_split
I0428 19:39:05.155879 24206 net.cpp:86] Creating Layer label_mnist_1_split
I0428 19:39:05.155885 24206 net.cpp:408] label_mnist_1_split <- label
I0428 19:39:05.155894 24206 net.cpp:382] label_mnist_1_split -> label_mnist_1_split_0
I0428 19:39:05.155907 24206 net.cpp:382] label_mnist_1_split -> label_mnist_1_split_1
I0428 19:39:05.156007 24206 net.cpp:124] Setting up label_mnist_1_split
I0428 19:39:05.156018 24206 net.cpp:131] Top shape: 100 (100)
I0428 19:39:05.156026 24206 net.cpp:131] Top shape: 100 (100)
I0428 19:39:05.156033 24206 net.cpp:139] Memory required for data: 314800
I0428 19:39:05.156038 24206 layer_factory.hpp:77] Creating layer conv0
I0428 19:39:05.156054 24206 net.cpp:86] Creating Layer conv0
I0428 19:39:05.156062 24206 net.cpp:408] conv0 <- data
I0428 19:39:05.156074 24206 net.cpp:382] conv0 -> conv0
I0428 19:39:05.157647 24206 net.cpp:124] Setting up conv0
I0428 19:39:05.157666 24206 net.cpp:131] Top shape: 100 2 24 24 (115200)
I0428 19:39:05.157675 24206 net.cpp:139] Memory required for data: 775600
I0428 19:39:05.157691 24206 layer_factory.hpp:77] Creating layer pool0
I0428 19:39:05.157702 24206 net.cpp:86] Creating Layer pool0
I0428 19:39:05.157711 24206 net.cpp:408] pool0 <- conv0
I0428 19:39:05.157721 24206 net.cpp:382] pool0 -> pool0
I0428 19:39:05.157776 24206 net.cpp:124] Setting up pool0
I0428 19:39:05.157788 24206 net.cpp:131] Top shape: 100 2 12 12 (28800)
I0428 19:39:05.157794 24206 net.cpp:139] Memory required for data: 890800
I0428 19:39:05.157801 24206 layer_factory.hpp:77] Creating layer conv1
I0428 19:39:05.157816 24206 net.cpp:86] Creating Layer conv1
I0428 19:39:05.157825 24206 net.cpp:408] conv1 <- pool0
I0428 19:39:05.157836 24206 net.cpp:382] conv1 -> conv1
I0428 19:39:05.159478 24206 net.cpp:124] Setting up conv1
I0428 19:39:05.159497 24206 net.cpp:131] Top shape: 100 2 8 8 (12800)
I0428 19:39:05.159504 24206 net.cpp:139] Memory required for data: 942000
I0428 19:39:05.159520 24206 layer_factory.hpp:77] Creating layer pool1
I0428 19:39:05.159531 24206 net.cpp:86] Creating Layer pool1
I0428 19:39:05.159538 24206 net.cpp:408] pool1 <- conv1
I0428 19:39:05.159548 24206 net.cpp:382] pool1 -> pool1
I0428 19:39:05.159601 24206 net.cpp:124] Setting up pool1
I0428 19:39:05.159611 24206 net.cpp:131] Top shape: 100 2 4 4 (3200)
I0428 19:39:05.159618 24206 net.cpp:139] Memory required for data: 954800
I0428 19:39:05.159626 24206 layer_factory.hpp:77] Creating layer ip1
I0428 19:39:05.159638 24206 net.cpp:86] Creating Layer ip1
I0428 19:39:05.159646 24206 net.cpp:408] ip1 <- pool1
I0428 19:39:05.159656 24206 net.cpp:382] ip1 -> ip1
I0428 19:39:05.159780 24206 net.cpp:124] Setting up ip1
I0428 19:39:05.159792 24206 net.cpp:131] Top shape: 100 10 (1000)
I0428 19:39:05.159812 24206 net.cpp:139] Memory required for data: 958800
I0428 19:39:05.159827 24206 layer_factory.hpp:77] Creating layer relu1
I0428 19:39:05.159842 24206 net.cpp:86] Creating Layer relu1
I0428 19:39:05.159850 24206 net.cpp:408] relu1 <- ip1
I0428 19:39:05.159859 24206 net.cpp:369] relu1 -> ip1 (in-place)
I0428 19:39:05.160143 24206 net.cpp:124] Setting up relu1
I0428 19:39:05.160156 24206 net.cpp:131] Top shape: 100 10 (1000)
I0428 19:39:05.160162 24206 net.cpp:139] Memory required for data: 962800
I0428 19:39:05.160169 24206 layer_factory.hpp:77] Creating layer ip2
I0428 19:39:05.160182 24206 net.cpp:86] Creating Layer ip2
I0428 19:39:05.160189 24206 net.cpp:408] ip2 <- ip1
I0428 19:39:05.160200 24206 net.cpp:382] ip2 -> ip2
I0428 19:39:05.160329 24206 net.cpp:124] Setting up ip2
I0428 19:39:05.160339 24206 net.cpp:131] Top shape: 100 50 (5000)
I0428 19:39:05.160346 24206 net.cpp:139] Memory required for data: 982800
I0428 19:39:05.160357 24206 layer_factory.hpp:77] Creating layer relu2
I0428 19:39:05.160367 24206 net.cpp:86] Creating Layer relu2
I0428 19:39:05.160378 24206 net.cpp:408] relu2 <- ip2
I0428 19:39:05.160390 24206 net.cpp:369] relu2 -> ip2 (in-place)
I0428 19:39:05.160580 24206 net.cpp:124] Setting up relu2
I0428 19:39:05.160593 24206 net.cpp:131] Top shape: 100 50 (5000)
I0428 19:39:05.160599 24206 net.cpp:139] Memory required for data: 1002800
I0428 19:39:05.160605 24206 layer_factory.hpp:77] Creating layer ip3
I0428 19:39:05.160616 24206 net.cpp:86] Creating Layer ip3
I0428 19:39:05.160624 24206 net.cpp:408] ip3 <- ip2
I0428 19:39:05.160632 24206 net.cpp:382] ip3 -> ip3
I0428 19:39:05.160768 24206 net.cpp:124] Setting up ip3
I0428 19:39:05.160778 24206 net.cpp:131] Top shape: 100 10 (1000)
I0428 19:39:05.160784 24206 net.cpp:139] Memory required for data: 1006800
I0428 19:39:05.160799 24206 layer_factory.hpp:77] Creating layer relu3
I0428 19:39:05.160818 24206 net.cpp:86] Creating Layer relu3
I0428 19:39:05.160841 24206 net.cpp:408] relu3 <- ip3
I0428 19:39:05.160850 24206 net.cpp:369] relu3 -> ip3 (in-place)
I0428 19:39:05.161818 24206 net.cpp:124] Setting up relu3
I0428 19:39:05.161834 24206 net.cpp:131] Top shape: 100 10 (1000)
I0428 19:39:05.161837 24206 net.cpp:139] Memory required for data: 1010800
I0428 19:39:05.161841 24206 layer_factory.hpp:77] Creating layer ip3_relu3_0_split
I0428 19:39:05.161847 24206 net.cpp:86] Creating Layer ip3_relu3_0_split
I0428 19:39:05.161851 24206 net.cpp:408] ip3_relu3_0_split <- ip3
I0428 19:39:05.161859 24206 net.cpp:382] ip3_relu3_0_split -> ip3_relu3_0_split_0
I0428 19:39:05.161867 24206 net.cpp:382] ip3_relu3_0_split -> ip3_relu3_0_split_1
I0428 19:39:05.161921 24206 net.cpp:124] Setting up ip3_relu3_0_split
I0428 19:39:05.161928 24206 net.cpp:131] Top shape: 100 10 (1000)
I0428 19:39:05.161934 24206 net.cpp:131] Top shape: 100 10 (1000)
I0428 19:39:05.161938 24206 net.cpp:139] Memory required for data: 1018800
I0428 19:39:05.161942 24206 layer_factory.hpp:77] Creating layer accuracy
I0428 19:39:05.161948 24206 net.cpp:86] Creating Layer accuracy
I0428 19:39:05.161952 24206 net.cpp:408] accuracy <- ip3_relu3_0_split_0
I0428 19:39:05.161957 24206 net.cpp:408] accuracy <- label_mnist_1_split_0
I0428 19:39:05.161962 24206 net.cpp:382] accuracy -> accuracy
…
