…
I0428 19:28:03.125706 21518 net.cpp:296] The NetState phase (0) differed from the phase (1) specified by a rule in layer mnist
I0428 19:28:03.125720 21518 net.cpp:296] The NetState phase (0) differed from the phase (1) specified by a rule in layer accuracy
I0428 19:28:03.125780 21518 net.cpp:53] Initializing net from parameters: 
name: "LeNet"
state {
  phase: TRAIN
  level: 0
  stage: ""
}
layer {
  name: "mnist"
  type: "Data"
  top: "data"
  top: "label"
  include {
    phase: TRAIN
  }
  transform_param {
    scale: 0.00390625
  }
  data_param {
    source: "examples/mnist/mnist_train_lmdb"
    batch_size: 64
    backend: LMDB
  }
}
layer {
  name: "ip1"
  type: "InnerProduct"
  bottom: "data"
  top: "ip1"
  param {
    lr_mult: 1
  }
  param {
    lr_mult: 2
  }
  inner_product_param {
    num_output: 10
    weight_filler {
      type: "xavier"
    }
    bias_filler {
      type: "constant"
    }
  }
}
layer {
  name: "relu1"
  type: "ReLU"
  bottom: "ip1"
  top: "ip1"
}
layer {
  name: "ip2"
  type: "InnerProduct"
  bottom: "ip1"
  top: "ip2"
  param {
    lr_mult: 1
  }
  param {
    lr_mult: 2
  }
  inner_product_param {
    num_output: 10
    weight_filler {
      type: "xavier"
    }
    bias_filler {
      type: "constant"
    }
  }
}
layer {
  name: "relu2"
  type: "ReLU"
  bottom: "ip2"
  top: "ip2"
}
layer {
  name: "ip3"
  type: "InnerProduct"
  bottom: "ip2"
  top: "ip3"
  param {
    lr_mult: 1
  }
  param {
    lr_mult: 2
  }
  inner_product_param {
    num_output: 10
    weight_filler {
      type: "xavier"
    }
    bias_filler {
      type: "constant"
    }
  }
}
layer {
  name: "relu3"
  type: "ReLU"
  bottom: "ip3"
  top: "ip3"
}
layer {
  name: "loss"
  type: "SoftmaxWithLoss"
  bottom: "ip3"
  bottom: "label"
  top: "loss"
}
I0428 19:28:03.125844 21518 layer_factory.hpp:77] Creating layer mnist
I0428 19:28:03.125949 21518 db_lmdb.cpp:35] Opened lmdb examples/mnist/mnist_train_lmdb
I0428 19:28:03.125975 21518 net.cpp:86] Creating Layer mnist
I0428 19:28:03.125983 21518 net.cpp:382] mnist -> data
I0428 19:28:03.126008 21518 net.cpp:382] mnist -> label
I0428 19:28:03.127085 21518 data_layer.cpp:45] output data size: 64,1,28,28
I0428 19:28:03.129309 21518 net.cpp:124] Setting up mnist
I0428 19:28:03.129341 21518 net.cpp:131] Top shape: 64 1 28 28 (50176)
I0428 19:28:03.129349 21518 net.cpp:131] Top shape: 64 (64)
I0428 19:28:03.129369 21518 net.cpp:139] Memory required for data: 200960
I0428 19:28:03.129390 21518 layer_factory.hpp:77] Creating layer ip1
I0428 19:28:03.129401 21518 net.cpp:86] Creating Layer ip1
I0428 19:28:03.129415 21518 net.cpp:408] ip1 <- data
I0428 19:28:03.129429 21518 net.cpp:382] ip1 -> ip1
I0428 19:28:03.130646 21518 net.cpp:124] Setting up ip1
I0428 19:28:03.130659 21518 net.cpp:131] Top shape: 64 10 (640)
I0428 19:28:03.130666 21518 net.cpp:139] Memory required for data: 203520
I0428 19:28:03.130683 21518 layer_factory.hpp:77] Creating layer relu1
I0428 19:28:03.130698 21518 net.cpp:86] Creating Layer relu1
I0428 19:28:03.130704 21518 net.cpp:408] relu1 <- ip1
I0428 19:28:03.130712 21518 net.cpp:369] relu1 -> ip1 (in-place)
I0428 19:28:03.358533 21518 net.cpp:124] Setting up relu1
I0428 19:28:03.358563 21518 net.cpp:131] Top shape: 64 10 (640)
I0428 19:28:03.358567 21518 net.cpp:139] Memory required for data: 206080
I0428 19:28:03.358574 21518 layer_factory.hpp:77] Creating layer ip2
I0428 19:28:03.358590 21518 net.cpp:86] Creating Layer ip2
I0428 19:28:03.358613 21518 net.cpp:408] ip2 <- ip1
I0428 19:28:03.358624 21518 net.cpp:382] ip2 -> ip2
I0428 19:28:03.358731 21518 net.cpp:124] Setting up ip2
I0428 19:28:03.358741 21518 net.cpp:131] Top shape: 64 10 (640)
I0428 19:28:03.358745 21518 net.cpp:139] Memory required for data: 208640
I0428 19:28:03.358759 21518 layer_factory.hpp:77] Creating layer relu2
I0428 19:28:03.358770 21518 net.cpp:86] Creating Layer relu2
I0428 19:28:03.358777 21518 net.cpp:408] relu2 <- ip2
I0428 19:28:03.358783 21518 net.cpp:369] relu2 -> ip2 (in-place)
I0428 19:28:03.359560 21518 net.cpp:124] Setting up relu2
I0428 19:28:03.359572 21518 net.cpp:131] Top shape: 64 10 (640)
I0428 19:28:03.359577 21518 net.cpp:139] Memory required for data: 211200
I0428 19:28:03.359582 21518 layer_factory.hpp:77] Creating layer ip3
I0428 19:28:03.359592 21518 net.cpp:86] Creating Layer ip3
I0428 19:28:03.359597 21518 net.cpp:408] ip3 <- ip2
I0428 19:28:03.359606 21518 net.cpp:382] ip3 -> ip3
I0428 19:28:03.359709 21518 net.cpp:124] Setting up ip3
I0428 19:28:03.359719 21518 net.cpp:131] Top shape: 64 10 (640)
I0428 19:28:03.359724 21518 net.cpp:139] Memory required for data: 213760
I0428 19:28:03.359750 21518 layer_factory.hpp:77] Creating layer relu3
I0428 19:28:03.359758 21518 net.cpp:86] Creating Layer relu3
I0428 19:28:03.359767 21518 net.cpp:408] relu3 <- ip3
I0428 19:28:03.359774 21518 net.cpp:369] relu3 -> ip3 (in-place)
I0428 19:28:03.359936 21518 net.cpp:124] Setting up relu3
I0428 19:28:03.359946 21518 net.cpp:131] Top shape: 64 10 (640)
I0428 19:28:03.359951 21518 net.cpp:139] Memory required for data: 216320
I0428 19:28:03.359956 21518 layer_factory.hpp:77] Creating layer loss
I0428 19:28:03.359966 21518 net.cpp:86] Creating Layer loss
I0428 19:28:03.359972 21518 net.cpp:408] loss <- ip3
I0428 19:28:03.359978 21518 net.cpp:408] loss <- label
I0428 19:28:03.359987 21518 net.cpp:382] loss -> loss
I0428 19:28:03.360008 21518 layer_factory.hpp:77] Creating layer loss
…
I0428 19:28:03.361456 21518 solver.cpp:173] Creating test net (#0) specified by net file: ECE595/mnist/train_test/var_everything2/lenet_train_test12.prototxt
I0428 19:28:03.361485 21518 net.cpp:296] The NetState phase (1) differed from the phase (0) specified by a rule in layer mnist
I0428 19:28:03.361552 21518 net.cpp:53] Initializing net from parameters: 
name: "LeNet"
state {
  phase: TEST
}
layer {
  name: "mnist"
  type: "Data"
  top: "data"
  top: "label"
  include {
    phase: TEST
  }
  transform_param {
    scale: 0.00390625
  }
  data_param {
    source: "examples/mnist/mnist_test_lmdb"
    batch_size: 100
    backend: LMDB
  }
}
layer {
  name: "ip1"
  type: "InnerProduct"
  bottom: "data"
  top: "ip1"
  param {
    lr_mult: 1
  }
  param {
    lr_mult: 2
  }
  inner_product_param {
    num_output: 10
    weight_filler {
      type: "xavier"
    }
    bias_filler {
      type: "constant"
    }
  }
}
layer {
  name: "relu1"
  type: "ReLU"
  bottom: "ip1"
  top: "ip1"
}
layer {
  name: "ip2"
  type: "InnerProduct"
  bottom: "ip1"
  top: "ip2"
  param {
    lr_mult: 1
  }
  param {
    lr_mult: 2
  }
  inner_product_param {
    num_output: 10
    weight_filler {
      type: "xavier"
    }
    bias_filler {
      type: "constant"
    }
  }
}
layer {
  name: "relu2"
  type: "ReLU"
  bottom: "ip2"
  top: "ip2"
}
layer {
  name: "ip3"
  type: "InnerProduct"
  bottom: "ip2"
  top: "ip3"
  param {
    lr_mult: 1
  }
  param {
    lr_mult: 2
  }
  inner_product_param {
    num_output: 10
    weight_filler {
      type: "xavier"
    }
    bias_filler {
      type: "constant"
    }
  }
}
layer {
  name: "relu3"
  type: "ReLU"
  bottom: "ip3"
  top: "ip3"
}
layer {
  name: "accuracy"
  type: "Accuracy"
  bottom: "ip3"
  bottom: "label"
  top: "accuracy"
  include {
    phase: TEST
  }
}
layer {
  name: "loss"
  type: "SoftmaxWithLoss"
  bottom: "ip3"
  bottom: "label"
  top: "loss"
}
I0428 19:28:03.361641 21518 layer_factory.hpp:77] Creating layer mnist
I0428 19:28:03.361714 21518 db_lmdb.cpp:35] Opened lmdb examples/mnist/mnist_test_lmdb
I0428 19:28:03.361730 21518 net.cpp:86] Creating Layer mnist
I0428 19:28:03.361738 21518 net.cpp:382] mnist -> data
I0428 19:28:03.361749 21518 net.cpp:382] mnist -> label
I0428 19:28:03.361861 21518 data_layer.cpp:45] output data size: 100,1,28,28
I0428 19:28:03.364078 21518 net.cpp:124] Setting up mnist
I0428 19:28:03.364109 21518 net.cpp:131] Top shape: 100 1 28 28 (78400)
I0428 19:28:03.364117 21518 net.cpp:131] Top shape: 100 (100)
I0428 19:28:03.364123 21518 net.cpp:139] Memory required for data: 314000
I0428 19:28:03.364130 21518 layer_factory.hpp:77] Creating layer label_mnist_1_split
I0428 19:28:03.364161 21518 net.cpp:86] Creating Layer label_mnist_1_split
I0428 19:28:03.364167 21518 net.cpp:408] label_mnist_1_split <- label
I0428 19:28:03.364176 21518 net.cpp:382] label_mnist_1_split -> label_mnist_1_split_0
I0428 19:28:03.364187 21518 net.cpp:382] label_mnist_1_split -> label_mnist_1_split_1
I0428 19:28:03.364282 21518 net.cpp:124] Setting up label_mnist_1_split
I0428 19:28:03.364291 21518 net.cpp:131] Top shape: 100 (100)
I0428 19:28:03.364297 21518 net.cpp:131] Top shape: 100 (100)
I0428 19:28:03.364302 21518 net.cpp:139] Memory required for data: 314800
I0428 19:28:03.364307 21518 layer_factory.hpp:77] Creating layer ip1
I0428 19:28:03.364318 21518 net.cpp:86] Creating Layer ip1
I0428 19:28:03.364323 21518 net.cpp:408] ip1 <- data
I0428 19:28:03.364331 21518 net.cpp:382] ip1 -> ip1
I0428 19:28:03.364511 21518 net.cpp:124] Setting up ip1
I0428 19:28:03.364519 21518 net.cpp:131] Top shape: 100 10 (1000)
I0428 19:28:03.364524 21518 net.cpp:139] Memory required for data: 318800
I0428 19:28:03.364538 21518 layer_factory.hpp:77] Creating layer relu1
I0428 19:28:03.364547 21518 net.cpp:86] Creating Layer relu1
I0428 19:28:03.364553 21518 net.cpp:408] relu1 <- ip1
I0428 19:28:03.364559 21518 net.cpp:369] relu1 -> ip1 (in-place)
I0428 19:28:03.365555 21518 net.cpp:124] Setting up relu1
I0428 19:28:03.365567 21518 net.cpp:131] Top shape: 100 10 (1000)
I0428 19:28:03.365571 21518 net.cpp:139] Memory required for data: 322800
I0428 19:28:03.365592 21518 layer_factory.hpp:77] Creating layer ip2
I0428 19:28:03.365602 21518 net.cpp:86] Creating Layer ip2
I0428 19:28:03.365608 21518 net.cpp:408] ip2 <- ip1
I0428 19:28:03.365617 21518 net.cpp:382] ip2 -> ip2
I0428 19:28:03.365712 21518 net.cpp:124] Setting up ip2
I0428 19:28:03.365720 21518 net.cpp:131] Top shape: 100 10 (1000)
I0428 19:28:03.365725 21518 net.cpp:139] Memory required for data: 326800
I0428 19:28:03.365736 21518 layer_factory.hpp:77] Creating layer relu2
I0428 19:28:03.365746 21518 net.cpp:86] Creating Layer relu2
I0428 19:28:03.365751 21518 net.cpp:408] relu2 <- ip2
I0428 19:28:03.365757 21518 net.cpp:369] relu2 -> ip2 (in-place)
I0428 19:28:03.365902 21518 net.cpp:124] Setting up relu2
I0428 19:28:03.365912 21518 net.cpp:131] Top shape: 100 10 (1000)
I0428 19:28:03.365916 21518 net.cpp:139] Memory required for data: 330800
I0428 19:28:03.365921 21518 layer_factory.hpp:77] Creating layer ip3
I0428 19:28:03.365929 21518 net.cpp:86] Creating Layer ip3
I0428 19:28:03.365936 21518 net.cpp:408] ip3 <- ip2
I0428 19:28:03.365943 21518 net.cpp:382] ip3 -> ip3
I0428 19:28:03.366044 21518 net.cpp:124] Setting up ip3
I0428 19:28:03.366052 21518 net.cpp:131] Top shape: 100 10 (1000)
I0428 19:28:03.366057 21518 net.cpp:139] Memory required for data: 334800
I0428 19:28:03.366068 21518 layer_factory.hpp:77] Creating layer relu3
I0428 19:28:03.366075 21518 net.cpp:86] Creating Layer relu3
I0428 19:28:03.366081 21518 net.cpp:408] relu3 <- ip3
I0428 19:28:03.366087 21518 net.cpp:369] relu3 -> ip3 (in-place)
I0428 19:28:03.366230 21518 net.cpp:124] Setting up relu3
I0428 19:28:03.366240 21518 net.cpp:131] Top shape: 100 10 (1000)
I0428 19:28:03.366245 21518 net.cpp:139] Memory required for data: 338800
I0428 19:28:03.366250 21518 layer_factory.hpp:77] Creating layer ip3_relu3_0_split
I0428 19:28:03.366258 21518 net.cpp:86] Creating Layer ip3_relu3_0_split
I0428 19:28:03.366278 21518 net.cpp:408] ip3_relu3_0_split <- ip3
I0428 19:28:03.366286 21518 net.cpp:382] ip3_relu3_0_split -> ip3_relu3_0_split_0
I0428 19:28:03.366294 21518 net.cpp:382] ip3_relu3_0_split -> ip3_relu3_0_split_1
I0428 19:28:03.366334 21518 net.cpp:124] Setting up ip3_relu3_0_split
I0428 19:28:03.366341 21518 net.cpp:131] Top shape: 100 10 (1000)
I0428 19:28:03.366350 21518 net.cpp:131] Top shape: 100 10 (1000)
I0428 19:28:03.366355 21518 net.cpp:139] Memory required for data: 346800
I0428 19:28:03.366361 21518 layer_factory.hpp:77] Creating layer accuracy
I0428 19:28:03.366369 21518 net.cpp:86] Creating Layer accuracy
I0428 19:28:03.366374 21518 net.cpp:408] accuracy <- ip3_relu3_0_split_0
I0428 19:28:03.366381 21518 net.cpp:408] accuracy <- label_mnist_1_split_0
I0428 19:28:03.366390 21518 net.cpp:382] accuracy -> accuracy
…
