…
I0428 19:39:32.698590 24323 net.cpp:296] The NetState phase (0) differed from the phase (1) specified by a rule in layer mnist
I0428 19:39:32.698612 24323 net.cpp:296] The NetState phase (0) differed from the phase (1) specified by a rule in layer accuracy
I0428 19:39:32.698729 24323 net.cpp:53] Initializing net from parameters: 
name: "LeNet"
state {
  phase: TRAIN
  level: 0
  stage: ""
}
layer {
  name: "mnist"
  type: "Data"
  top: "data"
  top: "label"
  include {
    phase: TRAIN
  }
  transform_param {
    scale: 0.00390625
  }
  data_param {
    source: "examples/mnist/mnist_train_lmdb"
    batch_size: 64
    backend: LMDB
  }
}
layer {
  name: "conv0"
  type: "Convolution"
  bottom: "data"
  top: "conv0"
  param {
    lr_mult: 1
  }
  param {
    lr_mult: 2
  }
  convolution_param {
    num_output: 2
    kernel_size: 5
    stride: 1
    weight_filler {
      type: "xavier"
    }
    bias_filler {
      type: "constant"
    }
  }
}
layer {
  name: "pool0"
  type: "Pooling"
  bottom: "conv0"
  top: "pool0"
  pooling_param {
    pool: MAX
    kernel_size: 2
    stride: 2
  }
}
layer {
  name: "conv1"
  type: "Convolution"
  bottom: "pool0"
  top: "conv1"
  param {
    lr_mult: 1
  }
  param {
    lr_mult: 2
  }
  convolution_param {
    num_output: 2
    kernel_size: 5
    stride: 1
    weight_filler {
      type: "xavier"
    }
    bias_filler {
      type: "constant"
    }
  }
}
layer {
  name: "pool1"
  type: "Pooling"
  bottom: "conv1"
  top: "pool1"
  pooling_param {
    pool: MAX
    kernel_size: 2
    stride: 2
  }
}
layer {
  name: "ip1"
  type: "InnerProduct"
  bottom: "pool1"
  top: "ip1"
  param {
    lr_mult: 1
  }
  param {
    lr_mult: 2
  }
  inner_product_param {
    num_output: 50
    weight_filler {
      type: "xavier"
    }
    bias_filler {
      type: "constant"
    }
  }
}
layer {
  name: "relu1"
  type: "ReLU"
  bottom: "ip1"
  top: "ip1"
}
layer {
  name: "ip2"
  type: "InnerProduct"
  bottom: "ip1"
  top: "ip2"
  param {
    lr_mult: 1
  }
  param {
    lr_mult: 2
  }
  inner_product_param {
    num_output: 25
    weight_filler {
      type: "xavier"
    }
    bias_filler {
      type: "constant"
    }
  }
}
layer {
  name: "relu2"
  type: "ReLU"
  bottom: "ip2"
  top: "ip2"
}
layer {
  name: "ip3"
  type: "InnerProduct"
  bottom: "ip2"
  top: "ip3"
  param {
    lr_mult: 1
  }
  param {
    lr_mult: 2
  }
  inner_product_param {
    num_output: 10
    weight_filler {
      type: "xavier"
    }
    bias_filler {
      type: "constant"
    }
  }
}
layer {
  name: "relu3"
  type: "ReLU"
  bottom: "ip3"
  top: "ip3"
}
layer {
  name: "loss"
  type: "SoftmaxWithLoss"
  bottom: "ip3"
  bottom: "label"
  top: "loss"
}
I0428 19:39:32.698846 24323 layer_factory.hpp:77] Creating layer mnist
I0428 19:39:32.698976 24323 db_lmdb.cpp:35] Opened lmdb examples/mnist/mnist_train_lmdb
I0428 19:39:32.699009 24323 net.cpp:86] Creating Layer mnist
I0428 19:39:32.699024 24323 net.cpp:382] mnist -> data
I0428 19:39:32.699054 24323 net.cpp:382] mnist -> label
I0428 19:39:32.700320 24323 data_layer.cpp:45] output data size: 64,1,28,28
I0428 19:39:32.702806 24323 net.cpp:124] Setting up mnist
I0428 19:39:32.702829 24323 net.cpp:131] Top shape: 64 1 28 28 (50176)
I0428 19:39:32.702841 24323 net.cpp:131] Top shape: 64 (64)
I0428 19:39:32.702847 24323 net.cpp:139] Memory required for data: 200960
I0428 19:39:32.702857 24323 layer_factory.hpp:77] Creating layer conv0
I0428 19:39:32.702880 24323 net.cpp:86] Creating Layer conv0
I0428 19:39:32.702904 24323 net.cpp:408] conv0 <- data
I0428 19:39:32.702924 24323 net.cpp:382] conv0 -> conv0
I0428 19:39:32.985153 24323 net.cpp:124] Setting up conv0
I0428 19:39:32.985183 24323 net.cpp:131] Top shape: 64 2 24 24 (73728)
I0428 19:39:32.985190 24323 net.cpp:139] Memory required for data: 495872
I0428 19:39:32.985210 24323 layer_factory.hpp:77] Creating layer pool0
I0428 19:39:32.985227 24323 net.cpp:86] Creating Layer pool0
I0428 19:39:32.985241 24323 net.cpp:408] pool0 <- conv0
I0428 19:39:32.985251 24323 net.cpp:382] pool0 -> pool0
I0428 19:39:32.985308 24323 net.cpp:124] Setting up pool0
I0428 19:39:32.985318 24323 net.cpp:131] Top shape: 64 2 12 12 (18432)
I0428 19:39:32.985333 24323 net.cpp:139] Memory required for data: 569600
I0428 19:39:32.985338 24323 layer_factory.hpp:77] Creating layer conv1
I0428 19:39:32.985353 24323 net.cpp:86] Creating Layer conv1
I0428 19:39:32.985360 24323 net.cpp:408] conv1 <- pool0
I0428 19:39:32.985369 24323 net.cpp:382] conv1 -> conv1
I0428 19:39:32.987140 24323 net.cpp:124] Setting up conv1
I0428 19:39:32.987155 24323 net.cpp:131] Top shape: 64 2 8 8 (8192)
I0428 19:39:32.987161 24323 net.cpp:139] Memory required for data: 602368
I0428 19:39:32.987175 24323 layer_factory.hpp:77] Creating layer pool1
I0428 19:39:32.987186 24323 net.cpp:86] Creating Layer pool1
I0428 19:39:32.987191 24323 net.cpp:408] pool1 <- conv1
I0428 19:39:32.987201 24323 net.cpp:382] pool1 -> pool1
I0428 19:39:32.987251 24323 net.cpp:124] Setting up pool1
I0428 19:39:32.987259 24323 net.cpp:131] Top shape: 64 2 4 4 (2048)
I0428 19:39:32.987265 24323 net.cpp:139] Memory required for data: 610560
I0428 19:39:32.987269 24323 layer_factory.hpp:77] Creating layer ip1
I0428 19:39:32.987282 24323 net.cpp:86] Creating Layer ip1
I0428 19:39:32.987289 24323 net.cpp:408] ip1 <- pool1
I0428 19:39:32.987298 24323 net.cpp:382] ip1 -> ip1
I0428 19:39:32.988247 24323 net.cpp:124] Setting up ip1
I0428 19:39:32.988261 24323 net.cpp:131] Top shape: 64 50 (3200)
I0428 19:39:32.988266 24323 net.cpp:139] Memory required for data: 623360
I0428 19:39:32.988279 24323 layer_factory.hpp:77] Creating layer relu1
I0428 19:39:32.988289 24323 net.cpp:86] Creating Layer relu1
I0428 19:39:32.988301 24323 net.cpp:408] relu1 <- ip1
I0428 19:39:32.988308 24323 net.cpp:369] relu1 -> ip1 (in-place)
I0428 19:39:32.988487 24323 net.cpp:124] Setting up relu1
I0428 19:39:32.988497 24323 net.cpp:131] Top shape: 64 50 (3200)
I0428 19:39:32.988502 24323 net.cpp:139] Memory required for data: 636160
I0428 19:39:32.988507 24323 layer_factory.hpp:77] Creating layer ip2
I0428 19:39:32.988519 24323 net.cpp:86] Creating Layer ip2
I0428 19:39:32.988524 24323 net.cpp:408] ip2 <- ip1
I0428 19:39:32.988533 24323 net.cpp:382] ip2 -> ip2
I0428 19:39:32.988643 24323 net.cpp:124] Setting up ip2
I0428 19:39:32.988652 24323 net.cpp:131] Top shape: 64 25 (1600)
I0428 19:39:32.988657 24323 net.cpp:139] Memory required for data: 642560
I0428 19:39:32.988665 24323 layer_factory.hpp:77] Creating layer relu2
I0428 19:39:32.988675 24323 net.cpp:86] Creating Layer relu2
I0428 19:39:32.988682 24323 net.cpp:408] relu2 <- ip2
I0428 19:39:32.988687 24323 net.cpp:369] relu2 -> ip2 (in-place)
I0428 19:39:32.989447 24323 net.cpp:124] Setting up relu2
I0428 19:39:32.989461 24323 net.cpp:131] Top shape: 64 25 (1600)
I0428 19:39:32.989467 24323 net.cpp:139] Memory required for data: 648960
I0428 19:39:32.989472 24323 layer_factory.hpp:77] Creating layer ip3
I0428 19:39:32.989485 24323 net.cpp:86] Creating Layer ip3
I0428 19:39:32.989490 24323 net.cpp:408] ip3 <- ip2
I0428 19:39:32.989500 24323 net.cpp:382] ip3 -> ip3
I0428 19:39:32.989608 24323 net.cpp:124] Setting up ip3
I0428 19:39:32.989616 24323 net.cpp:131] Top shape: 64 10 (640)
I0428 19:39:32.989621 24323 net.cpp:139] Memory required for data: 651520
I0428 19:39:32.989634 24323 layer_factory.hpp:77] Creating layer relu3
I0428 19:39:32.989642 24323 net.cpp:86] Creating Layer relu3
I0428 19:39:32.989648 24323 net.cpp:408] relu3 <- ip3
I0428 19:39:32.989656 24323 net.cpp:369] relu3 -> ip3 (in-place)
I0428 19:39:32.989828 24323 net.cpp:124] Setting up relu3
I0428 19:39:32.989838 24323 net.cpp:131] Top shape: 64 10 (640)
I0428 19:39:32.989843 24323 net.cpp:139] Memory required for data: 654080
I0428 19:39:32.989848 24323 layer_factory.hpp:77] Creating layer loss
I0428 19:39:32.989857 24323 net.cpp:86] Creating Layer loss
I0428 19:39:32.989862 24323 net.cpp:408] loss <- ip3
I0428 19:39:32.989869 24323 net.cpp:408] loss <- label
I0428 19:39:32.989878 24323 net.cpp:382] loss -> loss
I0428 19:39:32.989900 24323 layer_factory.hpp:77] Creating layer loss
…
I0428 19:39:32.990631 24323 solver.cpp:173] Creating test net (#0) specified by net file: ECE595/mnist/train_test/var_everything2/lenet_train_test307.prototxt
I0428 19:39:32.990664 24323 net.cpp:296] The NetState phase (1) differed from the phase (0) specified by a rule in layer mnist
I0428 19:39:32.990761 24323 net.cpp:53] Initializing net from parameters: 
name: "LeNet"
state {
  phase: TEST
}
layer {
  name: "mnist"
  type: "Data"
  top: "data"
  top: "label"
  include {
    phase: TEST
  }
  transform_param {
    scale: 0.00390625
  }
  data_param {
    source: "examples/mnist/mnist_test_lmdb"
    batch_size: 100
    backend: LMDB
  }
}
layer {
  name: "conv0"
  type: "Convolution"
  bottom: "data"
  top: "conv0"
  param {
    lr_mult: 1
  }
  param {
    lr_mult: 2
  }
  convolution_param {
    num_output: 2
    kernel_size: 5
    stride: 1
    weight_filler {
      type: "xavier"
    }
    bias_filler {
      type: "constant"
    }
  }
}
layer {
  name: "pool0"
  type: "Pooling"
  bottom: "conv0"
  top: "pool0"
  pooling_param {
    pool: MAX
    kernel_size: 2
    stride: 2
  }
}
layer {
  name: "conv1"
  type: "Convolution"
  bottom: "pool0"
  top: "conv1"
  param {
    lr_mult: 1
  }
  param {
    lr_mult: 2
  }
  convolution_param {
    num_output: 2
    kernel_size: 5
    stride: 1
    weight_filler {
      type: "xavier"
    }
    bias_filler {
      type: "constant"
    }
  }
}
layer {
  name: "pool1"
  type: "Pooling"
  bottom: "conv1"
  top: "pool1"
  pooling_param {
    pool: MAX
    kernel_size: 2
    stride: 2
  }
}
layer {
  name: "ip1"
  type: "InnerProduct"
  bottom: "pool1"
  top: "ip1"
  param {
    lr_mult: 1
  }
  param {
    lr_mult: 2
  }
  inner_product_param {
    num_output: 50
    weight_filler {
      type: "xavier"
    }
    bias_filler {
      type: "constant"
    }
  }
}
layer {
  name: "relu1"
  type: "ReLU"
  bottom: "ip1"
  top: "ip1"
}
layer {
  name: "ip2"
  type: "InnerProduct"
  bottom: "ip1"
  top: "ip2"
  param {
    lr_mult: 1
  }
  param {
    lr_mult: 2
  }
  inner_product_param {
    num_output: 25
    weight_filler {
      type: "xavier"
    }
    bias_filler {
      type: "constant"
    }
  }
}
layer {
  name: "relu2"
  type: "ReLU"
  bottom: "ip2"
  top: "ip2"
}
layer {
  name: "ip3"
  type: "InnerProduct"
  bottom: "ip2"
  top: "ip3"
  param {
    lr_mult: 1
  }
  param {
    lr_mult: 2
  }
  inner_product_param {
    num_output: 10
    weight_filler {
      type: "xavier"
    }
    bias_filler {
      type: "constant"
    }
  }
}
layer {
  name: "relu3"
  type: "ReLU"
  bottom: "ip3"
  top: "ip3"
}
layer {
  name: "accuracy"
  type: "Accuracy"
  bottom: "ip3"
  bottom: "label"
  top: "accuracy"
  include {
    phase: TEST
  }
}
layer {
  name: "loss"
  type: "SoftmaxWithLoss"
  bottom: "ip3"
  bottom: "label"
  top: "loss"
}
I0428 19:39:32.990875 24323 layer_factory.hpp:77] Creating layer mnist
I0428 19:39:32.990933 24323 db_lmdb.cpp:35] Opened lmdb examples/mnist/mnist_test_lmdb
I0428 19:39:32.990952 24323 net.cpp:86] Creating Layer mnist
I0428 19:39:32.990958 24323 net.cpp:382] mnist -> data
I0428 19:39:32.990972 24323 net.cpp:382] mnist -> label
I0428 19:39:32.991091 24323 data_layer.cpp:45] output data size: 100,1,28,28
I0428 19:39:32.993206 24323 net.cpp:124] Setting up mnist
I0428 19:39:32.993221 24323 net.cpp:131] Top shape: 100 1 28 28 (78400)
I0428 19:39:32.993229 24323 net.cpp:131] Top shape: 100 (100)
I0428 19:39:32.993234 24323 net.cpp:139] Memory required for data: 314000
I0428 19:39:32.993239 24323 layer_factory.hpp:77] Creating layer label_mnist_1_split
I0428 19:39:32.993263 24323 net.cpp:86] Creating Layer label_mnist_1_split
I0428 19:39:32.993270 24323 net.cpp:408] label_mnist_1_split <- label
I0428 19:39:32.993278 24323 net.cpp:382] label_mnist_1_split -> label_mnist_1_split_0
I0428 19:39:32.993291 24323 net.cpp:382] label_mnist_1_split -> label_mnist_1_split_1
I0428 19:39:32.993381 24323 net.cpp:124] Setting up label_mnist_1_split
I0428 19:39:32.993391 24323 net.cpp:131] Top shape: 100 (100)
I0428 19:39:32.993397 24323 net.cpp:131] Top shape: 100 (100)
I0428 19:39:32.993402 24323 net.cpp:139] Memory required for data: 314800
I0428 19:39:32.993408 24323 layer_factory.hpp:77] Creating layer conv0
I0428 19:39:32.993424 24323 net.cpp:86] Creating Layer conv0
I0428 19:39:32.993445 24323 net.cpp:408] conv0 <- data
I0428 19:39:32.993454 24323 net.cpp:382] conv0 -> conv0
I0428 19:39:32.995081 24323 net.cpp:124] Setting up conv0
I0428 19:39:32.995097 24323 net.cpp:131] Top shape: 100 2 24 24 (115200)
I0428 19:39:32.995102 24323 net.cpp:139] Memory required for data: 775600
I0428 19:39:32.995115 24323 layer_factory.hpp:77] Creating layer pool0
I0428 19:39:32.995127 24323 net.cpp:86] Creating Layer pool0
I0428 19:39:32.995133 24323 net.cpp:408] pool0 <- conv0
I0428 19:39:32.995142 24323 net.cpp:382] pool0 -> pool0
I0428 19:39:32.995184 24323 net.cpp:124] Setting up pool0
I0428 19:39:32.995193 24323 net.cpp:131] Top shape: 100 2 12 12 (28800)
I0428 19:39:32.995198 24323 net.cpp:139] Memory required for data: 890800
I0428 19:39:32.995203 24323 layer_factory.hpp:77] Creating layer conv1
I0428 19:39:32.995218 24323 net.cpp:86] Creating Layer conv1
I0428 19:39:32.995223 24323 net.cpp:408] conv1 <- pool0
I0428 19:39:32.995234 24323 net.cpp:382] conv1 -> conv1
I0428 19:39:32.996925 24323 net.cpp:124] Setting up conv1
I0428 19:39:32.996942 24323 net.cpp:131] Top shape: 100 2 8 8 (12800)
I0428 19:39:32.996948 24323 net.cpp:139] Memory required for data: 942000
I0428 19:39:32.996978 24323 layer_factory.hpp:77] Creating layer pool1
I0428 19:39:32.997004 24323 net.cpp:86] Creating Layer pool1
I0428 19:39:32.997010 24323 net.cpp:408] pool1 <- conv1
I0428 19:39:32.997020 24323 net.cpp:382] pool1 -> pool1
I0428 19:39:32.997067 24323 net.cpp:124] Setting up pool1
I0428 19:39:32.997076 24323 net.cpp:131] Top shape: 100 2 4 4 (3200)
I0428 19:39:32.997081 24323 net.cpp:139] Memory required for data: 954800
I0428 19:39:32.997087 24323 layer_factory.hpp:77] Creating layer ip1
I0428 19:39:32.997099 24323 net.cpp:86] Creating Layer ip1
I0428 19:39:32.997120 24323 net.cpp:408] ip1 <- pool1
I0428 19:39:32.997130 24323 net.cpp:382] ip1 -> ip1
I0428 19:39:32.997248 24323 net.cpp:124] Setting up ip1
I0428 19:39:32.997258 24323 net.cpp:131] Top shape: 100 50 (5000)
I0428 19:39:32.997275 24323 net.cpp:139] Memory required for data: 974800
I0428 19:39:32.997288 24323 layer_factory.hpp:77] Creating layer relu1
I0428 19:39:32.997298 24323 net.cpp:86] Creating Layer relu1
I0428 19:39:32.997303 24323 net.cpp:408] relu1 <- ip1
I0428 19:39:32.997313 24323 net.cpp:369] relu1 -> ip1 (in-place)
I0428 19:39:32.997506 24323 net.cpp:124] Setting up relu1
I0428 19:39:32.997517 24323 net.cpp:131] Top shape: 100 50 (5000)
I0428 19:39:32.997524 24323 net.cpp:139] Memory required for data: 994800
I0428 19:39:32.997529 24323 layer_factory.hpp:77] Creating layer ip2
I0428 19:39:32.997540 24323 net.cpp:86] Creating Layer ip2
I0428 19:39:32.997545 24323 net.cpp:408] ip2 <- ip1
I0428 19:39:32.997556 24323 net.cpp:382] ip2 -> ip2
I0428 19:39:32.997694 24323 net.cpp:124] Setting up ip2
I0428 19:39:32.997702 24323 net.cpp:131] Top shape: 100 25 (2500)
I0428 19:39:32.997707 24323 net.cpp:139] Memory required for data: 1004800
I0428 19:39:32.997715 24323 layer_factory.hpp:77] Creating layer relu2
I0428 19:39:32.997723 24323 net.cpp:86] Creating Layer relu2
I0428 19:39:32.997728 24323 net.cpp:408] relu2 <- ip2
I0428 19:39:32.997737 24323 net.cpp:369] relu2 -> ip2 (in-place)
I0428 19:39:32.998054 24323 net.cpp:124] Setting up relu2
I0428 19:39:32.998065 24323 net.cpp:131] Top shape: 100 25 (2500)
I0428 19:39:32.998085 24323 net.cpp:139] Memory required for data: 1014800
I0428 19:39:32.998090 24323 layer_factory.hpp:77] Creating layer ip3
I0428 19:39:32.998101 24323 net.cpp:86] Creating Layer ip3
I0428 19:39:32.998107 24323 net.cpp:408] ip3 <- ip2
I0428 19:39:32.998116 24323 net.cpp:382] ip3 -> ip3
I0428 19:39:32.998226 24323 net.cpp:124] Setting up ip3
I0428 19:39:32.998235 24323 net.cpp:131] Top shape: 100 10 (1000)
I0428 19:39:32.998241 24323 net.cpp:139] Memory required for data: 1018800
I0428 19:39:32.998255 24323 layer_factory.hpp:77] Creating layer relu3
I0428 19:39:32.998266 24323 net.cpp:86] Creating Layer relu3
I0428 19:39:32.998272 24323 net.cpp:408] relu3 <- ip3
I0428 19:39:32.998280 24323 net.cpp:369] relu3 -> ip3 (in-place)
I0428 19:39:32.999197 24323 net.cpp:124] Setting up relu3
I0428 19:39:32.999212 24323 net.cpp:131] Top shape: 100 10 (1000)
I0428 19:39:32.999217 24323 net.cpp:139] Memory required for data: 1022800
I0428 19:39:32.999222 24323 layer_factory.hpp:77] Creating layer ip3_relu3_0_split
I0428 19:39:32.999230 24323 net.cpp:86] Creating Layer ip3_relu3_0_split
I0428 19:39:32.999235 24323 net.cpp:408] ip3_relu3_0_split <- ip3
I0428 19:39:32.999243 24323 net.cpp:382] ip3_relu3_0_split -> ip3_relu3_0_split_0
I0428 19:39:32.999253 24323 net.cpp:382] ip3_relu3_0_split -> ip3_relu3_0_split_1
I0428 19:39:32.999299 24323 net.cpp:124] Setting up ip3_relu3_0_split
I0428 19:39:32.999306 24323 net.cpp:131] Top shape: 100 10 (1000)
I0428 19:39:32.999313 24323 net.cpp:131] Top shape: 100 10 (1000)
I0428 19:39:32.999317 24323 net.cpp:139] Memory required for data: 1030800
I0428 19:39:32.999325 24323 layer_factory.hpp:77] Creating layer accuracy
I0428 19:39:32.999332 24323 net.cpp:86] Creating Layer accuracy
I0428 19:39:32.999337 24323 net.cpp:408] accuracy <- ip3_relu3_0_split_0
I0428 19:39:32.999351 24323 net.cpp:408] accuracy <- label_mnist_1_split_0
I0428 19:39:32.999359 24323 net.cpp:382] accuracy -> accuracy
…
