…
I0428 20:31:40.929697  3988 net.cpp:296] The NetState phase (0) differed from the phase (1) specified by a rule in layer mnist
I0428 20:31:40.929724  3988 net.cpp:296] The NetState phase (0) differed from the phase (1) specified by a rule in layer accuracy
I0428 20:31:40.929838  3988 net.cpp:53] Initializing net from parameters: 
name: "LeNet"
state {
  phase: TRAIN
  level: 0
  stage: ""
}
layer {
  name: "mnist"
  type: "Data"
  top: "data"
  top: "label"
  include {
    phase: TRAIN
  }
  transform_param {
    scale: 0.00390625
  }
  data_param {
    source: "examples/mnist/mnist_train_lmdb"
    batch_size: 64
    backend: LMDB
  }
}
layer {
  name: "conv0"
  type: "Convolution"
  bottom: "data"
  top: "conv0"
  param {
    lr_mult: 1
  }
  param {
    lr_mult: 2
  }
  convolution_param {
    num_output: 100
    kernel_size: 5
    stride: 1
    weight_filler {
      type: "xavier"
    }
    bias_filler {
      type: "constant"
    }
  }
}
layer {
  name: "pool0"
  type: "Pooling"
  bottom: "conv0"
  top: "pool0"
  pooling_param {
    pool: MAX
    kernel_size: 2
    stride: 2
  }
}
layer {
  name: "conv1"
  type: "Convolution"
  bottom: "pool0"
  top: "conv1"
  param {
    lr_mult: 1
  }
  param {
    lr_mult: 2
  }
  convolution_param {
    num_output: 10
    kernel_size: 5
    stride: 1
    weight_filler {
      type: "xavier"
    }
    bias_filler {
      type: "constant"
    }
  }
}
layer {
  name: "pool1"
  type: "Pooling"
  bottom: "conv1"
  top: "pool1"
  pooling_param {
    pool: MAX
    kernel_size: 2
    stride: 2
  }
}
layer {
  name: "ip1"
  type: "InnerProduct"
  bottom: "pool1"
  top: "ip1"
  param {
    lr_mult: 1
  }
  param {
    lr_mult: 2
  }
  inner_product_param {
    num_output: 50
    weight_filler {
      type: "xavier"
    }
    bias_filler {
      type: "constant"
    }
  }
}
layer {
  name: "relu1"
  type: "ReLU"
  bottom: "ip1"
  top: "ip1"
}
layer {
  name: "ip2"
  type: "InnerProduct"
  bottom: "ip1"
  top: "ip2"
  param {
    lr_mult: 1
  }
  param {
    lr_mult: 2
  }
  inner_product_param {
    num_output: 50
    weight_filler {
      type: "xavier"
    }
    bias_filler {
      type: "constant"
    }
  }
}
layer {
  name: "relu2"
  type: "ReLU"
  bottom: "ip2"
  top: "ip2"
}
layer {
  name: "ip3"
  type: "InnerProduct"
  bottom: "ip2"
  top: "ip3"
  param {
    lr_mult: 1
  }
  param {
    lr_mult: 2
  }
  inner_product_param {
    num_output: 10
    weight_filler {
      type: "xavier"
    }
    bias_filler {
      type: "constant"
    }
  }
}
layer {
  name: "relu3"
  type: "ReLU"
  bottom: "ip3"
  top: "ip3"
}
layer {
  name: "loss"
  type: "SoftmaxWithLoss"
  bottom: "ip3"
  bottom: "label"
  top: "loss"
}
I0428 20:31:40.929955  3988 layer_factory.hpp:77] Creating layer mnist
I0428 20:31:40.930085  3988 db_lmdb.cpp:35] Opened lmdb examples/mnist/mnist_train_lmdb
I0428 20:31:40.930119  3988 net.cpp:86] Creating Layer mnist
I0428 20:31:40.930135  3988 net.cpp:382] mnist -> data
I0428 20:31:40.930166  3988 net.cpp:382] mnist -> label
I0428 20:31:40.931452  3988 data_layer.cpp:45] output data size: 64,1,28,28
I0428 20:31:40.933943  3988 net.cpp:124] Setting up mnist
I0428 20:31:40.933964  3988 net.cpp:131] Top shape: 64 1 28 28 (50176)
I0428 20:31:40.933974  3988 net.cpp:131] Top shape: 64 (64)
I0428 20:31:40.933980  3988 net.cpp:139] Memory required for data: 200960
I0428 20:31:40.933991  3988 layer_factory.hpp:77] Creating layer conv0
I0428 20:31:40.934016  3988 net.cpp:86] Creating Layer conv0
I0428 20:31:40.934041  3988 net.cpp:408] conv0 <- data
I0428 20:31:40.934063  3988 net.cpp:382] conv0 -> conv0
I0428 20:31:41.228003  3988 net.cpp:124] Setting up conv0
I0428 20:31:41.228036  3988 net.cpp:131] Top shape: 64 100 24 24 (3686400)
I0428 20:31:41.228044  3988 net.cpp:139] Memory required for data: 14946560
I0428 20:31:41.228067  3988 layer_factory.hpp:77] Creating layer pool0
I0428 20:31:41.228087  3988 net.cpp:86] Creating Layer pool0
I0428 20:31:41.228096  3988 net.cpp:408] pool0 <- conv0
I0428 20:31:41.228108  3988 net.cpp:382] pool0 -> pool0
I0428 20:31:41.228181  3988 net.cpp:124] Setting up pool0
I0428 20:31:41.228193  3988 net.cpp:131] Top shape: 64 100 12 12 (921600)
I0428 20:31:41.228199  3988 net.cpp:139] Memory required for data: 18632960
I0428 20:31:41.228205  3988 layer_factory.hpp:77] Creating layer conv1
I0428 20:31:41.228224  3988 net.cpp:86] Creating Layer conv1
I0428 20:31:41.228232  3988 net.cpp:408] conv1 <- pool0
I0428 20:31:41.228243  3988 net.cpp:382] conv1 -> conv1
I0428 20:31:41.230569  3988 net.cpp:124] Setting up conv1
I0428 20:31:41.230589  3988 net.cpp:131] Top shape: 64 10 8 8 (40960)
I0428 20:31:41.230597  3988 net.cpp:139] Memory required for data: 18796800
I0428 20:31:41.230613  3988 layer_factory.hpp:77] Creating layer pool1
I0428 20:31:41.230628  3988 net.cpp:86] Creating Layer pool1
I0428 20:31:41.230635  3988 net.cpp:408] pool1 <- conv1
I0428 20:31:41.230645  3988 net.cpp:382] pool1 -> pool1
I0428 20:31:41.230697  3988 net.cpp:124] Setting up pool1
I0428 20:31:41.230710  3988 net.cpp:131] Top shape: 64 10 4 4 (10240)
I0428 20:31:41.230715  3988 net.cpp:139] Memory required for data: 18837760
I0428 20:31:41.230721  3988 layer_factory.hpp:77] Creating layer ip1
I0428 20:31:41.230736  3988 net.cpp:86] Creating Layer ip1
I0428 20:31:41.230742  3988 net.cpp:408] ip1 <- pool1
I0428 20:31:41.230752  3988 net.cpp:382] ip1 -> ip1
I0428 20:31:41.231915  3988 net.cpp:124] Setting up ip1
I0428 20:31:41.231932  3988 net.cpp:131] Top shape: 64 50 (3200)
I0428 20:31:41.231940  3988 net.cpp:139] Memory required for data: 18850560
I0428 20:31:41.231956  3988 layer_factory.hpp:77] Creating layer relu1
I0428 20:31:41.231967  3988 net.cpp:86] Creating Layer relu1
I0428 20:31:41.231981  3988 net.cpp:408] relu1 <- ip1
I0428 20:31:41.231992  3988 net.cpp:369] relu1 -> ip1 (in-place)
I0428 20:31:41.232201  3988 net.cpp:124] Setting up relu1
I0428 20:31:41.232213  3988 net.cpp:131] Top shape: 64 50 (3200)
I0428 20:31:41.232220  3988 net.cpp:139] Memory required for data: 18863360
I0428 20:31:41.232228  3988 layer_factory.hpp:77] Creating layer ip2
I0428 20:31:41.232239  3988 net.cpp:86] Creating Layer ip2
I0428 20:31:41.232246  3988 net.cpp:408] ip2 <- ip1
I0428 20:31:41.232257  3988 net.cpp:382] ip2 -> ip2
I0428 20:31:41.232403  3988 net.cpp:124] Setting up ip2
I0428 20:31:41.232414  3988 net.cpp:131] Top shape: 64 50 (3200)
I0428 20:31:41.232421  3988 net.cpp:139] Memory required for data: 18876160
I0428 20:31:41.232432  3988 layer_factory.hpp:77] Creating layer relu2
I0428 20:31:41.232445  3988 net.cpp:86] Creating Layer relu2
I0428 20:31:41.232455  3988 net.cpp:408] relu2 <- ip2
I0428 20:31:41.232465  3988 net.cpp:369] relu2 -> ip2 (in-place)
I0428 20:31:41.233341  3988 net.cpp:124] Setting up relu2
I0428 20:31:41.233359  3988 net.cpp:131] Top shape: 64 50 (3200)
I0428 20:31:41.233366  3988 net.cpp:139] Memory required for data: 18888960
I0428 20:31:41.233373  3988 layer_factory.hpp:77] Creating layer ip3
I0428 20:31:41.233386  3988 net.cpp:86] Creating Layer ip3
I0428 20:31:41.233393  3988 net.cpp:408] ip3 <- ip2
I0428 20:31:41.233405  3988 net.cpp:382] ip3 -> ip3
I0428 20:31:41.233535  3988 net.cpp:124] Setting up ip3
I0428 20:31:41.233546  3988 net.cpp:131] Top shape: 64 10 (640)
I0428 20:31:41.233552  3988 net.cpp:139] Memory required for data: 18891520
I0428 20:31:41.233567  3988 layer_factory.hpp:77] Creating layer relu3
I0428 20:31:41.233578  3988 net.cpp:86] Creating Layer relu3
I0428 20:31:41.233585  3988 net.cpp:408] relu3 <- ip3
I0428 20:31:41.233594  3988 net.cpp:369] relu3 -> ip3 (in-place)
I0428 20:31:41.233796  3988 net.cpp:124] Setting up relu3
I0428 20:31:41.233809  3988 net.cpp:131] Top shape: 64 10 (640)
I0428 20:31:41.233815  3988 net.cpp:139] Memory required for data: 18894080
I0428 20:31:41.233822  3988 layer_factory.hpp:77] Creating layer loss
I0428 20:31:41.233834  3988 net.cpp:86] Creating Layer loss
I0428 20:31:41.233839  3988 net.cpp:408] loss <- ip3
I0428 20:31:41.233849  3988 net.cpp:408] loss <- label
I0428 20:31:41.233858  3988 net.cpp:382] loss -> loss
I0428 20:31:41.233886  3988 layer_factory.hpp:77] Creating layer loss
…
I0428 20:31:41.234709  3988 solver.cpp:173] Creating test net (#0) specified by net file: ECE595/mnist/train_test/var_everything2/lenet_train_test1559.prototxt
I0428 20:31:41.234750  3988 net.cpp:296] The NetState phase (1) differed from the phase (0) specified by a rule in layer mnist
I0428 20:31:41.234869  3988 net.cpp:53] Initializing net from parameters: 
name: "LeNet"
state {
  phase: TEST
}
layer {
  name: "mnist"
  type: "Data"
  top: "data"
  top: "label"
  include {
    phase: TEST
  }
  transform_param {
    scale: 0.00390625
  }
  data_param {
    source: "examples/mnist/mnist_test_lmdb"
    batch_size: 100
    backend: LMDB
  }
}
layer {
  name: "conv0"
  type: "Convolution"
  bottom: "data"
  top: "conv0"
  param {
    lr_mult: 1
  }
  param {
    lr_mult: 2
  }
  convolution_param {
    num_output: 100
    kernel_size: 5
    stride: 1
    weight_filler {
      type: "xavier"
    }
    bias_filler {
      type: "constant"
    }
  }
}
layer {
  name: "pool0"
  type: "Pooling"
  bottom: "conv0"
  top: "pool0"
  pooling_param {
    pool: MAX
    kernel_size: 2
    stride: 2
  }
}
layer {
  name: "conv1"
  type: "Convolution"
  bottom: "pool0"
  top: "conv1"
  param {
    lr_mult: 1
  }
  param {
    lr_mult: 2
  }
  convolution_param {
    num_output: 10
    kernel_size: 5
    stride: 1
    weight_filler {
      type: "xavier"
    }
    bias_filler {
      type: "constant"
    }
  }
}
layer {
  name: "pool1"
  type: "Pooling"
  bottom: "conv1"
  top: "pool1"
  pooling_param {
    pool: MAX
    kernel_size: 2
    stride: 2
  }
}
layer {
  name: "ip1"
  type: "InnerProduct"
  bottom: "pool1"
  top: "ip1"
  param {
    lr_mult: 1
  }
  param {
    lr_mult: 2
  }
  inner_product_param {
    num_output: 50
    weight_filler {
      type: "xavier"
    }
    bias_filler {
      type: "constant"
    }
  }
}
layer {
  name: "relu1"
  type: "ReLU"
  bottom: "ip1"
  top: "ip1"
}
layer {
  name: "ip2"
  type: "InnerProduct"
  bottom: "ip1"
  top: "ip2"
  param {
    lr_mult: 1
  }
  param {
    lr_mult: 2
  }
  inner_product_param {
    num_output: 50
    weight_filler {
      type: "xavier"
    }
    bias_filler {
      type: "constant"
    }
  }
}
layer {
  name: "relu2"
  type: "ReLU"
  bottom: "ip2"
  top: "ip2"
}
layer {
  name: "ip3"
  type: "InnerProduct"
  bottom: "ip2"
  top: "ip3"
  param {
    lr_mult: 1
  }
  param {
    lr_mult: 2
  }
  inner_product_param {
    num_output: 10
    weight_filler {
      type: "xavier"
    }
    bias_filler {
      type: "constant"
    }
  }
}
layer {
  name: "relu3"
  type: "ReLU"
  bottom: "ip3"
  top: "ip3"
}
layer {
  name: "accuracy"
  type: "Accuracy"
  bottom: "ip3"
  bottom: "label"
  top: "accuracy"
  include {
    phase: TEST
  }
}
layer {
  name: "loss"
  type: "SoftmaxWithLoss"
  bottom: "ip3"
  bottom: "label"
  top: "loss"
}
I0428 20:31:41.235004  3988 layer_factory.hpp:77] Creating layer mnist
I0428 20:31:41.235075  3988 db_lmdb.cpp:35] Opened lmdb examples/mnist/mnist_test_lmdb
I0428 20:31:41.235096  3988 net.cpp:86] Creating Layer mnist
I0428 20:31:41.235105  3988 net.cpp:382] mnist -> data
I0428 20:31:41.235121  3988 net.cpp:382] mnist -> label
I0428 20:31:41.235262  3988 data_layer.cpp:45] output data size: 100,1,28,28
I0428 20:31:41.237875  3988 net.cpp:124] Setting up mnist
I0428 20:31:41.237893  3988 net.cpp:131] Top shape: 100 1 28 28 (78400)
I0428 20:31:41.237908  3988 net.cpp:131] Top shape: 100 (100)
I0428 20:31:41.237915  3988 net.cpp:139] Memory required for data: 314000
I0428 20:31:41.237922  3988 layer_factory.hpp:77] Creating layer label_mnist_1_split
I0428 20:31:41.237960  3988 net.cpp:86] Creating Layer label_mnist_1_split
I0428 20:31:41.237968  3988 net.cpp:408] label_mnist_1_split <- label
I0428 20:31:41.237978  3988 net.cpp:382] label_mnist_1_split -> label_mnist_1_split_0
I0428 20:31:41.237992  3988 net.cpp:382] label_mnist_1_split -> label_mnist_1_split_1
I0428 20:31:41.238085  3988 net.cpp:124] Setting up label_mnist_1_split
I0428 20:31:41.238096  3988 net.cpp:131] Top shape: 100 (100)
I0428 20:31:41.238104  3988 net.cpp:131] Top shape: 100 (100)
I0428 20:31:41.238111  3988 net.cpp:139] Memory required for data: 314800
I0428 20:31:41.238117  3988 layer_factory.hpp:77] Creating layer conv0
I0428 20:31:41.238133  3988 net.cpp:86] Creating Layer conv0
I0428 20:31:41.238142  3988 net.cpp:408] conv0 <- data
I0428 20:31:41.238153  3988 net.cpp:382] conv0 -> conv0
I0428 20:31:41.239900  3988 net.cpp:124] Setting up conv0
I0428 20:31:41.239919  3988 net.cpp:131] Top shape: 100 100 24 24 (5760000)
I0428 20:31:41.239928  3988 net.cpp:139] Memory required for data: 23354800
I0428 20:31:41.239944  3988 layer_factory.hpp:77] Creating layer pool0
I0428 20:31:41.239956  3988 net.cpp:86] Creating Layer pool0
I0428 20:31:41.239965  3988 net.cpp:408] pool0 <- conv0
I0428 20:31:41.239975  3988 net.cpp:382] pool0 -> pool0
I0428 20:31:41.240026  3988 net.cpp:124] Setting up pool0
I0428 20:31:41.240036  3988 net.cpp:131] Top shape: 100 100 12 12 (1440000)
I0428 20:31:41.240042  3988 net.cpp:139] Memory required for data: 29114800
I0428 20:31:41.240049  3988 layer_factory.hpp:77] Creating layer conv1
I0428 20:31:41.240066  3988 net.cpp:86] Creating Layer conv1
I0428 20:31:41.240073  3988 net.cpp:408] conv1 <- pool0
I0428 20:31:41.240085  3988 net.cpp:382] conv1 -> conv1
I0428 20:31:41.241919  3988 net.cpp:124] Setting up conv1
I0428 20:31:41.241938  3988 net.cpp:131] Top shape: 100 10 8 8 (64000)
I0428 20:31:41.241947  3988 net.cpp:139] Memory required for data: 29370800
I0428 20:31:41.241963  3988 layer_factory.hpp:77] Creating layer pool1
I0428 20:31:41.241979  3988 net.cpp:86] Creating Layer pool1
I0428 20:31:41.241993  3988 net.cpp:408] pool1 <- conv1
I0428 20:31:41.242003  3988 net.cpp:382] pool1 -> pool1
I0428 20:31:41.242053  3988 net.cpp:124] Setting up pool1
I0428 20:31:41.242064  3988 net.cpp:131] Top shape: 100 10 4 4 (16000)
I0428 20:31:41.242070  3988 net.cpp:139] Memory required for data: 29434800
I0428 20:31:41.242076  3988 layer_factory.hpp:77] Creating layer ip1
I0428 20:31:41.242087  3988 net.cpp:86] Creating Layer ip1
I0428 20:31:41.242095  3988 net.cpp:408] ip1 <- pool1
I0428 20:31:41.242105  3988 net.cpp:382] ip1 -> ip1
I0428 20:31:41.242285  3988 net.cpp:124] Setting up ip1
I0428 20:31:41.242308  3988 net.cpp:131] Top shape: 100 50 (5000)
I0428 20:31:41.242316  3988 net.cpp:139] Memory required for data: 29454800
I0428 20:31:41.242331  3988 layer_factory.hpp:77] Creating layer relu1
I0428 20:31:41.242347  3988 net.cpp:86] Creating Layer relu1
I0428 20:31:41.242357  3988 net.cpp:408] relu1 <- ip1
I0428 20:31:41.242367  3988 net.cpp:369] relu1 -> ip1 (in-place)
I0428 20:31:41.242561  3988 net.cpp:124] Setting up relu1
I0428 20:31:41.242573  3988 net.cpp:131] Top shape: 100 50 (5000)
I0428 20:31:41.242580  3988 net.cpp:139] Memory required for data: 29474800
I0428 20:31:41.242588  3988 layer_factory.hpp:77] Creating layer ip2
I0428 20:31:41.242602  3988 net.cpp:86] Creating Layer ip2
I0428 20:31:41.242610  3988 net.cpp:408] ip2 <- ip1
I0428 20:31:41.242621  3988 net.cpp:382] ip2 -> ip2
I0428 20:31:41.242786  3988 net.cpp:124] Setting up ip2
I0428 20:31:41.242796  3988 net.cpp:131] Top shape: 100 50 (5000)
I0428 20:31:41.242804  3988 net.cpp:139] Memory required for data: 29494800
I0428 20:31:41.242815  3988 layer_factory.hpp:77] Creating layer relu2
I0428 20:31:41.242825  3988 net.cpp:86] Creating Layer relu2
I0428 20:31:41.242830  3988 net.cpp:408] relu2 <- ip2
I0428 20:31:41.242839  3988 net.cpp:369] relu2 -> ip2 (in-place)
I0428 20:31:41.243026  3988 net.cpp:124] Setting up relu2
I0428 20:31:41.243038  3988 net.cpp:131] Top shape: 100 50 (5000)
I0428 20:31:41.243044  3988 net.cpp:139] Memory required for data: 29514800
I0428 20:31:41.243052  3988 layer_factory.hpp:77] Creating layer ip3
I0428 20:31:41.243062  3988 net.cpp:86] Creating Layer ip3
I0428 20:31:41.243069  3988 net.cpp:408] ip3 <- ip2
I0428 20:31:41.243080  3988 net.cpp:382] ip3 -> ip3
I0428 20:31:41.243208  3988 net.cpp:124] Setting up ip3
I0428 20:31:41.243218  3988 net.cpp:131] Top shape: 100 10 (1000)
I0428 20:31:41.243227  3988 net.cpp:139] Memory required for data: 29518800
I0428 20:31:41.243242  3988 layer_factory.hpp:77] Creating layer relu3
I0428 20:31:41.243252  3988 net.cpp:86] Creating Layer relu3
I0428 20:31:41.243260  3988 net.cpp:408] relu3 <- ip3
I0428 20:31:41.243269  3988 net.cpp:369] relu3 -> ip3 (in-place)
I0428 20:31:41.244210  3988 net.cpp:124] Setting up relu3
I0428 20:31:41.244226  3988 net.cpp:131] Top shape: 100 10 (1000)
I0428 20:31:41.244233  3988 net.cpp:139] Memory required for data: 29522800
I0428 20:31:41.244240  3988 layer_factory.hpp:77] Creating layer ip3_relu3_0_split
I0428 20:31:41.244251  3988 net.cpp:86] Creating Layer ip3_relu3_0_split
I0428 20:31:41.244257  3988 net.cpp:408] ip3_relu3_0_split <- ip3
I0428 20:31:41.244269  3988 net.cpp:382] ip3_relu3_0_split -> ip3_relu3_0_split_0
I0428 20:31:41.244282  3988 net.cpp:382] ip3_relu3_0_split -> ip3_relu3_0_split_1
I0428 20:31:41.244335  3988 net.cpp:124] Setting up ip3_relu3_0_split
I0428 20:31:41.244345  3988 net.cpp:131] Top shape: 100 10 (1000)
I0428 20:31:41.244354  3988 net.cpp:131] Top shape: 100 10 (1000)
I0428 20:31:41.244360  3988 net.cpp:139] Memory required for data: 29530800
I0428 20:31:41.244367  3988 layer_factory.hpp:77] Creating layer accuracy
I0428 20:31:41.244377  3988 net.cpp:86] Creating Layer accuracy
I0428 20:31:41.244385  3988 net.cpp:408] accuracy <- ip3_relu3_0_split_0
I0428 20:31:41.244392  3988 net.cpp:408] accuracy <- label_mnist_1_split_0
I0428 20:31:41.244402  3988 net.cpp:382] accuracy -> accuracy
…
