…
I0428 20:22:19.296624  1955 net.cpp:296] The NetState phase (0) differed from the phase (1) specified by a rule in layer mnist
I0428 20:22:19.296656  1955 net.cpp:296] The NetState phase (0) differed from the phase (1) specified by a rule in layer accuracy
I0428 20:22:19.296738  1955 net.cpp:53] Initializing net from parameters: 
name: "LeNet"
state {
  phase: TRAIN
  level: 0
  stage: ""
}
layer {
  name: "mnist"
  type: "Data"
  top: "data"
  top: "label"
  include {
    phase: TRAIN
  }
  transform_param {
    scale: 0.00390625
  }
  data_param {
    source: "examples/mnist/mnist_train_lmdb"
    batch_size: 64
    backend: LMDB
  }
}
layer {
  name: "conv0"
  type: "Convolution"
  bottom: "data"
  top: "conv0"
  param {
    lr_mult: 1
  }
  param {
    lr_mult: 2
  }
  convolution_param {
    num_output: 50
    kernel_size: 5
    stride: 1
    weight_filler {
      type: "xavier"
    }
    bias_filler {
      type: "constant"
    }
  }
}
layer {
  name: "pool0"
  type: "Pooling"
  bottom: "conv0"
  top: "pool0"
  pooling_param {
    pool: MAX
    kernel_size: 2
    stride: 2
  }
}
layer {
  name: "conv1"
  type: "Convolution"
  bottom: "pool0"
  top: "conv1"
  param {
    lr_mult: 1
  }
  param {
    lr_mult: 2
  }
  convolution_param {
    num_output: 50
    kernel_size: 5
    stride: 1
    weight_filler {
      type: "xavier"
    }
    bias_filler {
      type: "constant"
    }
  }
}
layer {
  name: "pool1"
  type: "Pooling"
  bottom: "conv1"
  top: "pool1"
  pooling_param {
    pool: MAX
    kernel_size: 2
    stride: 2
  }
}
layer {
  name: "ip1"
  type: "InnerProduct"
  bottom: "pool1"
  top: "ip1"
  param {
    lr_mult: 1
  }
  param {
    lr_mult: 2
  }
  inner_product_param {
    num_output: 50
    weight_filler {
      type: "xavier"
    }
    bias_filler {
      type: "constant"
    }
  }
}
layer {
  name: "relu1"
  type: "ReLU"
  bottom: "ip1"
  top: "ip1"
}
layer {
  name: "ip2"
  type: "InnerProduct"
  bottom: "ip1"
  top: "ip2"
  param {
    lr_mult: 1
  }
  param {
    lr_mult: 2
  }
  inner_product_param {
    num_output: 50
    weight_filler {
      type: "xavier"
    }
    bias_filler {
      type: "constant"
    }
  }
}
layer {
  name: "relu2"
  type: "ReLU"
  bottom: "ip2"
  top: "ip2"
}
layer {
  name: "ip3"
  type: "InnerProduct"
  bottom: "ip2"
  top: "ip3"
  param {
    lr_mult: 1
  }
  param {
    lr_mult: 2
  }
  inner_product_param {
    num_output: 10
    weight_filler {
      type: "xavier"
    }
    bias_filler {
      type: "constant"
    }
  }
}
layer {
  name: "relu3"
  type: "ReLU"
  bottom: "ip3"
  top: "ip3"
}
layer {
  name: "loss"
  type: "SoftmaxWithLoss"
  bottom: "ip3"
  bottom: "label"
  top: "loss"
}
I0428 20:22:19.296804  1955 layer_factory.hpp:77] Creating layer mnist
I0428 20:22:19.296946  1955 db_lmdb.cpp:35] Opened lmdb examples/mnist/mnist_train_lmdb
I0428 20:22:19.296967  1955 net.cpp:86] Creating Layer mnist
I0428 20:22:19.296973  1955 net.cpp:382] mnist -> data
I0428 20:22:19.296994  1955 net.cpp:382] mnist -> label
I0428 20:22:19.298079  1955 data_layer.cpp:45] output data size: 64,1,28,28
I0428 20:22:19.300173  1955 net.cpp:124] Setting up mnist
I0428 20:22:19.300189  1955 net.cpp:131] Top shape: 64 1 28 28 (50176)
I0428 20:22:19.300194  1955 net.cpp:131] Top shape: 64 (64)
I0428 20:22:19.300197  1955 net.cpp:139] Memory required for data: 200960
I0428 20:22:19.300202  1955 layer_factory.hpp:77] Creating layer conv0
I0428 20:22:19.300245  1955 net.cpp:86] Creating Layer conv0
I0428 20:22:19.300261  1955 net.cpp:408] conv0 <- data
I0428 20:22:19.300271  1955 net.cpp:382] conv0 -> conv0
I0428 20:22:19.528321  1955 net.cpp:124] Setting up conv0
I0428 20:22:19.528347  1955 net.cpp:131] Top shape: 64 50 24 24 (1843200)
I0428 20:22:19.528352  1955 net.cpp:139] Memory required for data: 7573760
I0428 20:22:19.528364  1955 layer_factory.hpp:77] Creating layer pool0
I0428 20:22:19.528376  1955 net.cpp:86] Creating Layer pool0
I0428 20:22:19.528380  1955 net.cpp:408] pool0 <- conv0
I0428 20:22:19.528385  1955 net.cpp:382] pool0 -> pool0
I0428 20:22:19.528445  1955 net.cpp:124] Setting up pool0
I0428 20:22:19.528450  1955 net.cpp:131] Top shape: 64 50 12 12 (460800)
I0428 20:22:19.528452  1955 net.cpp:139] Memory required for data: 9416960
I0428 20:22:19.528455  1955 layer_factory.hpp:77] Creating layer conv1
I0428 20:22:19.528465  1955 net.cpp:86] Creating Layer conv1
I0428 20:22:19.528467  1955 net.cpp:408] conv1 <- pool0
I0428 20:22:19.528472  1955 net.cpp:382] conv1 -> conv1
I0428 20:22:19.530715  1955 net.cpp:124] Setting up conv1
I0428 20:22:19.530745  1955 net.cpp:131] Top shape: 64 50 8 8 (204800)
I0428 20:22:19.530748  1955 net.cpp:139] Memory required for data: 10236160
I0428 20:22:19.530756  1955 layer_factory.hpp:77] Creating layer pool1
I0428 20:22:19.530763  1955 net.cpp:86] Creating Layer pool1
I0428 20:22:19.530767  1955 net.cpp:408] pool1 <- conv1
I0428 20:22:19.530771  1955 net.cpp:382] pool1 -> pool1
I0428 20:22:19.530823  1955 net.cpp:124] Setting up pool1
I0428 20:22:19.530833  1955 net.cpp:131] Top shape: 64 50 4 4 (51200)
I0428 20:22:19.530836  1955 net.cpp:139] Memory required for data: 10440960
I0428 20:22:19.530839  1955 layer_factory.hpp:77] Creating layer ip1
I0428 20:22:19.530846  1955 net.cpp:86] Creating Layer ip1
I0428 20:22:19.530849  1955 net.cpp:408] ip1 <- pool1
I0428 20:22:19.530854  1955 net.cpp:382] ip1 -> ip1
I0428 20:22:19.531201  1955 net.cpp:124] Setting up ip1
I0428 20:22:19.531209  1955 net.cpp:131] Top shape: 64 50 (3200)
I0428 20:22:19.531227  1955 net.cpp:139] Memory required for data: 10453760
I0428 20:22:19.531235  1955 layer_factory.hpp:77] Creating layer relu1
I0428 20:22:19.531240  1955 net.cpp:86] Creating Layer relu1
I0428 20:22:19.531244  1955 net.cpp:408] relu1 <- ip1
I0428 20:22:19.531249  1955 net.cpp:369] relu1 -> ip1 (in-place)
I0428 20:22:19.531447  1955 net.cpp:124] Setting up relu1
I0428 20:22:19.531456  1955 net.cpp:131] Top shape: 64 50 (3200)
I0428 20:22:19.531460  1955 net.cpp:139] Memory required for data: 10466560
I0428 20:22:19.531462  1955 layer_factory.hpp:77] Creating layer ip2
I0428 20:22:19.531467  1955 net.cpp:86] Creating Layer ip2
I0428 20:22:19.531471  1955 net.cpp:408] ip2 <- ip1
I0428 20:22:19.531476  1955 net.cpp:382] ip2 -> ip2
I0428 20:22:19.531584  1955 net.cpp:124] Setting up ip2
I0428 20:22:19.531590  1955 net.cpp:131] Top shape: 64 50 (3200)
I0428 20:22:19.531594  1955 net.cpp:139] Memory required for data: 10479360
I0428 20:22:19.531599  1955 layer_factory.hpp:77] Creating layer relu2
I0428 20:22:19.531605  1955 net.cpp:86] Creating Layer relu2
I0428 20:22:19.531607  1955 net.cpp:408] relu2 <- ip2
I0428 20:22:19.531611  1955 net.cpp:369] relu2 -> ip2 (in-place)
I0428 20:22:19.532364  1955 net.cpp:124] Setting up relu2
I0428 20:22:19.532377  1955 net.cpp:131] Top shape: 64 50 (3200)
I0428 20:22:19.532398  1955 net.cpp:139] Memory required for data: 10492160
I0428 20:22:19.532404  1955 layer_factory.hpp:77] Creating layer ip3
I0428 20:22:19.532413  1955 net.cpp:86] Creating Layer ip3
I0428 20:22:19.532415  1955 net.cpp:408] ip3 <- ip2
I0428 20:22:19.532421  1955 net.cpp:382] ip3 -> ip3
I0428 20:22:19.532521  1955 net.cpp:124] Setting up ip3
I0428 20:22:19.532543  1955 net.cpp:131] Top shape: 64 10 (640)
I0428 20:22:19.532546  1955 net.cpp:139] Memory required for data: 10494720
I0428 20:22:19.532553  1955 layer_factory.hpp:77] Creating layer relu3
I0428 20:22:19.532558  1955 net.cpp:86] Creating Layer relu3
I0428 20:22:19.532562  1955 net.cpp:408] relu3 <- ip3
I0428 20:22:19.532565  1955 net.cpp:369] relu3 -> ip3 (in-place)
I0428 20:22:19.532726  1955 net.cpp:124] Setting up relu3
I0428 20:22:19.532750  1955 net.cpp:131] Top shape: 64 10 (640)
I0428 20:22:19.532754  1955 net.cpp:139] Memory required for data: 10497280
I0428 20:22:19.532757  1955 layer_factory.hpp:77] Creating layer loss
I0428 20:22:19.532763  1955 net.cpp:86] Creating Layer loss
I0428 20:22:19.532766  1955 net.cpp:408] loss <- ip3
I0428 20:22:19.532770  1955 net.cpp:408] loss <- label
I0428 20:22:19.532775  1955 net.cpp:382] loss -> loss
I0428 20:22:19.532789  1955 layer_factory.hpp:77] Creating layer loss
…
I0428 20:22:19.533628  1955 solver.cpp:173] Creating test net (#0) specified by net file: ECE595/mnist/train_test/var_everything2/lenet_train_test1402.prototxt
I0428 20:22:19.533668  1955 net.cpp:296] The NetState phase (1) differed from the phase (0) specified by a rule in layer mnist
I0428 20:22:19.533756  1955 net.cpp:53] Initializing net from parameters: 
name: "LeNet"
state {
  phase: TEST
}
layer {
  name: "mnist"
  type: "Data"
  top: "data"
  top: "label"
  include {
    phase: TEST
  }
  transform_param {
    scale: 0.00390625
  }
  data_param {
    source: "examples/mnist/mnist_test_lmdb"
    batch_size: 100
    backend: LMDB
  }
}
layer {
  name: "conv0"
  type: "Convolution"
  bottom: "data"
  top: "conv0"
  param {
    lr_mult: 1
  }
  param {
    lr_mult: 2
  }
  convolution_param {
    num_output: 50
    kernel_size: 5
    stride: 1
    weight_filler {
      type: "xavier"
    }
    bias_filler {
      type: "constant"
    }
  }
}
layer {
  name: "pool0"
  type: "Pooling"
  bottom: "conv0"
  top: "pool0"
  pooling_param {
    pool: MAX
    kernel_size: 2
    stride: 2
  }
}
layer {
  name: "conv1"
  type: "Convolution"
  bottom: "pool0"
  top: "conv1"
  param {
    lr_mult: 1
  }
  param {
    lr_mult: 2
  }
  convolution_param {
    num_output: 50
    kernel_size: 5
    stride: 1
    weight_filler {
      type: "xavier"
    }
    bias_filler {
      type: "constant"
    }
  }
}
layer {
  name: "pool1"
  type: "Pooling"
  bottom: "conv1"
  top: "pool1"
  pooling_param {
    pool: MAX
    kernel_size: 2
    stride: 2
  }
}
layer {
  name: "ip1"
  type: "InnerProduct"
  bottom: "pool1"
  top: "ip1"
  param {
    lr_mult: 1
  }
  param {
    lr_mult: 2
  }
  inner_product_param {
    num_output: 50
    weight_filler {
      type: "xavier"
    }
    bias_filler {
      type: "constant"
    }
  }
}
layer {
  name: "relu1"
  type: "ReLU"
  bottom: "ip1"
  top: "ip1"
}
layer {
  name: "ip2"
  type: "InnerProduct"
  bottom: "ip1"
  top: "ip2"
  param {
    lr_mult: 1
  }
  param {
    lr_mult: 2
  }
  inner_product_param {
    num_output: 50
    weight_filler {
      type: "xavier"
    }
    bias_filler {
      type: "constant"
    }
  }
}
layer {
  name: "relu2"
  type: "ReLU"
  bottom: "ip2"
  top: "ip2"
}
layer {
  name: "ip3"
  type: "InnerProduct"
  bottom: "ip2"
  top: "ip3"
  param {
    lr_mult: 1
  }
  param {
    lr_mult: 2
  }
  inner_product_param {
    num_output: 10
    weight_filler {
      type: "xavier"
    }
    bias_filler {
      type: "constant"
    }
  }
}
layer {
  name: "relu3"
  type: "ReLU"
  bottom: "ip3"
  top: "ip3"
}
layer {
  name: "accuracy"
  type: "Accuracy"
  bottom: "ip3"
  bottom: "label"
  top: "accuracy"
  include {
    phase: TEST
  }
}
layer {
  name: "loss"
  type: "SoftmaxWithLoss"
  bottom: "ip3"
  bottom: "label"
  top: "loss"
}
I0428 20:22:19.533836  1955 layer_factory.hpp:77] Creating layer mnist
I0428 20:22:19.533881  1955 db_lmdb.cpp:35] Opened lmdb examples/mnist/mnist_test_lmdb
I0428 20:22:19.533893  1955 net.cpp:86] Creating Layer mnist
I0428 20:22:19.533898  1955 net.cpp:382] mnist -> data
I0428 20:22:19.533905  1955 net.cpp:382] mnist -> label
I0428 20:22:19.533984  1955 data_layer.cpp:45] output data size: 100,1,28,28
I0428 20:22:19.535981  1955 net.cpp:124] Setting up mnist
I0428 20:22:19.536010  1955 net.cpp:131] Top shape: 100 1 28 28 (78400)
I0428 20:22:19.536015  1955 net.cpp:131] Top shape: 100 (100)
I0428 20:22:19.536017  1955 net.cpp:139] Memory required for data: 314000
I0428 20:22:19.536020  1955 layer_factory.hpp:77] Creating layer label_mnist_1_split
I0428 20:22:19.536027  1955 net.cpp:86] Creating Layer label_mnist_1_split
I0428 20:22:19.536031  1955 net.cpp:408] label_mnist_1_split <- label
I0428 20:22:19.536034  1955 net.cpp:382] label_mnist_1_split -> label_mnist_1_split_0
I0428 20:22:19.536041  1955 net.cpp:382] label_mnist_1_split -> label_mnist_1_split_1
I0428 20:22:19.536089  1955 net.cpp:124] Setting up label_mnist_1_split
I0428 20:22:19.536094  1955 net.cpp:131] Top shape: 100 (100)
I0428 20:22:19.536098  1955 net.cpp:131] Top shape: 100 (100)
I0428 20:22:19.536100  1955 net.cpp:139] Memory required for data: 314800
I0428 20:22:19.536103  1955 layer_factory.hpp:77] Creating layer conv0
I0428 20:22:19.536110  1955 net.cpp:86] Creating Layer conv0
I0428 20:22:19.536113  1955 net.cpp:408] conv0 <- data
I0428 20:22:19.536118  1955 net.cpp:382] conv0 -> conv0
I0428 20:22:19.537900  1955 net.cpp:124] Setting up conv0
I0428 20:22:19.537914  1955 net.cpp:131] Top shape: 100 50 24 24 (2880000)
I0428 20:22:19.537919  1955 net.cpp:139] Memory required for data: 11834800
I0428 20:22:19.537927  1955 layer_factory.hpp:77] Creating layer pool0
I0428 20:22:19.537933  1955 net.cpp:86] Creating Layer pool0
I0428 20:22:19.537936  1955 net.cpp:408] pool0 <- conv0
I0428 20:22:19.537941  1955 net.cpp:382] pool0 -> pool0
I0428 20:22:19.537973  1955 net.cpp:124] Setting up pool0
I0428 20:22:19.537979  1955 net.cpp:131] Top shape: 100 50 12 12 (720000)
I0428 20:22:19.537981  1955 net.cpp:139] Memory required for data: 14714800
I0428 20:22:19.537984  1955 layer_factory.hpp:77] Creating layer conv1
I0428 20:22:19.537992  1955 net.cpp:86] Creating Layer conv1
I0428 20:22:19.537995  1955 net.cpp:408] conv1 <- pool0
I0428 20:22:19.537999  1955 net.cpp:382] conv1 -> conv1
I0428 20:22:19.539986  1955 net.cpp:124] Setting up conv1
I0428 20:22:19.539999  1955 net.cpp:131] Top shape: 100 50 8 8 (320000)
I0428 20:22:19.540002  1955 net.cpp:139] Memory required for data: 15994800
I0428 20:22:19.540010  1955 layer_factory.hpp:77] Creating layer pool1
I0428 20:22:19.540032  1955 net.cpp:86] Creating Layer pool1
I0428 20:22:19.540036  1955 net.cpp:408] pool1 <- conv1
I0428 20:22:19.540041  1955 net.cpp:382] pool1 -> pool1
I0428 20:22:19.540089  1955 net.cpp:124] Setting up pool1
I0428 20:22:19.540096  1955 net.cpp:131] Top shape: 100 50 4 4 (80000)
I0428 20:22:19.540098  1955 net.cpp:139] Memory required for data: 16314800
I0428 20:22:19.540102  1955 layer_factory.hpp:77] Creating layer ip1
I0428 20:22:19.540107  1955 net.cpp:86] Creating Layer ip1
I0428 20:22:19.540110  1955 net.cpp:408] ip1 <- pool1
I0428 20:22:19.540115  1955 net.cpp:382] ip1 -> ip1
I0428 20:22:19.540447  1955 net.cpp:124] Setting up ip1
I0428 20:22:19.540457  1955 net.cpp:131] Top shape: 100 50 (5000)
I0428 20:22:19.540469  1955 net.cpp:139] Memory required for data: 16334800
I0428 20:22:19.540477  1955 layer_factory.hpp:77] Creating layer relu1
I0428 20:22:19.540482  1955 net.cpp:86] Creating Layer relu1
I0428 20:22:19.540485  1955 net.cpp:408] relu1 <- ip1
I0428 20:22:19.540489  1955 net.cpp:369] relu1 -> ip1 (in-place)
I0428 20:22:19.540652  1955 net.cpp:124] Setting up relu1
I0428 20:22:19.540662  1955 net.cpp:131] Top shape: 100 50 (5000)
I0428 20:22:19.540664  1955 net.cpp:139] Memory required for data: 16354800
I0428 20:22:19.540668  1955 layer_factory.hpp:77] Creating layer ip2
I0428 20:22:19.540674  1955 net.cpp:86] Creating Layer ip2
I0428 20:22:19.540678  1955 net.cpp:408] ip2 <- ip1
I0428 20:22:19.540688  1955 net.cpp:382] ip2 -> ip2
I0428 20:22:19.540791  1955 net.cpp:124] Setting up ip2
I0428 20:22:19.540797  1955 net.cpp:131] Top shape: 100 50 (5000)
I0428 20:22:19.540807  1955 net.cpp:139] Memory required for data: 16374800
I0428 20:22:19.540832  1955 layer_factory.hpp:77] Creating layer relu2
I0428 20:22:19.540837  1955 net.cpp:86] Creating Layer relu2
I0428 20:22:19.540839  1955 net.cpp:408] relu2 <- ip2
I0428 20:22:19.540848  1955 net.cpp:369] relu2 -> ip2 (in-place)
I0428 20:22:19.541040  1955 net.cpp:124] Setting up relu2
I0428 20:22:19.541054  1955 net.cpp:131] Top shape: 100 50 (5000)
I0428 20:22:19.541056  1955 net.cpp:139] Memory required for data: 16394800
I0428 20:22:19.541060  1955 layer_factory.hpp:77] Creating layer ip3
I0428 20:22:19.541071  1955 net.cpp:86] Creating Layer ip3
I0428 20:22:19.541075  1955 net.cpp:408] ip3 <- ip2
I0428 20:22:19.541080  1955 net.cpp:382] ip3 -> ip3
I0428 20:22:19.541180  1955 net.cpp:124] Setting up ip3
I0428 20:22:19.541203  1955 net.cpp:131] Top shape: 100 10 (1000)
I0428 20:22:19.541205  1955 net.cpp:139] Memory required for data: 16398800
I0428 20:22:19.541213  1955 layer_factory.hpp:77] Creating layer relu3
I0428 20:22:19.541218  1955 net.cpp:86] Creating Layer relu3
I0428 20:22:19.541220  1955 net.cpp:408] relu3 <- ip3
I0428 20:22:19.541224  1955 net.cpp:369] relu3 -> ip3 (in-place)
I0428 20:22:19.542024  1955 net.cpp:124] Setting up relu3
I0428 20:22:19.542047  1955 net.cpp:131] Top shape: 100 10 (1000)
I0428 20:22:19.542050  1955 net.cpp:139] Memory required for data: 16402800
I0428 20:22:19.542070  1955 layer_factory.hpp:77] Creating layer ip3_relu3_0_split
I0428 20:22:19.542075  1955 net.cpp:86] Creating Layer ip3_relu3_0_split
I0428 20:22:19.542079  1955 net.cpp:408] ip3_relu3_0_split <- ip3
I0428 20:22:19.542083  1955 net.cpp:382] ip3_relu3_0_split -> ip3_relu3_0_split_0
I0428 20:22:19.542089  1955 net.cpp:382] ip3_relu3_0_split -> ip3_relu3_0_split_1
I0428 20:22:19.542129  1955 net.cpp:124] Setting up ip3_relu3_0_split
I0428 20:22:19.542134  1955 net.cpp:131] Top shape: 100 10 (1000)
I0428 20:22:19.542137  1955 net.cpp:131] Top shape: 100 10 (1000)
I0428 20:22:19.542140  1955 net.cpp:139] Memory required for data: 16410800
I0428 20:22:19.542143  1955 layer_factory.hpp:77] Creating layer accuracy
I0428 20:22:19.542148  1955 net.cpp:86] Creating Layer accuracy
I0428 20:22:19.542156  1955 net.cpp:408] accuracy <- ip3_relu3_0_split_0
I0428 20:22:19.542160  1955 net.cpp:408] accuracy <- label_mnist_1_split_0
I0428 20:22:19.542165  1955 net.cpp:382] accuracy -> accuracy
…
