…
I0428 20:04:59.390377 30507 net.cpp:296] The NetState phase (0) differed from the phase (1) specified by a rule in layer mnist
I0428 20:04:59.390393 30507 net.cpp:296] The NetState phase (0) differed from the phase (1) specified by a rule in layer accuracy
I0428 20:04:59.390473 30507 net.cpp:53] Initializing net from parameters: 
name: "LeNet"
state {
  phase: TRAIN
  level: 0
  stage: ""
}
layer {
  name: "mnist"
  type: "Data"
  top: "data"
  top: "label"
  include {
    phase: TRAIN
  }
  transform_param {
    scale: 0.00390625
  }
  data_param {
    source: "examples/mnist/mnist_train_lmdb"
    batch_size: 64
    backend: LMDB
  }
}
layer {
  name: "conv0"
  type: "Convolution"
  bottom: "data"
  top: "conv0"
  param {
    lr_mult: 1
  }
  param {
    lr_mult: 2
  }
  convolution_param {
    num_output: 25
    kernel_size: 5
    stride: 1
    weight_filler {
      type: "xavier"
    }
    bias_filler {
      type: "constant"
    }
  }
}
layer {
  name: "pool0"
  type: "Pooling"
  bottom: "conv0"
  top: "pool0"
  pooling_param {
    pool: MAX
    kernel_size: 2
    stride: 2
  }
}
layer {
  name: "conv1"
  type: "Convolution"
  bottom: "pool0"
  top: "conv1"
  param {
    lr_mult: 1
  }
  param {
    lr_mult: 2
  }
  convolution_param {
    num_output: 2
    kernel_size: 5
    stride: 1
    weight_filler {
      type: "xavier"
    }
    bias_filler {
      type: "constant"
    }
  }
}
layer {
  name: "pool1"
  type: "Pooling"
  bottom: "conv1"
  top: "pool1"
  pooling_param {
    pool: MAX
    kernel_size: 2
    stride: 2
  }
}
layer {
  name: "ip1"
  type: "InnerProduct"
  bottom: "pool1"
  top: "ip1"
  param {
    lr_mult: 1
  }
  param {
    lr_mult: 2
  }
  inner_product_param {
    num_output: 10
    weight_filler {
      type: "xavier"
    }
    bias_filler {
      type: "constant"
    }
  }
}
layer {
  name: "relu1"
  type: "ReLU"
  bottom: "ip1"
  top: "ip1"
}
layer {
  name: "ip2"
  type: "InnerProduct"
  bottom: "ip1"
  top: "ip2"
  param {
    lr_mult: 1
  }
  param {
    lr_mult: 2
  }
  inner_product_param {
    num_output: 10
    weight_filler {
      type: "xavier"
    }
    bias_filler {
      type: "constant"
    }
  }
}
layer {
  name: "relu2"
  type: "ReLU"
  bottom: "ip2"
  top: "ip2"
}
layer {
  name: "ip3"
  type: "InnerProduct"
  bottom: "ip2"
  top: "ip3"
  param {
    lr_mult: 1
  }
  param {
    lr_mult: 2
  }
  inner_product_param {
    num_output: 10
    weight_filler {
      type: "xavier"
    }
    bias_filler {
      type: "constant"
    }
  }
}
layer {
  name: "relu3"
  type: "ReLU"
  bottom: "ip3"
  top: "ip3"
}
layer {
  name: "loss"
  type: "SoftmaxWithLoss"
  bottom: "ip3"
  bottom: "label"
  top: "loss"
}
I0428 20:04:59.390537 30507 layer_factory.hpp:77] Creating layer mnist
I0428 20:04:59.390619 30507 db_lmdb.cpp:35] Opened lmdb examples/mnist/mnist_train_lmdb
I0428 20:04:59.390640 30507 net.cpp:86] Creating Layer mnist
I0428 20:04:59.390650 30507 net.cpp:382] mnist -> data
I0428 20:04:59.390682 30507 net.cpp:382] mnist -> label
I0428 20:04:59.391661 30507 data_layer.cpp:45] output data size: 64,1,28,28
I0428 20:04:59.394084 30507 net.cpp:124] Setting up mnist
I0428 20:04:59.394114 30507 net.cpp:131] Top shape: 64 1 28 28 (50176)
I0428 20:04:59.394119 30507 net.cpp:131] Top shape: 64 (64)
I0428 20:04:59.394122 30507 net.cpp:139] Memory required for data: 200960
I0428 20:04:59.394129 30507 layer_factory.hpp:77] Creating layer conv0
I0428 20:04:59.394151 30507 net.cpp:86] Creating Layer conv0
I0428 20:04:59.394170 30507 net.cpp:408] conv0 <- data
I0428 20:04:59.394182 30507 net.cpp:382] conv0 -> conv0
I0428 20:04:59.623406 30507 net.cpp:124] Setting up conv0
I0428 20:04:59.623448 30507 net.cpp:131] Top shape: 64 25 24 24 (921600)
I0428 20:04:59.623452 30507 net.cpp:139] Memory required for data: 3887360
I0428 20:04:59.623467 30507 layer_factory.hpp:77] Creating layer pool0
I0428 20:04:59.623491 30507 net.cpp:86] Creating Layer pool0
I0428 20:04:59.623494 30507 net.cpp:408] pool0 <- conv0
I0428 20:04:59.623515 30507 net.cpp:382] pool0 -> pool0
I0428 20:04:59.623574 30507 net.cpp:124] Setting up pool0
I0428 20:04:59.623580 30507 net.cpp:131] Top shape: 64 25 12 12 (230400)
I0428 20:04:59.623592 30507 net.cpp:139] Memory required for data: 4808960
I0428 20:04:59.623595 30507 layer_factory.hpp:77] Creating layer conv1
I0428 20:04:59.623605 30507 net.cpp:86] Creating Layer conv1
I0428 20:04:59.623608 30507 net.cpp:408] conv1 <- pool0
I0428 20:04:59.623613 30507 net.cpp:382] conv1 -> conv1
I0428 20:04:59.626554 30507 net.cpp:124] Setting up conv1
I0428 20:04:59.626583 30507 net.cpp:131] Top shape: 64 2 8 8 (8192)
I0428 20:04:59.626586 30507 net.cpp:139] Memory required for data: 4841728
I0428 20:04:59.626595 30507 layer_factory.hpp:77] Creating layer pool1
I0428 20:04:59.626602 30507 net.cpp:86] Creating Layer pool1
I0428 20:04:59.626605 30507 net.cpp:408] pool1 <- conv1
I0428 20:04:59.626626 30507 net.cpp:382] pool1 -> pool1
I0428 20:04:59.626693 30507 net.cpp:124] Setting up pool1
I0428 20:04:59.626698 30507 net.cpp:131] Top shape: 64 2 4 4 (2048)
I0428 20:04:59.626701 30507 net.cpp:139] Memory required for data: 4849920
I0428 20:04:59.626704 30507 layer_factory.hpp:77] Creating layer ip1
I0428 20:04:59.626710 30507 net.cpp:86] Creating Layer ip1
I0428 20:04:59.626714 30507 net.cpp:408] ip1 <- pool1
I0428 20:04:59.626718 30507 net.cpp:382] ip1 -> ip1
I0428 20:04:59.626816 30507 net.cpp:124] Setting up ip1
I0428 20:04:59.626824 30507 net.cpp:131] Top shape: 64 10 (640)
I0428 20:04:59.626827 30507 net.cpp:139] Memory required for data: 4852480
I0428 20:04:59.626834 30507 layer_factory.hpp:77] Creating layer relu1
I0428 20:04:59.626842 30507 net.cpp:86] Creating Layer relu1
I0428 20:04:59.626857 30507 net.cpp:408] relu1 <- ip1
I0428 20:04:59.626860 30507 net.cpp:369] relu1 -> ip1 (in-place)
I0428 20:04:59.627058 30507 net.cpp:124] Setting up relu1
I0428 20:04:59.627068 30507 net.cpp:131] Top shape: 64 10 (640)
I0428 20:04:59.627069 30507 net.cpp:139] Memory required for data: 4855040
I0428 20:04:59.627073 30507 layer_factory.hpp:77] Creating layer ip2
I0428 20:04:59.627079 30507 net.cpp:86] Creating Layer ip2
I0428 20:04:59.627082 30507 net.cpp:408] ip2 <- ip1
I0428 20:04:59.627087 30507 net.cpp:382] ip2 -> ip2
I0428 20:04:59.627179 30507 net.cpp:124] Setting up ip2
I0428 20:04:59.627187 30507 net.cpp:131] Top shape: 64 10 (640)
I0428 20:04:59.627188 30507 net.cpp:139] Memory required for data: 4857600
I0428 20:04:59.627194 30507 layer_factory.hpp:77] Creating layer relu2
I0428 20:04:59.627202 30507 net.cpp:86] Creating Layer relu2
I0428 20:04:59.627204 30507 net.cpp:408] relu2 <- ip2
I0428 20:04:59.627218 30507 net.cpp:369] relu2 -> ip2 (in-place)
I0428 20:04:59.628018 30507 net.cpp:124] Setting up relu2
I0428 20:04:59.628031 30507 net.cpp:131] Top shape: 64 10 (640)
I0428 20:04:59.628049 30507 net.cpp:139] Memory required for data: 4860160
I0428 20:04:59.628052 30507 layer_factory.hpp:77] Creating layer ip3
I0428 20:04:59.628077 30507 net.cpp:86] Creating Layer ip3
I0428 20:04:59.628080 30507 net.cpp:408] ip3 <- ip2
I0428 20:04:59.628087 30507 net.cpp:382] ip3 -> ip3
I0428 20:04:59.628219 30507 net.cpp:124] Setting up ip3
I0428 20:04:59.628227 30507 net.cpp:131] Top shape: 64 10 (640)
I0428 20:04:59.628231 30507 net.cpp:139] Memory required for data: 4862720
I0428 20:04:59.628238 30507 layer_factory.hpp:77] Creating layer relu3
I0428 20:04:59.628243 30507 net.cpp:86] Creating Layer relu3
I0428 20:04:59.628247 30507 net.cpp:408] relu3 <- ip3
I0428 20:04:59.628252 30507 net.cpp:369] relu3 -> ip3 (in-place)
I0428 20:04:59.628435 30507 net.cpp:124] Setting up relu3
I0428 20:04:59.628444 30507 net.cpp:131] Top shape: 64 10 (640)
I0428 20:04:59.628448 30507 net.cpp:139] Memory required for data: 4865280
I0428 20:04:59.628463 30507 layer_factory.hpp:77] Creating layer loss
I0428 20:04:59.628468 30507 net.cpp:86] Creating Layer loss
I0428 20:04:59.628471 30507 net.cpp:408] loss <- ip3
I0428 20:04:59.628475 30507 net.cpp:408] loss <- label
I0428 20:04:59.628482 30507 net.cpp:382] loss -> loss
I0428 20:04:59.628500 30507 layer_factory.hpp:77] Creating layer loss
…
I0428 20:04:59.629268 30507 solver.cpp:173] Creating test net (#0) specified by net file: ECE595/mnist/train_test/var_everything2/lenet_train_test987.prototxt
I0428 20:04:59.629324 30507 net.cpp:296] The NetState phase (1) differed from the phase (0) specified by a rule in layer mnist
I0428 20:04:59.629426 30507 net.cpp:53] Initializing net from parameters: 
name: "LeNet"
state {
  phase: TEST
}
layer {
  name: "mnist"
  type: "Data"
  top: "data"
  top: "label"
  include {
    phase: TEST
  }
  transform_param {
    scale: 0.00390625
  }
  data_param {
    source: "examples/mnist/mnist_test_lmdb"
    batch_size: 100
    backend: LMDB
  }
}
layer {
  name: "conv0"
  type: "Convolution"
  bottom: "data"
  top: "conv0"
  param {
    lr_mult: 1
  }
  param {
    lr_mult: 2
  }
  convolution_param {
    num_output: 25
    kernel_size: 5
    stride: 1
    weight_filler {
      type: "xavier"
    }
    bias_filler {
      type: "constant"
    }
  }
}
layer {
  name: "pool0"
  type: "Pooling"
  bottom: "conv0"
  top: "pool0"
  pooling_param {
    pool: MAX
    kernel_size: 2
    stride: 2
  }
}
layer {
  name: "conv1"
  type: "Convolution"
  bottom: "pool0"
  top: "conv1"
  param {
    lr_mult: 1
  }
  param {
    lr_mult: 2
  }
  convolution_param {
    num_output: 2
    kernel_size: 5
    stride: 1
    weight_filler {
      type: "xavier"
    }
    bias_filler {
      type: "constant"
    }
  }
}
layer {
  name: "pool1"
  type: "Pooling"
  bottom: "conv1"
  top: "pool1"
  pooling_param {
    pool: MAX
    kernel_size: 2
    stride: 2
  }
}
layer {
  name: "ip1"
  type: "InnerProduct"
  bottom: "pool1"
  top: "ip1"
  param {
    lr_mult: 1
  }
  param {
    lr_mult: 2
  }
  inner_product_param {
    num_output: 10
    weight_filler {
      type: "xavier"
    }
    bias_filler {
      type: "constant"
    }
  }
}
layer {
  name: "relu1"
  type: "ReLU"
  bottom: "ip1"
  top: "ip1"
}
layer {
  name: "ip2"
  type: "InnerProduct"
  bottom: "ip1"
  top: "ip2"
  param {
    lr_mult: 1
  }
  param {
    lr_mult: 2
  }
  inner_product_param {
    num_output: 10
    weight_filler {
      type: "xavier"
    }
    bias_filler {
      type: "constant"
    }
  }
}
layer {
  name: "relu2"
  type: "ReLU"
  bottom: "ip2"
  top: "ip2"
}
layer {
  name: "ip3"
  type: "InnerProduct"
  bottom: "ip2"
  top: "ip3"
  param {
    lr_mult: 1
  }
  param {
    lr_mult: 2
  }
  inner_product_param {
    num_output: 10
    weight_filler {
      type: "xavier"
    }
    bias_filler {
      type: "constant"
    }
  }
}
layer {
  name: "relu3"
  type: "ReLU"
  bottom: "ip3"
  top: "ip3"
}
layer {
  name: "accuracy"
  type: "Accuracy"
  bottom: "ip3"
  bottom: "label"
  top: "accuracy"
  include {
    phase: TEST
  }
}
layer {
  name: "loss"
  type: "SoftmaxWithLoss"
  bottom: "ip3"
  bottom: "label"
  top: "loss"
}
I0428 20:04:59.629503 30507 layer_factory.hpp:77] Creating layer mnist
I0428 20:04:59.629545 30507 db_lmdb.cpp:35] Opened lmdb examples/mnist/mnist_test_lmdb
I0428 20:04:59.629559 30507 net.cpp:86] Creating Layer mnist
I0428 20:04:59.629565 30507 net.cpp:382] mnist -> data
I0428 20:04:59.629570 30507 net.cpp:382] mnist -> label
I0428 20:04:59.629652 30507 data_layer.cpp:45] output data size: 100,1,28,28
I0428 20:04:59.631793 30507 net.cpp:124] Setting up mnist
I0428 20:04:59.631820 30507 net.cpp:131] Top shape: 100 1 28 28 (78400)
I0428 20:04:59.631826 30507 net.cpp:131] Top shape: 100 (100)
I0428 20:04:59.631829 30507 net.cpp:139] Memory required for data: 314000
I0428 20:04:59.631832 30507 layer_factory.hpp:77] Creating layer label_mnist_1_split
I0428 20:04:59.631867 30507 net.cpp:86] Creating Layer label_mnist_1_split
I0428 20:04:59.631871 30507 net.cpp:408] label_mnist_1_split <- label
I0428 20:04:59.631875 30507 net.cpp:382] label_mnist_1_split -> label_mnist_1_split_0
I0428 20:04:59.631881 30507 net.cpp:382] label_mnist_1_split -> label_mnist_1_split_1
I0428 20:04:59.631928 30507 net.cpp:124] Setting up label_mnist_1_split
I0428 20:04:59.631934 30507 net.cpp:131] Top shape: 100 (100)
I0428 20:04:59.631937 30507 net.cpp:131] Top shape: 100 (100)
I0428 20:04:59.631940 30507 net.cpp:139] Memory required for data: 314800
I0428 20:04:59.631943 30507 layer_factory.hpp:77] Creating layer conv0
I0428 20:04:59.631953 30507 net.cpp:86] Creating Layer conv0
I0428 20:04:59.631955 30507 net.cpp:408] conv0 <- data
I0428 20:04:59.631961 30507 net.cpp:382] conv0 -> conv0
I0428 20:04:59.633668 30507 net.cpp:124] Setting up conv0
I0428 20:04:59.633682 30507 net.cpp:131] Top shape: 100 25 24 24 (1440000)
I0428 20:04:59.633685 30507 net.cpp:139] Memory required for data: 6074800
I0428 20:04:59.633693 30507 layer_factory.hpp:77] Creating layer pool0
I0428 20:04:59.633700 30507 net.cpp:86] Creating Layer pool0
I0428 20:04:59.633704 30507 net.cpp:408] pool0 <- conv0
I0428 20:04:59.633708 30507 net.cpp:382] pool0 -> pool0
I0428 20:04:59.633745 30507 net.cpp:124] Setting up pool0
I0428 20:04:59.633749 30507 net.cpp:131] Top shape: 100 25 12 12 (360000)
I0428 20:04:59.633752 30507 net.cpp:139] Memory required for data: 7514800
I0428 20:04:59.633755 30507 layer_factory.hpp:77] Creating layer conv1
I0428 20:04:59.633764 30507 net.cpp:86] Creating Layer conv1
I0428 20:04:59.633766 30507 net.cpp:408] conv1 <- pool0
I0428 20:04:59.633772 30507 net.cpp:382] conv1 -> conv1
I0428 20:04:59.635970 30507 net.cpp:124] Setting up conv1
I0428 20:04:59.635983 30507 net.cpp:131] Top shape: 100 2 8 8 (12800)
I0428 20:04:59.635998 30507 net.cpp:139] Memory required for data: 7566000
I0428 20:04:59.636028 30507 layer_factory.hpp:77] Creating layer pool1
I0428 20:04:59.636035 30507 net.cpp:86] Creating Layer pool1
I0428 20:04:59.636039 30507 net.cpp:408] pool1 <- conv1
I0428 20:04:59.636046 30507 net.cpp:382] pool1 -> pool1
I0428 20:04:59.636085 30507 net.cpp:124] Setting up pool1
I0428 20:04:59.636090 30507 net.cpp:131] Top shape: 100 2 4 4 (3200)
I0428 20:04:59.636092 30507 net.cpp:139] Memory required for data: 7578800
I0428 20:04:59.636096 30507 layer_factory.hpp:77] Creating layer ip1
I0428 20:04:59.636101 30507 net.cpp:86] Creating Layer ip1
I0428 20:04:59.636106 30507 net.cpp:408] ip1 <- pool1
I0428 20:04:59.636111 30507 net.cpp:382] ip1 -> ip1
I0428 20:04:59.636211 30507 net.cpp:124] Setting up ip1
I0428 20:04:59.636219 30507 net.cpp:131] Top shape: 100 10 (1000)
I0428 20:04:59.636231 30507 net.cpp:139] Memory required for data: 7582800
I0428 20:04:59.636238 30507 layer_factory.hpp:77] Creating layer relu1
I0428 20:04:59.636251 30507 net.cpp:86] Creating Layer relu1
I0428 20:04:59.636255 30507 net.cpp:408] relu1 <- ip1
I0428 20:04:59.636258 30507 net.cpp:369] relu1 -> ip1 (in-place)
I0428 20:04:59.636459 30507 net.cpp:124] Setting up relu1
I0428 20:04:59.636468 30507 net.cpp:131] Top shape: 100 10 (1000)
I0428 20:04:59.636471 30507 net.cpp:139] Memory required for data: 7586800
I0428 20:04:59.636474 30507 layer_factory.hpp:77] Creating layer ip2
I0428 20:04:59.636483 30507 net.cpp:86] Creating Layer ip2
I0428 20:04:59.636487 30507 net.cpp:408] ip2 <- ip1
I0428 20:04:59.636492 30507 net.cpp:382] ip2 -> ip2
I0428 20:04:59.636587 30507 net.cpp:124] Setting up ip2
I0428 20:04:59.636600 30507 net.cpp:131] Top shape: 100 10 (1000)
I0428 20:04:59.636605 30507 net.cpp:139] Memory required for data: 7590800
I0428 20:04:59.636610 30507 layer_factory.hpp:77] Creating layer relu2
I0428 20:04:59.636613 30507 net.cpp:86] Creating Layer relu2
I0428 20:04:59.636622 30507 net.cpp:408] relu2 <- ip2
I0428 20:04:59.636626 30507 net.cpp:369] relu2 -> ip2 (in-place)
I0428 20:04:59.636780 30507 net.cpp:124] Setting up relu2
I0428 20:04:59.636787 30507 net.cpp:131] Top shape: 100 10 (1000)
I0428 20:04:59.636791 30507 net.cpp:139] Memory required for data: 7594800
I0428 20:04:59.636793 30507 layer_factory.hpp:77] Creating layer ip3
I0428 20:04:59.636798 30507 net.cpp:86] Creating Layer ip3
I0428 20:04:59.636801 30507 net.cpp:408] ip3 <- ip2
I0428 20:04:59.636840 30507 net.cpp:382] ip3 -> ip3
I0428 20:04:59.636972 30507 net.cpp:124] Setting up ip3
I0428 20:04:59.636981 30507 net.cpp:131] Top shape: 100 10 (1000)
I0428 20:04:59.636999 30507 net.cpp:139] Memory required for data: 7598800
I0428 20:04:59.637014 30507 layer_factory.hpp:77] Creating layer relu3
I0428 20:04:59.637020 30507 net.cpp:86] Creating Layer relu3
I0428 20:04:59.637023 30507 net.cpp:408] relu3 <- ip3
I0428 20:04:59.637028 30507 net.cpp:369] relu3 -> ip3 (in-place)
I0428 20:04:59.637913 30507 net.cpp:124] Setting up relu3
I0428 20:04:59.637925 30507 net.cpp:131] Top shape: 100 10 (1000)
I0428 20:04:59.637929 30507 net.cpp:139] Memory required for data: 7602800
I0428 20:04:59.637933 30507 layer_factory.hpp:77] Creating layer ip3_relu3_0_split
I0428 20:04:59.637938 30507 net.cpp:86] Creating Layer ip3_relu3_0_split
I0428 20:04:59.637941 30507 net.cpp:408] ip3_relu3_0_split <- ip3
I0428 20:04:59.637948 30507 net.cpp:382] ip3_relu3_0_split -> ip3_relu3_0_split_0
I0428 20:04:59.637954 30507 net.cpp:382] ip3_relu3_0_split -> ip3_relu3_0_split_1
I0428 20:04:59.638013 30507 net.cpp:124] Setting up ip3_relu3_0_split
I0428 20:04:59.638018 30507 net.cpp:131] Top shape: 100 10 (1000)
I0428 20:04:59.638022 30507 net.cpp:131] Top shape: 100 10 (1000)
I0428 20:04:59.638025 30507 net.cpp:139] Memory required for data: 7610800
I0428 20:04:59.638028 30507 layer_factory.hpp:77] Creating layer accuracy
I0428 20:04:59.638034 30507 net.cpp:86] Creating Layer accuracy
I0428 20:04:59.638038 30507 net.cpp:408] accuracy <- ip3_relu3_0_split_0
I0428 20:04:59.638042 30507 net.cpp:408] accuracy <- label_mnist_1_split_0
I0428 20:04:59.638048 30507 net.cpp:382] accuracy -> accuracy
…
