…
I0428 20:07:23.895133 31092 net.cpp:296] The NetState phase (0) differed from the phase (1) specified by a rule in layer mnist
I0428 20:07:23.895148 31092 net.cpp:296] The NetState phase (0) differed from the phase (1) specified by a rule in layer accuracy
I0428 20:07:23.895231 31092 net.cpp:53] Initializing net from parameters: 
name: "LeNet"
state {
  phase: TRAIN
  level: 0
  stage: ""
}
layer {
  name: "mnist"
  type: "Data"
  top: "data"
  top: "label"
  include {
    phase: TRAIN
  }
  transform_param {
    scale: 0.00390625
  }
  data_param {
    source: "examples/mnist/mnist_train_lmdb"
    batch_size: 64
    backend: LMDB
  }
}
layer {
  name: "conv0"
  type: "Convolution"
  bottom: "data"
  top: "conv0"
  param {
    lr_mult: 1
  }
  param {
    lr_mult: 2
  }
  convolution_param {
    num_output: 25
    kernel_size: 5
    stride: 1
    weight_filler {
      type: "xavier"
    }
    bias_filler {
      type: "constant"
    }
  }
}
layer {
  name: "pool0"
  type: "Pooling"
  bottom: "conv0"
  top: "pool0"
  pooling_param {
    pool: MAX
    kernel_size: 2
    stride: 2
  }
}
layer {
  name: "conv1"
  type: "Convolution"
  bottom: "pool0"
  top: "conv1"
  param {
    lr_mult: 1
  }
  param {
    lr_mult: 2
  }
  convolution_param {
    num_output: 10
    kernel_size: 5
    stride: 1
    weight_filler {
      type: "xavier"
    }
    bias_filler {
      type: "constant"
    }
  }
}
layer {
  name: "pool1"
  type: "Pooling"
  bottom: "conv1"
  top: "pool1"
  pooling_param {
    pool: MAX
    kernel_size: 2
    stride: 2
  }
}
layer {
  name: "ip1"
  type: "InnerProduct"
  bottom: "pool1"
  top: "ip1"
  param {
    lr_mult: 1
  }
  param {
    lr_mult: 2
  }
  inner_product_param {
    num_output: 10
    weight_filler {
      type: "xavier"
    }
    bias_filler {
      type: "constant"
    }
  }
}
layer {
  name: "relu1"
  type: "ReLU"
  bottom: "ip1"
  top: "ip1"
}
layer {
  name: "loss"
  type: "SoftmaxWithLoss"
  bottom: "ip1"
  bottom: "label"
  top: "loss"
}
I0428 20:07:23.895288 31092 layer_factory.hpp:77] Creating layer mnist
I0428 20:07:23.895373 31092 db_lmdb.cpp:35] Opened lmdb examples/mnist/mnist_train_lmdb
I0428 20:07:23.895395 31092 net.cpp:86] Creating Layer mnist
I0428 20:07:23.895401 31092 net.cpp:382] mnist -> data
I0428 20:07:23.895418 31092 net.cpp:382] mnist -> label
I0428 20:07:23.896378 31092 data_layer.cpp:45] output data size: 64,1,28,28
I0428 20:07:23.898622 31092 net.cpp:124] Setting up mnist
I0428 20:07:23.898638 31092 net.cpp:131] Top shape: 64 1 28 28 (50176)
I0428 20:07:23.898644 31092 net.cpp:131] Top shape: 64 (64)
I0428 20:07:23.898648 31092 net.cpp:139] Memory required for data: 200960
I0428 20:07:23.898653 31092 layer_factory.hpp:77] Creating layer conv0
I0428 20:07:23.898666 31092 net.cpp:86] Creating Layer conv0
I0428 20:07:23.898671 31092 net.cpp:408] conv0 <- data
I0428 20:07:23.898682 31092 net.cpp:382] conv0 -> conv0
I0428 20:07:24.130740 31092 net.cpp:124] Setting up conv0
I0428 20:07:24.130765 31092 net.cpp:131] Top shape: 64 25 24 24 (921600)
I0428 20:07:24.130769 31092 net.cpp:139] Memory required for data: 3887360
I0428 20:07:24.130784 31092 layer_factory.hpp:77] Creating layer pool0
I0428 20:07:24.130795 31092 net.cpp:86] Creating Layer pool0
I0428 20:07:24.130800 31092 net.cpp:408] pool0 <- conv0
I0428 20:07:24.130805 31092 net.cpp:382] pool0 -> pool0
I0428 20:07:24.130861 31092 net.cpp:124] Setting up pool0
I0428 20:07:24.130867 31092 net.cpp:131] Top shape: 64 25 12 12 (230400)
I0428 20:07:24.130882 31092 net.cpp:139] Memory required for data: 4808960
I0428 20:07:24.130887 31092 layer_factory.hpp:77] Creating layer conv1
I0428 20:07:24.130897 31092 net.cpp:86] Creating Layer conv1
I0428 20:07:24.130899 31092 net.cpp:408] conv1 <- pool0
I0428 20:07:24.130904 31092 net.cpp:382] conv1 -> conv1
I0428 20:07:24.133687 31092 net.cpp:124] Setting up conv1
I0428 20:07:24.133716 31092 net.cpp:131] Top shape: 64 10 8 8 (40960)
I0428 20:07:24.133720 31092 net.cpp:139] Memory required for data: 4972800
I0428 20:07:24.133729 31092 layer_factory.hpp:77] Creating layer pool1
I0428 20:07:24.133736 31092 net.cpp:86] Creating Layer pool1
I0428 20:07:24.133740 31092 net.cpp:408] pool1 <- conv1
I0428 20:07:24.133745 31092 net.cpp:382] pool1 -> pool1
I0428 20:07:24.133796 31092 net.cpp:124] Setting up pool1
I0428 20:07:24.133802 31092 net.cpp:131] Top shape: 64 10 4 4 (10240)
I0428 20:07:24.133805 31092 net.cpp:139] Memory required for data: 5013760
I0428 20:07:24.133808 31092 layer_factory.hpp:77] Creating layer ip1
I0428 20:07:24.133816 31092 net.cpp:86] Creating Layer ip1
I0428 20:07:24.133818 31092 net.cpp:408] ip1 <- pool1
I0428 20:07:24.133822 31092 net.cpp:382] ip1 -> ip1
I0428 20:07:24.134786 31092 net.cpp:124] Setting up ip1
I0428 20:07:24.134814 31092 net.cpp:131] Top shape: 64 10 (640)
I0428 20:07:24.134819 31092 net.cpp:139] Memory required for data: 5016320
I0428 20:07:24.134826 31092 layer_factory.hpp:77] Creating layer relu1
I0428 20:07:24.134832 31092 net.cpp:86] Creating Layer relu1
I0428 20:07:24.134835 31092 net.cpp:408] relu1 <- ip1
I0428 20:07:24.134840 31092 net.cpp:369] relu1 -> ip1 (in-place)
I0428 20:07:24.135004 31092 net.cpp:124] Setting up relu1
I0428 20:07:24.135013 31092 net.cpp:131] Top shape: 64 10 (640)
I0428 20:07:24.135016 31092 net.cpp:139] Memory required for data: 5018880
I0428 20:07:24.135020 31092 layer_factory.hpp:77] Creating layer loss
I0428 20:07:24.135025 31092 net.cpp:86] Creating Layer loss
I0428 20:07:24.135028 31092 net.cpp:408] loss <- ip1
I0428 20:07:24.135032 31092 net.cpp:408] loss <- label
I0428 20:07:24.135037 31092 net.cpp:382] loss -> loss
I0428 20:07:24.135051 31092 layer_factory.hpp:77] Creating layer loss
…
I0428 20:07:24.136234 31092 solver.cpp:173] Creating test net (#0) specified by net file: ECE595/mnist/train_test/var_everything2/lenet_train_test1054.prototxt
I0428 20:07:24.136256 31092 net.cpp:296] The NetState phase (1) differed from the phase (0) specified by a rule in layer mnist
I0428 20:07:24.136327 31092 net.cpp:53] Initializing net from parameters: 
name: "LeNet"
state {
  phase: TEST
}
layer {
  name: "mnist"
  type: "Data"
  top: "data"
  top: "label"
  include {
    phase: TEST
  }
  transform_param {
    scale: 0.00390625
  }
  data_param {
    source: "examples/mnist/mnist_test_lmdb"
    batch_size: 100
    backend: LMDB
  }
}
layer {
  name: "conv0"
  type: "Convolution"
  bottom: "data"
  top: "conv0"
  param {
    lr_mult: 1
  }
  param {
    lr_mult: 2
  }
  convolution_param {
    num_output: 25
    kernel_size: 5
    stride: 1
    weight_filler {
      type: "xavier"
    }
    bias_filler {
      type: "constant"
    }
  }
}
layer {
  name: "pool0"
  type: "Pooling"
  bottom: "conv0"
  top: "pool0"
  pooling_param {
    pool: MAX
    kernel_size: 2
    stride: 2
  }
}
layer {
  name: "conv1"
  type: "Convolution"
  bottom: "pool0"
  top: "conv1"
  param {
    lr_mult: 1
  }
  param {
    lr_mult: 2
  }
  convolution_param {
    num_output: 10
    kernel_size: 5
    stride: 1
    weight_filler {
      type: "xavier"
    }
    bias_filler {
      type: "constant"
    }
  }
}
layer {
  name: "pool1"
  type: "Pooling"
  bottom: "conv1"
  top: "pool1"
  pooling_param {
    pool: MAX
    kernel_size: 2
    stride: 2
  }
}
layer {
  name: "ip1"
  type: "InnerProduct"
  bottom: "pool1"
  top: "ip1"
  param {
    lr_mult: 1
  }
  param {
    lr_mult: 2
  }
  inner_product_param {
    num_output: 10
    weight_filler {
      type: "xavier"
    }
    bias_filler {
      type: "constant"
    }
  }
}
layer {
  name: "relu1"
  type: "ReLU"
  bottom: "ip1"
  top: "ip1"
}
layer {
  name: "accuracy"
  type: "Accuracy"
  bottom: "ip1"
  bottom: "label"
  top: "accuracy"
  include {
    phase: TEST
  }
}
layer {
  name: "loss"
  type: "SoftmaxWithLoss"
  bottom: "ip1"
  bottom: "label"
  top: "loss"
}
I0428 20:07:24.136394 31092 layer_factory.hpp:77] Creating layer mnist
I0428 20:07:24.136436 31092 db_lmdb.cpp:35] Opened lmdb examples/mnist/mnist_test_lmdb
I0428 20:07:24.136448 31092 net.cpp:86] Creating Layer mnist
I0428 20:07:24.136453 31092 net.cpp:382] mnist -> data
I0428 20:07:24.136461 31092 net.cpp:382] mnist -> label
I0428 20:07:24.136587 31092 data_layer.cpp:45] output data size: 100,1,28,28
I0428 20:07:24.138651 31092 net.cpp:124] Setting up mnist
I0428 20:07:24.138695 31092 net.cpp:131] Top shape: 100 1 28 28 (78400)
I0428 20:07:24.138700 31092 net.cpp:131] Top shape: 100 (100)
I0428 20:07:24.138703 31092 net.cpp:139] Memory required for data: 314000
I0428 20:07:24.138707 31092 layer_factory.hpp:77] Creating layer label_mnist_1_split
I0428 20:07:24.138713 31092 net.cpp:86] Creating Layer label_mnist_1_split
I0428 20:07:24.138717 31092 net.cpp:408] label_mnist_1_split <- label
I0428 20:07:24.138723 31092 net.cpp:382] label_mnist_1_split -> label_mnist_1_split_0
I0428 20:07:24.138731 31092 net.cpp:382] label_mnist_1_split -> label_mnist_1_split_1
I0428 20:07:24.138794 31092 net.cpp:124] Setting up label_mnist_1_split
I0428 20:07:24.138800 31092 net.cpp:131] Top shape: 100 (100)
I0428 20:07:24.138803 31092 net.cpp:131] Top shape: 100 (100)
I0428 20:07:24.138806 31092 net.cpp:139] Memory required for data: 314800
I0428 20:07:24.138810 31092 layer_factory.hpp:77] Creating layer conv0
I0428 20:07:24.138820 31092 net.cpp:86] Creating Layer conv0
I0428 20:07:24.138824 31092 net.cpp:408] conv0 <- data
I0428 20:07:24.138829 31092 net.cpp:382] conv0 -> conv0
I0428 20:07:24.139847 31092 net.cpp:124] Setting up conv0
I0428 20:07:24.139874 31092 net.cpp:131] Top shape: 100 25 24 24 (1440000)
I0428 20:07:24.139894 31092 net.cpp:139] Memory required for data: 6074800
I0428 20:07:24.139902 31092 layer_factory.hpp:77] Creating layer pool0
I0428 20:07:24.139909 31092 net.cpp:86] Creating Layer pool0
I0428 20:07:24.139911 31092 net.cpp:408] pool0 <- conv0
I0428 20:07:24.139917 31092 net.cpp:382] pool0 -> pool0
I0428 20:07:24.139968 31092 net.cpp:124] Setting up pool0
I0428 20:07:24.139974 31092 net.cpp:131] Top shape: 100 25 12 12 (360000)
I0428 20:07:24.139976 31092 net.cpp:139] Memory required for data: 7514800
I0428 20:07:24.139979 31092 layer_factory.hpp:77] Creating layer conv1
I0428 20:07:24.139989 31092 net.cpp:86] Creating Layer conv1
I0428 20:07:24.139993 31092 net.cpp:408] conv1 <- pool0
I0428 20:07:24.139998 31092 net.cpp:382] conv1 -> conv1
I0428 20:07:24.142233 31092 net.cpp:124] Setting up conv1
I0428 20:07:24.142263 31092 net.cpp:131] Top shape: 100 10 8 8 (64000)
I0428 20:07:24.142267 31092 net.cpp:139] Memory required for data: 7770800
I0428 20:07:24.142277 31092 layer_factory.hpp:77] Creating layer pool1
I0428 20:07:24.142284 31092 net.cpp:86] Creating Layer pool1
I0428 20:07:24.142298 31092 net.cpp:408] pool1 <- conv1
I0428 20:07:24.142320 31092 net.cpp:382] pool1 -> pool1
I0428 20:07:24.142424 31092 net.cpp:124] Setting up pool1
I0428 20:07:24.142431 31092 net.cpp:131] Top shape: 100 10 4 4 (16000)
I0428 20:07:24.142434 31092 net.cpp:139] Memory required for data: 7834800
I0428 20:07:24.142437 31092 layer_factory.hpp:77] Creating layer ip1
I0428 20:07:24.142444 31092 net.cpp:86] Creating Layer ip1
I0428 20:07:24.142448 31092 net.cpp:408] ip1 <- pool1
I0428 20:07:24.142453 31092 net.cpp:382] ip1 -> ip1
I0428 20:07:24.142575 31092 net.cpp:124] Setting up ip1
I0428 20:07:24.142585 31092 net.cpp:131] Top shape: 100 10 (1000)
I0428 20:07:24.142587 31092 net.cpp:139] Memory required for data: 7838800
I0428 20:07:24.142594 31092 layer_factory.hpp:77] Creating layer relu1
I0428 20:07:24.142606 31092 net.cpp:86] Creating Layer relu1
I0428 20:07:24.142609 31092 net.cpp:408] relu1 <- ip1
I0428 20:07:24.142616 31092 net.cpp:369] relu1 -> ip1 (in-place)
I0428 20:07:24.143517 31092 net.cpp:124] Setting up relu1
I0428 20:07:24.143543 31092 net.cpp:131] Top shape: 100 10 (1000)
I0428 20:07:24.143548 31092 net.cpp:139] Memory required for data: 7842800
I0428 20:07:24.143550 31092 layer_factory.hpp:77] Creating layer ip1_relu1_0_split
I0428 20:07:24.143558 31092 net.cpp:86] Creating Layer ip1_relu1_0_split
I0428 20:07:24.143563 31092 net.cpp:408] ip1_relu1_0_split <- ip1
I0428 20:07:24.143568 31092 net.cpp:382] ip1_relu1_0_split -> ip1_relu1_0_split_0
I0428 20:07:24.143573 31092 net.cpp:382] ip1_relu1_0_split -> ip1_relu1_0_split_1
I0428 20:07:24.143620 31092 net.cpp:124] Setting up ip1_relu1_0_split
I0428 20:07:24.143625 31092 net.cpp:131] Top shape: 100 10 (1000)
I0428 20:07:24.143630 31092 net.cpp:131] Top shape: 100 10 (1000)
I0428 20:07:24.143632 31092 net.cpp:139] Memory required for data: 7850800
I0428 20:07:24.143635 31092 layer_factory.hpp:77] Creating layer accuracy
I0428 20:07:24.143640 31092 net.cpp:86] Creating Layer accuracy
I0428 20:07:24.143645 31092 net.cpp:408] accuracy <- ip1_relu1_0_split_0
I0428 20:07:24.143648 31092 net.cpp:408] accuracy <- label_mnist_1_split_0
I0428 20:07:24.143653 31092 net.cpp:382] accuracy -> accuracy
…
