…
I0428 19:40:41.757580 24611 net.cpp:296] The NetState phase (0) differed from the phase (1) specified by a rule in layer mnist
I0428 19:40:41.757597 24611 net.cpp:296] The NetState phase (0) differed from the phase (1) specified by a rule in layer accuracy
I0428 19:40:41.757692 24611 net.cpp:53] Initializing net from parameters: 
name: "LeNet"
state {
  phase: TRAIN
  level: 0
  stage: ""
}
layer {
  name: "mnist"
  type: "Data"
  top: "data"
  top: "label"
  include {
    phase: TRAIN
  }
  transform_param {
    scale: 0.00390625
  }
  data_param {
    source: "examples/mnist/mnist_train_lmdb"
    batch_size: 64
    backend: LMDB
  }
}
layer {
  name: "conv0"
  type: "Convolution"
  bottom: "data"
  top: "conv0"
  param {
    lr_mult: 1
  }
  param {
    lr_mult: 2
  }
  convolution_param {
    num_output: 2
    kernel_size: 5
    stride: 1
    weight_filler {
      type: "xavier"
    }
    bias_filler {
      type: "constant"
    }
  }
}
layer {
  name: "pool0"
  type: "Pooling"
  bottom: "conv0"
  top: "pool0"
  pooling_param {
    pool: MAX
    kernel_size: 2
    stride: 2
  }
}
layer {
  name: "conv1"
  type: "Convolution"
  bottom: "pool0"
  top: "conv1"
  param {
    lr_mult: 1
  }
  param {
    lr_mult: 2
  }
  convolution_param {
    num_output: 5
    kernel_size: 5
    stride: 1
    weight_filler {
      type: "xavier"
    }
    bias_filler {
      type: "constant"
    }
  }
}
layer {
  name: "pool1"
  type: "Pooling"
  bottom: "conv1"
  top: "pool1"
  pooling_param {
    pool: MAX
    kernel_size: 2
    stride: 2
  }
}
layer {
  name: "ip1"
  type: "InnerProduct"
  bottom: "pool1"
  top: "ip1"
  param {
    lr_mult: 1
  }
  param {
    lr_mult: 2
  }
  inner_product_param {
    num_output: 50
    weight_filler {
      type: "xavier"
    }
    bias_filler {
      type: "constant"
    }
  }
}
layer {
  name: "relu1"
  type: "ReLU"
  bottom: "ip1"
  top: "ip1"
}
layer {
  name: "ip2"
  type: "InnerProduct"
  bottom: "ip1"
  top: "ip2"
  param {
    lr_mult: 1
  }
  param {
    lr_mult: 2
  }
  inner_product_param {
    num_output: 10
    weight_filler {
      type: "xavier"
    }
    bias_filler {
      type: "constant"
    }
  }
}
layer {
  name: "relu2"
  type: "ReLU"
  bottom: "ip2"
  top: "ip2"
}
layer {
  name: "ip3"
  type: "InnerProduct"
  bottom: "ip2"
  top: "ip3"
  param {
    lr_mult: 1
  }
  param {
    lr_mult: 2
  }
  inner_product_param {
    num_output: 10
    weight_filler {
      type: "xavier"
    }
    bias_filler {
      type: "constant"
    }
  }
}
layer {
  name: "relu3"
  type: "ReLU"
  bottom: "ip3"
  top: "ip3"
}
layer {
  name: "loss"
  type: "SoftmaxWithLoss"
  bottom: "ip3"
  bottom: "label"
  top: "loss"
}
I0428 19:40:41.757763 24611 layer_factory.hpp:77] Creating layer mnist
I0428 19:40:41.757858 24611 db_lmdb.cpp:35] Opened lmdb examples/mnist/mnist_train_lmdb
I0428 19:40:41.757881 24611 net.cpp:86] Creating Layer mnist
I0428 19:40:41.757889 24611 net.cpp:382] mnist -> data
I0428 19:40:41.757910 24611 net.cpp:382] mnist -> label
I0428 19:40:41.758960 24611 data_layer.cpp:45] output data size: 64,1,28,28
I0428 19:40:41.761346 24611 net.cpp:124] Setting up mnist
I0428 19:40:41.761364 24611 net.cpp:131] Top shape: 64 1 28 28 (50176)
I0428 19:40:41.761370 24611 net.cpp:131] Top shape: 64 (64)
I0428 19:40:41.761374 24611 net.cpp:139] Memory required for data: 200960
I0428 19:40:41.761382 24611 layer_factory.hpp:77] Creating layer conv0
I0428 19:40:41.761397 24611 net.cpp:86] Creating Layer conv0
I0428 19:40:41.761417 24611 net.cpp:408] conv0 <- data
I0428 19:40:41.761430 24611 net.cpp:382] conv0 -> conv0
I0428 19:40:42.046366 24611 net.cpp:124] Setting up conv0
I0428 19:40:42.046396 24611 net.cpp:131] Top shape: 64 2 24 24 (73728)
I0428 19:40:42.046401 24611 net.cpp:139] Memory required for data: 495872
I0428 19:40:42.046418 24611 layer_factory.hpp:77] Creating layer pool0
I0428 19:40:42.046432 24611 net.cpp:86] Creating Layer pool0
I0428 19:40:42.046437 24611 net.cpp:408] pool0 <- conv0
I0428 19:40:42.046442 24611 net.cpp:382] pool0 -> pool0
I0428 19:40:42.046494 24611 net.cpp:124] Setting up pool0
I0428 19:40:42.046500 24611 net.cpp:131] Top shape: 64 2 12 12 (18432)
I0428 19:40:42.046504 24611 net.cpp:139] Memory required for data: 569600
I0428 19:40:42.046509 24611 layer_factory.hpp:77] Creating layer conv1
I0428 19:40:42.046520 24611 net.cpp:86] Creating Layer conv1
I0428 19:40:42.046524 24611 net.cpp:408] conv1 <- pool0
I0428 19:40:42.046530 24611 net.cpp:382] conv1 -> conv1
I0428 19:40:42.048573 24611 net.cpp:124] Setting up conv1
I0428 19:40:42.048589 24611 net.cpp:131] Top shape: 64 5 8 8 (20480)
I0428 19:40:42.048593 24611 net.cpp:139] Memory required for data: 651520
I0428 19:40:42.048604 24611 layer_factory.hpp:77] Creating layer pool1
I0428 19:40:42.048611 24611 net.cpp:86] Creating Layer pool1
I0428 19:40:42.048615 24611 net.cpp:408] pool1 <- conv1
I0428 19:40:42.048624 24611 net.cpp:382] pool1 -> pool1
I0428 19:40:42.048671 24611 net.cpp:124] Setting up pool1
I0428 19:40:42.048676 24611 net.cpp:131] Top shape: 64 5 4 4 (5120)
I0428 19:40:42.048679 24611 net.cpp:139] Memory required for data: 672000
I0428 19:40:42.048682 24611 layer_factory.hpp:77] Creating layer ip1
I0428 19:40:42.048692 24611 net.cpp:86] Creating Layer ip1
I0428 19:40:42.048696 24611 net.cpp:408] ip1 <- pool1
I0428 19:40:42.048702 24611 net.cpp:382] ip1 -> ip1
I0428 19:40:42.049758 24611 net.cpp:124] Setting up ip1
I0428 19:40:42.049772 24611 net.cpp:131] Top shape: 64 50 (3200)
I0428 19:40:42.049775 24611 net.cpp:139] Memory required for data: 684800
I0428 19:40:42.049785 24611 layer_factory.hpp:77] Creating layer relu1
I0428 19:40:42.049793 24611 net.cpp:86] Creating Layer relu1
I0428 19:40:42.049798 24611 net.cpp:408] relu1 <- ip1
I0428 19:40:42.049803 24611 net.cpp:369] relu1 -> ip1 (in-place)
I0428 19:40:42.049998 24611 net.cpp:124] Setting up relu1
I0428 19:40:42.050009 24611 net.cpp:131] Top shape: 64 50 (3200)
I0428 19:40:42.050012 24611 net.cpp:139] Memory required for data: 697600
I0428 19:40:42.050015 24611 layer_factory.hpp:77] Creating layer ip2
I0428 19:40:42.050022 24611 net.cpp:86] Creating Layer ip2
I0428 19:40:42.050026 24611 net.cpp:408] ip2 <- ip1
I0428 19:40:42.050034 24611 net.cpp:382] ip2 -> ip2
I0428 19:40:42.050150 24611 net.cpp:124] Setting up ip2
I0428 19:40:42.050158 24611 net.cpp:131] Top shape: 64 10 (640)
I0428 19:40:42.050161 24611 net.cpp:139] Memory required for data: 700160
I0428 19:40:42.050168 24611 layer_factory.hpp:77] Creating layer relu2
I0428 19:40:42.050174 24611 net.cpp:86] Creating Layer relu2
I0428 19:40:42.050179 24611 net.cpp:408] relu2 <- ip2
I0428 19:40:42.050184 24611 net.cpp:369] relu2 -> ip2 (in-place)
I0428 19:40:42.050977 24611 net.cpp:124] Setting up relu2
I0428 19:40:42.050990 24611 net.cpp:131] Top shape: 64 10 (640)
I0428 19:40:42.050994 24611 net.cpp:139] Memory required for data: 702720
I0428 19:40:42.050998 24611 layer_factory.hpp:77] Creating layer ip3
I0428 19:40:42.051005 24611 net.cpp:86] Creating Layer ip3
I0428 19:40:42.051009 24611 net.cpp:408] ip3 <- ip2
I0428 19:40:42.051017 24611 net.cpp:382] ip3 -> ip3
I0428 19:40:42.051134 24611 net.cpp:124] Setting up ip3
I0428 19:40:42.051142 24611 net.cpp:131] Top shape: 64 10 (640)
I0428 19:40:42.051146 24611 net.cpp:139] Memory required for data: 705280
I0428 19:40:42.051153 24611 layer_factory.hpp:77] Creating layer relu3
I0428 19:40:42.051161 24611 net.cpp:86] Creating Layer relu3
I0428 19:40:42.051163 24611 net.cpp:408] relu3 <- ip3
I0428 19:40:42.051168 24611 net.cpp:369] relu3 -> ip3 (in-place)
I0428 19:40:42.051362 24611 net.cpp:124] Setting up relu3
I0428 19:40:42.051373 24611 net.cpp:131] Top shape: 64 10 (640)
I0428 19:40:42.051378 24611 net.cpp:139] Memory required for data: 707840
I0428 19:40:42.051381 24611 layer_factory.hpp:77] Creating layer loss
I0428 19:40:42.051388 24611 net.cpp:86] Creating Layer loss
I0428 19:40:42.051391 24611 net.cpp:408] loss <- ip3
I0428 19:40:42.051395 24611 net.cpp:408] loss <- label
I0428 19:40:42.051400 24611 net.cpp:382] loss -> loss
I0428 19:40:42.051419 24611 layer_factory.hpp:77] Creating layer loss
…
I0428 19:40:42.052115 24611 solver.cpp:173] Creating test net (#0) specified by net file: ECE595/mnist/train_test/var_everything2/lenet_train_test342.prototxt
I0428 19:40:42.052145 24611 net.cpp:296] The NetState phase (1) differed from the phase (0) specified by a rule in layer mnist
I0428 19:40:42.052250 24611 net.cpp:53] Initializing net from parameters: 
name: "LeNet"
state {
  phase: TEST
}
layer {
  name: "mnist"
  type: "Data"
  top: "data"
  top: "label"
  include {
    phase: TEST
  }
  transform_param {
    scale: 0.00390625
  }
  data_param {
    source: "examples/mnist/mnist_test_lmdb"
    batch_size: 100
    backend: LMDB
  }
}
layer {
  name: "conv0"
  type: "Convolution"
  bottom: "data"
  top: "conv0"
  param {
    lr_mult: 1
  }
  param {
    lr_mult: 2
  }
  convolution_param {
    num_output: 2
    kernel_size: 5
    stride: 1
    weight_filler {
      type: "xavier"
    }
    bias_filler {
      type: "constant"
    }
  }
}
layer {
  name: "pool0"
  type: "Pooling"
  bottom: "conv0"
  top: "pool0"
  pooling_param {
    pool: MAX
    kernel_size: 2
    stride: 2
  }
}
layer {
  name: "conv1"
  type: "Convolution"
  bottom: "pool0"
  top: "conv1"
  param {
    lr_mult: 1
  }
  param {
    lr_mult: 2
  }
  convolution_param {
    num_output: 5
    kernel_size: 5
    stride: 1
    weight_filler {
      type: "xavier"
    }
    bias_filler {
      type: "constant"
    }
  }
}
layer {
  name: "pool1"
  type: "Pooling"
  bottom: "conv1"
  top: "pool1"
  pooling_param {
    pool: MAX
    kernel_size: 2
    stride: 2
  }
}
layer {
  name: "ip1"
  type: "InnerProduct"
  bottom: "pool1"
  top: "ip1"
  param {
    lr_mult: 1
  }
  param {
    lr_mult: 2
  }
  inner_product_param {
    num_output: 50
    weight_filler {
      type: "xavier"
    }
    bias_filler {
      type: "constant"
    }
  }
}
layer {
  name: "relu1"
  type: "ReLU"
  bottom: "ip1"
  top: "ip1"
}
layer {
  name: "ip2"
  type: "InnerProduct"
  bottom: "ip1"
  top: "ip2"
  param {
    lr_mult: 1
  }
  param {
    lr_mult: 2
  }
  inner_product_param {
    num_output: 10
    weight_filler {
      type: "xavier"
    }
    bias_filler {
      type: "constant"
    }
  }
}
layer {
  name: "relu2"
  type: "ReLU"
  bottom: "ip2"
  top: "ip2"
}
layer {
  name: "ip3"
  type: "InnerProduct"
  bottom: "ip2"
  top: "ip3"
  param {
    lr_mult: 1
  }
  param {
    lr_mult: 2
  }
  inner_product_param {
    num_output: 10
    weight_filler {
      type: "xavier"
    }
    bias_filler {
      type: "constant"
    }
  }
}
layer {
  name: "relu3"
  type: "ReLU"
  bottom: "ip3"
  top: "ip3"
}
layer {
  name: "accuracy"
  type: "Accuracy"
  bottom: "ip3"
  bottom: "label"
  top: "accuracy"
  include {
    phase: TEST
  }
}
layer {
  name: "loss"
  type: "SoftmaxWithLoss"
  bottom: "ip3"
  bottom: "label"
  top: "loss"
}
I0428 19:40:42.052340 24611 layer_factory.hpp:77] Creating layer mnist
I0428 19:40:42.052389 24611 db_lmdb.cpp:35] Opened lmdb examples/mnist/mnist_test_lmdb
I0428 19:40:42.052403 24611 net.cpp:86] Creating Layer mnist
I0428 19:40:42.052409 24611 net.cpp:382] mnist -> data
I0428 19:40:42.052417 24611 net.cpp:382] mnist -> label
I0428 19:40:42.052513 24611 data_layer.cpp:45] output data size: 100,1,28,28
I0428 19:40:42.054548 24611 net.cpp:124] Setting up mnist
I0428 19:40:42.054561 24611 net.cpp:131] Top shape: 100 1 28 28 (78400)
I0428 19:40:42.054567 24611 net.cpp:131] Top shape: 100 (100)
I0428 19:40:42.054570 24611 net.cpp:139] Memory required for data: 314000
I0428 19:40:42.054574 24611 layer_factory.hpp:77] Creating layer label_mnist_1_split
I0428 19:40:42.054585 24611 net.cpp:86] Creating Layer label_mnist_1_split
I0428 19:40:42.054589 24611 net.cpp:408] label_mnist_1_split <- label
I0428 19:40:42.054622 24611 net.cpp:382] label_mnist_1_split -> label_mnist_1_split_0
I0428 19:40:42.054630 24611 net.cpp:382] label_mnist_1_split -> label_mnist_1_split_1
I0428 19:40:42.054675 24611 net.cpp:124] Setting up label_mnist_1_split
I0428 19:40:42.054683 24611 net.cpp:131] Top shape: 100 (100)
I0428 19:40:42.054687 24611 net.cpp:131] Top shape: 100 (100)
I0428 19:40:42.054690 24611 net.cpp:139] Memory required for data: 314800
I0428 19:40:42.054693 24611 layer_factory.hpp:77] Creating layer conv0
I0428 19:40:42.054704 24611 net.cpp:86] Creating Layer conv0
I0428 19:40:42.054708 24611 net.cpp:408] conv0 <- data
I0428 19:40:42.054713 24611 net.cpp:382] conv0 -> conv0
I0428 19:40:42.056383 24611 net.cpp:124] Setting up conv0
I0428 19:40:42.056398 24611 net.cpp:131] Top shape: 100 2 24 24 (115200)
I0428 19:40:42.056402 24611 net.cpp:139] Memory required for data: 775600
I0428 19:40:42.056412 24611 layer_factory.hpp:77] Creating layer pool0
I0428 19:40:42.056419 24611 net.cpp:86] Creating Layer pool0
I0428 19:40:42.056423 24611 net.cpp:408] pool0 <- conv0
I0428 19:40:42.056430 24611 net.cpp:382] pool0 -> pool0
I0428 19:40:42.056470 24611 net.cpp:124] Setting up pool0
I0428 19:40:42.056476 24611 net.cpp:131] Top shape: 100 2 12 12 (28800)
I0428 19:40:42.056480 24611 net.cpp:139] Memory required for data: 890800
I0428 19:40:42.056483 24611 layer_factory.hpp:77] Creating layer conv1
I0428 19:40:42.056494 24611 net.cpp:86] Creating Layer conv1
I0428 19:40:42.056499 24611 net.cpp:408] conv1 <- pool0
I0428 19:40:42.056504 24611 net.cpp:382] conv1 -> conv1
I0428 19:40:42.058118 24611 net.cpp:124] Setting up conv1
I0428 19:40:42.058133 24611 net.cpp:131] Top shape: 100 5 8 8 (32000)
I0428 19:40:42.058137 24611 net.cpp:139] Memory required for data: 1018800
I0428 19:40:42.058147 24611 layer_factory.hpp:77] Creating layer pool1
I0428 19:40:42.058156 24611 net.cpp:86] Creating Layer pool1
I0428 19:40:42.058159 24611 net.cpp:408] pool1 <- conv1
I0428 19:40:42.058166 24611 net.cpp:382] pool1 -> pool1
I0428 19:40:42.058208 24611 net.cpp:124] Setting up pool1
I0428 19:40:42.058214 24611 net.cpp:131] Top shape: 100 5 4 4 (8000)
I0428 19:40:42.058218 24611 net.cpp:139] Memory required for data: 1050800
I0428 19:40:42.058221 24611 layer_factory.hpp:77] Creating layer ip1
I0428 19:40:42.058243 24611 net.cpp:86] Creating Layer ip1
I0428 19:40:42.058245 24611 net.cpp:408] ip1 <- pool1
I0428 19:40:42.058254 24611 net.cpp:382] ip1 -> ip1
I0428 19:40:42.058393 24611 net.cpp:124] Setting up ip1
I0428 19:40:42.058401 24611 net.cpp:131] Top shape: 100 50 (5000)
I0428 19:40:42.058416 24611 net.cpp:139] Memory required for data: 1070800
I0428 19:40:42.058425 24611 layer_factory.hpp:77] Creating layer relu1
I0428 19:40:42.058430 24611 net.cpp:86] Creating Layer relu1
I0428 19:40:42.058435 24611 net.cpp:408] relu1 <- ip1
I0428 19:40:42.058440 24611 net.cpp:369] relu1 -> ip1 (in-place)
I0428 19:40:42.058621 24611 net.cpp:124] Setting up relu1
I0428 19:40:42.058632 24611 net.cpp:131] Top shape: 100 50 (5000)
I0428 19:40:42.058642 24611 net.cpp:139] Memory required for data: 1090800
I0428 19:40:42.058646 24611 layer_factory.hpp:77] Creating layer ip2
I0428 19:40:42.058655 24611 net.cpp:86] Creating Layer ip2
I0428 19:40:42.058660 24611 net.cpp:408] ip2 <- ip1
I0428 19:40:42.058665 24611 net.cpp:382] ip2 -> ip2
I0428 19:40:42.058778 24611 net.cpp:124] Setting up ip2
I0428 19:40:42.058785 24611 net.cpp:131] Top shape: 100 10 (1000)
I0428 19:40:42.058789 24611 net.cpp:139] Memory required for data: 1094800
I0428 19:40:42.058794 24611 layer_factory.hpp:77] Creating layer relu2
I0428 19:40:42.058800 24611 net.cpp:86] Creating Layer relu2
I0428 19:40:42.058804 24611 net.cpp:408] relu2 <- ip2
I0428 19:40:42.058809 24611 net.cpp:369] relu2 -> ip2 (in-place)
I0428 19:40:42.059000 24611 net.cpp:124] Setting up relu2
I0428 19:40:42.059010 24611 net.cpp:131] Top shape: 100 10 (1000)
I0428 19:40:42.059013 24611 net.cpp:139] Memory required for data: 1098800
I0428 19:40:42.059016 24611 layer_factory.hpp:77] Creating layer ip3
I0428 19:40:42.059023 24611 net.cpp:86] Creating Layer ip3
I0428 19:40:42.059027 24611 net.cpp:408] ip3 <- ip2
I0428 19:40:42.059034 24611 net.cpp:382] ip3 -> ip3
I0428 19:40:42.059155 24611 net.cpp:124] Setting up ip3
I0428 19:40:42.059165 24611 net.cpp:131] Top shape: 100 10 (1000)
I0428 19:40:42.059167 24611 net.cpp:139] Memory required for data: 1102800
I0428 19:40:42.059176 24611 layer_factory.hpp:77] Creating layer relu3
I0428 19:40:42.059180 24611 net.cpp:86] Creating Layer relu3
I0428 19:40:42.059185 24611 net.cpp:408] relu3 <- ip3
I0428 19:40:42.059188 24611 net.cpp:369] relu3 -> ip3 (in-place)
I0428 19:40:42.060091 24611 net.cpp:124] Setting up relu3
I0428 19:40:42.060104 24611 net.cpp:131] Top shape: 100 10 (1000)
I0428 19:40:42.060109 24611 net.cpp:139] Memory required for data: 1106800
I0428 19:40:42.060113 24611 layer_factory.hpp:77] Creating layer ip3_relu3_0_split
I0428 19:40:42.060120 24611 net.cpp:86] Creating Layer ip3_relu3_0_split
I0428 19:40:42.060123 24611 net.cpp:408] ip3_relu3_0_split <- ip3
I0428 19:40:42.060129 24611 net.cpp:382] ip3_relu3_0_split -> ip3_relu3_0_split_0
I0428 19:40:42.060137 24611 net.cpp:382] ip3_relu3_0_split -> ip3_relu3_0_split_1
I0428 19:40:42.060185 24611 net.cpp:124] Setting up ip3_relu3_0_split
I0428 19:40:42.060197 24611 net.cpp:131] Top shape: 100 10 (1000)
I0428 19:40:42.060201 24611 net.cpp:131] Top shape: 100 10 (1000)
I0428 19:40:42.060204 24611 net.cpp:139] Memory required for data: 1114800
I0428 19:40:42.060209 24611 layer_factory.hpp:77] Creating layer accuracy
I0428 19:40:42.060215 24611 net.cpp:86] Creating Layer accuracy
I0428 19:40:42.060225 24611 net.cpp:408] accuracy <- ip3_relu3_0_split_0
I0428 19:40:42.060228 24611 net.cpp:408] accuracy <- label_mnist_1_split_0
I0428 19:40:42.060233 24611 net.cpp:382] accuracy -> accuracy
…
