…
I0428 20:15:14.090837   395 net.cpp:296] The NetState phase (0) differed from the phase (1) specified by a rule in layer mnist
I0428 20:15:14.090868   395 net.cpp:296] The NetState phase (0) differed from the phase (1) specified by a rule in layer accuracy
I0428 20:15:14.090951   395 net.cpp:53] Initializing net from parameters: 
name: "LeNet"
state {
  phase: TRAIN
  level: 0
  stage: ""
}
layer {
  name: "mnist"
  type: "Data"
  top: "data"
  top: "label"
  include {
    phase: TRAIN
  }
  transform_param {
    scale: 0.00390625
  }
  data_param {
    source: "examples/mnist/mnist_train_lmdb"
    batch_size: 64
    backend: LMDB
  }
}
layer {
  name: "conv0"
  type: "Convolution"
  bottom: "data"
  top: "conv0"
  param {
    lr_mult: 1
  }
  param {
    lr_mult: 2
  }
  convolution_param {
    num_output: 50
    kernel_size: 5
    stride: 1
    weight_filler {
      type: "xavier"
    }
    bias_filler {
      type: "constant"
    }
  }
}
layer {
  name: "pool0"
  type: "Pooling"
  bottom: "conv0"
  top: "pool0"
  pooling_param {
    pool: MAX
    kernel_size: 2
    stride: 2
  }
}
layer {
  name: "conv1"
  type: "Convolution"
  bottom: "pool0"
  top: "conv1"
  param {
    lr_mult: 1
  }
  param {
    lr_mult: 2
  }
  convolution_param {
    num_output: 2
    kernel_size: 5
    stride: 1
    weight_filler {
      type: "xavier"
    }
    bias_filler {
      type: "constant"
    }
  }
}
layer {
  name: "pool1"
  type: "Pooling"
  bottom: "conv1"
  top: "pool1"
  pooling_param {
    pool: MAX
    kernel_size: 2
    stride: 2
  }
}
layer {
  name: "ip1"
  type: "InnerProduct"
  bottom: "pool1"
  top: "ip1"
  param {
    lr_mult: 1
  }
  param {
    lr_mult: 2
  }
  inner_product_param {
    num_output: 50
    weight_filler {
      type: "xavier"
    }
    bias_filler {
      type: "constant"
    }
  }
}
layer {
  name: "relu1"
  type: "ReLU"
  bottom: "ip1"
  top: "ip1"
}
layer {
  name: "ip2"
  type: "InnerProduct"
  bottom: "ip1"
  top: "ip2"
  param {
    lr_mult: 1
  }
  param {
    lr_mult: 2
  }
  inner_product_param {
    num_output: 10
    weight_filler {
      type: "xavier"
    }
    bias_filler {
      type: "constant"
    }
  }
}
layer {
  name: "relu2"
  type: "ReLU"
  bottom: "ip2"
  top: "ip2"
}
layer {
  name: "ip3"
  type: "InnerProduct"
  bottom: "ip2"
  top: "ip3"
  param {
    lr_mult: 1
  }
  param {
    lr_mult: 2
  }
  inner_product_param {
    num_output: 10
    weight_filler {
      type: "xavier"
    }
    bias_filler {
      type: "constant"
    }
  }
}
layer {
  name: "relu3"
  type: "ReLU"
  bottom: "ip3"
  top: "ip3"
}
layer {
  name: "loss"
  type: "SoftmaxWithLoss"
  bottom: "ip3"
  bottom: "label"
  top: "loss"
}
I0428 20:15:14.091014   395 layer_factory.hpp:77] Creating layer mnist
I0428 20:15:14.091115   395 db_lmdb.cpp:35] Opened lmdb examples/mnist/mnist_train_lmdb
I0428 20:15:14.091162   395 net.cpp:86] Creating Layer mnist
I0428 20:15:14.091168   395 net.cpp:382] mnist -> data
I0428 20:15:14.091187   395 net.cpp:382] mnist -> label
I0428 20:15:14.092185   395 data_layer.cpp:45] output data size: 64,1,28,28
I0428 20:15:14.094368   395 net.cpp:124] Setting up mnist
I0428 20:15:14.094415   395 net.cpp:131] Top shape: 64 1 28 28 (50176)
I0428 20:15:14.094435   395 net.cpp:131] Top shape: 64 (64)
I0428 20:15:14.094439   395 net.cpp:139] Memory required for data: 200960
I0428 20:15:14.094444   395 layer_factory.hpp:77] Creating layer conv0
I0428 20:15:14.094456   395 net.cpp:86] Creating Layer conv0
I0428 20:15:14.094473   395 net.cpp:408] conv0 <- data
I0428 20:15:14.094483   395 net.cpp:382] conv0 -> conv0
I0428 20:15:14.321111   395 net.cpp:124] Setting up conv0
I0428 20:15:14.321167   395 net.cpp:131] Top shape: 64 50 24 24 (1843200)
I0428 20:15:14.321171   395 net.cpp:139] Memory required for data: 7573760
I0428 20:15:14.321185   395 layer_factory.hpp:77] Creating layer pool0
I0428 20:15:14.321198   395 net.cpp:86] Creating Layer pool0
I0428 20:15:14.321202   395 net.cpp:408] pool0 <- conv0
I0428 20:15:14.321208   395 net.cpp:382] pool0 -> pool0
I0428 20:15:14.321266   395 net.cpp:124] Setting up pool0
I0428 20:15:14.321274   395 net.cpp:131] Top shape: 64 50 12 12 (460800)
I0428 20:15:14.321290   395 net.cpp:139] Memory required for data: 9416960
I0428 20:15:14.321295   395 layer_factory.hpp:77] Creating layer conv1
I0428 20:15:14.321305   395 net.cpp:86] Creating Layer conv1
I0428 20:15:14.321310   395 net.cpp:408] conv1 <- pool0
I0428 20:15:14.321329   395 net.cpp:382] conv1 -> conv1
I0428 20:15:14.323195   395 net.cpp:124] Setting up conv1
I0428 20:15:14.323227   395 net.cpp:131] Top shape: 64 2 8 8 (8192)
I0428 20:15:14.323231   395 net.cpp:139] Memory required for data: 9449728
I0428 20:15:14.323240   395 layer_factory.hpp:77] Creating layer pool1
I0428 20:15:14.323246   395 net.cpp:86] Creating Layer pool1
I0428 20:15:14.323251   395 net.cpp:408] pool1 <- conv1
I0428 20:15:14.323256   395 net.cpp:382] pool1 -> pool1
I0428 20:15:14.323290   395 net.cpp:124] Setting up pool1
I0428 20:15:14.323295   395 net.cpp:131] Top shape: 64 2 4 4 (2048)
I0428 20:15:14.323298   395 net.cpp:139] Memory required for data: 9457920
I0428 20:15:14.323302   395 layer_factory.hpp:77] Creating layer ip1
I0428 20:15:14.323307   395 net.cpp:86] Creating Layer ip1
I0428 20:15:14.323310   395 net.cpp:408] ip1 <- pool1
I0428 20:15:14.323315   395 net.cpp:382] ip1 -> ip1
I0428 20:15:14.323422   395 net.cpp:124] Setting up ip1
I0428 20:15:14.323431   395 net.cpp:131] Top shape: 64 50 (3200)
I0428 20:15:14.323433   395 net.cpp:139] Memory required for data: 9470720
I0428 20:15:14.323441   395 layer_factory.hpp:77] Creating layer relu1
I0428 20:15:14.323446   395 net.cpp:86] Creating Layer relu1
I0428 20:15:14.323449   395 net.cpp:408] relu1 <- ip1
I0428 20:15:14.323453   395 net.cpp:369] relu1 -> ip1 (in-place)
I0428 20:15:14.323608   395 net.cpp:124] Setting up relu1
I0428 20:15:14.323616   395 net.cpp:131] Top shape: 64 50 (3200)
I0428 20:15:14.323619   395 net.cpp:139] Memory required for data: 9483520
I0428 20:15:14.323622   395 layer_factory.hpp:77] Creating layer ip2
I0428 20:15:14.323628   395 net.cpp:86] Creating Layer ip2
I0428 20:15:14.323632   395 net.cpp:408] ip2 <- ip1
I0428 20:15:14.323637   395 net.cpp:382] ip2 -> ip2
I0428 20:15:14.323725   395 net.cpp:124] Setting up ip2
I0428 20:15:14.323747   395 net.cpp:131] Top shape: 64 10 (640)
I0428 20:15:14.323750   395 net.cpp:139] Memory required for data: 9486080
I0428 20:15:14.323756   395 layer_factory.hpp:77] Creating layer relu2
I0428 20:15:14.323762   395 net.cpp:86] Creating Layer relu2
I0428 20:15:14.323765   395 net.cpp:408] relu2 <- ip2
I0428 20:15:14.323770   395 net.cpp:369] relu2 -> ip2 (in-place)
I0428 20:15:14.324559   395 net.cpp:124] Setting up relu2
I0428 20:15:14.324573   395 net.cpp:131] Top shape: 64 10 (640)
I0428 20:15:14.324591   395 net.cpp:139] Memory required for data: 9488640
I0428 20:15:14.324594   395 layer_factory.hpp:77] Creating layer ip3
I0428 20:15:14.324617   395 net.cpp:86] Creating Layer ip3
I0428 20:15:14.324620   395 net.cpp:408] ip3 <- ip2
I0428 20:15:14.324626   395 net.cpp:382] ip3 -> ip3
I0428 20:15:14.324724   395 net.cpp:124] Setting up ip3
I0428 20:15:14.324731   395 net.cpp:131] Top shape: 64 10 (640)
I0428 20:15:14.324734   395 net.cpp:139] Memory required for data: 9491200
I0428 20:15:14.324743   395 layer_factory.hpp:77] Creating layer relu3
I0428 20:15:14.324748   395 net.cpp:86] Creating Layer relu3
I0428 20:15:14.324750   395 net.cpp:408] relu3 <- ip3
I0428 20:15:14.324754   395 net.cpp:369] relu3 -> ip3 (in-place)
I0428 20:15:14.324977   395 net.cpp:124] Setting up relu3
I0428 20:15:14.324988   395 net.cpp:131] Top shape: 64 10 (640)
I0428 20:15:14.324991   395 net.cpp:139] Memory required for data: 9493760
I0428 20:15:14.324995   395 layer_factory.hpp:77] Creating layer loss
I0428 20:15:14.325006   395 net.cpp:86] Creating Layer loss
I0428 20:15:14.325011   395 net.cpp:408] loss <- ip3
I0428 20:15:14.325014   395 net.cpp:408] loss <- label
I0428 20:15:14.325021   395 net.cpp:382] loss -> loss
I0428 20:15:14.325034   395 layer_factory.hpp:77] Creating layer loss
…
I0428 20:15:14.325760   395 solver.cpp:173] Creating test net (#0) specified by net file: ECE595/mnist/train_test/var_everything2/lenet_train_test1241.prototxt
I0428 20:15:14.325804   395 net.cpp:296] The NetState phase (1) differed from the phase (0) specified by a rule in layer mnist
I0428 20:15:14.325901   395 net.cpp:53] Initializing net from parameters: 
name: "LeNet"
state {
  phase: TEST
}
layer {
  name: "mnist"
  type: "Data"
  top: "data"
  top: "label"
  include {
    phase: TEST
  }
  transform_param {
    scale: 0.00390625
  }
  data_param {
    source: "examples/mnist/mnist_test_lmdb"
    batch_size: 100
    backend: LMDB
  }
}
layer {
  name: "conv0"
  type: "Convolution"
  bottom: "data"
  top: "conv0"
  param {
    lr_mult: 1
  }
  param {
    lr_mult: 2
  }
  convolution_param {
    num_output: 50
    kernel_size: 5
    stride: 1
    weight_filler {
      type: "xavier"
    }
    bias_filler {
      type: "constant"
    }
  }
}
layer {
  name: "pool0"
  type: "Pooling"
  bottom: "conv0"
  top: "pool0"
  pooling_param {
    pool: MAX
    kernel_size: 2
    stride: 2
  }
}
layer {
  name: "conv1"
  type: "Convolution"
  bottom: "pool0"
  top: "conv1"
  param {
    lr_mult: 1
  }
  param {
    lr_mult: 2
  }
  convolution_param {
    num_output: 2
    kernel_size: 5
    stride: 1
    weight_filler {
      type: "xavier"
    }
    bias_filler {
      type: "constant"
    }
  }
}
layer {
  name: "pool1"
  type: "Pooling"
  bottom: "conv1"
  top: "pool1"
  pooling_param {
    pool: MAX
    kernel_size: 2
    stride: 2
  }
}
layer {
  name: "ip1"
  type: "InnerProduct"
  bottom: "pool1"
  top: "ip1"
  param {
    lr_mult: 1
  }
  param {
    lr_mult: 2
  }
  inner_product_param {
    num_output: 50
    weight_filler {
      type: "xavier"
    }
    bias_filler {
      type: "constant"
    }
  }
}
layer {
  name: "relu1"
  type: "ReLU"
  bottom: "ip1"
  top: "ip1"
}
layer {
  name: "ip2"
  type: "InnerProduct"
  bottom: "ip1"
  top: "ip2"
  param {
    lr_mult: 1
  }
  param {
    lr_mult: 2
  }
  inner_product_param {
    num_output: 10
    weight_filler {
      type: "xavier"
    }
    bias_filler {
      type: "constant"
    }
  }
}
layer {
  name: "relu2"
  type: "ReLU"
  bottom: "ip2"
  top: "ip2"
}
layer {
  name: "ip3"
  type: "InnerProduct"
  bottom: "ip2"
  top: "ip3"
  param {
    lr_mult: 1
  }
  param {
    lr_mult: 2
  }
  inner_product_param {
    num_output: 10
    weight_filler {
      type: "xavier"
    }
    bias_filler {
      type: "constant"
    }
  }
}
layer {
  name: "relu3"
  type: "ReLU"
  bottom: "ip3"
  top: "ip3"
}
layer {
  name: "accuracy"
  type: "Accuracy"
  bottom: "ip3"
  bottom: "label"
  top: "accuracy"
  include {
    phase: TEST
  }
}
layer {
  name: "loss"
  type: "SoftmaxWithLoss"
  bottom: "ip3"
  bottom: "label"
  top: "loss"
}
I0428 20:15:14.325990   395 layer_factory.hpp:77] Creating layer mnist
I0428 20:15:14.326035   395 db_lmdb.cpp:35] Opened lmdb examples/mnist/mnist_test_lmdb
I0428 20:15:14.326047   395 net.cpp:86] Creating Layer mnist
I0428 20:15:14.326052   395 net.cpp:382] mnist -> data
I0428 20:15:14.326059   395 net.cpp:382] mnist -> label
I0428 20:15:14.326143   395 data_layer.cpp:45] output data size: 100,1,28,28
I0428 20:15:14.328296   395 net.cpp:124] Setting up mnist
I0428 20:15:14.328325   395 net.cpp:131] Top shape: 100 1 28 28 (78400)
I0428 20:15:14.328330   395 net.cpp:131] Top shape: 100 (100)
I0428 20:15:14.328333   395 net.cpp:139] Memory required for data: 314000
I0428 20:15:14.328337   395 layer_factory.hpp:77] Creating layer label_mnist_1_split
I0428 20:15:14.328344   395 net.cpp:86] Creating Layer label_mnist_1_split
I0428 20:15:14.328361   395 net.cpp:408] label_mnist_1_split <- label
I0428 20:15:14.328366   395 net.cpp:382] label_mnist_1_split -> label_mnist_1_split_0
I0428 20:15:14.328372   395 net.cpp:382] label_mnist_1_split -> label_mnist_1_split_1
I0428 20:15:14.328423   395 net.cpp:124] Setting up label_mnist_1_split
I0428 20:15:14.328428   395 net.cpp:131] Top shape: 100 (100)
I0428 20:15:14.328446   395 net.cpp:131] Top shape: 100 (100)
I0428 20:15:14.328449   395 net.cpp:139] Memory required for data: 314800
I0428 20:15:14.328452   395 layer_factory.hpp:77] Creating layer conv0
I0428 20:15:14.328459   395 net.cpp:86] Creating Layer conv0
I0428 20:15:14.328462   395 net.cpp:408] conv0 <- data
I0428 20:15:14.328466   395 net.cpp:382] conv0 -> conv0
I0428 20:15:14.330113   395 net.cpp:124] Setting up conv0
I0428 20:15:14.330127   395 net.cpp:131] Top shape: 100 50 24 24 (2880000)
I0428 20:15:14.330129   395 net.cpp:139] Memory required for data: 11834800
I0428 20:15:14.330137   395 layer_factory.hpp:77] Creating layer pool0
I0428 20:15:14.330144   395 net.cpp:86] Creating Layer pool0
I0428 20:15:14.330163   395 net.cpp:408] pool0 <- conv0
I0428 20:15:14.330168   395 net.cpp:382] pool0 -> pool0
I0428 20:15:14.330201   395 net.cpp:124] Setting up pool0
I0428 20:15:14.330206   395 net.cpp:131] Top shape: 100 50 12 12 (720000)
I0428 20:15:14.330209   395 net.cpp:139] Memory required for data: 14714800
I0428 20:15:14.330211   395 layer_factory.hpp:77] Creating layer conv1
I0428 20:15:14.330219   395 net.cpp:86] Creating Layer conv1
I0428 20:15:14.330222   395 net.cpp:408] conv1 <- pool0
I0428 20:15:14.330230   395 net.cpp:382] conv1 -> conv1
I0428 20:15:14.331768   395 net.cpp:124] Setting up conv1
I0428 20:15:14.331780   395 net.cpp:131] Top shape: 100 2 8 8 (12800)
I0428 20:15:14.331784   395 net.cpp:139] Memory required for data: 14766000
I0428 20:15:14.331794   395 layer_factory.hpp:77] Creating layer pool1
I0428 20:15:14.331799   395 net.cpp:86] Creating Layer pool1
I0428 20:15:14.331811   395 net.cpp:408] pool1 <- conv1
I0428 20:15:14.331820   395 net.cpp:382] pool1 -> pool1
I0428 20:15:14.331871   395 net.cpp:124] Setting up pool1
I0428 20:15:14.331887   395 net.cpp:131] Top shape: 100 2 4 4 (3200)
I0428 20:15:14.331889   395 net.cpp:139] Memory required for data: 14778800
I0428 20:15:14.331892   395 layer_factory.hpp:77] Creating layer ip1
I0428 20:15:14.331898   395 net.cpp:86] Creating Layer ip1
I0428 20:15:14.331902   395 net.cpp:408] ip1 <- pool1
I0428 20:15:14.331907   395 net.cpp:382] ip1 -> ip1
I0428 20:15:14.332013   395 net.cpp:124] Setting up ip1
I0428 20:15:14.332021   395 net.cpp:131] Top shape: 100 50 (5000)
I0428 20:15:14.332033   395 net.cpp:139] Memory required for data: 14798800
I0428 20:15:14.332041   395 layer_factory.hpp:77] Creating layer relu1
I0428 20:15:14.332051   395 net.cpp:86] Creating Layer relu1
I0428 20:15:14.332054   395 net.cpp:408] relu1 <- ip1
I0428 20:15:14.332057   395 net.cpp:369] relu1 -> ip1 (in-place)
I0428 20:15:14.332213   395 net.cpp:124] Setting up relu1
I0428 20:15:14.332223   395 net.cpp:131] Top shape: 100 50 (5000)
I0428 20:15:14.332226   395 net.cpp:139] Memory required for data: 14818800
I0428 20:15:14.332229   395 layer_factory.hpp:77] Creating layer ip2
I0428 20:15:14.332237   395 net.cpp:86] Creating Layer ip2
I0428 20:15:14.332239   395 net.cpp:408] ip2 <- ip1
I0428 20:15:14.332245   395 net.cpp:382] ip2 -> ip2
I0428 20:15:14.332403   395 net.cpp:124] Setting up ip2
I0428 20:15:14.332413   395 net.cpp:131] Top shape: 100 10 (1000)
I0428 20:15:14.332417   395 net.cpp:139] Memory required for data: 14822800
I0428 20:15:14.332422   395 layer_factory.hpp:77] Creating layer relu2
I0428 20:15:14.332427   395 net.cpp:86] Creating Layer relu2
I0428 20:15:14.332430   395 net.cpp:408] relu2 <- ip2
I0428 20:15:14.332437   395 net.cpp:369] relu2 -> ip2 (in-place)
I0428 20:15:14.332594   395 net.cpp:124] Setting up relu2
I0428 20:15:14.332603   395 net.cpp:131] Top shape: 100 10 (1000)
I0428 20:15:14.332614   395 net.cpp:139] Memory required for data: 14826800
I0428 20:15:14.332617   395 layer_factory.hpp:77] Creating layer ip3
I0428 20:15:14.332623   395 net.cpp:86] Creating Layer ip3
I0428 20:15:14.332625   395 net.cpp:408] ip3 <- ip2
I0428 20:15:14.332638   395 net.cpp:382] ip3 -> ip3
I0428 20:15:14.332734   395 net.cpp:124] Setting up ip3
I0428 20:15:14.332741   395 net.cpp:131] Top shape: 100 10 (1000)
I0428 20:15:14.332744   395 net.cpp:139] Memory required for data: 14830800
I0428 20:15:14.332751   395 layer_factory.hpp:77] Creating layer relu3
I0428 20:15:14.332756   395 net.cpp:86] Creating Layer relu3
I0428 20:15:14.332759   395 net.cpp:408] relu3 <- ip3
I0428 20:15:14.332778   395 net.cpp:369] relu3 -> ip3 (in-place)
I0428 20:15:14.333689   395 net.cpp:124] Setting up relu3
I0428 20:15:14.333703   395 net.cpp:131] Top shape: 100 10 (1000)
I0428 20:15:14.333706   395 net.cpp:139] Memory required for data: 14834800
I0428 20:15:14.333709   395 layer_factory.hpp:77] Creating layer ip3_relu3_0_split
I0428 20:15:14.333716   395 net.cpp:86] Creating Layer ip3_relu3_0_split
I0428 20:15:14.333719   395 net.cpp:408] ip3_relu3_0_split <- ip3
I0428 20:15:14.333724   395 net.cpp:382] ip3_relu3_0_split -> ip3_relu3_0_split_0
I0428 20:15:14.333736   395 net.cpp:382] ip3_relu3_0_split -> ip3_relu3_0_split_1
I0428 20:15:14.333813   395 net.cpp:124] Setting up ip3_relu3_0_split
I0428 20:15:14.333820   395 net.cpp:131] Top shape: 100 10 (1000)
I0428 20:15:14.333824   395 net.cpp:131] Top shape: 100 10 (1000)
I0428 20:15:14.333837   395 net.cpp:139] Memory required for data: 14842800
I0428 20:15:14.333859   395 layer_factory.hpp:77] Creating layer accuracy
I0428 20:15:14.333864   395 net.cpp:86] Creating Layer accuracy
I0428 20:15:14.333871   395 net.cpp:408] accuracy <- ip3_relu3_0_split_0
I0428 20:15:14.333875   395 net.cpp:408] accuracy <- label_mnist_1_split_0
I0428 20:15:14.333881   395 net.cpp:382] accuracy -> accuracy
…
