…
I0428 19:31:32.233644 22601 net.cpp:296] The NetState phase (0) differed from the phase (1) specified by a rule in layer mnist
I0428 19:31:32.233664 22601 net.cpp:296] The NetState phase (0) differed from the phase (1) specified by a rule in layer accuracy
I0428 19:31:32.233753 22601 net.cpp:53] Initializing net from parameters: 
name: "LeNet"
state {
  phase: TRAIN
  level: 0
  stage: ""
}
layer {
  name: "mnist"
  type: "Data"
  top: "data"
  top: "label"
  include {
    phase: TRAIN
  }
  transform_param {
    scale: 0.00390625
  }
  data_param {
    source: "examples/mnist/mnist_train_lmdb"
    batch_size: 64
    backend: LMDB
  }
}
layer {
  name: "conv0"
  type: "Convolution"
  bottom: "data"
  top: "conv0"
  param {
    lr_mult: 1
  }
  param {
    lr_mult: 2
  }
  convolution_param {
    num_output: 10
    kernel_size: 5
    stride: 1
    weight_filler {
      type: "xavier"
    }
    bias_filler {
      type: "constant"
    }
  }
}
layer {
  name: "pool0"
  type: "Pooling"
  bottom: "conv0"
  top: "pool0"
  pooling_param {
    pool: MAX
    kernel_size: 2
    stride: 2
  }
}
layer {
  name: "ip1"
  type: "InnerProduct"
  bottom: "pool0"
  top: "ip1"
  param {
    lr_mult: 1
  }
  param {
    lr_mult: 2
  }
  inner_product_param {
    num_output: 25
    weight_filler {
      type: "xavier"
    }
    bias_filler {
      type: "constant"
    }
  }
}
layer {
  name: "relu1"
  type: "ReLU"
  bottom: "ip1"
  top: "ip1"
}
layer {
  name: "ip2"
  type: "InnerProduct"
  bottom: "ip1"
  top: "ip2"
  param {
    lr_mult: 1
  }
  param {
    lr_mult: 2
  }
  inner_product_param {
    num_output: 10
    weight_filler {
      type: "xavier"
    }
    bias_filler {
      type: "constant"
    }
  }
}
layer {
  name: "relu2"
  type: "ReLU"
  bottom: "ip2"
  top: "ip2"
}
layer {
  name: "loss"
  type: "SoftmaxWithLoss"
  bottom: "ip2"
  bottom: "label"
  top: "loss"
}
I0428 19:31:32.233851 22601 layer_factory.hpp:77] Creating layer mnist
I0428 19:31:32.233985 22601 db_lmdb.cpp:35] Opened lmdb examples/mnist/mnist_train_lmdb
I0428 19:31:32.234019 22601 net.cpp:86] Creating Layer mnist
I0428 19:31:32.234031 22601 net.cpp:382] mnist -> data
I0428 19:31:32.234064 22601 net.cpp:382] mnist -> label
I0428 19:31:32.235273 22601 data_layer.cpp:45] output data size: 64,1,28,28
I0428 19:31:32.237756 22601 net.cpp:124] Setting up mnist
I0428 19:31:32.237776 22601 net.cpp:131] Top shape: 64 1 28 28 (50176)
I0428 19:31:32.237785 22601 net.cpp:131] Top shape: 64 (64)
I0428 19:31:32.237792 22601 net.cpp:139] Memory required for data: 200960
I0428 19:31:32.237802 22601 layer_factory.hpp:77] Creating layer conv0
I0428 19:31:32.237826 22601 net.cpp:86] Creating Layer conv0
I0428 19:31:32.237838 22601 net.cpp:408] conv0 <- data
I0428 19:31:32.237859 22601 net.cpp:382] conv0 -> conv0
I0428 19:31:32.529851 22601 net.cpp:124] Setting up conv0
I0428 19:31:32.529884 22601 net.cpp:131] Top shape: 64 10 24 24 (368640)
I0428 19:31:32.529892 22601 net.cpp:139] Memory required for data: 1675520
I0428 19:31:32.529916 22601 layer_factory.hpp:77] Creating layer pool0
I0428 19:31:32.529935 22601 net.cpp:86] Creating Layer pool0
I0428 19:31:32.529943 22601 net.cpp:408] pool0 <- conv0
I0428 19:31:32.529954 22601 net.cpp:382] pool0 -> pool0
I0428 19:31:32.530017 22601 net.cpp:124] Setting up pool0
I0428 19:31:32.530028 22601 net.cpp:131] Top shape: 64 10 12 12 (92160)
I0428 19:31:32.530035 22601 net.cpp:139] Memory required for data: 2044160
I0428 19:31:32.530059 22601 layer_factory.hpp:77] Creating layer ip1
I0428 19:31:32.530074 22601 net.cpp:86] Creating Layer ip1
I0428 19:31:32.530081 22601 net.cpp:408] ip1 <- pool0
I0428 19:31:32.530092 22601 net.cpp:382] ip1 -> ip1
I0428 19:31:32.530458 22601 net.cpp:124] Setting up ip1
I0428 19:31:32.530472 22601 net.cpp:131] Top shape: 64 25 (1600)
I0428 19:31:32.530478 22601 net.cpp:139] Memory required for data: 2050560
I0428 19:31:32.530491 22601 layer_factory.hpp:77] Creating layer relu1
I0428 19:31:32.530508 22601 net.cpp:86] Creating Layer relu1
I0428 19:31:32.530516 22601 net.cpp:408] relu1 <- ip1
I0428 19:31:32.530525 22601 net.cpp:369] relu1 -> ip1 (in-place)
I0428 19:31:32.530719 22601 net.cpp:124] Setting up relu1
I0428 19:31:32.530731 22601 net.cpp:131] Top shape: 64 25 (1600)
I0428 19:31:32.530737 22601 net.cpp:139] Memory required for data: 2056960
I0428 19:31:32.530743 22601 layer_factory.hpp:77] Creating layer ip2
I0428 19:31:32.530755 22601 net.cpp:86] Creating Layer ip2
I0428 19:31:32.530761 22601 net.cpp:408] ip2 <- ip1
I0428 19:31:32.530771 22601 net.cpp:382] ip2 -> ip2
I0428 19:31:32.530889 22601 net.cpp:124] Setting up ip2
I0428 19:31:32.530899 22601 net.cpp:131] Top shape: 64 10 (640)
I0428 19:31:32.530905 22601 net.cpp:139] Memory required for data: 2059520
I0428 19:31:32.530918 22601 layer_factory.hpp:77] Creating layer relu2
I0428 19:31:32.530928 22601 net.cpp:86] Creating Layer relu2
I0428 19:31:32.530936 22601 net.cpp:408] relu2 <- ip2
I0428 19:31:32.530944 22601 net.cpp:369] relu2 -> ip2 (in-place)
I0428 19:31:32.531774 22601 net.cpp:124] Setting up relu2
I0428 19:31:32.531790 22601 net.cpp:131] Top shape: 64 10 (640)
I0428 19:31:32.531796 22601 net.cpp:139] Memory required for data: 2062080
I0428 19:31:32.531803 22601 layer_factory.hpp:77] Creating layer loss
I0428 19:31:32.531814 22601 net.cpp:86] Creating Layer loss
I0428 19:31:32.531821 22601 net.cpp:408] loss <- ip2
I0428 19:31:32.531829 22601 net.cpp:408] loss <- label
I0428 19:31:32.531839 22601 net.cpp:382] loss -> loss
I0428 19:31:32.531867 22601 layer_factory.hpp:77] Creating layer loss
…
I0428 19:31:32.532558 22601 solver.cpp:173] Creating test net (#0) specified by net file: ECE595/mnist/train_test/var_everything2/lenet_train_test125.prototxt
I0428 19:31:32.532594 22601 net.cpp:296] The NetState phase (1) differed from the phase (0) specified by a rule in layer mnist
I0428 19:31:32.532685 22601 net.cpp:53] Initializing net from parameters: 
name: "LeNet"
state {
  phase: TEST
}
layer {
  name: "mnist"
  type: "Data"
  top: "data"
  top: "label"
  include {
    phase: TEST
  }
  transform_param {
    scale: 0.00390625
  }
  data_param {
    source: "examples/mnist/mnist_test_lmdb"
    batch_size: 100
    backend: LMDB
  }
}
layer {
  name: "conv0"
  type: "Convolution"
  bottom: "data"
  top: "conv0"
  param {
    lr_mult: 1
  }
  param {
    lr_mult: 2
  }
  convolution_param {
    num_output: 10
    kernel_size: 5
    stride: 1
    weight_filler {
      type: "xavier"
    }
    bias_filler {
      type: "constant"
    }
  }
}
layer {
  name: "pool0"
  type: "Pooling"
  bottom: "conv0"
  top: "pool0"
  pooling_param {
    pool: MAX
    kernel_size: 2
    stride: 2
  }
}
layer {
  name: "ip1"
  type: "InnerProduct"
  bottom: "pool0"
  top: "ip1"
  param {
    lr_mult: 1
  }
  param {
    lr_mult: 2
  }
  inner_product_param {
    num_output: 25
    weight_filler {
      type: "xavier"
    }
    bias_filler {
      type: "constant"
    }
  }
}
layer {
  name: "relu1"
  type: "ReLU"
  bottom: "ip1"
  top: "ip1"
}
layer {
  name: "ip2"
  type: "InnerProduct"
  bottom: "ip1"
  top: "ip2"
  param {
    lr_mult: 1
  }
  param {
    lr_mult: 2
  }
  inner_product_param {
    num_output: 10
    weight_filler {
      type: "xavier"
    }
    bias_filler {
      type: "constant"
    }
  }
}
layer {
  name: "relu2"
  type: "ReLU"
  bottom: "ip2"
  top: "ip2"
}
layer {
  name: "accuracy"
  type: "Accuracy"
  bottom: "ip2"
  bottom: "label"
  top: "accuracy"
  include {
    phase: TEST
  }
}
layer {
  name: "loss"
  type: "SoftmaxWithLoss"
  bottom: "ip2"
  bottom: "label"
  top: "loss"
}
I0428 19:31:32.532796 22601 layer_factory.hpp:77] Creating layer mnist
I0428 19:31:32.532873 22601 db_lmdb.cpp:35] Opened lmdb examples/mnist/mnist_test_lmdb
I0428 19:31:32.532893 22601 net.cpp:86] Creating Layer mnist
I0428 19:31:32.532902 22601 net.cpp:382] mnist -> data
I0428 19:31:32.532917 22601 net.cpp:382] mnist -> label
I0428 19:31:32.533051 22601 data_layer.cpp:45] output data size: 100,1,28,28
I0428 19:31:32.535256 22601 net.cpp:124] Setting up mnist
I0428 19:31:32.535274 22601 net.cpp:131] Top shape: 100 1 28 28 (78400)
I0428 19:31:32.535282 22601 net.cpp:131] Top shape: 100 (100)
I0428 19:31:32.535290 22601 net.cpp:139] Memory required for data: 314000
I0428 19:31:32.535296 22601 layer_factory.hpp:77] Creating layer label_mnist_1_split
I0428 19:31:32.535332 22601 net.cpp:86] Creating Layer label_mnist_1_split
I0428 19:31:32.535339 22601 net.cpp:408] label_mnist_1_split <- label
I0428 19:31:32.535348 22601 net.cpp:382] label_mnist_1_split -> label_mnist_1_split_0
I0428 19:31:32.535363 22601 net.cpp:382] label_mnist_1_split -> label_mnist_1_split_1
I0428 19:31:32.535481 22601 net.cpp:124] Setting up label_mnist_1_split
I0428 19:31:32.535492 22601 net.cpp:131] Top shape: 100 (100)
I0428 19:31:32.535500 22601 net.cpp:131] Top shape: 100 (100)
I0428 19:31:32.535506 22601 net.cpp:139] Memory required for data: 314800
I0428 19:31:32.535511 22601 layer_factory.hpp:77] Creating layer conv0
I0428 19:31:32.535527 22601 net.cpp:86] Creating Layer conv0
I0428 19:31:32.535536 22601 net.cpp:408] conv0 <- data
I0428 19:31:32.535545 22601 net.cpp:382] conv0 -> conv0
I0428 19:31:32.537178 22601 net.cpp:124] Setting up conv0
I0428 19:31:32.537197 22601 net.cpp:131] Top shape: 100 10 24 24 (576000)
I0428 19:31:32.537204 22601 net.cpp:139] Memory required for data: 2618800
I0428 19:31:32.537221 22601 layer_factory.hpp:77] Creating layer pool0
I0428 19:31:32.537232 22601 net.cpp:86] Creating Layer pool0
I0428 19:31:32.537240 22601 net.cpp:408] pool0 <- conv0
I0428 19:31:32.537250 22601 net.cpp:382] pool0 -> pool0
I0428 19:31:32.537297 22601 net.cpp:124] Setting up pool0
I0428 19:31:32.537307 22601 net.cpp:131] Top shape: 100 10 12 12 (144000)
I0428 19:31:32.537313 22601 net.cpp:139] Memory required for data: 3194800
I0428 19:31:32.537319 22601 layer_factory.hpp:77] Creating layer ip1
I0428 19:31:32.537333 22601 net.cpp:86] Creating Layer ip1
I0428 19:31:32.537338 22601 net.cpp:408] ip1 <- pool0
I0428 19:31:32.537348 22601 net.cpp:382] ip1 -> ip1
I0428 19:31:32.537701 22601 net.cpp:124] Setting up ip1
I0428 19:31:32.537713 22601 net.cpp:131] Top shape: 100 25 (2500)
I0428 19:31:32.537719 22601 net.cpp:139] Memory required for data: 3204800
I0428 19:31:32.537731 22601 layer_factory.hpp:77] Creating layer relu1
I0428 19:31:32.537742 22601 net.cpp:86] Creating Layer relu1
I0428 19:31:32.537750 22601 net.cpp:408] relu1 <- ip1
I0428 19:31:32.537757 22601 net.cpp:369] relu1 -> ip1 (in-place)
I0428 19:31:32.537942 22601 net.cpp:124] Setting up relu1
I0428 19:31:32.537955 22601 net.cpp:131] Top shape: 100 25 (2500)
I0428 19:31:32.537976 22601 net.cpp:139] Memory required for data: 3214800
I0428 19:31:32.537983 22601 layer_factory.hpp:77] Creating layer ip2
I0428 19:31:32.537993 22601 net.cpp:86] Creating Layer ip2
I0428 19:31:32.538000 22601 net.cpp:408] ip2 <- ip1
I0428 19:31:32.538009 22601 net.cpp:382] ip2 -> ip2
I0428 19:31:32.538122 22601 net.cpp:124] Setting up ip2
I0428 19:31:32.538132 22601 net.cpp:131] Top shape: 100 10 (1000)
I0428 19:31:32.538138 22601 net.cpp:139] Memory required for data: 3218800
I0428 19:31:32.538152 22601 layer_factory.hpp:77] Creating layer relu2
I0428 19:31:32.538162 22601 net.cpp:86] Creating Layer relu2
I0428 19:31:32.538168 22601 net.cpp:408] relu2 <- ip2
I0428 19:31:32.538177 22601 net.cpp:369] relu2 -> ip2 (in-place)
I0428 19:31:32.538352 22601 net.cpp:124] Setting up relu2
I0428 19:31:32.538364 22601 net.cpp:131] Top shape: 100 10 (1000)
I0428 19:31:32.538370 22601 net.cpp:139] Memory required for data: 3222800
I0428 19:31:32.538377 22601 layer_factory.hpp:77] Creating layer ip2_relu2_0_split
I0428 19:31:32.538388 22601 net.cpp:86] Creating Layer ip2_relu2_0_split
I0428 19:31:32.538393 22601 net.cpp:408] ip2_relu2_0_split <- ip2
I0428 19:31:32.538403 22601 net.cpp:382] ip2_relu2_0_split -> ip2_relu2_0_split_0
I0428 19:31:32.538414 22601 net.cpp:382] ip2_relu2_0_split -> ip2_relu2_0_split_1
I0428 19:31:32.538460 22601 net.cpp:124] Setting up ip2_relu2_0_split
I0428 19:31:32.538470 22601 net.cpp:131] Top shape: 100 10 (1000)
I0428 19:31:32.538476 22601 net.cpp:131] Top shape: 100 10 (1000)
I0428 19:31:32.538482 22601 net.cpp:139] Memory required for data: 3230800
I0428 19:31:32.538488 22601 layer_factory.hpp:77] Creating layer accuracy
I0428 19:31:32.538497 22601 net.cpp:86] Creating Layer accuracy
I0428 19:31:32.538504 22601 net.cpp:408] accuracy <- ip2_relu2_0_split_0
I0428 19:31:32.538512 22601 net.cpp:408] accuracy <- label_mnist_1_split_0
I0428 19:31:32.538521 22601 net.cpp:382] accuracy -> accuracy
…
