…
I0428 19:57:21.609061 28659 net.cpp:296] The NetState phase (0) differed from the phase (1) specified by a rule in layer mnist
I0428 19:57:21.609082 28659 net.cpp:296] The NetState phase (0) differed from the phase (1) specified by a rule in layer accuracy
I0428 19:57:21.609181 28659 net.cpp:53] Initializing net from parameters: 
name: "LeNet"
state {
  phase: TRAIN
  level: 0
  stage: ""
}
layer {
  name: "mnist"
  type: "Data"
  top: "data"
  top: "label"
  include {
    phase: TRAIN
  }
  transform_param {
    scale: 0.00390625
  }
  data_param {
    source: "examples/mnist/mnist_train_lmdb"
    batch_size: 64
    backend: LMDB
  }
}
layer {
  name: "conv0"
  type: "Convolution"
  bottom: "data"
  top: "conv0"
  param {
    lr_mult: 1
  }
  param {
    lr_mult: 2
  }
  convolution_param {
    num_output: 10
    kernel_size: 5
    stride: 1
    weight_filler {
      type: "xavier"
    }
    bias_filler {
      type: "constant"
    }
  }
}
layer {
  name: "pool0"
  type: "Pooling"
  bottom: "conv0"
  top: "pool0"
  pooling_param {
    pool: MAX
    kernel_size: 2
    stride: 2
  }
}
layer {
  name: "conv1"
  type: "Convolution"
  bottom: "pool0"
  top: "conv1"
  param {
    lr_mult: 1
  }
  param {
    lr_mult: 2
  }
  convolution_param {
    num_output: 5
    kernel_size: 5
    stride: 1
    weight_filler {
      type: "xavier"
    }
    bias_filler {
      type: "constant"
    }
  }
}
layer {
  name: "pool1"
  type: "Pooling"
  bottom: "conv1"
  top: "pool1"
  pooling_param {
    pool: MAX
    kernel_size: 2
    stride: 2
  }
}
layer {
  name: "ip1"
  type: "InnerProduct"
  bottom: "pool1"
  top: "ip1"
  param {
    lr_mult: 1
  }
  param {
    lr_mult: 2
  }
  inner_product_param {
    num_output: 25
    weight_filler {
      type: "xavier"
    }
    bias_filler {
      type: "constant"
    }
  }
}
layer {
  name: "relu1"
  type: "ReLU"
  bottom: "ip1"
  top: "ip1"
}
layer {
  name: "ip2"
  type: "InnerProduct"
  bottom: "ip1"
  top: "ip2"
  param {
    lr_mult: 1
  }
  param {
    lr_mult: 2
  }
  inner_product_param {
    num_output: 10
    weight_filler {
      type: "xavier"
    }
    bias_filler {
      type: "constant"
    }
  }
}
layer {
  name: "relu2"
  type: "ReLU"
  bottom: "ip2"
  top: "ip2"
}
layer {
  name: "loss"
  type: "SoftmaxWithLoss"
  bottom: "ip2"
  bottom: "label"
  top: "loss"
}
I0428 19:57:21.609289 28659 layer_factory.hpp:77] Creating layer mnist
I0428 19:57:21.609429 28659 db_lmdb.cpp:35] Opened lmdb examples/mnist/mnist_train_lmdb
I0428 19:57:21.609463 28659 net.cpp:86] Creating Layer mnist
I0428 19:57:21.609474 28659 net.cpp:382] mnist -> data
I0428 19:57:21.609508 28659 net.cpp:382] mnist -> label
I0428 19:57:21.610728 28659 data_layer.cpp:45] output data size: 64,1,28,28
I0428 19:57:21.613164 28659 net.cpp:124] Setting up mnist
I0428 19:57:21.613190 28659 net.cpp:131] Top shape: 64 1 28 28 (50176)
I0428 19:57:21.613200 28659 net.cpp:131] Top shape: 64 (64)
I0428 19:57:21.613207 28659 net.cpp:139] Memory required for data: 200960
I0428 19:57:21.613217 28659 layer_factory.hpp:77] Creating layer conv0
I0428 19:57:21.613240 28659 net.cpp:86] Creating Layer conv0
I0428 19:57:21.613250 28659 net.cpp:408] conv0 <- data
I0428 19:57:21.613268 28659 net.cpp:382] conv0 -> conv0
I0428 19:57:21.898708 28659 net.cpp:124] Setting up conv0
I0428 19:57:21.898741 28659 net.cpp:131] Top shape: 64 10 24 24 (368640)
I0428 19:57:21.898748 28659 net.cpp:139] Memory required for data: 1675520
I0428 19:57:21.898810 28659 layer_factory.hpp:77] Creating layer pool0
I0428 19:57:21.898833 28659 net.cpp:86] Creating Layer pool0
I0428 19:57:21.898843 28659 net.cpp:408] pool0 <- conv0
I0428 19:57:21.898854 28659 net.cpp:382] pool0 -> pool0
I0428 19:57:21.898916 28659 net.cpp:124] Setting up pool0
I0428 19:57:21.898927 28659 net.cpp:131] Top shape: 64 10 12 12 (92160)
I0428 19:57:21.898933 28659 net.cpp:139] Memory required for data: 2044160
I0428 19:57:21.898939 28659 layer_factory.hpp:77] Creating layer conv1
I0428 19:57:21.898958 28659 net.cpp:86] Creating Layer conv1
I0428 19:57:21.898965 28659 net.cpp:408] conv1 <- pool0
I0428 19:57:21.898977 28659 net.cpp:382] conv1 -> conv1
I0428 19:57:21.902066 28659 net.cpp:124] Setting up conv1
I0428 19:57:21.902086 28659 net.cpp:131] Top shape: 64 5 8 8 (20480)
I0428 19:57:21.902093 28659 net.cpp:139] Memory required for data: 2126080
I0428 19:57:21.902109 28659 layer_factory.hpp:77] Creating layer pool1
I0428 19:57:21.902123 28659 net.cpp:86] Creating Layer pool1
I0428 19:57:21.902130 28659 net.cpp:408] pool1 <- conv1
I0428 19:57:21.902140 28659 net.cpp:382] pool1 -> pool1
I0428 19:57:21.902194 28659 net.cpp:124] Setting up pool1
I0428 19:57:21.902204 28659 net.cpp:131] Top shape: 64 5 4 4 (5120)
I0428 19:57:21.902210 28659 net.cpp:139] Memory required for data: 2146560
I0428 19:57:21.902217 28659 layer_factory.hpp:77] Creating layer ip1
I0428 19:57:21.902230 28659 net.cpp:86] Creating Layer ip1
I0428 19:57:21.902236 28659 net.cpp:408] ip1 <- pool1
I0428 19:57:21.902246 28659 net.cpp:382] ip1 -> ip1
I0428 19:57:21.902389 28659 net.cpp:124] Setting up ip1
I0428 19:57:21.902398 28659 net.cpp:131] Top shape: 64 25 (1600)
I0428 19:57:21.902405 28659 net.cpp:139] Memory required for data: 2152960
I0428 19:57:21.902420 28659 layer_factory.hpp:77] Creating layer relu1
I0428 19:57:21.902433 28659 net.cpp:86] Creating Layer relu1
I0428 19:57:21.902444 28659 net.cpp:408] relu1 <- ip1
I0428 19:57:21.902453 28659 net.cpp:369] relu1 -> ip1 (in-place)
I0428 19:57:21.902657 28659 net.cpp:124] Setting up relu1
I0428 19:57:21.902668 28659 net.cpp:131] Top shape: 64 25 (1600)
I0428 19:57:21.902675 28659 net.cpp:139] Memory required for data: 2159360
I0428 19:57:21.902681 28659 layer_factory.hpp:77] Creating layer ip2
I0428 19:57:21.902693 28659 net.cpp:86] Creating Layer ip2
I0428 19:57:21.902700 28659 net.cpp:408] ip2 <- ip1
I0428 19:57:21.902710 28659 net.cpp:382] ip2 -> ip2
I0428 19:57:21.902832 28659 net.cpp:124] Setting up ip2
I0428 19:57:21.902842 28659 net.cpp:131] Top shape: 64 10 (640)
I0428 19:57:21.902848 28659 net.cpp:139] Memory required for data: 2161920
I0428 19:57:21.902860 28659 layer_factory.hpp:77] Creating layer relu2
I0428 19:57:21.902871 28659 net.cpp:86] Creating Layer relu2
I0428 19:57:21.902878 28659 net.cpp:408] relu2 <- ip2
I0428 19:57:21.902887 28659 net.cpp:369] relu2 -> ip2 (in-place)
I0428 19:57:21.903739 28659 net.cpp:124] Setting up relu2
I0428 19:57:21.903756 28659 net.cpp:131] Top shape: 64 10 (640)
I0428 19:57:21.903764 28659 net.cpp:139] Memory required for data: 2164480
I0428 19:57:21.903769 28659 layer_factory.hpp:77] Creating layer loss
I0428 19:57:21.903780 28659 net.cpp:86] Creating Layer loss
I0428 19:57:21.903787 28659 net.cpp:408] loss <- ip2
I0428 19:57:21.903800 28659 net.cpp:408] loss <- label
I0428 19:57:21.903810 28659 net.cpp:382] loss -> loss
I0428 19:57:21.903842 28659 layer_factory.hpp:77] Creating layer loss
…
I0428 19:57:21.904644 28659 solver.cpp:173] Creating test net (#0) specified by net file: ECE595/mnist/train_test/var_everything2/lenet_train_test786.prototxt
I0428 19:57:21.904681 28659 net.cpp:296] The NetState phase (1) differed from the phase (0) specified by a rule in layer mnist
I0428 19:57:21.904789 28659 net.cpp:53] Initializing net from parameters: 
name: "LeNet"
state {
  phase: TEST
}
layer {
  name: "mnist"
  type: "Data"
  top: "data"
  top: "label"
  include {
    phase: TEST
  }
  transform_param {
    scale: 0.00390625
  }
  data_param {
    source: "examples/mnist/mnist_test_lmdb"
    batch_size: 100
    backend: LMDB
  }
}
layer {
  name: "conv0"
  type: "Convolution"
  bottom: "data"
  top: "conv0"
  param {
    lr_mult: 1
  }
  param {
    lr_mult: 2
  }
  convolution_param {
    num_output: 10
    kernel_size: 5
    stride: 1
    weight_filler {
      type: "xavier"
    }
    bias_filler {
      type: "constant"
    }
  }
}
layer {
  name: "pool0"
  type: "Pooling"
  bottom: "conv0"
  top: "pool0"
  pooling_param {
    pool: MAX
    kernel_size: 2
    stride: 2
  }
}
layer {
  name: "conv1"
  type: "Convolution"
  bottom: "pool0"
  top: "conv1"
  param {
    lr_mult: 1
  }
  param {
    lr_mult: 2
  }
  convolution_param {
    num_output: 5
    kernel_size: 5
    stride: 1
    weight_filler {
      type: "xavier"
    }
    bias_filler {
      type: "constant"
    }
  }
}
layer {
  name: "pool1"
  type: "Pooling"
  bottom: "conv1"
  top: "pool1"
  pooling_param {
    pool: MAX
    kernel_size: 2
    stride: 2
  }
}
layer {
  name: "ip1"
  type: "InnerProduct"
  bottom: "pool1"
  top: "ip1"
  param {
    lr_mult: 1
  }
  param {
    lr_mult: 2
  }
  inner_product_param {
    num_output: 25
    weight_filler {
      type: "xavier"
    }
    bias_filler {
      type: "constant"
    }
  }
}
layer {
  name: "relu1"
  type: "ReLU"
  bottom: "ip1"
  top: "ip1"
}
layer {
  name: "ip2"
  type: "InnerProduct"
  bottom: "ip1"
  top: "ip2"
  param {
    lr_mult: 1
  }
  param {
    lr_mult: 2
  }
  inner_product_param {
    num_output: 10
    weight_filler {
      type: "xavier"
    }
    bias_filler {
      type: "constant"
    }
  }
}
layer {
  name: "relu2"
  type: "ReLU"
  bottom: "ip2"
  top: "ip2"
}
layer {
  name: "accuracy"
  type: "Accuracy"
  bottom: "ip2"
  bottom: "label"
  top: "accuracy"
  include {
    phase: TEST
  }
}
layer {
  name: "loss"
  type: "SoftmaxWithLoss"
  bottom: "ip2"
  bottom: "label"
  top: "loss"
}
I0428 19:57:21.904920 28659 layer_factory.hpp:77] Creating layer mnist
I0428 19:57:21.904989 28659 db_lmdb.cpp:35] Opened lmdb examples/mnist/mnist_test_lmdb
I0428 19:57:21.905007 28659 net.cpp:86] Creating Layer mnist
I0428 19:57:21.905019 28659 net.cpp:382] mnist -> data
I0428 19:57:21.905033 28659 net.cpp:382] mnist -> label
I0428 19:57:21.905186 28659 data_layer.cpp:45] output data size: 100,1,28,28
I0428 19:57:21.907536 28659 net.cpp:124] Setting up mnist
I0428 19:57:21.907558 28659 net.cpp:131] Top shape: 100 1 28 28 (78400)
I0428 19:57:21.907568 28659 net.cpp:131] Top shape: 100 (100)
I0428 19:57:21.907574 28659 net.cpp:139] Memory required for data: 314000
I0428 19:57:21.907582 28659 layer_factory.hpp:77] Creating layer label_mnist_1_split
I0428 19:57:21.907593 28659 net.cpp:86] Creating Layer label_mnist_1_split
I0428 19:57:21.907599 28659 net.cpp:408] label_mnist_1_split <- label
I0428 19:57:21.907611 28659 net.cpp:382] label_mnist_1_split -> label_mnist_1_split_0
I0428 19:57:21.907624 28659 net.cpp:382] label_mnist_1_split -> label_mnist_1_split_1
I0428 19:57:21.907743 28659 net.cpp:124] Setting up label_mnist_1_split
I0428 19:57:21.907764 28659 net.cpp:131] Top shape: 100 (100)
I0428 19:57:21.907773 28659 net.cpp:131] Top shape: 100 (100)
I0428 19:57:21.907779 28659 net.cpp:139] Memory required for data: 314800
I0428 19:57:21.907785 28659 layer_factory.hpp:77] Creating layer conv0
I0428 19:57:21.907804 28659 net.cpp:86] Creating Layer conv0
I0428 19:57:21.907811 28659 net.cpp:408] conv0 <- data
I0428 19:57:21.907824 28659 net.cpp:382] conv0 -> conv0
I0428 19:57:21.909575 28659 net.cpp:124] Setting up conv0
I0428 19:57:21.909595 28659 net.cpp:131] Top shape: 100 10 24 24 (576000)
I0428 19:57:21.909601 28659 net.cpp:139] Memory required for data: 2618800
I0428 19:57:21.909620 28659 layer_factory.hpp:77] Creating layer pool0
I0428 19:57:21.909631 28659 net.cpp:86] Creating Layer pool0
I0428 19:57:21.909639 28659 net.cpp:408] pool0 <- conv0
I0428 19:57:21.909657 28659 net.cpp:382] pool0 -> pool0
I0428 19:57:21.909711 28659 net.cpp:124] Setting up pool0
I0428 19:57:21.909721 28659 net.cpp:131] Top shape: 100 10 12 12 (144000)
I0428 19:57:21.909731 28659 net.cpp:139] Memory required for data: 3194800
I0428 19:57:21.909737 28659 layer_factory.hpp:77] Creating layer conv1
I0428 19:57:21.909759 28659 net.cpp:86] Creating Layer conv1
I0428 19:57:21.909765 28659 net.cpp:408] conv1 <- pool0
I0428 19:57:21.909777 28659 net.cpp:382] conv1 -> conv1
I0428 19:57:21.912102 28659 net.cpp:124] Setting up conv1
I0428 19:57:21.912122 28659 net.cpp:131] Top shape: 100 5 8 8 (32000)
I0428 19:57:21.912127 28659 net.cpp:139] Memory required for data: 3322800
I0428 19:57:21.912144 28659 layer_factory.hpp:77] Creating layer pool1
I0428 19:57:21.912158 28659 net.cpp:86] Creating Layer pool1
I0428 19:57:21.912165 28659 net.cpp:408] pool1 <- conv1
I0428 19:57:21.912178 28659 net.cpp:382] pool1 -> pool1
I0428 19:57:21.912250 28659 net.cpp:124] Setting up pool1
I0428 19:57:21.912261 28659 net.cpp:131] Top shape: 100 5 4 4 (8000)
I0428 19:57:21.912266 28659 net.cpp:139] Memory required for data: 3354800
I0428 19:57:21.912272 28659 layer_factory.hpp:77] Creating layer ip1
I0428 19:57:21.912286 28659 net.cpp:86] Creating Layer ip1
I0428 19:57:21.912292 28659 net.cpp:408] ip1 <- pool1
I0428 19:57:21.912302 28659 net.cpp:382] ip1 -> ip1
I0428 19:57:21.912446 28659 net.cpp:124] Setting up ip1
I0428 19:57:21.912457 28659 net.cpp:131] Top shape: 100 25 (2500)
I0428 19:57:21.912463 28659 net.cpp:139] Memory required for data: 3364800
I0428 19:57:21.912477 28659 layer_factory.hpp:77] Creating layer relu1
I0428 19:57:21.912489 28659 net.cpp:86] Creating Layer relu1
I0428 19:57:21.912498 28659 net.cpp:408] relu1 <- ip1
I0428 19:57:21.912508 28659 net.cpp:369] relu1 -> ip1 (in-place)
I0428 19:57:21.912721 28659 net.cpp:124] Setting up relu1
I0428 19:57:21.912735 28659 net.cpp:131] Top shape: 100 25 (2500)
I0428 19:57:21.912742 28659 net.cpp:139] Memory required for data: 3374800
I0428 19:57:21.912748 28659 layer_factory.hpp:77] Creating layer ip2
I0428 19:57:21.912763 28659 net.cpp:86] Creating Layer ip2
I0428 19:57:21.912770 28659 net.cpp:408] ip2 <- ip1
I0428 19:57:21.912782 28659 net.cpp:382] ip2 -> ip2
I0428 19:57:21.912931 28659 net.cpp:124] Setting up ip2
I0428 19:57:21.912943 28659 net.cpp:131] Top shape: 100 10 (1000)
I0428 19:57:21.912950 28659 net.cpp:139] Memory required for data: 3378800
I0428 19:57:21.912961 28659 layer_factory.hpp:77] Creating layer relu2
I0428 19:57:21.912969 28659 net.cpp:86] Creating Layer relu2
I0428 19:57:21.912982 28659 net.cpp:408] relu2 <- ip2
I0428 19:57:21.912992 28659 net.cpp:369] relu2 -> ip2 (in-place)
I0428 19:57:21.913229 28659 net.cpp:124] Setting up relu2
I0428 19:57:21.913242 28659 net.cpp:131] Top shape: 100 10 (1000)
I0428 19:57:21.913249 28659 net.cpp:139] Memory required for data: 3382800
I0428 19:57:21.913256 28659 layer_factory.hpp:77] Creating layer ip2_relu2_0_split
I0428 19:57:21.913265 28659 net.cpp:86] Creating Layer ip2_relu2_0_split
I0428 19:57:21.913271 28659 net.cpp:408] ip2_relu2_0_split <- ip2
I0428 19:57:21.913280 28659 net.cpp:382] ip2_relu2_0_split -> ip2_relu2_0_split_0
I0428 19:57:21.913306 28659 net.cpp:382] ip2_relu2_0_split -> ip2_relu2_0_split_1
I0428 19:57:21.913359 28659 net.cpp:124] Setting up ip2_relu2_0_split
I0428 19:57:21.913369 28659 net.cpp:131] Top shape: 100 10 (1000)
I0428 19:57:21.913378 28659 net.cpp:131] Top shape: 100 10 (1000)
I0428 19:57:21.913383 28659 net.cpp:139] Memory required for data: 3390800
I0428 19:57:21.913389 28659 layer_factory.hpp:77] Creating layer accuracy
I0428 19:57:21.913400 28659 net.cpp:86] Creating Layer accuracy
I0428 19:57:21.913408 28659 net.cpp:408] accuracy <- ip2_relu2_0_split_0
I0428 19:57:21.913415 28659 net.cpp:408] accuracy <- label_mnist_1_split_0
I0428 19:57:21.913424 28659 net.cpp:382] accuracy -> accuracy
…
