…
I0428 20:11:38.247838 32107 net.cpp:296] The NetState phase (0) differed from the phase (1) specified by a rule in layer mnist
I0428 20:11:38.247853 32107 net.cpp:296] The NetState phase (0) differed from the phase (1) specified by a rule in layer accuracy
I0428 20:11:38.247931 32107 net.cpp:53] Initializing net from parameters: 
name: "LeNet"
state {
  phase: TRAIN
  level: 0
  stage: ""
}
layer {
  name: "mnist"
  type: "Data"
  top: "data"
  top: "label"
  include {
    phase: TRAIN
  }
  transform_param {
    scale: 0.00390625
  }
  data_param {
    source: "examples/mnist/mnist_train_lmdb"
    batch_size: 64
    backend: LMDB
  }
}
layer {
  name: "conv0"
  type: "Convolution"
  bottom: "data"
  top: "conv0"
  param {
    lr_mult: 1
  }
  param {
    lr_mult: 2
  }
  convolution_param {
    num_output: 25
    kernel_size: 5
    stride: 1
    weight_filler {
      type: "xavier"
    }
    bias_filler {
      type: "constant"
    }
  }
}
layer {
  name: "pool0"
  type: "Pooling"
  bottom: "conv0"
  top: "pool0"
  pooling_param {
    pool: MAX
    kernel_size: 2
    stride: 2
  }
}
layer {
  name: "conv1"
  type: "Convolution"
  bottom: "pool0"
  top: "conv1"
  param {
    lr_mult: 1
  }
  param {
    lr_mult: 2
  }
  convolution_param {
    num_output: 50
    kernel_size: 5
    stride: 1
    weight_filler {
      type: "xavier"
    }
    bias_filler {
      type: "constant"
    }
  }
}
layer {
  name: "pool1"
  type: "Pooling"
  bottom: "conv1"
  top: "pool1"
  pooling_param {
    pool: MAX
    kernel_size: 2
    stride: 2
  }
}
layer {
  name: "ip1"
  type: "InnerProduct"
  bottom: "pool1"
  top: "ip1"
  param {
    lr_mult: 1
  }
  param {
    lr_mult: 2
  }
  inner_product_param {
    num_output: 50
    weight_filler {
      type: "xavier"
    }
    bias_filler {
      type: "constant"
    }
  }
}
layer {
  name: "relu1"
  type: "ReLU"
  bottom: "ip1"
  top: "ip1"
}
layer {
  name: "ip2"
  type: "InnerProduct"
  bottom: "ip1"
  top: "ip2"
  param {
    lr_mult: 1
  }
  param {
    lr_mult: 2
  }
  inner_product_param {
    num_output: 10
    weight_filler {
      type: "xavier"
    }
    bias_filler {
      type: "constant"
    }
  }
}
layer {
  name: "relu2"
  type: "ReLU"
  bottom: "ip2"
  top: "ip2"
}
layer {
  name: "ip3"
  type: "InnerProduct"
  bottom: "ip2"
  top: "ip3"
  param {
    lr_mult: 1
  }
  param {
    lr_mult: 2
  }
  inner_product_param {
    num_output: 10
    weight_filler {
      type: "xavier"
    }
    bias_filler {
      type: "constant"
    }
  }
}
layer {
  name: "relu3"
  type: "ReLU"
  bottom: "ip3"
  top: "ip3"
}
layer {
  name: "loss"
  type: "SoftmaxWithLoss"
  bottom: "ip3"
  bottom: "label"
  top: "loss"
}
I0428 20:11:38.247990 32107 layer_factory.hpp:77] Creating layer mnist
I0428 20:11:38.248075 32107 db_lmdb.cpp:35] Opened lmdb examples/mnist/mnist_train_lmdb
I0428 20:11:38.248093 32107 net.cpp:86] Creating Layer mnist
I0428 20:11:38.248100 32107 net.cpp:382] mnist -> data
I0428 20:11:38.248118 32107 net.cpp:382] mnist -> label
I0428 20:11:38.249114 32107 data_layer.cpp:45] output data size: 64,1,28,28
I0428 20:11:38.251498 32107 net.cpp:124] Setting up mnist
I0428 20:11:38.251544 32107 net.cpp:131] Top shape: 64 1 28 28 (50176)
I0428 20:11:38.251549 32107 net.cpp:131] Top shape: 64 (64)
I0428 20:11:38.251552 32107 net.cpp:139] Memory required for data: 200960
I0428 20:11:38.251560 32107 layer_factory.hpp:77] Creating layer conv0
I0428 20:11:38.251574 32107 net.cpp:86] Creating Layer conv0
I0428 20:11:38.251592 32107 net.cpp:408] conv0 <- data
I0428 20:11:38.251603 32107 net.cpp:382] conv0 -> conv0
I0428 20:11:38.478369 32107 net.cpp:124] Setting up conv0
I0428 20:11:38.478412 32107 net.cpp:131] Top shape: 64 25 24 24 (921600)
I0428 20:11:38.478416 32107 net.cpp:139] Memory required for data: 3887360
I0428 20:11:38.478430 32107 layer_factory.hpp:77] Creating layer pool0
I0428 20:11:38.478442 32107 net.cpp:86] Creating Layer pool0
I0428 20:11:38.478446 32107 net.cpp:408] pool0 <- conv0
I0428 20:11:38.478451 32107 net.cpp:382] pool0 -> pool0
I0428 20:11:38.478509 32107 net.cpp:124] Setting up pool0
I0428 20:11:38.478515 32107 net.cpp:131] Top shape: 64 25 12 12 (230400)
I0428 20:11:38.478518 32107 net.cpp:139] Memory required for data: 4808960
I0428 20:11:38.478520 32107 layer_factory.hpp:77] Creating layer conv1
I0428 20:11:38.478531 32107 net.cpp:86] Creating Layer conv1
I0428 20:11:38.478534 32107 net.cpp:408] conv1 <- pool0
I0428 20:11:38.478539 32107 net.cpp:382] conv1 -> conv1
I0428 20:11:38.480696 32107 net.cpp:124] Setting up conv1
I0428 20:11:38.480710 32107 net.cpp:131] Top shape: 64 50 8 8 (204800)
I0428 20:11:38.480729 32107 net.cpp:139] Memory required for data: 5628160
I0428 20:11:38.480737 32107 layer_factory.hpp:77] Creating layer pool1
I0428 20:11:38.480744 32107 net.cpp:86] Creating Layer pool1
I0428 20:11:38.480747 32107 net.cpp:408] pool1 <- conv1
I0428 20:11:38.480752 32107 net.cpp:382] pool1 -> pool1
I0428 20:11:38.480803 32107 net.cpp:124] Setting up pool1
I0428 20:11:38.480829 32107 net.cpp:131] Top shape: 64 50 4 4 (51200)
I0428 20:11:38.480831 32107 net.cpp:139] Memory required for data: 5832960
I0428 20:11:38.480834 32107 layer_factory.hpp:77] Creating layer ip1
I0428 20:11:38.480857 32107 net.cpp:86] Creating Layer ip1
I0428 20:11:38.480860 32107 net.cpp:408] ip1 <- pool1
I0428 20:11:38.480865 32107 net.cpp:382] ip1 -> ip1
I0428 20:11:38.481257 32107 net.cpp:124] Setting up ip1
I0428 20:11:38.481266 32107 net.cpp:131] Top shape: 64 50 (3200)
I0428 20:11:38.481283 32107 net.cpp:139] Memory required for data: 5845760
I0428 20:11:38.481292 32107 layer_factory.hpp:77] Creating layer relu1
I0428 20:11:38.481297 32107 net.cpp:86] Creating Layer relu1
I0428 20:11:38.481314 32107 net.cpp:408] relu1 <- ip1
I0428 20:11:38.481318 32107 net.cpp:369] relu1 -> ip1 (in-place)
I0428 20:11:38.481506 32107 net.cpp:124] Setting up relu1
I0428 20:11:38.481515 32107 net.cpp:131] Top shape: 64 50 (3200)
I0428 20:11:38.481518 32107 net.cpp:139] Memory required for data: 5858560
I0428 20:11:38.481521 32107 layer_factory.hpp:77] Creating layer ip2
I0428 20:11:38.481528 32107 net.cpp:86] Creating Layer ip2
I0428 20:11:38.481530 32107 net.cpp:408] ip2 <- ip1
I0428 20:11:38.481534 32107 net.cpp:382] ip2 -> ip2
I0428 20:11:38.481628 32107 net.cpp:124] Setting up ip2
I0428 20:11:38.481636 32107 net.cpp:131] Top shape: 64 10 (640)
I0428 20:11:38.481638 32107 net.cpp:139] Memory required for data: 5861120
I0428 20:11:38.481643 32107 layer_factory.hpp:77] Creating layer relu2
I0428 20:11:38.481648 32107 net.cpp:86] Creating Layer relu2
I0428 20:11:38.481652 32107 net.cpp:408] relu2 <- ip2
I0428 20:11:38.481655 32107 net.cpp:369] relu2 -> ip2 (in-place)
I0428 20:11:38.482409 32107 net.cpp:124] Setting up relu2
I0428 20:11:38.482419 32107 net.cpp:131] Top shape: 64 10 (640)
I0428 20:11:38.482437 32107 net.cpp:139] Memory required for data: 5863680
I0428 20:11:38.482441 32107 layer_factory.hpp:77] Creating layer ip3
I0428 20:11:38.482447 32107 net.cpp:86] Creating Layer ip3
I0428 20:11:38.482450 32107 net.cpp:408] ip3 <- ip2
I0428 20:11:38.482455 32107 net.cpp:382] ip3 -> ip3
I0428 20:11:38.482571 32107 net.cpp:124] Setting up ip3
I0428 20:11:38.482579 32107 net.cpp:131] Top shape: 64 10 (640)
I0428 20:11:38.482583 32107 net.cpp:139] Memory required for data: 5866240
I0428 20:11:38.482590 32107 layer_factory.hpp:77] Creating layer relu3
I0428 20:11:38.482595 32107 net.cpp:86] Creating Layer relu3
I0428 20:11:38.482597 32107 net.cpp:408] relu3 <- ip3
I0428 20:11:38.482601 32107 net.cpp:369] relu3 -> ip3 (in-place)
I0428 20:11:38.482764 32107 net.cpp:124] Setting up relu3
I0428 20:11:38.482784 32107 net.cpp:131] Top shape: 64 10 (640)
I0428 20:11:38.482786 32107 net.cpp:139] Memory required for data: 5868800
I0428 20:11:38.482789 32107 layer_factory.hpp:77] Creating layer loss
I0428 20:11:38.482795 32107 net.cpp:86] Creating Layer loss
I0428 20:11:38.482798 32107 net.cpp:408] loss <- ip3
I0428 20:11:38.482801 32107 net.cpp:408] loss <- label
I0428 20:11:38.482820 32107 net.cpp:382] loss -> loss
I0428 20:11:38.482837 32107 layer_factory.hpp:77] Creating layer loss
…
I0428 20:11:38.483521 32107 solver.cpp:173] Creating test net (#0) specified by net file: ECE595/mnist/train_test/var_everything2/lenet_train_test1163.prototxt
I0428 20:11:38.483563 32107 net.cpp:296] The NetState phase (1) differed from the phase (0) specified by a rule in layer mnist
I0428 20:11:38.483654 32107 net.cpp:53] Initializing net from parameters: 
name: "LeNet"
state {
  phase: TEST
}
layer {
  name: "mnist"
  type: "Data"
  top: "data"
  top: "label"
  include {
    phase: TEST
  }
  transform_param {
    scale: 0.00390625
  }
  data_param {
    source: "examples/mnist/mnist_test_lmdb"
    batch_size: 100
    backend: LMDB
  }
}
layer {
  name: "conv0"
  type: "Convolution"
  bottom: "data"
  top: "conv0"
  param {
    lr_mult: 1
  }
  param {
    lr_mult: 2
  }
  convolution_param {
    num_output: 25
    kernel_size: 5
    stride: 1
    weight_filler {
      type: "xavier"
    }
    bias_filler {
      type: "constant"
    }
  }
}
layer {
  name: "pool0"
  type: "Pooling"
  bottom: "conv0"
  top: "pool0"
  pooling_param {
    pool: MAX
    kernel_size: 2
    stride: 2
  }
}
layer {
  name: "conv1"
  type: "Convolution"
  bottom: "pool0"
  top: "conv1"
  param {
    lr_mult: 1
  }
  param {
    lr_mult: 2
  }
  convolution_param {
    num_output: 50
    kernel_size: 5
    stride: 1
    weight_filler {
      type: "xavier"
    }
    bias_filler {
      type: "constant"
    }
  }
}
layer {
  name: "pool1"
  type: "Pooling"
  bottom: "conv1"
  top: "pool1"
  pooling_param {
    pool: MAX
    kernel_size: 2
    stride: 2
  }
}
layer {
  name: "ip1"
  type: "InnerProduct"
  bottom: "pool1"
  top: "ip1"
  param {
    lr_mult: 1
  }
  param {
    lr_mult: 2
  }
  inner_product_param {
    num_output: 50
    weight_filler {
      type: "xavier"
    }
    bias_filler {
      type: "constant"
    }
  }
}
layer {
  name: "relu1"
  type: "ReLU"
  bottom: "ip1"
  top: "ip1"
}
layer {
  name: "ip2"
  type: "InnerProduct"
  bottom: "ip1"
  top: "ip2"
  param {
    lr_mult: 1
  }
  param {
    lr_mult: 2
  }
  inner_product_param {
    num_output: 10
    weight_filler {
      type: "xavier"
    }
    bias_filler {
      type: "constant"
    }
  }
}
layer {
  name: "relu2"
  type: "ReLU"
  bottom: "ip2"
  top: "ip2"
}
layer {
  name: "ip3"
  type: "InnerProduct"
  bottom: "ip2"
  top: "ip3"
  param {
    lr_mult: 1
  }
  param {
    lr_mult: 2
  }
  inner_product_param {
    num_output: 10
    weight_filler {
      type: "xavier"
    }
    bias_filler {
      type: "constant"
    }
  }
}
layer {
  name: "relu3"
  type: "ReLU"
  bottom: "ip3"
  top: "ip3"
}
layer {
  name: "accuracy"
  type: "Accuracy"
  bottom: "ip3"
  bottom: "label"
  top: "accuracy"
  include {
    phase: TEST
  }
}
layer {
  name: "loss"
  type: "SoftmaxWithLoss"
  bottom: "ip3"
  bottom: "label"
  top: "loss"
}
I0428 20:11:38.483763 32107 layer_factory.hpp:77] Creating layer mnist
I0428 20:11:38.483805 32107 db_lmdb.cpp:35] Opened lmdb examples/mnist/mnist_test_lmdb
I0428 20:11:38.483817 32107 net.cpp:86] Creating Layer mnist
I0428 20:11:38.483821 32107 net.cpp:382] mnist -> data
I0428 20:11:38.483829 32107 net.cpp:382] mnist -> label
I0428 20:11:38.483909 32107 data_layer.cpp:45] output data size: 100,1,28,28
I0428 20:11:38.486062 32107 net.cpp:124] Setting up mnist
I0428 20:11:38.486105 32107 net.cpp:131] Top shape: 100 1 28 28 (78400)
I0428 20:11:38.486110 32107 net.cpp:131] Top shape: 100 (100)
I0428 20:11:38.486114 32107 net.cpp:139] Memory required for data: 314000
I0428 20:11:38.486117 32107 layer_factory.hpp:77] Creating layer label_mnist_1_split
I0428 20:11:38.486137 32107 net.cpp:86] Creating Layer label_mnist_1_split
I0428 20:11:38.486141 32107 net.cpp:408] label_mnist_1_split <- label
I0428 20:11:38.486161 32107 net.cpp:382] label_mnist_1_split -> label_mnist_1_split_0
I0428 20:11:38.486168 32107 net.cpp:382] label_mnist_1_split -> label_mnist_1_split_1
I0428 20:11:38.486213 32107 net.cpp:124] Setting up label_mnist_1_split
I0428 20:11:38.486218 32107 net.cpp:131] Top shape: 100 (100)
I0428 20:11:38.486222 32107 net.cpp:131] Top shape: 100 (100)
I0428 20:11:38.486225 32107 net.cpp:139] Memory required for data: 314800
I0428 20:11:38.486228 32107 layer_factory.hpp:77] Creating layer conv0
I0428 20:11:38.486237 32107 net.cpp:86] Creating Layer conv0
I0428 20:11:38.486239 32107 net.cpp:408] conv0 <- data
I0428 20:11:38.486244 32107 net.cpp:382] conv0 -> conv0
I0428 20:11:38.488083 32107 net.cpp:124] Setting up conv0
I0428 20:11:38.488112 32107 net.cpp:131] Top shape: 100 25 24 24 (1440000)
I0428 20:11:38.488116 32107 net.cpp:139] Memory required for data: 6074800
I0428 20:11:38.488124 32107 layer_factory.hpp:77] Creating layer pool0
I0428 20:11:38.488131 32107 net.cpp:86] Creating Layer pool0
I0428 20:11:38.488134 32107 net.cpp:408] pool0 <- conv0
I0428 20:11:38.488139 32107 net.cpp:382] pool0 -> pool0
I0428 20:11:38.488190 32107 net.cpp:124] Setting up pool0
I0428 20:11:38.488196 32107 net.cpp:131] Top shape: 100 25 12 12 (360000)
I0428 20:11:38.488199 32107 net.cpp:139] Memory required for data: 7514800
I0428 20:11:38.488203 32107 layer_factory.hpp:77] Creating layer conv1
I0428 20:11:38.488211 32107 net.cpp:86] Creating Layer conv1
I0428 20:11:38.488214 32107 net.cpp:408] conv1 <- pool0
I0428 20:11:38.488219 32107 net.cpp:382] conv1 -> conv1
I0428 20:11:38.490181 32107 net.cpp:124] Setting up conv1
I0428 20:11:38.490195 32107 net.cpp:131] Top shape: 100 50 8 8 (320000)
I0428 20:11:38.490200 32107 net.cpp:139] Memory required for data: 8794800
I0428 20:11:38.490223 32107 layer_factory.hpp:77] Creating layer pool1
I0428 20:11:38.490245 32107 net.cpp:86] Creating Layer pool1
I0428 20:11:38.490248 32107 net.cpp:408] pool1 <- conv1
I0428 20:11:38.490253 32107 net.cpp:382] pool1 -> pool1
I0428 20:11:38.490289 32107 net.cpp:124] Setting up pool1
I0428 20:11:38.490295 32107 net.cpp:131] Top shape: 100 50 4 4 (80000)
I0428 20:11:38.490298 32107 net.cpp:139] Memory required for data: 9114800
I0428 20:11:38.490303 32107 layer_factory.hpp:77] Creating layer ip1
I0428 20:11:38.490308 32107 net.cpp:86] Creating Layer ip1
I0428 20:11:38.490317 32107 net.cpp:408] ip1 <- pool1
I0428 20:11:38.490322 32107 net.cpp:382] ip1 -> ip1
I0428 20:11:38.490684 32107 net.cpp:124] Setting up ip1
I0428 20:11:38.490692 32107 net.cpp:131] Top shape: 100 50 (5000)
I0428 20:11:38.490720 32107 net.cpp:139] Memory required for data: 9134800
I0428 20:11:38.490728 32107 layer_factory.hpp:77] Creating layer relu1
I0428 20:11:38.490733 32107 net.cpp:86] Creating Layer relu1
I0428 20:11:38.490736 32107 net.cpp:408] relu1 <- ip1
I0428 20:11:38.490741 32107 net.cpp:369] relu1 -> ip1 (in-place)
I0428 20:11:38.491024 32107 net.cpp:124] Setting up relu1
I0428 20:11:38.491044 32107 net.cpp:131] Top shape: 100 50 (5000)
I0428 20:11:38.491047 32107 net.cpp:139] Memory required for data: 9154800
I0428 20:11:38.491051 32107 layer_factory.hpp:77] Creating layer ip2
I0428 20:11:38.491060 32107 net.cpp:86] Creating Layer ip2
I0428 20:11:38.491062 32107 net.cpp:408] ip2 <- ip1
I0428 20:11:38.491067 32107 net.cpp:382] ip2 -> ip2
I0428 20:11:38.491189 32107 net.cpp:124] Setting up ip2
I0428 20:11:38.491195 32107 net.cpp:131] Top shape: 100 10 (1000)
I0428 20:11:38.491199 32107 net.cpp:139] Memory required for data: 9158800
I0428 20:11:38.491204 32107 layer_factory.hpp:77] Creating layer relu2
I0428 20:11:38.491209 32107 net.cpp:86] Creating Layer relu2
I0428 20:11:38.491211 32107 net.cpp:408] relu2 <- ip2
I0428 20:11:38.491224 32107 net.cpp:369] relu2 -> ip2 (in-place)
I0428 20:11:38.491387 32107 net.cpp:124] Setting up relu2
I0428 20:11:38.491395 32107 net.cpp:131] Top shape: 100 10 (1000)
I0428 20:11:38.491400 32107 net.cpp:139] Memory required for data: 9162800
I0428 20:11:38.491402 32107 layer_factory.hpp:77] Creating layer ip3
I0428 20:11:38.491407 32107 net.cpp:86] Creating Layer ip3
I0428 20:11:38.491411 32107 net.cpp:408] ip3 <- ip2
I0428 20:11:38.491416 32107 net.cpp:382] ip3 -> ip3
I0428 20:11:38.491509 32107 net.cpp:124] Setting up ip3
I0428 20:11:38.491516 32107 net.cpp:131] Top shape: 100 10 (1000)
I0428 20:11:38.491534 32107 net.cpp:139] Memory required for data: 9166800
I0428 20:11:38.491541 32107 layer_factory.hpp:77] Creating layer relu3
I0428 20:11:38.491546 32107 net.cpp:86] Creating Layer relu3
I0428 20:11:38.491549 32107 net.cpp:408] relu3 <- ip3
I0428 20:11:38.491554 32107 net.cpp:369] relu3 -> ip3 (in-place)
I0428 20:11:38.492409 32107 net.cpp:124] Setting up relu3
I0428 20:11:38.492435 32107 net.cpp:131] Top shape: 100 10 (1000)
I0428 20:11:38.492439 32107 net.cpp:139] Memory required for data: 9170800
I0428 20:11:38.492444 32107 layer_factory.hpp:77] Creating layer ip3_relu3_0_split
I0428 20:11:38.492449 32107 net.cpp:86] Creating Layer ip3_relu3_0_split
I0428 20:11:38.492451 32107 net.cpp:408] ip3_relu3_0_split <- ip3
I0428 20:11:38.492457 32107 net.cpp:382] ip3_relu3_0_split -> ip3_relu3_0_split_0
I0428 20:11:38.492463 32107 net.cpp:382] ip3_relu3_0_split -> ip3_relu3_0_split_1
I0428 20:11:38.492504 32107 net.cpp:124] Setting up ip3_relu3_0_split
I0428 20:11:38.492509 32107 net.cpp:131] Top shape: 100 10 (1000)
I0428 20:11:38.492513 32107 net.cpp:131] Top shape: 100 10 (1000)
I0428 20:11:38.492516 32107 net.cpp:139] Memory required for data: 9178800
I0428 20:11:38.492519 32107 layer_factory.hpp:77] Creating layer accuracy
I0428 20:11:38.492524 32107 net.cpp:86] Creating Layer accuracy
I0428 20:11:38.492527 32107 net.cpp:408] accuracy <- ip3_relu3_0_split_0
I0428 20:11:38.492532 32107 net.cpp:408] accuracy <- label_mnist_1_split_0
I0428 20:11:38.492535 32107 net.cpp:382] accuracy -> accuracy
…
