…
I0428 19:47:17.009415 26152 net.cpp:296] The NetState phase (0) differed from the phase (1) specified by a rule in layer mnist
I0428 19:47:17.009434 26152 net.cpp:296] The NetState phase (0) differed from the phase (1) specified by a rule in layer accuracy
I0428 19:47:17.009524 26152 net.cpp:53] Initializing net from parameters: 
name: "LeNet"
state {
  phase: TRAIN
  level: 0
  stage: ""
}
layer {
  name: "mnist"
  type: "Data"
  top: "data"
  top: "label"
  include {
    phase: TRAIN
  }
  transform_param {
    scale: 0.00390625
  }
  data_param {
    source: "examples/mnist/mnist_train_lmdb"
    batch_size: 64
    backend: LMDB
  }
}
layer {
  name: "conv0"
  type: "Convolution"
  bottom: "data"
  top: "conv0"
  param {
    lr_mult: 1
  }
  param {
    lr_mult: 2
  }
  convolution_param {
    num_output: 5
    kernel_size: 5
    stride: 1
    weight_filler {
      type: "xavier"
    }
    bias_filler {
      type: "constant"
    }
  }
}
layer {
  name: "pool0"
  type: "Pooling"
  bottom: "conv0"
  top: "pool0"
  pooling_param {
    pool: MAX
    kernel_size: 2
    stride: 2
  }
}
layer {
  name: "conv1"
  type: "Convolution"
  bottom: "pool0"
  top: "conv1"
  param {
    lr_mult: 1
  }
  param {
    lr_mult: 2
  }
  convolution_param {
    num_output: 2
    kernel_size: 5
    stride: 1
    weight_filler {
      type: "xavier"
    }
    bias_filler {
      type: "constant"
    }
  }
}
layer {
  name: "pool1"
  type: "Pooling"
  bottom: "conv1"
  top: "pool1"
  pooling_param {
    pool: MAX
    kernel_size: 2
    stride: 2
  }
}
layer {
  name: "ip1"
  type: "InnerProduct"
  bottom: "pool1"
  top: "ip1"
  param {
    lr_mult: 1
  }
  param {
    lr_mult: 2
  }
  inner_product_param {
    num_output: 10
    weight_filler {
      type: "xavier"
    }
    bias_filler {
      type: "constant"
    }
  }
}
layer {
  name: "relu1"
  type: "ReLU"
  bottom: "ip1"
  top: "ip1"
}
layer {
  name: "ip2"
  type: "InnerProduct"
  bottom: "ip1"
  top: "ip2"
  param {
    lr_mult: 1
  }
  param {
    lr_mult: 2
  }
  inner_product_param {
    num_output: 10
    weight_filler {
      type: "xavier"
    }
    bias_filler {
      type: "constant"
    }
  }
}
layer {
  name: "relu2"
  type: "ReLU"
  bottom: "ip2"
  top: "ip2"
}
layer {
  name: "loss"
  type: "SoftmaxWithLoss"
  bottom: "ip2"
  bottom: "label"
  top: "loss"
}
I0428 19:47:17.009599 26152 layer_factory.hpp:77] Creating layer mnist
I0428 19:47:17.009703 26152 db_lmdb.cpp:35] Opened lmdb examples/mnist/mnist_train_lmdb
I0428 19:47:17.009727 26152 net.cpp:86] Creating Layer mnist
I0428 19:47:17.009737 26152 net.cpp:382] mnist -> data
I0428 19:47:17.009757 26152 net.cpp:382] mnist -> label
I0428 19:47:17.010845 26152 data_layer.cpp:45] output data size: 64,1,28,28
I0428 19:47:17.013309 26152 net.cpp:124] Setting up mnist
I0428 19:47:17.013327 26152 net.cpp:131] Top shape: 64 1 28 28 (50176)
I0428 19:47:17.013334 26152 net.cpp:131] Top shape: 64 (64)
I0428 19:47:17.013337 26152 net.cpp:139] Memory required for data: 200960
I0428 19:47:17.013345 26152 layer_factory.hpp:77] Creating layer conv0
I0428 19:47:17.013388 26152 net.cpp:86] Creating Layer conv0
I0428 19:47:17.013396 26152 net.cpp:408] conv0 <- data
I0428 19:47:17.013409 26152 net.cpp:382] conv0 -> conv0
I0428 19:47:17.304051 26152 net.cpp:124] Setting up conv0
I0428 19:47:17.304082 26152 net.cpp:131] Top shape: 64 5 24 24 (184320)
I0428 19:47:17.304087 26152 net.cpp:139] Memory required for data: 938240
I0428 19:47:17.304127 26152 layer_factory.hpp:77] Creating layer pool0
I0428 19:47:17.304142 26152 net.cpp:86] Creating Layer pool0
I0428 19:47:17.304147 26152 net.cpp:408] pool0 <- conv0
I0428 19:47:17.304153 26152 net.cpp:382] pool0 -> pool0
I0428 19:47:17.304210 26152 net.cpp:124] Setting up pool0
I0428 19:47:17.304219 26152 net.cpp:131] Top shape: 64 5 12 12 (46080)
I0428 19:47:17.304224 26152 net.cpp:139] Memory required for data: 1122560
I0428 19:47:17.304226 26152 layer_factory.hpp:77] Creating layer conv1
I0428 19:47:17.304240 26152 net.cpp:86] Creating Layer conv1
I0428 19:47:17.304244 26152 net.cpp:408] conv1 <- pool0
I0428 19:47:17.304250 26152 net.cpp:382] conv1 -> conv1
I0428 19:47:17.306358 26152 net.cpp:124] Setting up conv1
I0428 19:47:17.306376 26152 net.cpp:131] Top shape: 64 2 8 8 (8192)
I0428 19:47:17.306381 26152 net.cpp:139] Memory required for data: 1155328
I0428 19:47:17.306391 26152 layer_factory.hpp:77] Creating layer pool1
I0428 19:47:17.306401 26152 net.cpp:86] Creating Layer pool1
I0428 19:47:17.306404 26152 net.cpp:408] pool1 <- conv1
I0428 19:47:17.306411 26152 net.cpp:382] pool1 -> pool1
I0428 19:47:17.306454 26152 net.cpp:124] Setting up pool1
I0428 19:47:17.306460 26152 net.cpp:131] Top shape: 64 2 4 4 (2048)
I0428 19:47:17.306464 26152 net.cpp:139] Memory required for data: 1163520
I0428 19:47:17.306468 26152 layer_factory.hpp:77] Creating layer ip1
I0428 19:47:17.306475 26152 net.cpp:86] Creating Layer ip1
I0428 19:47:17.306479 26152 net.cpp:408] ip1 <- pool1
I0428 19:47:17.306484 26152 net.cpp:382] ip1 -> ip1
I0428 19:47:17.306597 26152 net.cpp:124] Setting up ip1
I0428 19:47:17.306607 26152 net.cpp:131] Top shape: 64 10 (640)
I0428 19:47:17.306609 26152 net.cpp:139] Memory required for data: 1166080
I0428 19:47:17.306618 26152 layer_factory.hpp:77] Creating layer relu1
I0428 19:47:17.306625 26152 net.cpp:86] Creating Layer relu1
I0428 19:47:17.306628 26152 net.cpp:408] relu1 <- ip1
I0428 19:47:17.306633 26152 net.cpp:369] relu1 -> ip1 (in-place)
I0428 19:47:17.306823 26152 net.cpp:124] Setting up relu1
I0428 19:47:17.306834 26152 net.cpp:131] Top shape: 64 10 (640)
I0428 19:47:17.306838 26152 net.cpp:139] Memory required for data: 1168640
I0428 19:47:17.306841 26152 layer_factory.hpp:77] Creating layer ip2
I0428 19:47:17.306849 26152 net.cpp:86] Creating Layer ip2
I0428 19:47:17.306851 26152 net.cpp:408] ip2 <- ip1
I0428 19:47:17.306857 26152 net.cpp:382] ip2 -> ip2
I0428 19:47:17.306963 26152 net.cpp:124] Setting up ip2
I0428 19:47:17.306972 26152 net.cpp:131] Top shape: 64 10 (640)
I0428 19:47:17.306975 26152 net.cpp:139] Memory required for data: 1171200
I0428 19:47:17.306982 26152 layer_factory.hpp:77] Creating layer relu2
I0428 19:47:17.306988 26152 net.cpp:86] Creating Layer relu2
I0428 19:47:17.306993 26152 net.cpp:408] relu2 <- ip2
I0428 19:47:17.306998 26152 net.cpp:369] relu2 -> ip2 (in-place)
I0428 19:47:17.307832 26152 net.cpp:124] Setting up relu2
I0428 19:47:17.307847 26152 net.cpp:131] Top shape: 64 10 (640)
I0428 19:47:17.307852 26152 net.cpp:139] Memory required for data: 1173760
I0428 19:47:17.307855 26152 layer_factory.hpp:77] Creating layer loss
I0428 19:47:17.307863 26152 net.cpp:86] Creating Layer loss
I0428 19:47:17.307868 26152 net.cpp:408] loss <- ip2
I0428 19:47:17.307873 26152 net.cpp:408] loss <- label
I0428 19:47:17.307878 26152 net.cpp:382] loss -> loss
I0428 19:47:17.307903 26152 layer_factory.hpp:77] Creating layer loss
…
I0428 19:47:17.308614 26152 solver.cpp:173] Creating test net (#0) specified by net file: ECE595/mnist/train_test/var_everything2/lenet_train_test510.prototxt
I0428 19:47:17.308645 26152 net.cpp:296] The NetState phase (1) differed from the phase (0) specified by a rule in layer mnist
I0428 19:47:17.308742 26152 net.cpp:53] Initializing net from parameters: 
name: "LeNet"
state {
  phase: TEST
}
layer {
  name: "mnist"
  type: "Data"
  top: "data"
  top: "label"
  include {
    phase: TEST
  }
  transform_param {
    scale: 0.00390625
  }
  data_param {
    source: "examples/mnist/mnist_test_lmdb"
    batch_size: 100
    backend: LMDB
  }
}
layer {
  name: "conv0"
  type: "Convolution"
  bottom: "data"
  top: "conv0"
  param {
    lr_mult: 1
  }
  param {
    lr_mult: 2
  }
  convolution_param {
    num_output: 5
    kernel_size: 5
    stride: 1
    weight_filler {
      type: "xavier"
    }
    bias_filler {
      type: "constant"
    }
  }
}
layer {
  name: "pool0"
  type: "Pooling"
  bottom: "conv0"
  top: "pool0"
  pooling_param {
    pool: MAX
    kernel_size: 2
    stride: 2
  }
}
layer {
  name: "conv1"
  type: "Convolution"
  bottom: "pool0"
  top: "conv1"
  param {
    lr_mult: 1
  }
  param {
    lr_mult: 2
  }
  convolution_param {
    num_output: 2
    kernel_size: 5
    stride: 1
    weight_filler {
      type: "xavier"
    }
    bias_filler {
      type: "constant"
    }
  }
}
layer {
  name: "pool1"
  type: "Pooling"
  bottom: "conv1"
  top: "pool1"
  pooling_param {
    pool: MAX
    kernel_size: 2
    stride: 2
  }
}
layer {
  name: "ip1"
  type: "InnerProduct"
  bottom: "pool1"
  top: "ip1"
  param {
    lr_mult: 1
  }
  param {
    lr_mult: 2
  }
  inner_product_param {
    num_output: 10
    weight_filler {
      type: "xavier"
    }
    bias_filler {
      type: "constant"
    }
  }
}
layer {
  name: "relu1"
  type: "ReLU"
  bottom: "ip1"
  top: "ip1"
}
layer {
  name: "ip2"
  type: "InnerProduct"
  bottom: "ip1"
  top: "ip2"
  param {
    lr_mult: 1
  }
  param {
    lr_mult: 2
  }
  inner_product_param {
    num_output: 10
    weight_filler {
      type: "xavier"
    }
    bias_filler {
      type: "constant"
    }
  }
}
layer {
  name: "relu2"
  type: "ReLU"
  bottom: "ip2"
  top: "ip2"
}
layer {
  name: "accuracy"
  type: "Accuracy"
  bottom: "ip2"
  bottom: "label"
  top: "accuracy"
  include {
    phase: TEST
  }
}
layer {
  name: "loss"
  type: "SoftmaxWithLoss"
  bottom: "ip2"
  bottom: "label"
  top: "loss"
}
I0428 19:47:17.308825 26152 layer_factory.hpp:77] Creating layer mnist
I0428 19:47:17.308881 26152 db_lmdb.cpp:35] Opened lmdb examples/mnist/mnist_test_lmdb
I0428 19:47:17.308895 26152 net.cpp:86] Creating Layer mnist
I0428 19:47:17.308900 26152 net.cpp:382] mnist -> data
I0428 19:47:17.308909 26152 net.cpp:382] mnist -> label
I0428 19:47:17.309007 26152 data_layer.cpp:45] output data size: 100,1,28,28
I0428 19:47:17.311187 26152 net.cpp:124] Setting up mnist
I0428 19:47:17.311203 26152 net.cpp:131] Top shape: 100 1 28 28 (78400)
I0428 19:47:17.311209 26152 net.cpp:131] Top shape: 100 (100)
I0428 19:47:17.311213 26152 net.cpp:139] Memory required for data: 314000
I0428 19:47:17.311218 26152 layer_factory.hpp:77] Creating layer label_mnist_1_split
I0428 19:47:17.311226 26152 net.cpp:86] Creating Layer label_mnist_1_split
I0428 19:47:17.311230 26152 net.cpp:408] label_mnist_1_split <- label
I0428 19:47:17.311235 26152 net.cpp:382] label_mnist_1_split -> label_mnist_1_split_0
I0428 19:47:17.311244 26152 net.cpp:382] label_mnist_1_split -> label_mnist_1_split_1
I0428 19:47:17.311300 26152 net.cpp:124] Setting up label_mnist_1_split
I0428 19:47:17.311319 26152 net.cpp:131] Top shape: 100 (100)
I0428 19:47:17.311324 26152 net.cpp:131] Top shape: 100 (100)
I0428 19:47:17.311327 26152 net.cpp:139] Memory required for data: 314800
I0428 19:47:17.311331 26152 layer_factory.hpp:77] Creating layer conv0
I0428 19:47:17.311342 26152 net.cpp:86] Creating Layer conv0
I0428 19:47:17.311345 26152 net.cpp:408] conv0 <- data
I0428 19:47:17.311350 26152 net.cpp:382] conv0 -> conv0
I0428 19:47:17.313249 26152 net.cpp:124] Setting up conv0
I0428 19:47:17.313266 26152 net.cpp:131] Top shape: 100 5 24 24 (288000)
I0428 19:47:17.313271 26152 net.cpp:139] Memory required for data: 1466800
I0428 19:47:17.313282 26152 layer_factory.hpp:77] Creating layer pool0
I0428 19:47:17.313290 26152 net.cpp:86] Creating Layer pool0
I0428 19:47:17.313294 26152 net.cpp:408] pool0 <- conv0
I0428 19:47:17.313300 26152 net.cpp:382] pool0 -> pool0
I0428 19:47:17.313343 26152 net.cpp:124] Setting up pool0
I0428 19:47:17.313349 26152 net.cpp:131] Top shape: 100 5 12 12 (72000)
I0428 19:47:17.313352 26152 net.cpp:139] Memory required for data: 1754800
I0428 19:47:17.313355 26152 layer_factory.hpp:77] Creating layer conv1
I0428 19:47:17.313365 26152 net.cpp:86] Creating Layer conv1
I0428 19:47:17.313369 26152 net.cpp:408] conv1 <- pool0
I0428 19:47:17.313375 26152 net.cpp:382] conv1 -> conv1
I0428 19:47:17.315629 26152 net.cpp:124] Setting up conv1
I0428 19:47:17.315645 26152 net.cpp:131] Top shape: 100 2 8 8 (12800)
I0428 19:47:17.315650 26152 net.cpp:139] Memory required for data: 1806000
I0428 19:47:17.315661 26152 layer_factory.hpp:77] Creating layer pool1
I0428 19:47:17.315668 26152 net.cpp:86] Creating Layer pool1
I0428 19:47:17.315672 26152 net.cpp:408] pool1 <- conv1
I0428 19:47:17.315678 26152 net.cpp:382] pool1 -> pool1
I0428 19:47:17.315728 26152 net.cpp:124] Setting up pool1
I0428 19:47:17.315734 26152 net.cpp:131] Top shape: 100 2 4 4 (3200)
I0428 19:47:17.315738 26152 net.cpp:139] Memory required for data: 1818800
I0428 19:47:17.315742 26152 layer_factory.hpp:77] Creating layer ip1
I0428 19:47:17.315748 26152 net.cpp:86] Creating Layer ip1
I0428 19:47:17.315752 26152 net.cpp:408] ip1 <- pool1
I0428 19:47:17.315757 26152 net.cpp:382] ip1 -> ip1
I0428 19:47:17.315913 26152 net.cpp:124] Setting up ip1
I0428 19:47:17.315923 26152 net.cpp:131] Top shape: 100 10 (1000)
I0428 19:47:17.315927 26152 net.cpp:139] Memory required for data: 1822800
I0428 19:47:17.315937 26152 layer_factory.hpp:77] Creating layer relu1
I0428 19:47:17.315943 26152 net.cpp:86] Creating Layer relu1
I0428 19:47:17.315946 26152 net.cpp:408] relu1 <- ip1
I0428 19:47:17.315951 26152 net.cpp:369] relu1 -> ip1 (in-place)
I0428 19:47:17.316133 26152 net.cpp:124] Setting up relu1
I0428 19:47:17.316143 26152 net.cpp:131] Top shape: 100 10 (1000)
I0428 19:47:17.316148 26152 net.cpp:139] Memory required for data: 1826800
I0428 19:47:17.316151 26152 layer_factory.hpp:77] Creating layer ip2
I0428 19:47:17.316159 26152 net.cpp:86] Creating Layer ip2
I0428 19:47:17.316164 26152 net.cpp:408] ip2 <- ip1
I0428 19:47:17.316169 26152 net.cpp:382] ip2 -> ip2
I0428 19:47:17.316277 26152 net.cpp:124] Setting up ip2
I0428 19:47:17.316285 26152 net.cpp:131] Top shape: 100 10 (1000)
I0428 19:47:17.316289 26152 net.cpp:139] Memory required for data: 1830800
I0428 19:47:17.316296 26152 layer_factory.hpp:77] Creating layer relu2
I0428 19:47:17.316301 26152 net.cpp:86] Creating Layer relu2
I0428 19:47:17.316305 26152 net.cpp:408] relu2 <- ip2
I0428 19:47:17.316309 26152 net.cpp:369] relu2 -> ip2 (in-place)
I0428 19:47:17.316483 26152 net.cpp:124] Setting up relu2
I0428 19:47:17.316496 26152 net.cpp:131] Top shape: 100 10 (1000)
I0428 19:47:17.316501 26152 net.cpp:139] Memory required for data: 1834800
I0428 19:47:17.316504 26152 layer_factory.hpp:77] Creating layer ip2_relu2_0_split
I0428 19:47:17.316511 26152 net.cpp:86] Creating Layer ip2_relu2_0_split
I0428 19:47:17.316514 26152 net.cpp:408] ip2_relu2_0_split <- ip2
I0428 19:47:17.316519 26152 net.cpp:382] ip2_relu2_0_split -> ip2_relu2_0_split_0
I0428 19:47:17.316540 26152 net.cpp:382] ip2_relu2_0_split -> ip2_relu2_0_split_1
I0428 19:47:17.316587 26152 net.cpp:124] Setting up ip2_relu2_0_split
I0428 19:47:17.316596 26152 net.cpp:131] Top shape: 100 10 (1000)
I0428 19:47:17.316601 26152 net.cpp:131] Top shape: 100 10 (1000)
I0428 19:47:17.316603 26152 net.cpp:139] Memory required for data: 1842800
I0428 19:47:17.316607 26152 layer_factory.hpp:77] Creating layer accuracy
I0428 19:47:17.316613 26152 net.cpp:86] Creating Layer accuracy
I0428 19:47:17.316617 26152 net.cpp:408] accuracy <- ip2_relu2_0_split_0
I0428 19:47:17.316622 26152 net.cpp:408] accuracy <- label_mnist_1_split_0
I0428 19:47:17.316627 26152 net.cpp:382] accuracy -> accuracy
…
