…
I0428 20:23:30.215054  2246 net.cpp:296] The NetState phase (0) differed from the phase (1) specified by a rule in layer mnist
I0428 20:23:30.215070  2246 net.cpp:296] The NetState phase (0) differed from the phase (1) specified by a rule in layer accuracy
I0428 20:23:30.215147  2246 net.cpp:53] Initializing net from parameters: 
name: "LeNet"
state {
  phase: TRAIN
  level: 0
  stage: ""
}
layer {
  name: "mnist"
  type: "Data"
  top: "data"
  top: "label"
  include {
    phase: TRAIN
  }
  transform_param {
    scale: 0.00390625
  }
  data_param {
    source: "examples/mnist/mnist_train_lmdb"
    batch_size: 64
    backend: LMDB
  }
}
layer {
  name: "conv0"
  type: "Convolution"
  bottom: "data"
  top: "conv0"
  param {
    lr_mult: 1
  }
  param {
    lr_mult: 2
  }
  convolution_param {
    num_output: 50
    kernel_size: 5
    stride: 1
    weight_filler {
      type: "xavier"
    }
    bias_filler {
      type: "constant"
    }
  }
}
layer {
  name: "pool0"
  type: "Pooling"
  bottom: "conv0"
  top: "pool0"
  pooling_param {
    pool: MAX
    kernel_size: 2
    stride: 2
  }
}
layer {
  name: "conv1"
  type: "Convolution"
  bottom: "pool0"
  top: "conv1"
  param {
    lr_mult: 1
  }
  param {
    lr_mult: 2
  }
  convolution_param {
    num_output: 100
    kernel_size: 5
    stride: 1
    weight_filler {
      type: "xavier"
    }
    bias_filler {
      type: "constant"
    }
  }
}
layer {
  name: "pool1"
  type: "Pooling"
  bottom: "conv1"
  top: "pool1"
  pooling_param {
    pool: MAX
    kernel_size: 2
    stride: 2
  }
}
layer {
  name: "ip1"
  type: "InnerProduct"
  bottom: "pool1"
  top: "ip1"
  param {
    lr_mult: 1
  }
  param {
    lr_mult: 2
  }
  inner_product_param {
    num_output: 10
    weight_filler {
      type: "xavier"
    }
    bias_filler {
      type: "constant"
    }
  }
}
layer {
  name: "relu1"
  type: "ReLU"
  bottom: "ip1"
  top: "ip1"
}
layer {
  name: "ip2"
  type: "InnerProduct"
  bottom: "ip1"
  top: "ip2"
  param {
    lr_mult: 1
  }
  param {
    lr_mult: 2
  }
  inner_product_param {
    num_output: 50
    weight_filler {
      type: "xavier"
    }
    bias_filler {
      type: "constant"
    }
  }
}
layer {
  name: "relu2"
  type: "ReLU"
  bottom: "ip2"
  top: "ip2"
}
layer {
  name: "ip3"
  type: "InnerProduct"
  bottom: "ip2"
  top: "ip3"
  param {
    lr_mult: 1
  }
  param {
    lr_mult: 2
  }
  inner_product_param {
    num_output: 10
    weight_filler {
      type: "xavier"
    }
    bias_filler {
      type: "constant"
    }
  }
}
layer {
  name: "relu3"
  type: "ReLU"
  bottom: "ip3"
  top: "ip3"
}
layer {
  name: "loss"
  type: "SoftmaxWithLoss"
  bottom: "ip3"
  bottom: "label"
  top: "loss"
}
I0428 20:23:30.215207  2246 layer_factory.hpp:77] Creating layer mnist
I0428 20:23:30.215303  2246 db_lmdb.cpp:35] Opened lmdb examples/mnist/mnist_train_lmdb
I0428 20:23:30.215323  2246 net.cpp:86] Creating Layer mnist
I0428 20:23:30.215329  2246 net.cpp:382] mnist -> data
I0428 20:23:30.215348  2246 net.cpp:382] mnist -> label
I0428 20:23:30.216218  2246 data_layer.cpp:45] output data size: 64,1,28,28
I0428 20:23:30.218317  2246 net.cpp:124] Setting up mnist
I0428 20:23:30.218346  2246 net.cpp:131] Top shape: 64 1 28 28 (50176)
I0428 20:23:30.218351  2246 net.cpp:131] Top shape: 64 (64)
I0428 20:23:30.218354  2246 net.cpp:139] Memory required for data: 200960
I0428 20:23:30.218359  2246 layer_factory.hpp:77] Creating layer conv0
I0428 20:23:30.218374  2246 net.cpp:86] Creating Layer conv0
I0428 20:23:30.218390  2246 net.cpp:408] conv0 <- data
I0428 20:23:30.218400  2246 net.cpp:382] conv0 -> conv0
I0428 20:23:30.452008  2246 net.cpp:124] Setting up conv0
I0428 20:23:30.452033  2246 net.cpp:131] Top shape: 64 50 24 24 (1843200)
I0428 20:23:30.452036  2246 net.cpp:139] Memory required for data: 7573760
I0428 20:23:30.452050  2246 layer_factory.hpp:77] Creating layer pool0
I0428 20:23:30.452061  2246 net.cpp:86] Creating Layer pool0
I0428 20:23:30.452066  2246 net.cpp:408] pool0 <- conv0
I0428 20:23:30.452071  2246 net.cpp:382] pool0 -> pool0
I0428 20:23:30.452112  2246 net.cpp:124] Setting up pool0
I0428 20:23:30.452117  2246 net.cpp:131] Top shape: 64 50 12 12 (460800)
I0428 20:23:30.452121  2246 net.cpp:139] Memory required for data: 9416960
I0428 20:23:30.452122  2246 layer_factory.hpp:77] Creating layer conv1
I0428 20:23:30.452133  2246 net.cpp:86] Creating Layer conv1
I0428 20:23:30.452136  2246 net.cpp:408] conv1 <- pool0
I0428 20:23:30.452141  2246 net.cpp:382] conv1 -> conv1
I0428 20:23:30.455461  2246 net.cpp:124] Setting up conv1
I0428 20:23:30.455489  2246 net.cpp:131] Top shape: 64 100 8 8 (409600)
I0428 20:23:30.455493  2246 net.cpp:139] Memory required for data: 11055360
I0428 20:23:30.455502  2246 layer_factory.hpp:77] Creating layer pool1
I0428 20:23:30.455508  2246 net.cpp:86] Creating Layer pool1
I0428 20:23:30.455513  2246 net.cpp:408] pool1 <- conv1
I0428 20:23:30.455518  2246 net.cpp:382] pool1 -> pool1
I0428 20:23:30.455565  2246 net.cpp:124] Setting up pool1
I0428 20:23:30.455570  2246 net.cpp:131] Top shape: 64 100 4 4 (102400)
I0428 20:23:30.455574  2246 net.cpp:139] Memory required for data: 11464960
I0428 20:23:30.455576  2246 layer_factory.hpp:77] Creating layer ip1
I0428 20:23:30.455582  2246 net.cpp:86] Creating Layer ip1
I0428 20:23:30.455585  2246 net.cpp:408] ip1 <- pool1
I0428 20:23:30.455590  2246 net.cpp:382] ip1 -> ip1
I0428 20:23:30.456552  2246 net.cpp:124] Setting up ip1
I0428 20:23:30.456563  2246 net.cpp:131] Top shape: 64 10 (640)
I0428 20:23:30.456567  2246 net.cpp:139] Memory required for data: 11467520
I0428 20:23:30.456573  2246 layer_factory.hpp:77] Creating layer relu1
I0428 20:23:30.456578  2246 net.cpp:86] Creating Layer relu1
I0428 20:23:30.456581  2246 net.cpp:408] relu1 <- ip1
I0428 20:23:30.456585  2246 net.cpp:369] relu1 -> ip1 (in-place)
I0428 20:23:30.456769  2246 net.cpp:124] Setting up relu1
I0428 20:23:30.456779  2246 net.cpp:131] Top shape: 64 10 (640)
I0428 20:23:30.456784  2246 net.cpp:139] Memory required for data: 11470080
I0428 20:23:30.456789  2246 layer_factory.hpp:77] Creating layer ip2
I0428 20:23:30.456797  2246 net.cpp:86] Creating Layer ip2
I0428 20:23:30.456801  2246 net.cpp:408] ip2 <- ip1
I0428 20:23:30.456806  2246 net.cpp:382] ip2 -> ip2
I0428 20:23:30.456940  2246 net.cpp:124] Setting up ip2
I0428 20:23:30.456949  2246 net.cpp:131] Top shape: 64 50 (3200)
I0428 20:23:30.456953  2246 net.cpp:139] Memory required for data: 11482880
I0428 20:23:30.456959  2246 layer_factory.hpp:77] Creating layer relu2
I0428 20:23:30.456964  2246 net.cpp:86] Creating Layer relu2
I0428 20:23:30.456967  2246 net.cpp:408] relu2 <- ip2
I0428 20:23:30.456971  2246 net.cpp:369] relu2 -> ip2 (in-place)
I0428 20:23:30.457693  2246 net.cpp:124] Setting up relu2
I0428 20:23:30.457705  2246 net.cpp:131] Top shape: 64 50 (3200)
I0428 20:23:30.457708  2246 net.cpp:139] Memory required for data: 11495680
I0428 20:23:30.457711  2246 layer_factory.hpp:77] Creating layer ip3
I0428 20:23:30.457718  2246 net.cpp:86] Creating Layer ip3
I0428 20:23:30.457721  2246 net.cpp:408] ip3 <- ip2
I0428 20:23:30.457726  2246 net.cpp:382] ip3 -> ip3
I0428 20:23:30.457839  2246 net.cpp:124] Setting up ip3
I0428 20:23:30.457846  2246 net.cpp:131] Top shape: 64 10 (640)
I0428 20:23:30.457849  2246 net.cpp:139] Memory required for data: 11498240
I0428 20:23:30.457857  2246 layer_factory.hpp:77] Creating layer relu3
I0428 20:23:30.457861  2246 net.cpp:86] Creating Layer relu3
I0428 20:23:30.457864  2246 net.cpp:408] relu3 <- ip3
I0428 20:23:30.457870  2246 net.cpp:369] relu3 -> ip3 (in-place)
I0428 20:23:30.458024  2246 net.cpp:124] Setting up relu3
I0428 20:23:30.458031  2246 net.cpp:131] Top shape: 64 10 (640)
I0428 20:23:30.458034  2246 net.cpp:139] Memory required for data: 11500800
I0428 20:23:30.458037  2246 layer_factory.hpp:77] Creating layer loss
I0428 20:23:30.458043  2246 net.cpp:86] Creating Layer loss
I0428 20:23:30.458060  2246 net.cpp:408] loss <- ip3
I0428 20:23:30.458065  2246 net.cpp:408] loss <- label
I0428 20:23:30.458070  2246 net.cpp:382] loss -> loss
I0428 20:23:30.458086  2246 layer_factory.hpp:77] Creating layer loss
…
I0428 20:23:30.458688  2246 solver.cpp:173] Creating test net (#0) specified by net file: ECE595/mnist/train_test/var_everything2/lenet_train_test1422.prototxt
I0428 20:23:30.458712  2246 net.cpp:296] The NetState phase (1) differed from the phase (0) specified by a rule in layer mnist
I0428 20:23:30.458797  2246 net.cpp:53] Initializing net from parameters: 
name: "LeNet"
state {
  phase: TEST
}
layer {
  name: "mnist"
  type: "Data"
  top: "data"
  top: "label"
  include {
    phase: TEST
  }
  transform_param {
    scale: 0.00390625
  }
  data_param {
    source: "examples/mnist/mnist_test_lmdb"
    batch_size: 100
    backend: LMDB
  }
}
layer {
  name: "conv0"
  type: "Convolution"
  bottom: "data"
  top: "conv0"
  param {
    lr_mult: 1
  }
  param {
    lr_mult: 2
  }
  convolution_param {
    num_output: 50
    kernel_size: 5
    stride: 1
    weight_filler {
      type: "xavier"
    }
    bias_filler {
      type: "constant"
    }
  }
}
layer {
  name: "pool0"
  type: "Pooling"
  bottom: "conv0"
  top: "pool0"
  pooling_param {
    pool: MAX
    kernel_size: 2
    stride: 2
  }
}
layer {
  name: "conv1"
  type: "Convolution"
  bottom: "pool0"
  top: "conv1"
  param {
    lr_mult: 1
  }
  param {
    lr_mult: 2
  }
  convolution_param {
    num_output: 100
    kernel_size: 5
    stride: 1
    weight_filler {
      type: "xavier"
    }
    bias_filler {
      type: "constant"
    }
  }
}
layer {
  name: "pool1"
  type: "Pooling"
  bottom: "conv1"
  top: "pool1"
  pooling_param {
    pool: MAX
    kernel_size: 2
    stride: 2
  }
}
layer {
  name: "ip1"
  type: "InnerProduct"
  bottom: "pool1"
  top: "ip1"
  param {
    lr_mult: 1
  }
  param {
    lr_mult: 2
  }
  inner_product_param {
    num_output: 10
    weight_filler {
      type: "xavier"
    }
    bias_filler {
      type: "constant"
    }
  }
}
layer {
  name: "relu1"
  type: "ReLU"
  bottom: "ip1"
  top: "ip1"
}
layer {
  name: "ip2"
  type: "InnerProduct"
  bottom: "ip1"
  top: "ip2"
  param {
    lr_mult: 1
  }
  param {
    lr_mult: 2
  }
  inner_product_param {
    num_output: 50
    weight_filler {
      type: "xavier"
    }
    bias_filler {
      type: "constant"
    }
  }
}
layer {
  name: "relu2"
  type: "ReLU"
  bottom: "ip2"
  top: "ip2"
}
layer {
  name: "ip3"
  type: "InnerProduct"
  bottom: "ip2"
  top: "ip3"
  param {
    lr_mult: 1
  }
  param {
    lr_mult: 2
  }
  inner_product_param {
    num_output: 10
    weight_filler {
      type: "xavier"
    }
    bias_filler {
      type: "constant"
    }
  }
}
layer {
  name: "relu3"
  type: "ReLU"
  bottom: "ip3"
  top: "ip3"
}
layer {
  name: "accuracy"
  type: "Accuracy"
  bottom: "ip3"
  bottom: "label"
  top: "accuracy"
  include {
    phase: TEST
  }
}
layer {
  name: "loss"
  type: "SoftmaxWithLoss"
  bottom: "ip3"
  bottom: "label"
  top: "loss"
}
I0428 20:23:30.458869  2246 layer_factory.hpp:77] Creating layer mnist
I0428 20:23:30.458910  2246 db_lmdb.cpp:35] Opened lmdb examples/mnist/mnist_test_lmdb
I0428 20:23:30.458921  2246 net.cpp:86] Creating Layer mnist
I0428 20:23:30.458925  2246 net.cpp:382] mnist -> data
I0428 20:23:30.458932  2246 net.cpp:382] mnist -> label
I0428 20:23:30.459012  2246 data_layer.cpp:45] output data size: 100,1,28,28
I0428 20:23:30.460059  2246 net.cpp:124] Setting up mnist
I0428 20:23:30.460085  2246 net.cpp:131] Top shape: 100 1 28 28 (78400)
I0428 20:23:30.460089  2246 net.cpp:131] Top shape: 100 (100)
I0428 20:23:30.460093  2246 net.cpp:139] Memory required for data: 314000
I0428 20:23:30.460096  2246 layer_factory.hpp:77] Creating layer label_mnist_1_split
I0428 20:23:30.460119  2246 net.cpp:86] Creating Layer label_mnist_1_split
I0428 20:23:30.460122  2246 net.cpp:408] label_mnist_1_split <- label
I0428 20:23:30.460126  2246 net.cpp:382] label_mnist_1_split -> label_mnist_1_split_0
I0428 20:23:30.460132  2246 net.cpp:382] label_mnist_1_split -> label_mnist_1_split_1
I0428 20:23:30.460171  2246 net.cpp:124] Setting up label_mnist_1_split
I0428 20:23:30.460176  2246 net.cpp:131] Top shape: 100 (100)
I0428 20:23:30.460180  2246 net.cpp:131] Top shape: 100 (100)
I0428 20:23:30.460182  2246 net.cpp:139] Memory required for data: 314800
I0428 20:23:30.460186  2246 layer_factory.hpp:77] Creating layer conv0
I0428 20:23:30.460193  2246 net.cpp:86] Creating Layer conv0
I0428 20:23:30.460196  2246 net.cpp:408] conv0 <- data
I0428 20:23:30.460201  2246 net.cpp:382] conv0 -> conv0
I0428 20:23:30.461897  2246 net.cpp:124] Setting up conv0
I0428 20:23:30.461911  2246 net.cpp:131] Top shape: 100 50 24 24 (2880000)
I0428 20:23:30.461915  2246 net.cpp:139] Memory required for data: 11834800
I0428 20:23:30.461923  2246 layer_factory.hpp:77] Creating layer pool0
I0428 20:23:30.461930  2246 net.cpp:86] Creating Layer pool0
I0428 20:23:30.461932  2246 net.cpp:408] pool0 <- conv0
I0428 20:23:30.461937  2246 net.cpp:382] pool0 -> pool0
I0428 20:23:30.461985  2246 net.cpp:124] Setting up pool0
I0428 20:23:30.461990  2246 net.cpp:131] Top shape: 100 50 12 12 (720000)
I0428 20:23:30.461993  2246 net.cpp:139] Memory required for data: 14714800
I0428 20:23:30.461997  2246 layer_factory.hpp:77] Creating layer conv1
I0428 20:23:30.462003  2246 net.cpp:86] Creating Layer conv1
I0428 20:23:30.462007  2246 net.cpp:408] conv1 <- pool0
I0428 20:23:30.462011  2246 net.cpp:382] conv1 -> conv1
I0428 20:23:30.465301  2246 net.cpp:124] Setting up conv1
I0428 20:23:30.465330  2246 net.cpp:131] Top shape: 100 100 8 8 (640000)
I0428 20:23:30.465334  2246 net.cpp:139] Memory required for data: 17274800
I0428 20:23:30.465343  2246 layer_factory.hpp:77] Creating layer pool1
I0428 20:23:30.465361  2246 net.cpp:86] Creating Layer pool1
I0428 20:23:30.465365  2246 net.cpp:408] pool1 <- conv1
I0428 20:23:30.465370  2246 net.cpp:382] pool1 -> pool1
I0428 20:23:30.465406  2246 net.cpp:124] Setting up pool1
I0428 20:23:30.465412  2246 net.cpp:131] Top shape: 100 100 4 4 (160000)
I0428 20:23:30.465415  2246 net.cpp:139] Memory required for data: 17914800
I0428 20:23:30.465418  2246 layer_factory.hpp:77] Creating layer ip1
I0428 20:23:30.465425  2246 net.cpp:86] Creating Layer ip1
I0428 20:23:30.465428  2246 net.cpp:408] ip1 <- pool1
I0428 20:23:30.465432  2246 net.cpp:382] ip1 -> ip1
I0428 20:23:30.465610  2246 net.cpp:124] Setting up ip1
I0428 20:23:30.465628  2246 net.cpp:131] Top shape: 100 10 (1000)
I0428 20:23:30.465631  2246 net.cpp:139] Memory required for data: 17918800
I0428 20:23:30.465639  2246 layer_factory.hpp:77] Creating layer relu1
I0428 20:23:30.465667  2246 net.cpp:86] Creating Layer relu1
I0428 20:23:30.465670  2246 net.cpp:408] relu1 <- ip1
I0428 20:23:30.465689  2246 net.cpp:369] relu1 -> ip1 (in-place)
I0428 20:23:30.465838  2246 net.cpp:124] Setting up relu1
I0428 20:23:30.465847  2246 net.cpp:131] Top shape: 100 10 (1000)
I0428 20:23:30.465849  2246 net.cpp:139] Memory required for data: 17922800
I0428 20:23:30.465857  2246 layer_factory.hpp:77] Creating layer ip2
I0428 20:23:30.465864  2246 net.cpp:86] Creating Layer ip2
I0428 20:23:30.465867  2246 net.cpp:408] ip2 <- ip1
I0428 20:23:30.465878  2246 net.cpp:382] ip2 -> ip2
I0428 20:23:30.465975  2246 net.cpp:124] Setting up ip2
I0428 20:23:30.465981  2246 net.cpp:131] Top shape: 100 50 (5000)
I0428 20:23:30.465984  2246 net.cpp:139] Memory required for data: 17942800
I0428 20:23:30.465989  2246 layer_factory.hpp:77] Creating layer relu2
I0428 20:23:30.465993  2246 net.cpp:86] Creating Layer relu2
I0428 20:23:30.465996  2246 net.cpp:408] relu2 <- ip2
I0428 20:23:30.466001  2246 net.cpp:369] relu2 -> ip2 (in-place)
I0428 20:23:30.466197  2246 net.cpp:124] Setting up relu2
I0428 20:23:30.466204  2246 net.cpp:131] Top shape: 100 50 (5000)
I0428 20:23:30.466212  2246 net.cpp:139] Memory required for data: 17962800
I0428 20:23:30.466215  2246 layer_factory.hpp:77] Creating layer ip3
I0428 20:23:30.466222  2246 net.cpp:86] Creating Layer ip3
I0428 20:23:30.466224  2246 net.cpp:408] ip3 <- ip2
I0428 20:23:30.466229  2246 net.cpp:382] ip3 -> ip3
I0428 20:23:30.466351  2246 net.cpp:124] Setting up ip3
I0428 20:23:30.466359  2246 net.cpp:131] Top shape: 100 10 (1000)
I0428 20:23:30.466367  2246 net.cpp:139] Memory required for data: 17966800
I0428 20:23:30.466374  2246 layer_factory.hpp:77] Creating layer relu3
I0428 20:23:30.466378  2246 net.cpp:86] Creating Layer relu3
I0428 20:23:30.466389  2246 net.cpp:408] relu3 <- ip3
I0428 20:23:30.466393  2246 net.cpp:369] relu3 -> ip3 (in-place)
I0428 20:23:30.467116  2246 net.cpp:124] Setting up relu3
I0428 20:23:30.467128  2246 net.cpp:131] Top shape: 100 10 (1000)
I0428 20:23:30.467131  2246 net.cpp:139] Memory required for data: 17970800
I0428 20:23:30.467134  2246 layer_factory.hpp:77] Creating layer ip3_relu3_0_split
I0428 20:23:30.467141  2246 net.cpp:86] Creating Layer ip3_relu3_0_split
I0428 20:23:30.467144  2246 net.cpp:408] ip3_relu3_0_split <- ip3
I0428 20:23:30.467149  2246 net.cpp:382] ip3_relu3_0_split -> ip3_relu3_0_split_0
I0428 20:23:30.467156  2246 net.cpp:382] ip3_relu3_0_split -> ip3_relu3_0_split_1
I0428 20:23:30.467196  2246 net.cpp:124] Setting up ip3_relu3_0_split
I0428 20:23:30.467201  2246 net.cpp:131] Top shape: 100 10 (1000)
I0428 20:23:30.467206  2246 net.cpp:131] Top shape: 100 10 (1000)
I0428 20:23:30.467208  2246 net.cpp:139] Memory required for data: 17978800
I0428 20:23:30.467211  2246 layer_factory.hpp:77] Creating layer accuracy
I0428 20:23:30.467218  2246 net.cpp:86] Creating Layer accuracy
I0428 20:23:30.467221  2246 net.cpp:408] accuracy <- ip3_relu3_0_split_0
I0428 20:23:30.467224  2246 net.cpp:408] accuracy <- label_mnist_1_split_0
I0428 20:23:30.467228  2246 net.cpp:382] accuracy -> accuracy
…
