…
I0428 19:37:10.383232 23780 net.cpp:296] The NetState phase (0) differed from the phase (1) specified by a rule in layer mnist
I0428 19:37:10.383265 23780 net.cpp:296] The NetState phase (0) differed from the phase (1) specified by a rule in layer accuracy
I0428 19:37:10.383343 23780 net.cpp:53] Initializing net from parameters: 
name: "LeNet"
state {
  phase: TRAIN
  level: 0
  stage: ""
}
layer {
  name: "mnist"
  type: "Data"
  top: "data"
  top: "label"
  include {
    phase: TRAIN
  }
  transform_param {
    scale: 0.00390625
  }
  data_param {
    source: "examples/mnist/mnist_train_lmdb"
    batch_size: 64
    backend: LMDB
  }
}
layer {
  name: "conv0"
  type: "Convolution"
  bottom: "data"
  top: "conv0"
  param {
    lr_mult: 1
  }
  param {
    lr_mult: 2
  }
  convolution_param {
    num_output: 100
    kernel_size: 5
    stride: 1
    weight_filler {
      type: "xavier"
    }
    bias_filler {
      type: "constant"
    }
  }
}
layer {
  name: "pool0"
  type: "Pooling"
  bottom: "conv0"
  top: "pool0"
  pooling_param {
    pool: MAX
    kernel_size: 2
    stride: 2
  }
}
layer {
  name: "ip1"
  type: "InnerProduct"
  bottom: "pool0"
  top: "ip1"
  param {
    lr_mult: 1
  }
  param {
    lr_mult: 2
  }
  inner_product_param {
    num_output: 10
    weight_filler {
      type: "xavier"
    }
    bias_filler {
      type: "constant"
    }
  }
}
layer {
  name: "relu1"
  type: "ReLU"
  bottom: "ip1"
  top: "ip1"
}
layer {
  name: "ip2"
  type: "InnerProduct"
  bottom: "ip1"
  top: "ip2"
  param {
    lr_mult: 1
  }
  param {
    lr_mult: 2
  }
  inner_product_param {
    num_output: 50
    weight_filler {
      type: "xavier"
    }
    bias_filler {
      type: "constant"
    }
  }
}
layer {
  name: "relu2"
  type: "ReLU"
  bottom: "ip2"
  top: "ip2"
}
layer {
  name: "ip3"
  type: "InnerProduct"
  bottom: "ip2"
  top: "ip3"
  param {
    lr_mult: 1
  }
  param {
    lr_mult: 2
  }
  inner_product_param {
    num_output: 10
    weight_filler {
      type: "xavier"
    }
    bias_filler {
      type: "constant"
    }
  }
}
layer {
  name: "relu3"
  type: "ReLU"
  bottom: "ip3"
  top: "ip3"
}
layer {
  name: "loss"
  type: "SoftmaxWithLoss"
  bottom: "ip3"
  bottom: "label"
  top: "loss"
}
I0428 19:37:10.383430 23780 layer_factory.hpp:77] Creating layer mnist
I0428 19:37:10.383533 23780 db_lmdb.cpp:35] Opened lmdb examples/mnist/mnist_train_lmdb
I0428 19:37:10.383558 23780 net.cpp:86] Creating Layer mnist
I0428 19:37:10.383581 23780 net.cpp:382] mnist -> data
I0428 19:37:10.383607 23780 net.cpp:382] mnist -> label
I0428 19:37:10.384690 23780 data_layer.cpp:45] output data size: 64,1,28,28
I0428 19:37:10.386975 23780 net.cpp:124] Setting up mnist
I0428 19:37:10.387007 23780 net.cpp:131] Top shape: 64 1 28 28 (50176)
I0428 19:37:10.387014 23780 net.cpp:131] Top shape: 64 (64)
I0428 19:37:10.387019 23780 net.cpp:139] Memory required for data: 200960
I0428 19:37:10.387027 23780 layer_factory.hpp:77] Creating layer conv0
I0428 19:37:10.387063 23780 net.cpp:86] Creating Layer conv0
I0428 19:37:10.387070 23780 net.cpp:408] conv0 <- data
I0428 19:37:10.387085 23780 net.cpp:382] conv0 -> conv0
I0428 19:37:10.620352 23780 net.cpp:124] Setting up conv0
I0428 19:37:10.620380 23780 net.cpp:131] Top shape: 64 100 24 24 (3686400)
I0428 19:37:10.620386 23780 net.cpp:139] Memory required for data: 14946560
I0428 19:37:10.620421 23780 layer_factory.hpp:77] Creating layer pool0
I0428 19:37:10.620452 23780 net.cpp:86] Creating Layer pool0
I0428 19:37:10.620479 23780 net.cpp:408] pool0 <- conv0
I0428 19:37:10.620489 23780 net.cpp:382] pool0 -> pool0
I0428 19:37:10.620544 23780 net.cpp:124] Setting up pool0
I0428 19:37:10.620553 23780 net.cpp:131] Top shape: 64 100 12 12 (921600)
I0428 19:37:10.620558 23780 net.cpp:139] Memory required for data: 18632960
I0428 19:37:10.620563 23780 layer_factory.hpp:77] Creating layer ip1
I0428 19:37:10.620573 23780 net.cpp:86] Creating Layer ip1
I0428 19:37:10.620579 23780 net.cpp:408] ip1 <- pool0
I0428 19:37:10.620586 23780 net.cpp:382] ip1 -> ip1
I0428 19:37:10.622413 23780 net.cpp:124] Setting up ip1
I0428 19:37:10.622428 23780 net.cpp:131] Top shape: 64 10 (640)
I0428 19:37:10.622434 23780 net.cpp:139] Memory required for data: 18635520
I0428 19:37:10.622448 23780 layer_factory.hpp:77] Creating layer relu1
I0428 19:37:10.622458 23780 net.cpp:86] Creating Layer relu1
I0428 19:37:10.622470 23780 net.cpp:408] relu1 <- ip1
I0428 19:37:10.622478 23780 net.cpp:369] relu1 -> ip1 (in-place)
I0428 19:37:10.622663 23780 net.cpp:124] Setting up relu1
I0428 19:37:10.622673 23780 net.cpp:131] Top shape: 64 10 (640)
I0428 19:37:10.622678 23780 net.cpp:139] Memory required for data: 18638080
I0428 19:37:10.622684 23780 layer_factory.hpp:77] Creating layer ip2
I0428 19:37:10.622694 23780 net.cpp:86] Creating Layer ip2
I0428 19:37:10.622699 23780 net.cpp:408] ip2 <- ip1
I0428 19:37:10.622707 23780 net.cpp:382] ip2 -> ip2
I0428 19:37:10.622807 23780 net.cpp:124] Setting up ip2
I0428 19:37:10.622817 23780 net.cpp:131] Top shape: 64 50 (3200)
I0428 19:37:10.622822 23780 net.cpp:139] Memory required for data: 18650880
I0428 19:37:10.622833 23780 layer_factory.hpp:77] Creating layer relu2
I0428 19:37:10.622844 23780 net.cpp:86] Creating Layer relu2
I0428 19:37:10.622853 23780 net.cpp:408] relu2 <- ip2
I0428 19:37:10.622860 23780 net.cpp:369] relu2 -> ip2 (in-place)
I0428 19:37:10.623618 23780 net.cpp:124] Setting up relu2
I0428 19:37:10.623632 23780 net.cpp:131] Top shape: 64 50 (3200)
I0428 19:37:10.623637 23780 net.cpp:139] Memory required for data: 18663680
I0428 19:37:10.623643 23780 layer_factory.hpp:77] Creating layer ip3
I0428 19:37:10.623653 23780 net.cpp:86] Creating Layer ip3
I0428 19:37:10.623659 23780 net.cpp:408] ip3 <- ip2
I0428 19:37:10.623668 23780 net.cpp:382] ip3 -> ip3
I0428 19:37:10.623805 23780 net.cpp:124] Setting up ip3
I0428 19:37:10.623814 23780 net.cpp:131] Top shape: 64 10 (640)
I0428 19:37:10.623819 23780 net.cpp:139] Memory required for data: 18666240
I0428 19:37:10.623829 23780 layer_factory.hpp:77] Creating layer relu3
I0428 19:37:10.623838 23780 net.cpp:86] Creating Layer relu3
I0428 19:37:10.623845 23780 net.cpp:408] relu3 <- ip3
I0428 19:37:10.623852 23780 net.cpp:369] relu3 -> ip3 (in-place)
I0428 19:37:10.624006 23780 net.cpp:124] Setting up relu3
I0428 19:37:10.624016 23780 net.cpp:131] Top shape: 64 10 (640)
I0428 19:37:10.624020 23780 net.cpp:139] Memory required for data: 18668800
I0428 19:37:10.624039 23780 layer_factory.hpp:77] Creating layer loss
I0428 19:37:10.624048 23780 net.cpp:86] Creating Layer loss
I0428 19:37:10.624053 23780 net.cpp:408] loss <- ip3
I0428 19:37:10.624060 23780 net.cpp:408] loss <- label
I0428 19:37:10.624068 23780 net.cpp:382] loss -> loss
I0428 19:37:10.624090 23780 layer_factory.hpp:77] Creating layer loss
…
I0428 19:37:10.624760 23780 solver.cpp:173] Creating test net (#0) specified by net file: ECE595/mnist/train_test/var_everything2/lenet_train_test254.prototxt
I0428 19:37:10.624792 23780 net.cpp:296] The NetState phase (1) differed from the phase (0) specified by a rule in layer mnist
I0428 19:37:10.624949 23780 net.cpp:53] Initializing net from parameters: 
name: "LeNet"
state {
  phase: TEST
}
layer {
  name: "mnist"
  type: "Data"
  top: "data"
  top: "label"
  include {
    phase: TEST
  }
  transform_param {
    scale: 0.00390625
  }
  data_param {
    source: "examples/mnist/mnist_test_lmdb"
    batch_size: 100
    backend: LMDB
  }
}
layer {
  name: "conv0"
  type: "Convolution"
  bottom: "data"
  top: "conv0"
  param {
    lr_mult: 1
  }
  param {
    lr_mult: 2
  }
  convolution_param {
    num_output: 100
    kernel_size: 5
    stride: 1
    weight_filler {
      type: "xavier"
    }
    bias_filler {
      type: "constant"
    }
  }
}
layer {
  name: "pool0"
  type: "Pooling"
  bottom: "conv0"
  top: "pool0"
  pooling_param {
    pool: MAX
    kernel_size: 2
    stride: 2
  }
}
layer {
  name: "ip1"
  type: "InnerProduct"
  bottom: "pool0"
  top: "ip1"
  param {
    lr_mult: 1
  }
  param {
    lr_mult: 2
  }
  inner_product_param {
    num_output: 10
    weight_filler {
      type: "xavier"
    }
    bias_filler {
      type: "constant"
    }
  }
}
layer {
  name: "relu1"
  type: "ReLU"
  bottom: "ip1"
  top: "ip1"
}
layer {
  name: "ip2"
  type: "InnerProduct"
  bottom: "ip1"
  top: "ip2"
  param {
    lr_mult: 1
  }
  param {
    lr_mult: 2
  }
  inner_product_param {
    num_output: 50
    weight_filler {
      type: "xavier"
    }
    bias_filler {
      type: "constant"
    }
  }
}
layer {
  name: "relu2"
  type: "ReLU"
  bottom: "ip2"
  top: "ip2"
}
layer {
  name: "ip3"
  type: "InnerProduct"
  bottom: "ip2"
  top: "ip3"
  param {
    lr_mult: 1
  }
  param {
    lr_mult: 2
  }
  inner_product_param {
    num_output: 10
    weight_filler {
      type: "xavier"
    }
    bias_filler {
      type: "constant"
    }
  }
}
layer {
  name: "relu3"
  type: "ReLU"
  bottom: "ip3"
  top: "ip3"
}
layer {
  name: "accuracy"
  type: "Accuracy"
  bottom: "ip3"
  bottom: "label"
  top: "accuracy"
  include {
    phase: TEST
  }
}
layer {
  name: "loss"
  type: "SoftmaxWithLoss"
  bottom: "ip3"
  bottom: "label"
  top: "loss"
}
I0428 19:37:10.625072 23780 layer_factory.hpp:77] Creating layer mnist
I0428 19:37:10.625133 23780 db_lmdb.cpp:35] Opened lmdb examples/mnist/mnist_test_lmdb
I0428 19:37:10.625164 23780 net.cpp:86] Creating Layer mnist
I0428 19:37:10.625174 23780 net.cpp:382] mnist -> data
I0428 19:37:10.625185 23780 net.cpp:382] mnist -> label
I0428 19:37:10.625320 23780 data_layer.cpp:45] output data size: 100,1,28,28
I0428 19:37:10.626510 23780 net.cpp:124] Setting up mnist
I0428 19:37:10.626524 23780 net.cpp:131] Top shape: 100 1 28 28 (78400)
I0428 19:37:10.626534 23780 net.cpp:131] Top shape: 100 (100)
I0428 19:37:10.626539 23780 net.cpp:139] Memory required for data: 314000
I0428 19:37:10.626545 23780 layer_factory.hpp:77] Creating layer label_mnist_1_split
I0428 19:37:10.626559 23780 net.cpp:86] Creating Layer label_mnist_1_split
I0428 19:37:10.626565 23780 net.cpp:408] label_mnist_1_split <- label
I0428 19:37:10.626587 23780 net.cpp:382] label_mnist_1_split -> label_mnist_1_split_0
I0428 19:37:10.626597 23780 net.cpp:382] label_mnist_1_split -> label_mnist_1_split_1
I0428 19:37:10.626668 23780 net.cpp:124] Setting up label_mnist_1_split
I0428 19:37:10.626677 23780 net.cpp:131] Top shape: 100 (100)
I0428 19:37:10.626684 23780 net.cpp:131] Top shape: 100 (100)
I0428 19:37:10.626688 23780 net.cpp:139] Memory required for data: 314800
I0428 19:37:10.626721 23780 layer_factory.hpp:77] Creating layer conv0
I0428 19:37:10.626736 23780 net.cpp:86] Creating Layer conv0
I0428 19:37:10.626742 23780 net.cpp:408] conv0 <- data
I0428 19:37:10.626754 23780 net.cpp:382] conv0 -> conv0
I0428 19:37:10.628393 23780 net.cpp:124] Setting up conv0
I0428 19:37:10.628407 23780 net.cpp:131] Top shape: 100 100 24 24 (5760000)
I0428 19:37:10.628413 23780 net.cpp:139] Memory required for data: 23354800
I0428 19:37:10.628442 23780 layer_factory.hpp:77] Creating layer pool0
I0428 19:37:10.628468 23780 net.cpp:86] Creating Layer pool0
I0428 19:37:10.628474 23780 net.cpp:408] pool0 <- conv0
I0428 19:37:10.628481 23780 net.cpp:382] pool0 -> pool0
I0428 19:37:10.628522 23780 net.cpp:124] Setting up pool0
I0428 19:37:10.628530 23780 net.cpp:131] Top shape: 100 100 12 12 (1440000)
I0428 19:37:10.628535 23780 net.cpp:139] Memory required for data: 29114800
I0428 19:37:10.628540 23780 layer_factory.hpp:77] Creating layer ip1
I0428 19:37:10.628549 23780 net.cpp:86] Creating Layer ip1
I0428 19:37:10.628554 23780 net.cpp:408] ip1 <- pool0
I0428 19:37:10.628563 23780 net.cpp:382] ip1 -> ip1
I0428 19:37:10.630450 23780 net.cpp:124] Setting up ip1
I0428 19:37:10.630465 23780 net.cpp:131] Top shape: 100 10 (1000)
I0428 19:37:10.630470 23780 net.cpp:139] Memory required for data: 29118800
I0428 19:37:10.630486 23780 layer_factory.hpp:77] Creating layer relu1
I0428 19:37:10.630494 23780 net.cpp:86] Creating Layer relu1
I0428 19:37:10.630501 23780 net.cpp:408] relu1 <- ip1
I0428 19:37:10.630520 23780 net.cpp:369] relu1 -> ip1 (in-place)
I0428 19:37:10.630787 23780 net.cpp:124] Setting up relu1
I0428 19:37:10.630798 23780 net.cpp:131] Top shape: 100 10 (1000)
I0428 19:37:10.630803 23780 net.cpp:139] Memory required for data: 29122800
I0428 19:37:10.630808 23780 layer_factory.hpp:77] Creating layer ip2
I0428 19:37:10.630820 23780 net.cpp:86] Creating Layer ip2
I0428 19:37:10.630825 23780 net.cpp:408] ip2 <- ip1
I0428 19:37:10.630832 23780 net.cpp:382] ip2 -> ip2
I0428 19:37:10.630949 23780 net.cpp:124] Setting up ip2
I0428 19:37:10.630957 23780 net.cpp:131] Top shape: 100 50 (5000)
I0428 19:37:10.630962 23780 net.cpp:139] Memory required for data: 29142800
I0428 19:37:10.630990 23780 layer_factory.hpp:77] Creating layer relu2
I0428 19:37:10.631003 23780 net.cpp:86] Creating Layer relu2
I0428 19:37:10.631009 23780 net.cpp:408] relu2 <- ip2
I0428 19:37:10.631017 23780 net.cpp:369] relu2 -> ip2 (in-place)
I0428 19:37:10.631912 23780 net.cpp:124] Setting up relu2
I0428 19:37:10.631942 23780 net.cpp:131] Top shape: 100 50 (5000)
I0428 19:37:10.631947 23780 net.cpp:139] Memory required for data: 29162800
I0428 19:37:10.631953 23780 layer_factory.hpp:77] Creating layer ip3
I0428 19:37:10.631964 23780 net.cpp:86] Creating Layer ip3
I0428 19:37:10.631970 23780 net.cpp:408] ip3 <- ip2
I0428 19:37:10.631980 23780 net.cpp:382] ip3 -> ip3
I0428 19:37:10.632097 23780 net.cpp:124] Setting up ip3
I0428 19:37:10.632105 23780 net.cpp:131] Top shape: 100 10 (1000)
I0428 19:37:10.632128 23780 net.cpp:139] Memory required for data: 29166800
I0428 19:37:10.632146 23780 layer_factory.hpp:77] Creating layer relu3
I0428 19:37:10.632156 23780 net.cpp:86] Creating Layer relu3
I0428 19:37:10.632163 23780 net.cpp:408] relu3 <- ip3
I0428 19:37:10.632169 23780 net.cpp:369] relu3 -> ip3 (in-place)
I0428 19:37:10.632380 23780 net.cpp:124] Setting up relu3
I0428 19:37:10.632406 23780 net.cpp:131] Top shape: 100 10 (1000)
I0428 19:37:10.632411 23780 net.cpp:139] Memory required for data: 29170800
I0428 19:37:10.632417 23780 layer_factory.hpp:77] Creating layer ip3_relu3_0_split
I0428 19:37:10.632426 23780 net.cpp:86] Creating Layer ip3_relu3_0_split
I0428 19:37:10.632431 23780 net.cpp:408] ip3_relu3_0_split <- ip3
I0428 19:37:10.632441 23780 net.cpp:382] ip3_relu3_0_split -> ip3_relu3_0_split_0
I0428 19:37:10.632450 23780 net.cpp:382] ip3_relu3_0_split -> ip3_relu3_0_split_1
I0428 19:37:10.632494 23780 net.cpp:124] Setting up ip3_relu3_0_split
I0428 19:37:10.632521 23780 net.cpp:131] Top shape: 100 10 (1000)
I0428 19:37:10.632555 23780 net.cpp:131] Top shape: 100 10 (1000)
I0428 19:37:10.632560 23780 net.cpp:139] Memory required for data: 29178800
I0428 19:37:10.632565 23780 layer_factory.hpp:77] Creating layer accuracy
I0428 19:37:10.632575 23780 net.cpp:86] Creating Layer accuracy
I0428 19:37:10.632580 23780 net.cpp:408] accuracy <- ip3_relu3_0_split_0
I0428 19:37:10.632594 23780 net.cpp:408] accuracy <- label_mnist_1_split_0
I0428 19:37:10.632602 23780 net.cpp:382] accuracy -> accuracy
…
