…
I0428 20:12:20.617226 32236 net.cpp:296] The NetState phase (0) differed from the phase (1) specified by a rule in layer mnist
I0428 20:12:20.617257 32236 net.cpp:296] The NetState phase (0) differed from the phase (1) specified by a rule in layer accuracy
I0428 20:12:20.617333 32236 net.cpp:53] Initializing net from parameters: 
name: "LeNet"
state {
  phase: TRAIN
  level: 0
  stage: ""
}
layer {
  name: "mnist"
  type: "Data"
  top: "data"
  top: "label"
  include {
    phase: TRAIN
  }
  transform_param {
    scale: 0.00390625
  }
  data_param {
    source: "examples/mnist/mnist_train_lmdb"
    batch_size: 64
    backend: LMDB
  }
}
layer {
  name: "conv0"
  type: "Convolution"
  bottom: "data"
  top: "conv0"
  param {
    lr_mult: 1
  }
  param {
    lr_mult: 2
  }
  convolution_param {
    num_output: 25
    kernel_size: 5
    stride: 1
    weight_filler {
      type: "xavier"
    }
    bias_filler {
      type: "constant"
    }
  }
}
layer {
  name: "pool0"
  type: "Pooling"
  bottom: "conv0"
  top: "pool0"
  pooling_param {
    pool: MAX
    kernel_size: 2
    stride: 2
  }
}
layer {
  name: "conv1"
  type: "Convolution"
  bottom: "pool0"
  top: "conv1"
  param {
    lr_mult: 1
  }
  param {
    lr_mult: 2
  }
  convolution_param {
    num_output: 100
    kernel_size: 5
    stride: 1
    weight_filler {
      type: "xavier"
    }
    bias_filler {
      type: "constant"
    }
  }
}
layer {
  name: "pool1"
  type: "Pooling"
  bottom: "conv1"
  top: "pool1"
  pooling_param {
    pool: MAX
    kernel_size: 2
    stride: 2
  }
}
layer {
  name: "ip1"
  type: "InnerProduct"
  bottom: "pool1"
  top: "ip1"
  param {
    lr_mult: 1
  }
  param {
    lr_mult: 2
  }
  inner_product_param {
    num_output: 25
    weight_filler {
      type: "xavier"
    }
    bias_filler {
      type: "constant"
    }
  }
}
layer {
  name: "relu1"
  type: "ReLU"
  bottom: "ip1"
  top: "ip1"
}
layer {
  name: "ip2"
  type: "InnerProduct"
  bottom: "ip1"
  top: "ip2"
  param {
    lr_mult: 1
  }
  param {
    lr_mult: 2
  }
  inner_product_param {
    num_output: 10
    weight_filler {
      type: "xavier"
    }
    bias_filler {
      type: "constant"
    }
  }
}
layer {
  name: "relu2"
  type: "ReLU"
  bottom: "ip2"
  top: "ip2"
}
layer {
  name: "loss"
  type: "SoftmaxWithLoss"
  bottom: "ip2"
  bottom: "label"
  top: "loss"
}
I0428 20:12:20.617395 32236 layer_factory.hpp:77] Creating layer mnist
I0428 20:12:20.617493 32236 db_lmdb.cpp:35] Opened lmdb examples/mnist/mnist_train_lmdb
I0428 20:12:20.617511 32236 net.cpp:86] Creating Layer mnist
I0428 20:12:20.617519 32236 net.cpp:382] mnist -> data
I0428 20:12:20.617537 32236 net.cpp:382] mnist -> label
I0428 20:12:20.618532 32236 data_layer.cpp:45] output data size: 64,1,28,28
I0428 20:12:20.620865 32236 net.cpp:124] Setting up mnist
I0428 20:12:20.620896 32236 net.cpp:131] Top shape: 64 1 28 28 (50176)
I0428 20:12:20.620903 32236 net.cpp:131] Top shape: 64 (64)
I0428 20:12:20.620905 32236 net.cpp:139] Memory required for data: 200960
I0428 20:12:20.620911 32236 layer_factory.hpp:77] Creating layer conv0
I0428 20:12:20.620926 32236 net.cpp:86] Creating Layer conv0
I0428 20:12:20.620931 32236 net.cpp:408] conv0 <- data
I0428 20:12:20.620942 32236 net.cpp:382] conv0 -> conv0
I0428 20:12:20.848404 32236 net.cpp:124] Setting up conv0
I0428 20:12:20.848430 32236 net.cpp:131] Top shape: 64 25 24 24 (921600)
I0428 20:12:20.848434 32236 net.cpp:139] Memory required for data: 3887360
I0428 20:12:20.848466 32236 layer_factory.hpp:77] Creating layer pool0
I0428 20:12:20.848479 32236 net.cpp:86] Creating Layer pool0
I0428 20:12:20.848482 32236 net.cpp:408] pool0 <- conv0
I0428 20:12:20.848502 32236 net.cpp:382] pool0 -> pool0
I0428 20:12:20.848546 32236 net.cpp:124] Setting up pool0
I0428 20:12:20.848551 32236 net.cpp:131] Top shape: 64 25 12 12 (230400)
I0428 20:12:20.848553 32236 net.cpp:139] Memory required for data: 4808960
I0428 20:12:20.848556 32236 layer_factory.hpp:77] Creating layer conv1
I0428 20:12:20.848567 32236 net.cpp:86] Creating Layer conv1
I0428 20:12:20.848569 32236 net.cpp:408] conv1 <- pool0
I0428 20:12:20.848574 32236 net.cpp:382] conv1 -> conv1
I0428 20:12:20.850803 32236 net.cpp:124] Setting up conv1
I0428 20:12:20.850833 32236 net.cpp:131] Top shape: 64 100 8 8 (409600)
I0428 20:12:20.850836 32236 net.cpp:139] Memory required for data: 6447360
I0428 20:12:20.850845 32236 layer_factory.hpp:77] Creating layer pool1
I0428 20:12:20.850852 32236 net.cpp:86] Creating Layer pool1
I0428 20:12:20.850855 32236 net.cpp:408] pool1 <- conv1
I0428 20:12:20.850860 32236 net.cpp:382] pool1 -> pool1
I0428 20:12:20.850910 32236 net.cpp:124] Setting up pool1
I0428 20:12:20.850915 32236 net.cpp:131] Top shape: 64 100 4 4 (102400)
I0428 20:12:20.850919 32236 net.cpp:139] Memory required for data: 6856960
I0428 20:12:20.850921 32236 layer_factory.hpp:77] Creating layer ip1
I0428 20:12:20.850929 32236 net.cpp:86] Creating Layer ip1
I0428 20:12:20.850931 32236 net.cpp:408] ip1 <- pool1
I0428 20:12:20.850936 32236 net.cpp:382] ip1 -> ip1
I0428 20:12:20.851250 32236 net.cpp:124] Setting up ip1
I0428 20:12:20.851272 32236 net.cpp:131] Top shape: 64 25 (1600)
I0428 20:12:20.851291 32236 net.cpp:139] Memory required for data: 6863360
I0428 20:12:20.851299 32236 layer_factory.hpp:77] Creating layer relu1
I0428 20:12:20.851305 32236 net.cpp:86] Creating Layer relu1
I0428 20:12:20.851307 32236 net.cpp:408] relu1 <- ip1
I0428 20:12:20.851311 32236 net.cpp:369] relu1 -> ip1 (in-place)
I0428 20:12:20.851467 32236 net.cpp:124] Setting up relu1
I0428 20:12:20.851476 32236 net.cpp:131] Top shape: 64 25 (1600)
I0428 20:12:20.851480 32236 net.cpp:139] Memory required for data: 6869760
I0428 20:12:20.851482 32236 layer_factory.hpp:77] Creating layer ip2
I0428 20:12:20.851488 32236 net.cpp:86] Creating Layer ip2
I0428 20:12:20.851491 32236 net.cpp:408] ip2 <- ip1
I0428 20:12:20.851506 32236 net.cpp:382] ip2 -> ip2
I0428 20:12:20.851593 32236 net.cpp:124] Setting up ip2
I0428 20:12:20.851599 32236 net.cpp:131] Top shape: 64 10 (640)
I0428 20:12:20.851603 32236 net.cpp:139] Memory required for data: 6872320
I0428 20:12:20.851608 32236 layer_factory.hpp:77] Creating layer relu2
I0428 20:12:20.851613 32236 net.cpp:86] Creating Layer relu2
I0428 20:12:20.851615 32236 net.cpp:408] relu2 <- ip2
I0428 20:12:20.851619 32236 net.cpp:369] relu2 -> ip2 (in-place)
I0428 20:12:20.852373 32236 net.cpp:124] Setting up relu2
I0428 20:12:20.852385 32236 net.cpp:131] Top shape: 64 10 (640)
I0428 20:12:20.852403 32236 net.cpp:139] Memory required for data: 6874880
I0428 20:12:20.852407 32236 layer_factory.hpp:77] Creating layer loss
I0428 20:12:20.852413 32236 net.cpp:86] Creating Layer loss
I0428 20:12:20.852416 32236 net.cpp:408] loss <- ip2
I0428 20:12:20.852421 32236 net.cpp:408] loss <- label
I0428 20:12:20.852427 32236 net.cpp:382] loss -> loss
I0428 20:12:20.852445 32236 layer_factory.hpp:77] Creating layer loss
…
I0428 20:12:20.853063 32236 solver.cpp:173] Creating test net (#0) specified by net file: ECE595/mnist/train_test/var_everything2/lenet_train_test1178.prototxt
I0428 20:12:20.853092 32236 net.cpp:296] The NetState phase (1) differed from the phase (0) specified by a rule in layer mnist
I0428 20:12:20.853199 32236 net.cpp:53] Initializing net from parameters: 
name: "LeNet"
state {
  phase: TEST
}
layer {
  name: "mnist"
  type: "Data"
  top: "data"
  top: "label"
  include {
    phase: TEST
  }
  transform_param {
    scale: 0.00390625
  }
  data_param {
    source: "examples/mnist/mnist_test_lmdb"
    batch_size: 100
    backend: LMDB
  }
}
layer {
  name: "conv0"
  type: "Convolution"
  bottom: "data"
  top: "conv0"
  param {
    lr_mult: 1
  }
  param {
    lr_mult: 2
  }
  convolution_param {
    num_output: 25
    kernel_size: 5
    stride: 1
    weight_filler {
      type: "xavier"
    }
    bias_filler {
      type: "constant"
    }
  }
}
layer {
  name: "pool0"
  type: "Pooling"
  bottom: "conv0"
  top: "pool0"
  pooling_param {
    pool: MAX
    kernel_size: 2
    stride: 2
  }
}
layer {
  name: "conv1"
  type: "Convolution"
  bottom: "pool0"
  top: "conv1"
  param {
    lr_mult: 1
  }
  param {
    lr_mult: 2
  }
  convolution_param {
    num_output: 100
    kernel_size: 5
    stride: 1
    weight_filler {
      type: "xavier"
    }
    bias_filler {
      type: "constant"
    }
  }
}
layer {
  name: "pool1"
  type: "Pooling"
  bottom: "conv1"
  top: "pool1"
  pooling_param {
    pool: MAX
    kernel_size: 2
    stride: 2
  }
}
layer {
  name: "ip1"
  type: "InnerProduct"
  bottom: "pool1"
  top: "ip1"
  param {
    lr_mult: 1
  }
  param {
    lr_mult: 2
  }
  inner_product_param {
    num_output: 25
    weight_filler {
      type: "xavier"
    }
    bias_filler {
      type: "constant"
    }
  }
}
layer {
  name: "relu1"
  type: "ReLU"
  bottom: "ip1"
  top: "ip1"
}
layer {
  name: "ip2"
  type: "InnerProduct"
  bottom: "ip1"
  top: "ip2"
  param {
    lr_mult: 1
  }
  param {
    lr_mult: 2
  }
  inner_product_param {
    num_output: 10
    weight_filler {
      type: "xavier"
    }
    bias_filler {
      type: "constant"
    }
  }
}
layer {
  name: "relu2"
  type: "ReLU"
  bottom: "ip2"
  top: "ip2"
}
layer {
  name: "accuracy"
  type: "Accuracy"
  bottom: "ip2"
  bottom: "label"
  top: "accuracy"
  include {
    phase: TEST
  }
}
layer {
  name: "loss"
  type: "SoftmaxWithLoss"
  bottom: "ip2"
  bottom: "label"
  top: "loss"
}
I0428 20:12:20.853260 32236 layer_factory.hpp:77] Creating layer mnist
I0428 20:12:20.853317 32236 db_lmdb.cpp:35] Opened lmdb examples/mnist/mnist_test_lmdb
I0428 20:12:20.853329 32236 net.cpp:86] Creating Layer mnist
I0428 20:12:20.853333 32236 net.cpp:382] mnist -> data
I0428 20:12:20.853341 32236 net.cpp:382] mnist -> label
I0428 20:12:20.853420 32236 data_layer.cpp:45] output data size: 100,1,28,28
I0428 20:12:20.855360 32236 net.cpp:124] Setting up mnist
I0428 20:12:20.855372 32236 net.cpp:131] Top shape: 100 1 28 28 (78400)
I0428 20:12:20.855392 32236 net.cpp:131] Top shape: 100 (100)
I0428 20:12:20.855396 32236 net.cpp:139] Memory required for data: 314000
I0428 20:12:20.855398 32236 layer_factory.hpp:77] Creating layer label_mnist_1_split
I0428 20:12:20.855407 32236 net.cpp:86] Creating Layer label_mnist_1_split
I0428 20:12:20.855412 32236 net.cpp:408] label_mnist_1_split <- label
I0428 20:12:20.855417 32236 net.cpp:382] label_mnist_1_split -> label_mnist_1_split_0
I0428 20:12:20.855423 32236 net.cpp:382] label_mnist_1_split -> label_mnist_1_split_1
I0428 20:12:20.855509 32236 net.cpp:124] Setting up label_mnist_1_split
I0428 20:12:20.855516 32236 net.cpp:131] Top shape: 100 (100)
I0428 20:12:20.855520 32236 net.cpp:131] Top shape: 100 (100)
I0428 20:12:20.855522 32236 net.cpp:139] Memory required for data: 314800
I0428 20:12:20.855525 32236 layer_factory.hpp:77] Creating layer conv0
I0428 20:12:20.855551 32236 net.cpp:86] Creating Layer conv0
I0428 20:12:20.855553 32236 net.cpp:408] conv0 <- data
I0428 20:12:20.855558 32236 net.cpp:382] conv0 -> conv0
I0428 20:12:20.857290 32236 net.cpp:124] Setting up conv0
I0428 20:12:20.857302 32236 net.cpp:131] Top shape: 100 25 24 24 (1440000)
I0428 20:12:20.857321 32236 net.cpp:139] Memory required for data: 6074800
I0428 20:12:20.857331 32236 layer_factory.hpp:77] Creating layer pool0
I0428 20:12:20.857337 32236 net.cpp:86] Creating Layer pool0
I0428 20:12:20.857341 32236 net.cpp:408] pool0 <- conv0
I0428 20:12:20.857347 32236 net.cpp:382] pool0 -> pool0
I0428 20:12:20.857393 32236 net.cpp:124] Setting up pool0
I0428 20:12:20.857399 32236 net.cpp:131] Top shape: 100 25 12 12 (360000)
I0428 20:12:20.857403 32236 net.cpp:139] Memory required for data: 7514800
I0428 20:12:20.857404 32236 layer_factory.hpp:77] Creating layer conv1
I0428 20:12:20.857414 32236 net.cpp:86] Creating Layer conv1
I0428 20:12:20.857416 32236 net.cpp:408] conv1 <- pool0
I0428 20:12:20.857421 32236 net.cpp:382] conv1 -> conv1
I0428 20:12:20.859369 32236 net.cpp:124] Setting up conv1
I0428 20:12:20.859398 32236 net.cpp:131] Top shape: 100 100 8 8 (640000)
I0428 20:12:20.859402 32236 net.cpp:139] Memory required for data: 10074800
I0428 20:12:20.859411 32236 layer_factory.hpp:77] Creating layer pool1
I0428 20:12:20.859419 32236 net.cpp:86] Creating Layer pool1
I0428 20:12:20.859422 32236 net.cpp:408] pool1 <- conv1
I0428 20:12:20.859427 32236 net.cpp:382] pool1 -> pool1
I0428 20:12:20.859482 32236 net.cpp:124] Setting up pool1
I0428 20:12:20.859494 32236 net.cpp:131] Top shape: 100 100 4 4 (160000)
I0428 20:12:20.859498 32236 net.cpp:139] Memory required for data: 10714800
I0428 20:12:20.859500 32236 layer_factory.hpp:77] Creating layer ip1
I0428 20:12:20.859508 32236 net.cpp:86] Creating Layer ip1
I0428 20:12:20.859510 32236 net.cpp:408] ip1 <- pool1
I0428 20:12:20.859515 32236 net.cpp:382] ip1 -> ip1
I0428 20:12:20.859884 32236 net.cpp:124] Setting up ip1
I0428 20:12:20.859891 32236 net.cpp:131] Top shape: 100 25 (2500)
I0428 20:12:20.859910 32236 net.cpp:139] Memory required for data: 10724800
I0428 20:12:20.859916 32236 layer_factory.hpp:77] Creating layer relu1
I0428 20:12:20.859922 32236 net.cpp:86] Creating Layer relu1
I0428 20:12:20.859925 32236 net.cpp:408] relu1 <- ip1
I0428 20:12:20.859930 32236 net.cpp:369] relu1 -> ip1 (in-place)
I0428 20:12:20.860085 32236 net.cpp:124] Setting up relu1
I0428 20:12:20.860092 32236 net.cpp:131] Top shape: 100 25 (2500)
I0428 20:12:20.860095 32236 net.cpp:139] Memory required for data: 10734800
I0428 20:12:20.860116 32236 layer_factory.hpp:77] Creating layer ip2
I0428 20:12:20.860123 32236 net.cpp:86] Creating Layer ip2
I0428 20:12:20.860127 32236 net.cpp:408] ip2 <- ip1
I0428 20:12:20.860133 32236 net.cpp:382] ip2 -> ip2
I0428 20:12:20.860246 32236 net.cpp:124] Setting up ip2
I0428 20:12:20.860254 32236 net.cpp:131] Top shape: 100 10 (1000)
I0428 20:12:20.860256 32236 net.cpp:139] Memory required for data: 10738800
I0428 20:12:20.860261 32236 layer_factory.hpp:77] Creating layer relu2
I0428 20:12:20.860265 32236 net.cpp:86] Creating Layer relu2
I0428 20:12:20.860268 32236 net.cpp:408] relu2 <- ip2
I0428 20:12:20.860272 32236 net.cpp:369] relu2 -> ip2 (in-place)
I0428 20:12:20.860558 32236 net.cpp:124] Setting up relu2
I0428 20:12:20.860569 32236 net.cpp:131] Top shape: 100 10 (1000)
I0428 20:12:20.860571 32236 net.cpp:139] Memory required for data: 10742800
I0428 20:12:20.860575 32236 layer_factory.hpp:77] Creating layer ip2_relu2_0_split
I0428 20:12:20.860580 32236 net.cpp:86] Creating Layer ip2_relu2_0_split
I0428 20:12:20.860584 32236 net.cpp:408] ip2_relu2_0_split <- ip2
I0428 20:12:20.860589 32236 net.cpp:382] ip2_relu2_0_split -> ip2_relu2_0_split_0
I0428 20:12:20.860605 32236 net.cpp:382] ip2_relu2_0_split -> ip2_relu2_0_split_1
I0428 20:12:20.860644 32236 net.cpp:124] Setting up ip2_relu2_0_split
I0428 20:12:20.860651 32236 net.cpp:131] Top shape: 100 10 (1000)
I0428 20:12:20.860656 32236 net.cpp:131] Top shape: 100 10 (1000)
I0428 20:12:20.860673 32236 net.cpp:139] Memory required for data: 10750800
I0428 20:12:20.860677 32236 layer_factory.hpp:77] Creating layer accuracy
I0428 20:12:20.860682 32236 net.cpp:86] Creating Layer accuracy
I0428 20:12:20.860684 32236 net.cpp:408] accuracy <- ip2_relu2_0_split_0
I0428 20:12:20.860689 32236 net.cpp:408] accuracy <- label_mnist_1_split_0
I0428 20:12:20.860693 32236 net.cpp:382] accuracy -> accuracy
…
