…
I0428 20:04:40.931563 30434 net.cpp:296] The NetState phase (0) differed from the phase (1) specified by a rule in layer mnist
I0428 20:04:40.931592 30434 net.cpp:296] The NetState phase (0) differed from the phase (1) specified by a rule in layer accuracy
I0428 20:04:40.931659 30434 net.cpp:53] Initializing net from parameters: 
name: "LeNet"
state {
  phase: TRAIN
  level: 0
  stage: ""
}
layer {
  name: "mnist"
  type: "Data"
  top: "data"
  top: "label"
  include {
    phase: TRAIN
  }
  transform_param {
    scale: 0.00390625
  }
  data_param {
    source: "examples/mnist/mnist_train_lmdb"
    batch_size: 64
    backend: LMDB
  }
}
layer {
  name: "conv0"
  type: "Convolution"
  bottom: "data"
  top: "conv0"
  param {
    lr_mult: 1
  }
  param {
    lr_mult: 2
  }
  convolution_param {
    num_output: 25
    kernel_size: 5
    stride: 1
    weight_filler {
      type: "xavier"
    }
    bias_filler {
      type: "constant"
    }
  }
}
layer {
  name: "pool0"
  type: "Pooling"
  bottom: "conv0"
  top: "pool0"
  pooling_param {
    pool: MAX
    kernel_size: 2
    stride: 2
  }
}
layer {
  name: "conv1"
  type: "Convolution"
  bottom: "pool0"
  top: "conv1"
  param {
    lr_mult: 1
  }
  param {
    lr_mult: 2
  }
  convolution_param {
    num_output: 2
    kernel_size: 5
    stride: 1
    weight_filler {
      type: "xavier"
    }
    bias_filler {
      type: "constant"
    }
  }
}
layer {
  name: "pool1"
  type: "Pooling"
  bottom: "conv1"
  top: "pool1"
  pooling_param {
    pool: MAX
    kernel_size: 2
    stride: 2
  }
}
layer {
  name: "ip1"
  type: "InnerProduct"
  bottom: "pool1"
  top: "ip1"
  param {
    lr_mult: 1
  }
  param {
    lr_mult: 2
  }
  inner_product_param {
    num_output: 10
    weight_filler {
      type: "xavier"
    }
    bias_filler {
      type: "constant"
    }
  }
}
layer {
  name: "relu1"
  type: "ReLU"
  bottom: "ip1"
  top: "ip1"
}
layer {
  name: "ip2"
  type: "InnerProduct"
  bottom: "ip1"
  top: "ip2"
  param {
    lr_mult: 1
  }
  param {
    lr_mult: 2
  }
  inner_product_param {
    num_output: 10
    weight_filler {
      type: "xavier"
    }
    bias_filler {
      type: "constant"
    }
  }
}
layer {
  name: "relu2"
  type: "ReLU"
  bottom: "ip2"
  top: "ip2"
}
layer {
  name: "loss"
  type: "SoftmaxWithLoss"
  bottom: "ip2"
  bottom: "label"
  top: "loss"
}
I0428 20:04:40.931715 30434 layer_factory.hpp:77] Creating layer mnist
I0428 20:04:40.931794 30434 db_lmdb.cpp:35] Opened lmdb examples/mnist/mnist_train_lmdb
I0428 20:04:40.931813 30434 net.cpp:86] Creating Layer mnist
I0428 20:04:40.931818 30434 net.cpp:382] mnist -> data
I0428 20:04:40.931836 30434 net.cpp:382] mnist -> label
I0428 20:04:40.932870 30434 data_layer.cpp:45] output data size: 64,1,28,28
I0428 20:04:40.935070 30434 net.cpp:124] Setting up mnist
I0428 20:04:40.935099 30434 net.cpp:131] Top shape: 64 1 28 28 (50176)
I0428 20:04:40.935104 30434 net.cpp:131] Top shape: 64 (64)
I0428 20:04:40.935107 30434 net.cpp:139] Memory required for data: 200960
I0428 20:04:40.935113 30434 layer_factory.hpp:77] Creating layer conv0
I0428 20:04:40.935127 30434 net.cpp:86] Creating Layer conv0
I0428 20:04:40.935132 30434 net.cpp:408] conv0 <- data
I0428 20:04:40.935140 30434 net.cpp:382] conv0 -> conv0
I0428 20:04:41.160511 30434 net.cpp:124] Setting up conv0
I0428 20:04:41.160538 30434 net.cpp:131] Top shape: 64 25 24 24 (921600)
I0428 20:04:41.160542 30434 net.cpp:139] Memory required for data: 3887360
I0428 20:04:41.160571 30434 layer_factory.hpp:77] Creating layer pool0
I0428 20:04:41.160600 30434 net.cpp:86] Creating Layer pool0
I0428 20:04:41.160604 30434 net.cpp:408] pool0 <- conv0
I0428 20:04:41.160609 30434 net.cpp:382] pool0 -> pool0
I0428 20:04:41.160651 30434 net.cpp:124] Setting up pool0
I0428 20:04:41.160658 30434 net.cpp:131] Top shape: 64 25 12 12 (230400)
I0428 20:04:41.160661 30434 net.cpp:139] Memory required for data: 4808960
I0428 20:04:41.160665 30434 layer_factory.hpp:77] Creating layer conv1
I0428 20:04:41.160675 30434 net.cpp:86] Creating Layer conv1
I0428 20:04:41.160677 30434 net.cpp:408] conv1 <- pool0
I0428 20:04:41.160681 30434 net.cpp:382] conv1 -> conv1
I0428 20:04:41.163461 30434 net.cpp:124] Setting up conv1
I0428 20:04:41.163491 30434 net.cpp:131] Top shape: 64 2 8 8 (8192)
I0428 20:04:41.163496 30434 net.cpp:139] Memory required for data: 4841728
I0428 20:04:41.163502 30434 layer_factory.hpp:77] Creating layer pool1
I0428 20:04:41.163509 30434 net.cpp:86] Creating Layer pool1
I0428 20:04:41.163513 30434 net.cpp:408] pool1 <- conv1
I0428 20:04:41.163534 30434 net.cpp:382] pool1 -> pool1
I0428 20:04:41.163568 30434 net.cpp:124] Setting up pool1
I0428 20:04:41.163574 30434 net.cpp:131] Top shape: 64 2 4 4 (2048)
I0428 20:04:41.163578 30434 net.cpp:139] Memory required for data: 4849920
I0428 20:04:41.163580 30434 layer_factory.hpp:77] Creating layer ip1
I0428 20:04:41.163588 30434 net.cpp:86] Creating Layer ip1
I0428 20:04:41.163590 30434 net.cpp:408] ip1 <- pool1
I0428 20:04:41.163594 30434 net.cpp:382] ip1 -> ip1
I0428 20:04:41.163681 30434 net.cpp:124] Setting up ip1
I0428 20:04:41.163688 30434 net.cpp:131] Top shape: 64 10 (640)
I0428 20:04:41.163691 30434 net.cpp:139] Memory required for data: 4852480
I0428 20:04:41.163697 30434 layer_factory.hpp:77] Creating layer relu1
I0428 20:04:41.163703 30434 net.cpp:86] Creating Layer relu1
I0428 20:04:41.163707 30434 net.cpp:408] relu1 <- ip1
I0428 20:04:41.163710 30434 net.cpp:369] relu1 -> ip1 (in-place)
I0428 20:04:41.163862 30434 net.cpp:124] Setting up relu1
I0428 20:04:41.163872 30434 net.cpp:131] Top shape: 64 10 (640)
I0428 20:04:41.163874 30434 net.cpp:139] Memory required for data: 4855040
I0428 20:04:41.163877 30434 layer_factory.hpp:77] Creating layer ip2
I0428 20:04:41.163883 30434 net.cpp:86] Creating Layer ip2
I0428 20:04:41.163887 30434 net.cpp:408] ip2 <- ip1
I0428 20:04:41.163892 30434 net.cpp:382] ip2 -> ip2
I0428 20:04:41.163987 30434 net.cpp:124] Setting up ip2
I0428 20:04:41.163995 30434 net.cpp:131] Top shape: 64 10 (640)
I0428 20:04:41.163996 30434 net.cpp:139] Memory required for data: 4857600
I0428 20:04:41.164001 30434 layer_factory.hpp:77] Creating layer relu2
I0428 20:04:41.164007 30434 net.cpp:86] Creating Layer relu2
I0428 20:04:41.164011 30434 net.cpp:408] relu2 <- ip2
I0428 20:04:41.164013 30434 net.cpp:369] relu2 -> ip2 (in-place)
I0428 20:04:41.164777 30434 net.cpp:124] Setting up relu2
I0428 20:04:41.164788 30434 net.cpp:131] Top shape: 64 10 (640)
I0428 20:04:41.164808 30434 net.cpp:139] Memory required for data: 4860160
I0428 20:04:41.164827 30434 layer_factory.hpp:77] Creating layer loss
I0428 20:04:41.164834 30434 net.cpp:86] Creating Layer loss
I0428 20:04:41.164837 30434 net.cpp:408] loss <- ip2
I0428 20:04:41.164842 30434 net.cpp:408] loss <- label
I0428 20:04:41.164847 30434 net.cpp:382] loss -> loss
I0428 20:04:41.164863 30434 layer_factory.hpp:77] Creating layer loss
…
I0428 20:04:41.165537 30434 solver.cpp:173] Creating test net (#0) specified by net file: ECE595/mnist/train_test/var_everything2/lenet_train_test978.prototxt
I0428 20:04:41.165578 30434 net.cpp:296] The NetState phase (1) differed from the phase (0) specified by a rule in layer mnist
I0428 20:04:41.165670 30434 net.cpp:53] Initializing net from parameters: 
name: "LeNet"
state {
  phase: TEST
}
layer {
  name: "mnist"
  type: "Data"
  top: "data"
  top: "label"
  include {
    phase: TEST
  }
  transform_param {
    scale: 0.00390625
  }
  data_param {
    source: "examples/mnist/mnist_test_lmdb"
    batch_size: 100
    backend: LMDB
  }
}
layer {
  name: "conv0"
  type: "Convolution"
  bottom: "data"
  top: "conv0"
  param {
    lr_mult: 1
  }
  param {
    lr_mult: 2
  }
  convolution_param {
    num_output: 25
    kernel_size: 5
    stride: 1
    weight_filler {
      type: "xavier"
    }
    bias_filler {
      type: "constant"
    }
  }
}
layer {
  name: "pool0"
  type: "Pooling"
  bottom: "conv0"
  top: "pool0"
  pooling_param {
    pool: MAX
    kernel_size: 2
    stride: 2
  }
}
layer {
  name: "conv1"
  type: "Convolution"
  bottom: "pool0"
  top: "conv1"
  param {
    lr_mult: 1
  }
  param {
    lr_mult: 2
  }
  convolution_param {
    num_output: 2
    kernel_size: 5
    stride: 1
    weight_filler {
      type: "xavier"
    }
    bias_filler {
      type: "constant"
    }
  }
}
layer {
  name: "pool1"
  type: "Pooling"
  bottom: "conv1"
  top: "pool1"
  pooling_param {
    pool: MAX
    kernel_size: 2
    stride: 2
  }
}
layer {
  name: "ip1"
  type: "InnerProduct"
  bottom: "pool1"
  top: "ip1"
  param {
    lr_mult: 1
  }
  param {
    lr_mult: 2
  }
  inner_product_param {
    num_output: 10
    weight_filler {
      type: "xavier"
    }
    bias_filler {
      type: "constant"
    }
  }
}
layer {
  name: "relu1"
  type: "ReLU"
  bottom: "ip1"
  top: "ip1"
}
layer {
  name: "ip2"
  type: "InnerProduct"
  bottom: "ip1"
  top: "ip2"
  param {
    lr_mult: 1
  }
  param {
    lr_mult: 2
  }
  inner_product_param {
    num_output: 10
    weight_filler {
      type: "xavier"
    }
    bias_filler {
      type: "constant"
    }
  }
}
layer {
  name: "relu2"
  type: "ReLU"
  bottom: "ip2"
  top: "ip2"
}
layer {
  name: "accuracy"
  type: "Accuracy"
  bottom: "ip2"
  bottom: "label"
  top: "accuracy"
  include {
    phase: TEST
  }
}
layer {
  name: "loss"
  type: "SoftmaxWithLoss"
  bottom: "ip2"
  bottom: "label"
  top: "loss"
}
I0428 20:04:41.165747 30434 layer_factory.hpp:77] Creating layer mnist
I0428 20:04:41.165791 30434 db_lmdb.cpp:35] Opened lmdb examples/mnist/mnist_test_lmdb
I0428 20:04:41.165804 30434 net.cpp:86] Creating Layer mnist
I0428 20:04:41.165809 30434 net.cpp:382] mnist -> data
I0428 20:04:41.165817 30434 net.cpp:382] mnist -> label
I0428 20:04:41.165897 30434 data_layer.cpp:45] output data size: 100,1,28,28
I0428 20:04:41.167826 30434 net.cpp:124] Setting up mnist
I0428 20:04:41.167871 30434 net.cpp:131] Top shape: 100 1 28 28 (78400)
I0428 20:04:41.167876 30434 net.cpp:131] Top shape: 100 (100)
I0428 20:04:41.167881 30434 net.cpp:139] Memory required for data: 314000
I0428 20:04:41.167883 30434 layer_factory.hpp:77] Creating layer label_mnist_1_split
I0428 20:04:41.167891 30434 net.cpp:86] Creating Layer label_mnist_1_split
I0428 20:04:41.167894 30434 net.cpp:408] label_mnist_1_split <- label
I0428 20:04:41.167898 30434 net.cpp:382] label_mnist_1_split -> label_mnist_1_split_0
I0428 20:04:41.167906 30434 net.cpp:382] label_mnist_1_split -> label_mnist_1_split_1
I0428 20:04:41.168004 30434 net.cpp:124] Setting up label_mnist_1_split
I0428 20:04:41.168023 30434 net.cpp:131] Top shape: 100 (100)
I0428 20:04:41.168028 30434 net.cpp:131] Top shape: 100 (100)
I0428 20:04:41.168031 30434 net.cpp:139] Memory required for data: 314800
I0428 20:04:41.168035 30434 layer_factory.hpp:77] Creating layer conv0
I0428 20:04:41.168043 30434 net.cpp:86] Creating Layer conv0
I0428 20:04:41.168046 30434 net.cpp:408] conv0 <- data
I0428 20:04:41.168051 30434 net.cpp:382] conv0 -> conv0
I0428 20:04:41.169497 30434 net.cpp:124] Setting up conv0
I0428 20:04:41.169512 30434 net.cpp:131] Top shape: 100 25 24 24 (1440000)
I0428 20:04:41.169515 30434 net.cpp:139] Memory required for data: 6074800
I0428 20:04:41.169540 30434 layer_factory.hpp:77] Creating layer pool0
I0428 20:04:41.169548 30434 net.cpp:86] Creating Layer pool0
I0428 20:04:41.169551 30434 net.cpp:408] pool0 <- conv0
I0428 20:04:41.169556 30434 net.cpp:382] pool0 -> pool0
I0428 20:04:41.169591 30434 net.cpp:124] Setting up pool0
I0428 20:04:41.169598 30434 net.cpp:131] Top shape: 100 25 12 12 (360000)
I0428 20:04:41.169601 30434 net.cpp:139] Memory required for data: 7514800
I0428 20:04:41.169605 30434 layer_factory.hpp:77] Creating layer conv1
I0428 20:04:41.169612 30434 net.cpp:86] Creating Layer conv1
I0428 20:04:41.169615 30434 net.cpp:408] conv1 <- pool0
I0428 20:04:41.169620 30434 net.cpp:382] conv1 -> conv1
I0428 20:04:41.171665 30434 net.cpp:124] Setting up conv1
I0428 20:04:41.171679 30434 net.cpp:131] Top shape: 100 2 8 8 (12800)
I0428 20:04:41.171681 30434 net.cpp:139] Memory required for data: 7566000
I0428 20:04:41.171691 30434 layer_factory.hpp:77] Creating layer pool1
I0428 20:04:41.171697 30434 net.cpp:86] Creating Layer pool1
I0428 20:04:41.171700 30434 net.cpp:408] pool1 <- conv1
I0428 20:04:41.171705 30434 net.cpp:382] pool1 -> pool1
I0428 20:04:41.171746 30434 net.cpp:124] Setting up pool1
I0428 20:04:41.171753 30434 net.cpp:131] Top shape: 100 2 4 4 (3200)
I0428 20:04:41.171756 30434 net.cpp:139] Memory required for data: 7578800
I0428 20:04:41.171759 30434 layer_factory.hpp:77] Creating layer ip1
I0428 20:04:41.171764 30434 net.cpp:86] Creating Layer ip1
I0428 20:04:41.171767 30434 net.cpp:408] ip1 <- pool1
I0428 20:04:41.171772 30434 net.cpp:382] ip1 -> ip1
I0428 20:04:41.171903 30434 net.cpp:124] Setting up ip1
I0428 20:04:41.171912 30434 net.cpp:131] Top shape: 100 10 (1000)
I0428 20:04:41.171916 30434 net.cpp:139] Memory required for data: 7582800
I0428 20:04:41.171922 30434 layer_factory.hpp:77] Creating layer relu1
I0428 20:04:41.171929 30434 net.cpp:86] Creating Layer relu1
I0428 20:04:41.171932 30434 net.cpp:408] relu1 <- ip1
I0428 20:04:41.171937 30434 net.cpp:369] relu1 -> ip1 (in-place)
I0428 20:04:41.172111 30434 net.cpp:124] Setting up relu1
I0428 20:04:41.172122 30434 net.cpp:131] Top shape: 100 10 (1000)
I0428 20:04:41.172125 30434 net.cpp:139] Memory required for data: 7586800
I0428 20:04:41.172128 30434 layer_factory.hpp:77] Creating layer ip2
I0428 20:04:41.172137 30434 net.cpp:86] Creating Layer ip2
I0428 20:04:41.172139 30434 net.cpp:408] ip2 <- ip1
I0428 20:04:41.172143 30434 net.cpp:382] ip2 -> ip2
I0428 20:04:41.172237 30434 net.cpp:124] Setting up ip2
I0428 20:04:41.172245 30434 net.cpp:131] Top shape: 100 10 (1000)
I0428 20:04:41.172248 30434 net.cpp:139] Memory required for data: 7590800
I0428 20:04:41.172253 30434 layer_factory.hpp:77] Creating layer relu2
I0428 20:04:41.172258 30434 net.cpp:86] Creating Layer relu2
I0428 20:04:41.172261 30434 net.cpp:408] relu2 <- ip2
I0428 20:04:41.172266 30434 net.cpp:369] relu2 -> ip2 (in-place)
I0428 20:04:41.172466 30434 net.cpp:124] Setting up relu2
I0428 20:04:41.172474 30434 net.cpp:131] Top shape: 100 10 (1000)
I0428 20:04:41.172477 30434 net.cpp:139] Memory required for data: 7594800
I0428 20:04:41.172479 30434 layer_factory.hpp:77] Creating layer ip2_relu2_0_split
I0428 20:04:41.172487 30434 net.cpp:86] Creating Layer ip2_relu2_0_split
I0428 20:04:41.172489 30434 net.cpp:408] ip2_relu2_0_split <- ip2
I0428 20:04:41.172493 30434 net.cpp:382] ip2_relu2_0_split -> ip2_relu2_0_split_0
I0428 20:04:41.172508 30434 net.cpp:382] ip2_relu2_0_split -> ip2_relu2_0_split_1
I0428 20:04:41.172559 30434 net.cpp:124] Setting up ip2_relu2_0_split
I0428 20:04:41.172564 30434 net.cpp:131] Top shape: 100 10 (1000)
I0428 20:04:41.172569 30434 net.cpp:131] Top shape: 100 10 (1000)
I0428 20:04:41.172586 30434 net.cpp:139] Memory required for data: 7602800
I0428 20:04:41.172590 30434 layer_factory.hpp:77] Creating layer accuracy
I0428 20:04:41.172595 30434 net.cpp:86] Creating Layer accuracy
I0428 20:04:41.172597 30434 net.cpp:408] accuracy <- ip2_relu2_0_split_0
I0428 20:04:41.172603 30434 net.cpp:408] accuracy <- label_mnist_1_split_0
I0428 20:04:41.172608 30434 net.cpp:382] accuracy -> accuracy
…
