…
I0428 19:50:27.868412 27018 net.cpp:296] The NetState phase (0) differed from the phase (1) specified by a rule in layer mnist
I0428 19:50:27.868427 27018 net.cpp:296] The NetState phase (0) differed from the phase (1) specified by a rule in layer accuracy
I0428 19:50:27.868506 27018 net.cpp:53] Initializing net from parameters: 
name: "LeNet"
state {
  phase: TRAIN
  level: 0
  stage: ""
}
layer {
  name: "mnist"
  type: "Data"
  top: "data"
  top: "label"
  include {
    phase: TRAIN
  }
  transform_param {
    scale: 0.00390625
  }
  data_param {
    source: "examples/mnist/mnist_train_lmdb"
    batch_size: 64
    backend: LMDB
  }
}
layer {
  name: "conv0"
  type: "Convolution"
  bottom: "data"
  top: "conv0"
  param {
    lr_mult: 1
  }
  param {
    lr_mult: 2
  }
  convolution_param {
    num_output: 5
    kernel_size: 5
    stride: 1
    weight_filler {
      type: "xavier"
    }
    bias_filler {
      type: "constant"
    }
  }
}
layer {
  name: "pool0"
  type: "Pooling"
  bottom: "conv0"
  top: "pool0"
  pooling_param {
    pool: MAX
    kernel_size: 2
    stride: 2
  }
}
layer {
  name: "conv1"
  type: "Convolution"
  bottom: "pool0"
  top: "conv1"
  param {
    lr_mult: 1
  }
  param {
    lr_mult: 2
  }
  convolution_param {
    num_output: 10
    kernel_size: 5
    stride: 1
    weight_filler {
      type: "xavier"
    }
    bias_filler {
      type: "constant"
    }
  }
}
layer {
  name: "pool1"
  type: "Pooling"
  bottom: "conv1"
  top: "pool1"
  pooling_param {
    pool: MAX
    kernel_size: 2
    stride: 2
  }
}
layer {
  name: "ip1"
  type: "InnerProduct"
  bottom: "pool1"
  top: "ip1"
  param {
    lr_mult: 1
  }
  param {
    lr_mult: 2
  }
  inner_product_param {
    num_output: 10
    weight_filler {
      type: "xavier"
    }
    bias_filler {
      type: "constant"
    }
  }
}
layer {
  name: "relu1"
  type: "ReLU"
  bottom: "ip1"
  top: "ip1"
}
layer {
  name: "ip2"
  type: "InnerProduct"
  bottom: "ip1"
  top: "ip2"
  param {
    lr_mult: 1
  }
  param {
    lr_mult: 2
  }
  inner_product_param {
    num_output: 50
    weight_filler {
      type: "xavier"
    }
    bias_filler {
      type: "constant"
    }
  }
}
layer {
  name: "relu2"
  type: "ReLU"
  bottom: "ip2"
  top: "ip2"
}
layer {
  name: "ip3"
  type: "InnerProduct"
  bottom: "ip2"
  top: "ip3"
  param {
    lr_mult: 1
  }
  param {
    lr_mult: 2
  }
  inner_product_param {
    num_output: 10
    weight_filler {
      type: "xavier"
    }
    bias_filler {
      type: "constant"
    }
  }
}
layer {
  name: "relu3"
  type: "ReLU"
  bottom: "ip3"
  top: "ip3"
}
layer {
  name: "loss"
  type: "SoftmaxWithLoss"
  bottom: "ip3"
  bottom: "label"
  top: "loss"
}
I0428 19:50:27.868588 27018 layer_factory.hpp:77] Creating layer mnist
I0428 19:50:27.868670 27018 db_lmdb.cpp:35] Opened lmdb examples/mnist/mnist_train_lmdb
I0428 19:50:27.868690 27018 net.cpp:86] Creating Layer mnist
I0428 19:50:27.868698 27018 net.cpp:382] mnist -> data
I0428 19:50:27.868717 27018 net.cpp:382] mnist -> label
I0428 19:50:27.869736 27018 data_layer.cpp:45] output data size: 64,1,28,28
I0428 19:50:27.871969 27018 net.cpp:124] Setting up mnist
I0428 19:50:27.871985 27018 net.cpp:131] Top shape: 64 1 28 28 (50176)
I0428 19:50:27.871990 27018 net.cpp:131] Top shape: 64 (64)
I0428 19:50:27.871992 27018 net.cpp:139] Memory required for data: 200960
I0428 19:50:27.871999 27018 layer_factory.hpp:77] Creating layer conv0
I0428 19:50:27.872014 27018 net.cpp:86] Creating Layer conv0
I0428 19:50:27.872030 27018 net.cpp:408] conv0 <- data
I0428 19:50:27.872042 27018 net.cpp:382] conv0 -> conv0
I0428 19:50:28.099472 27018 net.cpp:124] Setting up conv0
I0428 19:50:28.099499 27018 net.cpp:131] Top shape: 64 5 24 24 (184320)
I0428 19:50:28.099503 27018 net.cpp:139] Memory required for data: 938240
I0428 19:50:28.099519 27018 layer_factory.hpp:77] Creating layer pool0
I0428 19:50:28.099546 27018 net.cpp:86] Creating Layer pool0
I0428 19:50:28.099565 27018 net.cpp:408] pool0 <- conv0
I0428 19:50:28.099571 27018 net.cpp:382] pool0 -> pool0
I0428 19:50:28.099632 27018 net.cpp:124] Setting up pool0
I0428 19:50:28.099639 27018 net.cpp:131] Top shape: 64 5 12 12 (46080)
I0428 19:50:28.099643 27018 net.cpp:139] Memory required for data: 1122560
I0428 19:50:28.099645 27018 layer_factory.hpp:77] Creating layer conv1
I0428 19:50:28.099656 27018 net.cpp:86] Creating Layer conv1
I0428 19:50:28.099659 27018 net.cpp:408] conv1 <- pool0
I0428 19:50:28.099664 27018 net.cpp:382] conv1 -> conv1
I0428 19:50:28.102509 27018 net.cpp:124] Setting up conv1
I0428 19:50:28.102522 27018 net.cpp:131] Top shape: 64 10 8 8 (40960)
I0428 19:50:28.102526 27018 net.cpp:139] Memory required for data: 1286400
I0428 19:50:28.102535 27018 layer_factory.hpp:77] Creating layer pool1
I0428 19:50:28.102541 27018 net.cpp:86] Creating Layer pool1
I0428 19:50:28.102545 27018 net.cpp:408] pool1 <- conv1
I0428 19:50:28.102550 27018 net.cpp:382] pool1 -> pool1
I0428 19:50:28.102584 27018 net.cpp:124] Setting up pool1
I0428 19:50:28.102589 27018 net.cpp:131] Top shape: 64 10 4 4 (10240)
I0428 19:50:28.102592 27018 net.cpp:139] Memory required for data: 1327360
I0428 19:50:28.102594 27018 layer_factory.hpp:77] Creating layer ip1
I0428 19:50:28.102602 27018 net.cpp:86] Creating Layer ip1
I0428 19:50:28.102604 27018 net.cpp:408] ip1 <- pool1
I0428 19:50:28.102608 27018 net.cpp:382] ip1 -> ip1
I0428 19:50:28.102705 27018 net.cpp:124] Setting up ip1
I0428 19:50:28.102713 27018 net.cpp:131] Top shape: 64 10 (640)
I0428 19:50:28.102716 27018 net.cpp:139] Memory required for data: 1329920
I0428 19:50:28.102723 27018 layer_factory.hpp:77] Creating layer relu1
I0428 19:50:28.102730 27018 net.cpp:86] Creating Layer relu1
I0428 19:50:28.102732 27018 net.cpp:408] relu1 <- ip1
I0428 19:50:28.102736 27018 net.cpp:369] relu1 -> ip1 (in-place)
I0428 19:50:28.102890 27018 net.cpp:124] Setting up relu1
I0428 19:50:28.102898 27018 net.cpp:131] Top shape: 64 10 (640)
I0428 19:50:28.102900 27018 net.cpp:139] Memory required for data: 1332480
I0428 19:50:28.102903 27018 layer_factory.hpp:77] Creating layer ip2
I0428 19:50:28.102910 27018 net.cpp:86] Creating Layer ip2
I0428 19:50:28.102912 27018 net.cpp:408] ip2 <- ip1
I0428 19:50:28.102917 27018 net.cpp:382] ip2 -> ip2
I0428 19:50:28.103029 27018 net.cpp:124] Setting up ip2
I0428 19:50:28.103036 27018 net.cpp:131] Top shape: 64 50 (3200)
I0428 19:50:28.103039 27018 net.cpp:139] Memory required for data: 1345280
I0428 19:50:28.103044 27018 layer_factory.hpp:77] Creating layer relu2
I0428 19:50:28.103049 27018 net.cpp:86] Creating Layer relu2
I0428 19:50:28.103052 27018 net.cpp:408] relu2 <- ip2
I0428 19:50:28.103056 27018 net.cpp:369] relu2 -> ip2 (in-place)
I0428 19:50:28.103847 27018 net.cpp:124] Setting up relu2
I0428 19:50:28.103858 27018 net.cpp:131] Top shape: 64 50 (3200)
I0428 19:50:28.103862 27018 net.cpp:139] Memory required for data: 1358080
I0428 19:50:28.103865 27018 layer_factory.hpp:77] Creating layer ip3
I0428 19:50:28.103871 27018 net.cpp:86] Creating Layer ip3
I0428 19:50:28.103874 27018 net.cpp:408] ip3 <- ip2
I0428 19:50:28.103879 27018 net.cpp:382] ip3 -> ip3
I0428 19:50:28.103973 27018 net.cpp:124] Setting up ip3
I0428 19:50:28.103981 27018 net.cpp:131] Top shape: 64 10 (640)
I0428 19:50:28.103984 27018 net.cpp:139] Memory required for data: 1360640
I0428 19:50:28.103991 27018 layer_factory.hpp:77] Creating layer relu3
I0428 19:50:28.103996 27018 net.cpp:86] Creating Layer relu3
I0428 19:50:28.103999 27018 net.cpp:408] relu3 <- ip3
I0428 19:50:28.104002 27018 net.cpp:369] relu3 -> ip3 (in-place)
I0428 19:50:28.104177 27018 net.cpp:124] Setting up relu3
I0428 19:50:28.104187 27018 net.cpp:131] Top shape: 64 10 (640)
I0428 19:50:28.104189 27018 net.cpp:139] Memory required for data: 1363200
I0428 19:50:28.104192 27018 layer_factory.hpp:77] Creating layer loss
I0428 19:50:28.104198 27018 net.cpp:86] Creating Layer loss
I0428 19:50:28.104202 27018 net.cpp:408] loss <- ip3
I0428 19:50:28.104205 27018 net.cpp:408] loss <- label
I0428 19:50:28.104210 27018 net.cpp:382] loss -> loss
I0428 19:50:28.104228 27018 layer_factory.hpp:77] Creating layer loss
…
I0428 19:50:28.104882 27018 solver.cpp:173] Creating test net (#0) specified by net file: ECE595/mnist/train_test/var_everything2/lenet_train_test605.prototxt
I0428 19:50:28.104925 27018 net.cpp:296] The NetState phase (1) differed from the phase (0) specified by a rule in layer mnist
I0428 19:50:28.105031 27018 net.cpp:53] Initializing net from parameters: 
name: "LeNet"
state {
  phase: TEST
}
layer {
  name: "mnist"
  type: "Data"
  top: "data"
  top: "label"
  include {
    phase: TEST
  }
  transform_param {
    scale: 0.00390625
  }
  data_param {
    source: "examples/mnist/mnist_test_lmdb"
    batch_size: 100
    backend: LMDB
  }
}
layer {
  name: "conv0"
  type: "Convolution"
  bottom: "data"
  top: "conv0"
  param {
    lr_mult: 1
  }
  param {
    lr_mult: 2
  }
  convolution_param {
    num_output: 5
    kernel_size: 5
    stride: 1
    weight_filler {
      type: "xavier"
    }
    bias_filler {
      type: "constant"
    }
  }
}
layer {
  name: "pool0"
  type: "Pooling"
  bottom: "conv0"
  top: "pool0"
  pooling_param {
    pool: MAX
    kernel_size: 2
    stride: 2
  }
}
layer {
  name: "conv1"
  type: "Convolution"
  bottom: "pool0"
  top: "conv1"
  param {
    lr_mult: 1
  }
  param {
    lr_mult: 2
  }
  convolution_param {
    num_output: 10
    kernel_size: 5
    stride: 1
    weight_filler {
      type: "xavier"
    }
    bias_filler {
      type: "constant"
    }
  }
}
layer {
  name: "pool1"
  type: "Pooling"
  bottom: "conv1"
  top: "pool1"
  pooling_param {
    pool: MAX
    kernel_size: 2
    stride: 2
  }
}
layer {
  name: "ip1"
  type: "InnerProduct"
  bottom: "pool1"
  top: "ip1"
  param {
    lr_mult: 1
  }
  param {
    lr_mult: 2
  }
  inner_product_param {
    num_output: 10
    weight_filler {
      type: "xavier"
    }
    bias_filler {
      type: "constant"
    }
  }
}
layer {
  name: "relu1"
  type: "ReLU"
  bottom: "ip1"
  top: "ip1"
}
layer {
  name: "ip2"
  type: "InnerProduct"
  bottom: "ip1"
  top: "ip2"
  param {
    lr_mult: 1
  }
  param {
    lr_mult: 2
  }
  inner_product_param {
    num_output: 50
    weight_filler {
      type: "xavier"
    }
    bias_filler {
      type: "constant"
    }
  }
}
layer {
  name: "relu2"
  type: "ReLU"
  bottom: "ip2"
  top: "ip2"
}
layer {
  name: "ip3"
  type: "InnerProduct"
  bottom: "ip2"
  top: "ip3"
  param {
    lr_mult: 1
  }
  param {
    lr_mult: 2
  }
  inner_product_param {
    num_output: 10
    weight_filler {
      type: "xavier"
    }
    bias_filler {
      type: "constant"
    }
  }
}
layer {
  name: "relu3"
  type: "ReLU"
  bottom: "ip3"
  top: "ip3"
}
layer {
  name: "accuracy"
  type: "Accuracy"
  bottom: "ip3"
  bottom: "label"
  top: "accuracy"
  include {
    phase: TEST
  }
}
layer {
  name: "loss"
  type: "SoftmaxWithLoss"
  bottom: "ip3"
  bottom: "label"
  top: "loss"
}
I0428 19:50:28.105129 27018 layer_factory.hpp:77] Creating layer mnist
I0428 19:50:28.105188 27018 db_lmdb.cpp:35] Opened lmdb examples/mnist/mnist_test_lmdb
I0428 19:50:28.105202 27018 net.cpp:86] Creating Layer mnist
I0428 19:50:28.105207 27018 net.cpp:382] mnist -> data
I0428 19:50:28.105216 27018 net.cpp:382] mnist -> label
I0428 19:50:28.105315 27018 data_layer.cpp:45] output data size: 100,1,28,28
I0428 19:50:28.107252 27018 net.cpp:124] Setting up mnist
I0428 19:50:28.107280 27018 net.cpp:131] Top shape: 100 1 28 28 (78400)
I0428 19:50:28.107302 27018 net.cpp:131] Top shape: 100 (100)
I0428 19:50:28.107306 27018 net.cpp:139] Memory required for data: 314000
I0428 19:50:28.107309 27018 layer_factory.hpp:77] Creating layer label_mnist_1_split
I0428 19:50:28.107331 27018 net.cpp:86] Creating Layer label_mnist_1_split
I0428 19:50:28.107334 27018 net.cpp:408] label_mnist_1_split <- label
I0428 19:50:28.107338 27018 net.cpp:382] label_mnist_1_split -> label_mnist_1_split_0
I0428 19:50:28.107345 27018 net.cpp:382] label_mnist_1_split -> label_mnist_1_split_1
I0428 19:50:28.107388 27018 net.cpp:124] Setting up label_mnist_1_split
I0428 19:50:28.107395 27018 net.cpp:131] Top shape: 100 (100)
I0428 19:50:28.107398 27018 net.cpp:131] Top shape: 100 (100)
I0428 19:50:28.107401 27018 net.cpp:139] Memory required for data: 314800
I0428 19:50:28.107404 27018 layer_factory.hpp:77] Creating layer conv0
I0428 19:50:28.107412 27018 net.cpp:86] Creating Layer conv0
I0428 19:50:28.107415 27018 net.cpp:408] conv0 <- data
I0428 19:50:28.107420 27018 net.cpp:382] conv0 -> conv0
I0428 19:50:28.109124 27018 net.cpp:124] Setting up conv0
I0428 19:50:28.109139 27018 net.cpp:131] Top shape: 100 5 24 24 (288000)
I0428 19:50:28.109144 27018 net.cpp:139] Memory required for data: 1466800
I0428 19:50:28.109154 27018 layer_factory.hpp:77] Creating layer pool0
I0428 19:50:28.109161 27018 net.cpp:86] Creating Layer pool0
I0428 19:50:28.109165 27018 net.cpp:408] pool0 <- conv0
I0428 19:50:28.109170 27018 net.cpp:382] pool0 -> pool0
I0428 19:50:28.109225 27018 net.cpp:124] Setting up pool0
I0428 19:50:28.109241 27018 net.cpp:131] Top shape: 100 5 12 12 (72000)
I0428 19:50:28.109244 27018 net.cpp:139] Memory required for data: 1754800
I0428 19:50:28.109247 27018 layer_factory.hpp:77] Creating layer conv1
I0428 19:50:28.109256 27018 net.cpp:86] Creating Layer conv1
I0428 19:50:28.109259 27018 net.cpp:408] conv1 <- pool0
I0428 19:50:28.109264 27018 net.cpp:382] conv1 -> conv1
I0428 19:50:28.111394 27018 net.cpp:124] Setting up conv1
I0428 19:50:28.111409 27018 net.cpp:131] Top shape: 100 10 8 8 (64000)
I0428 19:50:28.111413 27018 net.cpp:139] Memory required for data: 2010800
I0428 19:50:28.111438 27018 layer_factory.hpp:77] Creating layer pool1
I0428 19:50:28.111443 27018 net.cpp:86] Creating Layer pool1
I0428 19:50:28.111448 27018 net.cpp:408] pool1 <- conv1
I0428 19:50:28.111452 27018 net.cpp:382] pool1 -> pool1
I0428 19:50:28.111505 27018 net.cpp:124] Setting up pool1
I0428 19:50:28.111511 27018 net.cpp:131] Top shape: 100 10 4 4 (16000)
I0428 19:50:28.111515 27018 net.cpp:139] Memory required for data: 2074800
I0428 19:50:28.111518 27018 layer_factory.hpp:77] Creating layer ip1
I0428 19:50:28.111523 27018 net.cpp:86] Creating Layer ip1
I0428 19:50:28.111527 27018 net.cpp:408] ip1 <- pool1
I0428 19:50:28.111532 27018 net.cpp:382] ip1 -> ip1
I0428 19:50:28.111675 27018 net.cpp:124] Setting up ip1
I0428 19:50:28.111681 27018 net.cpp:131] Top shape: 100 10 (1000)
I0428 19:50:28.111696 27018 net.cpp:139] Memory required for data: 2078800
I0428 19:50:28.111702 27018 layer_factory.hpp:77] Creating layer relu1
I0428 19:50:28.111707 27018 net.cpp:86] Creating Layer relu1
I0428 19:50:28.111711 27018 net.cpp:408] relu1 <- ip1
I0428 19:50:28.111716 27018 net.cpp:369] relu1 -> ip1 (in-place)
I0428 19:50:28.111927 27018 net.cpp:124] Setting up relu1
I0428 19:50:28.111950 27018 net.cpp:131] Top shape: 100 10 (1000)
I0428 19:50:28.111953 27018 net.cpp:139] Memory required for data: 2082800
I0428 19:50:28.111956 27018 layer_factory.hpp:77] Creating layer ip2
I0428 19:50:28.111964 27018 net.cpp:86] Creating Layer ip2
I0428 19:50:28.111968 27018 net.cpp:408] ip2 <- ip1
I0428 19:50:28.111974 27018 net.cpp:382] ip2 -> ip2
I0428 19:50:28.112071 27018 net.cpp:124] Setting up ip2
I0428 19:50:28.112078 27018 net.cpp:131] Top shape: 100 50 (5000)
I0428 19:50:28.112082 27018 net.cpp:139] Memory required for data: 2102800
I0428 19:50:28.112087 27018 layer_factory.hpp:77] Creating layer relu2
I0428 19:50:28.112090 27018 net.cpp:86] Creating Layer relu2
I0428 19:50:28.112094 27018 net.cpp:408] relu2 <- ip2
I0428 19:50:28.112098 27018 net.cpp:369] relu2 -> ip2 (in-place)
I0428 19:50:28.112241 27018 net.cpp:124] Setting up relu2
I0428 19:50:28.112249 27018 net.cpp:131] Top shape: 100 50 (5000)
I0428 19:50:28.112252 27018 net.cpp:139] Memory required for data: 2122800
I0428 19:50:28.112256 27018 layer_factory.hpp:77] Creating layer ip3
I0428 19:50:28.112277 27018 net.cpp:86] Creating Layer ip3
I0428 19:50:28.112279 27018 net.cpp:408] ip3 <- ip2
I0428 19:50:28.112284 27018 net.cpp:382] ip3 -> ip3
I0428 19:50:28.112401 27018 net.cpp:124] Setting up ip3
I0428 19:50:28.112408 27018 net.cpp:131] Top shape: 100 10 (1000)
I0428 19:50:28.112411 27018 net.cpp:139] Memory required for data: 2126800
I0428 19:50:28.112419 27018 layer_factory.hpp:77] Creating layer relu3
I0428 19:50:28.112423 27018 net.cpp:86] Creating Layer relu3
I0428 19:50:28.112427 27018 net.cpp:408] relu3 <- ip3
I0428 19:50:28.112432 27018 net.cpp:369] relu3 -> ip3 (in-place)
I0428 19:50:28.113286 27018 net.cpp:124] Setting up relu3
I0428 19:50:28.113297 27018 net.cpp:131] Top shape: 100 10 (1000)
I0428 19:50:28.113301 27018 net.cpp:139] Memory required for data: 2130800
I0428 19:50:28.113304 27018 layer_factory.hpp:77] Creating layer ip3_relu3_0_split
I0428 19:50:28.113309 27018 net.cpp:86] Creating Layer ip3_relu3_0_split
I0428 19:50:28.113313 27018 net.cpp:408] ip3_relu3_0_split <- ip3
I0428 19:50:28.113318 27018 net.cpp:382] ip3_relu3_0_split -> ip3_relu3_0_split_0
I0428 19:50:28.113324 27018 net.cpp:382] ip3_relu3_0_split -> ip3_relu3_0_split_1
I0428 19:50:28.113371 27018 net.cpp:124] Setting up ip3_relu3_0_split
I0428 19:50:28.113379 27018 net.cpp:131] Top shape: 100 10 (1000)
I0428 19:50:28.113382 27018 net.cpp:131] Top shape: 100 10 (1000)
I0428 19:50:28.113384 27018 net.cpp:139] Memory required for data: 2138800
I0428 19:50:28.113387 27018 layer_factory.hpp:77] Creating layer accuracy
I0428 19:50:28.113392 27018 net.cpp:86] Creating Layer accuracy
I0428 19:50:28.113395 27018 net.cpp:408] accuracy <- ip3_relu3_0_split_0
I0428 19:50:28.113399 27018 net.cpp:408] accuracy <- label_mnist_1_split_0
I0428 19:50:28.113404 27018 net.cpp:382] accuracy -> accuracy
…
