…
I0428 19:55:31.709440 28196 net.cpp:296] The NetState phase (0) differed from the phase (1) specified by a rule in layer mnist
I0428 19:55:31.709470 28196 net.cpp:296] The NetState phase (0) differed from the phase (1) specified by a rule in layer accuracy
I0428 19:55:31.709548 28196 net.cpp:53] Initializing net from parameters: 
name: "LeNet"
state {
  phase: TRAIN
  level: 0
  stage: ""
}
layer {
  name: "mnist"
  type: "Data"
  top: "data"
  top: "label"
  include {
    phase: TRAIN
  }
  transform_param {
    scale: 0.00390625
  }
  data_param {
    source: "examples/mnist/mnist_train_lmdb"
    batch_size: 64
    backend: LMDB
  }
}
layer {
  name: "conv0"
  type: "Convolution"
  bottom: "data"
  top: "conv0"
  param {
    lr_mult: 1
  }
  param {
    lr_mult: 2
  }
  convolution_param {
    num_output: 5
    kernel_size: 5
    stride: 1
    weight_filler {
      type: "xavier"
    }
    bias_filler {
      type: "constant"
    }
  }
}
layer {
  name: "pool0"
  type: "Pooling"
  bottom: "conv0"
  top: "pool0"
  pooling_param {
    pool: MAX
    kernel_size: 2
    stride: 2
  }
}
layer {
  name: "conv1"
  type: "Convolution"
  bottom: "pool0"
  top: "conv1"
  param {
    lr_mult: 1
  }
  param {
    lr_mult: 2
  }
  convolution_param {
    num_output: 100
    kernel_size: 5
    stride: 1
    weight_filler {
      type: "xavier"
    }
    bias_filler {
      type: "constant"
    }
  }
}
layer {
  name: "pool1"
  type: "Pooling"
  bottom: "conv1"
  top: "pool1"
  pooling_param {
    pool: MAX
    kernel_size: 2
    stride: 2
  }
}
layer {
  name: "ip1"
  type: "InnerProduct"
  bottom: "pool1"
  top: "ip1"
  param {
    lr_mult: 1
  }
  param {
    lr_mult: 2
  }
  inner_product_param {
    num_output: 50
    weight_filler {
      type: "xavier"
    }
    bias_filler {
      type: "constant"
    }
  }
}
layer {
  name: "relu1"
  type: "ReLU"
  bottom: "ip1"
  top: "ip1"
}
layer {
  name: "ip2"
  type: "InnerProduct"
  bottom: "ip1"
  top: "ip2"
  param {
    lr_mult: 1
  }
  param {
    lr_mult: 2
  }
  inner_product_param {
    num_output: 10
    weight_filler {
      type: "xavier"
    }
    bias_filler {
      type: "constant"
    }
  }
}
layer {
  name: "relu2"
  type: "ReLU"
  bottom: "ip2"
  top: "ip2"
}
layer {
  name: "ip3"
  type: "InnerProduct"
  bottom: "ip2"
  top: "ip3"
  param {
    lr_mult: 1
  }
  param {
    lr_mult: 2
  }
  inner_product_param {
    num_output: 10
    weight_filler {
      type: "xavier"
    }
    bias_filler {
      type: "constant"
    }
  }
}
layer {
  name: "relu3"
  type: "ReLU"
  bottom: "ip3"
  top: "ip3"
}
layer {
  name: "loss"
  type: "SoftmaxWithLoss"
  bottom: "ip3"
  bottom: "label"
  top: "loss"
}
I0428 19:55:31.709609 28196 layer_factory.hpp:77] Creating layer mnist
I0428 19:55:31.709703 28196 db_lmdb.cpp:35] Opened lmdb examples/mnist/mnist_train_lmdb
I0428 19:55:31.709722 28196 net.cpp:86] Creating Layer mnist
I0428 19:55:31.709728 28196 net.cpp:382] mnist -> data
I0428 19:55:31.709746 28196 net.cpp:382] mnist -> label
I0428 19:55:31.710705 28196 data_layer.cpp:45] output data size: 64,1,28,28
I0428 19:55:31.712802 28196 net.cpp:124] Setting up mnist
I0428 19:55:31.712838 28196 net.cpp:131] Top shape: 64 1 28 28 (50176)
I0428 19:55:31.712854 28196 net.cpp:131] Top shape: 64 (64)
I0428 19:55:31.712858 28196 net.cpp:139] Memory required for data: 200960
I0428 19:55:31.712864 28196 layer_factory.hpp:77] Creating layer conv0
I0428 19:55:31.712878 28196 net.cpp:86] Creating Layer conv0
I0428 19:55:31.712910 28196 net.cpp:408] conv0 <- data
I0428 19:55:31.712920 28196 net.cpp:382] conv0 -> conv0
I0428 19:55:31.940237 28196 net.cpp:124] Setting up conv0
I0428 19:55:31.940263 28196 net.cpp:131] Top shape: 64 5 24 24 (184320)
I0428 19:55:31.940266 28196 net.cpp:139] Memory required for data: 938240
I0428 19:55:31.940280 28196 layer_factory.hpp:77] Creating layer pool0
I0428 19:55:31.940292 28196 net.cpp:86] Creating Layer pool0
I0428 19:55:31.940296 28196 net.cpp:408] pool0 <- conv0
I0428 19:55:31.940301 28196 net.cpp:382] pool0 -> pool0
I0428 19:55:31.940361 28196 net.cpp:124] Setting up pool0
I0428 19:55:31.940368 28196 net.cpp:131] Top shape: 64 5 12 12 (46080)
I0428 19:55:31.940371 28196 net.cpp:139] Memory required for data: 1122560
I0428 19:55:31.940374 28196 layer_factory.hpp:77] Creating layer conv1
I0428 19:55:31.940384 28196 net.cpp:86] Creating Layer conv1
I0428 19:55:31.940388 28196 net.cpp:408] conv1 <- pool0
I0428 19:55:31.940392 28196 net.cpp:382] conv1 -> conv1
I0428 19:55:31.943219 28196 net.cpp:124] Setting up conv1
I0428 19:55:31.943234 28196 net.cpp:131] Top shape: 64 100 8 8 (409600)
I0428 19:55:31.943238 28196 net.cpp:139] Memory required for data: 2760960
I0428 19:55:31.943246 28196 layer_factory.hpp:77] Creating layer pool1
I0428 19:55:31.943269 28196 net.cpp:86] Creating Layer pool1
I0428 19:55:31.943274 28196 net.cpp:408] pool1 <- conv1
I0428 19:55:31.943279 28196 net.cpp:382] pool1 -> pool1
I0428 19:55:31.943315 28196 net.cpp:124] Setting up pool1
I0428 19:55:31.943322 28196 net.cpp:131] Top shape: 64 100 4 4 (102400)
I0428 19:55:31.943325 28196 net.cpp:139] Memory required for data: 3170560
I0428 19:55:31.943328 28196 layer_factory.hpp:77] Creating layer ip1
I0428 19:55:31.943336 28196 net.cpp:86] Creating Layer ip1
I0428 19:55:31.943338 28196 net.cpp:408] ip1 <- pool1
I0428 19:55:31.943343 28196 net.cpp:382] ip1 -> ip1
I0428 19:55:31.944785 28196 net.cpp:124] Setting up ip1
I0428 19:55:31.944797 28196 net.cpp:131] Top shape: 64 50 (3200)
I0428 19:55:31.944800 28196 net.cpp:139] Memory required for data: 3183360
I0428 19:55:31.944833 28196 layer_factory.hpp:77] Creating layer relu1
I0428 19:55:31.944839 28196 net.cpp:86] Creating Layer relu1
I0428 19:55:31.944841 28196 net.cpp:408] relu1 <- ip1
I0428 19:55:31.944846 28196 net.cpp:369] relu1 -> ip1 (in-place)
I0428 19:55:31.945030 28196 net.cpp:124] Setting up relu1
I0428 19:55:31.945040 28196 net.cpp:131] Top shape: 64 50 (3200)
I0428 19:55:31.945044 28196 net.cpp:139] Memory required for data: 3196160
I0428 19:55:31.945046 28196 layer_factory.hpp:77] Creating layer ip2
I0428 19:55:31.945053 28196 net.cpp:86] Creating Layer ip2
I0428 19:55:31.945056 28196 net.cpp:408] ip2 <- ip1
I0428 19:55:31.945061 28196 net.cpp:382] ip2 -> ip2
I0428 19:55:31.945159 28196 net.cpp:124] Setting up ip2
I0428 19:55:31.945165 28196 net.cpp:131] Top shape: 64 10 (640)
I0428 19:55:31.945168 28196 net.cpp:139] Memory required for data: 3198720
I0428 19:55:31.945174 28196 layer_factory.hpp:77] Creating layer relu2
I0428 19:55:31.945180 28196 net.cpp:86] Creating Layer relu2
I0428 19:55:31.945183 28196 net.cpp:408] relu2 <- ip2
I0428 19:55:31.945188 28196 net.cpp:369] relu2 -> ip2 (in-place)
I0428 19:55:31.946038 28196 net.cpp:124] Setting up relu2
I0428 19:55:31.946066 28196 net.cpp:131] Top shape: 64 10 (640)
I0428 19:55:31.946070 28196 net.cpp:139] Memory required for data: 3201280
I0428 19:55:31.946074 28196 layer_factory.hpp:77] Creating layer ip3
I0428 19:55:31.946081 28196 net.cpp:86] Creating Layer ip3
I0428 19:55:31.946084 28196 net.cpp:408] ip3 <- ip2
I0428 19:55:31.946089 28196 net.cpp:382] ip3 -> ip3
I0428 19:55:31.946185 28196 net.cpp:124] Setting up ip3
I0428 19:55:31.946193 28196 net.cpp:131] Top shape: 64 10 (640)
I0428 19:55:31.946197 28196 net.cpp:139] Memory required for data: 3203840
I0428 19:55:31.946204 28196 layer_factory.hpp:77] Creating layer relu3
I0428 19:55:31.946208 28196 net.cpp:86] Creating Layer relu3
I0428 19:55:31.946213 28196 net.cpp:408] relu3 <- ip3
I0428 19:55:31.946216 28196 net.cpp:369] relu3 -> ip3 (in-place)
I0428 19:55:31.946393 28196 net.cpp:124] Setting up relu3
I0428 19:55:31.946401 28196 net.cpp:131] Top shape: 64 10 (640)
I0428 19:55:31.946405 28196 net.cpp:139] Memory required for data: 3206400
I0428 19:55:31.946408 28196 layer_factory.hpp:77] Creating layer loss
I0428 19:55:31.946413 28196 net.cpp:86] Creating Layer loss
I0428 19:55:31.946416 28196 net.cpp:408] loss <- ip3
I0428 19:55:31.946420 28196 net.cpp:408] loss <- label
I0428 19:55:31.946425 28196 net.cpp:382] loss -> loss
I0428 19:55:31.946439 28196 layer_factory.hpp:77] Creating layer loss
…
I0428 19:55:31.947069 28196 solver.cpp:173] Creating test net (#0) specified by net file: ECE595/mnist/train_test/var_everything2/lenet_train_test734.prototxt
I0428 19:55:31.947126 28196 net.cpp:296] The NetState phase (1) differed from the phase (0) specified by a rule in layer mnist
I0428 19:55:31.947211 28196 net.cpp:53] Initializing net from parameters: 
name: "LeNet"
state {
  phase: TEST
}
layer {
  name: "mnist"
  type: "Data"
  top: "data"
  top: "label"
  include {
    phase: TEST
  }
  transform_param {
    scale: 0.00390625
  }
  data_param {
    source: "examples/mnist/mnist_test_lmdb"
    batch_size: 100
    backend: LMDB
  }
}
layer {
  name: "conv0"
  type: "Convolution"
  bottom: "data"
  top: "conv0"
  param {
    lr_mult: 1
  }
  param {
    lr_mult: 2
  }
  convolution_param {
    num_output: 5
    kernel_size: 5
    stride: 1
    weight_filler {
      type: "xavier"
    }
    bias_filler {
      type: "constant"
    }
  }
}
layer {
  name: "pool0"
  type: "Pooling"
  bottom: "conv0"
  top: "pool0"
  pooling_param {
    pool: MAX
    kernel_size: 2
    stride: 2
  }
}
layer {
  name: "conv1"
  type: "Convolution"
  bottom: "pool0"
  top: "conv1"
  param {
    lr_mult: 1
  }
  param {
    lr_mult: 2
  }
  convolution_param {
    num_output: 100
    kernel_size: 5
    stride: 1
    weight_filler {
      type: "xavier"
    }
    bias_filler {
      type: "constant"
    }
  }
}
layer {
  name: "pool1"
  type: "Pooling"
  bottom: "conv1"
  top: "pool1"
  pooling_param {
    pool: MAX
    kernel_size: 2
    stride: 2
  }
}
layer {
  name: "ip1"
  type: "InnerProduct"
  bottom: "pool1"
  top: "ip1"
  param {
    lr_mult: 1
  }
  param {
    lr_mult: 2
  }
  inner_product_param {
    num_output: 50
    weight_filler {
      type: "xavier"
    }
    bias_filler {
      type: "constant"
    }
  }
}
layer {
  name: "relu1"
  type: "ReLU"
  bottom: "ip1"
  top: "ip1"
}
layer {
  name: "ip2"
  type: "InnerProduct"
  bottom: "ip1"
  top: "ip2"
  param {
    lr_mult: 1
  }
  param {
    lr_mult: 2
  }
  inner_product_param {
    num_output: 10
    weight_filler {
      type: "xavier"
    }
    bias_filler {
      type: "constant"
    }
  }
}
layer {
  name: "relu2"
  type: "ReLU"
  bottom: "ip2"
  top: "ip2"
}
layer {
  name: "ip3"
  type: "InnerProduct"
  bottom: "ip2"
  top: "ip3"
  param {
    lr_mult: 1
  }
  param {
    lr_mult: 2
  }
  inner_product_param {
    num_output: 10
    weight_filler {
      type: "xavier"
    }
    bias_filler {
      type: "constant"
    }
  }
}
layer {
  name: "relu3"
  type: "ReLU"
  bottom: "ip3"
  top: "ip3"
}
layer {
  name: "accuracy"
  type: "Accuracy"
  bottom: "ip3"
  bottom: "label"
  top: "accuracy"
  include {
    phase: TEST
  }
}
layer {
  name: "loss"
  type: "SoftmaxWithLoss"
  bottom: "ip3"
  bottom: "label"
  top: "loss"
}
I0428 19:55:31.947288 28196 layer_factory.hpp:77] Creating layer mnist
I0428 19:55:31.947331 28196 db_lmdb.cpp:35] Opened lmdb examples/mnist/mnist_test_lmdb
I0428 19:55:31.947343 28196 net.cpp:86] Creating Layer mnist
I0428 19:55:31.947348 28196 net.cpp:382] mnist -> data
I0428 19:55:31.947355 28196 net.cpp:382] mnist -> label
I0428 19:55:31.947437 28196 data_layer.cpp:45] output data size: 100,1,28,28
I0428 19:55:31.948599 28196 net.cpp:124] Setting up mnist
I0428 19:55:31.948613 28196 net.cpp:131] Top shape: 100 1 28 28 (78400)
I0428 19:55:31.948634 28196 net.cpp:131] Top shape: 100 (100)
I0428 19:55:31.948637 28196 net.cpp:139] Memory required for data: 314000
I0428 19:55:31.948640 28196 layer_factory.hpp:77] Creating layer label_mnist_1_split
I0428 19:55:31.948647 28196 net.cpp:86] Creating Layer label_mnist_1_split
I0428 19:55:31.948652 28196 net.cpp:408] label_mnist_1_split <- label
I0428 19:55:31.948657 28196 net.cpp:382] label_mnist_1_split -> label_mnist_1_split_0
I0428 19:55:31.948664 28196 net.cpp:382] label_mnist_1_split -> label_mnist_1_split_1
I0428 19:55:31.948763 28196 net.cpp:124] Setting up label_mnist_1_split
I0428 19:55:31.948772 28196 net.cpp:131] Top shape: 100 (100)
I0428 19:55:31.948776 28196 net.cpp:131] Top shape: 100 (100)
I0428 19:55:31.948779 28196 net.cpp:139] Memory required for data: 314800
I0428 19:55:31.948782 28196 layer_factory.hpp:77] Creating layer conv0
I0428 19:55:31.948791 28196 net.cpp:86] Creating Layer conv0
I0428 19:55:31.948794 28196 net.cpp:408] conv0 <- data
I0428 19:55:31.948799 28196 net.cpp:382] conv0 -> conv0
I0428 19:55:31.950455 28196 net.cpp:124] Setting up conv0
I0428 19:55:31.950485 28196 net.cpp:131] Top shape: 100 5 24 24 (288000)
I0428 19:55:31.950489 28196 net.cpp:139] Memory required for data: 1466800
I0428 19:55:31.950498 28196 layer_factory.hpp:77] Creating layer pool0
I0428 19:55:31.950506 28196 net.cpp:86] Creating Layer pool0
I0428 19:55:31.950510 28196 net.cpp:408] pool0 <- conv0
I0428 19:55:31.950515 28196 net.cpp:382] pool0 -> pool0
I0428 19:55:31.950567 28196 net.cpp:124] Setting up pool0
I0428 19:55:31.950572 28196 net.cpp:131] Top shape: 100 5 12 12 (72000)
I0428 19:55:31.950575 28196 net.cpp:139] Memory required for data: 1754800
I0428 19:55:31.950578 28196 layer_factory.hpp:77] Creating layer conv1
I0428 19:55:31.950588 28196 net.cpp:86] Creating Layer conv1
I0428 19:55:31.950592 28196 net.cpp:408] conv1 <- pool0
I0428 19:55:31.950597 28196 net.cpp:382] conv1 -> conv1
I0428 19:55:31.952172 28196 net.cpp:124] Setting up conv1
I0428 19:55:31.952184 28196 net.cpp:131] Top shape: 100 100 8 8 (640000)
I0428 19:55:31.952204 28196 net.cpp:139] Memory required for data: 4314800
I0428 19:55:31.952214 28196 layer_factory.hpp:77] Creating layer pool1
I0428 19:55:31.952221 28196 net.cpp:86] Creating Layer pool1
I0428 19:55:31.952224 28196 net.cpp:408] pool1 <- conv1
I0428 19:55:31.952229 28196 net.cpp:382] pool1 -> pool1
I0428 19:55:31.952266 28196 net.cpp:124] Setting up pool1
I0428 19:55:31.952287 28196 net.cpp:131] Top shape: 100 100 4 4 (160000)
I0428 19:55:31.952291 28196 net.cpp:139] Memory required for data: 4954800
I0428 19:55:31.952293 28196 layer_factory.hpp:77] Creating layer ip1
I0428 19:55:31.952299 28196 net.cpp:86] Creating Layer ip1
I0428 19:55:31.952302 28196 net.cpp:408] ip1 <- pool1
I0428 19:55:31.952308 28196 net.cpp:382] ip1 -> ip1
I0428 19:55:31.952919 28196 net.cpp:124] Setting up ip1
I0428 19:55:31.952929 28196 net.cpp:131] Top shape: 100 50 (5000)
I0428 19:55:31.952956 28196 net.cpp:139] Memory required for data: 4974800
I0428 19:55:31.952965 28196 layer_factory.hpp:77] Creating layer relu1
I0428 19:55:31.952973 28196 net.cpp:86] Creating Layer relu1
I0428 19:55:31.952977 28196 net.cpp:408] relu1 <- ip1
I0428 19:55:31.952981 28196 net.cpp:369] relu1 -> ip1 (in-place)
I0428 19:55:31.953163 28196 net.cpp:124] Setting up relu1
I0428 19:55:31.953173 28196 net.cpp:131] Top shape: 100 50 (5000)
I0428 19:55:31.953176 28196 net.cpp:139] Memory required for data: 4994800
I0428 19:55:31.953181 28196 layer_factory.hpp:77] Creating layer ip2
I0428 19:55:31.953187 28196 net.cpp:86] Creating Layer ip2
I0428 19:55:31.953191 28196 net.cpp:408] ip2 <- ip1
I0428 19:55:31.953197 28196 net.cpp:382] ip2 -> ip2
I0428 19:55:31.953301 28196 net.cpp:124] Setting up ip2
I0428 19:55:31.953310 28196 net.cpp:131] Top shape: 100 10 (1000)
I0428 19:55:31.953312 28196 net.cpp:139] Memory required for data: 4998800
I0428 19:55:31.953317 28196 layer_factory.hpp:77] Creating layer relu2
I0428 19:55:31.953323 28196 net.cpp:86] Creating Layer relu2
I0428 19:55:31.953326 28196 net.cpp:408] relu2 <- ip2
I0428 19:55:31.953330 28196 net.cpp:369] relu2 -> ip2 (in-place)
I0428 19:55:31.953491 28196 net.cpp:124] Setting up relu2
I0428 19:55:31.953500 28196 net.cpp:131] Top shape: 100 10 (1000)
I0428 19:55:31.953502 28196 net.cpp:139] Memory required for data: 5002800
I0428 19:55:31.953505 28196 layer_factory.hpp:77] Creating layer ip3
I0428 19:55:31.953527 28196 net.cpp:86] Creating Layer ip3
I0428 19:55:31.953531 28196 net.cpp:408] ip3 <- ip2
I0428 19:55:31.953552 28196 net.cpp:382] ip3 -> ip3
I0428 19:55:31.953666 28196 net.cpp:124] Setting up ip3
I0428 19:55:31.953675 28196 net.cpp:131] Top shape: 100 10 (1000)
I0428 19:55:31.953678 28196 net.cpp:139] Memory required for data: 5006800
I0428 19:55:31.953685 28196 layer_factory.hpp:77] Creating layer relu3
I0428 19:55:31.953691 28196 net.cpp:86] Creating Layer relu3
I0428 19:55:31.953693 28196 net.cpp:408] relu3 <- ip3
I0428 19:55:31.953697 28196 net.cpp:369] relu3 -> ip3 (in-place)
I0428 19:55:31.954483 28196 net.cpp:124] Setting up relu3
I0428 19:55:31.954494 28196 net.cpp:131] Top shape: 100 10 (1000)
I0428 19:55:31.954514 28196 net.cpp:139] Memory required for data: 5010800
I0428 19:55:31.954517 28196 layer_factory.hpp:77] Creating layer ip3_relu3_0_split
I0428 19:55:31.954525 28196 net.cpp:86] Creating Layer ip3_relu3_0_split
I0428 19:55:31.954529 28196 net.cpp:408] ip3_relu3_0_split <- ip3
I0428 19:55:31.954535 28196 net.cpp:382] ip3_relu3_0_split -> ip3_relu3_0_split_0
I0428 19:55:31.954540 28196 net.cpp:382] ip3_relu3_0_split -> ip3_relu3_0_split_1
I0428 19:55:31.954578 28196 net.cpp:124] Setting up ip3_relu3_0_split
I0428 19:55:31.954583 28196 net.cpp:131] Top shape: 100 10 (1000)
I0428 19:55:31.954586 28196 net.cpp:131] Top shape: 100 10 (1000)
I0428 19:55:31.954589 28196 net.cpp:139] Memory required for data: 5018800
I0428 19:55:31.954592 28196 layer_factory.hpp:77] Creating layer accuracy
I0428 19:55:31.954597 28196 net.cpp:86] Creating Layer accuracy
I0428 19:55:31.954601 28196 net.cpp:408] accuracy <- ip3_relu3_0_split_0
I0428 19:55:31.954604 28196 net.cpp:408] accuracy <- label_mnist_1_split_0
I0428 19:55:31.954608 28196 net.cpp:382] accuracy -> accuracy
…
