…
I0428 19:56:41.235939 28491 net.cpp:296] The NetState phase (0) differed from the phase (1) specified by a rule in layer mnist
I0428 19:56:41.235957 28491 net.cpp:296] The NetState phase (0) differed from the phase (1) specified by a rule in layer accuracy
I0428 19:56:41.236045 28491 net.cpp:53] Initializing net from parameters: 
name: "LeNet"
state {
  phase: TRAIN
  level: 0
  stage: ""
}
layer {
  name: "mnist"
  type: "Data"
  top: "data"
  top: "label"
  include {
    phase: TRAIN
  }
  transform_param {
    scale: 0.00390625
  }
  data_param {
    source: "examples/mnist/mnist_train_lmdb"
    batch_size: 64
    backend: LMDB
  }
}
layer {
  name: "conv0"
  type: "Convolution"
  bottom: "data"
  top: "conv0"
  param {
    lr_mult: 1
  }
  param {
    lr_mult: 2
  }
  convolution_param {
    num_output: 10
    kernel_size: 5
    stride: 1
    weight_filler {
      type: "xavier"
    }
    bias_filler {
      type: "constant"
    }
  }
}
layer {
  name: "pool0"
  type: "Pooling"
  bottom: "conv0"
  top: "pool0"
  pooling_param {
    pool: MAX
    kernel_size: 2
    stride: 2
  }
}
layer {
  name: "conv1"
  type: "Convolution"
  bottom: "pool0"
  top: "conv1"
  param {
    lr_mult: 1
  }
  param {
    lr_mult: 2
  }
  convolution_param {
    num_output: 2
    kernel_size: 5
    stride: 1
    weight_filler {
      type: "xavier"
    }
    bias_filler {
      type: "constant"
    }
  }
}
layer {
  name: "pool1"
  type: "Pooling"
  bottom: "conv1"
  top: "pool1"
  pooling_param {
    pool: MAX
    kernel_size: 2
    stride: 2
  }
}
layer {
  name: "ip1"
  type: "InnerProduct"
  bottom: "pool1"
  top: "ip1"
  param {
    lr_mult: 1
  }
  param {
    lr_mult: 2
  }
  inner_product_param {
    num_output: 25
    weight_filler {
      type: "xavier"
    }
    bias_filler {
      type: "constant"
    }
  }
}
layer {
  name: "relu1"
  type: "ReLU"
  bottom: "ip1"
  top: "ip1"
}
layer {
  name: "ip2"
  type: "InnerProduct"
  bottom: "ip1"
  top: "ip2"
  param {
    lr_mult: 1
  }
  param {
    lr_mult: 2
  }
  inner_product_param {
    num_output: 25
    weight_filler {
      type: "xavier"
    }
    bias_filler {
      type: "constant"
    }
  }
}
layer {
  name: "relu2"
  type: "ReLU"
  bottom: "ip2"
  top: "ip2"
}
layer {
  name: "ip3"
  type: "InnerProduct"
  bottom: "ip2"
  top: "ip3"
  param {
    lr_mult: 1
  }
  param {
    lr_mult: 2
  }
  inner_product_param {
    num_output: 10
    weight_filler {
      type: "xavier"
    }
    bias_filler {
      type: "constant"
    }
  }
}
layer {
  name: "relu3"
  type: "ReLU"
  bottom: "ip3"
  top: "ip3"
}
layer {
  name: "loss"
  type: "SoftmaxWithLoss"
  bottom: "ip3"
  bottom: "label"
  top: "loss"
}
I0428 19:56:41.236111 28491 layer_factory.hpp:77] Creating layer mnist
I0428 19:56:41.236192 28491 db_lmdb.cpp:35] Opened lmdb examples/mnist/mnist_train_lmdb
I0428 19:56:41.236212 28491 net.cpp:86] Creating Layer mnist
I0428 19:56:41.236219 28491 net.cpp:382] mnist -> data
I0428 19:56:41.236238 28491 net.cpp:382] mnist -> label
I0428 19:56:41.237171 28491 data_layer.cpp:45] output data size: 64,1,28,28
I0428 19:56:41.239379 28491 net.cpp:124] Setting up mnist
I0428 19:56:41.239408 28491 net.cpp:131] Top shape: 64 1 28 28 (50176)
I0428 19:56:41.239413 28491 net.cpp:131] Top shape: 64 (64)
I0428 19:56:41.239416 28491 net.cpp:139] Memory required for data: 200960
I0428 19:56:41.239421 28491 layer_factory.hpp:77] Creating layer conv0
I0428 19:56:41.239444 28491 net.cpp:86] Creating Layer conv0
I0428 19:56:41.239460 28491 net.cpp:408] conv0 <- data
I0428 19:56:41.239472 28491 net.cpp:382] conv0 -> conv0
I0428 19:56:41.467058 28491 net.cpp:124] Setting up conv0
I0428 19:56:41.467083 28491 net.cpp:131] Top shape: 64 10 24 24 (368640)
I0428 19:56:41.467087 28491 net.cpp:139] Memory required for data: 1675520
I0428 19:56:41.467102 28491 layer_factory.hpp:77] Creating layer pool0
I0428 19:56:41.467113 28491 net.cpp:86] Creating Layer pool0
I0428 19:56:41.467116 28491 net.cpp:408] pool0 <- conv0
I0428 19:56:41.467121 28491 net.cpp:382] pool0 -> pool0
I0428 19:56:41.467180 28491 net.cpp:124] Setting up pool0
I0428 19:56:41.467186 28491 net.cpp:131] Top shape: 64 10 12 12 (92160)
I0428 19:56:41.467188 28491 net.cpp:139] Memory required for data: 2044160
I0428 19:56:41.467191 28491 layer_factory.hpp:77] Creating layer conv1
I0428 19:56:41.467202 28491 net.cpp:86] Creating Layer conv1
I0428 19:56:41.467206 28491 net.cpp:408] conv1 <- pool0
I0428 19:56:41.467209 28491 net.cpp:382] conv1 -> conv1
I0428 19:56:41.469027 28491 net.cpp:124] Setting up conv1
I0428 19:56:41.469058 28491 net.cpp:131] Top shape: 64 2 8 8 (8192)
I0428 19:56:41.469060 28491 net.cpp:139] Memory required for data: 2076928
I0428 19:56:41.469069 28491 layer_factory.hpp:77] Creating layer pool1
I0428 19:56:41.469076 28491 net.cpp:86] Creating Layer pool1
I0428 19:56:41.469080 28491 net.cpp:408] pool1 <- conv1
I0428 19:56:41.469085 28491 net.cpp:382] pool1 -> pool1
I0428 19:56:41.469152 28491 net.cpp:124] Setting up pool1
I0428 19:56:41.469158 28491 net.cpp:131] Top shape: 64 2 4 4 (2048)
I0428 19:56:41.469161 28491 net.cpp:139] Memory required for data: 2085120
I0428 19:56:41.469163 28491 layer_factory.hpp:77] Creating layer ip1
I0428 19:56:41.469171 28491 net.cpp:86] Creating Layer ip1
I0428 19:56:41.469173 28491 net.cpp:408] ip1 <- pool1
I0428 19:56:41.469178 28491 net.cpp:382] ip1 -> ip1
I0428 19:56:41.469280 28491 net.cpp:124] Setting up ip1
I0428 19:56:41.469287 28491 net.cpp:131] Top shape: 64 25 (1600)
I0428 19:56:41.469290 28491 net.cpp:139] Memory required for data: 2091520
I0428 19:56:41.469297 28491 layer_factory.hpp:77] Creating layer relu1
I0428 19:56:41.469303 28491 net.cpp:86] Creating Layer relu1
I0428 19:56:41.469306 28491 net.cpp:408] relu1 <- ip1
I0428 19:56:41.469310 28491 net.cpp:369] relu1 -> ip1 (in-place)
I0428 19:56:41.469512 28491 net.cpp:124] Setting up relu1
I0428 19:56:41.469523 28491 net.cpp:131] Top shape: 64 25 (1600)
I0428 19:56:41.469528 28491 net.cpp:139] Memory required for data: 2097920
I0428 19:56:41.469532 28491 layer_factory.hpp:77] Creating layer ip2
I0428 19:56:41.469540 28491 net.cpp:86] Creating Layer ip2
I0428 19:56:41.469543 28491 net.cpp:408] ip2 <- ip1
I0428 19:56:41.469549 28491 net.cpp:382] ip2 -> ip2
I0428 19:56:41.469645 28491 net.cpp:124] Setting up ip2
I0428 19:56:41.469651 28491 net.cpp:131] Top shape: 64 25 (1600)
I0428 19:56:41.469655 28491 net.cpp:139] Memory required for data: 2104320
I0428 19:56:41.469660 28491 layer_factory.hpp:77] Creating layer relu2
I0428 19:56:41.469666 28491 net.cpp:86] Creating Layer relu2
I0428 19:56:41.469668 28491 net.cpp:408] relu2 <- ip2
I0428 19:56:41.469672 28491 net.cpp:369] relu2 -> ip2 (in-place)
I0428 19:56:41.470420 28491 net.cpp:124] Setting up relu2
I0428 19:56:41.470432 28491 net.cpp:131] Top shape: 64 25 (1600)
I0428 19:56:41.470450 28491 net.cpp:139] Memory required for data: 2110720
I0428 19:56:41.470454 28491 layer_factory.hpp:77] Creating layer ip3
I0428 19:56:41.470460 28491 net.cpp:86] Creating Layer ip3
I0428 19:56:41.470463 28491 net.cpp:408] ip3 <- ip2
I0428 19:56:41.470470 28491 net.cpp:382] ip3 -> ip3
I0428 19:56:41.470566 28491 net.cpp:124] Setting up ip3
I0428 19:56:41.470574 28491 net.cpp:131] Top shape: 64 10 (640)
I0428 19:56:41.470592 28491 net.cpp:139] Memory required for data: 2113280
I0428 19:56:41.470602 28491 layer_factory.hpp:77] Creating layer relu3
I0428 19:56:41.470609 28491 net.cpp:86] Creating Layer relu3
I0428 19:56:41.470613 28491 net.cpp:408] relu3 <- ip3
I0428 19:56:41.470618 28491 net.cpp:369] relu3 -> ip3 (in-place)
I0428 19:56:41.470798 28491 net.cpp:124] Setting up relu3
I0428 19:56:41.470806 28491 net.cpp:131] Top shape: 64 10 (640)
I0428 19:56:41.470809 28491 net.cpp:139] Memory required for data: 2115840
I0428 19:56:41.470813 28491 layer_factory.hpp:77] Creating layer loss
I0428 19:56:41.470819 28491 net.cpp:86] Creating Layer loss
I0428 19:56:41.470823 28491 net.cpp:408] loss <- ip3
I0428 19:56:41.470825 28491 net.cpp:408] loss <- label
I0428 19:56:41.470830 28491 net.cpp:382] loss -> loss
I0428 19:56:41.470844 28491 layer_factory.hpp:77] Creating layer loss
…
I0428 19:56:41.471513 28491 solver.cpp:173] Creating test net (#0) specified by net file: ECE595/mnist/train_test/var_everything2/lenet_train_test766.prototxt
I0428 19:56:41.471554 28491 net.cpp:296] The NetState phase (1) differed from the phase (0) specified by a rule in layer mnist
I0428 19:56:41.471647 28491 net.cpp:53] Initializing net from parameters: 
name: "LeNet"
state {
  phase: TEST
}
layer {
  name: "mnist"
  type: "Data"
  top: "data"
  top: "label"
  include {
    phase: TEST
  }
  transform_param {
    scale: 0.00390625
  }
  data_param {
    source: "examples/mnist/mnist_test_lmdb"
    batch_size: 100
    backend: LMDB
  }
}
layer {
  name: "conv0"
  type: "Convolution"
  bottom: "data"
  top: "conv0"
  param {
    lr_mult: 1
  }
  param {
    lr_mult: 2
  }
  convolution_param {
    num_output: 10
    kernel_size: 5
    stride: 1
    weight_filler {
      type: "xavier"
    }
    bias_filler {
      type: "constant"
    }
  }
}
layer {
  name: "pool0"
  type: "Pooling"
  bottom: "conv0"
  top: "pool0"
  pooling_param {
    pool: MAX
    kernel_size: 2
    stride: 2
  }
}
layer {
  name: "conv1"
  type: "Convolution"
  bottom: "pool0"
  top: "conv1"
  param {
    lr_mult: 1
  }
  param {
    lr_mult: 2
  }
  convolution_param {
    num_output: 2
    kernel_size: 5
    stride: 1
    weight_filler {
      type: "xavier"
    }
    bias_filler {
      type: "constant"
    }
  }
}
layer {
  name: "pool1"
  type: "Pooling"
  bottom: "conv1"
  top: "pool1"
  pooling_param {
    pool: MAX
    kernel_size: 2
    stride: 2
  }
}
layer {
  name: "ip1"
  type: "InnerProduct"
  bottom: "pool1"
  top: "ip1"
  param {
    lr_mult: 1
  }
  param {
    lr_mult: 2
  }
  inner_product_param {
    num_output: 25
    weight_filler {
      type: "xavier"
    }
    bias_filler {
      type: "constant"
    }
  }
}
layer {
  name: "relu1"
  type: "ReLU"
  bottom: "ip1"
  top: "ip1"
}
layer {
  name: "ip2"
  type: "InnerProduct"
  bottom: "ip1"
  top: "ip2"
  param {
    lr_mult: 1
  }
  param {
    lr_mult: 2
  }
  inner_product_param {
    num_output: 25
    weight_filler {
      type: "xavier"
    }
    bias_filler {
      type: "constant"
    }
  }
}
layer {
  name: "relu2"
  type: "ReLU"
  bottom: "ip2"
  top: "ip2"
}
layer {
  name: "ip3"
  type: "InnerProduct"
  bottom: "ip2"
  top: "ip3"
  param {
    lr_mult: 1
  }
  param {
    lr_mult: 2
  }
  inner_product_param {
    num_output: 10
    weight_filler {
      type: "xavier"
    }
    bias_filler {
      type: "constant"
    }
  }
}
layer {
  name: "relu3"
  type: "ReLU"
  bottom: "ip3"
  top: "ip3"
}
layer {
  name: "accuracy"
  type: "Accuracy"
  bottom: "ip3"
  bottom: "label"
  top: "accuracy"
  include {
    phase: TEST
  }
}
layer {
  name: "loss"
  type: "SoftmaxWithLoss"
  bottom: "ip3"
  bottom: "label"
  top: "loss"
}
I0428 19:56:41.471750 28491 layer_factory.hpp:77] Creating layer mnist
I0428 19:56:41.471807 28491 db_lmdb.cpp:35] Opened lmdb examples/mnist/mnist_test_lmdb
I0428 19:56:41.471820 28491 net.cpp:86] Creating Layer mnist
I0428 19:56:41.471824 28491 net.cpp:382] mnist -> data
I0428 19:56:41.471832 28491 net.cpp:382] mnist -> label
I0428 19:56:41.471915 28491 data_layer.cpp:45] output data size: 100,1,28,28
I0428 19:56:41.474114 28491 net.cpp:124] Setting up mnist
I0428 19:56:41.474143 28491 net.cpp:131] Top shape: 100 1 28 28 (78400)
I0428 19:56:41.474148 28491 net.cpp:131] Top shape: 100 (100)
I0428 19:56:41.474150 28491 net.cpp:139] Memory required for data: 314000
I0428 19:56:41.474153 28491 layer_factory.hpp:77] Creating layer label_mnist_1_split
I0428 19:56:41.474189 28491 net.cpp:86] Creating Layer label_mnist_1_split
I0428 19:56:41.474192 28491 net.cpp:408] label_mnist_1_split <- label
I0428 19:56:41.474215 28491 net.cpp:382] label_mnist_1_split -> label_mnist_1_split_0
I0428 19:56:41.474221 28491 net.cpp:382] label_mnist_1_split -> label_mnist_1_split_1
I0428 19:56:41.474269 28491 net.cpp:124] Setting up label_mnist_1_split
I0428 19:56:41.474275 28491 net.cpp:131] Top shape: 100 (100)
I0428 19:56:41.474278 28491 net.cpp:131] Top shape: 100 (100)
I0428 19:56:41.474282 28491 net.cpp:139] Memory required for data: 314800
I0428 19:56:41.474283 28491 layer_factory.hpp:77] Creating layer conv0
I0428 19:56:41.474292 28491 net.cpp:86] Creating Layer conv0
I0428 19:56:41.474295 28491 net.cpp:408] conv0 <- data
I0428 19:56:41.474301 28491 net.cpp:382] conv0 -> conv0
I0428 19:56:41.476063 28491 net.cpp:124] Setting up conv0
I0428 19:56:41.476076 28491 net.cpp:131] Top shape: 100 10 24 24 (576000)
I0428 19:56:41.476079 28491 net.cpp:139] Memory required for data: 2618800
I0428 19:56:41.476088 28491 layer_factory.hpp:77] Creating layer pool0
I0428 19:56:41.476094 28491 net.cpp:86] Creating Layer pool0
I0428 19:56:41.476106 28491 net.cpp:408] pool0 <- conv0
I0428 19:56:41.476112 28491 net.cpp:382] pool0 -> pool0
I0428 19:56:41.476146 28491 net.cpp:124] Setting up pool0
I0428 19:56:41.476151 28491 net.cpp:131] Top shape: 100 10 12 12 (144000)
I0428 19:56:41.476153 28491 net.cpp:139] Memory required for data: 3194800
I0428 19:56:41.476156 28491 layer_factory.hpp:77] Creating layer conv1
I0428 19:56:41.476166 28491 net.cpp:86] Creating Layer conv1
I0428 19:56:41.476168 28491 net.cpp:408] conv1 <- pool0
I0428 19:56:41.476173 28491 net.cpp:382] conv1 -> conv1
I0428 19:56:41.478224 28491 net.cpp:124] Setting up conv1
I0428 19:56:41.478237 28491 net.cpp:131] Top shape: 100 2 8 8 (12800)
I0428 19:56:41.478250 28491 net.cpp:139] Memory required for data: 3246000
I0428 19:56:41.478258 28491 layer_factory.hpp:77] Creating layer pool1
I0428 19:56:41.478279 28491 net.cpp:86] Creating Layer pool1
I0428 19:56:41.478283 28491 net.cpp:408] pool1 <- conv1
I0428 19:56:41.478289 28491 net.cpp:382] pool1 -> pool1
I0428 19:56:41.478328 28491 net.cpp:124] Setting up pool1
I0428 19:56:41.478334 28491 net.cpp:131] Top shape: 100 2 4 4 (3200)
I0428 19:56:41.478337 28491 net.cpp:139] Memory required for data: 3258800
I0428 19:56:41.478339 28491 layer_factory.hpp:77] Creating layer ip1
I0428 19:56:41.478346 28491 net.cpp:86] Creating Layer ip1
I0428 19:56:41.478355 28491 net.cpp:408] ip1 <- pool1
I0428 19:56:41.478360 28491 net.cpp:382] ip1 -> ip1
I0428 19:56:41.478476 28491 net.cpp:124] Setting up ip1
I0428 19:56:41.478483 28491 net.cpp:131] Top shape: 100 25 (2500)
I0428 19:56:41.478495 28491 net.cpp:139] Memory required for data: 3268800
I0428 19:56:41.478502 28491 layer_factory.hpp:77] Creating layer relu1
I0428 19:56:41.478507 28491 net.cpp:86] Creating Layer relu1
I0428 19:56:41.478510 28491 net.cpp:408] relu1 <- ip1
I0428 19:56:41.478515 28491 net.cpp:369] relu1 -> ip1 (in-place)
I0428 19:56:41.478740 28491 net.cpp:124] Setting up relu1
I0428 19:56:41.478749 28491 net.cpp:131] Top shape: 100 25 (2500)
I0428 19:56:41.478752 28491 net.cpp:139] Memory required for data: 3278800
I0428 19:56:41.478771 28491 layer_factory.hpp:77] Creating layer ip2
I0428 19:56:41.478778 28491 net.cpp:86] Creating Layer ip2
I0428 19:56:41.478781 28491 net.cpp:408] ip2 <- ip1
I0428 19:56:41.478787 28491 net.cpp:382] ip2 -> ip2
I0428 19:56:41.478914 28491 net.cpp:124] Setting up ip2
I0428 19:56:41.478920 28491 net.cpp:131] Top shape: 100 25 (2500)
I0428 19:56:41.478924 28491 net.cpp:139] Memory required for data: 3288800
I0428 19:56:41.478929 28491 layer_factory.hpp:77] Creating layer relu2
I0428 19:56:41.478934 28491 net.cpp:86] Creating Layer relu2
I0428 19:56:41.478935 28491 net.cpp:408] relu2 <- ip2
I0428 19:56:41.478940 28491 net.cpp:369] relu2 -> ip2 (in-place)
I0428 19:56:41.479096 28491 net.cpp:124] Setting up relu2
I0428 19:56:41.479120 28491 net.cpp:131] Top shape: 100 25 (2500)
I0428 19:56:41.479123 28491 net.cpp:139] Memory required for data: 3298800
I0428 19:56:41.479126 28491 layer_factory.hpp:77] Creating layer ip3
I0428 19:56:41.479133 28491 net.cpp:86] Creating Layer ip3
I0428 19:56:41.479143 28491 net.cpp:408] ip3 <- ip2
I0428 19:56:41.479147 28491 net.cpp:382] ip3 -> ip3
I0428 19:56:41.479249 28491 net.cpp:124] Setting up ip3
I0428 19:56:41.479255 28491 net.cpp:131] Top shape: 100 10 (1000)
I0428 19:56:41.479259 28491 net.cpp:139] Memory required for data: 3302800
I0428 19:56:41.479266 28491 layer_factory.hpp:77] Creating layer relu3
I0428 19:56:41.479271 28491 net.cpp:86] Creating Layer relu3
I0428 19:56:41.479275 28491 net.cpp:408] relu3 <- ip3
I0428 19:56:41.479279 28491 net.cpp:369] relu3 -> ip3 (in-place)
I0428 19:56:41.480082 28491 net.cpp:124] Setting up relu3
I0428 19:56:41.480094 28491 net.cpp:131] Top shape: 100 10 (1000)
I0428 19:56:41.480098 28491 net.cpp:139] Memory required for data: 3306800
I0428 19:56:41.480100 28491 layer_factory.hpp:77] Creating layer ip3_relu3_0_split
I0428 19:56:41.480105 28491 net.cpp:86] Creating Layer ip3_relu3_0_split
I0428 19:56:41.480108 28491 net.cpp:408] ip3_relu3_0_split <- ip3
I0428 19:56:41.480113 28491 net.cpp:382] ip3_relu3_0_split -> ip3_relu3_0_split_0
I0428 19:56:41.480119 28491 net.cpp:382] ip3_relu3_0_split -> ip3_relu3_0_split_1
I0428 19:56:41.480175 28491 net.cpp:124] Setting up ip3_relu3_0_split
I0428 19:56:41.480180 28491 net.cpp:131] Top shape: 100 10 (1000)
I0428 19:56:41.480185 28491 net.cpp:131] Top shape: 100 10 (1000)
I0428 19:56:41.480186 28491 net.cpp:139] Memory required for data: 3314800
I0428 19:56:41.480190 28491 layer_factory.hpp:77] Creating layer accuracy
I0428 19:56:41.480195 28491 net.cpp:86] Creating Layer accuracy
I0428 19:56:41.480197 28491 net.cpp:408] accuracy <- ip3_relu3_0_split_0
I0428 19:56:41.480201 28491 net.cpp:408] accuracy <- label_mnist_1_split_0
I0428 19:56:41.480206 28491 net.cpp:382] accuracy -> accuracy
…
