…
I0428 19:44:23.414296 25590 net.cpp:296] The NetState phase (0) differed from the phase (1) specified by a rule in layer mnist
I0428 19:44:23.414326 25590 net.cpp:296] The NetState phase (0) differed from the phase (1) specified by a rule in layer accuracy
I0428 19:44:23.414438 25590 net.cpp:53] Initializing net from parameters: 
name: "LeNet"
state {
  phase: TRAIN
  level: 0
  stage: ""
}
layer {
  name: "mnist"
  type: "Data"
  top: "data"
  top: "label"
  include {
    phase: TRAIN
  }
  transform_param {
    scale: 0.00390625
  }
  data_param {
    source: "examples/mnist/mnist_train_lmdb"
    batch_size: 64
    backend: LMDB
  }
}
layer {
  name: "conv0"
  type: "Convolution"
  bottom: "data"
  top: "conv0"
  param {
    lr_mult: 1
  }
  param {
    lr_mult: 2
  }
  convolution_param {
    num_output: 2
    kernel_size: 5
    stride: 1
    weight_filler {
      type: "xavier"
    }
    bias_filler {
      type: "constant"
    }
  }
}
layer {
  name: "pool0"
  type: "Pooling"
  bottom: "conv0"
  top: "pool0"
  pooling_param {
    pool: MAX
    kernel_size: 2
    stride: 2
  }
}
layer {
  name: "conv1"
  type: "Convolution"
  bottom: "pool0"
  top: "conv1"
  param {
    lr_mult: 1
  }
  param {
    lr_mult: 2
  }
  convolution_param {
    num_output: 50
    kernel_size: 5
    stride: 1
    weight_filler {
      type: "xavier"
    }
    bias_filler {
      type: "constant"
    }
  }
}
layer {
  name: "pool1"
  type: "Pooling"
  bottom: "conv1"
  top: "pool1"
  pooling_param {
    pool: MAX
    kernel_size: 2
    stride: 2
  }
}
layer {
  name: "ip1"
  type: "InnerProduct"
  bottom: "pool1"
  top: "ip1"
  param {
    lr_mult: 1
  }
  param {
    lr_mult: 2
  }
  inner_product_param {
    num_output: 10
    weight_filler {
      type: "xavier"
    }
    bias_filler {
      type: "constant"
    }
  }
}
layer {
  name: "relu1"
  type: "ReLU"
  bottom: "ip1"
  top: "ip1"
}
layer {
  name: "ip2"
  type: "InnerProduct"
  bottom: "ip1"
  top: "ip2"
  param {
    lr_mult: 1
  }
  param {
    lr_mult: 2
  }
  inner_product_param {
    num_output: 25
    weight_filler {
      type: "xavier"
    }
    bias_filler {
      type: "constant"
    }
  }
}
layer {
  name: "relu2"
  type: "ReLU"
  bottom: "ip2"
  top: "ip2"
}
layer {
  name: "ip3"
  type: "InnerProduct"
  bottom: "ip2"
  top: "ip3"
  param {
    lr_mult: 1
  }
  param {
    lr_mult: 2
  }
  inner_product_param {
    num_output: 10
    weight_filler {
      type: "xavier"
    }
    bias_filler {
      type: "constant"
    }
  }
}
layer {
  name: "relu3"
  type: "ReLU"
  bottom: "ip3"
  top: "ip3"
}
layer {
  name: "loss"
  type: "SoftmaxWithLoss"
  bottom: "ip3"
  bottom: "label"
  top: "loss"
}
I0428 19:44:23.414556 25590 layer_factory.hpp:77] Creating layer mnist
I0428 19:44:23.414687 25590 db_lmdb.cpp:35] Opened lmdb examples/mnist/mnist_train_lmdb
I0428 19:44:23.414721 25590 net.cpp:86] Creating Layer mnist
I0428 19:44:23.414736 25590 net.cpp:382] mnist -> data
I0428 19:44:23.414765 25590 net.cpp:382] mnist -> label
I0428 19:44:23.416039 25590 data_layer.cpp:45] output data size: 64,1,28,28
I0428 19:44:23.418515 25590 net.cpp:124] Setting up mnist
I0428 19:44:23.418539 25590 net.cpp:131] Top shape: 64 1 28 28 (50176)
I0428 19:44:23.418550 25590 net.cpp:131] Top shape: 64 (64)
I0428 19:44:23.418555 25590 net.cpp:139] Memory required for data: 200960
I0428 19:44:23.418565 25590 layer_factory.hpp:77] Creating layer conv0
I0428 19:44:23.418588 25590 net.cpp:86] Creating Layer conv0
I0428 19:44:23.418612 25590 net.cpp:408] conv0 <- data
I0428 19:44:23.418632 25590 net.cpp:382] conv0 -> conv0
I0428 19:44:23.664947 25590 net.cpp:124] Setting up conv0
I0428 19:44:23.664978 25590 net.cpp:131] Top shape: 64 2 24 24 (73728)
I0428 19:44:23.664983 25590 net.cpp:139] Memory required for data: 495872
I0428 19:44:23.665004 25590 layer_factory.hpp:77] Creating layer pool0
I0428 19:44:23.665035 25590 net.cpp:86] Creating Layer pool0
I0428 19:44:23.665050 25590 net.cpp:408] pool0 <- conv0
I0428 19:44:23.665060 25590 net.cpp:382] pool0 -> pool0
I0428 19:44:23.665115 25590 net.cpp:124] Setting up pool0
I0428 19:44:23.665124 25590 net.cpp:131] Top shape: 64 2 12 12 (18432)
I0428 19:44:23.665129 25590 net.cpp:139] Memory required for data: 569600
I0428 19:44:23.665148 25590 layer_factory.hpp:77] Creating layer conv1
I0428 19:44:23.665177 25590 net.cpp:86] Creating Layer conv1
I0428 19:44:23.665184 25590 net.cpp:408] conv1 <- pool0
I0428 19:44:23.665192 25590 net.cpp:382] conv1 -> conv1
I0428 19:44:23.667871 25590 net.cpp:124] Setting up conv1
I0428 19:44:23.667886 25590 net.cpp:131] Top shape: 64 50 8 8 (204800)
I0428 19:44:23.667892 25590 net.cpp:139] Memory required for data: 1388800
I0428 19:44:23.667920 25590 layer_factory.hpp:77] Creating layer pool1
I0428 19:44:23.667932 25590 net.cpp:86] Creating Layer pool1
I0428 19:44:23.667938 25590 net.cpp:408] pool1 <- conv1
I0428 19:44:23.667946 25590 net.cpp:382] pool1 -> pool1
I0428 19:44:23.668005 25590 net.cpp:124] Setting up pool1
I0428 19:44:23.668015 25590 net.cpp:131] Top shape: 64 50 4 4 (51200)
I0428 19:44:23.668020 25590 net.cpp:139] Memory required for data: 1593600
I0428 19:44:23.668025 25590 layer_factory.hpp:77] Creating layer ip1
I0428 19:44:23.668035 25590 net.cpp:86] Creating Layer ip1
I0428 19:44:23.668046 25590 net.cpp:408] ip1 <- pool1
I0428 19:44:23.668054 25590 net.cpp:382] ip1 -> ip1
I0428 19:44:23.669083 25590 net.cpp:124] Setting up ip1
I0428 19:44:23.669098 25590 net.cpp:131] Top shape: 64 10 (640)
I0428 19:44:23.669104 25590 net.cpp:139] Memory required for data: 1596160
I0428 19:44:23.669118 25590 layer_factory.hpp:77] Creating layer relu1
I0428 19:44:23.669128 25590 net.cpp:86] Creating Layer relu1
I0428 19:44:23.669136 25590 net.cpp:408] relu1 <- ip1
I0428 19:44:23.669143 25590 net.cpp:369] relu1 -> ip1 (in-place)
I0428 19:44:23.669381 25590 net.cpp:124] Setting up relu1
I0428 19:44:23.669390 25590 net.cpp:131] Top shape: 64 10 (640)
I0428 19:44:23.669395 25590 net.cpp:139] Memory required for data: 1598720
I0428 19:44:23.669400 25590 layer_factory.hpp:77] Creating layer ip2
I0428 19:44:23.669410 25590 net.cpp:86] Creating Layer ip2
I0428 19:44:23.669415 25590 net.cpp:408] ip2 <- ip1
I0428 19:44:23.669423 25590 net.cpp:382] ip2 -> ip2
I0428 19:44:23.669522 25590 net.cpp:124] Setting up ip2
I0428 19:44:23.669530 25590 net.cpp:131] Top shape: 64 25 (1600)
I0428 19:44:23.669535 25590 net.cpp:139] Memory required for data: 1605120
I0428 19:44:23.669543 25590 layer_factory.hpp:77] Creating layer relu2
I0428 19:44:23.669553 25590 net.cpp:86] Creating Layer relu2
I0428 19:44:23.669559 25590 net.cpp:408] relu2 <- ip2
I0428 19:44:23.669565 25590 net.cpp:369] relu2 -> ip2 (in-place)
I0428 19:44:23.670306 25590 net.cpp:124] Setting up relu2
I0428 19:44:23.670339 25590 net.cpp:131] Top shape: 64 25 (1600)
I0428 19:44:23.670346 25590 net.cpp:139] Memory required for data: 1611520
I0428 19:44:23.670351 25590 layer_factory.hpp:77] Creating layer ip3
I0428 19:44:23.670362 25590 net.cpp:86] Creating Layer ip3
I0428 19:44:23.670368 25590 net.cpp:408] ip3 <- ip2
I0428 19:44:23.670377 25590 net.cpp:382] ip3 -> ip3
I0428 19:44:23.670482 25590 net.cpp:124] Setting up ip3
I0428 19:44:23.670492 25590 net.cpp:131] Top shape: 64 10 (640)
I0428 19:44:23.670497 25590 net.cpp:139] Memory required for data: 1614080
I0428 19:44:23.670524 25590 layer_factory.hpp:77] Creating layer relu3
I0428 19:44:23.670536 25590 net.cpp:86] Creating Layer relu3
I0428 19:44:23.670544 25590 net.cpp:408] relu3 <- ip3
I0428 19:44:23.670552 25590 net.cpp:369] relu3 -> ip3 (in-place)
I0428 19:44:23.670727 25590 net.cpp:124] Setting up relu3
I0428 19:44:23.670735 25590 net.cpp:131] Top shape: 64 10 (640)
I0428 19:44:23.670740 25590 net.cpp:139] Memory required for data: 1616640
I0428 19:44:23.670745 25590 layer_factory.hpp:77] Creating layer loss
I0428 19:44:23.670754 25590 net.cpp:86] Creating Layer loss
I0428 19:44:23.670759 25590 net.cpp:408] loss <- ip3
I0428 19:44:23.670765 25590 net.cpp:408] loss <- label
I0428 19:44:23.670773 25590 net.cpp:382] loss -> loss
I0428 19:44:23.670791 25590 layer_factory.hpp:77] Creating layer loss
…
I0428 19:44:23.671491 25590 solver.cpp:173] Creating test net (#0) specified by net file: ECE595/mnist/train_test/var_everything2/lenet_train_test446.prototxt
I0428 19:44:23.671525 25590 net.cpp:296] The NetState phase (1) differed from the phase (0) specified by a rule in layer mnist
I0428 19:44:23.671632 25590 net.cpp:53] Initializing net from parameters: 
name: "LeNet"
state {
  phase: TEST
}
layer {
  name: "mnist"
  type: "Data"
  top: "data"
  top: "label"
  include {
    phase: TEST
  }
  transform_param {
    scale: 0.00390625
  }
  data_param {
    source: "examples/mnist/mnist_test_lmdb"
    batch_size: 100
    backend: LMDB
  }
}
layer {
  name: "conv0"
  type: "Convolution"
  bottom: "data"
  top: "conv0"
  param {
    lr_mult: 1
  }
  param {
    lr_mult: 2
  }
  convolution_param {
    num_output: 2
    kernel_size: 5
    stride: 1
    weight_filler {
      type: "xavier"
    }
    bias_filler {
      type: "constant"
    }
  }
}
layer {
  name: "pool0"
  type: "Pooling"
  bottom: "conv0"
  top: "pool0"
  pooling_param {
    pool: MAX
    kernel_size: 2
    stride: 2
  }
}
layer {
  name: "conv1"
  type: "Convolution"
  bottom: "pool0"
  top: "conv1"
  param {
    lr_mult: 1
  }
  param {
    lr_mult: 2
  }
  convolution_param {
    num_output: 50
    kernel_size: 5
    stride: 1
    weight_filler {
      type: "xavier"
    }
    bias_filler {
      type: "constant"
    }
  }
}
layer {
  name: "pool1"
  type: "Pooling"
  bottom: "conv1"
  top: "pool1"
  pooling_param {
    pool: MAX
    kernel_size: 2
    stride: 2
  }
}
layer {
  name: "ip1"
  type: "InnerProduct"
  bottom: "pool1"
  top: "ip1"
  param {
    lr_mult: 1
  }
  param {
    lr_mult: 2
  }
  inner_product_param {
    num_output: 10
    weight_filler {
      type: "xavier"
    }
    bias_filler {
      type: "constant"
    }
  }
}
layer {
  name: "relu1"
  type: "ReLU"
  bottom: "ip1"
  top: "ip1"
}
layer {
  name: "ip2"
  type: "InnerProduct"
  bottom: "ip1"
  top: "ip2"
  param {
    lr_mult: 1
  }
  param {
    lr_mult: 2
  }
  inner_product_param {
    num_output: 25
    weight_filler {
      type: "xavier"
    }
    bias_filler {
      type: "constant"
    }
  }
}
layer {
  name: "relu2"
  type: "ReLU"
  bottom: "ip2"
  top: "ip2"
}
layer {
  name: "ip3"
  type: "InnerProduct"
  bottom: "ip2"
  top: "ip3"
  param {
    lr_mult: 1
  }
  param {
    lr_mult: 2
  }
  inner_product_param {
    num_output: 10
    weight_filler {
      type: "xavier"
    }
    bias_filler {
      type: "constant"
    }
  }
}
layer {
  name: "relu3"
  type: "ReLU"
  bottom: "ip3"
  top: "ip3"
}
layer {
  name: "accuracy"
  type: "Accuracy"
  bottom: "ip3"
  bottom: "label"
  top: "accuracy"
  include {
    phase: TEST
  }
}
layer {
  name: "loss"
  type: "SoftmaxWithLoss"
  bottom: "ip3"
  bottom: "label"
  top: "loss"
}
I0428 19:44:23.671736 25590 layer_factory.hpp:77] Creating layer mnist
I0428 19:44:23.671809 25590 db_lmdb.cpp:35] Opened lmdb examples/mnist/mnist_test_lmdb
I0428 19:44:23.671828 25590 net.cpp:86] Creating Layer mnist
I0428 19:44:23.671834 25590 net.cpp:382] mnist -> data
I0428 19:44:23.671845 25590 net.cpp:382] mnist -> label
I0428 19:44:23.671957 25590 data_layer.cpp:45] output data size: 100,1,28,28
I0428 19:44:23.674188 25590 net.cpp:124] Setting up mnist
I0428 19:44:23.674219 25590 net.cpp:131] Top shape: 100 1 28 28 (78400)
I0428 19:44:23.674227 25590 net.cpp:131] Top shape: 100 (100)
I0428 19:44:23.674233 25590 net.cpp:139] Memory required for data: 314000
I0428 19:44:23.674239 25590 layer_factory.hpp:77] Creating layer label_mnist_1_split
I0428 19:44:23.674249 25590 net.cpp:86] Creating Layer label_mnist_1_split
I0428 19:44:23.674255 25590 net.cpp:408] label_mnist_1_split <- label
I0428 19:44:23.674263 25590 net.cpp:382] label_mnist_1_split -> label_mnist_1_split_0
I0428 19:44:23.674288 25590 net.cpp:382] label_mnist_1_split -> label_mnist_1_split_1
I0428 19:44:23.674377 25590 net.cpp:124] Setting up label_mnist_1_split
I0428 19:44:23.674386 25590 net.cpp:131] Top shape: 100 (100)
I0428 19:44:23.674392 25590 net.cpp:131] Top shape: 100 (100)
I0428 19:44:23.674397 25590 net.cpp:139] Memory required for data: 314800
I0428 19:44:23.674402 25590 layer_factory.hpp:77] Creating layer conv0
I0428 19:44:23.674414 25590 net.cpp:86] Creating Layer conv0
I0428 19:44:23.674420 25590 net.cpp:408] conv0 <- data
I0428 19:44:23.674428 25590 net.cpp:382] conv0 -> conv0
I0428 19:44:23.675956 25590 net.cpp:124] Setting up conv0
I0428 19:44:23.675971 25590 net.cpp:131] Top shape: 100 2 24 24 (115200)
I0428 19:44:23.675976 25590 net.cpp:139] Memory required for data: 775600
I0428 19:44:23.675990 25590 layer_factory.hpp:77] Creating layer pool0
I0428 19:44:23.675999 25590 net.cpp:86] Creating Layer pool0
I0428 19:44:23.676005 25590 net.cpp:408] pool0 <- conv0
I0428 19:44:23.676013 25590 net.cpp:382] pool0 -> pool0
I0428 19:44:23.676054 25590 net.cpp:124] Setting up pool0
I0428 19:44:23.676061 25590 net.cpp:131] Top shape: 100 2 12 12 (28800)
I0428 19:44:23.676065 25590 net.cpp:139] Memory required for data: 890800
I0428 19:44:23.676070 25590 layer_factory.hpp:77] Creating layer conv1
I0428 19:44:23.676082 25590 net.cpp:86] Creating Layer conv1
I0428 19:44:23.676089 25590 net.cpp:408] conv1 <- pool0
I0428 19:44:23.676096 25590 net.cpp:382] conv1 -> conv1
I0428 19:44:23.677773 25590 net.cpp:124] Setting up conv1
I0428 19:44:23.677789 25590 net.cpp:131] Top shape: 100 50 8 8 (320000)
I0428 19:44:23.677795 25590 net.cpp:139] Memory required for data: 2170800
I0428 19:44:23.677809 25590 layer_factory.hpp:77] Creating layer pool1
I0428 19:44:23.677819 25590 net.cpp:86] Creating Layer pool1
I0428 19:44:23.677831 25590 net.cpp:408] pool1 <- conv1
I0428 19:44:23.677840 25590 net.cpp:382] pool1 -> pool1
I0428 19:44:23.677886 25590 net.cpp:124] Setting up pool1
I0428 19:44:23.677911 25590 net.cpp:131] Top shape: 100 50 4 4 (80000)
I0428 19:44:23.677916 25590 net.cpp:139] Memory required for data: 2490800
I0428 19:44:23.677920 25590 layer_factory.hpp:77] Creating layer ip1
I0428 19:44:23.677930 25590 net.cpp:86] Creating Layer ip1
I0428 19:44:23.677935 25590 net.cpp:408] ip1 <- pool1
I0428 19:44:23.677943 25590 net.cpp:382] ip1 -> ip1
I0428 19:44:23.678095 25590 net.cpp:124] Setting up ip1
I0428 19:44:23.678104 25590 net.cpp:131] Top shape: 100 10 (1000)
I0428 19:44:23.678120 25590 net.cpp:139] Memory required for data: 2494800
I0428 19:44:23.678134 25590 layer_factory.hpp:77] Creating layer relu1
I0428 19:44:23.678143 25590 net.cpp:86] Creating Layer relu1
I0428 19:44:23.678149 25590 net.cpp:408] relu1 <- ip1
I0428 19:44:23.678158 25590 net.cpp:369] relu1 -> ip1 (in-place)
I0428 19:44:23.678330 25590 net.cpp:124] Setting up relu1
I0428 19:44:23.678340 25590 net.cpp:131] Top shape: 100 10 (1000)
I0428 19:44:23.678347 25590 net.cpp:139] Memory required for data: 2498800
I0428 19:44:23.678354 25590 layer_factory.hpp:77] Creating layer ip2
I0428 19:44:23.678364 25590 net.cpp:86] Creating Layer ip2
I0428 19:44:23.678369 25590 net.cpp:408] ip2 <- ip1
I0428 19:44:23.678377 25590 net.cpp:382] ip2 -> ip2
I0428 19:44:23.678494 25590 net.cpp:124] Setting up ip2
I0428 19:44:23.678503 25590 net.cpp:131] Top shape: 100 25 (2500)
I0428 19:44:23.678508 25590 net.cpp:139] Memory required for data: 2508800
I0428 19:44:23.678519 25590 layer_factory.hpp:77] Creating layer relu2
I0428 19:44:23.678525 25590 net.cpp:86] Creating Layer relu2
I0428 19:44:23.678531 25590 net.cpp:408] relu2 <- ip2
I0428 19:44:23.678539 25590 net.cpp:369] relu2 -> ip2 (in-place)
I0428 19:44:23.678817 25590 net.cpp:124] Setting up relu2
I0428 19:44:23.678827 25590 net.cpp:131] Top shape: 100 25 (2500)
I0428 19:44:23.678833 25590 net.cpp:139] Memory required for data: 2518800
I0428 19:44:23.678838 25590 layer_factory.hpp:77] Creating layer ip3
I0428 19:44:23.678848 25590 net.cpp:86] Creating Layer ip3
I0428 19:44:23.678853 25590 net.cpp:408] ip3 <- ip2
I0428 19:44:23.678879 25590 net.cpp:382] ip3 -> ip3
I0428 19:44:23.678978 25590 net.cpp:124] Setting up ip3
I0428 19:44:23.678987 25590 net.cpp:131] Top shape: 100 10 (1000)
I0428 19:44:23.678993 25590 net.cpp:139] Memory required for data: 2522800
I0428 19:44:23.679005 25590 layer_factory.hpp:77] Creating layer relu3
I0428 19:44:23.679014 25590 net.cpp:86] Creating Layer relu3
I0428 19:44:23.679023 25590 net.cpp:408] relu3 <- ip3
I0428 19:44:23.679030 25590 net.cpp:369] relu3 -> ip3 (in-place)
I0428 19:44:23.679831 25590 net.cpp:124] Setting up relu3
I0428 19:44:23.679843 25590 net.cpp:131] Top shape: 100 10 (1000)
I0428 19:44:23.679848 25590 net.cpp:139] Memory required for data: 2526800
I0428 19:44:23.679854 25590 layer_factory.hpp:77] Creating layer ip3_relu3_0_split
I0428 19:44:23.679862 25590 net.cpp:86] Creating Layer ip3_relu3_0_split
I0428 19:44:23.679882 25590 net.cpp:408] ip3_relu3_0_split <- ip3
I0428 19:44:23.679889 25590 net.cpp:382] ip3_relu3_0_split -> ip3_relu3_0_split_0
I0428 19:44:23.679913 25590 net.cpp:382] ip3_relu3_0_split -> ip3_relu3_0_split_1
I0428 19:44:23.679975 25590 net.cpp:124] Setting up ip3_relu3_0_split
I0428 19:44:23.679983 25590 net.cpp:131] Top shape: 100 10 (1000)
I0428 19:44:23.679989 25590 net.cpp:131] Top shape: 100 10 (1000)
I0428 19:44:23.679994 25590 net.cpp:139] Memory required for data: 2534800
I0428 19:44:23.680001 25590 layer_factory.hpp:77] Creating layer accuracy
I0428 19:44:23.680009 25590 net.cpp:86] Creating Layer accuracy
I0428 19:44:23.680014 25590 net.cpp:408] accuracy <- ip3_relu3_0_split_0
I0428 19:44:23.680035 25590 net.cpp:408] accuracy <- label_mnist_1_split_0
I0428 19:44:23.680043 25590 net.cpp:382] accuracy -> accuracy
…
