…
I0428 19:47:38.863087 26246 net.cpp:296] The NetState phase (0) differed from the phase (1) specified by a rule in layer mnist
I0428 19:47:38.863107 26246 net.cpp:296] The NetState phase (0) differed from the phase (1) specified by a rule in layer accuracy
I0428 19:47:38.863210 26246 net.cpp:53] Initializing net from parameters: 
name: "LeNet"
state {
  phase: TRAIN
  level: 0
  stage: ""
}
layer {
  name: "mnist"
  type: "Data"
  top: "data"
  top: "label"
  include {
    phase: TRAIN
  }
  transform_param {
    scale: 0.00390625
  }
  data_param {
    source: "examples/mnist/mnist_train_lmdb"
    batch_size: 64
    backend: LMDB
  }
}
layer {
  name: "conv0"
  type: "Convolution"
  bottom: "data"
  top: "conv0"
  param {
    lr_mult: 1
  }
  param {
    lr_mult: 2
  }
  convolution_param {
    num_output: 5
    kernel_size: 5
    stride: 1
    weight_filler {
      type: "xavier"
    }
    bias_filler {
      type: "constant"
    }
  }
}
layer {
  name: "pool0"
  type: "Pooling"
  bottom: "conv0"
  top: "pool0"
  pooling_param {
    pool: MAX
    kernel_size: 2
    stride: 2
  }
}
layer {
  name: "conv1"
  type: "Convolution"
  bottom: "pool0"
  top: "conv1"
  param {
    lr_mult: 1
  }
  param {
    lr_mult: 2
  }
  convolution_param {
    num_output: 2
    kernel_size: 5
    stride: 1
    weight_filler {
      type: "xavier"
    }
    bias_filler {
      type: "constant"
    }
  }
}
layer {
  name: "pool1"
  type: "Pooling"
  bottom: "conv1"
  top: "pool1"
  pooling_param {
    pool: MAX
    kernel_size: 2
    stride: 2
  }
}
layer {
  name: "ip1"
  type: "InnerProduct"
  bottom: "pool1"
  top: "ip1"
  param {
    lr_mult: 1
  }
  param {
    lr_mult: 2
  }
  inner_product_param {
    num_output: 10
    weight_filler {
      type: "xavier"
    }
    bias_filler {
      type: "constant"
    }
  }
}
layer {
  name: "relu1"
  type: "ReLU"
  bottom: "ip1"
  top: "ip1"
}
layer {
  name: "ip2"
  type: "InnerProduct"
  bottom: "ip1"
  top: "ip2"
  param {
    lr_mult: 1
  }
  param {
    lr_mult: 2
  }
  inner_product_param {
    num_output: 10
    weight_filler {
      type: "xavier"
    }
    bias_filler {
      type: "constant"
    }
  }
}
layer {
  name: "relu2"
  type: "ReLU"
  bottom: "ip2"
  top: "ip2"
}
layer {
  name: "ip3"
  type: "InnerProduct"
  bottom: "ip2"
  top: "ip3"
  param {
    lr_mult: 1
  }
  param {
    lr_mult: 2
  }
  inner_product_param {
    num_output: 10
    weight_filler {
      type: "xavier"
    }
    bias_filler {
      type: "constant"
    }
  }
}
layer {
  name: "relu3"
  type: "ReLU"
  bottom: "ip3"
  top: "ip3"
}
layer {
  name: "loss"
  type: "SoftmaxWithLoss"
  bottom: "ip3"
  bottom: "label"
  top: "loss"
}
I0428 19:47:38.863289 26246 layer_factory.hpp:77] Creating layer mnist
I0428 19:47:38.863404 26246 db_lmdb.cpp:35] Opened lmdb examples/mnist/mnist_train_lmdb
I0428 19:47:38.863428 26246 net.cpp:86] Creating Layer mnist
I0428 19:47:38.863437 26246 net.cpp:382] mnist -> data
I0428 19:47:38.863459 26246 net.cpp:382] mnist -> label
I0428 19:47:38.864552 26246 data_layer.cpp:45] output data size: 64,1,28,28
I0428 19:47:38.866998 26246 net.cpp:124] Setting up mnist
I0428 19:47:38.867015 26246 net.cpp:131] Top shape: 64 1 28 28 (50176)
I0428 19:47:38.867022 26246 net.cpp:131] Top shape: 64 (64)
I0428 19:47:38.867025 26246 net.cpp:139] Memory required for data: 200960
I0428 19:47:38.867033 26246 layer_factory.hpp:77] Creating layer conv0
I0428 19:47:38.867048 26246 net.cpp:86] Creating Layer conv0
I0428 19:47:38.867069 26246 net.cpp:408] conv0 <- data
I0428 19:47:38.867081 26246 net.cpp:382] conv0 -> conv0
I0428 19:47:39.159809 26246 net.cpp:124] Setting up conv0
I0428 19:47:39.159842 26246 net.cpp:131] Top shape: 64 5 24 24 (184320)
I0428 19:47:39.159847 26246 net.cpp:139] Memory required for data: 938240
I0428 19:47:39.159867 26246 layer_factory.hpp:77] Creating layer pool0
I0428 19:47:39.159880 26246 net.cpp:86] Creating Layer pool0
I0428 19:47:39.159885 26246 net.cpp:408] pool0 <- conv0
I0428 19:47:39.159893 26246 net.cpp:382] pool0 -> pool0
I0428 19:47:39.159948 26246 net.cpp:124] Setting up pool0
I0428 19:47:39.159958 26246 net.cpp:131] Top shape: 64 5 12 12 (46080)
I0428 19:47:39.159962 26246 net.cpp:139] Memory required for data: 1122560
I0428 19:47:39.159966 26246 layer_factory.hpp:77] Creating layer conv1
I0428 19:47:39.159979 26246 net.cpp:86] Creating Layer conv1
I0428 19:47:39.159983 26246 net.cpp:408] conv1 <- pool0
I0428 19:47:39.159989 26246 net.cpp:382] conv1 -> conv1
I0428 19:47:39.162130 26246 net.cpp:124] Setting up conv1
I0428 19:47:39.162148 26246 net.cpp:131] Top shape: 64 2 8 8 (8192)
I0428 19:47:39.162153 26246 net.cpp:139] Memory required for data: 1155328
I0428 19:47:39.162163 26246 layer_factory.hpp:77] Creating layer pool1
I0428 19:47:39.162173 26246 net.cpp:86] Creating Layer pool1
I0428 19:47:39.162178 26246 net.cpp:408] pool1 <- conv1
I0428 19:47:39.162184 26246 net.cpp:382] pool1 -> pool1
I0428 19:47:39.162227 26246 net.cpp:124] Setting up pool1
I0428 19:47:39.162237 26246 net.cpp:131] Top shape: 64 2 4 4 (2048)
I0428 19:47:39.162240 26246 net.cpp:139] Memory required for data: 1163520
I0428 19:47:39.162245 26246 layer_factory.hpp:77] Creating layer ip1
I0428 19:47:39.162252 26246 net.cpp:86] Creating Layer ip1
I0428 19:47:39.162256 26246 net.cpp:408] ip1 <- pool1
I0428 19:47:39.162261 26246 net.cpp:382] ip1 -> ip1
I0428 19:47:39.162379 26246 net.cpp:124] Setting up ip1
I0428 19:47:39.162387 26246 net.cpp:131] Top shape: 64 10 (640)
I0428 19:47:39.162391 26246 net.cpp:139] Memory required for data: 1166080
I0428 19:47:39.162400 26246 layer_factory.hpp:77] Creating layer relu1
I0428 19:47:39.162407 26246 net.cpp:86] Creating Layer relu1
I0428 19:47:39.162411 26246 net.cpp:408] relu1 <- ip1
I0428 19:47:39.162416 26246 net.cpp:369] relu1 -> ip1 (in-place)
I0428 19:47:39.162618 26246 net.cpp:124] Setting up relu1
I0428 19:47:39.162629 26246 net.cpp:131] Top shape: 64 10 (640)
I0428 19:47:39.162633 26246 net.cpp:139] Memory required for data: 1168640
I0428 19:47:39.162637 26246 layer_factory.hpp:77] Creating layer ip2
I0428 19:47:39.162644 26246 net.cpp:86] Creating Layer ip2
I0428 19:47:39.162648 26246 net.cpp:408] ip2 <- ip1
I0428 19:47:39.162654 26246 net.cpp:382] ip2 -> ip2
I0428 19:47:39.162765 26246 net.cpp:124] Setting up ip2
I0428 19:47:39.162773 26246 net.cpp:131] Top shape: 64 10 (640)
I0428 19:47:39.162777 26246 net.cpp:139] Memory required for data: 1171200
I0428 19:47:39.162783 26246 layer_factory.hpp:77] Creating layer relu2
I0428 19:47:39.162791 26246 net.cpp:86] Creating Layer relu2
I0428 19:47:39.162796 26246 net.cpp:408] relu2 <- ip2
I0428 19:47:39.162801 26246 net.cpp:369] relu2 -> ip2 (in-place)
I0428 19:47:39.163638 26246 net.cpp:124] Setting up relu2
I0428 19:47:39.163653 26246 net.cpp:131] Top shape: 64 10 (640)
I0428 19:47:39.163657 26246 net.cpp:139] Memory required for data: 1173760
I0428 19:47:39.163663 26246 layer_factory.hpp:77] Creating layer ip3
I0428 19:47:39.163671 26246 net.cpp:86] Creating Layer ip3
I0428 19:47:39.163676 26246 net.cpp:408] ip3 <- ip2
I0428 19:47:39.163682 26246 net.cpp:382] ip3 -> ip3
I0428 19:47:39.163797 26246 net.cpp:124] Setting up ip3
I0428 19:47:39.163807 26246 net.cpp:131] Top shape: 64 10 (640)
I0428 19:47:39.163811 26246 net.cpp:139] Memory required for data: 1176320
I0428 19:47:39.163820 26246 layer_factory.hpp:77] Creating layer relu3
I0428 19:47:39.163826 26246 net.cpp:86] Creating Layer relu3
I0428 19:47:39.163830 26246 net.cpp:408] relu3 <- ip3
I0428 19:47:39.163836 26246 net.cpp:369] relu3 -> ip3 (in-place)
I0428 19:47:39.164033 26246 net.cpp:124] Setting up relu3
I0428 19:47:39.164043 26246 net.cpp:131] Top shape: 64 10 (640)
I0428 19:47:39.164047 26246 net.cpp:139] Memory required for data: 1178880
I0428 19:47:39.164052 26246 layer_factory.hpp:77] Creating layer loss
I0428 19:47:39.164059 26246 net.cpp:86] Creating Layer loss
I0428 19:47:39.164062 26246 net.cpp:408] loss <- ip3
I0428 19:47:39.164067 26246 net.cpp:408] loss <- label
I0428 19:47:39.164074 26246 net.cpp:382] loss -> loss
I0428 19:47:39.164090 26246 layer_factory.hpp:77] Creating layer loss
…
I0428 19:47:39.164839 26246 solver.cpp:173] Creating test net (#0) specified by net file: ECE595/mnist/train_test/var_everything2/lenet_train_test521.prototxt
I0428 19:47:39.164872 26246 net.cpp:296] The NetState phase (1) differed from the phase (0) specified by a rule in layer mnist
I0428 19:47:39.164981 26246 net.cpp:53] Initializing net from parameters: 
name: "LeNet"
state {
  phase: TEST
}
layer {
  name: "mnist"
  type: "Data"
  top: "data"
  top: "label"
  include {
    phase: TEST
  }
  transform_param {
    scale: 0.00390625
  }
  data_param {
    source: "examples/mnist/mnist_test_lmdb"
    batch_size: 100
    backend: LMDB
  }
}
layer {
  name: "conv0"
  type: "Convolution"
  bottom: "data"
  top: "conv0"
  param {
    lr_mult: 1
  }
  param {
    lr_mult: 2
  }
  convolution_param {
    num_output: 5
    kernel_size: 5
    stride: 1
    weight_filler {
      type: "xavier"
    }
    bias_filler {
      type: "constant"
    }
  }
}
layer {
  name: "pool0"
  type: "Pooling"
  bottom: "conv0"
  top: "pool0"
  pooling_param {
    pool: MAX
    kernel_size: 2
    stride: 2
  }
}
layer {
  name: "conv1"
  type: "Convolution"
  bottom: "pool0"
  top: "conv1"
  param {
    lr_mult: 1
  }
  param {
    lr_mult: 2
  }
  convolution_param {
    num_output: 2
    kernel_size: 5
    stride: 1
    weight_filler {
      type: "xavier"
    }
    bias_filler {
      type: "constant"
    }
  }
}
layer {
  name: "pool1"
  type: "Pooling"
  bottom: "conv1"
  top: "pool1"
  pooling_param {
    pool: MAX
    kernel_size: 2
    stride: 2
  }
}
layer {
  name: "ip1"
  type: "InnerProduct"
  bottom: "pool1"
  top: "ip1"
  param {
    lr_mult: 1
  }
  param {
    lr_mult: 2
  }
  inner_product_param {
    num_output: 10
    weight_filler {
      type: "xavier"
    }
    bias_filler {
      type: "constant"
    }
  }
}
layer {
  name: "relu1"
  type: "ReLU"
  bottom: "ip1"
  top: "ip1"
}
layer {
  name: "ip2"
  type: "InnerProduct"
  bottom: "ip1"
  top: "ip2"
  param {
    lr_mult: 1
  }
  param {
    lr_mult: 2
  }
  inner_product_param {
    num_output: 10
    weight_filler {
      type: "xavier"
    }
    bias_filler {
      type: "constant"
    }
  }
}
layer {
  name: "relu2"
  type: "ReLU"
  bottom: "ip2"
  top: "ip2"
}
layer {
  name: "ip3"
  type: "InnerProduct"
  bottom: "ip2"
  top: "ip3"
  param {
    lr_mult: 1
  }
  param {
    lr_mult: 2
  }
  inner_product_param {
    num_output: 10
    weight_filler {
      type: "xavier"
    }
    bias_filler {
      type: "constant"
    }
  }
}
layer {
  name: "relu3"
  type: "ReLU"
  bottom: "ip3"
  top: "ip3"
}
layer {
  name: "accuracy"
  type: "Accuracy"
  bottom: "ip3"
  bottom: "label"
  top: "accuracy"
  include {
    phase: TEST
  }
}
layer {
  name: "loss"
  type: "SoftmaxWithLoss"
  bottom: "ip3"
  bottom: "label"
  top: "loss"
}
I0428 19:47:39.165076 26246 layer_factory.hpp:77] Creating layer mnist
I0428 19:47:39.165129 26246 db_lmdb.cpp:35] Opened lmdb examples/mnist/mnist_test_lmdb
I0428 19:47:39.165143 26246 net.cpp:86] Creating Layer mnist
I0428 19:47:39.165148 26246 net.cpp:382] mnist -> data
I0428 19:47:39.165158 26246 net.cpp:382] mnist -> label
I0428 19:47:39.165261 26246 data_layer.cpp:45] output data size: 100,1,28,28
I0428 19:47:39.167676 26246 net.cpp:124] Setting up mnist
I0428 19:47:39.167692 26246 net.cpp:131] Top shape: 100 1 28 28 (78400)
I0428 19:47:39.167699 26246 net.cpp:131] Top shape: 100 (100)
I0428 19:47:39.167703 26246 net.cpp:139] Memory required for data: 314000
I0428 19:47:39.167707 26246 layer_factory.hpp:77] Creating layer label_mnist_1_split
I0428 19:47:39.167716 26246 net.cpp:86] Creating Layer label_mnist_1_split
I0428 19:47:39.167719 26246 net.cpp:408] label_mnist_1_split <- label
I0428 19:47:39.167726 26246 net.cpp:382] label_mnist_1_split -> label_mnist_1_split_0
I0428 19:47:39.167733 26246 net.cpp:382] label_mnist_1_split -> label_mnist_1_split_1
I0428 19:47:39.167809 26246 net.cpp:124] Setting up label_mnist_1_split
I0428 19:47:39.167819 26246 net.cpp:131] Top shape: 100 (100)
I0428 19:47:39.167824 26246 net.cpp:131] Top shape: 100 (100)
I0428 19:47:39.167827 26246 net.cpp:139] Memory required for data: 314800
I0428 19:47:39.167831 26246 layer_factory.hpp:77] Creating layer conv0
I0428 19:47:39.167841 26246 net.cpp:86] Creating Layer conv0
I0428 19:47:39.167845 26246 net.cpp:408] conv0 <- data
I0428 19:47:39.167851 26246 net.cpp:382] conv0 -> conv0
I0428 19:47:39.169541 26246 net.cpp:124] Setting up conv0
I0428 19:47:39.169559 26246 net.cpp:131] Top shape: 100 5 24 24 (288000)
I0428 19:47:39.169565 26246 net.cpp:139] Memory required for data: 1466800
I0428 19:47:39.169577 26246 layer_factory.hpp:77] Creating layer pool0
I0428 19:47:39.169585 26246 net.cpp:86] Creating Layer pool0
I0428 19:47:39.169589 26246 net.cpp:408] pool0 <- conv0
I0428 19:47:39.169595 26246 net.cpp:382] pool0 -> pool0
I0428 19:47:39.169639 26246 net.cpp:124] Setting up pool0
I0428 19:47:39.169647 26246 net.cpp:131] Top shape: 100 5 12 12 (72000)
I0428 19:47:39.169651 26246 net.cpp:139] Memory required for data: 1754800
I0428 19:47:39.169656 26246 layer_factory.hpp:77] Creating layer conv1
I0428 19:47:39.169667 26246 net.cpp:86] Creating Layer conv1
I0428 19:47:39.169670 26246 net.cpp:408] conv1 <- pool0
I0428 19:47:39.169677 26246 net.cpp:382] conv1 -> conv1
I0428 19:47:39.171921 26246 net.cpp:124] Setting up conv1
I0428 19:47:39.171936 26246 net.cpp:131] Top shape: 100 2 8 8 (12800)
I0428 19:47:39.171941 26246 net.cpp:139] Memory required for data: 1806000
I0428 19:47:39.171952 26246 layer_factory.hpp:77] Creating layer pool1
I0428 19:47:39.171960 26246 net.cpp:86] Creating Layer pool1
I0428 19:47:39.171964 26246 net.cpp:408] pool1 <- conv1
I0428 19:47:39.171970 26246 net.cpp:382] pool1 -> pool1
I0428 19:47:39.172021 26246 net.cpp:124] Setting up pool1
I0428 19:47:39.172029 26246 net.cpp:131] Top shape: 100 2 4 4 (3200)
I0428 19:47:39.172034 26246 net.cpp:139] Memory required for data: 1818800
I0428 19:47:39.172037 26246 layer_factory.hpp:77] Creating layer ip1
I0428 19:47:39.172045 26246 net.cpp:86] Creating Layer ip1
I0428 19:47:39.172049 26246 net.cpp:408] ip1 <- pool1
I0428 19:47:39.172055 26246 net.cpp:382] ip1 -> ip1
I0428 19:47:39.172204 26246 net.cpp:124] Setting up ip1
I0428 19:47:39.172214 26246 net.cpp:131] Top shape: 100 10 (1000)
I0428 19:47:39.172233 26246 net.cpp:139] Memory required for data: 1822800
I0428 19:47:39.172243 26246 layer_factory.hpp:77] Creating layer relu1
I0428 19:47:39.172250 26246 net.cpp:86] Creating Layer relu1
I0428 19:47:39.172253 26246 net.cpp:408] relu1 <- ip1
I0428 19:47:39.172260 26246 net.cpp:369] relu1 -> ip1 (in-place)
I0428 19:47:39.172451 26246 net.cpp:124] Setting up relu1
I0428 19:47:39.172461 26246 net.cpp:131] Top shape: 100 10 (1000)
I0428 19:47:39.172464 26246 net.cpp:139] Memory required for data: 1826800
I0428 19:47:39.172469 26246 layer_factory.hpp:77] Creating layer ip2
I0428 19:47:39.172477 26246 net.cpp:86] Creating Layer ip2
I0428 19:47:39.172482 26246 net.cpp:408] ip2 <- ip1
I0428 19:47:39.172487 26246 net.cpp:382] ip2 -> ip2
I0428 19:47:39.172600 26246 net.cpp:124] Setting up ip2
I0428 19:47:39.172608 26246 net.cpp:131] Top shape: 100 10 (1000)
I0428 19:47:39.172612 26246 net.cpp:139] Memory required for data: 1830800
I0428 19:47:39.172618 26246 layer_factory.hpp:77] Creating layer relu2
I0428 19:47:39.172624 26246 net.cpp:86] Creating Layer relu2
I0428 19:47:39.172627 26246 net.cpp:408] relu2 <- ip2
I0428 19:47:39.172632 26246 net.cpp:369] relu2 -> ip2 (in-place)
I0428 19:47:39.172804 26246 net.cpp:124] Setting up relu2
I0428 19:47:39.172821 26246 net.cpp:131] Top shape: 100 10 (1000)
I0428 19:47:39.172825 26246 net.cpp:139] Memory required for data: 1834800
I0428 19:47:39.172829 26246 layer_factory.hpp:77] Creating layer ip3
I0428 19:47:39.172837 26246 net.cpp:86] Creating Layer ip3
I0428 19:47:39.172839 26246 net.cpp:408] ip3 <- ip2
I0428 19:47:39.172845 26246 net.cpp:382] ip3 -> ip3
I0428 19:47:39.172965 26246 net.cpp:124] Setting up ip3
I0428 19:47:39.172972 26246 net.cpp:131] Top shape: 100 10 (1000)
I0428 19:47:39.172976 26246 net.cpp:139] Memory required for data: 1838800
I0428 19:47:39.172986 26246 layer_factory.hpp:77] Creating layer relu3
I0428 19:47:39.172991 26246 net.cpp:86] Creating Layer relu3
I0428 19:47:39.172994 26246 net.cpp:408] relu3 <- ip3
I0428 19:47:39.172999 26246 net.cpp:369] relu3 -> ip3 (in-place)
I0428 19:47:39.173943 26246 net.cpp:124] Setting up relu3
I0428 19:47:39.173957 26246 net.cpp:131] Top shape: 100 10 (1000)
I0428 19:47:39.173962 26246 net.cpp:139] Memory required for data: 1842800
I0428 19:47:39.173967 26246 layer_factory.hpp:77] Creating layer ip3_relu3_0_split
I0428 19:47:39.173974 26246 net.cpp:86] Creating Layer ip3_relu3_0_split
I0428 19:47:39.173977 26246 net.cpp:408] ip3_relu3_0_split <- ip3
I0428 19:47:39.173984 26246 net.cpp:382] ip3_relu3_0_split -> ip3_relu3_0_split_0
I0428 19:47:39.173991 26246 net.cpp:382] ip3_relu3_0_split -> ip3_relu3_0_split_1
I0428 19:47:39.174036 26246 net.cpp:124] Setting up ip3_relu3_0_split
I0428 19:47:39.174043 26246 net.cpp:131] Top shape: 100 10 (1000)
I0428 19:47:39.174048 26246 net.cpp:131] Top shape: 100 10 (1000)
I0428 19:47:39.174052 26246 net.cpp:139] Memory required for data: 1850800
I0428 19:47:39.174057 26246 layer_factory.hpp:77] Creating layer accuracy
I0428 19:47:39.174062 26246 net.cpp:86] Creating Layer accuracy
I0428 19:47:39.174065 26246 net.cpp:408] accuracy <- ip3_relu3_0_split_0
I0428 19:47:39.174070 26246 net.cpp:408] accuracy <- label_mnist_1_split_0
I0428 19:47:39.174077 26246 net.cpp:382] accuracy -> accuracy
…
