…
I0428 19:51:17.806718 27246 net.cpp:296] The NetState phase (0) differed from the phase (1) specified by a rule in layer mnist
I0428 19:51:17.806735 27246 net.cpp:296] The NetState phase (0) differed from the phase (1) specified by a rule in layer accuracy
I0428 19:51:17.806829 27246 net.cpp:53] Initializing net from parameters: 
name: "LeNet"
state {
  phase: TRAIN
  level: 0
  stage: ""
}
layer {
  name: "mnist"
  type: "Data"
  top: "data"
  top: "label"
  include {
    phase: TRAIN
  }
  transform_param {
    scale: 0.00390625
  }
  data_param {
    source: "examples/mnist/mnist_train_lmdb"
    batch_size: 64
    backend: LMDB
  }
}
layer {
  name: "conv0"
  type: "Convolution"
  bottom: "data"
  top: "conv0"
  param {
    lr_mult: 1
  }
  param {
    lr_mult: 2
  }
  convolution_param {
    num_output: 5
    kernel_size: 5
    stride: 1
    weight_filler {
      type: "xavier"
    }
    bias_filler {
      type: "constant"
    }
  }
}
layer {
  name: "pool0"
  type: "Pooling"
  bottom: "conv0"
  top: "pool0"
  pooling_param {
    pool: MAX
    kernel_size: 2
    stride: 2
  }
}
layer {
  name: "conv1"
  type: "Convolution"
  bottom: "pool0"
  top: "conv1"
  param {
    lr_mult: 1
  }
  param {
    lr_mult: 2
  }
  convolution_param {
    num_output: 25
    kernel_size: 5
    stride: 1
    weight_filler {
      type: "xavier"
    }
    bias_filler {
      type: "constant"
    }
  }
}
layer {
  name: "pool1"
  type: "Pooling"
  bottom: "conv1"
  top: "pool1"
  pooling_param {
    pool: MAX
    kernel_size: 2
    stride: 2
  }
}
layer {
  name: "ip1"
  type: "InnerProduct"
  bottom: "pool1"
  top: "ip1"
  param {
    lr_mult: 1
  }
  param {
    lr_mult: 2
  }
  inner_product_param {
    num_output: 10
    weight_filler {
      type: "xavier"
    }
    bias_filler {
      type: "constant"
    }
  }
}
layer {
  name: "relu1"
  type: "ReLU"
  bottom: "ip1"
  top: "ip1"
}
layer {
  name: "ip2"
  type: "InnerProduct"
  bottom: "ip1"
  top: "ip2"
  param {
    lr_mult: 1
  }
  param {
    lr_mult: 2
  }
  inner_product_param {
    num_output: 10
    weight_filler {
      type: "xavier"
    }
    bias_filler {
      type: "constant"
    }
  }
}
layer {
  name: "relu2"
  type: "ReLU"
  bottom: "ip2"
  top: "ip2"
}
layer {
  name: "loss"
  type: "SoftmaxWithLoss"
  bottom: "ip2"
  bottom: "label"
  top: "loss"
}
I0428 19:51:17.806906 27246 layer_factory.hpp:77] Creating layer mnist
I0428 19:51:17.807008 27246 db_lmdb.cpp:35] Opened lmdb examples/mnist/mnist_train_lmdb
I0428 19:51:17.807031 27246 net.cpp:86] Creating Layer mnist
I0428 19:51:17.807041 27246 net.cpp:382] mnist -> data
I0428 19:51:17.807063 27246 net.cpp:382] mnist -> label
I0428 19:51:17.808145 27246 data_layer.cpp:45] output data size: 64,1,28,28
I0428 19:51:17.810600 27246 net.cpp:124] Setting up mnist
I0428 19:51:17.810618 27246 net.cpp:131] Top shape: 64 1 28 28 (50176)
I0428 19:51:17.810626 27246 net.cpp:131] Top shape: 64 (64)
I0428 19:51:17.810628 27246 net.cpp:139] Memory required for data: 200960
I0428 19:51:17.810636 27246 layer_factory.hpp:77] Creating layer conv0
I0428 19:51:17.810653 27246 net.cpp:86] Creating Layer conv0
I0428 19:51:17.810658 27246 net.cpp:408] conv0 <- data
I0428 19:51:17.810672 27246 net.cpp:382] conv0 -> conv0
I0428 19:51:18.070372 27246 net.cpp:124] Setting up conv0
I0428 19:51:18.070416 27246 net.cpp:131] Top shape: 64 5 24 24 (184320)
I0428 19:51:18.070421 27246 net.cpp:139] Memory required for data: 938240
I0428 19:51:18.070456 27246 layer_factory.hpp:77] Creating layer pool0
I0428 19:51:18.070469 27246 net.cpp:86] Creating Layer pool0
I0428 19:51:18.070473 27246 net.cpp:408] pool0 <- conv0
I0428 19:51:18.070479 27246 net.cpp:382] pool0 -> pool0
I0428 19:51:18.070546 27246 net.cpp:124] Setting up pool0
I0428 19:51:18.070554 27246 net.cpp:131] Top shape: 64 5 12 12 (46080)
I0428 19:51:18.070556 27246 net.cpp:139] Memory required for data: 1122560
I0428 19:51:18.070560 27246 layer_factory.hpp:77] Creating layer conv1
I0428 19:51:18.070571 27246 net.cpp:86] Creating Layer conv1
I0428 19:51:18.070574 27246 net.cpp:408] conv1 <- pool0
I0428 19:51:18.070580 27246 net.cpp:382] conv1 -> conv1
I0428 19:51:18.073513 27246 net.cpp:124] Setting up conv1
I0428 19:51:18.073544 27246 net.cpp:131] Top shape: 64 25 8 8 (102400)
I0428 19:51:18.073547 27246 net.cpp:139] Memory required for data: 1532160
I0428 19:51:18.073555 27246 layer_factory.hpp:77] Creating layer pool1
I0428 19:51:18.073563 27246 net.cpp:86] Creating Layer pool1
I0428 19:51:18.073567 27246 net.cpp:408] pool1 <- conv1
I0428 19:51:18.073571 27246 net.cpp:382] pool1 -> pool1
I0428 19:51:18.073609 27246 net.cpp:124] Setting up pool1
I0428 19:51:18.073616 27246 net.cpp:131] Top shape: 64 25 4 4 (25600)
I0428 19:51:18.073619 27246 net.cpp:139] Memory required for data: 1634560
I0428 19:51:18.073621 27246 layer_factory.hpp:77] Creating layer ip1
I0428 19:51:18.073628 27246 net.cpp:86] Creating Layer ip1
I0428 19:51:18.073632 27246 net.cpp:408] ip1 <- pool1
I0428 19:51:18.073637 27246 net.cpp:382] ip1 -> ip1
I0428 19:51:18.073751 27246 net.cpp:124] Setting up ip1
I0428 19:51:18.073758 27246 net.cpp:131] Top shape: 64 10 (640)
I0428 19:51:18.073761 27246 net.cpp:139] Memory required for data: 1637120
I0428 19:51:18.073768 27246 layer_factory.hpp:77] Creating layer relu1
I0428 19:51:18.073773 27246 net.cpp:86] Creating Layer relu1
I0428 19:51:18.073776 27246 net.cpp:408] relu1 <- ip1
I0428 19:51:18.073781 27246 net.cpp:369] relu1 -> ip1 (in-place)
I0428 19:51:18.073943 27246 net.cpp:124] Setting up relu1
I0428 19:51:18.073951 27246 net.cpp:131] Top shape: 64 10 (640)
I0428 19:51:18.073954 27246 net.cpp:139] Memory required for data: 1639680
I0428 19:51:18.073957 27246 layer_factory.hpp:77] Creating layer ip2
I0428 19:51:18.073964 27246 net.cpp:86] Creating Layer ip2
I0428 19:51:18.073967 27246 net.cpp:408] ip2 <- ip1
I0428 19:51:18.073972 27246 net.cpp:382] ip2 -> ip2
I0428 19:51:18.074064 27246 net.cpp:124] Setting up ip2
I0428 19:51:18.074070 27246 net.cpp:131] Top shape: 64 10 (640)
I0428 19:51:18.074074 27246 net.cpp:139] Memory required for data: 1642240
I0428 19:51:18.074079 27246 layer_factory.hpp:77] Creating layer relu2
I0428 19:51:18.074084 27246 net.cpp:86] Creating Layer relu2
I0428 19:51:18.074089 27246 net.cpp:408] relu2 <- ip2
I0428 19:51:18.074091 27246 net.cpp:369] relu2 -> ip2 (in-place)
I0428 19:51:18.074862 27246 net.cpp:124] Setting up relu2
I0428 19:51:18.074873 27246 net.cpp:131] Top shape: 64 10 (640)
I0428 19:51:18.074877 27246 net.cpp:139] Memory required for data: 1644800
I0428 19:51:18.074880 27246 layer_factory.hpp:77] Creating layer loss
I0428 19:51:18.074887 27246 net.cpp:86] Creating Layer loss
I0428 19:51:18.074889 27246 net.cpp:408] loss <- ip2
I0428 19:51:18.074894 27246 net.cpp:408] loss <- label
I0428 19:51:18.074899 27246 net.cpp:382] loss -> loss
I0428 19:51:18.074919 27246 layer_factory.hpp:77] Creating layer loss
…
I0428 19:51:18.075557 27246 solver.cpp:173] Creating test net (#0) specified by net file: ECE595/mnist/train_test/var_everything2/lenet_train_test629.prototxt
I0428 19:51:18.075582 27246 net.cpp:296] The NetState phase (1) differed from the phase (0) specified by a rule in layer mnist
I0428 19:51:18.075664 27246 net.cpp:53] Initializing net from parameters: 
name: "LeNet"
state {
  phase: TEST
}
layer {
  name: "mnist"
  type: "Data"
  top: "data"
  top: "label"
  include {
    phase: TEST
  }
  transform_param {
    scale: 0.00390625
  }
  data_param {
    source: "examples/mnist/mnist_test_lmdb"
    batch_size: 100
    backend: LMDB
  }
}
layer {
  name: "conv0"
  type: "Convolution"
  bottom: "data"
  top: "conv0"
  param {
    lr_mult: 1
  }
  param {
    lr_mult: 2
  }
  convolution_param {
    num_output: 5
    kernel_size: 5
    stride: 1
    weight_filler {
      type: "xavier"
    }
    bias_filler {
      type: "constant"
    }
  }
}
layer {
  name: "pool0"
  type: "Pooling"
  bottom: "conv0"
  top: "pool0"
  pooling_param {
    pool: MAX
    kernel_size: 2
    stride: 2
  }
}
layer {
  name: "conv1"
  type: "Convolution"
  bottom: "pool0"
  top: "conv1"
  param {
    lr_mult: 1
  }
  param {
    lr_mult: 2
  }
  convolution_param {
    num_output: 25
    kernel_size: 5
    stride: 1
    weight_filler {
      type: "xavier"
    }
    bias_filler {
      type: "constant"
    }
  }
}
layer {
  name: "pool1"
  type: "Pooling"
  bottom: "conv1"
  top: "pool1"
  pooling_param {
    pool: MAX
    kernel_size: 2
    stride: 2
  }
}
layer {
  name: "ip1"
  type: "InnerProduct"
  bottom: "pool1"
  top: "ip1"
  param {
    lr_mult: 1
  }
  param {
    lr_mult: 2
  }
  inner_product_param {
    num_output: 10
    weight_filler {
      type: "xavier"
    }
    bias_filler {
      type: "constant"
    }
  }
}
layer {
  name: "relu1"
  type: "ReLU"
  bottom: "ip1"
  top: "ip1"
}
layer {
  name: "ip2"
  type: "InnerProduct"
  bottom: "ip1"
  top: "ip2"
  param {
    lr_mult: 1
  }
  param {
    lr_mult: 2
  }
  inner_product_param {
    num_output: 10
    weight_filler {
      type: "xavier"
    }
    bias_filler {
      type: "constant"
    }
  }
}
layer {
  name: "relu2"
  type: "ReLU"
  bottom: "ip2"
  top: "ip2"
}
layer {
  name: "accuracy"
  type: "Accuracy"
  bottom: "ip2"
  bottom: "label"
  top: "accuracy"
  include {
    phase: TEST
  }
}
layer {
  name: "loss"
  type: "SoftmaxWithLoss"
  bottom: "ip2"
  bottom: "label"
  top: "loss"
}
I0428 19:51:18.075727 27246 layer_factory.hpp:77] Creating layer mnist
I0428 19:51:18.075769 27246 db_lmdb.cpp:35] Opened lmdb examples/mnist/mnist_test_lmdb
I0428 19:51:18.075783 27246 net.cpp:86] Creating Layer mnist
I0428 19:51:18.075788 27246 net.cpp:382] mnist -> data
I0428 19:51:18.075794 27246 net.cpp:382] mnist -> label
I0428 19:51:18.075876 27246 data_layer.cpp:45] output data size: 100,1,28,28
I0428 19:51:18.078006 27246 net.cpp:124] Setting up mnist
I0428 19:51:18.078019 27246 net.cpp:131] Top shape: 100 1 28 28 (78400)
I0428 19:51:18.078024 27246 net.cpp:131] Top shape: 100 (100)
I0428 19:51:18.078027 27246 net.cpp:139] Memory required for data: 314000
I0428 19:51:18.078032 27246 layer_factory.hpp:77] Creating layer label_mnist_1_split
I0428 19:51:18.078042 27246 net.cpp:86] Creating Layer label_mnist_1_split
I0428 19:51:18.078045 27246 net.cpp:408] label_mnist_1_split <- label
I0428 19:51:18.078049 27246 net.cpp:382] label_mnist_1_split -> label_mnist_1_split_0
I0428 19:51:18.078058 27246 net.cpp:382] label_mnist_1_split -> label_mnist_1_split_1
I0428 19:51:18.078163 27246 net.cpp:124] Setting up label_mnist_1_split
I0428 19:51:18.078181 27246 net.cpp:131] Top shape: 100 (100)
I0428 19:51:18.078186 27246 net.cpp:131] Top shape: 100 (100)
I0428 19:51:18.078188 27246 net.cpp:139] Memory required for data: 314800
I0428 19:51:18.078191 27246 layer_factory.hpp:77] Creating layer conv0
I0428 19:51:18.078202 27246 net.cpp:86] Creating Layer conv0
I0428 19:51:18.078205 27246 net.cpp:408] conv0 <- data
I0428 19:51:18.078210 27246 net.cpp:382] conv0 -> conv0
I0428 19:51:18.079901 27246 net.cpp:124] Setting up conv0
I0428 19:51:18.079931 27246 net.cpp:131] Top shape: 100 5 24 24 (288000)
I0428 19:51:18.079936 27246 net.cpp:139] Memory required for data: 1466800
I0428 19:51:18.079946 27246 layer_factory.hpp:77] Creating layer pool0
I0428 19:51:18.079953 27246 net.cpp:86] Creating Layer pool0
I0428 19:51:18.079957 27246 net.cpp:408] pool0 <- conv0
I0428 19:51:18.079963 27246 net.cpp:382] pool0 -> pool0
I0428 19:51:18.079999 27246 net.cpp:124] Setting up pool0
I0428 19:51:18.080006 27246 net.cpp:131] Top shape: 100 5 12 12 (72000)
I0428 19:51:18.080009 27246 net.cpp:139] Memory required for data: 1754800
I0428 19:51:18.080013 27246 layer_factory.hpp:77] Creating layer conv1
I0428 19:51:18.080023 27246 net.cpp:86] Creating Layer conv1
I0428 19:51:18.080029 27246 net.cpp:408] conv1 <- pool0
I0428 19:51:18.080035 27246 net.cpp:382] conv1 -> conv1
I0428 19:51:18.082237 27246 net.cpp:124] Setting up conv1
I0428 19:51:18.082250 27246 net.cpp:131] Top shape: 100 25 8 8 (160000)
I0428 19:51:18.082254 27246 net.cpp:139] Memory required for data: 2394800
I0428 19:51:18.082263 27246 layer_factory.hpp:77] Creating layer pool1
I0428 19:51:18.082271 27246 net.cpp:86] Creating Layer pool1
I0428 19:51:18.082275 27246 net.cpp:408] pool1 <- conv1
I0428 19:51:18.082280 27246 net.cpp:382] pool1 -> pool1
I0428 19:51:18.082335 27246 net.cpp:124] Setting up pool1
I0428 19:51:18.082345 27246 net.cpp:131] Top shape: 100 25 4 4 (40000)
I0428 19:51:18.082347 27246 net.cpp:139] Memory required for data: 2554800
I0428 19:51:18.082350 27246 layer_factory.hpp:77] Creating layer ip1
I0428 19:51:18.082356 27246 net.cpp:86] Creating Layer ip1
I0428 19:51:18.082360 27246 net.cpp:408] ip1 <- pool1
I0428 19:51:18.082366 27246 net.cpp:382] ip1 -> ip1
I0428 19:51:18.082540 27246 net.cpp:124] Setting up ip1
I0428 19:51:18.082547 27246 net.cpp:131] Top shape: 100 10 (1000)
I0428 19:51:18.082551 27246 net.cpp:139] Memory required for data: 2558800
I0428 19:51:18.082559 27246 layer_factory.hpp:77] Creating layer relu1
I0428 19:51:18.082564 27246 net.cpp:86] Creating Layer relu1
I0428 19:51:18.082568 27246 net.cpp:408] relu1 <- ip1
I0428 19:51:18.082574 27246 net.cpp:369] relu1 -> ip1 (in-place)
I0428 19:51:18.082751 27246 net.cpp:124] Setting up relu1
I0428 19:51:18.082759 27246 net.cpp:131] Top shape: 100 10 (1000)
I0428 19:51:18.082763 27246 net.cpp:139] Memory required for data: 2562800
I0428 19:51:18.082767 27246 layer_factory.hpp:77] Creating layer ip2
I0428 19:51:18.082773 27246 net.cpp:86] Creating Layer ip2
I0428 19:51:18.082777 27246 net.cpp:408] ip2 <- ip1
I0428 19:51:18.082782 27246 net.cpp:382] ip2 -> ip2
I0428 19:51:18.082895 27246 net.cpp:124] Setting up ip2
I0428 19:51:18.082902 27246 net.cpp:131] Top shape: 100 10 (1000)
I0428 19:51:18.082906 27246 net.cpp:139] Memory required for data: 2566800
I0428 19:51:18.082911 27246 layer_factory.hpp:77] Creating layer relu2
I0428 19:51:18.082916 27246 net.cpp:86] Creating Layer relu2
I0428 19:51:18.082918 27246 net.cpp:408] relu2 <- ip2
I0428 19:51:18.082932 27246 net.cpp:369] relu2 -> ip2 (in-place)
I0428 19:51:18.083091 27246 net.cpp:124] Setting up relu2
I0428 19:51:18.083099 27246 net.cpp:131] Top shape: 100 10 (1000)
I0428 19:51:18.083102 27246 net.cpp:139] Memory required for data: 2570800
I0428 19:51:18.083106 27246 layer_factory.hpp:77] Creating layer ip2_relu2_0_split
I0428 19:51:18.083111 27246 net.cpp:86] Creating Layer ip2_relu2_0_split
I0428 19:51:18.083113 27246 net.cpp:408] ip2_relu2_0_split <- ip2
I0428 19:51:18.083119 27246 net.cpp:382] ip2_relu2_0_split -> ip2_relu2_0_split_0
I0428 19:51:18.083137 27246 net.cpp:382] ip2_relu2_0_split -> ip2_relu2_0_split_1
I0428 19:51:18.083173 27246 net.cpp:124] Setting up ip2_relu2_0_split
I0428 19:51:18.083194 27246 net.cpp:131] Top shape: 100 10 (1000)
I0428 19:51:18.083199 27246 net.cpp:131] Top shape: 100 10 (1000)
I0428 19:51:18.083200 27246 net.cpp:139] Memory required for data: 2578800
I0428 19:51:18.083204 27246 layer_factory.hpp:77] Creating layer accuracy
I0428 19:51:18.083209 27246 net.cpp:86] Creating Layer accuracy
I0428 19:51:18.083212 27246 net.cpp:408] accuracy <- ip2_relu2_0_split_0
I0428 19:51:18.083216 27246 net.cpp:408] accuracy <- label_mnist_1_split_0
I0428 19:51:18.083221 27246 net.cpp:382] accuracy -> accuracy
…
