…
I0428 20:03:51.922013 30279 net.cpp:296] The NetState phase (0) differed from the phase (1) specified by a rule in layer mnist
I0428 20:03:51.922041 30279 net.cpp:296] The NetState phase (0) differed from the phase (1) specified by a rule in layer accuracy
I0428 20:03:51.922138 30279 net.cpp:53] Initializing net from parameters: 
name: "LeNet"
state {
  phase: TRAIN
  level: 0
  stage: ""
}
layer {
  name: "mnist"
  type: "Data"
  top: "data"
  top: "label"
  include {
    phase: TRAIN
  }
  transform_param {
    scale: 0.00390625
  }
  data_param {
    source: "examples/mnist/mnist_train_lmdb"
    batch_size: 64
    backend: LMDB
  }
}
layer {
  name: "conv0"
  type: "Convolution"
  bottom: "data"
  top: "conv0"
  param {
    lr_mult: 1
  }
  param {
    lr_mult: 2
  }
  convolution_param {
    num_output: 10
    kernel_size: 5
    stride: 1
    weight_filler {
      type: "xavier"
    }
    bias_filler {
      type: "constant"
    }
  }
}
layer {
  name: "pool0"
  type: "Pooling"
  bottom: "conv0"
  top: "pool0"
  pooling_param {
    pool: MAX
    kernel_size: 2
    stride: 2
  }
}
layer {
  name: "conv1"
  type: "Convolution"
  bottom: "pool0"
  top: "conv1"
  param {
    lr_mult: 1
  }
  param {
    lr_mult: 2
  }
  convolution_param {
    num_output: 100
    kernel_size: 5
    stride: 1
    weight_filler {
      type: "xavier"
    }
    bias_filler {
      type: "constant"
    }
  }
}
layer {
  name: "pool1"
  type: "Pooling"
  bottom: "conv1"
  top: "pool1"
  pooling_param {
    pool: MAX
    kernel_size: 2
    stride: 2
  }
}
layer {
  name: "ip1"
  type: "InnerProduct"
  bottom: "pool1"
  top: "ip1"
  param {
    lr_mult: 1
  }
  param {
    lr_mult: 2
  }
  inner_product_param {
    num_output: 25
    weight_filler {
      type: "xavier"
    }
    bias_filler {
      type: "constant"
    }
  }
}
layer {
  name: "relu1"
  type: "ReLU"
  bottom: "ip1"
  top: "ip1"
}
layer {
  name: "ip2"
  type: "InnerProduct"
  bottom: "ip1"
  top: "ip2"
  param {
    lr_mult: 1
  }
  param {
    lr_mult: 2
  }
  inner_product_param {
    num_output: 25
    weight_filler {
      type: "xavier"
    }
    bias_filler {
      type: "constant"
    }
  }
}
layer {
  name: "relu2"
  type: "ReLU"
  bottom: "ip2"
  top: "ip2"
}
layer {
  name: "ip3"
  type: "InnerProduct"
  bottom: "ip2"
  top: "ip3"
  param {
    lr_mult: 1
  }
  param {
    lr_mult: 2
  }
  inner_product_param {
    num_output: 10
    weight_filler {
      type: "xavier"
    }
    bias_filler {
      type: "constant"
    }
  }
}
layer {
  name: "relu3"
  type: "ReLU"
  bottom: "ip3"
  top: "ip3"
}
layer {
  name: "loss"
  type: "SoftmaxWithLoss"
  bottom: "ip3"
  bottom: "label"
  top: "loss"
}
I0428 20:03:51.922201 30279 layer_factory.hpp:77] Creating layer mnist
I0428 20:03:51.922284 30279 db_lmdb.cpp:35] Opened lmdb examples/mnist/mnist_train_lmdb
I0428 20:03:51.922304 30279 net.cpp:86] Creating Layer mnist
I0428 20:03:51.922310 30279 net.cpp:382] mnist -> data
I0428 20:03:51.922330 30279 net.cpp:382] mnist -> label
I0428 20:03:51.923344 30279 data_layer.cpp:45] output data size: 64,1,28,28
I0428 20:03:51.925565 30279 net.cpp:124] Setting up mnist
I0428 20:03:51.925595 30279 net.cpp:131] Top shape: 64 1 28 28 (50176)
I0428 20:03:51.925601 30279 net.cpp:131] Top shape: 64 (64)
I0428 20:03:51.925603 30279 net.cpp:139] Memory required for data: 200960
I0428 20:03:51.925609 30279 layer_factory.hpp:77] Creating layer conv0
I0428 20:03:51.925621 30279 net.cpp:86] Creating Layer conv0
I0428 20:03:51.925637 30279 net.cpp:408] conv0 <- data
I0428 20:03:51.925647 30279 net.cpp:382] conv0 -> conv0
I0428 20:03:52.155454 30279 net.cpp:124] Setting up conv0
I0428 20:03:52.155495 30279 net.cpp:131] Top shape: 64 10 24 24 (368640)
I0428 20:03:52.155499 30279 net.cpp:139] Memory required for data: 1675520
I0428 20:03:52.155529 30279 layer_factory.hpp:77] Creating layer pool0
I0428 20:03:52.155541 30279 net.cpp:86] Creating Layer pool0
I0428 20:03:52.155545 30279 net.cpp:408] pool0 <- conv0
I0428 20:03:52.155566 30279 net.cpp:382] pool0 -> pool0
I0428 20:03:52.155611 30279 net.cpp:124] Setting up pool0
I0428 20:03:52.155616 30279 net.cpp:131] Top shape: 64 10 12 12 (92160)
I0428 20:03:52.155619 30279 net.cpp:139] Memory required for data: 2044160
I0428 20:03:52.155622 30279 layer_factory.hpp:77] Creating layer conv1
I0428 20:03:52.155633 30279 net.cpp:86] Creating Layer conv1
I0428 20:03:52.155637 30279 net.cpp:408] conv1 <- pool0
I0428 20:03:52.155642 30279 net.cpp:382] conv1 -> conv1
I0428 20:03:52.157738 30279 net.cpp:124] Setting up conv1
I0428 20:03:52.157768 30279 net.cpp:131] Top shape: 64 100 8 8 (409600)
I0428 20:03:52.157773 30279 net.cpp:139] Memory required for data: 3682560
I0428 20:03:52.157780 30279 layer_factory.hpp:77] Creating layer pool1
I0428 20:03:52.157788 30279 net.cpp:86] Creating Layer pool1
I0428 20:03:52.157793 30279 net.cpp:408] pool1 <- conv1
I0428 20:03:52.157796 30279 net.cpp:382] pool1 -> pool1
I0428 20:03:52.157831 30279 net.cpp:124] Setting up pool1
I0428 20:03:52.157836 30279 net.cpp:131] Top shape: 64 100 4 4 (102400)
I0428 20:03:52.157840 30279 net.cpp:139] Memory required for data: 4092160
I0428 20:03:52.157842 30279 layer_factory.hpp:77] Creating layer ip1
I0428 20:03:52.157850 30279 net.cpp:86] Creating Layer ip1
I0428 20:03:52.157852 30279 net.cpp:408] ip1 <- pool1
I0428 20:03:52.157856 30279 net.cpp:382] ip1 -> ip1
I0428 20:03:52.158219 30279 net.cpp:124] Setting up ip1
I0428 20:03:52.158226 30279 net.cpp:131] Top shape: 64 25 (1600)
I0428 20:03:52.158244 30279 net.cpp:139] Memory required for data: 4098560
I0428 20:03:52.158252 30279 layer_factory.hpp:77] Creating layer relu1
I0428 20:03:52.158257 30279 net.cpp:86] Creating Layer relu1
I0428 20:03:52.158259 30279 net.cpp:408] relu1 <- ip1
I0428 20:03:52.158264 30279 net.cpp:369] relu1 -> ip1 (in-place)
I0428 20:03:52.158421 30279 net.cpp:124] Setting up relu1
I0428 20:03:52.158430 30279 net.cpp:131] Top shape: 64 25 (1600)
I0428 20:03:52.158433 30279 net.cpp:139] Memory required for data: 4104960
I0428 20:03:52.158437 30279 layer_factory.hpp:77] Creating layer ip2
I0428 20:03:52.158443 30279 net.cpp:86] Creating Layer ip2
I0428 20:03:52.158447 30279 net.cpp:408] ip2 <- ip1
I0428 20:03:52.158452 30279 net.cpp:382] ip2 -> ip2
I0428 20:03:52.158555 30279 net.cpp:124] Setting up ip2
I0428 20:03:52.158560 30279 net.cpp:131] Top shape: 64 25 (1600)
I0428 20:03:52.158563 30279 net.cpp:139] Memory required for data: 4111360
I0428 20:03:52.158583 30279 layer_factory.hpp:77] Creating layer relu2
I0428 20:03:52.158589 30279 net.cpp:86] Creating Layer relu2
I0428 20:03:52.158592 30279 net.cpp:408] relu2 <- ip2
I0428 20:03:52.158596 30279 net.cpp:369] relu2 -> ip2 (in-place)
I0428 20:03:52.159377 30279 net.cpp:124] Setting up relu2
I0428 20:03:52.159389 30279 net.cpp:131] Top shape: 64 25 (1600)
I0428 20:03:52.159409 30279 net.cpp:139] Memory required for data: 4117760
I0428 20:03:52.159411 30279 layer_factory.hpp:77] Creating layer ip3
I0428 20:03:52.159418 30279 net.cpp:86] Creating Layer ip3
I0428 20:03:52.159423 30279 net.cpp:408] ip3 <- ip2
I0428 20:03:52.159428 30279 net.cpp:382] ip3 -> ip3
I0428 20:03:52.159518 30279 net.cpp:124] Setting up ip3
I0428 20:03:52.159524 30279 net.cpp:131] Top shape: 64 10 (640)
I0428 20:03:52.159528 30279 net.cpp:139] Memory required for data: 4120320
I0428 20:03:52.159534 30279 layer_factory.hpp:77] Creating layer relu3
I0428 20:03:52.159539 30279 net.cpp:86] Creating Layer relu3
I0428 20:03:52.159543 30279 net.cpp:408] relu3 <- ip3
I0428 20:03:52.159545 30279 net.cpp:369] relu3 -> ip3 (in-place)
I0428 20:03:52.159723 30279 net.cpp:124] Setting up relu3
I0428 20:03:52.159731 30279 net.cpp:131] Top shape: 64 10 (640)
I0428 20:03:52.159734 30279 net.cpp:139] Memory required for data: 4122880
I0428 20:03:52.159737 30279 layer_factory.hpp:77] Creating layer loss
I0428 20:03:52.159744 30279 net.cpp:86] Creating Layer loss
I0428 20:03:52.159746 30279 net.cpp:408] loss <- ip3
I0428 20:03:52.159750 30279 net.cpp:408] loss <- label
I0428 20:03:52.159755 30279 net.cpp:382] loss -> loss
I0428 20:03:52.159773 30279 layer_factory.hpp:77] Creating layer loss
…
I0428 20:03:52.160428 30279 solver.cpp:173] Creating test net (#0) specified by net file: ECE595/mnist/train_test/var_everything2/lenet_train_test960.prototxt
I0428 20:03:52.160481 30279 net.cpp:296] The NetState phase (1) differed from the phase (0) specified by a rule in layer mnist
I0428 20:03:52.160564 30279 net.cpp:53] Initializing net from parameters: 
name: "LeNet"
state {
  phase: TEST
}
layer {
  name: "mnist"
  type: "Data"
  top: "data"
  top: "label"
  include {
    phase: TEST
  }
  transform_param {
    scale: 0.00390625
  }
  data_param {
    source: "examples/mnist/mnist_test_lmdb"
    batch_size: 100
    backend: LMDB
  }
}
layer {
  name: "conv0"
  type: "Convolution"
  bottom: "data"
  top: "conv0"
  param {
    lr_mult: 1
  }
  param {
    lr_mult: 2
  }
  convolution_param {
    num_output: 10
    kernel_size: 5
    stride: 1
    weight_filler {
      type: "xavier"
    }
    bias_filler {
      type: "constant"
    }
  }
}
layer {
  name: "pool0"
  type: "Pooling"
  bottom: "conv0"
  top: "pool0"
  pooling_param {
    pool: MAX
    kernel_size: 2
    stride: 2
  }
}
layer {
  name: "conv1"
  type: "Convolution"
  bottom: "pool0"
  top: "conv1"
  param {
    lr_mult: 1
  }
  param {
    lr_mult: 2
  }
  convolution_param {
    num_output: 100
    kernel_size: 5
    stride: 1
    weight_filler {
      type: "xavier"
    }
    bias_filler {
      type: "constant"
    }
  }
}
layer {
  name: "pool1"
  type: "Pooling"
  bottom: "conv1"
  top: "pool1"
  pooling_param {
    pool: MAX
    kernel_size: 2
    stride: 2
  }
}
layer {
  name: "ip1"
  type: "InnerProduct"
  bottom: "pool1"
  top: "ip1"
  param {
    lr_mult: 1
  }
  param {
    lr_mult: 2
  }
  inner_product_param {
    num_output: 25
    weight_filler {
      type: "xavier"
    }
    bias_filler {
      type: "constant"
    }
  }
}
layer {
  name: "relu1"
  type: "ReLU"
  bottom: "ip1"
  top: "ip1"
}
layer {
  name: "ip2"
  type: "InnerProduct"
  bottom: "ip1"
  top: "ip2"
  param {
    lr_mult: 1
  }
  param {
    lr_mult: 2
  }
  inner_product_param {
    num_output: 25
    weight_filler {
      type: "xavier"
    }
    bias_filler {
      type: "constant"
    }
  }
}
layer {
  name: "relu2"
  type: "ReLU"
  bottom: "ip2"
  top: "ip2"
}
layer {
  name: "ip3"
  type: "InnerProduct"
  bottom: "ip2"
  top: "ip3"
  param {
    lr_mult: 1
  }
  param {
    lr_mult: 2
  }
  inner_product_param {
    num_output: 10
    weight_filler {
      type: "xavier"
    }
    bias_filler {
      type: "constant"
    }
  }
}
layer {
  name: "relu3"
  type: "ReLU"
  bottom: "ip3"
  top: "ip3"
}
layer {
  name: "accuracy"
  type: "Accuracy"
  bottom: "ip3"
  bottom: "label"
  top: "accuracy"
  include {
    phase: TEST
  }
}
layer {
  name: "loss"
  type: "SoftmaxWithLoss"
  bottom: "ip3"
  bottom: "label"
  top: "loss"
}
I0428 20:03:52.160637 30279 layer_factory.hpp:77] Creating layer mnist
I0428 20:03:52.160681 30279 db_lmdb.cpp:35] Opened lmdb examples/mnist/mnist_test_lmdb
I0428 20:03:52.160692 30279 net.cpp:86] Creating Layer mnist
I0428 20:03:52.160696 30279 net.cpp:382] mnist -> data
I0428 20:03:52.160703 30279 net.cpp:382] mnist -> label
I0428 20:03:52.160779 30279 data_layer.cpp:45] output data size: 100,1,28,28
I0428 20:03:52.163117 30279 net.cpp:124] Setting up mnist
I0428 20:03:52.163161 30279 net.cpp:131] Top shape: 100 1 28 28 (78400)
I0428 20:03:52.163166 30279 net.cpp:131] Top shape: 100 (100)
I0428 20:03:52.163183 30279 net.cpp:139] Memory required for data: 314000
I0428 20:03:52.163187 30279 layer_factory.hpp:77] Creating layer label_mnist_1_split
I0428 20:03:52.163193 30279 net.cpp:86] Creating Layer label_mnist_1_split
I0428 20:03:52.163197 30279 net.cpp:408] label_mnist_1_split <- label
I0428 20:03:52.163202 30279 net.cpp:382] label_mnist_1_split -> label_mnist_1_split_0
I0428 20:03:52.163208 30279 net.cpp:382] label_mnist_1_split -> label_mnist_1_split_1
I0428 20:03:52.163257 30279 net.cpp:124] Setting up label_mnist_1_split
I0428 20:03:52.163262 30279 net.cpp:131] Top shape: 100 (100)
I0428 20:03:52.163265 30279 net.cpp:131] Top shape: 100 (100)
I0428 20:03:52.163269 30279 net.cpp:139] Memory required for data: 314800
I0428 20:03:52.163271 30279 layer_factory.hpp:77] Creating layer conv0
I0428 20:03:52.163278 30279 net.cpp:86] Creating Layer conv0
I0428 20:03:52.163281 30279 net.cpp:408] conv0 <- data
I0428 20:03:52.163286 30279 net.cpp:382] conv0 -> conv0
I0428 20:03:52.165149 30279 net.cpp:124] Setting up conv0
I0428 20:03:52.165164 30279 net.cpp:131] Top shape: 100 10 24 24 (576000)
I0428 20:03:52.165169 30279 net.cpp:139] Memory required for data: 2618800
I0428 20:03:52.165177 30279 layer_factory.hpp:77] Creating layer pool0
I0428 20:03:52.165184 30279 net.cpp:86] Creating Layer pool0
I0428 20:03:52.165186 30279 net.cpp:408] pool0 <- conv0
I0428 20:03:52.165191 30279 net.cpp:382] pool0 -> pool0
I0428 20:03:52.165225 30279 net.cpp:124] Setting up pool0
I0428 20:03:52.165228 30279 net.cpp:131] Top shape: 100 10 12 12 (144000)
I0428 20:03:52.165231 30279 net.cpp:139] Memory required for data: 3194800
I0428 20:03:52.165235 30279 layer_factory.hpp:77] Creating layer conv1
I0428 20:03:52.165256 30279 net.cpp:86] Creating Layer conv1
I0428 20:03:52.165259 30279 net.cpp:408] conv1 <- pool0
I0428 20:03:52.165264 30279 net.cpp:382] conv1 -> conv1
I0428 20:03:52.166904 30279 net.cpp:124] Setting up conv1
I0428 20:03:52.166918 30279 net.cpp:131] Top shape: 100 100 8 8 (640000)
I0428 20:03:52.166921 30279 net.cpp:139] Memory required for data: 5754800
I0428 20:03:52.166929 30279 layer_factory.hpp:77] Creating layer pool1
I0428 20:03:52.166936 30279 net.cpp:86] Creating Layer pool1
I0428 20:03:52.166939 30279 net.cpp:408] pool1 <- conv1
I0428 20:03:52.166945 30279 net.cpp:382] pool1 -> pool1
I0428 20:03:52.166980 30279 net.cpp:124] Setting up pool1
I0428 20:03:52.166985 30279 net.cpp:131] Top shape: 100 100 4 4 (160000)
I0428 20:03:52.166988 30279 net.cpp:139] Memory required for data: 6394800
I0428 20:03:52.166991 30279 layer_factory.hpp:77] Creating layer ip1
I0428 20:03:52.166997 30279 net.cpp:86] Creating Layer ip1
I0428 20:03:52.167007 30279 net.cpp:408] ip1 <- pool1
I0428 20:03:52.167013 30279 net.cpp:382] ip1 -> ip1
I0428 20:03:52.167362 30279 net.cpp:124] Setting up ip1
I0428 20:03:52.167371 30279 net.cpp:131] Top shape: 100 25 (2500)
I0428 20:03:52.167384 30279 net.cpp:139] Memory required for data: 6404800
I0428 20:03:52.167392 30279 layer_factory.hpp:77] Creating layer relu1
I0428 20:03:52.167397 30279 net.cpp:86] Creating Layer relu1
I0428 20:03:52.167400 30279 net.cpp:408] relu1 <- ip1
I0428 20:03:52.167404 30279 net.cpp:369] relu1 -> ip1 (in-place)
I0428 20:03:52.167572 30279 net.cpp:124] Setting up relu1
I0428 20:03:52.167580 30279 net.cpp:131] Top shape: 100 25 (2500)
I0428 20:03:52.167583 30279 net.cpp:139] Memory required for data: 6414800
I0428 20:03:52.167587 30279 layer_factory.hpp:77] Creating layer ip2
I0428 20:03:52.167593 30279 net.cpp:86] Creating Layer ip2
I0428 20:03:52.167595 30279 net.cpp:408] ip2 <- ip1
I0428 20:03:52.167601 30279 net.cpp:382] ip2 -> ip2
I0428 20:03:52.167717 30279 net.cpp:124] Setting up ip2
I0428 20:03:52.167724 30279 net.cpp:131] Top shape: 100 25 (2500)
I0428 20:03:52.167727 30279 net.cpp:139] Memory required for data: 6424800
I0428 20:03:52.167732 30279 layer_factory.hpp:77] Creating layer relu2
I0428 20:03:52.167737 30279 net.cpp:86] Creating Layer relu2
I0428 20:03:52.167740 30279 net.cpp:408] relu2 <- ip2
I0428 20:03:52.167744 30279 net.cpp:369] relu2 -> ip2 (in-place)
I0428 20:03:52.167963 30279 net.cpp:124] Setting up relu2
I0428 20:03:52.167973 30279 net.cpp:131] Top shape: 100 25 (2500)
I0428 20:03:52.167975 30279 net.cpp:139] Memory required for data: 6434800
I0428 20:03:52.167979 30279 layer_factory.hpp:77] Creating layer ip3
I0428 20:03:52.167984 30279 net.cpp:86] Creating Layer ip3
I0428 20:03:52.167987 30279 net.cpp:408] ip3 <- ip2
I0428 20:03:52.167991 30279 net.cpp:382] ip3 -> ip3
I0428 20:03:52.168126 30279 net.cpp:124] Setting up ip3
I0428 20:03:52.168148 30279 net.cpp:131] Top shape: 100 10 (1000)
I0428 20:03:52.168151 30279 net.cpp:139] Memory required for data: 6438800
I0428 20:03:52.168174 30279 layer_factory.hpp:77] Creating layer relu3
I0428 20:03:52.168179 30279 net.cpp:86] Creating Layer relu3
I0428 20:03:52.168180 30279 net.cpp:408] relu3 <- ip3
I0428 20:03:52.168192 30279 net.cpp:369] relu3 -> ip3 (in-place)
I0428 20:03:52.169021 30279 net.cpp:124] Setting up relu3
I0428 20:03:52.169037 30279 net.cpp:131] Top shape: 100 10 (1000)
I0428 20:03:52.169049 30279 net.cpp:139] Memory required for data: 6442800
I0428 20:03:52.169051 30279 layer_factory.hpp:77] Creating layer ip3_relu3_0_split
I0428 20:03:52.169059 30279 net.cpp:86] Creating Layer ip3_relu3_0_split
I0428 20:03:52.169062 30279 net.cpp:408] ip3_relu3_0_split <- ip3
I0428 20:03:52.169067 30279 net.cpp:382] ip3_relu3_0_split -> ip3_relu3_0_split_0
I0428 20:03:52.169073 30279 net.cpp:382] ip3_relu3_0_split -> ip3_relu3_0_split_1
I0428 20:03:52.169116 30279 net.cpp:124] Setting up ip3_relu3_0_split
I0428 20:03:52.169122 30279 net.cpp:131] Top shape: 100 10 (1000)
I0428 20:03:52.169126 30279 net.cpp:131] Top shape: 100 10 (1000)
I0428 20:03:52.169128 30279 net.cpp:139] Memory required for data: 6450800
I0428 20:03:52.169131 30279 layer_factory.hpp:77] Creating layer accuracy
I0428 20:03:52.169137 30279 net.cpp:86] Creating Layer accuracy
I0428 20:03:52.169139 30279 net.cpp:408] accuracy <- ip3_relu3_0_split_0
I0428 20:03:52.169143 30279 net.cpp:408] accuracy <- label_mnist_1_split_0
I0428 20:03:52.169149 30279 net.cpp:382] accuracy -> accuracy
…
