…
I0428 20:26:01.543229  2726 net.cpp:296] The NetState phase (0) differed from the phase (1) specified by a rule in layer mnist
I0428 20:26:01.543248  2726 net.cpp:296] The NetState phase (0) differed from the phase (1) specified by a rule in layer accuracy
I0428 20:26:01.543351  2726 net.cpp:53] Initializing net from parameters: 
name: "LeNet"
state {
  phase: TRAIN
  level: 0
  stage: ""
}
layer {
  name: "mnist"
  type: "Data"
  top: "data"
  top: "label"
  include {
    phase: TRAIN
  }
  transform_param {
    scale: 0.00390625
  }
  data_param {
    source: "examples/mnist/mnist_train_lmdb"
    batch_size: 64
    backend: LMDB
  }
}
layer {
  name: "conv0"
  type: "Convolution"
  bottom: "data"
  top: "conv0"
  param {
    lr_mult: 1
  }
  param {
    lr_mult: 2
  }
  convolution_param {
    num_output: 100
    kernel_size: 5
    stride: 1
    weight_filler {
      type: "xavier"
    }
    bias_filler {
      type: "constant"
    }
  }
}
layer {
  name: "pool0"
  type: "Pooling"
  bottom: "conv0"
  top: "pool0"
  pooling_param {
    pool: MAX
    kernel_size: 2
    stride: 2
  }
}
layer {
  name: "conv1"
  type: "Convolution"
  bottom: "pool0"
  top: "conv1"
  param {
    lr_mult: 1
  }
  param {
    lr_mult: 2
  }
  convolution_param {
    num_output: 2
    kernel_size: 5
    stride: 1
    weight_filler {
      type: "xavier"
    }
    bias_filler {
      type: "constant"
    }
  }
}
layer {
  name: "pool1"
  type: "Pooling"
  bottom: "conv1"
  top: "pool1"
  pooling_param {
    pool: MAX
    kernel_size: 2
    stride: 2
  }
}
layer {
  name: "ip1"
  type: "InnerProduct"
  bottom: "pool1"
  top: "ip1"
  param {
    lr_mult: 1
  }
  param {
    lr_mult: 2
  }
  inner_product_param {
    num_output: 25
    weight_filler {
      type: "xavier"
    }
    bias_filler {
      type: "constant"
    }
  }
}
layer {
  name: "relu1"
  type: "ReLU"
  bottom: "ip1"
  top: "ip1"
}
layer {
  name: "ip2"
  type: "InnerProduct"
  bottom: "ip1"
  top: "ip2"
  param {
    lr_mult: 1
  }
  param {
    lr_mult: 2
  }
  inner_product_param {
    num_output: 10
    weight_filler {
      type: "xavier"
    }
    bias_filler {
      type: "constant"
    }
  }
}
layer {
  name: "relu2"
  type: "ReLU"
  bottom: "ip2"
  top: "ip2"
}
layer {
  name: "ip3"
  type: "InnerProduct"
  bottom: "ip2"
  top: "ip3"
  param {
    lr_mult: 1
  }
  param {
    lr_mult: 2
  }
  inner_product_param {
    num_output: 10
    weight_filler {
      type: "xavier"
    }
    bias_filler {
      type: "constant"
    }
  }
}
layer {
  name: "relu3"
  type: "ReLU"
  bottom: "ip3"
  top: "ip3"
}
layer {
  name: "loss"
  type: "SoftmaxWithLoss"
  bottom: "ip3"
  bottom: "label"
  top: "loss"
}
I0428 20:26:01.543432  2726 layer_factory.hpp:77] Creating layer mnist
I0428 20:26:01.543531  2726 db_lmdb.cpp:35] Opened lmdb examples/mnist/mnist_train_lmdb
I0428 20:26:01.543555  2726 net.cpp:86] Creating Layer mnist
I0428 20:26:01.543565  2726 net.cpp:382] mnist -> data
I0428 20:26:01.543586  2726 net.cpp:382] mnist -> label
I0428 20:26:01.544682  2726 data_layer.cpp:45] output data size: 64,1,28,28
I0428 20:26:01.547147  2726 net.cpp:124] Setting up mnist
I0428 20:26:01.547168  2726 net.cpp:131] Top shape: 64 1 28 28 (50176)
I0428 20:26:01.547173  2726 net.cpp:131] Top shape: 64 (64)
I0428 20:26:01.547178  2726 net.cpp:139] Memory required for data: 200960
I0428 20:26:01.547184  2726 layer_factory.hpp:77] Creating layer conv0
I0428 20:26:01.547200  2726 net.cpp:86] Creating Layer conv0
I0428 20:26:01.547221  2726 net.cpp:408] conv0 <- data
I0428 20:26:01.547235  2726 net.cpp:382] conv0 -> conv0
I0428 20:26:01.837293  2726 net.cpp:124] Setting up conv0
I0428 20:26:01.837322  2726 net.cpp:131] Top shape: 64 100 24 24 (3686400)
I0428 20:26:01.837327  2726 net.cpp:139] Memory required for data: 14946560
I0428 20:26:01.837345  2726 layer_factory.hpp:77] Creating layer pool0
I0428 20:26:01.837359  2726 net.cpp:86] Creating Layer pool0
I0428 20:26:01.837363  2726 net.cpp:408] pool0 <- conv0
I0428 20:26:01.837370  2726 net.cpp:382] pool0 -> pool0
I0428 20:26:01.837421  2726 net.cpp:124] Setting up pool0
I0428 20:26:01.837429  2726 net.cpp:131] Top shape: 64 100 12 12 (921600)
I0428 20:26:01.837431  2726 net.cpp:139] Memory required for data: 18632960
I0428 20:26:01.837435  2726 layer_factory.hpp:77] Creating layer conv1
I0428 20:26:01.837446  2726 net.cpp:86] Creating Layer conv1
I0428 20:26:01.837450  2726 net.cpp:408] conv1 <- pool0
I0428 20:26:01.837455  2726 net.cpp:382] conv1 -> conv1
I0428 20:26:01.840344  2726 net.cpp:124] Setting up conv1
I0428 20:26:01.840360  2726 net.cpp:131] Top shape: 64 2 8 8 (8192)
I0428 20:26:01.840364  2726 net.cpp:139] Memory required for data: 18665728
I0428 20:26:01.840374  2726 layer_factory.hpp:77] Creating layer pool1
I0428 20:26:01.840382  2726 net.cpp:86] Creating Layer pool1
I0428 20:26:01.840389  2726 net.cpp:408] pool1 <- conv1
I0428 20:26:01.840394  2726 net.cpp:382] pool1 -> pool1
I0428 20:26:01.840435  2726 net.cpp:124] Setting up pool1
I0428 20:26:01.840440  2726 net.cpp:131] Top shape: 64 2 4 4 (2048)
I0428 20:26:01.840443  2726 net.cpp:139] Memory required for data: 18673920
I0428 20:26:01.840447  2726 layer_factory.hpp:77] Creating layer ip1
I0428 20:26:01.840454  2726 net.cpp:86] Creating Layer ip1
I0428 20:26:01.840458  2726 net.cpp:408] ip1 <- pool1
I0428 20:26:01.840463  2726 net.cpp:382] ip1 -> ip1
I0428 20:26:01.840570  2726 net.cpp:124] Setting up ip1
I0428 20:26:01.840579  2726 net.cpp:131] Top shape: 64 25 (1600)
I0428 20:26:01.840582  2726 net.cpp:139] Memory required for data: 18680320
I0428 20:26:01.840590  2726 layer_factory.hpp:77] Creating layer relu1
I0428 20:26:01.840596  2726 net.cpp:86] Creating Layer relu1
I0428 20:26:01.840600  2726 net.cpp:408] relu1 <- ip1
I0428 20:26:01.840605  2726 net.cpp:369] relu1 -> ip1 (in-place)
I0428 20:26:01.840783  2726 net.cpp:124] Setting up relu1
I0428 20:26:01.840793  2726 net.cpp:131] Top shape: 64 25 (1600)
I0428 20:26:01.840796  2726 net.cpp:139] Memory required for data: 18686720
I0428 20:26:01.840801  2726 layer_factory.hpp:77] Creating layer ip2
I0428 20:26:01.840806  2726 net.cpp:86] Creating Layer ip2
I0428 20:26:01.840818  2726 net.cpp:408] ip2 <- ip1
I0428 20:26:01.840824  2726 net.cpp:382] ip2 -> ip2
I0428 20:26:01.840929  2726 net.cpp:124] Setting up ip2
I0428 20:26:01.840937  2726 net.cpp:131] Top shape: 64 10 (640)
I0428 20:26:01.840940  2726 net.cpp:139] Memory required for data: 18689280
I0428 20:26:01.840946  2726 layer_factory.hpp:77] Creating layer relu2
I0428 20:26:01.840953  2726 net.cpp:86] Creating Layer relu2
I0428 20:26:01.840956  2726 net.cpp:408] relu2 <- ip2
I0428 20:26:01.840961  2726 net.cpp:369] relu2 -> ip2 (in-place)
I0428 20:26:01.841729  2726 net.cpp:124] Setting up relu2
I0428 20:26:01.841743  2726 net.cpp:131] Top shape: 64 10 (640)
I0428 20:26:01.841747  2726 net.cpp:139] Memory required for data: 18691840
I0428 20:26:01.841751  2726 layer_factory.hpp:77] Creating layer ip3
I0428 20:26:01.841758  2726 net.cpp:86] Creating Layer ip3
I0428 20:26:01.841761  2726 net.cpp:408] ip3 <- ip2
I0428 20:26:01.841768  2726 net.cpp:382] ip3 -> ip3
I0428 20:26:01.841871  2726 net.cpp:124] Setting up ip3
I0428 20:26:01.841878  2726 net.cpp:131] Top shape: 64 10 (640)
I0428 20:26:01.841882  2726 net.cpp:139] Memory required for data: 18694400
I0428 20:26:01.841891  2726 layer_factory.hpp:77] Creating layer relu3
I0428 20:26:01.841897  2726 net.cpp:86] Creating Layer relu3
I0428 20:26:01.841899  2726 net.cpp:408] relu3 <- ip3
I0428 20:26:01.841903  2726 net.cpp:369] relu3 -> ip3 (in-place)
I0428 20:26:01.842077  2726 net.cpp:124] Setting up relu3
I0428 20:26:01.842087  2726 net.cpp:131] Top shape: 64 10 (640)
I0428 20:26:01.842090  2726 net.cpp:139] Memory required for data: 18696960
I0428 20:26:01.842093  2726 layer_factory.hpp:77] Creating layer loss
I0428 20:26:01.842099  2726 net.cpp:86] Creating Layer loss
I0428 20:26:01.842103  2726 net.cpp:408] loss <- ip3
I0428 20:26:01.842108  2726 net.cpp:408] loss <- label
I0428 20:26:01.842113  2726 net.cpp:382] loss -> loss
I0428 20:26:01.842133  2726 layer_factory.hpp:77] Creating layer loss
…
I0428 20:26:01.842784  2726 solver.cpp:173] Creating test net (#0) specified by net file: ECE595/mnist/train_test/var_everything2/lenet_train_test1464.prototxt
I0428 20:26:01.842813  2726 net.cpp:296] The NetState phase (1) differed from the phase (0) specified by a rule in layer mnist
I0428 20:26:01.842908  2726 net.cpp:53] Initializing net from parameters: 
name: "LeNet"
state {
  phase: TEST
}
layer {
  name: "mnist"
  type: "Data"
  top: "data"
  top: "label"
  include {
    phase: TEST
  }
  transform_param {
    scale: 0.00390625
  }
  data_param {
    source: "examples/mnist/mnist_test_lmdb"
    batch_size: 100
    backend: LMDB
  }
}
layer {
  name: "conv0"
  type: "Convolution"
  bottom: "data"
  top: "conv0"
  param {
    lr_mult: 1
  }
  param {
    lr_mult: 2
  }
  convolution_param {
    num_output: 100
    kernel_size: 5
    stride: 1
    weight_filler {
      type: "xavier"
    }
    bias_filler {
      type: "constant"
    }
  }
}
layer {
  name: "pool0"
  type: "Pooling"
  bottom: "conv0"
  top: "pool0"
  pooling_param {
    pool: MAX
    kernel_size: 2
    stride: 2
  }
}
layer {
  name: "conv1"
  type: "Convolution"
  bottom: "pool0"
  top: "conv1"
  param {
    lr_mult: 1
  }
  param {
    lr_mult: 2
  }
  convolution_param {
    num_output: 2
    kernel_size: 5
    stride: 1
    weight_filler {
      type: "xavier"
    }
    bias_filler {
      type: "constant"
    }
  }
}
layer {
  name: "pool1"
  type: "Pooling"
  bottom: "conv1"
  top: "pool1"
  pooling_param {
    pool: MAX
    kernel_size: 2
    stride: 2
  }
}
layer {
  name: "ip1"
  type: "InnerProduct"
  bottom: "pool1"
  top: "ip1"
  param {
    lr_mult: 1
  }
  param {
    lr_mult: 2
  }
  inner_product_param {
    num_output: 25
    weight_filler {
      type: "xavier"
    }
    bias_filler {
      type: "constant"
    }
  }
}
layer {
  name: "relu1"
  type: "ReLU"
  bottom: "ip1"
  top: "ip1"
}
layer {
  name: "ip2"
  type: "InnerProduct"
  bottom: "ip1"
  top: "ip2"
  param {
    lr_mult: 1
  }
  param {
    lr_mult: 2
  }
  inner_product_param {
    num_output: 10
    weight_filler {
      type: "xavier"
    }
    bias_filler {
      type: "constant"
    }
  }
}
layer {
  name: "relu2"
  type: "ReLU"
  bottom: "ip2"
  top: "ip2"
}
layer {
  name: "ip3"
  type: "InnerProduct"
  bottom: "ip2"
  top: "ip3"
  param {
    lr_mult: 1
  }
  param {
    lr_mult: 2
  }
  inner_product_param {
    num_output: 10
    weight_filler {
      type: "xavier"
    }
    bias_filler {
      type: "constant"
    }
  }
}
layer {
  name: "relu3"
  type: "ReLU"
  bottom: "ip3"
  top: "ip3"
}
layer {
  name: "accuracy"
  type: "Accuracy"
  bottom: "ip3"
  bottom: "label"
  top: "accuracy"
  include {
    phase: TEST
  }
}
layer {
  name: "loss"
  type: "SoftmaxWithLoss"
  bottom: "ip3"
  bottom: "label"
  top: "loss"
}
I0428 20:26:01.843024  2726 layer_factory.hpp:77] Creating layer mnist
I0428 20:26:01.843070  2726 db_lmdb.cpp:35] Opened lmdb examples/mnist/mnist_test_lmdb
I0428 20:26:01.843082  2726 net.cpp:86] Creating Layer mnist
I0428 20:26:01.843087  2726 net.cpp:382] mnist -> data
I0428 20:26:01.843096  2726 net.cpp:382] mnist -> label
I0428 20:26:01.843183  2726 data_layer.cpp:45] output data size: 100,1,28,28
I0428 20:26:01.845156  2726 net.cpp:124] Setting up mnist
I0428 20:26:01.845170  2726 net.cpp:131] Top shape: 100 1 28 28 (78400)
I0428 20:26:01.845176  2726 net.cpp:131] Top shape: 100 (100)
I0428 20:26:01.845180  2726 net.cpp:139] Memory required for data: 314000
I0428 20:26:01.845183  2726 layer_factory.hpp:77] Creating layer label_mnist_1_split
I0428 20:26:01.845194  2726 net.cpp:86] Creating Layer label_mnist_1_split
I0428 20:26:01.845198  2726 net.cpp:408] label_mnist_1_split <- label
I0428 20:26:01.845204  2726 net.cpp:382] label_mnist_1_split -> label_mnist_1_split_0
I0428 20:26:01.845211  2726 net.cpp:382] label_mnist_1_split -> label_mnist_1_split_1
I0428 20:26:01.845296  2726 net.cpp:124] Setting up label_mnist_1_split
I0428 20:26:01.845304  2726 net.cpp:131] Top shape: 100 (100)
I0428 20:26:01.845309  2726 net.cpp:131] Top shape: 100 (100)
I0428 20:26:01.845312  2726 net.cpp:139] Memory required for data: 314800
I0428 20:26:01.845315  2726 layer_factory.hpp:77] Creating layer conv0
I0428 20:26:01.845324  2726 net.cpp:86] Creating Layer conv0
I0428 20:26:01.845327  2726 net.cpp:408] conv0 <- data
I0428 20:26:01.845332  2726 net.cpp:382] conv0 -> conv0
I0428 20:26:01.847004  2726 net.cpp:124] Setting up conv0
I0428 20:26:01.847019  2726 net.cpp:131] Top shape: 100 100 24 24 (5760000)
I0428 20:26:01.847023  2726 net.cpp:139] Memory required for data: 23354800
I0428 20:26:01.847033  2726 layer_factory.hpp:77] Creating layer pool0
I0428 20:26:01.847039  2726 net.cpp:86] Creating Layer pool0
I0428 20:26:01.847043  2726 net.cpp:408] pool0 <- conv0
I0428 20:26:01.847048  2726 net.cpp:382] pool0 -> pool0
I0428 20:26:01.847085  2726 net.cpp:124] Setting up pool0
I0428 20:26:01.847091  2726 net.cpp:131] Top shape: 100 100 12 12 (1440000)
I0428 20:26:01.847095  2726 net.cpp:139] Memory required for data: 29114800
I0428 20:26:01.847098  2726 layer_factory.hpp:77] Creating layer conv1
I0428 20:26:01.847106  2726 net.cpp:86] Creating Layer conv1
I0428 20:26:01.847110  2726 net.cpp:408] conv1 <- pool0
I0428 20:26:01.847115  2726 net.cpp:382] conv1 -> conv1
I0428 20:26:01.848642  2726 net.cpp:124] Setting up conv1
I0428 20:26:01.848656  2726 net.cpp:131] Top shape: 100 2 8 8 (12800)
I0428 20:26:01.848660  2726 net.cpp:139] Memory required for data: 29166000
I0428 20:26:01.848670  2726 layer_factory.hpp:77] Creating layer pool1
I0428 20:26:01.848676  2726 net.cpp:86] Creating Layer pool1
I0428 20:26:01.848680  2726 net.cpp:408] pool1 <- conv1
I0428 20:26:01.848686  2726 net.cpp:382] pool1 -> pool1
I0428 20:26:01.848723  2726 net.cpp:124] Setting up pool1
I0428 20:26:01.848729  2726 net.cpp:131] Top shape: 100 2 4 4 (3200)
I0428 20:26:01.848733  2726 net.cpp:139] Memory required for data: 29178800
I0428 20:26:01.848737  2726 layer_factory.hpp:77] Creating layer ip1
I0428 20:26:01.848742  2726 net.cpp:86] Creating Layer ip1
I0428 20:26:01.848747  2726 net.cpp:408] ip1 <- pool1
I0428 20:26:01.848752  2726 net.cpp:382] ip1 -> ip1
I0428 20:26:01.848863  2726 net.cpp:124] Setting up ip1
I0428 20:26:01.848873  2726 net.cpp:131] Top shape: 100 25 (2500)
I0428 20:26:01.848887  2726 net.cpp:139] Memory required for data: 29188800
I0428 20:26:01.848896  2726 layer_factory.hpp:77] Creating layer relu1
I0428 20:26:01.848902  2726 net.cpp:86] Creating Layer relu1
I0428 20:26:01.848906  2726 net.cpp:408] relu1 <- ip1
I0428 20:26:01.848912  2726 net.cpp:369] relu1 -> ip1 (in-place)
I0428 20:26:01.849076  2726 net.cpp:124] Setting up relu1
I0428 20:26:01.849084  2726 net.cpp:131] Top shape: 100 25 (2500)
I0428 20:26:01.849088  2726 net.cpp:139] Memory required for data: 29198800
I0428 20:26:01.849092  2726 layer_factory.hpp:77] Creating layer ip2
I0428 20:26:01.849099  2726 net.cpp:86] Creating Layer ip2
I0428 20:26:01.849103  2726 net.cpp:408] ip2 <- ip1
I0428 20:26:01.849108  2726 net.cpp:382] ip2 -> ip2
I0428 20:26:01.849210  2726 net.cpp:124] Setting up ip2
I0428 20:26:01.849216  2726 net.cpp:131] Top shape: 100 10 (1000)
I0428 20:26:01.849220  2726 net.cpp:139] Memory required for data: 29202800
I0428 20:26:01.849225  2726 layer_factory.hpp:77] Creating layer relu2
I0428 20:26:01.849231  2726 net.cpp:86] Creating Layer relu2
I0428 20:26:01.849234  2726 net.cpp:408] relu2 <- ip2
I0428 20:26:01.849238  2726 net.cpp:369] relu2 -> ip2 (in-place)
I0428 20:26:01.849459  2726 net.cpp:124] Setting up relu2
I0428 20:26:01.849469  2726 net.cpp:131] Top shape: 100 10 (1000)
I0428 20:26:01.849473  2726 net.cpp:139] Memory required for data: 29206800
I0428 20:26:01.849476  2726 layer_factory.hpp:77] Creating layer ip3
I0428 20:26:01.849483  2726 net.cpp:86] Creating Layer ip3
I0428 20:26:01.849485  2726 net.cpp:408] ip3 <- ip2
I0428 20:26:01.849491  2726 net.cpp:382] ip3 -> ip3
I0428 20:26:01.849620  2726 net.cpp:124] Setting up ip3
I0428 20:26:01.849627  2726 net.cpp:131] Top shape: 100 10 (1000)
I0428 20:26:01.849632  2726 net.cpp:139] Memory required for data: 29210800
I0428 20:26:01.849645  2726 layer_factory.hpp:77] Creating layer relu3
I0428 20:26:01.849651  2726 net.cpp:86] Creating Layer relu3
I0428 20:26:01.849654  2726 net.cpp:408] relu3 <- ip3
I0428 20:26:01.849661  2726 net.cpp:369] relu3 -> ip3 (in-place)
I0428 20:26:01.850492  2726 net.cpp:124] Setting up relu3
I0428 20:26:01.850503  2726 net.cpp:131] Top shape: 100 10 (1000)
I0428 20:26:01.850507  2726 net.cpp:139] Memory required for data: 29214800
I0428 20:26:01.850510  2726 layer_factory.hpp:77] Creating layer ip3_relu3_0_split
I0428 20:26:01.850517  2726 net.cpp:86] Creating Layer ip3_relu3_0_split
I0428 20:26:01.850519  2726 net.cpp:408] ip3_relu3_0_split <- ip3
I0428 20:26:01.850525  2726 net.cpp:382] ip3_relu3_0_split -> ip3_relu3_0_split_0
I0428 20:26:01.850533  2726 net.cpp:382] ip3_relu3_0_split -> ip3_relu3_0_split_1
I0428 20:26:01.850585  2726 net.cpp:124] Setting up ip3_relu3_0_split
I0428 20:26:01.850591  2726 net.cpp:131] Top shape: 100 10 (1000)
I0428 20:26:01.850595  2726 net.cpp:131] Top shape: 100 10 (1000)
I0428 20:26:01.850599  2726 net.cpp:139] Memory required for data: 29222800
I0428 20:26:01.850601  2726 layer_factory.hpp:77] Creating layer accuracy
I0428 20:26:01.850610  2726 net.cpp:86] Creating Layer accuracy
I0428 20:26:01.850612  2726 net.cpp:408] accuracy <- ip3_relu3_0_split_0
I0428 20:26:01.850617  2726 net.cpp:408] accuracy <- label_mnist_1_split_0
I0428 20:26:01.850622  2726 net.cpp:382] accuracy -> accuracy
…
