…
I0428 19:49:01.951370 26653 net.cpp:296] The NetState phase (0) differed from the phase (1) specified by a rule in layer mnist
I0428 19:49:01.951400 26653 net.cpp:296] The NetState phase (0) differed from the phase (1) specified by a rule in layer accuracy
I0428 19:49:01.951481 26653 net.cpp:53] Initializing net from parameters: 
name: "LeNet"
state {
  phase: TRAIN
  level: 0
  stage: ""
}
layer {
  name: "mnist"
  type: "Data"
  top: "data"
  top: "label"
  include {
    phase: TRAIN
  }
  transform_param {
    scale: 0.00390625
  }
  data_param {
    source: "examples/mnist/mnist_train_lmdb"
    batch_size: 64
    backend: LMDB
  }
}
layer {
  name: "conv0"
  type: "Convolution"
  bottom: "data"
  top: "conv0"
  param {
    lr_mult: 1
  }
  param {
    lr_mult: 2
  }
  convolution_param {
    num_output: 5
    kernel_size: 5
    stride: 1
    weight_filler {
      type: "xavier"
    }
    bias_filler {
      type: "constant"
    }
  }
}
layer {
  name: "pool0"
  type: "Pooling"
  bottom: "conv0"
  top: "pool0"
  pooling_param {
    pool: MAX
    kernel_size: 2
    stride: 2
  }
}
layer {
  name: "conv1"
  type: "Convolution"
  bottom: "pool0"
  top: "conv1"
  param {
    lr_mult: 1
  }
  param {
    lr_mult: 2
  }
  convolution_param {
    num_output: 5
    kernel_size: 5
    stride: 1
    weight_filler {
      type: "xavier"
    }
    bias_filler {
      type: "constant"
    }
  }
}
layer {
  name: "pool1"
  type: "Pooling"
  bottom: "conv1"
  top: "pool1"
  pooling_param {
    pool: MAX
    kernel_size: 2
    stride: 2
  }
}
layer {
  name: "ip1"
  type: "InnerProduct"
  bottom: "pool1"
  top: "ip1"
  param {
    lr_mult: 1
  }
  param {
    lr_mult: 2
  }
  inner_product_param {
    num_output: 10
    weight_filler {
      type: "xavier"
    }
    bias_filler {
      type: "constant"
    }
  }
}
layer {
  name: "relu1"
  type: "ReLU"
  bottom: "ip1"
  top: "ip1"
}
layer {
  name: "ip2"
  type: "InnerProduct"
  bottom: "ip1"
  top: "ip2"
  param {
    lr_mult: 1
  }
  param {
    lr_mult: 2
  }
  inner_product_param {
    num_output: 25
    weight_filler {
      type: "xavier"
    }
    bias_filler {
      type: "constant"
    }
  }
}
layer {
  name: "relu2"
  type: "ReLU"
  bottom: "ip2"
  top: "ip2"
}
layer {
  name: "ip3"
  type: "InnerProduct"
  bottom: "ip2"
  top: "ip3"
  param {
    lr_mult: 1
  }
  param {
    lr_mult: 2
  }
  inner_product_param {
    num_output: 10
    weight_filler {
      type: "xavier"
    }
    bias_filler {
      type: "constant"
    }
  }
}
layer {
  name: "relu3"
  type: "ReLU"
  bottom: "ip3"
  top: "ip3"
}
layer {
  name: "loss"
  type: "SoftmaxWithLoss"
  bottom: "ip3"
  bottom: "label"
  top: "loss"
}
I0428 19:49:01.951562 26653 layer_factory.hpp:77] Creating layer mnist
I0428 19:49:01.951642 26653 db_lmdb.cpp:35] Opened lmdb examples/mnist/mnist_train_lmdb
I0428 19:49:01.951661 26653 net.cpp:86] Creating Layer mnist
I0428 19:49:01.951670 26653 net.cpp:382] mnist -> data
I0428 19:49:01.951689 26653 net.cpp:382] mnist -> label
I0428 19:49:01.952698 26653 data_layer.cpp:45] output data size: 64,1,28,28
I0428 19:49:01.954974 26653 net.cpp:124] Setting up mnist
I0428 19:49:01.955021 26653 net.cpp:131] Top shape: 64 1 28 28 (50176)
I0428 19:49:01.955026 26653 net.cpp:131] Top shape: 64 (64)
I0428 19:49:01.955029 26653 net.cpp:139] Memory required for data: 200960
I0428 19:49:01.955034 26653 layer_factory.hpp:77] Creating layer conv0
I0428 19:49:01.955049 26653 net.cpp:86] Creating Layer conv0
I0428 19:49:01.955065 26653 net.cpp:408] conv0 <- data
I0428 19:49:01.955076 26653 net.cpp:382] conv0 -> conv0
I0428 19:49:02.180104 26653 net.cpp:124] Setting up conv0
I0428 19:49:02.180147 26653 net.cpp:131] Top shape: 64 5 24 24 (184320)
I0428 19:49:02.180151 26653 net.cpp:139] Memory required for data: 938240
I0428 19:49:02.180167 26653 layer_factory.hpp:77] Creating layer pool0
I0428 19:49:02.180194 26653 net.cpp:86] Creating Layer pool0
I0428 19:49:02.180198 26653 net.cpp:408] pool0 <- conv0
I0428 19:49:02.180204 26653 net.cpp:382] pool0 -> pool0
I0428 19:49:02.180256 26653 net.cpp:124] Setting up pool0
I0428 19:49:02.180263 26653 net.cpp:131] Top shape: 64 5 12 12 (46080)
I0428 19:49:02.180266 26653 net.cpp:139] Memory required for data: 1122560
I0428 19:49:02.180269 26653 layer_factory.hpp:77] Creating layer conv1
I0428 19:49:02.180280 26653 net.cpp:86] Creating Layer conv1
I0428 19:49:02.180284 26653 net.cpp:408] conv1 <- pool0
I0428 19:49:02.180289 26653 net.cpp:382] conv1 -> conv1
I0428 19:49:02.182283 26653 net.cpp:124] Setting up conv1
I0428 19:49:02.182298 26653 net.cpp:131] Top shape: 64 5 8 8 (20480)
I0428 19:49:02.182302 26653 net.cpp:139] Memory required for data: 1204480
I0428 19:49:02.182312 26653 layer_factory.hpp:77] Creating layer pool1
I0428 19:49:02.182318 26653 net.cpp:86] Creating Layer pool1
I0428 19:49:02.182323 26653 net.cpp:408] pool1 <- conv1
I0428 19:49:02.182330 26653 net.cpp:382] pool1 -> pool1
I0428 19:49:02.182375 26653 net.cpp:124] Setting up pool1
I0428 19:49:02.182384 26653 net.cpp:131] Top shape: 64 5 4 4 (5120)
I0428 19:49:02.182386 26653 net.cpp:139] Memory required for data: 1224960
I0428 19:49:02.182389 26653 layer_factory.hpp:77] Creating layer ip1
I0428 19:49:02.182397 26653 net.cpp:86] Creating Layer ip1
I0428 19:49:02.182400 26653 net.cpp:408] ip1 <- pool1
I0428 19:49:02.182406 26653 net.cpp:382] ip1 -> ip1
I0428 19:49:02.182507 26653 net.cpp:124] Setting up ip1
I0428 19:49:02.182514 26653 net.cpp:131] Top shape: 64 10 (640)
I0428 19:49:02.182518 26653 net.cpp:139] Memory required for data: 1227520
I0428 19:49:02.182524 26653 layer_factory.hpp:77] Creating layer relu1
I0428 19:49:02.182544 26653 net.cpp:86] Creating Layer relu1
I0428 19:49:02.182549 26653 net.cpp:408] relu1 <- ip1
I0428 19:49:02.182554 26653 net.cpp:369] relu1 -> ip1 (in-place)
I0428 19:49:02.182716 26653 net.cpp:124] Setting up relu1
I0428 19:49:02.182725 26653 net.cpp:131] Top shape: 64 10 (640)
I0428 19:49:02.182729 26653 net.cpp:139] Memory required for data: 1230080
I0428 19:49:02.182731 26653 layer_factory.hpp:77] Creating layer ip2
I0428 19:49:02.182737 26653 net.cpp:86] Creating Layer ip2
I0428 19:49:02.182740 26653 net.cpp:408] ip2 <- ip1
I0428 19:49:02.182745 26653 net.cpp:382] ip2 -> ip2
I0428 19:49:02.182835 26653 net.cpp:124] Setting up ip2
I0428 19:49:02.182842 26653 net.cpp:131] Top shape: 64 25 (1600)
I0428 19:49:02.182844 26653 net.cpp:139] Memory required for data: 1236480
I0428 19:49:02.182849 26653 layer_factory.hpp:77] Creating layer relu2
I0428 19:49:02.182855 26653 net.cpp:86] Creating Layer relu2
I0428 19:49:02.182858 26653 net.cpp:408] relu2 <- ip2
I0428 19:49:02.182862 26653 net.cpp:369] relu2 -> ip2 (in-place)
I0428 19:49:02.183652 26653 net.cpp:124] Setting up relu2
I0428 19:49:02.183665 26653 net.cpp:131] Top shape: 64 25 (1600)
I0428 19:49:02.183684 26653 net.cpp:139] Memory required for data: 1242880
I0428 19:49:02.183687 26653 layer_factory.hpp:77] Creating layer ip3
I0428 19:49:02.183694 26653 net.cpp:86] Creating Layer ip3
I0428 19:49:02.183698 26653 net.cpp:408] ip3 <- ip2
I0428 19:49:02.183703 26653 net.cpp:382] ip3 -> ip3
I0428 19:49:02.183827 26653 net.cpp:124] Setting up ip3
I0428 19:49:02.183851 26653 net.cpp:131] Top shape: 64 10 (640)
I0428 19:49:02.183853 26653 net.cpp:139] Memory required for data: 1245440
I0428 19:49:02.183861 26653 layer_factory.hpp:77] Creating layer relu3
I0428 19:49:02.183866 26653 net.cpp:86] Creating Layer relu3
I0428 19:49:02.183871 26653 net.cpp:408] relu3 <- ip3
I0428 19:49:02.183874 26653 net.cpp:369] relu3 -> ip3 (in-place)
I0428 19:49:02.184047 26653 net.cpp:124] Setting up relu3
I0428 19:49:02.184056 26653 net.cpp:131] Top shape: 64 10 (640)
I0428 19:49:02.184058 26653 net.cpp:139] Memory required for data: 1248000
I0428 19:49:02.184062 26653 layer_factory.hpp:77] Creating layer loss
I0428 19:49:02.184069 26653 net.cpp:86] Creating Layer loss
I0428 19:49:02.184072 26653 net.cpp:408] loss <- ip3
I0428 19:49:02.184077 26653 net.cpp:408] loss <- label
I0428 19:49:02.184082 26653 net.cpp:382] loss -> loss
I0428 19:49:02.184097 26653 layer_factory.hpp:77] Creating layer loss
…
I0428 19:49:02.184814 26653 solver.cpp:173] Creating test net (#0) specified by net file: ECE595/mnist/train_test/var_everything2/lenet_train_test562.prototxt
I0428 19:49:02.184859 26653 net.cpp:296] The NetState phase (1) differed from the phase (0) specified by a rule in layer mnist
I0428 19:49:02.184967 26653 net.cpp:53] Initializing net from parameters: 
name: "LeNet"
state {
  phase: TEST
}
layer {
  name: "mnist"
  type: "Data"
  top: "data"
  top: "label"
  include {
    phase: TEST
  }
  transform_param {
    scale: 0.00390625
  }
  data_param {
    source: "examples/mnist/mnist_test_lmdb"
    batch_size: 100
    backend: LMDB
  }
}
layer {
  name: "conv0"
  type: "Convolution"
  bottom: "data"
  top: "conv0"
  param {
    lr_mult: 1
  }
  param {
    lr_mult: 2
  }
  convolution_param {
    num_output: 5
    kernel_size: 5
    stride: 1
    weight_filler {
      type: "xavier"
    }
    bias_filler {
      type: "constant"
    }
  }
}
layer {
  name: "pool0"
  type: "Pooling"
  bottom: "conv0"
  top: "pool0"
  pooling_param {
    pool: MAX
    kernel_size: 2
    stride: 2
  }
}
layer {
  name: "conv1"
  type: "Convolution"
  bottom: "pool0"
  top: "conv1"
  param {
    lr_mult: 1
  }
  param {
    lr_mult: 2
  }
  convolution_param {
    num_output: 5
    kernel_size: 5
    stride: 1
    weight_filler {
      type: "xavier"
    }
    bias_filler {
      type: "constant"
    }
  }
}
layer {
  name: "pool1"
  type: "Pooling"
  bottom: "conv1"
  top: "pool1"
  pooling_param {
    pool: MAX
    kernel_size: 2
    stride: 2
  }
}
layer {
  name: "ip1"
  type: "InnerProduct"
  bottom: "pool1"
  top: "ip1"
  param {
    lr_mult: 1
  }
  param {
    lr_mult: 2
  }
  inner_product_param {
    num_output: 10
    weight_filler {
      type: "xavier"
    }
    bias_filler {
      type: "constant"
    }
  }
}
layer {
  name: "relu1"
  type: "ReLU"
  bottom: "ip1"
  top: "ip1"
}
layer {
  name: "ip2"
  type: "InnerProduct"
  bottom: "ip1"
  top: "ip2"
  param {
    lr_mult: 1
  }
  param {
    lr_mult: 2
  }
  inner_product_param {
    num_output: 25
    weight_filler {
      type: "xavier"
    }
    bias_filler {
      type: "constant"
    }
  }
}
layer {
  name: "relu2"
  type: "ReLU"
  bottom: "ip2"
  top: "ip2"
}
layer {
  name: "ip3"
  type: "InnerProduct"
  bottom: "ip2"
  top: "ip3"
  param {
    lr_mult: 1
  }
  param {
    lr_mult: 2
  }
  inner_product_param {
    num_output: 10
    weight_filler {
      type: "xavier"
    }
    bias_filler {
      type: "constant"
    }
  }
}
layer {
  name: "relu3"
  type: "ReLU"
  bottom: "ip3"
  top: "ip3"
}
layer {
  name: "accuracy"
  type: "Accuracy"
  bottom: "ip3"
  bottom: "label"
  top: "accuracy"
  include {
    phase: TEST
  }
}
layer {
  name: "loss"
  type: "SoftmaxWithLoss"
  bottom: "ip3"
  bottom: "label"
  top: "loss"
}
I0428 19:49:02.185042 26653 layer_factory.hpp:77] Creating layer mnist
I0428 19:49:02.185086 26653 db_lmdb.cpp:35] Opened lmdb examples/mnist/mnist_test_lmdb
I0428 19:49:02.185097 26653 net.cpp:86] Creating Layer mnist
I0428 19:49:02.185102 26653 net.cpp:382] mnist -> data
I0428 19:49:02.185109 26653 net.cpp:382] mnist -> label
I0428 19:49:02.185201 26653 data_layer.cpp:45] output data size: 100,1,28,28
I0428 19:49:02.187270 26653 net.cpp:124] Setting up mnist
I0428 19:49:02.187299 26653 net.cpp:131] Top shape: 100 1 28 28 (78400)
I0428 19:49:02.187304 26653 net.cpp:131] Top shape: 100 (100)
I0428 19:49:02.187306 26653 net.cpp:139] Memory required for data: 314000
I0428 19:49:02.187310 26653 layer_factory.hpp:77] Creating layer label_mnist_1_split
I0428 19:49:02.187316 26653 net.cpp:86] Creating Layer label_mnist_1_split
I0428 19:49:02.187320 26653 net.cpp:408] label_mnist_1_split <- label
I0428 19:49:02.187325 26653 net.cpp:382] label_mnist_1_split -> label_mnist_1_split_0
I0428 19:49:02.187330 26653 net.cpp:382] label_mnist_1_split -> label_mnist_1_split_1
I0428 19:49:02.187381 26653 net.cpp:124] Setting up label_mnist_1_split
I0428 19:49:02.187386 26653 net.cpp:131] Top shape: 100 (100)
I0428 19:49:02.187391 26653 net.cpp:131] Top shape: 100 (100)
I0428 19:49:02.187393 26653 net.cpp:139] Memory required for data: 314800
I0428 19:49:02.187396 26653 layer_factory.hpp:77] Creating layer conv0
I0428 19:49:02.187403 26653 net.cpp:86] Creating Layer conv0
I0428 19:49:02.187407 26653 net.cpp:408] conv0 <- data
I0428 19:49:02.187410 26653 net.cpp:382] conv0 -> conv0
I0428 19:49:02.189236 26653 net.cpp:124] Setting up conv0
I0428 19:49:02.189249 26653 net.cpp:131] Top shape: 100 5 24 24 (288000)
I0428 19:49:02.189252 26653 net.cpp:139] Memory required for data: 1466800
I0428 19:49:02.189260 26653 layer_factory.hpp:77] Creating layer pool0
I0428 19:49:02.189281 26653 net.cpp:86] Creating Layer pool0
I0428 19:49:02.189285 26653 net.cpp:408] pool0 <- conv0
I0428 19:49:02.189290 26653 net.cpp:382] pool0 -> pool0
I0428 19:49:02.189321 26653 net.cpp:124] Setting up pool0
I0428 19:49:02.189328 26653 net.cpp:131] Top shape: 100 5 12 12 (72000)
I0428 19:49:02.189330 26653 net.cpp:139] Memory required for data: 1754800
I0428 19:49:02.189333 26653 layer_factory.hpp:77] Creating layer conv1
I0428 19:49:02.189342 26653 net.cpp:86] Creating Layer conv1
I0428 19:49:02.189344 26653 net.cpp:408] conv1 <- pool0
I0428 19:49:02.189348 26653 net.cpp:382] conv1 -> conv1
I0428 19:49:02.191401 26653 net.cpp:124] Setting up conv1
I0428 19:49:02.191414 26653 net.cpp:131] Top shape: 100 5 8 8 (32000)
I0428 19:49:02.191432 26653 net.cpp:139] Memory required for data: 1882800
I0428 19:49:02.191457 26653 layer_factory.hpp:77] Creating layer pool1
I0428 19:49:02.191462 26653 net.cpp:86] Creating Layer pool1
I0428 19:49:02.191467 26653 net.cpp:408] pool1 <- conv1
I0428 19:49:02.191471 26653 net.cpp:382] pool1 -> pool1
I0428 19:49:02.191555 26653 net.cpp:124] Setting up pool1
I0428 19:49:02.191562 26653 net.cpp:131] Top shape: 100 5 4 4 (8000)
I0428 19:49:02.191565 26653 net.cpp:139] Memory required for data: 1914800
I0428 19:49:02.191572 26653 layer_factory.hpp:77] Creating layer ip1
I0428 19:49:02.191578 26653 net.cpp:86] Creating Layer ip1
I0428 19:49:02.191581 26653 net.cpp:408] ip1 <- pool1
I0428 19:49:02.191586 26653 net.cpp:382] ip1 -> ip1
I0428 19:49:02.191684 26653 net.cpp:124] Setting up ip1
I0428 19:49:02.191692 26653 net.cpp:131] Top shape: 100 10 (1000)
I0428 19:49:02.191705 26653 net.cpp:139] Memory required for data: 1918800
I0428 19:49:02.191714 26653 layer_factory.hpp:77] Creating layer relu1
I0428 19:49:02.191718 26653 net.cpp:86] Creating Layer relu1
I0428 19:49:02.191721 26653 net.cpp:408] relu1 <- ip1
I0428 19:49:02.191725 26653 net.cpp:369] relu1 -> ip1 (in-place)
I0428 19:49:02.191895 26653 net.cpp:124] Setting up relu1
I0428 19:49:02.191903 26653 net.cpp:131] Top shape: 100 10 (1000)
I0428 19:49:02.191906 26653 net.cpp:139] Memory required for data: 1922800
I0428 19:49:02.191926 26653 layer_factory.hpp:77] Creating layer ip2
I0428 19:49:02.191931 26653 net.cpp:86] Creating Layer ip2
I0428 19:49:02.191936 26653 net.cpp:408] ip2 <- ip1
I0428 19:49:02.191939 26653 net.cpp:382] ip2 -> ip2
I0428 19:49:02.192049 26653 net.cpp:124] Setting up ip2
I0428 19:49:02.192056 26653 net.cpp:131] Top shape: 100 25 (2500)
I0428 19:49:02.192059 26653 net.cpp:139] Memory required for data: 1932800
I0428 19:49:02.192065 26653 layer_factory.hpp:77] Creating layer relu2
I0428 19:49:02.192070 26653 net.cpp:86] Creating Layer relu2
I0428 19:49:02.192073 26653 net.cpp:408] relu2 <- ip2
I0428 19:49:02.192077 26653 net.cpp:369] relu2 -> ip2 (in-place)
I0428 19:49:02.192270 26653 net.cpp:124] Setting up relu2
I0428 19:49:02.192278 26653 net.cpp:131] Top shape: 100 25 (2500)
I0428 19:49:02.192281 26653 net.cpp:139] Memory required for data: 1942800
I0428 19:49:02.192283 26653 layer_factory.hpp:77] Creating layer ip3
I0428 19:49:02.192289 26653 net.cpp:86] Creating Layer ip3
I0428 19:49:02.192292 26653 net.cpp:408] ip3 <- ip2
I0428 19:49:02.192297 26653 net.cpp:382] ip3 -> ip3
I0428 19:49:02.192418 26653 net.cpp:124] Setting up ip3
I0428 19:49:02.192440 26653 net.cpp:131] Top shape: 100 10 (1000)
I0428 19:49:02.192442 26653 net.cpp:139] Memory required for data: 1946800
I0428 19:49:02.192453 26653 layer_factory.hpp:77] Creating layer relu3
I0428 19:49:02.192458 26653 net.cpp:86] Creating Layer relu3
I0428 19:49:02.192461 26653 net.cpp:408] relu3 <- ip3
I0428 19:49:02.192481 26653 net.cpp:369] relu3 -> ip3 (in-place)
I0428 19:49:02.193367 26653 net.cpp:124] Setting up relu3
I0428 19:49:02.193380 26653 net.cpp:131] Top shape: 100 10 (1000)
I0428 19:49:02.193384 26653 net.cpp:139] Memory required for data: 1950800
I0428 19:49:02.193387 26653 layer_factory.hpp:77] Creating layer ip3_relu3_0_split
I0428 19:49:02.193408 26653 net.cpp:86] Creating Layer ip3_relu3_0_split
I0428 19:49:02.193413 26653 net.cpp:408] ip3_relu3_0_split <- ip3
I0428 19:49:02.193418 26653 net.cpp:382] ip3_relu3_0_split -> ip3_relu3_0_split_0
I0428 19:49:02.193423 26653 net.cpp:382] ip3_relu3_0_split -> ip3_relu3_0_split_1
I0428 19:49:02.193457 26653 net.cpp:124] Setting up ip3_relu3_0_split
I0428 19:49:02.193464 26653 net.cpp:131] Top shape: 100 10 (1000)
I0428 19:49:02.193467 26653 net.cpp:131] Top shape: 100 10 (1000)
I0428 19:49:02.193470 26653 net.cpp:139] Memory required for data: 1958800
I0428 19:49:02.193472 26653 layer_factory.hpp:77] Creating layer accuracy
I0428 19:49:02.193477 26653 net.cpp:86] Creating Layer accuracy
I0428 19:49:02.193480 26653 net.cpp:408] accuracy <- ip3_relu3_0_split_0
I0428 19:49:02.193485 26653 net.cpp:408] accuracy <- label_mnist_1_split_0
I0428 19:49:02.193488 26653 net.cpp:382] accuracy -> accuracy
…
