…
I0428 20:33:11.706596  4253 net.cpp:296] The NetState phase (0) differed from the phase (1) specified by a rule in layer mnist
I0428 20:33:11.706614  4253 net.cpp:296] The NetState phase (0) differed from the phase (1) specified by a rule in layer accuracy
I0428 20:33:11.706718  4253 net.cpp:53] Initializing net from parameters: 
name: "LeNet"
state {
  phase: TRAIN
  level: 0
  stage: ""
}
layer {
  name: "mnist"
  type: "Data"
  top: "data"
  top: "label"
  include {
    phase: TRAIN
  }
  transform_param {
    scale: 0.00390625
  }
  data_param {
    source: "examples/mnist/mnist_train_lmdb"
    batch_size: 64
    backend: LMDB
  }
}
layer {
  name: "conv0"
  type: "Convolution"
  bottom: "data"
  top: "conv0"
  param {
    lr_mult: 1
  }
  param {
    lr_mult: 2
  }
  convolution_param {
    num_output: 100
    kernel_size: 5
    stride: 1
    weight_filler {
      type: "xavier"
    }
    bias_filler {
      type: "constant"
    }
  }
}
layer {
  name: "pool0"
  type: "Pooling"
  bottom: "conv0"
  top: "pool0"
  pooling_param {
    pool: MAX
    kernel_size: 2
    stride: 2
  }
}
layer {
  name: "conv1"
  type: "Convolution"
  bottom: "pool0"
  top: "conv1"
  param {
    lr_mult: 1
  }
  param {
    lr_mult: 2
  }
  convolution_param {
    num_output: 25
    kernel_size: 5
    stride: 1
    weight_filler {
      type: "xavier"
    }
    bias_filler {
      type: "constant"
    }
  }
}
layer {
  name: "pool1"
  type: "Pooling"
  bottom: "conv1"
  top: "pool1"
  pooling_param {
    pool: MAX
    kernel_size: 2
    stride: 2
  }
}
layer {
  name: "ip1"
  type: "InnerProduct"
  bottom: "pool1"
  top: "ip1"
  param {
    lr_mult: 1
  }
  param {
    lr_mult: 2
  }
  inner_product_param {
    num_output: 25
    weight_filler {
      type: "xavier"
    }
    bias_filler {
      type: "constant"
    }
  }
}
layer {
  name: "relu1"
  type: "ReLU"
  bottom: "ip1"
  top: "ip1"
}
layer {
  name: "ip2"
  type: "InnerProduct"
  bottom: "ip1"
  top: "ip2"
  param {
    lr_mult: 1
  }
  param {
    lr_mult: 2
  }
  inner_product_param {
    num_output: 25
    weight_filler {
      type: "xavier"
    }
    bias_filler {
      type: "constant"
    }
  }
}
layer {
  name: "relu2"
  type: "ReLU"
  bottom: "ip2"
  top: "ip2"
}
layer {
  name: "ip3"
  type: "InnerProduct"
  bottom: "ip2"
  top: "ip3"
  param {
    lr_mult: 1
  }
  param {
    lr_mult: 2
  }
  inner_product_param {
    num_output: 10
    weight_filler {
      type: "xavier"
    }
    bias_filler {
      type: "constant"
    }
  }
}
layer {
  name: "relu3"
  type: "ReLU"
  bottom: "ip3"
  top: "ip3"
}
layer {
  name: "loss"
  type: "SoftmaxWithLoss"
  bottom: "ip3"
  bottom: "label"
  top: "loss"
}
I0428 20:33:11.706799  4253 layer_factory.hpp:77] Creating layer mnist
I0428 20:33:11.706898  4253 db_lmdb.cpp:35] Opened lmdb examples/mnist/mnist_train_lmdb
I0428 20:33:11.706921  4253 net.cpp:86] Creating Layer mnist
I0428 20:33:11.706928  4253 net.cpp:382] mnist -> data
I0428 20:33:11.706953  4253 net.cpp:382] mnist -> label
I0428 20:33:11.708045  4253 data_layer.cpp:45] output data size: 64,1,28,28
I0428 20:33:11.710520  4253 net.cpp:124] Setting up mnist
I0428 20:33:11.710549  4253 net.cpp:131] Top shape: 64 1 28 28 (50176)
I0428 20:33:11.710556  4253 net.cpp:131] Top shape: 64 (64)
I0428 20:33:11.710559  4253 net.cpp:139] Memory required for data: 200960
I0428 20:33:11.710566  4253 layer_factory.hpp:77] Creating layer conv0
I0428 20:33:11.710583  4253 net.cpp:86] Creating Layer conv0
I0428 20:33:11.710604  4253 net.cpp:408] conv0 <- data
I0428 20:33:11.710616  4253 net.cpp:382] conv0 -> conv0
I0428 20:33:11.986778  4253 net.cpp:124] Setting up conv0
I0428 20:33:11.986804  4253 net.cpp:131] Top shape: 64 100 24 24 (3686400)
I0428 20:33:11.986809  4253 net.cpp:139] Memory required for data: 14946560
I0428 20:33:11.986822  4253 layer_factory.hpp:77] Creating layer pool0
I0428 20:33:11.986835  4253 net.cpp:86] Creating Layer pool0
I0428 20:33:11.986838  4253 net.cpp:408] pool0 <- conv0
I0428 20:33:11.986843  4253 net.cpp:382] pool0 -> pool0
I0428 20:33:11.986905  4253 net.cpp:124] Setting up pool0
I0428 20:33:11.986912  4253 net.cpp:131] Top shape: 64 100 12 12 (921600)
I0428 20:33:11.986915  4253 net.cpp:139] Memory required for data: 18632960
I0428 20:33:11.986918  4253 layer_factory.hpp:77] Creating layer conv1
I0428 20:33:11.986928  4253 net.cpp:86] Creating Layer conv1
I0428 20:33:11.986934  4253 net.cpp:408] conv1 <- pool0
I0428 20:33:11.986954  4253 net.cpp:382] conv1 -> conv1
I0428 20:33:11.989200  4253 net.cpp:124] Setting up conv1
I0428 20:33:11.989230  4253 net.cpp:131] Top shape: 64 25 8 8 (102400)
I0428 20:33:11.989234  4253 net.cpp:139] Memory required for data: 19042560
I0428 20:33:11.989243  4253 layer_factory.hpp:77] Creating layer pool1
I0428 20:33:11.989249  4253 net.cpp:86] Creating Layer pool1
I0428 20:33:11.989253  4253 net.cpp:408] pool1 <- conv1
I0428 20:33:11.989258  4253 net.cpp:382] pool1 -> pool1
I0428 20:33:11.989308  4253 net.cpp:124] Setting up pool1
I0428 20:33:11.989315  4253 net.cpp:131] Top shape: 64 25 4 4 (25600)
I0428 20:33:11.989317  4253 net.cpp:139] Memory required for data: 19144960
I0428 20:33:11.989320  4253 layer_factory.hpp:77] Creating layer ip1
I0428 20:33:11.989331  4253 net.cpp:86] Creating Layer ip1
I0428 20:33:11.989334  4253 net.cpp:408] ip1 <- pool1
I0428 20:33:11.989338  4253 net.cpp:382] ip1 -> ip1
I0428 20:33:11.990372  4253 net.cpp:124] Setting up ip1
I0428 20:33:11.990384  4253 net.cpp:131] Top shape: 64 25 (1600)
I0428 20:33:11.990404  4253 net.cpp:139] Memory required for data: 19151360
I0428 20:33:11.990412  4253 layer_factory.hpp:77] Creating layer relu1
I0428 20:33:11.990418  4253 net.cpp:86] Creating Layer relu1
I0428 20:33:11.990422  4253 net.cpp:408] relu1 <- ip1
I0428 20:33:11.990427  4253 net.cpp:369] relu1 -> ip1 (in-place)
I0428 20:33:11.990615  4253 net.cpp:124] Setting up relu1
I0428 20:33:11.990623  4253 net.cpp:131] Top shape: 64 25 (1600)
I0428 20:33:11.990627  4253 net.cpp:139] Memory required for data: 19157760
I0428 20:33:11.990630  4253 layer_factory.hpp:77] Creating layer ip2
I0428 20:33:11.990636  4253 net.cpp:86] Creating Layer ip2
I0428 20:33:11.990639  4253 net.cpp:408] ip2 <- ip1
I0428 20:33:11.990643  4253 net.cpp:382] ip2 -> ip2
I0428 20:33:11.990732  4253 net.cpp:124] Setting up ip2
I0428 20:33:11.990738  4253 net.cpp:131] Top shape: 64 25 (1600)
I0428 20:33:11.990741  4253 net.cpp:139] Memory required for data: 19164160
I0428 20:33:11.990747  4253 layer_factory.hpp:77] Creating layer relu2
I0428 20:33:11.990752  4253 net.cpp:86] Creating Layer relu2
I0428 20:33:11.990756  4253 net.cpp:408] relu2 <- ip2
I0428 20:33:11.990759  4253 net.cpp:369] relu2 -> ip2 (in-place)
I0428 20:33:11.991569  4253 net.cpp:124] Setting up relu2
I0428 20:33:11.991597  4253 net.cpp:131] Top shape: 64 25 (1600)
I0428 20:33:11.991600  4253 net.cpp:139] Memory required for data: 19170560
I0428 20:33:11.991605  4253 layer_factory.hpp:77] Creating layer ip3
I0428 20:33:11.991612  4253 net.cpp:86] Creating Layer ip3
I0428 20:33:11.991616  4253 net.cpp:408] ip3 <- ip2
I0428 20:33:11.991622  4253 net.cpp:382] ip3 -> ip3
I0428 20:33:11.991765  4253 net.cpp:124] Setting up ip3
I0428 20:33:11.991772  4253 net.cpp:131] Top shape: 64 10 (640)
I0428 20:33:11.991775  4253 net.cpp:139] Memory required for data: 19173120
I0428 20:33:11.991783  4253 layer_factory.hpp:77] Creating layer relu3
I0428 20:33:11.991788  4253 net.cpp:86] Creating Layer relu3
I0428 20:33:11.991791  4253 net.cpp:408] relu3 <- ip3
I0428 20:33:11.991809  4253 net.cpp:369] relu3 -> ip3 (in-place)
I0428 20:33:11.991969  4253 net.cpp:124] Setting up relu3
I0428 20:33:11.991977  4253 net.cpp:131] Top shape: 64 10 (640)
I0428 20:33:11.991981  4253 net.cpp:139] Memory required for data: 19175680
I0428 20:33:11.991984  4253 layer_factory.hpp:77] Creating layer loss
I0428 20:33:11.991989  4253 net.cpp:86] Creating Layer loss
I0428 20:33:11.991993  4253 net.cpp:408] loss <- ip3
I0428 20:33:11.991997  4253 net.cpp:408] loss <- label
I0428 20:33:11.992002  4253 net.cpp:382] loss -> loss
I0428 20:33:11.992019  4253 layer_factory.hpp:77] Creating layer loss
…
I0428 20:33:11.992642  4253 solver.cpp:173] Creating test net (#0) specified by net file: ECE595/mnist/train_test/var_everything2/lenet_train_test1584.prototxt
I0428 20:33:11.992698  4253 net.cpp:296] The NetState phase (1) differed from the phase (0) specified by a rule in layer mnist
I0428 20:33:11.992784  4253 net.cpp:53] Initializing net from parameters: 
name: "LeNet"
state {
  phase: TEST
}
layer {
  name: "mnist"
  type: "Data"
  top: "data"
  top: "label"
  include {
    phase: TEST
  }
  transform_param {
    scale: 0.00390625
  }
  data_param {
    source: "examples/mnist/mnist_test_lmdb"
    batch_size: 100
    backend: LMDB
  }
}
layer {
  name: "conv0"
  type: "Convolution"
  bottom: "data"
  top: "conv0"
  param {
    lr_mult: 1
  }
  param {
    lr_mult: 2
  }
  convolution_param {
    num_output: 100
    kernel_size: 5
    stride: 1
    weight_filler {
      type: "xavier"
    }
    bias_filler {
      type: "constant"
    }
  }
}
layer {
  name: "pool0"
  type: "Pooling"
  bottom: "conv0"
  top: "pool0"
  pooling_param {
    pool: MAX
    kernel_size: 2
    stride: 2
  }
}
layer {
  name: "conv1"
  type: "Convolution"
  bottom: "pool0"
  top: "conv1"
  param {
    lr_mult: 1
  }
  param {
    lr_mult: 2
  }
  convolution_param {
    num_output: 25
    kernel_size: 5
    stride: 1
    weight_filler {
      type: "xavier"
    }
    bias_filler {
      type: "constant"
    }
  }
}
layer {
  name: "pool1"
  type: "Pooling"
  bottom: "conv1"
  top: "pool1"
  pooling_param {
    pool: MAX
    kernel_size: 2
    stride: 2
  }
}
layer {
  name: "ip1"
  type: "InnerProduct"
  bottom: "pool1"
  top: "ip1"
  param {
    lr_mult: 1
  }
  param {
    lr_mult: 2
  }
  inner_product_param {
    num_output: 25
    weight_filler {
      type: "xavier"
    }
    bias_filler {
      type: "constant"
    }
  }
}
layer {
  name: "relu1"
  type: "ReLU"
  bottom: "ip1"
  top: "ip1"
}
layer {
  name: "ip2"
  type: "InnerProduct"
  bottom: "ip1"
  top: "ip2"
  param {
    lr_mult: 1
  }
  param {
    lr_mult: 2
  }
  inner_product_param {
    num_output: 25
    weight_filler {
      type: "xavier"
    }
    bias_filler {
      type: "constant"
    }
  }
}
layer {
  name: "relu2"
  type: "ReLU"
  bottom: "ip2"
  top: "ip2"
}
layer {
  name: "ip3"
  type: "InnerProduct"
  bottom: "ip2"
  top: "ip3"
  param {
    lr_mult: 1
  }
  param {
    lr_mult: 2
  }
  inner_product_param {
    num_output: 10
    weight_filler {
      type: "xavier"
    }
    bias_filler {
      type: "constant"
    }
  }
}
layer {
  name: "relu3"
  type: "ReLU"
  bottom: "ip3"
  top: "ip3"
}
layer {
  name: "accuracy"
  type: "Accuracy"
  bottom: "ip3"
  bottom: "label"
  top: "accuracy"
  include {
    phase: TEST
  }
}
layer {
  name: "loss"
  type: "SoftmaxWithLoss"
  bottom: "ip3"
  bottom: "label"
  top: "loss"
}
I0428 20:33:11.992918  4253 layer_factory.hpp:77] Creating layer mnist
I0428 20:33:11.992964  4253 db_lmdb.cpp:35] Opened lmdb examples/mnist/mnist_test_lmdb
I0428 20:33:11.992980  4253 net.cpp:86] Creating Layer mnist
I0428 20:33:11.992983  4253 net.cpp:382] mnist -> data
I0428 20:33:11.992992  4253 net.cpp:382] mnist -> label
I0428 20:33:11.993084  4253 data_layer.cpp:45] output data size: 100,1,28,28
I0428 20:33:11.995111  4253 net.cpp:124] Setting up mnist
I0428 20:33:11.995141  4253 net.cpp:131] Top shape: 100 1 28 28 (78400)
I0428 20:33:11.995146  4253 net.cpp:131] Top shape: 100 (100)
I0428 20:33:11.995149  4253 net.cpp:139] Memory required for data: 314000
I0428 20:33:11.995152  4253 layer_factory.hpp:77] Creating layer label_mnist_1_split
I0428 20:33:11.995185  4253 net.cpp:86] Creating Layer label_mnist_1_split
I0428 20:33:11.995189  4253 net.cpp:408] label_mnist_1_split <- label
I0428 20:33:11.995194  4253 net.cpp:382] label_mnist_1_split -> label_mnist_1_split_0
I0428 20:33:11.995200  4253 net.cpp:382] label_mnist_1_split -> label_mnist_1_split_1
I0428 20:33:11.995247  4253 net.cpp:124] Setting up label_mnist_1_split
I0428 20:33:11.995254  4253 net.cpp:131] Top shape: 100 (100)
I0428 20:33:11.995256  4253 net.cpp:131] Top shape: 100 (100)
I0428 20:33:11.995260  4253 net.cpp:139] Memory required for data: 314800
I0428 20:33:11.995262  4253 layer_factory.hpp:77] Creating layer conv0
I0428 20:33:11.995270  4253 net.cpp:86] Creating Layer conv0
I0428 20:33:11.995273  4253 net.cpp:408] conv0 <- data
I0428 20:33:11.995292  4253 net.cpp:382] conv0 -> conv0
I0428 20:33:11.996995  4253 net.cpp:124] Setting up conv0
I0428 20:33:11.997009  4253 net.cpp:131] Top shape: 100 100 24 24 (5760000)
I0428 20:33:11.997012  4253 net.cpp:139] Memory required for data: 23354800
I0428 20:33:11.997021  4253 layer_factory.hpp:77] Creating layer pool0
I0428 20:33:11.997027  4253 net.cpp:86] Creating Layer pool0
I0428 20:33:11.997046  4253 net.cpp:408] pool0 <- conv0
I0428 20:33:11.997051  4253 net.cpp:382] pool0 -> pool0
I0428 20:33:11.997084  4253 net.cpp:124] Setting up pool0
I0428 20:33:11.997089  4253 net.cpp:131] Top shape: 100 100 12 12 (1440000)
I0428 20:33:11.997092  4253 net.cpp:139] Memory required for data: 29114800
I0428 20:33:11.997095  4253 layer_factory.hpp:77] Creating layer conv1
I0428 20:33:11.997118  4253 net.cpp:86] Creating Layer conv1
I0428 20:33:11.997122  4253 net.cpp:408] conv1 <- pool0
I0428 20:33:11.997126  4253 net.cpp:382] conv1 -> conv1
I0428 20:33:11.999202  4253 net.cpp:124] Setting up conv1
I0428 20:33:11.999215  4253 net.cpp:131] Top shape: 100 25 8 8 (160000)
I0428 20:33:11.999219  4253 net.cpp:139] Memory required for data: 29754800
I0428 20:33:11.999228  4253 layer_factory.hpp:77] Creating layer pool1
I0428 20:33:11.999249  4253 net.cpp:86] Creating Layer pool1
I0428 20:33:11.999259  4253 net.cpp:408] pool1 <- conv1
I0428 20:33:11.999264  4253 net.cpp:382] pool1 -> pool1
I0428 20:33:11.999305  4253 net.cpp:124] Setting up pool1
I0428 20:33:11.999310  4253 net.cpp:131] Top shape: 100 25 4 4 (40000)
I0428 20:33:11.999313  4253 net.cpp:139] Memory required for data: 29914800
I0428 20:33:11.999317  4253 layer_factory.hpp:77] Creating layer ip1
I0428 20:33:11.999328  4253 net.cpp:86] Creating Layer ip1
I0428 20:33:11.999331  4253 net.cpp:408] ip1 <- pool1
I0428 20:33:11.999336  4253 net.cpp:382] ip1 -> ip1
I0428 20:33:11.999480  4253 net.cpp:124] Setting up ip1
I0428 20:33:11.999502  4253 net.cpp:131] Top shape: 100 25 (2500)
I0428 20:33:11.999506  4253 net.cpp:139] Memory required for data: 29924800
I0428 20:33:11.999513  4253 layer_factory.hpp:77] Creating layer relu1
I0428 20:33:11.999518  4253 net.cpp:86] Creating Layer relu1
I0428 20:33:11.999528  4253 net.cpp:408] relu1 <- ip1
I0428 20:33:11.999532  4253 net.cpp:369] relu1 -> ip1 (in-place)
I0428 20:33:11.999713  4253 net.cpp:124] Setting up relu1
I0428 20:33:11.999722  4253 net.cpp:131] Top shape: 100 25 (2500)
I0428 20:33:11.999725  4253 net.cpp:139] Memory required for data: 29934800
I0428 20:33:11.999728  4253 layer_factory.hpp:77] Creating layer ip2
I0428 20:33:11.999735  4253 net.cpp:86] Creating Layer ip2
I0428 20:33:11.999738  4253 net.cpp:408] ip2 <- ip1
I0428 20:33:11.999743  4253 net.cpp:382] ip2 -> ip2
I0428 20:33:11.999840  4253 net.cpp:124] Setting up ip2
I0428 20:33:11.999845  4253 net.cpp:131] Top shape: 100 25 (2500)
I0428 20:33:11.999848  4253 net.cpp:139] Memory required for data: 29944800
I0428 20:33:11.999855  4253 layer_factory.hpp:77] Creating layer relu2
I0428 20:33:11.999858  4253 net.cpp:86] Creating Layer relu2
I0428 20:33:11.999861  4253 net.cpp:408] relu2 <- ip2
I0428 20:33:11.999866  4253 net.cpp:369] relu2 -> ip2 (in-place)
I0428 20:33:12.000010  4253 net.cpp:124] Setting up relu2
I0428 20:33:12.000016  4253 net.cpp:131] Top shape: 100 25 (2500)
I0428 20:33:12.000020  4253 net.cpp:139] Memory required for data: 29954800
I0428 20:33:12.000022  4253 layer_factory.hpp:77] Creating layer ip3
I0428 20:33:12.000027  4253 net.cpp:86] Creating Layer ip3
I0428 20:33:12.000038  4253 net.cpp:408] ip3 <- ip2
I0428 20:33:12.000042  4253 net.cpp:382] ip3 -> ip3
I0428 20:33:12.000166  4253 net.cpp:124] Setting up ip3
I0428 20:33:12.000174  4253 net.cpp:131] Top shape: 100 10 (1000)
I0428 20:33:12.000177  4253 net.cpp:139] Memory required for data: 29958800
I0428 20:33:12.000185  4253 layer_factory.hpp:77] Creating layer relu3
I0428 20:33:12.000190  4253 net.cpp:86] Creating Layer relu3
I0428 20:33:12.000193  4253 net.cpp:408] relu3 <- ip3
I0428 20:33:12.000197  4253 net.cpp:369] relu3 -> ip3 (in-place)
I0428 20:33:12.001147  4253 net.cpp:124] Setting up relu3
I0428 20:33:12.001160  4253 net.cpp:131] Top shape: 100 10 (1000)
I0428 20:33:12.001165  4253 net.cpp:139] Memory required for data: 29962800
I0428 20:33:12.001168  4253 layer_factory.hpp:77] Creating layer ip3_relu3_0_split
I0428 20:33:12.001174  4253 net.cpp:86] Creating Layer ip3_relu3_0_split
I0428 20:33:12.001178  4253 net.cpp:408] ip3_relu3_0_split <- ip3
I0428 20:33:12.001183  4253 net.cpp:382] ip3_relu3_0_split -> ip3_relu3_0_split_0
I0428 20:33:12.001204  4253 net.cpp:382] ip3_relu3_0_split -> ip3_relu3_0_split_1
I0428 20:33:12.001279  4253 net.cpp:124] Setting up ip3_relu3_0_split
I0428 20:33:12.001284  4253 net.cpp:131] Top shape: 100 10 (1000)
I0428 20:33:12.001287  4253 net.cpp:131] Top shape: 100 10 (1000)
I0428 20:33:12.001318  4253 net.cpp:139] Memory required for data: 29970800
I0428 20:33:12.001327  4253 layer_factory.hpp:77] Creating layer accuracy
I0428 20:33:12.001332  4253 net.cpp:86] Creating Layer accuracy
I0428 20:33:12.001335  4253 net.cpp:408] accuracy <- ip3_relu3_0_split_0
I0428 20:33:12.001339  4253 net.cpp:408] accuracy <- label_mnist_1_split_0
I0428 20:33:12.001344  4253 net.cpp:382] accuracy -> accuracy
…
