…
I0428 20:00:02.789463 29385 net.cpp:296] The NetState phase (0) differed from the phase (1) specified by a rule in layer mnist
I0428 20:00:02.789479 29385 net.cpp:296] The NetState phase (0) differed from the phase (1) specified by a rule in layer accuracy
I0428 20:00:02.789552 29385 net.cpp:53] Initializing net from parameters: 
name: "LeNet"
state {
  phase: TRAIN
  level: 0
  stage: ""
}
layer {
  name: "mnist"
  type: "Data"
  top: "data"
  top: "label"
  include {
    phase: TRAIN
  }
  transform_param {
    scale: 0.00390625
  }
  data_param {
    source: "examples/mnist/mnist_train_lmdb"
    batch_size: 64
    backend: LMDB
  }
}
layer {
  name: "conv0"
  type: "Convolution"
  bottom: "data"
  top: "conv0"
  param {
    lr_mult: 1
  }
  param {
    lr_mult: 2
  }
  convolution_param {
    num_output: 10
    kernel_size: 5
    stride: 1
    weight_filler {
      type: "xavier"
    }
    bias_filler {
      type: "constant"
    }
  }
}
layer {
  name: "pool0"
  type: "Pooling"
  bottom: "conv0"
  top: "pool0"
  pooling_param {
    pool: MAX
    kernel_size: 2
    stride: 2
  }
}
layer {
  name: "conv1"
  type: "Convolution"
  bottom: "pool0"
  top: "conv1"
  param {
    lr_mult: 1
  }
  param {
    lr_mult: 2
  }
  convolution_param {
    num_output: 25
    kernel_size: 5
    stride: 1
    weight_filler {
      type: "xavier"
    }
    bias_filler {
      type: "constant"
    }
  }
}
layer {
  name: "pool1"
  type: "Pooling"
  bottom: "conv1"
  top: "pool1"
  pooling_param {
    pool: MAX
    kernel_size: 2
    stride: 2
  }
}
layer {
  name: "ip1"
  type: "InnerProduct"
  bottom: "pool1"
  top: "ip1"
  param {
    lr_mult: 1
  }
  param {
    lr_mult: 2
  }
  inner_product_param {
    num_output: 25
    weight_filler {
      type: "xavier"
    }
    bias_filler {
      type: "constant"
    }
  }
}
layer {
  name: "relu1"
  type: "ReLU"
  bottom: "ip1"
  top: "ip1"
}
layer {
  name: "ip2"
  type: "InnerProduct"
  bottom: "ip1"
  top: "ip2"
  param {
    lr_mult: 1
  }
  param {
    lr_mult: 2
  }
  inner_product_param {
    num_output: 10
    weight_filler {
      type: "xavier"
    }
    bias_filler {
      type: "constant"
    }
  }
}
layer {
  name: "relu2"
  type: "ReLU"
  bottom: "ip2"
  top: "ip2"
}
layer {
  name: "loss"
  type: "SoftmaxWithLoss"
  bottom: "ip2"
  bottom: "label"
  top: "loss"
}
I0428 20:00:02.789615 29385 layer_factory.hpp:77] Creating layer mnist
I0428 20:00:02.789695 29385 db_lmdb.cpp:35] Opened lmdb examples/mnist/mnist_train_lmdb
I0428 20:00:02.789728 29385 net.cpp:86] Creating Layer mnist
I0428 20:00:02.789736 29385 net.cpp:382] mnist -> data
I0428 20:00:02.789753 29385 net.cpp:382] mnist -> label
I0428 20:00:02.790683 29385 data_layer.cpp:45] output data size: 64,1,28,28
I0428 20:00:02.792912 29385 net.cpp:124] Setting up mnist
I0428 20:00:02.792940 29385 net.cpp:131] Top shape: 64 1 28 28 (50176)
I0428 20:00:02.792955 29385 net.cpp:131] Top shape: 64 (64)
I0428 20:00:02.792959 29385 net.cpp:139] Memory required for data: 200960
I0428 20:00:02.792965 29385 layer_factory.hpp:77] Creating layer conv0
I0428 20:00:02.792978 29385 net.cpp:86] Creating Layer conv0
I0428 20:00:02.792982 29385 net.cpp:408] conv0 <- data
I0428 20:00:02.792992 29385 net.cpp:382] conv0 -> conv0
I0428 20:00:03.027009 29385 net.cpp:124] Setting up conv0
I0428 20:00:03.027051 29385 net.cpp:131] Top shape: 64 10 24 24 (368640)
I0428 20:00:03.027055 29385 net.cpp:139] Memory required for data: 1675520
I0428 20:00:03.027089 29385 layer_factory.hpp:77] Creating layer pool0
I0428 20:00:03.027101 29385 net.cpp:86] Creating Layer pool0
I0428 20:00:03.027106 29385 net.cpp:408] pool0 <- conv0
I0428 20:00:03.027112 29385 net.cpp:382] pool0 -> pool0
I0428 20:00:03.027156 29385 net.cpp:124] Setting up pool0
I0428 20:00:03.027175 29385 net.cpp:131] Top shape: 64 10 12 12 (92160)
I0428 20:00:03.027179 29385 net.cpp:139] Memory required for data: 2044160
I0428 20:00:03.027181 29385 layer_factory.hpp:77] Creating layer conv1
I0428 20:00:03.027191 29385 net.cpp:86] Creating Layer conv1
I0428 20:00:03.027194 29385 net.cpp:408] conv1 <- pool0
I0428 20:00:03.027199 29385 net.cpp:382] conv1 -> conv1
I0428 20:00:03.029883 29385 net.cpp:124] Setting up conv1
I0428 20:00:03.029912 29385 net.cpp:131] Top shape: 64 25 8 8 (102400)
I0428 20:00:03.029917 29385 net.cpp:139] Memory required for data: 2453760
I0428 20:00:03.029924 29385 layer_factory.hpp:77] Creating layer pool1
I0428 20:00:03.029932 29385 net.cpp:86] Creating Layer pool1
I0428 20:00:03.029934 29385 net.cpp:408] pool1 <- conv1
I0428 20:00:03.029940 29385 net.cpp:382] pool1 -> pool1
I0428 20:00:03.029992 29385 net.cpp:124] Setting up pool1
I0428 20:00:03.029997 29385 net.cpp:131] Top shape: 64 25 4 4 (25600)
I0428 20:00:03.029999 29385 net.cpp:139] Memory required for data: 2556160
I0428 20:00:03.030002 29385 layer_factory.hpp:77] Creating layer ip1
I0428 20:00:03.030011 29385 net.cpp:86] Creating Layer ip1
I0428 20:00:03.030014 29385 net.cpp:408] ip1 <- pool1
I0428 20:00:03.030019 29385 net.cpp:382] ip1 -> ip1
I0428 20:00:03.030164 29385 net.cpp:124] Setting up ip1
I0428 20:00:03.030174 29385 net.cpp:131] Top shape: 64 25 (1600)
I0428 20:00:03.030176 29385 net.cpp:139] Memory required for data: 2562560
I0428 20:00:03.030184 29385 layer_factory.hpp:77] Creating layer relu1
I0428 20:00:03.030189 29385 net.cpp:86] Creating Layer relu1
I0428 20:00:03.030191 29385 net.cpp:408] relu1 <- ip1
I0428 20:00:03.030195 29385 net.cpp:369] relu1 -> ip1 (in-place)
I0428 20:00:03.030359 29385 net.cpp:124] Setting up relu1
I0428 20:00:03.030369 29385 net.cpp:131] Top shape: 64 25 (1600)
I0428 20:00:03.030371 29385 net.cpp:139] Memory required for data: 2568960
I0428 20:00:03.030375 29385 layer_factory.hpp:77] Creating layer ip2
I0428 20:00:03.030381 29385 net.cpp:86] Creating Layer ip2
I0428 20:00:03.030385 29385 net.cpp:408] ip2 <- ip1
I0428 20:00:03.030390 29385 net.cpp:382] ip2 -> ip2
I0428 20:00:03.030488 29385 net.cpp:124] Setting up ip2
I0428 20:00:03.030494 29385 net.cpp:131] Top shape: 64 10 (640)
I0428 20:00:03.030498 29385 net.cpp:139] Memory required for data: 2571520
I0428 20:00:03.030503 29385 layer_factory.hpp:77] Creating layer relu2
I0428 20:00:03.030508 29385 net.cpp:86] Creating Layer relu2
I0428 20:00:03.030510 29385 net.cpp:408] relu2 <- ip2
I0428 20:00:03.030514 29385 net.cpp:369] relu2 -> ip2 (in-place)
I0428 20:00:03.031230 29385 net.cpp:124] Setting up relu2
I0428 20:00:03.031242 29385 net.cpp:131] Top shape: 64 10 (640)
I0428 20:00:03.031261 29385 net.cpp:139] Memory required for data: 2574080
I0428 20:00:03.031265 29385 layer_factory.hpp:77] Creating layer loss
I0428 20:00:03.031271 29385 net.cpp:86] Creating Layer loss
I0428 20:00:03.031275 29385 net.cpp:408] loss <- ip2
I0428 20:00:03.031280 29385 net.cpp:408] loss <- label
I0428 20:00:03.031286 29385 net.cpp:382] loss -> loss
I0428 20:00:03.031301 29385 layer_factory.hpp:77] Creating layer loss
…
I0428 20:00:03.031919 29385 solver.cpp:173] Creating test net (#0) specified by net file: ECE595/mnist/train_test/var_everything2/lenet_train_test865.prototxt
I0428 20:00:03.031944 29385 net.cpp:296] The NetState phase (1) differed from the phase (0) specified by a rule in layer mnist
I0428 20:00:03.032045 29385 net.cpp:53] Initializing net from parameters: 
name: "LeNet"
state {
  phase: TEST
}
layer {
  name: "mnist"
  type: "Data"
  top: "data"
  top: "label"
  include {
    phase: TEST
  }
  transform_param {
    scale: 0.00390625
  }
  data_param {
    source: "examples/mnist/mnist_test_lmdb"
    batch_size: 100
    backend: LMDB
  }
}
layer {
  name: "conv0"
  type: "Convolution"
  bottom: "data"
  top: "conv0"
  param {
    lr_mult: 1
  }
  param {
    lr_mult: 2
  }
  convolution_param {
    num_output: 10
    kernel_size: 5
    stride: 1
    weight_filler {
      type: "xavier"
    }
    bias_filler {
      type: "constant"
    }
  }
}
layer {
  name: "pool0"
  type: "Pooling"
  bottom: "conv0"
  top: "pool0"
  pooling_param {
    pool: MAX
    kernel_size: 2
    stride: 2
  }
}
layer {
  name: "conv1"
  type: "Convolution"
  bottom: "pool0"
  top: "conv1"
  param {
    lr_mult: 1
  }
  param {
    lr_mult: 2
  }
  convolution_param {
    num_output: 25
    kernel_size: 5
    stride: 1
    weight_filler {
      type: "xavier"
    }
    bias_filler {
      type: "constant"
    }
  }
}
layer {
  name: "pool1"
  type: "Pooling"
  bottom: "conv1"
  top: "pool1"
  pooling_param {
    pool: MAX
    kernel_size: 2
    stride: 2
  }
}
layer {
  name: "ip1"
  type: "InnerProduct"
  bottom: "pool1"
  top: "ip1"
  param {
    lr_mult: 1
  }
  param {
    lr_mult: 2
  }
  inner_product_param {
    num_output: 25
    weight_filler {
      type: "xavier"
    }
    bias_filler {
      type: "constant"
    }
  }
}
layer {
  name: "relu1"
  type: "ReLU"
  bottom: "ip1"
  top: "ip1"
}
layer {
  name: "ip2"
  type: "InnerProduct"
  bottom: "ip1"
  top: "ip2"
  param {
    lr_mult: 1
  }
  param {
    lr_mult: 2
  }
  inner_product_param {
    num_output: 10
    weight_filler {
      type: "xavier"
    }
    bias_filler {
      type: "constant"
    }
  }
}
layer {
  name: "relu2"
  type: "ReLU"
  bottom: "ip2"
  top: "ip2"
}
layer {
  name: "accuracy"
  type: "Accuracy"
  bottom: "ip2"
  bottom: "label"
  top: "accuracy"
  include {
    phase: TEST
  }
}
layer {
  name: "loss"
  type: "SoftmaxWithLoss"
  bottom: "ip2"
  bottom: "label"
  top: "loss"
}
I0428 20:00:03.032110 29385 layer_factory.hpp:77] Creating layer mnist
I0428 20:00:03.032152 29385 db_lmdb.cpp:35] Opened lmdb examples/mnist/mnist_test_lmdb
I0428 20:00:03.032165 29385 net.cpp:86] Creating Layer mnist
I0428 20:00:03.032168 29385 net.cpp:382] mnist -> data
I0428 20:00:03.032177 29385 net.cpp:382] mnist -> label
I0428 20:00:03.032294 29385 data_layer.cpp:45] output data size: 100,1,28,28
I0428 20:00:03.034282 29385 net.cpp:124] Setting up mnist
I0428 20:00:03.034309 29385 net.cpp:131] Top shape: 100 1 28 28 (78400)
I0428 20:00:03.034314 29385 net.cpp:131] Top shape: 100 (100)
I0428 20:00:03.034317 29385 net.cpp:139] Memory required for data: 314000
I0428 20:00:03.034320 29385 layer_factory.hpp:77] Creating layer label_mnist_1_split
I0428 20:00:03.034342 29385 net.cpp:86] Creating Layer label_mnist_1_split
I0428 20:00:03.034344 29385 net.cpp:408] label_mnist_1_split <- label
I0428 20:00:03.034364 29385 net.cpp:382] label_mnist_1_split -> label_mnist_1_split_0
I0428 20:00:03.034373 29385 net.cpp:382] label_mnist_1_split -> label_mnist_1_split_1
I0428 20:00:03.034490 29385 net.cpp:124] Setting up label_mnist_1_split
I0428 20:00:03.034499 29385 net.cpp:131] Top shape: 100 (100)
I0428 20:00:03.034503 29385 net.cpp:131] Top shape: 100 (100)
I0428 20:00:03.034507 29385 net.cpp:139] Memory required for data: 314800
I0428 20:00:03.034509 29385 layer_factory.hpp:77] Creating layer conv0
I0428 20:00:03.034521 29385 net.cpp:86] Creating Layer conv0
I0428 20:00:03.034525 29385 net.cpp:408] conv0 <- data
I0428 20:00:03.034530 29385 net.cpp:382] conv0 -> conv0
I0428 20:00:03.036187 29385 net.cpp:124] Setting up conv0
I0428 20:00:03.036216 29385 net.cpp:131] Top shape: 100 10 24 24 (576000)
I0428 20:00:03.036219 29385 net.cpp:139] Memory required for data: 2618800
I0428 20:00:03.036228 29385 layer_factory.hpp:77] Creating layer pool0
I0428 20:00:03.036236 29385 net.cpp:86] Creating Layer pool0
I0428 20:00:03.036239 29385 net.cpp:408] pool0 <- conv0
I0428 20:00:03.036244 29385 net.cpp:382] pool0 -> pool0
I0428 20:00:03.036294 29385 net.cpp:124] Setting up pool0
I0428 20:00:03.036299 29385 net.cpp:131] Top shape: 100 10 12 12 (144000)
I0428 20:00:03.036303 29385 net.cpp:139] Memory required for data: 3194800
I0428 20:00:03.036305 29385 layer_factory.hpp:77] Creating layer conv1
I0428 20:00:03.036314 29385 net.cpp:86] Creating Layer conv1
I0428 20:00:03.036317 29385 net.cpp:408] conv1 <- pool0
I0428 20:00:03.036324 29385 net.cpp:382] conv1 -> conv1
I0428 20:00:03.038756 29385 net.cpp:124] Setting up conv1
I0428 20:00:03.038785 29385 net.cpp:131] Top shape: 100 25 8 8 (160000)
I0428 20:00:03.038790 29385 net.cpp:139] Memory required for data: 3834800
I0428 20:00:03.038800 29385 layer_factory.hpp:77] Creating layer pool1
I0428 20:00:03.038805 29385 net.cpp:86] Creating Layer pool1
I0428 20:00:03.038810 29385 net.cpp:408] pool1 <- conv1
I0428 20:00:03.038815 29385 net.cpp:382] pool1 -> pool1
I0428 20:00:03.038872 29385 net.cpp:124] Setting up pool1
I0428 20:00:03.038878 29385 net.cpp:131] Top shape: 100 25 4 4 (40000)
I0428 20:00:03.038882 29385 net.cpp:139] Memory required for data: 3994800
I0428 20:00:03.038884 29385 layer_factory.hpp:77] Creating layer ip1
I0428 20:00:03.038890 29385 net.cpp:86] Creating Layer ip1
I0428 20:00:03.038894 29385 net.cpp:408] ip1 <- pool1
I0428 20:00:03.038899 29385 net.cpp:382] ip1 -> ip1
I0428 20:00:03.039062 29385 net.cpp:124] Setting up ip1
I0428 20:00:03.039083 29385 net.cpp:131] Top shape: 100 25 (2500)
I0428 20:00:03.039098 29385 net.cpp:139] Memory required for data: 4004800
I0428 20:00:03.039103 29385 layer_factory.hpp:77] Creating layer relu1
I0428 20:00:03.039108 29385 net.cpp:86] Creating Layer relu1
I0428 20:00:03.039111 29385 net.cpp:408] relu1 <- ip1
I0428 20:00:03.039116 29385 net.cpp:369] relu1 -> ip1 (in-place)
I0428 20:00:03.039320 29385 net.cpp:124] Setting up relu1
I0428 20:00:03.039330 29385 net.cpp:131] Top shape: 100 25 (2500)
I0428 20:00:03.039332 29385 net.cpp:139] Memory required for data: 4014800
I0428 20:00:03.039335 29385 layer_factory.hpp:77] Creating layer ip2
I0428 20:00:03.039343 29385 net.cpp:86] Creating Layer ip2
I0428 20:00:03.039346 29385 net.cpp:408] ip2 <- ip1
I0428 20:00:03.039350 29385 net.cpp:382] ip2 -> ip2
I0428 20:00:03.039468 29385 net.cpp:124] Setting up ip2
I0428 20:00:03.039475 29385 net.cpp:131] Top shape: 100 10 (1000)
I0428 20:00:03.039479 29385 net.cpp:139] Memory required for data: 4018800
I0428 20:00:03.039484 29385 layer_factory.hpp:77] Creating layer relu2
I0428 20:00:03.039487 29385 net.cpp:86] Creating Layer relu2
I0428 20:00:03.039490 29385 net.cpp:408] relu2 <- ip2
I0428 20:00:03.039495 29385 net.cpp:369] relu2 -> ip2 (in-place)
I0428 20:00:03.039682 29385 net.cpp:124] Setting up relu2
I0428 20:00:03.039692 29385 net.cpp:131] Top shape: 100 10 (1000)
I0428 20:00:03.039695 29385 net.cpp:139] Memory required for data: 4022800
I0428 20:00:03.039703 29385 layer_factory.hpp:77] Creating layer ip2_relu2_0_split
I0428 20:00:03.039708 29385 net.cpp:86] Creating Layer ip2_relu2_0_split
I0428 20:00:03.039712 29385 net.cpp:408] ip2_relu2_0_split <- ip2
I0428 20:00:03.039718 29385 net.cpp:382] ip2_relu2_0_split -> ip2_relu2_0_split_0
I0428 20:00:03.039733 29385 net.cpp:382] ip2_relu2_0_split -> ip2_relu2_0_split_1
I0428 20:00:03.039768 29385 net.cpp:124] Setting up ip2_relu2_0_split
I0428 20:00:03.039775 29385 net.cpp:131] Top shape: 100 10 (1000)
I0428 20:00:03.039779 29385 net.cpp:131] Top shape: 100 10 (1000)
I0428 20:00:03.039798 29385 net.cpp:139] Memory required for data: 4030800
I0428 20:00:03.039801 29385 layer_factory.hpp:77] Creating layer accuracy
I0428 20:00:03.039808 29385 net.cpp:86] Creating Layer accuracy
I0428 20:00:03.039810 29385 net.cpp:408] accuracy <- ip2_relu2_0_split_0
I0428 20:00:03.039814 29385 net.cpp:408] accuracy <- label_mnist_1_split_0
I0428 20:00:03.039819 29385 net.cpp:382] accuracy -> accuracy
…
