…
I0428 19:59:36.155578 29278 net.cpp:296] The NetState phase (0) differed from the phase (1) specified by a rule in layer mnist
I0428 19:59:36.155599 29278 net.cpp:296] The NetState phase (0) differed from the phase (1) specified by a rule in layer accuracy
I0428 19:59:36.155704 29278 net.cpp:53] Initializing net from parameters: 
name: "LeNet"
state {
  phase: TRAIN
  level: 0
  stage: ""
}
layer {
  name: "mnist"
  type: "Data"
  top: "data"
  top: "label"
  include {
    phase: TRAIN
  }
  transform_param {
    scale: 0.00390625
  }
  data_param {
    source: "examples/mnist/mnist_train_lmdb"
    batch_size: 64
    backend: LMDB
  }
}
layer {
  name: "conv0"
  type: "Convolution"
  bottom: "data"
  top: "conv0"
  param {
    lr_mult: 1
  }
  param {
    lr_mult: 2
  }
  convolution_param {
    num_output: 10
    kernel_size: 5
    stride: 1
    weight_filler {
      type: "xavier"
    }
    bias_filler {
      type: "constant"
    }
  }
}
layer {
  name: "pool0"
  type: "Pooling"
  bottom: "conv0"
  top: "pool0"
  pooling_param {
    pool: MAX
    kernel_size: 2
    stride: 2
  }
}
layer {
  name: "conv1"
  type: "Convolution"
  bottom: "pool0"
  top: "conv1"
  param {
    lr_mult: 1
  }
  param {
    lr_mult: 2
  }
  convolution_param {
    num_output: 10
    kernel_size: 5
    stride: 1
    weight_filler {
      type: "xavier"
    }
    bias_filler {
      type: "constant"
    }
  }
}
layer {
  name: "pool1"
  type: "Pooling"
  bottom: "conv1"
  top: "pool1"
  pooling_param {
    pool: MAX
    kernel_size: 2
    stride: 2
  }
}
layer {
  name: "ip1"
  type: "InnerProduct"
  bottom: "pool1"
  top: "ip1"
  param {
    lr_mult: 1
  }
  param {
    lr_mult: 2
  }
  inner_product_param {
    num_output: 50
    weight_filler {
      type: "xavier"
    }
    bias_filler {
      type: "constant"
    }
  }
}
layer {
  name: "relu1"
  type: "ReLU"
  bottom: "ip1"
  top: "ip1"
}
layer {
  name: "ip2"
  type: "InnerProduct"
  bottom: "ip1"
  top: "ip2"
  param {
    lr_mult: 1
  }
  param {
    lr_mult: 2
  }
  inner_product_param {
    num_output: 25
    weight_filler {
      type: "xavier"
    }
    bias_filler {
      type: "constant"
    }
  }
}
layer {
  name: "relu2"
  type: "ReLU"
  bottom: "ip2"
  top: "ip2"
}
layer {
  name: "ip3"
  type: "InnerProduct"
  bottom: "ip2"
  top: "ip3"
  param {
    lr_mult: 1
  }
  param {
    lr_mult: 2
  }
  inner_product_param {
    num_output: 10
    weight_filler {
      type: "xavier"
    }
    bias_filler {
      type: "constant"
    }
  }
}
layer {
  name: "relu3"
  type: "ReLU"
  bottom: "ip3"
  top: "ip3"
}
layer {
  name: "loss"
  type: "SoftmaxWithLoss"
  bottom: "ip3"
  bottom: "label"
  top: "loss"
}
I0428 19:59:36.155784 29278 layer_factory.hpp:77] Creating layer mnist
I0428 19:59:36.155880 29278 db_lmdb.cpp:35] Opened lmdb examples/mnist/mnist_train_lmdb
I0428 19:59:36.155905 29278 net.cpp:86] Creating Layer mnist
I0428 19:59:36.155913 29278 net.cpp:382] mnist -> data
I0428 19:59:36.155936 29278 net.cpp:382] mnist -> label
I0428 19:59:36.157050 29278 data_layer.cpp:45] output data size: 64,1,28,28
I0428 19:59:36.159508 29278 net.cpp:124] Setting up mnist
I0428 19:59:36.159526 29278 net.cpp:131] Top shape: 64 1 28 28 (50176)
I0428 19:59:36.159533 29278 net.cpp:131] Top shape: 64 (64)
I0428 19:59:36.159538 29278 net.cpp:139] Memory required for data: 200960
I0428 19:59:36.159544 29278 layer_factory.hpp:77] Creating layer conv0
I0428 19:59:36.159559 29278 net.cpp:86] Creating Layer conv0
I0428 19:59:36.159579 29278 net.cpp:408] conv0 <- data
I0428 19:59:36.159593 29278 net.cpp:382] conv0 -> conv0
I0428 19:59:36.447412 29278 net.cpp:124] Setting up conv0
I0428 19:59:36.447439 29278 net.cpp:131] Top shape: 64 10 24 24 (368640)
I0428 19:59:36.447443 29278 net.cpp:139] Memory required for data: 1675520
I0428 19:59:36.447460 29278 layer_factory.hpp:77] Creating layer pool0
I0428 19:59:36.447474 29278 net.cpp:86] Creating Layer pool0
I0428 19:59:36.447479 29278 net.cpp:408] pool0 <- conv0
I0428 19:59:36.447484 29278 net.cpp:382] pool0 -> pool0
I0428 19:59:36.447535 29278 net.cpp:124] Setting up pool0
I0428 19:59:36.447541 29278 net.cpp:131] Top shape: 64 10 12 12 (92160)
I0428 19:59:36.447545 29278 net.cpp:139] Memory required for data: 2044160
I0428 19:59:36.447548 29278 layer_factory.hpp:77] Creating layer conv1
I0428 19:59:36.447559 29278 net.cpp:86] Creating Layer conv1
I0428 19:59:36.447563 29278 net.cpp:408] conv1 <- pool0
I0428 19:59:36.447568 29278 net.cpp:382] conv1 -> conv1
I0428 19:59:36.450336 29278 net.cpp:124] Setting up conv1
I0428 19:59:36.450351 29278 net.cpp:131] Top shape: 64 10 8 8 (40960)
I0428 19:59:36.450356 29278 net.cpp:139] Memory required for data: 2208000
I0428 19:59:36.450366 29278 layer_factory.hpp:77] Creating layer pool1
I0428 19:59:36.450372 29278 net.cpp:86] Creating Layer pool1
I0428 19:59:36.450376 29278 net.cpp:408] pool1 <- conv1
I0428 19:59:36.450381 29278 net.cpp:382] pool1 -> pool1
I0428 19:59:36.450420 29278 net.cpp:124] Setting up pool1
I0428 19:59:36.450426 29278 net.cpp:131] Top shape: 64 10 4 4 (10240)
I0428 19:59:36.450429 29278 net.cpp:139] Memory required for data: 2248960
I0428 19:59:36.450433 29278 layer_factory.hpp:77] Creating layer ip1
I0428 19:59:36.450444 29278 net.cpp:86] Creating Layer ip1
I0428 19:59:36.450448 29278 net.cpp:408] ip1 <- pool1
I0428 19:59:36.450453 29278 net.cpp:382] ip1 -> ip1
I0428 19:59:36.451434 29278 net.cpp:124] Setting up ip1
I0428 19:59:36.451448 29278 net.cpp:131] Top shape: 64 50 (3200)
I0428 19:59:36.451452 29278 net.cpp:139] Memory required for data: 2261760
I0428 19:59:36.451462 29278 layer_factory.hpp:77] Creating layer relu1
I0428 19:59:36.451467 29278 net.cpp:86] Creating Layer relu1
I0428 19:59:36.451472 29278 net.cpp:408] relu1 <- ip1
I0428 19:59:36.451475 29278 net.cpp:369] relu1 -> ip1 (in-place)
I0428 19:59:36.451658 29278 net.cpp:124] Setting up relu1
I0428 19:59:36.451668 29278 net.cpp:131] Top shape: 64 50 (3200)
I0428 19:59:36.451670 29278 net.cpp:139] Memory required for data: 2274560
I0428 19:59:36.451673 29278 layer_factory.hpp:77] Creating layer ip2
I0428 19:59:36.451680 29278 net.cpp:86] Creating Layer ip2
I0428 19:59:36.451683 29278 net.cpp:408] ip2 <- ip1
I0428 19:59:36.451689 29278 net.cpp:382] ip2 -> ip2
I0428 19:59:36.451797 29278 net.cpp:124] Setting up ip2
I0428 19:59:36.451805 29278 net.cpp:131] Top shape: 64 25 (1600)
I0428 19:59:36.451808 29278 net.cpp:139] Memory required for data: 2280960
I0428 19:59:36.451813 29278 layer_factory.hpp:77] Creating layer relu2
I0428 19:59:36.451819 29278 net.cpp:86] Creating Layer relu2
I0428 19:59:36.451822 29278 net.cpp:408] relu2 <- ip2
I0428 19:59:36.451828 29278 net.cpp:369] relu2 -> ip2 (in-place)
I0428 19:59:36.452584 29278 net.cpp:124] Setting up relu2
I0428 19:59:36.452596 29278 net.cpp:131] Top shape: 64 25 (1600)
I0428 19:59:36.452600 29278 net.cpp:139] Memory required for data: 2287360
I0428 19:59:36.452603 29278 layer_factory.hpp:77] Creating layer ip3
I0428 19:59:36.452611 29278 net.cpp:86] Creating Layer ip3
I0428 19:59:36.452615 29278 net.cpp:408] ip3 <- ip2
I0428 19:59:36.452620 29278 net.cpp:382] ip3 -> ip3
I0428 19:59:36.452716 29278 net.cpp:124] Setting up ip3
I0428 19:59:36.452724 29278 net.cpp:131] Top shape: 64 10 (640)
I0428 19:59:36.452728 29278 net.cpp:139] Memory required for data: 2289920
I0428 19:59:36.452735 29278 layer_factory.hpp:77] Creating layer relu3
I0428 19:59:36.452740 29278 net.cpp:86] Creating Layer relu3
I0428 19:59:36.452744 29278 net.cpp:408] relu3 <- ip3
I0428 19:59:36.452747 29278 net.cpp:369] relu3 -> ip3 (in-place)
I0428 19:59:36.452925 29278 net.cpp:124] Setting up relu3
I0428 19:59:36.452934 29278 net.cpp:131] Top shape: 64 10 (640)
I0428 19:59:36.452937 29278 net.cpp:139] Memory required for data: 2292480
I0428 19:59:36.452940 29278 layer_factory.hpp:77] Creating layer loss
I0428 19:59:36.452946 29278 net.cpp:86] Creating Layer loss
I0428 19:59:36.452950 29278 net.cpp:408] loss <- ip3
I0428 19:59:36.452955 29278 net.cpp:408] loss <- label
I0428 19:59:36.452960 29278 net.cpp:382] loss -> loss
I0428 19:59:36.452978 29278 layer_factory.hpp:77] Creating layer loss
…
I0428 19:59:36.453605 29278 solver.cpp:173] Creating test net (#0) specified by net file: ECE595/mnist/train_test/var_everything2/lenet_train_test852.prototxt
I0428 19:59:36.453635 29278 net.cpp:296] The NetState phase (1) differed from the phase (0) specified by a rule in layer mnist
I0428 19:59:36.453729 29278 net.cpp:53] Initializing net from parameters: 
name: "LeNet"
state {
  phase: TEST
}
layer {
  name: "mnist"
  type: "Data"
  top: "data"
  top: "label"
  include {
    phase: TEST
  }
  transform_param {
    scale: 0.00390625
  }
  data_param {
    source: "examples/mnist/mnist_test_lmdb"
    batch_size: 100
    backend: LMDB
  }
}
layer {
  name: "conv0"
  type: "Convolution"
  bottom: "data"
  top: "conv0"
  param {
    lr_mult: 1
  }
  param {
    lr_mult: 2
  }
  convolution_param {
    num_output: 10
    kernel_size: 5
    stride: 1
    weight_filler {
      type: "xavier"
    }
    bias_filler {
      type: "constant"
    }
  }
}
layer {
  name: "pool0"
  type: "Pooling"
  bottom: "conv0"
  top: "pool0"
  pooling_param {
    pool: MAX
    kernel_size: 2
    stride: 2
  }
}
layer {
  name: "conv1"
  type: "Convolution"
  bottom: "pool0"
  top: "conv1"
  param {
    lr_mult: 1
  }
  param {
    lr_mult: 2
  }
  convolution_param {
    num_output: 10
    kernel_size: 5
    stride: 1
    weight_filler {
      type: "xavier"
    }
    bias_filler {
      type: "constant"
    }
  }
}
layer {
  name: "pool1"
  type: "Pooling"
  bottom: "conv1"
  top: "pool1"
  pooling_param {
    pool: MAX
    kernel_size: 2
    stride: 2
  }
}
layer {
  name: "ip1"
  type: "InnerProduct"
  bottom: "pool1"
  top: "ip1"
  param {
    lr_mult: 1
  }
  param {
    lr_mult: 2
  }
  inner_product_param {
    num_output: 50
    weight_filler {
      type: "xavier"
    }
    bias_filler {
      type: "constant"
    }
  }
}
layer {
  name: "relu1"
  type: "ReLU"
  bottom: "ip1"
  top: "ip1"
}
layer {
  name: "ip2"
  type: "InnerProduct"
  bottom: "ip1"
  top: "ip2"
  param {
    lr_mult: 1
  }
  param {
    lr_mult: 2
  }
  inner_product_param {
    num_output: 25
    weight_filler {
      type: "xavier"
    }
    bias_filler {
      type: "constant"
    }
  }
}
layer {
  name: "relu2"
  type: "ReLU"
  bottom: "ip2"
  top: "ip2"
}
layer {
  name: "ip3"
  type: "InnerProduct"
  bottom: "ip2"
  top: "ip3"
  param {
    lr_mult: 1
  }
  param {
    lr_mult: 2
  }
  inner_product_param {
    num_output: 10
    weight_filler {
      type: "xavier"
    }
    bias_filler {
      type: "constant"
    }
  }
}
layer {
  name: "relu3"
  type: "ReLU"
  bottom: "ip3"
  top: "ip3"
}
layer {
  name: "accuracy"
  type: "Accuracy"
  bottom: "ip3"
  bottom: "label"
  top: "accuracy"
  include {
    phase: TEST
  }
}
layer {
  name: "loss"
  type: "SoftmaxWithLoss"
  bottom: "ip3"
  bottom: "label"
  top: "loss"
}
I0428 19:59:36.453807 29278 layer_factory.hpp:77] Creating layer mnist
I0428 19:59:36.453852 29278 db_lmdb.cpp:35] Opened lmdb examples/mnist/mnist_test_lmdb
I0428 19:59:36.453865 29278 net.cpp:86] Creating Layer mnist
I0428 19:59:36.453877 29278 net.cpp:382] mnist -> data
I0428 19:59:36.453886 29278 net.cpp:382] mnist -> label
I0428 19:59:36.453969 29278 data_layer.cpp:45] output data size: 100,1,28,28
I0428 19:59:36.455879 29278 net.cpp:124] Setting up mnist
I0428 19:59:36.455893 29278 net.cpp:131] Top shape: 100 1 28 28 (78400)
I0428 19:59:36.455899 29278 net.cpp:131] Top shape: 100 (100)
I0428 19:59:36.455902 29278 net.cpp:139] Memory required for data: 314000
I0428 19:59:36.455905 29278 layer_factory.hpp:77] Creating layer label_mnist_1_split
I0428 19:59:36.455916 29278 net.cpp:86] Creating Layer label_mnist_1_split
I0428 19:59:36.455919 29278 net.cpp:408] label_mnist_1_split <- label
I0428 19:59:36.455924 29278 net.cpp:382] label_mnist_1_split -> label_mnist_1_split_0
I0428 19:59:36.455931 29278 net.cpp:382] label_mnist_1_split -> label_mnist_1_split_1
I0428 19:59:36.455971 29278 net.cpp:124] Setting up label_mnist_1_split
I0428 19:59:36.455976 29278 net.cpp:131] Top shape: 100 (100)
I0428 19:59:36.455981 29278 net.cpp:131] Top shape: 100 (100)
I0428 19:59:36.455983 29278 net.cpp:139] Memory required for data: 314800
I0428 19:59:36.455986 29278 layer_factory.hpp:77] Creating layer conv0
I0428 19:59:36.455994 29278 net.cpp:86] Creating Layer conv0
I0428 19:59:36.455999 29278 net.cpp:408] conv0 <- data
I0428 19:59:36.456006 29278 net.cpp:382] conv0 -> conv0
I0428 19:59:36.457684 29278 net.cpp:124] Setting up conv0
I0428 19:59:36.457700 29278 net.cpp:131] Top shape: 100 10 24 24 (576000)
I0428 19:59:36.457703 29278 net.cpp:139] Memory required for data: 2618800
I0428 19:59:36.457712 29278 layer_factory.hpp:77] Creating layer pool0
I0428 19:59:36.457720 29278 net.cpp:86] Creating Layer pool0
I0428 19:59:36.457722 29278 net.cpp:408] pool0 <- conv0
I0428 19:59:36.457727 29278 net.cpp:382] pool0 -> pool0
I0428 19:59:36.457763 29278 net.cpp:124] Setting up pool0
I0428 19:59:36.457768 29278 net.cpp:131] Top shape: 100 10 12 12 (144000)
I0428 19:59:36.457772 29278 net.cpp:139] Memory required for data: 3194800
I0428 19:59:36.457774 29278 layer_factory.hpp:77] Creating layer conv1
I0428 19:59:36.457782 29278 net.cpp:86] Creating Layer conv1
I0428 19:59:36.457785 29278 net.cpp:408] conv1 <- pool0
I0428 19:59:36.457790 29278 net.cpp:382] conv1 -> conv1
I0428 19:59:36.459811 29278 net.cpp:124] Setting up conv1
I0428 19:59:36.459827 29278 net.cpp:131] Top shape: 100 10 8 8 (64000)
I0428 19:59:36.459831 29278 net.cpp:139] Memory required for data: 3450800
I0428 19:59:36.459841 29278 layer_factory.hpp:77] Creating layer pool1
I0428 19:59:36.459847 29278 net.cpp:86] Creating Layer pool1
I0428 19:59:36.459853 29278 net.cpp:408] pool1 <- conv1
I0428 19:59:36.459859 29278 net.cpp:382] pool1 -> pool1
I0428 19:59:36.459897 29278 net.cpp:124] Setting up pool1
I0428 19:59:36.459903 29278 net.cpp:131] Top shape: 100 10 4 4 (16000)
I0428 19:59:36.459906 29278 net.cpp:139] Memory required for data: 3514800
I0428 19:59:36.459910 29278 layer_factory.hpp:77] Creating layer ip1
I0428 19:59:36.459915 29278 net.cpp:86] Creating Layer ip1
I0428 19:59:36.459918 29278 net.cpp:408] ip1 <- pool1
I0428 19:59:36.459923 29278 net.cpp:382] ip1 -> ip1
I0428 19:59:36.460110 29278 net.cpp:124] Setting up ip1
I0428 19:59:36.460119 29278 net.cpp:131] Top shape: 100 50 (5000)
I0428 19:59:36.460132 29278 net.cpp:139] Memory required for data: 3534800
I0428 19:59:36.460141 29278 layer_factory.hpp:77] Creating layer relu1
I0428 19:59:36.460146 29278 net.cpp:86] Creating Layer relu1
I0428 19:59:36.460150 29278 net.cpp:408] relu1 <- ip1
I0428 19:59:36.460155 29278 net.cpp:369] relu1 -> ip1 (in-place)
I0428 19:59:36.460319 29278 net.cpp:124] Setting up relu1
I0428 19:59:36.460328 29278 net.cpp:131] Top shape: 100 50 (5000)
I0428 19:59:36.460331 29278 net.cpp:139] Memory required for data: 3554800
I0428 19:59:36.460335 29278 layer_factory.hpp:77] Creating layer ip2
I0428 19:59:36.460341 29278 net.cpp:86] Creating Layer ip2
I0428 19:59:36.460345 29278 net.cpp:408] ip2 <- ip1
I0428 19:59:36.460350 29278 net.cpp:382] ip2 -> ip2
I0428 19:59:36.460455 29278 net.cpp:124] Setting up ip2
I0428 19:59:36.460463 29278 net.cpp:131] Top shape: 100 25 (2500)
I0428 19:59:36.460465 29278 net.cpp:139] Memory required for data: 3564800
I0428 19:59:36.460471 29278 layer_factory.hpp:77] Creating layer relu2
I0428 19:59:36.460476 29278 net.cpp:86] Creating Layer relu2
I0428 19:59:36.460479 29278 net.cpp:408] relu2 <- ip2
I0428 19:59:36.460484 29278 net.cpp:369] relu2 -> ip2 (in-place)
I0428 19:59:36.460630 29278 net.cpp:124] Setting up relu2
I0428 19:59:36.460639 29278 net.cpp:131] Top shape: 100 25 (2500)
I0428 19:59:36.460642 29278 net.cpp:139] Memory required for data: 3574800
I0428 19:59:36.460645 29278 layer_factory.hpp:77] Creating layer ip3
I0428 19:59:36.460650 29278 net.cpp:86] Creating Layer ip3
I0428 19:59:36.460654 29278 net.cpp:408] ip3 <- ip2
I0428 19:59:36.460659 29278 net.cpp:382] ip3 -> ip3
I0428 19:59:36.460754 29278 net.cpp:124] Setting up ip3
I0428 19:59:36.460760 29278 net.cpp:131] Top shape: 100 10 (1000)
I0428 19:59:36.460764 29278 net.cpp:139] Memory required for data: 3578800
I0428 19:59:36.460772 29278 layer_factory.hpp:77] Creating layer relu3
I0428 19:59:36.460777 29278 net.cpp:86] Creating Layer relu3
I0428 19:59:36.460779 29278 net.cpp:408] relu3 <- ip3
I0428 19:59:36.460783 29278 net.cpp:369] relu3 -> ip3 (in-place)
I0428 19:59:36.461627 29278 net.cpp:124] Setting up relu3
I0428 19:59:36.461639 29278 net.cpp:131] Top shape: 100 10 (1000)
I0428 19:59:36.461642 29278 net.cpp:139] Memory required for data: 3582800
I0428 19:59:36.461647 29278 layer_factory.hpp:77] Creating layer ip3_relu3_0_split
I0428 19:59:36.461652 29278 net.cpp:86] Creating Layer ip3_relu3_0_split
I0428 19:59:36.461654 29278 net.cpp:408] ip3_relu3_0_split <- ip3
I0428 19:59:36.461659 29278 net.cpp:382] ip3_relu3_0_split -> ip3_relu3_0_split_0
I0428 19:59:36.461665 29278 net.cpp:382] ip3_relu3_0_split -> ip3_relu3_0_split_1
I0428 19:59:36.461706 29278 net.cpp:124] Setting up ip3_relu3_0_split
I0428 19:59:36.461712 29278 net.cpp:131] Top shape: 100 10 (1000)
I0428 19:59:36.461715 29278 net.cpp:131] Top shape: 100 10 (1000)
I0428 19:59:36.461719 29278 net.cpp:139] Memory required for data: 3590800
I0428 19:59:36.461721 29278 layer_factory.hpp:77] Creating layer accuracy
I0428 19:59:36.461726 29278 net.cpp:86] Creating Layer accuracy
I0428 19:59:36.461730 29278 net.cpp:408] accuracy <- ip3_relu3_0_split_0
I0428 19:59:36.461733 29278 net.cpp:408] accuracy <- label_mnist_1_split_0
I0428 19:59:36.461737 29278 net.cpp:382] accuracy -> accuracy
…
