…
I0428 20:21:23.890009  1749 net.cpp:296] The NetState phase (0) differed from the phase (1) specified by a rule in layer mnist
I0428 20:21:23.890025  1749 net.cpp:296] The NetState phase (0) differed from the phase (1) specified by a rule in layer accuracy
I0428 20:21:23.890142  1749 net.cpp:53] Initializing net from parameters: 
name: "LeNet"
state {
  phase: TRAIN
  level: 0
  stage: ""
}
layer {
  name: "mnist"
  type: "Data"
  top: "data"
  top: "label"
  include {
    phase: TRAIN
  }
  transform_param {
    scale: 0.00390625
  }
  data_param {
    source: "examples/mnist/mnist_train_lmdb"
    batch_size: 64
    backend: LMDB
  }
}
layer {
  name: "conv0"
  type: "Convolution"
  bottom: "data"
  top: "conv0"
  param {
    lr_mult: 1
  }
  param {
    lr_mult: 2
  }
  convolution_param {
    num_output: 50
    kernel_size: 5
    stride: 1
    weight_filler {
      type: "xavier"
    }
    bias_filler {
      type: "constant"
    }
  }
}
layer {
  name: "pool0"
  type: "Pooling"
  bottom: "conv0"
  top: "pool0"
  pooling_param {
    pool: MAX
    kernel_size: 2
    stride: 2
  }
}
layer {
  name: "conv1"
  type: "Convolution"
  bottom: "pool0"
  top: "conv1"
  param {
    lr_mult: 1
  }
  param {
    lr_mult: 2
  }
  convolution_param {
    num_output: 50
    kernel_size: 5
    stride: 1
    weight_filler {
      type: "xavier"
    }
    bias_filler {
      type: "constant"
    }
  }
}
layer {
  name: "pool1"
  type: "Pooling"
  bottom: "conv1"
  top: "pool1"
  pooling_param {
    pool: MAX
    kernel_size: 2
    stride: 2
  }
}
layer {
  name: "ip1"
  type: "InnerProduct"
  bottom: "pool1"
  top: "ip1"
  param {
    lr_mult: 1
  }
  param {
    lr_mult: 2
  }
  inner_product_param {
    num_output: 10
    weight_filler {
      type: "xavier"
    }
    bias_filler {
      type: "constant"
    }
  }
}
layer {
  name: "relu1"
  type: "ReLU"
  bottom: "ip1"
  top: "ip1"
}
layer {
  name: "ip2"
  type: "InnerProduct"
  bottom: "ip1"
  top: "ip2"
  param {
    lr_mult: 1
  }
  param {
    lr_mult: 2
  }
  inner_product_param {
    num_output: 50
    weight_filler {
      type: "xavier"
    }
    bias_filler {
      type: "constant"
    }
  }
}
layer {
  name: "relu2"
  type: "ReLU"
  bottom: "ip2"
  top: "ip2"
}
layer {
  name: "ip3"
  type: "InnerProduct"
  bottom: "ip2"
  top: "ip3"
  param {
    lr_mult: 1
  }
  param {
    lr_mult: 2
  }
  inner_product_param {
    num_output: 10
    weight_filler {
      type: "xavier"
    }
    bias_filler {
      type: "constant"
    }
  }
}
layer {
  name: "relu3"
  type: "ReLU"
  bottom: "ip3"
  top: "ip3"
}
layer {
  name: "loss"
  type: "SoftmaxWithLoss"
  bottom: "ip3"
  bottom: "label"
  top: "loss"
}
I0428 20:21:23.890211  1749 layer_factory.hpp:77] Creating layer mnist
I0428 20:21:23.890311  1749 db_lmdb.cpp:35] Opened lmdb examples/mnist/mnist_train_lmdb
I0428 20:21:23.890331  1749 net.cpp:86] Creating Layer mnist
I0428 20:21:23.890338  1749 net.cpp:382] mnist -> data
I0428 20:21:23.890355  1749 net.cpp:382] mnist -> label
I0428 20:21:23.891276  1749 data_layer.cpp:45] output data size: 64,1,28,28
I0428 20:21:23.893550  1749 net.cpp:124] Setting up mnist
I0428 20:21:23.893581  1749 net.cpp:131] Top shape: 64 1 28 28 (50176)
I0428 20:21:23.893586  1749 net.cpp:131] Top shape: 64 (64)
I0428 20:21:23.893589  1749 net.cpp:139] Memory required for data: 200960
I0428 20:21:23.893595  1749 layer_factory.hpp:77] Creating layer conv0
I0428 20:21:23.893610  1749 net.cpp:86] Creating Layer conv0
I0428 20:21:23.893635  1749 net.cpp:408] conv0 <- data
I0428 20:21:23.893646  1749 net.cpp:382] conv0 -> conv0
I0428 20:21:24.130224  1749 net.cpp:124] Setting up conv0
I0428 20:21:24.130250  1749 net.cpp:131] Top shape: 64 50 24 24 (1843200)
I0428 20:21:24.130254  1749 net.cpp:139] Memory required for data: 7573760
I0428 20:21:24.130269  1749 layer_factory.hpp:77] Creating layer pool0
I0428 20:21:24.130281  1749 net.cpp:86] Creating Layer pool0
I0428 20:21:24.130301  1749 net.cpp:408] pool0 <- conv0
I0428 20:21:24.130306  1749 net.cpp:382] pool0 -> pool0
I0428 20:21:24.130368  1749 net.cpp:124] Setting up pool0
I0428 20:21:24.130376  1749 net.cpp:131] Top shape: 64 50 12 12 (460800)
I0428 20:21:24.130379  1749 net.cpp:139] Memory required for data: 9416960
I0428 20:21:24.130383  1749 layer_factory.hpp:77] Creating layer conv1
I0428 20:21:24.130393  1749 net.cpp:86] Creating Layer conv1
I0428 20:21:24.130398  1749 net.cpp:408] conv1 <- pool0
I0428 20:21:24.130403  1749 net.cpp:382] conv1 -> conv1
I0428 20:21:24.132648  1749 net.cpp:124] Setting up conv1
I0428 20:21:24.132663  1749 net.cpp:131] Top shape: 64 50 8 8 (204800)
I0428 20:21:24.132666  1749 net.cpp:139] Memory required for data: 10236160
I0428 20:21:24.132674  1749 layer_factory.hpp:77] Creating layer pool1
I0428 20:21:24.132681  1749 net.cpp:86] Creating Layer pool1
I0428 20:21:24.132684  1749 net.cpp:408] pool1 <- conv1
I0428 20:21:24.132705  1749 net.cpp:382] pool1 -> pool1
I0428 20:21:24.132740  1749 net.cpp:124] Setting up pool1
I0428 20:21:24.132746  1749 net.cpp:131] Top shape: 64 50 4 4 (51200)
I0428 20:21:24.132750  1749 net.cpp:139] Memory required for data: 10440960
I0428 20:21:24.132751  1749 layer_factory.hpp:77] Creating layer ip1
I0428 20:21:24.132758  1749 net.cpp:86] Creating Layer ip1
I0428 20:21:24.132761  1749 net.cpp:408] ip1 <- pool1
I0428 20:21:24.132766  1749 net.cpp:382] ip1 -> ip1
I0428 20:21:24.133751  1749 net.cpp:124] Setting up ip1
I0428 20:21:24.133764  1749 net.cpp:131] Top shape: 64 10 (640)
I0428 20:21:24.133767  1749 net.cpp:139] Memory required for data: 10443520
I0428 20:21:24.133775  1749 layer_factory.hpp:77] Creating layer relu1
I0428 20:21:24.133780  1749 net.cpp:86] Creating Layer relu1
I0428 20:21:24.133785  1749 net.cpp:408] relu1 <- ip1
I0428 20:21:24.133788  1749 net.cpp:369] relu1 -> ip1 (in-place)
I0428 20:21:24.133961  1749 net.cpp:124] Setting up relu1
I0428 20:21:24.133970  1749 net.cpp:131] Top shape: 64 10 (640)
I0428 20:21:24.133975  1749 net.cpp:139] Memory required for data: 10446080
I0428 20:21:24.133977  1749 layer_factory.hpp:77] Creating layer ip2
I0428 20:21:24.133983  1749 net.cpp:86] Creating Layer ip2
I0428 20:21:24.133986  1749 net.cpp:408] ip2 <- ip1
I0428 20:21:24.133991  1749 net.cpp:382] ip2 -> ip2
I0428 20:21:24.134081  1749 net.cpp:124] Setting up ip2
I0428 20:21:24.134088  1749 net.cpp:131] Top shape: 64 50 (3200)
I0428 20:21:24.134091  1749 net.cpp:139] Memory required for data: 10458880
I0428 20:21:24.134096  1749 layer_factory.hpp:77] Creating layer relu2
I0428 20:21:24.134101  1749 net.cpp:86] Creating Layer relu2
I0428 20:21:24.134104  1749 net.cpp:408] relu2 <- ip2
I0428 20:21:24.134109  1749 net.cpp:369] relu2 -> ip2 (in-place)
I0428 20:21:24.134856  1749 net.cpp:124] Setting up relu2
I0428 20:21:24.134869  1749 net.cpp:131] Top shape: 64 50 (3200)
I0428 20:21:24.134872  1749 net.cpp:139] Memory required for data: 10471680
I0428 20:21:24.134892  1749 layer_factory.hpp:77] Creating layer ip3
I0428 20:21:24.134899  1749 net.cpp:86] Creating Layer ip3
I0428 20:21:24.134902  1749 net.cpp:408] ip3 <- ip2
I0428 20:21:24.134908  1749 net.cpp:382] ip3 -> ip3
I0428 20:21:24.135025  1749 net.cpp:124] Setting up ip3
I0428 20:21:24.135033  1749 net.cpp:131] Top shape: 64 10 (640)
I0428 20:21:24.135036  1749 net.cpp:139] Memory required for data: 10474240
I0428 20:21:24.135045  1749 layer_factory.hpp:77] Creating layer relu3
I0428 20:21:24.135049  1749 net.cpp:86] Creating Layer relu3
I0428 20:21:24.135052  1749 net.cpp:408] relu3 <- ip3
I0428 20:21:24.135056  1749 net.cpp:369] relu3 -> ip3 (in-place)
I0428 20:21:24.135223  1749 net.cpp:124] Setting up relu3
I0428 20:21:24.135232  1749 net.cpp:131] Top shape: 64 10 (640)
I0428 20:21:24.135236  1749 net.cpp:139] Memory required for data: 10476800
I0428 20:21:24.135239  1749 layer_factory.hpp:77] Creating layer loss
I0428 20:21:24.135246  1749 net.cpp:86] Creating Layer loss
I0428 20:21:24.135248  1749 net.cpp:408] loss <- ip3
I0428 20:21:24.135252  1749 net.cpp:408] loss <- label
I0428 20:21:24.135257  1749 net.cpp:382] loss -> loss
I0428 20:21:24.135272  1749 layer_factory.hpp:77] Creating layer loss
…
I0428 20:21:24.135907  1749 solver.cpp:173] Creating test net (#0) specified by net file: ECE595/mnist/train_test/var_everything2/lenet_train_test1383.prototxt
I0428 20:21:24.135933  1749 net.cpp:296] The NetState phase (1) differed from the phase (0) specified by a rule in layer mnist
I0428 20:21:24.136036  1749 net.cpp:53] Initializing net from parameters: 
name: "LeNet"
state {
  phase: TEST
}
layer {
  name: "mnist"
  type: "Data"
  top: "data"
  top: "label"
  include {
    phase: TEST
  }
  transform_param {
    scale: 0.00390625
  }
  data_param {
    source: "examples/mnist/mnist_test_lmdb"
    batch_size: 100
    backend: LMDB
  }
}
layer {
  name: "conv0"
  type: "Convolution"
  bottom: "data"
  top: "conv0"
  param {
    lr_mult: 1
  }
  param {
    lr_mult: 2
  }
  convolution_param {
    num_output: 50
    kernel_size: 5
    stride: 1
    weight_filler {
      type: "xavier"
    }
    bias_filler {
      type: "constant"
    }
  }
}
layer {
  name: "pool0"
  type: "Pooling"
  bottom: "conv0"
  top: "pool0"
  pooling_param {
    pool: MAX
    kernel_size: 2
    stride: 2
  }
}
layer {
  name: "conv1"
  type: "Convolution"
  bottom: "pool0"
  top: "conv1"
  param {
    lr_mult: 1
  }
  param {
    lr_mult: 2
  }
  convolution_param {
    num_output: 50
    kernel_size: 5
    stride: 1
    weight_filler {
      type: "xavier"
    }
    bias_filler {
      type: "constant"
    }
  }
}
layer {
  name: "pool1"
  type: "Pooling"
  bottom: "conv1"
  top: "pool1"
  pooling_param {
    pool: MAX
    kernel_size: 2
    stride: 2
  }
}
layer {
  name: "ip1"
  type: "InnerProduct"
  bottom: "pool1"
  top: "ip1"
  param {
    lr_mult: 1
  }
  param {
    lr_mult: 2
  }
  inner_product_param {
    num_output: 10
    weight_filler {
      type: "xavier"
    }
    bias_filler {
      type: "constant"
    }
  }
}
layer {
  name: "relu1"
  type: "ReLU"
  bottom: "ip1"
  top: "ip1"
}
layer {
  name: "ip2"
  type: "InnerProduct"
  bottom: "ip1"
  top: "ip2"
  param {
    lr_mult: 1
  }
  param {
    lr_mult: 2
  }
  inner_product_param {
    num_output: 50
    weight_filler {
      type: "xavier"
    }
    bias_filler {
      type: "constant"
    }
  }
}
layer {
  name: "relu2"
  type: "ReLU"
  bottom: "ip2"
  top: "ip2"
}
layer {
  name: "ip3"
  type: "InnerProduct"
  bottom: "ip2"
  top: "ip3"
  param {
    lr_mult: 1
  }
  param {
    lr_mult: 2
  }
  inner_product_param {
    num_output: 10
    weight_filler {
      type: "xavier"
    }
    bias_filler {
      type: "constant"
    }
  }
}
layer {
  name: "relu3"
  type: "ReLU"
  bottom: "ip3"
  top: "ip3"
}
layer {
  name: "accuracy"
  type: "Accuracy"
  bottom: "ip3"
  bottom: "label"
  top: "accuracy"
  include {
    phase: TEST
  }
}
layer {
  name: "loss"
  type: "SoftmaxWithLoss"
  bottom: "ip3"
  bottom: "label"
  top: "loss"
}
I0428 20:21:24.136111  1749 layer_factory.hpp:77] Creating layer mnist
I0428 20:21:24.136154  1749 db_lmdb.cpp:35] Opened lmdb examples/mnist/mnist_test_lmdb
I0428 20:21:24.136167  1749 net.cpp:86] Creating Layer mnist
I0428 20:21:24.136171  1749 net.cpp:382] mnist -> data
I0428 20:21:24.136178  1749 net.cpp:382] mnist -> label
I0428 20:21:24.136270  1749 data_layer.cpp:45] output data size: 100,1,28,28
I0428 20:21:24.138339  1749 net.cpp:124] Setting up mnist
I0428 20:21:24.138352  1749 net.cpp:131] Top shape: 100 1 28 28 (78400)
I0428 20:21:24.138357  1749 net.cpp:131] Top shape: 100 (100)
I0428 20:21:24.138371  1749 net.cpp:139] Memory required for data: 314000
I0428 20:21:24.138375  1749 layer_factory.hpp:77] Creating layer label_mnist_1_split
I0428 20:21:24.138381  1749 net.cpp:86] Creating Layer label_mnist_1_split
I0428 20:21:24.138384  1749 net.cpp:408] label_mnist_1_split <- label
I0428 20:21:24.138389  1749 net.cpp:382] label_mnist_1_split -> label_mnist_1_split_0
I0428 20:21:24.138396  1749 net.cpp:382] label_mnist_1_split -> label_mnist_1_split_1
I0428 20:21:24.138443  1749 net.cpp:124] Setting up label_mnist_1_split
I0428 20:21:24.138449  1749 net.cpp:131] Top shape: 100 (100)
I0428 20:21:24.138453  1749 net.cpp:131] Top shape: 100 (100)
I0428 20:21:24.138455  1749 net.cpp:139] Memory required for data: 314800
I0428 20:21:24.138458  1749 layer_factory.hpp:77] Creating layer conv0
I0428 20:21:24.138466  1749 net.cpp:86] Creating Layer conv0
I0428 20:21:24.138469  1749 net.cpp:408] conv0 <- data
I0428 20:21:24.138473  1749 net.cpp:382] conv0 -> conv0
I0428 20:21:24.140239  1749 net.cpp:124] Setting up conv0
I0428 20:21:24.140254  1749 net.cpp:131] Top shape: 100 50 24 24 (2880000)
I0428 20:21:24.140256  1749 net.cpp:139] Memory required for data: 11834800
I0428 20:21:24.140265  1749 layer_factory.hpp:77] Creating layer pool0
I0428 20:21:24.140271  1749 net.cpp:86] Creating Layer pool0
I0428 20:21:24.140290  1749 net.cpp:408] pool0 <- conv0
I0428 20:21:24.140295  1749 net.cpp:382] pool0 -> pool0
I0428 20:21:24.140331  1749 net.cpp:124] Setting up pool0
I0428 20:21:24.140336  1749 net.cpp:131] Top shape: 100 50 12 12 (720000)
I0428 20:21:24.140339  1749 net.cpp:139] Memory required for data: 14714800
I0428 20:21:24.140342  1749 layer_factory.hpp:77] Creating layer conv1
I0428 20:21:24.140350  1749 net.cpp:86] Creating Layer conv1
I0428 20:21:24.140353  1749 net.cpp:408] conv1 <- pool0
I0428 20:21:24.140358  1749 net.cpp:382] conv1 -> conv1
I0428 20:21:24.142313  1749 net.cpp:124] Setting up conv1
I0428 20:21:24.142343  1749 net.cpp:131] Top shape: 100 50 8 8 (320000)
I0428 20:21:24.142346  1749 net.cpp:139] Memory required for data: 15994800
I0428 20:21:24.142354  1749 layer_factory.hpp:77] Creating layer pool1
I0428 20:21:24.142360  1749 net.cpp:86] Creating Layer pool1
I0428 20:21:24.142379  1749 net.cpp:408] pool1 <- conv1
I0428 20:21:24.142385  1749 net.cpp:382] pool1 -> pool1
I0428 20:21:24.142434  1749 net.cpp:124] Setting up pool1
I0428 20:21:24.142439  1749 net.cpp:131] Top shape: 100 50 4 4 (80000)
I0428 20:21:24.142442  1749 net.cpp:139] Memory required for data: 16314800
I0428 20:21:24.142446  1749 layer_factory.hpp:77] Creating layer ip1
I0428 20:21:24.142458  1749 net.cpp:86] Creating Layer ip1
I0428 20:21:24.142462  1749 net.cpp:408] ip1 <- pool1
I0428 20:21:24.142467  1749 net.cpp:382] ip1 -> ip1
I0428 20:21:24.142613  1749 net.cpp:124] Setting up ip1
I0428 20:21:24.142621  1749 net.cpp:131] Top shape: 100 10 (1000)
I0428 20:21:24.142634  1749 net.cpp:139] Memory required for data: 16318800
I0428 20:21:24.142642  1749 layer_factory.hpp:77] Creating layer relu1
I0428 20:21:24.142653  1749 net.cpp:86] Creating Layer relu1
I0428 20:21:24.142657  1749 net.cpp:408] relu1 <- ip1
I0428 20:21:24.142660  1749 net.cpp:369] relu1 -> ip1 (in-place)
I0428 20:21:24.142827  1749 net.cpp:124] Setting up relu1
I0428 20:21:24.142835  1749 net.cpp:131] Top shape: 100 10 (1000)
I0428 20:21:24.142838  1749 net.cpp:139] Memory required for data: 16322800
I0428 20:21:24.142841  1749 layer_factory.hpp:77] Creating layer ip2
I0428 20:21:24.142848  1749 net.cpp:86] Creating Layer ip2
I0428 20:21:24.142851  1749 net.cpp:408] ip2 <- ip1
I0428 20:21:24.142856  1749 net.cpp:382] ip2 -> ip2
I0428 20:21:24.142952  1749 net.cpp:124] Setting up ip2
I0428 20:21:24.142959  1749 net.cpp:131] Top shape: 100 50 (5000)
I0428 20:21:24.142963  1749 net.cpp:139] Memory required for data: 16342800
I0428 20:21:24.142968  1749 layer_factory.hpp:77] Creating layer relu2
I0428 20:21:24.142972  1749 net.cpp:86] Creating Layer relu2
I0428 20:21:24.142976  1749 net.cpp:408] relu2 <- ip2
I0428 20:21:24.142979  1749 net.cpp:369] relu2 -> ip2 (in-place)
I0428 20:21:24.143129  1749 net.cpp:124] Setting up relu2
I0428 20:21:24.143138  1749 net.cpp:131] Top shape: 100 50 (5000)
I0428 20:21:24.143141  1749 net.cpp:139] Memory required for data: 16362800
I0428 20:21:24.143144  1749 layer_factory.hpp:77] Creating layer ip3
I0428 20:21:24.143149  1749 net.cpp:86] Creating Layer ip3
I0428 20:21:24.143152  1749 net.cpp:408] ip3 <- ip2
I0428 20:21:24.143157  1749 net.cpp:382] ip3 -> ip3
I0428 20:21:24.143287  1749 net.cpp:124] Setting up ip3
I0428 20:21:24.143296  1749 net.cpp:131] Top shape: 100 10 (1000)
I0428 20:21:24.143298  1749 net.cpp:139] Memory required for data: 16366800
I0428 20:21:24.143306  1749 layer_factory.hpp:77] Creating layer relu3
I0428 20:21:24.143311  1749 net.cpp:86] Creating Layer relu3
I0428 20:21:24.143313  1749 net.cpp:408] relu3 <- ip3
I0428 20:21:24.143317  1749 net.cpp:369] relu3 -> ip3 (in-place)
I0428 20:21:24.144244  1749 net.cpp:124] Setting up relu3
I0428 20:21:24.144256  1749 net.cpp:131] Top shape: 100 10 (1000)
I0428 20:21:24.144259  1749 net.cpp:139] Memory required for data: 16370800
I0428 20:21:24.144269  1749 layer_factory.hpp:77] Creating layer ip3_relu3_0_split
I0428 20:21:24.144274  1749 net.cpp:86] Creating Layer ip3_relu3_0_split
I0428 20:21:24.144279  1749 net.cpp:408] ip3_relu3_0_split <- ip3
I0428 20:21:24.144284  1749 net.cpp:382] ip3_relu3_0_split -> ip3_relu3_0_split_0
I0428 20:21:24.144289  1749 net.cpp:382] ip3_relu3_0_split -> ip3_relu3_0_split_1
I0428 20:21:24.144326  1749 net.cpp:124] Setting up ip3_relu3_0_split
I0428 20:21:24.144331  1749 net.cpp:131] Top shape: 100 10 (1000)
I0428 20:21:24.144335  1749 net.cpp:131] Top shape: 100 10 (1000)
I0428 20:21:24.144337  1749 net.cpp:139] Memory required for data: 16378800
I0428 20:21:24.144340  1749 layer_factory.hpp:77] Creating layer accuracy
I0428 20:21:24.144351  1749 net.cpp:86] Creating Layer accuracy
I0428 20:21:24.144353  1749 net.cpp:408] accuracy <- ip3_relu3_0_split_0
I0428 20:21:24.144363  1749 net.cpp:408] accuracy <- label_mnist_1_split_0
I0428 20:21:24.144367  1749 net.cpp:382] accuracy -> accuracy
…
