…
I0428 19:54:52.671962 28071 net.cpp:296] The NetState phase (0) differed from the phase (1) specified by a rule in layer mnist
I0428 19:54:52.671982 28071 net.cpp:296] The NetState phase (0) differed from the phase (1) specified by a rule in layer accuracy
I0428 19:54:52.672083 28071 net.cpp:53] Initializing net from parameters: 
name: "LeNet"
state {
  phase: TRAIN
  level: 0
  stage: ""
}
layer {
  name: "mnist"
  type: "Data"
  top: "data"
  top: "label"
  include {
    phase: TRAIN
  }
  transform_param {
    scale: 0.00390625
  }
  data_param {
    source: "examples/mnist/mnist_train_lmdb"
    batch_size: 64
    backend: LMDB
  }
}
layer {
  name: "conv0"
  type: "Convolution"
  bottom: "data"
  top: "conv0"
  param {
    lr_mult: 1
  }
  param {
    lr_mult: 2
  }
  convolution_param {
    num_output: 5
    kernel_size: 5
    stride: 1
    weight_filler {
      type: "xavier"
    }
    bias_filler {
      type: "constant"
    }
  }
}
layer {
  name: "pool0"
  type: "Pooling"
  bottom: "conv0"
  top: "pool0"
  pooling_param {
    pool: MAX
    kernel_size: 2
    stride: 2
  }
}
layer {
  name: "conv1"
  type: "Convolution"
  bottom: "pool0"
  top: "conv1"
  param {
    lr_mult: 1
  }
  param {
    lr_mult: 2
  }
  convolution_param {
    num_output: 100
    kernel_size: 5
    stride: 1
    weight_filler {
      type: "xavier"
    }
    bias_filler {
      type: "constant"
    }
  }
}
layer {
  name: "pool1"
  type: "Pooling"
  bottom: "conv1"
  top: "pool1"
  pooling_param {
    pool: MAX
    kernel_size: 2
    stride: 2
  }
}
layer {
  name: "ip1"
  type: "InnerProduct"
  bottom: "pool1"
  top: "ip1"
  param {
    lr_mult: 1
  }
  param {
    lr_mult: 2
  }
  inner_product_param {
    num_output: 10
    weight_filler {
      type: "xavier"
    }
    bias_filler {
      type: "constant"
    }
  }
}
layer {
  name: "relu1"
  type: "ReLU"
  bottom: "ip1"
  top: "ip1"
}
layer {
  name: "ip2"
  type: "InnerProduct"
  bottom: "ip1"
  top: "ip2"
  param {
    lr_mult: 1
  }
  param {
    lr_mult: 2
  }
  inner_product_param {
    num_output: 50
    weight_filler {
      type: "xavier"
    }
    bias_filler {
      type: "constant"
    }
  }
}
layer {
  name: "relu2"
  type: "ReLU"
  bottom: "ip2"
  top: "ip2"
}
layer {
  name: "ip3"
  type: "InnerProduct"
  bottom: "ip2"
  top: "ip3"
  param {
    lr_mult: 1
  }
  param {
    lr_mult: 2
  }
  inner_product_param {
    num_output: 10
    weight_filler {
      type: "xavier"
    }
    bias_filler {
      type: "constant"
    }
  }
}
layer {
  name: "relu3"
  type: "ReLU"
  bottom: "ip3"
  top: "ip3"
}
layer {
  name: "loss"
  type: "SoftmaxWithLoss"
  bottom: "ip3"
  bottom: "label"
  top: "loss"
}
I0428 19:54:52.672163 28071 layer_factory.hpp:77] Creating layer mnist
I0428 19:54:52.672262 28071 db_lmdb.cpp:35] Opened lmdb examples/mnist/mnist_train_lmdb
I0428 19:54:52.672286 28071 net.cpp:86] Creating Layer mnist
I0428 19:54:52.672293 28071 net.cpp:382] mnist -> data
I0428 19:54:52.672315 28071 net.cpp:382] mnist -> label
I0428 19:54:52.673414 28071 data_layer.cpp:45] output data size: 64,1,28,28
I0428 19:54:52.675858 28071 net.cpp:124] Setting up mnist
I0428 19:54:52.675874 28071 net.cpp:131] Top shape: 64 1 28 28 (50176)
I0428 19:54:52.675880 28071 net.cpp:131] Top shape: 64 (64)
I0428 19:54:52.675884 28071 net.cpp:139] Memory required for data: 200960
I0428 19:54:52.675890 28071 layer_factory.hpp:77] Creating layer conv0
I0428 19:54:52.675921 28071 net.cpp:86] Creating Layer conv0
I0428 19:54:52.675942 28071 net.cpp:408] conv0 <- data
I0428 19:54:52.675954 28071 net.cpp:382] conv0 -> conv0
I0428 19:54:52.930678 28071 net.cpp:124] Setting up conv0
I0428 19:54:52.930718 28071 net.cpp:131] Top shape: 64 5 24 24 (184320)
I0428 19:54:52.930722 28071 net.cpp:139] Memory required for data: 938240
I0428 19:54:52.930737 28071 layer_factory.hpp:77] Creating layer pool0
I0428 19:54:52.930750 28071 net.cpp:86] Creating Layer pool0
I0428 19:54:52.930768 28071 net.cpp:408] pool0 <- conv0
I0428 19:54:52.930773 28071 net.cpp:382] pool0 -> pool0
I0428 19:54:52.930833 28071 net.cpp:124] Setting up pool0
I0428 19:54:52.930848 28071 net.cpp:131] Top shape: 64 5 12 12 (46080)
I0428 19:54:52.930851 28071 net.cpp:139] Memory required for data: 1122560
I0428 19:54:52.930855 28071 layer_factory.hpp:77] Creating layer conv1
I0428 19:54:52.930866 28071 net.cpp:86] Creating Layer conv1
I0428 19:54:52.930868 28071 net.cpp:408] conv1 <- pool0
I0428 19:54:52.930873 28071 net.cpp:382] conv1 -> conv1
I0428 19:54:52.933794 28071 net.cpp:124] Setting up conv1
I0428 19:54:52.933823 28071 net.cpp:131] Top shape: 64 100 8 8 (409600)
I0428 19:54:52.933827 28071 net.cpp:139] Memory required for data: 2760960
I0428 19:54:52.933835 28071 layer_factory.hpp:77] Creating layer pool1
I0428 19:54:52.933843 28071 net.cpp:86] Creating Layer pool1
I0428 19:54:52.933847 28071 net.cpp:408] pool1 <- conv1
I0428 19:54:52.933852 28071 net.cpp:382] pool1 -> pool1
I0428 19:54:52.933905 28071 net.cpp:124] Setting up pool1
I0428 19:54:52.933912 28071 net.cpp:131] Top shape: 64 100 4 4 (102400)
I0428 19:54:52.933913 28071 net.cpp:139] Memory required for data: 3170560
I0428 19:54:52.933917 28071 layer_factory.hpp:77] Creating layer ip1
I0428 19:54:52.933924 28071 net.cpp:86] Creating Layer ip1
I0428 19:54:52.933928 28071 net.cpp:408] ip1 <- pool1
I0428 19:54:52.933933 28071 net.cpp:382] ip1 -> ip1
I0428 19:54:52.934128 28071 net.cpp:124] Setting up ip1
I0428 19:54:52.934137 28071 net.cpp:131] Top shape: 64 10 (640)
I0428 19:54:52.934140 28071 net.cpp:139] Memory required for data: 3173120
I0428 19:54:52.934146 28071 layer_factory.hpp:77] Creating layer relu1
I0428 19:54:52.934152 28071 net.cpp:86] Creating Layer relu1
I0428 19:54:52.934155 28071 net.cpp:408] relu1 <- ip1
I0428 19:54:52.934159 28071 net.cpp:369] relu1 -> ip1 (in-place)
I0428 19:54:52.934312 28071 net.cpp:124] Setting up relu1
I0428 19:54:52.934321 28071 net.cpp:131] Top shape: 64 10 (640)
I0428 19:54:52.934324 28071 net.cpp:139] Memory required for data: 3175680
I0428 19:54:52.934327 28071 layer_factory.hpp:77] Creating layer ip2
I0428 19:54:52.934334 28071 net.cpp:86] Creating Layer ip2
I0428 19:54:52.934337 28071 net.cpp:408] ip2 <- ip1
I0428 19:54:52.934341 28071 net.cpp:382] ip2 -> ip2
I0428 19:54:52.934433 28071 net.cpp:124] Setting up ip2
I0428 19:54:52.934442 28071 net.cpp:131] Top shape: 64 50 (3200)
I0428 19:54:52.934444 28071 net.cpp:139] Memory required for data: 3188480
I0428 19:54:52.934449 28071 layer_factory.hpp:77] Creating layer relu2
I0428 19:54:52.934455 28071 net.cpp:86] Creating Layer relu2
I0428 19:54:52.934458 28071 net.cpp:408] relu2 <- ip2
I0428 19:54:52.934463 28071 net.cpp:369] relu2 -> ip2 (in-place)
I0428 19:54:52.935323 28071 net.cpp:124] Setting up relu2
I0428 19:54:52.935334 28071 net.cpp:131] Top shape: 64 50 (3200)
I0428 19:54:52.935353 28071 net.cpp:139] Memory required for data: 3201280
I0428 19:54:52.935356 28071 layer_factory.hpp:77] Creating layer ip3
I0428 19:54:52.935364 28071 net.cpp:86] Creating Layer ip3
I0428 19:54:52.935369 28071 net.cpp:408] ip3 <- ip2
I0428 19:54:52.935374 28071 net.cpp:382] ip3 -> ip3
I0428 19:54:52.935472 28071 net.cpp:124] Setting up ip3
I0428 19:54:52.935479 28071 net.cpp:131] Top shape: 64 10 (640)
I0428 19:54:52.935482 28071 net.cpp:139] Memory required for data: 3203840
I0428 19:54:52.935490 28071 layer_factory.hpp:77] Creating layer relu3
I0428 19:54:52.935495 28071 net.cpp:86] Creating Layer relu3
I0428 19:54:52.935498 28071 net.cpp:408] relu3 <- ip3
I0428 19:54:52.935503 28071 net.cpp:369] relu3 -> ip3 (in-place)
I0428 19:54:52.935689 28071 net.cpp:124] Setting up relu3
I0428 19:54:52.935698 28071 net.cpp:131] Top shape: 64 10 (640)
I0428 19:54:52.935700 28071 net.cpp:139] Memory required for data: 3206400
I0428 19:54:52.935703 28071 layer_factory.hpp:77] Creating layer loss
I0428 19:54:52.935709 28071 net.cpp:86] Creating Layer loss
I0428 19:54:52.935712 28071 net.cpp:408] loss <- ip3
I0428 19:54:52.935716 28071 net.cpp:408] loss <- label
I0428 19:54:52.935721 28071 net.cpp:382] loss -> loss
I0428 19:54:52.935739 28071 layer_factory.hpp:77] Creating layer loss
…
I0428 19:54:52.936467 28071 solver.cpp:173] Creating test net (#0) specified by net file: ECE595/mnist/train_test/var_everything2/lenet_train_test720.prototxt
I0428 19:54:52.936511 28071 net.cpp:296] The NetState phase (1) differed from the phase (0) specified by a rule in layer mnist
I0428 19:54:52.936630 28071 net.cpp:53] Initializing net from parameters: 
name: "LeNet"
state {
  phase: TEST
}
layer {
  name: "mnist"
  type: "Data"
  top: "data"
  top: "label"
  include {
    phase: TEST
  }
  transform_param {
    scale: 0.00390625
  }
  data_param {
    source: "examples/mnist/mnist_test_lmdb"
    batch_size: 100
    backend: LMDB
  }
}
layer {
  name: "conv0"
  type: "Convolution"
  bottom: "data"
  top: "conv0"
  param {
    lr_mult: 1
  }
  param {
    lr_mult: 2
  }
  convolution_param {
    num_output: 5
    kernel_size: 5
    stride: 1
    weight_filler {
      type: "xavier"
    }
    bias_filler {
      type: "constant"
    }
  }
}
layer {
  name: "pool0"
  type: "Pooling"
  bottom: "conv0"
  top: "pool0"
  pooling_param {
    pool: MAX
    kernel_size: 2
    stride: 2
  }
}
layer {
  name: "conv1"
  type: "Convolution"
  bottom: "pool0"
  top: "conv1"
  param {
    lr_mult: 1
  }
  param {
    lr_mult: 2
  }
  convolution_param {
    num_output: 100
    kernel_size: 5
    stride: 1
    weight_filler {
      type: "xavier"
    }
    bias_filler {
      type: "constant"
    }
  }
}
layer {
  name: "pool1"
  type: "Pooling"
  bottom: "conv1"
  top: "pool1"
  pooling_param {
    pool: MAX
    kernel_size: 2
    stride: 2
  }
}
layer {
  name: "ip1"
  type: "InnerProduct"
  bottom: "pool1"
  top: "ip1"
  param {
    lr_mult: 1
  }
  param {
    lr_mult: 2
  }
  inner_product_param {
    num_output: 10
    weight_filler {
      type: "xavier"
    }
    bias_filler {
      type: "constant"
    }
  }
}
layer {
  name: "relu1"
  type: "ReLU"
  bottom: "ip1"
  top: "ip1"
}
layer {
  name: "ip2"
  type: "InnerProduct"
  bottom: "ip1"
  top: "ip2"
  param {
    lr_mult: 1
  }
  param {
    lr_mult: 2
  }
  inner_product_param {
    num_output: 50
    weight_filler {
      type: "xavier"
    }
    bias_filler {
      type: "constant"
    }
  }
}
layer {
  name: "relu2"
  type: "ReLU"
  bottom: "ip2"
  top: "ip2"
}
layer {
  name: "ip3"
  type: "InnerProduct"
  bottom: "ip2"
  top: "ip3"
  param {
    lr_mult: 1
  }
  param {
    lr_mult: 2
  }
  inner_product_param {
    num_output: 10
    weight_filler {
      type: "xavier"
    }
    bias_filler {
      type: "constant"
    }
  }
}
layer {
  name: "relu3"
  type: "ReLU"
  bottom: "ip3"
  top: "ip3"
}
layer {
  name: "accuracy"
  type: "Accuracy"
  bottom: "ip3"
  bottom: "label"
  top: "accuracy"
  include {
    phase: TEST
  }
}
layer {
  name: "loss"
  type: "SoftmaxWithLoss"
  bottom: "ip3"
  bottom: "label"
  top: "loss"
}
I0428 19:54:52.936708 28071 layer_factory.hpp:77] Creating layer mnist
I0428 19:54:52.936753 28071 db_lmdb.cpp:35] Opened lmdb examples/mnist/mnist_test_lmdb
I0428 19:54:52.936765 28071 net.cpp:86] Creating Layer mnist
I0428 19:54:52.936770 28071 net.cpp:382] mnist -> data
I0428 19:54:52.936779 28071 net.cpp:382] mnist -> label
I0428 19:54:52.936913 28071 data_layer.cpp:45] output data size: 100,1,28,28
I0428 19:54:52.939007 28071 net.cpp:124] Setting up mnist
I0428 19:54:52.939034 28071 net.cpp:131] Top shape: 100 1 28 28 (78400)
I0428 19:54:52.939039 28071 net.cpp:131] Top shape: 100 (100)
I0428 19:54:52.939043 28071 net.cpp:139] Memory required for data: 314000
I0428 19:54:52.939047 28071 layer_factory.hpp:77] Creating layer label_mnist_1_split
I0428 19:54:52.939054 28071 net.cpp:86] Creating Layer label_mnist_1_split
I0428 19:54:52.939057 28071 net.cpp:408] label_mnist_1_split <- label
I0428 19:54:52.939062 28071 net.cpp:382] label_mnist_1_split -> label_mnist_1_split_0
I0428 19:54:52.939069 28071 net.cpp:382] label_mnist_1_split -> label_mnist_1_split_1
I0428 19:54:52.939121 28071 net.cpp:124] Setting up label_mnist_1_split
I0428 19:54:52.939126 28071 net.cpp:131] Top shape: 100 (100)
I0428 19:54:52.939129 28071 net.cpp:131] Top shape: 100 (100)
I0428 19:54:52.939132 28071 net.cpp:139] Memory required for data: 314800
I0428 19:54:52.939136 28071 layer_factory.hpp:77] Creating layer conv0
I0428 19:54:52.939143 28071 net.cpp:86] Creating Layer conv0
I0428 19:54:52.939146 28071 net.cpp:408] conv0 <- data
I0428 19:54:52.939151 28071 net.cpp:382] conv0 -> conv0
I0428 19:54:52.940801 28071 net.cpp:124] Setting up conv0
I0428 19:54:52.940837 28071 net.cpp:131] Top shape: 100 5 24 24 (288000)
I0428 19:54:52.940841 28071 net.cpp:139] Memory required for data: 1466800
I0428 19:54:52.940866 28071 layer_factory.hpp:77] Creating layer pool0
I0428 19:54:52.940888 28071 net.cpp:86] Creating Layer pool0
I0428 19:54:52.940892 28071 net.cpp:408] pool0 <- conv0
I0428 19:54:52.940897 28071 net.cpp:382] pool0 -> pool0
I0428 19:54:52.940935 28071 net.cpp:124] Setting up pool0
I0428 19:54:52.940940 28071 net.cpp:131] Top shape: 100 5 12 12 (72000)
I0428 19:54:52.940944 28071 net.cpp:139] Memory required for data: 1754800
I0428 19:54:52.940948 28071 layer_factory.hpp:77] Creating layer conv1
I0428 19:54:52.940955 28071 net.cpp:86] Creating Layer conv1
I0428 19:54:52.940958 28071 net.cpp:408] conv1 <- pool0
I0428 19:54:52.940963 28071 net.cpp:382] conv1 -> conv1
I0428 19:54:52.942620 28071 net.cpp:124] Setting up conv1
I0428 19:54:52.942634 28071 net.cpp:131] Top shape: 100 100 8 8 (640000)
I0428 19:54:52.942638 28071 net.cpp:139] Memory required for data: 4314800
I0428 19:54:52.942647 28071 layer_factory.hpp:77] Creating layer pool1
I0428 19:54:52.942653 28071 net.cpp:86] Creating Layer pool1
I0428 19:54:52.942656 28071 net.cpp:408] pool1 <- conv1
I0428 19:54:52.942662 28071 net.cpp:382] pool1 -> pool1
I0428 19:54:52.942698 28071 net.cpp:124] Setting up pool1
I0428 19:54:52.942703 28071 net.cpp:131] Top shape: 100 100 4 4 (160000)
I0428 19:54:52.942706 28071 net.cpp:139] Memory required for data: 4954800
I0428 19:54:52.942709 28071 layer_factory.hpp:77] Creating layer ip1
I0428 19:54:52.942714 28071 net.cpp:86] Creating Layer ip1
I0428 19:54:52.942734 28071 net.cpp:408] ip1 <- pool1
I0428 19:54:52.942739 28071 net.cpp:382] ip1 -> ip1
I0428 19:54:52.942957 28071 net.cpp:124] Setting up ip1
I0428 19:54:52.942966 28071 net.cpp:131] Top shape: 100 10 (1000)
I0428 19:54:52.942981 28071 net.cpp:139] Memory required for data: 4958800
I0428 19:54:52.942996 28071 layer_factory.hpp:77] Creating layer relu1
I0428 19:54:52.943002 28071 net.cpp:86] Creating Layer relu1
I0428 19:54:52.943006 28071 net.cpp:408] relu1 <- ip1
I0428 19:54:52.943011 28071 net.cpp:369] relu1 -> ip1 (in-place)
I0428 19:54:52.943186 28071 net.cpp:124] Setting up relu1
I0428 19:54:52.943194 28071 net.cpp:131] Top shape: 100 10 (1000)
I0428 19:54:52.943197 28071 net.cpp:139] Memory required for data: 4962800
I0428 19:54:52.943207 28071 layer_factory.hpp:77] Creating layer ip2
I0428 19:54:52.943214 28071 net.cpp:86] Creating Layer ip2
I0428 19:54:52.943217 28071 net.cpp:408] ip2 <- ip1
I0428 19:54:52.943222 28071 net.cpp:382] ip2 -> ip2
I0428 19:54:52.943316 28071 net.cpp:124] Setting up ip2
I0428 19:54:52.943325 28071 net.cpp:131] Top shape: 100 50 (5000)
I0428 19:54:52.943327 28071 net.cpp:139] Memory required for data: 4982800
I0428 19:54:52.943333 28071 layer_factory.hpp:77] Creating layer relu2
I0428 19:54:52.943337 28071 net.cpp:86] Creating Layer relu2
I0428 19:54:52.943341 28071 net.cpp:408] relu2 <- ip2
I0428 19:54:52.943344 28071 net.cpp:369] relu2 -> ip2 (in-place)
I0428 19:54:52.943506 28071 net.cpp:124] Setting up relu2
I0428 19:54:52.943516 28071 net.cpp:131] Top shape: 100 50 (5000)
I0428 19:54:52.943518 28071 net.cpp:139] Memory required for data: 5002800
I0428 19:54:52.943522 28071 layer_factory.hpp:77] Creating layer ip3
I0428 19:54:52.943527 28071 net.cpp:86] Creating Layer ip3
I0428 19:54:52.943531 28071 net.cpp:408] ip3 <- ip2
I0428 19:54:52.943536 28071 net.cpp:382] ip3 -> ip3
I0428 19:54:52.943662 28071 net.cpp:124] Setting up ip3
I0428 19:54:52.943670 28071 net.cpp:131] Top shape: 100 10 (1000)
I0428 19:54:52.943672 28071 net.cpp:139] Memory required for data: 5006800
I0428 19:54:52.943681 28071 layer_factory.hpp:77] Creating layer relu3
I0428 19:54:52.943686 28071 net.cpp:86] Creating Layer relu3
I0428 19:54:52.943688 28071 net.cpp:408] relu3 <- ip3
I0428 19:54:52.943692 28071 net.cpp:369] relu3 -> ip3 (in-place)
I0428 19:54:52.944597 28071 net.cpp:124] Setting up relu3
I0428 19:54:52.944607 28071 net.cpp:131] Top shape: 100 10 (1000)
I0428 19:54:52.944612 28071 net.cpp:139] Memory required for data: 5010800
I0428 19:54:52.944614 28071 layer_factory.hpp:77] Creating layer ip3_relu3_0_split
I0428 19:54:52.944620 28071 net.cpp:86] Creating Layer ip3_relu3_0_split
I0428 19:54:52.944623 28071 net.cpp:408] ip3_relu3_0_split <- ip3
I0428 19:54:52.944628 28071 net.cpp:382] ip3_relu3_0_split -> ip3_relu3_0_split_0
I0428 19:54:52.944634 28071 net.cpp:382] ip3_relu3_0_split -> ip3_relu3_0_split_1
I0428 19:54:52.944669 28071 net.cpp:124] Setting up ip3_relu3_0_split
I0428 19:54:52.944674 28071 net.cpp:131] Top shape: 100 10 (1000)
I0428 19:54:52.944679 28071 net.cpp:131] Top shape: 100 10 (1000)
I0428 19:54:52.944681 28071 net.cpp:139] Memory required for data: 5018800
I0428 19:54:52.944684 28071 layer_factory.hpp:77] Creating layer accuracy
I0428 19:54:52.944689 28071 net.cpp:86] Creating Layer accuracy
I0428 19:54:52.944691 28071 net.cpp:408] accuracy <- ip3_relu3_0_split_0
I0428 19:54:52.944696 28071 net.cpp:408] accuracy <- label_mnist_1_split_0
I0428 19:54:52.944706 28071 net.cpp:382] accuracy -> accuracy
…
