…
I0428 20:31:30.201464  3964 net.cpp:296] The NetState phase (0) differed from the phase (1) specified by a rule in layer mnist
I0428 20:31:30.201488  3964 net.cpp:296] The NetState phase (0) differed from the phase (1) specified by a rule in layer accuracy
I0428 20:31:30.201575  3964 net.cpp:53] Initializing net from parameters: 
name: "LeNet"
state {
  phase: TRAIN
  level: 0
  stage: ""
}
layer {
  name: "mnist"
  type: "Data"
  top: "data"
  top: "label"
  include {
    phase: TRAIN
  }
  transform_param {
    scale: 0.00390625
  }
  data_param {
    source: "examples/mnist/mnist_train_lmdb"
    batch_size: 64
    backend: LMDB
  }
}
layer {
  name: "conv0"
  type: "Convolution"
  bottom: "data"
  top: "conv0"
  param {
    lr_mult: 1
  }
  param {
    lr_mult: 2
  }
  convolution_param {
    num_output: 100
    kernel_size: 5
    stride: 1
    weight_filler {
      type: "xavier"
    }
    bias_filler {
      type: "constant"
    }
  }
}
layer {
  name: "pool0"
  type: "Pooling"
  bottom: "conv0"
  top: "pool0"
  pooling_param {
    pool: MAX
    kernel_size: 2
    stride: 2
  }
}
layer {
  name: "conv1"
  type: "Convolution"
  bottom: "pool0"
  top: "conv1"
  param {
    lr_mult: 1
  }
  param {
    lr_mult: 2
  }
  convolution_param {
    num_output: 10
    kernel_size: 5
    stride: 1
    weight_filler {
      type: "xavier"
    }
    bias_filler {
      type: "constant"
    }
  }
}
layer {
  name: "pool1"
  type: "Pooling"
  bottom: "conv1"
  top: "pool1"
  pooling_param {
    pool: MAX
    kernel_size: 2
    stride: 2
  }
}
layer {
  name: "ip1"
  type: "InnerProduct"
  bottom: "pool1"
  top: "ip1"
  param {
    lr_mult: 1
  }
  param {
    lr_mult: 2
  }
  inner_product_param {
    num_output: 50
    weight_filler {
      type: "xavier"
    }
    bias_filler {
      type: "constant"
    }
  }
}
layer {
  name: "relu1"
  type: "ReLU"
  bottom: "ip1"
  top: "ip1"
}
layer {
  name: "ip2"
  type: "InnerProduct"
  bottom: "ip1"
  top: "ip2"
  param {
    lr_mult: 1
  }
  param {
    lr_mult: 2
  }
  inner_product_param {
    num_output: 25
    weight_filler {
      type: "xavier"
    }
    bias_filler {
      type: "constant"
    }
  }
}
layer {
  name: "relu2"
  type: "ReLU"
  bottom: "ip2"
  top: "ip2"
}
layer {
  name: "ip3"
  type: "InnerProduct"
  bottom: "ip2"
  top: "ip3"
  param {
    lr_mult: 1
  }
  param {
    lr_mult: 2
  }
  inner_product_param {
    num_output: 10
    weight_filler {
      type: "xavier"
    }
    bias_filler {
      type: "constant"
    }
  }
}
layer {
  name: "relu3"
  type: "ReLU"
  bottom: "ip3"
  top: "ip3"
}
layer {
  name: "loss"
  type: "SoftmaxWithLoss"
  bottom: "ip3"
  bottom: "label"
  top: "loss"
}
I0428 20:31:30.201665  3964 layer_factory.hpp:77] Creating layer mnist
I0428 20:31:30.201772  3964 db_lmdb.cpp:35] Opened lmdb examples/mnist/mnist_train_lmdb
I0428 20:31:30.201799  3964 net.cpp:86] Creating Layer mnist
I0428 20:31:30.201808  3964 net.cpp:382] mnist -> data
I0428 20:31:30.201835  3964 net.cpp:382] mnist -> label
I0428 20:31:30.202958  3964 data_layer.cpp:45] output data size: 64,1,28,28
I0428 20:31:30.205150  3964 net.cpp:124] Setting up mnist
I0428 20:31:30.205199  3964 net.cpp:131] Top shape: 64 1 28 28 (50176)
I0428 20:31:30.205206  3964 net.cpp:131] Top shape: 64 (64)
I0428 20:31:30.205211  3964 net.cpp:139] Memory required for data: 200960
I0428 20:31:30.205220  3964 layer_factory.hpp:77] Creating layer conv0
I0428 20:31:30.205240  3964 net.cpp:86] Creating Layer conv0
I0428 20:31:30.205268  3964 net.cpp:408] conv0 <- data
I0428 20:31:30.205283  3964 net.cpp:382] conv0 -> conv0
I0428 20:31:30.442096  3964 net.cpp:124] Setting up conv0
I0428 20:31:30.442126  3964 net.cpp:131] Top shape: 64 100 24 24 (3686400)
I0428 20:31:30.442131  3964 net.cpp:139] Memory required for data: 14946560
I0428 20:31:30.442167  3964 layer_factory.hpp:77] Creating layer pool0
I0428 20:31:30.442183  3964 net.cpp:86] Creating Layer pool0
I0428 20:31:30.442190  3964 net.cpp:408] pool0 <- conv0
I0428 20:31:30.442199  3964 net.cpp:382] pool0 -> pool0
I0428 20:31:30.442258  3964 net.cpp:124] Setting up pool0
I0428 20:31:30.442267  3964 net.cpp:131] Top shape: 64 100 12 12 (921600)
I0428 20:31:30.442272  3964 net.cpp:139] Memory required for data: 18632960
I0428 20:31:30.442277  3964 layer_factory.hpp:77] Creating layer conv1
I0428 20:31:30.442292  3964 net.cpp:86] Creating Layer conv1
I0428 20:31:30.442298  3964 net.cpp:408] conv1 <- pool0
I0428 20:31:30.442307  3964 net.cpp:382] conv1 -> conv1
I0428 20:31:30.444475  3964 net.cpp:124] Setting up conv1
I0428 20:31:30.444491  3964 net.cpp:131] Top shape: 64 10 8 8 (40960)
I0428 20:31:30.444497  3964 net.cpp:139] Memory required for data: 18796800
I0428 20:31:30.444526  3964 layer_factory.hpp:77] Creating layer pool1
I0428 20:31:30.444540  3964 net.cpp:86] Creating Layer pool1
I0428 20:31:30.444552  3964 net.cpp:408] pool1 <- conv1
I0428 20:31:30.444561  3964 net.cpp:382] pool1 -> pool1
I0428 20:31:30.444608  3964 net.cpp:124] Setting up pool1
I0428 20:31:30.444617  3964 net.cpp:131] Top shape: 64 10 4 4 (10240)
I0428 20:31:30.444622  3964 net.cpp:139] Memory required for data: 18837760
I0428 20:31:30.444628  3964 layer_factory.hpp:77] Creating layer ip1
I0428 20:31:30.444639  3964 net.cpp:86] Creating Layer ip1
I0428 20:31:30.444644  3964 net.cpp:408] ip1 <- pool1
I0428 20:31:30.444654  3964 net.cpp:382] ip1 -> ip1
I0428 20:31:30.445722  3964 net.cpp:124] Setting up ip1
I0428 20:31:30.445737  3964 net.cpp:131] Top shape: 64 50 (3200)
I0428 20:31:30.445742  3964 net.cpp:139] Memory required for data: 18850560
I0428 20:31:30.445756  3964 layer_factory.hpp:77] Creating layer relu1
I0428 20:31:30.445765  3964 net.cpp:86] Creating Layer relu1
I0428 20:31:30.445771  3964 net.cpp:408] relu1 <- ip1
I0428 20:31:30.445782  3964 net.cpp:369] relu1 -> ip1 (in-place)
I0428 20:31:30.445967  3964 net.cpp:124] Setting up relu1
I0428 20:31:30.445978  3964 net.cpp:131] Top shape: 64 50 (3200)
I0428 20:31:30.445983  3964 net.cpp:139] Memory required for data: 18863360
I0428 20:31:30.445988  3964 layer_factory.hpp:77] Creating layer ip2
I0428 20:31:30.446002  3964 net.cpp:86] Creating Layer ip2
I0428 20:31:30.446007  3964 net.cpp:408] ip2 <- ip1
I0428 20:31:30.446015  3964 net.cpp:382] ip2 -> ip2
I0428 20:31:30.446143  3964 net.cpp:124] Setting up ip2
I0428 20:31:30.446153  3964 net.cpp:131] Top shape: 64 25 (1600)
I0428 20:31:30.446158  3964 net.cpp:139] Memory required for data: 18869760
I0428 20:31:30.446167  3964 layer_factory.hpp:77] Creating layer relu2
I0428 20:31:30.446177  3964 net.cpp:86] Creating Layer relu2
I0428 20:31:30.446187  3964 net.cpp:408] relu2 <- ip2
I0428 20:31:30.446197  3964 net.cpp:369] relu2 -> ip2 (in-place)
I0428 20:31:30.446988  3964 net.cpp:124] Setting up relu2
I0428 20:31:30.447002  3964 net.cpp:131] Top shape: 64 25 (1600)
I0428 20:31:30.447007  3964 net.cpp:139] Memory required for data: 18876160
I0428 20:31:30.447013  3964 layer_factory.hpp:77] Creating layer ip3
I0428 20:31:30.447026  3964 net.cpp:86] Creating Layer ip3
I0428 20:31:30.447032  3964 net.cpp:408] ip3 <- ip2
I0428 20:31:30.447041  3964 net.cpp:382] ip3 -> ip3
I0428 20:31:30.447160  3964 net.cpp:124] Setting up ip3
I0428 20:31:30.447180  3964 net.cpp:131] Top shape: 64 10 (640)
I0428 20:31:30.447185  3964 net.cpp:139] Memory required for data: 18878720
I0428 20:31:30.447208  3964 layer_factory.hpp:77] Creating layer relu3
I0428 20:31:30.447232  3964 net.cpp:86] Creating Layer relu3
I0428 20:31:30.447237  3964 net.cpp:408] relu3 <- ip3
I0428 20:31:30.447244  3964 net.cpp:369] relu3 -> ip3 (in-place)
I0428 20:31:30.447419  3964 net.cpp:124] Setting up relu3
I0428 20:31:30.447430  3964 net.cpp:131] Top shape: 64 10 (640)
I0428 20:31:30.447437  3964 net.cpp:139] Memory required for data: 18881280
I0428 20:31:30.447441  3964 layer_factory.hpp:77] Creating layer loss
I0428 20:31:30.447451  3964 net.cpp:86] Creating Layer loss
I0428 20:31:30.447458  3964 net.cpp:408] loss <- ip3
I0428 20:31:30.447463  3964 net.cpp:408] loss <- label
I0428 20:31:30.447489  3964 net.cpp:382] loss -> loss
I0428 20:31:30.447511  3964 layer_factory.hpp:77] Creating layer loss
…
I0428 20:31:30.448259  3964 solver.cpp:173] Creating test net (#0) specified by net file: ECE595/mnist/train_test/var_everything2/lenet_train_test1556.prototxt
I0428 20:31:30.448293  3964 net.cpp:296] The NetState phase (1) differed from the phase (0) specified by a rule in layer mnist
I0428 20:31:30.448395  3964 net.cpp:53] Initializing net from parameters: 
name: "LeNet"
state {
  phase: TEST
}
layer {
  name: "mnist"
  type: "Data"
  top: "data"
  top: "label"
  include {
    phase: TEST
  }
  transform_param {
    scale: 0.00390625
  }
  data_param {
    source: "examples/mnist/mnist_test_lmdb"
    batch_size: 100
    backend: LMDB
  }
}
layer {
  name: "conv0"
  type: "Convolution"
  bottom: "data"
  top: "conv0"
  param {
    lr_mult: 1
  }
  param {
    lr_mult: 2
  }
  convolution_param {
    num_output: 100
    kernel_size: 5
    stride: 1
    weight_filler {
      type: "xavier"
    }
    bias_filler {
      type: "constant"
    }
  }
}
layer {
  name: "pool0"
  type: "Pooling"
  bottom: "conv0"
  top: "pool0"
  pooling_param {
    pool: MAX
    kernel_size: 2
    stride: 2
  }
}
layer {
  name: "conv1"
  type: "Convolution"
  bottom: "pool0"
  top: "conv1"
  param {
    lr_mult: 1
  }
  param {
    lr_mult: 2
  }
  convolution_param {
    num_output: 10
    kernel_size: 5
    stride: 1
    weight_filler {
      type: "xavier"
    }
    bias_filler {
      type: "constant"
    }
  }
}
layer {
  name: "pool1"
  type: "Pooling"
  bottom: "conv1"
  top: "pool1"
  pooling_param {
    pool: MAX
    kernel_size: 2
    stride: 2
  }
}
layer {
  name: "ip1"
  type: "InnerProduct"
  bottom: "pool1"
  top: "ip1"
  param {
    lr_mult: 1
  }
  param {
    lr_mult: 2
  }
  inner_product_param {
    num_output: 50
    weight_filler {
      type: "xavier"
    }
    bias_filler {
      type: "constant"
    }
  }
}
layer {
  name: "relu1"
  type: "ReLU"
  bottom: "ip1"
  top: "ip1"
}
layer {
  name: "ip2"
  type: "InnerProduct"
  bottom: "ip1"
  top: "ip2"
  param {
    lr_mult: 1
  }
  param {
    lr_mult: 2
  }
  inner_product_param {
    num_output: 25
    weight_filler {
      type: "xavier"
    }
    bias_filler {
      type: "constant"
    }
  }
}
layer {
  name: "relu2"
  type: "ReLU"
  bottom: "ip2"
  top: "ip2"
}
layer {
  name: "ip3"
  type: "InnerProduct"
  bottom: "ip2"
  top: "ip3"
  param {
    lr_mult: 1
  }
  param {
    lr_mult: 2
  }
  inner_product_param {
    num_output: 10
    weight_filler {
      type: "xavier"
    }
    bias_filler {
      type: "constant"
    }
  }
}
layer {
  name: "relu3"
  type: "ReLU"
  bottom: "ip3"
  top: "ip3"
}
layer {
  name: "accuracy"
  type: "Accuracy"
  bottom: "ip3"
  bottom: "label"
  top: "accuracy"
  include {
    phase: TEST
  }
}
layer {
  name: "loss"
  type: "SoftmaxWithLoss"
  bottom: "ip3"
  bottom: "label"
  top: "loss"
}
I0428 20:31:30.448514  3964 layer_factory.hpp:77] Creating layer mnist
I0428 20:31:30.448571  3964 db_lmdb.cpp:35] Opened lmdb examples/mnist/mnist_test_lmdb
I0428 20:31:30.448603  3964 net.cpp:86] Creating Layer mnist
I0428 20:31:30.448613  3964 net.cpp:382] mnist -> data
I0428 20:31:30.448626  3964 net.cpp:382] mnist -> label
I0428 20:31:30.448776  3964 data_layer.cpp:45] output data size: 100,1,28,28
I0428 20:31:30.451103  3964 net.cpp:124] Setting up mnist
I0428 20:31:30.451118  3964 net.cpp:131] Top shape: 100 1 28 28 (78400)
I0428 20:31:30.451126  3964 net.cpp:131] Top shape: 100 (100)
I0428 20:31:30.451146  3964 net.cpp:139] Memory required for data: 314000
I0428 20:31:30.451153  3964 layer_factory.hpp:77] Creating layer label_mnist_1_split
I0428 20:31:30.451167  3964 net.cpp:86] Creating Layer label_mnist_1_split
I0428 20:31:30.451174  3964 net.cpp:408] label_mnist_1_split <- label
I0428 20:31:30.451198  3964 net.cpp:382] label_mnist_1_split -> label_mnist_1_split_0
I0428 20:31:30.451208  3964 net.cpp:382] label_mnist_1_split -> label_mnist_1_split_1
I0428 20:31:30.451267  3964 net.cpp:124] Setting up label_mnist_1_split
I0428 20:31:30.451277  3964 net.cpp:131] Top shape: 100 (100)
I0428 20:31:30.451297  3964 net.cpp:131] Top shape: 100 (100)
I0428 20:31:30.451302  3964 net.cpp:139] Memory required for data: 314800
I0428 20:31:30.451306  3964 layer_factory.hpp:77] Creating layer conv0
I0428 20:31:30.451323  3964 net.cpp:86] Creating Layer conv0
I0428 20:31:30.451329  3964 net.cpp:408] conv0 <- data
I0428 20:31:30.451339  3964 net.cpp:382] conv0 -> conv0
I0428 20:31:30.453131  3964 net.cpp:124] Setting up conv0
I0428 20:31:30.453178  3964 net.cpp:131] Top shape: 100 100 24 24 (5760000)
I0428 20:31:30.453184  3964 net.cpp:139] Memory required for data: 23354800
I0428 20:31:30.453200  3964 layer_factory.hpp:77] Creating layer pool0
I0428 20:31:30.453213  3964 net.cpp:86] Creating Layer pool0
I0428 20:31:30.453219  3964 net.cpp:408] pool0 <- conv0
I0428 20:31:30.453228  3964 net.cpp:382] pool0 -> pool0
I0428 20:31:30.453275  3964 net.cpp:124] Setting up pool0
I0428 20:31:30.453285  3964 net.cpp:131] Top shape: 100 100 12 12 (1440000)
I0428 20:31:30.453290  3964 net.cpp:139] Memory required for data: 29114800
I0428 20:31:30.453295  3964 layer_factory.hpp:77] Creating layer conv1
I0428 20:31:30.453311  3964 net.cpp:86] Creating Layer conv1
I0428 20:31:30.453318  3964 net.cpp:408] conv1 <- pool0
I0428 20:31:30.453330  3964 net.cpp:382] conv1 -> conv1
I0428 20:31:30.455245  3964 net.cpp:124] Setting up conv1
I0428 20:31:30.455265  3964 net.cpp:131] Top shape: 100 10 8 8 (64000)
I0428 20:31:30.455291  3964 net.cpp:139] Memory required for data: 29370800
I0428 20:31:30.455307  3964 layer_factory.hpp:77] Creating layer pool1
I0428 20:31:30.455324  3964 net.cpp:86] Creating Layer pool1
I0428 20:31:30.455332  3964 net.cpp:408] pool1 <- conv1
I0428 20:31:30.455341  3964 net.cpp:382] pool1 -> pool1
I0428 20:31:30.455404  3964 net.cpp:124] Setting up pool1
I0428 20:31:30.455413  3964 net.cpp:131] Top shape: 100 10 4 4 (16000)
I0428 20:31:30.455418  3964 net.cpp:139] Memory required for data: 29434800
I0428 20:31:30.455423  3964 layer_factory.hpp:77] Creating layer ip1
I0428 20:31:30.455435  3964 net.cpp:86] Creating Layer ip1
I0428 20:31:30.455441  3964 net.cpp:408] ip1 <- pool1
I0428 20:31:30.455453  3964 net.cpp:382] ip1 -> ip1
I0428 20:31:30.455616  3964 net.cpp:124] Setting up ip1
I0428 20:31:30.455636  3964 net.cpp:131] Top shape: 100 50 (5000)
I0428 20:31:30.455641  3964 net.cpp:139] Memory required for data: 29454800
I0428 20:31:30.455654  3964 layer_factory.hpp:77] Creating layer relu1
I0428 20:31:30.455665  3964 net.cpp:86] Creating Layer relu1
I0428 20:31:30.455672  3964 net.cpp:408] relu1 <- ip1
I0428 20:31:30.455680  3964 net.cpp:369] relu1 -> ip1 (in-place)
I0428 20:31:30.455868  3964 net.cpp:124] Setting up relu1
I0428 20:31:30.455878  3964 net.cpp:131] Top shape: 100 50 (5000)
I0428 20:31:30.455883  3964 net.cpp:139] Memory required for data: 29474800
I0428 20:31:30.455889  3964 layer_factory.hpp:77] Creating layer ip2
I0428 20:31:30.455902  3964 net.cpp:86] Creating Layer ip2
I0428 20:31:30.455924  3964 net.cpp:408] ip2 <- ip1
I0428 20:31:30.455934  3964 net.cpp:382] ip2 -> ip2
I0428 20:31:30.456051  3964 net.cpp:124] Setting up ip2
I0428 20:31:30.456061  3964 net.cpp:131] Top shape: 100 25 (2500)
I0428 20:31:30.456066  3964 net.cpp:139] Memory required for data: 29484800
I0428 20:31:30.456076  3964 layer_factory.hpp:77] Creating layer relu2
I0428 20:31:30.456084  3964 net.cpp:86] Creating Layer relu2
I0428 20:31:30.456089  3964 net.cpp:408] relu2 <- ip2
I0428 20:31:30.456096  3964 net.cpp:369] relu2 -> ip2 (in-place)
I0428 20:31:30.456255  3964 net.cpp:124] Setting up relu2
I0428 20:31:30.456267  3964 net.cpp:131] Top shape: 100 25 (2500)
I0428 20:31:30.456272  3964 net.cpp:139] Memory required for data: 29494800
I0428 20:31:30.456292  3964 layer_factory.hpp:77] Creating layer ip3
I0428 20:31:30.456302  3964 net.cpp:86] Creating Layer ip3
I0428 20:31:30.456307  3964 net.cpp:408] ip3 <- ip2
I0428 20:31:30.456326  3964 net.cpp:382] ip3 -> ip3
I0428 20:31:30.456437  3964 net.cpp:124] Setting up ip3
I0428 20:31:30.456447  3964 net.cpp:131] Top shape: 100 10 (1000)
I0428 20:31:30.456451  3964 net.cpp:139] Memory required for data: 29498800
I0428 20:31:30.456487  3964 layer_factory.hpp:77] Creating layer relu3
I0428 20:31:30.456496  3964 net.cpp:86] Creating Layer relu3
I0428 20:31:30.456502  3964 net.cpp:408] relu3 <- ip3
I0428 20:31:30.456511  3964 net.cpp:369] relu3 -> ip3 (in-place)
I0428 20:31:30.457434  3964 net.cpp:124] Setting up relu3
I0428 20:31:30.457448  3964 net.cpp:131] Top shape: 100 10 (1000)
I0428 20:31:30.457453  3964 net.cpp:139] Memory required for data: 29502800
I0428 20:31:30.457458  3964 layer_factory.hpp:77] Creating layer ip3_relu3_0_split
I0428 20:31:30.457466  3964 net.cpp:86] Creating Layer ip3_relu3_0_split
I0428 20:31:30.457471  3964 net.cpp:408] ip3_relu3_0_split <- ip3
I0428 20:31:30.457481  3964 net.cpp:382] ip3_relu3_0_split -> ip3_relu3_0_split_0
I0428 20:31:30.457491  3964 net.cpp:382] ip3_relu3_0_split -> ip3_relu3_0_split_1
I0428 20:31:30.457597  3964 net.cpp:124] Setting up ip3_relu3_0_split
I0428 20:31:30.457605  3964 net.cpp:131] Top shape: 100 10 (1000)
I0428 20:31:30.457612  3964 net.cpp:131] Top shape: 100 10 (1000)
I0428 20:31:30.457617  3964 net.cpp:139] Memory required for data: 29510800
I0428 20:31:30.457634  3964 layer_factory.hpp:77] Creating layer accuracy
I0428 20:31:30.457655  3964 net.cpp:86] Creating Layer accuracy
I0428 20:31:30.457661  3964 net.cpp:408] accuracy <- ip3_relu3_0_split_0
I0428 20:31:30.457669  3964 net.cpp:408] accuracy <- label_mnist_1_split_0
I0428 20:31:30.457675  3964 net.cpp:382] accuracy -> accuracy
…
