…
I0428 19:54:27.039058 27995 net.cpp:296] The NetState phase (0) differed from the phase (1) specified by a rule in layer mnist
I0428 19:54:27.039075 27995 net.cpp:296] The NetState phase (0) differed from the phase (1) specified by a rule in layer accuracy
I0428 19:54:27.039166 27995 net.cpp:53] Initializing net from parameters: 
name: "LeNet"
state {
  phase: TRAIN
  level: 0
  stage: ""
}
layer {
  name: "mnist"
  type: "Data"
  top: "data"
  top: "label"
  include {
    phase: TRAIN
  }
  transform_param {
    scale: 0.00390625
  }
  data_param {
    source: "examples/mnist/mnist_train_lmdb"
    batch_size: 64
    backend: LMDB
  }
}
layer {
  name: "conv0"
  type: "Convolution"
  bottom: "data"
  top: "conv0"
  param {
    lr_mult: 1
  }
  param {
    lr_mult: 2
  }
  convolution_param {
    num_output: 5
    kernel_size: 5
    stride: 1
    weight_filler {
      type: "xavier"
    }
    bias_filler {
      type: "constant"
    }
  }
}
layer {
  name: "pool0"
  type: "Pooling"
  bottom: "conv0"
  top: "pool0"
  pooling_param {
    pool: MAX
    kernel_size: 2
    stride: 2
  }
}
layer {
  name: "conv1"
  type: "Convolution"
  bottom: "pool0"
  top: "conv1"
  param {
    lr_mult: 1
  }
  param {
    lr_mult: 2
  }
  convolution_param {
    num_output: 100
    kernel_size: 5
    stride: 1
    weight_filler {
      type: "xavier"
    }
    bias_filler {
      type: "constant"
    }
  }
}
layer {
  name: "pool1"
  type: "Pooling"
  bottom: "conv1"
  top: "pool1"
  pooling_param {
    pool: MAX
    kernel_size: 2
    stride: 2
  }
}
layer {
  name: "ip1"
  type: "InnerProduct"
  bottom: "pool1"
  top: "ip1"
  param {
    lr_mult: 1
  }
  param {
    lr_mult: 2
  }
  inner_product_param {
    num_output: 50
    weight_filler {
      type: "xavier"
    }
    bias_filler {
      type: "constant"
    }
  }
}
layer {
  name: "relu1"
  type: "ReLU"
  bottom: "ip1"
  top: "ip1"
}
layer {
  name: "ip2"
  type: "InnerProduct"
  bottom: "ip1"
  top: "ip2"
  param {
    lr_mult: 1
  }
  param {
    lr_mult: 2
  }
  inner_product_param {
    num_output: 10
    weight_filler {
      type: "xavier"
    }
    bias_filler {
      type: "constant"
    }
  }
}
layer {
  name: "relu2"
  type: "ReLU"
  bottom: "ip2"
  top: "ip2"
}
layer {
  name: "loss"
  type: "SoftmaxWithLoss"
  bottom: "ip2"
  bottom: "label"
  top: "loss"
}
I0428 19:54:27.039242 27995 layer_factory.hpp:77] Creating layer mnist
I0428 19:54:27.039342 27995 db_lmdb.cpp:35] Opened lmdb examples/mnist/mnist_train_lmdb
I0428 19:54:27.039368 27995 net.cpp:86] Creating Layer mnist
I0428 19:54:27.039376 27995 net.cpp:382] mnist -> data
I0428 19:54:27.039399 27995 net.cpp:382] mnist -> label
I0428 19:54:27.040505 27995 data_layer.cpp:45] output data size: 64,1,28,28
I0428 19:54:27.043268 27995 net.cpp:124] Setting up mnist
I0428 19:54:27.043287 27995 net.cpp:131] Top shape: 64 1 28 28 (50176)
I0428 19:54:27.043298 27995 net.cpp:131] Top shape: 64 (64)
I0428 19:54:27.043303 27995 net.cpp:139] Memory required for data: 200960
I0428 19:54:27.043309 27995 layer_factory.hpp:77] Creating layer conv0
I0428 19:54:27.043329 27995 net.cpp:86] Creating Layer conv0
I0428 19:54:27.043335 27995 net.cpp:408] conv0 <- data
I0428 19:54:27.043347 27995 net.cpp:382] conv0 -> conv0
I0428 19:54:27.316103 27995 net.cpp:124] Setting up conv0
I0428 19:54:27.316144 27995 net.cpp:131] Top shape: 64 5 24 24 (184320)
I0428 19:54:27.316149 27995 net.cpp:139] Memory required for data: 938240
I0428 19:54:27.316182 27995 layer_factory.hpp:77] Creating layer pool0
I0428 19:54:27.316211 27995 net.cpp:86] Creating Layer pool0
I0428 19:54:27.316215 27995 net.cpp:408] pool0 <- conv0
I0428 19:54:27.316221 27995 net.cpp:382] pool0 -> pool0
I0428 19:54:27.316268 27995 net.cpp:124] Setting up pool0
I0428 19:54:27.316278 27995 net.cpp:131] Top shape: 64 5 12 12 (46080)
I0428 19:54:27.316282 27995 net.cpp:139] Memory required for data: 1122560
I0428 19:54:27.316284 27995 layer_factory.hpp:77] Creating layer conv1
I0428 19:54:27.316294 27995 net.cpp:86] Creating Layer conv1
I0428 19:54:27.316298 27995 net.cpp:408] conv1 <- pool0
I0428 19:54:27.316303 27995 net.cpp:382] conv1 -> conv1
I0428 19:54:27.319247 27995 net.cpp:124] Setting up conv1
I0428 19:54:27.319277 27995 net.cpp:131] Top shape: 64 100 8 8 (409600)
I0428 19:54:27.319280 27995 net.cpp:139] Memory required for data: 2760960
I0428 19:54:27.319289 27995 layer_factory.hpp:77] Creating layer pool1
I0428 19:54:27.319296 27995 net.cpp:86] Creating Layer pool1
I0428 19:54:27.319300 27995 net.cpp:408] pool1 <- conv1
I0428 19:54:27.319308 27995 net.cpp:382] pool1 -> pool1
I0428 19:54:27.319363 27995 net.cpp:124] Setting up pool1
I0428 19:54:27.319370 27995 net.cpp:131] Top shape: 64 100 4 4 (102400)
I0428 19:54:27.319372 27995 net.cpp:139] Memory required for data: 3170560
I0428 19:54:27.319375 27995 layer_factory.hpp:77] Creating layer ip1
I0428 19:54:27.319382 27995 net.cpp:86] Creating Layer ip1
I0428 19:54:27.319386 27995 net.cpp:408] ip1 <- pool1
I0428 19:54:27.319391 27995 net.cpp:382] ip1 -> ip1
I0428 19:54:27.320960 27995 net.cpp:124] Setting up ip1
I0428 19:54:27.320976 27995 net.cpp:131] Top shape: 64 50 (3200)
I0428 19:54:27.320981 27995 net.cpp:139] Memory required for data: 3183360
I0428 19:54:27.320989 27995 layer_factory.hpp:77] Creating layer relu1
I0428 19:54:27.320996 27995 net.cpp:86] Creating Layer relu1
I0428 19:54:27.321000 27995 net.cpp:408] relu1 <- ip1
I0428 19:54:27.321005 27995 net.cpp:369] relu1 -> ip1 (in-place)
I0428 19:54:27.321224 27995 net.cpp:124] Setting up relu1
I0428 19:54:27.321234 27995 net.cpp:131] Top shape: 64 50 (3200)
I0428 19:54:27.321238 27995 net.cpp:139] Memory required for data: 3196160
I0428 19:54:27.321241 27995 layer_factory.hpp:77] Creating layer ip2
I0428 19:54:27.321249 27995 net.cpp:86] Creating Layer ip2
I0428 19:54:27.321251 27995 net.cpp:408] ip2 <- ip1
I0428 19:54:27.321257 27995 net.cpp:382] ip2 -> ip2
I0428 19:54:27.321396 27995 net.cpp:124] Setting up ip2
I0428 19:54:27.321405 27995 net.cpp:131] Top shape: 64 10 (640)
I0428 19:54:27.321408 27995 net.cpp:139] Memory required for data: 3198720
I0428 19:54:27.321415 27995 layer_factory.hpp:77] Creating layer relu2
I0428 19:54:27.321429 27995 net.cpp:86] Creating Layer relu2
I0428 19:54:27.321434 27995 net.cpp:408] relu2 <- ip2
I0428 19:54:27.321439 27995 net.cpp:369] relu2 -> ip2 (in-place)
I0428 19:54:27.322182 27995 net.cpp:124] Setting up relu2
I0428 19:54:27.322196 27995 net.cpp:131] Top shape: 64 10 (640)
I0428 19:54:27.322216 27995 net.cpp:139] Memory required for data: 3201280
I0428 19:54:27.322221 27995 layer_factory.hpp:77] Creating layer loss
I0428 19:54:27.322229 27995 net.cpp:86] Creating Layer loss
I0428 19:54:27.322233 27995 net.cpp:408] loss <- ip2
I0428 19:54:27.322237 27995 net.cpp:408] loss <- label
I0428 19:54:27.322243 27995 net.cpp:382] loss -> loss
I0428 19:54:27.322263 27995 layer_factory.hpp:77] Creating layer loss
…
I0428 19:54:27.322931 27995 solver.cpp:173] Creating test net (#0) specified by net file: ECE595/mnist/train_test/var_everything2/lenet_train_test711.prototxt
I0428 19:54:27.322955 27995 net.cpp:296] The NetState phase (1) differed from the phase (0) specified by a rule in layer mnist
I0428 19:54:27.323037 27995 net.cpp:53] Initializing net from parameters: 
name: "LeNet"
state {
  phase: TEST
}
layer {
  name: "mnist"
  type: "Data"
  top: "data"
  top: "label"
  include {
    phase: TEST
  }
  transform_param {
    scale: 0.00390625
  }
  data_param {
    source: "examples/mnist/mnist_test_lmdb"
    batch_size: 100
    backend: LMDB
  }
}
layer {
  name: "conv0"
  type: "Convolution"
  bottom: "data"
  top: "conv0"
  param {
    lr_mult: 1
  }
  param {
    lr_mult: 2
  }
  convolution_param {
    num_output: 5
    kernel_size: 5
    stride: 1
    weight_filler {
      type: "xavier"
    }
    bias_filler {
      type: "constant"
    }
  }
}
layer {
  name: "pool0"
  type: "Pooling"
  bottom: "conv0"
  top: "pool0"
  pooling_param {
    pool: MAX
    kernel_size: 2
    stride: 2
  }
}
layer {
  name: "conv1"
  type: "Convolution"
  bottom: "pool0"
  top: "conv1"
  param {
    lr_mult: 1
  }
  param {
    lr_mult: 2
  }
  convolution_param {
    num_output: 100
    kernel_size: 5
    stride: 1
    weight_filler {
      type: "xavier"
    }
    bias_filler {
      type: "constant"
    }
  }
}
layer {
  name: "pool1"
  type: "Pooling"
  bottom: "conv1"
  top: "pool1"
  pooling_param {
    pool: MAX
    kernel_size: 2
    stride: 2
  }
}
layer {
  name: "ip1"
  type: "InnerProduct"
  bottom: "pool1"
  top: "ip1"
  param {
    lr_mult: 1
  }
  param {
    lr_mult: 2
  }
  inner_product_param {
    num_output: 50
    weight_filler {
      type: "xavier"
    }
    bias_filler {
      type: "constant"
    }
  }
}
layer {
  name: "relu1"
  type: "ReLU"
  bottom: "ip1"
  top: "ip1"
}
layer {
  name: "ip2"
  type: "InnerProduct"
  bottom: "ip1"
  top: "ip2"
  param {
    lr_mult: 1
  }
  param {
    lr_mult: 2
  }
  inner_product_param {
    num_output: 10
    weight_filler {
      type: "xavier"
    }
    bias_filler {
      type: "constant"
    }
  }
}
layer {
  name: "relu2"
  type: "ReLU"
  bottom: "ip2"
  top: "ip2"
}
layer {
  name: "accuracy"
  type: "Accuracy"
  bottom: "ip2"
  bottom: "label"
  top: "accuracy"
  include {
    phase: TEST
  }
}
layer {
  name: "loss"
  type: "SoftmaxWithLoss"
  bottom: "ip2"
  bottom: "label"
  top: "loss"
}
I0428 19:54:27.323099 27995 layer_factory.hpp:77] Creating layer mnist
I0428 19:54:27.323144 27995 db_lmdb.cpp:35] Opened lmdb examples/mnist/mnist_test_lmdb
I0428 19:54:27.323155 27995 net.cpp:86] Creating Layer mnist
I0428 19:54:27.323160 27995 net.cpp:382] mnist -> data
I0428 19:54:27.323168 27995 net.cpp:382] mnist -> label
I0428 19:54:27.323284 27995 data_layer.cpp:45] output data size: 100,1,28,28
I0428 19:54:27.324455 27995 net.cpp:124] Setting up mnist
I0428 19:54:27.324483 27995 net.cpp:131] Top shape: 100 1 28 28 (78400)
I0428 19:54:27.324488 27995 net.cpp:131] Top shape: 100 (100)
I0428 19:54:27.324491 27995 net.cpp:139] Memory required for data: 314000
I0428 19:54:27.324496 27995 layer_factory.hpp:77] Creating layer label_mnist_1_split
I0428 19:54:27.324506 27995 net.cpp:86] Creating Layer label_mnist_1_split
I0428 19:54:27.324509 27995 net.cpp:408] label_mnist_1_split <- label
I0428 19:54:27.324514 27995 net.cpp:382] label_mnist_1_split -> label_mnist_1_split_0
I0428 19:54:27.324520 27995 net.cpp:382] label_mnist_1_split -> label_mnist_1_split_1
I0428 19:54:27.324625 27995 net.cpp:124] Setting up label_mnist_1_split
I0428 19:54:27.324635 27995 net.cpp:131] Top shape: 100 (100)
I0428 19:54:27.324637 27995 net.cpp:131] Top shape: 100 (100)
I0428 19:54:27.324640 27995 net.cpp:139] Memory required for data: 314800
I0428 19:54:27.324643 27995 layer_factory.hpp:77] Creating layer conv0
I0428 19:54:27.324651 27995 net.cpp:86] Creating Layer conv0
I0428 19:54:27.324654 27995 net.cpp:408] conv0 <- data
I0428 19:54:27.324659 27995 net.cpp:382] conv0 -> conv0
I0428 19:54:27.326328 27995 net.cpp:124] Setting up conv0
I0428 19:54:27.326342 27995 net.cpp:131] Top shape: 100 5 24 24 (288000)
I0428 19:54:27.326345 27995 net.cpp:139] Memory required for data: 1466800
I0428 19:54:27.326354 27995 layer_factory.hpp:77] Creating layer pool0
I0428 19:54:27.326359 27995 net.cpp:86] Creating Layer pool0
I0428 19:54:27.326362 27995 net.cpp:408] pool0 <- conv0
I0428 19:54:27.326367 27995 net.cpp:382] pool0 -> pool0
I0428 19:54:27.326416 27995 net.cpp:124] Setting up pool0
I0428 19:54:27.326421 27995 net.cpp:131] Top shape: 100 5 12 12 (72000)
I0428 19:54:27.326423 27995 net.cpp:139] Memory required for data: 1754800
I0428 19:54:27.326426 27995 layer_factory.hpp:77] Creating layer conv1
I0428 19:54:27.326434 27995 net.cpp:86] Creating Layer conv1
I0428 19:54:27.326437 27995 net.cpp:408] conv1 <- pool0
I0428 19:54:27.326442 27995 net.cpp:382] conv1 -> conv1
I0428 19:54:27.327980 27995 net.cpp:124] Setting up conv1
I0428 19:54:27.328008 27995 net.cpp:131] Top shape: 100 100 8 8 (640000)
I0428 19:54:27.328012 27995 net.cpp:139] Memory required for data: 4314800
I0428 19:54:27.328021 27995 layer_factory.hpp:77] Creating layer pool1
I0428 19:54:27.328027 27995 net.cpp:86] Creating Layer pool1
I0428 19:54:27.328030 27995 net.cpp:408] pool1 <- conv1
I0428 19:54:27.328037 27995 net.cpp:382] pool1 -> pool1
I0428 19:54:27.328069 27995 net.cpp:124] Setting up pool1
I0428 19:54:27.328075 27995 net.cpp:131] Top shape: 100 100 4 4 (160000)
I0428 19:54:27.328078 27995 net.cpp:139] Memory required for data: 4954800
I0428 19:54:27.328081 27995 layer_factory.hpp:77] Creating layer ip1
I0428 19:54:27.328088 27995 net.cpp:86] Creating Layer ip1
I0428 19:54:27.328092 27995 net.cpp:408] ip1 <- pool1
I0428 19:54:27.328100 27995 net.cpp:382] ip1 -> ip1
I0428 19:54:27.328725 27995 net.cpp:124] Setting up ip1
I0428 19:54:27.328735 27995 net.cpp:131] Top shape: 100 50 (5000)
I0428 19:54:27.328754 27995 net.cpp:139] Memory required for data: 4974800
I0428 19:54:27.328761 27995 layer_factory.hpp:77] Creating layer relu1
I0428 19:54:27.328766 27995 net.cpp:86] Creating Layer relu1
I0428 19:54:27.328770 27995 net.cpp:408] relu1 <- ip1
I0428 19:54:27.328775 27995 net.cpp:369] relu1 -> ip1 (in-place)
I0428 19:54:27.329066 27995 net.cpp:124] Setting up relu1
I0428 19:54:27.329078 27995 net.cpp:131] Top shape: 100 50 (5000)
I0428 19:54:27.329082 27995 net.cpp:139] Memory required for data: 4994800
I0428 19:54:27.329087 27995 layer_factory.hpp:77] Creating layer ip2
I0428 19:54:27.329094 27995 net.cpp:86] Creating Layer ip2
I0428 19:54:27.329098 27995 net.cpp:408] ip2 <- ip1
I0428 19:54:27.329103 27995 net.cpp:382] ip2 -> ip2
I0428 19:54:27.329258 27995 net.cpp:124] Setting up ip2
I0428 19:54:27.329267 27995 net.cpp:131] Top shape: 100 10 (1000)
I0428 19:54:27.329270 27995 net.cpp:139] Memory required for data: 4998800
I0428 19:54:27.329275 27995 layer_factory.hpp:77] Creating layer relu2
I0428 19:54:27.329280 27995 net.cpp:86] Creating Layer relu2
I0428 19:54:27.329283 27995 net.cpp:408] relu2 <- ip2
I0428 19:54:27.329288 27995 net.cpp:369] relu2 -> ip2 (in-place)
I0428 19:54:27.329457 27995 net.cpp:124] Setting up relu2
I0428 19:54:27.329471 27995 net.cpp:131] Top shape: 100 10 (1000)
I0428 19:54:27.329478 27995 net.cpp:139] Memory required for data: 5002800
I0428 19:54:27.329483 27995 layer_factory.hpp:77] Creating layer ip2_relu2_0_split
I0428 19:54:27.329490 27995 net.cpp:86] Creating Layer ip2_relu2_0_split
I0428 19:54:27.329510 27995 net.cpp:408] ip2_relu2_0_split <- ip2
I0428 19:54:27.329517 27995 net.cpp:382] ip2_relu2_0_split -> ip2_relu2_0_split_0
I0428 19:54:27.329535 27995 net.cpp:382] ip2_relu2_0_split -> ip2_relu2_0_split_1
I0428 19:54:27.329571 27995 net.cpp:124] Setting up ip2_relu2_0_split
I0428 19:54:27.329578 27995 net.cpp:131] Top shape: 100 10 (1000)
I0428 19:54:27.329582 27995 net.cpp:131] Top shape: 100 10 (1000)
I0428 19:54:27.329586 27995 net.cpp:139] Memory required for data: 5010800
I0428 19:54:27.329588 27995 layer_factory.hpp:77] Creating layer accuracy
I0428 19:54:27.329593 27995 net.cpp:86] Creating Layer accuracy
I0428 19:54:27.329597 27995 net.cpp:408] accuracy <- ip2_relu2_0_split_0
I0428 19:54:27.329602 27995 net.cpp:408] accuracy <- label_mnist_1_split_0
I0428 19:54:27.329605 27995 net.cpp:382] accuracy -> accuracy
…
