…
I0428 20:19:42.375450  1409 net.cpp:296] The NetState phase (0) differed from the phase (1) specified by a rule in layer mnist
I0428 20:19:42.375471  1409 net.cpp:296] The NetState phase (0) differed from the phase (1) specified by a rule in layer accuracy
I0428 20:19:42.375612  1409 net.cpp:53] Initializing net from parameters: 
name: "LeNet"
state {
  phase: TRAIN
  level: 0
  stage: ""
}
layer {
  name: "mnist"
  type: "Data"
  top: "data"
  top: "label"
  include {
    phase: TRAIN
  }
  transform_param {
    scale: 0.00390625
  }
  data_param {
    source: "examples/mnist/mnist_train_lmdb"
    batch_size: 64
    backend: LMDB
  }
}
layer {
  name: "conv0"
  type: "Convolution"
  bottom: "data"
  top: "conv0"
  param {
    lr_mult: 1
  }
  param {
    lr_mult: 2
  }
  convolution_param {
    num_output: 50
    kernel_size: 5
    stride: 1
    weight_filler {
      type: "xavier"
    }
    bias_filler {
      type: "constant"
    }
  }
}
layer {
  name: "pool0"
  type: "Pooling"
  bottom: "conv0"
  top: "pool0"
  pooling_param {
    pool: MAX
    kernel_size: 2
    stride: 2
  }
}
layer {
  name: "conv1"
  type: "Convolution"
  bottom: "pool0"
  top: "conv1"
  param {
    lr_mult: 1
  }
  param {
    lr_mult: 2
  }
  convolution_param {
    num_output: 25
    kernel_size: 5
    stride: 1
    weight_filler {
      type: "xavier"
    }
    bias_filler {
      type: "constant"
    }
  }
}
layer {
  name: "pool1"
  type: "Pooling"
  bottom: "conv1"
  top: "pool1"
  pooling_param {
    pool: MAX
    kernel_size: 2
    stride: 2
  }
}
layer {
  name: "ip1"
  type: "InnerProduct"
  bottom: "pool1"
  top: "ip1"
  param {
    lr_mult: 1
  }
  param {
    lr_mult: 2
  }
  inner_product_param {
    num_output: 25
    weight_filler {
      type: "xavier"
    }
    bias_filler {
      type: "constant"
    }
  }
}
layer {
  name: "relu1"
  type: "ReLU"
  bottom: "ip1"
  top: "ip1"
}
layer {
  name: "ip2"
  type: "InnerProduct"
  bottom: "ip1"
  top: "ip2"
  param {
    lr_mult: 1
  }
  param {
    lr_mult: 2
  }
  inner_product_param {
    num_output: 10
    weight_filler {
      type: "xavier"
    }
    bias_filler {
      type: "constant"
    }
  }
}
layer {
  name: "relu2"
  type: "ReLU"
  bottom: "ip2"
  top: "ip2"
}
layer {
  name: "ip3"
  type: "InnerProduct"
  bottom: "ip2"
  top: "ip3"
  param {
    lr_mult: 1
  }
  param {
    lr_mult: 2
  }
  inner_product_param {
    num_output: 10
    weight_filler {
      type: "xavier"
    }
    bias_filler {
      type: "constant"
    }
  }
}
layer {
  name: "relu3"
  type: "ReLU"
  bottom: "ip3"
  top: "ip3"
}
layer {
  name: "loss"
  type: "SoftmaxWithLoss"
  bottom: "ip3"
  bottom: "label"
  top: "loss"
}
I0428 20:19:42.375697  1409 layer_factory.hpp:77] Creating layer mnist
I0428 20:19:42.375805  1409 db_lmdb.cpp:35] Opened lmdb examples/mnist/mnist_train_lmdb
I0428 20:19:42.375833  1409 net.cpp:86] Creating Layer mnist
I0428 20:19:42.375843  1409 net.cpp:382] mnist -> data
I0428 20:19:42.375867  1409 net.cpp:382] mnist -> label
I0428 20:19:42.377239  1409 data_layer.cpp:45] output data size: 64,1,28,28
I0428 20:19:42.379874  1409 net.cpp:124] Setting up mnist
I0428 20:19:42.379890  1409 net.cpp:131] Top shape: 64 1 28 28 (50176)
I0428 20:19:42.379897  1409 net.cpp:131] Top shape: 64 (64)
I0428 20:19:42.379902  1409 net.cpp:139] Memory required for data: 200960
I0428 20:19:42.379911  1409 layer_factory.hpp:77] Creating layer conv0
I0428 20:19:42.379930  1409 net.cpp:86] Creating Layer conv0
I0428 20:19:42.379954  1409 net.cpp:408] conv0 <- data
I0428 20:19:42.379986  1409 net.cpp:382] conv0 -> conv0
I0428 20:19:42.605581  1409 net.cpp:124] Setting up conv0
I0428 20:19:42.605608  1409 net.cpp:131] Top shape: 64 50 24 24 (1843200)
I0428 20:19:42.605612  1409 net.cpp:139] Memory required for data: 7573760
I0428 20:19:42.605628  1409 layer_factory.hpp:77] Creating layer pool0
I0428 20:19:42.605639  1409 net.cpp:86] Creating Layer pool0
I0428 20:19:42.605644  1409 net.cpp:408] pool0 <- conv0
I0428 20:19:42.605650  1409 net.cpp:382] pool0 -> pool0
I0428 20:19:42.605705  1409 net.cpp:124] Setting up pool0
I0428 20:19:42.605716  1409 net.cpp:131] Top shape: 64 50 12 12 (460800)
I0428 20:19:42.605720  1409 net.cpp:139] Memory required for data: 9416960
I0428 20:19:42.605726  1409 layer_factory.hpp:77] Creating layer conv1
I0428 20:19:42.605738  1409 net.cpp:86] Creating Layer conv1
I0428 20:19:42.605743  1409 net.cpp:408] conv1 <- pool0
I0428 20:19:42.605751  1409 net.cpp:382] conv1 -> conv1
I0428 20:19:42.608223  1409 net.cpp:124] Setting up conv1
I0428 20:19:42.608237  1409 net.cpp:131] Top shape: 64 25 8 8 (102400)
I0428 20:19:42.608258  1409 net.cpp:139] Memory required for data: 9826560
I0428 20:19:42.608266  1409 layer_factory.hpp:77] Creating layer pool1
I0428 20:19:42.608273  1409 net.cpp:86] Creating Layer pool1
I0428 20:19:42.608278  1409 net.cpp:408] pool1 <- conv1
I0428 20:19:42.608281  1409 net.cpp:382] pool1 -> pool1
I0428 20:19:42.608327  1409 net.cpp:124] Setting up pool1
I0428 20:19:42.608337  1409 net.cpp:131] Top shape: 64 25 4 4 (25600)
I0428 20:19:42.608342  1409 net.cpp:139] Memory required for data: 9928960
I0428 20:19:42.608347  1409 layer_factory.hpp:77] Creating layer ip1
I0428 20:19:42.608357  1409 net.cpp:86] Creating Layer ip1
I0428 20:19:42.608362  1409 net.cpp:408] ip1 <- pool1
I0428 20:19:42.608386  1409 net.cpp:382] ip1 -> ip1
I0428 20:19:42.609827  1409 net.cpp:124] Setting up ip1
I0428 20:19:42.609839  1409 net.cpp:131] Top shape: 64 25 (1600)
I0428 20:19:42.609858  1409 net.cpp:139] Memory required for data: 9935360
I0428 20:19:42.609866  1409 layer_factory.hpp:77] Creating layer relu1
I0428 20:19:42.609872  1409 net.cpp:86] Creating Layer relu1
I0428 20:19:42.609876  1409 net.cpp:408] relu1 <- ip1
I0428 20:19:42.609880  1409 net.cpp:369] relu1 -> ip1 (in-place)
I0428 20:19:42.610103  1409 net.cpp:124] Setting up relu1
I0428 20:19:42.610116  1409 net.cpp:131] Top shape: 64 25 (1600)
I0428 20:19:42.610121  1409 net.cpp:139] Memory required for data: 9941760
I0428 20:19:42.610127  1409 layer_factory.hpp:77] Creating layer ip2
I0428 20:19:42.610136  1409 net.cpp:86] Creating Layer ip2
I0428 20:19:42.610141  1409 net.cpp:408] ip2 <- ip1
I0428 20:19:42.610149  1409 net.cpp:382] ip2 -> ip2
I0428 20:19:42.610294  1409 net.cpp:124] Setting up ip2
I0428 20:19:42.610304  1409 net.cpp:131] Top shape: 64 10 (640)
I0428 20:19:42.610324  1409 net.cpp:139] Memory required for data: 9944320
I0428 20:19:42.610333  1409 layer_factory.hpp:77] Creating layer relu2
I0428 20:19:42.610342  1409 net.cpp:86] Creating Layer relu2
I0428 20:19:42.610348  1409 net.cpp:408] relu2 <- ip2
I0428 20:19:42.610369  1409 net.cpp:369] relu2 -> ip2 (in-place)
I0428 20:19:42.611449  1409 net.cpp:124] Setting up relu2
I0428 20:19:42.611480  1409 net.cpp:131] Top shape: 64 10 (640)
I0428 20:19:42.611485  1409 net.cpp:139] Memory required for data: 9946880
I0428 20:19:42.611490  1409 layer_factory.hpp:77] Creating layer ip3
I0428 20:19:42.611500  1409 net.cpp:86] Creating Layer ip3
I0428 20:19:42.611505  1409 net.cpp:408] ip3 <- ip2
I0428 20:19:42.611513  1409 net.cpp:382] ip3 -> ip3
I0428 20:19:42.611657  1409 net.cpp:124] Setting up ip3
I0428 20:19:42.611668  1409 net.cpp:131] Top shape: 64 10 (640)
I0428 20:19:42.611673  1409 net.cpp:139] Memory required for data: 9949440
I0428 20:19:42.611685  1409 layer_factory.hpp:77] Creating layer relu3
I0428 20:19:42.611691  1409 net.cpp:86] Creating Layer relu3
I0428 20:19:42.611696  1409 net.cpp:408] relu3 <- ip3
I0428 20:19:42.611703  1409 net.cpp:369] relu3 -> ip3 (in-place)
I0428 20:19:42.611945  1409 net.cpp:124] Setting up relu3
I0428 20:19:42.611960  1409 net.cpp:131] Top shape: 64 10 (640)
I0428 20:19:42.611965  1409 net.cpp:139] Memory required for data: 9952000
I0428 20:19:42.611970  1409 layer_factory.hpp:77] Creating layer loss
I0428 20:19:42.611979  1409 net.cpp:86] Creating Layer loss
I0428 20:19:42.611984  1409 net.cpp:408] loss <- ip3
I0428 20:19:42.611989  1409 net.cpp:408] loss <- label
I0428 20:19:42.611997  1409 net.cpp:382] loss -> loss
I0428 20:19:42.612020  1409 layer_factory.hpp:77] Creating layer loss
…
I0428 20:19:42.613044  1409 solver.cpp:173] Creating test net (#0) specified by net file: ECE595/mnist/train_test/var_everything2/lenet_train_test1347.prototxt
I0428 20:19:42.613106  1409 net.cpp:296] The NetState phase (1) differed from the phase (0) specified by a rule in layer mnist
I0428 20:19:42.613283  1409 net.cpp:53] Initializing net from parameters: 
name: "LeNet"
state {
  phase: TEST
}
layer {
  name: "mnist"
  type: "Data"
  top: "data"
  top: "label"
  include {
    phase: TEST
  }
  transform_param {
    scale: 0.00390625
  }
  data_param {
    source: "examples/mnist/mnist_test_lmdb"
    batch_size: 100
    backend: LMDB
  }
}
layer {
  name: "conv0"
  type: "Convolution"
  bottom: "data"
  top: "conv0"
  param {
    lr_mult: 1
  }
  param {
    lr_mult: 2
  }
  convolution_param {
    num_output: 50
    kernel_size: 5
    stride: 1
    weight_filler {
      type: "xavier"
    }
    bias_filler {
      type: "constant"
    }
  }
}
layer {
  name: "pool0"
  type: "Pooling"
  bottom: "conv0"
  top: "pool0"
  pooling_param {
    pool: MAX
    kernel_size: 2
    stride: 2
  }
}
layer {
  name: "conv1"
  type: "Convolution"
  bottom: "pool0"
  top: "conv1"
  param {
    lr_mult: 1
  }
  param {
    lr_mult: 2
  }
  convolution_param {
    num_output: 25
    kernel_size: 5
    stride: 1
    weight_filler {
      type: "xavier"
    }
    bias_filler {
      type: "constant"
    }
  }
}
layer {
  name: "pool1"
  type: "Pooling"
  bottom: "conv1"
  top: "pool1"
  pooling_param {
    pool: MAX
    kernel_size: 2
    stride: 2
  }
}
layer {
  name: "ip1"
  type: "InnerProduct"
  bottom: "pool1"
  top: "ip1"
  param {
    lr_mult: 1
  }
  param {
    lr_mult: 2
  }
  inner_product_param {
    num_output: 25
    weight_filler {
      type: "xavier"
    }
    bias_filler {
      type: "constant"
    }
  }
}
layer {
  name: "relu1"
  type: "ReLU"
  bottom: "ip1"
  top: "ip1"
}
layer {
  name: "ip2"
  type: "InnerProduct"
  bottom: "ip1"
  top: "ip2"
  param {
    lr_mult: 1
  }
  param {
    lr_mult: 2
  }
  inner_product_param {
    num_output: 10
    weight_filler {
      type: "xavier"
    }
    bias_filler {
      type: "constant"
    }
  }
}
layer {
  name: "relu2"
  type: "ReLU"
  bottom: "ip2"
  top: "ip2"
}
layer {
  name: "ip3"
  type: "InnerProduct"
  bottom: "ip2"
  top: "ip3"
  param {
    lr_mult: 1
  }
  param {
    lr_mult: 2
  }
  inner_product_param {
    num_output: 10
    weight_filler {
      type: "xavier"
    }
    bias_filler {
      type: "constant"
    }
  }
}
layer {
  name: "relu3"
  type: "ReLU"
  bottom: "ip3"
  top: "ip3"
}
layer {
  name: "accuracy"
  type: "Accuracy"
  bottom: "ip3"
  bottom: "label"
  top: "accuracy"
  include {
    phase: TEST
  }
}
layer {
  name: "loss"
  type: "SoftmaxWithLoss"
  bottom: "ip3"
  bottom: "label"
  top: "loss"
}
I0428 20:19:42.613402  1409 layer_factory.hpp:77] Creating layer mnist
I0428 20:19:42.613458  1409 db_lmdb.cpp:35] Opened lmdb examples/mnist/mnist_test_lmdb
I0428 20:19:42.613476  1409 net.cpp:86] Creating Layer mnist
I0428 20:19:42.613499  1409 net.cpp:382] mnist -> data
I0428 20:19:42.613509  1409 net.cpp:382] mnist -> label
I0428 20:19:42.613636  1409 data_layer.cpp:45] output data size: 100,1,28,28
I0428 20:19:42.616047  1409 net.cpp:124] Setting up mnist
I0428 20:19:42.616075  1409 net.cpp:131] Top shape: 100 1 28 28 (78400)
I0428 20:19:42.616096  1409 net.cpp:131] Top shape: 100 (100)
I0428 20:19:42.616097  1409 net.cpp:139] Memory required for data: 314000
I0428 20:19:42.616101  1409 layer_factory.hpp:77] Creating layer label_mnist_1_split
I0428 20:19:42.616111  1409 net.cpp:86] Creating Layer label_mnist_1_split
I0428 20:19:42.616114  1409 net.cpp:408] label_mnist_1_split <- label
I0428 20:19:42.616119  1409 net.cpp:382] label_mnist_1_split -> label_mnist_1_split_0
I0428 20:19:42.616127  1409 net.cpp:382] label_mnist_1_split -> label_mnist_1_split_1
I0428 20:19:42.616227  1409 net.cpp:124] Setting up label_mnist_1_split
I0428 20:19:42.616240  1409 net.cpp:131] Top shape: 100 (100)
I0428 20:19:42.616246  1409 net.cpp:131] Top shape: 100 (100)
I0428 20:19:42.616251  1409 net.cpp:139] Memory required for data: 314800
I0428 20:19:42.616256  1409 layer_factory.hpp:77] Creating layer conv0
I0428 20:19:42.616269  1409 net.cpp:86] Creating Layer conv0
I0428 20:19:42.616274  1409 net.cpp:408] conv0 <- data
I0428 20:19:42.616282  1409 net.cpp:382] conv0 -> conv0
I0428 20:19:42.618216  1409 net.cpp:124] Setting up conv0
I0428 20:19:42.618244  1409 net.cpp:131] Top shape: 100 50 24 24 (2880000)
I0428 20:19:42.618247  1409 net.cpp:139] Memory required for data: 11834800
I0428 20:19:42.618257  1409 layer_factory.hpp:77] Creating layer pool0
I0428 20:19:42.618263  1409 net.cpp:86] Creating Layer pool0
I0428 20:19:42.618266  1409 net.cpp:408] pool0 <- conv0
I0428 20:19:42.618271  1409 net.cpp:382] pool0 -> pool0
I0428 20:19:42.618317  1409 net.cpp:124] Setting up pool0
I0428 20:19:42.618326  1409 net.cpp:131] Top shape: 100 50 12 12 (720000)
I0428 20:19:42.618330  1409 net.cpp:139] Memory required for data: 14714800
I0428 20:19:42.618335  1409 layer_factory.hpp:77] Creating layer conv1
I0428 20:19:42.618353  1409 net.cpp:86] Creating Layer conv1
I0428 20:19:42.618361  1409 net.cpp:408] conv1 <- pool0
I0428 20:19:42.618371  1409 net.cpp:382] conv1 -> conv1
I0428 20:19:42.620489  1409 net.cpp:124] Setting up conv1
I0428 20:19:42.620513  1409 net.cpp:131] Top shape: 100 25 8 8 (160000)
I0428 20:19:42.620535  1409 net.cpp:139] Memory required for data: 15354800
I0428 20:19:42.620544  1409 layer_factory.hpp:77] Creating layer pool1
I0428 20:19:42.620551  1409 net.cpp:86] Creating Layer pool1
I0428 20:19:42.620554  1409 net.cpp:408] pool1 <- conv1
I0428 20:19:42.620559  1409 net.cpp:382] pool1 -> pool1
I0428 20:19:42.620609  1409 net.cpp:124] Setting up pool1
I0428 20:19:42.620620  1409 net.cpp:131] Top shape: 100 25 4 4 (40000)
I0428 20:19:42.620625  1409 net.cpp:139] Memory required for data: 15514800
I0428 20:19:42.620630  1409 layer_factory.hpp:77] Creating layer ip1
I0428 20:19:42.620638  1409 net.cpp:86] Creating Layer ip1
I0428 20:19:42.620643  1409 net.cpp:408] ip1 <- pool1
I0428 20:19:42.620652  1409 net.cpp:382] ip1 -> ip1
I0428 20:19:42.620949  1409 net.cpp:124] Setting up ip1
I0428 20:19:42.620964  1409 net.cpp:131] Top shape: 100 25 (2500)
I0428 20:19:42.620982  1409 net.cpp:139] Memory required for data: 15524800
I0428 20:19:42.620995  1409 layer_factory.hpp:77] Creating layer relu1
I0428 20:19:42.621006  1409 net.cpp:86] Creating Layer relu1
I0428 20:19:42.621011  1409 net.cpp:408] relu1 <- ip1
I0428 20:19:42.621018  1409 net.cpp:369] relu1 -> ip1 (in-place)
I0428 20:19:42.621304  1409 net.cpp:124] Setting up relu1
I0428 20:19:42.621330  1409 net.cpp:131] Top shape: 100 25 (2500)
I0428 20:19:42.621333  1409 net.cpp:139] Memory required for data: 15534800
I0428 20:19:42.621353  1409 layer_factory.hpp:77] Creating layer ip2
I0428 20:19:42.621364  1409 net.cpp:86] Creating Layer ip2
I0428 20:19:42.621368  1409 net.cpp:408] ip2 <- ip1
I0428 20:19:42.621376  1409 net.cpp:382] ip2 -> ip2
I0428 20:19:42.621526  1409 net.cpp:124] Setting up ip2
I0428 20:19:42.621538  1409 net.cpp:131] Top shape: 100 10 (1000)
I0428 20:19:42.621543  1409 net.cpp:139] Memory required for data: 15538800
I0428 20:19:42.621552  1409 layer_factory.hpp:77] Creating layer relu2
I0428 20:19:42.621562  1409 net.cpp:86] Creating Layer relu2
I0428 20:19:42.621567  1409 net.cpp:408] relu2 <- ip2
I0428 20:19:42.621572  1409 net.cpp:369] relu2 -> ip2 (in-place)
I0428 20:19:42.621793  1409 net.cpp:124] Setting up relu2
I0428 20:19:42.621814  1409 net.cpp:131] Top shape: 100 10 (1000)
I0428 20:19:42.621819  1409 net.cpp:139] Memory required for data: 15542800
I0428 20:19:42.621824  1409 layer_factory.hpp:77] Creating layer ip3
I0428 20:19:42.621834  1409 net.cpp:86] Creating Layer ip3
I0428 20:19:42.621839  1409 net.cpp:408] ip3 <- ip2
I0428 20:19:42.621846  1409 net.cpp:382] ip3 -> ip3
I0428 20:19:42.621971  1409 net.cpp:124] Setting up ip3
I0428 20:19:42.621984  1409 net.cpp:131] Top shape: 100 10 (1000)
I0428 20:19:42.621987  1409 net.cpp:139] Memory required for data: 15546800
I0428 20:19:42.621999  1409 layer_factory.hpp:77] Creating layer relu3
I0428 20:19:42.622005  1409 net.cpp:86] Creating Layer relu3
I0428 20:19:42.622009  1409 net.cpp:408] relu3 <- ip3
I0428 20:19:42.622015  1409 net.cpp:369] relu3 -> ip3 (in-place)
I0428 20:19:42.623082  1409 net.cpp:124] Setting up relu3
I0428 20:19:42.623098  1409 net.cpp:131] Top shape: 100 10 (1000)
I0428 20:19:42.623103  1409 net.cpp:139] Memory required for data: 15550800
I0428 20:19:42.623108  1409 layer_factory.hpp:77] Creating layer ip3_relu3_0_split
I0428 20:19:42.623116  1409 net.cpp:86] Creating Layer ip3_relu3_0_split
I0428 20:19:42.623121  1409 net.cpp:408] ip3_relu3_0_split <- ip3
I0428 20:19:42.623128  1409 net.cpp:382] ip3_relu3_0_split -> ip3_relu3_0_split_0
I0428 20:19:42.623137  1409 net.cpp:382] ip3_relu3_0_split -> ip3_relu3_0_split_1
I0428 20:19:42.623184  1409 net.cpp:124] Setting up ip3_relu3_0_split
I0428 20:19:42.623193  1409 net.cpp:131] Top shape: 100 10 (1000)
I0428 20:19:42.623199  1409 net.cpp:131] Top shape: 100 10 (1000)
I0428 20:19:42.623203  1409 net.cpp:139] Memory required for data: 15558800
I0428 20:19:42.623208  1409 layer_factory.hpp:77] Creating layer accuracy
I0428 20:19:42.623216  1409 net.cpp:86] Creating Layer accuracy
I0428 20:19:42.623220  1409 net.cpp:408] accuracy <- ip3_relu3_0_split_0
I0428 20:19:42.623226  1409 net.cpp:408] accuracy <- label_mnist_1_split_0
I0428 20:19:42.623232  1409 net.cpp:382] accuracy -> accuracy
…
