…
I0428 20:22:42.749980  2045 net.cpp:296] The NetState phase (0) differed from the phase (1) specified by a rule in layer mnist
I0428 20:22:42.750000  2045 net.cpp:296] The NetState phase (0) differed from the phase (1) specified by a rule in layer accuracy
I0428 20:22:42.750088  2045 net.cpp:53] Initializing net from parameters: 
name: "LeNet"
state {
  phase: TRAIN
  level: 0
  stage: ""
}
layer {
  name: "mnist"
  type: "Data"
  top: "data"
  top: "label"
  include {
    phase: TRAIN
  }
  transform_param {
    scale: 0.00390625
  }
  data_param {
    source: "examples/mnist/mnist_train_lmdb"
    batch_size: 64
    backend: LMDB
  }
}
layer {
  name: "conv0"
  type: "Convolution"
  bottom: "data"
  top: "conv0"
  param {
    lr_mult: 1
  }
  param {
    lr_mult: 2
  }
  convolution_param {
    num_output: 50
    kernel_size: 5
    stride: 1
    weight_filler {
      type: "xavier"
    }
    bias_filler {
      type: "constant"
    }
  }
}
layer {
  name: "pool0"
  type: "Pooling"
  bottom: "conv0"
  top: "pool0"
  pooling_param {
    pool: MAX
    kernel_size: 2
    stride: 2
  }
}
layer {
  name: "conv1"
  type: "Convolution"
  bottom: "pool0"
  top: "conv1"
  param {
    lr_mult: 1
  }
  param {
    lr_mult: 2
  }
  convolution_param {
    num_output: 100
    kernel_size: 5
    stride: 1
    weight_filler {
      type: "xavier"
    }
    bias_filler {
      type: "constant"
    }
  }
}
layer {
  name: "pool1"
  type: "Pooling"
  bottom: "conv1"
  top: "pool1"
  pooling_param {
    pool: MAX
    kernel_size: 2
    stride: 2
  }
}
layer {
  name: "ip1"
  type: "InnerProduct"
  bottom: "pool1"
  top: "ip1"
  param {
    lr_mult: 1
  }
  param {
    lr_mult: 2
  }
  inner_product_param {
    num_output: 10
    weight_filler {
      type: "xavier"
    }
    bias_filler {
      type: "constant"
    }
  }
}
layer {
  name: "relu1"
  type: "ReLU"
  bottom: "ip1"
  top: "ip1"
}
layer {
  name: "ip2"
  type: "InnerProduct"
  bottom: "ip1"
  top: "ip2"
  param {
    lr_mult: 1
  }
  param {
    lr_mult: 2
  }
  inner_product_param {
    num_output: 10
    weight_filler {
      type: "xavier"
    }
    bias_filler {
      type: "constant"
    }
  }
}
layer {
  name: "relu2"
  type: "ReLU"
  bottom: "ip2"
  top: "ip2"
}
layer {
  name: "loss"
  type: "SoftmaxWithLoss"
  bottom: "ip2"
  bottom: "label"
  top: "loss"
}
I0428 20:22:42.750165  2045 layer_factory.hpp:77] Creating layer mnist
I0428 20:22:42.750264  2045 db_lmdb.cpp:35] Opened lmdb examples/mnist/mnist_train_lmdb
I0428 20:22:42.750288  2045 net.cpp:86] Creating Layer mnist
I0428 20:22:42.750296  2045 net.cpp:382] mnist -> data
I0428 20:22:42.750319  2045 net.cpp:382] mnist -> label
I0428 20:22:42.751408  2045 data_layer.cpp:45] output data size: 64,1,28,28
I0428 20:22:42.753865  2045 net.cpp:124] Setting up mnist
I0428 20:22:42.753882  2045 net.cpp:131] Top shape: 64 1 28 28 (50176)
I0428 20:22:42.753890  2045 net.cpp:131] Top shape: 64 (64)
I0428 20:22:42.753892  2045 net.cpp:139] Memory required for data: 200960
I0428 20:22:42.753900  2045 layer_factory.hpp:77] Creating layer conv0
I0428 20:22:42.753916  2045 net.cpp:86] Creating Layer conv0
I0428 20:22:42.753921  2045 net.cpp:408] conv0 <- data
I0428 20:22:42.753934  2045 net.cpp:382] conv0 -> conv0
I0428 20:22:43.049549  2045 net.cpp:124] Setting up conv0
I0428 20:22:43.049582  2045 net.cpp:131] Top shape: 64 50 24 24 (1843200)
I0428 20:22:43.049587  2045 net.cpp:139] Memory required for data: 7573760
I0428 20:22:43.049626  2045 layer_factory.hpp:77] Creating layer pool0
I0428 20:22:43.049643  2045 net.cpp:86] Creating Layer pool0
I0428 20:22:43.049646  2045 net.cpp:408] pool0 <- conv0
I0428 20:22:43.049654  2045 net.cpp:382] pool0 -> pool0
I0428 20:22:43.049710  2045 net.cpp:124] Setting up pool0
I0428 20:22:43.049720  2045 net.cpp:131] Top shape: 64 50 12 12 (460800)
I0428 20:22:43.049722  2045 net.cpp:139] Memory required for data: 9416960
I0428 20:22:43.049726  2045 layer_factory.hpp:77] Creating layer conv1
I0428 20:22:43.049739  2045 net.cpp:86] Creating Layer conv1
I0428 20:22:43.049743  2045 net.cpp:408] conv1 <- pool0
I0428 20:22:43.049749  2045 net.cpp:382] conv1 -> conv1
I0428 20:22:43.053709  2045 net.cpp:124] Setting up conv1
I0428 20:22:43.053727  2045 net.cpp:131] Top shape: 64 100 8 8 (409600)
I0428 20:22:43.053732  2045 net.cpp:139] Memory required for data: 11055360
I0428 20:22:43.053742  2045 layer_factory.hpp:77] Creating layer pool1
I0428 20:22:43.053751  2045 net.cpp:86] Creating Layer pool1
I0428 20:22:43.053757  2045 net.cpp:408] pool1 <- conv1
I0428 20:22:43.053763  2045 net.cpp:382] pool1 -> pool1
I0428 20:22:43.053807  2045 net.cpp:124] Setting up pool1
I0428 20:22:43.053812  2045 net.cpp:131] Top shape: 64 100 4 4 (102400)
I0428 20:22:43.053817  2045 net.cpp:139] Memory required for data: 11464960
I0428 20:22:43.053819  2045 layer_factory.hpp:77] Creating layer ip1
I0428 20:22:43.053828  2045 net.cpp:86] Creating Layer ip1
I0428 20:22:43.053833  2045 net.cpp:408] ip1 <- pool1
I0428 20:22:43.053838  2045 net.cpp:382] ip1 -> ip1
I0428 20:22:43.055032  2045 net.cpp:124] Setting up ip1
I0428 20:22:43.055047  2045 net.cpp:131] Top shape: 64 10 (640)
I0428 20:22:43.055052  2045 net.cpp:139] Memory required for data: 11467520
I0428 20:22:43.055061  2045 layer_factory.hpp:77] Creating layer relu1
I0428 20:22:43.055069  2045 net.cpp:86] Creating Layer relu1
I0428 20:22:43.055073  2045 net.cpp:408] relu1 <- ip1
I0428 20:22:43.055079  2045 net.cpp:369] relu1 -> ip1 (in-place)
I0428 20:22:43.055299  2045 net.cpp:124] Setting up relu1
I0428 20:22:43.055310  2045 net.cpp:131] Top shape: 64 10 (640)
I0428 20:22:43.055313  2045 net.cpp:139] Memory required for data: 11470080
I0428 20:22:43.055316  2045 layer_factory.hpp:77] Creating layer ip2
I0428 20:22:43.055325  2045 net.cpp:86] Creating Layer ip2
I0428 20:22:43.055328  2045 net.cpp:408] ip2 <- ip1
I0428 20:22:43.055335  2045 net.cpp:382] ip2 -> ip2
I0428 20:22:43.055439  2045 net.cpp:124] Setting up ip2
I0428 20:22:43.055449  2045 net.cpp:131] Top shape: 64 10 (640)
I0428 20:22:43.055451  2045 net.cpp:139] Memory required for data: 11472640
I0428 20:22:43.055457  2045 layer_factory.hpp:77] Creating layer relu2
I0428 20:22:43.055464  2045 net.cpp:86] Creating Layer relu2
I0428 20:22:43.055467  2045 net.cpp:408] relu2 <- ip2
I0428 20:22:43.055472  2045 net.cpp:369] relu2 -> ip2 (in-place)
I0428 20:22:43.056288  2045 net.cpp:124] Setting up relu2
I0428 20:22:43.056301  2045 net.cpp:131] Top shape: 64 10 (640)
I0428 20:22:43.056305  2045 net.cpp:139] Memory required for data: 11475200
I0428 20:22:43.056309  2045 layer_factory.hpp:77] Creating layer loss
I0428 20:22:43.056316  2045 net.cpp:86] Creating Layer loss
I0428 20:22:43.056320  2045 net.cpp:408] loss <- ip2
I0428 20:22:43.056325  2045 net.cpp:408] loss <- label
I0428 20:22:43.056331  2045 net.cpp:382] loss -> loss
I0428 20:22:43.056349  2045 layer_factory.hpp:77] Creating layer loss
…
I0428 20:22:43.057049  2045 solver.cpp:173] Creating test net (#0) specified by net file: ECE595/mnist/train_test/var_everything2/lenet_train_test1409.prototxt
I0428 20:22:43.057080  2045 net.cpp:296] The NetState phase (1) differed from the phase (0) specified by a rule in layer mnist
I0428 20:22:43.057179  2045 net.cpp:53] Initializing net from parameters: 
name: "LeNet"
state {
  phase: TEST
}
layer {
  name: "mnist"
  type: "Data"
  top: "data"
  top: "label"
  include {
    phase: TEST
  }
  transform_param {
    scale: 0.00390625
  }
  data_param {
    source: "examples/mnist/mnist_test_lmdb"
    batch_size: 100
    backend: LMDB
  }
}
layer {
  name: "conv0"
  type: "Convolution"
  bottom: "data"
  top: "conv0"
  param {
    lr_mult: 1
  }
  param {
    lr_mult: 2
  }
  convolution_param {
    num_output: 50
    kernel_size: 5
    stride: 1
    weight_filler {
      type: "xavier"
    }
    bias_filler {
      type: "constant"
    }
  }
}
layer {
  name: "pool0"
  type: "Pooling"
  bottom: "conv0"
  top: "pool0"
  pooling_param {
    pool: MAX
    kernel_size: 2
    stride: 2
  }
}
layer {
  name: "conv1"
  type: "Convolution"
  bottom: "pool0"
  top: "conv1"
  param {
    lr_mult: 1
  }
  param {
    lr_mult: 2
  }
  convolution_param {
    num_output: 100
    kernel_size: 5
    stride: 1
    weight_filler {
      type: "xavier"
    }
    bias_filler {
      type: "constant"
    }
  }
}
layer {
  name: "pool1"
  type: "Pooling"
  bottom: "conv1"
  top: "pool1"
  pooling_param {
    pool: MAX
    kernel_size: 2
    stride: 2
  }
}
layer {
  name: "ip1"
  type: "InnerProduct"
  bottom: "pool1"
  top: "ip1"
  param {
    lr_mult: 1
  }
  param {
    lr_mult: 2
  }
  inner_product_param {
    num_output: 10
    weight_filler {
      type: "xavier"
    }
    bias_filler {
      type: "constant"
    }
  }
}
layer {
  name: "relu1"
  type: "ReLU"
  bottom: "ip1"
  top: "ip1"
}
layer {
  name: "ip2"
  type: "InnerProduct"
  bottom: "ip1"
  top: "ip2"
  param {
    lr_mult: 1
  }
  param {
    lr_mult: 2
  }
  inner_product_param {
    num_output: 10
    weight_filler {
      type: "xavier"
    }
    bias_filler {
      type: "constant"
    }
  }
}
layer {
  name: "relu2"
  type: "ReLU"
  bottom: "ip2"
  top: "ip2"
}
layer {
  name: "accuracy"
  type: "Accuracy"
  bottom: "ip2"
  bottom: "label"
  top: "accuracy"
  include {
    phase: TEST
  }
}
layer {
  name: "loss"
  type: "SoftmaxWithLoss"
  bottom: "ip2"
  bottom: "label"
  top: "loss"
}
I0428 20:22:43.057252  2045 layer_factory.hpp:77] Creating layer mnist
I0428 20:22:43.057304  2045 db_lmdb.cpp:35] Opened lmdb examples/mnist/mnist_test_lmdb
I0428 20:22:43.057318  2045 net.cpp:86] Creating Layer mnist
I0428 20:22:43.057323  2045 net.cpp:382] mnist -> data
I0428 20:22:43.057332  2045 net.cpp:382] mnist -> label
I0428 20:22:43.057428  2045 data_layer.cpp:45] output data size: 100,1,28,28
I0428 20:22:43.058626  2045 net.cpp:124] Setting up mnist
I0428 20:22:43.058641  2045 net.cpp:131] Top shape: 100 1 28 28 (78400)
I0428 20:22:43.058647  2045 net.cpp:131] Top shape: 100 (100)
I0428 20:22:43.058650  2045 net.cpp:139] Memory required for data: 314000
I0428 20:22:43.058655  2045 layer_factory.hpp:77] Creating layer label_mnist_1_split
I0428 20:22:43.058661  2045 net.cpp:86] Creating Layer label_mnist_1_split
I0428 20:22:43.058665  2045 net.cpp:408] label_mnist_1_split <- label
I0428 20:22:43.058671  2045 net.cpp:382] label_mnist_1_split -> label_mnist_1_split_0
I0428 20:22:43.058678  2045 net.cpp:382] label_mnist_1_split -> label_mnist_1_split_1
I0428 20:22:43.058768  2045 net.cpp:124] Setting up label_mnist_1_split
I0428 20:22:43.058778  2045 net.cpp:131] Top shape: 100 (100)
I0428 20:22:43.058782  2045 net.cpp:131] Top shape: 100 (100)
I0428 20:22:43.058785  2045 net.cpp:139] Memory required for data: 314800
I0428 20:22:43.058789  2045 layer_factory.hpp:77] Creating layer conv0
I0428 20:22:43.058799  2045 net.cpp:86] Creating Layer conv0
I0428 20:22:43.058802  2045 net.cpp:408] conv0 <- data
I0428 20:22:43.058809  2045 net.cpp:382] conv0 -> conv0
I0428 20:22:43.060447  2045 net.cpp:124] Setting up conv0
I0428 20:22:43.060466  2045 net.cpp:131] Top shape: 100 50 24 24 (2880000)
I0428 20:22:43.060470  2045 net.cpp:139] Memory required for data: 11834800
I0428 20:22:43.060480  2045 layer_factory.hpp:77] Creating layer pool0
I0428 20:22:43.060488  2045 net.cpp:86] Creating Layer pool0
I0428 20:22:43.060492  2045 net.cpp:408] pool0 <- conv0
I0428 20:22:43.060498  2045 net.cpp:382] pool0 -> pool0
I0428 20:22:43.060542  2045 net.cpp:124] Setting up pool0
I0428 20:22:43.060549  2045 net.cpp:131] Top shape: 100 50 12 12 (720000)
I0428 20:22:43.060552  2045 net.cpp:139] Memory required for data: 14714800
I0428 20:22:43.060556  2045 layer_factory.hpp:77] Creating layer conv1
I0428 20:22:43.060570  2045 net.cpp:86] Creating Layer conv1
I0428 20:22:43.060575  2045 net.cpp:408] conv1 <- pool0
I0428 20:22:43.060580  2045 net.cpp:382] conv1 -> conv1
I0428 20:22:43.064007  2045 net.cpp:124] Setting up conv1
I0428 20:22:43.064023  2045 net.cpp:131] Top shape: 100 100 8 8 (640000)
I0428 20:22:43.064028  2045 net.cpp:139] Memory required for data: 17274800
I0428 20:22:43.064038  2045 layer_factory.hpp:77] Creating layer pool1
I0428 20:22:43.064047  2045 net.cpp:86] Creating Layer pool1
I0428 20:22:43.064052  2045 net.cpp:408] pool1 <- conv1
I0428 20:22:43.064059  2045 net.cpp:382] pool1 -> pool1
I0428 20:22:43.064103  2045 net.cpp:124] Setting up pool1
I0428 20:22:43.064110  2045 net.cpp:131] Top shape: 100 100 4 4 (160000)
I0428 20:22:43.064112  2045 net.cpp:139] Memory required for data: 17914800
I0428 20:22:43.064116  2045 layer_factory.hpp:77] Creating layer ip1
I0428 20:22:43.064124  2045 net.cpp:86] Creating Layer ip1
I0428 20:22:43.064128  2045 net.cpp:408] ip1 <- pool1
I0428 20:22:43.064133  2045 net.cpp:382] ip1 -> ip1
I0428 20:22:43.064348  2045 net.cpp:124] Setting up ip1
I0428 20:22:43.064358  2045 net.cpp:131] Top shape: 100 10 (1000)
I0428 20:22:43.064362  2045 net.cpp:139] Memory required for data: 17918800
I0428 20:22:43.064369  2045 layer_factory.hpp:77] Creating layer relu1
I0428 20:22:43.064375  2045 net.cpp:86] Creating Layer relu1
I0428 20:22:43.064378  2045 net.cpp:408] relu1 <- ip1
I0428 20:22:43.064385  2045 net.cpp:369] relu1 -> ip1 (in-place)
I0428 20:22:43.064571  2045 net.cpp:124] Setting up relu1
I0428 20:22:43.064581  2045 net.cpp:131] Top shape: 100 10 (1000)
I0428 20:22:43.064585  2045 net.cpp:139] Memory required for data: 17922800
I0428 20:22:43.064589  2045 layer_factory.hpp:77] Creating layer ip2
I0428 20:22:43.064596  2045 net.cpp:86] Creating Layer ip2
I0428 20:22:43.064599  2045 net.cpp:408] ip2 <- ip1
I0428 20:22:43.064606  2045 net.cpp:382] ip2 -> ip2
I0428 20:22:43.064720  2045 net.cpp:124] Setting up ip2
I0428 20:22:43.064728  2045 net.cpp:131] Top shape: 100 10 (1000)
I0428 20:22:43.064733  2045 net.cpp:139] Memory required for data: 17926800
I0428 20:22:43.064738  2045 layer_factory.hpp:77] Creating layer relu2
I0428 20:22:43.064744  2045 net.cpp:86] Creating Layer relu2
I0428 20:22:43.064749  2045 net.cpp:408] relu2 <- ip2
I0428 20:22:43.064754  2045 net.cpp:369] relu2 -> ip2 (in-place)
I0428 20:22:43.064940  2045 net.cpp:124] Setting up relu2
I0428 20:22:43.064950  2045 net.cpp:131] Top shape: 100 10 (1000)
I0428 20:22:43.064954  2045 net.cpp:139] Memory required for data: 17930800
I0428 20:22:43.064957  2045 layer_factory.hpp:77] Creating layer ip2_relu2_0_split
I0428 20:22:43.064963  2045 net.cpp:86] Creating Layer ip2_relu2_0_split
I0428 20:22:43.064968  2045 net.cpp:408] ip2_relu2_0_split <- ip2
I0428 20:22:43.064973  2045 net.cpp:382] ip2_relu2_0_split -> ip2_relu2_0_split_0
I0428 20:22:43.064991  2045 net.cpp:382] ip2_relu2_0_split -> ip2_relu2_0_split_1
I0428 20:22:43.065033  2045 net.cpp:124] Setting up ip2_relu2_0_split
I0428 20:22:43.065042  2045 net.cpp:131] Top shape: 100 10 (1000)
I0428 20:22:43.065045  2045 net.cpp:131] Top shape: 100 10 (1000)
I0428 20:22:43.065049  2045 net.cpp:139] Memory required for data: 17938800
I0428 20:22:43.065052  2045 layer_factory.hpp:77] Creating layer accuracy
I0428 20:22:43.065058  2045 net.cpp:86] Creating Layer accuracy
I0428 20:22:43.065062  2045 net.cpp:408] accuracy <- ip2_relu2_0_split_0
I0428 20:22:43.065066  2045 net.cpp:408] accuracy <- label_mnist_1_split_0
I0428 20:22:43.065071  2045 net.cpp:382] accuracy -> accuracy
…
