…
I0428 20:20:32.735045  1569 net.cpp:296] The NetState phase (0) differed from the phase (1) specified by a rule in layer mnist
I0428 20:20:32.735060  1569 net.cpp:296] The NetState phase (0) differed from the phase (1) specified by a rule in layer accuracy
I0428 20:20:32.735141  1569 net.cpp:53] Initializing net from parameters: 
name: "LeNet"
state {
  phase: TRAIN
  level: 0
  stage: ""
}
layer {
  name: "mnist"
  type: "Data"
  top: "data"
  top: "label"
  include {
    phase: TRAIN
  }
  transform_param {
    scale: 0.00390625
  }
  data_param {
    source: "examples/mnist/mnist_train_lmdb"
    batch_size: 64
    backend: LMDB
  }
}
layer {
  name: "conv0"
  type: "Convolution"
  bottom: "data"
  top: "conv0"
  param {
    lr_mult: 1
  }
  param {
    lr_mult: 2
  }
  convolution_param {
    num_output: 50
    kernel_size: 5
    stride: 1
    weight_filler {
      type: "xavier"
    }
    bias_filler {
      type: "constant"
    }
  }
}
layer {
  name: "pool0"
  type: "Pooling"
  bottom: "conv0"
  top: "pool0"
  pooling_param {
    pool: MAX
    kernel_size: 2
    stride: 2
  }
}
layer {
  name: "conv1"
  type: "Convolution"
  bottom: "pool0"
  top: "conv1"
  param {
    lr_mult: 1
  }
  param {
    lr_mult: 2
  }
  convolution_param {
    num_output: 50
    kernel_size: 5
    stride: 1
    weight_filler {
      type: "xavier"
    }
    bias_filler {
      type: "constant"
    }
  }
}
layer {
  name: "pool1"
  type: "Pooling"
  bottom: "conv1"
  top: "pool1"
  pooling_param {
    pool: MAX
    kernel_size: 2
    stride: 2
  }
}
layer {
  name: "ip1"
  type: "InnerProduct"
  bottom: "pool1"
  top: "ip1"
  param {
    lr_mult: 1
  }
  param {
    lr_mult: 2
  }
  inner_product_param {
    num_output: 10
    weight_filler {
      type: "xavier"
    }
    bias_filler {
      type: "constant"
    }
  }
}
layer {
  name: "relu1"
  type: "ReLU"
  bottom: "ip1"
  top: "ip1"
}
layer {
  name: "loss"
  type: "SoftmaxWithLoss"
  bottom: "ip1"
  bottom: "label"
  top: "loss"
}
I0428 20:20:32.735211  1569 layer_factory.hpp:77] Creating layer mnist
I0428 20:20:32.735312  1569 db_lmdb.cpp:35] Opened lmdb examples/mnist/mnist_train_lmdb
I0428 20:20:32.735337  1569 net.cpp:86] Creating Layer mnist
I0428 20:20:32.735344  1569 net.cpp:382] mnist -> data
I0428 20:20:32.735368  1569 net.cpp:382] mnist -> label
I0428 20:20:32.736455  1569 data_layer.cpp:45] output data size: 64,1,28,28
I0428 20:20:32.739065  1569 net.cpp:124] Setting up mnist
I0428 20:20:32.739084  1569 net.cpp:131] Top shape: 64 1 28 28 (50176)
I0428 20:20:32.739092  1569 net.cpp:131] Top shape: 64 (64)
I0428 20:20:32.739095  1569 net.cpp:139] Memory required for data: 200960
I0428 20:20:32.739102  1569 layer_factory.hpp:77] Creating layer conv0
I0428 20:20:32.739120  1569 net.cpp:86] Creating Layer conv0
I0428 20:20:32.739125  1569 net.cpp:408] conv0 <- data
I0428 20:20:32.739137  1569 net.cpp:382] conv0 -> conv0
I0428 20:20:33.003036  1569 net.cpp:124] Setting up conv0
I0428 20:20:33.003078  1569 net.cpp:131] Top shape: 64 50 24 24 (1843200)
I0428 20:20:33.003082  1569 net.cpp:139] Memory required for data: 7573760
I0428 20:20:33.003098  1569 layer_factory.hpp:77] Creating layer pool0
I0428 20:20:33.003110  1569 net.cpp:86] Creating Layer pool0
I0428 20:20:33.003114  1569 net.cpp:408] pool0 <- conv0
I0428 20:20:33.003135  1569 net.cpp:382] pool0 -> pool0
I0428 20:20:33.003211  1569 net.cpp:124] Setting up pool0
I0428 20:20:33.003218  1569 net.cpp:131] Top shape: 64 50 12 12 (460800)
I0428 20:20:33.003237  1569 net.cpp:139] Memory required for data: 9416960
I0428 20:20:33.003240  1569 layer_factory.hpp:77] Creating layer conv1
I0428 20:20:33.003252  1569 net.cpp:86] Creating Layer conv1
I0428 20:20:33.003254  1569 net.cpp:408] conv1 <- pool0
I0428 20:20:33.003259  1569 net.cpp:382] conv1 -> conv1
I0428 20:20:33.005630  1569 net.cpp:124] Setting up conv1
I0428 20:20:33.005659  1569 net.cpp:131] Top shape: 64 50 8 8 (204800)
I0428 20:20:33.005664  1569 net.cpp:139] Memory required for data: 10236160
I0428 20:20:33.005672  1569 layer_factory.hpp:77] Creating layer pool1
I0428 20:20:33.005681  1569 net.cpp:86] Creating Layer pool1
I0428 20:20:33.005683  1569 net.cpp:408] pool1 <- conv1
I0428 20:20:33.005688  1569 net.cpp:382] pool1 -> pool1
I0428 20:20:33.005723  1569 net.cpp:124] Setting up pool1
I0428 20:20:33.005728  1569 net.cpp:131] Top shape: 64 50 4 4 (51200)
I0428 20:20:33.005731  1569 net.cpp:139] Memory required for data: 10440960
I0428 20:20:33.005734  1569 layer_factory.hpp:77] Creating layer ip1
I0428 20:20:33.005741  1569 net.cpp:86] Creating Layer ip1
I0428 20:20:33.005744  1569 net.cpp:408] ip1 <- pool1
I0428 20:20:33.005749  1569 net.cpp:382] ip1 -> ip1
I0428 20:20:33.006750  1569 net.cpp:124] Setting up ip1
I0428 20:20:33.006762  1569 net.cpp:131] Top shape: 64 10 (640)
I0428 20:20:33.006781  1569 net.cpp:139] Memory required for data: 10443520
I0428 20:20:33.006790  1569 layer_factory.hpp:77] Creating layer relu1
I0428 20:20:33.006798  1569 net.cpp:86] Creating Layer relu1
I0428 20:20:33.006816  1569 net.cpp:408] relu1 <- ip1
I0428 20:20:33.006820  1569 net.cpp:369] relu1 -> ip1 (in-place)
I0428 20:20:33.006989  1569 net.cpp:124] Setting up relu1
I0428 20:20:33.006999  1569 net.cpp:131] Top shape: 64 10 (640)
I0428 20:20:33.007001  1569 net.cpp:139] Memory required for data: 10446080
I0428 20:20:33.007005  1569 layer_factory.hpp:77] Creating layer loss
I0428 20:20:33.007010  1569 net.cpp:86] Creating Layer loss
I0428 20:20:33.007014  1569 net.cpp:408] loss <- ip1
I0428 20:20:33.007019  1569 net.cpp:408] loss <- label
I0428 20:20:33.007024  1569 net.cpp:382] loss -> loss
I0428 20:20:33.007041  1569 layer_factory.hpp:77] Creating layer loss
…
I0428 20:20:33.008285  1569 solver.cpp:173] Creating test net (#0) specified by net file: ECE595/mnist/train_test/var_everything2/lenet_train_test1365.prototxt
I0428 20:20:33.008308  1569 net.cpp:296] The NetState phase (1) differed from the phase (0) specified by a rule in layer mnist
I0428 20:20:33.008399  1569 net.cpp:53] Initializing net from parameters: 
name: "LeNet"
state {
  phase: TEST
}
layer {
  name: "mnist"
  type: "Data"
  top: "data"
  top: "label"
  include {
    phase: TEST
  }
  transform_param {
    scale: 0.00390625
  }
  data_param {
    source: "examples/mnist/mnist_test_lmdb"
    batch_size: 100
    backend: LMDB
  }
}
layer {
  name: "conv0"
  type: "Convolution"
  bottom: "data"
  top: "conv0"
  param {
    lr_mult: 1
  }
  param {
    lr_mult: 2
  }
  convolution_param {
    num_output: 50
    kernel_size: 5
    stride: 1
    weight_filler {
      type: "xavier"
    }
    bias_filler {
      type: "constant"
    }
  }
}
layer {
  name: "pool0"
  type: "Pooling"
  bottom: "conv0"
  top: "pool0"
  pooling_param {
    pool: MAX
    kernel_size: 2
    stride: 2
  }
}
layer {
  name: "conv1"
  type: "Convolution"
  bottom: "pool0"
  top: "conv1"
  param {
    lr_mult: 1
  }
  param {
    lr_mult: 2
  }
  convolution_param {
    num_output: 50
    kernel_size: 5
    stride: 1
    weight_filler {
      type: "xavier"
    }
    bias_filler {
      type: "constant"
    }
  }
}
layer {
  name: "pool1"
  type: "Pooling"
  bottom: "conv1"
  top: "pool1"
  pooling_param {
    pool: MAX
    kernel_size: 2
    stride: 2
  }
}
layer {
  name: "ip1"
  type: "InnerProduct"
  bottom: "pool1"
  top: "ip1"
  param {
    lr_mult: 1
  }
  param {
    lr_mult: 2
  }
  inner_product_param {
    num_output: 10
    weight_filler {
      type: "xavier"
    }
    bias_filler {
      type: "constant"
    }
  }
}
layer {
  name: "relu1"
  type: "ReLU"
  bottom: "ip1"
  top: "ip1"
}
layer {
  name: "accuracy"
  type: "Accuracy"
  bottom: "ip1"
  bottom: "label"
  top: "accuracy"
  include {
    phase: TEST
  }
}
layer {
  name: "loss"
  type: "SoftmaxWithLoss"
  bottom: "ip1"
  bottom: "label"
  top: "loss"
}
I0428 20:20:33.008472  1569 layer_factory.hpp:77] Creating layer mnist
I0428 20:20:33.008533  1569 db_lmdb.cpp:35] Opened lmdb examples/mnist/mnist_test_lmdb
I0428 20:20:33.008545  1569 net.cpp:86] Creating Layer mnist
I0428 20:20:33.008550  1569 net.cpp:382] mnist -> data
I0428 20:20:33.008558  1569 net.cpp:382] mnist -> label
I0428 20:20:33.008656  1569 data_layer.cpp:45] output data size: 100,1,28,28
I0428 20:20:33.010751  1569 net.cpp:124] Setting up mnist
I0428 20:20:33.010781  1569 net.cpp:131] Top shape: 100 1 28 28 (78400)
I0428 20:20:33.010800  1569 net.cpp:131] Top shape: 100 (100)
I0428 20:20:33.010803  1569 net.cpp:139] Memory required for data: 314000
I0428 20:20:33.010807  1569 layer_factory.hpp:77] Creating layer label_mnist_1_split
I0428 20:20:33.010814  1569 net.cpp:86] Creating Layer label_mnist_1_split
I0428 20:20:33.010818  1569 net.cpp:408] label_mnist_1_split <- label
I0428 20:20:33.010823  1569 net.cpp:382] label_mnist_1_split -> label_mnist_1_split_0
I0428 20:20:33.010829  1569 net.cpp:382] label_mnist_1_split -> label_mnist_1_split_1
I0428 20:20:33.010867  1569 net.cpp:124] Setting up label_mnist_1_split
I0428 20:20:33.010874  1569 net.cpp:131] Top shape: 100 (100)
I0428 20:20:33.010891  1569 net.cpp:131] Top shape: 100 (100)
I0428 20:20:33.010893  1569 net.cpp:139] Memory required for data: 314800
I0428 20:20:33.010896  1569 layer_factory.hpp:77] Creating layer conv0
I0428 20:20:33.010905  1569 net.cpp:86] Creating Layer conv0
I0428 20:20:33.010907  1569 net.cpp:408] conv0 <- data
I0428 20:20:33.010912  1569 net.cpp:382] conv0 -> conv0
I0428 20:20:33.011924  1569 net.cpp:124] Setting up conv0
I0428 20:20:33.011937  1569 net.cpp:131] Top shape: 100 50 24 24 (2880000)
I0428 20:20:33.011941  1569 net.cpp:139] Memory required for data: 11834800
I0428 20:20:33.011950  1569 layer_factory.hpp:77] Creating layer pool0
I0428 20:20:33.011958  1569 net.cpp:86] Creating Layer pool0
I0428 20:20:33.011961  1569 net.cpp:408] pool0 <- conv0
I0428 20:20:33.011967  1569 net.cpp:382] pool0 -> pool0
I0428 20:20:33.012032  1569 net.cpp:124] Setting up pool0
I0428 20:20:33.012049  1569 net.cpp:131] Top shape: 100 50 12 12 (720000)
I0428 20:20:33.012053  1569 net.cpp:139] Memory required for data: 14714800
I0428 20:20:33.012055  1569 layer_factory.hpp:77] Creating layer conv1
I0428 20:20:33.012063  1569 net.cpp:86] Creating Layer conv1
I0428 20:20:33.012066  1569 net.cpp:408] conv1 <- pool0
I0428 20:20:33.012074  1569 net.cpp:382] conv1 -> conv1
I0428 20:20:33.014156  1569 net.cpp:124] Setting up conv1
I0428 20:20:33.014184  1569 net.cpp:131] Top shape: 100 50 8 8 (320000)
I0428 20:20:33.014199  1569 net.cpp:139] Memory required for data: 15994800
I0428 20:20:33.014223  1569 layer_factory.hpp:77] Creating layer pool1
I0428 20:20:33.014245  1569 net.cpp:86] Creating Layer pool1
I0428 20:20:33.014261  1569 net.cpp:408] pool1 <- conv1
I0428 20:20:33.014267  1569 net.cpp:382] pool1 -> pool1
I0428 20:20:33.014303  1569 net.cpp:124] Setting up pool1
I0428 20:20:33.014315  1569 net.cpp:131] Top shape: 100 50 4 4 (80000)
I0428 20:20:33.014318  1569 net.cpp:139] Memory required for data: 16314800
I0428 20:20:33.014322  1569 layer_factory.hpp:77] Creating layer ip1
I0428 20:20:33.014328  1569 net.cpp:86] Creating Layer ip1
I0428 20:20:33.014331  1569 net.cpp:408] ip1 <- pool1
I0428 20:20:33.014338  1569 net.cpp:382] ip1 -> ip1
I0428 20:20:33.014475  1569 net.cpp:124] Setting up ip1
I0428 20:20:33.014483  1569 net.cpp:131] Top shape: 100 10 (1000)
I0428 20:20:33.014487  1569 net.cpp:139] Memory required for data: 16318800
I0428 20:20:33.014494  1569 layer_factory.hpp:77] Creating layer relu1
I0428 20:20:33.014499  1569 net.cpp:86] Creating Layer relu1
I0428 20:20:33.014503  1569 net.cpp:408] relu1 <- ip1
I0428 20:20:33.014508  1569 net.cpp:369] relu1 -> ip1 (in-place)
I0428 20:20:33.015453  1569 net.cpp:124] Setting up relu1
I0428 20:20:33.015465  1569 net.cpp:131] Top shape: 100 10 (1000)
I0428 20:20:33.015468  1569 net.cpp:139] Memory required for data: 16322800
I0428 20:20:33.015472  1569 layer_factory.hpp:77] Creating layer ip1_relu1_0_split
I0428 20:20:33.015478  1569 net.cpp:86] Creating Layer ip1_relu1_0_split
I0428 20:20:33.015482  1569 net.cpp:408] ip1_relu1_0_split <- ip1
I0428 20:20:33.015503  1569 net.cpp:382] ip1_relu1_0_split -> ip1_relu1_0_split_0
I0428 20:20:33.015509  1569 net.cpp:382] ip1_relu1_0_split -> ip1_relu1_0_split_1
I0428 20:20:33.015550  1569 net.cpp:124] Setting up ip1_relu1_0_split
I0428 20:20:33.015557  1569 net.cpp:131] Top shape: 100 10 (1000)
I0428 20:20:33.015560  1569 net.cpp:131] Top shape: 100 10 (1000)
I0428 20:20:33.015563  1569 net.cpp:139] Memory required for data: 16330800
I0428 20:20:33.015565  1569 layer_factory.hpp:77] Creating layer accuracy
I0428 20:20:33.015570  1569 net.cpp:86] Creating Layer accuracy
I0428 20:20:33.015573  1569 net.cpp:408] accuracy <- ip1_relu1_0_split_0
I0428 20:20:33.015578  1569 net.cpp:408] accuracy <- label_mnist_1_split_0
I0428 20:20:33.015583  1569 net.cpp:382] accuracy -> accuracy
…
