…
I0428 19:29:31.554752 22041 net.cpp:296] The NetState phase (0) differed from the phase (1) specified by a rule in layer mnist
I0428 19:29:31.554780 22041 net.cpp:296] The NetState phase (0) differed from the phase (1) specified by a rule in layer accuracy
I0428 19:29:31.554847 22041 net.cpp:53] Initializing net from parameters: 
name: "LeNet"
state {
  phase: TRAIN
  level: 0
  stage: ""
}
layer {
  name: "mnist"
  type: "Data"
  top: "data"
  top: "label"
  include {
    phase: TRAIN
  }
  transform_param {
    scale: 0.00390625
  }
  data_param {
    source: "examples/mnist/mnist_train_lmdb"
    batch_size: 64
    backend: LMDB
  }
}
layer {
  name: "conv0"
  type: "Convolution"
  bottom: "data"
  top: "conv0"
  param {
    lr_mult: 1
  }
  param {
    lr_mult: 2
  }
  convolution_param {
    num_output: 2
    kernel_size: 5
    stride: 1
    weight_filler {
      type: "xavier"
    }
    bias_filler {
      type: "constant"
    }
  }
}
layer {
  name: "pool0"
  type: "Pooling"
  bottom: "conv0"
  top: "pool0"
  pooling_param {
    pool: MAX
    kernel_size: 2
    stride: 2
  }
}
layer {
  name: "ip1"
  type: "InnerProduct"
  bottom: "pool0"
  top: "ip1"
  param {
    lr_mult: 1
  }
  param {
    lr_mult: 2
  }
  inner_product_param {
    num_output: 25
    weight_filler {
      type: "xavier"
    }
    bias_filler {
      type: "constant"
    }
  }
}
layer {
  name: "relu1"
  type: "ReLU"
  bottom: "ip1"
  top: "ip1"
}
layer {
  name: "ip2"
  type: "InnerProduct"
  bottom: "ip1"
  top: "ip2"
  param {
    lr_mult: 1
  }
  param {
    lr_mult: 2
  }
  inner_product_param {
    num_output: 10
    weight_filler {
      type: "xavier"
    }
    bias_filler {
      type: "constant"
    }
  }
}
layer {
  name: "relu2"
  type: "ReLU"
  bottom: "ip2"
  top: "ip2"
}
layer {
  name: "ip3"
  type: "InnerProduct"
  bottom: "ip2"
  top: "ip3"
  param {
    lr_mult: 1
  }
  param {
    lr_mult: 2
  }
  inner_product_param {
    num_output: 10
    weight_filler {
      type: "xavier"
    }
    bias_filler {
      type: "constant"
    }
  }
}
layer {
  name: "relu3"
  type: "ReLU"
  bottom: "ip3"
  top: "ip3"
}
layer {
  name: "loss"
  type: "SoftmaxWithLoss"
  bottom: "ip3"
  bottom: "label"
  top: "loss"
}
I0428 19:29:31.554903 22041 layer_factory.hpp:77] Creating layer mnist
I0428 19:29:31.554981 22041 db_lmdb.cpp:35] Opened lmdb examples/mnist/mnist_train_lmdb
I0428 19:29:31.555002 22041 net.cpp:86] Creating Layer mnist
I0428 19:29:31.555009 22041 net.cpp:382] mnist -> data
I0428 19:29:31.555043 22041 net.cpp:382] mnist -> label
I0428 19:29:31.555938 22041 data_layer.cpp:45] output data size: 64,1,28,28
I0428 19:29:31.558118 22041 net.cpp:124] Setting up mnist
I0428 19:29:31.558148 22041 net.cpp:131] Top shape: 64 1 28 28 (50176)
I0428 19:29:31.558153 22041 net.cpp:131] Top shape: 64 (64)
I0428 19:29:31.558156 22041 net.cpp:139] Memory required for data: 200960
I0428 19:29:31.558162 22041 layer_factory.hpp:77] Creating layer conv0
I0428 19:29:31.558176 22041 net.cpp:86] Creating Layer conv0
I0428 19:29:31.558181 22041 net.cpp:408] conv0 <- data
I0428 19:29:31.558200 22041 net.cpp:382] conv0 -> conv0
I0428 19:29:31.790448 22041 net.cpp:124] Setting up conv0
I0428 19:29:31.790490 22041 net.cpp:131] Top shape: 64 2 24 24 (73728)
I0428 19:29:31.790493 22041 net.cpp:139] Memory required for data: 495872
I0428 19:29:31.790508 22041 layer_factory.hpp:77] Creating layer pool0
I0428 19:29:31.790534 22041 net.cpp:86] Creating Layer pool0
I0428 19:29:31.790555 22041 net.cpp:408] pool0 <- conv0
I0428 19:29:31.790561 22041 net.cpp:382] pool0 -> pool0
I0428 19:29:31.790619 22041 net.cpp:124] Setting up pool0
I0428 19:29:31.790627 22041 net.cpp:131] Top shape: 64 2 12 12 (18432)
I0428 19:29:31.790629 22041 net.cpp:139] Memory required for data: 569600
I0428 19:29:31.790632 22041 layer_factory.hpp:77] Creating layer ip1
I0428 19:29:31.790640 22041 net.cpp:86] Creating Layer ip1
I0428 19:29:31.790643 22041 net.cpp:408] ip1 <- pool0
I0428 19:29:31.790648 22041 net.cpp:382] ip1 -> ip1
I0428 19:29:31.791601 22041 net.cpp:124] Setting up ip1
I0428 19:29:31.791630 22041 net.cpp:131] Top shape: 64 25 (1600)
I0428 19:29:31.791632 22041 net.cpp:139] Memory required for data: 576000
I0428 19:29:31.791641 22041 layer_factory.hpp:77] Creating layer relu1
I0428 19:29:31.791647 22041 net.cpp:86] Creating Layer relu1
I0428 19:29:31.791651 22041 net.cpp:408] relu1 <- ip1
I0428 19:29:31.791656 22041 net.cpp:369] relu1 -> ip1 (in-place)
I0428 19:29:31.791832 22041 net.cpp:124] Setting up relu1
I0428 19:29:31.791841 22041 net.cpp:131] Top shape: 64 25 (1600)
I0428 19:29:31.791844 22041 net.cpp:139] Memory required for data: 582400
I0428 19:29:31.791847 22041 layer_factory.hpp:77] Creating layer ip2
I0428 19:29:31.791854 22041 net.cpp:86] Creating Layer ip2
I0428 19:29:31.791857 22041 net.cpp:408] ip2 <- ip1
I0428 19:29:31.791862 22041 net.cpp:382] ip2 -> ip2
I0428 19:29:31.791970 22041 net.cpp:124] Setting up ip2
I0428 19:29:31.791976 22041 net.cpp:131] Top shape: 64 10 (640)
I0428 19:29:31.791980 22041 net.cpp:139] Memory required for data: 584960
I0428 19:29:31.791986 22041 layer_factory.hpp:77] Creating layer relu2
I0428 19:29:31.791991 22041 net.cpp:86] Creating Layer relu2
I0428 19:29:31.791995 22041 net.cpp:408] relu2 <- ip2
I0428 19:29:31.791998 22041 net.cpp:369] relu2 -> ip2 (in-place)
I0428 19:29:31.792805 22041 net.cpp:124] Setting up relu2
I0428 19:29:31.792824 22041 net.cpp:131] Top shape: 64 10 (640)
I0428 19:29:31.792843 22041 net.cpp:139] Memory required for data: 587520
I0428 19:29:31.792846 22041 layer_factory.hpp:77] Creating layer ip3
I0428 19:29:31.792868 22041 net.cpp:86] Creating Layer ip3
I0428 19:29:31.792872 22041 net.cpp:408] ip3 <- ip2
I0428 19:29:31.792877 22041 net.cpp:382] ip3 -> ip3
I0428 19:29:31.792974 22041 net.cpp:124] Setting up ip3
I0428 19:29:31.792981 22041 net.cpp:131] Top shape: 64 10 (640)
I0428 19:29:31.792984 22041 net.cpp:139] Memory required for data: 590080
I0428 19:29:31.792990 22041 layer_factory.hpp:77] Creating layer relu3
I0428 19:29:31.792996 22041 net.cpp:86] Creating Layer relu3
I0428 19:29:31.792999 22041 net.cpp:408] relu3 <- ip3
I0428 19:29:31.793004 22041 net.cpp:369] relu3 -> ip3 (in-place)
I0428 19:29:31.793150 22041 net.cpp:124] Setting up relu3
I0428 19:29:31.793159 22041 net.cpp:131] Top shape: 64 10 (640)
I0428 19:29:31.793162 22041 net.cpp:139] Memory required for data: 592640
I0428 19:29:31.793165 22041 layer_factory.hpp:77] Creating layer loss
I0428 19:29:31.793171 22041 net.cpp:86] Creating Layer loss
I0428 19:29:31.793190 22041 net.cpp:408] loss <- ip3
I0428 19:29:31.793193 22041 net.cpp:408] loss <- label
I0428 19:29:31.793198 22041 net.cpp:382] loss -> loss
I0428 19:29:31.793212 22041 layer_factory.hpp:77] Creating layer loss
…
I0428 19:29:31.793812 22041 solver.cpp:173] Creating test net (#0) specified by net file: ECE595/mnist/train_test/var_everything2/lenet_train_test61.prototxt
I0428 19:29:31.793838 22041 net.cpp:296] The NetState phase (1) differed from the phase (0) specified by a rule in layer mnist
I0428 19:29:31.793932 22041 net.cpp:53] Initializing net from parameters: 
name: "LeNet"
state {
  phase: TEST
}
layer {
  name: "mnist"
  type: "Data"
  top: "data"
  top: "label"
  include {
    phase: TEST
  }
  transform_param {
    scale: 0.00390625
  }
  data_param {
    source: "examples/mnist/mnist_test_lmdb"
    batch_size: 100
    backend: LMDB
  }
}
layer {
  name: "conv0"
  type: "Convolution"
  bottom: "data"
  top: "conv0"
  param {
    lr_mult: 1
  }
  param {
    lr_mult: 2
  }
  convolution_param {
    num_output: 2
    kernel_size: 5
    stride: 1
    weight_filler {
      type: "xavier"
    }
    bias_filler {
      type: "constant"
    }
  }
}
layer {
  name: "pool0"
  type: "Pooling"
  bottom: "conv0"
  top: "pool0"
  pooling_param {
    pool: MAX
    kernel_size: 2
    stride: 2
  }
}
layer {
  name: "ip1"
  type: "InnerProduct"
  bottom: "pool0"
  top: "ip1"
  param {
    lr_mult: 1
  }
  param {
    lr_mult: 2
  }
  inner_product_param {
    num_output: 25
    weight_filler {
      type: "xavier"
    }
    bias_filler {
      type: "constant"
    }
  }
}
layer {
  name: "relu1"
  type: "ReLU"
  bottom: "ip1"
  top: "ip1"
}
layer {
  name: "ip2"
  type: "InnerProduct"
  bottom: "ip1"
  top: "ip2"
  param {
    lr_mult: 1
  }
  param {
    lr_mult: 2
  }
  inner_product_param {
    num_output: 10
    weight_filler {
      type: "xavier"
    }
    bias_filler {
      type: "constant"
    }
  }
}
layer {
  name: "relu2"
  type: "ReLU"
  bottom: "ip2"
  top: "ip2"
}
layer {
  name: "ip3"
  type: "InnerProduct"
  bottom: "ip2"
  top: "ip3"
  param {
    lr_mult: 1
  }
  param {
    lr_mult: 2
  }
  inner_product_param {
    num_output: 10
    weight_filler {
      type: "xavier"
    }
    bias_filler {
      type: "constant"
    }
  }
}
layer {
  name: "relu3"
  type: "ReLU"
  bottom: "ip3"
  top: "ip3"
}
layer {
  name: "accuracy"
  type: "Accuracy"
  bottom: "ip3"
  bottom: "label"
  top: "accuracy"
  include {
    phase: TEST
  }
}
layer {
  name: "loss"
  type: "SoftmaxWithLoss"
  bottom: "ip3"
  bottom: "label"
  top: "loss"
}
I0428 19:29:31.793990 22041 layer_factory.hpp:77] Creating layer mnist
I0428 19:29:31.794031 22041 db_lmdb.cpp:35] Opened lmdb examples/mnist/mnist_test_lmdb
I0428 19:29:31.794044 22041 net.cpp:86] Creating Layer mnist
I0428 19:29:31.794047 22041 net.cpp:382] mnist -> data
I0428 19:29:31.794054 22041 net.cpp:382] mnist -> label
I0428 19:29:31.794131 22041 data_layer.cpp:45] output data size: 100,1,28,28
I0428 19:29:31.796399 22041 net.cpp:124] Setting up mnist
I0428 19:29:31.796428 22041 net.cpp:131] Top shape: 100 1 28 28 (78400)
I0428 19:29:31.796444 22041 net.cpp:131] Top shape: 100 (100)
I0428 19:29:31.796449 22041 net.cpp:139] Memory required for data: 314000
I0428 19:29:31.796452 22041 layer_factory.hpp:77] Creating layer label_mnist_1_split
I0428 19:29:31.796459 22041 net.cpp:86] Creating Layer label_mnist_1_split
I0428 19:29:31.796463 22041 net.cpp:408] label_mnist_1_split <- label
I0428 19:29:31.796466 22041 net.cpp:382] label_mnist_1_split -> label_mnist_1_split_0
I0428 19:29:31.796473 22041 net.cpp:382] label_mnist_1_split -> label_mnist_1_split_1
I0428 19:29:31.796506 22041 net.cpp:124] Setting up label_mnist_1_split
I0428 19:29:31.796511 22041 net.cpp:131] Top shape: 100 (100)
I0428 19:29:31.796514 22041 net.cpp:131] Top shape: 100 (100)
I0428 19:29:31.796517 22041 net.cpp:139] Memory required for data: 314800
I0428 19:29:31.796528 22041 layer_factory.hpp:77] Creating layer conv0
I0428 19:29:31.796537 22041 net.cpp:86] Creating Layer conv0
I0428 19:29:31.796540 22041 net.cpp:408] conv0 <- data
I0428 19:29:31.796545 22041 net.cpp:382] conv0 -> conv0
I0428 19:29:31.798146 22041 net.cpp:124] Setting up conv0
I0428 19:29:31.798159 22041 net.cpp:131] Top shape: 100 2 24 24 (115200)
I0428 19:29:31.798163 22041 net.cpp:139] Memory required for data: 775600
I0428 19:29:31.798172 22041 layer_factory.hpp:77] Creating layer pool0
I0428 19:29:31.798178 22041 net.cpp:86] Creating Layer pool0
I0428 19:29:31.798182 22041 net.cpp:408] pool0 <- conv0
I0428 19:29:31.798187 22041 net.cpp:382] pool0 -> pool0
I0428 19:29:31.798235 22041 net.cpp:124] Setting up pool0
I0428 19:29:31.798251 22041 net.cpp:131] Top shape: 100 2 12 12 (28800)
I0428 19:29:31.798254 22041 net.cpp:139] Memory required for data: 890800
I0428 19:29:31.798256 22041 layer_factory.hpp:77] Creating layer ip1
I0428 19:29:31.798262 22041 net.cpp:86] Creating Layer ip1
I0428 19:29:31.798265 22041 net.cpp:408] ip1 <- pool0
I0428 19:29:31.798269 22041 net.cpp:382] ip1 -> ip1
I0428 19:29:31.798388 22041 net.cpp:124] Setting up ip1
I0428 19:29:31.798394 22041 net.cpp:131] Top shape: 100 25 (2500)
I0428 19:29:31.798398 22041 net.cpp:139] Memory required for data: 900800
I0428 19:29:31.798404 22041 layer_factory.hpp:77] Creating layer relu1
I0428 19:29:31.798408 22041 net.cpp:86] Creating Layer relu1
I0428 19:29:31.798411 22041 net.cpp:408] relu1 <- ip1
I0428 19:29:31.798414 22041 net.cpp:369] relu1 -> ip1 (in-place)
I0428 19:29:31.798550 22041 net.cpp:124] Setting up relu1
I0428 19:29:31.798557 22041 net.cpp:131] Top shape: 100 25 (2500)
I0428 19:29:31.798560 22041 net.cpp:139] Memory required for data: 910800
I0428 19:29:31.798563 22041 layer_factory.hpp:77] Creating layer ip2
I0428 19:29:31.798568 22041 net.cpp:86] Creating Layer ip2
I0428 19:29:31.798570 22041 net.cpp:408] ip2 <- ip1
I0428 19:29:31.798575 22041 net.cpp:382] ip2 -> ip2
I0428 19:29:31.798657 22041 net.cpp:124] Setting up ip2
I0428 19:29:31.798665 22041 net.cpp:131] Top shape: 100 10 (1000)
I0428 19:29:31.798666 22041 net.cpp:139] Memory required for data: 914800
I0428 19:29:31.798673 22041 layer_factory.hpp:77] Creating layer relu2
I0428 19:29:31.798677 22041 net.cpp:86] Creating Layer relu2
I0428 19:29:31.798681 22041 net.cpp:408] relu2 <- ip2
I0428 19:29:31.798683 22041 net.cpp:369] relu2 -> ip2 (in-place)
I0428 19:29:31.799594 22041 net.cpp:124] Setting up relu2
I0428 19:29:31.799607 22041 net.cpp:131] Top shape: 100 10 (1000)
I0428 19:29:31.799609 22041 net.cpp:139] Memory required for data: 918800
I0428 19:29:31.799613 22041 layer_factory.hpp:77] Creating layer ip3
I0428 19:29:31.799620 22041 net.cpp:86] Creating Layer ip3
I0428 19:29:31.799623 22041 net.cpp:408] ip3 <- ip2
I0428 19:29:31.799629 22041 net.cpp:382] ip3 -> ip3
I0428 19:29:31.799796 22041 net.cpp:124] Setting up ip3
I0428 19:29:31.799804 22041 net.cpp:131] Top shape: 100 10 (1000)
I0428 19:29:31.799808 22041 net.cpp:139] Memory required for data: 922800
I0428 19:29:31.799813 22041 layer_factory.hpp:77] Creating layer relu3
I0428 19:29:31.799818 22041 net.cpp:86] Creating Layer relu3
I0428 19:29:31.799821 22041 net.cpp:408] relu3 <- ip3
I0428 19:29:31.799825 22041 net.cpp:369] relu3 -> ip3 (in-place)
I0428 19:29:31.799962 22041 net.cpp:124] Setting up relu3
I0428 19:29:31.799970 22041 net.cpp:131] Top shape: 100 10 (1000)
I0428 19:29:31.799973 22041 net.cpp:139] Memory required for data: 926800
I0428 19:29:31.799976 22041 layer_factory.hpp:77] Creating layer ip3_relu3_0_split
I0428 19:29:31.799988 22041 net.cpp:86] Creating Layer ip3_relu3_0_split
I0428 19:29:31.799990 22041 net.cpp:408] ip3_relu3_0_split <- ip3
I0428 19:29:31.800000 22041 net.cpp:382] ip3_relu3_0_split -> ip3_relu3_0_split_0
I0428 19:29:31.800005 22041 net.cpp:382] ip3_relu3_0_split -> ip3_relu3_0_split_1
I0428 19:29:31.800037 22041 net.cpp:124] Setting up ip3_relu3_0_split
I0428 19:29:31.800042 22041 net.cpp:131] Top shape: 100 10 (1000)
I0428 19:29:31.800045 22041 net.cpp:131] Top shape: 100 10 (1000)
I0428 19:29:31.800057 22041 net.cpp:139] Memory required for data: 934800
I0428 19:29:31.800066 22041 layer_factory.hpp:77] Creating layer accuracy
I0428 19:29:31.800071 22041 net.cpp:86] Creating Layer accuracy
I0428 19:29:31.800074 22041 net.cpp:408] accuracy <- ip3_relu3_0_split_0
I0428 19:29:31.800078 22041 net.cpp:408] accuracy <- label_mnist_1_split_0
I0428 19:29:31.800082 22041 net.cpp:382] accuracy -> accuracy
…
