…
I0428 19:37:57.994449 23943 net.cpp:296] The NetState phase (0) differed from the phase (1) specified by a rule in layer mnist
I0428 19:37:57.994468 23943 net.cpp:296] The NetState phase (0) differed from the phase (1) specified by a rule in layer accuracy
I0428 19:37:57.994555 23943 net.cpp:53] Initializing net from parameters: 
name: "LeNet"
state {
  phase: TRAIN
  level: 0
  stage: ""
}
layer {
  name: "mnist"
  type: "Data"
  top: "data"
  top: "label"
  include {
    phase: TRAIN
  }
  transform_param {
    scale: 0.00390625
  }
  data_param {
    source: "examples/mnist/mnist_train_lmdb"
    batch_size: 64
    backend: LMDB
  }
}
layer {
  name: "conv0"
  type: "Convolution"
  bottom: "data"
  top: "conv0"
  param {
    lr_mult: 1
  }
  param {
    lr_mult: 2
  }
  convolution_param {
    num_output: 100
    kernel_size: 5
    stride: 1
    weight_filler {
      type: "xavier"
    }
    bias_filler {
      type: "constant"
    }
  }
}
layer {
  name: "pool0"
  type: "Pooling"
  bottom: "conv0"
  top: "pool0"
  pooling_param {
    pool: MAX
    kernel_size: 2
    stride: 2
  }
}
layer {
  name: "ip1"
  type: "InnerProduct"
  bottom: "pool0"
  top: "ip1"
  param {
    lr_mult: 1
  }
  param {
    lr_mult: 2
  }
  inner_product_param {
    num_output: 50
    weight_filler {
      type: "xavier"
    }
    bias_filler {
      type: "constant"
    }
  }
}
layer {
  name: "relu1"
  type: "ReLU"
  bottom: "ip1"
  top: "ip1"
}
layer {
  name: "ip2"
  type: "InnerProduct"
  bottom: "ip1"
  top: "ip2"
  param {
    lr_mult: 1
  }
  param {
    lr_mult: 2
  }
  inner_product_param {
    num_output: 10
    weight_filler {
      type: "xavier"
    }
    bias_filler {
      type: "constant"
    }
  }
}
layer {
  name: "relu2"
  type: "ReLU"
  bottom: "ip2"
  top: "ip2"
}
layer {
  name: "ip3"
  type: "InnerProduct"
  bottom: "ip2"
  top: "ip3"
  param {
    lr_mult: 1
  }
  param {
    lr_mult: 2
  }
  inner_product_param {
    num_output: 10
    weight_filler {
      type: "xavier"
    }
    bias_filler {
      type: "constant"
    }
  }
}
layer {
  name: "relu3"
  type: "ReLU"
  bottom: "ip3"
  top: "ip3"
}
layer {
  name: "loss"
  type: "SoftmaxWithLoss"
  bottom: "ip3"
  bottom: "label"
  top: "loss"
}
I0428 19:37:57.994632 23943 layer_factory.hpp:77] Creating layer mnist
I0428 19:37:57.994732 23943 db_lmdb.cpp:35] Opened lmdb examples/mnist/mnist_train_lmdb
I0428 19:37:57.994755 23943 net.cpp:86] Creating Layer mnist
I0428 19:37:57.994763 23943 net.cpp:382] mnist -> data
I0428 19:37:57.994786 23943 net.cpp:382] mnist -> label
I0428 19:37:57.995896 23943 data_layer.cpp:45] output data size: 64,1,28,28
I0428 19:37:57.998409 23943 net.cpp:124] Setting up mnist
I0428 19:37:57.998430 23943 net.cpp:131] Top shape: 64 1 28 28 (50176)
I0428 19:37:57.998435 23943 net.cpp:131] Top shape: 64 (64)
I0428 19:37:57.998438 23943 net.cpp:139] Memory required for data: 200960
I0428 19:37:57.998445 23943 layer_factory.hpp:77] Creating layer conv0
I0428 19:37:57.998468 23943 net.cpp:86] Creating Layer conv0
I0428 19:37:57.998474 23943 net.cpp:408] conv0 <- data
I0428 19:37:57.998486 23943 net.cpp:382] conv0 -> conv0
I0428 19:37:58.291736 23943 net.cpp:124] Setting up conv0
I0428 19:37:58.291765 23943 net.cpp:131] Top shape: 64 100 24 24 (3686400)
I0428 19:37:58.291770 23943 net.cpp:139] Memory required for data: 14946560
I0428 19:37:58.291786 23943 layer_factory.hpp:77] Creating layer pool0
I0428 19:37:58.291800 23943 net.cpp:86] Creating Layer pool0
I0428 19:37:58.291826 23943 net.cpp:408] pool0 <- conv0
I0428 19:37:58.291831 23943 net.cpp:382] pool0 -> pool0
I0428 19:37:58.291887 23943 net.cpp:124] Setting up pool0
I0428 19:37:58.291898 23943 net.cpp:131] Top shape: 64 100 12 12 (921600)
I0428 19:37:58.291900 23943 net.cpp:139] Memory required for data: 18632960
I0428 19:37:58.291905 23943 layer_factory.hpp:77] Creating layer ip1
I0428 19:37:58.291918 23943 net.cpp:86] Creating Layer ip1
I0428 19:37:58.291923 23943 net.cpp:408] ip1 <- pool0
I0428 19:37:58.291929 23943 net.cpp:382] ip1 -> ip1
I0428 19:37:58.297605 23943 net.cpp:124] Setting up ip1
I0428 19:37:58.297621 23943 net.cpp:131] Top shape: 64 50 (3200)
I0428 19:37:58.297624 23943 net.cpp:139] Memory required for data: 18645760
I0428 19:37:58.297633 23943 layer_factory.hpp:77] Creating layer relu1
I0428 19:37:58.297641 23943 net.cpp:86] Creating Layer relu1
I0428 19:37:58.297646 23943 net.cpp:408] relu1 <- ip1
I0428 19:37:58.297650 23943 net.cpp:369] relu1 -> ip1 (in-place)
I0428 19:37:58.297838 23943 net.cpp:124] Setting up relu1
I0428 19:37:58.297848 23943 net.cpp:131] Top shape: 64 50 (3200)
I0428 19:37:58.297852 23943 net.cpp:139] Memory required for data: 18658560
I0428 19:37:58.297855 23943 layer_factory.hpp:77] Creating layer ip2
I0428 19:37:58.297863 23943 net.cpp:86] Creating Layer ip2
I0428 19:37:58.297866 23943 net.cpp:408] ip2 <- ip1
I0428 19:37:58.297873 23943 net.cpp:382] ip2 -> ip2
I0428 19:37:58.297979 23943 net.cpp:124] Setting up ip2
I0428 19:37:58.297987 23943 net.cpp:131] Top shape: 64 10 (640)
I0428 19:37:58.297991 23943 net.cpp:139] Memory required for data: 18661120
I0428 19:37:58.298001 23943 layer_factory.hpp:77] Creating layer relu2
I0428 19:37:58.298007 23943 net.cpp:86] Creating Layer relu2
I0428 19:37:58.298012 23943 net.cpp:408] relu2 <- ip2
I0428 19:37:58.298017 23943 net.cpp:369] relu2 -> ip2 (in-place)
I0428 19:37:58.298820 23943 net.cpp:124] Setting up relu2
I0428 19:37:58.298835 23943 net.cpp:131] Top shape: 64 10 (640)
I0428 19:37:58.298838 23943 net.cpp:139] Memory required for data: 18663680
I0428 19:37:58.298842 23943 layer_factory.hpp:77] Creating layer ip3
I0428 19:37:58.298849 23943 net.cpp:86] Creating Layer ip3
I0428 19:37:58.298853 23943 net.cpp:408] ip3 <- ip2
I0428 19:37:58.298859 23943 net.cpp:382] ip3 -> ip3
I0428 19:37:58.298965 23943 net.cpp:124] Setting up ip3
I0428 19:37:58.298974 23943 net.cpp:131] Top shape: 64 10 (640)
I0428 19:37:58.298976 23943 net.cpp:139] Memory required for data: 18666240
I0428 19:37:58.298984 23943 layer_factory.hpp:77] Creating layer relu3
I0428 19:37:58.298990 23943 net.cpp:86] Creating Layer relu3
I0428 19:37:58.298995 23943 net.cpp:408] relu3 <- ip3
I0428 19:37:58.299000 23943 net.cpp:369] relu3 -> ip3 (in-place)
I0428 19:37:58.299165 23943 net.cpp:124] Setting up relu3
I0428 19:37:58.299173 23943 net.cpp:131] Top shape: 64 10 (640)
I0428 19:37:58.299176 23943 net.cpp:139] Memory required for data: 18668800
I0428 19:37:58.299180 23943 layer_factory.hpp:77] Creating layer loss
I0428 19:37:58.299186 23943 net.cpp:86] Creating Layer loss
I0428 19:37:58.299190 23943 net.cpp:408] loss <- ip3
I0428 19:37:58.299195 23943 net.cpp:408] loss <- label
I0428 19:37:58.299201 23943 net.cpp:382] loss -> loss
I0428 19:37:58.299221 23943 layer_factory.hpp:77] Creating layer loss
…
I0428 19:37:58.299867 23943 solver.cpp:173] Creating test net (#0) specified by net file: ECE595/mnist/train_test/var_everything2/lenet_train_test266.prototxt
I0428 19:37:58.299896 23943 net.cpp:296] The NetState phase (1) differed from the phase (0) specified by a rule in layer mnist
I0428 19:37:58.299984 23943 net.cpp:53] Initializing net from parameters: 
name: "LeNet"
state {
  phase: TEST
}
layer {
  name: "mnist"
  type: "Data"
  top: "data"
  top: "label"
  include {
    phase: TEST
  }
  transform_param {
    scale: 0.00390625
  }
  data_param {
    source: "examples/mnist/mnist_test_lmdb"
    batch_size: 100
    backend: LMDB
  }
}
layer {
  name: "conv0"
  type: "Convolution"
  bottom: "data"
  top: "conv0"
  param {
    lr_mult: 1
  }
  param {
    lr_mult: 2
  }
  convolution_param {
    num_output: 100
    kernel_size: 5
    stride: 1
    weight_filler {
      type: "xavier"
    }
    bias_filler {
      type: "constant"
    }
  }
}
layer {
  name: "pool0"
  type: "Pooling"
  bottom: "conv0"
  top: "pool0"
  pooling_param {
    pool: MAX
    kernel_size: 2
    stride: 2
  }
}
layer {
  name: "ip1"
  type: "InnerProduct"
  bottom: "pool0"
  top: "ip1"
  param {
    lr_mult: 1
  }
  param {
    lr_mult: 2
  }
  inner_product_param {
    num_output: 50
    weight_filler {
      type: "xavier"
    }
    bias_filler {
      type: "constant"
    }
  }
}
layer {
  name: "relu1"
  type: "ReLU"
  bottom: "ip1"
  top: "ip1"
}
layer {
  name: "ip2"
  type: "InnerProduct"
  bottom: "ip1"
  top: "ip2"
  param {
    lr_mult: 1
  }
  param {
    lr_mult: 2
  }
  inner_product_param {
    num_output: 10
    weight_filler {
      type: "xavier"
    }
    bias_filler {
      type: "constant"
    }
  }
}
layer {
  name: "relu2"
  type: "ReLU"
  bottom: "ip2"
  top: "ip2"
}
layer {
  name: "ip3"
  type: "InnerProduct"
  bottom: "ip2"
  top: "ip3"
  param {
    lr_mult: 1
  }
  param {
    lr_mult: 2
  }
  inner_product_param {
    num_output: 10
    weight_filler {
      type: "xavier"
    }
    bias_filler {
      type: "constant"
    }
  }
}
layer {
  name: "relu3"
  type: "ReLU"
  bottom: "ip3"
  top: "ip3"
}
layer {
  name: "accuracy"
  type: "Accuracy"
  bottom: "ip3"
  bottom: "label"
  top: "accuracy"
  include {
    phase: TEST
  }
}
layer {
  name: "loss"
  type: "SoftmaxWithLoss"
  bottom: "ip3"
  bottom: "label"
  top: "loss"
}
I0428 19:37:58.300050 23943 layer_factory.hpp:77] Creating layer mnist
I0428 19:37:58.300097 23943 db_lmdb.cpp:35] Opened lmdb examples/mnist/mnist_test_lmdb
I0428 19:37:58.300112 23943 net.cpp:86] Creating Layer mnist
I0428 19:37:58.300117 23943 net.cpp:382] mnist -> data
I0428 19:37:58.300127 23943 net.cpp:382] mnist -> label
I0428 19:37:58.300216 23943 data_layer.cpp:45] output data size: 100,1,28,28
I0428 19:37:58.302263 23943 net.cpp:124] Setting up mnist
I0428 19:37:58.302278 23943 net.cpp:131] Top shape: 100 1 28 28 (78400)
I0428 19:37:58.302284 23943 net.cpp:131] Top shape: 100 (100)
I0428 19:37:58.302287 23943 net.cpp:139] Memory required for data: 314000
I0428 19:37:58.302291 23943 layer_factory.hpp:77] Creating layer label_mnist_1_split
I0428 19:37:58.302302 23943 net.cpp:86] Creating Layer label_mnist_1_split
I0428 19:37:58.302306 23943 net.cpp:408] label_mnist_1_split <- label
I0428 19:37:58.302312 23943 net.cpp:382] label_mnist_1_split -> label_mnist_1_split_0
I0428 19:37:58.302320 23943 net.cpp:382] label_mnist_1_split -> label_mnist_1_split_1
I0428 19:37:58.302373 23943 net.cpp:124] Setting up label_mnist_1_split
I0428 19:37:58.302381 23943 net.cpp:131] Top shape: 100 (100)
I0428 19:37:58.302386 23943 net.cpp:131] Top shape: 100 (100)
I0428 19:37:58.302388 23943 net.cpp:139] Memory required for data: 314800
I0428 19:37:58.302402 23943 layer_factory.hpp:77] Creating layer conv0
I0428 19:37:58.302412 23943 net.cpp:86] Creating Layer conv0
I0428 19:37:58.302417 23943 net.cpp:408] conv0 <- data
I0428 19:37:58.302422 23943 net.cpp:382] conv0 -> conv0
I0428 19:37:58.304239 23943 net.cpp:124] Setting up conv0
I0428 19:37:58.304255 23943 net.cpp:131] Top shape: 100 100 24 24 (5760000)
I0428 19:37:58.304258 23943 net.cpp:139] Memory required for data: 23354800
I0428 19:37:58.304268 23943 layer_factory.hpp:77] Creating layer pool0
I0428 19:37:58.304275 23943 net.cpp:86] Creating Layer pool0
I0428 19:37:58.304280 23943 net.cpp:408] pool0 <- conv0
I0428 19:37:58.304285 23943 net.cpp:382] pool0 -> pool0
I0428 19:37:58.304327 23943 net.cpp:124] Setting up pool0
I0428 19:37:58.304334 23943 net.cpp:131] Top shape: 100 100 12 12 (1440000)
I0428 19:37:58.304337 23943 net.cpp:139] Memory required for data: 29114800
I0428 19:37:58.304342 23943 layer_factory.hpp:77] Creating layer ip1
I0428 19:37:58.304349 23943 net.cpp:86] Creating Layer ip1
I0428 19:37:58.304352 23943 net.cpp:408] ip1 <- pool0
I0428 19:37:58.304358 23943 net.cpp:382] ip1 -> ip1
I0428 19:37:58.309854 23943 net.cpp:124] Setting up ip1
I0428 19:37:58.309867 23943 net.cpp:131] Top shape: 100 50 (5000)
I0428 19:37:58.309871 23943 net.cpp:139] Memory required for data: 29134800
I0428 19:37:58.309880 23943 layer_factory.hpp:77] Creating layer relu1
I0428 19:37:58.309885 23943 net.cpp:86] Creating Layer relu1
I0428 19:37:58.309890 23943 net.cpp:408] relu1 <- ip1
I0428 19:37:58.309895 23943 net.cpp:369] relu1 -> ip1 (in-place)
I0428 19:37:58.310075 23943 net.cpp:124] Setting up relu1
I0428 19:37:58.310084 23943 net.cpp:131] Top shape: 100 50 (5000)
I0428 19:37:58.310088 23943 net.cpp:139] Memory required for data: 29154800
I0428 19:37:58.310091 23943 layer_factory.hpp:77] Creating layer ip2
I0428 19:37:58.310097 23943 net.cpp:86] Creating Layer ip2
I0428 19:37:58.310103 23943 net.cpp:408] ip2 <- ip1
I0428 19:37:58.310108 23943 net.cpp:382] ip2 -> ip2
I0428 19:37:58.310220 23943 net.cpp:124] Setting up ip2
I0428 19:37:58.310228 23943 net.cpp:131] Top shape: 100 10 (1000)
I0428 19:37:58.310232 23943 net.cpp:139] Memory required for data: 29158800
I0428 19:37:58.310240 23943 layer_factory.hpp:77] Creating layer relu2
I0428 19:37:58.310245 23943 net.cpp:86] Creating Layer relu2
I0428 19:37:58.310248 23943 net.cpp:408] relu2 <- ip2
I0428 19:37:58.310253 23943 net.cpp:369] relu2 -> ip2 (in-place)
I0428 19:37:58.311025 23943 net.cpp:124] Setting up relu2
I0428 19:37:58.311038 23943 net.cpp:131] Top shape: 100 10 (1000)
I0428 19:37:58.311043 23943 net.cpp:139] Memory required for data: 29162800
I0428 19:37:58.311045 23943 layer_factory.hpp:77] Creating layer ip3
I0428 19:37:58.311055 23943 net.cpp:86] Creating Layer ip3
I0428 19:37:58.311058 23943 net.cpp:408] ip3 <- ip2
I0428 19:37:58.311065 23943 net.cpp:382] ip3 -> ip3
I0428 19:37:58.311184 23943 net.cpp:124] Setting up ip3
I0428 19:37:58.311193 23943 net.cpp:131] Top shape: 100 10 (1000)
I0428 19:37:58.311197 23943 net.cpp:139] Memory required for data: 29166800
I0428 19:37:58.311203 23943 layer_factory.hpp:77] Creating layer relu3
I0428 19:37:58.311208 23943 net.cpp:86] Creating Layer relu3
I0428 19:37:58.311211 23943 net.cpp:408] relu3 <- ip3
I0428 19:37:58.311215 23943 net.cpp:369] relu3 -> ip3 (in-place)
I0428 19:37:58.311385 23943 net.cpp:124] Setting up relu3
I0428 19:37:58.311395 23943 net.cpp:131] Top shape: 100 10 (1000)
I0428 19:37:58.311399 23943 net.cpp:139] Memory required for data: 29170800
I0428 19:37:58.311403 23943 layer_factory.hpp:77] Creating layer ip3_relu3_0_split
I0428 19:37:58.311408 23943 net.cpp:86] Creating Layer ip3_relu3_0_split
I0428 19:37:58.311410 23943 net.cpp:408] ip3_relu3_0_split <- ip3
I0428 19:37:58.311415 23943 net.cpp:382] ip3_relu3_0_split -> ip3_relu3_0_split_0
I0428 19:37:58.311421 23943 net.cpp:382] ip3_relu3_0_split -> ip3_relu3_0_split_1
I0428 19:37:58.311460 23943 net.cpp:124] Setting up ip3_relu3_0_split
I0428 19:37:58.311467 23943 net.cpp:131] Top shape: 100 10 (1000)
I0428 19:37:58.311482 23943 net.cpp:131] Top shape: 100 10 (1000)
I0428 19:37:58.311486 23943 net.cpp:139] Memory required for data: 29178800
I0428 19:37:58.311488 23943 layer_factory.hpp:77] Creating layer accuracy
I0428 19:37:58.311494 23943 net.cpp:86] Creating Layer accuracy
I0428 19:37:58.311497 23943 net.cpp:408] accuracy <- ip3_relu3_0_split_0
I0428 19:37:58.311503 23943 net.cpp:408] accuracy <- label_mnist_1_split_0
I0428 19:37:58.311508 23943 net.cpp:382] accuracy -> accuracy
…
