…
I0428 20:33:40.131577  4326 net.cpp:296] The NetState phase (0) differed from the phase (1) specified by a rule in layer mnist
I0428 20:33:40.131606  4326 net.cpp:296] The NetState phase (0) differed from the phase (1) specified by a rule in layer accuracy
I0428 20:33:40.131770  4326 net.cpp:53] Initializing net from parameters: 
name: "LeNet"
state {
  phase: TRAIN
  level: 0
  stage: ""
}
layer {
  name: "mnist"
  type: "Data"
  top: "data"
  top: "label"
  include {
    phase: TRAIN
  }
  transform_param {
    scale: 0.00390625
  }
  data_param {
    source: "examples/mnist/mnist_train_lmdb"
    batch_size: 64
    backend: LMDB
  }
}
layer {
  name: "conv0"
  type: "Convolution"
  bottom: "data"
  top: "conv0"
  param {
    lr_mult: 1
  }
  param {
    lr_mult: 2
  }
  convolution_param {
    num_output: 100
    kernel_size: 5
    stride: 1
    weight_filler {
      type: "xavier"
    }
    bias_filler {
      type: "constant"
    }
  }
}
layer {
  name: "pool0"
  type: "Pooling"
  bottom: "conv0"
  top: "pool0"
  pooling_param {
    pool: MAX
    kernel_size: 2
    stride: 2
  }
}
layer {
  name: "conv1"
  type: "Convolution"
  bottom: "pool0"
  top: "conv1"
  param {
    lr_mult: 1
  }
  param {
    lr_mult: 2
  }
  convolution_param {
    num_output: 25
    kernel_size: 5
    stride: 1
    weight_filler {
      type: "xavier"
    }
    bias_filler {
      type: "constant"
    }
  }
}
layer {
  name: "pool1"
  type: "Pooling"
  bottom: "conv1"
  top: "pool1"
  pooling_param {
    pool: MAX
    kernel_size: 2
    stride: 2
  }
}
layer {
  name: "ip1"
  type: "InnerProduct"
  bottom: "pool1"
  top: "ip1"
  param {
    lr_mult: 1
  }
  param {
    lr_mult: 2
  }
  inner_product_param {
    num_output: 50
    weight_filler {
      type: "xavier"
    }
    bias_filler {
      type: "constant"
    }
  }
}
layer {
  name: "relu1"
  type: "ReLU"
  bottom: "ip1"
  top: "ip1"
}
layer {
  name: "ip2"
  type: "InnerProduct"
  bottom: "ip1"
  top: "ip2"
  param {
    lr_mult: 1
  }
  param {
    lr_mult: 2
  }
  inner_product_param {
    num_output: 10
    weight_filler {
      type: "xavier"
    }
    bias_filler {
      type: "constant"
    }
  }
}
layer {
  name: "relu2"
  type: "ReLU"
  bottom: "ip2"
  top: "ip2"
}
layer {
  name: "ip3"
  type: "InnerProduct"
  bottom: "ip2"
  top: "ip3"
  param {
    lr_mult: 1
  }
  param {
    lr_mult: 2
  }
  inner_product_param {
    num_output: 10
    weight_filler {
      type: "xavier"
    }
    bias_filler {
      type: "constant"
    }
  }
}
layer {
  name: "relu3"
  type: "ReLU"
  bottom: "ip3"
  top: "ip3"
}
layer {
  name: "loss"
  type: "SoftmaxWithLoss"
  bottom: "ip3"
  bottom: "label"
  top: "loss"
}
I0428 20:33:40.131889  4326 layer_factory.hpp:77] Creating layer mnist
I0428 20:33:40.132025  4326 db_lmdb.cpp:35] Opened lmdb examples/mnist/mnist_train_lmdb
I0428 20:33:40.132061  4326 net.cpp:86] Creating Layer mnist
I0428 20:33:40.132076  4326 net.cpp:382] mnist -> data
I0428 20:33:40.132107  4326 net.cpp:382] mnist -> label
I0428 20:33:40.133667  4326 data_layer.cpp:45] output data size: 64,1,28,28
I0428 20:33:40.136730  4326 net.cpp:124] Setting up mnist
I0428 20:33:40.136749  4326 net.cpp:131] Top shape: 64 1 28 28 (50176)
I0428 20:33:40.136756  4326 net.cpp:131] Top shape: 64 (64)
I0428 20:33:40.136759  4326 net.cpp:139] Memory required for data: 200960
I0428 20:33:40.136767  4326 layer_factory.hpp:77] Creating layer conv0
I0428 20:33:40.136785  4326 net.cpp:86] Creating Layer conv0
I0428 20:33:40.136819  4326 net.cpp:408] conv0 <- data
I0428 20:33:40.136840  4326 net.cpp:382] conv0 -> conv0
I0428 20:33:40.429154  4326 net.cpp:124] Setting up conv0
I0428 20:33:40.429186  4326 net.cpp:131] Top shape: 64 100 24 24 (3686400)
I0428 20:33:40.429191  4326 net.cpp:139] Memory required for data: 14946560
I0428 20:33:40.429208  4326 layer_factory.hpp:77] Creating layer pool0
I0428 20:33:40.429224  4326 net.cpp:86] Creating Layer pool0
I0428 20:33:40.429229  4326 net.cpp:408] pool0 <- conv0
I0428 20:33:40.429234  4326 net.cpp:382] pool0 -> pool0
I0428 20:33:40.429304  4326 net.cpp:124] Setting up pool0
I0428 20:33:40.429319  4326 net.cpp:131] Top shape: 64 100 12 12 (921600)
I0428 20:33:40.429325  4326 net.cpp:139] Memory required for data: 18632960
I0428 20:33:40.429332  4326 layer_factory.hpp:77] Creating layer conv1
I0428 20:33:40.429349  4326 net.cpp:86] Creating Layer conv1
I0428 20:33:40.429356  4326 net.cpp:408] conv1 <- pool0
I0428 20:33:40.429365  4326 net.cpp:382] conv1 -> conv1
I0428 20:33:40.432468  4326 net.cpp:124] Setting up conv1
I0428 20:33:40.432487  4326 net.cpp:131] Top shape: 64 25 8 8 (102400)
I0428 20:33:40.432490  4326 net.cpp:139] Memory required for data: 19042560
I0428 20:33:40.432500  4326 layer_factory.hpp:77] Creating layer pool1
I0428 20:33:40.432509  4326 net.cpp:86] Creating Layer pool1
I0428 20:33:40.432513  4326 net.cpp:408] pool1 <- conv1
I0428 20:33:40.432519  4326 net.cpp:382] pool1 -> pool1
I0428 20:33:40.432572  4326 net.cpp:124] Setting up pool1
I0428 20:33:40.432585  4326 net.cpp:131] Top shape: 64 25 4 4 (25600)
I0428 20:33:40.432590  4326 net.cpp:139] Memory required for data: 19144960
I0428 20:33:40.432596  4326 layer_factory.hpp:77] Creating layer ip1
I0428 20:33:40.432610  4326 net.cpp:86] Creating Layer ip1
I0428 20:33:40.432616  4326 net.cpp:408] ip1 <- pool1
I0428 20:33:40.432626  4326 net.cpp:382] ip1 -> ip1
I0428 20:33:40.433039  4326 net.cpp:124] Setting up ip1
I0428 20:33:40.433053  4326 net.cpp:131] Top shape: 64 50 (3200)
I0428 20:33:40.433059  4326 net.cpp:139] Memory required for data: 19157760
I0428 20:33:40.433073  4326 layer_factory.hpp:77] Creating layer relu1
I0428 20:33:40.433082  4326 net.cpp:86] Creating Layer relu1
I0428 20:33:40.433089  4326 net.cpp:408] relu1 <- ip1
I0428 20:33:40.433097  4326 net.cpp:369] relu1 -> ip1 (in-place)
I0428 20:33:40.433348  4326 net.cpp:124] Setting up relu1
I0428 20:33:40.433363  4326 net.cpp:131] Top shape: 64 50 (3200)
I0428 20:33:40.433370  4326 net.cpp:139] Memory required for data: 19170560
I0428 20:33:40.433377  4326 layer_factory.hpp:77] Creating layer ip2
I0428 20:33:40.433387  4326 net.cpp:86] Creating Layer ip2
I0428 20:33:40.433394  4326 net.cpp:408] ip2 <- ip1
I0428 20:33:40.433404  4326 net.cpp:382] ip2 -> ip2
I0428 20:33:40.433557  4326 net.cpp:124] Setting up ip2
I0428 20:33:40.433570  4326 net.cpp:131] Top shape: 64 10 (640)
I0428 20:33:40.433576  4326 net.cpp:139] Memory required for data: 19173120
I0428 20:33:40.433586  4326 layer_factory.hpp:77] Creating layer relu2
I0428 20:33:40.433598  4326 net.cpp:86] Creating Layer relu2
I0428 20:33:40.433604  4326 net.cpp:408] relu2 <- ip2
I0428 20:33:40.433612  4326 net.cpp:369] relu2 -> ip2 (in-place)
I0428 20:33:40.434767  4326 net.cpp:124] Setting up relu2
I0428 20:33:40.434785  4326 net.cpp:131] Top shape: 64 10 (640)
I0428 20:33:40.434792  4326 net.cpp:139] Memory required for data: 19175680
I0428 20:33:40.434799  4326 layer_factory.hpp:77] Creating layer ip3
I0428 20:33:40.434810  4326 net.cpp:86] Creating Layer ip3
I0428 20:33:40.434818  4326 net.cpp:408] ip3 <- ip2
I0428 20:33:40.434828  4326 net.cpp:382] ip3 -> ip3
I0428 20:33:40.434975  4326 net.cpp:124] Setting up ip3
I0428 20:33:40.434990  4326 net.cpp:131] Top shape: 64 10 (640)
I0428 20:33:40.434996  4326 net.cpp:139] Memory required for data: 19178240
I0428 20:33:40.435010  4326 layer_factory.hpp:77] Creating layer relu3
I0428 20:33:40.435019  4326 net.cpp:86] Creating Layer relu3
I0428 20:33:40.435025  4326 net.cpp:408] relu3 <- ip3
I0428 20:33:40.435034  4326 net.cpp:369] relu3 -> ip3 (in-place)
I0428 20:33:40.435281  4326 net.cpp:124] Setting up relu3
I0428 20:33:40.435295  4326 net.cpp:131] Top shape: 64 10 (640)
I0428 20:33:40.435302  4326 net.cpp:139] Memory required for data: 19180800
I0428 20:33:40.435308  4326 layer_factory.hpp:77] Creating layer loss
I0428 20:33:40.435317  4326 net.cpp:86] Creating Layer loss
I0428 20:33:40.435323  4326 net.cpp:408] loss <- ip3
I0428 20:33:40.435330  4326 net.cpp:408] loss <- label
I0428 20:33:40.435339  4326 net.cpp:382] loss -> loss
I0428 20:33:40.435365  4326 layer_factory.hpp:77] Creating layer loss
…
I0428 20:33:40.436415  4326 solver.cpp:173] Creating test net (#0) specified by net file: ECE595/mnist/train_test/var_everything2/lenet_train_test1592.prototxt
I0428 20:33:40.436461  4326 net.cpp:296] The NetState phase (1) differed from the phase (0) specified by a rule in layer mnist
I0428 20:33:40.436621  4326 net.cpp:53] Initializing net from parameters: 
name: "LeNet"
state {
  phase: TEST
}
layer {
  name: "mnist"
  type: "Data"
  top: "data"
  top: "label"
  include {
    phase: TEST
  }
  transform_param {
    scale: 0.00390625
  }
  data_param {
    source: "examples/mnist/mnist_test_lmdb"
    batch_size: 100
    backend: LMDB
  }
}
layer {
  name: "conv0"
  type: "Convolution"
  bottom: "data"
  top: "conv0"
  param {
    lr_mult: 1
  }
  param {
    lr_mult: 2
  }
  convolution_param {
    num_output: 100
    kernel_size: 5
    stride: 1
    weight_filler {
      type: "xavier"
    }
    bias_filler {
      type: "constant"
    }
  }
}
layer {
  name: "pool0"
  type: "Pooling"
  bottom: "conv0"
  top: "pool0"
  pooling_param {
    pool: MAX
    kernel_size: 2
    stride: 2
  }
}
layer {
  name: "conv1"
  type: "Convolution"
  bottom: "pool0"
  top: "conv1"
  param {
    lr_mult: 1
  }
  param {
    lr_mult: 2
  }
  convolution_param {
    num_output: 25
    kernel_size: 5
    stride: 1
    weight_filler {
      type: "xavier"
    }
    bias_filler {
      type: "constant"
    }
  }
}
layer {
  name: "pool1"
  type: "Pooling"
  bottom: "conv1"
  top: "pool1"
  pooling_param {
    pool: MAX
    kernel_size: 2
    stride: 2
  }
}
layer {
  name: "ip1"
  type: "InnerProduct"
  bottom: "pool1"
  top: "ip1"
  param {
    lr_mult: 1
  }
  param {
    lr_mult: 2
  }
  inner_product_param {
    num_output: 50
    weight_filler {
      type: "xavier"
    }
    bias_filler {
      type: "constant"
    }
  }
}
layer {
  name: "relu1"
  type: "ReLU"
  bottom: "ip1"
  top: "ip1"
}
layer {
  name: "ip2"
  type: "InnerProduct"
  bottom: "ip1"
  top: "ip2"
  param {
    lr_mult: 1
  }
  param {
    lr_mult: 2
  }
  inner_product_param {
    num_output: 10
    weight_filler {
      type: "xavier"
    }
    bias_filler {
      type: "constant"
    }
  }
}
layer {
  name: "relu2"
  type: "ReLU"
  bottom: "ip2"
  top: "ip2"
}
layer {
  name: "ip3"
  type: "InnerProduct"
  bottom: "ip2"
  top: "ip3"
  param {
    lr_mult: 1
  }
  param {
    lr_mult: 2
  }
  inner_product_param {
    num_output: 10
    weight_filler {
      type: "xavier"
    }
    bias_filler {
      type: "constant"
    }
  }
}
layer {
  name: "relu3"
  type: "ReLU"
  bottom: "ip3"
  top: "ip3"
}
layer {
  name: "accuracy"
  type: "Accuracy"
  bottom: "ip3"
  bottom: "label"
  top: "accuracy"
  include {
    phase: TEST
  }
}
layer {
  name: "loss"
  type: "SoftmaxWithLoss"
  bottom: "ip3"
  bottom: "label"
  top: "loss"
}
I0428 20:33:40.436750  4326 layer_factory.hpp:77] Creating layer mnist
I0428 20:33:40.436821  4326 db_lmdb.cpp:35] Opened lmdb examples/mnist/mnist_test_lmdb
I0428 20:33:40.436841  4326 net.cpp:86] Creating Layer mnist
I0428 20:33:40.436849  4326 net.cpp:382] mnist -> data
I0428 20:33:40.436862  4326 net.cpp:382] mnist -> label
I0428 20:33:40.436992  4326 data_layer.cpp:45] output data size: 100,1,28,28
I0428 20:33:40.439577  4326 net.cpp:124] Setting up mnist
I0428 20:33:40.439592  4326 net.cpp:131] Top shape: 100 1 28 28 (78400)
I0428 20:33:40.439597  4326 net.cpp:131] Top shape: 100 (100)
I0428 20:33:40.439601  4326 net.cpp:139] Memory required for data: 314000
I0428 20:33:40.439605  4326 layer_factory.hpp:77] Creating layer label_mnist_1_split
I0428 20:33:40.439613  4326 net.cpp:86] Creating Layer label_mnist_1_split
I0428 20:33:40.439617  4326 net.cpp:408] label_mnist_1_split <- label
I0428 20:33:40.439622  4326 net.cpp:382] label_mnist_1_split -> label_mnist_1_split_0
I0428 20:33:40.439630  4326 net.cpp:382] label_mnist_1_split -> label_mnist_1_split_1
I0428 20:33:40.439749  4326 net.cpp:124] Setting up label_mnist_1_split
I0428 20:33:40.439764  4326 net.cpp:131] Top shape: 100 (100)
I0428 20:33:40.439770  4326 net.cpp:131] Top shape: 100 (100)
I0428 20:33:40.439776  4326 net.cpp:139] Memory required for data: 314800
I0428 20:33:40.439782  4326 layer_factory.hpp:77] Creating layer conv0
I0428 20:33:40.439797  4326 net.cpp:86] Creating Layer conv0
I0428 20:33:40.439803  4326 net.cpp:408] conv0 <- data
I0428 20:33:40.439813  4326 net.cpp:382] conv0 -> conv0
I0428 20:33:40.441970  4326 net.cpp:124] Setting up conv0
I0428 20:33:40.441987  4326 net.cpp:131] Top shape: 100 100 24 24 (5760000)
I0428 20:33:40.441990  4326 net.cpp:139] Memory required for data: 23354800
I0428 20:33:40.442001  4326 layer_factory.hpp:77] Creating layer pool0
I0428 20:33:40.442008  4326 net.cpp:86] Creating Layer pool0
I0428 20:33:40.442013  4326 net.cpp:408] pool0 <- conv0
I0428 20:33:40.442018  4326 net.cpp:382] pool0 -> pool0
I0428 20:33:40.442070  4326 net.cpp:124] Setting up pool0
I0428 20:33:40.442081  4326 net.cpp:131] Top shape: 100 100 12 12 (1440000)
I0428 20:33:40.442086  4326 net.cpp:139] Memory required for data: 29114800
I0428 20:33:40.442093  4326 layer_factory.hpp:77] Creating layer conv1
I0428 20:33:40.442108  4326 net.cpp:86] Creating Layer conv1
I0428 20:33:40.442114  4326 net.cpp:408] conv1 <- pool0
I0428 20:33:40.442124  4326 net.cpp:382] conv1 -> conv1
I0428 20:33:40.444695  4326 net.cpp:124] Setting up conv1
I0428 20:33:40.444711  4326 net.cpp:131] Top shape: 100 25 8 8 (160000)
I0428 20:33:40.444715  4326 net.cpp:139] Memory required for data: 29754800
I0428 20:33:40.444725  4326 layer_factory.hpp:77] Creating layer pool1
I0428 20:33:40.444732  4326 net.cpp:86] Creating Layer pool1
I0428 20:33:40.444737  4326 net.cpp:408] pool1 <- conv1
I0428 20:33:40.444743  4326 net.cpp:382] pool1 -> pool1
I0428 20:33:40.444793  4326 net.cpp:124] Setting up pool1
I0428 20:33:40.444805  4326 net.cpp:131] Top shape: 100 25 4 4 (40000)
I0428 20:33:40.444820  4326 net.cpp:139] Memory required for data: 29914800
I0428 20:33:40.444828  4326 layer_factory.hpp:77] Creating layer ip1
I0428 20:33:40.444842  4326 net.cpp:86] Creating Layer ip1
I0428 20:33:40.444849  4326 net.cpp:408] ip1 <- pool1
I0428 20:33:40.444859  4326 net.cpp:382] ip1 -> ip1
I0428 20:33:40.445258  4326 net.cpp:124] Setting up ip1
I0428 20:33:40.445282  4326 net.cpp:131] Top shape: 100 50 (5000)
I0428 20:33:40.445303  4326 net.cpp:139] Memory required for data: 29934800
I0428 20:33:40.445314  4326 layer_factory.hpp:77] Creating layer relu1
I0428 20:33:40.445322  4326 net.cpp:86] Creating Layer relu1
I0428 20:33:40.445328  4326 net.cpp:408] relu1 <- ip1
I0428 20:33:40.445335  4326 net.cpp:369] relu1 -> ip1 (in-place)
I0428 20:33:40.445649  4326 net.cpp:124] Setting up relu1
I0428 20:33:40.445678  4326 net.cpp:131] Top shape: 100 50 (5000)
I0428 20:33:40.445699  4326 net.cpp:139] Memory required for data: 29954800
I0428 20:33:40.445705  4326 layer_factory.hpp:77] Creating layer ip2
I0428 20:33:40.445727  4326 net.cpp:86] Creating Layer ip2
I0428 20:33:40.445734  4326 net.cpp:408] ip2 <- ip1
I0428 20:33:40.445744  4326 net.cpp:382] ip2 -> ip2
I0428 20:33:40.445894  4326 net.cpp:124] Setting up ip2
I0428 20:33:40.445905  4326 net.cpp:131] Top shape: 100 10 (1000)
I0428 20:33:40.445911  4326 net.cpp:139] Memory required for data: 29958800
I0428 20:33:40.445920  4326 layer_factory.hpp:77] Creating layer relu2
I0428 20:33:40.445947  4326 net.cpp:86] Creating Layer relu2
I0428 20:33:40.445967  4326 net.cpp:408] relu2 <- ip2
I0428 20:33:40.445976  4326 net.cpp:369] relu2 -> ip2 (in-place)
I0428 20:33:40.446192  4326 net.cpp:124] Setting up relu2
I0428 20:33:40.446203  4326 net.cpp:131] Top shape: 100 10 (1000)
I0428 20:33:40.446209  4326 net.cpp:139] Memory required for data: 29962800
I0428 20:33:40.446215  4326 layer_factory.hpp:77] Creating layer ip3
I0428 20:33:40.446223  4326 net.cpp:86] Creating Layer ip3
I0428 20:33:40.446229  4326 net.cpp:408] ip3 <- ip2
I0428 20:33:40.446238  4326 net.cpp:382] ip3 -> ip3
I0428 20:33:40.446363  4326 net.cpp:124] Setting up ip3
I0428 20:33:40.446374  4326 net.cpp:131] Top shape: 100 10 (1000)
I0428 20:33:40.446379  4326 net.cpp:139] Memory required for data: 29966800
I0428 20:33:40.446391  4326 layer_factory.hpp:77] Creating layer relu3
I0428 20:33:40.446399  4326 net.cpp:86] Creating Layer relu3
I0428 20:33:40.446405  4326 net.cpp:408] relu3 <- ip3
I0428 20:33:40.446413  4326 net.cpp:369] relu3 -> ip3 (in-place)
I0428 20:33:40.447558  4326 net.cpp:124] Setting up relu3
I0428 20:33:40.447592  4326 net.cpp:131] Top shape: 100 10 (1000)
I0428 20:33:40.447597  4326 net.cpp:139] Memory required for data: 29970800
I0428 20:33:40.447603  4326 layer_factory.hpp:77] Creating layer ip3_relu3_0_split
I0428 20:33:40.447626  4326 net.cpp:86] Creating Layer ip3_relu3_0_split
I0428 20:33:40.447633  4326 net.cpp:408] ip3_relu3_0_split <- ip3
I0428 20:33:40.447639  4326 net.cpp:382] ip3_relu3_0_split -> ip3_relu3_0_split_0
I0428 20:33:40.447649  4326 net.cpp:382] ip3_relu3_0_split -> ip3_relu3_0_split_1
I0428 20:33:40.447698  4326 net.cpp:124] Setting up ip3_relu3_0_split
I0428 20:33:40.447710  4326 net.cpp:131] Top shape: 100 10 (1000)
I0428 20:33:40.447715  4326 net.cpp:131] Top shape: 100 10 (1000)
I0428 20:33:40.447721  4326 net.cpp:139] Memory required for data: 29978800
I0428 20:33:40.447726  4326 layer_factory.hpp:77] Creating layer accuracy
I0428 20:33:40.447733  4326 net.cpp:86] Creating Layer accuracy
I0428 20:33:40.447738  4326 net.cpp:408] accuracy <- ip3_relu3_0_split_0
I0428 20:33:40.447746  4326 net.cpp:408] accuracy <- label_mnist_1_split_0
I0428 20:33:40.447752  4326 net.cpp:382] accuracy -> accuracy
…
