…
I0428 19:44:06.804890 25532 net.cpp:296] The NetState phase (0) differed from the phase (1) specified by a rule in layer mnist
I0428 19:44:06.804908 25532 net.cpp:296] The NetState phase (0) differed from the phase (1) specified by a rule in layer accuracy
I0428 19:44:06.804993 25532 net.cpp:53] Initializing net from parameters: 
name: "LeNet"
state {
  phase: TRAIN
  level: 0
  stage: ""
}
layer {
  name: "mnist"
  type: "Data"
  top: "data"
  top: "label"
  include {
    phase: TRAIN
  }
  transform_param {
    scale: 0.00390625
  }
  data_param {
    source: "examples/mnist/mnist_train_lmdb"
    batch_size: 64
    backend: LMDB
  }
}
layer {
  name: "conv0"
  type: "Convolution"
  bottom: "data"
  top: "conv0"
  param {
    lr_mult: 1
  }
  param {
    lr_mult: 2
  }
  convolution_param {
    num_output: 2
    kernel_size: 5
    stride: 1
    weight_filler {
      type: "xavier"
    }
    bias_filler {
      type: "constant"
    }
  }
}
layer {
  name: "pool0"
  type: "Pooling"
  bottom: "conv0"
  top: "pool0"
  pooling_param {
    pool: MAX
    kernel_size: 2
    stride: 2
  }
}
layer {
  name: "conv1"
  type: "Convolution"
  bottom: "pool0"
  top: "conv1"
  param {
    lr_mult: 1
  }
  param {
    lr_mult: 2
  }
  convolution_param {
    num_output: 50
    kernel_size: 5
    stride: 1
    weight_filler {
      type: "xavier"
    }
    bias_filler {
      type: "constant"
    }
  }
}
layer {
  name: "pool1"
  type: "Pooling"
  bottom: "conv1"
  top: "pool1"
  pooling_param {
    pool: MAX
    kernel_size: 2
    stride: 2
  }
}
layer {
  name: "ip1"
  type: "InnerProduct"
  bottom: "pool1"
  top: "ip1"
  param {
    lr_mult: 1
  }
  param {
    lr_mult: 2
  }
  inner_product_param {
    num_output: 50
    weight_filler {
      type: "xavier"
    }
    bias_filler {
      type: "constant"
    }
  }
}
layer {
  name: "relu1"
  type: "ReLU"
  bottom: "ip1"
  top: "ip1"
}
layer {
  name: "ip2"
  type: "InnerProduct"
  bottom: "ip1"
  top: "ip2"
  param {
    lr_mult: 1
  }
  param {
    lr_mult: 2
  }
  inner_product_param {
    num_output: 10
    weight_filler {
      type: "xavier"
    }
    bias_filler {
      type: "constant"
    }
  }
}
layer {
  name: "relu2"
  type: "ReLU"
  bottom: "ip2"
  top: "ip2"
}
layer {
  name: "loss"
  type: "SoftmaxWithLoss"
  bottom: "ip2"
  bottom: "label"
  top: "loss"
}
I0428 19:44:06.805061 25532 layer_factory.hpp:77] Creating layer mnist
I0428 19:44:06.805158 25532 db_lmdb.cpp:35] Opened lmdb examples/mnist/mnist_train_lmdb
I0428 19:44:06.805181 25532 net.cpp:86] Creating Layer mnist
I0428 19:44:06.805188 25532 net.cpp:382] mnist -> data
I0428 19:44:06.805212 25532 net.cpp:382] mnist -> label
I0428 19:44:06.806290 25532 data_layer.cpp:45] output data size: 64,1,28,28
I0428 19:44:06.808723 25532 net.cpp:124] Setting up mnist
I0428 19:44:06.808740 25532 net.cpp:131] Top shape: 64 1 28 28 (50176)
I0428 19:44:06.808748 25532 net.cpp:131] Top shape: 64 (64)
I0428 19:44:06.808751 25532 net.cpp:139] Memory required for data: 200960
I0428 19:44:06.808758 25532 layer_factory.hpp:77] Creating layer conv0
I0428 19:44:06.808773 25532 net.cpp:86] Creating Layer conv0
I0428 19:44:06.808779 25532 net.cpp:408] conv0 <- data
I0428 19:44:06.808790 25532 net.cpp:382] conv0 -> conv0
I0428 19:44:07.098700 25532 net.cpp:124] Setting up conv0
I0428 19:44:07.098732 25532 net.cpp:131] Top shape: 64 2 24 24 (73728)
I0428 19:44:07.098737 25532 net.cpp:139] Memory required for data: 495872
I0428 19:44:07.098776 25532 layer_factory.hpp:77] Creating layer pool0
I0428 19:44:07.098791 25532 net.cpp:86] Creating Layer pool0
I0428 19:44:07.098796 25532 net.cpp:408] pool0 <- conv0
I0428 19:44:07.098803 25532 net.cpp:382] pool0 -> pool0
I0428 19:44:07.098860 25532 net.cpp:124] Setting up pool0
I0428 19:44:07.098871 25532 net.cpp:131] Top shape: 64 2 12 12 (18432)
I0428 19:44:07.098875 25532 net.cpp:139] Memory required for data: 569600
I0428 19:44:07.098879 25532 layer_factory.hpp:77] Creating layer conv1
I0428 19:44:07.098892 25532 net.cpp:86] Creating Layer conv1
I0428 19:44:07.098896 25532 net.cpp:408] conv1 <- pool0
I0428 19:44:07.098902 25532 net.cpp:382] conv1 -> conv1
I0428 19:44:07.102032 25532 net.cpp:124] Setting up conv1
I0428 19:44:07.102052 25532 net.cpp:131] Top shape: 64 50 8 8 (204800)
I0428 19:44:07.102057 25532 net.cpp:139] Memory required for data: 1388800
I0428 19:44:07.102067 25532 layer_factory.hpp:77] Creating layer pool1
I0428 19:44:07.102077 25532 net.cpp:86] Creating Layer pool1
I0428 19:44:07.102080 25532 net.cpp:408] pool1 <- conv1
I0428 19:44:07.102088 25532 net.cpp:382] pool1 -> pool1
I0428 19:44:07.102133 25532 net.cpp:124] Setting up pool1
I0428 19:44:07.102141 25532 net.cpp:131] Top shape: 64 50 4 4 (51200)
I0428 19:44:07.102145 25532 net.cpp:139] Memory required for data: 1593600
I0428 19:44:07.102149 25532 layer_factory.hpp:77] Creating layer ip1
I0428 19:44:07.102157 25532 net.cpp:86] Creating Layer ip1
I0428 19:44:07.102161 25532 net.cpp:408] ip1 <- pool1
I0428 19:44:07.102167 25532 net.cpp:382] ip1 -> ip1
I0428 19:44:07.102560 25532 net.cpp:124] Setting up ip1
I0428 19:44:07.102569 25532 net.cpp:131] Top shape: 64 50 (3200)
I0428 19:44:07.102572 25532 net.cpp:139] Memory required for data: 1606400
I0428 19:44:07.102581 25532 layer_factory.hpp:77] Creating layer relu1
I0428 19:44:07.102589 25532 net.cpp:86] Creating Layer relu1
I0428 19:44:07.102593 25532 net.cpp:408] relu1 <- ip1
I0428 19:44:07.102598 25532 net.cpp:369] relu1 -> ip1 (in-place)
I0428 19:44:07.102802 25532 net.cpp:124] Setting up relu1
I0428 19:44:07.102814 25532 net.cpp:131] Top shape: 64 50 (3200)
I0428 19:44:07.102818 25532 net.cpp:139] Memory required for data: 1619200
I0428 19:44:07.102823 25532 layer_factory.hpp:77] Creating layer ip2
I0428 19:44:07.102829 25532 net.cpp:86] Creating Layer ip2
I0428 19:44:07.102833 25532 net.cpp:408] ip2 <- ip1
I0428 19:44:07.102839 25532 net.cpp:382] ip2 -> ip2
I0428 19:44:07.102962 25532 net.cpp:124] Setting up ip2
I0428 19:44:07.102972 25532 net.cpp:131] Top shape: 64 10 (640)
I0428 19:44:07.102974 25532 net.cpp:139] Memory required for data: 1621760
I0428 19:44:07.102982 25532 layer_factory.hpp:77] Creating layer relu2
I0428 19:44:07.102989 25532 net.cpp:86] Creating Layer relu2
I0428 19:44:07.102993 25532 net.cpp:408] relu2 <- ip2
I0428 19:44:07.102998 25532 net.cpp:369] relu2 -> ip2 (in-place)
I0428 19:44:07.103855 25532 net.cpp:124] Setting up relu2
I0428 19:44:07.103870 25532 net.cpp:131] Top shape: 64 10 (640)
I0428 19:44:07.103874 25532 net.cpp:139] Memory required for data: 1624320
I0428 19:44:07.103878 25532 layer_factory.hpp:77] Creating layer loss
I0428 19:44:07.103886 25532 net.cpp:86] Creating Layer loss
I0428 19:44:07.103890 25532 net.cpp:408] loss <- ip2
I0428 19:44:07.103895 25532 net.cpp:408] loss <- label
I0428 19:44:07.103902 25532 net.cpp:382] loss -> loss
I0428 19:44:07.103926 25532 layer_factory.hpp:77] Creating layer loss
…
I0428 19:44:07.104663 25532 solver.cpp:173] Creating test net (#0) specified by net file: ECE595/mnist/train_test/var_everything2/lenet_train_test439.prototxt
I0428 19:44:07.104694 25532 net.cpp:296] The NetState phase (1) differed from the phase (0) specified by a rule in layer mnist
I0428 19:44:07.104799 25532 net.cpp:53] Initializing net from parameters: 
name: "LeNet"
state {
  phase: TEST
}
layer {
  name: "mnist"
  type: "Data"
  top: "data"
  top: "label"
  include {
    phase: TEST
  }
  transform_param {
    scale: 0.00390625
  }
  data_param {
    source: "examples/mnist/mnist_test_lmdb"
    batch_size: 100
    backend: LMDB
  }
}
layer {
  name: "conv0"
  type: "Convolution"
  bottom: "data"
  top: "conv0"
  param {
    lr_mult: 1
  }
  param {
    lr_mult: 2
  }
  convolution_param {
    num_output: 2
    kernel_size: 5
    stride: 1
    weight_filler {
      type: "xavier"
    }
    bias_filler {
      type: "constant"
    }
  }
}
layer {
  name: "pool0"
  type: "Pooling"
  bottom: "conv0"
  top: "pool0"
  pooling_param {
    pool: MAX
    kernel_size: 2
    stride: 2
  }
}
layer {
  name: "conv1"
  type: "Convolution"
  bottom: "pool0"
  top: "conv1"
  param {
    lr_mult: 1
  }
  param {
    lr_mult: 2
  }
  convolution_param {
    num_output: 50
    kernel_size: 5
    stride: 1
    weight_filler {
      type: "xavier"
    }
    bias_filler {
      type: "constant"
    }
  }
}
layer {
  name: "pool1"
  type: "Pooling"
  bottom: "conv1"
  top: "pool1"
  pooling_param {
    pool: MAX
    kernel_size: 2
    stride: 2
  }
}
layer {
  name: "ip1"
  type: "InnerProduct"
  bottom: "pool1"
  top: "ip1"
  param {
    lr_mult: 1
  }
  param {
    lr_mult: 2
  }
  inner_product_param {
    num_output: 50
    weight_filler {
      type: "xavier"
    }
    bias_filler {
      type: "constant"
    }
  }
}
layer {
  name: "relu1"
  type: "ReLU"
  bottom: "ip1"
  top: "ip1"
}
layer {
  name: "ip2"
  type: "InnerProduct"
  bottom: "ip1"
  top: "ip2"
  param {
    lr_mult: 1
  }
  param {
    lr_mult: 2
  }
  inner_product_param {
    num_output: 10
    weight_filler {
      type: "xavier"
    }
    bias_filler {
      type: "constant"
    }
  }
}
layer {
  name: "relu2"
  type: "ReLU"
  bottom: "ip2"
  top: "ip2"
}
layer {
  name: "accuracy"
  type: "Accuracy"
  bottom: "ip2"
  bottom: "label"
  top: "accuracy"
  include {
    phase: TEST
  }
}
layer {
  name: "loss"
  type: "SoftmaxWithLoss"
  bottom: "ip2"
  bottom: "label"
  top: "loss"
}
I0428 19:44:07.104888 25532 layer_factory.hpp:77] Creating layer mnist
I0428 19:44:07.104938 25532 db_lmdb.cpp:35] Opened lmdb examples/mnist/mnist_test_lmdb
I0428 19:44:07.104957 25532 net.cpp:86] Creating Layer mnist
I0428 19:44:07.104964 25532 net.cpp:382] mnist -> data
I0428 19:44:07.104974 25532 net.cpp:382] mnist -> label
I0428 19:44:07.105077 25532 data_layer.cpp:45] output data size: 100,1,28,28
I0428 19:44:07.107477 25532 net.cpp:124] Setting up mnist
I0428 19:44:07.107493 25532 net.cpp:131] Top shape: 100 1 28 28 (78400)
I0428 19:44:07.107499 25532 net.cpp:131] Top shape: 100 (100)
I0428 19:44:07.107502 25532 net.cpp:139] Memory required for data: 314000
I0428 19:44:07.107507 25532 layer_factory.hpp:77] Creating layer label_mnist_1_split
I0428 19:44:07.107533 25532 net.cpp:86] Creating Layer label_mnist_1_split
I0428 19:44:07.107537 25532 net.cpp:408] label_mnist_1_split <- label
I0428 19:44:07.107543 25532 net.cpp:382] label_mnist_1_split -> label_mnist_1_split_0
I0428 19:44:07.107570 25532 net.cpp:382] label_mnist_1_split -> label_mnist_1_split_1
I0428 19:44:07.107630 25532 net.cpp:124] Setting up label_mnist_1_split
I0428 19:44:07.107650 25532 net.cpp:131] Top shape: 100 (100)
I0428 19:44:07.107656 25532 net.cpp:131] Top shape: 100 (100)
I0428 19:44:07.107659 25532 net.cpp:139] Memory required for data: 314800
I0428 19:44:07.107662 25532 layer_factory.hpp:77] Creating layer conv0
I0428 19:44:07.107674 25532 net.cpp:86] Creating Layer conv0
I0428 19:44:07.107678 25532 net.cpp:408] conv0 <- data
I0428 19:44:07.107686 25532 net.cpp:382] conv0 -> conv0
I0428 19:44:07.109637 25532 net.cpp:124] Setting up conv0
I0428 19:44:07.109657 25532 net.cpp:131] Top shape: 100 2 24 24 (115200)
I0428 19:44:07.109661 25532 net.cpp:139] Memory required for data: 775600
I0428 19:44:07.109673 25532 layer_factory.hpp:77] Creating layer pool0
I0428 19:44:07.109680 25532 net.cpp:86] Creating Layer pool0
I0428 19:44:07.109684 25532 net.cpp:408] pool0 <- conv0
I0428 19:44:07.109689 25532 net.cpp:382] pool0 -> pool0
I0428 19:44:07.109737 25532 net.cpp:124] Setting up pool0
I0428 19:44:07.109743 25532 net.cpp:131] Top shape: 100 2 12 12 (28800)
I0428 19:44:07.109747 25532 net.cpp:139] Memory required for data: 890800
I0428 19:44:07.109750 25532 layer_factory.hpp:77] Creating layer conv1
I0428 19:44:07.109762 25532 net.cpp:86] Creating Layer conv1
I0428 19:44:07.109768 25532 net.cpp:408] conv1 <- pool0
I0428 19:44:07.109773 25532 net.cpp:382] conv1 -> conv1
I0428 19:44:07.111557 25532 net.cpp:124] Setting up conv1
I0428 19:44:07.111572 25532 net.cpp:131] Top shape: 100 50 8 8 (320000)
I0428 19:44:07.111577 25532 net.cpp:139] Memory required for data: 2170800
I0428 19:44:07.111588 25532 layer_factory.hpp:77] Creating layer pool1
I0428 19:44:07.111596 25532 net.cpp:86] Creating Layer pool1
I0428 19:44:07.111600 25532 net.cpp:408] pool1 <- conv1
I0428 19:44:07.111615 25532 net.cpp:382] pool1 -> pool1
I0428 19:44:07.111660 25532 net.cpp:124] Setting up pool1
I0428 19:44:07.111670 25532 net.cpp:131] Top shape: 100 50 4 4 (80000)
I0428 19:44:07.111675 25532 net.cpp:139] Memory required for data: 2490800
I0428 19:44:07.111677 25532 layer_factory.hpp:77] Creating layer ip1
I0428 19:44:07.111685 25532 net.cpp:86] Creating Layer ip1
I0428 19:44:07.111688 25532 net.cpp:408] ip1 <- pool1
I0428 19:44:07.111696 25532 net.cpp:382] ip1 -> ip1
I0428 19:44:07.112098 25532 net.cpp:124] Setting up ip1
I0428 19:44:07.112108 25532 net.cpp:131] Top shape: 100 50 (5000)
I0428 19:44:07.112112 25532 net.cpp:139] Memory required for data: 2510800
I0428 19:44:07.112121 25532 layer_factory.hpp:77] Creating layer relu1
I0428 19:44:07.112128 25532 net.cpp:86] Creating Layer relu1
I0428 19:44:07.112133 25532 net.cpp:408] relu1 <- ip1
I0428 19:44:07.112138 25532 net.cpp:369] relu1 -> ip1 (in-place)
I0428 19:44:07.112355 25532 net.cpp:124] Setting up relu1
I0428 19:44:07.112367 25532 net.cpp:131] Top shape: 100 50 (5000)
I0428 19:44:07.112371 25532 net.cpp:139] Memory required for data: 2530800
I0428 19:44:07.112375 25532 layer_factory.hpp:77] Creating layer ip2
I0428 19:44:07.112385 25532 net.cpp:86] Creating Layer ip2
I0428 19:44:07.112388 25532 net.cpp:408] ip2 <- ip1
I0428 19:44:07.112395 25532 net.cpp:382] ip2 -> ip2
I0428 19:44:07.112542 25532 net.cpp:124] Setting up ip2
I0428 19:44:07.112551 25532 net.cpp:131] Top shape: 100 10 (1000)
I0428 19:44:07.112555 25532 net.cpp:139] Memory required for data: 2534800
I0428 19:44:07.112562 25532 layer_factory.hpp:77] Creating layer relu2
I0428 19:44:07.112567 25532 net.cpp:86] Creating Layer relu2
I0428 19:44:07.112572 25532 net.cpp:408] relu2 <- ip2
I0428 19:44:07.112578 25532 net.cpp:369] relu2 -> ip2 (in-place)
I0428 19:44:07.112826 25532 net.cpp:124] Setting up relu2
I0428 19:44:07.112838 25532 net.cpp:131] Top shape: 100 10 (1000)
I0428 19:44:07.112848 25532 net.cpp:139] Memory required for data: 2538800
I0428 19:44:07.112853 25532 layer_factory.hpp:77] Creating layer ip2_relu2_0_split
I0428 19:44:07.112865 25532 net.cpp:86] Creating Layer ip2_relu2_0_split
I0428 19:44:07.112869 25532 net.cpp:408] ip2_relu2_0_split <- ip2
I0428 19:44:07.112876 25532 net.cpp:382] ip2_relu2_0_split -> ip2_relu2_0_split_0
I0428 19:44:07.112895 25532 net.cpp:382] ip2_relu2_0_split -> ip2_relu2_0_split_1
I0428 19:44:07.112941 25532 net.cpp:124] Setting up ip2_relu2_0_split
I0428 19:44:07.112947 25532 net.cpp:131] Top shape: 100 10 (1000)
I0428 19:44:07.112952 25532 net.cpp:131] Top shape: 100 10 (1000)
I0428 19:44:07.112956 25532 net.cpp:139] Memory required for data: 2546800
I0428 19:44:07.112959 25532 layer_factory.hpp:77] Creating layer accuracy
I0428 19:44:07.112970 25532 net.cpp:86] Creating Layer accuracy
I0428 19:44:07.112973 25532 net.cpp:408] accuracy <- ip2_relu2_0_split_0
I0428 19:44:07.112979 25532 net.cpp:408] accuracy <- label_mnist_1_split_0
I0428 19:44:07.112985 25532 net.cpp:382] accuracy -> accuracy
…
