…
I0428 20:02:11.289072 29889 net.cpp:296] The NetState phase (0) differed from the phase (1) specified by a rule in layer mnist
I0428 20:02:11.289093 29889 net.cpp:296] The NetState phase (0) differed from the phase (1) specified by a rule in layer accuracy
I0428 20:02:11.289196 29889 net.cpp:53] Initializing net from parameters: 
name: "LeNet"
state {
  phase: TRAIN
  level: 0
  stage: ""
}
layer {
  name: "mnist"
  type: "Data"
  top: "data"
  top: "label"
  include {
    phase: TRAIN
  }
  transform_param {
    scale: 0.00390625
  }
  data_param {
    source: "examples/mnist/mnist_train_lmdb"
    batch_size: 64
    backend: LMDB
  }
}
layer {
  name: "conv0"
  type: "Convolution"
  bottom: "data"
  top: "conv0"
  param {
    lr_mult: 1
  }
  param {
    lr_mult: 2
  }
  convolution_param {
    num_output: 10
    kernel_size: 5
    stride: 1
    weight_filler {
      type: "xavier"
    }
    bias_filler {
      type: "constant"
    }
  }
}
layer {
  name: "pool0"
  type: "Pooling"
  bottom: "conv0"
  top: "pool0"
  pooling_param {
    pool: MAX
    kernel_size: 2
    stride: 2
  }
}
layer {
  name: "conv1"
  type: "Convolution"
  bottom: "pool0"
  top: "conv1"
  param {
    lr_mult: 1
  }
  param {
    lr_mult: 2
  }
  convolution_param {
    num_output: 50
    kernel_size: 5
    stride: 1
    weight_filler {
      type: "xavier"
    }
    bias_filler {
      type: "constant"
    }
  }
}
layer {
  name: "pool1"
  type: "Pooling"
  bottom: "conv1"
  top: "pool1"
  pooling_param {
    pool: MAX
    kernel_size: 2
    stride: 2
  }
}
layer {
  name: "ip1"
  type: "InnerProduct"
  bottom: "pool1"
  top: "ip1"
  param {
    lr_mult: 1
  }
  param {
    lr_mult: 2
  }
  inner_product_param {
    num_output: 25
    weight_filler {
      type: "xavier"
    }
    bias_filler {
      type: "constant"
    }
  }
}
layer {
  name: "relu1"
  type: "ReLU"
  bottom: "ip1"
  top: "ip1"
}
layer {
  name: "ip2"
  type: "InnerProduct"
  bottom: "ip1"
  top: "ip2"
  param {
    lr_mult: 1
  }
  param {
    lr_mult: 2
  }
  inner_product_param {
    num_output: 25
    weight_filler {
      type: "xavier"
    }
    bias_filler {
      type: "constant"
    }
  }
}
layer {
  name: "relu2"
  type: "ReLU"
  bottom: "ip2"
  top: "ip2"
}
layer {
  name: "ip3"
  type: "InnerProduct"
  bottom: "ip2"
  top: "ip3"
  param {
    lr_mult: 1
  }
  param {
    lr_mult: 2
  }
  inner_product_param {
    num_output: 10
    weight_filler {
      type: "xavier"
    }
    bias_filler {
      type: "constant"
    }
  }
}
layer {
  name: "relu3"
  type: "ReLU"
  bottom: "ip3"
  top: "ip3"
}
layer {
  name: "loss"
  type: "SoftmaxWithLoss"
  bottom: "ip3"
  bottom: "label"
  top: "loss"
}
I0428 20:02:11.289273 29889 layer_factory.hpp:77] Creating layer mnist
I0428 20:02:11.289371 29889 db_lmdb.cpp:35] Opened lmdb examples/mnist/mnist_train_lmdb
I0428 20:02:11.289396 29889 net.cpp:86] Creating Layer mnist
I0428 20:02:11.289402 29889 net.cpp:382] mnist -> data
I0428 20:02:11.289423 29889 net.cpp:382] mnist -> label
I0428 20:02:11.290511 29889 data_layer.cpp:45] output data size: 64,1,28,28
I0428 20:02:11.292960 29889 net.cpp:124] Setting up mnist
I0428 20:02:11.292978 29889 net.cpp:131] Top shape: 64 1 28 28 (50176)
I0428 20:02:11.292999 29889 net.cpp:131] Top shape: 64 (64)
I0428 20:02:11.293001 29889 net.cpp:139] Memory required for data: 200960
I0428 20:02:11.293009 29889 layer_factory.hpp:77] Creating layer conv0
I0428 20:02:11.293031 29889 net.cpp:86] Creating Layer conv0
I0428 20:02:11.293061 29889 net.cpp:408] conv0 <- data
I0428 20:02:11.293084 29889 net.cpp:382] conv0 -> conv0
I0428 20:02:11.552112 29889 net.cpp:124] Setting up conv0
I0428 20:02:11.552139 29889 net.cpp:131] Top shape: 64 10 24 24 (368640)
I0428 20:02:11.552142 29889 net.cpp:139] Memory required for data: 1675520
I0428 20:02:11.552156 29889 layer_factory.hpp:77] Creating layer pool0
I0428 20:02:11.552184 29889 net.cpp:86] Creating Layer pool0
I0428 20:02:11.552188 29889 net.cpp:408] pool0 <- conv0
I0428 20:02:11.552193 29889 net.cpp:382] pool0 -> pool0
I0428 20:02:11.552253 29889 net.cpp:124] Setting up pool0
I0428 20:02:11.552261 29889 net.cpp:131] Top shape: 64 10 12 12 (92160)
I0428 20:02:11.552264 29889 net.cpp:139] Memory required for data: 2044160
I0428 20:02:11.552268 29889 layer_factory.hpp:77] Creating layer conv1
I0428 20:02:11.552278 29889 net.cpp:86] Creating Layer conv1
I0428 20:02:11.552280 29889 net.cpp:408] conv1 <- pool0
I0428 20:02:11.552285 29889 net.cpp:382] conv1 -> conv1
I0428 20:02:11.555209 29889 net.cpp:124] Setting up conv1
I0428 20:02:11.555238 29889 net.cpp:131] Top shape: 64 50 8 8 (204800)
I0428 20:02:11.555243 29889 net.cpp:139] Memory required for data: 2863360
I0428 20:02:11.555250 29889 layer_factory.hpp:77] Creating layer pool1
I0428 20:02:11.555259 29889 net.cpp:86] Creating Layer pool1
I0428 20:02:11.555263 29889 net.cpp:408] pool1 <- conv1
I0428 20:02:11.555268 29889 net.cpp:382] pool1 -> pool1
I0428 20:02:11.555335 29889 net.cpp:124] Setting up pool1
I0428 20:02:11.555341 29889 net.cpp:131] Top shape: 64 50 4 4 (51200)
I0428 20:02:11.555344 29889 net.cpp:139] Memory required for data: 3068160
I0428 20:02:11.555347 29889 layer_factory.hpp:77] Creating layer ip1
I0428 20:02:11.555354 29889 net.cpp:86] Creating Layer ip1
I0428 20:02:11.555357 29889 net.cpp:408] ip1 <- pool1
I0428 20:02:11.555362 29889 net.cpp:382] ip1 -> ip1
I0428 20:02:11.555568 29889 net.cpp:124] Setting up ip1
I0428 20:02:11.555577 29889 net.cpp:131] Top shape: 64 25 (1600)
I0428 20:02:11.555580 29889 net.cpp:139] Memory required for data: 3074560
I0428 20:02:11.555588 29889 layer_factory.hpp:77] Creating layer relu1
I0428 20:02:11.555593 29889 net.cpp:86] Creating Layer relu1
I0428 20:02:11.555596 29889 net.cpp:408] relu1 <- ip1
I0428 20:02:11.555600 29889 net.cpp:369] relu1 -> ip1 (in-place)
I0428 20:02:11.555771 29889 net.cpp:124] Setting up relu1
I0428 20:02:11.555779 29889 net.cpp:131] Top shape: 64 25 (1600)
I0428 20:02:11.555783 29889 net.cpp:139] Memory required for data: 3080960
I0428 20:02:11.555785 29889 layer_factory.hpp:77] Creating layer ip2
I0428 20:02:11.555793 29889 net.cpp:86] Creating Layer ip2
I0428 20:02:11.555795 29889 net.cpp:408] ip2 <- ip1
I0428 20:02:11.555800 29889 net.cpp:382] ip2 -> ip2
I0428 20:02:11.555891 29889 net.cpp:124] Setting up ip2
I0428 20:02:11.555896 29889 net.cpp:131] Top shape: 64 25 (1600)
I0428 20:02:11.555899 29889 net.cpp:139] Memory required for data: 3087360
I0428 20:02:11.555905 29889 layer_factory.hpp:77] Creating layer relu2
I0428 20:02:11.555910 29889 net.cpp:86] Creating Layer relu2
I0428 20:02:11.555913 29889 net.cpp:408] relu2 <- ip2
I0428 20:02:11.555918 29889 net.cpp:369] relu2 -> ip2 (in-place)
I0428 20:02:11.556668 29889 net.cpp:124] Setting up relu2
I0428 20:02:11.556680 29889 net.cpp:131] Top shape: 64 25 (1600)
I0428 20:02:11.556699 29889 net.cpp:139] Memory required for data: 3093760
I0428 20:02:11.556704 29889 layer_factory.hpp:77] Creating layer ip3
I0428 20:02:11.556725 29889 net.cpp:86] Creating Layer ip3
I0428 20:02:11.556730 29889 net.cpp:408] ip3 <- ip2
I0428 20:02:11.556735 29889 net.cpp:382] ip3 -> ip3
I0428 20:02:11.556854 29889 net.cpp:124] Setting up ip3
I0428 20:02:11.556864 29889 net.cpp:131] Top shape: 64 10 (640)
I0428 20:02:11.556867 29889 net.cpp:139] Memory required for data: 3096320
I0428 20:02:11.556875 29889 layer_factory.hpp:77] Creating layer relu3
I0428 20:02:11.556880 29889 net.cpp:86] Creating Layer relu3
I0428 20:02:11.556885 29889 net.cpp:408] relu3 <- ip3
I0428 20:02:11.556888 29889 net.cpp:369] relu3 -> ip3 (in-place)
I0428 20:02:11.557060 29889 net.cpp:124] Setting up relu3
I0428 20:02:11.557068 29889 net.cpp:131] Top shape: 64 10 (640)
I0428 20:02:11.557071 29889 net.cpp:139] Memory required for data: 3098880
I0428 20:02:11.557075 29889 layer_factory.hpp:77] Creating layer loss
I0428 20:02:11.557086 29889 net.cpp:86] Creating Layer loss
I0428 20:02:11.557090 29889 net.cpp:408] loss <- ip3
I0428 20:02:11.557096 29889 net.cpp:408] loss <- label
I0428 20:02:11.557101 29889 net.cpp:382] loss -> loss
I0428 20:02:11.557114 29889 layer_factory.hpp:77] Creating layer loss
…
I0428 20:02:11.557842 29889 solver.cpp:173] Creating test net (#0) specified by net file: ECE595/mnist/train_test/var_everything2/lenet_train_test922.prototxt
I0428 20:02:11.557898 29889 net.cpp:296] The NetState phase (1) differed from the phase (0) specified by a rule in layer mnist
I0428 20:02:11.557986 29889 net.cpp:53] Initializing net from parameters: 
name: "LeNet"
state {
  phase: TEST
}
layer {
  name: "mnist"
  type: "Data"
  top: "data"
  top: "label"
  include {
    phase: TEST
  }
  transform_param {
    scale: 0.00390625
  }
  data_param {
    source: "examples/mnist/mnist_test_lmdb"
    batch_size: 100
    backend: LMDB
  }
}
layer {
  name: "conv0"
  type: "Convolution"
  bottom: "data"
  top: "conv0"
  param {
    lr_mult: 1
  }
  param {
    lr_mult: 2
  }
  convolution_param {
    num_output: 10
    kernel_size: 5
    stride: 1
    weight_filler {
      type: "xavier"
    }
    bias_filler {
      type: "constant"
    }
  }
}
layer {
  name: "pool0"
  type: "Pooling"
  bottom: "conv0"
  top: "pool0"
  pooling_param {
    pool: MAX
    kernel_size: 2
    stride: 2
  }
}
layer {
  name: "conv1"
  type: "Convolution"
  bottom: "pool0"
  top: "conv1"
  param {
    lr_mult: 1
  }
  param {
    lr_mult: 2
  }
  convolution_param {
    num_output: 50
    kernel_size: 5
    stride: 1
    weight_filler {
      type: "xavier"
    }
    bias_filler {
      type: "constant"
    }
  }
}
layer {
  name: "pool1"
  type: "Pooling"
  bottom: "conv1"
  top: "pool1"
  pooling_param {
    pool: MAX
    kernel_size: 2
    stride: 2
  }
}
layer {
  name: "ip1"
  type: "InnerProduct"
  bottom: "pool1"
  top: "ip1"
  param {
    lr_mult: 1
  }
  param {
    lr_mult: 2
  }
  inner_product_param {
    num_output: 25
    weight_filler {
      type: "xavier"
    }
    bias_filler {
      type: "constant"
    }
  }
}
layer {
  name: "relu1"
  type: "ReLU"
  bottom: "ip1"
  top: "ip1"
}
layer {
  name: "ip2"
  type: "InnerProduct"
  bottom: "ip1"
  top: "ip2"
  param {
    lr_mult: 1
  }
  param {
    lr_mult: 2
  }
  inner_product_param {
    num_output: 25
    weight_filler {
      type: "xavier"
    }
    bias_filler {
      type: "constant"
    }
  }
}
layer {
  name: "relu2"
  type: "ReLU"
  bottom: "ip2"
  top: "ip2"
}
layer {
  name: "ip3"
  type: "InnerProduct"
  bottom: "ip2"
  top: "ip3"
  param {
    lr_mult: 1
  }
  param {
    lr_mult: 2
  }
  inner_product_param {
    num_output: 10
    weight_filler {
      type: "xavier"
    }
    bias_filler {
      type: "constant"
    }
  }
}
layer {
  name: "relu3"
  type: "ReLU"
  bottom: "ip3"
  top: "ip3"
}
layer {
  name: "accuracy"
  type: "Accuracy"
  bottom: "ip3"
  bottom: "label"
  top: "accuracy"
  include {
    phase: TEST
  }
}
layer {
  name: "loss"
  type: "SoftmaxWithLoss"
  bottom: "ip3"
  bottom: "label"
  top: "loss"
}
I0428 20:02:11.558068 29889 layer_factory.hpp:77] Creating layer mnist
I0428 20:02:11.558110 29889 db_lmdb.cpp:35] Opened lmdb examples/mnist/mnist_test_lmdb
I0428 20:02:11.558138 29889 net.cpp:86] Creating Layer mnist
I0428 20:02:11.558143 29889 net.cpp:382] mnist -> data
I0428 20:02:11.558151 29889 net.cpp:382] mnist -> label
I0428 20:02:11.558233 29889 data_layer.cpp:45] output data size: 100,1,28,28
I0428 20:02:11.560520 29889 net.cpp:124] Setting up mnist
I0428 20:02:11.560550 29889 net.cpp:131] Top shape: 100 1 28 28 (78400)
I0428 20:02:11.560556 29889 net.cpp:131] Top shape: 100 (100)
I0428 20:02:11.560559 29889 net.cpp:139] Memory required for data: 314000
I0428 20:02:11.560564 29889 layer_factory.hpp:77] Creating layer label_mnist_1_split
I0428 20:02:11.560572 29889 net.cpp:86] Creating Layer label_mnist_1_split
I0428 20:02:11.560576 29889 net.cpp:408] label_mnist_1_split <- label
I0428 20:02:11.560581 29889 net.cpp:382] label_mnist_1_split -> label_mnist_1_split_0
I0428 20:02:11.560588 29889 net.cpp:382] label_mnist_1_split -> label_mnist_1_split_1
I0428 20:02:11.560684 29889 net.cpp:124] Setting up label_mnist_1_split
I0428 20:02:11.560693 29889 net.cpp:131] Top shape: 100 (100)
I0428 20:02:11.560695 29889 net.cpp:131] Top shape: 100 (100)
I0428 20:02:11.560698 29889 net.cpp:139] Memory required for data: 314800
I0428 20:02:11.560701 29889 layer_factory.hpp:77] Creating layer conv0
I0428 20:02:11.560709 29889 net.cpp:86] Creating Layer conv0
I0428 20:02:11.560714 29889 net.cpp:408] conv0 <- data
I0428 20:02:11.560717 29889 net.cpp:382] conv0 -> conv0
I0428 20:02:11.562229 29889 net.cpp:124] Setting up conv0
I0428 20:02:11.562243 29889 net.cpp:131] Top shape: 100 10 24 24 (576000)
I0428 20:02:11.562247 29889 net.cpp:139] Memory required for data: 2618800
I0428 20:02:11.562257 29889 layer_factory.hpp:77] Creating layer pool0
I0428 20:02:11.562263 29889 net.cpp:86] Creating Layer pool0
I0428 20:02:11.562265 29889 net.cpp:408] pool0 <- conv0
I0428 20:02:11.562270 29889 net.cpp:382] pool0 -> pool0
I0428 20:02:11.562304 29889 net.cpp:124] Setting up pool0
I0428 20:02:11.562310 29889 net.cpp:131] Top shape: 100 10 12 12 (144000)
I0428 20:02:11.562314 29889 net.cpp:139] Memory required for data: 3194800
I0428 20:02:11.562316 29889 layer_factory.hpp:77] Creating layer conv1
I0428 20:02:11.562324 29889 net.cpp:86] Creating Layer conv1
I0428 20:02:11.562327 29889 net.cpp:408] conv1 <- pool0
I0428 20:02:11.562331 29889 net.cpp:382] conv1 -> conv1
I0428 20:02:11.563941 29889 net.cpp:124] Setting up conv1
I0428 20:02:11.563969 29889 net.cpp:131] Top shape: 100 50 8 8 (320000)
I0428 20:02:11.563974 29889 net.cpp:139] Memory required for data: 4474800
I0428 20:02:11.563982 29889 layer_factory.hpp:77] Creating layer pool1
I0428 20:02:11.563989 29889 net.cpp:86] Creating Layer pool1
I0428 20:02:11.563993 29889 net.cpp:408] pool1 <- conv1
I0428 20:02:11.563998 29889 net.cpp:382] pool1 -> pool1
I0428 20:02:11.564034 29889 net.cpp:124] Setting up pool1
I0428 20:02:11.564040 29889 net.cpp:131] Top shape: 100 50 4 4 (80000)
I0428 20:02:11.564044 29889 net.cpp:139] Memory required for data: 4794800
I0428 20:02:11.564049 29889 layer_factory.hpp:77] Creating layer ip1
I0428 20:02:11.564054 29889 net.cpp:86] Creating Layer ip1
I0428 20:02:11.564057 29889 net.cpp:408] ip1 <- pool1
I0428 20:02:11.564062 29889 net.cpp:382] ip1 -> ip1
I0428 20:02:11.564318 29889 net.cpp:124] Setting up ip1
I0428 20:02:11.564327 29889 net.cpp:131] Top shape: 100 25 (2500)
I0428 20:02:11.564340 29889 net.cpp:139] Memory required for data: 4804800
I0428 20:02:11.564349 29889 layer_factory.hpp:77] Creating layer relu1
I0428 20:02:11.564354 29889 net.cpp:86] Creating Layer relu1
I0428 20:02:11.564357 29889 net.cpp:408] relu1 <- ip1
I0428 20:02:11.564363 29889 net.cpp:369] relu1 -> ip1 (in-place)
I0428 20:02:11.564544 29889 net.cpp:124] Setting up relu1
I0428 20:02:11.564553 29889 net.cpp:131] Top shape: 100 25 (2500)
I0428 20:02:11.564556 29889 net.cpp:139] Memory required for data: 4814800
I0428 20:02:11.564559 29889 layer_factory.hpp:77] Creating layer ip2
I0428 20:02:11.564566 29889 net.cpp:86] Creating Layer ip2
I0428 20:02:11.564569 29889 net.cpp:408] ip2 <- ip1
I0428 20:02:11.564575 29889 net.cpp:382] ip2 -> ip2
I0428 20:02:11.564673 29889 net.cpp:124] Setting up ip2
I0428 20:02:11.564680 29889 net.cpp:131] Top shape: 100 25 (2500)
I0428 20:02:11.564684 29889 net.cpp:139] Memory required for data: 4824800
I0428 20:02:11.564690 29889 layer_factory.hpp:77] Creating layer relu2
I0428 20:02:11.564694 29889 net.cpp:86] Creating Layer relu2
I0428 20:02:11.564698 29889 net.cpp:408] relu2 <- ip2
I0428 20:02:11.564702 29889 net.cpp:369] relu2 -> ip2 (in-place)
I0428 20:02:11.564916 29889 net.cpp:124] Setting up relu2
I0428 20:02:11.564926 29889 net.cpp:131] Top shape: 100 25 (2500)
I0428 20:02:11.564929 29889 net.cpp:139] Memory required for data: 4834800
I0428 20:02:11.564934 29889 layer_factory.hpp:77] Creating layer ip3
I0428 20:02:11.564939 29889 net.cpp:86] Creating Layer ip3
I0428 20:02:11.564942 29889 net.cpp:408] ip3 <- ip2
I0428 20:02:11.564949 29889 net.cpp:382] ip3 -> ip3
I0428 20:02:11.565100 29889 net.cpp:124] Setting up ip3
I0428 20:02:11.565109 29889 net.cpp:131] Top shape: 100 10 (1000)
I0428 20:02:11.565112 29889 net.cpp:139] Memory required for data: 4838800
I0428 20:02:11.565126 29889 layer_factory.hpp:77] Creating layer relu3
I0428 20:02:11.565131 29889 net.cpp:86] Creating Layer relu3
I0428 20:02:11.565135 29889 net.cpp:408] relu3 <- ip3
I0428 20:02:11.565153 29889 net.cpp:369] relu3 -> ip3 (in-place)
I0428 20:02:11.565940 29889 net.cpp:124] Setting up relu3
I0428 20:02:11.565953 29889 net.cpp:131] Top shape: 100 10 (1000)
I0428 20:02:11.565970 29889 net.cpp:139] Memory required for data: 4842800
I0428 20:02:11.565974 29889 layer_factory.hpp:77] Creating layer ip3_relu3_0_split
I0428 20:02:11.565979 29889 net.cpp:86] Creating Layer ip3_relu3_0_split
I0428 20:02:11.565984 29889 net.cpp:408] ip3_relu3_0_split <- ip3
I0428 20:02:11.565989 29889 net.cpp:382] ip3_relu3_0_split -> ip3_relu3_0_split_0
I0428 20:02:11.565994 29889 net.cpp:382] ip3_relu3_0_split -> ip3_relu3_0_split_1
I0428 20:02:11.566069 29889 net.cpp:124] Setting up ip3_relu3_0_split
I0428 20:02:11.566076 29889 net.cpp:131] Top shape: 100 10 (1000)
I0428 20:02:11.566081 29889 net.cpp:131] Top shape: 100 10 (1000)
I0428 20:02:11.566082 29889 net.cpp:139] Memory required for data: 4850800
I0428 20:02:11.566085 29889 layer_factory.hpp:77] Creating layer accuracy
I0428 20:02:11.566090 29889 net.cpp:86] Creating Layer accuracy
I0428 20:02:11.566094 29889 net.cpp:408] accuracy <- ip3_relu3_0_split_0
I0428 20:02:11.566099 29889 net.cpp:408] accuracy <- label_mnist_1_split_0
I0428 20:02:11.566103 29889 net.cpp:382] accuracy -> accuracy
…
