…
I0428 19:48:30.533478 26496 net.cpp:296] The NetState phase (0) differed from the phase (1) specified by a rule in layer mnist
I0428 19:48:30.533493 26496 net.cpp:296] The NetState phase (0) differed from the phase (1) specified by a rule in layer accuracy
I0428 19:48:30.533573 26496 net.cpp:53] Initializing net from parameters: 
name: "LeNet"
state {
  phase: TRAIN
  level: 0
  stage: ""
}
layer {
  name: "mnist"
  type: "Data"
  top: "data"
  top: "label"
  include {
    phase: TRAIN
  }
  transform_param {
    scale: 0.00390625
  }
  data_param {
    source: "examples/mnist/mnist_train_lmdb"
    batch_size: 64
    backend: LMDB
  }
}
layer {
  name: "conv0"
  type: "Convolution"
  bottom: "data"
  top: "conv0"
  param {
    lr_mult: 1
  }
  param {
    lr_mult: 2
  }
  convolution_param {
    num_output: 5
    kernel_size: 5
    stride: 1
    weight_filler {
      type: "xavier"
    }
    bias_filler {
      type: "constant"
    }
  }
}
layer {
  name: "pool0"
  type: "Pooling"
  bottom: "conv0"
  top: "pool0"
  pooling_param {
    pool: MAX
    kernel_size: 2
    stride: 2
  }
}
layer {
  name: "conv1"
  type: "Convolution"
  bottom: "pool0"
  top: "conv1"
  param {
    lr_mult: 1
  }
  param {
    lr_mult: 2
  }
  convolution_param {
    num_output: 5
    kernel_size: 5
    stride: 1
    weight_filler {
      type: "xavier"
    }
    bias_filler {
      type: "constant"
    }
  }
}
layer {
  name: "pool1"
  type: "Pooling"
  bottom: "conv1"
  top: "pool1"
  pooling_param {
    pool: MAX
    kernel_size: 2
    stride: 2
  }
}
layer {
  name: "ip1"
  type: "InnerProduct"
  bottom: "pool1"
  top: "ip1"
  param {
    lr_mult: 1
  }
  param {
    lr_mult: 2
  }
  inner_product_param {
    num_output: 10
    weight_filler {
      type: "xavier"
    }
    bias_filler {
      type: "constant"
    }
  }
}
layer {
  name: "relu1"
  type: "ReLU"
  bottom: "ip1"
  top: "ip1"
}
layer {
  name: "loss"
  type: "SoftmaxWithLoss"
  bottom: "ip1"
  bottom: "label"
  top: "loss"
}
I0428 19:48:30.533643 26496 layer_factory.hpp:77] Creating layer mnist
I0428 19:48:30.533741 26496 db_lmdb.cpp:35] Opened lmdb examples/mnist/mnist_train_lmdb
I0428 19:48:30.533766 26496 net.cpp:86] Creating Layer mnist
I0428 19:48:30.533773 26496 net.cpp:382] mnist -> data
I0428 19:48:30.533797 26496 net.cpp:382] mnist -> label
I0428 19:48:30.534888 26496 data_layer.cpp:45] output data size: 64,1,28,28
I0428 19:48:30.537572 26496 net.cpp:124] Setting up mnist
I0428 19:48:30.537592 26496 net.cpp:131] Top shape: 64 1 28 28 (50176)
I0428 19:48:30.537598 26496 net.cpp:131] Top shape: 64 (64)
I0428 19:48:30.537601 26496 net.cpp:139] Memory required for data: 200960
I0428 19:48:30.537611 26496 layer_factory.hpp:77] Creating layer conv0
I0428 19:48:30.537652 26496 net.cpp:86] Creating Layer conv0
I0428 19:48:30.537657 26496 net.cpp:408] conv0 <- data
I0428 19:48:30.537670 26496 net.cpp:382] conv0 -> conv0
I0428 19:48:30.828835 26496 net.cpp:124] Setting up conv0
I0428 19:48:30.828866 26496 net.cpp:131] Top shape: 64 5 24 24 (184320)
I0428 19:48:30.828871 26496 net.cpp:139] Memory required for data: 938240
I0428 19:48:30.828888 26496 layer_factory.hpp:77] Creating layer pool0
I0428 19:48:30.828903 26496 net.cpp:86] Creating Layer pool0
I0428 19:48:30.828908 26496 net.cpp:408] pool0 <- conv0
I0428 19:48:30.828914 26496 net.cpp:382] pool0 -> pool0
I0428 19:48:30.828974 26496 net.cpp:124] Setting up pool0
I0428 19:48:30.828981 26496 net.cpp:131] Top shape: 64 5 12 12 (46080)
I0428 19:48:30.829005 26496 net.cpp:139] Memory required for data: 1122560
I0428 19:48:30.829010 26496 layer_factory.hpp:77] Creating layer conv1
I0428 19:48:30.829023 26496 net.cpp:86] Creating Layer conv1
I0428 19:48:30.829027 26496 net.cpp:408] conv1 <- pool0
I0428 19:48:30.829033 26496 net.cpp:382] conv1 -> conv1
I0428 19:48:30.831182 26496 net.cpp:124] Setting up conv1
I0428 19:48:30.831199 26496 net.cpp:131] Top shape: 64 5 8 8 (20480)
I0428 19:48:30.831203 26496 net.cpp:139] Memory required for data: 1204480
I0428 19:48:30.831213 26496 layer_factory.hpp:77] Creating layer pool1
I0428 19:48:30.831223 26496 net.cpp:86] Creating Layer pool1
I0428 19:48:30.831228 26496 net.cpp:408] pool1 <- conv1
I0428 19:48:30.831233 26496 net.cpp:382] pool1 -> pool1
I0428 19:48:30.831277 26496 net.cpp:124] Setting up pool1
I0428 19:48:30.831284 26496 net.cpp:131] Top shape: 64 5 4 4 (5120)
I0428 19:48:30.831286 26496 net.cpp:139] Memory required for data: 1224960
I0428 19:48:30.831290 26496 layer_factory.hpp:77] Creating layer ip1
I0428 19:48:30.831298 26496 net.cpp:86] Creating Layer ip1
I0428 19:48:30.831302 26496 net.cpp:408] ip1 <- pool1
I0428 19:48:30.831307 26496 net.cpp:382] ip1 -> ip1
I0428 19:48:30.831428 26496 net.cpp:124] Setting up ip1
I0428 19:48:30.831435 26496 net.cpp:131] Top shape: 64 10 (640)
I0428 19:48:30.831439 26496 net.cpp:139] Memory required for data: 1227520
I0428 19:48:30.831447 26496 layer_factory.hpp:77] Creating layer relu1
I0428 19:48:30.831454 26496 net.cpp:86] Creating Layer relu1
I0428 19:48:30.831457 26496 net.cpp:408] relu1 <- ip1
I0428 19:48:30.831462 26496 net.cpp:369] relu1 -> ip1 (in-place)
I0428 19:48:30.831657 26496 net.cpp:124] Setting up relu1
I0428 19:48:30.831667 26496 net.cpp:131] Top shape: 64 10 (640)
I0428 19:48:30.831671 26496 net.cpp:139] Memory required for data: 1230080
I0428 19:48:30.831674 26496 layer_factory.hpp:77] Creating layer loss
I0428 19:48:30.831682 26496 net.cpp:86] Creating Layer loss
I0428 19:48:30.831686 26496 net.cpp:408] loss <- ip1
I0428 19:48:30.831691 26496 net.cpp:408] loss <- label
I0428 19:48:30.831696 26496 net.cpp:382] loss -> loss
I0428 19:48:30.831718 26496 layer_factory.hpp:77] Creating layer loss
…
I0428 19:48:30.833047 26496 solver.cpp:173] Creating test net (#0) specified by net file: ECE595/mnist/train_test/var_everything2/lenet_train_test546.prototxt
I0428 19:48:30.833077 26496 net.cpp:296] The NetState phase (1) differed from the phase (0) specified by a rule in layer mnist
I0428 19:48:30.833164 26496 net.cpp:53] Initializing net from parameters: 
name: "LeNet"
state {
  phase: TEST
}
layer {
  name: "mnist"
  type: "Data"
  top: "data"
  top: "label"
  include {
    phase: TEST
  }
  transform_param {
    scale: 0.00390625
  }
  data_param {
    source: "examples/mnist/mnist_test_lmdb"
    batch_size: 100
    backend: LMDB
  }
}
layer {
  name: "conv0"
  type: "Convolution"
  bottom: "data"
  top: "conv0"
  param {
    lr_mult: 1
  }
  param {
    lr_mult: 2
  }
  convolution_param {
    num_output: 5
    kernel_size: 5
    stride: 1
    weight_filler {
      type: "xavier"
    }
    bias_filler {
      type: "constant"
    }
  }
}
layer {
  name: "pool0"
  type: "Pooling"
  bottom: "conv0"
  top: "pool0"
  pooling_param {
    pool: MAX
    kernel_size: 2
    stride: 2
  }
}
layer {
  name: "conv1"
  type: "Convolution"
  bottom: "pool0"
  top: "conv1"
  param {
    lr_mult: 1
  }
  param {
    lr_mult: 2
  }
  convolution_param {
    num_output: 5
    kernel_size: 5
    stride: 1
    weight_filler {
      type: "xavier"
    }
    bias_filler {
      type: "constant"
    }
  }
}
layer {
  name: "pool1"
  type: "Pooling"
  bottom: "conv1"
  top: "pool1"
  pooling_param {
    pool: MAX
    kernel_size: 2
    stride: 2
  }
}
layer {
  name: "ip1"
  type: "InnerProduct"
  bottom: "pool1"
  top: "ip1"
  param {
    lr_mult: 1
  }
  param {
    lr_mult: 2
  }
  inner_product_param {
    num_output: 10
    weight_filler {
      type: "xavier"
    }
    bias_filler {
      type: "constant"
    }
  }
}
layer {
  name: "relu1"
  type: "ReLU"
  bottom: "ip1"
  top: "ip1"
}
layer {
  name: "accuracy"
  type: "Accuracy"
  bottom: "ip1"
  bottom: "label"
  top: "accuracy"
  include {
    phase: TEST
  }
}
layer {
  name: "loss"
  type: "SoftmaxWithLoss"
  bottom: "ip1"
  bottom: "label"
  top: "loss"
}
I0428 19:48:30.833247 26496 layer_factory.hpp:77] Creating layer mnist
I0428 19:48:30.833302 26496 db_lmdb.cpp:35] Opened lmdb examples/mnist/mnist_test_lmdb
I0428 19:48:30.833314 26496 net.cpp:86] Creating Layer mnist
I0428 19:48:30.833320 26496 net.cpp:382] mnist -> data
I0428 19:48:30.833329 26496 net.cpp:382] mnist -> label
I0428 19:48:30.833428 26496 data_layer.cpp:45] output data size: 100,1,28,28
I0428 19:48:30.835628 26496 net.cpp:124] Setting up mnist
I0428 19:48:30.835644 26496 net.cpp:131] Top shape: 100 1 28 28 (78400)
I0428 19:48:30.835649 26496 net.cpp:131] Top shape: 100 (100)
I0428 19:48:30.835654 26496 net.cpp:139] Memory required for data: 314000
I0428 19:48:30.835659 26496 layer_factory.hpp:77] Creating layer label_mnist_1_split
I0428 19:48:30.835670 26496 net.cpp:86] Creating Layer label_mnist_1_split
I0428 19:48:30.835675 26496 net.cpp:408] label_mnist_1_split <- label
I0428 19:48:30.835680 26496 net.cpp:382] label_mnist_1_split -> label_mnist_1_split_0
I0428 19:48:30.835688 26496 net.cpp:382] label_mnist_1_split -> label_mnist_1_split_1
I0428 19:48:30.835741 26496 net.cpp:124] Setting up label_mnist_1_split
I0428 19:48:30.835748 26496 net.cpp:131] Top shape: 100 (100)
I0428 19:48:30.835752 26496 net.cpp:131] Top shape: 100 (100)
I0428 19:48:30.835757 26496 net.cpp:139] Memory required for data: 314800
I0428 19:48:30.835760 26496 layer_factory.hpp:77] Creating layer conv0
I0428 19:48:30.835769 26496 net.cpp:86] Creating Layer conv0
I0428 19:48:30.835773 26496 net.cpp:408] conv0 <- data
I0428 19:48:30.835779 26496 net.cpp:382] conv0 -> conv0
I0428 19:48:30.836788 26496 net.cpp:124] Setting up conv0
I0428 19:48:30.836803 26496 net.cpp:131] Top shape: 100 5 24 24 (288000)
I0428 19:48:30.836807 26496 net.cpp:139] Memory required for data: 1466800
I0428 19:48:30.836827 26496 layer_factory.hpp:77] Creating layer pool0
I0428 19:48:30.836833 26496 net.cpp:86] Creating Layer pool0
I0428 19:48:30.836838 26496 net.cpp:408] pool0 <- conv0
I0428 19:48:30.836843 26496 net.cpp:382] pool0 -> pool0
I0428 19:48:30.836885 26496 net.cpp:124] Setting up pool0
I0428 19:48:30.836891 26496 net.cpp:131] Top shape: 100 5 12 12 (72000)
I0428 19:48:30.836894 26496 net.cpp:139] Memory required for data: 1754800
I0428 19:48:30.836897 26496 layer_factory.hpp:77] Creating layer conv1
I0428 19:48:30.836908 26496 net.cpp:86] Creating Layer conv1
I0428 19:48:30.836912 26496 net.cpp:408] conv1 <- pool0
I0428 19:48:30.836917 26496 net.cpp:382] conv1 -> conv1
I0428 19:48:30.839197 26496 net.cpp:124] Setting up conv1
I0428 19:48:30.839212 26496 net.cpp:131] Top shape: 100 5 8 8 (32000)
I0428 19:48:30.839217 26496 net.cpp:139] Memory required for data: 1882800
I0428 19:48:30.839227 26496 layer_factory.hpp:77] Creating layer pool1
I0428 19:48:30.839236 26496 net.cpp:86] Creating Layer pool1
I0428 19:48:30.839252 26496 net.cpp:408] pool1 <- conv1
I0428 19:48:30.839259 26496 net.cpp:382] pool1 -> pool1
I0428 19:48:30.839349 26496 net.cpp:124] Setting up pool1
I0428 19:48:30.839359 26496 net.cpp:131] Top shape: 100 5 4 4 (8000)
I0428 19:48:30.839368 26496 net.cpp:139] Memory required for data: 1914800
I0428 19:48:30.839372 26496 layer_factory.hpp:77] Creating layer ip1
I0428 19:48:30.839380 26496 net.cpp:86] Creating Layer ip1
I0428 19:48:30.839385 26496 net.cpp:408] ip1 <- pool1
I0428 19:48:30.839390 26496 net.cpp:382] ip1 -> ip1
I0428 19:48:30.839506 26496 net.cpp:124] Setting up ip1
I0428 19:48:30.839515 26496 net.cpp:131] Top shape: 100 10 (1000)
I0428 19:48:30.839519 26496 net.cpp:139] Memory required for data: 1918800
I0428 19:48:30.839529 26496 layer_factory.hpp:77] Creating layer relu1
I0428 19:48:30.839534 26496 net.cpp:86] Creating Layer relu1
I0428 19:48:30.839539 26496 net.cpp:408] relu1 <- ip1
I0428 19:48:30.839545 26496 net.cpp:369] relu1 -> ip1 (in-place)
I0428 19:48:30.840457 26496 net.cpp:124] Setting up relu1
I0428 19:48:30.840474 26496 net.cpp:131] Top shape: 100 10 (1000)
I0428 19:48:30.840478 26496 net.cpp:139] Memory required for data: 1922800
I0428 19:48:30.840482 26496 layer_factory.hpp:77] Creating layer ip1_relu1_0_split
I0428 19:48:30.840490 26496 net.cpp:86] Creating Layer ip1_relu1_0_split
I0428 19:48:30.840494 26496 net.cpp:408] ip1_relu1_0_split <- ip1
I0428 19:48:30.840500 26496 net.cpp:382] ip1_relu1_0_split -> ip1_relu1_0_split_0
I0428 19:48:30.840508 26496 net.cpp:382] ip1_relu1_0_split -> ip1_relu1_0_split_1
I0428 19:48:30.840561 26496 net.cpp:124] Setting up ip1_relu1_0_split
I0428 19:48:30.840569 26496 net.cpp:131] Top shape: 100 10 (1000)
I0428 19:48:30.840574 26496 net.cpp:131] Top shape: 100 10 (1000)
I0428 19:48:30.840577 26496 net.cpp:139] Memory required for data: 1930800
I0428 19:48:30.840582 26496 layer_factory.hpp:77] Creating layer accuracy
I0428 19:48:30.840589 26496 net.cpp:86] Creating Layer accuracy
I0428 19:48:30.840592 26496 net.cpp:408] accuracy <- ip1_relu1_0_split_0
I0428 19:48:30.840598 26496 net.cpp:408] accuracy <- label_mnist_1_split_0
I0428 19:48:30.840603 26496 net.cpp:382] accuracy -> accuracy
…
