…
I0428 19:48:22.144444 26463 net.cpp:296] The NetState phase (0) differed from the phase (1) specified by a rule in layer mnist
I0428 19:48:22.144470 26463 net.cpp:296] The NetState phase (0) differed from the phase (1) specified by a rule in layer accuracy
I0428 19:48:22.144590 26463 net.cpp:53] Initializing net from parameters: 
name: "LeNet"
state {
  phase: TRAIN
  level: 0
  stage: ""
}
layer {
  name: "mnist"
  type: "Data"
  top: "data"
  top: "label"
  include {
    phase: TRAIN
  }
  transform_param {
    scale: 0.00390625
  }
  data_param {
    source: "examples/mnist/mnist_train_lmdb"
    batch_size: 64
    backend: LMDB
  }
}
layer {
  name: "conv0"
  type: "Convolution"
  bottom: "data"
  top: "conv0"
  param {
    lr_mult: 1
  }
  param {
    lr_mult: 2
  }
  convolution_param {
    num_output: 5
    kernel_size: 5
    stride: 1
    weight_filler {
      type: "xavier"
    }
    bias_filler {
      type: "constant"
    }
  }
}
layer {
  name: "pool0"
  type: "Pooling"
  bottom: "conv0"
  top: "pool0"
  pooling_param {
    pool: MAX
    kernel_size: 2
    stride: 2
  }
}
layer {
  name: "conv1"
  type: "Convolution"
  bottom: "pool0"
  top: "conv1"
  param {
    lr_mult: 1
  }
  param {
    lr_mult: 2
  }
  convolution_param {
    num_output: 2
    kernel_size: 5
    stride: 1
    weight_filler {
      type: "xavier"
    }
    bias_filler {
      type: "constant"
    }
  }
}
layer {
  name: "pool1"
  type: "Pooling"
  bottom: "conv1"
  top: "pool1"
  pooling_param {
    pool: MAX
    kernel_size: 2
    stride: 2
  }
}
layer {
  name: "ip1"
  type: "InnerProduct"
  bottom: "pool1"
  top: "ip1"
  param {
    lr_mult: 1
  }
  param {
    lr_mult: 2
  }
  inner_product_param {
    num_output: 50
    weight_filler {
      type: "xavier"
    }
    bias_filler {
      type: "constant"
    }
  }
}
layer {
  name: "relu1"
  type: "ReLU"
  bottom: "ip1"
  top: "ip1"
}
layer {
  name: "ip2"
  type: "InnerProduct"
  bottom: "ip1"
  top: "ip2"
  param {
    lr_mult: 1
  }
  param {
    lr_mult: 2
  }
  inner_product_param {
    num_output: 25
    weight_filler {
      type: "xavier"
    }
    bias_filler {
      type: "constant"
    }
  }
}
layer {
  name: "relu2"
  type: "ReLU"
  bottom: "ip2"
  top: "ip2"
}
layer {
  name: "ip3"
  type: "InnerProduct"
  bottom: "ip2"
  top: "ip3"
  param {
    lr_mult: 1
  }
  param {
    lr_mult: 2
  }
  inner_product_param {
    num_output: 10
    weight_filler {
      type: "xavier"
    }
    bias_filler {
      type: "constant"
    }
  }
}
layer {
  name: "relu3"
  type: "ReLU"
  bottom: "ip3"
  top: "ip3"
}
layer {
  name: "loss"
  type: "SoftmaxWithLoss"
  bottom: "ip3"
  bottom: "label"
  top: "loss"
}
I0428 19:48:22.144707 26463 layer_factory.hpp:77] Creating layer mnist
I0428 19:48:22.145227 26463 db_lmdb.cpp:35] Opened lmdb examples/mnist/mnist_train_lmdb
I0428 19:48:22.145259 26463 net.cpp:86] Creating Layer mnist
I0428 19:48:22.145269 26463 net.cpp:382] mnist -> data
I0428 19:48:22.145293 26463 net.cpp:382] mnist -> label
I0428 19:48:22.146406 26463 data_layer.cpp:45] output data size: 64,1,28,28
I0428 19:48:22.148871 26463 net.cpp:124] Setting up mnist
I0428 19:48:22.148890 26463 net.cpp:131] Top shape: 64 1 28 28 (50176)
I0428 19:48:22.148896 26463 net.cpp:131] Top shape: 64 (64)
I0428 19:48:22.148900 26463 net.cpp:139] Memory required for data: 200960
I0428 19:48:22.148907 26463 layer_factory.hpp:77] Creating layer conv0
I0428 19:48:22.148922 26463 net.cpp:86] Creating Layer conv0
I0428 19:48:22.148943 26463 net.cpp:408] conv0 <- data
I0428 19:48:22.148957 26463 net.cpp:382] conv0 -> conv0
I0428 19:48:22.438611 26463 net.cpp:124] Setting up conv0
I0428 19:48:22.438643 26463 net.cpp:131] Top shape: 64 5 24 24 (184320)
I0428 19:48:22.438647 26463 net.cpp:139] Memory required for data: 938240
I0428 19:48:22.438666 26463 layer_factory.hpp:77] Creating layer pool0
I0428 19:48:22.438681 26463 net.cpp:86] Creating Layer pool0
I0428 19:48:22.438686 26463 net.cpp:408] pool0 <- conv0
I0428 19:48:22.438693 26463 net.cpp:382] pool0 -> pool0
I0428 19:48:22.438752 26463 net.cpp:124] Setting up pool0
I0428 19:48:22.438760 26463 net.cpp:131] Top shape: 64 5 12 12 (46080)
I0428 19:48:22.438762 26463 net.cpp:139] Memory required for data: 1122560
I0428 19:48:22.438766 26463 layer_factory.hpp:77] Creating layer conv1
I0428 19:48:22.438779 26463 net.cpp:86] Creating Layer conv1
I0428 19:48:22.438783 26463 net.cpp:408] conv1 <- pool0
I0428 19:48:22.438791 26463 net.cpp:382] conv1 -> conv1
I0428 19:48:22.441000 26463 net.cpp:124] Setting up conv1
I0428 19:48:22.441017 26463 net.cpp:131] Top shape: 64 2 8 8 (8192)
I0428 19:48:22.441022 26463 net.cpp:139] Memory required for data: 1155328
I0428 19:48:22.441032 26463 layer_factory.hpp:77] Creating layer pool1
I0428 19:48:22.441042 26463 net.cpp:86] Creating Layer pool1
I0428 19:48:22.441047 26463 net.cpp:408] pool1 <- conv1
I0428 19:48:22.441052 26463 net.cpp:382] pool1 -> pool1
I0428 19:48:22.441099 26463 net.cpp:124] Setting up pool1
I0428 19:48:22.441105 26463 net.cpp:131] Top shape: 64 2 4 4 (2048)
I0428 19:48:22.441108 26463 net.cpp:139] Memory required for data: 1163520
I0428 19:48:22.441112 26463 layer_factory.hpp:77] Creating layer ip1
I0428 19:48:22.441120 26463 net.cpp:86] Creating Layer ip1
I0428 19:48:22.441124 26463 net.cpp:408] ip1 <- pool1
I0428 19:48:22.441130 26463 net.cpp:382] ip1 -> ip1
I0428 19:48:22.442248 26463 net.cpp:124] Setting up ip1
I0428 19:48:22.442262 26463 net.cpp:131] Top shape: 64 50 (3200)
I0428 19:48:22.442266 26463 net.cpp:139] Memory required for data: 1176320
I0428 19:48:22.442276 26463 layer_factory.hpp:77] Creating layer relu1
I0428 19:48:22.442283 26463 net.cpp:86] Creating Layer relu1
I0428 19:48:22.442287 26463 net.cpp:408] relu1 <- ip1
I0428 19:48:22.442293 26463 net.cpp:369] relu1 -> ip1 (in-place)
I0428 19:48:22.442512 26463 net.cpp:124] Setting up relu1
I0428 19:48:22.442522 26463 net.cpp:131] Top shape: 64 50 (3200)
I0428 19:48:22.442525 26463 net.cpp:139] Memory required for data: 1189120
I0428 19:48:22.442529 26463 layer_factory.hpp:77] Creating layer ip2
I0428 19:48:22.442538 26463 net.cpp:86] Creating Layer ip2
I0428 19:48:22.442543 26463 net.cpp:408] ip2 <- ip1
I0428 19:48:22.442548 26463 net.cpp:382] ip2 -> ip2
I0428 19:48:22.442677 26463 net.cpp:124] Setting up ip2
I0428 19:48:22.442685 26463 net.cpp:131] Top shape: 64 25 (1600)
I0428 19:48:22.442688 26463 net.cpp:139] Memory required for data: 1195520
I0428 19:48:22.442695 26463 layer_factory.hpp:77] Creating layer relu2
I0428 19:48:22.442703 26463 net.cpp:86] Creating Layer relu2
I0428 19:48:22.442706 26463 net.cpp:408] relu2 <- ip2
I0428 19:48:22.442713 26463 net.cpp:369] relu2 -> ip2 (in-place)
I0428 19:48:22.443577 26463 net.cpp:124] Setting up relu2
I0428 19:48:22.443590 26463 net.cpp:131] Top shape: 64 25 (1600)
I0428 19:48:22.443594 26463 net.cpp:139] Memory required for data: 1201920
I0428 19:48:22.443598 26463 layer_factory.hpp:77] Creating layer ip3
I0428 19:48:22.443608 26463 net.cpp:86] Creating Layer ip3
I0428 19:48:22.443612 26463 net.cpp:408] ip3 <- ip2
I0428 19:48:22.443619 26463 net.cpp:382] ip3 -> ip3
I0428 19:48:22.443745 26463 net.cpp:124] Setting up ip3
I0428 19:48:22.443754 26463 net.cpp:131] Top shape: 64 10 (640)
I0428 19:48:22.443758 26463 net.cpp:139] Memory required for data: 1204480
I0428 19:48:22.443768 26463 layer_factory.hpp:77] Creating layer relu3
I0428 19:48:22.443774 26463 net.cpp:86] Creating Layer relu3
I0428 19:48:22.443778 26463 net.cpp:408] relu3 <- ip3
I0428 19:48:22.443783 26463 net.cpp:369] relu3 -> ip3 (in-place)
I0428 19:48:22.443994 26463 net.cpp:124] Setting up relu3
I0428 19:48:22.444005 26463 net.cpp:131] Top shape: 64 10 (640)
I0428 19:48:22.444008 26463 net.cpp:139] Memory required for data: 1207040
I0428 19:48:22.444011 26463 layer_factory.hpp:77] Creating layer loss
I0428 19:48:22.444020 26463 net.cpp:86] Creating Layer loss
I0428 19:48:22.444023 26463 net.cpp:408] loss <- ip3
I0428 19:48:22.444027 26463 net.cpp:408] loss <- label
I0428 19:48:22.444033 26463 net.cpp:382] loss -> loss
I0428 19:48:22.444051 26463 layer_factory.hpp:77] Creating layer loss
…
I0428 19:48:22.444824 26463 solver.cpp:173] Creating test net (#0) specified by net file: ECE595/mnist/train_test/var_everything2/lenet_train_test542.prototxt
I0428 19:48:22.444857 26463 net.cpp:296] The NetState phase (1) differed from the phase (0) specified by a rule in layer mnist
I0428 19:48:22.444967 26463 net.cpp:53] Initializing net from parameters: 
name: "LeNet"
state {
  phase: TEST
}
layer {
  name: "mnist"
  type: "Data"
  top: "data"
  top: "label"
  include {
    phase: TEST
  }
  transform_param {
    scale: 0.00390625
  }
  data_param {
    source: "examples/mnist/mnist_test_lmdb"
    batch_size: 100
    backend: LMDB
  }
}
layer {
  name: "conv0"
  type: "Convolution"
  bottom: "data"
  top: "conv0"
  param {
    lr_mult: 1
  }
  param {
    lr_mult: 2
  }
  convolution_param {
    num_output: 5
    kernel_size: 5
    stride: 1
    weight_filler {
      type: "xavier"
    }
    bias_filler {
      type: "constant"
    }
  }
}
layer {
  name: "pool0"
  type: "Pooling"
  bottom: "conv0"
  top: "pool0"
  pooling_param {
    pool: MAX
    kernel_size: 2
    stride: 2
  }
}
layer {
  name: "conv1"
  type: "Convolution"
  bottom: "pool0"
  top: "conv1"
  param {
    lr_mult: 1
  }
  param {
    lr_mult: 2
  }
  convolution_param {
    num_output: 2
    kernel_size: 5
    stride: 1
    weight_filler {
      type: "xavier"
    }
    bias_filler {
      type: "constant"
    }
  }
}
layer {
  name: "pool1"
  type: "Pooling"
  bottom: "conv1"
  top: "pool1"
  pooling_param {
    pool: MAX
    kernel_size: 2
    stride: 2
  }
}
layer {
  name: "ip1"
  type: "InnerProduct"
  bottom: "pool1"
  top: "ip1"
  param {
    lr_mult: 1
  }
  param {
    lr_mult: 2
  }
  inner_product_param {
    num_output: 50
    weight_filler {
      type: "xavier"
    }
    bias_filler {
      type: "constant"
    }
  }
}
layer {
  name: "relu1"
  type: "ReLU"
  bottom: "ip1"
  top: "ip1"
}
layer {
  name: "ip2"
  type: "InnerProduct"
  bottom: "ip1"
  top: "ip2"
  param {
    lr_mult: 1
  }
  param {
    lr_mult: 2
  }
  inner_product_param {
    num_output: 25
    weight_filler {
      type: "xavier"
    }
    bias_filler {
      type: "constant"
    }
  }
}
layer {
  name: "relu2"
  type: "ReLU"
  bottom: "ip2"
  top: "ip2"
}
layer {
  name: "ip3"
  type: "InnerProduct"
  bottom: "ip2"
  top: "ip3"
  param {
    lr_mult: 1
  }
  param {
    lr_mult: 2
  }
  inner_product_param {
    num_output: 10
    weight_filler {
      type: "xavier"
    }
    bias_filler {
      type: "constant"
    }
  }
}
layer {
  name: "relu3"
  type: "ReLU"
  bottom: "ip3"
  top: "ip3"
}
layer {
  name: "accuracy"
  type: "Accuracy"
  bottom: "ip3"
  bottom: "label"
  top: "accuracy"
  include {
    phase: TEST
  }
}
layer {
  name: "loss"
  type: "SoftmaxWithLoss"
  bottom: "ip3"
  bottom: "label"
  top: "loss"
}
I0428 19:48:22.445070 26463 layer_factory.hpp:77] Creating layer mnist
I0428 19:48:22.445122 26463 db_lmdb.cpp:35] Opened lmdb examples/mnist/mnist_test_lmdb
I0428 19:48:22.445137 26463 net.cpp:86] Creating Layer mnist
I0428 19:48:22.445144 26463 net.cpp:382] mnist -> data
I0428 19:48:22.445153 26463 net.cpp:382] mnist -> label
I0428 19:48:22.445256 26463 data_layer.cpp:45] output data size: 100,1,28,28
I0428 19:48:22.447468 26463 net.cpp:124] Setting up mnist
I0428 19:48:22.447482 26463 net.cpp:131] Top shape: 100 1 28 28 (78400)
I0428 19:48:22.447489 26463 net.cpp:131] Top shape: 100 (100)
I0428 19:48:22.447492 26463 net.cpp:139] Memory required for data: 314000
I0428 19:48:22.447496 26463 layer_factory.hpp:77] Creating layer label_mnist_1_split
I0428 19:48:22.447504 26463 net.cpp:86] Creating Layer label_mnist_1_split
I0428 19:48:22.447507 26463 net.cpp:408] label_mnist_1_split <- label
I0428 19:48:22.447515 26463 net.cpp:382] label_mnist_1_split -> label_mnist_1_split_0
I0428 19:48:22.447522 26463 net.cpp:382] label_mnist_1_split -> label_mnist_1_split_1
I0428 19:48:22.447677 26463 net.cpp:124] Setting up label_mnist_1_split
I0428 19:48:22.447686 26463 net.cpp:131] Top shape: 100 (100)
I0428 19:48:22.447690 26463 net.cpp:131] Top shape: 100 (100)
I0428 19:48:22.447695 26463 net.cpp:139] Memory required for data: 314800
I0428 19:48:22.447697 26463 layer_factory.hpp:77] Creating layer conv0
I0428 19:48:22.447710 26463 net.cpp:86] Creating Layer conv0
I0428 19:48:22.447715 26463 net.cpp:408] conv0 <- data
I0428 19:48:22.447721 26463 net.cpp:382] conv0 -> conv0
I0428 19:48:22.449617 26463 net.cpp:124] Setting up conv0
I0428 19:48:22.449635 26463 net.cpp:131] Top shape: 100 5 24 24 (288000)
I0428 19:48:22.449638 26463 net.cpp:139] Memory required for data: 1466800
I0428 19:48:22.449651 26463 layer_factory.hpp:77] Creating layer pool0
I0428 19:48:22.449659 26463 net.cpp:86] Creating Layer pool0
I0428 19:48:22.449663 26463 net.cpp:408] pool0 <- conv0
I0428 19:48:22.449669 26463 net.cpp:382] pool0 -> pool0
I0428 19:48:22.449713 26463 net.cpp:124] Setting up pool0
I0428 19:48:22.449720 26463 net.cpp:131] Top shape: 100 5 12 12 (72000)
I0428 19:48:22.449723 26463 net.cpp:139] Memory required for data: 1754800
I0428 19:48:22.449726 26463 layer_factory.hpp:77] Creating layer conv1
I0428 19:48:22.449738 26463 net.cpp:86] Creating Layer conv1
I0428 19:48:22.449741 26463 net.cpp:408] conv1 <- pool0
I0428 19:48:22.449748 26463 net.cpp:382] conv1 -> conv1
I0428 19:48:22.452113 26463 net.cpp:124] Setting up conv1
I0428 19:48:22.452133 26463 net.cpp:131] Top shape: 100 2 8 8 (12800)
I0428 19:48:22.452145 26463 net.cpp:139] Memory required for data: 1806000
I0428 19:48:22.452158 26463 layer_factory.hpp:77] Creating layer pool1
I0428 19:48:22.452167 26463 net.cpp:86] Creating Layer pool1
I0428 19:48:22.452172 26463 net.cpp:408] pool1 <- conv1
I0428 19:48:22.452177 26463 net.cpp:382] pool1 -> pool1
I0428 19:48:22.452229 26463 net.cpp:124] Setting up pool1
I0428 19:48:22.452241 26463 net.cpp:131] Top shape: 100 2 4 4 (3200)
I0428 19:48:22.452244 26463 net.cpp:139] Memory required for data: 1818800
I0428 19:48:22.452249 26463 layer_factory.hpp:77] Creating layer ip1
I0428 19:48:22.452255 26463 net.cpp:86] Creating Layer ip1
I0428 19:48:22.452258 26463 net.cpp:408] ip1 <- pool1
I0428 19:48:22.452268 26463 net.cpp:382] ip1 -> ip1
I0428 19:48:22.452467 26463 net.cpp:124] Setting up ip1
I0428 19:48:22.452477 26463 net.cpp:131] Top shape: 100 50 (5000)
I0428 19:48:22.452493 26463 net.cpp:139] Memory required for data: 1838800
I0428 19:48:22.452503 26463 layer_factory.hpp:77] Creating layer relu1
I0428 19:48:22.452510 26463 net.cpp:86] Creating Layer relu1
I0428 19:48:22.452515 26463 net.cpp:408] relu1 <- ip1
I0428 19:48:22.452520 26463 net.cpp:369] relu1 -> ip1 (in-place)
I0428 19:48:22.452728 26463 net.cpp:124] Setting up relu1
I0428 19:48:22.452739 26463 net.cpp:131] Top shape: 100 50 (5000)
I0428 19:48:22.452742 26463 net.cpp:139] Memory required for data: 1858800
I0428 19:48:22.452746 26463 layer_factory.hpp:77] Creating layer ip2
I0428 19:48:22.452764 26463 net.cpp:86] Creating Layer ip2
I0428 19:48:22.452767 26463 net.cpp:408] ip2 <- ip1
I0428 19:48:22.452774 26463 net.cpp:382] ip2 -> ip2
I0428 19:48:22.452914 26463 net.cpp:124] Setting up ip2
I0428 19:48:22.452924 26463 net.cpp:131] Top shape: 100 25 (2500)
I0428 19:48:22.452927 26463 net.cpp:139] Memory required for data: 1868800
I0428 19:48:22.452934 26463 layer_factory.hpp:77] Creating layer relu2
I0428 19:48:22.452941 26463 net.cpp:86] Creating Layer relu2
I0428 19:48:22.452945 26463 net.cpp:408] relu2 <- ip2
I0428 19:48:22.452950 26463 net.cpp:369] relu2 -> ip2 (in-place)
I0428 19:48:22.453146 26463 net.cpp:124] Setting up relu2
I0428 19:48:22.453157 26463 net.cpp:131] Top shape: 100 25 (2500)
I0428 19:48:22.453161 26463 net.cpp:139] Memory required for data: 1878800
I0428 19:48:22.453164 26463 layer_factory.hpp:77] Creating layer ip3
I0428 19:48:22.453172 26463 net.cpp:86] Creating Layer ip3
I0428 19:48:22.453176 26463 net.cpp:408] ip3 <- ip2
I0428 19:48:22.453182 26463 net.cpp:382] ip3 -> ip3
I0428 19:48:22.453301 26463 net.cpp:124] Setting up ip3
I0428 19:48:22.453310 26463 net.cpp:131] Top shape: 100 10 (1000)
I0428 19:48:22.453313 26463 net.cpp:139] Memory required for data: 1882800
I0428 19:48:22.453322 26463 layer_factory.hpp:77] Creating layer relu3
I0428 19:48:22.453328 26463 net.cpp:86] Creating Layer relu3
I0428 19:48:22.453332 26463 net.cpp:408] relu3 <- ip3
I0428 19:48:22.453336 26463 net.cpp:369] relu3 -> ip3 (in-place)
I0428 19:48:22.454277 26463 net.cpp:124] Setting up relu3
I0428 19:48:22.454293 26463 net.cpp:131] Top shape: 100 10 (1000)
I0428 19:48:22.454296 26463 net.cpp:139] Memory required for data: 1886800
I0428 19:48:22.454300 26463 layer_factory.hpp:77] Creating layer ip3_relu3_0_split
I0428 19:48:22.454306 26463 net.cpp:86] Creating Layer ip3_relu3_0_split
I0428 19:48:22.454310 26463 net.cpp:408] ip3_relu3_0_split <- ip3
I0428 19:48:22.454318 26463 net.cpp:382] ip3_relu3_0_split -> ip3_relu3_0_split_0
I0428 19:48:22.454324 26463 net.cpp:382] ip3_relu3_0_split -> ip3_relu3_0_split_1
I0428 19:48:22.454386 26463 net.cpp:124] Setting up ip3_relu3_0_split
I0428 19:48:22.454394 26463 net.cpp:131] Top shape: 100 10 (1000)
I0428 19:48:22.454399 26463 net.cpp:131] Top shape: 100 10 (1000)
I0428 19:48:22.454402 26463 net.cpp:139] Memory required for data: 1894800
I0428 19:48:22.454406 26463 layer_factory.hpp:77] Creating layer accuracy
I0428 19:48:22.454413 26463 net.cpp:86] Creating Layer accuracy
I0428 19:48:22.454417 26463 net.cpp:408] accuracy <- ip3_relu3_0_split_0
I0428 19:48:22.454422 26463 net.cpp:408] accuracy <- label_mnist_1_split_0
I0428 19:48:22.454427 26463 net.cpp:382] accuracy -> accuracy
…
