…
I0428 19:48:11.675915 26420 net.cpp:296] The NetState phase (0) differed from the phase (1) specified by a rule in layer mnist
I0428 19:48:11.675931 26420 net.cpp:296] The NetState phase (0) differed from the phase (1) specified by a rule in layer accuracy
I0428 19:48:11.676013 26420 net.cpp:53] Initializing net from parameters: 
name: "LeNet"
state {
  phase: TRAIN
  level: 0
  stage: ""
}
layer {
  name: "mnist"
  type: "Data"
  top: "data"
  top: "label"
  include {
    phase: TRAIN
  }
  transform_param {
    scale: 0.00390625
  }
  data_param {
    source: "examples/mnist/mnist_train_lmdb"
    batch_size: 64
    backend: LMDB
  }
}
layer {
  name: "conv0"
  type: "Convolution"
  bottom: "data"
  top: "conv0"
  param {
    lr_mult: 1
  }
  param {
    lr_mult: 2
  }
  convolution_param {
    num_output: 5
    kernel_size: 5
    stride: 1
    weight_filler {
      type: "xavier"
    }
    bias_filler {
      type: "constant"
    }
  }
}
layer {
  name: "pool0"
  type: "Pooling"
  bottom: "conv0"
  top: "pool0"
  pooling_param {
    pool: MAX
    kernel_size: 2
    stride: 2
  }
}
layer {
  name: "conv1"
  type: "Convolution"
  bottom: "pool0"
  top: "conv1"
  param {
    lr_mult: 1
  }
  param {
    lr_mult: 2
  }
  convolution_param {
    num_output: 2
    kernel_size: 5
    stride: 1
    weight_filler {
      type: "xavier"
    }
    bias_filler {
      type: "constant"
    }
  }
}
layer {
  name: "pool1"
  type: "Pooling"
  bottom: "conv1"
  top: "pool1"
  pooling_param {
    pool: MAX
    kernel_size: 2
    stride: 2
  }
}
layer {
  name: "ip1"
  type: "InnerProduct"
  bottom: "pool1"
  top: "ip1"
  param {
    lr_mult: 1
  }
  param {
    lr_mult: 2
  }
  inner_product_param {
    num_output: 50
    weight_filler {
      type: "xavier"
    }
    bias_filler {
      type: "constant"
    }
  }
}
layer {
  name: "relu1"
  type: "ReLU"
  bottom: "ip1"
  top: "ip1"
}
layer {
  name: "ip2"
  type: "InnerProduct"
  bottom: "ip1"
  top: "ip2"
  param {
    lr_mult: 1
  }
  param {
    lr_mult: 2
  }
  inner_product_param {
    num_output: 10
    weight_filler {
      type: "xavier"
    }
    bias_filler {
      type: "constant"
    }
  }
}
layer {
  name: "relu2"
  type: "ReLU"
  bottom: "ip2"
  top: "ip2"
}
layer {
  name: "ip3"
  type: "InnerProduct"
  bottom: "ip2"
  top: "ip3"
  param {
    lr_mult: 1
  }
  param {
    lr_mult: 2
  }
  inner_product_param {
    num_output: 10
    weight_filler {
      type: "xavier"
    }
    bias_filler {
      type: "constant"
    }
  }
}
layer {
  name: "relu3"
  type: "ReLU"
  bottom: "ip3"
  top: "ip3"
}
layer {
  name: "loss"
  type: "SoftmaxWithLoss"
  bottom: "ip3"
  bottom: "label"
  top: "loss"
}
I0428 19:48:11.676080 26420 layer_factory.hpp:77] Creating layer mnist
I0428 19:48:11.676162 26420 db_lmdb.cpp:35] Opened lmdb examples/mnist/mnist_train_lmdb
I0428 19:48:11.676182 26420 net.cpp:86] Creating Layer mnist
I0428 19:48:11.676188 26420 net.cpp:382] mnist -> data
I0428 19:48:11.676208 26420 net.cpp:382] mnist -> label
I0428 19:48:11.677127 26420 data_layer.cpp:45] output data size: 64,1,28,28
I0428 19:48:11.679256 26420 net.cpp:124] Setting up mnist
I0428 19:48:11.679272 26420 net.cpp:131] Top shape: 64 1 28 28 (50176)
I0428 19:48:11.679278 26420 net.cpp:131] Top shape: 64 (64)
I0428 19:48:11.679280 26420 net.cpp:139] Memory required for data: 200960
I0428 19:48:11.679302 26420 layer_factory.hpp:77] Creating layer conv0
I0428 19:48:11.679327 26420 net.cpp:86] Creating Layer conv0
I0428 19:48:11.679347 26420 net.cpp:408] conv0 <- data
I0428 19:48:11.679358 26420 net.cpp:382] conv0 -> conv0
I0428 19:48:11.914006 26420 net.cpp:124] Setting up conv0
I0428 19:48:11.914032 26420 net.cpp:131] Top shape: 64 5 24 24 (184320)
I0428 19:48:11.914036 26420 net.cpp:139] Memory required for data: 938240
I0428 19:48:11.914065 26420 layer_factory.hpp:77] Creating layer pool0
I0428 19:48:11.914078 26420 net.cpp:86] Creating Layer pool0
I0428 19:48:11.914083 26420 net.cpp:408] pool0 <- conv0
I0428 19:48:11.914088 26420 net.cpp:382] pool0 -> pool0
I0428 19:48:11.914149 26420 net.cpp:124] Setting up pool0
I0428 19:48:11.914163 26420 net.cpp:131] Top shape: 64 5 12 12 (46080)
I0428 19:48:11.914166 26420 net.cpp:139] Memory required for data: 1122560
I0428 19:48:11.914170 26420 layer_factory.hpp:77] Creating layer conv1
I0428 19:48:11.914180 26420 net.cpp:86] Creating Layer conv1
I0428 19:48:11.914183 26420 net.cpp:408] conv1 <- pool0
I0428 19:48:11.914187 26420 net.cpp:382] conv1 -> conv1
I0428 19:48:11.915953 26420 net.cpp:124] Setting up conv1
I0428 19:48:11.915967 26420 net.cpp:131] Top shape: 64 2 8 8 (8192)
I0428 19:48:11.915971 26420 net.cpp:139] Memory required for data: 1155328
I0428 19:48:11.915980 26420 layer_factory.hpp:77] Creating layer pool1
I0428 19:48:11.915987 26420 net.cpp:86] Creating Layer pool1
I0428 19:48:11.915992 26420 net.cpp:408] pool1 <- conv1
I0428 19:48:11.915997 26420 net.cpp:382] pool1 -> pool1
I0428 19:48:11.916046 26420 net.cpp:124] Setting up pool1
I0428 19:48:11.916060 26420 net.cpp:131] Top shape: 64 2 4 4 (2048)
I0428 19:48:11.916064 26420 net.cpp:139] Memory required for data: 1163520
I0428 19:48:11.916066 26420 layer_factory.hpp:77] Creating layer ip1
I0428 19:48:11.916077 26420 net.cpp:86] Creating Layer ip1
I0428 19:48:11.916081 26420 net.cpp:408] ip1 <- pool1
I0428 19:48:11.916086 26420 net.cpp:382] ip1 -> ip1
I0428 19:48:11.917119 26420 net.cpp:124] Setting up ip1
I0428 19:48:11.917131 26420 net.cpp:131] Top shape: 64 50 (3200)
I0428 19:48:11.917135 26420 net.cpp:139] Memory required for data: 1176320
I0428 19:48:11.917143 26420 layer_factory.hpp:77] Creating layer relu1
I0428 19:48:11.917150 26420 net.cpp:86] Creating Layer relu1
I0428 19:48:11.917155 26420 net.cpp:408] relu1 <- ip1
I0428 19:48:11.917160 26420 net.cpp:369] relu1 -> ip1 (in-place)
I0428 19:48:11.917340 26420 net.cpp:124] Setting up relu1
I0428 19:48:11.917347 26420 net.cpp:131] Top shape: 64 50 (3200)
I0428 19:48:11.917351 26420 net.cpp:139] Memory required for data: 1189120
I0428 19:48:11.917354 26420 layer_factory.hpp:77] Creating layer ip2
I0428 19:48:11.917361 26420 net.cpp:86] Creating Layer ip2
I0428 19:48:11.917363 26420 net.cpp:408] ip2 <- ip1
I0428 19:48:11.917368 26420 net.cpp:382] ip2 -> ip2
I0428 19:48:11.917480 26420 net.cpp:124] Setting up ip2
I0428 19:48:11.917486 26420 net.cpp:131] Top shape: 64 10 (640)
I0428 19:48:11.917490 26420 net.cpp:139] Memory required for data: 1191680
I0428 19:48:11.917495 26420 layer_factory.hpp:77] Creating layer relu2
I0428 19:48:11.917501 26420 net.cpp:86] Creating Layer relu2
I0428 19:48:11.917505 26420 net.cpp:408] relu2 <- ip2
I0428 19:48:11.917508 26420 net.cpp:369] relu2 -> ip2 (in-place)
I0428 19:48:11.918231 26420 net.cpp:124] Setting up relu2
I0428 19:48:11.918243 26420 net.cpp:131] Top shape: 64 10 (640)
I0428 19:48:11.918246 26420 net.cpp:139] Memory required for data: 1194240
I0428 19:48:11.918249 26420 layer_factory.hpp:77] Creating layer ip3
I0428 19:48:11.918256 26420 net.cpp:86] Creating Layer ip3
I0428 19:48:11.918259 26420 net.cpp:408] ip3 <- ip2
I0428 19:48:11.918264 26420 net.cpp:382] ip3 -> ip3
I0428 19:48:11.918356 26420 net.cpp:124] Setting up ip3
I0428 19:48:11.918365 26420 net.cpp:131] Top shape: 64 10 (640)
I0428 19:48:11.918367 26420 net.cpp:139] Memory required for data: 1196800
I0428 19:48:11.918375 26420 layer_factory.hpp:77] Creating layer relu3
I0428 19:48:11.918380 26420 net.cpp:86] Creating Layer relu3
I0428 19:48:11.918381 26420 net.cpp:408] relu3 <- ip3
I0428 19:48:11.918385 26420 net.cpp:369] relu3 -> ip3 (in-place)
I0428 19:48:11.918560 26420 net.cpp:124] Setting up relu3
I0428 19:48:11.918567 26420 net.cpp:131] Top shape: 64 10 (640)
I0428 19:48:11.918570 26420 net.cpp:139] Memory required for data: 1199360
I0428 19:48:11.918573 26420 layer_factory.hpp:77] Creating layer loss
I0428 19:48:11.918578 26420 net.cpp:86] Creating Layer loss
I0428 19:48:11.918581 26420 net.cpp:408] loss <- ip3
I0428 19:48:11.918586 26420 net.cpp:408] loss <- label
I0428 19:48:11.918591 26420 net.cpp:382] loss -> loss
I0428 19:48:11.918606 26420 layer_factory.hpp:77] Creating layer loss
…
I0428 19:48:11.919201 26420 solver.cpp:173] Creating test net (#0) specified by net file: ECE595/mnist/train_test/var_everything2/lenet_train_test537.prototxt
I0428 19:48:11.919226 26420 net.cpp:296] The NetState phase (1) differed from the phase (0) specified by a rule in layer mnist
I0428 19:48:11.919312 26420 net.cpp:53] Initializing net from parameters: 
name: "LeNet"
state {
  phase: TEST
}
layer {
  name: "mnist"
  type: "Data"
  top: "data"
  top: "label"
  include {
    phase: TEST
  }
  transform_param {
    scale: 0.00390625
  }
  data_param {
    source: "examples/mnist/mnist_test_lmdb"
    batch_size: 100
    backend: LMDB
  }
}
layer {
  name: "conv0"
  type: "Convolution"
  bottom: "data"
  top: "conv0"
  param {
    lr_mult: 1
  }
  param {
    lr_mult: 2
  }
  convolution_param {
    num_output: 5
    kernel_size: 5
    stride: 1
    weight_filler {
      type: "xavier"
    }
    bias_filler {
      type: "constant"
    }
  }
}
layer {
  name: "pool0"
  type: "Pooling"
  bottom: "conv0"
  top: "pool0"
  pooling_param {
    pool: MAX
    kernel_size: 2
    stride: 2
  }
}
layer {
  name: "conv1"
  type: "Convolution"
  bottom: "pool0"
  top: "conv1"
  param {
    lr_mult: 1
  }
  param {
    lr_mult: 2
  }
  convolution_param {
    num_output: 2
    kernel_size: 5
    stride: 1
    weight_filler {
      type: "xavier"
    }
    bias_filler {
      type: "constant"
    }
  }
}
layer {
  name: "pool1"
  type: "Pooling"
  bottom: "conv1"
  top: "pool1"
  pooling_param {
    pool: MAX
    kernel_size: 2
    stride: 2
  }
}
layer {
  name: "ip1"
  type: "InnerProduct"
  bottom: "pool1"
  top: "ip1"
  param {
    lr_mult: 1
  }
  param {
    lr_mult: 2
  }
  inner_product_param {
    num_output: 50
    weight_filler {
      type: "xavier"
    }
    bias_filler {
      type: "constant"
    }
  }
}
layer {
  name: "relu1"
  type: "ReLU"
  bottom: "ip1"
  top: "ip1"
}
layer {
  name: "ip2"
  type: "InnerProduct"
  bottom: "ip1"
  top: "ip2"
  param {
    lr_mult: 1
  }
  param {
    lr_mult: 2
  }
  inner_product_param {
    num_output: 10
    weight_filler {
      type: "xavier"
    }
    bias_filler {
      type: "constant"
    }
  }
}
layer {
  name: "relu2"
  type: "ReLU"
  bottom: "ip2"
  top: "ip2"
}
layer {
  name: "ip3"
  type: "InnerProduct"
  bottom: "ip2"
  top: "ip3"
  param {
    lr_mult: 1
  }
  param {
    lr_mult: 2
  }
  inner_product_param {
    num_output: 10
    weight_filler {
      type: "xavier"
    }
    bias_filler {
      type: "constant"
    }
  }
}
layer {
  name: "relu3"
  type: "ReLU"
  bottom: "ip3"
  top: "ip3"
}
layer {
  name: "accuracy"
  type: "Accuracy"
  bottom: "ip3"
  bottom: "label"
  top: "accuracy"
  include {
    phase: TEST
  }
}
layer {
  name: "loss"
  type: "SoftmaxWithLoss"
  bottom: "ip3"
  bottom: "label"
  top: "loss"
}
I0428 19:48:11.919383 26420 layer_factory.hpp:77] Creating layer mnist
I0428 19:48:11.919425 26420 db_lmdb.cpp:35] Opened lmdb examples/mnist/mnist_test_lmdb
I0428 19:48:11.919436 26420 net.cpp:86] Creating Layer mnist
I0428 19:48:11.919440 26420 net.cpp:382] mnist -> data
I0428 19:48:11.919447 26420 net.cpp:382] mnist -> label
I0428 19:48:11.919523 26420 data_layer.cpp:45] output data size: 100,1,28,28
I0428 19:48:11.921478 26420 net.cpp:124] Setting up mnist
I0428 19:48:11.921506 26420 net.cpp:131] Top shape: 100 1 28 28 (78400)
I0428 19:48:11.921511 26420 net.cpp:131] Top shape: 100 (100)
I0428 19:48:11.921515 26420 net.cpp:139] Memory required for data: 314000
I0428 19:48:11.921519 26420 layer_factory.hpp:77] Creating layer label_mnist_1_split
I0428 19:48:11.921546 26420 net.cpp:86] Creating Layer label_mnist_1_split
I0428 19:48:11.921550 26420 net.cpp:408] label_mnist_1_split <- label
I0428 19:48:11.921555 26420 net.cpp:382] label_mnist_1_split -> label_mnist_1_split_0
I0428 19:48:11.921561 26420 net.cpp:382] label_mnist_1_split -> label_mnist_1_split_1
I0428 19:48:11.921605 26420 net.cpp:124] Setting up label_mnist_1_split
I0428 19:48:11.921612 26420 net.cpp:131] Top shape: 100 (100)
I0428 19:48:11.921617 26420 net.cpp:131] Top shape: 100 (100)
I0428 19:48:11.921618 26420 net.cpp:139] Memory required for data: 314800
I0428 19:48:11.921622 26420 layer_factory.hpp:77] Creating layer conv0
I0428 19:48:11.921629 26420 net.cpp:86] Creating Layer conv0
I0428 19:48:11.921633 26420 net.cpp:408] conv0 <- data
I0428 19:48:11.921638 26420 net.cpp:382] conv0 -> conv0
I0428 19:48:11.923408 26420 net.cpp:124] Setting up conv0
I0428 19:48:11.923424 26420 net.cpp:131] Top shape: 100 5 24 24 (288000)
I0428 19:48:11.923429 26420 net.cpp:139] Memory required for data: 1466800
I0428 19:48:11.923437 26420 layer_factory.hpp:77] Creating layer pool0
I0428 19:48:11.923444 26420 net.cpp:86] Creating Layer pool0
I0428 19:48:11.923447 26420 net.cpp:408] pool0 <- conv0
I0428 19:48:11.923452 26420 net.cpp:382] pool0 -> pool0
I0428 19:48:11.923488 26420 net.cpp:124] Setting up pool0
I0428 19:48:11.923494 26420 net.cpp:131] Top shape: 100 5 12 12 (72000)
I0428 19:48:11.923497 26420 net.cpp:139] Memory required for data: 1754800
I0428 19:48:11.923501 26420 layer_factory.hpp:77] Creating layer conv1
I0428 19:48:11.923508 26420 net.cpp:86] Creating Layer conv1
I0428 19:48:11.923512 26420 net.cpp:408] conv1 <- pool0
I0428 19:48:11.923517 26420 net.cpp:382] conv1 -> conv1
I0428 19:48:11.925695 26420 net.cpp:124] Setting up conv1
I0428 19:48:11.925709 26420 net.cpp:131] Top shape: 100 2 8 8 (12800)
I0428 19:48:11.925714 26420 net.cpp:139] Memory required for data: 1806000
I0428 19:48:11.925740 26420 layer_factory.hpp:77] Creating layer pool1
I0428 19:48:11.925746 26420 net.cpp:86] Creating Layer pool1
I0428 19:48:11.925750 26420 net.cpp:408] pool1 <- conv1
I0428 19:48:11.925762 26420 net.cpp:382] pool1 -> pool1
I0428 19:48:11.925806 26420 net.cpp:124] Setting up pool1
I0428 19:48:11.925813 26420 net.cpp:131] Top shape: 100 2 4 4 (3200)
I0428 19:48:11.925817 26420 net.cpp:139] Memory required for data: 1818800
I0428 19:48:11.925819 26420 layer_factory.hpp:77] Creating layer ip1
I0428 19:48:11.925825 26420 net.cpp:86] Creating Layer ip1
I0428 19:48:11.925829 26420 net.cpp:408] ip1 <- pool1
I0428 19:48:11.925833 26420 net.cpp:382] ip1 -> ip1
I0428 19:48:11.926036 26420 net.cpp:124] Setting up ip1
I0428 19:48:11.926045 26420 net.cpp:131] Top shape: 100 50 (5000)
I0428 19:48:11.926059 26420 net.cpp:139] Memory required for data: 1838800
I0428 19:48:11.926069 26420 layer_factory.hpp:77] Creating layer relu1
I0428 19:48:11.926074 26420 net.cpp:86] Creating Layer relu1
I0428 19:48:11.926077 26420 net.cpp:408] relu1 <- ip1
I0428 19:48:11.926082 26420 net.cpp:369] relu1 -> ip1 (in-place)
I0428 19:48:11.926275 26420 net.cpp:124] Setting up relu1
I0428 19:48:11.926282 26420 net.cpp:131] Top shape: 100 50 (5000)
I0428 19:48:11.926286 26420 net.cpp:139] Memory required for data: 1858800
I0428 19:48:11.926290 26420 layer_factory.hpp:77] Creating layer ip2
I0428 19:48:11.926296 26420 net.cpp:86] Creating Layer ip2
I0428 19:48:11.926300 26420 net.cpp:408] ip2 <- ip1
I0428 19:48:11.926306 26420 net.cpp:382] ip2 -> ip2
I0428 19:48:11.926409 26420 net.cpp:124] Setting up ip2
I0428 19:48:11.926417 26420 net.cpp:131] Top shape: 100 10 (1000)
I0428 19:48:11.926420 26420 net.cpp:139] Memory required for data: 1862800
I0428 19:48:11.926425 26420 layer_factory.hpp:77] Creating layer relu2
I0428 19:48:11.926430 26420 net.cpp:86] Creating Layer relu2
I0428 19:48:11.926434 26420 net.cpp:408] relu2 <- ip2
I0428 19:48:11.926437 26420 net.cpp:369] relu2 -> ip2 (in-place)
I0428 19:48:11.926599 26420 net.cpp:124] Setting up relu2
I0428 19:48:11.926609 26420 net.cpp:131] Top shape: 100 10 (1000)
I0428 19:48:11.926612 26420 net.cpp:139] Memory required for data: 1866800
I0428 19:48:11.926615 26420 layer_factory.hpp:77] Creating layer ip3
I0428 19:48:11.926627 26420 net.cpp:86] Creating Layer ip3
I0428 19:48:11.926630 26420 net.cpp:408] ip3 <- ip2
I0428 19:48:11.926635 26420 net.cpp:382] ip3 -> ip3
I0428 19:48:11.926739 26420 net.cpp:124] Setting up ip3
I0428 19:48:11.926746 26420 net.cpp:131] Top shape: 100 10 (1000)
I0428 19:48:11.926749 26420 net.cpp:139] Memory required for data: 1870800
I0428 19:48:11.926758 26420 layer_factory.hpp:77] Creating layer relu3
I0428 19:48:11.926762 26420 net.cpp:86] Creating Layer relu3
I0428 19:48:11.926765 26420 net.cpp:408] relu3 <- ip3
I0428 19:48:11.926769 26420 net.cpp:369] relu3 -> ip3 (in-place)
I0428 19:48:11.927609 26420 net.cpp:124] Setting up relu3
I0428 19:48:11.927621 26420 net.cpp:131] Top shape: 100 10 (1000)
I0428 19:48:11.927624 26420 net.cpp:139] Memory required for data: 1874800
I0428 19:48:11.927628 26420 layer_factory.hpp:77] Creating layer ip3_relu3_0_split
I0428 19:48:11.927634 26420 net.cpp:86] Creating Layer ip3_relu3_0_split
I0428 19:48:11.927637 26420 net.cpp:408] ip3_relu3_0_split <- ip3
I0428 19:48:11.927642 26420 net.cpp:382] ip3_relu3_0_split -> ip3_relu3_0_split_0
I0428 19:48:11.927649 26420 net.cpp:382] ip3_relu3_0_split -> ip3_relu3_0_split_1
I0428 19:48:11.927700 26420 net.cpp:124] Setting up ip3_relu3_0_split
I0428 19:48:11.927706 26420 net.cpp:131] Top shape: 100 10 (1000)
I0428 19:48:11.927709 26420 net.cpp:131] Top shape: 100 10 (1000)
I0428 19:48:11.927712 26420 net.cpp:139] Memory required for data: 1882800
I0428 19:48:11.927716 26420 layer_factory.hpp:77] Creating layer accuracy
I0428 19:48:11.927721 26420 net.cpp:86] Creating Layer accuracy
I0428 19:48:11.927723 26420 net.cpp:408] accuracy <- ip3_relu3_0_split_0
I0428 19:48:11.927727 26420 net.cpp:408] accuracy <- label_mnist_1_split_0
I0428 19:48:11.927732 26420 net.cpp:382] accuracy -> accuracy
…
