…
I0428 20:13:07.135449 32402 net.cpp:296] The NetState phase (0) differed from the phase (1) specified by a rule in layer mnist
I0428 20:13:07.135466 32402 net.cpp:296] The NetState phase (0) differed from the phase (1) specified by a rule in layer accuracy
I0428 20:13:07.135571 32402 net.cpp:53] Initializing net from parameters: 
name: "LeNet"
state {
  phase: TRAIN
  level: 0
  stage: ""
}
layer {
  name: "mnist"
  type: "Data"
  top: "data"
  top: "label"
  include {
    phase: TRAIN
  }
  transform_param {
    scale: 0.00390625
  }
  data_param {
    source: "examples/mnist/mnist_train_lmdb"
    batch_size: 64
    backend: LMDB
  }
}
layer {
  name: "conv0"
  type: "Convolution"
  bottom: "data"
  top: "conv0"
  param {
    lr_mult: 1
  }
  param {
    lr_mult: 2
  }
  convolution_param {
    num_output: 25
    kernel_size: 5
    stride: 1
    weight_filler {
      type: "xavier"
    }
    bias_filler {
      type: "constant"
    }
  }
}
layer {
  name: "pool0"
  type: "Pooling"
  bottom: "conv0"
  top: "pool0"
  pooling_param {
    pool: MAX
    kernel_size: 2
    stride: 2
  }
}
layer {
  name: "conv1"
  type: "Convolution"
  bottom: "pool0"
  top: "conv1"
  param {
    lr_mult: 1
  }
  param {
    lr_mult: 2
  }
  convolution_param {
    num_output: 100
    kernel_size: 5
    stride: 1
    weight_filler {
      type: "xavier"
    }
    bias_filler {
      type: "constant"
    }
  }
}
layer {
  name: "pool1"
  type: "Pooling"
  bottom: "conv1"
  top: "pool1"
  pooling_param {
    pool: MAX
    kernel_size: 2
    stride: 2
  }
}
layer {
  name: "ip1"
  type: "InnerProduct"
  bottom: "pool1"
  top: "ip1"
  param {
    lr_mult: 1
  }
  param {
    lr_mult: 2
  }
  inner_product_param {
    num_output: 25
    weight_filler {
      type: "xavier"
    }
    bias_filler {
      type: "constant"
    }
  }
}
layer {
  name: "relu1"
  type: "ReLU"
  bottom: "ip1"
  top: "ip1"
}
layer {
  name: "ip2"
  type: "InnerProduct"
  bottom: "ip1"
  top: "ip2"
  param {
    lr_mult: 1
  }
  param {
    lr_mult: 2
  }
  inner_product_param {
    num_output: 10
    weight_filler {
      type: "xavier"
    }
    bias_filler {
      type: "constant"
    }
  }
}
layer {
  name: "relu2"
  type: "ReLU"
  bottom: "ip2"
  top: "ip2"
}
layer {
  name: "ip3"
  type: "InnerProduct"
  bottom: "ip2"
  top: "ip3"
  param {
    lr_mult: 1
  }
  param {
    lr_mult: 2
  }
  inner_product_param {
    num_output: 10
    weight_filler {
      type: "xavier"
    }
    bias_filler {
      type: "constant"
    }
  }
}
layer {
  name: "relu3"
  type: "ReLU"
  bottom: "ip3"
  top: "ip3"
}
layer {
  name: "loss"
  type: "SoftmaxWithLoss"
  bottom: "ip3"
  bottom: "label"
  top: "loss"
}
I0428 20:13:07.135643 32402 layer_factory.hpp:77] Creating layer mnist
I0428 20:13:07.135753 32402 db_lmdb.cpp:35] Opened lmdb examples/mnist/mnist_train_lmdb
I0428 20:13:07.135776 32402 net.cpp:86] Creating Layer mnist
I0428 20:13:07.135784 32402 net.cpp:382] mnist -> data
I0428 20:13:07.135805 32402 net.cpp:382] mnist -> label
I0428 20:13:07.136926 32402 data_layer.cpp:45] output data size: 64,1,28,28
I0428 20:13:07.139398 32402 net.cpp:124] Setting up mnist
I0428 20:13:07.139420 32402 net.cpp:131] Top shape: 64 1 28 28 (50176)
I0428 20:13:07.139441 32402 net.cpp:131] Top shape: 64 (64)
I0428 20:13:07.139444 32402 net.cpp:139] Memory required for data: 200960
I0428 20:13:07.139451 32402 layer_factory.hpp:77] Creating layer conv0
I0428 20:13:07.139467 32402 net.cpp:86] Creating Layer conv0
I0428 20:13:07.139497 32402 net.cpp:408] conv0 <- data
I0428 20:13:07.139508 32402 net.cpp:382] conv0 -> conv0
I0428 20:13:07.393791 32402 net.cpp:124] Setting up conv0
I0428 20:13:07.393833 32402 net.cpp:131] Top shape: 64 25 24 24 (921600)
I0428 20:13:07.393837 32402 net.cpp:139] Memory required for data: 3887360
I0428 20:13:07.393851 32402 layer_factory.hpp:77] Creating layer pool0
I0428 20:13:07.393863 32402 net.cpp:86] Creating Layer pool0
I0428 20:13:07.393867 32402 net.cpp:408] pool0 <- conv0
I0428 20:13:07.393872 32402 net.cpp:382] pool0 -> pool0
I0428 20:13:07.393932 32402 net.cpp:124] Setting up pool0
I0428 20:13:07.393939 32402 net.cpp:131] Top shape: 64 25 12 12 (230400)
I0428 20:13:07.393940 32402 net.cpp:139] Memory required for data: 4808960
I0428 20:13:07.393944 32402 layer_factory.hpp:77] Creating layer conv1
I0428 20:13:07.393954 32402 net.cpp:86] Creating Layer conv1
I0428 20:13:07.393957 32402 net.cpp:408] conv1 <- pool0
I0428 20:13:07.393976 32402 net.cpp:382] conv1 -> conv1
I0428 20:13:07.396302 32402 net.cpp:124] Setting up conv1
I0428 20:13:07.396316 32402 net.cpp:131] Top shape: 64 100 8 8 (409600)
I0428 20:13:07.396319 32402 net.cpp:139] Memory required for data: 6447360
I0428 20:13:07.396327 32402 layer_factory.hpp:77] Creating layer pool1
I0428 20:13:07.396333 32402 net.cpp:86] Creating Layer pool1
I0428 20:13:07.396337 32402 net.cpp:408] pool1 <- conv1
I0428 20:13:07.396356 32402 net.cpp:382] pool1 -> pool1
I0428 20:13:07.396394 32402 net.cpp:124] Setting up pool1
I0428 20:13:07.396399 32402 net.cpp:131] Top shape: 64 100 4 4 (102400)
I0428 20:13:07.396401 32402 net.cpp:139] Memory required for data: 6856960
I0428 20:13:07.396404 32402 layer_factory.hpp:77] Creating layer ip1
I0428 20:13:07.396411 32402 net.cpp:86] Creating Layer ip1
I0428 20:13:07.396414 32402 net.cpp:408] ip1 <- pool1
I0428 20:13:07.396419 32402 net.cpp:382] ip1 -> ip1
I0428 20:13:07.396740 32402 net.cpp:124] Setting up ip1
I0428 20:13:07.396749 32402 net.cpp:131] Top shape: 64 25 (1600)
I0428 20:13:07.396751 32402 net.cpp:139] Memory required for data: 6863360
I0428 20:13:07.396759 32402 layer_factory.hpp:77] Creating layer relu1
I0428 20:13:07.396764 32402 net.cpp:86] Creating Layer relu1
I0428 20:13:07.396766 32402 net.cpp:408] relu1 <- ip1
I0428 20:13:07.396770 32402 net.cpp:369] relu1 -> ip1 (in-place)
I0428 20:13:07.396961 32402 net.cpp:124] Setting up relu1
I0428 20:13:07.396972 32402 net.cpp:131] Top shape: 64 25 (1600)
I0428 20:13:07.396975 32402 net.cpp:139] Memory required for data: 6869760
I0428 20:13:07.396978 32402 layer_factory.hpp:77] Creating layer ip2
I0428 20:13:07.396984 32402 net.cpp:86] Creating Layer ip2
I0428 20:13:07.396987 32402 net.cpp:408] ip2 <- ip1
I0428 20:13:07.396992 32402 net.cpp:382] ip2 -> ip2
I0428 20:13:07.397085 32402 net.cpp:124] Setting up ip2
I0428 20:13:07.397106 32402 net.cpp:131] Top shape: 64 10 (640)
I0428 20:13:07.397109 32402 net.cpp:139] Memory required for data: 6872320
I0428 20:13:07.397114 32402 layer_factory.hpp:77] Creating layer relu2
I0428 20:13:07.397120 32402 net.cpp:86] Creating Layer relu2
I0428 20:13:07.397123 32402 net.cpp:408] relu2 <- ip2
I0428 20:13:07.397126 32402 net.cpp:369] relu2 -> ip2 (in-place)
I0428 20:13:07.397912 32402 net.cpp:124] Setting up relu2
I0428 20:13:07.397939 32402 net.cpp:131] Top shape: 64 10 (640)
I0428 20:13:07.397943 32402 net.cpp:139] Memory required for data: 6874880
I0428 20:13:07.397946 32402 layer_factory.hpp:77] Creating layer ip3
I0428 20:13:07.397953 32402 net.cpp:86] Creating Layer ip3
I0428 20:13:07.397958 32402 net.cpp:408] ip3 <- ip2
I0428 20:13:07.397976 32402 net.cpp:382] ip3 -> ip3
I0428 20:13:07.398067 32402 net.cpp:124] Setting up ip3
I0428 20:13:07.398075 32402 net.cpp:131] Top shape: 64 10 (640)
I0428 20:13:07.398078 32402 net.cpp:139] Memory required for data: 6877440
I0428 20:13:07.398085 32402 layer_factory.hpp:77] Creating layer relu3
I0428 20:13:07.398090 32402 net.cpp:86] Creating Layer relu3
I0428 20:13:07.398093 32402 net.cpp:408] relu3 <- ip3
I0428 20:13:07.398097 32402 net.cpp:369] relu3 -> ip3 (in-place)
I0428 20:13:07.398249 32402 net.cpp:124] Setting up relu3
I0428 20:13:07.398273 32402 net.cpp:131] Top shape: 64 10 (640)
I0428 20:13:07.398277 32402 net.cpp:139] Memory required for data: 6880000
I0428 20:13:07.398279 32402 layer_factory.hpp:77] Creating layer loss
I0428 20:13:07.398284 32402 net.cpp:86] Creating Layer loss
I0428 20:13:07.398288 32402 net.cpp:408] loss <- ip3
I0428 20:13:07.398291 32402 net.cpp:408] loss <- label
I0428 20:13:07.398296 32402 net.cpp:382] loss -> loss
I0428 20:13:07.398324 32402 layer_factory.hpp:77] Creating layer loss
…
I0428 20:13:07.398988 32402 solver.cpp:173] Creating test net (#0) specified by net file: ECE595/mnist/train_test/var_everything2/lenet_train_test1193.prototxt
I0428 20:13:07.399031 32402 net.cpp:296] The NetState phase (1) differed from the phase (0) specified by a rule in layer mnist
I0428 20:13:07.399129 32402 net.cpp:53] Initializing net from parameters: 
name: "LeNet"
state {
  phase: TEST
}
layer {
  name: "mnist"
  type: "Data"
  top: "data"
  top: "label"
  include {
    phase: TEST
  }
  transform_param {
    scale: 0.00390625
  }
  data_param {
    source: "examples/mnist/mnist_test_lmdb"
    batch_size: 100
    backend: LMDB
  }
}
layer {
  name: "conv0"
  type: "Convolution"
  bottom: "data"
  top: "conv0"
  param {
    lr_mult: 1
  }
  param {
    lr_mult: 2
  }
  convolution_param {
    num_output: 25
    kernel_size: 5
    stride: 1
    weight_filler {
      type: "xavier"
    }
    bias_filler {
      type: "constant"
    }
  }
}
layer {
  name: "pool0"
  type: "Pooling"
  bottom: "conv0"
  top: "pool0"
  pooling_param {
    pool: MAX
    kernel_size: 2
    stride: 2
  }
}
layer {
  name: "conv1"
  type: "Convolution"
  bottom: "pool0"
  top: "conv1"
  param {
    lr_mult: 1
  }
  param {
    lr_mult: 2
  }
  convolution_param {
    num_output: 100
    kernel_size: 5
    stride: 1
    weight_filler {
      type: "xavier"
    }
    bias_filler {
      type: "constant"
    }
  }
}
layer {
  name: "pool1"
  type: "Pooling"
  bottom: "conv1"
  top: "pool1"
  pooling_param {
    pool: MAX
    kernel_size: 2
    stride: 2
  }
}
layer {
  name: "ip1"
  type: "InnerProduct"
  bottom: "pool1"
  top: "ip1"
  param {
    lr_mult: 1
  }
  param {
    lr_mult: 2
  }
  inner_product_param {
    num_output: 25
    weight_filler {
      type: "xavier"
    }
    bias_filler {
      type: "constant"
    }
  }
}
layer {
  name: "relu1"
  type: "ReLU"
  bottom: "ip1"
  top: "ip1"
}
layer {
  name: "ip2"
  type: "InnerProduct"
  bottom: "ip1"
  top: "ip2"
  param {
    lr_mult: 1
  }
  param {
    lr_mult: 2
  }
  inner_product_param {
    num_output: 10
    weight_filler {
      type: "xavier"
    }
    bias_filler {
      type: "constant"
    }
  }
}
layer {
  name: "relu2"
  type: "ReLU"
  bottom: "ip2"
  top: "ip2"
}
layer {
  name: "ip3"
  type: "InnerProduct"
  bottom: "ip2"
  top: "ip3"
  param {
    lr_mult: 1
  }
  param {
    lr_mult: 2
  }
  inner_product_param {
    num_output: 10
    weight_filler {
      type: "xavier"
    }
    bias_filler {
      type: "constant"
    }
  }
}
layer {
  name: "relu3"
  type: "ReLU"
  bottom: "ip3"
  top: "ip3"
}
layer {
  name: "accuracy"
  type: "Accuracy"
  bottom: "ip3"
  bottom: "label"
  top: "accuracy"
  include {
    phase: TEST
  }
}
layer {
  name: "loss"
  type: "SoftmaxWithLoss"
  bottom: "ip3"
  bottom: "label"
  top: "loss"
}
I0428 20:13:07.399205 32402 layer_factory.hpp:77] Creating layer mnist
I0428 20:13:07.399246 32402 db_lmdb.cpp:35] Opened lmdb examples/mnist/mnist_test_lmdb
I0428 20:13:07.399258 32402 net.cpp:86] Creating Layer mnist
I0428 20:13:07.399262 32402 net.cpp:382] mnist -> data
I0428 20:13:07.399269 32402 net.cpp:382] mnist -> label
I0428 20:13:07.399346 32402 data_layer.cpp:45] output data size: 100,1,28,28
I0428 20:13:07.401410 32402 net.cpp:124] Setting up mnist
I0428 20:13:07.401439 32402 net.cpp:131] Top shape: 100 1 28 28 (78400)
I0428 20:13:07.401445 32402 net.cpp:131] Top shape: 100 (100)
I0428 20:13:07.401448 32402 net.cpp:139] Memory required for data: 314000
I0428 20:13:07.401451 32402 layer_factory.hpp:77] Creating layer label_mnist_1_split
I0428 20:13:07.401458 32402 net.cpp:86] Creating Layer label_mnist_1_split
I0428 20:13:07.401461 32402 net.cpp:408] label_mnist_1_split <- label
I0428 20:13:07.401465 32402 net.cpp:382] label_mnist_1_split -> label_mnist_1_split_0
I0428 20:13:07.401471 32402 net.cpp:382] label_mnist_1_split -> label_mnist_1_split_1
I0428 20:13:07.401535 32402 net.cpp:124] Setting up label_mnist_1_split
I0428 20:13:07.401541 32402 net.cpp:131] Top shape: 100 (100)
I0428 20:13:07.401546 32402 net.cpp:131] Top shape: 100 (100)
I0428 20:13:07.401563 32402 net.cpp:139] Memory required for data: 314800
I0428 20:13:07.401566 32402 layer_factory.hpp:77] Creating layer conv0
I0428 20:13:07.401574 32402 net.cpp:86] Creating Layer conv0
I0428 20:13:07.401578 32402 net.cpp:408] conv0 <- data
I0428 20:13:07.401583 32402 net.cpp:382] conv0 -> conv0
I0428 20:13:07.403300 32402 net.cpp:124] Setting up conv0
I0428 20:13:07.403313 32402 net.cpp:131] Top shape: 100 25 24 24 (1440000)
I0428 20:13:07.403332 32402 net.cpp:139] Memory required for data: 6074800
I0428 20:13:07.403342 32402 layer_factory.hpp:77] Creating layer pool0
I0428 20:13:07.403362 32402 net.cpp:86] Creating Layer pool0
I0428 20:13:07.403364 32402 net.cpp:408] pool0 <- conv0
I0428 20:13:07.403369 32402 net.cpp:382] pool0 -> pool0
I0428 20:13:07.403403 32402 net.cpp:124] Setting up pool0
I0428 20:13:07.403409 32402 net.cpp:131] Top shape: 100 25 12 12 (360000)
I0428 20:13:07.403410 32402 net.cpp:139] Memory required for data: 7514800
I0428 20:13:07.403414 32402 layer_factory.hpp:77] Creating layer conv1
I0428 20:13:07.403421 32402 net.cpp:86] Creating Layer conv1
I0428 20:13:07.403424 32402 net.cpp:408] conv1 <- pool0
I0428 20:13:07.403429 32402 net.cpp:382] conv1 -> conv1
I0428 20:13:07.405421 32402 net.cpp:124] Setting up conv1
I0428 20:13:07.405436 32402 net.cpp:131] Top shape: 100 100 8 8 (640000)
I0428 20:13:07.405438 32402 net.cpp:139] Memory required for data: 10074800
I0428 20:13:07.405447 32402 layer_factory.hpp:77] Creating layer pool1
I0428 20:13:07.405454 32402 net.cpp:86] Creating Layer pool1
I0428 20:13:07.405458 32402 net.cpp:408] pool1 <- conv1
I0428 20:13:07.405483 32402 net.cpp:382] pool1 -> pool1
I0428 20:13:07.405531 32402 net.cpp:124] Setting up pool1
I0428 20:13:07.405536 32402 net.cpp:131] Top shape: 100 100 4 4 (160000)
I0428 20:13:07.405539 32402 net.cpp:139] Memory required for data: 10714800
I0428 20:13:07.405542 32402 layer_factory.hpp:77] Creating layer ip1
I0428 20:13:07.405549 32402 net.cpp:86] Creating Layer ip1
I0428 20:13:07.405551 32402 net.cpp:408] ip1 <- pool1
I0428 20:13:07.405556 32402 net.cpp:382] ip1 -> ip1
I0428 20:13:07.405866 32402 net.cpp:124] Setting up ip1
I0428 20:13:07.405874 32402 net.cpp:131] Top shape: 100 25 (2500)
I0428 20:13:07.405887 32402 net.cpp:139] Memory required for data: 10724800
I0428 20:13:07.405895 32402 layer_factory.hpp:77] Creating layer relu1
I0428 20:13:07.405907 32402 net.cpp:86] Creating Layer relu1
I0428 20:13:07.405911 32402 net.cpp:408] relu1 <- ip1
I0428 20:13:07.405916 32402 net.cpp:369] relu1 -> ip1 (in-place)
I0428 20:13:07.406081 32402 net.cpp:124] Setting up relu1
I0428 20:13:07.406090 32402 net.cpp:131] Top shape: 100 25 (2500)
I0428 20:13:07.406092 32402 net.cpp:139] Memory required for data: 10734800
I0428 20:13:07.406095 32402 layer_factory.hpp:77] Creating layer ip2
I0428 20:13:07.406102 32402 net.cpp:86] Creating Layer ip2
I0428 20:13:07.406105 32402 net.cpp:408] ip2 <- ip1
I0428 20:13:07.406110 32402 net.cpp:382] ip2 -> ip2
I0428 20:13:07.406239 32402 net.cpp:124] Setting up ip2
I0428 20:13:07.406246 32402 net.cpp:131] Top shape: 100 10 (1000)
I0428 20:13:07.406265 32402 net.cpp:139] Memory required for data: 10738800
I0428 20:13:07.406270 32402 layer_factory.hpp:77] Creating layer relu2
I0428 20:13:07.406275 32402 net.cpp:86] Creating Layer relu2
I0428 20:13:07.406278 32402 net.cpp:408] relu2 <- ip2
I0428 20:13:07.406285 32402 net.cpp:369] relu2 -> ip2 (in-place)
I0428 20:13:07.406472 32402 net.cpp:124] Setting up relu2
I0428 20:13:07.406481 32402 net.cpp:131] Top shape: 100 10 (1000)
I0428 20:13:07.406486 32402 net.cpp:139] Memory required for data: 10742800
I0428 20:13:07.406488 32402 layer_factory.hpp:77] Creating layer ip3
I0428 20:13:07.406496 32402 net.cpp:86] Creating Layer ip3
I0428 20:13:07.406498 32402 net.cpp:408] ip3 <- ip2
I0428 20:13:07.406510 32402 net.cpp:382] ip3 -> ip3
I0428 20:13:07.406653 32402 net.cpp:124] Setting up ip3
I0428 20:13:07.406661 32402 net.cpp:131] Top shape: 100 10 (1000)
I0428 20:13:07.406664 32402 net.cpp:139] Memory required for data: 10746800
I0428 20:13:07.406672 32402 layer_factory.hpp:77] Creating layer relu3
I0428 20:13:07.406677 32402 net.cpp:86] Creating Layer relu3
I0428 20:13:07.406680 32402 net.cpp:408] relu3 <- ip3
I0428 20:13:07.406684 32402 net.cpp:369] relu3 -> ip3 (in-place)
I0428 20:13:07.407495 32402 net.cpp:124] Setting up relu3
I0428 20:13:07.407507 32402 net.cpp:131] Top shape: 100 10 (1000)
I0428 20:13:07.407526 32402 net.cpp:139] Memory required for data: 10750800
I0428 20:13:07.407529 32402 layer_factory.hpp:77] Creating layer ip3_relu3_0_split
I0428 20:13:07.407536 32402 net.cpp:86] Creating Layer ip3_relu3_0_split
I0428 20:13:07.407538 32402 net.cpp:408] ip3_relu3_0_split <- ip3
I0428 20:13:07.407544 32402 net.cpp:382] ip3_relu3_0_split -> ip3_relu3_0_split_0
I0428 20:13:07.407551 32402 net.cpp:382] ip3_relu3_0_split -> ip3_relu3_0_split_1
I0428 20:13:07.407624 32402 net.cpp:124] Setting up ip3_relu3_0_split
I0428 20:13:07.407632 32402 net.cpp:131] Top shape: 100 10 (1000)
I0428 20:13:07.407636 32402 net.cpp:131] Top shape: 100 10 (1000)
I0428 20:13:07.407640 32402 net.cpp:139] Memory required for data: 10758800
I0428 20:13:07.407649 32402 layer_factory.hpp:77] Creating layer accuracy
I0428 20:13:07.407671 32402 net.cpp:86] Creating Layer accuracy
I0428 20:13:07.407680 32402 net.cpp:408] accuracy <- ip3_relu3_0_split_0
I0428 20:13:07.407685 32402 net.cpp:408] accuracy <- label_mnist_1_split_0
I0428 20:13:07.407691 32402 net.cpp:382] accuracy -> accuracy
…
