…
I0428 20:38:35.699221  5142 net.cpp:296] The NetState phase (0) differed from the phase (1) specified by a rule in layer mnist
I0428 20:38:35.699241  5142 net.cpp:296] The NetState phase (0) differed from the phase (1) specified by a rule in layer accuracy
I0428 20:38:35.699343  5142 net.cpp:53] Initializing net from parameters: 
name: "LeNet"
state {
  phase: TRAIN
  level: 0
  stage: ""
}
layer {
  name: "mnist"
  type: "Data"
  top: "data"
  top: "label"
  include {
    phase: TRAIN
  }
  transform_param {
    scale: 0.00390625
  }
  data_param {
    source: "examples/mnist/mnist_train_lmdb"
    batch_size: 64
    backend: LMDB
  }
}
layer {
  name: "conv0"
  type: "Convolution"
  bottom: "data"
  top: "conv0"
  param {
    lr_mult: 1
  }
  param {
    lr_mult: 2
  }
  convolution_param {
    num_output: 100
    kernel_size: 5
    stride: 1
    weight_filler {
      type: "xavier"
    }
    bias_filler {
      type: "constant"
    }
  }
}
layer {
  name: "pool0"
  type: "Pooling"
  bottom: "conv0"
  top: "pool0"
  pooling_param {
    pool: MAX
    kernel_size: 2
    stride: 2
  }
}
layer {
  name: "conv1"
  type: "Convolution"
  bottom: "pool0"
  top: "conv1"
  param {
    lr_mult: 1
  }
  param {
    lr_mult: 2
  }
  convolution_param {
    num_output: 100
    kernel_size: 5
    stride: 1
    weight_filler {
      type: "xavier"
    }
    bias_filler {
      type: "constant"
    }
  }
}
layer {
  name: "pool1"
  type: "Pooling"
  bottom: "conv1"
  top: "pool1"
  pooling_param {
    pool: MAX
    kernel_size: 2
    stride: 2
  }
}
layer {
  name: "ip1"
  type: "InnerProduct"
  bottom: "pool1"
  top: "ip1"
  param {
    lr_mult: 1
  }
  param {
    lr_mult: 2
  }
  inner_product_param {
    num_output: 25
    weight_filler {
      type: "xavier"
    }
    bias_filler {
      type: "constant"
    }
  }
}
layer {
  name: "relu1"
  type: "ReLU"
  bottom: "ip1"
  top: "ip1"
}
layer {
  name: "ip2"
  type: "InnerProduct"
  bottom: "ip1"
  top: "ip2"
  param {
    lr_mult: 1
  }
  param {
    lr_mult: 2
  }
  inner_product_param {
    num_output: 50
    weight_filler {
      type: "xavier"
    }
    bias_filler {
      type: "constant"
    }
  }
}
layer {
  name: "relu2"
  type: "ReLU"
  bottom: "ip2"
  top: "ip2"
}
layer {
  name: "ip3"
  type: "InnerProduct"
  bottom: "ip2"
  top: "ip3"
  param {
    lr_mult: 1
  }
  param {
    lr_mult: 2
  }
  inner_product_param {
    num_output: 10
    weight_filler {
      type: "xavier"
    }
    bias_filler {
      type: "constant"
    }
  }
}
layer {
  name: "relu3"
  type: "ReLU"
  bottom: "ip3"
  top: "ip3"
}
layer {
  name: "loss"
  type: "SoftmaxWithLoss"
  bottom: "ip3"
  bottom: "label"
  top: "loss"
}
I0428 20:38:35.699424  5142 layer_factory.hpp:77] Creating layer mnist
I0428 20:38:35.699525  5142 db_lmdb.cpp:35] Opened lmdb examples/mnist/mnist_train_lmdb
I0428 20:38:35.699549  5142 net.cpp:86] Creating Layer mnist
I0428 20:38:35.699559  5142 net.cpp:382] mnist -> data
I0428 20:38:35.699581  5142 net.cpp:382] mnist -> label
I0428 20:38:35.700700  5142 data_layer.cpp:45] output data size: 64,1,28,28
I0428 20:38:35.703174  5142 net.cpp:124] Setting up mnist
I0428 20:38:35.703192  5142 net.cpp:131] Top shape: 64 1 28 28 (50176)
I0428 20:38:35.703199  5142 net.cpp:131] Top shape: 64 (64)
I0428 20:38:35.703202  5142 net.cpp:139] Memory required for data: 200960
I0428 20:38:35.703209  5142 layer_factory.hpp:77] Creating layer conv0
I0428 20:38:35.703249  5142 net.cpp:86] Creating Layer conv0
I0428 20:38:35.703271  5142 net.cpp:408] conv0 <- data
I0428 20:38:35.703284  5142 net.cpp:382] conv0 -> conv0
I0428 20:38:35.987054  5142 net.cpp:124] Setting up conv0
I0428 20:38:35.987082  5142 net.cpp:131] Top shape: 64 100 24 24 (3686400)
I0428 20:38:35.987085  5142 net.cpp:139] Memory required for data: 14946560
I0428 20:38:35.987100  5142 layer_factory.hpp:77] Creating layer pool0
I0428 20:38:35.987113  5142 net.cpp:86] Creating Layer pool0
I0428 20:38:35.987118  5142 net.cpp:408] pool0 <- conv0
I0428 20:38:35.987123  5142 net.cpp:382] pool0 -> pool0
I0428 20:38:35.987197  5142 net.cpp:124] Setting up pool0
I0428 20:38:35.987203  5142 net.cpp:131] Top shape: 64 100 12 12 (921600)
I0428 20:38:35.987206  5142 net.cpp:139] Memory required for data: 18632960
I0428 20:38:35.987210  5142 layer_factory.hpp:77] Creating layer conv1
I0428 20:38:35.987221  5142 net.cpp:86] Creating Layer conv1
I0428 20:38:35.987223  5142 net.cpp:408] conv1 <- pool0
I0428 20:38:35.987227  5142 net.cpp:382] conv1 -> conv1
I0428 20:38:35.991273  5142 net.cpp:124] Setting up conv1
I0428 20:38:35.991287  5142 net.cpp:131] Top shape: 64 100 8 8 (409600)
I0428 20:38:35.991291  5142 net.cpp:139] Memory required for data: 20271360
I0428 20:38:35.991299  5142 layer_factory.hpp:77] Creating layer pool1
I0428 20:38:35.991307  5142 net.cpp:86] Creating Layer pool1
I0428 20:38:35.991310  5142 net.cpp:408] pool1 <- conv1
I0428 20:38:35.991315  5142 net.cpp:382] pool1 -> pool1
I0428 20:38:35.991350  5142 net.cpp:124] Setting up pool1
I0428 20:38:35.991355  5142 net.cpp:131] Top shape: 64 100 4 4 (102400)
I0428 20:38:35.991358  5142 net.cpp:139] Memory required for data: 20680960
I0428 20:38:35.991361  5142 layer_factory.hpp:77] Creating layer ip1
I0428 20:38:35.991369  5142 net.cpp:86] Creating Layer ip1
I0428 20:38:35.991370  5142 net.cpp:408] ip1 <- pool1
I0428 20:38:35.991375  5142 net.cpp:382] ip1 -> ip1
I0428 20:38:35.991683  5142 net.cpp:124] Setting up ip1
I0428 20:38:35.991690  5142 net.cpp:131] Top shape: 64 25 (1600)
I0428 20:38:35.991693  5142 net.cpp:139] Memory required for data: 20687360
I0428 20:38:35.991699  5142 layer_factory.hpp:77] Creating layer relu1
I0428 20:38:35.991705  5142 net.cpp:86] Creating Layer relu1
I0428 20:38:35.991708  5142 net.cpp:408] relu1 <- ip1
I0428 20:38:35.991713  5142 net.cpp:369] relu1 -> ip1 (in-place)
I0428 20:38:35.991866  5142 net.cpp:124] Setting up relu1
I0428 20:38:35.991874  5142 net.cpp:131] Top shape: 64 25 (1600)
I0428 20:38:35.991878  5142 net.cpp:139] Memory required for data: 20693760
I0428 20:38:35.991880  5142 layer_factory.hpp:77] Creating layer ip2
I0428 20:38:35.991886  5142 net.cpp:86] Creating Layer ip2
I0428 20:38:35.991889  5142 net.cpp:408] ip2 <- ip1
I0428 20:38:35.991894  5142 net.cpp:382] ip2 -> ip2
I0428 20:38:35.991998  5142 net.cpp:124] Setting up ip2
I0428 20:38:35.992005  5142 net.cpp:131] Top shape: 64 50 (3200)
I0428 20:38:35.992008  5142 net.cpp:139] Memory required for data: 20706560
I0428 20:38:35.992014  5142 layer_factory.hpp:77] Creating layer relu2
I0428 20:38:35.992019  5142 net.cpp:86] Creating Layer relu2
I0428 20:38:35.992022  5142 net.cpp:408] relu2 <- ip2
I0428 20:38:35.992027  5142 net.cpp:369] relu2 -> ip2 (in-place)
I0428 20:38:35.992784  5142 net.cpp:124] Setting up relu2
I0428 20:38:35.992796  5142 net.cpp:131] Top shape: 64 50 (3200)
I0428 20:38:35.992799  5142 net.cpp:139] Memory required for data: 20719360
I0428 20:38:35.992804  5142 layer_factory.hpp:77] Creating layer ip3
I0428 20:38:35.992831  5142 net.cpp:86] Creating Layer ip3
I0428 20:38:35.992835  5142 net.cpp:408] ip3 <- ip2
I0428 20:38:35.992841  5142 net.cpp:382] ip3 -> ip3
I0428 20:38:35.992944  5142 net.cpp:124] Setting up ip3
I0428 20:38:35.992952  5142 net.cpp:131] Top shape: 64 10 (640)
I0428 20:38:35.992955  5142 net.cpp:139] Memory required for data: 20721920
I0428 20:38:35.992964  5142 layer_factory.hpp:77] Creating layer relu3
I0428 20:38:35.992969  5142 net.cpp:86] Creating Layer relu3
I0428 20:38:35.992971  5142 net.cpp:408] relu3 <- ip3
I0428 20:38:35.992990  5142 net.cpp:369] relu3 -> ip3 (in-place)
I0428 20:38:35.993156  5142 net.cpp:124] Setting up relu3
I0428 20:38:35.993165  5142 net.cpp:131] Top shape: 64 10 (640)
I0428 20:38:35.993170  5142 net.cpp:139] Memory required for data: 20724480
I0428 20:38:35.993173  5142 layer_factory.hpp:77] Creating layer loss
I0428 20:38:35.993180  5142 net.cpp:86] Creating Layer loss
I0428 20:38:35.993198  5142 net.cpp:408] loss <- ip3
I0428 20:38:35.993202  5142 net.cpp:408] loss <- label
I0428 20:38:35.993207  5142 net.cpp:382] loss -> loss
I0428 20:38:35.993224  5142 layer_factory.hpp:77] Creating layer loss
…
I0428 20:38:35.993899  5142 solver.cpp:173] Creating test net (#0) specified by net file: ECE595/mnist/train_test/var_everything2/lenet_train_test1667.prototxt
I0428 20:38:35.993942  5142 net.cpp:296] The NetState phase (1) differed from the phase (0) specified by a rule in layer mnist
I0428 20:38:35.994055  5142 net.cpp:53] Initializing net from parameters: 
name: "LeNet"
state {
  phase: TEST
}
layer {
  name: "mnist"
  type: "Data"
  top: "data"
  top: "label"
  include {
    phase: TEST
  }
  transform_param {
    scale: 0.00390625
  }
  data_param {
    source: "examples/mnist/mnist_test_lmdb"
    batch_size: 100
    backend: LMDB
  }
}
layer {
  name: "conv0"
  type: "Convolution"
  bottom: "data"
  top: "conv0"
  param {
    lr_mult: 1
  }
  param {
    lr_mult: 2
  }
  convolution_param {
    num_output: 100
    kernel_size: 5
    stride: 1
    weight_filler {
      type: "xavier"
    }
    bias_filler {
      type: "constant"
    }
  }
}
layer {
  name: "pool0"
  type: "Pooling"
  bottom: "conv0"
  top: "pool0"
  pooling_param {
    pool: MAX
    kernel_size: 2
    stride: 2
  }
}
layer {
  name: "conv1"
  type: "Convolution"
  bottom: "pool0"
  top: "conv1"
  param {
    lr_mult: 1
  }
  param {
    lr_mult: 2
  }
  convolution_param {
    num_output: 100
    kernel_size: 5
    stride: 1
    weight_filler {
      type: "xavier"
    }
    bias_filler {
      type: "constant"
    }
  }
}
layer {
  name: "pool1"
  type: "Pooling"
  bottom: "conv1"
  top: "pool1"
  pooling_param {
    pool: MAX
    kernel_size: 2
    stride: 2
  }
}
layer {
  name: "ip1"
  type: "InnerProduct"
  bottom: "pool1"
  top: "ip1"
  param {
    lr_mult: 1
  }
  param {
    lr_mult: 2
  }
  inner_product_param {
    num_output: 25
    weight_filler {
      type: "xavier"
    }
    bias_filler {
      type: "constant"
    }
  }
}
layer {
  name: "relu1"
  type: "ReLU"
  bottom: "ip1"
  top: "ip1"
}
layer {
  name: "ip2"
  type: "InnerProduct"
  bottom: "ip1"
  top: "ip2"
  param {
    lr_mult: 1
  }
  param {
    lr_mult: 2
  }
  inner_product_param {
    num_output: 50
    weight_filler {
      type: "xavier"
    }
    bias_filler {
      type: "constant"
    }
  }
}
layer {
  name: "relu2"
  type: "ReLU"
  bottom: "ip2"
  top: "ip2"
}
layer {
  name: "ip3"
  type: "InnerProduct"
  bottom: "ip2"
  top: "ip3"
  param {
    lr_mult: 1
  }
  param {
    lr_mult: 2
  }
  inner_product_param {
    num_output: 10
    weight_filler {
      type: "xavier"
    }
    bias_filler {
      type: "constant"
    }
  }
}
layer {
  name: "relu3"
  type: "ReLU"
  bottom: "ip3"
  top: "ip3"
}
layer {
  name: "accuracy"
  type: "Accuracy"
  bottom: "ip3"
  bottom: "label"
  top: "accuracy"
  include {
    phase: TEST
  }
}
layer {
  name: "loss"
  type: "SoftmaxWithLoss"
  bottom: "ip3"
  bottom: "label"
  top: "loss"
}
I0428 20:38:35.994148  5142 layer_factory.hpp:77] Creating layer mnist
I0428 20:38:35.994190  5142 db_lmdb.cpp:35] Opened lmdb examples/mnist/mnist_test_lmdb
I0428 20:38:35.994204  5142 net.cpp:86] Creating Layer mnist
I0428 20:38:35.994207  5142 net.cpp:382] mnist -> data
I0428 20:38:35.994215  5142 net.cpp:382] mnist -> label
I0428 20:38:35.994303  5142 data_layer.cpp:45] output data size: 100,1,28,28
I0428 20:38:35.996618  5142 net.cpp:124] Setting up mnist
I0428 20:38:35.996631  5142 net.cpp:131] Top shape: 100 1 28 28 (78400)
I0428 20:38:35.996636  5142 net.cpp:131] Top shape: 100 (100)
I0428 20:38:35.996639  5142 net.cpp:139] Memory required for data: 314000
I0428 20:38:35.996642  5142 layer_factory.hpp:77] Creating layer label_mnist_1_split
I0428 20:38:35.996649  5142 net.cpp:86] Creating Layer label_mnist_1_split
I0428 20:38:35.996652  5142 net.cpp:408] label_mnist_1_split <- label
I0428 20:38:35.996657  5142 net.cpp:382] label_mnist_1_split -> label_mnist_1_split_0
I0428 20:38:35.996665  5142 net.cpp:382] label_mnist_1_split -> label_mnist_1_split_1
I0428 20:38:35.996719  5142 net.cpp:124] Setting up label_mnist_1_split
I0428 20:38:35.996724  5142 net.cpp:131] Top shape: 100 (100)
I0428 20:38:35.996728  5142 net.cpp:131] Top shape: 100 (100)
I0428 20:38:35.996731  5142 net.cpp:139] Memory required for data: 314800
I0428 20:38:35.996734  5142 layer_factory.hpp:77] Creating layer conv0
I0428 20:38:35.996744  5142 net.cpp:86] Creating Layer conv0
I0428 20:38:35.996747  5142 net.cpp:408] conv0 <- data
I0428 20:38:35.996752  5142 net.cpp:382] conv0 -> conv0
I0428 20:38:35.998497  5142 net.cpp:124] Setting up conv0
I0428 20:38:35.998510  5142 net.cpp:131] Top shape: 100 100 24 24 (5760000)
I0428 20:38:35.998514  5142 net.cpp:139] Memory required for data: 23354800
I0428 20:38:35.998544  5142 layer_factory.hpp:77] Creating layer pool0
I0428 20:38:35.998553  5142 net.cpp:86] Creating Layer pool0
I0428 20:38:35.998555  5142 net.cpp:408] pool0 <- conv0
I0428 20:38:35.998563  5142 net.cpp:382] pool0 -> pool0
I0428 20:38:35.998598  5142 net.cpp:124] Setting up pool0
I0428 20:38:35.998605  5142 net.cpp:131] Top shape: 100 100 12 12 (1440000)
I0428 20:38:35.998608  5142 net.cpp:139] Memory required for data: 29114800
I0428 20:38:35.998610  5142 layer_factory.hpp:77] Creating layer conv1
I0428 20:38:35.998620  5142 net.cpp:86] Creating Layer conv1
I0428 20:38:35.998622  5142 net.cpp:408] conv1 <- pool0
I0428 20:38:35.998627  5142 net.cpp:382] conv1 -> conv1
I0428 20:38:36.001729  5142 net.cpp:124] Setting up conv1
I0428 20:38:36.001744  5142 net.cpp:131] Top shape: 100 100 8 8 (640000)
I0428 20:38:36.001747  5142 net.cpp:139] Memory required for data: 31674800
I0428 20:38:36.001755  5142 layer_factory.hpp:77] Creating layer pool1
I0428 20:38:36.001770  5142 net.cpp:86] Creating Layer pool1
I0428 20:38:36.001773  5142 net.cpp:408] pool1 <- conv1
I0428 20:38:36.001783  5142 net.cpp:382] pool1 -> pool1
I0428 20:38:36.001821  5142 net.cpp:124] Setting up pool1
I0428 20:38:36.001827  5142 net.cpp:131] Top shape: 100 100 4 4 (160000)
I0428 20:38:36.001828  5142 net.cpp:139] Memory required for data: 32314800
I0428 20:38:36.001832  5142 layer_factory.hpp:77] Creating layer ip1
I0428 20:38:36.001838  5142 net.cpp:86] Creating Layer ip1
I0428 20:38:36.001842  5142 net.cpp:408] ip1 <- pool1
I0428 20:38:36.001847  5142 net.cpp:382] ip1 -> ip1
I0428 20:38:36.002172  5142 net.cpp:124] Setting up ip1
I0428 20:38:36.002190  5142 net.cpp:131] Top shape: 100 25 (2500)
I0428 20:38:36.002193  5142 net.cpp:139] Memory required for data: 32324800
I0428 20:38:36.002200  5142 layer_factory.hpp:77] Creating layer relu1
I0428 20:38:36.002207  5142 net.cpp:86] Creating Layer relu1
I0428 20:38:36.002209  5142 net.cpp:408] relu1 <- ip1
I0428 20:38:36.002226  5142 net.cpp:369] relu1 -> ip1 (in-place)
I0428 20:38:36.002385  5142 net.cpp:124] Setting up relu1
I0428 20:38:36.002394  5142 net.cpp:131] Top shape: 100 25 (2500)
I0428 20:38:36.002398  5142 net.cpp:139] Memory required for data: 32334800
I0428 20:38:36.002401  5142 layer_factory.hpp:77] Creating layer ip2
I0428 20:38:36.002408  5142 net.cpp:86] Creating Layer ip2
I0428 20:38:36.002413  5142 net.cpp:408] ip2 <- ip1
I0428 20:38:36.002418  5142 net.cpp:382] ip2 -> ip2
I0428 20:38:36.002523  5142 net.cpp:124] Setting up ip2
I0428 20:38:36.002532  5142 net.cpp:131] Top shape: 100 50 (5000)
I0428 20:38:36.002535  5142 net.cpp:139] Memory required for data: 32354800
I0428 20:38:36.002540  5142 layer_factory.hpp:77] Creating layer relu2
I0428 20:38:36.002544  5142 net.cpp:86] Creating Layer relu2
I0428 20:38:36.002553  5142 net.cpp:408] relu2 <- ip2
I0428 20:38:36.002557  5142 net.cpp:369] relu2 -> ip2 (in-place)
I0428 20:38:36.002764  5142 net.cpp:124] Setting up relu2
I0428 20:38:36.002774  5142 net.cpp:131] Top shape: 100 50 (5000)
I0428 20:38:36.002777  5142 net.cpp:139] Memory required for data: 32374800
I0428 20:38:36.002800  5142 layer_factory.hpp:77] Creating layer ip3
I0428 20:38:36.002805  5142 net.cpp:86] Creating Layer ip3
I0428 20:38:36.002810  5142 net.cpp:408] ip3 <- ip2
I0428 20:38:36.002815  5142 net.cpp:382] ip3 -> ip3
I0428 20:38:36.002970  5142 net.cpp:124] Setting up ip3
I0428 20:38:36.002979  5142 net.cpp:131] Top shape: 100 10 (1000)
I0428 20:38:36.002981  5142 net.cpp:139] Memory required for data: 32378800
I0428 20:38:36.002990  5142 layer_factory.hpp:77] Creating layer relu3
I0428 20:38:36.002995  5142 net.cpp:86] Creating Layer relu3
I0428 20:38:36.002997  5142 net.cpp:408] relu3 <- ip3
I0428 20:38:36.003003  5142 net.cpp:369] relu3 -> ip3 (in-place)
I0428 20:38:36.003811  5142 net.cpp:124] Setting up relu3
I0428 20:38:36.003823  5142 net.cpp:131] Top shape: 100 10 (1000)
I0428 20:38:36.003826  5142 net.cpp:139] Memory required for data: 32382800
I0428 20:38:36.003830  5142 layer_factory.hpp:77] Creating layer ip3_relu3_0_split
I0428 20:38:36.003835  5142 net.cpp:86] Creating Layer ip3_relu3_0_split
I0428 20:38:36.003839  5142 net.cpp:408] ip3_relu3_0_split <- ip3
I0428 20:38:36.003844  5142 net.cpp:382] ip3_relu3_0_split -> ip3_relu3_0_split_0
I0428 20:38:36.003851  5142 net.cpp:382] ip3_relu3_0_split -> ip3_relu3_0_split_1
I0428 20:38:36.003893  5142 net.cpp:124] Setting up ip3_relu3_0_split
I0428 20:38:36.003898  5142 net.cpp:131] Top shape: 100 10 (1000)
I0428 20:38:36.003902  5142 net.cpp:131] Top shape: 100 10 (1000)
I0428 20:38:36.003906  5142 net.cpp:139] Memory required for data: 32390800
I0428 20:38:36.003908  5142 layer_factory.hpp:77] Creating layer accuracy
I0428 20:38:36.003917  5142 net.cpp:86] Creating Layer accuracy
I0428 20:38:36.003921  5142 net.cpp:408] accuracy <- ip3_relu3_0_split_0
I0428 20:38:36.003924  5142 net.cpp:408] accuracy <- label_mnist_1_split_0
I0428 20:38:36.003928  5142 net.cpp:382] accuracy -> accuracy
…
