…
I0428 20:16:35.377421   688 net.cpp:296] The NetState phase (0) differed from the phase (1) specified by a rule in layer mnist
I0428 20:16:35.377439   688 net.cpp:296] The NetState phase (0) differed from the phase (1) specified by a rule in layer accuracy
I0428 20:16:35.377537   688 net.cpp:53] Initializing net from parameters: 
name: "LeNet"
state {
  phase: TRAIN
  level: 0
  stage: ""
}
layer {
  name: "mnist"
  type: "Data"
  top: "data"
  top: "label"
  include {
    phase: TRAIN
  }
  transform_param {
    scale: 0.00390625
  }
  data_param {
    source: "examples/mnist/mnist_train_lmdb"
    batch_size: 64
    backend: LMDB
  }
}
layer {
  name: "conv0"
  type: "Convolution"
  bottom: "data"
  top: "conv0"
  param {
    lr_mult: 1
  }
  param {
    lr_mult: 2
  }
  convolution_param {
    num_output: 50
    kernel_size: 5
    stride: 1
    weight_filler {
      type: "xavier"
    }
    bias_filler {
      type: "constant"
    }
  }
}
layer {
  name: "pool0"
  type: "Pooling"
  bottom: "conv0"
  top: "pool0"
  pooling_param {
    pool: MAX
    kernel_size: 2
    stride: 2
  }
}
layer {
  name: "conv1"
  type: "Convolution"
  bottom: "pool0"
  top: "conv1"
  param {
    lr_mult: 1
  }
  param {
    lr_mult: 2
  }
  convolution_param {
    num_output: 5
    kernel_size: 5
    stride: 1
    weight_filler {
      type: "xavier"
    }
    bias_filler {
      type: "constant"
    }
  }
}
layer {
  name: "pool1"
  type: "Pooling"
  bottom: "conv1"
  top: "pool1"
  pooling_param {
    pool: MAX
    kernel_size: 2
    stride: 2
  }
}
layer {
  name: "ip1"
  type: "InnerProduct"
  bottom: "pool1"
  top: "ip1"
  param {
    lr_mult: 1
  }
  param {
    lr_mult: 2
  }
  inner_product_param {
    num_output: 25
    weight_filler {
      type: "xavier"
    }
    bias_filler {
      type: "constant"
    }
  }
}
layer {
  name: "relu1"
  type: "ReLU"
  bottom: "ip1"
  top: "ip1"
}
layer {
  name: "ip2"
  type: "InnerProduct"
  bottom: "ip1"
  top: "ip2"
  param {
    lr_mult: 1
  }
  param {
    lr_mult: 2
  }
  inner_product_param {
    num_output: 25
    weight_filler {
      type: "xavier"
    }
    bias_filler {
      type: "constant"
    }
  }
}
layer {
  name: "relu2"
  type: "ReLU"
  bottom: "ip2"
  top: "ip2"
}
layer {
  name: "ip3"
  type: "InnerProduct"
  bottom: "ip2"
  top: "ip3"
  param {
    lr_mult: 1
  }
  param {
    lr_mult: 2
  }
  inner_product_param {
    num_output: 10
    weight_filler {
      type: "xavier"
    }
    bias_filler {
      type: "constant"
    }
  }
}
layer {
  name: "relu3"
  type: "ReLU"
  bottom: "ip3"
  top: "ip3"
}
layer {
  name: "loss"
  type: "SoftmaxWithLoss"
  bottom: "ip3"
  bottom: "label"
  top: "loss"
}
I0428 20:16:35.377614   688 layer_factory.hpp:77] Creating layer mnist
I0428 20:16:35.377712   688 db_lmdb.cpp:35] Opened lmdb examples/mnist/mnist_train_lmdb
I0428 20:16:35.377734   688 net.cpp:86] Creating Layer mnist
I0428 20:16:35.377743   688 net.cpp:382] mnist -> data
I0428 20:16:35.377764   688 net.cpp:382] mnist -> label
I0428 20:16:35.378860   688 data_layer.cpp:45] output data size: 64,1,28,28
I0428 20:16:35.381319   688 net.cpp:124] Setting up mnist
I0428 20:16:35.381336   688 net.cpp:131] Top shape: 64 1 28 28 (50176)
I0428 20:16:35.381345   688 net.cpp:131] Top shape: 64 (64)
I0428 20:16:35.381347   688 net.cpp:139] Memory required for data: 200960
I0428 20:16:35.381355   688 layer_factory.hpp:77] Creating layer conv0
I0428 20:16:35.381369   688 net.cpp:86] Creating Layer conv0
I0428 20:16:35.381388   688 net.cpp:408] conv0 <- data
I0428 20:16:35.381402   688 net.cpp:382] conv0 -> conv0
I0428 20:16:35.671682   688 net.cpp:124] Setting up conv0
I0428 20:16:35.671716   688 net.cpp:131] Top shape: 64 50 24 24 (1843200)
I0428 20:16:35.671721   688 net.cpp:139] Memory required for data: 7573760
I0428 20:16:35.671739   688 layer_factory.hpp:77] Creating layer pool0
I0428 20:16:35.671754   688 net.cpp:86] Creating Layer pool0
I0428 20:16:35.671759   688 net.cpp:408] pool0 <- conv0
I0428 20:16:35.671766   688 net.cpp:382] pool0 -> pool0
I0428 20:16:35.671826   688 net.cpp:124] Setting up pool0
I0428 20:16:35.671845   688 net.cpp:131] Top shape: 64 50 12 12 (460800)
I0428 20:16:35.671849   688 net.cpp:139] Memory required for data: 9416960
I0428 20:16:35.671854   688 layer_factory.hpp:77] Creating layer conv1
I0428 20:16:35.671866   688 net.cpp:86] Creating Layer conv1
I0428 20:16:35.671869   688 net.cpp:408] conv1 <- pool0
I0428 20:16:35.671875   688 net.cpp:382] conv1 -> conv1
I0428 20:16:35.675051   688 net.cpp:124] Setting up conv1
I0428 20:16:35.675070   688 net.cpp:131] Top shape: 64 5 8 8 (20480)
I0428 20:16:35.675074   688 net.cpp:139] Memory required for data: 9498880
I0428 20:16:35.675086   688 layer_factory.hpp:77] Creating layer pool1
I0428 20:16:35.675094   688 net.cpp:86] Creating Layer pool1
I0428 20:16:35.675098   688 net.cpp:408] pool1 <- conv1
I0428 20:16:35.675104   688 net.cpp:382] pool1 -> pool1
I0428 20:16:35.675149   688 net.cpp:124] Setting up pool1
I0428 20:16:35.675156   688 net.cpp:131] Top shape: 64 5 4 4 (5120)
I0428 20:16:35.675160   688 net.cpp:139] Memory required for data: 9519360
I0428 20:16:35.675163   688 layer_factory.hpp:77] Creating layer ip1
I0428 20:16:35.675176   688 net.cpp:86] Creating Layer ip1
I0428 20:16:35.675180   688 net.cpp:408] ip1 <- pool1
I0428 20:16:35.675186   688 net.cpp:382] ip1 -> ip1
I0428 20:16:35.675320   688 net.cpp:124] Setting up ip1
I0428 20:16:35.675330   688 net.cpp:131] Top shape: 64 25 (1600)
I0428 20:16:35.675334   688 net.cpp:139] Memory required for data: 9525760
I0428 20:16:35.675343   688 layer_factory.hpp:77] Creating layer relu1
I0428 20:16:35.675349   688 net.cpp:86] Creating Layer relu1
I0428 20:16:35.675354   688 net.cpp:408] relu1 <- ip1
I0428 20:16:35.675359   688 net.cpp:369] relu1 -> ip1 (in-place)
I0428 20:16:35.675556   688 net.cpp:124] Setting up relu1
I0428 20:16:35.675567   688 net.cpp:131] Top shape: 64 25 (1600)
I0428 20:16:35.675571   688 net.cpp:139] Memory required for data: 9532160
I0428 20:16:35.675575   688 layer_factory.hpp:77] Creating layer ip2
I0428 20:16:35.675583   688 net.cpp:86] Creating Layer ip2
I0428 20:16:35.675586   688 net.cpp:408] ip2 <- ip1
I0428 20:16:35.675592   688 net.cpp:382] ip2 -> ip2
I0428 20:16:35.675709   688 net.cpp:124] Setting up ip2
I0428 20:16:35.675717   688 net.cpp:131] Top shape: 64 25 (1600)
I0428 20:16:35.675721   688 net.cpp:139] Memory required for data: 9538560
I0428 20:16:35.675727   688 layer_factory.hpp:77] Creating layer relu2
I0428 20:16:35.675734   688 net.cpp:86] Creating Layer relu2
I0428 20:16:35.675739   688 net.cpp:408] relu2 <- ip2
I0428 20:16:35.675743   688 net.cpp:369] relu2 -> ip2 (in-place)
I0428 20:16:35.676590   688 net.cpp:124] Setting up relu2
I0428 20:16:35.676606   688 net.cpp:131] Top shape: 64 25 (1600)
I0428 20:16:35.676610   688 net.cpp:139] Memory required for data: 9544960
I0428 20:16:35.676615   688 layer_factory.hpp:77] Creating layer ip3
I0428 20:16:35.676623   688 net.cpp:86] Creating Layer ip3
I0428 20:16:35.676627   688 net.cpp:408] ip3 <- ip2
I0428 20:16:35.676633   688 net.cpp:382] ip3 -> ip3
I0428 20:16:35.676837   688 net.cpp:124] Setting up ip3
I0428 20:16:35.676854   688 net.cpp:131] Top shape: 64 10 (640)
I0428 20:16:35.676861   688 net.cpp:139] Memory required for data: 9547520
I0428 20:16:35.676873   688 layer_factory.hpp:77] Creating layer relu3
I0428 20:16:35.676883   688 net.cpp:86] Creating Layer relu3
I0428 20:16:35.676889   688 net.cpp:408] relu3 <- ip3
I0428 20:16:35.676895   688 net.cpp:369] relu3 -> ip3 (in-place)
I0428 20:16:35.677103   688 net.cpp:124] Setting up relu3
I0428 20:16:35.677114   688 net.cpp:131] Top shape: 64 10 (640)
I0428 20:16:35.677119   688 net.cpp:139] Memory required for data: 9550080
I0428 20:16:35.677122   688 layer_factory.hpp:77] Creating layer loss
I0428 20:16:35.677129   688 net.cpp:86] Creating Layer loss
I0428 20:16:35.677134   688 net.cpp:408] loss <- ip3
I0428 20:16:35.677137   688 net.cpp:408] loss <- label
I0428 20:16:35.677145   688 net.cpp:382] loss -> loss
I0428 20:16:35.677166   688 layer_factory.hpp:77] Creating layer loss
…
I0428 20:16:35.677907   688 solver.cpp:173] Creating test net (#0) specified by net file: ECE595/mnist/train_test/var_everything2/lenet_train_test1274.prototxt
I0428 20:16:35.677940   688 net.cpp:296] The NetState phase (1) differed from the phase (0) specified by a rule in layer mnist
I0428 20:16:35.678048   688 net.cpp:53] Initializing net from parameters: 
name: "LeNet"
state {
  phase: TEST
}
layer {
  name: "mnist"
  type: "Data"
  top: "data"
  top: "label"
  include {
    phase: TEST
  }
  transform_param {
    scale: 0.00390625
  }
  data_param {
    source: "examples/mnist/mnist_test_lmdb"
    batch_size: 100
    backend: LMDB
  }
}
layer {
  name: "conv0"
  type: "Convolution"
  bottom: "data"
  top: "conv0"
  param {
    lr_mult: 1
  }
  param {
    lr_mult: 2
  }
  convolution_param {
    num_output: 50
    kernel_size: 5
    stride: 1
    weight_filler {
      type: "xavier"
    }
    bias_filler {
      type: "constant"
    }
  }
}
layer {
  name: "pool0"
  type: "Pooling"
  bottom: "conv0"
  top: "pool0"
  pooling_param {
    pool: MAX
    kernel_size: 2
    stride: 2
  }
}
layer {
  name: "conv1"
  type: "Convolution"
  bottom: "pool0"
  top: "conv1"
  param {
    lr_mult: 1
  }
  param {
    lr_mult: 2
  }
  convolution_param {
    num_output: 5
    kernel_size: 5
    stride: 1
    weight_filler {
      type: "xavier"
    }
    bias_filler {
      type: "constant"
    }
  }
}
layer {
  name: "pool1"
  type: "Pooling"
  bottom: "conv1"
  top: "pool1"
  pooling_param {
    pool: MAX
    kernel_size: 2
    stride: 2
  }
}
layer {
  name: "ip1"
  type: "InnerProduct"
  bottom: "pool1"
  top: "ip1"
  param {
    lr_mult: 1
  }
  param {
    lr_mult: 2
  }
  inner_product_param {
    num_output: 25
    weight_filler {
      type: "xavier"
    }
    bias_filler {
      type: "constant"
    }
  }
}
layer {
  name: "relu1"
  type: "ReLU"
  bottom: "ip1"
  top: "ip1"
}
layer {
  name: "ip2"
  type: "InnerProduct"
  bottom: "ip1"
  top: "ip2"
  param {
    lr_mult: 1
  }
  param {
    lr_mult: 2
  }
  inner_product_param {
    num_output: 25
    weight_filler {
      type: "xavier"
    }
    bias_filler {
      type: "constant"
    }
  }
}
layer {
  name: "relu2"
  type: "ReLU"
  bottom: "ip2"
  top: "ip2"
}
layer {
  name: "ip3"
  type: "InnerProduct"
  bottom: "ip2"
  top: "ip3"
  param {
    lr_mult: 1
  }
  param {
    lr_mult: 2
  }
  inner_product_param {
    num_output: 10
    weight_filler {
      type: "xavier"
    }
    bias_filler {
      type: "constant"
    }
  }
}
layer {
  name: "relu3"
  type: "ReLU"
  bottom: "ip3"
  top: "ip3"
}
layer {
  name: "accuracy"
  type: "Accuracy"
  bottom: "ip3"
  bottom: "label"
  top: "accuracy"
  include {
    phase: TEST
  }
}
layer {
  name: "loss"
  type: "SoftmaxWithLoss"
  bottom: "ip3"
  bottom: "label"
  top: "loss"
}
I0428 20:16:35.678140   688 layer_factory.hpp:77] Creating layer mnist
I0428 20:16:35.678189   688 db_lmdb.cpp:35] Opened lmdb examples/mnist/mnist_test_lmdb
I0428 20:16:35.678202   688 net.cpp:86] Creating Layer mnist
I0428 20:16:35.678207   688 net.cpp:382] mnist -> data
I0428 20:16:35.678216   688 net.cpp:382] mnist -> label
I0428 20:16:35.678318   688 data_layer.cpp:45] output data size: 100,1,28,28
I0428 20:16:35.680685   688 net.cpp:124] Setting up mnist
I0428 20:16:35.680702   688 net.cpp:131] Top shape: 100 1 28 28 (78400)
I0428 20:16:35.680708   688 net.cpp:131] Top shape: 100 (100)
I0428 20:16:35.680712   688 net.cpp:139] Memory required for data: 314000
I0428 20:16:35.680716   688 layer_factory.hpp:77] Creating layer label_mnist_1_split
I0428 20:16:35.680728   688 net.cpp:86] Creating Layer label_mnist_1_split
I0428 20:16:35.680733   688 net.cpp:408] label_mnist_1_split <- label
I0428 20:16:35.680738   688 net.cpp:382] label_mnist_1_split -> label_mnist_1_split_0
I0428 20:16:35.680747   688 net.cpp:382] label_mnist_1_split -> label_mnist_1_split_1
I0428 20:16:35.680816   688 net.cpp:124] Setting up label_mnist_1_split
I0428 20:16:35.680825   688 net.cpp:131] Top shape: 100 (100)
I0428 20:16:35.680830   688 net.cpp:131] Top shape: 100 (100)
I0428 20:16:35.680833   688 net.cpp:139] Memory required for data: 314800
I0428 20:16:35.680837   688 layer_factory.hpp:77] Creating layer conv0
I0428 20:16:35.680847   688 net.cpp:86] Creating Layer conv0
I0428 20:16:35.680851   688 net.cpp:408] conv0 <- data
I0428 20:16:35.680857   688 net.cpp:382] conv0 -> conv0
I0428 20:16:35.682740   688 net.cpp:124] Setting up conv0
I0428 20:16:35.682757   688 net.cpp:131] Top shape: 100 50 24 24 (2880000)
I0428 20:16:35.682761   688 net.cpp:139] Memory required for data: 11834800
I0428 20:16:35.682772   688 layer_factory.hpp:77] Creating layer pool0
I0428 20:16:35.682780   688 net.cpp:86] Creating Layer pool0
I0428 20:16:35.682785   688 net.cpp:408] pool0 <- conv0
I0428 20:16:35.682790   688 net.cpp:382] pool0 -> pool0
I0428 20:16:35.682833   688 net.cpp:124] Setting up pool0
I0428 20:16:35.682840   688 net.cpp:131] Top shape: 100 50 12 12 (720000)
I0428 20:16:35.682843   688 net.cpp:139] Memory required for data: 14714800
I0428 20:16:35.682847   688 layer_factory.hpp:77] Creating layer conv1
I0428 20:16:35.682857   688 net.cpp:86] Creating Layer conv1
I0428 20:16:35.682860   688 net.cpp:408] conv1 <- pool0
I0428 20:16:35.682867   688 net.cpp:382] conv1 -> conv1
I0428 20:16:35.684729   688 net.cpp:124] Setting up conv1
I0428 20:16:35.684747   688 net.cpp:131] Top shape: 100 5 8 8 (32000)
I0428 20:16:35.684751   688 net.cpp:139] Memory required for data: 14842800
I0428 20:16:35.684762   688 layer_factory.hpp:77] Creating layer pool1
I0428 20:16:35.684770   688 net.cpp:86] Creating Layer pool1
I0428 20:16:35.684774   688 net.cpp:408] pool1 <- conv1
I0428 20:16:35.684780   688 net.cpp:382] pool1 -> pool1
I0428 20:16:35.684833   688 net.cpp:124] Setting up pool1
I0428 20:16:35.684840   688 net.cpp:131] Top shape: 100 5 4 4 (8000)
I0428 20:16:35.684844   688 net.cpp:139] Memory required for data: 14874800
I0428 20:16:35.684849   688 layer_factory.hpp:77] Creating layer ip1
I0428 20:16:35.684855   688 net.cpp:86] Creating Layer ip1
I0428 20:16:35.684859   688 net.cpp:408] ip1 <- pool1
I0428 20:16:35.684864   688 net.cpp:382] ip1 -> ip1
I0428 20:16:35.684991   688 net.cpp:124] Setting up ip1
I0428 20:16:35.685003   688 net.cpp:131] Top shape: 100 25 (2500)
I0428 20:16:35.685019   688 net.cpp:139] Memory required for data: 14884800
I0428 20:16:35.685030   688 layer_factory.hpp:77] Creating layer relu1
I0428 20:16:35.685036   688 net.cpp:86] Creating Layer relu1
I0428 20:16:35.685040   688 net.cpp:408] relu1 <- ip1
I0428 20:16:35.685045   688 net.cpp:369] relu1 -> ip1 (in-place)
I0428 20:16:35.685322   688 net.cpp:124] Setting up relu1
I0428 20:16:35.685334   688 net.cpp:131] Top shape: 100 25 (2500)
I0428 20:16:35.685338   688 net.cpp:139] Memory required for data: 14894800
I0428 20:16:35.685343   688 layer_factory.hpp:77] Creating layer ip2
I0428 20:16:35.685350   688 net.cpp:86] Creating Layer ip2
I0428 20:16:35.685354   688 net.cpp:408] ip2 <- ip1
I0428 20:16:35.685360   688 net.cpp:382] ip2 -> ip2
I0428 20:16:35.685484   688 net.cpp:124] Setting up ip2
I0428 20:16:35.685494   688 net.cpp:131] Top shape: 100 25 (2500)
I0428 20:16:35.685499   688 net.cpp:139] Memory required for data: 14904800
I0428 20:16:35.685505   688 layer_factory.hpp:77] Creating layer relu2
I0428 20:16:35.685511   688 net.cpp:86] Creating Layer relu2
I0428 20:16:35.685514   688 net.cpp:408] relu2 <- ip2
I0428 20:16:35.685520   688 net.cpp:369] relu2 -> ip2 (in-place)
I0428 20:16:35.685714   688 net.cpp:124] Setting up relu2
I0428 20:16:35.685724   688 net.cpp:131] Top shape: 100 25 (2500)
I0428 20:16:35.685727   688 net.cpp:139] Memory required for data: 14914800
I0428 20:16:35.685732   688 layer_factory.hpp:77] Creating layer ip3
I0428 20:16:35.685740   688 net.cpp:86] Creating Layer ip3
I0428 20:16:35.685745   688 net.cpp:408] ip3 <- ip2
I0428 20:16:35.685750   688 net.cpp:382] ip3 -> ip3
I0428 20:16:35.685868   688 net.cpp:124] Setting up ip3
I0428 20:16:35.685878   688 net.cpp:131] Top shape: 100 10 (1000)
I0428 20:16:35.685881   688 net.cpp:139] Memory required for data: 14918800
I0428 20:16:35.685891   688 layer_factory.hpp:77] Creating layer relu3
I0428 20:16:35.685896   688 net.cpp:86] Creating Layer relu3
I0428 20:16:35.685900   688 net.cpp:408] relu3 <- ip3
I0428 20:16:35.685905   688 net.cpp:369] relu3 -> ip3 (in-place)
I0428 20:16:35.686828   688 net.cpp:124] Setting up relu3
I0428 20:16:35.686843   688 net.cpp:131] Top shape: 100 10 (1000)
I0428 20:16:35.686847   688 net.cpp:139] Memory required for data: 14922800
I0428 20:16:35.686851   688 layer_factory.hpp:77] Creating layer ip3_relu3_0_split
I0428 20:16:35.686857   688 net.cpp:86] Creating Layer ip3_relu3_0_split
I0428 20:16:35.686861   688 net.cpp:408] ip3_relu3_0_split <- ip3
I0428 20:16:35.686868   688 net.cpp:382] ip3_relu3_0_split -> ip3_relu3_0_split_0
I0428 20:16:35.686877   688 net.cpp:382] ip3_relu3_0_split -> ip3_relu3_0_split_1
I0428 20:16:35.686923   688 net.cpp:124] Setting up ip3_relu3_0_split
I0428 20:16:35.686929   688 net.cpp:131] Top shape: 100 10 (1000)
I0428 20:16:35.686933   688 net.cpp:131] Top shape: 100 10 (1000)
I0428 20:16:35.686944   688 net.cpp:139] Memory required for data: 14930800
I0428 20:16:35.686947   688 layer_factory.hpp:77] Creating layer accuracy
I0428 20:16:35.686956   688 net.cpp:86] Creating Layer accuracy
I0428 20:16:35.686960   688 net.cpp:408] accuracy <- ip3_relu3_0_split_0
I0428 20:16:35.686965   688 net.cpp:408] accuracy <- label_mnist_1_split_0
I0428 20:16:35.686970   688 net.cpp:382] accuracy -> accuracy
…
