…
I0428 20:08:46.825354 31483 net.cpp:296] The NetState phase (0) differed from the phase (1) specified by a rule in layer mnist
I0428 20:08:46.825371 31483 net.cpp:296] The NetState phase (0) differed from the phase (1) specified by a rule in layer accuracy
I0428 20:08:46.825448 31483 net.cpp:53] Initializing net from parameters: 
name: "LeNet"
state {
  phase: TRAIN
  level: 0
  stage: ""
}
layer {
  name: "mnist"
  type: "Data"
  top: "data"
  top: "label"
  include {
    phase: TRAIN
  }
  transform_param {
    scale: 0.00390625
  }
  data_param {
    source: "examples/mnist/mnist_train_lmdb"
    batch_size: 64
    backend: LMDB
  }
}
layer {
  name: "conv0"
  type: "Convolution"
  bottom: "data"
  top: "conv0"
  param {
    lr_mult: 1
  }
  param {
    lr_mult: 2
  }
  convolution_param {
    num_output: 25
    kernel_size: 5
    stride: 1
    weight_filler {
      type: "xavier"
    }
    bias_filler {
      type: "constant"
    }
  }
}
layer {
  name: "pool0"
  type: "Pooling"
  bottom: "conv0"
  top: "pool0"
  pooling_param {
    pool: MAX
    kernel_size: 2
    stride: 2
  }
}
layer {
  name: "conv1"
  type: "Convolution"
  bottom: "pool0"
  top: "conv1"
  param {
    lr_mult: 1
  }
  param {
    lr_mult: 2
  }
  convolution_param {
    num_output: 25
    kernel_size: 5
    stride: 1
    weight_filler {
      type: "xavier"
    }
    bias_filler {
      type: "constant"
    }
  }
}
layer {
  name: "pool1"
  type: "Pooling"
  bottom: "conv1"
  top: "pool1"
  pooling_param {
    pool: MAX
    kernel_size: 2
    stride: 2
  }
}
layer {
  name: "ip1"
  type: "InnerProduct"
  bottom: "pool1"
  top: "ip1"
  param {
    lr_mult: 1
  }
  param {
    lr_mult: 2
  }
  inner_product_param {
    num_output: 10
    weight_filler {
      type: "xavier"
    }
    bias_filler {
      type: "constant"
    }
  }
}
layer {
  name: "relu1"
  type: "ReLU"
  bottom: "ip1"
  top: "ip1"
}
layer {
  name: "loss"
  type: "SoftmaxWithLoss"
  bottom: "ip1"
  bottom: "label"
  top: "loss"
}
I0428 20:08:46.825515 31483 layer_factory.hpp:77] Creating layer mnist
I0428 20:08:46.825608 31483 db_lmdb.cpp:35] Opened lmdb examples/mnist/mnist_train_lmdb
I0428 20:08:46.825633 31483 net.cpp:86] Creating Layer mnist
I0428 20:08:46.825644 31483 net.cpp:382] mnist -> data
I0428 20:08:46.825669 31483 net.cpp:382] mnist -> label
I0428 20:08:46.826725 31483 data_layer.cpp:45] output data size: 64,1,28,28
I0428 20:08:46.829125 31483 net.cpp:124] Setting up mnist
I0428 20:08:46.829143 31483 net.cpp:131] Top shape: 64 1 28 28 (50176)
I0428 20:08:46.829149 31483 net.cpp:131] Top shape: 64 (64)
I0428 20:08:46.829151 31483 net.cpp:139] Memory required for data: 200960
I0428 20:08:46.829159 31483 layer_factory.hpp:77] Creating layer conv0
I0428 20:08:46.829175 31483 net.cpp:86] Creating Layer conv0
I0428 20:08:46.829181 31483 net.cpp:408] conv0 <- data
I0428 20:08:46.829193 31483 net.cpp:382] conv0 -> conv0
I0428 20:08:47.114138 31483 net.cpp:124] Setting up conv0
I0428 20:08:47.114166 31483 net.cpp:131] Top shape: 64 25 24 24 (921600)
I0428 20:08:47.114171 31483 net.cpp:139] Memory required for data: 3887360
I0428 20:08:47.114187 31483 layer_factory.hpp:77] Creating layer pool0
I0428 20:08:47.114199 31483 net.cpp:86] Creating Layer pool0
I0428 20:08:47.114203 31483 net.cpp:408] pool0 <- conv0
I0428 20:08:47.114209 31483 net.cpp:382] pool0 -> pool0
I0428 20:08:47.114254 31483 net.cpp:124] Setting up pool0
I0428 20:08:47.114264 31483 net.cpp:131] Top shape: 64 25 12 12 (230400)
I0428 20:08:47.114282 31483 net.cpp:139] Memory required for data: 4808960
I0428 20:08:47.114285 31483 layer_factory.hpp:77] Creating layer conv1
I0428 20:08:47.114297 31483 net.cpp:86] Creating Layer conv1
I0428 20:08:47.114300 31483 net.cpp:408] conv1 <- pool0
I0428 20:08:47.114305 31483 net.cpp:382] conv1 -> conv1
I0428 20:08:47.117086 31483 net.cpp:124] Setting up conv1
I0428 20:08:47.117101 31483 net.cpp:131] Top shape: 64 25 8 8 (102400)
I0428 20:08:47.117105 31483 net.cpp:139] Memory required for data: 5218560
I0428 20:08:47.117115 31483 layer_factory.hpp:77] Creating layer pool1
I0428 20:08:47.117122 31483 net.cpp:86] Creating Layer pool1
I0428 20:08:47.117126 31483 net.cpp:408] pool1 <- conv1
I0428 20:08:47.117131 31483 net.cpp:382] pool1 -> pool1
I0428 20:08:47.117168 31483 net.cpp:124] Setting up pool1
I0428 20:08:47.117175 31483 net.cpp:131] Top shape: 64 25 4 4 (25600)
I0428 20:08:47.117179 31483 net.cpp:139] Memory required for data: 5320960
I0428 20:08:47.117182 31483 layer_factory.hpp:77] Creating layer ip1
I0428 20:08:47.117188 31483 net.cpp:86] Creating Layer ip1
I0428 20:08:47.117192 31483 net.cpp:408] ip1 <- pool1
I0428 20:08:47.117197 31483 net.cpp:382] ip1 -> ip1
I0428 20:08:47.118145 31483 net.cpp:124] Setting up ip1
I0428 20:08:47.118158 31483 net.cpp:131] Top shape: 64 10 (640)
I0428 20:08:47.118161 31483 net.cpp:139] Memory required for data: 5323520
I0428 20:08:47.118170 31483 layer_factory.hpp:77] Creating layer relu1
I0428 20:08:47.118176 31483 net.cpp:86] Creating Layer relu1
I0428 20:08:47.118180 31483 net.cpp:408] relu1 <- ip1
I0428 20:08:47.118185 31483 net.cpp:369] relu1 -> ip1 (in-place)
I0428 20:08:47.118353 31483 net.cpp:124] Setting up relu1
I0428 20:08:47.118362 31483 net.cpp:131] Top shape: 64 10 (640)
I0428 20:08:47.118366 31483 net.cpp:139] Memory required for data: 5326080
I0428 20:08:47.118368 31483 layer_factory.hpp:77] Creating layer loss
I0428 20:08:47.118374 31483 net.cpp:86] Creating Layer loss
I0428 20:08:47.118378 31483 net.cpp:408] loss <- ip1
I0428 20:08:47.118382 31483 net.cpp:408] loss <- label
I0428 20:08:47.118387 31483 net.cpp:382] loss -> loss
I0428 20:08:47.118405 31483 layer_factory.hpp:77] Creating layer loss
…
I0428 20:08:47.119554 31483 solver.cpp:173] Creating test net (#0) specified by net file: ECE595/mnist/train_test/var_everything2/lenet_train_test1092.prototxt
I0428 20:08:47.119580 31483 net.cpp:296] The NetState phase (1) differed from the phase (0) specified by a rule in layer mnist
I0428 20:08:47.119655 31483 net.cpp:53] Initializing net from parameters: 
name: "LeNet"
state {
  phase: TEST
}
layer {
  name: "mnist"
  type: "Data"
  top: "data"
  top: "label"
  include {
    phase: TEST
  }
  transform_param {
    scale: 0.00390625
  }
  data_param {
    source: "examples/mnist/mnist_test_lmdb"
    batch_size: 100
    backend: LMDB
  }
}
layer {
  name: "conv0"
  type: "Convolution"
  bottom: "data"
  top: "conv0"
  param {
    lr_mult: 1
  }
  param {
    lr_mult: 2
  }
  convolution_param {
    num_output: 25
    kernel_size: 5
    stride: 1
    weight_filler {
      type: "xavier"
    }
    bias_filler {
      type: "constant"
    }
  }
}
layer {
  name: "pool0"
  type: "Pooling"
  bottom: "conv0"
  top: "pool0"
  pooling_param {
    pool: MAX
    kernel_size: 2
    stride: 2
  }
}
layer {
  name: "conv1"
  type: "Convolution"
  bottom: "pool0"
  top: "conv1"
  param {
    lr_mult: 1
  }
  param {
    lr_mult: 2
  }
  convolution_param {
    num_output: 25
    kernel_size: 5
    stride: 1
    weight_filler {
      type: "xavier"
    }
    bias_filler {
      type: "constant"
    }
  }
}
layer {
  name: "pool1"
  type: "Pooling"
  bottom: "conv1"
  top: "pool1"
  pooling_param {
    pool: MAX
    kernel_size: 2
    stride: 2
  }
}
layer {
  name: "ip1"
  type: "InnerProduct"
  bottom: "pool1"
  top: "ip1"
  param {
    lr_mult: 1
  }
  param {
    lr_mult: 2
  }
  inner_product_param {
    num_output: 10
    weight_filler {
      type: "xavier"
    }
    bias_filler {
      type: "constant"
    }
  }
}
layer {
  name: "relu1"
  type: "ReLU"
  bottom: "ip1"
  top: "ip1"
}
layer {
  name: "accuracy"
  type: "Accuracy"
  bottom: "ip1"
  bottom: "label"
  top: "accuracy"
  include {
    phase: TEST
  }
}
layer {
  name: "loss"
  type: "SoftmaxWithLoss"
  bottom: "ip1"
  bottom: "label"
  top: "loss"
}
I0428 20:08:47.119726 31483 layer_factory.hpp:77] Creating layer mnist
I0428 20:08:47.119771 31483 db_lmdb.cpp:35] Opened lmdb examples/mnist/mnist_test_lmdb
I0428 20:08:47.119782 31483 net.cpp:86] Creating Layer mnist
I0428 20:08:47.119787 31483 net.cpp:382] mnist -> data
I0428 20:08:47.119796 31483 net.cpp:382] mnist -> label
I0428 20:08:47.119879 31483 data_layer.cpp:45] output data size: 100,1,28,28
I0428 20:08:47.121786 31483 net.cpp:124] Setting up mnist
I0428 20:08:47.121799 31483 net.cpp:131] Top shape: 100 1 28 28 (78400)
I0428 20:08:47.121804 31483 net.cpp:131] Top shape: 100 (100)
I0428 20:08:47.121807 31483 net.cpp:139] Memory required for data: 314000
I0428 20:08:47.121811 31483 layer_factory.hpp:77] Creating layer label_mnist_1_split
I0428 20:08:47.121832 31483 net.cpp:86] Creating Layer label_mnist_1_split
I0428 20:08:47.121836 31483 net.cpp:408] label_mnist_1_split <- label
I0428 20:08:47.121841 31483 net.cpp:382] label_mnist_1_split -> label_mnist_1_split_0
I0428 20:08:47.121848 31483 net.cpp:382] label_mnist_1_split -> label_mnist_1_split_1
I0428 20:08:47.121886 31483 net.cpp:124] Setting up label_mnist_1_split
I0428 20:08:47.121891 31483 net.cpp:131] Top shape: 100 (100)
I0428 20:08:47.121894 31483 net.cpp:131] Top shape: 100 (100)
I0428 20:08:47.121896 31483 net.cpp:139] Memory required for data: 314800
I0428 20:08:47.121899 31483 layer_factory.hpp:77] Creating layer conv0
I0428 20:08:47.121907 31483 net.cpp:86] Creating Layer conv0
I0428 20:08:47.121911 31483 net.cpp:408] conv0 <- data
I0428 20:08:47.121915 31483 net.cpp:382] conv0 -> conv0
I0428 20:08:47.122795 31483 net.cpp:124] Setting up conv0
I0428 20:08:47.122808 31483 net.cpp:131] Top shape: 100 25 24 24 (1440000)
I0428 20:08:47.122812 31483 net.cpp:139] Memory required for data: 6074800
I0428 20:08:47.122820 31483 layer_factory.hpp:77] Creating layer pool0
I0428 20:08:47.122826 31483 net.cpp:86] Creating Layer pool0
I0428 20:08:47.122829 31483 net.cpp:408] pool0 <- conv0
I0428 20:08:47.122834 31483 net.cpp:382] pool0 -> pool0
I0428 20:08:47.122869 31483 net.cpp:124] Setting up pool0
I0428 20:08:47.122874 31483 net.cpp:131] Top shape: 100 25 12 12 (360000)
I0428 20:08:47.122876 31483 net.cpp:139] Memory required for data: 7514800
I0428 20:08:47.122879 31483 layer_factory.hpp:77] Creating layer conv1
I0428 20:08:47.122886 31483 net.cpp:86] Creating Layer conv1
I0428 20:08:47.122889 31483 net.cpp:408] conv1 <- pool0
I0428 20:08:47.122894 31483 net.cpp:382] conv1 -> conv1
I0428 20:08:47.124938 31483 net.cpp:124] Setting up conv1
I0428 20:08:47.124953 31483 net.cpp:131] Top shape: 100 25 8 8 (160000)
I0428 20:08:47.124974 31483 net.cpp:139] Memory required for data: 8154800
I0428 20:08:47.124997 31483 layer_factory.hpp:77] Creating layer pool1
I0428 20:08:47.125003 31483 net.cpp:86] Creating Layer pool1
I0428 20:08:47.125017 31483 net.cpp:408] pool1 <- conv1
I0428 20:08:47.125022 31483 net.cpp:382] pool1 -> pool1
I0428 20:08:47.125066 31483 net.cpp:124] Setting up pool1
I0428 20:08:47.125072 31483 net.cpp:131] Top shape: 100 25 4 4 (40000)
I0428 20:08:47.125075 31483 net.cpp:139] Memory required for data: 8314800
I0428 20:08:47.125078 31483 layer_factory.hpp:77] Creating layer ip1
I0428 20:08:47.125084 31483 net.cpp:86] Creating Layer ip1
I0428 20:08:47.125087 31483 net.cpp:408] ip1 <- pool1
I0428 20:08:47.125092 31483 net.cpp:382] ip1 -> ip1
I0428 20:08:47.125248 31483 net.cpp:124] Setting up ip1
I0428 20:08:47.125257 31483 net.cpp:131] Top shape: 100 10 (1000)
I0428 20:08:47.125260 31483 net.cpp:139] Memory required for data: 8318800
I0428 20:08:47.125267 31483 layer_factory.hpp:77] Creating layer relu1
I0428 20:08:47.125272 31483 net.cpp:86] Creating Layer relu1
I0428 20:08:47.125277 31483 net.cpp:408] relu1 <- ip1
I0428 20:08:47.125280 31483 net.cpp:369] relu1 -> ip1 (in-place)
I0428 20:08:47.126008 31483 net.cpp:124] Setting up relu1
I0428 20:08:47.126019 31483 net.cpp:131] Top shape: 100 10 (1000)
I0428 20:08:47.126039 31483 net.cpp:139] Memory required for data: 8322800
I0428 20:08:47.126042 31483 layer_factory.hpp:77] Creating layer ip1_relu1_0_split
I0428 20:08:47.126049 31483 net.cpp:86] Creating Layer ip1_relu1_0_split
I0428 20:08:47.126052 31483 net.cpp:408] ip1_relu1_0_split <- ip1
I0428 20:08:47.126058 31483 net.cpp:382] ip1_relu1_0_split -> ip1_relu1_0_split_0
I0428 20:08:47.126065 31483 net.cpp:382] ip1_relu1_0_split -> ip1_relu1_0_split_1
I0428 20:08:47.126106 31483 net.cpp:124] Setting up ip1_relu1_0_split
I0428 20:08:47.126111 31483 net.cpp:131] Top shape: 100 10 (1000)
I0428 20:08:47.126114 31483 net.cpp:131] Top shape: 100 10 (1000)
I0428 20:08:47.126117 31483 net.cpp:139] Memory required for data: 8330800
I0428 20:08:47.126121 31483 layer_factory.hpp:77] Creating layer accuracy
I0428 20:08:47.126129 31483 net.cpp:86] Creating Layer accuracy
I0428 20:08:47.126132 31483 net.cpp:408] accuracy <- ip1_relu1_0_split_0
I0428 20:08:47.126137 31483 net.cpp:408] accuracy <- label_mnist_1_split_0
I0428 20:08:47.126142 31483 net.cpp:382] accuracy -> accuracy
…
