…
I0428 20:04:03.706338 30312 net.cpp:296] The NetState phase (0) differed from the phase (1) specified by a rule in layer mnist
I0428 20:04:03.706354 30312 net.cpp:296] The NetState phase (0) differed from the phase (1) specified by a rule in layer accuracy
I0428 20:04:03.706434 30312 net.cpp:53] Initializing net from parameters: 
name: "LeNet"
state {
  phase: TRAIN
  level: 0
  stage: ""
}
layer {
  name: "mnist"
  type: "Data"
  top: "data"
  top: "label"
  include {
    phase: TRAIN
  }
  transform_param {
    scale: 0.00390625
  }
  data_param {
    source: "examples/mnist/mnist_train_lmdb"
    batch_size: 64
    backend: LMDB
  }
}
layer {
  name: "conv0"
  type: "Convolution"
  bottom: "data"
  top: "conv0"
  param {
    lr_mult: 1
  }
  param {
    lr_mult: 2
  }
  convolution_param {
    num_output: 10
    kernel_size: 5
    stride: 1
    weight_filler {
      type: "xavier"
    }
    bias_filler {
      type: "constant"
    }
  }
}
layer {
  name: "pool0"
  type: "Pooling"
  bottom: "conv0"
  top: "pool0"
  pooling_param {
    pool: MAX
    kernel_size: 2
    stride: 2
  }
}
layer {
  name: "conv1"
  type: "Convolution"
  bottom: "pool0"
  top: "conv1"
  param {
    lr_mult: 1
  }
  param {
    lr_mult: 2
  }
  convolution_param {
    num_output: 100
    kernel_size: 5
    stride: 1
    weight_filler {
      type: "xavier"
    }
    bias_filler {
      type: "constant"
    }
  }
}
layer {
  name: "pool1"
  type: "Pooling"
  bottom: "conv1"
  top: "pool1"
  pooling_param {
    pool: MAX
    kernel_size: 2
    stride: 2
  }
}
layer {
  name: "ip1"
  type: "InnerProduct"
  bottom: "pool1"
  top: "ip1"
  param {
    lr_mult: 1
  }
  param {
    lr_mult: 2
  }
  inner_product_param {
    num_output: 25
    weight_filler {
      type: "xavier"
    }
    bias_filler {
      type: "constant"
    }
  }
}
layer {
  name: "relu1"
  type: "ReLU"
  bottom: "ip1"
  top: "ip1"
}
layer {
  name: "ip2"
  type: "InnerProduct"
  bottom: "ip1"
  top: "ip2"
  param {
    lr_mult: 1
  }
  param {
    lr_mult: 2
  }
  inner_product_param {
    num_output: 50
    weight_filler {
      type: "xavier"
    }
    bias_filler {
      type: "constant"
    }
  }
}
layer {
  name: "relu2"
  type: "ReLU"
  bottom: "ip2"
  top: "ip2"
}
layer {
  name: "ip3"
  type: "InnerProduct"
  bottom: "ip2"
  top: "ip3"
  param {
    lr_mult: 1
  }
  param {
    lr_mult: 2
  }
  inner_product_param {
    num_output: 10
    weight_filler {
      type: "xavier"
    }
    bias_filler {
      type: "constant"
    }
  }
}
layer {
  name: "relu3"
  type: "ReLU"
  bottom: "ip3"
  top: "ip3"
}
layer {
  name: "loss"
  type: "SoftmaxWithLoss"
  bottom: "ip3"
  bottom: "label"
  top: "loss"
}
I0428 20:04:03.706497 30312 layer_factory.hpp:77] Creating layer mnist
I0428 20:04:03.706578 30312 db_lmdb.cpp:35] Opened lmdb examples/mnist/mnist_train_lmdb
I0428 20:04:03.706596 30312 net.cpp:86] Creating Layer mnist
I0428 20:04:03.706604 30312 net.cpp:382] mnist -> data
I0428 20:04:03.706621 30312 net.cpp:382] mnist -> label
I0428 20:04:03.707619 30312 data_layer.cpp:45] output data size: 64,1,28,28
I0428 20:04:03.709818 30312 net.cpp:124] Setting up mnist
I0428 20:04:03.709847 30312 net.cpp:131] Top shape: 64 1 28 28 (50176)
I0428 20:04:03.709853 30312 net.cpp:131] Top shape: 64 (64)
I0428 20:04:03.709856 30312 net.cpp:139] Memory required for data: 200960
I0428 20:04:03.709861 30312 layer_factory.hpp:77] Creating layer conv0
I0428 20:04:03.709873 30312 net.cpp:86] Creating Layer conv0
I0428 20:04:03.709888 30312 net.cpp:408] conv0 <- data
I0428 20:04:03.709899 30312 net.cpp:382] conv0 -> conv0
I0428 20:04:03.935456 30312 net.cpp:124] Setting up conv0
I0428 20:04:03.935518 30312 net.cpp:131] Top shape: 64 10 24 24 (368640)
I0428 20:04:03.935523 30312 net.cpp:139] Memory required for data: 1675520
I0428 20:04:03.935537 30312 layer_factory.hpp:77] Creating layer pool0
I0428 20:04:03.935550 30312 net.cpp:86] Creating Layer pool0
I0428 20:04:03.935554 30312 net.cpp:408] pool0 <- conv0
I0428 20:04:03.935575 30312 net.cpp:382] pool0 -> pool0
I0428 20:04:03.935622 30312 net.cpp:124] Setting up pool0
I0428 20:04:03.935639 30312 net.cpp:131] Top shape: 64 10 12 12 (92160)
I0428 20:04:03.935642 30312 net.cpp:139] Memory required for data: 2044160
I0428 20:04:03.935645 30312 layer_factory.hpp:77] Creating layer conv1
I0428 20:04:03.935657 30312 net.cpp:86] Creating Layer conv1
I0428 20:04:03.935659 30312 net.cpp:408] conv1 <- pool0
I0428 20:04:03.935664 30312 net.cpp:382] conv1 -> conv1
I0428 20:04:03.937784 30312 net.cpp:124] Setting up conv1
I0428 20:04:03.937814 30312 net.cpp:131] Top shape: 64 100 8 8 (409600)
I0428 20:04:03.937819 30312 net.cpp:139] Memory required for data: 3682560
I0428 20:04:03.937826 30312 layer_factory.hpp:77] Creating layer pool1
I0428 20:04:03.937849 30312 net.cpp:86] Creating Layer pool1
I0428 20:04:03.937852 30312 net.cpp:408] pool1 <- conv1
I0428 20:04:03.937856 30312 net.cpp:382] pool1 -> pool1
I0428 20:04:03.937908 30312 net.cpp:124] Setting up pool1
I0428 20:04:03.937913 30312 net.cpp:131] Top shape: 64 100 4 4 (102400)
I0428 20:04:03.937916 30312 net.cpp:139] Memory required for data: 4092160
I0428 20:04:03.937919 30312 layer_factory.hpp:77] Creating layer ip1
I0428 20:04:03.937927 30312 net.cpp:86] Creating Layer ip1
I0428 20:04:03.937928 30312 net.cpp:408] ip1 <- pool1
I0428 20:04:03.937933 30312 net.cpp:382] ip1 -> ip1
I0428 20:04:03.938292 30312 net.cpp:124] Setting up ip1
I0428 20:04:03.938299 30312 net.cpp:131] Top shape: 64 25 (1600)
I0428 20:04:03.938318 30312 net.cpp:139] Memory required for data: 4098560
I0428 20:04:03.938325 30312 layer_factory.hpp:77] Creating layer relu1
I0428 20:04:03.938331 30312 net.cpp:86] Creating Layer relu1
I0428 20:04:03.938335 30312 net.cpp:408] relu1 <- ip1
I0428 20:04:03.938339 30312 net.cpp:369] relu1 -> ip1 (in-place)
I0428 20:04:03.938518 30312 net.cpp:124] Setting up relu1
I0428 20:04:03.938525 30312 net.cpp:131] Top shape: 64 25 (1600)
I0428 20:04:03.938529 30312 net.cpp:139] Memory required for data: 4104960
I0428 20:04:03.938532 30312 layer_factory.hpp:77] Creating layer ip2
I0428 20:04:03.938539 30312 net.cpp:86] Creating Layer ip2
I0428 20:04:03.938541 30312 net.cpp:408] ip2 <- ip1
I0428 20:04:03.938545 30312 net.cpp:382] ip2 -> ip2
I0428 20:04:03.939548 30312 net.cpp:124] Setting up ip2
I0428 20:04:03.939560 30312 net.cpp:131] Top shape: 64 50 (3200)
I0428 20:04:03.939579 30312 net.cpp:139] Memory required for data: 4117760
I0428 20:04:03.939585 30312 layer_factory.hpp:77] Creating layer relu2
I0428 20:04:03.939592 30312 net.cpp:86] Creating Layer relu2
I0428 20:04:03.939595 30312 net.cpp:408] relu2 <- ip2
I0428 20:04:03.939600 30312 net.cpp:369] relu2 -> ip2 (in-place)
I0428 20:04:03.940382 30312 net.cpp:124] Setting up relu2
I0428 20:04:03.940394 30312 net.cpp:131] Top shape: 64 50 (3200)
I0428 20:04:03.940414 30312 net.cpp:139] Memory required for data: 4130560
I0428 20:04:03.940418 30312 layer_factory.hpp:77] Creating layer ip3
I0428 20:04:03.940440 30312 net.cpp:86] Creating Layer ip3
I0428 20:04:03.940459 30312 net.cpp:408] ip3 <- ip2
I0428 20:04:03.940464 30312 net.cpp:382] ip3 -> ip3
I0428 20:04:03.940564 30312 net.cpp:124] Setting up ip3
I0428 20:04:03.940572 30312 net.cpp:131] Top shape: 64 10 (640)
I0428 20:04:03.940575 30312 net.cpp:139] Memory required for data: 4133120
I0428 20:04:03.940582 30312 layer_factory.hpp:77] Creating layer relu3
I0428 20:04:03.940588 30312 net.cpp:86] Creating Layer relu3
I0428 20:04:03.940592 30312 net.cpp:408] relu3 <- ip3
I0428 20:04:03.940595 30312 net.cpp:369] relu3 -> ip3 (in-place)
I0428 20:04:03.940755 30312 net.cpp:124] Setting up relu3
I0428 20:04:03.940764 30312 net.cpp:131] Top shape: 64 10 (640)
I0428 20:04:03.940768 30312 net.cpp:139] Memory required for data: 4135680
I0428 20:04:03.940770 30312 layer_factory.hpp:77] Creating layer loss
I0428 20:04:03.940776 30312 net.cpp:86] Creating Layer loss
I0428 20:04:03.940783 30312 net.cpp:408] loss <- ip3
I0428 20:04:03.940788 30312 net.cpp:408] loss <- label
I0428 20:04:03.940795 30312 net.cpp:382] loss -> loss
I0428 20:04:03.940830 30312 layer_factory.hpp:77] Creating layer loss
…
I0428 20:04:03.941563 30312 solver.cpp:173] Creating test net (#0) specified by net file: ECE595/mnist/train_test/var_everything2/lenet_train_test964.prototxt
I0428 20:04:03.941617 30312 net.cpp:296] The NetState phase (1) differed from the phase (0) specified by a rule in layer mnist
I0428 20:04:03.941704 30312 net.cpp:53] Initializing net from parameters: 
name: "LeNet"
state {
  phase: TEST
}
layer {
  name: "mnist"
  type: "Data"
  top: "data"
  top: "label"
  include {
    phase: TEST
  }
  transform_param {
    scale: 0.00390625
  }
  data_param {
    source: "examples/mnist/mnist_test_lmdb"
    batch_size: 100
    backend: LMDB
  }
}
layer {
  name: "conv0"
  type: "Convolution"
  bottom: "data"
  top: "conv0"
  param {
    lr_mult: 1
  }
  param {
    lr_mult: 2
  }
  convolution_param {
    num_output: 10
    kernel_size: 5
    stride: 1
    weight_filler {
      type: "xavier"
    }
    bias_filler {
      type: "constant"
    }
  }
}
layer {
  name: "pool0"
  type: "Pooling"
  bottom: "conv0"
  top: "pool0"
  pooling_param {
    pool: MAX
    kernel_size: 2
    stride: 2
  }
}
layer {
  name: "conv1"
  type: "Convolution"
  bottom: "pool0"
  top: "conv1"
  param {
    lr_mult: 1
  }
  param {
    lr_mult: 2
  }
  convolution_param {
    num_output: 100
    kernel_size: 5
    stride: 1
    weight_filler {
      type: "xavier"
    }
    bias_filler {
      type: "constant"
    }
  }
}
layer {
  name: "pool1"
  type: "Pooling"
  bottom: "conv1"
  top: "pool1"
  pooling_param {
    pool: MAX
    kernel_size: 2
    stride: 2
  }
}
layer {
  name: "ip1"
  type: "InnerProduct"
  bottom: "pool1"
  top: "ip1"
  param {
    lr_mult: 1
  }
  param {
    lr_mult: 2
  }
  inner_product_param {
    num_output: 25
    weight_filler {
      type: "xavier"
    }
    bias_filler {
      type: "constant"
    }
  }
}
layer {
  name: "relu1"
  type: "ReLU"
  bottom: "ip1"
  top: "ip1"
}
layer {
  name: "ip2"
  type: "InnerProduct"
  bottom: "ip1"
  top: "ip2"
  param {
    lr_mult: 1
  }
  param {
    lr_mult: 2
  }
  inner_product_param {
    num_output: 50
    weight_filler {
      type: "xavier"
    }
    bias_filler {
      type: "constant"
    }
  }
}
layer {
  name: "relu2"
  type: "ReLU"
  bottom: "ip2"
  top: "ip2"
}
layer {
  name: "ip3"
  type: "InnerProduct"
  bottom: "ip2"
  top: "ip3"
  param {
    lr_mult: 1
  }
  param {
    lr_mult: 2
  }
  inner_product_param {
    num_output: 10
    weight_filler {
      type: "xavier"
    }
    bias_filler {
      type: "constant"
    }
  }
}
layer {
  name: "relu3"
  type: "ReLU"
  bottom: "ip3"
  top: "ip3"
}
layer {
  name: "accuracy"
  type: "Accuracy"
  bottom: "ip3"
  bottom: "label"
  top: "accuracy"
  include {
    phase: TEST
  }
}
layer {
  name: "loss"
  type: "SoftmaxWithLoss"
  bottom: "ip3"
  bottom: "label"
  top: "loss"
}
I0428 20:04:03.941782 30312 layer_factory.hpp:77] Creating layer mnist
I0428 20:04:03.941824 30312 db_lmdb.cpp:35] Opened lmdb examples/mnist/mnist_test_lmdb
I0428 20:04:03.941840 30312 net.cpp:86] Creating Layer mnist
I0428 20:04:03.941848 30312 net.cpp:382] mnist -> data
I0428 20:04:03.941859 30312 net.cpp:382] mnist -> label
I0428 20:04:03.941962 30312 data_layer.cpp:45] output data size: 100,1,28,28
I0428 20:04:03.944149 30312 net.cpp:124] Setting up mnist
I0428 20:04:03.944178 30312 net.cpp:131] Top shape: 100 1 28 28 (78400)
I0428 20:04:03.944185 30312 net.cpp:131] Top shape: 100 (100)
I0428 20:04:03.944187 30312 net.cpp:139] Memory required for data: 314000
I0428 20:04:03.944191 30312 layer_factory.hpp:77] Creating layer label_mnist_1_split
I0428 20:04:03.944198 30312 net.cpp:86] Creating Layer label_mnist_1_split
I0428 20:04:03.944202 30312 net.cpp:408] label_mnist_1_split <- label
I0428 20:04:03.944207 30312 net.cpp:382] label_mnist_1_split -> label_mnist_1_split_0
I0428 20:04:03.944214 30312 net.cpp:382] label_mnist_1_split -> label_mnist_1_split_1
I0428 20:04:03.944272 30312 net.cpp:124] Setting up label_mnist_1_split
I0428 20:04:03.944293 30312 net.cpp:131] Top shape: 100 (100)
I0428 20:04:03.944295 30312 net.cpp:131] Top shape: 100 (100)
I0428 20:04:03.944298 30312 net.cpp:139] Memory required for data: 314800
I0428 20:04:03.944301 30312 layer_factory.hpp:77] Creating layer conv0
I0428 20:04:03.944310 30312 net.cpp:86] Creating Layer conv0
I0428 20:04:03.944314 30312 net.cpp:408] conv0 <- data
I0428 20:04:03.944319 30312 net.cpp:382] conv0 -> conv0
I0428 20:04:03.946063 30312 net.cpp:124] Setting up conv0
I0428 20:04:03.946080 30312 net.cpp:131] Top shape: 100 10 24 24 (576000)
I0428 20:04:03.946085 30312 net.cpp:139] Memory required for data: 2618800
I0428 20:04:03.946094 30312 layer_factory.hpp:77] Creating layer pool0
I0428 20:04:03.946100 30312 net.cpp:86] Creating Layer pool0
I0428 20:04:03.946105 30312 net.cpp:408] pool0 <- conv0
I0428 20:04:03.946110 30312 net.cpp:382] pool0 -> pool0
I0428 20:04:03.946146 30312 net.cpp:124] Setting up pool0
I0428 20:04:03.946151 30312 net.cpp:131] Top shape: 100 10 12 12 (144000)
I0428 20:04:03.946154 30312 net.cpp:139] Memory required for data: 3194800
I0428 20:04:03.946157 30312 layer_factory.hpp:77] Creating layer conv1
I0428 20:04:03.946166 30312 net.cpp:86] Creating Layer conv1
I0428 20:04:03.946168 30312 net.cpp:408] conv1 <- pool0
I0428 20:04:03.946173 30312 net.cpp:382] conv1 -> conv1
I0428 20:04:03.947988 30312 net.cpp:124] Setting up conv1
I0428 20:04:03.948002 30312 net.cpp:131] Top shape: 100 100 8 8 (640000)
I0428 20:04:03.948006 30312 net.cpp:139] Memory required for data: 5754800
I0428 20:04:03.948017 30312 layer_factory.hpp:77] Creating layer pool1
I0428 20:04:03.948024 30312 net.cpp:86] Creating Layer pool1
I0428 20:04:03.948027 30312 net.cpp:408] pool1 <- conv1
I0428 20:04:03.948034 30312 net.cpp:382] pool1 -> pool1
I0428 20:04:03.948081 30312 net.cpp:124] Setting up pool1
I0428 20:04:03.948086 30312 net.cpp:131] Top shape: 100 100 4 4 (160000)
I0428 20:04:03.948089 30312 net.cpp:139] Memory required for data: 6394800
I0428 20:04:03.948092 30312 layer_factory.hpp:77] Creating layer ip1
I0428 20:04:03.948099 30312 net.cpp:86] Creating Layer ip1
I0428 20:04:03.948102 30312 net.cpp:408] ip1 <- pool1
I0428 20:04:03.948108 30312 net.cpp:382] ip1 -> ip1
I0428 20:04:03.948467 30312 net.cpp:124] Setting up ip1
I0428 20:04:03.948475 30312 net.cpp:131] Top shape: 100 25 (2500)
I0428 20:04:03.948488 30312 net.cpp:139] Memory required for data: 6404800
I0428 20:04:03.948498 30312 layer_factory.hpp:77] Creating layer relu1
I0428 20:04:03.948504 30312 net.cpp:86] Creating Layer relu1
I0428 20:04:03.948508 30312 net.cpp:408] relu1 <- ip1
I0428 20:04:03.948513 30312 net.cpp:369] relu1 -> ip1 (in-place)
I0428 20:04:03.948695 30312 net.cpp:124] Setting up relu1
I0428 20:04:03.948704 30312 net.cpp:131] Top shape: 100 25 (2500)
I0428 20:04:03.948706 30312 net.cpp:139] Memory required for data: 6414800
I0428 20:04:03.948710 30312 layer_factory.hpp:77] Creating layer ip2
I0428 20:04:03.948719 30312 net.cpp:86] Creating Layer ip2
I0428 20:04:03.948721 30312 net.cpp:408] ip2 <- ip1
I0428 20:04:03.948727 30312 net.cpp:382] ip2 -> ip2
I0428 20:04:03.948863 30312 net.cpp:124] Setting up ip2
I0428 20:04:03.948870 30312 net.cpp:131] Top shape: 100 50 (5000)
I0428 20:04:03.948873 30312 net.cpp:139] Memory required for data: 6434800
I0428 20:04:03.948879 30312 layer_factory.hpp:77] Creating layer relu2
I0428 20:04:03.948885 30312 net.cpp:86] Creating Layer relu2
I0428 20:04:03.948889 30312 net.cpp:408] relu2 <- ip2
I0428 20:04:03.948892 30312 net.cpp:369] relu2 -> ip2 (in-place)
I0428 20:04:03.949138 30312 net.cpp:124] Setting up relu2
I0428 20:04:03.949147 30312 net.cpp:131] Top shape: 100 50 (5000)
I0428 20:04:03.949156 30312 net.cpp:139] Memory required for data: 6454800
I0428 20:04:03.949159 30312 layer_factory.hpp:77] Creating layer ip3
I0428 20:04:03.949167 30312 net.cpp:86] Creating Layer ip3
I0428 20:04:03.949175 30312 net.cpp:408] ip3 <- ip2
I0428 20:04:03.949182 30312 net.cpp:382] ip3 -> ip3
I0428 20:04:03.949301 30312 net.cpp:124] Setting up ip3
I0428 20:04:03.949309 30312 net.cpp:131] Top shape: 100 10 (1000)
I0428 20:04:03.949312 30312 net.cpp:139] Memory required for data: 6458800
I0428 20:04:03.949321 30312 layer_factory.hpp:77] Creating layer relu3
I0428 20:04:03.949326 30312 net.cpp:86] Creating Layer relu3
I0428 20:04:03.949328 30312 net.cpp:408] relu3 <- ip3
I0428 20:04:03.949333 30312 net.cpp:369] relu3 -> ip3 (in-place)
I0428 20:04:03.950155 30312 net.cpp:124] Setting up relu3
I0428 20:04:03.950167 30312 net.cpp:131] Top shape: 100 10 (1000)
I0428 20:04:03.950186 30312 net.cpp:139] Memory required for data: 6462800
I0428 20:04:03.950191 30312 layer_factory.hpp:77] Creating layer ip3_relu3_0_split
I0428 20:04:03.950196 30312 net.cpp:86] Creating Layer ip3_relu3_0_split
I0428 20:04:03.950199 30312 net.cpp:408] ip3_relu3_0_split <- ip3
I0428 20:04:03.950207 30312 net.cpp:382] ip3_relu3_0_split -> ip3_relu3_0_split_0
I0428 20:04:03.950214 30312 net.cpp:382] ip3_relu3_0_split -> ip3_relu3_0_split_1
I0428 20:04:03.950260 30312 net.cpp:124] Setting up ip3_relu3_0_split
I0428 20:04:03.950266 30312 net.cpp:131] Top shape: 100 10 (1000)
I0428 20:04:03.950271 30312 net.cpp:131] Top shape: 100 10 (1000)
I0428 20:04:03.950274 30312 net.cpp:139] Memory required for data: 6470800
I0428 20:04:03.950278 30312 layer_factory.hpp:77] Creating layer accuracy
I0428 20:04:03.950289 30312 net.cpp:86] Creating Layer accuracy
I0428 20:04:03.950294 30312 net.cpp:408] accuracy <- ip3_relu3_0_split_0
I0428 20:04:03.950297 30312 net.cpp:408] accuracy <- label_mnist_1_split_0
I0428 20:04:03.950304 30312 net.cpp:382] accuracy -> accuracy
…
