…
I0428 19:32:58.112002 22996 net.cpp:296] The NetState phase (0) differed from the phase (1) specified by a rule in layer mnist
I0428 19:32:58.112023 22996 net.cpp:296] The NetState phase (0) differed from the phase (1) specified by a rule in layer accuracy
I0428 19:32:58.112110 22996 net.cpp:53] Initializing net from parameters: 
name: "LeNet"
state {
  phase: TRAIN
  level: 0
  stage: ""
}
layer {
  name: "mnist"
  type: "Data"
  top: "data"
  top: "label"
  include {
    phase: TRAIN
  }
  transform_param {
    scale: 0.00390625
  }
  data_param {
    source: "examples/mnist/mnist_train_lmdb"
    batch_size: 64
    backend: LMDB
  }
}
layer {
  name: "conv0"
  type: "Convolution"
  bottom: "data"
  top: "conv0"
  param {
    lr_mult: 1
  }
  param {
    lr_mult: 2
  }
  convolution_param {
    num_output: 25
    kernel_size: 5
    stride: 1
    weight_filler {
      type: "xavier"
    }
    bias_filler {
      type: "constant"
    }
  }
}
layer {
  name: "pool0"
  type: "Pooling"
  bottom: "conv0"
  top: "pool0"
  pooling_param {
    pool: MAX
    kernel_size: 2
    stride: 2
  }
}
layer {
  name: "ip1"
  type: "InnerProduct"
  bottom: "pool0"
  top: "ip1"
  param {
    lr_mult: 1
  }
  param {
    lr_mult: 2
  }
  inner_product_param {
    num_output: 50
    weight_filler {
      type: "xavier"
    }
    bias_filler {
      type: "constant"
    }
  }
}
layer {
  name: "relu1"
  type: "ReLU"
  bottom: "ip1"
  top: "ip1"
}
layer {
  name: "ip2"
  type: "InnerProduct"
  bottom: "ip1"
  top: "ip2"
  param {
    lr_mult: 1
  }
  param {
    lr_mult: 2
  }
  inner_product_param {
    num_output: 10
    weight_filler {
      type: "xavier"
    }
    bias_filler {
      type: "constant"
    }
  }
}
layer {
  name: "relu2"
  type: "ReLU"
  bottom: "ip2"
  top: "ip2"
}
layer {
  name: "loss"
  type: "SoftmaxWithLoss"
  bottom: "ip2"
  bottom: "label"
  top: "loss"
}
I0428 19:32:58.112208 22996 layer_factory.hpp:77] Creating layer mnist
I0428 19:32:58.112341 22996 db_lmdb.cpp:35] Opened lmdb examples/mnist/mnist_train_lmdb
I0428 19:32:58.112378 22996 net.cpp:86] Creating Layer mnist
I0428 19:32:58.112391 22996 net.cpp:382] mnist -> data
I0428 19:32:58.112422 22996 net.cpp:382] mnist -> label
I0428 19:32:58.113627 22996 data_layer.cpp:45] output data size: 64,1,28,28
I0428 19:32:58.116313 22996 net.cpp:124] Setting up mnist
I0428 19:32:58.116338 22996 net.cpp:131] Top shape: 64 1 28 28 (50176)
I0428 19:32:58.116349 22996 net.cpp:131] Top shape: 64 (64)
I0428 19:32:58.116355 22996 net.cpp:139] Memory required for data: 200960
I0428 19:32:58.116366 22996 layer_factory.hpp:77] Creating layer conv0
I0428 19:32:58.116392 22996 net.cpp:86] Creating Layer conv0
I0428 19:32:58.116405 22996 net.cpp:408] conv0 <- data
I0428 19:32:58.116423 22996 net.cpp:382] conv0 -> conv0
I0428 19:32:58.401590 22996 net.cpp:124] Setting up conv0
I0428 19:32:58.401621 22996 net.cpp:131] Top shape: 64 25 24 24 (921600)
I0428 19:32:58.401628 22996 net.cpp:139] Memory required for data: 3887360
I0428 19:32:58.401648 22996 layer_factory.hpp:77] Creating layer pool0
I0428 19:32:58.401666 22996 net.cpp:86] Creating Layer pool0
I0428 19:32:58.401680 22996 net.cpp:408] pool0 <- conv0
I0428 19:32:58.401690 22996 net.cpp:382] pool0 -> pool0
I0428 19:32:58.401746 22996 net.cpp:124] Setting up pool0
I0428 19:32:58.401756 22996 net.cpp:131] Top shape: 64 25 12 12 (230400)
I0428 19:32:58.401760 22996 net.cpp:139] Memory required for data: 4808960
I0428 19:32:58.401784 22996 layer_factory.hpp:77] Creating layer ip1
I0428 19:32:58.401796 22996 net.cpp:86] Creating Layer ip1
I0428 19:32:58.401803 22996 net.cpp:408] ip1 <- pool0
I0428 19:32:58.401811 22996 net.cpp:382] ip1 -> ip1
I0428 19:32:58.403733 22996 net.cpp:124] Setting up ip1
I0428 19:32:58.403750 22996 net.cpp:131] Top shape: 64 50 (3200)
I0428 19:32:58.403758 22996 net.cpp:139] Memory required for data: 4821760
I0428 19:32:58.403769 22996 layer_factory.hpp:77] Creating layer relu1
I0428 19:32:58.403780 22996 net.cpp:86] Creating Layer relu1
I0428 19:32:58.403791 22996 net.cpp:408] relu1 <- ip1
I0428 19:32:58.403798 22996 net.cpp:369] relu1 -> ip1 (in-place)
I0428 19:32:58.403972 22996 net.cpp:124] Setting up relu1
I0428 19:32:58.403983 22996 net.cpp:131] Top shape: 64 50 (3200)
I0428 19:32:58.403990 22996 net.cpp:139] Memory required for data: 4834560
I0428 19:32:58.403995 22996 layer_factory.hpp:77] Creating layer ip2
I0428 19:32:58.404005 22996 net.cpp:86] Creating Layer ip2
I0428 19:32:58.404011 22996 net.cpp:408] ip2 <- ip1
I0428 19:32:58.404018 22996 net.cpp:382] ip2 -> ip2
I0428 19:32:58.404121 22996 net.cpp:124] Setting up ip2
I0428 19:32:58.404131 22996 net.cpp:131] Top shape: 64 10 (640)
I0428 19:32:58.404136 22996 net.cpp:139] Memory required for data: 4837120
I0428 19:32:58.404147 22996 layer_factory.hpp:77] Creating layer relu2
I0428 19:32:58.404156 22996 net.cpp:86] Creating Layer relu2
I0428 19:32:58.404161 22996 net.cpp:408] relu2 <- ip2
I0428 19:32:58.404168 22996 net.cpp:369] relu2 -> ip2 (in-place)
I0428 19:32:58.404943 22996 net.cpp:124] Setting up relu2
I0428 19:32:58.404958 22996 net.cpp:131] Top shape: 64 10 (640)
I0428 19:32:58.404964 22996 net.cpp:139] Memory required for data: 4839680
I0428 19:32:58.404970 22996 layer_factory.hpp:77] Creating layer loss
I0428 19:32:58.404979 22996 net.cpp:86] Creating Layer loss
I0428 19:32:58.404985 22996 net.cpp:408] loss <- ip2
I0428 19:32:58.404994 22996 net.cpp:408] loss <- label
I0428 19:32:58.405002 22996 net.cpp:382] loss -> loss
I0428 19:32:58.405023 22996 layer_factory.hpp:77] Creating layer loss
…
I0428 19:32:58.405625 22996 solver.cpp:173] Creating test net (#0) specified by net file: ECE595/mnist/train_test/var_everything2/lenet_train_test167.prototxt
I0428 19:32:58.405656 22996 net.cpp:296] The NetState phase (1) differed from the phase (0) specified by a rule in layer mnist
I0428 19:32:58.405735 22996 net.cpp:53] Initializing net from parameters: 
name: "LeNet"
state {
  phase: TEST
}
layer {
  name: "mnist"
  type: "Data"
  top: "data"
  top: "label"
  include {
    phase: TEST
  }
  transform_param {
    scale: 0.00390625
  }
  data_param {
    source: "examples/mnist/mnist_test_lmdb"
    batch_size: 100
    backend: LMDB
  }
}
layer {
  name: "conv0"
  type: "Convolution"
  bottom: "data"
  top: "conv0"
  param {
    lr_mult: 1
  }
  param {
    lr_mult: 2
  }
  convolution_param {
    num_output: 25
    kernel_size: 5
    stride: 1
    weight_filler {
      type: "xavier"
    }
    bias_filler {
      type: "constant"
    }
  }
}
layer {
  name: "pool0"
  type: "Pooling"
  bottom: "conv0"
  top: "pool0"
  pooling_param {
    pool: MAX
    kernel_size: 2
    stride: 2
  }
}
layer {
  name: "ip1"
  type: "InnerProduct"
  bottom: "pool0"
  top: "ip1"
  param {
    lr_mult: 1
  }
  param {
    lr_mult: 2
  }
  inner_product_param {
    num_output: 50
    weight_filler {
      type: "xavier"
    }
    bias_filler {
      type: "constant"
    }
  }
}
layer {
  name: "relu1"
  type: "ReLU"
  bottom: "ip1"
  top: "ip1"
}
layer {
  name: "ip2"
  type: "InnerProduct"
  bottom: "ip1"
  top: "ip2"
  param {
    lr_mult: 1
  }
  param {
    lr_mult: 2
  }
  inner_product_param {
    num_output: 10
    weight_filler {
      type: "xavier"
    }
    bias_filler {
      type: "constant"
    }
  }
}
layer {
  name: "relu2"
  type: "ReLU"
  bottom: "ip2"
  top: "ip2"
}
layer {
  name: "accuracy"
  type: "Accuracy"
  bottom: "ip2"
  bottom: "label"
  top: "accuracy"
  include {
    phase: TEST
  }
}
layer {
  name: "loss"
  type: "SoftmaxWithLoss"
  bottom: "ip2"
  bottom: "label"
  top: "loss"
}
I0428 19:32:58.405833 22996 layer_factory.hpp:77] Creating layer mnist
I0428 19:32:58.405892 22996 db_lmdb.cpp:35] Opened lmdb examples/mnist/mnist_test_lmdb
I0428 19:32:58.405910 22996 net.cpp:86] Creating Layer mnist
I0428 19:32:58.405916 22996 net.cpp:382] mnist -> data
I0428 19:32:58.405928 22996 net.cpp:382] mnist -> label
I0428 19:32:58.406044 22996 data_layer.cpp:45] output data size: 100,1,28,28
I0428 19:32:58.407141 22996 net.cpp:124] Setting up mnist
I0428 19:32:58.407157 22996 net.cpp:131] Top shape: 100 1 28 28 (78400)
I0428 19:32:58.407166 22996 net.cpp:131] Top shape: 100 (100)
I0428 19:32:58.407171 22996 net.cpp:139] Memory required for data: 314000
I0428 19:32:58.407176 22996 layer_factory.hpp:77] Creating layer label_mnist_1_split
I0428 19:32:58.407186 22996 net.cpp:86] Creating Layer label_mnist_1_split
I0428 19:32:58.407191 22996 net.cpp:408] label_mnist_1_split <- label
I0428 19:32:58.407199 22996 net.cpp:382] label_mnist_1_split -> label_mnist_1_split_0
I0428 19:32:58.407209 22996 net.cpp:382] label_mnist_1_split -> label_mnist_1_split_1
I0428 19:32:58.407258 22996 net.cpp:124] Setting up label_mnist_1_split
I0428 19:32:58.407268 22996 net.cpp:131] Top shape: 100 (100)
I0428 19:32:58.407274 22996 net.cpp:131] Top shape: 100 (100)
I0428 19:32:58.407279 22996 net.cpp:139] Memory required for data: 314800
I0428 19:32:58.407284 22996 layer_factory.hpp:77] Creating layer conv0
I0428 19:32:58.407297 22996 net.cpp:86] Creating Layer conv0
I0428 19:32:58.407305 22996 net.cpp:408] conv0 <- data
I0428 19:32:58.407315 22996 net.cpp:382] conv0 -> conv0
I0428 19:32:58.408924 22996 net.cpp:124] Setting up conv0
I0428 19:32:58.408941 22996 net.cpp:131] Top shape: 100 25 24 24 (1440000)
I0428 19:32:58.408947 22996 net.cpp:139] Memory required for data: 6074800
I0428 19:32:58.408977 22996 layer_factory.hpp:77] Creating layer pool0
I0428 19:32:58.408988 22996 net.cpp:86] Creating Layer pool0
I0428 19:32:58.408996 22996 net.cpp:408] pool0 <- conv0
I0428 19:32:58.409005 22996 net.cpp:382] pool0 -> pool0
I0428 19:32:58.409046 22996 net.cpp:124] Setting up pool0
I0428 19:32:58.409056 22996 net.cpp:131] Top shape: 100 25 12 12 (360000)
I0428 19:32:58.409061 22996 net.cpp:139] Memory required for data: 7514800
I0428 19:32:58.409067 22996 layer_factory.hpp:77] Creating layer ip1
I0428 19:32:58.409077 22996 net.cpp:86] Creating Layer ip1
I0428 19:32:58.409083 22996 net.cpp:408] ip1 <- pool0
I0428 19:32:58.409091 22996 net.cpp:382] ip1 -> ip1
I0428 19:32:58.411109 22996 net.cpp:124] Setting up ip1
I0428 19:32:58.411123 22996 net.cpp:131] Top shape: 100 50 (5000)
I0428 19:32:58.411129 22996 net.cpp:139] Memory required for data: 7534800
I0428 19:32:58.411157 22996 layer_factory.hpp:77] Creating layer relu1
I0428 19:32:58.411165 22996 net.cpp:86] Creating Layer relu1
I0428 19:32:58.411171 22996 net.cpp:408] relu1 <- ip1
I0428 19:32:58.411180 22996 net.cpp:369] relu1 -> ip1 (in-place)
I0428 19:32:58.411366 22996 net.cpp:124] Setting up relu1
I0428 19:32:58.411377 22996 net.cpp:131] Top shape: 100 50 (5000)
I0428 19:32:58.411396 22996 net.cpp:139] Memory required for data: 7554800
I0428 19:32:58.411403 22996 layer_factory.hpp:77] Creating layer ip2
I0428 19:32:58.411413 22996 net.cpp:86] Creating Layer ip2
I0428 19:32:58.411420 22996 net.cpp:408] ip2 <- ip1
I0428 19:32:58.411430 22996 net.cpp:382] ip2 -> ip2
I0428 19:32:58.411548 22996 net.cpp:124] Setting up ip2
I0428 19:32:58.411559 22996 net.cpp:131] Top shape: 100 10 (1000)
I0428 19:32:58.411564 22996 net.cpp:139] Memory required for data: 7558800
I0428 19:32:58.411576 22996 layer_factory.hpp:77] Creating layer relu2
I0428 19:32:58.411584 22996 net.cpp:86] Creating Layer relu2
I0428 19:32:58.411592 22996 net.cpp:408] relu2 <- ip2
I0428 19:32:58.411600 22996 net.cpp:369] relu2 -> ip2 (in-place)
I0428 19:32:58.411754 22996 net.cpp:124] Setting up relu2
I0428 19:32:58.411764 22996 net.cpp:131] Top shape: 100 10 (1000)
I0428 19:32:58.411775 22996 net.cpp:139] Memory required for data: 7562800
I0428 19:32:58.411780 22996 layer_factory.hpp:77] Creating layer ip2_relu2_0_split
I0428 19:32:58.411792 22996 net.cpp:86] Creating Layer ip2_relu2_0_split
I0428 19:32:58.411798 22996 net.cpp:408] ip2_relu2_0_split <- ip2
I0428 19:32:58.411806 22996 net.cpp:382] ip2_relu2_0_split -> ip2_relu2_0_split_0
I0428 19:32:58.411821 22996 net.cpp:382] ip2_relu2_0_split -> ip2_relu2_0_split_1
I0428 19:32:58.411877 22996 net.cpp:124] Setting up ip2_relu2_0_split
I0428 19:32:58.411886 22996 net.cpp:131] Top shape: 100 10 (1000)
I0428 19:32:58.411893 22996 net.cpp:131] Top shape: 100 10 (1000)
I0428 19:32:58.411898 22996 net.cpp:139] Memory required for data: 7570800
I0428 19:32:58.411902 22996 layer_factory.hpp:77] Creating layer accuracy
I0428 19:32:58.411911 22996 net.cpp:86] Creating Layer accuracy
I0428 19:32:58.411916 22996 net.cpp:408] accuracy <- ip2_relu2_0_split_0
I0428 19:32:58.411922 22996 net.cpp:408] accuracy <- label_mnist_1_split_0
I0428 19:32:58.411931 22996 net.cpp:382] accuracy -> accuracy
…
