…
I0428 20:08:26.626920 31381 net.cpp:296] The NetState phase (0) differed from the phase (1) specified by a rule in layer mnist
I0428 20:08:26.626950 31381 net.cpp:296] The NetState phase (0) differed from the phase (1) specified by a rule in layer accuracy
I0428 20:08:26.627045 31381 net.cpp:53] Initializing net from parameters: 
name: "LeNet"
state {
  phase: TRAIN
  level: 0
  stage: ""
}
layer {
  name: "mnist"
  type: "Data"
  top: "data"
  top: "label"
  include {
    phase: TRAIN
  }
  transform_param {
    scale: 0.00390625
  }
  data_param {
    source: "examples/mnist/mnist_train_lmdb"
    batch_size: 64
    backend: LMDB
  }
}
layer {
  name: "conv0"
  type: "Convolution"
  bottom: "data"
  top: "conv0"
  param {
    lr_mult: 1
  }
  param {
    lr_mult: 2
  }
  convolution_param {
    num_output: 25
    kernel_size: 5
    stride: 1
    weight_filler {
      type: "xavier"
    }
    bias_filler {
      type: "constant"
    }
  }
}
layer {
  name: "pool0"
  type: "Pooling"
  bottom: "conv0"
  top: "pool0"
  pooling_param {
    pool: MAX
    kernel_size: 2
    stride: 2
  }
}
layer {
  name: "conv1"
  type: "Convolution"
  bottom: "pool0"
  top: "conv1"
  param {
    lr_mult: 1
  }
  param {
    lr_mult: 2
  }
  convolution_param {
    num_output: 10
    kernel_size: 5
    stride: 1
    weight_filler {
      type: "xavier"
    }
    bias_filler {
      type: "constant"
    }
  }
}
layer {
  name: "pool1"
  type: "Pooling"
  bottom: "conv1"
  top: "pool1"
  pooling_param {
    pool: MAX
    kernel_size: 2
    stride: 2
  }
}
layer {
  name: "ip1"
  type: "InnerProduct"
  bottom: "pool1"
  top: "ip1"
  param {
    lr_mult: 1
  }
  param {
    lr_mult: 2
  }
  inner_product_param {
    num_output: 50
    weight_filler {
      type: "xavier"
    }
    bias_filler {
      type: "constant"
    }
  }
}
layer {
  name: "relu1"
  type: "ReLU"
  bottom: "ip1"
  top: "ip1"
}
layer {
  name: "ip2"
  type: "InnerProduct"
  bottom: "ip1"
  top: "ip2"
  param {
    lr_mult: 1
  }
  param {
    lr_mult: 2
  }
  inner_product_param {
    num_output: 10
    weight_filler {
      type: "xavier"
    }
    bias_filler {
      type: "constant"
    }
  }
}
layer {
  name: "relu2"
  type: "ReLU"
  bottom: "ip2"
  top: "ip2"
}
layer {
  name: "ip3"
  type: "InnerProduct"
  bottom: "ip2"
  top: "ip3"
  param {
    lr_mult: 1
  }
  param {
    lr_mult: 2
  }
  inner_product_param {
    num_output: 10
    weight_filler {
      type: "xavier"
    }
    bias_filler {
      type: "constant"
    }
  }
}
layer {
  name: "relu3"
  type: "ReLU"
  bottom: "ip3"
  top: "ip3"
}
layer {
  name: "loss"
  type: "SoftmaxWithLoss"
  bottom: "ip3"
  bottom: "label"
  top: "loss"
}
I0428 20:08:26.627117 31381 layer_factory.hpp:77] Creating layer mnist
I0428 20:08:26.627197 31381 db_lmdb.cpp:35] Opened lmdb examples/mnist/mnist_train_lmdb
I0428 20:08:26.627216 31381 net.cpp:86] Creating Layer mnist
I0428 20:08:26.627224 31381 net.cpp:382] mnist -> data
I0428 20:08:26.627241 31381 net.cpp:382] mnist -> label
I0428 20:08:26.628255 31381 data_layer.cpp:45] output data size: 64,1,28,28
I0428 20:08:26.630709 31381 net.cpp:124] Setting up mnist
I0428 20:08:26.630739 31381 net.cpp:131] Top shape: 64 1 28 28 (50176)
I0428 20:08:26.630744 31381 net.cpp:131] Top shape: 64 (64)
I0428 20:08:26.630748 31381 net.cpp:139] Memory required for data: 200960
I0428 20:08:26.630753 31381 layer_factory.hpp:77] Creating layer conv0
I0428 20:08:26.630787 31381 net.cpp:86] Creating Layer conv0
I0428 20:08:26.630805 31381 net.cpp:408] conv0 <- data
I0428 20:08:26.630815 31381 net.cpp:382] conv0 -> conv0
I0428 20:08:26.910140 31381 net.cpp:124] Setting up conv0
I0428 20:08:26.910171 31381 net.cpp:131] Top shape: 64 25 24 24 (921600)
I0428 20:08:26.910176 31381 net.cpp:139] Memory required for data: 3887360
I0428 20:08:26.910193 31381 layer_factory.hpp:77] Creating layer pool0
I0428 20:08:26.910208 31381 net.cpp:86] Creating Layer pool0
I0428 20:08:26.910213 31381 net.cpp:408] pool0 <- conv0
I0428 20:08:26.910220 31381 net.cpp:382] pool0 -> pool0
I0428 20:08:26.910275 31381 net.cpp:124] Setting up pool0
I0428 20:08:26.910282 31381 net.cpp:131] Top shape: 64 25 12 12 (230400)
I0428 20:08:26.910285 31381 net.cpp:139] Memory required for data: 4808960
I0428 20:08:26.910289 31381 layer_factory.hpp:77] Creating layer conv1
I0428 20:08:26.910302 31381 net.cpp:86] Creating Layer conv1
I0428 20:08:26.910306 31381 net.cpp:408] conv1 <- pool0
I0428 20:08:26.910313 31381 net.cpp:382] conv1 -> conv1
I0428 20:08:26.913532 31381 net.cpp:124] Setting up conv1
I0428 20:08:26.913548 31381 net.cpp:131] Top shape: 64 10 8 8 (40960)
I0428 20:08:26.913553 31381 net.cpp:139] Memory required for data: 4972800
I0428 20:08:26.913565 31381 layer_factory.hpp:77] Creating layer pool1
I0428 20:08:26.913574 31381 net.cpp:86] Creating Layer pool1
I0428 20:08:26.913580 31381 net.cpp:408] pool1 <- conv1
I0428 20:08:26.913588 31381 net.cpp:382] pool1 -> pool1
I0428 20:08:26.913632 31381 net.cpp:124] Setting up pool1
I0428 20:08:26.913640 31381 net.cpp:131] Top shape: 64 10 4 4 (10240)
I0428 20:08:26.913643 31381 net.cpp:139] Memory required for data: 5013760
I0428 20:08:26.913647 31381 layer_factory.hpp:77] Creating layer ip1
I0428 20:08:26.913655 31381 net.cpp:86] Creating Layer ip1
I0428 20:08:26.913658 31381 net.cpp:408] ip1 <- pool1
I0428 20:08:26.913666 31381 net.cpp:382] ip1 -> ip1
I0428 20:08:26.913843 31381 net.cpp:124] Setting up ip1
I0428 20:08:26.913852 31381 net.cpp:131] Top shape: 64 50 (3200)
I0428 20:08:26.913856 31381 net.cpp:139] Memory required for data: 5026560
I0428 20:08:26.913864 31381 layer_factory.hpp:77] Creating layer relu1
I0428 20:08:26.913872 31381 net.cpp:86] Creating Layer relu1
I0428 20:08:26.913877 31381 net.cpp:408] relu1 <- ip1
I0428 20:08:26.913882 31381 net.cpp:369] relu1 -> ip1 (in-place)
I0428 20:08:26.914090 31381 net.cpp:124] Setting up relu1
I0428 20:08:26.914100 31381 net.cpp:131] Top shape: 64 50 (3200)
I0428 20:08:26.914104 31381 net.cpp:139] Memory required for data: 5039360
I0428 20:08:26.914108 31381 layer_factory.hpp:77] Creating layer ip2
I0428 20:08:26.914115 31381 net.cpp:86] Creating Layer ip2
I0428 20:08:26.914119 31381 net.cpp:408] ip2 <- ip1
I0428 20:08:26.914125 31381 net.cpp:382] ip2 -> ip2
I0428 20:08:26.914248 31381 net.cpp:124] Setting up ip2
I0428 20:08:26.914258 31381 net.cpp:131] Top shape: 64 10 (640)
I0428 20:08:26.914260 31381 net.cpp:139] Memory required for data: 5041920
I0428 20:08:26.914266 31381 layer_factory.hpp:77] Creating layer relu2
I0428 20:08:26.914273 31381 net.cpp:86] Creating Layer relu2
I0428 20:08:26.914278 31381 net.cpp:408] relu2 <- ip2
I0428 20:08:26.914283 31381 net.cpp:369] relu2 -> ip2 (in-place)
I0428 20:08:26.915132 31381 net.cpp:124] Setting up relu2
I0428 20:08:26.915145 31381 net.cpp:131] Top shape: 64 10 (640)
I0428 20:08:26.915149 31381 net.cpp:139] Memory required for data: 5044480
I0428 20:08:26.915153 31381 layer_factory.hpp:77] Creating layer ip3
I0428 20:08:26.915161 31381 net.cpp:86] Creating Layer ip3
I0428 20:08:26.915165 31381 net.cpp:408] ip3 <- ip2
I0428 20:08:26.915174 31381 net.cpp:382] ip3 -> ip3
I0428 20:08:26.915298 31381 net.cpp:124] Setting up ip3
I0428 20:08:26.915307 31381 net.cpp:131] Top shape: 64 10 (640)
I0428 20:08:26.915311 31381 net.cpp:139] Memory required for data: 5047040
I0428 20:08:26.915320 31381 layer_factory.hpp:77] Creating layer relu3
I0428 20:08:26.915328 31381 net.cpp:86] Creating Layer relu3
I0428 20:08:26.915331 31381 net.cpp:408] relu3 <- ip3
I0428 20:08:26.915336 31381 net.cpp:369] relu3 -> ip3 (in-place)
I0428 20:08:26.915549 31381 net.cpp:124] Setting up relu3
I0428 20:08:26.915560 31381 net.cpp:131] Top shape: 64 10 (640)
I0428 20:08:26.915565 31381 net.cpp:139] Memory required for data: 5049600
I0428 20:08:26.915567 31381 layer_factory.hpp:77] Creating layer loss
I0428 20:08:26.915577 31381 net.cpp:86] Creating Layer loss
I0428 20:08:26.915581 31381 net.cpp:408] loss <- ip3
I0428 20:08:26.915586 31381 net.cpp:408] loss <- label
I0428 20:08:26.915592 31381 net.cpp:382] loss -> loss
I0428 20:08:26.915608 31381 layer_factory.hpp:77] Creating layer loss
…
I0428 20:08:26.916398 31381 solver.cpp:173] Creating test net (#0) specified by net file: ECE595/mnist/train_test/var_everything2/lenet_train_test1083.prototxt
I0428 20:08:26.916437 31381 net.cpp:296] The NetState phase (1) differed from the phase (0) specified by a rule in layer mnist
I0428 20:08:26.916548 31381 net.cpp:53] Initializing net from parameters: 
name: "LeNet"
state {
  phase: TEST
}
layer {
  name: "mnist"
  type: "Data"
  top: "data"
  top: "label"
  include {
    phase: TEST
  }
  transform_param {
    scale: 0.00390625
  }
  data_param {
    source: "examples/mnist/mnist_test_lmdb"
    batch_size: 100
    backend: LMDB
  }
}
layer {
  name: "conv0"
  type: "Convolution"
  bottom: "data"
  top: "conv0"
  param {
    lr_mult: 1
  }
  param {
    lr_mult: 2
  }
  convolution_param {
    num_output: 25
    kernel_size: 5
    stride: 1
    weight_filler {
      type: "xavier"
    }
    bias_filler {
      type: "constant"
    }
  }
}
layer {
  name: "pool0"
  type: "Pooling"
  bottom: "conv0"
  top: "pool0"
  pooling_param {
    pool: MAX
    kernel_size: 2
    stride: 2
  }
}
layer {
  name: "conv1"
  type: "Convolution"
  bottom: "pool0"
  top: "conv1"
  param {
    lr_mult: 1
  }
  param {
    lr_mult: 2
  }
  convolution_param {
    num_output: 10
    kernel_size: 5
    stride: 1
    weight_filler {
      type: "xavier"
    }
    bias_filler {
      type: "constant"
    }
  }
}
layer {
  name: "pool1"
  type: "Pooling"
  bottom: "conv1"
  top: "pool1"
  pooling_param {
    pool: MAX
    kernel_size: 2
    stride: 2
  }
}
layer {
  name: "ip1"
  type: "InnerProduct"
  bottom: "pool1"
  top: "ip1"
  param {
    lr_mult: 1
  }
  param {
    lr_mult: 2
  }
  inner_product_param {
    num_output: 50
    weight_filler {
      type: "xavier"
    }
    bias_filler {
      type: "constant"
    }
  }
}
layer {
  name: "relu1"
  type: "ReLU"
  bottom: "ip1"
  top: "ip1"
}
layer {
  name: "ip2"
  type: "InnerProduct"
  bottom: "ip1"
  top: "ip2"
  param {
    lr_mult: 1
  }
  param {
    lr_mult: 2
  }
  inner_product_param {
    num_output: 10
    weight_filler {
      type: "xavier"
    }
    bias_filler {
      type: "constant"
    }
  }
}
layer {
  name: "relu2"
  type: "ReLU"
  bottom: "ip2"
  top: "ip2"
}
layer {
  name: "ip3"
  type: "InnerProduct"
  bottom: "ip2"
  top: "ip3"
  param {
    lr_mult: 1
  }
  param {
    lr_mult: 2
  }
  inner_product_param {
    num_output: 10
    weight_filler {
      type: "xavier"
    }
    bias_filler {
      type: "constant"
    }
  }
}
layer {
  name: "relu3"
  type: "ReLU"
  bottom: "ip3"
  top: "ip3"
}
layer {
  name: "accuracy"
  type: "Accuracy"
  bottom: "ip3"
  bottom: "label"
  top: "accuracy"
  include {
    phase: TEST
  }
}
layer {
  name: "loss"
  type: "SoftmaxWithLoss"
  bottom: "ip3"
  bottom: "label"
  top: "loss"
}
I0428 20:08:26.916653 31381 layer_factory.hpp:77] Creating layer mnist
I0428 20:08:26.916705 31381 db_lmdb.cpp:35] Opened lmdb examples/mnist/mnist_test_lmdb
I0428 20:08:26.916719 31381 net.cpp:86] Creating Layer mnist
I0428 20:08:26.916726 31381 net.cpp:382] mnist -> data
I0428 20:08:26.916735 31381 net.cpp:382] mnist -> label
I0428 20:08:26.916851 31381 data_layer.cpp:45] output data size: 100,1,28,28
I0428 20:08:26.919035 31381 net.cpp:124] Setting up mnist
I0428 20:08:26.919056 31381 net.cpp:131] Top shape: 100 1 28 28 (78400)
I0428 20:08:26.919062 31381 net.cpp:131] Top shape: 100 (100)
I0428 20:08:26.919066 31381 net.cpp:139] Memory required for data: 314000
I0428 20:08:26.919070 31381 layer_factory.hpp:77] Creating layer label_mnist_1_split
I0428 20:08:26.919078 31381 net.cpp:86] Creating Layer label_mnist_1_split
I0428 20:08:26.919081 31381 net.cpp:408] label_mnist_1_split <- label
I0428 20:08:26.919116 31381 net.cpp:382] label_mnist_1_split -> label_mnist_1_split_0
I0428 20:08:26.919126 31381 net.cpp:382] label_mnist_1_split -> label_mnist_1_split_1
I0428 20:08:26.919193 31381 net.cpp:124] Setting up label_mnist_1_split
I0428 20:08:26.919200 31381 net.cpp:131] Top shape: 100 (100)
I0428 20:08:26.919206 31381 net.cpp:131] Top shape: 100 (100)
I0428 20:08:26.919210 31381 net.cpp:139] Memory required for data: 314800
I0428 20:08:26.919214 31381 layer_factory.hpp:77] Creating layer conv0
I0428 20:08:26.919224 31381 net.cpp:86] Creating Layer conv0
I0428 20:08:26.919226 31381 net.cpp:408] conv0 <- data
I0428 20:08:26.919234 31381 net.cpp:382] conv0 -> conv0
I0428 20:08:26.921257 31381 net.cpp:124] Setting up conv0
I0428 20:08:26.921274 31381 net.cpp:131] Top shape: 100 25 24 24 (1440000)
I0428 20:08:26.921278 31381 net.cpp:139] Memory required for data: 6074800
I0428 20:08:26.921289 31381 layer_factory.hpp:77] Creating layer pool0
I0428 20:08:26.921296 31381 net.cpp:86] Creating Layer pool0
I0428 20:08:26.921309 31381 net.cpp:408] pool0 <- conv0
I0428 20:08:26.921316 31381 net.cpp:382] pool0 -> pool0
I0428 20:08:26.921361 31381 net.cpp:124] Setting up pool0
I0428 20:08:26.921368 31381 net.cpp:131] Top shape: 100 25 12 12 (360000)
I0428 20:08:26.921371 31381 net.cpp:139] Memory required for data: 7514800
I0428 20:08:26.921375 31381 layer_factory.hpp:77] Creating layer conv1
I0428 20:08:26.921387 31381 net.cpp:86] Creating Layer conv1
I0428 20:08:26.921391 31381 net.cpp:408] conv1 <- pool0
I0428 20:08:26.921396 31381 net.cpp:382] conv1 -> conv1
I0428 20:08:26.923794 31381 net.cpp:124] Setting up conv1
I0428 20:08:26.923810 31381 net.cpp:131] Top shape: 100 10 8 8 (64000)
I0428 20:08:26.923815 31381 net.cpp:139] Memory required for data: 7770800
I0428 20:08:26.923825 31381 layer_factory.hpp:77] Creating layer pool1
I0428 20:08:26.923831 31381 net.cpp:86] Creating Layer pool1
I0428 20:08:26.923835 31381 net.cpp:408] pool1 <- conv1
I0428 20:08:26.923842 31381 net.cpp:382] pool1 -> pool1
I0428 20:08:26.923894 31381 net.cpp:124] Setting up pool1
I0428 20:08:26.923902 31381 net.cpp:131] Top shape: 100 10 4 4 (16000)
I0428 20:08:26.923904 31381 net.cpp:139] Memory required for data: 7834800
I0428 20:08:26.923916 31381 layer_factory.hpp:77] Creating layer ip1
I0428 20:08:26.923925 31381 net.cpp:86] Creating Layer ip1
I0428 20:08:26.923928 31381 net.cpp:408] ip1 <- pool1
I0428 20:08:26.923935 31381 net.cpp:382] ip1 -> ip1
I0428 20:08:26.924154 31381 net.cpp:124] Setting up ip1
I0428 20:08:26.924162 31381 net.cpp:131] Top shape: 100 50 (5000)
I0428 20:08:26.924177 31381 net.cpp:139] Memory required for data: 7854800
I0428 20:08:26.924193 31381 layer_factory.hpp:77] Creating layer relu1
I0428 20:08:26.924201 31381 net.cpp:86] Creating Layer relu1
I0428 20:08:26.924209 31381 net.cpp:408] relu1 <- ip1
I0428 20:08:26.924216 31381 net.cpp:369] relu1 -> ip1 (in-place)
I0428 20:08:26.924428 31381 net.cpp:124] Setting up relu1
I0428 20:08:26.924439 31381 net.cpp:131] Top shape: 100 50 (5000)
I0428 20:08:26.924443 31381 net.cpp:139] Memory required for data: 7874800
I0428 20:08:26.924446 31381 layer_factory.hpp:77] Creating layer ip2
I0428 20:08:26.924456 31381 net.cpp:86] Creating Layer ip2
I0428 20:08:26.924460 31381 net.cpp:408] ip2 <- ip1
I0428 20:08:26.924466 31381 net.cpp:382] ip2 -> ip2
I0428 20:08:26.924595 31381 net.cpp:124] Setting up ip2
I0428 20:08:26.924604 31381 net.cpp:131] Top shape: 100 10 (1000)
I0428 20:08:26.924607 31381 net.cpp:139] Memory required for data: 7878800
I0428 20:08:26.924613 31381 layer_factory.hpp:77] Creating layer relu2
I0428 20:08:26.924620 31381 net.cpp:86] Creating Layer relu2
I0428 20:08:26.924624 31381 net.cpp:408] relu2 <- ip2
I0428 20:08:26.924629 31381 net.cpp:369] relu2 -> ip2 (in-place)
I0428 20:08:26.924839 31381 net.cpp:124] Setting up relu2
I0428 20:08:26.924849 31381 net.cpp:131] Top shape: 100 10 (1000)
I0428 20:08:26.924852 31381 net.cpp:139] Memory required for data: 7882800
I0428 20:08:26.924856 31381 layer_factory.hpp:77] Creating layer ip3
I0428 20:08:26.924865 31381 net.cpp:86] Creating Layer ip3
I0428 20:08:26.924870 31381 net.cpp:408] ip3 <- ip2
I0428 20:08:26.924876 31381 net.cpp:382] ip3 -> ip3
I0428 20:08:26.924995 31381 net.cpp:124] Setting up ip3
I0428 20:08:26.925004 31381 net.cpp:131] Top shape: 100 10 (1000)
I0428 20:08:26.925007 31381 net.cpp:139] Memory required for data: 7886800
I0428 20:08:26.925016 31381 layer_factory.hpp:77] Creating layer relu3
I0428 20:08:26.925024 31381 net.cpp:86] Creating Layer relu3
I0428 20:08:26.925027 31381 net.cpp:408] relu3 <- ip3
I0428 20:08:26.925031 31381 net.cpp:369] relu3 -> ip3 (in-place)
I0428 20:08:26.925957 31381 net.cpp:124] Setting up relu3
I0428 20:08:26.925973 31381 net.cpp:131] Top shape: 100 10 (1000)
I0428 20:08:26.925977 31381 net.cpp:139] Memory required for data: 7890800
I0428 20:08:26.925981 31381 layer_factory.hpp:77] Creating layer ip3_relu3_0_split
I0428 20:08:26.925988 31381 net.cpp:86] Creating Layer ip3_relu3_0_split
I0428 20:08:26.925992 31381 net.cpp:408] ip3_relu3_0_split <- ip3
I0428 20:08:26.925997 31381 net.cpp:382] ip3_relu3_0_split -> ip3_relu3_0_split_0
I0428 20:08:26.926004 31381 net.cpp:382] ip3_relu3_0_split -> ip3_relu3_0_split_1
I0428 20:08:26.926056 31381 net.cpp:124] Setting up ip3_relu3_0_split
I0428 20:08:26.926069 31381 net.cpp:131] Top shape: 100 10 (1000)
I0428 20:08:26.926074 31381 net.cpp:131] Top shape: 100 10 (1000)
I0428 20:08:26.926077 31381 net.cpp:139] Memory required for data: 7898800
I0428 20:08:26.926081 31381 layer_factory.hpp:77] Creating layer accuracy
I0428 20:08:26.926086 31381 net.cpp:86] Creating Layer accuracy
I0428 20:08:26.926090 31381 net.cpp:408] accuracy <- ip3_relu3_0_split_0
I0428 20:08:26.926102 31381 net.cpp:408] accuracy <- label_mnist_1_split_0
I0428 20:08:26.926108 31381 net.cpp:382] accuracy -> accuracy
…
