…
I0428 20:28:15.309139  3324 net.cpp:296] The NetState phase (0) differed from the phase (1) specified by a rule in layer mnist
I0428 20:28:15.309185  3324 net.cpp:296] The NetState phase (0) differed from the phase (1) specified by a rule in layer accuracy
I0428 20:28:15.309309  3324 net.cpp:53] Initializing net from parameters: 
name: "LeNet"
state {
  phase: TRAIN
  level: 0
  stage: ""
}
layer {
  name: "mnist"
  type: "Data"
  top: "data"
  top: "label"
  include {
    phase: TRAIN
  }
  transform_param {
    scale: 0.00390625
  }
  data_param {
    source: "examples/mnist/mnist_train_lmdb"
    batch_size: 64
    backend: LMDB
  }
}
layer {
  name: "conv0"
  type: "Convolution"
  bottom: "data"
  top: "conv0"
  param {
    lr_mult: 1
  }
  param {
    lr_mult: 2
  }
  convolution_param {
    num_output: 100
    kernel_size: 5
    stride: 1
    weight_filler {
      type: "xavier"
    }
    bias_filler {
      type: "constant"
    }
  }
}
layer {
  name: "pool0"
  type: "Pooling"
  bottom: "conv0"
  top: "pool0"
  pooling_param {
    pool: MAX
    kernel_size: 2
    stride: 2
  }
}
layer {
  name: "conv1"
  type: "Convolution"
  bottom: "pool0"
  top: "conv1"
  param {
    lr_mult: 1
  }
  param {
    lr_mult: 2
  }
  convolution_param {
    num_output: 5
    kernel_size: 5
    stride: 1
    weight_filler {
      type: "xavier"
    }
    bias_filler {
      type: "constant"
    }
  }
}
layer {
  name: "pool1"
  type: "Pooling"
  bottom: "conv1"
  top: "pool1"
  pooling_param {
    pool: MAX
    kernel_size: 2
    stride: 2
  }
}
layer {
  name: "ip1"
  type: "InnerProduct"
  bottom: "pool1"
  top: "ip1"
  param {
    lr_mult: 1
  }
  param {
    lr_mult: 2
  }
  inner_product_param {
    num_output: 10
    weight_filler {
      type: "xavier"
    }
    bias_filler {
      type: "constant"
    }
  }
}
layer {
  name: "relu1"
  type: "ReLU"
  bottom: "ip1"
  top: "ip1"
}
layer {
  name: "ip2"
  type: "InnerProduct"
  bottom: "ip1"
  top: "ip2"
  param {
    lr_mult: 1
  }
  param {
    lr_mult: 2
  }
  inner_product_param {
    num_output: 50
    weight_filler {
      type: "xavier"
    }
    bias_filler {
      type: "constant"
    }
  }
}
layer {
  name: "relu2"
  type: "ReLU"
  bottom: "ip2"
  top: "ip2"
}
layer {
  name: "ip3"
  type: "InnerProduct"
  bottom: "ip2"
  top: "ip3"
  param {
    lr_mult: 1
  }
  param {
    lr_mult: 2
  }
  inner_product_param {
    num_output: 10
    weight_filler {
      type: "xavier"
    }
    bias_filler {
      type: "constant"
    }
  }
}
layer {
  name: "relu3"
  type: "ReLU"
  bottom: "ip3"
  top: "ip3"
}
layer {
  name: "loss"
  type: "SoftmaxWithLoss"
  bottom: "ip3"
  bottom: "label"
  top: "loss"
}
I0428 20:28:15.309371  3324 layer_factory.hpp:77] Creating layer mnist
I0428 20:28:15.309453  3324 db_lmdb.cpp:35] Opened lmdb examples/mnist/mnist_train_lmdb
I0428 20:28:15.309471  3324 net.cpp:86] Creating Layer mnist
I0428 20:28:15.309478  3324 net.cpp:382] mnist -> data
I0428 20:28:15.309496  3324 net.cpp:382] mnist -> label
I0428 20:28:15.310523  3324 data_layer.cpp:45] output data size: 64,1,28,28
I0428 20:28:15.312667  3324 net.cpp:124] Setting up mnist
I0428 20:28:15.312697  3324 net.cpp:131] Top shape: 64 1 28 28 (50176)
I0428 20:28:15.312701  3324 net.cpp:131] Top shape: 64 (64)
I0428 20:28:15.312705  3324 net.cpp:139] Memory required for data: 200960
I0428 20:28:15.312711  3324 layer_factory.hpp:77] Creating layer conv0
I0428 20:28:15.312752  3324 net.cpp:86] Creating Layer conv0
I0428 20:28:15.312769  3324 net.cpp:408] conv0 <- data
I0428 20:28:15.312780  3324 net.cpp:382] conv0 -> conv0
I0428 20:28:15.545518  3324 net.cpp:124] Setting up conv0
I0428 20:28:15.545543  3324 net.cpp:131] Top shape: 64 100 24 24 (3686400)
I0428 20:28:15.545547  3324 net.cpp:139] Memory required for data: 14946560
I0428 20:28:15.545562  3324 layer_factory.hpp:77] Creating layer pool0
I0428 20:28:15.545574  3324 net.cpp:86] Creating Layer pool0
I0428 20:28:15.545578  3324 net.cpp:408] pool0 <- conv0
I0428 20:28:15.545583  3324 net.cpp:382] pool0 -> pool0
I0428 20:28:15.545641  3324 net.cpp:124] Setting up pool0
I0428 20:28:15.545647  3324 net.cpp:131] Top shape: 64 100 12 12 (921600)
I0428 20:28:15.545650  3324 net.cpp:139] Memory required for data: 18632960
I0428 20:28:15.545652  3324 layer_factory.hpp:77] Creating layer conv1
I0428 20:28:15.545663  3324 net.cpp:86] Creating Layer conv1
I0428 20:28:15.545666  3324 net.cpp:408] conv1 <- pool0
I0428 20:28:15.545670  3324 net.cpp:382] conv1 -> conv1
I0428 20:28:15.548434  3324 net.cpp:124] Setting up conv1
I0428 20:28:15.548449  3324 net.cpp:131] Top shape: 64 5 8 8 (20480)
I0428 20:28:15.548454  3324 net.cpp:139] Memory required for data: 18714880
I0428 20:28:15.548461  3324 layer_factory.hpp:77] Creating layer pool1
I0428 20:28:15.548486  3324 net.cpp:86] Creating Layer pool1
I0428 20:28:15.548491  3324 net.cpp:408] pool1 <- conv1
I0428 20:28:15.548496  3324 net.cpp:382] pool1 -> pool1
I0428 20:28:15.548532  3324 net.cpp:124] Setting up pool1
I0428 20:28:15.548537  3324 net.cpp:131] Top shape: 64 5 4 4 (5120)
I0428 20:28:15.548540  3324 net.cpp:139] Memory required for data: 18735360
I0428 20:28:15.548543  3324 layer_factory.hpp:77] Creating layer ip1
I0428 20:28:15.548549  3324 net.cpp:86] Creating Layer ip1
I0428 20:28:15.548552  3324 net.cpp:408] ip1 <- pool1
I0428 20:28:15.548557  3324 net.cpp:382] ip1 -> ip1
I0428 20:28:15.548657  3324 net.cpp:124] Setting up ip1
I0428 20:28:15.548665  3324 net.cpp:131] Top shape: 64 10 (640)
I0428 20:28:15.548667  3324 net.cpp:139] Memory required for data: 18737920
I0428 20:28:15.548674  3324 layer_factory.hpp:77] Creating layer relu1
I0428 20:28:15.548681  3324 net.cpp:86] Creating Layer relu1
I0428 20:28:15.548683  3324 net.cpp:408] relu1 <- ip1
I0428 20:28:15.548687  3324 net.cpp:369] relu1 -> ip1 (in-place)
I0428 20:28:15.548885  3324 net.cpp:124] Setting up relu1
I0428 20:28:15.548895  3324 net.cpp:131] Top shape: 64 10 (640)
I0428 20:28:15.548899  3324 net.cpp:139] Memory required for data: 18740480
I0428 20:28:15.548902  3324 layer_factory.hpp:77] Creating layer ip2
I0428 20:28:15.548909  3324 net.cpp:86] Creating Layer ip2
I0428 20:28:15.548913  3324 net.cpp:408] ip2 <- ip1
I0428 20:28:15.548918  3324 net.cpp:382] ip2 -> ip2
I0428 20:28:15.549024  3324 net.cpp:124] Setting up ip2
I0428 20:28:15.549032  3324 net.cpp:131] Top shape: 64 50 (3200)
I0428 20:28:15.549036  3324 net.cpp:139] Memory required for data: 18753280
I0428 20:28:15.549041  3324 layer_factory.hpp:77] Creating layer relu2
I0428 20:28:15.549047  3324 net.cpp:86] Creating Layer relu2
I0428 20:28:15.549051  3324 net.cpp:408] relu2 <- ip2
I0428 20:28:15.549054  3324 net.cpp:369] relu2 -> ip2 (in-place)
I0428 20:28:15.549837  3324 net.cpp:124] Setting up relu2
I0428 20:28:15.549850  3324 net.cpp:131] Top shape: 64 50 (3200)
I0428 20:28:15.549870  3324 net.cpp:139] Memory required for data: 18766080
I0428 20:28:15.549872  3324 layer_factory.hpp:77] Creating layer ip3
I0428 20:28:15.549880  3324 net.cpp:86] Creating Layer ip3
I0428 20:28:15.549885  3324 net.cpp:408] ip3 <- ip2
I0428 20:28:15.549890  3324 net.cpp:382] ip3 -> ip3
I0428 20:28:15.549985  3324 net.cpp:124] Setting up ip3
I0428 20:28:15.549993  3324 net.cpp:131] Top shape: 64 10 (640)
I0428 20:28:15.549995  3324 net.cpp:139] Memory required for data: 18768640
I0428 20:28:15.550004  3324 layer_factory.hpp:77] Creating layer relu3
I0428 20:28:15.550007  3324 net.cpp:86] Creating Layer relu3
I0428 20:28:15.550010  3324 net.cpp:408] relu3 <- ip3
I0428 20:28:15.550014  3324 net.cpp:369] relu3 -> ip3 (in-place)
I0428 20:28:15.550169  3324 net.cpp:124] Setting up relu3
I0428 20:28:15.550179  3324 net.cpp:131] Top shape: 64 10 (640)
I0428 20:28:15.550181  3324 net.cpp:139] Memory required for data: 18771200
I0428 20:28:15.550184  3324 layer_factory.hpp:77] Creating layer loss
I0428 20:28:15.550189  3324 net.cpp:86] Creating Layer loss
I0428 20:28:15.550192  3324 net.cpp:408] loss <- ip3
I0428 20:28:15.550196  3324 net.cpp:408] loss <- label
I0428 20:28:15.550201  3324 net.cpp:382] loss -> loss
I0428 20:28:15.550215  3324 layer_factory.hpp:77] Creating layer loss
…
I0428 20:28:15.550920  3324 solver.cpp:173] Creating test net (#0) specified by net file: ECE595/mnist/train_test/var_everything2/lenet_train_test1502.prototxt
I0428 20:28:15.550963  3324 net.cpp:296] The NetState phase (1) differed from the phase (0) specified by a rule in layer mnist
I0428 20:28:15.551054  3324 net.cpp:53] Initializing net from parameters: 
name: "LeNet"
state {
  phase: TEST
}
layer {
  name: "mnist"
  type: "Data"
  top: "data"
  top: "label"
  include {
    phase: TEST
  }
  transform_param {
    scale: 0.00390625
  }
  data_param {
    source: "examples/mnist/mnist_test_lmdb"
    batch_size: 100
    backend: LMDB
  }
}
layer {
  name: "conv0"
  type: "Convolution"
  bottom: "data"
  top: "conv0"
  param {
    lr_mult: 1
  }
  param {
    lr_mult: 2
  }
  convolution_param {
    num_output: 100
    kernel_size: 5
    stride: 1
    weight_filler {
      type: "xavier"
    }
    bias_filler {
      type: "constant"
    }
  }
}
layer {
  name: "pool0"
  type: "Pooling"
  bottom: "conv0"
  top: "pool0"
  pooling_param {
    pool: MAX
    kernel_size: 2
    stride: 2
  }
}
layer {
  name: "conv1"
  type: "Convolution"
  bottom: "pool0"
  top: "conv1"
  param {
    lr_mult: 1
  }
  param {
    lr_mult: 2
  }
  convolution_param {
    num_output: 5
    kernel_size: 5
    stride: 1
    weight_filler {
      type: "xavier"
    }
    bias_filler {
      type: "constant"
    }
  }
}
layer {
  name: "pool1"
  type: "Pooling"
  bottom: "conv1"
  top: "pool1"
  pooling_param {
    pool: MAX
    kernel_size: 2
    stride: 2
  }
}
layer {
  name: "ip1"
  type: "InnerProduct"
  bottom: "pool1"
  top: "ip1"
  param {
    lr_mult: 1
  }
  param {
    lr_mult: 2
  }
  inner_product_param {
    num_output: 10
    weight_filler {
      type: "xavier"
    }
    bias_filler {
      type: "constant"
    }
  }
}
layer {
  name: "relu1"
  type: "ReLU"
  bottom: "ip1"
  top: "ip1"
}
layer {
  name: "ip2"
  type: "InnerProduct"
  bottom: "ip1"
  top: "ip2"
  param {
    lr_mult: 1
  }
  param {
    lr_mult: 2
  }
  inner_product_param {
    num_output: 50
    weight_filler {
      type: "xavier"
    }
    bias_filler {
      type: "constant"
    }
  }
}
layer {
  name: "relu2"
  type: "ReLU"
  bottom: "ip2"
  top: "ip2"
}
layer {
  name: "ip3"
  type: "InnerProduct"
  bottom: "ip2"
  top: "ip3"
  param {
    lr_mult: 1
  }
  param {
    lr_mult: 2
  }
  inner_product_param {
    num_output: 10
    weight_filler {
      type: "xavier"
    }
    bias_filler {
      type: "constant"
    }
  }
}
layer {
  name: "relu3"
  type: "ReLU"
  bottom: "ip3"
  top: "ip3"
}
layer {
  name: "accuracy"
  type: "Accuracy"
  bottom: "ip3"
  bottom: "label"
  top: "accuracy"
  include {
    phase: TEST
  }
}
layer {
  name: "loss"
  type: "SoftmaxWithLoss"
  bottom: "ip3"
  bottom: "label"
  top: "loss"
}
I0428 20:28:15.551146  3324 layer_factory.hpp:77] Creating layer mnist
I0428 20:28:15.551188  3324 db_lmdb.cpp:35] Opened lmdb examples/mnist/mnist_test_lmdb
I0428 20:28:15.551200  3324 net.cpp:86] Creating Layer mnist
I0428 20:28:15.551204  3324 net.cpp:382] mnist -> data
I0428 20:28:15.551211  3324 net.cpp:382] mnist -> label
I0428 20:28:15.551311  3324 data_layer.cpp:45] output data size: 100,1,28,28
I0428 20:28:15.553364  3324 net.cpp:124] Setting up mnist
I0428 20:28:15.553409  3324 net.cpp:131] Top shape: 100 1 28 28 (78400)
I0428 20:28:15.553414  3324 net.cpp:131] Top shape: 100 (100)
I0428 20:28:15.553417  3324 net.cpp:139] Memory required for data: 314000
I0428 20:28:15.553421  3324 layer_factory.hpp:77] Creating layer label_mnist_1_split
I0428 20:28:15.553427  3324 net.cpp:86] Creating Layer label_mnist_1_split
I0428 20:28:15.553431  3324 net.cpp:408] label_mnist_1_split <- label
I0428 20:28:15.553436  3324 net.cpp:382] label_mnist_1_split -> label_mnist_1_split_0
I0428 20:28:15.553442  3324 net.cpp:382] label_mnist_1_split -> label_mnist_1_split_1
I0428 20:28:15.553519  3324 net.cpp:124] Setting up label_mnist_1_split
I0428 20:28:15.553546  3324 net.cpp:131] Top shape: 100 (100)
I0428 20:28:15.553551  3324 net.cpp:131] Top shape: 100 (100)
I0428 20:28:15.553555  3324 net.cpp:139] Memory required for data: 314800
I0428 20:28:15.553557  3324 layer_factory.hpp:77] Creating layer conv0
I0428 20:28:15.553566  3324 net.cpp:86] Creating Layer conv0
I0428 20:28:15.553572  3324 net.cpp:408] conv0 <- data
I0428 20:28:15.553593  3324 net.cpp:382] conv0 -> conv0
I0428 20:28:15.555253  3324 net.cpp:124] Setting up conv0
I0428 20:28:15.555266  3324 net.cpp:131] Top shape: 100 100 24 24 (5760000)
I0428 20:28:15.555285  3324 net.cpp:139] Memory required for data: 23354800
I0428 20:28:15.555294  3324 layer_factory.hpp:77] Creating layer pool0
I0428 20:28:15.555301  3324 net.cpp:86] Creating Layer pool0
I0428 20:28:15.555305  3324 net.cpp:408] pool0 <- conv0
I0428 20:28:15.555308  3324 net.cpp:382] pool0 -> pool0
I0428 20:28:15.555357  3324 net.cpp:124] Setting up pool0
I0428 20:28:15.555364  3324 net.cpp:131] Top shape: 100 100 12 12 (1440000)
I0428 20:28:15.555367  3324 net.cpp:139] Memory required for data: 29114800
I0428 20:28:15.555371  3324 layer_factory.hpp:77] Creating layer conv1
I0428 20:28:15.555378  3324 net.cpp:86] Creating Layer conv1
I0428 20:28:15.555382  3324 net.cpp:408] conv1 <- pool0
I0428 20:28:15.555387  3324 net.cpp:382] conv1 -> conv1
I0428 20:28:15.556879  3324 net.cpp:124] Setting up conv1
I0428 20:28:15.556924  3324 net.cpp:131] Top shape: 100 5 8 8 (32000)
I0428 20:28:15.556929  3324 net.cpp:139] Memory required for data: 29242800
I0428 20:28:15.556942  3324 layer_factory.hpp:77] Creating layer pool1
I0428 20:28:15.556952  3324 net.cpp:86] Creating Layer pool1
I0428 20:28:15.556957  3324 net.cpp:408] pool1 <- conv1
I0428 20:28:15.556962  3324 net.cpp:382] pool1 -> pool1
I0428 20:28:15.557003  3324 net.cpp:124] Setting up pool1
I0428 20:28:15.557010  3324 net.cpp:131] Top shape: 100 5 4 4 (8000)
I0428 20:28:15.557019  3324 net.cpp:139] Memory required for data: 29274800
I0428 20:28:15.557024  3324 layer_factory.hpp:77] Creating layer ip1
I0428 20:28:15.557030  3324 net.cpp:86] Creating Layer ip1
I0428 20:28:15.557034  3324 net.cpp:408] ip1 <- pool1
I0428 20:28:15.557039  3324 net.cpp:382] ip1 -> ip1
I0428 20:28:15.557153  3324 net.cpp:124] Setting up ip1
I0428 20:28:15.557162  3324 net.cpp:131] Top shape: 100 10 (1000)
I0428 20:28:15.557191  3324 net.cpp:139] Memory required for data: 29278800
I0428 20:28:15.557199  3324 layer_factory.hpp:77] Creating layer relu1
I0428 20:28:15.557204  3324 net.cpp:86] Creating Layer relu1
I0428 20:28:15.557209  3324 net.cpp:408] relu1 <- ip1
I0428 20:28:15.557214  3324 net.cpp:369] relu1 -> ip1 (in-place)
I0428 20:28:15.557402  3324 net.cpp:124] Setting up relu1
I0428 20:28:15.557412  3324 net.cpp:131] Top shape: 100 10 (1000)
I0428 20:28:15.557415  3324 net.cpp:139] Memory required for data: 29282800
I0428 20:28:15.557418  3324 layer_factory.hpp:77] Creating layer ip2
I0428 20:28:15.557426  3324 net.cpp:86] Creating Layer ip2
I0428 20:28:15.557430  3324 net.cpp:408] ip2 <- ip1
I0428 20:28:15.557449  3324 net.cpp:382] ip2 -> ip2
I0428 20:28:15.557605  3324 net.cpp:124] Setting up ip2
I0428 20:28:15.557613  3324 net.cpp:131] Top shape: 100 50 (5000)
I0428 20:28:15.557618  3324 net.cpp:139] Memory required for data: 29302800
I0428 20:28:15.557623  3324 layer_factory.hpp:77] Creating layer relu2
I0428 20:28:15.557628  3324 net.cpp:86] Creating Layer relu2
I0428 20:28:15.557632  3324 net.cpp:408] relu2 <- ip2
I0428 20:28:15.557636  3324 net.cpp:369] relu2 -> ip2 (in-place)
I0428 20:28:15.557865  3324 net.cpp:124] Setting up relu2
I0428 20:28:15.557876  3324 net.cpp:131] Top shape: 100 50 (5000)
I0428 20:28:15.557879  3324 net.cpp:139] Memory required for data: 29322800
I0428 20:28:15.557883  3324 layer_factory.hpp:77] Creating layer ip3
I0428 20:28:15.557888  3324 net.cpp:86] Creating Layer ip3
I0428 20:28:15.557891  3324 net.cpp:408] ip3 <- ip2
I0428 20:28:15.557896  3324 net.cpp:382] ip3 -> ip3
I0428 20:28:15.558032  3324 net.cpp:124] Setting up ip3
I0428 20:28:15.558040  3324 net.cpp:131] Top shape: 100 10 (1000)
I0428 20:28:15.558043  3324 net.cpp:139] Memory required for data: 29326800
I0428 20:28:15.558051  3324 layer_factory.hpp:77] Creating layer relu3
I0428 20:28:15.558055  3324 net.cpp:86] Creating Layer relu3
I0428 20:28:15.558058  3324 net.cpp:408] relu3 <- ip3
I0428 20:28:15.558063  3324 net.cpp:369] relu3 -> ip3 (in-place)
I0428 20:28:15.558924  3324 net.cpp:124] Setting up relu3
I0428 20:28:15.558938  3324 net.cpp:131] Top shape: 100 10 (1000)
I0428 20:28:15.558956  3324 net.cpp:139] Memory required for data: 29330800
I0428 20:28:15.558959  3324 layer_factory.hpp:77] Creating layer ip3_relu3_0_split
I0428 20:28:15.558964  3324 net.cpp:86] Creating Layer ip3_relu3_0_split
I0428 20:28:15.558967  3324 net.cpp:408] ip3_relu3_0_split <- ip3
I0428 20:28:15.558976  3324 net.cpp:382] ip3_relu3_0_split -> ip3_relu3_0_split_0
I0428 20:28:15.558982  3324 net.cpp:382] ip3_relu3_0_split -> ip3_relu3_0_split_1
I0428 20:28:15.559037  3324 net.cpp:124] Setting up ip3_relu3_0_split
I0428 20:28:15.559046  3324 net.cpp:131] Top shape: 100 10 (1000)
I0428 20:28:15.559051  3324 net.cpp:131] Top shape: 100 10 (1000)
I0428 20:28:15.559053  3324 net.cpp:139] Memory required for data: 29338800
I0428 20:28:15.559057  3324 layer_factory.hpp:77] Creating layer accuracy
I0428 20:28:15.559063  3324 net.cpp:86] Creating Layer accuracy
I0428 20:28:15.559067  3324 net.cpp:408] accuracy <- ip3_relu3_0_split_0
I0428 20:28:15.559075  3324 net.cpp:408] accuracy <- label_mnist_1_split_0
I0428 20:28:15.559082  3324 net.cpp:382] accuracy -> accuracy
…
