…
I0428 19:53:23.728680 27756 net.cpp:296] The NetState phase (0) differed from the phase (1) specified by a rule in layer mnist
I0428 19:53:23.728701 27756 net.cpp:296] The NetState phase (0) differed from the phase (1) specified by a rule in layer accuracy
I0428 19:53:23.728804 27756 net.cpp:53] Initializing net from parameters: 
name: "LeNet"
state {
  phase: TRAIN
  level: 0
  stage: ""
}
layer {
  name: "mnist"
  type: "Data"
  top: "data"
  top: "label"
  include {
    phase: TRAIN
  }
  transform_param {
    scale: 0.00390625
  }
  data_param {
    source: "examples/mnist/mnist_train_lmdb"
    batch_size: 64
    backend: LMDB
  }
}
layer {
  name: "conv0"
  type: "Convolution"
  bottom: "data"
  top: "conv0"
  param {
    lr_mult: 1
  }
  param {
    lr_mult: 2
  }
  convolution_param {
    num_output: 5
    kernel_size: 5
    stride: 1
    weight_filler {
      type: "xavier"
    }
    bias_filler {
      type: "constant"
    }
  }
}
layer {
  name: "pool0"
  type: "Pooling"
  bottom: "conv0"
  top: "pool0"
  pooling_param {
    pool: MAX
    kernel_size: 2
    stride: 2
  }
}
layer {
  name: "conv1"
  type: "Convolution"
  bottom: "pool0"
  top: "conv1"
  param {
    lr_mult: 1
  }
  param {
    lr_mult: 2
  }
  convolution_param {
    num_output: 50
    kernel_size: 5
    stride: 1
    weight_filler {
      type: "xavier"
    }
    bias_filler {
      type: "constant"
    }
  }
}
layer {
  name: "pool1"
  type: "Pooling"
  bottom: "conv1"
  top: "pool1"
  pooling_param {
    pool: MAX
    kernel_size: 2
    stride: 2
  }
}
layer {
  name: "ip1"
  type: "InnerProduct"
  bottom: "pool1"
  top: "ip1"
  param {
    lr_mult: 1
  }
  param {
    lr_mult: 2
  }
  inner_product_param {
    num_output: 25
    weight_filler {
      type: "xavier"
    }
    bias_filler {
      type: "constant"
    }
  }
}
layer {
  name: "relu1"
  type: "ReLU"
  bottom: "ip1"
  top: "ip1"
}
layer {
  name: "ip2"
  type: "InnerProduct"
  bottom: "ip1"
  top: "ip2"
  param {
    lr_mult: 1
  }
  param {
    lr_mult: 2
  }
  inner_product_param {
    num_output: 10
    weight_filler {
      type: "xavier"
    }
    bias_filler {
      type: "constant"
    }
  }
}
layer {
  name: "relu2"
  type: "ReLU"
  bottom: "ip2"
  top: "ip2"
}
layer {
  name: "ip3"
  type: "InnerProduct"
  bottom: "ip2"
  top: "ip3"
  param {
    lr_mult: 1
  }
  param {
    lr_mult: 2
  }
  inner_product_param {
    num_output: 10
    weight_filler {
      type: "xavier"
    }
    bias_filler {
      type: "constant"
    }
  }
}
layer {
  name: "relu3"
  type: "ReLU"
  bottom: "ip3"
  top: "ip3"
}
layer {
  name: "loss"
  type: "SoftmaxWithLoss"
  bottom: "ip3"
  bottom: "label"
  top: "loss"
}
I0428 19:53:23.728893 27756 layer_factory.hpp:77] Creating layer mnist
I0428 19:53:23.728992 27756 db_lmdb.cpp:35] Opened lmdb examples/mnist/mnist_train_lmdb
I0428 19:53:23.729017 27756 net.cpp:86] Creating Layer mnist
I0428 19:53:23.729025 27756 net.cpp:382] mnist -> data
I0428 19:53:23.729048 27756 net.cpp:382] mnist -> label
I0428 19:53:23.730190 27756 data_layer.cpp:45] output data size: 64,1,28,28
I0428 19:53:23.732753 27756 net.cpp:124] Setting up mnist
I0428 19:53:23.732770 27756 net.cpp:131] Top shape: 64 1 28 28 (50176)
I0428 19:53:23.732776 27756 net.cpp:131] Top shape: 64 (64)
I0428 19:53:23.732779 27756 net.cpp:139] Memory required for data: 200960
I0428 19:53:23.732786 27756 layer_factory.hpp:77] Creating layer conv0
I0428 19:53:23.732803 27756 net.cpp:86] Creating Layer conv0
I0428 19:53:23.732832 27756 net.cpp:408] conv0 <- data
I0428 19:53:23.732846 27756 net.cpp:382] conv0 -> conv0
I0428 19:53:24.007995 27756 net.cpp:124] Setting up conv0
I0428 19:53:24.008038 27756 net.cpp:131] Top shape: 64 5 24 24 (184320)
I0428 19:53:24.008043 27756 net.cpp:139] Memory required for data: 938240
I0428 19:53:24.008059 27756 layer_factory.hpp:77] Creating layer pool0
I0428 19:53:24.008086 27756 net.cpp:86] Creating Layer pool0
I0428 19:53:24.008091 27756 net.cpp:408] pool0 <- conv0
I0428 19:53:24.008096 27756 net.cpp:382] pool0 -> pool0
I0428 19:53:24.008152 27756 net.cpp:124] Setting up pool0
I0428 19:53:24.008158 27756 net.cpp:131] Top shape: 64 5 12 12 (46080)
I0428 19:53:24.008162 27756 net.cpp:139] Memory required for data: 1122560
I0428 19:53:24.008165 27756 layer_factory.hpp:77] Creating layer conv1
I0428 19:53:24.008175 27756 net.cpp:86] Creating Layer conv1
I0428 19:53:24.008178 27756 net.cpp:408] conv1 <- pool0
I0428 19:53:24.008183 27756 net.cpp:382] conv1 -> conv1
I0428 19:53:24.011059 27756 net.cpp:124] Setting up conv1
I0428 19:53:24.011088 27756 net.cpp:131] Top shape: 64 50 8 8 (204800)
I0428 19:53:24.011092 27756 net.cpp:139] Memory required for data: 1941760
I0428 19:53:24.011101 27756 layer_factory.hpp:77] Creating layer pool1
I0428 19:53:24.011109 27756 net.cpp:86] Creating Layer pool1
I0428 19:53:24.011128 27756 net.cpp:408] pool1 <- conv1
I0428 19:53:24.011134 27756 net.cpp:382] pool1 -> pool1
I0428 19:53:24.011181 27756 net.cpp:124] Setting up pool1
I0428 19:53:24.011190 27756 net.cpp:131] Top shape: 64 50 4 4 (51200)
I0428 19:53:24.011193 27756 net.cpp:139] Memory required for data: 2146560
I0428 19:53:24.011196 27756 layer_factory.hpp:77] Creating layer ip1
I0428 19:53:24.011204 27756 net.cpp:86] Creating Layer ip1
I0428 19:53:24.011207 27756 net.cpp:408] ip1 <- pool1
I0428 19:53:24.011212 27756 net.cpp:382] ip1 -> ip1
I0428 19:53:24.011441 27756 net.cpp:124] Setting up ip1
I0428 19:53:24.011448 27756 net.cpp:131] Top shape: 64 25 (1600)
I0428 19:53:24.011451 27756 net.cpp:139] Memory required for data: 2152960
I0428 19:53:24.011458 27756 layer_factory.hpp:77] Creating layer relu1
I0428 19:53:24.011464 27756 net.cpp:86] Creating Layer relu1
I0428 19:53:24.011467 27756 net.cpp:408] relu1 <- ip1
I0428 19:53:24.011472 27756 net.cpp:369] relu1 -> ip1 (in-place)
I0428 19:53:24.011644 27756 net.cpp:124] Setting up relu1
I0428 19:53:24.011653 27756 net.cpp:131] Top shape: 64 25 (1600)
I0428 19:53:24.011656 27756 net.cpp:139] Memory required for data: 2159360
I0428 19:53:24.011659 27756 layer_factory.hpp:77] Creating layer ip2
I0428 19:53:24.011667 27756 net.cpp:86] Creating Layer ip2
I0428 19:53:24.011670 27756 net.cpp:408] ip2 <- ip1
I0428 19:53:24.011675 27756 net.cpp:382] ip2 -> ip2
I0428 19:53:24.011771 27756 net.cpp:124] Setting up ip2
I0428 19:53:24.011778 27756 net.cpp:131] Top shape: 64 10 (640)
I0428 19:53:24.011780 27756 net.cpp:139] Memory required for data: 2161920
I0428 19:53:24.011785 27756 layer_factory.hpp:77] Creating layer relu2
I0428 19:53:24.011792 27756 net.cpp:86] Creating Layer relu2
I0428 19:53:24.011795 27756 net.cpp:408] relu2 <- ip2
I0428 19:53:24.011801 27756 net.cpp:369] relu2 -> ip2 (in-place)
I0428 19:53:24.012555 27756 net.cpp:124] Setting up relu2
I0428 19:53:24.012567 27756 net.cpp:131] Top shape: 64 10 (640)
I0428 19:53:24.012588 27756 net.cpp:139] Memory required for data: 2164480
I0428 19:53:24.012590 27756 layer_factory.hpp:77] Creating layer ip3
I0428 19:53:24.012599 27756 net.cpp:86] Creating Layer ip3
I0428 19:53:24.012604 27756 net.cpp:408] ip3 <- ip2
I0428 19:53:24.012612 27756 net.cpp:382] ip3 -> ip3
I0428 19:53:24.012740 27756 net.cpp:124] Setting up ip3
I0428 19:53:24.012749 27756 net.cpp:131] Top shape: 64 10 (640)
I0428 19:53:24.012753 27756 net.cpp:139] Memory required for data: 2167040
I0428 19:53:24.012760 27756 layer_factory.hpp:77] Creating layer relu3
I0428 19:53:24.012768 27756 net.cpp:86] Creating Layer relu3
I0428 19:53:24.012774 27756 net.cpp:408] relu3 <- ip3
I0428 19:53:24.012779 27756 net.cpp:369] relu3 -> ip3 (in-place)
I0428 19:53:24.013007 27756 net.cpp:124] Setting up relu3
I0428 19:53:24.013017 27756 net.cpp:131] Top shape: 64 10 (640)
I0428 19:53:24.013021 27756 net.cpp:139] Memory required for data: 2169600
I0428 19:53:24.013025 27756 layer_factory.hpp:77] Creating layer loss
I0428 19:53:24.013031 27756 net.cpp:86] Creating Layer loss
I0428 19:53:24.013034 27756 net.cpp:408] loss <- ip3
I0428 19:53:24.013039 27756 net.cpp:408] loss <- label
I0428 19:53:24.013044 27756 net.cpp:382] loss -> loss
I0428 19:53:24.013062 27756 layer_factory.hpp:77] Creating layer loss
…
I0428 19:53:24.013891 27756 solver.cpp:173] Creating test net (#0) specified by net file: ECE595/mnist/train_test/var_everything2/lenet_train_test686.prototxt
I0428 19:53:24.013934 27756 net.cpp:296] The NetState phase (1) differed from the phase (0) specified by a rule in layer mnist
I0428 19:53:24.014026 27756 net.cpp:53] Initializing net from parameters: 
name: "LeNet"
state {
  phase: TEST
}
layer {
  name: "mnist"
  type: "Data"
  top: "data"
  top: "label"
  include {
    phase: TEST
  }
  transform_param {
    scale: 0.00390625
  }
  data_param {
    source: "examples/mnist/mnist_test_lmdb"
    batch_size: 100
    backend: LMDB
  }
}
layer {
  name: "conv0"
  type: "Convolution"
  bottom: "data"
  top: "conv0"
  param {
    lr_mult: 1
  }
  param {
    lr_mult: 2
  }
  convolution_param {
    num_output: 5
    kernel_size: 5
    stride: 1
    weight_filler {
      type: "xavier"
    }
    bias_filler {
      type: "constant"
    }
  }
}
layer {
  name: "pool0"
  type: "Pooling"
  bottom: "conv0"
  top: "pool0"
  pooling_param {
    pool: MAX
    kernel_size: 2
    stride: 2
  }
}
layer {
  name: "conv1"
  type: "Convolution"
  bottom: "pool0"
  top: "conv1"
  param {
    lr_mult: 1
  }
  param {
    lr_mult: 2
  }
  convolution_param {
    num_output: 50
    kernel_size: 5
    stride: 1
    weight_filler {
      type: "xavier"
    }
    bias_filler {
      type: "constant"
    }
  }
}
layer {
  name: "pool1"
  type: "Pooling"
  bottom: "conv1"
  top: "pool1"
  pooling_param {
    pool: MAX
    kernel_size: 2
    stride: 2
  }
}
layer {
  name: "ip1"
  type: "InnerProduct"
  bottom: "pool1"
  top: "ip1"
  param {
    lr_mult: 1
  }
  param {
    lr_mult: 2
  }
  inner_product_param {
    num_output: 25
    weight_filler {
      type: "xavier"
    }
    bias_filler {
      type: "constant"
    }
  }
}
layer {
  name: "relu1"
  type: "ReLU"
  bottom: "ip1"
  top: "ip1"
}
layer {
  name: "ip2"
  type: "InnerProduct"
  bottom: "ip1"
  top: "ip2"
  param {
    lr_mult: 1
  }
  param {
    lr_mult: 2
  }
  inner_product_param {
    num_output: 10
    weight_filler {
      type: "xavier"
    }
    bias_filler {
      type: "constant"
    }
  }
}
layer {
  name: "relu2"
  type: "ReLU"
  bottom: "ip2"
  top: "ip2"
}
layer {
  name: "ip3"
  type: "InnerProduct"
  bottom: "ip2"
  top: "ip3"
  param {
    lr_mult: 1
  }
  param {
    lr_mult: 2
  }
  inner_product_param {
    num_output: 10
    weight_filler {
      type: "xavier"
    }
    bias_filler {
      type: "constant"
    }
  }
}
layer {
  name: "relu3"
  type: "ReLU"
  bottom: "ip3"
  top: "ip3"
}
layer {
  name: "accuracy"
  type: "Accuracy"
  bottom: "ip3"
  bottom: "label"
  top: "accuracy"
  include {
    phase: TEST
  }
}
layer {
  name: "loss"
  type: "SoftmaxWithLoss"
  bottom: "ip3"
  bottom: "label"
  top: "loss"
}
I0428 19:53:24.014107 27756 layer_factory.hpp:77] Creating layer mnist
I0428 19:53:24.014156 27756 db_lmdb.cpp:35] Opened lmdb examples/mnist/mnist_test_lmdb
I0428 19:53:24.014168 27756 net.cpp:86] Creating Layer mnist
I0428 19:53:24.014175 27756 net.cpp:382] mnist -> data
I0428 19:53:24.014183 27756 net.cpp:382] mnist -> label
I0428 19:53:24.014286 27756 data_layer.cpp:45] output data size: 100,1,28,28
I0428 19:53:24.016528 27756 net.cpp:124] Setting up mnist
I0428 19:53:24.016558 27756 net.cpp:131] Top shape: 100 1 28 28 (78400)
I0428 19:53:24.016564 27756 net.cpp:131] Top shape: 100 (100)
I0428 19:53:24.016567 27756 net.cpp:139] Memory required for data: 314000
I0428 19:53:24.016571 27756 layer_factory.hpp:77] Creating layer label_mnist_1_split
I0428 19:53:24.016597 27756 net.cpp:86] Creating Layer label_mnist_1_split
I0428 19:53:24.016600 27756 net.cpp:408] label_mnist_1_split <- label
I0428 19:53:24.016607 27756 net.cpp:382] label_mnist_1_split -> label_mnist_1_split_0
I0428 19:53:24.016629 27756 net.cpp:382] label_mnist_1_split -> label_mnist_1_split_1
I0428 19:53:24.016727 27756 net.cpp:124] Setting up label_mnist_1_split
I0428 19:53:24.016736 27756 net.cpp:131] Top shape: 100 (100)
I0428 19:53:24.016739 27756 net.cpp:131] Top shape: 100 (100)
I0428 19:53:24.016742 27756 net.cpp:139] Memory required for data: 314800
I0428 19:53:24.016759 27756 layer_factory.hpp:77] Creating layer conv0
I0428 19:53:24.016770 27756 net.cpp:86] Creating Layer conv0
I0428 19:53:24.016773 27756 net.cpp:408] conv0 <- data
I0428 19:53:24.016778 27756 net.cpp:382] conv0 -> conv0
I0428 19:53:24.018389 27756 net.cpp:124] Setting up conv0
I0428 19:53:24.018404 27756 net.cpp:131] Top shape: 100 5 24 24 (288000)
I0428 19:53:24.018409 27756 net.cpp:139] Memory required for data: 1466800
I0428 19:53:24.018417 27756 layer_factory.hpp:77] Creating layer pool0
I0428 19:53:24.018424 27756 net.cpp:86] Creating Layer pool0
I0428 19:53:24.018429 27756 net.cpp:408] pool0 <- conv0
I0428 19:53:24.018434 27756 net.cpp:382] pool0 -> pool0
I0428 19:53:24.018476 27756 net.cpp:124] Setting up pool0
I0428 19:53:24.018482 27756 net.cpp:131] Top shape: 100 5 12 12 (72000)
I0428 19:53:24.018484 27756 net.cpp:139] Memory required for data: 1754800
I0428 19:53:24.018487 27756 layer_factory.hpp:77] Creating layer conv1
I0428 19:53:24.018497 27756 net.cpp:86] Creating Layer conv1
I0428 19:53:24.018501 27756 net.cpp:408] conv1 <- pool0
I0428 19:53:24.018507 27756 net.cpp:382] conv1 -> conv1
I0428 19:53:24.020243 27756 net.cpp:124] Setting up conv1
I0428 19:53:24.020259 27756 net.cpp:131] Top shape: 100 50 8 8 (320000)
I0428 19:53:24.020262 27756 net.cpp:139] Memory required for data: 3034800
I0428 19:53:24.020288 27756 layer_factory.hpp:77] Creating layer pool1
I0428 19:53:24.020295 27756 net.cpp:86] Creating Layer pool1
I0428 19:53:24.020298 27756 net.cpp:408] pool1 <- conv1
I0428 19:53:24.020305 27756 net.cpp:382] pool1 -> pool1
I0428 19:53:24.020341 27756 net.cpp:124] Setting up pool1
I0428 19:53:24.020349 27756 net.cpp:131] Top shape: 100 50 4 4 (80000)
I0428 19:53:24.020352 27756 net.cpp:139] Memory required for data: 3354800
I0428 19:53:24.020355 27756 layer_factory.hpp:77] Creating layer ip1
I0428 19:53:24.020361 27756 net.cpp:86] Creating Layer ip1
I0428 19:53:24.020365 27756 net.cpp:408] ip1 <- pool1
I0428 19:53:24.020375 27756 net.cpp:382] ip1 -> ip1
I0428 19:53:24.020591 27756 net.cpp:124] Setting up ip1
I0428 19:53:24.020599 27756 net.cpp:131] Top shape: 100 25 (2500)
I0428 19:53:24.020612 27756 net.cpp:139] Memory required for data: 3364800
I0428 19:53:24.020619 27756 layer_factory.hpp:77] Creating layer relu1
I0428 19:53:24.020627 27756 net.cpp:86] Creating Layer relu1
I0428 19:53:24.020629 27756 net.cpp:408] relu1 <- ip1
I0428 19:53:24.020637 27756 net.cpp:369] relu1 -> ip1 (in-place)
I0428 19:53:24.020956 27756 net.cpp:124] Setting up relu1
I0428 19:53:24.020967 27756 net.cpp:131] Top shape: 100 25 (2500)
I0428 19:53:24.020970 27756 net.cpp:139] Memory required for data: 3374800
I0428 19:53:24.020974 27756 layer_factory.hpp:77] Creating layer ip2
I0428 19:53:24.020983 27756 net.cpp:86] Creating Layer ip2
I0428 19:53:24.020987 27756 net.cpp:408] ip2 <- ip1
I0428 19:53:24.020994 27756 net.cpp:382] ip2 -> ip2
I0428 19:53:24.021114 27756 net.cpp:124] Setting up ip2
I0428 19:53:24.021122 27756 net.cpp:131] Top shape: 100 10 (1000)
I0428 19:53:24.021126 27756 net.cpp:139] Memory required for data: 3378800
I0428 19:53:24.021131 27756 layer_factory.hpp:77] Creating layer relu2
I0428 19:53:24.021136 27756 net.cpp:86] Creating Layer relu2
I0428 19:53:24.021140 27756 net.cpp:408] relu2 <- ip2
I0428 19:53:24.021144 27756 net.cpp:369] relu2 -> ip2 (in-place)
I0428 19:53:24.021378 27756 net.cpp:124] Setting up relu2
I0428 19:53:24.021389 27756 net.cpp:131] Top shape: 100 10 (1000)
I0428 19:53:24.021392 27756 net.cpp:139] Memory required for data: 3382800
I0428 19:53:24.021395 27756 layer_factory.hpp:77] Creating layer ip3
I0428 19:53:24.021401 27756 net.cpp:86] Creating Layer ip3
I0428 19:53:24.021404 27756 net.cpp:408] ip3 <- ip2
I0428 19:53:24.021410 27756 net.cpp:382] ip3 -> ip3
I0428 19:53:24.021523 27756 net.cpp:124] Setting up ip3
I0428 19:53:24.021531 27756 net.cpp:131] Top shape: 100 10 (1000)
I0428 19:53:24.021534 27756 net.cpp:139] Memory required for data: 3386800
I0428 19:53:24.021543 27756 layer_factory.hpp:77] Creating layer relu3
I0428 19:53:24.021546 27756 net.cpp:86] Creating Layer relu3
I0428 19:53:24.021559 27756 net.cpp:408] relu3 <- ip3
I0428 19:53:24.021564 27756 net.cpp:369] relu3 -> ip3 (in-place)
I0428 19:53:24.022413 27756 net.cpp:124] Setting up relu3
I0428 19:53:24.022433 27756 net.cpp:131] Top shape: 100 10 (1000)
I0428 19:53:24.022438 27756 net.cpp:139] Memory required for data: 3390800
I0428 19:53:24.022440 27756 layer_factory.hpp:77] Creating layer ip3_relu3_0_split
I0428 19:53:24.022445 27756 net.cpp:86] Creating Layer ip3_relu3_0_split
I0428 19:53:24.022449 27756 net.cpp:408] ip3_relu3_0_split <- ip3
I0428 19:53:24.022454 27756 net.cpp:382] ip3_relu3_0_split -> ip3_relu3_0_split_0
I0428 19:53:24.022460 27756 net.cpp:382] ip3_relu3_0_split -> ip3_relu3_0_split_1
I0428 19:53:24.022511 27756 net.cpp:124] Setting up ip3_relu3_0_split
I0428 19:53:24.022516 27756 net.cpp:131] Top shape: 100 10 (1000)
I0428 19:53:24.022519 27756 net.cpp:131] Top shape: 100 10 (1000)
I0428 19:53:24.022522 27756 net.cpp:139] Memory required for data: 3398800
I0428 19:53:24.022526 27756 layer_factory.hpp:77] Creating layer accuracy
I0428 19:53:24.022531 27756 net.cpp:86] Creating Layer accuracy
I0428 19:53:24.022534 27756 net.cpp:408] accuracy <- ip3_relu3_0_split_0
I0428 19:53:24.022538 27756 net.cpp:408] accuracy <- label_mnist_1_split_0
I0428 19:53:24.022544 27756 net.cpp:382] accuracy -> accuracy
…
