…
I0428 19:29:38.982576 22078 net.cpp:296] The NetState phase (0) differed from the phase (1) specified by a rule in layer mnist
I0428 19:29:38.982590 22078 net.cpp:296] The NetState phase (0) differed from the phase (1) specified by a rule in layer accuracy
I0428 19:29:38.982661 22078 net.cpp:53] Initializing net from parameters: 
name: "LeNet"
state {
  phase: TRAIN
  level: 0
  stage: ""
}
layer {
  name: "mnist"
  type: "Data"
  top: "data"
  top: "label"
  include {
    phase: TRAIN
  }
  transform_param {
    scale: 0.00390625
  }
  data_param {
    source: "examples/mnist/mnist_train_lmdb"
    batch_size: 64
    backend: LMDB
  }
}
layer {
  name: "conv0"
  type: "Convolution"
  bottom: "data"
  top: "conv0"
  param {
    lr_mult: 1
  }
  param {
    lr_mult: 2
  }
  convolution_param {
    num_output: 2
    kernel_size: 5
    stride: 1
    weight_filler {
      type: "xavier"
    }
    bias_filler {
      type: "constant"
    }
  }
}
layer {
  name: "pool0"
  type: "Pooling"
  bottom: "conv0"
  top: "pool0"
  pooling_param {
    pool: MAX
    kernel_size: 2
    stride: 2
  }
}
layer {
  name: "ip1"
  type: "InnerProduct"
  bottom: "pool0"
  top: "ip1"
  param {
    lr_mult: 1
  }
  param {
    lr_mult: 2
  }
  inner_product_param {
    num_output: 25
    weight_filler {
      type: "xavier"
    }
    bias_filler {
      type: "constant"
    }
  }
}
layer {
  name: "relu1"
  type: "ReLU"
  bottom: "ip1"
  top: "ip1"
}
layer {
  name: "ip2"
  type: "InnerProduct"
  bottom: "ip1"
  top: "ip2"
  param {
    lr_mult: 1
  }
  param {
    lr_mult: 2
  }
  inner_product_param {
    num_output: 25
    weight_filler {
      type: "xavier"
    }
    bias_filler {
      type: "constant"
    }
  }
}
layer {
  name: "relu2"
  type: "ReLU"
  bottom: "ip2"
  top: "ip2"
}
layer {
  name: "ip3"
  type: "InnerProduct"
  bottom: "ip2"
  top: "ip3"
  param {
    lr_mult: 1
  }
  param {
    lr_mult: 2
  }
  inner_product_param {
    num_output: 10
    weight_filler {
      type: "xavier"
    }
    bias_filler {
      type: "constant"
    }
  }
}
layer {
  name: "relu3"
  type: "ReLU"
  bottom: "ip3"
  top: "ip3"
}
layer {
  name: "loss"
  type: "SoftmaxWithLoss"
  bottom: "ip3"
  bottom: "label"
  top: "loss"
}
I0428 19:29:38.982719 22078 layer_factory.hpp:77] Creating layer mnist
I0428 19:29:38.982802 22078 db_lmdb.cpp:35] Opened lmdb examples/mnist/mnist_train_lmdb
I0428 19:29:38.982821 22078 net.cpp:86] Creating Layer mnist
I0428 19:29:38.982827 22078 net.cpp:382] mnist -> data
I0428 19:29:38.982846 22078 net.cpp:382] mnist -> label
I0428 19:29:38.983808 22078 data_layer.cpp:45] output data size: 64,1,28,28
I0428 19:29:38.986110 22078 net.cpp:124] Setting up mnist
I0428 19:29:38.986141 22078 net.cpp:131] Top shape: 64 1 28 28 (50176)
I0428 19:29:38.986147 22078 net.cpp:131] Top shape: 64 (64)
I0428 19:29:38.986150 22078 net.cpp:139] Memory required for data: 200960
I0428 19:29:38.986156 22078 layer_factory.hpp:77] Creating layer conv0
I0428 19:29:38.986187 22078 net.cpp:86] Creating Layer conv0
I0428 19:29:38.986192 22078 net.cpp:408] conv0 <- data
I0428 19:29:38.986203 22078 net.cpp:382] conv0 -> conv0
I0428 19:29:39.216673 22078 net.cpp:124] Setting up conv0
I0428 19:29:39.216714 22078 net.cpp:131] Top shape: 64 2 24 24 (73728)
I0428 19:29:39.216718 22078 net.cpp:139] Memory required for data: 495872
I0428 19:29:39.216733 22078 layer_factory.hpp:77] Creating layer pool0
I0428 19:29:39.216747 22078 net.cpp:86] Creating Layer pool0
I0428 19:29:39.216785 22078 net.cpp:408] pool0 <- conv0
I0428 19:29:39.216792 22078 net.cpp:382] pool0 -> pool0
I0428 19:29:39.216856 22078 net.cpp:124] Setting up pool0
I0428 19:29:39.216867 22078 net.cpp:131] Top shape: 64 2 12 12 (18432)
I0428 19:29:39.216872 22078 net.cpp:139] Memory required for data: 569600
I0428 19:29:39.216877 22078 layer_factory.hpp:77] Creating layer ip1
I0428 19:29:39.216887 22078 net.cpp:86] Creating Layer ip1
I0428 19:29:39.216892 22078 net.cpp:408] ip1 <- pool0
I0428 19:29:39.216897 22078 net.cpp:382] ip1 -> ip1
I0428 19:29:39.217926 22078 net.cpp:124] Setting up ip1
I0428 19:29:39.217954 22078 net.cpp:131] Top shape: 64 25 (1600)
I0428 19:29:39.217958 22078 net.cpp:139] Memory required for data: 576000
I0428 19:29:39.217967 22078 layer_factory.hpp:77] Creating layer relu1
I0428 19:29:39.217977 22078 net.cpp:86] Creating Layer relu1
I0428 19:29:39.217979 22078 net.cpp:408] relu1 <- ip1
I0428 19:29:39.217984 22078 net.cpp:369] relu1 -> ip1 (in-place)
I0428 19:29:39.218204 22078 net.cpp:124] Setting up relu1
I0428 19:29:39.218211 22078 net.cpp:131] Top shape: 64 25 (1600)
I0428 19:29:39.218215 22078 net.cpp:139] Memory required for data: 582400
I0428 19:29:39.218219 22078 layer_factory.hpp:77] Creating layer ip2
I0428 19:29:39.218225 22078 net.cpp:86] Creating Layer ip2
I0428 19:29:39.218227 22078 net.cpp:408] ip2 <- ip1
I0428 19:29:39.218232 22078 net.cpp:382] ip2 -> ip2
I0428 19:29:39.218322 22078 net.cpp:124] Setting up ip2
I0428 19:29:39.218330 22078 net.cpp:131] Top shape: 64 25 (1600)
I0428 19:29:39.218333 22078 net.cpp:139] Memory required for data: 588800
I0428 19:29:39.218340 22078 layer_factory.hpp:77] Creating layer relu2
I0428 19:29:39.218345 22078 net.cpp:86] Creating Layer relu2
I0428 19:29:39.218348 22078 net.cpp:408] relu2 <- ip2
I0428 19:29:39.218353 22078 net.cpp:369] relu2 -> ip2 (in-place)
I0428 19:29:39.219146 22078 net.cpp:124] Setting up relu2
I0428 19:29:39.219173 22078 net.cpp:131] Top shape: 64 25 (1600)
I0428 19:29:39.219177 22078 net.cpp:139] Memory required for data: 595200
I0428 19:29:39.219182 22078 layer_factory.hpp:77] Creating layer ip3
I0428 19:29:39.219188 22078 net.cpp:86] Creating Layer ip3
I0428 19:29:39.219192 22078 net.cpp:408] ip3 <- ip2
I0428 19:29:39.219213 22078 net.cpp:382] ip3 -> ip3
I0428 19:29:39.219331 22078 net.cpp:124] Setting up ip3
I0428 19:29:39.219339 22078 net.cpp:131] Top shape: 64 10 (640)
I0428 19:29:39.219343 22078 net.cpp:139] Memory required for data: 597760
I0428 19:29:39.219349 22078 layer_factory.hpp:77] Creating layer relu3
I0428 19:29:39.219355 22078 net.cpp:86] Creating Layer relu3
I0428 19:29:39.219359 22078 net.cpp:408] relu3 <- ip3
I0428 19:29:39.219363 22078 net.cpp:369] relu3 -> ip3 (in-place)
I0428 19:29:39.219542 22078 net.cpp:124] Setting up relu3
I0428 19:29:39.219549 22078 net.cpp:131] Top shape: 64 10 (640)
I0428 19:29:39.219552 22078 net.cpp:139] Memory required for data: 600320
I0428 19:29:39.219555 22078 layer_factory.hpp:77] Creating layer loss
I0428 19:29:39.219560 22078 net.cpp:86] Creating Layer loss
I0428 19:29:39.219563 22078 net.cpp:408] loss <- ip3
I0428 19:29:39.219568 22078 net.cpp:408] loss <- label
I0428 19:29:39.219573 22078 net.cpp:382] loss -> loss
I0428 19:29:39.219590 22078 layer_factory.hpp:77] Creating layer loss
…
I0428 19:29:39.220284 22078 solver.cpp:173] Creating test net (#0) specified by net file: ECE595/mnist/train_test/var_everything2/lenet_train_test65.prototxt
I0428 19:29:39.220353 22078 net.cpp:296] The NetState phase (1) differed from the phase (0) specified by a rule in layer mnist
I0428 19:29:39.220435 22078 net.cpp:53] Initializing net from parameters: 
name: "LeNet"
state {
  phase: TEST
}
layer {
  name: "mnist"
  type: "Data"
  top: "data"
  top: "label"
  include {
    phase: TEST
  }
  transform_param {
    scale: 0.00390625
  }
  data_param {
    source: "examples/mnist/mnist_test_lmdb"
    batch_size: 100
    backend: LMDB
  }
}
layer {
  name: "conv0"
  type: "Convolution"
  bottom: "data"
  top: "conv0"
  param {
    lr_mult: 1
  }
  param {
    lr_mult: 2
  }
  convolution_param {
    num_output: 2
    kernel_size: 5
    stride: 1
    weight_filler {
      type: "xavier"
    }
    bias_filler {
      type: "constant"
    }
  }
}
layer {
  name: "pool0"
  type: "Pooling"
  bottom: "conv0"
  top: "pool0"
  pooling_param {
    pool: MAX
    kernel_size: 2
    stride: 2
  }
}
layer {
  name: "ip1"
  type: "InnerProduct"
  bottom: "pool0"
  top: "ip1"
  param {
    lr_mult: 1
  }
  param {
    lr_mult: 2
  }
  inner_product_param {
    num_output: 25
    weight_filler {
      type: "xavier"
    }
    bias_filler {
      type: "constant"
    }
  }
}
layer {
  name: "relu1"
  type: "ReLU"
  bottom: "ip1"
  top: "ip1"
}
layer {
  name: "ip2"
  type: "InnerProduct"
  bottom: "ip1"
  top: "ip2"
  param {
    lr_mult: 1
  }
  param {
    lr_mult: 2
  }
  inner_product_param {
    num_output: 25
    weight_filler {
      type: "xavier"
    }
    bias_filler {
      type: "constant"
    }
  }
}
layer {
  name: "relu2"
  type: "ReLU"
  bottom: "ip2"
  top: "ip2"
}
layer {
  name: "ip3"
  type: "InnerProduct"
  bottom: "ip2"
  top: "ip3"
  param {
    lr_mult: 1
  }
  param {
    lr_mult: 2
  }
  inner_product_param {
    num_output: 10
    weight_filler {
      type: "xavier"
    }
    bias_filler {
      type: "constant"
    }
  }
}
layer {
  name: "relu3"
  type: "ReLU"
  bottom: "ip3"
  top: "ip3"
}
layer {
  name: "accuracy"
  type: "Accuracy"
  bottom: "ip3"
  bottom: "label"
  top: "accuracy"
  include {
    phase: TEST
  }
}
layer {
  name: "loss"
  type: "SoftmaxWithLoss"
  bottom: "ip3"
  bottom: "label"
  top: "loss"
}
I0428 19:29:39.220516 22078 layer_factory.hpp:77] Creating layer mnist
I0428 19:29:39.220578 22078 db_lmdb.cpp:35] Opened lmdb examples/mnist/mnist_test_lmdb
I0428 19:29:39.220592 22078 net.cpp:86] Creating Layer mnist
I0428 19:29:39.220597 22078 net.cpp:382] mnist -> data
I0428 19:29:39.220604 22078 net.cpp:382] mnist -> label
I0428 19:29:39.220705 22078 data_layer.cpp:45] output data size: 100,1,28,28
I0428 19:29:39.222806 22078 net.cpp:124] Setting up mnist
I0428 19:29:39.222821 22078 net.cpp:131] Top shape: 100 1 28 28 (78400)
I0428 19:29:39.222827 22078 net.cpp:131] Top shape: 100 (100)
I0428 19:29:39.222831 22078 net.cpp:139] Memory required for data: 314000
I0428 19:29:39.222834 22078 layer_factory.hpp:77] Creating layer label_mnist_1_split
I0428 19:29:39.222843 22078 net.cpp:86] Creating Layer label_mnist_1_split
I0428 19:29:39.222847 22078 net.cpp:408] label_mnist_1_split <- label
I0428 19:29:39.222852 22078 net.cpp:382] label_mnist_1_split -> label_mnist_1_split_0
I0428 19:29:39.222859 22078 net.cpp:382] label_mnist_1_split -> label_mnist_1_split_1
I0428 19:29:39.222915 22078 net.cpp:124] Setting up label_mnist_1_split
I0428 19:29:39.222921 22078 net.cpp:131] Top shape: 100 (100)
I0428 19:29:39.222925 22078 net.cpp:131] Top shape: 100 (100)
I0428 19:29:39.222929 22078 net.cpp:139] Memory required for data: 314800
I0428 19:29:39.222942 22078 layer_factory.hpp:77] Creating layer conv0
I0428 19:29:39.222952 22078 net.cpp:86] Creating Layer conv0
I0428 19:29:39.222956 22078 net.cpp:408] conv0 <- data
I0428 19:29:39.222961 22078 net.cpp:382] conv0 -> conv0
I0428 19:29:39.224784 22078 net.cpp:124] Setting up conv0
I0428 19:29:39.224797 22078 net.cpp:131] Top shape: 100 2 24 24 (115200)
I0428 19:29:39.224802 22078 net.cpp:139] Memory required for data: 775600
I0428 19:29:39.224831 22078 layer_factory.hpp:77] Creating layer pool0
I0428 19:29:39.224849 22078 net.cpp:86] Creating Layer pool0
I0428 19:29:39.224853 22078 net.cpp:408] pool0 <- conv0
I0428 19:29:39.224858 22078 net.cpp:382] pool0 -> pool0
I0428 19:29:39.224897 22078 net.cpp:124] Setting up pool0
I0428 19:29:39.224902 22078 net.cpp:131] Top shape: 100 2 12 12 (28800)
I0428 19:29:39.224905 22078 net.cpp:139] Memory required for data: 890800
I0428 19:29:39.224908 22078 layer_factory.hpp:77] Creating layer ip1
I0428 19:29:39.224915 22078 net.cpp:86] Creating Layer ip1
I0428 19:29:39.224920 22078 net.cpp:408] ip1 <- pool0
I0428 19:29:39.224925 22078 net.cpp:382] ip1 -> ip1
I0428 19:29:39.225061 22078 net.cpp:124] Setting up ip1
I0428 19:29:39.225069 22078 net.cpp:131] Top shape: 100 25 (2500)
I0428 19:29:39.225073 22078 net.cpp:139] Memory required for data: 900800
I0428 19:29:39.225080 22078 layer_factory.hpp:77] Creating layer relu1
I0428 19:29:39.225085 22078 net.cpp:86] Creating Layer relu1
I0428 19:29:39.225088 22078 net.cpp:408] relu1 <- ip1
I0428 19:29:39.225092 22078 net.cpp:369] relu1 -> ip1 (in-place)
I0428 19:29:39.225317 22078 net.cpp:124] Setting up relu1
I0428 19:29:39.225324 22078 net.cpp:131] Top shape: 100 25 (2500)
I0428 19:29:39.225328 22078 net.cpp:139] Memory required for data: 910800
I0428 19:29:39.225332 22078 layer_factory.hpp:77] Creating layer ip2
I0428 19:29:39.225337 22078 net.cpp:86] Creating Layer ip2
I0428 19:29:39.225340 22078 net.cpp:408] ip2 <- ip1
I0428 19:29:39.225345 22078 net.cpp:382] ip2 -> ip2
I0428 19:29:39.225461 22078 net.cpp:124] Setting up ip2
I0428 19:29:39.225468 22078 net.cpp:131] Top shape: 100 25 (2500)
I0428 19:29:39.225471 22078 net.cpp:139] Memory required for data: 920800
I0428 19:29:39.225479 22078 layer_factory.hpp:77] Creating layer relu2
I0428 19:29:39.225483 22078 net.cpp:86] Creating Layer relu2
I0428 19:29:39.225486 22078 net.cpp:408] relu2 <- ip2
I0428 19:29:39.225491 22078 net.cpp:369] relu2 -> ip2 (in-place)
I0428 19:29:39.226372 22078 net.cpp:124] Setting up relu2
I0428 19:29:39.226385 22078 net.cpp:131] Top shape: 100 25 (2500)
I0428 19:29:39.226388 22078 net.cpp:139] Memory required for data: 930800
I0428 19:29:39.226392 22078 layer_factory.hpp:77] Creating layer ip3
I0428 19:29:39.226400 22078 net.cpp:86] Creating Layer ip3
I0428 19:29:39.226403 22078 net.cpp:408] ip3 <- ip2
I0428 19:29:39.226409 22078 net.cpp:382] ip3 -> ip3
I0428 19:29:39.226543 22078 net.cpp:124] Setting up ip3
I0428 19:29:39.226553 22078 net.cpp:131] Top shape: 100 10 (1000)
I0428 19:29:39.226557 22078 net.cpp:139] Memory required for data: 934800
I0428 19:29:39.226563 22078 layer_factory.hpp:77] Creating layer relu3
I0428 19:29:39.226568 22078 net.cpp:86] Creating Layer relu3
I0428 19:29:39.226572 22078 net.cpp:408] relu3 <- ip3
I0428 19:29:39.226575 22078 net.cpp:369] relu3 -> ip3 (in-place)
I0428 19:29:39.226744 22078 net.cpp:124] Setting up relu3
I0428 19:29:39.226753 22078 net.cpp:131] Top shape: 100 10 (1000)
I0428 19:29:39.226758 22078 net.cpp:139] Memory required for data: 938800
I0428 19:29:39.226760 22078 layer_factory.hpp:77] Creating layer ip3_relu3_0_split
I0428 19:29:39.226765 22078 net.cpp:86] Creating Layer ip3_relu3_0_split
I0428 19:29:39.226768 22078 net.cpp:408] ip3_relu3_0_split <- ip3
I0428 19:29:39.226773 22078 net.cpp:382] ip3_relu3_0_split -> ip3_relu3_0_split_0
I0428 19:29:39.226779 22078 net.cpp:382] ip3_relu3_0_split -> ip3_relu3_0_split_1
I0428 19:29:39.226814 22078 net.cpp:124] Setting up ip3_relu3_0_split
I0428 19:29:39.226819 22078 net.cpp:131] Top shape: 100 10 (1000)
I0428 19:29:39.226822 22078 net.cpp:131] Top shape: 100 10 (1000)
I0428 19:29:39.226841 22078 net.cpp:139] Memory required for data: 946800
I0428 19:29:39.226845 22078 layer_factory.hpp:77] Creating layer accuracy
I0428 19:29:39.226855 22078 net.cpp:86] Creating Layer accuracy
I0428 19:29:39.226858 22078 net.cpp:408] accuracy <- ip3_relu3_0_split_0
I0428 19:29:39.226863 22078 net.cpp:408] accuracy <- label_mnist_1_split_0
I0428 19:29:39.226868 22078 net.cpp:382] accuracy -> accuracy
…
