…
I0428 19:45:06.598222 25739 net.cpp:296] The NetState phase (0) differed from the phase (1) specified by a rule in layer mnist
I0428 19:45:06.598237 25739 net.cpp:296] The NetState phase (0) differed from the phase (1) specified by a rule in layer accuracy
I0428 19:45:06.598315 25739 net.cpp:53] Initializing net from parameters: 
name: "LeNet"
state {
  phase: TRAIN
  level: 0
  stage: ""
}
layer {
  name: "mnist"
  type: "Data"
  top: "data"
  top: "label"
  include {
    phase: TRAIN
  }
  transform_param {
    scale: 0.00390625
  }
  data_param {
    source: "examples/mnist/mnist_train_lmdb"
    batch_size: 64
    backend: LMDB
  }
}
layer {
  name: "conv0"
  type: "Convolution"
  bottom: "data"
  top: "conv0"
  param {
    lr_mult: 1
  }
  param {
    lr_mult: 2
  }
  convolution_param {
    num_output: 2
    kernel_size: 5
    stride: 1
    weight_filler {
      type: "xavier"
    }
    bias_filler {
      type: "constant"
    }
  }
}
layer {
  name: "pool0"
  type: "Pooling"
  bottom: "conv0"
  top: "pool0"
  pooling_param {
    pool: MAX
    kernel_size: 2
    stride: 2
  }
}
layer {
  name: "conv1"
  type: "Convolution"
  bottom: "pool0"
  top: "conv1"
  param {
    lr_mult: 1
  }
  param {
    lr_mult: 2
  }
  convolution_param {
    num_output: 50
    kernel_size: 5
    stride: 1
    weight_filler {
      type: "xavier"
    }
    bias_filler {
      type: "constant"
    }
  }
}
layer {
  name: "pool1"
  type: "Pooling"
  bottom: "conv1"
  top: "pool1"
  pooling_param {
    pool: MAX
    kernel_size: 2
    stride: 2
  }
}
layer {
  name: "ip1"
  type: "InnerProduct"
  bottom: "pool1"
  top: "ip1"
  param {
    lr_mult: 1
  }
  param {
    lr_mult: 2
  }
  inner_product_param {
    num_output: 50
    weight_filler {
      type: "xavier"
    }
    bias_filler {
      type: "constant"
    }
  }
}
layer {
  name: "relu1"
  type: "ReLU"
  bottom: "ip1"
  top: "ip1"
}
layer {
  name: "ip2"
  type: "InnerProduct"
  bottom: "ip1"
  top: "ip2"
  param {
    lr_mult: 1
  }
  param {
    lr_mult: 2
  }
  inner_product_param {
    num_output: 25
    weight_filler {
      type: "xavier"
    }
    bias_filler {
      type: "constant"
    }
  }
}
layer {
  name: "relu2"
  type: "ReLU"
  bottom: "ip2"
  top: "ip2"
}
layer {
  name: "ip3"
  type: "InnerProduct"
  bottom: "ip2"
  top: "ip3"
  param {
    lr_mult: 1
  }
  param {
    lr_mult: 2
  }
  inner_product_param {
    num_output: 10
    weight_filler {
      type: "xavier"
    }
    bias_filler {
      type: "constant"
    }
  }
}
layer {
  name: "relu3"
  type: "ReLU"
  bottom: "ip3"
  top: "ip3"
}
layer {
  name: "loss"
  type: "SoftmaxWithLoss"
  bottom: "ip3"
  bottom: "label"
  top: "loss"
}
I0428 19:45:06.598394 25739 layer_factory.hpp:77] Creating layer mnist
I0428 19:45:06.598479 25739 db_lmdb.cpp:35] Opened lmdb examples/mnist/mnist_train_lmdb
I0428 19:45:06.598498 25739 net.cpp:86] Creating Layer mnist
I0428 19:45:06.598507 25739 net.cpp:382] mnist -> data
I0428 19:45:06.598526 25739 net.cpp:382] mnist -> label
I0428 19:45:06.599436 25739 data_layer.cpp:45] output data size: 64,1,28,28
I0428 19:45:06.601609 25739 net.cpp:124] Setting up mnist
I0428 19:45:06.601656 25739 net.cpp:131] Top shape: 64 1 28 28 (50176)
I0428 19:45:06.601676 25739 net.cpp:131] Top shape: 64 (64)
I0428 19:45:06.601680 25739 net.cpp:139] Memory required for data: 200960
I0428 19:45:06.601686 25739 layer_factory.hpp:77] Creating layer conv0
I0428 19:45:06.601701 25739 net.cpp:86] Creating Layer conv0
I0428 19:45:06.601717 25739 net.cpp:408] conv0 <- data
I0428 19:45:06.601727 25739 net.cpp:382] conv0 -> conv0
I0428 19:45:06.825197 25739 net.cpp:124] Setting up conv0
I0428 19:45:06.825222 25739 net.cpp:131] Top shape: 64 2 24 24 (73728)
I0428 19:45:06.825227 25739 net.cpp:139] Memory required for data: 495872
I0428 19:45:06.825239 25739 layer_factory.hpp:77] Creating layer pool0
I0428 19:45:06.825253 25739 net.cpp:86] Creating Layer pool0
I0428 19:45:06.825256 25739 net.cpp:408] pool0 <- conv0
I0428 19:45:06.825260 25739 net.cpp:382] pool0 -> pool0
I0428 19:45:06.825320 25739 net.cpp:124] Setting up pool0
I0428 19:45:06.825340 25739 net.cpp:131] Top shape: 64 2 12 12 (18432)
I0428 19:45:06.825343 25739 net.cpp:139] Memory required for data: 569600
I0428 19:45:06.825346 25739 layer_factory.hpp:77] Creating layer conv1
I0428 19:45:06.825358 25739 net.cpp:86] Creating Layer conv1
I0428 19:45:06.825361 25739 net.cpp:408] conv1 <- pool0
I0428 19:45:06.825366 25739 net.cpp:382] conv1 -> conv1
I0428 19:45:06.828218 25739 net.cpp:124] Setting up conv1
I0428 19:45:06.828248 25739 net.cpp:131] Top shape: 64 50 8 8 (204800)
I0428 19:45:06.828251 25739 net.cpp:139] Memory required for data: 1388800
I0428 19:45:06.828259 25739 layer_factory.hpp:77] Creating layer pool1
I0428 19:45:06.828268 25739 net.cpp:86] Creating Layer pool1
I0428 19:45:06.828270 25739 net.cpp:408] pool1 <- conv1
I0428 19:45:06.828276 25739 net.cpp:382] pool1 -> pool1
I0428 19:45:06.828332 25739 net.cpp:124] Setting up pool1
I0428 19:45:06.828338 25739 net.cpp:131] Top shape: 64 50 4 4 (51200)
I0428 19:45:06.828341 25739 net.cpp:139] Memory required for data: 1593600
I0428 19:45:06.828343 25739 layer_factory.hpp:77] Creating layer ip1
I0428 19:45:06.828351 25739 net.cpp:86] Creating Layer ip1
I0428 19:45:06.828354 25739 net.cpp:408] ip1 <- pool1
I0428 19:45:06.828358 25739 net.cpp:382] ip1 -> ip1
I0428 19:45:06.828701 25739 net.cpp:124] Setting up ip1
I0428 19:45:06.828709 25739 net.cpp:131] Top shape: 64 50 (3200)
I0428 19:45:06.828727 25739 net.cpp:139] Memory required for data: 1606400
I0428 19:45:06.828734 25739 layer_factory.hpp:77] Creating layer relu1
I0428 19:45:06.828739 25739 net.cpp:86] Creating Layer relu1
I0428 19:45:06.828742 25739 net.cpp:408] relu1 <- ip1
I0428 19:45:06.828749 25739 net.cpp:369] relu1 -> ip1 (in-place)
I0428 19:45:06.828994 25739 net.cpp:124] Setting up relu1
I0428 19:45:06.829005 25739 net.cpp:131] Top shape: 64 50 (3200)
I0428 19:45:06.829007 25739 net.cpp:139] Memory required for data: 1619200
I0428 19:45:06.829010 25739 layer_factory.hpp:77] Creating layer ip2
I0428 19:45:06.829018 25739 net.cpp:86] Creating Layer ip2
I0428 19:45:06.829021 25739 net.cpp:408] ip2 <- ip1
I0428 19:45:06.829026 25739 net.cpp:382] ip2 -> ip2
I0428 19:45:06.829167 25739 net.cpp:124] Setting up ip2
I0428 19:45:06.829174 25739 net.cpp:131] Top shape: 64 25 (1600)
I0428 19:45:06.829177 25739 net.cpp:139] Memory required for data: 1625600
I0428 19:45:06.829182 25739 layer_factory.hpp:77] Creating layer relu2
I0428 19:45:06.829203 25739 net.cpp:86] Creating Layer relu2
I0428 19:45:06.829206 25739 net.cpp:408] relu2 <- ip2
I0428 19:45:06.829210 25739 net.cpp:369] relu2 -> ip2 (in-place)
I0428 19:45:06.830041 25739 net.cpp:124] Setting up relu2
I0428 19:45:06.830054 25739 net.cpp:131] Top shape: 64 25 (1600)
I0428 19:45:06.830073 25739 net.cpp:139] Memory required for data: 1632000
I0428 19:45:06.830076 25739 layer_factory.hpp:77] Creating layer ip3
I0428 19:45:06.830083 25739 net.cpp:86] Creating Layer ip3
I0428 19:45:06.830087 25739 net.cpp:408] ip3 <- ip2
I0428 19:45:06.830093 25739 net.cpp:382] ip3 -> ip3
I0428 19:45:06.830211 25739 net.cpp:124] Setting up ip3
I0428 19:45:06.830219 25739 net.cpp:131] Top shape: 64 10 (640)
I0428 19:45:06.830222 25739 net.cpp:139] Memory required for data: 1634560
I0428 19:45:06.830231 25739 layer_factory.hpp:77] Creating layer relu3
I0428 19:45:06.830236 25739 net.cpp:86] Creating Layer relu3
I0428 19:45:06.830240 25739 net.cpp:408] relu3 <- ip3
I0428 19:45:06.830245 25739 net.cpp:369] relu3 -> ip3 (in-place)
I0428 19:45:06.830416 25739 net.cpp:124] Setting up relu3
I0428 19:45:06.830425 25739 net.cpp:131] Top shape: 64 10 (640)
I0428 19:45:06.830427 25739 net.cpp:139] Memory required for data: 1637120
I0428 19:45:06.830431 25739 layer_factory.hpp:77] Creating layer loss
I0428 19:45:06.830436 25739 net.cpp:86] Creating Layer loss
I0428 19:45:06.830440 25739 net.cpp:408] loss <- ip3
I0428 19:45:06.830456 25739 net.cpp:408] loss <- label
I0428 19:45:06.830461 25739 net.cpp:382] loss -> loss
I0428 19:45:06.830474 25739 layer_factory.hpp:77] Creating layer loss
…
I0428 19:45:06.831199 25739 solver.cpp:173] Creating test net (#0) specified by net file: ECE595/mnist/train_test/var_everything2/lenet_train_test464.prototxt
I0428 19:45:06.831239 25739 net.cpp:296] The NetState phase (1) differed from the phase (0) specified by a rule in layer mnist
I0428 19:45:06.831327 25739 net.cpp:53] Initializing net from parameters: 
name: "LeNet"
state {
  phase: TEST
}
layer {
  name: "mnist"
  type: "Data"
  top: "data"
  top: "label"
  include {
    phase: TEST
  }
  transform_param {
    scale: 0.00390625
  }
  data_param {
    source: "examples/mnist/mnist_test_lmdb"
    batch_size: 100
    backend: LMDB
  }
}
layer {
  name: "conv0"
  type: "Convolution"
  bottom: "data"
  top: "conv0"
  param {
    lr_mult: 1
  }
  param {
    lr_mult: 2
  }
  convolution_param {
    num_output: 2
    kernel_size: 5
    stride: 1
    weight_filler {
      type: "xavier"
    }
    bias_filler {
      type: "constant"
    }
  }
}
layer {
  name: "pool0"
  type: "Pooling"
  bottom: "conv0"
  top: "pool0"
  pooling_param {
    pool: MAX
    kernel_size: 2
    stride: 2
  }
}
layer {
  name: "conv1"
  type: "Convolution"
  bottom: "pool0"
  top: "conv1"
  param {
    lr_mult: 1
  }
  param {
    lr_mult: 2
  }
  convolution_param {
    num_output: 50
    kernel_size: 5
    stride: 1
    weight_filler {
      type: "xavier"
    }
    bias_filler {
      type: "constant"
    }
  }
}
layer {
  name: "pool1"
  type: "Pooling"
  bottom: "conv1"
  top: "pool1"
  pooling_param {
    pool: MAX
    kernel_size: 2
    stride: 2
  }
}
layer {
  name: "ip1"
  type: "InnerProduct"
  bottom: "pool1"
  top: "ip1"
  param {
    lr_mult: 1
  }
  param {
    lr_mult: 2
  }
  inner_product_param {
    num_output: 50
    weight_filler {
      type: "xavier"
    }
    bias_filler {
      type: "constant"
    }
  }
}
layer {
  name: "relu1"
  type: "ReLU"
  bottom: "ip1"
  top: "ip1"
}
layer {
  name: "ip2"
  type: "InnerProduct"
  bottom: "ip1"
  top: "ip2"
  param {
    lr_mult: 1
  }
  param {
    lr_mult: 2
  }
  inner_product_param {
    num_output: 25
    weight_filler {
      type: "xavier"
    }
    bias_filler {
      type: "constant"
    }
  }
}
layer {
  name: "relu2"
  type: "ReLU"
  bottom: "ip2"
  top: "ip2"
}
layer {
  name: "ip3"
  type: "InnerProduct"
  bottom: "ip2"
  top: "ip3"
  param {
    lr_mult: 1
  }
  param {
    lr_mult: 2
  }
  inner_product_param {
    num_output: 10
    weight_filler {
      type: "xavier"
    }
    bias_filler {
      type: "constant"
    }
  }
}
layer {
  name: "relu3"
  type: "ReLU"
  bottom: "ip3"
  top: "ip3"
}
layer {
  name: "accuracy"
  type: "Accuracy"
  bottom: "ip3"
  bottom: "label"
  top: "accuracy"
  include {
    phase: TEST
  }
}
layer {
  name: "loss"
  type: "SoftmaxWithLoss"
  bottom: "ip3"
  bottom: "label"
  top: "loss"
}
I0428 19:45:06.831424 25739 layer_factory.hpp:77] Creating layer mnist
I0428 19:45:06.831468 25739 db_lmdb.cpp:35] Opened lmdb examples/mnist/mnist_test_lmdb
I0428 19:45:06.831480 25739 net.cpp:86] Creating Layer mnist
I0428 19:45:06.831486 25739 net.cpp:382] mnist -> data
I0428 19:45:06.831493 25739 net.cpp:382] mnist -> label
I0428 19:45:06.831578 25739 data_layer.cpp:45] output data size: 100,1,28,28
I0428 19:45:06.833634 25739 net.cpp:124] Setting up mnist
I0428 19:45:06.833663 25739 net.cpp:131] Top shape: 100 1 28 28 (78400)
I0428 19:45:06.833668 25739 net.cpp:131] Top shape: 100 (100)
I0428 19:45:06.833672 25739 net.cpp:139] Memory required for data: 314000
I0428 19:45:06.833674 25739 layer_factory.hpp:77] Creating layer label_mnist_1_split
I0428 19:45:06.833705 25739 net.cpp:86] Creating Layer label_mnist_1_split
I0428 19:45:06.833709 25739 net.cpp:408] label_mnist_1_split <- label
I0428 19:45:06.833714 25739 net.cpp:382] label_mnist_1_split -> label_mnist_1_split_0
I0428 19:45:06.833720 25739 net.cpp:382] label_mnist_1_split -> label_mnist_1_split_1
I0428 19:45:06.833760 25739 net.cpp:124] Setting up label_mnist_1_split
I0428 19:45:06.833766 25739 net.cpp:131] Top shape: 100 (100)
I0428 19:45:06.833770 25739 net.cpp:131] Top shape: 100 (100)
I0428 19:45:06.833772 25739 net.cpp:139] Memory required for data: 314800
I0428 19:45:06.833775 25739 layer_factory.hpp:77] Creating layer conv0
I0428 19:45:06.833798 25739 net.cpp:86] Creating Layer conv0
I0428 19:45:06.833801 25739 net.cpp:408] conv0 <- data
I0428 19:45:06.833807 25739 net.cpp:382] conv0 -> conv0
I0428 19:45:06.835394 25739 net.cpp:124] Setting up conv0
I0428 19:45:06.835407 25739 net.cpp:131] Top shape: 100 2 24 24 (115200)
I0428 19:45:06.835412 25739 net.cpp:139] Memory required for data: 775600
I0428 19:45:06.835422 25739 layer_factory.hpp:77] Creating layer pool0
I0428 19:45:06.835427 25739 net.cpp:86] Creating Layer pool0
I0428 19:45:06.835430 25739 net.cpp:408] pool0 <- conv0
I0428 19:45:06.835435 25739 net.cpp:382] pool0 -> pool0
I0428 19:45:06.835469 25739 net.cpp:124] Setting up pool0
I0428 19:45:06.835474 25739 net.cpp:131] Top shape: 100 2 12 12 (28800)
I0428 19:45:06.835477 25739 net.cpp:139] Memory required for data: 890800
I0428 19:45:06.835480 25739 layer_factory.hpp:77] Creating layer conv1
I0428 19:45:06.835489 25739 net.cpp:86] Creating Layer conv1
I0428 19:45:06.835491 25739 net.cpp:408] conv1 <- pool0
I0428 19:45:06.835497 25739 net.cpp:382] conv1 -> conv1
I0428 19:45:06.837134 25739 net.cpp:124] Setting up conv1
I0428 19:45:06.837148 25739 net.cpp:131] Top shape: 100 50 8 8 (320000)
I0428 19:45:06.837152 25739 net.cpp:139] Memory required for data: 2170800
I0428 19:45:06.837162 25739 layer_factory.hpp:77] Creating layer pool1
I0428 19:45:06.837182 25739 net.cpp:86] Creating Layer pool1
I0428 19:45:06.837186 25739 net.cpp:408] pool1 <- conv1
I0428 19:45:06.837208 25739 net.cpp:382] pool1 -> pool1
I0428 19:45:06.837244 25739 net.cpp:124] Setting up pool1
I0428 19:45:06.837249 25739 net.cpp:131] Top shape: 100 50 4 4 (80000)
I0428 19:45:06.837260 25739 net.cpp:139] Memory required for data: 2490800
I0428 19:45:06.837262 25739 layer_factory.hpp:77] Creating layer ip1
I0428 19:45:06.837270 25739 net.cpp:86] Creating Layer ip1
I0428 19:45:06.837272 25739 net.cpp:408] ip1 <- pool1
I0428 19:45:06.837277 25739 net.cpp:382] ip1 -> ip1
I0428 19:45:06.837656 25739 net.cpp:124] Setting up ip1
I0428 19:45:06.837664 25739 net.cpp:131] Top shape: 100 50 (5000)
I0428 19:45:06.837677 25739 net.cpp:139] Memory required for data: 2510800
I0428 19:45:06.837685 25739 layer_factory.hpp:77] Creating layer relu1
I0428 19:45:06.837692 25739 net.cpp:86] Creating Layer relu1
I0428 19:45:06.837695 25739 net.cpp:408] relu1 <- ip1
I0428 19:45:06.837699 25739 net.cpp:369] relu1 -> ip1 (in-place)
I0428 19:45:06.837889 25739 net.cpp:124] Setting up relu1
I0428 19:45:06.837898 25739 net.cpp:131] Top shape: 100 50 (5000)
I0428 19:45:06.837900 25739 net.cpp:139] Memory required for data: 2530800
I0428 19:45:06.837903 25739 layer_factory.hpp:77] Creating layer ip2
I0428 19:45:06.837918 25739 net.cpp:86] Creating Layer ip2
I0428 19:45:06.837920 25739 net.cpp:408] ip2 <- ip1
I0428 19:45:06.837931 25739 net.cpp:382] ip2 -> ip2
I0428 19:45:06.838091 25739 net.cpp:124] Setting up ip2
I0428 19:45:06.838099 25739 net.cpp:131] Top shape: 100 25 (2500)
I0428 19:45:06.838101 25739 net.cpp:139] Memory required for data: 2540800
I0428 19:45:06.838106 25739 layer_factory.hpp:77] Creating layer relu2
I0428 19:45:06.838111 25739 net.cpp:86] Creating Layer relu2
I0428 19:45:06.838114 25739 net.cpp:408] relu2 <- ip2
I0428 19:45:06.838119 25739 net.cpp:369] relu2 -> ip2 (in-place)
I0428 19:45:06.838416 25739 net.cpp:124] Setting up relu2
I0428 19:45:06.838424 25739 net.cpp:131] Top shape: 100 25 (2500)
I0428 19:45:06.838428 25739 net.cpp:139] Memory required for data: 2550800
I0428 19:45:06.838430 25739 layer_factory.hpp:77] Creating layer ip3
I0428 19:45:06.838435 25739 net.cpp:86] Creating Layer ip3
I0428 19:45:06.838438 25739 net.cpp:408] ip3 <- ip2
I0428 19:45:06.838443 25739 net.cpp:382] ip3 -> ip3
I0428 19:45:06.838583 25739 net.cpp:124] Setting up ip3
I0428 19:45:06.838591 25739 net.cpp:131] Top shape: 100 10 (1000)
I0428 19:45:06.838594 25739 net.cpp:139] Memory required for data: 2554800
I0428 19:45:06.838603 25739 layer_factory.hpp:77] Creating layer relu3
I0428 19:45:06.838606 25739 net.cpp:86] Creating Layer relu3
I0428 19:45:06.838609 25739 net.cpp:408] relu3 <- ip3
I0428 19:45:06.838615 25739 net.cpp:369] relu3 -> ip3 (in-place)
I0428 19:45:06.839399 25739 net.cpp:124] Setting up relu3
I0428 19:45:06.839411 25739 net.cpp:131] Top shape: 100 10 (1000)
I0428 19:45:06.839414 25739 net.cpp:139] Memory required for data: 2558800
I0428 19:45:06.839418 25739 layer_factory.hpp:77] Creating layer ip3_relu3_0_split
I0428 19:45:06.839423 25739 net.cpp:86] Creating Layer ip3_relu3_0_split
I0428 19:45:06.839426 25739 net.cpp:408] ip3_relu3_0_split <- ip3
I0428 19:45:06.839432 25739 net.cpp:382] ip3_relu3_0_split -> ip3_relu3_0_split_0
I0428 19:45:06.839439 25739 net.cpp:382] ip3_relu3_0_split -> ip3_relu3_0_split_1
I0428 19:45:06.839481 25739 net.cpp:124] Setting up ip3_relu3_0_split
I0428 19:45:06.839488 25739 net.cpp:131] Top shape: 100 10 (1000)
I0428 19:45:06.839490 25739 net.cpp:131] Top shape: 100 10 (1000)
I0428 19:45:06.839493 25739 net.cpp:139] Memory required for data: 2566800
I0428 19:45:06.839496 25739 layer_factory.hpp:77] Creating layer accuracy
I0428 19:45:06.839503 25739 net.cpp:86] Creating Layer accuracy
I0428 19:45:06.839505 25739 net.cpp:408] accuracy <- ip3_relu3_0_split_0
I0428 19:45:06.839509 25739 net.cpp:408] accuracy <- label_mnist_1_split_0
I0428 19:45:06.839514 25739 net.cpp:382] accuracy -> accuracy
…
