…
I0428 19:45:16.354564 25771 net.cpp:296] The NetState phase (0) differed from the phase (1) specified by a rule in layer mnist
I0428 19:45:16.354584 25771 net.cpp:296] The NetState phase (0) differed from the phase (1) specified by a rule in layer accuracy
I0428 19:45:16.354676 25771 net.cpp:53] Initializing net from parameters: 
name: "LeNet"
state {
  phase: TRAIN
  level: 0
  stage: ""
}
layer {
  name: "mnist"
  type: "Data"
  top: "data"
  top: "label"
  include {
    phase: TRAIN
  }
  transform_param {
    scale: 0.00390625
  }
  data_param {
    source: "examples/mnist/mnist_train_lmdb"
    batch_size: 64
    backend: LMDB
  }
}
layer {
  name: "conv0"
  type: "Convolution"
  bottom: "data"
  top: "conv0"
  param {
    lr_mult: 1
  }
  param {
    lr_mult: 2
  }
  convolution_param {
    num_output: 2
    kernel_size: 5
    stride: 1
    weight_filler {
      type: "xavier"
    }
    bias_filler {
      type: "constant"
    }
  }
}
layer {
  name: "pool0"
  type: "Pooling"
  bottom: "conv0"
  top: "pool0"
  pooling_param {
    pool: MAX
    kernel_size: 2
    stride: 2
  }
}
layer {
  name: "conv1"
  type: "Convolution"
  bottom: "pool0"
  top: "conv1"
  param {
    lr_mult: 1
  }
  param {
    lr_mult: 2
  }
  convolution_param {
    num_output: 100
    kernel_size: 5
    stride: 1
    weight_filler {
      type: "xavier"
    }
    bias_filler {
      type: "constant"
    }
  }
}
layer {
  name: "pool1"
  type: "Pooling"
  bottom: "conv1"
  top: "pool1"
  pooling_param {
    pool: MAX
    kernel_size: 2
    stride: 2
  }
}
layer {
  name: "ip1"
  type: "InnerProduct"
  bottom: "pool1"
  top: "ip1"
  param {
    lr_mult: 1
  }
  param {
    lr_mult: 2
  }
  inner_product_param {
    num_output: 10
    weight_filler {
      type: "xavier"
    }
    bias_filler {
      type: "constant"
    }
  }
}
layer {
  name: "relu1"
  type: "ReLU"
  bottom: "ip1"
  top: "ip1"
}
layer {
  name: "loss"
  type: "SoftmaxWithLoss"
  bottom: "ip1"
  bottom: "label"
  top: "loss"
}
I0428 19:45:16.354774 25771 layer_factory.hpp:77] Creating layer mnist
I0428 19:45:16.354905 25771 db_lmdb.cpp:35] Opened lmdb examples/mnist/mnist_train_lmdb
I0428 19:45:16.354938 25771 net.cpp:86] Creating Layer mnist
I0428 19:45:16.354951 25771 net.cpp:382] mnist -> data
I0428 19:45:16.354981 25771 net.cpp:382] mnist -> label
I0428 19:45:16.356189 25771 data_layer.cpp:45] output data size: 64,1,28,28
I0428 19:45:16.358660 25771 net.cpp:124] Setting up mnist
I0428 19:45:16.358681 25771 net.cpp:131] Top shape: 64 1 28 28 (50176)
I0428 19:45:16.358691 25771 net.cpp:131] Top shape: 64 (64)
I0428 19:45:16.358697 25771 net.cpp:139] Memory required for data: 200960
I0428 19:45:16.358707 25771 layer_factory.hpp:77] Creating layer conv0
I0428 19:45:16.358731 25771 net.cpp:86] Creating Layer conv0
I0428 19:45:16.358742 25771 net.cpp:408] conv0 <- data
I0428 19:45:16.358763 25771 net.cpp:382] conv0 -> conv0
I0428 19:45:16.651257 25771 net.cpp:124] Setting up conv0
I0428 19:45:16.651291 25771 net.cpp:131] Top shape: 64 2 24 24 (73728)
I0428 19:45:16.651298 25771 net.cpp:139] Memory required for data: 495872
I0428 19:45:16.651322 25771 layer_factory.hpp:77] Creating layer pool0
I0428 19:45:16.651342 25771 net.cpp:86] Creating Layer pool0
I0428 19:45:16.651350 25771 net.cpp:408] pool0 <- conv0
I0428 19:45:16.651361 25771 net.cpp:382] pool0 -> pool0
I0428 19:45:16.651434 25771 net.cpp:124] Setting up pool0
I0428 19:45:16.651444 25771 net.cpp:131] Top shape: 64 2 12 12 (18432)
I0428 19:45:16.651474 25771 net.cpp:139] Memory required for data: 569600
I0428 19:45:16.651482 25771 layer_factory.hpp:77] Creating layer conv1
I0428 19:45:16.651501 25771 net.cpp:86] Creating Layer conv1
I0428 19:45:16.651510 25771 net.cpp:408] conv1 <- pool0
I0428 19:45:16.651520 25771 net.cpp:382] conv1 -> conv1
I0428 19:45:16.654682 25771 net.cpp:124] Setting up conv1
I0428 19:45:16.654703 25771 net.cpp:131] Top shape: 64 100 8 8 (409600)
I0428 19:45:16.654711 25771 net.cpp:139] Memory required for data: 2208000
I0428 19:45:16.654726 25771 layer_factory.hpp:77] Creating layer pool1
I0428 19:45:16.654741 25771 net.cpp:86] Creating Layer pool1
I0428 19:45:16.654747 25771 net.cpp:408] pool1 <- conv1
I0428 19:45:16.654757 25771 net.cpp:382] pool1 -> pool1
I0428 19:45:16.654811 25771 net.cpp:124] Setting up pool1
I0428 19:45:16.654822 25771 net.cpp:131] Top shape: 64 100 4 4 (102400)
I0428 19:45:16.654829 25771 net.cpp:139] Memory required for data: 2617600
I0428 19:45:16.654835 25771 layer_factory.hpp:77] Creating layer ip1
I0428 19:45:16.654850 25771 net.cpp:86] Creating Layer ip1
I0428 19:45:16.654861 25771 net.cpp:408] ip1 <- pool1
I0428 19:45:16.654871 25771 net.cpp:382] ip1 -> ip1
I0428 19:45:16.655099 25771 net.cpp:124] Setting up ip1
I0428 19:45:16.655110 25771 net.cpp:131] Top shape: 64 10 (640)
I0428 19:45:16.655117 25771 net.cpp:139] Memory required for data: 2620160
I0428 19:45:16.655130 25771 layer_factory.hpp:77] Creating layer relu1
I0428 19:45:16.655145 25771 net.cpp:86] Creating Layer relu1
I0428 19:45:16.655156 25771 net.cpp:408] relu1 <- ip1
I0428 19:45:16.655165 25771 net.cpp:369] relu1 -> ip1 (in-place)
I0428 19:45:16.655367 25771 net.cpp:124] Setting up relu1
I0428 19:45:16.655380 25771 net.cpp:131] Top shape: 64 10 (640)
I0428 19:45:16.655385 25771 net.cpp:139] Memory required for data: 2622720
I0428 19:45:16.655391 25771 layer_factory.hpp:77] Creating layer loss
I0428 19:45:16.655402 25771 net.cpp:86] Creating Layer loss
I0428 19:45:16.655408 25771 net.cpp:408] loss <- ip1
I0428 19:45:16.655416 25771 net.cpp:408] loss <- label
I0428 19:45:16.655426 25771 net.cpp:382] loss -> loss
I0428 19:45:16.655455 25771 layer_factory.hpp:77] Creating layer loss
…
I0428 19:45:16.656846 25771 solver.cpp:173] Creating test net (#0) specified by net file: ECE595/mnist/train_test/var_everything2/lenet_train_test468.prototxt
I0428 19:45:16.656884 25771 net.cpp:296] The NetState phase (1) differed from the phase (0) specified by a rule in layer mnist
I0428 19:45:16.656981 25771 net.cpp:53] Initializing net from parameters: 
name: "LeNet"
state {
  phase: TEST
}
layer {
  name: "mnist"
  type: "Data"
  top: "data"
  top: "label"
  include {
    phase: TEST
  }
  transform_param {
    scale: 0.00390625
  }
  data_param {
    source: "examples/mnist/mnist_test_lmdb"
    batch_size: 100
    backend: LMDB
  }
}
layer {
  name: "conv0"
  type: "Convolution"
  bottom: "data"
  top: "conv0"
  param {
    lr_mult: 1
  }
  param {
    lr_mult: 2
  }
  convolution_param {
    num_output: 2
    kernel_size: 5
    stride: 1
    weight_filler {
      type: "xavier"
    }
    bias_filler {
      type: "constant"
    }
  }
}
layer {
  name: "pool0"
  type: "Pooling"
  bottom: "conv0"
  top: "pool0"
  pooling_param {
    pool: MAX
    kernel_size: 2
    stride: 2
  }
}
layer {
  name: "conv1"
  type: "Convolution"
  bottom: "pool0"
  top: "conv1"
  param {
    lr_mult: 1
  }
  param {
    lr_mult: 2
  }
  convolution_param {
    num_output: 100
    kernel_size: 5
    stride: 1
    weight_filler {
      type: "xavier"
    }
    bias_filler {
      type: "constant"
    }
  }
}
layer {
  name: "pool1"
  type: "Pooling"
  bottom: "conv1"
  top: "pool1"
  pooling_param {
    pool: MAX
    kernel_size: 2
    stride: 2
  }
}
layer {
  name: "ip1"
  type: "InnerProduct"
  bottom: "pool1"
  top: "ip1"
  param {
    lr_mult: 1
  }
  param {
    lr_mult: 2
  }
  inner_product_param {
    num_output: 10
    weight_filler {
      type: "xavier"
    }
    bias_filler {
      type: "constant"
    }
  }
}
layer {
  name: "relu1"
  type: "ReLU"
  bottom: "ip1"
  top: "ip1"
}
layer {
  name: "accuracy"
  type: "Accuracy"
  bottom: "ip1"
  bottom: "label"
  top: "accuracy"
  include {
    phase: TEST
  }
}
layer {
  name: "loss"
  type: "SoftmaxWithLoss"
  bottom: "ip1"
  bottom: "label"
  top: "loss"
}
I0428 19:45:16.657100 25771 layer_factory.hpp:77] Creating layer mnist
I0428 19:45:16.657169 25771 db_lmdb.cpp:35] Opened lmdb examples/mnist/mnist_test_lmdb
I0428 19:45:16.657191 25771 net.cpp:86] Creating Layer mnist
I0428 19:45:16.657200 25771 net.cpp:382] mnist -> data
I0428 19:45:16.657214 25771 net.cpp:382] mnist -> label
I0428 19:45:16.657356 25771 data_layer.cpp:45] output data size: 100,1,28,28
I0428 19:45:16.659654 25771 net.cpp:124] Setting up mnist
I0428 19:45:16.659672 25771 net.cpp:131] Top shape: 100 1 28 28 (78400)
I0428 19:45:16.659682 25771 net.cpp:131] Top shape: 100 (100)
I0428 19:45:16.659689 25771 net.cpp:139] Memory required for data: 314000
I0428 19:45:16.659696 25771 layer_factory.hpp:77] Creating layer label_mnist_1_split
I0428 19:45:16.659734 25771 net.cpp:86] Creating Layer label_mnist_1_split
I0428 19:45:16.659740 25771 net.cpp:408] label_mnist_1_split <- label
I0428 19:45:16.659750 25771 net.cpp:382] label_mnist_1_split -> label_mnist_1_split_0
I0428 19:45:16.659764 25771 net.cpp:382] label_mnist_1_split -> label_mnist_1_split_1
I0428 19:45:16.659855 25771 net.cpp:124] Setting up label_mnist_1_split
I0428 19:45:16.659867 25771 net.cpp:131] Top shape: 100 (100)
I0428 19:45:16.659873 25771 net.cpp:131] Top shape: 100 (100)
I0428 19:45:16.659879 25771 net.cpp:139] Memory required for data: 314800
I0428 19:45:16.659886 25771 layer_factory.hpp:77] Creating layer conv0
I0428 19:45:16.659903 25771 net.cpp:86] Creating Layer conv0
I0428 19:45:16.659910 25771 net.cpp:408] conv0 <- data
I0428 19:45:16.659921 25771 net.cpp:382] conv0 -> conv0
I0428 19:45:16.660851 25771 net.cpp:124] Setting up conv0
I0428 19:45:16.660868 25771 net.cpp:131] Top shape: 100 2 24 24 (115200)
I0428 19:45:16.660876 25771 net.cpp:139] Memory required for data: 775600
I0428 19:45:16.660898 25771 layer_factory.hpp:77] Creating layer pool0
I0428 19:45:16.660909 25771 net.cpp:86] Creating Layer pool0
I0428 19:45:16.660917 25771 net.cpp:408] pool0 <- conv0
I0428 19:45:16.660926 25771 net.cpp:382] pool0 -> pool0
I0428 19:45:16.660975 25771 net.cpp:124] Setting up pool0
I0428 19:45:16.660985 25771 net.cpp:131] Top shape: 100 2 12 12 (28800)
I0428 19:45:16.660991 25771 net.cpp:139] Memory required for data: 890800
I0428 19:45:16.660998 25771 layer_factory.hpp:77] Creating layer conv1
I0428 19:45:16.661013 25771 net.cpp:86] Creating Layer conv1
I0428 19:45:16.661021 25771 net.cpp:408] conv1 <- pool0
I0428 19:45:16.661031 25771 net.cpp:382] conv1 -> conv1
I0428 19:45:16.662757 25771 net.cpp:124] Setting up conv1
I0428 19:45:16.662776 25771 net.cpp:131] Top shape: 100 100 8 8 (640000)
I0428 19:45:16.662783 25771 net.cpp:139] Memory required for data: 3450800
I0428 19:45:16.662799 25771 layer_factory.hpp:77] Creating layer pool1
I0428 19:45:16.662811 25771 net.cpp:86] Creating Layer pool1
I0428 19:45:16.662833 25771 net.cpp:408] pool1 <- conv1
I0428 19:45:16.662844 25771 net.cpp:382] pool1 -> pool1
I0428 19:45:16.662900 25771 net.cpp:124] Setting up pool1
I0428 19:45:16.662910 25771 net.cpp:131] Top shape: 100 100 4 4 (160000)
I0428 19:45:16.662917 25771 net.cpp:139] Memory required for data: 4090800
I0428 19:45:16.662927 25771 layer_factory.hpp:77] Creating layer ip1
I0428 19:45:16.662940 25771 net.cpp:86] Creating Layer ip1
I0428 19:45:16.662947 25771 net.cpp:408] ip1 <- pool1
I0428 19:45:16.662962 25771 net.cpp:382] ip1 -> ip1
I0428 19:45:16.663193 25771 net.cpp:124] Setting up ip1
I0428 19:45:16.663203 25771 net.cpp:131] Top shape: 100 10 (1000)
I0428 19:45:16.663209 25771 net.cpp:139] Memory required for data: 4094800
I0428 19:45:16.663224 25771 layer_factory.hpp:77] Creating layer relu1
I0428 19:45:16.663234 25771 net.cpp:86] Creating Layer relu1
I0428 19:45:16.663242 25771 net.cpp:408] relu1 <- ip1
I0428 19:45:16.663252 25771 net.cpp:369] relu1 -> ip1 (in-place)
I0428 19:45:16.664197 25771 net.cpp:124] Setting up relu1
I0428 19:45:16.664213 25771 net.cpp:131] Top shape: 100 10 (1000)
I0428 19:45:16.664222 25771 net.cpp:139] Memory required for data: 4098800
I0428 19:45:16.664228 25771 layer_factory.hpp:77] Creating layer ip1_relu1_0_split
I0428 19:45:16.664242 25771 net.cpp:86] Creating Layer ip1_relu1_0_split
I0428 19:45:16.664247 25771 net.cpp:408] ip1_relu1_0_split <- ip1
I0428 19:45:16.664258 25771 net.cpp:382] ip1_relu1_0_split -> ip1_relu1_0_split_0
I0428 19:45:16.664269 25771 net.cpp:382] ip1_relu1_0_split -> ip1_relu1_0_split_1
I0428 19:45:16.664322 25771 net.cpp:124] Setting up ip1_relu1_0_split
I0428 19:45:16.664331 25771 net.cpp:131] Top shape: 100 10 (1000)
I0428 19:45:16.664340 25771 net.cpp:131] Top shape: 100 10 (1000)
I0428 19:45:16.664346 25771 net.cpp:139] Memory required for data: 4106800
I0428 19:45:16.664356 25771 layer_factory.hpp:77] Creating layer accuracy
I0428 19:45:16.664366 25771 net.cpp:86] Creating Layer accuracy
I0428 19:45:16.664372 25771 net.cpp:408] accuracy <- ip1_relu1_0_split_0
I0428 19:45:16.664381 25771 net.cpp:408] accuracy <- label_mnist_1_split_0
I0428 19:45:16.664389 25771 net.cpp:382] accuracy -> accuracy
…
