…
I0428 20:26:51.557492  2886 net.cpp:296] The NetState phase (0) differed from the phase (1) specified by a rule in layer mnist
I0428 20:26:51.557512  2886 net.cpp:296] The NetState phase (0) differed from the phase (1) specified by a rule in layer accuracy
I0428 20:26:51.557615  2886 net.cpp:53] Initializing net from parameters: 
name: "LeNet"
state {
  phase: TRAIN
  level: 0
  stage: ""
}
layer {
  name: "mnist"
  type: "Data"
  top: "data"
  top: "label"
  include {
    phase: TRAIN
  }
  transform_param {
    scale: 0.00390625
  }
  data_param {
    source: "examples/mnist/mnist_train_lmdb"
    batch_size: 64
    backend: LMDB
  }
}
layer {
  name: "conv0"
  type: "Convolution"
  bottom: "data"
  top: "conv0"
  param {
    lr_mult: 1
  }
  param {
    lr_mult: 2
  }
  convolution_param {
    num_output: 100
    kernel_size: 5
    stride: 1
    weight_filler {
      type: "xavier"
    }
    bias_filler {
      type: "constant"
    }
  }
}
layer {
  name: "pool0"
  type: "Pooling"
  bottom: "conv0"
  top: "pool0"
  pooling_param {
    pool: MAX
    kernel_size: 2
    stride: 2
  }
}
layer {
  name: "conv1"
  type: "Convolution"
  bottom: "pool0"
  top: "conv1"
  param {
    lr_mult: 1
  }
  param {
    lr_mult: 2
  }
  convolution_param {
    num_output: 2
    kernel_size: 5
    stride: 1
    weight_filler {
      type: "xavier"
    }
    bias_filler {
      type: "constant"
    }
  }
}
layer {
  name: "pool1"
  type: "Pooling"
  bottom: "conv1"
  top: "pool1"
  pooling_param {
    pool: MAX
    kernel_size: 2
    stride: 2
  }
}
layer {
  name: "ip1"
  type: "InnerProduct"
  bottom: "pool1"
  top: "ip1"
  param {
    lr_mult: 1
  }
  param {
    lr_mult: 2
  }
  inner_product_param {
    num_output: 50
    weight_filler {
      type: "xavier"
    }
    bias_filler {
      type: "constant"
    }
  }
}
layer {
  name: "relu1"
  type: "ReLU"
  bottom: "ip1"
  top: "ip1"
}
layer {
  name: "ip2"
  type: "InnerProduct"
  bottom: "ip1"
  top: "ip2"
  param {
    lr_mult: 1
  }
  param {
    lr_mult: 2
  }
  inner_product_param {
    num_output: 25
    weight_filler {
      type: "xavier"
    }
    bias_filler {
      type: "constant"
    }
  }
}
layer {
  name: "relu2"
  type: "ReLU"
  bottom: "ip2"
  top: "ip2"
}
layer {
  name: "ip3"
  type: "InnerProduct"
  bottom: "ip2"
  top: "ip3"
  param {
    lr_mult: 1
  }
  param {
    lr_mult: 2
  }
  inner_product_param {
    num_output: 10
    weight_filler {
      type: "xavier"
    }
    bias_filler {
      type: "constant"
    }
  }
}
layer {
  name: "relu3"
  type: "ReLU"
  bottom: "ip3"
  top: "ip3"
}
layer {
  name: "loss"
  type: "SoftmaxWithLoss"
  bottom: "ip3"
  bottom: "label"
  top: "loss"
}
I0428 20:26:51.557696  2886 layer_factory.hpp:77] Creating layer mnist
I0428 20:26:51.557793  2886 db_lmdb.cpp:35] Opened lmdb examples/mnist/mnist_train_lmdb
I0428 20:26:51.557816  2886 net.cpp:86] Creating Layer mnist
I0428 20:26:51.557823  2886 net.cpp:382] mnist -> data
I0428 20:26:51.557847  2886 net.cpp:382] mnist -> label
I0428 20:26:51.558918  2886 data_layer.cpp:45] output data size: 64,1,28,28
I0428 20:26:51.561342  2886 net.cpp:124] Setting up mnist
I0428 20:26:51.561360  2886 net.cpp:131] Top shape: 64 1 28 28 (50176)
I0428 20:26:51.561367  2886 net.cpp:131] Top shape: 64 (64)
I0428 20:26:51.561370  2886 net.cpp:139] Memory required for data: 200960
I0428 20:26:51.561378  2886 layer_factory.hpp:77] Creating layer conv0
I0428 20:26:51.561408  2886 net.cpp:86] Creating Layer conv0
I0428 20:26:51.561429  2886 net.cpp:408] conv0 <- data
I0428 20:26:51.561441  2886 net.cpp:382] conv0 -> conv0
I0428 20:26:51.848976  2886 net.cpp:124] Setting up conv0
I0428 20:26:51.849004  2886 net.cpp:131] Top shape: 64 100 24 24 (3686400)
I0428 20:26:51.849007  2886 net.cpp:139] Memory required for data: 14946560
I0428 20:26:51.849022  2886 layer_factory.hpp:77] Creating layer pool0
I0428 20:26:51.849035  2886 net.cpp:86] Creating Layer pool0
I0428 20:26:51.849040  2886 net.cpp:408] pool0 <- conv0
I0428 20:26:51.849045  2886 net.cpp:382] pool0 -> pool0
I0428 20:26:51.849100  2886 net.cpp:124] Setting up pool0
I0428 20:26:51.849105  2886 net.cpp:131] Top shape: 64 100 12 12 (921600)
I0428 20:26:51.849108  2886 net.cpp:139] Memory required for data: 18632960
I0428 20:26:51.849112  2886 layer_factory.hpp:77] Creating layer conv1
I0428 20:26:51.849123  2886 net.cpp:86] Creating Layer conv1
I0428 20:26:51.849125  2886 net.cpp:408] conv1 <- pool0
I0428 20:26:51.849130  2886 net.cpp:382] conv1 -> conv1
I0428 20:26:51.851790  2886 net.cpp:124] Setting up conv1
I0428 20:26:51.851805  2886 net.cpp:131] Top shape: 64 2 8 8 (8192)
I0428 20:26:51.851809  2886 net.cpp:139] Memory required for data: 18665728
I0428 20:26:51.851817  2886 layer_factory.hpp:77] Creating layer pool1
I0428 20:26:51.851826  2886 net.cpp:86] Creating Layer pool1
I0428 20:26:51.851830  2886 net.cpp:408] pool1 <- conv1
I0428 20:26:51.851835  2886 net.cpp:382] pool1 -> pool1
I0428 20:26:51.851872  2886 net.cpp:124] Setting up pool1
I0428 20:26:51.851877  2886 net.cpp:131] Top shape: 64 2 4 4 (2048)
I0428 20:26:51.851881  2886 net.cpp:139] Memory required for data: 18673920
I0428 20:26:51.851883  2886 layer_factory.hpp:77] Creating layer ip1
I0428 20:26:51.851891  2886 net.cpp:86] Creating Layer ip1
I0428 20:26:51.851893  2886 net.cpp:408] ip1 <- pool1
I0428 20:26:51.851897  2886 net.cpp:382] ip1 -> ip1
I0428 20:26:51.852004  2886 net.cpp:124] Setting up ip1
I0428 20:26:51.852010  2886 net.cpp:131] Top shape: 64 50 (3200)
I0428 20:26:51.852013  2886 net.cpp:139] Memory required for data: 18686720
I0428 20:26:51.852021  2886 layer_factory.hpp:77] Creating layer relu1
I0428 20:26:51.852026  2886 net.cpp:86] Creating Layer relu1
I0428 20:26:51.852030  2886 net.cpp:408] relu1 <- ip1
I0428 20:26:51.852035  2886 net.cpp:369] relu1 -> ip1 (in-place)
I0428 20:26:51.852195  2886 net.cpp:124] Setting up relu1
I0428 20:26:51.852202  2886 net.cpp:131] Top shape: 64 50 (3200)
I0428 20:26:51.852205  2886 net.cpp:139] Memory required for data: 18699520
I0428 20:26:51.852210  2886 layer_factory.hpp:77] Creating layer ip2
I0428 20:26:51.852216  2886 net.cpp:86] Creating Layer ip2
I0428 20:26:51.852218  2886 net.cpp:408] ip2 <- ip1
I0428 20:26:51.852222  2886 net.cpp:382] ip2 -> ip2
I0428 20:26:51.852322  2886 net.cpp:124] Setting up ip2
I0428 20:26:51.852339  2886 net.cpp:131] Top shape: 64 25 (1600)
I0428 20:26:51.852342  2886 net.cpp:139] Memory required for data: 18705920
I0428 20:26:51.852347  2886 layer_factory.hpp:77] Creating layer relu2
I0428 20:26:51.852354  2886 net.cpp:86] Creating Layer relu2
I0428 20:26:51.852356  2886 net.cpp:408] relu2 <- ip2
I0428 20:26:51.852360  2886 net.cpp:369] relu2 -> ip2 (in-place)
I0428 20:26:51.853181  2886 net.cpp:124] Setting up relu2
I0428 20:26:51.853193  2886 net.cpp:131] Top shape: 64 25 (1600)
I0428 20:26:51.853198  2886 net.cpp:139] Memory required for data: 18712320
I0428 20:26:51.853200  2886 layer_factory.hpp:77] Creating layer ip3
I0428 20:26:51.853207  2886 net.cpp:86] Creating Layer ip3
I0428 20:26:51.853210  2886 net.cpp:408] ip3 <- ip2
I0428 20:26:51.853215  2886 net.cpp:382] ip3 -> ip3
I0428 20:26:51.853310  2886 net.cpp:124] Setting up ip3
I0428 20:26:51.853317  2886 net.cpp:131] Top shape: 64 10 (640)
I0428 20:26:51.853320  2886 net.cpp:139] Memory required for data: 18714880
I0428 20:26:51.853328  2886 layer_factory.hpp:77] Creating layer relu3
I0428 20:26:51.853333  2886 net.cpp:86] Creating Layer relu3
I0428 20:26:51.853337  2886 net.cpp:408] relu3 <- ip3
I0428 20:26:51.853340  2886 net.cpp:369] relu3 -> ip3 (in-place)
I0428 20:26:51.853498  2886 net.cpp:124] Setting up relu3
I0428 20:26:51.853507  2886 net.cpp:131] Top shape: 64 10 (640)
I0428 20:26:51.853509  2886 net.cpp:139] Memory required for data: 18717440
I0428 20:26:51.853513  2886 layer_factory.hpp:77] Creating layer loss
I0428 20:26:51.853518  2886 net.cpp:86] Creating Layer loss
I0428 20:26:51.853521  2886 net.cpp:408] loss <- ip3
I0428 20:26:51.853524  2886 net.cpp:408] loss <- label
I0428 20:26:51.853529  2886 net.cpp:382] loss -> loss
I0428 20:26:51.853546  2886 layer_factory.hpp:77] Creating layer loss
…
I0428 20:26:51.854187  2886 solver.cpp:173] Creating test net (#0) specified by net file: ECE595/mnist/train_test/var_everything2/lenet_train_test1478.prototxt
I0428 20:26:51.854213  2886 net.cpp:296] The NetState phase (1) differed from the phase (0) specified by a rule in layer mnist
I0428 20:26:51.854303  2886 net.cpp:53] Initializing net from parameters: 
name: "LeNet"
state {
  phase: TEST
}
layer {
  name: "mnist"
  type: "Data"
  top: "data"
  top: "label"
  include {
    phase: TEST
  }
  transform_param {
    scale: 0.00390625
  }
  data_param {
    source: "examples/mnist/mnist_test_lmdb"
    batch_size: 100
    backend: LMDB
  }
}
layer {
  name: "conv0"
  type: "Convolution"
  bottom: "data"
  top: "conv0"
  param {
    lr_mult: 1
  }
  param {
    lr_mult: 2
  }
  convolution_param {
    num_output: 100
    kernel_size: 5
    stride: 1
    weight_filler {
      type: "xavier"
    }
    bias_filler {
      type: "constant"
    }
  }
}
layer {
  name: "pool0"
  type: "Pooling"
  bottom: "conv0"
  top: "pool0"
  pooling_param {
    pool: MAX
    kernel_size: 2
    stride: 2
  }
}
layer {
  name: "conv1"
  type: "Convolution"
  bottom: "pool0"
  top: "conv1"
  param {
    lr_mult: 1
  }
  param {
    lr_mult: 2
  }
  convolution_param {
    num_output: 2
    kernel_size: 5
    stride: 1
    weight_filler {
      type: "xavier"
    }
    bias_filler {
      type: "constant"
    }
  }
}
layer {
  name: "pool1"
  type: "Pooling"
  bottom: "conv1"
  top: "pool1"
  pooling_param {
    pool: MAX
    kernel_size: 2
    stride: 2
  }
}
layer {
  name: "ip1"
  type: "InnerProduct"
  bottom: "pool1"
  top: "ip1"
  param {
    lr_mult: 1
  }
  param {
    lr_mult: 2
  }
  inner_product_param {
    num_output: 50
    weight_filler {
      type: "xavier"
    }
    bias_filler {
      type: "constant"
    }
  }
}
layer {
  name: "relu1"
  type: "ReLU"
  bottom: "ip1"
  top: "ip1"
}
layer {
  name: "ip2"
  type: "InnerProduct"
  bottom: "ip1"
  top: "ip2"
  param {
    lr_mult: 1
  }
  param {
    lr_mult: 2
  }
  inner_product_param {
    num_output: 25
    weight_filler {
      type: "xavier"
    }
    bias_filler {
      type: "constant"
    }
  }
}
layer {
  name: "relu2"
  type: "ReLU"
  bottom: "ip2"
  top: "ip2"
}
layer {
  name: "ip3"
  type: "InnerProduct"
  bottom: "ip2"
  top: "ip3"
  param {
    lr_mult: 1
  }
  param {
    lr_mult: 2
  }
  inner_product_param {
    num_output: 10
    weight_filler {
      type: "xavier"
    }
    bias_filler {
      type: "constant"
    }
  }
}
layer {
  name: "relu3"
  type: "ReLU"
  bottom: "ip3"
  top: "ip3"
}
layer {
  name: "accuracy"
  type: "Accuracy"
  bottom: "ip3"
  bottom: "label"
  top: "accuracy"
  include {
    phase: TEST
  }
}
layer {
  name: "loss"
  type: "SoftmaxWithLoss"
  bottom: "ip3"
  bottom: "label"
  top: "loss"
}
I0428 20:26:51.854393  2886 layer_factory.hpp:77] Creating layer mnist
I0428 20:26:51.854435  2886 db_lmdb.cpp:35] Opened lmdb examples/mnist/mnist_test_lmdb
I0428 20:26:51.854449  2886 net.cpp:86] Creating Layer mnist
I0428 20:26:51.854452  2886 net.cpp:382] mnist -> data
I0428 20:26:51.854460  2886 net.cpp:382] mnist -> label
I0428 20:26:51.854539  2886 data_layer.cpp:45] output data size: 100,1,28,28
I0428 20:26:51.856533  2886 net.cpp:124] Setting up mnist
I0428 20:26:51.856544  2886 net.cpp:131] Top shape: 100 1 28 28 (78400)
I0428 20:26:51.856549  2886 net.cpp:131] Top shape: 100 (100)
I0428 20:26:51.856552  2886 net.cpp:139] Memory required for data: 314000
I0428 20:26:51.856572  2886 layer_factory.hpp:77] Creating layer label_mnist_1_split
I0428 20:26:51.856581  2886 net.cpp:86] Creating Layer label_mnist_1_split
I0428 20:26:51.856585  2886 net.cpp:408] label_mnist_1_split <- label
I0428 20:26:51.856590  2886 net.cpp:382] label_mnist_1_split -> label_mnist_1_split_0
I0428 20:26:51.856596  2886 net.cpp:382] label_mnist_1_split -> label_mnist_1_split_1
I0428 20:26:51.856637  2886 net.cpp:124] Setting up label_mnist_1_split
I0428 20:26:51.856643  2886 net.cpp:131] Top shape: 100 (100)
I0428 20:26:51.856647  2886 net.cpp:131] Top shape: 100 (100)
I0428 20:26:51.856649  2886 net.cpp:139] Memory required for data: 314800
I0428 20:26:51.856652  2886 layer_factory.hpp:77] Creating layer conv0
I0428 20:26:51.856660  2886 net.cpp:86] Creating Layer conv0
I0428 20:26:51.856663  2886 net.cpp:408] conv0 <- data
I0428 20:26:51.856668  2886 net.cpp:382] conv0 -> conv0
I0428 20:26:51.858410  2886 net.cpp:124] Setting up conv0
I0428 20:26:51.858424  2886 net.cpp:131] Top shape: 100 100 24 24 (5760000)
I0428 20:26:51.858428  2886 net.cpp:139] Memory required for data: 23354800
I0428 20:26:51.858436  2886 layer_factory.hpp:77] Creating layer pool0
I0428 20:26:51.858443  2886 net.cpp:86] Creating Layer pool0
I0428 20:26:51.858446  2886 net.cpp:408] pool0 <- conv0
I0428 20:26:51.858450  2886 net.cpp:382] pool0 -> pool0
I0428 20:26:51.858484  2886 net.cpp:124] Setting up pool0
I0428 20:26:51.858490  2886 net.cpp:131] Top shape: 100 100 12 12 (1440000)
I0428 20:26:51.858494  2886 net.cpp:139] Memory required for data: 29114800
I0428 20:26:51.858496  2886 layer_factory.hpp:77] Creating layer conv1
I0428 20:26:51.858503  2886 net.cpp:86] Creating Layer conv1
I0428 20:26:51.858507  2886 net.cpp:408] conv1 <- pool0
I0428 20:26:51.858511  2886 net.cpp:382] conv1 -> conv1
I0428 20:26:51.860036  2886 net.cpp:124] Setting up conv1
I0428 20:26:51.860049  2886 net.cpp:131] Top shape: 100 2 8 8 (12800)
I0428 20:26:51.860052  2886 net.cpp:139] Memory required for data: 29166000
I0428 20:26:51.860060  2886 layer_factory.hpp:77] Creating layer pool1
I0428 20:26:51.860066  2886 net.cpp:86] Creating Layer pool1
I0428 20:26:51.860070  2886 net.cpp:408] pool1 <- conv1
I0428 20:26:51.860074  2886 net.cpp:382] pool1 -> pool1
I0428 20:26:51.860108  2886 net.cpp:124] Setting up pool1
I0428 20:26:51.860115  2886 net.cpp:131] Top shape: 100 2 4 4 (3200)
I0428 20:26:51.860117  2886 net.cpp:139] Memory required for data: 29178800
I0428 20:26:51.860132  2886 layer_factory.hpp:77] Creating layer ip1
I0428 20:26:51.860138  2886 net.cpp:86] Creating Layer ip1
I0428 20:26:51.860141  2886 net.cpp:408] ip1 <- pool1
I0428 20:26:51.860162  2886 net.cpp:382] ip1 -> ip1
I0428 20:26:51.860303  2886 net.cpp:124] Setting up ip1
I0428 20:26:51.860311  2886 net.cpp:131] Top shape: 100 50 (5000)
I0428 20:26:51.860327  2886 net.cpp:139] Memory required for data: 29198800
I0428 20:26:51.860337  2886 layer_factory.hpp:77] Creating layer relu1
I0428 20:26:51.860342  2886 net.cpp:86] Creating Layer relu1
I0428 20:26:51.860345  2886 net.cpp:408] relu1 <- ip1
I0428 20:26:51.860350  2886 net.cpp:369] relu1 -> ip1 (in-place)
I0428 20:26:51.860534  2886 net.cpp:124] Setting up relu1
I0428 20:26:51.860556  2886 net.cpp:131] Top shape: 100 50 (5000)
I0428 20:26:51.860560  2886 net.cpp:139] Memory required for data: 29218800
I0428 20:26:51.860579  2886 layer_factory.hpp:77] Creating layer ip2
I0428 20:26:51.860600  2886 net.cpp:86] Creating Layer ip2
I0428 20:26:51.860605  2886 net.cpp:408] ip2 <- ip1
I0428 20:26:51.860623  2886 net.cpp:382] ip2 -> ip2
I0428 20:26:51.860726  2886 net.cpp:124] Setting up ip2
I0428 20:26:51.860733  2886 net.cpp:131] Top shape: 100 25 (2500)
I0428 20:26:51.860736  2886 net.cpp:139] Memory required for data: 29228800
I0428 20:26:51.860741  2886 layer_factory.hpp:77] Creating layer relu2
I0428 20:26:51.860746  2886 net.cpp:86] Creating Layer relu2
I0428 20:26:51.860749  2886 net.cpp:408] relu2 <- ip2
I0428 20:26:51.860754  2886 net.cpp:369] relu2 -> ip2 (in-place)
I0428 20:26:51.860982  2886 net.cpp:124] Setting up relu2
I0428 20:26:51.860991  2886 net.cpp:131] Top shape: 100 25 (2500)
I0428 20:26:51.860994  2886 net.cpp:139] Memory required for data: 29238800
I0428 20:26:51.860997  2886 layer_factory.hpp:77] Creating layer ip3
I0428 20:26:51.861002  2886 net.cpp:86] Creating Layer ip3
I0428 20:26:51.861006  2886 net.cpp:408] ip3 <- ip2
I0428 20:26:51.861011  2886 net.cpp:382] ip3 -> ip3
I0428 20:26:51.861122  2886 net.cpp:124] Setting up ip3
I0428 20:26:51.861129  2886 net.cpp:131] Top shape: 100 10 (1000)
I0428 20:26:51.861132  2886 net.cpp:139] Memory required for data: 29242800
I0428 20:26:51.861140  2886 layer_factory.hpp:77] Creating layer relu3
I0428 20:26:51.861145  2886 net.cpp:86] Creating Layer relu3
I0428 20:26:51.861148  2886 net.cpp:408] relu3 <- ip3
I0428 20:26:51.861152  2886 net.cpp:369] relu3 -> ip3 (in-place)
I0428 20:26:51.862047  2886 net.cpp:124] Setting up relu3
I0428 20:26:51.862059  2886 net.cpp:131] Top shape: 100 10 (1000)
I0428 20:26:51.862062  2886 net.cpp:139] Memory required for data: 29246800
I0428 20:26:51.862066  2886 layer_factory.hpp:77] Creating layer ip3_relu3_0_split
I0428 20:26:51.862072  2886 net.cpp:86] Creating Layer ip3_relu3_0_split
I0428 20:26:51.862076  2886 net.cpp:408] ip3_relu3_0_split <- ip3
I0428 20:26:51.862082  2886 net.cpp:382] ip3_relu3_0_split -> ip3_relu3_0_split_0
I0428 20:26:51.862087  2886 net.cpp:382] ip3_relu3_0_split -> ip3_relu3_0_split_1
I0428 20:26:51.862123  2886 net.cpp:124] Setting up ip3_relu3_0_split
I0428 20:26:51.862130  2886 net.cpp:131] Top shape: 100 10 (1000)
I0428 20:26:51.862134  2886 net.cpp:131] Top shape: 100 10 (1000)
I0428 20:26:51.862138  2886 net.cpp:139] Memory required for data: 29254800
I0428 20:26:51.862148  2886 layer_factory.hpp:77] Creating layer accuracy
I0428 20:26:51.862152  2886 net.cpp:86] Creating Layer accuracy
I0428 20:26:51.862155  2886 net.cpp:408] accuracy <- ip3_relu3_0_split_0
I0428 20:26:51.862159  2886 net.cpp:408] accuracy <- label_mnist_1_split_0
I0428 20:26:51.862164  2886 net.cpp:382] accuracy -> accuracy
…
