…
I0428 19:53:11.954325 27713 net.cpp:296] The NetState phase (0) differed from the phase (1) specified by a rule in layer mnist
I0428 19:53:11.954340 27713 net.cpp:296] The NetState phase (0) differed from the phase (1) specified by a rule in layer accuracy
I0428 19:53:11.954421 27713 net.cpp:53] Initializing net from parameters: 
name: "LeNet"
state {
  phase: TRAIN
  level: 0
  stage: ""
}
layer {
  name: "mnist"
  type: "Data"
  top: "data"
  top: "label"
  include {
    phase: TRAIN
  }
  transform_param {
    scale: 0.00390625
  }
  data_param {
    source: "examples/mnist/mnist_train_lmdb"
    batch_size: 64
    backend: LMDB
  }
}
layer {
  name: "conv0"
  type: "Convolution"
  bottom: "data"
  top: "conv0"
  param {
    lr_mult: 1
  }
  param {
    lr_mult: 2
  }
  convolution_param {
    num_output: 5
    kernel_size: 5
    stride: 1
    weight_filler {
      type: "xavier"
    }
    bias_filler {
      type: "constant"
    }
  }
}
layer {
  name: "pool0"
  type: "Pooling"
  bottom: "conv0"
  top: "pool0"
  pooling_param {
    pool: MAX
    kernel_size: 2
    stride: 2
  }
}
layer {
  name: "conv1"
  type: "Convolution"
  bottom: "pool0"
  top: "conv1"
  param {
    lr_mult: 1
  }
  param {
    lr_mult: 2
  }
  convolution_param {
    num_output: 50
    kernel_size: 5
    stride: 1
    weight_filler {
      type: "xavier"
    }
    bias_filler {
      type: "constant"
    }
  }
}
layer {
  name: "pool1"
  type: "Pooling"
  bottom: "conv1"
  top: "pool1"
  pooling_param {
    pool: MAX
    kernel_size: 2
    stride: 2
  }
}
layer {
  name: "ip1"
  type: "InnerProduct"
  bottom: "pool1"
  top: "ip1"
  param {
    lr_mult: 1
  }
  param {
    lr_mult: 2
  }
  inner_product_param {
    num_output: 10
    weight_filler {
      type: "xavier"
    }
    bias_filler {
      type: "constant"
    }
  }
}
layer {
  name: "relu1"
  type: "ReLU"
  bottom: "ip1"
  top: "ip1"
}
layer {
  name: "ip2"
  type: "InnerProduct"
  bottom: "ip1"
  top: "ip2"
  param {
    lr_mult: 1
  }
  param {
    lr_mult: 2
  }
  inner_product_param {
    num_output: 50
    weight_filler {
      type: "xavier"
    }
    bias_filler {
      type: "constant"
    }
  }
}
layer {
  name: "relu2"
  type: "ReLU"
  bottom: "ip2"
  top: "ip2"
}
layer {
  name: "ip3"
  type: "InnerProduct"
  bottom: "ip2"
  top: "ip3"
  param {
    lr_mult: 1
  }
  param {
    lr_mult: 2
  }
  inner_product_param {
    num_output: 10
    weight_filler {
      type: "xavier"
    }
    bias_filler {
      type: "constant"
    }
  }
}
layer {
  name: "relu3"
  type: "ReLU"
  bottom: "ip3"
  top: "ip3"
}
layer {
  name: "loss"
  type: "SoftmaxWithLoss"
  bottom: "ip3"
  bottom: "label"
  top: "loss"
}
I0428 19:53:11.954483 27713 layer_factory.hpp:77] Creating layer mnist
I0428 19:53:11.954563 27713 db_lmdb.cpp:35] Opened lmdb examples/mnist/mnist_train_lmdb
I0428 19:53:11.954582 27713 net.cpp:86] Creating Layer mnist
I0428 19:53:11.954587 27713 net.cpp:382] mnist -> data
I0428 19:53:11.954607 27713 net.cpp:382] mnist -> label
I0428 19:53:11.955581 27713 data_layer.cpp:45] output data size: 64,1,28,28
I0428 19:53:11.957798 27713 net.cpp:124] Setting up mnist
I0428 19:53:11.957829 27713 net.cpp:131] Top shape: 64 1 28 28 (50176)
I0428 19:53:11.957835 27713 net.cpp:131] Top shape: 64 (64)
I0428 19:53:11.957839 27713 net.cpp:139] Memory required for data: 200960
I0428 19:53:11.957844 27713 layer_factory.hpp:77] Creating layer conv0
I0428 19:53:11.957856 27713 net.cpp:86] Creating Layer conv0
I0428 19:53:11.957873 27713 net.cpp:408] conv0 <- data
I0428 19:53:11.957882 27713 net.cpp:382] conv0 -> conv0
I0428 19:53:12.186697 27713 net.cpp:124] Setting up conv0
I0428 19:53:12.186722 27713 net.cpp:131] Top shape: 64 5 24 24 (184320)
I0428 19:53:12.186725 27713 net.cpp:139] Memory required for data: 938240
I0428 19:53:12.186740 27713 layer_factory.hpp:77] Creating layer pool0
I0428 19:53:12.186753 27713 net.cpp:86] Creating Layer pool0
I0428 19:53:12.186756 27713 net.cpp:408] pool0 <- conv0
I0428 19:53:12.186761 27713 net.cpp:382] pool0 -> pool0
I0428 19:53:12.186836 27713 net.cpp:124] Setting up pool0
I0428 19:53:12.186841 27713 net.cpp:131] Top shape: 64 5 12 12 (46080)
I0428 19:53:12.186843 27713 net.cpp:139] Memory required for data: 1122560
I0428 19:53:12.186846 27713 layer_factory.hpp:77] Creating layer conv1
I0428 19:53:12.186857 27713 net.cpp:86] Creating Layer conv1
I0428 19:53:12.186859 27713 net.cpp:408] conv1 <- pool0
I0428 19:53:12.186864 27713 net.cpp:382] conv1 -> conv1
I0428 19:53:12.189573 27713 net.cpp:124] Setting up conv1
I0428 19:53:12.189586 27713 net.cpp:131] Top shape: 64 50 8 8 (204800)
I0428 19:53:12.189590 27713 net.cpp:139] Memory required for data: 1941760
I0428 19:53:12.189597 27713 layer_factory.hpp:77] Creating layer pool1
I0428 19:53:12.189604 27713 net.cpp:86] Creating Layer pool1
I0428 19:53:12.189607 27713 net.cpp:408] pool1 <- conv1
I0428 19:53:12.189612 27713 net.cpp:382] pool1 -> pool1
I0428 19:53:12.189663 27713 net.cpp:124] Setting up pool1
I0428 19:53:12.189671 27713 net.cpp:131] Top shape: 64 50 4 4 (51200)
I0428 19:53:12.189672 27713 net.cpp:139] Memory required for data: 2146560
I0428 19:53:12.189676 27713 layer_factory.hpp:77] Creating layer ip1
I0428 19:53:12.189682 27713 net.cpp:86] Creating Layer ip1
I0428 19:53:12.189684 27713 net.cpp:408] ip1 <- pool1
I0428 19:53:12.189689 27713 net.cpp:382] ip1 -> ip1
I0428 19:53:12.189820 27713 net.cpp:124] Setting up ip1
I0428 19:53:12.189826 27713 net.cpp:131] Top shape: 64 10 (640)
I0428 19:53:12.189829 27713 net.cpp:139] Memory required for data: 2149120
I0428 19:53:12.189836 27713 layer_factory.hpp:77] Creating layer relu1
I0428 19:53:12.189841 27713 net.cpp:86] Creating Layer relu1
I0428 19:53:12.189844 27713 net.cpp:408] relu1 <- ip1
I0428 19:53:12.189848 27713 net.cpp:369] relu1 -> ip1 (in-place)
I0428 19:53:12.189997 27713 net.cpp:124] Setting up relu1
I0428 19:53:12.190006 27713 net.cpp:131] Top shape: 64 10 (640)
I0428 19:53:12.190008 27713 net.cpp:139] Memory required for data: 2151680
I0428 19:53:12.190012 27713 layer_factory.hpp:77] Creating layer ip2
I0428 19:53:12.190017 27713 net.cpp:86] Creating Layer ip2
I0428 19:53:12.190021 27713 net.cpp:408] ip2 <- ip1
I0428 19:53:12.190026 27713 net.cpp:382] ip2 -> ip2
I0428 19:53:12.190127 27713 net.cpp:124] Setting up ip2
I0428 19:53:12.190135 27713 net.cpp:131] Top shape: 64 50 (3200)
I0428 19:53:12.190137 27713 net.cpp:139] Memory required for data: 2164480
I0428 19:53:12.190143 27713 layer_factory.hpp:77] Creating layer relu2
I0428 19:53:12.190148 27713 net.cpp:86] Creating Layer relu2
I0428 19:53:12.190151 27713 net.cpp:408] relu2 <- ip2
I0428 19:53:12.190155 27713 net.cpp:369] relu2 -> ip2 (in-place)
I0428 19:53:12.190896 27713 net.cpp:124] Setting up relu2
I0428 19:53:12.190924 27713 net.cpp:131] Top shape: 64 50 (3200)
I0428 19:53:12.190928 27713 net.cpp:139] Memory required for data: 2177280
I0428 19:53:12.190932 27713 layer_factory.hpp:77] Creating layer ip3
I0428 19:53:12.190938 27713 net.cpp:86] Creating Layer ip3
I0428 19:53:12.190942 27713 net.cpp:408] ip3 <- ip2
I0428 19:53:12.190946 27713 net.cpp:382] ip3 -> ip3
I0428 19:53:12.191042 27713 net.cpp:124] Setting up ip3
I0428 19:53:12.191051 27713 net.cpp:131] Top shape: 64 10 (640)
I0428 19:53:12.191053 27713 net.cpp:139] Memory required for data: 2179840
I0428 19:53:12.191061 27713 layer_factory.hpp:77] Creating layer relu3
I0428 19:53:12.191066 27713 net.cpp:86] Creating Layer relu3
I0428 19:53:12.191068 27713 net.cpp:408] relu3 <- ip3
I0428 19:53:12.191072 27713 net.cpp:369] relu3 -> ip3 (in-place)
I0428 19:53:12.191244 27713 net.cpp:124] Setting up relu3
I0428 19:53:12.191253 27713 net.cpp:131] Top shape: 64 10 (640)
I0428 19:53:12.191256 27713 net.cpp:139] Memory required for data: 2182400
I0428 19:53:12.191259 27713 layer_factory.hpp:77] Creating layer loss
I0428 19:53:12.191270 27713 net.cpp:86] Creating Layer loss
I0428 19:53:12.191277 27713 net.cpp:408] loss <- ip3
I0428 19:53:12.191283 27713 net.cpp:408] loss <- label
I0428 19:53:12.191292 27713 net.cpp:382] loss -> loss
I0428 19:53:12.191304 27713 layer_factory.hpp:77] Creating layer loss
…
I0428 19:53:12.191990 27713 solver.cpp:173] Creating test net (#0) specified by net file: ECE595/mnist/train_test/var_everything2/lenet_train_test681.prototxt
I0428 19:53:12.192039 27713 net.cpp:296] The NetState phase (1) differed from the phase (0) specified by a rule in layer mnist
I0428 19:53:12.192126 27713 net.cpp:53] Initializing net from parameters: 
name: "LeNet"
state {
  phase: TEST
}
layer {
  name: "mnist"
  type: "Data"
  top: "data"
  top: "label"
  include {
    phase: TEST
  }
  transform_param {
    scale: 0.00390625
  }
  data_param {
    source: "examples/mnist/mnist_test_lmdb"
    batch_size: 100
    backend: LMDB
  }
}
layer {
  name: "conv0"
  type: "Convolution"
  bottom: "data"
  top: "conv0"
  param {
    lr_mult: 1
  }
  param {
    lr_mult: 2
  }
  convolution_param {
    num_output: 5
    kernel_size: 5
    stride: 1
    weight_filler {
      type: "xavier"
    }
    bias_filler {
      type: "constant"
    }
  }
}
layer {
  name: "pool0"
  type: "Pooling"
  bottom: "conv0"
  top: "pool0"
  pooling_param {
    pool: MAX
    kernel_size: 2
    stride: 2
  }
}
layer {
  name: "conv1"
  type: "Convolution"
  bottom: "pool0"
  top: "conv1"
  param {
    lr_mult: 1
  }
  param {
    lr_mult: 2
  }
  convolution_param {
    num_output: 50
    kernel_size: 5
    stride: 1
    weight_filler {
      type: "xavier"
    }
    bias_filler {
      type: "constant"
    }
  }
}
layer {
  name: "pool1"
  type: "Pooling"
  bottom: "conv1"
  top: "pool1"
  pooling_param {
    pool: MAX
    kernel_size: 2
    stride: 2
  }
}
layer {
  name: "ip1"
  type: "InnerProduct"
  bottom: "pool1"
  top: "ip1"
  param {
    lr_mult: 1
  }
  param {
    lr_mult: 2
  }
  inner_product_param {
    num_output: 10
    weight_filler {
      type: "xavier"
    }
    bias_filler {
      type: "constant"
    }
  }
}
layer {
  name: "relu1"
  type: "ReLU"
  bottom: "ip1"
  top: "ip1"
}
layer {
  name: "ip2"
  type: "InnerProduct"
  bottom: "ip1"
  top: "ip2"
  param {
    lr_mult: 1
  }
  param {
    lr_mult: 2
  }
  inner_product_param {
    num_output: 50
    weight_filler {
      type: "xavier"
    }
    bias_filler {
      type: "constant"
    }
  }
}
layer {
  name: "relu2"
  type: "ReLU"
  bottom: "ip2"
  top: "ip2"
}
layer {
  name: "ip3"
  type: "InnerProduct"
  bottom: "ip2"
  top: "ip3"
  param {
    lr_mult: 1
  }
  param {
    lr_mult: 2
  }
  inner_product_param {
    num_output: 10
    weight_filler {
      type: "xavier"
    }
    bias_filler {
      type: "constant"
    }
  }
}
layer {
  name: "relu3"
  type: "ReLU"
  bottom: "ip3"
  top: "ip3"
}
layer {
  name: "accuracy"
  type: "Accuracy"
  bottom: "ip3"
  bottom: "label"
  top: "accuracy"
  include {
    phase: TEST
  }
}
layer {
  name: "loss"
  type: "SoftmaxWithLoss"
  bottom: "ip3"
  bottom: "label"
  top: "loss"
}
I0428 19:53:12.192201 27713 layer_factory.hpp:77] Creating layer mnist
I0428 19:53:12.192242 27713 db_lmdb.cpp:35] Opened lmdb examples/mnist/mnist_test_lmdb
I0428 19:53:12.192255 27713 net.cpp:86] Creating Layer mnist
I0428 19:53:12.192260 27713 net.cpp:382] mnist -> data
I0428 19:53:12.192268 27713 net.cpp:382] mnist -> label
I0428 19:53:12.192364 27713 data_layer.cpp:45] output data size: 100,1,28,28
I0428 19:53:12.194501 27713 net.cpp:124] Setting up mnist
I0428 19:53:12.194531 27713 net.cpp:131] Top shape: 100 1 28 28 (78400)
I0428 19:53:12.194536 27713 net.cpp:131] Top shape: 100 (100)
I0428 19:53:12.194540 27713 net.cpp:139] Memory required for data: 314000
I0428 19:53:12.194542 27713 layer_factory.hpp:77] Creating layer label_mnist_1_split
I0428 19:53:12.194550 27713 net.cpp:86] Creating Layer label_mnist_1_split
I0428 19:53:12.194552 27713 net.cpp:408] label_mnist_1_split <- label
I0428 19:53:12.194557 27713 net.cpp:382] label_mnist_1_split -> label_mnist_1_split_0
I0428 19:53:12.194564 27713 net.cpp:382] label_mnist_1_split -> label_mnist_1_split_1
I0428 19:53:12.194659 27713 net.cpp:124] Setting up label_mnist_1_split
I0428 19:53:12.194666 27713 net.cpp:131] Top shape: 100 (100)
I0428 19:53:12.194685 27713 net.cpp:131] Top shape: 100 (100)
I0428 19:53:12.194689 27713 net.cpp:139] Memory required for data: 314800
I0428 19:53:12.194691 27713 layer_factory.hpp:77] Creating layer conv0
I0428 19:53:12.194700 27713 net.cpp:86] Creating Layer conv0
I0428 19:53:12.194703 27713 net.cpp:408] conv0 <- data
I0428 19:53:12.194708 27713 net.cpp:382] conv0 -> conv0
I0428 19:53:12.196225 27713 net.cpp:124] Setting up conv0
I0428 19:53:12.196238 27713 net.cpp:131] Top shape: 100 5 24 24 (288000)
I0428 19:53:12.196241 27713 net.cpp:139] Memory required for data: 1466800
I0428 19:53:12.196265 27713 layer_factory.hpp:77] Creating layer pool0
I0428 19:53:12.196271 27713 net.cpp:86] Creating Layer pool0
I0428 19:53:12.196274 27713 net.cpp:408] pool0 <- conv0
I0428 19:53:12.196280 27713 net.cpp:382] pool0 -> pool0
I0428 19:53:12.196312 27713 net.cpp:124] Setting up pool0
I0428 19:53:12.196319 27713 net.cpp:131] Top shape: 100 5 12 12 (72000)
I0428 19:53:12.196322 27713 net.cpp:139] Memory required for data: 1754800
I0428 19:53:12.196324 27713 layer_factory.hpp:77] Creating layer conv1
I0428 19:53:12.196332 27713 net.cpp:86] Creating Layer conv1
I0428 19:53:12.196336 27713 net.cpp:408] conv1 <- pool0
I0428 19:53:12.196339 27713 net.cpp:382] conv1 -> conv1
I0428 19:53:12.197959 27713 net.cpp:124] Setting up conv1
I0428 19:53:12.197973 27713 net.cpp:131] Top shape: 100 50 8 8 (320000)
I0428 19:53:12.197976 27713 net.cpp:139] Memory required for data: 3034800
I0428 19:53:12.197985 27713 layer_factory.hpp:77] Creating layer pool1
I0428 19:53:12.197993 27713 net.cpp:86] Creating Layer pool1
I0428 19:53:12.197995 27713 net.cpp:408] pool1 <- conv1
I0428 19:53:12.198001 27713 net.cpp:382] pool1 -> pool1
I0428 19:53:12.198036 27713 net.cpp:124] Setting up pool1
I0428 19:53:12.198042 27713 net.cpp:131] Top shape: 100 50 4 4 (80000)
I0428 19:53:12.198045 27713 net.cpp:139] Memory required for data: 3354800
I0428 19:53:12.198048 27713 layer_factory.hpp:77] Creating layer ip1
I0428 19:53:12.198055 27713 net.cpp:86] Creating Layer ip1
I0428 19:53:12.198057 27713 net.cpp:408] ip1 <- pool1
I0428 19:53:12.198061 27713 net.cpp:382] ip1 -> ip1
I0428 19:53:12.198215 27713 net.cpp:124] Setting up ip1
I0428 19:53:12.198223 27713 net.cpp:131] Top shape: 100 10 (1000)
I0428 19:53:12.198237 27713 net.cpp:139] Memory required for data: 3358800
I0428 19:53:12.198251 27713 layer_factory.hpp:77] Creating layer relu1
I0428 19:53:12.198256 27713 net.cpp:86] Creating Layer relu1
I0428 19:53:12.198259 27713 net.cpp:408] relu1 <- ip1
I0428 19:53:12.198263 27713 net.cpp:369] relu1 -> ip1 (in-place)
I0428 19:53:12.198529 27713 net.cpp:124] Setting up relu1
I0428 19:53:12.198539 27713 net.cpp:131] Top shape: 100 10 (1000)
I0428 19:53:12.198544 27713 net.cpp:139] Memory required for data: 3362800
I0428 19:53:12.198546 27713 layer_factory.hpp:77] Creating layer ip2
I0428 19:53:12.198554 27713 net.cpp:86] Creating Layer ip2
I0428 19:53:12.198556 27713 net.cpp:408] ip2 <- ip1
I0428 19:53:12.198561 27713 net.cpp:382] ip2 -> ip2
I0428 19:53:12.198658 27713 net.cpp:124] Setting up ip2
I0428 19:53:12.198665 27713 net.cpp:131] Top shape: 100 50 (5000)
I0428 19:53:12.198668 27713 net.cpp:139] Memory required for data: 3382800
I0428 19:53:12.198674 27713 layer_factory.hpp:77] Creating layer relu2
I0428 19:53:12.198678 27713 net.cpp:86] Creating Layer relu2
I0428 19:53:12.198681 27713 net.cpp:408] relu2 <- ip2
I0428 19:53:12.198685 27713 net.cpp:369] relu2 -> ip2 (in-place)
I0428 19:53:12.198827 27713 net.cpp:124] Setting up relu2
I0428 19:53:12.198834 27713 net.cpp:131] Top shape: 100 50 (5000)
I0428 19:53:12.198838 27713 net.cpp:139] Memory required for data: 3402800
I0428 19:53:12.198842 27713 layer_factory.hpp:77] Creating layer ip3
I0428 19:53:12.198846 27713 net.cpp:86] Creating Layer ip3
I0428 19:53:12.198849 27713 net.cpp:408] ip3 <- ip2
I0428 19:53:12.198853 27713 net.cpp:382] ip3 -> ip3
I0428 19:53:12.198961 27713 net.cpp:124] Setting up ip3
I0428 19:53:12.198969 27713 net.cpp:131] Top shape: 100 10 (1000)
I0428 19:53:12.198972 27713 net.cpp:139] Memory required for data: 3406800
I0428 19:53:12.198981 27713 layer_factory.hpp:77] Creating layer relu3
I0428 19:53:12.198985 27713 net.cpp:86] Creating Layer relu3
I0428 19:53:12.198988 27713 net.cpp:408] relu3 <- ip3
I0428 19:53:12.198992 27713 net.cpp:369] relu3 -> ip3 (in-place)
I0428 19:53:12.199832 27713 net.cpp:124] Setting up relu3
I0428 19:53:12.199844 27713 net.cpp:131] Top shape: 100 10 (1000)
I0428 19:53:12.199848 27713 net.cpp:139] Memory required for data: 3410800
I0428 19:53:12.199852 27713 layer_factory.hpp:77] Creating layer ip3_relu3_0_split
I0428 19:53:12.199857 27713 net.cpp:86] Creating Layer ip3_relu3_0_split
I0428 19:53:12.199862 27713 net.cpp:408] ip3_relu3_0_split <- ip3
I0428 19:53:12.199867 27713 net.cpp:382] ip3_relu3_0_split -> ip3_relu3_0_split_0
I0428 19:53:12.199872 27713 net.cpp:382] ip3_relu3_0_split -> ip3_relu3_0_split_1
I0428 19:53:12.199908 27713 net.cpp:124] Setting up ip3_relu3_0_split
I0428 19:53:12.199915 27713 net.cpp:131] Top shape: 100 10 (1000)
I0428 19:53:12.199923 27713 net.cpp:131] Top shape: 100 10 (1000)
I0428 19:53:12.199926 27713 net.cpp:139] Memory required for data: 3418800
I0428 19:53:12.199929 27713 layer_factory.hpp:77] Creating layer accuracy
I0428 19:53:12.199934 27713 net.cpp:86] Creating Layer accuracy
I0428 19:53:12.199937 27713 net.cpp:408] accuracy <- ip3_relu3_0_split_0
I0428 19:53:12.199941 27713 net.cpp:408] accuracy <- label_mnist_1_split_0
I0428 19:53:12.199946 27713 net.cpp:382] accuracy -> accuracy
…
