…
I0428 20:17:53.249377  1007 net.cpp:296] The NetState phase (0) differed from the phase (1) specified by a rule in layer mnist
I0428 20:17:53.249409  1007 net.cpp:296] The NetState phase (0) differed from the phase (1) specified by a rule in layer accuracy
I0428 20:17:53.249487  1007 net.cpp:53] Initializing net from parameters: 
name: "LeNet"
state {
  phase: TRAIN
  level: 0
  stage: ""
}
layer {
  name: "mnist"
  type: "Data"
  top: "data"
  top: "label"
  include {
    phase: TRAIN
  }
  transform_param {
    scale: 0.00390625
  }
  data_param {
    source: "examples/mnist/mnist_train_lmdb"
    batch_size: 64
    backend: LMDB
  }
}
layer {
  name: "conv0"
  type: "Convolution"
  bottom: "data"
  top: "conv0"
  param {
    lr_mult: 1
  }
  param {
    lr_mult: 2
  }
  convolution_param {
    num_output: 50
    kernel_size: 5
    stride: 1
    weight_filler {
      type: "xavier"
    }
    bias_filler {
      type: "constant"
    }
  }
}
layer {
  name: "pool0"
  type: "Pooling"
  bottom: "conv0"
  top: "pool0"
  pooling_param {
    pool: MAX
    kernel_size: 2
    stride: 2
  }
}
layer {
  name: "conv1"
  type: "Convolution"
  bottom: "pool0"
  top: "conv1"
  param {
    lr_mult: 1
  }
  param {
    lr_mult: 2
  }
  convolution_param {
    num_output: 10
    kernel_size: 5
    stride: 1
    weight_filler {
      type: "xavier"
    }
    bias_filler {
      type: "constant"
    }
  }
}
layer {
  name: "pool1"
  type: "Pooling"
  bottom: "conv1"
  top: "pool1"
  pooling_param {
    pool: MAX
    kernel_size: 2
    stride: 2
  }
}
layer {
  name: "ip1"
  type: "InnerProduct"
  bottom: "pool1"
  top: "ip1"
  param {
    lr_mult: 1
  }
  param {
    lr_mult: 2
  }
  inner_product_param {
    num_output: 10
    weight_filler {
      type: "xavier"
    }
    bias_filler {
      type: "constant"
    }
  }
}
layer {
  name: "relu1"
  type: "ReLU"
  bottom: "ip1"
  top: "ip1"
}
layer {
  name: "ip2"
  type: "InnerProduct"
  bottom: "ip1"
  top: "ip2"
  param {
    lr_mult: 1
  }
  param {
    lr_mult: 2
  }
  inner_product_param {
    num_output: 50
    weight_filler {
      type: "xavier"
    }
    bias_filler {
      type: "constant"
    }
  }
}
layer {
  name: "relu2"
  type: "ReLU"
  bottom: "ip2"
  top: "ip2"
}
layer {
  name: "ip3"
  type: "InnerProduct"
  bottom: "ip2"
  top: "ip3"
  param {
    lr_mult: 1
  }
  param {
    lr_mult: 2
  }
  inner_product_param {
    num_output: 10
    weight_filler {
      type: "xavier"
    }
    bias_filler {
      type: "constant"
    }
  }
}
layer {
  name: "relu3"
  type: "ReLU"
  bottom: "ip3"
  top: "ip3"
}
layer {
  name: "loss"
  type: "SoftmaxWithLoss"
  bottom: "ip3"
  bottom: "label"
  top: "loss"
}
I0428 20:17:53.249550  1007 layer_factory.hpp:77] Creating layer mnist
I0428 20:17:53.249629  1007 db_lmdb.cpp:35] Opened lmdb examples/mnist/mnist_train_lmdb
I0428 20:17:53.249647  1007 net.cpp:86] Creating Layer mnist
I0428 20:17:53.249655  1007 net.cpp:382] mnist -> data
I0428 20:17:53.249672  1007 net.cpp:382] mnist -> label
I0428 20:17:53.250587  1007 data_layer.cpp:45] output data size: 64,1,28,28
I0428 20:17:53.252954  1007 net.cpp:124] Setting up mnist
I0428 20:17:53.252985  1007 net.cpp:131] Top shape: 64 1 28 28 (50176)
I0428 20:17:53.252990  1007 net.cpp:131] Top shape: 64 (64)
I0428 20:17:53.252993  1007 net.cpp:139] Memory required for data: 200960
I0428 20:17:53.253000  1007 layer_factory.hpp:77] Creating layer conv0
I0428 20:17:53.253013  1007 net.cpp:86] Creating Layer conv0
I0428 20:17:53.253031  1007 net.cpp:408] conv0 <- data
I0428 20:17:53.253041  1007 net.cpp:382] conv0 -> conv0
I0428 20:17:53.489327  1007 net.cpp:124] Setting up conv0
I0428 20:17:53.489353  1007 net.cpp:131] Top shape: 64 50 24 24 (1843200)
I0428 20:17:53.489357  1007 net.cpp:139] Memory required for data: 7573760
I0428 20:17:53.489372  1007 layer_factory.hpp:77] Creating layer pool0
I0428 20:17:53.489383  1007 net.cpp:86] Creating Layer pool0
I0428 20:17:53.489387  1007 net.cpp:408] pool0 <- conv0
I0428 20:17:53.489393  1007 net.cpp:382] pool0 -> pool0
I0428 20:17:53.489455  1007 net.cpp:124] Setting up pool0
I0428 20:17:53.489462  1007 net.cpp:131] Top shape: 64 50 12 12 (460800)
I0428 20:17:53.489465  1007 net.cpp:139] Memory required for data: 9416960
I0428 20:17:53.489467  1007 layer_factory.hpp:77] Creating layer conv1
I0428 20:17:53.489478  1007 net.cpp:86] Creating Layer conv1
I0428 20:17:53.489481  1007 net.cpp:408] conv1 <- pool0
I0428 20:17:53.489488  1007 net.cpp:382] conv1 -> conv1
I0428 20:17:53.492477  1007 net.cpp:124] Setting up conv1
I0428 20:17:53.492507  1007 net.cpp:131] Top shape: 64 10 8 8 (40960)
I0428 20:17:53.492511  1007 net.cpp:139] Memory required for data: 9580800
I0428 20:17:53.492519  1007 layer_factory.hpp:77] Creating layer pool1
I0428 20:17:53.492528  1007 net.cpp:86] Creating Layer pool1
I0428 20:17:53.492532  1007 net.cpp:408] pool1 <- conv1
I0428 20:17:53.492537  1007 net.cpp:382] pool1 -> pool1
I0428 20:17:53.492591  1007 net.cpp:124] Setting up pool1
I0428 20:17:53.492597  1007 net.cpp:131] Top shape: 64 10 4 4 (10240)
I0428 20:17:53.492600  1007 net.cpp:139] Memory required for data: 9621760
I0428 20:17:53.492604  1007 layer_factory.hpp:77] Creating layer ip1
I0428 20:17:53.492611  1007 net.cpp:86] Creating Layer ip1
I0428 20:17:53.492615  1007 net.cpp:408] ip1 <- pool1
I0428 20:17:53.492619  1007 net.cpp:382] ip1 -> ip1
I0428 20:17:53.492733  1007 net.cpp:124] Setting up ip1
I0428 20:17:53.492740  1007 net.cpp:131] Top shape: 64 10 (640)
I0428 20:17:53.492743  1007 net.cpp:139] Memory required for data: 9624320
I0428 20:17:53.492750  1007 layer_factory.hpp:77] Creating layer relu1
I0428 20:17:53.492756  1007 net.cpp:86] Creating Layer relu1
I0428 20:17:53.492760  1007 net.cpp:408] relu1 <- ip1
I0428 20:17:53.492765  1007 net.cpp:369] relu1 -> ip1 (in-place)
I0428 20:17:53.492980  1007 net.cpp:124] Setting up relu1
I0428 20:17:53.492990  1007 net.cpp:131] Top shape: 64 10 (640)
I0428 20:17:53.492993  1007 net.cpp:139] Memory required for data: 9626880
I0428 20:17:53.492996  1007 layer_factory.hpp:77] Creating layer ip2
I0428 20:17:53.493005  1007 net.cpp:86] Creating Layer ip2
I0428 20:17:53.493007  1007 net.cpp:408] ip2 <- ip1
I0428 20:17:53.493012  1007 net.cpp:382] ip2 -> ip2
I0428 20:17:53.493119  1007 net.cpp:124] Setting up ip2
I0428 20:17:53.493125  1007 net.cpp:131] Top shape: 64 50 (3200)
I0428 20:17:53.493129  1007 net.cpp:139] Memory required for data: 9639680
I0428 20:17:53.493134  1007 layer_factory.hpp:77] Creating layer relu2
I0428 20:17:53.493141  1007 net.cpp:86] Creating Layer relu2
I0428 20:17:53.493145  1007 net.cpp:408] relu2 <- ip2
I0428 20:17:53.493149  1007 net.cpp:369] relu2 -> ip2 (in-place)
I0428 20:17:53.493885  1007 net.cpp:124] Setting up relu2
I0428 20:17:53.493916  1007 net.cpp:131] Top shape: 64 50 (3200)
I0428 20:17:53.493919  1007 net.cpp:139] Memory required for data: 9652480
I0428 20:17:53.493922  1007 layer_factory.hpp:77] Creating layer ip3
I0428 20:17:53.493929  1007 net.cpp:86] Creating Layer ip3
I0428 20:17:53.493932  1007 net.cpp:408] ip3 <- ip2
I0428 20:17:53.493938  1007 net.cpp:382] ip3 -> ip3
I0428 20:17:53.494045  1007 net.cpp:124] Setting up ip3
I0428 20:17:53.494068  1007 net.cpp:131] Top shape: 64 10 (640)
I0428 20:17:53.494086  1007 net.cpp:139] Memory required for data: 9655040
I0428 20:17:53.494096  1007 layer_factory.hpp:77] Creating layer relu3
I0428 20:17:53.494102  1007 net.cpp:86] Creating Layer relu3
I0428 20:17:53.494104  1007 net.cpp:408] relu3 <- ip3
I0428 20:17:53.494109  1007 net.cpp:369] relu3 -> ip3 (in-place)
I0428 20:17:53.494316  1007 net.cpp:124] Setting up relu3
I0428 20:17:53.494326  1007 net.cpp:131] Top shape: 64 10 (640)
I0428 20:17:53.494330  1007 net.cpp:139] Memory required for data: 9657600
I0428 20:17:53.494333  1007 layer_factory.hpp:77] Creating layer loss
I0428 20:17:53.494340  1007 net.cpp:86] Creating Layer loss
I0428 20:17:53.494343  1007 net.cpp:408] loss <- ip3
I0428 20:17:53.494348  1007 net.cpp:408] loss <- label
I0428 20:17:53.494354  1007 net.cpp:382] loss -> loss
I0428 20:17:53.494369  1007 layer_factory.hpp:77] Creating layer loss
…
I0428 20:17:53.495110  1007 solver.cpp:173] Creating test net (#0) specified by net file: ECE595/mnist/train_test/var_everything2/lenet_train_test1305.prototxt
I0428 20:17:53.495153  1007 net.cpp:296] The NetState phase (1) differed from the phase (0) specified by a rule in layer mnist
I0428 20:17:53.495254  1007 net.cpp:53] Initializing net from parameters: 
name: "LeNet"
state {
  phase: TEST
}
layer {
  name: "mnist"
  type: "Data"
  top: "data"
  top: "label"
  include {
    phase: TEST
  }
  transform_param {
    scale: 0.00390625
  }
  data_param {
    source: "examples/mnist/mnist_test_lmdb"
    batch_size: 100
    backend: LMDB
  }
}
layer {
  name: "conv0"
  type: "Convolution"
  bottom: "data"
  top: "conv0"
  param {
    lr_mult: 1
  }
  param {
    lr_mult: 2
  }
  convolution_param {
    num_output: 50
    kernel_size: 5
    stride: 1
    weight_filler {
      type: "xavier"
    }
    bias_filler {
      type: "constant"
    }
  }
}
layer {
  name: "pool0"
  type: "Pooling"
  bottom: "conv0"
  top: "pool0"
  pooling_param {
    pool: MAX
    kernel_size: 2
    stride: 2
  }
}
layer {
  name: "conv1"
  type: "Convolution"
  bottom: "pool0"
  top: "conv1"
  param {
    lr_mult: 1
  }
  param {
    lr_mult: 2
  }
  convolution_param {
    num_output: 10
    kernel_size: 5
    stride: 1
    weight_filler {
      type: "xavier"
    }
    bias_filler {
      type: "constant"
    }
  }
}
layer {
  name: "pool1"
  type: "Pooling"
  bottom: "conv1"
  top: "pool1"
  pooling_param {
    pool: MAX
    kernel_size: 2
    stride: 2
  }
}
layer {
  name: "ip1"
  type: "InnerProduct"
  bottom: "pool1"
  top: "ip1"
  param {
    lr_mult: 1
  }
  param {
    lr_mult: 2
  }
  inner_product_param {
    num_output: 10
    weight_filler {
      type: "xavier"
    }
    bias_filler {
      type: "constant"
    }
  }
}
layer {
  name: "relu1"
  type: "ReLU"
  bottom: "ip1"
  top: "ip1"
}
layer {
  name: "ip2"
  type: "InnerProduct"
  bottom: "ip1"
  top: "ip2"
  param {
    lr_mult: 1
  }
  param {
    lr_mult: 2
  }
  inner_product_param {
    num_output: 50
    weight_filler {
      type: "xavier"
    }
    bias_filler {
      type: "constant"
    }
  }
}
layer {
  name: "relu2"
  type: "ReLU"
  bottom: "ip2"
  top: "ip2"
}
layer {
  name: "ip3"
  type: "InnerProduct"
  bottom: "ip2"
  top: "ip3"
  param {
    lr_mult: 1
  }
  param {
    lr_mult: 2
  }
  inner_product_param {
    num_output: 10
    weight_filler {
      type: "xavier"
    }
    bias_filler {
      type: "constant"
    }
  }
}
layer {
  name: "relu3"
  type: "ReLU"
  bottom: "ip3"
  top: "ip3"
}
layer {
  name: "accuracy"
  type: "Accuracy"
  bottom: "ip3"
  bottom: "label"
  top: "accuracy"
  include {
    phase: TEST
  }
}
layer {
  name: "loss"
  type: "SoftmaxWithLoss"
  bottom: "ip3"
  bottom: "label"
  top: "loss"
}
I0428 20:17:53.495345  1007 layer_factory.hpp:77] Creating layer mnist
I0428 20:17:53.495390  1007 db_lmdb.cpp:35] Opened lmdb examples/mnist/mnist_test_lmdb
I0428 20:17:53.495404  1007 net.cpp:86] Creating Layer mnist
I0428 20:17:53.495409  1007 net.cpp:382] mnist -> data
I0428 20:17:53.495432  1007 net.cpp:382] mnist -> label
I0428 20:17:53.495550  1007 data_layer.cpp:45] output data size: 100,1,28,28
I0428 20:17:53.497599  1007 net.cpp:124] Setting up mnist
I0428 20:17:53.497628  1007 net.cpp:131] Top shape: 100 1 28 28 (78400)
I0428 20:17:53.497633  1007 net.cpp:131] Top shape: 100 (100)
I0428 20:17:53.497637  1007 net.cpp:139] Memory required for data: 314000
I0428 20:17:53.497640  1007 layer_factory.hpp:77] Creating layer label_mnist_1_split
I0428 20:17:53.497650  1007 net.cpp:86] Creating Layer label_mnist_1_split
I0428 20:17:53.497653  1007 net.cpp:408] label_mnist_1_split <- label
I0428 20:17:53.497659  1007 net.cpp:382] label_mnist_1_split -> label_mnist_1_split_0
I0428 20:17:53.497665  1007 net.cpp:382] label_mnist_1_split -> label_mnist_1_split_1
I0428 20:17:53.497769  1007 net.cpp:124] Setting up label_mnist_1_split
I0428 20:17:53.497777  1007 net.cpp:131] Top shape: 100 (100)
I0428 20:17:53.497781  1007 net.cpp:131] Top shape: 100 (100)
I0428 20:17:53.497784  1007 net.cpp:139] Memory required for data: 314800
I0428 20:17:53.497787  1007 layer_factory.hpp:77] Creating layer conv0
I0428 20:17:53.497797  1007 net.cpp:86] Creating Layer conv0
I0428 20:17:53.497802  1007 net.cpp:408] conv0 <- data
I0428 20:17:53.497807  1007 net.cpp:382] conv0 -> conv0
I0428 20:17:53.499528  1007 net.cpp:124] Setting up conv0
I0428 20:17:53.499541  1007 net.cpp:131] Top shape: 100 50 24 24 (2880000)
I0428 20:17:53.499560  1007 net.cpp:139] Memory required for data: 11834800
I0428 20:17:53.499585  1007 layer_factory.hpp:77] Creating layer pool0
I0428 20:17:53.499593  1007 net.cpp:86] Creating Layer pool0
I0428 20:17:53.499595  1007 net.cpp:408] pool0 <- conv0
I0428 20:17:53.499599  1007 net.cpp:382] pool0 -> pool0
I0428 20:17:53.499675  1007 net.cpp:124] Setting up pool0
I0428 20:17:53.499683  1007 net.cpp:131] Top shape: 100 50 12 12 (720000)
I0428 20:17:53.499687  1007 net.cpp:139] Memory required for data: 14714800
I0428 20:17:53.499691  1007 layer_factory.hpp:77] Creating layer conv1
I0428 20:17:53.499699  1007 net.cpp:86] Creating Layer conv1
I0428 20:17:53.499703  1007 net.cpp:408] conv1 <- pool0
I0428 20:17:53.499709  1007 net.cpp:382] conv1 -> conv1
I0428 20:17:53.501456  1007 net.cpp:124] Setting up conv1
I0428 20:17:53.501485  1007 net.cpp:131] Top shape: 100 10 8 8 (64000)
I0428 20:17:53.501488  1007 net.cpp:139] Memory required for data: 14970800
I0428 20:17:53.501497  1007 layer_factory.hpp:77] Creating layer pool1
I0428 20:17:53.501503  1007 net.cpp:86] Creating Layer pool1
I0428 20:17:53.501508  1007 net.cpp:408] pool1 <- conv1
I0428 20:17:53.501514  1007 net.cpp:382] pool1 -> pool1
I0428 20:17:53.501567  1007 net.cpp:124] Setting up pool1
I0428 20:17:53.501574  1007 net.cpp:131] Top shape: 100 10 4 4 (16000)
I0428 20:17:53.501577  1007 net.cpp:139] Memory required for data: 15034800
I0428 20:17:53.501580  1007 layer_factory.hpp:77] Creating layer ip1
I0428 20:17:53.501586  1007 net.cpp:86] Creating Layer ip1
I0428 20:17:53.501590  1007 net.cpp:408] ip1 <- pool1
I0428 20:17:53.501595  1007 net.cpp:382] ip1 -> ip1
I0428 20:17:53.501710  1007 net.cpp:124] Setting up ip1
I0428 20:17:53.501718  1007 net.cpp:131] Top shape: 100 10 (1000)
I0428 20:17:53.501732  1007 net.cpp:139] Memory required for data: 15038800
I0428 20:17:53.501740  1007 layer_factory.hpp:77] Creating layer relu1
I0428 20:17:53.501745  1007 net.cpp:86] Creating Layer relu1
I0428 20:17:53.501749  1007 net.cpp:408] relu1 <- ip1
I0428 20:17:53.501754  1007 net.cpp:369] relu1 -> ip1 (in-place)
I0428 20:17:53.501971  1007 net.cpp:124] Setting up relu1
I0428 20:17:53.501979  1007 net.cpp:131] Top shape: 100 10 (1000)
I0428 20:17:53.501983  1007 net.cpp:139] Memory required for data: 15042800
I0428 20:17:53.501986  1007 layer_factory.hpp:77] Creating layer ip2
I0428 20:17:53.501993  1007 net.cpp:86] Creating Layer ip2
I0428 20:17:53.501997  1007 net.cpp:408] ip2 <- ip1
I0428 20:17:53.502002  1007 net.cpp:382] ip2 -> ip2
I0428 20:17:53.502148  1007 net.cpp:124] Setting up ip2
I0428 20:17:53.502156  1007 net.cpp:131] Top shape: 100 50 (5000)
I0428 20:17:53.502158  1007 net.cpp:139] Memory required for data: 15062800
I0428 20:17:53.502164  1007 layer_factory.hpp:77] Creating layer relu2
I0428 20:17:53.502169  1007 net.cpp:86] Creating Layer relu2
I0428 20:17:53.502172  1007 net.cpp:408] relu2 <- ip2
I0428 20:17:53.502177  1007 net.cpp:369] relu2 -> ip2 (in-place)
I0428 20:17:53.502389  1007 net.cpp:124] Setting up relu2
I0428 20:17:53.502398  1007 net.cpp:131] Top shape: 100 50 (5000)
I0428 20:17:53.502403  1007 net.cpp:139] Memory required for data: 15082800
I0428 20:17:53.502420  1007 layer_factory.hpp:77] Creating layer ip3
I0428 20:17:53.502427  1007 net.cpp:86] Creating Layer ip3
I0428 20:17:53.502430  1007 net.cpp:408] ip3 <- ip2
I0428 20:17:53.502455  1007 net.cpp:382] ip3 -> ip3
I0428 20:17:53.502578  1007 net.cpp:124] Setting up ip3
I0428 20:17:53.502586  1007 net.cpp:131] Top shape: 100 10 (1000)
I0428 20:17:53.502589  1007 net.cpp:139] Memory required for data: 15086800
I0428 20:17:53.502599  1007 layer_factory.hpp:77] Creating layer relu3
I0428 20:17:53.502604  1007 net.cpp:86] Creating Layer relu3
I0428 20:17:53.502606  1007 net.cpp:408] relu3 <- ip3
I0428 20:17:53.502610  1007 net.cpp:369] relu3 -> ip3 (in-place)
I0428 20:17:53.503504  1007 net.cpp:124] Setting up relu3
I0428 20:17:53.503515  1007 net.cpp:131] Top shape: 100 10 (1000)
I0428 20:17:53.503533  1007 net.cpp:139] Memory required for data: 15090800
I0428 20:17:53.503536  1007 layer_factory.hpp:77] Creating layer ip3_relu3_0_split
I0428 20:17:53.503543  1007 net.cpp:86] Creating Layer ip3_relu3_0_split
I0428 20:17:53.503546  1007 net.cpp:408] ip3_relu3_0_split <- ip3
I0428 20:17:53.503551  1007 net.cpp:382] ip3_relu3_0_split -> ip3_relu3_0_split_0
I0428 20:17:53.503557  1007 net.cpp:382] ip3_relu3_0_split -> ip3_relu3_0_split_1
I0428 20:17:53.503602  1007 net.cpp:124] Setting up ip3_relu3_0_split
I0428 20:17:53.503607  1007 net.cpp:131] Top shape: 100 10 (1000)
I0428 20:17:53.503610  1007 net.cpp:131] Top shape: 100 10 (1000)
I0428 20:17:53.503613  1007 net.cpp:139] Memory required for data: 15098800
I0428 20:17:53.503617  1007 layer_factory.hpp:77] Creating layer accuracy
I0428 20:17:53.503623  1007 net.cpp:86] Creating Layer accuracy
I0428 20:17:53.503626  1007 net.cpp:408] accuracy <- ip3_relu3_0_split_0
I0428 20:17:53.503630  1007 net.cpp:408] accuracy <- label_mnist_1_split_0
I0428 20:17:53.503635  1007 net.cpp:382] accuracy -> accuracy
…
