…
I0428 19:28:08.265943 21542 net.cpp:296] The NetState phase (0) differed from the phase (1) specified by a rule in layer mnist
I0428 19:28:08.265954 21542 net.cpp:296] The NetState phase (0) differed from the phase (1) specified by a rule in layer accuracy
I0428 19:28:08.266026 21542 net.cpp:53] Initializing net from parameters: 
name: "LeNet"
state {
  phase: TRAIN
  level: 0
  stage: ""
}
layer {
  name: "mnist"
  type: "Data"
  top: "data"
  top: "label"
  include {
    phase: TRAIN
  }
  transform_param {
    scale: 0.00390625
  }
  data_param {
    source: "examples/mnist/mnist_train_lmdb"
    batch_size: 64
    backend: LMDB
  }
}
layer {
  name: "ip1"
  type: "InnerProduct"
  bottom: "data"
  top: "ip1"
  param {
    lr_mult: 1
  }
  param {
    lr_mult: 2
  }
  inner_product_param {
    num_output: 10
    weight_filler {
      type: "xavier"
    }
    bias_filler {
      type: "constant"
    }
  }
}
layer {
  name: "relu1"
  type: "ReLU"
  bottom: "ip1"
  top: "ip1"
}
layer {
  name: "ip2"
  type: "InnerProduct"
  bottom: "ip1"
  top: "ip2"
  param {
    lr_mult: 1
  }
  param {
    lr_mult: 2
  }
  inner_product_param {
    num_output: 25
    weight_filler {
      type: "xavier"
    }
    bias_filler {
      type: "constant"
    }
  }
}
layer {
  name: "relu2"
  type: "ReLU"
  bottom: "ip2"
  top: "ip2"
}
layer {
  name: "ip3"
  type: "InnerProduct"
  bottom: "ip2"
  top: "ip3"
  param {
    lr_mult: 1
  }
  param {
    lr_mult: 2
  }
  inner_product_param {
    num_output: 10
    weight_filler {
      type: "xavier"
    }
    bias_filler {
      type: "constant"
    }
  }
}
layer {
  name: "relu3"
  type: "ReLU"
  bottom: "ip3"
  top: "ip3"
}
layer {
  name: "loss"
  type: "SoftmaxWithLoss"
  bottom: "ip3"
  bottom: "label"
  top: "loss"
}
I0428 19:28:08.266075 21542 layer_factory.hpp:77] Creating layer mnist
I0428 19:28:08.266160 21542 db_lmdb.cpp:35] Opened lmdb examples/mnist/mnist_train_lmdb
I0428 19:28:08.266180 21542 net.cpp:86] Creating Layer mnist
I0428 19:28:08.266185 21542 net.cpp:382] mnist -> data
I0428 19:28:08.266204 21542 net.cpp:382] mnist -> label
I0428 19:28:08.267233 21542 data_layer.cpp:45] output data size: 64,1,28,28
I0428 19:28:08.269598 21542 net.cpp:124] Setting up mnist
I0428 19:28:08.269628 21542 net.cpp:131] Top shape: 64 1 28 28 (50176)
I0428 19:28:08.269634 21542 net.cpp:131] Top shape: 64 (64)
I0428 19:28:08.269636 21542 net.cpp:139] Memory required for data: 200960
I0428 19:28:08.269642 21542 layer_factory.hpp:77] Creating layer ip1
I0428 19:28:08.269650 21542 net.cpp:86] Creating Layer ip1
I0428 19:28:08.269655 21542 net.cpp:408] ip1 <- data
I0428 19:28:08.269665 21542 net.cpp:382] ip1 -> ip1
I0428 19:28:08.270956 21542 net.cpp:124] Setting up ip1
I0428 19:28:08.270968 21542 net.cpp:131] Top shape: 64 10 (640)
I0428 19:28:08.270972 21542 net.cpp:139] Memory required for data: 203520
I0428 19:28:08.270985 21542 layer_factory.hpp:77] Creating layer relu1
I0428 19:28:08.270993 21542 net.cpp:86] Creating Layer relu1
I0428 19:28:08.270997 21542 net.cpp:408] relu1 <- ip1
I0428 19:28:08.271001 21542 net.cpp:369] relu1 -> ip1 (in-place)
I0428 19:28:08.499050 21542 net.cpp:124] Setting up relu1
I0428 19:28:08.499094 21542 net.cpp:131] Top shape: 64 10 (640)
I0428 19:28:08.499097 21542 net.cpp:139] Memory required for data: 206080
I0428 19:28:08.499104 21542 layer_factory.hpp:77] Creating layer ip2
I0428 19:28:08.499116 21542 net.cpp:86] Creating Layer ip2
I0428 19:28:08.499156 21542 net.cpp:408] ip2 <- ip1
I0428 19:28:08.499164 21542 net.cpp:382] ip2 -> ip2
I0428 19:28:08.499284 21542 net.cpp:124] Setting up ip2
I0428 19:28:08.499306 21542 net.cpp:131] Top shape: 64 25 (1600)
I0428 19:28:08.499310 21542 net.cpp:139] Memory required for data: 212480
I0428 19:28:08.499320 21542 layer_factory.hpp:77] Creating layer relu2
I0428 19:28:08.499326 21542 net.cpp:86] Creating Layer relu2
I0428 19:28:08.499330 21542 net.cpp:408] relu2 <- ip2
I0428 19:28:08.499335 21542 net.cpp:369] relu2 -> ip2 (in-place)
I0428 19:28:08.500144 21542 net.cpp:124] Setting up relu2
I0428 19:28:08.500172 21542 net.cpp:131] Top shape: 64 25 (1600)
I0428 19:28:08.500176 21542 net.cpp:139] Memory required for data: 218880
I0428 19:28:08.500180 21542 layer_factory.hpp:77] Creating layer ip3
I0428 19:28:08.500187 21542 net.cpp:86] Creating Layer ip3
I0428 19:28:08.500190 21542 net.cpp:408] ip3 <- ip2
I0428 19:28:08.500196 21542 net.cpp:382] ip3 -> ip3
I0428 19:28:08.500315 21542 net.cpp:124] Setting up ip3
I0428 19:28:08.500324 21542 net.cpp:131] Top shape: 64 10 (640)
I0428 19:28:08.500326 21542 net.cpp:139] Memory required for data: 221440
I0428 19:28:08.500335 21542 layer_factory.hpp:77] Creating layer relu3
I0428 19:28:08.500340 21542 net.cpp:86] Creating Layer relu3
I0428 19:28:08.500344 21542 net.cpp:408] relu3 <- ip3
I0428 19:28:08.500349 21542 net.cpp:369] relu3 -> ip3 (in-place)
I0428 19:28:08.500511 21542 net.cpp:124] Setting up relu3
I0428 19:28:08.500520 21542 net.cpp:131] Top shape: 64 10 (640)
I0428 19:28:08.500524 21542 net.cpp:139] Memory required for data: 224000
I0428 19:28:08.500526 21542 layer_factory.hpp:77] Creating layer loss
I0428 19:28:08.500533 21542 net.cpp:86] Creating Layer loss
I0428 19:28:08.500536 21542 net.cpp:408] loss <- ip3
I0428 19:28:08.500540 21542 net.cpp:408] loss <- label
I0428 19:28:08.500545 21542 net.cpp:382] loss -> loss
I0428 19:28:08.500566 21542 layer_factory.hpp:77] Creating layer loss
…
I0428 19:28:08.502094 21542 solver.cpp:173] Creating test net (#0) specified by net file: ECE595/mnist/train_test/var_everything2/lenet_train_test15.prototxt
I0428 19:28:08.502117 21542 net.cpp:296] The NetState phase (1) differed from the phase (0) specified by a rule in layer mnist
I0428 19:28:08.502199 21542 net.cpp:53] Initializing net from parameters: 
name: "LeNet"
state {
  phase: TEST
}
layer {
  name: "mnist"
  type: "Data"
  top: "data"
  top: "label"
  include {
    phase: TEST
  }
  transform_param {
    scale: 0.00390625
  }
  data_param {
    source: "examples/mnist/mnist_test_lmdb"
    batch_size: 100
    backend: LMDB
  }
}
layer {
  name: "ip1"
  type: "InnerProduct"
  bottom: "data"
  top: "ip1"
  param {
    lr_mult: 1
  }
  param {
    lr_mult: 2
  }
  inner_product_param {
    num_output: 10
    weight_filler {
      type: "xavier"
    }
    bias_filler {
      type: "constant"
    }
  }
}
layer {
  name: "relu1"
  type: "ReLU"
  bottom: "ip1"
  top: "ip1"
}
layer {
  name: "ip2"
  type: "InnerProduct"
  bottom: "ip1"
  top: "ip2"
  param {
    lr_mult: 1
  }
  param {
    lr_mult: 2
  }
  inner_product_param {
    num_output: 25
    weight_filler {
      type: "xavier"
    }
    bias_filler {
      type: "constant"
    }
  }
}
layer {
  name: "relu2"
  type: "ReLU"
  bottom: "ip2"
  top: "ip2"
}
layer {
  name: "ip3"
  type: "InnerProduct"
  bottom: "ip2"
  top: "ip3"
  param {
    lr_mult: 1
  }
  param {
    lr_mult: 2
  }
  inner_product_param {
    num_output: 10
    weight_filler {
      type: "xavier"
    }
    bias_filler {
      type: "constant"
    }
  }
}
layer {
  name: "relu3"
  type: "ReLU"
  bottom: "ip3"
  top: "ip3"
}
layer {
  name: "accuracy"
  type: "Accuracy"
  bottom: "ip3"
  bottom: "label"
  top: "accuracy"
  include {
    phase: TEST
  }
}
layer {
  name: "loss"
  type: "SoftmaxWithLoss"
  bottom: "ip3"
  bottom: "label"
  top: "loss"
}
I0428 19:28:08.502285 21542 layer_factory.hpp:77] Creating layer mnist
I0428 19:28:08.502331 21542 db_lmdb.cpp:35] Opened lmdb examples/mnist/mnist_test_lmdb
I0428 19:28:08.502346 21542 net.cpp:86] Creating Layer mnist
I0428 19:28:08.502351 21542 net.cpp:382] mnist -> data
I0428 19:28:08.502358 21542 net.cpp:382] mnist -> label
I0428 19:28:08.502446 21542 data_layer.cpp:45] output data size: 100,1,28,28
I0428 19:28:08.504567 21542 net.cpp:124] Setting up mnist
I0428 19:28:08.504591 21542 net.cpp:131] Top shape: 100 1 28 28 (78400)
I0428 19:28:08.504596 21542 net.cpp:131] Top shape: 100 (100)
I0428 19:28:08.504601 21542 net.cpp:139] Memory required for data: 314000
I0428 19:28:08.504603 21542 layer_factory.hpp:77] Creating layer label_mnist_1_split
I0428 19:28:08.504647 21542 net.cpp:86] Creating Layer label_mnist_1_split
I0428 19:28:08.504650 21542 net.cpp:408] label_mnist_1_split <- label
I0428 19:28:08.504655 21542 net.cpp:382] label_mnist_1_split -> label_mnist_1_split_0
I0428 19:28:08.504662 21542 net.cpp:382] label_mnist_1_split -> label_mnist_1_split_1
I0428 19:28:08.504796 21542 net.cpp:124] Setting up label_mnist_1_split
I0428 19:28:08.504802 21542 net.cpp:131] Top shape: 100 (100)
I0428 19:28:08.504806 21542 net.cpp:131] Top shape: 100 (100)
I0428 19:28:08.504818 21542 net.cpp:139] Memory required for data: 314800
I0428 19:28:08.504838 21542 layer_factory.hpp:77] Creating layer ip1
I0428 19:28:08.504845 21542 net.cpp:86] Creating Layer ip1
I0428 19:28:08.504849 21542 net.cpp:408] ip1 <- data
I0428 19:28:08.504855 21542 net.cpp:382] ip1 -> ip1
I0428 19:28:08.505072 21542 net.cpp:124] Setting up ip1
I0428 19:28:08.505081 21542 net.cpp:131] Top shape: 100 10 (1000)
I0428 19:28:08.505084 21542 net.cpp:139] Memory required for data: 318800
I0428 19:28:08.505094 21542 layer_factory.hpp:77] Creating layer relu1
I0428 19:28:08.505098 21542 net.cpp:86] Creating Layer relu1
I0428 19:28:08.505102 21542 net.cpp:408] relu1 <- ip1
I0428 19:28:08.505106 21542 net.cpp:369] relu1 -> ip1 (in-place)
I0428 19:28:08.506081 21542 net.cpp:124] Setting up relu1
I0428 19:28:08.506093 21542 net.cpp:131] Top shape: 100 10 (1000)
I0428 19:28:08.506096 21542 net.cpp:139] Memory required for data: 322800
I0428 19:28:08.506100 21542 layer_factory.hpp:77] Creating layer ip2
I0428 19:28:08.506108 21542 net.cpp:86] Creating Layer ip2
I0428 19:28:08.506110 21542 net.cpp:408] ip2 <- ip1
I0428 19:28:08.506115 21542 net.cpp:382] ip2 -> ip2
I0428 19:28:08.506227 21542 net.cpp:124] Setting up ip2
I0428 19:28:08.506233 21542 net.cpp:131] Top shape: 100 25 (2500)
I0428 19:28:08.506237 21542 net.cpp:139] Memory required for data: 332800
I0428 19:28:08.506258 21542 layer_factory.hpp:77] Creating layer relu2
I0428 19:28:08.506263 21542 net.cpp:86] Creating Layer relu2
I0428 19:28:08.506266 21542 net.cpp:408] relu2 <- ip2
I0428 19:28:08.506270 21542 net.cpp:369] relu2 -> ip2 (in-place)
I0428 19:28:08.506422 21542 net.cpp:124] Setting up relu2
I0428 19:28:08.506430 21542 net.cpp:131] Top shape: 100 25 (2500)
I0428 19:28:08.506433 21542 net.cpp:139] Memory required for data: 342800
I0428 19:28:08.506436 21542 layer_factory.hpp:77] Creating layer ip3
I0428 19:28:08.506440 21542 net.cpp:86] Creating Layer ip3
I0428 19:28:08.506443 21542 net.cpp:408] ip3 <- ip2
I0428 19:28:08.506448 21542 net.cpp:382] ip3 -> ip3
I0428 19:28:08.506541 21542 net.cpp:124] Setting up ip3
I0428 19:28:08.506548 21542 net.cpp:131] Top shape: 100 10 (1000)
I0428 19:28:08.506551 21542 net.cpp:139] Memory required for data: 346800
I0428 19:28:08.506557 21542 layer_factory.hpp:77] Creating layer relu3
I0428 19:28:08.506562 21542 net.cpp:86] Creating Layer relu3
I0428 19:28:08.506566 21542 net.cpp:408] relu3 <- ip3
I0428 19:28:08.506568 21542 net.cpp:369] relu3 -> ip3 (in-place)
I0428 19:28:08.506719 21542 net.cpp:124] Setting up relu3
I0428 19:28:08.506727 21542 net.cpp:131] Top shape: 100 10 (1000)
I0428 19:28:08.506731 21542 net.cpp:139] Memory required for data: 350800
I0428 19:28:08.506732 21542 layer_factory.hpp:77] Creating layer ip3_relu3_0_split
I0428 19:28:08.506738 21542 net.cpp:86] Creating Layer ip3_relu3_0_split
I0428 19:28:08.506742 21542 net.cpp:408] ip3_relu3_0_split <- ip3
I0428 19:28:08.506745 21542 net.cpp:382] ip3_relu3_0_split -> ip3_relu3_0_split_0
I0428 19:28:08.506750 21542 net.cpp:382] ip3_relu3_0_split -> ip3_relu3_0_split_1
I0428 19:28:08.506781 21542 net.cpp:124] Setting up ip3_relu3_0_split
I0428 19:28:08.506786 21542 net.cpp:131] Top shape: 100 10 (1000)
I0428 19:28:08.506789 21542 net.cpp:131] Top shape: 100 10 (1000)
I0428 19:28:08.506793 21542 net.cpp:139] Memory required for data: 358800
I0428 19:28:08.506795 21542 layer_factory.hpp:77] Creating layer accuracy
I0428 19:28:08.506799 21542 net.cpp:86] Creating Layer accuracy
I0428 19:28:08.506803 21542 net.cpp:408] accuracy <- ip3_relu3_0_split_0
I0428 19:28:08.506806 21542 net.cpp:408] accuracy <- label_mnist_1_split_0
I0428 19:28:08.506810 21542 net.cpp:382] accuracy -> accuracy
…
