…
I0428 20:02:42.136190 29997 net.cpp:296] The NetState phase (0) differed from the phase (1) specified by a rule in layer mnist
I0428 20:02:42.136209 29997 net.cpp:296] The NetState phase (0) differed from the phase (1) specified by a rule in layer accuracy
I0428 20:02:42.136303 29997 net.cpp:53] Initializing net from parameters: 
name: "LeNet"
state {
  phase: TRAIN
  level: 0
  stage: ""
}
layer {
  name: "mnist"
  type: "Data"
  top: "data"
  top: "label"
  include {
    phase: TRAIN
  }
  transform_param {
    scale: 0.00390625
  }
  data_param {
    source: "examples/mnist/mnist_train_lmdb"
    batch_size: 64
    backend: LMDB
  }
}
layer {
  name: "conv0"
  type: "Convolution"
  bottom: "data"
  top: "conv0"
  param {
    lr_mult: 1
  }
  param {
    lr_mult: 2
  }
  convolution_param {
    num_output: 10
    kernel_size: 5
    stride: 1
    weight_filler {
      type: "xavier"
    }
    bias_filler {
      type: "constant"
    }
  }
}
layer {
  name: "pool0"
  type: "Pooling"
  bottom: "conv0"
  top: "pool0"
  pooling_param {
    pool: MAX
    kernel_size: 2
    stride: 2
  }
}
layer {
  name: "conv1"
  type: "Convolution"
  bottom: "pool0"
  top: "conv1"
  param {
    lr_mult: 1
  }
  param {
    lr_mult: 2
  }
  convolution_param {
    num_output: 50
    kernel_size: 5
    stride: 1
    weight_filler {
      type: "xavier"
    }
    bias_filler {
      type: "constant"
    }
  }
}
layer {
  name: "pool1"
  type: "Pooling"
  bottom: "conv1"
  top: "pool1"
  pooling_param {
    pool: MAX
    kernel_size: 2
    stride: 2
  }
}
layer {
  name: "ip1"
  type: "InnerProduct"
  bottom: "pool1"
  top: "ip1"
  param {
    lr_mult: 1
  }
  param {
    lr_mult: 2
  }
  inner_product_param {
    num_output: 50
    weight_filler {
      type: "xavier"
    }
    bias_filler {
      type: "constant"
    }
  }
}
layer {
  name: "relu1"
  type: "ReLU"
  bottom: "ip1"
  top: "ip1"
}
layer {
  name: "ip2"
  type: "InnerProduct"
  bottom: "ip1"
  top: "ip2"
  param {
    lr_mult: 1
  }
  param {
    lr_mult: 2
  }
  inner_product_param {
    num_output: 50
    weight_filler {
      type: "xavier"
    }
    bias_filler {
      type: "constant"
    }
  }
}
layer {
  name: "relu2"
  type: "ReLU"
  bottom: "ip2"
  top: "ip2"
}
layer {
  name: "ip3"
  type: "InnerProduct"
  bottom: "ip2"
  top: "ip3"
  param {
    lr_mult: 1
  }
  param {
    lr_mult: 2
  }
  inner_product_param {
    num_output: 10
    weight_filler {
      type: "xavier"
    }
    bias_filler {
      type: "constant"
    }
  }
}
layer {
  name: "relu3"
  type: "ReLU"
  bottom: "ip3"
  top: "ip3"
}
layer {
  name: "loss"
  type: "SoftmaxWithLoss"
  bottom: "ip3"
  bottom: "label"
  top: "loss"
}
I0428 20:02:42.136375 29997 layer_factory.hpp:77] Creating layer mnist
I0428 20:02:42.136473 29997 db_lmdb.cpp:35] Opened lmdb examples/mnist/mnist_train_lmdb
I0428 20:02:42.136495 29997 net.cpp:86] Creating Layer mnist
I0428 20:02:42.136502 29997 net.cpp:382] mnist -> data
I0428 20:02:42.136524 29997 net.cpp:382] mnist -> label
I0428 20:02:42.137609 29997 data_layer.cpp:45] output data size: 64,1,28,28
I0428 20:02:42.140045 29997 net.cpp:124] Setting up mnist
I0428 20:02:42.140063 29997 net.cpp:131] Top shape: 64 1 28 28 (50176)
I0428 20:02:42.140069 29997 net.cpp:131] Top shape: 64 (64)
I0428 20:02:42.140074 29997 net.cpp:139] Memory required for data: 200960
I0428 20:02:42.140080 29997 layer_factory.hpp:77] Creating layer conv0
I0428 20:02:42.140095 29997 net.cpp:86] Creating Layer conv0
I0428 20:02:42.140127 29997 net.cpp:408] conv0 <- data
I0428 20:02:42.140138 29997 net.cpp:382] conv0 -> conv0
I0428 20:02:42.392612 29997 net.cpp:124] Setting up conv0
I0428 20:02:42.392640 29997 net.cpp:131] Top shape: 64 10 24 24 (368640)
I0428 20:02:42.392644 29997 net.cpp:139] Memory required for data: 1675520
I0428 20:02:42.392689 29997 layer_factory.hpp:77] Creating layer pool0
I0428 20:02:42.392704 29997 net.cpp:86] Creating Layer pool0
I0428 20:02:42.392709 29997 net.cpp:408] pool0 <- conv0
I0428 20:02:42.392714 29997 net.cpp:382] pool0 -> pool0
I0428 20:02:42.392760 29997 net.cpp:124] Setting up pool0
I0428 20:02:42.392767 29997 net.cpp:131] Top shape: 64 10 12 12 (92160)
I0428 20:02:42.392771 29997 net.cpp:139] Memory required for data: 2044160
I0428 20:02:42.392773 29997 layer_factory.hpp:77] Creating layer conv1
I0428 20:02:42.392783 29997 net.cpp:86] Creating Layer conv1
I0428 20:02:42.392788 29997 net.cpp:408] conv1 <- pool0
I0428 20:02:42.392793 29997 net.cpp:382] conv1 -> conv1
I0428 20:02:42.395767 29997 net.cpp:124] Setting up conv1
I0428 20:02:42.395781 29997 net.cpp:131] Top shape: 64 50 8 8 (204800)
I0428 20:02:42.395786 29997 net.cpp:139] Memory required for data: 2863360
I0428 20:02:42.395809 29997 layer_factory.hpp:77] Creating layer pool1
I0428 20:02:42.395818 29997 net.cpp:86] Creating Layer pool1
I0428 20:02:42.395824 29997 net.cpp:408] pool1 <- conv1
I0428 20:02:42.395829 29997 net.cpp:382] pool1 -> pool1
I0428 20:02:42.395865 29997 net.cpp:124] Setting up pool1
I0428 20:02:42.395871 29997 net.cpp:131] Top shape: 64 50 4 4 (51200)
I0428 20:02:42.395874 29997 net.cpp:139] Memory required for data: 3068160
I0428 20:02:42.395877 29997 layer_factory.hpp:77] Creating layer ip1
I0428 20:02:42.395884 29997 net.cpp:86] Creating Layer ip1
I0428 20:02:42.395889 29997 net.cpp:408] ip1 <- pool1
I0428 20:02:42.395892 29997 net.cpp:382] ip1 -> ip1
I0428 20:02:42.396222 29997 net.cpp:124] Setting up ip1
I0428 20:02:42.396230 29997 net.cpp:131] Top shape: 64 50 (3200)
I0428 20:02:42.396234 29997 net.cpp:139] Memory required for data: 3080960
I0428 20:02:42.396240 29997 layer_factory.hpp:77] Creating layer relu1
I0428 20:02:42.396245 29997 net.cpp:86] Creating Layer relu1
I0428 20:02:42.396250 29997 net.cpp:408] relu1 <- ip1
I0428 20:02:42.396255 29997 net.cpp:369] relu1 -> ip1 (in-place)
I0428 20:02:42.396425 29997 net.cpp:124] Setting up relu1
I0428 20:02:42.396435 29997 net.cpp:131] Top shape: 64 50 (3200)
I0428 20:02:42.396437 29997 net.cpp:139] Memory required for data: 3093760
I0428 20:02:42.396440 29997 layer_factory.hpp:77] Creating layer ip2
I0428 20:02:42.396445 29997 net.cpp:86] Creating Layer ip2
I0428 20:02:42.396448 29997 net.cpp:408] ip2 <- ip1
I0428 20:02:42.396453 29997 net.cpp:382] ip2 -> ip2
I0428 20:02:42.397522 29997 net.cpp:124] Setting up ip2
I0428 20:02:42.397536 29997 net.cpp:131] Top shape: 64 50 (3200)
I0428 20:02:42.397539 29997 net.cpp:139] Memory required for data: 3106560
I0428 20:02:42.397545 29997 layer_factory.hpp:77] Creating layer relu2
I0428 20:02:42.397553 29997 net.cpp:86] Creating Layer relu2
I0428 20:02:42.397558 29997 net.cpp:408] relu2 <- ip2
I0428 20:02:42.397562 29997 net.cpp:369] relu2 -> ip2 (in-place)
I0428 20:02:42.398351 29997 net.cpp:124] Setting up relu2
I0428 20:02:42.398365 29997 net.cpp:131] Top shape: 64 50 (3200)
I0428 20:02:42.398368 29997 net.cpp:139] Memory required for data: 3119360
I0428 20:02:42.398372 29997 layer_factory.hpp:77] Creating layer ip3
I0428 20:02:42.398380 29997 net.cpp:86] Creating Layer ip3
I0428 20:02:42.398385 29997 net.cpp:408] ip3 <- ip2
I0428 20:02:42.398391 29997 net.cpp:382] ip3 -> ip3
I0428 20:02:42.398515 29997 net.cpp:124] Setting up ip3
I0428 20:02:42.398522 29997 net.cpp:131] Top shape: 64 10 (640)
I0428 20:02:42.398525 29997 net.cpp:139] Memory required for data: 3121920
I0428 20:02:42.398535 29997 layer_factory.hpp:77] Creating layer relu3
I0428 20:02:42.398540 29997 net.cpp:86] Creating Layer relu3
I0428 20:02:42.398543 29997 net.cpp:408] relu3 <- ip3
I0428 20:02:42.398547 29997 net.cpp:369] relu3 -> ip3 (in-place)
I0428 20:02:42.398723 29997 net.cpp:124] Setting up relu3
I0428 20:02:42.398732 29997 net.cpp:131] Top shape: 64 10 (640)
I0428 20:02:42.398736 29997 net.cpp:139] Memory required for data: 3124480
I0428 20:02:42.398738 29997 layer_factory.hpp:77] Creating layer loss
I0428 20:02:42.398744 29997 net.cpp:86] Creating Layer loss
I0428 20:02:42.398747 29997 net.cpp:408] loss <- ip3
I0428 20:02:42.398751 29997 net.cpp:408] loss <- label
I0428 20:02:42.398756 29997 net.cpp:382] loss -> loss
I0428 20:02:42.398775 29997 layer_factory.hpp:77] Creating layer loss
…
I0428 20:02:42.399502 29997 solver.cpp:173] Creating test net (#0) specified by net file: ECE595/mnist/train_test/var_everything2/lenet_train_test935.prototxt
I0428 20:02:42.399544 29997 net.cpp:296] The NetState phase (1) differed from the phase (0) specified by a rule in layer mnist
I0428 20:02:42.399633 29997 net.cpp:53] Initializing net from parameters: 
name: "LeNet"
state {
  phase: TEST
}
layer {
  name: "mnist"
  type: "Data"
  top: "data"
  top: "label"
  include {
    phase: TEST
  }
  transform_param {
    scale: 0.00390625
  }
  data_param {
    source: "examples/mnist/mnist_test_lmdb"
    batch_size: 100
    backend: LMDB
  }
}
layer {
  name: "conv0"
  type: "Convolution"
  bottom: "data"
  top: "conv0"
  param {
    lr_mult: 1
  }
  param {
    lr_mult: 2
  }
  convolution_param {
    num_output: 10
    kernel_size: 5
    stride: 1
    weight_filler {
      type: "xavier"
    }
    bias_filler {
      type: "constant"
    }
  }
}
layer {
  name: "pool0"
  type: "Pooling"
  bottom: "conv0"
  top: "pool0"
  pooling_param {
    pool: MAX
    kernel_size: 2
    stride: 2
  }
}
layer {
  name: "conv1"
  type: "Convolution"
  bottom: "pool0"
  top: "conv1"
  param {
    lr_mult: 1
  }
  param {
    lr_mult: 2
  }
  convolution_param {
    num_output: 50
    kernel_size: 5
    stride: 1
    weight_filler {
      type: "xavier"
    }
    bias_filler {
      type: "constant"
    }
  }
}
layer {
  name: "pool1"
  type: "Pooling"
  bottom: "conv1"
  top: "pool1"
  pooling_param {
    pool: MAX
    kernel_size: 2
    stride: 2
  }
}
layer {
  name: "ip1"
  type: "InnerProduct"
  bottom: "pool1"
  top: "ip1"
  param {
    lr_mult: 1
  }
  param {
    lr_mult: 2
  }
  inner_product_param {
    num_output: 50
    weight_filler {
      type: "xavier"
    }
    bias_filler {
      type: "constant"
    }
  }
}
layer {
  name: "relu1"
  type: "ReLU"
  bottom: "ip1"
  top: "ip1"
}
layer {
  name: "ip2"
  type: "InnerProduct"
  bottom: "ip1"
  top: "ip2"
  param {
    lr_mult: 1
  }
  param {
    lr_mult: 2
  }
  inner_product_param {
    num_output: 50
    weight_filler {
      type: "xavier"
    }
    bias_filler {
      type: "constant"
    }
  }
}
layer {
  name: "relu2"
  type: "ReLU"
  bottom: "ip2"
  top: "ip2"
}
layer {
  name: "ip3"
  type: "InnerProduct"
  bottom: "ip2"
  top: "ip3"
  param {
    lr_mult: 1
  }
  param {
    lr_mult: 2
  }
  inner_product_param {
    num_output: 10
    weight_filler {
      type: "xavier"
    }
    bias_filler {
      type: "constant"
    }
  }
}
layer {
  name: "relu3"
  type: "ReLU"
  bottom: "ip3"
  top: "ip3"
}
layer {
  name: "accuracy"
  type: "Accuracy"
  bottom: "ip3"
  bottom: "label"
  top: "accuracy"
  include {
    phase: TEST
  }
}
layer {
  name: "loss"
  type: "SoftmaxWithLoss"
  bottom: "ip3"
  bottom: "label"
  top: "loss"
}
I0428 20:02:42.399708 29997 layer_factory.hpp:77] Creating layer mnist
I0428 20:02:42.399751 29997 db_lmdb.cpp:35] Opened lmdb examples/mnist/mnist_test_lmdb
I0428 20:02:42.399765 29997 net.cpp:86] Creating Layer mnist
I0428 20:02:42.399770 29997 net.cpp:382] mnist -> data
I0428 20:02:42.399776 29997 net.cpp:382] mnist -> label
I0428 20:02:42.399858 29997 data_layer.cpp:45] output data size: 100,1,28,28
I0428 20:02:42.401902 29997 net.cpp:124] Setting up mnist
I0428 20:02:42.401932 29997 net.cpp:131] Top shape: 100 1 28 28 (78400)
I0428 20:02:42.401938 29997 net.cpp:131] Top shape: 100 (100)
I0428 20:02:42.401942 29997 net.cpp:139] Memory required for data: 314000
I0428 20:02:42.401945 29997 layer_factory.hpp:77] Creating layer label_mnist_1_split
I0428 20:02:42.401952 29997 net.cpp:86] Creating Layer label_mnist_1_split
I0428 20:02:42.401957 29997 net.cpp:408] label_mnist_1_split <- label
I0428 20:02:42.401962 29997 net.cpp:382] label_mnist_1_split -> label_mnist_1_split_0
I0428 20:02:42.401968 29997 net.cpp:382] label_mnist_1_split -> label_mnist_1_split_1
I0428 20:02:42.402016 29997 net.cpp:124] Setting up label_mnist_1_split
I0428 20:02:42.402024 29997 net.cpp:131] Top shape: 100 (100)
I0428 20:02:42.402027 29997 net.cpp:131] Top shape: 100 (100)
I0428 20:02:42.402030 29997 net.cpp:139] Memory required for data: 314800
I0428 20:02:42.402034 29997 layer_factory.hpp:77] Creating layer conv0
I0428 20:02:42.402042 29997 net.cpp:86] Creating Layer conv0
I0428 20:02:42.402047 29997 net.cpp:408] conv0 <- data
I0428 20:02:42.402055 29997 net.cpp:382] conv0 -> conv0
I0428 20:02:42.403837 29997 net.cpp:124] Setting up conv0
I0428 20:02:42.403851 29997 net.cpp:131] Top shape: 100 10 24 24 (576000)
I0428 20:02:42.403856 29997 net.cpp:139] Memory required for data: 2618800
I0428 20:02:42.403865 29997 layer_factory.hpp:77] Creating layer pool0
I0428 20:02:42.403874 29997 net.cpp:86] Creating Layer pool0
I0428 20:02:42.403879 29997 net.cpp:408] pool0 <- conv0
I0428 20:02:42.403883 29997 net.cpp:382] pool0 -> pool0
I0428 20:02:42.403921 29997 net.cpp:124] Setting up pool0
I0428 20:02:42.403928 29997 net.cpp:131] Top shape: 100 10 12 12 (144000)
I0428 20:02:42.403930 29997 net.cpp:139] Memory required for data: 3194800
I0428 20:02:42.403934 29997 layer_factory.hpp:77] Creating layer conv1
I0428 20:02:42.403942 29997 net.cpp:86] Creating Layer conv1
I0428 20:02:42.403947 29997 net.cpp:408] conv1 <- pool0
I0428 20:02:42.403954 29997 net.cpp:382] conv1 -> conv1
I0428 20:02:42.405656 29997 net.cpp:124] Setting up conv1
I0428 20:02:42.405671 29997 net.cpp:131] Top shape: 100 50 8 8 (320000)
I0428 20:02:42.405675 29997 net.cpp:139] Memory required for data: 4474800
I0428 20:02:42.405684 29997 layer_factory.hpp:77] Creating layer pool1
I0428 20:02:42.405694 29997 net.cpp:86] Creating Layer pool1
I0428 20:02:42.405699 29997 net.cpp:408] pool1 <- conv1
I0428 20:02:42.405704 29997 net.cpp:382] pool1 -> pool1
I0428 20:02:42.405743 29997 net.cpp:124] Setting up pool1
I0428 20:02:42.405750 29997 net.cpp:131] Top shape: 100 50 4 4 (80000)
I0428 20:02:42.405753 29997 net.cpp:139] Memory required for data: 4794800
I0428 20:02:42.405756 29997 layer_factory.hpp:77] Creating layer ip1
I0428 20:02:42.405764 29997 net.cpp:86] Creating Layer ip1
I0428 20:02:42.405768 29997 net.cpp:408] ip1 <- pool1
I0428 20:02:42.405773 29997 net.cpp:382] ip1 -> ip1
I0428 20:02:42.406131 29997 net.cpp:124] Setting up ip1
I0428 20:02:42.406139 29997 net.cpp:131] Top shape: 100 50 (5000)
I0428 20:02:42.406153 29997 net.cpp:139] Memory required for data: 4814800
I0428 20:02:42.406162 29997 layer_factory.hpp:77] Creating layer relu1
I0428 20:02:42.406169 29997 net.cpp:86] Creating Layer relu1
I0428 20:02:42.406174 29997 net.cpp:408] relu1 <- ip1
I0428 20:02:42.406179 29997 net.cpp:369] relu1 -> ip1 (in-place)
I0428 20:02:42.406360 29997 net.cpp:124] Setting up relu1
I0428 20:02:42.406369 29997 net.cpp:131] Top shape: 100 50 (5000)
I0428 20:02:42.406373 29997 net.cpp:139] Memory required for data: 4834800
I0428 20:02:42.406375 29997 layer_factory.hpp:77] Creating layer ip2
I0428 20:02:42.406383 29997 net.cpp:86] Creating Layer ip2
I0428 20:02:42.406388 29997 net.cpp:408] ip2 <- ip1
I0428 20:02:42.406394 29997 net.cpp:382] ip2 -> ip2
I0428 20:02:42.406626 29997 net.cpp:124] Setting up ip2
I0428 20:02:42.406635 29997 net.cpp:131] Top shape: 100 50 (5000)
I0428 20:02:42.406637 29997 net.cpp:139] Memory required for data: 4854800
I0428 20:02:42.406643 29997 layer_factory.hpp:77] Creating layer relu2
I0428 20:02:42.406648 29997 net.cpp:86] Creating Layer relu2
I0428 20:02:42.406652 29997 net.cpp:408] relu2 <- ip2
I0428 20:02:42.406656 29997 net.cpp:369] relu2 -> ip2 (in-place)
I0428 20:02:42.406826 29997 net.cpp:124] Setting up relu2
I0428 20:02:42.406834 29997 net.cpp:131] Top shape: 100 50 (5000)
I0428 20:02:42.406837 29997 net.cpp:139] Memory required for data: 4874800
I0428 20:02:42.406841 29997 layer_factory.hpp:77] Creating layer ip3
I0428 20:02:42.406847 29997 net.cpp:86] Creating Layer ip3
I0428 20:02:42.406850 29997 net.cpp:408] ip3 <- ip2
I0428 20:02:42.406857 29997 net.cpp:382] ip3 -> ip3
I0428 20:02:42.406967 29997 net.cpp:124] Setting up ip3
I0428 20:02:42.406996 29997 net.cpp:131] Top shape: 100 10 (1000)
I0428 20:02:42.406998 29997 net.cpp:139] Memory required for data: 4878800
I0428 20:02:42.407006 29997 layer_factory.hpp:77] Creating layer relu3
I0428 20:02:42.407012 29997 net.cpp:86] Creating Layer relu3
I0428 20:02:42.407016 29997 net.cpp:408] relu3 <- ip3
I0428 20:02:42.407021 29997 net.cpp:369] relu3 -> ip3 (in-place)
I0428 20:02:42.407855 29997 net.cpp:124] Setting up relu3
I0428 20:02:42.407868 29997 net.cpp:131] Top shape: 100 10 (1000)
I0428 20:02:42.407872 29997 net.cpp:139] Memory required for data: 4882800
I0428 20:02:42.407876 29997 layer_factory.hpp:77] Creating layer ip3_relu3_0_split
I0428 20:02:42.407881 29997 net.cpp:86] Creating Layer ip3_relu3_0_split
I0428 20:02:42.407884 29997 net.cpp:408] ip3_relu3_0_split <- ip3
I0428 20:02:42.407892 29997 net.cpp:382] ip3_relu3_0_split -> ip3_relu3_0_split_0
I0428 20:02:42.407902 29997 net.cpp:382] ip3_relu3_0_split -> ip3_relu3_0_split_1
I0428 20:02:42.407946 29997 net.cpp:124] Setting up ip3_relu3_0_split
I0428 20:02:42.407953 29997 net.cpp:131] Top shape: 100 10 (1000)
I0428 20:02:42.407956 29997 net.cpp:131] Top shape: 100 10 (1000)
I0428 20:02:42.407959 29997 net.cpp:139] Memory required for data: 4890800
I0428 20:02:42.407963 29997 layer_factory.hpp:77] Creating layer accuracy
I0428 20:02:42.407969 29997 net.cpp:86] Creating Layer accuracy
I0428 20:02:42.407973 29997 net.cpp:408] accuracy <- ip3_relu3_0_split_0
I0428 20:02:42.407976 29997 net.cpp:408] accuracy <- label_mnist_1_split_0
I0428 20:02:42.407982 29997 net.cpp:382] accuracy -> accuracy
…
