…
I0428 19:59:48.248764 29327 net.cpp:296] The NetState phase (0) differed from the phase (1) specified by a rule in layer mnist
I0428 19:59:48.248792 29327 net.cpp:296] The NetState phase (0) differed from the phase (1) specified by a rule in layer accuracy
I0428 19:59:48.248863 29327 net.cpp:53] Initializing net from parameters: 
name: "LeNet"
state {
  phase: TRAIN
  level: 0
  stage: ""
}
layer {
  name: "mnist"
  type: "Data"
  top: "data"
  top: "label"
  include {
    phase: TRAIN
  }
  transform_param {
    scale: 0.00390625
  }
  data_param {
    source: "examples/mnist/mnist_train_lmdb"
    batch_size: 64
    backend: LMDB
  }
}
layer {
  name: "conv0"
  type: "Convolution"
  bottom: "data"
  top: "conv0"
  param {
    lr_mult: 1
  }
  param {
    lr_mult: 2
  }
  convolution_param {
    num_output: 10
    kernel_size: 5
    stride: 1
    weight_filler {
      type: "xavier"
    }
    bias_filler {
      type: "constant"
    }
  }
}
layer {
  name: "pool0"
  type: "Pooling"
  bottom: "conv0"
  top: "pool0"
  pooling_param {
    pool: MAX
    kernel_size: 2
    stride: 2
  }
}
layer {
  name: "conv1"
  type: "Convolution"
  bottom: "pool0"
  top: "conv1"
  param {
    lr_mult: 1
  }
  param {
    lr_mult: 2
  }
  convolution_param {
    num_output: 25
    kernel_size: 5
    stride: 1
    weight_filler {
      type: "xavier"
    }
    bias_filler {
      type: "constant"
    }
  }
}
layer {
  name: "pool1"
  type: "Pooling"
  bottom: "conv1"
  top: "pool1"
  pooling_param {
    pool: MAX
    kernel_size: 2
    stride: 2
  }
}
layer {
  name: "ip1"
  type: "InnerProduct"
  bottom: "pool1"
  top: "ip1"
  param {
    lr_mult: 1
  }
  param {
    lr_mult: 2
  }
  inner_product_param {
    num_output: 10
    weight_filler {
      type: "xavier"
    }
    bias_filler {
      type: "constant"
    }
  }
}
layer {
  name: "relu1"
  type: "ReLU"
  bottom: "ip1"
  top: "ip1"
}
layer {
  name: "loss"
  type: "SoftmaxWithLoss"
  bottom: "ip1"
  bottom: "label"
  top: "loss"
}
I0428 19:59:48.248924 29327 layer_factory.hpp:77] Creating layer mnist
I0428 19:59:48.249007 29327 db_lmdb.cpp:35] Opened lmdb examples/mnist/mnist_train_lmdb
I0428 19:59:48.249028 29327 net.cpp:86] Creating Layer mnist
I0428 19:59:48.249037 29327 net.cpp:382] mnist -> data
I0428 19:59:48.249058 29327 net.cpp:382] mnist -> label
I0428 19:59:48.250038 29327 data_layer.cpp:45] output data size: 64,1,28,28
I0428 19:59:48.252226 29327 net.cpp:124] Setting up mnist
I0428 19:59:48.252240 29327 net.cpp:131] Top shape: 64 1 28 28 (50176)
I0428 19:59:48.252248 29327 net.cpp:131] Top shape: 64 (64)
I0428 19:59:48.252250 29327 net.cpp:139] Memory required for data: 200960
I0428 19:59:48.252256 29327 layer_factory.hpp:77] Creating layer conv0
I0428 19:59:48.252270 29327 net.cpp:86] Creating Layer conv0
I0428 19:59:48.252274 29327 net.cpp:408] conv0 <- data
I0428 19:59:48.252287 29327 net.cpp:382] conv0 -> conv0
I0428 19:59:48.482973 29327 net.cpp:124] Setting up conv0
I0428 19:59:48.483016 29327 net.cpp:131] Top shape: 64 10 24 24 (368640)
I0428 19:59:48.483019 29327 net.cpp:139] Memory required for data: 1675520
I0428 19:59:48.483049 29327 layer_factory.hpp:77] Creating layer pool0
I0428 19:59:48.483062 29327 net.cpp:86] Creating Layer pool0
I0428 19:59:48.483067 29327 net.cpp:408] pool0 <- conv0
I0428 19:59:48.483072 29327 net.cpp:382] pool0 -> pool0
I0428 19:59:48.483134 29327 net.cpp:124] Setting up pool0
I0428 19:59:48.483142 29327 net.cpp:131] Top shape: 64 10 12 12 (92160)
I0428 19:59:48.483161 29327 net.cpp:139] Memory required for data: 2044160
I0428 19:59:48.483165 29327 layer_factory.hpp:77] Creating layer conv1
I0428 19:59:48.483176 29327 net.cpp:86] Creating Layer conv1
I0428 19:59:48.483181 29327 net.cpp:408] conv1 <- pool0
I0428 19:59:48.483187 29327 net.cpp:382] conv1 -> conv1
I0428 19:59:48.486078 29327 net.cpp:124] Setting up conv1
I0428 19:59:48.486093 29327 net.cpp:131] Top shape: 64 25 8 8 (102400)
I0428 19:59:48.486098 29327 net.cpp:139] Memory required for data: 2453760
I0428 19:59:48.486105 29327 layer_factory.hpp:77] Creating layer pool1
I0428 19:59:48.486114 29327 net.cpp:86] Creating Layer pool1
I0428 19:59:48.486116 29327 net.cpp:408] pool1 <- conv1
I0428 19:59:48.486121 29327 net.cpp:382] pool1 -> pool1
I0428 19:59:48.486187 29327 net.cpp:124] Setting up pool1
I0428 19:59:48.486196 29327 net.cpp:131] Top shape: 64 25 4 4 (25600)
I0428 19:59:48.486198 29327 net.cpp:139] Memory required for data: 2556160
I0428 19:59:48.486202 29327 layer_factory.hpp:77] Creating layer ip1
I0428 19:59:48.486208 29327 net.cpp:86] Creating Layer ip1
I0428 19:59:48.486212 29327 net.cpp:408] ip1 <- pool1
I0428 19:59:48.486217 29327 net.cpp:382] ip1 -> ip1
I0428 19:59:48.487226 29327 net.cpp:124] Setting up ip1
I0428 19:59:48.487241 29327 net.cpp:131] Top shape: 64 10 (640)
I0428 19:59:48.487244 29327 net.cpp:139] Memory required for data: 2558720
I0428 19:59:48.487253 29327 layer_factory.hpp:77] Creating layer relu1
I0428 19:59:48.487260 29327 net.cpp:86] Creating Layer relu1
I0428 19:59:48.487279 29327 net.cpp:408] relu1 <- ip1
I0428 19:59:48.487284 29327 net.cpp:369] relu1 -> ip1 (in-place)
I0428 19:59:48.487480 29327 net.cpp:124] Setting up relu1
I0428 19:59:48.487509 29327 net.cpp:131] Top shape: 64 10 (640)
I0428 19:59:48.487512 29327 net.cpp:139] Memory required for data: 2561280
I0428 19:59:48.487515 29327 layer_factory.hpp:77] Creating layer loss
I0428 19:59:48.487521 29327 net.cpp:86] Creating Layer loss
I0428 19:59:48.487525 29327 net.cpp:408] loss <- ip1
I0428 19:59:48.487530 29327 net.cpp:408] loss <- label
I0428 19:59:48.487535 29327 net.cpp:382] loss -> loss
I0428 19:59:48.487555 29327 layer_factory.hpp:77] Creating layer loss
…
I0428 19:59:48.488889 29327 solver.cpp:173] Creating test net (#0) specified by net file: ECE595/mnist/train_test/var_everything2/lenet_train_test858.prototxt
I0428 19:59:48.488915 29327 net.cpp:296] The NetState phase (1) differed from the phase (0) specified by a rule in layer mnist
I0428 19:59:48.488991 29327 net.cpp:53] Initializing net from parameters: 
name: "LeNet"
state {
  phase: TEST
}
layer {
  name: "mnist"
  type: "Data"
  top: "data"
  top: "label"
  include {
    phase: TEST
  }
  transform_param {
    scale: 0.00390625
  }
  data_param {
    source: "examples/mnist/mnist_test_lmdb"
    batch_size: 100
    backend: LMDB
  }
}
layer {
  name: "conv0"
  type: "Convolution"
  bottom: "data"
  top: "conv0"
  param {
    lr_mult: 1
  }
  param {
    lr_mult: 2
  }
  convolution_param {
    num_output: 10
    kernel_size: 5
    stride: 1
    weight_filler {
      type: "xavier"
    }
    bias_filler {
      type: "constant"
    }
  }
}
layer {
  name: "pool0"
  type: "Pooling"
  bottom: "conv0"
  top: "pool0"
  pooling_param {
    pool: MAX
    kernel_size: 2
    stride: 2
  }
}
layer {
  name: "conv1"
  type: "Convolution"
  bottom: "pool0"
  top: "conv1"
  param {
    lr_mult: 1
  }
  param {
    lr_mult: 2
  }
  convolution_param {
    num_output: 25
    kernel_size: 5
    stride: 1
    weight_filler {
      type: "xavier"
    }
    bias_filler {
      type: "constant"
    }
  }
}
layer {
  name: "pool1"
  type: "Pooling"
  bottom: "conv1"
  top: "pool1"
  pooling_param {
    pool: MAX
    kernel_size: 2
    stride: 2
  }
}
layer {
  name: "ip1"
  type: "InnerProduct"
  bottom: "pool1"
  top: "ip1"
  param {
    lr_mult: 1
  }
  param {
    lr_mult: 2
  }
  inner_product_param {
    num_output: 10
    weight_filler {
      type: "xavier"
    }
    bias_filler {
      type: "constant"
    }
  }
}
layer {
  name: "relu1"
  type: "ReLU"
  bottom: "ip1"
  top: "ip1"
}
layer {
  name: "accuracy"
  type: "Accuracy"
  bottom: "ip1"
  bottom: "label"
  top: "accuracy"
  include {
    phase: TEST
  }
}
layer {
  name: "loss"
  type: "SoftmaxWithLoss"
  bottom: "ip1"
  bottom: "label"
  top: "loss"
}
I0428 19:59:48.489064 29327 layer_factory.hpp:77] Creating layer mnist
I0428 19:59:48.489109 29327 db_lmdb.cpp:35] Opened lmdb examples/mnist/mnist_test_lmdb
I0428 19:59:48.489121 29327 net.cpp:86] Creating Layer mnist
I0428 19:59:48.489126 29327 net.cpp:382] mnist -> data
I0428 19:59:48.489135 29327 net.cpp:382] mnist -> label
I0428 19:59:48.489233 29327 data_layer.cpp:45] output data size: 100,1,28,28
I0428 19:59:48.491503 29327 net.cpp:124] Setting up mnist
I0428 19:59:48.491531 29327 net.cpp:131] Top shape: 100 1 28 28 (78400)
I0428 19:59:48.491538 29327 net.cpp:131] Top shape: 100 (100)
I0428 19:59:48.491540 29327 net.cpp:139] Memory required for data: 314000
I0428 19:59:48.491544 29327 layer_factory.hpp:77] Creating layer label_mnist_1_split
I0428 19:59:48.491554 29327 net.cpp:86] Creating Layer label_mnist_1_split
I0428 19:59:48.491575 29327 net.cpp:408] label_mnist_1_split <- label
I0428 19:59:48.491580 29327 net.cpp:382] label_mnist_1_split -> label_mnist_1_split_0
I0428 19:59:48.491586 29327 net.cpp:382] label_mnist_1_split -> label_mnist_1_split_1
I0428 19:59:48.491683 29327 net.cpp:124] Setting up label_mnist_1_split
I0428 19:59:48.491690 29327 net.cpp:131] Top shape: 100 (100)
I0428 19:59:48.491694 29327 net.cpp:131] Top shape: 100 (100)
I0428 19:59:48.491698 29327 net.cpp:139] Memory required for data: 314800
I0428 19:59:48.491701 29327 layer_factory.hpp:77] Creating layer conv0
I0428 19:59:48.491710 29327 net.cpp:86] Creating Layer conv0
I0428 19:59:48.491714 29327 net.cpp:408] conv0 <- data
I0428 19:59:48.491719 29327 net.cpp:382] conv0 -> conv0
I0428 19:59:48.492590 29327 net.cpp:124] Setting up conv0
I0428 19:59:48.492619 29327 net.cpp:131] Top shape: 100 10 24 24 (576000)
I0428 19:59:48.492637 29327 net.cpp:139] Memory required for data: 2618800
I0428 19:59:48.492647 29327 layer_factory.hpp:77] Creating layer pool0
I0428 19:59:48.492655 29327 net.cpp:86] Creating Layer pool0
I0428 19:59:48.492658 29327 net.cpp:408] pool0 <- conv0
I0428 19:59:48.492663 29327 net.cpp:382] pool0 -> pool0
I0428 19:59:48.492699 29327 net.cpp:124] Setting up pool0
I0428 19:59:48.492707 29327 net.cpp:131] Top shape: 100 10 12 12 (144000)
I0428 19:59:48.492710 29327 net.cpp:139] Memory required for data: 3194800
I0428 19:59:48.492714 29327 layer_factory.hpp:77] Creating layer conv1
I0428 19:59:48.492723 29327 net.cpp:86] Creating Layer conv1
I0428 19:59:48.492727 29327 net.cpp:408] conv1 <- pool0
I0428 19:59:48.492733 29327 net.cpp:382] conv1 -> conv1
I0428 19:59:48.494932 29327 net.cpp:124] Setting up conv1
I0428 19:59:48.494962 29327 net.cpp:131] Top shape: 100 25 8 8 (160000)
I0428 19:59:48.494966 29327 net.cpp:139] Memory required for data: 3834800
I0428 19:59:48.494976 29327 layer_factory.hpp:77] Creating layer pool1
I0428 19:59:48.494983 29327 net.cpp:86] Creating Layer pool1
I0428 19:59:48.495013 29327 net.cpp:408] pool1 <- conv1
I0428 19:59:48.495019 29327 net.cpp:382] pool1 -> pool1
I0428 19:59:48.495079 29327 net.cpp:124] Setting up pool1
I0428 19:59:48.495086 29327 net.cpp:131] Top shape: 100 25 4 4 (40000)
I0428 19:59:48.495090 29327 net.cpp:139] Memory required for data: 3994800
I0428 19:59:48.495093 29327 layer_factory.hpp:77] Creating layer ip1
I0428 19:59:48.495100 29327 net.cpp:86] Creating Layer ip1
I0428 19:59:48.495103 29327 net.cpp:408] ip1 <- pool1
I0428 19:59:48.495108 29327 net.cpp:382] ip1 -> ip1
I0428 19:59:48.495293 29327 net.cpp:124] Setting up ip1
I0428 19:59:48.495302 29327 net.cpp:131] Top shape: 100 10 (1000)
I0428 19:59:48.495306 29327 net.cpp:139] Memory required for data: 3998800
I0428 19:59:48.495314 29327 layer_factory.hpp:77] Creating layer relu1
I0428 19:59:48.495332 29327 net.cpp:86] Creating Layer relu1
I0428 19:59:48.495338 29327 net.cpp:408] relu1 <- ip1
I0428 19:59:48.495343 29327 net.cpp:369] relu1 -> ip1 (in-place)
I0428 19:59:48.496114 29327 net.cpp:124] Setting up relu1
I0428 19:59:48.496141 29327 net.cpp:131] Top shape: 100 10 (1000)
I0428 19:59:48.496145 29327 net.cpp:139] Memory required for data: 4002800
I0428 19:59:48.496150 29327 layer_factory.hpp:77] Creating layer ip1_relu1_0_split
I0428 19:59:48.496157 29327 net.cpp:86] Creating Layer ip1_relu1_0_split
I0428 19:59:48.496161 29327 net.cpp:408] ip1_relu1_0_split <- ip1
I0428 19:59:48.496167 29327 net.cpp:382] ip1_relu1_0_split -> ip1_relu1_0_split_0
I0428 19:59:48.496173 29327 net.cpp:382] ip1_relu1_0_split -> ip1_relu1_0_split_1
I0428 19:59:48.496217 29327 net.cpp:124] Setting up ip1_relu1_0_split
I0428 19:59:48.496224 29327 net.cpp:131] Top shape: 100 10 (1000)
I0428 19:59:48.496228 29327 net.cpp:131] Top shape: 100 10 (1000)
I0428 19:59:48.496232 29327 net.cpp:139] Memory required for data: 4010800
I0428 19:59:48.496235 29327 layer_factory.hpp:77] Creating layer accuracy
I0428 19:59:48.496240 29327 net.cpp:86] Creating Layer accuracy
I0428 19:59:48.496244 29327 net.cpp:408] accuracy <- ip1_relu1_0_split_0
I0428 19:59:48.496249 29327 net.cpp:408] accuracy <- label_mnist_1_split_0
I0428 19:59:48.496253 29327 net.cpp:382] accuracy -> accuracy
…
