…
I0428 19:48:54.017716 26621 net.cpp:296] The NetState phase (0) differed from the phase (1) specified by a rule in layer mnist
I0428 19:48:54.017736 26621 net.cpp:296] The NetState phase (0) differed from the phase (1) specified by a rule in layer accuracy
I0428 19:48:54.017838 26621 net.cpp:53] Initializing net from parameters: 
name: "LeNet"
state {
  phase: TRAIN
  level: 0
  stage: ""
}
layer {
  name: "mnist"
  type: "Data"
  top: "data"
  top: "label"
  include {
    phase: TRAIN
  }
  transform_param {
    scale: 0.00390625
  }
  data_param {
    source: "examples/mnist/mnist_train_lmdb"
    batch_size: 64
    backend: LMDB
  }
}
layer {
  name: "conv0"
  type: "Convolution"
  bottom: "data"
  top: "conv0"
  param {
    lr_mult: 1
  }
  param {
    lr_mult: 2
  }
  convolution_param {
    num_output: 5
    kernel_size: 5
    stride: 1
    weight_filler {
      type: "xavier"
    }
    bias_filler {
      type: "constant"
    }
  }
}
layer {
  name: "pool0"
  type: "Pooling"
  bottom: "conv0"
  top: "pool0"
  pooling_param {
    pool: MAX
    kernel_size: 2
    stride: 2
  }
}
layer {
  name: "conv1"
  type: "Convolution"
  bottom: "pool0"
  top: "conv1"
  param {
    lr_mult: 1
  }
  param {
    lr_mult: 2
  }
  convolution_param {
    num_output: 5
    kernel_size: 5
    stride: 1
    weight_filler {
      type: "xavier"
    }
    bias_filler {
      type: "constant"
    }
  }
}
layer {
  name: "pool1"
  type: "Pooling"
  bottom: "conv1"
  top: "pool1"
  pooling_param {
    pool: MAX
    kernel_size: 2
    stride: 2
  }
}
layer {
  name: "ip1"
  type: "InnerProduct"
  bottom: "pool1"
  top: "ip1"
  param {
    lr_mult: 1
  }
  param {
    lr_mult: 2
  }
  inner_product_param {
    num_output: 10
    weight_filler {
      type: "xavier"
    }
    bias_filler {
      type: "constant"
    }
  }
}
layer {
  name: "relu1"
  type: "ReLU"
  bottom: "ip1"
  top: "ip1"
}
layer {
  name: "ip2"
  type: "InnerProduct"
  bottom: "ip1"
  top: "ip2"
  param {
    lr_mult: 1
  }
  param {
    lr_mult: 2
  }
  inner_product_param {
    num_output: 10
    weight_filler {
      type: "xavier"
    }
    bias_filler {
      type: "constant"
    }
  }
}
layer {
  name: "relu2"
  type: "ReLU"
  bottom: "ip2"
  top: "ip2"
}
layer {
  name: "ip3"
  type: "InnerProduct"
  bottom: "ip2"
  top: "ip3"
  param {
    lr_mult: 1
  }
  param {
    lr_mult: 2
  }
  inner_product_param {
    num_output: 10
    weight_filler {
      type: "xavier"
    }
    bias_filler {
      type: "constant"
    }
  }
}
layer {
  name: "relu3"
  type: "ReLU"
  bottom: "ip3"
  top: "ip3"
}
layer {
  name: "loss"
  type: "SoftmaxWithLoss"
  bottom: "ip3"
  bottom: "label"
  top: "loss"
}
I0428 19:48:54.017920 26621 layer_factory.hpp:77] Creating layer mnist
I0428 19:48:54.018018 26621 db_lmdb.cpp:35] Opened lmdb examples/mnist/mnist_train_lmdb
I0428 19:48:54.018043 26621 net.cpp:86] Creating Layer mnist
I0428 19:48:54.018054 26621 net.cpp:382] mnist -> data
I0428 19:48:54.018080 26621 net.cpp:382] mnist -> label
I0428 19:48:54.019176 26621 data_layer.cpp:45] output data size: 64,1,28,28
I0428 19:48:54.021641 26621 net.cpp:124] Setting up mnist
I0428 19:48:54.021658 26621 net.cpp:131] Top shape: 64 1 28 28 (50176)
I0428 19:48:54.021664 26621 net.cpp:131] Top shape: 64 (64)
I0428 19:48:54.021668 26621 net.cpp:139] Memory required for data: 200960
I0428 19:48:54.021675 26621 layer_factory.hpp:77] Creating layer conv0
I0428 19:48:54.021711 26621 net.cpp:86] Creating Layer conv0
I0428 19:48:54.021734 26621 net.cpp:408] conv0 <- data
I0428 19:48:54.021749 26621 net.cpp:382] conv0 -> conv0
I0428 19:48:54.311096 26621 net.cpp:124] Setting up conv0
I0428 19:48:54.311125 26621 net.cpp:131] Top shape: 64 5 24 24 (184320)
I0428 19:48:54.311130 26621 net.cpp:139] Memory required for data: 938240
I0428 19:48:54.311146 26621 layer_factory.hpp:77] Creating layer pool0
I0428 19:48:54.311158 26621 net.cpp:86] Creating Layer pool0
I0428 19:48:54.311163 26621 net.cpp:408] pool0 <- conv0
I0428 19:48:54.311169 26621 net.cpp:382] pool0 -> pool0
I0428 19:48:54.311219 26621 net.cpp:124] Setting up pool0
I0428 19:48:54.311226 26621 net.cpp:131] Top shape: 64 5 12 12 (46080)
I0428 19:48:54.311229 26621 net.cpp:139] Memory required for data: 1122560
I0428 19:48:54.311233 26621 layer_factory.hpp:77] Creating layer conv1
I0428 19:48:54.311244 26621 net.cpp:86] Creating Layer conv1
I0428 19:48:54.311249 26621 net.cpp:408] conv1 <- pool0
I0428 19:48:54.311254 26621 net.cpp:382] conv1 -> conv1
I0428 19:48:54.313263 26621 net.cpp:124] Setting up conv1
I0428 19:48:54.313279 26621 net.cpp:131] Top shape: 64 5 8 8 (20480)
I0428 19:48:54.313283 26621 net.cpp:139] Memory required for data: 1204480
I0428 19:48:54.313292 26621 layer_factory.hpp:77] Creating layer pool1
I0428 19:48:54.313300 26621 net.cpp:86] Creating Layer pool1
I0428 19:48:54.313304 26621 net.cpp:408] pool1 <- conv1
I0428 19:48:54.313309 26621 net.cpp:382] pool1 -> pool1
I0428 19:48:54.313349 26621 net.cpp:124] Setting up pool1
I0428 19:48:54.313354 26621 net.cpp:131] Top shape: 64 5 4 4 (5120)
I0428 19:48:54.313356 26621 net.cpp:139] Memory required for data: 1224960
I0428 19:48:54.313359 26621 layer_factory.hpp:77] Creating layer ip1
I0428 19:48:54.313367 26621 net.cpp:86] Creating Layer ip1
I0428 19:48:54.313370 26621 net.cpp:408] ip1 <- pool1
I0428 19:48:54.313375 26621 net.cpp:382] ip1 -> ip1
I0428 19:48:54.313486 26621 net.cpp:124] Setting up ip1
I0428 19:48:54.313494 26621 net.cpp:131] Top shape: 64 10 (640)
I0428 19:48:54.313498 26621 net.cpp:139] Memory required for data: 1227520
I0428 19:48:54.313505 26621 layer_factory.hpp:77] Creating layer relu1
I0428 19:48:54.313511 26621 net.cpp:86] Creating Layer relu1
I0428 19:48:54.313515 26621 net.cpp:408] relu1 <- ip1
I0428 19:48:54.313519 26621 net.cpp:369] relu1 -> ip1 (in-place)
I0428 19:48:54.313691 26621 net.cpp:124] Setting up relu1
I0428 19:48:54.313700 26621 net.cpp:131] Top shape: 64 10 (640)
I0428 19:48:54.313704 26621 net.cpp:139] Memory required for data: 1230080
I0428 19:48:54.313707 26621 layer_factory.hpp:77] Creating layer ip2
I0428 19:48:54.313714 26621 net.cpp:86] Creating Layer ip2
I0428 19:48:54.313717 26621 net.cpp:408] ip2 <- ip1
I0428 19:48:54.313722 26621 net.cpp:382] ip2 -> ip2
I0428 19:48:54.313819 26621 net.cpp:124] Setting up ip2
I0428 19:48:54.313827 26621 net.cpp:131] Top shape: 64 10 (640)
I0428 19:48:54.313829 26621 net.cpp:139] Memory required for data: 1232640
I0428 19:48:54.313835 26621 layer_factory.hpp:77] Creating layer relu2
I0428 19:48:54.313841 26621 net.cpp:86] Creating Layer relu2
I0428 19:48:54.313844 26621 net.cpp:408] relu2 <- ip2
I0428 19:48:54.313848 26621 net.cpp:369] relu2 -> ip2 (in-place)
I0428 19:48:54.314607 26621 net.cpp:124] Setting up relu2
I0428 19:48:54.314621 26621 net.cpp:131] Top shape: 64 10 (640)
I0428 19:48:54.314625 26621 net.cpp:139] Memory required for data: 1235200
I0428 19:48:54.314628 26621 layer_factory.hpp:77] Creating layer ip3
I0428 19:48:54.314635 26621 net.cpp:86] Creating Layer ip3
I0428 19:48:54.314640 26621 net.cpp:408] ip3 <- ip2
I0428 19:48:54.314646 26621 net.cpp:382] ip3 -> ip3
I0428 19:48:54.314746 26621 net.cpp:124] Setting up ip3
I0428 19:48:54.314754 26621 net.cpp:131] Top shape: 64 10 (640)
I0428 19:48:54.314757 26621 net.cpp:139] Memory required for data: 1237760
I0428 19:48:54.314765 26621 layer_factory.hpp:77] Creating layer relu3
I0428 19:48:54.314771 26621 net.cpp:86] Creating Layer relu3
I0428 19:48:54.314774 26621 net.cpp:408] relu3 <- ip3
I0428 19:48:54.314779 26621 net.cpp:369] relu3 -> ip3 (in-place)
I0428 19:48:54.314951 26621 net.cpp:124] Setting up relu3
I0428 19:48:54.314960 26621 net.cpp:131] Top shape: 64 10 (640)
I0428 19:48:54.314965 26621 net.cpp:139] Memory required for data: 1240320
I0428 19:48:54.314967 26621 layer_factory.hpp:77] Creating layer loss
I0428 19:48:54.314973 26621 net.cpp:86] Creating Layer loss
I0428 19:48:54.314976 26621 net.cpp:408] loss <- ip3
I0428 19:48:54.314980 26621 net.cpp:408] loss <- label
I0428 19:48:54.314986 26621 net.cpp:382] loss -> loss
I0428 19:48:54.315002 26621 layer_factory.hpp:77] Creating layer loss
…
I0428 19:48:54.315655 26621 solver.cpp:173] Creating test net (#0) specified by net file: ECE595/mnist/train_test/var_everything2/lenet_train_test558.prototxt
I0428 19:48:54.315683 26621 net.cpp:296] The NetState phase (1) differed from the phase (0) specified by a rule in layer mnist
I0428 19:48:54.315778 26621 net.cpp:53] Initializing net from parameters: 
name: "LeNet"
state {
  phase: TEST
}
layer {
  name: "mnist"
  type: "Data"
  top: "data"
  top: "label"
  include {
    phase: TEST
  }
  transform_param {
    scale: 0.00390625
  }
  data_param {
    source: "examples/mnist/mnist_test_lmdb"
    batch_size: 100
    backend: LMDB
  }
}
layer {
  name: "conv0"
  type: "Convolution"
  bottom: "data"
  top: "conv0"
  param {
    lr_mult: 1
  }
  param {
    lr_mult: 2
  }
  convolution_param {
    num_output: 5
    kernel_size: 5
    stride: 1
    weight_filler {
      type: "xavier"
    }
    bias_filler {
      type: "constant"
    }
  }
}
layer {
  name: "pool0"
  type: "Pooling"
  bottom: "conv0"
  top: "pool0"
  pooling_param {
    pool: MAX
    kernel_size: 2
    stride: 2
  }
}
layer {
  name: "conv1"
  type: "Convolution"
  bottom: "pool0"
  top: "conv1"
  param {
    lr_mult: 1
  }
  param {
    lr_mult: 2
  }
  convolution_param {
    num_output: 5
    kernel_size: 5
    stride: 1
    weight_filler {
      type: "xavier"
    }
    bias_filler {
      type: "constant"
    }
  }
}
layer {
  name: "pool1"
  type: "Pooling"
  bottom: "conv1"
  top: "pool1"
  pooling_param {
    pool: MAX
    kernel_size: 2
    stride: 2
  }
}
layer {
  name: "ip1"
  type: "InnerProduct"
  bottom: "pool1"
  top: "ip1"
  param {
    lr_mult: 1
  }
  param {
    lr_mult: 2
  }
  inner_product_param {
    num_output: 10
    weight_filler {
      type: "xavier"
    }
    bias_filler {
      type: "constant"
    }
  }
}
layer {
  name: "relu1"
  type: "ReLU"
  bottom: "ip1"
  top: "ip1"
}
layer {
  name: "ip2"
  type: "InnerProduct"
  bottom: "ip1"
  top: "ip2"
  param {
    lr_mult: 1
  }
  param {
    lr_mult: 2
  }
  inner_product_param {
    num_output: 10
    weight_filler {
      type: "xavier"
    }
    bias_filler {
      type: "constant"
    }
  }
}
layer {
  name: "relu2"
  type: "ReLU"
  bottom: "ip2"
  top: "ip2"
}
layer {
  name: "ip3"
  type: "InnerProduct"
  bottom: "ip2"
  top: "ip3"
  param {
    lr_mult: 1
  }
  param {
    lr_mult: 2
  }
  inner_product_param {
    num_output: 10
    weight_filler {
      type: "xavier"
    }
    bias_filler {
      type: "constant"
    }
  }
}
layer {
  name: "relu3"
  type: "ReLU"
  bottom: "ip3"
  top: "ip3"
}
layer {
  name: "accuracy"
  type: "Accuracy"
  bottom: "ip3"
  bottom: "label"
  top: "accuracy"
  include {
    phase: TEST
  }
}
layer {
  name: "loss"
  type: "SoftmaxWithLoss"
  bottom: "ip3"
  bottom: "label"
  top: "loss"
}
I0428 19:48:54.315865 26621 layer_factory.hpp:77] Creating layer mnist
I0428 19:48:54.315912 26621 db_lmdb.cpp:35] Opened lmdb examples/mnist/mnist_test_lmdb
I0428 19:48:54.315927 26621 net.cpp:86] Creating Layer mnist
I0428 19:48:54.315932 26621 net.cpp:382] mnist -> data
I0428 19:48:54.315939 26621 net.cpp:382] mnist -> label
I0428 19:48:54.316026 26621 data_layer.cpp:45] output data size: 100,1,28,28
I0428 19:48:54.318001 26621 net.cpp:124] Setting up mnist
I0428 19:48:54.318014 26621 net.cpp:131] Top shape: 100 1 28 28 (78400)
I0428 19:48:54.318019 26621 net.cpp:131] Top shape: 100 (100)
I0428 19:48:54.318022 26621 net.cpp:139] Memory required for data: 314000
I0428 19:48:54.318027 26621 layer_factory.hpp:77] Creating layer label_mnist_1_split
I0428 19:48:54.318033 26621 net.cpp:86] Creating Layer label_mnist_1_split
I0428 19:48:54.318037 26621 net.cpp:408] label_mnist_1_split <- label
I0428 19:48:54.318042 26621 net.cpp:382] label_mnist_1_split -> label_mnist_1_split_0
I0428 19:48:54.318049 26621 net.cpp:382] label_mnist_1_split -> label_mnist_1_split_1
I0428 19:48:54.318121 26621 net.cpp:124] Setting up label_mnist_1_split
I0428 19:48:54.318132 26621 net.cpp:131] Top shape: 100 (100)
I0428 19:48:54.318137 26621 net.cpp:131] Top shape: 100 (100)
I0428 19:48:54.318140 26621 net.cpp:139] Memory required for data: 314800
I0428 19:48:54.318143 26621 layer_factory.hpp:77] Creating layer conv0
I0428 19:48:54.318152 26621 net.cpp:86] Creating Layer conv0
I0428 19:48:54.318156 26621 net.cpp:408] conv0 <- data
I0428 19:48:54.318161 26621 net.cpp:382] conv0 -> conv0
I0428 19:48:54.319782 26621 net.cpp:124] Setting up conv0
I0428 19:48:54.319797 26621 net.cpp:131] Top shape: 100 5 24 24 (288000)
I0428 19:48:54.319802 26621 net.cpp:139] Memory required for data: 1466800
I0428 19:48:54.319811 26621 layer_factory.hpp:77] Creating layer pool0
I0428 19:48:54.319818 26621 net.cpp:86] Creating Layer pool0
I0428 19:48:54.319821 26621 net.cpp:408] pool0 <- conv0
I0428 19:48:54.319828 26621 net.cpp:382] pool0 -> pool0
I0428 19:48:54.319866 26621 net.cpp:124] Setting up pool0
I0428 19:48:54.319871 26621 net.cpp:131] Top shape: 100 5 12 12 (72000)
I0428 19:48:54.319875 26621 net.cpp:139] Memory required for data: 1754800
I0428 19:48:54.319877 26621 layer_factory.hpp:77] Creating layer conv1
I0428 19:48:54.319886 26621 net.cpp:86] Creating Layer conv1
I0428 19:48:54.319890 26621 net.cpp:408] conv1 <- pool0
I0428 19:48:54.319895 26621 net.cpp:382] conv1 -> conv1
I0428 19:48:54.322131 26621 net.cpp:124] Setting up conv1
I0428 19:48:54.322146 26621 net.cpp:131] Top shape: 100 5 8 8 (32000)
I0428 19:48:54.322150 26621 net.cpp:139] Memory required for data: 1882800
I0428 19:48:54.322161 26621 layer_factory.hpp:77] Creating layer pool1
I0428 19:48:54.322168 26621 net.cpp:86] Creating Layer pool1
I0428 19:48:54.322171 26621 net.cpp:408] pool1 <- conv1
I0428 19:48:54.322177 26621 net.cpp:382] pool1 -> pool1
I0428 19:48:54.322242 26621 net.cpp:124] Setting up pool1
I0428 19:48:54.322264 26621 net.cpp:131] Top shape: 100 5 4 4 (8000)
I0428 19:48:54.322268 26621 net.cpp:139] Memory required for data: 1914800
I0428 19:48:54.322270 26621 layer_factory.hpp:77] Creating layer ip1
I0428 19:48:54.322276 26621 net.cpp:86] Creating Layer ip1
I0428 19:48:54.322279 26621 net.cpp:408] ip1 <- pool1
I0428 19:48:54.322285 26621 net.cpp:382] ip1 -> ip1
I0428 19:48:54.322410 26621 net.cpp:124] Setting up ip1
I0428 19:48:54.322418 26621 net.cpp:131] Top shape: 100 10 (1000)
I0428 19:48:54.322432 26621 net.cpp:139] Memory required for data: 1918800
I0428 19:48:54.322441 26621 layer_factory.hpp:77] Creating layer relu1
I0428 19:48:54.322448 26621 net.cpp:86] Creating Layer relu1
I0428 19:48:54.322450 26621 net.cpp:408] relu1 <- ip1
I0428 19:48:54.322456 26621 net.cpp:369] relu1 -> ip1 (in-place)
I0428 19:48:54.322651 26621 net.cpp:124] Setting up relu1
I0428 19:48:54.322664 26621 net.cpp:131] Top shape: 100 10 (1000)
I0428 19:48:54.322666 26621 net.cpp:139] Memory required for data: 1922800
I0428 19:48:54.322671 26621 layer_factory.hpp:77] Creating layer ip2
I0428 19:48:54.322680 26621 net.cpp:86] Creating Layer ip2
I0428 19:48:54.322684 26621 net.cpp:408] ip2 <- ip1
I0428 19:48:54.322696 26621 net.cpp:382] ip2 -> ip2
I0428 19:48:54.322810 26621 net.cpp:124] Setting up ip2
I0428 19:48:54.322818 26621 net.cpp:131] Top shape: 100 10 (1000)
I0428 19:48:54.322823 26621 net.cpp:139] Memory required for data: 1926800
I0428 19:48:54.322827 26621 layer_factory.hpp:77] Creating layer relu2
I0428 19:48:54.322834 26621 net.cpp:86] Creating Layer relu2
I0428 19:48:54.322837 26621 net.cpp:408] relu2 <- ip2
I0428 19:48:54.322844 26621 net.cpp:369] relu2 -> ip2 (in-place)
I0428 19:48:54.323010 26621 net.cpp:124] Setting up relu2
I0428 19:48:54.323019 26621 net.cpp:131] Top shape: 100 10 (1000)
I0428 19:48:54.323024 26621 net.cpp:139] Memory required for data: 1930800
I0428 19:48:54.323026 26621 layer_factory.hpp:77] Creating layer ip3
I0428 19:48:54.323032 26621 net.cpp:86] Creating Layer ip3
I0428 19:48:54.323035 26621 net.cpp:408] ip3 <- ip2
I0428 19:48:54.323042 26621 net.cpp:382] ip3 -> ip3
I0428 19:48:54.323145 26621 net.cpp:124] Setting up ip3
I0428 19:48:54.323153 26621 net.cpp:131] Top shape: 100 10 (1000)
I0428 19:48:54.323156 26621 net.cpp:139] Memory required for data: 1934800
I0428 19:48:54.323164 26621 layer_factory.hpp:77] Creating layer relu3
I0428 19:48:54.323171 26621 net.cpp:86] Creating Layer relu3
I0428 19:48:54.323174 26621 net.cpp:408] relu3 <- ip3
I0428 19:48:54.323179 26621 net.cpp:369] relu3 -> ip3 (in-place)
I0428 19:48:54.323977 26621 net.cpp:124] Setting up relu3
I0428 19:48:54.323990 26621 net.cpp:131] Top shape: 100 10 (1000)
I0428 19:48:54.323993 26621 net.cpp:139] Memory required for data: 1938800
I0428 19:48:54.323997 26621 layer_factory.hpp:77] Creating layer ip3_relu3_0_split
I0428 19:48:54.324003 26621 net.cpp:86] Creating Layer ip3_relu3_0_split
I0428 19:48:54.324007 26621 net.cpp:408] ip3_relu3_0_split <- ip3
I0428 19:48:54.324012 26621 net.cpp:382] ip3_relu3_0_split -> ip3_relu3_0_split_0
I0428 19:48:54.324018 26621 net.cpp:382] ip3_relu3_0_split -> ip3_relu3_0_split_1
I0428 19:48:54.324064 26621 net.cpp:124] Setting up ip3_relu3_0_split
I0428 19:48:54.324069 26621 net.cpp:131] Top shape: 100 10 (1000)
I0428 19:48:54.324072 26621 net.cpp:131] Top shape: 100 10 (1000)
I0428 19:48:54.324076 26621 net.cpp:139] Memory required for data: 1946800
I0428 19:48:54.324079 26621 layer_factory.hpp:77] Creating layer accuracy
I0428 19:48:54.324084 26621 net.cpp:86] Creating Layer accuracy
I0428 19:48:54.324086 26621 net.cpp:408] accuracy <- ip3_relu3_0_split_0
I0428 19:48:54.324091 26621 net.cpp:408] accuracy <- label_mnist_1_split_0
I0428 19:48:54.324096 26621 net.cpp:382] accuracy -> accuracy
…
