…
I0428 20:20:55.311965  1659 net.cpp:296] The NetState phase (0) differed from the phase (1) specified by a rule in layer mnist
I0428 20:20:55.311980  1659 net.cpp:296] The NetState phase (0) differed from the phase (1) specified by a rule in layer accuracy
I0428 20:20:55.312048  1659 net.cpp:53] Initializing net from parameters: 
name: "LeNet"
state {
  phase: TRAIN
  level: 0
  stage: ""
}
layer {
  name: "mnist"
  type: "Data"
  top: "data"
  top: "label"
  include {
    phase: TRAIN
  }
  transform_param {
    scale: 0.00390625
  }
  data_param {
    source: "examples/mnist/mnist_train_lmdb"
    batch_size: 64
    backend: LMDB
  }
}
layer {
  name: "conv0"
  type: "Convolution"
  bottom: "data"
  top: "conv0"
  param {
    lr_mult: 1
  }
  param {
    lr_mult: 2
  }
  convolution_param {
    num_output: 50
    kernel_size: 5
    stride: 1
    weight_filler {
      type: "xavier"
    }
    bias_filler {
      type: "constant"
    }
  }
}
layer {
  name: "pool0"
  type: "Pooling"
  bottom: "conv0"
  top: "pool0"
  pooling_param {
    pool: MAX
    kernel_size: 2
    stride: 2
  }
}
layer {
  name: "conv1"
  type: "Convolution"
  bottom: "pool0"
  top: "conv1"
  param {
    lr_mult: 1
  }
  param {
    lr_mult: 2
  }
  convolution_param {
    num_output: 50
    kernel_size: 5
    stride: 1
    weight_filler {
      type: "xavier"
    }
    bias_filler {
      type: "constant"
    }
  }
}
layer {
  name: "pool1"
  type: "Pooling"
  bottom: "conv1"
  top: "pool1"
  pooling_param {
    pool: MAX
    kernel_size: 2
    stride: 2
  }
}
layer {
  name: "ip1"
  type: "InnerProduct"
  bottom: "pool1"
  top: "ip1"
  param {
    lr_mult: 1
  }
  param {
    lr_mult: 2
  }
  inner_product_param {
    num_output: 25
    weight_filler {
      type: "xavier"
    }
    bias_filler {
      type: "constant"
    }
  }
}
layer {
  name: "relu1"
  type: "ReLU"
  bottom: "ip1"
  top: "ip1"
}
layer {
  name: "ip2"
  type: "InnerProduct"
  bottom: "ip1"
  top: "ip2"
  param {
    lr_mult: 1
  }
  param {
    lr_mult: 2
  }
  inner_product_param {
    num_output: 10
    weight_filler {
      type: "xavier"
    }
    bias_filler {
      type: "constant"
    }
  }
}
layer {
  name: "relu2"
  type: "ReLU"
  bottom: "ip2"
  top: "ip2"
}
layer {
  name: "loss"
  type: "SoftmaxWithLoss"
  bottom: "ip2"
  bottom: "label"
  top: "loss"
}
I0428 20:20:55.312109  1659 layer_factory.hpp:77] Creating layer mnist
I0428 20:20:55.312191  1659 db_lmdb.cpp:35] Opened lmdb examples/mnist/mnist_train_lmdb
I0428 20:20:55.312209  1659 net.cpp:86] Creating Layer mnist
I0428 20:20:55.312216  1659 net.cpp:382] mnist -> data
I0428 20:20:55.312234  1659 net.cpp:382] mnist -> label
I0428 20:20:55.313273  1659 data_layer.cpp:45] output data size: 64,1,28,28
I0428 20:20:55.315496  1659 net.cpp:124] Setting up mnist
I0428 20:20:55.315526  1659 net.cpp:131] Top shape: 64 1 28 28 (50176)
I0428 20:20:55.315532  1659 net.cpp:131] Top shape: 64 (64)
I0428 20:20:55.315551  1659 net.cpp:139] Memory required for data: 200960
I0428 20:20:55.315557  1659 layer_factory.hpp:77] Creating layer conv0
I0428 20:20:55.315582  1659 net.cpp:86] Creating Layer conv0
I0428 20:20:55.315587  1659 net.cpp:408] conv0 <- data
I0428 20:20:55.315599  1659 net.cpp:382] conv0 -> conv0
I0428 20:20:55.552640  1659 net.cpp:124] Setting up conv0
I0428 20:20:55.552666  1659 net.cpp:131] Top shape: 64 50 24 24 (1843200)
I0428 20:20:55.552670  1659 net.cpp:139] Memory required for data: 7573760
I0428 20:20:55.552702  1659 layer_factory.hpp:77] Creating layer pool0
I0428 20:20:55.552714  1659 net.cpp:86] Creating Layer pool0
I0428 20:20:55.552718  1659 net.cpp:408] pool0 <- conv0
I0428 20:20:55.552724  1659 net.cpp:382] pool0 -> pool0
I0428 20:20:55.552769  1659 net.cpp:124] Setting up pool0
I0428 20:20:55.552776  1659 net.cpp:131] Top shape: 64 50 12 12 (460800)
I0428 20:20:55.552778  1659 net.cpp:139] Memory required for data: 9416960
I0428 20:20:55.552781  1659 layer_factory.hpp:77] Creating layer conv1
I0428 20:20:55.552791  1659 net.cpp:86] Creating Layer conv1
I0428 20:20:55.552794  1659 net.cpp:408] conv1 <- pool0
I0428 20:20:55.552799  1659 net.cpp:382] conv1 -> conv1
I0428 20:20:55.555182  1659 net.cpp:124] Setting up conv1
I0428 20:20:55.555197  1659 net.cpp:131] Top shape: 64 50 8 8 (204800)
I0428 20:20:55.555200  1659 net.cpp:139] Memory required for data: 10236160
I0428 20:20:55.555224  1659 layer_factory.hpp:77] Creating layer pool1
I0428 20:20:55.555232  1659 net.cpp:86] Creating Layer pool1
I0428 20:20:55.555238  1659 net.cpp:408] pool1 <- conv1
I0428 20:20:55.555243  1659 net.cpp:382] pool1 -> pool1
I0428 20:20:55.555277  1659 net.cpp:124] Setting up pool1
I0428 20:20:55.555284  1659 net.cpp:131] Top shape: 64 50 4 4 (51200)
I0428 20:20:55.555287  1659 net.cpp:139] Memory required for data: 10440960
I0428 20:20:55.555290  1659 layer_factory.hpp:77] Creating layer ip1
I0428 20:20:55.555297  1659 net.cpp:86] Creating Layer ip1
I0428 20:20:55.555300  1659 net.cpp:408] ip1 <- pool1
I0428 20:20:55.555305  1659 net.cpp:382] ip1 -> ip1
I0428 20:20:55.555526  1659 net.cpp:124] Setting up ip1
I0428 20:20:55.555534  1659 net.cpp:131] Top shape: 64 25 (1600)
I0428 20:20:55.555538  1659 net.cpp:139] Memory required for data: 10447360
I0428 20:20:55.555546  1659 layer_factory.hpp:77] Creating layer relu1
I0428 20:20:55.555552  1659 net.cpp:86] Creating Layer relu1
I0428 20:20:55.555554  1659 net.cpp:408] relu1 <- ip1
I0428 20:20:55.555558  1659 net.cpp:369] relu1 -> ip1 (in-place)
I0428 20:20:55.555743  1659 net.cpp:124] Setting up relu1
I0428 20:20:55.555752  1659 net.cpp:131] Top shape: 64 25 (1600)
I0428 20:20:55.555755  1659 net.cpp:139] Memory required for data: 10453760
I0428 20:20:55.555759  1659 layer_factory.hpp:77] Creating layer ip2
I0428 20:20:55.555764  1659 net.cpp:86] Creating Layer ip2
I0428 20:20:55.555768  1659 net.cpp:408] ip2 <- ip1
I0428 20:20:55.555773  1659 net.cpp:382] ip2 -> ip2
I0428 20:20:55.555876  1659 net.cpp:124] Setting up ip2
I0428 20:20:55.555881  1659 net.cpp:131] Top shape: 64 10 (640)
I0428 20:20:55.555884  1659 net.cpp:139] Memory required for data: 10456320
I0428 20:20:55.555889  1659 layer_factory.hpp:77] Creating layer relu2
I0428 20:20:55.555896  1659 net.cpp:86] Creating Layer relu2
I0428 20:20:55.555898  1659 net.cpp:408] relu2 <- ip2
I0428 20:20:55.555902  1659 net.cpp:369] relu2 -> ip2 (in-place)
I0428 20:20:55.556668  1659 net.cpp:124] Setting up relu2
I0428 20:20:55.556680  1659 net.cpp:131] Top shape: 64 10 (640)
I0428 20:20:55.556694  1659 net.cpp:139] Memory required for data: 10458880
I0428 20:20:55.556699  1659 layer_factory.hpp:77] Creating layer loss
I0428 20:20:55.556704  1659 net.cpp:86] Creating Layer loss
I0428 20:20:55.556707  1659 net.cpp:408] loss <- ip2
I0428 20:20:55.556727  1659 net.cpp:408] loss <- label
I0428 20:20:55.556733  1659 net.cpp:382] loss -> loss
I0428 20:20:55.556753  1659 layer_factory.hpp:77] Creating layer loss
…
I0428 20:20:55.557461  1659 solver.cpp:173] Creating test net (#0) specified by net file: ECE595/mnist/train_test/var_everything2/lenet_train_test1373.prototxt
I0428 20:20:55.557487  1659 net.cpp:296] The NetState phase (1) differed from the phase (0) specified by a rule in layer mnist
I0428 20:20:55.557590  1659 net.cpp:53] Initializing net from parameters: 
name: "LeNet"
state {
  phase: TEST
}
layer {
  name: "mnist"
  type: "Data"
  top: "data"
  top: "label"
  include {
    phase: TEST
  }
  transform_param {
    scale: 0.00390625
  }
  data_param {
    source: "examples/mnist/mnist_test_lmdb"
    batch_size: 100
    backend: LMDB
  }
}
layer {
  name: "conv0"
  type: "Convolution"
  bottom: "data"
  top: "conv0"
  param {
    lr_mult: 1
  }
  param {
    lr_mult: 2
  }
  convolution_param {
    num_output: 50
    kernel_size: 5
    stride: 1
    weight_filler {
      type: "xavier"
    }
    bias_filler {
      type: "constant"
    }
  }
}
layer {
  name: "pool0"
  type: "Pooling"
  bottom: "conv0"
  top: "pool0"
  pooling_param {
    pool: MAX
    kernel_size: 2
    stride: 2
  }
}
layer {
  name: "conv1"
  type: "Convolution"
  bottom: "pool0"
  top: "conv1"
  param {
    lr_mult: 1
  }
  param {
    lr_mult: 2
  }
  convolution_param {
    num_output: 50
    kernel_size: 5
    stride: 1
    weight_filler {
      type: "xavier"
    }
    bias_filler {
      type: "constant"
    }
  }
}
layer {
  name: "pool1"
  type: "Pooling"
  bottom: "conv1"
  top: "pool1"
  pooling_param {
    pool: MAX
    kernel_size: 2
    stride: 2
  }
}
layer {
  name: "ip1"
  type: "InnerProduct"
  bottom: "pool1"
  top: "ip1"
  param {
    lr_mult: 1
  }
  param {
    lr_mult: 2
  }
  inner_product_param {
    num_output: 25
    weight_filler {
      type: "xavier"
    }
    bias_filler {
      type: "constant"
    }
  }
}
layer {
  name: "relu1"
  type: "ReLU"
  bottom: "ip1"
  top: "ip1"
}
layer {
  name: "ip2"
  type: "InnerProduct"
  bottom: "ip1"
  top: "ip2"
  param {
    lr_mult: 1
  }
  param {
    lr_mult: 2
  }
  inner_product_param {
    num_output: 10
    weight_filler {
      type: "xavier"
    }
    bias_filler {
      type: "constant"
    }
  }
}
layer {
  name: "relu2"
  type: "ReLU"
  bottom: "ip2"
  top: "ip2"
}
layer {
  name: "accuracy"
  type: "Accuracy"
  bottom: "ip2"
  bottom: "label"
  top: "accuracy"
  include {
    phase: TEST
  }
}
layer {
  name: "loss"
  type: "SoftmaxWithLoss"
  bottom: "ip2"
  bottom: "label"
  top: "loss"
}
I0428 20:20:55.557657  1659 layer_factory.hpp:77] Creating layer mnist
I0428 20:20:55.557716  1659 db_lmdb.cpp:35] Opened lmdb examples/mnist/mnist_test_lmdb
I0428 20:20:55.557732  1659 net.cpp:86] Creating Layer mnist
I0428 20:20:55.557739  1659 net.cpp:382] mnist -> data
I0428 20:20:55.557747  1659 net.cpp:382] mnist -> label
I0428 20:20:55.557839  1659 data_layer.cpp:45] output data size: 100,1,28,28
I0428 20:20:55.559949  1659 net.cpp:124] Setting up mnist
I0428 20:20:55.559964  1659 net.cpp:131] Top shape: 100 1 28 28 (78400)
I0428 20:20:55.559970  1659 net.cpp:131] Top shape: 100 (100)
I0428 20:20:55.559973  1659 net.cpp:139] Memory required for data: 314000
I0428 20:20:55.559978  1659 layer_factory.hpp:77] Creating layer label_mnist_1_split
I0428 20:20:55.559988  1659 net.cpp:86] Creating Layer label_mnist_1_split
I0428 20:20:55.559990  1659 net.cpp:408] label_mnist_1_split <- label
I0428 20:20:55.559996  1659 net.cpp:382] label_mnist_1_split -> label_mnist_1_split_0
I0428 20:20:55.560003  1659 net.cpp:382] label_mnist_1_split -> label_mnist_1_split_1
I0428 20:20:55.560098  1659 net.cpp:124] Setting up label_mnist_1_split
I0428 20:20:55.560106  1659 net.cpp:131] Top shape: 100 (100)
I0428 20:20:55.560111  1659 net.cpp:131] Top shape: 100 (100)
I0428 20:20:55.560113  1659 net.cpp:139] Memory required for data: 314800
I0428 20:20:55.560117  1659 layer_factory.hpp:77] Creating layer conv0
I0428 20:20:55.560127  1659 net.cpp:86] Creating Layer conv0
I0428 20:20:55.560130  1659 net.cpp:408] conv0 <- data
I0428 20:20:55.560135  1659 net.cpp:382] conv0 -> conv0
I0428 20:20:55.561866  1659 net.cpp:124] Setting up conv0
I0428 20:20:55.561879  1659 net.cpp:131] Top shape: 100 50 24 24 (2880000)
I0428 20:20:55.561898  1659 net.cpp:139] Memory required for data: 11834800
I0428 20:20:55.561908  1659 layer_factory.hpp:77] Creating layer pool0
I0428 20:20:55.561915  1659 net.cpp:86] Creating Layer pool0
I0428 20:20:55.561918  1659 net.cpp:408] pool0 <- conv0
I0428 20:20:55.561923  1659 net.cpp:382] pool0 -> pool0
I0428 20:20:55.561957  1659 net.cpp:124] Setting up pool0
I0428 20:20:55.561964  1659 net.cpp:131] Top shape: 100 50 12 12 (720000)
I0428 20:20:55.561967  1659 net.cpp:139] Memory required for data: 14714800
I0428 20:20:55.561969  1659 layer_factory.hpp:77] Creating layer conv1
I0428 20:20:55.561981  1659 net.cpp:86] Creating Layer conv1
I0428 20:20:55.561985  1659 net.cpp:408] conv1 <- pool0
I0428 20:20:55.561990  1659 net.cpp:382] conv1 -> conv1
I0428 20:20:55.563841  1659 net.cpp:124] Setting up conv1
I0428 20:20:55.563854  1659 net.cpp:131] Top shape: 100 50 8 8 (320000)
I0428 20:20:55.563858  1659 net.cpp:139] Memory required for data: 15994800
I0428 20:20:55.563866  1659 layer_factory.hpp:77] Creating layer pool1
I0428 20:20:55.563889  1659 net.cpp:86] Creating Layer pool1
I0428 20:20:55.563907  1659 net.cpp:408] pool1 <- conv1
I0428 20:20:55.563913  1659 net.cpp:382] pool1 -> pool1
I0428 20:20:55.563947  1659 net.cpp:124] Setting up pool1
I0428 20:20:55.563954  1659 net.cpp:131] Top shape: 100 50 4 4 (80000)
I0428 20:20:55.563957  1659 net.cpp:139] Memory required for data: 16314800
I0428 20:20:55.563961  1659 layer_factory.hpp:77] Creating layer ip1
I0428 20:20:55.563966  1659 net.cpp:86] Creating Layer ip1
I0428 20:20:55.563971  1659 net.cpp:408] ip1 <- pool1
I0428 20:20:55.563974  1659 net.cpp:382] ip1 -> ip1
I0428 20:20:55.564190  1659 net.cpp:124] Setting up ip1
I0428 20:20:55.564198  1659 net.cpp:131] Top shape: 100 25 (2500)
I0428 20:20:55.564201  1659 net.cpp:139] Memory required for data: 16324800
I0428 20:20:55.564208  1659 layer_factory.hpp:77] Creating layer relu1
I0428 20:20:55.564221  1659 net.cpp:86] Creating Layer relu1
I0428 20:20:55.564224  1659 net.cpp:408] relu1 <- ip1
I0428 20:20:55.564229  1659 net.cpp:369] relu1 -> ip1 (in-place)
I0428 20:20:55.564419  1659 net.cpp:124] Setting up relu1
I0428 20:20:55.564429  1659 net.cpp:131] Top shape: 100 25 (2500)
I0428 20:20:55.564431  1659 net.cpp:139] Memory required for data: 16334800
I0428 20:20:55.564435  1659 layer_factory.hpp:77] Creating layer ip2
I0428 20:20:55.564442  1659 net.cpp:86] Creating Layer ip2
I0428 20:20:55.564446  1659 net.cpp:408] ip2 <- ip1
I0428 20:20:55.564452  1659 net.cpp:382] ip2 -> ip2
I0428 20:20:55.564554  1659 net.cpp:124] Setting up ip2
I0428 20:20:55.564561  1659 net.cpp:131] Top shape: 100 10 (1000)
I0428 20:20:55.564579  1659 net.cpp:139] Memory required for data: 16338800
I0428 20:20:55.564584  1659 layer_factory.hpp:77] Creating layer relu2
I0428 20:20:55.564589  1659 net.cpp:86] Creating Layer relu2
I0428 20:20:55.564592  1659 net.cpp:408] relu2 <- ip2
I0428 20:20:55.564602  1659 net.cpp:369] relu2 -> ip2 (in-place)
I0428 20:20:55.564774  1659 net.cpp:124] Setting up relu2
I0428 20:20:55.564784  1659 net.cpp:131] Top shape: 100 10 (1000)
I0428 20:20:55.564786  1659 net.cpp:139] Memory required for data: 16342800
I0428 20:20:55.564790  1659 layer_factory.hpp:77] Creating layer ip2_relu2_0_split
I0428 20:20:55.564793  1659 net.cpp:86] Creating Layer ip2_relu2_0_split
I0428 20:20:55.564796  1659 net.cpp:408] ip2_relu2_0_split <- ip2
I0428 20:20:55.564801  1659 net.cpp:382] ip2_relu2_0_split -> ip2_relu2_0_split_0
I0428 20:20:55.564826  1659 net.cpp:382] ip2_relu2_0_split -> ip2_relu2_0_split_1
I0428 20:20:55.564903  1659 net.cpp:124] Setting up ip2_relu2_0_split
I0428 20:20:55.564910  1659 net.cpp:131] Top shape: 100 10 (1000)
I0428 20:20:55.564914  1659 net.cpp:131] Top shape: 100 10 (1000)
I0428 20:20:55.564916  1659 net.cpp:139] Memory required for data: 16350800
I0428 20:20:55.564919  1659 layer_factory.hpp:77] Creating layer accuracy
I0428 20:20:55.564926  1659 net.cpp:86] Creating Layer accuracy
I0428 20:20:55.564930  1659 net.cpp:408] accuracy <- ip2_relu2_0_split_0
I0428 20:20:55.564934  1659 net.cpp:408] accuracy <- label_mnist_1_split_0
I0428 20:20:55.564939  1659 net.cpp:382] accuracy -> accuracy
…
