…
I0428 19:28:33.826982 21658 net.cpp:296] The NetState phase (0) differed from the phase (1) specified by a rule in layer mnist
I0428 19:28:33.827000 21658 net.cpp:296] The NetState phase (0) differed from the phase (1) specified by a rule in layer accuracy
I0428 19:28:33.827081 21658 net.cpp:53] Initializing net from parameters: 
name: "LeNet"
state {
  phase: TRAIN
  level: 0
  stage: ""
}
layer {
  name: "mnist"
  type: "Data"
  top: "data"
  top: "label"
  include {
    phase: TRAIN
  }
  transform_param {
    scale: 0.00390625
  }
  data_param {
    source: "examples/mnist/mnist_train_lmdb"
    batch_size: 64
    backend: LMDB
  }
}
layer {
  name: "ip1"
  type: "InnerProduct"
  bottom: "data"
  top: "ip1"
  param {
    lr_mult: 1
  }
  param {
    lr_mult: 2
  }
  inner_product_param {
    num_output: 25
    weight_filler {
      type: "xavier"
    }
    bias_filler {
      type: "constant"
    }
  }
}
layer {
  name: "relu1"
  type: "ReLU"
  bottom: "ip1"
  top: "ip1"
}
layer {
  name: "ip2"
  type: "InnerProduct"
  bottom: "ip1"
  top: "ip2"
  param {
    lr_mult: 1
  }
  param {
    lr_mult: 2
  }
  inner_product_param {
    num_output: 50
    weight_filler {
      type: "xavier"
    }
    bias_filler {
      type: "constant"
    }
  }
}
layer {
  name: "relu2"
  type: "ReLU"
  bottom: "ip2"
  top: "ip2"
}
layer {
  name: "ip3"
  type: "InnerProduct"
  bottom: "ip2"
  top: "ip3"
  param {
    lr_mult: 1
  }
  param {
    lr_mult: 2
  }
  inner_product_param {
    num_output: 10
    weight_filler {
      type: "xavier"
    }
    bias_filler {
      type: "constant"
    }
  }
}
layer {
  name: "relu3"
  type: "ReLU"
  bottom: "ip3"
  top: "ip3"
}
layer {
  name: "loss"
  type: "SoftmaxWithLoss"
  bottom: "ip3"
  bottom: "label"
  top: "loss"
}
I0428 19:28:33.827167 21658 layer_factory.hpp:77] Creating layer mnist
I0428 19:28:33.827302 21658 db_lmdb.cpp:35] Opened lmdb examples/mnist/mnist_train_lmdb
I0428 19:28:33.827335 21658 net.cpp:86] Creating Layer mnist
I0428 19:28:33.827347 21658 net.cpp:382] mnist -> data
I0428 19:28:33.827378 21658 net.cpp:382] mnist -> label
I0428 19:28:33.828574 21658 data_layer.cpp:45] output data size: 64,1,28,28
I0428 19:28:33.831071 21658 net.cpp:124] Setting up mnist
I0428 19:28:33.831092 21658 net.cpp:131] Top shape: 64 1 28 28 (50176)
I0428 19:28:33.831104 21658 net.cpp:131] Top shape: 64 (64)
I0428 19:28:33.831110 21658 net.cpp:139] Memory required for data: 200960
I0428 19:28:33.831120 21658 layer_factory.hpp:77] Creating layer ip1
I0428 19:28:33.831136 21658 net.cpp:86] Creating Layer ip1
I0428 19:28:33.831154 21658 net.cpp:408] ip1 <- data
I0428 19:28:33.831171 21658 net.cpp:382] ip1 -> ip1
I0428 19:28:33.831478 21658 net.cpp:124] Setting up ip1
I0428 19:28:33.831492 21658 net.cpp:131] Top shape: 64 25 (1600)
I0428 19:28:33.831498 21658 net.cpp:139] Memory required for data: 207360
I0428 19:28:33.831519 21658 layer_factory.hpp:77] Creating layer relu1
I0428 19:28:33.831533 21658 net.cpp:86] Creating Layer relu1
I0428 19:28:33.831543 21658 net.cpp:408] relu1 <- ip1
I0428 19:28:33.831553 21658 net.cpp:369] relu1 -> ip1 (in-place)
I0428 19:28:34.113883 21658 net.cpp:124] Setting up relu1
I0428 19:28:34.113920 21658 net.cpp:131] Top shape: 64 25 (1600)
I0428 19:28:34.113929 21658 net.cpp:139] Memory required for data: 213760
I0428 19:28:34.113948 21658 layer_factory.hpp:77] Creating layer ip2
I0428 19:28:34.113978 21658 net.cpp:86] Creating Layer ip2
I0428 19:28:34.114009 21658 net.cpp:408] ip2 <- ip1
I0428 19:28:34.114023 21658 net.cpp:382] ip2 -> ip2
I0428 19:28:34.115664 21658 net.cpp:124] Setting up ip2
I0428 19:28:34.115698 21658 net.cpp:131] Top shape: 64 50 (3200)
I0428 19:28:34.115710 21658 net.cpp:139] Memory required for data: 226560
I0428 19:28:34.115727 21658 layer_factory.hpp:77] Creating layer relu2
I0428 19:28:34.115741 21658 net.cpp:86] Creating Layer relu2
I0428 19:28:34.115749 21658 net.cpp:408] relu2 <- ip2
I0428 19:28:34.115758 21658 net.cpp:369] relu2 -> ip2 (in-place)
I0428 19:28:34.117095 21658 net.cpp:124] Setting up relu2
I0428 19:28:34.117118 21658 net.cpp:131] Top shape: 64 50 (3200)
I0428 19:28:34.117126 21658 net.cpp:139] Memory required for data: 239360
I0428 19:28:34.117141 21658 layer_factory.hpp:77] Creating layer ip3
I0428 19:28:34.117152 21658 net.cpp:86] Creating Layer ip3
I0428 19:28:34.117161 21658 net.cpp:408] ip3 <- ip2
I0428 19:28:34.117171 21658 net.cpp:382] ip3 -> ip3
I0428 19:28:34.118688 21658 net.cpp:124] Setting up ip3
I0428 19:28:34.118710 21658 net.cpp:131] Top shape: 64 10 (640)
I0428 19:28:34.118731 21658 net.cpp:139] Memory required for data: 241920
I0428 19:28:34.118747 21658 layer_factory.hpp:77] Creating layer relu3
I0428 19:28:34.118758 21658 net.cpp:86] Creating Layer relu3
I0428 19:28:34.118767 21658 net.cpp:408] relu3 <- ip3
I0428 19:28:34.118775 21658 net.cpp:369] relu3 -> ip3 (in-place)
I0428 19:28:34.119091 21658 net.cpp:124] Setting up relu3
I0428 19:28:34.119104 21658 net.cpp:131] Top shape: 64 10 (640)
I0428 19:28:34.119112 21658 net.cpp:139] Memory required for data: 244480
I0428 19:28:34.119117 21658 layer_factory.hpp:77] Creating layer loss
I0428 19:28:34.119127 21658 net.cpp:86] Creating Layer loss
I0428 19:28:34.119134 21658 net.cpp:408] loss <- ip3
I0428 19:28:34.119141 21658 net.cpp:408] loss <- label
I0428 19:28:34.119153 21658 net.cpp:382] loss -> loss
I0428 19:28:34.119184 21658 layer_factory.hpp:77] Creating layer loss
…
I0428 19:28:34.120168 21658 solver.cpp:173] Creating test net (#0) specified by net file: ECE595/mnist/train_test/var_everything2/lenet_train_test29.prototxt
I0428 19:28:34.120208 21658 net.cpp:296] The NetState phase (1) differed from the phase (0) specified by a rule in layer mnist
I0428 19:28:34.120324 21658 net.cpp:53] Initializing net from parameters: 
name: "LeNet"
state {
  phase: TEST
}
layer {
  name: "mnist"
  type: "Data"
  top: "data"
  top: "label"
  include {
    phase: TEST
  }
  transform_param {
    scale: 0.00390625
  }
  data_param {
    source: "examples/mnist/mnist_test_lmdb"
    batch_size: 100
    backend: LMDB
  }
}
layer {
  name: "ip1"
  type: "InnerProduct"
  bottom: "data"
  top: "ip1"
  param {
    lr_mult: 1
  }
  param {
    lr_mult: 2
  }
  inner_product_param {
    num_output: 25
    weight_filler {
      type: "xavier"
    }
    bias_filler {
      type: "constant"
    }
  }
}
layer {
  name: "relu1"
  type: "ReLU"
  bottom: "ip1"
  top: "ip1"
}
layer {
  name: "ip2"
  type: "InnerProduct"
  bottom: "ip1"
  top: "ip2"
  param {
    lr_mult: 1
  }
  param {
    lr_mult: 2
  }
  inner_product_param {
    num_output: 50
    weight_filler {
      type: "xavier"
    }
    bias_filler {
      type: "constant"
    }
  }
}
layer {
  name: "relu2"
  type: "ReLU"
  bottom: "ip2"
  top: "ip2"
}
layer {
  name: "ip3"
  type: "InnerProduct"
  bottom: "ip2"
  top: "ip3"
  param {
    lr_mult: 1
  }
  param {
    lr_mult: 2
  }
  inner_product_param {
    num_output: 10
    weight_filler {
      type: "xavier"
    }
    bias_filler {
      type: "constant"
    }
  }
}
layer {
  name: "relu3"
  type: "ReLU"
  bottom: "ip3"
  top: "ip3"
}
layer {
  name: "accuracy"
  type: "Accuracy"
  bottom: "ip3"
  bottom: "label"
  top: "accuracy"
  include {
    phase: TEST
  }
}
layer {
  name: "loss"
  type: "SoftmaxWithLoss"
  bottom: "ip3"
  bottom: "label"
  top: "loss"
}
I0428 19:28:34.120450 21658 layer_factory.hpp:77] Creating layer mnist
I0428 19:28:34.120530 21658 db_lmdb.cpp:35] Opened lmdb examples/mnist/mnist_test_lmdb
I0428 19:28:34.120550 21658 net.cpp:86] Creating Layer mnist
I0428 19:28:34.120559 21658 net.cpp:382] mnist -> data
I0428 19:28:34.120573 21658 net.cpp:382] mnist -> label
I0428 19:28:34.120724 21658 data_layer.cpp:45] output data size: 100,1,28,28
I0428 19:28:34.123759 21658 net.cpp:124] Setting up mnist
I0428 19:28:34.123791 21658 net.cpp:131] Top shape: 100 1 28 28 (78400)
I0428 19:28:34.123802 21658 net.cpp:131] Top shape: 100 (100)
I0428 19:28:34.123809 21658 net.cpp:139] Memory required for data: 314000
I0428 19:28:34.123816 21658 layer_factory.hpp:77] Creating layer label_mnist_1_split
I0428 19:28:34.123832 21658 net.cpp:86] Creating Layer label_mnist_1_split
I0428 19:28:34.123839 21658 net.cpp:408] label_mnist_1_split <- label
I0428 19:28:34.123848 21658 net.cpp:382] label_mnist_1_split -> label_mnist_1_split_0
I0428 19:28:34.123860 21658 net.cpp:382] label_mnist_1_split -> label_mnist_1_split_1
I0428 19:28:34.123994 21658 net.cpp:124] Setting up label_mnist_1_split
I0428 19:28:34.124007 21658 net.cpp:131] Top shape: 100 (100)
I0428 19:28:34.124014 21658 net.cpp:131] Top shape: 100 (100)
I0428 19:28:34.124019 21658 net.cpp:139] Memory required for data: 314800
I0428 19:28:34.124027 21658 layer_factory.hpp:77] Creating layer ip1
I0428 19:28:34.124037 21658 net.cpp:86] Creating Layer ip1
I0428 19:28:34.124044 21658 net.cpp:408] ip1 <- data
I0428 19:28:34.124053 21658 net.cpp:382] ip1 -> ip1
I0428 19:28:34.124434 21658 net.cpp:124] Setting up ip1
I0428 19:28:34.124447 21658 net.cpp:131] Top shape: 100 25 (2500)
I0428 19:28:34.124454 21658 net.cpp:139] Memory required for data: 324800
I0428 19:28:34.124469 21658 layer_factory.hpp:77] Creating layer relu1
I0428 19:28:34.124478 21658 net.cpp:86] Creating Layer relu1
I0428 19:28:34.124486 21658 net.cpp:408] relu1 <- ip1
I0428 19:28:34.124493 21658 net.cpp:369] relu1 -> ip1 (in-place)
I0428 19:28:34.125903 21658 net.cpp:124] Setting up relu1
I0428 19:28:34.125924 21658 net.cpp:131] Top shape: 100 25 (2500)
I0428 19:28:34.125931 21658 net.cpp:139] Memory required for data: 334800
I0428 19:28:34.125944 21658 layer_factory.hpp:77] Creating layer ip2
I0428 19:28:34.125958 21658 net.cpp:86] Creating Layer ip2
I0428 19:28:34.125965 21658 net.cpp:408] ip2 <- ip1
I0428 19:28:34.125975 21658 net.cpp:382] ip2 -> ip2
I0428 19:28:34.126168 21658 net.cpp:124] Setting up ip2
I0428 19:28:34.126183 21658 net.cpp:131] Top shape: 100 50 (5000)
I0428 19:28:34.126189 21658 net.cpp:139] Memory required for data: 354800
I0428 19:28:34.126204 21658 layer_factory.hpp:77] Creating layer relu2
I0428 19:28:34.126214 21658 net.cpp:86] Creating Layer relu2
I0428 19:28:34.126221 21658 net.cpp:408] relu2 <- ip2
I0428 19:28:34.126229 21658 net.cpp:369] relu2 -> ip2 (in-place)
I0428 19:28:34.126487 21658 net.cpp:124] Setting up relu2
I0428 19:28:34.126502 21658 net.cpp:131] Top shape: 100 50 (5000)
I0428 19:28:34.126508 21658 net.cpp:139] Memory required for data: 374800
I0428 19:28:34.126513 21658 layer_factory.hpp:77] Creating layer ip3
I0428 19:28:34.126523 21658 net.cpp:86] Creating Layer ip3
I0428 19:28:34.126529 21658 net.cpp:408] ip3 <- ip2
I0428 19:28:34.126538 21658 net.cpp:382] ip3 -> ip3
I0428 19:28:34.126770 21658 net.cpp:124] Setting up ip3
I0428 19:28:34.126790 21658 net.cpp:131] Top shape: 100 10 (1000)
I0428 19:28:34.126796 21658 net.cpp:139] Memory required for data: 378800
I0428 19:28:34.126809 21658 layer_factory.hpp:77] Creating layer relu3
I0428 19:28:34.126819 21658 net.cpp:86] Creating Layer relu3
I0428 19:28:34.126827 21658 net.cpp:408] relu3 <- ip3
I0428 19:28:34.126833 21658 net.cpp:369] relu3 -> ip3 (in-place)
I0428 19:28:34.127092 21658 net.cpp:124] Setting up relu3
I0428 19:28:34.127105 21658 net.cpp:131] Top shape: 100 10 (1000)
I0428 19:28:34.127112 21658 net.cpp:139] Memory required for data: 382800
I0428 19:28:34.127117 21658 layer_factory.hpp:77] Creating layer ip3_relu3_0_split
I0428 19:28:34.127127 21658 net.cpp:86] Creating Layer ip3_relu3_0_split
I0428 19:28:34.127135 21658 net.cpp:408] ip3_relu3_0_split <- ip3
I0428 19:28:34.127141 21658 net.cpp:382] ip3_relu3_0_split -> ip3_relu3_0_split_0
I0428 19:28:34.127153 21658 net.cpp:382] ip3_relu3_0_split -> ip3_relu3_0_split_1
I0428 19:28:34.127212 21658 net.cpp:124] Setting up ip3_relu3_0_split
I0428 19:28:34.127220 21658 net.cpp:131] Top shape: 100 10 (1000)
I0428 19:28:34.127229 21658 net.cpp:131] Top shape: 100 10 (1000)
I0428 19:28:34.127236 21658 net.cpp:139] Memory required for data: 390800
I0428 19:28:34.127241 21658 layer_factory.hpp:77] Creating layer accuracy
I0428 19:28:34.127249 21658 net.cpp:86] Creating Layer accuracy
I0428 19:28:34.127255 21658 net.cpp:408] accuracy <- ip3_relu3_0_split_0
I0428 19:28:34.127262 21658 net.cpp:408] accuracy <- label_mnist_1_split_0
I0428 19:28:34.127271 21658 net.cpp:382] accuracy -> accuracy
…
