…
I0428 19:43:50.173643 25462 net.cpp:296] The NetState phase (0) differed from the phase (1) specified by a rule in layer mnist
I0428 19:43:50.173666 25462 net.cpp:296] The NetState phase (0) differed from the phase (1) specified by a rule in layer accuracy
I0428 19:43:50.173761 25462 net.cpp:53] Initializing net from parameters: 
name: "LeNet"
state {
  phase: TRAIN
  level: 0
  stage: ""
}
layer {
  name: "mnist"
  type: "Data"
  top: "data"
  top: "label"
  include {
    phase: TRAIN
  }
  transform_param {
    scale: 0.00390625
  }
  data_param {
    source: "examples/mnist/mnist_train_lmdb"
    batch_size: 64
    backend: LMDB
  }
}
layer {
  name: "conv0"
  type: "Convolution"
  bottom: "data"
  top: "conv0"
  param {
    lr_mult: 1
  }
  param {
    lr_mult: 2
  }
  convolution_param {
    num_output: 2
    kernel_size: 5
    stride: 1
    weight_filler {
      type: "xavier"
    }
    bias_filler {
      type: "constant"
    }
  }
}
layer {
  name: "pool0"
  type: "Pooling"
  bottom: "conv0"
  top: "pool0"
  pooling_param {
    pool: MAX
    kernel_size: 2
    stride: 2
  }
}
layer {
  name: "conv1"
  type: "Convolution"
  bottom: "pool0"
  top: "conv1"
  param {
    lr_mult: 1
  }
  param {
    lr_mult: 2
  }
  convolution_param {
    num_output: 50
    kernel_size: 5
    stride: 1
    weight_filler {
      type: "xavier"
    }
    bias_filler {
      type: "constant"
    }
  }
}
layer {
  name: "pool1"
  type: "Pooling"
  bottom: "conv1"
  top: "pool1"
  pooling_param {
    pool: MAX
    kernel_size: 2
    stride: 2
  }
}
layer {
  name: "ip1"
  type: "InnerProduct"
  bottom: "pool1"
  top: "ip1"
  param {
    lr_mult: 1
  }
  param {
    lr_mult: 2
  }
  inner_product_param {
    num_output: 10
    weight_filler {
      type: "xavier"
    }
    bias_filler {
      type: "constant"
    }
  }
}
layer {
  name: "relu1"
  type: "ReLU"
  bottom: "ip1"
  top: "ip1"
}
layer {
  name: "ip2"
  type: "InnerProduct"
  bottom: "ip1"
  top: "ip2"
  param {
    lr_mult: 1
  }
  param {
    lr_mult: 2
  }
  inner_product_param {
    num_output: 10
    weight_filler {
      type: "xavier"
    }
    bias_filler {
      type: "constant"
    }
  }
}
layer {
  name: "relu2"
  type: "ReLU"
  bottom: "ip2"
  top: "ip2"
}
layer {
  name: "loss"
  type: "SoftmaxWithLoss"
  bottom: "ip2"
  bottom: "label"
  top: "loss"
}
I0428 19:43:50.173862 25462 layer_factory.hpp:77] Creating layer mnist
I0428 19:43:50.173996 25462 db_lmdb.cpp:35] Opened lmdb examples/mnist/mnist_train_lmdb
I0428 19:43:50.174029 25462 net.cpp:86] Creating Layer mnist
I0428 19:43:50.174041 25462 net.cpp:382] mnist -> data
I0428 19:43:50.174073 25462 net.cpp:382] mnist -> label
I0428 19:43:50.175303 25462 data_layer.cpp:45] output data size: 64,1,28,28
I0428 19:43:50.177781 25462 net.cpp:124] Setting up mnist
I0428 19:43:50.177803 25462 net.cpp:131] Top shape: 64 1 28 28 (50176)
I0428 19:43:50.177812 25462 net.cpp:131] Top shape: 64 (64)
I0428 19:43:50.177819 25462 net.cpp:139] Memory required for data: 200960
I0428 19:43:50.177830 25462 layer_factory.hpp:77] Creating layer conv0
I0428 19:43:50.177852 25462 net.cpp:86] Creating Layer conv0
I0428 19:43:50.177863 25462 net.cpp:408] conv0 <- data
I0428 19:43:50.177881 25462 net.cpp:382] conv0 -> conv0
I0428 19:43:50.462267 25462 net.cpp:124] Setting up conv0
I0428 19:43:50.462296 25462 net.cpp:131] Top shape: 64 2 24 24 (73728)
I0428 19:43:50.462302 25462 net.cpp:139] Memory required for data: 495872
I0428 19:43:50.462347 25462 layer_factory.hpp:77] Creating layer pool0
I0428 19:43:50.462365 25462 net.cpp:86] Creating Layer pool0
I0428 19:43:50.462373 25462 net.cpp:408] pool0 <- conv0
I0428 19:43:50.462381 25462 net.cpp:382] pool0 -> pool0
I0428 19:43:50.462433 25462 net.cpp:124] Setting up pool0
I0428 19:43:50.462442 25462 net.cpp:131] Top shape: 64 2 12 12 (18432)
I0428 19:43:50.462447 25462 net.cpp:139] Memory required for data: 569600
I0428 19:43:50.462452 25462 layer_factory.hpp:77] Creating layer conv1
I0428 19:43:50.462467 25462 net.cpp:86] Creating Layer conv1
I0428 19:43:50.462473 25462 net.cpp:408] conv1 <- pool0
I0428 19:43:50.462482 25462 net.cpp:382] conv1 -> conv1
I0428 19:43:50.465231 25462 net.cpp:124] Setting up conv1
I0428 19:43:50.465247 25462 net.cpp:131] Top shape: 64 50 8 8 (204800)
I0428 19:43:50.465253 25462 net.cpp:139] Memory required for data: 1388800
I0428 19:43:50.465266 25462 layer_factory.hpp:77] Creating layer pool1
I0428 19:43:50.465277 25462 net.cpp:86] Creating Layer pool1
I0428 19:43:50.465283 25462 net.cpp:408] pool1 <- conv1
I0428 19:43:50.465291 25462 net.cpp:382] pool1 -> pool1
I0428 19:43:50.465334 25462 net.cpp:124] Setting up pool1
I0428 19:43:50.465343 25462 net.cpp:131] Top shape: 64 50 4 4 (51200)
I0428 19:43:50.465348 25462 net.cpp:139] Memory required for data: 1593600
I0428 19:43:50.465353 25462 layer_factory.hpp:77] Creating layer ip1
I0428 19:43:50.465364 25462 net.cpp:86] Creating Layer ip1
I0428 19:43:50.465369 25462 net.cpp:408] ip1 <- pool1
I0428 19:43:50.465378 25462 net.cpp:382] ip1 -> ip1
I0428 19:43:50.466399 25462 net.cpp:124] Setting up ip1
I0428 19:43:50.466414 25462 net.cpp:131] Top shape: 64 10 (640)
I0428 19:43:50.466420 25462 net.cpp:139] Memory required for data: 1596160
I0428 19:43:50.466434 25462 layer_factory.hpp:77] Creating layer relu1
I0428 19:43:50.466444 25462 net.cpp:86] Creating Layer relu1
I0428 19:43:50.466450 25462 net.cpp:408] relu1 <- ip1
I0428 19:43:50.466459 25462 net.cpp:369] relu1 -> ip1 (in-place)
I0428 19:43:50.466678 25462 net.cpp:124] Setting up relu1
I0428 19:43:50.466688 25462 net.cpp:131] Top shape: 64 10 (640)
I0428 19:43:50.466693 25462 net.cpp:139] Memory required for data: 1598720
I0428 19:43:50.466698 25462 layer_factory.hpp:77] Creating layer ip2
I0428 19:43:50.466708 25462 net.cpp:86] Creating Layer ip2
I0428 19:43:50.466713 25462 net.cpp:408] ip2 <- ip1
I0428 19:43:50.466722 25462 net.cpp:382] ip2 -> ip2
I0428 19:43:50.466821 25462 net.cpp:124] Setting up ip2
I0428 19:43:50.466830 25462 net.cpp:131] Top shape: 64 10 (640)
I0428 19:43:50.466835 25462 net.cpp:139] Memory required for data: 1601280
I0428 19:43:50.466843 25462 layer_factory.hpp:77] Creating layer relu2
I0428 19:43:50.466852 25462 net.cpp:86] Creating Layer relu2
I0428 19:43:50.466859 25462 net.cpp:408] relu2 <- ip2
I0428 19:43:50.466866 25462 net.cpp:369] relu2 -> ip2 (in-place)
I0428 19:43:50.467579 25462 net.cpp:124] Setting up relu2
I0428 19:43:50.467592 25462 net.cpp:131] Top shape: 64 10 (640)
I0428 19:43:50.467598 25462 net.cpp:139] Memory required for data: 1603840
I0428 19:43:50.467603 25462 layer_factory.hpp:77] Creating layer loss
I0428 19:43:50.467613 25462 net.cpp:86] Creating Layer loss
I0428 19:43:50.467618 25462 net.cpp:408] loss <- ip2
I0428 19:43:50.467641 25462 net.cpp:408] loss <- label
I0428 19:43:50.467666 25462 net.cpp:382] loss -> loss
I0428 19:43:50.467710 25462 layer_factory.hpp:77] Creating layer loss
…
I0428 19:43:50.468428 25462 solver.cpp:173] Creating test net (#0) specified by net file: ECE595/mnist/train_test/var_everything2/lenet_train_test432.prototxt
I0428 19:43:50.468461 25462 net.cpp:296] The NetState phase (1) differed from the phase (0) specified by a rule in layer mnist
I0428 19:43:50.468562 25462 net.cpp:53] Initializing net from parameters: 
name: "LeNet"
state {
  phase: TEST
}
layer {
  name: "mnist"
  type: "Data"
  top: "data"
  top: "label"
  include {
    phase: TEST
  }
  transform_param {
    scale: 0.00390625
  }
  data_param {
    source: "examples/mnist/mnist_test_lmdb"
    batch_size: 100
    backend: LMDB
  }
}
layer {
  name: "conv0"
  type: "Convolution"
  bottom: "data"
  top: "conv0"
  param {
    lr_mult: 1
  }
  param {
    lr_mult: 2
  }
  convolution_param {
    num_output: 2
    kernel_size: 5
    stride: 1
    weight_filler {
      type: "xavier"
    }
    bias_filler {
      type: "constant"
    }
  }
}
layer {
  name: "pool0"
  type: "Pooling"
  bottom: "conv0"
  top: "pool0"
  pooling_param {
    pool: MAX
    kernel_size: 2
    stride: 2
  }
}
layer {
  name: "conv1"
  type: "Convolution"
  bottom: "pool0"
  top: "conv1"
  param {
    lr_mult: 1
  }
  param {
    lr_mult: 2
  }
  convolution_param {
    num_output: 50
    kernel_size: 5
    stride: 1
    weight_filler {
      type: "xavier"
    }
    bias_filler {
      type: "constant"
    }
  }
}
layer {
  name: "pool1"
  type: "Pooling"
  bottom: "conv1"
  top: "pool1"
  pooling_param {
    pool: MAX
    kernel_size: 2
    stride: 2
  }
}
layer {
  name: "ip1"
  type: "InnerProduct"
  bottom: "pool1"
  top: "ip1"
  param {
    lr_mult: 1
  }
  param {
    lr_mult: 2
  }
  inner_product_param {
    num_output: 10
    weight_filler {
      type: "xavier"
    }
    bias_filler {
      type: "constant"
    }
  }
}
layer {
  name: "relu1"
  type: "ReLU"
  bottom: "ip1"
  top: "ip1"
}
layer {
  name: "ip2"
  type: "InnerProduct"
  bottom: "ip1"
  top: "ip2"
  param {
    lr_mult: 1
  }
  param {
    lr_mult: 2
  }
  inner_product_param {
    num_output: 10
    weight_filler {
      type: "xavier"
    }
    bias_filler {
      type: "constant"
    }
  }
}
layer {
  name: "relu2"
  type: "ReLU"
  bottom: "ip2"
  top: "ip2"
}
layer {
  name: "accuracy"
  type: "Accuracy"
  bottom: "ip2"
  bottom: "label"
  top: "accuracy"
  include {
    phase: TEST
  }
}
layer {
  name: "loss"
  type: "SoftmaxWithLoss"
  bottom: "ip2"
  bottom: "label"
  top: "loss"
}
I0428 19:43:50.468658 25462 layer_factory.hpp:77] Creating layer mnist
I0428 19:43:50.468716 25462 db_lmdb.cpp:35] Opened lmdb examples/mnist/mnist_test_lmdb
I0428 19:43:50.468739 25462 net.cpp:86] Creating Layer mnist
I0428 19:43:50.468745 25462 net.cpp:382] mnist -> data
I0428 19:43:50.468757 25462 net.cpp:382] mnist -> label
I0428 19:43:50.468968 25462 data_layer.cpp:45] output data size: 100,1,28,28
I0428 19:43:50.471091 25462 net.cpp:124] Setting up mnist
I0428 19:43:50.471122 25462 net.cpp:131] Top shape: 100 1 28 28 (78400)
I0428 19:43:50.471129 25462 net.cpp:131] Top shape: 100 (100)
I0428 19:43:50.471134 25462 net.cpp:139] Memory required for data: 314000
I0428 19:43:50.471140 25462 layer_factory.hpp:77] Creating layer label_mnist_1_split
I0428 19:43:50.471150 25462 net.cpp:86] Creating Layer label_mnist_1_split
I0428 19:43:50.471156 25462 net.cpp:408] label_mnist_1_split <- label
I0428 19:43:50.471164 25462 net.cpp:382] label_mnist_1_split -> label_mnist_1_split_0
I0428 19:43:50.471174 25462 net.cpp:382] label_mnist_1_split -> label_mnist_1_split_1
I0428 19:43:50.471266 25462 net.cpp:124] Setting up label_mnist_1_split
I0428 19:43:50.471284 25462 net.cpp:131] Top shape: 100 (100)
I0428 19:43:50.471292 25462 net.cpp:131] Top shape: 100 (100)
I0428 19:43:50.471297 25462 net.cpp:139] Memory required for data: 314800
I0428 19:43:50.471302 25462 layer_factory.hpp:77] Creating layer conv0
I0428 19:43:50.471314 25462 net.cpp:86] Creating Layer conv0
I0428 19:43:50.471320 25462 net.cpp:408] conv0 <- data
I0428 19:43:50.471329 25462 net.cpp:382] conv0 -> conv0
I0428 19:43:50.472980 25462 net.cpp:124] Setting up conv0
I0428 19:43:50.472997 25462 net.cpp:131] Top shape: 100 2 24 24 (115200)
I0428 19:43:50.473003 25462 net.cpp:139] Memory required for data: 775600
I0428 19:43:50.473018 25462 layer_factory.hpp:77] Creating layer pool0
I0428 19:43:50.473028 25462 net.cpp:86] Creating Layer pool0
I0428 19:43:50.473034 25462 net.cpp:408] pool0 <- conv0
I0428 19:43:50.473043 25462 net.cpp:382] pool0 -> pool0
I0428 19:43:50.473086 25462 net.cpp:124] Setting up pool0
I0428 19:43:50.473095 25462 net.cpp:131] Top shape: 100 2 12 12 (28800)
I0428 19:43:50.473101 25462 net.cpp:139] Memory required for data: 890800
I0428 19:43:50.473106 25462 layer_factory.hpp:77] Creating layer conv1
I0428 19:43:50.473121 25462 net.cpp:86] Creating Layer conv1
I0428 19:43:50.473142 25462 net.cpp:408] conv1 <- pool0
I0428 19:43:50.473152 25462 net.cpp:382] conv1 -> conv1
I0428 19:43:50.474761 25462 net.cpp:124] Setting up conv1
I0428 19:43:50.474789 25462 net.cpp:131] Top shape: 100 50 8 8 (320000)
I0428 19:43:50.474797 25462 net.cpp:139] Memory required for data: 2170800
I0428 19:43:50.474810 25462 layer_factory.hpp:77] Creating layer pool1
I0428 19:43:50.474820 25462 net.cpp:86] Creating Layer pool1
I0428 19:43:50.474827 25462 net.cpp:408] pool1 <- conv1
I0428 19:43:50.474835 25462 net.cpp:382] pool1 -> pool1
I0428 19:43:50.474879 25462 net.cpp:124] Setting up pool1
I0428 19:43:50.474887 25462 net.cpp:131] Top shape: 100 50 4 4 (80000)
I0428 19:43:50.474894 25462 net.cpp:139] Memory required for data: 2490800
I0428 19:43:50.474898 25462 layer_factory.hpp:77] Creating layer ip1
I0428 19:43:50.474908 25462 net.cpp:86] Creating Layer ip1
I0428 19:43:50.474915 25462 net.cpp:408] ip1 <- pool1
I0428 19:43:50.474923 25462 net.cpp:382] ip1 -> ip1
I0428 19:43:50.475105 25462 net.cpp:124] Setting up ip1
I0428 19:43:50.475114 25462 net.cpp:131] Top shape: 100 10 (1000)
I0428 19:43:50.475119 25462 net.cpp:139] Memory required for data: 2494800
I0428 19:43:50.475131 25462 layer_factory.hpp:77] Creating layer relu1
I0428 19:43:50.475139 25462 net.cpp:86] Creating Layer relu1
I0428 19:43:50.475145 25462 net.cpp:408] relu1 <- ip1
I0428 19:43:50.475153 25462 net.cpp:369] relu1 -> ip1 (in-place)
I0428 19:43:50.475311 25462 net.cpp:124] Setting up relu1
I0428 19:43:50.475322 25462 net.cpp:131] Top shape: 100 10 (1000)
I0428 19:43:50.475327 25462 net.cpp:139] Memory required for data: 2498800
I0428 19:43:50.475333 25462 layer_factory.hpp:77] Creating layer ip2
I0428 19:43:50.475344 25462 net.cpp:86] Creating Layer ip2
I0428 19:43:50.475349 25462 net.cpp:408] ip2 <- ip1
I0428 19:43:50.475358 25462 net.cpp:382] ip2 -> ip2
I0428 19:43:50.475473 25462 net.cpp:124] Setting up ip2
I0428 19:43:50.475481 25462 net.cpp:131] Top shape: 100 10 (1000)
I0428 19:43:50.475486 25462 net.cpp:139] Memory required for data: 2502800
I0428 19:43:50.475494 25462 layer_factory.hpp:77] Creating layer relu2
I0428 19:43:50.475502 25462 net.cpp:86] Creating Layer relu2
I0428 19:43:50.475522 25462 net.cpp:408] relu2 <- ip2
I0428 19:43:50.475540 25462 net.cpp:369] relu2 -> ip2 (in-place)
I0428 19:43:50.475790 25462 net.cpp:124] Setting up relu2
I0428 19:43:50.475801 25462 net.cpp:131] Top shape: 100 10 (1000)
I0428 19:43:50.475812 25462 net.cpp:139] Memory required for data: 2506800
I0428 19:43:50.475817 25462 layer_factory.hpp:77] Creating layer ip2_relu2_0_split
I0428 19:43:50.475826 25462 net.cpp:86] Creating Layer ip2_relu2_0_split
I0428 19:43:50.475831 25462 net.cpp:408] ip2_relu2_0_split <- ip2
I0428 19:43:50.475839 25462 net.cpp:382] ip2_relu2_0_split -> ip2_relu2_0_split_0
I0428 19:43:50.475862 25462 net.cpp:382] ip2_relu2_0_split -> ip2_relu2_0_split_1
I0428 19:43:50.475908 25462 net.cpp:124] Setting up ip2_relu2_0_split
I0428 19:43:50.475915 25462 net.cpp:131] Top shape: 100 10 (1000)
I0428 19:43:50.475924 25462 net.cpp:131] Top shape: 100 10 (1000)
I0428 19:43:50.475929 25462 net.cpp:139] Memory required for data: 2514800
I0428 19:43:50.475934 25462 layer_factory.hpp:77] Creating layer accuracy
I0428 19:43:50.475944 25462 net.cpp:86] Creating Layer accuracy
I0428 19:43:50.475951 25462 net.cpp:408] accuracy <- ip2_relu2_0_split_0
I0428 19:43:50.475970 25462 net.cpp:408] accuracy <- label_mnist_1_split_0
I0428 19:43:50.475976 25462 net.cpp:382] accuracy -> accuracy
…
