…
I0428 20:27:46.959228  3219 net.cpp:296] The NetState phase (0) differed from the phase (1) specified by a rule in layer mnist
I0428 20:27:46.959247  3219 net.cpp:296] The NetState phase (0) differed from the phase (1) specified by a rule in layer accuracy
I0428 20:27:46.959352  3219 net.cpp:53] Initializing net from parameters: 
name: "LeNet"
state {
  phase: TRAIN
  level: 0
  stage: ""
}
layer {
  name: "mnist"
  type: "Data"
  top: "data"
  top: "label"
  include {
    phase: TRAIN
  }
  transform_param {
    scale: 0.00390625
  }
  data_param {
    source: "examples/mnist/mnist_train_lmdb"
    batch_size: 64
    backend: LMDB
  }
}
layer {
  name: "conv0"
  type: "Convolution"
  bottom: "data"
  top: "conv0"
  param {
    lr_mult: 1
  }
  param {
    lr_mult: 2
  }
  convolution_param {
    num_output: 100
    kernel_size: 5
    stride: 1
    weight_filler {
      type: "xavier"
    }
    bias_filler {
      type: "constant"
    }
  }
}
layer {
  name: "pool0"
  type: "Pooling"
  bottom: "conv0"
  top: "pool0"
  pooling_param {
    pool: MAX
    kernel_size: 2
    stride: 2
  }
}
layer {
  name: "conv1"
  type: "Convolution"
  bottom: "pool0"
  top: "conv1"
  param {
    lr_mult: 1
  }
  param {
    lr_mult: 2
  }
  convolution_param {
    num_output: 5
    kernel_size: 5
    stride: 1
    weight_filler {
      type: "xavier"
    }
    bias_filler {
      type: "constant"
    }
  }
}
layer {
  name: "pool1"
  type: "Pooling"
  bottom: "conv1"
  top: "pool1"
  pooling_param {
    pool: MAX
    kernel_size: 2
    stride: 2
  }
}
layer {
  name: "ip1"
  type: "InnerProduct"
  bottom: "pool1"
  top: "ip1"
  param {
    lr_mult: 1
  }
  param {
    lr_mult: 2
  }
  inner_product_param {
    num_output: 10
    weight_filler {
      type: "xavier"
    }
    bias_filler {
      type: "constant"
    }
  }
}
layer {
  name: "relu1"
  type: "ReLU"
  bottom: "ip1"
  top: "ip1"
}
layer {
  name: "ip2"
  type: "InnerProduct"
  bottom: "ip1"
  top: "ip2"
  param {
    lr_mult: 1
  }
  param {
    lr_mult: 2
  }
  inner_product_param {
    num_output: 10
    weight_filler {
      type: "xavier"
    }
    bias_filler {
      type: "constant"
    }
  }
}
layer {
  name: "relu2"
  type: "ReLU"
  bottom: "ip2"
  top: "ip2"
}
layer {
  name: "ip3"
  type: "InnerProduct"
  bottom: "ip2"
  top: "ip3"
  param {
    lr_mult: 1
  }
  param {
    lr_mult: 2
  }
  inner_product_param {
    num_output: 10
    weight_filler {
      type: "xavier"
    }
    bias_filler {
      type: "constant"
    }
  }
}
layer {
  name: "relu3"
  type: "ReLU"
  bottom: "ip3"
  top: "ip3"
}
layer {
  name: "loss"
  type: "SoftmaxWithLoss"
  bottom: "ip3"
  bottom: "label"
  top: "loss"
}
I0428 20:27:46.959432  3219 layer_factory.hpp:77] Creating layer mnist
I0428 20:27:46.959533  3219 db_lmdb.cpp:35] Opened lmdb examples/mnist/mnist_train_lmdb
I0428 20:27:46.959560  3219 net.cpp:86] Creating Layer mnist
I0428 20:27:46.959569  3219 net.cpp:382] mnist -> data
I0428 20:27:46.959590  3219 net.cpp:382] mnist -> label
I0428 20:27:46.960677  3219 data_layer.cpp:45] output data size: 64,1,28,28
I0428 20:27:46.963228  3219 net.cpp:124] Setting up mnist
I0428 20:27:46.963251  3219 net.cpp:131] Top shape: 64 1 28 28 (50176)
I0428 20:27:46.963260  3219 net.cpp:131] Top shape: 64 (64)
I0428 20:27:46.963263  3219 net.cpp:139] Memory required for data: 200960
I0428 20:27:46.963270  3219 layer_factory.hpp:77] Creating layer conv0
I0428 20:27:46.963285  3219 net.cpp:86] Creating Layer conv0
I0428 20:27:46.963306  3219 net.cpp:408] conv0 <- data
I0428 20:27:46.963320  3219 net.cpp:382] conv0 -> conv0
I0428 20:27:47.242282  3219 net.cpp:124] Setting up conv0
I0428 20:27:47.242307  3219 net.cpp:131] Top shape: 64 100 24 24 (3686400)
I0428 20:27:47.242311  3219 net.cpp:139] Memory required for data: 14946560
I0428 20:27:47.242326  3219 layer_factory.hpp:77] Creating layer pool0
I0428 20:27:47.242338  3219 net.cpp:86] Creating Layer pool0
I0428 20:27:47.242342  3219 net.cpp:408] pool0 <- conv0
I0428 20:27:47.242347  3219 net.cpp:382] pool0 -> pool0
I0428 20:27:47.242409  3219 net.cpp:124] Setting up pool0
I0428 20:27:47.242416  3219 net.cpp:131] Top shape: 64 100 12 12 (921600)
I0428 20:27:47.242420  3219 net.cpp:139] Memory required for data: 18632960
I0428 20:27:47.242424  3219 layer_factory.hpp:77] Creating layer conv1
I0428 20:27:47.242434  3219 net.cpp:86] Creating Layer conv1
I0428 20:27:47.242440  3219 net.cpp:408] conv1 <- pool0
I0428 20:27:47.242461  3219 net.cpp:382] conv1 -> conv1
I0428 20:27:47.245383  3219 net.cpp:124] Setting up conv1
I0428 20:27:47.245398  3219 net.cpp:131] Top shape: 64 5 8 8 (20480)
I0428 20:27:47.245400  3219 net.cpp:139] Memory required for data: 18714880
I0428 20:27:47.245409  3219 layer_factory.hpp:77] Creating layer pool1
I0428 20:27:47.245416  3219 net.cpp:86] Creating Layer pool1
I0428 20:27:47.245419  3219 net.cpp:408] pool1 <- conv1
I0428 20:27:47.245424  3219 net.cpp:382] pool1 -> pool1
I0428 20:27:47.245460  3219 net.cpp:124] Setting up pool1
I0428 20:27:47.245468  3219 net.cpp:131] Top shape: 64 5 4 4 (5120)
I0428 20:27:47.245473  3219 net.cpp:139] Memory required for data: 18735360
I0428 20:27:47.245493  3219 layer_factory.hpp:77] Creating layer ip1
I0428 20:27:47.245501  3219 net.cpp:86] Creating Layer ip1
I0428 20:27:47.245503  3219 net.cpp:408] ip1 <- pool1
I0428 20:27:47.245508  3219 net.cpp:382] ip1 -> ip1
I0428 20:27:47.245609  3219 net.cpp:124] Setting up ip1
I0428 20:27:47.245616  3219 net.cpp:131] Top shape: 64 10 (640)
I0428 20:27:47.245620  3219 net.cpp:139] Memory required for data: 18737920
I0428 20:27:47.245626  3219 layer_factory.hpp:77] Creating layer relu1
I0428 20:27:47.245633  3219 net.cpp:86] Creating Layer relu1
I0428 20:27:47.245636  3219 net.cpp:408] relu1 <- ip1
I0428 20:27:47.245656  3219 net.cpp:369] relu1 -> ip1 (in-place)
I0428 20:27:47.245823  3219 net.cpp:124] Setting up relu1
I0428 20:27:47.245832  3219 net.cpp:131] Top shape: 64 10 (640)
I0428 20:27:47.245836  3219 net.cpp:139] Memory required for data: 18740480
I0428 20:27:47.245838  3219 layer_factory.hpp:77] Creating layer ip2
I0428 20:27:47.245846  3219 net.cpp:86] Creating Layer ip2
I0428 20:27:47.245848  3219 net.cpp:408] ip2 <- ip1
I0428 20:27:47.245853  3219 net.cpp:382] ip2 -> ip2
I0428 20:27:47.245946  3219 net.cpp:124] Setting up ip2
I0428 20:27:47.245954  3219 net.cpp:131] Top shape: 64 10 (640)
I0428 20:27:47.245957  3219 net.cpp:139] Memory required for data: 18743040
I0428 20:27:47.245977  3219 layer_factory.hpp:77] Creating layer relu2
I0428 20:27:47.245982  3219 net.cpp:86] Creating Layer relu2
I0428 20:27:47.245985  3219 net.cpp:408] relu2 <- ip2
I0428 20:27:47.245990  3219 net.cpp:369] relu2 -> ip2 (in-place)
I0428 20:27:47.246711  3219 net.cpp:124] Setting up relu2
I0428 20:27:47.246723  3219 net.cpp:131] Top shape: 64 10 (640)
I0428 20:27:47.246743  3219 net.cpp:139] Memory required for data: 18745600
I0428 20:27:47.246747  3219 layer_factory.hpp:77] Creating layer ip3
I0428 20:27:47.246769  3219 net.cpp:86] Creating Layer ip3
I0428 20:27:47.246773  3219 net.cpp:408] ip3 <- ip2
I0428 20:27:47.246778  3219 net.cpp:382] ip3 -> ip3
I0428 20:27:47.246877  3219 net.cpp:124] Setting up ip3
I0428 20:27:47.246886  3219 net.cpp:131] Top shape: 64 10 (640)
I0428 20:27:47.246889  3219 net.cpp:139] Memory required for data: 18748160
I0428 20:27:47.246897  3219 layer_factory.hpp:77] Creating layer relu3
I0428 20:27:47.246902  3219 net.cpp:86] Creating Layer relu3
I0428 20:27:47.246906  3219 net.cpp:408] relu3 <- ip3
I0428 20:27:47.246909  3219 net.cpp:369] relu3 -> ip3 (in-place)
I0428 20:27:47.247114  3219 net.cpp:124] Setting up relu3
I0428 20:27:47.247124  3219 net.cpp:131] Top shape: 64 10 (640)
I0428 20:27:47.247128  3219 net.cpp:139] Memory required for data: 18750720
I0428 20:27:47.247131  3219 layer_factory.hpp:77] Creating layer loss
I0428 20:27:47.247138  3219 net.cpp:86] Creating Layer loss
I0428 20:27:47.247141  3219 net.cpp:408] loss <- ip3
I0428 20:27:47.247145  3219 net.cpp:408] loss <- label
I0428 20:27:47.247150  3219 net.cpp:382] loss -> loss
I0428 20:27:47.247169  3219 layer_factory.hpp:77] Creating layer loss
…
I0428 20:27:47.247887  3219 solver.cpp:173] Creating test net (#0) specified by net file: ECE595/mnist/train_test/var_everything2/lenet_train_test1494.prototxt
I0428 20:27:47.247933  3219 net.cpp:296] The NetState phase (1) differed from the phase (0) specified by a rule in layer mnist
I0428 20:27:47.248028  3219 net.cpp:53] Initializing net from parameters: 
name: "LeNet"
state {
  phase: TEST
}
layer {
  name: "mnist"
  type: "Data"
  top: "data"
  top: "label"
  include {
    phase: TEST
  }
  transform_param {
    scale: 0.00390625
  }
  data_param {
    source: "examples/mnist/mnist_test_lmdb"
    batch_size: 100
    backend: LMDB
  }
}
layer {
  name: "conv0"
  type: "Convolution"
  bottom: "data"
  top: "conv0"
  param {
    lr_mult: 1
  }
  param {
    lr_mult: 2
  }
  convolution_param {
    num_output: 100
    kernel_size: 5
    stride: 1
    weight_filler {
      type: "xavier"
    }
    bias_filler {
      type: "constant"
    }
  }
}
layer {
  name: "pool0"
  type: "Pooling"
  bottom: "conv0"
  top: "pool0"
  pooling_param {
    pool: MAX
    kernel_size: 2
    stride: 2
  }
}
layer {
  name: "conv1"
  type: "Convolution"
  bottom: "pool0"
  top: "conv1"
  param {
    lr_mult: 1
  }
  param {
    lr_mult: 2
  }
  convolution_param {
    num_output: 5
    kernel_size: 5
    stride: 1
    weight_filler {
      type: "xavier"
    }
    bias_filler {
      type: "constant"
    }
  }
}
layer {
  name: "pool1"
  type: "Pooling"
  bottom: "conv1"
  top: "pool1"
  pooling_param {
    pool: MAX
    kernel_size: 2
    stride: 2
  }
}
layer {
  name: "ip1"
  type: "InnerProduct"
  bottom: "pool1"
  top: "ip1"
  param {
    lr_mult: 1
  }
  param {
    lr_mult: 2
  }
  inner_product_param {
    num_output: 10
    weight_filler {
      type: "xavier"
    }
    bias_filler {
      type: "constant"
    }
  }
}
layer {
  name: "relu1"
  type: "ReLU"
  bottom: "ip1"
  top: "ip1"
}
layer {
  name: "ip2"
  type: "InnerProduct"
  bottom: "ip1"
  top: "ip2"
  param {
    lr_mult: 1
  }
  param {
    lr_mult: 2
  }
  inner_product_param {
    num_output: 10
    weight_filler {
      type: "xavier"
    }
    bias_filler {
      type: "constant"
    }
  }
}
layer {
  name: "relu2"
  type: "ReLU"
  bottom: "ip2"
  top: "ip2"
}
layer {
  name: "ip3"
  type: "InnerProduct"
  bottom: "ip2"
  top: "ip3"
  param {
    lr_mult: 1
  }
  param {
    lr_mult: 2
  }
  inner_product_param {
    num_output: 10
    weight_filler {
      type: "xavier"
    }
    bias_filler {
      type: "constant"
    }
  }
}
layer {
  name: "relu3"
  type: "ReLU"
  bottom: "ip3"
  top: "ip3"
}
layer {
  name: "accuracy"
  type: "Accuracy"
  bottom: "ip3"
  bottom: "label"
  top: "accuracy"
  include {
    phase: TEST
  }
}
layer {
  name: "loss"
  type: "SoftmaxWithLoss"
  bottom: "ip3"
  bottom: "label"
  top: "loss"
}
I0428 20:27:47.248113  3219 layer_factory.hpp:77] Creating layer mnist
I0428 20:27:47.248159  3219 db_lmdb.cpp:35] Opened lmdb examples/mnist/mnist_test_lmdb
I0428 20:27:47.248188  3219 net.cpp:86] Creating Layer mnist
I0428 20:27:47.248193  3219 net.cpp:382] mnist -> data
I0428 20:27:47.248199  3219 net.cpp:382] mnist -> label
I0428 20:27:47.248287  3219 data_layer.cpp:45] output data size: 100,1,28,28
I0428 20:27:47.250519  3219 net.cpp:124] Setting up mnist
I0428 20:27:47.250532  3219 net.cpp:131] Top shape: 100 1 28 28 (78400)
I0428 20:27:47.250537  3219 net.cpp:131] Top shape: 100 (100)
I0428 20:27:47.250541  3219 net.cpp:139] Memory required for data: 314000
I0428 20:27:47.250547  3219 layer_factory.hpp:77] Creating layer label_mnist_1_split
I0428 20:27:47.250555  3219 net.cpp:86] Creating Layer label_mnist_1_split
I0428 20:27:47.250558  3219 net.cpp:408] label_mnist_1_split <- label
I0428 20:27:47.250564  3219 net.cpp:382] label_mnist_1_split -> label_mnist_1_split_0
I0428 20:27:47.250571  3219 net.cpp:382] label_mnist_1_split -> label_mnist_1_split_1
I0428 20:27:47.250658  3219 net.cpp:124] Setting up label_mnist_1_split
I0428 20:27:47.250664  3219 net.cpp:131] Top shape: 100 (100)
I0428 20:27:47.250669  3219 net.cpp:131] Top shape: 100 (100)
I0428 20:27:47.250671  3219 net.cpp:139] Memory required for data: 314800
I0428 20:27:47.250674  3219 layer_factory.hpp:77] Creating layer conv0
I0428 20:27:47.250684  3219 net.cpp:86] Creating Layer conv0
I0428 20:27:47.250689  3219 net.cpp:408] conv0 <- data
I0428 20:27:47.250694  3219 net.cpp:382] conv0 -> conv0
I0428 20:27:47.252331  3219 net.cpp:124] Setting up conv0
I0428 20:27:47.252359  3219 net.cpp:131] Top shape: 100 100 24 24 (5760000)
I0428 20:27:47.252364  3219 net.cpp:139] Memory required for data: 23354800
I0428 20:27:47.252373  3219 layer_factory.hpp:77] Creating layer pool0
I0428 20:27:47.252380  3219 net.cpp:86] Creating Layer pool0
I0428 20:27:47.252383  3219 net.cpp:408] pool0 <- conv0
I0428 20:27:47.252388  3219 net.cpp:382] pool0 -> pool0
I0428 20:27:47.252442  3219 net.cpp:124] Setting up pool0
I0428 20:27:47.252449  3219 net.cpp:131] Top shape: 100 100 12 12 (1440000)
I0428 20:27:47.252451  3219 net.cpp:139] Memory required for data: 29114800
I0428 20:27:47.252454  3219 layer_factory.hpp:77] Creating layer conv1
I0428 20:27:47.252462  3219 net.cpp:86] Creating Layer conv1
I0428 20:27:47.252466  3219 net.cpp:408] conv1 <- pool0
I0428 20:27:47.252472  3219 net.cpp:382] conv1 -> conv1
I0428 20:27:47.254416  3219 net.cpp:124] Setting up conv1
I0428 20:27:47.254431  3219 net.cpp:131] Top shape: 100 5 8 8 (32000)
I0428 20:27:47.254434  3219 net.cpp:139] Memory required for data: 29242800
I0428 20:27:47.254461  3219 layer_factory.hpp:77] Creating layer pool1
I0428 20:27:47.254473  3219 net.cpp:86] Creating Layer pool1
I0428 20:27:47.254477  3219 net.cpp:408] pool1 <- conv1
I0428 20:27:47.254483  3219 net.cpp:382] pool1 -> pool1
I0428 20:27:47.254537  3219 net.cpp:124] Setting up pool1
I0428 20:27:47.254544  3219 net.cpp:131] Top shape: 100 5 4 4 (8000)
I0428 20:27:47.254546  3219 net.cpp:139] Memory required for data: 29274800
I0428 20:27:47.254549  3219 layer_factory.hpp:77] Creating layer ip1
I0428 20:27:47.254555  3219 net.cpp:86] Creating Layer ip1
I0428 20:27:47.254559  3219 net.cpp:408] ip1 <- pool1
I0428 20:27:47.254564  3219 net.cpp:382] ip1 -> ip1
I0428 20:27:47.254667  3219 net.cpp:124] Setting up ip1
I0428 20:27:47.254674  3219 net.cpp:131] Top shape: 100 10 (1000)
I0428 20:27:47.254688  3219 net.cpp:139] Memory required for data: 29278800
I0428 20:27:47.254695  3219 layer_factory.hpp:77] Creating layer relu1
I0428 20:27:47.254703  3219 net.cpp:86] Creating Layer relu1
I0428 20:27:47.254706  3219 net.cpp:408] relu1 <- ip1
I0428 20:27:47.254712  3219 net.cpp:369] relu1 -> ip1 (in-place)
I0428 20:27:47.254907  3219 net.cpp:124] Setting up relu1
I0428 20:27:47.254917  3219 net.cpp:131] Top shape: 100 10 (1000)
I0428 20:27:47.254920  3219 net.cpp:139] Memory required for data: 29282800
I0428 20:27:47.254923  3219 layer_factory.hpp:77] Creating layer ip2
I0428 20:27:47.254931  3219 net.cpp:86] Creating Layer ip2
I0428 20:27:47.254935  3219 net.cpp:408] ip2 <- ip1
I0428 20:27:47.254940  3219 net.cpp:382] ip2 -> ip2
I0428 20:27:47.255054  3219 net.cpp:124] Setting up ip2
I0428 20:27:47.255062  3219 net.cpp:131] Top shape: 100 10 (1000)
I0428 20:27:47.255065  3219 net.cpp:139] Memory required for data: 29286800
I0428 20:27:47.255070  3219 layer_factory.hpp:77] Creating layer relu2
I0428 20:27:47.255074  3219 net.cpp:86] Creating Layer relu2
I0428 20:27:47.255079  3219 net.cpp:408] relu2 <- ip2
I0428 20:27:47.255084  3219 net.cpp:369] relu2 -> ip2 (in-place)
I0428 20:27:47.255357  3219 net.cpp:124] Setting up relu2
I0428 20:27:47.255373  3219 net.cpp:131] Top shape: 100 10 (1000)
I0428 20:27:47.255375  3219 net.cpp:139] Memory required for data: 29290800
I0428 20:27:47.255379  3219 layer_factory.hpp:77] Creating layer ip3
I0428 20:27:47.255385  3219 net.cpp:86] Creating Layer ip3
I0428 20:27:47.255388  3219 net.cpp:408] ip3 <- ip2
I0428 20:27:47.255395  3219 net.cpp:382] ip3 -> ip3
I0428 20:27:47.255517  3219 net.cpp:124] Setting up ip3
I0428 20:27:47.255532  3219 net.cpp:131] Top shape: 100 10 (1000)
I0428 20:27:47.255549  3219 net.cpp:139] Memory required for data: 29294800
I0428 20:27:47.255558  3219 layer_factory.hpp:77] Creating layer relu3
I0428 20:27:47.255564  3219 net.cpp:86] Creating Layer relu3
I0428 20:27:47.255568  3219 net.cpp:408] relu3 <- ip3
I0428 20:27:47.255573  3219 net.cpp:369] relu3 -> ip3 (in-place)
I0428 20:27:47.256381  3219 net.cpp:124] Setting up relu3
I0428 20:27:47.256393  3219 net.cpp:131] Top shape: 100 10 (1000)
I0428 20:27:47.256397  3219 net.cpp:139] Memory required for data: 29298800
I0428 20:27:47.256399  3219 layer_factory.hpp:77] Creating layer ip3_relu3_0_split
I0428 20:27:47.256405  3219 net.cpp:86] Creating Layer ip3_relu3_0_split
I0428 20:27:47.256409  3219 net.cpp:408] ip3_relu3_0_split <- ip3
I0428 20:27:47.256413  3219 net.cpp:382] ip3_relu3_0_split -> ip3_relu3_0_split_0
I0428 20:27:47.256419  3219 net.cpp:382] ip3_relu3_0_split -> ip3_relu3_0_split_1
I0428 20:27:47.256482  3219 net.cpp:124] Setting up ip3_relu3_0_split
I0428 20:27:47.256492  3219 net.cpp:131] Top shape: 100 10 (1000)
I0428 20:27:47.256498  3219 net.cpp:131] Top shape: 100 10 (1000)
I0428 20:27:47.256503  3219 net.cpp:139] Memory required for data: 29306800
I0428 20:27:47.256508  3219 layer_factory.hpp:77] Creating layer accuracy
I0428 20:27:47.256517  3219 net.cpp:86] Creating Layer accuracy
I0428 20:27:47.256522  3219 net.cpp:408] accuracy <- ip3_relu3_0_split_0
I0428 20:27:47.256539  3219 net.cpp:408] accuracy <- label_mnist_1_split_0
I0428 20:27:47.256548  3219 net.cpp:382] accuracy -> accuracy
…
