…
I0428 20:31:15.699784  3925 net.cpp:296] The NetState phase (0) differed from the phase (1) specified by a rule in layer mnist
I0428 20:31:15.699813  3925 net.cpp:296] The NetState phase (0) differed from the phase (1) specified by a rule in layer accuracy
I0428 20:31:15.699889  3925 net.cpp:53] Initializing net from parameters: 
name: "LeNet"
state {
  phase: TRAIN
  level: 0
  stage: ""
}
layer {
  name: "mnist"
  type: "Data"
  top: "data"
  top: "label"
  include {
    phase: TRAIN
  }
  transform_param {
    scale: 0.00390625
  }
  data_param {
    source: "examples/mnist/mnist_train_lmdb"
    batch_size: 64
    backend: LMDB
  }
}
layer {
  name: "conv0"
  type: "Convolution"
  bottom: "data"
  top: "conv0"
  param {
    lr_mult: 1
  }
  param {
    lr_mult: 2
  }
  convolution_param {
    num_output: 100
    kernel_size: 5
    stride: 1
    weight_filler {
      type: "xavier"
    }
    bias_filler {
      type: "constant"
    }
  }
}
layer {
  name: "pool0"
  type: "Pooling"
  bottom: "conv0"
  top: "pool0"
  pooling_param {
    pool: MAX
    kernel_size: 2
    stride: 2
  }
}
layer {
  name: "conv1"
  type: "Convolution"
  bottom: "pool0"
  top: "conv1"
  param {
    lr_mult: 1
  }
  param {
    lr_mult: 2
  }
  convolution_param {
    num_output: 10
    kernel_size: 5
    stride: 1
    weight_filler {
      type: "xavier"
    }
    bias_filler {
      type: "constant"
    }
  }
}
layer {
  name: "pool1"
  type: "Pooling"
  bottom: "conv1"
  top: "pool1"
  pooling_param {
    pool: MAX
    kernel_size: 2
    stride: 2
  }
}
layer {
  name: "ip1"
  type: "InnerProduct"
  bottom: "pool1"
  top: "ip1"
  param {
    lr_mult: 1
  }
  param {
    lr_mult: 2
  }
  inner_product_param {
    num_output: 50
    weight_filler {
      type: "xavier"
    }
    bias_filler {
      type: "constant"
    }
  }
}
layer {
  name: "relu1"
  type: "ReLU"
  bottom: "ip1"
  top: "ip1"
}
layer {
  name: "ip2"
  type: "InnerProduct"
  bottom: "ip1"
  top: "ip2"
  param {
    lr_mult: 1
  }
  param {
    lr_mult: 2
  }
  inner_product_param {
    num_output: 10
    weight_filler {
      type: "xavier"
    }
    bias_filler {
      type: "constant"
    }
  }
}
layer {
  name: "relu2"
  type: "ReLU"
  bottom: "ip2"
  top: "ip2"
}
layer {
  name: "ip3"
  type: "InnerProduct"
  bottom: "ip2"
  top: "ip3"
  param {
    lr_mult: 1
  }
  param {
    lr_mult: 2
  }
  inner_product_param {
    num_output: 10
    weight_filler {
      type: "xavier"
    }
    bias_filler {
      type: "constant"
    }
  }
}
layer {
  name: "relu3"
  type: "ReLU"
  bottom: "ip3"
  top: "ip3"
}
layer {
  name: "loss"
  type: "SoftmaxWithLoss"
  bottom: "ip3"
  bottom: "label"
  top: "loss"
}
I0428 20:31:15.699949  3925 layer_factory.hpp:77] Creating layer mnist
I0428 20:31:15.700042  3925 db_lmdb.cpp:35] Opened lmdb examples/mnist/mnist_train_lmdb
I0428 20:31:15.700062  3925 net.cpp:86] Creating Layer mnist
I0428 20:31:15.700069  3925 net.cpp:382] mnist -> data
I0428 20:31:15.700088  3925 net.cpp:382] mnist -> label
I0428 20:31:15.701164  3925 data_layer.cpp:45] output data size: 64,1,28,28
I0428 20:31:15.703415  3925 net.cpp:124] Setting up mnist
I0428 20:31:15.703446  3925 net.cpp:131] Top shape: 64 1 28 28 (50176)
I0428 20:31:15.703451  3925 net.cpp:131] Top shape: 64 (64)
I0428 20:31:15.703454  3925 net.cpp:139] Memory required for data: 200960
I0428 20:31:15.703460  3925 layer_factory.hpp:77] Creating layer conv0
I0428 20:31:15.703474  3925 net.cpp:86] Creating Layer conv0
I0428 20:31:15.703492  3925 net.cpp:408] conv0 <- data
I0428 20:31:15.703517  3925 net.cpp:382] conv0 -> conv0
I0428 20:31:15.933243  3925 net.cpp:124] Setting up conv0
I0428 20:31:15.933269  3925 net.cpp:131] Top shape: 64 100 24 24 (3686400)
I0428 20:31:15.933272  3925 net.cpp:139] Memory required for data: 14946560
I0428 20:31:15.933285  3925 layer_factory.hpp:77] Creating layer pool0
I0428 20:31:15.933297  3925 net.cpp:86] Creating Layer pool0
I0428 20:31:15.933301  3925 net.cpp:408] pool0 <- conv0
I0428 20:31:15.933306  3925 net.cpp:382] pool0 -> pool0
I0428 20:31:15.933367  3925 net.cpp:124] Setting up pool0
I0428 20:31:15.933372  3925 net.cpp:131] Top shape: 64 100 12 12 (921600)
I0428 20:31:15.933374  3925 net.cpp:139] Memory required for data: 18632960
I0428 20:31:15.933377  3925 layer_factory.hpp:77] Creating layer conv1
I0428 20:31:15.933388  3925 net.cpp:86] Creating Layer conv1
I0428 20:31:15.933390  3925 net.cpp:408] conv1 <- pool0
I0428 20:31:15.933395  3925 net.cpp:382] conv1 -> conv1
I0428 20:31:15.935406  3925 net.cpp:124] Setting up conv1
I0428 20:31:15.935436  3925 net.cpp:131] Top shape: 64 10 8 8 (40960)
I0428 20:31:15.935439  3925 net.cpp:139] Memory required for data: 18796800
I0428 20:31:15.935449  3925 layer_factory.hpp:77] Creating layer pool1
I0428 20:31:15.935458  3925 net.cpp:86] Creating Layer pool1
I0428 20:31:15.935461  3925 net.cpp:408] pool1 <- conv1
I0428 20:31:15.935467  3925 net.cpp:382] pool1 -> pool1
I0428 20:31:15.935504  3925 net.cpp:124] Setting up pool1
I0428 20:31:15.935510  3925 net.cpp:131] Top shape: 64 10 4 4 (10240)
I0428 20:31:15.935513  3925 net.cpp:139] Memory required for data: 18837760
I0428 20:31:15.935516  3925 layer_factory.hpp:77] Creating layer ip1
I0428 20:31:15.935528  3925 net.cpp:86] Creating Layer ip1
I0428 20:31:15.935530  3925 net.cpp:408] ip1 <- pool1
I0428 20:31:15.935535  3925 net.cpp:382] ip1 -> ip1
I0428 20:31:15.936609  3925 net.cpp:124] Setting up ip1
I0428 20:31:15.936620  3925 net.cpp:131] Top shape: 64 50 (3200)
I0428 20:31:15.936638  3925 net.cpp:139] Memory required for data: 18850560
I0428 20:31:15.936646  3925 layer_factory.hpp:77] Creating layer relu1
I0428 20:31:15.936652  3925 net.cpp:86] Creating Layer relu1
I0428 20:31:15.936656  3925 net.cpp:408] relu1 <- ip1
I0428 20:31:15.936662  3925 net.cpp:369] relu1 -> ip1 (in-place)
I0428 20:31:15.936859  3925 net.cpp:124] Setting up relu1
I0428 20:31:15.936869  3925 net.cpp:131] Top shape: 64 50 (3200)
I0428 20:31:15.936872  3925 net.cpp:139] Memory required for data: 18863360
I0428 20:31:15.936877  3925 layer_factory.hpp:77] Creating layer ip2
I0428 20:31:15.936883  3925 net.cpp:86] Creating Layer ip2
I0428 20:31:15.936887  3925 net.cpp:408] ip2 <- ip1
I0428 20:31:15.936892  3925 net.cpp:382] ip2 -> ip2
I0428 20:31:15.936993  3925 net.cpp:124] Setting up ip2
I0428 20:31:15.937000  3925 net.cpp:131] Top shape: 64 10 (640)
I0428 20:31:15.937003  3925 net.cpp:139] Memory required for data: 18865920
I0428 20:31:15.937010  3925 layer_factory.hpp:77] Creating layer relu2
I0428 20:31:15.937016  3925 net.cpp:86] Creating Layer relu2
I0428 20:31:15.937021  3925 net.cpp:408] relu2 <- ip2
I0428 20:31:15.937024  3925 net.cpp:369] relu2 -> ip2 (in-place)
I0428 20:31:15.937880  3925 net.cpp:124] Setting up relu2
I0428 20:31:15.937908  3925 net.cpp:131] Top shape: 64 10 (640)
I0428 20:31:15.937911  3925 net.cpp:139] Memory required for data: 18868480
I0428 20:31:15.937914  3925 layer_factory.hpp:77] Creating layer ip3
I0428 20:31:15.937922  3925 net.cpp:86] Creating Layer ip3
I0428 20:31:15.937927  3925 net.cpp:408] ip3 <- ip2
I0428 20:31:15.937932  3925 net.cpp:382] ip3 -> ip3
I0428 20:31:15.938047  3925 net.cpp:124] Setting up ip3
I0428 20:31:15.938055  3925 net.cpp:131] Top shape: 64 10 (640)
I0428 20:31:15.938057  3925 net.cpp:139] Memory required for data: 18871040
I0428 20:31:15.938066  3925 layer_factory.hpp:77] Creating layer relu3
I0428 20:31:15.938071  3925 net.cpp:86] Creating Layer relu3
I0428 20:31:15.938074  3925 net.cpp:408] relu3 <- ip3
I0428 20:31:15.938078  3925 net.cpp:369] relu3 -> ip3 (in-place)
I0428 20:31:15.938261  3925 net.cpp:124] Setting up relu3
I0428 20:31:15.938268  3925 net.cpp:131] Top shape: 64 10 (640)
I0428 20:31:15.938271  3925 net.cpp:139] Memory required for data: 18873600
I0428 20:31:15.938274  3925 layer_factory.hpp:77] Creating layer loss
I0428 20:31:15.938279  3925 net.cpp:86] Creating Layer loss
I0428 20:31:15.938282  3925 net.cpp:408] loss <- ip3
I0428 20:31:15.938285  3925 net.cpp:408] loss <- label
I0428 20:31:15.938292  3925 net.cpp:382] loss -> loss
I0428 20:31:15.938323  3925 layer_factory.hpp:77] Creating layer loss
…
I0428 20:31:15.939041  3925 solver.cpp:173] Creating test net (#0) specified by net file: ECE595/mnist/train_test/var_everything2/lenet_train_test1552.prototxt
I0428 20:31:15.939098  3925 net.cpp:296] The NetState phase (1) differed from the phase (0) specified by a rule in layer mnist
I0428 20:31:15.939190  3925 net.cpp:53] Initializing net from parameters: 
name: "LeNet"
state {
  phase: TEST
}
layer {
  name: "mnist"
  type: "Data"
  top: "data"
  top: "label"
  include {
    phase: TEST
  }
  transform_param {
    scale: 0.00390625
  }
  data_param {
    source: "examples/mnist/mnist_test_lmdb"
    batch_size: 100
    backend: LMDB
  }
}
layer {
  name: "conv0"
  type: "Convolution"
  bottom: "data"
  top: "conv0"
  param {
    lr_mult: 1
  }
  param {
    lr_mult: 2
  }
  convolution_param {
    num_output: 100
    kernel_size: 5
    stride: 1
    weight_filler {
      type: "xavier"
    }
    bias_filler {
      type: "constant"
    }
  }
}
layer {
  name: "pool0"
  type: "Pooling"
  bottom: "conv0"
  top: "pool0"
  pooling_param {
    pool: MAX
    kernel_size: 2
    stride: 2
  }
}
layer {
  name: "conv1"
  type: "Convolution"
  bottom: "pool0"
  top: "conv1"
  param {
    lr_mult: 1
  }
  param {
    lr_mult: 2
  }
  convolution_param {
    num_output: 10
    kernel_size: 5
    stride: 1
    weight_filler {
      type: "xavier"
    }
    bias_filler {
      type: "constant"
    }
  }
}
layer {
  name: "pool1"
  type: "Pooling"
  bottom: "conv1"
  top: "pool1"
  pooling_param {
    pool: MAX
    kernel_size: 2
    stride: 2
  }
}
layer {
  name: "ip1"
  type: "InnerProduct"
  bottom: "pool1"
  top: "ip1"
  param {
    lr_mult: 1
  }
  param {
    lr_mult: 2
  }
  inner_product_param {
    num_output: 50
    weight_filler {
      type: "xavier"
    }
    bias_filler {
      type: "constant"
    }
  }
}
layer {
  name: "relu1"
  type: "ReLU"
  bottom: "ip1"
  top: "ip1"
}
layer {
  name: "ip2"
  type: "InnerProduct"
  bottom: "ip1"
  top: "ip2"
  param {
    lr_mult: 1
  }
  param {
    lr_mult: 2
  }
  inner_product_param {
    num_output: 10
    weight_filler {
      type: "xavier"
    }
    bias_filler {
      type: "constant"
    }
  }
}
layer {
  name: "relu2"
  type: "ReLU"
  bottom: "ip2"
  top: "ip2"
}
layer {
  name: "ip3"
  type: "InnerProduct"
  bottom: "ip2"
  top: "ip3"
  param {
    lr_mult: 1
  }
  param {
    lr_mult: 2
  }
  inner_product_param {
    num_output: 10
    weight_filler {
      type: "xavier"
    }
    bias_filler {
      type: "constant"
    }
  }
}
layer {
  name: "relu3"
  type: "ReLU"
  bottom: "ip3"
  top: "ip3"
}
layer {
  name: "accuracy"
  type: "Accuracy"
  bottom: "ip3"
  bottom: "label"
  top: "accuracy"
  include {
    phase: TEST
  }
}
layer {
  name: "loss"
  type: "SoftmaxWithLoss"
  bottom: "ip3"
  bottom: "label"
  top: "loss"
}
I0428 20:31:15.939271  3925 layer_factory.hpp:77] Creating layer mnist
I0428 20:31:15.939311  3925 db_lmdb.cpp:35] Opened lmdb examples/mnist/mnist_test_lmdb
I0428 20:31:15.939323  3925 net.cpp:86] Creating Layer mnist
I0428 20:31:15.939329  3925 net.cpp:382] mnist -> data
I0428 20:31:15.939337  3925 net.cpp:382] mnist -> label
I0428 20:31:15.939471  3925 data_layer.cpp:45] output data size: 100,1,28,28
I0428 20:31:15.941522  3925 net.cpp:124] Setting up mnist
I0428 20:31:15.941567  3925 net.cpp:131] Top shape: 100 1 28 28 (78400)
I0428 20:31:15.941573  3925 net.cpp:131] Top shape: 100 (100)
I0428 20:31:15.941576  3925 net.cpp:139] Memory required for data: 314000
I0428 20:31:15.941579  3925 layer_factory.hpp:77] Creating layer label_mnist_1_split
I0428 20:31:15.941618  3925 net.cpp:86] Creating Layer label_mnist_1_split
I0428 20:31:15.941623  3925 net.cpp:408] label_mnist_1_split <- label
I0428 20:31:15.941628  3925 net.cpp:382] label_mnist_1_split -> label_mnist_1_split_0
I0428 20:31:15.941635  3925 net.cpp:382] label_mnist_1_split -> label_mnist_1_split_1
I0428 20:31:15.941684  3925 net.cpp:124] Setting up label_mnist_1_split
I0428 20:31:15.941690  3925 net.cpp:131] Top shape: 100 (100)
I0428 20:31:15.941694  3925 net.cpp:131] Top shape: 100 (100)
I0428 20:31:15.941697  3925 net.cpp:139] Memory required for data: 314800
I0428 20:31:15.941700  3925 layer_factory.hpp:77] Creating layer conv0
I0428 20:31:15.941710  3925 net.cpp:86] Creating Layer conv0
I0428 20:31:15.941714  3925 net.cpp:408] conv0 <- data
I0428 20:31:15.941720  3925 net.cpp:382] conv0 -> conv0
I0428 20:31:15.943428  3925 net.cpp:124] Setting up conv0
I0428 20:31:15.943441  3925 net.cpp:131] Top shape: 100 100 24 24 (5760000)
I0428 20:31:15.943460  3925 net.cpp:139] Memory required for data: 23354800
I0428 20:31:15.943470  3925 layer_factory.hpp:77] Creating layer pool0
I0428 20:31:15.943478  3925 net.cpp:86] Creating Layer pool0
I0428 20:31:15.943481  3925 net.cpp:408] pool0 <- conv0
I0428 20:31:15.943485  3925 net.cpp:382] pool0 -> pool0
I0428 20:31:15.943523  3925 net.cpp:124] Setting up pool0
I0428 20:31:15.943528  3925 net.cpp:131] Top shape: 100 100 12 12 (1440000)
I0428 20:31:15.943531  3925 net.cpp:139] Memory required for data: 29114800
I0428 20:31:15.943533  3925 layer_factory.hpp:77] Creating layer conv1
I0428 20:31:15.943542  3925 net.cpp:86] Creating Layer conv1
I0428 20:31:15.943547  3925 net.cpp:408] conv1 <- pool0
I0428 20:31:15.943552  3925 net.cpp:382] conv1 -> conv1
I0428 20:31:15.945394  3925 net.cpp:124] Setting up conv1
I0428 20:31:15.945423  3925 net.cpp:131] Top shape: 100 10 8 8 (64000)
I0428 20:31:15.945427  3925 net.cpp:139] Memory required for data: 29370800
I0428 20:31:15.945437  3925 layer_factory.hpp:77] Creating layer pool1
I0428 20:31:15.945446  3925 net.cpp:86] Creating Layer pool1
I0428 20:31:15.945449  3925 net.cpp:408] pool1 <- conv1
I0428 20:31:15.945456  3925 net.cpp:382] pool1 -> pool1
I0428 20:31:15.945509  3925 net.cpp:124] Setting up pool1
I0428 20:31:15.945514  3925 net.cpp:131] Top shape: 100 10 4 4 (16000)
I0428 20:31:15.945518  3925 net.cpp:139] Memory required for data: 29434800
I0428 20:31:15.945520  3925 layer_factory.hpp:77] Creating layer ip1
I0428 20:31:15.945528  3925 net.cpp:86] Creating Layer ip1
I0428 20:31:15.945531  3925 net.cpp:408] ip1 <- pool1
I0428 20:31:15.945536  3925 net.cpp:382] ip1 -> ip1
I0428 20:31:15.945684  3925 net.cpp:124] Setting up ip1
I0428 20:31:15.945703  3925 net.cpp:131] Top shape: 100 50 (5000)
I0428 20:31:15.945706  3925 net.cpp:139] Memory required for data: 29454800
I0428 20:31:15.945714  3925 layer_factory.hpp:77] Creating layer relu1
I0428 20:31:15.945721  3925 net.cpp:86] Creating Layer relu1
I0428 20:31:15.945724  3925 net.cpp:408] relu1 <- ip1
I0428 20:31:15.945729  3925 net.cpp:369] relu1 -> ip1 (in-place)
I0428 20:31:15.945893  3925 net.cpp:124] Setting up relu1
I0428 20:31:15.945900  3925 net.cpp:131] Top shape: 100 50 (5000)
I0428 20:31:15.945904  3925 net.cpp:139] Memory required for data: 29474800
I0428 20:31:15.945907  3925 layer_factory.hpp:77] Creating layer ip2
I0428 20:31:15.945915  3925 net.cpp:86] Creating Layer ip2
I0428 20:31:15.945919  3925 net.cpp:408] ip2 <- ip1
I0428 20:31:15.945924  3925 net.cpp:382] ip2 -> ip2
I0428 20:31:15.946030  3925 net.cpp:124] Setting up ip2
I0428 20:31:15.946038  3925 net.cpp:131] Top shape: 100 10 (1000)
I0428 20:31:15.946040  3925 net.cpp:139] Memory required for data: 29478800
I0428 20:31:15.946048  3925 layer_factory.hpp:77] Creating layer relu2
I0428 20:31:15.946051  3925 net.cpp:86] Creating Layer relu2
I0428 20:31:15.946055  3925 net.cpp:408] relu2 <- ip2
I0428 20:31:15.946059  3925 net.cpp:369] relu2 -> ip2 (in-place)
I0428 20:31:15.946292  3925 net.cpp:124] Setting up relu2
I0428 20:31:15.946301  3925 net.cpp:131] Top shape: 100 10 (1000)
I0428 20:31:15.946305  3925 net.cpp:139] Memory required for data: 29482800
I0428 20:31:15.946308  3925 layer_factory.hpp:77] Creating layer ip3
I0428 20:31:15.946313  3925 net.cpp:86] Creating Layer ip3
I0428 20:31:15.946316  3925 net.cpp:408] ip3 <- ip2
I0428 20:31:15.946322  3925 net.cpp:382] ip3 -> ip3
I0428 20:31:15.946472  3925 net.cpp:124] Setting up ip3
I0428 20:31:15.946480  3925 net.cpp:131] Top shape: 100 10 (1000)
I0428 20:31:15.946483  3925 net.cpp:139] Memory required for data: 29486800
I0428 20:31:15.946497  3925 layer_factory.hpp:77] Creating layer relu3
I0428 20:31:15.946502  3925 net.cpp:86] Creating Layer relu3
I0428 20:31:15.946506  3925 net.cpp:408] relu3 <- ip3
I0428 20:31:15.946511  3925 net.cpp:369] relu3 -> ip3 (in-place)
I0428 20:31:15.947295  3925 net.cpp:124] Setting up relu3
I0428 20:31:15.947309  3925 net.cpp:131] Top shape: 100 10 (1000)
I0428 20:31:15.947325  3925 net.cpp:139] Memory required for data: 29490800
I0428 20:31:15.947329  3925 layer_factory.hpp:77] Creating layer ip3_relu3_0_split
I0428 20:31:15.947350  3925 net.cpp:86] Creating Layer ip3_relu3_0_split
I0428 20:31:15.947352  3925 net.cpp:408] ip3_relu3_0_split <- ip3
I0428 20:31:15.947358  3925 net.cpp:382] ip3_relu3_0_split -> ip3_relu3_0_split_0
I0428 20:31:15.947365  3925 net.cpp:382] ip3_relu3_0_split -> ip3_relu3_0_split_1
I0428 20:31:15.947407  3925 net.cpp:124] Setting up ip3_relu3_0_split
I0428 20:31:15.947412  3925 net.cpp:131] Top shape: 100 10 (1000)
I0428 20:31:15.947415  3925 net.cpp:131] Top shape: 100 10 (1000)
I0428 20:31:15.947417  3925 net.cpp:139] Memory required for data: 29498800
I0428 20:31:15.947420  3925 layer_factory.hpp:77] Creating layer accuracy
I0428 20:31:15.947427  3925 net.cpp:86] Creating Layer accuracy
I0428 20:31:15.947429  3925 net.cpp:408] accuracy <- ip3_relu3_0_split_0
I0428 20:31:15.947433  3925 net.cpp:408] accuracy <- label_mnist_1_split_0
I0428 20:31:15.947438  3925 net.cpp:382] accuracy -> accuracy
…
