…
I0428 19:57:59.648041 28861 net.cpp:296] The NetState phase (0) differed from the phase (1) specified by a rule in layer mnist
I0428 19:57:59.648057 28861 net.cpp:296] The NetState phase (0) differed from the phase (1) specified by a rule in layer accuracy
I0428 19:57:59.648135 28861 net.cpp:53] Initializing net from parameters: 
name: "LeNet"
state {
  phase: TRAIN
  level: 0
  stage: ""
}
layer {
  name: "mnist"
  type: "Data"
  top: "data"
  top: "label"
  include {
    phase: TRAIN
  }
  transform_param {
    scale: 0.00390625
  }
  data_param {
    source: "examples/mnist/mnist_train_lmdb"
    batch_size: 64
    backend: LMDB
  }
}
layer {
  name: "conv0"
  type: "Convolution"
  bottom: "data"
  top: "conv0"
  param {
    lr_mult: 1
  }
  param {
    lr_mult: 2
  }
  convolution_param {
    num_output: 10
    kernel_size: 5
    stride: 1
    weight_filler {
      type: "xavier"
    }
    bias_filler {
      type: "constant"
    }
  }
}
layer {
  name: "pool0"
  type: "Pooling"
  bottom: "conv0"
  top: "pool0"
  pooling_param {
    pool: MAX
    kernel_size: 2
    stride: 2
  }
}
layer {
  name: "conv1"
  type: "Convolution"
  bottom: "pool0"
  top: "conv1"
  param {
    lr_mult: 1
  }
  param {
    lr_mult: 2
  }
  convolution_param {
    num_output: 5
    kernel_size: 5
    stride: 1
    weight_filler {
      type: "xavier"
    }
    bias_filler {
      type: "constant"
    }
  }
}
layer {
  name: "pool1"
  type: "Pooling"
  bottom: "conv1"
  top: "pool1"
  pooling_param {
    pool: MAX
    kernel_size: 2
    stride: 2
  }
}
layer {
  name: "ip1"
  type: "InnerProduct"
  bottom: "pool1"
  top: "ip1"
  param {
    lr_mult: 1
  }
  param {
    lr_mult: 2
  }
  inner_product_param {
    num_output: 25
    weight_filler {
      type: "xavier"
    }
    bias_filler {
      type: "constant"
    }
  }
}
layer {
  name: "relu1"
  type: "ReLU"
  bottom: "ip1"
  top: "ip1"
}
layer {
  name: "ip2"
  type: "InnerProduct"
  bottom: "ip1"
  top: "ip2"
  param {
    lr_mult: 1
  }
  param {
    lr_mult: 2
  }
  inner_product_param {
    num_output: 25
    weight_filler {
      type: "xavier"
    }
    bias_filler {
      type: "constant"
    }
  }
}
layer {
  name: "relu2"
  type: "ReLU"
  bottom: "ip2"
  top: "ip2"
}
layer {
  name: "ip3"
  type: "InnerProduct"
  bottom: "ip2"
  top: "ip3"
  param {
    lr_mult: 1
  }
  param {
    lr_mult: 2
  }
  inner_product_param {
    num_output: 10
    weight_filler {
      type: "xavier"
    }
    bias_filler {
      type: "constant"
    }
  }
}
layer {
  name: "relu3"
  type: "ReLU"
  bottom: "ip3"
  top: "ip3"
}
layer {
  name: "loss"
  type: "SoftmaxWithLoss"
  bottom: "ip3"
  bottom: "label"
  top: "loss"
}
I0428 19:57:59.648214 28861 layer_factory.hpp:77] Creating layer mnist
I0428 19:57:59.648296 28861 db_lmdb.cpp:35] Opened lmdb examples/mnist/mnist_train_lmdb
I0428 19:57:59.648315 28861 net.cpp:86] Creating Layer mnist
I0428 19:57:59.648324 28861 net.cpp:382] mnist -> data
I0428 19:57:59.648341 28861 net.cpp:382] mnist -> label
I0428 19:57:59.649471 28861 data_layer.cpp:45] output data size: 64,1,28,28
I0428 19:57:59.651669 28861 net.cpp:124] Setting up mnist
I0428 19:57:59.651682 28861 net.cpp:131] Top shape: 64 1 28 28 (50176)
I0428 19:57:59.651687 28861 net.cpp:131] Top shape: 64 (64)
I0428 19:57:59.651690 28861 net.cpp:139] Memory required for data: 200960
I0428 19:57:59.651695 28861 layer_factory.hpp:77] Creating layer conv0
I0428 19:57:59.651710 28861 net.cpp:86] Creating Layer conv0
I0428 19:57:59.651726 28861 net.cpp:408] conv0 <- data
I0428 19:57:59.651737 28861 net.cpp:382] conv0 -> conv0
I0428 19:57:59.883038 28861 net.cpp:124] Setting up conv0
I0428 19:57:59.883064 28861 net.cpp:131] Top shape: 64 10 24 24 (368640)
I0428 19:57:59.883067 28861 net.cpp:139] Memory required for data: 1675520
I0428 19:57:59.883081 28861 layer_factory.hpp:77] Creating layer pool0
I0428 19:57:59.883093 28861 net.cpp:86] Creating Layer pool0
I0428 19:57:59.883097 28861 net.cpp:408] pool0 <- conv0
I0428 19:57:59.883102 28861 net.cpp:382] pool0 -> pool0
I0428 19:57:59.883159 28861 net.cpp:124] Setting up pool0
I0428 19:57:59.883164 28861 net.cpp:131] Top shape: 64 10 12 12 (92160)
I0428 19:57:59.883167 28861 net.cpp:139] Memory required for data: 2044160
I0428 19:57:59.883170 28861 layer_factory.hpp:77] Creating layer conv1
I0428 19:57:59.883180 28861 net.cpp:86] Creating Layer conv1
I0428 19:57:59.883183 28861 net.cpp:408] conv1 <- pool0
I0428 19:57:59.883188 28861 net.cpp:382] conv1 -> conv1
I0428 19:57:59.885983 28861 net.cpp:124] Setting up conv1
I0428 19:57:59.885998 28861 net.cpp:131] Top shape: 64 5 8 8 (20480)
I0428 19:57:59.886001 28861 net.cpp:139] Memory required for data: 2126080
I0428 19:57:59.886010 28861 layer_factory.hpp:77] Creating layer pool1
I0428 19:57:59.886018 28861 net.cpp:86] Creating Layer pool1
I0428 19:57:59.886020 28861 net.cpp:408] pool1 <- conv1
I0428 19:57:59.886025 28861 net.cpp:382] pool1 -> pool1
I0428 19:57:59.886073 28861 net.cpp:124] Setting up pool1
I0428 19:57:59.886095 28861 net.cpp:131] Top shape: 64 5 4 4 (5120)
I0428 19:57:59.886097 28861 net.cpp:139] Memory required for data: 2146560
I0428 19:57:59.886101 28861 layer_factory.hpp:77] Creating layer ip1
I0428 19:57:59.886107 28861 net.cpp:86] Creating Layer ip1
I0428 19:57:59.886109 28861 net.cpp:408] ip1 <- pool1
I0428 19:57:59.886114 28861 net.cpp:382] ip1 -> ip1
I0428 19:57:59.886219 28861 net.cpp:124] Setting up ip1
I0428 19:57:59.886241 28861 net.cpp:131] Top shape: 64 25 (1600)
I0428 19:57:59.886245 28861 net.cpp:139] Memory required for data: 2152960
I0428 19:57:59.886251 28861 layer_factory.hpp:77] Creating layer relu1
I0428 19:57:59.886256 28861 net.cpp:86] Creating Layer relu1
I0428 19:57:59.886260 28861 net.cpp:408] relu1 <- ip1
I0428 19:57:59.886265 28861 net.cpp:369] relu1 -> ip1 (in-place)
I0428 19:57:59.886421 28861 net.cpp:124] Setting up relu1
I0428 19:57:59.886430 28861 net.cpp:131] Top shape: 64 25 (1600)
I0428 19:57:59.886433 28861 net.cpp:139] Memory required for data: 2159360
I0428 19:57:59.886436 28861 layer_factory.hpp:77] Creating layer ip2
I0428 19:57:59.886442 28861 net.cpp:86] Creating Layer ip2
I0428 19:57:59.886445 28861 net.cpp:408] ip2 <- ip1
I0428 19:57:59.886449 28861 net.cpp:382] ip2 -> ip2
I0428 19:57:59.886555 28861 net.cpp:124] Setting up ip2
I0428 19:57:59.886561 28861 net.cpp:131] Top shape: 64 25 (1600)
I0428 19:57:59.886564 28861 net.cpp:139] Memory required for data: 2165760
I0428 19:57:59.886569 28861 layer_factory.hpp:77] Creating layer relu2
I0428 19:57:59.886574 28861 net.cpp:86] Creating Layer relu2
I0428 19:57:59.886577 28861 net.cpp:408] relu2 <- ip2
I0428 19:57:59.886581 28861 net.cpp:369] relu2 -> ip2 (in-place)
I0428 19:57:59.887354 28861 net.cpp:124] Setting up relu2
I0428 19:57:59.887367 28861 net.cpp:131] Top shape: 64 25 (1600)
I0428 19:57:59.887385 28861 net.cpp:139] Memory required for data: 2172160
I0428 19:57:59.887388 28861 layer_factory.hpp:77] Creating layer ip3
I0428 19:57:59.887395 28861 net.cpp:86] Creating Layer ip3
I0428 19:57:59.887400 28861 net.cpp:408] ip3 <- ip2
I0428 19:57:59.887405 28861 net.cpp:382] ip3 -> ip3
I0428 19:57:59.887513 28861 net.cpp:124] Setting up ip3
I0428 19:57:59.887521 28861 net.cpp:131] Top shape: 64 10 (640)
I0428 19:57:59.887523 28861 net.cpp:139] Memory required for data: 2174720
I0428 19:57:59.887531 28861 layer_factory.hpp:77] Creating layer relu3
I0428 19:57:59.887536 28861 net.cpp:86] Creating Layer relu3
I0428 19:57:59.887538 28861 net.cpp:408] relu3 <- ip3
I0428 19:57:59.887542 28861 net.cpp:369] relu3 -> ip3 (in-place)
I0428 19:57:59.887712 28861 net.cpp:124] Setting up relu3
I0428 19:57:59.887719 28861 net.cpp:131] Top shape: 64 10 (640)
I0428 19:57:59.887722 28861 net.cpp:139] Memory required for data: 2177280
I0428 19:57:59.887725 28861 layer_factory.hpp:77] Creating layer loss
I0428 19:57:59.887732 28861 net.cpp:86] Creating Layer loss
I0428 19:57:59.887734 28861 net.cpp:408] loss <- ip3
I0428 19:57:59.887738 28861 net.cpp:408] loss <- label
I0428 19:57:59.887743 28861 net.cpp:382] loss -> loss
I0428 19:57:59.887760 28861 layer_factory.hpp:77] Creating layer loss
…
I0428 19:57:59.888427 28861 solver.cpp:173] Creating test net (#0) specified by net file: ECE595/mnist/train_test/var_everything2/lenet_train_test805.prototxt
I0428 19:57:59.888453 28861 net.cpp:296] The NetState phase (1) differed from the phase (0) specified by a rule in layer mnist
I0428 19:57:59.888555 28861 net.cpp:53] Initializing net from parameters: 
name: "LeNet"
state {
  phase: TEST
}
layer {
  name: "mnist"
  type: "Data"
  top: "data"
  top: "label"
  include {
    phase: TEST
  }
  transform_param {
    scale: 0.00390625
  }
  data_param {
    source: "examples/mnist/mnist_test_lmdb"
    batch_size: 100
    backend: LMDB
  }
}
layer {
  name: "conv0"
  type: "Convolution"
  bottom: "data"
  top: "conv0"
  param {
    lr_mult: 1
  }
  param {
    lr_mult: 2
  }
  convolution_param {
    num_output: 10
    kernel_size: 5
    stride: 1
    weight_filler {
      type: "xavier"
    }
    bias_filler {
      type: "constant"
    }
  }
}
layer {
  name: "pool0"
  type: "Pooling"
  bottom: "conv0"
  top: "pool0"
  pooling_param {
    pool: MAX
    kernel_size: 2
    stride: 2
  }
}
layer {
  name: "conv1"
  type: "Convolution"
  bottom: "pool0"
  top: "conv1"
  param {
    lr_mult: 1
  }
  param {
    lr_mult: 2
  }
  convolution_param {
    num_output: 5
    kernel_size: 5
    stride: 1
    weight_filler {
      type: "xavier"
    }
    bias_filler {
      type: "constant"
    }
  }
}
layer {
  name: "pool1"
  type: "Pooling"
  bottom: "conv1"
  top: "pool1"
  pooling_param {
    pool: MAX
    kernel_size: 2
    stride: 2
  }
}
layer {
  name: "ip1"
  type: "InnerProduct"
  bottom: "pool1"
  top: "ip1"
  param {
    lr_mult: 1
  }
  param {
    lr_mult: 2
  }
  inner_product_param {
    num_output: 25
    weight_filler {
      type: "xavier"
    }
    bias_filler {
      type: "constant"
    }
  }
}
layer {
  name: "relu1"
  type: "ReLU"
  bottom: "ip1"
  top: "ip1"
}
layer {
  name: "ip2"
  type: "InnerProduct"
  bottom: "ip1"
  top: "ip2"
  param {
    lr_mult: 1
  }
  param {
    lr_mult: 2
  }
  inner_product_param {
    num_output: 25
    weight_filler {
      type: "xavier"
    }
    bias_filler {
      type: "constant"
    }
  }
}
layer {
  name: "relu2"
  type: "ReLU"
  bottom: "ip2"
  top: "ip2"
}
layer {
  name: "ip3"
  type: "InnerProduct"
  bottom: "ip2"
  top: "ip3"
  param {
    lr_mult: 1
  }
  param {
    lr_mult: 2
  }
  inner_product_param {
    num_output: 10
    weight_filler {
      type: "xavier"
    }
    bias_filler {
      type: "constant"
    }
  }
}
layer {
  name: "relu3"
  type: "ReLU"
  bottom: "ip3"
  top: "ip3"
}
layer {
  name: "accuracy"
  type: "Accuracy"
  bottom: "ip3"
  bottom: "label"
  top: "accuracy"
  include {
    phase: TEST
  }
}
layer {
  name: "loss"
  type: "SoftmaxWithLoss"
  bottom: "ip3"
  bottom: "label"
  top: "loss"
}
I0428 19:57:59.888634 28861 layer_factory.hpp:77] Creating layer mnist
I0428 19:57:59.888680 28861 db_lmdb.cpp:35] Opened lmdb examples/mnist/mnist_test_lmdb
I0428 19:57:59.888694 28861 net.cpp:86] Creating Layer mnist
I0428 19:57:59.888698 28861 net.cpp:382] mnist -> data
I0428 19:57:59.888705 28861 net.cpp:382] mnist -> label
I0428 19:57:59.888818 28861 data_layer.cpp:45] output data size: 100,1,28,28
I0428 19:57:59.890826 28861 net.cpp:124] Setting up mnist
I0428 19:57:59.890869 28861 net.cpp:131] Top shape: 100 1 28 28 (78400)
I0428 19:57:59.890877 28861 net.cpp:131] Top shape: 100 (100)
I0428 19:57:59.890879 28861 net.cpp:139] Memory required for data: 314000
I0428 19:57:59.890883 28861 layer_factory.hpp:77] Creating layer label_mnist_1_split
I0428 19:57:59.890915 28861 net.cpp:86] Creating Layer label_mnist_1_split
I0428 19:57:59.890919 28861 net.cpp:408] label_mnist_1_split <- label
I0428 19:57:59.890923 28861 net.cpp:382] label_mnist_1_split -> label_mnist_1_split_0
I0428 19:57:59.890930 28861 net.cpp:382] label_mnist_1_split -> label_mnist_1_split_1
I0428 19:57:59.890976 28861 net.cpp:124] Setting up label_mnist_1_split
I0428 19:57:59.890981 28861 net.cpp:131] Top shape: 100 (100)
I0428 19:57:59.890985 28861 net.cpp:131] Top shape: 100 (100)
I0428 19:57:59.890987 28861 net.cpp:139] Memory required for data: 314800
I0428 19:57:59.890990 28861 layer_factory.hpp:77] Creating layer conv0
I0428 19:57:59.891012 28861 net.cpp:86] Creating Layer conv0
I0428 19:57:59.891016 28861 net.cpp:408] conv0 <- data
I0428 19:57:59.891019 28861 net.cpp:382] conv0 -> conv0
I0428 19:57:59.892743 28861 net.cpp:124] Setting up conv0
I0428 19:57:59.892756 28861 net.cpp:131] Top shape: 100 10 24 24 (576000)
I0428 19:57:59.892760 28861 net.cpp:139] Memory required for data: 2618800
I0428 19:57:59.892791 28861 layer_factory.hpp:77] Creating layer pool0
I0428 19:57:59.892798 28861 net.cpp:86] Creating Layer pool0
I0428 19:57:59.892802 28861 net.cpp:408] pool0 <- conv0
I0428 19:57:59.892807 28861 net.cpp:382] pool0 -> pool0
I0428 19:57:59.892848 28861 net.cpp:124] Setting up pool0
I0428 19:57:59.892855 28861 net.cpp:131] Top shape: 100 10 12 12 (144000)
I0428 19:57:59.892858 28861 net.cpp:139] Memory required for data: 3194800
I0428 19:57:59.892860 28861 layer_factory.hpp:77] Creating layer conv1
I0428 19:57:59.892869 28861 net.cpp:86] Creating Layer conv1
I0428 19:57:59.892873 28861 net.cpp:408] conv1 <- pool0
I0428 19:57:59.892877 28861 net.cpp:382] conv1 -> conv1
I0428 19:57:59.895169 28861 net.cpp:124] Setting up conv1
I0428 19:57:59.895184 28861 net.cpp:131] Top shape: 100 5 8 8 (32000)
I0428 19:57:59.895187 28861 net.cpp:139] Memory required for data: 3322800
I0428 19:57:59.895196 28861 layer_factory.hpp:77] Creating layer pool1
I0428 19:57:59.895220 28861 net.cpp:86] Creating Layer pool1
I0428 19:57:59.895223 28861 net.cpp:408] pool1 <- conv1
I0428 19:57:59.895228 28861 net.cpp:382] pool1 -> pool1
I0428 19:57:59.895283 28861 net.cpp:124] Setting up pool1
I0428 19:57:59.895299 28861 net.cpp:131] Top shape: 100 5 4 4 (8000)
I0428 19:57:59.895303 28861 net.cpp:139] Memory required for data: 3354800
I0428 19:57:59.895305 28861 layer_factory.hpp:77] Creating layer ip1
I0428 19:57:59.895310 28861 net.cpp:86] Creating Layer ip1
I0428 19:57:59.895328 28861 net.cpp:408] ip1 <- pool1
I0428 19:57:59.895334 28861 net.cpp:382] ip1 -> ip1
I0428 19:57:59.895524 28861 net.cpp:124] Setting up ip1
I0428 19:57:59.895530 28861 net.cpp:131] Top shape: 100 25 (2500)
I0428 19:57:59.895543 28861 net.cpp:139] Memory required for data: 3364800
I0428 19:57:59.895550 28861 layer_factory.hpp:77] Creating layer relu1
I0428 19:57:59.895566 28861 net.cpp:86] Creating Layer relu1
I0428 19:57:59.895570 28861 net.cpp:408] relu1 <- ip1
I0428 19:57:59.895576 28861 net.cpp:369] relu1 -> ip1 (in-place)
I0428 19:57:59.895789 28861 net.cpp:124] Setting up relu1
I0428 19:57:59.895799 28861 net.cpp:131] Top shape: 100 25 (2500)
I0428 19:57:59.895802 28861 net.cpp:139] Memory required for data: 3374800
I0428 19:57:59.895805 28861 layer_factory.hpp:77] Creating layer ip2
I0428 19:57:59.895813 28861 net.cpp:86] Creating Layer ip2
I0428 19:57:59.895817 28861 net.cpp:408] ip2 <- ip1
I0428 19:57:59.895822 28861 net.cpp:382] ip2 -> ip2
I0428 19:57:59.895937 28861 net.cpp:124] Setting up ip2
I0428 19:57:59.895943 28861 net.cpp:131] Top shape: 100 25 (2500)
I0428 19:57:59.895947 28861 net.cpp:139] Memory required for data: 3384800
I0428 19:57:59.895952 28861 layer_factory.hpp:77] Creating layer relu2
I0428 19:57:59.895956 28861 net.cpp:86] Creating Layer relu2
I0428 19:57:59.895972 28861 net.cpp:408] relu2 <- ip2
I0428 19:57:59.895977 28861 net.cpp:369] relu2 -> ip2 (in-place)
I0428 19:57:59.896145 28861 net.cpp:124] Setting up relu2
I0428 19:57:59.896152 28861 net.cpp:131] Top shape: 100 25 (2500)
I0428 19:57:59.896155 28861 net.cpp:139] Memory required for data: 3394800
I0428 19:57:59.896158 28861 layer_factory.hpp:77] Creating layer ip3
I0428 19:57:59.896164 28861 net.cpp:86] Creating Layer ip3
I0428 19:57:59.896167 28861 net.cpp:408] ip3 <- ip2
I0428 19:57:59.896173 28861 net.cpp:382] ip3 -> ip3
I0428 19:57:59.896296 28861 net.cpp:124] Setting up ip3
I0428 19:57:59.896304 28861 net.cpp:131] Top shape: 100 10 (1000)
I0428 19:57:59.896307 28861 net.cpp:139] Memory required for data: 3398800
I0428 19:57:59.896316 28861 layer_factory.hpp:77] Creating layer relu3
I0428 19:57:59.896319 28861 net.cpp:86] Creating Layer relu3
I0428 19:57:59.896338 28861 net.cpp:408] relu3 <- ip3
I0428 19:57:59.896342 28861 net.cpp:369] relu3 -> ip3 (in-place)
I0428 19:57:59.897255 28861 net.cpp:124] Setting up relu3
I0428 19:57:59.897267 28861 net.cpp:131] Top shape: 100 10 (1000)
I0428 19:57:59.897271 28861 net.cpp:139] Memory required for data: 3402800
I0428 19:57:59.897274 28861 layer_factory.hpp:77] Creating layer ip3_relu3_0_split
I0428 19:57:59.897280 28861 net.cpp:86] Creating Layer ip3_relu3_0_split
I0428 19:57:59.897284 28861 net.cpp:408] ip3_relu3_0_split <- ip3
I0428 19:57:59.897289 28861 net.cpp:382] ip3_relu3_0_split -> ip3_relu3_0_split_0
I0428 19:57:59.897295 28861 net.cpp:382] ip3_relu3_0_split -> ip3_relu3_0_split_1
I0428 19:57:59.897363 28861 net.cpp:124] Setting up ip3_relu3_0_split
I0428 19:57:59.897377 28861 net.cpp:131] Top shape: 100 10 (1000)
I0428 19:57:59.897382 28861 net.cpp:131] Top shape: 100 10 (1000)
I0428 19:57:59.897389 28861 net.cpp:139] Memory required for data: 3410800
I0428 19:57:59.897392 28861 layer_factory.hpp:77] Creating layer accuracy
I0428 19:57:59.897398 28861 net.cpp:86] Creating Layer accuracy
I0428 19:57:59.897402 28861 net.cpp:408] accuracy <- ip3_relu3_0_split_0
I0428 19:57:59.897410 28861 net.cpp:408] accuracy <- label_mnist_1_split_0
I0428 19:57:59.897415 28861 net.cpp:382] accuracy -> accuracy
…
