…
I0428 19:45:27.882505 25808 net.cpp:296] The NetState phase (0) differed from the phase (1) specified by a rule in layer mnist
I0428 19:45:27.882524 25808 net.cpp:296] The NetState phase (0) differed from the phase (1) specified by a rule in layer accuracy
I0428 19:45:27.882614 25808 net.cpp:53] Initializing net from parameters: 
name: "LeNet"
state {
  phase: TRAIN
  level: 0
  stage: ""
}
layer {
  name: "mnist"
  type: "Data"
  top: "data"
  top: "label"
  include {
    phase: TRAIN
  }
  transform_param {
    scale: 0.00390625
  }
  data_param {
    source: "examples/mnist/mnist_train_lmdb"
    batch_size: 64
    backend: LMDB
  }
}
layer {
  name: "conv0"
  type: "Convolution"
  bottom: "data"
  top: "conv0"
  param {
    lr_mult: 1
  }
  param {
    lr_mult: 2
  }
  convolution_param {
    num_output: 2
    kernel_size: 5
    stride: 1
    weight_filler {
      type: "xavier"
    }
    bias_filler {
      type: "constant"
    }
  }
}
layer {
  name: "pool0"
  type: "Pooling"
  bottom: "conv0"
  top: "pool0"
  pooling_param {
    pool: MAX
    kernel_size: 2
    stride: 2
  }
}
layer {
  name: "conv1"
  type: "Convolution"
  bottom: "pool0"
  top: "conv1"
  param {
    lr_mult: 1
  }
  param {
    lr_mult: 2
  }
  convolution_param {
    num_output: 100
    kernel_size: 5
    stride: 1
    weight_filler {
      type: "xavier"
    }
    bias_filler {
      type: "constant"
    }
  }
}
layer {
  name: "pool1"
  type: "Pooling"
  bottom: "conv1"
  top: "pool1"
  pooling_param {
    pool: MAX
    kernel_size: 2
    stride: 2
  }
}
layer {
  name: "ip1"
  type: "InnerProduct"
  bottom: "pool1"
  top: "ip1"
  param {
    lr_mult: 1
  }
  param {
    lr_mult: 2
  }
  inner_product_param {
    num_output: 10
    weight_filler {
      type: "xavier"
    }
    bias_filler {
      type: "constant"
    }
  }
}
layer {
  name: "relu1"
  type: "ReLU"
  bottom: "ip1"
  top: "ip1"
}
layer {
  name: "ip2"
  type: "InnerProduct"
  bottom: "ip1"
  top: "ip2"
  param {
    lr_mult: 1
  }
  param {
    lr_mult: 2
  }
  inner_product_param {
    num_output: 10
    weight_filler {
      type: "xavier"
    }
    bias_filler {
      type: "constant"
    }
  }
}
layer {
  name: "relu2"
  type: "ReLU"
  bottom: "ip2"
  top: "ip2"
}
layer {
  name: "loss"
  type: "SoftmaxWithLoss"
  bottom: "ip2"
  bottom: "label"
  top: "loss"
}
I0428 19:45:27.882691 25808 layer_factory.hpp:77] Creating layer mnist
I0428 19:45:27.882791 25808 db_lmdb.cpp:35] Opened lmdb examples/mnist/mnist_train_lmdb
I0428 19:45:27.882815 25808 net.cpp:86] Creating Layer mnist
I0428 19:45:27.882823 25808 net.cpp:382] mnist -> data
I0428 19:45:27.882848 25808 net.cpp:382] mnist -> label
I0428 19:45:27.883954 25808 data_layer.cpp:45] output data size: 64,1,28,28
I0428 19:45:27.886417 25808 net.cpp:124] Setting up mnist
I0428 19:45:27.886438 25808 net.cpp:131] Top shape: 64 1 28 28 (50176)
I0428 19:45:27.886445 25808 net.cpp:131] Top shape: 64 (64)
I0428 19:45:27.886448 25808 net.cpp:139] Memory required for data: 200960
I0428 19:45:27.886456 25808 layer_factory.hpp:77] Creating layer conv0
I0428 19:45:27.886472 25808 net.cpp:86] Creating Layer conv0
I0428 19:45:27.886485 25808 net.cpp:408] conv0 <- data
I0428 19:45:27.886497 25808 net.cpp:382] conv0 -> conv0
I0428 19:45:28.169975 25808 net.cpp:124] Setting up conv0
I0428 19:45:28.170002 25808 net.cpp:131] Top shape: 64 2 24 24 (73728)
I0428 19:45:28.170006 25808 net.cpp:139] Memory required for data: 495872
I0428 19:45:28.170040 25808 layer_factory.hpp:77] Creating layer pool0
I0428 19:45:28.170063 25808 net.cpp:86] Creating Layer pool0
I0428 19:45:28.170066 25808 net.cpp:408] pool0 <- conv0
I0428 19:45:28.170073 25808 net.cpp:382] pool0 -> pool0
I0428 19:45:28.170142 25808 net.cpp:124] Setting up pool0
I0428 19:45:28.170150 25808 net.cpp:131] Top shape: 64 2 12 12 (18432)
I0428 19:45:28.170155 25808 net.cpp:139] Memory required for data: 569600
I0428 19:45:28.170157 25808 layer_factory.hpp:77] Creating layer conv1
I0428 19:45:28.170169 25808 net.cpp:86] Creating Layer conv1
I0428 19:45:28.170176 25808 net.cpp:408] conv1 <- pool0
I0428 19:45:28.170181 25808 net.cpp:382] conv1 -> conv1
I0428 19:45:28.172880 25808 net.cpp:124] Setting up conv1
I0428 19:45:28.172895 25808 net.cpp:131] Top shape: 64 100 8 8 (409600)
I0428 19:45:28.172899 25808 net.cpp:139] Memory required for data: 2208000
I0428 19:45:28.172909 25808 layer_factory.hpp:77] Creating layer pool1
I0428 19:45:28.172915 25808 net.cpp:86] Creating Layer pool1
I0428 19:45:28.172919 25808 net.cpp:408] pool1 <- conv1
I0428 19:45:28.172924 25808 net.cpp:382] pool1 -> pool1
I0428 19:45:28.172966 25808 net.cpp:124] Setting up pool1
I0428 19:45:28.172972 25808 net.cpp:131] Top shape: 64 100 4 4 (102400)
I0428 19:45:28.172976 25808 net.cpp:139] Memory required for data: 2617600
I0428 19:45:28.172978 25808 layer_factory.hpp:77] Creating layer ip1
I0428 19:45:28.172986 25808 net.cpp:86] Creating Layer ip1
I0428 19:45:28.172989 25808 net.cpp:408] ip1 <- pool1
I0428 19:45:28.172994 25808 net.cpp:382] ip1 -> ip1
I0428 19:45:28.173173 25808 net.cpp:124] Setting up ip1
I0428 19:45:28.173182 25808 net.cpp:131] Top shape: 64 10 (640)
I0428 19:45:28.173184 25808 net.cpp:139] Memory required for data: 2620160
I0428 19:45:28.173192 25808 layer_factory.hpp:77] Creating layer relu1
I0428 19:45:28.173199 25808 net.cpp:86] Creating Layer relu1
I0428 19:45:28.173203 25808 net.cpp:408] relu1 <- ip1
I0428 19:45:28.173207 25808 net.cpp:369] relu1 -> ip1 (in-place)
I0428 19:45:28.173367 25808 net.cpp:124] Setting up relu1
I0428 19:45:28.173375 25808 net.cpp:131] Top shape: 64 10 (640)
I0428 19:45:28.173378 25808 net.cpp:139] Memory required for data: 2622720
I0428 19:45:28.173382 25808 layer_factory.hpp:77] Creating layer ip2
I0428 19:45:28.173388 25808 net.cpp:86] Creating Layer ip2
I0428 19:45:28.173390 25808 net.cpp:408] ip2 <- ip1
I0428 19:45:28.173395 25808 net.cpp:382] ip2 -> ip2
I0428 19:45:28.173486 25808 net.cpp:124] Setting up ip2
I0428 19:45:28.173492 25808 net.cpp:131] Top shape: 64 10 (640)
I0428 19:45:28.173496 25808 net.cpp:139] Memory required for data: 2625280
I0428 19:45:28.173501 25808 layer_factory.hpp:77] Creating layer relu2
I0428 19:45:28.173507 25808 net.cpp:86] Creating Layer relu2
I0428 19:45:28.173511 25808 net.cpp:408] relu2 <- ip2
I0428 19:45:28.173514 25808 net.cpp:369] relu2 -> ip2 (in-place)
I0428 19:45:28.174249 25808 net.cpp:124] Setting up relu2
I0428 19:45:28.174263 25808 net.cpp:131] Top shape: 64 10 (640)
I0428 19:45:28.174266 25808 net.cpp:139] Memory required for data: 2627840
I0428 19:45:28.174269 25808 layer_factory.hpp:77] Creating layer loss
I0428 19:45:28.174275 25808 net.cpp:86] Creating Layer loss
I0428 19:45:28.174279 25808 net.cpp:408] loss <- ip2
I0428 19:45:28.174283 25808 net.cpp:408] loss <- label
I0428 19:45:28.174289 25808 net.cpp:382] loss -> loss
I0428 19:45:28.174305 25808 layer_factory.hpp:77] Creating layer loss
…
I0428 19:45:28.174903 25808 solver.cpp:173] Creating test net (#0) specified by net file: ECE595/mnist/train_test/var_everything2/lenet_train_test472.prototxt
I0428 19:45:28.174926 25808 net.cpp:296] The NetState phase (1) differed from the phase (0) specified by a rule in layer mnist
I0428 19:45:28.175006 25808 net.cpp:53] Initializing net from parameters: 
name: "LeNet"
state {
  phase: TEST
}
layer {
  name: "mnist"
  type: "Data"
  top: "data"
  top: "label"
  include {
    phase: TEST
  }
  transform_param {
    scale: 0.00390625
  }
  data_param {
    source: "examples/mnist/mnist_test_lmdb"
    batch_size: 100
    backend: LMDB
  }
}
layer {
  name: "conv0"
  type: "Convolution"
  bottom: "data"
  top: "conv0"
  param {
    lr_mult: 1
  }
  param {
    lr_mult: 2
  }
  convolution_param {
    num_output: 2
    kernel_size: 5
    stride: 1
    weight_filler {
      type: "xavier"
    }
    bias_filler {
      type: "constant"
    }
  }
}
layer {
  name: "pool0"
  type: "Pooling"
  bottom: "conv0"
  top: "pool0"
  pooling_param {
    pool: MAX
    kernel_size: 2
    stride: 2
  }
}
layer {
  name: "conv1"
  type: "Convolution"
  bottom: "pool0"
  top: "conv1"
  param {
    lr_mult: 1
  }
  param {
    lr_mult: 2
  }
  convolution_param {
    num_output: 100
    kernel_size: 5
    stride: 1
    weight_filler {
      type: "xavier"
    }
    bias_filler {
      type: "constant"
    }
  }
}
layer {
  name: "pool1"
  type: "Pooling"
  bottom: "conv1"
  top: "pool1"
  pooling_param {
    pool: MAX
    kernel_size: 2
    stride: 2
  }
}
layer {
  name: "ip1"
  type: "InnerProduct"
  bottom: "pool1"
  top: "ip1"
  param {
    lr_mult: 1
  }
  param {
    lr_mult: 2
  }
  inner_product_param {
    num_output: 10
    weight_filler {
      type: "xavier"
    }
    bias_filler {
      type: "constant"
    }
  }
}
layer {
  name: "relu1"
  type: "ReLU"
  bottom: "ip1"
  top: "ip1"
}
layer {
  name: "ip2"
  type: "InnerProduct"
  bottom: "ip1"
  top: "ip2"
  param {
    lr_mult: 1
  }
  param {
    lr_mult: 2
  }
  inner_product_param {
    num_output: 10
    weight_filler {
      type: "xavier"
    }
    bias_filler {
      type: "constant"
    }
  }
}
layer {
  name: "relu2"
  type: "ReLU"
  bottom: "ip2"
  top: "ip2"
}
layer {
  name: "accuracy"
  type: "Accuracy"
  bottom: "ip2"
  bottom: "label"
  top: "accuracy"
  include {
    phase: TEST
  }
}
layer {
  name: "loss"
  type: "SoftmaxWithLoss"
  bottom: "ip2"
  bottom: "label"
  top: "loss"
}
I0428 19:45:28.175068 25808 layer_factory.hpp:77] Creating layer mnist
I0428 19:45:28.175112 25808 db_lmdb.cpp:35] Opened lmdb examples/mnist/mnist_test_lmdb
I0428 19:45:28.175142 25808 net.cpp:86] Creating Layer mnist
I0428 19:45:28.175145 25808 net.cpp:382] mnist -> data
I0428 19:45:28.175153 25808 net.cpp:382] mnist -> label
I0428 19:45:28.175241 25808 data_layer.cpp:45] output data size: 100,1,28,28
I0428 19:45:28.177162 25808 net.cpp:124] Setting up mnist
I0428 19:45:28.177176 25808 net.cpp:131] Top shape: 100 1 28 28 (78400)
I0428 19:45:28.177198 25808 net.cpp:131] Top shape: 100 (100)
I0428 19:45:28.177201 25808 net.cpp:139] Memory required for data: 314000
I0428 19:45:28.177206 25808 layer_factory.hpp:77] Creating layer label_mnist_1_split
I0428 19:45:28.177212 25808 net.cpp:86] Creating Layer label_mnist_1_split
I0428 19:45:28.177217 25808 net.cpp:408] label_mnist_1_split <- label
I0428 19:45:28.177220 25808 net.cpp:382] label_mnist_1_split -> label_mnist_1_split_0
I0428 19:45:28.177227 25808 net.cpp:382] label_mnist_1_split -> label_mnist_1_split_1
I0428 19:45:28.177271 25808 net.cpp:124] Setting up label_mnist_1_split
I0428 19:45:28.177289 25808 net.cpp:131] Top shape: 100 (100)
I0428 19:45:28.177294 25808 net.cpp:131] Top shape: 100 (100)
I0428 19:45:28.177296 25808 net.cpp:139] Memory required for data: 314800
I0428 19:45:28.177300 25808 layer_factory.hpp:77] Creating layer conv0
I0428 19:45:28.177309 25808 net.cpp:86] Creating Layer conv0
I0428 19:45:28.177314 25808 net.cpp:408] conv0 <- data
I0428 19:45:28.177319 25808 net.cpp:382] conv0 -> conv0
I0428 19:45:28.179033 25808 net.cpp:124] Setting up conv0
I0428 19:45:28.179047 25808 net.cpp:131] Top shape: 100 2 24 24 (115200)
I0428 19:45:28.179051 25808 net.cpp:139] Memory required for data: 775600
I0428 19:45:28.179060 25808 layer_factory.hpp:77] Creating layer pool0
I0428 19:45:28.179066 25808 net.cpp:86] Creating Layer pool0
I0428 19:45:28.179070 25808 net.cpp:408] pool0 <- conv0
I0428 19:45:28.179075 25808 net.cpp:382] pool0 -> pool0
I0428 19:45:28.179110 25808 net.cpp:124] Setting up pool0
I0428 19:45:28.179116 25808 net.cpp:131] Top shape: 100 2 12 12 (28800)
I0428 19:45:28.179119 25808 net.cpp:139] Memory required for data: 890800
I0428 19:45:28.179122 25808 layer_factory.hpp:77] Creating layer conv1
I0428 19:45:28.179131 25808 net.cpp:86] Creating Layer conv1
I0428 19:45:28.179134 25808 net.cpp:408] conv1 <- pool0
I0428 19:45:28.179139 25808 net.cpp:382] conv1 -> conv1
I0428 19:45:28.180598 25808 net.cpp:124] Setting up conv1
I0428 19:45:28.180610 25808 net.cpp:131] Top shape: 100 100 8 8 (640000)
I0428 19:45:28.180613 25808 net.cpp:139] Memory required for data: 3450800
I0428 19:45:28.180622 25808 layer_factory.hpp:77] Creating layer pool1
I0428 19:45:28.180629 25808 net.cpp:86] Creating Layer pool1
I0428 19:45:28.180632 25808 net.cpp:408] pool1 <- conv1
I0428 19:45:28.180639 25808 net.cpp:382] pool1 -> pool1
I0428 19:45:28.180673 25808 net.cpp:124] Setting up pool1
I0428 19:45:28.180681 25808 net.cpp:131] Top shape: 100 100 4 4 (160000)
I0428 19:45:28.180685 25808 net.cpp:139] Memory required for data: 4090800
I0428 19:45:28.180687 25808 layer_factory.hpp:77] Creating layer ip1
I0428 19:45:28.180693 25808 net.cpp:86] Creating Layer ip1
I0428 19:45:28.180696 25808 net.cpp:408] ip1 <- pool1
I0428 19:45:28.180701 25808 net.cpp:382] ip1 -> ip1
I0428 19:45:28.180943 25808 net.cpp:124] Setting up ip1
I0428 19:45:28.180953 25808 net.cpp:131] Top shape: 100 10 (1000)
I0428 19:45:28.180963 25808 net.cpp:139] Memory required for data: 4094800
I0428 19:45:28.180979 25808 layer_factory.hpp:77] Creating layer relu1
I0428 19:45:28.180984 25808 net.cpp:86] Creating Layer relu1
I0428 19:45:28.180989 25808 net.cpp:408] relu1 <- ip1
I0428 19:45:28.180999 25808 net.cpp:369] relu1 -> ip1 (in-place)
I0428 19:45:28.181171 25808 net.cpp:124] Setting up relu1
I0428 19:45:28.181180 25808 net.cpp:131] Top shape: 100 10 (1000)
I0428 19:45:28.181185 25808 net.cpp:139] Memory required for data: 4098800
I0428 19:45:28.181188 25808 layer_factory.hpp:77] Creating layer ip2
I0428 19:45:28.181196 25808 net.cpp:86] Creating Layer ip2
I0428 19:45:28.181216 25808 net.cpp:408] ip2 <- ip1
I0428 19:45:28.181221 25808 net.cpp:382] ip2 -> ip2
I0428 19:45:28.181371 25808 net.cpp:124] Setting up ip2
I0428 19:45:28.181380 25808 net.cpp:131] Top shape: 100 10 (1000)
I0428 19:45:28.181382 25808 net.cpp:139] Memory required for data: 4102800
I0428 19:45:28.181388 25808 layer_factory.hpp:77] Creating layer relu2
I0428 19:45:28.181392 25808 net.cpp:86] Creating Layer relu2
I0428 19:45:28.181396 25808 net.cpp:408] relu2 <- ip2
I0428 19:45:28.181401 25808 net.cpp:369] relu2 -> ip2 (in-place)
I0428 19:45:28.181614 25808 net.cpp:124] Setting up relu2
I0428 19:45:28.181623 25808 net.cpp:131] Top shape: 100 10 (1000)
I0428 19:45:28.181627 25808 net.cpp:139] Memory required for data: 4106800
I0428 19:45:28.181645 25808 layer_factory.hpp:77] Creating layer ip2_relu2_0_split
I0428 19:45:28.181650 25808 net.cpp:86] Creating Layer ip2_relu2_0_split
I0428 19:45:28.181654 25808 net.cpp:408] ip2_relu2_0_split <- ip2
I0428 19:45:28.181658 25808 net.cpp:382] ip2_relu2_0_split -> ip2_relu2_0_split_0
I0428 19:45:28.181677 25808 net.cpp:382] ip2_relu2_0_split -> ip2_relu2_0_split_1
I0428 19:45:28.181744 25808 net.cpp:124] Setting up ip2_relu2_0_split
I0428 19:45:28.181751 25808 net.cpp:131] Top shape: 100 10 (1000)
I0428 19:45:28.181756 25808 net.cpp:131] Top shape: 100 10 (1000)
I0428 19:45:28.181758 25808 net.cpp:139] Memory required for data: 4114800
I0428 19:45:28.181762 25808 layer_factory.hpp:77] Creating layer accuracy
I0428 19:45:28.181767 25808 net.cpp:86] Creating Layer accuracy
I0428 19:45:28.181771 25808 net.cpp:408] accuracy <- ip2_relu2_0_split_0
I0428 19:45:28.181776 25808 net.cpp:408] accuracy <- label_mnist_1_split_0
I0428 19:45:28.181780 25808 net.cpp:382] accuracy -> accuracy
…
