…
I0428 20:24:54.803306  2507 net.cpp:296] The NetState phase (0) differed from the phase (1) specified by a rule in layer mnist
I0428 20:24:54.803324  2507 net.cpp:296] The NetState phase (0) differed from the phase (1) specified by a rule in layer accuracy
I0428 20:24:54.803418  2507 net.cpp:53] Initializing net from parameters: 
name: "LeNet"
state {
  phase: TRAIN
  level: 0
  stage: ""
}
layer {
  name: "mnist"
  type: "Data"
  top: "data"
  top: "label"
  include {
    phase: TRAIN
  }
  transform_param {
    scale: 0.00390625
  }
  data_param {
    source: "examples/mnist/mnist_train_lmdb"
    batch_size: 64
    backend: LMDB
  }
}
layer {
  name: "conv0"
  type: "Convolution"
  bottom: "data"
  top: "conv0"
  param {
    lr_mult: 1
  }
  param {
    lr_mult: 2
  }
  convolution_param {
    num_output: 100
    kernel_size: 5
    stride: 1
    weight_filler {
      type: "xavier"
    }
    bias_filler {
      type: "constant"
    }
  }
}
layer {
  name: "pool0"
  type: "Pooling"
  bottom: "conv0"
  top: "pool0"
  pooling_param {
    pool: MAX
    kernel_size: 2
    stride: 2
  }
}
layer {
  name: "conv1"
  type: "Convolution"
  bottom: "pool0"
  top: "conv1"
  param {
    lr_mult: 1
  }
  param {
    lr_mult: 2
  }
  convolution_param {
    num_output: 2
    kernel_size: 5
    stride: 1
    weight_filler {
      type: "xavier"
    }
    bias_filler {
      type: "constant"
    }
  }
}
layer {
  name: "pool1"
  type: "Pooling"
  bottom: "conv1"
  top: "pool1"
  pooling_param {
    pool: MAX
    kernel_size: 2
    stride: 2
  }
}
layer {
  name: "ip1"
  type: "InnerProduct"
  bottom: "pool1"
  top: "ip1"
  param {
    lr_mult: 1
  }
  param {
    lr_mult: 2
  }
  inner_product_param {
    num_output: 10
    weight_filler {
      type: "xavier"
    }
    bias_filler {
      type: "constant"
    }
  }
}
layer {
  name: "relu1"
  type: "ReLU"
  bottom: "ip1"
  top: "ip1"
}
layer {
  name: "loss"
  type: "SoftmaxWithLoss"
  bottom: "ip1"
  bottom: "label"
  top: "loss"
}
I0428 20:24:54.803510  2507 layer_factory.hpp:77] Creating layer mnist
I0428 20:24:54.803612  2507 db_lmdb.cpp:35] Opened lmdb examples/mnist/mnist_train_lmdb
I0428 20:24:54.803640  2507 net.cpp:86] Creating Layer mnist
I0428 20:24:54.803650  2507 net.cpp:382] mnist -> data
I0428 20:24:54.803673  2507 net.cpp:382] mnist -> label
I0428 20:24:54.804965  2507 data_layer.cpp:45] output data size: 64,1,28,28
I0428 20:24:54.807240  2507 net.cpp:124] Setting up mnist
I0428 20:24:54.807271  2507 net.cpp:131] Top shape: 64 1 28 28 (50176)
I0428 20:24:54.807276  2507 net.cpp:131] Top shape: 64 (64)
I0428 20:24:54.807278  2507 net.cpp:139] Memory required for data: 200960
I0428 20:24:54.807286  2507 layer_factory.hpp:77] Creating layer conv0
I0428 20:24:54.807301  2507 net.cpp:86] Creating Layer conv0
I0428 20:24:54.807307  2507 net.cpp:408] conv0 <- data
I0428 20:24:54.807322  2507 net.cpp:382] conv0 -> conv0
I0428 20:24:55.047813  2507 net.cpp:124] Setting up conv0
I0428 20:24:55.047855  2507 net.cpp:131] Top shape: 64 100 24 24 (3686400)
I0428 20:24:55.047859  2507 net.cpp:139] Memory required for data: 14946560
I0428 20:24:55.047874  2507 layer_factory.hpp:77] Creating layer pool0
I0428 20:24:55.047888  2507 net.cpp:86] Creating Layer pool0
I0428 20:24:55.047893  2507 net.cpp:408] pool0 <- conv0
I0428 20:24:55.047899  2507 net.cpp:382] pool0 -> pool0
I0428 20:24:55.047991  2507 net.cpp:124] Setting up pool0
I0428 20:24:55.048003  2507 net.cpp:131] Top shape: 64 100 12 12 (921600)
I0428 20:24:55.048049  2507 net.cpp:139] Memory required for data: 18632960
I0428 20:24:55.048055  2507 layer_factory.hpp:77] Creating layer conv1
I0428 20:24:55.048071  2507 net.cpp:86] Creating Layer conv1
I0428 20:24:55.048077  2507 net.cpp:408] conv1 <- pool0
I0428 20:24:55.048085  2507 net.cpp:382] conv1 -> conv1
I0428 20:24:55.053201  2507 net.cpp:124] Setting up conv1
I0428 20:24:55.053244  2507 net.cpp:131] Top shape: 64 2 8 8 (8192)
I0428 20:24:55.053262  2507 net.cpp:139] Memory required for data: 18665728
I0428 20:24:55.053280  2507 layer_factory.hpp:77] Creating layer pool1
I0428 20:24:55.053297  2507 net.cpp:86] Creating Layer pool1
I0428 20:24:55.053303  2507 net.cpp:408] pool1 <- conv1
I0428 20:24:55.053313  2507 net.cpp:382] pool1 -> pool1
I0428 20:24:55.053396  2507 net.cpp:124] Setting up pool1
I0428 20:24:55.053411  2507 net.cpp:131] Top shape: 64 2 4 4 (2048)
I0428 20:24:55.053416  2507 net.cpp:139] Memory required for data: 18673920
I0428 20:24:55.053423  2507 layer_factory.hpp:77] Creating layer ip1
I0428 20:24:55.053436  2507 net.cpp:86] Creating Layer ip1
I0428 20:24:55.053450  2507 net.cpp:408] ip1 <- pool1
I0428 20:24:55.053462  2507 net.cpp:382] ip1 -> ip1
I0428 20:24:55.053653  2507 net.cpp:124] Setting up ip1
I0428 20:24:55.053665  2507 net.cpp:131] Top shape: 64 10 (640)
I0428 20:24:55.053671  2507 net.cpp:139] Memory required for data: 18676480
I0428 20:24:55.053685  2507 layer_factory.hpp:77] Creating layer relu1
I0428 20:24:55.053696  2507 net.cpp:86] Creating Layer relu1
I0428 20:24:55.053702  2507 net.cpp:408] relu1 <- ip1
I0428 20:24:55.053711  2507 net.cpp:369] relu1 -> ip1 (in-place)
I0428 20:24:55.054078  2507 net.cpp:124] Setting up relu1
I0428 20:24:55.054093  2507 net.cpp:131] Top shape: 64 10 (640)
I0428 20:24:55.054111  2507 net.cpp:139] Memory required for data: 18679040
I0428 20:24:55.054117  2507 layer_factory.hpp:77] Creating layer loss
I0428 20:24:55.054136  2507 net.cpp:86] Creating Layer loss
I0428 20:24:55.054142  2507 net.cpp:408] loss <- ip1
I0428 20:24:55.054150  2507 net.cpp:408] loss <- label
I0428 20:24:55.054160  2507 net.cpp:382] loss -> loss
I0428 20:24:55.054183  2507 layer_factory.hpp:77] Creating layer loss
…
I0428 20:24:55.056318  2507 solver.cpp:173] Creating test net (#0) specified by net file: ECE595/mnist/train_test/var_everything2/lenet_train_test1445.prototxt
I0428 20:24:55.056375  2507 net.cpp:296] The NetState phase (1) differed from the phase (0) specified by a rule in layer mnist
I0428 20:24:55.056512  2507 net.cpp:53] Initializing net from parameters: 
name: "LeNet"
state {
  phase: TEST
}
layer {
  name: "mnist"
  type: "Data"
  top: "data"
  top: "label"
  include {
    phase: TEST
  }
  transform_param {
    scale: 0.00390625
  }
  data_param {
    source: "examples/mnist/mnist_test_lmdb"
    batch_size: 100
    backend: LMDB
  }
}
layer {
  name: "conv0"
  type: "Convolution"
  bottom: "data"
  top: "conv0"
  param {
    lr_mult: 1
  }
  param {
    lr_mult: 2
  }
  convolution_param {
    num_output: 100
    kernel_size: 5
    stride: 1
    weight_filler {
      type: "xavier"
    }
    bias_filler {
      type: "constant"
    }
  }
}
layer {
  name: "pool0"
  type: "Pooling"
  bottom: "conv0"
  top: "pool0"
  pooling_param {
    pool: MAX
    kernel_size: 2
    stride: 2
  }
}
layer {
  name: "conv1"
  type: "Convolution"
  bottom: "pool0"
  top: "conv1"
  param {
    lr_mult: 1
  }
  param {
    lr_mult: 2
  }
  convolution_param {
    num_output: 2
    kernel_size: 5
    stride: 1
    weight_filler {
      type: "xavier"
    }
    bias_filler {
      type: "constant"
    }
  }
}
layer {
  name: "pool1"
  type: "Pooling"
  bottom: "conv1"
  top: "pool1"
  pooling_param {
    pool: MAX
    kernel_size: 2
    stride: 2
  }
}
layer {
  name: "ip1"
  type: "InnerProduct"
  bottom: "pool1"
  top: "ip1"
  param {
    lr_mult: 1
  }
  param {
    lr_mult: 2
  }
  inner_product_param {
    num_output: 10
    weight_filler {
      type: "xavier"
    }
    bias_filler {
      type: "constant"
    }
  }
}
layer {
  name: "relu1"
  type: "ReLU"
  bottom: "ip1"
  top: "ip1"
}
layer {
  name: "accuracy"
  type: "Accuracy"
  bottom: "ip1"
  bottom: "label"
  top: "accuracy"
  include {
    phase: TEST
  }
}
layer {
  name: "loss"
  type: "SoftmaxWithLoss"
  bottom: "ip1"
  bottom: "label"
  top: "loss"
}
I0428 20:24:55.056651  2507 layer_factory.hpp:77] Creating layer mnist
I0428 20:24:55.056728  2507 db_lmdb.cpp:35] Opened lmdb examples/mnist/mnist_test_lmdb
I0428 20:24:55.056748  2507 net.cpp:86] Creating Layer mnist
I0428 20:24:55.056757  2507 net.cpp:382] mnist -> data
I0428 20:24:55.056782  2507 net.cpp:382] mnist -> label
I0428 20:24:55.056967  2507 data_layer.cpp:45] output data size: 100,1,28,28
I0428 20:24:55.060303  2507 net.cpp:124] Setting up mnist
I0428 20:24:55.060340  2507 net.cpp:131] Top shape: 100 1 28 28 (78400)
I0428 20:24:55.060350  2507 net.cpp:131] Top shape: 100 (100)
I0428 20:24:55.060356  2507 net.cpp:139] Memory required for data: 314000
I0428 20:24:55.060364  2507 layer_factory.hpp:77] Creating layer label_mnist_1_split
I0428 20:24:55.060379  2507 net.cpp:86] Creating Layer label_mnist_1_split
I0428 20:24:55.060386  2507 net.cpp:408] label_mnist_1_split <- label
I0428 20:24:55.060395  2507 net.cpp:382] label_mnist_1_split -> label_mnist_1_split_0
I0428 20:24:55.060410  2507 net.cpp:382] label_mnist_1_split -> label_mnist_1_split_1
I0428 20:24:55.060564  2507 net.cpp:124] Setting up label_mnist_1_split
I0428 20:24:55.060580  2507 net.cpp:131] Top shape: 100 (100)
I0428 20:24:55.060587  2507 net.cpp:131] Top shape: 100 (100)
I0428 20:24:55.060598  2507 net.cpp:139] Memory required for data: 314800
I0428 20:24:55.060603  2507 layer_factory.hpp:77] Creating layer conv0
I0428 20:24:55.060632  2507 net.cpp:86] Creating Layer conv0
I0428 20:24:55.060644  2507 net.cpp:408] conv0 <- data
I0428 20:24:55.060657  2507 net.cpp:382] conv0 -> conv0
I0428 20:24:55.062309  2507 net.cpp:124] Setting up conv0
I0428 20:24:55.062330  2507 net.cpp:131] Top shape: 100 100 24 24 (5760000)
I0428 20:24:55.062345  2507 net.cpp:139] Memory required for data: 23354800
I0428 20:24:55.062361  2507 layer_factory.hpp:77] Creating layer pool0
I0428 20:24:55.062374  2507 net.cpp:86] Creating Layer pool0
I0428 20:24:55.062381  2507 net.cpp:408] pool0 <- conv0
I0428 20:24:55.062391  2507 net.cpp:382] pool0 -> pool0
I0428 20:24:55.062458  2507 net.cpp:124] Setting up pool0
I0428 20:24:55.062471  2507 net.cpp:131] Top shape: 100 100 12 12 (1440000)
I0428 20:24:55.062476  2507 net.cpp:139] Memory required for data: 29114800
I0428 20:24:55.062484  2507 layer_factory.hpp:77] Creating layer conv1
I0428 20:24:55.062500  2507 net.cpp:86] Creating Layer conv1
I0428 20:24:55.062512  2507 net.cpp:408] conv1 <- pool0
I0428 20:24:55.062523  2507 net.cpp:382] conv1 -> conv1
I0428 20:24:55.065160  2507 net.cpp:124] Setting up conv1
I0428 20:24:55.065199  2507 net.cpp:131] Top shape: 100 2 8 8 (12800)
I0428 20:24:55.065207  2507 net.cpp:139] Memory required for data: 29166000
I0428 20:24:55.065223  2507 layer_factory.hpp:77] Creating layer pool1
I0428 20:24:55.065238  2507 net.cpp:86] Creating Layer pool1
I0428 20:24:55.065263  2507 net.cpp:408] pool1 <- conv1
I0428 20:24:55.065284  2507 net.cpp:382] pool1 -> pool1
I0428 20:24:55.065354  2507 net.cpp:124] Setting up pool1
I0428 20:24:55.065367  2507 net.cpp:131] Top shape: 100 2 4 4 (3200)
I0428 20:24:55.065373  2507 net.cpp:139] Memory required for data: 29178800
I0428 20:24:55.065379  2507 layer_factory.hpp:77] Creating layer ip1
I0428 20:24:55.065389  2507 net.cpp:86] Creating Layer ip1
I0428 20:24:55.065397  2507 net.cpp:408] ip1 <- pool1
I0428 20:24:55.065407  2507 net.cpp:382] ip1 -> ip1
I0428 20:24:55.065691  2507 net.cpp:124] Setting up ip1
I0428 20:24:55.065714  2507 net.cpp:131] Top shape: 100 10 (1000)
I0428 20:24:55.065719  2507 net.cpp:139] Memory required for data: 29182800
I0428 20:24:55.065733  2507 layer_factory.hpp:77] Creating layer relu1
I0428 20:24:55.065744  2507 net.cpp:86] Creating Layer relu1
I0428 20:24:55.065750  2507 net.cpp:408] relu1 <- ip1
I0428 20:24:55.065762  2507 net.cpp:369] relu1 -> ip1 (in-place)
I0428 20:24:55.067183  2507 net.cpp:124] Setting up relu1
I0428 20:24:55.067203  2507 net.cpp:131] Top shape: 100 10 (1000)
I0428 20:24:55.067220  2507 net.cpp:139] Memory required for data: 29186800
I0428 20:24:55.067226  2507 layer_factory.hpp:77] Creating layer ip1_relu1_0_split
I0428 20:24:55.067240  2507 net.cpp:86] Creating Layer ip1_relu1_0_split
I0428 20:24:55.067252  2507 net.cpp:408] ip1_relu1_0_split <- ip1
I0428 20:24:55.067263  2507 net.cpp:382] ip1_relu1_0_split -> ip1_relu1_0_split_0
I0428 20:24:55.067275  2507 net.cpp:382] ip1_relu1_0_split -> ip1_relu1_0_split_1
I0428 20:24:55.067358  2507 net.cpp:124] Setting up ip1_relu1_0_split
I0428 20:24:55.067369  2507 net.cpp:131] Top shape: 100 10 (1000)
I0428 20:24:55.067378  2507 net.cpp:131] Top shape: 100 10 (1000)
I0428 20:24:55.067383  2507 net.cpp:139] Memory required for data: 29194800
I0428 20:24:55.067389  2507 layer_factory.hpp:77] Creating layer accuracy
I0428 20:24:55.067406  2507 net.cpp:86] Creating Layer accuracy
I0428 20:24:55.067412  2507 net.cpp:408] accuracy <- ip1_relu1_0_split_0
I0428 20:24:55.067420  2507 net.cpp:408] accuracy <- label_mnist_1_split_0
I0428 20:24:55.067430  2507 net.cpp:382] accuracy -> accuracy
…
