…
I0428 19:43:32.436669 25368 net.cpp:296] The NetState phase (0) differed from the phase (1) specified by a rule in layer mnist
I0428 19:43:32.436698 25368 net.cpp:296] The NetState phase (0) differed from the phase (1) specified by a rule in layer accuracy
I0428 19:43:32.436820 25368 net.cpp:53] Initializing net from parameters: 
name: "LeNet"
state {
  phase: TRAIN
  level: 0
  stage: ""
}
layer {
  name: "mnist"
  type: "Data"
  top: "data"
  top: "label"
  include {
    phase: TRAIN
  }
  transform_param {
    scale: 0.00390625
  }
  data_param {
    source: "examples/mnist/mnist_train_lmdb"
    batch_size: 64
    backend: LMDB
  }
}
layer {
  name: "conv0"
  type: "Convolution"
  bottom: "data"
  top: "conv0"
  param {
    lr_mult: 1
  }
  param {
    lr_mult: 2
  }
  convolution_param {
    num_output: 2
    kernel_size: 5
    stride: 1
    weight_filler {
      type: "xavier"
    }
    bias_filler {
      type: "constant"
    }
  }
}
layer {
  name: "pool0"
  type: "Pooling"
  bottom: "conv0"
  top: "pool0"
  pooling_param {
    pool: MAX
    kernel_size: 2
    stride: 2
  }
}
layer {
  name: "conv1"
  type: "Convolution"
  bottom: "pool0"
  top: "conv1"
  param {
    lr_mult: 1
  }
  param {
    lr_mult: 2
  }
  convolution_param {
    num_output: 25
    kernel_size: 5
    stride: 1
    weight_filler {
      type: "xavier"
    }
    bias_filler {
      type: "constant"
    }
  }
}
layer {
  name: "pool1"
  type: "Pooling"
  bottom: "conv1"
  top: "pool1"
  pooling_param {
    pool: MAX
    kernel_size: 2
    stride: 2
  }
}
layer {
  name: "ip1"
  type: "InnerProduct"
  bottom: "pool1"
  top: "ip1"
  param {
    lr_mult: 1
  }
  param {
    lr_mult: 2
  }
  inner_product_param {
    num_output: 50
    weight_filler {
      type: "xavier"
    }
    bias_filler {
      type: "constant"
    }
  }
}
layer {
  name: "relu1"
  type: "ReLU"
  bottom: "ip1"
  top: "ip1"
}
layer {
  name: "ip2"
  type: "InnerProduct"
  bottom: "ip1"
  top: "ip2"
  param {
    lr_mult: 1
  }
  param {
    lr_mult: 2
  }
  inner_product_param {
    num_output: 25
    weight_filler {
      type: "xavier"
    }
    bias_filler {
      type: "constant"
    }
  }
}
layer {
  name: "relu2"
  type: "ReLU"
  bottom: "ip2"
  top: "ip2"
}
layer {
  name: "ip3"
  type: "InnerProduct"
  bottom: "ip2"
  top: "ip3"
  param {
    lr_mult: 1
  }
  param {
    lr_mult: 2
  }
  inner_product_param {
    num_output: 10
    weight_filler {
      type: "xavier"
    }
    bias_filler {
      type: "constant"
    }
  }
}
layer {
  name: "relu3"
  type: "ReLU"
  bottom: "ip3"
  top: "ip3"
}
layer {
  name: "loss"
  type: "SoftmaxWithLoss"
  bottom: "ip3"
  bottom: "label"
  top: "loss"
}
I0428 19:43:32.436933 25368 layer_factory.hpp:77] Creating layer mnist
I0428 19:43:32.437036 25368 db_lmdb.cpp:35] Opened lmdb examples/mnist/mnist_train_lmdb
I0428 19:43:32.437070 25368 net.cpp:86] Creating Layer mnist
I0428 19:43:32.437083 25368 net.cpp:382] mnist -> data
I0428 19:43:32.437113 25368 net.cpp:382] mnist -> label
I0428 19:43:32.438201 25368 data_layer.cpp:45] output data size: 64,1,28,28
I0428 19:43:32.440665 25368 net.cpp:124] Setting up mnist
I0428 19:43:32.440685 25368 net.cpp:131] Top shape: 64 1 28 28 (50176)
I0428 19:43:32.440708 25368 net.cpp:131] Top shape: 64 (64)
I0428 19:43:32.440716 25368 net.cpp:139] Memory required for data: 200960
I0428 19:43:32.440726 25368 layer_factory.hpp:77] Creating layer conv0
I0428 19:43:32.440747 25368 net.cpp:86] Creating Layer conv0
I0428 19:43:32.440770 25368 net.cpp:408] conv0 <- data
I0428 19:43:32.440793 25368 net.cpp:382] conv0 -> conv0
I0428 19:43:32.730360 25368 net.cpp:124] Setting up conv0
I0428 19:43:32.730393 25368 net.cpp:131] Top shape: 64 2 24 24 (73728)
I0428 19:43:32.730401 25368 net.cpp:139] Memory required for data: 495872
I0428 19:43:32.730423 25368 layer_factory.hpp:77] Creating layer pool0
I0428 19:43:32.730443 25368 net.cpp:86] Creating Layer pool0
I0428 19:43:32.730451 25368 net.cpp:408] pool0 <- conv0
I0428 19:43:32.730465 25368 net.cpp:382] pool0 -> pool0
I0428 19:43:32.730540 25368 net.cpp:124] Setting up pool0
I0428 19:43:32.730551 25368 net.cpp:131] Top shape: 64 2 12 12 (18432)
I0428 19:43:32.730556 25368 net.cpp:139] Memory required for data: 569600
I0428 19:43:32.730562 25368 layer_factory.hpp:77] Creating layer conv1
I0428 19:43:32.730584 25368 net.cpp:86] Creating Layer conv1
I0428 19:43:32.730592 25368 net.cpp:408] conv1 <- pool0
I0428 19:43:32.730603 25368 net.cpp:382] conv1 -> conv1
I0428 19:43:32.733799 25368 net.cpp:124] Setting up conv1
I0428 19:43:32.733821 25368 net.cpp:131] Top shape: 64 25 8 8 (102400)
I0428 19:43:32.733829 25368 net.cpp:139] Memory required for data: 979200
I0428 19:43:32.733844 25368 layer_factory.hpp:77] Creating layer pool1
I0428 19:43:32.733858 25368 net.cpp:86] Creating Layer pool1
I0428 19:43:32.733873 25368 net.cpp:408] pool1 <- conv1
I0428 19:43:32.733886 25368 net.cpp:382] pool1 -> pool1
I0428 19:43:32.733940 25368 net.cpp:124] Setting up pool1
I0428 19:43:32.733950 25368 net.cpp:131] Top shape: 64 25 4 4 (25600)
I0428 19:43:32.733956 25368 net.cpp:139] Memory required for data: 1081600
I0428 19:43:32.733963 25368 layer_factory.hpp:77] Creating layer ip1
I0428 19:43:32.733978 25368 net.cpp:86] Creating Layer ip1
I0428 19:43:32.733989 25368 net.cpp:408] ip1 <- pool1
I0428 19:43:32.734001 25368 net.cpp:382] ip1 -> ip1
I0428 19:43:32.734267 25368 net.cpp:124] Setting up ip1
I0428 19:43:32.734278 25368 net.cpp:131] Top shape: 64 50 (3200)
I0428 19:43:32.734284 25368 net.cpp:139] Memory required for data: 1094400
I0428 19:43:32.734298 25368 layer_factory.hpp:77] Creating layer relu1
I0428 19:43:32.734311 25368 net.cpp:86] Creating Layer relu1
I0428 19:43:32.734319 25368 net.cpp:408] relu1 <- ip1
I0428 19:43:32.734328 25368 net.cpp:369] relu1 -> ip1 (in-place)
I0428 19:43:32.734541 25368 net.cpp:124] Setting up relu1
I0428 19:43:32.734555 25368 net.cpp:131] Top shape: 64 50 (3200)
I0428 19:43:32.734560 25368 net.cpp:139] Memory required for data: 1107200
I0428 19:43:32.734566 25368 layer_factory.hpp:77] Creating layer ip2
I0428 19:43:32.734580 25368 net.cpp:86] Creating Layer ip2
I0428 19:43:32.734587 25368 net.cpp:408] ip2 <- ip1
I0428 19:43:32.734599 25368 net.cpp:382] ip2 -> ip2
I0428 19:43:32.734735 25368 net.cpp:124] Setting up ip2
I0428 19:43:32.734746 25368 net.cpp:131] Top shape: 64 25 (1600)
I0428 19:43:32.734752 25368 net.cpp:139] Memory required for data: 1113600
I0428 19:43:32.734762 25368 layer_factory.hpp:77] Creating layer relu2
I0428 19:43:32.734776 25368 net.cpp:86] Creating Layer relu2
I0428 19:43:32.734784 25368 net.cpp:408] relu2 <- ip2
I0428 19:43:32.734792 25368 net.cpp:369] relu2 -> ip2 (in-place)
I0428 19:43:32.735662 25368 net.cpp:124] Setting up relu2
I0428 19:43:32.735679 25368 net.cpp:131] Top shape: 64 25 (1600)
I0428 19:43:32.735685 25368 net.cpp:139] Memory required for data: 1120000
I0428 19:43:32.735692 25368 layer_factory.hpp:77] Creating layer ip3
I0428 19:43:32.735707 25368 net.cpp:86] Creating Layer ip3
I0428 19:43:32.735713 25368 net.cpp:408] ip3 <- ip2
I0428 19:43:32.735726 25368 net.cpp:382] ip3 -> ip3
I0428 19:43:32.735865 25368 net.cpp:124] Setting up ip3
I0428 19:43:32.735877 25368 net.cpp:131] Top shape: 64 10 (640)
I0428 19:43:32.735882 25368 net.cpp:139] Memory required for data: 1122560
I0428 19:43:32.735898 25368 layer_factory.hpp:77] Creating layer relu3
I0428 19:43:32.735908 25368 net.cpp:86] Creating Layer relu3
I0428 19:43:32.735915 25368 net.cpp:408] relu3 <- ip3
I0428 19:43:32.735924 25368 net.cpp:369] relu3 -> ip3 (in-place)
I0428 19:43:32.736140 25368 net.cpp:124] Setting up relu3
I0428 19:43:32.736151 25368 net.cpp:131] Top shape: 64 10 (640)
I0428 19:43:32.736157 25368 net.cpp:139] Memory required for data: 1125120
I0428 19:43:32.736163 25368 layer_factory.hpp:77] Creating layer loss
I0428 19:43:32.736174 25368 net.cpp:86] Creating Layer loss
I0428 19:43:32.736181 25368 net.cpp:408] loss <- ip3
I0428 19:43:32.736188 25368 net.cpp:408] loss <- label
I0428 19:43:32.736201 25368 net.cpp:382] loss -> loss
I0428 19:43:32.736227 25368 layer_factory.hpp:77] Creating layer loss
…
I0428 19:43:32.737073 25368 solver.cpp:173] Creating test net (#0) specified by net file: ECE595/mnist/train_test/var_everything2/lenet_train_test424.prototxt
I0428 19:43:32.737116 25368 net.cpp:296] The NetState phase (1) differed from the phase (0) specified by a rule in layer mnist
I0428 19:43:32.737236 25368 net.cpp:53] Initializing net from parameters: 
name: "LeNet"
state {
  phase: TEST
}
layer {
  name: "mnist"
  type: "Data"
  top: "data"
  top: "label"
  include {
    phase: TEST
  }
  transform_param {
    scale: 0.00390625
  }
  data_param {
    source: "examples/mnist/mnist_test_lmdb"
    batch_size: 100
    backend: LMDB
  }
}
layer {
  name: "conv0"
  type: "Convolution"
  bottom: "data"
  top: "conv0"
  param {
    lr_mult: 1
  }
  param {
    lr_mult: 2
  }
  convolution_param {
    num_output: 2
    kernel_size: 5
    stride: 1
    weight_filler {
      type: "xavier"
    }
    bias_filler {
      type: "constant"
    }
  }
}
layer {
  name: "pool0"
  type: "Pooling"
  bottom: "conv0"
  top: "pool0"
  pooling_param {
    pool: MAX
    kernel_size: 2
    stride: 2
  }
}
layer {
  name: "conv1"
  type: "Convolution"
  bottom: "pool0"
  top: "conv1"
  param {
    lr_mult: 1
  }
  param {
    lr_mult: 2
  }
  convolution_param {
    num_output: 25
    kernel_size: 5
    stride: 1
    weight_filler {
      type: "xavier"
    }
    bias_filler {
      type: "constant"
    }
  }
}
layer {
  name: "pool1"
  type: "Pooling"
  bottom: "conv1"
  top: "pool1"
  pooling_param {
    pool: MAX
    kernel_size: 2
    stride: 2
  }
}
layer {
  name: "ip1"
  type: "InnerProduct"
  bottom: "pool1"
  top: "ip1"
  param {
    lr_mult: 1
  }
  param {
    lr_mult: 2
  }
  inner_product_param {
    num_output: 50
    weight_filler {
      type: "xavier"
    }
    bias_filler {
      type: "constant"
    }
  }
}
layer {
  name: "relu1"
  type: "ReLU"
  bottom: "ip1"
  top: "ip1"
}
layer {
  name: "ip2"
  type: "InnerProduct"
  bottom: "ip1"
  top: "ip2"
  param {
    lr_mult: 1
  }
  param {
    lr_mult: 2
  }
  inner_product_param {
    num_output: 25
    weight_filler {
      type: "xavier"
    }
    bias_filler {
      type: "constant"
    }
  }
}
layer {
  name: "relu2"
  type: "ReLU"
  bottom: "ip2"
  top: "ip2"
}
layer {
  name: "ip3"
  type: "InnerProduct"
  bottom: "ip2"
  top: "ip3"
  param {
    lr_mult: 1
  }
  param {
    lr_mult: 2
  }
  inner_product_param {
    num_output: 10
    weight_filler {
      type: "xavier"
    }
    bias_filler {
      type: "constant"
    }
  }
}
layer {
  name: "relu3"
  type: "ReLU"
  bottom: "ip3"
  top: "ip3"
}
layer {
  name: "accuracy"
  type: "Accuracy"
  bottom: "ip3"
  bottom: "label"
  top: "accuracy"
  include {
    phase: TEST
  }
}
layer {
  name: "loss"
  type: "SoftmaxWithLoss"
  bottom: "ip3"
  bottom: "label"
  top: "loss"
}
I0428 19:43:32.737381 25368 layer_factory.hpp:77] Creating layer mnist
I0428 19:43:32.737454 25368 db_lmdb.cpp:35] Opened lmdb examples/mnist/mnist_test_lmdb
I0428 19:43:32.737476 25368 net.cpp:86] Creating Layer mnist
I0428 19:43:32.737486 25368 net.cpp:382] mnist -> data
I0428 19:43:32.737499 25368 net.cpp:382] mnist -> label
I0428 19:43:32.737646 25368 data_layer.cpp:45] output data size: 100,1,28,28
I0428 19:43:32.740028 25368 net.cpp:124] Setting up mnist
I0428 19:43:32.740048 25368 net.cpp:131] Top shape: 100 1 28 28 (78400)
I0428 19:43:32.740058 25368 net.cpp:131] Top shape: 100 (100)
I0428 19:43:32.740064 25368 net.cpp:139] Memory required for data: 314000
I0428 19:43:32.740072 25368 layer_factory.hpp:77] Creating layer label_mnist_1_split
I0428 19:43:32.740103 25368 net.cpp:86] Creating Layer label_mnist_1_split
I0428 19:43:32.740109 25368 net.cpp:408] label_mnist_1_split <- label
I0428 19:43:32.740118 25368 net.cpp:382] label_mnist_1_split -> label_mnist_1_split_0
I0428 19:43:32.740131 25368 net.cpp:382] label_mnist_1_split -> label_mnist_1_split_1
I0428 19:43:32.740232 25368 net.cpp:124] Setting up label_mnist_1_split
I0428 19:43:32.740242 25368 net.cpp:131] Top shape: 100 (100)
I0428 19:43:32.740250 25368 net.cpp:131] Top shape: 100 (100)
I0428 19:43:32.740255 25368 net.cpp:139] Memory required for data: 314800
I0428 19:43:32.740262 25368 layer_factory.hpp:77] Creating layer conv0
I0428 19:43:32.740279 25368 net.cpp:86] Creating Layer conv0
I0428 19:43:32.740288 25368 net.cpp:408] conv0 <- data
I0428 19:43:32.740303 25368 net.cpp:382] conv0 -> conv0
I0428 19:43:32.742117 25368 net.cpp:124] Setting up conv0
I0428 19:43:32.742136 25368 net.cpp:131] Top shape: 100 2 24 24 (115200)
I0428 19:43:32.742143 25368 net.cpp:139] Memory required for data: 775600
I0428 19:43:32.742161 25368 layer_factory.hpp:77] Creating layer pool0
I0428 19:43:32.742174 25368 net.cpp:86] Creating Layer pool0
I0428 19:43:32.742183 25368 net.cpp:408] pool0 <- conv0
I0428 19:43:32.742192 25368 net.cpp:382] pool0 -> pool0
I0428 19:43:32.742245 25368 net.cpp:124] Setting up pool0
I0428 19:43:32.742256 25368 net.cpp:131] Top shape: 100 2 12 12 (28800)
I0428 19:43:32.742261 25368 net.cpp:139] Memory required for data: 890800
I0428 19:43:32.742269 25368 layer_factory.hpp:77] Creating layer conv1
I0428 19:43:32.742285 25368 net.cpp:86] Creating Layer conv1
I0428 19:43:32.742293 25368 net.cpp:408] conv1 <- pool0
I0428 19:43:32.742305 25368 net.cpp:382] conv1 -> conv1
I0428 19:43:32.744204 25368 net.cpp:124] Setting up conv1
I0428 19:43:32.744225 25368 net.cpp:131] Top shape: 100 25 8 8 (160000)
I0428 19:43:32.744230 25368 net.cpp:139] Memory required for data: 1530800
I0428 19:43:32.744246 25368 layer_factory.hpp:77] Creating layer pool1
I0428 19:43:32.744258 25368 net.cpp:86] Creating Layer pool1
I0428 19:43:32.744266 25368 net.cpp:408] pool1 <- conv1
I0428 19:43:32.744277 25368 net.cpp:382] pool1 -> pool1
I0428 19:43:32.744334 25368 net.cpp:124] Setting up pool1
I0428 19:43:32.744345 25368 net.cpp:131] Top shape: 100 25 4 4 (40000)
I0428 19:43:32.744351 25368 net.cpp:139] Memory required for data: 1690800
I0428 19:43:32.744359 25368 layer_factory.hpp:77] Creating layer ip1
I0428 19:43:32.744371 25368 net.cpp:86] Creating Layer ip1
I0428 19:43:32.744380 25368 net.cpp:408] ip1 <- pool1
I0428 19:43:32.744397 25368 net.cpp:382] ip1 -> ip1
I0428 19:43:32.744674 25368 net.cpp:124] Setting up ip1
I0428 19:43:32.744686 25368 net.cpp:131] Top shape: 100 50 (5000)
I0428 19:43:32.744707 25368 net.cpp:139] Memory required for data: 1710800
I0428 19:43:32.744722 25368 layer_factory.hpp:77] Creating layer relu1
I0428 19:43:32.744734 25368 net.cpp:86] Creating Layer relu1
I0428 19:43:32.744741 25368 net.cpp:408] relu1 <- ip1
I0428 19:43:32.744755 25368 net.cpp:369] relu1 -> ip1 (in-place)
I0428 19:43:32.745029 25368 net.cpp:124] Setting up relu1
I0428 19:43:32.745044 25368 net.cpp:131] Top shape: 100 50 (5000)
I0428 19:43:32.745050 25368 net.cpp:139] Memory required for data: 1730800
I0428 19:43:32.745056 25368 layer_factory.hpp:77] Creating layer ip2
I0428 19:43:32.745072 25368 net.cpp:86] Creating Layer ip2
I0428 19:43:32.745079 25368 net.cpp:408] ip2 <- ip1
I0428 19:43:32.745090 25368 net.cpp:382] ip2 -> ip2
I0428 19:43:32.745234 25368 net.cpp:124] Setting up ip2
I0428 19:43:32.745252 25368 net.cpp:131] Top shape: 100 25 (2500)
I0428 19:43:32.745260 25368 net.cpp:139] Memory required for data: 1740800
I0428 19:43:32.745270 25368 layer_factory.hpp:77] Creating layer relu2
I0428 19:43:32.745280 25368 net.cpp:86] Creating Layer relu2
I0428 19:43:32.745286 25368 net.cpp:408] relu2 <- ip2
I0428 19:43:32.745297 25368 net.cpp:369] relu2 -> ip2 (in-place)
I0428 19:43:32.745497 25368 net.cpp:124] Setting up relu2
I0428 19:43:32.745509 25368 net.cpp:131] Top shape: 100 25 (2500)
I0428 19:43:32.745515 25368 net.cpp:139] Memory required for data: 1750800
I0428 19:43:32.745522 25368 layer_factory.hpp:77] Creating layer ip3
I0428 19:43:32.745535 25368 net.cpp:86] Creating Layer ip3
I0428 19:43:32.745543 25368 net.cpp:408] ip3 <- ip2
I0428 19:43:32.745553 25368 net.cpp:382] ip3 -> ip3
I0428 19:43:32.745684 25368 net.cpp:124] Setting up ip3
I0428 19:43:32.745695 25368 net.cpp:131] Top shape: 100 10 (1000)
I0428 19:43:32.745702 25368 net.cpp:139] Memory required for data: 1754800
I0428 19:43:32.745715 25368 layer_factory.hpp:77] Creating layer relu3
I0428 19:43:32.745728 25368 net.cpp:86] Creating Layer relu3
I0428 19:43:32.745735 25368 net.cpp:408] relu3 <- ip3
I0428 19:43:32.745744 25368 net.cpp:369] relu3 -> ip3 (in-place)
I0428 19:43:32.746732 25368 net.cpp:124] Setting up relu3
I0428 19:43:32.746752 25368 net.cpp:131] Top shape: 100 10 (1000)
I0428 19:43:32.746757 25368 net.cpp:139] Memory required for data: 1758800
I0428 19:43:32.746764 25368 layer_factory.hpp:77] Creating layer ip3_relu3_0_split
I0428 19:43:32.746773 25368 net.cpp:86] Creating Layer ip3_relu3_0_split
I0428 19:43:32.746780 25368 net.cpp:408] ip3_relu3_0_split <- ip3
I0428 19:43:32.746790 25368 net.cpp:382] ip3_relu3_0_split -> ip3_relu3_0_split_0
I0428 19:43:32.746803 25368 net.cpp:382] ip3_relu3_0_split -> ip3_relu3_0_split_1
I0428 19:43:32.746862 25368 net.cpp:124] Setting up ip3_relu3_0_split
I0428 19:43:32.746873 25368 net.cpp:131] Top shape: 100 10 (1000)
I0428 19:43:32.746886 25368 net.cpp:131] Top shape: 100 10 (1000)
I0428 19:43:32.746891 25368 net.cpp:139] Memory required for data: 1766800
I0428 19:43:32.746897 25368 layer_factory.hpp:77] Creating layer accuracy
I0428 19:43:32.746907 25368 net.cpp:86] Creating Layer accuracy
I0428 19:43:32.746914 25368 net.cpp:408] accuracy <- ip3_relu3_0_split_0
I0428 19:43:32.746922 25368 net.cpp:408] accuracy <- label_mnist_1_split_0
I0428 19:43:32.746933 25368 net.cpp:382] accuracy -> accuracy
…
