…
I0428 20:17:13.046494   821 net.cpp:296] The NetState phase (0) differed from the phase (1) specified by a rule in layer mnist
I0428 20:17:13.046510   821 net.cpp:296] The NetState phase (0) differed from the phase (1) specified by a rule in layer accuracy
I0428 20:17:13.046593   821 net.cpp:53] Initializing net from parameters: 
name: "LeNet"
state {
  phase: TRAIN
  level: 0
  stage: ""
}
layer {
  name: "mnist"
  type: "Data"
  top: "data"
  top: "label"
  include {
    phase: TRAIN
  }
  transform_param {
    scale: 0.00390625
  }
  data_param {
    source: "examples/mnist/mnist_train_lmdb"
    batch_size: 64
    backend: LMDB
  }
}
layer {
  name: "conv0"
  type: "Convolution"
  bottom: "data"
  top: "conv0"
  param {
    lr_mult: 1
  }
  param {
    lr_mult: 2
  }
  convolution_param {
    num_output: 50
    kernel_size: 5
    stride: 1
    weight_filler {
      type: "xavier"
    }
    bias_filler {
      type: "constant"
    }
  }
}
layer {
  name: "pool0"
  type: "Pooling"
  bottom: "conv0"
  top: "pool0"
  pooling_param {
    pool: MAX
    kernel_size: 2
    stride: 2
  }
}
layer {
  name: "conv1"
  type: "Convolution"
  bottom: "pool0"
  top: "conv1"
  param {
    lr_mult: 1
  }
  param {
    lr_mult: 2
  }
  convolution_param {
    num_output: 10
    kernel_size: 5
    stride: 1
    weight_filler {
      type: "xavier"
    }
    bias_filler {
      type: "constant"
    }
  }
}
layer {
  name: "pool1"
  type: "Pooling"
  bottom: "conv1"
  top: "pool1"
  pooling_param {
    pool: MAX
    kernel_size: 2
    stride: 2
  }
}
layer {
  name: "ip1"
  type: "InnerProduct"
  bottom: "pool1"
  top: "ip1"
  param {
    lr_mult: 1
  }
  param {
    lr_mult: 2
  }
  inner_product_param {
    num_output: 10
    weight_filler {
      type: "xavier"
    }
    bias_filler {
      type: "constant"
    }
  }
}
layer {
  name: "relu1"
  type: "ReLU"
  bottom: "ip1"
  top: "ip1"
}
layer {
  name: "loss"
  type: "SoftmaxWithLoss"
  bottom: "ip1"
  bottom: "label"
  top: "loss"
}
I0428 20:17:13.046664   821 layer_factory.hpp:77] Creating layer mnist
I0428 20:17:13.046766   821 db_lmdb.cpp:35] Opened lmdb examples/mnist/mnist_train_lmdb
I0428 20:17:13.046788   821 net.cpp:86] Creating Layer mnist
I0428 20:17:13.046797   821 net.cpp:382] mnist -> data
I0428 20:17:13.046820   821 net.cpp:382] mnist -> label
I0428 20:17:13.047933   821 data_layer.cpp:45] output data size: 64,1,28,28
I0428 20:17:13.050401   821 net.cpp:124] Setting up mnist
I0428 20:17:13.050420   821 net.cpp:131] Top shape: 64 1 28 28 (50176)
I0428 20:17:13.050426   821 net.cpp:131] Top shape: 64 (64)
I0428 20:17:13.050428   821 net.cpp:139] Memory required for data: 200960
I0428 20:17:13.050436   821 layer_factory.hpp:77] Creating layer conv0
I0428 20:17:13.050473   821 net.cpp:86] Creating Layer conv0
I0428 20:17:13.050480   821 net.cpp:408] conv0 <- data
I0428 20:17:13.050493   821 net.cpp:382] conv0 -> conv0
I0428 20:17:13.339876   821 net.cpp:124] Setting up conv0
I0428 20:17:13.339905   821 net.cpp:131] Top shape: 64 50 24 24 (1843200)
I0428 20:17:13.339908   821 net.cpp:139] Memory required for data: 7573760
I0428 20:17:13.339925   821 layer_factory.hpp:77] Creating layer pool0
I0428 20:17:13.339941   821 net.cpp:86] Creating Layer pool0
I0428 20:17:13.339946   821 net.cpp:408] pool0 <- conv0
I0428 20:17:13.339951   821 net.cpp:382] pool0 -> pool0
I0428 20:17:13.339999   821 net.cpp:124] Setting up pool0
I0428 20:17:13.340005   821 net.cpp:131] Top shape: 64 50 12 12 (460800)
I0428 20:17:13.340025   821 net.cpp:139] Memory required for data: 9416960
I0428 20:17:13.340029   821 layer_factory.hpp:77] Creating layer conv1
I0428 20:17:13.340040   821 net.cpp:86] Creating Layer conv1
I0428 20:17:13.340044   821 net.cpp:408] conv1 <- pool0
I0428 20:17:13.340049   821 net.cpp:382] conv1 -> conv1
I0428 20:17:13.342959   821 net.cpp:124] Setting up conv1
I0428 20:17:13.342975   821 net.cpp:131] Top shape: 64 10 8 8 (40960)
I0428 20:17:13.342979   821 net.cpp:139] Memory required for data: 9580800
I0428 20:17:13.342988   821 layer_factory.hpp:77] Creating layer pool1
I0428 20:17:13.342998   821 net.cpp:86] Creating Layer pool1
I0428 20:17:13.343001   821 net.cpp:408] pool1 <- conv1
I0428 20:17:13.343008   821 net.cpp:382] pool1 -> pool1
I0428 20:17:13.343063   821 net.cpp:124] Setting up pool1
I0428 20:17:13.343070   821 net.cpp:131] Top shape: 64 10 4 4 (10240)
I0428 20:17:13.343073   821 net.cpp:139] Memory required for data: 9621760
I0428 20:17:13.343076   821 layer_factory.hpp:77] Creating layer ip1
I0428 20:17:13.343085   821 net.cpp:86] Creating Layer ip1
I0428 20:17:13.343087   821 net.cpp:408] ip1 <- pool1
I0428 20:17:13.343092   821 net.cpp:382] ip1 -> ip1
I0428 20:17:13.343224   821 net.cpp:124] Setting up ip1
I0428 20:17:13.343232   821 net.cpp:131] Top shape: 64 10 (640)
I0428 20:17:13.343235   821 net.cpp:139] Memory required for data: 9624320
I0428 20:17:13.343242   821 layer_factory.hpp:77] Creating layer relu1
I0428 20:17:13.343248   821 net.cpp:86] Creating Layer relu1
I0428 20:17:13.343251   821 net.cpp:408] relu1 <- ip1
I0428 20:17:13.343255   821 net.cpp:369] relu1 -> ip1 (in-place)
I0428 20:17:13.343426   821 net.cpp:124] Setting up relu1
I0428 20:17:13.343436   821 net.cpp:131] Top shape: 64 10 (640)
I0428 20:17:13.343439   821 net.cpp:139] Memory required for data: 9626880
I0428 20:17:13.343442   821 layer_factory.hpp:77] Creating layer loss
I0428 20:17:13.343448   821 net.cpp:86] Creating Layer loss
I0428 20:17:13.343451   821 net.cpp:408] loss <- ip1
I0428 20:17:13.343456   821 net.cpp:408] loss <- label
I0428 20:17:13.343461   821 net.cpp:382] loss -> loss
I0428 20:17:13.343477   821 layer_factory.hpp:77] Creating layer loss
…
I0428 20:17:13.344686   821 solver.cpp:173] Creating test net (#0) specified by net file: ECE595/mnist/train_test/var_everything2/lenet_train_test1289.prototxt
I0428 20:17:13.344710   821 net.cpp:296] The NetState phase (1) differed from the phase (0) specified by a rule in layer mnist
I0428 20:17:13.344805   821 net.cpp:53] Initializing net from parameters: 
name: "LeNet"
state {
  phase: TEST
}
layer {
  name: "mnist"
  type: "Data"
  top: "data"
  top: "label"
  include {
    phase: TEST
  }
  transform_param {
    scale: 0.00390625
  }
  data_param {
    source: "examples/mnist/mnist_test_lmdb"
    batch_size: 100
    backend: LMDB
  }
}
layer {
  name: "conv0"
  type: "Convolution"
  bottom: "data"
  top: "conv0"
  param {
    lr_mult: 1
  }
  param {
    lr_mult: 2
  }
  convolution_param {
    num_output: 50
    kernel_size: 5
    stride: 1
    weight_filler {
      type: "xavier"
    }
    bias_filler {
      type: "constant"
    }
  }
}
layer {
  name: "pool0"
  type: "Pooling"
  bottom: "conv0"
  top: "pool0"
  pooling_param {
    pool: MAX
    kernel_size: 2
    stride: 2
  }
}
layer {
  name: "conv1"
  type: "Convolution"
  bottom: "pool0"
  top: "conv1"
  param {
    lr_mult: 1
  }
  param {
    lr_mult: 2
  }
  convolution_param {
    num_output: 10
    kernel_size: 5
    stride: 1
    weight_filler {
      type: "xavier"
    }
    bias_filler {
      type: "constant"
    }
  }
}
layer {
  name: "pool1"
  type: "Pooling"
  bottom: "conv1"
  top: "pool1"
  pooling_param {
    pool: MAX
    kernel_size: 2
    stride: 2
  }
}
layer {
  name: "ip1"
  type: "InnerProduct"
  bottom: "pool1"
  top: "ip1"
  param {
    lr_mult: 1
  }
  param {
    lr_mult: 2
  }
  inner_product_param {
    num_output: 10
    weight_filler {
      type: "xavier"
    }
    bias_filler {
      type: "constant"
    }
  }
}
layer {
  name: "relu1"
  type: "ReLU"
  bottom: "ip1"
  top: "ip1"
}
layer {
  name: "accuracy"
  type: "Accuracy"
  bottom: "ip1"
  bottom: "label"
  top: "accuracy"
  include {
    phase: TEST
  }
}
layer {
  name: "loss"
  type: "SoftmaxWithLoss"
  bottom: "ip1"
  bottom: "label"
  top: "loss"
}
I0428 20:17:13.344895   821 layer_factory.hpp:77] Creating layer mnist
I0428 20:17:13.344941   821 db_lmdb.cpp:35] Opened lmdb examples/mnist/mnist_test_lmdb
I0428 20:17:13.344957   821 net.cpp:86] Creating Layer mnist
I0428 20:17:13.344962   821 net.cpp:382] mnist -> data
I0428 20:17:13.344971   821 net.cpp:382] mnist -> label
I0428 20:17:13.345062   821 data_layer.cpp:45] output data size: 100,1,28,28
I0428 20:17:13.347103   821 net.cpp:124] Setting up mnist
I0428 20:17:13.347137   821 net.cpp:131] Top shape: 100 1 28 28 (78400)
I0428 20:17:13.347143   821 net.cpp:131] Top shape: 100 (100)
I0428 20:17:13.347146   821 net.cpp:139] Memory required for data: 314000
I0428 20:17:13.347151   821 layer_factory.hpp:77] Creating layer label_mnist_1_split
I0428 20:17:13.347172   821 net.cpp:86] Creating Layer label_mnist_1_split
I0428 20:17:13.347177   821 net.cpp:408] label_mnist_1_split <- label
I0428 20:17:13.347182   821 net.cpp:382] label_mnist_1_split -> label_mnist_1_split_0
I0428 20:17:13.347190   821 net.cpp:382] label_mnist_1_split -> label_mnist_1_split_1
I0428 20:17:13.347280   821 net.cpp:124] Setting up label_mnist_1_split
I0428 20:17:13.347287   821 net.cpp:131] Top shape: 100 (100)
I0428 20:17:13.347291   821 net.cpp:131] Top shape: 100 (100)
I0428 20:17:13.347295   821 net.cpp:139] Memory required for data: 314800
I0428 20:17:13.347297   821 layer_factory.hpp:77] Creating layer conv0
I0428 20:17:13.347306   821 net.cpp:86] Creating Layer conv0
I0428 20:17:13.347311   821 net.cpp:408] conv0 <- data
I0428 20:17:13.347316   821 net.cpp:382] conv0 -> conv0
I0428 20:17:13.348306   821 net.cpp:124] Setting up conv0
I0428 20:17:13.348318   821 net.cpp:131] Top shape: 100 50 24 24 (2880000)
I0428 20:17:13.348338   821 net.cpp:139] Memory required for data: 11834800
I0428 20:17:13.348358   821 layer_factory.hpp:77] Creating layer pool0
I0428 20:17:13.348366   821 net.cpp:86] Creating Layer pool0
I0428 20:17:13.348369   821 net.cpp:408] pool0 <- conv0
I0428 20:17:13.348374   821 net.cpp:382] pool0 -> pool0
I0428 20:17:13.348423   821 net.cpp:124] Setting up pool0
I0428 20:17:13.348428   821 net.cpp:131] Top shape: 100 50 12 12 (720000)
I0428 20:17:13.348431   821 net.cpp:139] Memory required for data: 14714800
I0428 20:17:13.348434   821 layer_factory.hpp:77] Creating layer conv1
I0428 20:17:13.348443   821 net.cpp:86] Creating Layer conv1
I0428 20:17:13.348446   821 net.cpp:408] conv1 <- pool0
I0428 20:17:13.348453   821 net.cpp:382] conv1 -> conv1
I0428 20:17:13.350244   821 net.cpp:124] Setting up conv1
I0428 20:17:13.350260   821 net.cpp:131] Top shape: 100 10 8 8 (64000)
I0428 20:17:13.350263   821 net.cpp:139] Memory required for data: 14970800
I0428 20:17:13.350273   821 layer_factory.hpp:77] Creating layer pool1
I0428 20:17:13.350281   821 net.cpp:86] Creating Layer pool1
I0428 20:17:13.350297   821 net.cpp:408] pool1 <- conv1
I0428 20:17:13.350304   821 net.cpp:382] pool1 -> pool1
I0428 20:17:13.350345   821 net.cpp:124] Setting up pool1
I0428 20:17:13.350353   821 net.cpp:131] Top shape: 100 10 4 4 (16000)
I0428 20:17:13.350358   821 net.cpp:139] Memory required for data: 15034800
I0428 20:17:13.350360   821 layer_factory.hpp:77] Creating layer ip1
I0428 20:17:13.350368   821 net.cpp:86] Creating Layer ip1
I0428 20:17:13.350371   821 net.cpp:408] ip1 <- pool1
I0428 20:17:13.350378   821 net.cpp:382] ip1 -> ip1
I0428 20:17:13.350497   821 net.cpp:124] Setting up ip1
I0428 20:17:13.350504   821 net.cpp:131] Top shape: 100 10 (1000)
I0428 20:17:13.350507   821 net.cpp:139] Memory required for data: 15038800
I0428 20:17:13.350514   821 layer_factory.hpp:77] Creating layer relu1
I0428 20:17:13.350520   821 net.cpp:86] Creating Layer relu1
I0428 20:17:13.350523   821 net.cpp:408] relu1 <- ip1
I0428 20:17:13.350529   821 net.cpp:369] relu1 -> ip1 (in-place)
I0428 20:17:13.351414   821 net.cpp:124] Setting up relu1
I0428 20:17:13.351426   821 net.cpp:131] Top shape: 100 10 (1000)
I0428 20:17:13.351430   821 net.cpp:139] Memory required for data: 15042800
I0428 20:17:13.351434   821 layer_factory.hpp:77] Creating layer ip1_relu1_0_split
I0428 20:17:13.351442   821 net.cpp:86] Creating Layer ip1_relu1_0_split
I0428 20:17:13.351446   821 net.cpp:408] ip1_relu1_0_split <- ip1
I0428 20:17:13.351454   821 net.cpp:382] ip1_relu1_0_split -> ip1_relu1_0_split_0
I0428 20:17:13.351461   821 net.cpp:382] ip1_relu1_0_split -> ip1_relu1_0_split_1
I0428 20:17:13.351506   821 net.cpp:124] Setting up ip1_relu1_0_split
I0428 20:17:13.351529   821 net.cpp:131] Top shape: 100 10 (1000)
I0428 20:17:13.351533   821 net.cpp:131] Top shape: 100 10 (1000)
I0428 20:17:13.351536   821 net.cpp:139] Memory required for data: 15050800
I0428 20:17:13.351539   821 layer_factory.hpp:77] Creating layer accuracy
I0428 20:17:13.351546   821 net.cpp:86] Creating Layer accuracy
I0428 20:17:13.351549   821 net.cpp:408] accuracy <- ip1_relu1_0_split_0
I0428 20:17:13.351553   821 net.cpp:408] accuracy <- label_mnist_1_split_0
I0428 20:17:13.351557   821 net.cpp:382] accuracy -> accuracy
…
