…
I0428 20:18:12.841323  1076 net.cpp:296] The NetState phase (0) differed from the phase (1) specified by a rule in layer mnist
I0428 20:18:12.841356  1076 net.cpp:296] The NetState phase (0) differed from the phase (1) specified by a rule in layer accuracy
I0428 20:18:12.841437  1076 net.cpp:53] Initializing net from parameters: 
name: "LeNet"
state {
  phase: TRAIN
  level: 0
  stage: ""
}
layer {
  name: "mnist"
  type: "Data"
  top: "data"
  top: "label"
  include {
    phase: TRAIN
  }
  transform_param {
    scale: 0.00390625
  }
  data_param {
    source: "examples/mnist/mnist_train_lmdb"
    batch_size: 64
    backend: LMDB
  }
}
layer {
  name: "conv0"
  type: "Convolution"
  bottom: "data"
  top: "conv0"
  param {
    lr_mult: 1
  }
  param {
    lr_mult: 2
  }
  convolution_param {
    num_output: 50
    kernel_size: 5
    stride: 1
    weight_filler {
      type: "xavier"
    }
    bias_filler {
      type: "constant"
    }
  }
}
layer {
  name: "pool0"
  type: "Pooling"
  bottom: "conv0"
  top: "pool0"
  pooling_param {
    pool: MAX
    kernel_size: 2
    stride: 2
  }
}
layer {
  name: "conv1"
  type: "Convolution"
  bottom: "pool0"
  top: "conv1"
  param {
    lr_mult: 1
  }
  param {
    lr_mult: 2
  }
  convolution_param {
    num_output: 10
    kernel_size: 5
    stride: 1
    weight_filler {
      type: "xavier"
    }
    bias_filler {
      type: "constant"
    }
  }
}
layer {
  name: "pool1"
  type: "Pooling"
  bottom: "conv1"
  top: "pool1"
  pooling_param {
    pool: MAX
    kernel_size: 2
    stride: 2
  }
}
layer {
  name: "ip1"
  type: "InnerProduct"
  bottom: "pool1"
  top: "ip1"
  param {
    lr_mult: 1
  }
  param {
    lr_mult: 2
  }
  inner_product_param {
    num_output: 25
    weight_filler {
      type: "xavier"
    }
    bias_filler {
      type: "constant"
    }
  }
}
layer {
  name: "relu1"
  type: "ReLU"
  bottom: "ip1"
  top: "ip1"
}
layer {
  name: "ip2"
  type: "InnerProduct"
  bottom: "ip1"
  top: "ip2"
  param {
    lr_mult: 1
  }
  param {
    lr_mult: 2
  }
  inner_product_param {
    num_output: 25
    weight_filler {
      type: "xavier"
    }
    bias_filler {
      type: "constant"
    }
  }
}
layer {
  name: "relu2"
  type: "ReLU"
  bottom: "ip2"
  top: "ip2"
}
layer {
  name: "ip3"
  type: "InnerProduct"
  bottom: "ip2"
  top: "ip3"
  param {
    lr_mult: 1
  }
  param {
    lr_mult: 2
  }
  inner_product_param {
    num_output: 10
    weight_filler {
      type: "xavier"
    }
    bias_filler {
      type: "constant"
    }
  }
}
layer {
  name: "relu3"
  type: "ReLU"
  bottom: "ip3"
  top: "ip3"
}
layer {
  name: "loss"
  type: "SoftmaxWithLoss"
  bottom: "ip3"
  bottom: "label"
  top: "loss"
}
I0428 20:18:12.841500  1076 layer_factory.hpp:77] Creating layer mnist
I0428 20:18:12.841583  1076 db_lmdb.cpp:35] Opened lmdb examples/mnist/mnist_train_lmdb
I0428 20:18:12.841603  1076 net.cpp:86] Creating Layer mnist
I0428 20:18:12.841609  1076 net.cpp:382] mnist -> data
I0428 20:18:12.841627  1076 net.cpp:382] mnist -> label
I0428 20:18:12.842509  1076 data_layer.cpp:45] output data size: 64,1,28,28
I0428 20:18:12.844835  1076 net.cpp:124] Setting up mnist
I0428 20:18:12.844866  1076 net.cpp:131] Top shape: 64 1 28 28 (50176)
I0428 20:18:12.844888  1076 net.cpp:131] Top shape: 64 (64)
I0428 20:18:12.844892  1076 net.cpp:139] Memory required for data: 200960
I0428 20:18:12.844897  1076 layer_factory.hpp:77] Creating layer conv0
I0428 20:18:12.844910  1076 net.cpp:86] Creating Layer conv0
I0428 20:18:12.844928  1076 net.cpp:408] conv0 <- data
I0428 20:18:12.844940  1076 net.cpp:382] conv0 -> conv0
I0428 20:18:13.070263  1076 net.cpp:124] Setting up conv0
I0428 20:18:13.070304  1076 net.cpp:131] Top shape: 64 50 24 24 (1843200)
I0428 20:18:13.070309  1076 net.cpp:139] Memory required for data: 7573760
I0428 20:18:13.070324  1076 layer_factory.hpp:77] Creating layer pool0
I0428 20:18:13.070354  1076 net.cpp:86] Creating Layer pool0
I0428 20:18:13.070358  1076 net.cpp:408] pool0 <- conv0
I0428 20:18:13.070363  1076 net.cpp:382] pool0 -> pool0
I0428 20:18:13.070410  1076 net.cpp:124] Setting up pool0
I0428 20:18:13.070417  1076 net.cpp:131] Top shape: 64 50 12 12 (460800)
I0428 20:18:13.070420  1076 net.cpp:139] Memory required for data: 9416960
I0428 20:18:13.070423  1076 layer_factory.hpp:77] Creating layer conv1
I0428 20:18:13.070436  1076 net.cpp:86] Creating Layer conv1
I0428 20:18:13.070439  1076 net.cpp:408] conv1 <- pool0
I0428 20:18:13.070444  1076 net.cpp:382] conv1 -> conv1
I0428 20:18:13.073269  1076 net.cpp:124] Setting up conv1
I0428 20:18:13.073298  1076 net.cpp:131] Top shape: 64 10 8 8 (40960)
I0428 20:18:13.073302  1076 net.cpp:139] Memory required for data: 9580800
I0428 20:18:13.073328  1076 layer_factory.hpp:77] Creating layer pool1
I0428 20:18:13.073335  1076 net.cpp:86] Creating Layer pool1
I0428 20:18:13.073338  1076 net.cpp:408] pool1 <- conv1
I0428 20:18:13.073343  1076 net.cpp:382] pool1 -> pool1
I0428 20:18:13.073380  1076 net.cpp:124] Setting up pool1
I0428 20:18:13.073387  1076 net.cpp:131] Top shape: 64 10 4 4 (10240)
I0428 20:18:13.073390  1076 net.cpp:139] Memory required for data: 9621760
I0428 20:18:13.073393  1076 layer_factory.hpp:77] Creating layer ip1
I0428 20:18:13.073400  1076 net.cpp:86] Creating Layer ip1
I0428 20:18:13.073403  1076 net.cpp:408] ip1 <- pool1
I0428 20:18:13.073407  1076 net.cpp:382] ip1 -> ip1
I0428 20:18:13.073535  1076 net.cpp:124] Setting up ip1
I0428 20:18:13.073544  1076 net.cpp:131] Top shape: 64 25 (1600)
I0428 20:18:13.073546  1076 net.cpp:139] Memory required for data: 9628160
I0428 20:18:13.073554  1076 layer_factory.hpp:77] Creating layer relu1
I0428 20:18:13.073559  1076 net.cpp:86] Creating Layer relu1
I0428 20:18:13.073563  1076 net.cpp:408] relu1 <- ip1
I0428 20:18:13.073567  1076 net.cpp:369] relu1 -> ip1 (in-place)
I0428 20:18:13.073727  1076 net.cpp:124] Setting up relu1
I0428 20:18:13.073735  1076 net.cpp:131] Top shape: 64 25 (1600)
I0428 20:18:13.073738  1076 net.cpp:139] Memory required for data: 9634560
I0428 20:18:13.073741  1076 layer_factory.hpp:77] Creating layer ip2
I0428 20:18:13.073748  1076 net.cpp:86] Creating Layer ip2
I0428 20:18:13.073751  1076 net.cpp:408] ip2 <- ip1
I0428 20:18:13.073755  1076 net.cpp:382] ip2 -> ip2
I0428 20:18:13.073848  1076 net.cpp:124] Setting up ip2
I0428 20:18:13.073855  1076 net.cpp:131] Top shape: 64 25 (1600)
I0428 20:18:13.073858  1076 net.cpp:139] Memory required for data: 9640960
I0428 20:18:13.073864  1076 layer_factory.hpp:77] Creating layer relu2
I0428 20:18:13.073870  1076 net.cpp:86] Creating Layer relu2
I0428 20:18:13.073873  1076 net.cpp:408] relu2 <- ip2
I0428 20:18:13.073878  1076 net.cpp:369] relu2 -> ip2 (in-place)
I0428 20:18:13.074604  1076 net.cpp:124] Setting up relu2
I0428 20:18:13.074617  1076 net.cpp:131] Top shape: 64 25 (1600)
I0428 20:18:13.074635  1076 net.cpp:139] Memory required for data: 9647360
I0428 20:18:13.074640  1076 layer_factory.hpp:77] Creating layer ip3
I0428 20:18:13.074646  1076 net.cpp:86] Creating Layer ip3
I0428 20:18:13.074650  1076 net.cpp:408] ip3 <- ip2
I0428 20:18:13.074656  1076 net.cpp:382] ip3 -> ip3
I0428 20:18:13.074753  1076 net.cpp:124] Setting up ip3
I0428 20:18:13.074760  1076 net.cpp:131] Top shape: 64 10 (640)
I0428 20:18:13.074764  1076 net.cpp:139] Memory required for data: 9649920
I0428 20:18:13.074771  1076 layer_factory.hpp:77] Creating layer relu3
I0428 20:18:13.074779  1076 net.cpp:86] Creating Layer relu3
I0428 20:18:13.074781  1076 net.cpp:408] relu3 <- ip3
I0428 20:18:13.074786  1076 net.cpp:369] relu3 -> ip3 (in-place)
I0428 20:18:13.074951  1076 net.cpp:124] Setting up relu3
I0428 20:18:13.074959  1076 net.cpp:131] Top shape: 64 10 (640)
I0428 20:18:13.074964  1076 net.cpp:139] Memory required for data: 9652480
I0428 20:18:13.074966  1076 layer_factory.hpp:77] Creating layer loss
I0428 20:18:13.074971  1076 net.cpp:86] Creating Layer loss
I0428 20:18:13.074975  1076 net.cpp:408] loss <- ip3
I0428 20:18:13.074980  1076 net.cpp:408] loss <- label
I0428 20:18:13.074985  1076 net.cpp:382] loss -> loss
I0428 20:18:13.075000  1076 layer_factory.hpp:77] Creating layer loss
…
I0428 20:18:13.075664  1076 solver.cpp:173] Creating test net (#0) specified by net file: ECE595/mnist/train_test/var_everything2/lenet_train_test1313.prototxt
I0428 20:18:13.075702  1076 net.cpp:296] The NetState phase (1) differed from the phase (0) specified by a rule in layer mnist
I0428 20:18:13.075810  1076 net.cpp:53] Initializing net from parameters: 
name: "LeNet"
state {
  phase: TEST
}
layer {
  name: "mnist"
  type: "Data"
  top: "data"
  top: "label"
  include {
    phase: TEST
  }
  transform_param {
    scale: 0.00390625
  }
  data_param {
    source: "examples/mnist/mnist_test_lmdb"
    batch_size: 100
    backend: LMDB
  }
}
layer {
  name: "conv0"
  type: "Convolution"
  bottom: "data"
  top: "conv0"
  param {
    lr_mult: 1
  }
  param {
    lr_mult: 2
  }
  convolution_param {
    num_output: 50
    kernel_size: 5
    stride: 1
    weight_filler {
      type: "xavier"
    }
    bias_filler {
      type: "constant"
    }
  }
}
layer {
  name: "pool0"
  type: "Pooling"
  bottom: "conv0"
  top: "pool0"
  pooling_param {
    pool: MAX
    kernel_size: 2
    stride: 2
  }
}
layer {
  name: "conv1"
  type: "Convolution"
  bottom: "pool0"
  top: "conv1"
  param {
    lr_mult: 1
  }
  param {
    lr_mult: 2
  }
  convolution_param {
    num_output: 10
    kernel_size: 5
    stride: 1
    weight_filler {
      type: "xavier"
    }
    bias_filler {
      type: "constant"
    }
  }
}
layer {
  name: "pool1"
  type: "Pooling"
  bottom: "conv1"
  top: "pool1"
  pooling_param {
    pool: MAX
    kernel_size: 2
    stride: 2
  }
}
layer {
  name: "ip1"
  type: "InnerProduct"
  bottom: "pool1"
  top: "ip1"
  param {
    lr_mult: 1
  }
  param {
    lr_mult: 2
  }
  inner_product_param {
    num_output: 25
    weight_filler {
      type: "xavier"
    }
    bias_filler {
      type: "constant"
    }
  }
}
layer {
  name: "relu1"
  type: "ReLU"
  bottom: "ip1"
  top: "ip1"
}
layer {
  name: "ip2"
  type: "InnerProduct"
  bottom: "ip1"
  top: "ip2"
  param {
    lr_mult: 1
  }
  param {
    lr_mult: 2
  }
  inner_product_param {
    num_output: 25
    weight_filler {
      type: "xavier"
    }
    bias_filler {
      type: "constant"
    }
  }
}
layer {
  name: "relu2"
  type: "ReLU"
  bottom: "ip2"
  top: "ip2"
}
layer {
  name: "ip3"
  type: "InnerProduct"
  bottom: "ip2"
  top: "ip3"
  param {
    lr_mult: 1
  }
  param {
    lr_mult: 2
  }
  inner_product_param {
    num_output: 10
    weight_filler {
      type: "xavier"
    }
    bias_filler {
      type: "constant"
    }
  }
}
layer {
  name: "relu3"
  type: "ReLU"
  bottom: "ip3"
  top: "ip3"
}
layer {
  name: "accuracy"
  type: "Accuracy"
  bottom: "ip3"
  bottom: "label"
  top: "accuracy"
  include {
    phase: TEST
  }
}
layer {
  name: "loss"
  type: "SoftmaxWithLoss"
  bottom: "ip3"
  bottom: "label"
  top: "loss"
}
I0428 20:18:13.075891  1076 layer_factory.hpp:77] Creating layer mnist
I0428 20:18:13.075939  1076 db_lmdb.cpp:35] Opened lmdb examples/mnist/mnist_test_lmdb
I0428 20:18:13.075953  1076 net.cpp:86] Creating Layer mnist
I0428 20:18:13.075958  1076 net.cpp:382] mnist -> data
I0428 20:18:13.075980  1076 net.cpp:382] mnist -> label
I0428 20:18:13.076064  1076 data_layer.cpp:45] output data size: 100,1,28,28
I0428 20:18:13.078112  1076 net.cpp:124] Setting up mnist
I0428 20:18:13.078152  1076 net.cpp:131] Top shape: 100 1 28 28 (78400)
I0428 20:18:13.078158  1076 net.cpp:131] Top shape: 100 (100)
I0428 20:18:13.078172  1076 net.cpp:139] Memory required for data: 314000
I0428 20:18:13.078176  1076 layer_factory.hpp:77] Creating layer label_mnist_1_split
I0428 20:18:13.078183  1076 net.cpp:86] Creating Layer label_mnist_1_split
I0428 20:18:13.078186  1076 net.cpp:408] label_mnist_1_split <- label
I0428 20:18:13.078191  1076 net.cpp:382] label_mnist_1_split -> label_mnist_1_split_0
I0428 20:18:13.078198  1076 net.cpp:382] label_mnist_1_split -> label_mnist_1_split_1
I0428 20:18:13.078291  1076 net.cpp:124] Setting up label_mnist_1_split
I0428 20:18:13.078300  1076 net.cpp:131] Top shape: 100 (100)
I0428 20:18:13.078305  1076 net.cpp:131] Top shape: 100 (100)
I0428 20:18:13.078307  1076 net.cpp:139] Memory required for data: 314800
I0428 20:18:13.078310  1076 layer_factory.hpp:77] Creating layer conv0
I0428 20:18:13.078320  1076 net.cpp:86] Creating Layer conv0
I0428 20:18:13.078322  1076 net.cpp:408] conv0 <- data
I0428 20:18:13.078327  1076 net.cpp:382] conv0 -> conv0
I0428 20:18:13.080040  1076 net.cpp:124] Setting up conv0
I0428 20:18:13.080054  1076 net.cpp:131] Top shape: 100 50 24 24 (2880000)
I0428 20:18:13.080073  1076 net.cpp:139] Memory required for data: 11834800
I0428 20:18:13.080082  1076 layer_factory.hpp:77] Creating layer pool0
I0428 20:18:13.080088  1076 net.cpp:86] Creating Layer pool0
I0428 20:18:13.080092  1076 net.cpp:408] pool0 <- conv0
I0428 20:18:13.080096  1076 net.cpp:382] pool0 -> pool0
I0428 20:18:13.080143  1076 net.cpp:124] Setting up pool0
I0428 20:18:13.080148  1076 net.cpp:131] Top shape: 100 50 12 12 (720000)
I0428 20:18:13.080152  1076 net.cpp:139] Memory required for data: 14714800
I0428 20:18:13.080154  1076 layer_factory.hpp:77] Creating layer conv1
I0428 20:18:13.080163  1076 net.cpp:86] Creating Layer conv1
I0428 20:18:13.080168  1076 net.cpp:408] conv1 <- pool0
I0428 20:18:13.080171  1076 net.cpp:382] conv1 -> conv1
I0428 20:18:13.081900  1076 net.cpp:124] Setting up conv1
I0428 20:18:13.081933  1076 net.cpp:131] Top shape: 100 10 8 8 (64000)
I0428 20:18:13.081939  1076 net.cpp:139] Memory required for data: 14970800
I0428 20:18:13.081965  1076 layer_factory.hpp:77] Creating layer pool1
I0428 20:18:13.081972  1076 net.cpp:86] Creating Layer pool1
I0428 20:18:13.081976  1076 net.cpp:408] pool1 <- conv1
I0428 20:18:13.081984  1076 net.cpp:382] pool1 -> pool1
I0428 20:18:13.082022  1076 net.cpp:124] Setting up pool1
I0428 20:18:13.082041  1076 net.cpp:131] Top shape: 100 10 4 4 (16000)
I0428 20:18:13.082044  1076 net.cpp:139] Memory required for data: 15034800
I0428 20:18:13.082069  1076 layer_factory.hpp:77] Creating layer ip1
I0428 20:18:13.082075  1076 net.cpp:86] Creating Layer ip1
I0428 20:18:13.082078  1076 net.cpp:408] ip1 <- pool1
I0428 20:18:13.082085  1076 net.cpp:382] ip1 -> ip1
I0428 20:18:13.082221  1076 net.cpp:124] Setting up ip1
I0428 20:18:13.082229  1076 net.cpp:131] Top shape: 100 25 (2500)
I0428 20:18:13.082243  1076 net.cpp:139] Memory required for data: 15044800
I0428 20:18:13.082252  1076 layer_factory.hpp:77] Creating layer relu1
I0428 20:18:13.082275  1076 net.cpp:86] Creating Layer relu1
I0428 20:18:13.082279  1076 net.cpp:408] relu1 <- ip1
I0428 20:18:13.082285  1076 net.cpp:369] relu1 -> ip1 (in-place)
I0428 20:18:13.082463  1076 net.cpp:124] Setting up relu1
I0428 20:18:13.082473  1076 net.cpp:131] Top shape: 100 25 (2500)
I0428 20:18:13.082478  1076 net.cpp:139] Memory required for data: 15054800
I0428 20:18:13.082480  1076 layer_factory.hpp:77] Creating layer ip2
I0428 20:18:13.082489  1076 net.cpp:86] Creating Layer ip2
I0428 20:18:13.082499  1076 net.cpp:408] ip2 <- ip1
I0428 20:18:13.082504  1076 net.cpp:382] ip2 -> ip2
I0428 20:18:13.082610  1076 net.cpp:124] Setting up ip2
I0428 20:18:13.082617  1076 net.cpp:131] Top shape: 100 25 (2500)
I0428 20:18:13.082635  1076 net.cpp:139] Memory required for data: 15064800
I0428 20:18:13.082641  1076 layer_factory.hpp:77] Creating layer relu2
I0428 20:18:13.082646  1076 net.cpp:86] Creating Layer relu2
I0428 20:18:13.082649  1076 net.cpp:408] relu2 <- ip2
I0428 20:18:13.082655  1076 net.cpp:369] relu2 -> ip2 (in-place)
I0428 20:18:13.082978  1076 net.cpp:124] Setting up relu2
I0428 20:18:13.082986  1076 net.cpp:131] Top shape: 100 25 (2500)
I0428 20:18:13.082989  1076 net.cpp:139] Memory required for data: 15074800
I0428 20:18:13.082993  1076 layer_factory.hpp:77] Creating layer ip3
I0428 20:18:13.083014  1076 net.cpp:86] Creating Layer ip3
I0428 20:18:13.083019  1076 net.cpp:408] ip3 <- ip2
I0428 20:18:13.083026  1076 net.cpp:382] ip3 -> ip3
I0428 20:18:13.083155  1076 net.cpp:124] Setting up ip3
I0428 20:18:13.083163  1076 net.cpp:131] Top shape: 100 10 (1000)
I0428 20:18:13.083168  1076 net.cpp:139] Memory required for data: 15078800
I0428 20:18:13.083175  1076 layer_factory.hpp:77] Creating layer relu3
I0428 20:18:13.083181  1076 net.cpp:86] Creating Layer relu3
I0428 20:18:13.083184  1076 net.cpp:408] relu3 <- ip3
I0428 20:18:13.083189  1076 net.cpp:369] relu3 -> ip3 (in-place)
I0428 20:18:13.084060  1076 net.cpp:124] Setting up relu3
I0428 20:18:13.084071  1076 net.cpp:131] Top shape: 100 10 (1000)
I0428 20:18:13.084091  1076 net.cpp:139] Memory required for data: 15082800
I0428 20:18:13.084095  1076 layer_factory.hpp:77] Creating layer ip3_relu3_0_split
I0428 20:18:13.084101  1076 net.cpp:86] Creating Layer ip3_relu3_0_split
I0428 20:18:13.084105  1076 net.cpp:408] ip3_relu3_0_split <- ip3
I0428 20:18:13.084110  1076 net.cpp:382] ip3_relu3_0_split -> ip3_relu3_0_split_0
I0428 20:18:13.084115  1076 net.cpp:382] ip3_relu3_0_split -> ip3_relu3_0_split_1
I0428 20:18:13.084177  1076 net.cpp:124] Setting up ip3_relu3_0_split
I0428 20:18:13.084184  1076 net.cpp:131] Top shape: 100 10 (1000)
I0428 20:18:13.084188  1076 net.cpp:131] Top shape: 100 10 (1000)
I0428 20:18:13.084192  1076 net.cpp:139] Memory required for data: 15090800
I0428 20:18:13.084194  1076 layer_factory.hpp:77] Creating layer accuracy
I0428 20:18:13.084198  1076 net.cpp:86] Creating Layer accuracy
I0428 20:18:13.084202  1076 net.cpp:408] accuracy <- ip3_relu3_0_split_0
I0428 20:18:13.084206  1076 net.cpp:408] accuracy <- label_mnist_1_split_0
I0428 20:18:13.084211  1076 net.cpp:382] accuracy -> accuracy
…
