…
I0428 20:18:35.657635  1169 net.cpp:296] The NetState phase (0) differed from the phase (1) specified by a rule in layer mnist
I0428 20:18:35.657672  1169 net.cpp:296] The NetState phase (0) differed from the phase (1) specified by a rule in layer accuracy
I0428 20:18:35.657810  1169 net.cpp:53] Initializing net from parameters: 
name: "LeNet"
state {
  phase: TRAIN
  level: 0
  stage: ""
}
layer {
  name: "mnist"
  type: "Data"
  top: "data"
  top: "label"
  include {
    phase: TRAIN
  }
  transform_param {
    scale: 0.00390625
  }
  data_param {
    source: "examples/mnist/mnist_train_lmdb"
    batch_size: 64
    backend: LMDB
  }
}
layer {
  name: "conv0"
  type: "Convolution"
  bottom: "data"
  top: "conv0"
  param {
    lr_mult: 1
  }
  param {
    lr_mult: 2
  }
  convolution_param {
    num_output: 50
    kernel_size: 5
    stride: 1
    weight_filler {
      type: "xavier"
    }
    bias_filler {
      type: "constant"
    }
  }
}
layer {
  name: "pool0"
  type: "Pooling"
  bottom: "conv0"
  top: "pool0"
  pooling_param {
    pool: MAX
    kernel_size: 2
    stride: 2
  }
}
layer {
  name: "conv1"
  type: "Convolution"
  bottom: "pool0"
  top: "conv1"
  param {
    lr_mult: 1
  }
  param {
    lr_mult: 2
  }
  convolution_param {
    num_output: 10
    kernel_size: 5
    stride: 1
    weight_filler {
      type: "xavier"
    }
    bias_filler {
      type: "constant"
    }
  }
}
layer {
  name: "pool1"
  type: "Pooling"
  bottom: "conv1"
  top: "pool1"
  pooling_param {
    pool: MAX
    kernel_size: 2
    stride: 2
  }
}
layer {
  name: "ip1"
  type: "InnerProduct"
  bottom: "pool1"
  top: "ip1"
  param {
    lr_mult: 1
  }
  param {
    lr_mult: 2
  }
  inner_product_param {
    num_output: 50
    weight_filler {
      type: "xavier"
    }
    bias_filler {
      type: "constant"
    }
  }
}
layer {
  name: "relu1"
  type: "ReLU"
  bottom: "ip1"
  top: "ip1"
}
layer {
  name: "ip2"
  type: "InnerProduct"
  bottom: "ip1"
  top: "ip2"
  param {
    lr_mult: 1
  }
  param {
    lr_mult: 2
  }
  inner_product_param {
    num_output: 25
    weight_filler {
      type: "xavier"
    }
    bias_filler {
      type: "constant"
    }
  }
}
layer {
  name: "relu2"
  type: "ReLU"
  bottom: "ip2"
  top: "ip2"
}
layer {
  name: "ip3"
  type: "InnerProduct"
  bottom: "ip2"
  top: "ip3"
  param {
    lr_mult: 1
  }
  param {
    lr_mult: 2
  }
  inner_product_param {
    num_output: 10
    weight_filler {
      type: "xavier"
    }
    bias_filler {
      type: "constant"
    }
  }
}
layer {
  name: "relu3"
  type: "ReLU"
  bottom: "ip3"
  top: "ip3"
}
layer {
  name: "loss"
  type: "SoftmaxWithLoss"
  bottom: "ip3"
  bottom: "label"
  top: "loss"
}
I0428 20:18:35.657898  1169 layer_factory.hpp:77] Creating layer mnist
I0428 20:18:35.658037  1169 db_lmdb.cpp:35] Opened lmdb examples/mnist/mnist_train_lmdb
I0428 20:18:35.658071  1169 net.cpp:86] Creating Layer mnist
I0428 20:18:35.658082  1169 net.cpp:382] mnist -> data
I0428 20:18:35.658119  1169 net.cpp:382] mnist -> label
I0428 20:18:35.659545  1169 data_layer.cpp:45] output data size: 64,1,28,28
I0428 20:18:35.662127  1169 net.cpp:124] Setting up mnist
I0428 20:18:35.662158  1169 net.cpp:131] Top shape: 64 1 28 28 (50176)
I0428 20:18:35.662163  1169 net.cpp:131] Top shape: 64 (64)
I0428 20:18:35.662166  1169 net.cpp:139] Memory required for data: 200960
I0428 20:18:35.662171  1169 layer_factory.hpp:77] Creating layer conv0
I0428 20:18:35.662189  1169 net.cpp:86] Creating Layer conv0
I0428 20:18:35.662212  1169 net.cpp:408] conv0 <- data
I0428 20:18:35.662230  1169 net.cpp:382] conv0 -> conv0
I0428 20:18:35.898782  1169 net.cpp:124] Setting up conv0
I0428 20:18:35.898808  1169 net.cpp:131] Top shape: 64 50 24 24 (1843200)
I0428 20:18:35.898813  1169 net.cpp:139] Memory required for data: 7573760
I0428 20:18:35.898828  1169 layer_factory.hpp:77] Creating layer pool0
I0428 20:18:35.898844  1169 net.cpp:86] Creating Layer pool0
I0428 20:18:35.898849  1169 net.cpp:408] pool0 <- conv0
I0428 20:18:35.898856  1169 net.cpp:382] pool0 -> pool0
I0428 20:18:35.898916  1169 net.cpp:124] Setting up pool0
I0428 20:18:35.898926  1169 net.cpp:131] Top shape: 64 50 12 12 (460800)
I0428 20:18:35.898931  1169 net.cpp:139] Memory required for data: 9416960
I0428 20:18:35.898936  1169 layer_factory.hpp:77] Creating layer conv1
I0428 20:18:35.898950  1169 net.cpp:86] Creating Layer conv1
I0428 20:18:35.898955  1169 net.cpp:408] conv1 <- pool0
I0428 20:18:35.898963  1169 net.cpp:382] conv1 -> conv1
I0428 20:18:35.902310  1169 net.cpp:124] Setting up conv1
I0428 20:18:35.902340  1169 net.cpp:131] Top shape: 64 10 8 8 (40960)
I0428 20:18:35.902343  1169 net.cpp:139] Memory required for data: 9580800
I0428 20:18:35.902354  1169 layer_factory.hpp:77] Creating layer pool1
I0428 20:18:35.902361  1169 net.cpp:86] Creating Layer pool1
I0428 20:18:35.902364  1169 net.cpp:408] pool1 <- conv1
I0428 20:18:35.902369  1169 net.cpp:382] pool1 -> pool1
I0428 20:18:35.902420  1169 net.cpp:124] Setting up pool1
I0428 20:18:35.902429  1169 net.cpp:131] Top shape: 64 10 4 4 (10240)
I0428 20:18:35.902434  1169 net.cpp:139] Memory required for data: 9621760
I0428 20:18:35.902438  1169 layer_factory.hpp:77] Creating layer ip1
I0428 20:18:35.902449  1169 net.cpp:86] Creating Layer ip1
I0428 20:18:35.902453  1169 net.cpp:408] ip1 <- pool1
I0428 20:18:35.902462  1169 net.cpp:382] ip1 -> ip1
I0428 20:18:35.902671  1169 net.cpp:124] Setting up ip1
I0428 20:18:35.902683  1169 net.cpp:131] Top shape: 64 50 (3200)
I0428 20:18:35.902688  1169 net.cpp:139] Memory required for data: 9634560
I0428 20:18:35.902698  1169 layer_factory.hpp:77] Creating layer relu1
I0428 20:18:35.902709  1169 net.cpp:86] Creating Layer relu1
I0428 20:18:35.902714  1169 net.cpp:408] relu1 <- ip1
I0428 20:18:35.902719  1169 net.cpp:369] relu1 -> ip1 (in-place)
I0428 20:18:35.902945  1169 net.cpp:124] Setting up relu1
I0428 20:18:35.902956  1169 net.cpp:131] Top shape: 64 50 (3200)
I0428 20:18:35.902961  1169 net.cpp:139] Memory required for data: 9647360
I0428 20:18:35.902966  1169 layer_factory.hpp:77] Creating layer ip2
I0428 20:18:35.902976  1169 net.cpp:86] Creating Layer ip2
I0428 20:18:35.902981  1169 net.cpp:408] ip2 <- ip1
I0428 20:18:35.902988  1169 net.cpp:382] ip2 -> ip2
I0428 20:18:35.903136  1169 net.cpp:124] Setting up ip2
I0428 20:18:35.903146  1169 net.cpp:131] Top shape: 64 25 (1600)
I0428 20:18:35.903151  1169 net.cpp:139] Memory required for data: 9653760
I0428 20:18:35.903159  1169 layer_factory.hpp:77] Creating layer relu2
I0428 20:18:35.903170  1169 net.cpp:86] Creating Layer relu2
I0428 20:18:35.903175  1169 net.cpp:408] relu2 <- ip2
I0428 20:18:35.903182  1169 net.cpp:369] relu2 -> ip2 (in-place)
I0428 20:18:35.904328  1169 net.cpp:124] Setting up relu2
I0428 20:18:35.904361  1169 net.cpp:131] Top shape: 64 25 (1600)
I0428 20:18:35.904366  1169 net.cpp:139] Memory required for data: 9660160
I0428 20:18:35.904372  1169 layer_factory.hpp:77] Creating layer ip3
I0428 20:18:35.904391  1169 net.cpp:86] Creating Layer ip3
I0428 20:18:35.904397  1169 net.cpp:408] ip3 <- ip2
I0428 20:18:35.904407  1169 net.cpp:382] ip3 -> ip3
I0428 20:18:35.904572  1169 net.cpp:124] Setting up ip3
I0428 20:18:35.904583  1169 net.cpp:131] Top shape: 64 10 (640)
I0428 20:18:35.904588  1169 net.cpp:139] Memory required for data: 9662720
I0428 20:18:35.904602  1169 layer_factory.hpp:77] Creating layer relu3
I0428 20:18:35.904608  1169 net.cpp:86] Creating Layer relu3
I0428 20:18:35.904614  1169 net.cpp:408] relu3 <- ip3
I0428 20:18:35.904620  1169 net.cpp:369] relu3 -> ip3 (in-place)
I0428 20:18:35.904934  1169 net.cpp:124] Setting up relu3
I0428 20:18:35.904948  1169 net.cpp:131] Top shape: 64 10 (640)
I0428 20:18:35.904953  1169 net.cpp:139] Memory required for data: 9665280
I0428 20:18:35.904959  1169 layer_factory.hpp:77] Creating layer loss
I0428 20:18:35.904968  1169 net.cpp:86] Creating Layer loss
I0428 20:18:35.904974  1169 net.cpp:408] loss <- ip3
I0428 20:18:35.904981  1169 net.cpp:408] loss <- label
I0428 20:18:35.904990  1169 net.cpp:382] loss -> loss
I0428 20:18:35.905011  1169 layer_factory.hpp:77] Creating layer loss
…
I0428 20:18:35.906158  1169 solver.cpp:173] Creating test net (#0) specified by net file: ECE595/mnist/train_test/var_everything2/lenet_train_test1322.prototxt
I0428 20:18:35.906201  1169 net.cpp:296] The NetState phase (1) differed from the phase (0) specified by a rule in layer mnist
I0428 20:18:35.906371  1169 net.cpp:53] Initializing net from parameters: 
name: "LeNet"
state {
  phase: TEST
}
layer {
  name: "mnist"
  type: "Data"
  top: "data"
  top: "label"
  include {
    phase: TEST
  }
  transform_param {
    scale: 0.00390625
  }
  data_param {
    source: "examples/mnist/mnist_test_lmdb"
    batch_size: 100
    backend: LMDB
  }
}
layer {
  name: "conv0"
  type: "Convolution"
  bottom: "data"
  top: "conv0"
  param {
    lr_mult: 1
  }
  param {
    lr_mult: 2
  }
  convolution_param {
    num_output: 50
    kernel_size: 5
    stride: 1
    weight_filler {
      type: "xavier"
    }
    bias_filler {
      type: "constant"
    }
  }
}
layer {
  name: "pool0"
  type: "Pooling"
  bottom: "conv0"
  top: "pool0"
  pooling_param {
    pool: MAX
    kernel_size: 2
    stride: 2
  }
}
layer {
  name: "conv1"
  type: "Convolution"
  bottom: "pool0"
  top: "conv1"
  param {
    lr_mult: 1
  }
  param {
    lr_mult: 2
  }
  convolution_param {
    num_output: 10
    kernel_size: 5
    stride: 1
    weight_filler {
      type: "xavier"
    }
    bias_filler {
      type: "constant"
    }
  }
}
layer {
  name: "pool1"
  type: "Pooling"
  bottom: "conv1"
  top: "pool1"
  pooling_param {
    pool: MAX
    kernel_size: 2
    stride: 2
  }
}
layer {
  name: "ip1"
  type: "InnerProduct"
  bottom: "pool1"
  top: "ip1"
  param {
    lr_mult: 1
  }
  param {
    lr_mult: 2
  }
  inner_product_param {
    num_output: 50
    weight_filler {
      type: "xavier"
    }
    bias_filler {
      type: "constant"
    }
  }
}
layer {
  name: "relu1"
  type: "ReLU"
  bottom: "ip1"
  top: "ip1"
}
layer {
  name: "ip2"
  type: "InnerProduct"
  bottom: "ip1"
  top: "ip2"
  param {
    lr_mult: 1
  }
  param {
    lr_mult: 2
  }
  inner_product_param {
    num_output: 25
    weight_filler {
      type: "xavier"
    }
    bias_filler {
      type: "constant"
    }
  }
}
layer {
  name: "relu2"
  type: "ReLU"
  bottom: "ip2"
  top: "ip2"
}
layer {
  name: "ip3"
  type: "InnerProduct"
  bottom: "ip2"
  top: "ip3"
  param {
    lr_mult: 1
  }
  param {
    lr_mult: 2
  }
  inner_product_param {
    num_output: 10
    weight_filler {
      type: "xavier"
    }
    bias_filler {
      type: "constant"
    }
  }
}
layer {
  name: "relu3"
  type: "ReLU"
  bottom: "ip3"
  top: "ip3"
}
layer {
  name: "accuracy"
  type: "Accuracy"
  bottom: "ip3"
  bottom: "label"
  top: "accuracy"
  include {
    phase: TEST
  }
}
layer {
  name: "loss"
  type: "SoftmaxWithLoss"
  bottom: "ip3"
  bottom: "label"
  top: "loss"
}
I0428 20:18:35.906528  1169 layer_factory.hpp:77] Creating layer mnist
I0428 20:18:35.906618  1169 db_lmdb.cpp:35] Opened lmdb examples/mnist/mnist_test_lmdb
I0428 20:18:35.906636  1169 net.cpp:86] Creating Layer mnist
I0428 20:18:35.906644  1169 net.cpp:382] mnist -> data
I0428 20:18:35.906656  1169 net.cpp:382] mnist -> label
I0428 20:18:35.906780  1169 data_layer.cpp:45] output data size: 100,1,28,28
I0428 20:18:35.909487  1169 net.cpp:124] Setting up mnist
I0428 20:18:35.909500  1169 net.cpp:131] Top shape: 100 1 28 28 (78400)
I0428 20:18:35.909514  1169 net.cpp:131] Top shape: 100 (100)
I0428 20:18:35.909518  1169 net.cpp:139] Memory required for data: 314000
I0428 20:18:35.909521  1169 layer_factory.hpp:77] Creating layer label_mnist_1_split
I0428 20:18:35.909530  1169 net.cpp:86] Creating Layer label_mnist_1_split
I0428 20:18:35.909536  1169 net.cpp:408] label_mnist_1_split <- label
I0428 20:18:35.909543  1169 net.cpp:382] label_mnist_1_split -> label_mnist_1_split_0
I0428 20:18:35.909554  1169 net.cpp:382] label_mnist_1_split -> label_mnist_1_split_1
I0428 20:18:35.909682  1169 net.cpp:124] Setting up label_mnist_1_split
I0428 20:18:35.909694  1169 net.cpp:131] Top shape: 100 (100)
I0428 20:18:35.909700  1169 net.cpp:131] Top shape: 100 (100)
I0428 20:18:35.909706  1169 net.cpp:139] Memory required for data: 314800
I0428 20:18:35.909711  1169 layer_factory.hpp:77] Creating layer conv0
I0428 20:18:35.909739  1169 net.cpp:86] Creating Layer conv0
I0428 20:18:35.909744  1169 net.cpp:408] conv0 <- data
I0428 20:18:35.909754  1169 net.cpp:382] conv0 -> conv0
I0428 20:18:35.911682  1169 net.cpp:124] Setting up conv0
I0428 20:18:35.911706  1169 net.cpp:131] Top shape: 100 50 24 24 (2880000)
I0428 20:18:35.911710  1169 net.cpp:139] Memory required for data: 11834800
I0428 20:18:35.911720  1169 layer_factory.hpp:77] Creating layer pool0
I0428 20:18:35.911730  1169 net.cpp:86] Creating Layer pool0
I0428 20:18:35.911734  1169 net.cpp:408] pool0 <- conv0
I0428 20:18:35.911743  1169 net.cpp:382] pool0 -> pool0
I0428 20:18:35.911798  1169 net.cpp:124] Setting up pool0
I0428 20:18:35.911810  1169 net.cpp:131] Top shape: 100 50 12 12 (720000)
I0428 20:18:35.911815  1169 net.cpp:139] Memory required for data: 14714800
I0428 20:18:35.911820  1169 layer_factory.hpp:77] Creating layer conv1
I0428 20:18:35.911835  1169 net.cpp:86] Creating Layer conv1
I0428 20:18:35.911841  1169 net.cpp:408] conv1 <- pool0
I0428 20:18:35.911849  1169 net.cpp:382] conv1 -> conv1
I0428 20:18:35.914158  1169 net.cpp:124] Setting up conv1
I0428 20:18:35.914170  1169 net.cpp:131] Top shape: 100 10 8 8 (64000)
I0428 20:18:35.914175  1169 net.cpp:139] Memory required for data: 14970800
I0428 20:18:35.914185  1169 layer_factory.hpp:77] Creating layer pool1
I0428 20:18:35.914192  1169 net.cpp:86] Creating Layer pool1
I0428 20:18:35.914197  1169 net.cpp:408] pool1 <- conv1
I0428 20:18:35.914204  1169 net.cpp:382] pool1 -> pool1
I0428 20:18:35.914266  1169 net.cpp:124] Setting up pool1
I0428 20:18:35.914278  1169 net.cpp:131] Top shape: 100 10 4 4 (16000)
I0428 20:18:35.914283  1169 net.cpp:139] Memory required for data: 15034800
I0428 20:18:35.914286  1169 layer_factory.hpp:77] Creating layer ip1
I0428 20:18:35.914297  1169 net.cpp:86] Creating Layer ip1
I0428 20:18:35.914304  1169 net.cpp:408] ip1 <- pool1
I0428 20:18:35.914312  1169 net.cpp:382] ip1 -> ip1
I0428 20:18:35.914520  1169 net.cpp:124] Setting up ip1
I0428 20:18:35.914532  1169 net.cpp:131] Top shape: 100 50 (5000)
I0428 20:18:35.914549  1169 net.cpp:139] Memory required for data: 15054800
I0428 20:18:35.914561  1169 layer_factory.hpp:77] Creating layer relu1
I0428 20:18:35.914569  1169 net.cpp:86] Creating Layer relu1
I0428 20:18:35.914574  1169 net.cpp:408] relu1 <- ip1
I0428 20:18:35.914582  1169 net.cpp:369] relu1 -> ip1 (in-place)
I0428 20:18:35.914814  1169 net.cpp:124] Setting up relu1
I0428 20:18:35.914827  1169 net.cpp:131] Top shape: 100 50 (5000)
I0428 20:18:35.914831  1169 net.cpp:139] Memory required for data: 15074800
I0428 20:18:35.914837  1169 layer_factory.hpp:77] Creating layer ip2
I0428 20:18:35.914846  1169 net.cpp:86] Creating Layer ip2
I0428 20:18:35.914851  1169 net.cpp:408] ip2 <- ip1
I0428 20:18:35.914860  1169 net.cpp:382] ip2 -> ip2
I0428 20:18:35.915138  1169 net.cpp:124] Setting up ip2
I0428 20:18:35.915153  1169 net.cpp:131] Top shape: 100 25 (2500)
I0428 20:18:35.915158  1169 net.cpp:139] Memory required for data: 15084800
I0428 20:18:35.915169  1169 layer_factory.hpp:77] Creating layer relu2
I0428 20:18:35.915179  1169 net.cpp:86] Creating Layer relu2
I0428 20:18:35.915184  1169 net.cpp:408] relu2 <- ip2
I0428 20:18:35.915192  1169 net.cpp:369] relu2 -> ip2 (in-place)
I0428 20:18:35.915457  1169 net.cpp:124] Setting up relu2
I0428 20:18:35.915473  1169 net.cpp:131] Top shape: 100 25 (2500)
I0428 20:18:35.915478  1169 net.cpp:139] Memory required for data: 15094800
I0428 20:18:35.915483  1169 layer_factory.hpp:77] Creating layer ip3
I0428 20:18:35.915491  1169 net.cpp:86] Creating Layer ip3
I0428 20:18:35.915495  1169 net.cpp:408] ip3 <- ip2
I0428 20:18:35.915504  1169 net.cpp:382] ip3 -> ip3
I0428 20:18:35.915632  1169 net.cpp:124] Setting up ip3
I0428 20:18:35.915642  1169 net.cpp:131] Top shape: 100 10 (1000)
I0428 20:18:35.915648  1169 net.cpp:139] Memory required for data: 15098800
I0428 20:18:35.915659  1169 layer_factory.hpp:77] Creating layer relu3
I0428 20:18:35.915665  1169 net.cpp:86] Creating Layer relu3
I0428 20:18:35.915670  1169 net.cpp:408] relu3 <- ip3
I0428 20:18:35.915693  1169 net.cpp:369] relu3 -> ip3 (in-place)
I0428 20:18:35.916872  1169 net.cpp:124] Setting up relu3
I0428 20:18:35.916888  1169 net.cpp:131] Top shape: 100 10 (1000)
I0428 20:18:35.916893  1169 net.cpp:139] Memory required for data: 15102800
I0428 20:18:35.916898  1169 layer_factory.hpp:77] Creating layer ip3_relu3_0_split
I0428 20:18:35.916908  1169 net.cpp:86] Creating Layer ip3_relu3_0_split
I0428 20:18:35.916913  1169 net.cpp:408] ip3_relu3_0_split <- ip3
I0428 20:18:35.916920  1169 net.cpp:382] ip3_relu3_0_split -> ip3_relu3_0_split_0
I0428 20:18:35.916929  1169 net.cpp:382] ip3_relu3_0_split -> ip3_relu3_0_split_1
I0428 20:18:35.916995  1169 net.cpp:124] Setting up ip3_relu3_0_split
I0428 20:18:35.917004  1169 net.cpp:131] Top shape: 100 10 (1000)
I0428 20:18:35.917011  1169 net.cpp:131] Top shape: 100 10 (1000)
I0428 20:18:35.917016  1169 net.cpp:139] Memory required for data: 15110800
I0428 20:18:35.917021  1169 layer_factory.hpp:77] Creating layer accuracy
I0428 20:18:35.917027  1169 net.cpp:86] Creating Layer accuracy
I0428 20:18:35.917032  1169 net.cpp:408] accuracy <- ip3_relu3_0_split_0
I0428 20:18:35.917038  1169 net.cpp:408] accuracy <- label_mnist_1_split_0
I0428 20:18:35.917047  1169 net.cpp:382] accuracy -> accuracy
…
