…
I0428 20:38:48.357652  5193 net.cpp:296] The NetState phase (0) differed from the phase (1) specified by a rule in layer mnist
I0428 20:38:48.357682  5193 net.cpp:296] The NetState phase (0) differed from the phase (1) specified by a rule in layer accuracy
I0428 20:38:48.357762  5193 net.cpp:53] Initializing net from parameters: 
name: "LeNet"
state {
  phase: TRAIN
  level: 0
  stage: ""
}
layer {
  name: "mnist"
  type: "Data"
  top: "data"
  top: "label"
  include {
    phase: TRAIN
  }
  transform_param {
    scale: 0.00390625
  }
  data_param {
    source: "examples/mnist/mnist_train_lmdb"
    batch_size: 64
    backend: LMDB
  }
}
layer {
  name: "conv0"
  type: "Convolution"
  bottom: "data"
  top: "conv0"
  param {
    lr_mult: 1
  }
  param {
    lr_mult: 2
  }
  convolution_param {
    num_output: 100
    kernel_size: 5
    stride: 1
    weight_filler {
      type: "xavier"
    }
    bias_filler {
      type: "constant"
    }
  }
}
layer {
  name: "pool0"
  type: "Pooling"
  bottom: "conv0"
  top: "pool0"
  pooling_param {
    pool: MAX
    kernel_size: 2
    stride: 2
  }
}
layer {
  name: "conv1"
  type: "Convolution"
  bottom: "pool0"
  top: "conv1"
  param {
    lr_mult: 1
  }
  param {
    lr_mult: 2
  }
  convolution_param {
    num_output: 100
    kernel_size: 5
    stride: 1
    weight_filler {
      type: "xavier"
    }
    bias_filler {
      type: "constant"
    }
  }
}
layer {
  name: "pool1"
  type: "Pooling"
  bottom: "conv1"
  top: "pool1"
  pooling_param {
    pool: MAX
    kernel_size: 2
    stride: 2
  }
}
layer {
  name: "ip1"
  type: "InnerProduct"
  bottom: "pool1"
  top: "ip1"
  param {
    lr_mult: 1
  }
  param {
    lr_mult: 2
  }
  inner_product_param {
    num_output: 50
    weight_filler {
      type: "xavier"
    }
    bias_filler {
      type: "constant"
    }
  }
}
layer {
  name: "relu1"
  type: "ReLU"
  bottom: "ip1"
  top: "ip1"
}
layer {
  name: "ip2"
  type: "InnerProduct"
  bottom: "ip1"
  top: "ip2"
  param {
    lr_mult: 1
  }
  param {
    lr_mult: 2
  }
  inner_product_param {
    num_output: 10
    weight_filler {
      type: "xavier"
    }
    bias_filler {
      type: "constant"
    }
  }
}
layer {
  name: "relu2"
  type: "ReLU"
  bottom: "ip2"
  top: "ip2"
}
layer {
  name: "ip3"
  type: "InnerProduct"
  bottom: "ip2"
  top: "ip3"
  param {
    lr_mult: 1
  }
  param {
    lr_mult: 2
  }
  inner_product_param {
    num_output: 10
    weight_filler {
      type: "xavier"
    }
    bias_filler {
      type: "constant"
    }
  }
}
layer {
  name: "relu3"
  type: "ReLU"
  bottom: "ip3"
  top: "ip3"
}
layer {
  name: "loss"
  type: "SoftmaxWithLoss"
  bottom: "ip3"
  bottom: "label"
  top: "loss"
}
I0428 20:38:48.357826  5193 layer_factory.hpp:77] Creating layer mnist
I0428 20:38:48.357906  5193 db_lmdb.cpp:35] Opened lmdb examples/mnist/mnist_train_lmdb
I0428 20:38:48.357928  5193 net.cpp:86] Creating Layer mnist
I0428 20:38:48.357935  5193 net.cpp:382] mnist -> data
I0428 20:38:48.357954  5193 net.cpp:382] mnist -> label
I0428 20:38:48.359014  5193 data_layer.cpp:45] output data size: 64,1,28,28
I0428 20:38:48.361151  5193 net.cpp:124] Setting up mnist
I0428 20:38:48.361181  5193 net.cpp:131] Top shape: 64 1 28 28 (50176)
I0428 20:38:48.361186  5193 net.cpp:131] Top shape: 64 (64)
I0428 20:38:48.361188  5193 net.cpp:139] Memory required for data: 200960
I0428 20:38:48.361193  5193 layer_factory.hpp:77] Creating layer conv0
I0428 20:38:48.361208  5193 net.cpp:86] Creating Layer conv0
I0428 20:38:48.361225  5193 net.cpp:408] conv0 <- data
I0428 20:38:48.361251  5193 net.cpp:382] conv0 -> conv0
I0428 20:38:48.598537  5193 net.cpp:124] Setting up conv0
I0428 20:38:48.598563  5193 net.cpp:131] Top shape: 64 100 24 24 (3686400)
I0428 20:38:48.598568  5193 net.cpp:139] Memory required for data: 14946560
I0428 20:38:48.598583  5193 layer_factory.hpp:77] Creating layer pool0
I0428 20:38:48.598595  5193 net.cpp:86] Creating Layer pool0
I0428 20:38:48.598599  5193 net.cpp:408] pool0 <- conv0
I0428 20:38:48.598604  5193 net.cpp:382] pool0 -> pool0
I0428 20:38:48.598664  5193 net.cpp:124] Setting up pool0
I0428 20:38:48.598670  5193 net.cpp:131] Top shape: 64 100 12 12 (921600)
I0428 20:38:48.598673  5193 net.cpp:139] Memory required for data: 18632960
I0428 20:38:48.598676  5193 layer_factory.hpp:77] Creating layer conv1
I0428 20:38:48.598686  5193 net.cpp:86] Creating Layer conv1
I0428 20:38:48.598690  5193 net.cpp:408] conv1 <- pool0
I0428 20:38:48.598693  5193 net.cpp:382] conv1 -> conv1
I0428 20:38:48.602787  5193 net.cpp:124] Setting up conv1
I0428 20:38:48.602802  5193 net.cpp:131] Top shape: 64 100 8 8 (409600)
I0428 20:38:48.602804  5193 net.cpp:139] Memory required for data: 20271360
I0428 20:38:48.602813  5193 layer_factory.hpp:77] Creating layer pool1
I0428 20:38:48.602820  5193 net.cpp:86] Creating Layer pool1
I0428 20:38:48.602823  5193 net.cpp:408] pool1 <- conv1
I0428 20:38:48.602828  5193 net.cpp:382] pool1 -> pool1
I0428 20:38:48.602880  5193 net.cpp:124] Setting up pool1
I0428 20:38:48.602885  5193 net.cpp:131] Top shape: 64 100 4 4 (102400)
I0428 20:38:48.602887  5193 net.cpp:139] Memory required for data: 20680960
I0428 20:38:48.602890  5193 layer_factory.hpp:77] Creating layer ip1
I0428 20:38:48.602896  5193 net.cpp:86] Creating Layer ip1
I0428 20:38:48.602900  5193 net.cpp:408] ip1 <- pool1
I0428 20:38:48.602903  5193 net.cpp:382] ip1 -> ip1
I0428 20:38:48.603441  5193 net.cpp:124] Setting up ip1
I0428 20:38:48.603449  5193 net.cpp:131] Top shape: 64 50 (3200)
I0428 20:38:48.603467  5193 net.cpp:139] Memory required for data: 20693760
I0428 20:38:48.603474  5193 layer_factory.hpp:77] Creating layer relu1
I0428 20:38:48.603480  5193 net.cpp:86] Creating Layer relu1
I0428 20:38:48.603483  5193 net.cpp:408] relu1 <- ip1
I0428 20:38:48.603487  5193 net.cpp:369] relu1 -> ip1 (in-place)
I0428 20:38:48.603659  5193 net.cpp:124] Setting up relu1
I0428 20:38:48.603668  5193 net.cpp:131] Top shape: 64 50 (3200)
I0428 20:38:48.603672  5193 net.cpp:139] Memory required for data: 20706560
I0428 20:38:48.603674  5193 layer_factory.hpp:77] Creating layer ip2
I0428 20:38:48.603680  5193 net.cpp:86] Creating Layer ip2
I0428 20:38:48.603683  5193 net.cpp:408] ip2 <- ip1
I0428 20:38:48.603688  5193 net.cpp:382] ip2 -> ip2
I0428 20:38:48.603780  5193 net.cpp:124] Setting up ip2
I0428 20:38:48.603785  5193 net.cpp:131] Top shape: 64 10 (640)
I0428 20:38:48.603790  5193 net.cpp:139] Memory required for data: 20709120
I0428 20:38:48.603795  5193 layer_factory.hpp:77] Creating layer relu2
I0428 20:38:48.603799  5193 net.cpp:86] Creating Layer relu2
I0428 20:38:48.603802  5193 net.cpp:408] relu2 <- ip2
I0428 20:38:48.603806  5193 net.cpp:369] relu2 -> ip2 (in-place)
I0428 20:38:48.604594  5193 net.cpp:124] Setting up relu2
I0428 20:38:48.604607  5193 net.cpp:131] Top shape: 64 10 (640)
I0428 20:38:48.604626  5193 net.cpp:139] Memory required for data: 20711680
I0428 20:38:48.604629  5193 layer_factory.hpp:77] Creating layer ip3
I0428 20:38:48.604636  5193 net.cpp:86] Creating Layer ip3
I0428 20:38:48.604640  5193 net.cpp:408] ip3 <- ip2
I0428 20:38:48.604645  5193 net.cpp:382] ip3 -> ip3
I0428 20:38:48.604756  5193 net.cpp:124] Setting up ip3
I0428 20:38:48.604763  5193 net.cpp:131] Top shape: 64 10 (640)
I0428 20:38:48.604766  5193 net.cpp:139] Memory required for data: 20714240
I0428 20:38:48.604774  5193 layer_factory.hpp:77] Creating layer relu3
I0428 20:38:48.604779  5193 net.cpp:86] Creating Layer relu3
I0428 20:38:48.604782  5193 net.cpp:408] relu3 <- ip3
I0428 20:38:48.604801  5193 net.cpp:369] relu3 -> ip3 (in-place)
I0428 20:38:48.605011  5193 net.cpp:124] Setting up relu3
I0428 20:38:48.605021  5193 net.cpp:131] Top shape: 64 10 (640)
I0428 20:38:48.605024  5193 net.cpp:139] Memory required for data: 20716800
I0428 20:38:48.605028  5193 layer_factory.hpp:77] Creating layer loss
I0428 20:38:48.605034  5193 net.cpp:86] Creating Layer loss
I0428 20:38:48.605037  5193 net.cpp:408] loss <- ip3
I0428 20:38:48.605042  5193 net.cpp:408] loss <- label
I0428 20:38:48.605047  5193 net.cpp:382] loss -> loss
I0428 20:38:48.605067  5193 layer_factory.hpp:77] Creating layer loss
…
I0428 20:38:48.605880  5193 solver.cpp:173] Creating test net (#0) specified by net file: ECE595/mnist/train_test/var_everything2/lenet_train_test1670.prototxt
I0428 20:38:48.605923  5193 net.cpp:296] The NetState phase (1) differed from the phase (0) specified by a rule in layer mnist
I0428 20:38:48.606010  5193 net.cpp:53] Initializing net from parameters: 
name: "LeNet"
state {
  phase: TEST
}
layer {
  name: "mnist"
  type: "Data"
  top: "data"
  top: "label"
  include {
    phase: TEST
  }
  transform_param {
    scale: 0.00390625
  }
  data_param {
    source: "examples/mnist/mnist_test_lmdb"
    batch_size: 100
    backend: LMDB
  }
}
layer {
  name: "conv0"
  type: "Convolution"
  bottom: "data"
  top: "conv0"
  param {
    lr_mult: 1
  }
  param {
    lr_mult: 2
  }
  convolution_param {
    num_output: 100
    kernel_size: 5
    stride: 1
    weight_filler {
      type: "xavier"
    }
    bias_filler {
      type: "constant"
    }
  }
}
layer {
  name: "pool0"
  type: "Pooling"
  bottom: "conv0"
  top: "pool0"
  pooling_param {
    pool: MAX
    kernel_size: 2
    stride: 2
  }
}
layer {
  name: "conv1"
  type: "Convolution"
  bottom: "pool0"
  top: "conv1"
  param {
    lr_mult: 1
  }
  param {
    lr_mult: 2
  }
  convolution_param {
    num_output: 100
    kernel_size: 5
    stride: 1
    weight_filler {
      type: "xavier"
    }
    bias_filler {
      type: "constant"
    }
  }
}
layer {
  name: "pool1"
  type: "Pooling"
  bottom: "conv1"
  top: "pool1"
  pooling_param {
    pool: MAX
    kernel_size: 2
    stride: 2
  }
}
layer {
  name: "ip1"
  type: "InnerProduct"
  bottom: "pool1"
  top: "ip1"
  param {
    lr_mult: 1
  }
  param {
    lr_mult: 2
  }
  inner_product_param {
    num_output: 50
    weight_filler {
      type: "xavier"
    }
    bias_filler {
      type: "constant"
    }
  }
}
layer {
  name: "relu1"
  type: "ReLU"
  bottom: "ip1"
  top: "ip1"
}
layer {
  name: "ip2"
  type: "InnerProduct"
  bottom: "ip1"
  top: "ip2"
  param {
    lr_mult: 1
  }
  param {
    lr_mult: 2
  }
  inner_product_param {
    num_output: 10
    weight_filler {
      type: "xavier"
    }
    bias_filler {
      type: "constant"
    }
  }
}
layer {
  name: "relu2"
  type: "ReLU"
  bottom: "ip2"
  top: "ip2"
}
layer {
  name: "ip3"
  type: "InnerProduct"
  bottom: "ip2"
  top: "ip3"
  param {
    lr_mult: 1
  }
  param {
    lr_mult: 2
  }
  inner_product_param {
    num_output: 10
    weight_filler {
      type: "xavier"
    }
    bias_filler {
      type: "constant"
    }
  }
}
layer {
  name: "relu3"
  type: "ReLU"
  bottom: "ip3"
  top: "ip3"
}
layer {
  name: "accuracy"
  type: "Accuracy"
  bottom: "ip3"
  bottom: "label"
  top: "accuracy"
  include {
    phase: TEST
  }
}
layer {
  name: "loss"
  type: "SoftmaxWithLoss"
  bottom: "ip3"
  bottom: "label"
  top: "loss"
}
I0428 20:38:48.606086  5193 layer_factory.hpp:77] Creating layer mnist
I0428 20:38:48.606128  5193 db_lmdb.cpp:35] Opened lmdb examples/mnist/mnist_test_lmdb
I0428 20:38:48.606140  5193 net.cpp:86] Creating Layer mnist
I0428 20:38:48.606147  5193 net.cpp:382] mnist -> data
I0428 20:38:48.606155  5193 net.cpp:382] mnist -> label
I0428 20:38:48.606235  5193 data_layer.cpp:45] output data size: 100,1,28,28
I0428 20:38:48.608439  5193 net.cpp:124] Setting up mnist
I0428 20:38:48.608479  5193 net.cpp:131] Top shape: 100 1 28 28 (78400)
I0428 20:38:48.608485  5193 net.cpp:131] Top shape: 100 (100)
I0428 20:38:48.608502  5193 net.cpp:139] Memory required for data: 314000
I0428 20:38:48.608505  5193 layer_factory.hpp:77] Creating layer label_mnist_1_split
I0428 20:38:48.608512  5193 net.cpp:86] Creating Layer label_mnist_1_split
I0428 20:38:48.608515  5193 net.cpp:408] label_mnist_1_split <- label
I0428 20:38:48.608520  5193 net.cpp:382] label_mnist_1_split -> label_mnist_1_split_0
I0428 20:38:48.608527  5193 net.cpp:382] label_mnist_1_split -> label_mnist_1_split_1
I0428 20:38:48.608604  5193 net.cpp:124] Setting up label_mnist_1_split
I0428 20:38:48.608613  5193 net.cpp:131] Top shape: 100 (100)
I0428 20:38:48.608616  5193 net.cpp:131] Top shape: 100 (100)
I0428 20:38:48.608619  5193 net.cpp:139] Memory required for data: 314800
I0428 20:38:48.608623  5193 layer_factory.hpp:77] Creating layer conv0
I0428 20:38:48.608630  5193 net.cpp:86] Creating Layer conv0
I0428 20:38:48.608633  5193 net.cpp:408] conv0 <- data
I0428 20:38:48.608639  5193 net.cpp:382] conv0 -> conv0
I0428 20:38:48.610136  5193 net.cpp:124] Setting up conv0
I0428 20:38:48.610165  5193 net.cpp:131] Top shape: 100 100 24 24 (5760000)
I0428 20:38:48.610169  5193 net.cpp:139] Memory required for data: 23354800
I0428 20:38:48.610178  5193 layer_factory.hpp:77] Creating layer pool0
I0428 20:38:48.610184  5193 net.cpp:86] Creating Layer pool0
I0428 20:38:48.610188  5193 net.cpp:408] pool0 <- conv0
I0428 20:38:48.610193  5193 net.cpp:382] pool0 -> pool0
I0428 20:38:48.610227  5193 net.cpp:124] Setting up pool0
I0428 20:38:48.610234  5193 net.cpp:131] Top shape: 100 100 12 12 (1440000)
I0428 20:38:48.610236  5193 net.cpp:139] Memory required for data: 29114800
I0428 20:38:48.610239  5193 layer_factory.hpp:77] Creating layer conv1
I0428 20:38:48.610247  5193 net.cpp:86] Creating Layer conv1
I0428 20:38:48.610250  5193 net.cpp:408] conv1 <- pool0
I0428 20:38:48.610255  5193 net.cpp:382] conv1 -> conv1
I0428 20:38:48.613354  5193 net.cpp:124] Setting up conv1
I0428 20:38:48.613382  5193 net.cpp:131] Top shape: 100 100 8 8 (640000)
I0428 20:38:48.613386  5193 net.cpp:139] Memory required for data: 31674800
I0428 20:38:48.613394  5193 layer_factory.hpp:77] Creating layer pool1
I0428 20:38:48.613401  5193 net.cpp:86] Creating Layer pool1
I0428 20:38:48.613405  5193 net.cpp:408] pool1 <- conv1
I0428 20:38:48.613410  5193 net.cpp:382] pool1 -> pool1
I0428 20:38:48.613446  5193 net.cpp:124] Setting up pool1
I0428 20:38:48.613451  5193 net.cpp:131] Top shape: 100 100 4 4 (160000)
I0428 20:38:48.613454  5193 net.cpp:139] Memory required for data: 32314800
I0428 20:38:48.613457  5193 layer_factory.hpp:77] Creating layer ip1
I0428 20:38:48.613463  5193 net.cpp:86] Creating Layer ip1
I0428 20:38:48.613466  5193 net.cpp:408] ip1 <- pool1
I0428 20:38:48.613471  5193 net.cpp:382] ip1 -> ip1
I0428 20:38:48.614025  5193 net.cpp:124] Setting up ip1
I0428 20:38:48.614043  5193 net.cpp:131] Top shape: 100 50 (5000)
I0428 20:38:48.614048  5193 net.cpp:139] Memory required for data: 32334800
I0428 20:38:48.614055  5193 layer_factory.hpp:77] Creating layer relu1
I0428 20:38:48.614060  5193 net.cpp:86] Creating Layer relu1
I0428 20:38:48.614063  5193 net.cpp:408] relu1 <- ip1
I0428 20:38:48.614068  5193 net.cpp:369] relu1 -> ip1 (in-place)
I0428 20:38:48.614269  5193 net.cpp:124] Setting up relu1
I0428 20:38:48.614277  5193 net.cpp:131] Top shape: 100 50 (5000)
I0428 20:38:48.614281  5193 net.cpp:139] Memory required for data: 32354800
I0428 20:38:48.614284  5193 layer_factory.hpp:77] Creating layer ip2
I0428 20:38:48.614291  5193 net.cpp:86] Creating Layer ip2
I0428 20:38:48.614295  5193 net.cpp:408] ip2 <- ip1
I0428 20:38:48.614300  5193 net.cpp:382] ip2 -> ip2
I0428 20:38:48.614482  5193 net.cpp:124] Setting up ip2
I0428 20:38:48.614490  5193 net.cpp:131] Top shape: 100 10 (1000)
I0428 20:38:48.614495  5193 net.cpp:139] Memory required for data: 32358800
I0428 20:38:48.614500  5193 layer_factory.hpp:77] Creating layer relu2
I0428 20:38:48.614506  5193 net.cpp:86] Creating Layer relu2
I0428 20:38:48.614509  5193 net.cpp:408] relu2 <- ip2
I0428 20:38:48.614513  5193 net.cpp:369] relu2 -> ip2 (in-place)
I0428 20:38:48.614694  5193 net.cpp:124] Setting up relu2
I0428 20:38:48.614706  5193 net.cpp:131] Top shape: 100 10 (1000)
I0428 20:38:48.614724  5193 net.cpp:139] Memory required for data: 32362800
I0428 20:38:48.614728  5193 layer_factory.hpp:77] Creating layer ip3
I0428 20:38:48.614748  5193 net.cpp:86] Creating Layer ip3
I0428 20:38:48.614751  5193 net.cpp:408] ip3 <- ip2
I0428 20:38:48.614756  5193 net.cpp:382] ip3 -> ip3
I0428 20:38:48.614846  5193 net.cpp:124] Setting up ip3
I0428 20:38:48.614853  5193 net.cpp:131] Top shape: 100 10 (1000)
I0428 20:38:48.614856  5193 net.cpp:139] Memory required for data: 32366800
I0428 20:38:48.614866  5193 layer_factory.hpp:77] Creating layer relu3
I0428 20:38:48.614869  5193 net.cpp:86] Creating Layer relu3
I0428 20:38:48.614872  5193 net.cpp:408] relu3 <- ip3
I0428 20:38:48.614876  5193 net.cpp:369] relu3 -> ip3 (in-place)
I0428 20:38:48.615638  5193 net.cpp:124] Setting up relu3
I0428 20:38:48.615666  5193 net.cpp:131] Top shape: 100 10 (1000)
I0428 20:38:48.615669  5193 net.cpp:139] Memory required for data: 32370800
I0428 20:38:48.615672  5193 layer_factory.hpp:77] Creating layer ip3_relu3_0_split
I0428 20:38:48.615694  5193 net.cpp:86] Creating Layer ip3_relu3_0_split
I0428 20:38:48.615696  5193 net.cpp:408] ip3_relu3_0_split <- ip3
I0428 20:38:48.615701  5193 net.cpp:382] ip3_relu3_0_split -> ip3_relu3_0_split_0
I0428 20:38:48.615707  5193 net.cpp:382] ip3_relu3_0_split -> ip3_relu3_0_split_1
I0428 20:38:48.615763  5193 net.cpp:124] Setting up ip3_relu3_0_split
I0428 20:38:48.615769  5193 net.cpp:131] Top shape: 100 10 (1000)
I0428 20:38:48.615773  5193 net.cpp:131] Top shape: 100 10 (1000)
I0428 20:38:48.615777  5193 net.cpp:139] Memory required for data: 32378800
I0428 20:38:48.615779  5193 layer_factory.hpp:77] Creating layer accuracy
I0428 20:38:48.615783  5193 net.cpp:86] Creating Layer accuracy
I0428 20:38:48.615787  5193 net.cpp:408] accuracy <- ip3_relu3_0_split_0
I0428 20:38:48.615792  5193 net.cpp:408] accuracy <- label_mnist_1_split_0
I0428 20:38:48.615797  5193 net.cpp:382] accuracy -> accuracy
…
