…
I0428 19:41:44.044633 24897 net.cpp:296] The NetState phase (0) differed from the phase (1) specified by a rule in layer mnist
I0428 19:41:44.044653 24897 net.cpp:296] The NetState phase (0) differed from the phase (1) specified by a rule in layer accuracy
I0428 19:41:44.044749 24897 net.cpp:53] Initializing net from parameters: 
name: "LeNet"
state {
  phase: TRAIN
  level: 0
  stage: ""
}
layer {
  name: "mnist"
  type: "Data"
  top: "data"
  top: "label"
  include {
    phase: TRAIN
  }
  transform_param {
    scale: 0.00390625
  }
  data_param {
    source: "examples/mnist/mnist_train_lmdb"
    batch_size: 64
    backend: LMDB
  }
}
layer {
  name: "conv0"
  type: "Convolution"
  bottom: "data"
  top: "conv0"
  param {
    lr_mult: 1
  }
  param {
    lr_mult: 2
  }
  convolution_param {
    num_output: 2
    kernel_size: 5
    stride: 1
    weight_filler {
      type: "xavier"
    }
    bias_filler {
      type: "constant"
    }
  }
}
layer {
  name: "pool0"
  type: "Pooling"
  bottom: "conv0"
  top: "pool0"
  pooling_param {
    pool: MAX
    kernel_size: 2
    stride: 2
  }
}
layer {
  name: "conv1"
  type: "Convolution"
  bottom: "pool0"
  top: "conv1"
  param {
    lr_mult: 1
  }
  param {
    lr_mult: 2
  }
  convolution_param {
    num_output: 10
    kernel_size: 5
    stride: 1
    weight_filler {
      type: "xavier"
    }
    bias_filler {
      type: "constant"
    }
  }
}
layer {
  name: "pool1"
  type: "Pooling"
  bottom: "conv1"
  top: "pool1"
  pooling_param {
    pool: MAX
    kernel_size: 2
    stride: 2
  }
}
layer {
  name: "ip1"
  type: "InnerProduct"
  bottom: "pool1"
  top: "ip1"
  param {
    lr_mult: 1
  }
  param {
    lr_mult: 2
  }
  inner_product_param {
    num_output: 25
    weight_filler {
      type: "xavier"
    }
    bias_filler {
      type: "constant"
    }
  }
}
layer {
  name: "relu1"
  type: "ReLU"
  bottom: "ip1"
  top: "ip1"
}
layer {
  name: "ip2"
  type: "InnerProduct"
  bottom: "ip1"
  top: "ip2"
  param {
    lr_mult: 1
  }
  param {
    lr_mult: 2
  }
  inner_product_param {
    num_output: 10
    weight_filler {
      type: "xavier"
    }
    bias_filler {
      type: "constant"
    }
  }
}
layer {
  name: "relu2"
  type: "ReLU"
  bottom: "ip2"
  top: "ip2"
}
layer {
  name: "ip3"
  type: "InnerProduct"
  bottom: "ip2"
  top: "ip3"
  param {
    lr_mult: 1
  }
  param {
    lr_mult: 2
  }
  inner_product_param {
    num_output: 10
    weight_filler {
      type: "xavier"
    }
    bias_filler {
      type: "constant"
    }
  }
}
layer {
  name: "relu3"
  type: "ReLU"
  bottom: "ip3"
  top: "ip3"
}
layer {
  name: "loss"
  type: "SoftmaxWithLoss"
  bottom: "ip3"
  bottom: "label"
  top: "loss"
}
I0428 19:41:44.044878 24897 layer_factory.hpp:77] Creating layer mnist
I0428 19:41:44.045001 24897 db_lmdb.cpp:35] Opened lmdb examples/mnist/mnist_train_lmdb
I0428 19:41:44.045027 24897 net.cpp:86] Creating Layer mnist
I0428 19:41:44.045037 24897 net.cpp:382] mnist -> data
I0428 19:41:44.045060 24897 net.cpp:382] mnist -> label
I0428 19:41:44.046130 24897 data_layer.cpp:45] output data size: 64,1,28,28
I0428 19:41:44.048312 24897 net.cpp:124] Setting up mnist
I0428 19:41:44.048346 24897 net.cpp:131] Top shape: 64 1 28 28 (50176)
I0428 19:41:44.048354 24897 net.cpp:131] Top shape: 64 (64)
I0428 19:41:44.048359 24897 net.cpp:139] Memory required for data: 200960
I0428 19:41:44.048368 24897 layer_factory.hpp:77] Creating layer conv0
I0428 19:41:44.048390 24897 net.cpp:86] Creating Layer conv0
I0428 19:41:44.048409 24897 net.cpp:408] conv0 <- data
I0428 19:41:44.048425 24897 net.cpp:382] conv0 -> conv0
I0428 19:41:44.284157 24897 net.cpp:124] Setting up conv0
I0428 19:41:44.284188 24897 net.cpp:131] Top shape: 64 2 24 24 (73728)
I0428 19:41:44.284193 24897 net.cpp:139] Memory required for data: 495872
I0428 19:41:44.284227 24897 layer_factory.hpp:77] Creating layer pool0
I0428 19:41:44.284247 24897 net.cpp:86] Creating Layer pool0
I0428 19:41:44.284274 24897 net.cpp:408] pool0 <- conv0
I0428 19:41:44.284283 24897 net.cpp:382] pool0 -> pool0
I0428 19:41:44.284339 24897 net.cpp:124] Setting up pool0
I0428 19:41:44.284348 24897 net.cpp:131] Top shape: 64 2 12 12 (18432)
I0428 19:41:44.284353 24897 net.cpp:139] Memory required for data: 569600
I0428 19:41:44.284358 24897 layer_factory.hpp:77] Creating layer conv1
I0428 19:41:44.284375 24897 net.cpp:86] Creating Layer conv1
I0428 19:41:44.284381 24897 net.cpp:408] conv1 <- pool0
I0428 19:41:44.284390 24897 net.cpp:382] conv1 -> conv1
I0428 19:41:44.286298 24897 net.cpp:124] Setting up conv1
I0428 19:41:44.286317 24897 net.cpp:131] Top shape: 64 10 8 8 (40960)
I0428 19:41:44.286324 24897 net.cpp:139] Memory required for data: 733440
I0428 19:41:44.286339 24897 layer_factory.hpp:77] Creating layer pool1
I0428 19:41:44.286350 24897 net.cpp:86] Creating Layer pool1
I0428 19:41:44.286356 24897 net.cpp:408] pool1 <- conv1
I0428 19:41:44.286366 24897 net.cpp:382] pool1 -> pool1
I0428 19:41:44.286417 24897 net.cpp:124] Setting up pool1
I0428 19:41:44.286440 24897 net.cpp:131] Top shape: 64 10 4 4 (10240)
I0428 19:41:44.286445 24897 net.cpp:139] Memory required for data: 774400
I0428 19:41:44.286450 24897 layer_factory.hpp:77] Creating layer ip1
I0428 19:41:44.286463 24897 net.cpp:86] Creating Layer ip1
I0428 19:41:44.286470 24897 net.cpp:408] ip1 <- pool1
I0428 19:41:44.286479 24897 net.cpp:382] ip1 -> ip1
I0428 19:41:44.287518 24897 net.cpp:124] Setting up ip1
I0428 19:41:44.287533 24897 net.cpp:131] Top shape: 64 25 (1600)
I0428 19:41:44.287539 24897 net.cpp:139] Memory required for data: 780800
I0428 19:41:44.287552 24897 layer_factory.hpp:77] Creating layer relu1
I0428 19:41:44.287561 24897 net.cpp:86] Creating Layer relu1
I0428 19:41:44.287572 24897 net.cpp:408] relu1 <- ip1
I0428 19:41:44.287582 24897 net.cpp:369] relu1 -> ip1 (in-place)
I0428 19:41:44.287755 24897 net.cpp:124] Setting up relu1
I0428 19:41:44.287765 24897 net.cpp:131] Top shape: 64 25 (1600)
I0428 19:41:44.287770 24897 net.cpp:139] Memory required for data: 787200
I0428 19:41:44.287775 24897 layer_factory.hpp:77] Creating layer ip2
I0428 19:41:44.287786 24897 net.cpp:86] Creating Layer ip2
I0428 19:41:44.287791 24897 net.cpp:408] ip2 <- ip1
I0428 19:41:44.287801 24897 net.cpp:382] ip2 -> ip2
I0428 19:41:44.287899 24897 net.cpp:124] Setting up ip2
I0428 19:41:44.287909 24897 net.cpp:131] Top shape: 64 10 (640)
I0428 19:41:44.287914 24897 net.cpp:139] Memory required for data: 789760
I0428 19:41:44.287922 24897 layer_factory.hpp:77] Creating layer relu2
I0428 19:41:44.287932 24897 net.cpp:86] Creating Layer relu2
I0428 19:41:44.287940 24897 net.cpp:408] relu2 <- ip2
I0428 19:41:44.287947 24897 net.cpp:369] relu2 -> ip2 (in-place)
I0428 19:41:44.288709 24897 net.cpp:124] Setting up relu2
I0428 19:41:44.288723 24897 net.cpp:131] Top shape: 64 10 (640)
I0428 19:41:44.288728 24897 net.cpp:139] Memory required for data: 792320
I0428 19:41:44.288734 24897 layer_factory.hpp:77] Creating layer ip3
I0428 19:41:44.288744 24897 net.cpp:86] Creating Layer ip3
I0428 19:41:44.288749 24897 net.cpp:408] ip3 <- ip2
I0428 19:41:44.288758 24897 net.cpp:382] ip3 -> ip3
I0428 19:41:44.288902 24897 net.cpp:124] Setting up ip3
I0428 19:41:44.288913 24897 net.cpp:131] Top shape: 64 10 (640)
I0428 19:41:44.288918 24897 net.cpp:139] Memory required for data: 794880
I0428 19:41:44.288933 24897 layer_factory.hpp:77] Creating layer relu3
I0428 19:41:44.288942 24897 net.cpp:86] Creating Layer relu3
I0428 19:41:44.288949 24897 net.cpp:408] relu3 <- ip3
I0428 19:41:44.288956 24897 net.cpp:369] relu3 -> ip3 (in-place)
I0428 19:41:44.289136 24897 net.cpp:124] Setting up relu3
I0428 19:41:44.289146 24897 net.cpp:131] Top shape: 64 10 (640)
I0428 19:41:44.289152 24897 net.cpp:139] Memory required for data: 797440
I0428 19:41:44.289172 24897 layer_factory.hpp:77] Creating layer loss
I0428 19:41:44.289196 24897 net.cpp:86] Creating Layer loss
I0428 19:41:44.289202 24897 net.cpp:408] loss <- ip3
I0428 19:41:44.289208 24897 net.cpp:408] loss <- label
I0428 19:41:44.289217 24897 net.cpp:382] loss -> loss
I0428 19:41:44.289237 24897 layer_factory.hpp:77] Creating layer loss
…
I0428 19:41:44.289949 24897 solver.cpp:173] Creating test net (#0) specified by net file: ECE595/mnist/train_test/var_everything2/lenet_train_test373.prototxt
I0428 19:41:44.289983 24897 net.cpp:296] The NetState phase (1) differed from the phase (0) specified by a rule in layer mnist
I0428 19:41:44.290103 24897 net.cpp:53] Initializing net from parameters: 
name: "LeNet"
state {
  phase: TEST
}
layer {
  name: "mnist"
  type: "Data"
  top: "data"
  top: "label"
  include {
    phase: TEST
  }
  transform_param {
    scale: 0.00390625
  }
  data_param {
    source: "examples/mnist/mnist_test_lmdb"
    batch_size: 100
    backend: LMDB
  }
}
layer {
  name: "conv0"
  type: "Convolution"
  bottom: "data"
  top: "conv0"
  param {
    lr_mult: 1
  }
  param {
    lr_mult: 2
  }
  convolution_param {
    num_output: 2
    kernel_size: 5
    stride: 1
    weight_filler {
      type: "xavier"
    }
    bias_filler {
      type: "constant"
    }
  }
}
layer {
  name: "pool0"
  type: "Pooling"
  bottom: "conv0"
  top: "pool0"
  pooling_param {
    pool: MAX
    kernel_size: 2
    stride: 2
  }
}
layer {
  name: "conv1"
  type: "Convolution"
  bottom: "pool0"
  top: "conv1"
  param {
    lr_mult: 1
  }
  param {
    lr_mult: 2
  }
  convolution_param {
    num_output: 10
    kernel_size: 5
    stride: 1
    weight_filler {
      type: "xavier"
    }
    bias_filler {
      type: "constant"
    }
  }
}
layer {
  name: "pool1"
  type: "Pooling"
  bottom: "conv1"
  top: "pool1"
  pooling_param {
    pool: MAX
    kernel_size: 2
    stride: 2
  }
}
layer {
  name: "ip1"
  type: "InnerProduct"
  bottom: "pool1"
  top: "ip1"
  param {
    lr_mult: 1
  }
  param {
    lr_mult: 2
  }
  inner_product_param {
    num_output: 25
    weight_filler {
      type: "xavier"
    }
    bias_filler {
      type: "constant"
    }
  }
}
layer {
  name: "relu1"
  type: "ReLU"
  bottom: "ip1"
  top: "ip1"
}
layer {
  name: "ip2"
  type: "InnerProduct"
  bottom: "ip1"
  top: "ip2"
  param {
    lr_mult: 1
  }
  param {
    lr_mult: 2
  }
  inner_product_param {
    num_output: 10
    weight_filler {
      type: "xavier"
    }
    bias_filler {
      type: "constant"
    }
  }
}
layer {
  name: "relu2"
  type: "ReLU"
  bottom: "ip2"
  top: "ip2"
}
layer {
  name: "ip3"
  type: "InnerProduct"
  bottom: "ip2"
  top: "ip3"
  param {
    lr_mult: 1
  }
  param {
    lr_mult: 2
  }
  inner_product_param {
    num_output: 10
    weight_filler {
      type: "xavier"
    }
    bias_filler {
      type: "constant"
    }
  }
}
layer {
  name: "relu3"
  type: "ReLU"
  bottom: "ip3"
  top: "ip3"
}
layer {
  name: "accuracy"
  type: "Accuracy"
  bottom: "ip3"
  bottom: "label"
  top: "accuracy"
  include {
    phase: TEST
  }
}
layer {
  name: "loss"
  type: "SoftmaxWithLoss"
  bottom: "ip3"
  bottom: "label"
  top: "loss"
}
I0428 19:41:44.290212 24897 layer_factory.hpp:77] Creating layer mnist
I0428 19:41:44.290271 24897 db_lmdb.cpp:35] Opened lmdb examples/mnist/mnist_test_lmdb
I0428 19:41:44.290298 24897 net.cpp:86] Creating Layer mnist
I0428 19:41:44.290307 24897 net.cpp:382] mnist -> data
I0428 19:41:44.290318 24897 net.cpp:382] mnist -> label
I0428 19:41:44.290467 24897 data_layer.cpp:45] output data size: 100,1,28,28
I0428 19:41:44.292958 24897 net.cpp:124] Setting up mnist
I0428 19:41:44.293004 24897 net.cpp:131] Top shape: 100 1 28 28 (78400)
I0428 19:41:44.293018 24897 net.cpp:131] Top shape: 100 (100)
I0428 19:41:44.293023 24897 net.cpp:139] Memory required for data: 314000
I0428 19:41:44.293030 24897 layer_factory.hpp:77] Creating layer label_mnist_1_split
I0428 19:41:44.293040 24897 net.cpp:86] Creating Layer label_mnist_1_split
I0428 19:41:44.293045 24897 net.cpp:408] label_mnist_1_split <- label
I0428 19:41:44.293053 24897 net.cpp:382] label_mnist_1_split -> label_mnist_1_split_0
I0428 19:41:44.293063 24897 net.cpp:382] label_mnist_1_split -> label_mnist_1_split_1
I0428 19:41:44.293117 24897 net.cpp:124] Setting up label_mnist_1_split
I0428 19:41:44.293139 24897 net.cpp:131] Top shape: 100 (100)
I0428 19:41:44.293145 24897 net.cpp:131] Top shape: 100 (100)
I0428 19:41:44.293150 24897 net.cpp:139] Memory required for data: 314800
I0428 19:41:44.293155 24897 layer_factory.hpp:77] Creating layer conv0
I0428 19:41:44.293169 24897 net.cpp:86] Creating Layer conv0
I0428 19:41:44.293175 24897 net.cpp:408] conv0 <- data
I0428 19:41:44.293184 24897 net.cpp:382] conv0 -> conv0
I0428 19:41:44.294844 24897 net.cpp:124] Setting up conv0
I0428 19:41:44.294862 24897 net.cpp:131] Top shape: 100 2 24 24 (115200)
I0428 19:41:44.294868 24897 net.cpp:139] Memory required for data: 775600
I0428 19:41:44.294885 24897 layer_factory.hpp:77] Creating layer pool0
I0428 19:41:44.294896 24897 net.cpp:86] Creating Layer pool0
I0428 19:41:44.294904 24897 net.cpp:408] pool0 <- conv0
I0428 19:41:44.294914 24897 net.cpp:382] pool0 -> pool0
I0428 19:41:44.294958 24897 net.cpp:124] Setting up pool0
I0428 19:41:44.294967 24897 net.cpp:131] Top shape: 100 2 12 12 (28800)
I0428 19:41:44.294973 24897 net.cpp:139] Memory required for data: 890800
I0428 19:41:44.294980 24897 layer_factory.hpp:77] Creating layer conv1
I0428 19:41:44.294994 24897 net.cpp:86] Creating Layer conv1
I0428 19:41:44.295014 24897 net.cpp:408] conv1 <- pool0
I0428 19:41:44.295023 24897 net.cpp:382] conv1 -> conv1
I0428 19:41:44.296792 24897 net.cpp:124] Setting up conv1
I0428 19:41:44.296818 24897 net.cpp:131] Top shape: 100 10 8 8 (64000)
I0428 19:41:44.296825 24897 net.cpp:139] Memory required for data: 1146800
I0428 19:41:44.296855 24897 layer_factory.hpp:77] Creating layer pool1
I0428 19:41:44.296880 24897 net.cpp:86] Creating Layer pool1
I0428 19:41:44.296887 24897 net.cpp:408] pool1 <- conv1
I0428 19:41:44.296896 24897 net.cpp:382] pool1 -> pool1
I0428 19:41:44.296954 24897 net.cpp:124] Setting up pool1
I0428 19:41:44.296963 24897 net.cpp:131] Top shape: 100 10 4 4 (16000)
I0428 19:41:44.296968 24897 net.cpp:139] Memory required for data: 1210800
I0428 19:41:44.296974 24897 layer_factory.hpp:77] Creating layer ip1
I0428 19:41:44.296986 24897 net.cpp:86] Creating Layer ip1
I0428 19:41:44.296993 24897 net.cpp:408] ip1 <- pool1
I0428 19:41:44.297001 24897 net.cpp:382] ip1 -> ip1
I0428 19:41:44.297132 24897 net.cpp:124] Setting up ip1
I0428 19:41:44.297142 24897 net.cpp:131] Top shape: 100 25 (2500)
I0428 19:41:44.297159 24897 net.cpp:139] Memory required for data: 1220800
I0428 19:41:44.297173 24897 layer_factory.hpp:77] Creating layer relu1
I0428 19:41:44.297183 24897 net.cpp:86] Creating Layer relu1
I0428 19:41:44.297188 24897 net.cpp:408] relu1 <- ip1
I0428 19:41:44.297196 24897 net.cpp:369] relu1 -> ip1 (in-place)
I0428 19:41:44.297454 24897 net.cpp:124] Setting up relu1
I0428 19:41:44.297464 24897 net.cpp:131] Top shape: 100 25 (2500)
I0428 19:41:44.297469 24897 net.cpp:139] Memory required for data: 1230800
I0428 19:41:44.297474 24897 layer_factory.hpp:77] Creating layer ip2
I0428 19:41:44.297485 24897 net.cpp:86] Creating Layer ip2
I0428 19:41:44.297492 24897 net.cpp:408] ip2 <- ip1
I0428 19:41:44.297499 24897 net.cpp:382] ip2 -> ip2
I0428 19:41:44.297601 24897 net.cpp:124] Setting up ip2
I0428 19:41:44.297610 24897 net.cpp:131] Top shape: 100 10 (1000)
I0428 19:41:44.297616 24897 net.cpp:139] Memory required for data: 1234800
I0428 19:41:44.297626 24897 layer_factory.hpp:77] Creating layer relu2
I0428 19:41:44.297633 24897 net.cpp:86] Creating Layer relu2
I0428 19:41:44.297639 24897 net.cpp:408] relu2 <- ip2
I0428 19:41:44.297646 24897 net.cpp:369] relu2 -> ip2 (in-place)
I0428 19:41:44.297842 24897 net.cpp:124] Setting up relu2
I0428 19:41:44.297852 24897 net.cpp:131] Top shape: 100 10 (1000)
I0428 19:41:44.297857 24897 net.cpp:139] Memory required for data: 1238800
I0428 19:41:44.297863 24897 layer_factory.hpp:77] Creating layer ip3
I0428 19:41:44.297873 24897 net.cpp:86] Creating Layer ip3
I0428 19:41:44.297878 24897 net.cpp:408] ip3 <- ip2
I0428 19:41:44.297886 24897 net.cpp:382] ip3 -> ip3
I0428 19:41:44.298018 24897 net.cpp:124] Setting up ip3
I0428 19:41:44.298027 24897 net.cpp:131] Top shape: 100 10 (1000)
I0428 19:41:44.298032 24897 net.cpp:139] Memory required for data: 1242800
I0428 19:41:44.298045 24897 layer_factory.hpp:77] Creating layer relu3
I0428 19:41:44.298054 24897 net.cpp:86] Creating Layer relu3
I0428 19:41:44.298060 24897 net.cpp:408] relu3 <- ip3
I0428 19:41:44.298068 24897 net.cpp:369] relu3 -> ip3 (in-place)
I0428 19:41:44.298914 24897 net.cpp:124] Setting up relu3
I0428 19:41:44.298928 24897 net.cpp:131] Top shape: 100 10 (1000)
I0428 19:41:44.298945 24897 net.cpp:139] Memory required for data: 1246800
I0428 19:41:44.298950 24897 layer_factory.hpp:77] Creating layer ip3_relu3_0_split
I0428 19:41:44.298959 24897 net.cpp:86] Creating Layer ip3_relu3_0_split
I0428 19:41:44.298964 24897 net.cpp:408] ip3_relu3_0_split <- ip3
I0428 19:41:44.298971 24897 net.cpp:382] ip3_relu3_0_split -> ip3_relu3_0_split_0
I0428 19:41:44.298991 24897 net.cpp:382] ip3_relu3_0_split -> ip3_relu3_0_split_1
I0428 19:41:44.299052 24897 net.cpp:124] Setting up ip3_relu3_0_split
I0428 19:41:44.299060 24897 net.cpp:131] Top shape: 100 10 (1000)
I0428 19:41:44.299067 24897 net.cpp:131] Top shape: 100 10 (1000)
I0428 19:41:44.299072 24897 net.cpp:139] Memory required for data: 1254800
I0428 19:41:44.299088 24897 layer_factory.hpp:77] Creating layer accuracy
I0428 19:41:44.299096 24897 net.cpp:86] Creating Layer accuracy
I0428 19:41:44.299101 24897 net.cpp:408] accuracy <- ip3_relu3_0_split_0
I0428 19:41:44.299109 24897 net.cpp:408] accuracy <- label_mnist_1_split_0
I0428 19:41:44.299118 24897 net.cpp:382] accuracy -> accuracy
…
